…
I0504 21:38:48.981937 30934 net.cpp:323] The NetState phase (0) differed from the phase (1) specified by a rule in layer intercept
I0504 21:38:48.981955 30934 net.cpp:323] The NetState phase (0) differed from the phase (1) specified by a rule in layer accuracy
I0504 21:38:48.982050 30934 net.cpp:52] Initializing net from parameters: 
state {
  phase: TRAIN
}
layer {
  name: "parameters"
  type: "HDF5Data"
  top: "data"
  top: "label"
  include {
    phase: TRAIN
  }
  hdf5_data_param {
    source: "/home/purduethu/scratch/radon/d/deng106/CNNStatisticalModel/distributions/input/50_distributions_900_sample_size_train-distributions-path.txt"
    batch_size: 20
  }
}
layer {
  name: "conv1"
  type: "Convolution"
  bottom: "data"
  top: "conv1"
  param {
    lr_mult: 1
  }
  param {
    lr_mult: 2
  }
  convolution_param {
    num_output: 64
    pad: 2
    kernel_size: 5
    stride: 1
    weight_filler {
      type: "gaussian"
      std: 0.0001
    }
    bias_filler {
      type: "constant"
    }
  }
}
layer {
  name: "relu1"
  type: "ReLU"
  bottom: "conv1"
  top: "conv1"
}
layer {
  name: "conv2"
  type: "Convolution"
  bottom: "conv1"
  top: "conv2"
  param {
    lr_mult: 1
  }
  param {
    lr_mult: 2
  }
  convolution_param {
    num_output: 64
    pad: 2
    kernel_size: 5
    stride: 1
    weight_filler {
      type: "gaussian"
      std: 0.01
    }
    bias_filler {
      type: "constant"
    }
  }
}
layer {
  name: "relu2"
  type: "ReLU"
  bottom: "conv2"
  top: "conv2"
}
layer {
  name: "pool2"
  type: "Pooling"
  bottom: "conv2"
  top: "pool2"
  pooling_param {
    pool: MAX
    kernel_size: 3
    stride: 2
  }
}
layer {
  name: "conv3"
  type: "Convolution"
  bottom: "pool2"
  top: "conv3"
  param {
    lr_mult: 1
  }
  param {
    lr_mult: 2
  }
  convolution_param {
    num_output: 64
    pad: 2
    kernel_size: 5
    stride: 1
    weight_filler {
      type: "gaussian"
      std: 0.01
    }
    bias_filler {
      type: "constant"
    }
  }
}
layer {
  name: "relu3"
  type: "ReLU"
  bottom: "conv3"
  top: "conv3"
}
layer {
  name: "conv4"
  type: "Convolution"
  bottom: "conv3"
  top: "conv4"
  param {
    lr_mult: 1
  }
  param {
    lr_mult: 2
  }
  convolution_param {
    num_output: 64
    pad: 2
    kernel_size: 5
    stride: 1
    weight_filler {
      type: "gaussian"
      std: 0.01
    }
    bias_filler {
      type: "constant"
    }
  }
}
layer {
  name: "relu4"
  type: "ReLU"
  bottom: "conv4"
  top: "conv4"
}
layer {
  name: "conv5"
  type: "Convolution"
  bottom: "conv4"
  top: "conv5"
  param {
    lr_mult: 1
  }
  param {
    lr_mult: 2
  }
  convolution_param {
    num_output: 64
    pad: 2
    kernel_size: 5
    stride: 1
    weight_filler {
      type: "gaussian"
      std: 0.01
    }
    bias_filler {
      type: "constant"
    }
  }
}
layer {
  name: "relu5"
  type: "ReLU"
  bottom: "conv5"
  top: "conv5"
}
layer {
  name: "pool5"
  type: "Pooling"
  bottom: "conv5"
  top: "pool5"
  pooling_param {
    pool: AVE
    kernel_size: 3
    stride: 2
  }
}
layer {
  name: "ip1"
  type: "InnerProduct"
  bottom: "pool5"
  top: "ip1"
  param {
    lr_mult: 1
  }
  param {
    lr_mult: 2
  }
  inner_product_param {
    num_output: 64
    weight_filler {
      type: "gaussian"
      std: 0.1
    }
    bias_filler {
      type: "constant"
    }
  }
}
layer {
  name: "ip2"
  type: "InnerProduct"
  bottom: "ip1"
  top: "ip2"
  param {
    lr_mult: 1
  }
  param {
    lr_mult: 2
  }
  inner_product_param {
    num_output: 64
    weight_filler {
      type: "gaussian"
      std: 0.1
    }
    bias_filler {
      type: "constant"
    }
  }
}
layer {
  name: "ip3"
  type: "InnerProduct"
  bottom: "ip2"
  top: "ip3"
  param {
    lr_mult: 1
  }
  param {
    lr_mult: 2
  }
  inner_product_param {
    num_output: 50
    weight_filler {
      type: "gaussian"
      std: 0.1
    }
    bias_filler {
      type: "constant"
    }
  }
}
layer {
  name: "loss"
  type: "SoftmaxWithLoss"
  bottom: "ip3"
  bottom: "label"
  top: "loss"
}
I0504 21:38:48.982131 30934 layer_factory.hpp:77] Creating layer parameters
I0504 21:38:48.982146 30934 net.cpp:94] Creating Layer parameters
I0504 21:38:48.982152 30934 net.cpp:409] parameters -> data
I0504 21:38:48.982174 30934 net.cpp:409] parameters -> label
I0504 21:38:48.982185 30934 hdf5_data_layer.cpp:79] Loading list of HDF5 filenames from: /home/purduethu/scratch/radon/d/deng106/CNNStatisticalModel/distributions/input/50_distributions_900_sample_size_train-distributions-path.txt
I0504 21:38:48.982214 30934 hdf5_data_layer.cpp:93] Number of HDF5 files: 1
I0504 21:38:48.982826 30934 hdf5.cpp:32] Datatype class: H5T_FLOAT
I0504 21:38:50.431521 30934 hdf5.cpp:35] Datatype class: H5T_INTEGER
I0504 21:38:50.434257 30934 net.cpp:144] Setting up parameters
I0504 21:38:50.434278 30934 net.cpp:151] Top shape: 20 1 30 30 (18000)
I0504 21:38:50.434283 30934 net.cpp:151] Top shape: 20 (20)
I0504 21:38:50.434286 30934 net.cpp:159] Memory required for data: 72080
I0504 21:38:50.434294 30934 layer_factory.hpp:77] Creating layer conv1
I0504 21:38:50.434314 30934 net.cpp:94] Creating Layer conv1
I0504 21:38:50.434319 30934 net.cpp:435] conv1 <- data
I0504 21:38:50.434331 30934 net.cpp:409] conv1 -> conv1
I0504 21:38:50.440398 30934 net.cpp:144] Setting up conv1
I0504 21:38:50.440439 30934 net.cpp:151] Top shape: 20 64 30 30 (1152000)
I0504 21:38:50.440457 30934 net.cpp:159] Memory required for data: 4680080
I0504 21:38:50.440469 30934 layer_factory.hpp:77] Creating layer relu1
I0504 21:38:50.440477 30934 net.cpp:94] Creating Layer relu1
I0504 21:38:50.440481 30934 net.cpp:435] relu1 <- conv1
I0504 21:38:50.440486 30934 net.cpp:396] relu1 -> conv1 (in-place)
I0504 21:38:50.440515 30934 net.cpp:144] Setting up relu1
I0504 21:38:50.440521 30934 net.cpp:151] Top shape: 20 64 30 30 (1152000)
I0504 21:38:50.440524 30934 net.cpp:159] Memory required for data: 9288080
I0504 21:38:50.440527 30934 layer_factory.hpp:77] Creating layer conv2
I0504 21:38:50.440536 30934 net.cpp:94] Creating Layer conv2
I0504 21:38:50.440538 30934 net.cpp:435] conv2 <- conv1
I0504 21:38:50.440543 30934 net.cpp:409] conv2 -> conv2
I0504 21:38:50.457455 30934 net.cpp:144] Setting up conv2
I0504 21:38:50.457471 30934 net.cpp:151] Top shape: 20 64 30 30 (1152000)
I0504 21:38:50.457475 30934 net.cpp:159] Memory required for data: 13896080
I0504 21:38:50.457484 30934 layer_factory.hpp:77] Creating layer relu2
I0504 21:38:50.457490 30934 net.cpp:94] Creating Layer relu2
I0504 21:38:50.457494 30934 net.cpp:435] relu2 <- conv2
I0504 21:38:50.457499 30934 net.cpp:396] relu2 -> conv2 (in-place)
I0504 21:38:50.457506 30934 net.cpp:144] Setting up relu2
I0504 21:38:50.457511 30934 net.cpp:151] Top shape: 20 64 30 30 (1152000)
I0504 21:38:50.457515 30934 net.cpp:159] Memory required for data: 18504080
I0504 21:38:50.457517 30934 layer_factory.hpp:77] Creating layer pool2
I0504 21:38:50.457531 30934 net.cpp:94] Creating Layer pool2
I0504 21:38:50.457536 30934 net.cpp:435] pool2 <- conv2
I0504 21:38:50.457540 30934 net.cpp:409] pool2 -> pool2
I0504 21:38:50.457595 30934 net.cpp:144] Setting up pool2
I0504 21:38:50.457602 30934 net.cpp:151] Top shape: 20 64 15 15 (288000)
I0504 21:38:50.457605 30934 net.cpp:159] Memory required for data: 19656080
I0504 21:38:50.457609 30934 layer_factory.hpp:77] Creating layer conv3
I0504 21:38:50.457617 30934 net.cpp:94] Creating Layer conv3
I0504 21:38:50.457620 30934 net.cpp:435] conv3 <- pool2
I0504 21:38:50.457633 30934 net.cpp:409] conv3 -> conv3
I0504 21:38:50.466492 30934 net.cpp:144] Setting up conv3
I0504 21:38:50.466508 30934 net.cpp:151] Top shape: 20 64 15 15 (288000)
I0504 21:38:50.466512 30934 net.cpp:159] Memory required for data: 20808080
I0504 21:38:50.466521 30934 layer_factory.hpp:77] Creating layer relu3
I0504 21:38:50.466527 30934 net.cpp:94] Creating Layer relu3
I0504 21:38:50.466531 30934 net.cpp:435] relu3 <- conv3
I0504 21:38:50.466536 30934 net.cpp:396] relu3 -> conv3 (in-place)
I0504 21:38:50.466543 30934 net.cpp:144] Setting up relu3
I0504 21:38:50.466547 30934 net.cpp:151] Top shape: 20 64 15 15 (288000)
I0504 21:38:50.466550 30934 net.cpp:159] Memory required for data: 21960080
I0504 21:38:50.466554 30934 layer_factory.hpp:77] Creating layer conv4
I0504 21:38:50.466562 30934 net.cpp:94] Creating Layer conv4
I0504 21:38:50.466567 30934 net.cpp:435] conv4 <- conv3
I0504 21:38:50.466572 30934 net.cpp:409] conv4 -> conv4
I0504 21:38:50.474697 30934 net.cpp:144] Setting up conv4
I0504 21:38:50.474736 30934 net.cpp:151] Top shape: 20 64 15 15 (288000)
I0504 21:38:50.474748 30934 net.cpp:159] Memory required for data: 23112080
I0504 21:38:50.474766 30934 layer_factory.hpp:77] Creating layer relu4
I0504 21:38:50.474782 30934 net.cpp:94] Creating Layer relu4
I0504 21:38:50.474793 30934 net.cpp:435] relu4 <- conv4
I0504 21:38:50.474807 30934 net.cpp:396] relu4 -> conv4 (in-place)
I0504 21:38:50.474828 30934 net.cpp:144] Setting up relu4
I0504 21:38:50.474841 30934 net.cpp:151] Top shape: 20 64 15 15 (288000)
I0504 21:38:50.474850 30934 net.cpp:159] Memory required for data: 24264080
I0504 21:38:50.474860 30934 layer_factory.hpp:77] Creating layer conv5
I0504 21:38:50.474880 30934 net.cpp:94] Creating Layer conv5
I0504 21:38:50.474891 30934 net.cpp:435] conv5 <- conv4
I0504 21:38:50.474905 30934 net.cpp:409] conv5 -> conv5
I0504 21:38:50.482933 30934 net.cpp:144] Setting up conv5
I0504 21:38:50.482949 30934 net.cpp:151] Top shape: 20 64 15 15 (288000)
I0504 21:38:50.482954 30934 net.cpp:159] Memory required for data: 25416080
I0504 21:38:50.482962 30934 layer_factory.hpp:77] Creating layer relu5
I0504 21:38:50.482969 30934 net.cpp:94] Creating Layer relu5
I0504 21:38:50.482973 30934 net.cpp:435] relu5 <- conv5
I0504 21:38:50.482978 30934 net.cpp:396] relu5 -> conv5 (in-place)
I0504 21:38:50.482985 30934 net.cpp:144] Setting up relu5
I0504 21:38:50.482990 30934 net.cpp:151] Top shape: 20 64 15 15 (288000)
I0504 21:38:50.482993 30934 net.cpp:159] Memory required for data: 26568080
I0504 21:38:50.482997 30934 layer_factory.hpp:77] Creating layer pool5
I0504 21:38:50.483002 30934 net.cpp:94] Creating Layer pool5
I0504 21:38:50.483006 30934 net.cpp:435] pool5 <- conv5
I0504 21:38:50.483011 30934 net.cpp:409] pool5 -> pool5
I0504 21:38:50.483045 30934 net.cpp:144] Setting up pool5
I0504 21:38:50.483053 30934 net.cpp:151] Top shape: 20 64 7 7 (62720)
I0504 21:38:50.483057 30934 net.cpp:159] Memory required for data: 26818960
I0504 21:38:50.483060 30934 layer_factory.hpp:77] Creating layer ip1
I0504 21:38:50.483067 30934 net.cpp:94] Creating Layer ip1
I0504 21:38:50.483072 30934 net.cpp:435] ip1 <- pool5
I0504 21:38:50.483077 30934 net.cpp:409] ip1 -> ip1
I0504 21:38:50.488847 30934 net.cpp:144] Setting up ip1
I0504 21:38:50.488862 30934 net.cpp:151] Top shape: 20 64 (1280)
I0504 21:38:50.488867 30934 net.cpp:159] Memory required for data: 26824080
I0504 21:38:50.488873 30934 layer_factory.hpp:77] Creating layer ip2
I0504 21:38:50.488883 30934 net.cpp:94] Creating Layer ip2
I0504 21:38:50.488888 30934 net.cpp:435] ip2 <- ip1
I0504 21:38:50.488893 30934 net.cpp:409] ip2 -> ip2
I0504 21:38:50.489071 30934 net.cpp:144] Setting up ip2
I0504 21:38:50.489079 30934 net.cpp:151] Top shape: 20 64 (1280)
I0504 21:38:50.489082 30934 net.cpp:159] Memory required for data: 26829200
I0504 21:38:50.489089 30934 layer_factory.hpp:77] Creating layer ip3
I0504 21:38:50.489094 30934 net.cpp:94] Creating Layer ip3
I0504 21:38:50.489099 30934 net.cpp:435] ip3 <- ip2
I0504 21:38:50.489104 30934 net.cpp:409] ip3 -> ip3
I0504 21:38:50.489259 30934 net.cpp:144] Setting up ip3
I0504 21:38:50.489267 30934 net.cpp:151] Top shape: 20 50 (1000)
I0504 21:38:50.489270 30934 net.cpp:159] Memory required for data: 26833200
I0504 21:38:50.489275 30934 layer_factory.hpp:77] Creating layer loss
I0504 21:38:50.489282 30934 net.cpp:94] Creating Layer loss
I0504 21:38:50.489286 30934 net.cpp:435] loss <- ip3
I0504 21:38:50.489290 30934 net.cpp:435] loss <- label
I0504 21:38:50.489296 30934 net.cpp:409] loss -> loss
I0504 21:38:50.489306 30934 layer_factory.hpp:77] Creating layer loss
…
I0504 21:38:50.489820 30934 solver.cpp:181] Creating test net (#0) specified by net file: ./protocol/dis_50_900_dimension.protocol_distribution
I0504 21:38:50.489847 30934 net.cpp:323] The NetState phase (1) differed from the phase (0) specified by a rule in layer parameters
I0504 21:38:50.489950 30934 net.cpp:52] Initializing net from parameters: 
state {
  phase: TEST
}
layer {
  name: "intercept"
  type: "HDF5Data"
  top: "data"
  top: "label"
  include {
    phase: TEST
  }
  hdf5_data_param {
    source: "/home/purduethu/scratch/radon/d/deng106/CNNStatisticalModel/distributions/input/50_distributions_900_sample_size_test-distributions-path.txt"
    batch_size: 20
  }
}
layer {
  name: "conv1"
  type: "Convolution"
  bottom: "data"
  top: "conv1"
  param {
    lr_mult: 1
  }
  param {
    lr_mult: 2
  }
  convolution_param {
    num_output: 64
    pad: 2
    kernel_size: 5
    stride: 1
    weight_filler {
      type: "gaussian"
      std: 0.0001
    }
    bias_filler {
      type: "constant"
    }
  }
}
layer {
  name: "relu1"
  type: "ReLU"
  bottom: "conv1"
  top: "conv1"
}
layer {
  name: "conv2"
  type: "Convolution"
  bottom: "conv1"
  top: "conv2"
  param {
    lr_mult: 1
  }
  param {
    lr_mult: 2
  }
  convolution_param {
    num_output: 64
    pad: 2
    kernel_size: 5
    stride: 1
    weight_filler {
      type: "gaussian"
      std: 0.01
    }
    bias_filler {
      type: "constant"
    }
  }
}
layer {
  name: "relu2"
  type: "ReLU"
  bottom: "conv2"
  top: "conv2"
}
layer {
  name: "pool2"
  type: "Pooling"
  bottom: "conv2"
  top: "pool2"
  pooling_param {
    pool: MAX
    kernel_size: 3
    stride: 2
  }
}
layer {
  name: "conv3"
  type: "Convolution"
  bottom: "pool2"
  top: "conv3"
  param {
    lr_mult: 1
  }
  param {
    lr_mult: 2
  }
  convolution_param {
    num_output: 64
    pad: 2
    kernel_size: 5
    stride: 1
    weight_filler {
      type: "gaussian"
      std: 0.01
    }
    bias_filler {
      type: "constant"
    }
  }
}
layer {
  name: "relu3"
  type: "ReLU"
  bottom: "conv3"
  top: "conv3"
}
layer {
  name: "conv4"
  type: "Convolution"
  bottom: "conv3"
  top: "conv4"
  param {
    lr_mult: 1
  }
  param {
    lr_mult: 2
  }
  convolution_param {
    num_output: 64
    pad: 2
    kernel_size: 5
    stride: 1
    weight_filler {
      type: "gaussian"
      std: 0.01
    }
    bias_filler {
      type: "constant"
    }
  }
}
layer {
  name: "relu4"
  type: "ReLU"
  bottom: "conv4"
  top: "conv4"
}
layer {
  name: "conv5"
  type: "Convolution"
  bottom: "conv4"
  top: "conv5"
  param {
    lr_mult: 1
  }
  param {
    lr_mult: 2
  }
  convolution_param {
    num_output: 64
    pad: 2
    kernel_size: 5
    stride: 1
    weight_filler {
      type: "gaussian"
      std: 0.01
    }
    bias_filler {
      type: "constant"
    }
  }
}
layer {
  name: "relu5"
  type: "ReLU"
  bottom: "conv5"
  top: "conv5"
}
layer {
  name: "pool5"
  type: "Pooling"
  bottom: "conv5"
  top: "pool5"
  pooling_param {
    pool: AVE
    kernel_size: 3
    stride: 2
  }
}
layer {
  name: "ip1"
  type: "InnerProduct"
  bottom: "pool5"
  top: "ip1"
  param {
    lr_mult: 1
  }
  param {
    lr_mult: 2
  }
  inner_product_param {
    num_output: 64
    weight_filler {
      type: "gaussian"
      std: 0.1
    }
    bias_filler {
      type: "constant"
    }
  }
}
layer {
  name: "ip2"
  type: "InnerProduct"
  bottom: "ip1"
  top: "ip2"
  param {
    lr_mult: 1
  }
  param {
    lr_mult: 2
  }
  inner_product_param {
    num_output: 64
    weight_filler {
      type: "gaussian"
      std: 0.1
    }
    bias_filler {
      type: "constant"
    }
  }
}
layer {
  name: "ip3"
  type: "InnerProduct"
  bottom: "ip2"
  top: "ip3"
  param {
    lr_mult: 1
  }
  param {
    lr_mult: 2
  }
  inner_product_param {
    num_output: 50
    weight_filler {
      type: "gaussian"
      std: 0.1
    }
    bias_filler {
      type: "constant"
    }
  }
}
layer {
  name: "accuracy"
  type: "Accuracy"
  bottom: "ip3"
  bottom: "label"
  top: "accuracy"
  include {
    phase: TEST
  }
}
layer {
  name: "loss"
  type: "SoftmaxWithLoss"
  bottom: "ip3"
  bottom: "label"
  top: "loss"
}
I0504 21:38:50.490026 30934 layer_factory.hpp:77] Creating layer intercept
I0504 21:38:50.490036 30934 net.cpp:94] Creating Layer intercept
I0504 21:38:50.490039 30934 net.cpp:409] intercept -> data
I0504 21:38:50.490046 30934 net.cpp:409] intercept -> label
I0504 21:38:50.490053 30934 hdf5_data_layer.cpp:79] Loading list of HDF5 filenames from: /home/purduethu/scratch/radon/d/deng106/CNNStatisticalModel/distributions/input/50_distributions_900_sample_size_test-distributions-path.txt
I0504 21:38:50.490077 30934 hdf5_data_layer.cpp:93] Number of HDF5 files: 1
I0504 21:38:50.836788 30934 net.cpp:144] Setting up intercept
I0504 21:38:50.836823 30934 net.cpp:151] Top shape: 20 1 30 30 (18000)
I0504 21:38:50.836829 30934 net.cpp:151] Top shape: 20 (20)
I0504 21:38:50.836833 30934 net.cpp:159] Memory required for data: 72080
I0504 21:38:50.836838 30934 layer_factory.hpp:77] Creating layer label_intercept_1_split
I0504 21:38:50.836850 30934 net.cpp:94] Creating Layer label_intercept_1_split
I0504 21:38:50.836854 30934 net.cpp:435] label_intercept_1_split <- label
I0504 21:38:50.836860 30934 net.cpp:409] label_intercept_1_split -> label_intercept_1_split_0
I0504 21:38:50.836869 30934 net.cpp:409] label_intercept_1_split -> label_intercept_1_split_1
I0504 21:38:50.836911 30934 net.cpp:144] Setting up label_intercept_1_split
I0504 21:38:50.836918 30934 net.cpp:151] Top shape: 20 (20)
I0504 21:38:50.836922 30934 net.cpp:151] Top shape: 20 (20)
I0504 21:38:50.836925 30934 net.cpp:159] Memory required for data: 72240
I0504 21:38:50.836928 30934 layer_factory.hpp:77] Creating layer conv1
I0504 21:38:50.836941 30934 net.cpp:94] Creating Layer conv1
I0504 21:38:50.836944 30934 net.cpp:435] conv1 <- data
I0504 21:38:50.836951 30934 net.cpp:409] conv1 -> conv1
I0504 21:38:50.838253 30934 net.cpp:144] Setting up conv1
I0504 21:38:50.838266 30934 net.cpp:151] Top shape: 20 64 30 30 (1152000)
I0504 21:38:50.838270 30934 net.cpp:159] Memory required for data: 4680240
I0504 21:38:50.838280 30934 layer_factory.hpp:77] Creating layer relu1
I0504 21:38:50.838287 30934 net.cpp:94] Creating Layer relu1
I0504 21:38:50.838290 30934 net.cpp:435] relu1 <- conv1
I0504 21:38:50.838295 30934 net.cpp:396] relu1 -> conv1 (in-place)
I0504 21:38:50.838304 30934 net.cpp:144] Setting up relu1
I0504 21:38:50.838307 30934 net.cpp:151] Top shape: 20 64 30 30 (1152000)
I0504 21:38:50.838310 30934 net.cpp:159] Memory required for data: 9288240
I0504 21:38:50.838313 30934 layer_factory.hpp:77] Creating layer conv2
I0504 21:38:50.838322 30934 net.cpp:94] Creating Layer conv2
I0504 21:38:50.838326 30934 net.cpp:435] conv2 <- conv1
I0504 21:38:50.838331 30934 net.cpp:409] conv2 -> conv2
I0504 21:38:50.845028 30934 net.cpp:144] Setting up conv2
I0504 21:38:50.845043 30934 net.cpp:151] Top shape: 20 64 30 30 (1152000)
I0504 21:38:50.845048 30934 net.cpp:159] Memory required for data: 13896240
I0504 21:38:50.845057 30934 layer_factory.hpp:77] Creating layer relu2
I0504 21:38:50.845062 30934 net.cpp:94] Creating Layer relu2
I0504 21:38:50.845067 30934 net.cpp:435] relu2 <- conv2
I0504 21:38:50.845072 30934 net.cpp:396] relu2 -> conv2 (in-place)
I0504 21:38:50.845078 30934 net.cpp:144] Setting up relu2
I0504 21:38:50.845083 30934 net.cpp:151] Top shape: 20 64 30 30 (1152000)
I0504 21:38:50.845087 30934 net.cpp:159] Memory required for data: 18504240
I0504 21:38:50.845089 30934 layer_factory.hpp:77] Creating layer pool2
I0504 21:38:50.845095 30934 net.cpp:94] Creating Layer pool2
I0504 21:38:50.845098 30934 net.cpp:435] pool2 <- conv2
I0504 21:38:50.845103 30934 net.cpp:409] pool2 -> pool2
I0504 21:38:50.845137 30934 net.cpp:144] Setting up pool2
I0504 21:38:50.845144 30934 net.cpp:151] Top shape: 20 64 15 15 (288000)
I0504 21:38:50.845147 30934 net.cpp:159] Memory required for data: 19656240
I0504 21:38:50.845161 30934 layer_factory.hpp:77] Creating layer conv3
I0504 21:38:50.845170 30934 net.cpp:94] Creating Layer conv3
I0504 21:38:50.845172 30934 net.cpp:435] conv3 <- pool2
I0504 21:38:50.845177 30934 net.cpp:409] conv3 -> conv3
I0504 21:38:50.850047 30934 net.cpp:144] Setting up conv3
I0504 21:38:50.850062 30934 net.cpp:151] Top shape: 20 64 15 15 (288000)
I0504 21:38:50.850067 30934 net.cpp:159] Memory required for data: 20808240
I0504 21:38:50.850075 30934 layer_factory.hpp:77] Creating layer relu3
I0504 21:38:50.850082 30934 net.cpp:94] Creating Layer relu3
I0504 21:38:50.850086 30934 net.cpp:435] relu3 <- conv3
I0504 21:38:50.850091 30934 net.cpp:396] relu3 -> conv3 (in-place)
I0504 21:38:50.850098 30934 net.cpp:144] Setting up relu3
I0504 21:38:50.850103 30934 net.cpp:151] Top shape: 20 64 15 15 (288000)
I0504 21:38:50.850106 30934 net.cpp:159] Memory required for data: 21960240
I0504 21:38:50.850109 30934 layer_factory.hpp:77] Creating layer conv4
I0504 21:38:50.850117 30934 net.cpp:94] Creating Layer conv4
I0504 21:38:50.850121 30934 net.cpp:435] conv4 <- conv3
I0504 21:38:50.850126 30934 net.cpp:409] conv4 -> conv4
I0504 21:38:50.854709 30934 net.cpp:144] Setting up conv4
I0504 21:38:50.854724 30934 net.cpp:151] Top shape: 20 64 15 15 (288000)
I0504 21:38:50.854729 30934 net.cpp:159] Memory required for data: 23112240
I0504 21:38:50.854735 30934 layer_factory.hpp:77] Creating layer relu4
I0504 21:38:50.854742 30934 net.cpp:94] Creating Layer relu4
I0504 21:38:50.854749 30934 net.cpp:435] relu4 <- conv4
I0504 21:38:50.854755 30934 net.cpp:396] relu4 -> conv4 (in-place)
I0504 21:38:50.854763 30934 net.cpp:144] Setting up relu4
I0504 21:38:50.854768 30934 net.cpp:151] Top shape: 20 64 15 15 (288000)
I0504 21:38:50.854770 30934 net.cpp:159] Memory required for data: 24264240
I0504 21:38:50.854774 30934 layer_factory.hpp:77] Creating layer conv5
I0504 21:38:50.854782 30934 net.cpp:94] Creating Layer conv5
I0504 21:38:50.854785 30934 net.cpp:435] conv5 <- conv4
I0504 21:38:50.854791 30934 net.cpp:409] conv5 -> conv5
I0504 21:38:50.860112 30934 net.cpp:144] Setting up conv5
I0504 21:38:50.860152 30934 net.cpp:151] Top shape: 20 64 15 15 (288000)
I0504 21:38:50.860163 30934 net.cpp:159] Memory required for data: 25416240
I0504 21:38:50.860190 30934 layer_factory.hpp:77] Creating layer relu5
I0504 21:38:50.860206 30934 net.cpp:94] Creating Layer relu5
I0504 21:38:50.860218 30934 net.cpp:435] relu5 <- conv5
I0504 21:38:50.860230 30934 net.cpp:396] relu5 -> conv5 (in-place)
I0504 21:38:50.860250 30934 net.cpp:144] Setting up relu5
I0504 21:38:50.860263 30934 net.cpp:151] Top shape: 20 64 15 15 (288000)
I0504 21:38:50.860272 30934 net.cpp:159] Memory required for data: 26568240
I0504 21:38:50.860285 30934 layer_factory.hpp:77] Creating layer pool5
I0504 21:38:50.860297 30934 net.cpp:94] Creating Layer pool5
I0504 21:38:50.860318 30934 net.cpp:435] pool5 <- conv5
I0504 21:38:50.860324 30934 net.cpp:409] pool5 -> pool5
I0504 21:38:50.860349 30934 net.cpp:144] Setting up pool5
I0504 21:38:50.860357 30934 net.cpp:151] Top shape: 20 64 7 7 (62720)
I0504 21:38:50.860359 30934 net.cpp:159] Memory required for data: 26819120
I0504 21:38:50.860363 30934 layer_factory.hpp:77] Creating layer ip1
I0504 21:38:50.860369 30934 net.cpp:94] Creating Layer ip1
I0504 21:38:50.860373 30934 net.cpp:435] ip1 <- pool5
I0504 21:38:50.860378 30934 net.cpp:409] ip1 -> ip1
I0504 21:38:50.865067 30934 net.cpp:144] Setting up ip1
I0504 21:38:50.865077 30934 net.cpp:151] Top shape: 20 64 (1280)
I0504 21:38:50.865080 30934 net.cpp:159] Memory required for data: 26824240
I0504 21:38:50.865085 30934 layer_factory.hpp:77] Creating layer ip2
I0504 21:38:50.865092 30934 net.cpp:94] Creating Layer ip2
I0504 21:38:50.865094 30934 net.cpp:435] ip2 <- ip1
I0504 21:38:50.865099 30934 net.cpp:409] ip2 -> ip2
I0504 21:38:50.865265 30934 net.cpp:144] Setting up ip2
I0504 21:38:50.865272 30934 net.cpp:151] Top shape: 20 64 (1280)
I0504 21:38:50.865275 30934 net.cpp:159] Memory required for data: 26829360
I0504 21:38:50.865279 30934 layer_factory.hpp:77] Creating layer ip3
I0504 21:38:50.865286 30934 net.cpp:94] Creating Layer ip3
I0504 21:38:50.865289 30934 net.cpp:435] ip3 <- ip2
I0504 21:38:50.865294 30934 net.cpp:409] ip3 -> ip3
I0504 21:38:50.865437 30934 net.cpp:144] Setting up ip3
I0504 21:38:50.865443 30934 net.cpp:151] Top shape: 20 50 (1000)
I0504 21:38:50.865447 30934 net.cpp:159] Memory required for data: 26833360
I0504 21:38:50.865450 30934 layer_factory.hpp:77] Creating layer ip3_ip3_0_split
I0504 21:38:50.865455 30934 net.cpp:94] Creating Layer ip3_ip3_0_split
I0504 21:38:50.865458 30934 net.cpp:435] ip3_ip3_0_split <- ip3
I0504 21:38:50.865463 30934 net.cpp:409] ip3_ip3_0_split -> ip3_ip3_0_split_0
I0504 21:38:50.865468 30934 net.cpp:409] ip3_ip3_0_split -> ip3_ip3_0_split_1
I0504 21:38:50.865490 30934 net.cpp:144] Setting up ip3_ip3_0_split
I0504 21:38:50.865496 30934 net.cpp:151] Top shape: 20 50 (1000)
I0504 21:38:50.865499 30934 net.cpp:151] Top shape: 20 50 (1000)
I0504 21:38:50.865502 30934 net.cpp:159] Memory required for data: 26841360
I0504 21:38:50.865505 30934 layer_factory.hpp:77] Creating layer accuracy
I0504 21:38:50.865516 30934 net.cpp:94] Creating Layer accuracy
I0504 21:38:50.865520 30934 net.cpp:435] accuracy <- ip3_ip3_0_split_0
I0504 21:38:50.865523 30934 net.cpp:435] accuracy <- label_intercept_1_split_0
I0504 21:38:50.865527 30934 net.cpp:409] accuracy -> accuracy
…
