…
I0505 05:05:04.259609  3461 net.cpp:323] The NetState phase (0) differed from the phase (1) specified by a rule in layer intercept
I0505 05:05:04.259624  3461 net.cpp:323] The NetState phase (0) differed from the phase (1) specified by a rule in layer accuracy
I0505 05:05:04.259698  3461 net.cpp:52] Initializing net from parameters: 
state {
  phase: TRAIN
}
layer {
  name: "parameters"
  type: "HDF5Data"
  top: "data"
  top: "label"
  include {
    phase: TRAIN
  }
  hdf5_data_param {
    source: "/home/purduethu/scratch/radon/d/deng106/CNNStatisticalModel/distributions/input/50_distributions_100_sample_size_train-distributions-path.txt"
    batch_size: 20
  }
}
layer {
  name: "conv1"
  type: "Convolution"
  bottom: "data"
  top: "conv1"
  param {
    lr_mult: 1
  }
  param {
    lr_mult: 2
  }
  convolution_param {
    num_output: 64
    pad: 2
    kernel_size: 5
    stride: 1
    weight_filler {
      type: "gaussian"
      std: 0.0001
    }
    bias_filler {
      type: "constant"
    }
  }
}
layer {
  name: "relu1"
  type: "ReLU"
  bottom: "conv1"
  top: "conv1"
}
layer {
  name: "pool1"
  type: "Pooling"
  bottom: "conv1"
  top: "pool1"
  pooling_param {
    pool: MAX
    kernel_size: 3
    stride: 2
  }
}
layer {
  name: "conv2"
  type: "Convolution"
  bottom: "pool1"
  top: "conv2"
  param {
    lr_mult: 1
  }
  param {
    lr_mult: 2
  }
  convolution_param {
    num_output: 128
    pad: 2
    kernel_size: 5
    stride: 1
    weight_filler {
      type: "gaussian"
      std: 0.01
    }
    bias_filler {
      type: "constant"
    }
  }
}
layer {
  name: "relu2"
  type: "ReLU"
  bottom: "conv2"
  top: "conv2"
}
layer {
  name: "conv3"
  type: "Convolution"
  bottom: "conv2"
  top: "conv3"
  param {
    lr_mult: 1
  }
  param {
    lr_mult: 2
  }
  convolution_param {
    num_output: 128
    pad: 2
    kernel_size: 5
    stride: 1
    weight_filler {
      type: "gaussian"
      std: 0.01
    }
    bias_filler {
      type: "constant"
    }
  }
}
layer {
  name: "relu3"
  type: "ReLU"
  bottom: "conv3"
  top: "conv3"
}
layer {
  name: "pool3"
  type: "Pooling"
  bottom: "conv3"
  top: "pool3"
  pooling_param {
    pool: AVE
    kernel_size: 3
    stride: 2
  }
}
layer {
  name: "ip1"
  type: "InnerProduct"
  bottom: "pool3"
  top: "ip1"
  param {
    lr_mult: 1
  }
  param {
    lr_mult: 2
  }
  inner_product_param {
    num_output: 512
    weight_filler {
      type: "gaussian"
      std: 0.1
    }
    bias_filler {
      type: "constant"
    }
  }
}
layer {
  name: "ip2"
  type: "InnerProduct"
  bottom: "ip1"
  top: "ip2"
  param {
    lr_mult: 1
  }
  param {
    lr_mult: 2
  }
  inner_product_param {
    num_output: 256
    weight_filler {
      type: "gaussian"
      std: 0.1
    }
    bias_filler {
      type: "constant"
    }
  }
}
layer {
  name: "ip3"
  type: "InnerProduct"
  bottom: "ip2"
  top: "ip3"
  param {
    lr_mult: 1
  }
  param {
    lr_mult: 2
  }
  inner_product_param {
    num_output: 50
    weight_filler {
      type: "gaussian"
      std: 0.1
    }
    bias_filler {
      type: "constant"
    }
  }
}
layer {
  name: "loss"
  type: "SoftmaxWithLoss"
  bottom: "ip3"
  bottom: "label"
  top: "loss"
}
I0505 05:05:04.259758  3461 layer_factory.hpp:77] Creating layer parameters
I0505 05:05:04.259773  3461 net.cpp:94] Creating Layer parameters
I0505 05:05:04.259785  3461 net.cpp:409] parameters -> data
I0505 05:05:04.259804  3461 net.cpp:409] parameters -> label
I0505 05:05:04.259814  3461 hdf5_data_layer.cpp:79] Loading list of HDF5 filenames from: /home/purduethu/scratch/radon/d/deng106/CNNStatisticalModel/distributions/input/50_distributions_100_sample_size_train-distributions-path.txt
I0505 05:05:04.259835  3461 hdf5_data_layer.cpp:93] Number of HDF5 files: 1
I0505 05:05:04.260383  3461 hdf5.cpp:32] Datatype class: H5T_FLOAT
I0505 05:05:04.414369  3461 hdf5.cpp:35] Datatype class: H5T_INTEGER
I0505 05:05:04.417094  3461 net.cpp:144] Setting up parameters
I0505 05:05:04.417119  3461 net.cpp:151] Top shape: 20 1 10 10 (2000)
I0505 05:05:04.417124  3461 net.cpp:151] Top shape: 20 (20)
I0505 05:05:04.417127  3461 net.cpp:159] Memory required for data: 8080
I0505 05:05:04.417135  3461 layer_factory.hpp:77] Creating layer conv1
I0505 05:05:04.417152  3461 net.cpp:94] Creating Layer conv1
I0505 05:05:04.417158  3461 net.cpp:435] conv1 <- data
I0505 05:05:04.417171  3461 net.cpp:409] conv1 -> conv1
I0505 05:05:04.420954  3461 net.cpp:144] Setting up conv1
I0505 05:05:04.420970  3461 net.cpp:151] Top shape: 20 64 10 10 (128000)
I0505 05:05:04.420974  3461 net.cpp:159] Memory required for data: 520080
I0505 05:05:04.420985  3461 layer_factory.hpp:77] Creating layer relu1
I0505 05:05:04.420994  3461 net.cpp:94] Creating Layer relu1
I0505 05:05:04.420999  3461 net.cpp:435] relu1 <- conv1
I0505 05:05:04.421002  3461 net.cpp:396] relu1 -> conv1 (in-place)
I0505 05:05:04.421015  3461 net.cpp:144] Setting up relu1
I0505 05:05:04.421020  3461 net.cpp:151] Top shape: 20 64 10 10 (128000)
I0505 05:05:04.421022  3461 net.cpp:159] Memory required for data: 1032080
I0505 05:05:04.421025  3461 layer_factory.hpp:77] Creating layer pool1
I0505 05:05:04.421032  3461 net.cpp:94] Creating Layer pool1
I0505 05:05:04.421036  3461 net.cpp:435] pool1 <- conv1
I0505 05:05:04.421041  3461 net.cpp:409] pool1 -> pool1
I0505 05:05:04.421088  3461 net.cpp:144] Setting up pool1
I0505 05:05:04.421095  3461 net.cpp:151] Top shape: 20 64 5 5 (32000)
I0505 05:05:04.421099  3461 net.cpp:159] Memory required for data: 1160080
I0505 05:05:04.421103  3461 layer_factory.hpp:77] Creating layer conv2
I0505 05:05:04.421111  3461 net.cpp:94] Creating Layer conv2
I0505 05:05:04.421114  3461 net.cpp:435] conv2 <- pool1
I0505 05:05:04.421119  3461 net.cpp:409] conv2 -> conv2
I0505 05:05:04.429739  3461 net.cpp:144] Setting up conv2
I0505 05:05:04.429754  3461 net.cpp:151] Top shape: 20 128 5 5 (64000)
I0505 05:05:04.429759  3461 net.cpp:159] Memory required for data: 1416080
I0505 05:05:04.429766  3461 layer_factory.hpp:77] Creating layer relu2
I0505 05:05:04.429774  3461 net.cpp:94] Creating Layer relu2
I0505 05:05:04.429777  3461 net.cpp:435] relu2 <- conv2
I0505 05:05:04.429781  3461 net.cpp:396] relu2 -> conv2 (in-place)
I0505 05:05:04.429788  3461 net.cpp:144] Setting up relu2
I0505 05:05:04.429793  3461 net.cpp:151] Top shape: 20 128 5 5 (64000)
I0505 05:05:04.429796  3461 net.cpp:159] Memory required for data: 1672080
I0505 05:05:04.429800  3461 layer_factory.hpp:77] Creating layer conv3
I0505 05:05:04.429807  3461 net.cpp:94] Creating Layer conv3
I0505 05:05:04.429811  3461 net.cpp:435] conv3 <- conv2
I0505 05:05:04.429816  3461 net.cpp:409] conv3 -> conv3
I0505 05:05:04.444382  3461 net.cpp:144] Setting up conv3
I0505 05:05:04.444397  3461 net.cpp:151] Top shape: 20 128 5 5 (64000)
I0505 05:05:04.444401  3461 net.cpp:159] Memory required for data: 1928080
I0505 05:05:04.444411  3461 layer_factory.hpp:77] Creating layer relu3
I0505 05:05:04.444422  3461 net.cpp:94] Creating Layer relu3
I0505 05:05:04.444427  3461 net.cpp:435] relu3 <- conv3
I0505 05:05:04.444432  3461 net.cpp:396] relu3 -> conv3 (in-place)
I0505 05:05:04.444438  3461 net.cpp:144] Setting up relu3
I0505 05:05:04.444443  3461 net.cpp:151] Top shape: 20 128 5 5 (64000)
I0505 05:05:04.444447  3461 net.cpp:159] Memory required for data: 2184080
I0505 05:05:04.444449  3461 layer_factory.hpp:77] Creating layer pool3
I0505 05:05:04.444456  3461 net.cpp:94] Creating Layer pool3
I0505 05:05:04.444466  3461 net.cpp:435] pool3 <- conv3
I0505 05:05:04.444471  3461 net.cpp:409] pool3 -> pool3
I0505 05:05:04.444504  3461 net.cpp:144] Setting up pool3
I0505 05:05:04.444511  3461 net.cpp:151] Top shape: 20 128 2 2 (10240)
I0505 05:05:04.444515  3461 net.cpp:159] Memory required for data: 2225040
I0505 05:05:04.444519  3461 layer_factory.hpp:77] Creating layer ip1
I0505 05:05:04.444528  3461 net.cpp:94] Creating Layer ip1
I0505 05:05:04.444532  3461 net.cpp:435] ip1 <- pool3
I0505 05:05:04.444537  3461 net.cpp:409] ip1 -> ip1
I0505 05:05:04.451337  3461 net.cpp:144] Setting up ip1
I0505 05:05:04.451350  3461 net.cpp:151] Top shape: 20 512 (10240)
I0505 05:05:04.451354  3461 net.cpp:159] Memory required for data: 2266000
I0505 05:05:04.451360  3461 layer_factory.hpp:77] Creating layer ip2
I0505 05:05:04.451367  3461 net.cpp:94] Creating Layer ip2
I0505 05:05:04.451371  3461 net.cpp:435] ip2 <- ip1
I0505 05:05:04.451377  3461 net.cpp:409] ip2 -> ip2
I0505 05:05:04.455099  3461 net.cpp:144] Setting up ip2
I0505 05:05:04.455112  3461 net.cpp:151] Top shape: 20 256 (5120)
I0505 05:05:04.455116  3461 net.cpp:159] Memory required for data: 2286480
I0505 05:05:04.455124  3461 layer_factory.hpp:77] Creating layer ip3
I0505 05:05:04.455132  3461 net.cpp:94] Creating Layer ip3
I0505 05:05:04.455134  3461 net.cpp:435] ip3 <- ip2
I0505 05:05:04.455139  3461 net.cpp:409] ip3 -> ip3
I0505 05:05:04.456115  3461 net.cpp:144] Setting up ip3
I0505 05:05:04.456128  3461 net.cpp:151] Top shape: 20 50 (1000)
I0505 05:05:04.456131  3461 net.cpp:159] Memory required for data: 2290480
I0505 05:05:04.456137  3461 layer_factory.hpp:77] Creating layer loss
I0505 05:05:04.456143  3461 net.cpp:94] Creating Layer loss
I0505 05:05:04.456147  3461 net.cpp:435] loss <- ip3
I0505 05:05:04.456151  3461 net.cpp:435] loss <- label
I0505 05:05:04.456157  3461 net.cpp:409] loss -> loss
I0505 05:05:04.456168  3461 layer_factory.hpp:77] Creating layer loss
…
I0505 05:05:04.456591  3461 solver.cpp:181] Creating test net (#0) specified by net file: ./protocol/dis_50_100_dimension.protocol_distribution
I0505 05:05:04.456616  3461 net.cpp:323] The NetState phase (1) differed from the phase (0) specified by a rule in layer parameters
I0505 05:05:04.456702  3461 net.cpp:52] Initializing net from parameters: 
state {
  phase: TEST
}
layer {
  name: "intercept"
  type: "HDF5Data"
  top: "data"
  top: "label"
  include {
    phase: TEST
  }
  hdf5_data_param {
    source: "/home/purduethu/scratch/radon/d/deng106/CNNStatisticalModel/distributions/input/50_distributions_100_sample_size_test-distributions-path.txt"
    batch_size: 20
  }
}
layer {
  name: "conv1"
  type: "Convolution"
  bottom: "data"
  top: "conv1"
  param {
    lr_mult: 1
  }
  param {
    lr_mult: 2
  }
  convolution_param {
    num_output: 64
    pad: 2
    kernel_size: 5
    stride: 1
    weight_filler {
      type: "gaussian"
      std: 0.0001
    }
    bias_filler {
      type: "constant"
    }
  }
}
layer {
  name: "relu1"
  type: "ReLU"
  bottom: "conv1"
  top: "conv1"
}
layer {
  name: "pool1"
  type: "Pooling"
  bottom: "conv1"
  top: "pool1"
  pooling_param {
    pool: MAX
    kernel_size: 3
    stride: 2
  }
}
layer {
  name: "conv2"
  type: "Convolution"
  bottom: "pool1"
  top: "conv2"
  param {
    lr_mult: 1
  }
  param {
    lr_mult: 2
  }
  convolution_param {
    num_output: 128
    pad: 2
    kernel_size: 5
    stride: 1
    weight_filler {
      type: "gaussian"
      std: 0.01
    }
    bias_filler {
      type: "constant"
    }
  }
}
layer {
  name: "relu2"
  type: "ReLU"
  bottom: "conv2"
  top: "conv2"
}
layer {
  name: "conv3"
  type: "Convolution"
  bottom: "conv2"
  top: "conv3"
  param {
    lr_mult: 1
  }
  param {
    lr_mult: 2
  }
  convolution_param {
    num_output: 128
    pad: 2
    kernel_size: 5
    stride: 1
    weight_filler {
      type: "gaussian"
      std: 0.01
    }
    bias_filler {
      type: "constant"
    }
  }
}
layer {
  name: "relu3"
  type: "ReLU"
  bottom: "conv3"
  top: "conv3"
}
layer {
  name: "pool3"
  type: "Pooling"
  bottom: "conv3"
  top: "pool3"
  pooling_param {
    pool: AVE
    kernel_size: 3
    stride: 2
  }
}
layer {
  name: "ip1"
  type: "InnerProduct"
  bottom: "pool3"
  top: "ip1"
  param {
    lr_mult: 1
  }
  param {
    lr_mult: 2
  }
  inner_product_param {
    num_output: 512
    weight_filler {
      type: "gaussian"
      std: 0.1
    }
    bias_filler {
      type: "constant"
    }
  }
}
layer {
  name: "ip2"
  type: "InnerProduct"
  bottom: "ip1"
  top: "ip2"
  param {
    lr_mult: 1
  }
  param {
    lr_mult: 2
  }
  inner_product_param {
    num_output: 256
    weight_filler {
      type: "gaussian"
      std: 0.1
    }
    bias_filler {
      type: "constant"
    }
  }
}
layer {
  name: "ip3"
  type: "InnerProduct"
  bottom: "ip2"
  top: "ip3"
  param {
    lr_mult: 1
  }
  param {
    lr_mult: 2
  }
  inner_product_param {
    num_output: 50
    weight_filler {
      type: "gaussian"
      std: 0.1
    }
    bias_filler {
      type: "constant"
    }
  }
}
layer {
  name: "accuracy"
  type: "Accuracy"
  bottom: "ip3"
  bottom: "label"
  top: "accuracy"
  include {
    phase: TEST
  }
}
layer {
  name: "loss"
  type: "SoftmaxWithLoss"
  bottom: "ip3"
  bottom: "label"
  top: "loss"
}
I0505 05:05:04.456768  3461 layer_factory.hpp:77] Creating layer intercept
I0505 05:05:04.456775  3461 net.cpp:94] Creating Layer intercept
I0505 05:05:04.456779  3461 net.cpp:409] intercept -> data
I0505 05:05:04.456786  3461 net.cpp:409] intercept -> label
I0505 05:05:04.456792  3461 hdf5_data_layer.cpp:79] Loading list of HDF5 filenames from: /home/purduethu/scratch/radon/d/deng106/CNNStatisticalModel/distributions/input/50_distributions_100_sample_size_test-distributions-path.txt
I0505 05:05:04.456812  3461 hdf5_data_layer.cpp:93] Number of HDF5 files: 1
I0505 05:05:04.496726  3461 net.cpp:144] Setting up intercept
I0505 05:05:04.496760  3461 net.cpp:151] Top shape: 20 1 10 10 (2000)
I0505 05:05:04.496767  3461 net.cpp:151] Top shape: 20 (20)
I0505 05:05:04.496769  3461 net.cpp:159] Memory required for data: 8080
I0505 05:05:04.496775  3461 layer_factory.hpp:77] Creating layer label_intercept_1_split
I0505 05:05:04.496794  3461 net.cpp:94] Creating Layer label_intercept_1_split
I0505 05:05:04.496806  3461 net.cpp:435] label_intercept_1_split <- label
I0505 05:05:04.496814  3461 net.cpp:409] label_intercept_1_split -> label_intercept_1_split_0
I0505 05:05:04.496822  3461 net.cpp:409] label_intercept_1_split -> label_intercept_1_split_1
I0505 05:05:04.496850  3461 net.cpp:144] Setting up label_intercept_1_split
I0505 05:05:04.496856  3461 net.cpp:151] Top shape: 20 (20)
I0505 05:05:04.496860  3461 net.cpp:151] Top shape: 20 (20)
I0505 05:05:04.496863  3461 net.cpp:159] Memory required for data: 8240
I0505 05:05:04.496876  3461 layer_factory.hpp:77] Creating layer conv1
I0505 05:05:04.496887  3461 net.cpp:94] Creating Layer conv1
I0505 05:05:04.496891  3461 net.cpp:435] conv1 <- data
I0505 05:05:04.496896  3461 net.cpp:409] conv1 -> conv1
I0505 05:05:04.497588  3461 net.cpp:144] Setting up conv1
I0505 05:05:04.497601  3461 net.cpp:151] Top shape: 20 64 10 10 (128000)
I0505 05:05:04.497606  3461 net.cpp:159] Memory required for data: 520240
I0505 05:05:04.497614  3461 layer_factory.hpp:77] Creating layer relu1
I0505 05:05:04.497622  3461 net.cpp:94] Creating Layer relu1
I0505 05:05:04.497625  3461 net.cpp:435] relu1 <- conv1
I0505 05:05:04.497629  3461 net.cpp:396] relu1 -> conv1 (in-place)
I0505 05:05:04.497637  3461 net.cpp:144] Setting up relu1
I0505 05:05:04.497642  3461 net.cpp:151] Top shape: 20 64 10 10 (128000)
I0505 05:05:04.497644  3461 net.cpp:159] Memory required for data: 1032240
I0505 05:05:04.497648  3461 layer_factory.hpp:77] Creating layer pool1
I0505 05:05:04.497654  3461 net.cpp:94] Creating Layer pool1
I0505 05:05:04.497658  3461 net.cpp:435] pool1 <- conv1
I0505 05:05:04.497663  3461 net.cpp:409] pool1 -> pool1
I0505 05:05:04.497699  3461 net.cpp:144] Setting up pool1
I0505 05:05:04.497705  3461 net.cpp:151] Top shape: 20 64 5 5 (32000)
I0505 05:05:04.497709  3461 net.cpp:159] Memory required for data: 1160240
I0505 05:05:04.497712  3461 layer_factory.hpp:77] Creating layer conv2
I0505 05:05:04.497720  3461 net.cpp:94] Creating Layer conv2
I0505 05:05:04.497723  3461 net.cpp:435] conv2 <- pool1
I0505 05:05:04.497728  3461 net.cpp:409] conv2 -> conv2
I0505 05:05:04.504192  3461 net.cpp:144] Setting up conv2
I0505 05:05:04.504206  3461 net.cpp:151] Top shape: 20 128 5 5 (64000)
I0505 05:05:04.504210  3461 net.cpp:159] Memory required for data: 1416240
I0505 05:05:04.504218  3461 layer_factory.hpp:77] Creating layer relu2
I0505 05:05:04.504225  3461 net.cpp:94] Creating Layer relu2
I0505 05:05:04.504228  3461 net.cpp:435] relu2 <- conv2
I0505 05:05:04.504233  3461 net.cpp:396] relu2 -> conv2 (in-place)
I0505 05:05:04.504240  3461 net.cpp:144] Setting up relu2
I0505 05:05:04.504245  3461 net.cpp:151] Top shape: 20 128 5 5 (64000)
I0505 05:05:04.504247  3461 net.cpp:159] Memory required for data: 1672240
I0505 05:05:04.504251  3461 layer_factory.hpp:77] Creating layer conv3
I0505 05:05:04.504258  3461 net.cpp:94] Creating Layer conv3
I0505 05:05:04.504262  3461 net.cpp:435] conv3 <- conv2
I0505 05:05:04.504267  3461 net.cpp:409] conv3 -> conv3
I0505 05:05:04.516306  3461 net.cpp:144] Setting up conv3
I0505 05:05:04.516320  3461 net.cpp:151] Top shape: 20 128 5 5 (64000)
I0505 05:05:04.516324  3461 net.cpp:159] Memory required for data: 1928240
I0505 05:05:04.516332  3461 layer_factory.hpp:77] Creating layer relu3
I0505 05:05:04.516340  3461 net.cpp:94] Creating Layer relu3
I0505 05:05:04.516343  3461 net.cpp:435] relu3 <- conv3
I0505 05:05:04.516348  3461 net.cpp:396] relu3 -> conv3 (in-place)
I0505 05:05:04.516355  3461 net.cpp:144] Setting up relu3
I0505 05:05:04.516360  3461 net.cpp:151] Top shape: 20 128 5 5 (64000)
I0505 05:05:04.516363  3461 net.cpp:159] Memory required for data: 2184240
I0505 05:05:04.516366  3461 layer_factory.hpp:77] Creating layer pool3
I0505 05:05:04.516371  3461 net.cpp:94] Creating Layer pool3
I0505 05:05:04.516374  3461 net.cpp:435] pool3 <- conv3
I0505 05:05:04.516378  3461 net.cpp:409] pool3 -> pool3
I0505 05:05:04.516403  3461 net.cpp:144] Setting up pool3
I0505 05:05:04.516410  3461 net.cpp:151] Top shape: 20 128 2 2 (10240)
I0505 05:05:04.516417  3461 net.cpp:159] Memory required for data: 2225200
I0505 05:05:04.516422  3461 layer_factory.hpp:77] Creating layer ip1
I0505 05:05:04.516428  3461 net.cpp:94] Creating Layer ip1
I0505 05:05:04.516432  3461 net.cpp:435] ip1 <- pool3
I0505 05:05:04.516436  3461 net.cpp:409] ip1 -> ip1
I0505 05:05:04.523190  3461 net.cpp:144] Setting up ip1
I0505 05:05:04.523203  3461 net.cpp:151] Top shape: 20 512 (10240)
I0505 05:05:04.523207  3461 net.cpp:159] Memory required for data: 2266160
I0505 05:05:04.523219  3461 layer_factory.hpp:77] Creating layer ip2
I0505 05:05:04.523226  3461 net.cpp:94] Creating Layer ip2
I0505 05:05:04.523231  3461 net.cpp:435] ip2 <- ip1
I0505 05:05:04.523236  3461 net.cpp:409] ip2 -> ip2
I0505 05:05:04.526316  3461 net.cpp:144] Setting up ip2
I0505 05:05:04.526326  3461 net.cpp:151] Top shape: 20 256 (5120)
I0505 05:05:04.526330  3461 net.cpp:159] Memory required for data: 2286640
I0505 05:05:04.526337  3461 layer_factory.hpp:77] Creating layer ip3
I0505 05:05:04.526343  3461 net.cpp:94] Creating Layer ip3
I0505 05:05:04.526347  3461 net.cpp:435] ip3 <- ip2
I0505 05:05:04.526352  3461 net.cpp:409] ip3 -> ip3
I0505 05:05:04.526717  3461 net.cpp:144] Setting up ip3
I0505 05:05:04.526724  3461 net.cpp:151] Top shape: 20 50 (1000)
I0505 05:05:04.526728  3461 net.cpp:159] Memory required for data: 2290640
I0505 05:05:04.526733  3461 layer_factory.hpp:77] Creating layer ip3_ip3_0_split
I0505 05:05:04.526738  3461 net.cpp:94] Creating Layer ip3_ip3_0_split
I0505 05:05:04.526742  3461 net.cpp:435] ip3_ip3_0_split <- ip3
I0505 05:05:04.526746  3461 net.cpp:409] ip3_ip3_0_split -> ip3_ip3_0_split_0
I0505 05:05:04.526752  3461 net.cpp:409] ip3_ip3_0_split -> ip3_ip3_0_split_1
I0505 05:05:04.526777  3461 net.cpp:144] Setting up ip3_ip3_0_split
I0505 05:05:04.526782  3461 net.cpp:151] Top shape: 20 50 (1000)
I0505 05:05:04.526785  3461 net.cpp:151] Top shape: 20 50 (1000)
I0505 05:05:04.526788  3461 net.cpp:159] Memory required for data: 2298640
I0505 05:05:04.526792  3461 layer_factory.hpp:77] Creating layer accuracy
I0505 05:05:04.526796  3461 net.cpp:94] Creating Layer accuracy
I0505 05:05:04.526800  3461 net.cpp:435] accuracy <- ip3_ip3_0_split_0
I0505 05:05:04.526803  3461 net.cpp:435] accuracy <- label_intercept_1_split_0
I0505 05:05:04.526808  3461 net.cpp:409] accuracy -> accuracy
…
