…
I0507 04:58:01.421713 31454 net.cpp:323] The NetState phase (0) differed from the phase (1) specified by a rule in layer intercept
I0507 04:58:01.421730 31454 net.cpp:323] The NetState phase (0) differed from the phase (1) specified by a rule in layer loss
I0507 04:58:01.421810 31454 net.cpp:52] Initializing net from parameters: 
state {
  phase: TRAIN
}
layer {
  name: "parameters"
  type: "HDF5Data"
  top: "data"
  top: "label"
  include {
    phase: TRAIN
  }
  hdf5_data_param {
    source: "/home/purduethu/scratch/radon/d/deng106/CNNStatisticalModel/distributions/input/50_distributions_100_sample_size_train-parameters-path.txt"
    batch_size: 20
  }
}
layer {
  name: "conv1"
  type: "Convolution"
  bottom: "data"
  top: "conv1"
  param {
    lr_mult: 1
  }
  param {
    lr_mult: 2
  }
  convolution_param {
    num_output: 64
    pad: 2
    kernel_size: 5
    stride: 1
    weight_filler {
      type: "gaussian"
      std: 0.0001
    }
    bias_filler {
      type: "constant"
    }
  }
}
layer {
  name: "relu1"
  type: "ReLU"
  bottom: "conv1"
  top: "conv1"
}
layer {
  name: "conv2"
  type: "Convolution"
  bottom: "conv1"
  top: "conv2"
  param {
    lr_mult: 1
  }
  param {
    lr_mult: 2
  }
  convolution_param {
    num_output: 64
    pad: 2
    kernel_size: 5
    stride: 1
    weight_filler {
      type: "gaussian"
      std: 0.01
    }
    bias_filler {
      type: "constant"
    }
  }
}
layer {
  name: "relu2"
  type: "ReLU"
  bottom: "conv2"
  top: "conv2"
}
layer {
  name: "pool2"
  type: "Pooling"
  bottom: "conv2"
  top: "pool2"
  pooling_param {
    pool: MAX
    kernel_size: 3
    stride: 2
  }
}
layer {
  name: "conv3"
  type: "Convolution"
  bottom: "pool2"
  top: "conv3"
  param {
    lr_mult: 1
  }
  param {
    lr_mult: 2
  }
  convolution_param {
    num_output: 64
    pad: 2
    kernel_size: 5
    stride: 1
    weight_filler {
      type: "gaussian"
      std: 0.01
    }
    bias_filler {
      type: "constant"
    }
  }
}
layer {
  name: "relu3"
  type: "ReLU"
  bottom: "conv3"
  top: "conv3"
}
layer {
  name: "conv4"
  type: "Convolution"
  bottom: "conv3"
  top: "conv4"
  param {
    lr_mult: 1
  }
  param {
    lr_mult: 2
  }
  convolution_param {
    num_output: 64
    pad: 2
    kernel_size: 5
    stride: 1
    weight_filler {
      type: "gaussian"
      std: 0.01
    }
    bias_filler {
      type: "constant"
    }
  }
}
layer {
  name: "relu4"
  type: "ReLU"
  bottom: "conv4"
  top: "conv4"
}
layer {
  name: "conv5"
  type: "Convolution"
  bottom: "conv4"
  top: "conv5"
  param {
    lr_mult: 1
  }
  param {
    lr_mult: 2
  }
  convolution_param {
    num_output: 64
    pad: 2
    kernel_size: 5
    stride: 1
    weight_filler {
      type: "gaussian"
      std: 0.01
    }
    bias_filler {
      type: "constant"
    }
  }
}
layer {
  name: "relu5"
  type: "ReLU"
  bottom: "conv5"
  top: "conv5"
}
layer {
  name: "pool5"
  type: "Pooling"
  bottom: "conv5"
  top: "pool5"
  pooling_param {
    pool: AVE
    kernel_size: 3
    stride: 2
  }
}
layer {
  name: "ip1"
  type: "InnerProduct"
  bottom: "pool5"
  top: "ip1"
  param {
    lr_mult: 1
  }
  param {
    lr_mult: 2
  }
  inner_product_param {
    num_output: 64
    weight_filler {
      type: "gaussian"
      std: 0.1
    }
    bias_filler {
      type: "constant"
    }
  }
}
layer {
  name: "ip2"
  type: "InnerProduct"
  bottom: "ip1"
  top: "ip2"
  param {
    lr_mult: 1
  }
  param {
    lr_mult: 2
  }
  inner_product_param {
    num_output: 64
    weight_filler {
      type: "gaussian"
      std: 0.1
    }
    bias_filler {
      type: "constant"
    }
  }
}
layer {
  name: "ip3"
  type: "InnerProduct"
  bottom: "ip2"
  top: "ip3"
  param {
    lr_mult: 1
  }
  param {
    lr_mult: 2
  }
  inner_product_param {
    num_output: 1
    weight_filler {
      type: "gaussian"
      std: 0.1
    }
    bias_filler {
      type: "constant"
    }
  }
}
layer {
  name: "loss"
  type: "HuberLoss"
  bottom: "ip3"
  bottom: "label"
  top: "loss"
  include {
    phase: TRAIN
  }
}
I0507 04:58:01.421865 31454 layer_factory.hpp:77] Creating layer parameters
I0507 04:58:01.421880 31454 net.cpp:94] Creating Layer parameters
I0507 04:58:01.421885 31454 net.cpp:409] parameters -> data
I0507 04:58:01.421893 31454 net.cpp:409] parameters -> label
I0507 04:58:01.421900 31454 hdf5_data_layer.cpp:79] Loading list of HDF5 filenames from: /home/purduethu/scratch/radon/d/deng106/CNNStatisticalModel/distributions/input/50_distributions_100_sample_size_train-parameters-path.txt
I0507 04:58:01.421916 31454 hdf5_data_layer.cpp:93] Number of HDF5 files: 1
I0507 04:58:01.422453 31454 hdf5.cpp:32] Datatype class: H5T_FLOAT
I0507 04:58:01.584537 31454 net.cpp:144] Setting up parameters
I0507 04:58:01.584585 31454 net.cpp:151] Top shape: 20 1 10 10 (2000)
I0507 04:58:01.584592 31454 net.cpp:151] Top shape: 20 (20)
I0507 04:58:01.584596 31454 net.cpp:159] Memory required for data: 8080
I0507 04:58:01.584602 31454 layer_factory.hpp:77] Creating layer conv1
I0507 04:58:01.584625 31454 net.cpp:94] Creating Layer conv1
I0507 04:58:01.584630 31454 net.cpp:435] conv1 <- data
I0507 04:58:01.584635 31454 net.cpp:409] conv1 -> conv1
I0507 04:58:01.588719 31454 net.cpp:144] Setting up conv1
I0507 04:58:01.588735 31454 net.cpp:151] Top shape: 20 64 10 10 (128000)
I0507 04:58:01.588739 31454 net.cpp:159] Memory required for data: 520080
I0507 04:58:01.588749 31454 layer_factory.hpp:77] Creating layer relu1
I0507 04:58:01.588757 31454 net.cpp:94] Creating Layer relu1
I0507 04:58:01.588762 31454 net.cpp:435] relu1 <- conv1
I0507 04:58:01.588765 31454 net.cpp:396] relu1 -> conv1 (in-place)
I0507 04:58:01.588780 31454 net.cpp:144] Setting up relu1
I0507 04:58:01.588785 31454 net.cpp:151] Top shape: 20 64 10 10 (128000)
I0507 04:58:01.588788 31454 net.cpp:159] Memory required for data: 1032080
I0507 04:58:01.588791 31454 layer_factory.hpp:77] Creating layer conv2
I0507 04:58:01.588800 31454 net.cpp:94] Creating Layer conv2
I0507 04:58:01.588804 31454 net.cpp:435] conv2 <- conv1
I0507 04:58:01.588809 31454 net.cpp:409] conv2 -> conv2
I0507 04:58:01.594769 31454 net.cpp:144] Setting up conv2
I0507 04:58:01.594782 31454 net.cpp:151] Top shape: 20 64 10 10 (128000)
I0507 04:58:01.594786 31454 net.cpp:159] Memory required for data: 1544080
I0507 04:58:01.594794 31454 layer_factory.hpp:77] Creating layer relu2
I0507 04:58:01.594800 31454 net.cpp:94] Creating Layer relu2
I0507 04:58:01.594805 31454 net.cpp:435] relu2 <- conv2
I0507 04:58:01.594808 31454 net.cpp:396] relu2 -> conv2 (in-place)
I0507 04:58:01.594816 31454 net.cpp:144] Setting up relu2
I0507 04:58:01.594820 31454 net.cpp:151] Top shape: 20 64 10 10 (128000)
I0507 04:58:01.594823 31454 net.cpp:159] Memory required for data: 2056080
I0507 04:58:01.594826 31454 layer_factory.hpp:77] Creating layer pool2
I0507 04:58:01.594833 31454 net.cpp:94] Creating Layer pool2
I0507 04:58:01.594836 31454 net.cpp:435] pool2 <- conv2
I0507 04:58:01.594841 31454 net.cpp:409] pool2 -> pool2
I0507 04:58:01.594888 31454 net.cpp:144] Setting up pool2
I0507 04:58:01.594897 31454 net.cpp:151] Top shape: 20 64 5 5 (32000)
I0507 04:58:01.594899 31454 net.cpp:159] Memory required for data: 2184080
I0507 04:58:01.594902 31454 layer_factory.hpp:77] Creating layer conv3
I0507 04:58:01.594910 31454 net.cpp:94] Creating Layer conv3
I0507 04:58:01.594913 31454 net.cpp:435] conv3 <- pool2
I0507 04:58:01.594924 31454 net.cpp:409] conv3 -> conv3
I0507 04:58:01.599728 31454 net.cpp:144] Setting up conv3
I0507 04:58:01.599742 31454 net.cpp:151] Top shape: 20 64 5 5 (32000)
I0507 04:58:01.599746 31454 net.cpp:159] Memory required for data: 2312080
I0507 04:58:01.599755 31454 layer_factory.hpp:77] Creating layer relu3
I0507 04:58:01.599761 31454 net.cpp:94] Creating Layer relu3
I0507 04:58:01.599764 31454 net.cpp:435] relu3 <- conv3
I0507 04:58:01.599769 31454 net.cpp:396] relu3 -> conv3 (in-place)
I0507 04:58:01.599776 31454 net.cpp:144] Setting up relu3
I0507 04:58:01.599781 31454 net.cpp:151] Top shape: 20 64 5 5 (32000)
I0507 04:58:01.599784 31454 net.cpp:159] Memory required for data: 2440080
I0507 04:58:01.599787 31454 layer_factory.hpp:77] Creating layer conv4
I0507 04:58:01.599795 31454 net.cpp:94] Creating Layer conv4
I0507 04:58:01.599799 31454 net.cpp:435] conv4 <- conv3
I0507 04:58:01.599804 31454 net.cpp:409] conv4 -> conv4
I0507 04:58:01.604146 31454 net.cpp:144] Setting up conv4
I0507 04:58:01.604159 31454 net.cpp:151] Top shape: 20 64 5 5 (32000)
I0507 04:58:01.604163 31454 net.cpp:159] Memory required for data: 2568080
I0507 04:58:01.604169 31454 layer_factory.hpp:77] Creating layer relu4
I0507 04:58:01.604176 31454 net.cpp:94] Creating Layer relu4
I0507 04:58:01.604179 31454 net.cpp:435] relu4 <- conv4
I0507 04:58:01.604183 31454 net.cpp:396] relu4 -> conv4 (in-place)
I0507 04:58:01.604190 31454 net.cpp:144] Setting up relu4
I0507 04:58:01.604195 31454 net.cpp:151] Top shape: 20 64 5 5 (32000)
I0507 04:58:01.604198 31454 net.cpp:159] Memory required for data: 2696080
I0507 04:58:01.604202 31454 layer_factory.hpp:77] Creating layer conv5
I0507 04:58:01.604208 31454 net.cpp:94] Creating Layer conv5
I0507 04:58:01.604212 31454 net.cpp:435] conv5 <- conv4
I0507 04:58:01.604218 31454 net.cpp:409] conv5 -> conv5
I0507 04:58:01.608990 31454 net.cpp:144] Setting up conv5
I0507 04:58:01.609004 31454 net.cpp:151] Top shape: 20 64 5 5 (32000)
I0507 04:58:01.609009 31454 net.cpp:159] Memory required for data: 2824080
I0507 04:58:01.609016 31454 layer_factory.hpp:77] Creating layer relu5
I0507 04:58:01.609022 31454 net.cpp:94] Creating Layer relu5
I0507 04:58:01.609025 31454 net.cpp:435] relu5 <- conv5
I0507 04:58:01.609030 31454 net.cpp:396] relu5 -> conv5 (in-place)
I0507 04:58:01.609037 31454 net.cpp:144] Setting up relu5
I0507 04:58:01.609041 31454 net.cpp:151] Top shape: 20 64 5 5 (32000)
I0507 04:58:01.609045 31454 net.cpp:159] Memory required for data: 2952080
I0507 04:58:01.609047 31454 layer_factory.hpp:77] Creating layer pool5
I0507 04:58:01.609052 31454 net.cpp:94] Creating Layer pool5
I0507 04:58:01.609055 31454 net.cpp:435] pool5 <- conv5
I0507 04:58:01.609061 31454 net.cpp:409] pool5 -> pool5
I0507 04:58:01.609096 31454 net.cpp:144] Setting up pool5
I0507 04:58:01.609103 31454 net.cpp:151] Top shape: 20 64 2 2 (5120)
I0507 04:58:01.609107 31454 net.cpp:159] Memory required for data: 2972560
I0507 04:58:01.609109 31454 layer_factory.hpp:77] Creating layer ip1
I0507 04:58:01.609118 31454 net.cpp:94] Creating Layer ip1
I0507 04:58:01.609122 31454 net.cpp:435] ip1 <- pool5
I0507 04:58:01.609127 31454 net.cpp:409] ip1 -> ip1
I0507 04:58:01.610422 31454 net.cpp:144] Setting up ip1
I0507 04:58:01.610435 31454 net.cpp:151] Top shape: 20 64 (1280)
I0507 04:58:01.610440 31454 net.cpp:159] Memory required for data: 2977680
I0507 04:58:01.610446 31454 layer_factory.hpp:77] Creating layer ip2
I0507 04:58:01.610453 31454 net.cpp:94] Creating Layer ip2
I0507 04:58:01.610457 31454 net.cpp:435] ip2 <- ip1
I0507 04:58:01.610462 31454 net.cpp:409] ip2 -> ip2
I0507 04:58:01.610666 31454 net.cpp:144] Setting up ip2
I0507 04:58:01.610673 31454 net.cpp:151] Top shape: 20 64 (1280)
I0507 04:58:01.610677 31454 net.cpp:159] Memory required for data: 2982800
I0507 04:58:01.610682 31454 layer_factory.hpp:77] Creating layer ip3
I0507 04:58:01.610688 31454 net.cpp:94] Creating Layer ip3
I0507 04:58:01.610692 31454 net.cpp:435] ip3 <- ip2
I0507 04:58:01.610697 31454 net.cpp:409] ip3 -> ip3
I0507 04:58:01.610800 31454 net.cpp:144] Setting up ip3
I0507 04:58:01.610808 31454 net.cpp:151] Top shape: 20 1 (20)
I0507 04:58:01.610811 31454 net.cpp:159] Memory required for data: 2982880
I0507 04:58:01.610816 31454 layer_factory.hpp:77] Creating layer loss
I0507 04:58:01.610823 31454 net.cpp:94] Creating Layer loss
I0507 04:58:01.610826 31454 net.cpp:435] loss <- ip3
I0507 04:58:01.610831 31454 net.cpp:435] loss <- label
I0507 04:58:01.610836 31454 net.cpp:409] loss -> loss
I0507 04:58:01.610887 31454 net.cpp:144] Setting up loss
…
I0507 04:58:01.671841 31454 net.cpp:323] The NetState phase (0) differed from the phase (1) specified by a rule in layer intercept
I0507 04:58:01.671859 31454 net.cpp:323] The NetState phase (0) differed from the phase (1) specified by a rule in layer accuracy
I0507 04:58:01.671944 31454 net.cpp:52] Initializing net from parameters: 
state {
  phase: TRAIN
}
layer {
  name: "parameters"
  type: "HDF5Data"
  top: "data"
  top: "label"
  include {
    phase: TRAIN
  }
  hdf5_data_param {
    source: "/home/purduethu/scratch/radon/d/deng106/CNNStatisticalModel/distributions/input/50_distributions_100_sample_size_train-distributions-path.txt"
    batch_size: 20
  }
}
layer {
  name: "conv1"
  type: "Convolution"
  bottom: "data"
  top: "conv1"
  param {
    lr_mult: 1
  }
  param {
    lr_mult: 2
  }
  convolution_param {
    num_output: 64
    pad: 2
    kernel_size: 5
    stride: 1
    weight_filler {
      type: "gaussian"
      std: 0.0001
    }
    bias_filler {
      type: "constant"
    }
  }
}
layer {
  name: "relu1"
  type: "ReLU"
  bottom: "conv1"
  top: "conv1"
}
layer {
  name: "conv2"
  type: "Convolution"
  bottom: "conv1"
  top: "conv2"
  param {
    lr_mult: 1
  }
  param {
    lr_mult: 2
  }
  convolution_param {
    num_output: 64
    pad: 2
    kernel_size: 5
    stride: 1
    weight_filler {
      type: "gaussian"
      std: 0.01
    }
    bias_filler {
      type: "constant"
    }
  }
}
layer {
  name: "relu2"
  type: "ReLU"
  bottom: "conv2"
  top: "conv2"
}
layer {
  name: "pool2"
  type: "Pooling"
  bottom: "conv2"
  top: "pool2"
  pooling_param {
    pool: MAX
    kernel_size: 3
    stride: 2
  }
}
layer {
  name: "conv3"
  type: "Convolution"
  bottom: "pool2"
  top: "conv3"
  param {
    lr_mult: 1
  }
  param {
    lr_mult: 2
  }
  convolution_param {
    num_output: 64
    pad: 2
    kernel_size: 5
    stride: 1
    weight_filler {
      type: "gaussian"
      std: 0.01
    }
    bias_filler {
      type: "constant"
    }
  }
}
layer {
  name: "relu3"
  type: "ReLU"
  bottom: "conv3"
  top: "conv3"
}
layer {
  name: "conv4"
  type: "Convolution"
  bottom: "conv3"
  top: "conv4"
  param {
    lr_mult: 1
  }
  param {
    lr_mult: 2
  }
  convolution_param {
    num_output: 64
    pad: 2
    kernel_size: 5
    stride: 1
    weight_filler {
      type: "gaussian"
      std: 0.01
    }
    bias_filler {
      type: "constant"
    }
  }
}
layer {
  name: "relu4"
  type: "ReLU"
  bottom: "conv4"
  top: "conv4"
}
layer {
  name: "conv5"
  type: "Convolution"
  bottom: "conv4"
  top: "conv5"
  param {
    lr_mult: 1
  }
  param {
    lr_mult: 2
  }
  convolution_param {
    num_output: 64
    pad: 2
    kernel_size: 5
    stride: 1
    weight_filler {
      type: "gaussian"
      std: 0.01
    }
    bias_filler {
      type: "constant"
    }
  }
}
layer {
  name: "relu5"
  type: "ReLU"
  bottom: "conv5"
  top: "conv5"
}
layer {
  name: "pool5"
  type: "Pooling"
  bottom: "conv5"
  top: "pool5"
  pooling_param {
    pool: AVE
    kernel_size: 3
    stride: 2
  }
}
layer {
  name: "ip1"
  type: "InnerProduct"
  bottom: "pool5"
  top: "ip1"
  param {
    lr_mult: 1
  }
  param {
    lr_mult: 2
  }
  inner_product_param {
    num_output: 64
    weight_filler {
      type: "gaussian"
      std: 0.1
    }
    bias_filler {
      type: "constant"
    }
  }
}
layer {
  name: "ip2"
  type: "InnerProduct"
  bottom: "ip1"
  top: "ip2"
  param {
    lr_mult: 1
  }
  param {
    lr_mult: 2
  }
  inner_product_param {
    num_output: 64
    weight_filler {
      type: "gaussian"
      std: 0.1
    }
    bias_filler {
      type: "constant"
    }
  }
}
layer {
  name: "ip3"
  type: "InnerProduct"
  bottom: "ip2"
  top: "ip3"
  param {
    lr_mult: 1
  }
  param {
    lr_mult: 2
  }
  inner_product_param {
    num_output: 50
    weight_filler {
      type: "gaussian"
      std: 0.1
    }
    bias_filler {
      type: "constant"
    }
  }
}
layer {
  name: "loss"
  type: "SoftmaxWithLoss"
  bottom: "ip3"
  bottom: "label"
  top: "loss"
}
I0507 04:58:01.671996 31454 layer_factory.hpp:77] Creating layer parameters
I0507 04:58:01.672005 31454 net.cpp:94] Creating Layer parameters
I0507 04:58:01.672009 31454 net.cpp:409] parameters -> data
I0507 04:58:01.672015 31454 net.cpp:409] parameters -> label
I0507 04:58:01.672022 31454 hdf5_data_layer.cpp:79] Loading list of HDF5 filenames from: /home/purduethu/scratch/radon/d/deng106/CNNStatisticalModel/distributions/input/50_distributions_100_sample_size_train-distributions-path.txt
I0507 04:58:01.672037 31454 hdf5_data_layer.cpp:93] Number of HDF5 files: 1
I0507 04:58:01.827600 31454 hdf5.cpp:35] Datatype class: H5T_INTEGER
I0507 04:58:01.830602 31454 net.cpp:144] Setting up parameters
I0507 04:58:01.830621 31454 net.cpp:151] Top shape: 20 1 10 10 (2000)
I0507 04:58:01.830626 31454 net.cpp:151] Top shape: 20 (20)
I0507 04:58:01.830628 31454 net.cpp:159] Memory required for data: 8080
I0507 04:58:01.830634 31454 layer_factory.hpp:77] Creating layer conv1
I0507 04:58:01.830651 31454 net.cpp:94] Creating Layer conv1
I0507 04:58:01.830655 31454 net.cpp:435] conv1 <- data
I0507 04:58:01.830662 31454 net.cpp:409] conv1 -> conv1
I0507 04:58:01.832337 31454 net.cpp:144] Setting up conv1
I0507 04:58:01.832350 31454 net.cpp:151] Top shape: 20 64 10 10 (128000)
I0507 04:58:01.832355 31454 net.cpp:159] Memory required for data: 520080
I0507 04:58:01.832365 31454 layer_factory.hpp:77] Creating layer relu1
I0507 04:58:01.832371 31454 net.cpp:94] Creating Layer relu1
I0507 04:58:01.832376 31454 net.cpp:435] relu1 <- conv1
I0507 04:58:01.832379 31454 net.cpp:396] relu1 -> conv1 (in-place)
I0507 04:58:01.832386 31454 net.cpp:144] Setting up relu1
I0507 04:58:01.832391 31454 net.cpp:151] Top shape: 20 64 10 10 (128000)
I0507 04:58:01.832394 31454 net.cpp:159] Memory required for data: 1032080
I0507 04:58:01.832397 31454 layer_factory.hpp:77] Creating layer conv2
I0507 04:58:01.832404 31454 net.cpp:94] Creating Layer conv2
I0507 04:58:01.832407 31454 net.cpp:435] conv2 <- conv1
I0507 04:58:01.832412 31454 net.cpp:409] conv2 -> conv2
I0507 04:58:01.837666 31454 net.cpp:144] Setting up conv2
I0507 04:58:01.837679 31454 net.cpp:151] Top shape: 20 64 10 10 (128000)
I0507 04:58:01.837683 31454 net.cpp:159] Memory required for data: 1544080
I0507 04:58:01.837690 31454 layer_factory.hpp:77] Creating layer relu2
I0507 04:58:01.837697 31454 net.cpp:94] Creating Layer relu2
I0507 04:58:01.837700 31454 net.cpp:435] relu2 <- conv2
I0507 04:58:01.837705 31454 net.cpp:396] relu2 -> conv2 (in-place)
I0507 04:58:01.837713 31454 net.cpp:144] Setting up relu2
I0507 04:58:01.837716 31454 net.cpp:151] Top shape: 20 64 10 10 (128000)
I0507 04:58:01.837719 31454 net.cpp:159] Memory required for data: 2056080
I0507 04:58:01.837723 31454 layer_factory.hpp:77] Creating layer pool2
I0507 04:58:01.837728 31454 net.cpp:94] Creating Layer pool2
I0507 04:58:01.837731 31454 net.cpp:435] pool2 <- conv2
I0507 04:58:01.837735 31454 net.cpp:409] pool2 -> pool2
I0507 04:58:01.837782 31454 net.cpp:144] Setting up pool2
I0507 04:58:01.837790 31454 net.cpp:151] Top shape: 20 64 5 5 (32000)
I0507 04:58:01.837793 31454 net.cpp:159] Memory required for data: 2184080
I0507 04:58:01.837796 31454 layer_factory.hpp:77] Creating layer conv3
I0507 04:58:01.837803 31454 net.cpp:94] Creating Layer conv3
I0507 04:58:01.837807 31454 net.cpp:435] conv3 <- pool2
I0507 04:58:01.837812 31454 net.cpp:409] conv3 -> conv3
I0507 04:58:01.843495 31454 net.cpp:144] Setting up conv3
I0507 04:58:01.843509 31454 net.cpp:151] Top shape: 20 64 5 5 (32000)
I0507 04:58:01.843513 31454 net.cpp:159] Memory required for data: 2312080
I0507 04:58:01.843520 31454 layer_factory.hpp:77] Creating layer relu3
I0507 04:58:01.843526 31454 net.cpp:94] Creating Layer relu3
I0507 04:58:01.843530 31454 net.cpp:435] relu3 <- conv3
I0507 04:58:01.843534 31454 net.cpp:396] relu3 -> conv3 (in-place)
I0507 04:58:01.843541 31454 net.cpp:144] Setting up relu3
I0507 04:58:01.843546 31454 net.cpp:151] Top shape: 20 64 5 5 (32000)
I0507 04:58:01.843555 31454 net.cpp:159] Memory required for data: 2440080
I0507 04:58:01.843559 31454 layer_factory.hpp:77] Creating layer conv4
I0507 04:58:01.843569 31454 net.cpp:94] Creating Layer conv4
I0507 04:58:01.843571 31454 net.cpp:435] conv4 <- conv3
I0507 04:58:01.843576 31454 net.cpp:409] conv4 -> conv4
I0507 04:58:01.848368 31454 net.cpp:144] Setting up conv4
I0507 04:58:01.848382 31454 net.cpp:151] Top shape: 20 64 5 5 (32000)
I0507 04:58:01.848387 31454 net.cpp:159] Memory required for data: 2568080
I0507 04:58:01.848392 31454 layer_factory.hpp:77] Creating layer relu4
I0507 04:58:01.848398 31454 net.cpp:94] Creating Layer relu4
I0507 04:58:01.848402 31454 net.cpp:435] relu4 <- conv4
I0507 04:58:01.848407 31454 net.cpp:396] relu4 -> conv4 (in-place)
I0507 04:58:01.848413 31454 net.cpp:144] Setting up relu4
I0507 04:58:01.848418 31454 net.cpp:151] Top shape: 20 64 5 5 (32000)
I0507 04:58:01.848422 31454 net.cpp:159] Memory required for data: 2696080
I0507 04:58:01.848424 31454 layer_factory.hpp:77] Creating layer conv5
I0507 04:58:01.848431 31454 net.cpp:94] Creating Layer conv5
I0507 04:58:01.848434 31454 net.cpp:435] conv5 <- conv4
I0507 04:58:01.848439 31454 net.cpp:409] conv5 -> conv5
I0507 04:58:01.852788 31454 net.cpp:144] Setting up conv5
I0507 04:58:01.852802 31454 net.cpp:151] Top shape: 20 64 5 5 (32000)
I0507 04:58:01.852805 31454 net.cpp:159] Memory required for data: 2824080
I0507 04:58:01.852813 31454 layer_factory.hpp:77] Creating layer relu5
I0507 04:58:01.852819 31454 net.cpp:94] Creating Layer relu5
I0507 04:58:01.852823 31454 net.cpp:435] relu5 <- conv5
I0507 04:58:01.852828 31454 net.cpp:396] relu5 -> conv5 (in-place)
I0507 04:58:01.852834 31454 net.cpp:144] Setting up relu5
I0507 04:58:01.852838 31454 net.cpp:151] Top shape: 20 64 5 5 (32000)
I0507 04:58:01.852841 31454 net.cpp:159] Memory required for data: 2952080
I0507 04:58:01.852844 31454 layer_factory.hpp:77] Creating layer pool5
I0507 04:58:01.852849 31454 net.cpp:94] Creating Layer pool5
I0507 04:58:01.852854 31454 net.cpp:435] pool5 <- conv5
I0507 04:58:01.852857 31454 net.cpp:409] pool5 -> pool5
I0507 04:58:01.852890 31454 net.cpp:144] Setting up pool5
I0507 04:58:01.852897 31454 net.cpp:151] Top shape: 20 64 2 2 (5120)
I0507 04:58:01.852900 31454 net.cpp:159] Memory required for data: 2972560
I0507 04:58:01.852903 31454 layer_factory.hpp:77] Creating layer ip1
I0507 04:58:01.852910 31454 net.cpp:94] Creating Layer ip1
I0507 04:58:01.852913 31454 net.cpp:435] ip1 <- pool5
I0507 04:58:01.852918 31454 net.cpp:409] ip1 -> ip1
I0507 04:58:01.853425 31454 net.cpp:144] Setting up ip1
I0507 04:58:01.853432 31454 net.cpp:151] Top shape: 20 64 (1280)
I0507 04:58:01.853436 31454 net.cpp:159] Memory required for data: 2977680
I0507 04:58:01.853441 31454 layer_factory.hpp:77] Creating layer ip2
I0507 04:58:01.853447 31454 net.cpp:94] Creating Layer ip2
I0507 04:58:01.853451 31454 net.cpp:435] ip2 <- ip1
I0507 04:58:01.853456 31454 net.cpp:409] ip2 -> ip2
I0507 04:58:01.853670 31454 net.cpp:144] Setting up ip2
I0507 04:58:01.853677 31454 net.cpp:151] Top shape: 20 64 (1280)
I0507 04:58:01.853680 31454 net.cpp:159] Memory required for data: 2982800
I0507 04:58:01.853685 31454 layer_factory.hpp:77] Creating layer ip3
I0507 04:58:01.853691 31454 net.cpp:94] Creating Layer ip3
I0507 04:58:01.853695 31454 net.cpp:435] ip3 <- ip2
I0507 04:58:01.853699 31454 net.cpp:409] ip3 -> ip3
I0507 04:58:01.853886 31454 net.cpp:144] Setting up ip3
I0507 04:58:01.853893 31454 net.cpp:151] Top shape: 20 50 (1000)
I0507 04:58:01.853896 31454 net.cpp:159] Memory required for data: 2986800
I0507 04:58:01.853901 31454 layer_factory.hpp:77] Creating layer loss
I0507 04:58:01.853907 31454 net.cpp:94] Creating Layer loss
I0507 04:58:01.853910 31454 net.cpp:435] loss <- ip3
I0507 04:58:01.853914 31454 net.cpp:435] loss <- label
I0507 04:58:01.853919 31454 net.cpp:409] loss -> loss
I0507 04:58:01.853925 31454 layer_factory.hpp:77] Creating layer loss
…
I0507 04:58:01.855245 31454 solver.cpp:181] Creating test net (#0) specified by net file: ./protocol/dis_50_100_dimension.protocol_distribution
I0507 04:58:01.855273 31454 net.cpp:323] The NetState phase (1) differed from the phase (0) specified by a rule in layer parameters
I0507 04:58:01.855370 31454 net.cpp:52] Initializing net from parameters: 
state {
  phase: TEST
}
layer {
  name: "intercept"
  type: "HDF5Data"
  top: "data"
  top: "label"
  include {
    phase: TEST
  }
  hdf5_data_param {
    source: "/home/purduethu/scratch/radon/d/deng106/CNNStatisticalModel/distributions/input/50_distributions_100_sample_size_test-distributions-path.txt"
    batch_size: 20
  }
}
layer {
  name: "conv1"
  type: "Convolution"
  bottom: "data"
  top: "conv1"
  param {
    lr_mult: 1
  }
  param {
    lr_mult: 2
  }
  convolution_param {
    num_output: 64
    pad: 2
    kernel_size: 5
    stride: 1
    weight_filler {
      type: "gaussian"
      std: 0.0001
    }
    bias_filler {
      type: "constant"
    }
  }
}
layer {
  name: "relu1"
  type: "ReLU"
  bottom: "conv1"
  top: "conv1"
}
layer {
  name: "conv2"
  type: "Convolution"
  bottom: "conv1"
  top: "conv2"
  param {
    lr_mult: 1
  }
  param {
    lr_mult: 2
  }
  convolution_param {
    num_output: 64
    pad: 2
    kernel_size: 5
    stride: 1
    weight_filler {
      type: "gaussian"
      std: 0.01
    }
    bias_filler {
      type: "constant"
    }
  }
}
layer {
  name: "relu2"
  type: "ReLU"
  bottom: "conv2"
  top: "conv2"
}
layer {
  name: "pool2"
  type: "Pooling"
  bottom: "conv2"
  top: "pool2"
  pooling_param {
    pool: MAX
    kernel_size: 3
    stride: 2
  }
}
layer {
  name: "conv3"
  type: "Convolution"
  bottom: "pool2"
  top: "conv3"
  param {
    lr_mult: 1
  }
  param {
    lr_mult: 2
  }
  convolution_param {
    num_output: 64
    pad: 2
    kernel_size: 5
    stride: 1
    weight_filler {
      type: "gaussian"
      std: 0.01
    }
    bias_filler {
      type: "constant"
    }
  }
}
layer {
  name: "relu3"
  type: "ReLU"
  bottom: "conv3"
  top: "conv3"
}
layer {
  name: "conv4"
  type: "Convolution"
  bottom: "conv3"
  top: "conv4"
  param {
    lr_mult: 1
  }
  param {
    lr_mult: 2
  }
  convolution_param {
    num_output: 64
    pad: 2
    kernel_size: 5
    stride: 1
    weight_filler {
      type: "gaussian"
      std: 0.01
    }
    bias_filler {
      type: "constant"
    }
  }
}
layer {
  name: "relu4"
  type: "ReLU"
  bottom: "conv4"
  top: "conv4"
}
layer {
  name: "conv5"
  type: "Convolution"
  bottom: "conv4"
  top: "conv5"
  param {
    lr_mult: 1
  }
  param {
    lr_mult: 2
  }
  convolution_param {
    num_output: 64
    pad: 2
    kernel_size: 5
    stride: 1
    weight_filler {
      type: "gaussian"
      std: 0.01
    }
    bias_filler {
      type: "constant"
    }
  }
}
layer {
  name: "relu5"
  type: "ReLU"
  bottom: "conv5"
  top: "conv5"
}
layer {
  name: "pool5"
  type: "Pooling"
  bottom: "conv5"
  top: "pool5"
  pooling_param {
    pool: AVE
    kernel_size: 3
    stride: 2
  }
}
layer {
  name: "ip1"
  type: "InnerProduct"
  bottom: "pool5"
  top: "ip1"
  param {
    lr_mult: 1
  }
  param {
    lr_mult: 2
  }
  inner_product_param {
    num_output: 64
    weight_filler {
      type: "gaussian"
      std: 0.1
    }
    bias_filler {
      type: "constant"
    }
  }
}
layer {
  name: "ip2"
  type: "InnerProduct"
  bottom: "ip1"
  top: "ip2"
  param {
    lr_mult: 1
  }
  param {
    lr_mult: 2
  }
  inner_product_param {
    num_output: 64
    weight_filler {
      type: "gaussian"
      std: 0.1
    }
    bias_filler {
      type: "constant"
    }
  }
}
layer {
  name: "ip3"
  type: "InnerProduct"
  bottom: "ip2"
  top: "ip3"
  param {
    lr_mult: 1
  }
  param {
    lr_mult: 2
  }
  inner_product_param {
    num_output: 50
    weight_filler {
      type: "gaussian"
      std: 0.1
    }
    bias_filler {
      type: "constant"
    }
  }
}
layer {
  name: "accuracy"
  type: "Accuracy"
  bottom: "ip3"
  bottom: "label"
  top: "accuracy"
  include {
    phase: TEST
  }
}
layer {
  name: "loss"
  type: "SoftmaxWithLoss"
  bottom: "ip3"
  bottom: "label"
  top: "loss"
}
I0507 04:58:01.855434 31454 layer_factory.hpp:77] Creating layer intercept
I0507 04:58:01.855443 31454 net.cpp:94] Creating Layer intercept
I0507 04:58:01.855448 31454 net.cpp:409] intercept -> data
I0507 04:58:01.855453 31454 net.cpp:409] intercept -> label
I0507 04:58:01.855460 31454 hdf5_data_layer.cpp:79] Loading list of HDF5 filenames from: /home/purduethu/scratch/radon/d/deng106/CNNStatisticalModel/distributions/input/50_distributions_100_sample_size_test-distributions-path.txt
I0507 04:58:01.855479 31454 hdf5_data_layer.cpp:93] Number of HDF5 files: 1
I0507 04:58:01.896605 31454 net.cpp:144] Setting up intercept
I0507 04:58:01.896637 31454 net.cpp:151] Top shape: 20 1 10 10 (2000)
I0507 04:58:01.896643 31454 net.cpp:151] Top shape: 20 (20)
I0507 04:58:01.896646 31454 net.cpp:159] Memory required for data: 8080
I0507 04:58:01.896652 31454 layer_factory.hpp:77] Creating layer label_intercept_1_split
I0507 04:58:01.896672 31454 net.cpp:94] Creating Layer label_intercept_1_split
I0507 04:58:01.896677 31454 net.cpp:435] label_intercept_1_split <- label
I0507 04:58:01.896682 31454 net.cpp:409] label_intercept_1_split -> label_intercept_1_split_0
I0507 04:58:01.896692 31454 net.cpp:409] label_intercept_1_split -> label_intercept_1_split_1
I0507 04:58:01.896731 31454 net.cpp:144] Setting up label_intercept_1_split
I0507 04:58:01.896737 31454 net.cpp:151] Top shape: 20 (20)
I0507 04:58:01.896741 31454 net.cpp:151] Top shape: 20 (20)
I0507 04:58:01.896744 31454 net.cpp:159] Memory required for data: 8240
I0507 04:58:01.896747 31454 layer_factory.hpp:77] Creating layer conv1
I0507 04:58:01.896757 31454 net.cpp:94] Creating Layer conv1
I0507 04:58:01.896761 31454 net.cpp:435] conv1 <- data
I0507 04:58:01.896766 31454 net.cpp:409] conv1 -> conv1
I0507 04:58:01.897511 31454 net.cpp:144] Setting up conv1
I0507 04:58:01.897523 31454 net.cpp:151] Top shape: 20 64 10 10 (128000)
I0507 04:58:01.897527 31454 net.cpp:159] Memory required for data: 520240
I0507 04:58:01.897536 31454 layer_factory.hpp:77] Creating layer relu1
I0507 04:58:01.897542 31454 net.cpp:94] Creating Layer relu1
I0507 04:58:01.897547 31454 net.cpp:435] relu1 <- conv1
I0507 04:58:01.897550 31454 net.cpp:396] relu1 -> conv1 (in-place)
I0507 04:58:01.897557 31454 net.cpp:144] Setting up relu1
I0507 04:58:01.897562 31454 net.cpp:151] Top shape: 20 64 10 10 (128000)
I0507 04:58:01.897564 31454 net.cpp:159] Memory required for data: 1032240
I0507 04:58:01.897577 31454 layer_factory.hpp:77] Creating layer conv2
I0507 04:58:01.897585 31454 net.cpp:94] Creating Layer conv2
I0507 04:58:01.897588 31454 net.cpp:435] conv2 <- conv1
I0507 04:58:01.897593 31454 net.cpp:409] conv2 -> conv2
I0507 04:58:01.901662 31454 net.cpp:144] Setting up conv2
I0507 04:58:01.901676 31454 net.cpp:151] Top shape: 20 64 10 10 (128000)
I0507 04:58:01.901679 31454 net.cpp:159] Memory required for data: 1544240
I0507 04:58:01.901687 31454 layer_factory.hpp:77] Creating layer relu2
I0507 04:58:01.901693 31454 net.cpp:94] Creating Layer relu2
I0507 04:58:01.901697 31454 net.cpp:435] relu2 <- conv2
I0507 04:58:01.901701 31454 net.cpp:396] relu2 -> conv2 (in-place)
I0507 04:58:01.901708 31454 net.cpp:144] Setting up relu2
I0507 04:58:01.901712 31454 net.cpp:151] Top shape: 20 64 10 10 (128000)
I0507 04:58:01.901715 31454 net.cpp:159] Memory required for data: 2056240
I0507 04:58:01.901718 31454 layer_factory.hpp:77] Creating layer pool2
I0507 04:58:01.901726 31454 net.cpp:94] Creating Layer pool2
I0507 04:58:01.901727 31454 net.cpp:435] pool2 <- conv2
I0507 04:58:01.901733 31454 net.cpp:409] pool2 -> pool2
I0507 04:58:01.901785 31454 net.cpp:144] Setting up pool2
I0507 04:58:01.901793 31454 net.cpp:151] Top shape: 20 64 5 5 (32000)
I0507 04:58:01.901795 31454 net.cpp:159] Memory required for data: 2184240
I0507 04:58:01.901798 31454 layer_factory.hpp:77] Creating layer conv3
I0507 04:58:01.901808 31454 net.cpp:94] Creating Layer conv3
I0507 04:58:01.901810 31454 net.cpp:435] conv3 <- pool2
I0507 04:58:01.901816 31454 net.cpp:409] conv3 -> conv3
I0507 04:58:01.906204 31454 net.cpp:144] Setting up conv3
I0507 04:58:01.906217 31454 net.cpp:151] Top shape: 20 64 5 5 (32000)
I0507 04:58:01.906221 31454 net.cpp:159] Memory required for data: 2312240
I0507 04:58:01.906229 31454 layer_factory.hpp:77] Creating layer relu3
I0507 04:58:01.906237 31454 net.cpp:94] Creating Layer relu3
I0507 04:58:01.906241 31454 net.cpp:435] relu3 <- conv3
I0507 04:58:01.906246 31454 net.cpp:396] relu3 -> conv3 (in-place)
I0507 04:58:01.906252 31454 net.cpp:144] Setting up relu3
I0507 04:58:01.906257 31454 net.cpp:151] Top shape: 20 64 5 5 (32000)
I0507 04:58:01.906260 31454 net.cpp:159] Memory required for data: 2440240
I0507 04:58:01.906263 31454 layer_factory.hpp:77] Creating layer conv4
I0507 04:58:01.906271 31454 net.cpp:94] Creating Layer conv4
I0507 04:58:01.906275 31454 net.cpp:435] conv4 <- conv3
I0507 04:58:01.906281 31454 net.cpp:409] conv4 -> conv4
I0507 04:58:01.909778 31454 net.cpp:144] Setting up conv4
I0507 04:58:01.909791 31454 net.cpp:151] Top shape: 20 64 5 5 (32000)
I0507 04:58:01.909795 31454 net.cpp:159] Memory required for data: 2568240
I0507 04:58:01.909801 31454 layer_factory.hpp:77] Creating layer relu4
I0507 04:58:01.909807 31454 net.cpp:94] Creating Layer relu4
I0507 04:58:01.909811 31454 net.cpp:435] relu4 <- conv4
I0507 04:58:01.909816 31454 net.cpp:396] relu4 -> conv4 (in-place)
I0507 04:58:01.909822 31454 net.cpp:144] Setting up relu4
I0507 04:58:01.909827 31454 net.cpp:151] Top shape: 20 64 5 5 (32000)
I0507 04:58:01.909831 31454 net.cpp:159] Memory required for data: 2696240
I0507 04:58:01.909833 31454 layer_factory.hpp:77] Creating layer conv5
I0507 04:58:01.909842 31454 net.cpp:94] Creating Layer conv5
I0507 04:58:01.909845 31454 net.cpp:435] conv5 <- conv4
I0507 04:58:01.909850 31454 net.cpp:409] conv5 -> conv5
I0507 04:58:01.913789 31454 net.cpp:144] Setting up conv5
I0507 04:58:01.913801 31454 net.cpp:151] Top shape: 20 64 5 5 (32000)
I0507 04:58:01.913805 31454 net.cpp:159] Memory required for data: 2824240
I0507 04:58:01.913813 31454 layer_factory.hpp:77] Creating layer relu5
I0507 04:58:01.913820 31454 net.cpp:94] Creating Layer relu5
I0507 04:58:01.913822 31454 net.cpp:435] relu5 <- conv5
I0507 04:58:01.913826 31454 net.cpp:396] relu5 -> conv5 (in-place)
I0507 04:58:01.913833 31454 net.cpp:144] Setting up relu5
I0507 04:58:01.913837 31454 net.cpp:151] Top shape: 20 64 5 5 (32000)
I0507 04:58:01.913841 31454 net.cpp:159] Memory required for data: 2952240
I0507 04:58:01.913847 31454 layer_factory.hpp:77] Creating layer pool5
I0507 04:58:01.913853 31454 net.cpp:94] Creating Layer pool5
I0507 04:58:01.913857 31454 net.cpp:435] pool5 <- conv5
I0507 04:58:01.913861 31454 net.cpp:409] pool5 -> pool5
I0507 04:58:01.913897 31454 net.cpp:144] Setting up pool5
I0507 04:58:01.913904 31454 net.cpp:151] Top shape: 20 64 2 2 (5120)
I0507 04:58:01.913908 31454 net.cpp:159] Memory required for data: 2972720
I0507 04:58:01.913910 31454 layer_factory.hpp:77] Creating layer ip1
I0507 04:58:01.913918 31454 net.cpp:94] Creating Layer ip1
I0507 04:58:01.913921 31454 net.cpp:435] ip1 <- pool5
I0507 04:58:01.913925 31454 net.cpp:409] ip1 -> ip1
I0507 04:58:01.914443 31454 net.cpp:144] Setting up ip1
I0507 04:58:01.914451 31454 net.cpp:151] Top shape: 20 64 (1280)
I0507 04:58:01.914454 31454 net.cpp:159] Memory required for data: 2977840
I0507 04:58:01.914459 31454 layer_factory.hpp:77] Creating layer ip2
I0507 04:58:01.914465 31454 net.cpp:94] Creating Layer ip2
I0507 04:58:01.914469 31454 net.cpp:435] ip2 <- ip1
I0507 04:58:01.914474 31454 net.cpp:409] ip2 -> ip2
I0507 04:58:01.914690 31454 net.cpp:144] Setting up ip2
I0507 04:58:01.914698 31454 net.cpp:151] Top shape: 20 64 (1280)
I0507 04:58:01.914701 31454 net.cpp:159] Memory required for data: 2982960
I0507 04:58:01.914706 31454 layer_factory.hpp:77] Creating layer ip3
I0507 04:58:01.914713 31454 net.cpp:94] Creating Layer ip3
I0507 04:58:01.914716 31454 net.cpp:435] ip3 <- ip2
I0507 04:58:01.914721 31454 net.cpp:409] ip3 -> ip3
I0507 04:58:01.914912 31454 net.cpp:144] Setting up ip3
I0507 04:58:01.914921 31454 net.cpp:151] Top shape: 20 50 (1000)
I0507 04:58:01.914923 31454 net.cpp:159] Memory required for data: 2986960
I0507 04:58:01.914928 31454 layer_factory.hpp:77] Creating layer ip3_ip3_0_split
I0507 04:58:01.914933 31454 net.cpp:94] Creating Layer ip3_ip3_0_split
I0507 04:58:01.914937 31454 net.cpp:435] ip3_ip3_0_split <- ip3
I0507 04:58:01.914942 31454 net.cpp:409] ip3_ip3_0_split -> ip3_ip3_0_split_0
I0507 04:58:01.914947 31454 net.cpp:409] ip3_ip3_0_split -> ip3_ip3_0_split_1
I0507 04:58:01.914985 31454 net.cpp:144] Setting up ip3_ip3_0_split
I0507 04:58:01.914993 31454 net.cpp:151] Top shape: 20 50 (1000)
I0507 04:58:01.914995 31454 net.cpp:151] Top shape: 20 50 (1000)
I0507 04:58:01.914999 31454 net.cpp:159] Memory required for data: 2994960
I0507 04:58:01.915001 31454 layer_factory.hpp:77] Creating layer accuracy
I0507 04:58:01.915007 31454 net.cpp:94] Creating Layer accuracy
I0507 04:58:01.915011 31454 net.cpp:435] accuracy <- ip3_ip3_0_split_0
I0507 04:58:01.915014 31454 net.cpp:435] accuracy <- label_intercept_1_split_0
I0507 04:58:01.915019 31454 net.cpp:409] accuracy -> accuracy
…
