…
I0503 16:15:47.305781 21270 net.cpp:323] The NetState phase (0) differed from the phase (1) specified by a rule in layer intercept
I0503 16:15:47.305800 21270 net.cpp:323] The NetState phase (0) differed from the phase (1) specified by a rule in layer accuracy
I0503 16:15:47.305898 21270 net.cpp:52] Initializing net from parameters: 
state {
  phase: TRAIN
}
layer {
  name: "parameters"
  type: "HDF5Data"
  top: "data"
  top: "label"
  include {
    phase: TRAIN
  }
  hdf5_data_param {
    source: "/home/purduethu/scratch/radon/d/deng106/CNNStatisticalModel/distributions/input/5_distributions_900_sample_size_train-distributions-path.txt"
    batch_size: 20
  }
}
layer {
  name: "conv1"
  type: "Convolution"
  bottom: "data"
  top: "conv1"
  param {
    lr_mult: 1
  }
  param {
    lr_mult: 2
  }
  convolution_param {
    num_output: 64
    pad: 2
    kernel_size: 5
    stride: 1
    weight_filler {
      type: "gaussian"
      std: 0.0001
    }
    bias_filler {
      type: "constant"
    }
  }
}
layer {
  name: "relu1"
  type: "ReLU"
  bottom: "conv1"
  top: "conv1"
}
layer {
  name: "conv2"
  type: "Convolution"
  bottom: "conv1"
  top: "conv2"
  param {
    lr_mult: 1
  }
  param {
    lr_mult: 2
  }
  convolution_param {
    num_output: 64
    pad: 2
    kernel_size: 5
    stride: 1
    weight_filler {
      type: "gaussian"
      std: 0.01
    }
    bias_filler {
      type: "constant"
    }
  }
}
layer {
  name: "relu2"
  type: "ReLU"
  bottom: "conv2"
  top: "conv2"
}
layer {
  name: "pool2"
  type: "Pooling"
  bottom: "conv2"
  top: "pool2"
  pooling_param {
    pool: MAX
    kernel_size: 3
    stride: 2
  }
}
layer {
  name: "conv3"
  type: "Convolution"
  bottom: "pool2"
  top: "conv3"
  param {
    lr_mult: 1
  }
  param {
    lr_mult: 2
  }
  convolution_param {
    num_output: 128
    pad: 2
    kernel_size: 5
    stride: 1
    weight_filler {
      type: "gaussian"
      std: 0.01
    }
    bias_filler {
      type: "constant"
    }
  }
}
layer {
  name: "relu3"
  type: "ReLU"
  bottom: "conv3"
  top: "conv3"
}
layer {
  name: "conv4"
  type: "Convolution"
  bottom: "conv3"
  top: "conv4"
  param {
    lr_mult: 1
  }
  param {
    lr_mult: 2
  }
  convolution_param {
    num_output: 128
    pad: 2
    kernel_size: 5
    stride: 1
    weight_filler {
      type: "gaussian"
      std: 0.01
    }
    bias_filler {
      type: "constant"
    }
  }
}
layer {
  name: "relu4"
  type: "ReLU"
  bottom: "conv4"
  top: "conv4"
}
layer {
  name: "conv5"
  type: "Convolution"
  bottom: "conv4"
  top: "conv5"
  param {
    lr_mult: 1
  }
  param {
    lr_mult: 2
  }
  convolution_param {
    num_output: 128
    pad: 2
    kernel_size: 5
    stride: 1
    weight_filler {
      type: "gaussian"
      std: 0.01
    }
    bias_filler {
      type: "constant"
    }
  }
}
layer {
  name: "relu5"
  type: "ReLU"
  bottom: "conv5"
  top: "conv5"
}
layer {
  name: "pool5"
  type: "Pooling"
  bottom: "conv5"
  top: "pool5"
  pooling_param {
    pool: AVE
    kernel_size: 3
    stride: 2
  }
}
layer {
  name: "ip1"
  type: "InnerProduct"
  bottom: "pool5"
  top: "ip1"
  param {
    lr_mult: 1
  }
  param {
    lr_mult: 2
  }
  inner_product_param {
    num_output: 1024
    weight_filler {
      type: "gaussian"
      std: 0.1
    }
    bias_filler {
      type: "constant"
    }
  }
}
layer {
  name: "ip2"
  type: "InnerProduct"
  bottom: "ip1"
  top: "ip2"
  param {
    lr_mult: 1
  }
  param {
    lr_mult: 2
  }
  inner_product_param {
    num_output: 512
    weight_filler {
      type: "gaussian"
      std: 0.1
    }
    bias_filler {
      type: "constant"
    }
  }
}
layer {
  name: "ip3"
  type: "InnerProduct"
  bottom: "ip2"
  top: "ip3"
  param {
    lr_mult: 1
  }
  param {
    lr_mult: 2
  }
  inner_product_param {
    num_output: 50
    weight_filler {
      type: "gaussian"
      std: 0.1
    }
    bias_filler {
      type: "constant"
    }
  }
}
layer {
  name: "loss"
  type: "SoftmaxWithLoss"
  bottom: "ip3"
  bottom: "label"
  top: "loss"
}
I0503 16:15:47.305979 21270 layer_factory.hpp:77] Creating layer parameters
I0503 16:15:47.305994 21270 net.cpp:94] Creating Layer parameters
I0503 16:15:47.306000 21270 net.cpp:409] parameters -> data
I0503 16:15:47.306020 21270 net.cpp:409] parameters -> label
I0503 16:15:47.306031 21270 hdf5_data_layer.cpp:79] Loading list of HDF5 filenames from: /home/purduethu/scratch/radon/d/deng106/CNNStatisticalModel/distributions/input/5_distributions_900_sample_size_train-distributions-path.txt
I0503 16:15:47.306056 21270 hdf5_data_layer.cpp:93] Number of HDF5 files: 1
I0503 16:15:47.306680 21270 hdf5.cpp:32] Datatype class: H5T_FLOAT
I0503 16:15:47.443496 21270 hdf5.cpp:35] Datatype class: H5T_INTEGER
I0503 16:15:47.444660 21270 net.cpp:144] Setting up parameters
I0503 16:15:47.444679 21270 net.cpp:151] Top shape: 20 1 30 30 (18000)
I0503 16:15:47.444685 21270 net.cpp:151] Top shape: 20 (20)
I0503 16:15:47.444689 21270 net.cpp:159] Memory required for data: 72080
I0503 16:15:47.444697 21270 layer_factory.hpp:77] Creating layer conv1
I0503 16:15:47.444717 21270 net.cpp:94] Creating Layer conv1
I0503 16:15:47.444723 21270 net.cpp:435] conv1 <- data
I0503 16:15:47.444733 21270 net.cpp:409] conv1 -> conv1
I0503 16:15:47.450600 21270 net.cpp:144] Setting up conv1
I0503 16:15:47.450615 21270 net.cpp:151] Top shape: 20 64 30 30 (1152000)
I0503 16:15:47.450620 21270 net.cpp:159] Memory required for data: 4680080
I0503 16:15:47.450633 21270 layer_factory.hpp:77] Creating layer relu1
I0503 16:15:47.450639 21270 net.cpp:94] Creating Layer relu1
I0503 16:15:47.450644 21270 net.cpp:435] relu1 <- conv1
I0503 16:15:47.450649 21270 net.cpp:396] relu1 -> conv1 (in-place)
I0503 16:15:47.450660 21270 net.cpp:144] Setting up relu1
I0503 16:15:47.450666 21270 net.cpp:151] Top shape: 20 64 30 30 (1152000)
I0503 16:15:47.450670 21270 net.cpp:159] Memory required for data: 9288080
I0503 16:15:47.450673 21270 layer_factory.hpp:77] Creating layer conv2
I0503 16:15:47.450681 21270 net.cpp:94] Creating Layer conv2
I0503 16:15:47.450685 21270 net.cpp:435] conv2 <- conv1
I0503 16:15:47.450690 21270 net.cpp:409] conv2 -> conv2
I0503 16:15:47.465857 21270 net.cpp:144] Setting up conv2
I0503 16:15:47.465873 21270 net.cpp:151] Top shape: 20 64 30 30 (1152000)
I0503 16:15:47.465876 21270 net.cpp:159] Memory required for data: 13896080
I0503 16:15:47.465885 21270 layer_factory.hpp:77] Creating layer relu2
I0503 16:15:47.465893 21270 net.cpp:94] Creating Layer relu2
I0503 16:15:47.465896 21270 net.cpp:435] relu2 <- conv2
I0503 16:15:47.465901 21270 net.cpp:396] relu2 -> conv2 (in-place)
I0503 16:15:47.465909 21270 net.cpp:144] Setting up relu2
I0503 16:15:47.465914 21270 net.cpp:151] Top shape: 20 64 30 30 (1152000)
I0503 16:15:47.465916 21270 net.cpp:159] Memory required for data: 18504080
I0503 16:15:47.465920 21270 layer_factory.hpp:77] Creating layer pool2
I0503 16:15:47.465934 21270 net.cpp:94] Creating Layer pool2
I0503 16:15:47.465939 21270 net.cpp:435] pool2 <- conv2
I0503 16:15:47.465943 21270 net.cpp:409] pool2 -> pool2
I0503 16:15:47.465988 21270 net.cpp:144] Setting up pool2
I0503 16:15:47.465996 21270 net.cpp:151] Top shape: 20 64 15 15 (288000)
I0503 16:15:47.465999 21270 net.cpp:159] Memory required for data: 19656080
I0503 16:15:47.466002 21270 layer_factory.hpp:77] Creating layer conv3
I0503 16:15:47.466011 21270 net.cpp:94] Creating Layer conv3
I0503 16:15:47.466014 21270 net.cpp:435] conv3 <- pool2
I0503 16:15:47.466027 21270 net.cpp:409] conv3 -> conv3
I0503 16:15:47.478423 21270 net.cpp:144] Setting up conv3
I0503 16:15:47.478440 21270 net.cpp:151] Top shape: 20 128 15 15 (576000)
I0503 16:15:47.478444 21270 net.cpp:159] Memory required for data: 21960080
I0503 16:15:47.478452 21270 layer_factory.hpp:77] Creating layer relu3
I0503 16:15:47.478459 21270 net.cpp:94] Creating Layer relu3
I0503 16:15:47.478463 21270 net.cpp:435] relu3 <- conv3
I0503 16:15:47.478467 21270 net.cpp:396] relu3 -> conv3 (in-place)
I0503 16:15:47.478476 21270 net.cpp:144] Setting up relu3
I0503 16:15:47.478480 21270 net.cpp:151] Top shape: 20 128 15 15 (576000)
I0503 16:15:47.478483 21270 net.cpp:159] Memory required for data: 24264080
I0503 16:15:47.478487 21270 layer_factory.hpp:77] Creating layer conv4
I0503 16:15:47.478495 21270 net.cpp:94] Creating Layer conv4
I0503 16:15:47.478499 21270 net.cpp:435] conv4 <- conv3
I0503 16:15:47.478504 21270 net.cpp:409] conv4 -> conv4
I0503 16:15:47.500181 21270 net.cpp:144] Setting up conv4
I0503 16:15:47.500197 21270 net.cpp:151] Top shape: 20 128 15 15 (576000)
I0503 16:15:47.500202 21270 net.cpp:159] Memory required for data: 26568080
I0503 16:15:47.500210 21270 layer_factory.hpp:77] Creating layer relu4
I0503 16:15:47.500216 21270 net.cpp:94] Creating Layer relu4
I0503 16:15:47.500219 21270 net.cpp:435] relu4 <- conv4
I0503 16:15:47.500224 21270 net.cpp:396] relu4 -> conv4 (in-place)
I0503 16:15:47.500231 21270 net.cpp:144] Setting up relu4
I0503 16:15:47.500236 21270 net.cpp:151] Top shape: 20 128 15 15 (576000)
I0503 16:15:47.500239 21270 net.cpp:159] Memory required for data: 28872080
I0503 16:15:47.500243 21270 layer_factory.hpp:77] Creating layer conv5
I0503 16:15:47.500250 21270 net.cpp:94] Creating Layer conv5
I0503 16:15:47.500254 21270 net.cpp:435] conv5 <- conv4
I0503 16:15:47.500259 21270 net.cpp:409] conv5 -> conv5
I0503 16:15:47.521577 21270 net.cpp:144] Setting up conv5
I0503 16:15:47.521617 21270 net.cpp:151] Top shape: 20 128 15 15 (576000)
I0503 16:15:47.521630 21270 net.cpp:159] Memory required for data: 31176080
I0503 16:15:47.521654 21270 layer_factory.hpp:77] Creating layer relu5
I0503 16:15:47.521670 21270 net.cpp:94] Creating Layer relu5
I0503 16:15:47.521682 21270 net.cpp:435] relu5 <- conv5
I0503 16:15:47.521695 21270 net.cpp:396] relu5 -> conv5 (in-place)
I0503 16:15:47.521714 21270 net.cpp:144] Setting up relu5
I0503 16:15:47.521728 21270 net.cpp:151] Top shape: 20 128 15 15 (576000)
I0503 16:15:47.521737 21270 net.cpp:159] Memory required for data: 33480080
I0503 16:15:47.521746 21270 layer_factory.hpp:77] Creating layer pool5
I0503 16:15:47.521759 21270 net.cpp:94] Creating Layer pool5
I0503 16:15:47.521776 21270 net.cpp:435] pool5 <- conv5
I0503 16:15:47.521790 21270 net.cpp:409] pool5 -> pool5
I0503 16:15:47.521873 21270 net.cpp:144] Setting up pool5
I0503 16:15:47.521893 21270 net.cpp:151] Top shape: 20 128 7 7 (125440)
I0503 16:15:47.521901 21270 net.cpp:159] Memory required for data: 33981840
I0503 16:15:47.521911 21270 layer_factory.hpp:77] Creating layer ip1
I0503 16:15:47.521934 21270 net.cpp:94] Creating Layer ip1
I0503 16:15:47.521951 21270 net.cpp:435] ip1 <- pool5
I0503 16:15:47.521956 21270 net.cpp:409] ip1 -> ip1
I0503 16:15:47.684881 21270 net.cpp:144] Setting up ip1
I0503 16:15:47.684917 21270 net.cpp:151] Top shape: 20 1024 (20480)
I0503 16:15:47.684922 21270 net.cpp:159] Memory required for data: 34063760
I0503 16:15:47.684931 21270 layer_factory.hpp:77] Creating layer ip2
I0503 16:15:47.684952 21270 net.cpp:94] Creating Layer ip2
I0503 16:15:47.684957 21270 net.cpp:435] ip2 <- ip1
I0503 16:15:47.684963 21270 net.cpp:409] ip2 -> ip2
I0503 16:15:47.698528 21270 net.cpp:144] Setting up ip2
I0503 16:15:47.698541 21270 net.cpp:151] Top shape: 20 512 (10240)
I0503 16:15:47.698545 21270 net.cpp:159] Memory required for data: 34104720
I0503 16:15:47.698552 21270 layer_factory.hpp:77] Creating layer ip3
I0503 16:15:47.698559 21270 net.cpp:94] Creating Layer ip3
I0503 16:15:47.698563 21270 net.cpp:435] ip3 <- ip2
I0503 16:15:47.698568 21270 net.cpp:409] ip3 -> ip3
I0503 16:15:47.699287 21270 net.cpp:144] Setting up ip3
I0503 16:15:47.699295 21270 net.cpp:151] Top shape: 20 50 (1000)
I0503 16:15:47.699300 21270 net.cpp:159] Memory required for data: 34108720
I0503 16:15:47.699304 21270 layer_factory.hpp:77] Creating layer loss
I0503 16:15:47.699313 21270 net.cpp:94] Creating Layer loss
I0503 16:15:47.699316 21270 net.cpp:435] loss <- ip3
I0503 16:15:47.699321 21270 net.cpp:435] loss <- label
I0503 16:15:47.699327 21270 net.cpp:409] loss -> loss
I0503 16:15:47.699339 21270 layer_factory.hpp:77] Creating layer loss
…
I0503 16:15:47.699870 21270 solver.cpp:181] Creating test net (#0) specified by net file: ./protocol/dis_5_900_dimension.protocol_distribution
I0503 16:15:47.699899 21270 net.cpp:323] The NetState phase (1) differed from the phase (0) specified by a rule in layer parameters
I0503 16:15:47.700001 21270 net.cpp:52] Initializing net from parameters: 
state {
  phase: TEST
}
layer {
  name: "intercept"
  type: "HDF5Data"
  top: "data"
  top: "label"
  include {
    phase: TEST
  }
  hdf5_data_param {
    source: "/home/purduethu/scratch/radon/d/deng106/CNNStatisticalModel/distributions/input/5_distributions_900_sample_size_test-distributions-path.txt"
    batch_size: 20
  }
}
layer {
  name: "conv1"
  type: "Convolution"
  bottom: "data"
  top: "conv1"
  param {
    lr_mult: 1
  }
  param {
    lr_mult: 2
  }
  convolution_param {
    num_output: 64
    pad: 2
    kernel_size: 5
    stride: 1
    weight_filler {
      type: "gaussian"
      std: 0.0001
    }
    bias_filler {
      type: "constant"
    }
  }
}
layer {
  name: "relu1"
  type: "ReLU"
  bottom: "conv1"
  top: "conv1"
}
layer {
  name: "conv2"
  type: "Convolution"
  bottom: "conv1"
  top: "conv2"
  param {
    lr_mult: 1
  }
  param {
    lr_mult: 2
  }
  convolution_param {
    num_output: 64
    pad: 2
    kernel_size: 5
    stride: 1
    weight_filler {
      type: "gaussian"
      std: 0.01
    }
    bias_filler {
      type: "constant"
    }
  }
}
layer {
  name: "relu2"
  type: "ReLU"
  bottom: "conv2"
  top: "conv2"
}
layer {
  name: "pool2"
  type: "Pooling"
  bottom: "conv2"
  top: "pool2"
  pooling_param {
    pool: MAX
    kernel_size: 3
    stride: 2
  }
}
layer {
  name: "conv3"
  type: "Convolution"
  bottom: "pool2"
  top: "conv3"
  param {
    lr_mult: 1
  }
  param {
    lr_mult: 2
  }
  convolution_param {
    num_output: 128
    pad: 2
    kernel_size: 5
    stride: 1
    weight_filler {
      type: "gaussian"
      std: 0.01
    }
    bias_filler {
      type: "constant"
    }
  }
}
layer {
  name: "relu3"
  type: "ReLU"
  bottom: "conv3"
  top: "conv3"
}
layer {
  name: "conv4"
  type: "Convolution"
  bottom: "conv3"
  top: "conv4"
  param {
    lr_mult: 1
  }
  param {
    lr_mult: 2
  }
  convolution_param {
    num_output: 128
    pad: 2
    kernel_size: 5
    stride: 1
    weight_filler {
      type: "gaussian"
      std: 0.01
    }
    bias_filler {
      type: "constant"
    }
  }
}
layer {
  name: "relu4"
  type: "ReLU"
  bottom: "conv4"
  top: "conv4"
}
layer {
  name: "conv5"
  type: "Convolution"
  bottom: "conv4"
  top: "conv5"
  param {
    lr_mult: 1
  }
  param {
    lr_mult: 2
  }
  convolution_param {
    num_output: 128
    pad: 2
    kernel_size: 5
    stride: 1
    weight_filler {
      type: "gaussian"
      std: 0.01
    }
    bias_filler {
      type: "constant"
    }
  }
}
layer {
  name: "relu5"
  type: "ReLU"
  bottom: "conv5"
  top: "conv5"
}
layer {
  name: "pool5"
  type: "Pooling"
  bottom: "conv5"
  top: "pool5"
  pooling_param {
    pool: AVE
    kernel_size: 3
    stride: 2
  }
}
layer {
  name: "ip1"
  type: "InnerProduct"
  bottom: "pool5"
  top: "ip1"
  param {
    lr_mult: 1
  }
  param {
    lr_mult: 2
  }
  inner_product_param {
    num_output: 1024
    weight_filler {
      type: "gaussian"
      std: 0.1
    }
    bias_filler {
      type: "constant"
    }
  }
}
layer {
  name: "ip2"
  type: "InnerProduct"
  bottom: "ip1"
  top: "ip2"
  param {
    lr_mult: 1
  }
  param {
    lr_mult: 2
  }
  inner_product_param {
    num_output: 512
    weight_filler {
      type: "gaussian"
      std: 0.1
    }
    bias_filler {
      type: "constant"
    }
  }
}
layer {
  name: "ip3"
  type: "InnerProduct"
  bottom: "ip2"
  top: "ip3"
  param {
    lr_mult: 1
  }
  param {
    lr_mult: 2
  }
  inner_product_param {
    num_output: 50
    weight_filler {
      type: "gaussian"
      std: 0.1
    }
    bias_filler {
      type: "constant"
    }
  }
}
layer {
  name: "accuracy"
  type: "Accuracy"
  bottom: "ip3"
  bottom: "label"
  top: "accuracy"
  include {
    phase: TEST
  }
}
layer {
  name: "loss"
  type: "SoftmaxWithLoss"
  bottom: "ip3"
  bottom: "label"
  top: "loss"
}
I0503 16:15:47.700076 21270 layer_factory.hpp:77] Creating layer intercept
I0503 16:15:47.700085 21270 net.cpp:94] Creating Layer intercept
I0503 16:15:47.700090 21270 net.cpp:409] intercept -> data
I0503 16:15:47.700098 21270 net.cpp:409] intercept -> label
I0503 16:15:47.700103 21270 hdf5_data_layer.cpp:79] Loading list of HDF5 filenames from: /home/purduethu/scratch/radon/d/deng106/CNNStatisticalModel/distributions/input/5_distributions_900_sample_size_test-distributions-path.txt
I0503 16:15:47.700124 21270 hdf5_data_layer.cpp:93] Number of HDF5 files: 1
I0503 16:15:47.736290 21270 net.cpp:144] Setting up intercept
I0503 16:15:47.736321 21270 net.cpp:151] Top shape: 20 1 30 30 (18000)
I0503 16:15:47.736327 21270 net.cpp:151] Top shape: 20 (20)
I0503 16:15:47.736331 21270 net.cpp:159] Memory required for data: 72080
I0503 16:15:47.736337 21270 layer_factory.hpp:77] Creating layer label_intercept_1_split
I0503 16:15:47.736353 21270 net.cpp:94] Creating Layer label_intercept_1_split
I0503 16:15:47.736357 21270 net.cpp:435] label_intercept_1_split <- label
I0503 16:15:47.736363 21270 net.cpp:409] label_intercept_1_split -> label_intercept_1_split_0
I0503 16:15:47.736372 21270 net.cpp:409] label_intercept_1_split -> label_intercept_1_split_1
I0503 16:15:47.736407 21270 net.cpp:144] Setting up label_intercept_1_split
I0503 16:15:47.736413 21270 net.cpp:151] Top shape: 20 (20)
I0503 16:15:47.736418 21270 net.cpp:151] Top shape: 20 (20)
I0503 16:15:47.736421 21270 net.cpp:159] Memory required for data: 72240
I0503 16:15:47.736424 21270 layer_factory.hpp:77] Creating layer conv1
I0503 16:15:47.736436 21270 net.cpp:94] Creating Layer conv1
I0503 16:15:47.736440 21270 net.cpp:435] conv1 <- data
I0503 16:15:47.736445 21270 net.cpp:409] conv1 -> conv1
I0503 16:15:47.737694 21270 net.cpp:144] Setting up conv1
I0503 16:15:47.737709 21270 net.cpp:151] Top shape: 20 64 30 30 (1152000)
I0503 16:15:47.737713 21270 net.cpp:159] Memory required for data: 4680240
I0503 16:15:47.737722 21270 layer_factory.hpp:77] Creating layer relu1
I0503 16:15:47.737730 21270 net.cpp:94] Creating Layer relu1
I0503 16:15:47.737733 21270 net.cpp:435] relu1 <- conv1
I0503 16:15:47.737738 21270 net.cpp:396] relu1 -> conv1 (in-place)
I0503 16:15:47.737746 21270 net.cpp:144] Setting up relu1
I0503 16:15:47.737751 21270 net.cpp:151] Top shape: 20 64 30 30 (1152000)
I0503 16:15:47.737754 21270 net.cpp:159] Memory required for data: 9288240
I0503 16:15:47.737757 21270 layer_factory.hpp:77] Creating layer conv2
I0503 16:15:47.737766 21270 net.cpp:94] Creating Layer conv2
I0503 16:15:47.737771 21270 net.cpp:435] conv2 <- conv1
I0503 16:15:47.737776 21270 net.cpp:409] conv2 -> conv2
I0503 16:15:47.743978 21270 net.cpp:144] Setting up conv2
I0503 16:15:47.744017 21270 net.cpp:151] Top shape: 20 64 30 30 (1152000)
I0503 16:15:47.744029 21270 net.cpp:159] Memory required for data: 13896240
I0503 16:15:47.744052 21270 layer_factory.hpp:77] Creating layer relu2
I0503 16:15:47.744068 21270 net.cpp:94] Creating Layer relu2
I0503 16:15:47.744081 21270 net.cpp:435] relu2 <- conv2
I0503 16:15:47.744093 21270 net.cpp:396] relu2 -> conv2 (in-place)
I0503 16:15:47.744113 21270 net.cpp:144] Setting up relu2
I0503 16:15:47.744127 21270 net.cpp:151] Top shape: 20 64 30 30 (1152000)
I0503 16:15:47.744137 21270 net.cpp:159] Memory required for data: 18504240
I0503 16:15:47.744145 21270 layer_factory.hpp:77] Creating layer pool2
I0503 16:15:47.744160 21270 net.cpp:94] Creating Layer pool2
I0503 16:15:47.744170 21270 net.cpp:435] pool2 <- conv2
I0503 16:15:47.744184 21270 net.cpp:409] pool2 -> pool2
I0503 16:15:47.744277 21270 net.cpp:144] Setting up pool2
I0503 16:15:47.744293 21270 net.cpp:151] Top shape: 20 64 15 15 (288000)
I0503 16:15:47.744303 21270 net.cpp:159] Memory required for data: 19656240
I0503 16:15:47.744313 21270 layer_factory.hpp:77] Creating layer conv3
I0503 16:15:47.744333 21270 net.cpp:94] Creating Layer conv3
I0503 16:15:47.744344 21270 net.cpp:435] conv3 <- pool2
I0503 16:15:47.744362 21270 net.cpp:409] conv3 -> conv3
I0503 16:15:47.751796 21270 net.cpp:144] Setting up conv3
I0503 16:15:47.751811 21270 net.cpp:151] Top shape: 20 128 15 15 (576000)
I0503 16:15:47.751816 21270 net.cpp:159] Memory required for data: 21960240
I0503 16:15:47.751824 21270 layer_factory.hpp:77] Creating layer relu3
I0503 16:15:47.751832 21270 net.cpp:94] Creating Layer relu3
I0503 16:15:47.751837 21270 net.cpp:435] relu3 <- conv3
I0503 16:15:47.751840 21270 net.cpp:396] relu3 -> conv3 (in-place)
I0503 16:15:47.751848 21270 net.cpp:144] Setting up relu3
I0503 16:15:47.751853 21270 net.cpp:151] Top shape: 20 128 15 15 (576000)
I0503 16:15:47.751857 21270 net.cpp:159] Memory required for data: 24264240
I0503 16:15:47.751859 21270 layer_factory.hpp:77] Creating layer conv4
I0503 16:15:47.751868 21270 net.cpp:94] Creating Layer conv4
I0503 16:15:47.751871 21270 net.cpp:435] conv4 <- conv3
I0503 16:15:47.751876 21270 net.cpp:409] conv4 -> conv4
I0503 16:15:47.767032 21270 net.cpp:144] Setting up conv4
I0503 16:15:47.767048 21270 net.cpp:151] Top shape: 20 128 15 15 (576000)
I0503 16:15:47.767052 21270 net.cpp:159] Memory required for data: 26568240
I0503 16:15:47.767060 21270 layer_factory.hpp:77] Creating layer relu4
I0503 16:15:47.767066 21270 net.cpp:94] Creating Layer relu4
I0503 16:15:47.767073 21270 net.cpp:435] relu4 <- conv4
I0503 16:15:47.767079 21270 net.cpp:396] relu4 -> conv4 (in-place)
I0503 16:15:47.767086 21270 net.cpp:144] Setting up relu4
I0503 16:15:47.767091 21270 net.cpp:151] Top shape: 20 128 15 15 (576000)
I0503 16:15:47.767094 21270 net.cpp:159] Memory required for data: 28872240
I0503 16:15:47.767098 21270 layer_factory.hpp:77] Creating layer conv5
I0503 16:15:47.767107 21270 net.cpp:94] Creating Layer conv5
I0503 16:15:47.767109 21270 net.cpp:435] conv5 <- conv4
I0503 16:15:47.767114 21270 net.cpp:409] conv5 -> conv5
I0503 16:15:47.781908 21270 net.cpp:144] Setting up conv5
I0503 16:15:47.781924 21270 net.cpp:151] Top shape: 20 128 15 15 (576000)
I0503 16:15:47.781929 21270 net.cpp:159] Memory required for data: 31176240
I0503 16:15:47.781937 21270 layer_factory.hpp:77] Creating layer relu5
I0503 16:15:47.781944 21270 net.cpp:94] Creating Layer relu5
I0503 16:15:47.781947 21270 net.cpp:435] relu5 <- conv5
I0503 16:15:47.781952 21270 net.cpp:396] relu5 -> conv5 (in-place)
I0503 16:15:47.781960 21270 net.cpp:144] Setting up relu5
I0503 16:15:47.781965 21270 net.cpp:151] Top shape: 20 128 15 15 (576000)
I0503 16:15:47.781967 21270 net.cpp:159] Memory required for data: 33480240
I0503 16:15:47.781971 21270 layer_factory.hpp:77] Creating layer pool5
I0503 16:15:47.781976 21270 net.cpp:94] Creating Layer pool5
I0503 16:15:47.781980 21270 net.cpp:435] pool5 <- conv5
I0503 16:15:47.781985 21270 net.cpp:409] pool5 -> pool5
I0503 16:15:47.782013 21270 net.cpp:144] Setting up pool5
I0503 16:15:47.782021 21270 net.cpp:151] Top shape: 20 128 7 7 (125440)
I0503 16:15:47.782023 21270 net.cpp:159] Memory required for data: 33982000
I0503 16:15:47.782027 21270 layer_factory.hpp:77] Creating layer ip1
I0503 16:15:47.782033 21270 net.cpp:94] Creating Layer ip1
I0503 16:15:47.782037 21270 net.cpp:435] ip1 <- pool5
I0503 16:15:47.782042 21270 net.cpp:409] ip1 -> ip1
I0503 16:15:47.946050 21270 net.cpp:144] Setting up ip1
I0503 16:15:47.946074 21270 net.cpp:151] Top shape: 20 1024 (20480)
I0503 16:15:47.946079 21270 net.cpp:159] Memory required for data: 34063920
I0503 16:15:47.946087 21270 layer_factory.hpp:77] Creating layer ip2
I0503 16:15:47.946097 21270 net.cpp:94] Creating Layer ip2
I0503 16:15:47.946104 21270 net.cpp:435] ip2 <- ip1
I0503 16:15:47.946110 21270 net.cpp:409] ip2 -> ip2
I0503 16:15:47.959625 21270 net.cpp:144] Setting up ip2
I0503 16:15:47.959640 21270 net.cpp:151] Top shape: 20 512 (10240)
I0503 16:15:47.959643 21270 net.cpp:159] Memory required for data: 34104880
I0503 16:15:47.959650 21270 layer_factory.hpp:77] Creating layer ip3
I0503 16:15:47.959659 21270 net.cpp:94] Creating Layer ip3
I0503 16:15:47.959663 21270 net.cpp:435] ip3 <- ip2
I0503 16:15:47.959669 21270 net.cpp:409] ip3 -> ip3
I0503 16:15:47.960382 21270 net.cpp:144] Setting up ip3
I0503 16:15:47.960389 21270 net.cpp:151] Top shape: 20 50 (1000)
I0503 16:15:47.960393 21270 net.cpp:159] Memory required for data: 34108880
I0503 16:15:47.960398 21270 layer_factory.hpp:77] Creating layer ip3_ip3_0_split
I0503 16:15:47.960404 21270 net.cpp:94] Creating Layer ip3_ip3_0_split
I0503 16:15:47.960408 21270 net.cpp:435] ip3_ip3_0_split <- ip3
I0503 16:15:47.960412 21270 net.cpp:409] ip3_ip3_0_split -> ip3_ip3_0_split_0
I0503 16:15:47.960418 21270 net.cpp:409] ip3_ip3_0_split -> ip3_ip3_0_split_1
I0503 16:15:47.960445 21270 net.cpp:144] Setting up ip3_ip3_0_split
I0503 16:15:47.960451 21270 net.cpp:151] Top shape: 20 50 (1000)
I0503 16:15:47.960455 21270 net.cpp:151] Top shape: 20 50 (1000)
I0503 16:15:47.960458 21270 net.cpp:159] Memory required for data: 34116880
I0503 16:15:47.960461 21270 layer_factory.hpp:77] Creating layer accuracy
I0503 16:15:47.960467 21270 net.cpp:94] Creating Layer accuracy
I0503 16:15:47.960471 21270 net.cpp:435] accuracy <- ip3_ip3_0_split_0
I0503 16:15:47.960476 21270 net.cpp:435] accuracy <- label_intercept_1_split_0
I0503 16:15:47.960480 21270 net.cpp:409] accuracy -> accuracy
…
