…
I0505 06:46:48.944660  4473 net.cpp:323] The NetState phase (0) differed from the phase (1) specified by a rule in layer intercept
I0505 06:46:48.944677  4473 net.cpp:323] The NetState phase (0) differed from the phase (1) specified by a rule in layer loss
I0505 06:46:48.944761  4473 net.cpp:52] Initializing net from parameters: 
state {
  phase: TRAIN
}
layer {
  name: "parameters"
  type: "HDF5Data"
  top: "data"
  top: "label"
  include {
    phase: TRAIN
  }
  hdf5_data_param {
    source: "/home/purduethu/scratch/radon/d/deng106/CNNStatisticalModel/distributions/input/50_distributions_100_sample_size_train-parameters-path.txt"
    batch_size: 20
  }
}
layer {
  name: "conv1"
  type: "Convolution"
  bottom: "data"
  top: "conv1"
  param {
    lr_mult: 1
  }
  param {
    lr_mult: 2
  }
  convolution_param {
    num_output: 64
    pad: 2
    kernel_size: 5
    stride: 1
    weight_filler {
      type: "gaussian"
      std: 0.0001
    }
    bias_filler {
      type: "constant"
    }
  }
}
layer {
  name: "relu1"
  type: "ReLU"
  bottom: "conv1"
  top: "conv1"
}
layer {
  name: "pool1"
  type: "Pooling"
  bottom: "conv1"
  top: "pool1"
  pooling_param {
    pool: MAX
    kernel_size: 3
    stride: 2
  }
}
layer {
  name: "conv2"
  type: "Convolution"
  bottom: "pool1"
  top: "conv2"
  param {
    lr_mult: 1
  }
  param {
    lr_mult: 2
  }
  convolution_param {
    num_output: 128
    pad: 2
    kernel_size: 5
    stride: 1
    weight_filler {
      type: "gaussian"
      std: 0.01
    }
    bias_filler {
      type: "constant"
    }
  }
}
layer {
  name: "relu2"
  type: "ReLU"
  bottom: "conv2"
  top: "conv2"
}
layer {
  name: "conv3"
  type: "Convolution"
  bottom: "conv2"
  top: "conv3"
  param {
    lr_mult: 1
  }
  param {
    lr_mult: 2
  }
  convolution_param {
    num_output: 128
    pad: 2
    kernel_size: 5
    stride: 1
    weight_filler {
      type: "gaussian"
      std: 0.01
    }
    bias_filler {
      type: "constant"
    }
  }
}
layer {
  name: "relu3"
  type: "ReLU"
  bottom: "conv3"
  top: "conv3"
}
layer {
  name: "pool3"
  type: "Pooling"
  bottom: "conv3"
  top: "pool3"
  pooling_param {
    pool: AVE
    kernel_size: 3
    stride: 2
  }
}
layer {
  name: "ip1"
  type: "InnerProduct"
  bottom: "pool3"
  top: "ip1"
  param {
    lr_mult: 1
  }
  param {
    lr_mult: 2
  }
  inner_product_param {
    num_output: 512
    weight_filler {
      type: "gaussian"
      std: 0.1
    }
    bias_filler {
      type: "constant"
    }
  }
}
layer {
  name: "ip2"
  type: "InnerProduct"
  bottom: "ip1"
  top: "ip2"
  param {
    lr_mult: 1
  }
  param {
    lr_mult: 2
  }
  inner_product_param {
    num_output: 256
    weight_filler {
      type: "gaussian"
      std: 0.1
    }
    bias_filler {
      type: "constant"
    }
  }
}
layer {
  name: "ip3"
  type: "InnerProduct"
  bottom: "ip2"
  top: "ip3"
  param {
    lr_mult: 1
  }
  param {
    lr_mult: 2
  }
  inner_product_param {
    num_output: 1
    weight_filler {
      type: "gaussian"
      std: 0.1
    }
    bias_filler {
      type: "constant"
    }
  }
}
layer {
  name: "loss"
  type: "HuberLoss"
  bottom: "ip3"
  bottom: "label"
  top: "loss"
  include {
    phase: TRAIN
  }
}
I0505 06:46:48.944831  4473 layer_factory.hpp:77] Creating layer parameters
I0505 06:46:48.944851  4473 net.cpp:94] Creating Layer parameters
I0505 06:46:48.944864  4473 net.cpp:409] parameters -> data
I0505 06:46:48.944885  4473 net.cpp:409] parameters -> label
I0505 06:46:48.944895  4473 hdf5_data_layer.cpp:79] Loading list of HDF5 filenames from: /home/purduethu/scratch/radon/d/deng106/CNNStatisticalModel/distributions/input/50_distributions_100_sample_size_train-parameters-path.txt
I0505 06:46:48.944919  4473 hdf5_data_layer.cpp:93] Number of HDF5 files: 1
I0505 06:46:48.945406  4473 hdf5.cpp:32] Datatype class: H5T_FLOAT
I0505 06:46:49.111320  4473 net.cpp:144] Setting up parameters
I0505 06:46:49.111352  4473 net.cpp:151] Top shape: 20 1 10 10 (2000)
I0505 06:46:49.111358  4473 net.cpp:151] Top shape: 20 (20)
I0505 06:46:49.111362  4473 net.cpp:159] Memory required for data: 8080
I0505 06:46:49.111369  4473 layer_factory.hpp:77] Creating layer conv1
I0505 06:46:49.111394  4473 net.cpp:94] Creating Layer conv1
I0505 06:46:49.111400  4473 net.cpp:435] conv1 <- data
I0505 06:46:49.111413  4473 net.cpp:409] conv1 -> conv1
I0505 06:46:49.115241  4473 net.cpp:144] Setting up conv1
I0505 06:46:49.115257  4473 net.cpp:151] Top shape: 20 64 10 10 (128000)
I0505 06:46:49.115262  4473 net.cpp:159] Memory required for data: 520080
I0505 06:46:49.115272  4473 layer_factory.hpp:77] Creating layer relu1
I0505 06:46:49.115280  4473 net.cpp:94] Creating Layer relu1
I0505 06:46:49.115284  4473 net.cpp:435] relu1 <- conv1
I0505 06:46:49.115289  4473 net.cpp:396] relu1 -> conv1 (in-place)
I0505 06:46:49.115304  4473 net.cpp:144] Setting up relu1
I0505 06:46:49.115310  4473 net.cpp:151] Top shape: 20 64 10 10 (128000)
I0505 06:46:49.115314  4473 net.cpp:159] Memory required for data: 1032080
I0505 06:46:49.115316  4473 layer_factory.hpp:77] Creating layer pool1
I0505 06:46:49.115324  4473 net.cpp:94] Creating Layer pool1
I0505 06:46:49.115327  4473 net.cpp:435] pool1 <- conv1
I0505 06:46:49.115331  4473 net.cpp:409] pool1 -> pool1
I0505 06:46:49.115375  4473 net.cpp:144] Setting up pool1
I0505 06:46:49.115382  4473 net.cpp:151] Top shape: 20 64 5 5 (32000)
I0505 06:46:49.115386  4473 net.cpp:159] Memory required for data: 1160080
I0505 06:46:49.115389  4473 layer_factory.hpp:77] Creating layer conv2
I0505 06:46:49.115397  4473 net.cpp:94] Creating Layer conv2
I0505 06:46:49.115401  4473 net.cpp:435] conv2 <- pool1
I0505 06:46:49.115406  4473 net.cpp:409] conv2 -> conv2
I0505 06:46:49.124203  4473 net.cpp:144] Setting up conv2
I0505 06:46:49.124218  4473 net.cpp:151] Top shape: 20 128 5 5 (64000)
I0505 06:46:49.124223  4473 net.cpp:159] Memory required for data: 1416080
I0505 06:46:49.124231  4473 layer_factory.hpp:77] Creating layer relu2
I0505 06:46:49.124238  4473 net.cpp:94] Creating Layer relu2
I0505 06:46:49.124241  4473 net.cpp:435] relu2 <- conv2
I0505 06:46:49.124246  4473 net.cpp:396] relu2 -> conv2 (in-place)
I0505 06:46:49.124253  4473 net.cpp:144] Setting up relu2
I0505 06:46:49.124258  4473 net.cpp:151] Top shape: 20 128 5 5 (64000)
I0505 06:46:49.124261  4473 net.cpp:159] Memory required for data: 1672080
I0505 06:46:49.124264  4473 layer_factory.hpp:77] Creating layer conv3
I0505 06:46:49.124272  4473 net.cpp:94] Creating Layer conv3
I0505 06:46:49.124276  4473 net.cpp:435] conv3 <- conv2
I0505 06:46:49.124281  4473 net.cpp:409] conv3 -> conv3
I0505 06:46:49.139168  4473 net.cpp:144] Setting up conv3
I0505 06:46:49.139183  4473 net.cpp:151] Top shape: 20 128 5 5 (64000)
I0505 06:46:49.139186  4473 net.cpp:159] Memory required for data: 1928080
I0505 06:46:49.139195  4473 layer_factory.hpp:77] Creating layer relu3
I0505 06:46:49.139201  4473 net.cpp:94] Creating Layer relu3
I0505 06:46:49.139211  4473 net.cpp:435] relu3 <- conv3
I0505 06:46:49.139216  4473 net.cpp:396] relu3 -> conv3 (in-place)
I0505 06:46:49.139225  4473 net.cpp:144] Setting up relu3
I0505 06:46:49.139230  4473 net.cpp:151] Top shape: 20 128 5 5 (64000)
I0505 06:46:49.139232  4473 net.cpp:159] Memory required for data: 2184080
I0505 06:46:49.139235  4473 layer_factory.hpp:77] Creating layer pool3
I0505 06:46:49.139241  4473 net.cpp:94] Creating Layer pool3
I0505 06:46:49.139245  4473 net.cpp:435] pool3 <- conv3
I0505 06:46:49.139256  4473 net.cpp:409] pool3 -> pool3
I0505 06:46:49.139289  4473 net.cpp:144] Setting up pool3
I0505 06:46:49.139297  4473 net.cpp:151] Top shape: 20 128 2 2 (10240)
I0505 06:46:49.139299  4473 net.cpp:159] Memory required for data: 2225040
I0505 06:46:49.139302  4473 layer_factory.hpp:77] Creating layer ip1
I0505 06:46:49.139312  4473 net.cpp:94] Creating Layer ip1
I0505 06:46:49.139315  4473 net.cpp:435] ip1 <- pool3
I0505 06:46:49.139320  4473 net.cpp:409] ip1 -> ip1
I0505 06:46:49.147725  4473 net.cpp:144] Setting up ip1
I0505 06:46:49.147739  4473 net.cpp:151] Top shape: 20 512 (10240)
I0505 06:46:49.147744  4473 net.cpp:159] Memory required for data: 2266000
I0505 06:46:49.147750  4473 layer_factory.hpp:77] Creating layer ip2
I0505 06:46:49.147756  4473 net.cpp:94] Creating Layer ip2
I0505 06:46:49.147760  4473 net.cpp:435] ip2 <- ip1
I0505 06:46:49.147766  4473 net.cpp:409] ip2 -> ip2
I0505 06:46:49.151674  4473 net.cpp:144] Setting up ip2
I0505 06:46:49.151687  4473 net.cpp:151] Top shape: 20 256 (5120)
I0505 06:46:49.151691  4473 net.cpp:159] Memory required for data: 2286480
I0505 06:46:49.151700  4473 layer_factory.hpp:77] Creating layer ip3
I0505 06:46:49.151706  4473 net.cpp:94] Creating Layer ip3
I0505 06:46:49.151710  4473 net.cpp:435] ip3 <- ip2
I0505 06:46:49.151715  4473 net.cpp:409] ip3 -> ip3
I0505 06:46:49.151784  4473 net.cpp:144] Setting up ip3
I0505 06:46:49.151792  4473 net.cpp:151] Top shape: 20 1 (20)
I0505 06:46:49.151794  4473 net.cpp:159] Memory required for data: 2286560
I0505 06:46:49.151799  4473 layer_factory.hpp:77] Creating layer loss
I0505 06:46:49.151806  4473 net.cpp:94] Creating Layer loss
I0505 06:46:49.151809  4473 net.cpp:435] loss <- ip3
I0505 06:46:49.151813  4473 net.cpp:435] loss <- label
I0505 06:46:49.151819  4473 net.cpp:409] loss -> loss
I0505 06:46:49.151854  4473 net.cpp:144] Setting up loss
…
