…
I0505 09:15:41.967252  5752 net.cpp:323] The NetState phase (0) differed from the phase (1) specified by a rule in layer intercept
I0505 09:15:41.967267  5752 net.cpp:323] The NetState phase (0) differed from the phase (1) specified by a rule in layer accuracy
I0505 09:15:41.967347  5752 net.cpp:52] Initializing net from parameters: 
state {
  phase: TRAIN
}
layer {
  name: "parameters"
  type: "HDF5Data"
  top: "data"
  top: "label"
  include {
    phase: TRAIN
  }
  hdf5_data_param {
    source: "/home/purduethu/scratch/radon/d/deng106/CNNStatisticalModel/distributions/input/5_distributions_900_sample_size_train-distributions-path.txt"
    batch_size: 20
  }
}
layer {
  name: "conv1"
  type: "Convolution"
  bottom: "data"
  top: "conv1"
  param {
    lr_mult: 1
  }
  param {
    lr_mult: 2
  }
  convolution_param {
    num_output: 64
    pad: 2
    kernel_size: 5
    stride: 1
    weight_filler {
      type: "gaussian"
      std: 0.0001
    }
    bias_filler {
      type: "constant"
    }
  }
}
layer {
  name: "relu1"
  type: "ReLU"
  bottom: "conv1"
  top: "conv1"
}
layer {
  name: "pool1"
  type: "Pooling"
  bottom: "conv1"
  top: "pool1"
  pooling_param {
    pool: MAX
    kernel_size: 3
    stride: 2
  }
}
layer {
  name: "conv2"
  type: "Convolution"
  bottom: "pool1"
  top: "conv2"
  param {
    lr_mult: 1
  }
  param {
    lr_mult: 2
  }
  convolution_param {
    num_output: 128
    pad: 2
    kernel_size: 5
    stride: 1
    weight_filler {
      type: "gaussian"
      std: 0.01
    }
    bias_filler {
      type: "constant"
    }
  }
}
layer {
  name: "relu2"
  type: "ReLU"
  bottom: "conv2"
  top: "conv2"
}
layer {
  name: "conv3"
  type: "Convolution"
  bottom: "conv2"
  top: "conv3"
  param {
    lr_mult: 1
  }
  param {
    lr_mult: 2
  }
  convolution_param {
    num_output: 128
    pad: 2
    kernel_size: 5
    stride: 1
    weight_filler {
      type: "gaussian"
      std: 0.01
    }
    bias_filler {
      type: "constant"
    }
  }
}
layer {
  name: "relu3"
  type: "ReLU"
  bottom: "conv3"
  top: "conv3"
}
layer {
  name: "pool3"
  type: "Pooling"
  bottom: "conv3"
  top: "pool3"
  pooling_param {
    pool: AVE
    kernel_size: 3
    stride: 2
  }
}
layer {
  name: "ip1"
  type: "InnerProduct"
  bottom: "pool3"
  top: "ip1"
  param {
    lr_mult: 1
  }
  param {
    lr_mult: 2
  }
  inner_product_param {
    num_output: 512
    weight_filler {
      type: "gaussian"
      std: 0.1
    }
    bias_filler {
      type: "constant"
    }
  }
}
layer {
  name: "ip2"
  type: "InnerProduct"
  bottom: "ip1"
  top: "ip2"
  param {
    lr_mult: 1
  }
  param {
    lr_mult: 2
  }
  inner_product_param {
    num_output: 256
    weight_filler {
      type: "gaussian"
      std: 0.1
    }
    bias_filler {
      type: "constant"
    }
  }
}
layer {
  name: "ip3"
  type: "InnerProduct"
  bottom: "ip2"
  top: "ip3"
  param {
    lr_mult: 1
  }
  param {
    lr_mult: 2
  }
  inner_product_param {
    num_output: 50
    weight_filler {
      type: "gaussian"
      std: 0.1
    }
    bias_filler {
      type: "constant"
    }
  }
}
layer {
  name: "loss"
  type: "SoftmaxWithLoss"
  bottom: "ip3"
  bottom: "label"
  top: "loss"
}
I0505 09:15:41.967416  5752 layer_factory.hpp:77] Creating layer parameters
I0505 09:15:41.967430  5752 net.cpp:94] Creating Layer parameters
I0505 09:15:41.967435  5752 net.cpp:409] parameters -> data
I0505 09:15:41.967463  5752 net.cpp:409] parameters -> label
I0505 09:15:41.967473  5752 hdf5_data_layer.cpp:79] Loading list of HDF5 filenames from: /home/purduethu/scratch/radon/d/deng106/CNNStatisticalModel/distributions/input/5_distributions_900_sample_size_train-distributions-path.txt
I0505 09:15:41.967494  5752 hdf5_data_layer.cpp:93] Number of HDF5 files: 1
I0505 09:15:41.968065  5752 hdf5.cpp:32] Datatype class: H5T_FLOAT
I0505 09:15:42.104482  5752 hdf5.cpp:35] Datatype class: H5T_INTEGER
I0505 09:15:42.105621  5752 net.cpp:144] Setting up parameters
I0505 09:15:42.105641  5752 net.cpp:151] Top shape: 20 1 30 30 (18000)
I0505 09:15:42.105648  5752 net.cpp:151] Top shape: 20 (20)
I0505 09:15:42.105651  5752 net.cpp:159] Memory required for data: 72080
I0505 09:15:42.105659  5752 layer_factory.hpp:77] Creating layer conv1
I0505 09:15:42.105684  5752 net.cpp:94] Creating Layer conv1
I0505 09:15:42.105690  5752 net.cpp:435] conv1 <- data
I0505 09:15:42.105700  5752 net.cpp:409] conv1 -> conv1
I0505 09:15:42.116148  5752 net.cpp:144] Setting up conv1
I0505 09:15:42.116165  5752 net.cpp:151] Top shape: 20 64 30 30 (1152000)
I0505 09:15:42.116169  5752 net.cpp:159] Memory required for data: 4680080
I0505 09:15:42.116181  5752 layer_factory.hpp:77] Creating layer relu1
I0505 09:15:42.116190  5752 net.cpp:94] Creating Layer relu1
I0505 09:15:42.116194  5752 net.cpp:435] relu1 <- conv1
I0505 09:15:42.116199  5752 net.cpp:396] relu1 -> conv1 (in-place)
I0505 09:15:42.116217  5752 net.cpp:144] Setting up relu1
I0505 09:15:42.116222  5752 net.cpp:151] Top shape: 20 64 30 30 (1152000)
I0505 09:15:42.116226  5752 net.cpp:159] Memory required for data: 9288080
I0505 09:15:42.116230  5752 layer_factory.hpp:77] Creating layer pool1
I0505 09:15:42.116236  5752 net.cpp:94] Creating Layer pool1
I0505 09:15:42.116240  5752 net.cpp:435] pool1 <- conv1
I0505 09:15:42.116245  5752 net.cpp:409] pool1 -> pool1
I0505 09:15:42.116286  5752 net.cpp:144] Setting up pool1
I0505 09:15:42.116293  5752 net.cpp:151] Top shape: 20 64 15 15 (288000)
I0505 09:15:42.116297  5752 net.cpp:159] Memory required for data: 10440080
I0505 09:15:42.116299  5752 layer_factory.hpp:77] Creating layer conv2
I0505 09:15:42.116309  5752 net.cpp:94] Creating Layer conv2
I0505 09:15:42.116312  5752 net.cpp:435] conv2 <- pool1
I0505 09:15:42.116317  5752 net.cpp:409] conv2 -> conv2
I0505 09:15:42.129072  5752 net.cpp:144] Setting up conv2
I0505 09:15:42.129089  5752 net.cpp:151] Top shape: 20 128 15 15 (576000)
I0505 09:15:42.129093  5752 net.cpp:159] Memory required for data: 12744080
I0505 09:15:42.129101  5752 layer_factory.hpp:77] Creating layer relu2
I0505 09:15:42.129107  5752 net.cpp:94] Creating Layer relu2
I0505 09:15:42.129112  5752 net.cpp:435] relu2 <- conv2
I0505 09:15:42.129117  5752 net.cpp:396] relu2 -> conv2 (in-place)
I0505 09:15:42.129123  5752 net.cpp:144] Setting up relu2
I0505 09:15:42.129128  5752 net.cpp:151] Top shape: 20 128 15 15 (576000)
I0505 09:15:42.129132  5752 net.cpp:159] Memory required for data: 15048080
I0505 09:15:42.129135  5752 layer_factory.hpp:77] Creating layer conv3
I0505 09:15:42.129142  5752 net.cpp:94] Creating Layer conv3
I0505 09:15:42.129146  5752 net.cpp:435] conv3 <- conv2
I0505 09:15:42.129151  5752 net.cpp:409] conv3 -> conv3
I0505 09:15:42.156143  5752 net.cpp:144] Setting up conv3
I0505 09:15:42.156170  5752 net.cpp:151] Top shape: 20 128 15 15 (576000)
I0505 09:15:42.156179  5752 net.cpp:159] Memory required for data: 17352080
I0505 09:15:42.156203  5752 layer_factory.hpp:77] Creating layer relu3
I0505 09:15:42.156215  5752 net.cpp:94] Creating Layer relu3
I0505 09:15:42.156222  5752 net.cpp:435] relu3 <- conv3
I0505 09:15:42.156231  5752 net.cpp:396] relu3 -> conv3 (in-place)
I0505 09:15:42.156245  5752 net.cpp:144] Setting up relu3
I0505 09:15:42.156255  5752 net.cpp:151] Top shape: 20 128 15 15 (576000)
I0505 09:15:42.156260  5752 net.cpp:159] Memory required for data: 19656080
I0505 09:15:42.156267  5752 layer_factory.hpp:77] Creating layer pool3
I0505 09:15:42.156278  5752 net.cpp:94] Creating Layer pool3
I0505 09:15:42.156294  5752 net.cpp:435] pool3 <- conv3
I0505 09:15:42.156304  5752 net.cpp:409] pool3 -> pool3
I0505 09:15:42.156369  5752 net.cpp:144] Setting up pool3
I0505 09:15:42.156381  5752 net.cpp:151] Top shape: 20 128 7 7 (125440)
I0505 09:15:42.156388  5752 net.cpp:159] Memory required for data: 20157840
I0505 09:15:42.156394  5752 layer_factory.hpp:77] Creating layer ip1
I0505 09:15:42.156410  5752 net.cpp:94] Creating Layer ip1
I0505 09:15:42.156417  5752 net.cpp:435] ip1 <- pool3
I0505 09:15:42.156426  5752 net.cpp:409] ip1 -> ip1
I0505 09:15:42.244732  5752 net.cpp:144] Setting up ip1
I0505 09:15:42.244765  5752 net.cpp:151] Top shape: 20 512 (10240)
I0505 09:15:42.244768  5752 net.cpp:159] Memory required for data: 20198800
I0505 09:15:42.244776  5752 layer_factory.hpp:77] Creating layer ip2
I0505 09:15:42.244786  5752 net.cpp:94] Creating Layer ip2
I0505 09:15:42.244791  5752 net.cpp:435] ip2 <- ip1
I0505 09:15:42.244798  5752 net.cpp:409] ip2 -> ip2
I0505 09:15:42.248080  5752 net.cpp:144] Setting up ip2
I0505 09:15:42.248088  5752 net.cpp:151] Top shape: 20 256 (5120)
I0505 09:15:42.248092  5752 net.cpp:159] Memory required for data: 20219280
I0505 09:15:42.248100  5752 layer_factory.hpp:77] Creating layer ip3
I0505 09:15:42.248113  5752 net.cpp:94] Creating Layer ip3
I0505 09:15:42.248116  5752 net.cpp:435] ip3 <- ip2
I0505 09:15:42.248121  5752 net.cpp:409] ip3 -> ip3
I0505 09:15:42.250125  5752 net.cpp:144] Setting up ip3
I0505 09:15:42.250141  5752 net.cpp:151] Top shape: 20 50 (1000)
I0505 09:15:42.250145  5752 net.cpp:159] Memory required for data: 20223280
I0505 09:15:42.250152  5752 layer_factory.hpp:77] Creating layer loss
I0505 09:15:42.250159  5752 net.cpp:94] Creating Layer loss
I0505 09:15:42.250162  5752 net.cpp:435] loss <- ip3
I0505 09:15:42.250167  5752 net.cpp:435] loss <- label
I0505 09:15:42.250174  5752 net.cpp:409] loss -> loss
I0505 09:15:42.250185  5752 layer_factory.hpp:77] Creating layer loss
…
I0505 09:15:42.250629  5752 solver.cpp:181] Creating test net (#0) specified by net file: ./protocol/dis_5_900_dimension.protocol_distribution
I0505 09:15:42.250653  5752 net.cpp:323] The NetState phase (1) differed from the phase (0) specified by a rule in layer parameters
I0505 09:15:42.250748  5752 net.cpp:52] Initializing net from parameters: 
state {
  phase: TEST
}
layer {
  name: "intercept"
  type: "HDF5Data"
  top: "data"
  top: "label"
  include {
    phase: TEST
  }
  hdf5_data_param {
    source: "/home/purduethu/scratch/radon/d/deng106/CNNStatisticalModel/distributions/input/5_distributions_900_sample_size_test-distributions-path.txt"
    batch_size: 20
  }
}
layer {
  name: "conv1"
  type: "Convolution"
  bottom: "data"
  top: "conv1"
  param {
    lr_mult: 1
  }
  param {
    lr_mult: 2
  }
  convolution_param {
    num_output: 64
    pad: 2
    kernel_size: 5
    stride: 1
    weight_filler {
      type: "gaussian"
      std: 0.0001
    }
    bias_filler {
      type: "constant"
    }
  }
}
layer {
  name: "relu1"
  type: "ReLU"
  bottom: "conv1"
  top: "conv1"
}
layer {
  name: "pool1"
  type: "Pooling"
  bottom: "conv1"
  top: "pool1"
  pooling_param {
    pool: MAX
    kernel_size: 3
    stride: 2
  }
}
layer {
  name: "conv2"
  type: "Convolution"
  bottom: "pool1"
  top: "conv2"
  param {
    lr_mult: 1
  }
  param {
    lr_mult: 2
  }
  convolution_param {
    num_output: 128
    pad: 2
    kernel_size: 5
    stride: 1
    weight_filler {
      type: "gaussian"
      std: 0.01
    }
    bias_filler {
      type: "constant"
    }
  }
}
layer {
  name: "relu2"
  type: "ReLU"
  bottom: "conv2"
  top: "conv2"
}
layer {
  name: "conv3"
  type: "Convolution"
  bottom: "conv2"
  top: "conv3"
  param {
    lr_mult: 1
  }
  param {
    lr_mult: 2
  }
  convolution_param {
    num_output: 128
    pad: 2
    kernel_size: 5
    stride: 1
    weight_filler {
      type: "gaussian"
      std: 0.01
    }
    bias_filler {
      type: "constant"
    }
  }
}
layer {
  name: "relu3"
  type: "ReLU"
  bottom: "conv3"
  top: "conv3"
}
layer {
  name: "pool3"
  type: "Pooling"
  bottom: "conv3"
  top: "pool3"
  pooling_param {
    pool: AVE
    kernel_size: 3
    stride: 2
  }
}
layer {
  name: "ip1"
  type: "InnerProduct"
  bottom: "pool3"
  top: "ip1"
  param {
    lr_mult: 1
  }
  param {
    lr_mult: 2
  }
  inner_product_param {
    num_output: 512
    weight_filler {
      type: "gaussian"
      std: 0.1
    }
    bias_filler {
      type: "constant"
    }
  }
}
layer {
  name: "ip2"
  type: "InnerProduct"
  bottom: "ip1"
  top: "ip2"
  param {
    lr_mult: 1
  }
  param {
    lr_mult: 2
  }
  inner_product_param {
    num_output: 256
    weight_filler {
      type: "gaussian"
      std: 0.1
    }
    bias_filler {
      type: "constant"
    }
  }
}
layer {
  name: "ip3"
  type: "InnerProduct"
  bottom: "ip2"
  top: "ip3"
  param {
    lr_mult: 1
  }
  param {
    lr_mult: 2
  }
  inner_product_param {
    num_output: 50
    weight_filler {
      type: "gaussian"
      std: 0.1
    }
    bias_filler {
      type: "constant"
    }
  }
}
layer {
  name: "accuracy"
  type: "Accuracy"
  bottom: "ip3"
  bottom: "label"
  top: "accuracy"
  include {
    phase: TEST
  }
}
layer {
  name: "loss"
  type: "SoftmaxWithLoss"
  bottom: "ip3"
  bottom: "label"
  top: "loss"
}
I0505 09:15:42.250813  5752 layer_factory.hpp:77] Creating layer intercept
I0505 09:15:42.250823  5752 net.cpp:94] Creating Layer intercept
I0505 09:15:42.250828  5752 net.cpp:409] intercept -> data
I0505 09:15:42.250834  5752 net.cpp:409] intercept -> label
I0505 09:15:42.250840  5752 hdf5_data_layer.cpp:79] Loading list of HDF5 filenames from: /home/purduethu/scratch/radon/d/deng106/CNNStatisticalModel/distributions/input/5_distributions_900_sample_size_test-distributions-path.txt
I0505 09:15:42.250859  5752 hdf5_data_layer.cpp:93] Number of HDF5 files: 1
I0505 09:15:42.285846  5752 net.cpp:144] Setting up intercept
I0505 09:15:42.285881  5752 net.cpp:151] Top shape: 20 1 30 30 (18000)
I0505 09:15:42.285887  5752 net.cpp:151] Top shape: 20 (20)
I0505 09:15:42.285889  5752 net.cpp:159] Memory required for data: 72080
I0505 09:15:42.285895  5752 layer_factory.hpp:77] Creating layer label_intercept_1_split
I0505 09:15:42.285924  5752 net.cpp:94] Creating Layer label_intercept_1_split
I0505 09:15:42.285930  5752 net.cpp:435] label_intercept_1_split <- label
I0505 09:15:42.285936  5752 net.cpp:409] label_intercept_1_split -> label_intercept_1_split_0
I0505 09:15:42.285945  5752 net.cpp:409] label_intercept_1_split -> label_intercept_1_split_1
I0505 09:15:42.285972  5752 net.cpp:144] Setting up label_intercept_1_split
I0505 09:15:42.285979  5752 net.cpp:151] Top shape: 20 (20)
I0505 09:15:42.285982  5752 net.cpp:151] Top shape: 20 (20)
I0505 09:15:42.285993  5752 net.cpp:159] Memory required for data: 72240
I0505 09:15:42.285996  5752 layer_factory.hpp:77] Creating layer conv1
I0505 09:15:42.286008  5752 net.cpp:94] Creating Layer conv1
I0505 09:15:42.286011  5752 net.cpp:435] conv1 <- data
I0505 09:15:42.286017  5752 net.cpp:409] conv1 -> conv1
I0505 09:15:42.287276  5752 net.cpp:144] Setting up conv1
I0505 09:15:42.287291  5752 net.cpp:151] Top shape: 20 64 30 30 (1152000)
I0505 09:15:42.287295  5752 net.cpp:159] Memory required for data: 4680240
I0505 09:15:42.287304  5752 layer_factory.hpp:77] Creating layer relu1
I0505 09:15:42.287312  5752 net.cpp:94] Creating Layer relu1
I0505 09:15:42.287315  5752 net.cpp:435] relu1 <- conv1
I0505 09:15:42.287319  5752 net.cpp:396] relu1 -> conv1 (in-place)
I0505 09:15:42.287328  5752 net.cpp:144] Setting up relu1
I0505 09:15:42.287331  5752 net.cpp:151] Top shape: 20 64 30 30 (1152000)
I0505 09:15:42.287334  5752 net.cpp:159] Memory required for data: 9288240
I0505 09:15:42.287338  5752 layer_factory.hpp:77] Creating layer pool1
I0505 09:15:42.287344  5752 net.cpp:94] Creating Layer pool1
I0505 09:15:42.287348  5752 net.cpp:435] pool1 <- conv1
I0505 09:15:42.287353  5752 net.cpp:409] pool1 -> pool1
I0505 09:15:42.287384  5752 net.cpp:144] Setting up pool1
I0505 09:15:42.287391  5752 net.cpp:151] Top shape: 20 64 15 15 (288000)
I0505 09:15:42.287395  5752 net.cpp:159] Memory required for data: 10440240
I0505 09:15:42.287397  5752 layer_factory.hpp:77] Creating layer conv2
I0505 09:15:42.287405  5752 net.cpp:94] Creating Layer conv2
I0505 09:15:42.287410  5752 net.cpp:435] conv2 <- pool1
I0505 09:15:42.287415  5752 net.cpp:409] conv2 -> conv2
I0505 09:15:42.297050  5752 net.cpp:144] Setting up conv2
I0505 09:15:42.297066  5752 net.cpp:151] Top shape: 20 128 15 15 (576000)
I0505 09:15:42.297070  5752 net.cpp:159] Memory required for data: 12744240
I0505 09:15:42.297080  5752 layer_factory.hpp:77] Creating layer relu2
I0505 09:15:42.297086  5752 net.cpp:94] Creating Layer relu2
I0505 09:15:42.297089  5752 net.cpp:435] relu2 <- conv2
I0505 09:15:42.297094  5752 net.cpp:396] relu2 -> conv2 (in-place)
I0505 09:15:42.297101  5752 net.cpp:144] Setting up relu2
I0505 09:15:42.297106  5752 net.cpp:151] Top shape: 20 128 15 15 (576000)
I0505 09:15:42.297109  5752 net.cpp:159] Memory required for data: 15048240
I0505 09:15:42.297112  5752 layer_factory.hpp:77] Creating layer conv3
I0505 09:15:42.297121  5752 net.cpp:94] Creating Layer conv3
I0505 09:15:42.297123  5752 net.cpp:435] conv3 <- conv2
I0505 09:15:42.297128  5752 net.cpp:409] conv3 -> conv3
I0505 09:15:42.313177  5752 net.cpp:144] Setting up conv3
I0505 09:15:42.313194  5752 net.cpp:151] Top shape: 20 128 15 15 (576000)
I0505 09:15:42.313197  5752 net.cpp:159] Memory required for data: 17352240
I0505 09:15:42.313206  5752 layer_factory.hpp:77] Creating layer relu3
I0505 09:15:42.313213  5752 net.cpp:94] Creating Layer relu3
I0505 09:15:42.313217  5752 net.cpp:435] relu3 <- conv3
I0505 09:15:42.313222  5752 net.cpp:396] relu3 -> conv3 (in-place)
I0505 09:15:42.313230  5752 net.cpp:144] Setting up relu3
I0505 09:15:42.313235  5752 net.cpp:151] Top shape: 20 128 15 15 (576000)
I0505 09:15:42.313237  5752 net.cpp:159] Memory required for data: 19656240
I0505 09:15:42.313241  5752 layer_factory.hpp:77] Creating layer pool3
I0505 09:15:42.313246  5752 net.cpp:94] Creating Layer pool3
I0505 09:15:42.313249  5752 net.cpp:435] pool3 <- conv3
I0505 09:15:42.313253  5752 net.cpp:409] pool3 -> pool3
I0505 09:15:42.313280  5752 net.cpp:144] Setting up pool3
I0505 09:15:42.313292  5752 net.cpp:151] Top shape: 20 128 7 7 (125440)
I0505 09:15:42.313294  5752 net.cpp:159] Memory required for data: 20158000
I0505 09:15:42.313298  5752 layer_factory.hpp:77] Creating layer ip1
I0505 09:15:42.313305  5752 net.cpp:94] Creating Layer ip1
I0505 09:15:42.313308  5752 net.cpp:435] ip1 <- pool3
I0505 09:15:42.313313  5752 net.cpp:409] ip1 -> ip1
I0505 09:15:42.394515  5752 net.cpp:144] Setting up ip1
I0505 09:15:42.394546  5752 net.cpp:151] Top shape: 20 512 (10240)
I0505 09:15:42.394551  5752 net.cpp:159] Memory required for data: 20198960
I0505 09:15:42.394574  5752 layer_factory.hpp:77] Creating layer ip2
I0505 09:15:42.394584  5752 net.cpp:94] Creating Layer ip2
I0505 09:15:42.394589  5752 net.cpp:435] ip2 <- ip1
I0505 09:15:42.394595  5752 net.cpp:409] ip2 -> ip2
I0505 09:15:42.397881  5752 net.cpp:144] Setting up ip2
I0505 09:15:42.397889  5752 net.cpp:151] Top shape: 20 256 (5120)
I0505 09:15:42.397893  5752 net.cpp:159] Memory required for data: 20219440
I0505 09:15:42.397902  5752 layer_factory.hpp:77] Creating layer ip3
I0505 09:15:42.397908  5752 net.cpp:94] Creating Layer ip3
I0505 09:15:42.397912  5752 net.cpp:435] ip3 <- ip2
I0505 09:15:42.397917  5752 net.cpp:409] ip3 -> ip3
I0505 09:15:42.398308  5752 net.cpp:144] Setting up ip3
I0505 09:15:42.398315  5752 net.cpp:151] Top shape: 20 50 (1000)
I0505 09:15:42.398319  5752 net.cpp:159] Memory required for data: 20223440
I0505 09:15:42.398324  5752 layer_factory.hpp:77] Creating layer ip3_ip3_0_split
I0505 09:15:42.398329  5752 net.cpp:94] Creating Layer ip3_ip3_0_split
I0505 09:15:42.398332  5752 net.cpp:435] ip3_ip3_0_split <- ip3
I0505 09:15:42.398337  5752 net.cpp:409] ip3_ip3_0_split -> ip3_ip3_0_split_0
I0505 09:15:42.398342  5752 net.cpp:409] ip3_ip3_0_split -> ip3_ip3_0_split_1
I0505 09:15:42.398367  5752 net.cpp:144] Setting up ip3_ip3_0_split
I0505 09:15:42.398372  5752 net.cpp:151] Top shape: 20 50 (1000)
I0505 09:15:42.398376  5752 net.cpp:151] Top shape: 20 50 (1000)
I0505 09:15:42.398380  5752 net.cpp:159] Memory required for data: 20231440
I0505 09:15:42.398382  5752 layer_factory.hpp:77] Creating layer accuracy
I0505 09:15:42.398388  5752 net.cpp:94] Creating Layer accuracy
I0505 09:15:42.398392  5752 net.cpp:435] accuracy <- ip3_ip3_0_split_0
I0505 09:15:42.398396  5752 net.cpp:435] accuracy <- label_intercept_1_split_0
I0505 09:15:42.398401  5752 net.cpp:409] accuracy -> accuracy
…
