…
I0503 17:58:30.891257 21700 net.cpp:323] The NetState phase (0) differed from the phase (1) specified by a rule in layer intercept
I0503 17:58:30.891273 21700 net.cpp:323] The NetState phase (0) differed from the phase (1) specified by a rule in layer accuracy
I0503 17:58:30.891363 21700 net.cpp:52] Initializing net from parameters: 
state {
  phase: TRAIN
}
layer {
  name: "parameters"
  type: "HDF5Data"
  top: "data"
  top: "label"
  include {
    phase: TRAIN
  }
  hdf5_data_param {
    source: "/home/purduethu/scratch/radon/d/deng106/CNNStatisticalModel/distributions/input/50_distributions_400_sample_size_train-distributions-path.txt"
    batch_size: 20
  }
}
layer {
  name: "conv1"
  type: "Convolution"
  bottom: "data"
  top: "conv1"
  param {
    lr_mult: 1
  }
  param {
    lr_mult: 2
  }
  convolution_param {
    num_output: 64
    pad: 2
    kernel_size: 5
    stride: 1
    weight_filler {
      type: "gaussian"
      std: 0.0001
    }
    bias_filler {
      type: "constant"
    }
  }
}
layer {
  name: "relu1"
  type: "ReLU"
  bottom: "conv1"
  top: "conv1"
}
layer {
  name: "conv2"
  type: "Convolution"
  bottom: "conv1"
  top: "conv2"
  param {
    lr_mult: 1
  }
  param {
    lr_mult: 2
  }
  convolution_param {
    num_output: 64
    pad: 2
    kernel_size: 5
    stride: 1
    weight_filler {
      type: "gaussian"
      std: 0.01
    }
    bias_filler {
      type: "constant"
    }
  }
}
layer {
  name: "relu2"
  type: "ReLU"
  bottom: "conv2"
  top: "conv2"
}
layer {
  name: "pool2"
  type: "Pooling"
  bottom: "conv2"
  top: "pool2"
  pooling_param {
    pool: MAX
    kernel_size: 3
    stride: 2
  }
}
layer {
  name: "conv3"
  type: "Convolution"
  bottom: "pool2"
  top: "conv3"
  param {
    lr_mult: 1
  }
  param {
    lr_mult: 2
  }
  convolution_param {
    num_output: 128
    pad: 2
    kernel_size: 5
    stride: 1
    weight_filler {
      type: "gaussian"
      std: 0.01
    }
    bias_filler {
      type: "constant"
    }
  }
}
layer {
  name: "relu3"
  type: "ReLU"
  bottom: "conv3"
  top: "conv3"
}
layer {
  name: "conv4"
  type: "Convolution"
  bottom: "conv3"
  top: "conv4"
  param {
    lr_mult: 1
  }
  param {
    lr_mult: 2
  }
  convolution_param {
    num_output: 128
    pad: 2
    kernel_size: 5
    stride: 1
    weight_filler {
      type: "gaussian"
      std: 0.01
    }
    bias_filler {
      type: "constant"
    }
  }
}
layer {
  name: "relu4"
  type: "ReLU"
  bottom: "conv4"
  top: "conv4"
}
layer {
  name: "conv5"
  type: "Convolution"
  bottom: "conv4"
  top: "conv5"
  param {
    lr_mult: 1
  }
  param {
    lr_mult: 2
  }
  convolution_param {
    num_output: 128
    pad: 2
    kernel_size: 5
    stride: 1
    weight_filler {
      type: "gaussian"
      std: 0.01
    }
    bias_filler {
      type: "constant"
    }
  }
}
layer {
  name: "relu5"
  type: "ReLU"
  bottom: "conv5"
  top: "conv5"
}
layer {
  name: "pool5"
  type: "Pooling"
  bottom: "conv5"
  top: "pool5"
  pooling_param {
    pool: AVE
    kernel_size: 3
    stride: 2
  }
}
layer {
  name: "ip1"
  type: "InnerProduct"
  bottom: "pool5"
  top: "ip1"
  param {
    lr_mult: 1
  }
  param {
    lr_mult: 2
  }
  inner_product_param {
    num_output: 1024
    weight_filler {
      type: "gaussian"
      std: 0.1
    }
    bias_filler {
      type: "constant"
    }
  }
}
layer {
  name: "ip2"
  type: "InnerProduct"
  bottom: "ip1"
  top: "ip2"
  param {
    lr_mult: 1
  }
  param {
    lr_mult: 2
  }
  inner_product_param {
    num_output: 512
    weight_filler {
      type: "gaussian"
      std: 0.1
    }
    bias_filler {
      type: "constant"
    }
  }
}
layer {
  name: "ip3"
  type: "InnerProduct"
  bottom: "ip2"
  top: "ip3"
  param {
    lr_mult: 1
  }
  param {
    lr_mult: 2
  }
  inner_product_param {
    num_output: 50
    weight_filler {
      type: "gaussian"
      std: 0.1
    }
    bias_filler {
      type: "constant"
    }
  }
}
layer {
  name: "loss"
  type: "SoftmaxWithLoss"
  bottom: "ip3"
  bottom: "label"
  top: "loss"
}
I0503 17:58:30.891439 21700 layer_factory.hpp:77] Creating layer parameters
I0503 17:58:30.891454 21700 net.cpp:94] Creating Layer parameters
I0503 17:58:30.891460 21700 net.cpp:409] parameters -> data
I0503 17:58:30.891479 21700 net.cpp:409] parameters -> label
I0503 17:58:30.891489 21700 hdf5_data_layer.cpp:79] Loading list of HDF5 filenames from: /home/purduethu/scratch/radon/d/deng106/CNNStatisticalModel/distributions/input/50_distributions_400_sample_size_train-distributions-path.txt
I0503 17:58:30.891511 21700 hdf5_data_layer.cpp:93] Number of HDF5 files: 1
I0503 17:58:30.892086 21700 hdf5.cpp:32] Datatype class: H5T_FLOAT
I0503 17:58:31.529301 21700 hdf5.cpp:35] Datatype class: H5T_INTEGER
I0503 17:58:31.532058 21700 net.cpp:144] Setting up parameters
I0503 17:58:31.532081 21700 net.cpp:151] Top shape: 20 1 20 20 (8000)
I0503 17:58:31.532086 21700 net.cpp:151] Top shape: 20 (20)
I0503 17:58:31.532090 21700 net.cpp:159] Memory required for data: 32080
I0503 17:58:31.532097 21700 layer_factory.hpp:77] Creating layer conv1
I0503 17:58:31.532121 21700 net.cpp:94] Creating Layer conv1
I0503 17:58:31.532127 21700 net.cpp:435] conv1 <- data
I0503 17:58:31.532138 21700 net.cpp:409] conv1 -> conv1
I0503 17:58:31.536968 21700 net.cpp:144] Setting up conv1
I0503 17:58:31.536985 21700 net.cpp:151] Top shape: 20 64 20 20 (512000)
I0503 17:58:31.536990 21700 net.cpp:159] Memory required for data: 2080080
I0503 17:58:31.537003 21700 layer_factory.hpp:77] Creating layer relu1
I0503 17:58:31.537010 21700 net.cpp:94] Creating Layer relu1
I0503 17:58:31.537014 21700 net.cpp:435] relu1 <- conv1
I0503 17:58:31.537019 21700 net.cpp:396] relu1 -> conv1 (in-place)
I0503 17:58:31.537037 21700 net.cpp:144] Setting up relu1
I0503 17:58:31.537044 21700 net.cpp:151] Top shape: 20 64 20 20 (512000)
I0503 17:58:31.537046 21700 net.cpp:159] Memory required for data: 4128080
I0503 17:58:31.537050 21700 layer_factory.hpp:77] Creating layer conv2
I0503 17:58:31.537058 21700 net.cpp:94] Creating Layer conv2
I0503 17:58:31.537061 21700 net.cpp:435] conv2 <- conv1
I0503 17:58:31.537066 21700 net.cpp:409] conv2 -> conv2
I0503 17:58:31.547809 21700 net.cpp:144] Setting up conv2
I0503 17:58:31.547825 21700 net.cpp:151] Top shape: 20 64 20 20 (512000)
I0503 17:58:31.547829 21700 net.cpp:159] Memory required for data: 6176080
I0503 17:58:31.547837 21700 layer_factory.hpp:77] Creating layer relu2
I0503 17:58:31.547844 21700 net.cpp:94] Creating Layer relu2
I0503 17:58:31.547848 21700 net.cpp:435] relu2 <- conv2
I0503 17:58:31.547853 21700 net.cpp:396] relu2 -> conv2 (in-place)
I0503 17:58:31.547860 21700 net.cpp:144] Setting up relu2
I0503 17:58:31.547865 21700 net.cpp:151] Top shape: 20 64 20 20 (512000)
I0503 17:58:31.547868 21700 net.cpp:159] Memory required for data: 8224080
I0503 17:58:31.547871 21700 layer_factory.hpp:77] Creating layer pool2
I0503 17:58:31.547886 21700 net.cpp:94] Creating Layer pool2
I0503 17:58:31.547890 21700 net.cpp:435] pool2 <- conv2
I0503 17:58:31.547895 21700 net.cpp:409] pool2 -> pool2
I0503 17:58:31.547940 21700 net.cpp:144] Setting up pool2
I0503 17:58:31.547946 21700 net.cpp:151] Top shape: 20 64 10 10 (128000)
I0503 17:58:31.547950 21700 net.cpp:159] Memory required for data: 8736080
I0503 17:58:31.547953 21700 layer_factory.hpp:77] Creating layer conv3
I0503 17:58:31.547961 21700 net.cpp:94] Creating Layer conv3
I0503 17:58:31.547966 21700 net.cpp:435] conv3 <- pool2
I0503 17:58:31.547977 21700 net.cpp:409] conv3 -> conv3
I0503 17:58:31.557324 21700 net.cpp:144] Setting up conv3
I0503 17:58:31.557339 21700 net.cpp:151] Top shape: 20 128 10 10 (256000)
I0503 17:58:31.557344 21700 net.cpp:159] Memory required for data: 9760080
I0503 17:58:31.557353 21700 layer_factory.hpp:77] Creating layer relu3
I0503 17:58:31.557358 21700 net.cpp:94] Creating Layer relu3
I0503 17:58:31.557363 21700 net.cpp:435] relu3 <- conv3
I0503 17:58:31.557366 21700 net.cpp:396] relu3 -> conv3 (in-place)
I0503 17:58:31.557374 21700 net.cpp:144] Setting up relu3
I0503 17:58:31.557379 21700 net.cpp:151] Top shape: 20 128 10 10 (256000)
I0503 17:58:31.557382 21700 net.cpp:159] Memory required for data: 10784080
I0503 17:58:31.557385 21700 layer_factory.hpp:77] Creating layer conv4
I0503 17:58:31.557394 21700 net.cpp:94] Creating Layer conv4
I0503 17:58:31.557397 21700 net.cpp:435] conv4 <- conv3
I0503 17:58:31.557402 21700 net.cpp:409] conv4 -> conv4
I0503 17:58:31.574898 21700 net.cpp:144] Setting up conv4
I0503 17:58:31.574913 21700 net.cpp:151] Top shape: 20 128 10 10 (256000)
I0503 17:58:31.574918 21700 net.cpp:159] Memory required for data: 11808080
I0503 17:58:31.574924 21700 layer_factory.hpp:77] Creating layer relu4
I0503 17:58:31.574930 21700 net.cpp:94] Creating Layer relu4
I0503 17:58:31.574934 21700 net.cpp:435] relu4 <- conv4
I0503 17:58:31.574939 21700 net.cpp:396] relu4 -> conv4 (in-place)
I0503 17:58:31.574946 21700 net.cpp:144] Setting up relu4
I0503 17:58:31.574951 21700 net.cpp:151] Top shape: 20 128 10 10 (256000)
I0503 17:58:31.574954 21700 net.cpp:159] Memory required for data: 12832080
I0503 17:58:31.574957 21700 layer_factory.hpp:77] Creating layer conv5
I0503 17:58:31.574965 21700 net.cpp:94] Creating Layer conv5
I0503 17:58:31.574970 21700 net.cpp:435] conv5 <- conv4
I0503 17:58:31.574975 21700 net.cpp:409] conv5 -> conv5
I0503 17:58:31.592188 21700 net.cpp:144] Setting up conv5
I0503 17:58:31.592203 21700 net.cpp:151] Top shape: 20 128 10 10 (256000)
I0503 17:58:31.592207 21700 net.cpp:159] Memory required for data: 13856080
I0503 17:58:31.592216 21700 layer_factory.hpp:77] Creating layer relu5
I0503 17:58:31.592222 21700 net.cpp:94] Creating Layer relu5
I0503 17:58:31.592226 21700 net.cpp:435] relu5 <- conv5
I0503 17:58:31.592231 21700 net.cpp:396] relu5 -> conv5 (in-place)
I0503 17:58:31.592238 21700 net.cpp:144] Setting up relu5
I0503 17:58:31.592243 21700 net.cpp:151] Top shape: 20 128 10 10 (256000)
I0503 17:58:31.592247 21700 net.cpp:159] Memory required for data: 14880080
I0503 17:58:31.592249 21700 layer_factory.hpp:77] Creating layer pool5
I0503 17:58:31.592255 21700 net.cpp:94] Creating Layer pool5
I0503 17:58:31.592258 21700 net.cpp:435] pool5 <- conv5
I0503 17:58:31.592262 21700 net.cpp:409] pool5 -> pool5
I0503 17:58:31.592298 21700 net.cpp:144] Setting up pool5
I0503 17:58:31.592305 21700 net.cpp:151] Top shape: 20 128 5 5 (64000)
I0503 17:58:31.592309 21700 net.cpp:159] Memory required for data: 15136080
I0503 17:58:31.592313 21700 layer_factory.hpp:77] Creating layer ip1
I0503 17:58:31.592321 21700 net.cpp:94] Creating Layer ip1
I0503 17:58:31.592325 21700 net.cpp:435] ip1 <- pool5
I0503 17:58:31.592330 21700 net.cpp:409] ip1 -> ip1
I0503 17:58:31.671140 21700 net.cpp:144] Setting up ip1
I0503 17:58:31.671162 21700 net.cpp:151] Top shape: 20 1024 (20480)
I0503 17:58:31.671166 21700 net.cpp:159] Memory required for data: 15218000
I0503 17:58:31.671174 21700 layer_factory.hpp:77] Creating layer ip2
I0503 17:58:31.671190 21700 net.cpp:94] Creating Layer ip2
I0503 17:58:31.671195 21700 net.cpp:435] ip2 <- ip1
I0503 17:58:31.671201 21700 net.cpp:409] ip2 -> ip2
I0503 17:58:31.684103 21700 net.cpp:144] Setting up ip2
I0503 17:58:31.684118 21700 net.cpp:151] Top shape: 20 512 (10240)
I0503 17:58:31.684121 21700 net.cpp:159] Memory required for data: 15258960
I0503 17:58:31.684128 21700 layer_factory.hpp:77] Creating layer ip3
I0503 17:58:31.684136 21700 net.cpp:94] Creating Layer ip3
I0503 17:58:31.684140 21700 net.cpp:435] ip3 <- ip2
I0503 17:58:31.684145 21700 net.cpp:409] ip3 -> ip3
I0503 17:58:31.685487 21700 net.cpp:144] Setting up ip3
I0503 17:58:31.685499 21700 net.cpp:151] Top shape: 20 50 (1000)
I0503 17:58:31.685503 21700 net.cpp:159] Memory required for data: 15262960
I0503 17:58:31.685509 21700 layer_factory.hpp:77] Creating layer loss
I0503 17:58:31.685518 21700 net.cpp:94] Creating Layer loss
I0503 17:58:31.685520 21700 net.cpp:435] loss <- ip3
I0503 17:58:31.685524 21700 net.cpp:435] loss <- label
I0503 17:58:31.685531 21700 net.cpp:409] loss -> loss
I0503 17:58:31.685547 21700 layer_factory.hpp:77] Creating layer loss
…
I0503 17:58:31.686043 21700 solver.cpp:181] Creating test net (#0) specified by net file: ./protocol/dis_50_400_dimension.protocol_distribution
I0503 17:58:31.686069 21700 net.cpp:323] The NetState phase (1) differed from the phase (0) specified by a rule in layer parameters
I0503 17:58:31.686162 21700 net.cpp:52] Initializing net from parameters: 
state {
  phase: TEST
}
layer {
  name: "intercept"
  type: "HDF5Data"
  top: "data"
  top: "label"
  include {
    phase: TEST
  }
  hdf5_data_param {
    source: "/home/purduethu/scratch/radon/d/deng106/CNNStatisticalModel/distributions/input/50_distributions_400_sample_size_test-distributions-path.txt"
    batch_size: 20
  }
}
layer {
  name: "conv1"
  type: "Convolution"
  bottom: "data"
  top: "conv1"
  param {
    lr_mult: 1
  }
  param {
    lr_mult: 2
  }
  convolution_param {
    num_output: 64
    pad: 2
    kernel_size: 5
    stride: 1
    weight_filler {
      type: "gaussian"
      std: 0.0001
    }
    bias_filler {
      type: "constant"
    }
  }
}
layer {
  name: "relu1"
  type: "ReLU"
  bottom: "conv1"
  top: "conv1"
}
layer {
  name: "conv2"
  type: "Convolution"
  bottom: "conv1"
  top: "conv2"
  param {
    lr_mult: 1
  }
  param {
    lr_mult: 2
  }
  convolution_param {
    num_output: 64
    pad: 2
    kernel_size: 5
    stride: 1
    weight_filler {
      type: "gaussian"
      std: 0.01
    }
    bias_filler {
      type: "constant"
    }
  }
}
layer {
  name: "relu2"
  type: "ReLU"
  bottom: "conv2"
  top: "conv2"
}
layer {
  name: "pool2"
  type: "Pooling"
  bottom: "conv2"
  top: "pool2"
  pooling_param {
    pool: MAX
    kernel_size: 3
    stride: 2
  }
}
layer {
  name: "conv3"
  type: "Convolution"
  bottom: "pool2"
  top: "conv3"
  param {
    lr_mult: 1
  }
  param {
    lr_mult: 2
  }
  convolution_param {
    num_output: 128
    pad: 2
    kernel_size: 5
    stride: 1
    weight_filler {
      type: "gaussian"
      std: 0.01
    }
    bias_filler {
      type: "constant"
    }
  }
}
layer {
  name: "relu3"
  type: "ReLU"
  bottom: "conv3"
  top: "conv3"
}
layer {
  name: "conv4"
  type: "Convolution"
  bottom: "conv3"
  top: "conv4"
  param {
    lr_mult: 1
  }
  param {
    lr_mult: 2
  }
  convolution_param {
    num_output: 128
    pad: 2
    kernel_size: 5
    stride: 1
    weight_filler {
      type: "gaussian"
      std: 0.01
    }
    bias_filler {
      type: "constant"
    }
  }
}
layer {
  name: "relu4"
  type: "ReLU"
  bottom: "conv4"
  top: "conv4"
}
layer {
  name: "conv5"
  type: "Convolution"
  bottom: "conv4"
  top: "conv5"
  param {
    lr_mult: 1
  }
  param {
    lr_mult: 2
  }
  convolution_param {
    num_output: 128
    pad: 2
    kernel_size: 5
    stride: 1
    weight_filler {
      type: "gaussian"
      std: 0.01
    }
    bias_filler {
      type: "constant"
    }
  }
}
layer {
  name: "relu5"
  type: "ReLU"
  bottom: "conv5"
  top: "conv5"
}
layer {
  name: "pool5"
  type: "Pooling"
  bottom: "conv5"
  top: "pool5"
  pooling_param {
    pool: AVE
    kernel_size: 3
    stride: 2
  }
}
layer {
  name: "ip1"
  type: "InnerProduct"
  bottom: "pool5"
  top: "ip1"
  param {
    lr_mult: 1
  }
  param {
    lr_mult: 2
  }
  inner_product_param {
    num_output: 1024
    weight_filler {
      type: "gaussian"
      std: 0.1
    }
    bias_filler {
      type: "constant"
    }
  }
}
layer {
  name: "ip2"
  type: "InnerProduct"
  bottom: "ip1"
  top: "ip2"
  param {
    lr_mult: 1
  }
  param {
    lr_mult: 2
  }
  inner_product_param {
    num_output: 512
    weight_filler {
      type: "gaussian"
      std: 0.1
    }
    bias_filler {
      type: "constant"
    }
  }
}
layer {
  name: "ip3"
  type: "InnerProduct"
  bottom: "ip2"
  top: "ip3"
  param {
    lr_mult: 1
  }
  param {
    lr_mult: 2
  }
  inner_product_param {
    num_output: 50
    weight_filler {
      type: "gaussian"
      std: 0.1
    }
    bias_filler {
      type: "constant"
    }
  }
}
layer {
  name: "accuracy"
  type: "Accuracy"
  bottom: "ip3"
  bottom: "label"
  top: "accuracy"
  include {
    phase: TEST
  }
}
layer {
  name: "loss"
  type: "SoftmaxWithLoss"
  bottom: "ip3"
  bottom: "label"
  top: "loss"
}
I0503 17:58:31.686234 21700 layer_factory.hpp:77] Creating layer intercept
I0503 17:58:31.686242 21700 net.cpp:94] Creating Layer intercept
I0503 17:58:31.686246 21700 net.cpp:409] intercept -> data
I0503 17:58:31.686252 21700 net.cpp:409] intercept -> label
I0503 17:58:31.686259 21700 hdf5_data_layer.cpp:79] Loading list of HDF5 filenames from: /home/purduethu/scratch/radon/d/deng106/CNNStatisticalModel/distributions/input/50_distributions_400_sample_size_test-distributions-path.txt
I0503 17:58:31.686278 21700 hdf5_data_layer.cpp:93] Number of HDF5 files: 1
I0503 17:58:31.846998 21700 net.cpp:144] Setting up intercept
I0503 17:58:31.847033 21700 net.cpp:151] Top shape: 20 1 20 20 (8000)
I0503 17:58:31.847038 21700 net.cpp:151] Top shape: 20 (20)
I0503 17:58:31.847043 21700 net.cpp:159] Memory required for data: 32080
I0503 17:58:31.847048 21700 layer_factory.hpp:77] Creating layer label_intercept_1_split
I0503 17:58:31.847069 21700 net.cpp:94] Creating Layer label_intercept_1_split
I0503 17:58:31.847074 21700 net.cpp:435] label_intercept_1_split <- label
I0503 17:58:31.847079 21700 net.cpp:409] label_intercept_1_split -> label_intercept_1_split_0
I0503 17:58:31.847087 21700 net.cpp:409] label_intercept_1_split -> label_intercept_1_split_1
I0503 17:58:31.847123 21700 net.cpp:144] Setting up label_intercept_1_split
I0503 17:58:31.847131 21700 net.cpp:151] Top shape: 20 (20)
I0503 17:58:31.847134 21700 net.cpp:151] Top shape: 20 (20)
I0503 17:58:31.847137 21700 net.cpp:159] Memory required for data: 32240
I0503 17:58:31.847141 21700 layer_factory.hpp:77] Creating layer conv1
I0503 17:58:31.847151 21700 net.cpp:94] Creating Layer conv1
I0503 17:58:31.847154 21700 net.cpp:435] conv1 <- data
I0503 17:58:31.847159 21700 net.cpp:409] conv1 -> conv1
I0503 17:58:31.847853 21700 net.cpp:144] Setting up conv1
I0503 17:58:31.847867 21700 net.cpp:151] Top shape: 20 64 20 20 (512000)
I0503 17:58:31.847872 21700 net.cpp:159] Memory required for data: 2080240
I0503 17:58:31.847880 21700 layer_factory.hpp:77] Creating layer relu1
I0503 17:58:31.847887 21700 net.cpp:94] Creating Layer relu1
I0503 17:58:31.847892 21700 net.cpp:435] relu1 <- conv1
I0503 17:58:31.847895 21700 net.cpp:396] relu1 -> conv1 (in-place)
I0503 17:58:31.847903 21700 net.cpp:144] Setting up relu1
I0503 17:58:31.847908 21700 net.cpp:151] Top shape: 20 64 20 20 (512000)
I0503 17:58:31.847911 21700 net.cpp:159] Memory required for data: 4128240
I0503 17:58:31.847914 21700 layer_factory.hpp:77] Creating layer conv2
I0503 17:58:31.847923 21700 net.cpp:94] Creating Layer conv2
I0503 17:58:31.847926 21700 net.cpp:435] conv2 <- conv1
I0503 17:58:31.847931 21700 net.cpp:409] conv2 -> conv2
I0503 17:58:31.852792 21700 net.cpp:144] Setting up conv2
I0503 17:58:31.852807 21700 net.cpp:151] Top shape: 20 64 20 20 (512000)
I0503 17:58:31.852810 21700 net.cpp:159] Memory required for data: 6176240
I0503 17:58:31.852818 21700 layer_factory.hpp:77] Creating layer relu2
I0503 17:58:31.852824 21700 net.cpp:94] Creating Layer relu2
I0503 17:58:31.852828 21700 net.cpp:435] relu2 <- conv2
I0503 17:58:31.852833 21700 net.cpp:396] relu2 -> conv2 (in-place)
I0503 17:58:31.852839 21700 net.cpp:144] Setting up relu2
I0503 17:58:31.852844 21700 net.cpp:151] Top shape: 20 64 20 20 (512000)
I0503 17:58:31.852847 21700 net.cpp:159] Memory required for data: 8224240
I0503 17:58:31.852850 21700 layer_factory.hpp:77] Creating layer pool2
I0503 17:58:31.852856 21700 net.cpp:94] Creating Layer pool2
I0503 17:58:31.852859 21700 net.cpp:435] pool2 <- conv2
I0503 17:58:31.852864 21700 net.cpp:409] pool2 -> pool2
I0503 17:58:31.852897 21700 net.cpp:144] Setting up pool2
I0503 17:58:31.852903 21700 net.cpp:151] Top shape: 20 64 10 10 (128000)
I0503 17:58:31.852906 21700 net.cpp:159] Memory required for data: 8736240
I0503 17:58:31.852910 21700 layer_factory.hpp:77] Creating layer conv3
I0503 17:58:31.852917 21700 net.cpp:94] Creating Layer conv3
I0503 17:58:31.852921 21700 net.cpp:435] conv3 <- pool2
I0503 17:58:31.852926 21700 net.cpp:409] conv3 -> conv3
I0503 17:58:31.859895 21700 net.cpp:144] Setting up conv3
I0503 17:58:31.859910 21700 net.cpp:151] Top shape: 20 128 10 10 (256000)
I0503 17:58:31.859913 21700 net.cpp:159] Memory required for data: 9760240
I0503 17:58:31.859921 21700 layer_factory.hpp:77] Creating layer relu3
I0503 17:58:31.859928 21700 net.cpp:94] Creating Layer relu3
I0503 17:58:31.859932 21700 net.cpp:435] relu3 <- conv3
I0503 17:58:31.859937 21700 net.cpp:396] relu3 -> conv3 (in-place)
I0503 17:58:31.859943 21700 net.cpp:144] Setting up relu3
I0503 17:58:31.859948 21700 net.cpp:151] Top shape: 20 128 10 10 (256000)
I0503 17:58:31.859951 21700 net.cpp:159] Memory required for data: 10784240
I0503 17:58:31.859956 21700 layer_factory.hpp:77] Creating layer conv4
I0503 17:58:31.859962 21700 net.cpp:94] Creating Layer conv4
I0503 17:58:31.859966 21700 net.cpp:435] conv4 <- conv3
I0503 17:58:31.859971 21700 net.cpp:409] conv4 -> conv4
I0503 17:58:31.873222 21700 net.cpp:144] Setting up conv4
I0503 17:58:31.873252 21700 net.cpp:151] Top shape: 20 128 10 10 (256000)
I0503 17:58:31.873260 21700 net.cpp:159] Memory required for data: 11808240
I0503 17:58:31.873273 21700 layer_factory.hpp:77] Creating layer relu4
I0503 17:58:31.873284 21700 net.cpp:94] Creating Layer relu4
I0503 17:58:31.873299 21700 net.cpp:435] relu4 <- conv4
I0503 17:58:31.873311 21700 net.cpp:396] relu4 -> conv4 (in-place)
I0503 17:58:31.873325 21700 net.cpp:144] Setting up relu4
I0503 17:58:31.873335 21700 net.cpp:151] Top shape: 20 128 10 10 (256000)
I0503 17:58:31.873342 21700 net.cpp:159] Memory required for data: 12832240
I0503 17:58:31.873347 21700 layer_factory.hpp:77] Creating layer conv5
I0503 17:58:31.873363 21700 net.cpp:94] Creating Layer conv5
I0503 17:58:31.873369 21700 net.cpp:435] conv5 <- conv4
I0503 17:58:31.873379 21700 net.cpp:409] conv5 -> conv5
I0503 17:58:31.886327 21700 net.cpp:144] Setting up conv5
I0503 17:58:31.886342 21700 net.cpp:151] Top shape: 20 128 10 10 (256000)
I0503 17:58:31.886346 21700 net.cpp:159] Memory required for data: 13856240
I0503 17:58:31.886354 21700 layer_factory.hpp:77] Creating layer relu5
I0503 17:58:31.886361 21700 net.cpp:94] Creating Layer relu5
I0503 17:58:31.886364 21700 net.cpp:435] relu5 <- conv5
I0503 17:58:31.886369 21700 net.cpp:396] relu5 -> conv5 (in-place)
I0503 17:58:31.886376 21700 net.cpp:144] Setting up relu5
I0503 17:58:31.886381 21700 net.cpp:151] Top shape: 20 128 10 10 (256000)
I0503 17:58:31.886384 21700 net.cpp:159] Memory required for data: 14880240
I0503 17:58:31.886387 21700 layer_factory.hpp:77] Creating layer pool5
I0503 17:58:31.886392 21700 net.cpp:94] Creating Layer pool5
I0503 17:58:31.886396 21700 net.cpp:435] pool5 <- conv5
I0503 17:58:31.886400 21700 net.cpp:409] pool5 -> pool5
I0503 17:58:31.886426 21700 net.cpp:144] Setting up pool5
I0503 17:58:31.886433 21700 net.cpp:151] Top shape: 20 128 5 5 (64000)
I0503 17:58:31.886436 21700 net.cpp:159] Memory required for data: 15136240
I0503 17:58:31.886440 21700 layer_factory.hpp:77] Creating layer ip1
I0503 17:58:31.886446 21700 net.cpp:94] Creating Layer ip1
I0503 17:58:31.886449 21700 net.cpp:435] ip1 <- pool5
I0503 17:58:31.886454 21700 net.cpp:409] ip1 -> ip1
I0503 17:58:31.965461 21700 net.cpp:144] Setting up ip1
I0503 17:58:31.965494 21700 net.cpp:151] Top shape: 20 1024 (20480)
I0503 17:58:31.965498 21700 net.cpp:159] Memory required for data: 15218160
I0503 17:58:31.965505 21700 layer_factory.hpp:77] Creating layer ip2
I0503 17:58:31.965515 21700 net.cpp:94] Creating Layer ip2
I0503 17:58:31.965519 21700 net.cpp:435] ip2 <- ip1
I0503 17:58:31.965525 21700 net.cpp:409] ip2 -> ip2
I0503 17:58:31.978441 21700 net.cpp:144] Setting up ip2
I0503 17:58:31.978456 21700 net.cpp:151] Top shape: 20 512 (10240)
I0503 17:58:31.978459 21700 net.cpp:159] Memory required for data: 15259120
I0503 17:58:31.978466 21700 layer_factory.hpp:77] Creating layer ip3
I0503 17:58:31.978476 21700 net.cpp:94] Creating Layer ip3
I0503 17:58:31.978479 21700 net.cpp:435] ip3 <- ip2
I0503 17:58:31.978484 21700 net.cpp:409] ip3 -> ip3
I0503 17:58:31.979159 21700 net.cpp:144] Setting up ip3
I0503 17:58:31.979166 21700 net.cpp:151] Top shape: 20 50 (1000)
I0503 17:58:31.979169 21700 net.cpp:159] Memory required for data: 15263120
I0503 17:58:31.979174 21700 layer_factory.hpp:77] Creating layer ip3_ip3_0_split
I0503 17:58:31.979181 21700 net.cpp:94] Creating Layer ip3_ip3_0_split
I0503 17:58:31.979183 21700 net.cpp:435] ip3_ip3_0_split <- ip3
I0503 17:58:31.979187 21700 net.cpp:409] ip3_ip3_0_split -> ip3_ip3_0_split_0
I0503 17:58:31.979193 21700 net.cpp:409] ip3_ip3_0_split -> ip3_ip3_0_split_1
I0503 17:58:31.979218 21700 net.cpp:144] Setting up ip3_ip3_0_split
I0503 17:58:31.979224 21700 net.cpp:151] Top shape: 20 50 (1000)
I0503 17:58:31.979228 21700 net.cpp:151] Top shape: 20 50 (1000)
I0503 17:58:31.979230 21700 net.cpp:159] Memory required for data: 15271120
I0503 17:58:31.979234 21700 layer_factory.hpp:77] Creating layer accuracy
I0503 17:58:31.979240 21700 net.cpp:94] Creating Layer accuracy
I0503 17:58:31.979243 21700 net.cpp:435] accuracy <- ip3_ip3_0_split_0
I0503 17:58:31.979248 21700 net.cpp:435] accuracy <- label_intercept_1_split_0
I0503 17:58:31.979252 21700 net.cpp:409] accuracy -> accuracy
…
