…
I0504 13:05:39.373194 26764 net.cpp:323] The NetState phase (0) differed from the phase (1) specified by a rule in layer intercept
I0504 13:05:39.373210 26764 net.cpp:323] The NetState phase (0) differed from the phase (1) specified by a rule in layer loss
I0504 13:05:39.373298 26764 net.cpp:52] Initializing net from parameters: 
state {
  phase: TRAIN
}
layer {
  name: "parameters"
  type: "HDF5Data"
  top: "data"
  top: "label"
  include {
    phase: TRAIN
  }
  hdf5_data_param {
    source: "/home/purduethu/scratch/radon/d/deng106/CNNStatisticalModel/distributions/input/20_distributions_400_sample_size_train-parameters-path.txt"
    batch_size: 20
  }
}
layer {
  name: "conv1"
  type: "Convolution"
  bottom: "data"
  top: "conv1"
  param {
    lr_mult: 1
  }
  param {
    lr_mult: 2
  }
  convolution_param {
    num_output: 64
    pad: 2
    kernel_size: 5
    stride: 1
    weight_filler {
      type: "gaussian"
      std: 0.0001
    }
    bias_filler {
      type: "constant"
    }
  }
}
layer {
  name: "relu1"
  type: "ReLU"
  bottom: "conv1"
  top: "conv1"
}
layer {
  name: "conv2"
  type: "Convolution"
  bottom: "conv1"
  top: "conv2"
  param {
    lr_mult: 1
  }
  param {
    lr_mult: 2
  }
  convolution_param {
    num_output: 64
    pad: 2
    kernel_size: 5
    stride: 1
    weight_filler {
      type: "gaussian"
      std: 0.01
    }
    bias_filler {
      type: "constant"
    }
  }
}
layer {
  name: "relu2"
  type: "ReLU"
  bottom: "conv2"
  top: "conv2"
}
layer {
  name: "pool2"
  type: "Pooling"
  bottom: "conv2"
  top: "pool2"
  pooling_param {
    pool: MAX
    kernel_size: 3
    stride: 2
  }
}
layer {
  name: "conv3"
  type: "Convolution"
  bottom: "pool2"
  top: "conv3"
  param {
    lr_mult: 1
  }
  param {
    lr_mult: 2
  }
  convolution_param {
    num_output: 128
    pad: 2
    kernel_size: 5
    stride: 1
    weight_filler {
      type: "gaussian"
      std: 0.01
    }
    bias_filler {
      type: "constant"
    }
  }
}
layer {
  name: "relu3"
  type: "ReLU"
  bottom: "conv3"
  top: "conv3"
}
layer {
  name: "conv4"
  type: "Convolution"
  bottom: "conv3"
  top: "conv4"
  param {
    lr_mult: 1
  }
  param {
    lr_mult: 2
  }
  convolution_param {
    num_output: 128
    pad: 2
    kernel_size: 5
    stride: 1
    weight_filler {
      type: "gaussian"
      std: 0.01
    }
    bias_filler {
      type: "constant"
    }
  }
}
layer {
  name: "relu4"
  type: "ReLU"
  bottom: "conv4"
  top: "conv4"
}
layer {
  name: "conv5"
  type: "Convolution"
  bottom: "conv4"
  top: "conv5"
  param {
    lr_mult: 1
  }
  param {
    lr_mult: 2
  }
  convolution_param {
    num_output: 128
    pad: 2
    kernel_size: 5
    stride: 1
    weight_filler {
      type: "gaussian"
      std: 0.01
    }
    bias_filler {
      type: "constant"
    }
  }
}
layer {
  name: "relu5"
  type: "ReLU"
  bottom: "conv5"
  top: "conv5"
}
layer {
  name: "pool5"
  type: "Pooling"
  bottom: "conv5"
  top: "pool5"
  pooling_param {
    pool: AVE
    kernel_size: 3
    stride: 2
  }
}
layer {
  name: "ip1"
  type: "InnerProduct"
  bottom: "pool5"
  top: "ip1"
  param {
    lr_mult: 1
  }
  param {
    lr_mult: 2
  }
  inner_product_param {
    num_output: 1024
    weight_filler {
      type: "gaussian"
      std: 0.1
    }
    bias_filler {
      type: "constant"
    }
  }
}
layer {
  name: "ip2"
  type: "InnerProduct"
  bottom: "ip1"
  top: "ip2"
  param {
    lr_mult: 1
  }
  param {
    lr_mult: 2
  }
  inner_product_param {
    num_output: 512
    weight_filler {
      type: "gaussian"
      std: 0.1
    }
    bias_filler {
      type: "constant"
    }
  }
}
layer {
  name: "ip3"
  type: "InnerProduct"
  bottom: "ip2"
  top: "ip3"
  param {
    lr_mult: 1
  }
  param {
    lr_mult: 2
  }
  inner_product_param {
    num_output: 1
    weight_filler {
      type: "gaussian"
      std: 0.1
    }
    bias_filler {
      type: "constant"
    }
  }
}
layer {
  name: "loss"
  type: "HuberLoss"
  bottom: "ip3"
  bottom: "label"
  top: "loss"
  include {
    phase: TRAIN
  }
}
I0504 13:05:39.373373 26764 layer_factory.hpp:77] Creating layer parameters
I0504 13:05:39.373385 26764 net.cpp:94] Creating Layer parameters
I0504 13:05:39.373391 26764 net.cpp:409] parameters -> data
I0504 13:05:39.373410 26764 net.cpp:409] parameters -> label
I0504 13:05:39.373420 26764 hdf5_data_layer.cpp:79] Loading list of HDF5 filenames from: /home/purduethu/scratch/radon/d/deng106/CNNStatisticalModel/distributions/input/20_distributions_400_sample_size_train-parameters-path.txt
I0504 13:05:39.373441 26764 hdf5_data_layer.cpp:93] Number of HDF5 files: 1
I0504 13:05:39.373991 26764 hdf5.cpp:32] Datatype class: H5T_FLOAT
I0504 13:05:39.625779 26764 net.cpp:144] Setting up parameters
I0504 13:05:39.625810 26764 net.cpp:151] Top shape: 20 1 20 20 (8000)
I0504 13:05:39.625816 26764 net.cpp:151] Top shape: 20 (20)
I0504 13:05:39.625820 26764 net.cpp:159] Memory required for data: 32080
I0504 13:05:39.625828 26764 layer_factory.hpp:77] Creating layer conv1
I0504 13:05:39.625846 26764 net.cpp:94] Creating Layer conv1
I0504 13:05:39.625851 26764 net.cpp:435] conv1 <- data
I0504 13:05:39.625862 26764 net.cpp:409] conv1 -> conv1
I0504 13:05:39.630625 26764 net.cpp:144] Setting up conv1
I0504 13:05:39.630641 26764 net.cpp:151] Top shape: 20 64 20 20 (512000)
I0504 13:05:39.630646 26764 net.cpp:159] Memory required for data: 2080080
I0504 13:05:39.630658 26764 layer_factory.hpp:77] Creating layer relu1
I0504 13:05:39.630666 26764 net.cpp:94] Creating Layer relu1
I0504 13:05:39.630671 26764 net.cpp:435] relu1 <- conv1
I0504 13:05:39.630674 26764 net.cpp:396] relu1 -> conv1 (in-place)
I0504 13:05:39.630686 26764 net.cpp:144] Setting up relu1
I0504 13:05:39.630692 26764 net.cpp:151] Top shape: 20 64 20 20 (512000)
I0504 13:05:39.630694 26764 net.cpp:159] Memory required for data: 4128080
I0504 13:05:39.630697 26764 layer_factory.hpp:77] Creating layer conv2
I0504 13:05:39.630707 26764 net.cpp:94] Creating Layer conv2
I0504 13:05:39.630710 26764 net.cpp:435] conv2 <- conv1
I0504 13:05:39.630715 26764 net.cpp:409] conv2 -> conv2
I0504 13:05:39.642310 26764 net.cpp:144] Setting up conv2
I0504 13:05:39.642341 26764 net.cpp:151] Top shape: 20 64 20 20 (512000)
I0504 13:05:39.642362 26764 net.cpp:159] Memory required for data: 6176080
I0504 13:05:39.642379 26764 layer_factory.hpp:77] Creating layer relu2
I0504 13:05:39.642391 26764 net.cpp:94] Creating Layer relu2
I0504 13:05:39.642400 26764 net.cpp:435] relu2 <- conv2
I0504 13:05:39.642410 26764 net.cpp:396] relu2 -> conv2 (in-place)
I0504 13:05:39.642423 26764 net.cpp:144] Setting up relu2
I0504 13:05:39.642432 26764 net.cpp:151] Top shape: 20 64 20 20 (512000)
I0504 13:05:39.642439 26764 net.cpp:159] Memory required for data: 8224080
I0504 13:05:39.642446 26764 layer_factory.hpp:77] Creating layer pool2
I0504 13:05:39.642458 26764 net.cpp:94] Creating Layer pool2
I0504 13:05:39.642474 26764 net.cpp:435] pool2 <- conv2
I0504 13:05:39.642485 26764 net.cpp:409] pool2 -> pool2
I0504 13:05:39.642571 26764 net.cpp:144] Setting up pool2
I0504 13:05:39.642585 26764 net.cpp:151] Top shape: 20 64 10 10 (128000)
I0504 13:05:39.642592 26764 net.cpp:159] Memory required for data: 8736080
I0504 13:05:39.642599 26764 layer_factory.hpp:77] Creating layer conv3
I0504 13:05:39.642613 26764 net.cpp:94] Creating Layer conv3
I0504 13:05:39.642621 26764 net.cpp:435] conv3 <- pool2
I0504 13:05:39.642630 26764 net.cpp:409] conv3 -> conv3
I0504 13:05:39.657551 26764 net.cpp:144] Setting up conv3
I0504 13:05:39.657580 26764 net.cpp:151] Top shape: 20 128 10 10 (256000)
I0504 13:05:39.657589 26764 net.cpp:159] Memory required for data: 9760080
I0504 13:05:39.657608 26764 layer_factory.hpp:77] Creating layer relu3
I0504 13:05:39.657619 26764 net.cpp:94] Creating Layer relu3
I0504 13:05:39.657627 26764 net.cpp:435] relu3 <- conv3
I0504 13:05:39.657637 26764 net.cpp:396] relu3 -> conv3 (in-place)
I0504 13:05:39.657652 26764 net.cpp:144] Setting up relu3
I0504 13:05:39.657663 26764 net.cpp:151] Top shape: 20 128 10 10 (256000)
I0504 13:05:39.657670 26764 net.cpp:159] Memory required for data: 10784080
I0504 13:05:39.657676 26764 layer_factory.hpp:77] Creating layer conv4
I0504 13:05:39.657694 26764 net.cpp:94] Creating Layer conv4
I0504 13:05:39.657701 26764 net.cpp:435] conv4 <- conv3
I0504 13:05:39.657712 26764 net.cpp:409] conv4 -> conv4
I0504 13:05:39.685506 26764 net.cpp:144] Setting up conv4
I0504 13:05:39.685536 26764 net.cpp:151] Top shape: 20 128 10 10 (256000)
I0504 13:05:39.685545 26764 net.cpp:159] Memory required for data: 11808080
I0504 13:05:39.685559 26764 layer_factory.hpp:77] Creating layer relu4
I0504 13:05:39.685571 26764 net.cpp:94] Creating Layer relu4
I0504 13:05:39.685580 26764 net.cpp:435] relu4 <- conv4
I0504 13:05:39.685590 26764 net.cpp:396] relu4 -> conv4 (in-place)
I0504 13:05:39.685606 26764 net.cpp:144] Setting up relu4
I0504 13:05:39.685616 26764 net.cpp:151] Top shape: 20 128 10 10 (256000)
I0504 13:05:39.685622 26764 net.cpp:159] Memory required for data: 12832080
I0504 13:05:39.685629 26764 layer_factory.hpp:77] Creating layer conv5
I0504 13:05:39.685644 26764 net.cpp:94] Creating Layer conv5
I0504 13:05:39.685652 26764 net.cpp:435] conv5 <- conv4
I0504 13:05:39.685663 26764 net.cpp:409] conv5 -> conv5
I0504 13:05:39.711913 26764 net.cpp:144] Setting up conv5
I0504 13:05:39.711943 26764 net.cpp:151] Top shape: 20 128 10 10 (256000)
I0504 13:05:39.711953 26764 net.cpp:159] Memory required for data: 13856080
I0504 13:05:39.711971 26764 layer_factory.hpp:77] Creating layer relu5
I0504 13:05:39.711983 26764 net.cpp:94] Creating Layer relu5
I0504 13:05:39.711992 26764 net.cpp:435] relu5 <- conv5
I0504 13:05:39.712002 26764 net.cpp:396] relu5 -> conv5 (in-place)
I0504 13:05:39.712016 26764 net.cpp:144] Setting up relu5
I0504 13:05:39.712026 26764 net.cpp:151] Top shape: 20 128 10 10 (256000)
I0504 13:05:39.712034 26764 net.cpp:159] Memory required for data: 14880080
I0504 13:05:39.712040 26764 layer_factory.hpp:77] Creating layer pool5
I0504 13:05:39.712050 26764 net.cpp:94] Creating Layer pool5
I0504 13:05:39.712059 26764 net.cpp:435] pool5 <- conv5
I0504 13:05:39.712067 26764 net.cpp:409] pool5 -> pool5
I0504 13:05:39.712133 26764 net.cpp:144] Setting up pool5
I0504 13:05:39.712148 26764 net.cpp:151] Top shape: 20 128 5 5 (64000)
I0504 13:05:39.712155 26764 net.cpp:159] Memory required for data: 15136080
I0504 13:05:39.712162 26764 layer_factory.hpp:77] Creating layer ip1
I0504 13:05:39.712179 26764 net.cpp:94] Creating Layer ip1
I0504 13:05:39.712188 26764 net.cpp:435] ip1 <- pool5
I0504 13:05:39.712198 26764 net.cpp:409] ip1 -> ip1
I0504 13:05:39.827463 26764 net.cpp:144] Setting up ip1
I0504 13:05:39.827487 26764 net.cpp:151] Top shape: 20 1024 (20480)
I0504 13:05:39.827492 26764 net.cpp:159] Memory required for data: 15218000
I0504 13:05:39.827500 26764 layer_factory.hpp:77] Creating layer ip2
I0504 13:05:39.827512 26764 net.cpp:94] Creating Layer ip2
I0504 13:05:39.827525 26764 net.cpp:435] ip2 <- ip1
I0504 13:05:39.827533 26764 net.cpp:409] ip2 -> ip2
I0504 13:05:39.843080 26764 net.cpp:144] Setting up ip2
I0504 13:05:39.843096 26764 net.cpp:151] Top shape: 20 512 (10240)
I0504 13:05:39.843101 26764 net.cpp:159] Memory required for data: 15258960
I0504 13:05:39.843107 26764 layer_factory.hpp:77] Creating layer ip3
I0504 13:05:39.843116 26764 net.cpp:94] Creating Layer ip3
I0504 13:05:39.843119 26764 net.cpp:435] ip3 <- ip2
I0504 13:05:39.843125 26764 net.cpp:409] ip3 -> ip3
I0504 13:05:39.843210 26764 net.cpp:144] Setting up ip3
I0504 13:05:39.843227 26764 net.cpp:151] Top shape: 20 1 (20)
I0504 13:05:39.843231 26764 net.cpp:159] Memory required for data: 15259040
I0504 13:05:39.843237 26764 layer_factory.hpp:77] Creating layer loss
I0504 13:05:39.843252 26764 net.cpp:94] Creating Layer loss
I0504 13:05:39.843257 26764 net.cpp:435] loss <- ip3
I0504 13:05:39.843261 26764 net.cpp:435] loss <- label
I0504 13:05:39.843268 26764 net.cpp:409] loss -> loss
I0504 13:05:39.843310 26764 net.cpp:144] Setting up loss
…
