…
I0503 09:51:32.164507 19827 net.cpp:323] The NetState phase (0) differed from the phase (1) specified by a rule in layer intercept
I0503 09:51:32.164523 19827 net.cpp:323] The NetState phase (0) differed from the phase (1) specified by a rule in layer accuracy
I0503 09:51:32.164644 19827 net.cpp:52] Initializing net from parameters: 
state {
  phase: TRAIN
}
layer {
  name: "parameters"
  type: "HDF5Data"
  top: "data"
  top: "label"
  include {
    phase: TRAIN
  }
  hdf5_data_param {
    source: "/home/purduethu/scratch/radon/d/deng106/CNNStatisticalModel/distributions/input/50_distributions_900_sample_size_train-distributions-path.txt"
    batch_size: 20
  }
}
layer {
  name: "conv1"
  type: "Convolution"
  bottom: "data"
  top: "conv1"
  param {
    lr_mult: 1
  }
  param {
    lr_mult: 2
  }
  convolution_param {
    num_output: 64
    pad: 2
    kernel_size: 5
    stride: 1
    weight_filler {
      type: "gaussian"
      std: 0.0001
    }
    bias_filler {
      type: "constant"
    }
  }
}
layer {
  name: "relu1"
  type: "ReLU"
  bottom: "conv1"
  top: "conv1"
}
layer {
  name: "conv2"
  type: "Convolution"
  bottom: "conv1"
  top: "conv2"
  param {
    lr_mult: 1
  }
  param {
    lr_mult: 2
  }
  convolution_param {
    num_output: 64
    pad: 2
    kernel_size: 5
    stride: 1
    weight_filler {
      type: "gaussian"
      std: 0.01
    }
    bias_filler {
      type: "constant"
    }
  }
}
layer {
  name: "relu2"
  type: "ReLU"
  bottom: "conv2"
  top: "conv2"
}
layer {
  name: "pool2"
  type: "Pooling"
  bottom: "conv2"
  top: "pool2"
  pooling_param {
    pool: MAX
    kernel_size: 3
    stride: 2
  }
}
layer {
  name: "conv3"
  type: "Convolution"
  bottom: "pool2"
  top: "conv3"
  param {
    lr_mult: 1
  }
  param {
    lr_mult: 2
  }
  convolution_param {
    num_output: 128
    pad: 2
    kernel_size: 5
    stride: 1
    weight_filler {
      type: "gaussian"
      std: 0.01
    }
    bias_filler {
      type: "constant"
    }
  }
}
layer {
  name: "relu3"
  type: "ReLU"
  bottom: "conv3"
  top: "conv3"
}
layer {
  name: "conv4"
  type: "Convolution"
  bottom: "conv3"
  top: "conv4"
  param {
    lr_mult: 1
  }
  param {
    lr_mult: 2
  }
  convolution_param {
    num_output: 128
    pad: 2
    kernel_size: 5
    stride: 1
    weight_filler {
      type: "gaussian"
      std: 0.01
    }
    bias_filler {
      type: "constant"
    }
  }
}
layer {
  name: "relu4"
  type: "ReLU"
  bottom: "conv4"
  top: "conv4"
}
layer {
  name: "conv5"
  type: "Convolution"
  bottom: "conv4"
  top: "conv5"
  param {
    lr_mult: 1
  }
  param {
    lr_mult: 2
  }
  convolution_param {
    num_output: 128
    pad: 2
    kernel_size: 5
    stride: 1
    weight_filler {
      type: "gaussian"
      std: 0.01
    }
    bias_filler {
      type: "constant"
    }
  }
}
layer {
  name: "relu5"
  type: "ReLU"
  bottom: "conv5"
  top: "conv5"
}
layer {
  name: "pool5"
  type: "Pooling"
  bottom: "conv5"
  top: "pool5"
  pooling_param {
    pool: AVE
    kernel_size: 3
    stride: 2
  }
}
layer {
  name: "ip1"
  type: "InnerProduct"
  bottom: "pool5"
  top: "ip1"
  param {
    lr_mult: 1
  }
  param {
    lr_mult: 2
  }
  inner_product_param {
    num_output: 1024
    weight_filler {
      type: "gaussian"
      std: 0.1
    }
    bias_filler {
      type: "constant"
    }
  }
}
layer {
  name: "ip2"
  type: "InnerProduct"
  bottom: "ip1"
  top: "ip2"
  param {
    lr_mult: 1
  }
  param {
    lr_mult: 2
  }
  inner_product_param {
    num_output: 512
    weight_filler {
      type: "gaussian"
      std: 0.1
    }
    bias_filler {
      type: "constant"
    }
  }
}
layer {
  name: "ip3"
  type: "InnerProduct"
  bottom: "ip2"
  top: "ip3"
  param {
    lr_mult: 1
  }
  param {
    lr_mult: 2
  }
  inner_product_param {
    num_output: 50
    weight_filler {
      type: "gaussian"
      std: 0.1
    }
    bias_filler {
      type: "constant"
    }
  }
}
layer {
  name: "loss"
  type: "SoftmaxWithLoss"
  bottom: "ip3"
  bottom: "label"
  top: "loss"
}
I0503 09:51:32.164721 19827 layer_factory.hpp:77] Creating layer parameters
I0503 09:51:32.164736 19827 net.cpp:94] Creating Layer parameters
I0503 09:51:32.164741 19827 net.cpp:409] parameters -> data
I0503 09:51:32.164762 19827 net.cpp:409] parameters -> label
I0503 09:51:32.164772 19827 hdf5_data_layer.cpp:79] Loading list of HDF5 filenames from: /home/purduethu/scratch/radon/d/deng106/CNNStatisticalModel/distributions/input/50_distributions_900_sample_size_train-distributions-path.txt
I0503 09:51:32.164795 19827 hdf5_data_layer.cpp:93] Number of HDF5 files: 1
I0503 09:51:32.165290 19827 hdf5.cpp:32] Datatype class: H5T_FLOAT
I0503 09:51:33.602932 19827 hdf5.cpp:35] Datatype class: H5T_INTEGER
I0503 09:51:33.605798 19827 net.cpp:144] Setting up parameters
I0503 09:51:33.605816 19827 net.cpp:151] Top shape: 20 1 30 30 (18000)
I0503 09:51:33.605823 19827 net.cpp:151] Top shape: 20 (20)
I0503 09:51:33.605826 19827 net.cpp:159] Memory required for data: 72080
I0503 09:51:33.605834 19827 layer_factory.hpp:77] Creating layer conv1
I0503 09:51:33.605859 19827 net.cpp:94] Creating Layer conv1
I0503 09:51:33.605865 19827 net.cpp:435] conv1 <- data
I0503 09:51:33.605875 19827 net.cpp:409] conv1 -> conv1
I0503 09:51:33.611770 19827 net.cpp:144] Setting up conv1
I0503 09:51:33.611785 19827 net.cpp:151] Top shape: 20 64 30 30 (1152000)
I0503 09:51:33.611790 19827 net.cpp:159] Memory required for data: 4680080
I0503 09:51:33.611801 19827 layer_factory.hpp:77] Creating layer relu1
I0503 09:51:33.611809 19827 net.cpp:94] Creating Layer relu1
I0503 09:51:33.611814 19827 net.cpp:435] relu1 <- conv1
I0503 09:51:33.611819 19827 net.cpp:396] relu1 -> conv1 (in-place)
I0503 09:51:33.611834 19827 net.cpp:144] Setting up relu1
I0503 09:51:33.611840 19827 net.cpp:151] Top shape: 20 64 30 30 (1152000)
I0503 09:51:33.611842 19827 net.cpp:159] Memory required for data: 9288080
I0503 09:51:33.611846 19827 layer_factory.hpp:77] Creating layer conv2
I0503 09:51:33.611855 19827 net.cpp:94] Creating Layer conv2
I0503 09:51:33.611858 19827 net.cpp:435] conv2 <- conv1
I0503 09:51:33.611863 19827 net.cpp:409] conv2 -> conv2
I0503 09:51:33.630662 19827 net.cpp:144] Setting up conv2
I0503 09:51:33.630681 19827 net.cpp:151] Top shape: 20 64 30 30 (1152000)
I0503 09:51:33.630686 19827 net.cpp:159] Memory required for data: 13896080
I0503 09:51:33.630697 19827 layer_factory.hpp:77] Creating layer relu2
I0503 09:51:33.630704 19827 net.cpp:94] Creating Layer relu2
I0503 09:51:33.630709 19827 net.cpp:435] relu2 <- conv2
I0503 09:51:33.630715 19827 net.cpp:396] relu2 -> conv2 (in-place)
I0503 09:51:33.630724 19827 net.cpp:144] Setting up relu2
I0503 09:51:33.630730 19827 net.cpp:151] Top shape: 20 64 30 30 (1152000)
I0503 09:51:33.630734 19827 net.cpp:159] Memory required for data: 18504080
I0503 09:51:33.630738 19827 layer_factory.hpp:77] Creating layer pool2
I0503 09:51:33.630755 19827 net.cpp:94] Creating Layer pool2
I0503 09:51:33.630760 19827 net.cpp:435] pool2 <- conv2
I0503 09:51:33.630766 19827 net.cpp:409] pool2 -> pool2
I0503 09:51:33.630816 19827 net.cpp:144] Setting up pool2
I0503 09:51:33.630825 19827 net.cpp:151] Top shape: 20 64 15 15 (288000)
I0503 09:51:33.630830 19827 net.cpp:159] Memory required for data: 19656080
I0503 09:51:33.630834 19827 layer_factory.hpp:77] Creating layer conv3
I0503 09:51:33.630843 19827 net.cpp:94] Creating Layer conv3
I0503 09:51:33.630847 19827 net.cpp:435] conv3 <- pool2
I0503 09:51:33.630863 19827 net.cpp:409] conv3 -> conv3
I0503 09:51:33.647248 19827 net.cpp:144] Setting up conv3
I0503 09:51:33.647287 19827 net.cpp:151] Top shape: 20 128 15 15 (576000)
I0503 09:51:33.647300 19827 net.cpp:159] Memory required for data: 21960080
I0503 09:51:33.647325 19827 layer_factory.hpp:77] Creating layer relu3
I0503 09:51:33.647341 19827 net.cpp:94] Creating Layer relu3
I0503 09:51:33.647352 19827 net.cpp:435] relu3 <- conv3
I0503 09:51:33.647367 19827 net.cpp:396] relu3 -> conv3 (in-place)
I0503 09:51:33.647387 19827 net.cpp:144] Setting up relu3
I0503 09:51:33.647400 19827 net.cpp:151] Top shape: 20 128 15 15 (576000)
I0503 09:51:33.647410 19827 net.cpp:159] Memory required for data: 24264080
I0503 09:51:33.647419 19827 layer_factory.hpp:77] Creating layer conv4
I0503 09:51:33.647442 19827 net.cpp:94] Creating Layer conv4
I0503 09:51:33.647454 19827 net.cpp:435] conv4 <- conv3
I0503 09:51:33.647469 19827 net.cpp:409] conv4 -> conv4
I0503 09:51:33.673689 19827 net.cpp:144] Setting up conv4
I0503 09:51:33.673707 19827 net.cpp:151] Top shape: 20 128 15 15 (576000)
I0503 09:51:33.673713 19827 net.cpp:159] Memory required for data: 26568080
I0503 09:51:33.673722 19827 layer_factory.hpp:77] Creating layer relu4
I0503 09:51:33.673728 19827 net.cpp:94] Creating Layer relu4
I0503 09:51:33.673733 19827 net.cpp:435] relu4 <- conv4
I0503 09:51:33.673739 19827 net.cpp:396] relu4 -> conv4 (in-place)
I0503 09:51:33.673748 19827 net.cpp:144] Setting up relu4
I0503 09:51:33.673754 19827 net.cpp:151] Top shape: 20 128 15 15 (576000)
I0503 09:51:33.673758 19827 net.cpp:159] Memory required for data: 28872080
I0503 09:51:33.673763 19827 layer_factory.hpp:77] Creating layer conv5
I0503 09:51:33.673773 19827 net.cpp:94] Creating Layer conv5
I0503 09:51:33.673777 19827 net.cpp:435] conv5 <- conv4
I0503 09:51:33.673784 19827 net.cpp:409] conv5 -> conv5
I0503 09:51:33.698487 19827 net.cpp:144] Setting up conv5
I0503 09:51:33.698504 19827 net.cpp:151] Top shape: 20 128 15 15 (576000)
I0503 09:51:33.698510 19827 net.cpp:159] Memory required for data: 31176080
I0503 09:51:33.698521 19827 layer_factory.hpp:77] Creating layer relu5
I0503 09:51:33.698529 19827 net.cpp:94] Creating Layer relu5
I0503 09:51:33.698534 19827 net.cpp:435] relu5 <- conv5
I0503 09:51:33.698540 19827 net.cpp:396] relu5 -> conv5 (in-place)
I0503 09:51:33.698549 19827 net.cpp:144] Setting up relu5
I0503 09:51:33.698555 19827 net.cpp:151] Top shape: 20 128 15 15 (576000)
I0503 09:51:33.698559 19827 net.cpp:159] Memory required for data: 33480080
I0503 09:51:33.698563 19827 layer_factory.hpp:77] Creating layer pool5
I0503 09:51:33.698570 19827 net.cpp:94] Creating Layer pool5
I0503 09:51:33.698573 19827 net.cpp:435] pool5 <- conv5
I0503 09:51:33.698580 19827 net.cpp:409] pool5 -> pool5
I0503 09:51:33.698618 19827 net.cpp:144] Setting up pool5
I0503 09:51:33.698627 19827 net.cpp:151] Top shape: 20 128 7 7 (125440)
I0503 09:51:33.698632 19827 net.cpp:159] Memory required for data: 33981840
I0503 09:51:33.698635 19827 layer_factory.hpp:77] Creating layer ip1
I0503 09:51:33.698647 19827 net.cpp:94] Creating Layer ip1
I0503 09:51:33.698652 19827 net.cpp:435] ip1 <- pool5
I0503 09:51:33.698657 19827 net.cpp:409] ip1 -> ip1
I0503 09:51:33.867202 19827 net.cpp:144] Setting up ip1
I0503 09:51:33.867224 19827 net.cpp:151] Top shape: 20 1024 (20480)
I0503 09:51:33.867228 19827 net.cpp:159] Memory required for data: 34063760
I0503 09:51:33.867236 19827 layer_factory.hpp:77] Creating layer ip2
I0503 09:51:33.867257 19827 net.cpp:94] Creating Layer ip2
I0503 09:51:33.867264 19827 net.cpp:435] ip2 <- ip1
I0503 09:51:33.867269 19827 net.cpp:409] ip2 -> ip2
I0503 09:51:33.880239 19827 net.cpp:144] Setting up ip2
I0503 09:51:33.880254 19827 net.cpp:151] Top shape: 20 512 (10240)
I0503 09:51:33.880257 19827 net.cpp:159] Memory required for data: 34104720
I0503 09:51:33.880264 19827 layer_factory.hpp:77] Creating layer ip3
I0503 09:51:33.880270 19827 net.cpp:94] Creating Layer ip3
I0503 09:51:33.880273 19827 net.cpp:435] ip3 <- ip2
I0503 09:51:33.880278 19827 net.cpp:409] ip3 -> ip3
I0503 09:51:33.881608 19827 net.cpp:144] Setting up ip3
I0503 09:51:33.881621 19827 net.cpp:151] Top shape: 20 50 (1000)
I0503 09:51:33.881625 19827 net.cpp:159] Memory required for data: 34108720
I0503 09:51:33.881631 19827 layer_factory.hpp:77] Creating layer loss
I0503 09:51:33.881639 19827 net.cpp:94] Creating Layer loss
I0503 09:51:33.881644 19827 net.cpp:435] loss <- ip3
I0503 09:51:33.881647 19827 net.cpp:435] loss <- label
I0503 09:51:33.881654 19827 net.cpp:409] loss -> loss
I0503 09:51:33.881666 19827 layer_factory.hpp:77] Creating layer loss
…
I0503 09:51:33.882158 19827 solver.cpp:181] Creating test net (#0) specified by net file: ./protocol/dis_50_900_dimension.protocol_distribution
I0503 09:51:33.882184 19827 net.cpp:323] The NetState phase (1) differed from the phase (0) specified by a rule in layer parameters
I0503 09:51:33.882278 19827 net.cpp:52] Initializing net from parameters: 
state {
  phase: TEST
}
layer {
  name: "intercept"
  type: "HDF5Data"
  top: "data"
  top: "label"
  include {
    phase: TEST
  }
  hdf5_data_param {
    source: "/home/purduethu/scratch/radon/d/deng106/CNNStatisticalModel/distributions/input/50_distributions_900_sample_size_test-distributions-path.txt"
    batch_size: 20
  }
}
layer {
  name: "conv1"
  type: "Convolution"
  bottom: "data"
  top: "conv1"
  param {
    lr_mult: 1
  }
  param {
    lr_mult: 2
  }
  convolution_param {
    num_output: 64
    pad: 2
    kernel_size: 5
    stride: 1
    weight_filler {
      type: "gaussian"
      std: 0.0001
    }
    bias_filler {
      type: "constant"
    }
  }
}
layer {
  name: "relu1"
  type: "ReLU"
  bottom: "conv1"
  top: "conv1"
}
layer {
  name: "conv2"
  type: "Convolution"
  bottom: "conv1"
  top: "conv2"
  param {
    lr_mult: 1
  }
  param {
    lr_mult: 2
  }
  convolution_param {
    num_output: 64
    pad: 2
    kernel_size: 5
    stride: 1
    weight_filler {
      type: "gaussian"
      std: 0.01
    }
    bias_filler {
      type: "constant"
    }
  }
}
layer {
  name: "relu2"
  type: "ReLU"
  bottom: "conv2"
  top: "conv2"
}
layer {
  name: "pool2"
  type: "Pooling"
  bottom: "conv2"
  top: "pool2"
  pooling_param {
    pool: MAX
    kernel_size: 3
    stride: 2
  }
}
layer {
  name: "conv3"
  type: "Convolution"
  bottom: "pool2"
  top: "conv3"
  param {
    lr_mult: 1
  }
  param {
    lr_mult: 2
  }
  convolution_param {
    num_output: 128
    pad: 2
    kernel_size: 5
    stride: 1
    weight_filler {
      type: "gaussian"
      std: 0.01
    }
    bias_filler {
      type: "constant"
    }
  }
}
layer {
  name: "relu3"
  type: "ReLU"
  bottom: "conv3"
  top: "conv3"
}
layer {
  name: "conv4"
  type: "Convolution"
  bottom: "conv3"
  top: "conv4"
  param {
    lr_mult: 1
  }
  param {
    lr_mult: 2
  }
  convolution_param {
    num_output: 128
    pad: 2
    kernel_size: 5
    stride: 1
    weight_filler {
      type: "gaussian"
      std: 0.01
    }
    bias_filler {
      type: "constant"
    }
  }
}
layer {
  name: "relu4"
  type: "ReLU"
  bottom: "conv4"
  top: "conv4"
}
layer {
  name: "conv5"
  type: "Convolution"
  bottom: "conv4"
  top: "conv5"
  param {
    lr_mult: 1
  }
  param {
    lr_mult: 2
  }
  convolution_param {
    num_output: 128
    pad: 2
    kernel_size: 5
    stride: 1
    weight_filler {
      type: "gaussian"
      std: 0.01
    }
    bias_filler {
      type: "constant"
    }
  }
}
layer {
  name: "relu5"
  type: "ReLU"
  bottom: "conv5"
  top: "conv5"
}
layer {
  name: "pool5"
  type: "Pooling"
  bottom: "conv5"
  top: "pool5"
  pooling_param {
    pool: AVE
    kernel_size: 3
    stride: 2
  }
}
layer {
  name: "ip1"
  type: "InnerProduct"
  bottom: "pool5"
  top: "ip1"
  param {
    lr_mult: 1
  }
  param {
    lr_mult: 2
  }
  inner_product_param {
    num_output: 1024
    weight_filler {
      type: "gaussian"
      std: 0.1
    }
    bias_filler {
      type: "constant"
    }
  }
}
layer {
  name: "ip2"
  type: "InnerProduct"
  bottom: "ip1"
  top: "ip2"
  param {
    lr_mult: 1
  }
  param {
    lr_mult: 2
  }
  inner_product_param {
    num_output: 512
    weight_filler {
      type: "gaussian"
      std: 0.1
    }
    bias_filler {
      type: "constant"
    }
  }
}
layer {
  name: "ip3"
  type: "InnerProduct"
  bottom: "ip2"
  top: "ip3"
  param {
    lr_mult: 1
  }
  param {
    lr_mult: 2
  }
  inner_product_param {
    num_output: 50
    weight_filler {
      type: "gaussian"
      std: 0.1
    }
    bias_filler {
      type: "constant"
    }
  }
}
layer {
  name: "accuracy"
  type: "Accuracy"
  bottom: "ip3"
  bottom: "label"
  top: "accuracy"
  include {
    phase: TEST
  }
}
layer {
  name: "loss"
  type: "SoftmaxWithLoss"
  bottom: "ip3"
  bottom: "label"
  top: "loss"
}
I0503 09:51:33.882349 19827 layer_factory.hpp:77] Creating layer intercept
I0503 09:51:33.882359 19827 net.cpp:94] Creating Layer intercept
I0503 09:51:33.882362 19827 net.cpp:409] intercept -> data
I0503 09:51:33.882369 19827 net.cpp:409] intercept -> label
I0503 09:51:33.882375 19827 hdf5_data_layer.cpp:79] Loading list of HDF5 filenames from: /home/purduethu/scratch/radon/d/deng106/CNNStatisticalModel/distributions/input/50_distributions_900_sample_size_test-distributions-path.txt
I0503 09:51:33.882395 19827 hdf5_data_layer.cpp:93] Number of HDF5 files: 1
I0503 09:51:34.241992 19827 net.cpp:144] Setting up intercept
I0503 09:51:34.242027 19827 net.cpp:151] Top shape: 20 1 30 30 (18000)
I0503 09:51:34.242033 19827 net.cpp:151] Top shape: 20 (20)
I0503 09:51:34.242036 19827 net.cpp:159] Memory required for data: 72080
I0503 09:51:34.242043 19827 layer_factory.hpp:77] Creating layer label_intercept_1_split
I0503 09:51:34.242063 19827 net.cpp:94] Creating Layer label_intercept_1_split
I0503 09:51:34.242067 19827 net.cpp:435] label_intercept_1_split <- label
I0503 09:51:34.242074 19827 net.cpp:409] label_intercept_1_split -> label_intercept_1_split_0
I0503 09:51:34.242091 19827 net.cpp:409] label_intercept_1_split -> label_intercept_1_split_1
I0503 09:51:34.242120 19827 net.cpp:144] Setting up label_intercept_1_split
I0503 09:51:34.242125 19827 net.cpp:151] Top shape: 20 (20)
I0503 09:51:34.242130 19827 net.cpp:151] Top shape: 20 (20)
I0503 09:51:34.242132 19827 net.cpp:159] Memory required for data: 72240
I0503 09:51:34.242136 19827 layer_factory.hpp:77] Creating layer conv1
I0503 09:51:34.242146 19827 net.cpp:94] Creating Layer conv1
I0503 09:51:34.242151 19827 net.cpp:435] conv1 <- data
I0503 09:51:34.242156 19827 net.cpp:409] conv1 -> conv1
I0503 09:51:34.243496 19827 net.cpp:144] Setting up conv1
I0503 09:51:34.243510 19827 net.cpp:151] Top shape: 20 64 30 30 (1152000)
I0503 09:51:34.243515 19827 net.cpp:159] Memory required for data: 4680240
I0503 09:51:34.243523 19827 layer_factory.hpp:77] Creating layer relu1
I0503 09:51:34.243530 19827 net.cpp:94] Creating Layer relu1
I0503 09:51:34.243535 19827 net.cpp:435] relu1 <- conv1
I0503 09:51:34.243540 19827 net.cpp:396] relu1 -> conv1 (in-place)
I0503 09:51:34.243547 19827 net.cpp:144] Setting up relu1
I0503 09:51:34.243552 19827 net.cpp:151] Top shape: 20 64 30 30 (1152000)
I0503 09:51:34.243556 19827 net.cpp:159] Memory required for data: 9288240
I0503 09:51:34.243558 19827 layer_factory.hpp:77] Creating layer conv2
I0503 09:51:34.243567 19827 net.cpp:94] Creating Layer conv2
I0503 09:51:34.243571 19827 net.cpp:435] conv2 <- conv1
I0503 09:51:34.243577 19827 net.cpp:409] conv2 -> conv2
I0503 09:51:34.249820 19827 net.cpp:144] Setting up conv2
I0503 09:51:34.249835 19827 net.cpp:151] Top shape: 20 64 30 30 (1152000)
I0503 09:51:34.249840 19827 net.cpp:159] Memory required for data: 13896240
I0503 09:51:34.249847 19827 layer_factory.hpp:77] Creating layer relu2
I0503 09:51:34.249853 19827 net.cpp:94] Creating Layer relu2
I0503 09:51:34.249857 19827 net.cpp:435] relu2 <- conv2
I0503 09:51:34.249862 19827 net.cpp:396] relu2 -> conv2 (in-place)
I0503 09:51:34.249869 19827 net.cpp:144] Setting up relu2
I0503 09:51:34.249874 19827 net.cpp:151] Top shape: 20 64 30 30 (1152000)
I0503 09:51:34.249877 19827 net.cpp:159] Memory required for data: 18504240
I0503 09:51:34.249881 19827 layer_factory.hpp:77] Creating layer pool2
I0503 09:51:34.249886 19827 net.cpp:94] Creating Layer pool2
I0503 09:51:34.249891 19827 net.cpp:435] pool2 <- conv2
I0503 09:51:34.249894 19827 net.cpp:409] pool2 -> pool2
I0503 09:51:34.249927 19827 net.cpp:144] Setting up pool2
I0503 09:51:34.249933 19827 net.cpp:151] Top shape: 20 64 15 15 (288000)
I0503 09:51:34.249938 19827 net.cpp:159] Memory required for data: 19656240
I0503 09:51:34.249940 19827 layer_factory.hpp:77] Creating layer conv3
I0503 09:51:34.249948 19827 net.cpp:94] Creating Layer conv3
I0503 09:51:34.249953 19827 net.cpp:435] conv3 <- pool2
I0503 09:51:34.249958 19827 net.cpp:409] conv3 -> conv3
I0503 09:51:34.257155 19827 net.cpp:144] Setting up conv3
I0503 09:51:34.257169 19827 net.cpp:151] Top shape: 20 128 15 15 (576000)
I0503 09:51:34.257174 19827 net.cpp:159] Memory required for data: 21960240
I0503 09:51:34.257181 19827 layer_factory.hpp:77] Creating layer relu3
I0503 09:51:34.257189 19827 net.cpp:94] Creating Layer relu3
I0503 09:51:34.257192 19827 net.cpp:435] relu3 <- conv3
I0503 09:51:34.257197 19827 net.cpp:396] relu3 -> conv3 (in-place)
I0503 09:51:34.257205 19827 net.cpp:144] Setting up relu3
I0503 09:51:34.257208 19827 net.cpp:151] Top shape: 20 128 15 15 (576000)
I0503 09:51:34.257212 19827 net.cpp:159] Memory required for data: 24264240
I0503 09:51:34.257215 19827 layer_factory.hpp:77] Creating layer conv4
I0503 09:51:34.257223 19827 net.cpp:94] Creating Layer conv4
I0503 09:51:34.257226 19827 net.cpp:435] conv4 <- conv3
I0503 09:51:34.257231 19827 net.cpp:409] conv4 -> conv4
I0503 09:51:34.272060 19827 net.cpp:144] Setting up conv4
I0503 09:51:34.272097 19827 net.cpp:151] Top shape: 20 128 15 15 (576000)
I0503 09:51:34.272110 19827 net.cpp:159] Memory required for data: 26568240
I0503 09:51:34.272128 19827 layer_factory.hpp:77] Creating layer relu4
I0503 09:51:34.272145 19827 net.cpp:94] Creating Layer relu4
I0503 09:51:34.272166 19827 net.cpp:435] relu4 <- conv4
I0503 09:51:34.272181 19827 net.cpp:396] relu4 -> conv4 (in-place)
I0503 09:51:34.272200 19827 net.cpp:144] Setting up relu4
I0503 09:51:34.272214 19827 net.cpp:151] Top shape: 20 128 15 15 (576000)
I0503 09:51:34.272224 19827 net.cpp:159] Memory required for data: 28872240
I0503 09:51:34.272233 19827 layer_factory.hpp:77] Creating layer conv5
I0503 09:51:34.272254 19827 net.cpp:94] Creating Layer conv5
I0503 09:51:34.272265 19827 net.cpp:435] conv5 <- conv4
I0503 09:51:34.272279 19827 net.cpp:409] conv5 -> conv5
I0503 09:51:34.286823 19827 net.cpp:144] Setting up conv5
I0503 09:51:34.286837 19827 net.cpp:151] Top shape: 20 128 15 15 (576000)
I0503 09:51:34.286842 19827 net.cpp:159] Memory required for data: 31176240
I0503 09:51:34.286851 19827 layer_factory.hpp:77] Creating layer relu5
I0503 09:51:34.286859 19827 net.cpp:94] Creating Layer relu5
I0503 09:51:34.286862 19827 net.cpp:435] relu5 <- conv5
I0503 09:51:34.286866 19827 net.cpp:396] relu5 -> conv5 (in-place)
I0503 09:51:34.286875 19827 net.cpp:144] Setting up relu5
I0503 09:51:34.286878 19827 net.cpp:151] Top shape: 20 128 15 15 (576000)
I0503 09:51:34.286882 19827 net.cpp:159] Memory required for data: 33480240
I0503 09:51:34.286885 19827 layer_factory.hpp:77] Creating layer pool5
I0503 09:51:34.286890 19827 net.cpp:94] Creating Layer pool5
I0503 09:51:34.286895 19827 net.cpp:435] pool5 <- conv5
I0503 09:51:34.286898 19827 net.cpp:409] pool5 -> pool5
I0503 09:51:34.286924 19827 net.cpp:144] Setting up pool5
I0503 09:51:34.286931 19827 net.cpp:151] Top shape: 20 128 7 7 (125440)
I0503 09:51:34.286934 19827 net.cpp:159] Memory required for data: 33982000
I0503 09:51:34.286938 19827 layer_factory.hpp:77] Creating layer ip1
I0503 09:51:34.286945 19827 net.cpp:94] Creating Layer ip1
I0503 09:51:34.286948 19827 net.cpp:435] ip1 <- pool5
I0503 09:51:34.286953 19827 net.cpp:409] ip1 -> ip1
I0503 09:51:34.441377 19827 net.cpp:144] Setting up ip1
I0503 09:51:34.441400 19827 net.cpp:151] Top shape: 20 1024 (20480)
I0503 09:51:34.441404 19827 net.cpp:159] Memory required for data: 34063920
I0503 09:51:34.441413 19827 layer_factory.hpp:77] Creating layer ip2
I0503 09:51:34.441424 19827 net.cpp:94] Creating Layer ip2
I0503 09:51:34.441429 19827 net.cpp:435] ip2 <- ip1
I0503 09:51:34.441435 19827 net.cpp:409] ip2 -> ip2
I0503 09:51:34.454390 19827 net.cpp:144] Setting up ip2
I0503 09:51:34.454402 19827 net.cpp:151] Top shape: 20 512 (10240)
I0503 09:51:34.454406 19827 net.cpp:159] Memory required for data: 34104880
I0503 09:51:34.454412 19827 layer_factory.hpp:77] Creating layer ip3
I0503 09:51:34.454421 19827 net.cpp:94] Creating Layer ip3
I0503 09:51:34.454426 19827 net.cpp:435] ip3 <- ip2
I0503 09:51:34.454432 19827 net.cpp:409] ip3 -> ip3
I0503 09:51:34.455101 19827 net.cpp:144] Setting up ip3
I0503 09:51:34.455107 19827 net.cpp:151] Top shape: 20 50 (1000)
I0503 09:51:34.455111 19827 net.cpp:159] Memory required for data: 34108880
I0503 09:51:34.455116 19827 layer_factory.hpp:77] Creating layer ip3_ip3_0_split
I0503 09:51:34.455121 19827 net.cpp:94] Creating Layer ip3_ip3_0_split
I0503 09:51:34.455126 19827 net.cpp:435] ip3_ip3_0_split <- ip3
I0503 09:51:34.455129 19827 net.cpp:409] ip3_ip3_0_split -> ip3_ip3_0_split_0
I0503 09:51:34.455135 19827 net.cpp:409] ip3_ip3_0_split -> ip3_ip3_0_split_1
I0503 09:51:34.455160 19827 net.cpp:144] Setting up ip3_ip3_0_split
I0503 09:51:34.455165 19827 net.cpp:151] Top shape: 20 50 (1000)
I0503 09:51:34.455169 19827 net.cpp:151] Top shape: 20 50 (1000)
I0503 09:51:34.455173 19827 net.cpp:159] Memory required for data: 34116880
I0503 09:51:34.455176 19827 layer_factory.hpp:77] Creating layer accuracy
I0503 09:51:34.455183 19827 net.cpp:94] Creating Layer accuracy
I0503 09:51:34.455185 19827 net.cpp:435] accuracy <- ip3_ip3_0_split_0
I0503 09:51:34.455190 19827 net.cpp:435] accuracy <- label_intercept_1_split_0
I0503 09:51:34.455194 19827 net.cpp:409] accuracy -> accuracy
…
