…
I0502 17:32:56.295652 11823 net.cpp:323] The NetState phase (0) differed from the phase (1) specified by a rule in layer intercept
I0502 17:32:56.295668 11823 net.cpp:323] The NetState phase (0) differed from the phase (1) specified by a rule in layer accuracy
I0502 17:32:56.295758 11823 net.cpp:52] Initializing net from parameters: 
state {
  phase: TRAIN
}
layer {
  name: "parameters"
  type: "HDF5Data"
  top: "data"
  top: "label"
  include {
    phase: TRAIN
  }
  hdf5_data_param {
    source: "/home/purduethu/scratch/radon/d/deng106/CNNStatisticalModel/distributions/input/20_distributions_900_sample_size_train-distributions-path.txt"
    batch_size: 20
  }
}
layer {
  name: "conv1"
  type: "Convolution"
  bottom: "data"
  top: "conv1"
  param {
    lr_mult: 1
  }
  param {
    lr_mult: 2
  }
  convolution_param {
    num_output: 64
    pad: 2
    kernel_size: 5
    stride: 1
    weight_filler {
      type: "gaussian"
      std: 0.0001
    }
    bias_filler {
      type: "constant"
    }
  }
}
layer {
  name: "relu1"
  type: "ReLU"
  bottom: "conv1"
  top: "conv1"
}
layer {
  name: "conv2"
  type: "Convolution"
  bottom: "conv1"
  top: "conv2"
  param {
    lr_mult: 1
  }
  param {
    lr_mult: 2
  }
  convolution_param {
    num_output: 64
    pad: 2
    kernel_size: 5
    stride: 1
    weight_filler {
      type: "gaussian"
      std: 0.01
    }
    bias_filler {
      type: "constant"
    }
  }
}
layer {
  name: "relu2"
  type: "ReLU"
  bottom: "conv2"
  top: "conv2"
}
layer {
  name: "pool2"
  type: "Pooling"
  bottom: "conv2"
  top: "pool2"
  pooling_param {
    pool: MAX
    kernel_size: 3
    stride: 2
  }
}
layer {
  name: "conv3"
  type: "Convolution"
  bottom: "pool2"
  top: "conv3"
  param {
    lr_mult: 1
  }
  param {
    lr_mult: 2
  }
  convolution_param {
    num_output: 64
    pad: 2
    kernel_size: 5
    stride: 1
    weight_filler {
      type: "gaussian"
      std: 0.01
    }
    bias_filler {
      type: "constant"
    }
  }
}
layer {
  name: "relu3"
  type: "ReLU"
  bottom: "conv3"
  top: "conv3"
}
layer {
  name: "conv4"
  type: "Convolution"
  bottom: "conv3"
  top: "conv4"
  param {
    lr_mult: 1
  }
  param {
    lr_mult: 2
  }
  convolution_param {
    num_output: 64
    pad: 2
    kernel_size: 5
    stride: 1
    weight_filler {
      type: "gaussian"
      std: 0.01
    }
    bias_filler {
      type: "constant"
    }
  }
}
layer {
  name: "relu4"
  type: "ReLU"
  bottom: "conv4"
  top: "conv4"
}
layer {
  name: "conv5"
  type: "Convolution"
  bottom: "conv4"
  top: "conv5"
  param {
    lr_mult: 1
  }
  param {
    lr_mult: 2
  }
  convolution_param {
    num_output: 64
    pad: 2
    kernel_size: 5
    stride: 1
    weight_filler {
      type: "gaussian"
      std: 0.01
    }
    bias_filler {
      type: "constant"
    }
  }
}
layer {
  name: "relu5"
  type: "ReLU"
  bottom: "conv5"
  top: "conv5"
}
layer {
  name: "pool5"
  type: "Pooling"
  bottom: "conv5"
  top: "pool5"
  pooling_param {
    pool: AVE
    kernel_size: 3
    stride: 2
  }
}
layer {
  name: "ip1"
  type: "InnerProduct"
  bottom: "pool5"
  top: "ip1"
  param {
    lr_mult: 1
  }
  param {
    lr_mult: 2
  }
  inner_product_param {
    num_output: 64
    weight_filler {
      type: "gaussian"
      std: 0.1
    }
    bias_filler {
      type: "constant"
    }
  }
}
layer {
  name: "ip2"
  type: "InnerProduct"
  bottom: "ip1"
  top: "ip2"
  param {
    lr_mult: 1
  }
  param {
    lr_mult: 2
  }
  inner_product_param {
    num_output: 64
    weight_filler {
      type: "gaussian"
      std: 0.1
    }
    bias_filler {
      type: "constant"
    }
  }
}
layer {
  name: "ip3"
  type: "InnerProduct"
  bottom: "ip2"
  top: "ip3"
  param {
    lr_mult: 1
  }
  param {
    lr_mult: 2
  }
  inner_product_param {
    num_output: 50
    weight_filler {
      type: "gaussian"
      std: 0.1
    }
    bias_filler {
      type: "constant"
    }
  }
}
layer {
  name: "loss"
  type: "SoftmaxWithLoss"
  bottom: "ip3"
  bottom: "label"
  top: "loss"
}
I0502 17:32:56.295833 11823 layer_factory.hpp:77] Creating layer parameters
I0502 17:32:56.295847 11823 net.cpp:94] Creating Layer parameters
I0502 17:32:56.295853 11823 net.cpp:409] parameters -> data
I0502 17:32:56.295873 11823 net.cpp:409] parameters -> label
I0502 17:32:56.295883 11823 hdf5_data_layer.cpp:79] Loading list of HDF5 filenames from: /home/purduethu/scratch/radon/d/deng106/CNNStatisticalModel/distributions/input/20_distributions_900_sample_size_train-distributions-path.txt
I0502 17:32:56.295905 11823 hdf5_data_layer.cpp:93] Number of HDF5 files: 1
I0502 17:32:56.296491 11823 hdf5.cpp:32] Datatype class: H5T_FLOAT
I0502 17:32:56.896111 11823 hdf5.cpp:35] Datatype class: H5T_INTEGER
I0502 17:32:56.897922 11823 net.cpp:144] Setting up parameters
I0502 17:32:56.897944 11823 net.cpp:151] Top shape: 20 1 30 30 (18000)
I0502 17:32:56.897949 11823 net.cpp:151] Top shape: 20 (20)
I0502 17:32:56.897953 11823 net.cpp:159] Memory required for data: 72080
I0502 17:32:56.897961 11823 layer_factory.hpp:77] Creating layer conv1
I0502 17:32:56.897984 11823 net.cpp:94] Creating Layer conv1
I0502 17:32:56.897990 11823 net.cpp:435] conv1 <- data
I0502 17:32:56.898001 11823 net.cpp:409] conv1 -> conv1
I0502 17:32:56.909354 11823 net.cpp:144] Setting up conv1
I0502 17:32:56.909371 11823 net.cpp:151] Top shape: 20 64 30 30 (1152000)
I0502 17:32:56.909375 11823 net.cpp:159] Memory required for data: 4680080
I0502 17:32:56.909389 11823 layer_factory.hpp:77] Creating layer relu1
I0502 17:32:56.909396 11823 net.cpp:94] Creating Layer relu1
I0502 17:32:56.909400 11823 net.cpp:435] relu1 <- conv1
I0502 17:32:56.909405 11823 net.cpp:396] relu1 -> conv1 (in-place)
I0502 17:32:56.909421 11823 net.cpp:144] Setting up relu1
I0502 17:32:56.909427 11823 net.cpp:151] Top shape: 20 64 30 30 (1152000)
I0502 17:32:56.909430 11823 net.cpp:159] Memory required for data: 9288080
I0502 17:32:56.909433 11823 layer_factory.hpp:77] Creating layer conv2
I0502 17:32:56.909442 11823 net.cpp:94] Creating Layer conv2
I0502 17:32:56.909446 11823 net.cpp:435] conv2 <- conv1
I0502 17:32:56.909451 11823 net.cpp:409] conv2 -> conv2
I0502 17:32:56.928673 11823 net.cpp:144] Setting up conv2
I0502 17:32:56.928714 11823 net.cpp:151] Top shape: 20 64 30 30 (1152000)
I0502 17:32:56.928725 11823 net.cpp:159] Memory required for data: 13896080
I0502 17:32:56.928747 11823 layer_factory.hpp:77] Creating layer relu2
I0502 17:32:56.928766 11823 net.cpp:94] Creating Layer relu2
I0502 17:32:56.928776 11823 net.cpp:435] relu2 <- conv2
I0502 17:32:56.928800 11823 net.cpp:396] relu2 -> conv2 (in-place)
I0502 17:32:56.928809 11823 net.cpp:144] Setting up relu2
I0502 17:32:56.928814 11823 net.cpp:151] Top shape: 20 64 30 30 (1152000)
I0502 17:32:56.928818 11823 net.cpp:159] Memory required for data: 18504080
I0502 17:32:56.928822 11823 layer_factory.hpp:77] Creating layer pool2
I0502 17:32:56.928838 11823 net.cpp:94] Creating Layer pool2
I0502 17:32:56.928841 11823 net.cpp:435] pool2 <- conv2
I0502 17:32:56.928848 11823 net.cpp:409] pool2 -> pool2
I0502 17:32:56.928895 11823 net.cpp:144] Setting up pool2
I0502 17:32:56.928903 11823 net.cpp:151] Top shape: 20 64 15 15 (288000)
I0502 17:32:56.928907 11823 net.cpp:159] Memory required for data: 19656080
I0502 17:32:56.928911 11823 layer_factory.hpp:77] Creating layer conv3
I0502 17:32:56.928920 11823 net.cpp:94] Creating Layer conv3
I0502 17:32:56.928925 11823 net.cpp:435] conv3 <- pool2
I0502 17:32:56.928941 11823 net.cpp:409] conv3 -> conv3
I0502 17:32:56.942777 11823 net.cpp:144] Setting up conv3
I0502 17:32:56.942795 11823 net.cpp:151] Top shape: 20 64 15 15 (288000)
I0502 17:32:56.942800 11823 net.cpp:159] Memory required for data: 20808080
I0502 17:32:56.942811 11823 layer_factory.hpp:77] Creating layer relu3
I0502 17:32:56.942817 11823 net.cpp:94] Creating Layer relu3
I0502 17:32:56.942821 11823 net.cpp:435] relu3 <- conv3
I0502 17:32:56.942827 11823 net.cpp:396] relu3 -> conv3 (in-place)
I0502 17:32:56.942836 11823 net.cpp:144] Setting up relu3
I0502 17:32:56.942842 11823 net.cpp:151] Top shape: 20 64 15 15 (288000)
I0502 17:32:56.942844 11823 net.cpp:159] Memory required for data: 21960080
I0502 17:32:56.942848 11823 layer_factory.hpp:77] Creating layer conv4
I0502 17:32:56.942858 11823 net.cpp:94] Creating Layer conv4
I0502 17:32:56.942863 11823 net.cpp:435] conv4 <- conv3
I0502 17:32:56.942868 11823 net.cpp:409] conv4 -> conv4
I0502 17:32:56.954710 11823 net.cpp:144] Setting up conv4
I0502 17:32:56.954727 11823 net.cpp:151] Top shape: 20 64 15 15 (288000)
I0502 17:32:56.954732 11823 net.cpp:159] Memory required for data: 23112080
I0502 17:32:56.954741 11823 layer_factory.hpp:77] Creating layer relu4
I0502 17:32:56.954746 11823 net.cpp:94] Creating Layer relu4
I0502 17:32:56.954751 11823 net.cpp:435] relu4 <- conv4
I0502 17:32:56.954757 11823 net.cpp:396] relu4 -> conv4 (in-place)
I0502 17:32:56.954766 11823 net.cpp:144] Setting up relu4
I0502 17:32:56.954771 11823 net.cpp:151] Top shape: 20 64 15 15 (288000)
I0502 17:32:56.954774 11823 net.cpp:159] Memory required for data: 24264080
I0502 17:32:56.954778 11823 layer_factory.hpp:77] Creating layer conv5
I0502 17:32:56.954787 11823 net.cpp:94] Creating Layer conv5
I0502 17:32:56.954792 11823 net.cpp:435] conv5 <- conv4
I0502 17:32:56.954797 11823 net.cpp:409] conv5 -> conv5
I0502 17:32:56.967527 11823 net.cpp:144] Setting up conv5
I0502 17:32:56.967545 11823 net.cpp:151] Top shape: 20 64 15 15 (288000)
I0502 17:32:56.967550 11823 net.cpp:159] Memory required for data: 25416080
I0502 17:32:56.967561 11823 layer_factory.hpp:77] Creating layer relu5
I0502 17:32:56.967567 11823 net.cpp:94] Creating Layer relu5
I0502 17:32:56.967571 11823 net.cpp:435] relu5 <- conv5
I0502 17:32:56.967576 11823 net.cpp:396] relu5 -> conv5 (in-place)
I0502 17:32:56.967584 11823 net.cpp:144] Setting up relu5
I0502 17:32:56.967591 11823 net.cpp:151] Top shape: 20 64 15 15 (288000)
I0502 17:32:56.967593 11823 net.cpp:159] Memory required for data: 26568080
I0502 17:32:56.967597 11823 layer_factory.hpp:77] Creating layer pool5
I0502 17:32:56.967603 11823 net.cpp:94] Creating Layer pool5
I0502 17:32:56.967607 11823 net.cpp:435] pool5 <- conv5
I0502 17:32:56.967612 11823 net.cpp:409] pool5 -> pool5
I0502 17:32:56.967651 11823 net.cpp:144] Setting up pool5
I0502 17:32:56.967659 11823 net.cpp:151] Top shape: 20 64 7 7 (62720)
I0502 17:32:56.967664 11823 net.cpp:159] Memory required for data: 26818960
I0502 17:32:56.967667 11823 layer_factory.hpp:77] Creating layer ip1
I0502 17:32:56.967677 11823 net.cpp:94] Creating Layer ip1
I0502 17:32:56.967681 11823 net.cpp:435] ip1 <- pool5
I0502 17:32:56.967687 11823 net.cpp:409] ip1 -> ip1
I0502 17:32:56.973275 11823 net.cpp:144] Setting up ip1
I0502 17:32:56.973285 11823 net.cpp:151] Top shape: 20 64 (1280)
I0502 17:32:56.973289 11823 net.cpp:159] Memory required for data: 26824080
I0502 17:32:56.973295 11823 layer_factory.hpp:77] Creating layer ip2
I0502 17:32:56.973306 11823 net.cpp:94] Creating Layer ip2
I0502 17:32:56.973311 11823 net.cpp:435] ip2 <- ip1
I0502 17:32:56.973316 11823 net.cpp:409] ip2 -> ip2
I0502 17:32:56.973510 11823 net.cpp:144] Setting up ip2
I0502 17:32:56.973517 11823 net.cpp:151] Top shape: 20 64 (1280)
I0502 17:32:56.973520 11823 net.cpp:159] Memory required for data: 26829200
I0502 17:32:56.973526 11823 layer_factory.hpp:77] Creating layer ip3
I0502 17:32:56.973533 11823 net.cpp:94] Creating Layer ip3
I0502 17:32:56.973536 11823 net.cpp:435] ip3 <- ip2
I0502 17:32:56.973542 11823 net.cpp:409] ip3 -> ip3
I0502 17:32:56.973713 11823 net.cpp:144] Setting up ip3
I0502 17:32:56.973721 11823 net.cpp:151] Top shape: 20 50 (1000)
I0502 17:32:56.973724 11823 net.cpp:159] Memory required for data: 26833200
I0502 17:32:56.973729 11823 layer_factory.hpp:77] Creating layer loss
I0502 17:32:56.973737 11823 net.cpp:94] Creating Layer loss
I0502 17:32:56.973742 11823 net.cpp:435] loss <- ip3
I0502 17:32:56.973745 11823 net.cpp:435] loss <- label
I0502 17:32:56.973752 11823 net.cpp:409] loss -> loss
I0502 17:32:56.973762 11823 layer_factory.hpp:77] Creating layer loss
…
I0502 17:32:56.974323 11823 solver.cpp:181] Creating test net (#0) specified by net file: ./protocol/dis_20_900_dimension.protocol_distribution
I0502 17:32:56.974352 11823 net.cpp:323] The NetState phase (1) differed from the phase (0) specified by a rule in layer parameters
I0502 17:32:56.974460 11823 net.cpp:52] Initializing net from parameters: 
state {
  phase: TEST
}
layer {
  name: "intercept"
  type: "HDF5Data"
  top: "data"
  top: "label"
  include {
    phase: TEST
  }
  hdf5_data_param {
    source: "/home/purduethu/scratch/radon/d/deng106/CNNStatisticalModel/distributions/input/20_distributions_900_sample_size_test-distributions-path.txt"
    batch_size: 20
  }
}
layer {
  name: "conv1"
  type: "Convolution"
  bottom: "data"
  top: "conv1"
  param {
    lr_mult: 1
  }
  param {
    lr_mult: 2
  }
  convolution_param {
    num_output: 64
    pad: 2
    kernel_size: 5
    stride: 1
    weight_filler {
      type: "gaussian"
      std: 0.0001
    }
    bias_filler {
      type: "constant"
    }
  }
}
layer {
  name: "relu1"
  type: "ReLU"
  bottom: "conv1"
  top: "conv1"
}
layer {
  name: "conv2"
  type: "Convolution"
  bottom: "conv1"
  top: "conv2"
  param {
    lr_mult: 1
  }
  param {
    lr_mult: 2
  }
  convolution_param {
    num_output: 64
    pad: 2
    kernel_size: 5
    stride: 1
    weight_filler {
      type: "gaussian"
      std: 0.01
    }
    bias_filler {
      type: "constant"
    }
  }
}
layer {
  name: "relu2"
  type: "ReLU"
  bottom: "conv2"
  top: "conv2"
}
layer {
  name: "pool2"
  type: "Pooling"
  bottom: "conv2"
  top: "pool2"
  pooling_param {
    pool: MAX
    kernel_size: 3
    stride: 2
  }
}
layer {
  name: "conv3"
  type: "Convolution"
  bottom: "pool2"
  top: "conv3"
  param {
    lr_mult: 1
  }
  param {
    lr_mult: 2
  }
  convolution_param {
    num_output: 64
    pad: 2
    kernel_size: 5
    stride: 1
    weight_filler {
      type: "gaussian"
      std: 0.01
    }
    bias_filler {
      type: "constant"
    }
  }
}
layer {
  name: "relu3"
  type: "ReLU"
  bottom: "conv3"
  top: "conv3"
}
layer {
  name: "conv4"
  type: "Convolution"
  bottom: "conv3"
  top: "conv4"
  param {
    lr_mult: 1
  }
  param {
    lr_mult: 2
  }
  convolution_param {
    num_output: 64
    pad: 2
    kernel_size: 5
    stride: 1
    weight_filler {
      type: "gaussian"
      std: 0.01
    }
    bias_filler {
      type: "constant"
    }
  }
}
layer {
  name: "relu4"
  type: "ReLU"
  bottom: "conv4"
  top: "conv4"
}
layer {
  name: "conv5"
  type: "Convolution"
  bottom: "conv4"
  top: "conv5"
  param {
    lr_mult: 1
  }
  param {
    lr_mult: 2
  }
  convolution_param {
    num_output: 64
    pad: 2
    kernel_size: 5
    stride: 1
    weight_filler {
      type: "gaussian"
      std: 0.01
    }
    bias_filler {
      type: "constant"
    }
  }
}
layer {
  name: "relu5"
  type: "ReLU"
  bottom: "conv5"
  top: "conv5"
}
layer {
  name: "pool5"
  type: "Pooling"
  bottom: "conv5"
  top: "pool5"
  pooling_param {
    pool: AVE
    kernel_size: 3
    stride: 2
  }
}
layer {
  name: "ip1"
  type: "InnerProduct"
  bottom: "pool5"
  top: "ip1"
  param {
    lr_mult: 1
  }
  param {
    lr_mult: 2
  }
  inner_product_param {
    num_output: 64
    weight_filler {
      type: "gaussian"
      std: 0.1
    }
    bias_filler {
      type: "constant"
    }
  }
}
layer {
  name: "ip2"
  type: "InnerProduct"
  bottom: "ip1"
  top: "ip2"
  param {
    lr_mult: 1
  }
  param {
    lr_mult: 2
  }
  inner_product_param {
    num_output: 64
    weight_filler {
      type: "gaussian"
      std: 0.1
    }
    bias_filler {
      type: "constant"
    }
  }
}
layer {
  name: "ip3"
  type: "InnerProduct"
  bottom: "ip2"
  top: "ip3"
  param {
    lr_mult: 1
  }
  param {
    lr_mult: 2
  }
  inner_product_param {
    num_output: 50
    weight_filler {
      type: "gaussian"
      std: 0.1
    }
    bias_filler {
      type: "constant"
    }
  }
}
layer {
  name: "accuracy"
  type: "Accuracy"
  bottom: "ip3"
  bottom: "label"
  top: "accuracy"
  include {
    phase: TEST
  }
}
layer {
  name: "loss"
  type: "SoftmaxWithLoss"
  bottom: "ip3"
  bottom: "label"
  top: "loss"
}
I0502 17:32:56.974540 11823 layer_factory.hpp:77] Creating layer intercept
I0502 17:32:56.974550 11823 net.cpp:94] Creating Layer intercept
I0502 17:32:56.974555 11823 net.cpp:409] intercept -> data
I0502 17:32:56.974562 11823 net.cpp:409] intercept -> label
I0502 17:32:56.974570 11823 hdf5_data_layer.cpp:79] Loading list of HDF5 filenames from: /home/purduethu/scratch/radon/d/deng106/CNNStatisticalModel/distributions/input/20_distributions_900_sample_size_test-distributions-path.txt
I0502 17:32:56.974591 11823 hdf5_data_layer.cpp:93] Number of HDF5 files: 1
I0502 17:32:57.131160 11823 net.cpp:144] Setting up intercept
I0502 17:32:57.131191 11823 net.cpp:151] Top shape: 20 1 30 30 (18000)
I0502 17:32:57.131196 11823 net.cpp:151] Top shape: 20 (20)
I0502 17:32:57.131199 11823 net.cpp:159] Memory required for data: 72080
I0502 17:32:57.131206 11823 layer_factory.hpp:77] Creating layer label_intercept_1_split
I0502 17:32:57.131222 11823 net.cpp:94] Creating Layer label_intercept_1_split
I0502 17:32:57.131227 11823 net.cpp:435] label_intercept_1_split <- label
I0502 17:32:57.131233 11823 net.cpp:409] label_intercept_1_split -> label_intercept_1_split_0
I0502 17:32:57.131242 11823 net.cpp:409] label_intercept_1_split -> label_intercept_1_split_1
I0502 17:32:57.131276 11823 net.cpp:144] Setting up label_intercept_1_split
I0502 17:32:57.131283 11823 net.cpp:151] Top shape: 20 (20)
I0502 17:32:57.131288 11823 net.cpp:151] Top shape: 20 (20)
I0502 17:32:57.131290 11823 net.cpp:159] Memory required for data: 72240
I0502 17:32:57.131294 11823 layer_factory.hpp:77] Creating layer conv1
I0502 17:32:57.131304 11823 net.cpp:94] Creating Layer conv1
I0502 17:32:57.131309 11823 net.cpp:435] conv1 <- data
I0502 17:32:57.131314 11823 net.cpp:409] conv1 -> conv1
I0502 17:32:57.133083 11823 net.cpp:144] Setting up conv1
I0502 17:32:57.133097 11823 net.cpp:151] Top shape: 20 64 30 30 (1152000)
I0502 17:32:57.133101 11823 net.cpp:159] Memory required for data: 4680240
I0502 17:32:57.133111 11823 layer_factory.hpp:77] Creating layer relu1
I0502 17:32:57.133118 11823 net.cpp:94] Creating Layer relu1
I0502 17:32:57.133122 11823 net.cpp:435] relu1 <- conv1
I0502 17:32:57.133126 11823 net.cpp:396] relu1 -> conv1 (in-place)
I0502 17:32:57.133134 11823 net.cpp:144] Setting up relu1
I0502 17:32:57.133138 11823 net.cpp:151] Top shape: 20 64 30 30 (1152000)
I0502 17:32:57.133141 11823 net.cpp:159] Memory required for data: 9288240
I0502 17:32:57.133144 11823 layer_factory.hpp:77] Creating layer conv2
I0502 17:32:57.133153 11823 net.cpp:94] Creating Layer conv2
I0502 17:32:57.133157 11823 net.cpp:435] conv2 <- conv1
I0502 17:32:57.133162 11823 net.cpp:409] conv2 -> conv2
I0502 17:32:57.141592 11823 net.cpp:144] Setting up conv2
I0502 17:32:57.141607 11823 net.cpp:151] Top shape: 20 64 30 30 (1152000)
I0502 17:32:57.141610 11823 net.cpp:159] Memory required for data: 13896240
I0502 17:32:57.141619 11823 layer_factory.hpp:77] Creating layer relu2
I0502 17:32:57.141625 11823 net.cpp:94] Creating Layer relu2
I0502 17:32:57.141629 11823 net.cpp:435] relu2 <- conv2
I0502 17:32:57.141633 11823 net.cpp:396] relu2 -> conv2 (in-place)
I0502 17:32:57.141640 11823 net.cpp:144] Setting up relu2
I0502 17:32:57.141645 11823 net.cpp:151] Top shape: 20 64 30 30 (1152000)
I0502 17:32:57.141649 11823 net.cpp:159] Memory required for data: 18504240
I0502 17:32:57.141651 11823 layer_factory.hpp:77] Creating layer pool2
I0502 17:32:57.141657 11823 net.cpp:94] Creating Layer pool2
I0502 17:32:57.141661 11823 net.cpp:435] pool2 <- conv2
I0502 17:32:57.141665 11823 net.cpp:409] pool2 -> pool2
I0502 17:32:57.141700 11823 net.cpp:144] Setting up pool2
I0502 17:32:57.141706 11823 net.cpp:151] Top shape: 20 64 15 15 (288000)
I0502 17:32:57.141710 11823 net.cpp:159] Memory required for data: 19656240
I0502 17:32:57.141712 11823 layer_factory.hpp:77] Creating layer conv3
I0502 17:32:57.141721 11823 net.cpp:94] Creating Layer conv3
I0502 17:32:57.141724 11823 net.cpp:435] conv3 <- pool2
I0502 17:32:57.141729 11823 net.cpp:409] conv3 -> conv3
I0502 17:32:57.149734 11823 net.cpp:144] Setting up conv3
I0502 17:32:57.149750 11823 net.cpp:151] Top shape: 20 64 15 15 (288000)
I0502 17:32:57.149755 11823 net.cpp:159] Memory required for data: 20808240
I0502 17:32:57.149762 11823 layer_factory.hpp:77] Creating layer relu3
I0502 17:32:57.149770 11823 net.cpp:94] Creating Layer relu3
I0502 17:32:57.149773 11823 net.cpp:435] relu3 <- conv3
I0502 17:32:57.149778 11823 net.cpp:396] relu3 -> conv3 (in-place)
I0502 17:32:57.149785 11823 net.cpp:144] Setting up relu3
I0502 17:32:57.149791 11823 net.cpp:151] Top shape: 20 64 15 15 (288000)
I0502 17:32:57.149793 11823 net.cpp:159] Memory required for data: 21960240
I0502 17:32:57.149796 11823 layer_factory.hpp:77] Creating layer conv4
I0502 17:32:57.149803 11823 net.cpp:94] Creating Layer conv4
I0502 17:32:57.149806 11823 net.cpp:435] conv4 <- conv3
I0502 17:32:57.149811 11823 net.cpp:409] conv4 -> conv4
I0502 17:32:57.157577 11823 net.cpp:144] Setting up conv4
I0502 17:32:57.157593 11823 net.cpp:151] Top shape: 20 64 15 15 (288000)
I0502 17:32:57.157596 11823 net.cpp:159] Memory required for data: 23112240
I0502 17:32:57.157603 11823 layer_factory.hpp:77] Creating layer relu4
I0502 17:32:57.157609 11823 net.cpp:94] Creating Layer relu4
I0502 17:32:57.157616 11823 net.cpp:435] relu4 <- conv4
I0502 17:32:57.157622 11823 net.cpp:396] relu4 -> conv4 (in-place)
I0502 17:32:57.157629 11823 net.cpp:144] Setting up relu4
I0502 17:32:57.157634 11823 net.cpp:151] Top shape: 20 64 15 15 (288000)
I0502 17:32:57.157636 11823 net.cpp:159] Memory required for data: 24264240
I0502 17:32:57.157640 11823 layer_factory.hpp:77] Creating layer conv5
I0502 17:32:57.157647 11823 net.cpp:94] Creating Layer conv5
I0502 17:32:57.157651 11823 net.cpp:435] conv5 <- conv4
I0502 17:32:57.157656 11823 net.cpp:409] conv5 -> conv5
I0502 17:32:57.162417 11823 net.cpp:144] Setting up conv5
I0502 17:32:57.162432 11823 net.cpp:151] Top shape: 20 64 15 15 (288000)
I0502 17:32:57.162437 11823 net.cpp:159] Memory required for data: 25416240
I0502 17:32:57.162446 11823 layer_factory.hpp:77] Creating layer relu5
I0502 17:32:57.162451 11823 net.cpp:94] Creating Layer relu5
I0502 17:32:57.162456 11823 net.cpp:435] relu5 <- conv5
I0502 17:32:57.162461 11823 net.cpp:396] relu5 -> conv5 (in-place)
I0502 17:32:57.162467 11823 net.cpp:144] Setting up relu5
I0502 17:32:57.162472 11823 net.cpp:151] Top shape: 20 64 15 15 (288000)
I0502 17:32:57.162474 11823 net.cpp:159] Memory required for data: 26568240
I0502 17:32:57.162477 11823 layer_factory.hpp:77] Creating layer pool5
I0502 17:32:57.162482 11823 net.cpp:94] Creating Layer pool5
I0502 17:32:57.162485 11823 net.cpp:435] pool5 <- conv5
I0502 17:32:57.162490 11823 net.cpp:409] pool5 -> pool5
I0502 17:32:57.162515 11823 net.cpp:144] Setting up pool5
I0502 17:32:57.162521 11823 net.cpp:151] Top shape: 20 64 7 7 (62720)
I0502 17:32:57.162524 11823 net.cpp:159] Memory required for data: 26819120
I0502 17:32:57.162528 11823 layer_factory.hpp:77] Creating layer ip1
I0502 17:32:57.162535 11823 net.cpp:94] Creating Layer ip1
I0502 17:32:57.162539 11823 net.cpp:435] ip1 <- pool5
I0502 17:32:57.162542 11823 net.cpp:409] ip1 -> ip1
I0502 17:32:57.167351 11823 net.cpp:144] Setting up ip1
I0502 17:32:57.167359 11823 net.cpp:151] Top shape: 20 64 (1280)
I0502 17:32:57.167362 11823 net.cpp:159] Memory required for data: 26824240
I0502 17:32:57.167368 11823 layer_factory.hpp:77] Creating layer ip2
I0502 17:32:57.167373 11823 net.cpp:94] Creating Layer ip2
I0502 17:32:57.167377 11823 net.cpp:435] ip2 <- ip1
I0502 17:32:57.167382 11823 net.cpp:409] ip2 -> ip2
I0502 17:32:57.167551 11823 net.cpp:144] Setting up ip2
I0502 17:32:57.167557 11823 net.cpp:151] Top shape: 20 64 (1280)
I0502 17:32:57.167559 11823 net.cpp:159] Memory required for data: 26829360
I0502 17:32:57.167564 11823 layer_factory.hpp:77] Creating layer ip3
I0502 17:32:57.167572 11823 net.cpp:94] Creating Layer ip3
I0502 17:32:57.167574 11823 net.cpp:435] ip3 <- ip2
I0502 17:32:57.167579 11823 net.cpp:409] ip3 -> ip3
I0502 17:32:57.167723 11823 net.cpp:144] Setting up ip3
I0502 17:32:57.167729 11823 net.cpp:151] Top shape: 20 50 (1000)
I0502 17:32:57.167732 11823 net.cpp:159] Memory required for data: 26833360
I0502 17:32:57.167737 11823 layer_factory.hpp:77] Creating layer ip3_ip3_0_split
I0502 17:32:57.167742 11823 net.cpp:94] Creating Layer ip3_ip3_0_split
I0502 17:32:57.167745 11823 net.cpp:435] ip3_ip3_0_split <- ip3
I0502 17:32:57.167749 11823 net.cpp:409] ip3_ip3_0_split -> ip3_ip3_0_split_0
I0502 17:32:57.167754 11823 net.cpp:409] ip3_ip3_0_split -> ip3_ip3_0_split_1
I0502 17:32:57.167778 11823 net.cpp:144] Setting up ip3_ip3_0_split
I0502 17:32:57.167783 11823 net.cpp:151] Top shape: 20 50 (1000)
I0502 17:32:57.167786 11823 net.cpp:151] Top shape: 20 50 (1000)
I0502 17:32:57.167789 11823 net.cpp:159] Memory required for data: 26841360
I0502 17:32:57.167793 11823 layer_factory.hpp:77] Creating layer accuracy
I0502 17:32:57.167803 11823 net.cpp:94] Creating Layer accuracy
I0502 17:32:57.167806 11823 net.cpp:435] accuracy <- ip3_ip3_0_split_0
I0502 17:32:57.167810 11823 net.cpp:435] accuracy <- label_intercept_1_split_0
I0502 17:32:57.167814 11823 net.cpp:409] accuracy -> accuracy
…
