…
I0506 07:12:37.097499 20404 net.cpp:323] The NetState phase (0) differed from the phase (1) specified by a rule in layer intercept
I0506 07:12:37.097515 20404 net.cpp:323] The NetState phase (0) differed from the phase (1) specified by a rule in layer loss
I0506 07:12:37.097592 20404 net.cpp:52] Initializing net from parameters: 
state {
  phase: TRAIN
}
layer {
  name: "parameters"
  type: "HDF5Data"
  top: "data"
  top: "label"
  include {
    phase: TRAIN
  }
  hdf5_data_param {
    source: "/home/purduethu/scratch/radon/d/deng106/CNNStatisticalModel/distributions/input/50_distributions_100_sample_size_train-parameters-path.txt"
    batch_size: 20
  }
}
layer {
  name: "conv1"
  type: "Convolution"
  bottom: "data"
  top: "conv1"
  param {
    lr_mult: 1
  }
  param {
    lr_mult: 2
  }
  convolution_param {
    num_output: 64
    pad: 2
    kernel_size: 5
    stride: 1
    weight_filler {
      type: "gaussian"
      std: 0.0001
    }
    bias_filler {
      type: "constant"
    }
  }
}
layer {
  name: "relu1"
  type: "ReLU"
  bottom: "conv1"
  top: "conv1"
}
layer {
  name: "conv2"
  type: "Convolution"
  bottom: "conv1"
  top: "conv2"
  param {
    lr_mult: 1
  }
  param {
    lr_mult: 2
  }
  convolution_param {
    num_output: 64
    pad: 2
    kernel_size: 5
    stride: 1
    weight_filler {
      type: "gaussian"
      std: 0.01
    }
    bias_filler {
      type: "constant"
    }
  }
}
layer {
  name: "relu2"
  type: "ReLU"
  bottom: "conv2"
  top: "conv2"
}
layer {
  name: "pool2"
  type: "Pooling"
  bottom: "conv2"
  top: "pool2"
  pooling_param {
    pool: MAX
    kernel_size: 3
    stride: 2
  }
}
layer {
  name: "conv3"
  type: "Convolution"
  bottom: "pool2"
  top: "conv3"
  param {
    lr_mult: 1
  }
  param {
    lr_mult: 2
  }
  convolution_param {
    num_output: 128
    pad: 2
    kernel_size: 5
    stride: 1
    weight_filler {
      type: "gaussian"
      std: 0.01
    }
    bias_filler {
      type: "constant"
    }
  }
}
layer {
  name: "relu3"
  type: "ReLU"
  bottom: "conv3"
  top: "conv3"
}
layer {
  name: "conv4"
  type: "Convolution"
  bottom: "conv3"
  top: "conv4"
  param {
    lr_mult: 1
  }
  param {
    lr_mult: 2
  }
  convolution_param {
    num_output: 128
    pad: 2
    kernel_size: 5
    stride: 1
    weight_filler {
      type: "gaussian"
      std: 0.01
    }
    bias_filler {
      type: "constant"
    }
  }
}
layer {
  name: "relu4"
  type: "ReLU"
  bottom: "conv4"
  top: "conv4"
}
layer {
  name: "conv5"
  type: "Convolution"
  bottom: "conv4"
  top: "conv5"
  param {
    lr_mult: 1
  }
  param {
    lr_mult: 2
  }
  convolution_param {
    num_output: 128
    pad: 2
    kernel_size: 5
    stride: 1
    weight_filler {
      type: "gaussian"
      std: 0.01
    }
    bias_filler {
      type: "constant"
    }
  }
}
layer {
  name: "relu5"
  type: "ReLU"
  bottom: "conv5"
  top: "conv5"
}
layer {
  name: "pool5"
  type: "Pooling"
  bottom: "conv5"
  top: "pool5"
  pooling_param {
    pool: AVE
    kernel_size: 3
    stride: 2
  }
}
layer {
  name: "ip1"
  type: "InnerProduct"
  bottom: "pool5"
  top: "ip1"
  param {
    lr_mult: 1
  }
  param {
    lr_mult: 2
  }
  inner_product_param {
    num_output: 1024
    weight_filler {
      type: "gaussian"
      std: 0.1
    }
    bias_filler {
      type: "constant"
    }
  }
}
layer {
  name: "ip2"
  type: "InnerProduct"
  bottom: "ip1"
  top: "ip2"
  param {
    lr_mult: 1
  }
  param {
    lr_mult: 2
  }
  inner_product_param {
    num_output: 512
    weight_filler {
      type: "gaussian"
      std: 0.1
    }
    bias_filler {
      type: "constant"
    }
  }
}
layer {
  name: "ip3"
  type: "InnerProduct"
  bottom: "ip2"
  top: "ip3"
  param {
    lr_mult: 1
  }
  param {
    lr_mult: 2
  }
  inner_product_param {
    num_output: 1
    weight_filler {
      type: "gaussian"
      std: 0.1
    }
    bias_filler {
      type: "constant"
    }
  }
}
layer {
  name: "loss"
  type: "HuberLoss"
  bottom: "ip3"
  bottom: "label"
  top: "loss"
  include {
    phase: TRAIN
  }
}
I0506 07:12:37.097646 20404 layer_factory.hpp:77] Creating layer parameters
I0506 07:12:37.097663 20404 net.cpp:94] Creating Layer parameters
I0506 07:12:37.097667 20404 net.cpp:409] parameters -> data
I0506 07:12:37.097676 20404 net.cpp:409] parameters -> label
I0506 07:12:37.097683 20404 hdf5_data_layer.cpp:79] Loading list of HDF5 filenames from: /home/purduethu/scratch/radon/d/deng106/CNNStatisticalModel/distributions/input/50_distributions_100_sample_size_train-parameters-path.txt
I0506 07:12:37.097697 20404 hdf5_data_layer.cpp:93] Number of HDF5 files: 1
I0506 07:12:37.098245 20404 hdf5.cpp:32] Datatype class: H5T_FLOAT
I0506 07:12:37.261044 20404 net.cpp:144] Setting up parameters
I0506 07:12:37.261077 20404 net.cpp:151] Top shape: 20 1 10 10 (2000)
I0506 07:12:37.261082 20404 net.cpp:151] Top shape: 20 (20)
I0506 07:12:37.261086 20404 net.cpp:159] Memory required for data: 8080
I0506 07:12:37.261092 20404 layer_factory.hpp:77] Creating layer conv1
I0506 07:12:37.261108 20404 net.cpp:94] Creating Layer conv1
I0506 07:12:37.261112 20404 net.cpp:435] conv1 <- data
I0506 07:12:37.261118 20404 net.cpp:409] conv1 -> conv1
I0506 07:12:37.265264 20404 net.cpp:144] Setting up conv1
I0506 07:12:37.265282 20404 net.cpp:151] Top shape: 20 64 10 10 (128000)
I0506 07:12:37.265285 20404 net.cpp:159] Memory required for data: 520080
I0506 07:12:37.265296 20404 layer_factory.hpp:77] Creating layer relu1
I0506 07:12:37.265305 20404 net.cpp:94] Creating Layer relu1
I0506 07:12:37.265310 20404 net.cpp:435] relu1 <- conv1
I0506 07:12:37.265313 20404 net.cpp:396] relu1 -> conv1 (in-place)
I0506 07:12:37.265321 20404 net.cpp:144] Setting up relu1
I0506 07:12:37.265326 20404 net.cpp:151] Top shape: 20 64 10 10 (128000)
I0506 07:12:37.265328 20404 net.cpp:159] Memory required for data: 1032080
I0506 07:12:37.265331 20404 layer_factory.hpp:77] Creating layer conv2
I0506 07:12:37.265339 20404 net.cpp:94] Creating Layer conv2
I0506 07:12:37.265343 20404 net.cpp:435] conv2 <- conv1
I0506 07:12:37.265347 20404 net.cpp:409] conv2 -> conv2
I0506 07:12:37.271420 20404 net.cpp:144] Setting up conv2
I0506 07:12:37.271437 20404 net.cpp:151] Top shape: 20 64 10 10 (128000)
I0506 07:12:37.271441 20404 net.cpp:159] Memory required for data: 1544080
I0506 07:12:37.271450 20404 layer_factory.hpp:77] Creating layer relu2
I0506 07:12:37.271458 20404 net.cpp:94] Creating Layer relu2
I0506 07:12:37.271461 20404 net.cpp:435] relu2 <- conv2
I0506 07:12:37.271466 20404 net.cpp:396] relu2 -> conv2 (in-place)
I0506 07:12:37.271473 20404 net.cpp:144] Setting up relu2
I0506 07:12:37.271477 20404 net.cpp:151] Top shape: 20 64 10 10 (128000)
I0506 07:12:37.271481 20404 net.cpp:159] Memory required for data: 2056080
I0506 07:12:37.271483 20404 layer_factory.hpp:77] Creating layer pool2
I0506 07:12:37.271489 20404 net.cpp:94] Creating Layer pool2
I0506 07:12:37.271492 20404 net.cpp:435] pool2 <- conv2
I0506 07:12:37.271497 20404 net.cpp:409] pool2 -> pool2
I0506 07:12:37.271556 20404 net.cpp:144] Setting up pool2
I0506 07:12:37.271564 20404 net.cpp:151] Top shape: 20 64 5 5 (32000)
I0506 07:12:37.271567 20404 net.cpp:159] Memory required for data: 2184080
I0506 07:12:37.271570 20404 layer_factory.hpp:77] Creating layer conv3
I0506 07:12:37.271579 20404 net.cpp:94] Creating Layer conv3
I0506 07:12:37.271589 20404 net.cpp:435] conv3 <- pool2
I0506 07:12:37.271594 20404 net.cpp:409] conv3 -> conv3
I0506 07:12:37.279819 20404 net.cpp:144] Setting up conv3
I0506 07:12:37.279835 20404 net.cpp:151] Top shape: 20 128 5 5 (64000)
I0506 07:12:37.279839 20404 net.cpp:159] Memory required for data: 2440080
I0506 07:12:37.279847 20404 layer_factory.hpp:77] Creating layer relu3
I0506 07:12:37.279855 20404 net.cpp:94] Creating Layer relu3
I0506 07:12:37.279858 20404 net.cpp:435] relu3 <- conv3
I0506 07:12:37.279862 20404 net.cpp:396] relu3 -> conv3 (in-place)
I0506 07:12:37.279870 20404 net.cpp:144] Setting up relu3
I0506 07:12:37.279873 20404 net.cpp:151] Top shape: 20 128 5 5 (64000)
I0506 07:12:37.279876 20404 net.cpp:159] Memory required for data: 2696080
I0506 07:12:37.279880 20404 layer_factory.hpp:77] Creating layer conv4
I0506 07:12:37.279888 20404 net.cpp:94] Creating Layer conv4
I0506 07:12:37.279891 20404 net.cpp:435] conv4 <- conv3
I0506 07:12:37.279896 20404 net.cpp:409] conv4 -> conv4
I0506 07:12:37.294924 20404 net.cpp:144] Setting up conv4
I0506 07:12:37.294948 20404 net.cpp:151] Top shape: 20 128 5 5 (64000)
I0506 07:12:37.294951 20404 net.cpp:159] Memory required for data: 2952080
I0506 07:12:37.294960 20404 layer_factory.hpp:77] Creating layer relu4
I0506 07:12:37.294968 20404 net.cpp:94] Creating Layer relu4
I0506 07:12:37.294972 20404 net.cpp:435] relu4 <- conv4
I0506 07:12:37.294977 20404 net.cpp:396] relu4 -> conv4 (in-place)
I0506 07:12:37.294986 20404 net.cpp:144] Setting up relu4
I0506 07:12:37.294991 20404 net.cpp:151] Top shape: 20 128 5 5 (64000)
I0506 07:12:37.294993 20404 net.cpp:159] Memory required for data: 3208080
I0506 07:12:37.294996 20404 layer_factory.hpp:77] Creating layer conv5
I0506 07:12:37.295004 20404 net.cpp:94] Creating Layer conv5
I0506 07:12:37.295007 20404 net.cpp:435] conv5 <- conv4
I0506 07:12:37.295012 20404 net.cpp:409] conv5 -> conv5
I0506 07:12:37.309366 20404 net.cpp:144] Setting up conv5
I0506 07:12:37.309391 20404 net.cpp:151] Top shape: 20 128 5 5 (64000)
I0506 07:12:37.309394 20404 net.cpp:159] Memory required for data: 3464080
I0506 07:12:37.309406 20404 layer_factory.hpp:77] Creating layer relu5
I0506 07:12:37.309414 20404 net.cpp:94] Creating Layer relu5
I0506 07:12:37.309418 20404 net.cpp:435] relu5 <- conv5
I0506 07:12:37.309422 20404 net.cpp:396] relu5 -> conv5 (in-place)
I0506 07:12:37.309432 20404 net.cpp:144] Setting up relu5
I0506 07:12:37.309435 20404 net.cpp:151] Top shape: 20 128 5 5 (64000)
I0506 07:12:37.309438 20404 net.cpp:159] Memory required for data: 3720080
I0506 07:12:37.309442 20404 layer_factory.hpp:77] Creating layer pool5
I0506 07:12:37.309448 20404 net.cpp:94] Creating Layer pool5
I0506 07:12:37.309450 20404 net.cpp:435] pool5 <- conv5
I0506 07:12:37.309454 20404 net.cpp:409] pool5 -> pool5
I0506 07:12:37.309506 20404 net.cpp:144] Setting up pool5
I0506 07:12:37.309514 20404 net.cpp:151] Top shape: 20 128 2 2 (10240)
I0506 07:12:37.309516 20404 net.cpp:159] Memory required for data: 3761040
I0506 07:12:37.309520 20404 layer_factory.hpp:77] Creating layer ip1
I0506 07:12:37.309530 20404 net.cpp:94] Creating Layer ip1
I0506 07:12:37.309533 20404 net.cpp:435] ip1 <- pool5
I0506 07:12:37.309538 20404 net.cpp:409] ip1 -> ip1
I0506 07:12:37.331706 20404 net.cpp:144] Setting up ip1
I0506 07:12:37.331735 20404 net.cpp:151] Top shape: 20 1024 (20480)
I0506 07:12:37.331739 20404 net.cpp:159] Memory required for data: 3842960
I0506 07:12:37.331748 20404 layer_factory.hpp:77] Creating layer ip2
I0506 07:12:37.331759 20404 net.cpp:94] Creating Layer ip2
I0506 07:12:37.331763 20404 net.cpp:435] ip2 <- ip1
I0506 07:12:37.331769 20404 net.cpp:409] ip2 -> ip2
I0506 07:12:37.345031 20404 net.cpp:144] Setting up ip2
I0506 07:12:37.345059 20404 net.cpp:151] Top shape: 20 512 (10240)
I0506 07:12:37.345063 20404 net.cpp:159] Memory required for data: 3883920
I0506 07:12:37.345072 20404 layer_factory.hpp:77] Creating layer ip3
I0506 07:12:37.345080 20404 net.cpp:94] Creating Layer ip3
I0506 07:12:37.345085 20404 net.cpp:435] ip3 <- ip2
I0506 07:12:37.345098 20404 net.cpp:409] ip3 -> ip3
I0506 07:12:37.345224 20404 net.cpp:144] Setting up ip3
I0506 07:12:37.345232 20404 net.cpp:151] Top shape: 20 1 (20)
I0506 07:12:37.345234 20404 net.cpp:159] Memory required for data: 3884000
I0506 07:12:37.345240 20404 layer_factory.hpp:77] Creating layer loss
I0506 07:12:37.345254 20404 net.cpp:94] Creating Layer loss
I0506 07:12:37.345257 20404 net.cpp:435] loss <- ip3
I0506 07:12:37.345262 20404 net.cpp:435] loss <- label
I0506 07:12:37.345265 20404 net.cpp:409] loss -> loss
I0506 07:12:37.345319 20404 net.cpp:144] Setting up loss
…
I0506 07:12:37.452733 20404 net.cpp:323] The NetState phase (0) differed from the phase (1) specified by a rule in layer intercept
I0506 07:12:37.452750 20404 net.cpp:323] The NetState phase (0) differed from the phase (1) specified by a rule in layer accuracy
I0506 07:12:37.452836 20404 net.cpp:52] Initializing net from parameters: 
state {
  phase: TRAIN
}
layer {
  name: "parameters"
  type: "HDF5Data"
  top: "data"
  top: "label"
  include {
    phase: TRAIN
  }
  hdf5_data_param {
    source: "/home/purduethu/scratch/radon/d/deng106/CNNStatisticalModel/distributions/input/50_distributions_100_sample_size_train-distributions-path.txt"
    batch_size: 20
  }
}
layer {
  name: "conv1"
  type: "Convolution"
  bottom: "data"
  top: "conv1"
  param {
    lr_mult: 1
  }
  param {
    lr_mult: 2
  }
  convolution_param {
    num_output: 64
    pad: 2
    kernel_size: 5
    stride: 1
    weight_filler {
      type: "gaussian"
      std: 0.0001
    }
    bias_filler {
      type: "constant"
    }
  }
}
layer {
  name: "relu1"
  type: "ReLU"
  bottom: "conv1"
  top: "conv1"
}
layer {
  name: "conv2"
  type: "Convolution"
  bottom: "conv1"
  top: "conv2"
  param {
    lr_mult: 1
  }
  param {
    lr_mult: 2
  }
  convolution_param {
    num_output: 64
    pad: 2
    kernel_size: 5
    stride: 1
    weight_filler {
      type: "gaussian"
      std: 0.01
    }
    bias_filler {
      type: "constant"
    }
  }
}
layer {
  name: "relu2"
  type: "ReLU"
  bottom: "conv2"
  top: "conv2"
}
layer {
  name: "pool2"
  type: "Pooling"
  bottom: "conv2"
  top: "pool2"
  pooling_param {
    pool: MAX
    kernel_size: 3
    stride: 2
  }
}
layer {
  name: "conv3"
  type: "Convolution"
  bottom: "pool2"
  top: "conv3"
  param {
    lr_mult: 1
  }
  param {
    lr_mult: 2
  }
  convolution_param {
    num_output: 128
    pad: 2
    kernel_size: 5
    stride: 1
    weight_filler {
      type: "gaussian"
      std: 0.01
    }
    bias_filler {
      type: "constant"
    }
  }
}
layer {
  name: "relu3"
  type: "ReLU"
  bottom: "conv3"
  top: "conv3"
}
layer {
  name: "conv4"
  type: "Convolution"
  bottom: "conv3"
  top: "conv4"
  param {
    lr_mult: 1
  }
  param {
    lr_mult: 2
  }
  convolution_param {
    num_output: 128
    pad: 2
    kernel_size: 5
    stride: 1
    weight_filler {
      type: "gaussian"
      std: 0.01
    }
    bias_filler {
      type: "constant"
    }
  }
}
layer {
  name: "relu4"
  type: "ReLU"
  bottom: "conv4"
  top: "conv4"
}
layer {
  name: "conv5"
  type: "Convolution"
  bottom: "conv4"
  top: "conv5"
  param {
    lr_mult: 1
  }
  param {
    lr_mult: 2
  }
  convolution_param {
    num_output: 128
    pad: 2
    kernel_size: 5
    stride: 1
    weight_filler {
      type: "gaussian"
      std: 0.01
    }
    bias_filler {
      type: "constant"
    }
  }
}
layer {
  name: "relu5"
  type: "ReLU"
  bottom: "conv5"
  top: "conv5"
}
layer {
  name: "pool5"
  type: "Pooling"
  bottom: "conv5"
  top: "pool5"
  pooling_param {
    pool: AVE
    kernel_size: 3
    stride: 2
  }
}
layer {
  name: "ip1"
  type: "InnerProduct"
  bottom: "pool5"
  top: "ip1"
  param {
    lr_mult: 1
  }
  param {
    lr_mult: 2
  }
  inner_product_param {
    num_output: 1024
    weight_filler {
      type: "gaussian"
      std: 0.1
    }
    bias_filler {
      type: "constant"
    }
  }
}
layer {
  name: "ip2"
  type: "InnerProduct"
  bottom: "ip1"
  top: "ip2"
  param {
    lr_mult: 1
  }
  param {
    lr_mult: 2
  }
  inner_product_param {
    num_output: 512
    weight_filler {
      type: "gaussian"
      std: 0.1
    }
    bias_filler {
      type: "constant"
    }
  }
}
layer {
  name: "ip3"
  type: "InnerProduct"
  bottom: "ip2"
  top: "ip3"
  param {
    lr_mult: 1
  }
  param {
    lr_mult: 2
  }
  inner_product_param {
    num_output: 50
    weight_filler {
      type: "gaussian"
      std: 0.1
    }
    bias_filler {
      type: "constant"
    }
  }
}
layer {
  name: "loss"
  type: "SoftmaxWithLoss"
  bottom: "ip3"
  bottom: "label"
  top: "loss"
}
I0506 07:12:37.452884 20404 layer_factory.hpp:77] Creating layer parameters
I0506 07:12:37.452893 20404 net.cpp:94] Creating Layer parameters
I0506 07:12:37.452896 20404 net.cpp:409] parameters -> data
I0506 07:12:37.452903 20404 net.cpp:409] parameters -> label
I0506 07:12:37.452909 20404 hdf5_data_layer.cpp:79] Loading list of HDF5 filenames from: /home/purduethu/scratch/radon/d/deng106/CNNStatisticalModel/distributions/input/50_distributions_100_sample_size_train-distributions-path.txt
I0506 07:12:37.452925 20404 hdf5_data_layer.cpp:93] Number of HDF5 files: 1
I0506 07:12:37.610574 20404 hdf5.cpp:35] Datatype class: H5T_INTEGER
I0506 07:12:37.613684 20404 net.cpp:144] Setting up parameters
I0506 07:12:37.613714 20404 net.cpp:151] Top shape: 20 1 10 10 (2000)
I0506 07:12:37.613719 20404 net.cpp:151] Top shape: 20 (20)
I0506 07:12:37.613723 20404 net.cpp:159] Memory required for data: 8080
I0506 07:12:37.613729 20404 layer_factory.hpp:77] Creating layer conv1
I0506 07:12:37.613744 20404 net.cpp:94] Creating Layer conv1
I0506 07:12:37.613749 20404 net.cpp:435] conv1 <- data
I0506 07:12:37.613754 20404 net.cpp:409] conv1 -> conv1
I0506 07:12:37.615644 20404 net.cpp:144] Setting up conv1
I0506 07:12:37.615658 20404 net.cpp:151] Top shape: 20 64 10 10 (128000)
I0506 07:12:37.615661 20404 net.cpp:159] Memory required for data: 520080
I0506 07:12:37.615671 20404 layer_factory.hpp:77] Creating layer relu1
I0506 07:12:37.615679 20404 net.cpp:94] Creating Layer relu1
I0506 07:12:37.615681 20404 net.cpp:435] relu1 <- conv1
I0506 07:12:37.615686 20404 net.cpp:396] relu1 -> conv1 (in-place)
I0506 07:12:37.615694 20404 net.cpp:144] Setting up relu1
I0506 07:12:37.615697 20404 net.cpp:151] Top shape: 20 64 10 10 (128000)
I0506 07:12:37.615700 20404 net.cpp:159] Memory required for data: 1032080
I0506 07:12:37.615703 20404 layer_factory.hpp:77] Creating layer conv2
I0506 07:12:37.615710 20404 net.cpp:94] Creating Layer conv2
I0506 07:12:37.615713 20404 net.cpp:435] conv2 <- conv1
I0506 07:12:37.615718 20404 net.cpp:409] conv2 -> conv2
I0506 07:12:37.621320 20404 net.cpp:144] Setting up conv2
I0506 07:12:37.621335 20404 net.cpp:151] Top shape: 20 64 10 10 (128000)
I0506 07:12:37.621340 20404 net.cpp:159] Memory required for data: 1544080
I0506 07:12:37.621347 20404 layer_factory.hpp:77] Creating layer relu2
I0506 07:12:37.621354 20404 net.cpp:94] Creating Layer relu2
I0506 07:12:37.621358 20404 net.cpp:435] relu2 <- conv2
I0506 07:12:37.621362 20404 net.cpp:396] relu2 -> conv2 (in-place)
I0506 07:12:37.621369 20404 net.cpp:144] Setting up relu2
I0506 07:12:37.621373 20404 net.cpp:151] Top shape: 20 64 10 10 (128000)
I0506 07:12:37.621376 20404 net.cpp:159] Memory required for data: 2056080
I0506 07:12:37.621379 20404 layer_factory.hpp:77] Creating layer pool2
I0506 07:12:37.621386 20404 net.cpp:94] Creating Layer pool2
I0506 07:12:37.621388 20404 net.cpp:435] pool2 <- conv2
I0506 07:12:37.621392 20404 net.cpp:409] pool2 -> pool2
I0506 07:12:37.621454 20404 net.cpp:144] Setting up pool2
I0506 07:12:37.621460 20404 net.cpp:151] Top shape: 20 64 5 5 (32000)
I0506 07:12:37.621464 20404 net.cpp:159] Memory required for data: 2184080
I0506 07:12:37.621466 20404 layer_factory.hpp:77] Creating layer conv3
I0506 07:12:37.621474 20404 net.cpp:94] Creating Layer conv3
I0506 07:12:37.621477 20404 net.cpp:435] conv3 <- pool2
I0506 07:12:37.621482 20404 net.cpp:409] conv3 -> conv3
I0506 07:12:37.630353 20404 net.cpp:144] Setting up conv3
I0506 07:12:37.630373 20404 net.cpp:151] Top shape: 20 128 5 5 (64000)
I0506 07:12:37.630376 20404 net.cpp:159] Memory required for data: 2440080
I0506 07:12:37.630386 20404 layer_factory.hpp:77] Creating layer relu3
I0506 07:12:37.630393 20404 net.cpp:94] Creating Layer relu3
I0506 07:12:37.630398 20404 net.cpp:435] relu3 <- conv3
I0506 07:12:37.630403 20404 net.cpp:396] relu3 -> conv3 (in-place)
I0506 07:12:37.630416 20404 net.cpp:144] Setting up relu3
I0506 07:12:37.630421 20404 net.cpp:151] Top shape: 20 128 5 5 (64000)
I0506 07:12:37.630424 20404 net.cpp:159] Memory required for data: 2696080
I0506 07:12:37.630427 20404 layer_factory.hpp:77] Creating layer conv4
I0506 07:12:37.630436 20404 net.cpp:94] Creating Layer conv4
I0506 07:12:37.630439 20404 net.cpp:435] conv4 <- conv3
I0506 07:12:37.630445 20404 net.cpp:409] conv4 -> conv4
I0506 07:12:37.645823 20404 net.cpp:144] Setting up conv4
I0506 07:12:37.645848 20404 net.cpp:151] Top shape: 20 128 5 5 (64000)
I0506 07:12:37.645851 20404 net.cpp:159] Memory required for data: 2952080
I0506 07:12:37.645859 20404 layer_factory.hpp:77] Creating layer relu4
I0506 07:12:37.645869 20404 net.cpp:94] Creating Layer relu4
I0506 07:12:37.645872 20404 net.cpp:435] relu4 <- conv4
I0506 07:12:37.645877 20404 net.cpp:396] relu4 -> conv4 (in-place)
I0506 07:12:37.645885 20404 net.cpp:144] Setting up relu4
I0506 07:12:37.645890 20404 net.cpp:151] Top shape: 20 128 5 5 (64000)
I0506 07:12:37.645892 20404 net.cpp:159] Memory required for data: 3208080
I0506 07:12:37.645895 20404 layer_factory.hpp:77] Creating layer conv5
I0506 07:12:37.645905 20404 net.cpp:94] Creating Layer conv5
I0506 07:12:37.645907 20404 net.cpp:435] conv5 <- conv4
I0506 07:12:37.645912 20404 net.cpp:409] conv5 -> conv5
I0506 07:12:37.661212 20404 net.cpp:144] Setting up conv5
I0506 07:12:37.661228 20404 net.cpp:151] Top shape: 20 128 5 5 (64000)
I0506 07:12:37.661232 20404 net.cpp:159] Memory required for data: 3464080
I0506 07:12:37.661242 20404 layer_factory.hpp:77] Creating layer relu5
I0506 07:12:37.661249 20404 net.cpp:94] Creating Layer relu5
I0506 07:12:37.661253 20404 net.cpp:435] relu5 <- conv5
I0506 07:12:37.661258 20404 net.cpp:396] relu5 -> conv5 (in-place)
I0506 07:12:37.661265 20404 net.cpp:144] Setting up relu5
I0506 07:12:37.661269 20404 net.cpp:151] Top shape: 20 128 5 5 (64000)
I0506 07:12:37.661273 20404 net.cpp:159] Memory required for data: 3720080
I0506 07:12:37.661275 20404 layer_factory.hpp:77] Creating layer pool5
I0506 07:12:37.661280 20404 net.cpp:94] Creating Layer pool5
I0506 07:12:37.661283 20404 net.cpp:435] pool5 <- conv5
I0506 07:12:37.661288 20404 net.cpp:409] pool5 -> pool5
I0506 07:12:37.661329 20404 net.cpp:144] Setting up pool5
I0506 07:12:37.661336 20404 net.cpp:151] Top shape: 20 128 2 2 (10240)
I0506 07:12:37.661340 20404 net.cpp:159] Memory required for data: 3761040
I0506 07:12:37.661344 20404 layer_factory.hpp:77] Creating layer ip1
I0506 07:12:37.661350 20404 net.cpp:94] Creating Layer ip1
I0506 07:12:37.661352 20404 net.cpp:435] ip1 <- pool5
I0506 07:12:37.661357 20404 net.cpp:409] ip1 -> ip1
I0506 07:12:37.674407 20404 net.cpp:144] Setting up ip1
I0506 07:12:37.674422 20404 net.cpp:151] Top shape: 20 1024 (20480)
I0506 07:12:37.674425 20404 net.cpp:159] Memory required for data: 3842960
I0506 07:12:37.674432 20404 layer_factory.hpp:77] Creating layer ip2
I0506 07:12:37.674438 20404 net.cpp:94] Creating Layer ip2
I0506 07:12:37.674441 20404 net.cpp:435] ip2 <- ip1
I0506 07:12:37.674448 20404 net.cpp:409] ip2 -> ip2
I0506 07:12:37.687582 20404 net.cpp:144] Setting up ip2
I0506 07:12:37.687595 20404 net.cpp:151] Top shape: 20 512 (10240)
I0506 07:12:37.687599 20404 net.cpp:159] Memory required for data: 3883920
I0506 07:12:37.687605 20404 layer_factory.hpp:77] Creating layer ip3
I0506 07:12:37.687611 20404 net.cpp:94] Creating Layer ip3
I0506 07:12:37.687615 20404 net.cpp:435] ip3 <- ip2
I0506 07:12:37.687620 20404 net.cpp:409] ip3 -> ip3
I0506 07:12:37.689199 20404 net.cpp:144] Setting up ip3
I0506 07:12:37.689213 20404 net.cpp:151] Top shape: 20 50 (1000)
I0506 07:12:37.689216 20404 net.cpp:159] Memory required for data: 3887920
I0506 07:12:37.689223 20404 layer_factory.hpp:77] Creating layer loss
I0506 07:12:37.689230 20404 net.cpp:94] Creating Layer loss
I0506 07:12:37.689234 20404 net.cpp:435] loss <- ip3
I0506 07:12:37.689239 20404 net.cpp:435] loss <- label
I0506 07:12:37.689242 20404 net.cpp:409] loss -> loss
I0506 07:12:37.689250 20404 layer_factory.hpp:77] Creating layer loss
…
I0506 07:12:37.689780 20404 solver.cpp:181] Creating test net (#0) specified by net file: ./protocol/dis_50_100_dimension.protocol_distribution
I0506 07:12:37.689806 20404 net.cpp:323] The NetState phase (1) differed from the phase (0) specified by a rule in layer parameters
I0506 07:12:37.689898 20404 net.cpp:52] Initializing net from parameters: 
state {
  phase: TEST
}
layer {
  name: "intercept"
  type: "HDF5Data"
  top: "data"
  top: "label"
  include {
    phase: TEST
  }
  hdf5_data_param {
    source: "/home/purduethu/scratch/radon/d/deng106/CNNStatisticalModel/distributions/input/50_distributions_100_sample_size_test-distributions-path.txt"
    batch_size: 20
  }
}
layer {
  name: "conv1"
  type: "Convolution"
  bottom: "data"
  top: "conv1"
  param {
    lr_mult: 1
  }
  param {
    lr_mult: 2
  }
  convolution_param {
    num_output: 64
    pad: 2
    kernel_size: 5
    stride: 1
    weight_filler {
      type: "gaussian"
      std: 0.0001
    }
    bias_filler {
      type: "constant"
    }
  }
}
layer {
  name: "relu1"
  type: "ReLU"
  bottom: "conv1"
  top: "conv1"
}
layer {
  name: "conv2"
  type: "Convolution"
  bottom: "conv1"
  top: "conv2"
  param {
    lr_mult: 1
  }
  param {
    lr_mult: 2
  }
  convolution_param {
    num_output: 64
    pad: 2
    kernel_size: 5
    stride: 1
    weight_filler {
      type: "gaussian"
      std: 0.01
    }
    bias_filler {
      type: "constant"
    }
  }
}
layer {
  name: "relu2"
  type: "ReLU"
  bottom: "conv2"
  top: "conv2"
}
layer {
  name: "pool2"
  type: "Pooling"
  bottom: "conv2"
  top: "pool2"
  pooling_param {
    pool: MAX
    kernel_size: 3
    stride: 2
  }
}
layer {
  name: "conv3"
  type: "Convolution"
  bottom: "pool2"
  top: "conv3"
  param {
    lr_mult: 1
  }
  param {
    lr_mult: 2
  }
  convolution_param {
    num_output: 128
    pad: 2
    kernel_size: 5
    stride: 1
    weight_filler {
      type: "gaussian"
      std: 0.01
    }
    bias_filler {
      type: "constant"
    }
  }
}
layer {
  name: "relu3"
  type: "ReLU"
  bottom: "conv3"
  top: "conv3"
}
layer {
  name: "conv4"
  type: "Convolution"
  bottom: "conv3"
  top: "conv4"
  param {
    lr_mult: 1
  }
  param {
    lr_mult: 2
  }
  convolution_param {
    num_output: 128
    pad: 2
    kernel_size: 5
    stride: 1
    weight_filler {
      type: "gaussian"
      std: 0.01
    }
    bias_filler {
      type: "constant"
    }
  }
}
layer {
  name: "relu4"
  type: "ReLU"
  bottom: "conv4"
  top: "conv4"
}
layer {
  name: "conv5"
  type: "Convolution"
  bottom: "conv4"
  top: "conv5"
  param {
    lr_mult: 1
  }
  param {
    lr_mult: 2
  }
  convolution_param {
    num_output: 128
    pad: 2
    kernel_size: 5
    stride: 1
    weight_filler {
      type: "gaussian"
      std: 0.01
    }
    bias_filler {
      type: "constant"
    }
  }
}
layer {
  name: "relu5"
  type: "ReLU"
  bottom: "conv5"
  top: "conv5"
}
layer {
  name: "pool5"
  type: "Pooling"
  bottom: "conv5"
  top: "pool5"
  pooling_param {
    pool: AVE
    kernel_size: 3
    stride: 2
  }
}
layer {
  name: "ip1"
  type: "InnerProduct"
  bottom: "pool5"
  top: "ip1"
  param {
    lr_mult: 1
  }
  param {
    lr_mult: 2
  }
  inner_product_param {
    num_output: 1024
    weight_filler {
      type: "gaussian"
      std: 0.1
    }
    bias_filler {
      type: "constant"
    }
  }
}
layer {
  name: "ip2"
  type: "InnerProduct"
  bottom: "ip1"
  top: "ip2"
  param {
    lr_mult: 1
  }
  param {
    lr_mult: 2
  }
  inner_product_param {
    num_output: 512
    weight_filler {
      type: "gaussian"
      std: 0.1
    }
    bias_filler {
      type: "constant"
    }
  }
}
layer {
  name: "ip3"
  type: "InnerProduct"
  bottom: "ip2"
  top: "ip3"
  param {
    lr_mult: 1
  }
  param {
    lr_mult: 2
  }
  inner_product_param {
    num_output: 50
    weight_filler {
      type: "gaussian"
      std: 0.1
    }
    bias_filler {
      type: "constant"
    }
  }
}
layer {
  name: "accuracy"
  type: "Accuracy"
  bottom: "ip3"
  bottom: "label"
  top: "accuracy"
  include {
    phase: TEST
  }
}
layer {
  name: "loss"
  type: "SoftmaxWithLoss"
  bottom: "ip3"
  bottom: "label"
  top: "loss"
}
I0506 07:12:37.689960 20404 layer_factory.hpp:77] Creating layer intercept
I0506 07:12:37.689967 20404 net.cpp:94] Creating Layer intercept
I0506 07:12:37.689971 20404 net.cpp:409] intercept -> data
I0506 07:12:37.689978 20404 net.cpp:409] intercept -> label
I0506 07:12:37.689983 20404 hdf5_data_layer.cpp:79] Loading list of HDF5 filenames from: /home/purduethu/scratch/radon/d/deng106/CNNStatisticalModel/distributions/input/50_distributions_100_sample_size_test-distributions-path.txt
I0506 07:12:37.690002 20404 hdf5_data_layer.cpp:93] Number of HDF5 files: 1
I0506 07:12:37.730813 20404 net.cpp:144] Setting up intercept
I0506 07:12:37.730847 20404 net.cpp:151] Top shape: 20 1 10 10 (2000)
I0506 07:12:37.730852 20404 net.cpp:151] Top shape: 20 (20)
I0506 07:12:37.730855 20404 net.cpp:159] Memory required for data: 8080
I0506 07:12:37.730861 20404 layer_factory.hpp:77] Creating layer label_intercept_1_split
I0506 07:12:37.730882 20404 net.cpp:94] Creating Layer label_intercept_1_split
I0506 07:12:37.730886 20404 net.cpp:435] label_intercept_1_split <- label
I0506 07:12:37.730892 20404 net.cpp:409] label_intercept_1_split -> label_intercept_1_split_0
I0506 07:12:37.730901 20404 net.cpp:409] label_intercept_1_split -> label_intercept_1_split_1
I0506 07:12:37.730944 20404 net.cpp:144] Setting up label_intercept_1_split
I0506 07:12:37.730950 20404 net.cpp:151] Top shape: 20 (20)
I0506 07:12:37.730954 20404 net.cpp:151] Top shape: 20 (20)
I0506 07:12:37.730957 20404 net.cpp:159] Memory required for data: 8240
I0506 07:12:37.730960 20404 layer_factory.hpp:77] Creating layer conv1
I0506 07:12:37.730971 20404 net.cpp:94] Creating Layer conv1
I0506 07:12:37.730974 20404 net.cpp:435] conv1 <- data
I0506 07:12:37.730978 20404 net.cpp:409] conv1 -> conv1
I0506 07:12:37.731837 20404 net.cpp:144] Setting up conv1
I0506 07:12:37.731849 20404 net.cpp:151] Top shape: 20 64 10 10 (128000)
I0506 07:12:37.731853 20404 net.cpp:159] Memory required for data: 520240
I0506 07:12:37.731861 20404 layer_factory.hpp:77] Creating layer relu1
I0506 07:12:37.731868 20404 net.cpp:94] Creating Layer relu1
I0506 07:12:37.731871 20404 net.cpp:435] relu1 <- conv1
I0506 07:12:37.731876 20404 net.cpp:396] relu1 -> conv1 (in-place)
I0506 07:12:37.731884 20404 net.cpp:144] Setting up relu1
I0506 07:12:37.731887 20404 net.cpp:151] Top shape: 20 64 10 10 (128000)
I0506 07:12:37.731899 20404 net.cpp:159] Memory required for data: 1032240
I0506 07:12:37.731901 20404 layer_factory.hpp:77] Creating layer conv2
I0506 07:12:37.731909 20404 net.cpp:94] Creating Layer conv2
I0506 07:12:37.731912 20404 net.cpp:435] conv2 <- conv1
I0506 07:12:37.731917 20404 net.cpp:409] conv2 -> conv2
I0506 07:12:37.736070 20404 net.cpp:144] Setting up conv2
I0506 07:12:37.736084 20404 net.cpp:151] Top shape: 20 64 10 10 (128000)
I0506 07:12:37.736088 20404 net.cpp:159] Memory required for data: 1544240
I0506 07:12:37.736095 20404 layer_factory.hpp:77] Creating layer relu2
I0506 07:12:37.736101 20404 net.cpp:94] Creating Layer relu2
I0506 07:12:37.736104 20404 net.cpp:435] relu2 <- conv2
I0506 07:12:37.736109 20404 net.cpp:396] relu2 -> conv2 (in-place)
I0506 07:12:37.736115 20404 net.cpp:144] Setting up relu2
I0506 07:12:37.736119 20404 net.cpp:151] Top shape: 20 64 10 10 (128000)
I0506 07:12:37.736122 20404 net.cpp:159] Memory required for data: 2056240
I0506 07:12:37.736125 20404 layer_factory.hpp:77] Creating layer pool2
I0506 07:12:37.736130 20404 net.cpp:94] Creating Layer pool2
I0506 07:12:37.736133 20404 net.cpp:435] pool2 <- conv2
I0506 07:12:37.736138 20404 net.cpp:409] pool2 -> pool2
I0506 07:12:37.736202 20404 net.cpp:144] Setting up pool2
I0506 07:12:37.736207 20404 net.cpp:151] Top shape: 20 64 5 5 (32000)
I0506 07:12:37.736210 20404 net.cpp:159] Memory required for data: 2184240
I0506 07:12:37.736213 20404 layer_factory.hpp:77] Creating layer conv3
I0506 07:12:37.736222 20404 net.cpp:94] Creating Layer conv3
I0506 07:12:37.736225 20404 net.cpp:435] conv3 <- pool2
I0506 07:12:37.736232 20404 net.cpp:409] conv3 -> conv3
I0506 07:12:37.742360 20404 net.cpp:144] Setting up conv3
I0506 07:12:37.742373 20404 net.cpp:151] Top shape: 20 128 5 5 (64000)
I0506 07:12:37.742377 20404 net.cpp:159] Memory required for data: 2440240
I0506 07:12:37.742384 20404 layer_factory.hpp:77] Creating layer relu3
I0506 07:12:37.742390 20404 net.cpp:94] Creating Layer relu3
I0506 07:12:37.742394 20404 net.cpp:435] relu3 <- conv3
I0506 07:12:37.742398 20404 net.cpp:396] relu3 -> conv3 (in-place)
I0506 07:12:37.742404 20404 net.cpp:144] Setting up relu3
I0506 07:12:37.742409 20404 net.cpp:151] Top shape: 20 128 5 5 (64000)
I0506 07:12:37.742411 20404 net.cpp:159] Memory required for data: 2696240
I0506 07:12:37.742414 20404 layer_factory.hpp:77] Creating layer conv4
I0506 07:12:37.742424 20404 net.cpp:94] Creating Layer conv4
I0506 07:12:37.742427 20404 net.cpp:435] conv4 <- conv3
I0506 07:12:37.742431 20404 net.cpp:409] conv4 -> conv4
I0506 07:12:37.755286 20404 net.cpp:144] Setting up conv4
I0506 07:12:37.755300 20404 net.cpp:151] Top shape: 20 128 5 5 (64000)
I0506 07:12:37.755303 20404 net.cpp:159] Memory required for data: 2952240
I0506 07:12:37.755311 20404 layer_factory.hpp:77] Creating layer relu4
I0506 07:12:37.755317 20404 net.cpp:94] Creating Layer relu4
I0506 07:12:37.755321 20404 net.cpp:435] relu4 <- conv4
I0506 07:12:37.755326 20404 net.cpp:396] relu4 -> conv4 (in-place)
I0506 07:12:37.755332 20404 net.cpp:144] Setting up relu4
I0506 07:12:37.755337 20404 net.cpp:151] Top shape: 20 128 5 5 (64000)
I0506 07:12:37.755339 20404 net.cpp:159] Memory required for data: 3208240
I0506 07:12:37.755342 20404 layer_factory.hpp:77] Creating layer conv5
I0506 07:12:37.755350 20404 net.cpp:94] Creating Layer conv5
I0506 07:12:37.755353 20404 net.cpp:435] conv5 <- conv4
I0506 07:12:37.755358 20404 net.cpp:409] conv5 -> conv5
I0506 07:12:37.767997 20404 net.cpp:144] Setting up conv5
I0506 07:12:37.768010 20404 net.cpp:151] Top shape: 20 128 5 5 (64000)
I0506 07:12:37.768014 20404 net.cpp:159] Memory required for data: 3464240
I0506 07:12:37.768023 20404 layer_factory.hpp:77] Creating layer relu5
I0506 07:12:37.768028 20404 net.cpp:94] Creating Layer relu5
I0506 07:12:37.768031 20404 net.cpp:435] relu5 <- conv5
I0506 07:12:37.768035 20404 net.cpp:396] relu5 -> conv5 (in-place)
I0506 07:12:37.768041 20404 net.cpp:144] Setting up relu5
I0506 07:12:37.768045 20404 net.cpp:151] Top shape: 20 128 5 5 (64000)
I0506 07:12:37.768054 20404 net.cpp:159] Memory required for data: 3720240
I0506 07:12:37.768057 20404 layer_factory.hpp:77] Creating layer pool5
I0506 07:12:37.768064 20404 net.cpp:94] Creating Layer pool5
I0506 07:12:37.768066 20404 net.cpp:435] pool5 <- conv5
I0506 07:12:37.768070 20404 net.cpp:409] pool5 -> pool5
I0506 07:12:37.768112 20404 net.cpp:144] Setting up pool5
I0506 07:12:37.768120 20404 net.cpp:151] Top shape: 20 128 2 2 (10240)
I0506 07:12:37.768122 20404 net.cpp:159] Memory required for data: 3761200
I0506 07:12:37.768126 20404 layer_factory.hpp:77] Creating layer ip1
I0506 07:12:37.768132 20404 net.cpp:94] Creating Layer ip1
I0506 07:12:37.768136 20404 net.cpp:435] ip1 <- pool5
I0506 07:12:37.768141 20404 net.cpp:409] ip1 -> ip1
I0506 07:12:37.781339 20404 net.cpp:144] Setting up ip1
I0506 07:12:37.781355 20404 net.cpp:151] Top shape: 20 1024 (20480)
I0506 07:12:37.781359 20404 net.cpp:159] Memory required for data: 3843120
I0506 07:12:37.781365 20404 layer_factory.hpp:77] Creating layer ip2
I0506 07:12:37.781373 20404 net.cpp:94] Creating Layer ip2
I0506 07:12:37.781378 20404 net.cpp:435] ip2 <- ip1
I0506 07:12:37.781384 20404 net.cpp:409] ip2 -> ip2
I0506 07:12:37.794541 20404 net.cpp:144] Setting up ip2
I0506 07:12:37.794554 20404 net.cpp:151] Top shape: 20 512 (10240)
I0506 07:12:37.794558 20404 net.cpp:159] Memory required for data: 3884080
I0506 07:12:37.794564 20404 layer_factory.hpp:77] Creating layer ip3
I0506 07:12:37.794572 20404 net.cpp:94] Creating Layer ip3
I0506 07:12:37.794576 20404 net.cpp:435] ip3 <- ip2
I0506 07:12:37.794581 20404 net.cpp:409] ip3 -> ip3
I0506 07:12:37.795325 20404 net.cpp:144] Setting up ip3
I0506 07:12:37.795332 20404 net.cpp:151] Top shape: 20 50 (1000)
I0506 07:12:37.795336 20404 net.cpp:159] Memory required for data: 3888080
I0506 07:12:37.795341 20404 layer_factory.hpp:77] Creating layer ip3_ip3_0_split
I0506 07:12:37.795347 20404 net.cpp:94] Creating Layer ip3_ip3_0_split
I0506 07:12:37.795351 20404 net.cpp:435] ip3_ip3_0_split <- ip3
I0506 07:12:37.795354 20404 net.cpp:409] ip3_ip3_0_split -> ip3_ip3_0_split_0
I0506 07:12:37.795359 20404 net.cpp:409] ip3_ip3_0_split -> ip3_ip3_0_split_1
I0506 07:12:37.795404 20404 net.cpp:144] Setting up ip3_ip3_0_split
I0506 07:12:37.795410 20404 net.cpp:151] Top shape: 20 50 (1000)
I0506 07:12:37.795413 20404 net.cpp:151] Top shape: 20 50 (1000)
I0506 07:12:37.795416 20404 net.cpp:159] Memory required for data: 3896080
I0506 07:12:37.795419 20404 layer_factory.hpp:77] Creating layer accuracy
I0506 07:12:37.795424 20404 net.cpp:94] Creating Layer accuracy
I0506 07:12:37.795428 20404 net.cpp:435] accuracy <- ip3_ip3_0_split_0
I0506 07:12:37.795431 20404 net.cpp:435] accuracy <- label_intercept_1_split_0
I0506 07:12:37.795435 20404 net.cpp:409] accuracy -> accuracy
…
