…
I0502 04:42:56.686262 18592 net.cpp:323] The NetState phase (0) differed from the phase (1) specified by a rule in layer intercept
I0502 04:42:56.686280 18592 net.cpp:323] The NetState phase (0) differed from the phase (1) specified by a rule in layer loss
I0502 04:42:56.686372 18592 net.cpp:52] Initializing net from parameters: 
state {
  phase: TRAIN
}
layer {
  name: "parameters"
  type: "HDF5Data"
  top: "data"
  top: "label"
  include {
    phase: TRAIN
  }
  hdf5_data_param {
    source: "/home/purduethu/scratch/radon/d/deng106/CNNStatisticalModel/distributions/input/20_distributions_400_sample_size_train-parameters-path.txt"
    batch_size: 20
  }
}
layer {
  name: "conv1"
  type: "Convolution"
  bottom: "data"
  top: "conv1"
  param {
    lr_mult: 1
  }
  param {
    lr_mult: 2
  }
  convolution_param {
    num_output: 64
    pad: 2
    kernel_size: 5
    stride: 1
    weight_filler {
      type: "gaussian"
      std: 0.0001
    }
    bias_filler {
      type: "constant"
    }
  }
}
layer {
  name: "relu1"
  type: "ReLU"
  bottom: "conv1"
  top: "conv1"
}
layer {
  name: "conv2"
  type: "Convolution"
  bottom: "conv1"
  top: "conv2"
  param {
    lr_mult: 1
  }
  param {
    lr_mult: 2
  }
  convolution_param {
    num_output: 64
    pad: 2
    kernel_size: 5
    stride: 1
    weight_filler {
      type: "gaussian"
      std: 0.01
    }
    bias_filler {
      type: "constant"
    }
  }
}
layer {
  name: "relu2"
  type: "ReLU"
  bottom: "conv2"
  top: "conv2"
}
layer {
  name: "pool2"
  type: "Pooling"
  bottom: "conv2"
  top: "pool2"
  pooling_param {
    pool: MAX
    kernel_size: 3
    stride: 2
  }
}
layer {
  name: "conv3"
  type: "Convolution"
  bottom: "pool2"
  top: "conv3"
  param {
    lr_mult: 1
  }
  param {
    lr_mult: 2
  }
  convolution_param {
    num_output: 64
    pad: 2
    kernel_size: 5
    stride: 1
    weight_filler {
      type: "gaussian"
      std: 0.01
    }
    bias_filler {
      type: "constant"
    }
  }
}
layer {
  name: "relu3"
  type: "ReLU"
  bottom: "conv3"
  top: "conv3"
}
layer {
  name: "conv4"
  type: "Convolution"
  bottom: "conv3"
  top: "conv4"
  param {
    lr_mult: 1
  }
  param {
    lr_mult: 2
  }
  convolution_param {
    num_output: 64
    pad: 2
    kernel_size: 5
    stride: 1
    weight_filler {
      type: "gaussian"
      std: 0.01
    }
    bias_filler {
      type: "constant"
    }
  }
}
layer {
  name: "relu4"
  type: "ReLU"
  bottom: "conv4"
  top: "conv4"
}
layer {
  name: "conv5"
  type: "Convolution"
  bottom: "conv4"
  top: "conv5"
  param {
    lr_mult: 1
  }
  param {
    lr_mult: 2
  }
  convolution_param {
    num_output: 64
    pad: 2
    kernel_size: 5
    stride: 1
    weight_filler {
      type: "gaussian"
      std: 0.01
    }
    bias_filler {
      type: "constant"
    }
  }
}
layer {
  name: "relu5"
  type: "ReLU"
  bottom: "conv5"
  top: "conv5"
}
layer {
  name: "pool5"
  type: "Pooling"
  bottom: "conv5"
  top: "pool5"
  pooling_param {
    pool: AVE
    kernel_size: 3
    stride: 2
  }
}
layer {
  name: "ip1"
  type: "InnerProduct"
  bottom: "pool5"
  top: "ip1"
  param {
    lr_mult: 1
  }
  param {
    lr_mult: 2
  }
  inner_product_param {
    num_output: 64
    weight_filler {
      type: "gaussian"
      std: 0.1
    }
    bias_filler {
      type: "constant"
    }
  }
}
layer {
  name: "ip2"
  type: "InnerProduct"
  bottom: "ip1"
  top: "ip2"
  param {
    lr_mult: 1
  }
  param {
    lr_mult: 2
  }
  inner_product_param {
    num_output: 64
    weight_filler {
      type: "gaussian"
      std: 0.1
    }
    bias_filler {
      type: "constant"
    }
  }
}
layer {
  name: "ip3"
  type: "InnerProduct"
  bottom: "ip2"
  top: "ip3"
  param {
    lr_mult: 1
  }
  param {
    lr_mult: 2
  }
  inner_product_param {
    num_output: 1
    weight_filler {
      type: "gaussian"
      std: 0.1
    }
    bias_filler {
      type: "constant"
    }
  }
}
layer {
  name: "loss"
  type: "HuberLoss"
  bottom: "ip3"
  bottom: "label"
  top: "loss"
  include {
    phase: TRAIN
  }
}
I0502 04:42:56.686451 18592 layer_factory.hpp:77] Creating layer parameters
I0502 04:42:56.686467 18592 net.cpp:94] Creating Layer parameters
I0502 04:42:56.686473 18592 net.cpp:409] parameters -> data
I0502 04:42:56.686492 18592 net.cpp:409] parameters -> label
I0502 04:42:56.686503 18592 hdf5_data_layer.cpp:79] Loading list of HDF5 filenames from: /home/purduethu/scratch/radon/d/deng106/CNNStatisticalModel/distributions/input/20_distributions_400_sample_size_train-parameters-path.txt
I0502 04:42:56.686525 18592 hdf5_data_layer.cpp:93] Number of HDF5 files: 1
I0502 04:42:56.687006 18592 hdf5.cpp:32] Datatype class: H5T_FLOAT
I0502 04:42:56.954584 18592 net.cpp:144] Setting up parameters
I0502 04:42:56.954618 18592 net.cpp:151] Top shape: 20 1 20 20 (8000)
I0502 04:42:56.954624 18592 net.cpp:151] Top shape: 20 (20)
I0502 04:42:56.954628 18592 net.cpp:159] Memory required for data: 32080
I0502 04:42:56.954635 18592 layer_factory.hpp:77] Creating layer conv1
I0502 04:42:56.954656 18592 net.cpp:94] Creating Layer conv1
I0502 04:42:56.954663 18592 net.cpp:435] conv1 <- data
I0502 04:42:56.954674 18592 net.cpp:409] conv1 -> conv1
I0502 04:42:56.960027 18592 net.cpp:144] Setting up conv1
I0502 04:42:56.960043 18592 net.cpp:151] Top shape: 20 64 20 20 (512000)
I0502 04:42:56.960048 18592 net.cpp:159] Memory required for data: 2080080
I0502 04:42:56.960062 18592 layer_factory.hpp:77] Creating layer relu1
I0502 04:42:56.960070 18592 net.cpp:94] Creating Layer relu1
I0502 04:42:56.960074 18592 net.cpp:435] relu1 <- conv1
I0502 04:42:56.960079 18592 net.cpp:396] relu1 -> conv1 (in-place)
I0502 04:42:56.960098 18592 net.cpp:144] Setting up relu1
I0502 04:42:56.960103 18592 net.cpp:151] Top shape: 20 64 20 20 (512000)
I0502 04:42:56.960106 18592 net.cpp:159] Memory required for data: 4128080
I0502 04:42:56.960109 18592 layer_factory.hpp:77] Creating layer conv2
I0502 04:42:56.960117 18592 net.cpp:94] Creating Layer conv2
I0502 04:42:56.960121 18592 net.cpp:435] conv2 <- conv1
I0502 04:42:56.960126 18592 net.cpp:409] conv2 -> conv2
I0502 04:42:56.970196 18592 net.cpp:144] Setting up conv2
I0502 04:42:56.970211 18592 net.cpp:151] Top shape: 20 64 20 20 (512000)
I0502 04:42:56.970216 18592 net.cpp:159] Memory required for data: 6176080
I0502 04:42:56.970223 18592 layer_factory.hpp:77] Creating layer relu2
I0502 04:42:56.970230 18592 net.cpp:94] Creating Layer relu2
I0502 04:42:56.970234 18592 net.cpp:435] relu2 <- conv2
I0502 04:42:56.970239 18592 net.cpp:396] relu2 -> conv2 (in-place)
I0502 04:42:56.970247 18592 net.cpp:144] Setting up relu2
I0502 04:42:56.970252 18592 net.cpp:151] Top shape: 20 64 20 20 (512000)
I0502 04:42:56.970254 18592 net.cpp:159] Memory required for data: 8224080
I0502 04:42:56.970257 18592 layer_factory.hpp:77] Creating layer pool2
I0502 04:42:56.970265 18592 net.cpp:94] Creating Layer pool2
I0502 04:42:56.970273 18592 net.cpp:435] pool2 <- conv2
I0502 04:42:56.970278 18592 net.cpp:409] pool2 -> pool2
I0502 04:42:56.970322 18592 net.cpp:144] Setting up pool2
I0502 04:42:56.970330 18592 net.cpp:151] Top shape: 20 64 10 10 (128000)
I0502 04:42:56.970333 18592 net.cpp:159] Memory required for data: 8736080
I0502 04:42:56.970337 18592 layer_factory.hpp:77] Creating layer conv3
I0502 04:42:56.970345 18592 net.cpp:94] Creating Layer conv3
I0502 04:42:56.970348 18592 net.cpp:435] conv3 <- pool2
I0502 04:42:56.970353 18592 net.cpp:409] conv3 -> conv3
I0502 04:42:56.975531 18592 net.cpp:144] Setting up conv3
I0502 04:42:56.975545 18592 net.cpp:151] Top shape: 20 64 10 10 (128000)
I0502 04:42:56.975549 18592 net.cpp:159] Memory required for data: 9248080
I0502 04:42:56.975558 18592 layer_factory.hpp:77] Creating layer relu3
I0502 04:42:56.975564 18592 net.cpp:94] Creating Layer relu3
I0502 04:42:56.975567 18592 net.cpp:435] relu3 <- conv3
I0502 04:42:56.975572 18592 net.cpp:396] relu3 -> conv3 (in-place)
I0502 04:42:56.975579 18592 net.cpp:144] Setting up relu3
I0502 04:42:56.975584 18592 net.cpp:151] Top shape: 20 64 10 10 (128000)
I0502 04:42:56.975587 18592 net.cpp:159] Memory required for data: 9760080
I0502 04:42:56.975590 18592 layer_factory.hpp:77] Creating layer conv4
I0502 04:42:56.975599 18592 net.cpp:94] Creating Layer conv4
I0502 04:42:56.975602 18592 net.cpp:435] conv4 <- conv3
I0502 04:42:56.975607 18592 net.cpp:409] conv4 -> conv4
I0502 04:42:56.980763 18592 net.cpp:144] Setting up conv4
I0502 04:42:56.980777 18592 net.cpp:151] Top shape: 20 64 10 10 (128000)
I0502 04:42:56.980780 18592 net.cpp:159] Memory required for data: 10272080
I0502 04:42:56.980787 18592 layer_factory.hpp:77] Creating layer relu4
I0502 04:42:56.980793 18592 net.cpp:94] Creating Layer relu4
I0502 04:42:56.980798 18592 net.cpp:435] relu4 <- conv4
I0502 04:42:56.980801 18592 net.cpp:396] relu4 -> conv4 (in-place)
I0502 04:42:56.980809 18592 net.cpp:144] Setting up relu4
I0502 04:42:56.980813 18592 net.cpp:151] Top shape: 20 64 10 10 (128000)
I0502 04:42:56.980818 18592 net.cpp:159] Memory required for data: 10784080
I0502 04:42:56.980820 18592 layer_factory.hpp:77] Creating layer conv5
I0502 04:42:56.980828 18592 net.cpp:94] Creating Layer conv5
I0502 04:42:56.980831 18592 net.cpp:435] conv5 <- conv4
I0502 04:42:56.980836 18592 net.cpp:409] conv5 -> conv5
I0502 04:42:56.986666 18592 net.cpp:144] Setting up conv5
I0502 04:42:56.986680 18592 net.cpp:151] Top shape: 20 64 10 10 (128000)
I0502 04:42:56.986685 18592 net.cpp:159] Memory required for data: 11296080
I0502 04:42:56.986693 18592 layer_factory.hpp:77] Creating layer relu5
I0502 04:42:56.986699 18592 net.cpp:94] Creating Layer relu5
I0502 04:42:56.986703 18592 net.cpp:435] relu5 <- conv5
I0502 04:42:56.986708 18592 net.cpp:396] relu5 -> conv5 (in-place)
I0502 04:42:56.986716 18592 net.cpp:144] Setting up relu5
I0502 04:42:56.986721 18592 net.cpp:151] Top shape: 20 64 10 10 (128000)
I0502 04:42:56.986723 18592 net.cpp:159] Memory required for data: 11808080
I0502 04:42:56.986726 18592 layer_factory.hpp:77] Creating layer pool5
I0502 04:42:56.986732 18592 net.cpp:94] Creating Layer pool5
I0502 04:42:56.986734 18592 net.cpp:435] pool5 <- conv5
I0502 04:42:56.986738 18592 net.cpp:409] pool5 -> pool5
I0502 04:42:56.986773 18592 net.cpp:144] Setting up pool5
I0502 04:42:56.986780 18592 net.cpp:151] Top shape: 20 64 5 5 (32000)
I0502 04:42:56.986784 18592 net.cpp:159] Memory required for data: 11936080
I0502 04:42:56.986788 18592 layer_factory.hpp:77] Creating layer ip1
I0502 04:42:56.986794 18592 net.cpp:94] Creating Layer ip1
I0502 04:42:56.986798 18592 net.cpp:435] ip1 <- pool5
I0502 04:42:56.986802 18592 net.cpp:409] ip1 -> ip1
I0502 04:42:56.989372 18592 net.cpp:144] Setting up ip1
I0502 04:42:56.989382 18592 net.cpp:151] Top shape: 20 64 (1280)
I0502 04:42:56.989385 18592 net.cpp:159] Memory required for data: 11941200
I0502 04:42:56.989390 18592 layer_factory.hpp:77] Creating layer ip2
I0502 04:42:56.989398 18592 net.cpp:94] Creating Layer ip2
I0502 04:42:56.989405 18592 net.cpp:435] ip2 <- ip1
I0502 04:42:56.989411 18592 net.cpp:409] ip2 -> ip2
I0502 04:42:56.989578 18592 net.cpp:144] Setting up ip2
I0502 04:42:56.989585 18592 net.cpp:151] Top shape: 20 64 (1280)
I0502 04:42:56.989588 18592 net.cpp:159] Memory required for data: 11946320
I0502 04:42:56.989594 18592 layer_factory.hpp:77] Creating layer ip3
I0502 04:42:56.989600 18592 net.cpp:94] Creating Layer ip3
I0502 04:42:56.989603 18592 net.cpp:435] ip3 <- ip2
I0502 04:42:56.989609 18592 net.cpp:409] ip3 -> ip3
I0502 04:42:56.989671 18592 net.cpp:144] Setting up ip3
I0502 04:42:56.989683 18592 net.cpp:151] Top shape: 20 1 (20)
I0502 04:42:56.989686 18592 net.cpp:159] Memory required for data: 11946400
I0502 04:42:56.989691 18592 layer_factory.hpp:77] Creating layer loss
I0502 04:42:56.989702 18592 net.cpp:94] Creating Layer loss
I0502 04:42:56.989706 18592 net.cpp:435] loss <- ip3
I0502 04:42:56.989711 18592 net.cpp:435] loss <- label
I0502 04:42:56.989715 18592 net.cpp:409] loss -> loss
I0502 04:42:56.989750 18592 net.cpp:144] Setting up loss
…
