…
I0504 05:45:45.965528 24314 net.cpp:323] The NetState phase (0) differed from the phase (1) specified by a rule in layer intercept
I0504 05:45:45.965545 24314 net.cpp:323] The NetState phase (0) differed from the phase (1) specified by a rule in layer loss
I0504 05:45:45.965634 24314 net.cpp:52] Initializing net from parameters: 
state {
  phase: TRAIN
}
layer {
  name: "parameters"
  type: "HDF5Data"
  top: "data"
  top: "label"
  include {
    phase: TRAIN
  }
  hdf5_data_param {
    source: "/home/purduethu/scratch/radon/d/deng106/CNNStatisticalModel/distributions/input/5_distributions_400_sample_size_train-parameters-path.txt"
    batch_size: 20
  }
}
layer {
  name: "conv1"
  type: "Convolution"
  bottom: "data"
  top: "conv1"
  param {
    lr_mult: 1
  }
  param {
    lr_mult: 2
  }
  convolution_param {
    num_output: 64
    pad: 2
    kernel_size: 5
    stride: 1
    weight_filler {
      type: "gaussian"
      std: 0.0001
    }
    bias_filler {
      type: "constant"
    }
  }
}
layer {
  name: "relu1"
  type: "ReLU"
  bottom: "conv1"
  top: "conv1"
}
layer {
  name: "conv2"
  type: "Convolution"
  bottom: "conv1"
  top: "conv2"
  param {
    lr_mult: 1
  }
  param {
    lr_mult: 2
  }
  convolution_param {
    num_output: 64
    pad: 2
    kernel_size: 5
    stride: 1
    weight_filler {
      type: "gaussian"
      std: 0.01
    }
    bias_filler {
      type: "constant"
    }
  }
}
layer {
  name: "relu2"
  type: "ReLU"
  bottom: "conv2"
  top: "conv2"
}
layer {
  name: "pool2"
  type: "Pooling"
  bottom: "conv2"
  top: "pool2"
  pooling_param {
    pool: MAX
    kernel_size: 3
    stride: 2
  }
}
layer {
  name: "conv3"
  type: "Convolution"
  bottom: "pool2"
  top: "conv3"
  param {
    lr_mult: 1
  }
  param {
    lr_mult: 2
  }
  convolution_param {
    num_output: 128
    pad: 2
    kernel_size: 5
    stride: 1
    weight_filler {
      type: "gaussian"
      std: 0.01
    }
    bias_filler {
      type: "constant"
    }
  }
}
layer {
  name: "relu3"
  type: "ReLU"
  bottom: "conv3"
  top: "conv3"
}
layer {
  name: "conv4"
  type: "Convolution"
  bottom: "conv3"
  top: "conv4"
  param {
    lr_mult: 1
  }
  param {
    lr_mult: 2
  }
  convolution_param {
    num_output: 128
    pad: 2
    kernel_size: 5
    stride: 1
    weight_filler {
      type: "gaussian"
      std: 0.01
    }
    bias_filler {
      type: "constant"
    }
  }
}
layer {
  name: "relu4"
  type: "ReLU"
  bottom: "conv4"
  top: "conv4"
}
layer {
  name: "conv5"
  type: "Convolution"
  bottom: "conv4"
  top: "conv5"
  param {
    lr_mult: 1
  }
  param {
    lr_mult: 2
  }
  convolution_param {
    num_output: 128
    pad: 2
    kernel_size: 5
    stride: 1
    weight_filler {
      type: "gaussian"
      std: 0.01
    }
    bias_filler {
      type: "constant"
    }
  }
}
layer {
  name: "relu5"
  type: "ReLU"
  bottom: "conv5"
  top: "conv5"
}
layer {
  name: "pool5"
  type: "Pooling"
  bottom: "conv5"
  top: "pool5"
  pooling_param {
    pool: AVE
    kernel_size: 3
    stride: 2
  }
}
layer {
  name: "ip1"
  type: "InnerProduct"
  bottom: "pool5"
  top: "ip1"
  param {
    lr_mult: 1
  }
  param {
    lr_mult: 2
  }
  inner_product_param {
    num_output: 1024
    weight_filler {
      type: "gaussian"
      std: 0.1
    }
    bias_filler {
      type: "constant"
    }
  }
}
layer {
  name: "ip2"
  type: "InnerProduct"
  bottom: "ip1"
  top: "ip2"
  param {
    lr_mult: 1
  }
  param {
    lr_mult: 2
  }
  inner_product_param {
    num_output: 512
    weight_filler {
      type: "gaussian"
      std: 0.1
    }
    bias_filler {
      type: "constant"
    }
  }
}
layer {
  name: "ip3"
  type: "InnerProduct"
  bottom: "ip2"
  top: "ip3"
  param {
    lr_mult: 1
  }
  param {
    lr_mult: 2
  }
  inner_product_param {
    num_output: 1
    weight_filler {
      type: "gaussian"
      std: 0.1
    }
    bias_filler {
      type: "constant"
    }
  }
}
layer {
  name: "loss"
  type: "HuberLoss"
  bottom: "ip3"
  bottom: "label"
  top: "loss"
  include {
    phase: TRAIN
  }
}
I0504 05:45:45.965709 24314 layer_factory.hpp:77] Creating layer parameters
I0504 05:45:45.965724 24314 net.cpp:94] Creating Layer parameters
I0504 05:45:45.965730 24314 net.cpp:409] parameters -> data
I0504 05:45:45.965749 24314 net.cpp:409] parameters -> label
I0504 05:45:45.965759 24314 hdf5_data_layer.cpp:79] Loading list of HDF5 filenames from: /home/purduethu/scratch/radon/d/deng106/CNNStatisticalModel/distributions/input/5_distributions_400_sample_size_train-parameters-path.txt
I0504 05:45:45.965782 24314 hdf5_data_layer.cpp:93] Number of HDF5 files: 1
I0504 05:45:45.966369 24314 hdf5.cpp:32] Datatype class: H5T_FLOAT
I0504 05:45:46.029327 24314 net.cpp:144] Setting up parameters
I0504 05:45:46.029359 24314 net.cpp:151] Top shape: 20 1 20 20 (8000)
I0504 05:45:46.029366 24314 net.cpp:151] Top shape: 20 (20)
I0504 05:45:46.029368 24314 net.cpp:159] Memory required for data: 32080
I0504 05:45:46.029376 24314 layer_factory.hpp:77] Creating layer conv1
I0504 05:45:46.029394 24314 net.cpp:94] Creating Layer conv1
I0504 05:45:46.029400 24314 net.cpp:435] conv1 <- data
I0504 05:45:46.029412 24314 net.cpp:409] conv1 -> conv1
I0504 05:45:46.034226 24314 net.cpp:144] Setting up conv1
I0504 05:45:46.034243 24314 net.cpp:151] Top shape: 20 64 20 20 (512000)
I0504 05:45:46.034247 24314 net.cpp:159] Memory required for data: 2080080
I0504 05:45:46.034260 24314 layer_factory.hpp:77] Creating layer relu1
I0504 05:45:46.034267 24314 net.cpp:94] Creating Layer relu1
I0504 05:45:46.034271 24314 net.cpp:435] relu1 <- conv1
I0504 05:45:46.034276 24314 net.cpp:396] relu1 -> conv1 (in-place)
I0504 05:45:46.034292 24314 net.cpp:144] Setting up relu1
I0504 05:45:46.034297 24314 net.cpp:151] Top shape: 20 64 20 20 (512000)
I0504 05:45:46.034301 24314 net.cpp:159] Memory required for data: 4128080
I0504 05:45:46.034304 24314 layer_factory.hpp:77] Creating layer conv2
I0504 05:45:46.034312 24314 net.cpp:94] Creating Layer conv2
I0504 05:45:46.034317 24314 net.cpp:435] conv2 <- conv1
I0504 05:45:46.034322 24314 net.cpp:409] conv2 -> conv2
I0504 05:45:46.045131 24314 net.cpp:144] Setting up conv2
I0504 05:45:46.045147 24314 net.cpp:151] Top shape: 20 64 20 20 (512000)
I0504 05:45:46.045151 24314 net.cpp:159] Memory required for data: 6176080
I0504 05:45:46.045159 24314 layer_factory.hpp:77] Creating layer relu2
I0504 05:45:46.045167 24314 net.cpp:94] Creating Layer relu2
I0504 05:45:46.045171 24314 net.cpp:435] relu2 <- conv2
I0504 05:45:46.045176 24314 net.cpp:396] relu2 -> conv2 (in-place)
I0504 05:45:46.045183 24314 net.cpp:144] Setting up relu2
I0504 05:45:46.045188 24314 net.cpp:151] Top shape: 20 64 20 20 (512000)
I0504 05:45:46.045192 24314 net.cpp:159] Memory required for data: 8224080
I0504 05:45:46.045194 24314 layer_factory.hpp:77] Creating layer pool2
I0504 05:45:46.045202 24314 net.cpp:94] Creating Layer pool2
I0504 05:45:46.045212 24314 net.cpp:435] pool2 <- conv2
I0504 05:45:46.045217 24314 net.cpp:409] pool2 -> pool2
I0504 05:45:46.045260 24314 net.cpp:144] Setting up pool2
I0504 05:45:46.045269 24314 net.cpp:151] Top shape: 20 64 10 10 (128000)
I0504 05:45:46.045271 24314 net.cpp:159] Memory required for data: 8736080
I0504 05:45:46.045275 24314 layer_factory.hpp:77] Creating layer conv3
I0504 05:45:46.045284 24314 net.cpp:94] Creating Layer conv3
I0504 05:45:46.045286 24314 net.cpp:435] conv3 <- pool2
I0504 05:45:46.045291 24314 net.cpp:409] conv3 -> conv3
I0504 05:45:46.054668 24314 net.cpp:144] Setting up conv3
I0504 05:45:46.054693 24314 net.cpp:151] Top shape: 20 128 10 10 (256000)
I0504 05:45:46.054702 24314 net.cpp:159] Memory required for data: 9760080
I0504 05:45:46.054716 24314 layer_factory.hpp:77] Creating layer relu3
I0504 05:45:46.054726 24314 net.cpp:94] Creating Layer relu3
I0504 05:45:46.054733 24314 net.cpp:435] relu3 <- conv3
I0504 05:45:46.054743 24314 net.cpp:396] relu3 -> conv3 (in-place)
I0504 05:45:46.054755 24314 net.cpp:144] Setting up relu3
I0504 05:45:46.054764 24314 net.cpp:151] Top shape: 20 128 10 10 (256000)
I0504 05:45:46.054770 24314 net.cpp:159] Memory required for data: 10784080
I0504 05:45:46.054776 24314 layer_factory.hpp:77] Creating layer conv4
I0504 05:45:46.054790 24314 net.cpp:94] Creating Layer conv4
I0504 05:45:46.054797 24314 net.cpp:435] conv4 <- conv3
I0504 05:45:46.054806 24314 net.cpp:409] conv4 -> conv4
I0504 05:45:46.072881 24314 net.cpp:144] Setting up conv4
I0504 05:45:46.072907 24314 net.cpp:151] Top shape: 20 128 10 10 (256000)
I0504 05:45:46.072916 24314 net.cpp:159] Memory required for data: 11808080
I0504 05:45:46.072937 24314 layer_factory.hpp:77] Creating layer relu4
I0504 05:45:46.072943 24314 net.cpp:94] Creating Layer relu4
I0504 05:45:46.072947 24314 net.cpp:435] relu4 <- conv4
I0504 05:45:46.072952 24314 net.cpp:396] relu4 -> conv4 (in-place)
I0504 05:45:46.072959 24314 net.cpp:144] Setting up relu4
I0504 05:45:46.072964 24314 net.cpp:151] Top shape: 20 128 10 10 (256000)
I0504 05:45:46.072968 24314 net.cpp:159] Memory required for data: 12832080
I0504 05:45:46.072970 24314 layer_factory.hpp:77] Creating layer conv5
I0504 05:45:46.072978 24314 net.cpp:94] Creating Layer conv5
I0504 05:45:46.072983 24314 net.cpp:435] conv5 <- conv4
I0504 05:45:46.072988 24314 net.cpp:409] conv5 -> conv5
I0504 05:45:46.090479 24314 net.cpp:144] Setting up conv5
I0504 05:45:46.090494 24314 net.cpp:151] Top shape: 20 128 10 10 (256000)
I0504 05:45:46.090499 24314 net.cpp:159] Memory required for data: 13856080
I0504 05:45:46.090508 24314 layer_factory.hpp:77] Creating layer relu5
I0504 05:45:46.090514 24314 net.cpp:94] Creating Layer relu5
I0504 05:45:46.090518 24314 net.cpp:435] relu5 <- conv5
I0504 05:45:46.090523 24314 net.cpp:396] relu5 -> conv5 (in-place)
I0504 05:45:46.090530 24314 net.cpp:144] Setting up relu5
I0504 05:45:46.090535 24314 net.cpp:151] Top shape: 20 128 10 10 (256000)
I0504 05:45:46.090538 24314 net.cpp:159] Memory required for data: 14880080
I0504 05:45:46.090541 24314 layer_factory.hpp:77] Creating layer pool5
I0504 05:45:46.090546 24314 net.cpp:94] Creating Layer pool5
I0504 05:45:46.090550 24314 net.cpp:435] pool5 <- conv5
I0504 05:45:46.090554 24314 net.cpp:409] pool5 -> pool5
I0504 05:45:46.090590 24314 net.cpp:144] Setting up pool5
I0504 05:45:46.090597 24314 net.cpp:151] Top shape: 20 128 5 5 (64000)
I0504 05:45:46.090601 24314 net.cpp:159] Memory required for data: 15136080
I0504 05:45:46.090605 24314 layer_factory.hpp:77] Creating layer ip1
I0504 05:45:46.090613 24314 net.cpp:94] Creating Layer ip1
I0504 05:45:46.090617 24314 net.cpp:435] ip1 <- pool5
I0504 05:45:46.090622 24314 net.cpp:409] ip1 -> ip1
I0504 05:45:46.173503 24314 net.cpp:144] Setting up ip1
I0504 05:45:46.173534 24314 net.cpp:151] Top shape: 20 1024 (20480)
I0504 05:45:46.173539 24314 net.cpp:159] Memory required for data: 15218000
I0504 05:45:46.173547 24314 layer_factory.hpp:77] Creating layer ip2
I0504 05:45:46.173557 24314 net.cpp:94] Creating Layer ip2
I0504 05:45:46.173560 24314 net.cpp:435] ip2 <- ip1
I0504 05:45:46.173574 24314 net.cpp:409] ip2 -> ip2
I0504 05:45:46.187124 24314 net.cpp:144] Setting up ip2
I0504 05:45:46.187139 24314 net.cpp:151] Top shape: 20 512 (10240)
I0504 05:45:46.187144 24314 net.cpp:159] Memory required for data: 15258960
I0504 05:45:46.187150 24314 layer_factory.hpp:77] Creating layer ip3
I0504 05:45:46.187157 24314 net.cpp:94] Creating Layer ip3
I0504 05:45:46.187161 24314 net.cpp:435] ip3 <- ip2
I0504 05:45:46.187167 24314 net.cpp:409] ip3 -> ip3
I0504 05:45:46.187245 24314 net.cpp:144] Setting up ip3
I0504 05:45:46.187261 24314 net.cpp:151] Top shape: 20 1 (20)
I0504 05:45:46.187265 24314 net.cpp:159] Memory required for data: 15259040
I0504 05:45:46.187270 24314 layer_factory.hpp:77] Creating layer loss
I0504 05:45:46.187285 24314 net.cpp:94] Creating Layer loss
I0504 05:45:46.187289 24314 net.cpp:435] loss <- ip3
I0504 05:45:46.187294 24314 net.cpp:435] loss <- label
I0504 05:45:46.187300 24314 net.cpp:409] loss -> loss
I0504 05:45:46.187337 24314 net.cpp:144] Setting up loss
…
