…
I0503 17:03:46.938664 21470 net.cpp:323] The NetState phase (0) differed from the phase (1) specified by a rule in layer intercept
I0503 17:03:46.938681 21470 net.cpp:323] The NetState phase (0) differed from the phase (1) specified by a rule in layer accuracy
I0503 17:03:46.938778 21470 net.cpp:52] Initializing net from parameters: 
state {
  phase: TRAIN
}
layer {
  name: "parameters"
  type: "HDF5Data"
  top: "data"
  top: "label"
  include {
    phase: TRAIN
  }
  hdf5_data_param {
    source: "/home/purduethu/scratch/radon/d/deng106/CNNStatisticalModel/distributions/input/5_distributions_100_sample_size_train-distributions-path.txt"
    batch_size: 20
  }
}
layer {
  name: "conv1"
  type: "Convolution"
  bottom: "data"
  top: "conv1"
  param {
    lr_mult: 1
  }
  param {
    lr_mult: 2
  }
  convolution_param {
    num_output: 64
    pad: 2
    kernel_size: 5
    stride: 1
    weight_filler {
      type: "gaussian"
      std: 0.0001
    }
    bias_filler {
      type: "constant"
    }
  }
}
layer {
  name: "relu1"
  type: "ReLU"
  bottom: "conv1"
  top: "conv1"
}
layer {
  name: "conv2"
  type: "Convolution"
  bottom: "conv1"
  top: "conv2"
  param {
    lr_mult: 1
  }
  param {
    lr_mult: 2
  }
  convolution_param {
    num_output: 64
    pad: 2
    kernel_size: 5
    stride: 1
    weight_filler {
      type: "gaussian"
      std: 0.01
    }
    bias_filler {
      type: "constant"
    }
  }
}
layer {
  name: "relu2"
  type: "ReLU"
  bottom: "conv2"
  top: "conv2"
}
layer {
  name: "pool2"
  type: "Pooling"
  bottom: "conv2"
  top: "pool2"
  pooling_param {
    pool: MAX
    kernel_size: 3
    stride: 2
  }
}
layer {
  name: "conv3"
  type: "Convolution"
  bottom: "pool2"
  top: "conv3"
  param {
    lr_mult: 1
  }
  param {
    lr_mult: 2
  }
  convolution_param {
    num_output: 128
    pad: 2
    kernel_size: 5
    stride: 1
    weight_filler {
      type: "gaussian"
      std: 0.01
    }
    bias_filler {
      type: "constant"
    }
  }
}
layer {
  name: "relu3"
  type: "ReLU"
  bottom: "conv3"
  top: "conv3"
}
layer {
  name: "conv4"
  type: "Convolution"
  bottom: "conv3"
  top: "conv4"
  param {
    lr_mult: 1
  }
  param {
    lr_mult: 2
  }
  convolution_param {
    num_output: 128
    pad: 2
    kernel_size: 5
    stride: 1
    weight_filler {
      type: "gaussian"
      std: 0.01
    }
    bias_filler {
      type: "constant"
    }
  }
}
layer {
  name: "relu4"
  type: "ReLU"
  bottom: "conv4"
  top: "conv4"
}
layer {
  name: "conv5"
  type: "Convolution"
  bottom: "conv4"
  top: "conv5"
  param {
    lr_mult: 1
  }
  param {
    lr_mult: 2
  }
  convolution_param {
    num_output: 128
    pad: 2
    kernel_size: 5
    stride: 1
    weight_filler {
      type: "gaussian"
      std: 0.01
    }
    bias_filler {
      type: "constant"
    }
  }
}
layer {
  name: "relu5"
  type: "ReLU"
  bottom: "conv5"
  top: "conv5"
}
layer {
  name: "pool5"
  type: "Pooling"
  bottom: "conv5"
  top: "pool5"
  pooling_param {
    pool: AVE
    kernel_size: 3
    stride: 2
  }
}
layer {
  name: "ip1"
  type: "InnerProduct"
  bottom: "pool5"
  top: "ip1"
  param {
    lr_mult: 1
  }
  param {
    lr_mult: 2
  }
  inner_product_param {
    num_output: 1024
    weight_filler {
      type: "gaussian"
      std: 0.1
    }
    bias_filler {
      type: "constant"
    }
  }
}
layer {
  name: "ip2"
  type: "InnerProduct"
  bottom: "ip1"
  top: "ip2"
  param {
    lr_mult: 1
  }
  param {
    lr_mult: 2
  }
  inner_product_param {
    num_output: 512
    weight_filler {
      type: "gaussian"
      std: 0.1
    }
    bias_filler {
      type: "constant"
    }
  }
}
layer {
  name: "ip3"
  type: "InnerProduct"
  bottom: "ip2"
  top: "ip3"
  param {
    lr_mult: 1
  }
  param {
    lr_mult: 2
  }
  inner_product_param {
    num_output: 50
    weight_filler {
      type: "gaussian"
      std: 0.1
    }
    bias_filler {
      type: "constant"
    }
  }
}
layer {
  name: "loss"
  type: "SoftmaxWithLoss"
  bottom: "ip3"
  bottom: "label"
  top: "loss"
}
I0503 17:03:46.938855 21470 layer_factory.hpp:77] Creating layer parameters
I0503 17:03:46.938870 21470 net.cpp:94] Creating Layer parameters
I0503 17:03:46.938876 21470 net.cpp:409] parameters -> data
I0503 17:03:46.938895 21470 net.cpp:409] parameters -> label
I0503 17:03:46.938906 21470 hdf5_data_layer.cpp:79] Loading list of HDF5 filenames from: /home/purduethu/scratch/radon/d/deng106/CNNStatisticalModel/distributions/input/5_distributions_100_sample_size_train-distributions-path.txt
I0503 17:03:46.938930 21470 hdf5_data_layer.cpp:93] Number of HDF5 files: 1
I0503 17:03:46.939497 21470 hdf5.cpp:32] Datatype class: H5T_FLOAT
I0503 17:03:46.955869 21470 hdf5.cpp:35] Datatype class: H5T_INTEGER
I0503 17:03:46.957026 21470 net.cpp:144] Setting up parameters
I0503 17:03:46.957046 21470 net.cpp:151] Top shape: 20 1 10 10 (2000)
I0503 17:03:46.957052 21470 net.cpp:151] Top shape: 20 (20)
I0503 17:03:46.957056 21470 net.cpp:159] Memory required for data: 8080
I0503 17:03:46.957064 21470 layer_factory.hpp:77] Creating layer conv1
I0503 17:03:46.957083 21470 net.cpp:94] Creating Layer conv1
I0503 17:03:46.957089 21470 net.cpp:435] conv1 <- data
I0503 17:03:46.957100 21470 net.cpp:409] conv1 -> conv1
I0503 17:03:46.960958 21470 net.cpp:144] Setting up conv1
I0503 17:03:46.960973 21470 net.cpp:151] Top shape: 20 64 10 10 (128000)
I0503 17:03:46.960978 21470 net.cpp:159] Memory required for data: 520080
I0503 17:03:46.960990 21470 layer_factory.hpp:77] Creating layer relu1
I0503 17:03:46.960999 21470 net.cpp:94] Creating Layer relu1
I0503 17:03:46.961002 21470 net.cpp:435] relu1 <- conv1
I0503 17:03:46.961007 21470 net.cpp:396] relu1 -> conv1 (in-place)
I0503 17:03:46.961024 21470 net.cpp:144] Setting up relu1
I0503 17:03:46.961030 21470 net.cpp:151] Top shape: 20 64 10 10 (128000)
I0503 17:03:46.961033 21470 net.cpp:159] Memory required for data: 1032080
I0503 17:03:46.961036 21470 layer_factory.hpp:77] Creating layer conv2
I0503 17:03:46.961045 21470 net.cpp:94] Creating Layer conv2
I0503 17:03:46.961050 21470 net.cpp:435] conv2 <- conv1
I0503 17:03:46.961055 21470 net.cpp:409] conv2 -> conv2
I0503 17:03:46.966884 21470 net.cpp:144] Setting up conv2
I0503 17:03:46.966899 21470 net.cpp:151] Top shape: 20 64 10 10 (128000)
I0503 17:03:46.966904 21470 net.cpp:159] Memory required for data: 1544080
I0503 17:03:46.966912 21470 layer_factory.hpp:77] Creating layer relu2
I0503 17:03:46.966919 21470 net.cpp:94] Creating Layer relu2
I0503 17:03:46.966923 21470 net.cpp:435] relu2 <- conv2
I0503 17:03:46.966929 21470 net.cpp:396] relu2 -> conv2 (in-place)
I0503 17:03:46.966936 21470 net.cpp:144] Setting up relu2
I0503 17:03:46.966943 21470 net.cpp:151] Top shape: 20 64 10 10 (128000)
I0503 17:03:46.966945 21470 net.cpp:159] Memory required for data: 2056080
I0503 17:03:46.966948 21470 layer_factory.hpp:77] Creating layer pool2
I0503 17:03:46.966964 21470 net.cpp:94] Creating Layer pool2
I0503 17:03:46.966967 21470 net.cpp:435] pool2 <- conv2
I0503 17:03:46.966972 21470 net.cpp:409] pool2 -> pool2
I0503 17:03:46.967018 21470 net.cpp:144] Setting up pool2
I0503 17:03:46.967026 21470 net.cpp:151] Top shape: 20 64 5 5 (32000)
I0503 17:03:46.967031 21470 net.cpp:159] Memory required for data: 2184080
I0503 17:03:46.967033 21470 layer_factory.hpp:77] Creating layer conv3
I0503 17:03:46.967042 21470 net.cpp:94] Creating Layer conv3
I0503 17:03:46.967046 21470 net.cpp:435] conv3 <- pool2
I0503 17:03:46.967059 21470 net.cpp:409] conv3 -> conv3
I0503 17:03:46.975250 21470 net.cpp:144] Setting up conv3
I0503 17:03:46.975265 21470 net.cpp:151] Top shape: 20 128 5 5 (64000)
I0503 17:03:46.975270 21470 net.cpp:159] Memory required for data: 2440080
I0503 17:03:46.975278 21470 layer_factory.hpp:77] Creating layer relu3
I0503 17:03:46.975284 21470 net.cpp:94] Creating Layer relu3
I0503 17:03:46.975288 21470 net.cpp:435] relu3 <- conv3
I0503 17:03:46.975294 21470 net.cpp:396] relu3 -> conv3 (in-place)
I0503 17:03:46.975301 21470 net.cpp:144] Setting up relu3
I0503 17:03:46.975307 21470 net.cpp:151] Top shape: 20 128 5 5 (64000)
I0503 17:03:46.975311 21470 net.cpp:159] Memory required for data: 2696080
I0503 17:03:46.975314 21470 layer_factory.hpp:77] Creating layer conv4
I0503 17:03:46.975323 21470 net.cpp:94] Creating Layer conv4
I0503 17:03:46.975327 21470 net.cpp:435] conv4 <- conv3
I0503 17:03:46.975332 21470 net.cpp:409] conv4 -> conv4
I0503 17:03:46.990445 21470 net.cpp:144] Setting up conv4
I0503 17:03:46.990460 21470 net.cpp:151] Top shape: 20 128 5 5 (64000)
I0503 17:03:46.990464 21470 net.cpp:159] Memory required for data: 2952080
I0503 17:03:46.990471 21470 layer_factory.hpp:77] Creating layer relu4
I0503 17:03:46.990478 21470 net.cpp:94] Creating Layer relu4
I0503 17:03:46.990481 21470 net.cpp:435] relu4 <- conv4
I0503 17:03:46.990486 21470 net.cpp:396] relu4 -> conv4 (in-place)
I0503 17:03:46.990494 21470 net.cpp:144] Setting up relu4
I0503 17:03:46.990499 21470 net.cpp:151] Top shape: 20 128 5 5 (64000)
I0503 17:03:46.990504 21470 net.cpp:159] Memory required for data: 3208080
I0503 17:03:46.990506 21470 layer_factory.hpp:77] Creating layer conv5
I0503 17:03:46.990514 21470 net.cpp:94] Creating Layer conv5
I0503 17:03:46.990519 21470 net.cpp:435] conv5 <- conv4
I0503 17:03:46.990523 21470 net.cpp:409] conv5 -> conv5
I0503 17:03:47.005261 21470 net.cpp:144] Setting up conv5
I0503 17:03:47.005276 21470 net.cpp:151] Top shape: 20 128 5 5 (64000)
I0503 17:03:47.005281 21470 net.cpp:159] Memory required for data: 3464080
I0503 17:03:47.005290 21470 layer_factory.hpp:77] Creating layer relu5
I0503 17:03:47.005296 21470 net.cpp:94] Creating Layer relu5
I0503 17:03:47.005300 21470 net.cpp:435] relu5 <- conv5
I0503 17:03:47.005306 21470 net.cpp:396] relu5 -> conv5 (in-place)
I0503 17:03:47.005313 21470 net.cpp:144] Setting up relu5
I0503 17:03:47.005318 21470 net.cpp:151] Top shape: 20 128 5 5 (64000)
I0503 17:03:47.005322 21470 net.cpp:159] Memory required for data: 3720080
I0503 17:03:47.005326 21470 layer_factory.hpp:77] Creating layer pool5
I0503 17:03:47.005331 21470 net.cpp:94] Creating Layer pool5
I0503 17:03:47.005336 21470 net.cpp:435] pool5 <- conv5
I0503 17:03:47.005340 21470 net.cpp:409] pool5 -> pool5
I0503 17:03:47.005375 21470 net.cpp:144] Setting up pool5
I0503 17:03:47.005383 21470 net.cpp:151] Top shape: 20 128 2 2 (10240)
I0503 17:03:47.005388 21470 net.cpp:159] Memory required for data: 3761040
I0503 17:03:47.005390 21470 layer_factory.hpp:77] Creating layer ip1
I0503 17:03:47.005400 21470 net.cpp:94] Creating Layer ip1
I0503 17:03:47.005404 21470 net.cpp:435] ip1 <- pool5
I0503 17:03:47.005409 21470 net.cpp:409] ip1 -> ip1
I0503 17:03:47.019508 21470 net.cpp:144] Setting up ip1
I0503 17:03:47.019523 21470 net.cpp:151] Top shape: 20 1024 (20480)
I0503 17:03:47.019527 21470 net.cpp:159] Memory required for data: 3842960
I0503 17:03:47.019534 21470 layer_factory.hpp:77] Creating layer ip2
I0503 17:03:47.019541 21470 net.cpp:94] Creating Layer ip2
I0503 17:03:47.019551 21470 net.cpp:435] ip2 <- ip1
I0503 17:03:47.019556 21470 net.cpp:409] ip2 -> ip2
I0503 17:03:47.032984 21470 net.cpp:144] Setting up ip2
I0503 17:03:47.032997 21470 net.cpp:151] Top shape: 20 512 (10240)
I0503 17:03:47.033001 21470 net.cpp:159] Memory required for data: 3883920
I0503 17:03:47.033007 21470 layer_factory.hpp:77] Creating layer ip3
I0503 17:03:47.033015 21470 net.cpp:94] Creating Layer ip3
I0503 17:03:47.033020 21470 net.cpp:435] ip3 <- ip2
I0503 17:03:47.033025 21470 net.cpp:409] ip3 -> ip3
I0503 17:03:47.033740 21470 net.cpp:144] Setting up ip3
I0503 17:03:47.033749 21470 net.cpp:151] Top shape: 20 50 (1000)
I0503 17:03:47.033752 21470 net.cpp:159] Memory required for data: 3887920
I0503 17:03:47.033758 21470 layer_factory.hpp:77] Creating layer loss
I0503 17:03:47.033766 21470 net.cpp:94] Creating Layer loss
I0503 17:03:47.033771 21470 net.cpp:435] loss <- ip3
I0503 17:03:47.033774 21470 net.cpp:435] loss <- label
I0503 17:03:47.033780 21470 net.cpp:409] loss -> loss
I0503 17:03:47.033792 21470 layer_factory.hpp:77] Creating layer loss
…
I0503 17:03:47.034307 21470 solver.cpp:181] Creating test net (#0) specified by net file: ./protocol/dis_5_100_dimension.protocol_distribution
I0503 17:03:47.034333 21470 net.cpp:323] The NetState phase (1) differed from the phase (0) specified by a rule in layer parameters
I0503 17:03:47.034440 21470 net.cpp:52] Initializing net from parameters: 
state {
  phase: TEST
}
layer {
  name: "intercept"
  type: "HDF5Data"
  top: "data"
  top: "label"
  include {
    phase: TEST
  }
  hdf5_data_param {
    source: "/home/purduethu/scratch/radon/d/deng106/CNNStatisticalModel/distributions/input/5_distributions_100_sample_size_test-distributions-path.txt"
    batch_size: 20
  }
}
layer {
  name: "conv1"
  type: "Convolution"
  bottom: "data"
  top: "conv1"
  param {
    lr_mult: 1
  }
  param {
    lr_mult: 2
  }
  convolution_param {
    num_output: 64
    pad: 2
    kernel_size: 5
    stride: 1
    weight_filler {
      type: "gaussian"
      std: 0.0001
    }
    bias_filler {
      type: "constant"
    }
  }
}
layer {
  name: "relu1"
  type: "ReLU"
  bottom: "conv1"
  top: "conv1"
}
layer {
  name: "conv2"
  type: "Convolution"
  bottom: "conv1"
  top: "conv2"
  param {
    lr_mult: 1
  }
  param {
    lr_mult: 2
  }
  convolution_param {
    num_output: 64
    pad: 2
    kernel_size: 5
    stride: 1
    weight_filler {
      type: "gaussian"
      std: 0.01
    }
    bias_filler {
      type: "constant"
    }
  }
}
layer {
  name: "relu2"
  type: "ReLU"
  bottom: "conv2"
  top: "conv2"
}
layer {
  name: "pool2"
  type: "Pooling"
  bottom: "conv2"
  top: "pool2"
  pooling_param {
    pool: MAX
    kernel_size: 3
    stride: 2
  }
}
layer {
  name: "conv3"
  type: "Convolution"
  bottom: "pool2"
  top: "conv3"
  param {
    lr_mult: 1
  }
  param {
    lr_mult: 2
  }
  convolution_param {
    num_output: 128
    pad: 2
    kernel_size: 5
    stride: 1
    weight_filler {
      type: "gaussian"
      std: 0.01
    }
    bias_filler {
      type: "constant"
    }
  }
}
layer {
  name: "relu3"
  type: "ReLU"
  bottom: "conv3"
  top: "conv3"
}
layer {
  name: "conv4"
  type: "Convolution"
  bottom: "conv3"
  top: "conv4"
  param {
    lr_mult: 1
  }
  param {
    lr_mult: 2
  }
  convolution_param {
    num_output: 128
    pad: 2
    kernel_size: 5
    stride: 1
    weight_filler {
      type: "gaussian"
      std: 0.01
    }
    bias_filler {
      type: "constant"
    }
  }
}
layer {
  name: "relu4"
  type: "ReLU"
  bottom: "conv4"
  top: "conv4"
}
layer {
  name: "conv5"
  type: "Convolution"
  bottom: "conv4"
  top: "conv5"
  param {
    lr_mult: 1
  }
  param {
    lr_mult: 2
  }
  convolution_param {
    num_output: 128
    pad: 2
    kernel_size: 5
    stride: 1
    weight_filler {
      type: "gaussian"
      std: 0.01
    }
    bias_filler {
      type: "constant"
    }
  }
}
layer {
  name: "relu5"
  type: "ReLU"
  bottom: "conv5"
  top: "conv5"
}
layer {
  name: "pool5"
  type: "Pooling"
  bottom: "conv5"
  top: "pool5"
  pooling_param {
    pool: AVE
    kernel_size: 3
    stride: 2
  }
}
layer {
  name: "ip1"
  type: "InnerProduct"
  bottom: "pool5"
  top: "ip1"
  param {
    lr_mult: 1
  }
  param {
    lr_mult: 2
  }
  inner_product_param {
    num_output: 1024
    weight_filler {
      type: "gaussian"
      std: 0.1
    }
    bias_filler {
      type: "constant"
    }
  }
}
layer {
  name: "ip2"
  type: "InnerProduct"
  bottom: "ip1"
  top: "ip2"
  param {
    lr_mult: 1
  }
  param {
    lr_mult: 2
  }
  inner_product_param {
    num_output: 512
    weight_filler {
      type: "gaussian"
      std: 0.1
    }
    bias_filler {
      type: "constant"
    }
  }
}
layer {
  name: "ip3"
  type: "InnerProduct"
  bottom: "ip2"
  top: "ip3"
  param {
    lr_mult: 1
  }
  param {
    lr_mult: 2
  }
  inner_product_param {
    num_output: 50
    weight_filler {
      type: "gaussian"
      std: 0.1
    }
    bias_filler {
      type: "constant"
    }
  }
}
layer {
  name: "accuracy"
  type: "Accuracy"
  bottom: "ip3"
  bottom: "label"
  top: "accuracy"
  include {
    phase: TEST
  }
}
layer {
  name: "loss"
  type: "SoftmaxWithLoss"
  bottom: "ip3"
  bottom: "label"
  top: "loss"
}
I0503 17:03:47.034514 21470 layer_factory.hpp:77] Creating layer intercept
I0503 17:03:47.034524 21470 net.cpp:94] Creating Layer intercept
I0503 17:03:47.034529 21470 net.cpp:409] intercept -> data
I0503 17:03:47.034536 21470 net.cpp:409] intercept -> label
I0503 17:03:47.034543 21470 hdf5_data_layer.cpp:79] Loading list of HDF5 filenames from: /home/purduethu/scratch/radon/d/deng106/CNNStatisticalModel/distributions/input/5_distributions_100_sample_size_test-distributions-path.txt
I0503 17:03:47.034562 21470 hdf5_data_layer.cpp:93] Number of HDF5 files: 1
I0503 17:03:47.039464 21470 net.cpp:144] Setting up intercept
I0503 17:03:47.039491 21470 net.cpp:151] Top shape: 20 1 10 10 (2000)
I0503 17:03:47.039497 21470 net.cpp:151] Top shape: 20 (20)
I0503 17:03:47.039501 21470 net.cpp:159] Memory required for data: 8080
I0503 17:03:47.039507 21470 layer_factory.hpp:77] Creating layer label_intercept_1_split
I0503 17:03:47.039521 21470 net.cpp:94] Creating Layer label_intercept_1_split
I0503 17:03:47.039526 21470 net.cpp:435] label_intercept_1_split <- label
I0503 17:03:47.039532 21470 net.cpp:409] label_intercept_1_split -> label_intercept_1_split_0
I0503 17:03:47.039541 21470 net.cpp:409] label_intercept_1_split -> label_intercept_1_split_1
I0503 17:03:47.039574 21470 net.cpp:144] Setting up label_intercept_1_split
I0503 17:03:47.039582 21470 net.cpp:151] Top shape: 20 (20)
I0503 17:03:47.039587 21470 net.cpp:151] Top shape: 20 (20)
I0503 17:03:47.039589 21470 net.cpp:159] Memory required for data: 8240
I0503 17:03:47.039593 21470 layer_factory.hpp:77] Creating layer conv1
I0503 17:03:47.039604 21470 net.cpp:94] Creating Layer conv1
I0503 17:03:47.039608 21470 net.cpp:435] conv1 <- data
I0503 17:03:47.039614 21470 net.cpp:409] conv1 -> conv1
I0503 17:03:47.040295 21470 net.cpp:144] Setting up conv1
I0503 17:03:47.040318 21470 net.cpp:151] Top shape: 20 64 10 10 (128000)
I0503 17:03:47.040323 21470 net.cpp:159] Memory required for data: 520240
I0503 17:03:47.040333 21470 layer_factory.hpp:77] Creating layer relu1
I0503 17:03:47.040339 21470 net.cpp:94] Creating Layer relu1
I0503 17:03:47.040343 21470 net.cpp:435] relu1 <- conv1
I0503 17:03:47.040347 21470 net.cpp:396] relu1 -> conv1 (in-place)
I0503 17:03:47.040356 21470 net.cpp:144] Setting up relu1
I0503 17:03:47.040361 21470 net.cpp:151] Top shape: 20 64 10 10 (128000)
I0503 17:03:47.040364 21470 net.cpp:159] Memory required for data: 1032240
I0503 17:03:47.040369 21470 layer_factory.hpp:77] Creating layer conv2
I0503 17:03:47.040377 21470 net.cpp:94] Creating Layer conv2
I0503 17:03:47.040380 21470 net.cpp:435] conv2 <- conv1
I0503 17:03:47.040386 21470 net.cpp:409] conv2 -> conv2
I0503 17:03:47.044288 21470 net.cpp:144] Setting up conv2
I0503 17:03:47.044303 21470 net.cpp:151] Top shape: 20 64 10 10 (128000)
I0503 17:03:47.044307 21470 net.cpp:159] Memory required for data: 1544240
I0503 17:03:47.044317 21470 layer_factory.hpp:77] Creating layer relu2
I0503 17:03:47.044322 21470 net.cpp:94] Creating Layer relu2
I0503 17:03:47.044327 21470 net.cpp:435] relu2 <- conv2
I0503 17:03:47.044330 21470 net.cpp:396] relu2 -> conv2 (in-place)
I0503 17:03:47.044338 21470 net.cpp:144] Setting up relu2
I0503 17:03:47.044343 21470 net.cpp:151] Top shape: 20 64 10 10 (128000)
I0503 17:03:47.044347 21470 net.cpp:159] Memory required for data: 2056240
I0503 17:03:47.044350 21470 layer_factory.hpp:77] Creating layer pool2
I0503 17:03:47.044356 21470 net.cpp:94] Creating Layer pool2
I0503 17:03:47.044359 21470 net.cpp:435] pool2 <- conv2
I0503 17:03:47.044364 21470 net.cpp:409] pool2 -> pool2
I0503 17:03:47.044399 21470 net.cpp:144] Setting up pool2
I0503 17:03:47.044406 21470 net.cpp:151] Top shape: 20 64 5 5 (32000)
I0503 17:03:47.044409 21470 net.cpp:159] Memory required for data: 2184240
I0503 17:03:47.044414 21470 layer_factory.hpp:77] Creating layer conv3
I0503 17:03:47.044421 21470 net.cpp:94] Creating Layer conv3
I0503 17:03:47.044425 21470 net.cpp:435] conv3 <- pool2
I0503 17:03:47.044430 21470 net.cpp:409] conv3 -> conv3
I0503 17:03:47.051002 21470 net.cpp:144] Setting up conv3
I0503 17:03:47.051015 21470 net.cpp:151] Top shape: 20 128 5 5 (64000)
I0503 17:03:47.051020 21470 net.cpp:159] Memory required for data: 2440240
I0503 17:03:47.051028 21470 layer_factory.hpp:77] Creating layer relu3
I0503 17:03:47.051036 21470 net.cpp:94] Creating Layer relu3
I0503 17:03:47.051040 21470 net.cpp:435] relu3 <- conv3
I0503 17:03:47.051045 21470 net.cpp:396] relu3 -> conv3 (in-place)
I0503 17:03:47.051053 21470 net.cpp:144] Setting up relu3
I0503 17:03:47.051057 21470 net.cpp:151] Top shape: 20 128 5 5 (64000)
I0503 17:03:47.051061 21470 net.cpp:159] Memory required for data: 2696240
I0503 17:03:47.051064 21470 layer_factory.hpp:77] Creating layer conv4
I0503 17:03:47.051072 21470 net.cpp:94] Creating Layer conv4
I0503 17:03:47.051076 21470 net.cpp:435] conv4 <- conv3
I0503 17:03:47.051081 21470 net.cpp:409] conv4 -> conv4
I0503 17:03:47.063746 21470 net.cpp:144] Setting up conv4
I0503 17:03:47.063761 21470 net.cpp:151] Top shape: 20 128 5 5 (64000)
I0503 17:03:47.063766 21470 net.cpp:159] Memory required for data: 2952240
I0503 17:03:47.063772 21470 layer_factory.hpp:77] Creating layer relu4
I0503 17:03:47.063778 21470 net.cpp:94] Creating Layer relu4
I0503 17:03:47.063782 21470 net.cpp:435] relu4 <- conv4
I0503 17:03:47.063792 21470 net.cpp:396] relu4 -> conv4 (in-place)
I0503 17:03:47.063802 21470 net.cpp:144] Setting up relu4
I0503 17:03:47.063807 21470 net.cpp:151] Top shape: 20 128 5 5 (64000)
I0503 17:03:47.063809 21470 net.cpp:159] Memory required for data: 3208240
I0503 17:03:47.063813 21470 layer_factory.hpp:77] Creating layer conv5
I0503 17:03:47.063822 21470 net.cpp:94] Creating Layer conv5
I0503 17:03:47.063825 21470 net.cpp:435] conv5 <- conv4
I0503 17:03:47.063832 21470 net.cpp:409] conv5 -> conv5
I0503 17:03:47.076496 21470 net.cpp:144] Setting up conv5
I0503 17:03:47.076517 21470 net.cpp:151] Top shape: 20 128 5 5 (64000)
I0503 17:03:47.076522 21470 net.cpp:159] Memory required for data: 3464240
I0503 17:03:47.076531 21470 layer_factory.hpp:77] Creating layer relu5
I0503 17:03:47.076539 21470 net.cpp:94] Creating Layer relu5
I0503 17:03:47.076542 21470 net.cpp:435] relu5 <- conv5
I0503 17:03:47.076547 21470 net.cpp:396] relu5 -> conv5 (in-place)
I0503 17:03:47.076563 21470 net.cpp:144] Setting up relu5
I0503 17:03:47.076570 21470 net.cpp:151] Top shape: 20 128 5 5 (64000)
I0503 17:03:47.076573 21470 net.cpp:159] Memory required for data: 3720240
I0503 17:03:47.076577 21470 layer_factory.hpp:77] Creating layer pool5
I0503 17:03:47.076582 21470 net.cpp:94] Creating Layer pool5
I0503 17:03:47.076586 21470 net.cpp:435] pool5 <- conv5
I0503 17:03:47.076591 21470 net.cpp:409] pool5 -> pool5
I0503 17:03:47.076618 21470 net.cpp:144] Setting up pool5
I0503 17:03:47.076625 21470 net.cpp:151] Top shape: 20 128 2 2 (10240)
I0503 17:03:47.076629 21470 net.cpp:159] Memory required for data: 3761200
I0503 17:03:47.076632 21470 layer_factory.hpp:77] Creating layer ip1
I0503 17:03:47.076640 21470 net.cpp:94] Creating Layer ip1
I0503 17:03:47.076643 21470 net.cpp:435] ip1 <- pool5
I0503 17:03:47.076648 21470 net.cpp:409] ip1 -> ip1
I0503 17:03:47.090114 21470 net.cpp:144] Setting up ip1
I0503 17:03:47.090129 21470 net.cpp:151] Top shape: 20 1024 (20480)
I0503 17:03:47.090133 21470 net.cpp:159] Memory required for data: 3843120
I0503 17:03:47.090140 21470 layer_factory.hpp:77] Creating layer ip2
I0503 17:03:47.090147 21470 net.cpp:94] Creating Layer ip2
I0503 17:03:47.090152 21470 net.cpp:435] ip2 <- ip1
I0503 17:03:47.090157 21470 net.cpp:409] ip2 -> ip2
I0503 17:03:47.103605 21470 net.cpp:144] Setting up ip2
I0503 17:03:47.103619 21470 net.cpp:151] Top shape: 20 512 (10240)
I0503 17:03:47.103624 21470 net.cpp:159] Memory required for data: 3884080
I0503 17:03:47.103631 21470 layer_factory.hpp:77] Creating layer ip3
I0503 17:03:47.103638 21470 net.cpp:94] Creating Layer ip3
I0503 17:03:47.103642 21470 net.cpp:435] ip3 <- ip2
I0503 17:03:47.103648 21470 net.cpp:409] ip3 -> ip3
I0503 17:03:47.104354 21470 net.cpp:144] Setting up ip3
I0503 17:03:47.104362 21470 net.cpp:151] Top shape: 20 50 (1000)
I0503 17:03:47.104365 21470 net.cpp:159] Memory required for data: 3888080
I0503 17:03:47.104372 21470 layer_factory.hpp:77] Creating layer ip3_ip3_0_split
I0503 17:03:47.104377 21470 net.cpp:94] Creating Layer ip3_ip3_0_split
I0503 17:03:47.104382 21470 net.cpp:435] ip3_ip3_0_split <- ip3
I0503 17:03:47.104385 21470 net.cpp:409] ip3_ip3_0_split -> ip3_ip3_0_split_0
I0503 17:03:47.104393 21470 net.cpp:409] ip3_ip3_0_split -> ip3_ip3_0_split_1
I0503 17:03:47.104418 21470 net.cpp:144] Setting up ip3_ip3_0_split
I0503 17:03:47.104425 21470 net.cpp:151] Top shape: 20 50 (1000)
I0503 17:03:47.104429 21470 net.cpp:151] Top shape: 20 50 (1000)
I0503 17:03:47.104432 21470 net.cpp:159] Memory required for data: 3896080
I0503 17:03:47.104435 21470 layer_factory.hpp:77] Creating layer accuracy
I0503 17:03:47.104446 21470 net.cpp:94] Creating Layer accuracy
I0503 17:03:47.104450 21470 net.cpp:435] accuracy <- ip3_ip3_0_split_0
I0503 17:03:47.104455 21470 net.cpp:435] accuracy <- label_intercept_1_split_0
I0503 17:03:47.104460 21470 net.cpp:409] accuracy -> accuracy
…
