…
I0505 06:18:00.774092  4060 net.cpp:323] The NetState phase (0) differed from the phase (1) specified by a rule in layer intercept
I0505 06:18:00.774107  4060 net.cpp:323] The NetState phase (0) differed from the phase (1) specified by a rule in layer loss
I0505 06:18:00.774186  4060 net.cpp:52] Initializing net from parameters: 
state {
  phase: TRAIN
}
layer {
  name: "parameters"
  type: "HDF5Data"
  top: "data"
  top: "label"
  include {
    phase: TRAIN
  }
  hdf5_data_param {
    source: "/home/purduethu/scratch/radon/d/deng106/CNNStatisticalModel/distributions/input/50_distributions_900_sample_size_train-parameters-path.txt"
    batch_size: 20
  }
}
layer {
  name: "conv1"
  type: "Convolution"
  bottom: "data"
  top: "conv1"
  param {
    lr_mult: 1
  }
  param {
    lr_mult: 2
  }
  convolution_param {
    num_output: 64
    pad: 2
    kernel_size: 5
    stride: 1
    weight_filler {
      type: "gaussian"
      std: 0.0001
    }
    bias_filler {
      type: "constant"
    }
  }
}
layer {
  name: "relu1"
  type: "ReLU"
  bottom: "conv1"
  top: "conv1"
}
layer {
  name: "pool1"
  type: "Pooling"
  bottom: "conv1"
  top: "pool1"
  pooling_param {
    pool: MAX
    kernel_size: 3
    stride: 2
  }
}
layer {
  name: "conv2"
  type: "Convolution"
  bottom: "pool1"
  top: "conv2"
  param {
    lr_mult: 1
  }
  param {
    lr_mult: 2
  }
  convolution_param {
    num_output: 128
    pad: 2
    kernel_size: 5
    stride: 1
    weight_filler {
      type: "gaussian"
      std: 0.01
    }
    bias_filler {
      type: "constant"
    }
  }
}
layer {
  name: "relu2"
  type: "ReLU"
  bottom: "conv2"
  top: "conv2"
}
layer {
  name: "conv3"
  type: "Convolution"
  bottom: "conv2"
  top: "conv3"
  param {
    lr_mult: 1
  }
  param {
    lr_mult: 2
  }
  convolution_param {
    num_output: 128
    pad: 2
    kernel_size: 5
    stride: 1
    weight_filler {
      type: "gaussian"
      std: 0.01
    }
    bias_filler {
      type: "constant"
    }
  }
}
layer {
  name: "relu3"
  type: "ReLU"
  bottom: "conv3"
  top: "conv3"
}
layer {
  name: "pool3"
  type: "Pooling"
  bottom: "conv3"
  top: "pool3"
  pooling_param {
    pool: AVE
    kernel_size: 3
    stride: 2
  }
}
layer {
  name: "ip1"
  type: "InnerProduct"
  bottom: "pool3"
  top: "ip1"
  param {
    lr_mult: 1
  }
  param {
    lr_mult: 2
  }
  inner_product_param {
    num_output: 512
    weight_filler {
      type: "gaussian"
      std: 0.1
    }
    bias_filler {
      type: "constant"
    }
  }
}
layer {
  name: "ip2"
  type: "InnerProduct"
  bottom: "ip1"
  top: "ip2"
  param {
    lr_mult: 1
  }
  param {
    lr_mult: 2
  }
  inner_product_param {
    num_output: 256
    weight_filler {
      type: "gaussian"
      std: 0.1
    }
    bias_filler {
      type: "constant"
    }
  }
}
layer {
  name: "ip3"
  type: "InnerProduct"
  bottom: "ip2"
  top: "ip3"
  param {
    lr_mult: 1
  }
  param {
    lr_mult: 2
  }
  inner_product_param {
    num_output: 1
    weight_filler {
      type: "gaussian"
      std: 0.1
    }
    bias_filler {
      type: "constant"
    }
  }
}
layer {
  name: "loss"
  type: "HuberLoss"
  bottom: "ip3"
  bottom: "label"
  top: "loss"
  include {
    phase: TRAIN
  }
}
I0505 06:18:00.774250  4060 layer_factory.hpp:77] Creating layer parameters
I0505 06:18:00.774265  4060 net.cpp:94] Creating Layer parameters
I0505 06:18:00.774276  4060 net.cpp:409] parameters -> data
I0505 06:18:00.774296  4060 net.cpp:409] parameters -> label
I0505 06:18:00.774307  4060 hdf5_data_layer.cpp:79] Loading list of HDF5 filenames from: /home/purduethu/scratch/radon/d/deng106/CNNStatisticalModel/distributions/input/50_distributions_900_sample_size_train-parameters-path.txt
I0505 06:18:00.774328  4060 hdf5_data_layer.cpp:93] Number of HDF5 files: 1
I0505 06:18:00.774794  4060 hdf5.cpp:32] Datatype class: H5T_FLOAT
I0505 06:18:02.211973  4060 net.cpp:144] Setting up parameters
I0505 06:18:02.212009  4060 net.cpp:151] Top shape: 20 1 30 30 (18000)
I0505 06:18:02.212015  4060 net.cpp:151] Top shape: 20 (20)
I0505 06:18:02.212018  4060 net.cpp:159] Memory required for data: 72080
I0505 06:18:02.212025  4060 layer_factory.hpp:77] Creating layer conv1
I0505 06:18:02.212044  4060 net.cpp:94] Creating Layer conv1
I0505 06:18:02.212050  4060 net.cpp:435] conv1 <- data
I0505 06:18:02.212060  4060 net.cpp:409] conv1 -> conv1
I0505 06:18:02.217977  4060 net.cpp:144] Setting up conv1
I0505 06:18:02.217994  4060 net.cpp:151] Top shape: 20 64 30 30 (1152000)
I0505 06:18:02.217998  4060 net.cpp:159] Memory required for data: 4680080
I0505 06:18:02.218010  4060 layer_factory.hpp:77] Creating layer relu1
I0505 06:18:02.218019  4060 net.cpp:94] Creating Layer relu1
I0505 06:18:02.218022  4060 net.cpp:435] relu1 <- conv1
I0505 06:18:02.218027  4060 net.cpp:396] relu1 -> conv1 (in-place)
I0505 06:18:02.218039  4060 net.cpp:144] Setting up relu1
I0505 06:18:02.218044  4060 net.cpp:151] Top shape: 20 64 30 30 (1152000)
I0505 06:18:02.218047  4060 net.cpp:159] Memory required for data: 9288080
I0505 06:18:02.218050  4060 layer_factory.hpp:77] Creating layer pool1
I0505 06:18:02.218058  4060 net.cpp:94] Creating Layer pool1
I0505 06:18:02.218061  4060 net.cpp:435] pool1 <- conv1
I0505 06:18:02.218065  4060 net.cpp:409] pool1 -> pool1
I0505 06:18:02.218107  4060 net.cpp:144] Setting up pool1
I0505 06:18:02.218114  4060 net.cpp:151] Top shape: 20 64 15 15 (288000)
I0505 06:18:02.218117  4060 net.cpp:159] Memory required for data: 10440080
I0505 06:18:02.218120  4060 layer_factory.hpp:77] Creating layer conv2
I0505 06:18:02.218129  4060 net.cpp:94] Creating Layer conv2
I0505 06:18:02.218132  4060 net.cpp:435] conv2 <- pool1
I0505 06:18:02.218137  4060 net.cpp:409] conv2 -> conv2
I0505 06:18:02.232959  4060 net.cpp:144] Setting up conv2
I0505 06:18:02.232975  4060 net.cpp:151] Top shape: 20 128 15 15 (576000)
I0505 06:18:02.232978  4060 net.cpp:159] Memory required for data: 12744080
I0505 06:18:02.232986  4060 layer_factory.hpp:77] Creating layer relu2
I0505 06:18:02.232993  4060 net.cpp:94] Creating Layer relu2
I0505 06:18:02.232996  4060 net.cpp:435] relu2 <- conv2
I0505 06:18:02.233001  4060 net.cpp:396] relu2 -> conv2 (in-place)
I0505 06:18:02.233008  4060 net.cpp:144] Setting up relu2
I0505 06:18:02.233013  4060 net.cpp:151] Top shape: 20 128 15 15 (576000)
I0505 06:18:02.233016  4060 net.cpp:159] Memory required for data: 15048080
I0505 06:18:02.233019  4060 layer_factory.hpp:77] Creating layer conv3
I0505 06:18:02.233028  4060 net.cpp:94] Creating Layer conv3
I0505 06:18:02.233031  4060 net.cpp:435] conv3 <- conv2
I0505 06:18:02.233036  4060 net.cpp:409] conv3 -> conv3
I0505 06:18:02.255636  4060 net.cpp:144] Setting up conv3
I0505 06:18:02.255651  4060 net.cpp:151] Top shape: 20 128 15 15 (576000)
I0505 06:18:02.255656  4060 net.cpp:159] Memory required for data: 17352080
I0505 06:18:02.255664  4060 layer_factory.hpp:77] Creating layer relu3
I0505 06:18:02.255676  4060 net.cpp:94] Creating Layer relu3
I0505 06:18:02.255681  4060 net.cpp:435] relu3 <- conv3
I0505 06:18:02.255686  4060 net.cpp:396] relu3 -> conv3 (in-place)
I0505 06:18:02.255693  4060 net.cpp:144] Setting up relu3
I0505 06:18:02.255698  4060 net.cpp:151] Top shape: 20 128 15 15 (576000)
I0505 06:18:02.255702  4060 net.cpp:159] Memory required for data: 19656080
I0505 06:18:02.255704  4060 layer_factory.hpp:77] Creating layer pool3
I0505 06:18:02.255712  4060 net.cpp:94] Creating Layer pool3
I0505 06:18:02.255714  4060 net.cpp:435] pool3 <- conv3
I0505 06:18:02.255726  4060 net.cpp:409] pool3 -> pool3
I0505 06:18:02.255761  4060 net.cpp:144] Setting up pool3
I0505 06:18:02.255769  4060 net.cpp:151] Top shape: 20 128 7 7 (125440)
I0505 06:18:02.255771  4060 net.cpp:159] Memory required for data: 20157840
I0505 06:18:02.255775  4060 layer_factory.hpp:77] Creating layer ip1
I0505 06:18:02.255785  4060 net.cpp:94] Creating Layer ip1
I0505 06:18:02.255789  4060 net.cpp:435] ip1 <- pool3
I0505 06:18:02.255794  4060 net.cpp:409] ip1 -> ip1
I0505 06:18:02.333683  4060 net.cpp:144] Setting up ip1
I0505 06:18:02.333715  4060 net.cpp:151] Top shape: 20 512 (10240)
I0505 06:18:02.333720  4060 net.cpp:159] Memory required for data: 20198800
I0505 06:18:02.333727  4060 layer_factory.hpp:77] Creating layer ip2
I0505 06:18:02.333737  4060 net.cpp:94] Creating Layer ip2
I0505 06:18:02.333741  4060 net.cpp:435] ip2 <- ip1
I0505 06:18:02.333748  4060 net.cpp:409] ip2 -> ip2
I0505 06:18:02.336851  4060 net.cpp:144] Setting up ip2
I0505 06:18:02.336860  4060 net.cpp:151] Top shape: 20 256 (5120)
I0505 06:18:02.336864  4060 net.cpp:159] Memory required for data: 20219280
I0505 06:18:02.336871  4060 layer_factory.hpp:77] Creating layer ip3
I0505 06:18:02.336877  4060 net.cpp:94] Creating Layer ip3
I0505 06:18:02.336881  4060 net.cpp:435] ip3 <- ip2
I0505 06:18:02.336885  4060 net.cpp:409] ip3 -> ip3
I0505 06:18:02.336949  4060 net.cpp:144] Setting up ip3
I0505 06:18:02.336956  4060 net.cpp:151] Top shape: 20 1 (20)
I0505 06:18:02.336958  4060 net.cpp:159] Memory required for data: 20219360
I0505 06:18:02.336962  4060 layer_factory.hpp:77] Creating layer loss
I0505 06:18:02.336977  4060 net.cpp:94] Creating Layer loss
I0505 06:18:02.336979  4060 net.cpp:435] loss <- ip3
I0505 06:18:02.336983  4060 net.cpp:435] loss <- label
I0505 06:18:02.336989  4060 net.cpp:409] loss -> loss
I0505 06:18:02.337023  4060 net.cpp:144] Setting up loss
…
