…
I0505 14:25:37.790863  7334 net.cpp:323] The NetState phase (0) differed from the phase (1) specified by a rule in layer intercept
I0505 14:25:37.790880  7334 net.cpp:323] The NetState phase (0) differed from the phase (1) specified by a rule in layer loss
I0505 14:25:37.790949  7334 net.cpp:52] Initializing net from parameters: 
state {
  phase: TRAIN
}
layer {
  name: "parameters"
  type: "HDF5Data"
  top: "data"
  top: "label"
  include {
    phase: TRAIN
  }
  hdf5_data_param {
    source: "/home/purduethu/scratch/radon/d/deng106/CNNStatisticalModel/distributions/input/5_distributions_400_sample_size_train-parameters-path.txt"
    batch_size: 20
  }
}
layer {
  name: "conv1"
  type: "Convolution"
  bottom: "data"
  top: "conv1"
  param {
    lr_mult: 1
  }
  param {
    lr_mult: 2
  }
  convolution_param {
    num_output: 64
    pad: 2
    kernel_size: 5
    stride: 1
    weight_filler {
      type: "gaussian"
      std: 0.0001
    }
    bias_filler {
      type: "constant"
    }
  }
}
layer {
  name: "relu1"
  type: "ReLU"
  bottom: "conv1"
  top: "conv1"
}
layer {
  name: "pool1"
  type: "Pooling"
  bottom: "conv1"
  top: "pool1"
  pooling_param {
    pool: MAX
    kernel_size: 3
    stride: 2
  }
}
layer {
  name: "conv2"
  type: "Convolution"
  bottom: "pool1"
  top: "conv2"
  param {
    lr_mult: 1
  }
  param {
    lr_mult: 2
  }
  convolution_param {
    num_output: 128
    pad: 2
    kernel_size: 5
    stride: 1
    weight_filler {
      type: "gaussian"
      std: 0.01
    }
    bias_filler {
      type: "constant"
    }
  }
}
layer {
  name: "relu2"
  type: "ReLU"
  bottom: "conv2"
  top: "conv2"
}
layer {
  name: "conv3"
  type: "Convolution"
  bottom: "conv2"
  top: "conv3"
  param {
    lr_mult: 1
  }
  param {
    lr_mult: 2
  }
  convolution_param {
    num_output: 128
    pad: 2
    kernel_size: 5
    stride: 1
    weight_filler {
      type: "gaussian"
      std: 0.01
    }
    bias_filler {
      type: "constant"
    }
  }
}
layer {
  name: "relu3"
  type: "ReLU"
  bottom: "conv3"
  top: "conv3"
}
layer {
  name: "pool3"
  type: "Pooling"
  bottom: "conv3"
  top: "pool3"
  pooling_param {
    pool: AVE
    kernel_size: 3
    stride: 2
  }
}
layer {
  name: "ip1"
  type: "InnerProduct"
  bottom: "pool3"
  top: "ip1"
  param {
    lr_mult: 1
  }
  param {
    lr_mult: 2
  }
  inner_product_param {
    num_output: 512
    weight_filler {
      type: "gaussian"
      std: 0.1
    }
    bias_filler {
      type: "constant"
    }
  }
}
layer {
  name: "ip2"
  type: "InnerProduct"
  bottom: "ip1"
  top: "ip2"
  param {
    lr_mult: 1
  }
  param {
    lr_mult: 2
  }
  inner_product_param {
    num_output: 256
    weight_filler {
      type: "gaussian"
      std: 0.1
    }
    bias_filler {
      type: "constant"
    }
  }
}
layer {
  name: "ip3"
  type: "InnerProduct"
  bottom: "ip2"
  top: "ip3"
  param {
    lr_mult: 1
  }
  param {
    lr_mult: 2
  }
  inner_product_param {
    num_output: 1
    weight_filler {
      type: "gaussian"
      std: 0.1
    }
    bias_filler {
      type: "constant"
    }
  }
}
layer {
  name: "loss"
  type: "HuberLoss"
  bottom: "ip3"
  bottom: "label"
  top: "loss"
  include {
    phase: TRAIN
  }
}
I0505 14:25:37.790997  7334 layer_factory.hpp:77] Creating layer parameters
I0505 14:25:37.791013  7334 net.cpp:94] Creating Layer parameters
I0505 14:25:37.791018  7334 net.cpp:409] parameters -> data
I0505 14:25:37.791028  7334 net.cpp:409] parameters -> label
I0505 14:25:37.791034  7334 hdf5_data_layer.cpp:79] Loading list of HDF5 filenames from: /home/purduethu/scratch/radon/d/deng106/CNNStatisticalModel/distributions/input/5_distributions_400_sample_size_train-parameters-path.txt
I0505 14:25:37.791049  7334 hdf5_data_layer.cpp:93] Number of HDF5 files: 1
I0505 14:25:37.791604  7334 hdf5.cpp:32] Datatype class: H5T_FLOAT
I0505 14:25:37.855393  7334 net.cpp:144] Setting up parameters
I0505 14:25:37.855425  7334 net.cpp:151] Top shape: 20 1 20 20 (8000)
I0505 14:25:37.855430  7334 net.cpp:151] Top shape: 20 (20)
I0505 14:25:37.855434  7334 net.cpp:159] Memory required for data: 32080
I0505 14:25:37.855440  7334 layer_factory.hpp:77] Creating layer conv1
I0505 14:25:37.855463  7334 net.cpp:94] Creating Layer conv1
I0505 14:25:37.855468  7334 net.cpp:435] conv1 <- data
I0505 14:25:37.855474  7334 net.cpp:409] conv1 -> conv1
I0505 14:25:37.860898  7334 net.cpp:144] Setting up conv1
I0505 14:25:37.860915  7334 net.cpp:151] Top shape: 20 64 20 20 (512000)
I0505 14:25:37.860918  7334 net.cpp:159] Memory required for data: 2080080
I0505 14:25:37.860929  7334 layer_factory.hpp:77] Creating layer relu1
I0505 14:25:37.860937  7334 net.cpp:94] Creating Layer relu1
I0505 14:25:37.860941  7334 net.cpp:435] relu1 <- conv1
I0505 14:25:37.860945  7334 net.cpp:396] relu1 -> conv1 (in-place)
I0505 14:25:37.860957  7334 net.cpp:144] Setting up relu1
I0505 14:25:37.860962  7334 net.cpp:151] Top shape: 20 64 20 20 (512000)
I0505 14:25:37.860965  7334 net.cpp:159] Memory required for data: 4128080
I0505 14:25:37.860968  7334 layer_factory.hpp:77] Creating layer pool1
I0505 14:25:37.860975  7334 net.cpp:94] Creating Layer pool1
I0505 14:25:37.860977  7334 net.cpp:435] pool1 <- conv1
I0505 14:25:37.860981  7334 net.cpp:409] pool1 -> pool1
I0505 14:25:37.861030  7334 net.cpp:144] Setting up pool1
I0505 14:25:37.861037  7334 net.cpp:151] Top shape: 20 64 10 10 (128000)
I0505 14:25:37.861040  7334 net.cpp:159] Memory required for data: 4640080
I0505 14:25:37.861043  7334 layer_factory.hpp:77] Creating layer conv2
I0505 14:25:37.861052  7334 net.cpp:94] Creating Layer conv2
I0505 14:25:37.861057  7334 net.cpp:435] conv2 <- pool1
I0505 14:25:37.861062  7334 net.cpp:409] conv2 -> conv2
I0505 14:25:37.871417  7334 net.cpp:144] Setting up conv2
I0505 14:25:37.871431  7334 net.cpp:151] Top shape: 20 128 10 10 (256000)
I0505 14:25:37.871435  7334 net.cpp:159] Memory required for data: 5664080
I0505 14:25:37.871444  7334 layer_factory.hpp:77] Creating layer relu2
I0505 14:25:37.871450  7334 net.cpp:94] Creating Layer relu2
I0505 14:25:37.871454  7334 net.cpp:435] relu2 <- conv2
I0505 14:25:37.871459  7334 net.cpp:396] relu2 -> conv2 (in-place)
I0505 14:25:37.871465  7334 net.cpp:144] Setting up relu2
I0505 14:25:37.871470  7334 net.cpp:151] Top shape: 20 128 10 10 (256000)
I0505 14:25:37.871474  7334 net.cpp:159] Memory required for data: 6688080
I0505 14:25:37.871476  7334 layer_factory.hpp:77] Creating layer conv3
I0505 14:25:37.871484  7334 net.cpp:94] Creating Layer conv3
I0505 14:25:37.871487  7334 net.cpp:435] conv3 <- conv2
I0505 14:25:37.871491  7334 net.cpp:409] conv3 -> conv3
I0505 14:25:37.888988  7334 net.cpp:144] Setting up conv3
I0505 14:25:37.889004  7334 net.cpp:151] Top shape: 20 128 10 10 (256000)
I0505 14:25:37.889008  7334 net.cpp:159] Memory required for data: 7712080
I0505 14:25:37.889017  7334 layer_factory.hpp:77] Creating layer relu3
I0505 14:25:37.889029  7334 net.cpp:94] Creating Layer relu3
I0505 14:25:37.889034  7334 net.cpp:435] relu3 <- conv3
I0505 14:25:37.889039  7334 net.cpp:396] relu3 -> conv3 (in-place)
I0505 14:25:37.889046  7334 net.cpp:144] Setting up relu3
I0505 14:25:37.889051  7334 net.cpp:151] Top shape: 20 128 10 10 (256000)
I0505 14:25:37.889053  7334 net.cpp:159] Memory required for data: 8736080
I0505 14:25:37.889056  7334 layer_factory.hpp:77] Creating layer pool3
I0505 14:25:37.889062  7334 net.cpp:94] Creating Layer pool3
I0505 14:25:37.889065  7334 net.cpp:435] pool3 <- conv3
I0505 14:25:37.889070  7334 net.cpp:409] pool3 -> pool3
I0505 14:25:37.889109  7334 net.cpp:144] Setting up pool3
I0505 14:25:37.889117  7334 net.cpp:151] Top shape: 20 128 5 5 (64000)
I0505 14:25:37.889119  7334 net.cpp:159] Memory required for data: 8992080
I0505 14:25:37.889122  7334 layer_factory.hpp:77] Creating layer ip1
I0505 14:25:37.889132  7334 net.cpp:94] Creating Layer ip1
I0505 14:25:37.889137  7334 net.cpp:435] ip1 <- pool3
I0505 14:25:37.889142  7334 net.cpp:409] ip1 -> ip1
I0505 14:25:37.929904  7334 net.cpp:144] Setting up ip1
I0505 14:25:37.929930  7334 net.cpp:151] Top shape: 20 512 (10240)
I0505 14:25:37.929934  7334 net.cpp:159] Memory required for data: 9033040
I0505 14:25:37.929941  7334 layer_factory.hpp:77] Creating layer ip2
I0505 14:25:37.929949  7334 net.cpp:94] Creating Layer ip2
I0505 14:25:37.929955  7334 net.cpp:435] ip2 <- ip1
I0505 14:25:37.929960  7334 net.cpp:409] ip2 -> ip2
I0505 14:25:37.933182  7334 net.cpp:144] Setting up ip2
I0505 14:25:37.933190  7334 net.cpp:151] Top shape: 20 256 (5120)
I0505 14:25:37.933194  7334 net.cpp:159] Memory required for data: 9053520
I0505 14:25:37.933202  7334 layer_factory.hpp:77] Creating layer ip3
I0505 14:25:37.933207  7334 net.cpp:94] Creating Layer ip3
I0505 14:25:37.933212  7334 net.cpp:435] ip3 <- ip2
I0505 14:25:37.933215  7334 net.cpp:409] ip3 -> ip3
I0505 14:25:37.933318  7334 net.cpp:144] Setting up ip3
I0505 14:25:37.933326  7334 net.cpp:151] Top shape: 20 1 (20)
I0505 14:25:37.933328  7334 net.cpp:159] Memory required for data: 9053600
I0505 14:25:37.933333  7334 layer_factory.hpp:77] Creating layer loss
I0505 14:25:37.933339  7334 net.cpp:94] Creating Layer loss
I0505 14:25:37.933342  7334 net.cpp:435] loss <- ip3
I0505 14:25:37.933346  7334 net.cpp:435] loss <- label
I0505 14:25:37.933351  7334 net.cpp:409] loss -> loss
I0505 14:25:37.933404  7334 net.cpp:144] Setting up loss
…
I0505 14:25:38.019361  7334 net.cpp:323] The NetState phase (0) differed from the phase (1) specified by a rule in layer intercept
I0505 14:25:38.019376  7334 net.cpp:323] The NetState phase (0) differed from the phase (1) specified by a rule in layer accuracy
I0505 14:25:38.019445  7334 net.cpp:52] Initializing net from parameters: 
state {
  phase: TRAIN
}
layer {
  name: "parameters"
  type: "HDF5Data"
  top: "data"
  top: "label"
  include {
    phase: TRAIN
  }
  hdf5_data_param {
    source: "/home/purduethu/scratch/radon/d/deng106/CNNStatisticalModel/distributions/input/5_distributions_400_sample_size_train-distributions-path.txt"
    batch_size: 20
  }
}
layer {
  name: "conv1"
  type: "Convolution"
  bottom: "data"
  top: "conv1"
  param {
    lr_mult: 1
  }
  param {
    lr_mult: 2
  }
  convolution_param {
    num_output: 64
    pad: 2
    kernel_size: 5
    stride: 1
    weight_filler {
      type: "gaussian"
      std: 0.0001
    }
    bias_filler {
      type: "constant"
    }
  }
}
layer {
  name: "relu1"
  type: "ReLU"
  bottom: "conv1"
  top: "conv1"
}
layer {
  name: "pool1"
  type: "Pooling"
  bottom: "conv1"
  top: "pool1"
  pooling_param {
    pool: MAX
    kernel_size: 3
    stride: 2
  }
}
layer {
  name: "conv2"
  type: "Convolution"
  bottom: "pool1"
  top: "conv2"
  param {
    lr_mult: 1
  }
  param {
    lr_mult: 2
  }
  convolution_param {
    num_output: 128
    pad: 2
    kernel_size: 5
    stride: 1
    weight_filler {
      type: "gaussian"
      std: 0.01
    }
    bias_filler {
      type: "constant"
    }
  }
}
layer {
  name: "relu2"
  type: "ReLU"
  bottom: "conv2"
  top: "conv2"
}
layer {
  name: "conv3"
  type: "Convolution"
  bottom: "conv2"
  top: "conv3"
  param {
    lr_mult: 1
  }
  param {
    lr_mult: 2
  }
  convolution_param {
    num_output: 128
    pad: 2
    kernel_size: 5
    stride: 1
    weight_filler {
      type: "gaussian"
      std: 0.01
    }
    bias_filler {
      type: "constant"
    }
  }
}
layer {
  name: "relu3"
  type: "ReLU"
  bottom: "conv3"
  top: "conv3"
}
layer {
  name: "pool3"
  type: "Pooling"
  bottom: "conv3"
  top: "pool3"
  pooling_param {
    pool: AVE
    kernel_size: 3
    stride: 2
  }
}
layer {
  name: "ip1"
  type: "InnerProduct"
  bottom: "pool3"
  top: "ip1"
  param {
    lr_mult: 1
  }
  param {
    lr_mult: 2
  }
  inner_product_param {
    num_output: 512
    weight_filler {
      type: "gaussian"
      std: 0.1
    }
    bias_filler {
      type: "constant"
    }
  }
}
layer {
  name: "ip2"
  type: "InnerProduct"
  bottom: "ip1"
  top: "ip2"
  param {
    lr_mult: 1
  }
  param {
    lr_mult: 2
  }
  inner_product_param {
    num_output: 256
    weight_filler {
      type: "gaussian"
      std: 0.1
    }
    bias_filler {
      type: "constant"
    }
  }
}
layer {
  name: "ip3"
  type: "InnerProduct"
  bottom: "ip2"
  top: "ip3"
  param {
    lr_mult: 1
  }
  param {
    lr_mult: 2
  }
  inner_product_param {
    num_output: 50
    weight_filler {
      type: "gaussian"
      std: 0.1
    }
    bias_filler {
      type: "constant"
    }
  }
}
layer {
  name: "loss"
  type: "SoftmaxWithLoss"
  bottom: "ip3"
  bottom: "label"
  top: "loss"
}
I0505 14:25:38.019489  7334 layer_factory.hpp:77] Creating layer parameters
I0505 14:25:38.019496  7334 net.cpp:94] Creating Layer parameters
I0505 14:25:38.019500  7334 net.cpp:409] parameters -> data
I0505 14:25:38.019507  7334 net.cpp:409] parameters -> label
I0505 14:25:38.019513  7334 hdf5_data_layer.cpp:79] Loading list of HDF5 filenames from: /home/purduethu/scratch/radon/d/deng106/CNNStatisticalModel/distributions/input/5_distributions_400_sample_size_train-distributions-path.txt
I0505 14:25:38.019528  7334 hdf5_data_layer.cpp:93] Number of HDF5 files: 1
I0505 14:25:38.081486  7334 hdf5.cpp:35] Datatype class: H5T_INTEGER
I0505 14:25:38.081923  7334 net.cpp:144] Setting up parameters
I0505 14:25:38.081938  7334 net.cpp:151] Top shape: 20 1 20 20 (8000)
I0505 14:25:38.081943  7334 net.cpp:151] Top shape: 20 (20)
I0505 14:25:38.081946  7334 net.cpp:159] Memory required for data: 32080
I0505 14:25:38.081953  7334 layer_factory.hpp:77] Creating layer conv1
I0505 14:25:38.081969  7334 net.cpp:94] Creating Layer conv1
I0505 14:25:38.081974  7334 net.cpp:435] conv1 <- data
I0505 14:25:38.081980  7334 net.cpp:409] conv1 -> conv1
I0505 14:25:38.084372  7334 net.cpp:144] Setting up conv1
I0505 14:25:38.084385  7334 net.cpp:151] Top shape: 20 64 20 20 (512000)
I0505 14:25:38.084389  7334 net.cpp:159] Memory required for data: 2080080
I0505 14:25:38.084399  7334 layer_factory.hpp:77] Creating layer relu1
I0505 14:25:38.084406  7334 net.cpp:94] Creating Layer relu1
I0505 14:25:38.084410  7334 net.cpp:435] relu1 <- conv1
I0505 14:25:38.084414  7334 net.cpp:396] relu1 -> conv1 (in-place)
I0505 14:25:38.084421  7334 net.cpp:144] Setting up relu1
I0505 14:25:38.084426  7334 net.cpp:151] Top shape: 20 64 20 20 (512000)
I0505 14:25:38.084429  7334 net.cpp:159] Memory required for data: 4128080
I0505 14:25:38.084432  7334 layer_factory.hpp:77] Creating layer pool1
I0505 14:25:38.084439  7334 net.cpp:94] Creating Layer pool1
I0505 14:25:38.084441  7334 net.cpp:435] pool1 <- conv1
I0505 14:25:38.084451  7334 net.cpp:409] pool1 -> pool1
I0505 14:25:38.084501  7334 net.cpp:144] Setting up pool1
I0505 14:25:38.084508  7334 net.cpp:151] Top shape: 20 64 10 10 (128000)
I0505 14:25:38.084511  7334 net.cpp:159] Memory required for data: 4640080
I0505 14:25:38.084514  7334 layer_factory.hpp:77] Creating layer conv2
I0505 14:25:38.084522  7334 net.cpp:94] Creating Layer conv2
I0505 14:25:38.084527  7334 net.cpp:435] conv2 <- pool1
I0505 14:25:38.084532  7334 net.cpp:409] conv2 -> conv2
I0505 14:25:38.095054  7334 net.cpp:144] Setting up conv2
I0505 14:25:38.095070  7334 net.cpp:151] Top shape: 20 128 10 10 (256000)
I0505 14:25:38.095074  7334 net.cpp:159] Memory required for data: 5664080
I0505 14:25:38.095083  7334 layer_factory.hpp:77] Creating layer relu2
I0505 14:25:38.095089  7334 net.cpp:94] Creating Layer relu2
I0505 14:25:38.095093  7334 net.cpp:435] relu2 <- conv2
I0505 14:25:38.095098  7334 net.cpp:396] relu2 -> conv2 (in-place)
I0505 14:25:38.095104  7334 net.cpp:144] Setting up relu2
I0505 14:25:38.095109  7334 net.cpp:151] Top shape: 20 128 10 10 (256000)
I0505 14:25:38.095113  7334 net.cpp:159] Memory required for data: 6688080
I0505 14:25:38.095115  7334 layer_factory.hpp:77] Creating layer conv3
I0505 14:25:38.095122  7334 net.cpp:94] Creating Layer conv3
I0505 14:25:38.095125  7334 net.cpp:435] conv3 <- conv2
I0505 14:25:38.095130  7334 net.cpp:409] conv3 -> conv3
I0505 14:25:38.112606  7334 net.cpp:144] Setting up conv3
I0505 14:25:38.112620  7334 net.cpp:151] Top shape: 20 128 10 10 (256000)
I0505 14:25:38.112624  7334 net.cpp:159] Memory required for data: 7712080
I0505 14:25:38.112633  7334 layer_factory.hpp:77] Creating layer relu3
I0505 14:25:38.112639  7334 net.cpp:94] Creating Layer relu3
I0505 14:25:38.112643  7334 net.cpp:435] relu3 <- conv3
I0505 14:25:38.112648  7334 net.cpp:396] relu3 -> conv3 (in-place)
I0505 14:25:38.112654  7334 net.cpp:144] Setting up relu3
I0505 14:25:38.112659  7334 net.cpp:151] Top shape: 20 128 10 10 (256000)
I0505 14:25:38.112663  7334 net.cpp:159] Memory required for data: 8736080
I0505 14:25:38.112665  7334 layer_factory.hpp:77] Creating layer pool3
I0505 14:25:38.112671  7334 net.cpp:94] Creating Layer pool3
I0505 14:25:38.112674  7334 net.cpp:435] pool3 <- conv3
I0505 14:25:38.112679  7334 net.cpp:409] pool3 -> pool3
I0505 14:25:38.112717  7334 net.cpp:144] Setting up pool3
I0505 14:25:38.112725  7334 net.cpp:151] Top shape: 20 128 5 5 (64000)
I0505 14:25:38.112727  7334 net.cpp:159] Memory required for data: 8992080
I0505 14:25:38.112730  7334 layer_factory.hpp:77] Creating layer ip1
I0505 14:25:38.112737  7334 net.cpp:94] Creating Layer ip1
I0505 14:25:38.112741  7334 net.cpp:435] ip1 <- pool3
I0505 14:25:38.112746  7334 net.cpp:409] ip1 -> ip1
I0505 14:25:38.153388  7334 net.cpp:144] Setting up ip1
I0505 14:25:38.153414  7334 net.cpp:151] Top shape: 20 512 (10240)
I0505 14:25:38.153419  7334 net.cpp:159] Memory required for data: 9033040
I0505 14:25:38.153426  7334 layer_factory.hpp:77] Creating layer ip2
I0505 14:25:38.153436  7334 net.cpp:94] Creating Layer ip2
I0505 14:25:38.153440  7334 net.cpp:435] ip2 <- ip1
I0505 14:25:38.153446  7334 net.cpp:409] ip2 -> ip2
I0505 14:25:38.156684  7334 net.cpp:144] Setting up ip2
I0505 14:25:38.156695  7334 net.cpp:151] Top shape: 20 256 (5120)
I0505 14:25:38.156698  7334 net.cpp:159] Memory required for data: 9053520
I0505 14:25:38.156707  7334 layer_factory.hpp:77] Creating layer ip3
I0505 14:25:38.156713  7334 net.cpp:94] Creating Layer ip3
I0505 14:25:38.156715  7334 net.cpp:435] ip3 <- ip2
I0505 14:25:38.156720  7334 net.cpp:409] ip3 -> ip3
I0505 14:25:38.157156  7334 net.cpp:144] Setting up ip3
I0505 14:25:38.157166  7334 net.cpp:151] Top shape: 20 50 (1000)
I0505 14:25:38.157169  7334 net.cpp:159] Memory required for data: 9057520
I0505 14:25:38.157174  7334 layer_factory.hpp:77] Creating layer loss
I0505 14:25:38.157181  7334 net.cpp:94] Creating Layer loss
I0505 14:25:38.157183  7334 net.cpp:435] loss <- ip3
I0505 14:25:38.157187  7334 net.cpp:435] loss <- label
I0505 14:25:38.157192  7334 net.cpp:409] loss -> loss
I0505 14:25:38.157207  7334 layer_factory.hpp:77] Creating layer loss
…
I0505 14:25:38.157665  7334 solver.cpp:181] Creating test net (#0) specified by net file: ./protocol/dis_5_400_dimension.protocol_distribution
I0505 14:25:38.157690  7334 net.cpp:323] The NetState phase (1) differed from the phase (0) specified by a rule in layer parameters
I0505 14:25:38.157771  7334 net.cpp:52] Initializing net from parameters: 
state {
  phase: TEST
}
layer {
  name: "intercept"
  type: "HDF5Data"
  top: "data"
  top: "label"
  include {
    phase: TEST
  }
  hdf5_data_param {
    source: "/home/purduethu/scratch/radon/d/deng106/CNNStatisticalModel/distributions/input/5_distributions_400_sample_size_test-distributions-path.txt"
    batch_size: 20
  }
}
layer {
  name: "conv1"
  type: "Convolution"
  bottom: "data"
  top: "conv1"
  param {
    lr_mult: 1
  }
  param {
    lr_mult: 2
  }
  convolution_param {
    num_output: 64
    pad: 2
    kernel_size: 5
    stride: 1
    weight_filler {
      type: "gaussian"
      std: 0.0001
    }
    bias_filler {
      type: "constant"
    }
  }
}
layer {
  name: "relu1"
  type: "ReLU"
  bottom: "conv1"
  top: "conv1"
}
layer {
  name: "pool1"
  type: "Pooling"
  bottom: "conv1"
  top: "pool1"
  pooling_param {
    pool: MAX
    kernel_size: 3
    stride: 2
  }
}
layer {
  name: "conv2"
  type: "Convolution"
  bottom: "pool1"
  top: "conv2"
  param {
    lr_mult: 1
  }
  param {
    lr_mult: 2
  }
  convolution_param {
    num_output: 128
    pad: 2
    kernel_size: 5
    stride: 1
    weight_filler {
      type: "gaussian"
      std: 0.01
    }
    bias_filler {
      type: "constant"
    }
  }
}
layer {
  name: "relu2"
  type: "ReLU"
  bottom: "conv2"
  top: "conv2"
}
layer {
  name: "conv3"
  type: "Convolution"
  bottom: "conv2"
  top: "conv3"
  param {
    lr_mult: 1
  }
  param {
    lr_mult: 2
  }
  convolution_param {
    num_output: 128
    pad: 2
    kernel_size: 5
    stride: 1
    weight_filler {
      type: "gaussian"
      std: 0.01
    }
    bias_filler {
      type: "constant"
    }
  }
}
layer {
  name: "relu3"
  type: "ReLU"
  bottom: "conv3"
  top: "conv3"
}
layer {
  name: "pool3"
  type: "Pooling"
  bottom: "conv3"
  top: "pool3"
  pooling_param {
    pool: AVE
    kernel_size: 3
    stride: 2
  }
}
layer {
  name: "ip1"
  type: "InnerProduct"
  bottom: "pool3"
  top: "ip1"
  param {
    lr_mult: 1
  }
  param {
    lr_mult: 2
  }
  inner_product_param {
    num_output: 512
    weight_filler {
      type: "gaussian"
      std: 0.1
    }
    bias_filler {
      type: "constant"
    }
  }
}
layer {
  name: "ip2"
  type: "InnerProduct"
  bottom: "ip1"
  top: "ip2"
  param {
    lr_mult: 1
  }
  param {
    lr_mult: 2
  }
  inner_product_param {
    num_output: 256
    weight_filler {
      type: "gaussian"
      std: 0.1
    }
    bias_filler {
      type: "constant"
    }
  }
}
layer {
  name: "ip3"
  type: "InnerProduct"
  bottom: "ip2"
  top: "ip3"
  param {
    lr_mult: 1
  }
  param {
    lr_mult: 2
  }
  inner_product_param {
    num_output: 50
    weight_filler {
      type: "gaussian"
      std: 0.1
    }
    bias_filler {
      type: "constant"
    }
  }
}
layer {
  name: "accuracy"
  type: "Accuracy"
  bottom: "ip3"
  bottom: "label"
  top: "accuracy"
  include {
    phase: TEST
  }
}
layer {
  name: "loss"
  type: "SoftmaxWithLoss"
  bottom: "ip3"
  bottom: "label"
  top: "loss"
}
I0505 14:25:38.157829  7334 layer_factory.hpp:77] Creating layer intercept
I0505 14:25:38.157837  7334 net.cpp:94] Creating Layer intercept
I0505 14:25:38.157841  7334 net.cpp:409] intercept -> data
I0505 14:25:38.157848  7334 net.cpp:409] intercept -> label
I0505 14:25:38.157855  7334 hdf5_data_layer.cpp:79] Loading list of HDF5 filenames from: /home/purduethu/scratch/radon/d/deng106/CNNStatisticalModel/distributions/input/5_distributions_400_sample_size_test-distributions-path.txt
I0505 14:25:38.157874  7334 hdf5_data_layer.cpp:93] Number of HDF5 files: 1
I0505 14:25:38.174346  7334 net.cpp:144] Setting up intercept
I0505 14:25:38.174381  7334 net.cpp:151] Top shape: 20 1 20 20 (8000)
I0505 14:25:38.174386  7334 net.cpp:151] Top shape: 20 (20)
I0505 14:25:38.174388  7334 net.cpp:159] Memory required for data: 32080
I0505 14:25:38.174394  7334 layer_factory.hpp:77] Creating layer label_intercept_1_split
I0505 14:25:38.174412  7334 net.cpp:94] Creating Layer label_intercept_1_split
I0505 14:25:38.174417  7334 net.cpp:435] label_intercept_1_split <- label
I0505 14:25:38.174423  7334 net.cpp:409] label_intercept_1_split -> label_intercept_1_split_0
I0505 14:25:38.174432  7334 net.cpp:409] label_intercept_1_split -> label_intercept_1_split_1
I0505 14:25:38.174474  7334 net.cpp:144] Setting up label_intercept_1_split
I0505 14:25:38.174480  7334 net.cpp:151] Top shape: 20 (20)
I0505 14:25:38.174484  7334 net.cpp:151] Top shape: 20 (20)
I0505 14:25:38.174486  7334 net.cpp:159] Memory required for data: 32240
I0505 14:25:38.174489  7334 layer_factory.hpp:77] Creating layer conv1
I0505 14:25:38.174500  7334 net.cpp:94] Creating Layer conv1
I0505 14:25:38.174504  7334 net.cpp:435] conv1 <- data
I0505 14:25:38.174509  7334 net.cpp:409] conv1 -> conv1
I0505 14:25:38.175351  7334 net.cpp:144] Setting up conv1
I0505 14:25:38.175367  7334 net.cpp:151] Top shape: 20 64 20 20 (512000)
I0505 14:25:38.175371  7334 net.cpp:159] Memory required for data: 2080240
I0505 14:25:38.175382  7334 layer_factory.hpp:77] Creating layer relu1
I0505 14:25:38.175390  7334 net.cpp:94] Creating Layer relu1
I0505 14:25:38.175392  7334 net.cpp:435] relu1 <- conv1
I0505 14:25:38.175397  7334 net.cpp:396] relu1 -> conv1 (in-place)
I0505 14:25:38.175405  7334 net.cpp:144] Setting up relu1
I0505 14:25:38.175408  7334 net.cpp:151] Top shape: 20 64 20 20 (512000)
I0505 14:25:38.175411  7334 net.cpp:159] Memory required for data: 4128240
I0505 14:25:38.175415  7334 layer_factory.hpp:77] Creating layer pool1
I0505 14:25:38.175421  7334 net.cpp:94] Creating Layer pool1
I0505 14:25:38.175424  7334 net.cpp:435] pool1 <- conv1
I0505 14:25:38.175428  7334 net.cpp:409] pool1 -> pool1
I0505 14:25:38.175480  7334 net.cpp:144] Setting up pool1
I0505 14:25:38.175487  7334 net.cpp:151] Top shape: 20 64 10 10 (128000)
I0505 14:25:38.175490  7334 net.cpp:159] Memory required for data: 4640240
I0505 14:25:38.175493  7334 layer_factory.hpp:77] Creating layer conv2
I0505 14:25:38.175501  7334 net.cpp:94] Creating Layer conv2
I0505 14:25:38.175504  7334 net.cpp:435] conv2 <- pool1
I0505 14:25:38.175509  7334 net.cpp:409] conv2 -> conv2
I0505 14:25:38.183135  7334 net.cpp:144] Setting up conv2
I0505 14:25:38.183151  7334 net.cpp:151] Top shape: 20 128 10 10 (256000)
I0505 14:25:38.183153  7334 net.cpp:159] Memory required for data: 5664240
I0505 14:25:38.183162  7334 layer_factory.hpp:77] Creating layer relu2
I0505 14:25:38.183174  7334 net.cpp:94] Creating Layer relu2
I0505 14:25:38.183178  7334 net.cpp:435] relu2 <- conv2
I0505 14:25:38.183183  7334 net.cpp:396] relu2 -> conv2 (in-place)
I0505 14:25:38.183190  7334 net.cpp:144] Setting up relu2
I0505 14:25:38.183194  7334 net.cpp:151] Top shape: 20 128 10 10 (256000)
I0505 14:25:38.183197  7334 net.cpp:159] Memory required for data: 6688240
I0505 14:25:38.183200  7334 layer_factory.hpp:77] Creating layer conv3
I0505 14:25:38.183208  7334 net.cpp:94] Creating Layer conv3
I0505 14:25:38.183212  7334 net.cpp:435] conv3 <- conv2
I0505 14:25:38.183215  7334 net.cpp:409] conv3 -> conv3
I0505 14:25:38.196877  7334 net.cpp:144] Setting up conv3
I0505 14:25:38.196892  7334 net.cpp:151] Top shape: 20 128 10 10 (256000)
I0505 14:25:38.196895  7334 net.cpp:159] Memory required for data: 7712240
I0505 14:25:38.196904  7334 layer_factory.hpp:77] Creating layer relu3
I0505 14:25:38.196912  7334 net.cpp:94] Creating Layer relu3
I0505 14:25:38.196915  7334 net.cpp:435] relu3 <- conv3
I0505 14:25:38.196920  7334 net.cpp:396] relu3 -> conv3 (in-place)
I0505 14:25:38.196928  7334 net.cpp:144] Setting up relu3
I0505 14:25:38.196931  7334 net.cpp:151] Top shape: 20 128 10 10 (256000)
I0505 14:25:38.196934  7334 net.cpp:159] Memory required for data: 8736240
I0505 14:25:38.196938  7334 layer_factory.hpp:77] Creating layer pool3
I0505 14:25:38.196943  7334 net.cpp:94] Creating Layer pool3
I0505 14:25:38.196945  7334 net.cpp:435] pool3 <- conv3
I0505 14:25:38.196949  7334 net.cpp:409] pool3 -> pool3
I0505 14:25:38.196985  7334 net.cpp:144] Setting up pool3
I0505 14:25:38.196992  7334 net.cpp:151] Top shape: 20 128 5 5 (64000)
I0505 14:25:38.196995  7334 net.cpp:159] Memory required for data: 8992240
I0505 14:25:38.196998  7334 layer_factory.hpp:77] Creating layer ip1
I0505 14:25:38.197005  7334 net.cpp:94] Creating Layer ip1
I0505 14:25:38.197008  7334 net.cpp:435] ip1 <- pool3
I0505 14:25:38.197013  7334 net.cpp:409] ip1 -> ip1
I0505 14:25:38.237695  7334 net.cpp:144] Setting up ip1
I0505 14:25:38.237713  7334 net.cpp:151] Top shape: 20 512 (10240)
I0505 14:25:38.237717  7334 net.cpp:159] Memory required for data: 9033200
I0505 14:25:38.237725  7334 layer_factory.hpp:77] Creating layer ip2
I0505 14:25:38.237733  7334 net.cpp:94] Creating Layer ip2
I0505 14:25:38.237737  7334 net.cpp:435] ip2 <- ip1
I0505 14:25:38.237743  7334 net.cpp:409] ip2 -> ip2
I0505 14:25:38.240984  7334 net.cpp:144] Setting up ip2
I0505 14:25:38.240994  7334 net.cpp:151] Top shape: 20 256 (5120)
I0505 14:25:38.240998  7334 net.cpp:159] Memory required for data: 9053680
I0505 14:25:38.241004  7334 layer_factory.hpp:77] Creating layer ip3
I0505 14:25:38.241011  7334 net.cpp:94] Creating Layer ip3
I0505 14:25:38.241014  7334 net.cpp:435] ip3 <- ip2
I0505 14:25:38.241019  7334 net.cpp:409] ip3 -> ip3
I0505 14:25:38.241463  7334 net.cpp:144] Setting up ip3
I0505 14:25:38.241472  7334 net.cpp:151] Top shape: 20 50 (1000)
I0505 14:25:38.241474  7334 net.cpp:159] Memory required for data: 9057680
I0505 14:25:38.241479  7334 layer_factory.hpp:77] Creating layer ip3_ip3_0_split
I0505 14:25:38.241485  7334 net.cpp:94] Creating Layer ip3_ip3_0_split
I0505 14:25:38.241488  7334 net.cpp:435] ip3_ip3_0_split <- ip3
I0505 14:25:38.241492  7334 net.cpp:409] ip3_ip3_0_split -> ip3_ip3_0_split_0
I0505 14:25:38.241498  7334 net.cpp:409] ip3_ip3_0_split -> ip3_ip3_0_split_1
I0505 14:25:38.241539  7334 net.cpp:144] Setting up ip3_ip3_0_split
I0505 14:25:38.241545  7334 net.cpp:151] Top shape: 20 50 (1000)
I0505 14:25:38.241549  7334 net.cpp:151] Top shape: 20 50 (1000)
I0505 14:25:38.241551  7334 net.cpp:159] Memory required for data: 9065680
I0505 14:25:38.241554  7334 layer_factory.hpp:77] Creating layer accuracy
I0505 14:25:38.241560  7334 net.cpp:94] Creating Layer accuracy
I0505 14:25:38.241564  7334 net.cpp:435] accuracy <- ip3_ip3_0_split_0
I0505 14:25:38.241567  7334 net.cpp:435] accuracy <- label_intercept_1_split_0
I0505 14:25:38.241571  7334 net.cpp:409] accuracy -> accuracy
…
