…
I0501 18:06:48.204866 13821 net.cpp:323] The NetState phase (0) differed from the phase (1) specified by a rule in layer intercept
I0501 18:06:48.204885 13821 net.cpp:323] The NetState phase (0) differed from the phase (1) specified by a rule in layer loss
I0501 18:06:48.204979 13821 net.cpp:52] Initializing net from parameters: 
state {
  phase: TRAIN
}
layer {
  name: "parameters"
  type: "HDF5Data"
  top: "data"
  top: "label"
  include {
    phase: TRAIN
  }
  hdf5_data_param {
    source: "/home/purduethu/scratch/radon/d/deng106/CNNStatisticalModel/distributions/input/5_distributions_100_sample_size_train-parameters-path.txt"
    batch_size: 20
  }
}
layer {
  name: "conv1"
  type: "Convolution"
  bottom: "data"
  top: "conv1"
  param {
    lr_mult: 1
  }
  param {
    lr_mult: 2
  }
  convolution_param {
    num_output: 64
    pad: 2
    kernel_size: 5
    stride: 1
    weight_filler {
      type: "gaussian"
      std: 0.0001
    }
    bias_filler {
      type: "constant"
    }
  }
}
layer {
  name: "relu1"
  type: "ReLU"
  bottom: "conv1"
  top: "conv1"
}
layer {
  name: "conv2"
  type: "Convolution"
  bottom: "conv1"
  top: "conv2"
  param {
    lr_mult: 1
  }
  param {
    lr_mult: 2
  }
  convolution_param {
    num_output: 64
    pad: 2
    kernel_size: 5
    stride: 1
    weight_filler {
      type: "gaussian"
      std: 0.01
    }
    bias_filler {
      type: "constant"
    }
  }
}
layer {
  name: "relu2"
  type: "ReLU"
  bottom: "conv2"
  top: "conv2"
}
layer {
  name: "pool2"
  type: "Pooling"
  bottom: "conv2"
  top: "pool2"
  pooling_param {
    pool: MAX
    kernel_size: 3
    stride: 2
  }
}
layer {
  name: "conv3"
  type: "Convolution"
  bottom: "pool2"
  top: "conv3"
  param {
    lr_mult: 1
  }
  param {
    lr_mult: 2
  }
  convolution_param {
    num_output: 64
    pad: 2
    kernel_size: 5
    stride: 1
    weight_filler {
      type: "gaussian"
      std: 0.01
    }
    bias_filler {
      type: "constant"
    }
  }
}
layer {
  name: "relu3"
  type: "ReLU"
  bottom: "conv3"
  top: "conv3"
}
layer {
  name: "conv4"
  type: "Convolution"
  bottom: "conv3"
  top: "conv4"
  param {
    lr_mult: 1
  }
  param {
    lr_mult: 2
  }
  convolution_param {
    num_output: 64
    pad: 2
    kernel_size: 5
    stride: 1
    weight_filler {
      type: "gaussian"
      std: 0.01
    }
    bias_filler {
      type: "constant"
    }
  }
}
layer {
  name: "relu4"
  type: "ReLU"
  bottom: "conv4"
  top: "conv4"
}
layer {
  name: "conv5"
  type: "Convolution"
  bottom: "conv4"
  top: "conv5"
  param {
    lr_mult: 1
  }
  param {
    lr_mult: 2
  }
  convolution_param {
    num_output: 64
    pad: 2
    kernel_size: 5
    stride: 1
    weight_filler {
      type: "gaussian"
      std: 0.01
    }
    bias_filler {
      type: "constant"
    }
  }
}
layer {
  name: "relu5"
  type: "ReLU"
  bottom: "conv5"
  top: "conv5"
}
layer {
  name: "pool5"
  type: "Pooling"
  bottom: "conv5"
  top: "pool5"
  pooling_param {
    pool: AVE
    kernel_size: 3
    stride: 2
  }
}
layer {
  name: "ip1"
  type: "InnerProduct"
  bottom: "pool5"
  top: "ip1"
  param {
    lr_mult: 1
  }
  param {
    lr_mult: 2
  }
  inner_product_param {
    num_output: 64
    weight_filler {
      type: "gaussian"
      std: 0.1
    }
    bias_filler {
      type: "constant"
    }
  }
}
layer {
  name: "ip2"
  type: "InnerProduct"
  bottom: "ip1"
  top: "ip2"
  param {
    lr_mult: 1
  }
  param {
    lr_mult: 2
  }
  inner_product_param {
    num_output: 64
    weight_filler {
      type: "gaussian"
      std: 0.1
    }
    bias_filler {
      type: "constant"
    }
  }
}
layer {
  name: "ip3"
  type: "InnerProduct"
  bottom: "ip2"
  top: "ip3"
  param {
    lr_mult: 1
  }
  param {
    lr_mult: 2
  }
  inner_product_param {
    num_output: 1
    weight_filler {
      type: "gaussian"
      std: 0.1
    }
    bias_filler {
      type: "constant"
    }
  }
}
layer {
  name: "loss"
  type: "HuberLoss"
  bottom: "ip3"
  bottom: "label"
  top: "loss"
  include {
    phase: TRAIN
  }
}
I0501 18:06:48.205036 13821 layer_factory.hpp:77] Creating layer parameters
I0501 18:06:48.205054 13821 net.cpp:94] Creating Layer parameters
I0501 18:06:48.205060 13821 net.cpp:409] parameters -> data
I0501 18:06:48.205070 13821 net.cpp:409] parameters -> label
I0501 18:06:48.205076 13821 hdf5_data_layer.cpp:79] Loading list of HDF5 filenames from: /home/purduethu/scratch/radon/d/deng106/CNNStatisticalModel/distributions/input/5_distributions_100_sample_size_train-parameters-path.txt
I0501 18:06:48.205092 13821 hdf5_data_layer.cpp:93] Number of HDF5 files: 1
I0501 18:06:48.205652 13821 hdf5.cpp:32] Datatype class: H5T_FLOAT
I0501 18:06:48.224100 13821 net.cpp:144] Setting up parameters
I0501 18:06:48.224131 13821 net.cpp:151] Top shape: 20 1 10 10 (2000)
I0501 18:06:48.224138 13821 net.cpp:151] Top shape: 20 (20)
I0501 18:06:48.224141 13821 net.cpp:159] Memory required for data: 8080
I0501 18:06:48.224148 13821 layer_factory.hpp:77] Creating layer conv1
I0501 18:06:48.224169 13821 net.cpp:94] Creating Layer conv1
I0501 18:06:48.224174 13821 net.cpp:435] conv1 <- data
I0501 18:06:48.224181 13821 net.cpp:409] conv1 -> conv1
I0501 18:06:48.228356 13821 net.cpp:144] Setting up conv1
I0501 18:06:48.228374 13821 net.cpp:151] Top shape: 20 64 10 10 (128000)
I0501 18:06:48.228379 13821 net.cpp:159] Memory required for data: 520080
I0501 18:06:48.228389 13821 layer_factory.hpp:77] Creating layer relu1
I0501 18:06:48.228399 13821 net.cpp:94] Creating Layer relu1
I0501 18:06:48.228402 13821 net.cpp:435] relu1 <- conv1
I0501 18:06:48.228407 13821 net.cpp:396] relu1 -> conv1 (in-place)
I0501 18:06:48.228420 13821 net.cpp:144] Setting up relu1
I0501 18:06:48.228425 13821 net.cpp:151] Top shape: 20 64 10 10 (128000)
I0501 18:06:48.228428 13821 net.cpp:159] Memory required for data: 1032080
I0501 18:06:48.228432 13821 layer_factory.hpp:77] Creating layer conv2
I0501 18:06:48.228441 13821 net.cpp:94] Creating Layer conv2
I0501 18:06:48.228446 13821 net.cpp:435] conv2 <- conv1
I0501 18:06:48.228451 13821 net.cpp:409] conv2 -> conv2
I0501 18:06:48.234561 13821 net.cpp:144] Setting up conv2
I0501 18:06:48.234576 13821 net.cpp:151] Top shape: 20 64 10 10 (128000)
I0501 18:06:48.234581 13821 net.cpp:159] Memory required for data: 1544080
I0501 18:06:48.234591 13821 layer_factory.hpp:77] Creating layer relu2
I0501 18:06:48.234597 13821 net.cpp:94] Creating Layer relu2
I0501 18:06:48.234601 13821 net.cpp:435] relu2 <- conv2
I0501 18:06:48.234606 13821 net.cpp:396] relu2 -> conv2 (in-place)
I0501 18:06:48.234613 13821 net.cpp:144] Setting up relu2
I0501 18:06:48.234618 13821 net.cpp:151] Top shape: 20 64 10 10 (128000)
I0501 18:06:48.234622 13821 net.cpp:159] Memory required for data: 2056080
I0501 18:06:48.234625 13821 layer_factory.hpp:77] Creating layer pool2
I0501 18:06:48.234638 13821 net.cpp:94] Creating Layer pool2
I0501 18:06:48.234642 13821 net.cpp:435] pool2 <- conv2
I0501 18:06:48.234647 13821 net.cpp:409] pool2 -> pool2
I0501 18:06:48.234699 13821 net.cpp:144] Setting up pool2
I0501 18:06:48.234707 13821 net.cpp:151] Top shape: 20 64 5 5 (32000)
I0501 18:06:48.234711 13821 net.cpp:159] Memory required for data: 2184080
I0501 18:06:48.234715 13821 layer_factory.hpp:77] Creating layer conv3
I0501 18:06:48.234724 13821 net.cpp:94] Creating Layer conv3
I0501 18:06:48.234729 13821 net.cpp:435] conv3 <- pool2
I0501 18:06:48.234733 13821 net.cpp:409] conv3 -> conv3
I0501 18:06:48.239672 13821 net.cpp:144] Setting up conv3
I0501 18:06:48.239686 13821 net.cpp:151] Top shape: 20 64 5 5 (32000)
I0501 18:06:48.239691 13821 net.cpp:159] Memory required for data: 2312080
I0501 18:06:48.239699 13821 layer_factory.hpp:77] Creating layer relu3
I0501 18:06:48.239706 13821 net.cpp:94] Creating Layer relu3
I0501 18:06:48.239709 13821 net.cpp:435] relu3 <- conv3
I0501 18:06:48.239714 13821 net.cpp:396] relu3 -> conv3 (in-place)
I0501 18:06:48.239722 13821 net.cpp:144] Setting up relu3
I0501 18:06:48.239727 13821 net.cpp:151] Top shape: 20 64 5 5 (32000)
I0501 18:06:48.239730 13821 net.cpp:159] Memory required for data: 2440080
I0501 18:06:48.239734 13821 layer_factory.hpp:77] Creating layer conv4
I0501 18:06:48.239742 13821 net.cpp:94] Creating Layer conv4
I0501 18:06:48.239747 13821 net.cpp:435] conv4 <- conv3
I0501 18:06:48.239753 13821 net.cpp:409] conv4 -> conv4
I0501 18:06:48.244212 13821 net.cpp:144] Setting up conv4
I0501 18:06:48.244226 13821 net.cpp:151] Top shape: 20 64 5 5 (32000)
I0501 18:06:48.244230 13821 net.cpp:159] Memory required for data: 2568080
I0501 18:06:48.244237 13821 layer_factory.hpp:77] Creating layer relu4
I0501 18:06:48.244243 13821 net.cpp:94] Creating Layer relu4
I0501 18:06:48.244247 13821 net.cpp:435] relu4 <- conv4
I0501 18:06:48.244253 13821 net.cpp:396] relu4 -> conv4 (in-place)
I0501 18:06:48.244261 13821 net.cpp:144] Setting up relu4
I0501 18:06:48.244266 13821 net.cpp:151] Top shape: 20 64 5 5 (32000)
I0501 18:06:48.244268 13821 net.cpp:159] Memory required for data: 2696080
I0501 18:06:48.244272 13821 layer_factory.hpp:77] Creating layer conv5
I0501 18:06:48.244280 13821 net.cpp:94] Creating Layer conv5
I0501 18:06:48.244284 13821 net.cpp:435] conv5 <- conv4
I0501 18:06:48.244289 13821 net.cpp:409] conv5 -> conv5
I0501 18:06:48.249214 13821 net.cpp:144] Setting up conv5
I0501 18:06:48.249228 13821 net.cpp:151] Top shape: 20 64 5 5 (32000)
I0501 18:06:48.249233 13821 net.cpp:159] Memory required for data: 2824080
I0501 18:06:48.249241 13821 layer_factory.hpp:77] Creating layer relu5
I0501 18:06:48.249248 13821 net.cpp:94] Creating Layer relu5
I0501 18:06:48.249253 13821 net.cpp:435] relu5 <- conv5
I0501 18:06:48.249258 13821 net.cpp:396] relu5 -> conv5 (in-place)
I0501 18:06:48.249265 13821 net.cpp:144] Setting up relu5
I0501 18:06:48.249269 13821 net.cpp:151] Top shape: 20 64 5 5 (32000)
I0501 18:06:48.249274 13821 net.cpp:159] Memory required for data: 2952080
I0501 18:06:48.249276 13821 layer_factory.hpp:77] Creating layer pool5
I0501 18:06:48.249284 13821 net.cpp:94] Creating Layer pool5
I0501 18:06:48.249287 13821 net.cpp:435] pool5 <- conv5
I0501 18:06:48.249292 13821 net.cpp:409] pool5 -> pool5
I0501 18:06:48.249330 13821 net.cpp:144] Setting up pool5
I0501 18:06:48.249338 13821 net.cpp:151] Top shape: 20 64 2 2 (5120)
I0501 18:06:48.249342 13821 net.cpp:159] Memory required for data: 2972560
I0501 18:06:48.249346 13821 layer_factory.hpp:77] Creating layer ip1
I0501 18:06:48.249356 13821 net.cpp:94] Creating Layer ip1
I0501 18:06:48.249359 13821 net.cpp:435] ip1 <- pool5
I0501 18:06:48.249366 13821 net.cpp:409] ip1 -> ip1
I0501 18:06:48.250715 13821 net.cpp:144] Setting up ip1
I0501 18:06:48.250727 13821 net.cpp:151] Top shape: 20 64 (1280)
I0501 18:06:48.250731 13821 net.cpp:159] Memory required for data: 2977680
I0501 18:06:48.250738 13821 layer_factory.hpp:77] Creating layer ip2
I0501 18:06:48.250746 13821 net.cpp:94] Creating Layer ip2
I0501 18:06:48.250754 13821 net.cpp:435] ip2 <- ip1
I0501 18:06:48.250761 13821 net.cpp:409] ip2 -> ip2
I0501 18:06:48.250977 13821 net.cpp:144] Setting up ip2
I0501 18:06:48.250986 13821 net.cpp:151] Top shape: 20 64 (1280)
I0501 18:06:48.250989 13821 net.cpp:159] Memory required for data: 2982800
I0501 18:06:48.250995 13821 layer_factory.hpp:77] Creating layer ip3
I0501 18:06:48.251001 13821 net.cpp:94] Creating Layer ip3
I0501 18:06:48.251005 13821 net.cpp:435] ip3 <- ip2
I0501 18:06:48.251011 13821 net.cpp:409] ip3 -> ip3
I0501 18:06:48.251119 13821 net.cpp:144] Setting up ip3
I0501 18:06:48.251127 13821 net.cpp:151] Top shape: 20 1 (20)
I0501 18:06:48.251130 13821 net.cpp:159] Memory required for data: 2982880
I0501 18:06:48.251135 13821 layer_factory.hpp:77] Creating layer loss
I0501 18:06:48.251144 13821 net.cpp:94] Creating Layer loss
I0501 18:06:48.251148 13821 net.cpp:435] loss <- ip3
I0501 18:06:48.251153 13821 net.cpp:435] loss <- label
I0501 18:06:48.251157 13821 net.cpp:409] loss -> loss
I0501 18:06:48.251207 13821 net.cpp:144] Setting up loss
…
I0501 18:06:48.275732 13821 net.cpp:323] The NetState phase (0) differed from the phase (1) specified by a rule in layer intercept
I0501 18:06:48.275748 13821 net.cpp:323] The NetState phase (0) differed from the phase (1) specified by a rule in layer accuracy
I0501 18:06:48.275849 13821 net.cpp:52] Initializing net from parameters: 
state {
  phase: TRAIN
}
layer {
  name: "parameters"
  type: "HDF5Data"
  top: "data"
  top: "label"
  include {
    phase: TRAIN
  }
  hdf5_data_param {
    source: "/home/purduethu/scratch/radon/d/deng106/CNNStatisticalModel/distributions/input/5_distributions_100_sample_size_train-distributions-path.txt"
    batch_size: 20
  }
}
layer {
  name: "conv1"
  type: "Convolution"
  bottom: "data"
  top: "conv1"
  param {
    lr_mult: 1
  }
  param {
    lr_mult: 2
  }
  convolution_param {
    num_output: 64
    pad: 2
    kernel_size: 5
    stride: 1
    weight_filler {
      type: "gaussian"
      std: 0.0001
    }
    bias_filler {
      type: "constant"
    }
  }
}
layer {
  name: "relu1"
  type: "ReLU"
  bottom: "conv1"
  top: "conv1"
}
layer {
  name: "conv2"
  type: "Convolution"
  bottom: "conv1"
  top: "conv2"
  param {
    lr_mult: 1
  }
  param {
    lr_mult: 2
  }
  convolution_param {
    num_output: 64
    pad: 2
    kernel_size: 5
    stride: 1
    weight_filler {
      type: "gaussian"
      std: 0.01
    }
    bias_filler {
      type: "constant"
    }
  }
}
layer {
  name: "relu2"
  type: "ReLU"
  bottom: "conv2"
  top: "conv2"
}
layer {
  name: "pool2"
  type: "Pooling"
  bottom: "conv2"
  top: "pool2"
  pooling_param {
    pool: MAX
    kernel_size: 3
    stride: 2
  }
}
layer {
  name: "conv3"
  type: "Convolution"
  bottom: "pool2"
  top: "conv3"
  param {
    lr_mult: 1
  }
  param {
    lr_mult: 2
  }
  convolution_param {
    num_output: 64
    pad: 2
    kernel_size: 5
    stride: 1
    weight_filler {
      type: "gaussian"
      std: 0.01
    }
    bias_filler {
      type: "constant"
    }
  }
}
layer {
  name: "relu3"
  type: "ReLU"
  bottom: "conv3"
  top: "conv3"
}
layer {
  name: "conv4"
  type: "Convolution"
  bottom: "conv3"
  top: "conv4"
  param {
    lr_mult: 1
  }
  param {
    lr_mult: 2
  }
  convolution_param {
    num_output: 64
    pad: 2
    kernel_size: 5
    stride: 1
    weight_filler {
      type: "gaussian"
      std: 0.01
    }
    bias_filler {
      type: "constant"
    }
  }
}
layer {
  name: "relu4"
  type: "ReLU"
  bottom: "conv4"
  top: "conv4"
}
layer {
  name: "conv5"
  type: "Convolution"
  bottom: "conv4"
  top: "conv5"
  param {
    lr_mult: 1
  }
  param {
    lr_mult: 2
  }
  convolution_param {
    num_output: 64
    pad: 2
    kernel_size: 5
    stride: 1
    weight_filler {
      type: "gaussian"
      std: 0.01
    }
    bias_filler {
      type: "constant"
    }
  }
}
layer {
  name: "relu5"
  type: "ReLU"
  bottom: "conv5"
  top: "conv5"
}
layer {
  name: "pool5"
  type: "Pooling"
  bottom: "conv5"
  top: "pool5"
  pooling_param {
    pool: AVE
    kernel_size: 3
    stride: 2
  }
}
layer {
  name: "ip1"
  type: "InnerProduct"
  bottom: "pool5"
  top: "ip1"
  param {
    lr_mult: 1
  }
  param {
    lr_mult: 2
  }
  inner_product_param {
    num_output: 64
    weight_filler {
      type: "gaussian"
      std: 0.1
    }
    bias_filler {
      type: "constant"
    }
  }
}
layer {
  name: "ip2"
  type: "InnerProduct"
  bottom: "ip1"
  top: "ip2"
  param {
    lr_mult: 1
  }
  param {
    lr_mult: 2
  }
  inner_product_param {
    num_output: 64
    weight_filler {
      type: "gaussian"
      std: 0.1
    }
    bias_filler {
      type: "constant"
    }
  }
}
layer {
  name: "ip3"
  type: "InnerProduct"
  bottom: "ip2"
  top: "ip3"
  param {
    lr_mult: 1
  }
  param {
    lr_mult: 2
  }
  inner_product_param {
    num_output: 50
    weight_filler {
      type: "gaussian"
      std: 0.1
    }
    bias_filler {
      type: "constant"
    }
  }
}
layer {
  name: "loss"
  type: "SoftmaxWithLoss"
  bottom: "ip3"
  bottom: "label"
  top: "loss"
}
I0501 18:06:48.275905 13821 layer_factory.hpp:77] Creating layer parameters
I0501 18:06:48.275914 13821 net.cpp:94] Creating Layer parameters
I0501 18:06:48.275918 13821 net.cpp:409] parameters -> data
I0501 18:06:48.275926 13821 net.cpp:409] parameters -> label
I0501 18:06:48.275933 13821 hdf5_data_layer.cpp:79] Loading list of HDF5 filenames from: /home/purduethu/scratch/radon/d/deng106/CNNStatisticalModel/distributions/input/5_distributions_100_sample_size_train-distributions-path.txt
I0501 18:06:48.275949 13821 hdf5_data_layer.cpp:93] Number of HDF5 files: 1
I0501 18:06:48.292309 13821 hdf5.cpp:35] Datatype class: H5T_INTEGER
I0501 18:06:48.292765 13821 net.cpp:144] Setting up parameters
I0501 18:06:48.292783 13821 net.cpp:151] Top shape: 20 1 10 10 (2000)
I0501 18:06:48.292788 13821 net.cpp:151] Top shape: 20 (20)
I0501 18:06:48.292791 13821 net.cpp:159] Memory required for data: 8080
I0501 18:06:48.292798 13821 layer_factory.hpp:77] Creating layer conv1
I0501 18:06:48.292814 13821 net.cpp:94] Creating Layer conv1
I0501 18:06:48.292819 13821 net.cpp:435] conv1 <- data
I0501 18:06:48.292826 13821 net.cpp:409] conv1 -> conv1
I0501 18:06:48.294608 13821 net.cpp:144] Setting up conv1
I0501 18:06:48.294623 13821 net.cpp:151] Top shape: 20 64 10 10 (128000)
I0501 18:06:48.294627 13821 net.cpp:159] Memory required for data: 520080
I0501 18:06:48.294637 13821 layer_factory.hpp:77] Creating layer relu1
I0501 18:06:48.294646 13821 net.cpp:94] Creating Layer relu1
I0501 18:06:48.294649 13821 net.cpp:435] relu1 <- conv1
I0501 18:06:48.294654 13821 net.cpp:396] relu1 -> conv1 (in-place)
I0501 18:06:48.294662 13821 net.cpp:144] Setting up relu1
I0501 18:06:48.294668 13821 net.cpp:151] Top shape: 20 64 10 10 (128000)
I0501 18:06:48.294672 13821 net.cpp:159] Memory required for data: 1032080
I0501 18:06:48.294675 13821 layer_factory.hpp:77] Creating layer conv2
I0501 18:06:48.294683 13821 net.cpp:94] Creating Layer conv2
I0501 18:06:48.294687 13821 net.cpp:435] conv2 <- conv1
I0501 18:06:48.294692 13821 net.cpp:409] conv2 -> conv2
I0501 18:06:48.300137 13821 net.cpp:144] Setting up conv2
I0501 18:06:48.300151 13821 net.cpp:151] Top shape: 20 64 10 10 (128000)
I0501 18:06:48.300155 13821 net.cpp:159] Memory required for data: 1544080
I0501 18:06:48.300163 13821 layer_factory.hpp:77] Creating layer relu2
I0501 18:06:48.300170 13821 net.cpp:94] Creating Layer relu2
I0501 18:06:48.300175 13821 net.cpp:435] relu2 <- conv2
I0501 18:06:48.300180 13821 net.cpp:396] relu2 -> conv2 (in-place)
I0501 18:06:48.300187 13821 net.cpp:144] Setting up relu2
I0501 18:06:48.300192 13821 net.cpp:151] Top shape: 20 64 10 10 (128000)
I0501 18:06:48.300195 13821 net.cpp:159] Memory required for data: 2056080
I0501 18:06:48.300199 13821 layer_factory.hpp:77] Creating layer pool2
I0501 18:06:48.300205 13821 net.cpp:94] Creating Layer pool2
I0501 18:06:48.300209 13821 net.cpp:435] pool2 <- conv2
I0501 18:06:48.300213 13821 net.cpp:409] pool2 -> pool2
I0501 18:06:48.300263 13821 net.cpp:144] Setting up pool2
I0501 18:06:48.300271 13821 net.cpp:151] Top shape: 20 64 5 5 (32000)
I0501 18:06:48.300276 13821 net.cpp:159] Memory required for data: 2184080
I0501 18:06:48.300279 13821 layer_factory.hpp:77] Creating layer conv3
I0501 18:06:48.300287 13821 net.cpp:94] Creating Layer conv3
I0501 18:06:48.300292 13821 net.cpp:435] conv3 <- pool2
I0501 18:06:48.300297 13821 net.cpp:409] conv3 -> conv3
I0501 18:06:48.305325 13821 net.cpp:144] Setting up conv3
I0501 18:06:48.305344 13821 net.cpp:151] Top shape: 20 64 5 5 (32000)
I0501 18:06:48.305349 13821 net.cpp:159] Memory required for data: 2312080
I0501 18:06:48.305358 13821 layer_factory.hpp:77] Creating layer relu3
I0501 18:06:48.305364 13821 net.cpp:94] Creating Layer relu3
I0501 18:06:48.305368 13821 net.cpp:435] relu3 <- conv3
I0501 18:06:48.305373 13821 net.cpp:396] relu3 -> conv3 (in-place)
I0501 18:06:48.305380 13821 net.cpp:144] Setting up relu3
I0501 18:06:48.305385 13821 net.cpp:151] Top shape: 20 64 5 5 (32000)
I0501 18:06:48.305388 13821 net.cpp:159] Memory required for data: 2440080
I0501 18:06:48.305392 13821 layer_factory.hpp:77] Creating layer conv4
I0501 18:06:48.305400 13821 net.cpp:94] Creating Layer conv4
I0501 18:06:48.305404 13821 net.cpp:435] conv4 <- conv3
I0501 18:06:48.305409 13821 net.cpp:409] conv4 -> conv4
I0501 18:06:48.311213 13821 net.cpp:144] Setting up conv4
I0501 18:06:48.311228 13821 net.cpp:151] Top shape: 20 64 5 5 (32000)
I0501 18:06:48.311231 13821 net.cpp:159] Memory required for data: 2568080
I0501 18:06:48.311239 13821 layer_factory.hpp:77] Creating layer relu4
I0501 18:06:48.311244 13821 net.cpp:94] Creating Layer relu4
I0501 18:06:48.311249 13821 net.cpp:435] relu4 <- conv4
I0501 18:06:48.311254 13821 net.cpp:396] relu4 -> conv4 (in-place)
I0501 18:06:48.311261 13821 net.cpp:144] Setting up relu4
I0501 18:06:48.311266 13821 net.cpp:151] Top shape: 20 64 5 5 (32000)
I0501 18:06:48.311269 13821 net.cpp:159] Memory required for data: 2696080
I0501 18:06:48.311272 13821 layer_factory.hpp:77] Creating layer conv5
I0501 18:06:48.311280 13821 net.cpp:94] Creating Layer conv5
I0501 18:06:48.311285 13821 net.cpp:435] conv5 <- conv4
I0501 18:06:48.311290 13821 net.cpp:409] conv5 -> conv5
I0501 18:06:48.315767 13821 net.cpp:144] Setting up conv5
I0501 18:06:48.315779 13821 net.cpp:151] Top shape: 20 64 5 5 (32000)
I0501 18:06:48.315783 13821 net.cpp:159] Memory required for data: 2824080
I0501 18:06:48.315793 13821 layer_factory.hpp:77] Creating layer relu5
I0501 18:06:48.315798 13821 net.cpp:94] Creating Layer relu5
I0501 18:06:48.315803 13821 net.cpp:435] relu5 <- conv5
I0501 18:06:48.315807 13821 net.cpp:396] relu5 -> conv5 (in-place)
I0501 18:06:48.315814 13821 net.cpp:144] Setting up relu5
I0501 18:06:48.315819 13821 net.cpp:151] Top shape: 20 64 5 5 (32000)
I0501 18:06:48.315824 13821 net.cpp:159] Memory required for data: 2952080
I0501 18:06:48.315826 13821 layer_factory.hpp:77] Creating layer pool5
I0501 18:06:48.315832 13821 net.cpp:94] Creating Layer pool5
I0501 18:06:48.315835 13821 net.cpp:435] pool5 <- conv5
I0501 18:06:48.315840 13821 net.cpp:409] pool5 -> pool5
I0501 18:06:48.315874 13821 net.cpp:144] Setting up pool5
I0501 18:06:48.315881 13821 net.cpp:151] Top shape: 20 64 2 2 (5120)
I0501 18:06:48.315886 13821 net.cpp:159] Memory required for data: 2972560
I0501 18:06:48.315889 13821 layer_factory.hpp:77] Creating layer ip1
I0501 18:06:48.315896 13821 net.cpp:94] Creating Layer ip1
I0501 18:06:48.315899 13821 net.cpp:435] ip1 <- pool5
I0501 18:06:48.315904 13821 net.cpp:409] ip1 -> ip1
I0501 18:06:48.316434 13821 net.cpp:144] Setting up ip1
I0501 18:06:48.316442 13821 net.cpp:151] Top shape: 20 64 (1280)
I0501 18:06:48.316447 13821 net.cpp:159] Memory required for data: 2977680
I0501 18:06:48.316452 13821 layer_factory.hpp:77] Creating layer ip2
I0501 18:06:48.316458 13821 net.cpp:94] Creating Layer ip2
I0501 18:06:48.316462 13821 net.cpp:435] ip2 <- ip1
I0501 18:06:48.316468 13821 net.cpp:409] ip2 -> ip2
I0501 18:06:48.316704 13821 net.cpp:144] Setting up ip2
I0501 18:06:48.316714 13821 net.cpp:151] Top shape: 20 64 (1280)
I0501 18:06:48.316717 13821 net.cpp:159] Memory required for data: 2982800
I0501 18:06:48.316722 13821 layer_factory.hpp:77] Creating layer ip3
I0501 18:06:48.316730 13821 net.cpp:94] Creating Layer ip3
I0501 18:06:48.316733 13821 net.cpp:435] ip3 <- ip2
I0501 18:06:48.316738 13821 net.cpp:409] ip3 -> ip3
I0501 18:06:48.316941 13821 net.cpp:144] Setting up ip3
I0501 18:06:48.316948 13821 net.cpp:151] Top shape: 20 50 (1000)
I0501 18:06:48.316956 13821 net.cpp:159] Memory required for data: 2986800
I0501 18:06:48.316962 13821 layer_factory.hpp:77] Creating layer loss
I0501 18:06:48.316970 13821 net.cpp:94] Creating Layer loss
I0501 18:06:48.316974 13821 net.cpp:435] loss <- ip3
I0501 18:06:48.316978 13821 net.cpp:435] loss <- label
I0501 18:06:48.316983 13821 net.cpp:409] loss -> loss
I0501 18:06:48.316990 13821 layer_factory.hpp:77] Creating layer loss
…
I0501 18:06:48.318367 13821 solver.cpp:181] Creating test net (#0) specified by net file: ./protocol/dis_5_100_dimension.protocol_distribution
I0501 18:06:48.318394 13821 net.cpp:323] The NetState phase (1) differed from the phase (0) specified by a rule in layer parameters
I0501 18:06:48.318506 13821 net.cpp:52] Initializing net from parameters: 
state {
  phase: TEST
}
layer {
  name: "intercept"
  type: "HDF5Data"
  top: "data"
  top: "label"
  include {
    phase: TEST
  }
  hdf5_data_param {
    source: "/home/purduethu/scratch/radon/d/deng106/CNNStatisticalModel/distributions/input/5_distributions_100_sample_size_test-distributions-path.txt"
    batch_size: 20
  }
}
layer {
  name: "conv1"
  type: "Convolution"
  bottom: "data"
  top: "conv1"
  param {
    lr_mult: 1
  }
  param {
    lr_mult: 2
  }
  convolution_param {
    num_output: 64
    pad: 2
    kernel_size: 5
    stride: 1
    weight_filler {
      type: "gaussian"
      std: 0.0001
    }
    bias_filler {
      type: "constant"
    }
  }
}
layer {
  name: "relu1"
  type: "ReLU"
  bottom: "conv1"
  top: "conv1"
}
layer {
  name: "conv2"
  type: "Convolution"
  bottom: "conv1"
  top: "conv2"
  param {
    lr_mult: 1
  }
  param {
    lr_mult: 2
  }
  convolution_param {
    num_output: 64
    pad: 2
    kernel_size: 5
    stride: 1
    weight_filler {
      type: "gaussian"
      std: 0.01
    }
    bias_filler {
      type: "constant"
    }
  }
}
layer {
  name: "relu2"
  type: "ReLU"
  bottom: "conv2"
  top: "conv2"
}
layer {
  name: "pool2"
  type: "Pooling"
  bottom: "conv2"
  top: "pool2"
  pooling_param {
    pool: MAX
    kernel_size: 3
    stride: 2
  }
}
layer {
  name: "conv3"
  type: "Convolution"
  bottom: "pool2"
  top: "conv3"
  param {
    lr_mult: 1
  }
  param {
    lr_mult: 2
  }
  convolution_param {
    num_output: 64
    pad: 2
    kernel_size: 5
    stride: 1
    weight_filler {
      type: "gaussian"
      std: 0.01
    }
    bias_filler {
      type: "constant"
    }
  }
}
layer {
  name: "relu3"
  type: "ReLU"
  bottom: "conv3"
  top: "conv3"
}
layer {
  name: "conv4"
  type: "Convolution"
  bottom: "conv3"
  top: "conv4"
  param {
    lr_mult: 1
  }
  param {
    lr_mult: 2
  }
  convolution_param {
    num_output: 64
    pad: 2
    kernel_size: 5
    stride: 1
    weight_filler {
      type: "gaussian"
      std: 0.01
    }
    bias_filler {
      type: "constant"
    }
  }
}
layer {
  name: "relu4"
  type: "ReLU"
  bottom: "conv4"
  top: "conv4"
}
layer {
  name: "conv5"
  type: "Convolution"
  bottom: "conv4"
  top: "conv5"
  param {
    lr_mult: 1
  }
  param {
    lr_mult: 2
  }
  convolution_param {
    num_output: 64
    pad: 2
    kernel_size: 5
    stride: 1
    weight_filler {
      type: "gaussian"
      std: 0.01
    }
    bias_filler {
      type: "constant"
    }
  }
}
layer {
  name: "relu5"
  type: "ReLU"
  bottom: "conv5"
  top: "conv5"
}
layer {
  name: "pool5"
  type: "Pooling"
  bottom: "conv5"
  top: "pool5"
  pooling_param {
    pool: AVE
    kernel_size: 3
    stride: 2
  }
}
layer {
  name: "ip1"
  type: "InnerProduct"
  bottom: "pool5"
  top: "ip1"
  param {
    lr_mult: 1
  }
  param {
    lr_mult: 2
  }
  inner_product_param {
    num_output: 64
    weight_filler {
      type: "gaussian"
      std: 0.1
    }
    bias_filler {
      type: "constant"
    }
  }
}
layer {
  name: "ip2"
  type: "InnerProduct"
  bottom: "ip1"
  top: "ip2"
  param {
    lr_mult: 1
  }
  param {
    lr_mult: 2
  }
  inner_product_param {
    num_output: 64
    weight_filler {
      type: "gaussian"
      std: 0.1
    }
    bias_filler {
      type: "constant"
    }
  }
}
layer {
  name: "ip3"
  type: "InnerProduct"
  bottom: "ip2"
  top: "ip3"
  param {
    lr_mult: 1
  }
  param {
    lr_mult: 2
  }
  inner_product_param {
    num_output: 50
    weight_filler {
      type: "gaussian"
      std: 0.1
    }
    bias_filler {
      type: "constant"
    }
  }
}
layer {
  name: "accuracy"
  type: "Accuracy"
  bottom: "ip3"
  bottom: "label"
  top: "accuracy"
  include {
    phase: TEST
  }
}
layer {
  name: "loss"
  type: "SoftmaxWithLoss"
  bottom: "ip3"
  bottom: "label"
  top: "loss"
}
I0501 18:06:48.318580 13821 layer_factory.hpp:77] Creating layer intercept
I0501 18:06:48.318589 13821 net.cpp:94] Creating Layer intercept
I0501 18:06:48.318594 13821 net.cpp:409] intercept -> data
I0501 18:06:48.318601 13821 net.cpp:409] intercept -> label
I0501 18:06:48.318608 13821 hdf5_data_layer.cpp:79] Loading list of HDF5 filenames from: /home/purduethu/scratch/radon/d/deng106/CNNStatisticalModel/distributions/input/5_distributions_100_sample_size_test-distributions-path.txt
I0501 18:06:48.318627 13821 hdf5_data_layer.cpp:93] Number of HDF5 files: 1
I0501 18:06:48.323168 13821 net.cpp:144] Setting up intercept
I0501 18:06:48.323197 13821 net.cpp:151] Top shape: 20 1 10 10 (2000)
I0501 18:06:48.323204 13821 net.cpp:151] Top shape: 20 (20)
I0501 18:06:48.323207 13821 net.cpp:159] Memory required for data: 8080
I0501 18:06:48.323213 13821 layer_factory.hpp:77] Creating layer label_intercept_1_split
I0501 18:06:48.323230 13821 net.cpp:94] Creating Layer label_intercept_1_split
I0501 18:06:48.323235 13821 net.cpp:435] label_intercept_1_split <- label
I0501 18:06:48.323240 13821 net.cpp:409] label_intercept_1_split -> label_intercept_1_split_0
I0501 18:06:48.323249 13821 net.cpp:409] label_intercept_1_split -> label_intercept_1_split_1
I0501 18:06:48.323289 13821 net.cpp:144] Setting up label_intercept_1_split
I0501 18:06:48.323297 13821 net.cpp:151] Top shape: 20 (20)
I0501 18:06:48.323302 13821 net.cpp:151] Top shape: 20 (20)
I0501 18:06:48.323304 13821 net.cpp:159] Memory required for data: 8240
I0501 18:06:48.323308 13821 layer_factory.hpp:77] Creating layer conv1
I0501 18:06:48.323318 13821 net.cpp:94] Creating Layer conv1
I0501 18:06:48.323323 13821 net.cpp:435] conv1 <- data
I0501 18:06:48.323328 13821 net.cpp:409] conv1 -> conv1
I0501 18:06:48.324105 13821 net.cpp:144] Setting up conv1
I0501 18:06:48.324120 13821 net.cpp:151] Top shape: 20 64 10 10 (128000)
I0501 18:06:48.324123 13821 net.cpp:159] Memory required for data: 520240
I0501 18:06:48.324139 13821 layer_factory.hpp:77] Creating layer relu1
I0501 18:06:48.324147 13821 net.cpp:94] Creating Layer relu1
I0501 18:06:48.324151 13821 net.cpp:435] relu1 <- conv1
I0501 18:06:48.324156 13821 net.cpp:396] relu1 -> conv1 (in-place)
I0501 18:06:48.324164 13821 net.cpp:144] Setting up relu1
I0501 18:06:48.324169 13821 net.cpp:151] Top shape: 20 64 10 10 (128000)
I0501 18:06:48.324172 13821 net.cpp:159] Memory required for data: 1032240
I0501 18:06:48.324177 13821 layer_factory.hpp:77] Creating layer conv2
I0501 18:06:48.324184 13821 net.cpp:94] Creating Layer conv2
I0501 18:06:48.324188 13821 net.cpp:435] conv2 <- conv1
I0501 18:06:48.324193 13821 net.cpp:409] conv2 -> conv2
I0501 18:06:48.328315 13821 net.cpp:144] Setting up conv2
I0501 18:06:48.328328 13821 net.cpp:151] Top shape: 20 64 10 10 (128000)
I0501 18:06:48.328333 13821 net.cpp:159] Memory required for data: 1544240
I0501 18:06:48.328341 13821 layer_factory.hpp:77] Creating layer relu2
I0501 18:06:48.328347 13821 net.cpp:94] Creating Layer relu2
I0501 18:06:48.328351 13821 net.cpp:435] relu2 <- conv2
I0501 18:06:48.328356 13821 net.cpp:396] relu2 -> conv2 (in-place)
I0501 18:06:48.328364 13821 net.cpp:144] Setting up relu2
I0501 18:06:48.328369 13821 net.cpp:151] Top shape: 20 64 10 10 (128000)
I0501 18:06:48.328372 13821 net.cpp:159] Memory required for data: 2056240
I0501 18:06:48.328375 13821 layer_factory.hpp:77] Creating layer pool2
I0501 18:06:48.328382 13821 net.cpp:94] Creating Layer pool2
I0501 18:06:48.328387 13821 net.cpp:435] pool2 <- conv2
I0501 18:06:48.328390 13821 net.cpp:409] pool2 -> pool2
I0501 18:06:48.328440 13821 net.cpp:144] Setting up pool2
I0501 18:06:48.328449 13821 net.cpp:151] Top shape: 20 64 5 5 (32000)
I0501 18:06:48.328451 13821 net.cpp:159] Memory required for data: 2184240
I0501 18:06:48.328455 13821 layer_factory.hpp:77] Creating layer conv3
I0501 18:06:48.328464 13821 net.cpp:94] Creating Layer conv3
I0501 18:06:48.328467 13821 net.cpp:435] conv3 <- pool2
I0501 18:06:48.328472 13821 net.cpp:409] conv3 -> conv3
I0501 18:06:48.332118 13821 net.cpp:144] Setting up conv3
I0501 18:06:48.332132 13821 net.cpp:151] Top shape: 20 64 5 5 (32000)
I0501 18:06:48.332136 13821 net.cpp:159] Memory required for data: 2312240
I0501 18:06:48.332144 13821 layer_factory.hpp:77] Creating layer relu3
I0501 18:06:48.332152 13821 net.cpp:94] Creating Layer relu3
I0501 18:06:48.332156 13821 net.cpp:435] relu3 <- conv3
I0501 18:06:48.332161 13821 net.cpp:396] relu3 -> conv3 (in-place)
I0501 18:06:48.332168 13821 net.cpp:144] Setting up relu3
I0501 18:06:48.332173 13821 net.cpp:151] Top shape: 20 64 5 5 (32000)
I0501 18:06:48.332176 13821 net.cpp:159] Memory required for data: 2440240
I0501 18:06:48.332180 13821 layer_factory.hpp:77] Creating layer conv4
I0501 18:06:48.332187 13821 net.cpp:94] Creating Layer conv4
I0501 18:06:48.332191 13821 net.cpp:435] conv4 <- conv3
I0501 18:06:48.332196 13821 net.cpp:409] conv4 -> conv4
I0501 18:06:48.335815 13821 net.cpp:144] Setting up conv4
I0501 18:06:48.335829 13821 net.cpp:151] Top shape: 20 64 5 5 (32000)
I0501 18:06:48.335834 13821 net.cpp:159] Memory required for data: 2568240
I0501 18:06:48.335840 13821 layer_factory.hpp:77] Creating layer relu4
I0501 18:06:48.335846 13821 net.cpp:94] Creating Layer relu4
I0501 18:06:48.335850 13821 net.cpp:435] relu4 <- conv4
I0501 18:06:48.335855 13821 net.cpp:396] relu4 -> conv4 (in-place)
I0501 18:06:48.335862 13821 net.cpp:144] Setting up relu4
I0501 18:06:48.335867 13821 net.cpp:151] Top shape: 20 64 5 5 (32000)
I0501 18:06:48.335870 13821 net.cpp:159] Memory required for data: 2696240
I0501 18:06:48.335875 13821 layer_factory.hpp:77] Creating layer conv5
I0501 18:06:48.335882 13821 net.cpp:94] Creating Layer conv5
I0501 18:06:48.335886 13821 net.cpp:435] conv5 <- conv4
I0501 18:06:48.335891 13821 net.cpp:409] conv5 -> conv5
I0501 18:06:48.340838 13821 net.cpp:144] Setting up conv5
I0501 18:06:48.340853 13821 net.cpp:151] Top shape: 20 64 5 5 (32000)
I0501 18:06:48.340858 13821 net.cpp:159] Memory required for data: 2824240
I0501 18:06:48.340873 13821 layer_factory.hpp:77] Creating layer relu5
I0501 18:06:48.340879 13821 net.cpp:94] Creating Layer relu5
I0501 18:06:48.340883 13821 net.cpp:435] relu5 <- conv5
I0501 18:06:48.340888 13821 net.cpp:396] relu5 -> conv5 (in-place)
I0501 18:06:48.340895 13821 net.cpp:144] Setting up relu5
I0501 18:06:48.340900 13821 net.cpp:151] Top shape: 20 64 5 5 (32000)
I0501 18:06:48.340903 13821 net.cpp:159] Memory required for data: 2952240
I0501 18:06:48.340908 13821 layer_factory.hpp:77] Creating layer pool5
I0501 18:06:48.340912 13821 net.cpp:94] Creating Layer pool5
I0501 18:06:48.340916 13821 net.cpp:435] pool5 <- conv5
I0501 18:06:48.340920 13821 net.cpp:409] pool5 -> pool5
I0501 18:06:48.340956 13821 net.cpp:144] Setting up pool5
I0501 18:06:48.340963 13821 net.cpp:151] Top shape: 20 64 2 2 (5120)
I0501 18:06:48.340967 13821 net.cpp:159] Memory required for data: 2972720
I0501 18:06:48.340970 13821 layer_factory.hpp:77] Creating layer ip1
I0501 18:06:48.340978 13821 net.cpp:94] Creating Layer ip1
I0501 18:06:48.340982 13821 net.cpp:435] ip1 <- pool5
I0501 18:06:48.340987 13821 net.cpp:409] ip1 -> ip1
I0501 18:06:48.341521 13821 net.cpp:144] Setting up ip1
I0501 18:06:48.341531 13821 net.cpp:151] Top shape: 20 64 (1280)
I0501 18:06:48.341534 13821 net.cpp:159] Memory required for data: 2977840
I0501 18:06:48.341539 13821 layer_factory.hpp:77] Creating layer ip2
I0501 18:06:48.341547 13821 net.cpp:94] Creating Layer ip2
I0501 18:06:48.341550 13821 net.cpp:435] ip2 <- ip1
I0501 18:06:48.341555 13821 net.cpp:409] ip2 -> ip2
I0501 18:06:48.341779 13821 net.cpp:144] Setting up ip2
I0501 18:06:48.341786 13821 net.cpp:151] Top shape: 20 64 (1280)
I0501 18:06:48.341790 13821 net.cpp:159] Memory required for data: 2982960
I0501 18:06:48.341796 13821 layer_factory.hpp:77] Creating layer ip3
I0501 18:06:48.341804 13821 net.cpp:94] Creating Layer ip3
I0501 18:06:48.341807 13821 net.cpp:435] ip3 <- ip2
I0501 18:06:48.341812 13821 net.cpp:409] ip3 -> ip3
I0501 18:06:48.342006 13821 net.cpp:144] Setting up ip3
I0501 18:06:48.342013 13821 net.cpp:151] Top shape: 20 50 (1000)
I0501 18:06:48.342017 13821 net.cpp:159] Memory required for data: 2986960
I0501 18:06:48.342022 13821 layer_factory.hpp:77] Creating layer ip3_ip3_0_split
I0501 18:06:48.342028 13821 net.cpp:94] Creating Layer ip3_ip3_0_split
I0501 18:06:48.342032 13821 net.cpp:435] ip3_ip3_0_split <- ip3
I0501 18:06:48.342037 13821 net.cpp:409] ip3_ip3_0_split -> ip3_ip3_0_split_0
I0501 18:06:48.342042 13821 net.cpp:409] ip3_ip3_0_split -> ip3_ip3_0_split_1
I0501 18:06:48.342083 13821 net.cpp:144] Setting up ip3_ip3_0_split
I0501 18:06:48.342089 13821 net.cpp:151] Top shape: 20 50 (1000)
I0501 18:06:48.342094 13821 net.cpp:151] Top shape: 20 50 (1000)
I0501 18:06:48.342097 13821 net.cpp:159] Memory required for data: 2994960
I0501 18:06:48.342100 13821 layer_factory.hpp:77] Creating layer accuracy
I0501 18:06:48.342106 13821 net.cpp:94] Creating Layer accuracy
I0501 18:06:48.342110 13821 net.cpp:435] accuracy <- ip3_ip3_0_split_0
I0501 18:06:48.342114 13821 net.cpp:435] accuracy <- label_intercept_1_split_0
I0501 18:06:48.342119 13821 net.cpp:409] accuracy -> accuracy
…
