…
I0502 20:44:07.338023 13343 net.cpp:323] The NetState phase (0) differed from the phase (1) specified by a rule in layer intercept
I0502 20:44:07.338042 13343 net.cpp:323] The NetState phase (0) differed from the phase (1) specified by a rule in layer accuracy
I0502 20:44:07.338135 13343 net.cpp:52] Initializing net from parameters: 
state {
  phase: TRAIN
}
layer {
  name: "parameters"
  type: "HDF5Data"
  top: "data"
  top: "label"
  include {
    phase: TRAIN
  }
  hdf5_data_param {
    source: "/home/purduethu/scratch/radon/d/deng106/CNNStatisticalModel/distributions/input/5_distributions_100_sample_size_train-distributions-path.txt"
    batch_size: 20
  }
}
layer {
  name: "conv1"
  type: "Convolution"
  bottom: "data"
  top: "conv1"
  param {
    lr_mult: 1
  }
  param {
    lr_mult: 2
  }
  convolution_param {
    num_output: 64
    pad: 2
    kernel_size: 5
    stride: 1
    weight_filler {
      type: "gaussian"
      std: 0.0001
    }
    bias_filler {
      type: "constant"
    }
  }
}
layer {
  name: "relu1"
  type: "ReLU"
  bottom: "conv1"
  top: "conv1"
}
layer {
  name: "conv2"
  type: "Convolution"
  bottom: "conv1"
  top: "conv2"
  param {
    lr_mult: 1
  }
  param {
    lr_mult: 2
  }
  convolution_param {
    num_output: 64
    pad: 2
    kernel_size: 5
    stride: 1
    weight_filler {
      type: "gaussian"
      std: 0.01
    }
    bias_filler {
      type: "constant"
    }
  }
}
layer {
  name: "relu2"
  type: "ReLU"
  bottom: "conv2"
  top: "conv2"
}
layer {
  name: "pool2"
  type: "Pooling"
  bottom: "conv2"
  top: "pool2"
  pooling_param {
    pool: MAX
    kernel_size: 3
    stride: 2
  }
}
layer {
  name: "conv3"
  type: "Convolution"
  bottom: "pool2"
  top: "conv3"
  param {
    lr_mult: 1
  }
  param {
    lr_mult: 2
  }
  convolution_param {
    num_output: 64
    pad: 2
    kernel_size: 5
    stride: 1
    weight_filler {
      type: "gaussian"
      std: 0.01
    }
    bias_filler {
      type: "constant"
    }
  }
}
layer {
  name: "relu3"
  type: "ReLU"
  bottom: "conv3"
  top: "conv3"
}
layer {
  name: "conv4"
  type: "Convolution"
  bottom: "conv3"
  top: "conv4"
  param {
    lr_mult: 1
  }
  param {
    lr_mult: 2
  }
  convolution_param {
    num_output: 64
    pad: 2
    kernel_size: 5
    stride: 1
    weight_filler {
      type: "gaussian"
      std: 0.01
    }
    bias_filler {
      type: "constant"
    }
  }
}
layer {
  name: "relu4"
  type: "ReLU"
  bottom: "conv4"
  top: "conv4"
}
layer {
  name: "conv5"
  type: "Convolution"
  bottom: "conv4"
  top: "conv5"
  param {
    lr_mult: 1
  }
  param {
    lr_mult: 2
  }
  convolution_param {
    num_output: 64
    pad: 2
    kernel_size: 5
    stride: 1
    weight_filler {
      type: "gaussian"
      std: 0.01
    }
    bias_filler {
      type: "constant"
    }
  }
}
layer {
  name: "relu5"
  type: "ReLU"
  bottom: "conv5"
  top: "conv5"
}
layer {
  name: "pool5"
  type: "Pooling"
  bottom: "conv5"
  top: "pool5"
  pooling_param {
    pool: AVE
    kernel_size: 3
    stride: 2
  }
}
layer {
  name: "ip1"
  type: "InnerProduct"
  bottom: "pool5"
  top: "ip1"
  param {
    lr_mult: 1
  }
  param {
    lr_mult: 2
  }
  inner_product_param {
    num_output: 64
    weight_filler {
      type: "gaussian"
      std: 0.1
    }
    bias_filler {
      type: "constant"
    }
  }
}
layer {
  name: "ip2"
  type: "InnerProduct"
  bottom: "ip1"
  top: "ip2"
  param {
    lr_mult: 1
  }
  param {
    lr_mult: 2
  }
  inner_product_param {
    num_output: 64
    weight_filler {
      type: "gaussian"
      std: 0.1
    }
    bias_filler {
      type: "constant"
    }
  }
}
layer {
  name: "ip3"
  type: "InnerProduct"
  bottom: "ip2"
  top: "ip3"
  param {
    lr_mult: 1
  }
  param {
    lr_mult: 2
  }
  inner_product_param {
    num_output: 50
    weight_filler {
      type: "gaussian"
      std: 0.1
    }
    bias_filler {
      type: "constant"
    }
  }
}
layer {
  name: "loss"
  type: "SoftmaxWithLoss"
  bottom: "ip3"
  bottom: "label"
  top: "loss"
}
I0502 20:44:07.338212 13343 layer_factory.hpp:77] Creating layer parameters
I0502 20:44:07.338225 13343 net.cpp:94] Creating Layer parameters
I0502 20:44:07.338232 13343 net.cpp:409] parameters -> data
I0502 20:44:07.338251 13343 net.cpp:409] parameters -> label
I0502 20:44:07.338261 13343 hdf5_data_layer.cpp:79] Loading list of HDF5 filenames from: /home/purduethu/scratch/radon/d/deng106/CNNStatisticalModel/distributions/input/5_distributions_100_sample_size_train-distributions-path.txt
I0502 20:44:07.338286 13343 hdf5_data_layer.cpp:93] Number of HDF5 files: 1
I0502 20:44:07.338930 13343 hdf5.cpp:32] Datatype class: H5T_FLOAT
I0502 20:44:07.355851 13343 hdf5.cpp:35] Datatype class: H5T_INTEGER
I0502 20:44:07.357070 13343 net.cpp:144] Setting up parameters
I0502 20:44:07.357090 13343 net.cpp:151] Top shape: 20 1 10 10 (2000)
I0502 20:44:07.357096 13343 net.cpp:151] Top shape: 20 (20)
I0502 20:44:07.357100 13343 net.cpp:159] Memory required for data: 8080
I0502 20:44:07.357108 13343 layer_factory.hpp:77] Creating layer conv1
I0502 20:44:07.357132 13343 net.cpp:94] Creating Layer conv1
I0502 20:44:07.357138 13343 net.cpp:435] conv1 <- data
I0502 20:44:07.357148 13343 net.cpp:409] conv1 -> conv1
I0502 20:44:07.361384 13343 net.cpp:144] Setting up conv1
I0502 20:44:07.361399 13343 net.cpp:151] Top shape: 20 64 10 10 (128000)
I0502 20:44:07.361403 13343 net.cpp:159] Memory required for data: 520080
I0502 20:44:07.361415 13343 layer_factory.hpp:77] Creating layer relu1
I0502 20:44:07.361423 13343 net.cpp:94] Creating Layer relu1
I0502 20:44:07.361428 13343 net.cpp:435] relu1 <- conv1
I0502 20:44:07.361431 13343 net.cpp:396] relu1 -> conv1 (in-place)
I0502 20:44:07.361450 13343 net.cpp:144] Setting up relu1
I0502 20:44:07.361455 13343 net.cpp:151] Top shape: 20 64 10 10 (128000)
I0502 20:44:07.361459 13343 net.cpp:159] Memory required for data: 1032080
I0502 20:44:07.361462 13343 layer_factory.hpp:77] Creating layer conv2
I0502 20:44:07.361471 13343 net.cpp:94] Creating Layer conv2
I0502 20:44:07.361474 13343 net.cpp:435] conv2 <- conv1
I0502 20:44:07.361480 13343 net.cpp:409] conv2 -> conv2
I0502 20:44:07.367591 13343 net.cpp:144] Setting up conv2
I0502 20:44:07.367606 13343 net.cpp:151] Top shape: 20 64 10 10 (128000)
I0502 20:44:07.367610 13343 net.cpp:159] Memory required for data: 1544080
I0502 20:44:07.367619 13343 layer_factory.hpp:77] Creating layer relu2
I0502 20:44:07.367625 13343 net.cpp:94] Creating Layer relu2
I0502 20:44:07.367630 13343 net.cpp:435] relu2 <- conv2
I0502 20:44:07.367635 13343 net.cpp:396] relu2 -> conv2 (in-place)
I0502 20:44:07.367641 13343 net.cpp:144] Setting up relu2
I0502 20:44:07.367646 13343 net.cpp:151] Top shape: 20 64 10 10 (128000)
I0502 20:44:07.367650 13343 net.cpp:159] Memory required for data: 2056080
I0502 20:44:07.367652 13343 layer_factory.hpp:77] Creating layer pool2
I0502 20:44:07.367666 13343 net.cpp:94] Creating Layer pool2
I0502 20:44:07.367671 13343 net.cpp:435] pool2 <- conv2
I0502 20:44:07.367676 13343 net.cpp:409] pool2 -> pool2
I0502 20:44:07.367718 13343 net.cpp:144] Setting up pool2
I0502 20:44:07.367725 13343 net.cpp:151] Top shape: 20 64 5 5 (32000)
I0502 20:44:07.367729 13343 net.cpp:159] Memory required for data: 2184080
I0502 20:44:07.367733 13343 layer_factory.hpp:77] Creating layer conv3
I0502 20:44:07.367740 13343 net.cpp:94] Creating Layer conv3
I0502 20:44:07.367744 13343 net.cpp:435] conv3 <- pool2
I0502 20:44:07.367758 13343 net.cpp:409] conv3 -> conv3
I0502 20:44:07.373397 13343 net.cpp:144] Setting up conv3
I0502 20:44:07.373412 13343 net.cpp:151] Top shape: 20 64 5 5 (32000)
I0502 20:44:07.373416 13343 net.cpp:159] Memory required for data: 2312080
I0502 20:44:07.373425 13343 layer_factory.hpp:77] Creating layer relu3
I0502 20:44:07.373430 13343 net.cpp:94] Creating Layer relu3
I0502 20:44:07.373435 13343 net.cpp:435] relu3 <- conv3
I0502 20:44:07.373440 13343 net.cpp:396] relu3 -> conv3 (in-place)
I0502 20:44:07.373446 13343 net.cpp:144] Setting up relu3
I0502 20:44:07.373451 13343 net.cpp:151] Top shape: 20 64 5 5 (32000)
I0502 20:44:07.373455 13343 net.cpp:159] Memory required for data: 2440080
I0502 20:44:07.373458 13343 layer_factory.hpp:77] Creating layer conv4
I0502 20:44:07.373466 13343 net.cpp:94] Creating Layer conv4
I0502 20:44:07.373471 13343 net.cpp:435] conv4 <- conv3
I0502 20:44:07.373476 13343 net.cpp:409] conv4 -> conv4
I0502 20:44:07.378337 13343 net.cpp:144] Setting up conv4
I0502 20:44:07.378351 13343 net.cpp:151] Top shape: 20 64 5 5 (32000)
I0502 20:44:07.378355 13343 net.cpp:159] Memory required for data: 2568080
I0502 20:44:07.378361 13343 layer_factory.hpp:77] Creating layer relu4
I0502 20:44:07.378367 13343 net.cpp:94] Creating Layer relu4
I0502 20:44:07.378371 13343 net.cpp:435] relu4 <- conv4
I0502 20:44:07.378376 13343 net.cpp:396] relu4 -> conv4 (in-place)
I0502 20:44:07.378383 13343 net.cpp:144] Setting up relu4
I0502 20:44:07.378388 13343 net.cpp:151] Top shape: 20 64 5 5 (32000)
I0502 20:44:07.378391 13343 net.cpp:159] Memory required for data: 2696080
I0502 20:44:07.378394 13343 layer_factory.hpp:77] Creating layer conv5
I0502 20:44:07.378402 13343 net.cpp:94] Creating Layer conv5
I0502 20:44:07.378407 13343 net.cpp:435] conv5 <- conv4
I0502 20:44:07.378412 13343 net.cpp:409] conv5 -> conv5
I0502 20:44:07.383476 13343 net.cpp:144] Setting up conv5
I0502 20:44:07.383489 13343 net.cpp:151] Top shape: 20 64 5 5 (32000)
I0502 20:44:07.383493 13343 net.cpp:159] Memory required for data: 2824080
I0502 20:44:07.383502 13343 layer_factory.hpp:77] Creating layer relu5
I0502 20:44:07.383507 13343 net.cpp:94] Creating Layer relu5
I0502 20:44:07.383512 13343 net.cpp:435] relu5 <- conv5
I0502 20:44:07.383517 13343 net.cpp:396] relu5 -> conv5 (in-place)
I0502 20:44:07.383523 13343 net.cpp:144] Setting up relu5
I0502 20:44:07.383528 13343 net.cpp:151] Top shape: 20 64 5 5 (32000)
I0502 20:44:07.383532 13343 net.cpp:159] Memory required for data: 2952080
I0502 20:44:07.383534 13343 layer_factory.hpp:77] Creating layer pool5
I0502 20:44:07.383540 13343 net.cpp:94] Creating Layer pool5
I0502 20:44:07.383543 13343 net.cpp:435] pool5 <- conv5
I0502 20:44:07.383548 13343 net.cpp:409] pool5 -> pool5
I0502 20:44:07.383584 13343 net.cpp:144] Setting up pool5
I0502 20:44:07.383590 13343 net.cpp:151] Top shape: 20 64 2 2 (5120)
I0502 20:44:07.383594 13343 net.cpp:159] Memory required for data: 2972560
I0502 20:44:07.383596 13343 layer_factory.hpp:77] Creating layer ip1
I0502 20:44:07.383606 13343 net.cpp:94] Creating Layer ip1
I0502 20:44:07.383610 13343 net.cpp:435] ip1 <- pool5
I0502 20:44:07.383615 13343 net.cpp:409] ip1 -> ip1
I0502 20:44:07.384824 13343 net.cpp:144] Setting up ip1
I0502 20:44:07.384838 13343 net.cpp:151] Top shape: 20 64 (1280)
I0502 20:44:07.384842 13343 net.cpp:159] Memory required for data: 2977680
I0502 20:44:07.384848 13343 layer_factory.hpp:77] Creating layer ip2
I0502 20:44:07.384855 13343 net.cpp:94] Creating Layer ip2
I0502 20:44:07.384863 13343 net.cpp:435] ip2 <- ip1
I0502 20:44:07.384871 13343 net.cpp:409] ip2 -> ip2
I0502 20:44:07.385040 13343 net.cpp:144] Setting up ip2
I0502 20:44:07.385047 13343 net.cpp:151] Top shape: 20 64 (1280)
I0502 20:44:07.385051 13343 net.cpp:159] Memory required for data: 2982800
I0502 20:44:07.385056 13343 layer_factory.hpp:77] Creating layer ip3
I0502 20:44:07.385062 13343 net.cpp:94] Creating Layer ip3
I0502 20:44:07.385066 13343 net.cpp:435] ip3 <- ip2
I0502 20:44:07.385071 13343 net.cpp:409] ip3 -> ip3
I0502 20:44:07.385216 13343 net.cpp:144] Setting up ip3
I0502 20:44:07.385228 13343 net.cpp:151] Top shape: 20 50 (1000)
I0502 20:44:07.385232 13343 net.cpp:159] Memory required for data: 2986800
I0502 20:44:07.385237 13343 layer_factory.hpp:77] Creating layer loss
I0502 20:44:07.385243 13343 net.cpp:94] Creating Layer loss
I0502 20:44:07.385247 13343 net.cpp:435] loss <- ip3
I0502 20:44:07.385251 13343 net.cpp:435] loss <- label
I0502 20:44:07.385257 13343 net.cpp:409] loss -> loss
I0502 20:44:07.385267 13343 layer_factory.hpp:77] Creating layer loss
…
I0502 20:44:07.386497 13343 solver.cpp:181] Creating test net (#0) specified by net file: ./protocol/dis_5_100_dimension.protocol_distribution
I0502 20:44:07.386523 13343 net.cpp:323] The NetState phase (1) differed from the phase (0) specified by a rule in layer parameters
I0502 20:44:07.386625 13343 net.cpp:52] Initializing net from parameters: 
state {
  phase: TEST
}
layer {
  name: "intercept"
  type: "HDF5Data"
  top: "data"
  top: "label"
  include {
    phase: TEST
  }
  hdf5_data_param {
    source: "/home/purduethu/scratch/radon/d/deng106/CNNStatisticalModel/distributions/input/5_distributions_100_sample_size_test-distributions-path.txt"
    batch_size: 20
  }
}
layer {
  name: "conv1"
  type: "Convolution"
  bottom: "data"
  top: "conv1"
  param {
    lr_mult: 1
  }
  param {
    lr_mult: 2
  }
  convolution_param {
    num_output: 64
    pad: 2
    kernel_size: 5
    stride: 1
    weight_filler {
      type: "gaussian"
      std: 0.0001
    }
    bias_filler {
      type: "constant"
    }
  }
}
layer {
  name: "relu1"
  type: "ReLU"
  bottom: "conv1"
  top: "conv1"
}
layer {
  name: "conv2"
  type: "Convolution"
  bottom: "conv1"
  top: "conv2"
  param {
    lr_mult: 1
  }
  param {
    lr_mult: 2
  }
  convolution_param {
    num_output: 64
    pad: 2
    kernel_size: 5
    stride: 1
    weight_filler {
      type: "gaussian"
      std: 0.01
    }
    bias_filler {
      type: "constant"
    }
  }
}
layer {
  name: "relu2"
  type: "ReLU"
  bottom: "conv2"
  top: "conv2"
}
layer {
  name: "pool2"
  type: "Pooling"
  bottom: "conv2"
  top: "pool2"
  pooling_param {
    pool: MAX
    kernel_size: 3
    stride: 2
  }
}
layer {
  name: "conv3"
  type: "Convolution"
  bottom: "pool2"
  top: "conv3"
  param {
    lr_mult: 1
  }
  param {
    lr_mult: 2
  }
  convolution_param {
    num_output: 64
    pad: 2
    kernel_size: 5
    stride: 1
    weight_filler {
      type: "gaussian"
      std: 0.01
    }
    bias_filler {
      type: "constant"
    }
  }
}
layer {
  name: "relu3"
  type: "ReLU"
  bottom: "conv3"
  top: "conv3"
}
layer {
  name: "conv4"
  type: "Convolution"
  bottom: "conv3"
  top: "conv4"
  param {
    lr_mult: 1
  }
  param {
    lr_mult: 2
  }
  convolution_param {
    num_output: 64
    pad: 2
    kernel_size: 5
    stride: 1
    weight_filler {
      type: "gaussian"
      std: 0.01
    }
    bias_filler {
      type: "constant"
    }
  }
}
layer {
  name: "relu4"
  type: "ReLU"
  bottom: "conv4"
  top: "conv4"
}
layer {
  name: "conv5"
  type: "Convolution"
  bottom: "conv4"
  top: "conv5"
  param {
    lr_mult: 1
  }
  param {
    lr_mult: 2
  }
  convolution_param {
    num_output: 64
    pad: 2
    kernel_size: 5
    stride: 1
    weight_filler {
      type: "gaussian"
      std: 0.01
    }
    bias_filler {
      type: "constant"
    }
  }
}
layer {
  name: "relu5"
  type: "ReLU"
  bottom: "conv5"
  top: "conv5"
}
layer {
  name: "pool5"
  type: "Pooling"
  bottom: "conv5"
  top: "pool5"
  pooling_param {
    pool: AVE
    kernel_size: 3
    stride: 2
  }
}
layer {
  name: "ip1"
  type: "InnerProduct"
  bottom: "pool5"
  top: "ip1"
  param {
    lr_mult: 1
  }
  param {
    lr_mult: 2
  }
  inner_product_param {
    num_output: 64
    weight_filler {
      type: "gaussian"
      std: 0.1
    }
    bias_filler {
      type: "constant"
    }
  }
}
layer {
  name: "ip2"
  type: "InnerProduct"
  bottom: "ip1"
  top: "ip2"
  param {
    lr_mult: 1
  }
  param {
    lr_mult: 2
  }
  inner_product_param {
    num_output: 64
    weight_filler {
      type: "gaussian"
      std: 0.1
    }
    bias_filler {
      type: "constant"
    }
  }
}
layer {
  name: "ip3"
  type: "InnerProduct"
  bottom: "ip2"
  top: "ip3"
  param {
    lr_mult: 1
  }
  param {
    lr_mult: 2
  }
  inner_product_param {
    num_output: 50
    weight_filler {
      type: "gaussian"
      std: 0.1
    }
    bias_filler {
      type: "constant"
    }
  }
}
layer {
  name: "accuracy"
  type: "Accuracy"
  bottom: "ip3"
  bottom: "label"
  top: "accuracy"
  include {
    phase: TEST
  }
}
layer {
  name: "loss"
  type: "SoftmaxWithLoss"
  bottom: "ip3"
  bottom: "label"
  top: "loss"
}
I0502 20:44:07.386699 13343 layer_factory.hpp:77] Creating layer intercept
I0502 20:44:07.386708 13343 net.cpp:94] Creating Layer intercept
I0502 20:44:07.386713 13343 net.cpp:409] intercept -> data
I0502 20:44:07.386719 13343 net.cpp:409] intercept -> label
I0502 20:44:07.386726 13343 hdf5_data_layer.cpp:79] Loading list of HDF5 filenames from: /home/purduethu/scratch/radon/d/deng106/CNNStatisticalModel/distributions/input/5_distributions_100_sample_size_test-distributions-path.txt
I0502 20:44:07.386745 13343 hdf5_data_layer.cpp:93] Number of HDF5 files: 1
I0502 20:44:07.391080 13343 net.cpp:144] Setting up intercept
I0502 20:44:07.391108 13343 net.cpp:151] Top shape: 20 1 10 10 (2000)
I0502 20:44:07.391113 13343 net.cpp:151] Top shape: 20 (20)
I0502 20:44:07.391116 13343 net.cpp:159] Memory required for data: 8080
I0502 20:44:07.391121 13343 layer_factory.hpp:77] Creating layer label_intercept_1_split
I0502 20:44:07.391139 13343 net.cpp:94] Creating Layer label_intercept_1_split
I0502 20:44:07.391144 13343 net.cpp:435] label_intercept_1_split <- label
I0502 20:44:07.391149 13343 net.cpp:409] label_intercept_1_split -> label_intercept_1_split_0
I0502 20:44:07.391156 13343 net.cpp:409] label_intercept_1_split -> label_intercept_1_split_1
I0502 20:44:07.391189 13343 net.cpp:144] Setting up label_intercept_1_split
I0502 20:44:07.391196 13343 net.cpp:151] Top shape: 20 (20)
I0502 20:44:07.391201 13343 net.cpp:151] Top shape: 20 (20)
I0502 20:44:07.391203 13343 net.cpp:159] Memory required for data: 8240
I0502 20:44:07.391206 13343 layer_factory.hpp:77] Creating layer conv1
I0502 20:44:07.391216 13343 net.cpp:94] Creating Layer conv1
I0502 20:44:07.391221 13343 net.cpp:435] conv1 <- data
I0502 20:44:07.391225 13343 net.cpp:409] conv1 -> conv1
I0502 20:44:07.392017 13343 net.cpp:144] Setting up conv1
I0502 20:44:07.392037 13343 net.cpp:151] Top shape: 20 64 10 10 (128000)
I0502 20:44:07.392042 13343 net.cpp:159] Memory required for data: 520240
I0502 20:44:07.392051 13343 layer_factory.hpp:77] Creating layer relu1
I0502 20:44:07.392057 13343 net.cpp:94] Creating Layer relu1
I0502 20:44:07.392061 13343 net.cpp:435] relu1 <- conv1
I0502 20:44:07.392066 13343 net.cpp:396] relu1 -> conv1 (in-place)
I0502 20:44:07.392073 13343 net.cpp:144] Setting up relu1
I0502 20:44:07.392078 13343 net.cpp:151] Top shape: 20 64 10 10 (128000)
I0502 20:44:07.392081 13343 net.cpp:159] Memory required for data: 1032240
I0502 20:44:07.392084 13343 layer_factory.hpp:77] Creating layer conv2
I0502 20:44:07.392093 13343 net.cpp:94] Creating Layer conv2
I0502 20:44:07.392096 13343 net.cpp:435] conv2 <- conv1
I0502 20:44:07.392102 13343 net.cpp:409] conv2 -> conv2
I0502 20:44:07.395673 13343 net.cpp:144] Setting up conv2
I0502 20:44:07.395685 13343 net.cpp:151] Top shape: 20 64 10 10 (128000)
I0502 20:44:07.395689 13343 net.cpp:159] Memory required for data: 1544240
I0502 20:44:07.395696 13343 layer_factory.hpp:77] Creating layer relu2
I0502 20:44:07.395702 13343 net.cpp:94] Creating Layer relu2
I0502 20:44:07.395706 13343 net.cpp:435] relu2 <- conv2
I0502 20:44:07.395710 13343 net.cpp:396] relu2 -> conv2 (in-place)
I0502 20:44:07.395717 13343 net.cpp:144] Setting up relu2
I0502 20:44:07.395721 13343 net.cpp:151] Top shape: 20 64 10 10 (128000)
I0502 20:44:07.395725 13343 net.cpp:159] Memory required for data: 2056240
I0502 20:44:07.395728 13343 layer_factory.hpp:77] Creating layer pool2
I0502 20:44:07.395733 13343 net.cpp:94] Creating Layer pool2
I0502 20:44:07.395737 13343 net.cpp:435] pool2 <- conv2
I0502 20:44:07.395741 13343 net.cpp:409] pool2 -> pool2
I0502 20:44:07.395773 13343 net.cpp:144] Setting up pool2
I0502 20:44:07.395779 13343 net.cpp:151] Top shape: 20 64 5 5 (32000)
I0502 20:44:07.395782 13343 net.cpp:159] Memory required for data: 2184240
I0502 20:44:07.395787 13343 layer_factory.hpp:77] Creating layer conv3
I0502 20:44:07.395793 13343 net.cpp:94] Creating Layer conv3
I0502 20:44:07.395797 13343 net.cpp:435] conv3 <- pool2
I0502 20:44:07.395802 13343 net.cpp:409] conv3 -> conv3
I0502 20:44:07.400596 13343 net.cpp:144] Setting up conv3
I0502 20:44:07.400610 13343 net.cpp:151] Top shape: 20 64 5 5 (32000)
I0502 20:44:07.400614 13343 net.cpp:159] Memory required for data: 2312240
I0502 20:44:07.400624 13343 layer_factory.hpp:77] Creating layer relu3
I0502 20:44:07.400630 13343 net.cpp:94] Creating Layer relu3
I0502 20:44:07.400635 13343 net.cpp:435] relu3 <- conv3
I0502 20:44:07.400638 13343 net.cpp:396] relu3 -> conv3 (in-place)
I0502 20:44:07.400645 13343 net.cpp:144] Setting up relu3
I0502 20:44:07.400650 13343 net.cpp:151] Top shape: 20 64 5 5 (32000)
I0502 20:44:07.400653 13343 net.cpp:159] Memory required for data: 2440240
I0502 20:44:07.400656 13343 layer_factory.hpp:77] Creating layer conv4
I0502 20:44:07.400663 13343 net.cpp:94] Creating Layer conv4
I0502 20:44:07.400667 13343 net.cpp:435] conv4 <- conv3
I0502 20:44:07.400672 13343 net.cpp:409] conv4 -> conv4
I0502 20:44:07.404387 13343 net.cpp:144] Setting up conv4
I0502 20:44:07.404400 13343 net.cpp:151] Top shape: 20 64 5 5 (32000)
I0502 20:44:07.404404 13343 net.cpp:159] Memory required for data: 2568240
I0502 20:44:07.404410 13343 layer_factory.hpp:77] Creating layer relu4
I0502 20:44:07.404417 13343 net.cpp:94] Creating Layer relu4
I0502 20:44:07.404420 13343 net.cpp:435] relu4 <- conv4
I0502 20:44:07.404428 13343 net.cpp:396] relu4 -> conv4 (in-place)
I0502 20:44:07.404435 13343 net.cpp:144] Setting up relu4
I0502 20:44:07.404440 13343 net.cpp:151] Top shape: 20 64 5 5 (32000)
I0502 20:44:07.404443 13343 net.cpp:159] Memory required for data: 2696240
I0502 20:44:07.404446 13343 layer_factory.hpp:77] Creating layer conv5
I0502 20:44:07.404454 13343 net.cpp:94] Creating Layer conv5
I0502 20:44:07.404458 13343 net.cpp:435] conv5 <- conv4
I0502 20:44:07.404462 13343 net.cpp:409] conv5 -> conv5
I0502 20:44:07.408313 13343 net.cpp:144] Setting up conv5
I0502 20:44:07.408325 13343 net.cpp:151] Top shape: 20 64 5 5 (32000)
I0502 20:44:07.408335 13343 net.cpp:159] Memory required for data: 2824240
I0502 20:44:07.408344 13343 layer_factory.hpp:77] Creating layer relu5
I0502 20:44:07.408350 13343 net.cpp:94] Creating Layer relu5
I0502 20:44:07.408354 13343 net.cpp:435] relu5 <- conv5
I0502 20:44:07.408359 13343 net.cpp:396] relu5 -> conv5 (in-place)
I0502 20:44:07.408365 13343 net.cpp:144] Setting up relu5
I0502 20:44:07.408370 13343 net.cpp:151] Top shape: 20 64 5 5 (32000)
I0502 20:44:07.408373 13343 net.cpp:159] Memory required for data: 2952240
I0502 20:44:07.408376 13343 layer_factory.hpp:77] Creating layer pool5
I0502 20:44:07.408381 13343 net.cpp:94] Creating Layer pool5
I0502 20:44:07.408385 13343 net.cpp:435] pool5 <- conv5
I0502 20:44:07.408388 13343 net.cpp:409] pool5 -> pool5
I0502 20:44:07.408411 13343 net.cpp:144] Setting up pool5
I0502 20:44:07.408417 13343 net.cpp:151] Top shape: 20 64 2 2 (5120)
I0502 20:44:07.408421 13343 net.cpp:159] Memory required for data: 2972720
I0502 20:44:07.408424 13343 layer_factory.hpp:77] Creating layer ip1
I0502 20:44:07.408430 13343 net.cpp:94] Creating Layer ip1
I0502 20:44:07.408434 13343 net.cpp:435] ip1 <- pool5
I0502 20:44:07.408439 13343 net.cpp:409] ip1 -> ip1
I0502 20:44:07.408927 13343 net.cpp:144] Setting up ip1
I0502 20:44:07.408936 13343 net.cpp:151] Top shape: 20 64 (1280)
I0502 20:44:07.408939 13343 net.cpp:159] Memory required for data: 2977840
I0502 20:44:07.408944 13343 layer_factory.hpp:77] Creating layer ip2
I0502 20:44:07.408951 13343 net.cpp:94] Creating Layer ip2
I0502 20:44:07.408954 13343 net.cpp:435] ip2 <- ip1
I0502 20:44:07.408958 13343 net.cpp:409] ip2 -> ip2
I0502 20:44:07.409129 13343 net.cpp:144] Setting up ip2
I0502 20:44:07.409135 13343 net.cpp:151] Top shape: 20 64 (1280)
I0502 20:44:07.409138 13343 net.cpp:159] Memory required for data: 2982960
I0502 20:44:07.409143 13343 layer_factory.hpp:77] Creating layer ip3
I0502 20:44:07.409152 13343 net.cpp:94] Creating Layer ip3
I0502 20:44:07.409154 13343 net.cpp:435] ip3 <- ip2
I0502 20:44:07.409159 13343 net.cpp:409] ip3 -> ip3
I0502 20:44:07.409307 13343 net.cpp:144] Setting up ip3
I0502 20:44:07.409312 13343 net.cpp:151] Top shape: 20 50 (1000)
I0502 20:44:07.409315 13343 net.cpp:159] Memory required for data: 2986960
I0502 20:44:07.409320 13343 layer_factory.hpp:77] Creating layer ip3_ip3_0_split
I0502 20:44:07.409325 13343 net.cpp:94] Creating Layer ip3_ip3_0_split
I0502 20:44:07.409329 13343 net.cpp:435] ip3_ip3_0_split <- ip3
I0502 20:44:07.409333 13343 net.cpp:409] ip3_ip3_0_split -> ip3_ip3_0_split_0
I0502 20:44:07.409338 13343 net.cpp:409] ip3_ip3_0_split -> ip3_ip3_0_split_1
I0502 20:44:07.409363 13343 net.cpp:144] Setting up ip3_ip3_0_split
I0502 20:44:07.409368 13343 net.cpp:151] Top shape: 20 50 (1000)
I0502 20:44:07.409371 13343 net.cpp:151] Top shape: 20 50 (1000)
I0502 20:44:07.409374 13343 net.cpp:159] Memory required for data: 2994960
I0502 20:44:07.409377 13343 layer_factory.hpp:77] Creating layer accuracy
I0502 20:44:07.409384 13343 net.cpp:94] Creating Layer accuracy
I0502 20:44:07.409386 13343 net.cpp:435] accuracy <- ip3_ip3_0_split_0
I0502 20:44:07.409390 13343 net.cpp:435] accuracy <- label_intercept_1_split_0
I0502 20:44:07.409395 13343 net.cpp:409] accuracy -> accuracy
…
