…
I0501 21:30:28.174070 14866 net.cpp:323] The NetState phase (0) differed from the phase (1) specified by a rule in layer intercept
I0501 21:30:28.174085 14866 net.cpp:323] The NetState phase (0) differed from the phase (1) specified by a rule in layer accuracy
I0501 21:30:28.174171 14866 net.cpp:52] Initializing net from parameters: 
state {
  phase: TRAIN
}
layer {
  name: "parameters"
  type: "HDF5Data"
  top: "data"
  top: "label"
  include {
    phase: TRAIN
  }
  hdf5_data_param {
    source: "/home/purduethu/scratch/radon/d/deng106/CNNStatisticalModel/distributions/input/20_distributions_100_sample_size_train-distributions-path.txt"
    batch_size: 20
  }
}
layer {
  name: "conv1"
  type: "Convolution"
  bottom: "data"
  top: "conv1"
  param {
    lr_mult: 1
  }
  param {
    lr_mult: 2
  }
  convolution_param {
    num_output: 64
    pad: 2
    kernel_size: 5
    stride: 1
    weight_filler {
      type: "gaussian"
      std: 0.0001
    }
    bias_filler {
      type: "constant"
    }
  }
}
layer {
  name: "relu1"
  type: "ReLU"
  bottom: "conv1"
  top: "conv1"
}
layer {
  name: "conv2"
  type: "Convolution"
  bottom: "conv1"
  top: "conv2"
  param {
    lr_mult: 1
  }
  param {
    lr_mult: 2
  }
  convolution_param {
    num_output: 64
    pad: 2
    kernel_size: 5
    stride: 1
    weight_filler {
      type: "gaussian"
      std: 0.01
    }
    bias_filler {
      type: "constant"
    }
  }
}
layer {
  name: "relu2"
  type: "ReLU"
  bottom: "conv2"
  top: "conv2"
}
layer {
  name: "pool2"
  type: "Pooling"
  bottom: "conv2"
  top: "pool2"
  pooling_param {
    pool: MAX
    kernel_size: 3
    stride: 2
  }
}
layer {
  name: "conv3"
  type: "Convolution"
  bottom: "pool2"
  top: "conv3"
  param {
    lr_mult: 1
  }
  param {
    lr_mult: 2
  }
  convolution_param {
    num_output: 64
    pad: 2
    kernel_size: 5
    stride: 1
    weight_filler {
      type: "gaussian"
      std: 0.01
    }
    bias_filler {
      type: "constant"
    }
  }
}
layer {
  name: "relu3"
  type: "ReLU"
  bottom: "conv3"
  top: "conv3"
}
layer {
  name: "conv4"
  type: "Convolution"
  bottom: "conv3"
  top: "conv4"
  param {
    lr_mult: 1
  }
  param {
    lr_mult: 2
  }
  convolution_param {
    num_output: 64
    pad: 2
    kernel_size: 5
    stride: 1
    weight_filler {
      type: "gaussian"
      std: 0.01
    }
    bias_filler {
      type: "constant"
    }
  }
}
layer {
  name: "relu4"
  type: "ReLU"
  bottom: "conv4"
  top: "conv4"
}
layer {
  name: "conv5"
  type: "Convolution"
  bottom: "conv4"
  top: "conv5"
  param {
    lr_mult: 1
  }
  param {
    lr_mult: 2
  }
  convolution_param {
    num_output: 64
    pad: 2
    kernel_size: 5
    stride: 1
    weight_filler {
      type: "gaussian"
      std: 0.01
    }
    bias_filler {
      type: "constant"
    }
  }
}
layer {
  name: "relu5"
  type: "ReLU"
  bottom: "conv5"
  top: "conv5"
}
layer {
  name: "pool5"
  type: "Pooling"
  bottom: "conv5"
  top: "pool5"
  pooling_param {
    pool: AVE
    kernel_size: 3
    stride: 2
  }
}
layer {
  name: "ip1"
  type: "InnerProduct"
  bottom: "pool5"
  top: "ip1"
  param {
    lr_mult: 1
  }
  param {
    lr_mult: 2
  }
  inner_product_param {
    num_output: 64
    weight_filler {
      type: "gaussian"
      std: 0.1
    }
    bias_filler {
      type: "constant"
    }
  }
}
layer {
  name: "ip2"
  type: "InnerProduct"
  bottom: "ip1"
  top: "ip2"
  param {
    lr_mult: 1
  }
  param {
    lr_mult: 2
  }
  inner_product_param {
    num_output: 64
    weight_filler {
      type: "gaussian"
      std: 0.1
    }
    bias_filler {
      type: "constant"
    }
  }
}
layer {
  name: "ip3"
  type: "InnerProduct"
  bottom: "ip2"
  top: "ip3"
  param {
    lr_mult: 1
  }
  param {
    lr_mult: 2
  }
  inner_product_param {
    num_output: 50
    weight_filler {
      type: "gaussian"
      std: 0.1
    }
    bias_filler {
      type: "constant"
    }
  }
}
layer {
  name: "loss"
  type: "SoftmaxWithLoss"
  bottom: "ip3"
  bottom: "label"
  top: "loss"
}
I0501 21:30:28.174244 14866 layer_factory.hpp:77] Creating layer parameters
I0501 21:30:28.174258 14866 net.cpp:94] Creating Layer parameters
I0501 21:30:28.174263 14866 net.cpp:409] parameters -> data
I0501 21:30:28.174283 14866 net.cpp:409] parameters -> label
I0501 21:30:28.174293 14866 hdf5_data_layer.cpp:79] Loading list of HDF5 filenames from: /home/purduethu/scratch/radon/d/deng106/CNNStatisticalModel/distributions/input/20_distributions_100_sample_size_train-distributions-path.txt
I0501 21:30:28.174314 14866 hdf5_data_layer.cpp:93] Number of HDF5 files: 1
I0501 21:30:28.174762 14866 hdf5.cpp:32] Datatype class: H5T_FLOAT
I0501 21:30:28.238096 14866 hdf5.cpp:35] Datatype class: H5T_INTEGER
I0501 21:30:28.239768 14866 net.cpp:144] Setting up parameters
I0501 21:30:28.239787 14866 net.cpp:151] Top shape: 20 1 10 10 (2000)
I0501 21:30:28.239792 14866 net.cpp:151] Top shape: 20 (20)
I0501 21:30:28.239796 14866 net.cpp:159] Memory required for data: 8080
I0501 21:30:28.239804 14866 layer_factory.hpp:77] Creating layer conv1
I0501 21:30:28.239826 14866 net.cpp:94] Creating Layer conv1
I0501 21:30:28.239832 14866 net.cpp:435] conv1 <- data
I0501 21:30:28.239843 14866 net.cpp:409] conv1 -> conv1
I0501 21:30:28.243613 14866 net.cpp:144] Setting up conv1
I0501 21:30:28.243628 14866 net.cpp:151] Top shape: 20 64 10 10 (128000)
I0501 21:30:28.243633 14866 net.cpp:159] Memory required for data: 520080
I0501 21:30:28.243644 14866 layer_factory.hpp:77] Creating layer relu1
I0501 21:30:28.243651 14866 net.cpp:94] Creating Layer relu1
I0501 21:30:28.243655 14866 net.cpp:435] relu1 <- conv1
I0501 21:30:28.243660 14866 net.cpp:396] relu1 -> conv1 (in-place)
I0501 21:30:28.243675 14866 net.cpp:144] Setting up relu1
I0501 21:30:28.243680 14866 net.cpp:151] Top shape: 20 64 10 10 (128000)
I0501 21:30:28.243683 14866 net.cpp:159] Memory required for data: 1032080
I0501 21:30:28.243686 14866 layer_factory.hpp:77] Creating layer conv2
I0501 21:30:28.243695 14866 net.cpp:94] Creating Layer conv2
I0501 21:30:28.243698 14866 net.cpp:435] conv2 <- conv1
I0501 21:30:28.243702 14866 net.cpp:409] conv2 -> conv2
I0501 21:30:28.248795 14866 net.cpp:144] Setting up conv2
I0501 21:30:28.248808 14866 net.cpp:151] Top shape: 20 64 10 10 (128000)
I0501 21:30:28.248813 14866 net.cpp:159] Memory required for data: 1544080
I0501 21:30:28.248821 14866 layer_factory.hpp:77] Creating layer relu2
I0501 21:30:28.248827 14866 net.cpp:94] Creating Layer relu2
I0501 21:30:28.248831 14866 net.cpp:435] relu2 <- conv2
I0501 21:30:28.248836 14866 net.cpp:396] relu2 -> conv2 (in-place)
I0501 21:30:28.248842 14866 net.cpp:144] Setting up relu2
I0501 21:30:28.248847 14866 net.cpp:151] Top shape: 20 64 10 10 (128000)
I0501 21:30:28.248850 14866 net.cpp:159] Memory required for data: 2056080
I0501 21:30:28.248853 14866 layer_factory.hpp:77] Creating layer pool2
I0501 21:30:28.248867 14866 net.cpp:94] Creating Layer pool2
I0501 21:30:28.248872 14866 net.cpp:435] pool2 <- conv2
I0501 21:30:28.248875 14866 net.cpp:409] pool2 -> pool2
I0501 21:30:28.248917 14866 net.cpp:144] Setting up pool2
I0501 21:30:28.248924 14866 net.cpp:151] Top shape: 20 64 5 5 (32000)
I0501 21:30:28.248927 14866 net.cpp:159] Memory required for data: 2184080
I0501 21:30:28.248930 14866 layer_factory.hpp:77] Creating layer conv3
I0501 21:30:28.248939 14866 net.cpp:94] Creating Layer conv3
I0501 21:30:28.248942 14866 net.cpp:435] conv3 <- pool2
I0501 21:30:28.248955 14866 net.cpp:409] conv3 -> conv3
I0501 21:30:28.253741 14866 net.cpp:144] Setting up conv3
I0501 21:30:28.253754 14866 net.cpp:151] Top shape: 20 64 5 5 (32000)
I0501 21:30:28.253758 14866 net.cpp:159] Memory required for data: 2312080
I0501 21:30:28.253767 14866 layer_factory.hpp:77] Creating layer relu3
I0501 21:30:28.253772 14866 net.cpp:94] Creating Layer relu3
I0501 21:30:28.253775 14866 net.cpp:435] relu3 <- conv3
I0501 21:30:28.253780 14866 net.cpp:396] relu3 -> conv3 (in-place)
I0501 21:30:28.253787 14866 net.cpp:144] Setting up relu3
I0501 21:30:28.253792 14866 net.cpp:151] Top shape: 20 64 5 5 (32000)
I0501 21:30:28.253794 14866 net.cpp:159] Memory required for data: 2440080
I0501 21:30:28.253798 14866 layer_factory.hpp:77] Creating layer conv4
I0501 21:30:28.253805 14866 net.cpp:94] Creating Layer conv4
I0501 21:30:28.253809 14866 net.cpp:435] conv4 <- conv3
I0501 21:30:28.253814 14866 net.cpp:409] conv4 -> conv4
I0501 21:30:28.258119 14866 net.cpp:144] Setting up conv4
I0501 21:30:28.258132 14866 net.cpp:151] Top shape: 20 64 5 5 (32000)
I0501 21:30:28.258136 14866 net.cpp:159] Memory required for data: 2568080
I0501 21:30:28.258142 14866 layer_factory.hpp:77] Creating layer relu4
I0501 21:30:28.258148 14866 net.cpp:94] Creating Layer relu4
I0501 21:30:28.258152 14866 net.cpp:435] relu4 <- conv4
I0501 21:30:28.258157 14866 net.cpp:396] relu4 -> conv4 (in-place)
I0501 21:30:28.258163 14866 net.cpp:144] Setting up relu4
I0501 21:30:28.258167 14866 net.cpp:151] Top shape: 20 64 5 5 (32000)
I0501 21:30:28.258170 14866 net.cpp:159] Memory required for data: 2696080
I0501 21:30:28.258173 14866 layer_factory.hpp:77] Creating layer conv5
I0501 21:30:28.258182 14866 net.cpp:94] Creating Layer conv5
I0501 21:30:28.258185 14866 net.cpp:435] conv5 <- conv4
I0501 21:30:28.258189 14866 net.cpp:409] conv5 -> conv5
I0501 21:30:28.263537 14866 net.cpp:144] Setting up conv5
I0501 21:30:28.263551 14866 net.cpp:151] Top shape: 20 64 5 5 (32000)
I0501 21:30:28.263556 14866 net.cpp:159] Memory required for data: 2824080
I0501 21:30:28.263564 14866 layer_factory.hpp:77] Creating layer relu5
I0501 21:30:28.263571 14866 net.cpp:94] Creating Layer relu5
I0501 21:30:28.263573 14866 net.cpp:435] relu5 <- conv5
I0501 21:30:28.263578 14866 net.cpp:396] relu5 -> conv5 (in-place)
I0501 21:30:28.263584 14866 net.cpp:144] Setting up relu5
I0501 21:30:28.263589 14866 net.cpp:151] Top shape: 20 64 5 5 (32000)
I0501 21:30:28.263592 14866 net.cpp:159] Memory required for data: 2952080
I0501 21:30:28.263595 14866 layer_factory.hpp:77] Creating layer pool5
I0501 21:30:28.263600 14866 net.cpp:94] Creating Layer pool5
I0501 21:30:28.263603 14866 net.cpp:435] pool5 <- conv5
I0501 21:30:28.263607 14866 net.cpp:409] pool5 -> pool5
I0501 21:30:28.263638 14866 net.cpp:144] Setting up pool5
I0501 21:30:28.263645 14866 net.cpp:151] Top shape: 20 64 2 2 (5120)
I0501 21:30:28.263649 14866 net.cpp:159] Memory required for data: 2972560
I0501 21:30:28.263653 14866 layer_factory.hpp:77] Creating layer ip1
I0501 21:30:28.263661 14866 net.cpp:94] Creating Layer ip1
I0501 21:30:28.263665 14866 net.cpp:435] ip1 <- pool5
I0501 21:30:28.263669 14866 net.cpp:409] ip1 -> ip1
I0501 21:30:28.264773 14866 net.cpp:144] Setting up ip1
I0501 21:30:28.264787 14866 net.cpp:151] Top shape: 20 64 (1280)
I0501 21:30:28.264791 14866 net.cpp:159] Memory required for data: 2977680
I0501 21:30:28.264797 14866 layer_factory.hpp:77] Creating layer ip2
I0501 21:30:28.264803 14866 net.cpp:94] Creating Layer ip2
I0501 21:30:28.264812 14866 net.cpp:435] ip2 <- ip1
I0501 21:30:28.264818 14866 net.cpp:409] ip2 -> ip2
I0501 21:30:28.264981 14866 net.cpp:144] Setting up ip2
I0501 21:30:28.264988 14866 net.cpp:151] Top shape: 20 64 (1280)
I0501 21:30:28.264991 14866 net.cpp:159] Memory required for data: 2982800
I0501 21:30:28.264997 14866 layer_factory.hpp:77] Creating layer ip3
I0501 21:30:28.265002 14866 net.cpp:94] Creating Layer ip3
I0501 21:30:28.265005 14866 net.cpp:435] ip3 <- ip2
I0501 21:30:28.265010 14866 net.cpp:409] ip3 -> ip3
I0501 21:30:28.265147 14866 net.cpp:144] Setting up ip3
I0501 21:30:28.265159 14866 net.cpp:151] Top shape: 20 50 (1000)
I0501 21:30:28.265162 14866 net.cpp:159] Memory required for data: 2986800
I0501 21:30:28.265167 14866 layer_factory.hpp:77] Creating layer loss
I0501 21:30:28.265173 14866 net.cpp:94] Creating Layer loss
I0501 21:30:28.265177 14866 net.cpp:435] loss <- ip3
I0501 21:30:28.265180 14866 net.cpp:435] loss <- label
I0501 21:30:28.265187 14866 net.cpp:409] loss -> loss
I0501 21:30:28.265199 14866 layer_factory.hpp:77] Creating layer loss
…
I0501 21:30:28.266324 14866 solver.cpp:181] Creating test net (#0) specified by net file: ./protocol/dis_20_100_dimension.protocol_distribution
I0501 21:30:28.266350 14866 net.cpp:323] The NetState phase (1) differed from the phase (0) specified by a rule in layer parameters
I0501 21:30:28.266446 14866 net.cpp:52] Initializing net from parameters: 
state {
  phase: TEST
}
layer {
  name: "intercept"
  type: "HDF5Data"
  top: "data"
  top: "label"
  include {
    phase: TEST
  }
  hdf5_data_param {
    source: "/home/purduethu/scratch/radon/d/deng106/CNNStatisticalModel/distributions/input/20_distributions_100_sample_size_test-distributions-path.txt"
    batch_size: 20
  }
}
layer {
  name: "conv1"
  type: "Convolution"
  bottom: "data"
  top: "conv1"
  param {
    lr_mult: 1
  }
  param {
    lr_mult: 2
  }
  convolution_param {
    num_output: 64
    pad: 2
    kernel_size: 5
    stride: 1
    weight_filler {
      type: "gaussian"
      std: 0.0001
    }
    bias_filler {
      type: "constant"
    }
  }
}
layer {
  name: "relu1"
  type: "ReLU"
  bottom: "conv1"
  top: "conv1"
}
layer {
  name: "conv2"
  type: "Convolution"
  bottom: "conv1"
  top: "conv2"
  param {
    lr_mult: 1
  }
  param {
    lr_mult: 2
  }
  convolution_param {
    num_output: 64
    pad: 2
    kernel_size: 5
    stride: 1
    weight_filler {
      type: "gaussian"
      std: 0.01
    }
    bias_filler {
      type: "constant"
    }
  }
}
layer {
  name: "relu2"
  type: "ReLU"
  bottom: "conv2"
  top: "conv2"
}
layer {
  name: "pool2"
  type: "Pooling"
  bottom: "conv2"
  top: "pool2"
  pooling_param {
    pool: MAX
    kernel_size: 3
    stride: 2
  }
}
layer {
  name: "conv3"
  type: "Convolution"
  bottom: "pool2"
  top: "conv3"
  param {
    lr_mult: 1
  }
  param {
    lr_mult: 2
  }
  convolution_param {
    num_output: 64
    pad: 2
    kernel_size: 5
    stride: 1
    weight_filler {
      type: "gaussian"
      std: 0.01
    }
    bias_filler {
      type: "constant"
    }
  }
}
layer {
  name: "relu3"
  type: "ReLU"
  bottom: "conv3"
  top: "conv3"
}
layer {
  name: "conv4"
  type: "Convolution"
  bottom: "conv3"
  top: "conv4"
  param {
    lr_mult: 1
  }
  param {
    lr_mult: 2
  }
  convolution_param {
    num_output: 64
    pad: 2
    kernel_size: 5
    stride: 1
    weight_filler {
      type: "gaussian"
      std: 0.01
    }
    bias_filler {
      type: "constant"
    }
  }
}
layer {
  name: "relu4"
  type: "ReLU"
  bottom: "conv4"
  top: "conv4"
}
layer {
  name: "conv5"
  type: "Convolution"
  bottom: "conv4"
  top: "conv5"
  param {
    lr_mult: 1
  }
  param {
    lr_mult: 2
  }
  convolution_param {
    num_output: 64
    pad: 2
    kernel_size: 5
    stride: 1
    weight_filler {
      type: "gaussian"
      std: 0.01
    }
    bias_filler {
      type: "constant"
    }
  }
}
layer {
  name: "relu5"
  type: "ReLU"
  bottom: "conv5"
  top: "conv5"
}
layer {
  name: "pool5"
  type: "Pooling"
  bottom: "conv5"
  top: "pool5"
  pooling_param {
    pool: AVE
    kernel_size: 3
    stride: 2
  }
}
layer {
  name: "ip1"
  type: "InnerProduct"
  bottom: "pool5"
  top: "ip1"
  param {
    lr_mult: 1
  }
  param {
    lr_mult: 2
  }
  inner_product_param {
    num_output: 64
    weight_filler {
      type: "gaussian"
      std: 0.1
    }
    bias_filler {
      type: "constant"
    }
  }
}
layer {
  name: "ip2"
  type: "InnerProduct"
  bottom: "ip1"
  top: "ip2"
  param {
    lr_mult: 1
  }
  param {
    lr_mult: 2
  }
  inner_product_param {
    num_output: 64
    weight_filler {
      type: "gaussian"
      std: 0.1
    }
    bias_filler {
      type: "constant"
    }
  }
}
layer {
  name: "ip3"
  type: "InnerProduct"
  bottom: "ip2"
  top: "ip3"
  param {
    lr_mult: 1
  }
  param {
    lr_mult: 2
  }
  inner_product_param {
    num_output: 50
    weight_filler {
      type: "gaussian"
      std: 0.1
    }
    bias_filler {
      type: "constant"
    }
  }
}
layer {
  name: "accuracy"
  type: "Accuracy"
  bottom: "ip3"
  bottom: "label"
  top: "accuracy"
  include {
    phase: TEST
  }
}
layer {
  name: "loss"
  type: "SoftmaxWithLoss"
  bottom: "ip3"
  bottom: "label"
  top: "loss"
}
I0501 21:30:28.266516 14866 layer_factory.hpp:77] Creating layer intercept
I0501 21:30:28.266525 14866 net.cpp:94] Creating Layer intercept
I0501 21:30:28.266530 14866 net.cpp:409] intercept -> data
I0501 21:30:28.266535 14866 net.cpp:409] intercept -> label
I0501 21:30:28.266541 14866 hdf5_data_layer.cpp:79] Loading list of HDF5 filenames from: /home/purduethu/scratch/radon/d/deng106/CNNStatisticalModel/distributions/input/20_distributions_100_sample_size_test-distributions-path.txt
I0501 21:30:28.266559 14866 hdf5_data_layer.cpp:93] Number of HDF5 files: 1
I0501 21:30:28.283681 14866 net.cpp:144] Setting up intercept
I0501 21:30:28.283712 14866 net.cpp:151] Top shape: 20 1 10 10 (2000)
I0501 21:30:28.283717 14866 net.cpp:151] Top shape: 20 (20)
I0501 21:30:28.283721 14866 net.cpp:159] Memory required for data: 8080
I0501 21:30:28.283726 14866 layer_factory.hpp:77] Creating layer label_intercept_1_split
I0501 21:30:28.283745 14866 net.cpp:94] Creating Layer label_intercept_1_split
I0501 21:30:28.283749 14866 net.cpp:435] label_intercept_1_split <- label
I0501 21:30:28.283756 14866 net.cpp:409] label_intercept_1_split -> label_intercept_1_split_0
I0501 21:30:28.283764 14866 net.cpp:409] label_intercept_1_split -> label_intercept_1_split_1
I0501 21:30:28.283795 14866 net.cpp:144] Setting up label_intercept_1_split
I0501 21:30:28.283802 14866 net.cpp:151] Top shape: 20 (20)
I0501 21:30:28.283805 14866 net.cpp:151] Top shape: 20 (20)
I0501 21:30:28.283808 14866 net.cpp:159] Memory required for data: 8240
I0501 21:30:28.283812 14866 layer_factory.hpp:77] Creating layer conv1
I0501 21:30:28.283823 14866 net.cpp:94] Creating Layer conv1
I0501 21:30:28.283825 14866 net.cpp:435] conv1 <- data
I0501 21:30:28.283831 14866 net.cpp:409] conv1 -> conv1
I0501 21:30:28.284488 14866 net.cpp:144] Setting up conv1
I0501 21:30:28.284509 14866 net.cpp:151] Top shape: 20 64 10 10 (128000)
I0501 21:30:28.284513 14866 net.cpp:159] Memory required for data: 520240
I0501 21:30:28.284523 14866 layer_factory.hpp:77] Creating layer relu1
I0501 21:30:28.284530 14866 net.cpp:94] Creating Layer relu1
I0501 21:30:28.284533 14866 net.cpp:435] relu1 <- conv1
I0501 21:30:28.284538 14866 net.cpp:396] relu1 -> conv1 (in-place)
I0501 21:30:28.284544 14866 net.cpp:144] Setting up relu1
I0501 21:30:28.284549 14866 net.cpp:151] Top shape: 20 64 10 10 (128000)
I0501 21:30:28.284569 14866 net.cpp:159] Memory required for data: 1032240
I0501 21:30:28.284572 14866 layer_factory.hpp:77] Creating layer conv2
I0501 21:30:28.284580 14866 net.cpp:94] Creating Layer conv2
I0501 21:30:28.284584 14866 net.cpp:435] conv2 <- conv1
I0501 21:30:28.284590 14866 net.cpp:409] conv2 -> conv2
I0501 21:30:28.287966 14866 net.cpp:144] Setting up conv2
I0501 21:30:28.287977 14866 net.cpp:151] Top shape: 20 64 10 10 (128000)
I0501 21:30:28.287981 14866 net.cpp:159] Memory required for data: 1544240
I0501 21:30:28.287989 14866 layer_factory.hpp:77] Creating layer relu2
I0501 21:30:28.287995 14866 net.cpp:94] Creating Layer relu2
I0501 21:30:28.287998 14866 net.cpp:435] relu2 <- conv2
I0501 21:30:28.288003 14866 net.cpp:396] relu2 -> conv2 (in-place)
I0501 21:30:28.288009 14866 net.cpp:144] Setting up relu2
I0501 21:30:28.288014 14866 net.cpp:151] Top shape: 20 64 10 10 (128000)
I0501 21:30:28.288017 14866 net.cpp:159] Memory required for data: 2056240
I0501 21:30:28.288019 14866 layer_factory.hpp:77] Creating layer pool2
I0501 21:30:28.288025 14866 net.cpp:94] Creating Layer pool2
I0501 21:30:28.288028 14866 net.cpp:435] pool2 <- conv2
I0501 21:30:28.288033 14866 net.cpp:409] pool2 -> pool2
I0501 21:30:28.288064 14866 net.cpp:144] Setting up pool2
I0501 21:30:28.288069 14866 net.cpp:151] Top shape: 20 64 5 5 (32000)
I0501 21:30:28.288072 14866 net.cpp:159] Memory required for data: 2184240
I0501 21:30:28.288075 14866 layer_factory.hpp:77] Creating layer conv3
I0501 21:30:28.288084 14866 net.cpp:94] Creating Layer conv3
I0501 21:30:28.288087 14866 net.cpp:435] conv3 <- pool2
I0501 21:30:28.288092 14866 net.cpp:409] conv3 -> conv3
I0501 21:30:28.291976 14866 net.cpp:144] Setting up conv3
I0501 21:30:28.291990 14866 net.cpp:151] Top shape: 20 64 5 5 (32000)
I0501 21:30:28.291995 14866 net.cpp:159] Memory required for data: 2312240
I0501 21:30:28.292002 14866 layer_factory.hpp:77] Creating layer relu3
I0501 21:30:28.292009 14866 net.cpp:94] Creating Layer relu3
I0501 21:30:28.292013 14866 net.cpp:435] relu3 <- conv3
I0501 21:30:28.292017 14866 net.cpp:396] relu3 -> conv3 (in-place)
I0501 21:30:28.292024 14866 net.cpp:144] Setting up relu3
I0501 21:30:28.292028 14866 net.cpp:151] Top shape: 20 64 5 5 (32000)
I0501 21:30:28.292032 14866 net.cpp:159] Memory required for data: 2440240
I0501 21:30:28.292034 14866 layer_factory.hpp:77] Creating layer conv4
I0501 21:30:28.292042 14866 net.cpp:94] Creating Layer conv4
I0501 21:30:28.292045 14866 net.cpp:435] conv4 <- conv3
I0501 21:30:28.292050 14866 net.cpp:409] conv4 -> conv4
I0501 21:30:28.295472 14866 net.cpp:144] Setting up conv4
I0501 21:30:28.295485 14866 net.cpp:151] Top shape: 20 64 5 5 (32000)
I0501 21:30:28.295490 14866 net.cpp:159] Memory required for data: 2568240
I0501 21:30:28.295495 14866 layer_factory.hpp:77] Creating layer relu4
I0501 21:30:28.295501 14866 net.cpp:94] Creating Layer relu4
I0501 21:30:28.295506 14866 net.cpp:435] relu4 <- conv4
I0501 21:30:28.295512 14866 net.cpp:396] relu4 -> conv4 (in-place)
I0501 21:30:28.295521 14866 net.cpp:144] Setting up relu4
I0501 21:30:28.295524 14866 net.cpp:151] Top shape: 20 64 5 5 (32000)
I0501 21:30:28.295527 14866 net.cpp:159] Memory required for data: 2696240
I0501 21:30:28.295531 14866 layer_factory.hpp:77] Creating layer conv5
I0501 21:30:28.295538 14866 net.cpp:94] Creating Layer conv5
I0501 21:30:28.295542 14866 net.cpp:435] conv5 <- conv4
I0501 21:30:28.295547 14866 net.cpp:409] conv5 -> conv5
I0501 21:30:28.298961 14866 net.cpp:144] Setting up conv5
I0501 21:30:28.298980 14866 net.cpp:151] Top shape: 20 64 5 5 (32000)
I0501 21:30:28.298985 14866 net.cpp:159] Memory required for data: 2824240
I0501 21:30:28.298992 14866 layer_factory.hpp:77] Creating layer relu5
I0501 21:30:28.298998 14866 net.cpp:94] Creating Layer relu5
I0501 21:30:28.299001 14866 net.cpp:435] relu5 <- conv5
I0501 21:30:28.299006 14866 net.cpp:396] relu5 -> conv5 (in-place)
I0501 21:30:28.299012 14866 net.cpp:144] Setting up relu5
I0501 21:30:28.299016 14866 net.cpp:151] Top shape: 20 64 5 5 (32000)
I0501 21:30:28.299019 14866 net.cpp:159] Memory required for data: 2952240
I0501 21:30:28.299022 14866 layer_factory.hpp:77] Creating layer pool5
I0501 21:30:28.299027 14866 net.cpp:94] Creating Layer pool5
I0501 21:30:28.299031 14866 net.cpp:435] pool5 <- conv5
I0501 21:30:28.299034 14866 net.cpp:409] pool5 -> pool5
I0501 21:30:28.299057 14866 net.cpp:144] Setting up pool5
I0501 21:30:28.299062 14866 net.cpp:151] Top shape: 20 64 2 2 (5120)
I0501 21:30:28.299065 14866 net.cpp:159] Memory required for data: 2972720
I0501 21:30:28.299069 14866 layer_factory.hpp:77] Creating layer ip1
I0501 21:30:28.299075 14866 net.cpp:94] Creating Layer ip1
I0501 21:30:28.299078 14866 net.cpp:435] ip1 <- pool5
I0501 21:30:28.299083 14866 net.cpp:409] ip1 -> ip1
I0501 21:30:28.299540 14866 net.cpp:144] Setting up ip1
I0501 21:30:28.299546 14866 net.cpp:151] Top shape: 20 64 (1280)
I0501 21:30:28.299549 14866 net.cpp:159] Memory required for data: 2977840
I0501 21:30:28.299554 14866 layer_factory.hpp:77] Creating layer ip2
I0501 21:30:28.299561 14866 net.cpp:94] Creating Layer ip2
I0501 21:30:28.299564 14866 net.cpp:435] ip2 <- ip1
I0501 21:30:28.299568 14866 net.cpp:409] ip2 -> ip2
I0501 21:30:28.299729 14866 net.cpp:144] Setting up ip2
I0501 21:30:28.299736 14866 net.cpp:151] Top shape: 20 64 (1280)
I0501 21:30:28.299739 14866 net.cpp:159] Memory required for data: 2982960
I0501 21:30:28.299744 14866 layer_factory.hpp:77] Creating layer ip3
I0501 21:30:28.299751 14866 net.cpp:94] Creating Layer ip3
I0501 21:30:28.299753 14866 net.cpp:435] ip3 <- ip2
I0501 21:30:28.299758 14866 net.cpp:409] ip3 -> ip3
I0501 21:30:28.299898 14866 net.cpp:144] Setting up ip3
I0501 21:30:28.299904 14866 net.cpp:151] Top shape: 20 50 (1000)
I0501 21:30:28.299907 14866 net.cpp:159] Memory required for data: 2986960
I0501 21:30:28.299911 14866 layer_factory.hpp:77] Creating layer ip3_ip3_0_split
I0501 21:30:28.299916 14866 net.cpp:94] Creating Layer ip3_ip3_0_split
I0501 21:30:28.299919 14866 net.cpp:435] ip3_ip3_0_split <- ip3
I0501 21:30:28.299923 14866 net.cpp:409] ip3_ip3_0_split -> ip3_ip3_0_split_0
I0501 21:30:28.299928 14866 net.cpp:409] ip3_ip3_0_split -> ip3_ip3_0_split_1
I0501 21:30:28.299950 14866 net.cpp:144] Setting up ip3_ip3_0_split
I0501 21:30:28.299955 14866 net.cpp:151] Top shape: 20 50 (1000)
I0501 21:30:28.299959 14866 net.cpp:151] Top shape: 20 50 (1000)
I0501 21:30:28.299962 14866 net.cpp:159] Memory required for data: 2994960
I0501 21:30:28.299965 14866 layer_factory.hpp:77] Creating layer accuracy
I0501 21:30:28.299970 14866 net.cpp:94] Creating Layer accuracy
I0501 21:30:28.299973 14866 net.cpp:435] accuracy <- ip3_ip3_0_split_0
I0501 21:30:28.299978 14866 net.cpp:435] accuracy <- label_intercept_1_split_0
I0501 21:30:28.299981 14866 net.cpp:409] accuracy -> accuracy
…
