…
I0504 12:59:47.589413 26738 net.cpp:323] The NetState phase (0) differed from the phase (1) specified by a rule in layer intercept
I0504 12:59:47.589431 26738 net.cpp:323] The NetState phase (0) differed from the phase (1) specified by a rule in layer loss
I0504 12:59:47.589521 26738 net.cpp:52] Initializing net from parameters: 
state {
  phase: TRAIN
}
layer {
  name: "parameters"
  type: "HDF5Data"
  top: "data"
  top: "label"
  include {
    phase: TRAIN
  }
  hdf5_data_param {
    source: "/home/purduethu/scratch/radon/d/deng106/CNNStatisticalModel/distributions/input/5_distributions_900_sample_size_train-parameters-path.txt"
    batch_size: 20
  }
}
layer {
  name: "conv1"
  type: "Convolution"
  bottom: "data"
  top: "conv1"
  param {
    lr_mult: 1
  }
  param {
    lr_mult: 2
  }
  convolution_param {
    num_output: 64
    pad: 2
    kernel_size: 5
    stride: 1
    weight_filler {
      type: "gaussian"
      std: 0.0001
    }
    bias_filler {
      type: "constant"
    }
  }
}
layer {
  name: "relu1"
  type: "ReLU"
  bottom: "conv1"
  top: "conv1"
}
layer {
  name: "conv2"
  type: "Convolution"
  bottom: "conv1"
  top: "conv2"
  param {
    lr_mult: 1
  }
  param {
    lr_mult: 2
  }
  convolution_param {
    num_output: 64
    pad: 2
    kernel_size: 5
    stride: 1
    weight_filler {
      type: "gaussian"
      std: 0.01
    }
    bias_filler {
      type: "constant"
    }
  }
}
layer {
  name: "relu2"
  type: "ReLU"
  bottom: "conv2"
  top: "conv2"
}
layer {
  name: "pool2"
  type: "Pooling"
  bottom: "conv2"
  top: "pool2"
  pooling_param {
    pool: MAX
    kernel_size: 3
    stride: 2
  }
}
layer {
  name: "conv3"
  type: "Convolution"
  bottom: "pool2"
  top: "conv3"
  param {
    lr_mult: 1
  }
  param {
    lr_mult: 2
  }
  convolution_param {
    num_output: 128
    pad: 2
    kernel_size: 5
    stride: 1
    weight_filler {
      type: "gaussian"
      std: 0.01
    }
    bias_filler {
      type: "constant"
    }
  }
}
layer {
  name: "relu3"
  type: "ReLU"
  bottom: "conv3"
  top: "conv3"
}
layer {
  name: "conv4"
  type: "Convolution"
  bottom: "conv3"
  top: "conv4"
  param {
    lr_mult: 1
  }
  param {
    lr_mult: 2
  }
  convolution_param {
    num_output: 128
    pad: 2
    kernel_size: 5
    stride: 1
    weight_filler {
      type: "gaussian"
      std: 0.01
    }
    bias_filler {
      type: "constant"
    }
  }
}
layer {
  name: "relu4"
  type: "ReLU"
  bottom: "conv4"
  top: "conv4"
}
layer {
  name: "conv5"
  type: "Convolution"
  bottom: "conv4"
  top: "conv5"
  param {
    lr_mult: 1
  }
  param {
    lr_mult: 2
  }
  convolution_param {
    num_output: 128
    pad: 2
    kernel_size: 5
    stride: 1
    weight_filler {
      type: "gaussian"
      std: 0.01
    }
    bias_filler {
      type: "constant"
    }
  }
}
layer {
  name: "relu5"
  type: "ReLU"
  bottom: "conv5"
  top: "conv5"
}
layer {
  name: "pool5"
  type: "Pooling"
  bottom: "conv5"
  top: "pool5"
  pooling_param {
    pool: AVE
    kernel_size: 3
    stride: 2
  }
}
layer {
  name: "ip1"
  type: "InnerProduct"
  bottom: "pool5"
  top: "ip1"
  param {
    lr_mult: 1
  }
  param {
    lr_mult: 2
  }
  inner_product_param {
    num_output: 1024
    weight_filler {
      type: "gaussian"
      std: 0.1
    }
    bias_filler {
      type: "constant"
    }
  }
}
layer {
  name: "ip2"
  type: "InnerProduct"
  bottom: "ip1"
  top: "ip2"
  param {
    lr_mult: 1
  }
  param {
    lr_mult: 2
  }
  inner_product_param {
    num_output: 512
    weight_filler {
      type: "gaussian"
      std: 0.1
    }
    bias_filler {
      type: "constant"
    }
  }
}
layer {
  name: "ip3"
  type: "InnerProduct"
  bottom: "ip2"
  top: "ip3"
  param {
    lr_mult: 1
  }
  param {
    lr_mult: 2
  }
  inner_product_param {
    num_output: 1
    weight_filler {
      type: "gaussian"
      std: 0.1
    }
    bias_filler {
      type: "constant"
    }
  }
}
layer {
  name: "loss"
  type: "HuberLoss"
  bottom: "ip3"
  bottom: "label"
  top: "loss"
  include {
    phase: TRAIN
  }
}
I0504 12:59:47.589597 26738 layer_factory.hpp:77] Creating layer parameters
I0504 12:59:47.589614 26738 net.cpp:94] Creating Layer parameters
I0504 12:59:47.589620 26738 net.cpp:409] parameters -> data
I0504 12:59:47.589640 26738 net.cpp:409] parameters -> label
I0504 12:59:47.589650 26738 hdf5_data_layer.cpp:79] Loading list of HDF5 filenames from: /home/purduethu/scratch/radon/d/deng106/CNNStatisticalModel/distributions/input/5_distributions_900_sample_size_train-parameters-path.txt
I0504 12:59:47.589673 26738 hdf5_data_layer.cpp:93] Number of HDF5 files: 1
I0504 12:59:47.590168 26738 hdf5.cpp:32] Datatype class: H5T_FLOAT
I0504 12:59:47.727903 26738 net.cpp:144] Setting up parameters
I0504 12:59:47.727937 26738 net.cpp:151] Top shape: 20 1 30 30 (18000)
I0504 12:59:47.727943 26738 net.cpp:151] Top shape: 20 (20)
I0504 12:59:47.727946 26738 net.cpp:159] Memory required for data: 72080
I0504 12:59:47.727954 26738 layer_factory.hpp:77] Creating layer conv1
I0504 12:59:47.727973 26738 net.cpp:94] Creating Layer conv1
I0504 12:59:47.727979 26738 net.cpp:435] conv1 <- data
I0504 12:59:47.727990 26738 net.cpp:409] conv1 -> conv1
I0504 12:59:47.733909 26738 net.cpp:144] Setting up conv1
I0504 12:59:47.733924 26738 net.cpp:151] Top shape: 20 64 30 30 (1152000)
I0504 12:59:47.733928 26738 net.cpp:159] Memory required for data: 4680080
I0504 12:59:47.733940 26738 layer_factory.hpp:77] Creating layer relu1
I0504 12:59:47.733947 26738 net.cpp:94] Creating Layer relu1
I0504 12:59:47.733952 26738 net.cpp:435] relu1 <- conv1
I0504 12:59:47.733956 26738 net.cpp:396] relu1 -> conv1 (in-place)
I0504 12:59:47.733971 26738 net.cpp:144] Setting up relu1
I0504 12:59:47.733978 26738 net.cpp:151] Top shape: 20 64 30 30 (1152000)
I0504 12:59:47.733980 26738 net.cpp:159] Memory required for data: 9288080
I0504 12:59:47.733983 26738 layer_factory.hpp:77] Creating layer conv2
I0504 12:59:47.733991 26738 net.cpp:94] Creating Layer conv2
I0504 12:59:47.733995 26738 net.cpp:435] conv2 <- conv1
I0504 12:59:47.734000 26738 net.cpp:409] conv2 -> conv2
I0504 12:59:47.749303 26738 net.cpp:144] Setting up conv2
I0504 12:59:47.749320 26738 net.cpp:151] Top shape: 20 64 30 30 (1152000)
I0504 12:59:47.749323 26738 net.cpp:159] Memory required for data: 13896080
I0504 12:59:47.749331 26738 layer_factory.hpp:77] Creating layer relu2
I0504 12:59:47.749338 26738 net.cpp:94] Creating Layer relu2
I0504 12:59:47.749342 26738 net.cpp:435] relu2 <- conv2
I0504 12:59:47.749347 26738 net.cpp:396] relu2 -> conv2 (in-place)
I0504 12:59:47.749354 26738 net.cpp:144] Setting up relu2
I0504 12:59:47.749359 26738 net.cpp:151] Top shape: 20 64 30 30 (1152000)
I0504 12:59:47.749362 26738 net.cpp:159] Memory required for data: 18504080
I0504 12:59:47.749366 26738 layer_factory.hpp:77] Creating layer pool2
I0504 12:59:47.749372 26738 net.cpp:94] Creating Layer pool2
I0504 12:59:47.749382 26738 net.cpp:435] pool2 <- conv2
I0504 12:59:47.749387 26738 net.cpp:409] pool2 -> pool2
I0504 12:59:47.749429 26738 net.cpp:144] Setting up pool2
I0504 12:59:47.749438 26738 net.cpp:151] Top shape: 20 64 15 15 (288000)
I0504 12:59:47.749440 26738 net.cpp:159] Memory required for data: 19656080
I0504 12:59:47.749444 26738 layer_factory.hpp:77] Creating layer conv3
I0504 12:59:47.749452 26738 net.cpp:94] Creating Layer conv3
I0504 12:59:47.749455 26738 net.cpp:435] conv3 <- pool2
I0504 12:59:47.749460 26738 net.cpp:409] conv3 -> conv3
I0504 12:59:47.761842 26738 net.cpp:144] Setting up conv3
I0504 12:59:47.761857 26738 net.cpp:151] Top shape: 20 128 15 15 (576000)
I0504 12:59:47.761862 26738 net.cpp:159] Memory required for data: 21960080
I0504 12:59:47.761870 26738 layer_factory.hpp:77] Creating layer relu3
I0504 12:59:47.761876 26738 net.cpp:94] Creating Layer relu3
I0504 12:59:47.761880 26738 net.cpp:435] relu3 <- conv3
I0504 12:59:47.761885 26738 net.cpp:396] relu3 -> conv3 (in-place)
I0504 12:59:47.761893 26738 net.cpp:144] Setting up relu3
I0504 12:59:47.761898 26738 net.cpp:151] Top shape: 20 128 15 15 (576000)
I0504 12:59:47.761900 26738 net.cpp:159] Memory required for data: 24264080
I0504 12:59:47.761904 26738 layer_factory.hpp:77] Creating layer conv4
I0504 12:59:47.761912 26738 net.cpp:94] Creating Layer conv4
I0504 12:59:47.761916 26738 net.cpp:435] conv4 <- conv3
I0504 12:59:47.761921 26738 net.cpp:409] conv4 -> conv4
I0504 12:59:47.783892 26738 net.cpp:144] Setting up conv4
I0504 12:59:47.783908 26738 net.cpp:151] Top shape: 20 128 15 15 (576000)
I0504 12:59:47.783912 26738 net.cpp:159] Memory required for data: 26568080
I0504 12:59:47.783920 26738 layer_factory.hpp:77] Creating layer relu4
I0504 12:59:47.783926 26738 net.cpp:94] Creating Layer relu4
I0504 12:59:47.783929 26738 net.cpp:435] relu4 <- conv4
I0504 12:59:47.783934 26738 net.cpp:396] relu4 -> conv4 (in-place)
I0504 12:59:47.783941 26738 net.cpp:144] Setting up relu4
I0504 12:59:47.783946 26738 net.cpp:151] Top shape: 20 128 15 15 (576000)
I0504 12:59:47.783949 26738 net.cpp:159] Memory required for data: 28872080
I0504 12:59:47.783952 26738 layer_factory.hpp:77] Creating layer conv5
I0504 12:59:47.783960 26738 net.cpp:94] Creating Layer conv5
I0504 12:59:47.783964 26738 net.cpp:435] conv5 <- conv4
I0504 12:59:47.783969 26738 net.cpp:409] conv5 -> conv5
I0504 12:59:47.805411 26738 net.cpp:144] Setting up conv5
I0504 12:59:47.805428 26738 net.cpp:151] Top shape: 20 128 15 15 (576000)
I0504 12:59:47.805431 26738 net.cpp:159] Memory required for data: 31176080
I0504 12:59:47.805440 26738 layer_factory.hpp:77] Creating layer relu5
I0504 12:59:47.805446 26738 net.cpp:94] Creating Layer relu5
I0504 12:59:47.805450 26738 net.cpp:435] relu5 <- conv5
I0504 12:59:47.805454 26738 net.cpp:396] relu5 -> conv5 (in-place)
I0504 12:59:47.805462 26738 net.cpp:144] Setting up relu5
I0504 12:59:47.805467 26738 net.cpp:151] Top shape: 20 128 15 15 (576000)
I0504 12:59:47.805470 26738 net.cpp:159] Memory required for data: 33480080
I0504 12:59:47.805474 26738 layer_factory.hpp:77] Creating layer pool5
I0504 12:59:47.805479 26738 net.cpp:94] Creating Layer pool5
I0504 12:59:47.805481 26738 net.cpp:435] pool5 <- conv5
I0504 12:59:47.805486 26738 net.cpp:409] pool5 -> pool5
I0504 12:59:47.805521 26738 net.cpp:144] Setting up pool5
I0504 12:59:47.805527 26738 net.cpp:151] Top shape: 20 128 7 7 (125440)
I0504 12:59:47.805531 26738 net.cpp:159] Memory required for data: 33981840
I0504 12:59:47.805534 26738 layer_factory.hpp:77] Creating layer ip1
I0504 12:59:47.805544 26738 net.cpp:94] Creating Layer ip1
I0504 12:59:47.805547 26738 net.cpp:435] ip1 <- pool5
I0504 12:59:47.805552 26738 net.cpp:409] ip1 -> ip1
I0504 12:59:47.968111 26738 net.cpp:144] Setting up ip1
I0504 12:59:47.968147 26738 net.cpp:151] Top shape: 20 1024 (20480)
I0504 12:59:47.968152 26738 net.cpp:159] Memory required for data: 34063760
I0504 12:59:47.968160 26738 layer_factory.hpp:77] Creating layer ip2
I0504 12:59:47.968171 26738 net.cpp:94] Creating Layer ip2
I0504 12:59:47.968186 26738 net.cpp:435] ip2 <- ip1
I0504 12:59:47.968194 26738 net.cpp:409] ip2 -> ip2
I0504 12:59:47.981755 26738 net.cpp:144] Setting up ip2
I0504 12:59:47.981770 26738 net.cpp:151] Top shape: 20 512 (10240)
I0504 12:59:47.981773 26738 net.cpp:159] Memory required for data: 34104720
I0504 12:59:47.981779 26738 layer_factory.hpp:77] Creating layer ip3
I0504 12:59:47.981786 26738 net.cpp:94] Creating Layer ip3
I0504 12:59:47.981791 26738 net.cpp:435] ip3 <- ip2
I0504 12:59:47.981796 26738 net.cpp:409] ip3 -> ip3
I0504 12:59:47.981873 26738 net.cpp:144] Setting up ip3
I0504 12:59:47.981889 26738 net.cpp:151] Top shape: 20 1 (20)
I0504 12:59:47.981892 26738 net.cpp:159] Memory required for data: 34104800
I0504 12:59:47.981897 26738 layer_factory.hpp:77] Creating layer loss
I0504 12:59:47.981911 26738 net.cpp:94] Creating Layer loss
I0504 12:59:47.981915 26738 net.cpp:435] loss <- ip3
I0504 12:59:47.981920 26738 net.cpp:435] loss <- label
I0504 12:59:47.981925 26738 net.cpp:409] loss -> loss
I0504 12:59:47.981961 26738 net.cpp:144] Setting up loss
…
