…
I0501 01:18:19.520092 29098 net.cpp:323] The NetState phase (0) differed from the phase (1) specified by a rule in layer intercept
I0501 01:18:19.520109 29098 net.cpp:323] The NetState phase (0) differed from the phase (1) specified by a rule in layer loss
I0501 01:18:19.520205 29098 net.cpp:52] Initializing net from parameters: 
state {
  phase: TRAIN
}
layer {
  name: "parameters"
  type: "HDF5Data"
  top: "data"
  top: "label"
  include {
    phase: TRAIN
  }
  hdf5_data_param {
    source: "/home/purduethu/scratch/radon/d/deng106/CNNStatisticalModel/distributions/input/50_distributions_900_sample_size_train-parameters-path.txt"
    batch_size: 20
  }
}
layer {
  name: "conv1"
  type: "Convolution"
  bottom: "data"
  top: "conv1"
  param {
    lr_mult: 1
  }
  param {
    lr_mult: 2
  }
  convolution_param {
    num_output: 64
    pad: 2
    kernel_size: 5
    stride: 1
    weight_filler {
      type: "gaussian"
      std: 0.0001
    }
    bias_filler {
      type: "constant"
    }
  }
}
layer {
  name: "relu1"
  type: "ReLU"
  bottom: "conv1"
  top: "conv1"
}
layer {
  name: "conv2"
  type: "Convolution"
  bottom: "conv1"
  top: "conv2"
  param {
    lr_mult: 1
  }
  param {
    lr_mult: 2
  }
  convolution_param {
    num_output: 64
    pad: 2
    kernel_size: 5
    stride: 1
    weight_filler {
      type: "gaussian"
      std: 0.01
    }
    bias_filler {
      type: "constant"
    }
  }
}
layer {
  name: "relu2"
  type: "ReLU"
  bottom: "conv2"
  top: "conv2"
}
layer {
  name: "pool2"
  type: "Pooling"
  bottom: "conv2"
  top: "pool2"
  pooling_param {
    pool: MAX
    kernel_size: 3
    stride: 2
  }
}
layer {
  name: "conv3"
  type: "Convolution"
  bottom: "pool2"
  top: "conv3"
  param {
    lr_mult: 1
  }
  param {
    lr_mult: 2
  }
  convolution_param {
    num_output: 128
    pad: 2
    kernel_size: 5
    stride: 1
    weight_filler {
      type: "gaussian"
      std: 0.01
    }
    bias_filler {
      type: "constant"
    }
  }
}
layer {
  name: "relu3"
  type: "ReLU"
  bottom: "conv3"
  top: "conv3"
}
layer {
  name: "conv4"
  type: "Convolution"
  bottom: "conv3"
  top: "conv4"
  param {
    lr_mult: 1
  }
  param {
    lr_mult: 2
  }
  convolution_param {
    num_output: 128
    pad: 2
    kernel_size: 5
    stride: 1
    weight_filler {
      type: "gaussian"
      std: 0.01
    }
    bias_filler {
      type: "constant"
    }
  }
}
layer {
  name: "relu4"
  type: "ReLU"
  bottom: "conv4"
  top: "conv4"
}
layer {
  name: "conv5"
  type: "Convolution"
  bottom: "conv4"
  top: "conv5"
  param {
    lr_mult: 1
  }
  param {
    lr_mult: 2
  }
  convolution_param {
    num_output: 128
    pad: 2
    kernel_size: 5
    stride: 1
    weight_filler {
      type: "gaussian"
      std: 0.01
    }
    bias_filler {
      type: "constant"
    }
  }
}
layer {
  name: "relu5"
  type: "ReLU"
  bottom: "conv5"
  top: "conv5"
}
layer {
  name: "pool5"
  type: "Pooling"
  bottom: "conv5"
  top: "pool5"
  pooling_param {
    pool: AVE
    kernel_size: 3
    stride: 2
  }
}
layer {
  name: "ip1"
  type: "InnerProduct"
  bottom: "pool5"
  top: "ip1"
  param {
    lr_mult: 1
  }
  param {
    lr_mult: 2
  }
  inner_product_param {
    num_output: 1024
    weight_filler {
      type: "gaussian"
      std: 0.1
    }
    bias_filler {
      type: "constant"
    }
  }
}
layer {
  name: "ip2"
  type: "InnerProduct"
  bottom: "ip1"
  top: "ip2"
  param {
    lr_mult: 1
  }
  param {
    lr_mult: 2
  }
  inner_product_param {
    num_output: 512
    weight_filler {
      type: "gaussian"
      std: 0.1
    }
    bias_filler {
      type: "constant"
    }
  }
}
layer {
  name: "ip3"
  type: "InnerProduct"
  bottom: "ip2"
  top: "ip3"
  param {
    lr_mult: 1
  }
  param {
    lr_mult: 2
  }
  inner_product_param {
    num_output: 1
    weight_filler {
      type: "gaussian"
      std: 0.1
    }
    bias_filler {
      type: "constant"
    }
  }
}
layer {
  name: "loss"
  type: "HuberLoss"
  bottom: "ip3"
  bottom: "label"
  top: "loss"
  include {
    phase: TRAIN
  }
}
I0501 01:18:19.520282 29098 layer_factory.hpp:77] Creating layer parameters
I0501 01:18:19.520298 29098 net.cpp:94] Creating Layer parameters
I0501 01:18:19.520303 29098 net.cpp:409] parameters -> data
I0501 01:18:19.520324 29098 net.cpp:409] parameters -> label
I0501 01:18:19.520334 29098 hdf5_data_layer.cpp:79] Loading list of HDF5 filenames from: /home/purduethu/scratch/radon/d/deng106/CNNStatisticalModel/distributions/input/50_distributions_900_sample_size_train-parameters-path.txt
I0501 01:18:19.520357 29098 hdf5_data_layer.cpp:93] Number of HDF5 files: 1
I0501 01:18:19.520978 29098 hdf5.cpp:32] Datatype class: H5T_FLOAT
I0501 01:18:20.970010 29098 net.cpp:144] Setting up parameters
I0501 01:18:20.970046 29098 net.cpp:151] Top shape: 20 1 30 30 (18000)
I0501 01:18:20.970052 29098 net.cpp:151] Top shape: 20 (20)
I0501 01:18:20.970055 29098 net.cpp:159] Memory required for data: 72080
I0501 01:18:20.970063 29098 layer_factory.hpp:77] Creating layer conv1
I0501 01:18:20.970082 29098 net.cpp:94] Creating Layer conv1
I0501 01:18:20.970088 29098 net.cpp:435] conv1 <- data
I0501 01:18:20.970098 29098 net.cpp:409] conv1 -> conv1
I0501 01:18:20.975958 29098 net.cpp:144] Setting up conv1
I0501 01:18:20.975976 29098 net.cpp:151] Top shape: 20 64 30 30 (1152000)
I0501 01:18:20.975980 29098 net.cpp:159] Memory required for data: 4680080
I0501 01:18:20.975992 29098 layer_factory.hpp:77] Creating layer relu1
I0501 01:18:20.976001 29098 net.cpp:94] Creating Layer relu1
I0501 01:18:20.976006 29098 net.cpp:435] relu1 <- conv1
I0501 01:18:20.976011 29098 net.cpp:396] relu1 -> conv1 (in-place)
I0501 01:18:20.976027 29098 net.cpp:144] Setting up relu1
I0501 01:18:20.976032 29098 net.cpp:151] Top shape: 20 64 30 30 (1152000)
I0501 01:18:20.976037 29098 net.cpp:159] Memory required for data: 9288080
I0501 01:18:20.976039 29098 layer_factory.hpp:77] Creating layer conv2
I0501 01:18:20.976048 29098 net.cpp:94] Creating Layer conv2
I0501 01:18:20.976052 29098 net.cpp:435] conv2 <- conv1
I0501 01:18:20.976058 29098 net.cpp:409] conv2 -> conv2
I0501 01:18:20.991188 29098 net.cpp:144] Setting up conv2
I0501 01:18:20.991204 29098 net.cpp:151] Top shape: 20 64 30 30 (1152000)
I0501 01:18:20.991209 29098 net.cpp:159] Memory required for data: 13896080
I0501 01:18:20.991216 29098 layer_factory.hpp:77] Creating layer relu2
I0501 01:18:20.991225 29098 net.cpp:94] Creating Layer relu2
I0501 01:18:20.991228 29098 net.cpp:435] relu2 <- conv2
I0501 01:18:20.991233 29098 net.cpp:396] relu2 -> conv2 (in-place)
I0501 01:18:20.991240 29098 net.cpp:144] Setting up relu2
I0501 01:18:20.991245 29098 net.cpp:151] Top shape: 20 64 30 30 (1152000)
I0501 01:18:20.991248 29098 net.cpp:159] Memory required for data: 18504080
I0501 01:18:20.991252 29098 layer_factory.hpp:77] Creating layer pool2
I0501 01:18:20.991259 29098 net.cpp:94] Creating Layer pool2
I0501 01:18:20.991271 29098 net.cpp:435] pool2 <- conv2
I0501 01:18:20.991276 29098 net.cpp:409] pool2 -> pool2
I0501 01:18:20.991320 29098 net.cpp:144] Setting up pool2
I0501 01:18:20.991328 29098 net.cpp:151] Top shape: 20 64 15 15 (288000)
I0501 01:18:20.991331 29098 net.cpp:159] Memory required for data: 19656080
I0501 01:18:20.991335 29098 layer_factory.hpp:77] Creating layer conv3
I0501 01:18:20.991343 29098 net.cpp:94] Creating Layer conv3
I0501 01:18:20.991346 29098 net.cpp:435] conv3 <- pool2
I0501 01:18:20.991351 29098 net.cpp:409] conv3 -> conv3
I0501 01:18:21.003885 29098 net.cpp:144] Setting up conv3
I0501 01:18:21.003928 29098 net.cpp:151] Top shape: 20 128 15 15 (576000)
I0501 01:18:21.003942 29098 net.cpp:159] Memory required for data: 21960080
I0501 01:18:21.003971 29098 layer_factory.hpp:77] Creating layer relu3
I0501 01:18:21.003989 29098 net.cpp:94] Creating Layer relu3
I0501 01:18:21.004001 29098 net.cpp:435] relu3 <- conv3
I0501 01:18:21.004015 29098 net.cpp:396] relu3 -> conv3 (in-place)
I0501 01:18:21.004036 29098 net.cpp:144] Setting up relu3
I0501 01:18:21.004050 29098 net.cpp:151] Top shape: 20 128 15 15 (576000)
I0501 01:18:21.004060 29098 net.cpp:159] Memory required for data: 24264080
I0501 01:18:21.004070 29098 layer_factory.hpp:77] Creating layer conv4
I0501 01:18:21.004093 29098 net.cpp:94] Creating Layer conv4
I0501 01:18:21.004104 29098 net.cpp:435] conv4 <- conv3
I0501 01:18:21.004119 29098 net.cpp:409] conv4 -> conv4
I0501 01:18:21.026085 29098 net.cpp:144] Setting up conv4
I0501 01:18:21.026100 29098 net.cpp:151] Top shape: 20 128 15 15 (576000)
I0501 01:18:21.026105 29098 net.cpp:159] Memory required for data: 26568080
I0501 01:18:21.026111 29098 layer_factory.hpp:77] Creating layer relu4
I0501 01:18:21.026118 29098 net.cpp:94] Creating Layer relu4
I0501 01:18:21.026123 29098 net.cpp:435] relu4 <- conv4
I0501 01:18:21.026127 29098 net.cpp:396] relu4 -> conv4 (in-place)
I0501 01:18:21.026134 29098 net.cpp:144] Setting up relu4
I0501 01:18:21.026139 29098 net.cpp:151] Top shape: 20 128 15 15 (576000)
I0501 01:18:21.026142 29098 net.cpp:159] Memory required for data: 28872080
I0501 01:18:21.026145 29098 layer_factory.hpp:77] Creating layer conv5
I0501 01:18:21.026154 29098 net.cpp:94] Creating Layer conv5
I0501 01:18:21.026157 29098 net.cpp:435] conv5 <- conv4
I0501 01:18:21.026162 29098 net.cpp:409] conv5 -> conv5
I0501 01:18:21.053083 29098 net.cpp:144] Setting up conv5
I0501 01:18:21.053100 29098 net.cpp:151] Top shape: 20 128 15 15 (576000)
I0501 01:18:21.053104 29098 net.cpp:159] Memory required for data: 31176080
I0501 01:18:21.053114 29098 layer_factory.hpp:77] Creating layer relu5
I0501 01:18:21.053122 29098 net.cpp:94] Creating Layer relu5
I0501 01:18:21.053125 29098 net.cpp:435] relu5 <- conv5
I0501 01:18:21.053131 29098 net.cpp:396] relu5 -> conv5 (in-place)
I0501 01:18:21.053139 29098 net.cpp:144] Setting up relu5
I0501 01:18:21.053144 29098 net.cpp:151] Top shape: 20 128 15 15 (576000)
I0501 01:18:21.053148 29098 net.cpp:159] Memory required for data: 33480080
I0501 01:18:21.053151 29098 layer_factory.hpp:77] Creating layer pool5
I0501 01:18:21.053158 29098 net.cpp:94] Creating Layer pool5
I0501 01:18:21.053160 29098 net.cpp:435] pool5 <- conv5
I0501 01:18:21.053165 29098 net.cpp:409] pool5 -> pool5
I0501 01:18:21.053202 29098 net.cpp:144] Setting up pool5
I0501 01:18:21.053210 29098 net.cpp:151] Top shape: 20 128 7 7 (125440)
I0501 01:18:21.053215 29098 net.cpp:159] Memory required for data: 33981840
I0501 01:18:21.053218 29098 layer_factory.hpp:77] Creating layer ip1
I0501 01:18:21.053228 29098 net.cpp:94] Creating Layer ip1
I0501 01:18:21.053233 29098 net.cpp:435] ip1 <- pool5
I0501 01:18:21.053238 29098 net.cpp:409] ip1 -> ip1
I0501 01:18:21.218206 29098 net.cpp:144] Setting up ip1
I0501 01:18:21.218242 29098 net.cpp:151] Top shape: 20 1024 (20480)
I0501 01:18:21.218247 29098 net.cpp:159] Memory required for data: 34063760
I0501 01:18:21.218256 29098 layer_factory.hpp:77] Creating layer ip2
I0501 01:18:21.218267 29098 net.cpp:94] Creating Layer ip2
I0501 01:18:21.218282 29098 net.cpp:435] ip2 <- ip1
I0501 01:18:21.218289 29098 net.cpp:409] ip2 -> ip2
I0501 01:18:21.231453 29098 net.cpp:144] Setting up ip2
I0501 01:18:21.231467 29098 net.cpp:151] Top shape: 20 512 (10240)
I0501 01:18:21.231472 29098 net.cpp:159] Memory required for data: 34104720
I0501 01:18:21.231477 29098 layer_factory.hpp:77] Creating layer ip3
I0501 01:18:21.231484 29098 net.cpp:94] Creating Layer ip3
I0501 01:18:21.231488 29098 net.cpp:435] ip3 <- ip2
I0501 01:18:21.231493 29098 net.cpp:409] ip3 -> ip3
I0501 01:18:21.231571 29098 net.cpp:144] Setting up ip3
I0501 01:18:21.231587 29098 net.cpp:151] Top shape: 20 1 (20)
I0501 01:18:21.231591 29098 net.cpp:159] Memory required for data: 34104800
I0501 01:18:21.231596 29098 layer_factory.hpp:77] Creating layer loss
I0501 01:18:21.231611 29098 net.cpp:94] Creating Layer loss
I0501 01:18:21.231616 29098 net.cpp:435] loss <- ip3
I0501 01:18:21.231619 29098 net.cpp:435] loss <- label
I0501 01:18:21.231626 29098 net.cpp:409] loss -> loss
I0501 01:18:21.231663 29098 net.cpp:144] Setting up loss
…
