…
I0507 19:07:36.552269  6342 net.cpp:323] The NetState phase (0) differed from the phase (1) specified by a rule in layer intercept
I0507 19:07:36.552284  6342 net.cpp:323] The NetState phase (0) differed from the phase (1) specified by a rule in layer loss
I0507 19:07:36.552361  6342 net.cpp:52] Initializing net from parameters: 
state {
  phase: TRAIN
}
layer {
  name: "parameters"
  type: "HDF5Data"
  top: "data"
  top: "label"
  include {
    phase: TRAIN
  }
  hdf5_data_param {
    source: "/home/purduethu/scratch/radon/d/deng106/CNNStatisticalModel/distributions/input/50_distributions_900_sample_size_train-parameters-path.txt"
    batch_size: 20
  }
}
layer {
  name: "conv1"
  type: "Convolution"
  bottom: "data"
  top: "conv1"
  param {
    lr_mult: 1
  }
  param {
    lr_mult: 2
  }
  convolution_param {
    num_output: 64
    pad: 2
    kernel_size: 5
    stride: 1
    weight_filler {
      type: "gaussian"
      std: 0.0001
    }
    bias_filler {
      type: "constant"
    }
  }
}
layer {
  name: "relu1"
  type: "ReLU"
  bottom: "conv1"
  top: "conv1"
}
layer {
  name: "conv2"
  type: "Convolution"
  bottom: "conv1"
  top: "conv2"
  param {
    lr_mult: 1
  }
  param {
    lr_mult: 2
  }
  convolution_param {
    num_output: 64
    pad: 2
    kernel_size: 5
    stride: 1
    weight_filler {
      type: "gaussian"
      std: 0.01
    }
    bias_filler {
      type: "constant"
    }
  }
}
layer {
  name: "relu2"
  type: "ReLU"
  bottom: "conv2"
  top: "conv2"
}
layer {
  name: "pool2"
  type: "Pooling"
  bottom: "conv2"
  top: "pool2"
  pooling_param {
    pool: MAX
    kernel_size: 3
    stride: 2
  }
}
layer {
  name: "conv3"
  type: "Convolution"
  bottom: "pool2"
  top: "conv3"
  param {
    lr_mult: 1
  }
  param {
    lr_mult: 2
  }
  convolution_param {
    num_output: 64
    pad: 2
    kernel_size: 5
    stride: 1
    weight_filler {
      type: "gaussian"
      std: 0.01
    }
    bias_filler {
      type: "constant"
    }
  }
}
layer {
  name: "relu3"
  type: "ReLU"
  bottom: "conv3"
  top: "conv3"
}
layer {
  name: "conv4"
  type: "Convolution"
  bottom: "conv3"
  top: "conv4"
  param {
    lr_mult: 1
  }
  param {
    lr_mult: 2
  }
  convolution_param {
    num_output: 64
    pad: 2
    kernel_size: 5
    stride: 1
    weight_filler {
      type: "gaussian"
      std: 0.01
    }
    bias_filler {
      type: "constant"
    }
  }
}
layer {
  name: "relu4"
  type: "ReLU"
  bottom: "conv4"
  top: "conv4"
}
layer {
  name: "conv5"
  type: "Convolution"
  bottom: "conv4"
  top: "conv5"
  param {
    lr_mult: 1
  }
  param {
    lr_mult: 2
  }
  convolution_param {
    num_output: 64
    pad: 2
    kernel_size: 5
    stride: 1
    weight_filler {
      type: "gaussian"
      std: 0.01
    }
    bias_filler {
      type: "constant"
    }
  }
}
layer {
  name: "relu5"
  type: "ReLU"
  bottom: "conv5"
  top: "conv5"
}
layer {
  name: "pool5"
  type: "Pooling"
  bottom: "conv5"
  top: "pool5"
  pooling_param {
    pool: AVE
    kernel_size: 3
    stride: 2
  }
}
layer {
  name: "ip1"
  type: "InnerProduct"
  bottom: "pool5"
  top: "ip1"
  param {
    lr_mult: 1
  }
  param {
    lr_mult: 2
  }
  inner_product_param {
    num_output: 64
    weight_filler {
      type: "gaussian"
      std: 0.1
    }
    bias_filler {
      type: "constant"
    }
  }
}
layer {
  name: "ip2"
  type: "InnerProduct"
  bottom: "ip1"
  top: "ip2"
  param {
    lr_mult: 1
  }
  param {
    lr_mult: 2
  }
  inner_product_param {
    num_output: 64
    weight_filler {
      type: "gaussian"
      std: 0.1
    }
    bias_filler {
      type: "constant"
    }
  }
}
layer {
  name: "ip3"
  type: "InnerProduct"
  bottom: "ip2"
  top: "ip3"
  param {
    lr_mult: 1
  }
  param {
    lr_mult: 2
  }
  inner_product_param {
    num_output: 1
    weight_filler {
      type: "gaussian"
      std: 0.1
    }
    bias_filler {
      type: "constant"
    }
  }
}
layer {
  name: "loss"
  type: "HuberLoss"
  bottom: "ip3"
  bottom: "label"
  top: "loss"
  include {
    phase: TRAIN
  }
}
I0507 19:07:36.552413  6342 layer_factory.hpp:77] Creating layer parameters
I0507 19:07:36.552429  6342 net.cpp:94] Creating Layer parameters
I0507 19:07:36.552433  6342 net.cpp:409] parameters -> data
I0507 19:07:36.552443  6342 net.cpp:409] parameters -> label
I0507 19:07:36.552449  6342 hdf5_data_layer.cpp:79] Loading list of HDF5 filenames from: /home/purduethu/scratch/radon/d/deng106/CNNStatisticalModel/distributions/input/50_distributions_900_sample_size_train-parameters-path.txt
I0507 19:07:36.552464  6342 hdf5_data_layer.cpp:93] Number of HDF5 files: 1
I0507 19:07:36.553040  6342 hdf5.cpp:32] Datatype class: H5T_FLOAT
I0507 19:07:37.993830  6342 net.cpp:144] Setting up parameters
I0507 19:07:37.993861  6342 net.cpp:151] Top shape: 20 1 30 30 (18000)
I0507 19:07:37.993867  6342 net.cpp:151] Top shape: 20 (20)
I0507 19:07:37.993870  6342 net.cpp:159] Memory required for data: 72080
I0507 19:07:37.993877  6342 layer_factory.hpp:77] Creating layer conv1
I0507 19:07:37.993893  6342 net.cpp:94] Creating Layer conv1
I0507 19:07:37.993897  6342 net.cpp:435] conv1 <- data
I0507 19:07:37.993904  6342 net.cpp:409] conv1 -> conv1
I0507 19:07:38.000617  6342 net.cpp:144] Setting up conv1
I0507 19:07:38.000635  6342 net.cpp:151] Top shape: 20 64 30 30 (1152000)
I0507 19:07:38.000639  6342 net.cpp:159] Memory required for data: 4680080
I0507 19:07:38.000650  6342 layer_factory.hpp:77] Creating layer relu1
I0507 19:07:38.000658  6342 net.cpp:94] Creating Layer relu1
I0507 19:07:38.000663  6342 net.cpp:435] relu1 <- conv1
I0507 19:07:38.000669  6342 net.cpp:396] relu1 -> conv1 (in-place)
I0507 19:07:38.000676  6342 net.cpp:144] Setting up relu1
I0507 19:07:38.000680  6342 net.cpp:151] Top shape: 20 64 30 30 (1152000)
I0507 19:07:38.000684  6342 net.cpp:159] Memory required for data: 9288080
I0507 19:07:38.000686  6342 layer_factory.hpp:77] Creating layer conv2
I0507 19:07:38.000695  6342 net.cpp:94] Creating Layer conv2
I0507 19:07:38.000699  6342 net.cpp:435] conv2 <- conv1
I0507 19:07:38.000704  6342 net.cpp:409] conv2 -> conv2
I0507 19:07:38.017448  6342 net.cpp:144] Setting up conv2
I0507 19:07:38.017463  6342 net.cpp:151] Top shape: 20 64 30 30 (1152000)
I0507 19:07:38.017468  6342 net.cpp:159] Memory required for data: 13896080
I0507 19:07:38.017477  6342 layer_factory.hpp:77] Creating layer relu2
I0507 19:07:38.017483  6342 net.cpp:94] Creating Layer relu2
I0507 19:07:38.017488  6342 net.cpp:435] relu2 <- conv2
I0507 19:07:38.017491  6342 net.cpp:396] relu2 -> conv2 (in-place)
I0507 19:07:38.017498  6342 net.cpp:144] Setting up relu2
I0507 19:07:38.017503  6342 net.cpp:151] Top shape: 20 64 30 30 (1152000)
I0507 19:07:38.017506  6342 net.cpp:159] Memory required for data: 18504080
I0507 19:07:38.017509  6342 layer_factory.hpp:77] Creating layer pool2
I0507 19:07:38.017521  6342 net.cpp:94] Creating Layer pool2
I0507 19:07:38.017525  6342 net.cpp:435] pool2 <- conv2
I0507 19:07:38.017530  6342 net.cpp:409] pool2 -> pool2
I0507 19:07:38.017588  6342 net.cpp:144] Setting up pool2
I0507 19:07:38.017596  6342 net.cpp:151] Top shape: 20 64 15 15 (288000)
I0507 19:07:38.017599  6342 net.cpp:159] Memory required for data: 19656080
I0507 19:07:38.017602  6342 layer_factory.hpp:77] Creating layer conv3
I0507 19:07:38.017611  6342 net.cpp:94] Creating Layer conv3
I0507 19:07:38.017614  6342 net.cpp:435] conv3 <- pool2
I0507 19:07:38.017619  6342 net.cpp:409] conv3 -> conv3
I0507 19:07:38.026480  6342 net.cpp:144] Setting up conv3
I0507 19:07:38.026495  6342 net.cpp:151] Top shape: 20 64 15 15 (288000)
I0507 19:07:38.026499  6342 net.cpp:159] Memory required for data: 20808080
I0507 19:07:38.026509  6342 layer_factory.hpp:77] Creating layer relu3
I0507 19:07:38.026515  6342 net.cpp:94] Creating Layer relu3
I0507 19:07:38.026517  6342 net.cpp:435] relu3 <- conv3
I0507 19:07:38.026522  6342 net.cpp:396] relu3 -> conv3 (in-place)
I0507 19:07:38.026530  6342 net.cpp:144] Setting up relu3
I0507 19:07:38.026533  6342 net.cpp:151] Top shape: 20 64 15 15 (288000)
I0507 19:07:38.026536  6342 net.cpp:159] Memory required for data: 21960080
I0507 19:07:38.026540  6342 layer_factory.hpp:77] Creating layer conv4
I0507 19:07:38.026548  6342 net.cpp:94] Creating Layer conv4
I0507 19:07:38.026552  6342 net.cpp:435] conv4 <- conv3
I0507 19:07:38.026557  6342 net.cpp:409] conv4 -> conv4
I0507 19:07:38.034420  6342 net.cpp:144] Setting up conv4
I0507 19:07:38.034435  6342 net.cpp:151] Top shape: 20 64 15 15 (288000)
I0507 19:07:38.034440  6342 net.cpp:159] Memory required for data: 23112080
I0507 19:07:38.034446  6342 layer_factory.hpp:77] Creating layer relu4
I0507 19:07:38.034452  6342 net.cpp:94] Creating Layer relu4
I0507 19:07:38.034456  6342 net.cpp:435] relu4 <- conv4
I0507 19:07:38.034461  6342 net.cpp:396] relu4 -> conv4 (in-place)
I0507 19:07:38.034468  6342 net.cpp:144] Setting up relu4
I0507 19:07:38.034472  6342 net.cpp:151] Top shape: 20 64 15 15 (288000)
I0507 19:07:38.034476  6342 net.cpp:159] Memory required for data: 24264080
I0507 19:07:38.034478  6342 layer_factory.hpp:77] Creating layer conv5
I0507 19:07:38.034487  6342 net.cpp:94] Creating Layer conv5
I0507 19:07:38.034490  6342 net.cpp:435] conv5 <- conv4
I0507 19:07:38.034495  6342 net.cpp:409] conv5 -> conv5
I0507 19:07:38.042559  6342 net.cpp:144] Setting up conv5
I0507 19:07:38.042598  6342 net.cpp:151] Top shape: 20 64 15 15 (288000)
I0507 19:07:38.042610  6342 net.cpp:159] Memory required for data: 25416080
I0507 19:07:38.042634  6342 layer_factory.hpp:77] Creating layer relu5
I0507 19:07:38.042654  6342 net.cpp:94] Creating Layer relu5
I0507 19:07:38.042659  6342 net.cpp:435] relu5 <- conv5
I0507 19:07:38.042662  6342 net.cpp:396] relu5 -> conv5 (in-place)
I0507 19:07:38.042670  6342 net.cpp:144] Setting up relu5
I0507 19:07:38.042675  6342 net.cpp:151] Top shape: 20 64 15 15 (288000)
I0507 19:07:38.042677  6342 net.cpp:159] Memory required for data: 26568080
I0507 19:07:38.042680  6342 layer_factory.hpp:77] Creating layer pool5
I0507 19:07:38.042685  6342 net.cpp:94] Creating Layer pool5
I0507 19:07:38.042690  6342 net.cpp:435] pool5 <- conv5
I0507 19:07:38.042693  6342 net.cpp:409] pool5 -> pool5
I0507 19:07:38.042735  6342 net.cpp:144] Setting up pool5
I0507 19:07:38.042743  6342 net.cpp:151] Top shape: 20 64 7 7 (62720)
I0507 19:07:38.042747  6342 net.cpp:159] Memory required for data: 26818960
I0507 19:07:38.042750  6342 layer_factory.hpp:77] Creating layer ip1
I0507 19:07:38.042759  6342 net.cpp:94] Creating Layer ip1
I0507 19:07:38.042763  6342 net.cpp:435] ip1 <- pool5
I0507 19:07:38.042768  6342 net.cpp:409] ip1 -> ip1
I0507 19:07:38.048413  6342 net.cpp:144] Setting up ip1
I0507 19:07:38.048427  6342 net.cpp:151] Top shape: 20 64 (1280)
I0507 19:07:38.048431  6342 net.cpp:159] Memory required for data: 26824080
I0507 19:07:38.048437  6342 layer_factory.hpp:77] Creating layer ip2
I0507 19:07:38.048444  6342 net.cpp:94] Creating Layer ip2
I0507 19:07:38.048452  6342 net.cpp:435] ip2 <- ip1
I0507 19:07:38.048458  6342 net.cpp:409] ip2 -> ip2
I0507 19:07:38.048684  6342 net.cpp:144] Setting up ip2
I0507 19:07:38.048693  6342 net.cpp:151] Top shape: 20 64 (1280)
I0507 19:07:38.048697  6342 net.cpp:159] Memory required for data: 26829200
I0507 19:07:38.048703  6342 layer_factory.hpp:77] Creating layer ip3
I0507 19:07:38.048709  6342 net.cpp:94] Creating Layer ip3
I0507 19:07:38.048712  6342 net.cpp:435] ip3 <- ip2
I0507 19:07:38.048717  6342 net.cpp:409] ip3 -> ip3
I0507 19:07:38.048826  6342 net.cpp:144] Setting up ip3
I0507 19:07:38.048833  6342 net.cpp:151] Top shape: 20 1 (20)
I0507 19:07:38.048837  6342 net.cpp:159] Memory required for data: 26829280
I0507 19:07:38.048842  6342 layer_factory.hpp:77] Creating layer loss
I0507 19:07:38.048853  6342 net.cpp:94] Creating Layer loss
I0507 19:07:38.048857  6342 net.cpp:435] loss <- ip3
I0507 19:07:38.048861  6342 net.cpp:435] loss <- label
I0507 19:07:38.048866  6342 net.cpp:409] loss -> loss
I0507 19:07:38.048919  6342 net.cpp:144] Setting up loss
…
I0507 19:07:38.440165  6342 net.cpp:323] The NetState phase (0) differed from the phase (1) specified by a rule in layer intercept
I0507 19:07:38.440181  6342 net.cpp:323] The NetState phase (0) differed from the phase (1) specified by a rule in layer accuracy
I0507 19:07:38.440265  6342 net.cpp:52] Initializing net from parameters: 
state {
  phase: TRAIN
}
layer {
  name: "parameters"
  type: "HDF5Data"
  top: "data"
  top: "label"
  include {
    phase: TRAIN
  }
  hdf5_data_param {
    source: "/home/purduethu/scratch/radon/d/deng106/CNNStatisticalModel/distributions/input/50_distributions_900_sample_size_train-distributions-path.txt"
    batch_size: 20
  }
}
layer {
  name: "conv1"
  type: "Convolution"
  bottom: "data"
  top: "conv1"
  param {
    lr_mult: 1
  }
  param {
    lr_mult: 2
  }
  convolution_param {
    num_output: 64
    pad: 2
    kernel_size: 5
    stride: 1
    weight_filler {
      type: "gaussian"
      std: 0.0001
    }
    bias_filler {
      type: "constant"
    }
  }
}
layer {
  name: "relu1"
  type: "ReLU"
  bottom: "conv1"
  top: "conv1"
}
layer {
  name: "conv2"
  type: "Convolution"
  bottom: "conv1"
  top: "conv2"
  param {
    lr_mult: 1
  }
  param {
    lr_mult: 2
  }
  convolution_param {
    num_output: 64
    pad: 2
    kernel_size: 5
    stride: 1
    weight_filler {
      type: "gaussian"
      std: 0.01
    }
    bias_filler {
      type: "constant"
    }
  }
}
layer {
  name: "relu2"
  type: "ReLU"
  bottom: "conv2"
  top: "conv2"
}
layer {
  name: "pool2"
  type: "Pooling"
  bottom: "conv2"
  top: "pool2"
  pooling_param {
    pool: MAX
    kernel_size: 3
    stride: 2
  }
}
layer {
  name: "conv3"
  type: "Convolution"
  bottom: "pool2"
  top: "conv3"
  param {
    lr_mult: 1
  }
  param {
    lr_mult: 2
  }
  convolution_param {
    num_output: 64
    pad: 2
    kernel_size: 5
    stride: 1
    weight_filler {
      type: "gaussian"
      std: 0.01
    }
    bias_filler {
      type: "constant"
    }
  }
}
layer {
  name: "relu3"
  type: "ReLU"
  bottom: "conv3"
  top: "conv3"
}
layer {
  name: "conv4"
  type: "Convolution"
  bottom: "conv3"
  top: "conv4"
  param {
    lr_mult: 1
  }
  param {
    lr_mult: 2
  }
  convolution_param {
    num_output: 64
    pad: 2
    kernel_size: 5
    stride: 1
    weight_filler {
      type: "gaussian"
      std: 0.01
    }
    bias_filler {
      type: "constant"
    }
  }
}
layer {
  name: "relu4"
  type: "ReLU"
  bottom: "conv4"
  top: "conv4"
}
layer {
  name: "conv5"
  type: "Convolution"
  bottom: "conv4"
  top: "conv5"
  param {
    lr_mult: 1
  }
  param {
    lr_mult: 2
  }
  convolution_param {
    num_output: 64
    pad: 2
    kernel_size: 5
    stride: 1
    weight_filler {
      type: "gaussian"
      std: 0.01
    }
    bias_filler {
      type: "constant"
    }
  }
}
layer {
  name: "relu5"
  type: "ReLU"
  bottom: "conv5"
  top: "conv5"
}
layer {
  name: "pool5"
  type: "Pooling"
  bottom: "conv5"
  top: "pool5"
  pooling_param {
    pool: AVE
    kernel_size: 3
    stride: 2
  }
}
layer {
  name: "ip1"
  type: "InnerProduct"
  bottom: "pool5"
  top: "ip1"
  param {
    lr_mult: 1
  }
  param {
    lr_mult: 2
  }
  inner_product_param {
    num_output: 64
    weight_filler {
      type: "gaussian"
      std: 0.1
    }
    bias_filler {
      type: "constant"
    }
  }
}
layer {
  name: "ip2"
  type: "InnerProduct"
  bottom: "ip1"
  top: "ip2"
  param {
    lr_mult: 1
  }
  param {
    lr_mult: 2
  }
  inner_product_param {
    num_output: 64
    weight_filler {
      type: "gaussian"
      std: 0.1
    }
    bias_filler {
      type: "constant"
    }
  }
}
layer {
  name: "ip3"
  type: "InnerProduct"
  bottom: "ip2"
  top: "ip3"
  param {
    lr_mult: 1
  }
  param {
    lr_mult: 2
  }
  inner_product_param {
    num_output: 50
    weight_filler {
      type: "gaussian"
      std: 0.1
    }
    bias_filler {
      type: "constant"
    }
  }
}
layer {
  name: "loss"
  type: "SoftmaxWithLoss"
  bottom: "ip3"
  bottom: "label"
  top: "loss"
}
I0507 19:07:38.440315  6342 layer_factory.hpp:77] Creating layer parameters
I0507 19:07:38.440323  6342 net.cpp:94] Creating Layer parameters
I0507 19:07:38.440326  6342 net.cpp:409] parameters -> data
I0507 19:07:38.440333  6342 net.cpp:409] parameters -> label
I0507 19:07:38.440340  6342 hdf5_data_layer.cpp:79] Loading list of HDF5 filenames from: /home/purduethu/scratch/radon/d/deng106/CNNStatisticalModel/distributions/input/50_distributions_900_sample_size_train-distributions-path.txt
I0507 19:07:38.440354  6342 hdf5_data_layer.cpp:93] Number of HDF5 files: 1
I0507 19:07:39.862673  6342 hdf5.cpp:35] Datatype class: H5T_INTEGER
I0507 19:07:39.865718  6342 net.cpp:144] Setting up parameters
I0507 19:07:39.865741  6342 net.cpp:151] Top shape: 20 1 30 30 (18000)
I0507 19:07:39.865746  6342 net.cpp:151] Top shape: 20 (20)
I0507 19:07:39.865749  6342 net.cpp:159] Memory required for data: 72080
I0507 19:07:39.865756  6342 layer_factory.hpp:77] Creating layer conv1
I0507 19:07:39.865770  6342 net.cpp:94] Creating Layer conv1
I0507 19:07:39.865775  6342 net.cpp:435] conv1 <- data
I0507 19:07:39.865782  6342 net.cpp:409] conv1 -> conv1
I0507 19:07:39.869323  6342 net.cpp:144] Setting up conv1
I0507 19:07:39.869360  6342 net.cpp:151] Top shape: 20 64 30 30 (1152000)
I0507 19:07:39.869372  6342 net.cpp:159] Memory required for data: 4680080
I0507 19:07:39.869398  6342 layer_factory.hpp:77] Creating layer relu1
I0507 19:07:39.869418  6342 net.cpp:94] Creating Layer relu1
I0507 19:07:39.869429  6342 net.cpp:435] relu1 <- conv1
I0507 19:07:39.869442  6342 net.cpp:396] relu1 -> conv1 (in-place)
I0507 19:07:39.869462  6342 net.cpp:144] Setting up relu1
I0507 19:07:39.869475  6342 net.cpp:151] Top shape: 20 64 30 30 (1152000)
I0507 19:07:39.869484  6342 net.cpp:159] Memory required for data: 9288080
I0507 19:07:39.869493  6342 layer_factory.hpp:77] Creating layer conv2
I0507 19:07:39.869514  6342 net.cpp:94] Creating Layer conv2
I0507 19:07:39.869524  6342 net.cpp:435] conv2 <- conv1
I0507 19:07:39.869539  6342 net.cpp:409] conv2 -> conv2
I0507 19:07:39.885951  6342 net.cpp:144] Setting up conv2
I0507 19:07:39.885967  6342 net.cpp:151] Top shape: 20 64 30 30 (1152000)
I0507 19:07:39.885972  6342 net.cpp:159] Memory required for data: 13896080
I0507 19:07:39.885980  6342 layer_factory.hpp:77] Creating layer relu2
I0507 19:07:39.885988  6342 net.cpp:94] Creating Layer relu2
I0507 19:07:39.885993  6342 net.cpp:435] relu2 <- conv2
I0507 19:07:39.885998  6342 net.cpp:396] relu2 -> conv2 (in-place)
I0507 19:07:39.886004  6342 net.cpp:144] Setting up relu2
I0507 19:07:39.886009  6342 net.cpp:151] Top shape: 20 64 30 30 (1152000)
I0507 19:07:39.886013  6342 net.cpp:159] Memory required for data: 18504080
I0507 19:07:39.886016  6342 layer_factory.hpp:77] Creating layer pool2
I0507 19:07:39.886023  6342 net.cpp:94] Creating Layer pool2
I0507 19:07:39.886026  6342 net.cpp:435] pool2 <- conv2
I0507 19:07:39.886030  6342 net.cpp:409] pool2 -> pool2
I0507 19:07:39.886090  6342 net.cpp:144] Setting up pool2
I0507 19:07:39.886098  6342 net.cpp:151] Top shape: 20 64 15 15 (288000)
I0507 19:07:39.886102  6342 net.cpp:159] Memory required for data: 19656080
I0507 19:07:39.886106  6342 layer_factory.hpp:77] Creating layer conv3
I0507 19:07:39.886114  6342 net.cpp:94] Creating Layer conv3
I0507 19:07:39.886118  6342 net.cpp:435] conv3 <- pool2
I0507 19:07:39.886131  6342 net.cpp:409] conv3 -> conv3
I0507 19:07:39.895596  6342 net.cpp:144] Setting up conv3
I0507 19:07:39.895612  6342 net.cpp:151] Top shape: 20 64 15 15 (288000)
I0507 19:07:39.895617  6342 net.cpp:159] Memory required for data: 20808080
I0507 19:07:39.895624  6342 layer_factory.hpp:77] Creating layer relu3
I0507 19:07:39.895632  6342 net.cpp:94] Creating Layer relu3
I0507 19:07:39.895635  6342 net.cpp:435] relu3 <- conv3
I0507 19:07:39.895640  6342 net.cpp:396] relu3 -> conv3 (in-place)
I0507 19:07:39.895648  6342 net.cpp:144] Setting up relu3
I0507 19:07:39.895653  6342 net.cpp:151] Top shape: 20 64 15 15 (288000)
I0507 19:07:39.895656  6342 net.cpp:159] Memory required for data: 21960080
I0507 19:07:39.895659  6342 layer_factory.hpp:77] Creating layer conv4
I0507 19:07:39.895668  6342 net.cpp:94] Creating Layer conv4
I0507 19:07:39.895673  6342 net.cpp:435] conv4 <- conv3
I0507 19:07:39.895678  6342 net.cpp:409] conv4 -> conv4
I0507 19:07:39.904978  6342 net.cpp:144] Setting up conv4
I0507 19:07:39.904994  6342 net.cpp:151] Top shape: 20 64 15 15 (288000)
I0507 19:07:39.904999  6342 net.cpp:159] Memory required for data: 23112080
I0507 19:07:39.905005  6342 layer_factory.hpp:77] Creating layer relu4
I0507 19:07:39.905012  6342 net.cpp:94] Creating Layer relu4
I0507 19:07:39.905016  6342 net.cpp:435] relu4 <- conv4
I0507 19:07:39.905021  6342 net.cpp:396] relu4 -> conv4 (in-place)
I0507 19:07:39.905030  6342 net.cpp:144] Setting up relu4
I0507 19:07:39.905035  6342 net.cpp:151] Top shape: 20 64 15 15 (288000)
I0507 19:07:39.905038  6342 net.cpp:159] Memory required for data: 24264080
I0507 19:07:39.905041  6342 layer_factory.hpp:77] Creating layer conv5
I0507 19:07:39.905050  6342 net.cpp:94] Creating Layer conv5
I0507 19:07:39.905053  6342 net.cpp:435] conv5 <- conv4
I0507 19:07:39.905058  6342 net.cpp:409] conv5 -> conv5
I0507 19:07:39.913257  6342 net.cpp:144] Setting up conv5
I0507 19:07:39.913274  6342 net.cpp:151] Top shape: 20 64 15 15 (288000)
I0507 19:07:39.913278  6342 net.cpp:159] Memory required for data: 25416080
I0507 19:07:39.913288  6342 layer_factory.hpp:77] Creating layer relu5
I0507 19:07:39.913295  6342 net.cpp:94] Creating Layer relu5
I0507 19:07:39.913300  6342 net.cpp:435] relu5 <- conv5
I0507 19:07:39.913305  6342 net.cpp:396] relu5 -> conv5 (in-place)
I0507 19:07:39.913312  6342 net.cpp:144] Setting up relu5
I0507 19:07:39.913317  6342 net.cpp:151] Top shape: 20 64 15 15 (288000)
I0507 19:07:39.913321  6342 net.cpp:159] Memory required for data: 26568080
I0507 19:07:39.913324  6342 layer_factory.hpp:77] Creating layer pool5
I0507 19:07:39.913331  6342 net.cpp:94] Creating Layer pool5
I0507 19:07:39.913334  6342 net.cpp:435] pool5 <- conv5
I0507 19:07:39.913339  6342 net.cpp:409] pool5 -> pool5
I0507 19:07:39.913383  6342 net.cpp:144] Setting up pool5
I0507 19:07:39.913389  6342 net.cpp:151] Top shape: 20 64 7 7 (62720)
I0507 19:07:39.913393  6342 net.cpp:159] Memory required for data: 26818960
I0507 19:07:39.913398  6342 layer_factory.hpp:77] Creating layer ip1
I0507 19:07:39.913404  6342 net.cpp:94] Creating Layer ip1
I0507 19:07:39.913408  6342 net.cpp:435] ip1 <- pool5
I0507 19:07:39.913413  6342 net.cpp:409] ip1 -> ip1
I0507 19:07:39.918731  6342 net.cpp:144] Setting up ip1
I0507 19:07:39.918742  6342 net.cpp:151] Top shape: 20 64 (1280)
I0507 19:07:39.918745  6342 net.cpp:159] Memory required for data: 26824080
I0507 19:07:39.918752  6342 layer_factory.hpp:77] Creating layer ip2
I0507 19:07:39.918758  6342 net.cpp:94] Creating Layer ip2
I0507 19:07:39.918762  6342 net.cpp:435] ip2 <- ip1
I0507 19:07:39.918768  6342 net.cpp:409] ip2 -> ip2
I0507 19:07:39.919016  6342 net.cpp:144] Setting up ip2
I0507 19:07:39.919024  6342 net.cpp:151] Top shape: 20 64 (1280)
I0507 19:07:39.919028  6342 net.cpp:159] Memory required for data: 26829200
I0507 19:07:39.919034  6342 layer_factory.hpp:77] Creating layer ip3
I0507 19:07:39.919040  6342 net.cpp:94] Creating Layer ip3
I0507 19:07:39.919044  6342 net.cpp:435] ip3 <- ip2
I0507 19:07:39.919049  6342 net.cpp:409] ip3 -> ip3
I0507 19:07:39.919272  6342 net.cpp:144] Setting up ip3
I0507 19:07:39.919281  6342 net.cpp:151] Top shape: 20 50 (1000)
I0507 19:07:39.919284  6342 net.cpp:159] Memory required for data: 26833200
I0507 19:07:39.919291  6342 layer_factory.hpp:77] Creating layer loss
I0507 19:07:39.919297  6342 net.cpp:94] Creating Layer loss
I0507 19:07:39.919301  6342 net.cpp:435] loss <- ip3
I0507 19:07:39.919306  6342 net.cpp:435] loss <- label
I0507 19:07:39.919311  6342 net.cpp:409] loss -> loss
I0507 19:07:39.919317  6342 layer_factory.hpp:77] Creating layer loss
…
I0507 19:07:39.919878  6342 solver.cpp:181] Creating test net (#0) specified by net file: ./protocol/dis_50_900_dimension.protocol_distribution
I0507 19:07:39.919906  6342 net.cpp:323] The NetState phase (1) differed from the phase (0) specified by a rule in layer parameters
I0507 19:07:39.920006  6342 net.cpp:52] Initializing net from parameters: 
state {
  phase: TEST
}
layer {
  name: "intercept"
  type: "HDF5Data"
  top: "data"
  top: "label"
  include {
    phase: TEST
  }
  hdf5_data_param {
    source: "/home/purduethu/scratch/radon/d/deng106/CNNStatisticalModel/distributions/input/50_distributions_900_sample_size_test-distributions-path.txt"
    batch_size: 20
  }
}
layer {
  name: "conv1"
  type: "Convolution"
  bottom: "data"
  top: "conv1"
  param {
    lr_mult: 1
  }
  param {
    lr_mult: 2
  }
  convolution_param {
    num_output: 64
    pad: 2
    kernel_size: 5
    stride: 1
    weight_filler {
      type: "gaussian"
      std: 0.0001
    }
    bias_filler {
      type: "constant"
    }
  }
}
layer {
  name: "relu1"
  type: "ReLU"
  bottom: "conv1"
  top: "conv1"
}
layer {
  name: "conv2"
  type: "Convolution"
  bottom: "conv1"
  top: "conv2"
  param {
    lr_mult: 1
  }
  param {
    lr_mult: 2
  }
  convolution_param {
    num_output: 64
    pad: 2
    kernel_size: 5
    stride: 1
    weight_filler {
      type: "gaussian"
      std: 0.01
    }
    bias_filler {
      type: "constant"
    }
  }
}
layer {
  name: "relu2"
  type: "ReLU"
  bottom: "conv2"
  top: "conv2"
}
layer {
  name: "pool2"
  type: "Pooling"
  bottom: "conv2"
  top: "pool2"
  pooling_param {
    pool: MAX
    kernel_size: 3
    stride: 2
  }
}
layer {
  name: "conv3"
  type: "Convolution"
  bottom: "pool2"
  top: "conv3"
  param {
    lr_mult: 1
  }
  param {
    lr_mult: 2
  }
  convolution_param {
    num_output: 64
    pad: 2
    kernel_size: 5
    stride: 1
    weight_filler {
      type: "gaussian"
      std: 0.01
    }
    bias_filler {
      type: "constant"
    }
  }
}
layer {
  name: "relu3"
  type: "ReLU"
  bottom: "conv3"
  top: "conv3"
}
layer {
  name: "conv4"
  type: "Convolution"
  bottom: "conv3"
  top: "conv4"
  param {
    lr_mult: 1
  }
  param {
    lr_mult: 2
  }
  convolution_param {
    num_output: 64
    pad: 2
    kernel_size: 5
    stride: 1
    weight_filler {
      type: "gaussian"
      std: 0.01
    }
    bias_filler {
      type: "constant"
    }
  }
}
layer {
  name: "relu4"
  type: "ReLU"
  bottom: "conv4"
  top: "conv4"
}
layer {
  name: "conv5"
  type: "Convolution"
  bottom: "conv4"
  top: "conv5"
  param {
    lr_mult: 1
  }
  param {
    lr_mult: 2
  }
  convolution_param {
    num_output: 64
    pad: 2
    kernel_size: 5
    stride: 1
    weight_filler {
      type: "gaussian"
      std: 0.01
    }
    bias_filler {
      type: "constant"
    }
  }
}
layer {
  name: "relu5"
  type: "ReLU"
  bottom: "conv5"
  top: "conv5"
}
layer {
  name: "pool5"
  type: "Pooling"
  bottom: "conv5"
  top: "pool5"
  pooling_param {
    pool: AVE
    kernel_size: 3
    stride: 2
  }
}
layer {
  name: "ip1"
  type: "InnerProduct"
  bottom: "pool5"
  top: "ip1"
  param {
    lr_mult: 1
  }
  param {
    lr_mult: 2
  }
  inner_product_param {
    num_output: 64
    weight_filler {
      type: "gaussian"
      std: 0.1
    }
    bias_filler {
      type: "constant"
    }
  }
}
layer {
  name: "ip2"
  type: "InnerProduct"
  bottom: "ip1"
  top: "ip2"
  param {
    lr_mult: 1
  }
  param {
    lr_mult: 2
  }
  inner_product_param {
    num_output: 64
    weight_filler {
      type: "gaussian"
      std: 0.1
    }
    bias_filler {
      type: "constant"
    }
  }
}
layer {
  name: "ip3"
  type: "InnerProduct"
  bottom: "ip2"
  top: "ip3"
  param {
    lr_mult: 1
  }
  param {
    lr_mult: 2
  }
  inner_product_param {
    num_output: 50
    weight_filler {
      type: "gaussian"
      std: 0.1
    }
    bias_filler {
      type: "constant"
    }
  }
}
layer {
  name: "accuracy"
  type: "Accuracy"
  bottom: "ip3"
  bottom: "label"
  top: "accuracy"
  include {
    phase: TEST
  }
}
layer {
  name: "loss"
  type: "SoftmaxWithLoss"
  bottom: "ip3"
  bottom: "label"
  top: "loss"
}
I0507 19:07:39.920076  6342 layer_factory.hpp:77] Creating layer intercept
I0507 19:07:39.920085  6342 net.cpp:94] Creating Layer intercept
I0507 19:07:39.920089  6342 net.cpp:409] intercept -> data
I0507 19:07:39.920096  6342 net.cpp:409] intercept -> label
I0507 19:07:39.920104  6342 hdf5_data_layer.cpp:79] Loading list of HDF5 filenames from: /home/purduethu/scratch/radon/d/deng106/CNNStatisticalModel/distributions/input/50_distributions_900_sample_size_test-distributions-path.txt
I0507 19:07:39.920122  6342 hdf5_data_layer.cpp:93] Number of HDF5 files: 1
I0507 19:07:40.279285  6342 net.cpp:144] Setting up intercept
I0507 19:07:40.279319  6342 net.cpp:151] Top shape: 20 1 30 30 (18000)
I0507 19:07:40.279323  6342 net.cpp:151] Top shape: 20 (20)
I0507 19:07:40.279326  6342 net.cpp:159] Memory required for data: 72080
I0507 19:07:40.279333  6342 layer_factory.hpp:77] Creating layer label_intercept_1_split
I0507 19:07:40.279352  6342 net.cpp:94] Creating Layer label_intercept_1_split
I0507 19:07:40.279357  6342 net.cpp:435] label_intercept_1_split <- label
I0507 19:07:40.279362  6342 net.cpp:409] label_intercept_1_split -> label_intercept_1_split_0
I0507 19:07:40.279371  6342 net.cpp:409] label_intercept_1_split -> label_intercept_1_split_1
I0507 19:07:40.279414  6342 net.cpp:144] Setting up label_intercept_1_split
I0507 19:07:40.279420  6342 net.cpp:151] Top shape: 20 (20)
I0507 19:07:40.279424  6342 net.cpp:151] Top shape: 20 (20)
I0507 19:07:40.279428  6342 net.cpp:159] Memory required for data: 72240
I0507 19:07:40.279430  6342 layer_factory.hpp:77] Creating layer conv1
I0507 19:07:40.279443  6342 net.cpp:94] Creating Layer conv1
I0507 19:07:40.279445  6342 net.cpp:435] conv1 <- data
I0507 19:07:40.279450  6342 net.cpp:409] conv1 -> conv1
I0507 19:07:40.280993  6342 net.cpp:144] Setting up conv1
I0507 19:07:40.281008  6342 net.cpp:151] Top shape: 20 64 30 30 (1152000)
I0507 19:07:40.281011  6342 net.cpp:159] Memory required for data: 4680240
I0507 19:07:40.281021  6342 layer_factory.hpp:77] Creating layer relu1
I0507 19:07:40.281028  6342 net.cpp:94] Creating Layer relu1
I0507 19:07:40.281031  6342 net.cpp:435] relu1 <- conv1
I0507 19:07:40.281035  6342 net.cpp:396] relu1 -> conv1 (in-place)
I0507 19:07:40.281044  6342 net.cpp:144] Setting up relu1
I0507 19:07:40.281047  6342 net.cpp:151] Top shape: 20 64 30 30 (1152000)
I0507 19:07:40.281050  6342 net.cpp:159] Memory required for data: 9288240
I0507 19:07:40.281054  6342 layer_factory.hpp:77] Creating layer conv2
I0507 19:07:40.281062  6342 net.cpp:94] Creating Layer conv2
I0507 19:07:40.281065  6342 net.cpp:435] conv2 <- conv1
I0507 19:07:40.281070  6342 net.cpp:409] conv2 -> conv2
I0507 19:07:40.288594  6342 net.cpp:144] Setting up conv2
I0507 19:07:40.288609  6342 net.cpp:151] Top shape: 20 64 30 30 (1152000)
I0507 19:07:40.288614  6342 net.cpp:159] Memory required for data: 13896240
I0507 19:07:40.288621  6342 layer_factory.hpp:77] Creating layer relu2
I0507 19:07:40.288628  6342 net.cpp:94] Creating Layer relu2
I0507 19:07:40.288632  6342 net.cpp:435] relu2 <- conv2
I0507 19:07:40.288637  6342 net.cpp:396] relu2 -> conv2 (in-place)
I0507 19:07:40.288645  6342 net.cpp:144] Setting up relu2
I0507 19:07:40.288650  6342 net.cpp:151] Top shape: 20 64 30 30 (1152000)
I0507 19:07:40.288652  6342 net.cpp:159] Memory required for data: 18504240
I0507 19:07:40.288655  6342 layer_factory.hpp:77] Creating layer pool2
I0507 19:07:40.288662  6342 net.cpp:94] Creating Layer pool2
I0507 19:07:40.288666  6342 net.cpp:435] pool2 <- conv2
I0507 19:07:40.288669  6342 net.cpp:409] pool2 -> pool2
I0507 19:07:40.288730  6342 net.cpp:144] Setting up pool2
I0507 19:07:40.288738  6342 net.cpp:151] Top shape: 20 64 15 15 (288000)
I0507 19:07:40.288741  6342 net.cpp:159] Memory required for data: 19656240
I0507 19:07:40.288744  6342 layer_factory.hpp:77] Creating layer conv3
I0507 19:07:40.288753  6342 net.cpp:94] Creating Layer conv3
I0507 19:07:40.288756  6342 net.cpp:435] conv3 <- pool2
I0507 19:07:40.288763  6342 net.cpp:409] conv3 -> conv3
I0507 19:07:40.293959  6342 net.cpp:144] Setting up conv3
I0507 19:07:40.293997  6342 net.cpp:151] Top shape: 20 64 15 15 (288000)
I0507 19:07:40.294008  6342 net.cpp:159] Memory required for data: 20808240
I0507 19:07:40.294029  6342 layer_factory.hpp:77] Creating layer relu3
I0507 19:07:40.294036  6342 net.cpp:94] Creating Layer relu3
I0507 19:07:40.294039  6342 net.cpp:435] relu3 <- conv3
I0507 19:07:40.294044  6342 net.cpp:396] relu3 -> conv3 (in-place)
I0507 19:07:40.294051  6342 net.cpp:144] Setting up relu3
I0507 19:07:40.294055  6342 net.cpp:151] Top shape: 20 64 15 15 (288000)
I0507 19:07:40.294059  6342 net.cpp:159] Memory required for data: 21960240
I0507 19:07:40.294061  6342 layer_factory.hpp:77] Creating layer conv4
I0507 19:07:40.294070  6342 net.cpp:94] Creating Layer conv4
I0507 19:07:40.294075  6342 net.cpp:435] conv4 <- conv3
I0507 19:07:40.294081  6342 net.cpp:409] conv4 -> conv4
I0507 19:07:40.298884  6342 net.cpp:144] Setting up conv4
I0507 19:07:40.298923  6342 net.cpp:151] Top shape: 20 64 15 15 (288000)
I0507 19:07:40.298933  6342 net.cpp:159] Memory required for data: 23112240
I0507 19:07:40.298952  6342 layer_factory.hpp:77] Creating layer relu4
I0507 19:07:40.298980  6342 net.cpp:94] Creating Layer relu4
I0507 19:07:40.298985  6342 net.cpp:435] relu4 <- conv4
I0507 19:07:40.298990  6342 net.cpp:396] relu4 -> conv4 (in-place)
I0507 19:07:40.298996  6342 net.cpp:144] Setting up relu4
I0507 19:07:40.299000  6342 net.cpp:151] Top shape: 20 64 15 15 (288000)
I0507 19:07:40.299003  6342 net.cpp:159] Memory required for data: 24264240
I0507 19:07:40.299006  6342 layer_factory.hpp:77] Creating layer conv5
I0507 19:07:40.299015  6342 net.cpp:94] Creating Layer conv5
I0507 19:07:40.299019  6342 net.cpp:435] conv5 <- conv4
I0507 19:07:40.299024  6342 net.cpp:409] conv5 -> conv5
I0507 19:07:40.303655  6342 net.cpp:144] Setting up conv5
I0507 19:07:40.303669  6342 net.cpp:151] Top shape: 20 64 15 15 (288000)
I0507 19:07:40.303673  6342 net.cpp:159] Memory required for data: 25416240
I0507 19:07:40.303683  6342 layer_factory.hpp:77] Creating layer relu5
I0507 19:07:40.303689  6342 net.cpp:94] Creating Layer relu5
I0507 19:07:40.303692  6342 net.cpp:435] relu5 <- conv5
I0507 19:07:40.303696  6342 net.cpp:396] relu5 -> conv5 (in-place)
I0507 19:07:40.303704  6342 net.cpp:144] Setting up relu5
I0507 19:07:40.303707  6342 net.cpp:151] Top shape: 20 64 15 15 (288000)
I0507 19:07:40.303710  6342 net.cpp:159] Memory required for data: 26568240
I0507 19:07:40.303714  6342 layer_factory.hpp:77] Creating layer pool5
I0507 19:07:40.303720  6342 net.cpp:94] Creating Layer pool5
I0507 19:07:40.303724  6342 net.cpp:435] pool5 <- conv5
I0507 19:07:40.303728  6342 net.cpp:409] pool5 -> pool5
I0507 19:07:40.303769  6342 net.cpp:144] Setting up pool5
I0507 19:07:40.303776  6342 net.cpp:151] Top shape: 20 64 7 7 (62720)
I0507 19:07:40.303781  6342 net.cpp:159] Memory required for data: 26819120
I0507 19:07:40.303783  6342 layer_factory.hpp:77] Creating layer ip1
I0507 19:07:40.303791  6342 net.cpp:94] Creating Layer ip1
I0507 19:07:40.303794  6342 net.cpp:435] ip1 <- pool5
I0507 19:07:40.303800  6342 net.cpp:409] ip1 -> ip1
I0507 19:07:40.309535  6342 net.cpp:144] Setting up ip1
I0507 19:07:40.309550  6342 net.cpp:151] Top shape: 20 64 (1280)
I0507 19:07:40.309553  6342 net.cpp:159] Memory required for data: 26824240
I0507 19:07:40.309559  6342 layer_factory.hpp:77] Creating layer ip2
I0507 19:07:40.309566  6342 net.cpp:94] Creating Layer ip2
I0507 19:07:40.309571  6342 net.cpp:435] ip2 <- ip1
I0507 19:07:40.309576  6342 net.cpp:409] ip2 -> ip2
I0507 19:07:40.309826  6342 net.cpp:144] Setting up ip2
I0507 19:07:40.309834  6342 net.cpp:151] Top shape: 20 64 (1280)
I0507 19:07:40.309837  6342 net.cpp:159] Memory required for data: 26829360
I0507 19:07:40.309844  6342 layer_factory.hpp:77] Creating layer ip3
I0507 19:07:40.309851  6342 net.cpp:94] Creating Layer ip3
I0507 19:07:40.309854  6342 net.cpp:435] ip3 <- ip2
I0507 19:07:40.309861  6342 net.cpp:409] ip3 -> ip3
I0507 19:07:40.310070  6342 net.cpp:144] Setting up ip3
I0507 19:07:40.310078  6342 net.cpp:151] Top shape: 20 50 (1000)
I0507 19:07:40.310081  6342 net.cpp:159] Memory required for data: 26833360
I0507 19:07:40.310086  6342 layer_factory.hpp:77] Creating layer ip3_ip3_0_split
I0507 19:07:40.310093  6342 net.cpp:94] Creating Layer ip3_ip3_0_split
I0507 19:07:40.310096  6342 net.cpp:435] ip3_ip3_0_split <- ip3
I0507 19:07:40.310101  6342 net.cpp:409] ip3_ip3_0_split -> ip3_ip3_0_split_0
I0507 19:07:40.310106  6342 net.cpp:409] ip3_ip3_0_split -> ip3_ip3_0_split_1
I0507 19:07:40.310150  6342 net.cpp:144] Setting up ip3_ip3_0_split
I0507 19:07:40.310156  6342 net.cpp:151] Top shape: 20 50 (1000)
I0507 19:07:40.310160  6342 net.cpp:151] Top shape: 20 50 (1000)
I0507 19:07:40.310163  6342 net.cpp:159] Memory required for data: 26841360
I0507 19:07:40.310166  6342 layer_factory.hpp:77] Creating layer accuracy
I0507 19:07:40.310173  6342 net.cpp:94] Creating Layer accuracy
I0507 19:07:40.310176  6342 net.cpp:435] accuracy <- ip3_ip3_0_split_0
I0507 19:07:40.310180  6342 net.cpp:435] accuracy <- label_intercept_1_split_0
I0507 19:07:40.310185  6342 net.cpp:409] accuracy -> accuracy
…
