…
I0502 12:56:26.181620   719 net.cpp:323] The NetState phase (0) differed from the phase (1) specified by a rule in layer intercept
I0502 12:56:26.181637   719 net.cpp:323] The NetState phase (0) differed from the phase (1) specified by a rule in layer loss
I0502 12:56:26.181715   719 net.cpp:52] Initializing net from parameters: 
state {
  phase: TRAIN
}
layer {
  name: "parameters"
  type: "HDF5Data"
  top: "data"
  top: "label"
  include {
    phase: TRAIN
  }
  hdf5_data_param {
    source: "/home/purduethu/scratch/radon/d/deng106/CNNStatisticalModel/distributions/input/5_distributions_400_sample_size_train-parameters-path.txt"
    batch_size: 20
  }
}
layer {
  name: "conv1"
  type: "Convolution"
  bottom: "data"
  top: "conv1"
  param {
    lr_mult: 1
  }
  param {
    lr_mult: 2
  }
  convolution_param {
    num_output: 64
    pad: 2
    kernel_size: 5
    stride: 1
    weight_filler {
      type: "gaussian"
      std: 0.0001
    }
    bias_filler {
      type: "constant"
    }
  }
}
layer {
  name: "relu1"
  type: "ReLU"
  bottom: "conv1"
  top: "conv1"
}
layer {
  name: "conv2"
  type: "Convolution"
  bottom: "conv1"
  top: "conv2"
  param {
    lr_mult: 1
  }
  param {
    lr_mult: 2
  }
  convolution_param {
    num_output: 64
    pad: 2
    kernel_size: 5
    stride: 1
    weight_filler {
      type: "gaussian"
      std: 0.01
    }
    bias_filler {
      type: "constant"
    }
  }
}
layer {
  name: "relu2"
  type: "ReLU"
  bottom: "conv2"
  top: "conv2"
}
layer {
  name: "pool2"
  type: "Pooling"
  bottom: "conv2"
  top: "pool2"
  pooling_param {
    pool: MAX
    kernel_size: 3
    stride: 2
  }
}
layer {
  name: "conv3"
  type: "Convolution"
  bottom: "pool2"
  top: "conv3"
  param {
    lr_mult: 1
  }
  param {
    lr_mult: 2
  }
  convolution_param {
    num_output: 64
    pad: 2
    kernel_size: 5
    stride: 1
    weight_filler {
      type: "gaussian"
      std: 0.01
    }
    bias_filler {
      type: "constant"
    }
  }
}
layer {
  name: "relu3"
  type: "ReLU"
  bottom: "conv3"
  top: "conv3"
}
layer {
  name: "conv4"
  type: "Convolution"
  bottom: "conv3"
  top: "conv4"
  param {
    lr_mult: 1
  }
  param {
    lr_mult: 2
  }
  convolution_param {
    num_output: 64
    pad: 2
    kernel_size: 5
    stride: 1
    weight_filler {
      type: "gaussian"
      std: 0.01
    }
    bias_filler {
      type: "constant"
    }
  }
}
layer {
  name: "relu4"
  type: "ReLU"
  bottom: "conv4"
  top: "conv4"
}
layer {
  name: "conv5"
  type: "Convolution"
  bottom: "conv4"
  top: "conv5"
  param {
    lr_mult: 1
  }
  param {
    lr_mult: 2
  }
  convolution_param {
    num_output: 64
    pad: 2
    kernel_size: 5
    stride: 1
    weight_filler {
      type: "gaussian"
      std: 0.01
    }
    bias_filler {
      type: "constant"
    }
  }
}
layer {
  name: "relu5"
  type: "ReLU"
  bottom: "conv5"
  top: "conv5"
}
layer {
  name: "pool5"
  type: "Pooling"
  bottom: "conv5"
  top: "pool5"
  pooling_param {
    pool: AVE
    kernel_size: 3
    stride: 2
  }
}
layer {
  name: "ip1"
  type: "InnerProduct"
  bottom: "pool5"
  top: "ip1"
  param {
    lr_mult: 1
  }
  param {
    lr_mult: 2
  }
  inner_product_param {
    num_output: 64
    weight_filler {
      type: "gaussian"
      std: 0.1
    }
    bias_filler {
      type: "constant"
    }
  }
}
layer {
  name: "ip2"
  type: "InnerProduct"
  bottom: "ip1"
  top: "ip2"
  param {
    lr_mult: 1
  }
  param {
    lr_mult: 2
  }
  inner_product_param {
    num_output: 64
    weight_filler {
      type: "gaussian"
      std: 0.1
    }
    bias_filler {
      type: "constant"
    }
  }
}
layer {
  name: "ip3"
  type: "InnerProduct"
  bottom: "ip2"
  top: "ip3"
  param {
    lr_mult: 1
  }
  param {
    lr_mult: 2
  }
  inner_product_param {
    num_output: 1
    weight_filler {
      type: "gaussian"
      std: 0.1
    }
    bias_filler {
      type: "constant"
    }
  }
}
layer {
  name: "loss"
  type: "HuberLoss"
  bottom: "ip3"
  bottom: "label"
  top: "loss"
  include {
    phase: TRAIN
  }
}
I0502 12:56:26.181768   719 layer_factory.hpp:77] Creating layer parameters
I0502 12:56:26.181783   719 net.cpp:94] Creating Layer parameters
I0502 12:56:26.181787   719 net.cpp:409] parameters -> data
I0502 12:56:26.181800   719 net.cpp:409] parameters -> label
I0502 12:56:26.181807   719 hdf5_data_layer.cpp:79] Loading list of HDF5 filenames from: /home/purduethu/scratch/radon/d/deng106/CNNStatisticalModel/distributions/input/5_distributions_400_sample_size_train-parameters-path.txt
I0502 12:56:26.181823   719 hdf5_data_layer.cpp:93] Number of HDF5 files: 1
I0502 12:56:26.182391   719 hdf5.cpp:32] Datatype class: H5T_FLOAT
I0502 12:56:26.246534   719 net.cpp:144] Setting up parameters
I0502 12:56:26.246564   719 net.cpp:151] Top shape: 20 1 20 20 (8000)
I0502 12:56:26.246569   719 net.cpp:151] Top shape: 20 (20)
I0502 12:56:26.246572   719 net.cpp:159] Memory required for data: 32080
I0502 12:56:26.246579   719 layer_factory.hpp:77] Creating layer conv1
I0502 12:56:26.246594   719 net.cpp:94] Creating Layer conv1
I0502 12:56:26.246598   719 net.cpp:435] conv1 <- data
I0502 12:56:26.246605   719 net.cpp:409] conv1 -> conv1
I0502 12:56:26.252043   719 net.cpp:144] Setting up conv1
I0502 12:56:26.252063   719 net.cpp:151] Top shape: 20 64 20 20 (512000)
I0502 12:56:26.252065   719 net.cpp:159] Memory required for data: 2080080
I0502 12:56:26.252076   719 layer_factory.hpp:77] Creating layer relu1
I0502 12:56:26.252084   719 net.cpp:94] Creating Layer relu1
I0502 12:56:26.252089   719 net.cpp:435] relu1 <- conv1
I0502 12:56:26.252092   719 net.cpp:396] relu1 -> conv1 (in-place)
I0502 12:56:26.252100   719 net.cpp:144] Setting up relu1
I0502 12:56:26.252104   719 net.cpp:151] Top shape: 20 64 20 20 (512000)
I0502 12:56:26.252107   719 net.cpp:159] Memory required for data: 4128080
I0502 12:56:26.252110   719 layer_factory.hpp:77] Creating layer conv2
I0502 12:56:26.252117   719 net.cpp:94] Creating Layer conv2
I0502 12:56:26.252121   719 net.cpp:435] conv2 <- conv1
I0502 12:56:26.252125   719 net.cpp:409] conv2 -> conv2
I0502 12:56:26.263350   719 net.cpp:144] Setting up conv2
I0502 12:56:26.263365   719 net.cpp:151] Top shape: 20 64 20 20 (512000)
I0502 12:56:26.263370   719 net.cpp:159] Memory required for data: 6176080
I0502 12:56:26.263377   719 layer_factory.hpp:77] Creating layer relu2
I0502 12:56:26.263384   719 net.cpp:94] Creating Layer relu2
I0502 12:56:26.263387   719 net.cpp:435] relu2 <- conv2
I0502 12:56:26.263392   719 net.cpp:396] relu2 -> conv2 (in-place)
I0502 12:56:26.263398   719 net.cpp:144] Setting up relu2
I0502 12:56:26.263403   719 net.cpp:151] Top shape: 20 64 20 20 (512000)
I0502 12:56:26.263406   719 net.cpp:159] Memory required for data: 8224080
I0502 12:56:26.263408   719 layer_factory.hpp:77] Creating layer pool2
I0502 12:56:26.263420   719 net.cpp:94] Creating Layer pool2
I0502 12:56:26.263424   719 net.cpp:435] pool2 <- conv2
I0502 12:56:26.263428   719 net.cpp:409] pool2 -> pool2
I0502 12:56:26.263485   719 net.cpp:144] Setting up pool2
I0502 12:56:26.263492   719 net.cpp:151] Top shape: 20 64 10 10 (128000)
I0502 12:56:26.263496   719 net.cpp:159] Memory required for data: 8736080
I0502 12:56:26.263499   719 layer_factory.hpp:77] Creating layer conv3
I0502 12:56:26.263506   719 net.cpp:94] Creating Layer conv3
I0502 12:56:26.263510   719 net.cpp:435] conv3 <- pool2
I0502 12:56:26.263515   719 net.cpp:409] conv3 -> conv3
I0502 12:56:26.268802   719 net.cpp:144] Setting up conv3
I0502 12:56:26.268816   719 net.cpp:151] Top shape: 20 64 10 10 (128000)
I0502 12:56:26.268821   719 net.cpp:159] Memory required for data: 9248080
I0502 12:56:26.268828   719 layer_factory.hpp:77] Creating layer relu3
I0502 12:56:26.268834   719 net.cpp:94] Creating Layer relu3
I0502 12:56:26.268837   719 net.cpp:435] relu3 <- conv3
I0502 12:56:26.268842   719 net.cpp:396] relu3 -> conv3 (in-place)
I0502 12:56:26.268848   719 net.cpp:144] Setting up relu3
I0502 12:56:26.268852   719 net.cpp:151] Top shape: 20 64 10 10 (128000)
I0502 12:56:26.268856   719 net.cpp:159] Memory required for data: 9760080
I0502 12:56:26.268858   719 layer_factory.hpp:77] Creating layer conv4
I0502 12:56:26.268867   719 net.cpp:94] Creating Layer conv4
I0502 12:56:26.268870   719 net.cpp:435] conv4 <- conv3
I0502 12:56:26.268875   719 net.cpp:409] conv4 -> conv4
I0502 12:56:26.274201   719 net.cpp:144] Setting up conv4
I0502 12:56:26.274215   719 net.cpp:151] Top shape: 20 64 10 10 (128000)
I0502 12:56:26.274219   719 net.cpp:159] Memory required for data: 10272080
I0502 12:56:26.274225   719 layer_factory.hpp:77] Creating layer relu4
I0502 12:56:26.274231   719 net.cpp:94] Creating Layer relu4
I0502 12:56:26.274235   719 net.cpp:435] relu4 <- conv4
I0502 12:56:26.274238   719 net.cpp:396] relu4 -> conv4 (in-place)
I0502 12:56:26.274245   719 net.cpp:144] Setting up relu4
I0502 12:56:26.274250   719 net.cpp:151] Top shape: 20 64 10 10 (128000)
I0502 12:56:26.274252   719 net.cpp:159] Memory required for data: 10784080
I0502 12:56:26.274255   719 layer_factory.hpp:77] Creating layer conv5
I0502 12:56:26.274262   719 net.cpp:94] Creating Layer conv5
I0502 12:56:26.274266   719 net.cpp:435] conv5 <- conv4
I0502 12:56:26.274271   719 net.cpp:409] conv5 -> conv5
I0502 12:56:26.279676   719 net.cpp:144] Setting up conv5
I0502 12:56:26.279692   719 net.cpp:151] Top shape: 20 64 10 10 (128000)
I0502 12:56:26.279696   719 net.cpp:159] Memory required for data: 11296080
I0502 12:56:26.279706   719 layer_factory.hpp:77] Creating layer relu5
I0502 12:56:26.279712   719 net.cpp:94] Creating Layer relu5
I0502 12:56:26.279716   719 net.cpp:435] relu5 <- conv5
I0502 12:56:26.279721   719 net.cpp:396] relu5 -> conv5 (in-place)
I0502 12:56:26.279727   719 net.cpp:144] Setting up relu5
I0502 12:56:26.279731   719 net.cpp:151] Top shape: 20 64 10 10 (128000)
I0502 12:56:26.279734   719 net.cpp:159] Memory required for data: 11808080
I0502 12:56:26.279737   719 layer_factory.hpp:77] Creating layer pool5
I0502 12:56:26.279742   719 net.cpp:94] Creating Layer pool5
I0502 12:56:26.279744   719 net.cpp:435] pool5 <- conv5
I0502 12:56:26.279749   719 net.cpp:409] pool5 -> pool5
I0502 12:56:26.279791   719 net.cpp:144] Setting up pool5
I0502 12:56:26.279799   719 net.cpp:151] Top shape: 20 64 5 5 (32000)
I0502 12:56:26.279801   719 net.cpp:159] Memory required for data: 11936080
I0502 12:56:26.279804   719 layer_factory.hpp:77] Creating layer ip1
I0502 12:56:26.279815   719 net.cpp:94] Creating Layer ip1
I0502 12:56:26.279819   719 net.cpp:435] ip1 <- pool5
I0502 12:56:26.279824   719 net.cpp:409] ip1 -> ip1
I0502 12:56:26.282392   719 net.cpp:144] Setting up ip1
I0502 12:56:26.282402   719 net.cpp:151] Top shape: 20 64 (1280)
I0502 12:56:26.282404   719 net.cpp:159] Memory required for data: 11941200
I0502 12:56:26.282410   719 layer_factory.hpp:77] Creating layer ip2
I0502 12:56:26.282416   719 net.cpp:94] Creating Layer ip2
I0502 12:56:26.282424   719 net.cpp:435] ip2 <- ip1
I0502 12:56:26.282429   719 net.cpp:409] ip2 -> ip2
I0502 12:56:26.282657   719 net.cpp:144] Setting up ip2
I0502 12:56:26.282665   719 net.cpp:151] Top shape: 20 64 (1280)
I0502 12:56:26.282668   719 net.cpp:159] Memory required for data: 11946320
I0502 12:56:26.282673   719 layer_factory.hpp:77] Creating layer ip3
I0502 12:56:26.282680   719 net.cpp:94] Creating Layer ip3
I0502 12:56:26.282682   719 net.cpp:435] ip3 <- ip2
I0502 12:56:26.282687   719 net.cpp:409] ip3 -> ip3
I0502 12:56:26.282814   719 net.cpp:144] Setting up ip3
I0502 12:56:26.282819   719 net.cpp:151] Top shape: 20 1 (20)
I0502 12:56:26.282822   719 net.cpp:159] Memory required for data: 11946400
I0502 12:56:26.282827   719 layer_factory.hpp:77] Creating layer loss
I0502 12:56:26.282837   719 net.cpp:94] Creating Layer loss
I0502 12:56:26.282841   719 net.cpp:435] loss <- ip3
I0502 12:56:26.282845   719 net.cpp:435] loss <- label
I0502 12:56:26.282848   719 net.cpp:409] loss -> loss
I0502 12:56:26.282905   719 net.cpp:144] Setting up loss
…
I0502 12:56:26.324472   719 net.cpp:323] The NetState phase (0) differed from the phase (1) specified by a rule in layer intercept
I0502 12:56:26.324487   719 net.cpp:323] The NetState phase (0) differed from the phase (1) specified by a rule in layer accuracy
I0502 12:56:26.324585   719 net.cpp:52] Initializing net from parameters: 
state {
  phase: TRAIN
}
layer {
  name: "parameters"
  type: "HDF5Data"
  top: "data"
  top: "label"
  include {
    phase: TRAIN
  }
  hdf5_data_param {
    source: "/home/purduethu/scratch/radon/d/deng106/CNNStatisticalModel/distributions/input/5_distributions_400_sample_size_train-distributions-path.txt"
    batch_size: 20
  }
}
layer {
  name: "conv1"
  type: "Convolution"
  bottom: "data"
  top: "conv1"
  param {
    lr_mult: 1
  }
  param {
    lr_mult: 2
  }
  convolution_param {
    num_output: 64
    pad: 2
    kernel_size: 5
    stride: 1
    weight_filler {
      type: "gaussian"
      std: 0.0001
    }
    bias_filler {
      type: "constant"
    }
  }
}
layer {
  name: "relu1"
  type: "ReLU"
  bottom: "conv1"
  top: "conv1"
}
layer {
  name: "conv2"
  type: "Convolution"
  bottom: "conv1"
  top: "conv2"
  param {
    lr_mult: 1
  }
  param {
    lr_mult: 2
  }
  convolution_param {
    num_output: 64
    pad: 2
    kernel_size: 5
    stride: 1
    weight_filler {
      type: "gaussian"
      std: 0.01
    }
    bias_filler {
      type: "constant"
    }
  }
}
layer {
  name: "relu2"
  type: "ReLU"
  bottom: "conv2"
  top: "conv2"
}
layer {
  name: "pool2"
  type: "Pooling"
  bottom: "conv2"
  top: "pool2"
  pooling_param {
    pool: MAX
    kernel_size: 3
    stride: 2
  }
}
layer {
  name: "conv3"
  type: "Convolution"
  bottom: "pool2"
  top: "conv3"
  param {
    lr_mult: 1
  }
  param {
    lr_mult: 2
  }
  convolution_param {
    num_output: 64
    pad: 2
    kernel_size: 5
    stride: 1
    weight_filler {
      type: "gaussian"
      std: 0.01
    }
    bias_filler {
      type: "constant"
    }
  }
}
layer {
  name: "relu3"
  type: "ReLU"
  bottom: "conv3"
  top: "conv3"
}
layer {
  name: "conv4"
  type: "Convolution"
  bottom: "conv3"
  top: "conv4"
  param {
    lr_mult: 1
  }
  param {
    lr_mult: 2
  }
  convolution_param {
    num_output: 64
    pad: 2
    kernel_size: 5
    stride: 1
    weight_filler {
      type: "gaussian"
      std: 0.01
    }
    bias_filler {
      type: "constant"
    }
  }
}
layer {
  name: "relu4"
  type: "ReLU"
  bottom: "conv4"
  top: "conv4"
}
layer {
  name: "conv5"
  type: "Convolution"
  bottom: "conv4"
  top: "conv5"
  param {
    lr_mult: 1
  }
  param {
    lr_mult: 2
  }
  convolution_param {
    num_output: 64
    pad: 2
    kernel_size: 5
    stride: 1
    weight_filler {
      type: "gaussian"
      std: 0.01
    }
    bias_filler {
      type: "constant"
    }
  }
}
layer {
  name: "relu5"
  type: "ReLU"
  bottom: "conv5"
  top: "conv5"
}
layer {
  name: "pool5"
  type: "Pooling"
  bottom: "conv5"
  top: "pool5"
  pooling_param {
    pool: AVE
    kernel_size: 3
    stride: 2
  }
}
layer {
  name: "ip1"
  type: "InnerProduct"
  bottom: "pool5"
  top: "ip1"
  param {
    lr_mult: 1
  }
  param {
    lr_mult: 2
  }
  inner_product_param {
    num_output: 64
    weight_filler {
      type: "gaussian"
      std: 0.1
    }
    bias_filler {
      type: "constant"
    }
  }
}
layer {
  name: "ip2"
  type: "InnerProduct"
  bottom: "ip1"
  top: "ip2"
  param {
    lr_mult: 1
  }
  param {
    lr_mult: 2
  }
  inner_product_param {
    num_output: 64
    weight_filler {
      type: "gaussian"
      std: 0.1
    }
    bias_filler {
      type: "constant"
    }
  }
}
layer {
  name: "ip3"
  type: "InnerProduct"
  bottom: "ip2"
  top: "ip3"
  param {
    lr_mult: 1
  }
  param {
    lr_mult: 2
  }
  inner_product_param {
    num_output: 50
    weight_filler {
      type: "gaussian"
      std: 0.1
    }
    bias_filler {
      type: "constant"
    }
  }
}
layer {
  name: "loss"
  type: "SoftmaxWithLoss"
  bottom: "ip3"
  bottom: "label"
  top: "loss"
}
I0502 12:56:26.324640   719 layer_factory.hpp:77] Creating layer parameters
I0502 12:56:26.324650   719 net.cpp:94] Creating Layer parameters
I0502 12:56:26.324652   719 net.cpp:409] parameters -> data
I0502 12:56:26.324659   719 net.cpp:409] parameters -> label
I0502 12:56:26.324666   719 hdf5_data_layer.cpp:79] Loading list of HDF5 filenames from: /home/purduethu/scratch/radon/d/deng106/CNNStatisticalModel/distributions/input/5_distributions_400_sample_size_train-distributions-path.txt
I0502 12:56:26.324681   719 hdf5_data_layer.cpp:93] Number of HDF5 files: 1
I0502 12:56:26.387786   719 hdf5.cpp:35] Datatype class: H5T_INTEGER
I0502 12:56:26.388240   719 net.cpp:144] Setting up parameters
I0502 12:56:26.388254   719 net.cpp:151] Top shape: 20 1 20 20 (8000)
I0502 12:56:26.388259   719 net.cpp:151] Top shape: 20 (20)
I0502 12:56:26.388262   719 net.cpp:159] Memory required for data: 32080
I0502 12:56:26.388268   719 layer_factory.hpp:77] Creating layer conv1
I0502 12:56:26.388284   719 net.cpp:94] Creating Layer conv1
I0502 12:56:26.388288   719 net.cpp:435] conv1 <- data
I0502 12:56:26.388294   719 net.cpp:409] conv1 -> conv1
I0502 12:56:26.391082   719 net.cpp:144] Setting up conv1
I0502 12:56:26.391095   719 net.cpp:151] Top shape: 20 64 20 20 (512000)
I0502 12:56:26.391099   719 net.cpp:159] Memory required for data: 2080080
I0502 12:56:26.391109   719 layer_factory.hpp:77] Creating layer relu1
I0502 12:56:26.391116   719 net.cpp:94] Creating Layer relu1
I0502 12:56:26.391119   719 net.cpp:435] relu1 <- conv1
I0502 12:56:26.391124   719 net.cpp:396] relu1 -> conv1 (in-place)
I0502 12:56:26.391131   719 net.cpp:144] Setting up relu1
I0502 12:56:26.391135   719 net.cpp:151] Top shape: 20 64 20 20 (512000)
I0502 12:56:26.391139   719 net.cpp:159] Memory required for data: 4128080
I0502 12:56:26.391141   719 layer_factory.hpp:77] Creating layer conv2
I0502 12:56:26.391149   719 net.cpp:94] Creating Layer conv2
I0502 12:56:26.391151   719 net.cpp:435] conv2 <- conv1
I0502 12:56:26.391155   719 net.cpp:409] conv2 -> conv2
I0502 12:56:26.401720   719 net.cpp:144] Setting up conv2
I0502 12:56:26.401736   719 net.cpp:151] Top shape: 20 64 20 20 (512000)
I0502 12:56:26.401741   719 net.cpp:159] Memory required for data: 6176080
I0502 12:56:26.401748   719 layer_factory.hpp:77] Creating layer relu2
I0502 12:56:26.401756   719 net.cpp:94] Creating Layer relu2
I0502 12:56:26.401758   719 net.cpp:435] relu2 <- conv2
I0502 12:56:26.401763   719 net.cpp:396] relu2 -> conv2 (in-place)
I0502 12:56:26.401770   719 net.cpp:144] Setting up relu2
I0502 12:56:26.401774   719 net.cpp:151] Top shape: 20 64 20 20 (512000)
I0502 12:56:26.401777   719 net.cpp:159] Memory required for data: 8224080
I0502 12:56:26.401779   719 layer_factory.hpp:77] Creating layer pool2
I0502 12:56:26.401787   719 net.cpp:94] Creating Layer pool2
I0502 12:56:26.401788   719 net.cpp:435] pool2 <- conv2
I0502 12:56:26.401793   719 net.cpp:409] pool2 -> pool2
I0502 12:56:26.401849   719 net.cpp:144] Setting up pool2
I0502 12:56:26.401855   719 net.cpp:151] Top shape: 20 64 10 10 (128000)
I0502 12:56:26.401859   719 net.cpp:159] Memory required for data: 8736080
I0502 12:56:26.401861   719 layer_factory.hpp:77] Creating layer conv3
I0502 12:56:26.401870   719 net.cpp:94] Creating Layer conv3
I0502 12:56:26.401873   719 net.cpp:435] conv3 <- pool2
I0502 12:56:26.401877   719 net.cpp:409] conv3 -> conv3
I0502 12:56:26.407272   719 net.cpp:144] Setting up conv3
I0502 12:56:26.407286   719 net.cpp:151] Top shape: 20 64 10 10 (128000)
I0502 12:56:26.407290   719 net.cpp:159] Memory required for data: 9248080
I0502 12:56:26.407299   719 layer_factory.hpp:77] Creating layer relu3
I0502 12:56:26.407305   719 net.cpp:94] Creating Layer relu3
I0502 12:56:26.407307   719 net.cpp:435] relu3 <- conv3
I0502 12:56:26.407312   719 net.cpp:396] relu3 -> conv3 (in-place)
I0502 12:56:26.407318   719 net.cpp:144] Setting up relu3
I0502 12:56:26.407322   719 net.cpp:151] Top shape: 20 64 10 10 (128000)
I0502 12:56:26.407325   719 net.cpp:159] Memory required for data: 9760080
I0502 12:56:26.407328   719 layer_factory.hpp:77] Creating layer conv4
I0502 12:56:26.407336   719 net.cpp:94] Creating Layer conv4
I0502 12:56:26.407341   719 net.cpp:435] conv4 <- conv3
I0502 12:56:26.407344   719 net.cpp:409] conv4 -> conv4
I0502 12:56:26.412737   719 net.cpp:144] Setting up conv4
I0502 12:56:26.412751   719 net.cpp:151] Top shape: 20 64 10 10 (128000)
I0502 12:56:26.412755   719 net.cpp:159] Memory required for data: 10272080
I0502 12:56:26.412761   719 layer_factory.hpp:77] Creating layer relu4
I0502 12:56:26.412767   719 net.cpp:94] Creating Layer relu4
I0502 12:56:26.412770   719 net.cpp:435] relu4 <- conv4
I0502 12:56:26.412775   719 net.cpp:396] relu4 -> conv4 (in-place)
I0502 12:56:26.412781   719 net.cpp:144] Setting up relu4
I0502 12:56:26.412786   719 net.cpp:151] Top shape: 20 64 10 10 (128000)
I0502 12:56:26.412788   719 net.cpp:159] Memory required for data: 10784080
I0502 12:56:26.412791   719 layer_factory.hpp:77] Creating layer conv5
I0502 12:56:26.412799   719 net.cpp:94] Creating Layer conv5
I0502 12:56:26.412802   719 net.cpp:435] conv5 <- conv4
I0502 12:56:26.412806   719 net.cpp:409] conv5 -> conv5
I0502 12:56:26.418177   719 net.cpp:144] Setting up conv5
I0502 12:56:26.418191   719 net.cpp:151] Top shape: 20 64 10 10 (128000)
I0502 12:56:26.418195   719 net.cpp:159] Memory required for data: 11296080
I0502 12:56:26.418203   719 layer_factory.hpp:77] Creating layer relu5
I0502 12:56:26.418208   719 net.cpp:94] Creating Layer relu5
I0502 12:56:26.418212   719 net.cpp:435] relu5 <- conv5
I0502 12:56:26.418216   719 net.cpp:396] relu5 -> conv5 (in-place)
I0502 12:56:26.418222   719 net.cpp:144] Setting up relu5
I0502 12:56:26.418226   719 net.cpp:151] Top shape: 20 64 10 10 (128000)
I0502 12:56:26.418229   719 net.cpp:159] Memory required for data: 11808080
I0502 12:56:26.418232   719 layer_factory.hpp:77] Creating layer pool5
I0502 12:56:26.418237   719 net.cpp:94] Creating Layer pool5
I0502 12:56:26.418241   719 net.cpp:435] pool5 <- conv5
I0502 12:56:26.418244   719 net.cpp:409] pool5 -> pool5
I0502 12:56:26.418282   719 net.cpp:144] Setting up pool5
I0502 12:56:26.418289   719 net.cpp:151] Top shape: 20 64 5 5 (32000)
I0502 12:56:26.418292   719 net.cpp:159] Memory required for data: 11936080
I0502 12:56:26.418295   719 layer_factory.hpp:77] Creating layer ip1
I0502 12:56:26.418303   719 net.cpp:94] Creating Layer ip1
I0502 12:56:26.418305   719 net.cpp:435] ip1 <- pool5
I0502 12:56:26.418309   719 net.cpp:409] ip1 -> ip1
I0502 12:56:26.420874   719 net.cpp:144] Setting up ip1
I0502 12:56:26.420883   719 net.cpp:151] Top shape: 20 64 (1280)
I0502 12:56:26.420886   719 net.cpp:159] Memory required for data: 11941200
I0502 12:56:26.420892   719 layer_factory.hpp:77] Creating layer ip2
I0502 12:56:26.420898   719 net.cpp:94] Creating Layer ip2
I0502 12:56:26.420902   719 net.cpp:435] ip2 <- ip1
I0502 12:56:26.420907   719 net.cpp:409] ip2 -> ip2
I0502 12:56:26.421144   719 net.cpp:144] Setting up ip2
I0502 12:56:26.421150   719 net.cpp:151] Top shape: 20 64 (1280)
I0502 12:56:26.421154   719 net.cpp:159] Memory required for data: 11946320
I0502 12:56:26.421159   719 layer_factory.hpp:77] Creating layer ip3
I0502 12:56:26.421164   719 net.cpp:94] Creating Layer ip3
I0502 12:56:26.421169   719 net.cpp:435] ip3 <- ip2
I0502 12:56:26.421174   719 net.cpp:409] ip3 -> ip3
I0502 12:56:26.421382   719 net.cpp:144] Setting up ip3
I0502 12:56:26.421393   719 net.cpp:151] Top shape: 20 50 (1000)
I0502 12:56:26.421396   719 net.cpp:159] Memory required for data: 11950320
I0502 12:56:26.421401   719 layer_factory.hpp:77] Creating layer loss
I0502 12:56:26.421409   719 net.cpp:94] Creating Layer loss
I0502 12:56:26.421413   719 net.cpp:435] loss <- ip3
I0502 12:56:26.421416   719 net.cpp:435] loss <- label
I0502 12:56:26.421422   719 net.cpp:409] loss -> loss
I0502 12:56:26.421427   719 layer_factory.hpp:77] Creating layer loss
…
I0502 12:56:26.421954   719 solver.cpp:181] Creating test net (#0) specified by net file: ./protocol/dis_5_400_dimension.protocol_distribution
I0502 12:56:26.421980   719 net.cpp:323] The NetState phase (1) differed from the phase (0) specified by a rule in layer parameters
I0502 12:56:26.422077   719 net.cpp:52] Initializing net from parameters: 
state {
  phase: TEST
}
layer {
  name: "intercept"
  type: "HDF5Data"
  top: "data"
  top: "label"
  include {
    phase: TEST
  }
  hdf5_data_param {
    source: "/home/purduethu/scratch/radon/d/deng106/CNNStatisticalModel/distributions/input/5_distributions_400_sample_size_test-distributions-path.txt"
    batch_size: 20
  }
}
layer {
  name: "conv1"
  type: "Convolution"
  bottom: "data"
  top: "conv1"
  param {
    lr_mult: 1
  }
  param {
    lr_mult: 2
  }
  convolution_param {
    num_output: 64
    pad: 2
    kernel_size: 5
    stride: 1
    weight_filler {
      type: "gaussian"
      std: 0.0001
    }
    bias_filler {
      type: "constant"
    }
  }
}
layer {
  name: "relu1"
  type: "ReLU"
  bottom: "conv1"
  top: "conv1"
}
layer {
  name: "conv2"
  type: "Convolution"
  bottom: "conv1"
  top: "conv2"
  param {
    lr_mult: 1
  }
  param {
    lr_mult: 2
  }
  convolution_param {
    num_output: 64
    pad: 2
    kernel_size: 5
    stride: 1
    weight_filler {
      type: "gaussian"
      std: 0.01
    }
    bias_filler {
      type: "constant"
    }
  }
}
layer {
  name: "relu2"
  type: "ReLU"
  bottom: "conv2"
  top: "conv2"
}
layer {
  name: "pool2"
  type: "Pooling"
  bottom: "conv2"
  top: "pool2"
  pooling_param {
    pool: MAX
    kernel_size: 3
    stride: 2
  }
}
layer {
  name: "conv3"
  type: "Convolution"
  bottom: "pool2"
  top: "conv3"
  param {
    lr_mult: 1
  }
  param {
    lr_mult: 2
  }
  convolution_param {
    num_output: 64
    pad: 2
    kernel_size: 5
    stride: 1
    weight_filler {
      type: "gaussian"
      std: 0.01
    }
    bias_filler {
      type: "constant"
    }
  }
}
layer {
  name: "relu3"
  type: "ReLU"
  bottom: "conv3"
  top: "conv3"
}
layer {
  name: "conv4"
  type: "Convolution"
  bottom: "conv3"
  top: "conv4"
  param {
    lr_mult: 1
  }
  param {
    lr_mult: 2
  }
  convolution_param {
    num_output: 64
    pad: 2
    kernel_size: 5
    stride: 1
    weight_filler {
      type: "gaussian"
      std: 0.01
    }
    bias_filler {
      type: "constant"
    }
  }
}
layer {
  name: "relu4"
  type: "ReLU"
  bottom: "conv4"
  top: "conv4"
}
layer {
  name: "conv5"
  type: "Convolution"
  bottom: "conv4"
  top: "conv5"
  param {
    lr_mult: 1
  }
  param {
    lr_mult: 2
  }
  convolution_param {
    num_output: 64
    pad: 2
    kernel_size: 5
    stride: 1
    weight_filler {
      type: "gaussian"
      std: 0.01
    }
    bias_filler {
      type: "constant"
    }
  }
}
layer {
  name: "relu5"
  type: "ReLU"
  bottom: "conv5"
  top: "conv5"
}
layer {
  name: "pool5"
  type: "Pooling"
  bottom: "conv5"
  top: "pool5"
  pooling_param {
    pool: AVE
    kernel_size: 3
    stride: 2
  }
}
layer {
  name: "ip1"
  type: "InnerProduct"
  bottom: "pool5"
  top: "ip1"
  param {
    lr_mult: 1
  }
  param {
    lr_mult: 2
  }
  inner_product_param {
    num_output: 64
    weight_filler {
      type: "gaussian"
      std: 0.1
    }
    bias_filler {
      type: "constant"
    }
  }
}
layer {
  name: "ip2"
  type: "InnerProduct"
  bottom: "ip1"
  top: "ip2"
  param {
    lr_mult: 1
  }
  param {
    lr_mult: 2
  }
  inner_product_param {
    num_output: 64
    weight_filler {
      type: "gaussian"
      std: 0.1
    }
    bias_filler {
      type: "constant"
    }
  }
}
layer {
  name: "ip3"
  type: "InnerProduct"
  bottom: "ip2"
  top: "ip3"
  param {
    lr_mult: 1
  }
  param {
    lr_mult: 2
  }
  inner_product_param {
    num_output: 50
    weight_filler {
      type: "gaussian"
      std: 0.1
    }
    bias_filler {
      type: "constant"
    }
  }
}
layer {
  name: "accuracy"
  type: "Accuracy"
  bottom: "ip3"
  bottom: "label"
  top: "accuracy"
  include {
    phase: TEST
  }
}
layer {
  name: "loss"
  type: "SoftmaxWithLoss"
  bottom: "ip3"
  bottom: "label"
  top: "loss"
}
I0502 12:56:26.422150   719 layer_factory.hpp:77] Creating layer intercept
I0502 12:56:26.422159   719 net.cpp:94] Creating Layer intercept
I0502 12:56:26.422163   719 net.cpp:409] intercept -> data
I0502 12:56:26.422169   719 net.cpp:409] intercept -> label
I0502 12:56:26.422175   719 hdf5_data_layer.cpp:79] Loading list of HDF5 filenames from: /home/purduethu/scratch/radon/d/deng106/CNNStatisticalModel/distributions/input/5_distributions_400_sample_size_test-distributions-path.txt
I0502 12:56:26.422194   719 hdf5_data_layer.cpp:93] Number of HDF5 files: 1
I0502 12:56:26.439282   719 net.cpp:144] Setting up intercept
I0502 12:56:26.439316   719 net.cpp:151] Top shape: 20 1 20 20 (8000)
I0502 12:56:26.439321   719 net.cpp:151] Top shape: 20 (20)
I0502 12:56:26.439323   719 net.cpp:159] Memory required for data: 32080
I0502 12:56:26.439330   719 layer_factory.hpp:77] Creating layer label_intercept_1_split
I0502 12:56:26.439348   719 net.cpp:94] Creating Layer label_intercept_1_split
I0502 12:56:26.439352   719 net.cpp:435] label_intercept_1_split <- label
I0502 12:56:26.439358   719 net.cpp:409] label_intercept_1_split -> label_intercept_1_split_0
I0502 12:56:26.439368   719 net.cpp:409] label_intercept_1_split -> label_intercept_1_split_1
I0502 12:56:26.439412   719 net.cpp:144] Setting up label_intercept_1_split
I0502 12:56:26.439419   719 net.cpp:151] Top shape: 20 (20)
I0502 12:56:26.439421   719 net.cpp:151] Top shape: 20 (20)
I0502 12:56:26.439424   719 net.cpp:159] Memory required for data: 32240
I0502 12:56:26.439427   719 layer_factory.hpp:77] Creating layer conv1
I0502 12:56:26.439437   719 net.cpp:94] Creating Layer conv1
I0502 12:56:26.439441   719 net.cpp:435] conv1 <- data
I0502 12:56:26.439445   719 net.cpp:409] conv1 -> conv1
I0502 12:56:26.440852   719 net.cpp:144] Setting up conv1
I0502 12:56:26.440872   719 net.cpp:151] Top shape: 20 64 20 20 (512000)
I0502 12:56:26.440877   719 net.cpp:159] Memory required for data: 2080240
I0502 12:56:26.440886   719 layer_factory.hpp:77] Creating layer relu1
I0502 12:56:26.440892   719 net.cpp:94] Creating Layer relu1
I0502 12:56:26.440896   719 net.cpp:435] relu1 <- conv1
I0502 12:56:26.440901   719 net.cpp:396] relu1 -> conv1 (in-place)
I0502 12:56:26.440907   719 net.cpp:144] Setting up relu1
I0502 12:56:26.440912   719 net.cpp:151] Top shape: 20 64 20 20 (512000)
I0502 12:56:26.440914   719 net.cpp:159] Memory required for data: 4128240
I0502 12:56:26.440917   719 layer_factory.hpp:77] Creating layer conv2
I0502 12:56:26.440925   719 net.cpp:94] Creating Layer conv2
I0502 12:56:26.440928   719 net.cpp:435] conv2 <- conv1
I0502 12:56:26.440932   719 net.cpp:409] conv2 -> conv2
I0502 12:56:26.446821   719 net.cpp:144] Setting up conv2
I0502 12:56:26.446836   719 net.cpp:151] Top shape: 20 64 20 20 (512000)
I0502 12:56:26.446841   719 net.cpp:159] Memory required for data: 6176240
I0502 12:56:26.446848   719 layer_factory.hpp:77] Creating layer relu2
I0502 12:56:26.446854   719 net.cpp:94] Creating Layer relu2
I0502 12:56:26.446857   719 net.cpp:435] relu2 <- conv2
I0502 12:56:26.446862   719 net.cpp:396] relu2 -> conv2 (in-place)
I0502 12:56:26.446868   719 net.cpp:144] Setting up relu2
I0502 12:56:26.446872   719 net.cpp:151] Top shape: 20 64 20 20 (512000)
I0502 12:56:26.446876   719 net.cpp:159] Memory required for data: 8224240
I0502 12:56:26.446878   719 layer_factory.hpp:77] Creating layer pool2
I0502 12:56:26.446883   719 net.cpp:94] Creating Layer pool2
I0502 12:56:26.446887   719 net.cpp:435] pool2 <- conv2
I0502 12:56:26.446890   719 net.cpp:409] pool2 -> pool2
I0502 12:56:26.446945   719 net.cpp:144] Setting up pool2
I0502 12:56:26.446952   719 net.cpp:151] Top shape: 20 64 10 10 (128000)
I0502 12:56:26.446955   719 net.cpp:159] Memory required for data: 8736240
I0502 12:56:26.446959   719 layer_factory.hpp:77] Creating layer conv3
I0502 12:56:26.446965   719 net.cpp:94] Creating Layer conv3
I0502 12:56:26.446969   719 net.cpp:435] conv3 <- pool2
I0502 12:56:26.446974   719 net.cpp:409] conv3 -> conv3
I0502 12:56:26.450973   719 net.cpp:144] Setting up conv3
I0502 12:56:26.450986   719 net.cpp:151] Top shape: 20 64 10 10 (128000)
I0502 12:56:26.450990   719 net.cpp:159] Memory required for data: 9248240
I0502 12:56:26.450997   719 layer_factory.hpp:77] Creating layer relu3
I0502 12:56:26.451004   719 net.cpp:94] Creating Layer relu3
I0502 12:56:26.451007   719 net.cpp:435] relu3 <- conv3
I0502 12:56:26.451012   719 net.cpp:396] relu3 -> conv3 (in-place)
I0502 12:56:26.451019   719 net.cpp:144] Setting up relu3
I0502 12:56:26.451022   719 net.cpp:151] Top shape: 20 64 10 10 (128000)
I0502 12:56:26.451025   719 net.cpp:159] Memory required for data: 9760240
I0502 12:56:26.451028   719 layer_factory.hpp:77] Creating layer conv4
I0502 12:56:26.451035   719 net.cpp:94] Creating Layer conv4
I0502 12:56:26.451040   719 net.cpp:435] conv4 <- conv3
I0502 12:56:26.451043   719 net.cpp:409] conv4 -> conv4
I0502 12:56:26.454571   719 net.cpp:144] Setting up conv4
I0502 12:56:26.454583   719 net.cpp:151] Top shape: 20 64 10 10 (128000)
I0502 12:56:26.454587   719 net.cpp:159] Memory required for data: 10272240
I0502 12:56:26.454593   719 layer_factory.hpp:77] Creating layer relu4
I0502 12:56:26.454598   719 net.cpp:94] Creating Layer relu4
I0502 12:56:26.454602   719 net.cpp:435] relu4 <- conv4
I0502 12:56:26.454607   719 net.cpp:396] relu4 -> conv4 (in-place)
I0502 12:56:26.454612   719 net.cpp:144] Setting up relu4
I0502 12:56:26.454617   719 net.cpp:151] Top shape: 20 64 10 10 (128000)
I0502 12:56:26.454619   719 net.cpp:159] Memory required for data: 10784240
I0502 12:56:26.454622   719 layer_factory.hpp:77] Creating layer conv5
I0502 12:56:26.454629   719 net.cpp:94] Creating Layer conv5
I0502 12:56:26.454632   719 net.cpp:435] conv5 <- conv4
I0502 12:56:26.454638   719 net.cpp:409] conv5 -> conv5
I0502 12:56:26.458600   719 net.cpp:144] Setting up conv5
I0502 12:56:26.458617   719 net.cpp:151] Top shape: 20 64 10 10 (128000)
I0502 12:56:26.458622   719 net.cpp:159] Memory required for data: 11296240
I0502 12:56:26.458631   719 layer_factory.hpp:77] Creating layer relu5
I0502 12:56:26.458636   719 net.cpp:94] Creating Layer relu5
I0502 12:56:26.458639   719 net.cpp:435] relu5 <- conv5
I0502 12:56:26.458643   719 net.cpp:396] relu5 -> conv5 (in-place)
I0502 12:56:26.458650   719 net.cpp:144] Setting up relu5
I0502 12:56:26.458654   719 net.cpp:151] Top shape: 20 64 10 10 (128000)
I0502 12:56:26.458657   719 net.cpp:159] Memory required for data: 11808240
I0502 12:56:26.458660   719 layer_factory.hpp:77] Creating layer pool5
I0502 12:56:26.458664   719 net.cpp:94] Creating Layer pool5
I0502 12:56:26.458667   719 net.cpp:435] pool5 <- conv5
I0502 12:56:26.458672   719 net.cpp:409] pool5 -> pool5
I0502 12:56:26.458709   719 net.cpp:144] Setting up pool5
I0502 12:56:26.458716   719 net.cpp:151] Top shape: 20 64 5 5 (32000)
I0502 12:56:26.458719   719 net.cpp:159] Memory required for data: 11936240
I0502 12:56:26.458722   719 layer_factory.hpp:77] Creating layer ip1
I0502 12:56:26.458729   719 net.cpp:94] Creating Layer ip1
I0502 12:56:26.458732   719 net.cpp:435] ip1 <- pool5
I0502 12:56:26.458737   719 net.cpp:409] ip1 -> ip1
I0502 12:56:26.461295   719 net.cpp:144] Setting up ip1
I0502 12:56:26.461305   719 net.cpp:151] Top shape: 20 64 (1280)
I0502 12:56:26.461308   719 net.cpp:159] Memory required for data: 11941360
I0502 12:56:26.461313   719 layer_factory.hpp:77] Creating layer ip2
I0502 12:56:26.461319   719 net.cpp:94] Creating Layer ip2
I0502 12:56:26.461323   719 net.cpp:435] ip2 <- ip1
I0502 12:56:26.461328   719 net.cpp:409] ip2 -> ip2
I0502 12:56:26.461561   719 net.cpp:144] Setting up ip2
I0502 12:56:26.461570   719 net.cpp:151] Top shape: 20 64 (1280)
I0502 12:56:26.461572   719 net.cpp:159] Memory required for data: 11946480
I0502 12:56:26.461577   719 layer_factory.hpp:77] Creating layer ip3
I0502 12:56:26.461583   719 net.cpp:94] Creating Layer ip3
I0502 12:56:26.461586   719 net.cpp:435] ip3 <- ip2
I0502 12:56:26.461591   719 net.cpp:409] ip3 -> ip3
I0502 12:56:26.461794   719 net.cpp:144] Setting up ip3
I0502 12:56:26.461802   719 net.cpp:151] Top shape: 20 50 (1000)
I0502 12:56:26.461804   719 net.cpp:159] Memory required for data: 11950480
I0502 12:56:26.461808   719 layer_factory.hpp:77] Creating layer ip3_ip3_0_split
I0502 12:56:26.461813   719 net.cpp:94] Creating Layer ip3_ip3_0_split
I0502 12:56:26.461817   719 net.cpp:435] ip3_ip3_0_split <- ip3
I0502 12:56:26.461820   719 net.cpp:409] ip3_ip3_0_split -> ip3_ip3_0_split_0
I0502 12:56:26.461827   719 net.cpp:409] ip3_ip3_0_split -> ip3_ip3_0_split_1
I0502 12:56:26.461868   719 net.cpp:144] Setting up ip3_ip3_0_split
I0502 12:56:26.461874   719 net.cpp:151] Top shape: 20 50 (1000)
I0502 12:56:26.461876   719 net.cpp:151] Top shape: 20 50 (1000)
I0502 12:56:26.461879   719 net.cpp:159] Memory required for data: 11958480
I0502 12:56:26.461882   719 layer_factory.hpp:77] Creating layer accuracy
I0502 12:56:26.461889   719 net.cpp:94] Creating Layer accuracy
I0502 12:56:26.461891   719 net.cpp:435] accuracy <- ip3_ip3_0_split_0
I0502 12:56:26.461895   719 net.cpp:435] accuracy <- label_intercept_1_split_0
I0502 12:56:26.461899   719 net.cpp:409] accuracy -> accuracy
…
