…
I0502 17:48:11.077571 11887 net.cpp:323] The NetState phase (0) differed from the phase (1) specified by a rule in layer intercept
I0502 17:48:11.077594 11887 net.cpp:323] The NetState phase (0) differed from the phase (1) specified by a rule in layer accuracy
I0502 17:48:11.077742 11887 net.cpp:52] Initializing net from parameters: 
state {
  phase: TRAIN
}
layer {
  name: "parameters"
  type: "HDF5Data"
  top: "data"
  top: "label"
  include {
    phase: TRAIN
  }
  hdf5_data_param {
    source: "/home/purduethu/scratch/radon/d/deng106/CNNStatisticalModel/distributions/input/20_distributions_400_sample_size_train-distributions-path.txt"
    batch_size: 20
  }
}
layer {
  name: "conv1"
  type: "Convolution"
  bottom: "data"
  top: "conv1"
  param {
    lr_mult: 1
  }
  param {
    lr_mult: 2
  }
  convolution_param {
    num_output: 64
    pad: 2
    kernel_size: 5
    stride: 1
    weight_filler {
      type: "gaussian"
      std: 0.0001
    }
    bias_filler {
      type: "constant"
    }
  }
}
layer {
  name: "relu1"
  type: "ReLU"
  bottom: "conv1"
  top: "conv1"
}
layer {
  name: "conv2"
  type: "Convolution"
  bottom: "conv1"
  top: "conv2"
  param {
    lr_mult: 1
  }
  param {
    lr_mult: 2
  }
  convolution_param {
    num_output: 64
    pad: 2
    kernel_size: 5
    stride: 1
    weight_filler {
      type: "gaussian"
      std: 0.01
    }
    bias_filler {
      type: "constant"
    }
  }
}
layer {
  name: "relu2"
  type: "ReLU"
  bottom: "conv2"
  top: "conv2"
}
layer {
  name: "pool2"
  type: "Pooling"
  bottom: "conv2"
  top: "pool2"
  pooling_param {
    pool: MAX
    kernel_size: 3
    stride: 2
  }
}
layer {
  name: "conv3"
  type: "Convolution"
  bottom: "pool2"
  top: "conv3"
  param {
    lr_mult: 1
  }
  param {
    lr_mult: 2
  }
  convolution_param {
    num_output: 64
    pad: 2
    kernel_size: 5
    stride: 1
    weight_filler {
      type: "gaussian"
      std: 0.01
    }
    bias_filler {
      type: "constant"
    }
  }
}
layer {
  name: "relu3"
  type: "ReLU"
  bottom: "conv3"
  top: "conv3"
}
layer {
  name: "conv4"
  type: "Convolution"
  bottom: "conv3"
  top: "conv4"
  param {
    lr_mult: 1
  }
  param {
    lr_mult: 2
  }
  convolution_param {
    num_output: 64
    pad: 2
    kernel_size: 5
    stride: 1
    weight_filler {
      type: "gaussian"
      std: 0.01
    }
    bias_filler {
      type: "constant"
    }
  }
}
layer {
  name: "relu4"
  type: "ReLU"
  bottom: "conv4"
  top: "conv4"
}
layer {
  name: "conv5"
  type: "Convolution"
  bottom: "conv4"
  top: "conv5"
  param {
    lr_mult: 1
  }
  param {
    lr_mult: 2
  }
  convolution_param {
    num_output: 64
    pad: 2
    kernel_size: 5
    stride: 1
    weight_filler {
      type: "gaussian"
      std: 0.01
    }
    bias_filler {
      type: "constant"
    }
  }
}
layer {
  name: "relu5"
  type: "ReLU"
  bottom: "conv5"
  top: "conv5"
}
layer {
  name: "pool5"
  type: "Pooling"
  bottom: "conv5"
  top: "pool5"
  pooling_param {
    pool: AVE
    kernel_size: 3
    stride: 2
  }
}
layer {
  name: "ip1"
  type: "InnerProduct"
  bottom: "pool5"
  top: "ip1"
  param {
    lr_mult: 1
  }
  param {
    lr_mult: 2
  }
  inner_product_param {
    num_output: 64
    weight_filler {
      type: "gaussian"
      std: 0.1
    }
    bias_filler {
      type: "constant"
    }
  }
}
layer {
  name: "ip2"
  type: "InnerProduct"
  bottom: "ip1"
  top: "ip2"
  param {
    lr_mult: 1
  }
  param {
    lr_mult: 2
  }
  inner_product_param {
    num_output: 64
    weight_filler {
      type: "gaussian"
      std: 0.1
    }
    bias_filler {
      type: "constant"
    }
  }
}
layer {
  name: "ip3"
  type: "InnerProduct"
  bottom: "ip2"
  top: "ip3"
  param {
    lr_mult: 1
  }
  param {
    lr_mult: 2
  }
  inner_product_param {
    num_output: 50
    weight_filler {
      type: "gaussian"
      std: 0.1
    }
    bias_filler {
      type: "constant"
    }
  }
}
layer {
  name: "loss"
  type: "SoftmaxWithLoss"
  bottom: "ip3"
  bottom: "label"
  top: "loss"
}
I0502 17:48:11.077852 11887 layer_factory.hpp:77] Creating layer parameters
I0502 17:48:11.077872 11887 net.cpp:94] Creating Layer parameters
I0502 17:48:11.077880 11887 net.cpp:409] parameters -> data
I0502 17:48:11.077906 11887 net.cpp:409] parameters -> label
I0502 17:48:11.077924 11887 hdf5_data_layer.cpp:79] Loading list of HDF5 filenames from: /home/purduethu/scratch/radon/d/deng106/CNNStatisticalModel/distributions/input/20_distributions_400_sample_size_train-distributions-path.txt
I0502 17:48:11.077953 11887 hdf5_data_layer.cpp:93] Number of HDF5 files: 1
I0502 17:48:11.078636 11887 hdf5.cpp:32] Datatype class: H5T_FLOAT
I0502 17:48:11.428149 11887 hdf5.cpp:35] Datatype class: H5T_INTEGER
I0502 17:48:11.430660 11887 net.cpp:144] Setting up parameters
I0502 17:48:11.430685 11887 net.cpp:151] Top shape: 20 1 20 20 (8000)
I0502 17:48:11.430696 11887 net.cpp:151] Top shape: 20 (20)
I0502 17:48:11.430704 11887 net.cpp:159] Memory required for data: 32080
I0502 17:48:11.430716 11887 layer_factory.hpp:77] Creating layer conv1
I0502 17:48:11.430748 11887 net.cpp:94] Creating Layer conv1
I0502 17:48:11.430759 11887 net.cpp:435] conv1 <- data
I0502 17:48:11.430778 11887 net.cpp:409] conv1 -> conv1
I0502 17:48:11.447173 11887 net.cpp:144] Setting up conv1
I0502 17:48:11.447194 11887 net.cpp:151] Top shape: 20 64 20 20 (512000)
I0502 17:48:11.447201 11887 net.cpp:159] Memory required for data: 2080080
I0502 17:48:11.447218 11887 layer_factory.hpp:77] Creating layer relu1
I0502 17:48:11.447230 11887 net.cpp:94] Creating Layer relu1
I0502 17:48:11.447237 11887 net.cpp:435] relu1 <- conv1
I0502 17:48:11.447245 11887 net.cpp:396] relu1 -> conv1 (in-place)
I0502 17:48:11.447266 11887 net.cpp:144] Setting up relu1
I0502 17:48:11.447275 11887 net.cpp:151] Top shape: 20 64 20 20 (512000)
I0502 17:48:11.447280 11887 net.cpp:159] Memory required for data: 4128080
I0502 17:48:11.447286 11887 layer_factory.hpp:77] Creating layer conv2
I0502 17:48:11.447300 11887 net.cpp:94] Creating Layer conv2
I0502 17:48:11.447306 11887 net.cpp:435] conv2 <- conv1
I0502 17:48:11.447315 11887 net.cpp:409] conv2 -> conv2
I0502 17:48:11.461973 11887 net.cpp:144] Setting up conv2
I0502 17:48:11.461992 11887 net.cpp:151] Top shape: 20 64 20 20 (512000)
I0502 17:48:11.461999 11887 net.cpp:159] Memory required for data: 6176080
I0502 17:48:11.462013 11887 layer_factory.hpp:77] Creating layer relu2
I0502 17:48:11.462023 11887 net.cpp:94] Creating Layer relu2
I0502 17:48:11.462029 11887 net.cpp:435] relu2 <- conv2
I0502 17:48:11.462038 11887 net.cpp:396] relu2 -> conv2 (in-place)
I0502 17:48:11.462051 11887 net.cpp:144] Setting up relu2
I0502 17:48:11.462061 11887 net.cpp:151] Top shape: 20 64 20 20 (512000)
I0502 17:48:11.462069 11887 net.cpp:159] Memory required for data: 8224080
I0502 17:48:11.462074 11887 layer_factory.hpp:77] Creating layer pool2
I0502 17:48:11.462095 11887 net.cpp:94] Creating Layer pool2
I0502 17:48:11.462100 11887 net.cpp:435] pool2 <- conv2
I0502 17:48:11.462108 11887 net.cpp:409] pool2 -> pool2
I0502 17:48:11.462165 11887 net.cpp:144] Setting up pool2
I0502 17:48:11.462177 11887 net.cpp:151] Top shape: 20 64 10 10 (128000)
I0502 17:48:11.462182 11887 net.cpp:159] Memory required for data: 8736080
I0502 17:48:11.462188 11887 layer_factory.hpp:77] Creating layer conv3
I0502 17:48:11.462199 11887 net.cpp:94] Creating Layer conv3
I0502 17:48:11.462206 11887 net.cpp:435] conv3 <- pool2
I0502 17:48:11.462224 11887 net.cpp:409] conv3 -> conv3
I0502 17:48:11.470681 11887 net.cpp:144] Setting up conv3
I0502 17:48:11.470700 11887 net.cpp:151] Top shape: 20 64 10 10 (128000)
I0502 17:48:11.470706 11887 net.cpp:159] Memory required for data: 9248080
I0502 17:48:11.470719 11887 layer_factory.hpp:77] Creating layer relu3
I0502 17:48:11.470729 11887 net.cpp:94] Creating Layer relu3
I0502 17:48:11.470736 11887 net.cpp:435] relu3 <- conv3
I0502 17:48:11.470743 11887 net.cpp:396] relu3 -> conv3 (in-place)
I0502 17:48:11.470754 11887 net.cpp:144] Setting up relu3
I0502 17:48:11.470762 11887 net.cpp:151] Top shape: 20 64 10 10 (128000)
I0502 17:48:11.470769 11887 net.cpp:159] Memory required for data: 9760080
I0502 17:48:11.470775 11887 layer_factory.hpp:77] Creating layer conv4
I0502 17:48:11.470788 11887 net.cpp:94] Creating Layer conv4
I0502 17:48:11.470795 11887 net.cpp:435] conv4 <- conv3
I0502 17:48:11.470803 11887 net.cpp:409] conv4 -> conv4
I0502 17:48:11.478667 11887 net.cpp:144] Setting up conv4
I0502 17:48:11.478685 11887 net.cpp:151] Top shape: 20 64 10 10 (128000)
I0502 17:48:11.478691 11887 net.cpp:159] Memory required for data: 10272080
I0502 17:48:11.478703 11887 layer_factory.hpp:77] Creating layer relu4
I0502 17:48:11.478711 11887 net.cpp:94] Creating Layer relu4
I0502 17:48:11.478718 11887 net.cpp:435] relu4 <- conv4
I0502 17:48:11.478725 11887 net.cpp:396] relu4 -> conv4 (in-place)
I0502 17:48:11.478735 11887 net.cpp:144] Setting up relu4
I0502 17:48:11.478744 11887 net.cpp:151] Top shape: 20 64 10 10 (128000)
I0502 17:48:11.478749 11887 net.cpp:159] Memory required for data: 10784080
I0502 17:48:11.478755 11887 layer_factory.hpp:77] Creating layer conv5
I0502 17:48:11.478767 11887 net.cpp:94] Creating Layer conv5
I0502 17:48:11.478775 11887 net.cpp:435] conv5 <- conv4
I0502 17:48:11.478782 11887 net.cpp:409] conv5 -> conv5
I0502 17:48:11.490319 11887 net.cpp:144] Setting up conv5
I0502 17:48:11.490339 11887 net.cpp:151] Top shape: 20 64 10 10 (128000)
I0502 17:48:11.490345 11887 net.cpp:159] Memory required for data: 11296080
I0502 17:48:11.490358 11887 layer_factory.hpp:77] Creating layer relu5
I0502 17:48:11.490367 11887 net.cpp:94] Creating Layer relu5
I0502 17:48:11.490373 11887 net.cpp:435] relu5 <- conv5
I0502 17:48:11.490381 11887 net.cpp:396] relu5 -> conv5 (in-place)
I0502 17:48:11.490392 11887 net.cpp:144] Setting up relu5
I0502 17:48:11.490401 11887 net.cpp:151] Top shape: 20 64 10 10 (128000)
I0502 17:48:11.490406 11887 net.cpp:159] Memory required for data: 11808080
I0502 17:48:11.490411 11887 layer_factory.hpp:77] Creating layer pool5
I0502 17:48:11.490422 11887 net.cpp:94] Creating Layer pool5
I0502 17:48:11.490428 11887 net.cpp:435] pool5 <- conv5
I0502 17:48:11.490435 11887 net.cpp:409] pool5 -> pool5
I0502 17:48:11.490480 11887 net.cpp:144] Setting up pool5
I0502 17:48:11.490491 11887 net.cpp:151] Top shape: 20 64 5 5 (32000)
I0502 17:48:11.490497 11887 net.cpp:159] Memory required for data: 11936080
I0502 17:48:11.490504 11887 layer_factory.hpp:77] Creating layer ip1
I0502 17:48:11.490516 11887 net.cpp:94] Creating Layer ip1
I0502 17:48:11.490523 11887 net.cpp:435] ip1 <- pool5
I0502 17:48:11.490531 11887 net.cpp:409] ip1 -> ip1
I0502 17:48:11.494048 11887 net.cpp:144] Setting up ip1
I0502 17:48:11.494065 11887 net.cpp:151] Top shape: 20 64 (1280)
I0502 17:48:11.494072 11887 net.cpp:159] Memory required for data: 11941200
I0502 17:48:11.494081 11887 layer_factory.hpp:77] Creating layer ip2
I0502 17:48:11.494096 11887 net.cpp:94] Creating Layer ip2
I0502 17:48:11.494103 11887 net.cpp:435] ip2 <- ip1
I0502 17:48:11.494112 11887 net.cpp:409] ip2 -> ip2
I0502 17:48:11.494350 11887 net.cpp:144] Setting up ip2
I0502 17:48:11.494364 11887 net.cpp:151] Top shape: 20 64 (1280)
I0502 17:48:11.494370 11887 net.cpp:159] Memory required for data: 11946320
I0502 17:48:11.494380 11887 layer_factory.hpp:77] Creating layer ip3
I0502 17:48:11.494390 11887 net.cpp:94] Creating Layer ip3
I0502 17:48:11.494396 11887 net.cpp:435] ip3 <- ip2
I0502 17:48:11.494406 11887 net.cpp:409] ip3 -> ip3
I0502 17:48:11.494623 11887 net.cpp:144] Setting up ip3
I0502 17:48:11.494637 11887 net.cpp:151] Top shape: 20 50 (1000)
I0502 17:48:11.494643 11887 net.cpp:159] Memory required for data: 11950320
I0502 17:48:11.494652 11887 layer_factory.hpp:77] Creating layer loss
I0502 17:48:11.494663 11887 net.cpp:94] Creating Layer loss
I0502 17:48:11.494668 11887 net.cpp:435] loss <- ip3
I0502 17:48:11.494676 11887 net.cpp:435] loss <- label
I0502 17:48:11.494686 11887 net.cpp:409] loss -> loss
I0502 17:48:11.494704 11887 layer_factory.hpp:77] Creating layer loss
…
I0502 17:48:11.495517 11887 solver.cpp:181] Creating test net (#0) specified by net file: ./protocol/dis_20_400_dimension.protocol_distribution
I0502 17:48:11.495559 11887 net.cpp:323] The NetState phase (1) differed from the phase (0) specified by a rule in layer parameters
I0502 17:48:11.495720 11887 net.cpp:52] Initializing net from parameters: 
state {
  phase: TEST
}
layer {
  name: "intercept"
  type: "HDF5Data"
  top: "data"
  top: "label"
  include {
    phase: TEST
  }
  hdf5_data_param {
    source: "/home/purduethu/scratch/radon/d/deng106/CNNStatisticalModel/distributions/input/20_distributions_400_sample_size_test-distributions-path.txt"
    batch_size: 20
  }
}
layer {
  name: "conv1"
  type: "Convolution"
  bottom: "data"
  top: "conv1"
  param {
    lr_mult: 1
  }
  param {
    lr_mult: 2
  }
  convolution_param {
    num_output: 64
    pad: 2
    kernel_size: 5
    stride: 1
    weight_filler {
      type: "gaussian"
      std: 0.0001
    }
    bias_filler {
      type: "constant"
    }
  }
}
layer {
  name: "relu1"
  type: "ReLU"
  bottom: "conv1"
  top: "conv1"
}
layer {
  name: "conv2"
  type: "Convolution"
  bottom: "conv1"
  top: "conv2"
  param {
    lr_mult: 1
  }
  param {
    lr_mult: 2
  }
  convolution_param {
    num_output: 64
    pad: 2
    kernel_size: 5
    stride: 1
    weight_filler {
      type: "gaussian"
      std: 0.01
    }
    bias_filler {
      type: "constant"
    }
  }
}
layer {
  name: "relu2"
  type: "ReLU"
  bottom: "conv2"
  top: "conv2"
}
layer {
  name: "pool2"
  type: "Pooling"
  bottom: "conv2"
  top: "pool2"
  pooling_param {
    pool: MAX
    kernel_size: 3
    stride: 2
  }
}
layer {
  name: "conv3"
  type: "Convolution"
  bottom: "pool2"
  top: "conv3"
  param {
    lr_mult: 1
  }
  param {
    lr_mult: 2
  }
  convolution_param {
    num_output: 64
    pad: 2
    kernel_size: 5
    stride: 1
    weight_filler {
      type: "gaussian"
      std: 0.01
    }
    bias_filler {
      type: "constant"
    }
  }
}
layer {
  name: "relu3"
  type: "ReLU"
  bottom: "conv3"
  top: "conv3"
}
layer {
  name: "conv4"
  type: "Convolution"
  bottom: "conv3"
  top: "conv4"
  param {
    lr_mult: 1
  }
  param {
    lr_mult: 2
  }
  convolution_param {
    num_output: 64
    pad: 2
    kernel_size: 5
    stride: 1
    weight_filler {
      type: "gaussian"
      std: 0.01
    }
    bias_filler {
      type: "constant"
    }
  }
}
layer {
  name: "relu4"
  type: "ReLU"
  bottom: "conv4"
  top: "conv4"
}
layer {
  name: "conv5"
  type: "Convolution"
  bottom: "conv4"
  top: "conv5"
  param {
    lr_mult: 1
  }
  param {
    lr_mult: 2
  }
  convolution_param {
    num_output: 64
    pad: 2
    kernel_size: 5
    stride: 1
    weight_filler {
      type: "gaussian"
      std: 0.01
    }
    bias_filler {
      type: "constant"
    }
  }
}
layer {
  name: "relu5"
  type: "ReLU"
  bottom: "conv5"
  top: "conv5"
}
layer {
  name: "pool5"
  type: "Pooling"
  bottom: "conv5"
  top: "pool5"
  pooling_param {
    pool: AVE
    kernel_size: 3
    stride: 2
  }
}
layer {
  name: "ip1"
  type: "InnerProduct"
  bottom: "pool5"
  top: "ip1"
  param {
    lr_mult: 1
  }
  param {
    lr_mult: 2
  }
  inner_product_param {
    num_output: 64
    weight_filler {
      type: "gaussian"
      std: 0.1
    }
    bias_filler {
      type: "constant"
    }
  }
}
layer {
  name: "ip2"
  type: "InnerProduct"
  bottom: "ip1"
  top: "ip2"
  param {
    lr_mult: 1
  }
  param {
    lr_mult: 2
  }
  inner_product_param {
    num_output: 64
    weight_filler {
      type: "gaussian"
      std: 0.1
    }
    bias_filler {
      type: "constant"
    }
  }
}
layer {
  name: "ip3"
  type: "InnerProduct"
  bottom: "ip2"
  top: "ip3"
  param {
    lr_mult: 1
  }
  param {
    lr_mult: 2
  }
  inner_product_param {
    num_output: 50
    weight_filler {
      type: "gaussian"
      std: 0.1
    }
    bias_filler {
      type: "constant"
    }
  }
}
layer {
  name: "accuracy"
  type: "Accuracy"
  bottom: "ip3"
  bottom: "label"
  top: "accuracy"
  include {
    phase: TEST
  }
}
layer {
  name: "loss"
  type: "SoftmaxWithLoss"
  bottom: "ip3"
  bottom: "label"
  top: "loss"
}
I0502 17:48:11.495833 11887 layer_factory.hpp:77] Creating layer intercept
I0502 17:48:11.495846 11887 net.cpp:94] Creating Layer intercept
I0502 17:48:11.495854 11887 net.cpp:409] intercept -> data
I0502 17:48:11.495865 11887 net.cpp:409] intercept -> label
I0502 17:48:11.495875 11887 hdf5_data_layer.cpp:79] Loading list of HDF5 filenames from: /home/purduethu/scratch/radon/d/deng106/CNNStatisticalModel/distributions/input/20_distributions_400_sample_size_test-distributions-path.txt
I0502 17:48:11.495900 11887 hdf5_data_layer.cpp:93] Number of HDF5 files: 1
I0502 17:48:11.584841 11887 net.cpp:144] Setting up intercept
I0502 17:48:11.584882 11887 net.cpp:151] Top shape: 20 1 20 20 (8000)
I0502 17:48:11.584892 11887 net.cpp:151] Top shape: 20 (20)
I0502 17:48:11.584897 11887 net.cpp:159] Memory required for data: 32080
I0502 17:48:11.584906 11887 layer_factory.hpp:77] Creating layer label_intercept_1_split
I0502 17:48:11.584928 11887 net.cpp:94] Creating Layer label_intercept_1_split
I0502 17:48:11.584936 11887 net.cpp:435] label_intercept_1_split <- label
I0502 17:48:11.584946 11887 net.cpp:409] label_intercept_1_split -> label_intercept_1_split_0
I0502 17:48:11.584959 11887 net.cpp:409] label_intercept_1_split -> label_intercept_1_split_1
I0502 17:48:11.585005 11887 net.cpp:144] Setting up label_intercept_1_split
I0502 17:48:11.585016 11887 net.cpp:151] Top shape: 20 (20)
I0502 17:48:11.585023 11887 net.cpp:151] Top shape: 20 (20)
I0502 17:48:11.585029 11887 net.cpp:159] Memory required for data: 32240
I0502 17:48:11.585036 11887 layer_factory.hpp:77] Creating layer conv1
I0502 17:48:11.585052 11887 net.cpp:94] Creating Layer conv1
I0502 17:48:11.585060 11887 net.cpp:435] conv1 <- data
I0502 17:48:11.585069 11887 net.cpp:409] conv1 -> conv1
I0502 17:48:11.589164 11887 net.cpp:144] Setting up conv1
I0502 17:48:11.589195 11887 net.cpp:151] Top shape: 20 64 20 20 (512000)
I0502 17:48:11.589203 11887 net.cpp:159] Memory required for data: 2080240
I0502 17:48:11.589221 11887 layer_factory.hpp:77] Creating layer relu1
I0502 17:48:11.589231 11887 net.cpp:94] Creating Layer relu1
I0502 17:48:11.589237 11887 net.cpp:435] relu1 <- conv1
I0502 17:48:11.589246 11887 net.cpp:396] relu1 -> conv1 (in-place)
I0502 17:48:11.589257 11887 net.cpp:144] Setting up relu1
I0502 17:48:11.589267 11887 net.cpp:151] Top shape: 20 64 20 20 (512000)
I0502 17:48:11.589272 11887 net.cpp:159] Memory required for data: 4128240
I0502 17:48:11.589278 11887 layer_factory.hpp:77] Creating layer conv2
I0502 17:48:11.589293 11887 net.cpp:94] Creating Layer conv2
I0502 17:48:11.589298 11887 net.cpp:435] conv2 <- conv1
I0502 17:48:11.589308 11887 net.cpp:409] conv2 -> conv2
I0502 17:48:11.596899 11887 net.cpp:144] Setting up conv2
I0502 17:48:11.596920 11887 net.cpp:151] Top shape: 20 64 20 20 (512000)
I0502 17:48:11.596928 11887 net.cpp:159] Memory required for data: 6176240
I0502 17:48:11.596942 11887 layer_factory.hpp:77] Creating layer relu2
I0502 17:48:11.596954 11887 net.cpp:94] Creating Layer relu2
I0502 17:48:11.596962 11887 net.cpp:435] relu2 <- conv2
I0502 17:48:11.596971 11887 net.cpp:396] relu2 -> conv2 (in-place)
I0502 17:48:11.596984 11887 net.cpp:144] Setting up relu2
I0502 17:48:11.596994 11887 net.cpp:151] Top shape: 20 64 20 20 (512000)
I0502 17:48:11.597000 11887 net.cpp:159] Memory required for data: 8224240
I0502 17:48:11.597008 11887 layer_factory.hpp:77] Creating layer pool2
I0502 17:48:11.597018 11887 net.cpp:94] Creating Layer pool2
I0502 17:48:11.597025 11887 net.cpp:435] pool2 <- conv2
I0502 17:48:11.597035 11887 net.cpp:409] pool2 -> pool2
I0502 17:48:11.597084 11887 net.cpp:144] Setting up pool2
I0502 17:48:11.597095 11887 net.cpp:151] Top shape: 20 64 10 10 (128000)
I0502 17:48:11.597102 11887 net.cpp:159] Memory required for data: 8736240
I0502 17:48:11.597110 11887 layer_factory.hpp:77] Creating layer conv3
I0502 17:48:11.597122 11887 net.cpp:94] Creating Layer conv3
I0502 17:48:11.597131 11887 net.cpp:435] conv3 <- pool2
I0502 17:48:11.597141 11887 net.cpp:409] conv3 -> conv3
I0502 17:48:11.603310 11887 net.cpp:144] Setting up conv3
I0502 17:48:11.603329 11887 net.cpp:151] Top shape: 20 64 10 10 (128000)
I0502 17:48:11.603338 11887 net.cpp:159] Memory required for data: 9248240
I0502 17:48:11.603353 11887 layer_factory.hpp:77] Creating layer relu3
I0502 17:48:11.603365 11887 net.cpp:94] Creating Layer relu3
I0502 17:48:11.603371 11887 net.cpp:435] relu3 <- conv3
I0502 17:48:11.603379 11887 net.cpp:396] relu3 -> conv3 (in-place)
I0502 17:48:11.603390 11887 net.cpp:144] Setting up relu3
I0502 17:48:11.603399 11887 net.cpp:151] Top shape: 20 64 10 10 (128000)
I0502 17:48:11.603404 11887 net.cpp:159] Memory required for data: 9760240
I0502 17:48:11.603410 11887 layer_factory.hpp:77] Creating layer conv4
I0502 17:48:11.603422 11887 net.cpp:94] Creating Layer conv4
I0502 17:48:11.603428 11887 net.cpp:435] conv4 <- conv3
I0502 17:48:11.603436 11887 net.cpp:409] conv4 -> conv4
I0502 17:48:11.609787 11887 net.cpp:144] Setting up conv4
I0502 17:48:11.609807 11887 net.cpp:151] Top shape: 20 64 10 10 (128000)
I0502 17:48:11.609812 11887 net.cpp:159] Memory required for data: 10272240
I0502 17:48:11.609822 11887 layer_factory.hpp:77] Creating layer relu4
I0502 17:48:11.609832 11887 net.cpp:94] Creating Layer relu4
I0502 17:48:11.609843 11887 net.cpp:435] relu4 <- conv4
I0502 17:48:11.609853 11887 net.cpp:396] relu4 -> conv4 (in-place)
I0502 17:48:11.609865 11887 net.cpp:144] Setting up relu4
I0502 17:48:11.609875 11887 net.cpp:151] Top shape: 20 64 10 10 (128000)
I0502 17:48:11.609882 11887 net.cpp:159] Memory required for data: 10784240
I0502 17:48:11.609889 11887 layer_factory.hpp:77] Creating layer conv5
I0502 17:48:11.609902 11887 net.cpp:94] Creating Layer conv5
I0502 17:48:11.609911 11887 net.cpp:435] conv5 <- conv4
I0502 17:48:11.609922 11887 net.cpp:409] conv5 -> conv5
I0502 17:48:11.616250 11887 net.cpp:144] Setting up conv5
I0502 17:48:11.616278 11887 net.cpp:151] Top shape: 20 64 10 10 (128000)
I0502 17:48:11.616287 11887 net.cpp:159] Memory required for data: 11296240
I0502 17:48:11.616303 11887 layer_factory.hpp:77] Creating layer relu5
I0502 17:48:11.616315 11887 net.cpp:94] Creating Layer relu5
I0502 17:48:11.616323 11887 net.cpp:435] relu5 <- conv5
I0502 17:48:11.616333 11887 net.cpp:396] relu5 -> conv5 (in-place)
I0502 17:48:11.616344 11887 net.cpp:144] Setting up relu5
I0502 17:48:11.616354 11887 net.cpp:151] Top shape: 20 64 10 10 (128000)
I0502 17:48:11.616363 11887 net.cpp:159] Memory required for data: 11808240
I0502 17:48:11.616369 11887 layer_factory.hpp:77] Creating layer pool5
I0502 17:48:11.616377 11887 net.cpp:94] Creating Layer pool5
I0502 17:48:11.616384 11887 net.cpp:435] pool5 <- conv5
I0502 17:48:11.616391 11887 net.cpp:409] pool5 -> pool5
I0502 17:48:11.616425 11887 net.cpp:144] Setting up pool5
I0502 17:48:11.616436 11887 net.cpp:151] Top shape: 20 64 5 5 (32000)
I0502 17:48:11.616441 11887 net.cpp:159] Memory required for data: 11936240
I0502 17:48:11.616447 11887 layer_factory.hpp:77] Creating layer ip1
I0502 17:48:11.616457 11887 net.cpp:94] Creating Layer ip1
I0502 17:48:11.616464 11887 net.cpp:435] ip1 <- pool5
I0502 17:48:11.616474 11887 net.cpp:409] ip1 -> ip1
I0502 17:48:11.619995 11887 net.cpp:144] Setting up ip1
I0502 17:48:11.620013 11887 net.cpp:151] Top shape: 20 64 (1280)
I0502 17:48:11.620019 11887 net.cpp:159] Memory required for data: 11941360
I0502 17:48:11.620029 11887 layer_factory.hpp:77] Creating layer ip2
I0502 17:48:11.620039 11887 net.cpp:94] Creating Layer ip2
I0502 17:48:11.620045 11887 net.cpp:435] ip2 <- ip1
I0502 17:48:11.620054 11887 net.cpp:409] ip2 -> ip2
I0502 17:48:11.620290 11887 net.cpp:144] Setting up ip2
I0502 17:48:11.620299 11887 net.cpp:151] Top shape: 20 64 (1280)
I0502 17:48:11.620306 11887 net.cpp:159] Memory required for data: 11946480
I0502 17:48:11.620314 11887 layer_factory.hpp:77] Creating layer ip3
I0502 17:48:11.620326 11887 net.cpp:94] Creating Layer ip3
I0502 17:48:11.620333 11887 net.cpp:435] ip3 <- ip2
I0502 17:48:11.620342 11887 net.cpp:409] ip3 -> ip3
I0502 17:48:11.620543 11887 net.cpp:144] Setting up ip3
I0502 17:48:11.620559 11887 net.cpp:151] Top shape: 20 50 (1000)
I0502 17:48:11.620568 11887 net.cpp:159] Memory required for data: 11950480
I0502 17:48:11.620576 11887 layer_factory.hpp:77] Creating layer ip3_ip3_0_split
I0502 17:48:11.620584 11887 net.cpp:94] Creating Layer ip3_ip3_0_split
I0502 17:48:11.620590 11887 net.cpp:435] ip3_ip3_0_split <- ip3
I0502 17:48:11.620599 11887 net.cpp:409] ip3_ip3_0_split -> ip3_ip3_0_split_0
I0502 17:48:11.620607 11887 net.cpp:409] ip3_ip3_0_split -> ip3_ip3_0_split_1
I0502 17:48:11.620645 11887 net.cpp:144] Setting up ip3_ip3_0_split
I0502 17:48:11.620652 11887 net.cpp:151] Top shape: 20 50 (1000)
I0502 17:48:11.620659 11887 net.cpp:151] Top shape: 20 50 (1000)
I0502 17:48:11.620666 11887 net.cpp:159] Memory required for data: 11958480
I0502 17:48:11.620671 11887 layer_factory.hpp:77] Creating layer accuracy
I0502 17:48:11.620679 11887 net.cpp:94] Creating Layer accuracy
I0502 17:48:11.620685 11887 net.cpp:435] accuracy <- ip3_ip3_0_split_0
I0502 17:48:11.620692 11887 net.cpp:435] accuracy <- label_intercept_1_split_0
I0502 17:48:11.620700 11887 net.cpp:409] accuracy -> accuracy
…
