…
I0505 02:40:06.391341  2210 net.cpp:323] The NetState phase (0) differed from the phase (1) specified by a rule in layer intercept
I0505 02:40:06.391356  2210 net.cpp:323] The NetState phase (0) differed from the phase (1) specified by a rule in layer accuracy
I0505 02:40:06.391438  2210 net.cpp:52] Initializing net from parameters: 
state {
  phase: TRAIN
}
layer {
  name: "parameters"
  type: "HDF5Data"
  top: "data"
  top: "label"
  include {
    phase: TRAIN
  }
  hdf5_data_param {
    source: "/home/purduethu/scratch/radon/d/deng106/CNNStatisticalModel/distributions/input/5_distributions_100_sample_size_train-distributions-path.txt"
    batch_size: 20
  }
}
layer {
  name: "conv1"
  type: "Convolution"
  bottom: "data"
  top: "conv1"
  param {
    lr_mult: 1
  }
  param {
    lr_mult: 2
  }
  convolution_param {
    num_output: 64
    pad: 2
    kernel_size: 5
    stride: 1
    weight_filler {
      type: "gaussian"
      std: 0.0001
    }
    bias_filler {
      type: "constant"
    }
  }
}
layer {
  name: "relu1"
  type: "ReLU"
  bottom: "conv1"
  top: "conv1"
}
layer {
  name: "pool1"
  type: "Pooling"
  bottom: "conv1"
  top: "pool1"
  pooling_param {
    pool: MAX
    kernel_size: 3
    stride: 2
  }
}
layer {
  name: "conv2"
  type: "Convolution"
  bottom: "pool1"
  top: "conv2"
  param {
    lr_mult: 1
  }
  param {
    lr_mult: 2
  }
  convolution_param {
    num_output: 128
    pad: 2
    kernel_size: 5
    stride: 1
    weight_filler {
      type: "gaussian"
      std: 0.01
    }
    bias_filler {
      type: "constant"
    }
  }
}
layer {
  name: "relu2"
  type: "ReLU"
  bottom: "conv2"
  top: "conv2"
}
layer {
  name: "conv3"
  type: "Convolution"
  bottom: "conv2"
  top: "conv3"
  param {
    lr_mult: 1
  }
  param {
    lr_mult: 2
  }
  convolution_param {
    num_output: 128
    pad: 2
    kernel_size: 5
    stride: 1
    weight_filler {
      type: "gaussian"
      std: 0.01
    }
    bias_filler {
      type: "constant"
    }
  }
}
layer {
  name: "relu3"
  type: "ReLU"
  bottom: "conv3"
  top: "conv3"
}
layer {
  name: "pool3"
  type: "Pooling"
  bottom: "conv3"
  top: "pool3"
  pooling_param {
    pool: AVE
    kernel_size: 3
    stride: 2
  }
}
layer {
  name: "ip1"
  type: "InnerProduct"
  bottom: "pool3"
  top: "ip1"
  param {
    lr_mult: 1
  }
  param {
    lr_mult: 2
  }
  inner_product_param {
    num_output: 512
    weight_filler {
      type: "gaussian"
      std: 0.1
    }
    bias_filler {
      type: "constant"
    }
  }
}
layer {
  name: "ip2"
  type: "InnerProduct"
  bottom: "ip1"
  top: "ip2"
  param {
    lr_mult: 1
  }
  param {
    lr_mult: 2
  }
  inner_product_param {
    num_output: 256
    weight_filler {
      type: "gaussian"
      std: 0.1
    }
    bias_filler {
      type: "constant"
    }
  }
}
layer {
  name: "ip3"
  type: "InnerProduct"
  bottom: "ip2"
  top: "ip3"
  param {
    lr_mult: 1
  }
  param {
    lr_mult: 2
  }
  inner_product_param {
    num_output: 50
    weight_filler {
      type: "gaussian"
      std: 0.1
    }
    bias_filler {
      type: "constant"
    }
  }
}
layer {
  name: "loss"
  type: "SoftmaxWithLoss"
  bottom: "ip3"
  bottom: "label"
  top: "loss"
}
I0505 02:40:06.391502  2210 layer_factory.hpp:77] Creating layer parameters
I0505 02:40:06.391516  2210 net.cpp:94] Creating Layer parameters
I0505 02:40:06.391522  2210 net.cpp:409] parameters -> data
I0505 02:40:06.391549  2210 net.cpp:409] parameters -> label
I0505 02:40:06.391561  2210 hdf5_data_layer.cpp:79] Loading list of HDF5 filenames from: /home/purduethu/scratch/radon/d/deng106/CNNStatisticalModel/distributions/input/5_distributions_100_sample_size_train-distributions-path.txt
I0505 02:40:06.391582  2210 hdf5_data_layer.cpp:93] Number of HDF5 files: 1
I0505 02:40:06.392164  2210 hdf5.cpp:32] Datatype class: H5T_FLOAT
I0505 02:40:06.408481  2210 hdf5.cpp:35] Datatype class: H5T_INTEGER
I0505 02:40:06.409631  2210 net.cpp:144] Setting up parameters
I0505 02:40:06.409651  2210 net.cpp:151] Top shape: 20 1 10 10 (2000)
I0505 02:40:06.409657  2210 net.cpp:151] Top shape: 20 (20)
I0505 02:40:06.409662  2210 net.cpp:159] Memory required for data: 8080
I0505 02:40:06.409668  2210 layer_factory.hpp:77] Creating layer conv1
I0505 02:40:06.409692  2210 net.cpp:94] Creating Layer conv1
I0505 02:40:06.409698  2210 net.cpp:435] conv1 <- data
I0505 02:40:06.409709  2210 net.cpp:409] conv1 -> conv1
I0505 02:40:06.413502  2210 net.cpp:144] Setting up conv1
I0505 02:40:06.413517  2210 net.cpp:151] Top shape: 20 64 10 10 (128000)
I0505 02:40:06.413522  2210 net.cpp:159] Memory required for data: 520080
I0505 02:40:06.413533  2210 layer_factory.hpp:77] Creating layer relu1
I0505 02:40:06.413542  2210 net.cpp:94] Creating Layer relu1
I0505 02:40:06.413545  2210 net.cpp:435] relu1 <- conv1
I0505 02:40:06.413550  2210 net.cpp:396] relu1 -> conv1 (in-place)
I0505 02:40:06.413568  2210 net.cpp:144] Setting up relu1
I0505 02:40:06.413574  2210 net.cpp:151] Top shape: 20 64 10 10 (128000)
I0505 02:40:06.413578  2210 net.cpp:159] Memory required for data: 1032080
I0505 02:40:06.413581  2210 layer_factory.hpp:77] Creating layer pool1
I0505 02:40:06.413589  2210 net.cpp:94] Creating Layer pool1
I0505 02:40:06.413594  2210 net.cpp:435] pool1 <- conv1
I0505 02:40:06.413597  2210 net.cpp:409] pool1 -> pool1
I0505 02:40:06.413641  2210 net.cpp:144] Setting up pool1
I0505 02:40:06.413650  2210 net.cpp:151] Top shape: 20 64 5 5 (32000)
I0505 02:40:06.413652  2210 net.cpp:159] Memory required for data: 1160080
I0505 02:40:06.413656  2210 layer_factory.hpp:77] Creating layer conv2
I0505 02:40:06.413666  2210 net.cpp:94] Creating Layer conv2
I0505 02:40:06.413669  2210 net.cpp:435] conv2 <- pool1
I0505 02:40:06.413674  2210 net.cpp:409] conv2 -> conv2
I0505 02:40:06.422431  2210 net.cpp:144] Setting up conv2
I0505 02:40:06.422446  2210 net.cpp:151] Top shape: 20 128 5 5 (64000)
I0505 02:40:06.422451  2210 net.cpp:159] Memory required for data: 1416080
I0505 02:40:06.422458  2210 layer_factory.hpp:77] Creating layer relu2
I0505 02:40:06.422464  2210 net.cpp:94] Creating Layer relu2
I0505 02:40:06.422468  2210 net.cpp:435] relu2 <- conv2
I0505 02:40:06.422473  2210 net.cpp:396] relu2 -> conv2 (in-place)
I0505 02:40:06.422480  2210 net.cpp:144] Setting up relu2
I0505 02:40:06.422485  2210 net.cpp:151] Top shape: 20 128 5 5 (64000)
I0505 02:40:06.422488  2210 net.cpp:159] Memory required for data: 1672080
I0505 02:40:06.422492  2210 layer_factory.hpp:77] Creating layer conv3
I0505 02:40:06.422499  2210 net.cpp:94] Creating Layer conv3
I0505 02:40:06.422502  2210 net.cpp:435] conv3 <- conv2
I0505 02:40:06.422508  2210 net.cpp:409] conv3 -> conv3
I0505 02:40:06.437276  2210 net.cpp:144] Setting up conv3
I0505 02:40:06.437291  2210 net.cpp:151] Top shape: 20 128 5 5 (64000)
I0505 02:40:06.437295  2210 net.cpp:159] Memory required for data: 1928080
I0505 02:40:06.437304  2210 layer_factory.hpp:77] Creating layer relu3
I0505 02:40:06.437316  2210 net.cpp:94] Creating Layer relu3
I0505 02:40:06.437321  2210 net.cpp:435] relu3 <- conv3
I0505 02:40:06.437326  2210 net.cpp:396] relu3 -> conv3 (in-place)
I0505 02:40:06.437333  2210 net.cpp:144] Setting up relu3
I0505 02:40:06.437338  2210 net.cpp:151] Top shape: 20 128 5 5 (64000)
I0505 02:40:06.437341  2210 net.cpp:159] Memory required for data: 2184080
I0505 02:40:06.437345  2210 layer_factory.hpp:77] Creating layer pool3
I0505 02:40:06.437350  2210 net.cpp:94] Creating Layer pool3
I0505 02:40:06.437361  2210 net.cpp:435] pool3 <- conv3
I0505 02:40:06.437366  2210 net.cpp:409] pool3 -> pool3
I0505 02:40:06.437399  2210 net.cpp:144] Setting up pool3
I0505 02:40:06.437407  2210 net.cpp:151] Top shape: 20 128 2 2 (10240)
I0505 02:40:06.437410  2210 net.cpp:159] Memory required for data: 2225040
I0505 02:40:06.437414  2210 layer_factory.hpp:77] Creating layer ip1
I0505 02:40:06.437423  2210 net.cpp:94] Creating Layer ip1
I0505 02:40:06.437427  2210 net.cpp:435] ip1 <- pool3
I0505 02:40:06.437433  2210 net.cpp:409] ip1 -> ip1
I0505 02:40:06.444537  2210 net.cpp:144] Setting up ip1
I0505 02:40:06.444555  2210 net.cpp:151] Top shape: 20 512 (10240)
I0505 02:40:06.444567  2210 net.cpp:159] Memory required for data: 2266000
I0505 02:40:06.444573  2210 layer_factory.hpp:77] Creating layer ip2
I0505 02:40:06.444581  2210 net.cpp:94] Creating Layer ip2
I0505 02:40:06.444584  2210 net.cpp:435] ip2 <- ip1
I0505 02:40:06.444589  2210 net.cpp:409] ip2 -> ip2
I0505 02:40:06.448493  2210 net.cpp:144] Setting up ip2
I0505 02:40:06.448506  2210 net.cpp:151] Top shape: 20 256 (5120)
I0505 02:40:06.448510  2210 net.cpp:159] Memory required for data: 2286480
I0505 02:40:06.448518  2210 layer_factory.hpp:77] Creating layer ip3
I0505 02:40:06.448525  2210 net.cpp:94] Creating Layer ip3
I0505 02:40:06.448529  2210 net.cpp:435] ip3 <- ip2
I0505 02:40:06.448534  2210 net.cpp:409] ip3 -> ip3
I0505 02:40:06.449579  2210 net.cpp:144] Setting up ip3
I0505 02:40:06.449592  2210 net.cpp:151] Top shape: 20 50 (1000)
I0505 02:40:06.449596  2210 net.cpp:159] Memory required for data: 2290480
I0505 02:40:06.449602  2210 layer_factory.hpp:77] Creating layer loss
I0505 02:40:06.449607  2210 net.cpp:94] Creating Layer loss
I0505 02:40:06.449611  2210 net.cpp:435] loss <- ip3
I0505 02:40:06.449615  2210 net.cpp:435] loss <- label
I0505 02:40:06.449621  2210 net.cpp:409] loss -> loss
I0505 02:40:06.449631  2210 layer_factory.hpp:77] Creating layer loss
…
I0505 02:40:06.450058  2210 solver.cpp:181] Creating test net (#0) specified by net file: ./protocol/dis_5_100_dimension.protocol_distribution
I0505 02:40:06.450083  2210 net.cpp:323] The NetState phase (1) differed from the phase (0) specified by a rule in layer parameters
I0505 02:40:06.450175  2210 net.cpp:52] Initializing net from parameters: 
state {
  phase: TEST
}
layer {
  name: "intercept"
  type: "HDF5Data"
  top: "data"
  top: "label"
  include {
    phase: TEST
  }
  hdf5_data_param {
    source: "/home/purduethu/scratch/radon/d/deng106/CNNStatisticalModel/distributions/input/5_distributions_100_sample_size_test-distributions-path.txt"
    batch_size: 20
  }
}
layer {
  name: "conv1"
  type: "Convolution"
  bottom: "data"
  top: "conv1"
  param {
    lr_mult: 1
  }
  param {
    lr_mult: 2
  }
  convolution_param {
    num_output: 64
    pad: 2
    kernel_size: 5
    stride: 1
    weight_filler {
      type: "gaussian"
      std: 0.0001
    }
    bias_filler {
      type: "constant"
    }
  }
}
layer {
  name: "relu1"
  type: "ReLU"
  bottom: "conv1"
  top: "conv1"
}
layer {
  name: "pool1"
  type: "Pooling"
  bottom: "conv1"
  top: "pool1"
  pooling_param {
    pool: MAX
    kernel_size: 3
    stride: 2
  }
}
layer {
  name: "conv2"
  type: "Convolution"
  bottom: "pool1"
  top: "conv2"
  param {
    lr_mult: 1
  }
  param {
    lr_mult: 2
  }
  convolution_param {
    num_output: 128
    pad: 2
    kernel_size: 5
    stride: 1
    weight_filler {
      type: "gaussian"
      std: 0.01
    }
    bias_filler {
      type: "constant"
    }
  }
}
layer {
  name: "relu2"
  type: "ReLU"
  bottom: "conv2"
  top: "conv2"
}
layer {
  name: "conv3"
  type: "Convolution"
  bottom: "conv2"
  top: "conv3"
  param {
    lr_mult: 1
  }
  param {
    lr_mult: 2
  }
  convolution_param {
    num_output: 128
    pad: 2
    kernel_size: 5
    stride: 1
    weight_filler {
      type: "gaussian"
      std: 0.01
    }
    bias_filler {
      type: "constant"
    }
  }
}
layer {
  name: "relu3"
  type: "ReLU"
  bottom: "conv3"
  top: "conv3"
}
layer {
  name: "pool3"
  type: "Pooling"
  bottom: "conv3"
  top: "pool3"
  pooling_param {
    pool: AVE
    kernel_size: 3
    stride: 2
  }
}
layer {
  name: "ip1"
  type: "InnerProduct"
  bottom: "pool3"
  top: "ip1"
  param {
    lr_mult: 1
  }
  param {
    lr_mult: 2
  }
  inner_product_param {
    num_output: 512
    weight_filler {
      type: "gaussian"
      std: 0.1
    }
    bias_filler {
      type: "constant"
    }
  }
}
layer {
  name: "ip2"
  type: "InnerProduct"
  bottom: "ip1"
  top: "ip2"
  param {
    lr_mult: 1
  }
  param {
    lr_mult: 2
  }
  inner_product_param {
    num_output: 256
    weight_filler {
      type: "gaussian"
      std: 0.1
    }
    bias_filler {
      type: "constant"
    }
  }
}
layer {
  name: "ip3"
  type: "InnerProduct"
  bottom: "ip2"
  top: "ip3"
  param {
    lr_mult: 1
  }
  param {
    lr_mult: 2
  }
  inner_product_param {
    num_output: 50
    weight_filler {
      type: "gaussian"
      std: 0.1
    }
    bias_filler {
      type: "constant"
    }
  }
}
layer {
  name: "accuracy"
  type: "Accuracy"
  bottom: "ip3"
  bottom: "label"
  top: "accuracy"
  include {
    phase: TEST
  }
}
layer {
  name: "loss"
  type: "SoftmaxWithLoss"
  bottom: "ip3"
  bottom: "label"
  top: "loss"
}
I0505 02:40:06.450239  2210 layer_factory.hpp:77] Creating layer intercept
I0505 02:40:06.450248  2210 net.cpp:94] Creating Layer intercept
I0505 02:40:06.450253  2210 net.cpp:409] intercept -> data
I0505 02:40:06.450259  2210 net.cpp:409] intercept -> label
I0505 02:40:06.450265  2210 hdf5_data_layer.cpp:79] Loading list of HDF5 filenames from: /home/purduethu/scratch/radon/d/deng106/CNNStatisticalModel/distributions/input/5_distributions_100_sample_size_test-distributions-path.txt
I0505 02:40:06.450284  2210 hdf5_data_layer.cpp:93] Number of HDF5 files: 1
I0505 02:40:06.454458  2210 net.cpp:144] Setting up intercept
I0505 02:40:06.454483  2210 net.cpp:151] Top shape: 20 1 10 10 (2000)
I0505 02:40:06.454489  2210 net.cpp:151] Top shape: 20 (20)
I0505 02:40:06.454493  2210 net.cpp:159] Memory required for data: 8080
I0505 02:40:06.454497  2210 layer_factory.hpp:77] Creating layer label_intercept_1_split
I0505 02:40:06.454512  2210 net.cpp:94] Creating Layer label_intercept_1_split
I0505 02:40:06.454524  2210 net.cpp:435] label_intercept_1_split <- label
I0505 02:40:06.454530  2210 net.cpp:409] label_intercept_1_split -> label_intercept_1_split_0
I0505 02:40:06.454538  2210 net.cpp:409] label_intercept_1_split -> label_intercept_1_split_1
I0505 02:40:06.454565  2210 net.cpp:144] Setting up label_intercept_1_split
I0505 02:40:06.454571  2210 net.cpp:151] Top shape: 20 (20)
I0505 02:40:06.454576  2210 net.cpp:151] Top shape: 20 (20)
I0505 02:40:06.454578  2210 net.cpp:159] Memory required for data: 8240
I0505 02:40:06.454589  2210 layer_factory.hpp:77] Creating layer conv1
I0505 02:40:06.454598  2210 net.cpp:94] Creating Layer conv1
I0505 02:40:06.454602  2210 net.cpp:435] conv1 <- data
I0505 02:40:06.454607  2210 net.cpp:409] conv1 -> conv1
I0505 02:40:06.455286  2210 net.cpp:144] Setting up conv1
I0505 02:40:06.455298  2210 net.cpp:151] Top shape: 20 64 10 10 (128000)
I0505 02:40:06.455303  2210 net.cpp:159] Memory required for data: 520240
I0505 02:40:06.455312  2210 layer_factory.hpp:77] Creating layer relu1
I0505 02:40:06.455318  2210 net.cpp:94] Creating Layer relu1
I0505 02:40:06.455322  2210 net.cpp:435] relu1 <- conv1
I0505 02:40:06.455327  2210 net.cpp:396] relu1 -> conv1 (in-place)
I0505 02:40:06.455333  2210 net.cpp:144] Setting up relu1
I0505 02:40:06.455338  2210 net.cpp:151] Top shape: 20 64 10 10 (128000)
I0505 02:40:06.455341  2210 net.cpp:159] Memory required for data: 1032240
I0505 02:40:06.455344  2210 layer_factory.hpp:77] Creating layer pool1
I0505 02:40:06.455351  2210 net.cpp:94] Creating Layer pool1
I0505 02:40:06.455354  2210 net.cpp:435] pool1 <- conv1
I0505 02:40:06.455359  2210 net.cpp:409] pool1 -> pool1
I0505 02:40:06.455395  2210 net.cpp:144] Setting up pool1
I0505 02:40:06.455404  2210 net.cpp:151] Top shape: 20 64 5 5 (32000)
I0505 02:40:06.455406  2210 net.cpp:159] Memory required for data: 1160240
I0505 02:40:06.455410  2210 layer_factory.hpp:77] Creating layer conv2
I0505 02:40:06.455416  2210 net.cpp:94] Creating Layer conv2
I0505 02:40:06.455420  2210 net.cpp:435] conv2 <- pool1
I0505 02:40:06.455425  2210 net.cpp:409] conv2 -> conv2
I0505 02:40:06.461953  2210 net.cpp:144] Setting up conv2
I0505 02:40:06.461968  2210 net.cpp:151] Top shape: 20 128 5 5 (64000)
I0505 02:40:06.461972  2210 net.cpp:159] Memory required for data: 1416240
I0505 02:40:06.461980  2210 layer_factory.hpp:77] Creating layer relu2
I0505 02:40:06.461987  2210 net.cpp:94] Creating Layer relu2
I0505 02:40:06.461990  2210 net.cpp:435] relu2 <- conv2
I0505 02:40:06.461994  2210 net.cpp:396] relu2 -> conv2 (in-place)
I0505 02:40:06.462002  2210 net.cpp:144] Setting up relu2
I0505 02:40:06.462005  2210 net.cpp:151] Top shape: 20 128 5 5 (64000)
I0505 02:40:06.462009  2210 net.cpp:159] Memory required for data: 1672240
I0505 02:40:06.462013  2210 layer_factory.hpp:77] Creating layer conv3
I0505 02:40:06.462019  2210 net.cpp:94] Creating Layer conv3
I0505 02:40:06.462023  2210 net.cpp:435] conv3 <- conv2
I0505 02:40:06.462028  2210 net.cpp:409] conv3 -> conv3
I0505 02:40:06.474548  2210 net.cpp:144] Setting up conv3
I0505 02:40:06.474563  2210 net.cpp:151] Top shape: 20 128 5 5 (64000)
I0505 02:40:06.474567  2210 net.cpp:159] Memory required for data: 1928240
I0505 02:40:06.474575  2210 layer_factory.hpp:77] Creating layer relu3
I0505 02:40:06.474582  2210 net.cpp:94] Creating Layer relu3
I0505 02:40:06.474586  2210 net.cpp:435] relu3 <- conv3
I0505 02:40:06.474591  2210 net.cpp:396] relu3 -> conv3 (in-place)
I0505 02:40:06.474597  2210 net.cpp:144] Setting up relu3
I0505 02:40:06.474602  2210 net.cpp:151] Top shape: 20 128 5 5 (64000)
I0505 02:40:06.474606  2210 net.cpp:159] Memory required for data: 2184240
I0505 02:40:06.474608  2210 layer_factory.hpp:77] Creating layer pool3
I0505 02:40:06.474613  2210 net.cpp:94] Creating Layer pool3
I0505 02:40:06.474617  2210 net.cpp:435] pool3 <- conv3
I0505 02:40:06.474622  2210 net.cpp:409] pool3 -> pool3
I0505 02:40:06.474647  2210 net.cpp:144] Setting up pool3
I0505 02:40:06.474653  2210 net.cpp:151] Top shape: 20 128 2 2 (10240)
I0505 02:40:06.474660  2210 net.cpp:159] Memory required for data: 2225200
I0505 02:40:06.474664  2210 layer_factory.hpp:77] Creating layer ip1
I0505 02:40:06.474671  2210 net.cpp:94] Creating Layer ip1
I0505 02:40:06.474674  2210 net.cpp:435] ip1 <- pool3
I0505 02:40:06.474679  2210 net.cpp:409] ip1 -> ip1
I0505 02:40:06.481804  2210 net.cpp:144] Setting up ip1
I0505 02:40:06.481818  2210 net.cpp:151] Top shape: 20 512 (10240)
I0505 02:40:06.481822  2210 net.cpp:159] Memory required for data: 2266160
I0505 02:40:06.481827  2210 layer_factory.hpp:77] Creating layer ip2
I0505 02:40:06.481842  2210 net.cpp:94] Creating Layer ip2
I0505 02:40:06.481845  2210 net.cpp:435] ip2 <- ip1
I0505 02:40:06.481850  2210 net.cpp:409] ip2 -> ip2
I0505 02:40:06.485097  2210 net.cpp:144] Setting up ip2
I0505 02:40:06.485106  2210 net.cpp:151] Top shape: 20 256 (5120)
I0505 02:40:06.485110  2210 net.cpp:159] Memory required for data: 2286640
I0505 02:40:06.485117  2210 layer_factory.hpp:77] Creating layer ip3
I0505 02:40:06.485123  2210 net.cpp:94] Creating Layer ip3
I0505 02:40:06.485126  2210 net.cpp:435] ip3 <- ip2
I0505 02:40:06.485131  2210 net.cpp:409] ip3 -> ip3
I0505 02:40:06.485519  2210 net.cpp:144] Setting up ip3
I0505 02:40:06.485527  2210 net.cpp:151] Top shape: 20 50 (1000)
I0505 02:40:06.485529  2210 net.cpp:159] Memory required for data: 2290640
I0505 02:40:06.485534  2210 layer_factory.hpp:77] Creating layer ip3_ip3_0_split
I0505 02:40:06.485539  2210 net.cpp:94] Creating Layer ip3_ip3_0_split
I0505 02:40:06.485543  2210 net.cpp:435] ip3_ip3_0_split <- ip3
I0505 02:40:06.485548  2210 net.cpp:409] ip3_ip3_0_split -> ip3_ip3_0_split_0
I0505 02:40:06.485553  2210 net.cpp:409] ip3_ip3_0_split -> ip3_ip3_0_split_1
I0505 02:40:06.485576  2210 net.cpp:144] Setting up ip3_ip3_0_split
I0505 02:40:06.485582  2210 net.cpp:151] Top shape: 20 50 (1000)
I0505 02:40:06.485586  2210 net.cpp:151] Top shape: 20 50 (1000)
I0505 02:40:06.485589  2210 net.cpp:159] Memory required for data: 2298640
I0505 02:40:06.485592  2210 layer_factory.hpp:77] Creating layer accuracy
I0505 02:40:06.485599  2210 net.cpp:94] Creating Layer accuracy
I0505 02:40:06.485601  2210 net.cpp:435] accuracy <- ip3_ip3_0_split_0
I0505 02:40:06.485605  2210 net.cpp:435] accuracy <- label_intercept_1_split_0
I0505 02:40:06.485610  2210 net.cpp:409] accuracy -> accuracy
…
