…
I0505 17:52:03.250708  8433 net.cpp:323] The NetState phase (0) differed from the phase (1) specified by a rule in layer intercept
I0505 17:52:03.250723  8433 net.cpp:323] The NetState phase (0) differed from the phase (1) specified by a rule in layer loss
I0505 17:52:03.250793  8433 net.cpp:52] Initializing net from parameters: 
state {
  phase: TRAIN
}
layer {
  name: "parameters"
  type: "HDF5Data"
  top: "data"
  top: "label"
  include {
    phase: TRAIN
  }
  hdf5_data_param {
    source: "/home/purduethu/scratch/radon/d/deng106/CNNStatisticalModel/distributions/input/20_distributions_400_sample_size_train-parameters-path.txt"
    batch_size: 20
  }
}
layer {
  name: "conv1"
  type: "Convolution"
  bottom: "data"
  top: "conv1"
  param {
    lr_mult: 1
  }
  param {
    lr_mult: 2
  }
  convolution_param {
    num_output: 64
    pad: 2
    kernel_size: 5
    stride: 1
    weight_filler {
      type: "gaussian"
      std: 0.0001
    }
    bias_filler {
      type: "constant"
    }
  }
}
layer {
  name: "relu1"
  type: "ReLU"
  bottom: "conv1"
  top: "conv1"
}
layer {
  name: "pool1"
  type: "Pooling"
  bottom: "conv1"
  top: "pool1"
  pooling_param {
    pool: MAX
    kernel_size: 3
    stride: 2
  }
}
layer {
  name: "conv2"
  type: "Convolution"
  bottom: "pool1"
  top: "conv2"
  param {
    lr_mult: 1
  }
  param {
    lr_mult: 2
  }
  convolution_param {
    num_output: 128
    pad: 2
    kernel_size: 5
    stride: 1
    weight_filler {
      type: "gaussian"
      std: 0.01
    }
    bias_filler {
      type: "constant"
    }
  }
}
layer {
  name: "relu2"
  type: "ReLU"
  bottom: "conv2"
  top: "conv2"
}
layer {
  name: "conv3"
  type: "Convolution"
  bottom: "conv2"
  top: "conv3"
  param {
    lr_mult: 1
  }
  param {
    lr_mult: 2
  }
  convolution_param {
    num_output: 128
    pad: 2
    kernel_size: 5
    stride: 1
    weight_filler {
      type: "gaussian"
      std: 0.01
    }
    bias_filler {
      type: "constant"
    }
  }
}
layer {
  name: "relu3"
  type: "ReLU"
  bottom: "conv3"
  top: "conv3"
}
layer {
  name: "pool3"
  type: "Pooling"
  bottom: "conv3"
  top: "pool3"
  pooling_param {
    pool: AVE
    kernel_size: 3
    stride: 2
  }
}
layer {
  name: "ip1"
  type: "InnerProduct"
  bottom: "pool3"
  top: "ip1"
  param {
    lr_mult: 1
  }
  param {
    lr_mult: 2
  }
  inner_product_param {
    num_output: 512
    weight_filler {
      type: "gaussian"
      std: 0.1
    }
    bias_filler {
      type: "constant"
    }
  }
}
layer {
  name: "ip2"
  type: "InnerProduct"
  bottom: "ip1"
  top: "ip2"
  param {
    lr_mult: 1
  }
  param {
    lr_mult: 2
  }
  inner_product_param {
    num_output: 256
    weight_filler {
      type: "gaussian"
      std: 0.1
    }
    bias_filler {
      type: "constant"
    }
  }
}
layer {
  name: "ip3"
  type: "InnerProduct"
  bottom: "ip2"
  top: "ip3"
  param {
    lr_mult: 1
  }
  param {
    lr_mult: 2
  }
  inner_product_param {
    num_output: 1
    weight_filler {
      type: "gaussian"
      std: 0.1
    }
    bias_filler {
      type: "constant"
    }
  }
}
layer {
  name: "loss"
  type: "HuberLoss"
  bottom: "ip3"
  bottom: "label"
  top: "loss"
  include {
    phase: TRAIN
  }
}
I0505 17:52:03.250843  8433 layer_factory.hpp:77] Creating layer parameters
I0505 17:52:03.250855  8433 net.cpp:94] Creating Layer parameters
I0505 17:52:03.250860  8433 net.cpp:409] parameters -> data
I0505 17:52:03.250870  8433 net.cpp:409] parameters -> label
I0505 17:52:03.250880  8433 hdf5_data_layer.cpp:79] Loading list of HDF5 filenames from: /home/purduethu/scratch/radon/d/deng106/CNNStatisticalModel/distributions/input/20_distributions_400_sample_size_train-parameters-path.txt
I0505 17:52:03.250895  8433 hdf5_data_layer.cpp:93] Number of HDF5 files: 1
I0505 17:52:03.251461  8433 hdf5.cpp:32] Datatype class: H5T_FLOAT
I0505 17:52:03.514870  8433 net.cpp:144] Setting up parameters
I0505 17:52:03.514902  8433 net.cpp:151] Top shape: 20 1 20 20 (8000)
I0505 17:52:03.514907  8433 net.cpp:151] Top shape: 20 (20)
I0505 17:52:03.514911  8433 net.cpp:159] Memory required for data: 32080
I0505 17:52:03.514917  8433 layer_factory.hpp:77] Creating layer conv1
I0505 17:52:03.514933  8433 net.cpp:94] Creating Layer conv1
I0505 17:52:03.514938  8433 net.cpp:435] conv1 <- data
I0505 17:52:03.514945  8433 net.cpp:409] conv1 -> conv1
I0505 17:52:03.520316  8433 net.cpp:144] Setting up conv1
I0505 17:52:03.520339  8433 net.cpp:151] Top shape: 20 64 20 20 (512000)
I0505 17:52:03.520342  8433 net.cpp:159] Memory required for data: 2080080
I0505 17:52:03.520354  8433 layer_factory.hpp:77] Creating layer relu1
I0505 17:52:03.520364  8433 net.cpp:94] Creating Layer relu1
I0505 17:52:03.520367  8433 net.cpp:435] relu1 <- conv1
I0505 17:52:03.520372  8433 net.cpp:396] relu1 -> conv1 (in-place)
I0505 17:52:03.520385  8433 net.cpp:144] Setting up relu1
I0505 17:52:03.520390  8433 net.cpp:151] Top shape: 20 64 20 20 (512000)
I0505 17:52:03.520392  8433 net.cpp:159] Memory required for data: 4128080
I0505 17:52:03.520395  8433 layer_factory.hpp:77] Creating layer pool1
I0505 17:52:03.520401  8433 net.cpp:94] Creating Layer pool1
I0505 17:52:03.520404  8433 net.cpp:435] pool1 <- conv1
I0505 17:52:03.520409  8433 net.cpp:409] pool1 -> pool1
I0505 17:52:03.520457  8433 net.cpp:144] Setting up pool1
I0505 17:52:03.520465  8433 net.cpp:151] Top shape: 20 64 10 10 (128000)
I0505 17:52:03.520468  8433 net.cpp:159] Memory required for data: 4640080
I0505 17:52:03.520472  8433 layer_factory.hpp:77] Creating layer conv2
I0505 17:52:03.520481  8433 net.cpp:94] Creating Layer conv2
I0505 17:52:03.520484  8433 net.cpp:435] conv2 <- pool1
I0505 17:52:03.520489  8433 net.cpp:409] conv2 -> conv2
I0505 17:52:03.530251  8433 net.cpp:144] Setting up conv2
I0505 17:52:03.530267  8433 net.cpp:151] Top shape: 20 128 10 10 (256000)
I0505 17:52:03.530272  8433 net.cpp:159] Memory required for data: 5664080
I0505 17:52:03.530280  8433 layer_factory.hpp:77] Creating layer relu2
I0505 17:52:03.530287  8433 net.cpp:94] Creating Layer relu2
I0505 17:52:03.530289  8433 net.cpp:435] relu2 <- conv2
I0505 17:52:03.530294  8433 net.cpp:396] relu2 -> conv2 (in-place)
I0505 17:52:03.530302  8433 net.cpp:144] Setting up relu2
I0505 17:52:03.530305  8433 net.cpp:151] Top shape: 20 128 10 10 (256000)
I0505 17:52:03.530308  8433 net.cpp:159] Memory required for data: 6688080
I0505 17:52:03.530311  8433 layer_factory.hpp:77] Creating layer conv3
I0505 17:52:03.530319  8433 net.cpp:94] Creating Layer conv3
I0505 17:52:03.530323  8433 net.cpp:435] conv3 <- conv2
I0505 17:52:03.530328  8433 net.cpp:409] conv3 -> conv3
I0505 17:52:03.547776  8433 net.cpp:144] Setting up conv3
I0505 17:52:03.547804  8433 net.cpp:151] Top shape: 20 128 10 10 (256000)
I0505 17:52:03.547811  8433 net.cpp:159] Memory required for data: 7712080
I0505 17:52:03.547827  8433 layer_factory.hpp:77] Creating layer relu3
I0505 17:52:03.547853  8433 net.cpp:94] Creating Layer relu3
I0505 17:52:03.547857  8433 net.cpp:435] relu3 <- conv3
I0505 17:52:03.547863  8433 net.cpp:396] relu3 -> conv3 (in-place)
I0505 17:52:03.547869  8433 net.cpp:144] Setting up relu3
I0505 17:52:03.547874  8433 net.cpp:151] Top shape: 20 128 10 10 (256000)
I0505 17:52:03.547878  8433 net.cpp:159] Memory required for data: 8736080
I0505 17:52:03.547880  8433 layer_factory.hpp:77] Creating layer pool3
I0505 17:52:03.547886  8433 net.cpp:94] Creating Layer pool3
I0505 17:52:03.547889  8433 net.cpp:435] pool3 <- conv3
I0505 17:52:03.547894  8433 net.cpp:409] pool3 -> pool3
I0505 17:52:03.547933  8433 net.cpp:144] Setting up pool3
I0505 17:52:03.547941  8433 net.cpp:151] Top shape: 20 128 5 5 (64000)
I0505 17:52:03.547945  8433 net.cpp:159] Memory required for data: 8992080
I0505 17:52:03.547947  8433 layer_factory.hpp:77] Creating layer ip1
I0505 17:52:03.547955  8433 net.cpp:94] Creating Layer ip1
I0505 17:52:03.547958  8433 net.cpp:435] ip1 <- pool3
I0505 17:52:03.547962  8433 net.cpp:409] ip1 -> ip1
I0505 17:52:03.587822  8433 net.cpp:144] Setting up ip1
I0505 17:52:03.587847  8433 net.cpp:151] Top shape: 20 512 (10240)
I0505 17:52:03.587852  8433 net.cpp:159] Memory required for data: 9033040
I0505 17:52:03.587858  8433 layer_factory.hpp:77] Creating layer ip2
I0505 17:52:03.587867  8433 net.cpp:94] Creating Layer ip2
I0505 17:52:03.587872  8433 net.cpp:435] ip2 <- ip1
I0505 17:52:03.587877  8433 net.cpp:409] ip2 -> ip2
I0505 17:52:03.591017  8433 net.cpp:144] Setting up ip2
I0505 17:52:03.591029  8433 net.cpp:151] Top shape: 20 256 (5120)
I0505 17:52:03.591032  8433 net.cpp:159] Memory required for data: 9053520
I0505 17:52:03.591040  8433 layer_factory.hpp:77] Creating layer ip3
I0505 17:52:03.591047  8433 net.cpp:94] Creating Layer ip3
I0505 17:52:03.591049  8433 net.cpp:435] ip3 <- ip2
I0505 17:52:03.591054  8433 net.cpp:409] ip3 -> ip3
I0505 17:52:03.591152  8433 net.cpp:144] Setting up ip3
I0505 17:52:03.591159  8433 net.cpp:151] Top shape: 20 1 (20)
I0505 17:52:03.591162  8433 net.cpp:159] Memory required for data: 9053600
I0505 17:52:03.591167  8433 layer_factory.hpp:77] Creating layer loss
I0505 17:52:03.591178  8433 net.cpp:94] Creating Layer loss
I0505 17:52:03.591182  8433 net.cpp:435] loss <- ip3
I0505 17:52:03.591186  8433 net.cpp:435] loss <- label
I0505 17:52:03.591189  8433 net.cpp:409] loss -> loss
I0505 17:52:03.591238  8433 net.cpp:144] Setting up loss
…
I0505 17:52:03.725599  8433 net.cpp:323] The NetState phase (0) differed from the phase (1) specified by a rule in layer intercept
I0505 17:52:03.725611  8433 net.cpp:323] The NetState phase (0) differed from the phase (1) specified by a rule in layer accuracy
I0505 17:52:03.725685  8433 net.cpp:52] Initializing net from parameters: 
state {
  phase: TRAIN
}
layer {
  name: "parameters"
  type: "HDF5Data"
  top: "data"
  top: "label"
  include {
    phase: TRAIN
  }
  hdf5_data_param {
    source: "/home/purduethu/scratch/radon/d/deng106/CNNStatisticalModel/distributions/input/20_distributions_400_sample_size_train-distributions-path.txt"
    batch_size: 20
  }
}
layer {
  name: "conv1"
  type: "Convolution"
  bottom: "data"
  top: "conv1"
  param {
    lr_mult: 1
  }
  param {
    lr_mult: 2
  }
  convolution_param {
    num_output: 64
    pad: 2
    kernel_size: 5
    stride: 1
    weight_filler {
      type: "gaussian"
      std: 0.0001
    }
    bias_filler {
      type: "constant"
    }
  }
}
layer {
  name: "relu1"
  type: "ReLU"
  bottom: "conv1"
  top: "conv1"
}
layer {
  name: "pool1"
  type: "Pooling"
  bottom: "conv1"
  top: "pool1"
  pooling_param {
    pool: MAX
    kernel_size: 3
    stride: 2
  }
}
layer {
  name: "conv2"
  type: "Convolution"
  bottom: "pool1"
  top: "conv2"
  param {
    lr_mult: 1
  }
  param {
    lr_mult: 2
  }
  convolution_param {
    num_output: 128
    pad: 2
    kernel_size: 5
    stride: 1
    weight_filler {
      type: "gaussian"
      std: 0.01
    }
    bias_filler {
      type: "constant"
    }
  }
}
layer {
  name: "relu2"
  type: "ReLU"
  bottom: "conv2"
  top: "conv2"
}
layer {
  name: "conv3"
  type: "Convolution"
  bottom: "conv2"
  top: "conv3"
  param {
    lr_mult: 1
  }
  param {
    lr_mult: 2
  }
  convolution_param {
    num_output: 128
    pad: 2
    kernel_size: 5
    stride: 1
    weight_filler {
      type: "gaussian"
      std: 0.01
    }
    bias_filler {
      type: "constant"
    }
  }
}
layer {
  name: "relu3"
  type: "ReLU"
  bottom: "conv3"
  top: "conv3"
}
layer {
  name: "pool3"
  type: "Pooling"
  bottom: "conv3"
  top: "pool3"
  pooling_param {
    pool: AVE
    kernel_size: 3
    stride: 2
  }
}
layer {
  name: "ip1"
  type: "InnerProduct"
  bottom: "pool3"
  top: "ip1"
  param {
    lr_mult: 1
  }
  param {
    lr_mult: 2
  }
  inner_product_param {
    num_output: 512
    weight_filler {
      type: "gaussian"
      std: 0.1
    }
    bias_filler {
      type: "constant"
    }
  }
}
layer {
  name: "ip2"
  type: "InnerProduct"
  bottom: "ip1"
  top: "ip2"
  param {
    lr_mult: 1
  }
  param {
    lr_mult: 2
  }
  inner_product_param {
    num_output: 256
    weight_filler {
      type: "gaussian"
      std: 0.1
    }
    bias_filler {
      type: "constant"
    }
  }
}
layer {
  name: "ip3"
  type: "InnerProduct"
  bottom: "ip2"
  top: "ip3"
  param {
    lr_mult: 1
  }
  param {
    lr_mult: 2
  }
  inner_product_param {
    num_output: 50
    weight_filler {
      type: "gaussian"
      std: 0.1
    }
    bias_filler {
      type: "constant"
    }
  }
}
layer {
  name: "loss"
  type: "SoftmaxWithLoss"
  bottom: "ip3"
  bottom: "label"
  top: "loss"
}
I0505 17:52:03.725728  8433 layer_factory.hpp:77] Creating layer parameters
I0505 17:52:03.725738  8433 net.cpp:94] Creating Layer parameters
I0505 17:52:03.725741  8433 net.cpp:409] parameters -> data
I0505 17:52:03.725747  8433 net.cpp:409] parameters -> label
I0505 17:52:03.725754  8433 hdf5_data_layer.cpp:79] Loading list of HDF5 filenames from: /home/purduethu/scratch/radon/d/deng106/CNNStatisticalModel/distributions/input/20_distributions_400_sample_size_train-distributions-path.txt
I0505 17:52:03.725769  8433 hdf5_data_layer.cpp:93] Number of HDF5 files: 1
I0505 17:52:03.983099  8433 hdf5.cpp:35] Datatype class: H5T_INTEGER
I0505 17:52:03.984185  8433 net.cpp:144] Setting up parameters
I0505 17:52:03.984205  8433 net.cpp:151] Top shape: 20 1 20 20 (8000)
I0505 17:52:03.984210  8433 net.cpp:151] Top shape: 20 (20)
I0505 17:52:03.984212  8433 net.cpp:159] Memory required for data: 32080
I0505 17:52:03.984218  8433 layer_factory.hpp:77] Creating layer conv1
I0505 17:52:03.984235  8433 net.cpp:94] Creating Layer conv1
I0505 17:52:03.984239  8433 net.cpp:435] conv1 <- data
I0505 17:52:03.984246  8433 net.cpp:409] conv1 -> conv1
I0505 17:52:03.986538  8433 net.cpp:144] Setting up conv1
I0505 17:52:03.986552  8433 net.cpp:151] Top shape: 20 64 20 20 (512000)
I0505 17:52:03.986557  8433 net.cpp:159] Memory required for data: 2080080
I0505 17:52:03.986567  8433 layer_factory.hpp:77] Creating layer relu1
I0505 17:52:03.986573  8433 net.cpp:94] Creating Layer relu1
I0505 17:52:03.986577  8433 net.cpp:435] relu1 <- conv1
I0505 17:52:03.986582  8433 net.cpp:396] relu1 -> conv1 (in-place)
I0505 17:52:03.986589  8433 net.cpp:144] Setting up relu1
I0505 17:52:03.986594  8433 net.cpp:151] Top shape: 20 64 20 20 (512000)
I0505 17:52:03.986596  8433 net.cpp:159] Memory required for data: 4128080
I0505 17:52:03.986599  8433 layer_factory.hpp:77] Creating layer pool1
I0505 17:52:03.986605  8433 net.cpp:94] Creating Layer pool1
I0505 17:52:03.986608  8433 net.cpp:435] pool1 <- conv1
I0505 17:52:03.986620  8433 net.cpp:409] pool1 -> pool1
I0505 17:52:03.986670  8433 net.cpp:144] Setting up pool1
I0505 17:52:03.986677  8433 net.cpp:151] Top shape: 20 64 10 10 (128000)
I0505 17:52:03.986680  8433 net.cpp:159] Memory required for data: 4640080
I0505 17:52:03.986683  8433 layer_factory.hpp:77] Creating layer conv2
I0505 17:52:03.986691  8433 net.cpp:94] Creating Layer conv2
I0505 17:52:03.986696  8433 net.cpp:435] conv2 <- pool1
I0505 17:52:03.986701  8433 net.cpp:409] conv2 -> conv2
I0505 17:52:03.997596  8433 net.cpp:144] Setting up conv2
I0505 17:52:03.997611  8433 net.cpp:151] Top shape: 20 128 10 10 (256000)
I0505 17:52:03.997615  8433 net.cpp:159] Memory required for data: 5664080
I0505 17:52:03.997624  8433 layer_factory.hpp:77] Creating layer relu2
I0505 17:52:03.997632  8433 net.cpp:94] Creating Layer relu2
I0505 17:52:03.997634  8433 net.cpp:435] relu2 <- conv2
I0505 17:52:03.997639  8433 net.cpp:396] relu2 -> conv2 (in-place)
I0505 17:52:03.997647  8433 net.cpp:144] Setting up relu2
I0505 17:52:03.997651  8433 net.cpp:151] Top shape: 20 128 10 10 (256000)
I0505 17:52:03.997653  8433 net.cpp:159] Memory required for data: 6688080
I0505 17:52:03.997658  8433 layer_factory.hpp:77] Creating layer conv3
I0505 17:52:03.997664  8433 net.cpp:94] Creating Layer conv3
I0505 17:52:03.997668  8433 net.cpp:435] conv3 <- conv2
I0505 17:52:03.997673  8433 net.cpp:409] conv3 -> conv3
I0505 17:52:04.015311  8433 net.cpp:144] Setting up conv3
I0505 17:52:04.015326  8433 net.cpp:151] Top shape: 20 128 10 10 (256000)
I0505 17:52:04.015331  8433 net.cpp:159] Memory required for data: 7712080
I0505 17:52:04.015339  8433 layer_factory.hpp:77] Creating layer relu3
I0505 17:52:04.015346  8433 net.cpp:94] Creating Layer relu3
I0505 17:52:04.015349  8433 net.cpp:435] relu3 <- conv3
I0505 17:52:04.015354  8433 net.cpp:396] relu3 -> conv3 (in-place)
I0505 17:52:04.015362  8433 net.cpp:144] Setting up relu3
I0505 17:52:04.015365  8433 net.cpp:151] Top shape: 20 128 10 10 (256000)
I0505 17:52:04.015368  8433 net.cpp:159] Memory required for data: 8736080
I0505 17:52:04.015372  8433 layer_factory.hpp:77] Creating layer pool3
I0505 17:52:04.015378  8433 net.cpp:94] Creating Layer pool3
I0505 17:52:04.015382  8433 net.cpp:435] pool3 <- conv3
I0505 17:52:04.015385  8433 net.cpp:409] pool3 -> pool3
I0505 17:52:04.015424  8433 net.cpp:144] Setting up pool3
I0505 17:52:04.015431  8433 net.cpp:151] Top shape: 20 128 5 5 (64000)
I0505 17:52:04.015434  8433 net.cpp:159] Memory required for data: 8992080
I0505 17:52:04.015437  8433 layer_factory.hpp:77] Creating layer ip1
I0505 17:52:04.015444  8433 net.cpp:94] Creating Layer ip1
I0505 17:52:04.015449  8433 net.cpp:435] ip1 <- pool3
I0505 17:52:04.015453  8433 net.cpp:409] ip1 -> ip1
I0505 17:52:04.055330  8433 net.cpp:144] Setting up ip1
I0505 17:52:04.055352  8433 net.cpp:151] Top shape: 20 512 (10240)
I0505 17:52:04.055357  8433 net.cpp:159] Memory required for data: 9033040
I0505 17:52:04.055366  8433 layer_factory.hpp:77] Creating layer ip2
I0505 17:52:04.055374  8433 net.cpp:94] Creating Layer ip2
I0505 17:52:04.055378  8433 net.cpp:435] ip2 <- ip1
I0505 17:52:04.055384  8433 net.cpp:409] ip2 -> ip2
I0505 17:52:04.058543  8433 net.cpp:144] Setting up ip2
I0505 17:52:04.058555  8433 net.cpp:151] Top shape: 20 256 (5120)
I0505 17:52:04.058558  8433 net.cpp:159] Memory required for data: 9053520
I0505 17:52:04.058567  8433 layer_factory.hpp:77] Creating layer ip3
I0505 17:52:04.058573  8433 net.cpp:94] Creating Layer ip3
I0505 17:52:04.058576  8433 net.cpp:435] ip3 <- ip2
I0505 17:52:04.058581  8433 net.cpp:409] ip3 -> ip3
I0505 17:52:04.059898  8433 net.cpp:144] Setting up ip3
I0505 17:52:04.059912  8433 net.cpp:151] Top shape: 20 50 (1000)
I0505 17:52:04.059916  8433 net.cpp:159] Memory required for data: 9057520
I0505 17:52:04.059921  8433 layer_factory.hpp:77] Creating layer loss
I0505 17:52:04.059928  8433 net.cpp:94] Creating Layer loss
I0505 17:52:04.059931  8433 net.cpp:435] loss <- ip3
I0505 17:52:04.059936  8433 net.cpp:435] loss <- label
I0505 17:52:04.059947  8433 net.cpp:409] loss -> loss
I0505 17:52:04.059957  8433 layer_factory.hpp:77] Creating layer loss
…
I0505 17:52:04.060405  8433 solver.cpp:181] Creating test net (#0) specified by net file: ./protocol/dis_20_400_dimension.protocol_distribution
I0505 17:52:04.060428  8433 net.cpp:323] The NetState phase (1) differed from the phase (0) specified by a rule in layer parameters
I0505 17:52:04.060513  8433 net.cpp:52] Initializing net from parameters: 
state {
  phase: TEST
}
layer {
  name: "intercept"
  type: "HDF5Data"
  top: "data"
  top: "label"
  include {
    phase: TEST
  }
  hdf5_data_param {
    source: "/home/purduethu/scratch/radon/d/deng106/CNNStatisticalModel/distributions/input/20_distributions_400_sample_size_test-distributions-path.txt"
    batch_size: 20
  }
}
layer {
  name: "conv1"
  type: "Convolution"
  bottom: "data"
  top: "conv1"
  param {
    lr_mult: 1
  }
  param {
    lr_mult: 2
  }
  convolution_param {
    num_output: 64
    pad: 2
    kernel_size: 5
    stride: 1
    weight_filler {
      type: "gaussian"
      std: 0.0001
    }
    bias_filler {
      type: "constant"
    }
  }
}
layer {
  name: "relu1"
  type: "ReLU"
  bottom: "conv1"
  top: "conv1"
}
layer {
  name: "pool1"
  type: "Pooling"
  bottom: "conv1"
  top: "pool1"
  pooling_param {
    pool: MAX
    kernel_size: 3
    stride: 2
  }
}
layer {
  name: "conv2"
  type: "Convolution"
  bottom: "pool1"
  top: "conv2"
  param {
    lr_mult: 1
  }
  param {
    lr_mult: 2
  }
  convolution_param {
    num_output: 128
    pad: 2
    kernel_size: 5
    stride: 1
    weight_filler {
      type: "gaussian"
      std: 0.01
    }
    bias_filler {
      type: "constant"
    }
  }
}
layer {
  name: "relu2"
  type: "ReLU"
  bottom: "conv2"
  top: "conv2"
}
layer {
  name: "conv3"
  type: "Convolution"
  bottom: "conv2"
  top: "conv3"
  param {
    lr_mult: 1
  }
  param {
    lr_mult: 2
  }
  convolution_param {
    num_output: 128
    pad: 2
    kernel_size: 5
    stride: 1
    weight_filler {
      type: "gaussian"
      std: 0.01
    }
    bias_filler {
      type: "constant"
    }
  }
}
layer {
  name: "relu3"
  type: "ReLU"
  bottom: "conv3"
  top: "conv3"
}
layer {
  name: "pool3"
  type: "Pooling"
  bottom: "conv3"
  top: "pool3"
  pooling_param {
    pool: AVE
    kernel_size: 3
    stride: 2
  }
}
layer {
  name: "ip1"
  type: "InnerProduct"
  bottom: "pool3"
  top: "ip1"
  param {
    lr_mult: 1
  }
  param {
    lr_mult: 2
  }
  inner_product_param {
    num_output: 512
    weight_filler {
      type: "gaussian"
      std: 0.1
    }
    bias_filler {
      type: "constant"
    }
  }
}
layer {
  name: "ip2"
  type: "InnerProduct"
  bottom: "ip1"
  top: "ip2"
  param {
    lr_mult: 1
  }
  param {
    lr_mult: 2
  }
  inner_product_param {
    num_output: 256
    weight_filler {
      type: "gaussian"
      std: 0.1
    }
    bias_filler {
      type: "constant"
    }
  }
}
layer {
  name: "ip3"
  type: "InnerProduct"
  bottom: "ip2"
  top: "ip3"
  param {
    lr_mult: 1
  }
  param {
    lr_mult: 2
  }
  inner_product_param {
    num_output: 50
    weight_filler {
      type: "gaussian"
      std: 0.1
    }
    bias_filler {
      type: "constant"
    }
  }
}
layer {
  name: "accuracy"
  type: "Accuracy"
  bottom: "ip3"
  bottom: "label"
  top: "accuracy"
  include {
    phase: TEST
  }
}
layer {
  name: "loss"
  type: "SoftmaxWithLoss"
  bottom: "ip3"
  bottom: "label"
  top: "loss"
}
I0505 17:52:04.060588  8433 layer_factory.hpp:77] Creating layer intercept
I0505 17:52:04.060600  8433 net.cpp:94] Creating Layer intercept
I0505 17:52:04.060603  8433 net.cpp:409] intercept -> data
I0505 17:52:04.060611  8433 net.cpp:409] intercept -> label
I0505 17:52:04.060617  8433 hdf5_data_layer.cpp:79] Loading list of HDF5 filenames from: /home/purduethu/scratch/radon/d/deng106/CNNStatisticalModel/distributions/input/20_distributions_400_sample_size_test-distributions-path.txt
I0505 17:52:04.060637  8433 hdf5_data_layer.cpp:93] Number of HDF5 files: 1
I0505 17:52:04.126029  8433 net.cpp:144] Setting up intercept
I0505 17:52:04.126065  8433 net.cpp:151] Top shape: 20 1 20 20 (8000)
I0505 17:52:04.126070  8433 net.cpp:151] Top shape: 20 (20)
I0505 17:52:04.126073  8433 net.cpp:159] Memory required for data: 32080
I0505 17:52:04.126080  8433 layer_factory.hpp:77] Creating layer label_intercept_1_split
I0505 17:52:04.126098  8433 net.cpp:94] Creating Layer label_intercept_1_split
I0505 17:52:04.126103  8433 net.cpp:435] label_intercept_1_split <- label
I0505 17:52:04.126109  8433 net.cpp:409] label_intercept_1_split -> label_intercept_1_split_0
I0505 17:52:04.126117  8433 net.cpp:409] label_intercept_1_split -> label_intercept_1_split_1
I0505 17:52:04.126157  8433 net.cpp:144] Setting up label_intercept_1_split
I0505 17:52:04.126163  8433 net.cpp:151] Top shape: 20 (20)
I0505 17:52:04.126168  8433 net.cpp:151] Top shape: 20 (20)
I0505 17:52:04.126170  8433 net.cpp:159] Memory required for data: 32240
I0505 17:52:04.126173  8433 layer_factory.hpp:77] Creating layer conv1
I0505 17:52:04.126184  8433 net.cpp:94] Creating Layer conv1
I0505 17:52:04.126188  8433 net.cpp:435] conv1 <- data
I0505 17:52:04.126194  8433 net.cpp:409] conv1 -> conv1
I0505 17:52:04.126992  8433 net.cpp:144] Setting up conv1
I0505 17:52:04.127007  8433 net.cpp:151] Top shape: 20 64 20 20 (512000)
I0505 17:52:04.127012  8433 net.cpp:159] Memory required for data: 2080240
I0505 17:52:04.127020  8433 layer_factory.hpp:77] Creating layer relu1
I0505 17:52:04.127027  8433 net.cpp:94] Creating Layer relu1
I0505 17:52:04.127032  8433 net.cpp:435] relu1 <- conv1
I0505 17:52:04.127035  8433 net.cpp:396] relu1 -> conv1 (in-place)
I0505 17:52:04.127043  8433 net.cpp:144] Setting up relu1
I0505 17:52:04.127048  8433 net.cpp:151] Top shape: 20 64 20 20 (512000)
I0505 17:52:04.127050  8433 net.cpp:159] Memory required for data: 4128240
I0505 17:52:04.127053  8433 layer_factory.hpp:77] Creating layer pool1
I0505 17:52:04.127060  8433 net.cpp:94] Creating Layer pool1
I0505 17:52:04.127063  8433 net.cpp:435] pool1 <- conv1
I0505 17:52:04.127068  8433 net.cpp:409] pool1 -> pool1
I0505 17:52:04.127116  8433 net.cpp:144] Setting up pool1
I0505 17:52:04.127123  8433 net.cpp:151] Top shape: 20 64 10 10 (128000)
I0505 17:52:04.127126  8433 net.cpp:159] Memory required for data: 4640240
I0505 17:52:04.127130  8433 layer_factory.hpp:77] Creating layer conv2
I0505 17:52:04.127138  8433 net.cpp:94] Creating Layer conv2
I0505 17:52:04.127141  8433 net.cpp:435] conv2 <- pool1
I0505 17:52:04.127146  8433 net.cpp:409] conv2 -> conv2
I0505 17:52:04.134804  8433 net.cpp:144] Setting up conv2
I0505 17:52:04.134819  8433 net.cpp:151] Top shape: 20 128 10 10 (256000)
I0505 17:52:04.134824  8433 net.cpp:159] Memory required for data: 5664240
I0505 17:52:04.134831  8433 layer_factory.hpp:77] Creating layer relu2
I0505 17:52:04.134843  8433 net.cpp:94] Creating Layer relu2
I0505 17:52:04.134847  8433 net.cpp:435] relu2 <- conv2
I0505 17:52:04.134852  8433 net.cpp:396] relu2 -> conv2 (in-place)
I0505 17:52:04.134860  8433 net.cpp:144] Setting up relu2
I0505 17:52:04.134863  8433 net.cpp:151] Top shape: 20 128 10 10 (256000)
I0505 17:52:04.134866  8433 net.cpp:159] Memory required for data: 6688240
I0505 17:52:04.134869  8433 layer_factory.hpp:77] Creating layer conv3
I0505 17:52:04.134877  8433 net.cpp:94] Creating Layer conv3
I0505 17:52:04.134881  8433 net.cpp:435] conv3 <- conv2
I0505 17:52:04.134886  8433 net.cpp:409] conv3 -> conv3
I0505 17:52:04.149806  8433 net.cpp:144] Setting up conv3
I0505 17:52:04.149845  8433 net.cpp:151] Top shape: 20 128 10 10 (256000)
I0505 17:52:04.149855  8433 net.cpp:159] Memory required for data: 7712240
I0505 17:52:04.149879  8433 layer_factory.hpp:77] Creating layer relu3
I0505 17:52:04.149896  8433 net.cpp:94] Creating Layer relu3
I0505 17:52:04.149907  8433 net.cpp:435] relu3 <- conv3
I0505 17:52:04.149920  8433 net.cpp:396] relu3 -> conv3 (in-place)
I0505 17:52:04.149938  8433 net.cpp:144] Setting up relu3
I0505 17:52:04.149951  8433 net.cpp:151] Top shape: 20 128 10 10 (256000)
I0505 17:52:04.149960  8433 net.cpp:159] Memory required for data: 8736240
I0505 17:52:04.149969  8433 layer_factory.hpp:77] Creating layer pool3
I0505 17:52:04.149982  8433 net.cpp:94] Creating Layer pool3
I0505 17:52:04.149991  8433 net.cpp:435] pool3 <- conv3
I0505 17:52:04.150002  8433 net.cpp:409] pool3 -> pool3
I0505 17:52:04.150099  8433 net.cpp:144] Setting up pool3
I0505 17:52:04.150117  8433 net.cpp:151] Top shape: 20 128 5 5 (64000)
I0505 17:52:04.150126  8433 net.cpp:159] Memory required for data: 8992240
I0505 17:52:04.150135  8433 layer_factory.hpp:77] Creating layer ip1
I0505 17:52:04.150151  8433 net.cpp:94] Creating Layer ip1
I0505 17:52:04.150159  8433 net.cpp:435] ip1 <- pool3
I0505 17:52:04.150171  8433 net.cpp:409] ip1 -> ip1
I0505 17:52:04.190073  8433 net.cpp:144] Setting up ip1
I0505 17:52:04.190095  8433 net.cpp:151] Top shape: 20 512 (10240)
I0505 17:52:04.190099  8433 net.cpp:159] Memory required for data: 9033200
I0505 17:52:04.190106  8433 layer_factory.hpp:77] Creating layer ip2
I0505 17:52:04.190114  8433 net.cpp:94] Creating Layer ip2
I0505 17:52:04.190119  8433 net.cpp:435] ip2 <- ip1
I0505 17:52:04.190124  8433 net.cpp:409] ip2 -> ip2
I0505 17:52:04.193290  8433 net.cpp:144] Setting up ip2
I0505 17:52:04.193302  8433 net.cpp:151] Top shape: 20 256 (5120)
I0505 17:52:04.193305  8433 net.cpp:159] Memory required for data: 9053680
I0505 17:52:04.193313  8433 layer_factory.hpp:77] Creating layer ip3
I0505 17:52:04.193320  8433 net.cpp:94] Creating Layer ip3
I0505 17:52:04.193322  8433 net.cpp:435] ip3 <- ip2
I0505 17:52:04.193327  8433 net.cpp:409] ip3 -> ip3
I0505 17:52:04.193754  8433 net.cpp:144] Setting up ip3
I0505 17:52:04.193763  8433 net.cpp:151] Top shape: 20 50 (1000)
I0505 17:52:04.193765  8433 net.cpp:159] Memory required for data: 9057680
I0505 17:52:04.193769  8433 layer_factory.hpp:77] Creating layer ip3_ip3_0_split
I0505 17:52:04.193775  8433 net.cpp:94] Creating Layer ip3_ip3_0_split
I0505 17:52:04.193778  8433 net.cpp:435] ip3_ip3_0_split <- ip3
I0505 17:52:04.193783  8433 net.cpp:409] ip3_ip3_0_split -> ip3_ip3_0_split_0
I0505 17:52:04.193787  8433 net.cpp:409] ip3_ip3_0_split -> ip3_ip3_0_split_1
I0505 17:52:04.193826  8433 net.cpp:144] Setting up ip3_ip3_0_split
I0505 17:52:04.193833  8433 net.cpp:151] Top shape: 20 50 (1000)
I0505 17:52:04.193836  8433 net.cpp:151] Top shape: 20 50 (1000)
I0505 17:52:04.193840  8433 net.cpp:159] Memory required for data: 9065680
I0505 17:52:04.193842  8433 layer_factory.hpp:77] Creating layer accuracy
I0505 17:52:04.193848  8433 net.cpp:94] Creating Layer accuracy
I0505 17:52:04.193851  8433 net.cpp:435] accuracy <- ip3_ip3_0_split_0
I0505 17:52:04.193855  8433 net.cpp:435] accuracy <- label_intercept_1_split_0
I0505 17:52:04.193858  8433 net.cpp:409] accuracy -> accuracy
…
