…
I0506 03:33:35.977572 12702 net.cpp:323] The NetState phase (0) differed from the phase (1) specified by a rule in layer intercept
I0506 03:33:35.977588 12702 net.cpp:323] The NetState phase (0) differed from the phase (1) specified by a rule in layer loss
I0506 03:33:35.977665 12702 net.cpp:52] Initializing net from parameters: 
state {
  phase: TRAIN
}
layer {
  name: "parameters"
  type: "HDF5Data"
  top: "data"
  top: "label"
  include {
    phase: TRAIN
  }
  hdf5_data_param {
    source: "/home/purduethu/scratch/radon/d/deng106/CNNStatisticalModel/distributions/input/50_distributions_100_sample_size_train-parameters-path.txt"
    batch_size: 20
  }
}
layer {
  name: "conv1"
  type: "Convolution"
  bottom: "data"
  top: "conv1"
  param {
    lr_mult: 1
  }
  param {
    lr_mult: 2
  }
  convolution_param {
    num_output: 64
    pad: 2
    kernel_size: 5
    stride: 1
    weight_filler {
      type: "gaussian"
      std: 0.0001
    }
    bias_filler {
      type: "constant"
    }
  }
}
layer {
  name: "relu1"
  type: "ReLU"
  bottom: "conv1"
  top: "conv1"
}
layer {
  name: "conv2"
  type: "Convolution"
  bottom: "conv1"
  top: "conv2"
  param {
    lr_mult: 1
  }
  param {
    lr_mult: 2
  }
  convolution_param {
    num_output: 64
    pad: 2
    kernel_size: 5
    stride: 1
    weight_filler {
      type: "gaussian"
      std: 0.01
    }
    bias_filler {
      type: "constant"
    }
  }
}
layer {
  name: "relu2"
  type: "ReLU"
  bottom: "conv2"
  top: "conv2"
}
layer {
  name: "pool2"
  type: "Pooling"
  bottom: "conv2"
  top: "pool2"
  pooling_param {
    pool: MAX
    kernel_size: 3
    stride: 2
  }
}
layer {
  name: "conv3"
  type: "Convolution"
  bottom: "pool2"
  top: "conv3"
  param {
    lr_mult: 1
  }
  param {
    lr_mult: 2
  }
  convolution_param {
    num_output: 128
    pad: 2
    kernel_size: 5
    stride: 1
    weight_filler {
      type: "gaussian"
      std: 0.01
    }
    bias_filler {
      type: "constant"
    }
  }
}
layer {
  name: "relu3"
  type: "ReLU"
  bottom: "conv3"
  top: "conv3"
}
layer {
  name: "conv4"
  type: "Convolution"
  bottom: "conv3"
  top: "conv4"
  param {
    lr_mult: 1
  }
  param {
    lr_mult: 2
  }
  convolution_param {
    num_output: 128
    pad: 2
    kernel_size: 5
    stride: 1
    weight_filler {
      type: "gaussian"
      std: 0.01
    }
    bias_filler {
      type: "constant"
    }
  }
}
layer {
  name: "relu4"
  type: "ReLU"
  bottom: "conv4"
  top: "conv4"
}
layer {
  name: "conv5"
  type: "Convolution"
  bottom: "conv4"
  top: "conv5"
  param {
    lr_mult: 1
  }
  param {
    lr_mult: 2
  }
  convolution_param {
    num_output: 128
    pad: 2
    kernel_size: 5
    stride: 1
    weight_filler {
      type: "gaussian"
      std: 0.01
    }
    bias_filler {
      type: "constant"
    }
  }
}
layer {
  name: "relu5"
  type: "ReLU"
  bottom: "conv5"
  top: "conv5"
}
layer {
  name: "pool5"
  type: "Pooling"
  bottom: "conv5"
  top: "pool5"
  pooling_param {
    pool: AVE
    kernel_size: 3
    stride: 2
  }
}
layer {
  name: "ip1"
  type: "InnerProduct"
  bottom: "pool5"
  top: "ip1"
  param {
    lr_mult: 1
  }
  param {
    lr_mult: 2
  }
  inner_product_param {
    num_output: 1024
    weight_filler {
      type: "gaussian"
      std: 0.1
    }
    bias_filler {
      type: "constant"
    }
  }
}
layer {
  name: "ip2"
  type: "InnerProduct"
  bottom: "ip1"
  top: "ip2"
  param {
    lr_mult: 1
  }
  param {
    lr_mult: 2
  }
  inner_product_param {
    num_output: 512
    weight_filler {
      type: "gaussian"
      std: 0.1
    }
    bias_filler {
      type: "constant"
    }
  }
}
layer {
  name: "ip3"
  type: "InnerProduct"
  bottom: "ip2"
  top: "ip3"
  param {
    lr_mult: 1
  }
  param {
    lr_mult: 2
  }
  inner_product_param {
    num_output: 1
    weight_filler {
      type: "gaussian"
      std: 0.1
    }
    bias_filler {
      type: "constant"
    }
  }
}
layer {
  name: "loss"
  type: "HuberLoss"
  bottom: "ip3"
  bottom: "label"
  top: "loss"
  include {
    phase: TRAIN
  }
}
I0506 03:33:35.977718 12702 layer_factory.hpp:77] Creating layer parameters
I0506 03:33:35.977731 12702 net.cpp:94] Creating Layer parameters
I0506 03:33:35.977735 12702 net.cpp:409] parameters -> data
I0506 03:33:35.977744 12702 net.cpp:409] parameters -> label
I0506 03:33:35.977751 12702 hdf5_data_layer.cpp:79] Loading list of HDF5 filenames from: /home/purduethu/scratch/radon/d/deng106/CNNStatisticalModel/distributions/input/50_distributions_100_sample_size_train-parameters-path.txt
I0506 03:33:35.977766 12702 hdf5_data_layer.cpp:93] Number of HDF5 files: 1
I0506 03:33:35.978307 12702 hdf5.cpp:32] Datatype class: H5T_FLOAT
I0506 03:33:36.138352 12702 net.cpp:144] Setting up parameters
I0506 03:33:36.138384 12702 net.cpp:151] Top shape: 20 1 10 10 (2000)
I0506 03:33:36.138389 12702 net.cpp:151] Top shape: 20 (20)
I0506 03:33:36.138392 12702 net.cpp:159] Memory required for data: 8080
I0506 03:33:36.138399 12702 layer_factory.hpp:77] Creating layer conv1
I0506 03:33:36.138420 12702 net.cpp:94] Creating Layer conv1
I0506 03:33:36.138425 12702 net.cpp:435] conv1 <- data
I0506 03:33:36.138432 12702 net.cpp:409] conv1 -> conv1
I0506 03:33:36.142545 12702 net.cpp:144] Setting up conv1
I0506 03:33:36.142560 12702 net.cpp:151] Top shape: 20 64 10 10 (128000)
I0506 03:33:36.142565 12702 net.cpp:159] Memory required for data: 520080
I0506 03:33:36.142575 12702 layer_factory.hpp:77] Creating layer relu1
I0506 03:33:36.142582 12702 net.cpp:94] Creating Layer relu1
I0506 03:33:36.142585 12702 net.cpp:435] relu1 <- conv1
I0506 03:33:36.142590 12702 net.cpp:396] relu1 -> conv1 (in-place)
I0506 03:33:36.142604 12702 net.cpp:144] Setting up relu1
I0506 03:33:36.142609 12702 net.cpp:151] Top shape: 20 64 10 10 (128000)
I0506 03:33:36.142612 12702 net.cpp:159] Memory required for data: 1032080
I0506 03:33:36.142616 12702 layer_factory.hpp:77] Creating layer conv2
I0506 03:33:36.142623 12702 net.cpp:94] Creating Layer conv2
I0506 03:33:36.142627 12702 net.cpp:435] conv2 <- conv1
I0506 03:33:36.142632 12702 net.cpp:409] conv2 -> conv2
I0506 03:33:36.148694 12702 net.cpp:144] Setting up conv2
I0506 03:33:36.148707 12702 net.cpp:151] Top shape: 20 64 10 10 (128000)
I0506 03:33:36.148711 12702 net.cpp:159] Memory required for data: 1544080
I0506 03:33:36.148720 12702 layer_factory.hpp:77] Creating layer relu2
I0506 03:33:36.148725 12702 net.cpp:94] Creating Layer relu2
I0506 03:33:36.148730 12702 net.cpp:435] relu2 <- conv2
I0506 03:33:36.148733 12702 net.cpp:396] relu2 -> conv2 (in-place)
I0506 03:33:36.148741 12702 net.cpp:144] Setting up relu2
I0506 03:33:36.148746 12702 net.cpp:151] Top shape: 20 64 10 10 (128000)
I0506 03:33:36.148747 12702 net.cpp:159] Memory required for data: 2056080
I0506 03:33:36.148751 12702 layer_factory.hpp:77] Creating layer pool2
I0506 03:33:36.148756 12702 net.cpp:94] Creating Layer pool2
I0506 03:33:36.148759 12702 net.cpp:435] pool2 <- conv2
I0506 03:33:36.148763 12702 net.cpp:409] pool2 -> pool2
I0506 03:33:36.148813 12702 net.cpp:144] Setting up pool2
I0506 03:33:36.148821 12702 net.cpp:151] Top shape: 20 64 5 5 (32000)
I0506 03:33:36.148824 12702 net.cpp:159] Memory required for data: 2184080
I0506 03:33:36.148828 12702 layer_factory.hpp:77] Creating layer conv3
I0506 03:33:36.148835 12702 net.cpp:94] Creating Layer conv3
I0506 03:33:36.148844 12702 net.cpp:435] conv3 <- pool2
I0506 03:33:36.148850 12702 net.cpp:409] conv3 -> conv3
I0506 03:33:36.157093 12702 net.cpp:144] Setting up conv3
I0506 03:33:36.157106 12702 net.cpp:151] Top shape: 20 128 5 5 (64000)
I0506 03:33:36.157110 12702 net.cpp:159] Memory required for data: 2440080
I0506 03:33:36.157119 12702 layer_factory.hpp:77] Creating layer relu3
I0506 03:33:36.157124 12702 net.cpp:94] Creating Layer relu3
I0506 03:33:36.157127 12702 net.cpp:435] relu3 <- conv3
I0506 03:33:36.157131 12702 net.cpp:396] relu3 -> conv3 (in-place)
I0506 03:33:36.157138 12702 net.cpp:144] Setting up relu3
I0506 03:33:36.157143 12702 net.cpp:151] Top shape: 20 128 5 5 (64000)
I0506 03:33:36.157146 12702 net.cpp:159] Memory required for data: 2696080
I0506 03:33:36.157148 12702 layer_factory.hpp:77] Creating layer conv4
I0506 03:33:36.157157 12702 net.cpp:94] Creating Layer conv4
I0506 03:33:36.157160 12702 net.cpp:435] conv4 <- conv3
I0506 03:33:36.157166 12702 net.cpp:409] conv4 -> conv4
I0506 03:33:36.172091 12702 net.cpp:144] Setting up conv4
I0506 03:33:36.172106 12702 net.cpp:151] Top shape: 20 128 5 5 (64000)
I0506 03:33:36.172108 12702 net.cpp:159] Memory required for data: 2952080
I0506 03:33:36.172116 12702 layer_factory.hpp:77] Creating layer relu4
I0506 03:33:36.172122 12702 net.cpp:94] Creating Layer relu4
I0506 03:33:36.172124 12702 net.cpp:435] relu4 <- conv4
I0506 03:33:36.172129 12702 net.cpp:396] relu4 -> conv4 (in-place)
I0506 03:33:36.172137 12702 net.cpp:144] Setting up relu4
I0506 03:33:36.172140 12702 net.cpp:151] Top shape: 20 128 5 5 (64000)
I0506 03:33:36.172143 12702 net.cpp:159] Memory required for data: 3208080
I0506 03:33:36.172147 12702 layer_factory.hpp:77] Creating layer conv5
I0506 03:33:36.172154 12702 net.cpp:94] Creating Layer conv5
I0506 03:33:36.172158 12702 net.cpp:435] conv5 <- conv4
I0506 03:33:36.172163 12702 net.cpp:409] conv5 -> conv5
I0506 03:33:36.186527 12702 net.cpp:144] Setting up conv5
I0506 03:33:36.186542 12702 net.cpp:151] Top shape: 20 128 5 5 (64000)
I0506 03:33:36.186547 12702 net.cpp:159] Memory required for data: 3464080
I0506 03:33:36.186555 12702 layer_factory.hpp:77] Creating layer relu5
I0506 03:33:36.186561 12702 net.cpp:94] Creating Layer relu5
I0506 03:33:36.186565 12702 net.cpp:435] relu5 <- conv5
I0506 03:33:36.186569 12702 net.cpp:396] relu5 -> conv5 (in-place)
I0506 03:33:36.186578 12702 net.cpp:144] Setting up relu5
I0506 03:33:36.186581 12702 net.cpp:151] Top shape: 20 128 5 5 (64000)
I0506 03:33:36.186584 12702 net.cpp:159] Memory required for data: 3720080
I0506 03:33:36.186588 12702 layer_factory.hpp:77] Creating layer pool5
I0506 03:33:36.186594 12702 net.cpp:94] Creating Layer pool5
I0506 03:33:36.186596 12702 net.cpp:435] pool5 <- conv5
I0506 03:33:36.186600 12702 net.cpp:409] pool5 -> pool5
I0506 03:33:36.186641 12702 net.cpp:144] Setting up pool5
I0506 03:33:36.186648 12702 net.cpp:151] Top shape: 20 128 2 2 (10240)
I0506 03:33:36.186651 12702 net.cpp:159] Memory required for data: 3761040
I0506 03:33:36.186655 12702 layer_factory.hpp:77] Creating layer ip1
I0506 03:33:36.186664 12702 net.cpp:94] Creating Layer ip1
I0506 03:33:36.186668 12702 net.cpp:435] ip1 <- pool5
I0506 03:33:36.186673 12702 net.cpp:409] ip1 -> ip1
I0506 03:33:36.200759 12702 net.cpp:144] Setting up ip1
I0506 03:33:36.200773 12702 net.cpp:151] Top shape: 20 1024 (20480)
I0506 03:33:36.200778 12702 net.cpp:159] Memory required for data: 3842960
I0506 03:33:36.200783 12702 layer_factory.hpp:77] Creating layer ip2
I0506 03:33:36.200790 12702 net.cpp:94] Creating Layer ip2
I0506 03:33:36.200794 12702 net.cpp:435] ip2 <- ip1
I0506 03:33:36.200800 12702 net.cpp:409] ip2 -> ip2
I0506 03:33:36.214061 12702 net.cpp:144] Setting up ip2
I0506 03:33:36.214074 12702 net.cpp:151] Top shape: 20 512 (10240)
I0506 03:33:36.214078 12702 net.cpp:159] Memory required for data: 3883920
I0506 03:33:36.214084 12702 layer_factory.hpp:77] Creating layer ip3
I0506 03:33:36.214092 12702 net.cpp:94] Creating Layer ip3
I0506 03:33:36.214094 12702 net.cpp:435] ip3 <- ip2
I0506 03:33:36.214107 12702 net.cpp:409] ip3 -> ip3
I0506 03:33:36.214221 12702 net.cpp:144] Setting up ip3
I0506 03:33:36.214229 12702 net.cpp:151] Top shape: 20 1 (20)
I0506 03:33:36.214232 12702 net.cpp:159] Memory required for data: 3884000
I0506 03:33:36.214237 12702 layer_factory.hpp:77] Creating layer loss
I0506 03:33:36.214246 12702 net.cpp:94] Creating Layer loss
I0506 03:33:36.214249 12702 net.cpp:435] loss <- ip3
I0506 03:33:36.214252 12702 net.cpp:435] loss <- label
I0506 03:33:36.214257 12702 net.cpp:409] loss -> loss
I0506 03:33:36.214306 12702 net.cpp:144] Setting up loss
…
I0506 03:33:36.321102 12702 net.cpp:323] The NetState phase (0) differed from the phase (1) specified by a rule in layer intercept
I0506 03:33:36.321120 12702 net.cpp:323] The NetState phase (0) differed from the phase (1) specified by a rule in layer accuracy
I0506 03:33:36.321205 12702 net.cpp:52] Initializing net from parameters: 
state {
  phase: TRAIN
}
layer {
  name: "parameters"
  type: "HDF5Data"
  top: "data"
  top: "label"
  include {
    phase: TRAIN
  }
  hdf5_data_param {
    source: "/home/purduethu/scratch/radon/d/deng106/CNNStatisticalModel/distributions/input/50_distributions_100_sample_size_train-distributions-path.txt"
    batch_size: 20
  }
}
layer {
  name: "conv1"
  type: "Convolution"
  bottom: "data"
  top: "conv1"
  param {
    lr_mult: 1
  }
  param {
    lr_mult: 2
  }
  convolution_param {
    num_output: 64
    pad: 2
    kernel_size: 5
    stride: 1
    weight_filler {
      type: "gaussian"
      std: 0.0001
    }
    bias_filler {
      type: "constant"
    }
  }
}
layer {
  name: "relu1"
  type: "ReLU"
  bottom: "conv1"
  top: "conv1"
}
layer {
  name: "conv2"
  type: "Convolution"
  bottom: "conv1"
  top: "conv2"
  param {
    lr_mult: 1
  }
  param {
    lr_mult: 2
  }
  convolution_param {
    num_output: 64
    pad: 2
    kernel_size: 5
    stride: 1
    weight_filler {
      type: "gaussian"
      std: 0.01
    }
    bias_filler {
      type: "constant"
    }
  }
}
layer {
  name: "relu2"
  type: "ReLU"
  bottom: "conv2"
  top: "conv2"
}
layer {
  name: "pool2"
  type: "Pooling"
  bottom: "conv2"
  top: "pool2"
  pooling_param {
    pool: MAX
    kernel_size: 3
    stride: 2
  }
}
layer {
  name: "conv3"
  type: "Convolution"
  bottom: "pool2"
  top: "conv3"
  param {
    lr_mult: 1
  }
  param {
    lr_mult: 2
  }
  convolution_param {
    num_output: 128
    pad: 2
    kernel_size: 5
    stride: 1
    weight_filler {
      type: "gaussian"
      std: 0.01
    }
    bias_filler {
      type: "constant"
    }
  }
}
layer {
  name: "relu3"
  type: "ReLU"
  bottom: "conv3"
  top: "conv3"
}
layer {
  name: "conv4"
  type: "Convolution"
  bottom: "conv3"
  top: "conv4"
  param {
    lr_mult: 1
  }
  param {
    lr_mult: 2
  }
  convolution_param {
    num_output: 128
    pad: 2
    kernel_size: 5
    stride: 1
    weight_filler {
      type: "gaussian"
      std: 0.01
    }
    bias_filler {
      type: "constant"
    }
  }
}
layer {
  name: "relu4"
  type: "ReLU"
  bottom: "conv4"
  top: "conv4"
}
layer {
  name: "conv5"
  type: "Convolution"
  bottom: "conv4"
  top: "conv5"
  param {
    lr_mult: 1
  }
  param {
    lr_mult: 2
  }
  convolution_param {
    num_output: 128
    pad: 2
    kernel_size: 5
    stride: 1
    weight_filler {
      type: "gaussian"
      std: 0.01
    }
    bias_filler {
      type: "constant"
    }
  }
}
layer {
  name: "relu5"
  type: "ReLU"
  bottom: "conv5"
  top: "conv5"
}
layer {
  name: "pool5"
  type: "Pooling"
  bottom: "conv5"
  top: "pool5"
  pooling_param {
    pool: AVE
    kernel_size: 3
    stride: 2
  }
}
layer {
  name: "ip1"
  type: "InnerProduct"
  bottom: "pool5"
  top: "ip1"
  param {
    lr_mult: 1
  }
  param {
    lr_mult: 2
  }
  inner_product_param {
    num_output: 1024
    weight_filler {
      type: "gaussian"
      std: 0.1
    }
    bias_filler {
      type: "constant"
    }
  }
}
layer {
  name: "ip2"
  type: "InnerProduct"
  bottom: "ip1"
  top: "ip2"
  param {
    lr_mult: 1
  }
  param {
    lr_mult: 2
  }
  inner_product_param {
    num_output: 512
    weight_filler {
      type: "gaussian"
      std: 0.1
    }
    bias_filler {
      type: "constant"
    }
  }
}
layer {
  name: "ip3"
  type: "InnerProduct"
  bottom: "ip2"
  top: "ip3"
  param {
    lr_mult: 1
  }
  param {
    lr_mult: 2
  }
  inner_product_param {
    num_output: 50
    weight_filler {
      type: "gaussian"
      std: 0.1
    }
    bias_filler {
      type: "constant"
    }
  }
}
layer {
  name: "loss"
  type: "SoftmaxWithLoss"
  bottom: "ip3"
  bottom: "label"
  top: "loss"
}
I0506 03:33:36.321259 12702 layer_factory.hpp:77] Creating layer parameters
I0506 03:33:36.321267 12702 net.cpp:94] Creating Layer parameters
I0506 03:33:36.321271 12702 net.cpp:409] parameters -> data
I0506 03:33:36.321277 12702 net.cpp:409] parameters -> label
I0506 03:33:36.321283 12702 hdf5_data_layer.cpp:79] Loading list of HDF5 filenames from: /home/purduethu/scratch/radon/d/deng106/CNNStatisticalModel/distributions/input/50_distributions_100_sample_size_train-distributions-path.txt
I0506 03:33:36.321300 12702 hdf5_data_layer.cpp:93] Number of HDF5 files: 1
I0506 03:33:36.476131 12702 hdf5.cpp:35] Datatype class: H5T_INTEGER
I0506 03:33:36.479133 12702 net.cpp:144] Setting up parameters
I0506 03:33:36.479154 12702 net.cpp:151] Top shape: 20 1 10 10 (2000)
I0506 03:33:36.479159 12702 net.cpp:151] Top shape: 20 (20)
I0506 03:33:36.479163 12702 net.cpp:159] Memory required for data: 8080
I0506 03:33:36.479168 12702 layer_factory.hpp:77] Creating layer conv1
I0506 03:33:36.479185 12702 net.cpp:94] Creating Layer conv1
I0506 03:33:36.479189 12702 net.cpp:435] conv1 <- data
I0506 03:33:36.479195 12702 net.cpp:409] conv1 -> conv1
I0506 03:33:36.480943 12702 net.cpp:144] Setting up conv1
I0506 03:33:36.480957 12702 net.cpp:151] Top shape: 20 64 10 10 (128000)
I0506 03:33:36.480960 12702 net.cpp:159] Memory required for data: 520080
I0506 03:33:36.480970 12702 layer_factory.hpp:77] Creating layer relu1
I0506 03:33:36.480978 12702 net.cpp:94] Creating Layer relu1
I0506 03:33:36.480981 12702 net.cpp:435] relu1 <- conv1
I0506 03:33:36.480985 12702 net.cpp:396] relu1 -> conv1 (in-place)
I0506 03:33:36.480993 12702 net.cpp:144] Setting up relu1
I0506 03:33:36.480998 12702 net.cpp:151] Top shape: 20 64 10 10 (128000)
I0506 03:33:36.481000 12702 net.cpp:159] Memory required for data: 1032080
I0506 03:33:36.481003 12702 layer_factory.hpp:77] Creating layer conv2
I0506 03:33:36.481011 12702 net.cpp:94] Creating Layer conv2
I0506 03:33:36.481014 12702 net.cpp:435] conv2 <- conv1
I0506 03:33:36.481019 12702 net.cpp:409] conv2 -> conv2
I0506 03:33:36.486349 12702 net.cpp:144] Setting up conv2
I0506 03:33:36.486362 12702 net.cpp:151] Top shape: 20 64 10 10 (128000)
I0506 03:33:36.486366 12702 net.cpp:159] Memory required for data: 1544080
I0506 03:33:36.486373 12702 layer_factory.hpp:77] Creating layer relu2
I0506 03:33:36.486380 12702 net.cpp:94] Creating Layer relu2
I0506 03:33:36.486383 12702 net.cpp:435] relu2 <- conv2
I0506 03:33:36.486388 12702 net.cpp:396] relu2 -> conv2 (in-place)
I0506 03:33:36.486394 12702 net.cpp:144] Setting up relu2
I0506 03:33:36.486399 12702 net.cpp:151] Top shape: 20 64 10 10 (128000)
I0506 03:33:36.486402 12702 net.cpp:159] Memory required for data: 2056080
I0506 03:33:36.486405 12702 layer_factory.hpp:77] Creating layer pool2
I0506 03:33:36.486412 12702 net.cpp:94] Creating Layer pool2
I0506 03:33:36.486414 12702 net.cpp:435] pool2 <- conv2
I0506 03:33:36.486418 12702 net.cpp:409] pool2 -> pool2
I0506 03:33:36.486469 12702 net.cpp:144] Setting up pool2
I0506 03:33:36.486475 12702 net.cpp:151] Top shape: 20 64 5 5 (32000)
I0506 03:33:36.486479 12702 net.cpp:159] Memory required for data: 2184080
I0506 03:33:36.486481 12702 layer_factory.hpp:77] Creating layer conv3
I0506 03:33:36.486490 12702 net.cpp:94] Creating Layer conv3
I0506 03:33:36.486492 12702 net.cpp:435] conv3 <- pool2
I0506 03:33:36.486497 12702 net.cpp:409] conv3 -> conv3
I0506 03:33:36.495179 12702 net.cpp:144] Setting up conv3
I0506 03:33:36.495193 12702 net.cpp:151] Top shape: 20 128 5 5 (64000)
I0506 03:33:36.495196 12702 net.cpp:159] Memory required for data: 2440080
I0506 03:33:36.495204 12702 layer_factory.hpp:77] Creating layer relu3
I0506 03:33:36.495210 12702 net.cpp:94] Creating Layer relu3
I0506 03:33:36.495214 12702 net.cpp:435] relu3 <- conv3
I0506 03:33:36.495218 12702 net.cpp:396] relu3 -> conv3 (in-place)
I0506 03:33:36.495232 12702 net.cpp:144] Setting up relu3
I0506 03:33:36.495237 12702 net.cpp:151] Top shape: 20 128 5 5 (64000)
I0506 03:33:36.495239 12702 net.cpp:159] Memory required for data: 2696080
I0506 03:33:36.495244 12702 layer_factory.hpp:77] Creating layer conv4
I0506 03:33:36.495251 12702 net.cpp:94] Creating Layer conv4
I0506 03:33:36.495255 12702 net.cpp:435] conv4 <- conv3
I0506 03:33:36.495260 12702 net.cpp:409] conv4 -> conv4
I0506 03:33:36.509943 12702 net.cpp:144] Setting up conv4
I0506 03:33:36.509958 12702 net.cpp:151] Top shape: 20 128 5 5 (64000)
I0506 03:33:36.509963 12702 net.cpp:159] Memory required for data: 2952080
I0506 03:33:36.509968 12702 layer_factory.hpp:77] Creating layer relu4
I0506 03:33:36.509974 12702 net.cpp:94] Creating Layer relu4
I0506 03:33:36.509979 12702 net.cpp:435] relu4 <- conv4
I0506 03:33:36.509984 12702 net.cpp:396] relu4 -> conv4 (in-place)
I0506 03:33:36.509990 12702 net.cpp:144] Setting up relu4
I0506 03:33:36.509994 12702 net.cpp:151] Top shape: 20 128 5 5 (64000)
I0506 03:33:36.509997 12702 net.cpp:159] Memory required for data: 3208080
I0506 03:33:36.510000 12702 layer_factory.hpp:77] Creating layer conv5
I0506 03:33:36.510007 12702 net.cpp:94] Creating Layer conv5
I0506 03:33:36.510011 12702 net.cpp:435] conv5 <- conv4
I0506 03:33:36.510016 12702 net.cpp:409] conv5 -> conv5
I0506 03:33:36.524782 12702 net.cpp:144] Setting up conv5
I0506 03:33:36.524796 12702 net.cpp:151] Top shape: 20 128 5 5 (64000)
I0506 03:33:36.524801 12702 net.cpp:159] Memory required for data: 3464080
I0506 03:33:36.524809 12702 layer_factory.hpp:77] Creating layer relu5
I0506 03:33:36.524814 12702 net.cpp:94] Creating Layer relu5
I0506 03:33:36.524818 12702 net.cpp:435] relu5 <- conv5
I0506 03:33:36.524823 12702 net.cpp:396] relu5 -> conv5 (in-place)
I0506 03:33:36.524829 12702 net.cpp:144] Setting up relu5
I0506 03:33:36.524834 12702 net.cpp:151] Top shape: 20 128 5 5 (64000)
I0506 03:33:36.524837 12702 net.cpp:159] Memory required for data: 3720080
I0506 03:33:36.524840 12702 layer_factory.hpp:77] Creating layer pool5
I0506 03:33:36.524845 12702 net.cpp:94] Creating Layer pool5
I0506 03:33:36.524849 12702 net.cpp:435] pool5 <- conv5
I0506 03:33:36.524853 12702 net.cpp:409] pool5 -> pool5
I0506 03:33:36.524889 12702 net.cpp:144] Setting up pool5
I0506 03:33:36.524897 12702 net.cpp:151] Top shape: 20 128 2 2 (10240)
I0506 03:33:36.524900 12702 net.cpp:159] Memory required for data: 3761040
I0506 03:33:36.524904 12702 layer_factory.hpp:77] Creating layer ip1
I0506 03:33:36.524909 12702 net.cpp:94] Creating Layer ip1
I0506 03:33:36.524914 12702 net.cpp:435] ip1 <- pool5
I0506 03:33:36.524917 12702 net.cpp:409] ip1 -> ip1
I0506 03:33:36.538230 12702 net.cpp:144] Setting up ip1
I0506 03:33:36.538244 12702 net.cpp:151] Top shape: 20 1024 (20480)
I0506 03:33:36.538249 12702 net.cpp:159] Memory required for data: 3842960
I0506 03:33:36.538254 12702 layer_factory.hpp:77] Creating layer ip2
I0506 03:33:36.538260 12702 net.cpp:94] Creating Layer ip2
I0506 03:33:36.538264 12702 net.cpp:435] ip2 <- ip1
I0506 03:33:36.538269 12702 net.cpp:409] ip2 -> ip2
I0506 03:33:36.551460 12702 net.cpp:144] Setting up ip2
I0506 03:33:36.551472 12702 net.cpp:151] Top shape: 20 512 (10240)
I0506 03:33:36.551476 12702 net.cpp:159] Memory required for data: 3883920
I0506 03:33:36.551482 12702 layer_factory.hpp:77] Creating layer ip3
I0506 03:33:36.551488 12702 net.cpp:94] Creating Layer ip3
I0506 03:33:36.551492 12702 net.cpp:435] ip3 <- ip2
I0506 03:33:36.551497 12702 net.cpp:409] ip3 -> ip3
I0506 03:33:36.553014 12702 net.cpp:144] Setting up ip3
I0506 03:33:36.553027 12702 net.cpp:151] Top shape: 20 50 (1000)
I0506 03:33:36.553031 12702 net.cpp:159] Memory required for data: 3887920
I0506 03:33:36.553037 12702 layer_factory.hpp:77] Creating layer loss
I0506 03:33:36.553045 12702 net.cpp:94] Creating Layer loss
I0506 03:33:36.553047 12702 net.cpp:435] loss <- ip3
I0506 03:33:36.553052 12702 net.cpp:435] loss <- label
I0506 03:33:36.553056 12702 net.cpp:409] loss -> loss
I0506 03:33:36.553063 12702 layer_factory.hpp:77] Creating layer loss
…
I0506 03:33:36.553576 12702 solver.cpp:181] Creating test net (#0) specified by net file: ./protocol/dis_50_100_dimension.protocol_distribution
I0506 03:33:36.553603 12702 net.cpp:323] The NetState phase (1) differed from the phase (0) specified by a rule in layer parameters
I0506 03:33:36.553695 12702 net.cpp:52] Initializing net from parameters: 
state {
  phase: TEST
}
layer {
  name: "intercept"
  type: "HDF5Data"
  top: "data"
  top: "label"
  include {
    phase: TEST
  }
  hdf5_data_param {
    source: "/home/purduethu/scratch/radon/d/deng106/CNNStatisticalModel/distributions/input/50_distributions_100_sample_size_test-distributions-path.txt"
    batch_size: 20
  }
}
layer {
  name: "conv1"
  type: "Convolution"
  bottom: "data"
  top: "conv1"
  param {
    lr_mult: 1
  }
  param {
    lr_mult: 2
  }
  convolution_param {
    num_output: 64
    pad: 2
    kernel_size: 5
    stride: 1
    weight_filler {
      type: "gaussian"
      std: 0.0001
    }
    bias_filler {
      type: "constant"
    }
  }
}
layer {
  name: "relu1"
  type: "ReLU"
  bottom: "conv1"
  top: "conv1"
}
layer {
  name: "conv2"
  type: "Convolution"
  bottom: "conv1"
  top: "conv2"
  param {
    lr_mult: 1
  }
  param {
    lr_mult: 2
  }
  convolution_param {
    num_output: 64
    pad: 2
    kernel_size: 5
    stride: 1
    weight_filler {
      type: "gaussian"
      std: 0.01
    }
    bias_filler {
      type: "constant"
    }
  }
}
layer {
  name: "relu2"
  type: "ReLU"
  bottom: "conv2"
  top: "conv2"
}
layer {
  name: "pool2"
  type: "Pooling"
  bottom: "conv2"
  top: "pool2"
  pooling_param {
    pool: MAX
    kernel_size: 3
    stride: 2
  }
}
layer {
  name: "conv3"
  type: "Convolution"
  bottom: "pool2"
  top: "conv3"
  param {
    lr_mult: 1
  }
  param {
    lr_mult: 2
  }
  convolution_param {
    num_output: 128
    pad: 2
    kernel_size: 5
    stride: 1
    weight_filler {
      type: "gaussian"
      std: 0.01
    }
    bias_filler {
      type: "constant"
    }
  }
}
layer {
  name: "relu3"
  type: "ReLU"
  bottom: "conv3"
  top: "conv3"
}
layer {
  name: "conv4"
  type: "Convolution"
  bottom: "conv3"
  top: "conv4"
  param {
    lr_mult: 1
  }
  param {
    lr_mult: 2
  }
  convolution_param {
    num_output: 128
    pad: 2
    kernel_size: 5
    stride: 1
    weight_filler {
      type: "gaussian"
      std: 0.01
    }
    bias_filler {
      type: "constant"
    }
  }
}
layer {
  name: "relu4"
  type: "ReLU"
  bottom: "conv4"
  top: "conv4"
}
layer {
  name: "conv5"
  type: "Convolution"
  bottom: "conv4"
  top: "conv5"
  param {
    lr_mult: 1
  }
  param {
    lr_mult: 2
  }
  convolution_param {
    num_output: 128
    pad: 2
    kernel_size: 5
    stride: 1
    weight_filler {
      type: "gaussian"
      std: 0.01
    }
    bias_filler {
      type: "constant"
    }
  }
}
layer {
  name: "relu5"
  type: "ReLU"
  bottom: "conv5"
  top: "conv5"
}
layer {
  name: "pool5"
  type: "Pooling"
  bottom: "conv5"
  top: "pool5"
  pooling_param {
    pool: AVE
    kernel_size: 3
    stride: 2
  }
}
layer {
  name: "ip1"
  type: "InnerProduct"
  bottom: "pool5"
  top: "ip1"
  param {
    lr_mult: 1
  }
  param {
    lr_mult: 2
  }
  inner_product_param {
    num_output: 1024
    weight_filler {
      type: "gaussian"
      std: 0.1
    }
    bias_filler {
      type: "constant"
    }
  }
}
layer {
  name: "ip2"
  type: "InnerProduct"
  bottom: "ip1"
  top: "ip2"
  param {
    lr_mult: 1
  }
  param {
    lr_mult: 2
  }
  inner_product_param {
    num_output: 512
    weight_filler {
      type: "gaussian"
      std: 0.1
    }
    bias_filler {
      type: "constant"
    }
  }
}
layer {
  name: "ip3"
  type: "InnerProduct"
  bottom: "ip2"
  top: "ip3"
  param {
    lr_mult: 1
  }
  param {
    lr_mult: 2
  }
  inner_product_param {
    num_output: 50
    weight_filler {
      type: "gaussian"
      std: 0.1
    }
    bias_filler {
      type: "constant"
    }
  }
}
layer {
  name: "accuracy"
  type: "Accuracy"
  bottom: "ip3"
  bottom: "label"
  top: "accuracy"
  include {
    phase: TEST
  }
}
layer {
  name: "loss"
  type: "SoftmaxWithLoss"
  bottom: "ip3"
  bottom: "label"
  top: "loss"
}
I0506 03:33:36.553759 12702 layer_factory.hpp:77] Creating layer intercept
I0506 03:33:36.553768 12702 net.cpp:94] Creating Layer intercept
I0506 03:33:36.553772 12702 net.cpp:409] intercept -> data
I0506 03:33:36.553779 12702 net.cpp:409] intercept -> label
I0506 03:33:36.553784 12702 hdf5_data_layer.cpp:79] Loading list of HDF5 filenames from: /home/purduethu/scratch/radon/d/deng106/CNNStatisticalModel/distributions/input/50_distributions_100_sample_size_test-distributions-path.txt
I0506 03:33:36.553804 12702 hdf5_data_layer.cpp:93] Number of HDF5 files: 1
I0506 03:33:36.594218 12702 net.cpp:144] Setting up intercept
I0506 03:33:36.594250 12702 net.cpp:151] Top shape: 20 1 10 10 (2000)
I0506 03:33:36.594256 12702 net.cpp:151] Top shape: 20 (20)
I0506 03:33:36.594259 12702 net.cpp:159] Memory required for data: 8080
I0506 03:33:36.594264 12702 layer_factory.hpp:77] Creating layer label_intercept_1_split
I0506 03:33:36.594285 12702 net.cpp:94] Creating Layer label_intercept_1_split
I0506 03:33:36.594288 12702 net.cpp:435] label_intercept_1_split <- label
I0506 03:33:36.594295 12702 net.cpp:409] label_intercept_1_split -> label_intercept_1_split_0
I0506 03:33:36.594302 12702 net.cpp:409] label_intercept_1_split -> label_intercept_1_split_1
I0506 03:33:36.594343 12702 net.cpp:144] Setting up label_intercept_1_split
I0506 03:33:36.594350 12702 net.cpp:151] Top shape: 20 (20)
I0506 03:33:36.594353 12702 net.cpp:151] Top shape: 20 (20)
I0506 03:33:36.594357 12702 net.cpp:159] Memory required for data: 8240
I0506 03:33:36.594359 12702 layer_factory.hpp:77] Creating layer conv1
I0506 03:33:36.594370 12702 net.cpp:94] Creating Layer conv1
I0506 03:33:36.594373 12702 net.cpp:435] conv1 <- data
I0506 03:33:36.594378 12702 net.cpp:409] conv1 -> conv1
I0506 03:33:36.595224 12702 net.cpp:144] Setting up conv1
I0506 03:33:36.595237 12702 net.cpp:151] Top shape: 20 64 10 10 (128000)
I0506 03:33:36.595240 12702 net.cpp:159] Memory required for data: 520240
I0506 03:33:36.595249 12702 layer_factory.hpp:77] Creating layer relu1
I0506 03:33:36.595257 12702 net.cpp:94] Creating Layer relu1
I0506 03:33:36.595259 12702 net.cpp:435] relu1 <- conv1
I0506 03:33:36.595263 12702 net.cpp:396] relu1 -> conv1 (in-place)
I0506 03:33:36.595271 12702 net.cpp:144] Setting up relu1
I0506 03:33:36.595275 12702 net.cpp:151] Top shape: 20 64 10 10 (128000)
I0506 03:33:36.595285 12702 net.cpp:159] Memory required for data: 1032240
I0506 03:33:36.595289 12702 layer_factory.hpp:77] Creating layer conv2
I0506 03:33:36.595299 12702 net.cpp:94] Creating Layer conv2
I0506 03:33:36.595301 12702 net.cpp:435] conv2 <- conv1
I0506 03:33:36.595306 12702 net.cpp:409] conv2 -> conv2
I0506 03:33:36.599400 12702 net.cpp:144] Setting up conv2
I0506 03:33:36.599414 12702 net.cpp:151] Top shape: 20 64 10 10 (128000)
I0506 03:33:36.599418 12702 net.cpp:159] Memory required for data: 1544240
I0506 03:33:36.599426 12702 layer_factory.hpp:77] Creating layer relu2
I0506 03:33:36.599432 12702 net.cpp:94] Creating Layer relu2
I0506 03:33:36.599436 12702 net.cpp:435] relu2 <- conv2
I0506 03:33:36.599439 12702 net.cpp:396] relu2 -> conv2 (in-place)
I0506 03:33:36.599447 12702 net.cpp:144] Setting up relu2
I0506 03:33:36.599450 12702 net.cpp:151] Top shape: 20 64 10 10 (128000)
I0506 03:33:36.599453 12702 net.cpp:159] Memory required for data: 2056240
I0506 03:33:36.599457 12702 layer_factory.hpp:77] Creating layer pool2
I0506 03:33:36.599463 12702 net.cpp:94] Creating Layer pool2
I0506 03:33:36.599467 12702 net.cpp:435] pool2 <- conv2
I0506 03:33:36.599470 12702 net.cpp:409] pool2 -> pool2
I0506 03:33:36.599525 12702 net.cpp:144] Setting up pool2
I0506 03:33:36.599532 12702 net.cpp:151] Top shape: 20 64 5 5 (32000)
I0506 03:33:36.599535 12702 net.cpp:159] Memory required for data: 2184240
I0506 03:33:36.599539 12702 layer_factory.hpp:77] Creating layer conv3
I0506 03:33:36.599548 12702 net.cpp:94] Creating Layer conv3
I0506 03:33:36.599551 12702 net.cpp:435] conv3 <- pool2
I0506 03:33:36.599556 12702 net.cpp:409] conv3 -> conv3
I0506 03:33:36.605686 12702 net.cpp:144] Setting up conv3
I0506 03:33:36.605698 12702 net.cpp:151] Top shape: 20 128 5 5 (64000)
I0506 03:33:36.605702 12702 net.cpp:159] Memory required for data: 2440240
I0506 03:33:36.605710 12702 layer_factory.hpp:77] Creating layer relu3
I0506 03:33:36.605716 12702 net.cpp:94] Creating Layer relu3
I0506 03:33:36.605720 12702 net.cpp:435] relu3 <- conv3
I0506 03:33:36.605726 12702 net.cpp:396] relu3 -> conv3 (in-place)
I0506 03:33:36.605732 12702 net.cpp:144] Setting up relu3
I0506 03:33:36.605736 12702 net.cpp:151] Top shape: 20 128 5 5 (64000)
I0506 03:33:36.605739 12702 net.cpp:159] Memory required for data: 2696240
I0506 03:33:36.605742 12702 layer_factory.hpp:77] Creating layer conv4
I0506 03:33:36.605751 12702 net.cpp:94] Creating Layer conv4
I0506 03:33:36.605753 12702 net.cpp:435] conv4 <- conv3
I0506 03:33:36.605758 12702 net.cpp:409] conv4 -> conv4
I0506 03:33:36.618551 12702 net.cpp:144] Setting up conv4
I0506 03:33:36.618584 12702 net.cpp:151] Top shape: 20 128 5 5 (64000)
I0506 03:33:36.618595 12702 net.cpp:159] Memory required for data: 2952240
I0506 03:33:36.618613 12702 layer_factory.hpp:77] Creating layer relu4
I0506 03:33:36.618628 12702 net.cpp:94] Creating Layer relu4
I0506 03:33:36.618638 12702 net.cpp:435] relu4 <- conv4
I0506 03:33:36.618659 12702 net.cpp:396] relu4 -> conv4 (in-place)
I0506 03:33:36.618664 12702 net.cpp:144] Setting up relu4
I0506 03:33:36.618669 12702 net.cpp:151] Top shape: 20 128 5 5 (64000)
I0506 03:33:36.618671 12702 net.cpp:159] Memory required for data: 3208240
I0506 03:33:36.618674 12702 layer_factory.hpp:77] Creating layer conv5
I0506 03:33:36.618683 12702 net.cpp:94] Creating Layer conv5
I0506 03:33:36.618686 12702 net.cpp:435] conv5 <- conv4
I0506 03:33:36.618692 12702 net.cpp:409] conv5 -> conv5
I0506 03:33:36.631189 12702 net.cpp:144] Setting up conv5
I0506 03:33:36.631203 12702 net.cpp:151] Top shape: 20 128 5 5 (64000)
I0506 03:33:36.631207 12702 net.cpp:159] Memory required for data: 3464240
I0506 03:33:36.631216 12702 layer_factory.hpp:77] Creating layer relu5
I0506 03:33:36.631222 12702 net.cpp:94] Creating Layer relu5
I0506 03:33:36.631224 12702 net.cpp:435] relu5 <- conv5
I0506 03:33:36.631230 12702 net.cpp:396] relu5 -> conv5 (in-place)
I0506 03:33:36.631237 12702 net.cpp:144] Setting up relu5
I0506 03:33:36.631242 12702 net.cpp:151] Top shape: 20 128 5 5 (64000)
I0506 03:33:36.631249 12702 net.cpp:159] Memory required for data: 3720240
I0506 03:33:36.631253 12702 layer_factory.hpp:77] Creating layer pool5
I0506 03:33:36.631258 12702 net.cpp:94] Creating Layer pool5
I0506 03:33:36.631261 12702 net.cpp:435] pool5 <- conv5
I0506 03:33:36.631266 12702 net.cpp:409] pool5 -> pool5
I0506 03:33:36.631304 12702 net.cpp:144] Setting up pool5
I0506 03:33:36.631310 12702 net.cpp:151] Top shape: 20 128 2 2 (10240)
I0506 03:33:36.631314 12702 net.cpp:159] Memory required for data: 3761200
I0506 03:33:36.631316 12702 layer_factory.hpp:77] Creating layer ip1
I0506 03:33:36.631325 12702 net.cpp:94] Creating Layer ip1
I0506 03:33:36.631330 12702 net.cpp:435] ip1 <- pool5
I0506 03:33:36.631333 12702 net.cpp:409] ip1 -> ip1
I0506 03:33:36.644418 12702 net.cpp:144] Setting up ip1
I0506 03:33:36.644429 12702 net.cpp:151] Top shape: 20 1024 (20480)
I0506 03:33:36.644433 12702 net.cpp:159] Memory required for data: 3843120
I0506 03:33:36.644439 12702 layer_factory.hpp:77] Creating layer ip2
I0506 03:33:36.644448 12702 net.cpp:94] Creating Layer ip2
I0506 03:33:36.644450 12702 net.cpp:435] ip2 <- ip1
I0506 03:33:36.644455 12702 net.cpp:409] ip2 -> ip2
I0506 03:33:36.657582 12702 net.cpp:144] Setting up ip2
I0506 03:33:36.657595 12702 net.cpp:151] Top shape: 20 512 (10240)
I0506 03:33:36.657599 12702 net.cpp:159] Memory required for data: 3884080
I0506 03:33:36.657604 12702 layer_factory.hpp:77] Creating layer ip3
I0506 03:33:36.657614 12702 net.cpp:94] Creating Layer ip3
I0506 03:33:36.657618 12702 net.cpp:435] ip3 <- ip2
I0506 03:33:36.657624 12702 net.cpp:409] ip3 -> ip3
I0506 03:33:36.658350 12702 net.cpp:144] Setting up ip3
I0506 03:33:36.658359 12702 net.cpp:151] Top shape: 20 50 (1000)
I0506 03:33:36.658361 12702 net.cpp:159] Memory required for data: 3888080
I0506 03:33:36.658366 12702 layer_factory.hpp:77] Creating layer ip3_ip3_0_split
I0506 03:33:36.658371 12702 net.cpp:94] Creating Layer ip3_ip3_0_split
I0506 03:33:36.658375 12702 net.cpp:435] ip3_ip3_0_split <- ip3
I0506 03:33:36.658380 12702 net.cpp:409] ip3_ip3_0_split -> ip3_ip3_0_split_0
I0506 03:33:36.658385 12702 net.cpp:409] ip3_ip3_0_split -> ip3_ip3_0_split_1
I0506 03:33:36.658427 12702 net.cpp:144] Setting up ip3_ip3_0_split
I0506 03:33:36.658432 12702 net.cpp:151] Top shape: 20 50 (1000)
I0506 03:33:36.658437 12702 net.cpp:151] Top shape: 20 50 (1000)
I0506 03:33:36.658439 12702 net.cpp:159] Memory required for data: 3896080
I0506 03:33:36.658442 12702 layer_factory.hpp:77] Creating layer accuracy
I0506 03:33:36.658447 12702 net.cpp:94] Creating Layer accuracy
I0506 03:33:36.658450 12702 net.cpp:435] accuracy <- ip3_ip3_0_split_0
I0506 03:33:36.658454 12702 net.cpp:435] accuracy <- label_intercept_1_split_0
I0506 03:33:36.658458 12702 net.cpp:409] accuracy -> accuracy
…
