…
I0505 00:50:21.654872  1434 net.cpp:323] The NetState phase (0) differed from the phase (1) specified by a rule in layer intercept
I0505 00:50:21.654887  1434 net.cpp:323] The NetState phase (0) differed from the phase (1) specified by a rule in layer loss
I0505 00:50:21.654966  1434 net.cpp:52] Initializing net from parameters: 
state {
  phase: TRAIN
}
layer {
  name: "parameters"
  type: "HDF5Data"
  top: "data"
  top: "label"
  include {
    phase: TRAIN
  }
  hdf5_data_param {
    source: "/home/purduethu/scratch/radon/d/deng106/CNNStatisticalModel/distributions/input/5_distributions_100_sample_size_train-parameters-path.txt"
    batch_size: 20
  }
}
layer {
  name: "conv1"
  type: "Convolution"
  bottom: "data"
  top: "conv1"
  param {
    lr_mult: 1
  }
  param {
    lr_mult: 2
  }
  convolution_param {
    num_output: 64
    pad: 2
    kernel_size: 5
    stride: 1
    weight_filler {
      type: "gaussian"
      std: 0.0001
    }
    bias_filler {
      type: "constant"
    }
  }
}
layer {
  name: "relu1"
  type: "ReLU"
  bottom: "conv1"
  top: "conv1"
}
layer {
  name: "pool1"
  type: "Pooling"
  bottom: "conv1"
  top: "pool1"
  pooling_param {
    pool: MAX
    kernel_size: 3
    stride: 2
  }
}
layer {
  name: "conv2"
  type: "Convolution"
  bottom: "pool1"
  top: "conv2"
  param {
    lr_mult: 1
  }
  param {
    lr_mult: 2
  }
  convolution_param {
    num_output: 128
    pad: 2
    kernel_size: 5
    stride: 1
    weight_filler {
      type: "gaussian"
      std: 0.01
    }
    bias_filler {
      type: "constant"
    }
  }
}
layer {
  name: "relu2"
  type: "ReLU"
  bottom: "conv2"
  top: "conv2"
}
layer {
  name: "conv3"
  type: "Convolution"
  bottom: "conv2"
  top: "conv3"
  param {
    lr_mult: 1
  }
  param {
    lr_mult: 2
  }
  convolution_param {
    num_output: 128
    pad: 2
    kernel_size: 5
    stride: 1
    weight_filler {
      type: "gaussian"
      std: 0.01
    }
    bias_filler {
      type: "constant"
    }
  }
}
layer {
  name: "relu3"
  type: "ReLU"
  bottom: "conv3"
  top: "conv3"
}
layer {
  name: "pool3"
  type: "Pooling"
  bottom: "conv3"
  top: "pool3"
  pooling_param {
    pool: AVE
    kernel_size: 3
    stride: 2
  }
}
layer {
  name: "ip1"
  type: "InnerProduct"
  bottom: "pool3"
  top: "ip1"
  param {
    lr_mult: 1
  }
  param {
    lr_mult: 2
  }
  inner_product_param {
    num_output: 512
    weight_filler {
      type: "gaussian"
      std: 0.1
    }
    bias_filler {
      type: "constant"
    }
  }
}
layer {
  name: "ip2"
  type: "InnerProduct"
  bottom: "ip1"
  top: "ip2"
  param {
    lr_mult: 1
  }
  param {
    lr_mult: 2
  }
  inner_product_param {
    num_output: 256
    weight_filler {
      type: "gaussian"
      std: 0.1
    }
    bias_filler {
      type: "constant"
    }
  }
}
layer {
  name: "ip3"
  type: "InnerProduct"
  bottom: "ip2"
  top: "ip3"
  param {
    lr_mult: 1
  }
  param {
    lr_mult: 2
  }
  inner_product_param {
    num_output: 1
    weight_filler {
      type: "gaussian"
      std: 0.1
    }
    bias_filler {
      type: "constant"
    }
  }
}
layer {
  name: "loss"
  type: "HuberLoss"
  bottom: "ip3"
  bottom: "label"
  top: "loss"
  include {
    phase: TRAIN
  }
}
I0505 00:50:21.655028  1434 layer_factory.hpp:77] Creating layer parameters
I0505 00:50:21.655043  1434 net.cpp:94] Creating Layer parameters
I0505 00:50:21.655057  1434 net.cpp:409] parameters -> data
I0505 00:50:21.655076  1434 net.cpp:409] parameters -> label
I0505 00:50:21.655087  1434 hdf5_data_layer.cpp:79] Loading list of HDF5 filenames from: /home/purduethu/scratch/radon/d/deng106/CNNStatisticalModel/distributions/input/5_distributions_100_sample_size_train-parameters-path.txt
I0505 00:50:21.655110  1434 hdf5_data_layer.cpp:93] Number of HDF5 files: 1
I0505 00:50:21.655602  1434 hdf5.cpp:32] Datatype class: H5T_FLOAT
I0505 00:50:21.673069  1434 net.cpp:144] Setting up parameters
I0505 00:50:21.673094  1434 net.cpp:151] Top shape: 20 1 10 10 (2000)
I0505 00:50:21.673099  1434 net.cpp:151] Top shape: 20 (20)
I0505 00:50:21.673102  1434 net.cpp:159] Memory required for data: 8080
I0505 00:50:21.673110  1434 layer_factory.hpp:77] Creating layer conv1
I0505 00:50:21.673130  1434 net.cpp:94] Creating Layer conv1
I0505 00:50:21.673135  1434 net.cpp:435] conv1 <- data
I0505 00:50:21.673146  1434 net.cpp:409] conv1 -> conv1
I0505 00:50:21.676945  1434 net.cpp:144] Setting up conv1
I0505 00:50:21.676961  1434 net.cpp:151] Top shape: 20 64 10 10 (128000)
I0505 00:50:21.676965  1434 net.cpp:159] Memory required for data: 520080
I0505 00:50:21.676977  1434 layer_factory.hpp:77] Creating layer relu1
I0505 00:50:21.676985  1434 net.cpp:94] Creating Layer relu1
I0505 00:50:21.676990  1434 net.cpp:435] relu1 <- conv1
I0505 00:50:21.676993  1434 net.cpp:396] relu1 -> conv1 (in-place)
I0505 00:50:21.677009  1434 net.cpp:144] Setting up relu1
I0505 00:50:21.677014  1434 net.cpp:151] Top shape: 20 64 10 10 (128000)
I0505 00:50:21.677017  1434 net.cpp:159] Memory required for data: 1032080
I0505 00:50:21.677021  1434 layer_factory.hpp:77] Creating layer pool1
I0505 00:50:21.677028  1434 net.cpp:94] Creating Layer pool1
I0505 00:50:21.677031  1434 net.cpp:435] pool1 <- conv1
I0505 00:50:21.677037  1434 net.cpp:409] pool1 -> pool1
I0505 00:50:21.677080  1434 net.cpp:144] Setting up pool1
I0505 00:50:21.677088  1434 net.cpp:151] Top shape: 20 64 5 5 (32000)
I0505 00:50:21.677090  1434 net.cpp:159] Memory required for data: 1160080
I0505 00:50:21.677094  1434 layer_factory.hpp:77] Creating layer conv2
I0505 00:50:21.677103  1434 net.cpp:94] Creating Layer conv2
I0505 00:50:21.677108  1434 net.cpp:435] conv2 <- pool1
I0505 00:50:21.677111  1434 net.cpp:409] conv2 -> conv2
I0505 00:50:21.685957  1434 net.cpp:144] Setting up conv2
I0505 00:50:21.685981  1434 net.cpp:151] Top shape: 20 128 5 5 (64000)
I0505 00:50:21.685986  1434 net.cpp:159] Memory required for data: 1416080
I0505 00:50:21.685995  1434 layer_factory.hpp:77] Creating layer relu2
I0505 00:50:21.686003  1434 net.cpp:94] Creating Layer relu2
I0505 00:50:21.686007  1434 net.cpp:435] relu2 <- conv2
I0505 00:50:21.686012  1434 net.cpp:396] relu2 -> conv2 (in-place)
I0505 00:50:21.686020  1434 net.cpp:144] Setting up relu2
I0505 00:50:21.686025  1434 net.cpp:151] Top shape: 20 128 5 5 (64000)
I0505 00:50:21.686028  1434 net.cpp:159] Memory required for data: 1672080
I0505 00:50:21.686031  1434 layer_factory.hpp:77] Creating layer conv3
I0505 00:50:21.686040  1434 net.cpp:94] Creating Layer conv3
I0505 00:50:21.686043  1434 net.cpp:435] conv3 <- conv2
I0505 00:50:21.686048  1434 net.cpp:409] conv3 -> conv3
I0505 00:50:21.701036  1434 net.cpp:144] Setting up conv3
I0505 00:50:21.701067  1434 net.cpp:151] Top shape: 20 128 5 5 (64000)
I0505 00:50:21.701071  1434 net.cpp:159] Memory required for data: 1928080
I0505 00:50:21.701083  1434 layer_factory.hpp:77] Creating layer relu3
I0505 00:50:21.701092  1434 net.cpp:94] Creating Layer relu3
I0505 00:50:21.701102  1434 net.cpp:435] relu3 <- conv3
I0505 00:50:21.701109  1434 net.cpp:396] relu3 -> conv3 (in-place)
I0505 00:50:21.701118  1434 net.cpp:144] Setting up relu3
I0505 00:50:21.701123  1434 net.cpp:151] Top shape: 20 128 5 5 (64000)
I0505 00:50:21.701126  1434 net.cpp:159] Memory required for data: 2184080
I0505 00:50:21.701129  1434 layer_factory.hpp:77] Creating layer pool3
I0505 00:50:21.701138  1434 net.cpp:94] Creating Layer pool3
I0505 00:50:21.701140  1434 net.cpp:435] pool3 <- conv3
I0505 00:50:21.701153  1434 net.cpp:409] pool3 -> pool3
I0505 00:50:21.701195  1434 net.cpp:144] Setting up pool3
I0505 00:50:21.701202  1434 net.cpp:151] Top shape: 20 128 2 2 (10240)
I0505 00:50:21.701205  1434 net.cpp:159] Memory required for data: 2225040
I0505 00:50:21.701208  1434 layer_factory.hpp:77] Creating layer ip1
I0505 00:50:21.701220  1434 net.cpp:94] Creating Layer ip1
I0505 00:50:21.701223  1434 net.cpp:435] ip1 <- pool3
I0505 00:50:21.701227  1434 net.cpp:409] ip1 -> ip1
I0505 00:50:21.708420  1434 net.cpp:144] Setting up ip1
I0505 00:50:21.708439  1434 net.cpp:151] Top shape: 20 512 (10240)
I0505 00:50:21.708443  1434 net.cpp:159] Memory required for data: 2266000
I0505 00:50:21.708451  1434 layer_factory.hpp:77] Creating layer ip2
I0505 00:50:21.708458  1434 net.cpp:94] Creating Layer ip2
I0505 00:50:21.708462  1434 net.cpp:435] ip2 <- ip1
I0505 00:50:21.708467  1434 net.cpp:409] ip2 -> ip2
I0505 00:50:21.712353  1434 net.cpp:144] Setting up ip2
I0505 00:50:21.712368  1434 net.cpp:151] Top shape: 20 256 (5120)
I0505 00:50:21.712373  1434 net.cpp:159] Memory required for data: 2286480
I0505 00:50:21.712380  1434 layer_factory.hpp:77] Creating layer ip3
I0505 00:50:21.712388  1434 net.cpp:94] Creating Layer ip3
I0505 00:50:21.712391  1434 net.cpp:435] ip3 <- ip2
I0505 00:50:21.712396  1434 net.cpp:409] ip3 -> ip3
I0505 00:50:21.712466  1434 net.cpp:144] Setting up ip3
I0505 00:50:21.712472  1434 net.cpp:151] Top shape: 20 1 (20)
I0505 00:50:21.712476  1434 net.cpp:159] Memory required for data: 2286560
I0505 00:50:21.712481  1434 layer_factory.hpp:77] Creating layer loss
I0505 00:50:21.712492  1434 net.cpp:94] Creating Layer loss
I0505 00:50:21.712496  1434 net.cpp:435] loss <- ip3
I0505 00:50:21.712501  1434 net.cpp:435] loss <- label
I0505 00:50:21.712507  1434 net.cpp:409] loss -> loss
I0505 00:50:21.712543  1434 net.cpp:144] Setting up loss
…
