…
I0503 07:36:43.426393 19077 net.cpp:323] The NetState phase (0) differed from the phase (1) specified by a rule in layer intercept
I0503 07:36:43.426409 19077 net.cpp:323] The NetState phase (0) differed from the phase (1) specified by a rule in layer loss
I0503 07:36:43.426508 19077 net.cpp:52] Initializing net from parameters: 
state {
  phase: TRAIN
}
layer {
  name: "parameters"
  type: "HDF5Data"
  top: "data"
  top: "label"
  include {
    phase: TRAIN
  }
  hdf5_data_param {
    source: "/home/purduethu/scratch/radon/d/deng106/CNNStatisticalModel/distributions/input/20_distributions_900_sample_size_train-parameters-path.txt"
    batch_size: 20
  }
}
layer {
  name: "conv1"
  type: "Convolution"
  bottom: "data"
  top: "conv1"
  param {
    lr_mult: 1
  }
  param {
    lr_mult: 2
  }
  convolution_param {
    num_output: 64
    pad: 2
    kernel_size: 5
    stride: 1
    weight_filler {
      type: "gaussian"
      std: 0.0001
    }
    bias_filler {
      type: "constant"
    }
  }
}
layer {
  name: "relu1"
  type: "ReLU"
  bottom: "conv1"
  top: "conv1"
}
layer {
  name: "conv2"
  type: "Convolution"
  bottom: "conv1"
  top: "conv2"
  param {
    lr_mult: 1
  }
  param {
    lr_mult: 2
  }
  convolution_param {
    num_output: 64
    pad: 2
    kernel_size: 5
    stride: 1
    weight_filler {
      type: "gaussian"
      std: 0.01
    }
    bias_filler {
      type: "constant"
    }
  }
}
layer {
  name: "relu2"
  type: "ReLU"
  bottom: "conv2"
  top: "conv2"
}
layer {
  name: "pool2"
  type: "Pooling"
  bottom: "conv2"
  top: "pool2"
  pooling_param {
    pool: MAX
    kernel_size: 3
    stride: 2
  }
}
layer {
  name: "conv3"
  type: "Convolution"
  bottom: "pool2"
  top: "conv3"
  param {
    lr_mult: 1
  }
  param {
    lr_mult: 2
  }
  convolution_param {
    num_output: 128
    pad: 2
    kernel_size: 5
    stride: 1
    weight_filler {
      type: "gaussian"
      std: 0.01
    }
    bias_filler {
      type: "constant"
    }
  }
}
layer {
  name: "relu3"
  type: "ReLU"
  bottom: "conv3"
  top: "conv3"
}
layer {
  name: "conv4"
  type: "Convolution"
  bottom: "conv3"
  top: "conv4"
  param {
    lr_mult: 1
  }
  param {
    lr_mult: 2
  }
  convolution_param {
    num_output: 128
    pad: 2
    kernel_size: 5
    stride: 1
    weight_filler {
      type: "gaussian"
      std: 0.01
    }
    bias_filler {
      type: "constant"
    }
  }
}
layer {
  name: "relu4"
  type: "ReLU"
  bottom: "conv4"
  top: "conv4"
}
layer {
  name: "conv5"
  type: "Convolution"
  bottom: "conv4"
  top: "conv5"
  param {
    lr_mult: 1
  }
  param {
    lr_mult: 2
  }
  convolution_param {
    num_output: 128
    pad: 2
    kernel_size: 5
    stride: 1
    weight_filler {
      type: "gaussian"
      std: 0.01
    }
    bias_filler {
      type: "constant"
    }
  }
}
layer {
  name: "relu5"
  type: "ReLU"
  bottom: "conv5"
  top: "conv5"
}
layer {
  name: "pool5"
  type: "Pooling"
  bottom: "conv5"
  top: "pool5"
  pooling_param {
    pool: AVE
    kernel_size: 3
    stride: 2
  }
}
layer {
  name: "ip1"
  type: "InnerProduct"
  bottom: "pool5"
  top: "ip1"
  param {
    lr_mult: 1
  }
  param {
    lr_mult: 2
  }
  inner_product_param {
    num_output: 1024
    weight_filler {
      type: "gaussian"
      std: 0.1
    }
    bias_filler {
      type: "constant"
    }
  }
}
layer {
  name: "ip2"
  type: "InnerProduct"
  bottom: "ip1"
  top: "ip2"
  param {
    lr_mult: 1
  }
  param {
    lr_mult: 2
  }
  inner_product_param {
    num_output: 512
    weight_filler {
      type: "gaussian"
      std: 0.1
    }
    bias_filler {
      type: "constant"
    }
  }
}
layer {
  name: "ip3"
  type: "InnerProduct"
  bottom: "ip2"
  top: "ip3"
  param {
    lr_mult: 1
  }
  param {
    lr_mult: 2
  }
  inner_product_param {
    num_output: 1
    weight_filler {
      type: "gaussian"
      std: 0.1
    }
    bias_filler {
      type: "constant"
    }
  }
}
layer {
  name: "loss"
  type: "HuberLoss"
  bottom: "ip3"
  bottom: "label"
  top: "loss"
  include {
    phase: TRAIN
  }
}
I0503 07:36:43.426584 19077 layer_factory.hpp:77] Creating layer parameters
I0503 07:36:43.426600 19077 net.cpp:94] Creating Layer parameters
I0503 07:36:43.426606 19077 net.cpp:409] parameters -> data
I0503 07:36:43.426625 19077 net.cpp:409] parameters -> label
I0503 07:36:43.426636 19077 hdf5_data_layer.cpp:79] Loading list of HDF5 filenames from: /home/purduethu/scratch/radon/d/deng106/CNNStatisticalModel/distributions/input/20_distributions_900_sample_size_train-parameters-path.txt
I0503 07:36:43.426659 19077 hdf5_data_layer.cpp:93] Number of HDF5 files: 1
I0503 07:36:43.427232 19077 hdf5.cpp:32] Datatype class: H5T_FLOAT
I0503 07:36:44.006484 19077 net.cpp:144] Setting up parameters
I0503 07:36:44.006515 19077 net.cpp:151] Top shape: 20 1 30 30 (18000)
I0503 07:36:44.006521 19077 net.cpp:151] Top shape: 20 (20)
I0503 07:36:44.006525 19077 net.cpp:159] Memory required for data: 72080
I0503 07:36:44.006532 19077 layer_factory.hpp:77] Creating layer conv1
I0503 07:36:44.006556 19077 net.cpp:94] Creating Layer conv1
I0503 07:36:44.006562 19077 net.cpp:435] conv1 <- data
I0503 07:36:44.006574 19077 net.cpp:409] conv1 -> conv1
I0503 07:36:44.012392 19077 net.cpp:144] Setting up conv1
I0503 07:36:44.012408 19077 net.cpp:151] Top shape: 20 64 30 30 (1152000)
I0503 07:36:44.012411 19077 net.cpp:159] Memory required for data: 4680080
I0503 07:36:44.012423 19077 layer_factory.hpp:77] Creating layer relu1
I0503 07:36:44.012430 19077 net.cpp:94] Creating Layer relu1
I0503 07:36:44.012434 19077 net.cpp:435] relu1 <- conv1
I0503 07:36:44.012439 19077 net.cpp:396] relu1 -> conv1 (in-place)
I0503 07:36:44.012455 19077 net.cpp:144] Setting up relu1
I0503 07:36:44.012460 19077 net.cpp:151] Top shape: 20 64 30 30 (1152000)
I0503 07:36:44.012464 19077 net.cpp:159] Memory required for data: 9288080
I0503 07:36:44.012467 19077 layer_factory.hpp:77] Creating layer conv2
I0503 07:36:44.012475 19077 net.cpp:94] Creating Layer conv2
I0503 07:36:44.012480 19077 net.cpp:435] conv2 <- conv1
I0503 07:36:44.012485 19077 net.cpp:409] conv2 -> conv2
I0503 07:36:44.027055 19077 net.cpp:144] Setting up conv2
I0503 07:36:44.027071 19077 net.cpp:151] Top shape: 20 64 30 30 (1152000)
I0503 07:36:44.027076 19077 net.cpp:159] Memory required for data: 13896080
I0503 07:36:44.027083 19077 layer_factory.hpp:77] Creating layer relu2
I0503 07:36:44.027091 19077 net.cpp:94] Creating Layer relu2
I0503 07:36:44.027094 19077 net.cpp:435] relu2 <- conv2
I0503 07:36:44.027099 19077 net.cpp:396] relu2 -> conv2 (in-place)
I0503 07:36:44.027107 19077 net.cpp:144] Setting up relu2
I0503 07:36:44.027112 19077 net.cpp:151] Top shape: 20 64 30 30 (1152000)
I0503 07:36:44.027114 19077 net.cpp:159] Memory required for data: 18504080
I0503 07:36:44.027117 19077 layer_factory.hpp:77] Creating layer pool2
I0503 07:36:44.027125 19077 net.cpp:94] Creating Layer pool2
I0503 07:36:44.027134 19077 net.cpp:435] pool2 <- conv2
I0503 07:36:44.027140 19077 net.cpp:409] pool2 -> pool2
I0503 07:36:44.027184 19077 net.cpp:144] Setting up pool2
I0503 07:36:44.027192 19077 net.cpp:151] Top shape: 20 64 15 15 (288000)
I0503 07:36:44.027195 19077 net.cpp:159] Memory required for data: 19656080
I0503 07:36:44.027199 19077 layer_factory.hpp:77] Creating layer conv3
I0503 07:36:44.027206 19077 net.cpp:94] Creating Layer conv3
I0503 07:36:44.027210 19077 net.cpp:435] conv3 <- pool2
I0503 07:36:44.027216 19077 net.cpp:409] conv3 -> conv3
I0503 07:36:44.039463 19077 net.cpp:144] Setting up conv3
I0503 07:36:44.039479 19077 net.cpp:151] Top shape: 20 128 15 15 (576000)
I0503 07:36:44.039484 19077 net.cpp:159] Memory required for data: 21960080
I0503 07:36:44.039491 19077 layer_factory.hpp:77] Creating layer relu3
I0503 07:36:44.039497 19077 net.cpp:94] Creating Layer relu3
I0503 07:36:44.039501 19077 net.cpp:435] relu3 <- conv3
I0503 07:36:44.039506 19077 net.cpp:396] relu3 -> conv3 (in-place)
I0503 07:36:44.039513 19077 net.cpp:144] Setting up relu3
I0503 07:36:44.039518 19077 net.cpp:151] Top shape: 20 128 15 15 (576000)
I0503 07:36:44.039521 19077 net.cpp:159] Memory required for data: 24264080
I0503 07:36:44.039525 19077 layer_factory.hpp:77] Creating layer conv4
I0503 07:36:44.039533 19077 net.cpp:94] Creating Layer conv4
I0503 07:36:44.039537 19077 net.cpp:435] conv4 <- conv3
I0503 07:36:44.039542 19077 net.cpp:409] conv4 -> conv4
I0503 07:36:44.060606 19077 net.cpp:144] Setting up conv4
I0503 07:36:44.060621 19077 net.cpp:151] Top shape: 20 128 15 15 (576000)
I0503 07:36:44.060626 19077 net.cpp:159] Memory required for data: 26568080
I0503 07:36:44.060631 19077 layer_factory.hpp:77] Creating layer relu4
I0503 07:36:44.060637 19077 net.cpp:94] Creating Layer relu4
I0503 07:36:44.060642 19077 net.cpp:435] relu4 <- conv4
I0503 07:36:44.060647 19077 net.cpp:396] relu4 -> conv4 (in-place)
I0503 07:36:44.060653 19077 net.cpp:144] Setting up relu4
I0503 07:36:44.060658 19077 net.cpp:151] Top shape: 20 128 15 15 (576000)
I0503 07:36:44.060662 19077 net.cpp:159] Memory required for data: 28872080
I0503 07:36:44.060664 19077 layer_factory.hpp:77] Creating layer conv5
I0503 07:36:44.060672 19077 net.cpp:94] Creating Layer conv5
I0503 07:36:44.060675 19077 net.cpp:435] conv5 <- conv4
I0503 07:36:44.060681 19077 net.cpp:409] conv5 -> conv5
I0503 07:36:44.081333 19077 net.cpp:144] Setting up conv5
I0503 07:36:44.081349 19077 net.cpp:151] Top shape: 20 128 15 15 (576000)
I0503 07:36:44.081353 19077 net.cpp:159] Memory required for data: 31176080
I0503 07:36:44.081362 19077 layer_factory.hpp:77] Creating layer relu5
I0503 07:36:44.081368 19077 net.cpp:94] Creating Layer relu5
I0503 07:36:44.081372 19077 net.cpp:435] relu5 <- conv5
I0503 07:36:44.081377 19077 net.cpp:396] relu5 -> conv5 (in-place)
I0503 07:36:44.081383 19077 net.cpp:144] Setting up relu5
I0503 07:36:44.081388 19077 net.cpp:151] Top shape: 20 128 15 15 (576000)
I0503 07:36:44.081392 19077 net.cpp:159] Memory required for data: 33480080
I0503 07:36:44.081394 19077 layer_factory.hpp:77] Creating layer pool5
I0503 07:36:44.081399 19077 net.cpp:94] Creating Layer pool5
I0503 07:36:44.081403 19077 net.cpp:435] pool5 <- conv5
I0503 07:36:44.081408 19077 net.cpp:409] pool5 -> pool5
I0503 07:36:44.081442 19077 net.cpp:144] Setting up pool5
I0503 07:36:44.081449 19077 net.cpp:151] Top shape: 20 128 7 7 (125440)
I0503 07:36:44.081454 19077 net.cpp:159] Memory required for data: 33981840
I0503 07:36:44.081456 19077 layer_factory.hpp:77] Creating layer ip1
I0503 07:36:44.081465 19077 net.cpp:94] Creating Layer ip1
I0503 07:36:44.081470 19077 net.cpp:435] ip1 <- pool5
I0503 07:36:44.081475 19077 net.cpp:409] ip1 -> ip1
I0503 07:36:44.236119 19077 net.cpp:144] Setting up ip1
I0503 07:36:44.236155 19077 net.cpp:151] Top shape: 20 1024 (20480)
I0503 07:36:44.236160 19077 net.cpp:159] Memory required for data: 34063760
I0503 07:36:44.236167 19077 layer_factory.hpp:77] Creating layer ip2
I0503 07:36:44.236178 19077 net.cpp:94] Creating Layer ip2
I0503 07:36:44.236193 19077 net.cpp:435] ip2 <- ip1
I0503 07:36:44.236202 19077 net.cpp:409] ip2 -> ip2
I0503 07:36:44.249197 19077 net.cpp:144] Setting up ip2
I0503 07:36:44.249212 19077 net.cpp:151] Top shape: 20 512 (10240)
I0503 07:36:44.249215 19077 net.cpp:159] Memory required for data: 34104720
I0503 07:36:44.249222 19077 layer_factory.hpp:77] Creating layer ip3
I0503 07:36:44.249228 19077 net.cpp:94] Creating Layer ip3
I0503 07:36:44.249231 19077 net.cpp:435] ip3 <- ip2
I0503 07:36:44.249238 19077 net.cpp:409] ip3 -> ip3
I0503 07:36:44.249313 19077 net.cpp:144] Setting up ip3
I0503 07:36:44.249327 19077 net.cpp:151] Top shape: 20 1 (20)
I0503 07:36:44.249330 19077 net.cpp:159] Memory required for data: 34104800
I0503 07:36:44.249336 19077 layer_factory.hpp:77] Creating layer loss
I0503 07:36:44.249349 19077 net.cpp:94] Creating Layer loss
I0503 07:36:44.249353 19077 net.cpp:435] loss <- ip3
I0503 07:36:44.249357 19077 net.cpp:435] loss <- label
I0503 07:36:44.249362 19077 net.cpp:409] loss -> loss
I0503 07:36:44.249398 19077 net.cpp:144] Setting up loss
…
