…
I0502 15:49:11.948460 11392 net.cpp:323] The NetState phase (0) differed from the phase (1) specified by a rule in layer intercept
I0502 15:49:11.948479 11392 net.cpp:323] The NetState phase (0) differed from the phase (1) specified by a rule in layer accuracy
I0502 15:49:11.948581 11392 net.cpp:52] Initializing net from parameters: 
state {
  phase: TRAIN
}
layer {
  name: "parameters"
  type: "HDF5Data"
  top: "data"
  top: "label"
  include {
    phase: TRAIN
  }
  hdf5_data_param {
    source: "/home/purduethu/scratch/radon/d/deng106/CNNStatisticalModel/distributions/input/50_distributions_900_sample_size_train-distributions-path.txt"
    batch_size: 20
  }
}
layer {
  name: "conv1"
  type: "Convolution"
  bottom: "data"
  top: "conv1"
  param {
    lr_mult: 1
  }
  param {
    lr_mult: 2
  }
  convolution_param {
    num_output: 64
    pad: 2
    kernel_size: 5
    stride: 1
    weight_filler {
      type: "gaussian"
      std: 0.0001
    }
    bias_filler {
      type: "constant"
    }
  }
}
layer {
  name: "relu1"
  type: "ReLU"
  bottom: "conv1"
  top: "conv1"
}
layer {
  name: "conv2"
  type: "Convolution"
  bottom: "conv1"
  top: "conv2"
  param {
    lr_mult: 1
  }
  param {
    lr_mult: 2
  }
  convolution_param {
    num_output: 64
    pad: 2
    kernel_size: 5
    stride: 1
    weight_filler {
      type: "gaussian"
      std: 0.01
    }
    bias_filler {
      type: "constant"
    }
  }
}
layer {
  name: "relu2"
  type: "ReLU"
  bottom: "conv2"
  top: "conv2"
}
layer {
  name: "pool2"
  type: "Pooling"
  bottom: "conv2"
  top: "pool2"
  pooling_param {
    pool: MAX
    kernel_size: 3
    stride: 2
  }
}
layer {
  name: "conv3"
  type: "Convolution"
  bottom: "pool2"
  top: "conv3"
  param {
    lr_mult: 1
  }
  param {
    lr_mult: 2
  }
  convolution_param {
    num_output: 64
    pad: 2
    kernel_size: 5
    stride: 1
    weight_filler {
      type: "gaussian"
      std: 0.01
    }
    bias_filler {
      type: "constant"
    }
  }
}
layer {
  name: "relu3"
  type: "ReLU"
  bottom: "conv3"
  top: "conv3"
}
layer {
  name: "conv4"
  type: "Convolution"
  bottom: "conv3"
  top: "conv4"
  param {
    lr_mult: 1
  }
  param {
    lr_mult: 2
  }
  convolution_param {
    num_output: 64
    pad: 2
    kernel_size: 5
    stride: 1
    weight_filler {
      type: "gaussian"
      std: 0.01
    }
    bias_filler {
      type: "constant"
    }
  }
}
layer {
  name: "relu4"
  type: "ReLU"
  bottom: "conv4"
  top: "conv4"
}
layer {
  name: "conv5"
  type: "Convolution"
  bottom: "conv4"
  top: "conv5"
  param {
    lr_mult: 1
  }
  param {
    lr_mult: 2
  }
  convolution_param {
    num_output: 64
    pad: 2
    kernel_size: 5
    stride: 1
    weight_filler {
      type: "gaussian"
      std: 0.01
    }
    bias_filler {
      type: "constant"
    }
  }
}
layer {
  name: "relu5"
  type: "ReLU"
  bottom: "conv5"
  top: "conv5"
}
layer {
  name: "pool5"
  type: "Pooling"
  bottom: "conv5"
  top: "pool5"
  pooling_param {
    pool: AVE
    kernel_size: 3
    stride: 2
  }
}
layer {
  name: "ip1"
  type: "InnerProduct"
  bottom: "pool5"
  top: "ip1"
  param {
    lr_mult: 1
  }
  param {
    lr_mult: 2
  }
  inner_product_param {
    num_output: 64
    weight_filler {
      type: "gaussian"
      std: 0.1
    }
    bias_filler {
      type: "constant"
    }
  }
}
layer {
  name: "ip2"
  type: "InnerProduct"
  bottom: "ip1"
  top: "ip2"
  param {
    lr_mult: 1
  }
  param {
    lr_mult: 2
  }
  inner_product_param {
    num_output: 64
    weight_filler {
      type: "gaussian"
      std: 0.1
    }
    bias_filler {
      type: "constant"
    }
  }
}
layer {
  name: "ip3"
  type: "InnerProduct"
  bottom: "ip2"
  top: "ip3"
  param {
    lr_mult: 1
  }
  param {
    lr_mult: 2
  }
  inner_product_param {
    num_output: 50
    weight_filler {
      type: "gaussian"
      std: 0.1
    }
    bias_filler {
      type: "constant"
    }
  }
}
layer {
  name: "loss"
  type: "SoftmaxWithLoss"
  bottom: "ip3"
  bottom: "label"
  top: "loss"
}
I0502 15:49:11.948663 11392 layer_factory.hpp:77] Creating layer parameters
I0502 15:49:11.948678 11392 net.cpp:94] Creating Layer parameters
I0502 15:49:11.948683 11392 net.cpp:409] parameters -> data
I0502 15:49:11.948703 11392 net.cpp:409] parameters -> label
I0502 15:49:11.948712 11392 hdf5_data_layer.cpp:79] Loading list of HDF5 filenames from: /home/purduethu/scratch/radon/d/deng106/CNNStatisticalModel/distributions/input/50_distributions_900_sample_size_train-distributions-path.txt
I0502 15:49:11.948740 11392 hdf5_data_layer.cpp:93] Number of HDF5 files: 1
I0502 15:49:11.949383 11392 hdf5.cpp:32] Datatype class: H5T_FLOAT
I0502 15:49:13.397130 11392 hdf5.cpp:35] Datatype class: H5T_INTEGER
I0502 15:49:13.399878 11392 net.cpp:144] Setting up parameters
I0502 15:49:13.399901 11392 net.cpp:151] Top shape: 20 1 30 30 (18000)
I0502 15:49:13.399906 11392 net.cpp:151] Top shape: 20 (20)
I0502 15:49:13.399910 11392 net.cpp:159] Memory required for data: 72080
I0502 15:49:13.399917 11392 layer_factory.hpp:77] Creating layer conv1
I0502 15:49:13.399941 11392 net.cpp:94] Creating Layer conv1
I0502 15:49:13.399947 11392 net.cpp:435] conv1 <- data
I0502 15:49:13.399960 11392 net.cpp:409] conv1 -> conv1
I0502 15:49:13.405925 11392 net.cpp:144] Setting up conv1
I0502 15:49:13.405943 11392 net.cpp:151] Top shape: 20 64 30 30 (1152000)
I0502 15:49:13.405947 11392 net.cpp:159] Memory required for data: 4680080
I0502 15:49:13.405959 11392 layer_factory.hpp:77] Creating layer relu1
I0502 15:49:13.405968 11392 net.cpp:94] Creating Layer relu1
I0502 15:49:13.405972 11392 net.cpp:435] relu1 <- conv1
I0502 15:49:13.405977 11392 net.cpp:396] relu1 -> conv1 (in-place)
I0502 15:49:13.405992 11392 net.cpp:144] Setting up relu1
I0502 15:49:13.405997 11392 net.cpp:151] Top shape: 20 64 30 30 (1152000)
I0502 15:49:13.406000 11392 net.cpp:159] Memory required for data: 9288080
I0502 15:49:13.406004 11392 layer_factory.hpp:77] Creating layer conv2
I0502 15:49:13.406013 11392 net.cpp:94] Creating Layer conv2
I0502 15:49:13.406015 11392 net.cpp:435] conv2 <- conv1
I0502 15:49:13.406020 11392 net.cpp:409] conv2 -> conv2
I0502 15:49:13.421242 11392 net.cpp:144] Setting up conv2
I0502 15:49:13.421288 11392 net.cpp:151] Top shape: 20 64 30 30 (1152000)
I0502 15:49:13.421300 11392 net.cpp:159] Memory required for data: 13896080
I0502 15:49:13.421324 11392 layer_factory.hpp:77] Creating layer relu2
I0502 15:49:13.421342 11392 net.cpp:94] Creating Layer relu2
I0502 15:49:13.421353 11392 net.cpp:435] relu2 <- conv2
I0502 15:49:13.421367 11392 net.cpp:396] relu2 -> conv2 (in-place)
I0502 15:49:13.421387 11392 net.cpp:144] Setting up relu2
I0502 15:49:13.421401 11392 net.cpp:151] Top shape: 20 64 30 30 (1152000)
I0502 15:49:13.421409 11392 net.cpp:159] Memory required for data: 18504080
I0502 15:49:13.421419 11392 layer_factory.hpp:77] Creating layer pool2
I0502 15:49:13.421452 11392 net.cpp:94] Creating Layer pool2
I0502 15:49:13.421463 11392 net.cpp:435] pool2 <- conv2
I0502 15:49:13.421478 11392 net.cpp:409] pool2 -> pool2
I0502 15:49:13.421586 11392 net.cpp:144] Setting up pool2
I0502 15:49:13.421605 11392 net.cpp:151] Top shape: 20 64 15 15 (288000)
I0502 15:49:13.421614 11392 net.cpp:159] Memory required for data: 19656080
I0502 15:49:13.421624 11392 layer_factory.hpp:77] Creating layer conv3
I0502 15:49:13.421644 11392 net.cpp:94] Creating Layer conv3
I0502 15:49:13.421654 11392 net.cpp:435] conv3 <- pool2
I0502 15:49:13.421685 11392 net.cpp:409] conv3 -> conv3
I0502 15:49:13.437940 11392 net.cpp:144] Setting up conv3
I0502 15:49:13.437976 11392 net.cpp:151] Top shape: 20 64 15 15 (288000)
I0502 15:49:13.437988 11392 net.cpp:159] Memory required for data: 20808080
I0502 15:49:13.438009 11392 layer_factory.hpp:77] Creating layer relu3
I0502 15:49:13.438024 11392 net.cpp:94] Creating Layer relu3
I0502 15:49:13.438033 11392 net.cpp:435] relu3 <- conv3
I0502 15:49:13.438046 11392 net.cpp:396] relu3 -> conv3 (in-place)
I0502 15:49:13.438066 11392 net.cpp:144] Setting up relu3
I0502 15:49:13.438077 11392 net.cpp:151] Top shape: 20 64 15 15 (288000)
I0502 15:49:13.438086 11392 net.cpp:159] Memory required for data: 21960080
I0502 15:49:13.438093 11392 layer_factory.hpp:77] Creating layer conv4
I0502 15:49:13.438114 11392 net.cpp:94] Creating Layer conv4
I0502 15:49:13.438123 11392 net.cpp:435] conv4 <- conv3
I0502 15:49:13.438138 11392 net.cpp:409] conv4 -> conv4
I0502 15:49:13.451341 11392 net.cpp:144] Setting up conv4
I0502 15:49:13.451375 11392 net.cpp:151] Top shape: 20 64 15 15 (288000)
I0502 15:49:13.451385 11392 net.cpp:159] Memory required for data: 23112080
I0502 15:49:13.451400 11392 layer_factory.hpp:77] Creating layer relu4
I0502 15:49:13.451414 11392 net.cpp:94] Creating Layer relu4
I0502 15:49:13.451423 11392 net.cpp:435] relu4 <- conv4
I0502 15:49:13.451436 11392 net.cpp:396] relu4 -> conv4 (in-place)
I0502 15:49:13.451452 11392 net.cpp:144] Setting up relu4
I0502 15:49:13.451463 11392 net.cpp:151] Top shape: 20 64 15 15 (288000)
I0502 15:49:13.451470 11392 net.cpp:159] Memory required for data: 24264080
I0502 15:49:13.451478 11392 layer_factory.hpp:77] Creating layer conv5
I0502 15:49:13.451495 11392 net.cpp:94] Creating Layer conv5
I0502 15:49:13.451504 11392 net.cpp:435] conv5 <- conv4
I0502 15:49:13.451516 11392 net.cpp:409] conv5 -> conv5
I0502 15:49:13.463984 11392 net.cpp:144] Setting up conv5
I0502 15:49:13.464016 11392 net.cpp:151] Top shape: 20 64 15 15 (288000)
I0502 15:49:13.464026 11392 net.cpp:159] Memory required for data: 25416080
I0502 15:49:13.464046 11392 layer_factory.hpp:77] Creating layer relu5
I0502 15:49:13.464061 11392 net.cpp:94] Creating Layer relu5
I0502 15:49:13.464068 11392 net.cpp:435] relu5 <- conv5
I0502 15:49:13.464079 11392 net.cpp:396] relu5 -> conv5 (in-place)
I0502 15:49:13.464095 11392 net.cpp:144] Setting up relu5
I0502 15:49:13.464105 11392 net.cpp:151] Top shape: 20 64 15 15 (288000)
I0502 15:49:13.464112 11392 net.cpp:159] Memory required for data: 26568080
I0502 15:49:13.464119 11392 layer_factory.hpp:77] Creating layer pool5
I0502 15:49:13.464130 11392 net.cpp:94] Creating Layer pool5
I0502 15:49:13.464138 11392 net.cpp:435] pool5 <- conv5
I0502 15:49:13.464148 11392 net.cpp:409] pool5 -> pool5
I0502 15:49:13.464217 11392 net.cpp:144] Setting up pool5
I0502 15:49:13.464232 11392 net.cpp:151] Top shape: 20 64 7 7 (62720)
I0502 15:49:13.464241 11392 net.cpp:159] Memory required for data: 26818960
I0502 15:49:13.464247 11392 layer_factory.hpp:77] Creating layer ip1
I0502 15:49:13.464267 11392 net.cpp:94] Creating Layer ip1
I0502 15:49:13.464274 11392 net.cpp:435] ip1 <- pool5
I0502 15:49:13.464285 11392 net.cpp:409] ip1 -> ip1
I0502 15:49:13.476531 11392 net.cpp:144] Setting up ip1
I0502 15:49:13.476562 11392 net.cpp:151] Top shape: 20 64 (1280)
I0502 15:49:13.476572 11392 net.cpp:159] Memory required for data: 26824080
I0502 15:49:13.476585 11392 layer_factory.hpp:77] Creating layer ip2
I0502 15:49:13.476605 11392 net.cpp:94] Creating Layer ip2
I0502 15:49:13.476615 11392 net.cpp:435] ip2 <- ip1
I0502 15:49:13.476626 11392 net.cpp:409] ip2 -> ip2
I0502 15:49:13.476997 11392 net.cpp:144] Setting up ip2
I0502 15:49:13.477010 11392 net.cpp:151] Top shape: 20 64 (1280)
I0502 15:49:13.477017 11392 net.cpp:159] Memory required for data: 26829200
I0502 15:49:13.477028 11392 layer_factory.hpp:77] Creating layer ip3
I0502 15:49:13.477039 11392 net.cpp:94] Creating Layer ip3
I0502 15:49:13.477046 11392 net.cpp:435] ip3 <- ip2
I0502 15:49:13.477056 11392 net.cpp:409] ip3 -> ip3
I0502 15:49:13.477375 11392 net.cpp:144] Setting up ip3
I0502 15:49:13.477387 11392 net.cpp:151] Top shape: 20 50 (1000)
I0502 15:49:13.477394 11392 net.cpp:159] Memory required for data: 26833200
I0502 15:49:13.477404 11392 layer_factory.hpp:77] Creating layer loss
I0502 15:49:13.477417 11392 net.cpp:94] Creating Layer loss
I0502 15:49:13.477424 11392 net.cpp:435] loss <- ip3
I0502 15:49:13.477433 11392 net.cpp:435] loss <- label
I0502 15:49:13.477444 11392 net.cpp:409] loss -> loss
I0502 15:49:13.477469 11392 layer_factory.hpp:77] Creating layer loss
…
I0502 15:49:13.478515 11392 solver.cpp:181] Creating test net (#0) specified by net file: ./protocol/dis_50_900_dimension.protocol_distribution
I0502 15:49:13.478569 11392 net.cpp:323] The NetState phase (1) differed from the phase (0) specified by a rule in layer parameters
I0502 15:49:13.478785 11392 net.cpp:52] Initializing net from parameters: 
state {
  phase: TEST
}
layer {
  name: "intercept"
  type: "HDF5Data"
  top: "data"
  top: "label"
  include {
    phase: TEST
  }
  hdf5_data_param {
    source: "/home/purduethu/scratch/radon/d/deng106/CNNStatisticalModel/distributions/input/50_distributions_900_sample_size_test-distributions-path.txt"
    batch_size: 20
  }
}
layer {
  name: "conv1"
  type: "Convolution"
  bottom: "data"
  top: "conv1"
  param {
    lr_mult: 1
  }
  param {
    lr_mult: 2
  }
  convolution_param {
    num_output: 64
    pad: 2
    kernel_size: 5
    stride: 1
    weight_filler {
      type: "gaussian"
      std: 0.0001
    }
    bias_filler {
      type: "constant"
    }
  }
}
layer {
  name: "relu1"
  type: "ReLU"
  bottom: "conv1"
  top: "conv1"
}
layer {
  name: "conv2"
  type: "Convolution"
  bottom: "conv1"
  top: "conv2"
  param {
    lr_mult: 1
  }
  param {
    lr_mult: 2
  }
  convolution_param {
    num_output: 64
    pad: 2
    kernel_size: 5
    stride: 1
    weight_filler {
      type: "gaussian"
      std: 0.01
    }
    bias_filler {
      type: "constant"
    }
  }
}
layer {
  name: "relu2"
  type: "ReLU"
  bottom: "conv2"
  top: "conv2"
}
layer {
  name: "pool2"
  type: "Pooling"
  bottom: "conv2"
  top: "pool2"
  pooling_param {
    pool: MAX
    kernel_size: 3
    stride: 2
  }
}
layer {
  name: "conv3"
  type: "Convolution"
  bottom: "pool2"
  top: "conv3"
  param {
    lr_mult: 1
  }
  param {
    lr_mult: 2
  }
  convolution_param {
    num_output: 64
    pad: 2
    kernel_size: 5
    stride: 1
    weight_filler {
      type: "gaussian"
      std: 0.01
    }
    bias_filler {
      type: "constant"
    }
  }
}
layer {
  name: "relu3"
  type: "ReLU"
  bottom: "conv3"
  top: "conv3"
}
layer {
  name: "conv4"
  type: "Convolution"
  bottom: "conv3"
  top: "conv4"
  param {
    lr_mult: 1
  }
  param {
    lr_mult: 2
  }
  convolution_param {
    num_output: 64
    pad: 2
    kernel_size: 5
    stride: 1
    weight_filler {
      type: "gaussian"
      std: 0.01
    }
    bias_filler {
      type: "constant"
    }
  }
}
layer {
  name: "relu4"
  type: "ReLU"
  bottom: "conv4"
  top: "conv4"
}
layer {
  name: "conv5"
  type: "Convolution"
  bottom: "conv4"
  top: "conv5"
  param {
    lr_mult: 1
  }
  param {
    lr_mult: 2
  }
  convolution_param {
    num_output: 64
    pad: 2
    kernel_size: 5
    stride: 1
    weight_filler {
      type: "gaussian"
      std: 0.01
    }
    bias_filler {
      type: "constant"
    }
  }
}
layer {
  name: "relu5"
  type: "ReLU"
  bottom: "conv5"
  top: "conv5"
}
layer {
  name: "pool5"
  type: "Pooling"
  bottom: "conv5"
  top: "pool5"
  pooling_param {
    pool: AVE
    kernel_size: 3
    stride: 2
  }
}
layer {
  name: "ip1"
  type: "InnerProduct"
  bottom: "pool5"
  top: "ip1"
  param {
    lr_mult: 1
  }
  param {
    lr_mult: 2
  }
  inner_product_param {
    num_output: 64
    weight_filler {
      type: "gaussian"
      std: 0.1
    }
    bias_filler {
      type: "constant"
    }
  }
}
layer {
  name: "ip2"
  type: "InnerProduct"
  bottom: "ip1"
  top: "ip2"
  param {
    lr_mult: 1
  }
  param {
    lr_mult: 2
  }
  inner_product_param {
    num_output: 64
    weight_filler {
      type: "gaussian"
      std: 0.1
    }
    bias_filler {
      type: "constant"
    }
  }
}
layer {
  name: "ip3"
  type: "InnerProduct"
  bottom: "ip2"
  top: "ip3"
  param {
    lr_mult: 1
  }
  param {
    lr_mult: 2
  }
  inner_product_param {
    num_output: 50
    weight_filler {
      type: "gaussian"
      std: 0.1
    }
    bias_filler {
      type: "constant"
    }
  }
}
layer {
  name: "accuracy"
  type: "Accuracy"
  bottom: "ip3"
  bottom: "label"
  top: "accuracy"
  include {
    phase: TEST
  }
}
layer {
  name: "loss"
  type: "SoftmaxWithLoss"
  bottom: "ip3"
  bottom: "label"
  top: "loss"
}
I0502 15:49:13.478932 11392 layer_factory.hpp:77] Creating layer intercept
I0502 15:49:13.478950 11392 net.cpp:94] Creating Layer intercept
I0502 15:49:13.478960 11392 net.cpp:409] intercept -> data
I0502 15:49:13.478974 11392 net.cpp:409] intercept -> label
I0502 15:49:13.478988 11392 hdf5_data_layer.cpp:79] Loading list of HDF5 filenames from: /home/purduethu/scratch/radon/d/deng106/CNNStatisticalModel/distributions/input/50_distributions_900_sample_size_test-distributions-path.txt
I0502 15:49:13.479027 11392 hdf5_data_layer.cpp:93] Number of HDF5 files: 1
I0502 15:49:13.882339 11392 net.cpp:144] Setting up intercept
I0502 15:49:13.882374 11392 net.cpp:151] Top shape: 20 1 30 30 (18000)
I0502 15:49:13.882380 11392 net.cpp:151] Top shape: 20 (20)
I0502 15:49:13.882382 11392 net.cpp:159] Memory required for data: 72080
I0502 15:49:13.882388 11392 layer_factory.hpp:77] Creating layer label_intercept_1_split
I0502 15:49:13.882410 11392 net.cpp:94] Creating Layer label_intercept_1_split
I0502 15:49:13.882414 11392 net.cpp:435] label_intercept_1_split <- label
I0502 15:49:13.882421 11392 net.cpp:409] label_intercept_1_split -> label_intercept_1_split_0
I0502 15:49:13.882429 11392 net.cpp:409] label_intercept_1_split -> label_intercept_1_split_1
I0502 15:49:13.882465 11392 net.cpp:144] Setting up label_intercept_1_split
I0502 15:49:13.882472 11392 net.cpp:151] Top shape: 20 (20)
I0502 15:49:13.882477 11392 net.cpp:151] Top shape: 20 (20)
I0502 15:49:13.882479 11392 net.cpp:159] Memory required for data: 72240
I0502 15:49:13.882483 11392 layer_factory.hpp:77] Creating layer conv1
I0502 15:49:13.882494 11392 net.cpp:94] Creating Layer conv1
I0502 15:49:13.882498 11392 net.cpp:435] conv1 <- data
I0502 15:49:13.882503 11392 net.cpp:409] conv1 -> conv1
I0502 15:49:13.883834 11392 net.cpp:144] Setting up conv1
I0502 15:49:13.883848 11392 net.cpp:151] Top shape: 20 64 30 30 (1152000)
I0502 15:49:13.883853 11392 net.cpp:159] Memory required for data: 4680240
I0502 15:49:13.883862 11392 layer_factory.hpp:77] Creating layer relu1
I0502 15:49:13.883870 11392 net.cpp:94] Creating Layer relu1
I0502 15:49:13.883874 11392 net.cpp:435] relu1 <- conv1
I0502 15:49:13.883878 11392 net.cpp:396] relu1 -> conv1 (in-place)
I0502 15:49:13.883886 11392 net.cpp:144] Setting up relu1
I0502 15:49:13.883891 11392 net.cpp:151] Top shape: 20 64 30 30 (1152000)
I0502 15:49:13.883894 11392 net.cpp:159] Memory required for data: 9288240
I0502 15:49:13.883898 11392 layer_factory.hpp:77] Creating layer conv2
I0502 15:49:13.883906 11392 net.cpp:94] Creating Layer conv2
I0502 15:49:13.883909 11392 net.cpp:435] conv2 <- conv1
I0502 15:49:13.883914 11392 net.cpp:409] conv2 -> conv2
I0502 15:49:13.890578 11392 net.cpp:144] Setting up conv2
I0502 15:49:13.890594 11392 net.cpp:151] Top shape: 20 64 30 30 (1152000)
I0502 15:49:13.890599 11392 net.cpp:159] Memory required for data: 13896240
I0502 15:49:13.890607 11392 layer_factory.hpp:77] Creating layer relu2
I0502 15:49:13.890614 11392 net.cpp:94] Creating Layer relu2
I0502 15:49:13.890617 11392 net.cpp:435] relu2 <- conv2
I0502 15:49:13.890622 11392 net.cpp:396] relu2 -> conv2 (in-place)
I0502 15:49:13.890630 11392 net.cpp:144] Setting up relu2
I0502 15:49:13.890635 11392 net.cpp:151] Top shape: 20 64 30 30 (1152000)
I0502 15:49:13.890637 11392 net.cpp:159] Memory required for data: 18504240
I0502 15:49:13.890640 11392 layer_factory.hpp:77] Creating layer pool2
I0502 15:49:13.890647 11392 net.cpp:94] Creating Layer pool2
I0502 15:49:13.890650 11392 net.cpp:435] pool2 <- conv2
I0502 15:49:13.890655 11392 net.cpp:409] pool2 -> pool2
I0502 15:49:13.890691 11392 net.cpp:144] Setting up pool2
I0502 15:49:13.890697 11392 net.cpp:151] Top shape: 20 64 15 15 (288000)
I0502 15:49:13.890699 11392 net.cpp:159] Memory required for data: 19656240
I0502 15:49:13.890703 11392 layer_factory.hpp:77] Creating layer conv3
I0502 15:49:13.890712 11392 net.cpp:94] Creating Layer conv3
I0502 15:49:13.890715 11392 net.cpp:435] conv3 <- pool2
I0502 15:49:13.890720 11392 net.cpp:409] conv3 -> conv3
I0502 15:49:13.895895 11392 net.cpp:144] Setting up conv3
I0502 15:49:13.895910 11392 net.cpp:151] Top shape: 20 64 15 15 (288000)
I0502 15:49:13.895915 11392 net.cpp:159] Memory required for data: 20808240
I0502 15:49:13.895923 11392 layer_factory.hpp:77] Creating layer relu3
I0502 15:49:13.895931 11392 net.cpp:94] Creating Layer relu3
I0502 15:49:13.895934 11392 net.cpp:435] relu3 <- conv3
I0502 15:49:13.895939 11392 net.cpp:396] relu3 -> conv3 (in-place)
I0502 15:49:13.895946 11392 net.cpp:144] Setting up relu3
I0502 15:49:13.895951 11392 net.cpp:151] Top shape: 20 64 15 15 (288000)
I0502 15:49:13.895954 11392 net.cpp:159] Memory required for data: 21960240
I0502 15:49:13.895957 11392 layer_factory.hpp:77] Creating layer conv4
I0502 15:49:13.895965 11392 net.cpp:94] Creating Layer conv4
I0502 15:49:13.895969 11392 net.cpp:435] conv4 <- conv3
I0502 15:49:13.895974 11392 net.cpp:409] conv4 -> conv4
I0502 15:49:13.900732 11392 net.cpp:144] Setting up conv4
I0502 15:49:13.900746 11392 net.cpp:151] Top shape: 20 64 15 15 (288000)
I0502 15:49:13.900750 11392 net.cpp:159] Memory required for data: 23112240
I0502 15:49:13.900756 11392 layer_factory.hpp:77] Creating layer relu4
I0502 15:49:13.900763 11392 net.cpp:94] Creating Layer relu4
I0502 15:49:13.900770 11392 net.cpp:435] relu4 <- conv4
I0502 15:49:13.900775 11392 net.cpp:396] relu4 -> conv4 (in-place)
I0502 15:49:13.900782 11392 net.cpp:144] Setting up relu4
I0502 15:49:13.900787 11392 net.cpp:151] Top shape: 20 64 15 15 (288000)
I0502 15:49:13.900790 11392 net.cpp:159] Memory required for data: 24264240
I0502 15:49:13.900794 11392 layer_factory.hpp:77] Creating layer conv5
I0502 15:49:13.900800 11392 net.cpp:94] Creating Layer conv5
I0502 15:49:13.900804 11392 net.cpp:435] conv5 <- conv4
I0502 15:49:13.900810 11392 net.cpp:409] conv5 -> conv5
I0502 15:49:13.906359 11392 net.cpp:144] Setting up conv5
I0502 15:49:13.906375 11392 net.cpp:151] Top shape: 20 64 15 15 (288000)
I0502 15:49:13.906379 11392 net.cpp:159] Memory required for data: 25416240
I0502 15:49:13.906388 11392 layer_factory.hpp:77] Creating layer relu5
I0502 15:49:13.906395 11392 net.cpp:94] Creating Layer relu5
I0502 15:49:13.906399 11392 net.cpp:435] relu5 <- conv5
I0502 15:49:13.906404 11392 net.cpp:396] relu5 -> conv5 (in-place)
I0502 15:49:13.906410 11392 net.cpp:144] Setting up relu5
I0502 15:49:13.906415 11392 net.cpp:151] Top shape: 20 64 15 15 (288000)
I0502 15:49:13.906419 11392 net.cpp:159] Memory required for data: 26568240
I0502 15:49:13.906421 11392 layer_factory.hpp:77] Creating layer pool5
I0502 15:49:13.906426 11392 net.cpp:94] Creating Layer pool5
I0502 15:49:13.906430 11392 net.cpp:435] pool5 <- conv5
I0502 15:49:13.906435 11392 net.cpp:409] pool5 -> pool5
I0502 15:49:13.906461 11392 net.cpp:144] Setting up pool5
I0502 15:49:13.906466 11392 net.cpp:151] Top shape: 20 64 7 7 (62720)
I0502 15:49:13.906469 11392 net.cpp:159] Memory required for data: 26819120
I0502 15:49:13.906473 11392 layer_factory.hpp:77] Creating layer ip1
I0502 15:49:13.906481 11392 net.cpp:94] Creating Layer ip1
I0502 15:49:13.906483 11392 net.cpp:435] ip1 <- pool5
I0502 15:49:13.906488 11392 net.cpp:409] ip1 -> ip1
I0502 15:49:13.911442 11392 net.cpp:144] Setting up ip1
I0502 15:49:13.911450 11392 net.cpp:151] Top shape: 20 64 (1280)
I0502 15:49:13.911454 11392 net.cpp:159] Memory required for data: 26824240
I0502 15:49:13.911459 11392 layer_factory.hpp:77] Creating layer ip2
I0502 15:49:13.911465 11392 net.cpp:94] Creating Layer ip2
I0502 15:49:13.911469 11392 net.cpp:435] ip2 <- ip1
I0502 15:49:13.911475 11392 net.cpp:409] ip2 -> ip2
I0502 15:49:13.911651 11392 net.cpp:144] Setting up ip2
I0502 15:49:13.911658 11392 net.cpp:151] Top shape: 20 64 (1280)
I0502 15:49:13.911660 11392 net.cpp:159] Memory required for data: 26829360
I0502 15:49:13.911666 11392 layer_factory.hpp:77] Creating layer ip3
I0502 15:49:13.911672 11392 net.cpp:94] Creating Layer ip3
I0502 15:49:13.911676 11392 net.cpp:435] ip3 <- ip2
I0502 15:49:13.911681 11392 net.cpp:409] ip3 -> ip3
I0502 15:49:13.911834 11392 net.cpp:144] Setting up ip3
I0502 15:49:13.911840 11392 net.cpp:151] Top shape: 20 50 (1000)
I0502 15:49:13.911844 11392 net.cpp:159] Memory required for data: 26833360
I0502 15:49:13.911849 11392 layer_factory.hpp:77] Creating layer ip3_ip3_0_split
I0502 15:49:13.911854 11392 net.cpp:94] Creating Layer ip3_ip3_0_split
I0502 15:49:13.911857 11392 net.cpp:435] ip3_ip3_0_split <- ip3
I0502 15:49:13.911861 11392 net.cpp:409] ip3_ip3_0_split -> ip3_ip3_0_split_0
I0502 15:49:13.911870 11392 net.cpp:409] ip3_ip3_0_split -> ip3_ip3_0_split_1
I0502 15:49:13.911895 11392 net.cpp:144] Setting up ip3_ip3_0_split
I0502 15:49:13.911900 11392 net.cpp:151] Top shape: 20 50 (1000)
I0502 15:49:13.911905 11392 net.cpp:151] Top shape: 20 50 (1000)
I0502 15:49:13.911907 11392 net.cpp:159] Memory required for data: 26841360
I0502 15:49:13.911911 11392 layer_factory.hpp:77] Creating layer accuracy
I0502 15:49:13.911917 11392 net.cpp:94] Creating Layer accuracy
I0502 15:49:13.911921 11392 net.cpp:435] accuracy <- ip3_ip3_0_split_0
I0502 15:49:13.911926 11392 net.cpp:435] accuracy <- label_intercept_1_split_0
I0502 15:49:13.911929 11392 net.cpp:409] accuracy -> accuracy
…
