…
I0430 23:34:52.632647 28244 net.cpp:323] The NetState phase (0) differed from the phase (1) specified by a rule in layer intercept
I0430 23:34:52.632664 28244 net.cpp:323] The NetState phase (0) differed from the phase (1) specified by a rule in layer loss
I0430 23:34:52.632742 28244 net.cpp:52] Initializing net from parameters: 
state {
  phase: TRAIN
}
layer {
  name: "parameters"
  type: "HDF5Data"
  top: "data"
  top: "label"
  include {
    phase: TRAIN
  }
  hdf5_data_param {
    source: "/home/purduethu/scratch/radon/d/deng106/CNNStatisticalModel/distributions/input/50_distributions_400_sample_size_train-parameters-path.txt"
    batch_size: 20
  }
}
layer {
  name: "conv1"
  type: "Convolution"
  bottom: "data"
  top: "conv1"
  param {
    lr_mult: 1
  }
  param {
    lr_mult: 2
  }
  convolution_param {
    num_output: 64
    pad: 2
    kernel_size: 5
    stride: 1
    weight_filler {
      type: "gaussian"
      std: 0.0001
    }
    bias_filler {
      type: "constant"
    }
  }
}
layer {
  name: "relu1"
  type: "ReLU"
  bottom: "conv1"
  top: "conv1"
}
layer {
  name: "conv2"
  type: "Convolution"
  bottom: "conv1"
  top: "conv2"
  param {
    lr_mult: 1
  }
  param {
    lr_mult: 2
  }
  convolution_param {
    num_output: 64
    pad: 2
    kernel_size: 5
    stride: 1
    weight_filler {
      type: "gaussian"
      std: 0.01
    }
    bias_filler {
      type: "constant"
    }
  }
}
layer {
  name: "relu2"
  type: "ReLU"
  bottom: "conv2"
  top: "conv2"
}
layer {
  name: "pool2"
  type: "Pooling"
  bottom: "conv2"
  top: "pool2"
  pooling_param {
    pool: MAX
    kernel_size: 3
    stride: 2
  }
}
layer {
  name: "conv3"
  type: "Convolution"
  bottom: "pool2"
  top: "conv3"
  param {
    lr_mult: 1
  }
  param {
    lr_mult: 2
  }
  convolution_param {
    num_output: 128
    pad: 2
    kernel_size: 5
    stride: 1
    weight_filler {
      type: "gaussian"
      std: 0.01
    }
    bias_filler {
      type: "constant"
    }
  }
}
layer {
  name: "relu3"
  type: "ReLU"
  bottom: "conv3"
  top: "conv3"
}
layer {
  name: "conv4"
  type: "Convolution"
  bottom: "conv3"
  top: "conv4"
  param {
    lr_mult: 1
  }
  param {
    lr_mult: 2
  }
  convolution_param {
    num_output: 128
    pad: 2
    kernel_size: 5
    stride: 1
    weight_filler {
      type: "gaussian"
      std: 0.01
    }
    bias_filler {
      type: "constant"
    }
  }
}
layer {
  name: "relu4"
  type: "ReLU"
  bottom: "conv4"
  top: "conv4"
}
layer {
  name: "conv5"
  type: "Convolution"
  bottom: "conv4"
  top: "conv5"
  param {
    lr_mult: 1
  }
  param {
    lr_mult: 2
  }
  convolution_param {
    num_output: 128
    pad: 2
    kernel_size: 5
    stride: 1
    weight_filler {
      type: "gaussian"
      std: 0.01
    }
    bias_filler {
      type: "constant"
    }
  }
}
layer {
  name: "relu5"
  type: "ReLU"
  bottom: "conv5"
  top: "conv5"
}
layer {
  name: "pool5"
  type: "Pooling"
  bottom: "conv5"
  top: "pool5"
  pooling_param {
    pool: AVE
    kernel_size: 3
    stride: 2
  }
}
layer {
  name: "ip1"
  type: "InnerProduct"
  bottom: "pool5"
  top: "ip1"
  param {
    lr_mult: 1
  }
  param {
    lr_mult: 2
  }
  inner_product_param {
    num_output: 1024
    weight_filler {
      type: "gaussian"
      std: 0.1
    }
    bias_filler {
      type: "constant"
    }
  }
}
layer {
  name: "ip2"
  type: "InnerProduct"
  bottom: "ip1"
  top: "ip2"
  param {
    lr_mult: 1
  }
  param {
    lr_mult: 2
  }
  inner_product_param {
    num_output: 512
    weight_filler {
      type: "gaussian"
      std: 0.1
    }
    bias_filler {
      type: "constant"
    }
  }
}
layer {
  name: "ip3"
  type: "InnerProduct"
  bottom: "ip2"
  top: "ip3"
  param {
    lr_mult: 1
  }
  param {
    lr_mult: 2
  }
  inner_product_param {
    num_output: 1
    weight_filler {
      type: "gaussian"
      std: 0.1
    }
    bias_filler {
      type: "constant"
    }
  }
}
layer {
  name: "loss"
  type: "HuberLoss"
  bottom: "ip3"
  bottom: "label"
  top: "loss"
  include {
    phase: TRAIN
  }
}
I0430 23:34:52.632797 28244 layer_factory.hpp:77] Creating layer parameters
I0430 23:34:52.632813 28244 net.cpp:94] Creating Layer parameters
I0430 23:34:52.632818 28244 net.cpp:409] parameters -> data
I0430 23:34:52.632827 28244 net.cpp:409] parameters -> label
I0430 23:34:52.632833 28244 hdf5_data_layer.cpp:79] Loading list of HDF5 filenames from: /home/purduethu/scratch/radon/d/deng106/CNNStatisticalModel/distributions/input/50_distributions_400_sample_size_train-parameters-path.txt
I0430 23:34:52.632849 28244 hdf5_data_layer.cpp:93] Number of HDF5 files: 1
I0430 23:34:52.633405 28244 hdf5.cpp:32] Datatype class: H5T_FLOAT
I0430 23:34:53.285801 28244 net.cpp:144] Setting up parameters
I0430 23:34:53.285835 28244 net.cpp:151] Top shape: 20 1 20 20 (8000)
I0430 23:34:53.285840 28244 net.cpp:151] Top shape: 20 (20)
I0430 23:34:53.285842 28244 net.cpp:159] Memory required for data: 32080
I0430 23:34:53.285850 28244 layer_factory.hpp:77] Creating layer conv1
I0430 23:34:53.285864 28244 net.cpp:94] Creating Layer conv1
I0430 23:34:53.285868 28244 net.cpp:435] conv1 <- data
I0430 23:34:53.285874 28244 net.cpp:409] conv1 -> conv1
I0430 23:34:53.291378 28244 net.cpp:144] Setting up conv1
I0430 23:34:53.291399 28244 net.cpp:151] Top shape: 20 64 20 20 (512000)
I0430 23:34:53.291402 28244 net.cpp:159] Memory required for data: 2080080
I0430 23:34:53.291414 28244 layer_factory.hpp:77] Creating layer relu1
I0430 23:34:53.291421 28244 net.cpp:94] Creating Layer relu1
I0430 23:34:53.291425 28244 net.cpp:435] relu1 <- conv1
I0430 23:34:53.291430 28244 net.cpp:396] relu1 -> conv1 (in-place)
I0430 23:34:53.291438 28244 net.cpp:144] Setting up relu1
I0430 23:34:53.291442 28244 net.cpp:151] Top shape: 20 64 20 20 (512000)
I0430 23:34:53.291445 28244 net.cpp:159] Memory required for data: 4128080
I0430 23:34:53.291447 28244 layer_factory.hpp:77] Creating layer conv2
I0430 23:34:53.291455 28244 net.cpp:94] Creating Layer conv2
I0430 23:34:53.291460 28244 net.cpp:435] conv2 <- conv1
I0430 23:34:53.291463 28244 net.cpp:409] conv2 -> conv2
I0430 23:34:53.306829 28244 net.cpp:144] Setting up conv2
I0430 23:34:53.306849 28244 net.cpp:151] Top shape: 20 64 20 20 (512000)
I0430 23:34:53.306852 28244 net.cpp:159] Memory required for data: 6176080
I0430 23:34:53.306860 28244 layer_factory.hpp:77] Creating layer relu2
I0430 23:34:53.306867 28244 net.cpp:94] Creating Layer relu2
I0430 23:34:53.306871 28244 net.cpp:435] relu2 <- conv2
I0430 23:34:53.306876 28244 net.cpp:396] relu2 -> conv2 (in-place)
I0430 23:34:53.306884 28244 net.cpp:144] Setting up relu2
I0430 23:34:53.306887 28244 net.cpp:151] Top shape: 20 64 20 20 (512000)
I0430 23:34:53.306890 28244 net.cpp:159] Memory required for data: 8224080
I0430 23:34:53.306893 28244 layer_factory.hpp:77] Creating layer pool2
I0430 23:34:53.306900 28244 net.cpp:94] Creating Layer pool2
I0430 23:34:53.306908 28244 net.cpp:435] pool2 <- conv2
I0430 23:34:53.306915 28244 net.cpp:409] pool2 -> pool2
I0430 23:34:53.306969 28244 net.cpp:144] Setting up pool2
I0430 23:34:53.306977 28244 net.cpp:151] Top shape: 20 64 10 10 (128000)
I0430 23:34:53.306980 28244 net.cpp:159] Memory required for data: 8736080
I0430 23:34:53.306984 28244 layer_factory.hpp:77] Creating layer conv3
I0430 23:34:53.306993 28244 net.cpp:94] Creating Layer conv3
I0430 23:34:53.306995 28244 net.cpp:435] conv3 <- pool2
I0430 23:34:53.307000 28244 net.cpp:409] conv3 -> conv3
I0430 23:34:53.316776 28244 net.cpp:144] Setting up conv3
I0430 23:34:53.316793 28244 net.cpp:151] Top shape: 20 128 10 10 (256000)
I0430 23:34:53.316797 28244 net.cpp:159] Memory required for data: 9760080
I0430 23:34:53.316805 28244 layer_factory.hpp:77] Creating layer relu3
I0430 23:34:53.316812 28244 net.cpp:94] Creating Layer relu3
I0430 23:34:53.316815 28244 net.cpp:435] relu3 <- conv3
I0430 23:34:53.316820 28244 net.cpp:396] relu3 -> conv3 (in-place)
I0430 23:34:53.316828 28244 net.cpp:144] Setting up relu3
I0430 23:34:53.316831 28244 net.cpp:151] Top shape: 20 128 10 10 (256000)
I0430 23:34:53.316834 28244 net.cpp:159] Memory required for data: 10784080
I0430 23:34:53.316838 28244 layer_factory.hpp:77] Creating layer conv4
I0430 23:34:53.316846 28244 net.cpp:94] Creating Layer conv4
I0430 23:34:53.316850 28244 net.cpp:435] conv4 <- conv3
I0430 23:34:53.316854 28244 net.cpp:409] conv4 -> conv4
I0430 23:34:53.335434 28244 net.cpp:144] Setting up conv4
I0430 23:34:53.335453 28244 net.cpp:151] Top shape: 20 128 10 10 (256000)
I0430 23:34:53.335458 28244 net.cpp:159] Memory required for data: 11808080
I0430 23:34:53.335465 28244 layer_factory.hpp:77] Creating layer relu4
I0430 23:34:53.335472 28244 net.cpp:94] Creating Layer relu4
I0430 23:34:53.335476 28244 net.cpp:435] relu4 <- conv4
I0430 23:34:53.335481 28244 net.cpp:396] relu4 -> conv4 (in-place)
I0430 23:34:53.335489 28244 net.cpp:144] Setting up relu4
I0430 23:34:53.335494 28244 net.cpp:151] Top shape: 20 128 10 10 (256000)
I0430 23:34:53.335495 28244 net.cpp:159] Memory required for data: 12832080
I0430 23:34:53.335499 28244 layer_factory.hpp:77] Creating layer conv5
I0430 23:34:53.335507 28244 net.cpp:94] Creating Layer conv5
I0430 23:34:53.335510 28244 net.cpp:435] conv5 <- conv4
I0430 23:34:53.335515 28244 net.cpp:409] conv5 -> conv5
I0430 23:34:53.353307 28244 net.cpp:144] Setting up conv5
I0430 23:34:53.353327 28244 net.cpp:151] Top shape: 20 128 10 10 (256000)
I0430 23:34:53.353330 28244 net.cpp:159] Memory required for data: 13856080
I0430 23:34:53.353340 28244 layer_factory.hpp:77] Creating layer relu5
I0430 23:34:53.353348 28244 net.cpp:94] Creating Layer relu5
I0430 23:34:53.353351 28244 net.cpp:435] relu5 <- conv5
I0430 23:34:53.353356 28244 net.cpp:396] relu5 -> conv5 (in-place)
I0430 23:34:53.353363 28244 net.cpp:144] Setting up relu5
I0430 23:34:53.353368 28244 net.cpp:151] Top shape: 20 128 10 10 (256000)
I0430 23:34:53.353371 28244 net.cpp:159] Memory required for data: 14880080
I0430 23:34:53.353374 28244 layer_factory.hpp:77] Creating layer pool5
I0430 23:34:53.353379 28244 net.cpp:94] Creating Layer pool5
I0430 23:34:53.353382 28244 net.cpp:435] pool5 <- conv5
I0430 23:34:53.353386 28244 net.cpp:409] pool5 -> pool5
I0430 23:34:53.353430 28244 net.cpp:144] Setting up pool5
I0430 23:34:53.353437 28244 net.cpp:151] Top shape: 20 128 5 5 (64000)
I0430 23:34:53.353440 28244 net.cpp:159] Memory required for data: 15136080
I0430 23:34:53.353443 28244 layer_factory.hpp:77] Creating layer ip1
I0430 23:34:53.353453 28244 net.cpp:94] Creating Layer ip1
I0430 23:34:53.353457 28244 net.cpp:435] ip1 <- pool5
I0430 23:34:53.353462 28244 net.cpp:409] ip1 -> ip1
I0430 23:34:53.435370 28244 net.cpp:144] Setting up ip1
I0430 23:34:53.435405 28244 net.cpp:151] Top shape: 20 1024 (20480)
I0430 23:34:53.435410 28244 net.cpp:159] Memory required for data: 15218000
I0430 23:34:53.435418 28244 layer_factory.hpp:77] Creating layer ip2
I0430 23:34:53.435428 28244 net.cpp:94] Creating Layer ip2
I0430 23:34:53.435441 28244 net.cpp:435] ip2 <- ip1
I0430 23:34:53.435448 28244 net.cpp:409] ip2 -> ip2
I0430 23:34:53.448952 28244 net.cpp:144] Setting up ip2
I0430 23:34:53.448971 28244 net.cpp:151] Top shape: 20 512 (10240)
I0430 23:34:53.448974 28244 net.cpp:159] Memory required for data: 15258960
I0430 23:34:53.448982 28244 layer_factory.hpp:77] Creating layer ip3
I0430 23:34:53.448988 28244 net.cpp:94] Creating Layer ip3
I0430 23:34:53.448992 28244 net.cpp:435] ip3 <- ip2
I0430 23:34:53.448998 28244 net.cpp:409] ip3 -> ip3
I0430 23:34:53.449111 28244 net.cpp:144] Setting up ip3
I0430 23:34:53.449118 28244 net.cpp:151] Top shape: 20 1 (20)
I0430 23:34:53.449121 28244 net.cpp:159] Memory required for data: 15259040
I0430 23:34:53.449127 28244 layer_factory.hpp:77] Creating layer loss
I0430 23:34:53.449141 28244 net.cpp:94] Creating Layer loss
I0430 23:34:53.449146 28244 net.cpp:435] loss <- ip3
I0430 23:34:53.449148 28244 net.cpp:435] loss <- label
I0430 23:34:53.449153 28244 net.cpp:409] loss -> loss
I0430 23:34:53.449204 28244 net.cpp:144] Setting up loss
…
I0430 23:34:53.748273 28244 net.cpp:323] The NetState phase (0) differed from the phase (1) specified by a rule in layer intercept
I0430 23:34:53.748288 28244 net.cpp:323] The NetState phase (0) differed from the phase (1) specified by a rule in layer accuracy
I0430 23:34:53.748374 28244 net.cpp:52] Initializing net from parameters: 
state {
  phase: TRAIN
}
layer {
  name: "parameters"
  type: "HDF5Data"
  top: "data"
  top: "label"
  include {
    phase: TRAIN
  }
  hdf5_data_param {
    source: "/home/purduethu/scratch/radon/d/deng106/CNNStatisticalModel/distributions/input/50_distributions_400_sample_size_train-distributions-path.txt"
    batch_size: 20
  }
}
layer {
  name: "conv1"
  type: "Convolution"
  bottom: "data"
  top: "conv1"
  param {
    lr_mult: 1
  }
  param {
    lr_mult: 2
  }
  convolution_param {
    num_output: 64
    pad: 2
    kernel_size: 5
    stride: 1
    weight_filler {
      type: "gaussian"
      std: 0.0001
    }
    bias_filler {
      type: "constant"
    }
  }
}
layer {
  name: "relu1"
  type: "ReLU"
  bottom: "conv1"
  top: "conv1"
}
layer {
  name: "conv2"
  type: "Convolution"
  bottom: "conv1"
  top: "conv2"
  param {
    lr_mult: 1
  }
  param {
    lr_mult: 2
  }
  convolution_param {
    num_output: 64
    pad: 2
    kernel_size: 5
    stride: 1
    weight_filler {
      type: "gaussian"
      std: 0.01
    }
    bias_filler {
      type: "constant"
    }
  }
}
layer {
  name: "relu2"
  type: "ReLU"
  bottom: "conv2"
  top: "conv2"
}
layer {
  name: "pool2"
  type: "Pooling"
  bottom: "conv2"
  top: "pool2"
  pooling_param {
    pool: MAX
    kernel_size: 3
    stride: 2
  }
}
layer {
  name: "conv3"
  type: "Convolution"
  bottom: "pool2"
  top: "conv3"
  param {
    lr_mult: 1
  }
  param {
    lr_mult: 2
  }
  convolution_param {
    num_output: 128
    pad: 2
    kernel_size: 5
    stride: 1
    weight_filler {
      type: "gaussian"
      std: 0.01
    }
    bias_filler {
      type: "constant"
    }
  }
}
layer {
  name: "relu3"
  type: "ReLU"
  bottom: "conv3"
  top: "conv3"
}
layer {
  name: "conv4"
  type: "Convolution"
  bottom: "conv3"
  top: "conv4"
  param {
    lr_mult: 1
  }
  param {
    lr_mult: 2
  }
  convolution_param {
    num_output: 128
    pad: 2
    kernel_size: 5
    stride: 1
    weight_filler {
      type: "gaussian"
      std: 0.01
    }
    bias_filler {
      type: "constant"
    }
  }
}
layer {
  name: "relu4"
  type: "ReLU"
  bottom: "conv4"
  top: "conv4"
}
layer {
  name: "conv5"
  type: "Convolution"
  bottom: "conv4"
  top: "conv5"
  param {
    lr_mult: 1
  }
  param {
    lr_mult: 2
  }
  convolution_param {
    num_output: 128
    pad: 2
    kernel_size: 5
    stride: 1
    weight_filler {
      type: "gaussian"
      std: 0.01
    }
    bias_filler {
      type: "constant"
    }
  }
}
layer {
  name: "relu5"
  type: "ReLU"
  bottom: "conv5"
  top: "conv5"
}
layer {
  name: "pool5"
  type: "Pooling"
  bottom: "conv5"
  top: "pool5"
  pooling_param {
    pool: AVE
    kernel_size: 3
    stride: 2
  }
}
layer {
  name: "ip1"
  type: "InnerProduct"
  bottom: "pool5"
  top: "ip1"
  param {
    lr_mult: 1
  }
  param {
    lr_mult: 2
  }
  inner_product_param {
    num_output: 1024
    weight_filler {
      type: "gaussian"
      std: 0.1
    }
    bias_filler {
      type: "constant"
    }
  }
}
layer {
  name: "ip2"
  type: "InnerProduct"
  bottom: "ip1"
  top: "ip2"
  param {
    lr_mult: 1
  }
  param {
    lr_mult: 2
  }
  inner_product_param {
    num_output: 512
    weight_filler {
      type: "gaussian"
      std: 0.1
    }
    bias_filler {
      type: "constant"
    }
  }
}
layer {
  name: "ip3"
  type: "InnerProduct"
  bottom: "ip2"
  top: "ip3"
  param {
    lr_mult: 1
  }
  param {
    lr_mult: 2
  }
  inner_product_param {
    num_output: 50
    weight_filler {
      type: "gaussian"
      std: 0.1
    }
    bias_filler {
      type: "constant"
    }
  }
}
layer {
  name: "loss"
  type: "SoftmaxWithLoss"
  bottom: "ip3"
  bottom: "label"
  top: "loss"
}
I0430 23:34:53.748425 28244 layer_factory.hpp:77] Creating layer parameters
I0430 23:34:53.748432 28244 net.cpp:94] Creating Layer parameters
I0430 23:34:53.748436 28244 net.cpp:409] parameters -> data
I0430 23:34:53.748442 28244 net.cpp:409] parameters -> label
I0430 23:34:53.748448 28244 hdf5_data_layer.cpp:79] Loading list of HDF5 filenames from: /home/purduethu/scratch/radon/d/deng106/CNNStatisticalModel/distributions/input/50_distributions_400_sample_size_train-distributions-path.txt
I0430 23:34:53.748464 28244 hdf5_data_layer.cpp:93] Number of HDF5 files: 1
I0430 23:34:54.389890 28244 hdf5.cpp:35] Datatype class: H5T_INTEGER
I0430 23:34:54.392989 28244 net.cpp:144] Setting up parameters
I0430 23:34:54.393007 28244 net.cpp:151] Top shape: 20 1 20 20 (8000)
I0430 23:34:54.393013 28244 net.cpp:151] Top shape: 20 (20)
I0430 23:34:54.393015 28244 net.cpp:159] Memory required for data: 32080
I0430 23:34:54.393021 28244 layer_factory.hpp:77] Creating layer conv1
I0430 23:34:54.393038 28244 net.cpp:94] Creating Layer conv1
I0430 23:34:54.393041 28244 net.cpp:435] conv1 <- data
I0430 23:34:54.393048 28244 net.cpp:409] conv1 -> conv1
I0430 23:34:54.395357 28244 net.cpp:144] Setting up conv1
I0430 23:34:54.395371 28244 net.cpp:151] Top shape: 20 64 20 20 (512000)
I0430 23:34:54.395375 28244 net.cpp:159] Memory required for data: 2080080
I0430 23:34:54.395385 28244 layer_factory.hpp:77] Creating layer relu1
I0430 23:34:54.395392 28244 net.cpp:94] Creating Layer relu1
I0430 23:34:54.395395 28244 net.cpp:435] relu1 <- conv1
I0430 23:34:54.395401 28244 net.cpp:396] relu1 -> conv1 (in-place)
I0430 23:34:54.395407 28244 net.cpp:144] Setting up relu1
I0430 23:34:54.395411 28244 net.cpp:151] Top shape: 20 64 20 20 (512000)
I0430 23:34:54.395414 28244 net.cpp:159] Memory required for data: 4128080
I0430 23:34:54.395417 28244 layer_factory.hpp:77] Creating layer conv2
I0430 23:34:54.395424 28244 net.cpp:94] Creating Layer conv2
I0430 23:34:54.395427 28244 net.cpp:435] conv2 <- conv1
I0430 23:34:54.395432 28244 net.cpp:409] conv2 -> conv2
I0430 23:34:54.407423 28244 net.cpp:144] Setting up conv2
I0430 23:34:54.407466 28244 net.cpp:151] Top shape: 20 64 20 20 (512000)
I0430 23:34:54.407477 28244 net.cpp:159] Memory required for data: 6176080
I0430 23:34:54.407500 28244 layer_factory.hpp:77] Creating layer relu2
I0430 23:34:54.407517 28244 net.cpp:94] Creating Layer relu2
I0430 23:34:54.407527 28244 net.cpp:435] relu2 <- conv2
I0430 23:34:54.407541 28244 net.cpp:396] relu2 -> conv2 (in-place)
I0430 23:34:54.407560 28244 net.cpp:144] Setting up relu2
I0430 23:34:54.407572 28244 net.cpp:151] Top shape: 20 64 20 20 (512000)
I0430 23:34:54.407582 28244 net.cpp:159] Memory required for data: 8224080
I0430 23:34:54.407589 28244 layer_factory.hpp:77] Creating layer pool2
I0430 23:34:54.407603 28244 net.cpp:94] Creating Layer pool2
I0430 23:34:54.407610 28244 net.cpp:435] pool2 <- conv2
I0430 23:34:54.407624 28244 net.cpp:409] pool2 -> pool2
I0430 23:34:54.407760 28244 net.cpp:144] Setting up pool2
I0430 23:34:54.407780 28244 net.cpp:151] Top shape: 20 64 10 10 (128000)
I0430 23:34:54.407789 28244 net.cpp:159] Memory required for data: 8736080
I0430 23:34:54.407797 28244 layer_factory.hpp:77] Creating layer conv3
I0430 23:34:54.407817 28244 net.cpp:94] Creating Layer conv3
I0430 23:34:54.407826 28244 net.cpp:435] conv3 <- pool2
I0430 23:34:54.407852 28244 net.cpp:409] conv3 -> conv3
I0430 23:34:54.418488 28244 net.cpp:144] Setting up conv3
I0430 23:34:54.418504 28244 net.cpp:151] Top shape: 20 128 10 10 (256000)
I0430 23:34:54.418509 28244 net.cpp:159] Memory required for data: 9760080
I0430 23:34:54.418516 28244 layer_factory.hpp:77] Creating layer relu3
I0430 23:34:54.418522 28244 net.cpp:94] Creating Layer relu3
I0430 23:34:54.418526 28244 net.cpp:435] relu3 <- conv3
I0430 23:34:54.418531 28244 net.cpp:396] relu3 -> conv3 (in-place)
I0430 23:34:54.418539 28244 net.cpp:144] Setting up relu3
I0430 23:34:54.418542 28244 net.cpp:151] Top shape: 20 128 10 10 (256000)
I0430 23:34:54.418545 28244 net.cpp:159] Memory required for data: 10784080
I0430 23:34:54.418548 28244 layer_factory.hpp:77] Creating layer conv4
I0430 23:34:54.418556 28244 net.cpp:94] Creating Layer conv4
I0430 23:34:54.418560 28244 net.cpp:435] conv4 <- conv3
I0430 23:34:54.418565 28244 net.cpp:409] conv4 -> conv4
I0430 23:34:54.437069 28244 net.cpp:144] Setting up conv4
I0430 23:34:54.437089 28244 net.cpp:151] Top shape: 20 128 10 10 (256000)
I0430 23:34:54.437093 28244 net.cpp:159] Memory required for data: 11808080
I0430 23:34:54.437101 28244 layer_factory.hpp:77] Creating layer relu4
I0430 23:34:54.437108 28244 net.cpp:94] Creating Layer relu4
I0430 23:34:54.437111 28244 net.cpp:435] relu4 <- conv4
I0430 23:34:54.437116 28244 net.cpp:396] relu4 -> conv4 (in-place)
I0430 23:34:54.437124 28244 net.cpp:144] Setting up relu4
I0430 23:34:54.437127 28244 net.cpp:151] Top shape: 20 128 10 10 (256000)
I0430 23:34:54.437130 28244 net.cpp:159] Memory required for data: 12832080
I0430 23:34:54.437134 28244 layer_factory.hpp:77] Creating layer conv5
I0430 23:34:54.437141 28244 net.cpp:94] Creating Layer conv5
I0430 23:34:54.437144 28244 net.cpp:435] conv5 <- conv4
I0430 23:34:54.437150 28244 net.cpp:409] conv5 -> conv5
I0430 23:34:54.455271 28244 net.cpp:144] Setting up conv5
I0430 23:34:54.455292 28244 net.cpp:151] Top shape: 20 128 10 10 (256000)
I0430 23:34:54.455297 28244 net.cpp:159] Memory required for data: 13856080
I0430 23:34:54.455307 28244 layer_factory.hpp:77] Creating layer relu5
I0430 23:34:54.455314 28244 net.cpp:94] Creating Layer relu5
I0430 23:34:54.455317 28244 net.cpp:435] relu5 <- conv5
I0430 23:34:54.455322 28244 net.cpp:396] relu5 -> conv5 (in-place)
I0430 23:34:54.455330 28244 net.cpp:144] Setting up relu5
I0430 23:34:54.455334 28244 net.cpp:151] Top shape: 20 128 10 10 (256000)
I0430 23:34:54.455338 28244 net.cpp:159] Memory required for data: 14880080
I0430 23:34:54.455340 28244 layer_factory.hpp:77] Creating layer pool5
I0430 23:34:54.455345 28244 net.cpp:94] Creating Layer pool5
I0430 23:34:54.455348 28244 net.cpp:435] pool5 <- conv5
I0430 23:34:54.455353 28244 net.cpp:409] pool5 -> pool5
I0430 23:34:54.455394 28244 net.cpp:144] Setting up pool5
I0430 23:34:54.455402 28244 net.cpp:151] Top shape: 20 128 5 5 (64000)
I0430 23:34:54.455405 28244 net.cpp:159] Memory required for data: 15136080
I0430 23:34:54.455409 28244 layer_factory.hpp:77] Creating layer ip1
I0430 23:34:54.455416 28244 net.cpp:94] Creating Layer ip1
I0430 23:34:54.455420 28244 net.cpp:435] ip1 <- pool5
I0430 23:34:54.455425 28244 net.cpp:409] ip1 -> ip1
I0430 23:34:54.535461 28244 net.cpp:144] Setting up ip1
I0430 23:34:54.535495 28244 net.cpp:151] Top shape: 20 1024 (20480)
I0430 23:34:54.535501 28244 net.cpp:159] Memory required for data: 15218000
I0430 23:34:54.535509 28244 layer_factory.hpp:77] Creating layer ip2
I0430 23:34:54.535519 28244 net.cpp:94] Creating Layer ip2
I0430 23:34:54.535523 28244 net.cpp:435] ip2 <- ip1
I0430 23:34:54.535531 28244 net.cpp:409] ip2 -> ip2
I0430 23:34:54.548949 28244 net.cpp:144] Setting up ip2
I0430 23:34:54.548969 28244 net.cpp:151] Top shape: 20 512 (10240)
I0430 23:34:54.548974 28244 net.cpp:159] Memory required for data: 15258960
I0430 23:34:54.548980 28244 layer_factory.hpp:77] Creating layer ip3
I0430 23:34:54.548987 28244 net.cpp:94] Creating Layer ip3
I0430 23:34:54.548991 28244 net.cpp:435] ip3 <- ip2
I0430 23:34:54.548997 28244 net.cpp:409] ip3 -> ip3
I0430 23:34:54.551700 28244 net.cpp:144] Setting up ip3
I0430 23:34:54.551717 28244 net.cpp:151] Top shape: 20 50 (1000)
I0430 23:34:54.551722 28244 net.cpp:159] Memory required for data: 15262960
I0430 23:34:54.551728 28244 layer_factory.hpp:77] Creating layer loss
I0430 23:34:54.551736 28244 net.cpp:94] Creating Layer loss
I0430 23:34:54.551740 28244 net.cpp:435] loss <- ip3
I0430 23:34:54.551744 28244 net.cpp:435] loss <- label
I0430 23:34:54.551748 28244 net.cpp:409] loss -> loss
I0430 23:34:54.551756 28244 layer_factory.hpp:77] Creating layer loss
…
I0430 23:34:54.552273 28244 solver.cpp:181] Creating test net (#0) specified by net file: ./protocol/dis_50_400_dimension.protocol_distribution
I0430 23:34:54.552299 28244 net.cpp:323] The NetState phase (1) differed from the phase (0) specified by a rule in layer parameters
I0430 23:34:54.552390 28244 net.cpp:52] Initializing net from parameters: 
state {
  phase: TEST
}
layer {
  name: "intercept"
  type: "HDF5Data"
  top: "data"
  top: "label"
  include {
    phase: TEST
  }
  hdf5_data_param {
    source: "/home/purduethu/scratch/radon/d/deng106/CNNStatisticalModel/distributions/input/50_distributions_400_sample_size_test-distributions-path.txt"
    batch_size: 20
  }
}
layer {
  name: "conv1"
  type: "Convolution"
  bottom: "data"
  top: "conv1"
  param {
    lr_mult: 1
  }
  param {
    lr_mult: 2
  }
  convolution_param {
    num_output: 64
    pad: 2
    kernel_size: 5
    stride: 1
    weight_filler {
      type: "gaussian"
      std: 0.0001
    }
    bias_filler {
      type: "constant"
    }
  }
}
layer {
  name: "relu1"
  type: "ReLU"
  bottom: "conv1"
  top: "conv1"
}
layer {
  name: "conv2"
  type: "Convolution"
  bottom: "conv1"
  top: "conv2"
  param {
    lr_mult: 1
  }
  param {
    lr_mult: 2
  }
  convolution_param {
    num_output: 64
    pad: 2
    kernel_size: 5
    stride: 1
    weight_filler {
      type: "gaussian"
      std: 0.01
    }
    bias_filler {
      type: "constant"
    }
  }
}
layer {
  name: "relu2"
  type: "ReLU"
  bottom: "conv2"
  top: "conv2"
}
layer {
  name: "pool2"
  type: "Pooling"
  bottom: "conv2"
  top: "pool2"
  pooling_param {
    pool: MAX
    kernel_size: 3
    stride: 2
  }
}
layer {
  name: "conv3"
  type: "Convolution"
  bottom: "pool2"
  top: "conv3"
  param {
    lr_mult: 1
  }
  param {
    lr_mult: 2
  }
  convolution_param {
    num_output: 128
    pad: 2
    kernel_size: 5
    stride: 1
    weight_filler {
      type: "gaussian"
      std: 0.01
    }
    bias_filler {
      type: "constant"
    }
  }
}
layer {
  name: "relu3"
  type: "ReLU"
  bottom: "conv3"
  top: "conv3"
}
layer {
  name: "conv4"
  type: "Convolution"
  bottom: "conv3"
  top: "conv4"
  param {
    lr_mult: 1
  }
  param {
    lr_mult: 2
  }
  convolution_param {
    num_output: 128
    pad: 2
    kernel_size: 5
    stride: 1
    weight_filler {
      type: "gaussian"
      std: 0.01
    }
    bias_filler {
      type: "constant"
    }
  }
}
layer {
  name: "relu4"
  type: "ReLU"
  bottom: "conv4"
  top: "conv4"
}
layer {
  name: "conv5"
  type: "Convolution"
  bottom: "conv4"
  top: "conv5"
  param {
    lr_mult: 1
  }
  param {
    lr_mult: 2
  }
  convolution_param {
    num_output: 128
    pad: 2
    kernel_size: 5
    stride: 1
    weight_filler {
      type: "gaussian"
      std: 0.01
    }
    bias_filler {
      type: "constant"
    }
  }
}
layer {
  name: "relu5"
  type: "ReLU"
  bottom: "conv5"
  top: "conv5"
}
layer {
  name: "pool5"
  type: "Pooling"
  bottom: "conv5"
  top: "pool5"
  pooling_param {
    pool: AVE
    kernel_size: 3
    stride: 2
  }
}
layer {
  name: "ip1"
  type: "InnerProduct"
  bottom: "pool5"
  top: "ip1"
  param {
    lr_mult: 1
  }
  param {
    lr_mult: 2
  }
  inner_product_param {
    num_output: 1024
    weight_filler {
      type: "gaussian"
      std: 0.1
    }
    bias_filler {
      type: "constant"
    }
  }
}
layer {
  name: "ip2"
  type: "InnerProduct"
  bottom: "ip1"
  top: "ip2"
  param {
    lr_mult: 1
  }
  param {
    lr_mult: 2
  }
  inner_product_param {
    num_output: 512
    weight_filler {
      type: "gaussian"
      std: 0.1
    }
    bias_filler {
      type: "constant"
    }
  }
}
layer {
  name: "ip3"
  type: "InnerProduct"
  bottom: "ip2"
  top: "ip3"
  param {
    lr_mult: 1
  }
  param {
    lr_mult: 2
  }
  inner_product_param {
    num_output: 50
    weight_filler {
      type: "gaussian"
      std: 0.1
    }
    bias_filler {
      type: "constant"
    }
  }
}
layer {
  name: "accuracy"
  type: "Accuracy"
  bottom: "ip3"
  bottom: "label"
  top: "accuracy"
  include {
    phase: TEST
  }
}
layer {
  name: "loss"
  type: "SoftmaxWithLoss"
  bottom: "ip3"
  bottom: "label"
  top: "loss"
}
I0430 23:34:54.552459 28244 layer_factory.hpp:77] Creating layer intercept
I0430 23:34:54.552466 28244 net.cpp:94] Creating Layer intercept
I0430 23:34:54.552470 28244 net.cpp:409] intercept -> data
I0430 23:34:54.552477 28244 net.cpp:409] intercept -> label
I0430 23:34:54.552482 28244 hdf5_data_layer.cpp:79] Loading list of HDF5 filenames from: /home/purduethu/scratch/radon/d/deng106/CNNStatisticalModel/distributions/input/50_distributions_400_sample_size_test-distributions-path.txt
I0430 23:34:54.552501 28244 hdf5_data_layer.cpp:93] Number of HDF5 files: 1
I0430 23:34:54.714709 28244 net.cpp:144] Setting up intercept
I0430 23:34:54.714745 28244 net.cpp:151] Top shape: 20 1 20 20 (8000)
I0430 23:34:54.714748 28244 net.cpp:151] Top shape: 20 (20)
I0430 23:34:54.714751 28244 net.cpp:159] Memory required for data: 32080
I0430 23:34:54.714757 28244 layer_factory.hpp:77] Creating layer label_intercept_1_split
I0430 23:34:54.714776 28244 net.cpp:94] Creating Layer label_intercept_1_split
I0430 23:34:54.714781 28244 net.cpp:435] label_intercept_1_split <- label
I0430 23:34:54.714787 28244 net.cpp:409] label_intercept_1_split -> label_intercept_1_split_0
I0430 23:34:54.714795 28244 net.cpp:409] label_intercept_1_split -> label_intercept_1_split_1
I0430 23:34:54.714838 28244 net.cpp:144] Setting up label_intercept_1_split
I0430 23:34:54.714843 28244 net.cpp:151] Top shape: 20 (20)
I0430 23:34:54.714848 28244 net.cpp:151] Top shape: 20 (20)
I0430 23:34:54.714850 28244 net.cpp:159] Memory required for data: 32240
I0430 23:34:54.714854 28244 layer_factory.hpp:77] Creating layer conv1
I0430 23:34:54.714864 28244 net.cpp:94] Creating Layer conv1
I0430 23:34:54.714867 28244 net.cpp:435] conv1 <- data
I0430 23:34:54.714871 28244 net.cpp:409] conv1 -> conv1
I0430 23:34:54.715729 28244 net.cpp:144] Setting up conv1
I0430 23:34:54.715742 28244 net.cpp:151] Top shape: 20 64 20 20 (512000)
I0430 23:34:54.715746 28244 net.cpp:159] Memory required for data: 2080240
I0430 23:34:54.715755 28244 layer_factory.hpp:77] Creating layer relu1
I0430 23:34:54.715762 28244 net.cpp:94] Creating Layer relu1
I0430 23:34:54.715765 28244 net.cpp:435] relu1 <- conv1
I0430 23:34:54.715770 28244 net.cpp:396] relu1 -> conv1 (in-place)
I0430 23:34:54.715776 28244 net.cpp:144] Setting up relu1
I0430 23:34:54.715781 28244 net.cpp:151] Top shape: 20 64 20 20 (512000)
I0430 23:34:54.715783 28244 net.cpp:159] Memory required for data: 4128240
I0430 23:34:54.715786 28244 layer_factory.hpp:77] Creating layer conv2
I0430 23:34:54.715795 28244 net.cpp:94] Creating Layer conv2
I0430 23:34:54.715797 28244 net.cpp:435] conv2 <- conv1
I0430 23:34:54.715802 28244 net.cpp:409] conv2 -> conv2
I0430 23:34:54.721038 28244 net.cpp:144] Setting up conv2
I0430 23:34:54.721055 28244 net.cpp:151] Top shape: 20 64 20 20 (512000)
I0430 23:34:54.721057 28244 net.cpp:159] Memory required for data: 6176240
I0430 23:34:54.721066 28244 layer_factory.hpp:77] Creating layer relu2
I0430 23:34:54.721072 28244 net.cpp:94] Creating Layer relu2
I0430 23:34:54.721076 28244 net.cpp:435] relu2 <- conv2
I0430 23:34:54.721079 28244 net.cpp:396] relu2 -> conv2 (in-place)
I0430 23:34:54.721086 28244 net.cpp:144] Setting up relu2
I0430 23:34:54.721091 28244 net.cpp:151] Top shape: 20 64 20 20 (512000)
I0430 23:34:54.721093 28244 net.cpp:159] Memory required for data: 8224240
I0430 23:34:54.721096 28244 layer_factory.hpp:77] Creating layer pool2
I0430 23:34:54.721102 28244 net.cpp:94] Creating Layer pool2
I0430 23:34:54.721104 28244 net.cpp:435] pool2 <- conv2
I0430 23:34:54.721110 28244 net.cpp:409] pool2 -> pool2
I0430 23:34:54.721173 28244 net.cpp:144] Setting up pool2
I0430 23:34:54.721180 28244 net.cpp:151] Top shape: 20 64 10 10 (128000)
I0430 23:34:54.721184 28244 net.cpp:159] Memory required for data: 8736240
I0430 23:34:54.721186 28244 layer_factory.hpp:77] Creating layer conv3
I0430 23:34:54.721195 28244 net.cpp:94] Creating Layer conv3
I0430 23:34:54.721199 28244 net.cpp:435] conv3 <- pool2
I0430 23:34:54.721205 28244 net.cpp:409] conv3 -> conv3
I0430 23:34:54.728564 28244 net.cpp:144] Setting up conv3
I0430 23:34:54.728580 28244 net.cpp:151] Top shape: 20 128 10 10 (256000)
I0430 23:34:54.728585 28244 net.cpp:159] Memory required for data: 9760240
I0430 23:34:54.728592 28244 layer_factory.hpp:77] Creating layer relu3
I0430 23:34:54.728600 28244 net.cpp:94] Creating Layer relu3
I0430 23:34:54.728602 28244 net.cpp:435] relu3 <- conv3
I0430 23:34:54.728607 28244 net.cpp:396] relu3 -> conv3 (in-place)
I0430 23:34:54.728615 28244 net.cpp:144] Setting up relu3
I0430 23:34:54.728618 28244 net.cpp:151] Top shape: 20 128 10 10 (256000)
I0430 23:34:54.728621 28244 net.cpp:159] Memory required for data: 10784240
I0430 23:34:54.728624 28244 layer_factory.hpp:77] Creating layer conv4
I0430 23:34:54.728633 28244 net.cpp:94] Creating Layer conv4
I0430 23:34:54.728637 28244 net.cpp:435] conv4 <- conv3
I0430 23:34:54.728643 28244 net.cpp:409] conv4 -> conv4
I0430 23:34:54.742514 28244 net.cpp:144] Setting up conv4
I0430 23:34:54.742530 28244 net.cpp:151] Top shape: 20 128 10 10 (256000)
I0430 23:34:54.742534 28244 net.cpp:159] Memory required for data: 11808240
I0430 23:34:54.742542 28244 layer_factory.hpp:77] Creating layer relu4
I0430 23:34:54.742547 28244 net.cpp:94] Creating Layer relu4
I0430 23:34:54.742552 28244 net.cpp:435] relu4 <- conv4
I0430 23:34:54.742557 28244 net.cpp:396] relu4 -> conv4 (in-place)
I0430 23:34:54.742563 28244 net.cpp:144] Setting up relu4
I0430 23:34:54.742568 28244 net.cpp:151] Top shape: 20 128 10 10 (256000)
I0430 23:34:54.742570 28244 net.cpp:159] Memory required for data: 12832240
I0430 23:34:54.742573 28244 layer_factory.hpp:77] Creating layer conv5
I0430 23:34:54.742581 28244 net.cpp:94] Creating Layer conv5
I0430 23:34:54.742585 28244 net.cpp:435] conv5 <- conv4
I0430 23:34:54.742591 28244 net.cpp:409] conv5 -> conv5
I0430 23:34:54.756022 28244 net.cpp:144] Setting up conv5
I0430 23:34:54.756062 28244 net.cpp:151] Top shape: 20 128 10 10 (256000)
I0430 23:34:54.756073 28244 net.cpp:159] Memory required for data: 13856240
I0430 23:34:54.756098 28244 layer_factory.hpp:77] Creating layer relu5
I0430 23:34:54.756114 28244 net.cpp:94] Creating Layer relu5
I0430 23:34:54.756124 28244 net.cpp:435] relu5 <- conv5
I0430 23:34:54.756139 28244 net.cpp:396] relu5 -> conv5 (in-place)
I0430 23:34:54.756160 28244 net.cpp:144] Setting up relu5
I0430 23:34:54.756172 28244 net.cpp:151] Top shape: 20 128 10 10 (256000)
I0430 23:34:54.756181 28244 net.cpp:159] Memory required for data: 14880240
I0430 23:34:54.756188 28244 layer_factory.hpp:77] Creating layer pool5
I0430 23:34:54.756202 28244 net.cpp:94] Creating Layer pool5
I0430 23:34:54.756211 28244 net.cpp:435] pool5 <- conv5
I0430 23:34:54.756227 28244 net.cpp:409] pool5 -> pool5
I0430 23:34:54.756335 28244 net.cpp:144] Setting up pool5
I0430 23:34:54.756355 28244 net.cpp:151] Top shape: 20 128 5 5 (64000)
I0430 23:34:54.756363 28244 net.cpp:159] Memory required for data: 15136240
I0430 23:34:54.756372 28244 layer_factory.hpp:77] Creating layer ip1
I0430 23:34:54.756392 28244 net.cpp:94] Creating Layer ip1
I0430 23:34:54.756402 28244 net.cpp:435] ip1 <- pool5
I0430 23:34:54.756413 28244 net.cpp:409] ip1 -> ip1
I0430 23:34:54.837887 28244 net.cpp:144] Setting up ip1
I0430 23:34:54.837909 28244 net.cpp:151] Top shape: 20 1024 (20480)
I0430 23:34:54.837913 28244 net.cpp:159] Memory required for data: 15218160
I0430 23:34:54.837921 28244 layer_factory.hpp:77] Creating layer ip2
I0430 23:34:54.837932 28244 net.cpp:94] Creating Layer ip2
I0430 23:34:54.837937 28244 net.cpp:435] ip2 <- ip1
I0430 23:34:54.837944 28244 net.cpp:409] ip2 -> ip2
I0430 23:34:54.851562 28244 net.cpp:144] Setting up ip2
I0430 23:34:54.851577 28244 net.cpp:151] Top shape: 20 512 (10240)
I0430 23:34:54.851580 28244 net.cpp:159] Memory required for data: 15259120
I0430 23:34:54.851585 28244 layer_factory.hpp:77] Creating layer ip3
I0430 23:34:54.851594 28244 net.cpp:94] Creating Layer ip3
I0430 23:34:54.851598 28244 net.cpp:435] ip3 <- ip2
I0430 23:34:54.851603 28244 net.cpp:409] ip3 -> ip3
I0430 23:34:54.852344 28244 net.cpp:144] Setting up ip3
I0430 23:34:54.852352 28244 net.cpp:151] Top shape: 20 50 (1000)
I0430 23:34:54.852355 28244 net.cpp:159] Memory required for data: 15263120
I0430 23:34:54.852360 28244 layer_factory.hpp:77] Creating layer ip3_ip3_0_split
I0430 23:34:54.852366 28244 net.cpp:94] Creating Layer ip3_ip3_0_split
I0430 23:34:54.852370 28244 net.cpp:435] ip3_ip3_0_split <- ip3
I0430 23:34:54.852375 28244 net.cpp:409] ip3_ip3_0_split -> ip3_ip3_0_split_0
I0430 23:34:54.852380 28244 net.cpp:409] ip3_ip3_0_split -> ip3_ip3_0_split_1
I0430 23:34:54.852424 28244 net.cpp:144] Setting up ip3_ip3_0_split
I0430 23:34:54.852432 28244 net.cpp:151] Top shape: 20 50 (1000)
I0430 23:34:54.852435 28244 net.cpp:151] Top shape: 20 50 (1000)
I0430 23:34:54.852438 28244 net.cpp:159] Memory required for data: 15271120
I0430 23:34:54.852440 28244 layer_factory.hpp:77] Creating layer accuracy
I0430 23:34:54.852447 28244 net.cpp:94] Creating Layer accuracy
I0430 23:34:54.852449 28244 net.cpp:435] accuracy <- ip3_ip3_0_split_0
I0430 23:34:54.852453 28244 net.cpp:435] accuracy <- label_intercept_1_split_0
I0430 23:34:54.852458 28244 net.cpp:409] accuracy -> accuracy
…
