…
I0505 14:07:48.955400  7273 net.cpp:323] The NetState phase (0) differed from the phase (1) specified by a rule in layer intercept
I0505 14:07:48.955415  7273 net.cpp:323] The NetState phase (0) differed from the phase (1) specified by a rule in layer loss
I0505 14:07:48.955480  7273 net.cpp:52] Initializing net from parameters: 
state {
  phase: TRAIN
}
layer {
  name: "parameters"
  type: "HDF5Data"
  top: "data"
  top: "label"
  include {
    phase: TRAIN
  }
  hdf5_data_param {
    source: "/home/purduethu/scratch/radon/d/deng106/CNNStatisticalModel/distributions/input/5_distributions_400_sample_size_train-parameters-path.txt"
    batch_size: 20
  }
}
layer {
  name: "conv1"
  type: "Convolution"
  bottom: "data"
  top: "conv1"
  param {
    lr_mult: 1
  }
  param {
    lr_mult: 2
  }
  convolution_param {
    num_output: 64
    pad: 2
    kernel_size: 5
    stride: 1
    weight_filler {
      type: "gaussian"
      std: 0.0001
    }
    bias_filler {
      type: "constant"
    }
  }
}
layer {
  name: "relu1"
  type: "ReLU"
  bottom: "conv1"
  top: "conv1"
}
layer {
  name: "pool1"
  type: "Pooling"
  bottom: "conv1"
  top: "pool1"
  pooling_param {
    pool: MAX
    kernel_size: 3
    stride: 2
  }
}
layer {
  name: "conv2"
  type: "Convolution"
  bottom: "pool1"
  top: "conv2"
  param {
    lr_mult: 1
  }
  param {
    lr_mult: 2
  }
  convolution_param {
    num_output: 128
    pad: 2
    kernel_size: 5
    stride: 1
    weight_filler {
      type: "gaussian"
      std: 0.01
    }
    bias_filler {
      type: "constant"
    }
  }
}
layer {
  name: "relu2"
  type: "ReLU"
  bottom: "conv2"
  top: "conv2"
}
layer {
  name: "conv3"
  type: "Convolution"
  bottom: "conv2"
  top: "conv3"
  param {
    lr_mult: 1
  }
  param {
    lr_mult: 2
  }
  convolution_param {
    num_output: 128
    pad: 2
    kernel_size: 5
    stride: 1
    weight_filler {
      type: "gaussian"
      std: 0.01
    }
    bias_filler {
      type: "constant"
    }
  }
}
layer {
  name: "relu3"
  type: "ReLU"
  bottom: "conv3"
  top: "conv3"
}
layer {
  name: "pool3"
  type: "Pooling"
  bottom: "conv3"
  top: "pool3"
  pooling_param {
    pool: AVE
    kernel_size: 3
    stride: 2
  }
}
layer {
  name: "ip1"
  type: "InnerProduct"
  bottom: "pool3"
  top: "ip1"
  param {
    lr_mult: 1
  }
  param {
    lr_mult: 2
  }
  inner_product_param {
    num_output: 512
    weight_filler {
      type: "gaussian"
      std: 0.1
    }
    bias_filler {
      type: "constant"
    }
  }
}
layer {
  name: "ip2"
  type: "InnerProduct"
  bottom: "ip1"
  top: "ip2"
  param {
    lr_mult: 1
  }
  param {
    lr_mult: 2
  }
  inner_product_param {
    num_output: 256
    weight_filler {
      type: "gaussian"
      std: 0.1
    }
    bias_filler {
      type: "constant"
    }
  }
}
layer {
  name: "ip3"
  type: "InnerProduct"
  bottom: "ip2"
  top: "ip3"
  param {
    lr_mult: 1
  }
  param {
    lr_mult: 2
  }
  inner_product_param {
    num_output: 1
    weight_filler {
      type: "gaussian"
      std: 0.1
    }
    bias_filler {
      type: "constant"
    }
  }
}
layer {
  name: "loss"
  type: "HuberLoss"
  bottom: "ip3"
  bottom: "label"
  top: "loss"
  include {
    phase: TRAIN
  }
}
I0505 14:07:48.955528  7273 layer_factory.hpp:77] Creating layer parameters
I0505 14:07:48.955544  7273 net.cpp:94] Creating Layer parameters
I0505 14:07:48.955549  7273 net.cpp:409] parameters -> data
I0505 14:07:48.955559  7273 net.cpp:409] parameters -> label
I0505 14:07:48.955565  7273 hdf5_data_layer.cpp:79] Loading list of HDF5 filenames from: /home/purduethu/scratch/radon/d/deng106/CNNStatisticalModel/distributions/input/5_distributions_400_sample_size_train-parameters-path.txt
I0505 14:07:48.955580  7273 hdf5_data_layer.cpp:93] Number of HDF5 files: 1
I0505 14:07:48.956125  7273 hdf5.cpp:32] Datatype class: H5T_FLOAT
I0505 14:07:49.019225  7273 net.cpp:144] Setting up parameters
I0505 14:07:49.019255  7273 net.cpp:151] Top shape: 20 1 20 20 (8000)
I0505 14:07:49.019260  7273 net.cpp:151] Top shape: 20 (20)
I0505 14:07:49.019264  7273 net.cpp:159] Memory required for data: 32080
I0505 14:07:49.019271  7273 layer_factory.hpp:77] Creating layer conv1
I0505 14:07:49.019287  7273 net.cpp:94] Creating Layer conv1
I0505 14:07:49.019292  7273 net.cpp:435] conv1 <- data
I0505 14:07:49.019299  7273 net.cpp:409] conv1 -> conv1
I0505 14:07:49.024741  7273 net.cpp:144] Setting up conv1
I0505 14:07:49.024763  7273 net.cpp:151] Top shape: 20 64 20 20 (512000)
I0505 14:07:49.024767  7273 net.cpp:159] Memory required for data: 2080080
I0505 14:07:49.024780  7273 layer_factory.hpp:77] Creating layer relu1
I0505 14:07:49.024790  7273 net.cpp:94] Creating Layer relu1
I0505 14:07:49.024793  7273 net.cpp:435] relu1 <- conv1
I0505 14:07:49.024799  7273 net.cpp:396] relu1 -> conv1 (in-place)
I0505 14:07:49.024808  7273 net.cpp:144] Setting up relu1
I0505 14:07:49.024813  7273 net.cpp:151] Top shape: 20 64 20 20 (512000)
I0505 14:07:49.024816  7273 net.cpp:159] Memory required for data: 4128080
I0505 14:07:49.024819  7273 layer_factory.hpp:77] Creating layer pool1
I0505 14:07:49.024826  7273 net.cpp:94] Creating Layer pool1
I0505 14:07:49.024829  7273 net.cpp:435] pool1 <- conv1
I0505 14:07:49.024833  7273 net.cpp:409] pool1 -> pool1
I0505 14:07:49.024890  7273 net.cpp:144] Setting up pool1
I0505 14:07:49.024897  7273 net.cpp:151] Top shape: 20 64 10 10 (128000)
I0505 14:07:49.024900  7273 net.cpp:159] Memory required for data: 4640080
I0505 14:07:49.024904  7273 layer_factory.hpp:77] Creating layer conv2
I0505 14:07:49.024914  7273 net.cpp:94] Creating Layer conv2
I0505 14:07:49.024919  7273 net.cpp:435] conv2 <- pool1
I0505 14:07:49.024924  7273 net.cpp:409] conv2 -> conv2
I0505 14:07:49.035430  7273 net.cpp:144] Setting up conv2
I0505 14:07:49.035445  7273 net.cpp:151] Top shape: 20 128 10 10 (256000)
I0505 14:07:49.035450  7273 net.cpp:159] Memory required for data: 5664080
I0505 14:07:49.035459  7273 layer_factory.hpp:77] Creating layer relu2
I0505 14:07:49.035465  7273 net.cpp:94] Creating Layer relu2
I0505 14:07:49.035470  7273 net.cpp:435] relu2 <- conv2
I0505 14:07:49.035475  7273 net.cpp:396] relu2 -> conv2 (in-place)
I0505 14:07:49.035482  7273 net.cpp:144] Setting up relu2
I0505 14:07:49.035487  7273 net.cpp:151] Top shape: 20 128 10 10 (256000)
I0505 14:07:49.035490  7273 net.cpp:159] Memory required for data: 6688080
I0505 14:07:49.035493  7273 layer_factory.hpp:77] Creating layer conv3
I0505 14:07:49.035501  7273 net.cpp:94] Creating Layer conv3
I0505 14:07:49.035506  7273 net.cpp:435] conv3 <- conv2
I0505 14:07:49.035511  7273 net.cpp:409] conv3 -> conv3
I0505 14:07:49.053334  7273 net.cpp:144] Setting up conv3
I0505 14:07:49.053350  7273 net.cpp:151] Top shape: 20 128 10 10 (256000)
I0505 14:07:49.053354  7273 net.cpp:159] Memory required for data: 7712080
I0505 14:07:49.053364  7273 layer_factory.hpp:77] Creating layer relu3
I0505 14:07:49.053376  7273 net.cpp:94] Creating Layer relu3
I0505 14:07:49.053381  7273 net.cpp:435] relu3 <- conv3
I0505 14:07:49.053386  7273 net.cpp:396] relu3 -> conv3 (in-place)
I0505 14:07:49.053395  7273 net.cpp:144] Setting up relu3
I0505 14:07:49.053400  7273 net.cpp:151] Top shape: 20 128 10 10 (256000)
I0505 14:07:49.053402  7273 net.cpp:159] Memory required for data: 8736080
I0505 14:07:49.053406  7273 layer_factory.hpp:77] Creating layer pool3
I0505 14:07:49.053412  7273 net.cpp:94] Creating Layer pool3
I0505 14:07:49.053416  7273 net.cpp:435] pool3 <- conv3
I0505 14:07:49.053419  7273 net.cpp:409] pool3 -> pool3
I0505 14:07:49.053463  7273 net.cpp:144] Setting up pool3
I0505 14:07:49.053472  7273 net.cpp:151] Top shape: 20 128 5 5 (64000)
I0505 14:07:49.053474  7273 net.cpp:159] Memory required for data: 8992080
I0505 14:07:49.053478  7273 layer_factory.hpp:77] Creating layer ip1
I0505 14:07:49.053488  7273 net.cpp:94] Creating Layer ip1
I0505 14:07:49.053493  7273 net.cpp:435] ip1 <- pool3
I0505 14:07:49.053498  7273 net.cpp:409] ip1 -> ip1
I0505 14:07:49.093439  7273 net.cpp:144] Setting up ip1
I0505 14:07:49.093466  7273 net.cpp:151] Top shape: 20 512 (10240)
I0505 14:07:49.093471  7273 net.cpp:159] Memory required for data: 9033040
I0505 14:07:49.093477  7273 layer_factory.hpp:77] Creating layer ip2
I0505 14:07:49.093487  7273 net.cpp:94] Creating Layer ip2
I0505 14:07:49.093490  7273 net.cpp:435] ip2 <- ip1
I0505 14:07:49.093497  7273 net.cpp:409] ip2 -> ip2
I0505 14:07:49.096642  7273 net.cpp:144] Setting up ip2
I0505 14:07:49.096652  7273 net.cpp:151] Top shape: 20 256 (5120)
I0505 14:07:49.096654  7273 net.cpp:159] Memory required for data: 9053520
I0505 14:07:49.096662  7273 layer_factory.hpp:77] Creating layer ip3
I0505 14:07:49.096668  7273 net.cpp:94] Creating Layer ip3
I0505 14:07:49.096673  7273 net.cpp:435] ip3 <- ip2
I0505 14:07:49.096678  7273 net.cpp:409] ip3 -> ip3
I0505 14:07:49.096786  7273 net.cpp:144] Setting up ip3
I0505 14:07:49.096792  7273 net.cpp:151] Top shape: 20 1 (20)
I0505 14:07:49.096796  7273 net.cpp:159] Memory required for data: 9053600
I0505 14:07:49.096801  7273 layer_factory.hpp:77] Creating layer loss
I0505 14:07:49.096812  7273 net.cpp:94] Creating Layer loss
I0505 14:07:49.096815  7273 net.cpp:435] loss <- ip3
I0505 14:07:49.096819  7273 net.cpp:435] loss <- label
I0505 14:07:49.096824  7273 net.cpp:409] loss -> loss
I0505 14:07:49.096881  7273 net.cpp:144] Setting up loss
…
I0505 14:07:49.182152  7273 net.cpp:323] The NetState phase (0) differed from the phase (1) specified by a rule in layer intercept
I0505 14:07:49.182165  7273 net.cpp:323] The NetState phase (0) differed from the phase (1) specified by a rule in layer accuracy
I0505 14:07:49.182234  7273 net.cpp:52] Initializing net from parameters: 
state {
  phase: TRAIN
}
layer {
  name: "parameters"
  type: "HDF5Data"
  top: "data"
  top: "label"
  include {
    phase: TRAIN
  }
  hdf5_data_param {
    source: "/home/purduethu/scratch/radon/d/deng106/CNNStatisticalModel/distributions/input/5_distributions_400_sample_size_train-distributions-path.txt"
    batch_size: 20
  }
}
layer {
  name: "conv1"
  type: "Convolution"
  bottom: "data"
  top: "conv1"
  param {
    lr_mult: 1
  }
  param {
    lr_mult: 2
  }
  convolution_param {
    num_output: 64
    pad: 2
    kernel_size: 5
    stride: 1
    weight_filler {
      type: "gaussian"
      std: 0.0001
    }
    bias_filler {
      type: "constant"
    }
  }
}
layer {
  name: "relu1"
  type: "ReLU"
  bottom: "conv1"
  top: "conv1"
}
layer {
  name: "pool1"
  type: "Pooling"
  bottom: "conv1"
  top: "pool1"
  pooling_param {
    pool: MAX
    kernel_size: 3
    stride: 2
  }
}
layer {
  name: "conv2"
  type: "Convolution"
  bottom: "pool1"
  top: "conv2"
  param {
    lr_mult: 1
  }
  param {
    lr_mult: 2
  }
  convolution_param {
    num_output: 128
    pad: 2
    kernel_size: 5
    stride: 1
    weight_filler {
      type: "gaussian"
      std: 0.01
    }
    bias_filler {
      type: "constant"
    }
  }
}
layer {
  name: "relu2"
  type: "ReLU"
  bottom: "conv2"
  top: "conv2"
}
layer {
  name: "conv3"
  type: "Convolution"
  bottom: "conv2"
  top: "conv3"
  param {
    lr_mult: 1
  }
  param {
    lr_mult: 2
  }
  convolution_param {
    num_output: 128
    pad: 2
    kernel_size: 5
    stride: 1
    weight_filler {
      type: "gaussian"
      std: 0.01
    }
    bias_filler {
      type: "constant"
    }
  }
}
layer {
  name: "relu3"
  type: "ReLU"
  bottom: "conv3"
  top: "conv3"
}
layer {
  name: "pool3"
  type: "Pooling"
  bottom: "conv3"
  top: "pool3"
  pooling_param {
    pool: AVE
    kernel_size: 3
    stride: 2
  }
}
layer {
  name: "ip1"
  type: "InnerProduct"
  bottom: "pool3"
  top: "ip1"
  param {
    lr_mult: 1
  }
  param {
    lr_mult: 2
  }
  inner_product_param {
    num_output: 512
    weight_filler {
      type: "gaussian"
      std: 0.1
    }
    bias_filler {
      type: "constant"
    }
  }
}
layer {
  name: "ip2"
  type: "InnerProduct"
  bottom: "ip1"
  top: "ip2"
  param {
    lr_mult: 1
  }
  param {
    lr_mult: 2
  }
  inner_product_param {
    num_output: 256
    weight_filler {
      type: "gaussian"
      std: 0.1
    }
    bias_filler {
      type: "constant"
    }
  }
}
layer {
  name: "ip3"
  type: "InnerProduct"
  bottom: "ip2"
  top: "ip3"
  param {
    lr_mult: 1
  }
  param {
    lr_mult: 2
  }
  inner_product_param {
    num_output: 50
    weight_filler {
      type: "gaussian"
      std: 0.1
    }
    bias_filler {
      type: "constant"
    }
  }
}
layer {
  name: "loss"
  type: "SoftmaxWithLoss"
  bottom: "ip3"
  bottom: "label"
  top: "loss"
}
I0505 14:07:49.182274  7273 layer_factory.hpp:77] Creating layer parameters
I0505 14:07:49.182282  7273 net.cpp:94] Creating Layer parameters
I0505 14:07:49.182286  7273 net.cpp:409] parameters -> data
I0505 14:07:49.182293  7273 net.cpp:409] parameters -> label
I0505 14:07:49.182299  7273 hdf5_data_layer.cpp:79] Loading list of HDF5 filenames from: /home/purduethu/scratch/radon/d/deng106/CNNStatisticalModel/distributions/input/5_distributions_400_sample_size_train-distributions-path.txt
I0505 14:07:49.182314  7273 hdf5_data_layer.cpp:93] Number of HDF5 files: 1
I0505 14:07:49.243728  7273 hdf5.cpp:35] Datatype class: H5T_INTEGER
I0505 14:07:49.244175  7273 net.cpp:144] Setting up parameters
I0505 14:07:49.244189  7273 net.cpp:151] Top shape: 20 1 20 20 (8000)
I0505 14:07:49.244194  7273 net.cpp:151] Top shape: 20 (20)
I0505 14:07:49.244197  7273 net.cpp:159] Memory required for data: 32080
I0505 14:07:49.244204  7273 layer_factory.hpp:77] Creating layer conv1
I0505 14:07:49.244220  7273 net.cpp:94] Creating Layer conv1
I0505 14:07:49.244225  7273 net.cpp:435] conv1 <- data
I0505 14:07:49.244230  7273 net.cpp:409] conv1 -> conv1
I0505 14:07:49.246563  7273 net.cpp:144] Setting up conv1
I0505 14:07:49.246580  7273 net.cpp:151] Top shape: 20 64 20 20 (512000)
I0505 14:07:49.246584  7273 net.cpp:159] Memory required for data: 2080080
I0505 14:07:49.246594  7273 layer_factory.hpp:77] Creating layer relu1
I0505 14:07:49.246603  7273 net.cpp:94] Creating Layer relu1
I0505 14:07:49.246606  7273 net.cpp:435] relu1 <- conv1
I0505 14:07:49.246611  7273 net.cpp:396] relu1 -> conv1 (in-place)
I0505 14:07:49.246620  7273 net.cpp:144] Setting up relu1
I0505 14:07:49.246624  7273 net.cpp:151] Top shape: 20 64 20 20 (512000)
I0505 14:07:49.246628  7273 net.cpp:159] Memory required for data: 4128080
I0505 14:07:49.246631  7273 layer_factory.hpp:77] Creating layer pool1
I0505 14:07:49.246636  7273 net.cpp:94] Creating Layer pool1
I0505 14:07:49.246640  7273 net.cpp:435] pool1 <- conv1
I0505 14:07:49.246651  7273 net.cpp:409] pool1 -> pool1
I0505 14:07:49.246711  7273 net.cpp:144] Setting up pool1
I0505 14:07:49.246718  7273 net.cpp:151] Top shape: 20 64 10 10 (128000)
I0505 14:07:49.246721  7273 net.cpp:159] Memory required for data: 4640080
I0505 14:07:49.246726  7273 layer_factory.hpp:77] Creating layer conv2
I0505 14:07:49.246734  7273 net.cpp:94] Creating Layer conv2
I0505 14:07:49.246738  7273 net.cpp:435] conv2 <- pool1
I0505 14:07:49.246743  7273 net.cpp:409] conv2 -> conv2
I0505 14:07:49.257483  7273 net.cpp:144] Setting up conv2
I0505 14:07:49.257499  7273 net.cpp:151] Top shape: 20 128 10 10 (256000)
I0505 14:07:49.257504  7273 net.cpp:159] Memory required for data: 5664080
I0505 14:07:49.257513  7273 layer_factory.hpp:77] Creating layer relu2
I0505 14:07:49.257519  7273 net.cpp:94] Creating Layer relu2
I0505 14:07:49.257522  7273 net.cpp:435] relu2 <- conv2
I0505 14:07:49.257527  7273 net.cpp:396] relu2 -> conv2 (in-place)
I0505 14:07:49.257535  7273 net.cpp:144] Setting up relu2
I0505 14:07:49.257540  7273 net.cpp:151] Top shape: 20 128 10 10 (256000)
I0505 14:07:49.257544  7273 net.cpp:159] Memory required for data: 6688080
I0505 14:07:49.257546  7273 layer_factory.hpp:77] Creating layer conv3
I0505 14:07:49.257555  7273 net.cpp:94] Creating Layer conv3
I0505 14:07:49.257558  7273 net.cpp:435] conv3 <- conv2
I0505 14:07:49.257563  7273 net.cpp:409] conv3 -> conv3
I0505 14:07:49.275483  7273 net.cpp:144] Setting up conv3
I0505 14:07:49.275499  7273 net.cpp:151] Top shape: 20 128 10 10 (256000)
I0505 14:07:49.275504  7273 net.cpp:159] Memory required for data: 7712080
I0505 14:07:49.275512  7273 layer_factory.hpp:77] Creating layer relu3
I0505 14:07:49.275519  7273 net.cpp:94] Creating Layer relu3
I0505 14:07:49.275523  7273 net.cpp:435] relu3 <- conv3
I0505 14:07:49.275528  7273 net.cpp:396] relu3 -> conv3 (in-place)
I0505 14:07:49.275537  7273 net.cpp:144] Setting up relu3
I0505 14:07:49.275542  7273 net.cpp:151] Top shape: 20 128 10 10 (256000)
I0505 14:07:49.275544  7273 net.cpp:159] Memory required for data: 8736080
I0505 14:07:49.275547  7273 layer_factory.hpp:77] Creating layer pool3
I0505 14:07:49.275553  7273 net.cpp:94] Creating Layer pool3
I0505 14:07:49.275557  7273 net.cpp:435] pool3 <- conv3
I0505 14:07:49.275562  7273 net.cpp:409] pool3 -> pool3
I0505 14:07:49.275604  7273 net.cpp:144] Setting up pool3
I0505 14:07:49.275610  7273 net.cpp:151] Top shape: 20 128 5 5 (64000)
I0505 14:07:49.275614  7273 net.cpp:159] Memory required for data: 8992080
I0505 14:07:49.275617  7273 layer_factory.hpp:77] Creating layer ip1
I0505 14:07:49.275624  7273 net.cpp:94] Creating Layer ip1
I0505 14:07:49.275629  7273 net.cpp:435] ip1 <- pool3
I0505 14:07:49.275634  7273 net.cpp:409] ip1 -> ip1
I0505 14:07:49.315647  7273 net.cpp:144] Setting up ip1
I0505 14:07:49.315671  7273 net.cpp:151] Top shape: 20 512 (10240)
I0505 14:07:49.315675  7273 net.cpp:159] Memory required for data: 9033040
I0505 14:07:49.315683  7273 layer_factory.hpp:77] Creating layer ip2
I0505 14:07:49.315692  7273 net.cpp:94] Creating Layer ip2
I0505 14:07:49.315696  7273 net.cpp:435] ip2 <- ip1
I0505 14:07:49.315703  7273 net.cpp:409] ip2 -> ip2
I0505 14:07:49.318899  7273 net.cpp:144] Setting up ip2
I0505 14:07:49.318912  7273 net.cpp:151] Top shape: 20 256 (5120)
I0505 14:07:49.318915  7273 net.cpp:159] Memory required for data: 9053520
I0505 14:07:49.318923  7273 layer_factory.hpp:77] Creating layer ip3
I0505 14:07:49.318930  7273 net.cpp:94] Creating Layer ip3
I0505 14:07:49.318933  7273 net.cpp:435] ip3 <- ip2
I0505 14:07:49.318938  7273 net.cpp:409] ip3 -> ip3
I0505 14:07:49.319375  7273 net.cpp:144] Setting up ip3
I0505 14:07:49.319382  7273 net.cpp:151] Top shape: 20 50 (1000)
I0505 14:07:49.319386  7273 net.cpp:159] Memory required for data: 9057520
I0505 14:07:49.319391  7273 layer_factory.hpp:77] Creating layer loss
I0505 14:07:49.319397  7273 net.cpp:94] Creating Layer loss
I0505 14:07:49.319401  7273 net.cpp:435] loss <- ip3
I0505 14:07:49.319406  7273 net.cpp:435] loss <- label
I0505 14:07:49.319409  7273 net.cpp:409] loss -> loss
I0505 14:07:49.319424  7273 layer_factory.hpp:77] Creating layer loss
…
I0505 14:07:49.319885  7273 solver.cpp:181] Creating test net (#0) specified by net file: ./protocol/dis_5_400_dimension.protocol_distribution
I0505 14:07:49.319910  7273 net.cpp:323] The NetState phase (1) differed from the phase (0) specified by a rule in layer parameters
I0505 14:07:49.319988  7273 net.cpp:52] Initializing net from parameters: 
state {
  phase: TEST
}
layer {
  name: "intercept"
  type: "HDF5Data"
  top: "data"
  top: "label"
  include {
    phase: TEST
  }
  hdf5_data_param {
    source: "/home/purduethu/scratch/radon/d/deng106/CNNStatisticalModel/distributions/input/5_distributions_400_sample_size_test-distributions-path.txt"
    batch_size: 20
  }
}
layer {
  name: "conv1"
  type: "Convolution"
  bottom: "data"
  top: "conv1"
  param {
    lr_mult: 1
  }
  param {
    lr_mult: 2
  }
  convolution_param {
    num_output: 64
    pad: 2
    kernel_size: 5
    stride: 1
    weight_filler {
      type: "gaussian"
      std: 0.0001
    }
    bias_filler {
      type: "constant"
    }
  }
}
layer {
  name: "relu1"
  type: "ReLU"
  bottom: "conv1"
  top: "conv1"
}
layer {
  name: "pool1"
  type: "Pooling"
  bottom: "conv1"
  top: "pool1"
  pooling_param {
    pool: MAX
    kernel_size: 3
    stride: 2
  }
}
layer {
  name: "conv2"
  type: "Convolution"
  bottom: "pool1"
  top: "conv2"
  param {
    lr_mult: 1
  }
  param {
    lr_mult: 2
  }
  convolution_param {
    num_output: 128
    pad: 2
    kernel_size: 5
    stride: 1
    weight_filler {
      type: "gaussian"
      std: 0.01
    }
    bias_filler {
      type: "constant"
    }
  }
}
layer {
  name: "relu2"
  type: "ReLU"
  bottom: "conv2"
  top: "conv2"
}
layer {
  name: "conv3"
  type: "Convolution"
  bottom: "conv2"
  top: "conv3"
  param {
    lr_mult: 1
  }
  param {
    lr_mult: 2
  }
  convolution_param {
    num_output: 128
    pad: 2
    kernel_size: 5
    stride: 1
    weight_filler {
      type: "gaussian"
      std: 0.01
    }
    bias_filler {
      type: "constant"
    }
  }
}
layer {
  name: "relu3"
  type: "ReLU"
  bottom: "conv3"
  top: "conv3"
}
layer {
  name: "pool3"
  type: "Pooling"
  bottom: "conv3"
  top: "pool3"
  pooling_param {
    pool: AVE
    kernel_size: 3
    stride: 2
  }
}
layer {
  name: "ip1"
  type: "InnerProduct"
  bottom: "pool3"
  top: "ip1"
  param {
    lr_mult: 1
  }
  param {
    lr_mult: 2
  }
  inner_product_param {
    num_output: 512
    weight_filler {
      type: "gaussian"
      std: 0.1
    }
    bias_filler {
      type: "constant"
    }
  }
}
layer {
  name: "ip2"
  type: "InnerProduct"
  bottom: "ip1"
  top: "ip2"
  param {
    lr_mult: 1
  }
  param {
    lr_mult: 2
  }
  inner_product_param {
    num_output: 256
    weight_filler {
      type: "gaussian"
      std: 0.1
    }
    bias_filler {
      type: "constant"
    }
  }
}
layer {
  name: "ip3"
  type: "InnerProduct"
  bottom: "ip2"
  top: "ip3"
  param {
    lr_mult: 1
  }
  param {
    lr_mult: 2
  }
  inner_product_param {
    num_output: 50
    weight_filler {
      type: "gaussian"
      std: 0.1
    }
    bias_filler {
      type: "constant"
    }
  }
}
layer {
  name: "accuracy"
  type: "Accuracy"
  bottom: "ip3"
  bottom: "label"
  top: "accuracy"
  include {
    phase: TEST
  }
}
layer {
  name: "loss"
  type: "SoftmaxWithLoss"
  bottom: "ip3"
  bottom: "label"
  top: "loss"
}
I0505 14:07:49.320045  7273 layer_factory.hpp:77] Creating layer intercept
I0505 14:07:49.320053  7273 net.cpp:94] Creating Layer intercept
I0505 14:07:49.320058  7273 net.cpp:409] intercept -> data
I0505 14:07:49.320065  7273 net.cpp:409] intercept -> label
I0505 14:07:49.320071  7273 hdf5_data_layer.cpp:79] Loading list of HDF5 filenames from: /home/purduethu/scratch/radon/d/deng106/CNNStatisticalModel/distributions/input/5_distributions_400_sample_size_test-distributions-path.txt
I0505 14:07:49.320091  7273 hdf5_data_layer.cpp:93] Number of HDF5 files: 1
I0505 14:07:49.336475  7273 net.cpp:144] Setting up intercept
I0505 14:07:49.336510  7273 net.cpp:151] Top shape: 20 1 20 20 (8000)
I0505 14:07:49.336515  7273 net.cpp:151] Top shape: 20 (20)
I0505 14:07:49.336519  7273 net.cpp:159] Memory required for data: 32080
I0505 14:07:49.336524  7273 layer_factory.hpp:77] Creating layer label_intercept_1_split
I0505 14:07:49.336544  7273 net.cpp:94] Creating Layer label_intercept_1_split
I0505 14:07:49.336549  7273 net.cpp:435] label_intercept_1_split <- label
I0505 14:07:49.336565  7273 net.cpp:409] label_intercept_1_split -> label_intercept_1_split_0
I0505 14:07:49.336577  7273 net.cpp:409] label_intercept_1_split -> label_intercept_1_split_1
I0505 14:07:49.336625  7273 net.cpp:144] Setting up label_intercept_1_split
I0505 14:07:49.336632  7273 net.cpp:151] Top shape: 20 (20)
I0505 14:07:49.336637  7273 net.cpp:151] Top shape: 20 (20)
I0505 14:07:49.336639  7273 net.cpp:159] Memory required for data: 32240
I0505 14:07:49.336643  7273 layer_factory.hpp:77] Creating layer conv1
I0505 14:07:49.336654  7273 net.cpp:94] Creating Layer conv1
I0505 14:07:49.336658  7273 net.cpp:435] conv1 <- data
I0505 14:07:49.336663  7273 net.cpp:409] conv1 -> conv1
I0505 14:07:49.337461  7273 net.cpp:144] Setting up conv1
I0505 14:07:49.337476  7273 net.cpp:151] Top shape: 20 64 20 20 (512000)
I0505 14:07:49.337481  7273 net.cpp:159] Memory required for data: 2080240
I0505 14:07:49.337491  7273 layer_factory.hpp:77] Creating layer relu1
I0505 14:07:49.337498  7273 net.cpp:94] Creating Layer relu1
I0505 14:07:49.337502  7273 net.cpp:435] relu1 <- conv1
I0505 14:07:49.337507  7273 net.cpp:396] relu1 -> conv1 (in-place)
I0505 14:07:49.337514  7273 net.cpp:144] Setting up relu1
I0505 14:07:49.337519  7273 net.cpp:151] Top shape: 20 64 20 20 (512000)
I0505 14:07:49.337522  7273 net.cpp:159] Memory required for data: 4128240
I0505 14:07:49.337525  7273 layer_factory.hpp:77] Creating layer pool1
I0505 14:07:49.337532  7273 net.cpp:94] Creating Layer pool1
I0505 14:07:49.337535  7273 net.cpp:435] pool1 <- conv1
I0505 14:07:49.337540  7273 net.cpp:409] pool1 -> pool1
I0505 14:07:49.337597  7273 net.cpp:144] Setting up pool1
I0505 14:07:49.337605  7273 net.cpp:151] Top shape: 20 64 10 10 (128000)
I0505 14:07:49.337608  7273 net.cpp:159] Memory required for data: 4640240
I0505 14:07:49.337611  7273 layer_factory.hpp:77] Creating layer conv2
I0505 14:07:49.337620  7273 net.cpp:94] Creating Layer conv2
I0505 14:07:49.337622  7273 net.cpp:435] conv2 <- pool1
I0505 14:07:49.337628  7273 net.cpp:409] conv2 -> conv2
I0505 14:07:49.345325  7273 net.cpp:144] Setting up conv2
I0505 14:07:49.345340  7273 net.cpp:151] Top shape: 20 128 10 10 (256000)
I0505 14:07:49.345343  7273 net.cpp:159] Memory required for data: 5664240
I0505 14:07:49.345353  7273 layer_factory.hpp:77] Creating layer relu2
I0505 14:07:49.345366  7273 net.cpp:94] Creating Layer relu2
I0505 14:07:49.345371  7273 net.cpp:435] relu2 <- conv2
I0505 14:07:49.345374  7273 net.cpp:396] relu2 -> conv2 (in-place)
I0505 14:07:49.345382  7273 net.cpp:144] Setting up relu2
I0505 14:07:49.345387  7273 net.cpp:151] Top shape: 20 128 10 10 (256000)
I0505 14:07:49.345391  7273 net.cpp:159] Memory required for data: 6688240
I0505 14:07:49.345393  7273 layer_factory.hpp:77] Creating layer conv3
I0505 14:07:49.345402  7273 net.cpp:94] Creating Layer conv3
I0505 14:07:49.345404  7273 net.cpp:435] conv3 <- conv2
I0505 14:07:49.345409  7273 net.cpp:409] conv3 -> conv3
I0505 14:07:49.359194  7273 net.cpp:144] Setting up conv3
I0505 14:07:49.359208  7273 net.cpp:151] Top shape: 20 128 10 10 (256000)
I0505 14:07:49.359212  7273 net.cpp:159] Memory required for data: 7712240
I0505 14:07:49.359220  7273 layer_factory.hpp:77] Creating layer relu3
I0505 14:07:49.359228  7273 net.cpp:94] Creating Layer relu3
I0505 14:07:49.359232  7273 net.cpp:435] relu3 <- conv3
I0505 14:07:49.359237  7273 net.cpp:396] relu3 -> conv3 (in-place)
I0505 14:07:49.359244  7273 net.cpp:144] Setting up relu3
I0505 14:07:49.359249  7273 net.cpp:151] Top shape: 20 128 10 10 (256000)
I0505 14:07:49.359252  7273 net.cpp:159] Memory required for data: 8736240
I0505 14:07:49.359256  7273 layer_factory.hpp:77] Creating layer pool3
I0505 14:07:49.359261  7273 net.cpp:94] Creating Layer pool3
I0505 14:07:49.359264  7273 net.cpp:435] pool3 <- conv3
I0505 14:07:49.359269  7273 net.cpp:409] pool3 -> pool3
I0505 14:07:49.359311  7273 net.cpp:144] Setting up pool3
I0505 14:07:49.359318  7273 net.cpp:151] Top shape: 20 128 5 5 (64000)
I0505 14:07:49.359321  7273 net.cpp:159] Memory required for data: 8992240
I0505 14:07:49.359325  7273 layer_factory.hpp:77] Creating layer ip1
I0505 14:07:49.359331  7273 net.cpp:94] Creating Layer ip1
I0505 14:07:49.359335  7273 net.cpp:435] ip1 <- pool3
I0505 14:07:49.359340  7273 net.cpp:409] ip1 -> ip1
I0505 14:07:49.399371  7273 net.cpp:144] Setting up ip1
I0505 14:07:49.399396  7273 net.cpp:151] Top shape: 20 512 (10240)
I0505 14:07:49.399400  7273 net.cpp:159] Memory required for data: 9033200
I0505 14:07:49.399407  7273 layer_factory.hpp:77] Creating layer ip2
I0505 14:07:49.399417  7273 net.cpp:94] Creating Layer ip2
I0505 14:07:49.399422  7273 net.cpp:435] ip2 <- ip1
I0505 14:07:49.399428  7273 net.cpp:409] ip2 -> ip2
I0505 14:07:49.402684  7273 net.cpp:144] Setting up ip2
I0505 14:07:49.402694  7273 net.cpp:151] Top shape: 20 256 (5120)
I0505 14:07:49.402698  7273 net.cpp:159] Memory required for data: 9053680
I0505 14:07:49.402706  7273 layer_factory.hpp:77] Creating layer ip3
I0505 14:07:49.402711  7273 net.cpp:94] Creating Layer ip3
I0505 14:07:49.402715  7273 net.cpp:435] ip3 <- ip2
I0505 14:07:49.402720  7273 net.cpp:409] ip3 -> ip3
I0505 14:07:49.403169  7273 net.cpp:144] Setting up ip3
I0505 14:07:49.403178  7273 net.cpp:151] Top shape: 20 50 (1000)
I0505 14:07:49.403182  7273 net.cpp:159] Memory required for data: 9057680
I0505 14:07:49.403187  7273 layer_factory.hpp:77] Creating layer ip3_ip3_0_split
I0505 14:07:49.403193  7273 net.cpp:94] Creating Layer ip3_ip3_0_split
I0505 14:07:49.403197  7273 net.cpp:435] ip3_ip3_0_split <- ip3
I0505 14:07:49.403201  7273 net.cpp:409] ip3_ip3_0_split -> ip3_ip3_0_split_0
I0505 14:07:49.403208  7273 net.cpp:409] ip3_ip3_0_split -> ip3_ip3_0_split_1
I0505 14:07:49.403251  7273 net.cpp:144] Setting up ip3_ip3_0_split
I0505 14:07:49.403257  7273 net.cpp:151] Top shape: 20 50 (1000)
I0505 14:07:49.403261  7273 net.cpp:151] Top shape: 20 50 (1000)
I0505 14:07:49.403264  7273 net.cpp:159] Memory required for data: 9065680
I0505 14:07:49.403267  7273 layer_factory.hpp:77] Creating layer accuracy
I0505 14:07:49.403273  7273 net.cpp:94] Creating Layer accuracy
I0505 14:07:49.403277  7273 net.cpp:435] accuracy <- ip3_ip3_0_split_0
I0505 14:07:49.403281  7273 net.cpp:435] accuracy <- label_intercept_1_split_0
I0505 14:07:49.403285  7273 net.cpp:409] accuracy -> accuracy
…
