…
I0506 04:00:09.340651 12781 net.cpp:323] The NetState phase (0) differed from the phase (1) specified by a rule in layer intercept
I0506 04:00:09.340668 12781 net.cpp:323] The NetState phase (0) differed from the phase (1) specified by a rule in layer loss
I0506 04:00:09.340755 12781 net.cpp:52] Initializing net from parameters: 
state {
  phase: TRAIN
}
layer {
  name: "parameters"
  type: "HDF5Data"
  top: "data"
  top: "label"
  include {
    phase: TRAIN
  }
  hdf5_data_param {
    source: "/home/purduethu/scratch/radon/d/deng106/CNNStatisticalModel/distributions/input/50_distributions_100_sample_size_train-parameters-path.txt"
    batch_size: 20
  }
}
layer {
  name: "conv1"
  type: "Convolution"
  bottom: "data"
  top: "conv1"
  param {
    lr_mult: 1
  }
  param {
    lr_mult: 2
  }
  convolution_param {
    num_output: 64
    pad: 2
    kernel_size: 5
    stride: 1
    weight_filler {
      type: "gaussian"
      std: 0.0001
    }
    bias_filler {
      type: "constant"
    }
  }
}
layer {
  name: "relu1"
  type: "ReLU"
  bottom: "conv1"
  top: "conv1"
}
layer {
  name: "conv2"
  type: "Convolution"
  bottom: "conv1"
  top: "conv2"
  param {
    lr_mult: 1
  }
  param {
    lr_mult: 2
  }
  convolution_param {
    num_output: 64
    pad: 2
    kernel_size: 5
    stride: 1
    weight_filler {
      type: "gaussian"
      std: 0.01
    }
    bias_filler {
      type: "constant"
    }
  }
}
layer {
  name: "relu2"
  type: "ReLU"
  bottom: "conv2"
  top: "conv2"
}
layer {
  name: "pool2"
  type: "Pooling"
  bottom: "conv2"
  top: "pool2"
  pooling_param {
    pool: MAX
    kernel_size: 3
    stride: 2
  }
}
layer {
  name: "conv3"
  type: "Convolution"
  bottom: "pool2"
  top: "conv3"
  param {
    lr_mult: 1
  }
  param {
    lr_mult: 2
  }
  convolution_param {
    num_output: 128
    pad: 2
    kernel_size: 5
    stride: 1
    weight_filler {
      type: "gaussian"
      std: 0.01
    }
    bias_filler {
      type: "constant"
    }
  }
}
layer {
  name: "relu3"
  type: "ReLU"
  bottom: "conv3"
  top: "conv3"
}
layer {
  name: "conv4"
  type: "Convolution"
  bottom: "conv3"
  top: "conv4"
  param {
    lr_mult: 1
  }
  param {
    lr_mult: 2
  }
  convolution_param {
    num_output: 128
    pad: 2
    kernel_size: 5
    stride: 1
    weight_filler {
      type: "gaussian"
      std: 0.01
    }
    bias_filler {
      type: "constant"
    }
  }
}
layer {
  name: "relu4"
  type: "ReLU"
  bottom: "conv4"
  top: "conv4"
}
layer {
  name: "conv5"
  type: "Convolution"
  bottom: "conv4"
  top: "conv5"
  param {
    lr_mult: 1
  }
  param {
    lr_mult: 2
  }
  convolution_param {
    num_output: 128
    pad: 2
    kernel_size: 5
    stride: 1
    weight_filler {
      type: "gaussian"
      std: 0.01
    }
    bias_filler {
      type: "constant"
    }
  }
}
layer {
  name: "relu5"
  type: "ReLU"
  bottom: "conv5"
  top: "conv5"
}
layer {
  name: "pool5"
  type: "Pooling"
  bottom: "conv5"
  top: "pool5"
  pooling_param {
    pool: AVE
    kernel_size: 3
    stride: 2
  }
}
layer {
  name: "ip1"
  type: "InnerProduct"
  bottom: "pool5"
  top: "ip1"
  param {
    lr_mult: 1
  }
  param {
    lr_mult: 2
  }
  inner_product_param {
    num_output: 1024
    weight_filler {
      type: "gaussian"
      std: 0.1
    }
    bias_filler {
      type: "constant"
    }
  }
}
layer {
  name: "ip2"
  type: "InnerProduct"
  bottom: "ip1"
  top: "ip2"
  param {
    lr_mult: 1
  }
  param {
    lr_mult: 2
  }
  inner_product_param {
    num_output: 512
    weight_filler {
      type: "gaussian"
      std: 0.1
    }
    bias_filler {
      type: "constant"
    }
  }
}
layer {
  name: "ip3"
  type: "InnerProduct"
  bottom: "ip2"
  top: "ip3"
  param {
    lr_mult: 1
  }
  param {
    lr_mult: 2
  }
  inner_product_param {
    num_output: 1
    weight_filler {
      type: "gaussian"
      std: 0.1
    }
    bias_filler {
      type: "constant"
    }
  }
}
layer {
  name: "loss"
  type: "HuberLoss"
  bottom: "ip3"
  bottom: "label"
  top: "loss"
  include {
    phase: TRAIN
  }
}
I0506 04:00:09.340811 12781 layer_factory.hpp:77] Creating layer parameters
I0506 04:00:09.340822 12781 net.cpp:94] Creating Layer parameters
I0506 04:00:09.340827 12781 net.cpp:409] parameters -> data
I0506 04:00:09.340837 12781 net.cpp:409] parameters -> label
I0506 04:00:09.340842 12781 hdf5_data_layer.cpp:79] Loading list of HDF5 filenames from: /home/purduethu/scratch/radon/d/deng106/CNNStatisticalModel/distributions/input/50_distributions_100_sample_size_train-parameters-path.txt
I0506 04:00:09.340858 12781 hdf5_data_layer.cpp:93] Number of HDF5 files: 1
I0506 04:00:09.341418 12781 hdf5.cpp:32] Datatype class: H5T_FLOAT
I0506 04:00:09.504801 12781 net.cpp:144] Setting up parameters
I0506 04:00:09.504833 12781 net.cpp:151] Top shape: 20 1 10 10 (2000)
I0506 04:00:09.504838 12781 net.cpp:151] Top shape: 20 (20)
I0506 04:00:09.504842 12781 net.cpp:159] Memory required for data: 8080
I0506 04:00:09.504858 12781 layer_factory.hpp:77] Creating layer conv1
I0506 04:00:09.504880 12781 net.cpp:94] Creating Layer conv1
I0506 04:00:09.504884 12781 net.cpp:435] conv1 <- data
I0506 04:00:09.504890 12781 net.cpp:409] conv1 -> conv1
I0506 04:00:09.509110 12781 net.cpp:144] Setting up conv1
I0506 04:00:09.509127 12781 net.cpp:151] Top shape: 20 64 10 10 (128000)
I0506 04:00:09.509131 12781 net.cpp:159] Memory required for data: 520080
I0506 04:00:09.509141 12781 layer_factory.hpp:77] Creating layer relu1
I0506 04:00:09.509150 12781 net.cpp:94] Creating Layer relu1
I0506 04:00:09.509153 12781 net.cpp:435] relu1 <- conv1
I0506 04:00:09.509158 12781 net.cpp:396] relu1 -> conv1 (in-place)
I0506 04:00:09.509169 12781 net.cpp:144] Setting up relu1
I0506 04:00:09.509173 12781 net.cpp:151] Top shape: 20 64 10 10 (128000)
I0506 04:00:09.509176 12781 net.cpp:159] Memory required for data: 1032080
I0506 04:00:09.509179 12781 layer_factory.hpp:77] Creating layer conv2
I0506 04:00:09.509188 12781 net.cpp:94] Creating Layer conv2
I0506 04:00:09.509191 12781 net.cpp:435] conv2 <- conv1
I0506 04:00:09.509196 12781 net.cpp:409] conv2 -> conv2
I0506 04:00:09.515251 12781 net.cpp:144] Setting up conv2
I0506 04:00:09.515264 12781 net.cpp:151] Top shape: 20 64 10 10 (128000)
I0506 04:00:09.515269 12781 net.cpp:159] Memory required for data: 1544080
I0506 04:00:09.515277 12781 layer_factory.hpp:77] Creating layer relu2
I0506 04:00:09.515285 12781 net.cpp:94] Creating Layer relu2
I0506 04:00:09.515287 12781 net.cpp:435] relu2 <- conv2
I0506 04:00:09.515292 12781 net.cpp:396] relu2 -> conv2 (in-place)
I0506 04:00:09.515300 12781 net.cpp:144] Setting up relu2
I0506 04:00:09.515303 12781 net.cpp:151] Top shape: 20 64 10 10 (128000)
I0506 04:00:09.515306 12781 net.cpp:159] Memory required for data: 2056080
I0506 04:00:09.515310 12781 layer_factory.hpp:77] Creating layer pool2
I0506 04:00:09.515316 12781 net.cpp:94] Creating Layer pool2
I0506 04:00:09.515318 12781 net.cpp:435] pool2 <- conv2
I0506 04:00:09.515322 12781 net.cpp:409] pool2 -> pool2
I0506 04:00:09.515373 12781 net.cpp:144] Setting up pool2
I0506 04:00:09.515380 12781 net.cpp:151] Top shape: 20 64 5 5 (32000)
I0506 04:00:09.515383 12781 net.cpp:159] Memory required for data: 2184080
I0506 04:00:09.515388 12781 layer_factory.hpp:77] Creating layer conv3
I0506 04:00:09.515394 12781 net.cpp:94] Creating Layer conv3
I0506 04:00:09.515404 12781 net.cpp:435] conv3 <- pool2
I0506 04:00:09.515410 12781 net.cpp:409] conv3 -> conv3
I0506 04:00:09.523596 12781 net.cpp:144] Setting up conv3
I0506 04:00:09.523609 12781 net.cpp:151] Top shape: 20 128 5 5 (64000)
I0506 04:00:09.523613 12781 net.cpp:159] Memory required for data: 2440080
I0506 04:00:09.523622 12781 layer_factory.hpp:77] Creating layer relu3
I0506 04:00:09.523627 12781 net.cpp:94] Creating Layer relu3
I0506 04:00:09.523630 12781 net.cpp:435] relu3 <- conv3
I0506 04:00:09.523635 12781 net.cpp:396] relu3 -> conv3 (in-place)
I0506 04:00:09.523643 12781 net.cpp:144] Setting up relu3
I0506 04:00:09.523646 12781 net.cpp:151] Top shape: 20 128 5 5 (64000)
I0506 04:00:09.523649 12781 net.cpp:159] Memory required for data: 2696080
I0506 04:00:09.523653 12781 layer_factory.hpp:77] Creating layer conv4
I0506 04:00:09.523660 12781 net.cpp:94] Creating Layer conv4
I0506 04:00:09.523663 12781 net.cpp:435] conv4 <- conv3
I0506 04:00:09.523669 12781 net.cpp:409] conv4 -> conv4
I0506 04:00:09.538760 12781 net.cpp:144] Setting up conv4
I0506 04:00:09.538774 12781 net.cpp:151] Top shape: 20 128 5 5 (64000)
I0506 04:00:09.538779 12781 net.cpp:159] Memory required for data: 2952080
I0506 04:00:09.538784 12781 layer_factory.hpp:77] Creating layer relu4
I0506 04:00:09.538790 12781 net.cpp:94] Creating Layer relu4
I0506 04:00:09.538794 12781 net.cpp:435] relu4 <- conv4
I0506 04:00:09.538800 12781 net.cpp:396] relu4 -> conv4 (in-place)
I0506 04:00:09.538806 12781 net.cpp:144] Setting up relu4
I0506 04:00:09.538810 12781 net.cpp:151] Top shape: 20 128 5 5 (64000)
I0506 04:00:09.538813 12781 net.cpp:159] Memory required for data: 3208080
I0506 04:00:09.538816 12781 layer_factory.hpp:77] Creating layer conv5
I0506 04:00:09.538825 12781 net.cpp:94] Creating Layer conv5
I0506 04:00:09.538827 12781 net.cpp:435] conv5 <- conv4
I0506 04:00:09.538832 12781 net.cpp:409] conv5 -> conv5
I0506 04:00:09.553160 12781 net.cpp:144] Setting up conv5
I0506 04:00:09.553174 12781 net.cpp:151] Top shape: 20 128 5 5 (64000)
I0506 04:00:09.553179 12781 net.cpp:159] Memory required for data: 3464080
I0506 04:00:09.553186 12781 layer_factory.hpp:77] Creating layer relu5
I0506 04:00:09.553192 12781 net.cpp:94] Creating Layer relu5
I0506 04:00:09.553196 12781 net.cpp:435] relu5 <- conv5
I0506 04:00:09.553201 12781 net.cpp:396] relu5 -> conv5 (in-place)
I0506 04:00:09.553208 12781 net.cpp:144] Setting up relu5
I0506 04:00:09.553212 12781 net.cpp:151] Top shape: 20 128 5 5 (64000)
I0506 04:00:09.553215 12781 net.cpp:159] Memory required for data: 3720080
I0506 04:00:09.553218 12781 layer_factory.hpp:77] Creating layer pool5
I0506 04:00:09.553225 12781 net.cpp:94] Creating Layer pool5
I0506 04:00:09.553227 12781 net.cpp:435] pool5 <- conv5
I0506 04:00:09.553231 12781 net.cpp:409] pool5 -> pool5
I0506 04:00:09.553269 12781 net.cpp:144] Setting up pool5
I0506 04:00:09.553277 12781 net.cpp:151] Top shape: 20 128 2 2 (10240)
I0506 04:00:09.553279 12781 net.cpp:159] Memory required for data: 3761040
I0506 04:00:09.553282 12781 layer_factory.hpp:77] Creating layer ip1
I0506 04:00:09.553292 12781 net.cpp:94] Creating Layer ip1
I0506 04:00:09.553295 12781 net.cpp:435] ip1 <- pool5
I0506 04:00:09.553300 12781 net.cpp:409] ip1 -> ip1
I0506 04:00:09.567126 12781 net.cpp:144] Setting up ip1
I0506 04:00:09.567142 12781 net.cpp:151] Top shape: 20 1024 (20480)
I0506 04:00:09.567147 12781 net.cpp:159] Memory required for data: 3842960
I0506 04:00:09.567152 12781 layer_factory.hpp:77] Creating layer ip2
I0506 04:00:09.567159 12781 net.cpp:94] Creating Layer ip2
I0506 04:00:09.567163 12781 net.cpp:435] ip2 <- ip1
I0506 04:00:09.567168 12781 net.cpp:409] ip2 -> ip2
I0506 04:00:09.580178 12781 net.cpp:144] Setting up ip2
I0506 04:00:09.580193 12781 net.cpp:151] Top shape: 20 512 (10240)
I0506 04:00:09.580195 12781 net.cpp:159] Memory required for data: 3883920
I0506 04:00:09.580201 12781 layer_factory.hpp:77] Creating layer ip3
I0506 04:00:09.580209 12781 net.cpp:94] Creating Layer ip3
I0506 04:00:09.580211 12781 net.cpp:435] ip3 <- ip2
I0506 04:00:09.580222 12781 net.cpp:409] ip3 -> ip3
I0506 04:00:09.580332 12781 net.cpp:144] Setting up ip3
I0506 04:00:09.580339 12781 net.cpp:151] Top shape: 20 1 (20)
I0506 04:00:09.580343 12781 net.cpp:159] Memory required for data: 3884000
I0506 04:00:09.580348 12781 layer_factory.hpp:77] Creating layer loss
I0506 04:00:09.580354 12781 net.cpp:94] Creating Layer loss
I0506 04:00:09.580358 12781 net.cpp:435] loss <- ip3
I0506 04:00:09.580361 12781 net.cpp:435] loss <- label
I0506 04:00:09.580365 12781 net.cpp:409] loss -> loss
I0506 04:00:09.580418 12781 net.cpp:144] Setting up loss
…
I0506 04:00:09.686828 12781 net.cpp:323] The NetState phase (0) differed from the phase (1) specified by a rule in layer intercept
I0506 04:00:09.686844 12781 net.cpp:323] The NetState phase (0) differed from the phase (1) specified by a rule in layer accuracy
I0506 04:00:09.686934 12781 net.cpp:52] Initializing net from parameters: 
state {
  phase: TRAIN
}
layer {
  name: "parameters"
  type: "HDF5Data"
  top: "data"
  top: "label"
  include {
    phase: TRAIN
  }
  hdf5_data_param {
    source: "/home/purduethu/scratch/radon/d/deng106/CNNStatisticalModel/distributions/input/50_distributions_100_sample_size_train-distributions-path.txt"
    batch_size: 20
  }
}
layer {
  name: "conv1"
  type: "Convolution"
  bottom: "data"
  top: "conv1"
  param {
    lr_mult: 1
  }
  param {
    lr_mult: 2
  }
  convolution_param {
    num_output: 64
    pad: 2
    kernel_size: 5
    stride: 1
    weight_filler {
      type: "gaussian"
      std: 0.0001
    }
    bias_filler {
      type: "constant"
    }
  }
}
layer {
  name: "relu1"
  type: "ReLU"
  bottom: "conv1"
  top: "conv1"
}
layer {
  name: "conv2"
  type: "Convolution"
  bottom: "conv1"
  top: "conv2"
  param {
    lr_mult: 1
  }
  param {
    lr_mult: 2
  }
  convolution_param {
    num_output: 64
    pad: 2
    kernel_size: 5
    stride: 1
    weight_filler {
      type: "gaussian"
      std: 0.01
    }
    bias_filler {
      type: "constant"
    }
  }
}
layer {
  name: "relu2"
  type: "ReLU"
  bottom: "conv2"
  top: "conv2"
}
layer {
  name: "pool2"
  type: "Pooling"
  bottom: "conv2"
  top: "pool2"
  pooling_param {
    pool: MAX
    kernel_size: 3
    stride: 2
  }
}
layer {
  name: "conv3"
  type: "Convolution"
  bottom: "pool2"
  top: "conv3"
  param {
    lr_mult: 1
  }
  param {
    lr_mult: 2
  }
  convolution_param {
    num_output: 128
    pad: 2
    kernel_size: 5
    stride: 1
    weight_filler {
      type: "gaussian"
      std: 0.01
    }
    bias_filler {
      type: "constant"
    }
  }
}
layer {
  name: "relu3"
  type: "ReLU"
  bottom: "conv3"
  top: "conv3"
}
layer {
  name: "conv4"
  type: "Convolution"
  bottom: "conv3"
  top: "conv4"
  param {
    lr_mult: 1
  }
  param {
    lr_mult: 2
  }
  convolution_param {
    num_output: 128
    pad: 2
    kernel_size: 5
    stride: 1
    weight_filler {
      type: "gaussian"
      std: 0.01
    }
    bias_filler {
      type: "constant"
    }
  }
}
layer {
  name: "relu4"
  type: "ReLU"
  bottom: "conv4"
  top: "conv4"
}
layer {
  name: "conv5"
  type: "Convolution"
  bottom: "conv4"
  top: "conv5"
  param {
    lr_mult: 1
  }
  param {
    lr_mult: 2
  }
  convolution_param {
    num_output: 128
    pad: 2
    kernel_size: 5
    stride: 1
    weight_filler {
      type: "gaussian"
      std: 0.01
    }
    bias_filler {
      type: "constant"
    }
  }
}
layer {
  name: "relu5"
  type: "ReLU"
  bottom: "conv5"
  top: "conv5"
}
layer {
  name: "pool5"
  type: "Pooling"
  bottom: "conv5"
  top: "pool5"
  pooling_param {
    pool: AVE
    kernel_size: 3
    stride: 2
  }
}
layer {
  name: "ip1"
  type: "InnerProduct"
  bottom: "pool5"
  top: "ip1"
  param {
    lr_mult: 1
  }
  param {
    lr_mult: 2
  }
  inner_product_param {
    num_output: 1024
    weight_filler {
      type: "gaussian"
      std: 0.1
    }
    bias_filler {
      type: "constant"
    }
  }
}
layer {
  name: "ip2"
  type: "InnerProduct"
  bottom: "ip1"
  top: "ip2"
  param {
    lr_mult: 1
  }
  param {
    lr_mult: 2
  }
  inner_product_param {
    num_output: 512
    weight_filler {
      type: "gaussian"
      std: 0.1
    }
    bias_filler {
      type: "constant"
    }
  }
}
layer {
  name: "ip3"
  type: "InnerProduct"
  bottom: "ip2"
  top: "ip3"
  param {
    lr_mult: 1
  }
  param {
    lr_mult: 2
  }
  inner_product_param {
    num_output: 50
    weight_filler {
      type: "gaussian"
      std: 0.1
    }
    bias_filler {
      type: "constant"
    }
  }
}
layer {
  name: "loss"
  type: "SoftmaxWithLoss"
  bottom: "ip3"
  bottom: "label"
  top: "loss"
}
I0506 04:00:09.686986 12781 layer_factory.hpp:77] Creating layer parameters
I0506 04:00:09.686995 12781 net.cpp:94] Creating Layer parameters
I0506 04:00:09.686997 12781 net.cpp:409] parameters -> data
I0506 04:00:09.687005 12781 net.cpp:409] parameters -> label
I0506 04:00:09.687010 12781 hdf5_data_layer.cpp:79] Loading list of HDF5 filenames from: /home/purduethu/scratch/radon/d/deng106/CNNStatisticalModel/distributions/input/50_distributions_100_sample_size_train-distributions-path.txt
I0506 04:00:09.687026 12781 hdf5_data_layer.cpp:93] Number of HDF5 files: 1
I0506 04:00:09.842763 12781 hdf5.cpp:35] Datatype class: H5T_INTEGER
I0506 04:00:09.845782 12781 net.cpp:144] Setting up parameters
I0506 04:00:09.845806 12781 net.cpp:151] Top shape: 20 1 10 10 (2000)
I0506 04:00:09.845811 12781 net.cpp:151] Top shape: 20 (20)
I0506 04:00:09.845814 12781 net.cpp:159] Memory required for data: 8080
I0506 04:00:09.845820 12781 layer_factory.hpp:77] Creating layer conv1
I0506 04:00:09.845836 12781 net.cpp:94] Creating Layer conv1
I0506 04:00:09.845841 12781 net.cpp:435] conv1 <- data
I0506 04:00:09.845847 12781 net.cpp:409] conv1 -> conv1
I0506 04:00:09.847599 12781 net.cpp:144] Setting up conv1
I0506 04:00:09.847612 12781 net.cpp:151] Top shape: 20 64 10 10 (128000)
I0506 04:00:09.847616 12781 net.cpp:159] Memory required for data: 520080
I0506 04:00:09.847625 12781 layer_factory.hpp:77] Creating layer relu1
I0506 04:00:09.847633 12781 net.cpp:94] Creating Layer relu1
I0506 04:00:09.847636 12781 net.cpp:435] relu1 <- conv1
I0506 04:00:09.847640 12781 net.cpp:396] relu1 -> conv1 (in-place)
I0506 04:00:09.847647 12781 net.cpp:144] Setting up relu1
I0506 04:00:09.847652 12781 net.cpp:151] Top shape: 20 64 10 10 (128000)
I0506 04:00:09.847656 12781 net.cpp:159] Memory required for data: 1032080
I0506 04:00:09.847658 12781 layer_factory.hpp:77] Creating layer conv2
I0506 04:00:09.847666 12781 net.cpp:94] Creating Layer conv2
I0506 04:00:09.847668 12781 net.cpp:435] conv2 <- conv1
I0506 04:00:09.847673 12781 net.cpp:409] conv2 -> conv2
I0506 04:00:09.853036 12781 net.cpp:144] Setting up conv2
I0506 04:00:09.853050 12781 net.cpp:151] Top shape: 20 64 10 10 (128000)
I0506 04:00:09.853055 12781 net.cpp:159] Memory required for data: 1544080
I0506 04:00:09.853061 12781 layer_factory.hpp:77] Creating layer relu2
I0506 04:00:09.853068 12781 net.cpp:94] Creating Layer relu2
I0506 04:00:09.853072 12781 net.cpp:435] relu2 <- conv2
I0506 04:00:09.853076 12781 net.cpp:396] relu2 -> conv2 (in-place)
I0506 04:00:09.853083 12781 net.cpp:144] Setting up relu2
I0506 04:00:09.853087 12781 net.cpp:151] Top shape: 20 64 10 10 (128000)
I0506 04:00:09.853091 12781 net.cpp:159] Memory required for data: 2056080
I0506 04:00:09.853093 12781 layer_factory.hpp:77] Creating layer pool2
I0506 04:00:09.853099 12781 net.cpp:94] Creating Layer pool2
I0506 04:00:09.853102 12781 net.cpp:435] pool2 <- conv2
I0506 04:00:09.853107 12781 net.cpp:409] pool2 -> pool2
I0506 04:00:09.853157 12781 net.cpp:144] Setting up pool2
I0506 04:00:09.853164 12781 net.cpp:151] Top shape: 20 64 5 5 (32000)
I0506 04:00:09.853168 12781 net.cpp:159] Memory required for data: 2184080
I0506 04:00:09.853171 12781 layer_factory.hpp:77] Creating layer conv3
I0506 04:00:09.853178 12781 net.cpp:94] Creating Layer conv3
I0506 04:00:09.853183 12781 net.cpp:435] conv3 <- pool2
I0506 04:00:09.853188 12781 net.cpp:409] conv3 -> conv3
I0506 04:00:09.861872 12781 net.cpp:144] Setting up conv3
I0506 04:00:09.861886 12781 net.cpp:151] Top shape: 20 128 5 5 (64000)
I0506 04:00:09.861889 12781 net.cpp:159] Memory required for data: 2440080
I0506 04:00:09.861897 12781 layer_factory.hpp:77] Creating layer relu3
I0506 04:00:09.861903 12781 net.cpp:94] Creating Layer relu3
I0506 04:00:09.861907 12781 net.cpp:435] relu3 <- conv3
I0506 04:00:09.861912 12781 net.cpp:396] relu3 -> conv3 (in-place)
I0506 04:00:09.861924 12781 net.cpp:144] Setting up relu3
I0506 04:00:09.861929 12781 net.cpp:151] Top shape: 20 128 5 5 (64000)
I0506 04:00:09.861932 12781 net.cpp:159] Memory required for data: 2696080
I0506 04:00:09.861935 12781 layer_factory.hpp:77] Creating layer conv4
I0506 04:00:09.861943 12781 net.cpp:94] Creating Layer conv4
I0506 04:00:09.861948 12781 net.cpp:435] conv4 <- conv3
I0506 04:00:09.861951 12781 net.cpp:409] conv4 -> conv4
I0506 04:00:09.876611 12781 net.cpp:144] Setting up conv4
I0506 04:00:09.876626 12781 net.cpp:151] Top shape: 20 128 5 5 (64000)
I0506 04:00:09.876629 12781 net.cpp:159] Memory required for data: 2952080
I0506 04:00:09.876636 12781 layer_factory.hpp:77] Creating layer relu4
I0506 04:00:09.876641 12781 net.cpp:94] Creating Layer relu4
I0506 04:00:09.876646 12781 net.cpp:435] relu4 <- conv4
I0506 04:00:09.876649 12781 net.cpp:396] relu4 -> conv4 (in-place)
I0506 04:00:09.876657 12781 net.cpp:144] Setting up relu4
I0506 04:00:09.876660 12781 net.cpp:151] Top shape: 20 128 5 5 (64000)
I0506 04:00:09.876663 12781 net.cpp:159] Memory required for data: 3208080
I0506 04:00:09.876667 12781 layer_factory.hpp:77] Creating layer conv5
I0506 04:00:09.876674 12781 net.cpp:94] Creating Layer conv5
I0506 04:00:09.876677 12781 net.cpp:435] conv5 <- conv4
I0506 04:00:09.876682 12781 net.cpp:409] conv5 -> conv5
I0506 04:00:09.891530 12781 net.cpp:144] Setting up conv5
I0506 04:00:09.891544 12781 net.cpp:151] Top shape: 20 128 5 5 (64000)
I0506 04:00:09.891547 12781 net.cpp:159] Memory required for data: 3464080
I0506 04:00:09.891556 12781 layer_factory.hpp:77] Creating layer relu5
I0506 04:00:09.891562 12781 net.cpp:94] Creating Layer relu5
I0506 04:00:09.891566 12781 net.cpp:435] relu5 <- conv5
I0506 04:00:09.891571 12781 net.cpp:396] relu5 -> conv5 (in-place)
I0506 04:00:09.891577 12781 net.cpp:144] Setting up relu5
I0506 04:00:09.891582 12781 net.cpp:151] Top shape: 20 128 5 5 (64000)
I0506 04:00:09.891585 12781 net.cpp:159] Memory required for data: 3720080
I0506 04:00:09.891588 12781 layer_factory.hpp:77] Creating layer pool5
I0506 04:00:09.891593 12781 net.cpp:94] Creating Layer pool5
I0506 04:00:09.891597 12781 net.cpp:435] pool5 <- conv5
I0506 04:00:09.891600 12781 net.cpp:409] pool5 -> pool5
I0506 04:00:09.891636 12781 net.cpp:144] Setting up pool5
I0506 04:00:09.891644 12781 net.cpp:151] Top shape: 20 128 2 2 (10240)
I0506 04:00:09.891646 12781 net.cpp:159] Memory required for data: 3761040
I0506 04:00:09.891650 12781 layer_factory.hpp:77] Creating layer ip1
I0506 04:00:09.891656 12781 net.cpp:94] Creating Layer ip1
I0506 04:00:09.891659 12781 net.cpp:435] ip1 <- pool5
I0506 04:00:09.891664 12781 net.cpp:409] ip1 -> ip1
I0506 04:00:09.904723 12781 net.cpp:144] Setting up ip1
I0506 04:00:09.904737 12781 net.cpp:151] Top shape: 20 1024 (20480)
I0506 04:00:09.904742 12781 net.cpp:159] Memory required for data: 3842960
I0506 04:00:09.904747 12781 layer_factory.hpp:77] Creating layer ip2
I0506 04:00:09.904754 12781 net.cpp:94] Creating Layer ip2
I0506 04:00:09.904757 12781 net.cpp:435] ip2 <- ip1
I0506 04:00:09.904762 12781 net.cpp:409] ip2 -> ip2
I0506 04:00:09.917805 12781 net.cpp:144] Setting up ip2
I0506 04:00:09.917819 12781 net.cpp:151] Top shape: 20 512 (10240)
I0506 04:00:09.917822 12781 net.cpp:159] Memory required for data: 3883920
I0506 04:00:09.917829 12781 layer_factory.hpp:77] Creating layer ip3
I0506 04:00:09.917834 12781 net.cpp:94] Creating Layer ip3
I0506 04:00:09.917837 12781 net.cpp:435] ip3 <- ip2
I0506 04:00:09.917843 12781 net.cpp:409] ip3 -> ip3
I0506 04:00:09.919348 12781 net.cpp:144] Setting up ip3
I0506 04:00:09.919360 12781 net.cpp:151] Top shape: 20 50 (1000)
I0506 04:00:09.919363 12781 net.cpp:159] Memory required for data: 3887920
I0506 04:00:09.919369 12781 layer_factory.hpp:77] Creating layer loss
I0506 04:00:09.919378 12781 net.cpp:94] Creating Layer loss
I0506 04:00:09.919380 12781 net.cpp:435] loss <- ip3
I0506 04:00:09.919384 12781 net.cpp:435] loss <- label
I0506 04:00:09.919389 12781 net.cpp:409] loss -> loss
I0506 04:00:09.919396 12781 layer_factory.hpp:77] Creating layer loss
…
I0506 04:00:09.919906 12781 solver.cpp:181] Creating test net (#0) specified by net file: ./protocol/dis_50_100_dimension.protocol_distribution
I0506 04:00:09.919931 12781 net.cpp:323] The NetState phase (1) differed from the phase (0) specified by a rule in layer parameters
I0506 04:00:09.920027 12781 net.cpp:52] Initializing net from parameters: 
state {
  phase: TEST
}
layer {
  name: "intercept"
  type: "HDF5Data"
  top: "data"
  top: "label"
  include {
    phase: TEST
  }
  hdf5_data_param {
    source: "/home/purduethu/scratch/radon/d/deng106/CNNStatisticalModel/distributions/input/50_distributions_100_sample_size_test-distributions-path.txt"
    batch_size: 20
  }
}
layer {
  name: "conv1"
  type: "Convolution"
  bottom: "data"
  top: "conv1"
  param {
    lr_mult: 1
  }
  param {
    lr_mult: 2
  }
  convolution_param {
    num_output: 64
    pad: 2
    kernel_size: 5
    stride: 1
    weight_filler {
      type: "gaussian"
      std: 0.0001
    }
    bias_filler {
      type: "constant"
    }
  }
}
layer {
  name: "relu1"
  type: "ReLU"
  bottom: "conv1"
  top: "conv1"
}
layer {
  name: "conv2"
  type: "Convolution"
  bottom: "conv1"
  top: "conv2"
  param {
    lr_mult: 1
  }
  param {
    lr_mult: 2
  }
  convolution_param {
    num_output: 64
    pad: 2
    kernel_size: 5
    stride: 1
    weight_filler {
      type: "gaussian"
      std: 0.01
    }
    bias_filler {
      type: "constant"
    }
  }
}
layer {
  name: "relu2"
  type: "ReLU"
  bottom: "conv2"
  top: "conv2"
}
layer {
  name: "pool2"
  type: "Pooling"
  bottom: "conv2"
  top: "pool2"
  pooling_param {
    pool: MAX
    kernel_size: 3
    stride: 2
  }
}
layer {
  name: "conv3"
  type: "Convolution"
  bottom: "pool2"
  top: "conv3"
  param {
    lr_mult: 1
  }
  param {
    lr_mult: 2
  }
  convolution_param {
    num_output: 128
    pad: 2
    kernel_size: 5
    stride: 1
    weight_filler {
      type: "gaussian"
      std: 0.01
    }
    bias_filler {
      type: "constant"
    }
  }
}
layer {
  name: "relu3"
  type: "ReLU"
  bottom: "conv3"
  top: "conv3"
}
layer {
  name: "conv4"
  type: "Convolution"
  bottom: "conv3"
  top: "conv4"
  param {
    lr_mult: 1
  }
  param {
    lr_mult: 2
  }
  convolution_param {
    num_output: 128
    pad: 2
    kernel_size: 5
    stride: 1
    weight_filler {
      type: "gaussian"
      std: 0.01
    }
    bias_filler {
      type: "constant"
    }
  }
}
layer {
  name: "relu4"
  type: "ReLU"
  bottom: "conv4"
  top: "conv4"
}
layer {
  name: "conv5"
  type: "Convolution"
  bottom: "conv4"
  top: "conv5"
  param {
    lr_mult: 1
  }
  param {
    lr_mult: 2
  }
  convolution_param {
    num_output: 128
    pad: 2
    kernel_size: 5
    stride: 1
    weight_filler {
      type: "gaussian"
      std: 0.01
    }
    bias_filler {
      type: "constant"
    }
  }
}
layer {
  name: "relu5"
  type: "ReLU"
  bottom: "conv5"
  top: "conv5"
}
layer {
  name: "pool5"
  type: "Pooling"
  bottom: "conv5"
  top: "pool5"
  pooling_param {
    pool: AVE
    kernel_size: 3
    stride: 2
  }
}
layer {
  name: "ip1"
  type: "InnerProduct"
  bottom: "pool5"
  top: "ip1"
  param {
    lr_mult: 1
  }
  param {
    lr_mult: 2
  }
  inner_product_param {
    num_output: 1024
    weight_filler {
      type: "gaussian"
      std: 0.1
    }
    bias_filler {
      type: "constant"
    }
  }
}
layer {
  name: "ip2"
  type: "InnerProduct"
  bottom: "ip1"
  top: "ip2"
  param {
    lr_mult: 1
  }
  param {
    lr_mult: 2
  }
  inner_product_param {
    num_output: 512
    weight_filler {
      type: "gaussian"
      std: 0.1
    }
    bias_filler {
      type: "constant"
    }
  }
}
layer {
  name: "ip3"
  type: "InnerProduct"
  bottom: "ip2"
  top: "ip3"
  param {
    lr_mult: 1
  }
  param {
    lr_mult: 2
  }
  inner_product_param {
    num_output: 50
    weight_filler {
      type: "gaussian"
      std: 0.1
    }
    bias_filler {
      type: "constant"
    }
  }
}
layer {
  name: "accuracy"
  type: "Accuracy"
  bottom: "ip3"
  bottom: "label"
  top: "accuracy"
  include {
    phase: TEST
  }
}
layer {
  name: "loss"
  type: "SoftmaxWithLoss"
  bottom: "ip3"
  bottom: "label"
  top: "loss"
}
I0506 04:00:09.920090 12781 layer_factory.hpp:77] Creating layer intercept
I0506 04:00:09.920097 12781 net.cpp:94] Creating Layer intercept
I0506 04:00:09.920101 12781 net.cpp:409] intercept -> data
I0506 04:00:09.920109 12781 net.cpp:409] intercept -> label
I0506 04:00:09.920114 12781 hdf5_data_layer.cpp:79] Loading list of HDF5 filenames from: /home/purduethu/scratch/radon/d/deng106/CNNStatisticalModel/distributions/input/50_distributions_100_sample_size_test-distributions-path.txt
I0506 04:00:09.920132 12781 hdf5_data_layer.cpp:93] Number of HDF5 files: 1
I0506 04:00:09.961128 12781 net.cpp:144] Setting up intercept
I0506 04:00:09.961161 12781 net.cpp:151] Top shape: 20 1 10 10 (2000)
I0506 04:00:09.961166 12781 net.cpp:151] Top shape: 20 (20)
I0506 04:00:09.961169 12781 net.cpp:159] Memory required for data: 8080
I0506 04:00:09.961175 12781 layer_factory.hpp:77] Creating layer label_intercept_1_split
I0506 04:00:09.961194 12781 net.cpp:94] Creating Layer label_intercept_1_split
I0506 04:00:09.961197 12781 net.cpp:435] label_intercept_1_split <- label
I0506 04:00:09.961203 12781 net.cpp:409] label_intercept_1_split -> label_intercept_1_split_0
I0506 04:00:09.961211 12781 net.cpp:409] label_intercept_1_split -> label_intercept_1_split_1
I0506 04:00:09.961251 12781 net.cpp:144] Setting up label_intercept_1_split
I0506 04:00:09.961257 12781 net.cpp:151] Top shape: 20 (20)
I0506 04:00:09.961261 12781 net.cpp:151] Top shape: 20 (20)
I0506 04:00:09.961263 12781 net.cpp:159] Memory required for data: 8240
I0506 04:00:09.961266 12781 layer_factory.hpp:77] Creating layer conv1
I0506 04:00:09.961277 12781 net.cpp:94] Creating Layer conv1
I0506 04:00:09.961280 12781 net.cpp:435] conv1 <- data
I0506 04:00:09.961285 12781 net.cpp:409] conv1 -> conv1
I0506 04:00:09.962136 12781 net.cpp:144] Setting up conv1
I0506 04:00:09.962149 12781 net.cpp:151] Top shape: 20 64 10 10 (128000)
I0506 04:00:09.962153 12781 net.cpp:159] Memory required for data: 520240
I0506 04:00:09.962162 12781 layer_factory.hpp:77] Creating layer relu1
I0506 04:00:09.962169 12781 net.cpp:94] Creating Layer relu1
I0506 04:00:09.962172 12781 net.cpp:435] relu1 <- conv1
I0506 04:00:09.962177 12781 net.cpp:396] relu1 -> conv1 (in-place)
I0506 04:00:09.962183 12781 net.cpp:144] Setting up relu1
I0506 04:00:09.962188 12781 net.cpp:151] Top shape: 20 64 10 10 (128000)
I0506 04:00:09.962198 12781 net.cpp:159] Memory required for data: 1032240
I0506 04:00:09.962201 12781 layer_factory.hpp:77] Creating layer conv2
I0506 04:00:09.962209 12781 net.cpp:94] Creating Layer conv2
I0506 04:00:09.962213 12781 net.cpp:435] conv2 <- conv1
I0506 04:00:09.962218 12781 net.cpp:409] conv2 -> conv2
I0506 04:00:09.966318 12781 net.cpp:144] Setting up conv2
I0506 04:00:09.966332 12781 net.cpp:151] Top shape: 20 64 10 10 (128000)
I0506 04:00:09.966336 12781 net.cpp:159] Memory required for data: 1544240
I0506 04:00:09.966343 12781 layer_factory.hpp:77] Creating layer relu2
I0506 04:00:09.966349 12781 net.cpp:94] Creating Layer relu2
I0506 04:00:09.966352 12781 net.cpp:435] relu2 <- conv2
I0506 04:00:09.966357 12781 net.cpp:396] relu2 -> conv2 (in-place)
I0506 04:00:09.966363 12781 net.cpp:144] Setting up relu2
I0506 04:00:09.966367 12781 net.cpp:151] Top shape: 20 64 10 10 (128000)
I0506 04:00:09.966370 12781 net.cpp:159] Memory required for data: 2056240
I0506 04:00:09.966373 12781 layer_factory.hpp:77] Creating layer pool2
I0506 04:00:09.966380 12781 net.cpp:94] Creating Layer pool2
I0506 04:00:09.966383 12781 net.cpp:435] pool2 <- conv2
I0506 04:00:09.966387 12781 net.cpp:409] pool2 -> pool2
I0506 04:00:09.966444 12781 net.cpp:144] Setting up pool2
I0506 04:00:09.966449 12781 net.cpp:151] Top shape: 20 64 5 5 (32000)
I0506 04:00:09.966452 12781 net.cpp:159] Memory required for data: 2184240
I0506 04:00:09.966455 12781 layer_factory.hpp:77] Creating layer conv3
I0506 04:00:09.966465 12781 net.cpp:94] Creating Layer conv3
I0506 04:00:09.966469 12781 net.cpp:435] conv3 <- pool2
I0506 04:00:09.966473 12781 net.cpp:409] conv3 -> conv3
I0506 04:00:09.972517 12781 net.cpp:144] Setting up conv3
I0506 04:00:09.972529 12781 net.cpp:151] Top shape: 20 128 5 5 (64000)
I0506 04:00:09.972533 12781 net.cpp:159] Memory required for data: 2440240
I0506 04:00:09.972542 12781 layer_factory.hpp:77] Creating layer relu3
I0506 04:00:09.972548 12781 net.cpp:94] Creating Layer relu3
I0506 04:00:09.972559 12781 net.cpp:435] relu3 <- conv3
I0506 04:00:09.972566 12781 net.cpp:396] relu3 -> conv3 (in-place)
I0506 04:00:09.972573 12781 net.cpp:144] Setting up relu3
I0506 04:00:09.972578 12781 net.cpp:151] Top shape: 20 128 5 5 (64000)
I0506 04:00:09.972580 12781 net.cpp:159] Memory required for data: 2696240
I0506 04:00:09.972582 12781 layer_factory.hpp:77] Creating layer conv4
I0506 04:00:09.972591 12781 net.cpp:94] Creating Layer conv4
I0506 04:00:09.972594 12781 net.cpp:435] conv4 <- conv3
I0506 04:00:09.972599 12781 net.cpp:409] conv4 -> conv4
I0506 04:00:09.985239 12781 net.cpp:144] Setting up conv4
I0506 04:00:09.985272 12781 net.cpp:151] Top shape: 20 128 5 5 (64000)
I0506 04:00:09.985283 12781 net.cpp:159] Memory required for data: 2952240
I0506 04:00:09.985301 12781 layer_factory.hpp:77] Creating layer relu4
I0506 04:00:09.985316 12781 net.cpp:94] Creating Layer relu4
I0506 04:00:09.985325 12781 net.cpp:435] relu4 <- conv4
I0506 04:00:09.985338 12781 net.cpp:396] relu4 -> conv4 (in-place)
I0506 04:00:09.985357 12781 net.cpp:144] Setting up relu4
I0506 04:00:09.985368 12781 net.cpp:151] Top shape: 20 128 5 5 (64000)
I0506 04:00:09.985376 12781 net.cpp:159] Memory required for data: 3208240
I0506 04:00:09.985395 12781 layer_factory.hpp:77] Creating layer conv5
I0506 04:00:09.985404 12781 net.cpp:94] Creating Layer conv5
I0506 04:00:09.985407 12781 net.cpp:435] conv5 <- conv4
I0506 04:00:09.985414 12781 net.cpp:409] conv5 -> conv5
I0506 04:00:09.998049 12781 net.cpp:144] Setting up conv5
I0506 04:00:09.998083 12781 net.cpp:151] Top shape: 20 128 5 5 (64000)
I0506 04:00:09.998095 12781 net.cpp:159] Memory required for data: 3464240
I0506 04:00:09.998116 12781 layer_factory.hpp:77] Creating layer relu5
I0506 04:00:09.998131 12781 net.cpp:94] Creating Layer relu5
I0506 04:00:09.998142 12781 net.cpp:435] relu5 <- conv5
I0506 04:00:09.998157 12781 net.cpp:396] relu5 -> conv5 (in-place)
I0506 04:00:09.998174 12781 net.cpp:144] Setting up relu5
I0506 04:00:09.998186 12781 net.cpp:151] Top shape: 20 128 5 5 (64000)
I0506 04:00:09.998214 12781 net.cpp:159] Memory required for data: 3720240
I0506 04:00:09.998216 12781 layer_factory.hpp:77] Creating layer pool5
I0506 04:00:09.998221 12781 net.cpp:94] Creating Layer pool5
I0506 04:00:09.998224 12781 net.cpp:435] pool5 <- conv5
I0506 04:00:09.998230 12781 net.cpp:409] pool5 -> pool5
I0506 04:00:09.998267 12781 net.cpp:144] Setting up pool5
I0506 04:00:09.998273 12781 net.cpp:151] Top shape: 20 128 2 2 (10240)
I0506 04:00:09.998276 12781 net.cpp:159] Memory required for data: 3761200
I0506 04:00:09.998280 12781 layer_factory.hpp:77] Creating layer ip1
I0506 04:00:09.998287 12781 net.cpp:94] Creating Layer ip1
I0506 04:00:09.998291 12781 net.cpp:435] ip1 <- pool5
I0506 04:00:09.998294 12781 net.cpp:409] ip1 -> ip1
I0506 04:00:10.011384 12781 net.cpp:144] Setting up ip1
I0506 04:00:10.011397 12781 net.cpp:151] Top shape: 20 1024 (20480)
I0506 04:00:10.011401 12781 net.cpp:159] Memory required for data: 3843120
I0506 04:00:10.011406 12781 layer_factory.hpp:77] Creating layer ip2
I0506 04:00:10.011416 12781 net.cpp:94] Creating Layer ip2
I0506 04:00:10.011420 12781 net.cpp:435] ip2 <- ip1
I0506 04:00:10.011425 12781 net.cpp:409] ip2 -> ip2
I0506 04:00:10.024516 12781 net.cpp:144] Setting up ip2
I0506 04:00:10.024529 12781 net.cpp:151] Top shape: 20 512 (10240)
I0506 04:00:10.024533 12781 net.cpp:159] Memory required for data: 3884080
I0506 04:00:10.024539 12781 layer_factory.hpp:77] Creating layer ip3
I0506 04:00:10.024549 12781 net.cpp:94] Creating Layer ip3
I0506 04:00:10.024569 12781 net.cpp:435] ip3 <- ip2
I0506 04:00:10.024574 12781 net.cpp:409] ip3 -> ip3
I0506 04:00:10.025353 12781 net.cpp:144] Setting up ip3
I0506 04:00:10.025362 12781 net.cpp:151] Top shape: 20 50 (1000)
I0506 04:00:10.025364 12781 net.cpp:159] Memory required for data: 3888080
I0506 04:00:10.025369 12781 layer_factory.hpp:77] Creating layer ip3_ip3_0_split
I0506 04:00:10.025375 12781 net.cpp:94] Creating Layer ip3_ip3_0_split
I0506 04:00:10.025378 12781 net.cpp:435] ip3_ip3_0_split <- ip3
I0506 04:00:10.025382 12781 net.cpp:409] ip3_ip3_0_split -> ip3_ip3_0_split_0
I0506 04:00:10.025388 12781 net.cpp:409] ip3_ip3_0_split -> ip3_ip3_0_split_1
I0506 04:00:10.025427 12781 net.cpp:144] Setting up ip3_ip3_0_split
I0506 04:00:10.025434 12781 net.cpp:151] Top shape: 20 50 (1000)
I0506 04:00:10.025437 12781 net.cpp:151] Top shape: 20 50 (1000)
I0506 04:00:10.025439 12781 net.cpp:159] Memory required for data: 3896080
I0506 04:00:10.025442 12781 layer_factory.hpp:77] Creating layer accuracy
I0506 04:00:10.025449 12781 net.cpp:94] Creating Layer accuracy
I0506 04:00:10.025451 12781 net.cpp:435] accuracy <- ip3_ip3_0_split_0
I0506 04:00:10.025455 12781 net.cpp:435] accuracy <- label_intercept_1_split_0
I0506 04:00:10.025460 12781 net.cpp:409] accuracy -> accuracy
…
