…
I0501 19:37:54.983741 14302 net.cpp:323] The NetState phase (0) differed from the phase (1) specified by a rule in layer intercept
I0501 19:37:54.983757 14302 net.cpp:323] The NetState phase (0) differed from the phase (1) specified by a rule in layer loss
I0501 19:37:54.983847 14302 net.cpp:52] Initializing net from parameters: 
state {
  phase: TRAIN
}
layer {
  name: "parameters"
  type: "HDF5Data"
  top: "data"
  top: "label"
  include {
    phase: TRAIN
  }
  hdf5_data_param {
    source: "/home/purduethu/scratch/radon/d/deng106/CNNStatisticalModel/distributions/input/5_distributions_900_sample_size_train-parameters-path.txt"
    batch_size: 20
  }
}
layer {
  name: "conv1"
  type: "Convolution"
  bottom: "data"
  top: "conv1"
  param {
    lr_mult: 1
  }
  param {
    lr_mult: 2
  }
  convolution_param {
    num_output: 64
    pad: 2
    kernel_size: 5
    stride: 1
    weight_filler {
      type: "gaussian"
      std: 0.0001
    }
    bias_filler {
      type: "constant"
    }
  }
}
layer {
  name: "relu1"
  type: "ReLU"
  bottom: "conv1"
  top: "conv1"
}
layer {
  name: "conv2"
  type: "Convolution"
  bottom: "conv1"
  top: "conv2"
  param {
    lr_mult: 1
  }
  param {
    lr_mult: 2
  }
  convolution_param {
    num_output: 64
    pad: 2
    kernel_size: 5
    stride: 1
    weight_filler {
      type: "gaussian"
      std: 0.01
    }
    bias_filler {
      type: "constant"
    }
  }
}
layer {
  name: "relu2"
  type: "ReLU"
  bottom: "conv2"
  top: "conv2"
}
layer {
  name: "pool2"
  type: "Pooling"
  bottom: "conv2"
  top: "pool2"
  pooling_param {
    pool: MAX
    kernel_size: 3
    stride: 2
  }
}
layer {
  name: "conv3"
  type: "Convolution"
  bottom: "pool2"
  top: "conv3"
  param {
    lr_mult: 1
  }
  param {
    lr_mult: 2
  }
  convolution_param {
    num_output: 64
    pad: 2
    kernel_size: 5
    stride: 1
    weight_filler {
      type: "gaussian"
      std: 0.01
    }
    bias_filler {
      type: "constant"
    }
  }
}
layer {
  name: "relu3"
  type: "ReLU"
  bottom: "conv3"
  top: "conv3"
}
layer {
  name: "conv4"
  type: "Convolution"
  bottom: "conv3"
  top: "conv4"
  param {
    lr_mult: 1
  }
  param {
    lr_mult: 2
  }
  convolution_param {
    num_output: 64
    pad: 2
    kernel_size: 5
    stride: 1
    weight_filler {
      type: "gaussian"
      std: 0.01
    }
    bias_filler {
      type: "constant"
    }
  }
}
layer {
  name: "relu4"
  type: "ReLU"
  bottom: "conv4"
  top: "conv4"
}
layer {
  name: "conv5"
  type: "Convolution"
  bottom: "conv4"
  top: "conv5"
  param {
    lr_mult: 1
  }
  param {
    lr_mult: 2
  }
  convolution_param {
    num_output: 64
    pad: 2
    kernel_size: 5
    stride: 1
    weight_filler {
      type: "gaussian"
      std: 0.01
    }
    bias_filler {
      type: "constant"
    }
  }
}
layer {
  name: "relu5"
  type: "ReLU"
  bottom: "conv5"
  top: "conv5"
}
layer {
  name: "pool5"
  type: "Pooling"
  bottom: "conv5"
  top: "pool5"
  pooling_param {
    pool: AVE
    kernel_size: 3
    stride: 2
  }
}
layer {
  name: "ip1"
  type: "InnerProduct"
  bottom: "pool5"
  top: "ip1"
  param {
    lr_mult: 1
  }
  param {
    lr_mult: 2
  }
  inner_product_param {
    num_output: 64
    weight_filler {
      type: "gaussian"
      std: 0.1
    }
    bias_filler {
      type: "constant"
    }
  }
}
layer {
  name: "ip2"
  type: "InnerProduct"
  bottom: "ip1"
  top: "ip2"
  param {
    lr_mult: 1
  }
  param {
    lr_mult: 2
  }
  inner_product_param {
    num_output: 64
    weight_filler {
      type: "gaussian"
      std: 0.1
    }
    bias_filler {
      type: "constant"
    }
  }
}
layer {
  name: "ip3"
  type: "InnerProduct"
  bottom: "ip2"
  top: "ip3"
  param {
    lr_mult: 1
  }
  param {
    lr_mult: 2
  }
  inner_product_param {
    num_output: 1
    weight_filler {
      type: "gaussian"
      std: 0.1
    }
    bias_filler {
      type: "constant"
    }
  }
}
layer {
  name: "loss"
  type: "HuberLoss"
  bottom: "ip3"
  bottom: "label"
  top: "loss"
  include {
    phase: TRAIN
  }
}
I0501 19:37:54.983922 14302 layer_factory.hpp:77] Creating layer parameters
I0501 19:37:54.983935 14302 net.cpp:94] Creating Layer parameters
I0501 19:37:54.983942 14302 net.cpp:409] parameters -> data
I0501 19:37:54.983960 14302 net.cpp:409] parameters -> label
I0501 19:37:54.983970 14302 hdf5_data_layer.cpp:79] Loading list of HDF5 filenames from: /home/purduethu/scratch/radon/d/deng106/CNNStatisticalModel/distributions/input/5_distributions_900_sample_size_train-parameters-path.txt
I0501 19:37:54.983994 14302 hdf5_data_layer.cpp:93] Number of HDF5 files: 1
I0501 19:37:54.984604 14302 hdf5.cpp:32] Datatype class: H5T_FLOAT
I0501 19:37:55.121399 14302 net.cpp:144] Setting up parameters
I0501 19:37:55.121431 14302 net.cpp:151] Top shape: 20 1 30 30 (18000)
I0501 19:37:55.121438 14302 net.cpp:151] Top shape: 20 (20)
I0501 19:37:55.121441 14302 net.cpp:159] Memory required for data: 72080
I0501 19:37:55.121449 14302 layer_factory.hpp:77] Creating layer conv1
I0501 19:37:55.121467 14302 net.cpp:94] Creating Layer conv1
I0501 19:37:55.121474 14302 net.cpp:435] conv1 <- data
I0501 19:37:55.121485 14302 net.cpp:409] conv1 -> conv1
I0501 19:37:55.127485 14302 net.cpp:144] Setting up conv1
I0501 19:37:55.127501 14302 net.cpp:151] Top shape: 20 64 30 30 (1152000)
I0501 19:37:55.127506 14302 net.cpp:159] Memory required for data: 4680080
I0501 19:37:55.127517 14302 layer_factory.hpp:77] Creating layer relu1
I0501 19:37:55.127526 14302 net.cpp:94] Creating Layer relu1
I0501 19:37:55.127529 14302 net.cpp:435] relu1 <- conv1
I0501 19:37:55.127534 14302 net.cpp:396] relu1 -> conv1 (in-place)
I0501 19:37:55.127545 14302 net.cpp:144] Setting up relu1
I0501 19:37:55.127552 14302 net.cpp:151] Top shape: 20 64 30 30 (1152000)
I0501 19:37:55.127554 14302 net.cpp:159] Memory required for data: 9288080
I0501 19:37:55.127557 14302 layer_factory.hpp:77] Creating layer conv2
I0501 19:37:55.127565 14302 net.cpp:94] Creating Layer conv2
I0501 19:37:55.127568 14302 net.cpp:435] conv2 <- conv1
I0501 19:37:55.127574 14302 net.cpp:409] conv2 -> conv2
I0501 19:37:55.142690 14302 net.cpp:144] Setting up conv2
I0501 19:37:55.142706 14302 net.cpp:151] Top shape: 20 64 30 30 (1152000)
I0501 19:37:55.142710 14302 net.cpp:159] Memory required for data: 13896080
I0501 19:37:55.142719 14302 layer_factory.hpp:77] Creating layer relu2
I0501 19:37:55.142726 14302 net.cpp:94] Creating Layer relu2
I0501 19:37:55.142730 14302 net.cpp:435] relu2 <- conv2
I0501 19:37:55.142735 14302 net.cpp:396] relu2 -> conv2 (in-place)
I0501 19:37:55.142742 14302 net.cpp:144] Setting up relu2
I0501 19:37:55.142747 14302 net.cpp:151] Top shape: 20 64 30 30 (1152000)
I0501 19:37:55.142751 14302 net.cpp:159] Memory required for data: 18504080
I0501 19:37:55.142755 14302 layer_factory.hpp:77] Creating layer pool2
I0501 19:37:55.142762 14302 net.cpp:94] Creating Layer pool2
I0501 19:37:55.142771 14302 net.cpp:435] pool2 <- conv2
I0501 19:37:55.142777 14302 net.cpp:409] pool2 -> pool2
I0501 19:37:55.142822 14302 net.cpp:144] Setting up pool2
I0501 19:37:55.142830 14302 net.cpp:151] Top shape: 20 64 15 15 (288000)
I0501 19:37:55.142834 14302 net.cpp:159] Memory required for data: 19656080
I0501 19:37:55.142838 14302 layer_factory.hpp:77] Creating layer conv3
I0501 19:37:55.142845 14302 net.cpp:94] Creating Layer conv3
I0501 19:37:55.142849 14302 net.cpp:435] conv3 <- pool2
I0501 19:37:55.142854 14302 net.cpp:409] conv3 -> conv3
I0501 19:37:55.151007 14302 net.cpp:144] Setting up conv3
I0501 19:37:55.151022 14302 net.cpp:151] Top shape: 20 64 15 15 (288000)
I0501 19:37:55.151026 14302 net.cpp:159] Memory required for data: 20808080
I0501 19:37:55.151034 14302 layer_factory.hpp:77] Creating layer relu3
I0501 19:37:55.151041 14302 net.cpp:94] Creating Layer relu3
I0501 19:37:55.151046 14302 net.cpp:435] relu3 <- conv3
I0501 19:37:55.151049 14302 net.cpp:396] relu3 -> conv3 (in-place)
I0501 19:37:55.151057 14302 net.cpp:144] Setting up relu3
I0501 19:37:55.151062 14302 net.cpp:151] Top shape: 20 64 15 15 (288000)
I0501 19:37:55.151065 14302 net.cpp:159] Memory required for data: 21960080
I0501 19:37:55.151068 14302 layer_factory.hpp:77] Creating layer conv4
I0501 19:37:55.151077 14302 net.cpp:94] Creating Layer conv4
I0501 19:37:55.151082 14302 net.cpp:435] conv4 <- conv3
I0501 19:37:55.151087 14302 net.cpp:409] conv4 -> conv4
I0501 19:37:55.158345 14302 net.cpp:144] Setting up conv4
I0501 19:37:55.158360 14302 net.cpp:151] Top shape: 20 64 15 15 (288000)
I0501 19:37:55.158365 14302 net.cpp:159] Memory required for data: 23112080
I0501 19:37:55.158370 14302 layer_factory.hpp:77] Creating layer relu4
I0501 19:37:55.158376 14302 net.cpp:94] Creating Layer relu4
I0501 19:37:55.158380 14302 net.cpp:435] relu4 <- conv4
I0501 19:37:55.158385 14302 net.cpp:396] relu4 -> conv4 (in-place)
I0501 19:37:55.158393 14302 net.cpp:144] Setting up relu4
I0501 19:37:55.158397 14302 net.cpp:151] Top shape: 20 64 15 15 (288000)
I0501 19:37:55.158401 14302 net.cpp:159] Memory required for data: 24264080
I0501 19:37:55.158404 14302 layer_factory.hpp:77] Creating layer conv5
I0501 19:37:55.158412 14302 net.cpp:94] Creating Layer conv5
I0501 19:37:55.158416 14302 net.cpp:435] conv5 <- conv4
I0501 19:37:55.158421 14302 net.cpp:409] conv5 -> conv5
I0501 19:37:55.165714 14302 net.cpp:144] Setting up conv5
I0501 19:37:55.165729 14302 net.cpp:151] Top shape: 20 64 15 15 (288000)
I0501 19:37:55.165732 14302 net.cpp:159] Memory required for data: 25416080
I0501 19:37:55.165741 14302 layer_factory.hpp:77] Creating layer relu5
I0501 19:37:55.165747 14302 net.cpp:94] Creating Layer relu5
I0501 19:37:55.165751 14302 net.cpp:435] relu5 <- conv5
I0501 19:37:55.165756 14302 net.cpp:396] relu5 -> conv5 (in-place)
I0501 19:37:55.165763 14302 net.cpp:144] Setting up relu5
I0501 19:37:55.165768 14302 net.cpp:151] Top shape: 20 64 15 15 (288000)
I0501 19:37:55.165771 14302 net.cpp:159] Memory required for data: 26568080
I0501 19:37:55.165774 14302 layer_factory.hpp:77] Creating layer pool5
I0501 19:37:55.165779 14302 net.cpp:94] Creating Layer pool5
I0501 19:37:55.165783 14302 net.cpp:435] pool5 <- conv5
I0501 19:37:55.165787 14302 net.cpp:409] pool5 -> pool5
I0501 19:37:55.165822 14302 net.cpp:144] Setting up pool5
I0501 19:37:55.165829 14302 net.cpp:151] Top shape: 20 64 7 7 (62720)
I0501 19:37:55.165833 14302 net.cpp:159] Memory required for data: 26818960
I0501 19:37:55.165837 14302 layer_factory.hpp:77] Creating layer ip1
I0501 19:37:55.165846 14302 net.cpp:94] Creating Layer ip1
I0501 19:37:55.165849 14302 net.cpp:435] ip1 <- pool5
I0501 19:37:55.165855 14302 net.cpp:409] ip1 -> ip1
I0501 19:37:55.171463 14302 net.cpp:144] Setting up ip1
I0501 19:37:55.171478 14302 net.cpp:151] Top shape: 20 64 (1280)
I0501 19:37:55.171481 14302 net.cpp:159] Memory required for data: 26824080
I0501 19:37:55.171489 14302 layer_factory.hpp:77] Creating layer ip2
I0501 19:37:55.171495 14302 net.cpp:94] Creating Layer ip2
I0501 19:37:55.171504 14302 net.cpp:435] ip2 <- ip1
I0501 19:37:55.171509 14302 net.cpp:409] ip2 -> ip2
I0501 19:37:55.171684 14302 net.cpp:144] Setting up ip2
I0501 19:37:55.171692 14302 net.cpp:151] Top shape: 20 64 (1280)
I0501 19:37:55.171695 14302 net.cpp:159] Memory required for data: 26829200
I0501 19:37:55.171701 14302 layer_factory.hpp:77] Creating layer ip3
I0501 19:37:55.171707 14302 net.cpp:94] Creating Layer ip3
I0501 19:37:55.171711 14302 net.cpp:435] ip3 <- ip2
I0501 19:37:55.171716 14302 net.cpp:409] ip3 -> ip3
I0501 19:37:55.171782 14302 net.cpp:144] Setting up ip3
I0501 19:37:55.171794 14302 net.cpp:151] Top shape: 20 1 (20)
I0501 19:37:55.171798 14302 net.cpp:159] Memory required for data: 26829280
I0501 19:37:55.171803 14302 layer_factory.hpp:77] Creating layer loss
I0501 19:37:55.171815 14302 net.cpp:94] Creating Layer loss
I0501 19:37:55.171819 14302 net.cpp:435] loss <- ip3
I0501 19:37:55.171823 14302 net.cpp:435] loss <- label
I0501 19:37:55.171829 14302 net.cpp:409] loss -> loss
I0501 19:37:55.171866 14302 net.cpp:144] Setting up loss
…
