…
I0507 16:04:59.422876  4548 net.cpp:323] The NetState phase (0) differed from the phase (1) specified by a rule in layer intercept
I0507 16:04:59.422893  4548 net.cpp:323] The NetState phase (0) differed from the phase (1) specified by a rule in layer loss
I0507 16:04:59.422972  4548 net.cpp:52] Initializing net from parameters: 
state {
  phase: TRAIN
}
layer {
  name: "parameters"
  type: "HDF5Data"
  top: "data"
  top: "label"
  include {
    phase: TRAIN
  }
  hdf5_data_param {
    source: "/home/purduethu/scratch/radon/d/deng106/CNNStatisticalModel/distributions/input/20_distributions_900_sample_size_train-parameters-path.txt"
    batch_size: 20
  }
}
layer {
  name: "conv1"
  type: "Convolution"
  bottom: "data"
  top: "conv1"
  param {
    lr_mult: 1
  }
  param {
    lr_mult: 2
  }
  convolution_param {
    num_output: 64
    pad: 2
    kernel_size: 5
    stride: 1
    weight_filler {
      type: "gaussian"
      std: 0.0001
    }
    bias_filler {
      type: "constant"
    }
  }
}
layer {
  name: "relu1"
  type: "ReLU"
  bottom: "conv1"
  top: "conv1"
}
layer {
  name: "conv2"
  type: "Convolution"
  bottom: "conv1"
  top: "conv2"
  param {
    lr_mult: 1
  }
  param {
    lr_mult: 2
  }
  convolution_param {
    num_output: 64
    pad: 2
    kernel_size: 5
    stride: 1
    weight_filler {
      type: "gaussian"
      std: 0.01
    }
    bias_filler {
      type: "constant"
    }
  }
}
layer {
  name: "relu2"
  type: "ReLU"
  bottom: "conv2"
  top: "conv2"
}
layer {
  name: "pool2"
  type: "Pooling"
  bottom: "conv2"
  top: "pool2"
  pooling_param {
    pool: MAX
    kernel_size: 3
    stride: 2
  }
}
layer {
  name: "conv3"
  type: "Convolution"
  bottom: "pool2"
  top: "conv3"
  param {
    lr_mult: 1
  }
  param {
    lr_mult: 2
  }
  convolution_param {
    num_output: 64
    pad: 2
    kernel_size: 5
    stride: 1
    weight_filler {
      type: "gaussian"
      std: 0.01
    }
    bias_filler {
      type: "constant"
    }
  }
}
layer {
  name: "relu3"
  type: "ReLU"
  bottom: "conv3"
  top: "conv3"
}
layer {
  name: "conv4"
  type: "Convolution"
  bottom: "conv3"
  top: "conv4"
  param {
    lr_mult: 1
  }
  param {
    lr_mult: 2
  }
  convolution_param {
    num_output: 64
    pad: 2
    kernel_size: 5
    stride: 1
    weight_filler {
      type: "gaussian"
      std: 0.01
    }
    bias_filler {
      type: "constant"
    }
  }
}
layer {
  name: "relu4"
  type: "ReLU"
  bottom: "conv4"
  top: "conv4"
}
layer {
  name: "conv5"
  type: "Convolution"
  bottom: "conv4"
  top: "conv5"
  param {
    lr_mult: 1
  }
  param {
    lr_mult: 2
  }
  convolution_param {
    num_output: 64
    pad: 2
    kernel_size: 5
    stride: 1
    weight_filler {
      type: "gaussian"
      std: 0.01
    }
    bias_filler {
      type: "constant"
    }
  }
}
layer {
  name: "relu5"
  type: "ReLU"
  bottom: "conv5"
  top: "conv5"
}
layer {
  name: "pool5"
  type: "Pooling"
  bottom: "conv5"
  top: "pool5"
  pooling_param {
    pool: AVE
    kernel_size: 3
    stride: 2
  }
}
layer {
  name: "ip1"
  type: "InnerProduct"
  bottom: "pool5"
  top: "ip1"
  param {
    lr_mult: 1
  }
  param {
    lr_mult: 2
  }
  inner_product_param {
    num_output: 64
    weight_filler {
      type: "gaussian"
      std: 0.1
    }
    bias_filler {
      type: "constant"
    }
  }
}
layer {
  name: "ip2"
  type: "InnerProduct"
  bottom: "ip1"
  top: "ip2"
  param {
    lr_mult: 1
  }
  param {
    lr_mult: 2
  }
  inner_product_param {
    num_output: 64
    weight_filler {
      type: "gaussian"
      std: 0.1
    }
    bias_filler {
      type: "constant"
    }
  }
}
layer {
  name: "ip3"
  type: "InnerProduct"
  bottom: "ip2"
  top: "ip3"
  param {
    lr_mult: 1
  }
  param {
    lr_mult: 2
  }
  inner_product_param {
    num_output: 1
    weight_filler {
      type: "gaussian"
      std: 0.1
    }
    bias_filler {
      type: "constant"
    }
  }
}
layer {
  name: "loss"
  type: "HuberLoss"
  bottom: "ip3"
  bottom: "label"
  top: "loss"
  include {
    phase: TRAIN
  }
}
I0507 16:04:59.423029  4548 layer_factory.hpp:77] Creating layer parameters
I0507 16:04:59.423046  4548 net.cpp:94] Creating Layer parameters
I0507 16:04:59.423050  4548 net.cpp:409] parameters -> data
I0507 16:04:59.423059  4548 net.cpp:409] parameters -> label
I0507 16:04:59.423066  4548 hdf5_data_layer.cpp:79] Loading list of HDF5 filenames from: /home/purduethu/scratch/radon/d/deng106/CNNStatisticalModel/distributions/input/20_distributions_900_sample_size_train-parameters-path.txt
I0507 16:04:59.423081  4548 hdf5_data_layer.cpp:93] Number of HDF5 files: 1
I0507 16:04:59.423642  4548 hdf5.cpp:32] Datatype class: H5T_FLOAT
I0507 16:05:00.002995  4548 net.cpp:144] Setting up parameters
I0507 16:05:00.003023  4548 net.cpp:151] Top shape: 20 1 30 30 (18000)
I0507 16:05:00.003028  4548 net.cpp:151] Top shape: 20 (20)
I0507 16:05:00.003031  4548 net.cpp:159] Memory required for data: 72080
I0507 16:05:00.003037  4548 layer_factory.hpp:77] Creating layer conv1
I0507 16:05:00.003052  4548 net.cpp:94] Creating Layer conv1
I0507 16:05:00.003057  4548 net.cpp:435] conv1 <- data
I0507 16:05:00.003063  4548 net.cpp:409] conv1 -> conv1
I0507 16:05:00.009557  4548 net.cpp:144] Setting up conv1
I0507 16:05:00.009572  4548 net.cpp:151] Top shape: 20 64 30 30 (1152000)
I0507 16:05:00.009577  4548 net.cpp:159] Memory required for data: 4680080
I0507 16:05:00.009587  4548 layer_factory.hpp:77] Creating layer relu1
I0507 16:05:00.009594  4548 net.cpp:94] Creating Layer relu1
I0507 16:05:00.009598  4548 net.cpp:435] relu1 <- conv1
I0507 16:05:00.009603  4548 net.cpp:396] relu1 -> conv1 (in-place)
I0507 16:05:00.009609  4548 net.cpp:144] Setting up relu1
I0507 16:05:00.009613  4548 net.cpp:151] Top shape: 20 64 30 30 (1152000)
I0507 16:05:00.009616  4548 net.cpp:159] Memory required for data: 9288080
I0507 16:05:00.009619  4548 layer_factory.hpp:77] Creating layer conv2
I0507 16:05:00.009627  4548 net.cpp:94] Creating Layer conv2
I0507 16:05:00.009630  4548 net.cpp:435] conv2 <- conv1
I0507 16:05:00.009634  4548 net.cpp:409] conv2 -> conv2
I0507 16:05:00.023932  4548 net.cpp:144] Setting up conv2
I0507 16:05:00.023947  4548 net.cpp:151] Top shape: 20 64 30 30 (1152000)
I0507 16:05:00.023952  4548 net.cpp:159] Memory required for data: 13896080
I0507 16:05:00.023959  4548 layer_factory.hpp:77] Creating layer relu2
I0507 16:05:00.023965  4548 net.cpp:94] Creating Layer relu2
I0507 16:05:00.023969  4548 net.cpp:435] relu2 <- conv2
I0507 16:05:00.023973  4548 net.cpp:396] relu2 -> conv2 (in-place)
I0507 16:05:00.023980  4548 net.cpp:144] Setting up relu2
I0507 16:05:00.023984  4548 net.cpp:151] Top shape: 20 64 30 30 (1152000)
I0507 16:05:00.023988  4548 net.cpp:159] Memory required for data: 18504080
I0507 16:05:00.023990  4548 layer_factory.hpp:77] Creating layer pool2
I0507 16:05:00.024001  4548 net.cpp:94] Creating Layer pool2
I0507 16:05:00.024005  4548 net.cpp:435] pool2 <- conv2
I0507 16:05:00.024009  4548 net.cpp:409] pool2 -> pool2
I0507 16:05:00.024062  4548 net.cpp:144] Setting up pool2
I0507 16:05:00.024070  4548 net.cpp:151] Top shape: 20 64 15 15 (288000)
I0507 16:05:00.024073  4548 net.cpp:159] Memory required for data: 19656080
I0507 16:05:00.024076  4548 layer_factory.hpp:77] Creating layer conv3
I0507 16:05:00.024085  4548 net.cpp:94] Creating Layer conv3
I0507 16:05:00.024087  4548 net.cpp:435] conv3 <- pool2
I0507 16:05:00.024092  4548 net.cpp:409] conv3 -> conv3
I0507 16:05:00.032344  4548 net.cpp:144] Setting up conv3
I0507 16:05:00.032359  4548 net.cpp:151] Top shape: 20 64 15 15 (288000)
I0507 16:05:00.032363  4548 net.cpp:159] Memory required for data: 20808080
I0507 16:05:00.032371  4548 layer_factory.hpp:77] Creating layer relu3
I0507 16:05:00.032377  4548 net.cpp:94] Creating Layer relu3
I0507 16:05:00.032380  4548 net.cpp:435] relu3 <- conv3
I0507 16:05:00.032384  4548 net.cpp:396] relu3 -> conv3 (in-place)
I0507 16:05:00.032392  4548 net.cpp:144] Setting up relu3
I0507 16:05:00.032395  4548 net.cpp:151] Top shape: 20 64 15 15 (288000)
I0507 16:05:00.032398  4548 net.cpp:159] Memory required for data: 21960080
I0507 16:05:00.032402  4548 layer_factory.hpp:77] Creating layer conv4
I0507 16:05:00.032409  4548 net.cpp:94] Creating Layer conv4
I0507 16:05:00.032413  4548 net.cpp:435] conv4 <- conv3
I0507 16:05:00.032418  4548 net.cpp:409] conv4 -> conv4
I0507 16:05:00.039659  4548 net.cpp:144] Setting up conv4
I0507 16:05:00.039672  4548 net.cpp:151] Top shape: 20 64 15 15 (288000)
I0507 16:05:00.039676  4548 net.cpp:159] Memory required for data: 23112080
I0507 16:05:00.039682  4548 layer_factory.hpp:77] Creating layer relu4
I0507 16:05:00.039688  4548 net.cpp:94] Creating Layer relu4
I0507 16:05:00.039691  4548 net.cpp:435] relu4 <- conv4
I0507 16:05:00.039696  4548 net.cpp:396] relu4 -> conv4 (in-place)
I0507 16:05:00.039702  4548 net.cpp:144] Setting up relu4
I0507 16:05:00.039707  4548 net.cpp:151] Top shape: 20 64 15 15 (288000)
I0507 16:05:00.039710  4548 net.cpp:159] Memory required for data: 24264080
I0507 16:05:00.039712  4548 layer_factory.hpp:77] Creating layer conv5
I0507 16:05:00.039721  4548 net.cpp:94] Creating Layer conv5
I0507 16:05:00.039723  4548 net.cpp:435] conv5 <- conv4
I0507 16:05:00.039728  4548 net.cpp:409] conv5 -> conv5
I0507 16:05:00.047757  4548 net.cpp:144] Setting up conv5
I0507 16:05:00.047772  4548 net.cpp:151] Top shape: 20 64 15 15 (288000)
I0507 16:05:00.047775  4548 net.cpp:159] Memory required for data: 25416080
I0507 16:05:00.047785  4548 layer_factory.hpp:77] Creating layer relu5
I0507 16:05:00.047791  4548 net.cpp:94] Creating Layer relu5
I0507 16:05:00.047793  4548 net.cpp:435] relu5 <- conv5
I0507 16:05:00.047797  4548 net.cpp:396] relu5 -> conv5 (in-place)
I0507 16:05:00.047804  4548 net.cpp:144] Setting up relu5
I0507 16:05:00.047809  4548 net.cpp:151] Top shape: 20 64 15 15 (288000)
I0507 16:05:00.047811  4548 net.cpp:159] Memory required for data: 26568080
I0507 16:05:00.047814  4548 layer_factory.hpp:77] Creating layer pool5
I0507 16:05:00.047819  4548 net.cpp:94] Creating Layer pool5
I0507 16:05:00.047822  4548 net.cpp:435] pool5 <- conv5
I0507 16:05:00.047827  4548 net.cpp:409] pool5 -> pool5
I0507 16:05:00.047863  4548 net.cpp:144] Setting up pool5
I0507 16:05:00.047871  4548 net.cpp:151] Top shape: 20 64 7 7 (62720)
I0507 16:05:00.047874  4548 net.cpp:159] Memory required for data: 26818960
I0507 16:05:00.047878  4548 layer_factory.hpp:77] Creating layer ip1
I0507 16:05:00.047888  4548 net.cpp:94] Creating Layer ip1
I0507 16:05:00.047890  4548 net.cpp:435] ip1 <- pool5
I0507 16:05:00.047895  4548 net.cpp:409] ip1 -> ip1
I0507 16:05:00.052671  4548 net.cpp:144] Setting up ip1
I0507 16:05:00.052680  4548 net.cpp:151] Top shape: 20 64 (1280)
I0507 16:05:00.052683  4548 net.cpp:159] Memory required for data: 26824080
I0507 16:05:00.052688  4548 layer_factory.hpp:77] Creating layer ip2
I0507 16:05:00.052695  4548 net.cpp:94] Creating Layer ip2
I0507 16:05:00.052701  4548 net.cpp:435] ip2 <- ip1
I0507 16:05:00.052706  4548 net.cpp:409] ip2 -> ip2
I0507 16:05:00.052923  4548 net.cpp:144] Setting up ip2
I0507 16:05:00.052930  4548 net.cpp:151] Top shape: 20 64 (1280)
I0507 16:05:00.052933  4548 net.cpp:159] Memory required for data: 26829200
I0507 16:05:00.052938  4548 layer_factory.hpp:77] Creating layer ip3
I0507 16:05:00.052943  4548 net.cpp:94] Creating Layer ip3
I0507 16:05:00.052947  4548 net.cpp:435] ip3 <- ip2
I0507 16:05:00.052952  4548 net.cpp:409] ip3 -> ip3
I0507 16:05:00.053047  4548 net.cpp:144] Setting up ip3
I0507 16:05:00.053055  4548 net.cpp:151] Top shape: 20 1 (20)
I0507 16:05:00.053057  4548 net.cpp:159] Memory required for data: 26829280
I0507 16:05:00.053061  4548 layer_factory.hpp:77] Creating layer loss
I0507 16:05:00.053071  4548 net.cpp:94] Creating Layer loss
I0507 16:05:00.053076  4548 net.cpp:435] loss <- ip3
I0507 16:05:00.053078  4548 net.cpp:435] loss <- label
I0507 16:05:00.053082  4548 net.cpp:409] loss -> loss
I0507 16:05:00.053131  4548 net.cpp:144] Setting up loss
…
I0507 16:05:00.262961  4548 net.cpp:323] The NetState phase (0) differed from the phase (1) specified by a rule in layer intercept
I0507 16:05:00.262994  4548 net.cpp:323] The NetState phase (0) differed from the phase (1) specified by a rule in layer accuracy
I0507 16:05:00.263172  4548 net.cpp:52] Initializing net from parameters: 
state {
  phase: TRAIN
}
layer {
  name: "parameters"
  type: "HDF5Data"
  top: "data"
  top: "label"
  include {
    phase: TRAIN
  }
  hdf5_data_param {
    source: "/home/purduethu/scratch/radon/d/deng106/CNNStatisticalModel/distributions/input/20_distributions_900_sample_size_train-distributions-path.txt"
    batch_size: 20
  }
}
layer {
  name: "conv1"
  type: "Convolution"
  bottom: "data"
  top: "conv1"
  param {
    lr_mult: 1
  }
  param {
    lr_mult: 2
  }
  convolution_param {
    num_output: 64
    pad: 2
    kernel_size: 5
    stride: 1
    weight_filler {
      type: "gaussian"
      std: 0.0001
    }
    bias_filler {
      type: "constant"
    }
  }
}
layer {
  name: "relu1"
  type: "ReLU"
  bottom: "conv1"
  top: "conv1"
}
layer {
  name: "conv2"
  type: "Convolution"
  bottom: "conv1"
  top: "conv2"
  param {
    lr_mult: 1
  }
  param {
    lr_mult: 2
  }
  convolution_param {
    num_output: 64
    pad: 2
    kernel_size: 5
    stride: 1
    weight_filler {
      type: "gaussian"
      std: 0.01
    }
    bias_filler {
      type: "constant"
    }
  }
}
layer {
  name: "relu2"
  type: "ReLU"
  bottom: "conv2"
  top: "conv2"
}
layer {
  name: "pool2"
  type: "Pooling"
  bottom: "conv2"
  top: "pool2"
  pooling_param {
    pool: MAX
    kernel_size: 3
    stride: 2
  }
}
layer {
  name: "conv3"
  type: "Convolution"
  bottom: "pool2"
  top: "conv3"
  param {
    lr_mult: 1
  }
  param {
    lr_mult: 2
  }
  convolution_param {
    num_output: 64
    pad: 2
    kernel_size: 5
    stride: 1
    weight_filler {
      type: "gaussian"
      std: 0.01
    }
    bias_filler {
      type: "constant"
    }
  }
}
layer {
  name: "relu3"
  type: "ReLU"
  bottom: "conv3"
  top: "conv3"
}
layer {
  name: "conv4"
  type: "Convolution"
  bottom: "conv3"
  top: "conv4"
  param {
    lr_mult: 1
  }
  param {
    lr_mult: 2
  }
  convolution_param {
    num_output: 64
    pad: 2
    kernel_size: 5
    stride: 1
    weight_filler {
      type: "gaussian"
      std: 0.01
    }
    bias_filler {
      type: "constant"
    }
  }
}
layer {
  name: "relu4"
  type: "ReLU"
  bottom: "conv4"
  top: "conv4"
}
layer {
  name: "conv5"
  type: "Convolution"
  bottom: "conv4"
  top: "conv5"
  param {
    lr_mult: 1
  }
  param {
    lr_mult: 2
  }
  convolution_param {
    num_output: 64
    pad: 2
    kernel_size: 5
    stride: 1
    weight_filler {
      type: "gaussian"
      std: 0.01
    }
    bias_filler {
      type: "constant"
    }
  }
}
layer {
  name: "relu5"
  type: "ReLU"
  bottom: "conv5"
  top: "conv5"
}
layer {
  name: "pool5"
  type: "Pooling"
  bottom: "conv5"
  top: "pool5"
  pooling_param {
    pool: AVE
    kernel_size: 3
    stride: 2
  }
}
layer {
  name: "ip1"
  type: "InnerProduct"
  bottom: "pool5"
  top: "ip1"
  param {
    lr_mult: 1
  }
  param {
    lr_mult: 2
  }
  inner_product_param {
    num_output: 64
    weight_filler {
      type: "gaussian"
      std: 0.1
    }
    bias_filler {
      type: "constant"
    }
  }
}
layer {
  name: "ip2"
  type: "InnerProduct"
  bottom: "ip1"
  top: "ip2"
  param {
    lr_mult: 1
  }
  param {
    lr_mult: 2
  }
  inner_product_param {
    num_output: 64
    weight_filler {
      type: "gaussian"
      std: 0.1
    }
    bias_filler {
      type: "constant"
    }
  }
}
layer {
  name: "ip3"
  type: "InnerProduct"
  bottom: "ip2"
  top: "ip3"
  param {
    lr_mult: 1
  }
  param {
    lr_mult: 2
  }
  inner_product_param {
    num_output: 50
    weight_filler {
      type: "gaussian"
      std: 0.1
    }
    bias_filler {
      type: "constant"
    }
  }
}
layer {
  name: "loss"
  type: "SoftmaxWithLoss"
  bottom: "ip3"
  bottom: "label"
  top: "loss"
}
I0507 16:05:00.263276  4548 layer_factory.hpp:77] Creating layer parameters
I0507 16:05:00.263293  4548 net.cpp:94] Creating Layer parameters
I0507 16:05:00.263300  4548 net.cpp:409] parameters -> data
I0507 16:05:00.263314  4548 net.cpp:409] parameters -> label
I0507 16:05:00.263326  4548 hdf5_data_layer.cpp:79] Loading list of HDF5 filenames from: /home/purduethu/scratch/radon/d/deng106/CNNStatisticalModel/distributions/input/20_distributions_900_sample_size_train-distributions-path.txt
I0507 16:05:00.263355  4548 hdf5_data_layer.cpp:93] Number of HDF5 files: 1
I0507 16:05:00.892904  4548 hdf5.cpp:35] Datatype class: H5T_INTEGER
I0507 16:05:00.894943  4548 net.cpp:144] Setting up parameters
I0507 16:05:00.894964  4548 net.cpp:151] Top shape: 20 1 30 30 (18000)
I0507 16:05:00.894969  4548 net.cpp:151] Top shape: 20 (20)
I0507 16:05:00.894973  4548 net.cpp:159] Memory required for data: 72080
I0507 16:05:00.894979  4548 layer_factory.hpp:77] Creating layer conv1
I0507 16:05:00.894994  4548 net.cpp:94] Creating Layer conv1
I0507 16:05:00.894999  4548 net.cpp:435] conv1 <- data
I0507 16:05:00.895005  4548 net.cpp:409] conv1 -> conv1
I0507 16:05:00.898524  4548 net.cpp:144] Setting up conv1
I0507 16:05:00.898538  4548 net.cpp:151] Top shape: 20 64 30 30 (1152000)
I0507 16:05:00.898543  4548 net.cpp:159] Memory required for data: 4680080
I0507 16:05:00.898553  4548 layer_factory.hpp:77] Creating layer relu1
I0507 16:05:00.898561  4548 net.cpp:94] Creating Layer relu1
I0507 16:05:00.898564  4548 net.cpp:435] relu1 <- conv1
I0507 16:05:00.898568  4548 net.cpp:396] relu1 -> conv1 (in-place)
I0507 16:05:00.898576  4548 net.cpp:144] Setting up relu1
I0507 16:05:00.898581  4548 net.cpp:151] Top shape: 20 64 30 30 (1152000)
I0507 16:05:00.898583  4548 net.cpp:159] Memory required for data: 9288080
I0507 16:05:00.898586  4548 layer_factory.hpp:77] Creating layer conv2
I0507 16:05:00.898593  4548 net.cpp:94] Creating Layer conv2
I0507 16:05:00.898597  4548 net.cpp:435] conv2 <- conv1
I0507 16:05:00.898602  4548 net.cpp:409] conv2 -> conv2
I0507 16:05:00.914454  4548 net.cpp:144] Setting up conv2
I0507 16:05:00.914469  4548 net.cpp:151] Top shape: 20 64 30 30 (1152000)
I0507 16:05:00.914474  4548 net.cpp:159] Memory required for data: 13896080
I0507 16:05:00.914482  4548 layer_factory.hpp:77] Creating layer relu2
I0507 16:05:00.914489  4548 net.cpp:94] Creating Layer relu2
I0507 16:05:00.914492  4548 net.cpp:435] relu2 <- conv2
I0507 16:05:00.914497  4548 net.cpp:396] relu2 -> conv2 (in-place)
I0507 16:05:00.914505  4548 net.cpp:144] Setting up relu2
I0507 16:05:00.914508  4548 net.cpp:151] Top shape: 20 64 30 30 (1152000)
I0507 16:05:00.914510  4548 net.cpp:159] Memory required for data: 18504080
I0507 16:05:00.914513  4548 layer_factory.hpp:77] Creating layer pool2
I0507 16:05:00.914520  4548 net.cpp:94] Creating Layer pool2
I0507 16:05:00.914522  4548 net.cpp:435] pool2 <- conv2
I0507 16:05:00.914526  4548 net.cpp:409] pool2 -> pool2
I0507 16:05:00.914579  4548 net.cpp:144] Setting up pool2
I0507 16:05:00.914587  4548 net.cpp:151] Top shape: 20 64 15 15 (288000)
I0507 16:05:00.914590  4548 net.cpp:159] Memory required for data: 19656080
I0507 16:05:00.914593  4548 layer_factory.hpp:77] Creating layer conv3
I0507 16:05:00.914600  4548 net.cpp:94] Creating Layer conv3
I0507 16:05:00.914604  4548 net.cpp:435] conv3 <- pool2
I0507 16:05:00.914615  4548 net.cpp:409] conv3 -> conv3
I0507 16:05:00.923403  4548 net.cpp:144] Setting up conv3
I0507 16:05:00.923418  4548 net.cpp:151] Top shape: 20 64 15 15 (288000)
I0507 16:05:00.923421  4548 net.cpp:159] Memory required for data: 20808080
I0507 16:05:00.923429  4548 layer_factory.hpp:77] Creating layer relu3
I0507 16:05:00.923436  4548 net.cpp:94] Creating Layer relu3
I0507 16:05:00.923439  4548 net.cpp:435] relu3 <- conv3
I0507 16:05:00.923444  4548 net.cpp:396] relu3 -> conv3 (in-place)
I0507 16:05:00.923451  4548 net.cpp:144] Setting up relu3
I0507 16:05:00.923455  4548 net.cpp:151] Top shape: 20 64 15 15 (288000)
I0507 16:05:00.923458  4548 net.cpp:159] Memory required for data: 21960080
I0507 16:05:00.923461  4548 layer_factory.hpp:77] Creating layer conv4
I0507 16:05:00.923470  4548 net.cpp:94] Creating Layer conv4
I0507 16:05:00.923473  4548 net.cpp:435] conv4 <- conv3
I0507 16:05:00.923477  4548 net.cpp:409] conv4 -> conv4
I0507 16:05:00.931380  4548 net.cpp:144] Setting up conv4
I0507 16:05:00.931396  4548 net.cpp:151] Top shape: 20 64 15 15 (288000)
I0507 16:05:00.931399  4548 net.cpp:159] Memory required for data: 23112080
I0507 16:05:00.931406  4548 layer_factory.hpp:77] Creating layer relu4
I0507 16:05:00.931411  4548 net.cpp:94] Creating Layer relu4
I0507 16:05:00.931416  4548 net.cpp:435] relu4 <- conv4
I0507 16:05:00.931419  4548 net.cpp:396] relu4 -> conv4 (in-place)
I0507 16:05:00.931427  4548 net.cpp:144] Setting up relu4
I0507 16:05:00.931432  4548 net.cpp:151] Top shape: 20 64 15 15 (288000)
I0507 16:05:00.931433  4548 net.cpp:159] Memory required for data: 24264080
I0507 16:05:00.931437  4548 layer_factory.hpp:77] Creating layer conv5
I0507 16:05:00.931444  4548 net.cpp:94] Creating Layer conv5
I0507 16:05:00.931447  4548 net.cpp:435] conv5 <- conv4
I0507 16:05:00.931452  4548 net.cpp:409] conv5 -> conv5
I0507 16:05:00.939363  4548 net.cpp:144] Setting up conv5
I0507 16:05:00.939378  4548 net.cpp:151] Top shape: 20 64 15 15 (288000)
I0507 16:05:00.939383  4548 net.cpp:159] Memory required for data: 25416080
I0507 16:05:00.939391  4548 layer_factory.hpp:77] Creating layer relu5
I0507 16:05:00.939398  4548 net.cpp:94] Creating Layer relu5
I0507 16:05:00.939401  4548 net.cpp:435] relu5 <- conv5
I0507 16:05:00.939405  4548 net.cpp:396] relu5 -> conv5 (in-place)
I0507 16:05:00.939412  4548 net.cpp:144] Setting up relu5
I0507 16:05:00.939417  4548 net.cpp:151] Top shape: 20 64 15 15 (288000)
I0507 16:05:00.939420  4548 net.cpp:159] Memory required for data: 26568080
I0507 16:05:00.939424  4548 layer_factory.hpp:77] Creating layer pool5
I0507 16:05:00.939429  4548 net.cpp:94] Creating Layer pool5
I0507 16:05:00.939431  4548 net.cpp:435] pool5 <- conv5
I0507 16:05:00.939435  4548 net.cpp:409] pool5 -> pool5
I0507 16:05:00.939472  4548 net.cpp:144] Setting up pool5
I0507 16:05:00.939479  4548 net.cpp:151] Top shape: 20 64 7 7 (62720)
I0507 16:05:00.939482  4548 net.cpp:159] Memory required for data: 26818960
I0507 16:05:00.939486  4548 layer_factory.hpp:77] Creating layer ip1
I0507 16:05:00.939492  4548 net.cpp:94] Creating Layer ip1
I0507 16:05:00.939496  4548 net.cpp:435] ip1 <- pool5
I0507 16:05:00.939501  4548 net.cpp:409] ip1 -> ip1
I0507 16:05:00.945379  4548 net.cpp:144] Setting up ip1
I0507 16:05:00.945392  4548 net.cpp:151] Top shape: 20 64 (1280)
I0507 16:05:00.945396  4548 net.cpp:159] Memory required for data: 26824080
I0507 16:05:00.945403  4548 layer_factory.hpp:77] Creating layer ip2
I0507 16:05:00.945410  4548 net.cpp:94] Creating Layer ip2
I0507 16:05:00.945413  4548 net.cpp:435] ip2 <- ip1
I0507 16:05:00.945418  4548 net.cpp:409] ip2 -> ip2
I0507 16:05:00.945644  4548 net.cpp:144] Setting up ip2
I0507 16:05:00.945652  4548 net.cpp:151] Top shape: 20 64 (1280)
I0507 16:05:00.945655  4548 net.cpp:159] Memory required for data: 26829200
I0507 16:05:00.945660  4548 layer_factory.hpp:77] Creating layer ip3
I0507 16:05:00.945667  4548 net.cpp:94] Creating Layer ip3
I0507 16:05:00.945669  4548 net.cpp:435] ip3 <- ip2
I0507 16:05:00.945673  4548 net.cpp:409] ip3 -> ip3
I0507 16:05:00.945874  4548 net.cpp:144] Setting up ip3
I0507 16:05:00.945881  4548 net.cpp:151] Top shape: 20 50 (1000)
I0507 16:05:00.945885  4548 net.cpp:159] Memory required for data: 26833200
I0507 16:05:00.945890  4548 layer_factory.hpp:77] Creating layer loss
I0507 16:05:00.945897  4548 net.cpp:94] Creating Layer loss
I0507 16:05:00.945900  4548 net.cpp:435] loss <- ip3
I0507 16:05:00.945904  4548 net.cpp:435] loss <- label
I0507 16:05:00.945909  4548 net.cpp:409] loss -> loss
I0507 16:05:00.945915  4548 layer_factory.hpp:77] Creating layer loss
…
I0507 16:05:00.946434  4548 solver.cpp:181] Creating test net (#0) specified by net file: ./protocol/dis_20_900_dimension.protocol_distribution
I0507 16:05:00.946460  4548 net.cpp:323] The NetState phase (1) differed from the phase (0) specified by a rule in layer parameters
I0507 16:05:00.946557  4548 net.cpp:52] Initializing net from parameters: 
state {
  phase: TEST
}
layer {
  name: "intercept"
  type: "HDF5Data"
  top: "data"
  top: "label"
  include {
    phase: TEST
  }
  hdf5_data_param {
    source: "/home/purduethu/scratch/radon/d/deng106/CNNStatisticalModel/distributions/input/20_distributions_900_sample_size_test-distributions-path.txt"
    batch_size: 20
  }
}
layer {
  name: "conv1"
  type: "Convolution"
  bottom: "data"
  top: "conv1"
  param {
    lr_mult: 1
  }
  param {
    lr_mult: 2
  }
  convolution_param {
    num_output: 64
    pad: 2
    kernel_size: 5
    stride: 1
    weight_filler {
      type: "gaussian"
      std: 0.0001
    }
    bias_filler {
      type: "constant"
    }
  }
}
layer {
  name: "relu1"
  type: "ReLU"
  bottom: "conv1"
  top: "conv1"
}
layer {
  name: "conv2"
  type: "Convolution"
  bottom: "conv1"
  top: "conv2"
  param {
    lr_mult: 1
  }
  param {
    lr_mult: 2
  }
  convolution_param {
    num_output: 64
    pad: 2
    kernel_size: 5
    stride: 1
    weight_filler {
      type: "gaussian"
      std: 0.01
    }
    bias_filler {
      type: "constant"
    }
  }
}
layer {
  name: "relu2"
  type: "ReLU"
  bottom: "conv2"
  top: "conv2"
}
layer {
  name: "pool2"
  type: "Pooling"
  bottom: "conv2"
  top: "pool2"
  pooling_param {
    pool: MAX
    kernel_size: 3
    stride: 2
  }
}
layer {
  name: "conv3"
  type: "Convolution"
  bottom: "pool2"
  top: "conv3"
  param {
    lr_mult: 1
  }
  param {
    lr_mult: 2
  }
  convolution_param {
    num_output: 64
    pad: 2
    kernel_size: 5
    stride: 1
    weight_filler {
      type: "gaussian"
      std: 0.01
    }
    bias_filler {
      type: "constant"
    }
  }
}
layer {
  name: "relu3"
  type: "ReLU"
  bottom: "conv3"
  top: "conv3"
}
layer {
  name: "conv4"
  type: "Convolution"
  bottom: "conv3"
  top: "conv4"
  param {
    lr_mult: 1
  }
  param {
    lr_mult: 2
  }
  convolution_param {
    num_output: 64
    pad: 2
    kernel_size: 5
    stride: 1
    weight_filler {
      type: "gaussian"
      std: 0.01
    }
    bias_filler {
      type: "constant"
    }
  }
}
layer {
  name: "relu4"
  type: "ReLU"
  bottom: "conv4"
  top: "conv4"
}
layer {
  name: "conv5"
  type: "Convolution"
  bottom: "conv4"
  top: "conv5"
  param {
    lr_mult: 1
  }
  param {
    lr_mult: 2
  }
  convolution_param {
    num_output: 64
    pad: 2
    kernel_size: 5
    stride: 1
    weight_filler {
      type: "gaussian"
      std: 0.01
    }
    bias_filler {
      type: "constant"
    }
  }
}
layer {
  name: "relu5"
  type: "ReLU"
  bottom: "conv5"
  top: "conv5"
}
layer {
  name: "pool5"
  type: "Pooling"
  bottom: "conv5"
  top: "pool5"
  pooling_param {
    pool: AVE
    kernel_size: 3
    stride: 2
  }
}
layer {
  name: "ip1"
  type: "InnerProduct"
  bottom: "pool5"
  top: "ip1"
  param {
    lr_mult: 1
  }
  param {
    lr_mult: 2
  }
  inner_product_param {
    num_output: 64
    weight_filler {
      type: "gaussian"
      std: 0.1
    }
    bias_filler {
      type: "constant"
    }
  }
}
layer {
  name: "ip2"
  type: "InnerProduct"
  bottom: "ip1"
  top: "ip2"
  param {
    lr_mult: 1
  }
  param {
    lr_mult: 2
  }
  inner_product_param {
    num_output: 64
    weight_filler {
      type: "gaussian"
      std: 0.1
    }
    bias_filler {
      type: "constant"
    }
  }
}
layer {
  name: "ip3"
  type: "InnerProduct"
  bottom: "ip2"
  top: "ip3"
  param {
    lr_mult: 1
  }
  param {
    lr_mult: 2
  }
  inner_product_param {
    num_output: 50
    weight_filler {
      type: "gaussian"
      std: 0.1
    }
    bias_filler {
      type: "constant"
    }
  }
}
layer {
  name: "accuracy"
  type: "Accuracy"
  bottom: "ip3"
  bottom: "label"
  top: "accuracy"
  include {
    phase: TEST
  }
}
layer {
  name: "loss"
  type: "SoftmaxWithLoss"
  bottom: "ip3"
  bottom: "label"
  top: "loss"
}
I0507 16:05:00.946621  4548 layer_factory.hpp:77] Creating layer intercept
I0507 16:05:00.946630  4548 net.cpp:94] Creating Layer intercept
I0507 16:05:00.946635  4548 net.cpp:409] intercept -> data
I0507 16:05:00.946641  4548 net.cpp:409] intercept -> label
I0507 16:05:00.946647  4548 hdf5_data_layer.cpp:79] Loading list of HDF5 filenames from: /home/purduethu/scratch/radon/d/deng106/CNNStatisticalModel/distributions/input/20_distributions_900_sample_size_test-distributions-path.txt
I0507 16:05:00.946666  4548 hdf5_data_layer.cpp:93] Number of HDF5 files: 1
I0507 16:05:01.093569  4548 net.cpp:144] Setting up intercept
I0507 16:05:01.093605  4548 net.cpp:151] Top shape: 20 1 30 30 (18000)
I0507 16:05:01.093611  4548 net.cpp:151] Top shape: 20 (20)
I0507 16:05:01.093614  4548 net.cpp:159] Memory required for data: 72080
I0507 16:05:01.093621  4548 layer_factory.hpp:77] Creating layer label_intercept_1_split
I0507 16:05:01.093637  4548 net.cpp:94] Creating Layer label_intercept_1_split
I0507 16:05:01.093642  4548 net.cpp:435] label_intercept_1_split <- label
I0507 16:05:01.093648  4548 net.cpp:409] label_intercept_1_split -> label_intercept_1_split_0
I0507 16:05:01.093657  4548 net.cpp:409] label_intercept_1_split -> label_intercept_1_split_1
I0507 16:05:01.093698  4548 net.cpp:144] Setting up label_intercept_1_split
I0507 16:05:01.093705  4548 net.cpp:151] Top shape: 20 (20)
I0507 16:05:01.093708  4548 net.cpp:151] Top shape: 20 (20)
I0507 16:05:01.093711  4548 net.cpp:159] Memory required for data: 72240
I0507 16:05:01.093714  4548 layer_factory.hpp:77] Creating layer conv1
I0507 16:05:01.093725  4548 net.cpp:94] Creating Layer conv1
I0507 16:05:01.093729  4548 net.cpp:435] conv1 <- data
I0507 16:05:01.093734  4548 net.cpp:409] conv1 -> conv1
I0507 16:05:01.095243  4548 net.cpp:144] Setting up conv1
I0507 16:05:01.095257  4548 net.cpp:151] Top shape: 20 64 30 30 (1152000)
I0507 16:05:01.095262  4548 net.cpp:159] Memory required for data: 4680240
I0507 16:05:01.095271  4548 layer_factory.hpp:77] Creating layer relu1
I0507 16:05:01.095278  4548 net.cpp:94] Creating Layer relu1
I0507 16:05:01.095283  4548 net.cpp:435] relu1 <- conv1
I0507 16:05:01.095286  4548 net.cpp:396] relu1 -> conv1 (in-place)
I0507 16:05:01.095293  4548 net.cpp:144] Setting up relu1
I0507 16:05:01.095297  4548 net.cpp:151] Top shape: 20 64 30 30 (1152000)
I0507 16:05:01.095300  4548 net.cpp:159] Memory required for data: 9288240
I0507 16:05:01.095304  4548 layer_factory.hpp:77] Creating layer conv2
I0507 16:05:01.095311  4548 net.cpp:94] Creating Layer conv2
I0507 16:05:01.095314  4548 net.cpp:435] conv2 <- conv1
I0507 16:05:01.095319  4548 net.cpp:409] conv2 -> conv2
I0507 16:05:01.102087  4548 net.cpp:144] Setting up conv2
I0507 16:05:01.102103  4548 net.cpp:151] Top shape: 20 64 30 30 (1152000)
I0507 16:05:01.102107  4548 net.cpp:159] Memory required for data: 13896240
I0507 16:05:01.102114  4548 layer_factory.hpp:77] Creating layer relu2
I0507 16:05:01.102121  4548 net.cpp:94] Creating Layer relu2
I0507 16:05:01.102124  4548 net.cpp:435] relu2 <- conv2
I0507 16:05:01.102129  4548 net.cpp:396] relu2 -> conv2 (in-place)
I0507 16:05:01.102135  4548 net.cpp:144] Setting up relu2
I0507 16:05:01.102140  4548 net.cpp:151] Top shape: 20 64 30 30 (1152000)
I0507 16:05:01.102143  4548 net.cpp:159] Memory required for data: 18504240
I0507 16:05:01.102145  4548 layer_factory.hpp:77] Creating layer pool2
I0507 16:05:01.102151  4548 net.cpp:94] Creating Layer pool2
I0507 16:05:01.102154  4548 net.cpp:435] pool2 <- conv2
I0507 16:05:01.102159  4548 net.cpp:409] pool2 -> pool2
I0507 16:05:01.102213  4548 net.cpp:144] Setting up pool2
I0507 16:05:01.102219  4548 net.cpp:151] Top shape: 20 64 15 15 (288000)
I0507 16:05:01.102223  4548 net.cpp:159] Memory required for data: 19656240
I0507 16:05:01.102226  4548 layer_factory.hpp:77] Creating layer conv3
I0507 16:05:01.102233  4548 net.cpp:94] Creating Layer conv3
I0507 16:05:01.102237  4548 net.cpp:435] conv3 <- pool2
I0507 16:05:01.102242  4548 net.cpp:409] conv3 -> conv3
I0507 16:05:01.107448  4548 net.cpp:144] Setting up conv3
I0507 16:05:01.107463  4548 net.cpp:151] Top shape: 20 64 15 15 (288000)
I0507 16:05:01.107467  4548 net.cpp:159] Memory required for data: 20808240
I0507 16:05:01.107476  4548 layer_factory.hpp:77] Creating layer relu3
I0507 16:05:01.107483  4548 net.cpp:94] Creating Layer relu3
I0507 16:05:01.107486  4548 net.cpp:435] relu3 <- conv3
I0507 16:05:01.107491  4548 net.cpp:396] relu3 -> conv3 (in-place)
I0507 16:05:01.107498  4548 net.cpp:144] Setting up relu3
I0507 16:05:01.107502  4548 net.cpp:151] Top shape: 20 64 15 15 (288000)
I0507 16:05:01.107506  4548 net.cpp:159] Memory required for data: 21960240
I0507 16:05:01.107508  4548 layer_factory.hpp:77] Creating layer conv4
I0507 16:05:01.107517  4548 net.cpp:94] Creating Layer conv4
I0507 16:05:01.107519  4548 net.cpp:435] conv4 <- conv3
I0507 16:05:01.107524  4548 net.cpp:409] conv4 -> conv4
I0507 16:05:01.112309  4548 net.cpp:144] Setting up conv4
I0507 16:05:01.112324  4548 net.cpp:151] Top shape: 20 64 15 15 (288000)
I0507 16:05:01.112329  4548 net.cpp:159] Memory required for data: 23112240
I0507 16:05:01.112334  4548 layer_factory.hpp:77] Creating layer relu4
I0507 16:05:01.112340  4548 net.cpp:94] Creating Layer relu4
I0507 16:05:01.112344  4548 net.cpp:435] relu4 <- conv4
I0507 16:05:01.112349  4548 net.cpp:396] relu4 -> conv4 (in-place)
I0507 16:05:01.112354  4548 net.cpp:144] Setting up relu4
I0507 16:05:01.112360  4548 net.cpp:151] Top shape: 20 64 15 15 (288000)
I0507 16:05:01.112362  4548 net.cpp:159] Memory required for data: 24264240
I0507 16:05:01.112365  4548 layer_factory.hpp:77] Creating layer conv5
I0507 16:05:01.112372  4548 net.cpp:94] Creating Layer conv5
I0507 16:05:01.112375  4548 net.cpp:435] conv5 <- conv4
I0507 16:05:01.112380  4548 net.cpp:409] conv5 -> conv5
I0507 16:05:01.118027  4548 net.cpp:144] Setting up conv5
I0507 16:05:01.118043  4548 net.cpp:151] Top shape: 20 64 15 15 (288000)
I0507 16:05:01.118047  4548 net.cpp:159] Memory required for data: 25416240
I0507 16:05:01.118057  4548 layer_factory.hpp:77] Creating layer relu5
I0507 16:05:01.118062  4548 net.cpp:94] Creating Layer relu5
I0507 16:05:01.118065  4548 net.cpp:435] relu5 <- conv5
I0507 16:05:01.118070  4548 net.cpp:396] relu5 -> conv5 (in-place)
I0507 16:05:01.118077  4548 net.cpp:144] Setting up relu5
I0507 16:05:01.118082  4548 net.cpp:151] Top shape: 20 64 15 15 (288000)
I0507 16:05:01.118084  4548 net.cpp:159] Memory required for data: 26568240
I0507 16:05:01.118088  4548 layer_factory.hpp:77] Creating layer pool5
I0507 16:05:01.118091  4548 net.cpp:94] Creating Layer pool5
I0507 16:05:01.118094  4548 net.cpp:435] pool5 <- conv5
I0507 16:05:01.118103  4548 net.cpp:409] pool5 -> pool5
I0507 16:05:01.118140  4548 net.cpp:144] Setting up pool5
I0507 16:05:01.118147  4548 net.cpp:151] Top shape: 20 64 7 7 (62720)
I0507 16:05:01.118150  4548 net.cpp:159] Memory required for data: 26819120
I0507 16:05:01.118154  4548 layer_factory.hpp:77] Creating layer ip1
I0507 16:05:01.118160  4548 net.cpp:94] Creating Layer ip1
I0507 16:05:01.118163  4548 net.cpp:435] ip1 <- pool5
I0507 16:05:01.118168  4548 net.cpp:409] ip1 -> ip1
I0507 16:05:01.123180  4548 net.cpp:144] Setting up ip1
I0507 16:05:01.123189  4548 net.cpp:151] Top shape: 20 64 (1280)
I0507 16:05:01.123193  4548 net.cpp:159] Memory required for data: 26824240
I0507 16:05:01.123199  4548 layer_factory.hpp:77] Creating layer ip2
I0507 16:05:01.123205  4548 net.cpp:94] Creating Layer ip2
I0507 16:05:01.123208  4548 net.cpp:435] ip2 <- ip1
I0507 16:05:01.123214  4548 net.cpp:409] ip2 -> ip2
I0507 16:05:01.123457  4548 net.cpp:144] Setting up ip2
I0507 16:05:01.123464  4548 net.cpp:151] Top shape: 20 64 (1280)
I0507 16:05:01.123467  4548 net.cpp:159] Memory required for data: 26829360
I0507 16:05:01.123473  4548 layer_factory.hpp:77] Creating layer ip3
I0507 16:05:01.123481  4548 net.cpp:94] Creating Layer ip3
I0507 16:05:01.123484  4548 net.cpp:435] ip3 <- ip2
I0507 16:05:01.123489  4548 net.cpp:409] ip3 -> ip3
I0507 16:05:01.123697  4548 net.cpp:144] Setting up ip3
I0507 16:05:01.123703  4548 net.cpp:151] Top shape: 20 50 (1000)
I0507 16:05:01.123706  4548 net.cpp:159] Memory required for data: 26833360
I0507 16:05:01.123711  4548 layer_factory.hpp:77] Creating layer ip3_ip3_0_split
I0507 16:05:01.123716  4548 net.cpp:94] Creating Layer ip3_ip3_0_split
I0507 16:05:01.123719  4548 net.cpp:435] ip3_ip3_0_split <- ip3
I0507 16:05:01.123724  4548 net.cpp:409] ip3_ip3_0_split -> ip3_ip3_0_split_0
I0507 16:05:01.123729  4548 net.cpp:409] ip3_ip3_0_split -> ip3_ip3_0_split_1
I0507 16:05:01.123772  4548 net.cpp:144] Setting up ip3_ip3_0_split
I0507 16:05:01.123778  4548 net.cpp:151] Top shape: 20 50 (1000)
I0507 16:05:01.123782  4548 net.cpp:151] Top shape: 20 50 (1000)
I0507 16:05:01.123785  4548 net.cpp:159] Memory required for data: 26841360
I0507 16:05:01.123787  4548 layer_factory.hpp:77] Creating layer accuracy
I0507 16:05:01.123793  4548 net.cpp:94] Creating Layer accuracy
I0507 16:05:01.123796  4548 net.cpp:435] accuracy <- ip3_ip3_0_split_0
I0507 16:05:01.123800  4548 net.cpp:435] accuracy <- label_intercept_1_split_0
I0507 16:05:01.123803  4548 net.cpp:409] accuracy -> accuracy
…
