…
I0505 23:42:32.795918 10702 net.cpp:323] The NetState phase (0) differed from the phase (1) specified by a rule in layer intercept
I0505 23:42:32.795933 10702 net.cpp:323] The NetState phase (0) differed from the phase (1) specified by a rule in layer loss
I0505 23:42:32.796000 10702 net.cpp:52] Initializing net from parameters: 
state {
  phase: TRAIN
}
layer {
  name: "parameters"
  type: "HDF5Data"
  top: "data"
  top: "label"
  include {
    phase: TRAIN
  }
  hdf5_data_param {
    source: "/home/purduethu/scratch/radon/d/deng106/CNNStatisticalModel/distributions/input/5_distributions_400_sample_size_train-parameters-path.txt"
    batch_size: 20
  }
}
layer {
  name: "conv1"
  type: "Convolution"
  bottom: "data"
  top: "conv1"
  param {
    lr_mult: 1
  }
  param {
    lr_mult: 2
  }
  convolution_param {
    num_output: 64
    pad: 2
    kernel_size: 5
    stride: 1
    weight_filler {
      type: "gaussian"
      std: 0.0001
    }
    bias_filler {
      type: "constant"
    }
  }
}
layer {
  name: "relu1"
  type: "ReLU"
  bottom: "conv1"
  top: "conv1"
}
layer {
  name: "pool1"
  type: "Pooling"
  bottom: "conv1"
  top: "pool1"
  pooling_param {
    pool: MAX
    kernel_size: 3
    stride: 2
  }
}
layer {
  name: "conv2"
  type: "Convolution"
  bottom: "pool1"
  top: "conv2"
  param {
    lr_mult: 1
  }
  param {
    lr_mult: 2
  }
  convolution_param {
    num_output: 128
    pad: 2
    kernel_size: 5
    stride: 1
    weight_filler {
      type: "gaussian"
      std: 0.01
    }
    bias_filler {
      type: "constant"
    }
  }
}
layer {
  name: "relu2"
  type: "ReLU"
  bottom: "conv2"
  top: "conv2"
}
layer {
  name: "conv3"
  type: "Convolution"
  bottom: "conv2"
  top: "conv3"
  param {
    lr_mult: 1
  }
  param {
    lr_mult: 2
  }
  convolution_param {
    num_output: 128
    pad: 2
    kernel_size: 5
    stride: 1
    weight_filler {
      type: "gaussian"
      std: 0.01
    }
    bias_filler {
      type: "constant"
    }
  }
}
layer {
  name: "relu3"
  type: "ReLU"
  bottom: "conv3"
  top: "conv3"
}
layer {
  name: "pool3"
  type: "Pooling"
  bottom: "conv3"
  top: "pool3"
  pooling_param {
    pool: AVE
    kernel_size: 3
    stride: 2
  }
}
layer {
  name: "ip1"
  type: "InnerProduct"
  bottom: "pool3"
  top: "ip1"
  param {
    lr_mult: 1
  }
  param {
    lr_mult: 2
  }
  inner_product_param {
    num_output: 512
    weight_filler {
      type: "gaussian"
      std: 0.1
    }
    bias_filler {
      type: "constant"
    }
  }
}
layer {
  name: "ip2"
  type: "InnerProduct"
  bottom: "ip1"
  top: "ip2"
  param {
    lr_mult: 1
  }
  param {
    lr_mult: 2
  }
  inner_product_param {
    num_output: 256
    weight_filler {
      type: "gaussian"
      std: 0.1
    }
    bias_filler {
      type: "constant"
    }
  }
}
layer {
  name: "ip3"
  type: "InnerProduct"
  bottom: "ip2"
  top: "ip3"
  param {
    lr_mult: 1
  }
  param {
    lr_mult: 2
  }
  inner_product_param {
    num_output: 1
    weight_filler {
      type: "gaussian"
      std: 0.1
    }
    bias_filler {
      type: "constant"
    }
  }
}
layer {
  name: "loss"
  type: "HuberLoss"
  bottom: "ip3"
  bottom: "label"
  top: "loss"
  include {
    phase: TRAIN
  }
}
I0505 23:42:32.796046 10702 layer_factory.hpp:77] Creating layer parameters
I0505 23:42:32.796061 10702 net.cpp:94] Creating Layer parameters
I0505 23:42:32.796066 10702 net.cpp:409] parameters -> data
I0505 23:42:32.796079 10702 net.cpp:409] parameters -> label
I0505 23:42:32.796085 10702 hdf5_data_layer.cpp:79] Loading list of HDF5 filenames from: /home/purduethu/scratch/radon/d/deng106/CNNStatisticalModel/distributions/input/5_distributions_400_sample_size_train-parameters-path.txt
I0505 23:42:32.796100 10702 hdf5_data_layer.cpp:93] Number of HDF5 files: 1
I0505 23:42:32.796658 10702 hdf5.cpp:32] Datatype class: H5T_FLOAT
I0505 23:42:32.858990 10702 net.cpp:144] Setting up parameters
I0505 23:42:32.859022 10702 net.cpp:151] Top shape: 20 1 20 20 (8000)
I0505 23:42:32.859027 10702 net.cpp:151] Top shape: 20 (20)
I0505 23:42:32.859031 10702 net.cpp:159] Memory required for data: 32080
I0505 23:42:32.859037 10702 layer_factory.hpp:77] Creating layer conv1
I0505 23:42:32.859053 10702 net.cpp:94] Creating Layer conv1
I0505 23:42:32.859057 10702 net.cpp:435] conv1 <- data
I0505 23:42:32.859063 10702 net.cpp:409] conv1 -> conv1
I0505 23:42:32.864305 10702 net.cpp:144] Setting up conv1
I0505 23:42:32.864322 10702 net.cpp:151] Top shape: 20 64 20 20 (512000)
I0505 23:42:32.864326 10702 net.cpp:159] Memory required for data: 2080080
I0505 23:42:32.864336 10702 layer_factory.hpp:77] Creating layer relu1
I0505 23:42:32.864344 10702 net.cpp:94] Creating Layer relu1
I0505 23:42:32.864348 10702 net.cpp:435] relu1 <- conv1
I0505 23:42:32.864353 10702 net.cpp:396] relu1 -> conv1 (in-place)
I0505 23:42:32.864361 10702 net.cpp:144] Setting up relu1
I0505 23:42:32.864365 10702 net.cpp:151] Top shape: 20 64 20 20 (512000)
I0505 23:42:32.864368 10702 net.cpp:159] Memory required for data: 4128080
I0505 23:42:32.864372 10702 layer_factory.hpp:77] Creating layer pool1
I0505 23:42:32.864377 10702 net.cpp:94] Creating Layer pool1
I0505 23:42:32.864380 10702 net.cpp:435] pool1 <- conv1
I0505 23:42:32.864384 10702 net.cpp:409] pool1 -> pool1
I0505 23:42:32.864439 10702 net.cpp:144] Setting up pool1
I0505 23:42:32.864446 10702 net.cpp:151] Top shape: 20 64 10 10 (128000)
I0505 23:42:32.864449 10702 net.cpp:159] Memory required for data: 4640080
I0505 23:42:32.864452 10702 layer_factory.hpp:77] Creating layer conv2
I0505 23:42:32.864461 10702 net.cpp:94] Creating Layer conv2
I0505 23:42:32.864464 10702 net.cpp:435] conv2 <- pool1
I0505 23:42:32.864470 10702 net.cpp:409] conv2 -> conv2
I0505 23:42:32.875083 10702 net.cpp:144] Setting up conv2
I0505 23:42:32.875098 10702 net.cpp:151] Top shape: 20 128 10 10 (256000)
I0505 23:42:32.875102 10702 net.cpp:159] Memory required for data: 5664080
I0505 23:42:32.875110 10702 layer_factory.hpp:77] Creating layer relu2
I0505 23:42:32.875115 10702 net.cpp:94] Creating Layer relu2
I0505 23:42:32.875119 10702 net.cpp:435] relu2 <- conv2
I0505 23:42:32.875123 10702 net.cpp:396] relu2 -> conv2 (in-place)
I0505 23:42:32.875130 10702 net.cpp:144] Setting up relu2
I0505 23:42:32.875134 10702 net.cpp:151] Top shape: 20 128 10 10 (256000)
I0505 23:42:32.875138 10702 net.cpp:159] Memory required for data: 6688080
I0505 23:42:32.875140 10702 layer_factory.hpp:77] Creating layer conv3
I0505 23:42:32.875149 10702 net.cpp:94] Creating Layer conv3
I0505 23:42:32.875151 10702 net.cpp:435] conv3 <- conv2
I0505 23:42:32.875156 10702 net.cpp:409] conv3 -> conv3
I0505 23:42:32.892503 10702 net.cpp:144] Setting up conv3
I0505 23:42:32.892518 10702 net.cpp:151] Top shape: 20 128 10 10 (256000)
I0505 23:42:32.892523 10702 net.cpp:159] Memory required for data: 7712080
I0505 23:42:32.892530 10702 layer_factory.hpp:77] Creating layer relu3
I0505 23:42:32.892542 10702 net.cpp:94] Creating Layer relu3
I0505 23:42:32.892546 10702 net.cpp:435] relu3 <- conv3
I0505 23:42:32.892561 10702 net.cpp:396] relu3 -> conv3 (in-place)
I0505 23:42:32.892570 10702 net.cpp:144] Setting up relu3
I0505 23:42:32.892575 10702 net.cpp:151] Top shape: 20 128 10 10 (256000)
I0505 23:42:32.892578 10702 net.cpp:159] Memory required for data: 8736080
I0505 23:42:32.892581 10702 layer_factory.hpp:77] Creating layer pool3
I0505 23:42:32.892587 10702 net.cpp:94] Creating Layer pool3
I0505 23:42:32.892590 10702 net.cpp:435] pool3 <- conv3
I0505 23:42:32.892596 10702 net.cpp:409] pool3 -> pool3
I0505 23:42:32.892637 10702 net.cpp:144] Setting up pool3
I0505 23:42:32.892644 10702 net.cpp:151] Top shape: 20 128 5 5 (64000)
I0505 23:42:32.892647 10702 net.cpp:159] Memory required for data: 8992080
I0505 23:42:32.892652 10702 layer_factory.hpp:77] Creating layer ip1
I0505 23:42:32.892660 10702 net.cpp:94] Creating Layer ip1
I0505 23:42:32.892664 10702 net.cpp:435] ip1 <- pool3
I0505 23:42:32.892668 10702 net.cpp:409] ip1 -> ip1
I0505 23:42:32.932353 10702 net.cpp:144] Setting up ip1
I0505 23:42:32.932369 10702 net.cpp:151] Top shape: 20 512 (10240)
I0505 23:42:32.932374 10702 net.cpp:159] Memory required for data: 9033040
I0505 23:42:32.932381 10702 layer_factory.hpp:77] Creating layer ip2
I0505 23:42:32.932389 10702 net.cpp:94] Creating Layer ip2
I0505 23:42:32.932392 10702 net.cpp:435] ip2 <- ip1
I0505 23:42:32.932399 10702 net.cpp:409] ip2 -> ip2
I0505 23:42:32.935573 10702 net.cpp:144] Setting up ip2
I0505 23:42:32.935582 10702 net.cpp:151] Top shape: 20 256 (5120)
I0505 23:42:32.935585 10702 net.cpp:159] Memory required for data: 9053520
I0505 23:42:32.935593 10702 layer_factory.hpp:77] Creating layer ip3
I0505 23:42:32.935600 10702 net.cpp:94] Creating Layer ip3
I0505 23:42:32.935602 10702 net.cpp:435] ip3 <- ip2
I0505 23:42:32.935607 10702 net.cpp:409] ip3 -> ip3
I0505 23:42:32.935712 10702 net.cpp:144] Setting up ip3
I0505 23:42:32.935719 10702 net.cpp:151] Top shape: 20 1 (20)
I0505 23:42:32.935722 10702 net.cpp:159] Memory required for data: 9053600
I0505 23:42:32.935727 10702 layer_factory.hpp:77] Creating layer loss
I0505 23:42:32.935739 10702 net.cpp:94] Creating Layer loss
I0505 23:42:32.935742 10702 net.cpp:435] loss <- ip3
I0505 23:42:32.935746 10702 net.cpp:435] loss <- label
I0505 23:42:32.935750 10702 net.cpp:409] loss -> loss
I0505 23:42:32.935806 10702 net.cpp:144] Setting up loss
…
I0505 23:42:33.019381 10702 net.cpp:323] The NetState phase (0) differed from the phase (1) specified by a rule in layer intercept
I0505 23:42:33.019394 10702 net.cpp:323] The NetState phase (0) differed from the phase (1) specified by a rule in layer accuracy
I0505 23:42:33.019465 10702 net.cpp:52] Initializing net from parameters: 
state {
  phase: TRAIN
}
layer {
  name: "parameters"
  type: "HDF5Data"
  top: "data"
  top: "label"
  include {
    phase: TRAIN
  }
  hdf5_data_param {
    source: "/home/purduethu/scratch/radon/d/deng106/CNNStatisticalModel/distributions/input/5_distributions_400_sample_size_train-distributions-path.txt"
    batch_size: 20
  }
}
layer {
  name: "conv1"
  type: "Convolution"
  bottom: "data"
  top: "conv1"
  param {
    lr_mult: 1
  }
  param {
    lr_mult: 2
  }
  convolution_param {
    num_output: 64
    pad: 2
    kernel_size: 5
    stride: 1
    weight_filler {
      type: "gaussian"
      std: 0.0001
    }
    bias_filler {
      type: "constant"
    }
  }
}
layer {
  name: "relu1"
  type: "ReLU"
  bottom: "conv1"
  top: "conv1"
}
layer {
  name: "pool1"
  type: "Pooling"
  bottom: "conv1"
  top: "pool1"
  pooling_param {
    pool: MAX
    kernel_size: 3
    stride: 2
  }
}
layer {
  name: "conv2"
  type: "Convolution"
  bottom: "pool1"
  top: "conv2"
  param {
    lr_mult: 1
  }
  param {
    lr_mult: 2
  }
  convolution_param {
    num_output: 128
    pad: 2
    kernel_size: 5
    stride: 1
    weight_filler {
      type: "gaussian"
      std: 0.01
    }
    bias_filler {
      type: "constant"
    }
  }
}
layer {
  name: "relu2"
  type: "ReLU"
  bottom: "conv2"
  top: "conv2"
}
layer {
  name: "conv3"
  type: "Convolution"
  bottom: "conv2"
  top: "conv3"
  param {
    lr_mult: 1
  }
  param {
    lr_mult: 2
  }
  convolution_param {
    num_output: 128
    pad: 2
    kernel_size: 5
    stride: 1
    weight_filler {
      type: "gaussian"
      std: 0.01
    }
    bias_filler {
      type: "constant"
    }
  }
}
layer {
  name: "relu3"
  type: "ReLU"
  bottom: "conv3"
  top: "conv3"
}
layer {
  name: "pool3"
  type: "Pooling"
  bottom: "conv3"
  top: "pool3"
  pooling_param {
    pool: AVE
    kernel_size: 3
    stride: 2
  }
}
layer {
  name: "ip1"
  type: "InnerProduct"
  bottom: "pool3"
  top: "ip1"
  param {
    lr_mult: 1
  }
  param {
    lr_mult: 2
  }
  inner_product_param {
    num_output: 512
    weight_filler {
      type: "gaussian"
      std: 0.1
    }
    bias_filler {
      type: "constant"
    }
  }
}
layer {
  name: "ip2"
  type: "InnerProduct"
  bottom: "ip1"
  top: "ip2"
  param {
    lr_mult: 1
  }
  param {
    lr_mult: 2
  }
  inner_product_param {
    num_output: 256
    weight_filler {
      type: "gaussian"
      std: 0.1
    }
    bias_filler {
      type: "constant"
    }
  }
}
layer {
  name: "ip3"
  type: "InnerProduct"
  bottom: "ip2"
  top: "ip3"
  param {
    lr_mult: 1
  }
  param {
    lr_mult: 2
  }
  inner_product_param {
    num_output: 50
    weight_filler {
      type: "gaussian"
      std: 0.1
    }
    bias_filler {
      type: "constant"
    }
  }
}
layer {
  name: "loss"
  type: "SoftmaxWithLoss"
  bottom: "ip3"
  bottom: "label"
  top: "loss"
}
I0505 23:42:33.019507 10702 layer_factory.hpp:77] Creating layer parameters
I0505 23:42:33.019515 10702 net.cpp:94] Creating Layer parameters
I0505 23:42:33.019518 10702 net.cpp:409] parameters -> data
I0505 23:42:33.019526 10702 net.cpp:409] parameters -> label
I0505 23:42:33.019531 10702 hdf5_data_layer.cpp:79] Loading list of HDF5 filenames from: /home/purduethu/scratch/radon/d/deng106/CNNStatisticalModel/distributions/input/5_distributions_400_sample_size_train-distributions-path.txt
I0505 23:42:33.019551 10702 hdf5_data_layer.cpp:93] Number of HDF5 files: 1
I0505 23:42:33.080968 10702 hdf5.cpp:35] Datatype class: H5T_INTEGER
I0505 23:42:33.081434 10702 net.cpp:144] Setting up parameters
I0505 23:42:33.081449 10702 net.cpp:151] Top shape: 20 1 20 20 (8000)
I0505 23:42:33.081454 10702 net.cpp:151] Top shape: 20 (20)
I0505 23:42:33.081456 10702 net.cpp:159] Memory required for data: 32080
I0505 23:42:33.081462 10702 layer_factory.hpp:77] Creating layer conv1
I0505 23:42:33.081478 10702 net.cpp:94] Creating Layer conv1
I0505 23:42:33.081482 10702 net.cpp:435] conv1 <- data
I0505 23:42:33.081490 10702 net.cpp:409] conv1 -> conv1
I0505 23:42:33.083781 10702 net.cpp:144] Setting up conv1
I0505 23:42:33.083797 10702 net.cpp:151] Top shape: 20 64 20 20 (512000)
I0505 23:42:33.083801 10702 net.cpp:159] Memory required for data: 2080080
I0505 23:42:33.083811 10702 layer_factory.hpp:77] Creating layer relu1
I0505 23:42:33.083819 10702 net.cpp:94] Creating Layer relu1
I0505 23:42:33.083823 10702 net.cpp:435] relu1 <- conv1
I0505 23:42:33.083827 10702 net.cpp:396] relu1 -> conv1 (in-place)
I0505 23:42:33.083835 10702 net.cpp:144] Setting up relu1
I0505 23:42:33.083840 10702 net.cpp:151] Top shape: 20 64 20 20 (512000)
I0505 23:42:33.083843 10702 net.cpp:159] Memory required for data: 4128080
I0505 23:42:33.083847 10702 layer_factory.hpp:77] Creating layer pool1
I0505 23:42:33.083853 10702 net.cpp:94] Creating Layer pool1
I0505 23:42:33.083855 10702 net.cpp:435] pool1 <- conv1
I0505 23:42:33.083866 10702 net.cpp:409] pool1 -> pool1
I0505 23:42:33.083922 10702 net.cpp:144] Setting up pool1
I0505 23:42:33.083930 10702 net.cpp:151] Top shape: 20 64 10 10 (128000)
I0505 23:42:33.083933 10702 net.cpp:159] Memory required for data: 4640080
I0505 23:42:33.083936 10702 layer_factory.hpp:77] Creating layer conv2
I0505 23:42:33.083945 10702 net.cpp:94] Creating Layer conv2
I0505 23:42:33.083948 10702 net.cpp:435] conv2 <- pool1
I0505 23:42:33.083953 10702 net.cpp:409] conv2 -> conv2
I0505 23:42:33.094429 10702 net.cpp:144] Setting up conv2
I0505 23:42:33.094444 10702 net.cpp:151] Top shape: 20 128 10 10 (256000)
I0505 23:42:33.094447 10702 net.cpp:159] Memory required for data: 5664080
I0505 23:42:33.094456 10702 layer_factory.hpp:77] Creating layer relu2
I0505 23:42:33.094462 10702 net.cpp:94] Creating Layer relu2
I0505 23:42:33.094465 10702 net.cpp:435] relu2 <- conv2
I0505 23:42:33.094470 10702 net.cpp:396] relu2 -> conv2 (in-place)
I0505 23:42:33.094477 10702 net.cpp:144] Setting up relu2
I0505 23:42:33.094481 10702 net.cpp:151] Top shape: 20 128 10 10 (256000)
I0505 23:42:33.094485 10702 net.cpp:159] Memory required for data: 6688080
I0505 23:42:33.094487 10702 layer_factory.hpp:77] Creating layer conv3
I0505 23:42:33.094496 10702 net.cpp:94] Creating Layer conv3
I0505 23:42:33.094498 10702 net.cpp:435] conv3 <- conv2
I0505 23:42:33.094503 10702 net.cpp:409] conv3 -> conv3
I0505 23:42:33.112378 10702 net.cpp:144] Setting up conv3
I0505 23:42:33.112396 10702 net.cpp:151] Top shape: 20 128 10 10 (256000)
I0505 23:42:33.112399 10702 net.cpp:159] Memory required for data: 7712080
I0505 23:42:33.112408 10702 layer_factory.hpp:77] Creating layer relu3
I0505 23:42:33.112416 10702 net.cpp:94] Creating Layer relu3
I0505 23:42:33.112419 10702 net.cpp:435] relu3 <- conv3
I0505 23:42:33.112423 10702 net.cpp:396] relu3 -> conv3 (in-place)
I0505 23:42:33.112432 10702 net.cpp:144] Setting up relu3
I0505 23:42:33.112435 10702 net.cpp:151] Top shape: 20 128 10 10 (256000)
I0505 23:42:33.112438 10702 net.cpp:159] Memory required for data: 8736080
I0505 23:42:33.112442 10702 layer_factory.hpp:77] Creating layer pool3
I0505 23:42:33.112447 10702 net.cpp:94] Creating Layer pool3
I0505 23:42:33.112450 10702 net.cpp:435] pool3 <- conv3
I0505 23:42:33.112455 10702 net.cpp:409] pool3 -> pool3
I0505 23:42:33.112498 10702 net.cpp:144] Setting up pool3
I0505 23:42:33.112505 10702 net.cpp:151] Top shape: 20 128 5 5 (64000)
I0505 23:42:33.112509 10702 net.cpp:159] Memory required for data: 8992080
I0505 23:42:33.112512 10702 layer_factory.hpp:77] Creating layer ip1
I0505 23:42:33.112519 10702 net.cpp:94] Creating Layer ip1
I0505 23:42:33.112524 10702 net.cpp:435] ip1 <- pool3
I0505 23:42:33.112527 10702 net.cpp:409] ip1 -> ip1
I0505 23:42:33.153170 10702 net.cpp:144] Setting up ip1
I0505 23:42:33.153198 10702 net.cpp:151] Top shape: 20 512 (10240)
I0505 23:42:33.153203 10702 net.cpp:159] Memory required for data: 9033040
I0505 23:42:33.153210 10702 layer_factory.hpp:77] Creating layer ip2
I0505 23:42:33.153219 10702 net.cpp:94] Creating Layer ip2
I0505 23:42:33.153223 10702 net.cpp:435] ip2 <- ip1
I0505 23:42:33.153229 10702 net.cpp:409] ip2 -> ip2
I0505 23:42:33.156399 10702 net.cpp:144] Setting up ip2
I0505 23:42:33.156410 10702 net.cpp:151] Top shape: 20 256 (5120)
I0505 23:42:33.156414 10702 net.cpp:159] Memory required for data: 9053520
I0505 23:42:33.156422 10702 layer_factory.hpp:77] Creating layer ip3
I0505 23:42:33.156428 10702 net.cpp:94] Creating Layer ip3
I0505 23:42:33.156432 10702 net.cpp:435] ip3 <- ip2
I0505 23:42:33.156437 10702 net.cpp:409] ip3 -> ip3
I0505 23:42:33.156908 10702 net.cpp:144] Setting up ip3
I0505 23:42:33.156918 10702 net.cpp:151] Top shape: 20 50 (1000)
I0505 23:42:33.156920 10702 net.cpp:159] Memory required for data: 9057520
I0505 23:42:33.156925 10702 layer_factory.hpp:77] Creating layer loss
I0505 23:42:33.156931 10702 net.cpp:94] Creating Layer loss
I0505 23:42:33.156934 10702 net.cpp:435] loss <- ip3
I0505 23:42:33.156939 10702 net.cpp:435] loss <- label
I0505 23:42:33.156942 10702 net.cpp:409] loss -> loss
I0505 23:42:33.156957 10702 layer_factory.hpp:77] Creating layer loss
…
I0505 23:42:33.157433 10702 solver.cpp:181] Creating test net (#0) specified by net file: ./protocol/dis_5_400_dimension.protocol_distribution
I0505 23:42:33.157457 10702 net.cpp:323] The NetState phase (1) differed from the phase (0) specified by a rule in layer parameters
I0505 23:42:33.157551 10702 net.cpp:52] Initializing net from parameters: 
state {
  phase: TEST
}
layer {
  name: "intercept"
  type: "HDF5Data"
  top: "data"
  top: "label"
  include {
    phase: TEST
  }
  hdf5_data_param {
    source: "/home/purduethu/scratch/radon/d/deng106/CNNStatisticalModel/distributions/input/5_distributions_400_sample_size_test-distributions-path.txt"
    batch_size: 20
  }
}
layer {
  name: "conv1"
  type: "Convolution"
  bottom: "data"
  top: "conv1"
  param {
    lr_mult: 1
  }
  param {
    lr_mult: 2
  }
  convolution_param {
    num_output: 64
    pad: 2
    kernel_size: 5
    stride: 1
    weight_filler {
      type: "gaussian"
      std: 0.0001
    }
    bias_filler {
      type: "constant"
    }
  }
}
layer {
  name: "relu1"
  type: "ReLU"
  bottom: "conv1"
  top: "conv1"
}
layer {
  name: "pool1"
  type: "Pooling"
  bottom: "conv1"
  top: "pool1"
  pooling_param {
    pool: MAX
    kernel_size: 3
    stride: 2
  }
}
layer {
  name: "conv2"
  type: "Convolution"
  bottom: "pool1"
  top: "conv2"
  param {
    lr_mult: 1
  }
  param {
    lr_mult: 2
  }
  convolution_param {
    num_output: 128
    pad: 2
    kernel_size: 5
    stride: 1
    weight_filler {
      type: "gaussian"
      std: 0.01
    }
    bias_filler {
      type: "constant"
    }
  }
}
layer {
  name: "relu2"
  type: "ReLU"
  bottom: "conv2"
  top: "conv2"
}
layer {
  name: "conv3"
  type: "Convolution"
  bottom: "conv2"
  top: "conv3"
  param {
    lr_mult: 1
  }
  param {
    lr_mult: 2
  }
  convolution_param {
    num_output: 128
    pad: 2
    kernel_size: 5
    stride: 1
    weight_filler {
      type: "gaussian"
      std: 0.01
    }
    bias_filler {
      type: "constant"
    }
  }
}
layer {
  name: "relu3"
  type: "ReLU"
  bottom: "conv3"
  top: "conv3"
}
layer {
  name: "pool3"
  type: "Pooling"
  bottom: "conv3"
  top: "pool3"
  pooling_param {
    pool: AVE
    kernel_size: 3
    stride: 2
  }
}
layer {
  name: "ip1"
  type: "InnerProduct"
  bottom: "pool3"
  top: "ip1"
  param {
    lr_mult: 1
  }
  param {
    lr_mult: 2
  }
  inner_product_param {
    num_output: 512
    weight_filler {
      type: "gaussian"
      std: 0.1
    }
    bias_filler {
      type: "constant"
    }
  }
}
layer {
  name: "ip2"
  type: "InnerProduct"
  bottom: "ip1"
  top: "ip2"
  param {
    lr_mult: 1
  }
  param {
    lr_mult: 2
  }
  inner_product_param {
    num_output: 256
    weight_filler {
      type: "gaussian"
      std: 0.1
    }
    bias_filler {
      type: "constant"
    }
  }
}
layer {
  name: "ip3"
  type: "InnerProduct"
  bottom: "ip2"
  top: "ip3"
  param {
    lr_mult: 1
  }
  param {
    lr_mult: 2
  }
  inner_product_param {
    num_output: 50
    weight_filler {
      type: "gaussian"
      std: 0.1
    }
    bias_filler {
      type: "constant"
    }
  }
}
layer {
  name: "accuracy"
  type: "Accuracy"
  bottom: "ip3"
  bottom: "label"
  top: "accuracy"
  include {
    phase: TEST
  }
}
layer {
  name: "loss"
  type: "SoftmaxWithLoss"
  bottom: "ip3"
  bottom: "label"
  top: "loss"
}
I0505 23:42:33.157606 10702 layer_factory.hpp:77] Creating layer intercept
I0505 23:42:33.157614 10702 net.cpp:94] Creating Layer intercept
I0505 23:42:33.157618 10702 net.cpp:409] intercept -> data
I0505 23:42:33.157625 10702 net.cpp:409] intercept -> label
I0505 23:42:33.157631 10702 hdf5_data_layer.cpp:79] Loading list of HDF5 filenames from: /home/purduethu/scratch/radon/d/deng106/CNNStatisticalModel/distributions/input/5_distributions_400_sample_size_test-distributions-path.txt
I0505 23:42:33.157655 10702 hdf5_data_layer.cpp:93] Number of HDF5 files: 1
I0505 23:42:33.173828 10702 net.cpp:144] Setting up intercept
I0505 23:42:33.173861 10702 net.cpp:151] Top shape: 20 1 20 20 (8000)
I0505 23:42:33.173866 10702 net.cpp:151] Top shape: 20 (20)
I0505 23:42:33.173869 10702 net.cpp:159] Memory required for data: 32080
I0505 23:42:33.173876 10702 layer_factory.hpp:77] Creating layer label_intercept_1_split
I0505 23:42:33.173893 10702 net.cpp:94] Creating Layer label_intercept_1_split
I0505 23:42:33.173898 10702 net.cpp:435] label_intercept_1_split <- label
I0505 23:42:33.173903 10702 net.cpp:409] label_intercept_1_split -> label_intercept_1_split_0
I0505 23:42:33.173912 10702 net.cpp:409] label_intercept_1_split -> label_intercept_1_split_1
I0505 23:42:33.173954 10702 net.cpp:144] Setting up label_intercept_1_split
I0505 23:42:33.173961 10702 net.cpp:151] Top shape: 20 (20)
I0505 23:42:33.173964 10702 net.cpp:151] Top shape: 20 (20)
I0505 23:42:33.173967 10702 net.cpp:159] Memory required for data: 32240
I0505 23:42:33.173970 10702 layer_factory.hpp:77] Creating layer conv1
I0505 23:42:33.173982 10702 net.cpp:94] Creating Layer conv1
I0505 23:42:33.173985 10702 net.cpp:435] conv1 <- data
I0505 23:42:33.173990 10702 net.cpp:409] conv1 -> conv1
I0505 23:42:33.174782 10702 net.cpp:144] Setting up conv1
I0505 23:42:33.174794 10702 net.cpp:151] Top shape: 20 64 20 20 (512000)
I0505 23:42:33.174798 10702 net.cpp:159] Memory required for data: 2080240
I0505 23:42:33.174808 10702 layer_factory.hpp:77] Creating layer relu1
I0505 23:42:33.174814 10702 net.cpp:94] Creating Layer relu1
I0505 23:42:33.174818 10702 net.cpp:435] relu1 <- conv1
I0505 23:42:33.174821 10702 net.cpp:396] relu1 -> conv1 (in-place)
I0505 23:42:33.174829 10702 net.cpp:144] Setting up relu1
I0505 23:42:33.174832 10702 net.cpp:151] Top shape: 20 64 20 20 (512000)
I0505 23:42:33.174835 10702 net.cpp:159] Memory required for data: 4128240
I0505 23:42:33.174839 10702 layer_factory.hpp:77] Creating layer pool1
I0505 23:42:33.174844 10702 net.cpp:94] Creating Layer pool1
I0505 23:42:33.174847 10702 net.cpp:435] pool1 <- conv1
I0505 23:42:33.174851 10702 net.cpp:409] pool1 -> pool1
I0505 23:42:33.174906 10702 net.cpp:144] Setting up pool1
I0505 23:42:33.174911 10702 net.cpp:151] Top shape: 20 64 10 10 (128000)
I0505 23:42:33.174914 10702 net.cpp:159] Memory required for data: 4640240
I0505 23:42:33.174917 10702 layer_factory.hpp:77] Creating layer conv2
I0505 23:42:33.174926 10702 net.cpp:94] Creating Layer conv2
I0505 23:42:33.174928 10702 net.cpp:435] conv2 <- pool1
I0505 23:42:33.174933 10702 net.cpp:409] conv2 -> conv2
I0505 23:42:33.182576 10702 net.cpp:144] Setting up conv2
I0505 23:42:33.182592 10702 net.cpp:151] Top shape: 20 128 10 10 (256000)
I0505 23:42:33.182595 10702 net.cpp:159] Memory required for data: 5664240
I0505 23:42:33.182605 10702 layer_factory.hpp:77] Creating layer relu2
I0505 23:42:33.182617 10702 net.cpp:94] Creating Layer relu2
I0505 23:42:33.182621 10702 net.cpp:435] relu2 <- conv2
I0505 23:42:33.182626 10702 net.cpp:396] relu2 -> conv2 (in-place)
I0505 23:42:33.182632 10702 net.cpp:144] Setting up relu2
I0505 23:42:33.182637 10702 net.cpp:151] Top shape: 20 128 10 10 (256000)
I0505 23:42:33.182641 10702 net.cpp:159] Memory required for data: 6688240
I0505 23:42:33.182643 10702 layer_factory.hpp:77] Creating layer conv3
I0505 23:42:33.182651 10702 net.cpp:94] Creating Layer conv3
I0505 23:42:33.182654 10702 net.cpp:435] conv3 <- conv2
I0505 23:42:33.182659 10702 net.cpp:409] conv3 -> conv3
I0505 23:42:33.196136 10702 net.cpp:144] Setting up conv3
I0505 23:42:33.196152 10702 net.cpp:151] Top shape: 20 128 10 10 (256000)
I0505 23:42:33.196156 10702 net.cpp:159] Memory required for data: 7712240
I0505 23:42:33.196164 10702 layer_factory.hpp:77] Creating layer relu3
I0505 23:42:33.196171 10702 net.cpp:94] Creating Layer relu3
I0505 23:42:33.196175 10702 net.cpp:435] relu3 <- conv3
I0505 23:42:33.196179 10702 net.cpp:396] relu3 -> conv3 (in-place)
I0505 23:42:33.196187 10702 net.cpp:144] Setting up relu3
I0505 23:42:33.196190 10702 net.cpp:151] Top shape: 20 128 10 10 (256000)
I0505 23:42:33.196193 10702 net.cpp:159] Memory required for data: 8736240
I0505 23:42:33.196197 10702 layer_factory.hpp:77] Creating layer pool3
I0505 23:42:33.196202 10702 net.cpp:94] Creating Layer pool3
I0505 23:42:33.196204 10702 net.cpp:435] pool3 <- conv3
I0505 23:42:33.196208 10702 net.cpp:409] pool3 -> pool3
I0505 23:42:33.196249 10702 net.cpp:144] Setting up pool3
I0505 23:42:33.196256 10702 net.cpp:151] Top shape: 20 128 5 5 (64000)
I0505 23:42:33.196259 10702 net.cpp:159] Memory required for data: 8992240
I0505 23:42:33.196262 10702 layer_factory.hpp:77] Creating layer ip1
I0505 23:42:33.196269 10702 net.cpp:94] Creating Layer ip1
I0505 23:42:33.196272 10702 net.cpp:435] ip1 <- pool3
I0505 23:42:33.196277 10702 net.cpp:409] ip1 -> ip1
I0505 23:42:33.236117 10702 net.cpp:144] Setting up ip1
I0505 23:42:33.236143 10702 net.cpp:151] Top shape: 20 512 (10240)
I0505 23:42:33.236146 10702 net.cpp:159] Memory required for data: 9033200
I0505 23:42:33.236155 10702 layer_factory.hpp:77] Creating layer ip2
I0505 23:42:33.236162 10702 net.cpp:94] Creating Layer ip2
I0505 23:42:33.236166 10702 net.cpp:435] ip2 <- ip1
I0505 23:42:33.236171 10702 net.cpp:409] ip2 -> ip2
I0505 23:42:33.239349 10702 net.cpp:144] Setting up ip2
I0505 23:42:33.239362 10702 net.cpp:151] Top shape: 20 256 (5120)
I0505 23:42:33.239365 10702 net.cpp:159] Memory required for data: 9053680
I0505 23:42:33.239373 10702 layer_factory.hpp:77] Creating layer ip3
I0505 23:42:33.239380 10702 net.cpp:94] Creating Layer ip3
I0505 23:42:33.239383 10702 net.cpp:435] ip3 <- ip2
I0505 23:42:33.239387 10702 net.cpp:409] ip3 -> ip3
I0505 23:42:33.239836 10702 net.cpp:144] Setting up ip3
I0505 23:42:33.239845 10702 net.cpp:151] Top shape: 20 50 (1000)
I0505 23:42:33.239847 10702 net.cpp:159] Memory required for data: 9057680
I0505 23:42:33.239852 10702 layer_factory.hpp:77] Creating layer ip3_ip3_0_split
I0505 23:42:33.239857 10702 net.cpp:94] Creating Layer ip3_ip3_0_split
I0505 23:42:33.239861 10702 net.cpp:435] ip3_ip3_0_split <- ip3
I0505 23:42:33.239864 10702 net.cpp:409] ip3_ip3_0_split -> ip3_ip3_0_split_0
I0505 23:42:33.239869 10702 net.cpp:409] ip3_ip3_0_split -> ip3_ip3_0_split_1
I0505 23:42:33.239912 10702 net.cpp:144] Setting up ip3_ip3_0_split
I0505 23:42:33.239918 10702 net.cpp:151] Top shape: 20 50 (1000)
I0505 23:42:33.239923 10702 net.cpp:151] Top shape: 20 50 (1000)
I0505 23:42:33.239924 10702 net.cpp:159] Memory required for data: 9065680
I0505 23:42:33.239928 10702 layer_factory.hpp:77] Creating layer accuracy
I0505 23:42:33.239933 10702 net.cpp:94] Creating Layer accuracy
I0505 23:42:33.239936 10702 net.cpp:435] accuracy <- ip3_ip3_0_split_0
I0505 23:42:33.239940 10702 net.cpp:435] accuracy <- label_intercept_1_split_0
I0505 23:42:33.239944 10702 net.cpp:409] accuracy -> accuracy
…
