…
I0505 03:54:24.462991  3151 net.cpp:323] The NetState phase (0) differed from the phase (1) specified by a rule in layer intercept
I0505 03:54:24.463006  3151 net.cpp:323] The NetState phase (0) differed from the phase (1) specified by a rule in layer loss
I0505 03:54:24.463085  3151 net.cpp:52] Initializing net from parameters: 
state {
  phase: TRAIN
}
layer {
  name: "parameters"
  type: "HDF5Data"
  top: "data"
  top: "label"
  include {
    phase: TRAIN
  }
  hdf5_data_param {
    source: "/home/purduethu/scratch/radon/d/deng106/CNNStatisticalModel/distributions/input/5_distributions_900_sample_size_train-parameters-path.txt"
    batch_size: 20
  }
}
layer {
  name: "conv1"
  type: "Convolution"
  bottom: "data"
  top: "conv1"
  param {
    lr_mult: 1
  }
  param {
    lr_mult: 2
  }
  convolution_param {
    num_output: 64
    pad: 2
    kernel_size: 5
    stride: 1
    weight_filler {
      type: "gaussian"
      std: 0.0001
    }
    bias_filler {
      type: "constant"
    }
  }
}
layer {
  name: "relu1"
  type: "ReLU"
  bottom: "conv1"
  top: "conv1"
}
layer {
  name: "pool1"
  type: "Pooling"
  bottom: "conv1"
  top: "pool1"
  pooling_param {
    pool: MAX
    kernel_size: 3
    stride: 2
  }
}
layer {
  name: "conv2"
  type: "Convolution"
  bottom: "pool1"
  top: "conv2"
  param {
    lr_mult: 1
  }
  param {
    lr_mult: 2
  }
  convolution_param {
    num_output: 128
    pad: 2
    kernel_size: 5
    stride: 1
    weight_filler {
      type: "gaussian"
      std: 0.01
    }
    bias_filler {
      type: "constant"
    }
  }
}
layer {
  name: "relu2"
  type: "ReLU"
  bottom: "conv2"
  top: "conv2"
}
layer {
  name: "conv3"
  type: "Convolution"
  bottom: "conv2"
  top: "conv3"
  param {
    lr_mult: 1
  }
  param {
    lr_mult: 2
  }
  convolution_param {
    num_output: 128
    pad: 2
    kernel_size: 5
    stride: 1
    weight_filler {
      type: "gaussian"
      std: 0.01
    }
    bias_filler {
      type: "constant"
    }
  }
}
layer {
  name: "relu3"
  type: "ReLU"
  bottom: "conv3"
  top: "conv3"
}
layer {
  name: "pool3"
  type: "Pooling"
  bottom: "conv3"
  top: "pool3"
  pooling_param {
    pool: AVE
    kernel_size: 3
    stride: 2
  }
}
layer {
  name: "ip1"
  type: "InnerProduct"
  bottom: "pool3"
  top: "ip1"
  param {
    lr_mult: 1
  }
  param {
    lr_mult: 2
  }
  inner_product_param {
    num_output: 512
    weight_filler {
      type: "gaussian"
      std: 0.1
    }
    bias_filler {
      type: "constant"
    }
  }
}
layer {
  name: "ip2"
  type: "InnerProduct"
  bottom: "ip1"
  top: "ip2"
  param {
    lr_mult: 1
  }
  param {
    lr_mult: 2
  }
  inner_product_param {
    num_output: 256
    weight_filler {
      type: "gaussian"
      std: 0.1
    }
    bias_filler {
      type: "constant"
    }
  }
}
layer {
  name: "ip3"
  type: "InnerProduct"
  bottom: "ip2"
  top: "ip3"
  param {
    lr_mult: 1
  }
  param {
    lr_mult: 2
  }
  inner_product_param {
    num_output: 1
    weight_filler {
      type: "gaussian"
      std: 0.1
    }
    bias_filler {
      type: "constant"
    }
  }
}
layer {
  name: "loss"
  type: "HuberLoss"
  bottom: "ip3"
  bottom: "label"
  top: "loss"
  include {
    phase: TRAIN
  }
}
I0505 03:54:24.463150  3151 layer_factory.hpp:77] Creating layer parameters
I0505 03:54:24.463165  3151 net.cpp:94] Creating Layer parameters
I0505 03:54:24.463177  3151 net.cpp:409] parameters -> data
I0505 03:54:24.463198  3151 net.cpp:409] parameters -> label
I0505 03:54:24.463208  3151 hdf5_data_layer.cpp:79] Loading list of HDF5 filenames from: /home/purduethu/scratch/radon/d/deng106/CNNStatisticalModel/distributions/input/5_distributions_900_sample_size_train-parameters-path.txt
I0505 03:54:24.463232  3151 hdf5_data_layer.cpp:93] Number of HDF5 files: 1
I0505 03:54:24.463801  3151 hdf5.cpp:32] Datatype class: H5T_FLOAT
I0505 03:54:24.602264  3151 net.cpp:144] Setting up parameters
I0505 03:54:24.602293  3151 net.cpp:151] Top shape: 20 1 30 30 (18000)
I0505 03:54:24.602298  3151 net.cpp:151] Top shape: 20 (20)
I0505 03:54:24.602303  3151 net.cpp:159] Memory required for data: 72080
I0505 03:54:24.602309  3151 layer_factory.hpp:77] Creating layer conv1
I0505 03:54:24.602329  3151 net.cpp:94] Creating Layer conv1
I0505 03:54:24.602334  3151 net.cpp:435] conv1 <- data
I0505 03:54:24.602345  3151 net.cpp:409] conv1 -> conv1
I0505 03:54:24.608250  3151 net.cpp:144] Setting up conv1
I0505 03:54:24.608268  3151 net.cpp:151] Top shape: 20 64 30 30 (1152000)
I0505 03:54:24.608271  3151 net.cpp:159] Memory required for data: 4680080
I0505 03:54:24.608283  3151 layer_factory.hpp:77] Creating layer relu1
I0505 03:54:24.608292  3151 net.cpp:94] Creating Layer relu1
I0505 03:54:24.608296  3151 net.cpp:435] relu1 <- conv1
I0505 03:54:24.608301  3151 net.cpp:396] relu1 -> conv1 (in-place)
I0505 03:54:24.608317  3151 net.cpp:144] Setting up relu1
I0505 03:54:24.608322  3151 net.cpp:151] Top shape: 20 64 30 30 (1152000)
I0505 03:54:24.608325  3151 net.cpp:159] Memory required for data: 9288080
I0505 03:54:24.608330  3151 layer_factory.hpp:77] Creating layer pool1
I0505 03:54:24.608336  3151 net.cpp:94] Creating Layer pool1
I0505 03:54:24.608340  3151 net.cpp:435] pool1 <- conv1
I0505 03:54:24.608345  3151 net.cpp:409] pool1 -> pool1
I0505 03:54:24.608389  3151 net.cpp:144] Setting up pool1
I0505 03:54:24.608397  3151 net.cpp:151] Top shape: 20 64 15 15 (288000)
I0505 03:54:24.608400  3151 net.cpp:159] Memory required for data: 10440080
I0505 03:54:24.608404  3151 layer_factory.hpp:77] Creating layer conv2
I0505 03:54:24.608412  3151 net.cpp:94] Creating Layer conv2
I0505 03:54:24.608417  3151 net.cpp:435] conv2 <- pool1
I0505 03:54:24.608422  3151 net.cpp:409] conv2 -> conv2
I0505 03:54:24.621773  3151 net.cpp:144] Setting up conv2
I0505 03:54:24.621788  3151 net.cpp:151] Top shape: 20 128 15 15 (576000)
I0505 03:54:24.621793  3151 net.cpp:159] Memory required for data: 12744080
I0505 03:54:24.621801  3151 layer_factory.hpp:77] Creating layer relu2
I0505 03:54:24.621807  3151 net.cpp:94] Creating Layer relu2
I0505 03:54:24.621811  3151 net.cpp:435] relu2 <- conv2
I0505 03:54:24.621816  3151 net.cpp:396] relu2 -> conv2 (in-place)
I0505 03:54:24.621824  3151 net.cpp:144] Setting up relu2
I0505 03:54:24.621829  3151 net.cpp:151] Top shape: 20 128 15 15 (576000)
I0505 03:54:24.621831  3151 net.cpp:159] Memory required for data: 15048080
I0505 03:54:24.621835  3151 layer_factory.hpp:77] Creating layer conv3
I0505 03:54:24.621843  3151 net.cpp:94] Creating Layer conv3
I0505 03:54:24.621846  3151 net.cpp:435] conv3 <- conv2
I0505 03:54:24.621851  3151 net.cpp:409] conv3 -> conv3
I0505 03:54:24.643672  3151 net.cpp:144] Setting up conv3
I0505 03:54:24.643688  3151 net.cpp:151] Top shape: 20 128 15 15 (576000)
I0505 03:54:24.643692  3151 net.cpp:159] Memory required for data: 17352080
I0505 03:54:24.643702  3151 layer_factory.hpp:77] Creating layer relu3
I0505 03:54:24.643707  3151 net.cpp:94] Creating Layer relu3
I0505 03:54:24.643718  3151 net.cpp:435] relu3 <- conv3
I0505 03:54:24.643723  3151 net.cpp:396] relu3 -> conv3 (in-place)
I0505 03:54:24.643730  3151 net.cpp:144] Setting up relu3
I0505 03:54:24.643735  3151 net.cpp:151] Top shape: 20 128 15 15 (576000)
I0505 03:54:24.643739  3151 net.cpp:159] Memory required for data: 19656080
I0505 03:54:24.643743  3151 layer_factory.hpp:77] Creating layer pool3
I0505 03:54:24.643748  3151 net.cpp:94] Creating Layer pool3
I0505 03:54:24.643752  3151 net.cpp:435] pool3 <- conv3
I0505 03:54:24.643764  3151 net.cpp:409] pool3 -> pool3
I0505 03:54:24.643800  3151 net.cpp:144] Setting up pool3
I0505 03:54:24.643806  3151 net.cpp:151] Top shape: 20 128 7 7 (125440)
I0505 03:54:24.643810  3151 net.cpp:159] Memory required for data: 20157840
I0505 03:54:24.643813  3151 layer_factory.hpp:77] Creating layer ip1
I0505 03:54:24.643823  3151 net.cpp:94] Creating Layer ip1
I0505 03:54:24.643827  3151 net.cpp:435] ip1 <- pool3
I0505 03:54:24.643832  3151 net.cpp:409] ip1 -> ip1
I0505 03:54:24.725368  3151 net.cpp:144] Setting up ip1
I0505 03:54:24.725400  3151 net.cpp:151] Top shape: 20 512 (10240)
I0505 03:54:24.725406  3151 net.cpp:159] Memory required for data: 20198800
I0505 03:54:24.725414  3151 layer_factory.hpp:77] Creating layer ip2
I0505 03:54:24.725425  3151 net.cpp:94] Creating Layer ip2
I0505 03:54:24.725430  3151 net.cpp:435] ip2 <- ip1
I0505 03:54:24.725436  3151 net.cpp:409] ip2 -> ip2
I0505 03:54:24.728721  3151 net.cpp:144] Setting up ip2
I0505 03:54:24.728730  3151 net.cpp:151] Top shape: 20 256 (5120)
I0505 03:54:24.728734  3151 net.cpp:159] Memory required for data: 20219280
I0505 03:54:24.728742  3151 layer_factory.hpp:77] Creating layer ip3
I0505 03:54:24.728749  3151 net.cpp:94] Creating Layer ip3
I0505 03:54:24.728752  3151 net.cpp:435] ip3 <- ip2
I0505 03:54:24.728757  3151 net.cpp:409] ip3 -> ip3
I0505 03:54:24.728826  3151 net.cpp:144] Setting up ip3
I0505 03:54:24.728832  3151 net.cpp:151] Top shape: 20 1 (20)
I0505 03:54:24.728837  3151 net.cpp:159] Memory required for data: 20219360
I0505 03:54:24.728842  3151 layer_factory.hpp:77] Creating layer loss
I0505 03:54:24.728854  3151 net.cpp:94] Creating Layer loss
I0505 03:54:24.728858  3151 net.cpp:435] loss <- ip3
I0505 03:54:24.728863  3151 net.cpp:435] loss <- label
I0505 03:54:24.728869  3151 net.cpp:409] loss -> loss
I0505 03:54:24.728905  3151 net.cpp:144] Setting up loss
…
