…
I0505 01:33:36.662235  1789 net.cpp:323] The NetState phase (0) differed from the phase (1) specified by a rule in layer intercept
I0505 01:33:36.662250  1789 net.cpp:323] The NetState phase (0) differed from the phase (1) specified by a rule in layer accuracy
I0505 01:33:36.662327  1789 net.cpp:52] Initializing net from parameters: 
state {
  phase: TRAIN
}
layer {
  name: "parameters"
  type: "HDF5Data"
  top: "data"
  top: "label"
  include {
    phase: TRAIN
  }
  hdf5_data_param {
    source: "/home/purduethu/scratch/radon/d/deng106/CNNStatisticalModel/distributions/input/20_distributions_900_sample_size_train-distributions-path.txt"
    batch_size: 20
  }
}
layer {
  name: "conv1"
  type: "Convolution"
  bottom: "data"
  top: "conv1"
  param {
    lr_mult: 1
  }
  param {
    lr_mult: 2
  }
  convolution_param {
    num_output: 64
    pad: 2
    kernel_size: 5
    stride: 1
    weight_filler {
      type: "gaussian"
      std: 0.0001
    }
    bias_filler {
      type: "constant"
    }
  }
}
layer {
  name: "relu1"
  type: "ReLU"
  bottom: "conv1"
  top: "conv1"
}
layer {
  name: "pool1"
  type: "Pooling"
  bottom: "conv1"
  top: "pool1"
  pooling_param {
    pool: MAX
    kernel_size: 3
    stride: 2
  }
}
layer {
  name: "conv2"
  type: "Convolution"
  bottom: "pool1"
  top: "conv2"
  param {
    lr_mult: 1
  }
  param {
    lr_mult: 2
  }
  convolution_param {
    num_output: 128
    pad: 2
    kernel_size: 5
    stride: 1
    weight_filler {
      type: "gaussian"
      std: 0.01
    }
    bias_filler {
      type: "constant"
    }
  }
}
layer {
  name: "relu2"
  type: "ReLU"
  bottom: "conv2"
  top: "conv2"
}
layer {
  name: "conv3"
  type: "Convolution"
  bottom: "conv2"
  top: "conv3"
  param {
    lr_mult: 1
  }
  param {
    lr_mult: 2
  }
  convolution_param {
    num_output: 128
    pad: 2
    kernel_size: 5
    stride: 1
    weight_filler {
      type: "gaussian"
      std: 0.01
    }
    bias_filler {
      type: "constant"
    }
  }
}
layer {
  name: "relu3"
  type: "ReLU"
  bottom: "conv3"
  top: "conv3"
}
layer {
  name: "pool3"
  type: "Pooling"
  bottom: "conv3"
  top: "pool3"
  pooling_param {
    pool: AVE
    kernel_size: 3
    stride: 2
  }
}
layer {
  name: "ip1"
  type: "InnerProduct"
  bottom: "pool3"
  top: "ip1"
  param {
    lr_mult: 1
  }
  param {
    lr_mult: 2
  }
  inner_product_param {
    num_output: 512
    weight_filler {
      type: "gaussian"
      std: 0.1
    }
    bias_filler {
      type: "constant"
    }
  }
}
layer {
  name: "ip2"
  type: "InnerProduct"
  bottom: "ip1"
  top: "ip2"
  param {
    lr_mult: 1
  }
  param {
    lr_mult: 2
  }
  inner_product_param {
    num_output: 256
    weight_filler {
      type: "gaussian"
      std: 0.1
    }
    bias_filler {
      type: "constant"
    }
  }
}
layer {
  name: "ip3"
  type: "InnerProduct"
  bottom: "ip2"
  top: "ip3"
  param {
    lr_mult: 1
  }
  param {
    lr_mult: 2
  }
  inner_product_param {
    num_output: 50
    weight_filler {
      type: "gaussian"
      std: 0.1
    }
    bias_filler {
      type: "constant"
    }
  }
}
layer {
  name: "loss"
  type: "SoftmaxWithLoss"
  bottom: "ip3"
  bottom: "label"
  top: "loss"
}
I0505 01:33:36.662389  1789 layer_factory.hpp:77] Creating layer parameters
I0505 01:33:36.662402  1789 net.cpp:94] Creating Layer parameters
I0505 01:33:36.662416  1789 net.cpp:409] parameters -> data
I0505 01:33:36.662436  1789 net.cpp:409] parameters -> label
I0505 01:33:36.662446  1789 hdf5_data_layer.cpp:79] Loading list of HDF5 filenames from: /home/purduethu/scratch/radon/d/deng106/CNNStatisticalModel/distributions/input/20_distributions_900_sample_size_train-distributions-path.txt
I0505 01:33:36.662468  1789 hdf5_data_layer.cpp:93] Number of HDF5 files: 1
I0505 01:33:36.663034  1789 hdf5.cpp:32] Datatype class: H5T_FLOAT
I0505 01:33:37.240315  1789 hdf5.cpp:35] Datatype class: H5T_INTEGER
I0505 01:33:37.242033  1789 net.cpp:144] Setting up parameters
I0505 01:33:37.242056  1789 net.cpp:151] Top shape: 20 1 30 30 (18000)
I0505 01:33:37.242063  1789 net.cpp:151] Top shape: 20 (20)
I0505 01:33:37.242066  1789 net.cpp:159] Memory required for data: 72080
I0505 01:33:37.242074  1789 layer_factory.hpp:77] Creating layer conv1
I0505 01:33:37.242094  1789 net.cpp:94] Creating Layer conv1
I0505 01:33:37.242099  1789 net.cpp:435] conv1 <- data
I0505 01:33:37.242110  1789 net.cpp:409] conv1 -> conv1
I0505 01:33:37.247922  1789 net.cpp:144] Setting up conv1
I0505 01:33:37.247946  1789 net.cpp:151] Top shape: 20 64 30 30 (1152000)
I0505 01:33:37.247951  1789 net.cpp:159] Memory required for data: 4680080
I0505 01:33:37.247963  1789 layer_factory.hpp:77] Creating layer relu1
I0505 01:33:37.247972  1789 net.cpp:94] Creating Layer relu1
I0505 01:33:37.247977  1789 net.cpp:435] relu1 <- conv1
I0505 01:33:37.247982  1789 net.cpp:396] relu1 -> conv1 (in-place)
I0505 01:33:37.247995  1789 net.cpp:144] Setting up relu1
I0505 01:33:37.248000  1789 net.cpp:151] Top shape: 20 64 30 30 (1152000)
I0505 01:33:37.248003  1789 net.cpp:159] Memory required for data: 9288080
I0505 01:33:37.248008  1789 layer_factory.hpp:77] Creating layer pool1
I0505 01:33:37.248014  1789 net.cpp:94] Creating Layer pool1
I0505 01:33:37.248018  1789 net.cpp:435] pool1 <- conv1
I0505 01:33:37.248023  1789 net.cpp:409] pool1 -> pool1
I0505 01:33:37.248064  1789 net.cpp:144] Setting up pool1
I0505 01:33:37.248071  1789 net.cpp:151] Top shape: 20 64 15 15 (288000)
I0505 01:33:37.248075  1789 net.cpp:159] Memory required for data: 10440080
I0505 01:33:37.248078  1789 layer_factory.hpp:77] Creating layer conv2
I0505 01:33:37.248090  1789 net.cpp:94] Creating Layer conv2
I0505 01:33:37.248093  1789 net.cpp:435] conv2 <- pool1
I0505 01:33:37.248098  1789 net.cpp:409] conv2 -> conv2
I0505 01:33:37.260119  1789 net.cpp:144] Setting up conv2
I0505 01:33:37.260144  1789 net.cpp:151] Top shape: 20 128 15 15 (576000)
I0505 01:33:37.260149  1789 net.cpp:159] Memory required for data: 12744080
I0505 01:33:37.260159  1789 layer_factory.hpp:77] Creating layer relu2
I0505 01:33:37.260167  1789 net.cpp:94] Creating Layer relu2
I0505 01:33:37.260172  1789 net.cpp:435] relu2 <- conv2
I0505 01:33:37.260177  1789 net.cpp:396] relu2 -> conv2 (in-place)
I0505 01:33:37.260185  1789 net.cpp:144] Setting up relu2
I0505 01:33:37.260190  1789 net.cpp:151] Top shape: 20 128 15 15 (576000)
I0505 01:33:37.260193  1789 net.cpp:159] Memory required for data: 15048080
I0505 01:33:37.260197  1789 layer_factory.hpp:77] Creating layer conv3
I0505 01:33:37.260206  1789 net.cpp:94] Creating Layer conv3
I0505 01:33:37.260210  1789 net.cpp:435] conv3 <- conv2
I0505 01:33:37.260215  1789 net.cpp:409] conv3 -> conv3
I0505 01:33:37.281733  1789 net.cpp:144] Setting up conv3
I0505 01:33:37.281770  1789 net.cpp:151] Top shape: 20 128 15 15 (576000)
I0505 01:33:37.281775  1789 net.cpp:159] Memory required for data: 17352080
I0505 01:33:37.281795  1789 layer_factory.hpp:77] Creating layer relu3
I0505 01:33:37.281805  1789 net.cpp:94] Creating Layer relu3
I0505 01:33:37.281810  1789 net.cpp:435] relu3 <- conv3
I0505 01:33:37.281816  1789 net.cpp:396] relu3 -> conv3 (in-place)
I0505 01:33:37.281826  1789 net.cpp:144] Setting up relu3
I0505 01:33:37.281831  1789 net.cpp:151] Top shape: 20 128 15 15 (576000)
I0505 01:33:37.281834  1789 net.cpp:159] Memory required for data: 19656080
I0505 01:33:37.281837  1789 layer_factory.hpp:77] Creating layer pool3
I0505 01:33:37.281853  1789 net.cpp:94] Creating Layer pool3
I0505 01:33:37.281857  1789 net.cpp:435] pool3 <- conv3
I0505 01:33:37.281862  1789 net.cpp:409] pool3 -> pool3
I0505 01:33:37.281910  1789 net.cpp:144] Setting up pool3
I0505 01:33:37.281918  1789 net.cpp:151] Top shape: 20 128 7 7 (125440)
I0505 01:33:37.281921  1789 net.cpp:159] Memory required for data: 20157840
I0505 01:33:37.281924  1789 layer_factory.hpp:77] Creating layer ip1
I0505 01:33:37.281935  1789 net.cpp:94] Creating Layer ip1
I0505 01:33:37.281939  1789 net.cpp:435] ip1 <- pool3
I0505 01:33:37.281944  1789 net.cpp:409] ip1 -> ip1
I0505 01:33:37.410815  1789 net.cpp:144] Setting up ip1
I0505 01:33:37.410856  1789 net.cpp:151] Top shape: 20 512 (10240)
I0505 01:33:37.410861  1789 net.cpp:159] Memory required for data: 20198800
I0505 01:33:37.410871  1789 layer_factory.hpp:77] Creating layer ip2
I0505 01:33:37.410883  1789 net.cpp:94] Creating Layer ip2
I0505 01:33:37.410889  1789 net.cpp:435] ip2 <- ip1
I0505 01:33:37.410898  1789 net.cpp:409] ip2 -> ip2
I0505 01:33:37.415158  1789 net.cpp:144] Setting up ip2
I0505 01:33:37.415174  1789 net.cpp:151] Top shape: 20 256 (5120)
I0505 01:33:37.415179  1789 net.cpp:159] Memory required for data: 20219280
I0505 01:33:37.415190  1789 layer_factory.hpp:77] Creating layer ip3
I0505 01:33:37.415200  1789 net.cpp:94] Creating Layer ip3
I0505 01:33:37.415205  1789 net.cpp:435] ip3 <- ip2
I0505 01:33:37.415212  1789 net.cpp:409] ip3 -> ip3
I0505 01:33:37.416604  1789 net.cpp:144] Setting up ip3
I0505 01:33:37.416622  1789 net.cpp:151] Top shape: 20 50 (1000)
I0505 01:33:37.416627  1789 net.cpp:159] Memory required for data: 20223280
I0505 01:33:37.416635  1789 layer_factory.hpp:77] Creating layer loss
I0505 01:33:37.416643  1789 net.cpp:94] Creating Layer loss
I0505 01:33:37.416648  1789 net.cpp:435] loss <- ip3
I0505 01:33:37.416654  1789 net.cpp:435] loss <- label
I0505 01:33:37.416662  1789 net.cpp:409] loss -> loss
I0505 01:33:37.416677  1789 layer_factory.hpp:77] Creating layer loss
…
I0505 01:33:37.417218  1789 solver.cpp:181] Creating test net (#0) specified by net file: ./protocol/dis_20_900_dimension.protocol_distribution
I0505 01:33:37.417255  1789 net.cpp:323] The NetState phase (1) differed from the phase (0) specified by a rule in layer parameters
I0505 01:33:37.417359  1789 net.cpp:52] Initializing net from parameters: 
state {
  phase: TEST
}
layer {
  name: "intercept"
  type: "HDF5Data"
  top: "data"
  top: "label"
  include {
    phase: TEST
  }
  hdf5_data_param {
    source: "/home/purduethu/scratch/radon/d/deng106/CNNStatisticalModel/distributions/input/20_distributions_900_sample_size_test-distributions-path.txt"
    batch_size: 20
  }
}
layer {
  name: "conv1"
  type: "Convolution"
  bottom: "data"
  top: "conv1"
  param {
    lr_mult: 1
  }
  param {
    lr_mult: 2
  }
  convolution_param {
    num_output: 64
    pad: 2
    kernel_size: 5
    stride: 1
    weight_filler {
      type: "gaussian"
      std: 0.0001
    }
    bias_filler {
      type: "constant"
    }
  }
}
layer {
  name: "relu1"
  type: "ReLU"
  bottom: "conv1"
  top: "conv1"
}
layer {
  name: "pool1"
  type: "Pooling"
  bottom: "conv1"
  top: "pool1"
  pooling_param {
    pool: MAX
    kernel_size: 3
    stride: 2
  }
}
layer {
  name: "conv2"
  type: "Convolution"
  bottom: "pool1"
  top: "conv2"
  param {
    lr_mult: 1
  }
  param {
    lr_mult: 2
  }
  convolution_param {
    num_output: 128
    pad: 2
    kernel_size: 5
    stride: 1
    weight_filler {
      type: "gaussian"
      std: 0.01
    }
    bias_filler {
      type: "constant"
    }
  }
}
layer {
  name: "relu2"
  type: "ReLU"
  bottom: "conv2"
  top: "conv2"
}
layer {
  name: "conv3"
  type: "Convolution"
  bottom: "conv2"
  top: "conv3"
  param {
    lr_mult: 1
  }
  param {
    lr_mult: 2
  }
  convolution_param {
    num_output: 128
    pad: 2
    kernel_size: 5
    stride: 1
    weight_filler {
      type: "gaussian"
      std: 0.01
    }
    bias_filler {
      type: "constant"
    }
  }
}
layer {
  name: "relu3"
  type: "ReLU"
  bottom: "conv3"
  top: "conv3"
}
layer {
  name: "pool3"
  type: "Pooling"
  bottom: "conv3"
  top: "pool3"
  pooling_param {
    pool: AVE
    kernel_size: 3
    stride: 2
  }
}
layer {
  name: "ip1"
  type: "InnerProduct"
  bottom: "pool3"
  top: "ip1"
  param {
    lr_mult: 1
  }
  param {
    lr_mult: 2
  }
  inner_product_param {
    num_output: 512
    weight_filler {
      type: "gaussian"
      std: 0.1
    }
    bias_filler {
      type: "constant"
    }
  }
}
layer {
  name: "ip2"
  type: "InnerProduct"
  bottom: "ip1"
  top: "ip2"
  param {
    lr_mult: 1
  }
  param {
    lr_mult: 2
  }
  inner_product_param {
    num_output: 256
    weight_filler {
      type: "gaussian"
      std: 0.1
    }
    bias_filler {
      type: "constant"
    }
  }
}
layer {
  name: "ip3"
  type: "InnerProduct"
  bottom: "ip2"
  top: "ip3"
  param {
    lr_mult: 1
  }
  param {
    lr_mult: 2
  }
  inner_product_param {
    num_output: 50
    weight_filler {
      type: "gaussian"
      std: 0.1
    }
    bias_filler {
      type: "constant"
    }
  }
}
layer {
  name: "accuracy"
  type: "Accuracy"
  bottom: "ip3"
  bottom: "label"
  top: "accuracy"
  include {
    phase: TEST
  }
}
layer {
  name: "loss"
  type: "SoftmaxWithLoss"
  bottom: "ip3"
  bottom: "label"
  top: "loss"
}
I0505 01:33:37.417438  1789 layer_factory.hpp:77] Creating layer intercept
I0505 01:33:37.417449  1789 net.cpp:94] Creating Layer intercept
I0505 01:33:37.417454  1789 net.cpp:409] intercept -> data
I0505 01:33:37.417464  1789 net.cpp:409] intercept -> label
I0505 01:33:37.417471  1789 hdf5_data_layer.cpp:79] Loading list of HDF5 filenames from: /home/purduethu/scratch/radon/d/deng106/CNNStatisticalModel/distributions/input/20_distributions_900_sample_size_test-distributions-path.txt
I0505 01:33:37.417493  1789 hdf5_data_layer.cpp:93] Number of HDF5 files: 1
I0505 01:33:37.569393  1789 net.cpp:144] Setting up intercept
I0505 01:33:37.569424  1789 net.cpp:151] Top shape: 20 1 30 30 (18000)
I0505 01:33:37.569430  1789 net.cpp:151] Top shape: 20 (20)
I0505 01:33:37.569433  1789 net.cpp:159] Memory required for data: 72080
I0505 01:33:37.569440  1789 layer_factory.hpp:77] Creating layer label_intercept_1_split
I0505 01:33:37.569463  1789 net.cpp:94] Creating Layer label_intercept_1_split
I0505 01:33:37.569469  1789 net.cpp:435] label_intercept_1_split <- label
I0505 01:33:37.569475  1789 net.cpp:409] label_intercept_1_split -> label_intercept_1_split_0
I0505 01:33:37.569484  1789 net.cpp:409] label_intercept_1_split -> label_intercept_1_split_1
I0505 01:33:37.569512  1789 net.cpp:144] Setting up label_intercept_1_split
I0505 01:33:37.569519  1789 net.cpp:151] Top shape: 20 (20)
I0505 01:33:37.569522  1789 net.cpp:151] Top shape: 20 (20)
I0505 01:33:37.569533  1789 net.cpp:159] Memory required for data: 72240
I0505 01:33:37.569537  1789 layer_factory.hpp:77] Creating layer conv1
I0505 01:33:37.569550  1789 net.cpp:94] Creating Layer conv1
I0505 01:33:37.569553  1789 net.cpp:435] conv1 <- data
I0505 01:33:37.569558  1789 net.cpp:409] conv1 -> conv1
I0505 01:33:37.570798  1789 net.cpp:144] Setting up conv1
I0505 01:33:37.570812  1789 net.cpp:151] Top shape: 20 64 30 30 (1152000)
I0505 01:33:37.570816  1789 net.cpp:159] Memory required for data: 4680240
I0505 01:33:37.570827  1789 layer_factory.hpp:77] Creating layer relu1
I0505 01:33:37.570833  1789 net.cpp:94] Creating Layer relu1
I0505 01:33:37.570837  1789 net.cpp:435] relu1 <- conv1
I0505 01:33:37.570842  1789 net.cpp:396] relu1 -> conv1 (in-place)
I0505 01:33:37.570849  1789 net.cpp:144] Setting up relu1
I0505 01:33:37.570853  1789 net.cpp:151] Top shape: 20 64 30 30 (1152000)
I0505 01:33:37.570857  1789 net.cpp:159] Memory required for data: 9288240
I0505 01:33:37.570860  1789 layer_factory.hpp:77] Creating layer pool1
I0505 01:33:37.570868  1789 net.cpp:94] Creating Layer pool1
I0505 01:33:37.570870  1789 net.cpp:435] pool1 <- conv1
I0505 01:33:37.570875  1789 net.cpp:409] pool1 -> pool1
I0505 01:33:37.570909  1789 net.cpp:144] Setting up pool1
I0505 01:33:37.570915  1789 net.cpp:151] Top shape: 20 64 15 15 (288000)
I0505 01:33:37.570919  1789 net.cpp:159] Memory required for data: 10440240
I0505 01:33:37.570922  1789 layer_factory.hpp:77] Creating layer conv2
I0505 01:33:37.570930  1789 net.cpp:94] Creating Layer conv2
I0505 01:33:37.570935  1789 net.cpp:435] conv2 <- pool1
I0505 01:33:37.570940  1789 net.cpp:409] conv2 -> conv2
I0505 01:33:37.578932  1789 net.cpp:144] Setting up conv2
I0505 01:33:37.578954  1789 net.cpp:151] Top shape: 20 128 15 15 (576000)
I0505 01:33:37.578958  1789 net.cpp:159] Memory required for data: 12744240
I0505 01:33:37.578969  1789 layer_factory.hpp:77] Creating layer relu2
I0505 01:33:37.578976  1789 net.cpp:94] Creating Layer relu2
I0505 01:33:37.578980  1789 net.cpp:435] relu2 <- conv2
I0505 01:33:37.578985  1789 net.cpp:396] relu2 -> conv2 (in-place)
I0505 01:33:37.578994  1789 net.cpp:144] Setting up relu2
I0505 01:33:37.578999  1789 net.cpp:151] Top shape: 20 128 15 15 (576000)
I0505 01:33:37.579001  1789 net.cpp:159] Memory required for data: 15048240
I0505 01:33:37.579005  1789 layer_factory.hpp:77] Creating layer conv3
I0505 01:33:37.579015  1789 net.cpp:94] Creating Layer conv3
I0505 01:33:37.579017  1789 net.cpp:435] conv3 <- conv2
I0505 01:33:37.579022  1789 net.cpp:409] conv3 -> conv3
I0505 01:33:37.594350  1789 net.cpp:144] Setting up conv3
I0505 01:33:37.594382  1789 net.cpp:151] Top shape: 20 128 15 15 (576000)
I0505 01:33:37.594385  1789 net.cpp:159] Memory required for data: 17352240
I0505 01:33:37.594398  1789 layer_factory.hpp:77] Creating layer relu3
I0505 01:33:37.594408  1789 net.cpp:94] Creating Layer relu3
I0505 01:33:37.594413  1789 net.cpp:435] relu3 <- conv3
I0505 01:33:37.594418  1789 net.cpp:396] relu3 -> conv3 (in-place)
I0505 01:33:37.594426  1789 net.cpp:144] Setting up relu3
I0505 01:33:37.594431  1789 net.cpp:151] Top shape: 20 128 15 15 (576000)
I0505 01:33:37.594434  1789 net.cpp:159] Memory required for data: 19656240
I0505 01:33:37.594439  1789 layer_factory.hpp:77] Creating layer pool3
I0505 01:33:37.594444  1789 net.cpp:94] Creating Layer pool3
I0505 01:33:37.594447  1789 net.cpp:435] pool3 <- conv3
I0505 01:33:37.594452  1789 net.cpp:409] pool3 -> pool3
I0505 01:33:37.594485  1789 net.cpp:144] Setting up pool3
I0505 01:33:37.594499  1789 net.cpp:151] Top shape: 20 128 7 7 (125440)
I0505 01:33:37.594503  1789 net.cpp:159] Memory required for data: 20158000
I0505 01:33:37.594507  1789 layer_factory.hpp:77] Creating layer ip1
I0505 01:33:37.594514  1789 net.cpp:94] Creating Layer ip1
I0505 01:33:37.594518  1789 net.cpp:435] ip1 <- pool3
I0505 01:33:37.594522  1789 net.cpp:409] ip1 -> ip1
I0505 01:33:37.675928  1789 net.cpp:144] Setting up ip1
I0505 01:33:37.675966  1789 net.cpp:151] Top shape: 20 512 (10240)
I0505 01:33:37.675969  1789 net.cpp:159] Memory required for data: 20198960
I0505 01:33:37.675993  1789 layer_factory.hpp:77] Creating layer ip2
I0505 01:33:37.676004  1789 net.cpp:94] Creating Layer ip2
I0505 01:33:37.676008  1789 net.cpp:435] ip2 <- ip1
I0505 01:33:37.676017  1789 net.cpp:409] ip2 -> ip2
I0505 01:33:37.679318  1789 net.cpp:144] Setting up ip2
I0505 01:33:37.679330  1789 net.cpp:151] Top shape: 20 256 (5120)
I0505 01:33:37.679334  1789 net.cpp:159] Memory required for data: 20219440
I0505 01:33:37.679342  1789 layer_factory.hpp:77] Creating layer ip3
I0505 01:33:37.679350  1789 net.cpp:94] Creating Layer ip3
I0505 01:33:37.679354  1789 net.cpp:435] ip3 <- ip2
I0505 01:33:37.679359  1789 net.cpp:409] ip3 -> ip3
I0505 01:33:37.679752  1789 net.cpp:144] Setting up ip3
I0505 01:33:37.679759  1789 net.cpp:151] Top shape: 20 50 (1000)
I0505 01:33:37.679764  1789 net.cpp:159] Memory required for data: 20223440
I0505 01:33:37.679767  1789 layer_factory.hpp:77] Creating layer ip3_ip3_0_split
I0505 01:33:37.679774  1789 net.cpp:94] Creating Layer ip3_ip3_0_split
I0505 01:33:37.679777  1789 net.cpp:435] ip3_ip3_0_split <- ip3
I0505 01:33:37.679781  1789 net.cpp:409] ip3_ip3_0_split -> ip3_ip3_0_split_0
I0505 01:33:37.679787  1789 net.cpp:409] ip3_ip3_0_split -> ip3_ip3_0_split_1
I0505 01:33:37.679811  1789 net.cpp:144] Setting up ip3_ip3_0_split
I0505 01:33:37.679817  1789 net.cpp:151] Top shape: 20 50 (1000)
I0505 01:33:37.679821  1789 net.cpp:151] Top shape: 20 50 (1000)
I0505 01:33:37.679824  1789 net.cpp:159] Memory required for data: 20231440
I0505 01:33:37.679827  1789 layer_factory.hpp:77] Creating layer accuracy
I0505 01:33:37.679833  1789 net.cpp:94] Creating Layer accuracy
I0505 01:33:37.679836  1789 net.cpp:435] accuracy <- ip3_ip3_0_split_0
I0505 01:33:37.679841  1789 net.cpp:435] accuracy <- label_intercept_1_split_0
I0505 01:33:37.679846  1789 net.cpp:409] accuracy -> accuracy
…
