…
I0505 09:07:25.011891  5703 net.cpp:323] The NetState phase (0) differed from the phase (1) specified by a rule in layer intercept
I0505 09:07:25.011905  5703 net.cpp:323] The NetState phase (0) differed from the phase (1) specified by a rule in layer accuracy
I0505 09:07:25.011982  5703 net.cpp:52] Initializing net from parameters: 
state {
  phase: TRAIN
}
layer {
  name: "parameters"
  type: "HDF5Data"
  top: "data"
  top: "label"
  include {
    phase: TRAIN
  }
  hdf5_data_param {
    source: "/home/purduethu/scratch/radon/d/deng106/CNNStatisticalModel/distributions/input/20_distributions_400_sample_size_train-distributions-path.txt"
    batch_size: 20
  }
}
layer {
  name: "conv1"
  type: "Convolution"
  bottom: "data"
  top: "conv1"
  param {
    lr_mult: 1
  }
  param {
    lr_mult: 2
  }
  convolution_param {
    num_output: 64
    pad: 2
    kernel_size: 5
    stride: 1
    weight_filler {
      type: "gaussian"
      std: 0.0001
    }
    bias_filler {
      type: "constant"
    }
  }
}
layer {
  name: "relu1"
  type: "ReLU"
  bottom: "conv1"
  top: "conv1"
}
layer {
  name: "pool1"
  type: "Pooling"
  bottom: "conv1"
  top: "pool1"
  pooling_param {
    pool: MAX
    kernel_size: 3
    stride: 2
  }
}
layer {
  name: "conv2"
  type: "Convolution"
  bottom: "pool1"
  top: "conv2"
  param {
    lr_mult: 1
  }
  param {
    lr_mult: 2
  }
  convolution_param {
    num_output: 128
    pad: 2
    kernel_size: 5
    stride: 1
    weight_filler {
      type: "gaussian"
      std: 0.01
    }
    bias_filler {
      type: "constant"
    }
  }
}
layer {
  name: "relu2"
  type: "ReLU"
  bottom: "conv2"
  top: "conv2"
}
layer {
  name: "conv3"
  type: "Convolution"
  bottom: "conv2"
  top: "conv3"
  param {
    lr_mult: 1
  }
  param {
    lr_mult: 2
  }
  convolution_param {
    num_output: 128
    pad: 2
    kernel_size: 5
    stride: 1
    weight_filler {
      type: "gaussian"
      std: 0.01
    }
    bias_filler {
      type: "constant"
    }
  }
}
layer {
  name: "relu3"
  type: "ReLU"
  bottom: "conv3"
  top: "conv3"
}
layer {
  name: "pool3"
  type: "Pooling"
  bottom: "conv3"
  top: "pool3"
  pooling_param {
    pool: AVE
    kernel_size: 3
    stride: 2
  }
}
layer {
  name: "ip1"
  type: "InnerProduct"
  bottom: "pool3"
  top: "ip1"
  param {
    lr_mult: 1
  }
  param {
    lr_mult: 2
  }
  inner_product_param {
    num_output: 512
    weight_filler {
      type: "gaussian"
      std: 0.1
    }
    bias_filler {
      type: "constant"
    }
  }
}
layer {
  name: "ip2"
  type: "InnerProduct"
  bottom: "ip1"
  top: "ip2"
  param {
    lr_mult: 1
  }
  param {
    lr_mult: 2
  }
  inner_product_param {
    num_output: 256
    weight_filler {
      type: "gaussian"
      std: 0.1
    }
    bias_filler {
      type: "constant"
    }
  }
}
layer {
  name: "ip3"
  type: "InnerProduct"
  bottom: "ip2"
  top: "ip3"
  param {
    lr_mult: 1
  }
  param {
    lr_mult: 2
  }
  inner_product_param {
    num_output: 50
    weight_filler {
      type: "gaussian"
      std: 0.1
    }
    bias_filler {
      type: "constant"
    }
  }
}
layer {
  name: "loss"
  type: "SoftmaxWithLoss"
  bottom: "ip3"
  bottom: "label"
  top: "loss"
}
I0505 09:07:25.012044  5703 layer_factory.hpp:77] Creating layer parameters
I0505 09:07:25.012060  5703 net.cpp:94] Creating Layer parameters
I0505 09:07:25.012073  5703 net.cpp:409] parameters -> data
I0505 09:07:25.012092  5703 net.cpp:409] parameters -> label
I0505 09:07:25.012102  5703 hdf5_data_layer.cpp:79] Loading list of HDF5 filenames from: /home/purduethu/scratch/radon/d/deng106/CNNStatisticalModel/distributions/input/20_distributions_400_sample_size_train-distributions-path.txt
I0505 09:07:25.012125  5703 hdf5_data_layer.cpp:93] Number of HDF5 files: 1
I0505 09:07:25.012605  5703 hdf5.cpp:32] Datatype class: H5T_FLOAT
I0505 09:07:25.264045  5703 hdf5.cpp:35] Datatype class: H5T_INTEGER
I0505 09:07:25.265765  5703 net.cpp:144] Setting up parameters
I0505 09:07:25.265786  5703 net.cpp:151] Top shape: 20 1 20 20 (8000)
I0505 09:07:25.265791  5703 net.cpp:151] Top shape: 20 (20)
I0505 09:07:25.265795  5703 net.cpp:159] Memory required for data: 32080
I0505 09:07:25.265803  5703 layer_factory.hpp:77] Creating layer conv1
I0505 09:07:25.265826  5703 net.cpp:94] Creating Layer conv1
I0505 09:07:25.265831  5703 net.cpp:435] conv1 <- data
I0505 09:07:25.265842  5703 net.cpp:409] conv1 -> conv1
I0505 09:07:25.270469  5703 net.cpp:144] Setting up conv1
I0505 09:07:25.270483  5703 net.cpp:151] Top shape: 20 64 20 20 (512000)
I0505 09:07:25.270488  5703 net.cpp:159] Memory required for data: 2080080
I0505 09:07:25.270499  5703 layer_factory.hpp:77] Creating layer relu1
I0505 09:07:25.270508  5703 net.cpp:94] Creating Layer relu1
I0505 09:07:25.270511  5703 net.cpp:435] relu1 <- conv1
I0505 09:07:25.270515  5703 net.cpp:396] relu1 -> conv1 (in-place)
I0505 09:07:25.270530  5703 net.cpp:144] Setting up relu1
I0505 09:07:25.270536  5703 net.cpp:151] Top shape: 20 64 20 20 (512000)
I0505 09:07:25.270539  5703 net.cpp:159] Memory required for data: 4128080
I0505 09:07:25.270542  5703 layer_factory.hpp:77] Creating layer pool1
I0505 09:07:25.270550  5703 net.cpp:94] Creating Layer pool1
I0505 09:07:25.270552  5703 net.cpp:435] pool1 <- conv1
I0505 09:07:25.270557  5703 net.cpp:409] pool1 -> pool1
I0505 09:07:25.270596  5703 net.cpp:144] Setting up pool1
I0505 09:07:25.270603  5703 net.cpp:151] Top shape: 20 64 10 10 (128000)
I0505 09:07:25.270606  5703 net.cpp:159] Memory required for data: 4640080
I0505 09:07:25.270609  5703 layer_factory.hpp:77] Creating layer conv2
I0505 09:07:25.270617  5703 net.cpp:94] Creating Layer conv2
I0505 09:07:25.270622  5703 net.cpp:435] conv2 <- pool1
I0505 09:07:25.270627  5703 net.cpp:409] conv2 -> conv2
I0505 09:07:25.280145  5703 net.cpp:144] Setting up conv2
I0505 09:07:25.280161  5703 net.cpp:151] Top shape: 20 128 10 10 (256000)
I0505 09:07:25.280165  5703 net.cpp:159] Memory required for data: 5664080
I0505 09:07:25.280174  5703 layer_factory.hpp:77] Creating layer relu2
I0505 09:07:25.280179  5703 net.cpp:94] Creating Layer relu2
I0505 09:07:25.280184  5703 net.cpp:435] relu2 <- conv2
I0505 09:07:25.280189  5703 net.cpp:396] relu2 -> conv2 (in-place)
I0505 09:07:25.280195  5703 net.cpp:144] Setting up relu2
I0505 09:07:25.280200  5703 net.cpp:151] Top shape: 20 128 10 10 (256000)
I0505 09:07:25.280203  5703 net.cpp:159] Memory required for data: 6688080
I0505 09:07:25.280206  5703 layer_factory.hpp:77] Creating layer conv3
I0505 09:07:25.280215  5703 net.cpp:94] Creating Layer conv3
I0505 09:07:25.280217  5703 net.cpp:435] conv3 <- conv2
I0505 09:07:25.280222  5703 net.cpp:409] conv3 -> conv3
I0505 09:07:25.297206  5703 net.cpp:144] Setting up conv3
I0505 09:07:25.297221  5703 net.cpp:151] Top shape: 20 128 10 10 (256000)
I0505 09:07:25.297226  5703 net.cpp:159] Memory required for data: 7712080
I0505 09:07:25.297240  5703 layer_factory.hpp:77] Creating layer relu3
I0505 09:07:25.297248  5703 net.cpp:94] Creating Layer relu3
I0505 09:07:25.297252  5703 net.cpp:435] relu3 <- conv3
I0505 09:07:25.297264  5703 net.cpp:396] relu3 -> conv3 (in-place)
I0505 09:07:25.297271  5703 net.cpp:144] Setting up relu3
I0505 09:07:25.297276  5703 net.cpp:151] Top shape: 20 128 10 10 (256000)
I0505 09:07:25.297279  5703 net.cpp:159] Memory required for data: 8736080
I0505 09:07:25.297282  5703 layer_factory.hpp:77] Creating layer pool3
I0505 09:07:25.297288  5703 net.cpp:94] Creating Layer pool3
I0505 09:07:25.297298  5703 net.cpp:435] pool3 <- conv3
I0505 09:07:25.297303  5703 net.cpp:409] pool3 -> pool3
I0505 09:07:25.297338  5703 net.cpp:144] Setting up pool3
I0505 09:07:25.297344  5703 net.cpp:151] Top shape: 20 128 5 5 (64000)
I0505 09:07:25.297348  5703 net.cpp:159] Memory required for data: 8992080
I0505 09:07:25.297351  5703 layer_factory.hpp:77] Creating layer ip1
I0505 09:07:25.297361  5703 net.cpp:94] Creating Layer ip1
I0505 09:07:25.297364  5703 net.cpp:435] ip1 <- pool3
I0505 09:07:25.297369  5703 net.cpp:409] ip1 -> ip1
I0505 09:07:25.336766  5703 net.cpp:144] Setting up ip1
I0505 09:07:25.336782  5703 net.cpp:151] Top shape: 20 512 (10240)
I0505 09:07:25.336786  5703 net.cpp:159] Memory required for data: 9033040
I0505 09:07:25.336792  5703 layer_factory.hpp:77] Creating layer ip2
I0505 09:07:25.336799  5703 net.cpp:94] Creating Layer ip2
I0505 09:07:25.336803  5703 net.cpp:435] ip2 <- ip1
I0505 09:07:25.336808  5703 net.cpp:409] ip2 -> ip2
I0505 09:07:25.339905  5703 net.cpp:144] Setting up ip2
I0505 09:07:25.339912  5703 net.cpp:151] Top shape: 20 256 (5120)
I0505 09:07:25.339915  5703 net.cpp:159] Memory required for data: 9053520
I0505 09:07:25.339922  5703 layer_factory.hpp:77] Creating layer ip3
I0505 09:07:25.339928  5703 net.cpp:94] Creating Layer ip3
I0505 09:07:25.339932  5703 net.cpp:435] ip3 <- ip2
I0505 09:07:25.339936  5703 net.cpp:409] ip3 -> ip3
I0505 09:07:25.340963  5703 net.cpp:144] Setting up ip3
I0505 09:07:25.340975  5703 net.cpp:151] Top shape: 20 50 (1000)
I0505 09:07:25.340979  5703 net.cpp:159] Memory required for data: 9057520
I0505 09:07:25.340986  5703 layer_factory.hpp:77] Creating layer loss
I0505 09:07:25.340991  5703 net.cpp:94] Creating Layer loss
I0505 09:07:25.340994  5703 net.cpp:435] loss <- ip3
I0505 09:07:25.340998  5703 net.cpp:435] loss <- label
I0505 09:07:25.341004  5703 net.cpp:409] loss -> loss
I0505 09:07:25.341019  5703 layer_factory.hpp:77] Creating layer loss
…
I0505 09:07:25.341437  5703 solver.cpp:181] Creating test net (#0) specified by net file: ./protocol/dis_20_400_dimension.protocol_distribution
I0505 09:07:25.341461  5703 net.cpp:323] The NetState phase (1) differed from the phase (0) specified by a rule in layer parameters
I0505 09:07:25.341552  5703 net.cpp:52] Initializing net from parameters: 
state {
  phase: TEST
}
layer {
  name: "intercept"
  type: "HDF5Data"
  top: "data"
  top: "label"
  include {
    phase: TEST
  }
  hdf5_data_param {
    source: "/home/purduethu/scratch/radon/d/deng106/CNNStatisticalModel/distributions/input/20_distributions_400_sample_size_test-distributions-path.txt"
    batch_size: 20
  }
}
layer {
  name: "conv1"
  type: "Convolution"
  bottom: "data"
  top: "conv1"
  param {
    lr_mult: 1
  }
  param {
    lr_mult: 2
  }
  convolution_param {
    num_output: 64
    pad: 2
    kernel_size: 5
    stride: 1
    weight_filler {
      type: "gaussian"
      std: 0.0001
    }
    bias_filler {
      type: "constant"
    }
  }
}
layer {
  name: "relu1"
  type: "ReLU"
  bottom: "conv1"
  top: "conv1"
}
layer {
  name: "pool1"
  type: "Pooling"
  bottom: "conv1"
  top: "pool1"
  pooling_param {
    pool: MAX
    kernel_size: 3
    stride: 2
  }
}
layer {
  name: "conv2"
  type: "Convolution"
  bottom: "pool1"
  top: "conv2"
  param {
    lr_mult: 1
  }
  param {
    lr_mult: 2
  }
  convolution_param {
    num_output: 128
    pad: 2
    kernel_size: 5
    stride: 1
    weight_filler {
      type: "gaussian"
      std: 0.01
    }
    bias_filler {
      type: "constant"
    }
  }
}
layer {
  name: "relu2"
  type: "ReLU"
  bottom: "conv2"
  top: "conv2"
}
layer {
  name: "conv3"
  type: "Convolution"
  bottom: "conv2"
  top: "conv3"
  param {
    lr_mult: 1
  }
  param {
    lr_mult: 2
  }
  convolution_param {
    num_output: 128
    pad: 2
    kernel_size: 5
    stride: 1
    weight_filler {
      type: "gaussian"
      std: 0.01
    }
    bias_filler {
      type: "constant"
    }
  }
}
layer {
  name: "relu3"
  type: "ReLU"
  bottom: "conv3"
  top: "conv3"
}
layer {
  name: "pool3"
  type: "Pooling"
  bottom: "conv3"
  top: "pool3"
  pooling_param {
    pool: AVE
    kernel_size: 3
    stride: 2
  }
}
layer {
  name: "ip1"
  type: "InnerProduct"
  bottom: "pool3"
  top: "ip1"
  param {
    lr_mult: 1
  }
  param {
    lr_mult: 2
  }
  inner_product_param {
    num_output: 512
    weight_filler {
      type: "gaussian"
      std: 0.1
    }
    bias_filler {
      type: "constant"
    }
  }
}
layer {
  name: "ip2"
  type: "InnerProduct"
  bottom: "ip1"
  top: "ip2"
  param {
    lr_mult: 1
  }
  param {
    lr_mult: 2
  }
  inner_product_param {
    num_output: 256
    weight_filler {
      type: "gaussian"
      std: 0.1
    }
    bias_filler {
      type: "constant"
    }
  }
}
layer {
  name: "ip3"
  type: "InnerProduct"
  bottom: "ip2"
  top: "ip3"
  param {
    lr_mult: 1
  }
  param {
    lr_mult: 2
  }
  inner_product_param {
    num_output: 50
    weight_filler {
      type: "gaussian"
      std: 0.1
    }
    bias_filler {
      type: "constant"
    }
  }
}
layer {
  name: "accuracy"
  type: "Accuracy"
  bottom: "ip3"
  bottom: "label"
  top: "accuracy"
  include {
    phase: TEST
  }
}
layer {
  name: "loss"
  type: "SoftmaxWithLoss"
  bottom: "ip3"
  bottom: "label"
  top: "loss"
}
I0505 09:07:25.341612  5703 layer_factory.hpp:77] Creating layer intercept
I0505 09:07:25.341620  5703 net.cpp:94] Creating Layer intercept
I0505 09:07:25.341625  5703 net.cpp:409] intercept -> data
I0505 09:07:25.341631  5703 net.cpp:409] intercept -> label
I0505 09:07:25.341637  5703 hdf5_data_layer.cpp:79] Loading list of HDF5 filenames from: /home/purduethu/scratch/radon/d/deng106/CNNStatisticalModel/distributions/input/20_distributions_400_sample_size_test-distributions-path.txt
I0505 09:07:25.341655  5703 hdf5_data_layer.cpp:93] Number of HDF5 files: 1
I0505 09:07:25.405711  5703 net.cpp:144] Setting up intercept
I0505 09:07:25.405741  5703 net.cpp:151] Top shape: 20 1 20 20 (8000)
I0505 09:07:25.405746  5703 net.cpp:151] Top shape: 20 (20)
I0505 09:07:25.405750  5703 net.cpp:159] Memory required for data: 32080
I0505 09:07:25.405756  5703 layer_factory.hpp:77] Creating layer label_intercept_1_split
I0505 09:07:25.405778  5703 net.cpp:94] Creating Layer label_intercept_1_split
I0505 09:07:25.405783  5703 net.cpp:435] label_intercept_1_split <- label
I0505 09:07:25.405789  5703 net.cpp:409] label_intercept_1_split -> label_intercept_1_split_0
I0505 09:07:25.405797  5703 net.cpp:409] label_intercept_1_split -> label_intercept_1_split_1
I0505 09:07:25.405824  5703 net.cpp:144] Setting up label_intercept_1_split
I0505 09:07:25.405830  5703 net.cpp:151] Top shape: 20 (20)
I0505 09:07:25.405833  5703 net.cpp:151] Top shape: 20 (20)
I0505 09:07:25.405836  5703 net.cpp:159] Memory required for data: 32240
I0505 09:07:25.405848  5703 layer_factory.hpp:77] Creating layer conv1
I0505 09:07:25.405858  5703 net.cpp:94] Creating Layer conv1
I0505 09:07:25.405861  5703 net.cpp:435] conv1 <- data
I0505 09:07:25.405866  5703 net.cpp:409] conv1 -> conv1
I0505 09:07:25.406515  5703 net.cpp:144] Setting up conv1
I0505 09:07:25.406528  5703 net.cpp:151] Top shape: 20 64 20 20 (512000)
I0505 09:07:25.406533  5703 net.cpp:159] Memory required for data: 2080240
I0505 09:07:25.406541  5703 layer_factory.hpp:77] Creating layer relu1
I0505 09:07:25.406548  5703 net.cpp:94] Creating Layer relu1
I0505 09:07:25.406551  5703 net.cpp:435] relu1 <- conv1
I0505 09:07:25.406556  5703 net.cpp:396] relu1 -> conv1 (in-place)
I0505 09:07:25.406563  5703 net.cpp:144] Setting up relu1
I0505 09:07:25.406568  5703 net.cpp:151] Top shape: 20 64 20 20 (512000)
I0505 09:07:25.406570  5703 net.cpp:159] Memory required for data: 4128240
I0505 09:07:25.406574  5703 layer_factory.hpp:77] Creating layer pool1
I0505 09:07:25.406580  5703 net.cpp:94] Creating Layer pool1
I0505 09:07:25.406584  5703 net.cpp:435] pool1 <- conv1
I0505 09:07:25.406589  5703 net.cpp:409] pool1 -> pool1
I0505 09:07:25.406620  5703 net.cpp:144] Setting up pool1
I0505 09:07:25.406625  5703 net.cpp:151] Top shape: 20 64 10 10 (128000)
I0505 09:07:25.406628  5703 net.cpp:159] Memory required for data: 4640240
I0505 09:07:25.406631  5703 layer_factory.hpp:77] Creating layer conv2
I0505 09:07:25.406638  5703 net.cpp:94] Creating Layer conv2
I0505 09:07:25.406642  5703 net.cpp:435] conv2 <- pool1
I0505 09:07:25.406646  5703 net.cpp:409] conv2 -> conv2
I0505 09:07:25.413816  5703 net.cpp:144] Setting up conv2
I0505 09:07:25.413842  5703 net.cpp:151] Top shape: 20 128 10 10 (256000)
I0505 09:07:25.413851  5703 net.cpp:159] Memory required for data: 5664240
I0505 09:07:25.413866  5703 layer_factory.hpp:77] Creating layer relu2
I0505 09:07:25.413877  5703 net.cpp:94] Creating Layer relu2
I0505 09:07:25.413884  5703 net.cpp:435] relu2 <- conv2
I0505 09:07:25.413893  5703 net.cpp:396] relu2 -> conv2 (in-place)
I0505 09:07:25.413907  5703 net.cpp:144] Setting up relu2
I0505 09:07:25.413915  5703 net.cpp:151] Top shape: 20 128 10 10 (256000)
I0505 09:07:25.413923  5703 net.cpp:159] Memory required for data: 6688240
I0505 09:07:25.413928  5703 layer_factory.hpp:77] Creating layer conv3
I0505 09:07:25.413942  5703 net.cpp:94] Creating Layer conv3
I0505 09:07:25.413949  5703 net.cpp:435] conv3 <- conv2
I0505 09:07:25.413959  5703 net.cpp:409] conv3 -> conv3
I0505 09:07:25.427053  5703 net.cpp:144] Setting up conv3
I0505 09:07:25.427067  5703 net.cpp:151] Top shape: 20 128 10 10 (256000)
I0505 09:07:25.427072  5703 net.cpp:159] Memory required for data: 7712240
I0505 09:07:25.427080  5703 layer_factory.hpp:77] Creating layer relu3
I0505 09:07:25.427088  5703 net.cpp:94] Creating Layer relu3
I0505 09:07:25.427090  5703 net.cpp:435] relu3 <- conv3
I0505 09:07:25.427095  5703 net.cpp:396] relu3 -> conv3 (in-place)
I0505 09:07:25.427101  5703 net.cpp:144] Setting up relu3
I0505 09:07:25.427106  5703 net.cpp:151] Top shape: 20 128 10 10 (256000)
I0505 09:07:25.427109  5703 net.cpp:159] Memory required for data: 8736240
I0505 09:07:25.427112  5703 layer_factory.hpp:77] Creating layer pool3
I0505 09:07:25.427117  5703 net.cpp:94] Creating Layer pool3
I0505 09:07:25.427120  5703 net.cpp:435] pool3 <- conv3
I0505 09:07:25.427125  5703 net.cpp:409] pool3 -> pool3
I0505 09:07:25.427150  5703 net.cpp:144] Setting up pool3
I0505 09:07:25.427160  5703 net.cpp:151] Top shape: 20 128 5 5 (64000)
I0505 09:07:25.427163  5703 net.cpp:159] Memory required for data: 8992240
I0505 09:07:25.427166  5703 layer_factory.hpp:77] Creating layer ip1
I0505 09:07:25.427173  5703 net.cpp:94] Creating Layer ip1
I0505 09:07:25.427176  5703 net.cpp:435] ip1 <- pool3
I0505 09:07:25.427181  5703 net.cpp:409] ip1 -> ip1
I0505 09:07:25.466532  5703 net.cpp:144] Setting up ip1
I0505 09:07:25.466548  5703 net.cpp:151] Top shape: 20 512 (10240)
I0505 09:07:25.466552  5703 net.cpp:159] Memory required for data: 9033200
I0505 09:07:25.466565  5703 layer_factory.hpp:77] Creating layer ip2
I0505 09:07:25.466572  5703 net.cpp:94] Creating Layer ip2
I0505 09:07:25.466576  5703 net.cpp:435] ip2 <- ip1
I0505 09:07:25.466581  5703 net.cpp:409] ip2 -> ip2
I0505 09:07:25.469665  5703 net.cpp:144] Setting up ip2
I0505 09:07:25.469673  5703 net.cpp:151] Top shape: 20 256 (5120)
I0505 09:07:25.469676  5703 net.cpp:159] Memory required for data: 9053680
I0505 09:07:25.469683  5703 layer_factory.hpp:77] Creating layer ip3
I0505 09:07:25.469689  5703 net.cpp:94] Creating Layer ip3
I0505 09:07:25.469692  5703 net.cpp:435] ip3 <- ip2
I0505 09:07:25.469696  5703 net.cpp:409] ip3 -> ip3
I0505 09:07:25.470062  5703 net.cpp:144] Setting up ip3
I0505 09:07:25.470068  5703 net.cpp:151] Top shape: 20 50 (1000)
I0505 09:07:25.470072  5703 net.cpp:159] Memory required for data: 9057680
I0505 09:07:25.470077  5703 layer_factory.hpp:77] Creating layer ip3_ip3_0_split
I0505 09:07:25.470082  5703 net.cpp:94] Creating Layer ip3_ip3_0_split
I0505 09:07:25.470085  5703 net.cpp:435] ip3_ip3_0_split <- ip3
I0505 09:07:25.470089  5703 net.cpp:409] ip3_ip3_0_split -> ip3_ip3_0_split_0
I0505 09:07:25.470094  5703 net.cpp:409] ip3_ip3_0_split -> ip3_ip3_0_split_1
I0505 09:07:25.470118  5703 net.cpp:144] Setting up ip3_ip3_0_split
I0505 09:07:25.470122  5703 net.cpp:151] Top shape: 20 50 (1000)
I0505 09:07:25.470126  5703 net.cpp:151] Top shape: 20 50 (1000)
I0505 09:07:25.470129  5703 net.cpp:159] Memory required for data: 9065680
I0505 09:07:25.470132  5703 layer_factory.hpp:77] Creating layer accuracy
I0505 09:07:25.470137  5703 net.cpp:94] Creating Layer accuracy
I0505 09:07:25.470141  5703 net.cpp:435] accuracy <- ip3_ip3_0_split_0
I0505 09:07:25.470144  5703 net.cpp:435] accuracy <- label_intercept_1_split_0
I0505 09:07:25.470149  5703 net.cpp:409] accuracy -> accuracy
…
