…
I0504 08:43:02.749686 25879 net.cpp:323] The NetState phase (0) differed from the phase (1) specified by a rule in layer intercept
I0504 08:43:02.749702 25879 net.cpp:323] The NetState phase (0) differed from the phase (1) specified by a rule in layer loss
I0504 08:43:02.749783 25879 net.cpp:52] Initializing net from parameters: 
state {
  phase: TRAIN
}
layer {
  name: "parameters"
  type: "HDF5Data"
  top: "data"
  top: "label"
  include {
    phase: TRAIN
  }
  hdf5_data_param {
    source: "/home/purduethu/scratch/radon/d/deng106/CNNStatisticalModel/distributions/input/20_distributions_100_sample_size_train-parameters-path.txt"
    batch_size: 20
  }
}
layer {
  name: "conv1"
  type: "Convolution"
  bottom: "data"
  top: "conv1"
  param {
    lr_mult: 1
  }
  param {
    lr_mult: 2
  }
  convolution_param {
    num_output: 64
    pad: 2
    kernel_size: 5
    stride: 1
    weight_filler {
      type: "gaussian"
      std: 0.0001
    }
    bias_filler {
      type: "constant"
    }
  }
}
layer {
  name: "relu1"
  type: "ReLU"
  bottom: "conv1"
  top: "conv1"
}
layer {
  name: "conv2"
  type: "Convolution"
  bottom: "conv1"
  top: "conv2"
  param {
    lr_mult: 1
  }
  param {
    lr_mult: 2
  }
  convolution_param {
    num_output: 64
    pad: 2
    kernel_size: 5
    stride: 1
    weight_filler {
      type: "gaussian"
      std: 0.01
    }
    bias_filler {
      type: "constant"
    }
  }
}
layer {
  name: "relu2"
  type: "ReLU"
  bottom: "conv2"
  top: "conv2"
}
layer {
  name: "pool2"
  type: "Pooling"
  bottom: "conv2"
  top: "pool2"
  pooling_param {
    pool: MAX
    kernel_size: 3
    stride: 2
  }
}
layer {
  name: "conv3"
  type: "Convolution"
  bottom: "pool2"
  top: "conv3"
  param {
    lr_mult: 1
  }
  param {
    lr_mult: 2
  }
  convolution_param {
    num_output: 128
    pad: 2
    kernel_size: 5
    stride: 1
    weight_filler {
      type: "gaussian"
      std: 0.01
    }
    bias_filler {
      type: "constant"
    }
  }
}
layer {
  name: "relu3"
  type: "ReLU"
  bottom: "conv3"
  top: "conv3"
}
layer {
  name: "conv4"
  type: "Convolution"
  bottom: "conv3"
  top: "conv4"
  param {
    lr_mult: 1
  }
  param {
    lr_mult: 2
  }
  convolution_param {
    num_output: 128
    pad: 2
    kernel_size: 5
    stride: 1
    weight_filler {
      type: "gaussian"
      std: 0.01
    }
    bias_filler {
      type: "constant"
    }
  }
}
layer {
  name: "relu4"
  type: "ReLU"
  bottom: "conv4"
  top: "conv4"
}
layer {
  name: "conv5"
  type: "Convolution"
  bottom: "conv4"
  top: "conv5"
  param {
    lr_mult: 1
  }
  param {
    lr_mult: 2
  }
  convolution_param {
    num_output: 128
    pad: 2
    kernel_size: 5
    stride: 1
    weight_filler {
      type: "gaussian"
      std: 0.01
    }
    bias_filler {
      type: "constant"
    }
  }
}
layer {
  name: "relu5"
  type: "ReLU"
  bottom: "conv5"
  top: "conv5"
}
layer {
  name: "pool5"
  type: "Pooling"
  bottom: "conv5"
  top: "pool5"
  pooling_param {
    pool: AVE
    kernel_size: 3
    stride: 2
  }
}
layer {
  name: "ip1"
  type: "InnerProduct"
  bottom: "pool5"
  top: "ip1"
  param {
    lr_mult: 1
  }
  param {
    lr_mult: 2
  }
  inner_product_param {
    num_output: 1024
    weight_filler {
      type: "gaussian"
      std: 0.1
    }
    bias_filler {
      type: "constant"
    }
  }
}
layer {
  name: "ip2"
  type: "InnerProduct"
  bottom: "ip1"
  top: "ip2"
  param {
    lr_mult: 1
  }
  param {
    lr_mult: 2
  }
  inner_product_param {
    num_output: 512
    weight_filler {
      type: "gaussian"
      std: 0.1
    }
    bias_filler {
      type: "constant"
    }
  }
}
layer {
  name: "ip3"
  type: "InnerProduct"
  bottom: "ip2"
  top: "ip3"
  param {
    lr_mult: 1
  }
  param {
    lr_mult: 2
  }
  inner_product_param {
    num_output: 1
    weight_filler {
      type: "gaussian"
      std: 0.1
    }
    bias_filler {
      type: "constant"
    }
  }
}
layer {
  name: "loss"
  type: "HuberLoss"
  bottom: "ip3"
  bottom: "label"
  top: "loss"
  include {
    phase: TRAIN
  }
}
I0504 08:43:02.749835 25879 layer_factory.hpp:77] Creating layer parameters
I0504 08:43:02.749851 25879 net.cpp:94] Creating Layer parameters
I0504 08:43:02.749856 25879 net.cpp:409] parameters -> data
I0504 08:43:02.749866 25879 net.cpp:409] parameters -> label
I0504 08:43:02.749872 25879 hdf5_data_layer.cpp:79] Loading list of HDF5 filenames from: /home/purduethu/scratch/radon/d/deng106/CNNStatisticalModel/distributions/input/20_distributions_100_sample_size_train-parameters-path.txt
I0504 08:43:02.749886 25879 hdf5_data_layer.cpp:93] Number of HDF5 files: 1
I0504 08:43:02.750408 25879 hdf5.cpp:32] Datatype class: H5T_FLOAT
I0504 08:43:02.818545 25879 net.cpp:144] Setting up parameters
I0504 08:43:02.818575 25879 net.cpp:151] Top shape: 20 1 10 10 (2000)
I0504 08:43:02.818580 25879 net.cpp:151] Top shape: 20 (20)
I0504 08:43:02.818584 25879 net.cpp:159] Memory required for data: 8080
I0504 08:43:02.818590 25879 layer_factory.hpp:77] Creating layer conv1
I0504 08:43:02.818606 25879 net.cpp:94] Creating Layer conv1
I0504 08:43:02.818611 25879 net.cpp:435] conv1 <- data
I0504 08:43:02.818619 25879 net.cpp:409] conv1 -> conv1
I0504 08:43:02.822679 25879 net.cpp:144] Setting up conv1
I0504 08:43:02.822693 25879 net.cpp:151] Top shape: 20 64 10 10 (128000)
I0504 08:43:02.822697 25879 net.cpp:159] Memory required for data: 520080
I0504 08:43:02.822707 25879 layer_factory.hpp:77] Creating layer relu1
I0504 08:43:02.822715 25879 net.cpp:94] Creating Layer relu1
I0504 08:43:02.822718 25879 net.cpp:435] relu1 <- conv1
I0504 08:43:02.822722 25879 net.cpp:396] relu1 -> conv1 (in-place)
I0504 08:43:02.822729 25879 net.cpp:144] Setting up relu1
I0504 08:43:02.822734 25879 net.cpp:151] Top shape: 20 64 10 10 (128000)
I0504 08:43:02.822737 25879 net.cpp:159] Memory required for data: 1032080
I0504 08:43:02.822741 25879 layer_factory.hpp:77] Creating layer conv2
I0504 08:43:02.822747 25879 net.cpp:94] Creating Layer conv2
I0504 08:43:02.822751 25879 net.cpp:435] conv2 <- conv1
I0504 08:43:02.822757 25879 net.cpp:409] conv2 -> conv2
I0504 08:43:02.827925 25879 net.cpp:144] Setting up conv2
I0504 08:43:02.827939 25879 net.cpp:151] Top shape: 20 64 10 10 (128000)
I0504 08:43:02.827942 25879 net.cpp:159] Memory required for data: 1544080
I0504 08:43:02.827950 25879 layer_factory.hpp:77] Creating layer relu2
I0504 08:43:02.827956 25879 net.cpp:94] Creating Layer relu2
I0504 08:43:02.827960 25879 net.cpp:435] relu2 <- conv2
I0504 08:43:02.827965 25879 net.cpp:396] relu2 -> conv2 (in-place)
I0504 08:43:02.827971 25879 net.cpp:144] Setting up relu2
I0504 08:43:02.827975 25879 net.cpp:151] Top shape: 20 64 10 10 (128000)
I0504 08:43:02.827978 25879 net.cpp:159] Memory required for data: 2056080
I0504 08:43:02.827981 25879 layer_factory.hpp:77] Creating layer pool2
I0504 08:43:02.827987 25879 net.cpp:94] Creating Layer pool2
I0504 08:43:02.827996 25879 net.cpp:435] pool2 <- conv2
I0504 08:43:02.828001 25879 net.cpp:409] pool2 -> pool2
I0504 08:43:02.828054 25879 net.cpp:144] Setting up pool2
I0504 08:43:02.828063 25879 net.cpp:151] Top shape: 20 64 5 5 (32000)
I0504 08:43:02.828065 25879 net.cpp:159] Memory required for data: 2184080
I0504 08:43:02.828068 25879 layer_factory.hpp:77] Creating layer conv3
I0504 08:43:02.828076 25879 net.cpp:94] Creating Layer conv3
I0504 08:43:02.828080 25879 net.cpp:435] conv3 <- pool2
I0504 08:43:02.828085 25879 net.cpp:409] conv3 -> conv3
I0504 08:43:02.836226 25879 net.cpp:144] Setting up conv3
I0504 08:43:02.836241 25879 net.cpp:151] Top shape: 20 128 5 5 (64000)
I0504 08:43:02.836243 25879 net.cpp:159] Memory required for data: 2440080
I0504 08:43:02.836252 25879 layer_factory.hpp:77] Creating layer relu3
I0504 08:43:02.836257 25879 net.cpp:94] Creating Layer relu3
I0504 08:43:02.836261 25879 net.cpp:435] relu3 <- conv3
I0504 08:43:02.836266 25879 net.cpp:396] relu3 -> conv3 (in-place)
I0504 08:43:02.836272 25879 net.cpp:144] Setting up relu3
I0504 08:43:02.836277 25879 net.cpp:151] Top shape: 20 128 5 5 (64000)
I0504 08:43:02.836279 25879 net.cpp:159] Memory required for data: 2696080
I0504 08:43:02.836282 25879 layer_factory.hpp:77] Creating layer conv4
I0504 08:43:02.836292 25879 net.cpp:94] Creating Layer conv4
I0504 08:43:02.836294 25879 net.cpp:435] conv4 <- conv3
I0504 08:43:02.836299 25879 net.cpp:409] conv4 -> conv4
I0504 08:43:02.851102 25879 net.cpp:144] Setting up conv4
I0504 08:43:02.851116 25879 net.cpp:151] Top shape: 20 128 5 5 (64000)
I0504 08:43:02.851120 25879 net.cpp:159] Memory required for data: 2952080
I0504 08:43:02.851126 25879 layer_factory.hpp:77] Creating layer relu4
I0504 08:43:02.851132 25879 net.cpp:94] Creating Layer relu4
I0504 08:43:02.851135 25879 net.cpp:435] relu4 <- conv4
I0504 08:43:02.851140 25879 net.cpp:396] relu4 -> conv4 (in-place)
I0504 08:43:02.851147 25879 net.cpp:144] Setting up relu4
I0504 08:43:02.851151 25879 net.cpp:151] Top shape: 20 128 5 5 (64000)
I0504 08:43:02.851155 25879 net.cpp:159] Memory required for data: 3208080
I0504 08:43:02.851157 25879 layer_factory.hpp:77] Creating layer conv5
I0504 08:43:02.851164 25879 net.cpp:94] Creating Layer conv5
I0504 08:43:02.851168 25879 net.cpp:435] conv5 <- conv4
I0504 08:43:02.851173 25879 net.cpp:409] conv5 -> conv5
I0504 08:43:02.865494 25879 net.cpp:144] Setting up conv5
I0504 08:43:02.865509 25879 net.cpp:151] Top shape: 20 128 5 5 (64000)
I0504 08:43:02.865512 25879 net.cpp:159] Memory required for data: 3464080
I0504 08:43:02.865521 25879 layer_factory.hpp:77] Creating layer relu5
I0504 08:43:02.865527 25879 net.cpp:94] Creating Layer relu5
I0504 08:43:02.865530 25879 net.cpp:435] relu5 <- conv5
I0504 08:43:02.865535 25879 net.cpp:396] relu5 -> conv5 (in-place)
I0504 08:43:02.865541 25879 net.cpp:144] Setting up relu5
I0504 08:43:02.865546 25879 net.cpp:151] Top shape: 20 128 5 5 (64000)
I0504 08:43:02.865550 25879 net.cpp:159] Memory required for data: 3720080
I0504 08:43:02.865552 25879 layer_factory.hpp:77] Creating layer pool5
I0504 08:43:02.865557 25879 net.cpp:94] Creating Layer pool5
I0504 08:43:02.865561 25879 net.cpp:435] pool5 <- conv5
I0504 08:43:02.865564 25879 net.cpp:409] pool5 -> pool5
I0504 08:43:02.865600 25879 net.cpp:144] Setting up pool5
I0504 08:43:02.865607 25879 net.cpp:151] Top shape: 20 128 2 2 (10240)
I0504 08:43:02.865610 25879 net.cpp:159] Memory required for data: 3761040
I0504 08:43:02.865614 25879 layer_factory.hpp:77] Creating layer ip1
I0504 08:43:02.865623 25879 net.cpp:94] Creating Layer ip1
I0504 08:43:02.865628 25879 net.cpp:435] ip1 <- pool5
I0504 08:43:02.865633 25879 net.cpp:409] ip1 -> ip1
I0504 08:43:02.879667 25879 net.cpp:144] Setting up ip1
I0504 08:43:02.879679 25879 net.cpp:151] Top shape: 20 1024 (20480)
I0504 08:43:02.879683 25879 net.cpp:159] Memory required for data: 3842960
I0504 08:43:02.879689 25879 layer_factory.hpp:77] Creating layer ip2
I0504 08:43:02.879698 25879 net.cpp:94] Creating Layer ip2
I0504 08:43:02.879706 25879 net.cpp:435] ip2 <- ip1
I0504 08:43:02.879712 25879 net.cpp:409] ip2 -> ip2
I0504 08:43:02.892974 25879 net.cpp:144] Setting up ip2
I0504 08:43:02.892987 25879 net.cpp:151] Top shape: 20 512 (10240)
I0504 08:43:02.892992 25879 net.cpp:159] Memory required for data: 3883920
I0504 08:43:02.892997 25879 layer_factory.hpp:77] Creating layer ip3
I0504 08:43:02.893003 25879 net.cpp:94] Creating Layer ip3
I0504 08:43:02.893007 25879 net.cpp:435] ip3 <- ip2
I0504 08:43:02.893013 25879 net.cpp:409] ip3 -> ip3
I0504 08:43:02.893122 25879 net.cpp:144] Setting up ip3
I0504 08:43:02.893129 25879 net.cpp:151] Top shape: 20 1 (20)
I0504 08:43:02.893132 25879 net.cpp:159] Memory required for data: 3884000
I0504 08:43:02.893138 25879 layer_factory.hpp:77] Creating layer loss
I0504 08:43:02.893149 25879 net.cpp:94] Creating Layer loss
I0504 08:43:02.893152 25879 net.cpp:435] loss <- ip3
I0504 08:43:02.893157 25879 net.cpp:435] loss <- label
I0504 08:43:02.893160 25879 net.cpp:409] loss -> loss
I0504 08:43:02.893209 25879 net.cpp:144] Setting up loss
…
I0504 08:43:02.977560 25879 net.cpp:323] The NetState phase (0) differed from the phase (1) specified by a rule in layer intercept
I0504 08:43:02.977574 25879 net.cpp:323] The NetState phase (0) differed from the phase (1) specified by a rule in layer accuracy
I0504 08:43:02.977658 25879 net.cpp:52] Initializing net from parameters: 
state {
  phase: TRAIN
}
layer {
  name: "parameters"
  type: "HDF5Data"
  top: "data"
  top: "label"
  include {
    phase: TRAIN
  }
  hdf5_data_param {
    source: "/home/purduethu/scratch/radon/d/deng106/CNNStatisticalModel/distributions/input/20_distributions_100_sample_size_train-distributions-path.txt"
    batch_size: 20
  }
}
layer {
  name: "conv1"
  type: "Convolution"
  bottom: "data"
  top: "conv1"
  param {
    lr_mult: 1
  }
  param {
    lr_mult: 2
  }
  convolution_param {
    num_output: 64
    pad: 2
    kernel_size: 5
    stride: 1
    weight_filler {
      type: "gaussian"
      std: 0.0001
    }
    bias_filler {
      type: "constant"
    }
  }
}
layer {
  name: "relu1"
  type: "ReLU"
  bottom: "conv1"
  top: "conv1"
}
layer {
  name: "conv2"
  type: "Convolution"
  bottom: "conv1"
  top: "conv2"
  param {
    lr_mult: 1
  }
  param {
    lr_mult: 2
  }
  convolution_param {
    num_output: 64
    pad: 2
    kernel_size: 5
    stride: 1
    weight_filler {
      type: "gaussian"
      std: 0.01
    }
    bias_filler {
      type: "constant"
    }
  }
}
layer {
  name: "relu2"
  type: "ReLU"
  bottom: "conv2"
  top: "conv2"
}
layer {
  name: "pool2"
  type: "Pooling"
  bottom: "conv2"
  top: "pool2"
  pooling_param {
    pool: MAX
    kernel_size: 3
    stride: 2
  }
}
layer {
  name: "conv3"
  type: "Convolution"
  bottom: "pool2"
  top: "conv3"
  param {
    lr_mult: 1
  }
  param {
    lr_mult: 2
  }
  convolution_param {
    num_output: 128
    pad: 2
    kernel_size: 5
    stride: 1
    weight_filler {
      type: "gaussian"
      std: 0.01
    }
    bias_filler {
      type: "constant"
    }
  }
}
layer {
  name: "relu3"
  type: "ReLU"
  bottom: "conv3"
  top: "conv3"
}
layer {
  name: "conv4"
  type: "Convolution"
  bottom: "conv3"
  top: "conv4"
  param {
    lr_mult: 1
  }
  param {
    lr_mult: 2
  }
  convolution_param {
    num_output: 128
    pad: 2
    kernel_size: 5
    stride: 1
    weight_filler {
      type: "gaussian"
      std: 0.01
    }
    bias_filler {
      type: "constant"
    }
  }
}
layer {
  name: "relu4"
  type: "ReLU"
  bottom: "conv4"
  top: "conv4"
}
layer {
  name: "conv5"
  type: "Convolution"
  bottom: "conv4"
  top: "conv5"
  param {
    lr_mult: 1
  }
  param {
    lr_mult: 2
  }
  convolution_param {
    num_output: 128
    pad: 2
    kernel_size: 5
    stride: 1
    weight_filler {
      type: "gaussian"
      std: 0.01
    }
    bias_filler {
      type: "constant"
    }
  }
}
layer {
  name: "relu5"
  type: "ReLU"
  bottom: "conv5"
  top: "conv5"
}
layer {
  name: "pool5"
  type: "Pooling"
  bottom: "conv5"
  top: "pool5"
  pooling_param {
    pool: AVE
    kernel_size: 3
    stride: 2
  }
}
layer {
  name: "ip1"
  type: "InnerProduct"
  bottom: "pool5"
  top: "ip1"
  param {
    lr_mult: 1
  }
  param {
    lr_mult: 2
  }
  inner_product_param {
    num_output: 1024
    weight_filler {
      type: "gaussian"
      std: 0.1
    }
    bias_filler {
      type: "constant"
    }
  }
}
layer {
  name: "ip2"
  type: "InnerProduct"
  bottom: "ip1"
  top: "ip2"
  param {
    lr_mult: 1
  }
  param {
    lr_mult: 2
  }
  inner_product_param {
    num_output: 512
    weight_filler {
      type: "gaussian"
      std: 0.1
    }
    bias_filler {
      type: "constant"
    }
  }
}
layer {
  name: "ip3"
  type: "InnerProduct"
  bottom: "ip2"
  top: "ip3"
  param {
    lr_mult: 1
  }
  param {
    lr_mult: 2
  }
  inner_product_param {
    num_output: 50
    weight_filler {
      type: "gaussian"
      std: 0.1
    }
    bias_filler {
      type: "constant"
    }
  }
}
layer {
  name: "loss"
  type: "SoftmaxWithLoss"
  bottom: "ip3"
  bottom: "label"
  top: "loss"
}
I0504 08:43:02.977706 25879 layer_factory.hpp:77] Creating layer parameters
I0504 08:43:02.977715 25879 net.cpp:94] Creating Layer parameters
I0504 08:43:02.977718 25879 net.cpp:409] parameters -> data
I0504 08:43:02.977725 25879 net.cpp:409] parameters -> label
I0504 08:43:02.977731 25879 hdf5_data_layer.cpp:79] Loading list of HDF5 filenames from: /home/purduethu/scratch/radon/d/deng106/CNNStatisticalModel/distributions/input/20_distributions_100_sample_size_train-distributions-path.txt
I0504 08:43:02.977746 25879 hdf5_data_layer.cpp:93] Number of HDF5 files: 1
I0504 08:43:03.041379 25879 hdf5.cpp:35] Datatype class: H5T_INTEGER
I0504 08:43:03.042402 25879 net.cpp:144] Setting up parameters
I0504 08:43:03.042418 25879 net.cpp:151] Top shape: 20 1 10 10 (2000)
I0504 08:43:03.042421 25879 net.cpp:151] Top shape: 20 (20)
I0504 08:43:03.042425 25879 net.cpp:159] Memory required for data: 8080
I0504 08:43:03.042430 25879 layer_factory.hpp:77] Creating layer conv1
I0504 08:43:03.042446 25879 net.cpp:94] Creating Layer conv1
I0504 08:43:03.042450 25879 net.cpp:435] conv1 <- data
I0504 08:43:03.042457 25879 net.cpp:409] conv1 -> conv1
I0504 08:43:03.044183 25879 net.cpp:144] Setting up conv1
I0504 08:43:03.044195 25879 net.cpp:151] Top shape: 20 64 10 10 (128000)
I0504 08:43:03.044199 25879 net.cpp:159] Memory required for data: 520080
I0504 08:43:03.044209 25879 layer_factory.hpp:77] Creating layer relu1
I0504 08:43:03.044216 25879 net.cpp:94] Creating Layer relu1
I0504 08:43:03.044220 25879 net.cpp:435] relu1 <- conv1
I0504 08:43:03.044224 25879 net.cpp:396] relu1 -> conv1 (in-place)
I0504 08:43:03.044232 25879 net.cpp:144] Setting up relu1
I0504 08:43:03.044236 25879 net.cpp:151] Top shape: 20 64 10 10 (128000)
I0504 08:43:03.044239 25879 net.cpp:159] Memory required for data: 1032080
I0504 08:43:03.044242 25879 layer_factory.hpp:77] Creating layer conv2
I0504 08:43:03.044250 25879 net.cpp:94] Creating Layer conv2
I0504 08:43:03.044252 25879 net.cpp:435] conv2 <- conv1
I0504 08:43:03.044257 25879 net.cpp:409] conv2 -> conv2
I0504 08:43:03.049585 25879 net.cpp:144] Setting up conv2
I0504 08:43:03.049598 25879 net.cpp:151] Top shape: 20 64 10 10 (128000)
I0504 08:43:03.049602 25879 net.cpp:159] Memory required for data: 1544080
I0504 08:43:03.049610 25879 layer_factory.hpp:77] Creating layer relu2
I0504 08:43:03.049616 25879 net.cpp:94] Creating Layer relu2
I0504 08:43:03.049620 25879 net.cpp:435] relu2 <- conv2
I0504 08:43:03.049624 25879 net.cpp:396] relu2 -> conv2 (in-place)
I0504 08:43:03.049631 25879 net.cpp:144] Setting up relu2
I0504 08:43:03.049635 25879 net.cpp:151] Top shape: 20 64 10 10 (128000)
I0504 08:43:03.049638 25879 net.cpp:159] Memory required for data: 2056080
I0504 08:43:03.049641 25879 layer_factory.hpp:77] Creating layer pool2
I0504 08:43:03.049648 25879 net.cpp:94] Creating Layer pool2
I0504 08:43:03.049650 25879 net.cpp:435] pool2 <- conv2
I0504 08:43:03.049654 25879 net.cpp:409] pool2 -> pool2
I0504 08:43:03.049705 25879 net.cpp:144] Setting up pool2
I0504 08:43:03.049713 25879 net.cpp:151] Top shape: 20 64 5 5 (32000)
I0504 08:43:03.049716 25879 net.cpp:159] Memory required for data: 2184080
I0504 08:43:03.049720 25879 layer_factory.hpp:77] Creating layer conv3
I0504 08:43:03.049726 25879 net.cpp:94] Creating Layer conv3
I0504 08:43:03.049731 25879 net.cpp:435] conv3 <- pool2
I0504 08:43:03.049736 25879 net.cpp:409] conv3 -> conv3
I0504 08:43:03.058207 25879 net.cpp:144] Setting up conv3
I0504 08:43:03.058220 25879 net.cpp:151] Top shape: 20 128 5 5 (64000)
I0504 08:43:03.058224 25879 net.cpp:159] Memory required for data: 2440080
I0504 08:43:03.058233 25879 layer_factory.hpp:77] Creating layer relu3
I0504 08:43:03.058238 25879 net.cpp:94] Creating Layer relu3
I0504 08:43:03.058243 25879 net.cpp:435] relu3 <- conv3
I0504 08:43:03.058246 25879 net.cpp:396] relu3 -> conv3 (in-place)
I0504 08:43:03.058254 25879 net.cpp:144] Setting up relu3
I0504 08:43:03.058257 25879 net.cpp:151] Top shape: 20 128 5 5 (64000)
I0504 08:43:03.058260 25879 net.cpp:159] Memory required for data: 2696080
I0504 08:43:03.058264 25879 layer_factory.hpp:77] Creating layer conv4
I0504 08:43:03.058271 25879 net.cpp:94] Creating Layer conv4
I0504 08:43:03.058275 25879 net.cpp:435] conv4 <- conv3
I0504 08:43:03.058280 25879 net.cpp:409] conv4 -> conv4
I0504 08:43:03.072564 25879 net.cpp:144] Setting up conv4
I0504 08:43:03.072582 25879 net.cpp:151] Top shape: 20 128 5 5 (64000)
I0504 08:43:03.072585 25879 net.cpp:159] Memory required for data: 2952080
I0504 08:43:03.072592 25879 layer_factory.hpp:77] Creating layer relu4
I0504 08:43:03.072598 25879 net.cpp:94] Creating Layer relu4
I0504 08:43:03.072602 25879 net.cpp:435] relu4 <- conv4
I0504 08:43:03.072607 25879 net.cpp:396] relu4 -> conv4 (in-place)
I0504 08:43:03.072614 25879 net.cpp:144] Setting up relu4
I0504 08:43:03.072618 25879 net.cpp:151] Top shape: 20 128 5 5 (64000)
I0504 08:43:03.072621 25879 net.cpp:159] Memory required for data: 3208080
I0504 08:43:03.072624 25879 layer_factory.hpp:77] Creating layer conv5
I0504 08:43:03.072633 25879 net.cpp:94] Creating Layer conv5
I0504 08:43:03.072635 25879 net.cpp:435] conv5 <- conv4
I0504 08:43:03.072640 25879 net.cpp:409] conv5 -> conv5
I0504 08:43:03.087330 25879 net.cpp:144] Setting up conv5
I0504 08:43:03.087347 25879 net.cpp:151] Top shape: 20 128 5 5 (64000)
I0504 08:43:03.087352 25879 net.cpp:159] Memory required for data: 3464080
I0504 08:43:03.087360 25879 layer_factory.hpp:77] Creating layer relu5
I0504 08:43:03.087368 25879 net.cpp:94] Creating Layer relu5
I0504 08:43:03.087370 25879 net.cpp:435] relu5 <- conv5
I0504 08:43:03.087375 25879 net.cpp:396] relu5 -> conv5 (in-place)
I0504 08:43:03.087383 25879 net.cpp:144] Setting up relu5
I0504 08:43:03.087386 25879 net.cpp:151] Top shape: 20 128 5 5 (64000)
I0504 08:43:03.087389 25879 net.cpp:159] Memory required for data: 3720080
I0504 08:43:03.087393 25879 layer_factory.hpp:77] Creating layer pool5
I0504 08:43:03.087397 25879 net.cpp:94] Creating Layer pool5
I0504 08:43:03.087400 25879 net.cpp:435] pool5 <- conv5
I0504 08:43:03.087405 25879 net.cpp:409] pool5 -> pool5
I0504 08:43:03.087443 25879 net.cpp:144] Setting up pool5
I0504 08:43:03.087451 25879 net.cpp:151] Top shape: 20 128 2 2 (10240)
I0504 08:43:03.087455 25879 net.cpp:159] Memory required for data: 3761040
I0504 08:43:03.087457 25879 layer_factory.hpp:77] Creating layer ip1
I0504 08:43:03.087465 25879 net.cpp:94] Creating Layer ip1
I0504 08:43:03.087467 25879 net.cpp:435] ip1 <- pool5
I0504 08:43:03.087472 25879 net.cpp:409] ip1 -> ip1
I0504 08:43:03.100600 25879 net.cpp:144] Setting up ip1
I0504 08:43:03.100617 25879 net.cpp:151] Top shape: 20 1024 (20480)
I0504 08:43:03.100621 25879 net.cpp:159] Memory required for data: 3842960
I0504 08:43:03.100628 25879 layer_factory.hpp:77] Creating layer ip2
I0504 08:43:03.100636 25879 net.cpp:94] Creating Layer ip2
I0504 08:43:03.100641 25879 net.cpp:435] ip2 <- ip1
I0504 08:43:03.100646 25879 net.cpp:409] ip2 -> ip2
I0504 08:43:03.113729 25879 net.cpp:144] Setting up ip2
I0504 08:43:03.113747 25879 net.cpp:151] Top shape: 20 512 (10240)
I0504 08:43:03.113751 25879 net.cpp:159] Memory required for data: 3883920
I0504 08:43:03.113757 25879 layer_factory.hpp:77] Creating layer ip3
I0504 08:43:03.113765 25879 net.cpp:94] Creating Layer ip3
I0504 08:43:03.113768 25879 net.cpp:435] ip3 <- ip2
I0504 08:43:03.113775 25879 net.cpp:409] ip3 -> ip3
I0504 08:43:03.114513 25879 net.cpp:144] Setting up ip3
I0504 08:43:03.114522 25879 net.cpp:151] Top shape: 20 50 (1000)
I0504 08:43:03.114532 25879 net.cpp:159] Memory required for data: 3887920
I0504 08:43:03.114538 25879 layer_factory.hpp:77] Creating layer loss
I0504 08:43:03.114547 25879 net.cpp:94] Creating Layer loss
I0504 08:43:03.114549 25879 net.cpp:435] loss <- ip3
I0504 08:43:03.114553 25879 net.cpp:435] loss <- label
I0504 08:43:03.114557 25879 net.cpp:409] loss -> loss
I0504 08:43:03.114564 25879 layer_factory.hpp:77] Creating layer loss
…
I0504 08:43:03.115068 25879 solver.cpp:181] Creating test net (#0) specified by net file: ./protocol/dis_20_100_dimension.protocol_distribution
I0504 08:43:03.115094 25879 net.cpp:323] The NetState phase (1) differed from the phase (0) specified by a rule in layer parameters
I0504 08:43:03.115186 25879 net.cpp:52] Initializing net from parameters: 
state {
  phase: TEST
}
layer {
  name: "intercept"
  type: "HDF5Data"
  top: "data"
  top: "label"
  include {
    phase: TEST
  }
  hdf5_data_param {
    source: "/home/purduethu/scratch/radon/d/deng106/CNNStatisticalModel/distributions/input/20_distributions_100_sample_size_test-distributions-path.txt"
    batch_size: 20
  }
}
layer {
  name: "conv1"
  type: "Convolution"
  bottom: "data"
  top: "conv1"
  param {
    lr_mult: 1
  }
  param {
    lr_mult: 2
  }
  convolution_param {
    num_output: 64
    pad: 2
    kernel_size: 5
    stride: 1
    weight_filler {
      type: "gaussian"
      std: 0.0001
    }
    bias_filler {
      type: "constant"
    }
  }
}
layer {
  name: "relu1"
  type: "ReLU"
  bottom: "conv1"
  top: "conv1"
}
layer {
  name: "conv2"
  type: "Convolution"
  bottom: "conv1"
  top: "conv2"
  param {
    lr_mult: 1
  }
  param {
    lr_mult: 2
  }
  convolution_param {
    num_output: 64
    pad: 2
    kernel_size: 5
    stride: 1
    weight_filler {
      type: "gaussian"
      std: 0.01
    }
    bias_filler {
      type: "constant"
    }
  }
}
layer {
  name: "relu2"
  type: "ReLU"
  bottom: "conv2"
  top: "conv2"
}
layer {
  name: "pool2"
  type: "Pooling"
  bottom: "conv2"
  top: "pool2"
  pooling_param {
    pool: MAX
    kernel_size: 3
    stride: 2
  }
}
layer {
  name: "conv3"
  type: "Convolution"
  bottom: "pool2"
  top: "conv3"
  param {
    lr_mult: 1
  }
  param {
    lr_mult: 2
  }
  convolution_param {
    num_output: 128
    pad: 2
    kernel_size: 5
    stride: 1
    weight_filler {
      type: "gaussian"
      std: 0.01
    }
    bias_filler {
      type: "constant"
    }
  }
}
layer {
  name: "relu3"
  type: "ReLU"
  bottom: "conv3"
  top: "conv3"
}
layer {
  name: "conv4"
  type: "Convolution"
  bottom: "conv3"
  top: "conv4"
  param {
    lr_mult: 1
  }
  param {
    lr_mult: 2
  }
  convolution_param {
    num_output: 128
    pad: 2
    kernel_size: 5
    stride: 1
    weight_filler {
      type: "gaussian"
      std: 0.01
    }
    bias_filler {
      type: "constant"
    }
  }
}
layer {
  name: "relu4"
  type: "ReLU"
  bottom: "conv4"
  top: "conv4"
}
layer {
  name: "conv5"
  type: "Convolution"
  bottom: "conv4"
  top: "conv5"
  param {
    lr_mult: 1
  }
  param {
    lr_mult: 2
  }
  convolution_param {
    num_output: 128
    pad: 2
    kernel_size: 5
    stride: 1
    weight_filler {
      type: "gaussian"
      std: 0.01
    }
    bias_filler {
      type: "constant"
    }
  }
}
layer {
  name: "relu5"
  type: "ReLU"
  bottom: "conv5"
  top: "conv5"
}
layer {
  name: "pool5"
  type: "Pooling"
  bottom: "conv5"
  top: "pool5"
  pooling_param {
    pool: AVE
    kernel_size: 3
    stride: 2
  }
}
layer {
  name: "ip1"
  type: "InnerProduct"
  bottom: "pool5"
  top: "ip1"
  param {
    lr_mult: 1
  }
  param {
    lr_mult: 2
  }
  inner_product_param {
    num_output: 1024
    weight_filler {
      type: "gaussian"
      std: 0.1
    }
    bias_filler {
      type: "constant"
    }
  }
}
layer {
  name: "ip2"
  type: "InnerProduct"
  bottom: "ip1"
  top: "ip2"
  param {
    lr_mult: 1
  }
  param {
    lr_mult: 2
  }
  inner_product_param {
    num_output: 512
    weight_filler {
      type: "gaussian"
      std: 0.1
    }
    bias_filler {
      type: "constant"
    }
  }
}
layer {
  name: "ip3"
  type: "InnerProduct"
  bottom: "ip2"
  top: "ip3"
  param {
    lr_mult: 1
  }
  param {
    lr_mult: 2
  }
  inner_product_param {
    num_output: 50
    weight_filler {
      type: "gaussian"
      std: 0.1
    }
    bias_filler {
      type: "constant"
    }
  }
}
layer {
  name: "accuracy"
  type: "Accuracy"
  bottom: "ip3"
  bottom: "label"
  top: "accuracy"
  include {
    phase: TEST
  }
}
layer {
  name: "loss"
  type: "SoftmaxWithLoss"
  bottom: "ip3"
  bottom: "label"
  top: "loss"
}
I0504 08:43:03.115248 25879 layer_factory.hpp:77] Creating layer intercept
I0504 08:43:03.115257 25879 net.cpp:94] Creating Layer intercept
I0504 08:43:03.115260 25879 net.cpp:409] intercept -> data
I0504 08:43:03.115267 25879 net.cpp:409] intercept -> label
I0504 08:43:03.115273 25879 hdf5_data_layer.cpp:79] Loading list of HDF5 filenames from: /home/purduethu/scratch/radon/d/deng106/CNNStatisticalModel/distributions/input/20_distributions_100_sample_size_test-distributions-path.txt
I0504 08:43:03.115293 25879 hdf5_data_layer.cpp:93] Number of HDF5 files: 1
I0504 08:43:03.132645 25879 net.cpp:144] Setting up intercept
I0504 08:43:03.132678 25879 net.cpp:151] Top shape: 20 1 10 10 (2000)
I0504 08:43:03.132683 25879 net.cpp:151] Top shape: 20 (20)
I0504 08:43:03.132686 25879 net.cpp:159] Memory required for data: 8080
I0504 08:43:03.132692 25879 layer_factory.hpp:77] Creating layer label_intercept_1_split
I0504 08:43:03.132709 25879 net.cpp:94] Creating Layer label_intercept_1_split
I0504 08:43:03.132714 25879 net.cpp:435] label_intercept_1_split <- label
I0504 08:43:03.132719 25879 net.cpp:409] label_intercept_1_split -> label_intercept_1_split_0
I0504 08:43:03.132727 25879 net.cpp:409] label_intercept_1_split -> label_intercept_1_split_1
I0504 08:43:03.132768 25879 net.cpp:144] Setting up label_intercept_1_split
I0504 08:43:03.132776 25879 net.cpp:151] Top shape: 20 (20)
I0504 08:43:03.132779 25879 net.cpp:151] Top shape: 20 (20)
I0504 08:43:03.132782 25879 net.cpp:159] Memory required for data: 8240
I0504 08:43:03.132786 25879 layer_factory.hpp:77] Creating layer conv1
I0504 08:43:03.132797 25879 net.cpp:94] Creating Layer conv1
I0504 08:43:03.132800 25879 net.cpp:435] conv1 <- data
I0504 08:43:03.132805 25879 net.cpp:409] conv1 -> conv1
I0504 08:43:03.133631 25879 net.cpp:144] Setting up conv1
I0504 08:43:03.133644 25879 net.cpp:151] Top shape: 20 64 10 10 (128000)
I0504 08:43:03.133663 25879 net.cpp:159] Memory required for data: 520240
I0504 08:43:03.133674 25879 layer_factory.hpp:77] Creating layer relu1
I0504 08:43:03.133680 25879 net.cpp:94] Creating Layer relu1
I0504 08:43:03.133684 25879 net.cpp:435] relu1 <- conv1
I0504 08:43:03.133688 25879 net.cpp:396] relu1 -> conv1 (in-place)
I0504 08:43:03.133695 25879 net.cpp:144] Setting up relu1
I0504 08:43:03.133699 25879 net.cpp:151] Top shape: 20 64 10 10 (128000)
I0504 08:43:03.133702 25879 net.cpp:159] Memory required for data: 1032240
I0504 08:43:03.133705 25879 layer_factory.hpp:77] Creating layer conv2
I0504 08:43:03.133713 25879 net.cpp:94] Creating Layer conv2
I0504 08:43:03.133716 25879 net.cpp:435] conv2 <- conv1
I0504 08:43:03.133721 25879 net.cpp:409] conv2 -> conv2
I0504 08:43:03.137794 25879 net.cpp:144] Setting up conv2
I0504 08:43:03.137809 25879 net.cpp:151] Top shape: 20 64 10 10 (128000)
I0504 08:43:03.137812 25879 net.cpp:159] Memory required for data: 1544240
I0504 08:43:03.137820 25879 layer_factory.hpp:77] Creating layer relu2
I0504 08:43:03.137826 25879 net.cpp:94] Creating Layer relu2
I0504 08:43:03.137830 25879 net.cpp:435] relu2 <- conv2
I0504 08:43:03.137835 25879 net.cpp:396] relu2 -> conv2 (in-place)
I0504 08:43:03.137841 25879 net.cpp:144] Setting up relu2
I0504 08:43:03.137845 25879 net.cpp:151] Top shape: 20 64 10 10 (128000)
I0504 08:43:03.137848 25879 net.cpp:159] Memory required for data: 2056240
I0504 08:43:03.137851 25879 layer_factory.hpp:77] Creating layer pool2
I0504 08:43:03.137857 25879 net.cpp:94] Creating Layer pool2
I0504 08:43:03.137859 25879 net.cpp:435] pool2 <- conv2
I0504 08:43:03.137864 25879 net.cpp:409] pool2 -> pool2
I0504 08:43:03.137917 25879 net.cpp:144] Setting up pool2
I0504 08:43:03.137924 25879 net.cpp:151] Top shape: 20 64 5 5 (32000)
I0504 08:43:03.137928 25879 net.cpp:159] Memory required for data: 2184240
I0504 08:43:03.137930 25879 layer_factory.hpp:77] Creating layer conv3
I0504 08:43:03.137938 25879 net.cpp:94] Creating Layer conv3
I0504 08:43:03.137941 25879 net.cpp:435] conv3 <- pool2
I0504 08:43:03.137946 25879 net.cpp:409] conv3 -> conv3
I0504 08:43:03.143929 25879 net.cpp:144] Setting up conv3
I0504 08:43:03.143941 25879 net.cpp:151] Top shape: 20 128 5 5 (64000)
I0504 08:43:03.143945 25879 net.cpp:159] Memory required for data: 2440240
I0504 08:43:03.143954 25879 layer_factory.hpp:77] Creating layer relu3
I0504 08:43:03.143960 25879 net.cpp:94] Creating Layer relu3
I0504 08:43:03.143963 25879 net.cpp:435] relu3 <- conv3
I0504 08:43:03.143968 25879 net.cpp:396] relu3 -> conv3 (in-place)
I0504 08:43:03.143975 25879 net.cpp:144] Setting up relu3
I0504 08:43:03.143980 25879 net.cpp:151] Top shape: 20 128 5 5 (64000)
I0504 08:43:03.143982 25879 net.cpp:159] Memory required for data: 2696240
I0504 08:43:03.143985 25879 layer_factory.hpp:77] Creating layer conv4
I0504 08:43:03.143992 25879 net.cpp:94] Creating Layer conv4
I0504 08:43:03.143996 25879 net.cpp:435] conv4 <- conv3
I0504 08:43:03.144001 25879 net.cpp:409] conv4 -> conv4
I0504 08:43:03.156679 25879 net.cpp:144] Setting up conv4
I0504 08:43:03.156697 25879 net.cpp:151] Top shape: 20 128 5 5 (64000)
I0504 08:43:03.156700 25879 net.cpp:159] Memory required for data: 2952240
I0504 08:43:03.156708 25879 layer_factory.hpp:77] Creating layer relu4
I0504 08:43:03.156714 25879 net.cpp:94] Creating Layer relu4
I0504 08:43:03.156718 25879 net.cpp:435] relu4 <- conv4
I0504 08:43:03.156723 25879 net.cpp:396] relu4 -> conv4 (in-place)
I0504 08:43:03.156729 25879 net.cpp:144] Setting up relu4
I0504 08:43:03.156733 25879 net.cpp:151] Top shape: 20 128 5 5 (64000)
I0504 08:43:03.156736 25879 net.cpp:159] Memory required for data: 3208240
I0504 08:43:03.156739 25879 layer_factory.hpp:77] Creating layer conv5
I0504 08:43:03.156747 25879 net.cpp:94] Creating Layer conv5
I0504 08:43:03.156750 25879 net.cpp:435] conv5 <- conv4
I0504 08:43:03.156755 25879 net.cpp:409] conv5 -> conv5
I0504 08:43:03.169265 25879 net.cpp:144] Setting up conv5
I0504 08:43:03.169282 25879 net.cpp:151] Top shape: 20 128 5 5 (64000)
I0504 08:43:03.169291 25879 net.cpp:159] Memory required for data: 3464240
I0504 08:43:03.169302 25879 layer_factory.hpp:77] Creating layer relu5
I0504 08:43:03.169309 25879 net.cpp:94] Creating Layer relu5
I0504 08:43:03.169312 25879 net.cpp:435] relu5 <- conv5
I0504 08:43:03.169317 25879 net.cpp:396] relu5 -> conv5 (in-place)
I0504 08:43:03.169324 25879 net.cpp:144] Setting up relu5
I0504 08:43:03.169329 25879 net.cpp:151] Top shape: 20 128 5 5 (64000)
I0504 08:43:03.169332 25879 net.cpp:159] Memory required for data: 3720240
I0504 08:43:03.169335 25879 layer_factory.hpp:77] Creating layer pool5
I0504 08:43:03.169340 25879 net.cpp:94] Creating Layer pool5
I0504 08:43:03.169343 25879 net.cpp:435] pool5 <- conv5
I0504 08:43:03.169348 25879 net.cpp:409] pool5 -> pool5
I0504 08:43:03.169386 25879 net.cpp:144] Setting up pool5
I0504 08:43:03.169394 25879 net.cpp:151] Top shape: 20 128 2 2 (10240)
I0504 08:43:03.169396 25879 net.cpp:159] Memory required for data: 3761200
I0504 08:43:03.169399 25879 layer_factory.hpp:77] Creating layer ip1
I0504 08:43:03.169406 25879 net.cpp:94] Creating Layer ip1
I0504 08:43:03.169409 25879 net.cpp:435] ip1 <- pool5
I0504 08:43:03.169414 25879 net.cpp:409] ip1 -> ip1
I0504 08:43:03.182652 25879 net.cpp:144] Setting up ip1
I0504 08:43:03.182670 25879 net.cpp:151] Top shape: 20 1024 (20480)
I0504 08:43:03.182673 25879 net.cpp:159] Memory required for data: 3843120
I0504 08:43:03.182679 25879 layer_factory.hpp:77] Creating layer ip2
I0504 08:43:03.182687 25879 net.cpp:94] Creating Layer ip2
I0504 08:43:03.182692 25879 net.cpp:435] ip2 <- ip1
I0504 08:43:03.182696 25879 net.cpp:409] ip2 -> ip2
I0504 08:43:03.195801 25879 net.cpp:144] Setting up ip2
I0504 08:43:03.195817 25879 net.cpp:151] Top shape: 20 512 (10240)
I0504 08:43:03.195821 25879 net.cpp:159] Memory required for data: 3884080
I0504 08:43:03.195827 25879 layer_factory.hpp:77] Creating layer ip3
I0504 08:43:03.195837 25879 net.cpp:94] Creating Layer ip3
I0504 08:43:03.195839 25879 net.cpp:435] ip3 <- ip2
I0504 08:43:03.195847 25879 net.cpp:409] ip3 -> ip3
I0504 08:43:03.196609 25879 net.cpp:144] Setting up ip3
I0504 08:43:03.196619 25879 net.cpp:151] Top shape: 20 50 (1000)
I0504 08:43:03.196621 25879 net.cpp:159] Memory required for data: 3888080
I0504 08:43:03.196627 25879 layer_factory.hpp:77] Creating layer ip3_ip3_0_split
I0504 08:43:03.196633 25879 net.cpp:94] Creating Layer ip3_ip3_0_split
I0504 08:43:03.196637 25879 net.cpp:435] ip3_ip3_0_split <- ip3
I0504 08:43:03.196641 25879 net.cpp:409] ip3_ip3_0_split -> ip3_ip3_0_split_0
I0504 08:43:03.196647 25879 net.cpp:409] ip3_ip3_0_split -> ip3_ip3_0_split_1
I0504 08:43:03.196688 25879 net.cpp:144] Setting up ip3_ip3_0_split
I0504 08:43:03.196694 25879 net.cpp:151] Top shape: 20 50 (1000)
I0504 08:43:03.196698 25879 net.cpp:151] Top shape: 20 50 (1000)
I0504 08:43:03.196702 25879 net.cpp:159] Memory required for data: 3896080
I0504 08:43:03.196704 25879 layer_factory.hpp:77] Creating layer accuracy
I0504 08:43:03.196709 25879 net.cpp:94] Creating Layer accuracy
I0504 08:43:03.196712 25879 net.cpp:435] accuracy <- ip3_ip3_0_split_0
I0504 08:43:03.196717 25879 net.cpp:435] accuracy <- label_intercept_1_split_0
I0504 08:43:03.196722 25879 net.cpp:409] accuracy -> accuracy
…
