…
I0501 23:37:15.146617 16557 net.cpp:323] The NetState phase (0) differed from the phase (1) specified by a rule in layer intercept
I0501 23:37:15.146632 16557 net.cpp:323] The NetState phase (0) differed from the phase (1) specified by a rule in layer loss
I0501 23:37:15.146711 16557 net.cpp:52] Initializing net from parameters: 
state {
  phase: TRAIN
}
layer {
  name: "parameters"
  type: "HDF5Data"
  top: "data"
  top: "label"
  include {
    phase: TRAIN
  }
  hdf5_data_param {
    source: "/home/purduethu/scratch/radon/d/deng106/CNNStatisticalModel/distributions/input/50_distributions_100_sample_size_train-parameters-path.txt"
    batch_size: 20
  }
}
layer {
  name: "conv1"
  type: "Convolution"
  bottom: "data"
  top: "conv1"
  param {
    lr_mult: 1
  }
  param {
    lr_mult: 2
  }
  convolution_param {
    num_output: 64
    pad: 2
    kernel_size: 5
    stride: 1
    weight_filler {
      type: "gaussian"
      std: 0.0001
    }
    bias_filler {
      type: "constant"
    }
  }
}
layer {
  name: "relu1"
  type: "ReLU"
  bottom: "conv1"
  top: "conv1"
}
layer {
  name: "conv2"
  type: "Convolution"
  bottom: "conv1"
  top: "conv2"
  param {
    lr_mult: 1
  }
  param {
    lr_mult: 2
  }
  convolution_param {
    num_output: 64
    pad: 2
    kernel_size: 5
    stride: 1
    weight_filler {
      type: "gaussian"
      std: 0.01
    }
    bias_filler {
      type: "constant"
    }
  }
}
layer {
  name: "relu2"
  type: "ReLU"
  bottom: "conv2"
  top: "conv2"
}
layer {
  name: "pool2"
  type: "Pooling"
  bottom: "conv2"
  top: "pool2"
  pooling_param {
    pool: MAX
    kernel_size: 3
    stride: 2
  }
}
layer {
  name: "conv3"
  type: "Convolution"
  bottom: "pool2"
  top: "conv3"
  param {
    lr_mult: 1
  }
  param {
    lr_mult: 2
  }
  convolution_param {
    num_output: 64
    pad: 2
    kernel_size: 5
    stride: 1
    weight_filler {
      type: "gaussian"
      std: 0.01
    }
    bias_filler {
      type: "constant"
    }
  }
}
layer {
  name: "relu3"
  type: "ReLU"
  bottom: "conv3"
  top: "conv3"
}
layer {
  name: "conv4"
  type: "Convolution"
  bottom: "conv3"
  top: "conv4"
  param {
    lr_mult: 1
  }
  param {
    lr_mult: 2
  }
  convolution_param {
    num_output: 64
    pad: 2
    kernel_size: 5
    stride: 1
    weight_filler {
      type: "gaussian"
      std: 0.01
    }
    bias_filler {
      type: "constant"
    }
  }
}
layer {
  name: "relu4"
  type: "ReLU"
  bottom: "conv4"
  top: "conv4"
}
layer {
  name: "conv5"
  type: "Convolution"
  bottom: "conv4"
  top: "conv5"
  param {
    lr_mult: 1
  }
  param {
    lr_mult: 2
  }
  convolution_param {
    num_output: 64
    pad: 2
    kernel_size: 5
    stride: 1
    weight_filler {
      type: "gaussian"
      std: 0.01
    }
    bias_filler {
      type: "constant"
    }
  }
}
layer {
  name: "relu5"
  type: "ReLU"
  bottom: "conv5"
  top: "conv5"
}
layer {
  name: "pool5"
  type: "Pooling"
  bottom: "conv5"
  top: "pool5"
  pooling_param {
    pool: AVE
    kernel_size: 3
    stride: 2
  }
}
layer {
  name: "ip1"
  type: "InnerProduct"
  bottom: "pool5"
  top: "ip1"
  param {
    lr_mult: 1
  }
  param {
    lr_mult: 2
  }
  inner_product_param {
    num_output: 64
    weight_filler {
      type: "gaussian"
      std: 0.1
    }
    bias_filler {
      type: "constant"
    }
  }
}
layer {
  name: "ip2"
  type: "InnerProduct"
  bottom: "ip1"
  top: "ip2"
  param {
    lr_mult: 1
  }
  param {
    lr_mult: 2
  }
  inner_product_param {
    num_output: 64
    weight_filler {
      type: "gaussian"
      std: 0.1
    }
    bias_filler {
      type: "constant"
    }
  }
}
layer {
  name: "ip3"
  type: "InnerProduct"
  bottom: "ip2"
  top: "ip3"
  param {
    lr_mult: 1
  }
  param {
    lr_mult: 2
  }
  inner_product_param {
    num_output: 1
    weight_filler {
      type: "gaussian"
      std: 0.1
    }
    bias_filler {
      type: "constant"
    }
  }
}
layer {
  name: "loss"
  type: "HuberLoss"
  bottom: "ip3"
  bottom: "label"
  top: "loss"
  include {
    phase: TRAIN
  }
}
I0501 23:37:15.146762 16557 layer_factory.hpp:77] Creating layer parameters
I0501 23:37:15.146775 16557 net.cpp:94] Creating Layer parameters
I0501 23:37:15.146778 16557 net.cpp:409] parameters -> data
I0501 23:37:15.146787 16557 net.cpp:409] parameters -> label
I0501 23:37:15.146797 16557 hdf5_data_layer.cpp:79] Loading list of HDF5 filenames from: /home/purduethu/scratch/radon/d/deng106/CNNStatisticalModel/distributions/input/50_distributions_100_sample_size_train-parameters-path.txt
I0501 23:37:15.146813 16557 hdf5_data_layer.cpp:93] Number of HDF5 files: 1
I0501 23:37:15.147325 16557 hdf5.cpp:32] Datatype class: H5T_FLOAT
I0501 23:37:15.310683 16557 net.cpp:144] Setting up parameters
I0501 23:37:15.310715 16557 net.cpp:151] Top shape: 20 1 10 10 (2000)
I0501 23:37:15.310720 16557 net.cpp:151] Top shape: 20 (20)
I0501 23:37:15.310724 16557 net.cpp:159] Memory required for data: 8080
I0501 23:37:15.310729 16557 layer_factory.hpp:77] Creating layer conv1
I0501 23:37:15.310746 16557 net.cpp:94] Creating Layer conv1
I0501 23:37:15.310750 16557 net.cpp:435] conv1 <- data
I0501 23:37:15.310757 16557 net.cpp:409] conv1 -> conv1
I0501 23:37:15.315033 16557 net.cpp:144] Setting up conv1
I0501 23:37:15.315052 16557 net.cpp:151] Top shape: 20 64 10 10 (128000)
I0501 23:37:15.315055 16557 net.cpp:159] Memory required for data: 520080
I0501 23:37:15.315065 16557 layer_factory.hpp:77] Creating layer relu1
I0501 23:37:15.315074 16557 net.cpp:94] Creating Layer relu1
I0501 23:37:15.315078 16557 net.cpp:435] relu1 <- conv1
I0501 23:37:15.315083 16557 net.cpp:396] relu1 -> conv1 (in-place)
I0501 23:37:15.315093 16557 net.cpp:144] Setting up relu1
I0501 23:37:15.315099 16557 net.cpp:151] Top shape: 20 64 10 10 (128000)
I0501 23:37:15.315101 16557 net.cpp:159] Memory required for data: 1032080
I0501 23:37:15.315104 16557 layer_factory.hpp:77] Creating layer conv2
I0501 23:37:15.315114 16557 net.cpp:94] Creating Layer conv2
I0501 23:37:15.315116 16557 net.cpp:435] conv2 <- conv1
I0501 23:37:15.315121 16557 net.cpp:409] conv2 -> conv2
I0501 23:37:15.321211 16557 net.cpp:144] Setting up conv2
I0501 23:37:15.321225 16557 net.cpp:151] Top shape: 20 64 10 10 (128000)
I0501 23:37:15.321229 16557 net.cpp:159] Memory required for data: 1544080
I0501 23:37:15.321238 16557 layer_factory.hpp:77] Creating layer relu2
I0501 23:37:15.321244 16557 net.cpp:94] Creating Layer relu2
I0501 23:37:15.321247 16557 net.cpp:435] relu2 <- conv2
I0501 23:37:15.321251 16557 net.cpp:396] relu2 -> conv2 (in-place)
I0501 23:37:15.321259 16557 net.cpp:144] Setting up relu2
I0501 23:37:15.321264 16557 net.cpp:151] Top shape: 20 64 10 10 (128000)
I0501 23:37:15.321266 16557 net.cpp:159] Memory required for data: 2056080
I0501 23:37:15.321269 16557 layer_factory.hpp:77] Creating layer pool2
I0501 23:37:15.321281 16557 net.cpp:94] Creating Layer pool2
I0501 23:37:15.321285 16557 net.cpp:435] pool2 <- conv2
I0501 23:37:15.321290 16557 net.cpp:409] pool2 -> pool2
I0501 23:37:15.321346 16557 net.cpp:144] Setting up pool2
I0501 23:37:15.321354 16557 net.cpp:151] Top shape: 20 64 5 5 (32000)
I0501 23:37:15.321358 16557 net.cpp:159] Memory required for data: 2184080
I0501 23:37:15.321362 16557 layer_factory.hpp:77] Creating layer conv3
I0501 23:37:15.321369 16557 net.cpp:94] Creating Layer conv3
I0501 23:37:15.321372 16557 net.cpp:435] conv3 <- pool2
I0501 23:37:15.321377 16557 net.cpp:409] conv3 -> conv3
I0501 23:37:15.326258 16557 net.cpp:144] Setting up conv3
I0501 23:37:15.326272 16557 net.cpp:151] Top shape: 20 64 5 5 (32000)
I0501 23:37:15.326277 16557 net.cpp:159] Memory required for data: 2312080
I0501 23:37:15.326284 16557 layer_factory.hpp:77] Creating layer relu3
I0501 23:37:15.326289 16557 net.cpp:94] Creating Layer relu3
I0501 23:37:15.326293 16557 net.cpp:435] relu3 <- conv3
I0501 23:37:15.326297 16557 net.cpp:396] relu3 -> conv3 (in-place)
I0501 23:37:15.326304 16557 net.cpp:144] Setting up relu3
I0501 23:37:15.326308 16557 net.cpp:151] Top shape: 20 64 5 5 (32000)
I0501 23:37:15.326311 16557 net.cpp:159] Memory required for data: 2440080
I0501 23:37:15.326314 16557 layer_factory.hpp:77] Creating layer conv4
I0501 23:37:15.326323 16557 net.cpp:94] Creating Layer conv4
I0501 23:37:15.326326 16557 net.cpp:435] conv4 <- conv3
I0501 23:37:15.326330 16557 net.cpp:409] conv4 -> conv4
I0501 23:37:15.330735 16557 net.cpp:144] Setting up conv4
I0501 23:37:15.330749 16557 net.cpp:151] Top shape: 20 64 5 5 (32000)
I0501 23:37:15.330751 16557 net.cpp:159] Memory required for data: 2568080
I0501 23:37:15.330759 16557 layer_factory.hpp:77] Creating layer relu4
I0501 23:37:15.330763 16557 net.cpp:94] Creating Layer relu4
I0501 23:37:15.330767 16557 net.cpp:435] relu4 <- conv4
I0501 23:37:15.330771 16557 net.cpp:396] relu4 -> conv4 (in-place)
I0501 23:37:15.330778 16557 net.cpp:144] Setting up relu4
I0501 23:37:15.330782 16557 net.cpp:151] Top shape: 20 64 5 5 (32000)
I0501 23:37:15.330785 16557 net.cpp:159] Memory required for data: 2696080
I0501 23:37:15.330788 16557 layer_factory.hpp:77] Creating layer conv5
I0501 23:37:15.330796 16557 net.cpp:94] Creating Layer conv5
I0501 23:37:15.330799 16557 net.cpp:435] conv5 <- conv4
I0501 23:37:15.330804 16557 net.cpp:409] conv5 -> conv5
I0501 23:37:15.335645 16557 net.cpp:144] Setting up conv5
I0501 23:37:15.335659 16557 net.cpp:151] Top shape: 20 64 5 5 (32000)
I0501 23:37:15.335662 16557 net.cpp:159] Memory required for data: 2824080
I0501 23:37:15.335671 16557 layer_factory.hpp:77] Creating layer relu5
I0501 23:37:15.335676 16557 net.cpp:94] Creating Layer relu5
I0501 23:37:15.335680 16557 net.cpp:435] relu5 <- conv5
I0501 23:37:15.335685 16557 net.cpp:396] relu5 -> conv5 (in-place)
I0501 23:37:15.335691 16557 net.cpp:144] Setting up relu5
I0501 23:37:15.335695 16557 net.cpp:151] Top shape: 20 64 5 5 (32000)
I0501 23:37:15.335698 16557 net.cpp:159] Memory required for data: 2952080
I0501 23:37:15.335701 16557 layer_factory.hpp:77] Creating layer pool5
I0501 23:37:15.335706 16557 net.cpp:94] Creating Layer pool5
I0501 23:37:15.335710 16557 net.cpp:435] pool5 <- conv5
I0501 23:37:15.335713 16557 net.cpp:409] pool5 -> pool5
I0501 23:37:15.335752 16557 net.cpp:144] Setting up pool5
I0501 23:37:15.335760 16557 net.cpp:151] Top shape: 20 64 2 2 (5120)
I0501 23:37:15.335763 16557 net.cpp:159] Memory required for data: 2972560
I0501 23:37:15.335767 16557 layer_factory.hpp:77] Creating layer ip1
I0501 23:37:15.335773 16557 net.cpp:94] Creating Layer ip1
I0501 23:37:15.335777 16557 net.cpp:435] ip1 <- pool5
I0501 23:37:15.335782 16557 net.cpp:409] ip1 -> ip1
I0501 23:37:15.337144 16557 net.cpp:144] Setting up ip1
I0501 23:37:15.337158 16557 net.cpp:151] Top shape: 20 64 (1280)
I0501 23:37:15.337162 16557 net.cpp:159] Memory required for data: 2977680
I0501 23:37:15.337168 16557 layer_factory.hpp:77] Creating layer ip2
I0501 23:37:15.337175 16557 net.cpp:94] Creating Layer ip2
I0501 23:37:15.337185 16557 net.cpp:435] ip2 <- ip1
I0501 23:37:15.337191 16557 net.cpp:409] ip2 -> ip2
I0501 23:37:15.337405 16557 net.cpp:144] Setting up ip2
I0501 23:37:15.337414 16557 net.cpp:151] Top shape: 20 64 (1280)
I0501 23:37:15.337416 16557 net.cpp:159] Memory required for data: 2982800
I0501 23:37:15.337422 16557 layer_factory.hpp:77] Creating layer ip3
I0501 23:37:15.337429 16557 net.cpp:94] Creating Layer ip3
I0501 23:37:15.337431 16557 net.cpp:435] ip3 <- ip2
I0501 23:37:15.337436 16557 net.cpp:409] ip3 -> ip3
I0501 23:37:15.337543 16557 net.cpp:144] Setting up ip3
I0501 23:37:15.337551 16557 net.cpp:151] Top shape: 20 1 (20)
I0501 23:37:15.337554 16557 net.cpp:159] Memory required for data: 2982880
I0501 23:37:15.337559 16557 layer_factory.hpp:77] Creating layer loss
I0501 23:37:15.337570 16557 net.cpp:94] Creating Layer loss
I0501 23:37:15.337574 16557 net.cpp:435] loss <- ip3
I0501 23:37:15.337577 16557 net.cpp:435] loss <- label
I0501 23:37:15.337581 16557 net.cpp:409] loss -> loss
I0501 23:37:15.337633 16557 net.cpp:144] Setting up loss
…
I0501 23:37:15.399147 16557 net.cpp:323] The NetState phase (0) differed from the phase (1) specified by a rule in layer intercept
I0501 23:37:15.399161 16557 net.cpp:323] The NetState phase (0) differed from the phase (1) specified by a rule in layer accuracy
I0501 23:37:15.399251 16557 net.cpp:52] Initializing net from parameters: 
state {
  phase: TRAIN
}
layer {
  name: "parameters"
  type: "HDF5Data"
  top: "data"
  top: "label"
  include {
    phase: TRAIN
  }
  hdf5_data_param {
    source: "/home/purduethu/scratch/radon/d/deng106/CNNStatisticalModel/distributions/input/50_distributions_100_sample_size_train-distributions-path.txt"
    batch_size: 20
  }
}
layer {
  name: "conv1"
  type: "Convolution"
  bottom: "data"
  top: "conv1"
  param {
    lr_mult: 1
  }
  param {
    lr_mult: 2
  }
  convolution_param {
    num_output: 64
    pad: 2
    kernel_size: 5
    stride: 1
    weight_filler {
      type: "gaussian"
      std: 0.0001
    }
    bias_filler {
      type: "constant"
    }
  }
}
layer {
  name: "relu1"
  type: "ReLU"
  bottom: "conv1"
  top: "conv1"
}
layer {
  name: "conv2"
  type: "Convolution"
  bottom: "conv1"
  top: "conv2"
  param {
    lr_mult: 1
  }
  param {
    lr_mult: 2
  }
  convolution_param {
    num_output: 64
    pad: 2
    kernel_size: 5
    stride: 1
    weight_filler {
      type: "gaussian"
      std: 0.01
    }
    bias_filler {
      type: "constant"
    }
  }
}
layer {
  name: "relu2"
  type: "ReLU"
  bottom: "conv2"
  top: "conv2"
}
layer {
  name: "pool2"
  type: "Pooling"
  bottom: "conv2"
  top: "pool2"
  pooling_param {
    pool: MAX
    kernel_size: 3
    stride: 2
  }
}
layer {
  name: "conv3"
  type: "Convolution"
  bottom: "pool2"
  top: "conv3"
  param {
    lr_mult: 1
  }
  param {
    lr_mult: 2
  }
  convolution_param {
    num_output: 64
    pad: 2
    kernel_size: 5
    stride: 1
    weight_filler {
      type: "gaussian"
      std: 0.01
    }
    bias_filler {
      type: "constant"
    }
  }
}
layer {
  name: "relu3"
  type: "ReLU"
  bottom: "conv3"
  top: "conv3"
}
layer {
  name: "conv4"
  type: "Convolution"
  bottom: "conv3"
  top: "conv4"
  param {
    lr_mult: 1
  }
  param {
    lr_mult: 2
  }
  convolution_param {
    num_output: 64
    pad: 2
    kernel_size: 5
    stride: 1
    weight_filler {
      type: "gaussian"
      std: 0.01
    }
    bias_filler {
      type: "constant"
    }
  }
}
layer {
  name: "relu4"
  type: "ReLU"
  bottom: "conv4"
  top: "conv4"
}
layer {
  name: "conv5"
  type: "Convolution"
  bottom: "conv4"
  top: "conv5"
  param {
    lr_mult: 1
  }
  param {
    lr_mult: 2
  }
  convolution_param {
    num_output: 64
    pad: 2
    kernel_size: 5
    stride: 1
    weight_filler {
      type: "gaussian"
      std: 0.01
    }
    bias_filler {
      type: "constant"
    }
  }
}
layer {
  name: "relu5"
  type: "ReLU"
  bottom: "conv5"
  top: "conv5"
}
layer {
  name: "pool5"
  type: "Pooling"
  bottom: "conv5"
  top: "pool5"
  pooling_param {
    pool: AVE
    kernel_size: 3
    stride: 2
  }
}
layer {
  name: "ip1"
  type: "InnerProduct"
  bottom: "pool5"
  top: "ip1"
  param {
    lr_mult: 1
  }
  param {
    lr_mult: 2
  }
  inner_product_param {
    num_output: 64
    weight_filler {
      type: "gaussian"
      std: 0.1
    }
    bias_filler {
      type: "constant"
    }
  }
}
layer {
  name: "ip2"
  type: "InnerProduct"
  bottom: "ip1"
  top: "ip2"
  param {
    lr_mult: 1
  }
  param {
    lr_mult: 2
  }
  inner_product_param {
    num_output: 64
    weight_filler {
      type: "gaussian"
      std: 0.1
    }
    bias_filler {
      type: "constant"
    }
  }
}
layer {
  name: "ip3"
  type: "InnerProduct"
  bottom: "ip2"
  top: "ip3"
  param {
    lr_mult: 1
  }
  param {
    lr_mult: 2
  }
  inner_product_param {
    num_output: 50
    weight_filler {
      type: "gaussian"
      std: 0.1
    }
    bias_filler {
      type: "constant"
    }
  }
}
layer {
  name: "loss"
  type: "SoftmaxWithLoss"
  bottom: "ip3"
  bottom: "label"
  top: "loss"
}
I0501 23:37:15.399303 16557 layer_factory.hpp:77] Creating layer parameters
I0501 23:37:15.399312 16557 net.cpp:94] Creating Layer parameters
I0501 23:37:15.399315 16557 net.cpp:409] parameters -> data
I0501 23:37:15.399322 16557 net.cpp:409] parameters -> label
I0501 23:37:15.399327 16557 hdf5_data_layer.cpp:79] Loading list of HDF5 filenames from: /home/purduethu/scratch/radon/d/deng106/CNNStatisticalModel/distributions/input/50_distributions_100_sample_size_train-distributions-path.txt
I0501 23:37:15.399344 16557 hdf5_data_layer.cpp:93] Number of HDF5 files: 1
I0501 23:37:15.557134 16557 hdf5.cpp:35] Datatype class: H5T_INTEGER
I0501 23:37:15.560158 16557 net.cpp:144] Setting up parameters
I0501 23:37:15.560174 16557 net.cpp:151] Top shape: 20 1 10 10 (2000)
I0501 23:37:15.560179 16557 net.cpp:151] Top shape: 20 (20)
I0501 23:37:15.560184 16557 net.cpp:159] Memory required for data: 8080
I0501 23:37:15.560189 16557 layer_factory.hpp:77] Creating layer conv1
I0501 23:37:15.560205 16557 net.cpp:94] Creating Layer conv1
I0501 23:37:15.560210 16557 net.cpp:435] conv1 <- data
I0501 23:37:15.560216 16557 net.cpp:409] conv1 -> conv1
I0501 23:37:15.561965 16557 net.cpp:144] Setting up conv1
I0501 23:37:15.561980 16557 net.cpp:151] Top shape: 20 64 10 10 (128000)
I0501 23:37:15.561983 16557 net.cpp:159] Memory required for data: 520080
I0501 23:37:15.561992 16557 layer_factory.hpp:77] Creating layer relu1
I0501 23:37:15.562000 16557 net.cpp:94] Creating Layer relu1
I0501 23:37:15.562003 16557 net.cpp:435] relu1 <- conv1
I0501 23:37:15.562008 16557 net.cpp:396] relu1 -> conv1 (in-place)
I0501 23:37:15.562016 16557 net.cpp:144] Setting up relu1
I0501 23:37:15.562019 16557 net.cpp:151] Top shape: 20 64 10 10 (128000)
I0501 23:37:15.562022 16557 net.cpp:159] Memory required for data: 1032080
I0501 23:37:15.562026 16557 layer_factory.hpp:77] Creating layer conv2
I0501 23:37:15.562032 16557 net.cpp:94] Creating Layer conv2
I0501 23:37:15.562036 16557 net.cpp:435] conv2 <- conv1
I0501 23:37:15.562041 16557 net.cpp:409] conv2 -> conv2
I0501 23:37:15.567364 16557 net.cpp:144] Setting up conv2
I0501 23:37:15.567378 16557 net.cpp:151] Top shape: 20 64 10 10 (128000)
I0501 23:37:15.567381 16557 net.cpp:159] Memory required for data: 1544080
I0501 23:37:15.567389 16557 layer_factory.hpp:77] Creating layer relu2
I0501 23:37:15.567396 16557 net.cpp:94] Creating Layer relu2
I0501 23:37:15.567399 16557 net.cpp:435] relu2 <- conv2
I0501 23:37:15.567404 16557 net.cpp:396] relu2 -> conv2 (in-place)
I0501 23:37:15.567410 16557 net.cpp:144] Setting up relu2
I0501 23:37:15.567414 16557 net.cpp:151] Top shape: 20 64 10 10 (128000)
I0501 23:37:15.567417 16557 net.cpp:159] Memory required for data: 2056080
I0501 23:37:15.567420 16557 layer_factory.hpp:77] Creating layer pool2
I0501 23:37:15.567426 16557 net.cpp:94] Creating Layer pool2
I0501 23:37:15.567430 16557 net.cpp:435] pool2 <- conv2
I0501 23:37:15.567433 16557 net.cpp:409] pool2 -> pool2
I0501 23:37:15.567488 16557 net.cpp:144] Setting up pool2
I0501 23:37:15.567497 16557 net.cpp:151] Top shape: 20 64 5 5 (32000)
I0501 23:37:15.567499 16557 net.cpp:159] Memory required for data: 2184080
I0501 23:37:15.567502 16557 layer_factory.hpp:77] Creating layer conv3
I0501 23:37:15.567510 16557 net.cpp:94] Creating Layer conv3
I0501 23:37:15.567514 16557 net.cpp:435] conv3 <- pool2
I0501 23:37:15.567519 16557 net.cpp:409] conv3 -> conv3
I0501 23:37:15.573307 16557 net.cpp:144] Setting up conv3
I0501 23:37:15.573321 16557 net.cpp:151] Top shape: 20 64 5 5 (32000)
I0501 23:37:15.573324 16557 net.cpp:159] Memory required for data: 2312080
I0501 23:37:15.573333 16557 layer_factory.hpp:77] Creating layer relu3
I0501 23:37:15.573338 16557 net.cpp:94] Creating Layer relu3
I0501 23:37:15.573343 16557 net.cpp:435] relu3 <- conv3
I0501 23:37:15.573346 16557 net.cpp:396] relu3 -> conv3 (in-place)
I0501 23:37:15.573354 16557 net.cpp:144] Setting up relu3
I0501 23:37:15.573357 16557 net.cpp:151] Top shape: 20 64 5 5 (32000)
I0501 23:37:15.573360 16557 net.cpp:159] Memory required for data: 2440080
I0501 23:37:15.573364 16557 layer_factory.hpp:77] Creating layer conv4
I0501 23:37:15.573372 16557 net.cpp:94] Creating Layer conv4
I0501 23:37:15.573375 16557 net.cpp:435] conv4 <- conv3
I0501 23:37:15.573380 16557 net.cpp:409] conv4 -> conv4
I0501 23:37:15.578259 16557 net.cpp:144] Setting up conv4
I0501 23:37:15.578274 16557 net.cpp:151] Top shape: 20 64 5 5 (32000)
I0501 23:37:15.578276 16557 net.cpp:159] Memory required for data: 2568080
I0501 23:37:15.578284 16557 layer_factory.hpp:77] Creating layer relu4
I0501 23:37:15.578289 16557 net.cpp:94] Creating Layer relu4
I0501 23:37:15.578292 16557 net.cpp:435] relu4 <- conv4
I0501 23:37:15.578296 16557 net.cpp:396] relu4 -> conv4 (in-place)
I0501 23:37:15.578302 16557 net.cpp:144] Setting up relu4
I0501 23:37:15.578307 16557 net.cpp:151] Top shape: 20 64 5 5 (32000)
I0501 23:37:15.578310 16557 net.cpp:159] Memory required for data: 2696080
I0501 23:37:15.578312 16557 layer_factory.hpp:77] Creating layer conv5
I0501 23:37:15.578320 16557 net.cpp:94] Creating Layer conv5
I0501 23:37:15.578323 16557 net.cpp:435] conv5 <- conv4
I0501 23:37:15.578328 16557 net.cpp:409] conv5 -> conv5
I0501 23:37:15.582748 16557 net.cpp:144] Setting up conv5
I0501 23:37:15.582762 16557 net.cpp:151] Top shape: 20 64 5 5 (32000)
I0501 23:37:15.582765 16557 net.cpp:159] Memory required for data: 2824080
I0501 23:37:15.582773 16557 layer_factory.hpp:77] Creating layer relu5
I0501 23:37:15.582779 16557 net.cpp:94] Creating Layer relu5
I0501 23:37:15.582782 16557 net.cpp:435] relu5 <- conv5
I0501 23:37:15.582787 16557 net.cpp:396] relu5 -> conv5 (in-place)
I0501 23:37:15.582793 16557 net.cpp:144] Setting up relu5
I0501 23:37:15.582798 16557 net.cpp:151] Top shape: 20 64 5 5 (32000)
I0501 23:37:15.582800 16557 net.cpp:159] Memory required for data: 2952080
I0501 23:37:15.582803 16557 layer_factory.hpp:77] Creating layer pool5
I0501 23:37:15.582808 16557 net.cpp:94] Creating Layer pool5
I0501 23:37:15.582811 16557 net.cpp:435] pool5 <- conv5
I0501 23:37:15.582816 16557 net.cpp:409] pool5 -> pool5
I0501 23:37:15.582852 16557 net.cpp:144] Setting up pool5
I0501 23:37:15.582859 16557 net.cpp:151] Top shape: 20 64 2 2 (5120)
I0501 23:37:15.582864 16557 net.cpp:159] Memory required for data: 2972560
I0501 23:37:15.582866 16557 layer_factory.hpp:77] Creating layer ip1
I0501 23:37:15.582873 16557 net.cpp:94] Creating Layer ip1
I0501 23:37:15.582876 16557 net.cpp:435] ip1 <- pool5
I0501 23:37:15.582881 16557 net.cpp:409] ip1 -> ip1
I0501 23:37:15.583401 16557 net.cpp:144] Setting up ip1
I0501 23:37:15.583410 16557 net.cpp:151] Top shape: 20 64 (1280)
I0501 23:37:15.583413 16557 net.cpp:159] Memory required for data: 2977680
I0501 23:37:15.583418 16557 layer_factory.hpp:77] Creating layer ip2
I0501 23:37:15.583425 16557 net.cpp:94] Creating Layer ip2
I0501 23:37:15.583428 16557 net.cpp:435] ip2 <- ip1
I0501 23:37:15.583432 16557 net.cpp:409] ip2 -> ip2
I0501 23:37:15.583657 16557 net.cpp:144] Setting up ip2
I0501 23:37:15.583665 16557 net.cpp:151] Top shape: 20 64 (1280)
I0501 23:37:15.583668 16557 net.cpp:159] Memory required for data: 2982800
I0501 23:37:15.583673 16557 layer_factory.hpp:77] Creating layer ip3
I0501 23:37:15.583679 16557 net.cpp:94] Creating Layer ip3
I0501 23:37:15.583683 16557 net.cpp:435] ip3 <- ip2
I0501 23:37:15.583688 16557 net.cpp:409] ip3 -> ip3
I0501 23:37:15.583885 16557 net.cpp:144] Setting up ip3
I0501 23:37:15.583894 16557 net.cpp:151] Top shape: 20 50 (1000)
I0501 23:37:15.583900 16557 net.cpp:159] Memory required for data: 2986800
I0501 23:37:15.583906 16557 layer_factory.hpp:77] Creating layer loss
I0501 23:37:15.583914 16557 net.cpp:94] Creating Layer loss
I0501 23:37:15.583916 16557 net.cpp:435] loss <- ip3
I0501 23:37:15.583920 16557 net.cpp:435] loss <- label
I0501 23:37:15.583925 16557 net.cpp:409] loss -> loss
I0501 23:37:15.583931 16557 layer_factory.hpp:77] Creating layer loss
…
I0501 23:37:15.585317 16557 solver.cpp:181] Creating test net (#0) specified by net file: ./protocol/dis_50_100_dimension.protocol_distribution
I0501 23:37:15.585343 16557 net.cpp:323] The NetState phase (1) differed from the phase (0) specified by a rule in layer parameters
I0501 23:37:15.585439 16557 net.cpp:52] Initializing net from parameters: 
state {
  phase: TEST
}
layer {
  name: "intercept"
  type: "HDF5Data"
  top: "data"
  top: "label"
  include {
    phase: TEST
  }
  hdf5_data_param {
    source: "/home/purduethu/scratch/radon/d/deng106/CNNStatisticalModel/distributions/input/50_distributions_100_sample_size_test-distributions-path.txt"
    batch_size: 20
  }
}
layer {
  name: "conv1"
  type: "Convolution"
  bottom: "data"
  top: "conv1"
  param {
    lr_mult: 1
  }
  param {
    lr_mult: 2
  }
  convolution_param {
    num_output: 64
    pad: 2
    kernel_size: 5
    stride: 1
    weight_filler {
      type: "gaussian"
      std: 0.0001
    }
    bias_filler {
      type: "constant"
    }
  }
}
layer {
  name: "relu1"
  type: "ReLU"
  bottom: "conv1"
  top: "conv1"
}
layer {
  name: "conv2"
  type: "Convolution"
  bottom: "conv1"
  top: "conv2"
  param {
    lr_mult: 1
  }
  param {
    lr_mult: 2
  }
  convolution_param {
    num_output: 64
    pad: 2
    kernel_size: 5
    stride: 1
    weight_filler {
      type: "gaussian"
      std: 0.01
    }
    bias_filler {
      type: "constant"
    }
  }
}
layer {
  name: "relu2"
  type: "ReLU"
  bottom: "conv2"
  top: "conv2"
}
layer {
  name: "pool2"
  type: "Pooling"
  bottom: "conv2"
  top: "pool2"
  pooling_param {
    pool: MAX
    kernel_size: 3
    stride: 2
  }
}
layer {
  name: "conv3"
  type: "Convolution"
  bottom: "pool2"
  top: "conv3"
  param {
    lr_mult: 1
  }
  param {
    lr_mult: 2
  }
  convolution_param {
    num_output: 64
    pad: 2
    kernel_size: 5
    stride: 1
    weight_filler {
      type: "gaussian"
      std: 0.01
    }
    bias_filler {
      type: "constant"
    }
  }
}
layer {
  name: "relu3"
  type: "ReLU"
  bottom: "conv3"
  top: "conv3"
}
layer {
  name: "conv4"
  type: "Convolution"
  bottom: "conv3"
  top: "conv4"
  param {
    lr_mult: 1
  }
  param {
    lr_mult: 2
  }
  convolution_param {
    num_output: 64
    pad: 2
    kernel_size: 5
    stride: 1
    weight_filler {
      type: "gaussian"
      std: 0.01
    }
    bias_filler {
      type: "constant"
    }
  }
}
layer {
  name: "relu4"
  type: "ReLU"
  bottom: "conv4"
  top: "conv4"
}
layer {
  name: "conv5"
  type: "Convolution"
  bottom: "conv4"
  top: "conv5"
  param {
    lr_mult: 1
  }
  param {
    lr_mult: 2
  }
  convolution_param {
    num_output: 64
    pad: 2
    kernel_size: 5
    stride: 1
    weight_filler {
      type: "gaussian"
      std: 0.01
    }
    bias_filler {
      type: "constant"
    }
  }
}
layer {
  name: "relu5"
  type: "ReLU"
  bottom: "conv5"
  top: "conv5"
}
layer {
  name: "pool5"
  type: "Pooling"
  bottom: "conv5"
  top: "pool5"
  pooling_param {
    pool: AVE
    kernel_size: 3
    stride: 2
  }
}
layer {
  name: "ip1"
  type: "InnerProduct"
  bottom: "pool5"
  top: "ip1"
  param {
    lr_mult: 1
  }
  param {
    lr_mult: 2
  }
  inner_product_param {
    num_output: 64
    weight_filler {
      type: "gaussian"
      std: 0.1
    }
    bias_filler {
      type: "constant"
    }
  }
}
layer {
  name: "ip2"
  type: "InnerProduct"
  bottom: "ip1"
  top: "ip2"
  param {
    lr_mult: 1
  }
  param {
    lr_mult: 2
  }
  inner_product_param {
    num_output: 64
    weight_filler {
      type: "gaussian"
      std: 0.1
    }
    bias_filler {
      type: "constant"
    }
  }
}
layer {
  name: "ip3"
  type: "InnerProduct"
  bottom: "ip2"
  top: "ip3"
  param {
    lr_mult: 1
  }
  param {
    lr_mult: 2
  }
  inner_product_param {
    num_output: 50
    weight_filler {
      type: "gaussian"
      std: 0.1
    }
    bias_filler {
      type: "constant"
    }
  }
}
layer {
  name: "accuracy"
  type: "Accuracy"
  bottom: "ip3"
  bottom: "label"
  top: "accuracy"
  include {
    phase: TEST
  }
}
layer {
  name: "loss"
  type: "SoftmaxWithLoss"
  bottom: "ip3"
  bottom: "label"
  top: "loss"
}
I0501 23:37:15.585503 16557 layer_factory.hpp:77] Creating layer intercept
I0501 23:37:15.585511 16557 net.cpp:94] Creating Layer intercept
I0501 23:37:15.585515 16557 net.cpp:409] intercept -> data
I0501 23:37:15.585521 16557 net.cpp:409] intercept -> label
I0501 23:37:15.585527 16557 hdf5_data_layer.cpp:79] Loading list of HDF5 filenames from: /home/purduethu/scratch/radon/d/deng106/CNNStatisticalModel/distributions/input/50_distributions_100_sample_size_test-distributions-path.txt
I0501 23:37:15.585546 16557 hdf5_data_layer.cpp:93] Number of HDF5 files: 1
I0501 23:37:15.627024 16557 net.cpp:144] Setting up intercept
I0501 23:37:15.627058 16557 net.cpp:151] Top shape: 20 1 10 10 (2000)
I0501 23:37:15.627063 16557 net.cpp:151] Top shape: 20 (20)
I0501 23:37:15.627066 16557 net.cpp:159] Memory required for data: 8080
I0501 23:37:15.627074 16557 layer_factory.hpp:77] Creating layer label_intercept_1_split
I0501 23:37:15.627091 16557 net.cpp:94] Creating Layer label_intercept_1_split
I0501 23:37:15.627095 16557 net.cpp:435] label_intercept_1_split <- label
I0501 23:37:15.627101 16557 net.cpp:409] label_intercept_1_split -> label_intercept_1_split_0
I0501 23:37:15.627110 16557 net.cpp:409] label_intercept_1_split -> label_intercept_1_split_1
I0501 23:37:15.627154 16557 net.cpp:144] Setting up label_intercept_1_split
I0501 23:37:15.627161 16557 net.cpp:151] Top shape: 20 (20)
I0501 23:37:15.627166 16557 net.cpp:151] Top shape: 20 (20)
I0501 23:37:15.627168 16557 net.cpp:159] Memory required for data: 8240
I0501 23:37:15.627172 16557 layer_factory.hpp:77] Creating layer conv1
I0501 23:37:15.627184 16557 net.cpp:94] Creating Layer conv1
I0501 23:37:15.627188 16557 net.cpp:435] conv1 <- data
I0501 23:37:15.627192 16557 net.cpp:409] conv1 -> conv1
I0501 23:37:15.628042 16557 net.cpp:144] Setting up conv1
I0501 23:37:15.628054 16557 net.cpp:151] Top shape: 20 64 10 10 (128000)
I0501 23:37:15.628065 16557 net.cpp:159] Memory required for data: 520240
I0501 23:37:15.628075 16557 layer_factory.hpp:77] Creating layer relu1
I0501 23:37:15.628082 16557 net.cpp:94] Creating Layer relu1
I0501 23:37:15.628085 16557 net.cpp:435] relu1 <- conv1
I0501 23:37:15.628090 16557 net.cpp:396] relu1 -> conv1 (in-place)
I0501 23:37:15.628098 16557 net.cpp:144] Setting up relu1
I0501 23:37:15.628101 16557 net.cpp:151] Top shape: 20 64 10 10 (128000)
I0501 23:37:15.628104 16557 net.cpp:159] Memory required for data: 1032240
I0501 23:37:15.628108 16557 layer_factory.hpp:77] Creating layer conv2
I0501 23:37:15.628114 16557 net.cpp:94] Creating Layer conv2
I0501 23:37:15.628118 16557 net.cpp:435] conv2 <- conv1
I0501 23:37:15.628123 16557 net.cpp:409] conv2 -> conv2
I0501 23:37:15.632192 16557 net.cpp:144] Setting up conv2
I0501 23:37:15.632206 16557 net.cpp:151] Top shape: 20 64 10 10 (128000)
I0501 23:37:15.632210 16557 net.cpp:159] Memory required for data: 1544240
I0501 23:37:15.632217 16557 layer_factory.hpp:77] Creating layer relu2
I0501 23:37:15.632225 16557 net.cpp:94] Creating Layer relu2
I0501 23:37:15.632228 16557 net.cpp:435] relu2 <- conv2
I0501 23:37:15.632232 16557 net.cpp:396] relu2 -> conv2 (in-place)
I0501 23:37:15.632239 16557 net.cpp:144] Setting up relu2
I0501 23:37:15.632243 16557 net.cpp:151] Top shape: 20 64 10 10 (128000)
I0501 23:37:15.632246 16557 net.cpp:159] Memory required for data: 2056240
I0501 23:37:15.632249 16557 layer_factory.hpp:77] Creating layer pool2
I0501 23:37:15.632256 16557 net.cpp:94] Creating Layer pool2
I0501 23:37:15.632257 16557 net.cpp:435] pool2 <- conv2
I0501 23:37:15.632261 16557 net.cpp:409] pool2 -> pool2
I0501 23:37:15.632320 16557 net.cpp:144] Setting up pool2
I0501 23:37:15.632328 16557 net.cpp:151] Top shape: 20 64 5 5 (32000)
I0501 23:37:15.632330 16557 net.cpp:159] Memory required for data: 2184240
I0501 23:37:15.632334 16557 layer_factory.hpp:77] Creating layer conv3
I0501 23:37:15.632342 16557 net.cpp:94] Creating Layer conv3
I0501 23:37:15.632346 16557 net.cpp:435] conv3 <- pool2
I0501 23:37:15.632351 16557 net.cpp:409] conv3 -> conv3
I0501 23:37:15.636791 16557 net.cpp:144] Setting up conv3
I0501 23:37:15.636804 16557 net.cpp:151] Top shape: 20 64 5 5 (32000)
I0501 23:37:15.636808 16557 net.cpp:159] Memory required for data: 2312240
I0501 23:37:15.636816 16557 layer_factory.hpp:77] Creating layer relu3
I0501 23:37:15.636823 16557 net.cpp:94] Creating Layer relu3
I0501 23:37:15.636826 16557 net.cpp:435] relu3 <- conv3
I0501 23:37:15.636831 16557 net.cpp:396] relu3 -> conv3 (in-place)
I0501 23:37:15.636837 16557 net.cpp:144] Setting up relu3
I0501 23:37:15.636842 16557 net.cpp:151] Top shape: 20 64 5 5 (32000)
I0501 23:37:15.636844 16557 net.cpp:159] Memory required for data: 2440240
I0501 23:37:15.636847 16557 layer_factory.hpp:77] Creating layer conv4
I0501 23:37:15.636857 16557 net.cpp:94] Creating Layer conv4
I0501 23:37:15.636860 16557 net.cpp:435] conv4 <- conv3
I0501 23:37:15.636865 16557 net.cpp:409] conv4 -> conv4
I0501 23:37:15.640406 16557 net.cpp:144] Setting up conv4
I0501 23:37:15.640419 16557 net.cpp:151] Top shape: 20 64 5 5 (32000)
I0501 23:37:15.640421 16557 net.cpp:159] Memory required for data: 2568240
I0501 23:37:15.640427 16557 layer_factory.hpp:77] Creating layer relu4
I0501 23:37:15.640434 16557 net.cpp:94] Creating Layer relu4
I0501 23:37:15.640436 16557 net.cpp:435] relu4 <- conv4
I0501 23:37:15.640440 16557 net.cpp:396] relu4 -> conv4 (in-place)
I0501 23:37:15.640446 16557 net.cpp:144] Setting up relu4
I0501 23:37:15.640451 16557 net.cpp:151] Top shape: 20 64 5 5 (32000)
I0501 23:37:15.640455 16557 net.cpp:159] Memory required for data: 2696240
I0501 23:37:15.640457 16557 layer_factory.hpp:77] Creating layer conv5
I0501 23:37:15.640466 16557 net.cpp:94] Creating Layer conv5
I0501 23:37:15.640470 16557 net.cpp:435] conv5 <- conv4
I0501 23:37:15.640475 16557 net.cpp:409] conv5 -> conv5
I0501 23:37:15.644490 16557 net.cpp:144] Setting up conv5
I0501 23:37:15.644503 16557 net.cpp:151] Top shape: 20 64 5 5 (32000)
I0501 23:37:15.644507 16557 net.cpp:159] Memory required for data: 2824240
I0501 23:37:15.644520 16557 layer_factory.hpp:77] Creating layer relu5
I0501 23:37:15.644526 16557 net.cpp:94] Creating Layer relu5
I0501 23:37:15.644529 16557 net.cpp:435] relu5 <- conv5
I0501 23:37:15.644536 16557 net.cpp:396] relu5 -> conv5 (in-place)
I0501 23:37:15.644541 16557 net.cpp:144] Setting up relu5
I0501 23:37:15.644546 16557 net.cpp:151] Top shape: 20 64 5 5 (32000)
I0501 23:37:15.644549 16557 net.cpp:159] Memory required for data: 2952240
I0501 23:37:15.644562 16557 layer_factory.hpp:77] Creating layer pool5
I0501 23:37:15.644567 16557 net.cpp:94] Creating Layer pool5
I0501 23:37:15.644569 16557 net.cpp:435] pool5 <- conv5
I0501 23:37:15.644573 16557 net.cpp:409] pool5 -> pool5
I0501 23:37:15.644614 16557 net.cpp:144] Setting up pool5
I0501 23:37:15.644623 16557 net.cpp:151] Top shape: 20 64 2 2 (5120)
I0501 23:37:15.644625 16557 net.cpp:159] Memory required for data: 2972720
I0501 23:37:15.644629 16557 layer_factory.hpp:77] Creating layer ip1
I0501 23:37:15.644635 16557 net.cpp:94] Creating Layer ip1
I0501 23:37:15.644639 16557 net.cpp:435] ip1 <- pool5
I0501 23:37:15.644644 16557 net.cpp:409] ip1 -> ip1
I0501 23:37:15.645175 16557 net.cpp:144] Setting up ip1
I0501 23:37:15.645184 16557 net.cpp:151] Top shape: 20 64 (1280)
I0501 23:37:15.645187 16557 net.cpp:159] Memory required for data: 2977840
I0501 23:37:15.645192 16557 layer_factory.hpp:77] Creating layer ip2
I0501 23:37:15.645198 16557 net.cpp:94] Creating Layer ip2
I0501 23:37:15.645201 16557 net.cpp:435] ip2 <- ip1
I0501 23:37:15.645206 16557 net.cpp:409] ip2 -> ip2
I0501 23:37:15.645440 16557 net.cpp:144] Setting up ip2
I0501 23:37:15.645448 16557 net.cpp:151] Top shape: 20 64 (1280)
I0501 23:37:15.645452 16557 net.cpp:159] Memory required for data: 2982960
I0501 23:37:15.645457 16557 layer_factory.hpp:77] Creating layer ip3
I0501 23:37:15.645465 16557 net.cpp:94] Creating Layer ip3
I0501 23:37:15.645468 16557 net.cpp:435] ip3 <- ip2
I0501 23:37:15.645475 16557 net.cpp:409] ip3 -> ip3
I0501 23:37:15.645684 16557 net.cpp:144] Setting up ip3
I0501 23:37:15.645691 16557 net.cpp:151] Top shape: 20 50 (1000)
I0501 23:37:15.645694 16557 net.cpp:159] Memory required for data: 2986960
I0501 23:37:15.645699 16557 layer_factory.hpp:77] Creating layer ip3_ip3_0_split
I0501 23:37:15.645704 16557 net.cpp:94] Creating Layer ip3_ip3_0_split
I0501 23:37:15.645707 16557 net.cpp:435] ip3_ip3_0_split <- ip3
I0501 23:37:15.645711 16557 net.cpp:409] ip3_ip3_0_split -> ip3_ip3_0_split_0
I0501 23:37:15.645716 16557 net.cpp:409] ip3_ip3_0_split -> ip3_ip3_0_split_1
I0501 23:37:15.645758 16557 net.cpp:144] Setting up ip3_ip3_0_split
I0501 23:37:15.645764 16557 net.cpp:151] Top shape: 20 50 (1000)
I0501 23:37:15.645768 16557 net.cpp:151] Top shape: 20 50 (1000)
I0501 23:37:15.645771 16557 net.cpp:159] Memory required for data: 2994960
I0501 23:37:15.645774 16557 layer_factory.hpp:77] Creating layer accuracy
I0501 23:37:15.645779 16557 net.cpp:94] Creating Layer accuracy
I0501 23:37:15.645782 16557 net.cpp:435] accuracy <- ip3_ip3_0_split_0
I0501 23:37:15.645787 16557 net.cpp:435] accuracy <- label_intercept_1_split_0
I0501 23:37:15.645790 16557 net.cpp:409] accuracy -> accuracy
…
