…
I0502 18:26:12.779487 12064 net.cpp:323] The NetState phase (0) differed from the phase (1) specified by a rule in layer intercept
I0502 18:26:12.779503 12064 net.cpp:323] The NetState phase (0) differed from the phase (1) specified by a rule in layer accuracy
I0502 18:26:12.779592 12064 net.cpp:52] Initializing net from parameters: 
state {
  phase: TRAIN
}
layer {
  name: "parameters"
  type: "HDF5Data"
  top: "data"
  top: "label"
  include {
    phase: TRAIN
  }
  hdf5_data_param {
    source: "/home/purduethu/scratch/radon/d/deng106/CNNStatisticalModel/distributions/input/20_distributions_100_sample_size_train-distributions-path.txt"
    batch_size: 20
  }
}
layer {
  name: "conv1"
  type: "Convolution"
  bottom: "data"
  top: "conv1"
  param {
    lr_mult: 1
  }
  param {
    lr_mult: 2
  }
  convolution_param {
    num_output: 64
    pad: 2
    kernel_size: 5
    stride: 1
    weight_filler {
      type: "gaussian"
      std: 0.0001
    }
    bias_filler {
      type: "constant"
    }
  }
}
layer {
  name: "relu1"
  type: "ReLU"
  bottom: "conv1"
  top: "conv1"
}
layer {
  name: "conv2"
  type: "Convolution"
  bottom: "conv1"
  top: "conv2"
  param {
    lr_mult: 1
  }
  param {
    lr_mult: 2
  }
  convolution_param {
    num_output: 64
    pad: 2
    kernel_size: 5
    stride: 1
    weight_filler {
      type: "gaussian"
      std: 0.01
    }
    bias_filler {
      type: "constant"
    }
  }
}
layer {
  name: "relu2"
  type: "ReLU"
  bottom: "conv2"
  top: "conv2"
}
layer {
  name: "pool2"
  type: "Pooling"
  bottom: "conv2"
  top: "pool2"
  pooling_param {
    pool: MAX
    kernel_size: 3
    stride: 2
  }
}
layer {
  name: "conv3"
  type: "Convolution"
  bottom: "pool2"
  top: "conv3"
  param {
    lr_mult: 1
  }
  param {
    lr_mult: 2
  }
  convolution_param {
    num_output: 64
    pad: 2
    kernel_size: 5
    stride: 1
    weight_filler {
      type: "gaussian"
      std: 0.01
    }
    bias_filler {
      type: "constant"
    }
  }
}
layer {
  name: "relu3"
  type: "ReLU"
  bottom: "conv3"
  top: "conv3"
}
layer {
  name: "conv4"
  type: "Convolution"
  bottom: "conv3"
  top: "conv4"
  param {
    lr_mult: 1
  }
  param {
    lr_mult: 2
  }
  convolution_param {
    num_output: 64
    pad: 2
    kernel_size: 5
    stride: 1
    weight_filler {
      type: "gaussian"
      std: 0.01
    }
    bias_filler {
      type: "constant"
    }
  }
}
layer {
  name: "relu4"
  type: "ReLU"
  bottom: "conv4"
  top: "conv4"
}
layer {
  name: "conv5"
  type: "Convolution"
  bottom: "conv4"
  top: "conv5"
  param {
    lr_mult: 1
  }
  param {
    lr_mult: 2
  }
  convolution_param {
    num_output: 64
    pad: 2
    kernel_size: 5
    stride: 1
    weight_filler {
      type: "gaussian"
      std: 0.01
    }
    bias_filler {
      type: "constant"
    }
  }
}
layer {
  name: "relu5"
  type: "ReLU"
  bottom: "conv5"
  top: "conv5"
}
layer {
  name: "pool5"
  type: "Pooling"
  bottom: "conv5"
  top: "pool5"
  pooling_param {
    pool: AVE
    kernel_size: 3
    stride: 2
  }
}
layer {
  name: "ip1"
  type: "InnerProduct"
  bottom: "pool5"
  top: "ip1"
  param {
    lr_mult: 1
  }
  param {
    lr_mult: 2
  }
  inner_product_param {
    num_output: 64
    weight_filler {
      type: "gaussian"
      std: 0.1
    }
    bias_filler {
      type: "constant"
    }
  }
}
layer {
  name: "ip2"
  type: "InnerProduct"
  bottom: "ip1"
  top: "ip2"
  param {
    lr_mult: 1
  }
  param {
    lr_mult: 2
  }
  inner_product_param {
    num_output: 64
    weight_filler {
      type: "gaussian"
      std: 0.1
    }
    bias_filler {
      type: "constant"
    }
  }
}
layer {
  name: "ip3"
  type: "InnerProduct"
  bottom: "ip2"
  top: "ip3"
  param {
    lr_mult: 1
  }
  param {
    lr_mult: 2
  }
  inner_product_param {
    num_output: 50
    weight_filler {
      type: "gaussian"
      std: 0.1
    }
    bias_filler {
      type: "constant"
    }
  }
}
layer {
  name: "loss"
  type: "SoftmaxWithLoss"
  bottom: "ip3"
  bottom: "label"
  top: "loss"
}
I0502 18:26:12.779666 12064 layer_factory.hpp:77] Creating layer parameters
I0502 18:26:12.779681 12064 net.cpp:94] Creating Layer parameters
I0502 18:26:12.779687 12064 net.cpp:409] parameters -> data
I0502 18:26:12.779706 12064 net.cpp:409] parameters -> label
I0502 18:26:12.779717 12064 hdf5_data_layer.cpp:79] Loading list of HDF5 filenames from: /home/purduethu/scratch/radon/d/deng106/CNNStatisticalModel/distributions/input/20_distributions_100_sample_size_train-distributions-path.txt
I0502 18:26:12.779742 12064 hdf5_data_layer.cpp:93] Number of HDF5 files: 1
I0502 18:26:12.780203 12064 hdf5.cpp:32] Datatype class: H5T_FLOAT
I0502 18:26:12.844985 12064 hdf5.cpp:35] Datatype class: H5T_INTEGER
I0502 18:26:12.846590 12064 net.cpp:144] Setting up parameters
I0502 18:26:12.846611 12064 net.cpp:151] Top shape: 20 1 10 10 (2000)
I0502 18:26:12.846617 12064 net.cpp:151] Top shape: 20 (20)
I0502 18:26:12.846621 12064 net.cpp:159] Memory required for data: 8080
I0502 18:26:12.846629 12064 layer_factory.hpp:77] Creating layer conv1
I0502 18:26:12.846653 12064 net.cpp:94] Creating Layer conv1
I0502 18:26:12.846658 12064 net.cpp:435] conv1 <- data
I0502 18:26:12.846669 12064 net.cpp:409] conv1 -> conv1
I0502 18:26:12.852576 12064 net.cpp:144] Setting up conv1
I0502 18:26:12.852591 12064 net.cpp:151] Top shape: 20 64 10 10 (128000)
I0502 18:26:12.852596 12064 net.cpp:159] Memory required for data: 520080
I0502 18:26:12.852607 12064 layer_factory.hpp:77] Creating layer relu1
I0502 18:26:12.852617 12064 net.cpp:94] Creating Layer relu1
I0502 18:26:12.852620 12064 net.cpp:435] relu1 <- conv1
I0502 18:26:12.852624 12064 net.cpp:396] relu1 -> conv1 (in-place)
I0502 18:26:12.852643 12064 net.cpp:144] Setting up relu1
I0502 18:26:12.852648 12064 net.cpp:151] Top shape: 20 64 10 10 (128000)
I0502 18:26:12.852653 12064 net.cpp:159] Memory required for data: 1032080
I0502 18:26:12.852655 12064 layer_factory.hpp:77] Creating layer conv2
I0502 18:26:12.852663 12064 net.cpp:94] Creating Layer conv2
I0502 18:26:12.852668 12064 net.cpp:435] conv2 <- conv1
I0502 18:26:12.852672 12064 net.cpp:409] conv2 -> conv2
I0502 18:26:12.860213 12064 net.cpp:144] Setting up conv2
I0502 18:26:12.860229 12064 net.cpp:151] Top shape: 20 64 10 10 (128000)
I0502 18:26:12.860232 12064 net.cpp:159] Memory required for data: 1544080
I0502 18:26:12.860241 12064 layer_factory.hpp:77] Creating layer relu2
I0502 18:26:12.860247 12064 net.cpp:94] Creating Layer relu2
I0502 18:26:12.860251 12064 net.cpp:435] relu2 <- conv2
I0502 18:26:12.860256 12064 net.cpp:396] relu2 -> conv2 (in-place)
I0502 18:26:12.860263 12064 net.cpp:144] Setting up relu2
I0502 18:26:12.860268 12064 net.cpp:151] Top shape: 20 64 10 10 (128000)
I0502 18:26:12.860271 12064 net.cpp:159] Memory required for data: 2056080
I0502 18:26:12.860275 12064 layer_factory.hpp:77] Creating layer pool2
I0502 18:26:12.860288 12064 net.cpp:94] Creating Layer pool2
I0502 18:26:12.860293 12064 net.cpp:435] pool2 <- conv2
I0502 18:26:12.860297 12064 net.cpp:409] pool2 -> pool2
I0502 18:26:12.860342 12064 net.cpp:144] Setting up pool2
I0502 18:26:12.860348 12064 net.cpp:151] Top shape: 20 64 5 5 (32000)
I0502 18:26:12.860352 12064 net.cpp:159] Memory required for data: 2184080
I0502 18:26:12.860355 12064 layer_factory.hpp:77] Creating layer conv3
I0502 18:26:12.860363 12064 net.cpp:94] Creating Layer conv3
I0502 18:26:12.860366 12064 net.cpp:435] conv3 <- pool2
I0502 18:26:12.860379 12064 net.cpp:409] conv3 -> conv3
I0502 18:26:12.867705 12064 net.cpp:144] Setting up conv3
I0502 18:26:12.867720 12064 net.cpp:151] Top shape: 20 64 5 5 (32000)
I0502 18:26:12.867724 12064 net.cpp:159] Memory required for data: 2312080
I0502 18:26:12.867733 12064 layer_factory.hpp:77] Creating layer relu3
I0502 18:26:12.867739 12064 net.cpp:94] Creating Layer relu3
I0502 18:26:12.867743 12064 net.cpp:435] relu3 <- conv3
I0502 18:26:12.867748 12064 net.cpp:396] relu3 -> conv3 (in-place)
I0502 18:26:12.867755 12064 net.cpp:144] Setting up relu3
I0502 18:26:12.867760 12064 net.cpp:151] Top shape: 20 64 5 5 (32000)
I0502 18:26:12.867763 12064 net.cpp:159] Memory required for data: 2440080
I0502 18:26:12.867766 12064 layer_factory.hpp:77] Creating layer conv4
I0502 18:26:12.867775 12064 net.cpp:94] Creating Layer conv4
I0502 18:26:12.867779 12064 net.cpp:435] conv4 <- conv3
I0502 18:26:12.867784 12064 net.cpp:409] conv4 -> conv4
I0502 18:26:12.875089 12064 net.cpp:144] Setting up conv4
I0502 18:26:12.875104 12064 net.cpp:151] Top shape: 20 64 5 5 (32000)
I0502 18:26:12.875109 12064 net.cpp:159] Memory required for data: 2568080
I0502 18:26:12.875115 12064 layer_factory.hpp:77] Creating layer relu4
I0502 18:26:12.875121 12064 net.cpp:94] Creating Layer relu4
I0502 18:26:12.875125 12064 net.cpp:435] relu4 <- conv4
I0502 18:26:12.875130 12064 net.cpp:396] relu4 -> conv4 (in-place)
I0502 18:26:12.875138 12064 net.cpp:144] Setting up relu4
I0502 18:26:12.875143 12064 net.cpp:151] Top shape: 20 64 5 5 (32000)
I0502 18:26:12.875145 12064 net.cpp:159] Memory required for data: 2696080
I0502 18:26:12.875149 12064 layer_factory.hpp:77] Creating layer conv5
I0502 18:26:12.875157 12064 net.cpp:94] Creating Layer conv5
I0502 18:26:12.875160 12064 net.cpp:435] conv5 <- conv4
I0502 18:26:12.875166 12064 net.cpp:409] conv5 -> conv5
I0502 18:26:12.882525 12064 net.cpp:144] Setting up conv5
I0502 18:26:12.882541 12064 net.cpp:151] Top shape: 20 64 5 5 (32000)
I0502 18:26:12.882545 12064 net.cpp:159] Memory required for data: 2824080
I0502 18:26:12.882555 12064 layer_factory.hpp:77] Creating layer relu5
I0502 18:26:12.882560 12064 net.cpp:94] Creating Layer relu5
I0502 18:26:12.882565 12064 net.cpp:435] relu5 <- conv5
I0502 18:26:12.882570 12064 net.cpp:396] relu5 -> conv5 (in-place)
I0502 18:26:12.882576 12064 net.cpp:144] Setting up relu5
I0502 18:26:12.882581 12064 net.cpp:151] Top shape: 20 64 5 5 (32000)
I0502 18:26:12.882585 12064 net.cpp:159] Memory required for data: 2952080
I0502 18:26:12.882588 12064 layer_factory.hpp:77] Creating layer pool5
I0502 18:26:12.882593 12064 net.cpp:94] Creating Layer pool5
I0502 18:26:12.882596 12064 net.cpp:435] pool5 <- conv5
I0502 18:26:12.882601 12064 net.cpp:409] pool5 -> pool5
I0502 18:26:12.882637 12064 net.cpp:144] Setting up pool5
I0502 18:26:12.882645 12064 net.cpp:151] Top shape: 20 64 2 2 (5120)
I0502 18:26:12.882648 12064 net.cpp:159] Memory required for data: 2972560
I0502 18:26:12.882652 12064 layer_factory.hpp:77] Creating layer ip1
I0502 18:26:12.882661 12064 net.cpp:94] Creating Layer ip1
I0502 18:26:12.882665 12064 net.cpp:435] ip1 <- pool5
I0502 18:26:12.882670 12064 net.cpp:409] ip1 -> ip1
I0502 18:26:12.883815 12064 net.cpp:144] Setting up ip1
I0502 18:26:12.883828 12064 net.cpp:151] Top shape: 20 64 (1280)
I0502 18:26:12.883832 12064 net.cpp:159] Memory required for data: 2977680
I0502 18:26:12.883838 12064 layer_factory.hpp:77] Creating layer ip2
I0502 18:26:12.883846 12064 net.cpp:94] Creating Layer ip2
I0502 18:26:12.883853 12064 net.cpp:435] ip2 <- ip1
I0502 18:26:12.883859 12064 net.cpp:409] ip2 -> ip2
I0502 18:26:12.884027 12064 net.cpp:144] Setting up ip2
I0502 18:26:12.884034 12064 net.cpp:151] Top shape: 20 64 (1280)
I0502 18:26:12.884037 12064 net.cpp:159] Memory required for data: 2982800
I0502 18:26:12.884042 12064 layer_factory.hpp:77] Creating layer ip3
I0502 18:26:12.884048 12064 net.cpp:94] Creating Layer ip3
I0502 18:26:12.884052 12064 net.cpp:435] ip3 <- ip2
I0502 18:26:12.884057 12064 net.cpp:409] ip3 -> ip3
I0502 18:26:12.884199 12064 net.cpp:144] Setting up ip3
I0502 18:26:12.884212 12064 net.cpp:151] Top shape: 20 50 (1000)
I0502 18:26:12.884215 12064 net.cpp:159] Memory required for data: 2986800
I0502 18:26:12.884220 12064 layer_factory.hpp:77] Creating layer loss
I0502 18:26:12.884227 12064 net.cpp:94] Creating Layer loss
I0502 18:26:12.884232 12064 net.cpp:435] loss <- ip3
I0502 18:26:12.884235 12064 net.cpp:435] loss <- label
I0502 18:26:12.884240 12064 net.cpp:409] loss -> loss
I0502 18:26:12.884250 12064 layer_factory.hpp:77] Creating layer loss
…
I0502 18:26:12.885434 12064 solver.cpp:181] Creating test net (#0) specified by net file: ./protocol/dis_20_100_dimension.protocol_distribution
I0502 18:26:12.885460 12064 net.cpp:323] The NetState phase (1) differed from the phase (0) specified by a rule in layer parameters
I0502 18:26:12.885556 12064 net.cpp:52] Initializing net from parameters: 
state {
  phase: TEST
}
layer {
  name: "intercept"
  type: "HDF5Data"
  top: "data"
  top: "label"
  include {
    phase: TEST
  }
  hdf5_data_param {
    source: "/home/purduethu/scratch/radon/d/deng106/CNNStatisticalModel/distributions/input/20_distributions_100_sample_size_test-distributions-path.txt"
    batch_size: 20
  }
}
layer {
  name: "conv1"
  type: "Convolution"
  bottom: "data"
  top: "conv1"
  param {
    lr_mult: 1
  }
  param {
    lr_mult: 2
  }
  convolution_param {
    num_output: 64
    pad: 2
    kernel_size: 5
    stride: 1
    weight_filler {
      type: "gaussian"
      std: 0.0001
    }
    bias_filler {
      type: "constant"
    }
  }
}
layer {
  name: "relu1"
  type: "ReLU"
  bottom: "conv1"
  top: "conv1"
}
layer {
  name: "conv2"
  type: "Convolution"
  bottom: "conv1"
  top: "conv2"
  param {
    lr_mult: 1
  }
  param {
    lr_mult: 2
  }
  convolution_param {
    num_output: 64
    pad: 2
    kernel_size: 5
    stride: 1
    weight_filler {
      type: "gaussian"
      std: 0.01
    }
    bias_filler {
      type: "constant"
    }
  }
}
layer {
  name: "relu2"
  type: "ReLU"
  bottom: "conv2"
  top: "conv2"
}
layer {
  name: "pool2"
  type: "Pooling"
  bottom: "conv2"
  top: "pool2"
  pooling_param {
    pool: MAX
    kernel_size: 3
    stride: 2
  }
}
layer {
  name: "conv3"
  type: "Convolution"
  bottom: "pool2"
  top: "conv3"
  param {
    lr_mult: 1
  }
  param {
    lr_mult: 2
  }
  convolution_param {
    num_output: 64
    pad: 2
    kernel_size: 5
    stride: 1
    weight_filler {
      type: "gaussian"
      std: 0.01
    }
    bias_filler {
      type: "constant"
    }
  }
}
layer {
  name: "relu3"
  type: "ReLU"
  bottom: "conv3"
  top: "conv3"
}
layer {
  name: "conv4"
  type: "Convolution"
  bottom: "conv3"
  top: "conv4"
  param {
    lr_mult: 1
  }
  param {
    lr_mult: 2
  }
  convolution_param {
    num_output: 64
    pad: 2
    kernel_size: 5
    stride: 1
    weight_filler {
      type: "gaussian"
      std: 0.01
    }
    bias_filler {
      type: "constant"
    }
  }
}
layer {
  name: "relu4"
  type: "ReLU"
  bottom: "conv4"
  top: "conv4"
}
layer {
  name: "conv5"
  type: "Convolution"
  bottom: "conv4"
  top: "conv5"
  param {
    lr_mult: 1
  }
  param {
    lr_mult: 2
  }
  convolution_param {
    num_output: 64
    pad: 2
    kernel_size: 5
    stride: 1
    weight_filler {
      type: "gaussian"
      std: 0.01
    }
    bias_filler {
      type: "constant"
    }
  }
}
layer {
  name: "relu5"
  type: "ReLU"
  bottom: "conv5"
  top: "conv5"
}
layer {
  name: "pool5"
  type: "Pooling"
  bottom: "conv5"
  top: "pool5"
  pooling_param {
    pool: AVE
    kernel_size: 3
    stride: 2
  }
}
layer {
  name: "ip1"
  type: "InnerProduct"
  bottom: "pool5"
  top: "ip1"
  param {
    lr_mult: 1
  }
  param {
    lr_mult: 2
  }
  inner_product_param {
    num_output: 64
    weight_filler {
      type: "gaussian"
      std: 0.1
    }
    bias_filler {
      type: "constant"
    }
  }
}
layer {
  name: "ip2"
  type: "InnerProduct"
  bottom: "ip1"
  top: "ip2"
  param {
    lr_mult: 1
  }
  param {
    lr_mult: 2
  }
  inner_product_param {
    num_output: 64
    weight_filler {
      type: "gaussian"
      std: 0.1
    }
    bias_filler {
      type: "constant"
    }
  }
}
layer {
  name: "ip3"
  type: "InnerProduct"
  bottom: "ip2"
  top: "ip3"
  param {
    lr_mult: 1
  }
  param {
    lr_mult: 2
  }
  inner_product_param {
    num_output: 50
    weight_filler {
      type: "gaussian"
      std: 0.1
    }
    bias_filler {
      type: "constant"
    }
  }
}
layer {
  name: "accuracy"
  type: "Accuracy"
  bottom: "ip3"
  bottom: "label"
  top: "accuracy"
  include {
    phase: TEST
  }
}
layer {
  name: "loss"
  type: "SoftmaxWithLoss"
  bottom: "ip3"
  bottom: "label"
  top: "loss"
}
I0502 18:26:12.885628 12064 layer_factory.hpp:77] Creating layer intercept
I0502 18:26:12.885637 12064 net.cpp:94] Creating Layer intercept
I0502 18:26:12.885641 12064 net.cpp:409] intercept -> data
I0502 18:26:12.885648 12064 net.cpp:409] intercept -> label
I0502 18:26:12.885655 12064 hdf5_data_layer.cpp:79] Loading list of HDF5 filenames from: /home/purduethu/scratch/radon/d/deng106/CNNStatisticalModel/distributions/input/20_distributions_100_sample_size_test-distributions-path.txt
I0502 18:26:12.885679 12064 hdf5_data_layer.cpp:93] Number of HDF5 files: 1
I0502 18:26:12.903311 12064 net.cpp:144] Setting up intercept
I0502 18:26:12.903342 12064 net.cpp:151] Top shape: 20 1 10 10 (2000)
I0502 18:26:12.903348 12064 net.cpp:151] Top shape: 20 (20)
I0502 18:26:12.903352 12064 net.cpp:159] Memory required for data: 8080
I0502 18:26:12.903358 12064 layer_factory.hpp:77] Creating layer label_intercept_1_split
I0502 18:26:12.903374 12064 net.cpp:94] Creating Layer label_intercept_1_split
I0502 18:26:12.903379 12064 net.cpp:435] label_intercept_1_split <- label
I0502 18:26:12.903385 12064 net.cpp:409] label_intercept_1_split -> label_intercept_1_split_0
I0502 18:26:12.903393 12064 net.cpp:409] label_intercept_1_split -> label_intercept_1_split_1
I0502 18:26:12.903426 12064 net.cpp:144] Setting up label_intercept_1_split
I0502 18:26:12.903432 12064 net.cpp:151] Top shape: 20 (20)
I0502 18:26:12.903436 12064 net.cpp:151] Top shape: 20 (20)
I0502 18:26:12.903439 12064 net.cpp:159] Memory required for data: 8240
I0502 18:26:12.903443 12064 layer_factory.hpp:77] Creating layer conv1
I0502 18:26:12.903455 12064 net.cpp:94] Creating Layer conv1
I0502 18:26:12.903458 12064 net.cpp:435] conv1 <- data
I0502 18:26:12.903463 12064 net.cpp:409] conv1 -> conv1
I0502 18:26:12.904276 12064 net.cpp:144] Setting up conv1
I0502 18:26:12.904297 12064 net.cpp:151] Top shape: 20 64 10 10 (128000)
I0502 18:26:12.904302 12064 net.cpp:159] Memory required for data: 520240
I0502 18:26:12.904311 12064 layer_factory.hpp:77] Creating layer relu1
I0502 18:26:12.904320 12064 net.cpp:94] Creating Layer relu1
I0502 18:26:12.904323 12064 net.cpp:435] relu1 <- conv1
I0502 18:26:12.904327 12064 net.cpp:396] relu1 -> conv1 (in-place)
I0502 18:26:12.904335 12064 net.cpp:144] Setting up relu1
I0502 18:26:12.904340 12064 net.cpp:151] Top shape: 20 64 10 10 (128000)
I0502 18:26:12.904343 12064 net.cpp:159] Memory required for data: 1032240
I0502 18:26:12.904346 12064 layer_factory.hpp:77] Creating layer conv2
I0502 18:26:12.904356 12064 net.cpp:94] Creating Layer conv2
I0502 18:26:12.904358 12064 net.cpp:435] conv2 <- conv1
I0502 18:26:12.904363 12064 net.cpp:409] conv2 -> conv2
I0502 18:26:12.909844 12064 net.cpp:144] Setting up conv2
I0502 18:26:12.909858 12064 net.cpp:151] Top shape: 20 64 10 10 (128000)
I0502 18:26:12.909862 12064 net.cpp:159] Memory required for data: 1544240
I0502 18:26:12.909869 12064 layer_factory.hpp:77] Creating layer relu2
I0502 18:26:12.909875 12064 net.cpp:94] Creating Layer relu2
I0502 18:26:12.909879 12064 net.cpp:435] relu2 <- conv2
I0502 18:26:12.909884 12064 net.cpp:396] relu2 -> conv2 (in-place)
I0502 18:26:12.909891 12064 net.cpp:144] Setting up relu2
I0502 18:26:12.909896 12064 net.cpp:151] Top shape: 20 64 10 10 (128000)
I0502 18:26:12.909899 12064 net.cpp:159] Memory required for data: 2056240
I0502 18:26:12.909903 12064 layer_factory.hpp:77] Creating layer pool2
I0502 18:26:12.909909 12064 net.cpp:94] Creating Layer pool2
I0502 18:26:12.909912 12064 net.cpp:435] pool2 <- conv2
I0502 18:26:12.909916 12064 net.cpp:409] pool2 -> pool2
I0502 18:26:12.909948 12064 net.cpp:144] Setting up pool2
I0502 18:26:12.909955 12064 net.cpp:151] Top shape: 20 64 5 5 (32000)
I0502 18:26:12.909958 12064 net.cpp:159] Memory required for data: 2184240
I0502 18:26:12.909961 12064 layer_factory.hpp:77] Creating layer conv3
I0502 18:26:12.909970 12064 net.cpp:94] Creating Layer conv3
I0502 18:26:12.909973 12064 net.cpp:435] conv3 <- pool2
I0502 18:26:12.909978 12064 net.cpp:409] conv3 -> conv3
I0502 18:26:12.916486 12064 net.cpp:144] Setting up conv3
I0502 18:26:12.916501 12064 net.cpp:151] Top shape: 20 64 5 5 (32000)
I0502 18:26:12.916505 12064 net.cpp:159] Memory required for data: 2312240
I0502 18:26:12.916513 12064 layer_factory.hpp:77] Creating layer relu3
I0502 18:26:12.916520 12064 net.cpp:94] Creating Layer relu3
I0502 18:26:12.916524 12064 net.cpp:435] relu3 <- conv3
I0502 18:26:12.916529 12064 net.cpp:396] relu3 -> conv3 (in-place)
I0502 18:26:12.916537 12064 net.cpp:144] Setting up relu3
I0502 18:26:12.916541 12064 net.cpp:151] Top shape: 20 64 5 5 (32000)
I0502 18:26:12.916544 12064 net.cpp:159] Memory required for data: 2440240
I0502 18:26:12.916548 12064 layer_factory.hpp:77] Creating layer conv4
I0502 18:26:12.916570 12064 net.cpp:94] Creating Layer conv4
I0502 18:26:12.916575 12064 net.cpp:435] conv4 <- conv3
I0502 18:26:12.916580 12064 net.cpp:409] conv4 -> conv4
I0502 18:26:12.922873 12064 net.cpp:144] Setting up conv4
I0502 18:26:12.922889 12064 net.cpp:151] Top shape: 20 64 5 5 (32000)
I0502 18:26:12.922894 12064 net.cpp:159] Memory required for data: 2568240
I0502 18:26:12.922900 12064 layer_factory.hpp:77] Creating layer relu4
I0502 18:26:12.922906 12064 net.cpp:94] Creating Layer relu4
I0502 18:26:12.922910 12064 net.cpp:435] relu4 <- conv4
I0502 18:26:12.922919 12064 net.cpp:396] relu4 -> conv4 (in-place)
I0502 18:26:12.922926 12064 net.cpp:144] Setting up relu4
I0502 18:26:12.922931 12064 net.cpp:151] Top shape: 20 64 5 5 (32000)
I0502 18:26:12.922935 12064 net.cpp:159] Memory required for data: 2696240
I0502 18:26:12.922938 12064 layer_factory.hpp:77] Creating layer conv5
I0502 18:26:12.922945 12064 net.cpp:94] Creating Layer conv5
I0502 18:26:12.922950 12064 net.cpp:435] conv5 <- conv4
I0502 18:26:12.922955 12064 net.cpp:409] conv5 -> conv5
I0502 18:26:12.929263 12064 net.cpp:144] Setting up conv5
I0502 18:26:12.929285 12064 net.cpp:151] Top shape: 20 64 5 5 (32000)
I0502 18:26:12.929289 12064 net.cpp:159] Memory required for data: 2824240
I0502 18:26:12.929298 12064 layer_factory.hpp:77] Creating layer relu5
I0502 18:26:12.929304 12064 net.cpp:94] Creating Layer relu5
I0502 18:26:12.929308 12064 net.cpp:435] relu5 <- conv5
I0502 18:26:12.929312 12064 net.cpp:396] relu5 -> conv5 (in-place)
I0502 18:26:12.929321 12064 net.cpp:144] Setting up relu5
I0502 18:26:12.929324 12064 net.cpp:151] Top shape: 20 64 5 5 (32000)
I0502 18:26:12.929327 12064 net.cpp:159] Memory required for data: 2952240
I0502 18:26:12.929332 12064 layer_factory.hpp:77] Creating layer pool5
I0502 18:26:12.929337 12064 net.cpp:94] Creating Layer pool5
I0502 18:26:12.929339 12064 net.cpp:435] pool5 <- conv5
I0502 18:26:12.929343 12064 net.cpp:409] pool5 -> pool5
I0502 18:26:12.929369 12064 net.cpp:144] Setting up pool5
I0502 18:26:12.929376 12064 net.cpp:151] Top shape: 20 64 2 2 (5120)
I0502 18:26:12.929379 12064 net.cpp:159] Memory required for data: 2972720
I0502 18:26:12.929383 12064 layer_factory.hpp:77] Creating layer ip1
I0502 18:26:12.929389 12064 net.cpp:94] Creating Layer ip1
I0502 18:26:12.929392 12064 net.cpp:435] ip1 <- pool5
I0502 18:26:12.929397 12064 net.cpp:409] ip1 -> ip1
I0502 18:26:12.929862 12064 net.cpp:144] Setting up ip1
I0502 18:26:12.929868 12064 net.cpp:151] Top shape: 20 64 (1280)
I0502 18:26:12.929872 12064 net.cpp:159] Memory required for data: 2977840
I0502 18:26:12.929877 12064 layer_factory.hpp:77] Creating layer ip2
I0502 18:26:12.929883 12064 net.cpp:94] Creating Layer ip2
I0502 18:26:12.929886 12064 net.cpp:435] ip2 <- ip1
I0502 18:26:12.929891 12064 net.cpp:409] ip2 -> ip2
I0502 18:26:12.930055 12064 net.cpp:144] Setting up ip2
I0502 18:26:12.930061 12064 net.cpp:151] Top shape: 20 64 (1280)
I0502 18:26:12.930065 12064 net.cpp:159] Memory required for data: 2982960
I0502 18:26:12.930070 12064 layer_factory.hpp:77] Creating layer ip3
I0502 18:26:12.930076 12064 net.cpp:94] Creating Layer ip3
I0502 18:26:12.930080 12064 net.cpp:435] ip3 <- ip2
I0502 18:26:12.930085 12064 net.cpp:409] ip3 -> ip3
I0502 18:26:12.930227 12064 net.cpp:144] Setting up ip3
I0502 18:26:12.930233 12064 net.cpp:151] Top shape: 20 50 (1000)
I0502 18:26:12.930238 12064 net.cpp:159] Memory required for data: 2986960
I0502 18:26:12.930243 12064 layer_factory.hpp:77] Creating layer ip3_ip3_0_split
I0502 18:26:12.930246 12064 net.cpp:94] Creating Layer ip3_ip3_0_split
I0502 18:26:12.930250 12064 net.cpp:435] ip3_ip3_0_split <- ip3
I0502 18:26:12.930254 12064 net.cpp:409] ip3_ip3_0_split -> ip3_ip3_0_split_0
I0502 18:26:12.930260 12064 net.cpp:409] ip3_ip3_0_split -> ip3_ip3_0_split_1
I0502 18:26:12.930282 12064 net.cpp:144] Setting up ip3_ip3_0_split
I0502 18:26:12.930289 12064 net.cpp:151] Top shape: 20 50 (1000)
I0502 18:26:12.930291 12064 net.cpp:151] Top shape: 20 50 (1000)
I0502 18:26:12.930294 12064 net.cpp:159] Memory required for data: 2994960
I0502 18:26:12.930299 12064 layer_factory.hpp:77] Creating layer accuracy
I0502 18:26:12.930304 12064 net.cpp:94] Creating Layer accuracy
I0502 18:26:12.930307 12064 net.cpp:435] accuracy <- ip3_ip3_0_split_0
I0502 18:26:12.930311 12064 net.cpp:435] accuracy <- label_intercept_1_split_0
I0502 18:26:12.930316 12064 net.cpp:409] accuracy -> accuracy
…
