…
I0503 15:42:34.320168 21165 net.cpp:323] The NetState phase (0) differed from the phase (1) specified by a rule in layer intercept
I0503 15:42:34.320184 21165 net.cpp:323] The NetState phase (0) differed from the phase (1) specified by a rule in layer accuracy
I0503 15:42:34.320276 21165 net.cpp:52] Initializing net from parameters: 
state {
  phase: TRAIN
}
layer {
  name: "parameters"
  type: "HDF5Data"
  top: "data"
  top: "label"
  include {
    phase: TRAIN
  }
  hdf5_data_param {
    source: "/home/purduethu/scratch/radon/d/deng106/CNNStatisticalModel/distributions/input/20_distributions_400_sample_size_train-distributions-path.txt"
    batch_size: 20
  }
}
layer {
  name: "conv1"
  type: "Convolution"
  bottom: "data"
  top: "conv1"
  param {
    lr_mult: 1
  }
  param {
    lr_mult: 2
  }
  convolution_param {
    num_output: 64
    pad: 2
    kernel_size: 5
    stride: 1
    weight_filler {
      type: "gaussian"
      std: 0.0001
    }
    bias_filler {
      type: "constant"
    }
  }
}
layer {
  name: "relu1"
  type: "ReLU"
  bottom: "conv1"
  top: "conv1"
}
layer {
  name: "conv2"
  type: "Convolution"
  bottom: "conv1"
  top: "conv2"
  param {
    lr_mult: 1
  }
  param {
    lr_mult: 2
  }
  convolution_param {
    num_output: 64
    pad: 2
    kernel_size: 5
    stride: 1
    weight_filler {
      type: "gaussian"
      std: 0.01
    }
    bias_filler {
      type: "constant"
    }
  }
}
layer {
  name: "relu2"
  type: "ReLU"
  bottom: "conv2"
  top: "conv2"
}
layer {
  name: "pool2"
  type: "Pooling"
  bottom: "conv2"
  top: "pool2"
  pooling_param {
    pool: MAX
    kernel_size: 3
    stride: 2
  }
}
layer {
  name: "conv3"
  type: "Convolution"
  bottom: "pool2"
  top: "conv3"
  param {
    lr_mult: 1
  }
  param {
    lr_mult: 2
  }
  convolution_param {
    num_output: 128
    pad: 2
    kernel_size: 5
    stride: 1
    weight_filler {
      type: "gaussian"
      std: 0.01
    }
    bias_filler {
      type: "constant"
    }
  }
}
layer {
  name: "relu3"
  type: "ReLU"
  bottom: "conv3"
  top: "conv3"
}
layer {
  name: "conv4"
  type: "Convolution"
  bottom: "conv3"
  top: "conv4"
  param {
    lr_mult: 1
  }
  param {
    lr_mult: 2
  }
  convolution_param {
    num_output: 128
    pad: 2
    kernel_size: 5
    stride: 1
    weight_filler {
      type: "gaussian"
      std: 0.01
    }
    bias_filler {
      type: "constant"
    }
  }
}
layer {
  name: "relu4"
  type: "ReLU"
  bottom: "conv4"
  top: "conv4"
}
layer {
  name: "conv5"
  type: "Convolution"
  bottom: "conv4"
  top: "conv5"
  param {
    lr_mult: 1
  }
  param {
    lr_mult: 2
  }
  convolution_param {
    num_output: 128
    pad: 2
    kernel_size: 5
    stride: 1
    weight_filler {
      type: "gaussian"
      std: 0.01
    }
    bias_filler {
      type: "constant"
    }
  }
}
layer {
  name: "relu5"
  type: "ReLU"
  bottom: "conv5"
  top: "conv5"
}
layer {
  name: "pool5"
  type: "Pooling"
  bottom: "conv5"
  top: "pool5"
  pooling_param {
    pool: AVE
    kernel_size: 3
    stride: 2
  }
}
layer {
  name: "ip1"
  type: "InnerProduct"
  bottom: "pool5"
  top: "ip1"
  param {
    lr_mult: 1
  }
  param {
    lr_mult: 2
  }
  inner_product_param {
    num_output: 1024
    weight_filler {
      type: "gaussian"
      std: 0.1
    }
    bias_filler {
      type: "constant"
    }
  }
}
layer {
  name: "ip2"
  type: "InnerProduct"
  bottom: "ip1"
  top: "ip2"
  param {
    lr_mult: 1
  }
  param {
    lr_mult: 2
  }
  inner_product_param {
    num_output: 512
    weight_filler {
      type: "gaussian"
      std: 0.1
    }
    bias_filler {
      type: "constant"
    }
  }
}
layer {
  name: "ip3"
  type: "InnerProduct"
  bottom: "ip2"
  top: "ip3"
  param {
    lr_mult: 1
  }
  param {
    lr_mult: 2
  }
  inner_product_param {
    num_output: 50
    weight_filler {
      type: "gaussian"
      std: 0.1
    }
    bias_filler {
      type: "constant"
    }
  }
}
layer {
  name: "loss"
  type: "SoftmaxWithLoss"
  bottom: "ip3"
  bottom: "label"
  top: "loss"
}
I0503 15:42:34.320351 21165 layer_factory.hpp:77] Creating layer parameters
I0503 15:42:34.320365 21165 net.cpp:94] Creating Layer parameters
I0503 15:42:34.320371 21165 net.cpp:409] parameters -> data
I0503 15:42:34.320391 21165 net.cpp:409] parameters -> label
I0503 15:42:34.320401 21165 hdf5_data_layer.cpp:79] Loading list of HDF5 filenames from: /home/purduethu/scratch/radon/d/deng106/CNNStatisticalModel/distributions/input/20_distributions_400_sample_size_train-distributions-path.txt
I0503 15:42:34.320423 21165 hdf5_data_layer.cpp:93] Number of HDF5 files: 1
I0503 15:42:34.320902 21165 hdf5.cpp:32] Datatype class: H5T_FLOAT
I0503 15:42:34.579202 21165 hdf5.cpp:35] Datatype class: H5T_INTEGER
I0503 15:42:34.580997 21165 net.cpp:144] Setting up parameters
I0503 15:42:34.581017 21165 net.cpp:151] Top shape: 20 1 20 20 (8000)
I0503 15:42:34.581023 21165 net.cpp:151] Top shape: 20 (20)
I0503 15:42:34.581027 21165 net.cpp:159] Memory required for data: 32080
I0503 15:42:34.581034 21165 layer_factory.hpp:77] Creating layer conv1
I0503 15:42:34.581054 21165 net.cpp:94] Creating Layer conv1
I0503 15:42:34.581060 21165 net.cpp:435] conv1 <- data
I0503 15:42:34.581070 21165 net.cpp:409] conv1 -> conv1
I0503 15:42:34.586012 21165 net.cpp:144] Setting up conv1
I0503 15:42:34.586027 21165 net.cpp:151] Top shape: 20 64 20 20 (512000)
I0503 15:42:34.586031 21165 net.cpp:159] Memory required for data: 2080080
I0503 15:42:34.586043 21165 layer_factory.hpp:77] Creating layer relu1
I0503 15:42:34.586051 21165 net.cpp:94] Creating Layer relu1
I0503 15:42:34.586055 21165 net.cpp:435] relu1 <- conv1
I0503 15:42:34.586061 21165 net.cpp:396] relu1 -> conv1 (in-place)
I0503 15:42:34.586072 21165 net.cpp:144] Setting up relu1
I0503 15:42:34.586077 21165 net.cpp:151] Top shape: 20 64 20 20 (512000)
I0503 15:42:34.586081 21165 net.cpp:159] Memory required for data: 4128080
I0503 15:42:34.586083 21165 layer_factory.hpp:77] Creating layer conv2
I0503 15:42:34.586091 21165 net.cpp:94] Creating Layer conv2
I0503 15:42:34.586096 21165 net.cpp:435] conv2 <- conv1
I0503 15:42:34.586099 21165 net.cpp:409] conv2 -> conv2
I0503 15:42:34.596448 21165 net.cpp:144] Setting up conv2
I0503 15:42:34.596463 21165 net.cpp:151] Top shape: 20 64 20 20 (512000)
I0503 15:42:34.596467 21165 net.cpp:159] Memory required for data: 6176080
I0503 15:42:34.596477 21165 layer_factory.hpp:77] Creating layer relu2
I0503 15:42:34.596483 21165 net.cpp:94] Creating Layer relu2
I0503 15:42:34.596487 21165 net.cpp:435] relu2 <- conv2
I0503 15:42:34.596493 21165 net.cpp:396] relu2 -> conv2 (in-place)
I0503 15:42:34.596499 21165 net.cpp:144] Setting up relu2
I0503 15:42:34.596504 21165 net.cpp:151] Top shape: 20 64 20 20 (512000)
I0503 15:42:34.596508 21165 net.cpp:159] Memory required for data: 8224080
I0503 15:42:34.596510 21165 layer_factory.hpp:77] Creating layer pool2
I0503 15:42:34.596524 21165 net.cpp:94] Creating Layer pool2
I0503 15:42:34.596529 21165 net.cpp:435] pool2 <- conv2
I0503 15:42:34.596534 21165 net.cpp:409] pool2 -> pool2
I0503 15:42:34.596585 21165 net.cpp:144] Setting up pool2
I0503 15:42:34.596595 21165 net.cpp:151] Top shape: 20 64 10 10 (128000)
I0503 15:42:34.596598 21165 net.cpp:159] Memory required for data: 8736080
I0503 15:42:34.596601 21165 layer_factory.hpp:77] Creating layer conv3
I0503 15:42:34.596609 21165 net.cpp:94] Creating Layer conv3
I0503 15:42:34.596612 21165 net.cpp:435] conv3 <- pool2
I0503 15:42:34.596626 21165 net.cpp:409] conv3 -> conv3
I0503 15:42:34.606159 21165 net.cpp:144] Setting up conv3
I0503 15:42:34.606174 21165 net.cpp:151] Top shape: 20 128 10 10 (256000)
I0503 15:42:34.606178 21165 net.cpp:159] Memory required for data: 9760080
I0503 15:42:34.606187 21165 layer_factory.hpp:77] Creating layer relu3
I0503 15:42:34.606194 21165 net.cpp:94] Creating Layer relu3
I0503 15:42:34.606197 21165 net.cpp:435] relu3 <- conv3
I0503 15:42:34.606202 21165 net.cpp:396] relu3 -> conv3 (in-place)
I0503 15:42:34.606209 21165 net.cpp:144] Setting up relu3
I0503 15:42:34.606215 21165 net.cpp:151] Top shape: 20 128 10 10 (256000)
I0503 15:42:34.606217 21165 net.cpp:159] Memory required for data: 10784080
I0503 15:42:34.606220 21165 layer_factory.hpp:77] Creating layer conv4
I0503 15:42:34.606230 21165 net.cpp:94] Creating Layer conv4
I0503 15:42:34.606232 21165 net.cpp:435] conv4 <- conv3
I0503 15:42:34.606237 21165 net.cpp:409] conv4 -> conv4
I0503 15:42:34.624375 21165 net.cpp:144] Setting up conv4
I0503 15:42:34.624392 21165 net.cpp:151] Top shape: 20 128 10 10 (256000)
I0503 15:42:34.624397 21165 net.cpp:159] Memory required for data: 11808080
I0503 15:42:34.624402 21165 layer_factory.hpp:77] Creating layer relu4
I0503 15:42:34.624409 21165 net.cpp:94] Creating Layer relu4
I0503 15:42:34.624413 21165 net.cpp:435] relu4 <- conv4
I0503 15:42:34.624418 21165 net.cpp:396] relu4 -> conv4 (in-place)
I0503 15:42:34.624425 21165 net.cpp:144] Setting up relu4
I0503 15:42:34.624430 21165 net.cpp:151] Top shape: 20 128 10 10 (256000)
I0503 15:42:34.624433 21165 net.cpp:159] Memory required for data: 12832080
I0503 15:42:34.624436 21165 layer_factory.hpp:77] Creating layer conv5
I0503 15:42:34.624444 21165 net.cpp:94] Creating Layer conv5
I0503 15:42:34.624449 21165 net.cpp:435] conv5 <- conv4
I0503 15:42:34.624454 21165 net.cpp:409] conv5 -> conv5
I0503 15:42:34.642235 21165 net.cpp:144] Setting up conv5
I0503 15:42:34.642251 21165 net.cpp:151] Top shape: 20 128 10 10 (256000)
I0503 15:42:34.642256 21165 net.cpp:159] Memory required for data: 13856080
I0503 15:42:34.642264 21165 layer_factory.hpp:77] Creating layer relu5
I0503 15:42:34.642278 21165 net.cpp:94] Creating Layer relu5
I0503 15:42:34.642282 21165 net.cpp:435] relu5 <- conv5
I0503 15:42:34.642287 21165 net.cpp:396] relu5 -> conv5 (in-place)
I0503 15:42:34.642294 21165 net.cpp:144] Setting up relu5
I0503 15:42:34.642299 21165 net.cpp:151] Top shape: 20 128 10 10 (256000)
I0503 15:42:34.642302 21165 net.cpp:159] Memory required for data: 14880080
I0503 15:42:34.642305 21165 layer_factory.hpp:77] Creating layer pool5
I0503 15:42:34.642310 21165 net.cpp:94] Creating Layer pool5
I0503 15:42:34.642314 21165 net.cpp:435] pool5 <- conv5
I0503 15:42:34.642318 21165 net.cpp:409] pool5 -> pool5
I0503 15:42:34.642354 21165 net.cpp:144] Setting up pool5
I0503 15:42:34.642361 21165 net.cpp:151] Top shape: 20 128 5 5 (64000)
I0503 15:42:34.642364 21165 net.cpp:159] Memory required for data: 15136080
I0503 15:42:34.642367 21165 layer_factory.hpp:77] Creating layer ip1
I0503 15:42:34.642377 21165 net.cpp:94] Creating Layer ip1
I0503 15:42:34.642381 21165 net.cpp:435] ip1 <- pool5
I0503 15:42:34.642386 21165 net.cpp:409] ip1 -> ip1
I0503 15:42:34.725208 21165 net.cpp:144] Setting up ip1
I0503 15:42:34.725239 21165 net.cpp:151] Top shape: 20 1024 (20480)
I0503 15:42:34.725244 21165 net.cpp:159] Memory required for data: 15218000
I0503 15:42:34.725252 21165 layer_factory.hpp:77] Creating layer ip2
I0503 15:42:34.725268 21165 net.cpp:94] Creating Layer ip2
I0503 15:42:34.725275 21165 net.cpp:435] ip2 <- ip1
I0503 15:42:34.725281 21165 net.cpp:409] ip2 -> ip2
I0503 15:42:34.738807 21165 net.cpp:144] Setting up ip2
I0503 15:42:34.738821 21165 net.cpp:151] Top shape: 20 512 (10240)
I0503 15:42:34.738826 21165 net.cpp:159] Memory required for data: 15258960
I0503 15:42:34.738832 21165 layer_factory.hpp:77] Creating layer ip3
I0503 15:42:34.738839 21165 net.cpp:94] Creating Layer ip3
I0503 15:42:34.738843 21165 net.cpp:435] ip3 <- ip2
I0503 15:42:34.738848 21165 net.cpp:409] ip3 -> ip3
I0503 15:42:34.740208 21165 net.cpp:144] Setting up ip3
I0503 15:42:34.740221 21165 net.cpp:151] Top shape: 20 50 (1000)
I0503 15:42:34.740226 21165 net.cpp:159] Memory required for data: 15262960
I0503 15:42:34.740231 21165 layer_factory.hpp:77] Creating layer loss
I0503 15:42:34.740241 21165 net.cpp:94] Creating Layer loss
I0503 15:42:34.740244 21165 net.cpp:435] loss <- ip3
I0503 15:42:34.740248 21165 net.cpp:435] loss <- label
I0503 15:42:34.740255 21165 net.cpp:409] loss -> loss
I0503 15:42:34.740267 21165 layer_factory.hpp:77] Creating layer loss
…
I0503 15:42:34.740789 21165 solver.cpp:181] Creating test net (#0) specified by net file: ./protocol/dis_20_400_dimension.protocol_distribution
I0503 15:42:34.740818 21165 net.cpp:323] The NetState phase (1) differed from the phase (0) specified by a rule in layer parameters
I0503 15:42:34.740916 21165 net.cpp:52] Initializing net from parameters: 
state {
  phase: TEST
}
layer {
  name: "intercept"
  type: "HDF5Data"
  top: "data"
  top: "label"
  include {
    phase: TEST
  }
  hdf5_data_param {
    source: "/home/purduethu/scratch/radon/d/deng106/CNNStatisticalModel/distributions/input/20_distributions_400_sample_size_test-distributions-path.txt"
    batch_size: 20
  }
}
layer {
  name: "conv1"
  type: "Convolution"
  bottom: "data"
  top: "conv1"
  param {
    lr_mult: 1
  }
  param {
    lr_mult: 2
  }
  convolution_param {
    num_output: 64
    pad: 2
    kernel_size: 5
    stride: 1
    weight_filler {
      type: "gaussian"
      std: 0.0001
    }
    bias_filler {
      type: "constant"
    }
  }
}
layer {
  name: "relu1"
  type: "ReLU"
  bottom: "conv1"
  top: "conv1"
}
layer {
  name: "conv2"
  type: "Convolution"
  bottom: "conv1"
  top: "conv2"
  param {
    lr_mult: 1
  }
  param {
    lr_mult: 2
  }
  convolution_param {
    num_output: 64
    pad: 2
    kernel_size: 5
    stride: 1
    weight_filler {
      type: "gaussian"
      std: 0.01
    }
    bias_filler {
      type: "constant"
    }
  }
}
layer {
  name: "relu2"
  type: "ReLU"
  bottom: "conv2"
  top: "conv2"
}
layer {
  name: "pool2"
  type: "Pooling"
  bottom: "conv2"
  top: "pool2"
  pooling_param {
    pool: MAX
    kernel_size: 3
    stride: 2
  }
}
layer {
  name: "conv3"
  type: "Convolution"
  bottom: "pool2"
  top: "conv3"
  param {
    lr_mult: 1
  }
  param {
    lr_mult: 2
  }
  convolution_param {
    num_output: 128
    pad: 2
    kernel_size: 5
    stride: 1
    weight_filler {
      type: "gaussian"
      std: 0.01
    }
    bias_filler {
      type: "constant"
    }
  }
}
layer {
  name: "relu3"
  type: "ReLU"
  bottom: "conv3"
  top: "conv3"
}
layer {
  name: "conv4"
  type: "Convolution"
  bottom: "conv3"
  top: "conv4"
  param {
    lr_mult: 1
  }
  param {
    lr_mult: 2
  }
  convolution_param {
    num_output: 128
    pad: 2
    kernel_size: 5
    stride: 1
    weight_filler {
      type: "gaussian"
      std: 0.01
    }
    bias_filler {
      type: "constant"
    }
  }
}
layer {
  name: "relu4"
  type: "ReLU"
  bottom: "conv4"
  top: "conv4"
}
layer {
  name: "conv5"
  type: "Convolution"
  bottom: "conv4"
  top: "conv5"
  param {
    lr_mult: 1
  }
  param {
    lr_mult: 2
  }
  convolution_param {
    num_output: 128
    pad: 2
    kernel_size: 5
    stride: 1
    weight_filler {
      type: "gaussian"
      std: 0.01
    }
    bias_filler {
      type: "constant"
    }
  }
}
layer {
  name: "relu5"
  type: "ReLU"
  bottom: "conv5"
  top: "conv5"
}
layer {
  name: "pool5"
  type: "Pooling"
  bottom: "conv5"
  top: "pool5"
  pooling_param {
    pool: AVE
    kernel_size: 3
    stride: 2
  }
}
layer {
  name: "ip1"
  type: "InnerProduct"
  bottom: "pool5"
  top: "ip1"
  param {
    lr_mult: 1
  }
  param {
    lr_mult: 2
  }
  inner_product_param {
    num_output: 1024
    weight_filler {
      type: "gaussian"
      std: 0.1
    }
    bias_filler {
      type: "constant"
    }
  }
}
layer {
  name: "ip2"
  type: "InnerProduct"
  bottom: "ip1"
  top: "ip2"
  param {
    lr_mult: 1
  }
  param {
    lr_mult: 2
  }
  inner_product_param {
    num_output: 512
    weight_filler {
      type: "gaussian"
      std: 0.1
    }
    bias_filler {
      type: "constant"
    }
  }
}
layer {
  name: "ip3"
  type: "InnerProduct"
  bottom: "ip2"
  top: "ip3"
  param {
    lr_mult: 1
  }
  param {
    lr_mult: 2
  }
  inner_product_param {
    num_output: 50
    weight_filler {
      type: "gaussian"
      std: 0.1
    }
    bias_filler {
      type: "constant"
    }
  }
}
layer {
  name: "accuracy"
  type: "Accuracy"
  bottom: "ip3"
  bottom: "label"
  top: "accuracy"
  include {
    phase: TEST
  }
}
layer {
  name: "loss"
  type: "SoftmaxWithLoss"
  bottom: "ip3"
  bottom: "label"
  top: "loss"
}
I0503 15:42:34.740991 21165 layer_factory.hpp:77] Creating layer intercept
I0503 15:42:34.741000 21165 net.cpp:94] Creating Layer intercept
I0503 15:42:34.741004 21165 net.cpp:409] intercept -> data
I0503 15:42:34.741011 21165 net.cpp:409] intercept -> label
I0503 15:42:34.741019 21165 hdf5_data_layer.cpp:79] Loading list of HDF5 filenames from: /home/purduethu/scratch/radon/d/deng106/CNNStatisticalModel/distributions/input/20_distributions_400_sample_size_test-distributions-path.txt
I0503 15:42:34.741037 21165 hdf5_data_layer.cpp:93] Number of HDF5 files: 1
I0503 15:42:34.805996 21165 net.cpp:144] Setting up intercept
I0503 15:42:34.806031 21165 net.cpp:151] Top shape: 20 1 20 20 (8000)
I0503 15:42:34.806037 21165 net.cpp:151] Top shape: 20 (20)
I0503 15:42:34.806041 21165 net.cpp:159] Memory required for data: 32080
I0503 15:42:34.806046 21165 layer_factory.hpp:77] Creating layer label_intercept_1_split
I0503 15:42:34.806066 21165 net.cpp:94] Creating Layer label_intercept_1_split
I0503 15:42:34.806071 21165 net.cpp:435] label_intercept_1_split <- label
I0503 15:42:34.806077 21165 net.cpp:409] label_intercept_1_split -> label_intercept_1_split_0
I0503 15:42:34.806085 21165 net.cpp:409] label_intercept_1_split -> label_intercept_1_split_1
I0503 15:42:34.806123 21165 net.cpp:144] Setting up label_intercept_1_split
I0503 15:42:34.806130 21165 net.cpp:151] Top shape: 20 (20)
I0503 15:42:34.806134 21165 net.cpp:151] Top shape: 20 (20)
I0503 15:42:34.806138 21165 net.cpp:159] Memory required for data: 32240
I0503 15:42:34.806140 21165 layer_factory.hpp:77] Creating layer conv1
I0503 15:42:34.806151 21165 net.cpp:94] Creating Layer conv1
I0503 15:42:34.806155 21165 net.cpp:435] conv1 <- data
I0503 15:42:34.806160 21165 net.cpp:409] conv1 -> conv1
I0503 15:42:34.806913 21165 net.cpp:144] Setting up conv1
I0503 15:42:34.806927 21165 net.cpp:151] Top shape: 20 64 20 20 (512000)
I0503 15:42:34.806931 21165 net.cpp:159] Memory required for data: 2080240
I0503 15:42:34.806941 21165 layer_factory.hpp:77] Creating layer relu1
I0503 15:42:34.806948 21165 net.cpp:94] Creating Layer relu1
I0503 15:42:34.806951 21165 net.cpp:435] relu1 <- conv1
I0503 15:42:34.806957 21165 net.cpp:396] relu1 -> conv1 (in-place)
I0503 15:42:34.806963 21165 net.cpp:144] Setting up relu1
I0503 15:42:34.806968 21165 net.cpp:151] Top shape: 20 64 20 20 (512000)
I0503 15:42:34.806972 21165 net.cpp:159] Memory required for data: 4128240
I0503 15:42:34.806975 21165 layer_factory.hpp:77] Creating layer conv2
I0503 15:42:34.806983 21165 net.cpp:94] Creating Layer conv2
I0503 15:42:34.806988 21165 net.cpp:435] conv2 <- conv1
I0503 15:42:34.806993 21165 net.cpp:409] conv2 -> conv2
I0503 15:42:34.812016 21165 net.cpp:144] Setting up conv2
I0503 15:42:34.812029 21165 net.cpp:151] Top shape: 20 64 20 20 (512000)
I0503 15:42:34.812033 21165 net.cpp:159] Memory required for data: 6176240
I0503 15:42:34.812042 21165 layer_factory.hpp:77] Creating layer relu2
I0503 15:42:34.812048 21165 net.cpp:94] Creating Layer relu2
I0503 15:42:34.812052 21165 net.cpp:435] relu2 <- conv2
I0503 15:42:34.812057 21165 net.cpp:396] relu2 -> conv2 (in-place)
I0503 15:42:34.812064 21165 net.cpp:144] Setting up relu2
I0503 15:42:34.812068 21165 net.cpp:151] Top shape: 20 64 20 20 (512000)
I0503 15:42:34.812072 21165 net.cpp:159] Memory required for data: 8224240
I0503 15:42:34.812075 21165 layer_factory.hpp:77] Creating layer pool2
I0503 15:42:34.812081 21165 net.cpp:94] Creating Layer pool2
I0503 15:42:34.812084 21165 net.cpp:435] pool2 <- conv2
I0503 15:42:34.812088 21165 net.cpp:409] pool2 -> pool2
I0503 15:42:34.812122 21165 net.cpp:144] Setting up pool2
I0503 15:42:34.812129 21165 net.cpp:151] Top shape: 20 64 10 10 (128000)
I0503 15:42:34.812132 21165 net.cpp:159] Memory required for data: 8736240
I0503 15:42:34.812136 21165 layer_factory.hpp:77] Creating layer conv3
I0503 15:42:34.812144 21165 net.cpp:94] Creating Layer conv3
I0503 15:42:34.812149 21165 net.cpp:435] conv3 <- pool2
I0503 15:42:34.812153 21165 net.cpp:409] conv3 -> conv3
I0503 15:42:34.820130 21165 net.cpp:144] Setting up conv3
I0503 15:42:34.820144 21165 net.cpp:151] Top shape: 20 128 10 10 (256000)
I0503 15:42:34.820148 21165 net.cpp:159] Memory required for data: 9760240
I0503 15:42:34.820158 21165 layer_factory.hpp:77] Creating layer relu3
I0503 15:42:34.820163 21165 net.cpp:94] Creating Layer relu3
I0503 15:42:34.820168 21165 net.cpp:435] relu3 <- conv3
I0503 15:42:34.820173 21165 net.cpp:396] relu3 -> conv3 (in-place)
I0503 15:42:34.820179 21165 net.cpp:144] Setting up relu3
I0503 15:42:34.820184 21165 net.cpp:151] Top shape: 20 128 10 10 (256000)
I0503 15:42:34.820188 21165 net.cpp:159] Memory required for data: 10784240
I0503 15:42:34.820191 21165 layer_factory.hpp:77] Creating layer conv4
I0503 15:42:34.820199 21165 net.cpp:94] Creating Layer conv4
I0503 15:42:34.820202 21165 net.cpp:435] conv4 <- conv3
I0503 15:42:34.820207 21165 net.cpp:409] conv4 -> conv4
I0503 15:42:34.833927 21165 net.cpp:144] Setting up conv4
I0503 15:42:34.833942 21165 net.cpp:151] Top shape: 20 128 10 10 (256000)
I0503 15:42:34.833946 21165 net.cpp:159] Memory required for data: 11808240
I0503 15:42:34.833953 21165 layer_factory.hpp:77] Creating layer relu4
I0503 15:42:34.833959 21165 net.cpp:94] Creating Layer relu4
I0503 15:42:34.833966 21165 net.cpp:435] relu4 <- conv4
I0503 15:42:34.833972 21165 net.cpp:396] relu4 -> conv4 (in-place)
I0503 15:42:34.833979 21165 net.cpp:144] Setting up relu4
I0503 15:42:34.833984 21165 net.cpp:151] Top shape: 20 128 10 10 (256000)
I0503 15:42:34.833987 21165 net.cpp:159] Memory required for data: 12832240
I0503 15:42:34.833992 21165 layer_factory.hpp:77] Creating layer conv5
I0503 15:42:34.833999 21165 net.cpp:94] Creating Layer conv5
I0503 15:42:34.834002 21165 net.cpp:435] conv5 <- conv4
I0503 15:42:34.834007 21165 net.cpp:409] conv5 -> conv5
I0503 15:42:34.847172 21165 net.cpp:144] Setting up conv5
I0503 15:42:34.847187 21165 net.cpp:151] Top shape: 20 128 10 10 (256000)
I0503 15:42:34.847190 21165 net.cpp:159] Memory required for data: 13856240
I0503 15:42:34.847199 21165 layer_factory.hpp:77] Creating layer relu5
I0503 15:42:34.847205 21165 net.cpp:94] Creating Layer relu5
I0503 15:42:34.847209 21165 net.cpp:435] relu5 <- conv5
I0503 15:42:34.847213 21165 net.cpp:396] relu5 -> conv5 (in-place)
I0503 15:42:34.847220 21165 net.cpp:144] Setting up relu5
I0503 15:42:34.847225 21165 net.cpp:151] Top shape: 20 128 10 10 (256000)
I0503 15:42:34.847229 21165 net.cpp:159] Memory required for data: 14880240
I0503 15:42:34.847231 21165 layer_factory.hpp:77] Creating layer pool5
I0503 15:42:34.847236 21165 net.cpp:94] Creating Layer pool5
I0503 15:42:34.847239 21165 net.cpp:435] pool5 <- conv5
I0503 15:42:34.847244 21165 net.cpp:409] pool5 -> pool5
I0503 15:42:34.847270 21165 net.cpp:144] Setting up pool5
I0503 15:42:34.847276 21165 net.cpp:151] Top shape: 20 128 5 5 (64000)
I0503 15:42:34.847280 21165 net.cpp:159] Memory required for data: 15136240
I0503 15:42:34.847282 21165 layer_factory.hpp:77] Creating layer ip1
I0503 15:42:34.847290 21165 net.cpp:94] Creating Layer ip1
I0503 15:42:34.847292 21165 net.cpp:435] ip1 <- pool5
I0503 15:42:34.847297 21165 net.cpp:409] ip1 -> ip1
I0503 15:42:34.926156 21165 net.cpp:144] Setting up ip1
I0503 15:42:34.926177 21165 net.cpp:151] Top shape: 20 1024 (20480)
I0503 15:42:34.926182 21165 net.cpp:159] Memory required for data: 15218160
I0503 15:42:34.926189 21165 layer_factory.hpp:77] Creating layer ip2
I0503 15:42:34.926199 21165 net.cpp:94] Creating Layer ip2
I0503 15:42:34.926204 21165 net.cpp:435] ip2 <- ip1
I0503 15:42:34.926210 21165 net.cpp:409] ip2 -> ip2
I0503 15:42:34.939100 21165 net.cpp:144] Setting up ip2
I0503 15:42:34.939113 21165 net.cpp:151] Top shape: 20 512 (10240)
I0503 15:42:34.939117 21165 net.cpp:159] Memory required for data: 15259120
I0503 15:42:34.939123 21165 layer_factory.hpp:77] Creating layer ip3
I0503 15:42:34.939131 21165 net.cpp:94] Creating Layer ip3
I0503 15:42:34.939136 21165 net.cpp:435] ip3 <- ip2
I0503 15:42:34.939141 21165 net.cpp:409] ip3 -> ip3
I0503 15:42:34.939821 21165 net.cpp:144] Setting up ip3
I0503 15:42:34.939828 21165 net.cpp:151] Top shape: 20 50 (1000)
I0503 15:42:34.939831 21165 net.cpp:159] Memory required for data: 15263120
I0503 15:42:34.939836 21165 layer_factory.hpp:77] Creating layer ip3_ip3_0_split
I0503 15:42:34.939842 21165 net.cpp:94] Creating Layer ip3_ip3_0_split
I0503 15:42:34.939846 21165 net.cpp:435] ip3_ip3_0_split <- ip3
I0503 15:42:34.939849 21165 net.cpp:409] ip3_ip3_0_split -> ip3_ip3_0_split_0
I0503 15:42:34.939855 21165 net.cpp:409] ip3_ip3_0_split -> ip3_ip3_0_split_1
I0503 15:42:34.939880 21165 net.cpp:144] Setting up ip3_ip3_0_split
I0503 15:42:34.939887 21165 net.cpp:151] Top shape: 20 50 (1000)
I0503 15:42:34.939889 21165 net.cpp:151] Top shape: 20 50 (1000)
I0503 15:42:34.939893 21165 net.cpp:159] Memory required for data: 15271120
I0503 15:42:34.939895 21165 layer_factory.hpp:77] Creating layer accuracy
I0503 15:42:34.939901 21165 net.cpp:94] Creating Layer accuracy
I0503 15:42:34.939904 21165 net.cpp:435] accuracy <- ip3_ip3_0_split_0
I0503 15:42:34.939908 21165 net.cpp:435] accuracy <- label_intercept_1_split_0
I0503 15:42:34.939913 21165 net.cpp:409] accuracy -> accuracy
…
