…
I0503 13:04:19.276430 20786 net.cpp:323] The NetState phase (0) differed from the phase (1) specified by a rule in layer intercept
I0503 13:04:19.276448 20786 net.cpp:323] The NetState phase (0) differed from the phase (1) specified by a rule in layer accuracy
I0503 13:04:19.276537 20786 net.cpp:52] Initializing net from parameters: 
state {
  phase: TRAIN
}
layer {
  name: "parameters"
  type: "HDF5Data"
  top: "data"
  top: "label"
  include {
    phase: TRAIN
  }
  hdf5_data_param {
    source: "/home/purduethu/scratch/radon/d/deng106/CNNStatisticalModel/distributions/input/5_distributions_100_sample_size_train-distributions-path.txt"
    batch_size: 20
  }
}
layer {
  name: "conv1"
  type: "Convolution"
  bottom: "data"
  top: "conv1"
  param {
    lr_mult: 1
  }
  param {
    lr_mult: 2
  }
  convolution_param {
    num_output: 64
    pad: 2
    kernel_size: 5
    stride: 1
    weight_filler {
      type: "gaussian"
      std: 0.0001
    }
    bias_filler {
      type: "constant"
    }
  }
}
layer {
  name: "relu1"
  type: "ReLU"
  bottom: "conv1"
  top: "conv1"
}
layer {
  name: "conv2"
  type: "Convolution"
  bottom: "conv1"
  top: "conv2"
  param {
    lr_mult: 1
  }
  param {
    lr_mult: 2
  }
  convolution_param {
    num_output: 64
    pad: 2
    kernel_size: 5
    stride: 1
    weight_filler {
      type: "gaussian"
      std: 0.01
    }
    bias_filler {
      type: "constant"
    }
  }
}
layer {
  name: "relu2"
  type: "ReLU"
  bottom: "conv2"
  top: "conv2"
}
layer {
  name: "pool2"
  type: "Pooling"
  bottom: "conv2"
  top: "pool2"
  pooling_param {
    pool: MAX
    kernel_size: 3
    stride: 2
  }
}
layer {
  name: "conv3"
  type: "Convolution"
  bottom: "pool2"
  top: "conv3"
  param {
    lr_mult: 1
  }
  param {
    lr_mult: 2
  }
  convolution_param {
    num_output: 128
    pad: 2
    kernel_size: 5
    stride: 1
    weight_filler {
      type: "gaussian"
      std: 0.01
    }
    bias_filler {
      type: "constant"
    }
  }
}
layer {
  name: "relu3"
  type: "ReLU"
  bottom: "conv3"
  top: "conv3"
}
layer {
  name: "conv4"
  type: "Convolution"
  bottom: "conv3"
  top: "conv4"
  param {
    lr_mult: 1
  }
  param {
    lr_mult: 2
  }
  convolution_param {
    num_output: 128
    pad: 2
    kernel_size: 5
    stride: 1
    weight_filler {
      type: "gaussian"
      std: 0.01
    }
    bias_filler {
      type: "constant"
    }
  }
}
layer {
  name: "relu4"
  type: "ReLU"
  bottom: "conv4"
  top: "conv4"
}
layer {
  name: "conv5"
  type: "Convolution"
  bottom: "conv4"
  top: "conv5"
  param {
    lr_mult: 1
  }
  param {
    lr_mult: 2
  }
  convolution_param {
    num_output: 128
    pad: 2
    kernel_size: 5
    stride: 1
    weight_filler {
      type: "gaussian"
      std: 0.01
    }
    bias_filler {
      type: "constant"
    }
  }
}
layer {
  name: "relu5"
  type: "ReLU"
  bottom: "conv5"
  top: "conv5"
}
layer {
  name: "pool5"
  type: "Pooling"
  bottom: "conv5"
  top: "pool5"
  pooling_param {
    pool: AVE
    kernel_size: 3
    stride: 2
  }
}
layer {
  name: "ip1"
  type: "InnerProduct"
  bottom: "pool5"
  top: "ip1"
  param {
    lr_mult: 1
  }
  param {
    lr_mult: 2
  }
  inner_product_param {
    num_output: 1024
    weight_filler {
      type: "gaussian"
      std: 0.1
    }
    bias_filler {
      type: "constant"
    }
  }
}
layer {
  name: "ip2"
  type: "InnerProduct"
  bottom: "ip1"
  top: "ip2"
  param {
    lr_mult: 1
  }
  param {
    lr_mult: 2
  }
  inner_product_param {
    num_output: 512
    weight_filler {
      type: "gaussian"
      std: 0.1
    }
    bias_filler {
      type: "constant"
    }
  }
}
layer {
  name: "ip3"
  type: "InnerProduct"
  bottom: "ip2"
  top: "ip3"
  param {
    lr_mult: 1
  }
  param {
    lr_mult: 2
  }
  inner_product_param {
    num_output: 50
    weight_filler {
      type: "gaussian"
      std: 0.1
    }
    bias_filler {
      type: "constant"
    }
  }
}
layer {
  name: "loss"
  type: "SoftmaxWithLoss"
  bottom: "ip3"
  bottom: "label"
  top: "loss"
}
I0503 13:04:19.276620 20786 layer_factory.hpp:77] Creating layer parameters
I0503 13:04:19.276635 20786 net.cpp:94] Creating Layer parameters
I0503 13:04:19.276641 20786 net.cpp:409] parameters -> data
I0503 13:04:19.276660 20786 net.cpp:409] parameters -> label
I0503 13:04:19.276671 20786 hdf5_data_layer.cpp:79] Loading list of HDF5 filenames from: /home/purduethu/scratch/radon/d/deng106/CNNStatisticalModel/distributions/input/5_distributions_100_sample_size_train-distributions-path.txt
I0503 13:04:19.276695 20786 hdf5_data_layer.cpp:93] Number of HDF5 files: 1
I0503 13:04:19.277168 20786 hdf5.cpp:32] Datatype class: H5T_FLOAT
I0503 13:04:19.293268 20786 hdf5.cpp:35] Datatype class: H5T_INTEGER
I0503 13:04:19.294409 20786 net.cpp:144] Setting up parameters
I0503 13:04:19.294428 20786 net.cpp:151] Top shape: 20 1 10 10 (2000)
I0503 13:04:19.294435 20786 net.cpp:151] Top shape: 20 (20)
I0503 13:04:19.294438 20786 net.cpp:159] Memory required for data: 8080
I0503 13:04:19.294445 20786 layer_factory.hpp:77] Creating layer conv1
I0503 13:04:19.294464 20786 net.cpp:94] Creating Layer conv1
I0503 13:04:19.294471 20786 net.cpp:435] conv1 <- data
I0503 13:04:19.294482 20786 net.cpp:409] conv1 -> conv1
I0503 13:04:19.298408 20786 net.cpp:144] Setting up conv1
I0503 13:04:19.298422 20786 net.cpp:151] Top shape: 20 64 10 10 (128000)
I0503 13:04:19.298427 20786 net.cpp:159] Memory required for data: 520080
I0503 13:04:19.298439 20786 layer_factory.hpp:77] Creating layer relu1
I0503 13:04:19.298446 20786 net.cpp:94] Creating Layer relu1
I0503 13:04:19.298450 20786 net.cpp:435] relu1 <- conv1
I0503 13:04:19.298455 20786 net.cpp:396] relu1 -> conv1 (in-place)
I0503 13:04:19.298472 20786 net.cpp:144] Setting up relu1
I0503 13:04:19.298478 20786 net.cpp:151] Top shape: 20 64 10 10 (128000)
I0503 13:04:19.298481 20786 net.cpp:159] Memory required for data: 1032080
I0503 13:04:19.298485 20786 layer_factory.hpp:77] Creating layer conv2
I0503 13:04:19.298493 20786 net.cpp:94] Creating Layer conv2
I0503 13:04:19.298497 20786 net.cpp:435] conv2 <- conv1
I0503 13:04:19.298502 20786 net.cpp:409] conv2 -> conv2
I0503 13:04:19.304386 20786 net.cpp:144] Setting up conv2
I0503 13:04:19.304401 20786 net.cpp:151] Top shape: 20 64 10 10 (128000)
I0503 13:04:19.304405 20786 net.cpp:159] Memory required for data: 1544080
I0503 13:04:19.304414 20786 layer_factory.hpp:77] Creating layer relu2
I0503 13:04:19.304420 20786 net.cpp:94] Creating Layer relu2
I0503 13:04:19.304425 20786 net.cpp:435] relu2 <- conv2
I0503 13:04:19.304430 20786 net.cpp:396] relu2 -> conv2 (in-place)
I0503 13:04:19.304436 20786 net.cpp:144] Setting up relu2
I0503 13:04:19.304441 20786 net.cpp:151] Top shape: 20 64 10 10 (128000)
I0503 13:04:19.304445 20786 net.cpp:159] Memory required for data: 2056080
I0503 13:04:19.304448 20786 layer_factory.hpp:77] Creating layer pool2
I0503 13:04:19.304462 20786 net.cpp:94] Creating Layer pool2
I0503 13:04:19.304466 20786 net.cpp:435] pool2 <- conv2
I0503 13:04:19.304471 20786 net.cpp:409] pool2 -> pool2
I0503 13:04:19.304515 20786 net.cpp:144] Setting up pool2
I0503 13:04:19.304523 20786 net.cpp:151] Top shape: 20 64 5 5 (32000)
I0503 13:04:19.304527 20786 net.cpp:159] Memory required for data: 2184080
I0503 13:04:19.304530 20786 layer_factory.hpp:77] Creating layer conv3
I0503 13:04:19.304538 20786 net.cpp:94] Creating Layer conv3
I0503 13:04:19.304541 20786 net.cpp:435] conv3 <- pool2
I0503 13:04:19.304563 20786 net.cpp:409] conv3 -> conv3
I0503 13:04:19.312753 20786 net.cpp:144] Setting up conv3
I0503 13:04:19.312768 20786 net.cpp:151] Top shape: 20 128 5 5 (64000)
I0503 13:04:19.312772 20786 net.cpp:159] Memory required for data: 2440080
I0503 13:04:19.312780 20786 layer_factory.hpp:77] Creating layer relu3
I0503 13:04:19.312786 20786 net.cpp:94] Creating Layer relu3
I0503 13:04:19.312790 20786 net.cpp:435] relu3 <- conv3
I0503 13:04:19.312795 20786 net.cpp:396] relu3 -> conv3 (in-place)
I0503 13:04:19.312803 20786 net.cpp:144] Setting up relu3
I0503 13:04:19.312808 20786 net.cpp:151] Top shape: 20 128 5 5 (64000)
I0503 13:04:19.312810 20786 net.cpp:159] Memory required for data: 2696080
I0503 13:04:19.312814 20786 layer_factory.hpp:77] Creating layer conv4
I0503 13:04:19.312822 20786 net.cpp:94] Creating Layer conv4
I0503 13:04:19.312826 20786 net.cpp:435] conv4 <- conv3
I0503 13:04:19.312831 20786 net.cpp:409] conv4 -> conv4
I0503 13:04:19.327831 20786 net.cpp:144] Setting up conv4
I0503 13:04:19.327844 20786 net.cpp:151] Top shape: 20 128 5 5 (64000)
I0503 13:04:19.327849 20786 net.cpp:159] Memory required for data: 2952080
I0503 13:04:19.327855 20786 layer_factory.hpp:77] Creating layer relu4
I0503 13:04:19.327862 20786 net.cpp:94] Creating Layer relu4
I0503 13:04:19.327865 20786 net.cpp:435] relu4 <- conv4
I0503 13:04:19.327870 20786 net.cpp:396] relu4 -> conv4 (in-place)
I0503 13:04:19.327878 20786 net.cpp:144] Setting up relu4
I0503 13:04:19.327883 20786 net.cpp:151] Top shape: 20 128 5 5 (64000)
I0503 13:04:19.327886 20786 net.cpp:159] Memory required for data: 3208080
I0503 13:04:19.327889 20786 layer_factory.hpp:77] Creating layer conv5
I0503 13:04:19.327898 20786 net.cpp:94] Creating Layer conv5
I0503 13:04:19.327900 20786 net.cpp:435] conv5 <- conv4
I0503 13:04:19.327906 20786 net.cpp:409] conv5 -> conv5
I0503 13:04:19.342391 20786 net.cpp:144] Setting up conv5
I0503 13:04:19.342406 20786 net.cpp:151] Top shape: 20 128 5 5 (64000)
I0503 13:04:19.342411 20786 net.cpp:159] Memory required for data: 3464080
I0503 13:04:19.342419 20786 layer_factory.hpp:77] Creating layer relu5
I0503 13:04:19.342425 20786 net.cpp:94] Creating Layer relu5
I0503 13:04:19.342429 20786 net.cpp:435] relu5 <- conv5
I0503 13:04:19.342433 20786 net.cpp:396] relu5 -> conv5 (in-place)
I0503 13:04:19.342442 20786 net.cpp:144] Setting up relu5
I0503 13:04:19.342447 20786 net.cpp:151] Top shape: 20 128 5 5 (64000)
I0503 13:04:19.342449 20786 net.cpp:159] Memory required for data: 3720080
I0503 13:04:19.342453 20786 layer_factory.hpp:77] Creating layer pool5
I0503 13:04:19.342458 20786 net.cpp:94] Creating Layer pool5
I0503 13:04:19.342460 20786 net.cpp:435] pool5 <- conv5
I0503 13:04:19.342465 20786 net.cpp:409] pool5 -> pool5
I0503 13:04:19.342499 20786 net.cpp:144] Setting up pool5
I0503 13:04:19.342506 20786 net.cpp:151] Top shape: 20 128 2 2 (10240)
I0503 13:04:19.342510 20786 net.cpp:159] Memory required for data: 3761040
I0503 13:04:19.342514 20786 layer_factory.hpp:77] Creating layer ip1
I0503 13:04:19.342520 20786 net.cpp:94] Creating Layer ip1
I0503 13:04:19.342523 20786 net.cpp:435] ip1 <- pool5
I0503 13:04:19.342528 20786 net.cpp:409] ip1 -> ip1
I0503 13:04:19.356997 20786 net.cpp:144] Setting up ip1
I0503 13:04:19.357012 20786 net.cpp:151] Top shape: 20 1024 (20480)
I0503 13:04:19.357017 20786 net.cpp:159] Memory required for data: 3842960
I0503 13:04:19.357023 20786 layer_factory.hpp:77] Creating layer ip2
I0503 13:04:19.357030 20786 net.cpp:94] Creating Layer ip2
I0503 13:04:19.357038 20786 net.cpp:435] ip2 <- ip1
I0503 13:04:19.357044 20786 net.cpp:409] ip2 -> ip2
I0503 13:04:19.370829 20786 net.cpp:144] Setting up ip2
I0503 13:04:19.370843 20786 net.cpp:151] Top shape: 20 512 (10240)
I0503 13:04:19.370847 20786 net.cpp:159] Memory required for data: 3883920
I0503 13:04:19.370853 20786 layer_factory.hpp:77] Creating layer ip3
I0503 13:04:19.370860 20786 net.cpp:94] Creating Layer ip3
I0503 13:04:19.370864 20786 net.cpp:435] ip3 <- ip2
I0503 13:04:19.370869 20786 net.cpp:409] ip3 -> ip3
I0503 13:04:19.371599 20786 net.cpp:144] Setting up ip3
I0503 13:04:19.371608 20786 net.cpp:151] Top shape: 20 50 (1000)
I0503 13:04:19.371610 20786 net.cpp:159] Memory required for data: 3887920
I0503 13:04:19.371616 20786 layer_factory.hpp:77] Creating layer loss
I0503 13:04:19.371624 20786 net.cpp:94] Creating Layer loss
I0503 13:04:19.371628 20786 net.cpp:435] loss <- ip3
I0503 13:04:19.371632 20786 net.cpp:435] loss <- label
I0503 13:04:19.371637 20786 net.cpp:409] loss -> loss
I0503 13:04:19.371649 20786 layer_factory.hpp:77] Creating layer loss
…
I0503 13:04:19.372167 20786 solver.cpp:181] Creating test net (#0) specified by net file: ./protocol/dis_5_100_dimension.protocol_distribution
I0503 13:04:19.372195 20786 net.cpp:323] The NetState phase (1) differed from the phase (0) specified by a rule in layer parameters
I0503 13:04:19.372299 20786 net.cpp:52] Initializing net from parameters: 
state {
  phase: TEST
}
layer {
  name: "intercept"
  type: "HDF5Data"
  top: "data"
  top: "label"
  include {
    phase: TEST
  }
  hdf5_data_param {
    source: "/home/purduethu/scratch/radon/d/deng106/CNNStatisticalModel/distributions/input/5_distributions_100_sample_size_test-distributions-path.txt"
    batch_size: 20
  }
}
layer {
  name: "conv1"
  type: "Convolution"
  bottom: "data"
  top: "conv1"
  param {
    lr_mult: 1
  }
  param {
    lr_mult: 2
  }
  convolution_param {
    num_output: 64
    pad: 2
    kernel_size: 5
    stride: 1
    weight_filler {
      type: "gaussian"
      std: 0.0001
    }
    bias_filler {
      type: "constant"
    }
  }
}
layer {
  name: "relu1"
  type: "ReLU"
  bottom: "conv1"
  top: "conv1"
}
layer {
  name: "conv2"
  type: "Convolution"
  bottom: "conv1"
  top: "conv2"
  param {
    lr_mult: 1
  }
  param {
    lr_mult: 2
  }
  convolution_param {
    num_output: 64
    pad: 2
    kernel_size: 5
    stride: 1
    weight_filler {
      type: "gaussian"
      std: 0.01
    }
    bias_filler {
      type: "constant"
    }
  }
}
layer {
  name: "relu2"
  type: "ReLU"
  bottom: "conv2"
  top: "conv2"
}
layer {
  name: "pool2"
  type: "Pooling"
  bottom: "conv2"
  top: "pool2"
  pooling_param {
    pool: MAX
    kernel_size: 3
    stride: 2
  }
}
layer {
  name: "conv3"
  type: "Convolution"
  bottom: "pool2"
  top: "conv3"
  param {
    lr_mult: 1
  }
  param {
    lr_mult: 2
  }
  convolution_param {
    num_output: 128
    pad: 2
    kernel_size: 5
    stride: 1
    weight_filler {
      type: "gaussian"
      std: 0.01
    }
    bias_filler {
      type: "constant"
    }
  }
}
layer {
  name: "relu3"
  type: "ReLU"
  bottom: "conv3"
  top: "conv3"
}
layer {
  name: "conv4"
  type: "Convolution"
  bottom: "conv3"
  top: "conv4"
  param {
    lr_mult: 1
  }
  param {
    lr_mult: 2
  }
  convolution_param {
    num_output: 128
    pad: 2
    kernel_size: 5
    stride: 1
    weight_filler {
      type: "gaussian"
      std: 0.01
    }
    bias_filler {
      type: "constant"
    }
  }
}
layer {
  name: "relu4"
  type: "ReLU"
  bottom: "conv4"
  top: "conv4"
}
layer {
  name: "conv5"
  type: "Convolution"
  bottom: "conv4"
  top: "conv5"
  param {
    lr_mult: 1
  }
  param {
    lr_mult: 2
  }
  convolution_param {
    num_output: 128
    pad: 2
    kernel_size: 5
    stride: 1
    weight_filler {
      type: "gaussian"
      std: 0.01
    }
    bias_filler {
      type: "constant"
    }
  }
}
layer {
  name: "relu5"
  type: "ReLU"
  bottom: "conv5"
  top: "conv5"
}
layer {
  name: "pool5"
  type: "Pooling"
  bottom: "conv5"
  top: "pool5"
  pooling_param {
    pool: AVE
    kernel_size: 3
    stride: 2
  }
}
layer {
  name: "ip1"
  type: "InnerProduct"
  bottom: "pool5"
  top: "ip1"
  param {
    lr_mult: 1
  }
  param {
    lr_mult: 2
  }
  inner_product_param {
    num_output: 1024
    weight_filler {
      type: "gaussian"
      std: 0.1
    }
    bias_filler {
      type: "constant"
    }
  }
}
layer {
  name: "ip2"
  type: "InnerProduct"
  bottom: "ip1"
  top: "ip2"
  param {
    lr_mult: 1
  }
  param {
    lr_mult: 2
  }
  inner_product_param {
    num_output: 512
    weight_filler {
      type: "gaussian"
      std: 0.1
    }
    bias_filler {
      type: "constant"
    }
  }
}
layer {
  name: "ip3"
  type: "InnerProduct"
  bottom: "ip2"
  top: "ip3"
  param {
    lr_mult: 1
  }
  param {
    lr_mult: 2
  }
  inner_product_param {
    num_output: 50
    weight_filler {
      type: "gaussian"
      std: 0.1
    }
    bias_filler {
      type: "constant"
    }
  }
}
layer {
  name: "accuracy"
  type: "Accuracy"
  bottom: "ip3"
  bottom: "label"
  top: "accuracy"
  include {
    phase: TEST
  }
}
layer {
  name: "loss"
  type: "SoftmaxWithLoss"
  bottom: "ip3"
  bottom: "label"
  top: "loss"
}
I0503 13:04:19.372373 20786 layer_factory.hpp:77] Creating layer intercept
I0503 13:04:19.372382 20786 net.cpp:94] Creating Layer intercept
I0503 13:04:19.372386 20786 net.cpp:409] intercept -> data
I0503 13:04:19.372395 20786 net.cpp:409] intercept -> label
I0503 13:04:19.372400 20786 hdf5_data_layer.cpp:79] Loading list of HDF5 filenames from: /home/purduethu/scratch/radon/d/deng106/CNNStatisticalModel/distributions/input/5_distributions_100_sample_size_test-distributions-path.txt
I0503 13:04:19.372421 20786 hdf5_data_layer.cpp:93] Number of HDF5 files: 1
I0503 13:04:19.377265 20786 net.cpp:144] Setting up intercept
I0503 13:04:19.377292 20786 net.cpp:151] Top shape: 20 1 10 10 (2000)
I0503 13:04:19.377298 20786 net.cpp:151] Top shape: 20 (20)
I0503 13:04:19.377301 20786 net.cpp:159] Memory required for data: 8080
I0503 13:04:19.377307 20786 layer_factory.hpp:77] Creating layer label_intercept_1_split
I0503 13:04:19.377317 20786 net.cpp:94] Creating Layer label_intercept_1_split
I0503 13:04:19.377321 20786 net.cpp:435] label_intercept_1_split <- label
I0503 13:04:19.377327 20786 net.cpp:409] label_intercept_1_split -> label_intercept_1_split_0
I0503 13:04:19.377336 20786 net.cpp:409] label_intercept_1_split -> label_intercept_1_split_1
I0503 13:04:19.377375 20786 net.cpp:144] Setting up label_intercept_1_split
I0503 13:04:19.377382 20786 net.cpp:151] Top shape: 20 (20)
I0503 13:04:19.377388 20786 net.cpp:151] Top shape: 20 (20)
I0503 13:04:19.377390 20786 net.cpp:159] Memory required for data: 8240
I0503 13:04:19.377393 20786 layer_factory.hpp:77] Creating layer conv1
I0503 13:04:19.377404 20786 net.cpp:94] Creating Layer conv1
I0503 13:04:19.377408 20786 net.cpp:435] conv1 <- data
I0503 13:04:19.377413 20786 net.cpp:409] conv1 -> conv1
I0503 13:04:19.378144 20786 net.cpp:144] Setting up conv1
I0503 13:04:19.378166 20786 net.cpp:151] Top shape: 20 64 10 10 (128000)
I0503 13:04:19.378171 20786 net.cpp:159] Memory required for data: 520240
I0503 13:04:19.378180 20786 layer_factory.hpp:77] Creating layer relu1
I0503 13:04:19.378187 20786 net.cpp:94] Creating Layer relu1
I0503 13:04:19.378191 20786 net.cpp:435] relu1 <- conv1
I0503 13:04:19.378196 20786 net.cpp:396] relu1 -> conv1 (in-place)
I0503 13:04:19.378203 20786 net.cpp:144] Setting up relu1
I0503 13:04:19.378208 20786 net.cpp:151] Top shape: 20 64 10 10 (128000)
I0503 13:04:19.378211 20786 net.cpp:159] Memory required for data: 1032240
I0503 13:04:19.378216 20786 layer_factory.hpp:77] Creating layer conv2
I0503 13:04:19.378223 20786 net.cpp:94] Creating Layer conv2
I0503 13:04:19.378227 20786 net.cpp:435] conv2 <- conv1
I0503 13:04:19.378232 20786 net.cpp:409] conv2 -> conv2
I0503 13:04:19.382114 20786 net.cpp:144] Setting up conv2
I0503 13:04:19.382128 20786 net.cpp:151] Top shape: 20 64 10 10 (128000)
I0503 13:04:19.382133 20786 net.cpp:159] Memory required for data: 1544240
I0503 13:04:19.382140 20786 layer_factory.hpp:77] Creating layer relu2
I0503 13:04:19.382146 20786 net.cpp:94] Creating Layer relu2
I0503 13:04:19.382150 20786 net.cpp:435] relu2 <- conv2
I0503 13:04:19.382155 20786 net.cpp:396] relu2 -> conv2 (in-place)
I0503 13:04:19.382163 20786 net.cpp:144] Setting up relu2
I0503 13:04:19.382167 20786 net.cpp:151] Top shape: 20 64 10 10 (128000)
I0503 13:04:19.382170 20786 net.cpp:159] Memory required for data: 2056240
I0503 13:04:19.382174 20786 layer_factory.hpp:77] Creating layer pool2
I0503 13:04:19.382179 20786 net.cpp:94] Creating Layer pool2
I0503 13:04:19.382182 20786 net.cpp:435] pool2 <- conv2
I0503 13:04:19.382187 20786 net.cpp:409] pool2 -> pool2
I0503 13:04:19.382220 20786 net.cpp:144] Setting up pool2
I0503 13:04:19.382226 20786 net.cpp:151] Top shape: 20 64 5 5 (32000)
I0503 13:04:19.382230 20786 net.cpp:159] Memory required for data: 2184240
I0503 13:04:19.382233 20786 layer_factory.hpp:77] Creating layer conv3
I0503 13:04:19.382241 20786 net.cpp:94] Creating Layer conv3
I0503 13:04:19.382246 20786 net.cpp:435] conv3 <- pool2
I0503 13:04:19.382251 20786 net.cpp:409] conv3 -> conv3
I0503 13:04:19.388803 20786 net.cpp:144] Setting up conv3
I0503 13:04:19.388818 20786 net.cpp:151] Top shape: 20 128 5 5 (64000)
I0503 13:04:19.388821 20786 net.cpp:159] Memory required for data: 2440240
I0503 13:04:19.388830 20786 layer_factory.hpp:77] Creating layer relu3
I0503 13:04:19.388837 20786 net.cpp:94] Creating Layer relu3
I0503 13:04:19.388841 20786 net.cpp:435] relu3 <- conv3
I0503 13:04:19.388846 20786 net.cpp:396] relu3 -> conv3 (in-place)
I0503 13:04:19.388854 20786 net.cpp:144] Setting up relu3
I0503 13:04:19.388859 20786 net.cpp:151] Top shape: 20 128 5 5 (64000)
I0503 13:04:19.388861 20786 net.cpp:159] Memory required for data: 2696240
I0503 13:04:19.388864 20786 layer_factory.hpp:77] Creating layer conv4
I0503 13:04:19.388872 20786 net.cpp:94] Creating Layer conv4
I0503 13:04:19.388875 20786 net.cpp:435] conv4 <- conv3
I0503 13:04:19.388880 20786 net.cpp:409] conv4 -> conv4
I0503 13:04:19.401403 20786 net.cpp:144] Setting up conv4
I0503 13:04:19.401418 20786 net.cpp:151] Top shape: 20 128 5 5 (64000)
I0503 13:04:19.401422 20786 net.cpp:159] Memory required for data: 2952240
I0503 13:04:19.401429 20786 layer_factory.hpp:77] Creating layer relu4
I0503 13:04:19.401435 20786 net.cpp:94] Creating Layer relu4
I0503 13:04:19.401439 20786 net.cpp:435] relu4 <- conv4
I0503 13:04:19.401448 20786 net.cpp:396] relu4 -> conv4 (in-place)
I0503 13:04:19.401455 20786 net.cpp:144] Setting up relu4
I0503 13:04:19.401461 20786 net.cpp:151] Top shape: 20 128 5 5 (64000)
I0503 13:04:19.401464 20786 net.cpp:159] Memory required for data: 3208240
I0503 13:04:19.401468 20786 layer_factory.hpp:77] Creating layer conv5
I0503 13:04:19.401475 20786 net.cpp:94] Creating Layer conv5
I0503 13:04:19.401479 20786 net.cpp:435] conv5 <- conv4
I0503 13:04:19.401484 20786 net.cpp:409] conv5 -> conv5
I0503 13:04:19.413992 20786 net.cpp:144] Setting up conv5
I0503 13:04:19.414013 20786 net.cpp:151] Top shape: 20 128 5 5 (64000)
I0503 13:04:19.414018 20786 net.cpp:159] Memory required for data: 3464240
I0503 13:04:19.414027 20786 layer_factory.hpp:77] Creating layer relu5
I0503 13:04:19.414033 20786 net.cpp:94] Creating Layer relu5
I0503 13:04:19.414037 20786 net.cpp:435] relu5 <- conv5
I0503 13:04:19.414042 20786 net.cpp:396] relu5 -> conv5 (in-place)
I0503 13:04:19.414050 20786 net.cpp:144] Setting up relu5
I0503 13:04:19.414054 20786 net.cpp:151] Top shape: 20 128 5 5 (64000)
I0503 13:04:19.414058 20786 net.cpp:159] Memory required for data: 3720240
I0503 13:04:19.414062 20786 layer_factory.hpp:77] Creating layer pool5
I0503 13:04:19.414067 20786 net.cpp:94] Creating Layer pool5
I0503 13:04:19.414070 20786 net.cpp:435] pool5 <- conv5
I0503 13:04:19.414074 20786 net.cpp:409] pool5 -> pool5
I0503 13:04:19.414100 20786 net.cpp:144] Setting up pool5
I0503 13:04:19.414106 20786 net.cpp:151] Top shape: 20 128 2 2 (10240)
I0503 13:04:19.414110 20786 net.cpp:159] Memory required for data: 3761200
I0503 13:04:19.414113 20786 layer_factory.hpp:77] Creating layer ip1
I0503 13:04:19.414120 20786 net.cpp:94] Creating Layer ip1
I0503 13:04:19.414124 20786 net.cpp:435] ip1 <- pool5
I0503 13:04:19.414129 20786 net.cpp:409] ip1 -> ip1
I0503 13:04:19.427595 20786 net.cpp:144] Setting up ip1
I0503 13:04:19.427609 20786 net.cpp:151] Top shape: 20 1024 (20480)
I0503 13:04:19.427613 20786 net.cpp:159] Memory required for data: 3843120
I0503 13:04:19.427619 20786 layer_factory.hpp:77] Creating layer ip2
I0503 13:04:19.427628 20786 net.cpp:94] Creating Layer ip2
I0503 13:04:19.427630 20786 net.cpp:435] ip2 <- ip1
I0503 13:04:19.427636 20786 net.cpp:409] ip2 -> ip2
I0503 13:04:19.441087 20786 net.cpp:144] Setting up ip2
I0503 13:04:19.441099 20786 net.cpp:151] Top shape: 20 512 (10240)
I0503 13:04:19.441103 20786 net.cpp:159] Memory required for data: 3884080
I0503 13:04:19.441109 20786 layer_factory.hpp:77] Creating layer ip3
I0503 13:04:19.441118 20786 net.cpp:94] Creating Layer ip3
I0503 13:04:19.441123 20786 net.cpp:435] ip3 <- ip2
I0503 13:04:19.441128 20786 net.cpp:409] ip3 -> ip3
I0503 13:04:19.441831 20786 net.cpp:144] Setting up ip3
I0503 13:04:19.441838 20786 net.cpp:151] Top shape: 20 50 (1000)
I0503 13:04:19.441841 20786 net.cpp:159] Memory required for data: 3888080
I0503 13:04:19.441848 20786 layer_factory.hpp:77] Creating layer ip3_ip3_0_split
I0503 13:04:19.441853 20786 net.cpp:94] Creating Layer ip3_ip3_0_split
I0503 13:04:19.441856 20786 net.cpp:435] ip3_ip3_0_split <- ip3
I0503 13:04:19.441860 20786 net.cpp:409] ip3_ip3_0_split -> ip3_ip3_0_split_0
I0503 13:04:19.441866 20786 net.cpp:409] ip3_ip3_0_split -> ip3_ip3_0_split_1
I0503 13:04:19.441892 20786 net.cpp:144] Setting up ip3_ip3_0_split
I0503 13:04:19.441897 20786 net.cpp:151] Top shape: 20 50 (1000)
I0503 13:04:19.441901 20786 net.cpp:151] Top shape: 20 50 (1000)
I0503 13:04:19.441905 20786 net.cpp:159] Memory required for data: 3896080
I0503 13:04:19.441908 20786 layer_factory.hpp:77] Creating layer accuracy
I0503 13:04:19.441917 20786 net.cpp:94] Creating Layer accuracy
I0503 13:04:19.441921 20786 net.cpp:435] accuracy <- ip3_ip3_0_split_0
I0503 13:04:19.441926 20786 net.cpp:435] accuracy <- label_intercept_1_split_0
I0503 13:04:19.441931 20786 net.cpp:409] accuracy -> accuracy
…
