…
I0502 15:02:07.044509  9055 net.cpp:323] The NetState phase (0) differed from the phase (1) specified by a rule in layer intercept
I0502 15:02:07.044525  9055 net.cpp:323] The NetState phase (0) differed from the phase (1) specified by a rule in layer loss
I0502 15:02:07.044632  9055 net.cpp:52] Initializing net from parameters: 
state {
  phase: TRAIN
}
layer {
  name: "parameters"
  type: "HDF5Data"
  top: "data"
  top: "label"
  include {
    phase: TRAIN
  }
  hdf5_data_param {
    source: "/home/purduethu/scratch/radon/d/deng106/CNNStatisticalModel/distributions/input/20_distributions_400_sample_size_train-parameters-path.txt"
    batch_size: 20
  }
}
layer {
  name: "conv1"
  type: "Convolution"
  bottom: "data"
  top: "conv1"
  param {
    lr_mult: 1
  }
  param {
    lr_mult: 2
  }
  convolution_param {
    num_output: 64
    pad: 2
    kernel_size: 5
    stride: 1
    weight_filler {
      type: "gaussian"
      std: 0.0001
    }
    bias_filler {
      type: "constant"
    }
  }
}
layer {
  name: "relu1"
  type: "ReLU"
  bottom: "conv1"
  top: "conv1"
}
layer {
  name: "conv2"
  type: "Convolution"
  bottom: "conv1"
  top: "conv2"
  param {
    lr_mult: 1
  }
  param {
    lr_mult: 2
  }
  convolution_param {
    num_output: 64
    pad: 2
    kernel_size: 5
    stride: 1
    weight_filler {
      type: "gaussian"
      std: 0.01
    }
    bias_filler {
      type: "constant"
    }
  }
}
layer {
  name: "relu2"
  type: "ReLU"
  bottom: "conv2"
  top: "conv2"
}
layer {
  name: "pool2"
  type: "Pooling"
  bottom: "conv2"
  top: "pool2"
  pooling_param {
    pool: MAX
    kernel_size: 3
    stride: 2
  }
}
layer {
  name: "conv3"
  type: "Convolution"
  bottom: "pool2"
  top: "conv3"
  param {
    lr_mult: 1
  }
  param {
    lr_mult: 2
  }
  convolution_param {
    num_output: 64
    pad: 2
    kernel_size: 5
    stride: 1
    weight_filler {
      type: "gaussian"
      std: 0.01
    }
    bias_filler {
      type: "constant"
    }
  }
}
layer {
  name: "relu3"
  type: "ReLU"
  bottom: "conv3"
  top: "conv3"
}
layer {
  name: "conv4"
  type: "Convolution"
  bottom: "conv3"
  top: "conv4"
  param {
    lr_mult: 1
  }
  param {
    lr_mult: 2
  }
  convolution_param {
    num_output: 64
    pad: 2
    kernel_size: 5
    stride: 1
    weight_filler {
      type: "gaussian"
      std: 0.01
    }
    bias_filler {
      type: "constant"
    }
  }
}
layer {
  name: "relu4"
  type: "ReLU"
  bottom: "conv4"
  top: "conv4"
}
layer {
  name: "conv5"
  type: "Convolution"
  bottom: "conv4"
  top: "conv5"
  param {
    lr_mult: 1
  }
  param {
    lr_mult: 2
  }
  convolution_param {
    num_output: 64
    pad: 2
    kernel_size: 5
    stride: 1
    weight_filler {
      type: "gaussian"
      std: 0.01
    }
    bias_filler {
      type: "constant"
    }
  }
}
layer {
  name: "relu5"
  type: "ReLU"
  bottom: "conv5"
  top: "conv5"
}
layer {
  name: "pool5"
  type: "Pooling"
  bottom: "conv5"
  top: "pool5"
  pooling_param {
    pool: AVE
    kernel_size: 3
    stride: 2
  }
}
layer {
  name: "ip1"
  type: "InnerProduct"
  bottom: "pool5"
  top: "ip1"
  param {
    lr_mult: 1
  }
  param {
    lr_mult: 2
  }
  inner_product_param {
    num_output: 64
    weight_filler {
      type: "gaussian"
      std: 0.1
    }
    bias_filler {
      type: "constant"
    }
  }
}
layer {
  name: "ip2"
  type: "InnerProduct"
  bottom: "ip1"
  top: "ip2"
  param {
    lr_mult: 1
  }
  param {
    lr_mult: 2
  }
  inner_product_param {
    num_output: 64
    weight_filler {
      type: "gaussian"
      std: 0.1
    }
    bias_filler {
      type: "constant"
    }
  }
}
layer {
  name: "ip3"
  type: "InnerProduct"
  bottom: "ip2"
  top: "ip3"
  param {
    lr_mult: 1
  }
  param {
    lr_mult: 2
  }
  inner_product_param {
    num_output: 1
    weight_filler {
      type: "gaussian"
      std: 0.1
    }
    bias_filler {
      type: "constant"
    }
  }
}
layer {
  name: "loss"
  type: "HuberLoss"
  bottom: "ip3"
  bottom: "label"
  top: "loss"
  include {
    phase: TRAIN
  }
}
I0502 15:02:07.044708  9055 layer_factory.hpp:77] Creating layer parameters
I0502 15:02:07.044723  9055 net.cpp:94] Creating Layer parameters
I0502 15:02:07.044728  9055 net.cpp:409] parameters -> data
I0502 15:02:07.044747  9055 net.cpp:409] parameters -> label
I0502 15:02:07.044757  9055 hdf5_data_layer.cpp:79] Loading list of HDF5 filenames from: /home/purduethu/scratch/radon/d/deng106/CNNStatisticalModel/distributions/input/20_distributions_400_sample_size_train-parameters-path.txt
I0502 15:02:07.044780  9055 hdf5_data_layer.cpp:93] Number of HDF5 files: 1
I0502 15:02:07.045351  9055 hdf5.cpp:32] Datatype class: H5T_FLOAT
I0502 15:02:07.305362  9055 net.cpp:144] Setting up parameters
I0502 15:02:07.305395  9055 net.cpp:151] Top shape: 20 1 20 20 (8000)
I0502 15:02:07.305402  9055 net.cpp:151] Top shape: 20 (20)
I0502 15:02:07.305405  9055 net.cpp:159] Memory required for data: 32080
I0502 15:02:07.305413  9055 layer_factory.hpp:77] Creating layer conv1
I0502 15:02:07.305430  9055 net.cpp:94] Creating Layer conv1
I0502 15:02:07.305436  9055 net.cpp:435] conv1 <- data
I0502 15:02:07.305446  9055 net.cpp:409] conv1 -> conv1
I0502 15:02:07.310286  9055 net.cpp:144] Setting up conv1
I0502 15:02:07.310302  9055 net.cpp:151] Top shape: 20 64 20 20 (512000)
I0502 15:02:07.310305  9055 net.cpp:159] Memory required for data: 2080080
I0502 15:02:07.310317  9055 layer_factory.hpp:77] Creating layer relu1
I0502 15:02:07.310324  9055 net.cpp:94] Creating Layer relu1
I0502 15:02:07.310328  9055 net.cpp:435] relu1 <- conv1
I0502 15:02:07.310333  9055 net.cpp:396] relu1 -> conv1 (in-place)
I0502 15:02:07.310348  9055 net.cpp:144] Setting up relu1
I0502 15:02:07.310353  9055 net.cpp:151] Top shape: 20 64 20 20 (512000)
I0502 15:02:07.310356  9055 net.cpp:159] Memory required for data: 4128080
I0502 15:02:07.310359  9055 layer_factory.hpp:77] Creating layer conv2
I0502 15:02:07.310367  9055 net.cpp:94] Creating Layer conv2
I0502 15:02:07.310371  9055 net.cpp:435] conv2 <- conv1
I0502 15:02:07.310376  9055 net.cpp:409] conv2 -> conv2
I0502 15:02:07.320330  9055 net.cpp:144] Setting up conv2
I0502 15:02:07.320345  9055 net.cpp:151] Top shape: 20 64 20 20 (512000)
I0502 15:02:07.320350  9055 net.cpp:159] Memory required for data: 6176080
I0502 15:02:07.320358  9055 layer_factory.hpp:77] Creating layer relu2
I0502 15:02:07.320365  9055 net.cpp:94] Creating Layer relu2
I0502 15:02:07.320369  9055 net.cpp:435] relu2 <- conv2
I0502 15:02:07.320374  9055 net.cpp:396] relu2 -> conv2 (in-place)
I0502 15:02:07.320380  9055 net.cpp:144] Setting up relu2
I0502 15:02:07.320385  9055 net.cpp:151] Top shape: 20 64 20 20 (512000)
I0502 15:02:07.320389  9055 net.cpp:159] Memory required for data: 8224080
I0502 15:02:07.320391  9055 layer_factory.hpp:77] Creating layer pool2
I0502 15:02:07.320399  9055 net.cpp:94] Creating Layer pool2
I0502 15:02:07.320408  9055 net.cpp:435] pool2 <- conv2
I0502 15:02:07.320413  9055 net.cpp:409] pool2 -> pool2
I0502 15:02:07.320457  9055 net.cpp:144] Setting up pool2
I0502 15:02:07.320466  9055 net.cpp:151] Top shape: 20 64 10 10 (128000)
I0502 15:02:07.320468  9055 net.cpp:159] Memory required for data: 8736080
I0502 15:02:07.320472  9055 layer_factory.hpp:77] Creating layer conv3
I0502 15:02:07.320480  9055 net.cpp:94] Creating Layer conv3
I0502 15:02:07.320483  9055 net.cpp:435] conv3 <- pool2
I0502 15:02:07.320488  9055 net.cpp:409] conv3 -> conv3
I0502 15:02:07.325553  9055 net.cpp:144] Setting up conv3
I0502 15:02:07.325567  9055 net.cpp:151] Top shape: 20 64 10 10 (128000)
I0502 15:02:07.325572  9055 net.cpp:159] Memory required for data: 9248080
I0502 15:02:07.325579  9055 layer_factory.hpp:77] Creating layer relu3
I0502 15:02:07.325585  9055 net.cpp:94] Creating Layer relu3
I0502 15:02:07.325589  9055 net.cpp:435] relu3 <- conv3
I0502 15:02:07.325593  9055 net.cpp:396] relu3 -> conv3 (in-place)
I0502 15:02:07.325600  9055 net.cpp:144] Setting up relu3
I0502 15:02:07.325605  9055 net.cpp:151] Top shape: 20 64 10 10 (128000)
I0502 15:02:07.325608  9055 net.cpp:159] Memory required for data: 9760080
I0502 15:02:07.325611  9055 layer_factory.hpp:77] Creating layer conv4
I0502 15:02:07.325620  9055 net.cpp:94] Creating Layer conv4
I0502 15:02:07.325623  9055 net.cpp:435] conv4 <- conv3
I0502 15:02:07.325628  9055 net.cpp:409] conv4 -> conv4
I0502 15:02:07.330660  9055 net.cpp:144] Setting up conv4
I0502 15:02:07.330674  9055 net.cpp:151] Top shape: 20 64 10 10 (128000)
I0502 15:02:07.330678  9055 net.cpp:159] Memory required for data: 10272080
I0502 15:02:07.330684  9055 layer_factory.hpp:77] Creating layer relu4
I0502 15:02:07.330690  9055 net.cpp:94] Creating Layer relu4
I0502 15:02:07.330694  9055 net.cpp:435] relu4 <- conv4
I0502 15:02:07.330698  9055 net.cpp:396] relu4 -> conv4 (in-place)
I0502 15:02:07.330705  9055 net.cpp:144] Setting up relu4
I0502 15:02:07.330710  9055 net.cpp:151] Top shape: 20 64 10 10 (128000)
I0502 15:02:07.330713  9055 net.cpp:159] Memory required for data: 10784080
I0502 15:02:07.330716  9055 layer_factory.hpp:77] Creating layer conv5
I0502 15:02:07.330724  9055 net.cpp:94] Creating Layer conv5
I0502 15:02:07.330729  9055 net.cpp:435] conv5 <- conv4
I0502 15:02:07.330732  9055 net.cpp:409] conv5 -> conv5
I0502 15:02:07.336534  9055 net.cpp:144] Setting up conv5
I0502 15:02:07.336549  9055 net.cpp:151] Top shape: 20 64 10 10 (128000)
I0502 15:02:07.336562  9055 net.cpp:159] Memory required for data: 11296080
I0502 15:02:07.336571  9055 layer_factory.hpp:77] Creating layer relu5
I0502 15:02:07.336577  9055 net.cpp:94] Creating Layer relu5
I0502 15:02:07.336581  9055 net.cpp:435] relu5 <- conv5
I0502 15:02:07.336585  9055 net.cpp:396] relu5 -> conv5 (in-place)
I0502 15:02:07.336592  9055 net.cpp:144] Setting up relu5
I0502 15:02:07.336597  9055 net.cpp:151] Top shape: 20 64 10 10 (128000)
I0502 15:02:07.336601  9055 net.cpp:159] Memory required for data: 11808080
I0502 15:02:07.336603  9055 layer_factory.hpp:77] Creating layer pool5
I0502 15:02:07.336608  9055 net.cpp:94] Creating Layer pool5
I0502 15:02:07.336612  9055 net.cpp:435] pool5 <- conv5
I0502 15:02:07.336616  9055 net.cpp:409] pool5 -> pool5
I0502 15:02:07.336649  9055 net.cpp:144] Setting up pool5
I0502 15:02:07.336658  9055 net.cpp:151] Top shape: 20 64 5 5 (32000)
I0502 15:02:07.336660  9055 net.cpp:159] Memory required for data: 11936080
I0502 15:02:07.336663  9055 layer_factory.hpp:77] Creating layer ip1
I0502 15:02:07.336674  9055 net.cpp:94] Creating Layer ip1
I0502 15:02:07.336678  9055 net.cpp:435] ip1 <- pool5
I0502 15:02:07.336683  9055 net.cpp:409] ip1 -> ip1
I0502 15:02:07.339112  9055 net.cpp:144] Setting up ip1
I0502 15:02:07.339119  9055 net.cpp:151] Top shape: 20 64 (1280)
I0502 15:02:07.339123  9055 net.cpp:159] Memory required for data: 11941200
I0502 15:02:07.339128  9055 layer_factory.hpp:77] Creating layer ip2
I0502 15:02:07.339134  9055 net.cpp:94] Creating Layer ip2
I0502 15:02:07.339143  9055 net.cpp:435] ip2 <- ip1
I0502 15:02:07.339148  9055 net.cpp:409] ip2 -> ip2
I0502 15:02:07.339306  9055 net.cpp:144] Setting up ip2
I0502 15:02:07.339313  9055 net.cpp:151] Top shape: 20 64 (1280)
I0502 15:02:07.339316  9055 net.cpp:159] Memory required for data: 11946320
I0502 15:02:07.339321  9055 layer_factory.hpp:77] Creating layer ip3
I0502 15:02:07.339328  9055 net.cpp:94] Creating Layer ip3
I0502 15:02:07.339330  9055 net.cpp:435] ip3 <- ip2
I0502 15:02:07.339335  9055 net.cpp:409] ip3 -> ip3
I0502 15:02:07.339395  9055 net.cpp:144] Setting up ip3
I0502 15:02:07.339407  9055 net.cpp:151] Top shape: 20 1 (20)
I0502 15:02:07.339411  9055 net.cpp:159] Memory required for data: 11946400
I0502 15:02:07.339416  9055 layer_factory.hpp:77] Creating layer loss
I0502 15:02:07.339426  9055 net.cpp:94] Creating Layer loss
I0502 15:02:07.339429  9055 net.cpp:435] loss <- ip3
I0502 15:02:07.339433  9055 net.cpp:435] loss <- label
I0502 15:02:07.339438  9055 net.cpp:409] loss -> loss
I0502 15:02:07.339473  9055 net.cpp:144] Setting up loss
…
