…
I0505 07:22:07.308595  4637 net.cpp:323] The NetState phase (0) differed from the phase (1) specified by a rule in layer intercept
I0505 07:22:07.308611  4637 net.cpp:323] The NetState phase (0) differed from the phase (1) specified by a rule in layer loss
I0505 07:22:07.308691  4637 net.cpp:52] Initializing net from parameters: 
state {
  phase: TRAIN
}
layer {
  name: "parameters"
  type: "HDF5Data"
  top: "data"
  top: "label"
  include {
    phase: TRAIN
  }
  hdf5_data_param {
    source: "/home/purduethu/scratch/radon/d/deng106/CNNStatisticalModel/distributions/input/20_distributions_100_sample_size_train-parameters-path.txt"
    batch_size: 20
  }
}
layer {
  name: "conv1"
  type: "Convolution"
  bottom: "data"
  top: "conv1"
  param {
    lr_mult: 1
  }
  param {
    lr_mult: 2
  }
  convolution_param {
    num_output: 64
    pad: 2
    kernel_size: 5
    stride: 1
    weight_filler {
      type: "gaussian"
      std: 0.0001
    }
    bias_filler {
      type: "constant"
    }
  }
}
layer {
  name: "relu1"
  type: "ReLU"
  bottom: "conv1"
  top: "conv1"
}
layer {
  name: "pool1"
  type: "Pooling"
  bottom: "conv1"
  top: "pool1"
  pooling_param {
    pool: MAX
    kernel_size: 3
    stride: 2
  }
}
layer {
  name: "conv2"
  type: "Convolution"
  bottom: "pool1"
  top: "conv2"
  param {
    lr_mult: 1
  }
  param {
    lr_mult: 2
  }
  convolution_param {
    num_output: 128
    pad: 2
    kernel_size: 5
    stride: 1
    weight_filler {
      type: "gaussian"
      std: 0.01
    }
    bias_filler {
      type: "constant"
    }
  }
}
layer {
  name: "relu2"
  type: "ReLU"
  bottom: "conv2"
  top: "conv2"
}
layer {
  name: "conv3"
  type: "Convolution"
  bottom: "conv2"
  top: "conv3"
  param {
    lr_mult: 1
  }
  param {
    lr_mult: 2
  }
  convolution_param {
    num_output: 128
    pad: 2
    kernel_size: 5
    stride: 1
    weight_filler {
      type: "gaussian"
      std: 0.01
    }
    bias_filler {
      type: "constant"
    }
  }
}
layer {
  name: "relu3"
  type: "ReLU"
  bottom: "conv3"
  top: "conv3"
}
layer {
  name: "pool3"
  type: "Pooling"
  bottom: "conv3"
  top: "pool3"
  pooling_param {
    pool: AVE
    kernel_size: 3
    stride: 2
  }
}
layer {
  name: "ip1"
  type: "InnerProduct"
  bottom: "pool3"
  top: "ip1"
  param {
    lr_mult: 1
  }
  param {
    lr_mult: 2
  }
  inner_product_param {
    num_output: 512
    weight_filler {
      type: "gaussian"
      std: 0.1
    }
    bias_filler {
      type: "constant"
    }
  }
}
layer {
  name: "ip2"
  type: "InnerProduct"
  bottom: "ip1"
  top: "ip2"
  param {
    lr_mult: 1
  }
  param {
    lr_mult: 2
  }
  inner_product_param {
    num_output: 256
    weight_filler {
      type: "gaussian"
      std: 0.1
    }
    bias_filler {
      type: "constant"
    }
  }
}
layer {
  name: "ip3"
  type: "InnerProduct"
  bottom: "ip2"
  top: "ip3"
  param {
    lr_mult: 1
  }
  param {
    lr_mult: 2
  }
  inner_product_param {
    num_output: 1
    weight_filler {
      type: "gaussian"
      std: 0.1
    }
    bias_filler {
      type: "constant"
    }
  }
}
layer {
  name: "loss"
  type: "HuberLoss"
  bottom: "ip3"
  bottom: "label"
  top: "loss"
  include {
    phase: TRAIN
  }
}
I0505 07:22:07.308754  4637 layer_factory.hpp:77] Creating layer parameters
I0505 07:22:07.308770  4637 net.cpp:94] Creating Layer parameters
I0505 07:22:07.308784  4637 net.cpp:409] parameters -> data
I0505 07:22:07.308802  4637 net.cpp:409] parameters -> label
I0505 07:22:07.308814  4637 hdf5_data_layer.cpp:79] Loading list of HDF5 filenames from: /home/purduethu/scratch/radon/d/deng106/CNNStatisticalModel/distributions/input/20_distributions_100_sample_size_train-parameters-path.txt
I0505 07:22:07.308835  4637 hdf5_data_layer.cpp:93] Number of HDF5 files: 1
I0505 07:22:07.309316  4637 hdf5.cpp:32] Datatype class: H5T_FLOAT
I0505 07:22:07.377410  4637 net.cpp:144] Setting up parameters
I0505 07:22:07.377444  4637 net.cpp:151] Top shape: 20 1 10 10 (2000)
I0505 07:22:07.377449  4637 net.cpp:151] Top shape: 20 (20)
I0505 07:22:07.377454  4637 net.cpp:159] Memory required for data: 8080
I0505 07:22:07.377461  4637 layer_factory.hpp:77] Creating layer conv1
I0505 07:22:07.377485  4637 net.cpp:94] Creating Layer conv1
I0505 07:22:07.377491  4637 net.cpp:435] conv1 <- data
I0505 07:22:07.377503  4637 net.cpp:409] conv1 -> conv1
I0505 07:22:07.381276  4637 net.cpp:144] Setting up conv1
I0505 07:22:07.381291  4637 net.cpp:151] Top shape: 20 64 10 10 (128000)
I0505 07:22:07.381295  4637 net.cpp:159] Memory required for data: 520080
I0505 07:22:07.381307  4637 layer_factory.hpp:77] Creating layer relu1
I0505 07:22:07.381315  4637 net.cpp:94] Creating Layer relu1
I0505 07:22:07.381319  4637 net.cpp:435] relu1 <- conv1
I0505 07:22:07.381323  4637 net.cpp:396] relu1 -> conv1 (in-place)
I0505 07:22:07.381342  4637 net.cpp:144] Setting up relu1
I0505 07:22:07.381347  4637 net.cpp:151] Top shape: 20 64 10 10 (128000)
I0505 07:22:07.381351  4637 net.cpp:159] Memory required for data: 1032080
I0505 07:22:07.381355  4637 layer_factory.hpp:77] Creating layer pool1
I0505 07:22:07.381362  4637 net.cpp:94] Creating Layer pool1
I0505 07:22:07.381366  4637 net.cpp:435] pool1 <- conv1
I0505 07:22:07.381371  4637 net.cpp:409] pool1 -> pool1
I0505 07:22:07.381413  4637 net.cpp:144] Setting up pool1
I0505 07:22:07.381420  4637 net.cpp:151] Top shape: 20 64 5 5 (32000)
I0505 07:22:07.381424  4637 net.cpp:159] Memory required for data: 1160080
I0505 07:22:07.381428  4637 layer_factory.hpp:77] Creating layer conv2
I0505 07:22:07.381436  4637 net.cpp:94] Creating Layer conv2
I0505 07:22:07.381440  4637 net.cpp:435] conv2 <- pool1
I0505 07:22:07.381445  4637 net.cpp:409] conv2 -> conv2
I0505 07:22:07.389972  4637 net.cpp:144] Setting up conv2
I0505 07:22:07.389986  4637 net.cpp:151] Top shape: 20 128 5 5 (64000)
I0505 07:22:07.389991  4637 net.cpp:159] Memory required for data: 1416080
I0505 07:22:07.389998  4637 layer_factory.hpp:77] Creating layer relu2
I0505 07:22:07.390005  4637 net.cpp:94] Creating Layer relu2
I0505 07:22:07.390009  4637 net.cpp:435] relu2 <- conv2
I0505 07:22:07.390014  4637 net.cpp:396] relu2 -> conv2 (in-place)
I0505 07:22:07.390022  4637 net.cpp:144] Setting up relu2
I0505 07:22:07.390027  4637 net.cpp:151] Top shape: 20 128 5 5 (64000)
I0505 07:22:07.390029  4637 net.cpp:159] Memory required for data: 1672080
I0505 07:22:07.390033  4637 layer_factory.hpp:77] Creating layer conv3
I0505 07:22:07.390041  4637 net.cpp:94] Creating Layer conv3
I0505 07:22:07.390044  4637 net.cpp:435] conv3 <- conv2
I0505 07:22:07.390050  4637 net.cpp:409] conv3 -> conv3
I0505 07:22:07.405051  4637 net.cpp:144] Setting up conv3
I0505 07:22:07.405067  4637 net.cpp:151] Top shape: 20 128 5 5 (64000)
I0505 07:22:07.405071  4637 net.cpp:159] Memory required for data: 1928080
I0505 07:22:07.405081  4637 layer_factory.hpp:77] Creating layer relu3
I0505 07:22:07.405086  4637 net.cpp:94] Creating Layer relu3
I0505 07:22:07.405097  4637 net.cpp:435] relu3 <- conv3
I0505 07:22:07.405102  4637 net.cpp:396] relu3 -> conv3 (in-place)
I0505 07:22:07.405110  4637 net.cpp:144] Setting up relu3
I0505 07:22:07.405114  4637 net.cpp:151] Top shape: 20 128 5 5 (64000)
I0505 07:22:07.405118  4637 net.cpp:159] Memory required for data: 2184080
I0505 07:22:07.405122  4637 layer_factory.hpp:77] Creating layer pool3
I0505 07:22:07.405128  4637 net.cpp:94] Creating Layer pool3
I0505 07:22:07.405130  4637 net.cpp:435] pool3 <- conv3
I0505 07:22:07.405143  4637 net.cpp:409] pool3 -> pool3
I0505 07:22:07.405176  4637 net.cpp:144] Setting up pool3
I0505 07:22:07.405184  4637 net.cpp:151] Top shape: 20 128 2 2 (10240)
I0505 07:22:07.405186  4637 net.cpp:159] Memory required for data: 2225040
I0505 07:22:07.405190  4637 layer_factory.hpp:77] Creating layer ip1
I0505 07:22:07.405200  4637 net.cpp:94] Creating Layer ip1
I0505 07:22:07.405203  4637 net.cpp:435] ip1 <- pool3
I0505 07:22:07.405210  4637 net.cpp:409] ip1 -> ip1
I0505 07:22:07.414609  4637 net.cpp:144] Setting up ip1
I0505 07:22:07.414624  4637 net.cpp:151] Top shape: 20 512 (10240)
I0505 07:22:07.414628  4637 net.cpp:159] Memory required for data: 2266000
I0505 07:22:07.414634  4637 layer_factory.hpp:77] Creating layer ip2
I0505 07:22:07.414643  4637 net.cpp:94] Creating Layer ip2
I0505 07:22:07.414646  4637 net.cpp:435] ip2 <- ip1
I0505 07:22:07.414651  4637 net.cpp:409] ip2 -> ip2
I0505 07:22:07.417899  4637 net.cpp:144] Setting up ip2
I0505 07:22:07.417908  4637 net.cpp:151] Top shape: 20 256 (5120)
I0505 07:22:07.417912  4637 net.cpp:159] Memory required for data: 2286480
I0505 07:22:07.417919  4637 layer_factory.hpp:77] Creating layer ip3
I0505 07:22:07.417927  4637 net.cpp:94] Creating Layer ip3
I0505 07:22:07.417929  4637 net.cpp:435] ip3 <- ip2
I0505 07:22:07.417935  4637 net.cpp:409] ip3 -> ip3
I0505 07:22:07.418000  4637 net.cpp:144] Setting up ip3
I0505 07:22:07.418007  4637 net.cpp:151] Top shape: 20 1 (20)
I0505 07:22:07.418010  4637 net.cpp:159] Memory required for data: 2286560
I0505 07:22:07.418015  4637 layer_factory.hpp:77] Creating layer loss
I0505 07:22:07.418021  4637 net.cpp:94] Creating Layer loss
I0505 07:22:07.418025  4637 net.cpp:435] loss <- ip3
I0505 07:22:07.418030  4637 net.cpp:435] loss <- label
I0505 07:22:07.418035  4637 net.cpp:409] loss -> loss
I0505 07:22:07.418069  4637 net.cpp:144] Setting up loss
…
