…
I0505 23:57:56.462934 10754 net.cpp:323] The NetState phase (0) differed from the phase (1) specified by a rule in layer intercept
I0505 23:57:56.462949 10754 net.cpp:323] The NetState phase (0) differed from the phase (1) specified by a rule in layer loss
I0505 23:57:56.463018 10754 net.cpp:52] Initializing net from parameters: 
state {
  phase: TRAIN
}
layer {
  name: "parameters"
  type: "HDF5Data"
  top: "data"
  top: "label"
  include {
    phase: TRAIN
  }
  hdf5_data_param {
    source: "/home/purduethu/scratch/radon/d/deng106/CNNStatisticalModel/distributions/input/5_distributions_900_sample_size_train-parameters-path.txt"
    batch_size: 20
  }
}
layer {
  name: "conv1"
  type: "Convolution"
  bottom: "data"
  top: "conv1"
  param {
    lr_mult: 1
  }
  param {
    lr_mult: 2
  }
  convolution_param {
    num_output: 64
    pad: 2
    kernel_size: 5
    stride: 1
    weight_filler {
      type: "gaussian"
      std: 0.0001
    }
    bias_filler {
      type: "constant"
    }
  }
}
layer {
  name: "relu1"
  type: "ReLU"
  bottom: "conv1"
  top: "conv1"
}
layer {
  name: "pool1"
  type: "Pooling"
  bottom: "conv1"
  top: "pool1"
  pooling_param {
    pool: MAX
    kernel_size: 3
    stride: 2
  }
}
layer {
  name: "conv2"
  type: "Convolution"
  bottom: "pool1"
  top: "conv2"
  param {
    lr_mult: 1
  }
  param {
    lr_mult: 2
  }
  convolution_param {
    num_output: 128
    pad: 2
    kernel_size: 5
    stride: 1
    weight_filler {
      type: "gaussian"
      std: 0.01
    }
    bias_filler {
      type: "constant"
    }
  }
}
layer {
  name: "relu2"
  type: "ReLU"
  bottom: "conv2"
  top: "conv2"
}
layer {
  name: "conv3"
  type: "Convolution"
  bottom: "conv2"
  top: "conv3"
  param {
    lr_mult: 1
  }
  param {
    lr_mult: 2
  }
  convolution_param {
    num_output: 128
    pad: 2
    kernel_size: 5
    stride: 1
    weight_filler {
      type: "gaussian"
      std: 0.01
    }
    bias_filler {
      type: "constant"
    }
  }
}
layer {
  name: "relu3"
  type: "ReLU"
  bottom: "conv3"
  top: "conv3"
}
layer {
  name: "pool3"
  type: "Pooling"
  bottom: "conv3"
  top: "pool3"
  pooling_param {
    pool: AVE
    kernel_size: 3
    stride: 2
  }
}
layer {
  name: "ip1"
  type: "InnerProduct"
  bottom: "pool3"
  top: "ip1"
  param {
    lr_mult: 1
  }
  param {
    lr_mult: 2
  }
  inner_product_param {
    num_output: 512
    weight_filler {
      type: "gaussian"
      std: 0.1
    }
    bias_filler {
      type: "constant"
    }
  }
}
layer {
  name: "ip2"
  type: "InnerProduct"
  bottom: "ip1"
  top: "ip2"
  param {
    lr_mult: 1
  }
  param {
    lr_mult: 2
  }
  inner_product_param {
    num_output: 256
    weight_filler {
      type: "gaussian"
      std: 0.1
    }
    bias_filler {
      type: "constant"
    }
  }
}
layer {
  name: "ip3"
  type: "InnerProduct"
  bottom: "ip2"
  top: "ip3"
  param {
    lr_mult: 1
  }
  param {
    lr_mult: 2
  }
  inner_product_param {
    num_output: 1
    weight_filler {
      type: "gaussian"
      std: 0.1
    }
    bias_filler {
      type: "constant"
    }
  }
}
layer {
  name: "loss"
  type: "HuberLoss"
  bottom: "ip3"
  bottom: "label"
  top: "loss"
  include {
    phase: TRAIN
  }
}
I0505 23:57:56.463068 10754 layer_factory.hpp:77] Creating layer parameters
I0505 23:57:56.463080 10754 net.cpp:94] Creating Layer parameters
I0505 23:57:56.463084 10754 net.cpp:409] parameters -> data
I0505 23:57:56.463094 10754 net.cpp:409] parameters -> label
I0505 23:57:56.463101 10754 hdf5_data_layer.cpp:79] Loading list of HDF5 filenames from: /home/purduethu/scratch/radon/d/deng106/CNNStatisticalModel/distributions/input/5_distributions_900_sample_size_train-parameters-path.txt
I0505 23:57:56.463115 10754 hdf5_data_layer.cpp:93] Number of HDF5 files: 1
I0505 23:57:56.463662 10754 hdf5.cpp:32] Datatype class: H5T_FLOAT
I0505 23:57:56.601866 10754 net.cpp:144] Setting up parameters
I0505 23:57:56.601896 10754 net.cpp:151] Top shape: 20 1 30 30 (18000)
I0505 23:57:56.601900 10754 net.cpp:151] Top shape: 20 (20)
I0505 23:57:56.601903 10754 net.cpp:159] Memory required for data: 72080
I0505 23:57:56.601910 10754 layer_factory.hpp:77] Creating layer conv1
I0505 23:57:56.601933 10754 net.cpp:94] Creating Layer conv1
I0505 23:57:56.601938 10754 net.cpp:435] conv1 <- data
I0505 23:57:56.601944 10754 net.cpp:409] conv1 -> conv1
I0505 23:57:56.608450 10754 net.cpp:144] Setting up conv1
I0505 23:57:56.608467 10754 net.cpp:151] Top shape: 20 64 30 30 (1152000)
I0505 23:57:56.608471 10754 net.cpp:159] Memory required for data: 4680080
I0505 23:57:56.608482 10754 layer_factory.hpp:77] Creating layer relu1
I0505 23:57:56.608491 10754 net.cpp:94] Creating Layer relu1
I0505 23:57:56.608494 10754 net.cpp:435] relu1 <- conv1
I0505 23:57:56.608500 10754 net.cpp:396] relu1 -> conv1 (in-place)
I0505 23:57:56.608513 10754 net.cpp:144] Setting up relu1
I0505 23:57:56.608518 10754 net.cpp:151] Top shape: 20 64 30 30 (1152000)
I0505 23:57:56.608521 10754 net.cpp:159] Memory required for data: 9288080
I0505 23:57:56.608525 10754 layer_factory.hpp:77] Creating layer pool1
I0505 23:57:56.608530 10754 net.cpp:94] Creating Layer pool1
I0505 23:57:56.608533 10754 net.cpp:435] pool1 <- conv1
I0505 23:57:56.608537 10754 net.cpp:409] pool1 -> pool1
I0505 23:57:56.608600 10754 net.cpp:144] Setting up pool1
I0505 23:57:56.608608 10754 net.cpp:151] Top shape: 20 64 15 15 (288000)
I0505 23:57:56.608611 10754 net.cpp:159] Memory required for data: 10440080
I0505 23:57:56.608615 10754 layer_factory.hpp:77] Creating layer conv2
I0505 23:57:56.608624 10754 net.cpp:94] Creating Layer conv2
I0505 23:57:56.608628 10754 net.cpp:435] conv2 <- pool1
I0505 23:57:56.608633 10754 net.cpp:409] conv2 -> conv2
I0505 23:57:56.621886 10754 net.cpp:144] Setting up conv2
I0505 23:57:56.621902 10754 net.cpp:151] Top shape: 20 128 15 15 (576000)
I0505 23:57:56.621906 10754 net.cpp:159] Memory required for data: 12744080
I0505 23:57:56.621914 10754 layer_factory.hpp:77] Creating layer relu2
I0505 23:57:56.621922 10754 net.cpp:94] Creating Layer relu2
I0505 23:57:56.621924 10754 net.cpp:435] relu2 <- conv2
I0505 23:57:56.621929 10754 net.cpp:396] relu2 -> conv2 (in-place)
I0505 23:57:56.621937 10754 net.cpp:144] Setting up relu2
I0505 23:57:56.621940 10754 net.cpp:151] Top shape: 20 128 15 15 (576000)
I0505 23:57:56.621943 10754 net.cpp:159] Memory required for data: 15048080
I0505 23:57:56.621947 10754 layer_factory.hpp:77] Creating layer conv3
I0505 23:57:56.621954 10754 net.cpp:94] Creating Layer conv3
I0505 23:57:56.621958 10754 net.cpp:435] conv3 <- conv2
I0505 23:57:56.621963 10754 net.cpp:409] conv3 -> conv3
I0505 23:57:56.643957 10754 net.cpp:144] Setting up conv3
I0505 23:57:56.643973 10754 net.cpp:151] Top shape: 20 128 15 15 (576000)
I0505 23:57:56.643977 10754 net.cpp:159] Memory required for data: 17352080
I0505 23:57:56.643985 10754 layer_factory.hpp:77] Creating layer relu3
I0505 23:57:56.643998 10754 net.cpp:94] Creating Layer relu3
I0505 23:57:56.644003 10754 net.cpp:435] relu3 <- conv3
I0505 23:57:56.644008 10754 net.cpp:396] relu3 -> conv3 (in-place)
I0505 23:57:56.644016 10754 net.cpp:144] Setting up relu3
I0505 23:57:56.644019 10754 net.cpp:151] Top shape: 20 128 15 15 (576000)
I0505 23:57:56.644022 10754 net.cpp:159] Memory required for data: 19656080
I0505 23:57:56.644026 10754 layer_factory.hpp:77] Creating layer pool3
I0505 23:57:56.644032 10754 net.cpp:94] Creating Layer pool3
I0505 23:57:56.644035 10754 net.cpp:435] pool3 <- conv3
I0505 23:57:56.644040 10754 net.cpp:409] pool3 -> pool3
I0505 23:57:56.644083 10754 net.cpp:144] Setting up pool3
I0505 23:57:56.644089 10754 net.cpp:151] Top shape: 20 128 7 7 (125440)
I0505 23:57:56.644093 10754 net.cpp:159] Memory required for data: 20157840
I0505 23:57:56.644095 10754 layer_factory.hpp:77] Creating layer ip1
I0505 23:57:56.644105 10754 net.cpp:94] Creating Layer ip1
I0505 23:57:56.644109 10754 net.cpp:435] ip1 <- pool3
I0505 23:57:56.644114 10754 net.cpp:409] ip1 -> ip1
I0505 23:57:56.723644 10754 net.cpp:144] Setting up ip1
I0505 23:57:56.723678 10754 net.cpp:151] Top shape: 20 512 (10240)
I0505 23:57:56.723683 10754 net.cpp:159] Memory required for data: 20198800
I0505 23:57:56.723692 10754 layer_factory.hpp:77] Creating layer ip2
I0505 23:57:56.723703 10754 net.cpp:94] Creating Layer ip2
I0505 23:57:56.723708 10754 net.cpp:435] ip2 <- ip1
I0505 23:57:56.723714 10754 net.cpp:409] ip2 -> ip2
I0505 23:57:56.726954 10754 net.cpp:144] Setting up ip2
I0505 23:57:56.726969 10754 net.cpp:151] Top shape: 20 256 (5120)
I0505 23:57:56.726972 10754 net.cpp:159] Memory required for data: 20219280
I0505 23:57:56.726980 10754 layer_factory.hpp:77] Creating layer ip3
I0505 23:57:56.726987 10754 net.cpp:94] Creating Layer ip3
I0505 23:57:56.726991 10754 net.cpp:435] ip3 <- ip2
I0505 23:57:56.726996 10754 net.cpp:409] ip3 -> ip3
I0505 23:57:56.727107 10754 net.cpp:144] Setting up ip3
I0505 23:57:56.727114 10754 net.cpp:151] Top shape: 20 1 (20)
I0505 23:57:56.727118 10754 net.cpp:159] Memory required for data: 20219360
I0505 23:57:56.727123 10754 layer_factory.hpp:77] Creating layer loss
I0505 23:57:56.727129 10754 net.cpp:94] Creating Layer loss
I0505 23:57:56.727133 10754 net.cpp:435] loss <- ip3
I0505 23:57:56.727136 10754 net.cpp:435] loss <- label
I0505 23:57:56.727141 10754 net.cpp:409] loss -> loss
I0505 23:57:56.727190 10754 net.cpp:144] Setting up loss
…
I0505 23:57:56.871743 10754 net.cpp:323] The NetState phase (0) differed from the phase (1) specified by a rule in layer intercept
I0505 23:57:56.871757 10754 net.cpp:323] The NetState phase (0) differed from the phase (1) specified by a rule in layer accuracy
I0505 23:57:56.871824 10754 net.cpp:52] Initializing net from parameters: 
state {
  phase: TRAIN
}
layer {
  name: "parameters"
  type: "HDF5Data"
  top: "data"
  top: "label"
  include {
    phase: TRAIN
  }
  hdf5_data_param {
    source: "/home/purduethu/scratch/radon/d/deng106/CNNStatisticalModel/distributions/input/5_distributions_900_sample_size_train-distributions-path.txt"
    batch_size: 20
  }
}
layer {
  name: "conv1"
  type: "Convolution"
  bottom: "data"
  top: "conv1"
  param {
    lr_mult: 1
  }
  param {
    lr_mult: 2
  }
  convolution_param {
    num_output: 64
    pad: 2
    kernel_size: 5
    stride: 1
    weight_filler {
      type: "gaussian"
      std: 0.0001
    }
    bias_filler {
      type: "constant"
    }
  }
}
layer {
  name: "relu1"
  type: "ReLU"
  bottom: "conv1"
  top: "conv1"
}
layer {
  name: "pool1"
  type: "Pooling"
  bottom: "conv1"
  top: "pool1"
  pooling_param {
    pool: MAX
    kernel_size: 3
    stride: 2
  }
}
layer {
  name: "conv2"
  type: "Convolution"
  bottom: "pool1"
  top: "conv2"
  param {
    lr_mult: 1
  }
  param {
    lr_mult: 2
  }
  convolution_param {
    num_output: 128
    pad: 2
    kernel_size: 5
    stride: 1
    weight_filler {
      type: "gaussian"
      std: 0.01
    }
    bias_filler {
      type: "constant"
    }
  }
}
layer {
  name: "relu2"
  type: "ReLU"
  bottom: "conv2"
  top: "conv2"
}
layer {
  name: "conv3"
  type: "Convolution"
  bottom: "conv2"
  top: "conv3"
  param {
    lr_mult: 1
  }
  param {
    lr_mult: 2
  }
  convolution_param {
    num_output: 128
    pad: 2
    kernel_size: 5
    stride: 1
    weight_filler {
      type: "gaussian"
      std: 0.01
    }
    bias_filler {
      type: "constant"
    }
  }
}
layer {
  name: "relu3"
  type: "ReLU"
  bottom: "conv3"
  top: "conv3"
}
layer {
  name: "pool3"
  type: "Pooling"
  bottom: "conv3"
  top: "pool3"
  pooling_param {
    pool: AVE
    kernel_size: 3
    stride: 2
  }
}
layer {
  name: "ip1"
  type: "InnerProduct"
  bottom: "pool3"
  top: "ip1"
  param {
    lr_mult: 1
  }
  param {
    lr_mult: 2
  }
  inner_product_param {
    num_output: 512
    weight_filler {
      type: "gaussian"
      std: 0.1
    }
    bias_filler {
      type: "constant"
    }
  }
}
layer {
  name: "ip2"
  type: "InnerProduct"
  bottom: "ip1"
  top: "ip2"
  param {
    lr_mult: 1
  }
  param {
    lr_mult: 2
  }
  inner_product_param {
    num_output: 256
    weight_filler {
      type: "gaussian"
      std: 0.1
    }
    bias_filler {
      type: "constant"
    }
  }
}
layer {
  name: "ip3"
  type: "InnerProduct"
  bottom: "ip2"
  top: "ip3"
  param {
    lr_mult: 1
  }
  param {
    lr_mult: 2
  }
  inner_product_param {
    num_output: 50
    weight_filler {
      type: "gaussian"
      std: 0.1
    }
    bias_filler {
      type: "constant"
    }
  }
}
layer {
  name: "loss"
  type: "SoftmaxWithLoss"
  bottom: "ip3"
  bottom: "label"
  top: "loss"
}
I0505 23:57:56.871865 10754 layer_factory.hpp:77] Creating layer parameters
I0505 23:57:56.871873 10754 net.cpp:94] Creating Layer parameters
I0505 23:57:56.871877 10754 net.cpp:409] parameters -> data
I0505 23:57:56.871883 10754 net.cpp:409] parameters -> label
I0505 23:57:56.871891 10754 hdf5_data_layer.cpp:79] Loading list of HDF5 filenames from: /home/purduethu/scratch/radon/d/deng106/CNNStatisticalModel/distributions/input/5_distributions_900_sample_size_train-distributions-path.txt
I0505 23:57:56.871908 10754 hdf5_data_layer.cpp:93] Number of HDF5 files: 1
I0505 23:57:57.003397 10754 hdf5.cpp:35] Datatype class: H5T_INTEGER
I0505 23:57:57.003819 10754 net.cpp:144] Setting up parameters
I0505 23:57:57.003834 10754 net.cpp:151] Top shape: 20 1 30 30 (18000)
I0505 23:57:57.003839 10754 net.cpp:151] Top shape: 20 (20)
I0505 23:57:57.003841 10754 net.cpp:159] Memory required for data: 72080
I0505 23:57:57.003847 10754 layer_factory.hpp:77] Creating layer conv1
I0505 23:57:57.003865 10754 net.cpp:94] Creating Layer conv1
I0505 23:57:57.003870 10754 net.cpp:435] conv1 <- data
I0505 23:57:57.003875 10754 net.cpp:409] conv1 -> conv1
I0505 23:57:57.007364 10754 net.cpp:144] Setting up conv1
I0505 23:57:57.007378 10754 net.cpp:151] Top shape: 20 64 30 30 (1152000)
I0505 23:57:57.007382 10754 net.cpp:159] Memory required for data: 4680080
I0505 23:57:57.007392 10754 layer_factory.hpp:77] Creating layer relu1
I0505 23:57:57.007400 10754 net.cpp:94] Creating Layer relu1
I0505 23:57:57.007405 10754 net.cpp:435] relu1 <- conv1
I0505 23:57:57.007408 10754 net.cpp:396] relu1 -> conv1 (in-place)
I0505 23:57:57.007416 10754 net.cpp:144] Setting up relu1
I0505 23:57:57.007421 10754 net.cpp:151] Top shape: 20 64 30 30 (1152000)
I0505 23:57:57.007423 10754 net.cpp:159] Memory required for data: 9288080
I0505 23:57:57.007426 10754 layer_factory.hpp:77] Creating layer pool1
I0505 23:57:57.007431 10754 net.cpp:94] Creating Layer pool1
I0505 23:57:57.007436 10754 net.cpp:435] pool1 <- conv1
I0505 23:57:57.007447 10754 net.cpp:409] pool1 -> pool1
I0505 23:57:57.007495 10754 net.cpp:144] Setting up pool1
I0505 23:57:57.007503 10754 net.cpp:151] Top shape: 20 64 15 15 (288000)
I0505 23:57:57.007505 10754 net.cpp:159] Memory required for data: 10440080
I0505 23:57:57.007509 10754 layer_factory.hpp:77] Creating layer conv2
I0505 23:57:57.007517 10754 net.cpp:94] Creating Layer conv2
I0505 23:57:57.007521 10754 net.cpp:435] conv2 <- pool1
I0505 23:57:57.007526 10754 net.cpp:409] conv2 -> conv2
I0505 23:57:57.020469 10754 net.cpp:144] Setting up conv2
I0505 23:57:57.020484 10754 net.cpp:151] Top shape: 20 128 15 15 (576000)
I0505 23:57:57.020488 10754 net.cpp:159] Memory required for data: 12744080
I0505 23:57:57.020496 10754 layer_factory.hpp:77] Creating layer relu2
I0505 23:57:57.020503 10754 net.cpp:94] Creating Layer relu2
I0505 23:57:57.020506 10754 net.cpp:435] relu2 <- conv2
I0505 23:57:57.020510 10754 net.cpp:396] relu2 -> conv2 (in-place)
I0505 23:57:57.020517 10754 net.cpp:144] Setting up relu2
I0505 23:57:57.020521 10754 net.cpp:151] Top shape: 20 128 15 15 (576000)
I0505 23:57:57.020524 10754 net.cpp:159] Memory required for data: 15048080
I0505 23:57:57.020527 10754 layer_factory.hpp:77] Creating layer conv3
I0505 23:57:57.020535 10754 net.cpp:94] Creating Layer conv3
I0505 23:57:57.020539 10754 net.cpp:435] conv3 <- conv2
I0505 23:57:57.020545 10754 net.cpp:409] conv3 -> conv3
I0505 23:57:57.042629 10754 net.cpp:144] Setting up conv3
I0505 23:57:57.042672 10754 net.cpp:151] Top shape: 20 128 15 15 (576000)
I0505 23:57:57.042685 10754 net.cpp:159] Memory required for data: 17352080
I0505 23:57:57.042707 10754 layer_factory.hpp:77] Creating layer relu3
I0505 23:57:57.042724 10754 net.cpp:94] Creating Layer relu3
I0505 23:57:57.042735 10754 net.cpp:435] relu3 <- conv3
I0505 23:57:57.042748 10754 net.cpp:396] relu3 -> conv3 (in-place)
I0505 23:57:57.042768 10754 net.cpp:144] Setting up relu3
I0505 23:57:57.042780 10754 net.cpp:151] Top shape: 20 128 15 15 (576000)
I0505 23:57:57.042789 10754 net.cpp:159] Memory required for data: 19656080
I0505 23:57:57.042798 10754 layer_factory.hpp:77] Creating layer pool3
I0505 23:57:57.042814 10754 net.cpp:94] Creating Layer pool3
I0505 23:57:57.042822 10754 net.cpp:435] pool3 <- conv3
I0505 23:57:57.042840 10754 net.cpp:409] pool3 -> pool3
I0505 23:57:57.042930 10754 net.cpp:144] Setting up pool3
I0505 23:57:57.042948 10754 net.cpp:151] Top shape: 20 128 7 7 (125440)
I0505 23:57:57.042958 10754 net.cpp:159] Memory required for data: 20157840
I0505 23:57:57.042966 10754 layer_factory.hpp:77] Creating layer ip1
I0505 23:57:57.042984 10754 net.cpp:94] Creating Layer ip1
I0505 23:57:57.042994 10754 net.cpp:435] ip1 <- pool3
I0505 23:57:57.043006 10754 net.cpp:409] ip1 -> ip1
I0505 23:57:57.200294 10754 net.cpp:144] Setting up ip1
I0505 23:57:57.200330 10754 net.cpp:151] Top shape: 20 512 (10240)
I0505 23:57:57.200335 10754 net.cpp:159] Memory required for data: 20198800
I0505 23:57:57.200347 10754 layer_factory.hpp:77] Creating layer ip2
I0505 23:57:57.200361 10754 net.cpp:94] Creating Layer ip2
I0505 23:57:57.200366 10754 net.cpp:435] ip2 <- ip1
I0505 23:57:57.200376 10754 net.cpp:409] ip2 -> ip2
I0505 23:57:57.205067 10754 net.cpp:144] Setting up ip2
I0505 23:57:57.205082 10754 net.cpp:151] Top shape: 20 256 (5120)
I0505 23:57:57.205087 10754 net.cpp:159] Memory required for data: 20219280
I0505 23:57:57.205098 10754 layer_factory.hpp:77] Creating layer ip3
I0505 23:57:57.205107 10754 net.cpp:94] Creating Layer ip3
I0505 23:57:57.205112 10754 net.cpp:435] ip3 <- ip2
I0505 23:57:57.205118 10754 net.cpp:409] ip3 -> ip3
I0505 23:57:57.205729 10754 net.cpp:144] Setting up ip3
I0505 23:57:57.205739 10754 net.cpp:151] Top shape: 20 50 (1000)
I0505 23:57:57.205744 10754 net.cpp:159] Memory required for data: 20223280
I0505 23:57:57.205750 10754 layer_factory.hpp:77] Creating layer loss
I0505 23:57:57.205757 10754 net.cpp:94] Creating Layer loss
I0505 23:57:57.205762 10754 net.cpp:435] loss <- ip3
I0505 23:57:57.205767 10754 net.cpp:435] loss <- label
I0505 23:57:57.205785 10754 net.cpp:409] loss -> loss
I0505 23:57:57.205796 10754 layer_factory.hpp:77] Creating layer loss
…
I0505 23:57:57.206415 10754 solver.cpp:181] Creating test net (#0) specified by net file: ./protocol/dis_5_900_dimension.protocol_distribution
I0505 23:57:57.206447 10754 net.cpp:323] The NetState phase (1) differed from the phase (0) specified by a rule in layer parameters
I0505 23:57:57.206562 10754 net.cpp:52] Initializing net from parameters: 
state {
  phase: TEST
}
layer {
  name: "intercept"
  type: "HDF5Data"
  top: "data"
  top: "label"
  include {
    phase: TEST
  }
  hdf5_data_param {
    source: "/home/purduethu/scratch/radon/d/deng106/CNNStatisticalModel/distributions/input/5_distributions_900_sample_size_test-distributions-path.txt"
    batch_size: 20
  }
}
layer {
  name: "conv1"
  type: "Convolution"
  bottom: "data"
  top: "conv1"
  param {
    lr_mult: 1
  }
  param {
    lr_mult: 2
  }
  convolution_param {
    num_output: 64
    pad: 2
    kernel_size: 5
    stride: 1
    weight_filler {
      type: "gaussian"
      std: 0.0001
    }
    bias_filler {
      type: "constant"
    }
  }
}
layer {
  name: "relu1"
  type: "ReLU"
  bottom: "conv1"
  top: "conv1"
}
layer {
  name: "pool1"
  type: "Pooling"
  bottom: "conv1"
  top: "pool1"
  pooling_param {
    pool: MAX
    kernel_size: 3
    stride: 2
  }
}
layer {
  name: "conv2"
  type: "Convolution"
  bottom: "pool1"
  top: "conv2"
  param {
    lr_mult: 1
  }
  param {
    lr_mult: 2
  }
  convolution_param {
    num_output: 128
    pad: 2
    kernel_size: 5
    stride: 1
    weight_filler {
      type: "gaussian"
      std: 0.01
    }
    bias_filler {
      type: "constant"
    }
  }
}
layer {
  name: "relu2"
  type: "ReLU"
  bottom: "conv2"
  top: "conv2"
}
layer {
  name: "conv3"
  type: "Convolution"
  bottom: "conv2"
  top: "conv3"
  param {
    lr_mult: 1
  }
  param {
    lr_mult: 2
  }
  convolution_param {
    num_output: 128
    pad: 2
    kernel_size: 5
    stride: 1
    weight_filler {
      type: "gaussian"
      std: 0.01
    }
    bias_filler {
      type: "constant"
    }
  }
}
layer {
  name: "relu3"
  type: "ReLU"
  bottom: "conv3"
  top: "conv3"
}
layer {
  name: "pool3"
  type: "Pooling"
  bottom: "conv3"
  top: "pool3"
  pooling_param {
    pool: AVE
    kernel_size: 3
    stride: 2
  }
}
layer {
  name: "ip1"
  type: "InnerProduct"
  bottom: "pool3"
  top: "ip1"
  param {
    lr_mult: 1
  }
  param {
    lr_mult: 2
  }
  inner_product_param {
    num_output: 512
    weight_filler {
      type: "gaussian"
      std: 0.1
    }
    bias_filler {
      type: "constant"
    }
  }
}
layer {
  name: "ip2"
  type: "InnerProduct"
  bottom: "ip1"
  top: "ip2"
  param {
    lr_mult: 1
  }
  param {
    lr_mult: 2
  }
  inner_product_param {
    num_output: 256
    weight_filler {
      type: "gaussian"
      std: 0.1
    }
    bias_filler {
      type: "constant"
    }
  }
}
layer {
  name: "ip3"
  type: "InnerProduct"
  bottom: "ip2"
  top: "ip3"
  param {
    lr_mult: 1
  }
  param {
    lr_mult: 2
  }
  inner_product_param {
    num_output: 50
    weight_filler {
      type: "gaussian"
      std: 0.1
    }
    bias_filler {
      type: "constant"
    }
  }
}
layer {
  name: "accuracy"
  type: "Accuracy"
  bottom: "ip3"
  bottom: "label"
  top: "accuracy"
  include {
    phase: TEST
  }
}
layer {
  name: "loss"
  type: "SoftmaxWithLoss"
  bottom: "ip3"
  bottom: "label"
  top: "loss"
}
I0505 23:57:57.206640 10754 layer_factory.hpp:77] Creating layer intercept
I0505 23:57:57.206650 10754 net.cpp:94] Creating Layer intercept
I0505 23:57:57.206656 10754 net.cpp:409] intercept -> data
I0505 23:57:57.206666 10754 net.cpp:409] intercept -> label
I0505 23:57:57.206674 10754 hdf5_data_layer.cpp:79] Loading list of HDF5 filenames from: /home/purduethu/scratch/radon/d/deng106/CNNStatisticalModel/distributions/input/5_distributions_900_sample_size_test-distributions-path.txt
I0505 23:57:57.206704 10754 hdf5_data_layer.cpp:93] Number of HDF5 files: 1
I0505 23:57:57.249898 10754 net.cpp:144] Setting up intercept
I0505 23:57:57.249935 10754 net.cpp:151] Top shape: 20 1 30 30 (18000)
I0505 23:57:57.249941 10754 net.cpp:151] Top shape: 20 (20)
I0505 23:57:57.249944 10754 net.cpp:159] Memory required for data: 72080
I0505 23:57:57.249951 10754 layer_factory.hpp:77] Creating layer label_intercept_1_split
I0505 23:57:57.249974 10754 net.cpp:94] Creating Layer label_intercept_1_split
I0505 23:57:57.249979 10754 net.cpp:435] label_intercept_1_split <- label
I0505 23:57:57.249985 10754 net.cpp:409] label_intercept_1_split -> label_intercept_1_split_0
I0505 23:57:57.249995 10754 net.cpp:409] label_intercept_1_split -> label_intercept_1_split_1
I0505 23:57:57.250042 10754 net.cpp:144] Setting up label_intercept_1_split
I0505 23:57:57.250051 10754 net.cpp:151] Top shape: 20 (20)
I0505 23:57:57.250054 10754 net.cpp:151] Top shape: 20 (20)
I0505 23:57:57.250058 10754 net.cpp:159] Memory required for data: 72240
I0505 23:57:57.250062 10754 layer_factory.hpp:77] Creating layer conv1
I0505 23:57:57.250074 10754 net.cpp:94] Creating Layer conv1
I0505 23:57:57.250079 10754 net.cpp:435] conv1 <- data
I0505 23:57:57.250085 10754 net.cpp:409] conv1 -> conv1
I0505 23:57:57.251711 10754 net.cpp:144] Setting up conv1
I0505 23:57:57.251727 10754 net.cpp:151] Top shape: 20 64 30 30 (1152000)
I0505 23:57:57.251731 10754 net.cpp:159] Memory required for data: 4680240
I0505 23:57:57.251744 10754 layer_factory.hpp:77] Creating layer relu1
I0505 23:57:57.251751 10754 net.cpp:94] Creating Layer relu1
I0505 23:57:57.251755 10754 net.cpp:435] relu1 <- conv1
I0505 23:57:57.251760 10754 net.cpp:396] relu1 -> conv1 (in-place)
I0505 23:57:57.251768 10754 net.cpp:144] Setting up relu1
I0505 23:57:57.251775 10754 net.cpp:151] Top shape: 20 64 30 30 (1152000)
I0505 23:57:57.251778 10754 net.cpp:159] Memory required for data: 9288240
I0505 23:57:57.251781 10754 layer_factory.hpp:77] Creating layer pool1
I0505 23:57:57.251790 10754 net.cpp:94] Creating Layer pool1
I0505 23:57:57.251793 10754 net.cpp:435] pool1 <- conv1
I0505 23:57:57.251798 10754 net.cpp:409] pool1 -> pool1
I0505 23:57:57.251859 10754 net.cpp:144] Setting up pool1
I0505 23:57:57.251868 10754 net.cpp:151] Top shape: 20 64 15 15 (288000)
I0505 23:57:57.251870 10754 net.cpp:159] Memory required for data: 10440240
I0505 23:57:57.251874 10754 layer_factory.hpp:77] Creating layer conv2
I0505 23:57:57.251883 10754 net.cpp:94] Creating Layer conv2
I0505 23:57:57.251888 10754 net.cpp:435] conv2 <- pool1
I0505 23:57:57.251894 10754 net.cpp:409] conv2 -> conv2
I0505 23:57:57.261741 10754 net.cpp:144] Setting up conv2
I0505 23:57:57.261760 10754 net.cpp:151] Top shape: 20 128 15 15 (576000)
I0505 23:57:57.261765 10754 net.cpp:159] Memory required for data: 12744240
I0505 23:57:57.261781 10754 layer_factory.hpp:77] Creating layer relu2
I0505 23:57:57.261790 10754 net.cpp:94] Creating Layer relu2
I0505 23:57:57.261793 10754 net.cpp:435] relu2 <- conv2
I0505 23:57:57.261800 10754 net.cpp:396] relu2 -> conv2 (in-place)
I0505 23:57:57.261806 10754 net.cpp:144] Setting up relu2
I0505 23:57:57.261812 10754 net.cpp:151] Top shape: 20 128 15 15 (576000)
I0505 23:57:57.261816 10754 net.cpp:159] Memory required for data: 15048240
I0505 23:57:57.261819 10754 layer_factory.hpp:77] Creating layer conv3
I0505 23:57:57.261827 10754 net.cpp:94] Creating Layer conv3
I0505 23:57:57.261831 10754 net.cpp:435] conv3 <- conv2
I0505 23:57:57.261837 10754 net.cpp:409] conv3 -> conv3
I0505 23:57:57.279498 10754 net.cpp:144] Setting up conv3
I0505 23:57:57.279537 10754 net.cpp:151] Top shape: 20 128 15 15 (576000)
I0505 23:57:57.279548 10754 net.cpp:159] Memory required for data: 17352240
I0505 23:57:57.279572 10754 layer_factory.hpp:77] Creating layer relu3
I0505 23:57:57.279590 10754 net.cpp:94] Creating Layer relu3
I0505 23:57:57.279600 10754 net.cpp:435] relu3 <- conv3
I0505 23:57:57.279613 10754 net.cpp:396] relu3 -> conv3 (in-place)
I0505 23:57:57.279633 10754 net.cpp:144] Setting up relu3
I0505 23:57:57.279645 10754 net.cpp:151] Top shape: 20 128 15 15 (576000)
I0505 23:57:57.279654 10754 net.cpp:159] Memory required for data: 19656240
I0505 23:57:57.279662 10754 layer_factory.hpp:77] Creating layer pool3
I0505 23:57:57.279676 10754 net.cpp:94] Creating Layer pool3
I0505 23:57:57.279685 10754 net.cpp:435] pool3 <- conv3
I0505 23:57:57.279696 10754 net.cpp:409] pool3 -> pool3
I0505 23:57:57.279775 10754 net.cpp:144] Setting up pool3
I0505 23:57:57.279784 10754 net.cpp:151] Top shape: 20 128 7 7 (125440)
I0505 23:57:57.279788 10754 net.cpp:159] Memory required for data: 20158000
I0505 23:57:57.279790 10754 layer_factory.hpp:77] Creating layer ip1
I0505 23:57:57.279798 10754 net.cpp:94] Creating Layer ip1
I0505 23:57:57.279803 10754 net.cpp:435] ip1 <- pool3
I0505 23:57:57.279808 10754 net.cpp:409] ip1 -> ip1
I0505 23:57:57.366226 10754 net.cpp:144] Setting up ip1
I0505 23:57:57.366263 10754 net.cpp:151] Top shape: 20 512 (10240)
I0505 23:57:57.366267 10754 net.cpp:159] Memory required for data: 20198960
I0505 23:57:57.366276 10754 layer_factory.hpp:77] Creating layer ip2
I0505 23:57:57.366288 10754 net.cpp:94] Creating Layer ip2
I0505 23:57:57.366292 10754 net.cpp:435] ip2 <- ip1
I0505 23:57:57.366299 10754 net.cpp:409] ip2 -> ip2
I0505 23:57:57.369689 10754 net.cpp:144] Setting up ip2
I0505 23:57:57.369704 10754 net.cpp:151] Top shape: 20 256 (5120)
I0505 23:57:57.369706 10754 net.cpp:159] Memory required for data: 20219440
I0505 23:57:57.369715 10754 layer_factory.hpp:77] Creating layer ip3
I0505 23:57:57.369722 10754 net.cpp:94] Creating Layer ip3
I0505 23:57:57.369725 10754 net.cpp:435] ip3 <- ip2
I0505 23:57:57.369730 10754 net.cpp:409] ip3 -> ip3
I0505 23:57:57.370193 10754 net.cpp:144] Setting up ip3
I0505 23:57:57.370199 10754 net.cpp:151] Top shape: 20 50 (1000)
I0505 23:57:57.370203 10754 net.cpp:159] Memory required for data: 20223440
I0505 23:57:57.370208 10754 layer_factory.hpp:77] Creating layer ip3_ip3_0_split
I0505 23:57:57.370214 10754 net.cpp:94] Creating Layer ip3_ip3_0_split
I0505 23:57:57.370218 10754 net.cpp:435] ip3_ip3_0_split <- ip3
I0505 23:57:57.370223 10754 net.cpp:409] ip3_ip3_0_split -> ip3_ip3_0_split_0
I0505 23:57:57.370227 10754 net.cpp:409] ip3_ip3_0_split -> ip3_ip3_0_split_1
I0505 23:57:57.370268 10754 net.cpp:144] Setting up ip3_ip3_0_split
I0505 23:57:57.370275 10754 net.cpp:151] Top shape: 20 50 (1000)
I0505 23:57:57.370278 10754 net.cpp:151] Top shape: 20 50 (1000)
I0505 23:57:57.370281 10754 net.cpp:159] Memory required for data: 20231440
I0505 23:57:57.370285 10754 layer_factory.hpp:77] Creating layer accuracy
I0505 23:57:57.370290 10754 net.cpp:94] Creating Layer accuracy
I0505 23:57:57.370293 10754 net.cpp:435] accuracy <- ip3_ip3_0_split_0
I0505 23:57:57.370297 10754 net.cpp:435] accuracy <- label_intercept_1_split_0
I0505 23:57:57.370302 10754 net.cpp:409] accuracy -> accuracy
…
