…
I0503 02:12:57.616353 17251 net.cpp:323] The NetState phase (0) differed from the phase (1) specified by a rule in layer intercept
I0503 02:12:57.616369 17251 net.cpp:323] The NetState phase (0) differed from the phase (1) specified by a rule in layer loss
I0503 02:12:57.616447 17251 net.cpp:52] Initializing net from parameters: 
state {
  phase: TRAIN
}
layer {
  name: "parameters"
  type: "HDF5Data"
  top: "data"
  top: "label"
  include {
    phase: TRAIN
  }
  hdf5_data_param {
    source: "/home/purduethu/scratch/radon/d/deng106/CNNStatisticalModel/distributions/input/20_distributions_400_sample_size_train-parameters-path.txt"
    batch_size: 20
  }
}
layer {
  name: "conv1"
  type: "Convolution"
  bottom: "data"
  top: "conv1"
  param {
    lr_mult: 1
  }
  param {
    lr_mult: 2
  }
  convolution_param {
    num_output: 64
    pad: 2
    kernel_size: 5
    stride: 1
    weight_filler {
      type: "gaussian"
      std: 0.0001
    }
    bias_filler {
      type: "constant"
    }
  }
}
layer {
  name: "relu1"
  type: "ReLU"
  bottom: "conv1"
  top: "conv1"
}
layer {
  name: "conv2"
  type: "Convolution"
  bottom: "conv1"
  top: "conv2"
  param {
    lr_mult: 1
  }
  param {
    lr_mult: 2
  }
  convolution_param {
    num_output: 64
    pad: 2
    kernel_size: 5
    stride: 1
    weight_filler {
      type: "gaussian"
      std: 0.01
    }
    bias_filler {
      type: "constant"
    }
  }
}
layer {
  name: "relu2"
  type: "ReLU"
  bottom: "conv2"
  top: "conv2"
}
layer {
  name: "pool2"
  type: "Pooling"
  bottom: "conv2"
  top: "pool2"
  pooling_param {
    pool: MAX
    kernel_size: 3
    stride: 2
  }
}
layer {
  name: "conv3"
  type: "Convolution"
  bottom: "pool2"
  top: "conv3"
  param {
    lr_mult: 1
  }
  param {
    lr_mult: 2
  }
  convolution_param {
    num_output: 128
    pad: 2
    kernel_size: 5
    stride: 1
    weight_filler {
      type: "gaussian"
      std: 0.01
    }
    bias_filler {
      type: "constant"
    }
  }
}
layer {
  name: "relu3"
  type: "ReLU"
  bottom: "conv3"
  top: "conv3"
}
layer {
  name: "conv4"
  type: "Convolution"
  bottom: "conv3"
  top: "conv4"
  param {
    lr_mult: 1
  }
  param {
    lr_mult: 2
  }
  convolution_param {
    num_output: 128
    pad: 2
    kernel_size: 5
    stride: 1
    weight_filler {
      type: "gaussian"
      std: 0.01
    }
    bias_filler {
      type: "constant"
    }
  }
}
layer {
  name: "relu4"
  type: "ReLU"
  bottom: "conv4"
  top: "conv4"
}
layer {
  name: "conv5"
  type: "Convolution"
  bottom: "conv4"
  top: "conv5"
  param {
    lr_mult: 1
  }
  param {
    lr_mult: 2
  }
  convolution_param {
    num_output: 128
    pad: 2
    kernel_size: 5
    stride: 1
    weight_filler {
      type: "gaussian"
      std: 0.01
    }
    bias_filler {
      type: "constant"
    }
  }
}
layer {
  name: "relu5"
  type: "ReLU"
  bottom: "conv5"
  top: "conv5"
}
layer {
  name: "pool5"
  type: "Pooling"
  bottom: "conv5"
  top: "pool5"
  pooling_param {
    pool: AVE
    kernel_size: 3
    stride: 2
  }
}
layer {
  name: "ip1"
  type: "InnerProduct"
  bottom: "pool5"
  top: "ip1"
  param {
    lr_mult: 1
  }
  param {
    lr_mult: 2
  }
  inner_product_param {
    num_output: 1024
    weight_filler {
      type: "gaussian"
      std: 0.1
    }
    bias_filler {
      type: "constant"
    }
  }
}
layer {
  name: "ip2"
  type: "InnerProduct"
  bottom: "ip1"
  top: "ip2"
  param {
    lr_mult: 1
  }
  param {
    lr_mult: 2
  }
  inner_product_param {
    num_output: 512
    weight_filler {
      type: "gaussian"
      std: 0.1
    }
    bias_filler {
      type: "constant"
    }
  }
}
layer {
  name: "ip3"
  type: "InnerProduct"
  bottom: "ip2"
  top: "ip3"
  param {
    lr_mult: 1
  }
  param {
    lr_mult: 2
  }
  inner_product_param {
    num_output: 1
    weight_filler {
      type: "gaussian"
      std: 0.1
    }
    bias_filler {
      type: "constant"
    }
  }
}
layer {
  name: "loss"
  type: "HuberLoss"
  bottom: "ip3"
  bottom: "label"
  top: "loss"
  include {
    phase: TRAIN
  }
}
I0503 02:12:57.616502 17251 layer_factory.hpp:77] Creating layer parameters
I0503 02:12:57.616518 17251 net.cpp:94] Creating Layer parameters
I0503 02:12:57.616523 17251 net.cpp:409] parameters -> data
I0503 02:12:57.616533 17251 net.cpp:409] parameters -> label
I0503 02:12:57.616539 17251 hdf5_data_layer.cpp:79] Loading list of HDF5 filenames from: /home/purduethu/scratch/radon/d/deng106/CNNStatisticalModel/distributions/input/20_distributions_400_sample_size_train-parameters-path.txt
I0503 02:12:57.616571 17251 hdf5_data_layer.cpp:93] Number of HDF5 files: 1
I0503 02:12:57.617136 17251 hdf5.cpp:32] Datatype class: H5T_FLOAT
I0503 02:12:57.878353 17251 net.cpp:144] Setting up parameters
I0503 02:12:57.878386 17251 net.cpp:151] Top shape: 20 1 20 20 (8000)
I0503 02:12:57.878392 17251 net.cpp:151] Top shape: 20 (20)
I0503 02:12:57.878396 17251 net.cpp:159] Memory required for data: 32080
I0503 02:12:57.878403 17251 layer_factory.hpp:77] Creating layer conv1
I0503 02:12:57.878420 17251 net.cpp:94] Creating Layer conv1
I0503 02:12:57.878425 17251 net.cpp:435] conv1 <- data
I0503 02:12:57.878432 17251 net.cpp:409] conv1 -> conv1
I0503 02:12:57.883786 17251 net.cpp:144] Setting up conv1
I0503 02:12:57.883803 17251 net.cpp:151] Top shape: 20 64 20 20 (512000)
I0503 02:12:57.883807 17251 net.cpp:159] Memory required for data: 2080080
I0503 02:12:57.883818 17251 layer_factory.hpp:77] Creating layer relu1
I0503 02:12:57.883826 17251 net.cpp:94] Creating Layer relu1
I0503 02:12:57.883829 17251 net.cpp:435] relu1 <- conv1
I0503 02:12:57.883834 17251 net.cpp:396] relu1 -> conv1 (in-place)
I0503 02:12:57.883842 17251 net.cpp:144] Setting up relu1
I0503 02:12:57.883847 17251 net.cpp:151] Top shape: 20 64 20 20 (512000)
I0503 02:12:57.883851 17251 net.cpp:159] Memory required for data: 4128080
I0503 02:12:57.883854 17251 layer_factory.hpp:77] Creating layer conv2
I0503 02:12:57.883862 17251 net.cpp:94] Creating Layer conv2
I0503 02:12:57.883867 17251 net.cpp:435] conv2 <- conv1
I0503 02:12:57.883872 17251 net.cpp:409] conv2 -> conv2
I0503 02:12:57.893779 17251 net.cpp:144] Setting up conv2
I0503 02:12:57.893797 17251 net.cpp:151] Top shape: 20 64 20 20 (512000)
I0503 02:12:57.893802 17251 net.cpp:159] Memory required for data: 6176080
I0503 02:12:57.893811 17251 layer_factory.hpp:77] Creating layer relu2
I0503 02:12:57.893820 17251 net.cpp:94] Creating Layer relu2
I0503 02:12:57.893823 17251 net.cpp:435] relu2 <- conv2
I0503 02:12:57.893828 17251 net.cpp:396] relu2 -> conv2 (in-place)
I0503 02:12:57.893836 17251 net.cpp:144] Setting up relu2
I0503 02:12:57.893841 17251 net.cpp:151] Top shape: 20 64 20 20 (512000)
I0503 02:12:57.893843 17251 net.cpp:159] Memory required for data: 8224080
I0503 02:12:57.893847 17251 layer_factory.hpp:77] Creating layer pool2
I0503 02:12:57.893853 17251 net.cpp:94] Creating Layer pool2
I0503 02:12:57.893863 17251 net.cpp:435] pool2 <- conv2
I0503 02:12:57.893869 17251 net.cpp:409] pool2 -> pool2
I0503 02:12:57.893920 17251 net.cpp:144] Setting up pool2
I0503 02:12:57.893929 17251 net.cpp:151] Top shape: 20 64 10 10 (128000)
I0503 02:12:57.893932 17251 net.cpp:159] Memory required for data: 8736080
I0503 02:12:57.893935 17251 layer_factory.hpp:77] Creating layer conv3
I0503 02:12:57.893944 17251 net.cpp:94] Creating Layer conv3
I0503 02:12:57.893949 17251 net.cpp:435] conv3 <- pool2
I0503 02:12:57.893954 17251 net.cpp:409] conv3 -> conv3
I0503 02:12:57.903343 17251 net.cpp:144] Setting up conv3
I0503 02:12:57.903359 17251 net.cpp:151] Top shape: 20 128 10 10 (256000)
I0503 02:12:57.903364 17251 net.cpp:159] Memory required for data: 9760080
I0503 02:12:57.903373 17251 layer_factory.hpp:77] Creating layer relu3
I0503 02:12:57.903379 17251 net.cpp:94] Creating Layer relu3
I0503 02:12:57.903384 17251 net.cpp:435] relu3 <- conv3
I0503 02:12:57.903389 17251 net.cpp:396] relu3 -> conv3 (in-place)
I0503 02:12:57.903396 17251 net.cpp:144] Setting up relu3
I0503 02:12:57.903401 17251 net.cpp:151] Top shape: 20 128 10 10 (256000)
I0503 02:12:57.903405 17251 net.cpp:159] Memory required for data: 10784080
I0503 02:12:57.903409 17251 layer_factory.hpp:77] Creating layer conv4
I0503 02:12:57.903417 17251 net.cpp:94] Creating Layer conv4
I0503 02:12:57.903421 17251 net.cpp:435] conv4 <- conv3
I0503 02:12:57.903426 17251 net.cpp:409] conv4 -> conv4
I0503 02:12:57.921242 17251 net.cpp:144] Setting up conv4
I0503 02:12:57.921262 17251 net.cpp:151] Top shape: 20 128 10 10 (256000)
I0503 02:12:57.921267 17251 net.cpp:159] Memory required for data: 11808080
I0503 02:12:57.921274 17251 layer_factory.hpp:77] Creating layer relu4
I0503 02:12:57.921283 17251 net.cpp:94] Creating Layer relu4
I0503 02:12:57.921286 17251 net.cpp:435] relu4 <- conv4
I0503 02:12:57.921291 17251 net.cpp:396] relu4 -> conv4 (in-place)
I0503 02:12:57.921299 17251 net.cpp:144] Setting up relu4
I0503 02:12:57.921304 17251 net.cpp:151] Top shape: 20 128 10 10 (256000)
I0503 02:12:57.921308 17251 net.cpp:159] Memory required for data: 12832080
I0503 02:12:57.921311 17251 layer_factory.hpp:77] Creating layer conv5
I0503 02:12:57.921319 17251 net.cpp:94] Creating Layer conv5
I0503 02:12:57.921324 17251 net.cpp:435] conv5 <- conv4
I0503 02:12:57.921329 17251 net.cpp:409] conv5 -> conv5
I0503 02:12:57.938717 17251 net.cpp:144] Setting up conv5
I0503 02:12:57.938737 17251 net.cpp:151] Top shape: 20 128 10 10 (256000)
I0503 02:12:57.938742 17251 net.cpp:159] Memory required for data: 13856080
I0503 02:12:57.938753 17251 layer_factory.hpp:77] Creating layer relu5
I0503 02:12:57.938760 17251 net.cpp:94] Creating Layer relu5
I0503 02:12:57.938765 17251 net.cpp:435] relu5 <- conv5
I0503 02:12:57.938769 17251 net.cpp:396] relu5 -> conv5 (in-place)
I0503 02:12:57.938777 17251 net.cpp:144] Setting up relu5
I0503 02:12:57.938782 17251 net.cpp:151] Top shape: 20 128 10 10 (256000)
I0503 02:12:57.938786 17251 net.cpp:159] Memory required for data: 14880080
I0503 02:12:57.938789 17251 layer_factory.hpp:77] Creating layer pool5
I0503 02:12:57.938796 17251 net.cpp:94] Creating Layer pool5
I0503 02:12:57.938798 17251 net.cpp:435] pool5 <- conv5
I0503 02:12:57.938803 17251 net.cpp:409] pool5 -> pool5
I0503 02:12:57.938846 17251 net.cpp:144] Setting up pool5
I0503 02:12:57.938853 17251 net.cpp:151] Top shape: 20 128 5 5 (64000)
I0503 02:12:57.938858 17251 net.cpp:159] Memory required for data: 15136080
I0503 02:12:57.938860 17251 layer_factory.hpp:77] Creating layer ip1
I0503 02:12:57.938871 17251 net.cpp:94] Creating Layer ip1
I0503 02:12:57.938875 17251 net.cpp:435] ip1 <- pool5
I0503 02:12:57.938880 17251 net.cpp:409] ip1 -> ip1
I0503 02:12:58.018563 17251 net.cpp:144] Setting up ip1
I0503 02:12:58.018585 17251 net.cpp:151] Top shape: 20 1024 (20480)
I0503 02:12:58.018590 17251 net.cpp:159] Memory required for data: 15218000
I0503 02:12:58.018600 17251 layer_factory.hpp:77] Creating layer ip2
I0503 02:12:58.018611 17251 net.cpp:94] Creating Layer ip2
I0503 02:12:58.018625 17251 net.cpp:435] ip2 <- ip1
I0503 02:12:58.018633 17251 net.cpp:409] ip2 -> ip2
I0503 02:12:58.031848 17251 net.cpp:144] Setting up ip2
I0503 02:12:58.031862 17251 net.cpp:151] Top shape: 20 512 (10240)
I0503 02:12:58.031867 17251 net.cpp:159] Memory required for data: 15258960
I0503 02:12:58.031872 17251 layer_factory.hpp:77] Creating layer ip3
I0503 02:12:58.031879 17251 net.cpp:94] Creating Layer ip3
I0503 02:12:58.031884 17251 net.cpp:435] ip3 <- ip2
I0503 02:12:58.031889 17251 net.cpp:409] ip3 -> ip3
I0503 02:12:58.031999 17251 net.cpp:144] Setting up ip3
I0503 02:12:58.032006 17251 net.cpp:151] Top shape: 20 1 (20)
I0503 02:12:58.032011 17251 net.cpp:159] Memory required for data: 15259040
I0503 02:12:58.032016 17251 layer_factory.hpp:77] Creating layer loss
I0503 02:12:58.032029 17251 net.cpp:94] Creating Layer loss
I0503 02:12:58.032033 17251 net.cpp:435] loss <- ip3
I0503 02:12:58.032038 17251 net.cpp:435] loss <- label
I0503 02:12:58.032042 17251 net.cpp:409] loss -> loss
I0503 02:12:58.032093 17251 net.cpp:144] Setting up loss
…
I0503 02:12:58.241874 17251 net.cpp:323] The NetState phase (0) differed from the phase (1) specified by a rule in layer intercept
I0503 02:12:58.241890 17251 net.cpp:323] The NetState phase (0) differed from the phase (1) specified by a rule in layer accuracy
I0503 02:12:58.241977 17251 net.cpp:52] Initializing net from parameters: 
state {
  phase: TRAIN
}
layer {
  name: "parameters"
  type: "HDF5Data"
  top: "data"
  top: "label"
  include {
    phase: TRAIN
  }
  hdf5_data_param {
    source: "/home/purduethu/scratch/radon/d/deng106/CNNStatisticalModel/distributions/input/20_distributions_400_sample_size_train-distributions-path.txt"
    batch_size: 20
  }
}
layer {
  name: "conv1"
  type: "Convolution"
  bottom: "data"
  top: "conv1"
  param {
    lr_mult: 1
  }
  param {
    lr_mult: 2
  }
  convolution_param {
    num_output: 64
    pad: 2
    kernel_size: 5
    stride: 1
    weight_filler {
      type: "gaussian"
      std: 0.0001
    }
    bias_filler {
      type: "constant"
    }
  }
}
layer {
  name: "relu1"
  type: "ReLU"
  bottom: "conv1"
  top: "conv1"
}
layer {
  name: "conv2"
  type: "Convolution"
  bottom: "conv1"
  top: "conv2"
  param {
    lr_mult: 1
  }
  param {
    lr_mult: 2
  }
  convolution_param {
    num_output: 64
    pad: 2
    kernel_size: 5
    stride: 1
    weight_filler {
      type: "gaussian"
      std: 0.01
    }
    bias_filler {
      type: "constant"
    }
  }
}
layer {
  name: "relu2"
  type: "ReLU"
  bottom: "conv2"
  top: "conv2"
}
layer {
  name: "pool2"
  type: "Pooling"
  bottom: "conv2"
  top: "pool2"
  pooling_param {
    pool: MAX
    kernel_size: 3
    stride: 2
  }
}
layer {
  name: "conv3"
  type: "Convolution"
  bottom: "pool2"
  top: "conv3"
  param {
    lr_mult: 1
  }
  param {
    lr_mult: 2
  }
  convolution_param {
    num_output: 128
    pad: 2
    kernel_size: 5
    stride: 1
    weight_filler {
      type: "gaussian"
      std: 0.01
    }
    bias_filler {
      type: "constant"
    }
  }
}
layer {
  name: "relu3"
  type: "ReLU"
  bottom: "conv3"
  top: "conv3"
}
layer {
  name: "conv4"
  type: "Convolution"
  bottom: "conv3"
  top: "conv4"
  param {
    lr_mult: 1
  }
  param {
    lr_mult: 2
  }
  convolution_param {
    num_output: 128
    pad: 2
    kernel_size: 5
    stride: 1
    weight_filler {
      type: "gaussian"
      std: 0.01
    }
    bias_filler {
      type: "constant"
    }
  }
}
layer {
  name: "relu4"
  type: "ReLU"
  bottom: "conv4"
  top: "conv4"
}
layer {
  name: "conv5"
  type: "Convolution"
  bottom: "conv4"
  top: "conv5"
  param {
    lr_mult: 1
  }
  param {
    lr_mult: 2
  }
  convolution_param {
    num_output: 128
    pad: 2
    kernel_size: 5
    stride: 1
    weight_filler {
      type: "gaussian"
      std: 0.01
    }
    bias_filler {
      type: "constant"
    }
  }
}
layer {
  name: "relu5"
  type: "ReLU"
  bottom: "conv5"
  top: "conv5"
}
layer {
  name: "pool5"
  type: "Pooling"
  bottom: "conv5"
  top: "pool5"
  pooling_param {
    pool: AVE
    kernel_size: 3
    stride: 2
  }
}
layer {
  name: "ip1"
  type: "InnerProduct"
  bottom: "pool5"
  top: "ip1"
  param {
    lr_mult: 1
  }
  param {
    lr_mult: 2
  }
  inner_product_param {
    num_output: 1024
    weight_filler {
      type: "gaussian"
      std: 0.1
    }
    bias_filler {
      type: "constant"
    }
  }
}
layer {
  name: "ip2"
  type: "InnerProduct"
  bottom: "ip1"
  top: "ip2"
  param {
    lr_mult: 1
  }
  param {
    lr_mult: 2
  }
  inner_product_param {
    num_output: 512
    weight_filler {
      type: "gaussian"
      std: 0.1
    }
    bias_filler {
      type: "constant"
    }
  }
}
layer {
  name: "ip3"
  type: "InnerProduct"
  bottom: "ip2"
  top: "ip3"
  param {
    lr_mult: 1
  }
  param {
    lr_mult: 2
  }
  inner_product_param {
    num_output: 50
    weight_filler {
      type: "gaussian"
      std: 0.1
    }
    bias_filler {
      type: "constant"
    }
  }
}
layer {
  name: "loss"
  type: "SoftmaxWithLoss"
  bottom: "ip3"
  bottom: "label"
  top: "loss"
}
I0503 02:12:58.242030 17251 layer_factory.hpp:77] Creating layer parameters
I0503 02:12:58.242039 17251 net.cpp:94] Creating Layer parameters
I0503 02:12:58.242043 17251 net.cpp:409] parameters -> data
I0503 02:12:58.242050 17251 net.cpp:409] parameters -> label
I0503 02:12:58.242058 17251 hdf5_data_layer.cpp:79] Loading list of HDF5 filenames from: /home/purduethu/scratch/radon/d/deng106/CNNStatisticalModel/distributions/input/20_distributions_400_sample_size_train-distributions-path.txt
I0503 02:12:58.242074 17251 hdf5_data_layer.cpp:93] Number of HDF5 files: 1
I0503 02:12:58.497783 17251 hdf5.cpp:35] Datatype class: H5T_INTEGER
I0503 02:12:58.498855 17251 net.cpp:144] Setting up parameters
I0503 02:12:58.498873 17251 net.cpp:151] Top shape: 20 1 20 20 (8000)
I0503 02:12:58.498879 17251 net.cpp:151] Top shape: 20 (20)
I0503 02:12:58.498883 17251 net.cpp:159] Memory required for data: 32080
I0503 02:12:58.498889 17251 layer_factory.hpp:77] Creating layer conv1
I0503 02:12:58.498908 17251 net.cpp:94] Creating Layer conv1
I0503 02:12:58.498913 17251 net.cpp:435] conv1 <- data
I0503 02:12:58.498920 17251 net.cpp:409] conv1 -> conv1
I0503 02:12:58.501293 17251 net.cpp:144] Setting up conv1
I0503 02:12:58.501308 17251 net.cpp:151] Top shape: 20 64 20 20 (512000)
I0503 02:12:58.501313 17251 net.cpp:159] Memory required for data: 2080080
I0503 02:12:58.501323 17251 layer_factory.hpp:77] Creating layer relu1
I0503 02:12:58.501332 17251 net.cpp:94] Creating Layer relu1
I0503 02:12:58.501335 17251 net.cpp:435] relu1 <- conv1
I0503 02:12:58.501341 17251 net.cpp:396] relu1 -> conv1 (in-place)
I0503 02:12:58.501348 17251 net.cpp:144] Setting up relu1
I0503 02:12:58.501353 17251 net.cpp:151] Top shape: 20 64 20 20 (512000)
I0503 02:12:58.501358 17251 net.cpp:159] Memory required for data: 4128080
I0503 02:12:58.501360 17251 layer_factory.hpp:77] Creating layer conv2
I0503 02:12:58.501368 17251 net.cpp:94] Creating Layer conv2
I0503 02:12:58.501372 17251 net.cpp:435] conv2 <- conv1
I0503 02:12:58.501377 17251 net.cpp:409] conv2 -> conv2
I0503 02:12:58.512212 17251 net.cpp:144] Setting up conv2
I0503 02:12:58.512228 17251 net.cpp:151] Top shape: 20 64 20 20 (512000)
I0503 02:12:58.512233 17251 net.cpp:159] Memory required for data: 6176080
I0503 02:12:58.512240 17251 layer_factory.hpp:77] Creating layer relu2
I0503 02:12:58.512248 17251 net.cpp:94] Creating Layer relu2
I0503 02:12:58.512253 17251 net.cpp:435] relu2 <- conv2
I0503 02:12:58.512257 17251 net.cpp:396] relu2 -> conv2 (in-place)
I0503 02:12:58.512264 17251 net.cpp:144] Setting up relu2
I0503 02:12:58.512269 17251 net.cpp:151] Top shape: 20 64 20 20 (512000)
I0503 02:12:58.512272 17251 net.cpp:159] Memory required for data: 8224080
I0503 02:12:58.512276 17251 layer_factory.hpp:77] Creating layer pool2
I0503 02:12:58.512282 17251 net.cpp:94] Creating Layer pool2
I0503 02:12:58.512285 17251 net.cpp:435] pool2 <- conv2
I0503 02:12:58.512290 17251 net.cpp:409] pool2 -> pool2
I0503 02:12:58.512344 17251 net.cpp:144] Setting up pool2
I0503 02:12:58.512352 17251 net.cpp:151] Top shape: 20 64 10 10 (128000)
I0503 02:12:58.512356 17251 net.cpp:159] Memory required for data: 8736080
I0503 02:12:58.512359 17251 layer_factory.hpp:77] Creating layer conv3
I0503 02:12:58.512368 17251 net.cpp:94] Creating Layer conv3
I0503 02:12:58.512372 17251 net.cpp:435] conv3 <- pool2
I0503 02:12:58.512384 17251 net.cpp:409] conv3 -> conv3
I0503 02:12:58.523188 17251 net.cpp:144] Setting up conv3
I0503 02:12:58.523207 17251 net.cpp:151] Top shape: 20 128 10 10 (256000)
I0503 02:12:58.523211 17251 net.cpp:159] Memory required for data: 9760080
I0503 02:12:58.523221 17251 layer_factory.hpp:77] Creating layer relu3
I0503 02:12:58.523228 17251 net.cpp:94] Creating Layer relu3
I0503 02:12:58.523232 17251 net.cpp:435] relu3 <- conv3
I0503 02:12:58.523237 17251 net.cpp:396] relu3 -> conv3 (in-place)
I0503 02:12:58.523246 17251 net.cpp:144] Setting up relu3
I0503 02:12:58.523250 17251 net.cpp:151] Top shape: 20 128 10 10 (256000)
I0503 02:12:58.523253 17251 net.cpp:159] Memory required for data: 10784080
I0503 02:12:58.523257 17251 layer_factory.hpp:77] Creating layer conv4
I0503 02:12:58.523267 17251 net.cpp:94] Creating Layer conv4
I0503 02:12:58.523270 17251 net.cpp:435] conv4 <- conv3
I0503 02:12:58.523277 17251 net.cpp:409] conv4 -> conv4
I0503 02:12:58.541863 17251 net.cpp:144] Setting up conv4
I0503 02:12:58.541884 17251 net.cpp:151] Top shape: 20 128 10 10 (256000)
I0503 02:12:58.541889 17251 net.cpp:159] Memory required for data: 11808080
I0503 02:12:58.541896 17251 layer_factory.hpp:77] Creating layer relu4
I0503 02:12:58.541903 17251 net.cpp:94] Creating Layer relu4
I0503 02:12:58.541908 17251 net.cpp:435] relu4 <- conv4
I0503 02:12:58.541913 17251 net.cpp:396] relu4 -> conv4 (in-place)
I0503 02:12:58.541920 17251 net.cpp:144] Setting up relu4
I0503 02:12:58.541925 17251 net.cpp:151] Top shape: 20 128 10 10 (256000)
I0503 02:12:58.541929 17251 net.cpp:159] Memory required for data: 12832080
I0503 02:12:58.541932 17251 layer_factory.hpp:77] Creating layer conv5
I0503 02:12:58.541941 17251 net.cpp:94] Creating Layer conv5
I0503 02:12:58.541945 17251 net.cpp:435] conv5 <- conv4
I0503 02:12:58.541950 17251 net.cpp:409] conv5 -> conv5
I0503 02:12:58.559873 17251 net.cpp:144] Setting up conv5
I0503 02:12:58.559892 17251 net.cpp:151] Top shape: 20 128 10 10 (256000)
I0503 02:12:58.559897 17251 net.cpp:159] Memory required for data: 13856080
I0503 02:12:58.559908 17251 layer_factory.hpp:77] Creating layer relu5
I0503 02:12:58.559916 17251 net.cpp:94] Creating Layer relu5
I0503 02:12:58.559919 17251 net.cpp:435] relu5 <- conv5
I0503 02:12:58.559926 17251 net.cpp:396] relu5 -> conv5 (in-place)
I0503 02:12:58.559932 17251 net.cpp:144] Setting up relu5
I0503 02:12:58.559937 17251 net.cpp:151] Top shape: 20 128 10 10 (256000)
I0503 02:12:58.559940 17251 net.cpp:159] Memory required for data: 14880080
I0503 02:12:58.559944 17251 layer_factory.hpp:77] Creating layer pool5
I0503 02:12:58.559950 17251 net.cpp:94] Creating Layer pool5
I0503 02:12:58.559953 17251 net.cpp:435] pool5 <- conv5
I0503 02:12:58.559958 17251 net.cpp:409] pool5 -> pool5
I0503 02:12:58.560000 17251 net.cpp:144] Setting up pool5
I0503 02:12:58.560008 17251 net.cpp:151] Top shape: 20 128 5 5 (64000)
I0503 02:12:58.560011 17251 net.cpp:159] Memory required for data: 15136080
I0503 02:12:58.560014 17251 layer_factory.hpp:77] Creating layer ip1
I0503 02:12:58.560022 17251 net.cpp:94] Creating Layer ip1
I0503 02:12:58.560025 17251 net.cpp:435] ip1 <- pool5
I0503 02:12:58.560030 17251 net.cpp:409] ip1 -> ip1
I0503 02:12:58.640017 17251 net.cpp:144] Setting up ip1
I0503 02:12:58.640053 17251 net.cpp:151] Top shape: 20 1024 (20480)
I0503 02:12:58.640058 17251 net.cpp:159] Memory required for data: 15218000
I0503 02:12:58.640066 17251 layer_factory.hpp:77] Creating layer ip2
I0503 02:12:58.640077 17251 net.cpp:94] Creating Layer ip2
I0503 02:12:58.640084 17251 net.cpp:435] ip2 <- ip1
I0503 02:12:58.640089 17251 net.cpp:409] ip2 -> ip2
I0503 02:12:58.653439 17251 net.cpp:144] Setting up ip2
I0503 02:12:58.653457 17251 net.cpp:151] Top shape: 20 512 (10240)
I0503 02:12:58.653462 17251 net.cpp:159] Memory required for data: 15258960
I0503 02:12:58.653470 17251 layer_factory.hpp:77] Creating layer ip3
I0503 02:12:58.653477 17251 net.cpp:94] Creating Layer ip3
I0503 02:12:58.653481 17251 net.cpp:435] ip3 <- ip2
I0503 02:12:58.653487 17251 net.cpp:409] ip3 -> ip3
I0503 02:12:58.654229 17251 net.cpp:144] Setting up ip3
I0503 02:12:58.654238 17251 net.cpp:151] Top shape: 20 50 (1000)
I0503 02:12:58.654242 17251 net.cpp:159] Memory required for data: 15262960
I0503 02:12:58.654247 17251 layer_factory.hpp:77] Creating layer loss
I0503 02:12:58.654256 17251 net.cpp:94] Creating Layer loss
I0503 02:12:58.654259 17251 net.cpp:435] loss <- ip3
I0503 02:12:58.654264 17251 net.cpp:435] loss <- label
I0503 02:12:58.654268 17251 net.cpp:409] loss -> loss
I0503 02:12:58.654276 17251 layer_factory.hpp:77] Creating layer loss
…
I0503 02:12:58.654794 17251 solver.cpp:181] Creating test net (#0) specified by net file: ./protocol/dis_20_400_dimension.protocol_distribution
I0503 02:12:58.654821 17251 net.cpp:323] The NetState phase (1) differed from the phase (0) specified by a rule in layer parameters
I0503 02:12:58.654914 17251 net.cpp:52] Initializing net from parameters: 
state {
  phase: TEST
}
layer {
  name: "intercept"
  type: "HDF5Data"
  top: "data"
  top: "label"
  include {
    phase: TEST
  }
  hdf5_data_param {
    source: "/home/purduethu/scratch/radon/d/deng106/CNNStatisticalModel/distributions/input/20_distributions_400_sample_size_test-distributions-path.txt"
    batch_size: 20
  }
}
layer {
  name: "conv1"
  type: "Convolution"
  bottom: "data"
  top: "conv1"
  param {
    lr_mult: 1
  }
  param {
    lr_mult: 2
  }
  convolution_param {
    num_output: 64
    pad: 2
    kernel_size: 5
    stride: 1
    weight_filler {
      type: "gaussian"
      std: 0.0001
    }
    bias_filler {
      type: "constant"
    }
  }
}
layer {
  name: "relu1"
  type: "ReLU"
  bottom: "conv1"
  top: "conv1"
}
layer {
  name: "conv2"
  type: "Convolution"
  bottom: "conv1"
  top: "conv2"
  param {
    lr_mult: 1
  }
  param {
    lr_mult: 2
  }
  convolution_param {
    num_output: 64
    pad: 2
    kernel_size: 5
    stride: 1
    weight_filler {
      type: "gaussian"
      std: 0.01
    }
    bias_filler {
      type: "constant"
    }
  }
}
layer {
  name: "relu2"
  type: "ReLU"
  bottom: "conv2"
  top: "conv2"
}
layer {
  name: "pool2"
  type: "Pooling"
  bottom: "conv2"
  top: "pool2"
  pooling_param {
    pool: MAX
    kernel_size: 3
    stride: 2
  }
}
layer {
  name: "conv3"
  type: "Convolution"
  bottom: "pool2"
  top: "conv3"
  param {
    lr_mult: 1
  }
  param {
    lr_mult: 2
  }
  convolution_param {
    num_output: 128
    pad: 2
    kernel_size: 5
    stride: 1
    weight_filler {
      type: "gaussian"
      std: 0.01
    }
    bias_filler {
      type: "constant"
    }
  }
}
layer {
  name: "relu3"
  type: "ReLU"
  bottom: "conv3"
  top: "conv3"
}
layer {
  name: "conv4"
  type: "Convolution"
  bottom: "conv3"
  top: "conv4"
  param {
    lr_mult: 1
  }
  param {
    lr_mult: 2
  }
  convolution_param {
    num_output: 128
    pad: 2
    kernel_size: 5
    stride: 1
    weight_filler {
      type: "gaussian"
      std: 0.01
    }
    bias_filler {
      type: "constant"
    }
  }
}
layer {
  name: "relu4"
  type: "ReLU"
  bottom: "conv4"
  top: "conv4"
}
layer {
  name: "conv5"
  type: "Convolution"
  bottom: "conv4"
  top: "conv5"
  param {
    lr_mult: 1
  }
  param {
    lr_mult: 2
  }
  convolution_param {
    num_output: 128
    pad: 2
    kernel_size: 5
    stride: 1
    weight_filler {
      type: "gaussian"
      std: 0.01
    }
    bias_filler {
      type: "constant"
    }
  }
}
layer {
  name: "relu5"
  type: "ReLU"
  bottom: "conv5"
  top: "conv5"
}
layer {
  name: "pool5"
  type: "Pooling"
  bottom: "conv5"
  top: "pool5"
  pooling_param {
    pool: AVE
    kernel_size: 3
    stride: 2
  }
}
layer {
  name: "ip1"
  type: "InnerProduct"
  bottom: "pool5"
  top: "ip1"
  param {
    lr_mult: 1
  }
  param {
    lr_mult: 2
  }
  inner_product_param {
    num_output: 1024
    weight_filler {
      type: "gaussian"
      std: 0.1
    }
    bias_filler {
      type: "constant"
    }
  }
}
layer {
  name: "ip2"
  type: "InnerProduct"
  bottom: "ip1"
  top: "ip2"
  param {
    lr_mult: 1
  }
  param {
    lr_mult: 2
  }
  inner_product_param {
    num_output: 512
    weight_filler {
      type: "gaussian"
      std: 0.1
    }
    bias_filler {
      type: "constant"
    }
  }
}
layer {
  name: "ip3"
  type: "InnerProduct"
  bottom: "ip2"
  top: "ip3"
  param {
    lr_mult: 1
  }
  param {
    lr_mult: 2
  }
  inner_product_param {
    num_output: 50
    weight_filler {
      type: "gaussian"
      std: 0.1
    }
    bias_filler {
      type: "constant"
    }
  }
}
layer {
  name: "accuracy"
  type: "Accuracy"
  bottom: "ip3"
  bottom: "label"
  top: "accuracy"
  include {
    phase: TEST
  }
}
layer {
  name: "loss"
  type: "SoftmaxWithLoss"
  bottom: "ip3"
  bottom: "label"
  top: "loss"
}
I0503 02:12:58.654983 17251 layer_factory.hpp:77] Creating layer intercept
I0503 02:12:58.654991 17251 net.cpp:94] Creating Layer intercept
I0503 02:12:58.654996 17251 net.cpp:409] intercept -> data
I0503 02:12:58.655004 17251 net.cpp:409] intercept -> label
I0503 02:12:58.655009 17251 hdf5_data_layer.cpp:79] Loading list of HDF5 filenames from: /home/purduethu/scratch/radon/d/deng106/CNNStatisticalModel/distributions/input/20_distributions_400_sample_size_test-distributions-path.txt
I0503 02:12:58.655030 17251 hdf5_data_layer.cpp:93] Number of HDF5 files: 1
I0503 02:12:58.723314 17251 net.cpp:144] Setting up intercept
I0503 02:12:58.723351 17251 net.cpp:151] Top shape: 20 1 20 20 (8000)
I0503 02:12:58.723356 17251 net.cpp:151] Top shape: 20 (20)
I0503 02:12:58.723361 17251 net.cpp:159] Memory required for data: 32080
I0503 02:12:58.723366 17251 layer_factory.hpp:77] Creating layer label_intercept_1_split
I0503 02:12:58.723386 17251 net.cpp:94] Creating Layer label_intercept_1_split
I0503 02:12:58.723390 17251 net.cpp:435] label_intercept_1_split <- label
I0503 02:12:58.723397 17251 net.cpp:409] label_intercept_1_split -> label_intercept_1_split_0
I0503 02:12:58.723405 17251 net.cpp:409] label_intercept_1_split -> label_intercept_1_split_1
I0503 02:12:58.723448 17251 net.cpp:144] Setting up label_intercept_1_split
I0503 02:12:58.723454 17251 net.cpp:151] Top shape: 20 (20)
I0503 02:12:58.723459 17251 net.cpp:151] Top shape: 20 (20)
I0503 02:12:58.723461 17251 net.cpp:159] Memory required for data: 32240
I0503 02:12:58.723465 17251 layer_factory.hpp:77] Creating layer conv1
I0503 02:12:58.723476 17251 net.cpp:94] Creating Layer conv1
I0503 02:12:58.723480 17251 net.cpp:435] conv1 <- data
I0503 02:12:58.723485 17251 net.cpp:409] conv1 -> conv1
I0503 02:12:58.724330 17251 net.cpp:144] Setting up conv1
I0503 02:12:58.724344 17251 net.cpp:151] Top shape: 20 64 20 20 (512000)
I0503 02:12:58.724349 17251 net.cpp:159] Memory required for data: 2080240
I0503 02:12:58.724359 17251 layer_factory.hpp:77] Creating layer relu1
I0503 02:12:58.724366 17251 net.cpp:94] Creating Layer relu1
I0503 02:12:58.724370 17251 net.cpp:435] relu1 <- conv1
I0503 02:12:58.724375 17251 net.cpp:396] relu1 -> conv1 (in-place)
I0503 02:12:58.724383 17251 net.cpp:144] Setting up relu1
I0503 02:12:58.724387 17251 net.cpp:151] Top shape: 20 64 20 20 (512000)
I0503 02:12:58.724391 17251 net.cpp:159] Memory required for data: 4128240
I0503 02:12:58.724395 17251 layer_factory.hpp:77] Creating layer conv2
I0503 02:12:58.724403 17251 net.cpp:94] Creating Layer conv2
I0503 02:12:58.724407 17251 net.cpp:435] conv2 <- conv1
I0503 02:12:58.724412 17251 net.cpp:409] conv2 -> conv2
I0503 02:12:58.729737 17251 net.cpp:144] Setting up conv2
I0503 02:12:58.729755 17251 net.cpp:151] Top shape: 20 64 20 20 (512000)
I0503 02:12:58.729759 17251 net.cpp:159] Memory required for data: 6176240
I0503 02:12:58.729768 17251 layer_factory.hpp:77] Creating layer relu2
I0503 02:12:58.729774 17251 net.cpp:94] Creating Layer relu2
I0503 02:12:58.729779 17251 net.cpp:435] relu2 <- conv2
I0503 02:12:58.729784 17251 net.cpp:396] relu2 -> conv2 (in-place)
I0503 02:12:58.729791 17251 net.cpp:144] Setting up relu2
I0503 02:12:58.729796 17251 net.cpp:151] Top shape: 20 64 20 20 (512000)
I0503 02:12:58.729799 17251 net.cpp:159] Memory required for data: 8224240
I0503 02:12:58.729802 17251 layer_factory.hpp:77] Creating layer pool2
I0503 02:12:58.729809 17251 net.cpp:94] Creating Layer pool2
I0503 02:12:58.729812 17251 net.cpp:435] pool2 <- conv2
I0503 02:12:58.729817 17251 net.cpp:409] pool2 -> pool2
I0503 02:12:58.729872 17251 net.cpp:144] Setting up pool2
I0503 02:12:58.729879 17251 net.cpp:151] Top shape: 20 64 10 10 (128000)
I0503 02:12:58.729883 17251 net.cpp:159] Memory required for data: 8736240
I0503 02:12:58.729887 17251 layer_factory.hpp:77] Creating layer conv3
I0503 02:12:58.729895 17251 net.cpp:94] Creating Layer conv3
I0503 02:12:58.729899 17251 net.cpp:435] conv3 <- pool2
I0503 02:12:58.729904 17251 net.cpp:409] conv3 -> conv3
I0503 02:12:58.737180 17251 net.cpp:144] Setting up conv3
I0503 02:12:58.737195 17251 net.cpp:151] Top shape: 20 128 10 10 (256000)
I0503 02:12:58.737200 17251 net.cpp:159] Memory required for data: 9760240
I0503 02:12:58.737208 17251 layer_factory.hpp:77] Creating layer relu3
I0503 02:12:58.737215 17251 net.cpp:94] Creating Layer relu3
I0503 02:12:58.737221 17251 net.cpp:435] relu3 <- conv3
I0503 02:12:58.737226 17251 net.cpp:396] relu3 -> conv3 (in-place)
I0503 02:12:58.737232 17251 net.cpp:144] Setting up relu3
I0503 02:12:58.737236 17251 net.cpp:151] Top shape: 20 128 10 10 (256000)
I0503 02:12:58.737241 17251 net.cpp:159] Memory required for data: 10784240
I0503 02:12:58.737243 17251 layer_factory.hpp:77] Creating layer conv4
I0503 02:12:58.737251 17251 net.cpp:94] Creating Layer conv4
I0503 02:12:58.737256 17251 net.cpp:435] conv4 <- conv3
I0503 02:12:58.737260 17251 net.cpp:409] conv4 -> conv4
I0503 02:12:58.751318 17251 net.cpp:144] Setting up conv4
I0503 02:12:58.751337 17251 net.cpp:151] Top shape: 20 128 10 10 (256000)
I0503 02:12:58.751340 17251 net.cpp:159] Memory required for data: 11808240
I0503 02:12:58.751348 17251 layer_factory.hpp:77] Creating layer relu4
I0503 02:12:58.751355 17251 net.cpp:94] Creating Layer relu4
I0503 02:12:58.751359 17251 net.cpp:435] relu4 <- conv4
I0503 02:12:58.751365 17251 net.cpp:396] relu4 -> conv4 (in-place)
I0503 02:12:58.751372 17251 net.cpp:144] Setting up relu4
I0503 02:12:58.751377 17251 net.cpp:151] Top shape: 20 128 10 10 (256000)
I0503 02:12:58.751380 17251 net.cpp:159] Memory required for data: 12832240
I0503 02:12:58.751384 17251 layer_factory.hpp:77] Creating layer conv5
I0503 02:12:58.751392 17251 net.cpp:94] Creating Layer conv5
I0503 02:12:58.751396 17251 net.cpp:435] conv5 <- conv4
I0503 02:12:58.751401 17251 net.cpp:409] conv5 -> conv5
I0503 02:12:58.764904 17251 net.cpp:144] Setting up conv5
I0503 02:12:58.764922 17251 net.cpp:151] Top shape: 20 128 10 10 (256000)
I0503 02:12:58.764927 17251 net.cpp:159] Memory required for data: 13856240
I0503 02:12:58.764937 17251 layer_factory.hpp:77] Creating layer relu5
I0503 02:12:58.764945 17251 net.cpp:94] Creating Layer relu5
I0503 02:12:58.764948 17251 net.cpp:435] relu5 <- conv5
I0503 02:12:58.764953 17251 net.cpp:396] relu5 -> conv5 (in-place)
I0503 02:12:58.764961 17251 net.cpp:144] Setting up relu5
I0503 02:12:58.764966 17251 net.cpp:151] Top shape: 20 128 10 10 (256000)
I0503 02:12:58.764969 17251 net.cpp:159] Memory required for data: 14880240
I0503 02:12:58.764972 17251 layer_factory.hpp:77] Creating layer pool5
I0503 02:12:58.764978 17251 net.cpp:94] Creating Layer pool5
I0503 02:12:58.764982 17251 net.cpp:435] pool5 <- conv5
I0503 02:12:58.764986 17251 net.cpp:409] pool5 -> pool5
I0503 02:12:58.765025 17251 net.cpp:144] Setting up pool5
I0503 02:12:58.765033 17251 net.cpp:151] Top shape: 20 128 5 5 (64000)
I0503 02:12:58.765036 17251 net.cpp:159] Memory required for data: 15136240
I0503 02:12:58.765040 17251 layer_factory.hpp:77] Creating layer ip1
I0503 02:12:58.765048 17251 net.cpp:94] Creating Layer ip1
I0503 02:12:58.765051 17251 net.cpp:435] ip1 <- pool5
I0503 02:12:58.765056 17251 net.cpp:409] ip1 -> ip1
I0503 02:12:58.845028 17251 net.cpp:144] Setting up ip1
I0503 02:12:58.845062 17251 net.cpp:151] Top shape: 20 1024 (20480)
I0503 02:12:58.845067 17251 net.cpp:159] Memory required for data: 15218160
I0503 02:12:58.845077 17251 layer_factory.hpp:77] Creating layer ip2
I0503 02:12:58.845087 17251 net.cpp:94] Creating Layer ip2
I0503 02:12:58.845091 17251 net.cpp:435] ip2 <- ip1
I0503 02:12:58.845099 17251 net.cpp:409] ip2 -> ip2
I0503 02:12:58.860507 17251 net.cpp:144] Setting up ip2
I0503 02:12:58.860529 17251 net.cpp:151] Top shape: 20 512 (10240)
I0503 02:12:58.860533 17251 net.cpp:159] Memory required for data: 15259120
I0503 02:12:58.860541 17251 layer_factory.hpp:77] Creating layer ip3
I0503 02:12:58.860568 17251 net.cpp:94] Creating Layer ip3
I0503 02:12:58.860574 17251 net.cpp:435] ip3 <- ip2
I0503 02:12:58.860579 17251 net.cpp:409] ip3 -> ip3
I0503 02:12:58.861347 17251 net.cpp:144] Setting up ip3
I0503 02:12:58.861356 17251 net.cpp:151] Top shape: 20 50 (1000)
I0503 02:12:58.861359 17251 net.cpp:159] Memory required for data: 15263120
I0503 02:12:58.861366 17251 layer_factory.hpp:77] Creating layer ip3_ip3_0_split
I0503 02:12:58.861377 17251 net.cpp:94] Creating Layer ip3_ip3_0_split
I0503 02:12:58.861380 17251 net.cpp:435] ip3_ip3_0_split <- ip3
I0503 02:12:58.861385 17251 net.cpp:409] ip3_ip3_0_split -> ip3_ip3_0_split_0
I0503 02:12:58.861392 17251 net.cpp:409] ip3_ip3_0_split -> ip3_ip3_0_split_1
I0503 02:12:58.861434 17251 net.cpp:144] Setting up ip3_ip3_0_split
I0503 02:12:58.861441 17251 net.cpp:151] Top shape: 20 50 (1000)
I0503 02:12:58.861445 17251 net.cpp:151] Top shape: 20 50 (1000)
I0503 02:12:58.861449 17251 net.cpp:159] Memory required for data: 15271120
I0503 02:12:58.861451 17251 layer_factory.hpp:77] Creating layer accuracy
I0503 02:12:58.861459 17251 net.cpp:94] Creating Layer accuracy
I0503 02:12:58.861461 17251 net.cpp:435] accuracy <- ip3_ip3_0_split_0
I0503 02:12:58.861466 17251 net.cpp:435] accuracy <- label_intercept_1_split_0
I0503 02:12:58.861471 17251 net.cpp:409] accuracy -> accuracy
…
