…
I0505 21:19:50.518477  9329 net.cpp:323] The NetState phase (0) differed from the phase (1) specified by a rule in layer intercept
I0505 21:19:50.518492  9329 net.cpp:323] The NetState phase (0) differed from the phase (1) specified by a rule in layer loss
I0505 21:19:50.518559  9329 net.cpp:52] Initializing net from parameters: 
state {
  phase: TRAIN
}
layer {
  name: "parameters"
  type: "HDF5Data"
  top: "data"
  top: "label"
  include {
    phase: TRAIN
  }
  hdf5_data_param {
    source: "/home/purduethu/scratch/radon/d/deng106/CNNStatisticalModel/distributions/input/50_distributions_400_sample_size_train-parameters-path.txt"
    batch_size: 20
  }
}
layer {
  name: "conv1"
  type: "Convolution"
  bottom: "data"
  top: "conv1"
  param {
    lr_mult: 1
  }
  param {
    lr_mult: 2
  }
  convolution_param {
    num_output: 64
    pad: 2
    kernel_size: 5
    stride: 1
    weight_filler {
      type: "gaussian"
      std: 0.0001
    }
    bias_filler {
      type: "constant"
    }
  }
}
layer {
  name: "relu1"
  type: "ReLU"
  bottom: "conv1"
  top: "conv1"
}
layer {
  name: "pool1"
  type: "Pooling"
  bottom: "conv1"
  top: "pool1"
  pooling_param {
    pool: MAX
    kernel_size: 3
    stride: 2
  }
}
layer {
  name: "conv2"
  type: "Convolution"
  bottom: "pool1"
  top: "conv2"
  param {
    lr_mult: 1
  }
  param {
    lr_mult: 2
  }
  convolution_param {
    num_output: 128
    pad: 2
    kernel_size: 5
    stride: 1
    weight_filler {
      type: "gaussian"
      std: 0.01
    }
    bias_filler {
      type: "constant"
    }
  }
}
layer {
  name: "relu2"
  type: "ReLU"
  bottom: "conv2"
  top: "conv2"
}
layer {
  name: "conv3"
  type: "Convolution"
  bottom: "conv2"
  top: "conv3"
  param {
    lr_mult: 1
  }
  param {
    lr_mult: 2
  }
  convolution_param {
    num_output: 128
    pad: 2
    kernel_size: 5
    stride: 1
    weight_filler {
      type: "gaussian"
      std: 0.01
    }
    bias_filler {
      type: "constant"
    }
  }
}
layer {
  name: "relu3"
  type: "ReLU"
  bottom: "conv3"
  top: "conv3"
}
layer {
  name: "pool3"
  type: "Pooling"
  bottom: "conv3"
  top: "pool3"
  pooling_param {
    pool: AVE
    kernel_size: 3
    stride: 2
  }
}
layer {
  name: "ip1"
  type: "InnerProduct"
  bottom: "pool3"
  top: "ip1"
  param {
    lr_mult: 1
  }
  param {
    lr_mult: 2
  }
  inner_product_param {
    num_output: 512
    weight_filler {
      type: "gaussian"
      std: 0.1
    }
    bias_filler {
      type: "constant"
    }
  }
}
layer {
  name: "ip2"
  type: "InnerProduct"
  bottom: "ip1"
  top: "ip2"
  param {
    lr_mult: 1
  }
  param {
    lr_mult: 2
  }
  inner_product_param {
    num_output: 256
    weight_filler {
      type: "gaussian"
      std: 0.1
    }
    bias_filler {
      type: "constant"
    }
  }
}
layer {
  name: "ip3"
  type: "InnerProduct"
  bottom: "ip2"
  top: "ip3"
  param {
    lr_mult: 1
  }
  param {
    lr_mult: 2
  }
  inner_product_param {
    num_output: 1
    weight_filler {
      type: "gaussian"
      std: 0.1
    }
    bias_filler {
      type: "constant"
    }
  }
}
layer {
  name: "loss"
  type: "HuberLoss"
  bottom: "ip3"
  bottom: "label"
  top: "loss"
  include {
    phase: TRAIN
  }
}
I0505 21:19:50.518609  9329 layer_factory.hpp:77] Creating layer parameters
I0505 21:19:50.518620  9329 net.cpp:94] Creating Layer parameters
I0505 21:19:50.518625  9329 net.cpp:409] parameters -> data
I0505 21:19:50.518638  9329 net.cpp:409] parameters -> label
I0505 21:19:50.518646  9329 hdf5_data_layer.cpp:79] Loading list of HDF5 filenames from: /home/purduethu/scratch/radon/d/deng106/CNNStatisticalModel/distributions/input/50_distributions_400_sample_size_train-parameters-path.txt
I0505 21:19:50.518659  9329 hdf5_data_layer.cpp:93] Number of HDF5 files: 1
I0505 21:19:50.519208  9329 hdf5.cpp:32] Datatype class: H5T_FLOAT
I0505 21:19:51.160904  9329 net.cpp:144] Setting up parameters
I0505 21:19:51.160935  9329 net.cpp:151] Top shape: 20 1 20 20 (8000)
I0505 21:19:51.160940  9329 net.cpp:151] Top shape: 20 (20)
I0505 21:19:51.160943  9329 net.cpp:159] Memory required for data: 32080
I0505 21:19:51.160949  9329 layer_factory.hpp:77] Creating layer conv1
I0505 21:19:51.160964  9329 net.cpp:94] Creating Layer conv1
I0505 21:19:51.160969  9329 net.cpp:435] conv1 <- data
I0505 21:19:51.160975  9329 net.cpp:409] conv1 -> conv1
I0505 21:19:51.166363  9329 net.cpp:144] Setting up conv1
I0505 21:19:51.166381  9329 net.cpp:151] Top shape: 20 64 20 20 (512000)
I0505 21:19:51.166384  9329 net.cpp:159] Memory required for data: 2080080
I0505 21:19:51.166394  9329 layer_factory.hpp:77] Creating layer relu1
I0505 21:19:51.166402  9329 net.cpp:94] Creating Layer relu1
I0505 21:19:51.166406  9329 net.cpp:435] relu1 <- conv1
I0505 21:19:51.166410  9329 net.cpp:396] relu1 -> conv1 (in-place)
I0505 21:19:51.166419  9329 net.cpp:144] Setting up relu1
I0505 21:19:51.166422  9329 net.cpp:151] Top shape: 20 64 20 20 (512000)
I0505 21:19:51.166425  9329 net.cpp:159] Memory required for data: 4128080
I0505 21:19:51.166429  9329 layer_factory.hpp:77] Creating layer pool1
I0505 21:19:51.166435  9329 net.cpp:94] Creating Layer pool1
I0505 21:19:51.166436  9329 net.cpp:435] pool1 <- conv1
I0505 21:19:51.166441  9329 net.cpp:409] pool1 -> pool1
I0505 21:19:51.166489  9329 net.cpp:144] Setting up pool1
I0505 21:19:51.166496  9329 net.cpp:151] Top shape: 20 64 10 10 (128000)
I0505 21:19:51.166499  9329 net.cpp:159] Memory required for data: 4640080
I0505 21:19:51.166502  9329 layer_factory.hpp:77] Creating layer conv2
I0505 21:19:51.166512  9329 net.cpp:94] Creating Layer conv2
I0505 21:19:51.166515  9329 net.cpp:435] conv2 <- pool1
I0505 21:19:51.166519  9329 net.cpp:409] conv2 -> conv2
I0505 21:19:51.177532  9329 net.cpp:144] Setting up conv2
I0505 21:19:51.177549  9329 net.cpp:151] Top shape: 20 128 10 10 (256000)
I0505 21:19:51.177553  9329 net.cpp:159] Memory required for data: 5664080
I0505 21:19:51.177561  9329 layer_factory.hpp:77] Creating layer relu2
I0505 21:19:51.177567  9329 net.cpp:94] Creating Layer relu2
I0505 21:19:51.177570  9329 net.cpp:435] relu2 <- conv2
I0505 21:19:51.177575  9329 net.cpp:396] relu2 -> conv2 (in-place)
I0505 21:19:51.177582  9329 net.cpp:144] Setting up relu2
I0505 21:19:51.177587  9329 net.cpp:151] Top shape: 20 128 10 10 (256000)
I0505 21:19:51.177589  9329 net.cpp:159] Memory required for data: 6688080
I0505 21:19:51.177592  9329 layer_factory.hpp:77] Creating layer conv3
I0505 21:19:51.177600  9329 net.cpp:94] Creating Layer conv3
I0505 21:19:51.177603  9329 net.cpp:435] conv3 <- conv2
I0505 21:19:51.177608  9329 net.cpp:409] conv3 -> conv3
I0505 21:19:51.196063  9329 net.cpp:144] Setting up conv3
I0505 21:19:51.196079  9329 net.cpp:151] Top shape: 20 128 10 10 (256000)
I0505 21:19:51.196084  9329 net.cpp:159] Memory required for data: 7712080
I0505 21:19:51.196092  9329 layer_factory.hpp:77] Creating layer relu3
I0505 21:19:51.196105  9329 net.cpp:94] Creating Layer relu3
I0505 21:19:51.196108  9329 net.cpp:435] relu3 <- conv3
I0505 21:19:51.196112  9329 net.cpp:396] relu3 -> conv3 (in-place)
I0505 21:19:51.196120  9329 net.cpp:144] Setting up relu3
I0505 21:19:51.196125  9329 net.cpp:151] Top shape: 20 128 10 10 (256000)
I0505 21:19:51.196127  9329 net.cpp:159] Memory required for data: 8736080
I0505 21:19:51.196130  9329 layer_factory.hpp:77] Creating layer pool3
I0505 21:19:51.196136  9329 net.cpp:94] Creating Layer pool3
I0505 21:19:51.196140  9329 net.cpp:435] pool3 <- conv3
I0505 21:19:51.196144  9329 net.cpp:409] pool3 -> pool3
I0505 21:19:51.196183  9329 net.cpp:144] Setting up pool3
I0505 21:19:51.196190  9329 net.cpp:151] Top shape: 20 128 5 5 (64000)
I0505 21:19:51.196193  9329 net.cpp:159] Memory required for data: 8992080
I0505 21:19:51.196197  9329 layer_factory.hpp:77] Creating layer ip1
I0505 21:19:51.196208  9329 net.cpp:94] Creating Layer ip1
I0505 21:19:51.196210  9329 net.cpp:435] ip1 <- pool3
I0505 21:19:51.196215  9329 net.cpp:409] ip1 -> ip1
I0505 21:19:51.236582  9329 net.cpp:144] Setting up ip1
I0505 21:19:51.236608  9329 net.cpp:151] Top shape: 20 512 (10240)
I0505 21:19:51.236613  9329 net.cpp:159] Memory required for data: 9033040
I0505 21:19:51.236620  9329 layer_factory.hpp:77] Creating layer ip2
I0505 21:19:51.236629  9329 net.cpp:94] Creating Layer ip2
I0505 21:19:51.236632  9329 net.cpp:435] ip2 <- ip1
I0505 21:19:51.236639  9329 net.cpp:409] ip2 -> ip2
I0505 21:19:51.239775  9329 net.cpp:144] Setting up ip2
I0505 21:19:51.239786  9329 net.cpp:151] Top shape: 20 256 (5120)
I0505 21:19:51.239789  9329 net.cpp:159] Memory required for data: 9053520
I0505 21:19:51.239797  9329 layer_factory.hpp:77] Creating layer ip3
I0505 21:19:51.239804  9329 net.cpp:94] Creating Layer ip3
I0505 21:19:51.239806  9329 net.cpp:435] ip3 <- ip2
I0505 21:19:51.239811  9329 net.cpp:409] ip3 -> ip3
I0505 21:19:51.239912  9329 net.cpp:144] Setting up ip3
I0505 21:19:51.239917  9329 net.cpp:151] Top shape: 20 1 (20)
I0505 21:19:51.239920  9329 net.cpp:159] Memory required for data: 9053600
I0505 21:19:51.239925  9329 layer_factory.hpp:77] Creating layer loss
I0505 21:19:51.239938  9329 net.cpp:94] Creating Layer loss
I0505 21:19:51.239940  9329 net.cpp:435] loss <- ip3
I0505 21:19:51.239944  9329 net.cpp:435] loss <- label
I0505 21:19:51.239949  9329 net.cpp:409] loss -> loss
I0505 21:19:51.239996  9329 net.cpp:144] Setting up loss
…
I0505 21:19:51.465030  9329 net.cpp:323] The NetState phase (0) differed from the phase (1) specified by a rule in layer intercept
I0505 21:19:51.465044  9329 net.cpp:323] The NetState phase (0) differed from the phase (1) specified by a rule in layer accuracy
I0505 21:19:51.465116  9329 net.cpp:52] Initializing net from parameters: 
state {
  phase: TRAIN
}
layer {
  name: "parameters"
  type: "HDF5Data"
  top: "data"
  top: "label"
  include {
    phase: TRAIN
  }
  hdf5_data_param {
    source: "/home/purduethu/scratch/radon/d/deng106/CNNStatisticalModel/distributions/input/50_distributions_400_sample_size_train-distributions-path.txt"
    batch_size: 20
  }
}
layer {
  name: "conv1"
  type: "Convolution"
  bottom: "data"
  top: "conv1"
  param {
    lr_mult: 1
  }
  param {
    lr_mult: 2
  }
  convolution_param {
    num_output: 64
    pad: 2
    kernel_size: 5
    stride: 1
    weight_filler {
      type: "gaussian"
      std: 0.0001
    }
    bias_filler {
      type: "constant"
    }
  }
}
layer {
  name: "relu1"
  type: "ReLU"
  bottom: "conv1"
  top: "conv1"
}
layer {
  name: "pool1"
  type: "Pooling"
  bottom: "conv1"
  top: "pool1"
  pooling_param {
    pool: MAX
    kernel_size: 3
    stride: 2
  }
}
layer {
  name: "conv2"
  type: "Convolution"
  bottom: "pool1"
  top: "conv2"
  param {
    lr_mult: 1
  }
  param {
    lr_mult: 2
  }
  convolution_param {
    num_output: 128
    pad: 2
    kernel_size: 5
    stride: 1
    weight_filler {
      type: "gaussian"
      std: 0.01
    }
    bias_filler {
      type: "constant"
    }
  }
}
layer {
  name: "relu2"
  type: "ReLU"
  bottom: "conv2"
  top: "conv2"
}
layer {
  name: "conv3"
  type: "Convolution"
  bottom: "conv2"
  top: "conv3"
  param {
    lr_mult: 1
  }
  param {
    lr_mult: 2
  }
  convolution_param {
    num_output: 128
    pad: 2
    kernel_size: 5
    stride: 1
    weight_filler {
      type: "gaussian"
      std: 0.01
    }
    bias_filler {
      type: "constant"
    }
  }
}
layer {
  name: "relu3"
  type: "ReLU"
  bottom: "conv3"
  top: "conv3"
}
layer {
  name: "pool3"
  type: "Pooling"
  bottom: "conv3"
  top: "pool3"
  pooling_param {
    pool: AVE
    kernel_size: 3
    stride: 2
  }
}
layer {
  name: "ip1"
  type: "InnerProduct"
  bottom: "pool3"
  top: "ip1"
  param {
    lr_mult: 1
  }
  param {
    lr_mult: 2
  }
  inner_product_param {
    num_output: 512
    weight_filler {
      type: "gaussian"
      std: 0.1
    }
    bias_filler {
      type: "constant"
    }
  }
}
layer {
  name: "ip2"
  type: "InnerProduct"
  bottom: "ip1"
  top: "ip2"
  param {
    lr_mult: 1
  }
  param {
    lr_mult: 2
  }
  inner_product_param {
    num_output: 256
    weight_filler {
      type: "gaussian"
      std: 0.1
    }
    bias_filler {
      type: "constant"
    }
  }
}
layer {
  name: "ip3"
  type: "InnerProduct"
  bottom: "ip2"
  top: "ip3"
  param {
    lr_mult: 1
  }
  param {
    lr_mult: 2
  }
  inner_product_param {
    num_output: 50
    weight_filler {
      type: "gaussian"
      std: 0.1
    }
    bias_filler {
      type: "constant"
    }
  }
}
layer {
  name: "loss"
  type: "SoftmaxWithLoss"
  bottom: "ip3"
  bottom: "label"
  top: "loss"
}
I0505 21:19:51.465159  9329 layer_factory.hpp:77] Creating layer parameters
I0505 21:19:51.465167  9329 net.cpp:94] Creating Layer parameters
I0505 21:19:51.465170  9329 net.cpp:409] parameters -> data
I0505 21:19:51.465176  9329 net.cpp:409] parameters -> label
I0505 21:19:51.465183  9329 hdf5_data_layer.cpp:79] Loading list of HDF5 filenames from: /home/purduethu/scratch/radon/d/deng106/CNNStatisticalModel/distributions/input/50_distributions_400_sample_size_train-distributions-path.txt
I0505 21:19:51.465198  9329 hdf5_data_layer.cpp:93] Number of HDF5 files: 1
I0505 21:19:52.101462  9329 hdf5.cpp:35] Datatype class: H5T_INTEGER
I0505 21:19:52.104470  9329 net.cpp:144] Setting up parameters
I0505 21:19:52.104490  9329 net.cpp:151] Top shape: 20 1 20 20 (8000)
I0505 21:19:52.104493  9329 net.cpp:151] Top shape: 20 (20)
I0505 21:19:52.104497  9329 net.cpp:159] Memory required for data: 32080
I0505 21:19:52.104503  9329 layer_factory.hpp:77] Creating layer conv1
I0505 21:19:52.104518  9329 net.cpp:94] Creating Layer conv1
I0505 21:19:52.104522  9329 net.cpp:435] conv1 <- data
I0505 21:19:52.104528  9329 net.cpp:409] conv1 -> conv1
I0505 21:19:52.106825  9329 net.cpp:144] Setting up conv1
I0505 21:19:52.106840  9329 net.cpp:151] Top shape: 20 64 20 20 (512000)
I0505 21:19:52.106844  9329 net.cpp:159] Memory required for data: 2080080
I0505 21:19:52.106854  9329 layer_factory.hpp:77] Creating layer relu1
I0505 21:19:52.106861  9329 net.cpp:94] Creating Layer relu1
I0505 21:19:52.106864  9329 net.cpp:435] relu1 <- conv1
I0505 21:19:52.106869  9329 net.cpp:396] relu1 -> conv1 (in-place)
I0505 21:19:52.106876  9329 net.cpp:144] Setting up relu1
I0505 21:19:52.106880  9329 net.cpp:151] Top shape: 20 64 20 20 (512000)
I0505 21:19:52.106884  9329 net.cpp:159] Memory required for data: 4128080
I0505 21:19:52.106886  9329 layer_factory.hpp:77] Creating layer pool1
I0505 21:19:52.106892  9329 net.cpp:94] Creating Layer pool1
I0505 21:19:52.106895  9329 net.cpp:435] pool1 <- conv1
I0505 21:19:52.106905  9329 net.cpp:409] pool1 -> pool1
I0505 21:19:52.106955  9329 net.cpp:144] Setting up pool1
I0505 21:19:52.106961  9329 net.cpp:151] Top shape: 20 64 10 10 (128000)
I0505 21:19:52.106964  9329 net.cpp:159] Memory required for data: 4640080
I0505 21:19:52.106967  9329 layer_factory.hpp:77] Creating layer conv2
I0505 21:19:52.106976  9329 net.cpp:94] Creating Layer conv2
I0505 21:19:52.106979  9329 net.cpp:435] conv2 <- pool1
I0505 21:19:52.106984  9329 net.cpp:409] conv2 -> conv2
I0505 21:19:52.118096  9329 net.cpp:144] Setting up conv2
I0505 21:19:52.118113  9329 net.cpp:151] Top shape: 20 128 10 10 (256000)
I0505 21:19:52.118118  9329 net.cpp:159] Memory required for data: 5664080
I0505 21:19:52.118125  9329 layer_factory.hpp:77] Creating layer relu2
I0505 21:19:52.118131  9329 net.cpp:94] Creating Layer relu2
I0505 21:19:52.118135  9329 net.cpp:435] relu2 <- conv2
I0505 21:19:52.118140  9329 net.cpp:396] relu2 -> conv2 (in-place)
I0505 21:19:52.118147  9329 net.cpp:144] Setting up relu2
I0505 21:19:52.118151  9329 net.cpp:151] Top shape: 20 128 10 10 (256000)
I0505 21:19:52.118155  9329 net.cpp:159] Memory required for data: 6688080
I0505 21:19:52.118157  9329 layer_factory.hpp:77] Creating layer conv3
I0505 21:19:52.118165  9329 net.cpp:94] Creating Layer conv3
I0505 21:19:52.118168  9329 net.cpp:435] conv3 <- conv2
I0505 21:19:52.118173  9329 net.cpp:409] conv3 -> conv3
I0505 21:19:52.136732  9329 net.cpp:144] Setting up conv3
I0505 21:19:52.136749  9329 net.cpp:151] Top shape: 20 128 10 10 (256000)
I0505 21:19:52.136754  9329 net.cpp:159] Memory required for data: 7712080
I0505 21:19:52.136761  9329 layer_factory.hpp:77] Creating layer relu3
I0505 21:19:52.136768  9329 net.cpp:94] Creating Layer relu3
I0505 21:19:52.136772  9329 net.cpp:435] relu3 <- conv3
I0505 21:19:52.136776  9329 net.cpp:396] relu3 -> conv3 (in-place)
I0505 21:19:52.136783  9329 net.cpp:144] Setting up relu3
I0505 21:19:52.136788  9329 net.cpp:151] Top shape: 20 128 10 10 (256000)
I0505 21:19:52.136790  9329 net.cpp:159] Memory required for data: 8736080
I0505 21:19:52.136793  9329 layer_factory.hpp:77] Creating layer pool3
I0505 21:19:52.136801  9329 net.cpp:94] Creating Layer pool3
I0505 21:19:52.136803  9329 net.cpp:435] pool3 <- conv3
I0505 21:19:52.136807  9329 net.cpp:409] pool3 -> pool3
I0505 21:19:52.136845  9329 net.cpp:144] Setting up pool3
I0505 21:19:52.136852  9329 net.cpp:151] Top shape: 20 128 5 5 (64000)
I0505 21:19:52.136855  9329 net.cpp:159] Memory required for data: 8992080
I0505 21:19:52.136858  9329 layer_factory.hpp:77] Creating layer ip1
I0505 21:19:52.136865  9329 net.cpp:94] Creating Layer ip1
I0505 21:19:52.136868  9329 net.cpp:435] ip1 <- pool3
I0505 21:19:52.136873  9329 net.cpp:409] ip1 -> ip1
I0505 21:19:52.177428  9329 net.cpp:144] Setting up ip1
I0505 21:19:52.177455  9329 net.cpp:151] Top shape: 20 512 (10240)
I0505 21:19:52.177459  9329 net.cpp:159] Memory required for data: 9033040
I0505 21:19:52.177467  9329 layer_factory.hpp:77] Creating layer ip2
I0505 21:19:52.177475  9329 net.cpp:94] Creating Layer ip2
I0505 21:19:52.177479  9329 net.cpp:435] ip2 <- ip1
I0505 21:19:52.177485  9329 net.cpp:409] ip2 -> ip2
I0505 21:19:52.180729  9329 net.cpp:144] Setting up ip2
I0505 21:19:52.180742  9329 net.cpp:151] Top shape: 20 256 (5120)
I0505 21:19:52.180745  9329 net.cpp:159] Memory required for data: 9053520
I0505 21:19:52.180753  9329 layer_factory.hpp:77] Creating layer ip3
I0505 21:19:52.180759  9329 net.cpp:94] Creating Layer ip3
I0505 21:19:52.180763  9329 net.cpp:435] ip3 <- ip2
I0505 21:19:52.180768  9329 net.cpp:409] ip3 -> ip3
I0505 21:19:52.182091  9329 net.cpp:144] Setting up ip3
I0505 21:19:52.182104  9329 net.cpp:151] Top shape: 20 50 (1000)
I0505 21:19:52.182108  9329 net.cpp:159] Memory required for data: 9057520
I0505 21:19:52.182114  9329 layer_factory.hpp:77] Creating layer loss
I0505 21:19:52.182121  9329 net.cpp:94] Creating Layer loss
I0505 21:19:52.182123  9329 net.cpp:435] loss <- ip3
I0505 21:19:52.182128  9329 net.cpp:435] loss <- label
I0505 21:19:52.182139  9329 net.cpp:409] loss -> loss
I0505 21:19:52.182148  9329 layer_factory.hpp:77] Creating layer loss
…
I0505 21:19:52.182592  9329 solver.cpp:181] Creating test net (#0) specified by net file: ./protocol/dis_50_400_dimension.protocol_distribution
I0505 21:19:52.182615  9329 net.cpp:323] The NetState phase (1) differed from the phase (0) specified by a rule in layer parameters
I0505 21:19:52.182696  9329 net.cpp:52] Initializing net from parameters: 
state {
  phase: TEST
}
layer {
  name: "intercept"
  type: "HDF5Data"
  top: "data"
  top: "label"
  include {
    phase: TEST
  }
  hdf5_data_param {
    source: "/home/purduethu/scratch/radon/d/deng106/CNNStatisticalModel/distributions/input/50_distributions_400_sample_size_test-distributions-path.txt"
    batch_size: 20
  }
}
layer {
  name: "conv1"
  type: "Convolution"
  bottom: "data"
  top: "conv1"
  param {
    lr_mult: 1
  }
  param {
    lr_mult: 2
  }
  convolution_param {
    num_output: 64
    pad: 2
    kernel_size: 5
    stride: 1
    weight_filler {
      type: "gaussian"
      std: 0.0001
    }
    bias_filler {
      type: "constant"
    }
  }
}
layer {
  name: "relu1"
  type: "ReLU"
  bottom: "conv1"
  top: "conv1"
}
layer {
  name: "pool1"
  type: "Pooling"
  bottom: "conv1"
  top: "pool1"
  pooling_param {
    pool: MAX
    kernel_size: 3
    stride: 2
  }
}
layer {
  name: "conv2"
  type: "Convolution"
  bottom: "pool1"
  top: "conv2"
  param {
    lr_mult: 1
  }
  param {
    lr_mult: 2
  }
  convolution_param {
    num_output: 128
    pad: 2
    kernel_size: 5
    stride: 1
    weight_filler {
      type: "gaussian"
      std: 0.01
    }
    bias_filler {
      type: "constant"
    }
  }
}
layer {
  name: "relu2"
  type: "ReLU"
  bottom: "conv2"
  top: "conv2"
}
layer {
  name: "conv3"
  type: "Convolution"
  bottom: "conv2"
  top: "conv3"
  param {
    lr_mult: 1
  }
  param {
    lr_mult: 2
  }
  convolution_param {
    num_output: 128
    pad: 2
    kernel_size: 5
    stride: 1
    weight_filler {
      type: "gaussian"
      std: 0.01
    }
    bias_filler {
      type: "constant"
    }
  }
}
layer {
  name: "relu3"
  type: "ReLU"
  bottom: "conv3"
  top: "conv3"
}
layer {
  name: "pool3"
  type: "Pooling"
  bottom: "conv3"
  top: "pool3"
  pooling_param {
    pool: AVE
    kernel_size: 3
    stride: 2
  }
}
layer {
  name: "ip1"
  type: "InnerProduct"
  bottom: "pool3"
  top: "ip1"
  param {
    lr_mult: 1
  }
  param {
    lr_mult: 2
  }
  inner_product_param {
    num_output: 512
    weight_filler {
      type: "gaussian"
      std: 0.1
    }
    bias_filler {
      type: "constant"
    }
  }
}
layer {
  name: "ip2"
  type: "InnerProduct"
  bottom: "ip1"
  top: "ip2"
  param {
    lr_mult: 1
  }
  param {
    lr_mult: 2
  }
  inner_product_param {
    num_output: 256
    weight_filler {
      type: "gaussian"
      std: 0.1
    }
    bias_filler {
      type: "constant"
    }
  }
}
layer {
  name: "ip3"
  type: "InnerProduct"
  bottom: "ip2"
  top: "ip3"
  param {
    lr_mult: 1
  }
  param {
    lr_mult: 2
  }
  inner_product_param {
    num_output: 50
    weight_filler {
      type: "gaussian"
      std: 0.1
    }
    bias_filler {
      type: "constant"
    }
  }
}
layer {
  name: "accuracy"
  type: "Accuracy"
  bottom: "ip3"
  bottom: "label"
  top: "accuracy"
  include {
    phase: TEST
  }
}
layer {
  name: "loss"
  type: "SoftmaxWithLoss"
  bottom: "ip3"
  bottom: "label"
  top: "loss"
}
I0505 21:19:52.182754  9329 layer_factory.hpp:77] Creating layer intercept
I0505 21:19:52.182761  9329 net.cpp:94] Creating Layer intercept
I0505 21:19:52.182765  9329 net.cpp:409] intercept -> data
I0505 21:19:52.182771  9329 net.cpp:409] intercept -> label
I0505 21:19:52.182777  9329 hdf5_data_layer.cpp:79] Loading list of HDF5 filenames from: /home/purduethu/scratch/radon/d/deng106/CNNStatisticalModel/distributions/input/50_distributions_400_sample_size_test-distributions-path.txt
I0505 21:19:52.182797  9329 hdf5_data_layer.cpp:93] Number of HDF5 files: 1
I0505 21:19:52.344689  9329 net.cpp:144] Setting up intercept
I0505 21:19:52.344722  9329 net.cpp:151] Top shape: 20 1 20 20 (8000)
I0505 21:19:52.344727  9329 net.cpp:151] Top shape: 20 (20)
I0505 21:19:52.344732  9329 net.cpp:159] Memory required for data: 32080
I0505 21:19:52.344738  9329 layer_factory.hpp:77] Creating layer label_intercept_1_split
I0505 21:19:52.344755  9329 net.cpp:94] Creating Layer label_intercept_1_split
I0505 21:19:52.344760  9329 net.cpp:435] label_intercept_1_split <- label
I0505 21:19:52.344766  9329 net.cpp:409] label_intercept_1_split -> label_intercept_1_split_0
I0505 21:19:52.344774  9329 net.cpp:409] label_intercept_1_split -> label_intercept_1_split_1
I0505 21:19:52.344812  9329 net.cpp:144] Setting up label_intercept_1_split
I0505 21:19:52.344818  9329 net.cpp:151] Top shape: 20 (20)
I0505 21:19:52.344822  9329 net.cpp:151] Top shape: 20 (20)
I0505 21:19:52.344825  9329 net.cpp:159] Memory required for data: 32240
I0505 21:19:52.344828  9329 layer_factory.hpp:77] Creating layer conv1
I0505 21:19:52.344840  9329 net.cpp:94] Creating Layer conv1
I0505 21:19:52.344842  9329 net.cpp:435] conv1 <- data
I0505 21:19:52.344847  9329 net.cpp:409] conv1 -> conv1
I0505 21:19:52.345656  9329 net.cpp:144] Setting up conv1
I0505 21:19:52.345669  9329 net.cpp:151] Top shape: 20 64 20 20 (512000)
I0505 21:19:52.345672  9329 net.cpp:159] Memory required for data: 2080240
I0505 21:19:52.345682  9329 layer_factory.hpp:77] Creating layer relu1
I0505 21:19:52.345688  9329 net.cpp:94] Creating Layer relu1
I0505 21:19:52.345692  9329 net.cpp:435] relu1 <- conv1
I0505 21:19:52.345696  9329 net.cpp:396] relu1 -> conv1 (in-place)
I0505 21:19:52.345703  9329 net.cpp:144] Setting up relu1
I0505 21:19:52.345707  9329 net.cpp:151] Top shape: 20 64 20 20 (512000)
I0505 21:19:52.345710  9329 net.cpp:159] Memory required for data: 4128240
I0505 21:19:52.345713  9329 layer_factory.hpp:77] Creating layer pool1
I0505 21:19:52.345719  9329 net.cpp:94] Creating Layer pool1
I0505 21:19:52.345723  9329 net.cpp:435] pool1 <- conv1
I0505 21:19:52.345727  9329 net.cpp:409] pool1 -> pool1
I0505 21:19:52.345775  9329 net.cpp:144] Setting up pool1
I0505 21:19:52.345782  9329 net.cpp:151] Top shape: 20 64 10 10 (128000)
I0505 21:19:52.345784  9329 net.cpp:159] Memory required for data: 4640240
I0505 21:19:52.345788  9329 layer_factory.hpp:77] Creating layer conv2
I0505 21:19:52.345795  9329 net.cpp:94] Creating Layer conv2
I0505 21:19:52.345799  9329 net.cpp:435] conv2 <- pool1
I0505 21:19:52.345803  9329 net.cpp:409] conv2 -> conv2
I0505 21:19:52.353516  9329 net.cpp:144] Setting up conv2
I0505 21:19:52.353533  9329 net.cpp:151] Top shape: 20 128 10 10 (256000)
I0505 21:19:52.353536  9329 net.cpp:159] Memory required for data: 5664240
I0505 21:19:52.353544  9329 layer_factory.hpp:77] Creating layer relu2
I0505 21:19:52.353556  9329 net.cpp:94] Creating Layer relu2
I0505 21:19:52.353560  9329 net.cpp:435] relu2 <- conv2
I0505 21:19:52.353565  9329 net.cpp:396] relu2 -> conv2 (in-place)
I0505 21:19:52.353572  9329 net.cpp:144] Setting up relu2
I0505 21:19:52.353576  9329 net.cpp:151] Top shape: 20 128 10 10 (256000)
I0505 21:19:52.353579  9329 net.cpp:159] Memory required for data: 6688240
I0505 21:19:52.353582  9329 layer_factory.hpp:77] Creating layer conv3
I0505 21:19:52.353590  9329 net.cpp:94] Creating Layer conv3
I0505 21:19:52.353593  9329 net.cpp:435] conv3 <- conv2
I0505 21:19:52.353598  9329 net.cpp:409] conv3 -> conv3
I0505 21:19:52.367424  9329 net.cpp:144] Setting up conv3
I0505 21:19:52.367439  9329 net.cpp:151] Top shape: 20 128 10 10 (256000)
I0505 21:19:52.367441  9329 net.cpp:159] Memory required for data: 7712240
I0505 21:19:52.367450  9329 layer_factory.hpp:77] Creating layer relu3
I0505 21:19:52.367456  9329 net.cpp:94] Creating Layer relu3
I0505 21:19:52.367460  9329 net.cpp:435] relu3 <- conv3
I0505 21:19:52.367465  9329 net.cpp:396] relu3 -> conv3 (in-place)
I0505 21:19:52.367471  9329 net.cpp:144] Setting up relu3
I0505 21:19:52.367475  9329 net.cpp:151] Top shape: 20 128 10 10 (256000)
I0505 21:19:52.367478  9329 net.cpp:159] Memory required for data: 8736240
I0505 21:19:52.367481  9329 layer_factory.hpp:77] Creating layer pool3
I0505 21:19:52.367486  9329 net.cpp:94] Creating Layer pool3
I0505 21:19:52.367489  9329 net.cpp:435] pool3 <- conv3
I0505 21:19:52.367493  9329 net.cpp:409] pool3 -> pool3
I0505 21:19:52.367532  9329 net.cpp:144] Setting up pool3
I0505 21:19:52.367537  9329 net.cpp:151] Top shape: 20 128 5 5 (64000)
I0505 21:19:52.367540  9329 net.cpp:159] Memory required for data: 8992240
I0505 21:19:52.367543  9329 layer_factory.hpp:77] Creating layer ip1
I0505 21:19:52.367550  9329 net.cpp:94] Creating Layer ip1
I0505 21:19:52.367553  9329 net.cpp:435] ip1 <- pool3
I0505 21:19:52.367558  9329 net.cpp:409] ip1 -> ip1
I0505 21:19:52.407694  9329 net.cpp:144] Setting up ip1
I0505 21:19:52.407721  9329 net.cpp:151] Top shape: 20 512 (10240)
I0505 21:19:52.407724  9329 net.cpp:159] Memory required for data: 9033200
I0505 21:19:52.407730  9329 layer_factory.hpp:77] Creating layer ip2
I0505 21:19:52.407739  9329 net.cpp:94] Creating Layer ip2
I0505 21:19:52.407743  9329 net.cpp:435] ip2 <- ip1
I0505 21:19:52.407749  9329 net.cpp:409] ip2 -> ip2
I0505 21:19:52.410909  9329 net.cpp:144] Setting up ip2
I0505 21:19:52.410922  9329 net.cpp:151] Top shape: 20 256 (5120)
I0505 21:19:52.410924  9329 net.cpp:159] Memory required for data: 9053680
I0505 21:19:52.410933  9329 layer_factory.hpp:77] Creating layer ip3
I0505 21:19:52.410938  9329 net.cpp:94] Creating Layer ip3
I0505 21:19:52.410943  9329 net.cpp:435] ip3 <- ip2
I0505 21:19:52.410948  9329 net.cpp:409] ip3 -> ip3
I0505 21:19:52.411375  9329 net.cpp:144] Setting up ip3
I0505 21:19:52.411382  9329 net.cpp:151] Top shape: 20 50 (1000)
I0505 21:19:52.411386  9329 net.cpp:159] Memory required for data: 9057680
I0505 21:19:52.411391  9329 layer_factory.hpp:77] Creating layer ip3_ip3_0_split
I0505 21:19:52.411396  9329 net.cpp:94] Creating Layer ip3_ip3_0_split
I0505 21:19:52.411399  9329 net.cpp:435] ip3_ip3_0_split <- ip3
I0505 21:19:52.411404  9329 net.cpp:409] ip3_ip3_0_split -> ip3_ip3_0_split_0
I0505 21:19:52.411409  9329 net.cpp:409] ip3_ip3_0_split -> ip3_ip3_0_split_1
I0505 21:19:52.411448  9329 net.cpp:144] Setting up ip3_ip3_0_split
I0505 21:19:52.411454  9329 net.cpp:151] Top shape: 20 50 (1000)
I0505 21:19:52.411458  9329 net.cpp:151] Top shape: 20 50 (1000)
I0505 21:19:52.411460  9329 net.cpp:159] Memory required for data: 9065680
I0505 21:19:52.411464  9329 layer_factory.hpp:77] Creating layer accuracy
I0505 21:19:52.411469  9329 net.cpp:94] Creating Layer accuracy
I0505 21:19:52.411473  9329 net.cpp:435] accuracy <- ip3_ip3_0_split_0
I0505 21:19:52.411476  9329 net.cpp:435] accuracy <- label_intercept_1_split_0
I0505 21:19:52.411480  9329 net.cpp:409] accuracy -> accuracy
…
