…
I0507 03:23:25.690425 31082 net.cpp:323] The NetState phase (0) differed from the phase (1) specified by a rule in layer intercept
I0507 03:23:25.690441 31082 net.cpp:323] The NetState phase (0) differed from the phase (1) specified by a rule in layer loss
I0507 03:23:25.690518 31082 net.cpp:52] Initializing net from parameters: 
state {
  phase: TRAIN
}
layer {
  name: "parameters"
  type: "HDF5Data"
  top: "data"
  top: "label"
  include {
    phase: TRAIN
  }
  hdf5_data_param {
    source: "/home/purduethu/scratch/radon/d/deng106/CNNStatisticalModel/distributions/input/50_distributions_100_sample_size_train-parameters-path.txt"
    batch_size: 20
  }
}
layer {
  name: "conv1"
  type: "Convolution"
  bottom: "data"
  top: "conv1"
  param {
    lr_mult: 1
  }
  param {
    lr_mult: 2
  }
  convolution_param {
    num_output: 64
    pad: 2
    kernel_size: 5
    stride: 1
    weight_filler {
      type: "gaussian"
      std: 0.0001
    }
    bias_filler {
      type: "constant"
    }
  }
}
layer {
  name: "relu1"
  type: "ReLU"
  bottom: "conv1"
  top: "conv1"
}
layer {
  name: "conv2"
  type: "Convolution"
  bottom: "conv1"
  top: "conv2"
  param {
    lr_mult: 1
  }
  param {
    lr_mult: 2
  }
  convolution_param {
    num_output: 64
    pad: 2
    kernel_size: 5
    stride: 1
    weight_filler {
      type: "gaussian"
      std: 0.01
    }
    bias_filler {
      type: "constant"
    }
  }
}
layer {
  name: "relu2"
  type: "ReLU"
  bottom: "conv2"
  top: "conv2"
}
layer {
  name: "pool2"
  type: "Pooling"
  bottom: "conv2"
  top: "pool2"
  pooling_param {
    pool: MAX
    kernel_size: 3
    stride: 2
  }
}
layer {
  name: "conv3"
  type: "Convolution"
  bottom: "pool2"
  top: "conv3"
  param {
    lr_mult: 1
  }
  param {
    lr_mult: 2
  }
  convolution_param {
    num_output: 64
    pad: 2
    kernel_size: 5
    stride: 1
    weight_filler {
      type: "gaussian"
      std: 0.01
    }
    bias_filler {
      type: "constant"
    }
  }
}
layer {
  name: "relu3"
  type: "ReLU"
  bottom: "conv3"
  top: "conv3"
}
layer {
  name: "conv4"
  type: "Convolution"
  bottom: "conv3"
  top: "conv4"
  param {
    lr_mult: 1
  }
  param {
    lr_mult: 2
  }
  convolution_param {
    num_output: 64
    pad: 2
    kernel_size: 5
    stride: 1
    weight_filler {
      type: "gaussian"
      std: 0.01
    }
    bias_filler {
      type: "constant"
    }
  }
}
layer {
  name: "relu4"
  type: "ReLU"
  bottom: "conv4"
  top: "conv4"
}
layer {
  name: "conv5"
  type: "Convolution"
  bottom: "conv4"
  top: "conv5"
  param {
    lr_mult: 1
  }
  param {
    lr_mult: 2
  }
  convolution_param {
    num_output: 64
    pad: 2
    kernel_size: 5
    stride: 1
    weight_filler {
      type: "gaussian"
      std: 0.01
    }
    bias_filler {
      type: "constant"
    }
  }
}
layer {
  name: "relu5"
  type: "ReLU"
  bottom: "conv5"
  top: "conv5"
}
layer {
  name: "pool5"
  type: "Pooling"
  bottom: "conv5"
  top: "pool5"
  pooling_param {
    pool: AVE
    kernel_size: 3
    stride: 2
  }
}
layer {
  name: "ip1"
  type: "InnerProduct"
  bottom: "pool5"
  top: "ip1"
  param {
    lr_mult: 1
  }
  param {
    lr_mult: 2
  }
  inner_product_param {
    num_output: 64
    weight_filler {
      type: "gaussian"
      std: 0.1
    }
    bias_filler {
      type: "constant"
    }
  }
}
layer {
  name: "ip2"
  type: "InnerProduct"
  bottom: "ip1"
  top: "ip2"
  param {
    lr_mult: 1
  }
  param {
    lr_mult: 2
  }
  inner_product_param {
    num_output: 64
    weight_filler {
      type: "gaussian"
      std: 0.1
    }
    bias_filler {
      type: "constant"
    }
  }
}
layer {
  name: "ip3"
  type: "InnerProduct"
  bottom: "ip2"
  top: "ip3"
  param {
    lr_mult: 1
  }
  param {
    lr_mult: 2
  }
  inner_product_param {
    num_output: 1
    weight_filler {
      type: "gaussian"
      std: 0.1
    }
    bias_filler {
      type: "constant"
    }
  }
}
layer {
  name: "loss"
  type: "HuberLoss"
  bottom: "ip3"
  bottom: "label"
  top: "loss"
  include {
    phase: TRAIN
  }
}
I0507 03:23:25.690572 31082 layer_factory.hpp:77] Creating layer parameters
I0507 03:23:25.690588 31082 net.cpp:94] Creating Layer parameters
I0507 03:23:25.690593 31082 net.cpp:409] parameters -> data
I0507 03:23:25.690603 31082 net.cpp:409] parameters -> label
I0507 03:23:25.690609 31082 hdf5_data_layer.cpp:79] Loading list of HDF5 filenames from: /home/purduethu/scratch/radon/d/deng106/CNNStatisticalModel/distributions/input/50_distributions_100_sample_size_train-parameters-path.txt
I0507 03:23:25.690624 31082 hdf5_data_layer.cpp:93] Number of HDF5 files: 1
I0507 03:23:25.691171 31082 hdf5.cpp:32] Datatype class: H5T_FLOAT
I0507 03:23:25.852185 31082 net.cpp:144] Setting up parameters
I0507 03:23:25.852216 31082 net.cpp:151] Top shape: 20 1 10 10 (2000)
I0507 03:23:25.852222 31082 net.cpp:151] Top shape: 20 (20)
I0507 03:23:25.852226 31082 net.cpp:159] Memory required for data: 8080
I0507 03:23:25.852232 31082 layer_factory.hpp:77] Creating layer conv1
I0507 03:23:25.852248 31082 net.cpp:94] Creating Layer conv1
I0507 03:23:25.852252 31082 net.cpp:435] conv1 <- data
I0507 03:23:25.852259 31082 net.cpp:409] conv1 -> conv1
I0507 03:23:25.856464 31082 net.cpp:144] Setting up conv1
I0507 03:23:25.856482 31082 net.cpp:151] Top shape: 20 64 10 10 (128000)
I0507 03:23:25.856487 31082 net.cpp:159] Memory required for data: 520080
I0507 03:23:25.856498 31082 layer_factory.hpp:77] Creating layer relu1
I0507 03:23:25.856506 31082 net.cpp:94] Creating Layer relu1
I0507 03:23:25.856509 31082 net.cpp:435] relu1 <- conv1
I0507 03:23:25.856514 31082 net.cpp:396] relu1 -> conv1 (in-place)
I0507 03:23:25.856521 31082 net.cpp:144] Setting up relu1
I0507 03:23:25.856526 31082 net.cpp:151] Top shape: 20 64 10 10 (128000)
I0507 03:23:25.856529 31082 net.cpp:159] Memory required for data: 1032080
I0507 03:23:25.856533 31082 layer_factory.hpp:77] Creating layer conv2
I0507 03:23:25.856540 31082 net.cpp:94] Creating Layer conv2
I0507 03:23:25.856544 31082 net.cpp:435] conv2 <- conv1
I0507 03:23:25.856549 31082 net.cpp:409] conv2 -> conv2
I0507 03:23:25.862571 31082 net.cpp:144] Setting up conv2
I0507 03:23:25.862586 31082 net.cpp:151] Top shape: 20 64 10 10 (128000)
I0507 03:23:25.862589 31082 net.cpp:159] Memory required for data: 1544080
I0507 03:23:25.862597 31082 layer_factory.hpp:77] Creating layer relu2
I0507 03:23:25.862604 31082 net.cpp:94] Creating Layer relu2
I0507 03:23:25.862607 31082 net.cpp:435] relu2 <- conv2
I0507 03:23:25.862612 31082 net.cpp:396] relu2 -> conv2 (in-place)
I0507 03:23:25.862619 31082 net.cpp:144] Setting up relu2
I0507 03:23:25.862623 31082 net.cpp:151] Top shape: 20 64 10 10 (128000)
I0507 03:23:25.862627 31082 net.cpp:159] Memory required for data: 2056080
I0507 03:23:25.862629 31082 layer_factory.hpp:77] Creating layer pool2
I0507 03:23:25.862635 31082 net.cpp:94] Creating Layer pool2
I0507 03:23:25.862638 31082 net.cpp:435] pool2 <- conv2
I0507 03:23:25.862643 31082 net.cpp:409] pool2 -> pool2
I0507 03:23:25.862701 31082 net.cpp:144] Setting up pool2
I0507 03:23:25.862709 31082 net.cpp:151] Top shape: 20 64 5 5 (32000)
I0507 03:23:25.862712 31082 net.cpp:159] Memory required for data: 2184080
I0507 03:23:25.862715 31082 layer_factory.hpp:77] Creating layer conv3
I0507 03:23:25.862723 31082 net.cpp:94] Creating Layer conv3
I0507 03:23:25.862727 31082 net.cpp:435] conv3 <- pool2
I0507 03:23:25.862738 31082 net.cpp:409] conv3 -> conv3
I0507 03:23:25.867553 31082 net.cpp:144] Setting up conv3
I0507 03:23:25.867568 31082 net.cpp:151] Top shape: 20 64 5 5 (32000)
I0507 03:23:25.867571 31082 net.cpp:159] Memory required for data: 2312080
I0507 03:23:25.867579 31082 layer_factory.hpp:77] Creating layer relu3
I0507 03:23:25.867585 31082 net.cpp:94] Creating Layer relu3
I0507 03:23:25.867589 31082 net.cpp:435] relu3 <- conv3
I0507 03:23:25.867594 31082 net.cpp:396] relu3 -> conv3 (in-place)
I0507 03:23:25.867600 31082 net.cpp:144] Setting up relu3
I0507 03:23:25.867604 31082 net.cpp:151] Top shape: 20 64 5 5 (32000)
I0507 03:23:25.867607 31082 net.cpp:159] Memory required for data: 2440080
I0507 03:23:25.867610 31082 layer_factory.hpp:77] Creating layer conv4
I0507 03:23:25.867619 31082 net.cpp:94] Creating Layer conv4
I0507 03:23:25.867622 31082 net.cpp:435] conv4 <- conv3
I0507 03:23:25.867627 31082 net.cpp:409] conv4 -> conv4
I0507 03:23:25.871974 31082 net.cpp:144] Setting up conv4
I0507 03:23:25.871987 31082 net.cpp:151] Top shape: 20 64 5 5 (32000)
I0507 03:23:25.871990 31082 net.cpp:159] Memory required for data: 2568080
I0507 03:23:25.871997 31082 layer_factory.hpp:77] Creating layer relu4
I0507 03:23:25.872002 31082 net.cpp:94] Creating Layer relu4
I0507 03:23:25.872006 31082 net.cpp:435] relu4 <- conv4
I0507 03:23:25.872011 31082 net.cpp:396] relu4 -> conv4 (in-place)
I0507 03:23:25.872017 31082 net.cpp:144] Setting up relu4
I0507 03:23:25.872022 31082 net.cpp:151] Top shape: 20 64 5 5 (32000)
I0507 03:23:25.872025 31082 net.cpp:159] Memory required for data: 2696080
I0507 03:23:25.872028 31082 layer_factory.hpp:77] Creating layer conv5
I0507 03:23:25.872036 31082 net.cpp:94] Creating Layer conv5
I0507 03:23:25.872040 31082 net.cpp:435] conv5 <- conv4
I0507 03:23:25.872045 31082 net.cpp:409] conv5 -> conv5
I0507 03:23:25.876895 31082 net.cpp:144] Setting up conv5
I0507 03:23:25.876909 31082 net.cpp:151] Top shape: 20 64 5 5 (32000)
I0507 03:23:25.876912 31082 net.cpp:159] Memory required for data: 2824080
I0507 03:23:25.876921 31082 layer_factory.hpp:77] Creating layer relu5
I0507 03:23:25.876927 31082 net.cpp:94] Creating Layer relu5
I0507 03:23:25.876931 31082 net.cpp:435] relu5 <- conv5
I0507 03:23:25.876936 31082 net.cpp:396] relu5 -> conv5 (in-place)
I0507 03:23:25.876942 31082 net.cpp:144] Setting up relu5
I0507 03:23:25.876947 31082 net.cpp:151] Top shape: 20 64 5 5 (32000)
I0507 03:23:25.876950 31082 net.cpp:159] Memory required for data: 2952080
I0507 03:23:25.876953 31082 layer_factory.hpp:77] Creating layer pool5
I0507 03:23:25.876958 31082 net.cpp:94] Creating Layer pool5
I0507 03:23:25.876961 31082 net.cpp:435] pool5 <- conv5
I0507 03:23:25.876966 31082 net.cpp:409] pool5 -> pool5
I0507 03:23:25.877004 31082 net.cpp:144] Setting up pool5
I0507 03:23:25.877012 31082 net.cpp:151] Top shape: 20 64 2 2 (5120)
I0507 03:23:25.877015 31082 net.cpp:159] Memory required for data: 2972560
I0507 03:23:25.877018 31082 layer_factory.hpp:77] Creating layer ip1
I0507 03:23:25.877028 31082 net.cpp:94] Creating Layer ip1
I0507 03:23:25.877032 31082 net.cpp:435] ip1 <- pool5
I0507 03:23:25.877038 31082 net.cpp:409] ip1 -> ip1
I0507 03:23:25.878357 31082 net.cpp:144] Setting up ip1
I0507 03:23:25.878370 31082 net.cpp:151] Top shape: 20 64 (1280)
I0507 03:23:25.878373 31082 net.cpp:159] Memory required for data: 2977680
I0507 03:23:25.878381 31082 layer_factory.hpp:77] Creating layer ip2
I0507 03:23:25.878387 31082 net.cpp:94] Creating Layer ip2
I0507 03:23:25.878391 31082 net.cpp:435] ip2 <- ip1
I0507 03:23:25.878396 31082 net.cpp:409] ip2 -> ip2
I0507 03:23:25.878612 31082 net.cpp:144] Setting up ip2
I0507 03:23:25.878618 31082 net.cpp:151] Top shape: 20 64 (1280)
I0507 03:23:25.878623 31082 net.cpp:159] Memory required for data: 2982800
I0507 03:23:25.878628 31082 layer_factory.hpp:77] Creating layer ip3
I0507 03:23:25.878633 31082 net.cpp:94] Creating Layer ip3
I0507 03:23:25.878636 31082 net.cpp:435] ip3 <- ip2
I0507 03:23:25.878641 31082 net.cpp:409] ip3 -> ip3
I0507 03:23:25.878756 31082 net.cpp:144] Setting up ip3
I0507 03:23:25.878762 31082 net.cpp:151] Top shape: 20 1 (20)
I0507 03:23:25.878765 31082 net.cpp:159] Memory required for data: 2982880
I0507 03:23:25.878772 31082 layer_factory.hpp:77] Creating layer loss
I0507 03:23:25.878782 31082 net.cpp:94] Creating Layer loss
I0507 03:23:25.878787 31082 net.cpp:435] loss <- ip3
I0507 03:23:25.878790 31082 net.cpp:435] loss <- label
I0507 03:23:25.878794 31082 net.cpp:409] loss -> loss
I0507 03:23:25.878847 31082 net.cpp:144] Setting up loss
…
I0507 03:23:25.939913 31082 net.cpp:323] The NetState phase (0) differed from the phase (1) specified by a rule in layer intercept
I0507 03:23:25.939929 31082 net.cpp:323] The NetState phase (0) differed from the phase (1) specified by a rule in layer accuracy
I0507 03:23:25.940012 31082 net.cpp:52] Initializing net from parameters: 
state {
  phase: TRAIN
}
layer {
  name: "parameters"
  type: "HDF5Data"
  top: "data"
  top: "label"
  include {
    phase: TRAIN
  }
  hdf5_data_param {
    source: "/home/purduethu/scratch/radon/d/deng106/CNNStatisticalModel/distributions/input/50_distributions_100_sample_size_train-distributions-path.txt"
    batch_size: 20
  }
}
layer {
  name: "conv1"
  type: "Convolution"
  bottom: "data"
  top: "conv1"
  param {
    lr_mult: 1
  }
  param {
    lr_mult: 2
  }
  convolution_param {
    num_output: 64
    pad: 2
    kernel_size: 5
    stride: 1
    weight_filler {
      type: "gaussian"
      std: 0.0001
    }
    bias_filler {
      type: "constant"
    }
  }
}
layer {
  name: "relu1"
  type: "ReLU"
  bottom: "conv1"
  top: "conv1"
}
layer {
  name: "conv2"
  type: "Convolution"
  bottom: "conv1"
  top: "conv2"
  param {
    lr_mult: 1
  }
  param {
    lr_mult: 2
  }
  convolution_param {
    num_output: 64
    pad: 2
    kernel_size: 5
    stride: 1
    weight_filler {
      type: "gaussian"
      std: 0.01
    }
    bias_filler {
      type: "constant"
    }
  }
}
layer {
  name: "relu2"
  type: "ReLU"
  bottom: "conv2"
  top: "conv2"
}
layer {
  name: "pool2"
  type: "Pooling"
  bottom: "conv2"
  top: "pool2"
  pooling_param {
    pool: MAX
    kernel_size: 3
    stride: 2
  }
}
layer {
  name: "conv3"
  type: "Convolution"
  bottom: "pool2"
  top: "conv3"
  param {
    lr_mult: 1
  }
  param {
    lr_mult: 2
  }
  convolution_param {
    num_output: 64
    pad: 2
    kernel_size: 5
    stride: 1
    weight_filler {
      type: "gaussian"
      std: 0.01
    }
    bias_filler {
      type: "constant"
    }
  }
}
layer {
  name: "relu3"
  type: "ReLU"
  bottom: "conv3"
  top: "conv3"
}
layer {
  name: "conv4"
  type: "Convolution"
  bottom: "conv3"
  top: "conv4"
  param {
    lr_mult: 1
  }
  param {
    lr_mult: 2
  }
  convolution_param {
    num_output: 64
    pad: 2
    kernel_size: 5
    stride: 1
    weight_filler {
      type: "gaussian"
      std: 0.01
    }
    bias_filler {
      type: "constant"
    }
  }
}
layer {
  name: "relu4"
  type: "ReLU"
  bottom: "conv4"
  top: "conv4"
}
layer {
  name: "conv5"
  type: "Convolution"
  bottom: "conv4"
  top: "conv5"
  param {
    lr_mult: 1
  }
  param {
    lr_mult: 2
  }
  convolution_param {
    num_output: 64
    pad: 2
    kernel_size: 5
    stride: 1
    weight_filler {
      type: "gaussian"
      std: 0.01
    }
    bias_filler {
      type: "constant"
    }
  }
}
layer {
  name: "relu5"
  type: "ReLU"
  bottom: "conv5"
  top: "conv5"
}
layer {
  name: "pool5"
  type: "Pooling"
  bottom: "conv5"
  top: "pool5"
  pooling_param {
    pool: AVE
    kernel_size: 3
    stride: 2
  }
}
layer {
  name: "ip1"
  type: "InnerProduct"
  bottom: "pool5"
  top: "ip1"
  param {
    lr_mult: 1
  }
  param {
    lr_mult: 2
  }
  inner_product_param {
    num_output: 64
    weight_filler {
      type: "gaussian"
      std: 0.1
    }
    bias_filler {
      type: "constant"
    }
  }
}
layer {
  name: "ip2"
  type: "InnerProduct"
  bottom: "ip1"
  top: "ip2"
  param {
    lr_mult: 1
  }
  param {
    lr_mult: 2
  }
  inner_product_param {
    num_output: 64
    weight_filler {
      type: "gaussian"
      std: 0.1
    }
    bias_filler {
      type: "constant"
    }
  }
}
layer {
  name: "ip3"
  type: "InnerProduct"
  bottom: "ip2"
  top: "ip3"
  param {
    lr_mult: 1
  }
  param {
    lr_mult: 2
  }
  inner_product_param {
    num_output: 50
    weight_filler {
      type: "gaussian"
      std: 0.1
    }
    bias_filler {
      type: "constant"
    }
  }
}
layer {
  name: "loss"
  type: "SoftmaxWithLoss"
  bottom: "ip3"
  bottom: "label"
  top: "loss"
}
I0507 03:23:25.940065 31082 layer_factory.hpp:77] Creating layer parameters
I0507 03:23:25.940073 31082 net.cpp:94] Creating Layer parameters
I0507 03:23:25.940078 31082 net.cpp:409] parameters -> data
I0507 03:23:25.940084 31082 net.cpp:409] parameters -> label
I0507 03:23:25.940090 31082 hdf5_data_layer.cpp:79] Loading list of HDF5 filenames from: /home/purduethu/scratch/radon/d/deng106/CNNStatisticalModel/distributions/input/50_distributions_100_sample_size_train-distributions-path.txt
I0507 03:23:25.940105 31082 hdf5_data_layer.cpp:93] Number of HDF5 files: 1
I0507 03:23:26.095494 31082 hdf5.cpp:35] Datatype class: H5T_INTEGER
I0507 03:23:26.099117 31082 net.cpp:144] Setting up parameters
I0507 03:23:26.099134 31082 net.cpp:151] Top shape: 20 1 10 10 (2000)
I0507 03:23:26.099139 31082 net.cpp:151] Top shape: 20 (20)
I0507 03:23:26.099143 31082 net.cpp:159] Memory required for data: 8080
I0507 03:23:26.099148 31082 layer_factory.hpp:77] Creating layer conv1
I0507 03:23:26.099164 31082 net.cpp:94] Creating Layer conv1
I0507 03:23:26.099169 31082 net.cpp:435] conv1 <- data
I0507 03:23:26.099175 31082 net.cpp:409] conv1 -> conv1
I0507 03:23:26.100967 31082 net.cpp:144] Setting up conv1
I0507 03:23:26.100981 31082 net.cpp:151] Top shape: 20 64 10 10 (128000)
I0507 03:23:26.100986 31082 net.cpp:159] Memory required for data: 520080
I0507 03:23:26.100996 31082 layer_factory.hpp:77] Creating layer relu1
I0507 03:23:26.101002 31082 net.cpp:94] Creating Layer relu1
I0507 03:23:26.101006 31082 net.cpp:435] relu1 <- conv1
I0507 03:23:26.101011 31082 net.cpp:396] relu1 -> conv1 (in-place)
I0507 03:23:26.101018 31082 net.cpp:144] Setting up relu1
I0507 03:23:26.101022 31082 net.cpp:151] Top shape: 20 64 10 10 (128000)
I0507 03:23:26.101025 31082 net.cpp:159] Memory required for data: 1032080
I0507 03:23:26.101028 31082 layer_factory.hpp:77] Creating layer conv2
I0507 03:23:26.101035 31082 net.cpp:94] Creating Layer conv2
I0507 03:23:26.101039 31082 net.cpp:435] conv2 <- conv1
I0507 03:23:26.101043 31082 net.cpp:409] conv2 -> conv2
I0507 03:23:26.106307 31082 net.cpp:144] Setting up conv2
I0507 03:23:26.106320 31082 net.cpp:151] Top shape: 20 64 10 10 (128000)
I0507 03:23:26.106324 31082 net.cpp:159] Memory required for data: 1544080
I0507 03:23:26.106333 31082 layer_factory.hpp:77] Creating layer relu2
I0507 03:23:26.106339 31082 net.cpp:94] Creating Layer relu2
I0507 03:23:26.106343 31082 net.cpp:435] relu2 <- conv2
I0507 03:23:26.106348 31082 net.cpp:396] relu2 -> conv2 (in-place)
I0507 03:23:26.106354 31082 net.cpp:144] Setting up relu2
I0507 03:23:26.106359 31082 net.cpp:151] Top shape: 20 64 10 10 (128000)
I0507 03:23:26.106361 31082 net.cpp:159] Memory required for data: 2056080
I0507 03:23:26.106364 31082 layer_factory.hpp:77] Creating layer pool2
I0507 03:23:26.106370 31082 net.cpp:94] Creating Layer pool2
I0507 03:23:26.106374 31082 net.cpp:435] pool2 <- conv2
I0507 03:23:26.106377 31082 net.cpp:409] pool2 -> pool2
I0507 03:23:26.106431 31082 net.cpp:144] Setting up pool2
I0507 03:23:26.106438 31082 net.cpp:151] Top shape: 20 64 5 5 (32000)
I0507 03:23:26.106441 31082 net.cpp:159] Memory required for data: 2184080
I0507 03:23:26.106446 31082 layer_factory.hpp:77] Creating layer conv3
I0507 03:23:26.106452 31082 net.cpp:94] Creating Layer conv3
I0507 03:23:26.106456 31082 net.cpp:435] conv3 <- pool2
I0507 03:23:26.106462 31082 net.cpp:409] conv3 -> conv3
I0507 03:23:26.112115 31082 net.cpp:144] Setting up conv3
I0507 03:23:26.112128 31082 net.cpp:151] Top shape: 20 64 5 5 (32000)
I0507 03:23:26.112133 31082 net.cpp:159] Memory required for data: 2312080
I0507 03:23:26.112140 31082 layer_factory.hpp:77] Creating layer relu3
I0507 03:23:26.112146 31082 net.cpp:94] Creating Layer relu3
I0507 03:23:26.112150 31082 net.cpp:435] relu3 <- conv3
I0507 03:23:26.112155 31082 net.cpp:396] relu3 -> conv3 (in-place)
I0507 03:23:26.112162 31082 net.cpp:144] Setting up relu3
I0507 03:23:26.112166 31082 net.cpp:151] Top shape: 20 64 5 5 (32000)
I0507 03:23:26.112175 31082 net.cpp:159] Memory required for data: 2440080
I0507 03:23:26.112179 31082 layer_factory.hpp:77] Creating layer conv4
I0507 03:23:26.112188 31082 net.cpp:94] Creating Layer conv4
I0507 03:23:26.112191 31082 net.cpp:435] conv4 <- conv3
I0507 03:23:26.112196 31082 net.cpp:409] conv4 -> conv4
I0507 03:23:26.117063 31082 net.cpp:144] Setting up conv4
I0507 03:23:26.117076 31082 net.cpp:151] Top shape: 20 64 5 5 (32000)
I0507 03:23:26.117080 31082 net.cpp:159] Memory required for data: 2568080
I0507 03:23:26.117086 31082 layer_factory.hpp:77] Creating layer relu4
I0507 03:23:26.117092 31082 net.cpp:94] Creating Layer relu4
I0507 03:23:26.117096 31082 net.cpp:435] relu4 <- conv4
I0507 03:23:26.117100 31082 net.cpp:396] relu4 -> conv4 (in-place)
I0507 03:23:26.117107 31082 net.cpp:144] Setting up relu4
I0507 03:23:26.117112 31082 net.cpp:151] Top shape: 20 64 5 5 (32000)
I0507 03:23:26.117115 31082 net.cpp:159] Memory required for data: 2696080
I0507 03:23:26.117118 31082 layer_factory.hpp:77] Creating layer conv5
I0507 03:23:26.117125 31082 net.cpp:94] Creating Layer conv5
I0507 03:23:26.117130 31082 net.cpp:435] conv5 <- conv4
I0507 03:23:26.117135 31082 net.cpp:409] conv5 -> conv5
I0507 03:23:26.121526 31082 net.cpp:144] Setting up conv5
I0507 03:23:26.121539 31082 net.cpp:151] Top shape: 20 64 5 5 (32000)
I0507 03:23:26.121542 31082 net.cpp:159] Memory required for data: 2824080
I0507 03:23:26.121551 31082 layer_factory.hpp:77] Creating layer relu5
I0507 03:23:26.121557 31082 net.cpp:94] Creating Layer relu5
I0507 03:23:26.121561 31082 net.cpp:435] relu5 <- conv5
I0507 03:23:26.121565 31082 net.cpp:396] relu5 -> conv5 (in-place)
I0507 03:23:26.121572 31082 net.cpp:144] Setting up relu5
I0507 03:23:26.121577 31082 net.cpp:151] Top shape: 20 64 5 5 (32000)
I0507 03:23:26.121579 31082 net.cpp:159] Memory required for data: 2952080
I0507 03:23:26.121582 31082 layer_factory.hpp:77] Creating layer pool5
I0507 03:23:26.121588 31082 net.cpp:94] Creating Layer pool5
I0507 03:23:26.121592 31082 net.cpp:435] pool5 <- conv5
I0507 03:23:26.121595 31082 net.cpp:409] pool5 -> pool5
I0507 03:23:26.121631 31082 net.cpp:144] Setting up pool5
I0507 03:23:26.121639 31082 net.cpp:151] Top shape: 20 64 2 2 (5120)
I0507 03:23:26.121641 31082 net.cpp:159] Memory required for data: 2972560
I0507 03:23:26.121644 31082 layer_factory.hpp:77] Creating layer ip1
I0507 03:23:26.121651 31082 net.cpp:94] Creating Layer ip1
I0507 03:23:26.121654 31082 net.cpp:435] ip1 <- pool5
I0507 03:23:26.121659 31082 net.cpp:409] ip1 -> ip1
I0507 03:23:26.122177 31082 net.cpp:144] Setting up ip1
I0507 03:23:26.122185 31082 net.cpp:151] Top shape: 20 64 (1280)
I0507 03:23:26.122189 31082 net.cpp:159] Memory required for data: 2977680
I0507 03:23:26.122195 31082 layer_factory.hpp:77] Creating layer ip2
I0507 03:23:26.122200 31082 net.cpp:94] Creating Layer ip2
I0507 03:23:26.122203 31082 net.cpp:435] ip2 <- ip1
I0507 03:23:26.122208 31082 net.cpp:409] ip2 -> ip2
I0507 03:23:26.122431 31082 net.cpp:144] Setting up ip2
I0507 03:23:26.122439 31082 net.cpp:151] Top shape: 20 64 (1280)
I0507 03:23:26.122442 31082 net.cpp:159] Memory required for data: 2982800
I0507 03:23:26.122447 31082 layer_factory.hpp:77] Creating layer ip3
I0507 03:23:26.122453 31082 net.cpp:94] Creating Layer ip3
I0507 03:23:26.122457 31082 net.cpp:435] ip3 <- ip2
I0507 03:23:26.122462 31082 net.cpp:409] ip3 -> ip3
I0507 03:23:26.122656 31082 net.cpp:144] Setting up ip3
I0507 03:23:26.122663 31082 net.cpp:151] Top shape: 20 50 (1000)
I0507 03:23:26.122666 31082 net.cpp:159] Memory required for data: 2986800
I0507 03:23:26.122671 31082 layer_factory.hpp:77] Creating layer loss
I0507 03:23:26.122678 31082 net.cpp:94] Creating Layer loss
I0507 03:23:26.122681 31082 net.cpp:435] loss <- ip3
I0507 03:23:26.122685 31082 net.cpp:435] loss <- label
I0507 03:23:26.122689 31082 net.cpp:409] loss -> loss
I0507 03:23:26.122696 31082 layer_factory.hpp:77] Creating layer loss
…
I0507 03:23:26.124035 31082 solver.cpp:181] Creating test net (#0) specified by net file: ./protocol/dis_50_100_dimension.protocol_distribution
I0507 03:23:26.124063 31082 net.cpp:323] The NetState phase (1) differed from the phase (0) specified by a rule in layer parameters
I0507 03:23:26.124155 31082 net.cpp:52] Initializing net from parameters: 
state {
  phase: TEST
}
layer {
  name: "intercept"
  type: "HDF5Data"
  top: "data"
  top: "label"
  include {
    phase: TEST
  }
  hdf5_data_param {
    source: "/home/purduethu/scratch/radon/d/deng106/CNNStatisticalModel/distributions/input/50_distributions_100_sample_size_test-distributions-path.txt"
    batch_size: 20
  }
}
layer {
  name: "conv1"
  type: "Convolution"
  bottom: "data"
  top: "conv1"
  param {
    lr_mult: 1
  }
  param {
    lr_mult: 2
  }
  convolution_param {
    num_output: 64
    pad: 2
    kernel_size: 5
    stride: 1
    weight_filler {
      type: "gaussian"
      std: 0.0001
    }
    bias_filler {
      type: "constant"
    }
  }
}
layer {
  name: "relu1"
  type: "ReLU"
  bottom: "conv1"
  top: "conv1"
}
layer {
  name: "conv2"
  type: "Convolution"
  bottom: "conv1"
  top: "conv2"
  param {
    lr_mult: 1
  }
  param {
    lr_mult: 2
  }
  convolution_param {
    num_output: 64
    pad: 2
    kernel_size: 5
    stride: 1
    weight_filler {
      type: "gaussian"
      std: 0.01
    }
    bias_filler {
      type: "constant"
    }
  }
}
layer {
  name: "relu2"
  type: "ReLU"
  bottom: "conv2"
  top: "conv2"
}
layer {
  name: "pool2"
  type: "Pooling"
  bottom: "conv2"
  top: "pool2"
  pooling_param {
    pool: MAX
    kernel_size: 3
    stride: 2
  }
}
layer {
  name: "conv3"
  type: "Convolution"
  bottom: "pool2"
  top: "conv3"
  param {
    lr_mult: 1
  }
  param {
    lr_mult: 2
  }
  convolution_param {
    num_output: 64
    pad: 2
    kernel_size: 5
    stride: 1
    weight_filler {
      type: "gaussian"
      std: 0.01
    }
    bias_filler {
      type: "constant"
    }
  }
}
layer {
  name: "relu3"
  type: "ReLU"
  bottom: "conv3"
  top: "conv3"
}
layer {
  name: "conv4"
  type: "Convolution"
  bottom: "conv3"
  top: "conv4"
  param {
    lr_mult: 1
  }
  param {
    lr_mult: 2
  }
  convolution_param {
    num_output: 64
    pad: 2
    kernel_size: 5
    stride: 1
    weight_filler {
      type: "gaussian"
      std: 0.01
    }
    bias_filler {
      type: "constant"
    }
  }
}
layer {
  name: "relu4"
  type: "ReLU"
  bottom: "conv4"
  top: "conv4"
}
layer {
  name: "conv5"
  type: "Convolution"
  bottom: "conv4"
  top: "conv5"
  param {
    lr_mult: 1
  }
  param {
    lr_mult: 2
  }
  convolution_param {
    num_output: 64
    pad: 2
    kernel_size: 5
    stride: 1
    weight_filler {
      type: "gaussian"
      std: 0.01
    }
    bias_filler {
      type: "constant"
    }
  }
}
layer {
  name: "relu5"
  type: "ReLU"
  bottom: "conv5"
  top: "conv5"
}
layer {
  name: "pool5"
  type: "Pooling"
  bottom: "conv5"
  top: "pool5"
  pooling_param {
    pool: AVE
    kernel_size: 3
    stride: 2
  }
}
layer {
  name: "ip1"
  type: "InnerProduct"
  bottom: "pool5"
  top: "ip1"
  param {
    lr_mult: 1
  }
  param {
    lr_mult: 2
  }
  inner_product_param {
    num_output: 64
    weight_filler {
      type: "gaussian"
      std: 0.1
    }
    bias_filler {
      type: "constant"
    }
  }
}
layer {
  name: "ip2"
  type: "InnerProduct"
  bottom: "ip1"
  top: "ip2"
  param {
    lr_mult: 1
  }
  param {
    lr_mult: 2
  }
  inner_product_param {
    num_output: 64
    weight_filler {
      type: "gaussian"
      std: 0.1
    }
    bias_filler {
      type: "constant"
    }
  }
}
layer {
  name: "ip3"
  type: "InnerProduct"
  bottom: "ip2"
  top: "ip3"
  param {
    lr_mult: 1
  }
  param {
    lr_mult: 2
  }
  inner_product_param {
    num_output: 50
    weight_filler {
      type: "gaussian"
      std: 0.1
    }
    bias_filler {
      type: "constant"
    }
  }
}
layer {
  name: "accuracy"
  type: "Accuracy"
  bottom: "ip3"
  bottom: "label"
  top: "accuracy"
  include {
    phase: TEST
  }
}
layer {
  name: "loss"
  type: "SoftmaxWithLoss"
  bottom: "ip3"
  bottom: "label"
  top: "loss"
}
I0507 03:23:26.124218 31082 layer_factory.hpp:77] Creating layer intercept
I0507 03:23:26.124228 31082 net.cpp:94] Creating Layer intercept
I0507 03:23:26.124231 31082 net.cpp:409] intercept -> data
I0507 03:23:26.124238 31082 net.cpp:409] intercept -> label
I0507 03:23:26.124244 31082 hdf5_data_layer.cpp:79] Loading list of HDF5 filenames from: /home/purduethu/scratch/radon/d/deng106/CNNStatisticalModel/distributions/input/50_distributions_100_sample_size_test-distributions-path.txt
I0507 03:23:26.124264 31082 hdf5_data_layer.cpp:93] Number of HDF5 files: 1
I0507 03:23:26.165531 31082 net.cpp:144] Setting up intercept
I0507 03:23:26.165563 31082 net.cpp:151] Top shape: 20 1 10 10 (2000)
I0507 03:23:26.165568 31082 net.cpp:151] Top shape: 20 (20)
I0507 03:23:26.165572 31082 net.cpp:159] Memory required for data: 8080
I0507 03:23:26.165578 31082 layer_factory.hpp:77] Creating layer label_intercept_1_split
I0507 03:23:26.165598 31082 net.cpp:94] Creating Layer label_intercept_1_split
I0507 03:23:26.165602 31082 net.cpp:435] label_intercept_1_split <- label
I0507 03:23:26.165608 31082 net.cpp:409] label_intercept_1_split -> label_intercept_1_split_0
I0507 03:23:26.165617 31082 net.cpp:409] label_intercept_1_split -> label_intercept_1_split_1
I0507 03:23:26.165660 31082 net.cpp:144] Setting up label_intercept_1_split
I0507 03:23:26.165668 31082 net.cpp:151] Top shape: 20 (20)
I0507 03:23:26.165670 31082 net.cpp:151] Top shape: 20 (20)
I0507 03:23:26.165673 31082 net.cpp:159] Memory required for data: 8240
I0507 03:23:26.165678 31082 layer_factory.hpp:77] Creating layer conv1
I0507 03:23:26.165688 31082 net.cpp:94] Creating Layer conv1
I0507 03:23:26.165693 31082 net.cpp:435] conv1 <- data
I0507 03:23:26.165698 31082 net.cpp:409] conv1 -> conv1
I0507 03:23:26.166496 31082 net.cpp:144] Setting up conv1
I0507 03:23:26.166509 31082 net.cpp:151] Top shape: 20 64 10 10 (128000)
I0507 03:23:26.166512 31082 net.cpp:159] Memory required for data: 520240
I0507 03:23:26.166522 31082 layer_factory.hpp:77] Creating layer relu1
I0507 03:23:26.166529 31082 net.cpp:94] Creating Layer relu1
I0507 03:23:26.166533 31082 net.cpp:435] relu1 <- conv1
I0507 03:23:26.166538 31082 net.cpp:396] relu1 -> conv1 (in-place)
I0507 03:23:26.166544 31082 net.cpp:144] Setting up relu1
I0507 03:23:26.166548 31082 net.cpp:151] Top shape: 20 64 10 10 (128000)
I0507 03:23:26.166551 31082 net.cpp:159] Memory required for data: 1032240
I0507 03:23:26.166563 31082 layer_factory.hpp:77] Creating layer conv2
I0507 03:23:26.166571 31082 net.cpp:94] Creating Layer conv2
I0507 03:23:26.166574 31082 net.cpp:435] conv2 <- conv1
I0507 03:23:26.166579 31082 net.cpp:409] conv2 -> conv2
I0507 03:23:26.170636 31082 net.cpp:144] Setting up conv2
I0507 03:23:26.170650 31082 net.cpp:151] Top shape: 20 64 10 10 (128000)
I0507 03:23:26.170653 31082 net.cpp:159] Memory required for data: 1544240
I0507 03:23:26.170661 31082 layer_factory.hpp:77] Creating layer relu2
I0507 03:23:26.170667 31082 net.cpp:94] Creating Layer relu2
I0507 03:23:26.170670 31082 net.cpp:435] relu2 <- conv2
I0507 03:23:26.170675 31082 net.cpp:396] relu2 -> conv2 (in-place)
I0507 03:23:26.170682 31082 net.cpp:144] Setting up relu2
I0507 03:23:26.170686 31082 net.cpp:151] Top shape: 20 64 10 10 (128000)
I0507 03:23:26.170689 31082 net.cpp:159] Memory required for data: 2056240
I0507 03:23:26.170692 31082 layer_factory.hpp:77] Creating layer pool2
I0507 03:23:26.170699 31082 net.cpp:94] Creating Layer pool2
I0507 03:23:26.170703 31082 net.cpp:435] pool2 <- conv2
I0507 03:23:26.170707 31082 net.cpp:409] pool2 -> pool2
I0507 03:23:26.170764 31082 net.cpp:144] Setting up pool2
I0507 03:23:26.170771 31082 net.cpp:151] Top shape: 20 64 5 5 (32000)
I0507 03:23:26.170774 31082 net.cpp:159] Memory required for data: 2184240
I0507 03:23:26.170778 31082 layer_factory.hpp:77] Creating layer conv3
I0507 03:23:26.170786 31082 net.cpp:94] Creating Layer conv3
I0507 03:23:26.170790 31082 net.cpp:435] conv3 <- pool2
I0507 03:23:26.170795 31082 net.cpp:409] conv3 -> conv3
I0507 03:23:26.175150 31082 net.cpp:144] Setting up conv3
I0507 03:23:26.175163 31082 net.cpp:151] Top shape: 20 64 5 5 (32000)
I0507 03:23:26.175168 31082 net.cpp:159] Memory required for data: 2312240
I0507 03:23:26.175175 31082 layer_factory.hpp:77] Creating layer relu3
I0507 03:23:26.175184 31082 net.cpp:94] Creating Layer relu3
I0507 03:23:26.175187 31082 net.cpp:435] relu3 <- conv3
I0507 03:23:26.175192 31082 net.cpp:396] relu3 -> conv3 (in-place)
I0507 03:23:26.175199 31082 net.cpp:144] Setting up relu3
I0507 03:23:26.175204 31082 net.cpp:151] Top shape: 20 64 5 5 (32000)
I0507 03:23:26.175206 31082 net.cpp:159] Memory required for data: 2440240
I0507 03:23:26.175209 31082 layer_factory.hpp:77] Creating layer conv4
I0507 03:23:26.175218 31082 net.cpp:94] Creating Layer conv4
I0507 03:23:26.175222 31082 net.cpp:435] conv4 <- conv3
I0507 03:23:26.175226 31082 net.cpp:409] conv4 -> conv4
I0507 03:23:26.178732 31082 net.cpp:144] Setting up conv4
I0507 03:23:26.178745 31082 net.cpp:151] Top shape: 20 64 5 5 (32000)
I0507 03:23:26.178748 31082 net.cpp:159] Memory required for data: 2568240
I0507 03:23:26.178755 31082 layer_factory.hpp:77] Creating layer relu4
I0507 03:23:26.178762 31082 net.cpp:94] Creating Layer relu4
I0507 03:23:26.178766 31082 net.cpp:435] relu4 <- conv4
I0507 03:23:26.178771 31082 net.cpp:396] relu4 -> conv4 (in-place)
I0507 03:23:26.178776 31082 net.cpp:144] Setting up relu4
I0507 03:23:26.178781 31082 net.cpp:151] Top shape: 20 64 5 5 (32000)
I0507 03:23:26.178783 31082 net.cpp:159] Memory required for data: 2696240
I0507 03:23:26.178787 31082 layer_factory.hpp:77] Creating layer conv5
I0507 03:23:26.178795 31082 net.cpp:94] Creating Layer conv5
I0507 03:23:26.178798 31082 net.cpp:435] conv5 <- conv4
I0507 03:23:26.178804 31082 net.cpp:409] conv5 -> conv5
I0507 03:23:26.182744 31082 net.cpp:144] Setting up conv5
I0507 03:23:26.182757 31082 net.cpp:151] Top shape: 20 64 5 5 (32000)
I0507 03:23:26.182761 31082 net.cpp:159] Memory required for data: 2824240
I0507 03:23:26.182770 31082 layer_factory.hpp:77] Creating layer relu5
I0507 03:23:26.182775 31082 net.cpp:94] Creating Layer relu5
I0507 03:23:26.182780 31082 net.cpp:435] relu5 <- conv5
I0507 03:23:26.182785 31082 net.cpp:396] relu5 -> conv5 (in-place)
I0507 03:23:26.182792 31082 net.cpp:144] Setting up relu5
I0507 03:23:26.182796 31082 net.cpp:151] Top shape: 20 64 5 5 (32000)
I0507 03:23:26.182799 31082 net.cpp:159] Memory required for data: 2952240
I0507 03:23:26.182806 31082 layer_factory.hpp:77] Creating layer pool5
I0507 03:23:26.182812 31082 net.cpp:94] Creating Layer pool5
I0507 03:23:26.182816 31082 net.cpp:435] pool5 <- conv5
I0507 03:23:26.182821 31082 net.cpp:409] pool5 -> pool5
I0507 03:23:26.182860 31082 net.cpp:144] Setting up pool5
I0507 03:23:26.182867 31082 net.cpp:151] Top shape: 20 64 2 2 (5120)
I0507 03:23:26.182869 31082 net.cpp:159] Memory required for data: 2972720
I0507 03:23:26.182873 31082 layer_factory.hpp:77] Creating layer ip1
I0507 03:23:26.182880 31082 net.cpp:94] Creating Layer ip1
I0507 03:23:26.182884 31082 net.cpp:435] ip1 <- pool5
I0507 03:23:26.182888 31082 net.cpp:409] ip1 -> ip1
I0507 03:23:26.183416 31082 net.cpp:144] Setting up ip1
I0507 03:23:26.183423 31082 net.cpp:151] Top shape: 20 64 (1280)
I0507 03:23:26.183426 31082 net.cpp:159] Memory required for data: 2977840
I0507 03:23:26.183432 31082 layer_factory.hpp:77] Creating layer ip2
I0507 03:23:26.183439 31082 net.cpp:94] Creating Layer ip2
I0507 03:23:26.183444 31082 net.cpp:435] ip2 <- ip1
I0507 03:23:26.183449 31082 net.cpp:409] ip2 -> ip2
I0507 03:23:26.183676 31082 net.cpp:144] Setting up ip2
I0507 03:23:26.183683 31082 net.cpp:151] Top shape: 20 64 (1280)
I0507 03:23:26.183686 31082 net.cpp:159] Memory required for data: 2982960
I0507 03:23:26.183691 31082 layer_factory.hpp:77] Creating layer ip3
I0507 03:23:26.183699 31082 net.cpp:94] Creating Layer ip3
I0507 03:23:26.183702 31082 net.cpp:435] ip3 <- ip2
I0507 03:23:26.183708 31082 net.cpp:409] ip3 -> ip3
I0507 03:23:26.183908 31082 net.cpp:144] Setting up ip3
I0507 03:23:26.183915 31082 net.cpp:151] Top shape: 20 50 (1000)
I0507 03:23:26.183918 31082 net.cpp:159] Memory required for data: 2986960
I0507 03:23:26.183923 31082 layer_factory.hpp:77] Creating layer ip3_ip3_0_split
I0507 03:23:26.183928 31082 net.cpp:94] Creating Layer ip3_ip3_0_split
I0507 03:23:26.183931 31082 net.cpp:435] ip3_ip3_0_split <- ip3
I0507 03:23:26.183936 31082 net.cpp:409] ip3_ip3_0_split -> ip3_ip3_0_split_0
I0507 03:23:26.183943 31082 net.cpp:409] ip3_ip3_0_split -> ip3_ip3_0_split_1
I0507 03:23:26.183984 31082 net.cpp:144] Setting up ip3_ip3_0_split
I0507 03:23:26.183990 31082 net.cpp:151] Top shape: 20 50 (1000)
I0507 03:23:26.183992 31082 net.cpp:151] Top shape: 20 50 (1000)
I0507 03:23:26.183995 31082 net.cpp:159] Memory required for data: 2994960
I0507 03:23:26.184000 31082 layer_factory.hpp:77] Creating layer accuracy
I0507 03:23:26.184005 31082 net.cpp:94] Creating Layer accuracy
I0507 03:23:26.184008 31082 net.cpp:435] accuracy <- ip3_ip3_0_split_0
I0507 03:23:26.184012 31082 net.cpp:435] accuracy <- label_intercept_1_split_0
I0507 03:23:26.184016 31082 net.cpp:409] accuracy -> accuracy
…
