…
I0506 12:01:16.059911 21404 net.cpp:323] The NetState phase (0) differed from the phase (1) specified by a rule in layer intercept
I0506 12:01:16.059926 21404 net.cpp:323] The NetState phase (0) differed from the phase (1) specified by a rule in layer loss
I0506 12:01:16.060009 21404 net.cpp:52] Initializing net from parameters: 
state {
  phase: TRAIN
}
layer {
  name: "parameters"
  type: "HDF5Data"
  top: "data"
  top: "label"
  include {
    phase: TRAIN
  }
  hdf5_data_param {
    source: "/home/purduethu/scratch/radon/d/deng106/CNNStatisticalModel/distributions/input/50_distributions_100_sample_size_train-parameters-path.txt"
    batch_size: 20
  }
}
layer {
  name: "conv1"
  type: "Convolution"
  bottom: "data"
  top: "conv1"
  param {
    lr_mult: 1
  }
  param {
    lr_mult: 2
  }
  convolution_param {
    num_output: 64
    pad: 2
    kernel_size: 5
    stride: 1
    weight_filler {
      type: "gaussian"
      std: 0.0001
    }
    bias_filler {
      type: "constant"
    }
  }
}
layer {
  name: "relu1"
  type: "ReLU"
  bottom: "conv1"
  top: "conv1"
}
layer {
  name: "conv2"
  type: "Convolution"
  bottom: "conv1"
  top: "conv2"
  param {
    lr_mult: 1
  }
  param {
    lr_mult: 2
  }
  convolution_param {
    num_output: 64
    pad: 2
    kernel_size: 5
    stride: 1
    weight_filler {
      type: "gaussian"
      std: 0.01
    }
    bias_filler {
      type: "constant"
    }
  }
}
layer {
  name: "relu2"
  type: "ReLU"
  bottom: "conv2"
  top: "conv2"
}
layer {
  name: "pool2"
  type: "Pooling"
  bottom: "conv2"
  top: "pool2"
  pooling_param {
    pool: MAX
    kernel_size: 3
    stride: 2
  }
}
layer {
  name: "conv3"
  type: "Convolution"
  bottom: "pool2"
  top: "conv3"
  param {
    lr_mult: 1
  }
  param {
    lr_mult: 2
  }
  convolution_param {
    num_output: 128
    pad: 2
    kernel_size: 5
    stride: 1
    weight_filler {
      type: "gaussian"
      std: 0.01
    }
    bias_filler {
      type: "constant"
    }
  }
}
layer {
  name: "relu3"
  type: "ReLU"
  bottom: "conv3"
  top: "conv3"
}
layer {
  name: "conv4"
  type: "Convolution"
  bottom: "conv3"
  top: "conv4"
  param {
    lr_mult: 1
  }
  param {
    lr_mult: 2
  }
  convolution_param {
    num_output: 128
    pad: 2
    kernel_size: 5
    stride: 1
    weight_filler {
      type: "gaussian"
      std: 0.01
    }
    bias_filler {
      type: "constant"
    }
  }
}
layer {
  name: "relu4"
  type: "ReLU"
  bottom: "conv4"
  top: "conv4"
}
layer {
  name: "conv5"
  type: "Convolution"
  bottom: "conv4"
  top: "conv5"
  param {
    lr_mult: 1
  }
  param {
    lr_mult: 2
  }
  convolution_param {
    num_output: 128
    pad: 2
    kernel_size: 5
    stride: 1
    weight_filler {
      type: "gaussian"
      std: 0.01
    }
    bias_filler {
      type: "constant"
    }
  }
}
layer {
  name: "relu5"
  type: "ReLU"
  bottom: "conv5"
  top: "conv5"
}
layer {
  name: "pool5"
  type: "Pooling"
  bottom: "conv5"
  top: "pool5"
  pooling_param {
    pool: AVE
    kernel_size: 3
    stride: 2
  }
}
layer {
  name: "ip1"
  type: "InnerProduct"
  bottom: "pool5"
  top: "ip1"
  param {
    lr_mult: 1
  }
  param {
    lr_mult: 2
  }
  inner_product_param {
    num_output: 1024
    weight_filler {
      type: "gaussian"
      std: 0.1
    }
    bias_filler {
      type: "constant"
    }
  }
}
layer {
  name: "ip2"
  type: "InnerProduct"
  bottom: "ip1"
  top: "ip2"
  param {
    lr_mult: 1
  }
  param {
    lr_mult: 2
  }
  inner_product_param {
    num_output: 512
    weight_filler {
      type: "gaussian"
      std: 0.1
    }
    bias_filler {
      type: "constant"
    }
  }
}
layer {
  name: "ip3"
  type: "InnerProduct"
  bottom: "ip2"
  top: "ip3"
  param {
    lr_mult: 1
  }
  param {
    lr_mult: 2
  }
  inner_product_param {
    num_output: 1
    weight_filler {
      type: "gaussian"
      std: 0.1
    }
    bias_filler {
      type: "constant"
    }
  }
}
layer {
  name: "loss"
  type: "HuberLoss"
  bottom: "ip3"
  bottom: "label"
  top: "loss"
  include {
    phase: TRAIN
  }
}
I0506 12:01:16.060061 21404 layer_factory.hpp:77] Creating layer parameters
I0506 12:01:16.060078 21404 net.cpp:94] Creating Layer parameters
I0506 12:01:16.060083 21404 net.cpp:409] parameters -> data
I0506 12:01:16.060092 21404 net.cpp:409] parameters -> label
I0506 12:01:16.060098 21404 hdf5_data_layer.cpp:79] Loading list of HDF5 filenames from: /home/purduethu/scratch/radon/d/deng106/CNNStatisticalModel/distributions/input/50_distributions_100_sample_size_train-parameters-path.txt
I0506 12:01:16.060113 21404 hdf5_data_layer.cpp:93] Number of HDF5 files: 1
I0506 12:01:16.060642 21404 hdf5.cpp:32] Datatype class: H5T_FLOAT
I0506 12:01:16.221010 21404 net.cpp:144] Setting up parameters
I0506 12:01:16.221040 21404 net.cpp:151] Top shape: 20 1 10 10 (2000)
I0506 12:01:16.221045 21404 net.cpp:151] Top shape: 20 (20)
I0506 12:01:16.221050 21404 net.cpp:159] Memory required for data: 8080
I0506 12:01:16.221055 21404 layer_factory.hpp:77] Creating layer conv1
I0506 12:01:16.221077 21404 net.cpp:94] Creating Layer conv1
I0506 12:01:16.221083 21404 net.cpp:435] conv1 <- data
I0506 12:01:16.221089 21404 net.cpp:409] conv1 -> conv1
I0506 12:01:16.225152 21404 net.cpp:144] Setting up conv1
I0506 12:01:16.225165 21404 net.cpp:151] Top shape: 20 64 10 10 (128000)
I0506 12:01:16.225169 21404 net.cpp:159] Memory required for data: 520080
I0506 12:01:16.225179 21404 layer_factory.hpp:77] Creating layer relu1
I0506 12:01:16.225186 21404 net.cpp:94] Creating Layer relu1
I0506 12:01:16.225190 21404 net.cpp:435] relu1 <- conv1
I0506 12:01:16.225194 21404 net.cpp:396] relu1 -> conv1 (in-place)
I0506 12:01:16.225205 21404 net.cpp:144] Setting up relu1
I0506 12:01:16.225210 21404 net.cpp:151] Top shape: 20 64 10 10 (128000)
I0506 12:01:16.225214 21404 net.cpp:159] Memory required for data: 1032080
I0506 12:01:16.225216 21404 layer_factory.hpp:77] Creating layer conv2
I0506 12:01:16.225224 21404 net.cpp:94] Creating Layer conv2
I0506 12:01:16.225229 21404 net.cpp:435] conv2 <- conv1
I0506 12:01:16.225234 21404 net.cpp:409] conv2 -> conv2
I0506 12:01:16.231292 21404 net.cpp:144] Setting up conv2
I0506 12:01:16.231305 21404 net.cpp:151] Top shape: 20 64 10 10 (128000)
I0506 12:01:16.231309 21404 net.cpp:159] Memory required for data: 1544080
I0506 12:01:16.231317 21404 layer_factory.hpp:77] Creating layer relu2
I0506 12:01:16.231324 21404 net.cpp:94] Creating Layer relu2
I0506 12:01:16.231328 21404 net.cpp:435] relu2 <- conv2
I0506 12:01:16.231333 21404 net.cpp:396] relu2 -> conv2 (in-place)
I0506 12:01:16.231339 21404 net.cpp:144] Setting up relu2
I0506 12:01:16.231343 21404 net.cpp:151] Top shape: 20 64 10 10 (128000)
I0506 12:01:16.231346 21404 net.cpp:159] Memory required for data: 2056080
I0506 12:01:16.231349 21404 layer_factory.hpp:77] Creating layer pool2
I0506 12:01:16.231355 21404 net.cpp:94] Creating Layer pool2
I0506 12:01:16.231359 21404 net.cpp:435] pool2 <- conv2
I0506 12:01:16.231364 21404 net.cpp:409] pool2 -> pool2
I0506 12:01:16.231413 21404 net.cpp:144] Setting up pool2
I0506 12:01:16.231421 21404 net.cpp:151] Top shape: 20 64 5 5 (32000)
I0506 12:01:16.231425 21404 net.cpp:159] Memory required for data: 2184080
I0506 12:01:16.231427 21404 layer_factory.hpp:77] Creating layer conv3
I0506 12:01:16.231436 21404 net.cpp:94] Creating Layer conv3
I0506 12:01:16.231444 21404 net.cpp:435] conv3 <- pool2
I0506 12:01:16.231451 21404 net.cpp:409] conv3 -> conv3
I0506 12:01:16.239660 21404 net.cpp:144] Setting up conv3
I0506 12:01:16.239673 21404 net.cpp:151] Top shape: 20 128 5 5 (64000)
I0506 12:01:16.239677 21404 net.cpp:159] Memory required for data: 2440080
I0506 12:01:16.239686 21404 layer_factory.hpp:77] Creating layer relu3
I0506 12:01:16.239691 21404 net.cpp:94] Creating Layer relu3
I0506 12:01:16.239696 21404 net.cpp:435] relu3 <- conv3
I0506 12:01:16.239699 21404 net.cpp:396] relu3 -> conv3 (in-place)
I0506 12:01:16.239706 21404 net.cpp:144] Setting up relu3
I0506 12:01:16.239711 21404 net.cpp:151] Top shape: 20 128 5 5 (64000)
I0506 12:01:16.239714 21404 net.cpp:159] Memory required for data: 2696080
I0506 12:01:16.239717 21404 layer_factory.hpp:77] Creating layer conv4
I0506 12:01:16.239725 21404 net.cpp:94] Creating Layer conv4
I0506 12:01:16.239728 21404 net.cpp:435] conv4 <- conv3
I0506 12:01:16.239733 21404 net.cpp:409] conv4 -> conv4
I0506 12:01:16.254727 21404 net.cpp:144] Setting up conv4
I0506 12:01:16.254741 21404 net.cpp:151] Top shape: 20 128 5 5 (64000)
I0506 12:01:16.254745 21404 net.cpp:159] Memory required for data: 2952080
I0506 12:01:16.254752 21404 layer_factory.hpp:77] Creating layer relu4
I0506 12:01:16.254757 21404 net.cpp:94] Creating Layer relu4
I0506 12:01:16.254761 21404 net.cpp:435] relu4 <- conv4
I0506 12:01:16.254766 21404 net.cpp:396] relu4 -> conv4 (in-place)
I0506 12:01:16.254773 21404 net.cpp:144] Setting up relu4
I0506 12:01:16.254777 21404 net.cpp:151] Top shape: 20 128 5 5 (64000)
I0506 12:01:16.254781 21404 net.cpp:159] Memory required for data: 3208080
I0506 12:01:16.254783 21404 layer_factory.hpp:77] Creating layer conv5
I0506 12:01:16.254791 21404 net.cpp:94] Creating Layer conv5
I0506 12:01:16.254794 21404 net.cpp:435] conv5 <- conv4
I0506 12:01:16.254799 21404 net.cpp:409] conv5 -> conv5
I0506 12:01:16.269153 21404 net.cpp:144] Setting up conv5
I0506 12:01:16.269168 21404 net.cpp:151] Top shape: 20 128 5 5 (64000)
I0506 12:01:16.269171 21404 net.cpp:159] Memory required for data: 3464080
I0506 12:01:16.269181 21404 layer_factory.hpp:77] Creating layer relu5
I0506 12:01:16.269186 21404 net.cpp:94] Creating Layer relu5
I0506 12:01:16.269189 21404 net.cpp:435] relu5 <- conv5
I0506 12:01:16.269194 21404 net.cpp:396] relu5 -> conv5 (in-place)
I0506 12:01:16.269201 21404 net.cpp:144] Setting up relu5
I0506 12:01:16.269207 21404 net.cpp:151] Top shape: 20 128 5 5 (64000)
I0506 12:01:16.269208 21404 net.cpp:159] Memory required for data: 3720080
I0506 12:01:16.269212 21404 layer_factory.hpp:77] Creating layer pool5
I0506 12:01:16.269217 21404 net.cpp:94] Creating Layer pool5
I0506 12:01:16.269220 21404 net.cpp:435] pool5 <- conv5
I0506 12:01:16.269224 21404 net.cpp:409] pool5 -> pool5
I0506 12:01:16.269261 21404 net.cpp:144] Setting up pool5
I0506 12:01:16.269269 21404 net.cpp:151] Top shape: 20 128 2 2 (10240)
I0506 12:01:16.269273 21404 net.cpp:159] Memory required for data: 3761040
I0506 12:01:16.269275 21404 layer_factory.hpp:77] Creating layer ip1
I0506 12:01:16.269284 21404 net.cpp:94] Creating Layer ip1
I0506 12:01:16.269289 21404 net.cpp:435] ip1 <- pool5
I0506 12:01:16.269294 21404 net.cpp:409] ip1 -> ip1
I0506 12:01:16.283072 21404 net.cpp:144] Setting up ip1
I0506 12:01:16.283087 21404 net.cpp:151] Top shape: 20 1024 (20480)
I0506 12:01:16.283090 21404 net.cpp:159] Memory required for data: 3842960
I0506 12:01:16.283097 21404 layer_factory.hpp:77] Creating layer ip2
I0506 12:01:16.283103 21404 net.cpp:94] Creating Layer ip2
I0506 12:01:16.283107 21404 net.cpp:435] ip2 <- ip1
I0506 12:01:16.283113 21404 net.cpp:409] ip2 -> ip2
I0506 12:01:16.296126 21404 net.cpp:144] Setting up ip2
I0506 12:01:16.296139 21404 net.cpp:151] Top shape: 20 512 (10240)
I0506 12:01:16.296144 21404 net.cpp:159] Memory required for data: 3883920
I0506 12:01:16.296149 21404 layer_factory.hpp:77] Creating layer ip3
I0506 12:01:16.296156 21404 net.cpp:94] Creating Layer ip3
I0506 12:01:16.296159 21404 net.cpp:435] ip3 <- ip2
I0506 12:01:16.296170 21404 net.cpp:409] ip3 -> ip3
I0506 12:01:16.296281 21404 net.cpp:144] Setting up ip3
I0506 12:01:16.296289 21404 net.cpp:151] Top shape: 20 1 (20)
I0506 12:01:16.296293 21404 net.cpp:159] Memory required for data: 3884000
I0506 12:01:16.296298 21404 layer_factory.hpp:77] Creating layer loss
I0506 12:01:16.296304 21404 net.cpp:94] Creating Layer loss
I0506 12:01:16.296308 21404 net.cpp:435] loss <- ip3
I0506 12:01:16.296311 21404 net.cpp:435] loss <- label
I0506 12:01:16.296315 21404 net.cpp:409] loss -> loss
I0506 12:01:16.296363 21404 net.cpp:144] Setting up loss
…
I0506 12:01:16.402423 21404 net.cpp:323] The NetState phase (0) differed from the phase (1) specified by a rule in layer intercept
I0506 12:01:16.402441 21404 net.cpp:323] The NetState phase (0) differed from the phase (1) specified by a rule in layer accuracy
I0506 12:01:16.402529 21404 net.cpp:52] Initializing net from parameters: 
state {
  phase: TRAIN
}
layer {
  name: "parameters"
  type: "HDF5Data"
  top: "data"
  top: "label"
  include {
    phase: TRAIN
  }
  hdf5_data_param {
    source: "/home/purduethu/scratch/radon/d/deng106/CNNStatisticalModel/distributions/input/50_distributions_100_sample_size_train-distributions-path.txt"
    batch_size: 20
  }
}
layer {
  name: "conv1"
  type: "Convolution"
  bottom: "data"
  top: "conv1"
  param {
    lr_mult: 1
  }
  param {
    lr_mult: 2
  }
  convolution_param {
    num_output: 64
    pad: 2
    kernel_size: 5
    stride: 1
    weight_filler {
      type: "gaussian"
      std: 0.0001
    }
    bias_filler {
      type: "constant"
    }
  }
}
layer {
  name: "relu1"
  type: "ReLU"
  bottom: "conv1"
  top: "conv1"
}
layer {
  name: "conv2"
  type: "Convolution"
  bottom: "conv1"
  top: "conv2"
  param {
    lr_mult: 1
  }
  param {
    lr_mult: 2
  }
  convolution_param {
    num_output: 64
    pad: 2
    kernel_size: 5
    stride: 1
    weight_filler {
      type: "gaussian"
      std: 0.01
    }
    bias_filler {
      type: "constant"
    }
  }
}
layer {
  name: "relu2"
  type: "ReLU"
  bottom: "conv2"
  top: "conv2"
}
layer {
  name: "pool2"
  type: "Pooling"
  bottom: "conv2"
  top: "pool2"
  pooling_param {
    pool: MAX
    kernel_size: 3
    stride: 2
  }
}
layer {
  name: "conv3"
  type: "Convolution"
  bottom: "pool2"
  top: "conv3"
  param {
    lr_mult: 1
  }
  param {
    lr_mult: 2
  }
  convolution_param {
    num_output: 128
    pad: 2
    kernel_size: 5
    stride: 1
    weight_filler {
      type: "gaussian"
      std: 0.01
    }
    bias_filler {
      type: "constant"
    }
  }
}
layer {
  name: "relu3"
  type: "ReLU"
  bottom: "conv3"
  top: "conv3"
}
layer {
  name: "conv4"
  type: "Convolution"
  bottom: "conv3"
  top: "conv4"
  param {
    lr_mult: 1
  }
  param {
    lr_mult: 2
  }
  convolution_param {
    num_output: 128
    pad: 2
    kernel_size: 5
    stride: 1
    weight_filler {
      type: "gaussian"
      std: 0.01
    }
    bias_filler {
      type: "constant"
    }
  }
}
layer {
  name: "relu4"
  type: "ReLU"
  bottom: "conv4"
  top: "conv4"
}
layer {
  name: "conv5"
  type: "Convolution"
  bottom: "conv4"
  top: "conv5"
  param {
    lr_mult: 1
  }
  param {
    lr_mult: 2
  }
  convolution_param {
    num_output: 128
    pad: 2
    kernel_size: 5
    stride: 1
    weight_filler {
      type: "gaussian"
      std: 0.01
    }
    bias_filler {
      type: "constant"
    }
  }
}
layer {
  name: "relu5"
  type: "ReLU"
  bottom: "conv5"
  top: "conv5"
}
layer {
  name: "pool5"
  type: "Pooling"
  bottom: "conv5"
  top: "pool5"
  pooling_param {
    pool: AVE
    kernel_size: 3
    stride: 2
  }
}
layer {
  name: "ip1"
  type: "InnerProduct"
  bottom: "pool5"
  top: "ip1"
  param {
    lr_mult: 1
  }
  param {
    lr_mult: 2
  }
  inner_product_param {
    num_output: 1024
    weight_filler {
      type: "gaussian"
      std: 0.1
    }
    bias_filler {
      type: "constant"
    }
  }
}
layer {
  name: "ip2"
  type: "InnerProduct"
  bottom: "ip1"
  top: "ip2"
  param {
    lr_mult: 1
  }
  param {
    lr_mult: 2
  }
  inner_product_param {
    num_output: 512
    weight_filler {
      type: "gaussian"
      std: 0.1
    }
    bias_filler {
      type: "constant"
    }
  }
}
layer {
  name: "ip3"
  type: "InnerProduct"
  bottom: "ip2"
  top: "ip3"
  param {
    lr_mult: 1
  }
  param {
    lr_mult: 2
  }
  inner_product_param {
    num_output: 50
    weight_filler {
      type: "gaussian"
      std: 0.1
    }
    bias_filler {
      type: "constant"
    }
  }
}
layer {
  name: "loss"
  type: "SoftmaxWithLoss"
  bottom: "ip3"
  bottom: "label"
  top: "loss"
}
I0506 12:01:16.402580 21404 layer_factory.hpp:77] Creating layer parameters
I0506 12:01:16.402588 21404 net.cpp:94] Creating Layer parameters
I0506 12:01:16.402592 21404 net.cpp:409] parameters -> data
I0506 12:01:16.402598 21404 net.cpp:409] parameters -> label
I0506 12:01:16.402604 21404 hdf5_data_layer.cpp:79] Loading list of HDF5 filenames from: /home/purduethu/scratch/radon/d/deng106/CNNStatisticalModel/distributions/input/50_distributions_100_sample_size_train-distributions-path.txt
I0506 12:01:16.402621 21404 hdf5_data_layer.cpp:93] Number of HDF5 files: 1
I0506 12:01:16.557222 21404 hdf5.cpp:35] Datatype class: H5T_INTEGER
I0506 12:01:16.560320 21404 net.cpp:144] Setting up parameters
I0506 12:01:16.560346 21404 net.cpp:151] Top shape: 20 1 10 10 (2000)
I0506 12:01:16.560351 21404 net.cpp:151] Top shape: 20 (20)
I0506 12:01:16.560354 21404 net.cpp:159] Memory required for data: 8080
I0506 12:01:16.560361 21404 layer_factory.hpp:77] Creating layer conv1
I0506 12:01:16.560377 21404 net.cpp:94] Creating Layer conv1
I0506 12:01:16.560382 21404 net.cpp:435] conv1 <- data
I0506 12:01:16.560389 21404 net.cpp:409] conv1 -> conv1
I0506 12:01:16.562145 21404 net.cpp:144] Setting up conv1
I0506 12:01:16.562158 21404 net.cpp:151] Top shape: 20 64 10 10 (128000)
I0506 12:01:16.562162 21404 net.cpp:159] Memory required for data: 520080
I0506 12:01:16.562172 21404 layer_factory.hpp:77] Creating layer relu1
I0506 12:01:16.562180 21404 net.cpp:94] Creating Layer relu1
I0506 12:01:16.562183 21404 net.cpp:435] relu1 <- conv1
I0506 12:01:16.562187 21404 net.cpp:396] relu1 -> conv1 (in-place)
I0506 12:01:16.562196 21404 net.cpp:144] Setting up relu1
I0506 12:01:16.562199 21404 net.cpp:151] Top shape: 20 64 10 10 (128000)
I0506 12:01:16.562202 21404 net.cpp:159] Memory required for data: 1032080
I0506 12:01:16.562206 21404 layer_factory.hpp:77] Creating layer conv2
I0506 12:01:16.562213 21404 net.cpp:94] Creating Layer conv2
I0506 12:01:16.562216 21404 net.cpp:435] conv2 <- conv1
I0506 12:01:16.562222 21404 net.cpp:409] conv2 -> conv2
I0506 12:01:16.567541 21404 net.cpp:144] Setting up conv2
I0506 12:01:16.567555 21404 net.cpp:151] Top shape: 20 64 10 10 (128000)
I0506 12:01:16.567559 21404 net.cpp:159] Memory required for data: 1544080
I0506 12:01:16.567566 21404 layer_factory.hpp:77] Creating layer relu2
I0506 12:01:16.567572 21404 net.cpp:94] Creating Layer relu2
I0506 12:01:16.567576 21404 net.cpp:435] relu2 <- conv2
I0506 12:01:16.567581 21404 net.cpp:396] relu2 -> conv2 (in-place)
I0506 12:01:16.567587 21404 net.cpp:144] Setting up relu2
I0506 12:01:16.567592 21404 net.cpp:151] Top shape: 20 64 10 10 (128000)
I0506 12:01:16.567595 21404 net.cpp:159] Memory required for data: 2056080
I0506 12:01:16.567597 21404 layer_factory.hpp:77] Creating layer pool2
I0506 12:01:16.567605 21404 net.cpp:94] Creating Layer pool2
I0506 12:01:16.567607 21404 net.cpp:435] pool2 <- conv2
I0506 12:01:16.567611 21404 net.cpp:409] pool2 -> pool2
I0506 12:01:16.567662 21404 net.cpp:144] Setting up pool2
I0506 12:01:16.567668 21404 net.cpp:151] Top shape: 20 64 5 5 (32000)
I0506 12:01:16.567672 21404 net.cpp:159] Memory required for data: 2184080
I0506 12:01:16.567674 21404 layer_factory.hpp:77] Creating layer conv3
I0506 12:01:16.567682 21404 net.cpp:94] Creating Layer conv3
I0506 12:01:16.567685 21404 net.cpp:435] conv3 <- pool2
I0506 12:01:16.567690 21404 net.cpp:409] conv3 -> conv3
I0506 12:01:16.576261 21404 net.cpp:144] Setting up conv3
I0506 12:01:16.576274 21404 net.cpp:151] Top shape: 20 128 5 5 (64000)
I0506 12:01:16.576278 21404 net.cpp:159] Memory required for data: 2440080
I0506 12:01:16.576287 21404 layer_factory.hpp:77] Creating layer relu3
I0506 12:01:16.576292 21404 net.cpp:94] Creating Layer relu3
I0506 12:01:16.576295 21404 net.cpp:435] relu3 <- conv3
I0506 12:01:16.576300 21404 net.cpp:396] relu3 -> conv3 (in-place)
I0506 12:01:16.576313 21404 net.cpp:144] Setting up relu3
I0506 12:01:16.576318 21404 net.cpp:151] Top shape: 20 128 5 5 (64000)
I0506 12:01:16.576321 21404 net.cpp:159] Memory required for data: 2696080
I0506 12:01:16.576324 21404 layer_factory.hpp:77] Creating layer conv4
I0506 12:01:16.576333 21404 net.cpp:94] Creating Layer conv4
I0506 12:01:16.576336 21404 net.cpp:435] conv4 <- conv3
I0506 12:01:16.576341 21404 net.cpp:409] conv4 -> conv4
I0506 12:01:16.591100 21404 net.cpp:144] Setting up conv4
I0506 12:01:16.591126 21404 net.cpp:151] Top shape: 20 128 5 5 (64000)
I0506 12:01:16.591133 21404 net.cpp:159] Memory required for data: 2952080
I0506 12:01:16.591145 21404 layer_factory.hpp:77] Creating layer relu4
I0506 12:01:16.591156 21404 net.cpp:94] Creating Layer relu4
I0506 12:01:16.591162 21404 net.cpp:435] relu4 <- conv4
I0506 12:01:16.591171 21404 net.cpp:396] relu4 -> conv4 (in-place)
I0506 12:01:16.591184 21404 net.cpp:144] Setting up relu4
I0506 12:01:16.591193 21404 net.cpp:151] Top shape: 20 128 5 5 (64000)
I0506 12:01:16.591198 21404 net.cpp:159] Memory required for data: 3208080
I0506 12:01:16.591204 21404 layer_factory.hpp:77] Creating layer conv5
I0506 12:01:16.591217 21404 net.cpp:94] Creating Layer conv5
I0506 12:01:16.591224 21404 net.cpp:435] conv5 <- conv4
I0506 12:01:16.591233 21404 net.cpp:409] conv5 -> conv5
I0506 12:01:16.606312 21404 net.cpp:144] Setting up conv5
I0506 12:01:16.606326 21404 net.cpp:151] Top shape: 20 128 5 5 (64000)
I0506 12:01:16.606329 21404 net.cpp:159] Memory required for data: 3464080
I0506 12:01:16.606338 21404 layer_factory.hpp:77] Creating layer relu5
I0506 12:01:16.606344 21404 net.cpp:94] Creating Layer relu5
I0506 12:01:16.606348 21404 net.cpp:435] relu5 <- conv5
I0506 12:01:16.606353 21404 net.cpp:396] relu5 -> conv5 (in-place)
I0506 12:01:16.606359 21404 net.cpp:144] Setting up relu5
I0506 12:01:16.606364 21404 net.cpp:151] Top shape: 20 128 5 5 (64000)
I0506 12:01:16.606366 21404 net.cpp:159] Memory required for data: 3720080
I0506 12:01:16.606369 21404 layer_factory.hpp:77] Creating layer pool5
I0506 12:01:16.606374 21404 net.cpp:94] Creating Layer pool5
I0506 12:01:16.606379 21404 net.cpp:435] pool5 <- conv5
I0506 12:01:16.606382 21404 net.cpp:409] pool5 -> pool5
I0506 12:01:16.606418 21404 net.cpp:144] Setting up pool5
I0506 12:01:16.606426 21404 net.cpp:151] Top shape: 20 128 2 2 (10240)
I0506 12:01:16.606429 21404 net.cpp:159] Memory required for data: 3761040
I0506 12:01:16.606432 21404 layer_factory.hpp:77] Creating layer ip1
I0506 12:01:16.606438 21404 net.cpp:94] Creating Layer ip1
I0506 12:01:16.606442 21404 net.cpp:435] ip1 <- pool5
I0506 12:01:16.606447 21404 net.cpp:409] ip1 -> ip1
I0506 12:01:16.619549 21404 net.cpp:144] Setting up ip1
I0506 12:01:16.619562 21404 net.cpp:151] Top shape: 20 1024 (20480)
I0506 12:01:16.619566 21404 net.cpp:159] Memory required for data: 3842960
I0506 12:01:16.619572 21404 layer_factory.hpp:77] Creating layer ip2
I0506 12:01:16.619580 21404 net.cpp:94] Creating Layer ip2
I0506 12:01:16.619582 21404 net.cpp:435] ip2 <- ip1
I0506 12:01:16.619588 21404 net.cpp:409] ip2 -> ip2
I0506 12:01:16.632612 21404 net.cpp:144] Setting up ip2
I0506 12:01:16.632625 21404 net.cpp:151] Top shape: 20 512 (10240)
I0506 12:01:16.632629 21404 net.cpp:159] Memory required for data: 3883920
I0506 12:01:16.632635 21404 layer_factory.hpp:77] Creating layer ip3
I0506 12:01:16.632642 21404 net.cpp:94] Creating Layer ip3
I0506 12:01:16.632647 21404 net.cpp:435] ip3 <- ip2
I0506 12:01:16.632652 21404 net.cpp:409] ip3 -> ip3
I0506 12:01:16.634155 21404 net.cpp:144] Setting up ip3
I0506 12:01:16.634167 21404 net.cpp:151] Top shape: 20 50 (1000)
I0506 12:01:16.634171 21404 net.cpp:159] Memory required for data: 3887920
I0506 12:01:16.634177 21404 layer_factory.hpp:77] Creating layer loss
I0506 12:01:16.634184 21404 net.cpp:94] Creating Layer loss
I0506 12:01:16.634188 21404 net.cpp:435] loss <- ip3
I0506 12:01:16.634192 21404 net.cpp:435] loss <- label
I0506 12:01:16.634197 21404 net.cpp:409] loss -> loss
I0506 12:01:16.634204 21404 layer_factory.hpp:77] Creating layer loss
…
I0506 12:01:16.634713 21404 solver.cpp:181] Creating test net (#0) specified by net file: ./protocol/dis_50_100_dimension.protocol_distribution
I0506 12:01:16.634739 21404 net.cpp:323] The NetState phase (1) differed from the phase (0) specified by a rule in layer parameters
I0506 12:01:16.634836 21404 net.cpp:52] Initializing net from parameters: 
state {
  phase: TEST
}
layer {
  name: "intercept"
  type: "HDF5Data"
  top: "data"
  top: "label"
  include {
    phase: TEST
  }
  hdf5_data_param {
    source: "/home/purduethu/scratch/radon/d/deng106/CNNStatisticalModel/distributions/input/50_distributions_100_sample_size_test-distributions-path.txt"
    batch_size: 20
  }
}
layer {
  name: "conv1"
  type: "Convolution"
  bottom: "data"
  top: "conv1"
  param {
    lr_mult: 1
  }
  param {
    lr_mult: 2
  }
  convolution_param {
    num_output: 64
    pad: 2
    kernel_size: 5
    stride: 1
    weight_filler {
      type: "gaussian"
      std: 0.0001
    }
    bias_filler {
      type: "constant"
    }
  }
}
layer {
  name: "relu1"
  type: "ReLU"
  bottom: "conv1"
  top: "conv1"
}
layer {
  name: "conv2"
  type: "Convolution"
  bottom: "conv1"
  top: "conv2"
  param {
    lr_mult: 1
  }
  param {
    lr_mult: 2
  }
  convolution_param {
    num_output: 64
    pad: 2
    kernel_size: 5
    stride: 1
    weight_filler {
      type: "gaussian"
      std: 0.01
    }
    bias_filler {
      type: "constant"
    }
  }
}
layer {
  name: "relu2"
  type: "ReLU"
  bottom: "conv2"
  top: "conv2"
}
layer {
  name: "pool2"
  type: "Pooling"
  bottom: "conv2"
  top: "pool2"
  pooling_param {
    pool: MAX
    kernel_size: 3
    stride: 2
  }
}
layer {
  name: "conv3"
  type: "Convolution"
  bottom: "pool2"
  top: "conv3"
  param {
    lr_mult: 1
  }
  param {
    lr_mult: 2
  }
  convolution_param {
    num_output: 128
    pad: 2
    kernel_size: 5
    stride: 1
    weight_filler {
      type: "gaussian"
      std: 0.01
    }
    bias_filler {
      type: "constant"
    }
  }
}
layer {
  name: "relu3"
  type: "ReLU"
  bottom: "conv3"
  top: "conv3"
}
layer {
  name: "conv4"
  type: "Convolution"
  bottom: "conv3"
  top: "conv4"
  param {
    lr_mult: 1
  }
  param {
    lr_mult: 2
  }
  convolution_param {
    num_output: 128
    pad: 2
    kernel_size: 5
    stride: 1
    weight_filler {
      type: "gaussian"
      std: 0.01
    }
    bias_filler {
      type: "constant"
    }
  }
}
layer {
  name: "relu4"
  type: "ReLU"
  bottom: "conv4"
  top: "conv4"
}
layer {
  name: "conv5"
  type: "Convolution"
  bottom: "conv4"
  top: "conv5"
  param {
    lr_mult: 1
  }
  param {
    lr_mult: 2
  }
  convolution_param {
    num_output: 128
    pad: 2
    kernel_size: 5
    stride: 1
    weight_filler {
      type: "gaussian"
      std: 0.01
    }
    bias_filler {
      type: "constant"
    }
  }
}
layer {
  name: "relu5"
  type: "ReLU"
  bottom: "conv5"
  top: "conv5"
}
layer {
  name: "pool5"
  type: "Pooling"
  bottom: "conv5"
  top: "pool5"
  pooling_param {
    pool: AVE
    kernel_size: 3
    stride: 2
  }
}
layer {
  name: "ip1"
  type: "InnerProduct"
  bottom: "pool5"
  top: "ip1"
  param {
    lr_mult: 1
  }
  param {
    lr_mult: 2
  }
  inner_product_param {
    num_output: 1024
    weight_filler {
      type: "gaussian"
      std: 0.1
    }
    bias_filler {
      type: "constant"
    }
  }
}
layer {
  name: "ip2"
  type: "InnerProduct"
  bottom: "ip1"
  top: "ip2"
  param {
    lr_mult: 1
  }
  param {
    lr_mult: 2
  }
  inner_product_param {
    num_output: 512
    weight_filler {
      type: "gaussian"
      std: 0.1
    }
    bias_filler {
      type: "constant"
    }
  }
}
layer {
  name: "ip3"
  type: "InnerProduct"
  bottom: "ip2"
  top: "ip3"
  param {
    lr_mult: 1
  }
  param {
    lr_mult: 2
  }
  inner_product_param {
    num_output: 50
    weight_filler {
      type: "gaussian"
      std: 0.1
    }
    bias_filler {
      type: "constant"
    }
  }
}
layer {
  name: "accuracy"
  type: "Accuracy"
  bottom: "ip3"
  bottom: "label"
  top: "accuracy"
  include {
    phase: TEST
  }
}
layer {
  name: "loss"
  type: "SoftmaxWithLoss"
  bottom: "ip3"
  bottom: "label"
  top: "loss"
}
I0506 12:01:16.634902 21404 layer_factory.hpp:77] Creating layer intercept
I0506 12:01:16.634910 21404 net.cpp:94] Creating Layer intercept
I0506 12:01:16.634914 21404 net.cpp:409] intercept -> data
I0506 12:01:16.634922 21404 net.cpp:409] intercept -> label
I0506 12:01:16.634927 21404 hdf5_data_layer.cpp:79] Loading list of HDF5 filenames from: /home/purduethu/scratch/radon/d/deng106/CNNStatisticalModel/distributions/input/50_distributions_100_sample_size_test-distributions-path.txt
I0506 12:01:16.634946 21404 hdf5_data_layer.cpp:93] Number of HDF5 files: 1
I0506 12:01:16.675495 21404 net.cpp:144] Setting up intercept
I0506 12:01:16.675530 21404 net.cpp:151] Top shape: 20 1 10 10 (2000)
I0506 12:01:16.675535 21404 net.cpp:151] Top shape: 20 (20)
I0506 12:01:16.675539 21404 net.cpp:159] Memory required for data: 8080
I0506 12:01:16.675544 21404 layer_factory.hpp:77] Creating layer label_intercept_1_split
I0506 12:01:16.675565 21404 net.cpp:94] Creating Layer label_intercept_1_split
I0506 12:01:16.675568 21404 net.cpp:435] label_intercept_1_split <- label
I0506 12:01:16.675575 21404 net.cpp:409] label_intercept_1_split -> label_intercept_1_split_0
I0506 12:01:16.675583 21404 net.cpp:409] label_intercept_1_split -> label_intercept_1_split_1
I0506 12:01:16.675624 21404 net.cpp:144] Setting up label_intercept_1_split
I0506 12:01:16.675631 21404 net.cpp:151] Top shape: 20 (20)
I0506 12:01:16.675634 21404 net.cpp:151] Top shape: 20 (20)
I0506 12:01:16.675637 21404 net.cpp:159] Memory required for data: 8240
I0506 12:01:16.675639 21404 layer_factory.hpp:77] Creating layer conv1
I0506 12:01:16.675650 21404 net.cpp:94] Creating Layer conv1
I0506 12:01:16.675653 21404 net.cpp:435] conv1 <- data
I0506 12:01:16.675658 21404 net.cpp:409] conv1 -> conv1
I0506 12:01:16.676502 21404 net.cpp:144] Setting up conv1
I0506 12:01:16.676514 21404 net.cpp:151] Top shape: 20 64 10 10 (128000)
I0506 12:01:16.676518 21404 net.cpp:159] Memory required for data: 520240
I0506 12:01:16.676528 21404 layer_factory.hpp:77] Creating layer relu1
I0506 12:01:16.676534 21404 net.cpp:94] Creating Layer relu1
I0506 12:01:16.676538 21404 net.cpp:435] relu1 <- conv1
I0506 12:01:16.676542 21404 net.cpp:396] relu1 -> conv1 (in-place)
I0506 12:01:16.676549 21404 net.cpp:144] Setting up relu1
I0506 12:01:16.676571 21404 net.cpp:151] Top shape: 20 64 10 10 (128000)
I0506 12:01:16.676581 21404 net.cpp:159] Memory required for data: 1032240
I0506 12:01:16.676584 21404 layer_factory.hpp:77] Creating layer conv2
I0506 12:01:16.676594 21404 net.cpp:94] Creating Layer conv2
I0506 12:01:16.676596 21404 net.cpp:435] conv2 <- conv1
I0506 12:01:16.676601 21404 net.cpp:409] conv2 -> conv2
I0506 12:01:16.680675 21404 net.cpp:144] Setting up conv2
I0506 12:01:16.680690 21404 net.cpp:151] Top shape: 20 64 10 10 (128000)
I0506 12:01:16.680692 21404 net.cpp:159] Memory required for data: 1544240
I0506 12:01:16.680701 21404 layer_factory.hpp:77] Creating layer relu2
I0506 12:01:16.680706 21404 net.cpp:94] Creating Layer relu2
I0506 12:01:16.680709 21404 net.cpp:435] relu2 <- conv2
I0506 12:01:16.680716 21404 net.cpp:396] relu2 -> conv2 (in-place)
I0506 12:01:16.680722 21404 net.cpp:144] Setting up relu2
I0506 12:01:16.680727 21404 net.cpp:151] Top shape: 20 64 10 10 (128000)
I0506 12:01:16.680729 21404 net.cpp:159] Memory required for data: 2056240
I0506 12:01:16.680732 21404 layer_factory.hpp:77] Creating layer pool2
I0506 12:01:16.680738 21404 net.cpp:94] Creating Layer pool2
I0506 12:01:16.680742 21404 net.cpp:435] pool2 <- conv2
I0506 12:01:16.680747 21404 net.cpp:409] pool2 -> pool2
I0506 12:01:16.680801 21404 net.cpp:144] Setting up pool2
I0506 12:01:16.680809 21404 net.cpp:151] Top shape: 20 64 5 5 (32000)
I0506 12:01:16.680812 21404 net.cpp:159] Memory required for data: 2184240
I0506 12:01:16.680815 21404 layer_factory.hpp:77] Creating layer conv3
I0506 12:01:16.680824 21404 net.cpp:94] Creating Layer conv3
I0506 12:01:16.680829 21404 net.cpp:435] conv3 <- pool2
I0506 12:01:16.680832 21404 net.cpp:409] conv3 -> conv3
I0506 12:01:16.686878 21404 net.cpp:144] Setting up conv3
I0506 12:01:16.686892 21404 net.cpp:151] Top shape: 20 128 5 5 (64000)
I0506 12:01:16.686894 21404 net.cpp:159] Memory required for data: 2440240
I0506 12:01:16.686902 21404 layer_factory.hpp:77] Creating layer relu3
I0506 12:01:16.686909 21404 net.cpp:94] Creating Layer relu3
I0506 12:01:16.686913 21404 net.cpp:435] relu3 <- conv3
I0506 12:01:16.686918 21404 net.cpp:396] relu3 -> conv3 (in-place)
I0506 12:01:16.686924 21404 net.cpp:144] Setting up relu3
I0506 12:01:16.686929 21404 net.cpp:151] Top shape: 20 128 5 5 (64000)
I0506 12:01:16.686933 21404 net.cpp:159] Memory required for data: 2696240
I0506 12:01:16.686934 21404 layer_factory.hpp:77] Creating layer conv4
I0506 12:01:16.686944 21404 net.cpp:94] Creating Layer conv4
I0506 12:01:16.686946 21404 net.cpp:435] conv4 <- conv3
I0506 12:01:16.686952 21404 net.cpp:409] conv4 -> conv4
I0506 12:01:16.699478 21404 net.cpp:144] Setting up conv4
I0506 12:01:16.699491 21404 net.cpp:151] Top shape: 20 128 5 5 (64000)
I0506 12:01:16.699496 21404 net.cpp:159] Memory required for data: 2952240
I0506 12:01:16.699501 21404 layer_factory.hpp:77] Creating layer relu4
I0506 12:01:16.699507 21404 net.cpp:94] Creating Layer relu4
I0506 12:01:16.699511 21404 net.cpp:435] relu4 <- conv4
I0506 12:01:16.699515 21404 net.cpp:396] relu4 -> conv4 (in-place)
I0506 12:01:16.699522 21404 net.cpp:144] Setting up relu4
I0506 12:01:16.699527 21404 net.cpp:151] Top shape: 20 128 5 5 (64000)
I0506 12:01:16.699529 21404 net.cpp:159] Memory required for data: 3208240
I0506 12:01:16.699532 21404 layer_factory.hpp:77] Creating layer conv5
I0506 12:01:16.699540 21404 net.cpp:94] Creating Layer conv5
I0506 12:01:16.699544 21404 net.cpp:435] conv5 <- conv4
I0506 12:01:16.699550 21404 net.cpp:409] conv5 -> conv5
I0506 12:01:16.712116 21404 net.cpp:144] Setting up conv5
I0506 12:01:16.712129 21404 net.cpp:151] Top shape: 20 128 5 5 (64000)
I0506 12:01:16.712133 21404 net.cpp:159] Memory required for data: 3464240
I0506 12:01:16.712141 21404 layer_factory.hpp:77] Creating layer relu5
I0506 12:01:16.712148 21404 net.cpp:94] Creating Layer relu5
I0506 12:01:16.712152 21404 net.cpp:435] relu5 <- conv5
I0506 12:01:16.712157 21404 net.cpp:396] relu5 -> conv5 (in-place)
I0506 12:01:16.712162 21404 net.cpp:144] Setting up relu5
I0506 12:01:16.712167 21404 net.cpp:151] Top shape: 20 128 5 5 (64000)
I0506 12:01:16.712173 21404 net.cpp:159] Memory required for data: 3720240
I0506 12:01:16.712177 21404 layer_factory.hpp:77] Creating layer pool5
I0506 12:01:16.712183 21404 net.cpp:94] Creating Layer pool5
I0506 12:01:16.712186 21404 net.cpp:435] pool5 <- conv5
I0506 12:01:16.712190 21404 net.cpp:409] pool5 -> pool5
I0506 12:01:16.712229 21404 net.cpp:144] Setting up pool5
I0506 12:01:16.712235 21404 net.cpp:151] Top shape: 20 128 2 2 (10240)
I0506 12:01:16.712239 21404 net.cpp:159] Memory required for data: 3761200
I0506 12:01:16.712241 21404 layer_factory.hpp:77] Creating layer ip1
I0506 12:01:16.712249 21404 net.cpp:94] Creating Layer ip1
I0506 12:01:16.712251 21404 net.cpp:435] ip1 <- pool5
I0506 12:01:16.712257 21404 net.cpp:409] ip1 -> ip1
I0506 12:01:16.725502 21404 net.cpp:144] Setting up ip1
I0506 12:01:16.725514 21404 net.cpp:151] Top shape: 20 1024 (20480)
I0506 12:01:16.725517 21404 net.cpp:159] Memory required for data: 3843120
I0506 12:01:16.725523 21404 layer_factory.hpp:77] Creating layer ip2
I0506 12:01:16.725531 21404 net.cpp:94] Creating Layer ip2
I0506 12:01:16.725535 21404 net.cpp:435] ip2 <- ip1
I0506 12:01:16.725540 21404 net.cpp:409] ip2 -> ip2
I0506 12:01:16.738602 21404 net.cpp:144] Setting up ip2
I0506 12:01:16.738615 21404 net.cpp:151] Top shape: 20 512 (10240)
I0506 12:01:16.738618 21404 net.cpp:159] Memory required for data: 3884080
I0506 12:01:16.738625 21404 layer_factory.hpp:77] Creating layer ip3
I0506 12:01:16.738632 21404 net.cpp:94] Creating Layer ip3
I0506 12:01:16.738636 21404 net.cpp:435] ip3 <- ip2
I0506 12:01:16.738641 21404 net.cpp:409] ip3 -> ip3
I0506 12:01:16.739368 21404 net.cpp:144] Setting up ip3
I0506 12:01:16.739377 21404 net.cpp:151] Top shape: 20 50 (1000)
I0506 12:01:16.739379 21404 net.cpp:159] Memory required for data: 3888080
I0506 12:01:16.739384 21404 layer_factory.hpp:77] Creating layer ip3_ip3_0_split
I0506 12:01:16.739390 21404 net.cpp:94] Creating Layer ip3_ip3_0_split
I0506 12:01:16.739393 21404 net.cpp:435] ip3_ip3_0_split <- ip3
I0506 12:01:16.739398 21404 net.cpp:409] ip3_ip3_0_split -> ip3_ip3_0_split_0
I0506 12:01:16.739404 21404 net.cpp:409] ip3_ip3_0_split -> ip3_ip3_0_split_1
I0506 12:01:16.739446 21404 net.cpp:144] Setting up ip3_ip3_0_split
I0506 12:01:16.739452 21404 net.cpp:151] Top shape: 20 50 (1000)
I0506 12:01:16.739456 21404 net.cpp:151] Top shape: 20 50 (1000)
I0506 12:01:16.739459 21404 net.cpp:159] Memory required for data: 3896080
I0506 12:01:16.739462 21404 layer_factory.hpp:77] Creating layer accuracy
I0506 12:01:16.739467 21404 net.cpp:94] Creating Layer accuracy
I0506 12:01:16.739470 21404 net.cpp:435] accuracy <- ip3_ip3_0_split_0
I0506 12:01:16.739475 21404 net.cpp:435] accuracy <- label_intercept_1_split_0
I0506 12:01:16.739480 21404 net.cpp:409] accuracy -> accuracy
…
