…
I0505 13:16:02.934679  7089 net.cpp:323] The NetState phase (0) differed from the phase (1) specified by a rule in layer intercept
I0505 13:16:02.934693  7089 net.cpp:323] The NetState phase (0) differed from the phase (1) specified by a rule in layer loss
I0505 13:16:02.934767  7089 net.cpp:52] Initializing net from parameters: 
state {
  phase: TRAIN
}
layer {
  name: "parameters"
  type: "HDF5Data"
  top: "data"
  top: "label"
  include {
    phase: TRAIN
  }
  hdf5_data_param {
    source: "/home/purduethu/scratch/radon/d/deng106/CNNStatisticalModel/distributions/input/20_distributions_100_sample_size_train-parameters-path.txt"
    batch_size: 20
  }
}
layer {
  name: "conv1"
  type: "Convolution"
  bottom: "data"
  top: "conv1"
  param {
    lr_mult: 1
  }
  param {
    lr_mult: 2
  }
  convolution_param {
    num_output: 64
    pad: 2
    kernel_size: 5
    stride: 1
    weight_filler {
      type: "gaussian"
      std: 0.0001
    }
    bias_filler {
      type: "constant"
    }
  }
}
layer {
  name: "relu1"
  type: "ReLU"
  bottom: "conv1"
  top: "conv1"
}
layer {
  name: "pool1"
  type: "Pooling"
  bottom: "conv1"
  top: "pool1"
  pooling_param {
    pool: MAX
    kernel_size: 3
    stride: 2
  }
}
layer {
  name: "conv2"
  type: "Convolution"
  bottom: "pool1"
  top: "conv2"
  param {
    lr_mult: 1
  }
  param {
    lr_mult: 2
  }
  convolution_param {
    num_output: 128
    pad: 2
    kernel_size: 5
    stride: 1
    weight_filler {
      type: "gaussian"
      std: 0.01
    }
    bias_filler {
      type: "constant"
    }
  }
}
layer {
  name: "relu2"
  type: "ReLU"
  bottom: "conv2"
  top: "conv2"
}
layer {
  name: "conv3"
  type: "Convolution"
  bottom: "conv2"
  top: "conv3"
  param {
    lr_mult: 1
  }
  param {
    lr_mult: 2
  }
  convolution_param {
    num_output: 128
    pad: 2
    kernel_size: 5
    stride: 1
    weight_filler {
      type: "gaussian"
      std: 0.01
    }
    bias_filler {
      type: "constant"
    }
  }
}
layer {
  name: "relu3"
  type: "ReLU"
  bottom: "conv3"
  top: "conv3"
}
layer {
  name: "pool3"
  type: "Pooling"
  bottom: "conv3"
  top: "pool3"
  pooling_param {
    pool: AVE
    kernel_size: 3
    stride: 2
  }
}
layer {
  name: "ip1"
  type: "InnerProduct"
  bottom: "pool3"
  top: "ip1"
  param {
    lr_mult: 1
  }
  param {
    lr_mult: 2
  }
  inner_product_param {
    num_output: 512
    weight_filler {
      type: "gaussian"
      std: 0.1
    }
    bias_filler {
      type: "constant"
    }
  }
}
layer {
  name: "ip2"
  type: "InnerProduct"
  bottom: "ip1"
  top: "ip2"
  param {
    lr_mult: 1
  }
  param {
    lr_mult: 2
  }
  inner_product_param {
    num_output: 256
    weight_filler {
      type: "gaussian"
      std: 0.1
    }
    bias_filler {
      type: "constant"
    }
  }
}
layer {
  name: "ip3"
  type: "InnerProduct"
  bottom: "ip2"
  top: "ip3"
  param {
    lr_mult: 1
  }
  param {
    lr_mult: 2
  }
  inner_product_param {
    num_output: 1
    weight_filler {
      type: "gaussian"
      std: 0.1
    }
    bias_filler {
      type: "constant"
    }
  }
}
layer {
  name: "loss"
  type: "HuberLoss"
  bottom: "ip3"
  bottom: "label"
  top: "loss"
  include {
    phase: TRAIN
  }
}
I0505 13:16:02.934818  7089 layer_factory.hpp:77] Creating layer parameters
I0505 13:16:02.934831  7089 net.cpp:94] Creating Layer parameters
I0505 13:16:02.934836  7089 net.cpp:409] parameters -> data
I0505 13:16:02.934846  7089 net.cpp:409] parameters -> label
I0505 13:16:02.934857  7089 hdf5_data_layer.cpp:79] Loading list of HDF5 filenames from: /home/purduethu/scratch/radon/d/deng106/CNNStatisticalModel/distributions/input/20_distributions_100_sample_size_train-parameters-path.txt
I0505 13:16:02.934873  7089 hdf5_data_layer.cpp:93] Number of HDF5 files: 1
I0505 13:16:02.935430  7089 hdf5.cpp:32] Datatype class: H5T_FLOAT
I0505 13:16:03.004308  7089 net.cpp:144] Setting up parameters
I0505 13:16:03.004340  7089 net.cpp:151] Top shape: 20 1 10 10 (2000)
I0505 13:16:03.004346  7089 net.cpp:151] Top shape: 20 (20)
I0505 13:16:03.004350  7089 net.cpp:159] Memory required for data: 8080
I0505 13:16:03.004356  7089 layer_factory.hpp:77] Creating layer conv1
I0505 13:16:03.004372  7089 net.cpp:94] Creating Layer conv1
I0505 13:16:03.004376  7089 net.cpp:435] conv1 <- data
I0505 13:16:03.004382  7089 net.cpp:409] conv1 -> conv1
I0505 13:16:03.008512  7089 net.cpp:144] Setting up conv1
I0505 13:16:03.008529  7089 net.cpp:151] Top shape: 20 64 10 10 (128000)
I0505 13:16:03.008534  7089 net.cpp:159] Memory required for data: 520080
I0505 13:16:03.008545  7089 layer_factory.hpp:77] Creating layer relu1
I0505 13:16:03.008569  7089 net.cpp:94] Creating Layer relu1
I0505 13:16:03.008574  7089 net.cpp:435] relu1 <- conv1
I0505 13:16:03.008577  7089 net.cpp:396] relu1 -> conv1 (in-place)
I0505 13:16:03.008589  7089 net.cpp:144] Setting up relu1
I0505 13:16:03.008594  7089 net.cpp:151] Top shape: 20 64 10 10 (128000)
I0505 13:16:03.008597  7089 net.cpp:159] Memory required for data: 1032080
I0505 13:16:03.008600  7089 layer_factory.hpp:77] Creating layer pool1
I0505 13:16:03.008606  7089 net.cpp:94] Creating Layer pool1
I0505 13:16:03.008610  7089 net.cpp:435] pool1 <- conv1
I0505 13:16:03.008615  7089 net.cpp:409] pool1 -> pool1
I0505 13:16:03.008672  7089 net.cpp:144] Setting up pool1
I0505 13:16:03.008679  7089 net.cpp:151] Top shape: 20 64 5 5 (32000)
I0505 13:16:03.008683  7089 net.cpp:159] Memory required for data: 1160080
I0505 13:16:03.008687  7089 layer_factory.hpp:77] Creating layer conv2
I0505 13:16:03.008695  7089 net.cpp:94] Creating Layer conv2
I0505 13:16:03.008699  7089 net.cpp:435] conv2 <- pool1
I0505 13:16:03.008704  7089 net.cpp:409] conv2 -> conv2
I0505 13:16:03.016860  7089 net.cpp:144] Setting up conv2
I0505 13:16:03.016875  7089 net.cpp:151] Top shape: 20 128 5 5 (64000)
I0505 13:16:03.016880  7089 net.cpp:159] Memory required for data: 1416080
I0505 13:16:03.016888  7089 layer_factory.hpp:77] Creating layer relu2
I0505 13:16:03.016894  7089 net.cpp:94] Creating Layer relu2
I0505 13:16:03.016898  7089 net.cpp:435] relu2 <- conv2
I0505 13:16:03.016902  7089 net.cpp:396] relu2 -> conv2 (in-place)
I0505 13:16:03.016909  7089 net.cpp:144] Setting up relu2
I0505 13:16:03.016914  7089 net.cpp:151] Top shape: 20 128 5 5 (64000)
I0505 13:16:03.016917  7089 net.cpp:159] Memory required for data: 1672080
I0505 13:16:03.016921  7089 layer_factory.hpp:77] Creating layer conv3
I0505 13:16:03.016928  7089 net.cpp:94] Creating Layer conv3
I0505 13:16:03.016932  7089 net.cpp:435] conv3 <- conv2
I0505 13:16:03.016937  7089 net.cpp:409] conv3 -> conv3
I0505 13:16:03.032022  7089 net.cpp:144] Setting up conv3
I0505 13:16:03.032037  7089 net.cpp:151] Top shape: 20 128 5 5 (64000)
I0505 13:16:03.032042  7089 net.cpp:159] Memory required for data: 1928080
I0505 13:16:03.032049  7089 layer_factory.hpp:77] Creating layer relu3
I0505 13:16:03.032063  7089 net.cpp:94] Creating Layer relu3
I0505 13:16:03.032068  7089 net.cpp:435] relu3 <- conv3
I0505 13:16:03.032073  7089 net.cpp:396] relu3 -> conv3 (in-place)
I0505 13:16:03.032079  7089 net.cpp:144] Setting up relu3
I0505 13:16:03.032084  7089 net.cpp:151] Top shape: 20 128 5 5 (64000)
I0505 13:16:03.032088  7089 net.cpp:159] Memory required for data: 2184080
I0505 13:16:03.032090  7089 layer_factory.hpp:77] Creating layer pool3
I0505 13:16:03.032097  7089 net.cpp:94] Creating Layer pool3
I0505 13:16:03.032100  7089 net.cpp:435] pool3 <- conv3
I0505 13:16:03.032104  7089 net.cpp:409] pool3 -> pool3
I0505 13:16:03.032142  7089 net.cpp:144] Setting up pool3
I0505 13:16:03.032150  7089 net.cpp:151] Top shape: 20 128 2 2 (10240)
I0505 13:16:03.032152  7089 net.cpp:159] Memory required for data: 2225040
I0505 13:16:03.032155  7089 layer_factory.hpp:77] Creating layer ip1
I0505 13:16:03.032162  7089 net.cpp:94] Creating Layer ip1
I0505 13:16:03.032166  7089 net.cpp:435] ip1 <- pool3
I0505 13:16:03.032171  7089 net.cpp:409] ip1 -> ip1
I0505 13:16:03.040009  7089 net.cpp:144] Setting up ip1
I0505 13:16:03.040024  7089 net.cpp:151] Top shape: 20 512 (10240)
I0505 13:16:03.040029  7089 net.cpp:159] Memory required for data: 2266000
I0505 13:16:03.040035  7089 layer_factory.hpp:77] Creating layer ip2
I0505 13:16:03.040043  7089 net.cpp:94] Creating Layer ip2
I0505 13:16:03.040047  7089 net.cpp:435] ip2 <- ip1
I0505 13:16:03.040052  7089 net.cpp:409] ip2 -> ip2
I0505 13:16:03.043197  7089 net.cpp:144] Setting up ip2
I0505 13:16:03.043206  7089 net.cpp:151] Top shape: 20 256 (5120)
I0505 13:16:03.043210  7089 net.cpp:159] Memory required for data: 2286480
I0505 13:16:03.043217  7089 layer_factory.hpp:77] Creating layer ip3
I0505 13:16:03.043223  7089 net.cpp:94] Creating Layer ip3
I0505 13:16:03.043227  7089 net.cpp:435] ip3 <- ip2
I0505 13:16:03.043232  7089 net.cpp:409] ip3 -> ip3
I0505 13:16:03.043329  7089 net.cpp:144] Setting up ip3
I0505 13:16:03.043335  7089 net.cpp:151] Top shape: 20 1 (20)
I0505 13:16:03.043339  7089 net.cpp:159] Memory required for data: 2286560
I0505 13:16:03.043344  7089 layer_factory.hpp:77] Creating layer loss
I0505 13:16:03.043354  7089 net.cpp:94] Creating Layer loss
I0505 13:16:03.043356  7089 net.cpp:435] loss <- ip3
I0505 13:16:03.043360  7089 net.cpp:435] loss <- label
I0505 13:16:03.043365  7089 net.cpp:409] loss -> loss
I0505 13:16:03.043411  7089 net.cpp:144] Setting up loss
…
I0505 13:16:03.094142  7089 net.cpp:323] The NetState phase (0) differed from the phase (1) specified by a rule in layer intercept
I0505 13:16:03.094156  7089 net.cpp:323] The NetState phase (0) differed from the phase (1) specified by a rule in layer accuracy
I0505 13:16:03.094226  7089 net.cpp:52] Initializing net from parameters: 
state {
  phase: TRAIN
}
layer {
  name: "parameters"
  type: "HDF5Data"
  top: "data"
  top: "label"
  include {
    phase: TRAIN
  }
  hdf5_data_param {
    source: "/home/purduethu/scratch/radon/d/deng106/CNNStatisticalModel/distributions/input/20_distributions_100_sample_size_train-distributions-path.txt"
    batch_size: 20
  }
}
layer {
  name: "conv1"
  type: "Convolution"
  bottom: "data"
  top: "conv1"
  param {
    lr_mult: 1
  }
  param {
    lr_mult: 2
  }
  convolution_param {
    num_output: 64
    pad: 2
    kernel_size: 5
    stride: 1
    weight_filler {
      type: "gaussian"
      std: 0.0001
    }
    bias_filler {
      type: "constant"
    }
  }
}
layer {
  name: "relu1"
  type: "ReLU"
  bottom: "conv1"
  top: "conv1"
}
layer {
  name: "pool1"
  type: "Pooling"
  bottom: "conv1"
  top: "pool1"
  pooling_param {
    pool: MAX
    kernel_size: 3
    stride: 2
  }
}
layer {
  name: "conv2"
  type: "Convolution"
  bottom: "pool1"
  top: "conv2"
  param {
    lr_mult: 1
  }
  param {
    lr_mult: 2
  }
  convolution_param {
    num_output: 128
    pad: 2
    kernel_size: 5
    stride: 1
    weight_filler {
      type: "gaussian"
      std: 0.01
    }
    bias_filler {
      type: "constant"
    }
  }
}
layer {
  name: "relu2"
  type: "ReLU"
  bottom: "conv2"
  top: "conv2"
}
layer {
  name: "conv3"
  type: "Convolution"
  bottom: "conv2"
  top: "conv3"
  param {
    lr_mult: 1
  }
  param {
    lr_mult: 2
  }
  convolution_param {
    num_output: 128
    pad: 2
    kernel_size: 5
    stride: 1
    weight_filler {
      type: "gaussian"
      std: 0.01
    }
    bias_filler {
      type: "constant"
    }
  }
}
layer {
  name: "relu3"
  type: "ReLU"
  bottom: "conv3"
  top: "conv3"
}
layer {
  name: "pool3"
  type: "Pooling"
  bottom: "conv3"
  top: "pool3"
  pooling_param {
    pool: AVE
    kernel_size: 3
    stride: 2
  }
}
layer {
  name: "ip1"
  type: "InnerProduct"
  bottom: "pool3"
  top: "ip1"
  param {
    lr_mult: 1
  }
  param {
    lr_mult: 2
  }
  inner_product_param {
    num_output: 512
    weight_filler {
      type: "gaussian"
      std: 0.1
    }
    bias_filler {
      type: "constant"
    }
  }
}
layer {
  name: "ip2"
  type: "InnerProduct"
  bottom: "ip1"
  top: "ip2"
  param {
    lr_mult: 1
  }
  param {
    lr_mult: 2
  }
  inner_product_param {
    num_output: 256
    weight_filler {
      type: "gaussian"
      std: 0.1
    }
    bias_filler {
      type: "constant"
    }
  }
}
layer {
  name: "ip3"
  type: "InnerProduct"
  bottom: "ip2"
  top: "ip3"
  param {
    lr_mult: 1
  }
  param {
    lr_mult: 2
  }
  inner_product_param {
    num_output: 50
    weight_filler {
      type: "gaussian"
      std: 0.1
    }
    bias_filler {
      type: "constant"
    }
  }
}
layer {
  name: "loss"
  type: "SoftmaxWithLoss"
  bottom: "ip3"
  bottom: "label"
  top: "loss"
}
I0505 13:16:03.094269  7089 layer_factory.hpp:77] Creating layer parameters
I0505 13:16:03.094277  7089 net.cpp:94] Creating Layer parameters
I0505 13:16:03.094281  7089 net.cpp:409] parameters -> data
I0505 13:16:03.094288  7089 net.cpp:409] parameters -> label
I0505 13:16:03.094295  7089 hdf5_data_layer.cpp:79] Loading list of HDF5 filenames from: /home/purduethu/scratch/radon/d/deng106/CNNStatisticalModel/distributions/input/20_distributions_100_sample_size_train-distributions-path.txt
I0505 13:16:03.094310  7089 hdf5_data_layer.cpp:93] Number of HDF5 files: 1
I0505 13:16:03.159135  7089 hdf5.cpp:35] Datatype class: H5T_INTEGER
I0505 13:16:03.161252  7089 net.cpp:144] Setting up parameters
I0505 13:16:03.161274  7089 net.cpp:151] Top shape: 20 1 10 10 (2000)
I0505 13:16:03.161279  7089 net.cpp:151] Top shape: 20 (20)
I0505 13:16:03.161283  7089 net.cpp:159] Memory required for data: 8080
I0505 13:16:03.161288  7089 layer_factory.hpp:77] Creating layer conv1
I0505 13:16:03.161304  7089 net.cpp:94] Creating Layer conv1
I0505 13:16:03.161309  7089 net.cpp:435] conv1 <- data
I0505 13:16:03.161315  7089 net.cpp:409] conv1 -> conv1
I0505 13:16:03.163028  7089 net.cpp:144] Setting up conv1
I0505 13:16:03.163043  7089 net.cpp:151] Top shape: 20 64 10 10 (128000)
I0505 13:16:03.163048  7089 net.cpp:159] Memory required for data: 520080
I0505 13:16:03.163058  7089 layer_factory.hpp:77] Creating layer relu1
I0505 13:16:03.163065  7089 net.cpp:94] Creating Layer relu1
I0505 13:16:03.163069  7089 net.cpp:435] relu1 <- conv1
I0505 13:16:03.163074  7089 net.cpp:396] relu1 -> conv1 (in-place)
I0505 13:16:03.163081  7089 net.cpp:144] Setting up relu1
I0505 13:16:03.163085  7089 net.cpp:151] Top shape: 20 64 10 10 (128000)
I0505 13:16:03.163089  7089 net.cpp:159] Memory required for data: 1032080
I0505 13:16:03.163092  7089 layer_factory.hpp:77] Creating layer pool1
I0505 13:16:03.163099  7089 net.cpp:94] Creating Layer pool1
I0505 13:16:03.163101  7089 net.cpp:435] pool1 <- conv1
I0505 13:16:03.163112  7089 net.cpp:409] pool1 -> pool1
I0505 13:16:03.163166  7089 net.cpp:144] Setting up pool1
I0505 13:16:03.163172  7089 net.cpp:151] Top shape: 20 64 5 5 (32000)
I0505 13:16:03.163175  7089 net.cpp:159] Memory required for data: 1160080
I0505 13:16:03.163179  7089 layer_factory.hpp:77] Creating layer conv2
I0505 13:16:03.163187  7089 net.cpp:94] Creating Layer conv2
I0505 13:16:03.163192  7089 net.cpp:435] conv2 <- pool1
I0505 13:16:03.163197  7089 net.cpp:409] conv2 -> conv2
I0505 13:16:03.171407  7089 net.cpp:144] Setting up conv2
I0505 13:16:03.171422  7089 net.cpp:151] Top shape: 20 128 5 5 (64000)
I0505 13:16:03.171427  7089 net.cpp:159] Memory required for data: 1416080
I0505 13:16:03.171435  7089 layer_factory.hpp:77] Creating layer relu2
I0505 13:16:03.171442  7089 net.cpp:94] Creating Layer relu2
I0505 13:16:03.171444  7089 net.cpp:435] relu2 <- conv2
I0505 13:16:03.171449  7089 net.cpp:396] relu2 -> conv2 (in-place)
I0505 13:16:03.171458  7089 net.cpp:144] Setting up relu2
I0505 13:16:03.171461  7089 net.cpp:151] Top shape: 20 128 5 5 (64000)
I0505 13:16:03.171464  7089 net.cpp:159] Memory required for data: 1672080
I0505 13:16:03.171468  7089 layer_factory.hpp:77] Creating layer conv3
I0505 13:16:03.171476  7089 net.cpp:94] Creating Layer conv3
I0505 13:16:03.171479  7089 net.cpp:435] conv3 <- conv2
I0505 13:16:03.171484  7089 net.cpp:409] conv3 -> conv3
I0505 13:16:03.186296  7089 net.cpp:144] Setting up conv3
I0505 13:16:03.186312  7089 net.cpp:151] Top shape: 20 128 5 5 (64000)
I0505 13:16:03.186317  7089 net.cpp:159] Memory required for data: 1928080
I0505 13:16:03.186326  7089 layer_factory.hpp:77] Creating layer relu3
I0505 13:16:03.186332  7089 net.cpp:94] Creating Layer relu3
I0505 13:16:03.186336  7089 net.cpp:435] relu3 <- conv3
I0505 13:16:03.186342  7089 net.cpp:396] relu3 -> conv3 (in-place)
I0505 13:16:03.186348  7089 net.cpp:144] Setting up relu3
I0505 13:16:03.186353  7089 net.cpp:151] Top shape: 20 128 5 5 (64000)
I0505 13:16:03.186357  7089 net.cpp:159] Memory required for data: 2184080
I0505 13:16:03.186359  7089 layer_factory.hpp:77] Creating layer pool3
I0505 13:16:03.186365  7089 net.cpp:94] Creating Layer pool3
I0505 13:16:03.186368  7089 net.cpp:435] pool3 <- conv3
I0505 13:16:03.186373  7089 net.cpp:409] pool3 -> pool3
I0505 13:16:03.186408  7089 net.cpp:144] Setting up pool3
I0505 13:16:03.186414  7089 net.cpp:151] Top shape: 20 128 2 2 (10240)
I0505 13:16:03.186417  7089 net.cpp:159] Memory required for data: 2225040
I0505 13:16:03.186421  7089 layer_factory.hpp:77] Creating layer ip1
I0505 13:16:03.186429  7089 net.cpp:94] Creating Layer ip1
I0505 13:16:03.186431  7089 net.cpp:435] ip1 <- pool3
I0505 13:16:03.186436  7089 net.cpp:409] ip1 -> ip1
I0505 13:16:03.193496  7089 net.cpp:144] Setting up ip1
I0505 13:16:03.193511  7089 net.cpp:151] Top shape: 20 512 (10240)
I0505 13:16:03.193516  7089 net.cpp:159] Memory required for data: 2266000
I0505 13:16:03.193521  7089 layer_factory.hpp:77] Creating layer ip2
I0505 13:16:03.193528  7089 net.cpp:94] Creating Layer ip2
I0505 13:16:03.193532  7089 net.cpp:435] ip2 <- ip1
I0505 13:16:03.193537  7089 net.cpp:409] ip2 -> ip2
I0505 13:16:03.196676  7089 net.cpp:144] Setting up ip2
I0505 13:16:03.196686  7089 net.cpp:151] Top shape: 20 256 (5120)
I0505 13:16:03.196689  7089 net.cpp:159] Memory required for data: 2286480
I0505 13:16:03.196696  7089 layer_factory.hpp:77] Creating layer ip3
I0505 13:16:03.196702  7089 net.cpp:94] Creating Layer ip3
I0505 13:16:03.196707  7089 net.cpp:435] ip3 <- ip2
I0505 13:16:03.196710  7089 net.cpp:409] ip3 -> ip3
I0505 13:16:03.197960  7089 net.cpp:144] Setting up ip3
I0505 13:16:03.197973  7089 net.cpp:151] Top shape: 20 50 (1000)
I0505 13:16:03.197976  7089 net.cpp:159] Memory required for data: 2290480
I0505 13:16:03.197983  7089 layer_factory.hpp:77] Creating layer loss
I0505 13:16:03.197988  7089 net.cpp:94] Creating Layer loss
I0505 13:16:03.197993  7089 net.cpp:435] loss <- ip3
I0505 13:16:03.197996  7089 net.cpp:435] loss <- label
I0505 13:16:03.198000  7089 net.cpp:409] loss -> loss
I0505 13:16:03.198014  7089 layer_factory.hpp:77] Creating layer loss
…
I0505 13:16:03.198448  7089 solver.cpp:181] Creating test net (#0) specified by net file: ./protocol/dis_20_100_dimension.protocol_distribution
I0505 13:16:03.198472  7089 net.cpp:323] The NetState phase (1) differed from the phase (0) specified by a rule in layer parameters
I0505 13:16:03.198555  7089 net.cpp:52] Initializing net from parameters: 
state {
  phase: TEST
}
layer {
  name: "intercept"
  type: "HDF5Data"
  top: "data"
  top: "label"
  include {
    phase: TEST
  }
  hdf5_data_param {
    source: "/home/purduethu/scratch/radon/d/deng106/CNNStatisticalModel/distributions/input/20_distributions_100_sample_size_test-distributions-path.txt"
    batch_size: 20
  }
}
layer {
  name: "conv1"
  type: "Convolution"
  bottom: "data"
  top: "conv1"
  param {
    lr_mult: 1
  }
  param {
    lr_mult: 2
  }
  convolution_param {
    num_output: 64
    pad: 2
    kernel_size: 5
    stride: 1
    weight_filler {
      type: "gaussian"
      std: 0.0001
    }
    bias_filler {
      type: "constant"
    }
  }
}
layer {
  name: "relu1"
  type: "ReLU"
  bottom: "conv1"
  top: "conv1"
}
layer {
  name: "pool1"
  type: "Pooling"
  bottom: "conv1"
  top: "pool1"
  pooling_param {
    pool: MAX
    kernel_size: 3
    stride: 2
  }
}
layer {
  name: "conv2"
  type: "Convolution"
  bottom: "pool1"
  top: "conv2"
  param {
    lr_mult: 1
  }
  param {
    lr_mult: 2
  }
  convolution_param {
    num_output: 128
    pad: 2
    kernel_size: 5
    stride: 1
    weight_filler {
      type: "gaussian"
      std: 0.01
    }
    bias_filler {
      type: "constant"
    }
  }
}
layer {
  name: "relu2"
  type: "ReLU"
  bottom: "conv2"
  top: "conv2"
}
layer {
  name: "conv3"
  type: "Convolution"
  bottom: "conv2"
  top: "conv3"
  param {
    lr_mult: 1
  }
  param {
    lr_mult: 2
  }
  convolution_param {
    num_output: 128
    pad: 2
    kernel_size: 5
    stride: 1
    weight_filler {
      type: "gaussian"
      std: 0.01
    }
    bias_filler {
      type: "constant"
    }
  }
}
layer {
  name: "relu3"
  type: "ReLU"
  bottom: "conv3"
  top: "conv3"
}
layer {
  name: "pool3"
  type: "Pooling"
  bottom: "conv3"
  top: "pool3"
  pooling_param {
    pool: AVE
    kernel_size: 3
    stride: 2
  }
}
layer {
  name: "ip1"
  type: "InnerProduct"
  bottom: "pool3"
  top: "ip1"
  param {
    lr_mult: 1
  }
  param {
    lr_mult: 2
  }
  inner_product_param {
    num_output: 512
    weight_filler {
      type: "gaussian"
      std: 0.1
    }
    bias_filler {
      type: "constant"
    }
  }
}
layer {
  name: "ip2"
  type: "InnerProduct"
  bottom: "ip1"
  top: "ip2"
  param {
    lr_mult: 1
  }
  param {
    lr_mult: 2
  }
  inner_product_param {
    num_output: 256
    weight_filler {
      type: "gaussian"
      std: 0.1
    }
    bias_filler {
      type: "constant"
    }
  }
}
layer {
  name: "ip3"
  type: "InnerProduct"
  bottom: "ip2"
  top: "ip3"
  param {
    lr_mult: 1
  }
  param {
    lr_mult: 2
  }
  inner_product_param {
    num_output: 50
    weight_filler {
      type: "gaussian"
      std: 0.1
    }
    bias_filler {
      type: "constant"
    }
  }
}
layer {
  name: "accuracy"
  type: "Accuracy"
  bottom: "ip3"
  bottom: "label"
  top: "accuracy"
  include {
    phase: TEST
  }
}
layer {
  name: "loss"
  type: "SoftmaxWithLoss"
  bottom: "ip3"
  bottom: "label"
  top: "loss"
}
I0505 13:16:03.198614  7089 layer_factory.hpp:77] Creating layer intercept
I0505 13:16:03.198622  7089 net.cpp:94] Creating Layer intercept
I0505 13:16:03.198626  7089 net.cpp:409] intercept -> data
I0505 13:16:03.198633  7089 net.cpp:409] intercept -> label
I0505 13:16:03.198639  7089 hdf5_data_layer.cpp:79] Loading list of HDF5 filenames from: /home/purduethu/scratch/radon/d/deng106/CNNStatisticalModel/distributions/input/20_distributions_100_sample_size_test-distributions-path.txt
I0505 13:16:03.198659  7089 hdf5_data_layer.cpp:93] Number of HDF5 files: 1
I0505 13:16:03.216177  7089 net.cpp:144] Setting up intercept
I0505 13:16:03.216215  7089 net.cpp:151] Top shape: 20 1 10 10 (2000)
I0505 13:16:03.216220  7089 net.cpp:151] Top shape: 20 (20)
I0505 13:16:03.216223  7089 net.cpp:159] Memory required for data: 8080
I0505 13:16:03.216229  7089 layer_factory.hpp:77] Creating layer label_intercept_1_split
I0505 13:16:03.216241  7089 net.cpp:94] Creating Layer label_intercept_1_split
I0505 13:16:03.216245  7089 net.cpp:435] label_intercept_1_split <- label
I0505 13:16:03.216250  7089 net.cpp:409] label_intercept_1_split -> label_intercept_1_split_0
I0505 13:16:03.216259  7089 net.cpp:409] label_intercept_1_split -> label_intercept_1_split_1
I0505 13:16:03.216305  7089 net.cpp:144] Setting up label_intercept_1_split
I0505 13:16:03.216312  7089 net.cpp:151] Top shape: 20 (20)
I0505 13:16:03.216316  7089 net.cpp:151] Top shape: 20 (20)
I0505 13:16:03.216320  7089 net.cpp:159] Memory required for data: 8240
I0505 13:16:03.216322  7089 layer_factory.hpp:77] Creating layer conv1
I0505 13:16:03.216333  7089 net.cpp:94] Creating Layer conv1
I0505 13:16:03.216337  7089 net.cpp:435] conv1 <- data
I0505 13:16:03.216341  7089 net.cpp:409] conv1 -> conv1
I0505 13:16:03.217164  7089 net.cpp:144] Setting up conv1
I0505 13:16:03.217178  7089 net.cpp:151] Top shape: 20 64 10 10 (128000)
I0505 13:16:03.217182  7089 net.cpp:159] Memory required for data: 520240
I0505 13:16:03.217191  7089 layer_factory.hpp:77] Creating layer relu1
I0505 13:16:03.217198  7089 net.cpp:94] Creating Layer relu1
I0505 13:16:03.217202  7089 net.cpp:435] relu1 <- conv1
I0505 13:16:03.217206  7089 net.cpp:396] relu1 -> conv1 (in-place)
I0505 13:16:03.217214  7089 net.cpp:144] Setting up relu1
I0505 13:16:03.217218  7089 net.cpp:151] Top shape: 20 64 10 10 (128000)
I0505 13:16:03.217221  7089 net.cpp:159] Memory required for data: 1032240
I0505 13:16:03.217224  7089 layer_factory.hpp:77] Creating layer pool1
I0505 13:16:03.217231  7089 net.cpp:94] Creating Layer pool1
I0505 13:16:03.217234  7089 net.cpp:435] pool1 <- conv1
I0505 13:16:03.217238  7089 net.cpp:409] pool1 -> pool1
I0505 13:16:03.217289  7089 net.cpp:144] Setting up pool1
I0505 13:16:03.217296  7089 net.cpp:151] Top shape: 20 64 5 5 (32000)
I0505 13:16:03.217299  7089 net.cpp:159] Memory required for data: 1160240
I0505 13:16:03.217303  7089 layer_factory.hpp:77] Creating layer conv2
I0505 13:16:03.217311  7089 net.cpp:94] Creating Layer conv2
I0505 13:16:03.217315  7089 net.cpp:435] conv2 <- pool1
I0505 13:16:03.217320  7089 net.cpp:409] conv2 -> conv2
I0505 13:16:03.224843  7089 net.cpp:144] Setting up conv2
I0505 13:16:03.224858  7089 net.cpp:151] Top shape: 20 128 5 5 (64000)
I0505 13:16:03.224861  7089 net.cpp:159] Memory required for data: 1416240
I0505 13:16:03.224870  7089 layer_factory.hpp:77] Creating layer relu2
I0505 13:16:03.224882  7089 net.cpp:94] Creating Layer relu2
I0505 13:16:03.224887  7089 net.cpp:435] relu2 <- conv2
I0505 13:16:03.224891  7089 net.cpp:396] relu2 -> conv2 (in-place)
I0505 13:16:03.224898  7089 net.cpp:144] Setting up relu2
I0505 13:16:03.224903  7089 net.cpp:151] Top shape: 20 128 5 5 (64000)
I0505 13:16:03.224906  7089 net.cpp:159] Memory required for data: 1672240
I0505 13:16:03.224910  7089 layer_factory.hpp:77] Creating layer conv3
I0505 13:16:03.224917  7089 net.cpp:94] Creating Layer conv3
I0505 13:16:03.224920  7089 net.cpp:435] conv3 <- conv2
I0505 13:16:03.224925  7089 net.cpp:409] conv3 -> conv3
I0505 13:16:03.237395  7089 net.cpp:144] Setting up conv3
I0505 13:16:03.237409  7089 net.cpp:151] Top shape: 20 128 5 5 (64000)
I0505 13:16:03.237413  7089 net.cpp:159] Memory required for data: 1928240
I0505 13:16:03.237421  7089 layer_factory.hpp:77] Creating layer relu3
I0505 13:16:03.237429  7089 net.cpp:94] Creating Layer relu3
I0505 13:16:03.237433  7089 net.cpp:435] relu3 <- conv3
I0505 13:16:03.237437  7089 net.cpp:396] relu3 -> conv3 (in-place)
I0505 13:16:03.237444  7089 net.cpp:144] Setting up relu3
I0505 13:16:03.237449  7089 net.cpp:151] Top shape: 20 128 5 5 (64000)
I0505 13:16:03.237452  7089 net.cpp:159] Memory required for data: 2184240
I0505 13:16:03.237455  7089 layer_factory.hpp:77] Creating layer pool3
I0505 13:16:03.237460  7089 net.cpp:94] Creating Layer pool3
I0505 13:16:03.237464  7089 net.cpp:435] pool3 <- conv3
I0505 13:16:03.237468  7089 net.cpp:409] pool3 -> pool3
I0505 13:16:03.237504  7089 net.cpp:144] Setting up pool3
I0505 13:16:03.237511  7089 net.cpp:151] Top shape: 20 128 2 2 (10240)
I0505 13:16:03.237514  7089 net.cpp:159] Memory required for data: 2225200
I0505 13:16:03.237517  7089 layer_factory.hpp:77] Creating layer ip1
I0505 13:16:03.237524  7089 net.cpp:94] Creating Layer ip1
I0505 13:16:03.237527  7089 net.cpp:435] ip1 <- pool3
I0505 13:16:03.237532  7089 net.cpp:409] ip1 -> ip1
I0505 13:16:03.243746  7089 net.cpp:144] Setting up ip1
I0505 13:16:03.243757  7089 net.cpp:151] Top shape: 20 512 (10240)
I0505 13:16:03.243759  7089 net.cpp:159] Memory required for data: 2266160
I0505 13:16:03.243765  7089 layer_factory.hpp:77] Creating layer ip2
I0505 13:16:03.243772  7089 net.cpp:94] Creating Layer ip2
I0505 13:16:03.243774  7089 net.cpp:435] ip2 <- ip1
I0505 13:16:03.243779  7089 net.cpp:409] ip2 -> ip2
I0505 13:16:03.246950  7089 net.cpp:144] Setting up ip2
I0505 13:16:03.246959  7089 net.cpp:151] Top shape: 20 256 (5120)
I0505 13:16:03.246963  7089 net.cpp:159] Memory required for data: 2286640
I0505 13:16:03.246969  7089 layer_factory.hpp:77] Creating layer ip3
I0505 13:16:03.246975  7089 net.cpp:94] Creating Layer ip3
I0505 13:16:03.246978  7089 net.cpp:435] ip3 <- ip2
I0505 13:16:03.246984  7089 net.cpp:409] ip3 -> ip3
I0505 13:16:03.247400  7089 net.cpp:144] Setting up ip3
I0505 13:16:03.247407  7089 net.cpp:151] Top shape: 20 50 (1000)
I0505 13:16:03.247411  7089 net.cpp:159] Memory required for data: 2290640
I0505 13:16:03.247416  7089 layer_factory.hpp:77] Creating layer ip3_ip3_0_split
I0505 13:16:03.247421  7089 net.cpp:94] Creating Layer ip3_ip3_0_split
I0505 13:16:03.247424  7089 net.cpp:435] ip3_ip3_0_split <- ip3
I0505 13:16:03.247428  7089 net.cpp:409] ip3_ip3_0_split -> ip3_ip3_0_split_0
I0505 13:16:03.247433  7089 net.cpp:409] ip3_ip3_0_split -> ip3_ip3_0_split_1
I0505 13:16:03.247472  7089 net.cpp:144] Setting up ip3_ip3_0_split
I0505 13:16:03.247476  7089 net.cpp:151] Top shape: 20 50 (1000)
I0505 13:16:03.247480  7089 net.cpp:151] Top shape: 20 50 (1000)
I0505 13:16:03.247483  7089 net.cpp:159] Memory required for data: 2298640
I0505 13:16:03.247486  7089 layer_factory.hpp:77] Creating layer accuracy
I0505 13:16:03.247493  7089 net.cpp:94] Creating Layer accuracy
I0505 13:16:03.247495  7089 net.cpp:435] accuracy <- ip3_ip3_0_split_0
I0505 13:16:03.247498  7089 net.cpp:435] accuracy <- label_intercept_1_split_0
I0505 13:16:03.247503  7089 net.cpp:409] accuracy -> accuracy
…
