…
I0503 19:28:10.747534 22019 net.cpp:323] The NetState phase (0) differed from the phase (1) specified by a rule in layer intercept
I0503 19:28:10.747550 22019 net.cpp:323] The NetState phase (0) differed from the phase (1) specified by a rule in layer accuracy
I0503 19:28:10.747640 22019 net.cpp:52] Initializing net from parameters: 
state {
  phase: TRAIN
}
layer {
  name: "parameters"
  type: "HDF5Data"
  top: "data"
  top: "label"
  include {
    phase: TRAIN
  }
  hdf5_data_param {
    source: "/home/purduethu/scratch/radon/d/deng106/CNNStatisticalModel/distributions/input/20_distributions_100_sample_size_train-distributions-path.txt"
    batch_size: 20
  }
}
layer {
  name: "conv1"
  type: "Convolution"
  bottom: "data"
  top: "conv1"
  param {
    lr_mult: 1
  }
  param {
    lr_mult: 2
  }
  convolution_param {
    num_output: 64
    pad: 2
    kernel_size: 5
    stride: 1
    weight_filler {
      type: "gaussian"
      std: 0.0001
    }
    bias_filler {
      type: "constant"
    }
  }
}
layer {
  name: "relu1"
  type: "ReLU"
  bottom: "conv1"
  top: "conv1"
}
layer {
  name: "conv2"
  type: "Convolution"
  bottom: "conv1"
  top: "conv2"
  param {
    lr_mult: 1
  }
  param {
    lr_mult: 2
  }
  convolution_param {
    num_output: 64
    pad: 2
    kernel_size: 5
    stride: 1
    weight_filler {
      type: "gaussian"
      std: 0.01
    }
    bias_filler {
      type: "constant"
    }
  }
}
layer {
  name: "relu2"
  type: "ReLU"
  bottom: "conv2"
  top: "conv2"
}
layer {
  name: "pool2"
  type: "Pooling"
  bottom: "conv2"
  top: "pool2"
  pooling_param {
    pool: MAX
    kernel_size: 3
    stride: 2
  }
}
layer {
  name: "conv3"
  type: "Convolution"
  bottom: "pool2"
  top: "conv3"
  param {
    lr_mult: 1
  }
  param {
    lr_mult: 2
  }
  convolution_param {
    num_output: 128
    pad: 2
    kernel_size: 5
    stride: 1
    weight_filler {
      type: "gaussian"
      std: 0.01
    }
    bias_filler {
      type: "constant"
    }
  }
}
layer {
  name: "relu3"
  type: "ReLU"
  bottom: "conv3"
  top: "conv3"
}
layer {
  name: "conv4"
  type: "Convolution"
  bottom: "conv3"
  top: "conv4"
  param {
    lr_mult: 1
  }
  param {
    lr_mult: 2
  }
  convolution_param {
    num_output: 128
    pad: 2
    kernel_size: 5
    stride: 1
    weight_filler {
      type: "gaussian"
      std: 0.01
    }
    bias_filler {
      type: "constant"
    }
  }
}
layer {
  name: "relu4"
  type: "ReLU"
  bottom: "conv4"
  top: "conv4"
}
layer {
  name: "conv5"
  type: "Convolution"
  bottom: "conv4"
  top: "conv5"
  param {
    lr_mult: 1
  }
  param {
    lr_mult: 2
  }
  convolution_param {
    num_output: 128
    pad: 2
    kernel_size: 5
    stride: 1
    weight_filler {
      type: "gaussian"
      std: 0.01
    }
    bias_filler {
      type: "constant"
    }
  }
}
layer {
  name: "relu5"
  type: "ReLU"
  bottom: "conv5"
  top: "conv5"
}
layer {
  name: "pool5"
  type: "Pooling"
  bottom: "conv5"
  top: "pool5"
  pooling_param {
    pool: AVE
    kernel_size: 3
    stride: 2
  }
}
layer {
  name: "ip1"
  type: "InnerProduct"
  bottom: "pool5"
  top: "ip1"
  param {
    lr_mult: 1
  }
  param {
    lr_mult: 2
  }
  inner_product_param {
    num_output: 1024
    weight_filler {
      type: "gaussian"
      std: 0.1
    }
    bias_filler {
      type: "constant"
    }
  }
}
layer {
  name: "ip2"
  type: "InnerProduct"
  bottom: "ip1"
  top: "ip2"
  param {
    lr_mult: 1
  }
  param {
    lr_mult: 2
  }
  inner_product_param {
    num_output: 512
    weight_filler {
      type: "gaussian"
      std: 0.1
    }
    bias_filler {
      type: "constant"
    }
  }
}
layer {
  name: "ip3"
  type: "InnerProduct"
  bottom: "ip2"
  top: "ip3"
  param {
    lr_mult: 1
  }
  param {
    lr_mult: 2
  }
  inner_product_param {
    num_output: 50
    weight_filler {
      type: "gaussian"
      std: 0.1
    }
    bias_filler {
      type: "constant"
    }
  }
}
layer {
  name: "loss"
  type: "SoftmaxWithLoss"
  bottom: "ip3"
  bottom: "label"
  top: "loss"
}
I0503 19:28:10.747714 22019 layer_factory.hpp:77] Creating layer parameters
I0503 19:28:10.747727 22019 net.cpp:94] Creating Layer parameters
I0503 19:28:10.747733 22019 net.cpp:409] parameters -> data
I0503 19:28:10.747752 22019 net.cpp:409] parameters -> label
I0503 19:28:10.747762 22019 hdf5_data_layer.cpp:79] Loading list of HDF5 filenames from: /home/purduethu/scratch/radon/d/deng106/CNNStatisticalModel/distributions/input/20_distributions_100_sample_size_train-distributions-path.txt
I0503 19:28:10.747783 22019 hdf5_data_layer.cpp:93] Number of HDF5 files: 1
I0503 19:28:10.748334 22019 hdf5.cpp:32] Datatype class: H5T_FLOAT
I0503 19:28:10.811909 22019 hdf5.cpp:35] Datatype class: H5T_INTEGER
I0503 19:28:10.813665 22019 net.cpp:144] Setting up parameters
I0503 19:28:10.813684 22019 net.cpp:151] Top shape: 20 1 10 10 (2000)
I0503 19:28:10.813690 22019 net.cpp:151] Top shape: 20 (20)
I0503 19:28:10.813694 22019 net.cpp:159] Memory required for data: 8080
I0503 19:28:10.813702 22019 layer_factory.hpp:77] Creating layer conv1
I0503 19:28:10.813725 22019 net.cpp:94] Creating Layer conv1
I0503 19:28:10.813731 22019 net.cpp:435] conv1 <- data
I0503 19:28:10.813743 22019 net.cpp:409] conv1 -> conv1
I0503 19:28:10.817534 22019 net.cpp:144] Setting up conv1
I0503 19:28:10.817549 22019 net.cpp:151] Top shape: 20 64 10 10 (128000)
I0503 19:28:10.817554 22019 net.cpp:159] Memory required for data: 520080
I0503 19:28:10.817565 22019 layer_factory.hpp:77] Creating layer relu1
I0503 19:28:10.817574 22019 net.cpp:94] Creating Layer relu1
I0503 19:28:10.817577 22019 net.cpp:435] relu1 <- conv1
I0503 19:28:10.817582 22019 net.cpp:396] relu1 -> conv1 (in-place)
I0503 19:28:10.817600 22019 net.cpp:144] Setting up relu1
I0503 19:28:10.817605 22019 net.cpp:151] Top shape: 20 64 10 10 (128000)
I0503 19:28:10.817608 22019 net.cpp:159] Memory required for data: 1032080
I0503 19:28:10.817612 22019 layer_factory.hpp:77] Creating layer conv2
I0503 19:28:10.817620 22019 net.cpp:94] Creating Layer conv2
I0503 19:28:10.817625 22019 net.cpp:435] conv2 <- conv1
I0503 19:28:10.817629 22019 net.cpp:409] conv2 -> conv2
I0503 19:28:10.822733 22019 net.cpp:144] Setting up conv2
I0503 19:28:10.822747 22019 net.cpp:151] Top shape: 20 64 10 10 (128000)
I0503 19:28:10.822751 22019 net.cpp:159] Memory required for data: 1544080
I0503 19:28:10.822760 22019 layer_factory.hpp:77] Creating layer relu2
I0503 19:28:10.822767 22019 net.cpp:94] Creating Layer relu2
I0503 19:28:10.822772 22019 net.cpp:435] relu2 <- conv2
I0503 19:28:10.822777 22019 net.cpp:396] relu2 -> conv2 (in-place)
I0503 19:28:10.822783 22019 net.cpp:144] Setting up relu2
I0503 19:28:10.822788 22019 net.cpp:151] Top shape: 20 64 10 10 (128000)
I0503 19:28:10.822791 22019 net.cpp:159] Memory required for data: 2056080
I0503 19:28:10.822794 22019 layer_factory.hpp:77] Creating layer pool2
I0503 19:28:10.822813 22019 net.cpp:94] Creating Layer pool2
I0503 19:28:10.822816 22019 net.cpp:435] pool2 <- conv2
I0503 19:28:10.822821 22019 net.cpp:409] pool2 -> pool2
I0503 19:28:10.822865 22019 net.cpp:144] Setting up pool2
I0503 19:28:10.822872 22019 net.cpp:151] Top shape: 20 64 5 5 (32000)
I0503 19:28:10.822876 22019 net.cpp:159] Memory required for data: 2184080
I0503 19:28:10.822880 22019 layer_factory.hpp:77] Creating layer conv3
I0503 19:28:10.822888 22019 net.cpp:94] Creating Layer conv3
I0503 19:28:10.822891 22019 net.cpp:435] conv3 <- pool2
I0503 19:28:10.822904 22019 net.cpp:409] conv3 -> conv3
I0503 19:28:10.830919 22019 net.cpp:144] Setting up conv3
I0503 19:28:10.830932 22019 net.cpp:151] Top shape: 20 128 5 5 (64000)
I0503 19:28:10.830937 22019 net.cpp:159] Memory required for data: 2440080
I0503 19:28:10.830945 22019 layer_factory.hpp:77] Creating layer relu3
I0503 19:28:10.830951 22019 net.cpp:94] Creating Layer relu3
I0503 19:28:10.830955 22019 net.cpp:435] relu3 <- conv3
I0503 19:28:10.830960 22019 net.cpp:396] relu3 -> conv3 (in-place)
I0503 19:28:10.830967 22019 net.cpp:144] Setting up relu3
I0503 19:28:10.830972 22019 net.cpp:151] Top shape: 20 128 5 5 (64000)
I0503 19:28:10.830976 22019 net.cpp:159] Memory required for data: 2696080
I0503 19:28:10.830978 22019 layer_factory.hpp:77] Creating layer conv4
I0503 19:28:10.830987 22019 net.cpp:94] Creating Layer conv4
I0503 19:28:10.830991 22019 net.cpp:435] conv4 <- conv3
I0503 19:28:10.830996 22019 net.cpp:409] conv4 -> conv4
I0503 19:28:10.845616 22019 net.cpp:144] Setting up conv4
I0503 19:28:10.845631 22019 net.cpp:151] Top shape: 20 128 5 5 (64000)
I0503 19:28:10.845635 22019 net.cpp:159] Memory required for data: 2952080
I0503 19:28:10.845643 22019 layer_factory.hpp:77] Creating layer relu4
I0503 19:28:10.845649 22019 net.cpp:94] Creating Layer relu4
I0503 19:28:10.845652 22019 net.cpp:435] relu4 <- conv4
I0503 19:28:10.845657 22019 net.cpp:396] relu4 -> conv4 (in-place)
I0503 19:28:10.845665 22019 net.cpp:144] Setting up relu4
I0503 19:28:10.845669 22019 net.cpp:151] Top shape: 20 128 5 5 (64000)
I0503 19:28:10.845674 22019 net.cpp:159] Memory required for data: 3208080
I0503 19:28:10.845676 22019 layer_factory.hpp:77] Creating layer conv5
I0503 19:28:10.845685 22019 net.cpp:94] Creating Layer conv5
I0503 19:28:10.845688 22019 net.cpp:435] conv5 <- conv4
I0503 19:28:10.845693 22019 net.cpp:409] conv5 -> conv5
I0503 19:28:10.859778 22019 net.cpp:144] Setting up conv5
I0503 19:28:10.859792 22019 net.cpp:151] Top shape: 20 128 5 5 (64000)
I0503 19:28:10.859797 22019 net.cpp:159] Memory required for data: 3464080
I0503 19:28:10.859805 22019 layer_factory.hpp:77] Creating layer relu5
I0503 19:28:10.859812 22019 net.cpp:94] Creating Layer relu5
I0503 19:28:10.859815 22019 net.cpp:435] relu5 <- conv5
I0503 19:28:10.859820 22019 net.cpp:396] relu5 -> conv5 (in-place)
I0503 19:28:10.859827 22019 net.cpp:144] Setting up relu5
I0503 19:28:10.859833 22019 net.cpp:151] Top shape: 20 128 5 5 (64000)
I0503 19:28:10.859835 22019 net.cpp:159] Memory required for data: 3720080
I0503 19:28:10.859838 22019 layer_factory.hpp:77] Creating layer pool5
I0503 19:28:10.859844 22019 net.cpp:94] Creating Layer pool5
I0503 19:28:10.859848 22019 net.cpp:435] pool5 <- conv5
I0503 19:28:10.859853 22019 net.cpp:409] pool5 -> pool5
I0503 19:28:10.859885 22019 net.cpp:144] Setting up pool5
I0503 19:28:10.859894 22019 net.cpp:151] Top shape: 20 128 2 2 (10240)
I0503 19:28:10.859896 22019 net.cpp:159] Memory required for data: 3761040
I0503 19:28:10.859900 22019 layer_factory.hpp:77] Creating layer ip1
I0503 19:28:10.859910 22019 net.cpp:94] Creating Layer ip1
I0503 19:28:10.859913 22019 net.cpp:435] ip1 <- pool5
I0503 19:28:10.859918 22019 net.cpp:409] ip1 -> ip1
I0503 19:28:10.873409 22019 net.cpp:144] Setting up ip1
I0503 19:28:10.873422 22019 net.cpp:151] Top shape: 20 1024 (20480)
I0503 19:28:10.873427 22019 net.cpp:159] Memory required for data: 3842960
I0503 19:28:10.873433 22019 layer_factory.hpp:77] Creating layer ip2
I0503 19:28:10.873440 22019 net.cpp:94] Creating Layer ip2
I0503 19:28:10.873450 22019 net.cpp:435] ip2 <- ip1
I0503 19:28:10.873456 22019 net.cpp:409] ip2 -> ip2
I0503 19:28:10.886260 22019 net.cpp:144] Setting up ip2
I0503 19:28:10.886272 22019 net.cpp:151] Top shape: 20 512 (10240)
I0503 19:28:10.886276 22019 net.cpp:159] Memory required for data: 3883920
I0503 19:28:10.886282 22019 layer_factory.hpp:77] Creating layer ip3
I0503 19:28:10.886289 22019 net.cpp:94] Creating Layer ip3
I0503 19:28:10.886293 22019 net.cpp:435] ip3 <- ip2
I0503 19:28:10.886298 22019 net.cpp:409] ip3 -> ip3
I0503 19:28:10.887596 22019 net.cpp:144] Setting up ip3
I0503 19:28:10.887609 22019 net.cpp:151] Top shape: 20 50 (1000)
I0503 19:28:10.887612 22019 net.cpp:159] Memory required for data: 3887920
I0503 19:28:10.887619 22019 layer_factory.hpp:77] Creating layer loss
I0503 19:28:10.887627 22019 net.cpp:94] Creating Layer loss
I0503 19:28:10.887631 22019 net.cpp:435] loss <- ip3
I0503 19:28:10.887635 22019 net.cpp:435] loss <- label
I0503 19:28:10.887641 22019 net.cpp:409] loss -> loss
I0503 19:28:10.887651 22019 layer_factory.hpp:77] Creating layer loss
…
I0503 19:28:10.888140 22019 solver.cpp:181] Creating test net (#0) specified by net file: ./protocol/dis_20_100_dimension.protocol_distribution
I0503 19:28:10.888166 22019 net.cpp:323] The NetState phase (1) differed from the phase (0) specified by a rule in layer parameters
I0503 19:28:10.888264 22019 net.cpp:52] Initializing net from parameters: 
state {
  phase: TEST
}
layer {
  name: "intercept"
  type: "HDF5Data"
  top: "data"
  top: "label"
  include {
    phase: TEST
  }
  hdf5_data_param {
    source: "/home/purduethu/scratch/radon/d/deng106/CNNStatisticalModel/distributions/input/20_distributions_100_sample_size_test-distributions-path.txt"
    batch_size: 20
  }
}
layer {
  name: "conv1"
  type: "Convolution"
  bottom: "data"
  top: "conv1"
  param {
    lr_mult: 1
  }
  param {
    lr_mult: 2
  }
  convolution_param {
    num_output: 64
    pad: 2
    kernel_size: 5
    stride: 1
    weight_filler {
      type: "gaussian"
      std: 0.0001
    }
    bias_filler {
      type: "constant"
    }
  }
}
layer {
  name: "relu1"
  type: "ReLU"
  bottom: "conv1"
  top: "conv1"
}
layer {
  name: "conv2"
  type: "Convolution"
  bottom: "conv1"
  top: "conv2"
  param {
    lr_mult: 1
  }
  param {
    lr_mult: 2
  }
  convolution_param {
    num_output: 64
    pad: 2
    kernel_size: 5
    stride: 1
    weight_filler {
      type: "gaussian"
      std: 0.01
    }
    bias_filler {
      type: "constant"
    }
  }
}
layer {
  name: "relu2"
  type: "ReLU"
  bottom: "conv2"
  top: "conv2"
}
layer {
  name: "pool2"
  type: "Pooling"
  bottom: "conv2"
  top: "pool2"
  pooling_param {
    pool: MAX
    kernel_size: 3
    stride: 2
  }
}
layer {
  name: "conv3"
  type: "Convolution"
  bottom: "pool2"
  top: "conv3"
  param {
    lr_mult: 1
  }
  param {
    lr_mult: 2
  }
  convolution_param {
    num_output: 128
    pad: 2
    kernel_size: 5
    stride: 1
    weight_filler {
      type: "gaussian"
      std: 0.01
    }
    bias_filler {
      type: "constant"
    }
  }
}
layer {
  name: "relu3"
  type: "ReLU"
  bottom: "conv3"
  top: "conv3"
}
layer {
  name: "conv4"
  type: "Convolution"
  bottom: "conv3"
  top: "conv4"
  param {
    lr_mult: 1
  }
  param {
    lr_mult: 2
  }
  convolution_param {
    num_output: 128
    pad: 2
    kernel_size: 5
    stride: 1
    weight_filler {
      type: "gaussian"
      std: 0.01
    }
    bias_filler {
      type: "constant"
    }
  }
}
layer {
  name: "relu4"
  type: "ReLU"
  bottom: "conv4"
  top: "conv4"
}
layer {
  name: "conv5"
  type: "Convolution"
  bottom: "conv4"
  top: "conv5"
  param {
    lr_mult: 1
  }
  param {
    lr_mult: 2
  }
  convolution_param {
    num_output: 128
    pad: 2
    kernel_size: 5
    stride: 1
    weight_filler {
      type: "gaussian"
      std: 0.01
    }
    bias_filler {
      type: "constant"
    }
  }
}
layer {
  name: "relu5"
  type: "ReLU"
  bottom: "conv5"
  top: "conv5"
}
layer {
  name: "pool5"
  type: "Pooling"
  bottom: "conv5"
  top: "pool5"
  pooling_param {
    pool: AVE
    kernel_size: 3
    stride: 2
  }
}
layer {
  name: "ip1"
  type: "InnerProduct"
  bottom: "pool5"
  top: "ip1"
  param {
    lr_mult: 1
  }
  param {
    lr_mult: 2
  }
  inner_product_param {
    num_output: 1024
    weight_filler {
      type: "gaussian"
      std: 0.1
    }
    bias_filler {
      type: "constant"
    }
  }
}
layer {
  name: "ip2"
  type: "InnerProduct"
  bottom: "ip1"
  top: "ip2"
  param {
    lr_mult: 1
  }
  param {
    lr_mult: 2
  }
  inner_product_param {
    num_output: 512
    weight_filler {
      type: "gaussian"
      std: 0.1
    }
    bias_filler {
      type: "constant"
    }
  }
}
layer {
  name: "ip3"
  type: "InnerProduct"
  bottom: "ip2"
  top: "ip3"
  param {
    lr_mult: 1
  }
  param {
    lr_mult: 2
  }
  inner_product_param {
    num_output: 50
    weight_filler {
      type: "gaussian"
      std: 0.1
    }
    bias_filler {
      type: "constant"
    }
  }
}
layer {
  name: "accuracy"
  type: "Accuracy"
  bottom: "ip3"
  bottom: "label"
  top: "accuracy"
  include {
    phase: TEST
  }
}
layer {
  name: "loss"
  type: "SoftmaxWithLoss"
  bottom: "ip3"
  bottom: "label"
  top: "loss"
}
I0503 19:28:10.888337 22019 layer_factory.hpp:77] Creating layer intercept
I0503 19:28:10.888345 22019 net.cpp:94] Creating Layer intercept
I0503 19:28:10.888350 22019 net.cpp:409] intercept -> data
I0503 19:28:10.888356 22019 net.cpp:409] intercept -> label
I0503 19:28:10.888363 22019 hdf5_data_layer.cpp:79] Loading list of HDF5 filenames from: /home/purduethu/scratch/radon/d/deng106/CNNStatisticalModel/distributions/input/20_distributions_100_sample_size_test-distributions-path.txt
I0503 19:28:10.888381 22019 hdf5_data_layer.cpp:93] Number of HDF5 files: 1
I0503 19:28:10.904918 22019 net.cpp:144] Setting up intercept
I0503 19:28:10.904953 22019 net.cpp:151] Top shape: 20 1 10 10 (2000)
I0503 19:28:10.904959 22019 net.cpp:151] Top shape: 20 (20)
I0503 19:28:10.904963 22019 net.cpp:159] Memory required for data: 8080
I0503 19:28:10.904969 22019 layer_factory.hpp:77] Creating layer label_intercept_1_split
I0503 19:28:10.904986 22019 net.cpp:94] Creating Layer label_intercept_1_split
I0503 19:28:10.904990 22019 net.cpp:435] label_intercept_1_split <- label
I0503 19:28:10.904997 22019 net.cpp:409] label_intercept_1_split -> label_intercept_1_split_0
I0503 19:28:10.905005 22019 net.cpp:409] label_intercept_1_split -> label_intercept_1_split_1
I0503 19:28:10.905040 22019 net.cpp:144] Setting up label_intercept_1_split
I0503 19:28:10.905046 22019 net.cpp:151] Top shape: 20 (20)
I0503 19:28:10.905050 22019 net.cpp:151] Top shape: 20 (20)
I0503 19:28:10.905053 22019 net.cpp:159] Memory required for data: 8240
I0503 19:28:10.905057 22019 layer_factory.hpp:77] Creating layer conv1
I0503 19:28:10.905068 22019 net.cpp:94] Creating Layer conv1
I0503 19:28:10.905072 22019 net.cpp:435] conv1 <- data
I0503 19:28:10.905077 22019 net.cpp:409] conv1 -> conv1
I0503 19:28:10.905781 22019 net.cpp:144] Setting up conv1
I0503 19:28:10.905802 22019 net.cpp:151] Top shape: 20 64 10 10 (128000)
I0503 19:28:10.905807 22019 net.cpp:159] Memory required for data: 520240
I0503 19:28:10.905817 22019 layer_factory.hpp:77] Creating layer relu1
I0503 19:28:10.905824 22019 net.cpp:94] Creating Layer relu1
I0503 19:28:10.905828 22019 net.cpp:435] relu1 <- conv1
I0503 19:28:10.905833 22019 net.cpp:396] relu1 -> conv1 (in-place)
I0503 19:28:10.905841 22019 net.cpp:144] Setting up relu1
I0503 19:28:10.905845 22019 net.cpp:151] Top shape: 20 64 10 10 (128000)
I0503 19:28:10.905849 22019 net.cpp:159] Memory required for data: 1032240
I0503 19:28:10.905853 22019 layer_factory.hpp:77] Creating layer conv2
I0503 19:28:10.905860 22019 net.cpp:94] Creating Layer conv2
I0503 19:28:10.905864 22019 net.cpp:435] conv2 <- conv1
I0503 19:28:10.905869 22019 net.cpp:409] conv2 -> conv2
I0503 19:28:10.909742 22019 net.cpp:144] Setting up conv2
I0503 19:28:10.909756 22019 net.cpp:151] Top shape: 20 64 10 10 (128000)
I0503 19:28:10.909760 22019 net.cpp:159] Memory required for data: 1544240
I0503 19:28:10.909768 22019 layer_factory.hpp:77] Creating layer relu2
I0503 19:28:10.909775 22019 net.cpp:94] Creating Layer relu2
I0503 19:28:10.909778 22019 net.cpp:435] relu2 <- conv2
I0503 19:28:10.909783 22019 net.cpp:396] relu2 -> conv2 (in-place)
I0503 19:28:10.909790 22019 net.cpp:144] Setting up relu2
I0503 19:28:10.909795 22019 net.cpp:151] Top shape: 20 64 10 10 (128000)
I0503 19:28:10.909798 22019 net.cpp:159] Memory required for data: 2056240
I0503 19:28:10.909802 22019 layer_factory.hpp:77] Creating layer pool2
I0503 19:28:10.909808 22019 net.cpp:94] Creating Layer pool2
I0503 19:28:10.909811 22019 net.cpp:435] pool2 <- conv2
I0503 19:28:10.909816 22019 net.cpp:409] pool2 -> pool2
I0503 19:28:10.909850 22019 net.cpp:144] Setting up pool2
I0503 19:28:10.909857 22019 net.cpp:151] Top shape: 20 64 5 5 (32000)
I0503 19:28:10.909860 22019 net.cpp:159] Memory required for data: 2184240
I0503 19:28:10.909863 22019 layer_factory.hpp:77] Creating layer conv3
I0503 19:28:10.909873 22019 net.cpp:94] Creating Layer conv3
I0503 19:28:10.909875 22019 net.cpp:435] conv3 <- pool2
I0503 19:28:10.909880 22019 net.cpp:409] conv3 -> conv3
I0503 19:28:10.916786 22019 net.cpp:144] Setting up conv3
I0503 19:28:10.916800 22019 net.cpp:151] Top shape: 20 128 5 5 (64000)
I0503 19:28:10.916805 22019 net.cpp:159] Memory required for data: 2440240
I0503 19:28:10.916813 22019 layer_factory.hpp:77] Creating layer relu3
I0503 19:28:10.916821 22019 net.cpp:94] Creating Layer relu3
I0503 19:28:10.916824 22019 net.cpp:435] relu3 <- conv3
I0503 19:28:10.916829 22019 net.cpp:396] relu3 -> conv3 (in-place)
I0503 19:28:10.916836 22019 net.cpp:144] Setting up relu3
I0503 19:28:10.916841 22019 net.cpp:151] Top shape: 20 128 5 5 (64000)
I0503 19:28:10.916844 22019 net.cpp:159] Memory required for data: 2696240
I0503 19:28:10.916847 22019 layer_factory.hpp:77] Creating layer conv4
I0503 19:28:10.916856 22019 net.cpp:94] Creating Layer conv4
I0503 19:28:10.916858 22019 net.cpp:435] conv4 <- conv3
I0503 19:28:10.916863 22019 net.cpp:409] conv4 -> conv4
I0503 19:28:10.928982 22019 net.cpp:144] Setting up conv4
I0503 19:28:10.928995 22019 net.cpp:151] Top shape: 20 128 5 5 (64000)
I0503 19:28:10.928999 22019 net.cpp:159] Memory required for data: 2952240
I0503 19:28:10.929006 22019 layer_factory.hpp:77] Creating layer relu4
I0503 19:28:10.929013 22019 net.cpp:94] Creating Layer relu4
I0503 19:28:10.929016 22019 net.cpp:435] relu4 <- conv4
I0503 19:28:10.929025 22019 net.cpp:396] relu4 -> conv4 (in-place)
I0503 19:28:10.929033 22019 net.cpp:144] Setting up relu4
I0503 19:28:10.929038 22019 net.cpp:151] Top shape: 20 128 5 5 (64000)
I0503 19:28:10.929041 22019 net.cpp:159] Memory required for data: 3208240
I0503 19:28:10.929044 22019 layer_factory.hpp:77] Creating layer conv5
I0503 19:28:10.929052 22019 net.cpp:94] Creating Layer conv5
I0503 19:28:10.929056 22019 net.cpp:435] conv5 <- conv4
I0503 19:28:10.929061 22019 net.cpp:409] conv5 -> conv5
I0503 19:28:10.941038 22019 net.cpp:144] Setting up conv5
I0503 19:28:10.941058 22019 net.cpp:151] Top shape: 20 128 5 5 (64000)
I0503 19:28:10.941063 22019 net.cpp:159] Memory required for data: 3464240
I0503 19:28:10.941072 22019 layer_factory.hpp:77] Creating layer relu5
I0503 19:28:10.941079 22019 net.cpp:94] Creating Layer relu5
I0503 19:28:10.941083 22019 net.cpp:435] relu5 <- conv5
I0503 19:28:10.941088 22019 net.cpp:396] relu5 -> conv5 (in-place)
I0503 19:28:10.941095 22019 net.cpp:144] Setting up relu5
I0503 19:28:10.941100 22019 net.cpp:151] Top shape: 20 128 5 5 (64000)
I0503 19:28:10.941103 22019 net.cpp:159] Memory required for data: 3720240
I0503 19:28:10.941107 22019 layer_factory.hpp:77] Creating layer pool5
I0503 19:28:10.941112 22019 net.cpp:94] Creating Layer pool5
I0503 19:28:10.941115 22019 net.cpp:435] pool5 <- conv5
I0503 19:28:10.941120 22019 net.cpp:409] pool5 -> pool5
I0503 19:28:10.941145 22019 net.cpp:144] Setting up pool5
I0503 19:28:10.941151 22019 net.cpp:151] Top shape: 20 128 2 2 (10240)
I0503 19:28:10.941155 22019 net.cpp:159] Memory required for data: 3761200
I0503 19:28:10.941159 22019 layer_factory.hpp:77] Creating layer ip1
I0503 19:28:10.941165 22019 net.cpp:94] Creating Layer ip1
I0503 19:28:10.941169 22019 net.cpp:435] ip1 <- pool5
I0503 19:28:10.941174 22019 net.cpp:409] ip1 -> ip1
I0503 19:28:10.954017 22019 net.cpp:144] Setting up ip1
I0503 19:28:10.954030 22019 net.cpp:151] Top shape: 20 1024 (20480)
I0503 19:28:10.954035 22019 net.cpp:159] Memory required for data: 3843120
I0503 19:28:10.954041 22019 layer_factory.hpp:77] Creating layer ip2
I0503 19:28:10.954051 22019 net.cpp:94] Creating Layer ip2
I0503 19:28:10.954057 22019 net.cpp:435] ip2 <- ip1
I0503 19:28:10.954066 22019 net.cpp:409] ip2 -> ip2
I0503 19:28:10.966892 22019 net.cpp:144] Setting up ip2
I0503 19:28:10.966904 22019 net.cpp:151] Top shape: 20 512 (10240)
I0503 19:28:10.966908 22019 net.cpp:159] Memory required for data: 3884080
I0503 19:28:10.966914 22019 layer_factory.hpp:77] Creating layer ip3
I0503 19:28:10.966922 22019 net.cpp:94] Creating Layer ip3
I0503 19:28:10.966927 22019 net.cpp:435] ip3 <- ip2
I0503 19:28:10.966933 22019 net.cpp:409] ip3 -> ip3
I0503 19:28:10.967604 22019 net.cpp:144] Setting up ip3
I0503 19:28:10.967612 22019 net.cpp:151] Top shape: 20 50 (1000)
I0503 19:28:10.967615 22019 net.cpp:159] Memory required for data: 3888080
I0503 19:28:10.967620 22019 layer_factory.hpp:77] Creating layer ip3_ip3_0_split
I0503 19:28:10.967625 22019 net.cpp:94] Creating Layer ip3_ip3_0_split
I0503 19:28:10.967629 22019 net.cpp:435] ip3_ip3_0_split <- ip3
I0503 19:28:10.967633 22019 net.cpp:409] ip3_ip3_0_split -> ip3_ip3_0_split_0
I0503 19:28:10.967639 22019 net.cpp:409] ip3_ip3_0_split -> ip3_ip3_0_split_1
I0503 19:28:10.967664 22019 net.cpp:144] Setting up ip3_ip3_0_split
I0503 19:28:10.967669 22019 net.cpp:151] Top shape: 20 50 (1000)
I0503 19:28:10.967674 22019 net.cpp:151] Top shape: 20 50 (1000)
I0503 19:28:10.967676 22019 net.cpp:159] Memory required for data: 3896080
I0503 19:28:10.967680 22019 layer_factory.hpp:77] Creating layer accuracy
I0503 19:28:10.967686 22019 net.cpp:94] Creating Layer accuracy
I0503 19:28:10.967689 22019 net.cpp:435] accuracy <- ip3_ip3_0_split_0
I0503 19:28:10.967694 22019 net.cpp:435] accuracy <- label_intercept_1_split_0
I0503 19:28:10.967699 22019 net.cpp:409] accuracy -> accuracy
…
