…
I0502 10:24:43.862150 23767 net.cpp:323] The NetState phase (0) differed from the phase (1) specified by a rule in layer intercept
I0502 10:24:43.862166 23767 net.cpp:323] The NetState phase (0) differed from the phase (1) specified by a rule in layer loss
I0502 10:24:43.862247 23767 net.cpp:52] Initializing net from parameters: 
state {
  phase: TRAIN
}
layer {
  name: "parameters"
  type: "HDF5Data"
  top: "data"
  top: "label"
  include {
    phase: TRAIN
  }
  hdf5_data_param {
    source: "/home/purduethu/scratch/radon/d/deng106/CNNStatisticalModel/distributions/input/20_distributions_900_sample_size_train-parameters-path.txt"
    batch_size: 20
  }
}
layer {
  name: "conv1"
  type: "Convolution"
  bottom: "data"
  top: "conv1"
  param {
    lr_mult: 1
  }
  param {
    lr_mult: 2
  }
  convolution_param {
    num_output: 64
    pad: 2
    kernel_size: 5
    stride: 1
    weight_filler {
      type: "gaussian"
      std: 0.0001
    }
    bias_filler {
      type: "constant"
    }
  }
}
layer {
  name: "relu1"
  type: "ReLU"
  bottom: "conv1"
  top: "conv1"
}
layer {
  name: "conv2"
  type: "Convolution"
  bottom: "conv1"
  top: "conv2"
  param {
    lr_mult: 1
  }
  param {
    lr_mult: 2
  }
  convolution_param {
    num_output: 64
    pad: 2
    kernel_size: 5
    stride: 1
    weight_filler {
      type: "gaussian"
      std: 0.01
    }
    bias_filler {
      type: "constant"
    }
  }
}
layer {
  name: "relu2"
  type: "ReLU"
  bottom: "conv2"
  top: "conv2"
}
layer {
  name: "pool2"
  type: "Pooling"
  bottom: "conv2"
  top: "pool2"
  pooling_param {
    pool: MAX
    kernel_size: 3
    stride: 2
  }
}
layer {
  name: "conv3"
  type: "Convolution"
  bottom: "pool2"
  top: "conv3"
  param {
    lr_mult: 1
  }
  param {
    lr_mult: 2
  }
  convolution_param {
    num_output: 64
    pad: 2
    kernel_size: 5
    stride: 1
    weight_filler {
      type: "gaussian"
      std: 0.01
    }
    bias_filler {
      type: "constant"
    }
  }
}
layer {
  name: "relu3"
  type: "ReLU"
  bottom: "conv3"
  top: "conv3"
}
layer {
  name: "conv4"
  type: "Convolution"
  bottom: "conv3"
  top: "conv4"
  param {
    lr_mult: 1
  }
  param {
    lr_mult: 2
  }
  convolution_param {
    num_output: 64
    pad: 2
    kernel_size: 5
    stride: 1
    weight_filler {
      type: "gaussian"
      std: 0.01
    }
    bias_filler {
      type: "constant"
    }
  }
}
layer {
  name: "relu4"
  type: "ReLU"
  bottom: "conv4"
  top: "conv4"
}
layer {
  name: "conv5"
  type: "Convolution"
  bottom: "conv4"
  top: "conv5"
  param {
    lr_mult: 1
  }
  param {
    lr_mult: 2
  }
  convolution_param {
    num_output: 64
    pad: 2
    kernel_size: 5
    stride: 1
    weight_filler {
      type: "gaussian"
      std: 0.01
    }
    bias_filler {
      type: "constant"
    }
  }
}
layer {
  name: "relu5"
  type: "ReLU"
  bottom: "conv5"
  top: "conv5"
}
layer {
  name: "pool5"
  type: "Pooling"
  bottom: "conv5"
  top: "pool5"
  pooling_param {
    pool: AVE
    kernel_size: 3
    stride: 2
  }
}
layer {
  name: "ip1"
  type: "InnerProduct"
  bottom: "pool5"
  top: "ip1"
  param {
    lr_mult: 1
  }
  param {
    lr_mult: 2
  }
  inner_product_param {
    num_output: 64
    weight_filler {
      type: "gaussian"
      std: 0.1
    }
    bias_filler {
      type: "constant"
    }
  }
}
layer {
  name: "ip2"
  type: "InnerProduct"
  bottom: "ip1"
  top: "ip2"
  param {
    lr_mult: 1
  }
  param {
    lr_mult: 2
  }
  inner_product_param {
    num_output: 64
    weight_filler {
      type: "gaussian"
      std: 0.1
    }
    bias_filler {
      type: "constant"
    }
  }
}
layer {
  name: "ip3"
  type: "InnerProduct"
  bottom: "ip2"
  top: "ip3"
  param {
    lr_mult: 1
  }
  param {
    lr_mult: 2
  }
  inner_product_param {
    num_output: 1
    weight_filler {
      type: "gaussian"
      std: 0.1
    }
    bias_filler {
      type: "constant"
    }
  }
}
layer {
  name: "loss"
  type: "HuberLoss"
  bottom: "ip3"
  bottom: "label"
  top: "loss"
  include {
    phase: TRAIN
  }
}
I0502 10:24:43.862303 23767 layer_factory.hpp:77] Creating layer parameters
I0502 10:24:43.862319 23767 net.cpp:94] Creating Layer parameters
I0502 10:24:43.862323 23767 net.cpp:409] parameters -> data
I0502 10:24:43.862332 23767 net.cpp:409] parameters -> label
I0502 10:24:43.862339 23767 hdf5_data_layer.cpp:79] Loading list of HDF5 filenames from: /home/purduethu/scratch/radon/d/deng106/CNNStatisticalModel/distributions/input/20_distributions_900_sample_size_train-parameters-path.txt
I0502 10:24:43.862354 23767 hdf5_data_layer.cpp:93] Number of HDF5 files: 1
I0502 10:24:43.862916 23767 hdf5.cpp:32] Datatype class: H5T_FLOAT
I0502 10:24:44.444510 23767 net.cpp:144] Setting up parameters
I0502 10:24:44.444541 23767 net.cpp:151] Top shape: 20 1 30 30 (18000)
I0502 10:24:44.444547 23767 net.cpp:151] Top shape: 20 (20)
I0502 10:24:44.444562 23767 net.cpp:159] Memory required for data: 72080
I0502 10:24:44.444581 23767 layer_factory.hpp:77] Creating layer conv1
I0502 10:24:44.444597 23767 net.cpp:94] Creating Layer conv1
I0502 10:24:44.444602 23767 net.cpp:435] conv1 <- data
I0502 10:24:44.444608 23767 net.cpp:409] conv1 -> conv1
I0502 10:24:44.451045 23767 net.cpp:144] Setting up conv1
I0502 10:24:44.451066 23767 net.cpp:151] Top shape: 20 64 30 30 (1152000)
I0502 10:24:44.451069 23767 net.cpp:159] Memory required for data: 4680080
I0502 10:24:44.451081 23767 layer_factory.hpp:77] Creating layer relu1
I0502 10:24:44.451089 23767 net.cpp:94] Creating Layer relu1
I0502 10:24:44.451093 23767 net.cpp:435] relu1 <- conv1
I0502 10:24:44.451097 23767 net.cpp:396] relu1 -> conv1 (in-place)
I0502 10:24:44.451107 23767 net.cpp:144] Setting up relu1
I0502 10:24:44.451112 23767 net.cpp:151] Top shape: 20 64 30 30 (1152000)
I0502 10:24:44.451113 23767 net.cpp:159] Memory required for data: 9288080
I0502 10:24:44.451117 23767 layer_factory.hpp:77] Creating layer conv2
I0502 10:24:44.451124 23767 net.cpp:94] Creating Layer conv2
I0502 10:24:44.451128 23767 net.cpp:435] conv2 <- conv1
I0502 10:24:44.451133 23767 net.cpp:409] conv2 -> conv2
I0502 10:24:44.467028 23767 net.cpp:144] Setting up conv2
I0502 10:24:44.467067 23767 net.cpp:151] Top shape: 20 64 30 30 (1152000)
I0502 10:24:44.467077 23767 net.cpp:159] Memory required for data: 13896080
I0502 10:24:44.467098 23767 layer_factory.hpp:77] Creating layer relu2
I0502 10:24:44.467115 23767 net.cpp:94] Creating Layer relu2
I0502 10:24:44.467125 23767 net.cpp:435] relu2 <- conv2
I0502 10:24:44.467139 23767 net.cpp:396] relu2 -> conv2 (in-place)
I0502 10:24:44.467157 23767 net.cpp:144] Setting up relu2
I0502 10:24:44.467170 23767 net.cpp:151] Top shape: 20 64 30 30 (1152000)
I0502 10:24:44.467178 23767 net.cpp:159] Memory required for data: 18504080
I0502 10:24:44.467187 23767 layer_factory.hpp:77] Creating layer pool2
I0502 10:24:44.467213 23767 net.cpp:94] Creating Layer pool2
I0502 10:24:44.467223 23767 net.cpp:435] pool2 <- conv2
I0502 10:24:44.467236 23767 net.cpp:409] pool2 -> pool2
I0502 10:24:44.467363 23767 net.cpp:144] Setting up pool2
I0502 10:24:44.467371 23767 net.cpp:151] Top shape: 20 64 15 15 (288000)
I0502 10:24:44.467373 23767 net.cpp:159] Memory required for data: 19656080
I0502 10:24:44.467377 23767 layer_factory.hpp:77] Creating layer conv3
I0502 10:24:44.467386 23767 net.cpp:94] Creating Layer conv3
I0502 10:24:44.467388 23767 net.cpp:435] conv3 <- pool2
I0502 10:24:44.467393 23767 net.cpp:409] conv3 -> conv3
I0502 10:24:44.476071 23767 net.cpp:144] Setting up conv3
I0502 10:24:44.476089 23767 net.cpp:151] Top shape: 20 64 15 15 (288000)
I0502 10:24:44.476094 23767 net.cpp:159] Memory required for data: 20808080
I0502 10:24:44.476102 23767 layer_factory.hpp:77] Creating layer relu3
I0502 10:24:44.476109 23767 net.cpp:94] Creating Layer relu3
I0502 10:24:44.476114 23767 net.cpp:435] relu3 <- conv3
I0502 10:24:44.476119 23767 net.cpp:396] relu3 -> conv3 (in-place)
I0502 10:24:44.476126 23767 net.cpp:144] Setting up relu3
I0502 10:24:44.476131 23767 net.cpp:151] Top shape: 20 64 15 15 (288000)
I0502 10:24:44.476135 23767 net.cpp:159] Memory required for data: 21960080
I0502 10:24:44.476138 23767 layer_factory.hpp:77] Creating layer conv4
I0502 10:24:44.476147 23767 net.cpp:94] Creating Layer conv4
I0502 10:24:44.476151 23767 net.cpp:435] conv4 <- conv3
I0502 10:24:44.476157 23767 net.cpp:409] conv4 -> conv4
I0502 10:24:44.483883 23767 net.cpp:144] Setting up conv4
I0502 10:24:44.483899 23767 net.cpp:151] Top shape: 20 64 15 15 (288000)
I0502 10:24:44.483904 23767 net.cpp:159] Memory required for data: 23112080
I0502 10:24:44.483911 23767 layer_factory.hpp:77] Creating layer relu4
I0502 10:24:44.483917 23767 net.cpp:94] Creating Layer relu4
I0502 10:24:44.483922 23767 net.cpp:435] relu4 <- conv4
I0502 10:24:44.483927 23767 net.cpp:396] relu4 -> conv4 (in-place)
I0502 10:24:44.483934 23767 net.cpp:144] Setting up relu4
I0502 10:24:44.483939 23767 net.cpp:151] Top shape: 20 64 15 15 (288000)
I0502 10:24:44.483942 23767 net.cpp:159] Memory required for data: 24264080
I0502 10:24:44.483947 23767 layer_factory.hpp:77] Creating layer conv5
I0502 10:24:44.483954 23767 net.cpp:94] Creating Layer conv5
I0502 10:24:44.483958 23767 net.cpp:435] conv5 <- conv4
I0502 10:24:44.483963 23767 net.cpp:409] conv5 -> conv5
I0502 10:24:44.492725 23767 net.cpp:144] Setting up conv5
I0502 10:24:44.492764 23767 net.cpp:151] Top shape: 20 64 15 15 (288000)
I0502 10:24:44.492776 23767 net.cpp:159] Memory required for data: 25416080
I0502 10:24:44.492800 23767 layer_factory.hpp:77] Creating layer relu5
I0502 10:24:44.492816 23767 net.cpp:94] Creating Layer relu5
I0502 10:24:44.492826 23767 net.cpp:435] relu5 <- conv5
I0502 10:24:44.492838 23767 net.cpp:396] relu5 -> conv5 (in-place)
I0502 10:24:44.492857 23767 net.cpp:144] Setting up relu5
I0502 10:24:44.492871 23767 net.cpp:151] Top shape: 20 64 15 15 (288000)
I0502 10:24:44.492887 23767 net.cpp:159] Memory required for data: 26568080
I0502 10:24:44.492889 23767 layer_factory.hpp:77] Creating layer pool5
I0502 10:24:44.492895 23767 net.cpp:94] Creating Layer pool5
I0502 10:24:44.492898 23767 net.cpp:435] pool5 <- conv5
I0502 10:24:44.492903 23767 net.cpp:409] pool5 -> pool5
I0502 10:24:44.492944 23767 net.cpp:144] Setting up pool5
I0502 10:24:44.492952 23767 net.cpp:151] Top shape: 20 64 7 7 (62720)
I0502 10:24:44.492955 23767 net.cpp:159] Memory required for data: 26818960
I0502 10:24:44.492959 23767 layer_factory.hpp:77] Creating layer ip1
I0502 10:24:44.492969 23767 net.cpp:94] Creating Layer ip1
I0502 10:24:44.492974 23767 net.cpp:435] ip1 <- pool5
I0502 10:24:44.492979 23767 net.cpp:409] ip1 -> ip1
I0502 10:24:44.498433 23767 net.cpp:144] Setting up ip1
I0502 10:24:44.498443 23767 net.cpp:151] Top shape: 20 64 (1280)
I0502 10:24:44.498446 23767 net.cpp:159] Memory required for data: 26824080
I0502 10:24:44.498452 23767 layer_factory.hpp:77] Creating layer ip2
I0502 10:24:44.498459 23767 net.cpp:94] Creating Layer ip2
I0502 10:24:44.498467 23767 net.cpp:435] ip2 <- ip1
I0502 10:24:44.498473 23767 net.cpp:409] ip2 -> ip2
I0502 10:24:44.498708 23767 net.cpp:144] Setting up ip2
I0502 10:24:44.498714 23767 net.cpp:151] Top shape: 20 64 (1280)
I0502 10:24:44.498718 23767 net.cpp:159] Memory required for data: 26829200
I0502 10:24:44.498723 23767 layer_factory.hpp:77] Creating layer ip3
I0502 10:24:44.498730 23767 net.cpp:94] Creating Layer ip3
I0502 10:24:44.498734 23767 net.cpp:435] ip3 <- ip2
I0502 10:24:44.498739 23767 net.cpp:409] ip3 -> ip3
I0502 10:24:44.498850 23767 net.cpp:144] Setting up ip3
I0502 10:24:44.498857 23767 net.cpp:151] Top shape: 20 1 (20)
I0502 10:24:44.498860 23767 net.cpp:159] Memory required for data: 26829280
I0502 10:24:44.498865 23767 layer_factory.hpp:77] Creating layer loss
I0502 10:24:44.498878 23767 net.cpp:94] Creating Layer loss
I0502 10:24:44.498883 23767 net.cpp:435] loss <- ip3
I0502 10:24:44.498886 23767 net.cpp:435] loss <- label
I0502 10:24:44.498891 23767 net.cpp:409] loss -> loss
I0502 10:24:44.498945 23767 net.cpp:144] Setting up loss
…
I0502 10:24:44.678994 23767 net.cpp:323] The NetState phase (0) differed from the phase (1) specified by a rule in layer intercept
I0502 10:24:44.679010 23767 net.cpp:323] The NetState phase (0) differed from the phase (1) specified by a rule in layer accuracy
I0502 10:24:44.679097 23767 net.cpp:52] Initializing net from parameters: 
state {
  phase: TRAIN
}
layer {
  name: "parameters"
  type: "HDF5Data"
  top: "data"
  top: "label"
  include {
    phase: TRAIN
  }
  hdf5_data_param {
    source: "/home/purduethu/scratch/radon/d/deng106/CNNStatisticalModel/distributions/input/20_distributions_900_sample_size_train-distributions-path.txt"
    batch_size: 20
  }
}
layer {
  name: "conv1"
  type: "Convolution"
  bottom: "data"
  top: "conv1"
  param {
    lr_mult: 1
  }
  param {
    lr_mult: 2
  }
  convolution_param {
    num_output: 64
    pad: 2
    kernel_size: 5
    stride: 1
    weight_filler {
      type: "gaussian"
      std: 0.0001
    }
    bias_filler {
      type: "constant"
    }
  }
}
layer {
  name: "relu1"
  type: "ReLU"
  bottom: "conv1"
  top: "conv1"
}
layer {
  name: "conv2"
  type: "Convolution"
  bottom: "conv1"
  top: "conv2"
  param {
    lr_mult: 1
  }
  param {
    lr_mult: 2
  }
  convolution_param {
    num_output: 64
    pad: 2
    kernel_size: 5
    stride: 1
    weight_filler {
      type: "gaussian"
      std: 0.01
    }
    bias_filler {
      type: "constant"
    }
  }
}
layer {
  name: "relu2"
  type: "ReLU"
  bottom: "conv2"
  top: "conv2"
}
layer {
  name: "pool2"
  type: "Pooling"
  bottom: "conv2"
  top: "pool2"
  pooling_param {
    pool: MAX
    kernel_size: 3
    stride: 2
  }
}
layer {
  name: "conv3"
  type: "Convolution"
  bottom: "pool2"
  top: "conv3"
  param {
    lr_mult: 1
  }
  param {
    lr_mult: 2
  }
  convolution_param {
    num_output: 64
    pad: 2
    kernel_size: 5
    stride: 1
    weight_filler {
      type: "gaussian"
      std: 0.01
    }
    bias_filler {
      type: "constant"
    }
  }
}
layer {
  name: "relu3"
  type: "ReLU"
  bottom: "conv3"
  top: "conv3"
}
layer {
  name: "conv4"
  type: "Convolution"
  bottom: "conv3"
  top: "conv4"
  param {
    lr_mult: 1
  }
  param {
    lr_mult: 2
  }
  convolution_param {
    num_output: 64
    pad: 2
    kernel_size: 5
    stride: 1
    weight_filler {
      type: "gaussian"
      std: 0.01
    }
    bias_filler {
      type: "constant"
    }
  }
}
layer {
  name: "relu4"
  type: "ReLU"
  bottom: "conv4"
  top: "conv4"
}
layer {
  name: "conv5"
  type: "Convolution"
  bottom: "conv4"
  top: "conv5"
  param {
    lr_mult: 1
  }
  param {
    lr_mult: 2
  }
  convolution_param {
    num_output: 64
    pad: 2
    kernel_size: 5
    stride: 1
    weight_filler {
      type: "gaussian"
      std: 0.01
    }
    bias_filler {
      type: "constant"
    }
  }
}
layer {
  name: "relu5"
  type: "ReLU"
  bottom: "conv5"
  top: "conv5"
}
layer {
  name: "pool5"
  type: "Pooling"
  bottom: "conv5"
  top: "pool5"
  pooling_param {
    pool: AVE
    kernel_size: 3
    stride: 2
  }
}
layer {
  name: "ip1"
  type: "InnerProduct"
  bottom: "pool5"
  top: "ip1"
  param {
    lr_mult: 1
  }
  param {
    lr_mult: 2
  }
  inner_product_param {
    num_output: 64
    weight_filler {
      type: "gaussian"
      std: 0.1
    }
    bias_filler {
      type: "constant"
    }
  }
}
layer {
  name: "ip2"
  type: "InnerProduct"
  bottom: "ip1"
  top: "ip2"
  param {
    lr_mult: 1
  }
  param {
    lr_mult: 2
  }
  inner_product_param {
    num_output: 64
    weight_filler {
      type: "gaussian"
      std: 0.1
    }
    bias_filler {
      type: "constant"
    }
  }
}
layer {
  name: "ip3"
  type: "InnerProduct"
  bottom: "ip2"
  top: "ip3"
  param {
    lr_mult: 1
  }
  param {
    lr_mult: 2
  }
  inner_product_param {
    num_output: 50
    weight_filler {
      type: "gaussian"
      std: 0.1
    }
    bias_filler {
      type: "constant"
    }
  }
}
layer {
  name: "loss"
  type: "SoftmaxWithLoss"
  bottom: "ip3"
  bottom: "label"
  top: "loss"
}
I0502 10:24:44.679157 23767 layer_factory.hpp:77] Creating layer parameters
I0502 10:24:44.679164 23767 net.cpp:94] Creating Layer parameters
I0502 10:24:44.679168 23767 net.cpp:409] parameters -> data
I0502 10:24:44.679174 23767 net.cpp:409] parameters -> label
I0502 10:24:44.679180 23767 hdf5_data_layer.cpp:79] Loading list of HDF5 filenames from: /home/purduethu/scratch/radon/d/deng106/CNNStatisticalModel/distributions/input/20_distributions_900_sample_size_train-distributions-path.txt
I0502 10:24:44.679196 23767 hdf5_data_layer.cpp:93] Number of HDF5 files: 1
I0502 10:24:45.248325 23767 hdf5.cpp:35] Datatype class: H5T_INTEGER
I0502 10:24:45.250519 23767 net.cpp:144] Setting up parameters
I0502 10:24:45.250538 23767 net.cpp:151] Top shape: 20 1 30 30 (18000)
I0502 10:24:45.250543 23767 net.cpp:151] Top shape: 20 (20)
I0502 10:24:45.250546 23767 net.cpp:159] Memory required for data: 72080
I0502 10:24:45.250551 23767 layer_factory.hpp:77] Creating layer conv1
I0502 10:24:45.250568 23767 net.cpp:94] Creating Layer conv1
I0502 10:24:45.250572 23767 net.cpp:435] conv1 <- data
I0502 10:24:45.250579 23767 net.cpp:409] conv1 -> conv1
I0502 10:24:45.254035 23767 net.cpp:144] Setting up conv1
I0502 10:24:45.254052 23767 net.cpp:151] Top shape: 20 64 30 30 (1152000)
I0502 10:24:45.254056 23767 net.cpp:159] Memory required for data: 4680080
I0502 10:24:45.254066 23767 layer_factory.hpp:77] Creating layer relu1
I0502 10:24:45.254075 23767 net.cpp:94] Creating Layer relu1
I0502 10:24:45.254078 23767 net.cpp:435] relu1 <- conv1
I0502 10:24:45.254083 23767 net.cpp:396] relu1 -> conv1 (in-place)
I0502 10:24:45.254091 23767 net.cpp:144] Setting up relu1
I0502 10:24:45.254096 23767 net.cpp:151] Top shape: 20 64 30 30 (1152000)
I0502 10:24:45.254098 23767 net.cpp:159] Memory required for data: 9288080
I0502 10:24:45.254101 23767 layer_factory.hpp:77] Creating layer conv2
I0502 10:24:45.254108 23767 net.cpp:94] Creating Layer conv2
I0502 10:24:45.254112 23767 net.cpp:435] conv2 <- conv1
I0502 10:24:45.254117 23767 net.cpp:409] conv2 -> conv2
I0502 10:24:45.270112 23767 net.cpp:144] Setting up conv2
I0502 10:24:45.270151 23767 net.cpp:151] Top shape: 20 64 30 30 (1152000)
I0502 10:24:45.270161 23767 net.cpp:159] Memory required for data: 13896080
I0502 10:24:45.270184 23767 layer_factory.hpp:77] Creating layer relu2
I0502 10:24:45.270200 23767 net.cpp:94] Creating Layer relu2
I0502 10:24:45.270210 23767 net.cpp:435] relu2 <- conv2
I0502 10:24:45.270222 23767 net.cpp:396] relu2 -> conv2 (in-place)
I0502 10:24:45.270242 23767 net.cpp:144] Setting up relu2
I0502 10:24:45.270254 23767 net.cpp:151] Top shape: 20 64 30 30 (1152000)
I0502 10:24:45.270262 23767 net.cpp:159] Memory required for data: 18504080
I0502 10:24:45.270272 23767 layer_factory.hpp:77] Creating layer pool2
I0502 10:24:45.270284 23767 net.cpp:94] Creating Layer pool2
I0502 10:24:45.270293 23767 net.cpp:435] pool2 <- conv2
I0502 10:24:45.270305 23767 net.cpp:409] pool2 -> pool2
I0502 10:24:45.270440 23767 net.cpp:144] Setting up pool2
I0502 10:24:45.270457 23767 net.cpp:151] Top shape: 20 64 15 15 (288000)
I0502 10:24:45.270467 23767 net.cpp:159] Memory required for data: 19656080
I0502 10:24:45.270475 23767 layer_factory.hpp:77] Creating layer conv3
I0502 10:24:45.270494 23767 net.cpp:94] Creating Layer conv3
I0502 10:24:45.270504 23767 net.cpp:435] conv3 <- pool2
I0502 10:24:45.270539 23767 net.cpp:409] conv3 -> conv3
I0502 10:24:45.279440 23767 net.cpp:144] Setting up conv3
I0502 10:24:45.279456 23767 net.cpp:151] Top shape: 20 64 15 15 (288000)
I0502 10:24:45.279460 23767 net.cpp:159] Memory required for data: 20808080
I0502 10:24:45.279469 23767 layer_factory.hpp:77] Creating layer relu3
I0502 10:24:45.279474 23767 net.cpp:94] Creating Layer relu3
I0502 10:24:45.279477 23767 net.cpp:435] relu3 <- conv3
I0502 10:24:45.279482 23767 net.cpp:396] relu3 -> conv3 (in-place)
I0502 10:24:45.279489 23767 net.cpp:144] Setting up relu3
I0502 10:24:45.279495 23767 net.cpp:151] Top shape: 20 64 15 15 (288000)
I0502 10:24:45.279497 23767 net.cpp:159] Memory required for data: 21960080
I0502 10:24:45.279500 23767 layer_factory.hpp:77] Creating layer conv4
I0502 10:24:45.279508 23767 net.cpp:94] Creating Layer conv4
I0502 10:24:45.279512 23767 net.cpp:435] conv4 <- conv3
I0502 10:24:45.279517 23767 net.cpp:409] conv4 -> conv4
I0502 10:24:45.287633 23767 net.cpp:144] Setting up conv4
I0502 10:24:45.287649 23767 net.cpp:151] Top shape: 20 64 15 15 (288000)
I0502 10:24:45.287653 23767 net.cpp:159] Memory required for data: 23112080
I0502 10:24:45.287659 23767 layer_factory.hpp:77] Creating layer relu4
I0502 10:24:45.287665 23767 net.cpp:94] Creating Layer relu4
I0502 10:24:45.287669 23767 net.cpp:435] relu4 <- conv4
I0502 10:24:45.287674 23767 net.cpp:396] relu4 -> conv4 (in-place)
I0502 10:24:45.287681 23767 net.cpp:144] Setting up relu4
I0502 10:24:45.287686 23767 net.cpp:151] Top shape: 20 64 15 15 (288000)
I0502 10:24:45.287689 23767 net.cpp:159] Memory required for data: 24264080
I0502 10:24:45.287691 23767 layer_factory.hpp:77] Creating layer conv5
I0502 10:24:45.287699 23767 net.cpp:94] Creating Layer conv5
I0502 10:24:45.287703 23767 net.cpp:435] conv5 <- conv4
I0502 10:24:45.287708 23767 net.cpp:409] conv5 -> conv5
I0502 10:24:45.295847 23767 net.cpp:144] Setting up conv5
I0502 10:24:45.295876 23767 net.cpp:151] Top shape: 20 64 15 15 (288000)
I0502 10:24:45.295881 23767 net.cpp:159] Memory required for data: 25416080
I0502 10:24:45.295888 23767 layer_factory.hpp:77] Creating layer relu5
I0502 10:24:45.295895 23767 net.cpp:94] Creating Layer relu5
I0502 10:24:45.295898 23767 net.cpp:435] relu5 <- conv5
I0502 10:24:45.295903 23767 net.cpp:396] relu5 -> conv5 (in-place)
I0502 10:24:45.295910 23767 net.cpp:144] Setting up relu5
I0502 10:24:45.295914 23767 net.cpp:151] Top shape: 20 64 15 15 (288000)
I0502 10:24:45.295918 23767 net.cpp:159] Memory required for data: 26568080
I0502 10:24:45.295922 23767 layer_factory.hpp:77] Creating layer pool5
I0502 10:24:45.295927 23767 net.cpp:94] Creating Layer pool5
I0502 10:24:45.295929 23767 net.cpp:435] pool5 <- conv5
I0502 10:24:45.295933 23767 net.cpp:409] pool5 -> pool5
I0502 10:24:45.295970 23767 net.cpp:144] Setting up pool5
I0502 10:24:45.295977 23767 net.cpp:151] Top shape: 20 64 7 7 (62720)
I0502 10:24:45.295980 23767 net.cpp:159] Memory required for data: 26818960
I0502 10:24:45.295984 23767 layer_factory.hpp:77] Creating layer ip1
I0502 10:24:45.295990 23767 net.cpp:94] Creating Layer ip1
I0502 10:24:45.295994 23767 net.cpp:435] ip1 <- pool5
I0502 10:24:45.295999 23767 net.cpp:409] ip1 -> ip1
I0502 10:24:45.302038 23767 net.cpp:144] Setting up ip1
I0502 10:24:45.302052 23767 net.cpp:151] Top shape: 20 64 (1280)
I0502 10:24:45.302057 23767 net.cpp:159] Memory required for data: 26824080
I0502 10:24:45.302063 23767 layer_factory.hpp:77] Creating layer ip2
I0502 10:24:45.302070 23767 net.cpp:94] Creating Layer ip2
I0502 10:24:45.302074 23767 net.cpp:435] ip2 <- ip1
I0502 10:24:45.302079 23767 net.cpp:409] ip2 -> ip2
I0502 10:24:45.302314 23767 net.cpp:144] Setting up ip2
I0502 10:24:45.302320 23767 net.cpp:151] Top shape: 20 64 (1280)
I0502 10:24:45.302323 23767 net.cpp:159] Memory required for data: 26829200
I0502 10:24:45.302330 23767 layer_factory.hpp:77] Creating layer ip3
I0502 10:24:45.302335 23767 net.cpp:94] Creating Layer ip3
I0502 10:24:45.302338 23767 net.cpp:435] ip3 <- ip2
I0502 10:24:45.302343 23767 net.cpp:409] ip3 -> ip3
I0502 10:24:45.302551 23767 net.cpp:144] Setting up ip3
I0502 10:24:45.302558 23767 net.cpp:151] Top shape: 20 50 (1000)
I0502 10:24:45.302562 23767 net.cpp:159] Memory required for data: 26833200
I0502 10:24:45.302567 23767 layer_factory.hpp:77] Creating layer loss
I0502 10:24:45.302573 23767 net.cpp:94] Creating Layer loss
I0502 10:24:45.302577 23767 net.cpp:435] loss <- ip3
I0502 10:24:45.302582 23767 net.cpp:435] loss <- label
I0502 10:24:45.302585 23767 net.cpp:409] loss -> loss
I0502 10:24:45.302593 23767 layer_factory.hpp:77] Creating layer loss
…
I0502 10:24:45.303133 23767 solver.cpp:181] Creating test net (#0) specified by net file: ./protocol/dis_20_900_dimension.protocol_distribution
I0502 10:24:45.303160 23767 net.cpp:323] The NetState phase (1) differed from the phase (0) specified by a rule in layer parameters
I0502 10:24:45.303261 23767 net.cpp:52] Initializing net from parameters: 
state {
  phase: TEST
}
layer {
  name: "intercept"
  type: "HDF5Data"
  top: "data"
  top: "label"
  include {
    phase: TEST
  }
  hdf5_data_param {
    source: "/home/purduethu/scratch/radon/d/deng106/CNNStatisticalModel/distributions/input/20_distributions_900_sample_size_test-distributions-path.txt"
    batch_size: 20
  }
}
layer {
  name: "conv1"
  type: "Convolution"
  bottom: "data"
  top: "conv1"
  param {
    lr_mult: 1
  }
  param {
    lr_mult: 2
  }
  convolution_param {
    num_output: 64
    pad: 2
    kernel_size: 5
    stride: 1
    weight_filler {
      type: "gaussian"
      std: 0.0001
    }
    bias_filler {
      type: "constant"
    }
  }
}
layer {
  name: "relu1"
  type: "ReLU"
  bottom: "conv1"
  top: "conv1"
}
layer {
  name: "conv2"
  type: "Convolution"
  bottom: "conv1"
  top: "conv2"
  param {
    lr_mult: 1
  }
  param {
    lr_mult: 2
  }
  convolution_param {
    num_output: 64
    pad: 2
    kernel_size: 5
    stride: 1
    weight_filler {
      type: "gaussian"
      std: 0.01
    }
    bias_filler {
      type: "constant"
    }
  }
}
layer {
  name: "relu2"
  type: "ReLU"
  bottom: "conv2"
  top: "conv2"
}
layer {
  name: "pool2"
  type: "Pooling"
  bottom: "conv2"
  top: "pool2"
  pooling_param {
    pool: MAX
    kernel_size: 3
    stride: 2
  }
}
layer {
  name: "conv3"
  type: "Convolution"
  bottom: "pool2"
  top: "conv3"
  param {
    lr_mult: 1
  }
  param {
    lr_mult: 2
  }
  convolution_param {
    num_output: 64
    pad: 2
    kernel_size: 5
    stride: 1
    weight_filler {
      type: "gaussian"
      std: 0.01
    }
    bias_filler {
      type: "constant"
    }
  }
}
layer {
  name: "relu3"
  type: "ReLU"
  bottom: "conv3"
  top: "conv3"
}
layer {
  name: "conv4"
  type: "Convolution"
  bottom: "conv3"
  top: "conv4"
  param {
    lr_mult: 1
  }
  param {
    lr_mult: 2
  }
  convolution_param {
    num_output: 64
    pad: 2
    kernel_size: 5
    stride: 1
    weight_filler {
      type: "gaussian"
      std: 0.01
    }
    bias_filler {
      type: "constant"
    }
  }
}
layer {
  name: "relu4"
  type: "ReLU"
  bottom: "conv4"
  top: "conv4"
}
layer {
  name: "conv5"
  type: "Convolution"
  bottom: "conv4"
  top: "conv5"
  param {
    lr_mult: 1
  }
  param {
    lr_mult: 2
  }
  convolution_param {
    num_output: 64
    pad: 2
    kernel_size: 5
    stride: 1
    weight_filler {
      type: "gaussian"
      std: 0.01
    }
    bias_filler {
      type: "constant"
    }
  }
}
layer {
  name: "relu5"
  type: "ReLU"
  bottom: "conv5"
  top: "conv5"
}
layer {
  name: "pool5"
  type: "Pooling"
  bottom: "conv5"
  top: "pool5"
  pooling_param {
    pool: AVE
    kernel_size: 3
    stride: 2
  }
}
layer {
  name: "ip1"
  type: "InnerProduct"
  bottom: "pool5"
  top: "ip1"
  param {
    lr_mult: 1
  }
  param {
    lr_mult: 2
  }
  inner_product_param {
    num_output: 64
    weight_filler {
      type: "gaussian"
      std: 0.1
    }
    bias_filler {
      type: "constant"
    }
  }
}
layer {
  name: "ip2"
  type: "InnerProduct"
  bottom: "ip1"
  top: "ip2"
  param {
    lr_mult: 1
  }
  param {
    lr_mult: 2
  }
  inner_product_param {
    num_output: 64
    weight_filler {
      type: "gaussian"
      std: 0.1
    }
    bias_filler {
      type: "constant"
    }
  }
}
layer {
  name: "ip3"
  type: "InnerProduct"
  bottom: "ip2"
  top: "ip3"
  param {
    lr_mult: 1
  }
  param {
    lr_mult: 2
  }
  inner_product_param {
    num_output: 50
    weight_filler {
      type: "gaussian"
      std: 0.1
    }
    bias_filler {
      type: "constant"
    }
  }
}
layer {
  name: "accuracy"
  type: "Accuracy"
  bottom: "ip3"
  bottom: "label"
  top: "accuracy"
  include {
    phase: TEST
  }
}
layer {
  name: "loss"
  type: "SoftmaxWithLoss"
  bottom: "ip3"
  bottom: "label"
  top: "loss"
}
I0502 10:24:45.303328 23767 layer_factory.hpp:77] Creating layer intercept
I0502 10:24:45.303335 23767 net.cpp:94] Creating Layer intercept
I0502 10:24:45.303340 23767 net.cpp:409] intercept -> data
I0502 10:24:45.303346 23767 net.cpp:409] intercept -> label
I0502 10:24:45.303354 23767 hdf5_data_layer.cpp:79] Loading list of HDF5 filenames from: /home/purduethu/scratch/radon/d/deng106/CNNStatisticalModel/distributions/input/20_distributions_900_sample_size_test-distributions-path.txt
I0502 10:24:45.303372 23767 hdf5_data_layer.cpp:93] Number of HDF5 files: 1
I0502 10:24:45.447525 23767 net.cpp:144] Setting up intercept
I0502 10:24:45.447574 23767 net.cpp:151] Top shape: 20 1 30 30 (18000)
I0502 10:24:45.447579 23767 net.cpp:151] Top shape: 20 (20)
I0502 10:24:45.447583 23767 net.cpp:159] Memory required for data: 72080
I0502 10:24:45.447589 23767 layer_factory.hpp:77] Creating layer label_intercept_1_split
I0502 10:24:45.447614 23767 net.cpp:94] Creating Layer label_intercept_1_split
I0502 10:24:45.447619 23767 net.cpp:435] label_intercept_1_split <- label
I0502 10:24:45.447625 23767 net.cpp:409] label_intercept_1_split -> label_intercept_1_split_0
I0502 10:24:45.447634 23767 net.cpp:409] label_intercept_1_split -> label_intercept_1_split_1
I0502 10:24:45.447676 23767 net.cpp:144] Setting up label_intercept_1_split
I0502 10:24:45.447682 23767 net.cpp:151] Top shape: 20 (20)
I0502 10:24:45.447686 23767 net.cpp:151] Top shape: 20 (20)
I0502 10:24:45.447690 23767 net.cpp:159] Memory required for data: 72240
I0502 10:24:45.447692 23767 layer_factory.hpp:77] Creating layer conv1
I0502 10:24:45.447703 23767 net.cpp:94] Creating Layer conv1
I0502 10:24:45.447707 23767 net.cpp:435] conv1 <- data
I0502 10:24:45.447712 23767 net.cpp:409] conv1 -> conv1
I0502 10:24:45.449229 23767 net.cpp:144] Setting up conv1
I0502 10:24:45.449244 23767 net.cpp:151] Top shape: 20 64 30 30 (1152000)
I0502 10:24:45.449247 23767 net.cpp:159] Memory required for data: 4680240
I0502 10:24:45.449256 23767 layer_factory.hpp:77] Creating layer relu1
I0502 10:24:45.449264 23767 net.cpp:94] Creating Layer relu1
I0502 10:24:45.449267 23767 net.cpp:435] relu1 <- conv1
I0502 10:24:45.449271 23767 net.cpp:396] relu1 -> conv1 (in-place)
I0502 10:24:45.449278 23767 net.cpp:144] Setting up relu1
I0502 10:24:45.449283 23767 net.cpp:151] Top shape: 20 64 30 30 (1152000)
I0502 10:24:45.449285 23767 net.cpp:159] Memory required for data: 9288240
I0502 10:24:45.449288 23767 layer_factory.hpp:77] Creating layer conv2
I0502 10:24:45.449297 23767 net.cpp:94] Creating Layer conv2
I0502 10:24:45.449301 23767 net.cpp:435] conv2 <- conv1
I0502 10:24:45.449306 23767 net.cpp:409] conv2 -> conv2
I0502 10:24:45.455968 23767 net.cpp:144] Setting up conv2
I0502 10:24:45.455984 23767 net.cpp:151] Top shape: 20 64 30 30 (1152000)
I0502 10:24:45.455988 23767 net.cpp:159] Memory required for data: 13896240
I0502 10:24:45.455996 23767 layer_factory.hpp:77] Creating layer relu2
I0502 10:24:45.456002 23767 net.cpp:94] Creating Layer relu2
I0502 10:24:45.456007 23767 net.cpp:435] relu2 <- conv2
I0502 10:24:45.456010 23767 net.cpp:396] relu2 -> conv2 (in-place)
I0502 10:24:45.456018 23767 net.cpp:144] Setting up relu2
I0502 10:24:45.456022 23767 net.cpp:151] Top shape: 20 64 30 30 (1152000)
I0502 10:24:45.456025 23767 net.cpp:159] Memory required for data: 18504240
I0502 10:24:45.456028 23767 layer_factory.hpp:77] Creating layer pool2
I0502 10:24:45.456034 23767 net.cpp:94] Creating Layer pool2
I0502 10:24:45.456037 23767 net.cpp:435] pool2 <- conv2
I0502 10:24:45.456042 23767 net.cpp:409] pool2 -> pool2
I0502 10:24:45.456094 23767 net.cpp:144] Setting up pool2
I0502 10:24:45.456101 23767 net.cpp:151] Top shape: 20 64 15 15 (288000)
I0502 10:24:45.456104 23767 net.cpp:159] Memory required for data: 19656240
I0502 10:24:45.456107 23767 layer_factory.hpp:77] Creating layer conv3
I0502 10:24:45.456115 23767 net.cpp:94] Creating Layer conv3
I0502 10:24:45.456120 23767 net.cpp:435] conv3 <- pool2
I0502 10:24:45.456125 23767 net.cpp:409] conv3 -> conv3
I0502 10:24:45.462532 23767 net.cpp:144] Setting up conv3
I0502 10:24:45.462570 23767 net.cpp:151] Top shape: 20 64 15 15 (288000)
I0502 10:24:45.462581 23767 net.cpp:159] Memory required for data: 20808240
I0502 10:24:45.462604 23767 layer_factory.hpp:77] Creating layer relu3
I0502 10:24:45.462623 23767 net.cpp:94] Creating Layer relu3
I0502 10:24:45.462627 23767 net.cpp:435] relu3 <- conv3
I0502 10:24:45.462631 23767 net.cpp:396] relu3 -> conv3 (in-place)
I0502 10:24:45.462640 23767 net.cpp:144] Setting up relu3
I0502 10:24:45.462643 23767 net.cpp:151] Top shape: 20 64 15 15 (288000)
I0502 10:24:45.462646 23767 net.cpp:159] Memory required for data: 21960240
I0502 10:24:45.462649 23767 layer_factory.hpp:77] Creating layer conv4
I0502 10:24:45.462656 23767 net.cpp:94] Creating Layer conv4
I0502 10:24:45.462661 23767 net.cpp:435] conv4 <- conv3
I0502 10:24:45.462666 23767 net.cpp:409] conv4 -> conv4
I0502 10:24:45.467509 23767 net.cpp:144] Setting up conv4
I0502 10:24:45.467548 23767 net.cpp:151] Top shape: 20 64 15 15 (288000)
I0502 10:24:45.467559 23767 net.cpp:159] Memory required for data: 23112240
I0502 10:24:45.467576 23767 layer_factory.hpp:77] Creating layer relu4
I0502 10:24:45.467592 23767 net.cpp:94] Creating Layer relu4
I0502 10:24:45.467602 23767 net.cpp:435] relu4 <- conv4
I0502 10:24:45.467614 23767 net.cpp:396] relu4 -> conv4 (in-place)
I0502 10:24:45.467641 23767 net.cpp:144] Setting up relu4
I0502 10:24:45.467646 23767 net.cpp:151] Top shape: 20 64 15 15 (288000)
I0502 10:24:45.467648 23767 net.cpp:159] Memory required for data: 24264240
I0502 10:24:45.467651 23767 layer_factory.hpp:77] Creating layer conv5
I0502 10:24:45.467659 23767 net.cpp:94] Creating Layer conv5
I0502 10:24:45.467664 23767 net.cpp:435] conv5 <- conv4
I0502 10:24:45.467667 23767 net.cpp:409] conv5 -> conv5
I0502 10:24:45.473285 23767 net.cpp:144] Setting up conv5
I0502 10:24:45.473301 23767 net.cpp:151] Top shape: 20 64 15 15 (288000)
I0502 10:24:45.473304 23767 net.cpp:159] Memory required for data: 25416240
I0502 10:24:45.473314 23767 layer_factory.hpp:77] Creating layer relu5
I0502 10:24:45.473320 23767 net.cpp:94] Creating Layer relu5
I0502 10:24:45.473322 23767 net.cpp:435] relu5 <- conv5
I0502 10:24:45.473327 23767 net.cpp:396] relu5 -> conv5 (in-place)
I0502 10:24:45.473335 23767 net.cpp:144] Setting up relu5
I0502 10:24:45.473338 23767 net.cpp:151] Top shape: 20 64 15 15 (288000)
I0502 10:24:45.473341 23767 net.cpp:159] Memory required for data: 26568240
I0502 10:24:45.473345 23767 layer_factory.hpp:77] Creating layer pool5
I0502 10:24:45.473350 23767 net.cpp:94] Creating Layer pool5
I0502 10:24:45.473352 23767 net.cpp:435] pool5 <- conv5
I0502 10:24:45.473359 23767 net.cpp:409] pool5 -> pool5
I0502 10:24:45.473397 23767 net.cpp:144] Setting up pool5
I0502 10:24:45.473404 23767 net.cpp:151] Top shape: 20 64 7 7 (62720)
I0502 10:24:45.473407 23767 net.cpp:159] Memory required for data: 26819120
I0502 10:24:45.473410 23767 layer_factory.hpp:77] Creating layer ip1
I0502 10:24:45.473417 23767 net.cpp:94] Creating Layer ip1
I0502 10:24:45.473420 23767 net.cpp:435] ip1 <- pool5
I0502 10:24:45.473425 23767 net.cpp:409] ip1 -> ip1
I0502 10:24:45.478283 23767 net.cpp:144] Setting up ip1
I0502 10:24:45.478293 23767 net.cpp:151] Top shape: 20 64 (1280)
I0502 10:24:45.478296 23767 net.cpp:159] Memory required for data: 26824240
I0502 10:24:45.478302 23767 layer_factory.hpp:77] Creating layer ip2
I0502 10:24:45.478307 23767 net.cpp:94] Creating Layer ip2
I0502 10:24:45.478310 23767 net.cpp:435] ip2 <- ip1
I0502 10:24:45.478317 23767 net.cpp:409] ip2 -> ip2
I0502 10:24:45.478554 23767 net.cpp:144] Setting up ip2
I0502 10:24:45.478560 23767 net.cpp:151] Top shape: 20 64 (1280)
I0502 10:24:45.478564 23767 net.cpp:159] Memory required for data: 26829360
I0502 10:24:45.478569 23767 layer_factory.hpp:77] Creating layer ip3
I0502 10:24:45.478577 23767 net.cpp:94] Creating Layer ip3
I0502 10:24:45.478580 23767 net.cpp:435] ip3 <- ip2
I0502 10:24:45.478586 23767 net.cpp:409] ip3 -> ip3
I0502 10:24:45.478786 23767 net.cpp:144] Setting up ip3
I0502 10:24:45.478795 23767 net.cpp:151] Top shape: 20 50 (1000)
I0502 10:24:45.478796 23767 net.cpp:159] Memory required for data: 26833360
I0502 10:24:45.478801 23767 layer_factory.hpp:77] Creating layer ip3_ip3_0_split
I0502 10:24:45.478808 23767 net.cpp:94] Creating Layer ip3_ip3_0_split
I0502 10:24:45.478811 23767 net.cpp:435] ip3_ip3_0_split <- ip3
I0502 10:24:45.478816 23767 net.cpp:409] ip3_ip3_0_split -> ip3_ip3_0_split_0
I0502 10:24:45.478821 23767 net.cpp:409] ip3_ip3_0_split -> ip3_ip3_0_split_1
I0502 10:24:45.478863 23767 net.cpp:144] Setting up ip3_ip3_0_split
I0502 10:24:45.478868 23767 net.cpp:151] Top shape: 20 50 (1000)
I0502 10:24:45.478873 23767 net.cpp:151] Top shape: 20 50 (1000)
I0502 10:24:45.478875 23767 net.cpp:159] Memory required for data: 26841360
I0502 10:24:45.478878 23767 layer_factory.hpp:77] Creating layer accuracy
I0502 10:24:45.478884 23767 net.cpp:94] Creating Layer accuracy
I0502 10:24:45.478888 23767 net.cpp:435] accuracy <- ip3_ip3_0_split_0
I0502 10:24:45.478893 23767 net.cpp:435] accuracy <- label_intercept_1_split_0
I0502 10:24:45.478896 23767 net.cpp:409] accuracy -> accuracy
…
