…
I0504 04:08:57.169323 23911 net.cpp:323] The NetState phase (0) differed from the phase (1) specified by a rule in layer intercept
I0504 04:08:57.169339 23911 net.cpp:323] The NetState phase (0) differed from the phase (1) specified by a rule in layer loss
I0504 04:08:57.169431 23911 net.cpp:52] Initializing net from parameters: 
state {
  phase: TRAIN
}
layer {
  name: "parameters"
  type: "HDF5Data"
  top: "data"
  top: "label"
  include {
    phase: TRAIN
  }
  hdf5_data_param {
    source: "/home/purduethu/scratch/radon/d/deng106/CNNStatisticalModel/distributions/input/20_distributions_900_sample_size_train-parameters-path.txt"
    batch_size: 20
  }
}
layer {
  name: "conv1"
  type: "Convolution"
  bottom: "data"
  top: "conv1"
  param {
    lr_mult: 1
  }
  param {
    lr_mult: 2
  }
  convolution_param {
    num_output: 64
    pad: 2
    kernel_size: 5
    stride: 1
    weight_filler {
      type: "gaussian"
      std: 0.0001
    }
    bias_filler {
      type: "constant"
    }
  }
}
layer {
  name: "relu1"
  type: "ReLU"
  bottom: "conv1"
  top: "conv1"
}
layer {
  name: "conv2"
  type: "Convolution"
  bottom: "conv1"
  top: "conv2"
  param {
    lr_mult: 1
  }
  param {
    lr_mult: 2
  }
  convolution_param {
    num_output: 64
    pad: 2
    kernel_size: 5
    stride: 1
    weight_filler {
      type: "gaussian"
      std: 0.01
    }
    bias_filler {
      type: "constant"
    }
  }
}
layer {
  name: "relu2"
  type: "ReLU"
  bottom: "conv2"
  top: "conv2"
}
layer {
  name: "pool2"
  type: "Pooling"
  bottom: "conv2"
  top: "pool2"
  pooling_param {
    pool: MAX
    kernel_size: 3
    stride: 2
  }
}
layer {
  name: "conv3"
  type: "Convolution"
  bottom: "pool2"
  top: "conv3"
  param {
    lr_mult: 1
  }
  param {
    lr_mult: 2
  }
  convolution_param {
    num_output: 128
    pad: 2
    kernel_size: 5
    stride: 1
    weight_filler {
      type: "gaussian"
      std: 0.01
    }
    bias_filler {
      type: "constant"
    }
  }
}
layer {
  name: "relu3"
  type: "ReLU"
  bottom: "conv3"
  top: "conv3"
}
layer {
  name: "conv4"
  type: "Convolution"
  bottom: "conv3"
  top: "conv4"
  param {
    lr_mult: 1
  }
  param {
    lr_mult: 2
  }
  convolution_param {
    num_output: 128
    pad: 2
    kernel_size: 5
    stride: 1
    weight_filler {
      type: "gaussian"
      std: 0.01
    }
    bias_filler {
      type: "constant"
    }
  }
}
layer {
  name: "relu4"
  type: "ReLU"
  bottom: "conv4"
  top: "conv4"
}
layer {
  name: "conv5"
  type: "Convolution"
  bottom: "conv4"
  top: "conv5"
  param {
    lr_mult: 1
  }
  param {
    lr_mult: 2
  }
  convolution_param {
    num_output: 128
    pad: 2
    kernel_size: 5
    stride: 1
    weight_filler {
      type: "gaussian"
      std: 0.01
    }
    bias_filler {
      type: "constant"
    }
  }
}
layer {
  name: "relu5"
  type: "ReLU"
  bottom: "conv5"
  top: "conv5"
}
layer {
  name: "pool5"
  type: "Pooling"
  bottom: "conv5"
  top: "pool5"
  pooling_param {
    pool: AVE
    kernel_size: 3
    stride: 2
  }
}
layer {
  name: "ip1"
  type: "InnerProduct"
  bottom: "pool5"
  top: "ip1"
  param {
    lr_mult: 1
  }
  param {
    lr_mult: 2
  }
  inner_product_param {
    num_output: 1024
    weight_filler {
      type: "gaussian"
      std: 0.1
    }
    bias_filler {
      type: "constant"
    }
  }
}
layer {
  name: "ip2"
  type: "InnerProduct"
  bottom: "ip1"
  top: "ip2"
  param {
    lr_mult: 1
  }
  param {
    lr_mult: 2
  }
  inner_product_param {
    num_output: 512
    weight_filler {
      type: "gaussian"
      std: 0.1
    }
    bias_filler {
      type: "constant"
    }
  }
}
layer {
  name: "ip3"
  type: "InnerProduct"
  bottom: "ip2"
  top: "ip3"
  param {
    lr_mult: 1
  }
  param {
    lr_mult: 2
  }
  inner_product_param {
    num_output: 1
    weight_filler {
      type: "gaussian"
      std: 0.1
    }
    bias_filler {
      type: "constant"
    }
  }
}
layer {
  name: "loss"
  type: "HuberLoss"
  bottom: "ip3"
  bottom: "label"
  top: "loss"
  include {
    phase: TRAIN
  }
}
I0504 04:08:57.169508 23911 layer_factory.hpp:77] Creating layer parameters
I0504 04:08:57.169523 23911 net.cpp:94] Creating Layer parameters
I0504 04:08:57.169529 23911 net.cpp:409] parameters -> data
I0504 04:08:57.169548 23911 net.cpp:409] parameters -> label
I0504 04:08:57.169565 23911 hdf5_data_layer.cpp:79] Loading list of HDF5 filenames from: /home/purduethu/scratch/radon/d/deng106/CNNStatisticalModel/distributions/input/20_distributions_900_sample_size_train-parameters-path.txt
I0504 04:08:57.169589 23911 hdf5_data_layer.cpp:93] Number of HDF5 files: 1
I0504 04:08:57.170161 23911 hdf5.cpp:32] Datatype class: H5T_FLOAT
I0504 04:08:57.754021 23911 net.cpp:144] Setting up parameters
I0504 04:08:57.754055 23911 net.cpp:151] Top shape: 20 1 30 30 (18000)
I0504 04:08:57.754060 23911 net.cpp:151] Top shape: 20 (20)
I0504 04:08:57.754065 23911 net.cpp:159] Memory required for data: 72080
I0504 04:08:57.754071 23911 layer_factory.hpp:77] Creating layer conv1
I0504 04:08:57.754096 23911 net.cpp:94] Creating Layer conv1
I0504 04:08:57.754101 23911 net.cpp:435] conv1 <- data
I0504 04:08:57.754112 23911 net.cpp:409] conv1 -> conv1
I0504 04:08:57.759866 23911 net.cpp:144] Setting up conv1
I0504 04:08:57.759881 23911 net.cpp:151] Top shape: 20 64 30 30 (1152000)
I0504 04:08:57.759886 23911 net.cpp:159] Memory required for data: 4680080
I0504 04:08:57.759897 23911 layer_factory.hpp:77] Creating layer relu1
I0504 04:08:57.759905 23911 net.cpp:94] Creating Layer relu1
I0504 04:08:57.759909 23911 net.cpp:435] relu1 <- conv1
I0504 04:08:57.759913 23911 net.cpp:396] relu1 -> conv1 (in-place)
I0504 04:08:57.759929 23911 net.cpp:144] Setting up relu1
I0504 04:08:57.759935 23911 net.cpp:151] Top shape: 20 64 30 30 (1152000)
I0504 04:08:57.759938 23911 net.cpp:159] Memory required for data: 9288080
I0504 04:08:57.759941 23911 layer_factory.hpp:77] Creating layer conv2
I0504 04:08:57.759949 23911 net.cpp:94] Creating Layer conv2
I0504 04:08:57.759953 23911 net.cpp:435] conv2 <- conv1
I0504 04:08:57.759958 23911 net.cpp:409] conv2 -> conv2
I0504 04:08:57.774929 23911 net.cpp:144] Setting up conv2
I0504 04:08:57.774945 23911 net.cpp:151] Top shape: 20 64 30 30 (1152000)
I0504 04:08:57.774948 23911 net.cpp:159] Memory required for data: 13896080
I0504 04:08:57.774956 23911 layer_factory.hpp:77] Creating layer relu2
I0504 04:08:57.774963 23911 net.cpp:94] Creating Layer relu2
I0504 04:08:57.774967 23911 net.cpp:435] relu2 <- conv2
I0504 04:08:57.774971 23911 net.cpp:396] relu2 -> conv2 (in-place)
I0504 04:08:57.774979 23911 net.cpp:144] Setting up relu2
I0504 04:08:57.774983 23911 net.cpp:151] Top shape: 20 64 30 30 (1152000)
I0504 04:08:57.774986 23911 net.cpp:159] Memory required for data: 18504080
I0504 04:08:57.774989 23911 layer_factory.hpp:77] Creating layer pool2
I0504 04:08:57.774997 23911 net.cpp:94] Creating Layer pool2
I0504 04:08:57.775007 23911 net.cpp:435] pool2 <- conv2
I0504 04:08:57.775012 23911 net.cpp:409] pool2 -> pool2
I0504 04:08:57.775056 23911 net.cpp:144] Setting up pool2
I0504 04:08:57.775063 23911 net.cpp:151] Top shape: 20 64 15 15 (288000)
I0504 04:08:57.775068 23911 net.cpp:159] Memory required for data: 19656080
I0504 04:08:57.775070 23911 layer_factory.hpp:77] Creating layer conv3
I0504 04:08:57.775079 23911 net.cpp:94] Creating Layer conv3
I0504 04:08:57.775081 23911 net.cpp:435] conv3 <- pool2
I0504 04:08:57.775086 23911 net.cpp:409] conv3 -> conv3
I0504 04:08:57.787843 23911 net.cpp:144] Setting up conv3
I0504 04:08:57.787858 23911 net.cpp:151] Top shape: 20 128 15 15 (576000)
I0504 04:08:57.787863 23911 net.cpp:159] Memory required for data: 21960080
I0504 04:08:57.787871 23911 layer_factory.hpp:77] Creating layer relu3
I0504 04:08:57.787878 23911 net.cpp:94] Creating Layer relu3
I0504 04:08:57.787881 23911 net.cpp:435] relu3 <- conv3
I0504 04:08:57.787886 23911 net.cpp:396] relu3 -> conv3 (in-place)
I0504 04:08:57.787894 23911 net.cpp:144] Setting up relu3
I0504 04:08:57.787899 23911 net.cpp:151] Top shape: 20 128 15 15 (576000)
I0504 04:08:57.787901 23911 net.cpp:159] Memory required for data: 24264080
I0504 04:08:57.787904 23911 layer_factory.hpp:77] Creating layer conv4
I0504 04:08:57.787914 23911 net.cpp:94] Creating Layer conv4
I0504 04:08:57.787917 23911 net.cpp:435] conv4 <- conv3
I0504 04:08:57.787921 23911 net.cpp:409] conv4 -> conv4
I0504 04:08:57.809720 23911 net.cpp:144] Setting up conv4
I0504 04:08:57.809734 23911 net.cpp:151] Top shape: 20 128 15 15 (576000)
I0504 04:08:57.809738 23911 net.cpp:159] Memory required for data: 26568080
I0504 04:08:57.809744 23911 layer_factory.hpp:77] Creating layer relu4
I0504 04:08:57.809751 23911 net.cpp:94] Creating Layer relu4
I0504 04:08:57.809754 23911 net.cpp:435] relu4 <- conv4
I0504 04:08:57.809759 23911 net.cpp:396] relu4 -> conv4 (in-place)
I0504 04:08:57.809767 23911 net.cpp:144] Setting up relu4
I0504 04:08:57.809772 23911 net.cpp:151] Top shape: 20 128 15 15 (576000)
I0504 04:08:57.809774 23911 net.cpp:159] Memory required for data: 28872080
I0504 04:08:57.809777 23911 layer_factory.hpp:77] Creating layer conv5
I0504 04:08:57.809784 23911 net.cpp:94] Creating Layer conv5
I0504 04:08:57.809788 23911 net.cpp:435] conv5 <- conv4
I0504 04:08:57.809793 23911 net.cpp:409] conv5 -> conv5
I0504 04:08:57.832988 23911 net.cpp:144] Setting up conv5
I0504 04:08:57.833003 23911 net.cpp:151] Top shape: 20 128 15 15 (576000)
I0504 04:08:57.833008 23911 net.cpp:159] Memory required for data: 31176080
I0504 04:08:57.833015 23911 layer_factory.hpp:77] Creating layer relu5
I0504 04:08:57.833021 23911 net.cpp:94] Creating Layer relu5
I0504 04:08:57.833025 23911 net.cpp:435] relu5 <- conv5
I0504 04:08:57.833030 23911 net.cpp:396] relu5 -> conv5 (in-place)
I0504 04:08:57.833037 23911 net.cpp:144] Setting up relu5
I0504 04:08:57.833041 23911 net.cpp:151] Top shape: 20 128 15 15 (576000)
I0504 04:08:57.833045 23911 net.cpp:159] Memory required for data: 33480080
I0504 04:08:57.833047 23911 layer_factory.hpp:77] Creating layer pool5
I0504 04:08:57.833053 23911 net.cpp:94] Creating Layer pool5
I0504 04:08:57.833056 23911 net.cpp:435] pool5 <- conv5
I0504 04:08:57.833060 23911 net.cpp:409] pool5 -> pool5
I0504 04:08:57.833096 23911 net.cpp:144] Setting up pool5
I0504 04:08:57.833102 23911 net.cpp:151] Top shape: 20 128 7 7 (125440)
I0504 04:08:57.833106 23911 net.cpp:159] Memory required for data: 33981840
I0504 04:08:57.833109 23911 layer_factory.hpp:77] Creating layer ip1
I0504 04:08:57.833119 23911 net.cpp:94] Creating Layer ip1
I0504 04:08:57.833122 23911 net.cpp:435] ip1 <- pool5
I0504 04:08:57.833127 23911 net.cpp:409] ip1 -> ip1
I0504 04:08:57.989624 23911 net.cpp:144] Setting up ip1
I0504 04:08:57.989647 23911 net.cpp:151] Top shape: 20 1024 (20480)
I0504 04:08:57.989652 23911 net.cpp:159] Memory required for data: 34063760
I0504 04:08:57.989660 23911 layer_factory.hpp:77] Creating layer ip2
I0504 04:08:57.989670 23911 net.cpp:94] Creating Layer ip2
I0504 04:08:57.989684 23911 net.cpp:435] ip2 <- ip1
I0504 04:08:57.989692 23911 net.cpp:409] ip2 -> ip2
I0504 04:08:58.002641 23911 net.cpp:144] Setting up ip2
I0504 04:08:58.002655 23911 net.cpp:151] Top shape: 20 512 (10240)
I0504 04:08:58.002658 23911 net.cpp:159] Memory required for data: 34104720
I0504 04:08:58.002665 23911 layer_factory.hpp:77] Creating layer ip3
I0504 04:08:58.002671 23911 net.cpp:94] Creating Layer ip3
I0504 04:08:58.002676 23911 net.cpp:435] ip3 <- ip2
I0504 04:08:58.002681 23911 net.cpp:409] ip3 -> ip3
I0504 04:08:58.002756 23911 net.cpp:144] Setting up ip3
I0504 04:08:58.002771 23911 net.cpp:151] Top shape: 20 1 (20)
I0504 04:08:58.002775 23911 net.cpp:159] Memory required for data: 34104800
I0504 04:08:58.002780 23911 layer_factory.hpp:77] Creating layer loss
I0504 04:08:58.002789 23911 net.cpp:94] Creating Layer loss
I0504 04:08:58.002791 23911 net.cpp:435] loss <- ip3
I0504 04:08:58.002795 23911 net.cpp:435] loss <- label
I0504 04:08:58.002801 23911 net.cpp:409] loss -> loss
I0504 04:08:58.002837 23911 net.cpp:144] Setting up loss
…
