…
I0501 21:54:38.499591 14940 net.cpp:323] The NetState phase (0) differed from the phase (1) specified by a rule in layer intercept
I0501 21:54:38.499606 14940 net.cpp:323] The NetState phase (0) differed from the phase (1) specified by a rule in layer accuracy
I0501 21:54:38.499693 14940 net.cpp:52] Initializing net from parameters: 
state {
  phase: TRAIN
}
layer {
  name: "parameters"
  type: "HDF5Data"
  top: "data"
  top: "label"
  include {
    phase: TRAIN
  }
  hdf5_data_param {
    source: "/home/purduethu/scratch/radon/d/deng106/CNNStatisticalModel/distributions/input/5_distributions_400_sample_size_train-distributions-path.txt"
    batch_size: 20
  }
}
layer {
  name: "conv1"
  type: "Convolution"
  bottom: "data"
  top: "conv1"
  param {
    lr_mult: 1
  }
  param {
    lr_mult: 2
  }
  convolution_param {
    num_output: 64
    pad: 2
    kernel_size: 5
    stride: 1
    weight_filler {
      type: "gaussian"
      std: 0.0001
    }
    bias_filler {
      type: "constant"
    }
  }
}
layer {
  name: "relu1"
  type: "ReLU"
  bottom: "conv1"
  top: "conv1"
}
layer {
  name: "conv2"
  type: "Convolution"
  bottom: "conv1"
  top: "conv2"
  param {
    lr_mult: 1
  }
  param {
    lr_mult: 2
  }
  convolution_param {
    num_output: 64
    pad: 2
    kernel_size: 5
    stride: 1
    weight_filler {
      type: "gaussian"
      std: 0.01
    }
    bias_filler {
      type: "constant"
    }
  }
}
layer {
  name: "relu2"
  type: "ReLU"
  bottom: "conv2"
  top: "conv2"
}
layer {
  name: "pool2"
  type: "Pooling"
  bottom: "conv2"
  top: "pool2"
  pooling_param {
    pool: MAX
    kernel_size: 3
    stride: 2
  }
}
layer {
  name: "conv3"
  type: "Convolution"
  bottom: "pool2"
  top: "conv3"
  param {
    lr_mult: 1
  }
  param {
    lr_mult: 2
  }
  convolution_param {
    num_output: 64
    pad: 2
    kernel_size: 5
    stride: 1
    weight_filler {
      type: "gaussian"
      std: 0.01
    }
    bias_filler {
      type: "constant"
    }
  }
}
layer {
  name: "relu3"
  type: "ReLU"
  bottom: "conv3"
  top: "conv3"
}
layer {
  name: "conv4"
  type: "Convolution"
  bottom: "conv3"
  top: "conv4"
  param {
    lr_mult: 1
  }
  param {
    lr_mult: 2
  }
  convolution_param {
    num_output: 64
    pad: 2
    kernel_size: 5
    stride: 1
    weight_filler {
      type: "gaussian"
      std: 0.01
    }
    bias_filler {
      type: "constant"
    }
  }
}
layer {
  name: "relu4"
  type: "ReLU"
  bottom: "conv4"
  top: "conv4"
}
layer {
  name: "conv5"
  type: "Convolution"
  bottom: "conv4"
  top: "conv5"
  param {
    lr_mult: 1
  }
  param {
    lr_mult: 2
  }
  convolution_param {
    num_output: 64
    pad: 2
    kernel_size: 5
    stride: 1
    weight_filler {
      type: "gaussian"
      std: 0.01
    }
    bias_filler {
      type: "constant"
    }
  }
}
layer {
  name: "relu5"
  type: "ReLU"
  bottom: "conv5"
  top: "conv5"
}
layer {
  name: "pool5"
  type: "Pooling"
  bottom: "conv5"
  top: "pool5"
  pooling_param {
    pool: AVE
    kernel_size: 3
    stride: 2
  }
}
layer {
  name: "ip1"
  type: "InnerProduct"
  bottom: "pool5"
  top: "ip1"
  param {
    lr_mult: 1
  }
  param {
    lr_mult: 2
  }
  inner_product_param {
    num_output: 64
    weight_filler {
      type: "gaussian"
      std: 0.1
    }
    bias_filler {
      type: "constant"
    }
  }
}
layer {
  name: "ip2"
  type: "InnerProduct"
  bottom: "ip1"
  top: "ip2"
  param {
    lr_mult: 1
  }
  param {
    lr_mult: 2
  }
  inner_product_param {
    num_output: 64
    weight_filler {
      type: "gaussian"
      std: 0.1
    }
    bias_filler {
      type: "constant"
    }
  }
}
layer {
  name: "ip3"
  type: "InnerProduct"
  bottom: "ip2"
  top: "ip3"
  param {
    lr_mult: 1
  }
  param {
    lr_mult: 2
  }
  inner_product_param {
    num_output: 50
    weight_filler {
      type: "gaussian"
      std: 0.1
    }
    bias_filler {
      type: "constant"
    }
  }
}
layer {
  name: "loss"
  type: "SoftmaxWithLoss"
  bottom: "ip3"
  bottom: "label"
  top: "loss"
}
I0501 21:54:38.499768 14940 layer_factory.hpp:77] Creating layer parameters
I0501 21:54:38.499783 14940 net.cpp:94] Creating Layer parameters
I0501 21:54:38.499788 14940 net.cpp:409] parameters -> data
I0501 21:54:38.499807 14940 net.cpp:409] parameters -> label
I0501 21:54:38.499819 14940 hdf5_data_layer.cpp:79] Loading list of HDF5 filenames from: /home/purduethu/scratch/radon/d/deng106/CNNStatisticalModel/distributions/input/5_distributions_400_sample_size_train-distributions-path.txt
I0501 21:54:38.499840 14940 hdf5_data_layer.cpp:93] Number of HDF5 files: 1
I0501 21:54:38.500293 14940 hdf5.cpp:32] Datatype class: H5T_FLOAT
I0501 21:54:38.561116 14940 hdf5.cpp:35] Datatype class: H5T_INTEGER
I0501 21:54:38.562216 14940 net.cpp:144] Setting up parameters
I0501 21:54:38.562234 14940 net.cpp:151] Top shape: 20 1 20 20 (8000)
I0501 21:54:38.562240 14940 net.cpp:151] Top shape: 20 (20)
I0501 21:54:38.562243 14940 net.cpp:159] Memory required for data: 32080
I0501 21:54:38.562252 14940 layer_factory.hpp:77] Creating layer conv1
I0501 21:54:38.562271 14940 net.cpp:94] Creating Layer conv1
I0501 21:54:38.562278 14940 net.cpp:435] conv1 <- data
I0501 21:54:38.562288 14940 net.cpp:409] conv1 -> conv1
I0501 21:54:38.567132 14940 net.cpp:144] Setting up conv1
I0501 21:54:38.567148 14940 net.cpp:151] Top shape: 20 64 20 20 (512000)
I0501 21:54:38.567153 14940 net.cpp:159] Memory required for data: 2080080
I0501 21:54:38.567167 14940 layer_factory.hpp:77] Creating layer relu1
I0501 21:54:38.567174 14940 net.cpp:94] Creating Layer relu1
I0501 21:54:38.567178 14940 net.cpp:435] relu1 <- conv1
I0501 21:54:38.567183 14940 net.cpp:396] relu1 -> conv1 (in-place)
I0501 21:54:38.567198 14940 net.cpp:144] Setting up relu1
I0501 21:54:38.567204 14940 net.cpp:151] Top shape: 20 64 20 20 (512000)
I0501 21:54:38.567207 14940 net.cpp:159] Memory required for data: 4128080
I0501 21:54:38.567211 14940 layer_factory.hpp:77] Creating layer conv2
I0501 21:54:38.567219 14940 net.cpp:94] Creating Layer conv2
I0501 21:54:38.567224 14940 net.cpp:435] conv2 <- conv1
I0501 21:54:38.567229 14940 net.cpp:409] conv2 -> conv2
I0501 21:54:38.578145 14940 net.cpp:144] Setting up conv2
I0501 21:54:38.578172 14940 net.cpp:151] Top shape: 20 64 20 20 (512000)
I0501 21:54:38.578181 14940 net.cpp:159] Memory required for data: 6176080
I0501 21:54:38.578197 14940 layer_factory.hpp:77] Creating layer relu2
I0501 21:54:38.578209 14940 net.cpp:94] Creating Layer relu2
I0501 21:54:38.578217 14940 net.cpp:435] relu2 <- conv2
I0501 21:54:38.578227 14940 net.cpp:396] relu2 -> conv2 (in-place)
I0501 21:54:38.578240 14940 net.cpp:144] Setting up relu2
I0501 21:54:38.578250 14940 net.cpp:151] Top shape: 20 64 20 20 (512000)
I0501 21:54:38.578256 14940 net.cpp:159] Memory required for data: 8224080
I0501 21:54:38.578263 14940 layer_factory.hpp:77] Creating layer pool2
I0501 21:54:38.578285 14940 net.cpp:94] Creating Layer pool2
I0501 21:54:38.578294 14940 net.cpp:435] pool2 <- conv2
I0501 21:54:38.578302 14940 net.cpp:409] pool2 -> pool2
I0501 21:54:38.578382 14940 net.cpp:144] Setting up pool2
I0501 21:54:38.578397 14940 net.cpp:151] Top shape: 20 64 10 10 (128000)
I0501 21:54:38.578403 14940 net.cpp:159] Memory required for data: 8736080
I0501 21:54:38.578410 14940 layer_factory.hpp:77] Creating layer conv3
I0501 21:54:38.578425 14940 net.cpp:94] Creating Layer conv3
I0501 21:54:38.578433 14940 net.cpp:435] conv3 <- pool2
I0501 21:54:38.578454 14940 net.cpp:409] conv3 -> conv3
I0501 21:54:38.583772 14940 net.cpp:144] Setting up conv3
I0501 21:54:38.583786 14940 net.cpp:151] Top shape: 20 64 10 10 (128000)
I0501 21:54:38.583791 14940 net.cpp:159] Memory required for data: 9248080
I0501 21:54:38.583799 14940 layer_factory.hpp:77] Creating layer relu3
I0501 21:54:38.583806 14940 net.cpp:94] Creating Layer relu3
I0501 21:54:38.583809 14940 net.cpp:435] relu3 <- conv3
I0501 21:54:38.583814 14940 net.cpp:396] relu3 -> conv3 (in-place)
I0501 21:54:38.583822 14940 net.cpp:144] Setting up relu3
I0501 21:54:38.583827 14940 net.cpp:151] Top shape: 20 64 10 10 (128000)
I0501 21:54:38.583830 14940 net.cpp:159] Memory required for data: 9760080
I0501 21:54:38.583833 14940 layer_factory.hpp:77] Creating layer conv4
I0501 21:54:38.583842 14940 net.cpp:94] Creating Layer conv4
I0501 21:54:38.583847 14940 net.cpp:435] conv4 <- conv3
I0501 21:54:38.583851 14940 net.cpp:409] conv4 -> conv4
I0501 21:54:38.589135 14940 net.cpp:144] Setting up conv4
I0501 21:54:38.589149 14940 net.cpp:151] Top shape: 20 64 10 10 (128000)
I0501 21:54:38.589154 14940 net.cpp:159] Memory required for data: 10272080
I0501 21:54:38.589160 14940 layer_factory.hpp:77] Creating layer relu4
I0501 21:54:38.589167 14940 net.cpp:94] Creating Layer relu4
I0501 21:54:38.589171 14940 net.cpp:435] relu4 <- conv4
I0501 21:54:38.589176 14940 net.cpp:396] relu4 -> conv4 (in-place)
I0501 21:54:38.589184 14940 net.cpp:144] Setting up relu4
I0501 21:54:38.589188 14940 net.cpp:151] Top shape: 20 64 10 10 (128000)
I0501 21:54:38.589192 14940 net.cpp:159] Memory required for data: 10784080
I0501 21:54:38.589195 14940 layer_factory.hpp:77] Creating layer conv5
I0501 21:54:38.589203 14940 net.cpp:94] Creating Layer conv5
I0501 21:54:38.589207 14940 net.cpp:435] conv5 <- conv4
I0501 21:54:38.589213 14940 net.cpp:409] conv5 -> conv5
I0501 21:54:38.594466 14940 net.cpp:144] Setting up conv5
I0501 21:54:38.594480 14940 net.cpp:151] Top shape: 20 64 10 10 (128000)
I0501 21:54:38.594485 14940 net.cpp:159] Memory required for data: 11296080
I0501 21:54:38.594493 14940 layer_factory.hpp:77] Creating layer relu5
I0501 21:54:38.594499 14940 net.cpp:94] Creating Layer relu5
I0501 21:54:38.594503 14940 net.cpp:435] relu5 <- conv5
I0501 21:54:38.594508 14940 net.cpp:396] relu5 -> conv5 (in-place)
I0501 21:54:38.594516 14940 net.cpp:144] Setting up relu5
I0501 21:54:38.594521 14940 net.cpp:151] Top shape: 20 64 10 10 (128000)
I0501 21:54:38.594524 14940 net.cpp:159] Memory required for data: 11808080
I0501 21:54:38.594528 14940 layer_factory.hpp:77] Creating layer pool5
I0501 21:54:38.594533 14940 net.cpp:94] Creating Layer pool5
I0501 21:54:38.594537 14940 net.cpp:435] pool5 <- conv5
I0501 21:54:38.594542 14940 net.cpp:409] pool5 -> pool5
I0501 21:54:38.594575 14940 net.cpp:144] Setting up pool5
I0501 21:54:38.594583 14940 net.cpp:151] Top shape: 20 64 5 5 (32000)
I0501 21:54:38.594588 14940 net.cpp:159] Memory required for data: 11936080
I0501 21:54:38.594590 14940 layer_factory.hpp:77] Creating layer ip1
I0501 21:54:38.594600 14940 net.cpp:94] Creating Layer ip1
I0501 21:54:38.594604 14940 net.cpp:435] ip1 <- pool5
I0501 21:54:38.594609 14940 net.cpp:409] ip1 -> ip1
I0501 21:54:38.597103 14940 net.cpp:144] Setting up ip1
I0501 21:54:38.597111 14940 net.cpp:151] Top shape: 20 64 (1280)
I0501 21:54:38.597115 14940 net.cpp:159] Memory required for data: 11941200
I0501 21:54:38.597121 14940 layer_factory.hpp:77] Creating layer ip2
I0501 21:54:38.597131 14940 net.cpp:94] Creating Layer ip2
I0501 21:54:38.597136 14940 net.cpp:435] ip2 <- ip1
I0501 21:54:38.597141 14940 net.cpp:409] ip2 -> ip2
I0501 21:54:38.597307 14940 net.cpp:144] Setting up ip2
I0501 21:54:38.597314 14940 net.cpp:151] Top shape: 20 64 (1280)
I0501 21:54:38.597318 14940 net.cpp:159] Memory required for data: 11946320
I0501 21:54:38.597323 14940 layer_factory.hpp:77] Creating layer ip3
I0501 21:54:38.597329 14940 net.cpp:94] Creating Layer ip3
I0501 21:54:38.597332 14940 net.cpp:435] ip3 <- ip2
I0501 21:54:38.597337 14940 net.cpp:409] ip3 -> ip3
I0501 21:54:38.597486 14940 net.cpp:144] Setting up ip3
I0501 21:54:38.597493 14940 net.cpp:151] Top shape: 20 50 (1000)
I0501 21:54:38.597497 14940 net.cpp:159] Memory required for data: 11950320
I0501 21:54:38.597502 14940 layer_factory.hpp:77] Creating layer loss
I0501 21:54:38.597509 14940 net.cpp:94] Creating Layer loss
I0501 21:54:38.597512 14940 net.cpp:435] loss <- ip3
I0501 21:54:38.597517 14940 net.cpp:435] loss <- label
I0501 21:54:38.597523 14940 net.cpp:409] loss -> loss
I0501 21:54:38.597532 14940 layer_factory.hpp:77] Creating layer loss
…
I0501 21:54:38.598032 14940 solver.cpp:181] Creating test net (#0) specified by net file: ./protocol/dis_5_400_dimension.protocol_distribution
I0501 21:54:38.598059 14940 net.cpp:323] The NetState phase (1) differed from the phase (0) specified by a rule in layer parameters
I0501 21:54:38.598155 14940 net.cpp:52] Initializing net from parameters: 
state {
  phase: TEST
}
layer {
  name: "intercept"
  type: "HDF5Data"
  top: "data"
  top: "label"
  include {
    phase: TEST
  }
  hdf5_data_param {
    source: "/home/purduethu/scratch/radon/d/deng106/CNNStatisticalModel/distributions/input/5_distributions_400_sample_size_test-distributions-path.txt"
    batch_size: 20
  }
}
layer {
  name: "conv1"
  type: "Convolution"
  bottom: "data"
  top: "conv1"
  param {
    lr_mult: 1
  }
  param {
    lr_mult: 2
  }
  convolution_param {
    num_output: 64
    pad: 2
    kernel_size: 5
    stride: 1
    weight_filler {
      type: "gaussian"
      std: 0.0001
    }
    bias_filler {
      type: "constant"
    }
  }
}
layer {
  name: "relu1"
  type: "ReLU"
  bottom: "conv1"
  top: "conv1"
}
layer {
  name: "conv2"
  type: "Convolution"
  bottom: "conv1"
  top: "conv2"
  param {
    lr_mult: 1
  }
  param {
    lr_mult: 2
  }
  convolution_param {
    num_output: 64
    pad: 2
    kernel_size: 5
    stride: 1
    weight_filler {
      type: "gaussian"
      std: 0.01
    }
    bias_filler {
      type: "constant"
    }
  }
}
layer {
  name: "relu2"
  type: "ReLU"
  bottom: "conv2"
  top: "conv2"
}
layer {
  name: "pool2"
  type: "Pooling"
  bottom: "conv2"
  top: "pool2"
  pooling_param {
    pool: MAX
    kernel_size: 3
    stride: 2
  }
}
layer {
  name: "conv3"
  type: "Convolution"
  bottom: "pool2"
  top: "conv3"
  param {
    lr_mult: 1
  }
  param {
    lr_mult: 2
  }
  convolution_param {
    num_output: 64
    pad: 2
    kernel_size: 5
    stride: 1
    weight_filler {
      type: "gaussian"
      std: 0.01
    }
    bias_filler {
      type: "constant"
    }
  }
}
layer {
  name: "relu3"
  type: "ReLU"
  bottom: "conv3"
  top: "conv3"
}
layer {
  name: "conv4"
  type: "Convolution"
  bottom: "conv3"
  top: "conv4"
  param {
    lr_mult: 1
  }
  param {
    lr_mult: 2
  }
  convolution_param {
    num_output: 64
    pad: 2
    kernel_size: 5
    stride: 1
    weight_filler {
      type: "gaussian"
      std: 0.01
    }
    bias_filler {
      type: "constant"
    }
  }
}
layer {
  name: "relu4"
  type: "ReLU"
  bottom: "conv4"
  top: "conv4"
}
layer {
  name: "conv5"
  type: "Convolution"
  bottom: "conv4"
  top: "conv5"
  param {
    lr_mult: 1
  }
  param {
    lr_mult: 2
  }
  convolution_param {
    num_output: 64
    pad: 2
    kernel_size: 5
    stride: 1
    weight_filler {
      type: "gaussian"
      std: 0.01
    }
    bias_filler {
      type: "constant"
    }
  }
}
layer {
  name: "relu5"
  type: "ReLU"
  bottom: "conv5"
  top: "conv5"
}
layer {
  name: "pool5"
  type: "Pooling"
  bottom: "conv5"
  top: "pool5"
  pooling_param {
    pool: AVE
    kernel_size: 3
    stride: 2
  }
}
layer {
  name: "ip1"
  type: "InnerProduct"
  bottom: "pool5"
  top: "ip1"
  param {
    lr_mult: 1
  }
  param {
    lr_mult: 2
  }
  inner_product_param {
    num_output: 64
    weight_filler {
      type: "gaussian"
      std: 0.1
    }
    bias_filler {
      type: "constant"
    }
  }
}
layer {
  name: "ip2"
  type: "InnerProduct"
  bottom: "ip1"
  top: "ip2"
  param {
    lr_mult: 1
  }
  param {
    lr_mult: 2
  }
  inner_product_param {
    num_output: 64
    weight_filler {
      type: "gaussian"
      std: 0.1
    }
    bias_filler {
      type: "constant"
    }
  }
}
layer {
  name: "ip3"
  type: "InnerProduct"
  bottom: "ip2"
  top: "ip3"
  param {
    lr_mult: 1
  }
  param {
    lr_mult: 2
  }
  inner_product_param {
    num_output: 50
    weight_filler {
      type: "gaussian"
      std: 0.1
    }
    bias_filler {
      type: "constant"
    }
  }
}
layer {
  name: "accuracy"
  type: "Accuracy"
  bottom: "ip3"
  bottom: "label"
  top: "accuracy"
  include {
    phase: TEST
  }
}
layer {
  name: "loss"
  type: "SoftmaxWithLoss"
  bottom: "ip3"
  bottom: "label"
  top: "loss"
}
I0501 21:54:38.598227 14940 layer_factory.hpp:77] Creating layer intercept
I0501 21:54:38.598235 14940 net.cpp:94] Creating Layer intercept
I0501 21:54:38.598240 14940 net.cpp:409] intercept -> data
I0501 21:54:38.598248 14940 net.cpp:409] intercept -> label
I0501 21:54:38.598254 14940 hdf5_data_layer.cpp:79] Loading list of HDF5 filenames from: /home/purduethu/scratch/radon/d/deng106/CNNStatisticalModel/distributions/input/5_distributions_400_sample_size_test-distributions-path.txt
I0501 21:54:38.598274 14940 hdf5_data_layer.cpp:93] Number of HDF5 files: 1
I0501 21:54:38.614737 14940 net.cpp:144] Setting up intercept
I0501 21:54:38.614766 14940 net.cpp:151] Top shape: 20 1 20 20 (8000)
I0501 21:54:38.614773 14940 net.cpp:151] Top shape: 20 (20)
I0501 21:54:38.614776 14940 net.cpp:159] Memory required for data: 32080
I0501 21:54:38.614783 14940 layer_factory.hpp:77] Creating layer label_intercept_1_split
I0501 21:54:38.614799 14940 net.cpp:94] Creating Layer label_intercept_1_split
I0501 21:54:38.614804 14940 net.cpp:435] label_intercept_1_split <- label
I0501 21:54:38.614811 14940 net.cpp:409] label_intercept_1_split -> label_intercept_1_split_0
I0501 21:54:38.614820 14940 net.cpp:409] label_intercept_1_split -> label_intercept_1_split_1
I0501 21:54:38.614856 14940 net.cpp:144] Setting up label_intercept_1_split
I0501 21:54:38.614863 14940 net.cpp:151] Top shape: 20 (20)
I0501 21:54:38.614867 14940 net.cpp:151] Top shape: 20 (20)
I0501 21:54:38.614871 14940 net.cpp:159] Memory required for data: 32240
I0501 21:54:38.614874 14940 layer_factory.hpp:77] Creating layer conv1
I0501 21:54:38.614886 14940 net.cpp:94] Creating Layer conv1
I0501 21:54:38.614892 14940 net.cpp:435] conv1 <- data
I0501 21:54:38.614897 14940 net.cpp:409] conv1 -> conv1
I0501 21:54:38.615939 14940 net.cpp:144] Setting up conv1
I0501 21:54:38.615960 14940 net.cpp:151] Top shape: 20 64 20 20 (512000)
I0501 21:54:38.615965 14940 net.cpp:159] Memory required for data: 2080240
I0501 21:54:38.615975 14940 layer_factory.hpp:77] Creating layer relu1
I0501 21:54:38.615983 14940 net.cpp:94] Creating Layer relu1
I0501 21:54:38.615986 14940 net.cpp:435] relu1 <- conv1
I0501 21:54:38.615991 14940 net.cpp:396] relu1 -> conv1 (in-place)
I0501 21:54:38.615999 14940 net.cpp:144] Setting up relu1
I0501 21:54:38.616004 14940 net.cpp:151] Top shape: 20 64 20 20 (512000)
I0501 21:54:38.616008 14940 net.cpp:159] Memory required for data: 4128240
I0501 21:54:38.616011 14940 layer_factory.hpp:77] Creating layer conv2
I0501 21:54:38.616020 14940 net.cpp:94] Creating Layer conv2
I0501 21:54:38.616024 14940 net.cpp:435] conv2 <- conv1
I0501 21:54:38.616029 14940 net.cpp:409] conv2 -> conv2
I0501 21:54:38.621505 14940 net.cpp:144] Setting up conv2
I0501 21:54:38.621518 14940 net.cpp:151] Top shape: 20 64 20 20 (512000)
I0501 21:54:38.621523 14940 net.cpp:159] Memory required for data: 6176240
I0501 21:54:38.621531 14940 layer_factory.hpp:77] Creating layer relu2
I0501 21:54:38.621537 14940 net.cpp:94] Creating Layer relu2
I0501 21:54:38.621541 14940 net.cpp:435] relu2 <- conv2
I0501 21:54:38.621546 14940 net.cpp:396] relu2 -> conv2 (in-place)
I0501 21:54:38.621553 14940 net.cpp:144] Setting up relu2
I0501 21:54:38.621558 14940 net.cpp:151] Top shape: 20 64 20 20 (512000)
I0501 21:54:38.621562 14940 net.cpp:159] Memory required for data: 8224240
I0501 21:54:38.621565 14940 layer_factory.hpp:77] Creating layer pool2
I0501 21:54:38.621572 14940 net.cpp:94] Creating Layer pool2
I0501 21:54:38.621575 14940 net.cpp:435] pool2 <- conv2
I0501 21:54:38.621579 14940 net.cpp:409] pool2 -> pool2
I0501 21:54:38.621613 14940 net.cpp:144] Setting up pool2
I0501 21:54:38.621620 14940 net.cpp:151] Top shape: 20 64 10 10 (128000)
I0501 21:54:38.621623 14940 net.cpp:159] Memory required for data: 8736240
I0501 21:54:38.621628 14940 layer_factory.hpp:77] Creating layer conv3
I0501 21:54:38.621635 14940 net.cpp:94] Creating Layer conv3
I0501 21:54:38.621639 14940 net.cpp:435] conv3 <- pool2
I0501 21:54:38.621644 14940 net.cpp:409] conv3 -> conv3
I0501 21:54:38.625392 14940 net.cpp:144] Setting up conv3
I0501 21:54:38.625406 14940 net.cpp:151] Top shape: 20 64 10 10 (128000)
I0501 21:54:38.625411 14940 net.cpp:159] Memory required for data: 9248240
I0501 21:54:38.625419 14940 layer_factory.hpp:77] Creating layer relu3
I0501 21:54:38.625427 14940 net.cpp:94] Creating Layer relu3
I0501 21:54:38.625430 14940 net.cpp:435] relu3 <- conv3
I0501 21:54:38.625435 14940 net.cpp:396] relu3 -> conv3 (in-place)
I0501 21:54:38.625442 14940 net.cpp:144] Setting up relu3
I0501 21:54:38.625447 14940 net.cpp:151] Top shape: 20 64 10 10 (128000)
I0501 21:54:38.625450 14940 net.cpp:159] Memory required for data: 9760240
I0501 21:54:38.625454 14940 layer_factory.hpp:77] Creating layer conv4
I0501 21:54:38.625463 14940 net.cpp:94] Creating Layer conv4
I0501 21:54:38.625465 14940 net.cpp:435] conv4 <- conv3
I0501 21:54:38.625470 14940 net.cpp:409] conv4 -> conv4
I0501 21:54:38.628881 14940 net.cpp:144] Setting up conv4
I0501 21:54:38.628895 14940 net.cpp:151] Top shape: 20 64 10 10 (128000)
I0501 21:54:38.628898 14940 net.cpp:159] Memory required for data: 10272240
I0501 21:54:38.628904 14940 layer_factory.hpp:77] Creating layer relu4
I0501 21:54:38.628911 14940 net.cpp:94] Creating Layer relu4
I0501 21:54:38.628918 14940 net.cpp:435] relu4 <- conv4
I0501 21:54:38.628923 14940 net.cpp:396] relu4 -> conv4 (in-place)
I0501 21:54:38.628931 14940 net.cpp:144] Setting up relu4
I0501 21:54:38.628937 14940 net.cpp:151] Top shape: 20 64 10 10 (128000)
I0501 21:54:38.628939 14940 net.cpp:159] Memory required for data: 10784240
I0501 21:54:38.628943 14940 layer_factory.hpp:77] Creating layer conv5
I0501 21:54:38.628952 14940 net.cpp:94] Creating Layer conv5
I0501 21:54:38.628954 14940 net.cpp:435] conv5 <- conv4
I0501 21:54:38.628959 14940 net.cpp:409] conv5 -> conv5
I0501 21:54:38.632686 14940 net.cpp:144] Setting up conv5
I0501 21:54:38.632706 14940 net.cpp:151] Top shape: 20 64 10 10 (128000)
I0501 21:54:38.632710 14940 net.cpp:159] Memory required for data: 11296240
I0501 21:54:38.632719 14940 layer_factory.hpp:77] Creating layer relu5
I0501 21:54:38.632725 14940 net.cpp:94] Creating Layer relu5
I0501 21:54:38.632730 14940 net.cpp:435] relu5 <- conv5
I0501 21:54:38.632735 14940 net.cpp:396] relu5 -> conv5 (in-place)
I0501 21:54:38.632741 14940 net.cpp:144] Setting up relu5
I0501 21:54:38.632747 14940 net.cpp:151] Top shape: 20 64 10 10 (128000)
I0501 21:54:38.632750 14940 net.cpp:159] Memory required for data: 11808240
I0501 21:54:38.632753 14940 layer_factory.hpp:77] Creating layer pool5
I0501 21:54:38.632760 14940 net.cpp:94] Creating Layer pool5
I0501 21:54:38.632762 14940 net.cpp:435] pool5 <- conv5
I0501 21:54:38.632767 14940 net.cpp:409] pool5 -> pool5
I0501 21:54:38.632792 14940 net.cpp:144] Setting up pool5
I0501 21:54:38.632798 14940 net.cpp:151] Top shape: 20 64 5 5 (32000)
I0501 21:54:38.632802 14940 net.cpp:159] Memory required for data: 11936240
I0501 21:54:38.632805 14940 layer_factory.hpp:77] Creating layer ip1
I0501 21:54:38.632812 14940 net.cpp:94] Creating Layer ip1
I0501 21:54:38.632817 14940 net.cpp:435] ip1 <- pool5
I0501 21:54:38.632822 14940 net.cpp:409] ip1 -> ip1
I0501 21:54:38.635313 14940 net.cpp:144] Setting up ip1
I0501 21:54:38.635319 14940 net.cpp:151] Top shape: 20 64 (1280)
I0501 21:54:38.635324 14940 net.cpp:159] Memory required for data: 11941360
I0501 21:54:38.635329 14940 layer_factory.hpp:77] Creating layer ip2
I0501 21:54:38.635335 14940 net.cpp:94] Creating Layer ip2
I0501 21:54:38.635339 14940 net.cpp:435] ip2 <- ip1
I0501 21:54:38.635344 14940 net.cpp:409] ip2 -> ip2
I0501 21:54:38.635510 14940 net.cpp:144] Setting up ip2
I0501 21:54:38.635517 14940 net.cpp:151] Top shape: 20 64 (1280)
I0501 21:54:38.635521 14940 net.cpp:159] Memory required for data: 11946480
I0501 21:54:38.635526 14940 layer_factory.hpp:77] Creating layer ip3
I0501 21:54:38.635534 14940 net.cpp:94] Creating Layer ip3
I0501 21:54:38.635536 14940 net.cpp:435] ip3 <- ip2
I0501 21:54:38.635541 14940 net.cpp:409] ip3 -> ip3
I0501 21:54:38.635684 14940 net.cpp:144] Setting up ip3
I0501 21:54:38.635691 14940 net.cpp:151] Top shape: 20 50 (1000)
I0501 21:54:38.635694 14940 net.cpp:159] Memory required for data: 11950480
I0501 21:54:38.635699 14940 layer_factory.hpp:77] Creating layer ip3_ip3_0_split
I0501 21:54:38.635705 14940 net.cpp:94] Creating Layer ip3_ip3_0_split
I0501 21:54:38.635709 14940 net.cpp:435] ip3_ip3_0_split <- ip3
I0501 21:54:38.635713 14940 net.cpp:409] ip3_ip3_0_split -> ip3_ip3_0_split_0
I0501 21:54:38.635718 14940 net.cpp:409] ip3_ip3_0_split -> ip3_ip3_0_split_1
I0501 21:54:38.635742 14940 net.cpp:144] Setting up ip3_ip3_0_split
I0501 21:54:38.635748 14940 net.cpp:151] Top shape: 20 50 (1000)
I0501 21:54:38.635752 14940 net.cpp:151] Top shape: 20 50 (1000)
I0501 21:54:38.635756 14940 net.cpp:159] Memory required for data: 11958480
I0501 21:54:38.635759 14940 layer_factory.hpp:77] Creating layer accuracy
I0501 21:54:38.635764 14940 net.cpp:94] Creating Layer accuracy
I0501 21:54:38.635768 14940 net.cpp:435] accuracy <- ip3_ip3_0_split_0
I0501 21:54:38.635772 14940 net.cpp:435] accuracy <- label_intercept_1_split_0
I0501 21:54:38.635777 14940 net.cpp:409] accuracy -> accuracy
…
