…
I0506 05:40:48.382537 13181 net.cpp:323] The NetState phase (0) differed from the phase (1) specified by a rule in layer intercept
I0506 05:40:48.382552 13181 net.cpp:323] The NetState phase (0) differed from the phase (1) specified by a rule in layer loss
I0506 05:40:48.382629 13181 net.cpp:52] Initializing net from parameters: 
state {
  phase: TRAIN
}
layer {
  name: "parameters"
  type: "HDF5Data"
  top: "data"
  top: "label"
  include {
    phase: TRAIN
  }
  hdf5_data_param {
    source: "/home/purduethu/scratch/radon/d/deng106/CNNStatisticalModel/distributions/input/50_distributions_100_sample_size_train-parameters-path.txt"
    batch_size: 20
  }
}
layer {
  name: "conv1"
  type: "Convolution"
  bottom: "data"
  top: "conv1"
  param {
    lr_mult: 1
  }
  param {
    lr_mult: 2
  }
  convolution_param {
    num_output: 64
    pad: 2
    kernel_size: 5
    stride: 1
    weight_filler {
      type: "gaussian"
      std: 0.0001
    }
    bias_filler {
      type: "constant"
    }
  }
}
layer {
  name: "relu1"
  type: "ReLU"
  bottom: "conv1"
  top: "conv1"
}
layer {
  name: "conv2"
  type: "Convolution"
  bottom: "conv1"
  top: "conv2"
  param {
    lr_mult: 1
  }
  param {
    lr_mult: 2
  }
  convolution_param {
    num_output: 64
    pad: 2
    kernel_size: 5
    stride: 1
    weight_filler {
      type: "gaussian"
      std: 0.01
    }
    bias_filler {
      type: "constant"
    }
  }
}
layer {
  name: "relu2"
  type: "ReLU"
  bottom: "conv2"
  top: "conv2"
}
layer {
  name: "pool2"
  type: "Pooling"
  bottom: "conv2"
  top: "pool2"
  pooling_param {
    pool: MAX
    kernel_size: 3
    stride: 2
  }
}
layer {
  name: "conv3"
  type: "Convolution"
  bottom: "pool2"
  top: "conv3"
  param {
    lr_mult: 1
  }
  param {
    lr_mult: 2
  }
  convolution_param {
    num_output: 128
    pad: 2
    kernel_size: 5
    stride: 1
    weight_filler {
      type: "gaussian"
      std: 0.01
    }
    bias_filler {
      type: "constant"
    }
  }
}
layer {
  name: "relu3"
  type: "ReLU"
  bottom: "conv3"
  top: "conv3"
}
layer {
  name: "conv4"
  type: "Convolution"
  bottom: "conv3"
  top: "conv4"
  param {
    lr_mult: 1
  }
  param {
    lr_mult: 2
  }
  convolution_param {
    num_output: 128
    pad: 2
    kernel_size: 5
    stride: 1
    weight_filler {
      type: "gaussian"
      std: 0.01
    }
    bias_filler {
      type: "constant"
    }
  }
}
layer {
  name: "relu4"
  type: "ReLU"
  bottom: "conv4"
  top: "conv4"
}
layer {
  name: "conv5"
  type: "Convolution"
  bottom: "conv4"
  top: "conv5"
  param {
    lr_mult: 1
  }
  param {
    lr_mult: 2
  }
  convolution_param {
    num_output: 128
    pad: 2
    kernel_size: 5
    stride: 1
    weight_filler {
      type: "gaussian"
      std: 0.01
    }
    bias_filler {
      type: "constant"
    }
  }
}
layer {
  name: "relu5"
  type: "ReLU"
  bottom: "conv5"
  top: "conv5"
}
layer {
  name: "pool5"
  type: "Pooling"
  bottom: "conv5"
  top: "pool5"
  pooling_param {
    pool: AVE
    kernel_size: 3
    stride: 2
  }
}
layer {
  name: "ip1"
  type: "InnerProduct"
  bottom: "pool5"
  top: "ip1"
  param {
    lr_mult: 1
  }
  param {
    lr_mult: 2
  }
  inner_product_param {
    num_output: 1024
    weight_filler {
      type: "gaussian"
      std: 0.1
    }
    bias_filler {
      type: "constant"
    }
  }
}
layer {
  name: "ip2"
  type: "InnerProduct"
  bottom: "ip1"
  top: "ip2"
  param {
    lr_mult: 1
  }
  param {
    lr_mult: 2
  }
  inner_product_param {
    num_output: 512
    weight_filler {
      type: "gaussian"
      std: 0.1
    }
    bias_filler {
      type: "constant"
    }
  }
}
layer {
  name: "ip3"
  type: "InnerProduct"
  bottom: "ip2"
  top: "ip3"
  param {
    lr_mult: 1
  }
  param {
    lr_mult: 2
  }
  inner_product_param {
    num_output: 1
    weight_filler {
      type: "gaussian"
      std: 0.1
    }
    bias_filler {
      type: "constant"
    }
  }
}
layer {
  name: "loss"
  type: "HuberLoss"
  bottom: "ip3"
  bottom: "label"
  top: "loss"
  include {
    phase: TRAIN
  }
}
I0506 05:40:48.382684 13181 layer_factory.hpp:77] Creating layer parameters
I0506 05:40:48.382700 13181 net.cpp:94] Creating Layer parameters
I0506 05:40:48.382705 13181 net.cpp:409] parameters -> data
I0506 05:40:48.382714 13181 net.cpp:409] parameters -> label
I0506 05:40:48.382721 13181 hdf5_data_layer.cpp:79] Loading list of HDF5 filenames from: /home/purduethu/scratch/radon/d/deng106/CNNStatisticalModel/distributions/input/50_distributions_100_sample_size_train-parameters-path.txt
I0506 05:40:48.382735 13181 hdf5_data_layer.cpp:93] Number of HDF5 files: 1
I0506 05:40:48.383281 13181 hdf5.cpp:32] Datatype class: H5T_FLOAT
I0506 05:40:48.549798 13181 net.cpp:144] Setting up parameters
I0506 05:40:48.549834 13181 net.cpp:151] Top shape: 20 1 10 10 (2000)
I0506 05:40:48.549839 13181 net.cpp:151] Top shape: 20 (20)
I0506 05:40:48.549842 13181 net.cpp:159] Memory required for data: 8080
I0506 05:40:48.549849 13181 layer_factory.hpp:77] Creating layer conv1
I0506 05:40:48.549870 13181 net.cpp:94] Creating Layer conv1
I0506 05:40:48.549875 13181 net.cpp:435] conv1 <- data
I0506 05:40:48.549881 13181 net.cpp:409] conv1 -> conv1
I0506 05:40:48.554085 13181 net.cpp:144] Setting up conv1
I0506 05:40:48.554100 13181 net.cpp:151] Top shape: 20 64 10 10 (128000)
I0506 05:40:48.554105 13181 net.cpp:159] Memory required for data: 520080
I0506 05:40:48.554114 13181 layer_factory.hpp:77] Creating layer relu1
I0506 05:40:48.554122 13181 net.cpp:94] Creating Layer relu1
I0506 05:40:48.554126 13181 net.cpp:435] relu1 <- conv1
I0506 05:40:48.554131 13181 net.cpp:396] relu1 -> conv1 (in-place)
I0506 05:40:48.554142 13181 net.cpp:144] Setting up relu1
I0506 05:40:48.554147 13181 net.cpp:151] Top shape: 20 64 10 10 (128000)
I0506 05:40:48.554150 13181 net.cpp:159] Memory required for data: 1032080
I0506 05:40:48.554153 13181 layer_factory.hpp:77] Creating layer conv2
I0506 05:40:48.554162 13181 net.cpp:94] Creating Layer conv2
I0506 05:40:48.554164 13181 net.cpp:435] conv2 <- conv1
I0506 05:40:48.554170 13181 net.cpp:409] conv2 -> conv2
I0506 05:40:48.560219 13181 net.cpp:144] Setting up conv2
I0506 05:40:48.560233 13181 net.cpp:151] Top shape: 20 64 10 10 (128000)
I0506 05:40:48.560237 13181 net.cpp:159] Memory required for data: 1544080
I0506 05:40:48.560245 13181 layer_factory.hpp:77] Creating layer relu2
I0506 05:40:48.560252 13181 net.cpp:94] Creating Layer relu2
I0506 05:40:48.560256 13181 net.cpp:435] relu2 <- conv2
I0506 05:40:48.560261 13181 net.cpp:396] relu2 -> conv2 (in-place)
I0506 05:40:48.560268 13181 net.cpp:144] Setting up relu2
I0506 05:40:48.560272 13181 net.cpp:151] Top shape: 20 64 10 10 (128000)
I0506 05:40:48.560276 13181 net.cpp:159] Memory required for data: 2056080
I0506 05:40:48.560278 13181 layer_factory.hpp:77] Creating layer pool2
I0506 05:40:48.560286 13181 net.cpp:94] Creating Layer pool2
I0506 05:40:48.560288 13181 net.cpp:435] pool2 <- conv2
I0506 05:40:48.560292 13181 net.cpp:409] pool2 -> pool2
I0506 05:40:48.560349 13181 net.cpp:144] Setting up pool2
I0506 05:40:48.560358 13181 net.cpp:151] Top shape: 20 64 5 5 (32000)
I0506 05:40:48.560360 13181 net.cpp:159] Memory required for data: 2184080
I0506 05:40:48.560364 13181 layer_factory.hpp:77] Creating layer conv3
I0506 05:40:48.560374 13181 net.cpp:94] Creating Layer conv3
I0506 05:40:48.560384 13181 net.cpp:435] conv3 <- pool2
I0506 05:40:48.560389 13181 net.cpp:409] conv3 -> conv3
I0506 05:40:48.568558 13181 net.cpp:144] Setting up conv3
I0506 05:40:48.568572 13181 net.cpp:151] Top shape: 20 128 5 5 (64000)
I0506 05:40:48.568577 13181 net.cpp:159] Memory required for data: 2440080
I0506 05:40:48.568584 13181 layer_factory.hpp:77] Creating layer relu3
I0506 05:40:48.568591 13181 net.cpp:94] Creating Layer relu3
I0506 05:40:48.568594 13181 net.cpp:435] relu3 <- conv3
I0506 05:40:48.568599 13181 net.cpp:396] relu3 -> conv3 (in-place)
I0506 05:40:48.568605 13181 net.cpp:144] Setting up relu3
I0506 05:40:48.568610 13181 net.cpp:151] Top shape: 20 128 5 5 (64000)
I0506 05:40:48.568614 13181 net.cpp:159] Memory required for data: 2696080
I0506 05:40:48.568616 13181 layer_factory.hpp:77] Creating layer conv4
I0506 05:40:48.568625 13181 net.cpp:94] Creating Layer conv4
I0506 05:40:48.568629 13181 net.cpp:435] conv4 <- conv3
I0506 05:40:48.568634 13181 net.cpp:409] conv4 -> conv4
I0506 05:40:48.583418 13181 net.cpp:144] Setting up conv4
I0506 05:40:48.583436 13181 net.cpp:151] Top shape: 20 128 5 5 (64000)
I0506 05:40:48.583439 13181 net.cpp:159] Memory required for data: 2952080
I0506 05:40:48.583446 13181 layer_factory.hpp:77] Creating layer relu4
I0506 05:40:48.583452 13181 net.cpp:94] Creating Layer relu4
I0506 05:40:48.583457 13181 net.cpp:435] relu4 <- conv4
I0506 05:40:48.583461 13181 net.cpp:396] relu4 -> conv4 (in-place)
I0506 05:40:48.583468 13181 net.cpp:144] Setting up relu4
I0506 05:40:48.583473 13181 net.cpp:151] Top shape: 20 128 5 5 (64000)
I0506 05:40:48.583477 13181 net.cpp:159] Memory required for data: 3208080
I0506 05:40:48.583479 13181 layer_factory.hpp:77] Creating layer conv5
I0506 05:40:48.583487 13181 net.cpp:94] Creating Layer conv5
I0506 05:40:48.583490 13181 net.cpp:435] conv5 <- conv4
I0506 05:40:48.583495 13181 net.cpp:409] conv5 -> conv5
I0506 05:40:48.597903 13181 net.cpp:144] Setting up conv5
I0506 05:40:48.597920 13181 net.cpp:151] Top shape: 20 128 5 5 (64000)
I0506 05:40:48.597924 13181 net.cpp:159] Memory required for data: 3464080
I0506 05:40:48.597934 13181 layer_factory.hpp:77] Creating layer relu5
I0506 05:40:48.597940 13181 net.cpp:94] Creating Layer relu5
I0506 05:40:48.597944 13181 net.cpp:435] relu5 <- conv5
I0506 05:40:48.597949 13181 net.cpp:396] relu5 -> conv5 (in-place)
I0506 05:40:48.597955 13181 net.cpp:144] Setting up relu5
I0506 05:40:48.597960 13181 net.cpp:151] Top shape: 20 128 5 5 (64000)
I0506 05:40:48.597964 13181 net.cpp:159] Memory required for data: 3720080
I0506 05:40:48.597966 13181 layer_factory.hpp:77] Creating layer pool5
I0506 05:40:48.597971 13181 net.cpp:94] Creating Layer pool5
I0506 05:40:48.597975 13181 net.cpp:435] pool5 <- conv5
I0506 05:40:48.597978 13181 net.cpp:409] pool5 -> pool5
I0506 05:40:48.598022 13181 net.cpp:144] Setting up pool5
I0506 05:40:48.598029 13181 net.cpp:151] Top shape: 20 128 2 2 (10240)
I0506 05:40:48.598032 13181 net.cpp:159] Memory required for data: 3761040
I0506 05:40:48.598037 13181 layer_factory.hpp:77] Creating layer ip1
I0506 05:40:48.598045 13181 net.cpp:94] Creating Layer ip1
I0506 05:40:48.598048 13181 net.cpp:435] ip1 <- pool5
I0506 05:40:48.598053 13181 net.cpp:409] ip1 -> ip1
I0506 05:40:48.612164 13181 net.cpp:144] Setting up ip1
I0506 05:40:48.612182 13181 net.cpp:151] Top shape: 20 1024 (20480)
I0506 05:40:48.612186 13181 net.cpp:159] Memory required for data: 3842960
I0506 05:40:48.612192 13181 layer_factory.hpp:77] Creating layer ip2
I0506 05:40:48.612200 13181 net.cpp:94] Creating Layer ip2
I0506 05:40:48.612205 13181 net.cpp:435] ip2 <- ip1
I0506 05:40:48.612210 13181 net.cpp:409] ip2 -> ip2
I0506 05:40:48.625273 13181 net.cpp:144] Setting up ip2
I0506 05:40:48.625288 13181 net.cpp:151] Top shape: 20 512 (10240)
I0506 05:40:48.625293 13181 net.cpp:159] Memory required for data: 3883920
I0506 05:40:48.625298 13181 layer_factory.hpp:77] Creating layer ip3
I0506 05:40:48.625304 13181 net.cpp:94] Creating Layer ip3
I0506 05:40:48.625308 13181 net.cpp:435] ip3 <- ip2
I0506 05:40:48.625320 13181 net.cpp:409] ip3 -> ip3
I0506 05:40:48.625442 13181 net.cpp:144] Setting up ip3
I0506 05:40:48.625448 13181 net.cpp:151] Top shape: 20 1 (20)
I0506 05:40:48.625452 13181 net.cpp:159] Memory required for data: 3884000
I0506 05:40:48.625458 13181 layer_factory.hpp:77] Creating layer loss
I0506 05:40:48.625465 13181 net.cpp:94] Creating Layer loss
I0506 05:40:48.625468 13181 net.cpp:435] loss <- ip3
I0506 05:40:48.625471 13181 net.cpp:435] loss <- label
I0506 05:40:48.625476 13181 net.cpp:409] loss -> loss
I0506 05:40:48.625529 13181 net.cpp:144] Setting up loss
…
I0506 05:40:48.732832 13181 net.cpp:323] The NetState phase (0) differed from the phase (1) specified by a rule in layer intercept
I0506 05:40:48.732849 13181 net.cpp:323] The NetState phase (0) differed from the phase (1) specified by a rule in layer accuracy
I0506 05:40:48.732947 13181 net.cpp:52] Initializing net from parameters: 
state {
  phase: TRAIN
}
layer {
  name: "parameters"
  type: "HDF5Data"
  top: "data"
  top: "label"
  include {
    phase: TRAIN
  }
  hdf5_data_param {
    source: "/home/purduethu/scratch/radon/d/deng106/CNNStatisticalModel/distributions/input/50_distributions_100_sample_size_train-distributions-path.txt"
    batch_size: 20
  }
}
layer {
  name: "conv1"
  type: "Convolution"
  bottom: "data"
  top: "conv1"
  param {
    lr_mult: 1
  }
  param {
    lr_mult: 2
  }
  convolution_param {
    num_output: 64
    pad: 2
    kernel_size: 5
    stride: 1
    weight_filler {
      type: "gaussian"
      std: 0.0001
    }
    bias_filler {
      type: "constant"
    }
  }
}
layer {
  name: "relu1"
  type: "ReLU"
  bottom: "conv1"
  top: "conv1"
}
layer {
  name: "conv2"
  type: "Convolution"
  bottom: "conv1"
  top: "conv2"
  param {
    lr_mult: 1
  }
  param {
    lr_mult: 2
  }
  convolution_param {
    num_output: 64
    pad: 2
    kernel_size: 5
    stride: 1
    weight_filler {
      type: "gaussian"
      std: 0.01
    }
    bias_filler {
      type: "constant"
    }
  }
}
layer {
  name: "relu2"
  type: "ReLU"
  bottom: "conv2"
  top: "conv2"
}
layer {
  name: "pool2"
  type: "Pooling"
  bottom: "conv2"
  top: "pool2"
  pooling_param {
    pool: MAX
    kernel_size: 3
    stride: 2
  }
}
layer {
  name: "conv3"
  type: "Convolution"
  bottom: "pool2"
  top: "conv3"
  param {
    lr_mult: 1
  }
  param {
    lr_mult: 2
  }
  convolution_param {
    num_output: 128
    pad: 2
    kernel_size: 5
    stride: 1
    weight_filler {
      type: "gaussian"
      std: 0.01
    }
    bias_filler {
      type: "constant"
    }
  }
}
layer {
  name: "relu3"
  type: "ReLU"
  bottom: "conv3"
  top: "conv3"
}
layer {
  name: "conv4"
  type: "Convolution"
  bottom: "conv3"
  top: "conv4"
  param {
    lr_mult: 1
  }
  param {
    lr_mult: 2
  }
  convolution_param {
    num_output: 128
    pad: 2
    kernel_size: 5
    stride: 1
    weight_filler {
      type: "gaussian"
      std: 0.01
    }
    bias_filler {
      type: "constant"
    }
  }
}
layer {
  name: "relu4"
  type: "ReLU"
  bottom: "conv4"
  top: "conv4"
}
layer {
  name: "conv5"
  type: "Convolution"
  bottom: "conv4"
  top: "conv5"
  param {
    lr_mult: 1
  }
  param {
    lr_mult: 2
  }
  convolution_param {
    num_output: 128
    pad: 2
    kernel_size: 5
    stride: 1
    weight_filler {
      type: "gaussian"
      std: 0.01
    }
    bias_filler {
      type: "constant"
    }
  }
}
layer {
  name: "relu5"
  type: "ReLU"
  bottom: "conv5"
  top: "conv5"
}
layer {
  name: "pool5"
  type: "Pooling"
  bottom: "conv5"
  top: "pool5"
  pooling_param {
    pool: AVE
    kernel_size: 3
    stride: 2
  }
}
layer {
  name: "ip1"
  type: "InnerProduct"
  bottom: "pool5"
  top: "ip1"
  param {
    lr_mult: 1
  }
  param {
    lr_mult: 2
  }
  inner_product_param {
    num_output: 1024
    weight_filler {
      type: "gaussian"
      std: 0.1
    }
    bias_filler {
      type: "constant"
    }
  }
}
layer {
  name: "ip2"
  type: "InnerProduct"
  bottom: "ip1"
  top: "ip2"
  param {
    lr_mult: 1
  }
  param {
    lr_mult: 2
  }
  inner_product_param {
    num_output: 512
    weight_filler {
      type: "gaussian"
      std: 0.1
    }
    bias_filler {
      type: "constant"
    }
  }
}
layer {
  name: "ip3"
  type: "InnerProduct"
  bottom: "ip2"
  top: "ip3"
  param {
    lr_mult: 1
  }
  param {
    lr_mult: 2
  }
  inner_product_param {
    num_output: 50
    weight_filler {
      type: "gaussian"
      std: 0.1
    }
    bias_filler {
      type: "constant"
    }
  }
}
layer {
  name: "loss"
  type: "SoftmaxWithLoss"
  bottom: "ip3"
  bottom: "label"
  top: "loss"
}
I0506 05:40:48.732997 13181 layer_factory.hpp:77] Creating layer parameters
I0506 05:40:48.733006 13181 net.cpp:94] Creating Layer parameters
I0506 05:40:48.733009 13181 net.cpp:409] parameters -> data
I0506 05:40:48.733016 13181 net.cpp:409] parameters -> label
I0506 05:40:48.733021 13181 hdf5_data_layer.cpp:79] Loading list of HDF5 filenames from: /home/purduethu/scratch/radon/d/deng106/CNNStatisticalModel/distributions/input/50_distributions_100_sample_size_train-distributions-path.txt
I0506 05:40:48.733039 13181 hdf5_data_layer.cpp:93] Number of HDF5 files: 1
I0506 05:40:48.891470 13181 hdf5.cpp:35] Datatype class: H5T_INTEGER
I0506 05:40:48.894609 13181 net.cpp:144] Setting up parameters
I0506 05:40:48.894637 13181 net.cpp:151] Top shape: 20 1 10 10 (2000)
I0506 05:40:48.894642 13181 net.cpp:151] Top shape: 20 (20)
I0506 05:40:48.894645 13181 net.cpp:159] Memory required for data: 8080
I0506 05:40:48.894651 13181 layer_factory.hpp:77] Creating layer conv1
I0506 05:40:48.894667 13181 net.cpp:94] Creating Layer conv1
I0506 05:40:48.894672 13181 net.cpp:435] conv1 <- data
I0506 05:40:48.894678 13181 net.cpp:409] conv1 -> conv1
I0506 05:40:48.896472 13181 net.cpp:144] Setting up conv1
I0506 05:40:48.896486 13181 net.cpp:151] Top shape: 20 64 10 10 (128000)
I0506 05:40:48.896489 13181 net.cpp:159] Memory required for data: 520080
I0506 05:40:48.896498 13181 layer_factory.hpp:77] Creating layer relu1
I0506 05:40:48.896505 13181 net.cpp:94] Creating Layer relu1
I0506 05:40:48.896509 13181 net.cpp:435] relu1 <- conv1
I0506 05:40:48.896513 13181 net.cpp:396] relu1 -> conv1 (in-place)
I0506 05:40:48.896522 13181 net.cpp:144] Setting up relu1
I0506 05:40:48.896525 13181 net.cpp:151] Top shape: 20 64 10 10 (128000)
I0506 05:40:48.896528 13181 net.cpp:159] Memory required for data: 1032080
I0506 05:40:48.896531 13181 layer_factory.hpp:77] Creating layer conv2
I0506 05:40:48.896539 13181 net.cpp:94] Creating Layer conv2
I0506 05:40:48.896543 13181 net.cpp:435] conv2 <- conv1
I0506 05:40:48.896546 13181 net.cpp:409] conv2 -> conv2
I0506 05:40:48.901918 13181 net.cpp:144] Setting up conv2
I0506 05:40:48.901933 13181 net.cpp:151] Top shape: 20 64 10 10 (128000)
I0506 05:40:48.901937 13181 net.cpp:159] Memory required for data: 1544080
I0506 05:40:48.901945 13181 layer_factory.hpp:77] Creating layer relu2
I0506 05:40:48.901952 13181 net.cpp:94] Creating Layer relu2
I0506 05:40:48.901955 13181 net.cpp:435] relu2 <- conv2
I0506 05:40:48.901960 13181 net.cpp:396] relu2 -> conv2 (in-place)
I0506 05:40:48.901968 13181 net.cpp:144] Setting up relu2
I0506 05:40:48.901971 13181 net.cpp:151] Top shape: 20 64 10 10 (128000)
I0506 05:40:48.901974 13181 net.cpp:159] Memory required for data: 2056080
I0506 05:40:48.901978 13181 layer_factory.hpp:77] Creating layer pool2
I0506 05:40:48.901983 13181 net.cpp:94] Creating Layer pool2
I0506 05:40:48.901986 13181 net.cpp:435] pool2 <- conv2
I0506 05:40:48.901990 13181 net.cpp:409] pool2 -> pool2
I0506 05:40:48.902046 13181 net.cpp:144] Setting up pool2
I0506 05:40:48.902053 13181 net.cpp:151] Top shape: 20 64 5 5 (32000)
I0506 05:40:48.902056 13181 net.cpp:159] Memory required for data: 2184080
I0506 05:40:48.902060 13181 layer_factory.hpp:77] Creating layer conv3
I0506 05:40:48.902068 13181 net.cpp:94] Creating Layer conv3
I0506 05:40:48.902071 13181 net.cpp:435] conv3 <- pool2
I0506 05:40:48.902076 13181 net.cpp:409] conv3 -> conv3
I0506 05:40:48.910722 13181 net.cpp:144] Setting up conv3
I0506 05:40:48.910737 13181 net.cpp:151] Top shape: 20 128 5 5 (64000)
I0506 05:40:48.910742 13181 net.cpp:159] Memory required for data: 2440080
I0506 05:40:48.910750 13181 layer_factory.hpp:77] Creating layer relu3
I0506 05:40:48.910756 13181 net.cpp:94] Creating Layer relu3
I0506 05:40:48.910760 13181 net.cpp:435] relu3 <- conv3
I0506 05:40:48.910764 13181 net.cpp:396] relu3 -> conv3 (in-place)
I0506 05:40:48.910778 13181 net.cpp:144] Setting up relu3
I0506 05:40:48.910784 13181 net.cpp:151] Top shape: 20 128 5 5 (64000)
I0506 05:40:48.910786 13181 net.cpp:159] Memory required for data: 2696080
I0506 05:40:48.910789 13181 layer_factory.hpp:77] Creating layer conv4
I0506 05:40:48.910797 13181 net.cpp:94] Creating Layer conv4
I0506 05:40:48.910801 13181 net.cpp:435] conv4 <- conv3
I0506 05:40:48.910806 13181 net.cpp:409] conv4 -> conv4
I0506 05:40:48.925626 13181 net.cpp:144] Setting up conv4
I0506 05:40:48.925643 13181 net.cpp:151] Top shape: 20 128 5 5 (64000)
I0506 05:40:48.925647 13181 net.cpp:159] Memory required for data: 2952080
I0506 05:40:48.925653 13181 layer_factory.hpp:77] Creating layer relu4
I0506 05:40:48.925660 13181 net.cpp:94] Creating Layer relu4
I0506 05:40:48.925664 13181 net.cpp:435] relu4 <- conv4
I0506 05:40:48.925669 13181 net.cpp:396] relu4 -> conv4 (in-place)
I0506 05:40:48.925676 13181 net.cpp:144] Setting up relu4
I0506 05:40:48.925680 13181 net.cpp:151] Top shape: 20 128 5 5 (64000)
I0506 05:40:48.925683 13181 net.cpp:159] Memory required for data: 3208080
I0506 05:40:48.925686 13181 layer_factory.hpp:77] Creating layer conv5
I0506 05:40:48.925694 13181 net.cpp:94] Creating Layer conv5
I0506 05:40:48.925698 13181 net.cpp:435] conv5 <- conv4
I0506 05:40:48.925703 13181 net.cpp:409] conv5 -> conv5
I0506 05:40:48.940767 13181 net.cpp:144] Setting up conv5
I0506 05:40:48.940783 13181 net.cpp:151] Top shape: 20 128 5 5 (64000)
I0506 05:40:48.940788 13181 net.cpp:159] Memory required for data: 3464080
I0506 05:40:48.940796 13181 layer_factory.hpp:77] Creating layer relu5
I0506 05:40:48.940804 13181 net.cpp:94] Creating Layer relu5
I0506 05:40:48.940807 13181 net.cpp:435] relu5 <- conv5
I0506 05:40:48.940812 13181 net.cpp:396] relu5 -> conv5 (in-place)
I0506 05:40:48.940819 13181 net.cpp:144] Setting up relu5
I0506 05:40:48.940824 13181 net.cpp:151] Top shape: 20 128 5 5 (64000)
I0506 05:40:48.940826 13181 net.cpp:159] Memory required for data: 3720080
I0506 05:40:48.940829 13181 layer_factory.hpp:77] Creating layer pool5
I0506 05:40:48.940835 13181 net.cpp:94] Creating Layer pool5
I0506 05:40:48.940838 13181 net.cpp:435] pool5 <- conv5
I0506 05:40:48.940842 13181 net.cpp:409] pool5 -> pool5
I0506 05:40:48.940882 13181 net.cpp:144] Setting up pool5
I0506 05:40:48.940891 13181 net.cpp:151] Top shape: 20 128 2 2 (10240)
I0506 05:40:48.940893 13181 net.cpp:159] Memory required for data: 3761040
I0506 05:40:48.940896 13181 layer_factory.hpp:77] Creating layer ip1
I0506 05:40:48.940903 13181 net.cpp:94] Creating Layer ip1
I0506 05:40:48.940907 13181 net.cpp:435] ip1 <- pool5
I0506 05:40:48.940912 13181 net.cpp:409] ip1 -> ip1
I0506 05:40:48.954047 13181 net.cpp:144] Setting up ip1
I0506 05:40:48.954064 13181 net.cpp:151] Top shape: 20 1024 (20480)
I0506 05:40:48.954068 13181 net.cpp:159] Memory required for data: 3842960
I0506 05:40:48.954075 13181 layer_factory.hpp:77] Creating layer ip2
I0506 05:40:48.954082 13181 net.cpp:94] Creating Layer ip2
I0506 05:40:48.954087 13181 net.cpp:435] ip2 <- ip1
I0506 05:40:48.954092 13181 net.cpp:409] ip2 -> ip2
I0506 05:40:48.967208 13181 net.cpp:144] Setting up ip2
I0506 05:40:48.967224 13181 net.cpp:151] Top shape: 20 512 (10240)
I0506 05:40:48.967228 13181 net.cpp:159] Memory required for data: 3883920
I0506 05:40:48.967234 13181 layer_factory.hpp:77] Creating layer ip3
I0506 05:40:48.967242 13181 net.cpp:94] Creating Layer ip3
I0506 05:40:48.967245 13181 net.cpp:435] ip3 <- ip2
I0506 05:40:48.967250 13181 net.cpp:409] ip3 -> ip3
I0506 05:40:48.968884 13181 net.cpp:144] Setting up ip3
I0506 05:40:48.968897 13181 net.cpp:151] Top shape: 20 50 (1000)
I0506 05:40:48.968901 13181 net.cpp:159] Memory required for data: 3887920
I0506 05:40:48.968907 13181 layer_factory.hpp:77] Creating layer loss
I0506 05:40:48.968915 13181 net.cpp:94] Creating Layer loss
I0506 05:40:48.968919 13181 net.cpp:435] loss <- ip3
I0506 05:40:48.968922 13181 net.cpp:435] loss <- label
I0506 05:40:48.968926 13181 net.cpp:409] loss -> loss
I0506 05:40:48.968935 13181 layer_factory.hpp:77] Creating layer loss
…
I0506 05:40:48.969461 13181 solver.cpp:181] Creating test net (#0) specified by net file: ./protocol/dis_50_100_dimension.protocol_distribution
I0506 05:40:48.969487 13181 net.cpp:323] The NetState phase (1) differed from the phase (0) specified by a rule in layer parameters
I0506 05:40:48.969578 13181 net.cpp:52] Initializing net from parameters: 
state {
  phase: TEST
}
layer {
  name: "intercept"
  type: "HDF5Data"
  top: "data"
  top: "label"
  include {
    phase: TEST
  }
  hdf5_data_param {
    source: "/home/purduethu/scratch/radon/d/deng106/CNNStatisticalModel/distributions/input/50_distributions_100_sample_size_test-distributions-path.txt"
    batch_size: 20
  }
}
layer {
  name: "conv1"
  type: "Convolution"
  bottom: "data"
  top: "conv1"
  param {
    lr_mult: 1
  }
  param {
    lr_mult: 2
  }
  convolution_param {
    num_output: 64
    pad: 2
    kernel_size: 5
    stride: 1
    weight_filler {
      type: "gaussian"
      std: 0.0001
    }
    bias_filler {
      type: "constant"
    }
  }
}
layer {
  name: "relu1"
  type: "ReLU"
  bottom: "conv1"
  top: "conv1"
}
layer {
  name: "conv2"
  type: "Convolution"
  bottom: "conv1"
  top: "conv2"
  param {
    lr_mult: 1
  }
  param {
    lr_mult: 2
  }
  convolution_param {
    num_output: 64
    pad: 2
    kernel_size: 5
    stride: 1
    weight_filler {
      type: "gaussian"
      std: 0.01
    }
    bias_filler {
      type: "constant"
    }
  }
}
layer {
  name: "relu2"
  type: "ReLU"
  bottom: "conv2"
  top: "conv2"
}
layer {
  name: "pool2"
  type: "Pooling"
  bottom: "conv2"
  top: "pool2"
  pooling_param {
    pool: MAX
    kernel_size: 3
    stride: 2
  }
}
layer {
  name: "conv3"
  type: "Convolution"
  bottom: "pool2"
  top: "conv3"
  param {
    lr_mult: 1
  }
  param {
    lr_mult: 2
  }
  convolution_param {
    num_output: 128
    pad: 2
    kernel_size: 5
    stride: 1
    weight_filler {
      type: "gaussian"
      std: 0.01
    }
    bias_filler {
      type: "constant"
    }
  }
}
layer {
  name: "relu3"
  type: "ReLU"
  bottom: "conv3"
  top: "conv3"
}
layer {
  name: "conv4"
  type: "Convolution"
  bottom: "conv3"
  top: "conv4"
  param {
    lr_mult: 1
  }
  param {
    lr_mult: 2
  }
  convolution_param {
    num_output: 128
    pad: 2
    kernel_size: 5
    stride: 1
    weight_filler {
      type: "gaussian"
      std: 0.01
    }
    bias_filler {
      type: "constant"
    }
  }
}
layer {
  name: "relu4"
  type: "ReLU"
  bottom: "conv4"
  top: "conv4"
}
layer {
  name: "conv5"
  type: "Convolution"
  bottom: "conv4"
  top: "conv5"
  param {
    lr_mult: 1
  }
  param {
    lr_mult: 2
  }
  convolution_param {
    num_output: 128
    pad: 2
    kernel_size: 5
    stride: 1
    weight_filler {
      type: "gaussian"
      std: 0.01
    }
    bias_filler {
      type: "constant"
    }
  }
}
layer {
  name: "relu5"
  type: "ReLU"
  bottom: "conv5"
  top: "conv5"
}
layer {
  name: "pool5"
  type: "Pooling"
  bottom: "conv5"
  top: "pool5"
  pooling_param {
    pool: AVE
    kernel_size: 3
    stride: 2
  }
}
layer {
  name: "ip1"
  type: "InnerProduct"
  bottom: "pool5"
  top: "ip1"
  param {
    lr_mult: 1
  }
  param {
    lr_mult: 2
  }
  inner_product_param {
    num_output: 1024
    weight_filler {
      type: "gaussian"
      std: 0.1
    }
    bias_filler {
      type: "constant"
    }
  }
}
layer {
  name: "ip2"
  type: "InnerProduct"
  bottom: "ip1"
  top: "ip2"
  param {
    lr_mult: 1
  }
  param {
    lr_mult: 2
  }
  inner_product_param {
    num_output: 512
    weight_filler {
      type: "gaussian"
      std: 0.1
    }
    bias_filler {
      type: "constant"
    }
  }
}
layer {
  name: "ip3"
  type: "InnerProduct"
  bottom: "ip2"
  top: "ip3"
  param {
    lr_mult: 1
  }
  param {
    lr_mult: 2
  }
  inner_product_param {
    num_output: 50
    weight_filler {
      type: "gaussian"
      std: 0.1
    }
    bias_filler {
      type: "constant"
    }
  }
}
layer {
  name: "accuracy"
  type: "Accuracy"
  bottom: "ip3"
  bottom: "label"
  top: "accuracy"
  include {
    phase: TEST
  }
}
layer {
  name: "loss"
  type: "SoftmaxWithLoss"
  bottom: "ip3"
  bottom: "label"
  top: "loss"
}
I0506 05:40:48.969641 13181 layer_factory.hpp:77] Creating layer intercept
I0506 05:40:48.969650 13181 net.cpp:94] Creating Layer intercept
I0506 05:40:48.969653 13181 net.cpp:409] intercept -> data
I0506 05:40:48.969660 13181 net.cpp:409] intercept -> label
I0506 05:40:48.969666 13181 hdf5_data_layer.cpp:79] Loading list of HDF5 filenames from: /home/purduethu/scratch/radon/d/deng106/CNNStatisticalModel/distributions/input/50_distributions_100_sample_size_test-distributions-path.txt
I0506 05:40:48.969684 13181 hdf5_data_layer.cpp:93] Number of HDF5 files: 1
I0506 05:40:49.011423 13181 net.cpp:144] Setting up intercept
I0506 05:40:49.011456 13181 net.cpp:151] Top shape: 20 1 10 10 (2000)
I0506 05:40:49.011461 13181 net.cpp:151] Top shape: 20 (20)
I0506 05:40:49.011466 13181 net.cpp:159] Memory required for data: 8080
I0506 05:40:49.011471 13181 layer_factory.hpp:77] Creating layer label_intercept_1_split
I0506 05:40:49.011489 13181 net.cpp:94] Creating Layer label_intercept_1_split
I0506 05:40:49.011494 13181 net.cpp:435] label_intercept_1_split <- label
I0506 05:40:49.011500 13181 net.cpp:409] label_intercept_1_split -> label_intercept_1_split_0
I0506 05:40:49.011508 13181 net.cpp:409] label_intercept_1_split -> label_intercept_1_split_1
I0506 05:40:49.011553 13181 net.cpp:144] Setting up label_intercept_1_split
I0506 05:40:49.011559 13181 net.cpp:151] Top shape: 20 (20)
I0506 05:40:49.011562 13181 net.cpp:151] Top shape: 20 (20)
I0506 05:40:49.011565 13181 net.cpp:159] Memory required for data: 8240
I0506 05:40:49.011569 13181 layer_factory.hpp:77] Creating layer conv1
I0506 05:40:49.011579 13181 net.cpp:94] Creating Layer conv1
I0506 05:40:49.011582 13181 net.cpp:435] conv1 <- data
I0506 05:40:49.011586 13181 net.cpp:409] conv1 -> conv1
I0506 05:40:49.012447 13181 net.cpp:144] Setting up conv1
I0506 05:40:49.012461 13181 net.cpp:151] Top shape: 20 64 10 10 (128000)
I0506 05:40:49.012465 13181 net.cpp:159] Memory required for data: 520240
I0506 05:40:49.012475 13181 layer_factory.hpp:77] Creating layer relu1
I0506 05:40:49.012481 13181 net.cpp:94] Creating Layer relu1
I0506 05:40:49.012485 13181 net.cpp:435] relu1 <- conv1
I0506 05:40:49.012490 13181 net.cpp:396] relu1 -> conv1 (in-place)
I0506 05:40:49.012496 13181 net.cpp:144] Setting up relu1
I0506 05:40:49.012501 13181 net.cpp:151] Top shape: 20 64 10 10 (128000)
I0506 05:40:49.012511 13181 net.cpp:159] Memory required for data: 1032240
I0506 05:40:49.012516 13181 layer_factory.hpp:77] Creating layer conv2
I0506 05:40:49.012523 13181 net.cpp:94] Creating Layer conv2
I0506 05:40:49.012526 13181 net.cpp:435] conv2 <- conv1
I0506 05:40:49.012531 13181 net.cpp:409] conv2 -> conv2
I0506 05:40:49.016639 13181 net.cpp:144] Setting up conv2
I0506 05:40:49.016654 13181 net.cpp:151] Top shape: 20 64 10 10 (128000)
I0506 05:40:49.016657 13181 net.cpp:159] Memory required for data: 1544240
I0506 05:40:49.016666 13181 layer_factory.hpp:77] Creating layer relu2
I0506 05:40:49.016672 13181 net.cpp:94] Creating Layer relu2
I0506 05:40:49.016676 13181 net.cpp:435] relu2 <- conv2
I0506 05:40:49.016680 13181 net.cpp:396] relu2 -> conv2 (in-place)
I0506 05:40:49.016687 13181 net.cpp:144] Setting up relu2
I0506 05:40:49.016695 13181 net.cpp:151] Top shape: 20 64 10 10 (128000)
I0506 05:40:49.016697 13181 net.cpp:159] Memory required for data: 2056240
I0506 05:40:49.016700 13181 layer_factory.hpp:77] Creating layer pool2
I0506 05:40:49.016706 13181 net.cpp:94] Creating Layer pool2
I0506 05:40:49.016710 13181 net.cpp:435] pool2 <- conv2
I0506 05:40:49.016713 13181 net.cpp:409] pool2 -> pool2
I0506 05:40:49.016775 13181 net.cpp:144] Setting up pool2
I0506 05:40:49.016782 13181 net.cpp:151] Top shape: 20 64 5 5 (32000)
I0506 05:40:49.016785 13181 net.cpp:159] Memory required for data: 2184240
I0506 05:40:49.016789 13181 layer_factory.hpp:77] Creating layer conv3
I0506 05:40:49.016798 13181 net.cpp:94] Creating Layer conv3
I0506 05:40:49.016801 13181 net.cpp:435] conv3 <- pool2
I0506 05:40:49.016806 13181 net.cpp:409] conv3 -> conv3
I0506 05:40:49.022812 13181 net.cpp:144] Setting up conv3
I0506 05:40:49.022826 13181 net.cpp:151] Top shape: 20 128 5 5 (64000)
I0506 05:40:49.022830 13181 net.cpp:159] Memory required for data: 2440240
I0506 05:40:49.022838 13181 layer_factory.hpp:77] Creating layer relu3
I0506 05:40:49.022845 13181 net.cpp:94] Creating Layer relu3
I0506 05:40:49.022848 13181 net.cpp:435] relu3 <- conv3
I0506 05:40:49.022855 13181 net.cpp:396] relu3 -> conv3 (in-place)
I0506 05:40:49.022861 13181 net.cpp:144] Setting up relu3
I0506 05:40:49.022866 13181 net.cpp:151] Top shape: 20 128 5 5 (64000)
I0506 05:40:49.022868 13181 net.cpp:159] Memory required for data: 2696240
I0506 05:40:49.022871 13181 layer_factory.hpp:77] Creating layer conv4
I0506 05:40:49.022879 13181 net.cpp:94] Creating Layer conv4
I0506 05:40:49.022882 13181 net.cpp:435] conv4 <- conv3
I0506 05:40:49.022888 13181 net.cpp:409] conv4 -> conv4
I0506 05:40:49.035588 13181 net.cpp:144] Setting up conv4
I0506 05:40:49.035624 13181 net.cpp:151] Top shape: 20 128 5 5 (64000)
I0506 05:40:49.035634 13181 net.cpp:159] Memory required for data: 2952240
I0506 05:40:49.035651 13181 layer_factory.hpp:77] Creating layer relu4
I0506 05:40:49.035667 13181 net.cpp:94] Creating Layer relu4
I0506 05:40:49.035677 13181 net.cpp:435] relu4 <- conv4
I0506 05:40:49.035693 13181 net.cpp:396] relu4 -> conv4 (in-place)
I0506 05:40:49.035713 13181 net.cpp:144] Setting up relu4
I0506 05:40:49.035725 13181 net.cpp:151] Top shape: 20 128 5 5 (64000)
I0506 05:40:49.035742 13181 net.cpp:159] Memory required for data: 3208240
I0506 05:40:49.035745 13181 layer_factory.hpp:77] Creating layer conv5
I0506 05:40:49.035754 13181 net.cpp:94] Creating Layer conv5
I0506 05:40:49.035758 13181 net.cpp:435] conv5 <- conv4
I0506 05:40:49.035763 13181 net.cpp:409] conv5 -> conv5
I0506 05:40:49.048344 13181 net.cpp:144] Setting up conv5
I0506 05:40:49.048360 13181 net.cpp:151] Top shape: 20 128 5 5 (64000)
I0506 05:40:49.048364 13181 net.cpp:159] Memory required for data: 3464240
I0506 05:40:49.048374 13181 layer_factory.hpp:77] Creating layer relu5
I0506 05:40:49.048380 13181 net.cpp:94] Creating Layer relu5
I0506 05:40:49.048384 13181 net.cpp:435] relu5 <- conv5
I0506 05:40:49.048389 13181 net.cpp:396] relu5 -> conv5 (in-place)
I0506 05:40:49.048396 13181 net.cpp:144] Setting up relu5
I0506 05:40:49.048401 13181 net.cpp:151] Top shape: 20 128 5 5 (64000)
I0506 05:40:49.048409 13181 net.cpp:159] Memory required for data: 3720240
I0506 05:40:49.048413 13181 layer_factory.hpp:77] Creating layer pool5
I0506 05:40:49.048419 13181 net.cpp:94] Creating Layer pool5
I0506 05:40:49.048422 13181 net.cpp:435] pool5 <- conv5
I0506 05:40:49.048427 13181 net.cpp:409] pool5 -> pool5
I0506 05:40:49.048470 13181 net.cpp:144] Setting up pool5
I0506 05:40:49.048477 13181 net.cpp:151] Top shape: 20 128 2 2 (10240)
I0506 05:40:49.048480 13181 net.cpp:159] Memory required for data: 3761200
I0506 05:40:49.048483 13181 layer_factory.hpp:77] Creating layer ip1
I0506 05:40:49.048491 13181 net.cpp:94] Creating Layer ip1
I0506 05:40:49.048494 13181 net.cpp:435] ip1 <- pool5
I0506 05:40:49.048499 13181 net.cpp:409] ip1 -> ip1
I0506 05:40:49.063182 13181 net.cpp:144] Setting up ip1
I0506 05:40:49.063200 13181 net.cpp:151] Top shape: 20 1024 (20480)
I0506 05:40:49.063204 13181 net.cpp:159] Memory required for data: 3843120
I0506 05:40:49.063210 13181 layer_factory.hpp:77] Creating layer ip2
I0506 05:40:49.063218 13181 net.cpp:94] Creating Layer ip2
I0506 05:40:49.063221 13181 net.cpp:435] ip2 <- ip1
I0506 05:40:49.063226 13181 net.cpp:409] ip2 -> ip2
I0506 05:40:49.076365 13181 net.cpp:144] Setting up ip2
I0506 05:40:49.076381 13181 net.cpp:151] Top shape: 20 512 (10240)
I0506 05:40:49.076385 13181 net.cpp:159] Memory required for data: 3884080
I0506 05:40:49.076391 13181 layer_factory.hpp:77] Creating layer ip3
I0506 05:40:49.076401 13181 net.cpp:94] Creating Layer ip3
I0506 05:40:49.076406 13181 net.cpp:435] ip3 <- ip2
I0506 05:40:49.076413 13181 net.cpp:409] ip3 -> ip3
I0506 05:40:49.077193 13181 net.cpp:144] Setting up ip3
I0506 05:40:49.077203 13181 net.cpp:151] Top shape: 20 50 (1000)
I0506 05:40:49.077205 13181 net.cpp:159] Memory required for data: 3888080
I0506 05:40:49.077210 13181 layer_factory.hpp:77] Creating layer ip3_ip3_0_split
I0506 05:40:49.077217 13181 net.cpp:94] Creating Layer ip3_ip3_0_split
I0506 05:40:49.077220 13181 net.cpp:435] ip3_ip3_0_split <- ip3
I0506 05:40:49.077225 13181 net.cpp:409] ip3_ip3_0_split -> ip3_ip3_0_split_0
I0506 05:40:49.077230 13181 net.cpp:409] ip3_ip3_0_split -> ip3_ip3_0_split_1
I0506 05:40:49.077276 13181 net.cpp:144] Setting up ip3_ip3_0_split
I0506 05:40:49.077283 13181 net.cpp:151] Top shape: 20 50 (1000)
I0506 05:40:49.077286 13181 net.cpp:151] Top shape: 20 50 (1000)
I0506 05:40:49.077289 13181 net.cpp:159] Memory required for data: 3896080
I0506 05:40:49.077292 13181 layer_factory.hpp:77] Creating layer accuracy
I0506 05:40:49.077299 13181 net.cpp:94] Creating Layer accuracy
I0506 05:40:49.077302 13181 net.cpp:435] accuracy <- ip3_ip3_0_split_0
I0506 05:40:49.077306 13181 net.cpp:435] accuracy <- label_intercept_1_split_0
I0506 05:40:49.077311 13181 net.cpp:409] accuracy -> accuracy
…
