…
I0504 10:50:35.264983 26246 net.cpp:323] The NetState phase (0) differed from the phase (1) specified by a rule in layer intercept
I0504 10:50:35.265000 26246 net.cpp:323] The NetState phase (0) differed from the phase (1) specified by a rule in layer loss
I0504 10:50:35.265081 26246 net.cpp:52] Initializing net from parameters: 
state {
  phase: TRAIN
}
layer {
  name: "parameters"
  type: "HDF5Data"
  top: "data"
  top: "label"
  include {
    phase: TRAIN
  }
  hdf5_data_param {
    source: "/home/purduethu/scratch/radon/d/deng106/CNNStatisticalModel/distributions/input/5_distributions_400_sample_size_train-parameters-path.txt"
    batch_size: 20
  }
}
layer {
  name: "conv1"
  type: "Convolution"
  bottom: "data"
  top: "conv1"
  param {
    lr_mult: 1
  }
  param {
    lr_mult: 2
  }
  convolution_param {
    num_output: 64
    pad: 2
    kernel_size: 5
    stride: 1
    weight_filler {
      type: "gaussian"
      std: 0.0001
    }
    bias_filler {
      type: "constant"
    }
  }
}
layer {
  name: "relu1"
  type: "ReLU"
  bottom: "conv1"
  top: "conv1"
}
layer {
  name: "conv2"
  type: "Convolution"
  bottom: "conv1"
  top: "conv2"
  param {
    lr_mult: 1
  }
  param {
    lr_mult: 2
  }
  convolution_param {
    num_output: 64
    pad: 2
    kernel_size: 5
    stride: 1
    weight_filler {
      type: "gaussian"
      std: 0.01
    }
    bias_filler {
      type: "constant"
    }
  }
}
layer {
  name: "relu2"
  type: "ReLU"
  bottom: "conv2"
  top: "conv2"
}
layer {
  name: "pool2"
  type: "Pooling"
  bottom: "conv2"
  top: "pool2"
  pooling_param {
    pool: MAX
    kernel_size: 3
    stride: 2
  }
}
layer {
  name: "conv3"
  type: "Convolution"
  bottom: "pool2"
  top: "conv3"
  param {
    lr_mult: 1
  }
  param {
    lr_mult: 2
  }
  convolution_param {
    num_output: 128
    pad: 2
    kernel_size: 5
    stride: 1
    weight_filler {
      type: "gaussian"
      std: 0.01
    }
    bias_filler {
      type: "constant"
    }
  }
}
layer {
  name: "relu3"
  type: "ReLU"
  bottom: "conv3"
  top: "conv3"
}
layer {
  name: "conv4"
  type: "Convolution"
  bottom: "conv3"
  top: "conv4"
  param {
    lr_mult: 1
  }
  param {
    lr_mult: 2
  }
  convolution_param {
    num_output: 128
    pad: 2
    kernel_size: 5
    stride: 1
    weight_filler {
      type: "gaussian"
      std: 0.01
    }
    bias_filler {
      type: "constant"
    }
  }
}
layer {
  name: "relu4"
  type: "ReLU"
  bottom: "conv4"
  top: "conv4"
}
layer {
  name: "conv5"
  type: "Convolution"
  bottom: "conv4"
  top: "conv5"
  param {
    lr_mult: 1
  }
  param {
    lr_mult: 2
  }
  convolution_param {
    num_output: 128
    pad: 2
    kernel_size: 5
    stride: 1
    weight_filler {
      type: "gaussian"
      std: 0.01
    }
    bias_filler {
      type: "constant"
    }
  }
}
layer {
  name: "relu5"
  type: "ReLU"
  bottom: "conv5"
  top: "conv5"
}
layer {
  name: "pool5"
  type: "Pooling"
  bottom: "conv5"
  top: "pool5"
  pooling_param {
    pool: AVE
    kernel_size: 3
    stride: 2
  }
}
layer {
  name: "ip1"
  type: "InnerProduct"
  bottom: "pool5"
  top: "ip1"
  param {
    lr_mult: 1
  }
  param {
    lr_mult: 2
  }
  inner_product_param {
    num_output: 1024
    weight_filler {
      type: "gaussian"
      std: 0.1
    }
    bias_filler {
      type: "constant"
    }
  }
}
layer {
  name: "ip2"
  type: "InnerProduct"
  bottom: "ip1"
  top: "ip2"
  param {
    lr_mult: 1
  }
  param {
    lr_mult: 2
  }
  inner_product_param {
    num_output: 512
    weight_filler {
      type: "gaussian"
      std: 0.1
    }
    bias_filler {
      type: "constant"
    }
  }
}
layer {
  name: "ip3"
  type: "InnerProduct"
  bottom: "ip2"
  top: "ip3"
  param {
    lr_mult: 1
  }
  param {
    lr_mult: 2
  }
  inner_product_param {
    num_output: 1
    weight_filler {
      type: "gaussian"
      std: 0.1
    }
    bias_filler {
      type: "constant"
    }
  }
}
layer {
  name: "loss"
  type: "HuberLoss"
  bottom: "ip3"
  bottom: "label"
  top: "loss"
  include {
    phase: TRAIN
  }
}
I0504 10:50:35.265139 26246 layer_factory.hpp:77] Creating layer parameters
I0504 10:50:35.265156 26246 net.cpp:94] Creating Layer parameters
I0504 10:50:35.265161 26246 net.cpp:409] parameters -> data
I0504 10:50:35.265174 26246 net.cpp:409] parameters -> label
I0504 10:50:35.265182 26246 hdf5_data_layer.cpp:79] Loading list of HDF5 filenames from: /home/purduethu/scratch/radon/d/deng106/CNNStatisticalModel/distributions/input/5_distributions_400_sample_size_train-parameters-path.txt
I0504 10:50:35.265198 26246 hdf5_data_layer.cpp:93] Number of HDF5 files: 1
I0504 10:50:35.265770 26246 hdf5.cpp:32] Datatype class: H5T_FLOAT
I0504 10:50:35.333134 26246 net.cpp:144] Setting up parameters
I0504 10:50:35.333165 26246 net.cpp:151] Top shape: 20 1 20 20 (8000)
I0504 10:50:35.333170 26246 net.cpp:151] Top shape: 20 (20)
I0504 10:50:35.333174 26246 net.cpp:159] Memory required for data: 32080
I0504 10:50:35.333180 26246 layer_factory.hpp:77] Creating layer conv1
I0504 10:50:35.333196 26246 net.cpp:94] Creating Layer conv1
I0504 10:50:35.333200 26246 net.cpp:435] conv1 <- data
I0504 10:50:35.333206 26246 net.cpp:409] conv1 -> conv1
I0504 10:50:35.338568 26246 net.cpp:144] Setting up conv1
I0504 10:50:35.338583 26246 net.cpp:151] Top shape: 20 64 20 20 (512000)
I0504 10:50:35.338587 26246 net.cpp:159] Memory required for data: 2080080
I0504 10:50:35.338596 26246 layer_factory.hpp:77] Creating layer relu1
I0504 10:50:35.338604 26246 net.cpp:94] Creating Layer relu1
I0504 10:50:35.338608 26246 net.cpp:435] relu1 <- conv1
I0504 10:50:35.338613 26246 net.cpp:396] relu1 -> conv1 (in-place)
I0504 10:50:35.338620 26246 net.cpp:144] Setting up relu1
I0504 10:50:35.338624 26246 net.cpp:151] Top shape: 20 64 20 20 (512000)
I0504 10:50:35.338627 26246 net.cpp:159] Memory required for data: 4128080
I0504 10:50:35.338630 26246 layer_factory.hpp:77] Creating layer conv2
I0504 10:50:35.338639 26246 net.cpp:94] Creating Layer conv2
I0504 10:50:35.338641 26246 net.cpp:435] conv2 <- conv1
I0504 10:50:35.338646 26246 net.cpp:409] conv2 -> conv2
I0504 10:50:35.349123 26246 net.cpp:144] Setting up conv2
I0504 10:50:35.349141 26246 net.cpp:151] Top shape: 20 64 20 20 (512000)
I0504 10:50:35.349145 26246 net.cpp:159] Memory required for data: 6176080
I0504 10:50:35.349154 26246 layer_factory.hpp:77] Creating layer relu2
I0504 10:50:35.349161 26246 net.cpp:94] Creating Layer relu2
I0504 10:50:35.349164 26246 net.cpp:435] relu2 <- conv2
I0504 10:50:35.349169 26246 net.cpp:396] relu2 -> conv2 (in-place)
I0504 10:50:35.349176 26246 net.cpp:144] Setting up relu2
I0504 10:50:35.349180 26246 net.cpp:151] Top shape: 20 64 20 20 (512000)
I0504 10:50:35.349184 26246 net.cpp:159] Memory required for data: 8224080
I0504 10:50:35.349186 26246 layer_factory.hpp:77] Creating layer pool2
I0504 10:50:35.349192 26246 net.cpp:94] Creating Layer pool2
I0504 10:50:35.349200 26246 net.cpp:435] pool2 <- conv2
I0504 10:50:35.349205 26246 net.cpp:409] pool2 -> pool2
I0504 10:50:35.349259 26246 net.cpp:144] Setting up pool2
I0504 10:50:35.349267 26246 net.cpp:151] Top shape: 20 64 10 10 (128000)
I0504 10:50:35.349270 26246 net.cpp:159] Memory required for data: 8736080
I0504 10:50:35.349274 26246 layer_factory.hpp:77] Creating layer conv3
I0504 10:50:35.349282 26246 net.cpp:94] Creating Layer conv3
I0504 10:50:35.349287 26246 net.cpp:435] conv3 <- pool2
I0504 10:50:35.349290 26246 net.cpp:409] conv3 -> conv3
I0504 10:50:35.358955 26246 net.cpp:144] Setting up conv3
I0504 10:50:35.358971 26246 net.cpp:151] Top shape: 20 128 10 10 (256000)
I0504 10:50:35.358975 26246 net.cpp:159] Memory required for data: 9760080
I0504 10:50:35.358983 26246 layer_factory.hpp:77] Creating layer relu3
I0504 10:50:35.358989 26246 net.cpp:94] Creating Layer relu3
I0504 10:50:35.358994 26246 net.cpp:435] relu3 <- conv3
I0504 10:50:35.358999 26246 net.cpp:396] relu3 -> conv3 (in-place)
I0504 10:50:35.359005 26246 net.cpp:144] Setting up relu3
I0504 10:50:35.359009 26246 net.cpp:151] Top shape: 20 128 10 10 (256000)
I0504 10:50:35.359012 26246 net.cpp:159] Memory required for data: 10784080
I0504 10:50:35.359015 26246 layer_factory.hpp:77] Creating layer conv4
I0504 10:50:35.359024 26246 net.cpp:94] Creating Layer conv4
I0504 10:50:35.359027 26246 net.cpp:435] conv4 <- conv3
I0504 10:50:35.359031 26246 net.cpp:409] conv4 -> conv4
I0504 10:50:35.377920 26246 net.cpp:144] Setting up conv4
I0504 10:50:35.377938 26246 net.cpp:151] Top shape: 20 128 10 10 (256000)
I0504 10:50:35.377943 26246 net.cpp:159] Memory required for data: 11808080
I0504 10:50:35.377949 26246 layer_factory.hpp:77] Creating layer relu4
I0504 10:50:35.377955 26246 net.cpp:94] Creating Layer relu4
I0504 10:50:35.377959 26246 net.cpp:435] relu4 <- conv4
I0504 10:50:35.377964 26246 net.cpp:396] relu4 -> conv4 (in-place)
I0504 10:50:35.377972 26246 net.cpp:144] Setting up relu4
I0504 10:50:35.377976 26246 net.cpp:151] Top shape: 20 128 10 10 (256000)
I0504 10:50:35.377979 26246 net.cpp:159] Memory required for data: 12832080
I0504 10:50:35.377982 26246 layer_factory.hpp:77] Creating layer conv5
I0504 10:50:35.377990 26246 net.cpp:94] Creating Layer conv5
I0504 10:50:35.377993 26246 net.cpp:435] conv5 <- conv4
I0504 10:50:35.377998 26246 net.cpp:409] conv5 -> conv5
I0504 10:50:35.397531 26246 net.cpp:144] Setting up conv5
I0504 10:50:35.397550 26246 net.cpp:151] Top shape: 20 128 10 10 (256000)
I0504 10:50:35.397554 26246 net.cpp:159] Memory required for data: 13856080
I0504 10:50:35.397564 26246 layer_factory.hpp:77] Creating layer relu5
I0504 10:50:35.397570 26246 net.cpp:94] Creating Layer relu5
I0504 10:50:35.397574 26246 net.cpp:435] relu5 <- conv5
I0504 10:50:35.397580 26246 net.cpp:396] relu5 -> conv5 (in-place)
I0504 10:50:35.397588 26246 net.cpp:144] Setting up relu5
I0504 10:50:35.397593 26246 net.cpp:151] Top shape: 20 128 10 10 (256000)
I0504 10:50:35.397595 26246 net.cpp:159] Memory required for data: 14880080
I0504 10:50:35.397598 26246 layer_factory.hpp:77] Creating layer pool5
I0504 10:50:35.397603 26246 net.cpp:94] Creating Layer pool5
I0504 10:50:35.397606 26246 net.cpp:435] pool5 <- conv5
I0504 10:50:35.397613 26246 net.cpp:409] pool5 -> pool5
I0504 10:50:35.397657 26246 net.cpp:144] Setting up pool5
I0504 10:50:35.397666 26246 net.cpp:151] Top shape: 20 128 5 5 (64000)
I0504 10:50:35.397670 26246 net.cpp:159] Memory required for data: 15136080
I0504 10:50:35.397672 26246 layer_factory.hpp:77] Creating layer ip1
I0504 10:50:35.397682 26246 net.cpp:94] Creating Layer ip1
I0504 10:50:35.397686 26246 net.cpp:435] ip1 <- pool5
I0504 10:50:35.397691 26246 net.cpp:409] ip1 -> ip1
I0504 10:50:35.481139 26246 net.cpp:144] Setting up ip1
I0504 10:50:35.481175 26246 net.cpp:151] Top shape: 20 1024 (20480)
I0504 10:50:35.481179 26246 net.cpp:159] Memory required for data: 15218000
I0504 10:50:35.481189 26246 layer_factory.hpp:77] Creating layer ip2
I0504 10:50:35.481201 26246 net.cpp:94] Creating Layer ip2
I0504 10:50:35.481214 26246 net.cpp:435] ip2 <- ip1
I0504 10:50:35.481220 26246 net.cpp:409] ip2 -> ip2
I0504 10:50:35.495030 26246 net.cpp:144] Setting up ip2
I0504 10:50:35.495051 26246 net.cpp:151] Top shape: 20 512 (10240)
I0504 10:50:35.495055 26246 net.cpp:159] Memory required for data: 15258960
I0504 10:50:35.495061 26246 layer_factory.hpp:77] Creating layer ip3
I0504 10:50:35.495069 26246 net.cpp:94] Creating Layer ip3
I0504 10:50:35.495074 26246 net.cpp:435] ip3 <- ip2
I0504 10:50:35.495079 26246 net.cpp:409] ip3 -> ip3
I0504 10:50:35.495205 26246 net.cpp:144] Setting up ip3
I0504 10:50:35.495214 26246 net.cpp:151] Top shape: 20 1 (20)
I0504 10:50:35.495218 26246 net.cpp:159] Memory required for data: 15259040
I0504 10:50:35.495223 26246 layer_factory.hpp:77] Creating layer loss
I0504 10:50:35.495237 26246 net.cpp:94] Creating Layer loss
I0504 10:50:35.495241 26246 net.cpp:435] loss <- ip3
I0504 10:50:35.495245 26246 net.cpp:435] loss <- label
I0504 10:50:35.495249 26246 net.cpp:409] loss -> loss
I0504 10:50:35.495306 26246 net.cpp:144] Setting up loss
…
I0504 10:50:35.654295 26246 net.cpp:323] The NetState phase (0) differed from the phase (1) specified by a rule in layer intercept
I0504 10:50:35.654311 26246 net.cpp:323] The NetState phase (0) differed from the phase (1) specified by a rule in layer accuracy
I0504 10:50:35.654402 26246 net.cpp:52] Initializing net from parameters: 
state {
  phase: TRAIN
}
layer {
  name: "parameters"
  type: "HDF5Data"
  top: "data"
  top: "label"
  include {
    phase: TRAIN
  }
  hdf5_data_param {
    source: "/home/purduethu/scratch/radon/d/deng106/CNNStatisticalModel/distributions/input/5_distributions_400_sample_size_train-distributions-path.txt"
    batch_size: 20
  }
}
layer {
  name: "conv1"
  type: "Convolution"
  bottom: "data"
  top: "conv1"
  param {
    lr_mult: 1
  }
  param {
    lr_mult: 2
  }
  convolution_param {
    num_output: 64
    pad: 2
    kernel_size: 5
    stride: 1
    weight_filler {
      type: "gaussian"
      std: 0.0001
    }
    bias_filler {
      type: "constant"
    }
  }
}
layer {
  name: "relu1"
  type: "ReLU"
  bottom: "conv1"
  top: "conv1"
}
layer {
  name: "conv2"
  type: "Convolution"
  bottom: "conv1"
  top: "conv2"
  param {
    lr_mult: 1
  }
  param {
    lr_mult: 2
  }
  convolution_param {
    num_output: 64
    pad: 2
    kernel_size: 5
    stride: 1
    weight_filler {
      type: "gaussian"
      std: 0.01
    }
    bias_filler {
      type: "constant"
    }
  }
}
layer {
  name: "relu2"
  type: "ReLU"
  bottom: "conv2"
  top: "conv2"
}
layer {
  name: "pool2"
  type: "Pooling"
  bottom: "conv2"
  top: "pool2"
  pooling_param {
    pool: MAX
    kernel_size: 3
    stride: 2
  }
}
layer {
  name: "conv3"
  type: "Convolution"
  bottom: "pool2"
  top: "conv3"
  param {
    lr_mult: 1
  }
  param {
    lr_mult: 2
  }
  convolution_param {
    num_output: 128
    pad: 2
    kernel_size: 5
    stride: 1
    weight_filler {
      type: "gaussian"
      std: 0.01
    }
    bias_filler {
      type: "constant"
    }
  }
}
layer {
  name: "relu3"
  type: "ReLU"
  bottom: "conv3"
  top: "conv3"
}
layer {
  name: "conv4"
  type: "Convolution"
  bottom: "conv3"
  top: "conv4"
  param {
    lr_mult: 1
  }
  param {
    lr_mult: 2
  }
  convolution_param {
    num_output: 128
    pad: 2
    kernel_size: 5
    stride: 1
    weight_filler {
      type: "gaussian"
      std: 0.01
    }
    bias_filler {
      type: "constant"
    }
  }
}
layer {
  name: "relu4"
  type: "ReLU"
  bottom: "conv4"
  top: "conv4"
}
layer {
  name: "conv5"
  type: "Convolution"
  bottom: "conv4"
  top: "conv5"
  param {
    lr_mult: 1
  }
  param {
    lr_mult: 2
  }
  convolution_param {
    num_output: 128
    pad: 2
    kernel_size: 5
    stride: 1
    weight_filler {
      type: "gaussian"
      std: 0.01
    }
    bias_filler {
      type: "constant"
    }
  }
}
layer {
  name: "relu5"
  type: "ReLU"
  bottom: "conv5"
  top: "conv5"
}
layer {
  name: "pool5"
  type: "Pooling"
  bottom: "conv5"
  top: "pool5"
  pooling_param {
    pool: AVE
    kernel_size: 3
    stride: 2
  }
}
layer {
  name: "ip1"
  type: "InnerProduct"
  bottom: "pool5"
  top: "ip1"
  param {
    lr_mult: 1
  }
  param {
    lr_mult: 2
  }
  inner_product_param {
    num_output: 1024
    weight_filler {
      type: "gaussian"
      std: 0.1
    }
    bias_filler {
      type: "constant"
    }
  }
}
layer {
  name: "ip2"
  type: "InnerProduct"
  bottom: "ip1"
  top: "ip2"
  param {
    lr_mult: 1
  }
  param {
    lr_mult: 2
  }
  inner_product_param {
    num_output: 512
    weight_filler {
      type: "gaussian"
      std: 0.1
    }
    bias_filler {
      type: "constant"
    }
  }
}
layer {
  name: "ip3"
  type: "InnerProduct"
  bottom: "ip2"
  top: "ip3"
  param {
    lr_mult: 1
  }
  param {
    lr_mult: 2
  }
  inner_product_param {
    num_output: 50
    weight_filler {
      type: "gaussian"
      std: 0.1
    }
    bias_filler {
      type: "constant"
    }
  }
}
layer {
  name: "loss"
  type: "SoftmaxWithLoss"
  bottom: "ip3"
  bottom: "label"
  top: "loss"
}
I0504 10:50:35.654456 26246 layer_factory.hpp:77] Creating layer parameters
I0504 10:50:35.654466 26246 net.cpp:94] Creating Layer parameters
I0504 10:50:35.654470 26246 net.cpp:409] parameters -> data
I0504 10:50:35.654476 26246 net.cpp:409] parameters -> label
I0504 10:50:35.654482 26246 hdf5_data_layer.cpp:79] Loading list of HDF5 filenames from: /home/purduethu/scratch/radon/d/deng106/CNNStatisticalModel/distributions/input/5_distributions_400_sample_size_train-distributions-path.txt
I0504 10:50:35.654500 26246 hdf5_data_layer.cpp:93] Number of HDF5 files: 1
I0504 10:50:35.722331 26246 hdf5.cpp:35] Datatype class: H5T_INTEGER
I0504 10:50:35.722805 26246 net.cpp:144] Setting up parameters
I0504 10:50:35.722820 26246 net.cpp:151] Top shape: 20 1 20 20 (8000)
I0504 10:50:35.722825 26246 net.cpp:151] Top shape: 20 (20)
I0504 10:50:35.722827 26246 net.cpp:159] Memory required for data: 32080
I0504 10:50:35.722833 26246 layer_factory.hpp:77] Creating layer conv1
I0504 10:50:35.722849 26246 net.cpp:94] Creating Layer conv1
I0504 10:50:35.722853 26246 net.cpp:435] conv1 <- data
I0504 10:50:35.722861 26246 net.cpp:409] conv1 -> conv1
I0504 10:50:35.725169 26246 net.cpp:144] Setting up conv1
I0504 10:50:35.725188 26246 net.cpp:151] Top shape: 20 64 20 20 (512000)
I0504 10:50:35.725191 26246 net.cpp:159] Memory required for data: 2080080
I0504 10:50:35.725203 26246 layer_factory.hpp:77] Creating layer relu1
I0504 10:50:35.725209 26246 net.cpp:94] Creating Layer relu1
I0504 10:50:35.725214 26246 net.cpp:435] relu1 <- conv1
I0504 10:50:35.725219 26246 net.cpp:396] relu1 -> conv1 (in-place)
I0504 10:50:35.725226 26246 net.cpp:144] Setting up relu1
I0504 10:50:35.725230 26246 net.cpp:151] Top shape: 20 64 20 20 (512000)
I0504 10:50:35.725234 26246 net.cpp:159] Memory required for data: 4128080
I0504 10:50:35.725236 26246 layer_factory.hpp:77] Creating layer conv2
I0504 10:50:35.725244 26246 net.cpp:94] Creating Layer conv2
I0504 10:50:35.725247 26246 net.cpp:435] conv2 <- conv1
I0504 10:50:35.725252 26246 net.cpp:409] conv2 -> conv2
I0504 10:50:35.737195 26246 net.cpp:144] Setting up conv2
I0504 10:50:35.737210 26246 net.cpp:151] Top shape: 20 64 20 20 (512000)
I0504 10:50:35.737215 26246 net.cpp:159] Memory required for data: 6176080
I0504 10:50:35.737222 26246 layer_factory.hpp:77] Creating layer relu2
I0504 10:50:35.737229 26246 net.cpp:94] Creating Layer relu2
I0504 10:50:35.737233 26246 net.cpp:435] relu2 <- conv2
I0504 10:50:35.737237 26246 net.cpp:396] relu2 -> conv2 (in-place)
I0504 10:50:35.737244 26246 net.cpp:144] Setting up relu2
I0504 10:50:35.737248 26246 net.cpp:151] Top shape: 20 64 20 20 (512000)
I0504 10:50:35.737251 26246 net.cpp:159] Memory required for data: 8224080
I0504 10:50:35.737254 26246 layer_factory.hpp:77] Creating layer pool2
I0504 10:50:35.737260 26246 net.cpp:94] Creating Layer pool2
I0504 10:50:35.737263 26246 net.cpp:435] pool2 <- conv2
I0504 10:50:35.737267 26246 net.cpp:409] pool2 -> pool2
I0504 10:50:35.737323 26246 net.cpp:144] Setting up pool2
I0504 10:50:35.737330 26246 net.cpp:151] Top shape: 20 64 10 10 (128000)
I0504 10:50:35.737334 26246 net.cpp:159] Memory required for data: 8736080
I0504 10:50:35.737336 26246 layer_factory.hpp:77] Creating layer conv3
I0504 10:50:35.737344 26246 net.cpp:94] Creating Layer conv3
I0504 10:50:35.737349 26246 net.cpp:435] conv3 <- pool2
I0504 10:50:35.737360 26246 net.cpp:409] conv3 -> conv3
I0504 10:50:35.747871 26246 net.cpp:144] Setting up conv3
I0504 10:50:35.747910 26246 net.cpp:151] Top shape: 20 128 10 10 (256000)
I0504 10:50:35.747928 26246 net.cpp:159] Memory required for data: 9760080
I0504 10:50:35.747937 26246 layer_factory.hpp:77] Creating layer relu3
I0504 10:50:35.747943 26246 net.cpp:94] Creating Layer relu3
I0504 10:50:35.747946 26246 net.cpp:435] relu3 <- conv3
I0504 10:50:35.747951 26246 net.cpp:396] relu3 -> conv3 (in-place)
I0504 10:50:35.747958 26246 net.cpp:144] Setting up relu3
I0504 10:50:35.747963 26246 net.cpp:151] Top shape: 20 128 10 10 (256000)
I0504 10:50:35.747967 26246 net.cpp:159] Memory required for data: 10784080
I0504 10:50:35.747969 26246 layer_factory.hpp:77] Creating layer conv4
I0504 10:50:35.747977 26246 net.cpp:94] Creating Layer conv4
I0504 10:50:35.747980 26246 net.cpp:435] conv4 <- conv3
I0504 10:50:35.747985 26246 net.cpp:409] conv4 -> conv4
I0504 10:50:35.766158 26246 net.cpp:144] Setting up conv4
I0504 10:50:35.766178 26246 net.cpp:151] Top shape: 20 128 10 10 (256000)
I0504 10:50:35.766182 26246 net.cpp:159] Memory required for data: 11808080
I0504 10:50:35.766191 26246 layer_factory.hpp:77] Creating layer relu4
I0504 10:50:35.766197 26246 net.cpp:94] Creating Layer relu4
I0504 10:50:35.766201 26246 net.cpp:435] relu4 <- conv4
I0504 10:50:35.766206 26246 net.cpp:396] relu4 -> conv4 (in-place)
I0504 10:50:35.766212 26246 net.cpp:144] Setting up relu4
I0504 10:50:35.766217 26246 net.cpp:151] Top shape: 20 128 10 10 (256000)
I0504 10:50:35.766221 26246 net.cpp:159] Memory required for data: 12832080
I0504 10:50:35.766223 26246 layer_factory.hpp:77] Creating layer conv5
I0504 10:50:35.766232 26246 net.cpp:94] Creating Layer conv5
I0504 10:50:35.766234 26246 net.cpp:435] conv5 <- conv4
I0504 10:50:35.766239 26246 net.cpp:409] conv5 -> conv5
I0504 10:50:35.784139 26246 net.cpp:144] Setting up conv5
I0504 10:50:35.784159 26246 net.cpp:151] Top shape: 20 128 10 10 (256000)
I0504 10:50:35.784163 26246 net.cpp:159] Memory required for data: 13856080
I0504 10:50:35.784173 26246 layer_factory.hpp:77] Creating layer relu5
I0504 10:50:35.784179 26246 net.cpp:94] Creating Layer relu5
I0504 10:50:35.784183 26246 net.cpp:435] relu5 <- conv5
I0504 10:50:35.784189 26246 net.cpp:396] relu5 -> conv5 (in-place)
I0504 10:50:35.784198 26246 net.cpp:144] Setting up relu5
I0504 10:50:35.784201 26246 net.cpp:151] Top shape: 20 128 10 10 (256000)
I0504 10:50:35.784204 26246 net.cpp:159] Memory required for data: 14880080
I0504 10:50:35.784207 26246 layer_factory.hpp:77] Creating layer pool5
I0504 10:50:35.784212 26246 net.cpp:94] Creating Layer pool5
I0504 10:50:35.784216 26246 net.cpp:435] pool5 <- conv5
I0504 10:50:35.784221 26246 net.cpp:409] pool5 -> pool5
I0504 10:50:35.784263 26246 net.cpp:144] Setting up pool5
I0504 10:50:35.784271 26246 net.cpp:151] Top shape: 20 128 5 5 (64000)
I0504 10:50:35.784274 26246 net.cpp:159] Memory required for data: 15136080
I0504 10:50:35.784277 26246 layer_factory.hpp:77] Creating layer ip1
I0504 10:50:35.784284 26246 net.cpp:94] Creating Layer ip1
I0504 10:50:35.784287 26246 net.cpp:435] ip1 <- pool5
I0504 10:50:35.784293 26246 net.cpp:409] ip1 -> ip1
I0504 10:50:35.867645 26246 net.cpp:144] Setting up ip1
I0504 10:50:35.867681 26246 net.cpp:151] Top shape: 20 1024 (20480)
I0504 10:50:35.867686 26246 net.cpp:159] Memory required for data: 15218000
I0504 10:50:35.867693 26246 layer_factory.hpp:77] Creating layer ip2
I0504 10:50:35.867705 26246 net.cpp:94] Creating Layer ip2
I0504 10:50:35.867709 26246 net.cpp:435] ip2 <- ip1
I0504 10:50:35.867717 26246 net.cpp:409] ip2 -> ip2
I0504 10:50:35.881583 26246 net.cpp:144] Setting up ip2
I0504 10:50:35.881604 26246 net.cpp:151] Top shape: 20 512 (10240)
I0504 10:50:35.881608 26246 net.cpp:159] Memory required for data: 15258960
I0504 10:50:35.881614 26246 layer_factory.hpp:77] Creating layer ip3
I0504 10:50:35.881623 26246 net.cpp:94] Creating Layer ip3
I0504 10:50:35.881625 26246 net.cpp:435] ip3 <- ip2
I0504 10:50:35.881633 26246 net.cpp:409] ip3 -> ip3
I0504 10:50:35.882422 26246 net.cpp:144] Setting up ip3
I0504 10:50:35.882431 26246 net.cpp:151] Top shape: 20 50 (1000)
I0504 10:50:35.882434 26246 net.cpp:159] Memory required for data: 15262960
I0504 10:50:35.882439 26246 layer_factory.hpp:77] Creating layer loss
I0504 10:50:35.882449 26246 net.cpp:94] Creating Layer loss
I0504 10:50:35.882452 26246 net.cpp:435] loss <- ip3
I0504 10:50:35.882457 26246 net.cpp:435] loss <- label
I0504 10:50:35.882462 26246 net.cpp:409] loss -> loss
I0504 10:50:35.882468 26246 layer_factory.hpp:77] Creating layer loss
…
I0504 10:50:35.883010 26246 solver.cpp:181] Creating test net (#0) specified by net file: ./protocol/dis_5_400_dimension.protocol_distribution
I0504 10:50:35.883038 26246 net.cpp:323] The NetState phase (1) differed from the phase (0) specified by a rule in layer parameters
I0504 10:50:35.883139 26246 net.cpp:52] Initializing net from parameters: 
state {
  phase: TEST
}
layer {
  name: "intercept"
  type: "HDF5Data"
  top: "data"
  top: "label"
  include {
    phase: TEST
  }
  hdf5_data_param {
    source: "/home/purduethu/scratch/radon/d/deng106/CNNStatisticalModel/distributions/input/5_distributions_400_sample_size_test-distributions-path.txt"
    batch_size: 20
  }
}
layer {
  name: "conv1"
  type: "Convolution"
  bottom: "data"
  top: "conv1"
  param {
    lr_mult: 1
  }
  param {
    lr_mult: 2
  }
  convolution_param {
    num_output: 64
    pad: 2
    kernel_size: 5
    stride: 1
    weight_filler {
      type: "gaussian"
      std: 0.0001
    }
    bias_filler {
      type: "constant"
    }
  }
}
layer {
  name: "relu1"
  type: "ReLU"
  bottom: "conv1"
  top: "conv1"
}
layer {
  name: "conv2"
  type: "Convolution"
  bottom: "conv1"
  top: "conv2"
  param {
    lr_mult: 1
  }
  param {
    lr_mult: 2
  }
  convolution_param {
    num_output: 64
    pad: 2
    kernel_size: 5
    stride: 1
    weight_filler {
      type: "gaussian"
      std: 0.01
    }
    bias_filler {
      type: "constant"
    }
  }
}
layer {
  name: "relu2"
  type: "ReLU"
  bottom: "conv2"
  top: "conv2"
}
layer {
  name: "pool2"
  type: "Pooling"
  bottom: "conv2"
  top: "pool2"
  pooling_param {
    pool: MAX
    kernel_size: 3
    stride: 2
  }
}
layer {
  name: "conv3"
  type: "Convolution"
  bottom: "pool2"
  top: "conv3"
  param {
    lr_mult: 1
  }
  param {
    lr_mult: 2
  }
  convolution_param {
    num_output: 128
    pad: 2
    kernel_size: 5
    stride: 1
    weight_filler {
      type: "gaussian"
      std: 0.01
    }
    bias_filler {
      type: "constant"
    }
  }
}
layer {
  name: "relu3"
  type: "ReLU"
  bottom: "conv3"
  top: "conv3"
}
layer {
  name: "conv4"
  type: "Convolution"
  bottom: "conv3"
  top: "conv4"
  param {
    lr_mult: 1
  }
  param {
    lr_mult: 2
  }
  convolution_param {
    num_output: 128
    pad: 2
    kernel_size: 5
    stride: 1
    weight_filler {
      type: "gaussian"
      std: 0.01
    }
    bias_filler {
      type: "constant"
    }
  }
}
layer {
  name: "relu4"
  type: "ReLU"
  bottom: "conv4"
  top: "conv4"
}
layer {
  name: "conv5"
  type: "Convolution"
  bottom: "conv4"
  top: "conv5"
  param {
    lr_mult: 1
  }
  param {
    lr_mult: 2
  }
  convolution_param {
    num_output: 128
    pad: 2
    kernel_size: 5
    stride: 1
    weight_filler {
      type: "gaussian"
      std: 0.01
    }
    bias_filler {
      type: "constant"
    }
  }
}
layer {
  name: "relu5"
  type: "ReLU"
  bottom: "conv5"
  top: "conv5"
}
layer {
  name: "pool5"
  type: "Pooling"
  bottom: "conv5"
  top: "pool5"
  pooling_param {
    pool: AVE
    kernel_size: 3
    stride: 2
  }
}
layer {
  name: "ip1"
  type: "InnerProduct"
  bottom: "pool5"
  top: "ip1"
  param {
    lr_mult: 1
  }
  param {
    lr_mult: 2
  }
  inner_product_param {
    num_output: 1024
    weight_filler {
      type: "gaussian"
      std: 0.1
    }
    bias_filler {
      type: "constant"
    }
  }
}
layer {
  name: "ip2"
  type: "InnerProduct"
  bottom: "ip1"
  top: "ip2"
  param {
    lr_mult: 1
  }
  param {
    lr_mult: 2
  }
  inner_product_param {
    num_output: 512
    weight_filler {
      type: "gaussian"
      std: 0.1
    }
    bias_filler {
      type: "constant"
    }
  }
}
layer {
  name: "ip3"
  type: "InnerProduct"
  bottom: "ip2"
  top: "ip3"
  param {
    lr_mult: 1
  }
  param {
    lr_mult: 2
  }
  inner_product_param {
    num_output: 50
    weight_filler {
      type: "gaussian"
      std: 0.1
    }
    bias_filler {
      type: "constant"
    }
  }
}
layer {
  name: "accuracy"
  type: "Accuracy"
  bottom: "ip3"
  bottom: "label"
  top: "accuracy"
  include {
    phase: TEST
  }
}
layer {
  name: "loss"
  type: "SoftmaxWithLoss"
  bottom: "ip3"
  bottom: "label"
  top: "loss"
}
I0504 10:50:35.883213 26246 layer_factory.hpp:77] Creating layer intercept
I0504 10:50:35.883221 26246 net.cpp:94] Creating Layer intercept
I0504 10:50:35.883225 26246 net.cpp:409] intercept -> data
I0504 10:50:35.883232 26246 net.cpp:409] intercept -> label
I0504 10:50:35.883239 26246 hdf5_data_layer.cpp:79] Loading list of HDF5 filenames from: /home/purduethu/scratch/radon/d/deng106/CNNStatisticalModel/distributions/input/5_distributions_400_sample_size_test-distributions-path.txt
I0504 10:50:35.883258 26246 hdf5_data_layer.cpp:93] Number of HDF5 files: 1
I0504 10:50:35.900410 26246 net.cpp:144] Setting up intercept
I0504 10:50:35.900445 26246 net.cpp:151] Top shape: 20 1 20 20 (8000)
I0504 10:50:35.900450 26246 net.cpp:151] Top shape: 20 (20)
I0504 10:50:35.900454 26246 net.cpp:159] Memory required for data: 32080
I0504 10:50:35.900460 26246 layer_factory.hpp:77] Creating layer label_intercept_1_split
I0504 10:50:35.900478 26246 net.cpp:94] Creating Layer label_intercept_1_split
I0504 10:50:35.900482 26246 net.cpp:435] label_intercept_1_split <- label
I0504 10:50:35.900488 26246 net.cpp:409] label_intercept_1_split -> label_intercept_1_split_0
I0504 10:50:35.900496 26246 net.cpp:409] label_intercept_1_split -> label_intercept_1_split_1
I0504 10:50:35.900539 26246 net.cpp:144] Setting up label_intercept_1_split
I0504 10:50:35.900547 26246 net.cpp:151] Top shape: 20 (20)
I0504 10:50:35.900566 26246 net.cpp:151] Top shape: 20 (20)
I0504 10:50:35.900571 26246 net.cpp:159] Memory required for data: 32240
I0504 10:50:35.900574 26246 layer_factory.hpp:77] Creating layer conv1
I0504 10:50:35.900585 26246 net.cpp:94] Creating Layer conv1
I0504 10:50:35.900589 26246 net.cpp:435] conv1 <- data
I0504 10:50:35.900594 26246 net.cpp:409] conv1 -> conv1
I0504 10:50:35.901423 26246 net.cpp:144] Setting up conv1
I0504 10:50:35.901443 26246 net.cpp:151] Top shape: 20 64 20 20 (512000)
I0504 10:50:35.901448 26246 net.cpp:159] Memory required for data: 2080240
I0504 10:50:35.901458 26246 layer_factory.hpp:77] Creating layer relu1
I0504 10:50:35.901463 26246 net.cpp:94] Creating Layer relu1
I0504 10:50:35.901468 26246 net.cpp:435] relu1 <- conv1
I0504 10:50:35.901471 26246 net.cpp:396] relu1 -> conv1 (in-place)
I0504 10:50:35.901479 26246 net.cpp:144] Setting up relu1
I0504 10:50:35.901484 26246 net.cpp:151] Top shape: 20 64 20 20 (512000)
I0504 10:50:35.901486 26246 net.cpp:159] Memory required for data: 4128240
I0504 10:50:35.901489 26246 layer_factory.hpp:77] Creating layer conv2
I0504 10:50:35.901497 26246 net.cpp:94] Creating Layer conv2
I0504 10:50:35.901500 26246 net.cpp:435] conv2 <- conv1
I0504 10:50:35.901505 26246 net.cpp:409] conv2 -> conv2
I0504 10:50:35.906647 26246 net.cpp:144] Setting up conv2
I0504 10:50:35.906666 26246 net.cpp:151] Top shape: 20 64 20 20 (512000)
I0504 10:50:35.906669 26246 net.cpp:159] Memory required for data: 6176240
I0504 10:50:35.906678 26246 layer_factory.hpp:77] Creating layer relu2
I0504 10:50:35.906684 26246 net.cpp:94] Creating Layer relu2
I0504 10:50:35.906688 26246 net.cpp:435] relu2 <- conv2
I0504 10:50:35.906692 26246 net.cpp:396] relu2 -> conv2 (in-place)
I0504 10:50:35.906699 26246 net.cpp:144] Setting up relu2
I0504 10:50:35.906704 26246 net.cpp:151] Top shape: 20 64 20 20 (512000)
I0504 10:50:35.906708 26246 net.cpp:159] Memory required for data: 8224240
I0504 10:50:35.906710 26246 layer_factory.hpp:77] Creating layer pool2
I0504 10:50:35.906716 26246 net.cpp:94] Creating Layer pool2
I0504 10:50:35.906719 26246 net.cpp:435] pool2 <- conv2
I0504 10:50:35.906723 26246 net.cpp:409] pool2 -> pool2
I0504 10:50:35.906780 26246 net.cpp:144] Setting up pool2
I0504 10:50:35.906787 26246 net.cpp:151] Top shape: 20 64 10 10 (128000)
I0504 10:50:35.906790 26246 net.cpp:159] Memory required for data: 8736240
I0504 10:50:35.906793 26246 layer_factory.hpp:77] Creating layer conv3
I0504 10:50:35.906801 26246 net.cpp:94] Creating Layer conv3
I0504 10:50:35.906805 26246 net.cpp:435] conv3 <- pool2
I0504 10:50:35.906810 26246 net.cpp:409] conv3 -> conv3
I0504 10:50:35.915146 26246 net.cpp:144] Setting up conv3
I0504 10:50:35.915163 26246 net.cpp:151] Top shape: 20 128 10 10 (256000)
I0504 10:50:35.915166 26246 net.cpp:159] Memory required for data: 9760240
I0504 10:50:35.915175 26246 layer_factory.hpp:77] Creating layer relu3
I0504 10:50:35.915182 26246 net.cpp:94] Creating Layer relu3
I0504 10:50:35.915186 26246 net.cpp:435] relu3 <- conv3
I0504 10:50:35.915190 26246 net.cpp:396] relu3 -> conv3 (in-place)
I0504 10:50:35.915197 26246 net.cpp:144] Setting up relu3
I0504 10:50:35.915202 26246 net.cpp:151] Top shape: 20 128 10 10 (256000)
I0504 10:50:35.915205 26246 net.cpp:159] Memory required for data: 10784240
I0504 10:50:35.915208 26246 layer_factory.hpp:77] Creating layer conv4
I0504 10:50:35.915216 26246 net.cpp:94] Creating Layer conv4
I0504 10:50:35.915220 26246 net.cpp:435] conv4 <- conv3
I0504 10:50:35.915225 26246 net.cpp:409] conv4 -> conv4
I0504 10:50:35.929410 26246 net.cpp:144] Setting up conv4
I0504 10:50:35.929450 26246 net.cpp:151] Top shape: 20 128 10 10 (256000)
I0504 10:50:35.929461 26246 net.cpp:159] Memory required for data: 11808240
I0504 10:50:35.929479 26246 layer_factory.hpp:77] Creating layer relu4
I0504 10:50:35.929496 26246 net.cpp:94] Creating Layer relu4
I0504 10:50:35.929505 26246 net.cpp:435] relu4 <- conv4
I0504 10:50:35.929518 26246 net.cpp:396] relu4 -> conv4 (in-place)
I0504 10:50:35.929538 26246 net.cpp:144] Setting up relu4
I0504 10:50:35.929549 26246 net.cpp:151] Top shape: 20 128 10 10 (256000)
I0504 10:50:35.929558 26246 net.cpp:159] Memory required for data: 12832240
I0504 10:50:35.929566 26246 layer_factory.hpp:77] Creating layer conv5
I0504 10:50:35.929585 26246 net.cpp:94] Creating Layer conv5
I0504 10:50:35.929594 26246 net.cpp:435] conv5 <- conv4
I0504 10:50:35.929608 26246 net.cpp:409] conv5 -> conv5
I0504 10:50:35.943425 26246 net.cpp:144] Setting up conv5
I0504 10:50:35.943447 26246 net.cpp:151] Top shape: 20 128 10 10 (256000)
I0504 10:50:35.943452 26246 net.cpp:159] Memory required for data: 13856240
I0504 10:50:35.943462 26246 layer_factory.hpp:77] Creating layer relu5
I0504 10:50:35.943469 26246 net.cpp:94] Creating Layer relu5
I0504 10:50:35.943472 26246 net.cpp:435] relu5 <- conv5
I0504 10:50:35.943477 26246 net.cpp:396] relu5 -> conv5 (in-place)
I0504 10:50:35.943485 26246 net.cpp:144] Setting up relu5
I0504 10:50:35.943490 26246 net.cpp:151] Top shape: 20 128 10 10 (256000)
I0504 10:50:35.943492 26246 net.cpp:159] Memory required for data: 14880240
I0504 10:50:35.943495 26246 layer_factory.hpp:77] Creating layer pool5
I0504 10:50:35.943500 26246 net.cpp:94] Creating Layer pool5
I0504 10:50:35.943503 26246 net.cpp:435] pool5 <- conv5
I0504 10:50:35.943508 26246 net.cpp:409] pool5 -> pool5
I0504 10:50:35.943548 26246 net.cpp:144] Setting up pool5
I0504 10:50:35.943557 26246 net.cpp:151] Top shape: 20 128 5 5 (64000)
I0504 10:50:35.943559 26246 net.cpp:159] Memory required for data: 15136240
I0504 10:50:35.943562 26246 layer_factory.hpp:77] Creating layer ip1
I0504 10:50:35.943569 26246 net.cpp:94] Creating Layer ip1
I0504 10:50:35.943572 26246 net.cpp:435] ip1 <- pool5
I0504 10:50:35.943578 26246 net.cpp:409] ip1 -> ip1
I0504 10:50:36.027140 26246 net.cpp:144] Setting up ip1
I0504 10:50:36.027179 26246 net.cpp:151] Top shape: 20 1024 (20480)
I0504 10:50:36.027184 26246 net.cpp:159] Memory required for data: 15218160
I0504 10:50:36.027194 26246 layer_factory.hpp:77] Creating layer ip2
I0504 10:50:36.027204 26246 net.cpp:94] Creating Layer ip2
I0504 10:50:36.027209 26246 net.cpp:435] ip2 <- ip1
I0504 10:50:36.027215 26246 net.cpp:409] ip2 -> ip2
I0504 10:50:36.041077 26246 net.cpp:144] Setting up ip2
I0504 10:50:36.041097 26246 net.cpp:151] Top shape: 20 512 (10240)
I0504 10:50:36.041102 26246 net.cpp:159] Memory required for data: 15259120
I0504 10:50:36.041108 26246 layer_factory.hpp:77] Creating layer ip3
I0504 10:50:36.041118 26246 net.cpp:94] Creating Layer ip3
I0504 10:50:36.041123 26246 net.cpp:435] ip3 <- ip2
I0504 10:50:36.041128 26246 net.cpp:409] ip3 -> ip3
I0504 10:50:36.041904 26246 net.cpp:144] Setting up ip3
I0504 10:50:36.041913 26246 net.cpp:151] Top shape: 20 50 (1000)
I0504 10:50:36.041918 26246 net.cpp:159] Memory required for data: 15263120
I0504 10:50:36.041923 26246 layer_factory.hpp:77] Creating layer ip3_ip3_0_split
I0504 10:50:36.041929 26246 net.cpp:94] Creating Layer ip3_ip3_0_split
I0504 10:50:36.041932 26246 net.cpp:435] ip3_ip3_0_split <- ip3
I0504 10:50:36.041936 26246 net.cpp:409] ip3_ip3_0_split -> ip3_ip3_0_split_0
I0504 10:50:36.041942 26246 net.cpp:409] ip3_ip3_0_split -> ip3_ip3_0_split_1
I0504 10:50:36.041985 26246 net.cpp:144] Setting up ip3_ip3_0_split
I0504 10:50:36.041992 26246 net.cpp:151] Top shape: 20 50 (1000)
I0504 10:50:36.041996 26246 net.cpp:151] Top shape: 20 50 (1000)
I0504 10:50:36.041999 26246 net.cpp:159] Memory required for data: 15271120
I0504 10:50:36.042002 26246 layer_factory.hpp:77] Creating layer accuracy
I0504 10:50:36.042008 26246 net.cpp:94] Creating Layer accuracy
I0504 10:50:36.042011 26246 net.cpp:435] accuracy <- ip3_ip3_0_split_0
I0504 10:50:36.042016 26246 net.cpp:435] accuracy <- label_intercept_1_split_0
I0504 10:50:36.042021 26246 net.cpp:409] accuracy -> accuracy
…
