…
I0505 18:12:36.849243  8488 net.cpp:323] The NetState phase (0) differed from the phase (1) specified by a rule in layer intercept
I0505 18:12:36.849258  8488 net.cpp:323] The NetState phase (0) differed from the phase (1) specified by a rule in layer loss
I0505 18:12:36.849323  8488 net.cpp:52] Initializing net from parameters: 
state {
  phase: TRAIN
}
layer {
  name: "parameters"
  type: "HDF5Data"
  top: "data"
  top: "label"
  include {
    phase: TRAIN
  }
  hdf5_data_param {
    source: "/home/purduethu/scratch/radon/d/deng106/CNNStatisticalModel/distributions/input/5_distributions_900_sample_size_train-parameters-path.txt"
    batch_size: 20
  }
}
layer {
  name: "conv1"
  type: "Convolution"
  bottom: "data"
  top: "conv1"
  param {
    lr_mult: 1
  }
  param {
    lr_mult: 2
  }
  convolution_param {
    num_output: 64
    pad: 2
    kernel_size: 5
    stride: 1
    weight_filler {
      type: "gaussian"
      std: 0.0001
    }
    bias_filler {
      type: "constant"
    }
  }
}
layer {
  name: "relu1"
  type: "ReLU"
  bottom: "conv1"
  top: "conv1"
}
layer {
  name: "pool1"
  type: "Pooling"
  bottom: "conv1"
  top: "pool1"
  pooling_param {
    pool: MAX
    kernel_size: 3
    stride: 2
  }
}
layer {
  name: "conv2"
  type: "Convolution"
  bottom: "pool1"
  top: "conv2"
  param {
    lr_mult: 1
  }
  param {
    lr_mult: 2
  }
  convolution_param {
    num_output: 128
    pad: 2
    kernel_size: 5
    stride: 1
    weight_filler {
      type: "gaussian"
      std: 0.01
    }
    bias_filler {
      type: "constant"
    }
  }
}
layer {
  name: "relu2"
  type: "ReLU"
  bottom: "conv2"
  top: "conv2"
}
layer {
  name: "conv3"
  type: "Convolution"
  bottom: "conv2"
  top: "conv3"
  param {
    lr_mult: 1
  }
  param {
    lr_mult: 2
  }
  convolution_param {
    num_output: 128
    pad: 2
    kernel_size: 5
    stride: 1
    weight_filler {
      type: "gaussian"
      std: 0.01
    }
    bias_filler {
      type: "constant"
    }
  }
}
layer {
  name: "relu3"
  type: "ReLU"
  bottom: "conv3"
  top: "conv3"
}
layer {
  name: "pool3"
  type: "Pooling"
  bottom: "conv3"
  top: "pool3"
  pooling_param {
    pool: AVE
    kernel_size: 3
    stride: 2
  }
}
layer {
  name: "ip1"
  type: "InnerProduct"
  bottom: "pool3"
  top: "ip1"
  param {
    lr_mult: 1
  }
  param {
    lr_mult: 2
  }
  inner_product_param {
    num_output: 512
    weight_filler {
      type: "gaussian"
      std: 0.1
    }
    bias_filler {
      type: "constant"
    }
  }
}
layer {
  name: "ip2"
  type: "InnerProduct"
  bottom: "ip1"
  top: "ip2"
  param {
    lr_mult: 1
  }
  param {
    lr_mult: 2
  }
  inner_product_param {
    num_output: 256
    weight_filler {
      type: "gaussian"
      std: 0.1
    }
    bias_filler {
      type: "constant"
    }
  }
}
layer {
  name: "ip3"
  type: "InnerProduct"
  bottom: "ip2"
  top: "ip3"
  param {
    lr_mult: 1
  }
  param {
    lr_mult: 2
  }
  inner_product_param {
    num_output: 1
    weight_filler {
      type: "gaussian"
      std: 0.1
    }
    bias_filler {
      type: "constant"
    }
  }
}
layer {
  name: "loss"
  type: "HuberLoss"
  bottom: "ip3"
  bottom: "label"
  top: "loss"
  include {
    phase: TRAIN
  }
}
I0505 18:12:36.849372  8488 layer_factory.hpp:77] Creating layer parameters
I0505 18:12:36.849385  8488 net.cpp:94] Creating Layer parameters
I0505 18:12:36.849390  8488 net.cpp:409] parameters -> data
I0505 18:12:36.849403  8488 net.cpp:409] parameters -> label
I0505 18:12:36.849411  8488 hdf5_data_layer.cpp:79] Loading list of HDF5 filenames from: /home/purduethu/scratch/radon/d/deng106/CNNStatisticalModel/distributions/input/5_distributions_900_sample_size_train-parameters-path.txt
I0505 18:12:36.849426  8488 hdf5_data_layer.cpp:93] Number of HDF5 files: 1
I0505 18:12:36.849977  8488 hdf5.cpp:32] Datatype class: H5T_FLOAT
I0505 18:12:36.989893  8488 net.cpp:144] Setting up parameters
I0505 18:12:36.989928  8488 net.cpp:151] Top shape: 20 1 30 30 (18000)
I0505 18:12:36.989933  8488 net.cpp:151] Top shape: 20 (20)
I0505 18:12:36.989936  8488 net.cpp:159] Memory required for data: 72080
I0505 18:12:36.989943  8488 layer_factory.hpp:77] Creating layer conv1
I0505 18:12:36.989959  8488 net.cpp:94] Creating Layer conv1
I0505 18:12:36.989964  8488 net.cpp:435] conv1 <- data
I0505 18:12:36.989970  8488 net.cpp:409] conv1 -> conv1
I0505 18:12:36.996486  8488 net.cpp:144] Setting up conv1
I0505 18:12:36.996506  8488 net.cpp:151] Top shape: 20 64 30 30 (1152000)
I0505 18:12:36.996510  8488 net.cpp:159] Memory required for data: 4680080
I0505 18:12:36.996521  8488 layer_factory.hpp:77] Creating layer relu1
I0505 18:12:36.996531  8488 net.cpp:94] Creating Layer relu1
I0505 18:12:36.996534  8488 net.cpp:435] relu1 <- conv1
I0505 18:12:36.996539  8488 net.cpp:396] relu1 -> conv1 (in-place)
I0505 18:12:36.996548  8488 net.cpp:144] Setting up relu1
I0505 18:12:36.996569  8488 net.cpp:151] Top shape: 20 64 30 30 (1152000)
I0505 18:12:36.996573  8488 net.cpp:159] Memory required for data: 9288080
I0505 18:12:36.996577  8488 layer_factory.hpp:77] Creating layer pool1
I0505 18:12:36.996583  8488 net.cpp:94] Creating Layer pool1
I0505 18:12:36.996587  8488 net.cpp:435] pool1 <- conv1
I0505 18:12:36.996592  8488 net.cpp:409] pool1 -> pool1
I0505 18:12:36.996647  8488 net.cpp:144] Setting up pool1
I0505 18:12:36.996655  8488 net.cpp:151] Top shape: 20 64 15 15 (288000)
I0505 18:12:36.996659  8488 net.cpp:159] Memory required for data: 10440080
I0505 18:12:36.996662  8488 layer_factory.hpp:77] Creating layer conv2
I0505 18:12:36.996672  8488 net.cpp:94] Creating Layer conv2
I0505 18:12:36.996676  8488 net.cpp:435] conv2 <- pool1
I0505 18:12:36.996681  8488 net.cpp:409] conv2 -> conv2
I0505 18:12:37.009852  8488 net.cpp:144] Setting up conv2
I0505 18:12:37.009869  8488 net.cpp:151] Top shape: 20 128 15 15 (576000)
I0505 18:12:37.009874  8488 net.cpp:159] Memory required for data: 12744080
I0505 18:12:37.009882  8488 layer_factory.hpp:77] Creating layer relu2
I0505 18:12:37.009889  8488 net.cpp:94] Creating Layer relu2
I0505 18:12:37.009893  8488 net.cpp:435] relu2 <- conv2
I0505 18:12:37.009898  8488 net.cpp:396] relu2 -> conv2 (in-place)
I0505 18:12:37.009905  8488 net.cpp:144] Setting up relu2
I0505 18:12:37.009910  8488 net.cpp:151] Top shape: 20 128 15 15 (576000)
I0505 18:12:37.009914  8488 net.cpp:159] Memory required for data: 15048080
I0505 18:12:37.009917  8488 layer_factory.hpp:77] Creating layer conv3
I0505 18:12:37.009925  8488 net.cpp:94] Creating Layer conv3
I0505 18:12:37.009929  8488 net.cpp:435] conv3 <- conv2
I0505 18:12:37.009934  8488 net.cpp:409] conv3 -> conv3
I0505 18:12:37.031885  8488 net.cpp:144] Setting up conv3
I0505 18:12:37.031903  8488 net.cpp:151] Top shape: 20 128 15 15 (576000)
I0505 18:12:37.031906  8488 net.cpp:159] Memory required for data: 17352080
I0505 18:12:37.031915  8488 layer_factory.hpp:77] Creating layer relu3
I0505 18:12:37.031929  8488 net.cpp:94] Creating Layer relu3
I0505 18:12:37.031934  8488 net.cpp:435] relu3 <- conv3
I0505 18:12:37.031939  8488 net.cpp:396] relu3 -> conv3 (in-place)
I0505 18:12:37.031945  8488 net.cpp:144] Setting up relu3
I0505 18:12:37.031950  8488 net.cpp:151] Top shape: 20 128 15 15 (576000)
I0505 18:12:37.031954  8488 net.cpp:159] Memory required for data: 19656080
I0505 18:12:37.031956  8488 layer_factory.hpp:77] Creating layer pool3
I0505 18:12:37.031963  8488 net.cpp:94] Creating Layer pool3
I0505 18:12:37.031966  8488 net.cpp:435] pool3 <- conv3
I0505 18:12:37.031971  8488 net.cpp:409] pool3 -> pool3
I0505 18:12:37.032017  8488 net.cpp:144] Setting up pool3
I0505 18:12:37.032025  8488 net.cpp:151] Top shape: 20 128 7 7 (125440)
I0505 18:12:37.032028  8488 net.cpp:159] Memory required for data: 20157840
I0505 18:12:37.032032  8488 layer_factory.hpp:77] Creating layer ip1
I0505 18:12:37.032042  8488 net.cpp:94] Creating Layer ip1
I0505 18:12:37.032047  8488 net.cpp:435] ip1 <- pool3
I0505 18:12:37.032052  8488 net.cpp:409] ip1 -> ip1
I0505 18:12:37.109812  8488 net.cpp:144] Setting up ip1
I0505 18:12:37.109848  8488 net.cpp:151] Top shape: 20 512 (10240)
I0505 18:12:37.109853  8488 net.cpp:159] Memory required for data: 20198800
I0505 18:12:37.109861  8488 layer_factory.hpp:77] Creating layer ip2
I0505 18:12:37.109871  8488 net.cpp:94] Creating Layer ip2
I0505 18:12:37.109876  8488 net.cpp:435] ip2 <- ip1
I0505 18:12:37.109884  8488 net.cpp:409] ip2 -> ip2
I0505 18:12:37.113076  8488 net.cpp:144] Setting up ip2
I0505 18:12:37.113090  8488 net.cpp:151] Top shape: 20 256 (5120)
I0505 18:12:37.113092  8488 net.cpp:159] Memory required for data: 20219280
I0505 18:12:37.113101  8488 layer_factory.hpp:77] Creating layer ip3
I0505 18:12:37.113107  8488 net.cpp:94] Creating Layer ip3
I0505 18:12:37.113111  8488 net.cpp:435] ip3 <- ip2
I0505 18:12:37.113116  8488 net.cpp:409] ip3 -> ip3
I0505 18:12:37.113232  8488 net.cpp:144] Setting up ip3
I0505 18:12:37.113240  8488 net.cpp:151] Top shape: 20 1 (20)
I0505 18:12:37.113245  8488 net.cpp:159] Memory required for data: 20219360
I0505 18:12:37.113250  8488 layer_factory.hpp:77] Creating layer loss
I0505 18:12:37.113261  8488 net.cpp:94] Creating Layer loss
I0505 18:12:37.113265  8488 net.cpp:435] loss <- ip3
I0505 18:12:37.113270  8488 net.cpp:435] loss <- label
I0505 18:12:37.113273  8488 net.cpp:409] loss -> loss
I0505 18:12:37.113327  8488 net.cpp:144] Setting up loss
…
I0505 18:12:37.257774  8488 net.cpp:323] The NetState phase (0) differed from the phase (1) specified by a rule in layer intercept
I0505 18:12:37.257788  8488 net.cpp:323] The NetState phase (0) differed from the phase (1) specified by a rule in layer accuracy
I0505 18:12:37.257858  8488 net.cpp:52] Initializing net from parameters: 
state {
  phase: TRAIN
}
layer {
  name: "parameters"
  type: "HDF5Data"
  top: "data"
  top: "label"
  include {
    phase: TRAIN
  }
  hdf5_data_param {
    source: "/home/purduethu/scratch/radon/d/deng106/CNNStatisticalModel/distributions/input/5_distributions_900_sample_size_train-distributions-path.txt"
    batch_size: 20
  }
}
layer {
  name: "conv1"
  type: "Convolution"
  bottom: "data"
  top: "conv1"
  param {
    lr_mult: 1
  }
  param {
    lr_mult: 2
  }
  convolution_param {
    num_output: 64
    pad: 2
    kernel_size: 5
    stride: 1
    weight_filler {
      type: "gaussian"
      std: 0.0001
    }
    bias_filler {
      type: "constant"
    }
  }
}
layer {
  name: "relu1"
  type: "ReLU"
  bottom: "conv1"
  top: "conv1"
}
layer {
  name: "pool1"
  type: "Pooling"
  bottom: "conv1"
  top: "pool1"
  pooling_param {
    pool: MAX
    kernel_size: 3
    stride: 2
  }
}
layer {
  name: "conv2"
  type: "Convolution"
  bottom: "pool1"
  top: "conv2"
  param {
    lr_mult: 1
  }
  param {
    lr_mult: 2
  }
  convolution_param {
    num_output: 128
    pad: 2
    kernel_size: 5
    stride: 1
    weight_filler {
      type: "gaussian"
      std: 0.01
    }
    bias_filler {
      type: "constant"
    }
  }
}
layer {
  name: "relu2"
  type: "ReLU"
  bottom: "conv2"
  top: "conv2"
}
layer {
  name: "conv3"
  type: "Convolution"
  bottom: "conv2"
  top: "conv3"
  param {
    lr_mult: 1
  }
  param {
    lr_mult: 2
  }
  convolution_param {
    num_output: 128
    pad: 2
    kernel_size: 5
    stride: 1
    weight_filler {
      type: "gaussian"
      std: 0.01
    }
    bias_filler {
      type: "constant"
    }
  }
}
layer {
  name: "relu3"
  type: "ReLU"
  bottom: "conv3"
  top: "conv3"
}
layer {
  name: "pool3"
  type: "Pooling"
  bottom: "conv3"
  top: "pool3"
  pooling_param {
    pool: AVE
    kernel_size: 3
    stride: 2
  }
}
layer {
  name: "ip1"
  type: "InnerProduct"
  bottom: "pool3"
  top: "ip1"
  param {
    lr_mult: 1
  }
  param {
    lr_mult: 2
  }
  inner_product_param {
    num_output: 512
    weight_filler {
      type: "gaussian"
      std: 0.1
    }
    bias_filler {
      type: "constant"
    }
  }
}
layer {
  name: "ip2"
  type: "InnerProduct"
  bottom: "ip1"
  top: "ip2"
  param {
    lr_mult: 1
  }
  param {
    lr_mult: 2
  }
  inner_product_param {
    num_output: 256
    weight_filler {
      type: "gaussian"
      std: 0.1
    }
    bias_filler {
      type: "constant"
    }
  }
}
layer {
  name: "ip3"
  type: "InnerProduct"
  bottom: "ip2"
  top: "ip3"
  param {
    lr_mult: 1
  }
  param {
    lr_mult: 2
  }
  inner_product_param {
    num_output: 50
    weight_filler {
      type: "gaussian"
      std: 0.1
    }
    bias_filler {
      type: "constant"
    }
  }
}
layer {
  name: "loss"
  type: "SoftmaxWithLoss"
  bottom: "ip3"
  bottom: "label"
  top: "loss"
}
I0505 18:12:37.257901  8488 layer_factory.hpp:77] Creating layer parameters
I0505 18:12:37.257910  8488 net.cpp:94] Creating Layer parameters
I0505 18:12:37.257915  8488 net.cpp:409] parameters -> data
I0505 18:12:37.257921  8488 net.cpp:409] parameters -> label
I0505 18:12:37.257927  8488 hdf5_data_layer.cpp:79] Loading list of HDF5 filenames from: /home/purduethu/scratch/radon/d/deng106/CNNStatisticalModel/distributions/input/5_distributions_900_sample_size_train-distributions-path.txt
I0505 18:12:37.257943  8488 hdf5_data_layer.cpp:93] Number of HDF5 files: 1
I0505 18:12:37.398346  8488 hdf5.cpp:35] Datatype class: H5T_INTEGER
I0505 18:12:37.398835  8488 net.cpp:144] Setting up parameters
I0505 18:12:37.398854  8488 net.cpp:151] Top shape: 20 1 30 30 (18000)
I0505 18:12:37.398859  8488 net.cpp:151] Top shape: 20 (20)
I0505 18:12:37.398861  8488 net.cpp:159] Memory required for data: 72080
I0505 18:12:37.398869  8488 layer_factory.hpp:77] Creating layer conv1
I0505 18:12:37.398885  8488 net.cpp:94] Creating Layer conv1
I0505 18:12:37.398890  8488 net.cpp:435] conv1 <- data
I0505 18:12:37.398896  8488 net.cpp:409] conv1 -> conv1
I0505 18:12:37.402477  8488 net.cpp:144] Setting up conv1
I0505 18:12:37.402492  8488 net.cpp:151] Top shape: 20 64 30 30 (1152000)
I0505 18:12:37.402495  8488 net.cpp:159] Memory required for data: 4680080
I0505 18:12:37.402506  8488 layer_factory.hpp:77] Creating layer relu1
I0505 18:12:37.402514  8488 net.cpp:94] Creating Layer relu1
I0505 18:12:37.402518  8488 net.cpp:435] relu1 <- conv1
I0505 18:12:37.402523  8488 net.cpp:396] relu1 -> conv1 (in-place)
I0505 18:12:37.402530  8488 net.cpp:144] Setting up relu1
I0505 18:12:37.402534  8488 net.cpp:151] Top shape: 20 64 30 30 (1152000)
I0505 18:12:37.402537  8488 net.cpp:159] Memory required for data: 9288080
I0505 18:12:37.402541  8488 layer_factory.hpp:77] Creating layer pool1
I0505 18:12:37.402547  8488 net.cpp:94] Creating Layer pool1
I0505 18:12:37.402550  8488 net.cpp:435] pool1 <- conv1
I0505 18:12:37.402560  8488 net.cpp:409] pool1 -> pool1
I0505 18:12:37.402617  8488 net.cpp:144] Setting up pool1
I0505 18:12:37.402626  8488 net.cpp:151] Top shape: 20 64 15 15 (288000)
I0505 18:12:37.402628  8488 net.cpp:159] Memory required for data: 10440080
I0505 18:12:37.402631  8488 layer_factory.hpp:77] Creating layer conv2
I0505 18:12:37.402640  8488 net.cpp:94] Creating Layer conv2
I0505 18:12:37.402643  8488 net.cpp:435] conv2 <- pool1
I0505 18:12:37.402648  8488 net.cpp:409] conv2 -> conv2
I0505 18:12:37.416262  8488 net.cpp:144] Setting up conv2
I0505 18:12:37.416278  8488 net.cpp:151] Top shape: 20 128 15 15 (576000)
I0505 18:12:37.416282  8488 net.cpp:159] Memory required for data: 12744080
I0505 18:12:37.416291  8488 layer_factory.hpp:77] Creating layer relu2
I0505 18:12:37.416298  8488 net.cpp:94] Creating Layer relu2
I0505 18:12:37.416301  8488 net.cpp:435] relu2 <- conv2
I0505 18:12:37.416306  8488 net.cpp:396] relu2 -> conv2 (in-place)
I0505 18:12:37.416314  8488 net.cpp:144] Setting up relu2
I0505 18:12:37.416318  8488 net.cpp:151] Top shape: 20 128 15 15 (576000)
I0505 18:12:37.416322  8488 net.cpp:159] Memory required for data: 15048080
I0505 18:12:37.416326  8488 layer_factory.hpp:77] Creating layer conv3
I0505 18:12:37.416332  8488 net.cpp:94] Creating Layer conv3
I0505 18:12:37.416337  8488 net.cpp:435] conv3 <- conv2
I0505 18:12:37.416342  8488 net.cpp:409] conv3 -> conv3
I0505 18:12:37.439095  8488 net.cpp:144] Setting up conv3
I0505 18:12:37.439111  8488 net.cpp:151] Top shape: 20 128 15 15 (576000)
I0505 18:12:37.439116  8488 net.cpp:159] Memory required for data: 17352080
I0505 18:12:37.439123  8488 layer_factory.hpp:77] Creating layer relu3
I0505 18:12:37.439131  8488 net.cpp:94] Creating Layer relu3
I0505 18:12:37.439134  8488 net.cpp:435] relu3 <- conv3
I0505 18:12:37.439138  8488 net.cpp:396] relu3 -> conv3 (in-place)
I0505 18:12:37.439146  8488 net.cpp:144] Setting up relu3
I0505 18:12:37.439151  8488 net.cpp:151] Top shape: 20 128 15 15 (576000)
I0505 18:12:37.439153  8488 net.cpp:159] Memory required for data: 19656080
I0505 18:12:37.439157  8488 layer_factory.hpp:77] Creating layer pool3
I0505 18:12:37.439162  8488 net.cpp:94] Creating Layer pool3
I0505 18:12:37.439165  8488 net.cpp:435] pool3 <- conv3
I0505 18:12:37.439170  8488 net.cpp:409] pool3 -> pool3
I0505 18:12:37.439214  8488 net.cpp:144] Setting up pool3
I0505 18:12:37.439221  8488 net.cpp:151] Top shape: 20 128 7 7 (125440)
I0505 18:12:37.439224  8488 net.cpp:159] Memory required for data: 20157840
I0505 18:12:37.439229  8488 layer_factory.hpp:77] Creating layer ip1
I0505 18:12:37.439235  8488 net.cpp:94] Creating Layer ip1
I0505 18:12:37.439239  8488 net.cpp:435] ip1 <- pool3
I0505 18:12:37.439244  8488 net.cpp:409] ip1 -> ip1
I0505 18:12:37.517361  8488 net.cpp:144] Setting up ip1
I0505 18:12:37.517396  8488 net.cpp:151] Top shape: 20 512 (10240)
I0505 18:12:37.517401  8488 net.cpp:159] Memory required for data: 20198800
I0505 18:12:37.517410  8488 layer_factory.hpp:77] Creating layer ip2
I0505 18:12:37.517421  8488 net.cpp:94] Creating Layer ip2
I0505 18:12:37.517426  8488 net.cpp:435] ip2 <- ip1
I0505 18:12:37.517431  8488 net.cpp:409] ip2 -> ip2
I0505 18:12:37.520638  8488 net.cpp:144] Setting up ip2
I0505 18:12:37.520648  8488 net.cpp:151] Top shape: 20 256 (5120)
I0505 18:12:37.520651  8488 net.cpp:159] Memory required for data: 20219280
I0505 18:12:37.520659  8488 layer_factory.hpp:77] Creating layer ip3
I0505 18:12:37.520665  8488 net.cpp:94] Creating Layer ip3
I0505 18:12:37.520669  8488 net.cpp:435] ip3 <- ip2
I0505 18:12:37.520674  8488 net.cpp:409] ip3 -> ip3
I0505 18:12:37.521116  8488 net.cpp:144] Setting up ip3
I0505 18:12:37.521123  8488 net.cpp:151] Top shape: 20 50 (1000)
I0505 18:12:37.521126  8488 net.cpp:159] Memory required for data: 20223280
I0505 18:12:37.521132  8488 layer_factory.hpp:77] Creating layer loss
I0505 18:12:37.521138  8488 net.cpp:94] Creating Layer loss
I0505 18:12:37.521142  8488 net.cpp:435] loss <- ip3
I0505 18:12:37.521145  8488 net.cpp:435] loss <- label
I0505 18:12:37.521160  8488 net.cpp:409] loss -> loss
I0505 18:12:37.521168  8488 layer_factory.hpp:77] Creating layer loss
…
I0505 18:12:37.521638  8488 solver.cpp:181] Creating test net (#0) specified by net file: ./protocol/dis_5_900_dimension.protocol_distribution
I0505 18:12:37.521664  8488 net.cpp:323] The NetState phase (1) differed from the phase (0) specified by a rule in layer parameters
I0505 18:12:37.521746  8488 net.cpp:52] Initializing net from parameters: 
state {
  phase: TEST
}
layer {
  name: "intercept"
  type: "HDF5Data"
  top: "data"
  top: "label"
  include {
    phase: TEST
  }
  hdf5_data_param {
    source: "/home/purduethu/scratch/radon/d/deng106/CNNStatisticalModel/distributions/input/5_distributions_900_sample_size_test-distributions-path.txt"
    batch_size: 20
  }
}
layer {
  name: "conv1"
  type: "Convolution"
  bottom: "data"
  top: "conv1"
  param {
    lr_mult: 1
  }
  param {
    lr_mult: 2
  }
  convolution_param {
    num_output: 64
    pad: 2
    kernel_size: 5
    stride: 1
    weight_filler {
      type: "gaussian"
      std: 0.0001
    }
    bias_filler {
      type: "constant"
    }
  }
}
layer {
  name: "relu1"
  type: "ReLU"
  bottom: "conv1"
  top: "conv1"
}
layer {
  name: "pool1"
  type: "Pooling"
  bottom: "conv1"
  top: "pool1"
  pooling_param {
    pool: MAX
    kernel_size: 3
    stride: 2
  }
}
layer {
  name: "conv2"
  type: "Convolution"
  bottom: "pool1"
  top: "conv2"
  param {
    lr_mult: 1
  }
  param {
    lr_mult: 2
  }
  convolution_param {
    num_output: 128
    pad: 2
    kernel_size: 5
    stride: 1
    weight_filler {
      type: "gaussian"
      std: 0.01
    }
    bias_filler {
      type: "constant"
    }
  }
}
layer {
  name: "relu2"
  type: "ReLU"
  bottom: "conv2"
  top: "conv2"
}
layer {
  name: "conv3"
  type: "Convolution"
  bottom: "conv2"
  top: "conv3"
  param {
    lr_mult: 1
  }
  param {
    lr_mult: 2
  }
  convolution_param {
    num_output: 128
    pad: 2
    kernel_size: 5
    stride: 1
    weight_filler {
      type: "gaussian"
      std: 0.01
    }
    bias_filler {
      type: "constant"
    }
  }
}
layer {
  name: "relu3"
  type: "ReLU"
  bottom: "conv3"
  top: "conv3"
}
layer {
  name: "pool3"
  type: "Pooling"
  bottom: "conv3"
  top: "pool3"
  pooling_param {
    pool: AVE
    kernel_size: 3
    stride: 2
  }
}
layer {
  name: "ip1"
  type: "InnerProduct"
  bottom: "pool3"
  top: "ip1"
  param {
    lr_mult: 1
  }
  param {
    lr_mult: 2
  }
  inner_product_param {
    num_output: 512
    weight_filler {
      type: "gaussian"
      std: 0.1
    }
    bias_filler {
      type: "constant"
    }
  }
}
layer {
  name: "ip2"
  type: "InnerProduct"
  bottom: "ip1"
  top: "ip2"
  param {
    lr_mult: 1
  }
  param {
    lr_mult: 2
  }
  inner_product_param {
    num_output: 256
    weight_filler {
      type: "gaussian"
      std: 0.1
    }
    bias_filler {
      type: "constant"
    }
  }
}
layer {
  name: "ip3"
  type: "InnerProduct"
  bottom: "ip2"
  top: "ip3"
  param {
    lr_mult: 1
  }
  param {
    lr_mult: 2
  }
  inner_product_param {
    num_output: 50
    weight_filler {
      type: "gaussian"
      std: 0.1
    }
    bias_filler {
      type: "constant"
    }
  }
}
layer {
  name: "accuracy"
  type: "Accuracy"
  bottom: "ip3"
  bottom: "label"
  top: "accuracy"
  include {
    phase: TEST
  }
}
layer {
  name: "loss"
  type: "SoftmaxWithLoss"
  bottom: "ip3"
  bottom: "label"
  top: "loss"
}
I0505 18:12:37.521806  8488 layer_factory.hpp:77] Creating layer intercept
I0505 18:12:37.521816  8488 net.cpp:94] Creating Layer intercept
I0505 18:12:37.521819  8488 net.cpp:409] intercept -> data
I0505 18:12:37.521826  8488 net.cpp:409] intercept -> label
I0505 18:12:37.521832  8488 hdf5_data_layer.cpp:79] Loading list of HDF5 filenames from: /home/purduethu/scratch/radon/d/deng106/CNNStatisticalModel/distributions/input/5_distributions_900_sample_size_test-distributions-path.txt
I0505 18:12:37.521853  8488 hdf5_data_layer.cpp:93] Number of HDF5 files: 1
I0505 18:12:37.558284  8488 net.cpp:144] Setting up intercept
I0505 18:12:37.558317  8488 net.cpp:151] Top shape: 20 1 30 30 (18000)
I0505 18:12:37.558322  8488 net.cpp:151] Top shape: 20 (20)
I0505 18:12:37.558326  8488 net.cpp:159] Memory required for data: 72080
I0505 18:12:37.558332  8488 layer_factory.hpp:77] Creating layer label_intercept_1_split
I0505 18:12:37.558351  8488 net.cpp:94] Creating Layer label_intercept_1_split
I0505 18:12:37.558356  8488 net.cpp:435] label_intercept_1_split <- label
I0505 18:12:37.558362  8488 net.cpp:409] label_intercept_1_split -> label_intercept_1_split_0
I0505 18:12:37.558370  8488 net.cpp:409] label_intercept_1_split -> label_intercept_1_split_1
I0505 18:12:37.558414  8488 net.cpp:144] Setting up label_intercept_1_split
I0505 18:12:37.558420  8488 net.cpp:151] Top shape: 20 (20)
I0505 18:12:37.558424  8488 net.cpp:151] Top shape: 20 (20)
I0505 18:12:37.558428  8488 net.cpp:159] Memory required for data: 72240
I0505 18:12:37.558431  8488 layer_factory.hpp:77] Creating layer conv1
I0505 18:12:37.558441  8488 net.cpp:94] Creating Layer conv1
I0505 18:12:37.558445  8488 net.cpp:435] conv1 <- data
I0505 18:12:37.558450  8488 net.cpp:409] conv1 -> conv1
I0505 18:12:37.559983  8488 net.cpp:144] Setting up conv1
I0505 18:12:37.559996  8488 net.cpp:151] Top shape: 20 64 30 30 (1152000)
I0505 18:12:37.560000  8488 net.cpp:159] Memory required for data: 4680240
I0505 18:12:37.560010  8488 layer_factory.hpp:77] Creating layer relu1
I0505 18:12:37.560016  8488 net.cpp:94] Creating Layer relu1
I0505 18:12:37.560020  8488 net.cpp:435] relu1 <- conv1
I0505 18:12:37.560024  8488 net.cpp:396] relu1 -> conv1 (in-place)
I0505 18:12:37.560031  8488 net.cpp:144] Setting up relu1
I0505 18:12:37.560036  8488 net.cpp:151] Top shape: 20 64 30 30 (1152000)
I0505 18:12:37.560039  8488 net.cpp:159] Memory required for data: 9288240
I0505 18:12:37.560042  8488 layer_factory.hpp:77] Creating layer pool1
I0505 18:12:37.560050  8488 net.cpp:94] Creating Layer pool1
I0505 18:12:37.560052  8488 net.cpp:435] pool1 <- conv1
I0505 18:12:37.560057  8488 net.cpp:409] pool1 -> pool1
I0505 18:12:37.560113  8488 net.cpp:144] Setting up pool1
I0505 18:12:37.560120  8488 net.cpp:151] Top shape: 20 64 15 15 (288000)
I0505 18:12:37.560123  8488 net.cpp:159] Memory required for data: 10440240
I0505 18:12:37.560127  8488 layer_factory.hpp:77] Creating layer conv2
I0505 18:12:37.560134  8488 net.cpp:94] Creating Layer conv2
I0505 18:12:37.560138  8488 net.cpp:435] conv2 <- pool1
I0505 18:12:37.560143  8488 net.cpp:409] conv2 -> conv2
I0505 18:12:37.568610  8488 net.cpp:144] Setting up conv2
I0505 18:12:37.568648  8488 net.cpp:151] Top shape: 20 128 15 15 (576000)
I0505 18:12:37.568660  8488 net.cpp:159] Memory required for data: 12744240
I0505 18:12:37.568696  8488 layer_factory.hpp:77] Creating layer relu2
I0505 18:12:37.568713  8488 net.cpp:94] Creating Layer relu2
I0505 18:12:37.568723  8488 net.cpp:435] relu2 <- conv2
I0505 18:12:37.568737  8488 net.cpp:396] relu2 -> conv2 (in-place)
I0505 18:12:37.568758  8488 net.cpp:144] Setting up relu2
I0505 18:12:37.568770  8488 net.cpp:151] Top shape: 20 128 15 15 (576000)
I0505 18:12:37.568779  8488 net.cpp:159] Memory required for data: 15048240
I0505 18:12:37.568789  8488 layer_factory.hpp:77] Creating layer conv3
I0505 18:12:37.568809  8488 net.cpp:94] Creating Layer conv3
I0505 18:12:37.568819  8488 net.cpp:435] conv3 <- conv2
I0505 18:12:37.568832  8488 net.cpp:409] conv3 -> conv3
I0505 18:12:37.584656  8488 net.cpp:144] Setting up conv3
I0505 18:12:37.584693  8488 net.cpp:151] Top shape: 20 128 15 15 (576000)
I0505 18:12:37.584704  8488 net.cpp:159] Memory required for data: 17352240
I0505 18:12:37.584728  8488 layer_factory.hpp:77] Creating layer relu3
I0505 18:12:37.584748  8488 net.cpp:94] Creating Layer relu3
I0505 18:12:37.584758  8488 net.cpp:435] relu3 <- conv3
I0505 18:12:37.584770  8488 net.cpp:396] relu3 -> conv3 (in-place)
I0505 18:12:37.584790  8488 net.cpp:144] Setting up relu3
I0505 18:12:37.584803  8488 net.cpp:151] Top shape: 20 128 15 15 (576000)
I0505 18:12:37.584812  8488 net.cpp:159] Memory required for data: 19656240
I0505 18:12:37.584821  8488 layer_factory.hpp:77] Creating layer pool3
I0505 18:12:37.584836  8488 net.cpp:94] Creating Layer pool3
I0505 18:12:37.584846  8488 net.cpp:435] pool3 <- conv3
I0505 18:12:37.584858  8488 net.cpp:409] pool3 -> pool3
I0505 18:12:37.584971  8488 net.cpp:144] Setting up pool3
I0505 18:12:37.584995  8488 net.cpp:151] Top shape: 20 128 7 7 (125440)
I0505 18:12:37.584997  8488 net.cpp:159] Memory required for data: 20158000
I0505 18:12:37.585000  8488 layer_factory.hpp:77] Creating layer ip1
I0505 18:12:37.585007  8488 net.cpp:94] Creating Layer ip1
I0505 18:12:37.585011  8488 net.cpp:435] ip1 <- pool3
I0505 18:12:37.585016  8488 net.cpp:409] ip1 -> ip1
I0505 18:12:37.662828  8488 net.cpp:144] Setting up ip1
I0505 18:12:37.662854  8488 net.cpp:151] Top shape: 20 512 (10240)
I0505 18:12:37.662858  8488 net.cpp:159] Memory required for data: 20198960
I0505 18:12:37.662866  8488 layer_factory.hpp:77] Creating layer ip2
I0505 18:12:37.662878  8488 net.cpp:94] Creating Layer ip2
I0505 18:12:37.662881  8488 net.cpp:435] ip2 <- ip1
I0505 18:12:37.662889  8488 net.cpp:409] ip2 -> ip2
I0505 18:12:37.666113  8488 net.cpp:144] Setting up ip2
I0505 18:12:37.666124  8488 net.cpp:151] Top shape: 20 256 (5120)
I0505 18:12:37.666128  8488 net.cpp:159] Memory required for data: 20219440
I0505 18:12:37.666138  8488 layer_factory.hpp:77] Creating layer ip3
I0505 18:12:37.666146  8488 net.cpp:94] Creating Layer ip3
I0505 18:12:37.666148  8488 net.cpp:435] ip3 <- ip2
I0505 18:12:37.666154  8488 net.cpp:409] ip3 -> ip3
I0505 18:12:37.666604  8488 net.cpp:144] Setting up ip3
I0505 18:12:37.666611  8488 net.cpp:151] Top shape: 20 50 (1000)
I0505 18:12:37.666615  8488 net.cpp:159] Memory required for data: 20223440
I0505 18:12:37.666620  8488 layer_factory.hpp:77] Creating layer ip3_ip3_0_split
I0505 18:12:37.666626  8488 net.cpp:94] Creating Layer ip3_ip3_0_split
I0505 18:12:37.666630  8488 net.cpp:435] ip3_ip3_0_split <- ip3
I0505 18:12:37.666635  8488 net.cpp:409] ip3_ip3_0_split -> ip3_ip3_0_split_0
I0505 18:12:37.666640  8488 net.cpp:409] ip3_ip3_0_split -> ip3_ip3_0_split_1
I0505 18:12:37.666684  8488 net.cpp:144] Setting up ip3_ip3_0_split
I0505 18:12:37.666690  8488 net.cpp:151] Top shape: 20 50 (1000)
I0505 18:12:37.666694  8488 net.cpp:151] Top shape: 20 50 (1000)
I0505 18:12:37.666697  8488 net.cpp:159] Memory required for data: 20231440
I0505 18:12:37.666700  8488 layer_factory.hpp:77] Creating layer accuracy
I0505 18:12:37.666707  8488 net.cpp:94] Creating Layer accuracy
I0505 18:12:37.666709  8488 net.cpp:435] accuracy <- ip3_ip3_0_split_0
I0505 18:12:37.666713  8488 net.cpp:435] accuracy <- label_intercept_1_split_0
I0505 18:12:37.666718  8488 net.cpp:409] accuracy -> accuracy
…
