…
I0503 17:12:18.043552 21497 net.cpp:323] The NetState phase (0) differed from the phase (1) specified by a rule in layer intercept
I0503 17:12:18.043572 21497 net.cpp:323] The NetState phase (0) differed from the phase (1) specified by a rule in layer accuracy
I0503 17:12:18.043670 21497 net.cpp:52] Initializing net from parameters: 
state {
  phase: TRAIN
}
layer {
  name: "parameters"
  type: "HDF5Data"
  top: "data"
  top: "label"
  include {
    phase: TRAIN
  }
  hdf5_data_param {
    source: "/home/purduethu/scratch/radon/d/deng106/CNNStatisticalModel/distributions/input/5_distributions_100_sample_size_train-distributions-path.txt"
    batch_size: 20
  }
}
layer {
  name: "conv1"
  type: "Convolution"
  bottom: "data"
  top: "conv1"
  param {
    lr_mult: 1
  }
  param {
    lr_mult: 2
  }
  convolution_param {
    num_output: 64
    pad: 2
    kernel_size: 5
    stride: 1
    weight_filler {
      type: "gaussian"
      std: 0.0001
    }
    bias_filler {
      type: "constant"
    }
  }
}
layer {
  name: "relu1"
  type: "ReLU"
  bottom: "conv1"
  top: "conv1"
}
layer {
  name: "conv2"
  type: "Convolution"
  bottom: "conv1"
  top: "conv2"
  param {
    lr_mult: 1
  }
  param {
    lr_mult: 2
  }
  convolution_param {
    num_output: 64
    pad: 2
    kernel_size: 5
    stride: 1
    weight_filler {
      type: "gaussian"
      std: 0.01
    }
    bias_filler {
      type: "constant"
    }
  }
}
layer {
  name: "relu2"
  type: "ReLU"
  bottom: "conv2"
  top: "conv2"
}
layer {
  name: "pool2"
  type: "Pooling"
  bottom: "conv2"
  top: "pool2"
  pooling_param {
    pool: MAX
    kernel_size: 3
    stride: 2
  }
}
layer {
  name: "conv3"
  type: "Convolution"
  bottom: "pool2"
  top: "conv3"
  param {
    lr_mult: 1
  }
  param {
    lr_mult: 2
  }
  convolution_param {
    num_output: 128
    pad: 2
    kernel_size: 5
    stride: 1
    weight_filler {
      type: "gaussian"
      std: 0.01
    }
    bias_filler {
      type: "constant"
    }
  }
}
layer {
  name: "relu3"
  type: "ReLU"
  bottom: "conv3"
  top: "conv3"
}
layer {
  name: "conv4"
  type: "Convolution"
  bottom: "conv3"
  top: "conv4"
  param {
    lr_mult: 1
  }
  param {
    lr_mult: 2
  }
  convolution_param {
    num_output: 128
    pad: 2
    kernel_size: 5
    stride: 1
    weight_filler {
      type: "gaussian"
      std: 0.01
    }
    bias_filler {
      type: "constant"
    }
  }
}
layer {
  name: "relu4"
  type: "ReLU"
  bottom: "conv4"
  top: "conv4"
}
layer {
  name: "conv5"
  type: "Convolution"
  bottom: "conv4"
  top: "conv5"
  param {
    lr_mult: 1
  }
  param {
    lr_mult: 2
  }
  convolution_param {
    num_output: 128
    pad: 2
    kernel_size: 5
    stride: 1
    weight_filler {
      type: "gaussian"
      std: 0.01
    }
    bias_filler {
      type: "constant"
    }
  }
}
layer {
  name: "relu5"
  type: "ReLU"
  bottom: "conv5"
  top: "conv5"
}
layer {
  name: "pool5"
  type: "Pooling"
  bottom: "conv5"
  top: "pool5"
  pooling_param {
    pool: AVE
    kernel_size: 3
    stride: 2
  }
}
layer {
  name: "ip1"
  type: "InnerProduct"
  bottom: "pool5"
  top: "ip1"
  param {
    lr_mult: 1
  }
  param {
    lr_mult: 2
  }
  inner_product_param {
    num_output: 1024
    weight_filler {
      type: "gaussian"
      std: 0.1
    }
    bias_filler {
      type: "constant"
    }
  }
}
layer {
  name: "ip2"
  type: "InnerProduct"
  bottom: "ip1"
  top: "ip2"
  param {
    lr_mult: 1
  }
  param {
    lr_mult: 2
  }
  inner_product_param {
    num_output: 512
    weight_filler {
      type: "gaussian"
      std: 0.1
    }
    bias_filler {
      type: "constant"
    }
  }
}
layer {
  name: "ip3"
  type: "InnerProduct"
  bottom: "ip2"
  top: "ip3"
  param {
    lr_mult: 1
  }
  param {
    lr_mult: 2
  }
  inner_product_param {
    num_output: 50
    weight_filler {
      type: "gaussian"
      std: 0.1
    }
    bias_filler {
      type: "constant"
    }
  }
}
layer {
  name: "loss"
  type: "SoftmaxWithLoss"
  bottom: "ip3"
  bottom: "label"
  top: "loss"
}
I0503 17:12:18.043753 21497 layer_factory.hpp:77] Creating layer parameters
I0503 17:12:18.043767 21497 net.cpp:94] Creating Layer parameters
I0503 17:12:18.043773 21497 net.cpp:409] parameters -> data
I0503 17:12:18.043793 21497 net.cpp:409] parameters -> label
I0503 17:12:18.043802 21497 hdf5_data_layer.cpp:79] Loading list of HDF5 filenames from: /home/purduethu/scratch/radon/d/deng106/CNNStatisticalModel/distributions/input/5_distributions_100_sample_size_train-distributions-path.txt
I0503 17:12:18.043828 21497 hdf5_data_layer.cpp:93] Number of HDF5 files: 1
I0503 17:12:18.044443 21497 hdf5.cpp:32] Datatype class: H5T_FLOAT
I0503 17:12:18.060847 21497 hdf5.cpp:35] Datatype class: H5T_INTEGER
I0503 17:12:18.061990 21497 net.cpp:144] Setting up parameters
I0503 17:12:18.062008 21497 net.cpp:151] Top shape: 20 1 10 10 (2000)
I0503 17:12:18.062014 21497 net.cpp:151] Top shape: 20 (20)
I0503 17:12:18.062018 21497 net.cpp:159] Memory required for data: 8080
I0503 17:12:18.062026 21497 layer_factory.hpp:77] Creating layer conv1
I0503 17:12:18.062044 21497 net.cpp:94] Creating Layer conv1
I0503 17:12:18.062049 21497 net.cpp:435] conv1 <- data
I0503 17:12:18.062059 21497 net.cpp:409] conv1 -> conv1
I0503 17:12:18.065884 21497 net.cpp:144] Setting up conv1
I0503 17:12:18.065899 21497 net.cpp:151] Top shape: 20 64 10 10 (128000)
I0503 17:12:18.065903 21497 net.cpp:159] Memory required for data: 520080
I0503 17:12:18.065915 21497 layer_factory.hpp:77] Creating layer relu1
I0503 17:12:18.065923 21497 net.cpp:94] Creating Layer relu1
I0503 17:12:18.065927 21497 net.cpp:435] relu1 <- conv1
I0503 17:12:18.065932 21497 net.cpp:396] relu1 -> conv1 (in-place)
I0503 17:12:18.065948 21497 net.cpp:144] Setting up relu1
I0503 17:12:18.065953 21497 net.cpp:151] Top shape: 20 64 10 10 (128000)
I0503 17:12:18.065955 21497 net.cpp:159] Memory required for data: 1032080
I0503 17:12:18.065959 21497 layer_factory.hpp:77] Creating layer conv2
I0503 17:12:18.065968 21497 net.cpp:94] Creating Layer conv2
I0503 17:12:18.065970 21497 net.cpp:435] conv2 <- conv1
I0503 17:12:18.065975 21497 net.cpp:409] conv2 -> conv2
I0503 17:12:18.071841 21497 net.cpp:144] Setting up conv2
I0503 17:12:18.071856 21497 net.cpp:151] Top shape: 20 64 10 10 (128000)
I0503 17:12:18.071861 21497 net.cpp:159] Memory required for data: 1544080
I0503 17:12:18.071868 21497 layer_factory.hpp:77] Creating layer relu2
I0503 17:12:18.071876 21497 net.cpp:94] Creating Layer relu2
I0503 17:12:18.071879 21497 net.cpp:435] relu2 <- conv2
I0503 17:12:18.071883 21497 net.cpp:396] relu2 -> conv2 (in-place)
I0503 17:12:18.071890 21497 net.cpp:144] Setting up relu2
I0503 17:12:18.071895 21497 net.cpp:151] Top shape: 20 64 10 10 (128000)
I0503 17:12:18.071898 21497 net.cpp:159] Memory required for data: 2056080
I0503 17:12:18.071902 21497 layer_factory.hpp:77] Creating layer pool2
I0503 17:12:18.071916 21497 net.cpp:94] Creating Layer pool2
I0503 17:12:18.071920 21497 net.cpp:435] pool2 <- conv2
I0503 17:12:18.071924 21497 net.cpp:409] pool2 -> pool2
I0503 17:12:18.071970 21497 net.cpp:144] Setting up pool2
I0503 17:12:18.071979 21497 net.cpp:151] Top shape: 20 64 5 5 (32000)
I0503 17:12:18.071981 21497 net.cpp:159] Memory required for data: 2184080
I0503 17:12:18.071985 21497 layer_factory.hpp:77] Creating layer conv3
I0503 17:12:18.071993 21497 net.cpp:94] Creating Layer conv3
I0503 17:12:18.071996 21497 net.cpp:435] conv3 <- pool2
I0503 17:12:18.072010 21497 net.cpp:409] conv3 -> conv3
I0503 17:12:18.080173 21497 net.cpp:144] Setting up conv3
I0503 17:12:18.080188 21497 net.cpp:151] Top shape: 20 128 5 5 (64000)
I0503 17:12:18.080191 21497 net.cpp:159] Memory required for data: 2440080
I0503 17:12:18.080200 21497 layer_factory.hpp:77] Creating layer relu3
I0503 17:12:18.080206 21497 net.cpp:94] Creating Layer relu3
I0503 17:12:18.080210 21497 net.cpp:435] relu3 <- conv3
I0503 17:12:18.080214 21497 net.cpp:396] relu3 -> conv3 (in-place)
I0503 17:12:18.080221 21497 net.cpp:144] Setting up relu3
I0503 17:12:18.080226 21497 net.cpp:151] Top shape: 20 128 5 5 (64000)
I0503 17:12:18.080229 21497 net.cpp:159] Memory required for data: 2696080
I0503 17:12:18.080232 21497 layer_factory.hpp:77] Creating layer conv4
I0503 17:12:18.080241 21497 net.cpp:94] Creating Layer conv4
I0503 17:12:18.080245 21497 net.cpp:435] conv4 <- conv3
I0503 17:12:18.080250 21497 net.cpp:409] conv4 -> conv4
I0503 17:12:18.095511 21497 net.cpp:144] Setting up conv4
I0503 17:12:18.095526 21497 net.cpp:151] Top shape: 20 128 5 5 (64000)
I0503 17:12:18.095531 21497 net.cpp:159] Memory required for data: 2952080
I0503 17:12:18.095537 21497 layer_factory.hpp:77] Creating layer relu4
I0503 17:12:18.095543 21497 net.cpp:94] Creating Layer relu4
I0503 17:12:18.095547 21497 net.cpp:435] relu4 <- conv4
I0503 17:12:18.095552 21497 net.cpp:396] relu4 -> conv4 (in-place)
I0503 17:12:18.095559 21497 net.cpp:144] Setting up relu4
I0503 17:12:18.095564 21497 net.cpp:151] Top shape: 20 128 5 5 (64000)
I0503 17:12:18.095567 21497 net.cpp:159] Memory required for data: 3208080
I0503 17:12:18.095571 21497 layer_factory.hpp:77] Creating layer conv5
I0503 17:12:18.095579 21497 net.cpp:94] Creating Layer conv5
I0503 17:12:18.095583 21497 net.cpp:435] conv5 <- conv4
I0503 17:12:18.095588 21497 net.cpp:409] conv5 -> conv5
I0503 17:12:18.110324 21497 net.cpp:144] Setting up conv5
I0503 17:12:18.110340 21497 net.cpp:151] Top shape: 20 128 5 5 (64000)
I0503 17:12:18.110344 21497 net.cpp:159] Memory required for data: 3464080
I0503 17:12:18.110354 21497 layer_factory.hpp:77] Creating layer relu5
I0503 17:12:18.110360 21497 net.cpp:94] Creating Layer relu5
I0503 17:12:18.110364 21497 net.cpp:435] relu5 <- conv5
I0503 17:12:18.110368 21497 net.cpp:396] relu5 -> conv5 (in-place)
I0503 17:12:18.110376 21497 net.cpp:144] Setting up relu5
I0503 17:12:18.110381 21497 net.cpp:151] Top shape: 20 128 5 5 (64000)
I0503 17:12:18.110384 21497 net.cpp:159] Memory required for data: 3720080
I0503 17:12:18.110388 21497 layer_factory.hpp:77] Creating layer pool5
I0503 17:12:18.110393 21497 net.cpp:94] Creating Layer pool5
I0503 17:12:18.110396 21497 net.cpp:435] pool5 <- conv5
I0503 17:12:18.110400 21497 net.cpp:409] pool5 -> pool5
I0503 17:12:18.110436 21497 net.cpp:144] Setting up pool5
I0503 17:12:18.110445 21497 net.cpp:151] Top shape: 20 128 2 2 (10240)
I0503 17:12:18.110447 21497 net.cpp:159] Memory required for data: 3761040
I0503 17:12:18.110450 21497 layer_factory.hpp:77] Creating layer ip1
I0503 17:12:18.110460 21497 net.cpp:94] Creating Layer ip1
I0503 17:12:18.110465 21497 net.cpp:435] ip1 <- pool5
I0503 17:12:18.110469 21497 net.cpp:409] ip1 -> ip1
I0503 17:12:18.124593 21497 net.cpp:144] Setting up ip1
I0503 17:12:18.124608 21497 net.cpp:151] Top shape: 20 1024 (20480)
I0503 17:12:18.124611 21497 net.cpp:159] Memory required for data: 3842960
I0503 17:12:18.124619 21497 layer_factory.hpp:77] Creating layer ip2
I0503 17:12:18.124625 21497 net.cpp:94] Creating Layer ip2
I0503 17:12:18.124634 21497 net.cpp:435] ip2 <- ip1
I0503 17:12:18.124640 21497 net.cpp:409] ip2 -> ip2
I0503 17:12:18.138082 21497 net.cpp:144] Setting up ip2
I0503 17:12:18.138097 21497 net.cpp:151] Top shape: 20 512 (10240)
I0503 17:12:18.138101 21497 net.cpp:159] Memory required for data: 3883920
I0503 17:12:18.138108 21497 layer_factory.hpp:77] Creating layer ip3
I0503 17:12:18.138113 21497 net.cpp:94] Creating Layer ip3
I0503 17:12:18.138118 21497 net.cpp:435] ip3 <- ip2
I0503 17:12:18.138123 21497 net.cpp:409] ip3 -> ip3
I0503 17:12:18.138839 21497 net.cpp:144] Setting up ip3
I0503 17:12:18.138847 21497 net.cpp:151] Top shape: 20 50 (1000)
I0503 17:12:18.138851 21497 net.cpp:159] Memory required for data: 3887920
I0503 17:12:18.138856 21497 layer_factory.hpp:77] Creating layer loss
I0503 17:12:18.138864 21497 net.cpp:94] Creating Layer loss
I0503 17:12:18.138867 21497 net.cpp:435] loss <- ip3
I0503 17:12:18.138871 21497 net.cpp:435] loss <- label
I0503 17:12:18.138877 21497 net.cpp:409] loss -> loss
I0503 17:12:18.138887 21497 layer_factory.hpp:77] Creating layer loss
…
I0503 17:12:18.139395 21497 solver.cpp:181] Creating test net (#0) specified by net file: ./protocol/dis_5_100_dimension.protocol_distribution
I0503 17:12:18.139423 21497 net.cpp:323] The NetState phase (1) differed from the phase (0) specified by a rule in layer parameters
I0503 17:12:18.139523 21497 net.cpp:52] Initializing net from parameters: 
state {
  phase: TEST
}
layer {
  name: "intercept"
  type: "HDF5Data"
  top: "data"
  top: "label"
  include {
    phase: TEST
  }
  hdf5_data_param {
    source: "/home/purduethu/scratch/radon/d/deng106/CNNStatisticalModel/distributions/input/5_distributions_100_sample_size_test-distributions-path.txt"
    batch_size: 20
  }
}
layer {
  name: "conv1"
  type: "Convolution"
  bottom: "data"
  top: "conv1"
  param {
    lr_mult: 1
  }
  param {
    lr_mult: 2
  }
  convolution_param {
    num_output: 64
    pad: 2
    kernel_size: 5
    stride: 1
    weight_filler {
      type: "gaussian"
      std: 0.0001
    }
    bias_filler {
      type: "constant"
    }
  }
}
layer {
  name: "relu1"
  type: "ReLU"
  bottom: "conv1"
  top: "conv1"
}
layer {
  name: "conv2"
  type: "Convolution"
  bottom: "conv1"
  top: "conv2"
  param {
    lr_mult: 1
  }
  param {
    lr_mult: 2
  }
  convolution_param {
    num_output: 64
    pad: 2
    kernel_size: 5
    stride: 1
    weight_filler {
      type: "gaussian"
      std: 0.01
    }
    bias_filler {
      type: "constant"
    }
  }
}
layer {
  name: "relu2"
  type: "ReLU"
  bottom: "conv2"
  top: "conv2"
}
layer {
  name: "pool2"
  type: "Pooling"
  bottom: "conv2"
  top: "pool2"
  pooling_param {
    pool: MAX
    kernel_size: 3
    stride: 2
  }
}
layer {
  name: "conv3"
  type: "Convolution"
  bottom: "pool2"
  top: "conv3"
  param {
    lr_mult: 1
  }
  param {
    lr_mult: 2
  }
  convolution_param {
    num_output: 128
    pad: 2
    kernel_size: 5
    stride: 1
    weight_filler {
      type: "gaussian"
      std: 0.01
    }
    bias_filler {
      type: "constant"
    }
  }
}
layer {
  name: "relu3"
  type: "ReLU"
  bottom: "conv3"
  top: "conv3"
}
layer {
  name: "conv4"
  type: "Convolution"
  bottom: "conv3"
  top: "conv4"
  param {
    lr_mult: 1
  }
  param {
    lr_mult: 2
  }
  convolution_param {
    num_output: 128
    pad: 2
    kernel_size: 5
    stride: 1
    weight_filler {
      type: "gaussian"
      std: 0.01
    }
    bias_filler {
      type: "constant"
    }
  }
}
layer {
  name: "relu4"
  type: "ReLU"
  bottom: "conv4"
  top: "conv4"
}
layer {
  name: "conv5"
  type: "Convolution"
  bottom: "conv4"
  top: "conv5"
  param {
    lr_mult: 1
  }
  param {
    lr_mult: 2
  }
  convolution_param {
    num_output: 128
    pad: 2
    kernel_size: 5
    stride: 1
    weight_filler {
      type: "gaussian"
      std: 0.01
    }
    bias_filler {
      type: "constant"
    }
  }
}
layer {
  name: "relu5"
  type: "ReLU"
  bottom: "conv5"
  top: "conv5"
}
layer {
  name: "pool5"
  type: "Pooling"
  bottom: "conv5"
  top: "pool5"
  pooling_param {
    pool: AVE
    kernel_size: 3
    stride: 2
  }
}
layer {
  name: "ip1"
  type: "InnerProduct"
  bottom: "pool5"
  top: "ip1"
  param {
    lr_mult: 1
  }
  param {
    lr_mult: 2
  }
  inner_product_param {
    num_output: 1024
    weight_filler {
      type: "gaussian"
      std: 0.1
    }
    bias_filler {
      type: "constant"
    }
  }
}
layer {
  name: "ip2"
  type: "InnerProduct"
  bottom: "ip1"
  top: "ip2"
  param {
    lr_mult: 1
  }
  param {
    lr_mult: 2
  }
  inner_product_param {
    num_output: 512
    weight_filler {
      type: "gaussian"
      std: 0.1
    }
    bias_filler {
      type: "constant"
    }
  }
}
layer {
  name: "ip3"
  type: "InnerProduct"
  bottom: "ip2"
  top: "ip3"
  param {
    lr_mult: 1
  }
  param {
    lr_mult: 2
  }
  inner_product_param {
    num_output: 50
    weight_filler {
      type: "gaussian"
      std: 0.1
    }
    bias_filler {
      type: "constant"
    }
  }
}
layer {
  name: "accuracy"
  type: "Accuracy"
  bottom: "ip3"
  bottom: "label"
  top: "accuracy"
  include {
    phase: TEST
  }
}
layer {
  name: "loss"
  type: "SoftmaxWithLoss"
  bottom: "ip3"
  bottom: "label"
  top: "loss"
}
I0503 17:12:18.139600 21497 layer_factory.hpp:77] Creating layer intercept
I0503 17:12:18.139608 21497 net.cpp:94] Creating Layer intercept
I0503 17:12:18.139613 21497 net.cpp:409] intercept -> data
I0503 17:12:18.139621 21497 net.cpp:409] intercept -> label
I0503 17:12:18.139626 21497 hdf5_data_layer.cpp:79] Loading list of HDF5 filenames from: /home/purduethu/scratch/radon/d/deng106/CNNStatisticalModel/distributions/input/5_distributions_100_sample_size_test-distributions-path.txt
I0503 17:12:18.139647 21497 hdf5_data_layer.cpp:93] Number of HDF5 files: 1
I0503 17:12:18.144594 21497 net.cpp:144] Setting up intercept
I0503 17:12:18.144620 21497 net.cpp:151] Top shape: 20 1 10 10 (2000)
I0503 17:12:18.144626 21497 net.cpp:151] Top shape: 20 (20)
I0503 17:12:18.144629 21497 net.cpp:159] Memory required for data: 8080
I0503 17:12:18.144634 21497 layer_factory.hpp:77] Creating layer label_intercept_1_split
I0503 17:12:18.144649 21497 net.cpp:94] Creating Layer label_intercept_1_split
I0503 17:12:18.144654 21497 net.cpp:435] label_intercept_1_split <- label
I0503 17:12:18.144659 21497 net.cpp:409] label_intercept_1_split -> label_intercept_1_split_0
I0503 17:12:18.144667 21497 net.cpp:409] label_intercept_1_split -> label_intercept_1_split_1
I0503 17:12:18.144701 21497 net.cpp:144] Setting up label_intercept_1_split
I0503 17:12:18.144707 21497 net.cpp:151] Top shape: 20 (20)
I0503 17:12:18.144711 21497 net.cpp:151] Top shape: 20 (20)
I0503 17:12:18.144716 21497 net.cpp:159] Memory required for data: 8240
I0503 17:12:18.144718 21497 layer_factory.hpp:77] Creating layer conv1
I0503 17:12:18.144727 21497 net.cpp:94] Creating Layer conv1
I0503 17:12:18.144731 21497 net.cpp:435] conv1 <- data
I0503 17:12:18.144737 21497 net.cpp:409] conv1 -> conv1
I0503 17:12:18.145440 21497 net.cpp:144] Setting up conv1
I0503 17:12:18.145462 21497 net.cpp:151] Top shape: 20 64 10 10 (128000)
I0503 17:12:18.145467 21497 net.cpp:159] Memory required for data: 520240
I0503 17:12:18.145475 21497 layer_factory.hpp:77] Creating layer relu1
I0503 17:12:18.145483 21497 net.cpp:94] Creating Layer relu1
I0503 17:12:18.145486 21497 net.cpp:435] relu1 <- conv1
I0503 17:12:18.145490 21497 net.cpp:396] relu1 -> conv1 (in-place)
I0503 17:12:18.145498 21497 net.cpp:144] Setting up relu1
I0503 17:12:18.145503 21497 net.cpp:151] Top shape: 20 64 10 10 (128000)
I0503 17:12:18.145505 21497 net.cpp:159] Memory required for data: 1032240
I0503 17:12:18.145509 21497 layer_factory.hpp:77] Creating layer conv2
I0503 17:12:18.145516 21497 net.cpp:94] Creating Layer conv2
I0503 17:12:18.145520 21497 net.cpp:435] conv2 <- conv1
I0503 17:12:18.145525 21497 net.cpp:409] conv2 -> conv2
I0503 17:12:18.149432 21497 net.cpp:144] Setting up conv2
I0503 17:12:18.149446 21497 net.cpp:151] Top shape: 20 64 10 10 (128000)
I0503 17:12:18.149451 21497 net.cpp:159] Memory required for data: 1544240
I0503 17:12:18.149458 21497 layer_factory.hpp:77] Creating layer relu2
I0503 17:12:18.149464 21497 net.cpp:94] Creating Layer relu2
I0503 17:12:18.149468 21497 net.cpp:435] relu2 <- conv2
I0503 17:12:18.149472 21497 net.cpp:396] relu2 -> conv2 (in-place)
I0503 17:12:18.149478 21497 net.cpp:144] Setting up relu2
I0503 17:12:18.149483 21497 net.cpp:151] Top shape: 20 64 10 10 (128000)
I0503 17:12:18.149487 21497 net.cpp:159] Memory required for data: 2056240
I0503 17:12:18.149489 21497 layer_factory.hpp:77] Creating layer pool2
I0503 17:12:18.149495 21497 net.cpp:94] Creating Layer pool2
I0503 17:12:18.149498 21497 net.cpp:435] pool2 <- conv2
I0503 17:12:18.149502 21497 net.cpp:409] pool2 -> pool2
I0503 17:12:18.149536 21497 net.cpp:144] Setting up pool2
I0503 17:12:18.149543 21497 net.cpp:151] Top shape: 20 64 5 5 (32000)
I0503 17:12:18.149546 21497 net.cpp:159] Memory required for data: 2184240
I0503 17:12:18.149549 21497 layer_factory.hpp:77] Creating layer conv3
I0503 17:12:18.149556 21497 net.cpp:94] Creating Layer conv3
I0503 17:12:18.149559 21497 net.cpp:435] conv3 <- pool2
I0503 17:12:18.149564 21497 net.cpp:409] conv3 -> conv3
I0503 17:12:18.156103 21497 net.cpp:144] Setting up conv3
I0503 17:12:18.156116 21497 net.cpp:151] Top shape: 20 128 5 5 (64000)
I0503 17:12:18.156121 21497 net.cpp:159] Memory required for data: 2440240
I0503 17:12:18.156129 21497 layer_factory.hpp:77] Creating layer relu3
I0503 17:12:18.156136 21497 net.cpp:94] Creating Layer relu3
I0503 17:12:18.156139 21497 net.cpp:435] relu3 <- conv3
I0503 17:12:18.156144 21497 net.cpp:396] relu3 -> conv3 (in-place)
I0503 17:12:18.156150 21497 net.cpp:144] Setting up relu3
I0503 17:12:18.156155 21497 net.cpp:151] Top shape: 20 128 5 5 (64000)
I0503 17:12:18.156158 21497 net.cpp:159] Memory required for data: 2696240
I0503 17:12:18.156162 21497 layer_factory.hpp:77] Creating layer conv4
I0503 17:12:18.156169 21497 net.cpp:94] Creating Layer conv4
I0503 17:12:18.156172 21497 net.cpp:435] conv4 <- conv3
I0503 17:12:18.156177 21497 net.cpp:409] conv4 -> conv4
I0503 17:12:18.168861 21497 net.cpp:144] Setting up conv4
I0503 17:12:18.168876 21497 net.cpp:151] Top shape: 20 128 5 5 (64000)
I0503 17:12:18.168880 21497 net.cpp:159] Memory required for data: 2952240
I0503 17:12:18.168887 21497 layer_factory.hpp:77] Creating layer relu4
I0503 17:12:18.168893 21497 net.cpp:94] Creating Layer relu4
I0503 17:12:18.168897 21497 net.cpp:435] relu4 <- conv4
I0503 17:12:18.168906 21497 net.cpp:396] relu4 -> conv4 (in-place)
I0503 17:12:18.168915 21497 net.cpp:144] Setting up relu4
I0503 17:12:18.168918 21497 net.cpp:151] Top shape: 20 128 5 5 (64000)
I0503 17:12:18.168922 21497 net.cpp:159] Memory required for data: 3208240
I0503 17:12:18.168926 21497 layer_factory.hpp:77] Creating layer conv5
I0503 17:12:18.168932 21497 net.cpp:94] Creating Layer conv5
I0503 17:12:18.168936 21497 net.cpp:435] conv5 <- conv4
I0503 17:12:18.168941 21497 net.cpp:409] conv5 -> conv5
I0503 17:12:18.181601 21497 net.cpp:144] Setting up conv5
I0503 17:12:18.181635 21497 net.cpp:151] Top shape: 20 128 5 5 (64000)
I0503 17:12:18.181651 21497 net.cpp:159] Memory required for data: 3464240
I0503 17:12:18.181660 21497 layer_factory.hpp:77] Creating layer relu5
I0503 17:12:18.181666 21497 net.cpp:94] Creating Layer relu5
I0503 17:12:18.181670 21497 net.cpp:435] relu5 <- conv5
I0503 17:12:18.181674 21497 net.cpp:396] relu5 -> conv5 (in-place)
I0503 17:12:18.181681 21497 net.cpp:144] Setting up relu5
I0503 17:12:18.181686 21497 net.cpp:151] Top shape: 20 128 5 5 (64000)
I0503 17:12:18.181689 21497 net.cpp:159] Memory required for data: 3720240
I0503 17:12:18.181692 21497 layer_factory.hpp:77] Creating layer pool5
I0503 17:12:18.181697 21497 net.cpp:94] Creating Layer pool5
I0503 17:12:18.181700 21497 net.cpp:435] pool5 <- conv5
I0503 17:12:18.181705 21497 net.cpp:409] pool5 -> pool5
I0503 17:12:18.181731 21497 net.cpp:144] Setting up pool5
I0503 17:12:18.181737 21497 net.cpp:151] Top shape: 20 128 2 2 (10240)
I0503 17:12:18.181740 21497 net.cpp:159] Memory required for data: 3761200
I0503 17:12:18.181743 21497 layer_factory.hpp:77] Creating layer ip1
I0503 17:12:18.181751 21497 net.cpp:94] Creating Layer ip1
I0503 17:12:18.181754 21497 net.cpp:435] ip1 <- pool5
I0503 17:12:18.181758 21497 net.cpp:409] ip1 -> ip1
I0503 17:12:18.195253 21497 net.cpp:144] Setting up ip1
I0503 17:12:18.195267 21497 net.cpp:151] Top shape: 20 1024 (20480)
I0503 17:12:18.195271 21497 net.cpp:159] Memory required for data: 3843120
I0503 17:12:18.195277 21497 layer_factory.hpp:77] Creating layer ip2
I0503 17:12:18.195284 21497 net.cpp:94] Creating Layer ip2
I0503 17:12:18.195287 21497 net.cpp:435] ip2 <- ip1
I0503 17:12:18.195293 21497 net.cpp:409] ip2 -> ip2
I0503 17:12:18.208739 21497 net.cpp:144] Setting up ip2
I0503 17:12:18.208752 21497 net.cpp:151] Top shape: 20 512 (10240)
I0503 17:12:18.208756 21497 net.cpp:159] Memory required for data: 3884080
I0503 17:12:18.208762 21497 layer_factory.hpp:77] Creating layer ip3
I0503 17:12:18.208770 21497 net.cpp:94] Creating Layer ip3
I0503 17:12:18.208775 21497 net.cpp:435] ip3 <- ip2
I0503 17:12:18.208780 21497 net.cpp:409] ip3 -> ip3
I0503 17:12:18.209486 21497 net.cpp:144] Setting up ip3
I0503 17:12:18.209492 21497 net.cpp:151] Top shape: 20 50 (1000)
I0503 17:12:18.209496 21497 net.cpp:159] Memory required for data: 3888080
I0503 17:12:18.209501 21497 layer_factory.hpp:77] Creating layer ip3_ip3_0_split
I0503 17:12:18.209506 21497 net.cpp:94] Creating Layer ip3_ip3_0_split
I0503 17:12:18.209509 21497 net.cpp:435] ip3_ip3_0_split <- ip3
I0503 17:12:18.209514 21497 net.cpp:409] ip3_ip3_0_split -> ip3_ip3_0_split_0
I0503 17:12:18.209519 21497 net.cpp:409] ip3_ip3_0_split -> ip3_ip3_0_split_1
I0503 17:12:18.209545 21497 net.cpp:144] Setting up ip3_ip3_0_split
I0503 17:12:18.209552 21497 net.cpp:151] Top shape: 20 50 (1000)
I0503 17:12:18.209555 21497 net.cpp:151] Top shape: 20 50 (1000)
I0503 17:12:18.209558 21497 net.cpp:159] Memory required for data: 3896080
I0503 17:12:18.209561 21497 layer_factory.hpp:77] Creating layer accuracy
I0503 17:12:18.209571 21497 net.cpp:94] Creating Layer accuracy
I0503 17:12:18.209575 21497 net.cpp:435] accuracy <- ip3_ip3_0_split_0
I0503 17:12:18.209579 21497 net.cpp:435] accuracy <- label_intercept_1_split_0
I0503 17:12:18.209583 21497 net.cpp:409] accuracy -> accuracy
…
