…
I0502 23:57:57.312379 15922 net.cpp:323] The NetState phase (0) differed from the phase (1) specified by a rule in layer intercept
I0502 23:57:57.312397 15922 net.cpp:323] The NetState phase (0) differed from the phase (1) specified by a rule in layer loss
I0502 23:57:57.312475 15922 net.cpp:52] Initializing net from parameters: 
state {
  phase: TRAIN
}
layer {
  name: "parameters"
  type: "HDF5Data"
  top: "data"
  top: "label"
  include {
    phase: TRAIN
  }
  hdf5_data_param {
    source: "/home/purduethu/scratch/radon/d/deng106/CNNStatisticalModel/distributions/input/50_distributions_100_sample_size_train-parameters-path.txt"
    batch_size: 20
  }
}
layer {
  name: "conv1"
  type: "Convolution"
  bottom: "data"
  top: "conv1"
  param {
    lr_mult: 1
  }
  param {
    lr_mult: 2
  }
  convolution_param {
    num_output: 64
    pad: 2
    kernel_size: 5
    stride: 1
    weight_filler {
      type: "gaussian"
      std: 0.0001
    }
    bias_filler {
      type: "constant"
    }
  }
}
layer {
  name: "relu1"
  type: "ReLU"
  bottom: "conv1"
  top: "conv1"
}
layer {
  name: "conv2"
  type: "Convolution"
  bottom: "conv1"
  top: "conv2"
  param {
    lr_mult: 1
  }
  param {
    lr_mult: 2
  }
  convolution_param {
    num_output: 64
    pad: 2
    kernel_size: 5
    stride: 1
    weight_filler {
      type: "gaussian"
      std: 0.01
    }
    bias_filler {
      type: "constant"
    }
  }
}
layer {
  name: "relu2"
  type: "ReLU"
  bottom: "conv2"
  top: "conv2"
}
layer {
  name: "pool2"
  type: "Pooling"
  bottom: "conv2"
  top: "pool2"
  pooling_param {
    pool: MAX
    kernel_size: 3
    stride: 2
  }
}
layer {
  name: "conv3"
  type: "Convolution"
  bottom: "pool2"
  top: "conv3"
  param {
    lr_mult: 1
  }
  param {
    lr_mult: 2
  }
  convolution_param {
    num_output: 128
    pad: 2
    kernel_size: 5
    stride: 1
    weight_filler {
      type: "gaussian"
      std: 0.01
    }
    bias_filler {
      type: "constant"
    }
  }
}
layer {
  name: "relu3"
  type: "ReLU"
  bottom: "conv3"
  top: "conv3"
}
layer {
  name: "conv4"
  type: "Convolution"
  bottom: "conv3"
  top: "conv4"
  param {
    lr_mult: 1
  }
  param {
    lr_mult: 2
  }
  convolution_param {
    num_output: 128
    pad: 2
    kernel_size: 5
    stride: 1
    weight_filler {
      type: "gaussian"
      std: 0.01
    }
    bias_filler {
      type: "constant"
    }
  }
}
layer {
  name: "relu4"
  type: "ReLU"
  bottom: "conv4"
  top: "conv4"
}
layer {
  name: "conv5"
  type: "Convolution"
  bottom: "conv4"
  top: "conv5"
  param {
    lr_mult: 1
  }
  param {
    lr_mult: 2
  }
  convolution_param {
    num_output: 128
    pad: 2
    kernel_size: 5
    stride: 1
    weight_filler {
      type: "gaussian"
      std: 0.01
    }
    bias_filler {
      type: "constant"
    }
  }
}
layer {
  name: "relu5"
  type: "ReLU"
  bottom: "conv5"
  top: "conv5"
}
layer {
  name: "pool5"
  type: "Pooling"
  bottom: "conv5"
  top: "pool5"
  pooling_param {
    pool: AVE
    kernel_size: 3
    stride: 2
  }
}
layer {
  name: "ip1"
  type: "InnerProduct"
  bottom: "pool5"
  top: "ip1"
  param {
    lr_mult: 1
  }
  param {
    lr_mult: 2
  }
  inner_product_param {
    num_output: 1024
    weight_filler {
      type: "gaussian"
      std: 0.1
    }
    bias_filler {
      type: "constant"
    }
  }
}
layer {
  name: "ip2"
  type: "InnerProduct"
  bottom: "ip1"
  top: "ip2"
  param {
    lr_mult: 1
  }
  param {
    lr_mult: 2
  }
  inner_product_param {
    num_output: 512
    weight_filler {
      type: "gaussian"
      std: 0.1
    }
    bias_filler {
      type: "constant"
    }
  }
}
layer {
  name: "ip3"
  type: "InnerProduct"
  bottom: "ip2"
  top: "ip3"
  param {
    lr_mult: 1
  }
  param {
    lr_mult: 2
  }
  inner_product_param {
    num_output: 1
    weight_filler {
      type: "gaussian"
      std: 0.1
    }
    bias_filler {
      type: "constant"
    }
  }
}
layer {
  name: "loss"
  type: "HuberLoss"
  bottom: "ip3"
  bottom: "label"
  top: "loss"
  include {
    phase: TRAIN
  }
}
I0502 23:57:57.312528 15922 layer_factory.hpp:77] Creating layer parameters
I0502 23:57:57.312541 15922 net.cpp:94] Creating Layer parameters
I0502 23:57:57.312546 15922 net.cpp:409] parameters -> data
I0502 23:57:57.312567 15922 net.cpp:409] parameters -> label
I0502 23:57:57.312575 15922 hdf5_data_layer.cpp:79] Loading list of HDF5 filenames from: /home/purduethu/scratch/radon/d/deng106/CNNStatisticalModel/distributions/input/50_distributions_100_sample_size_train-parameters-path.txt
I0502 23:57:57.312592 15922 hdf5_data_layer.cpp:93] Number of HDF5 files: 1
I0502 23:57:57.313153 15922 hdf5.cpp:32] Datatype class: H5T_FLOAT
I0502 23:57:57.476462 15922 net.cpp:144] Setting up parameters
I0502 23:57:57.476493 15922 net.cpp:151] Top shape: 20 1 10 10 (2000)
I0502 23:57:57.476498 15922 net.cpp:151] Top shape: 20 (20)
I0502 23:57:57.476501 15922 net.cpp:159] Memory required for data: 8080
I0502 23:57:57.476507 15922 layer_factory.hpp:77] Creating layer conv1
I0502 23:57:57.476528 15922 net.cpp:94] Creating Layer conv1
I0502 23:57:57.476533 15922 net.cpp:435] conv1 <- data
I0502 23:57:57.476539 15922 net.cpp:409] conv1 -> conv1
I0502 23:57:57.480800 15922 net.cpp:144] Setting up conv1
I0502 23:57:57.480819 15922 net.cpp:151] Top shape: 20 64 10 10 (128000)
I0502 23:57:57.480823 15922 net.cpp:159] Memory required for data: 520080
I0502 23:57:57.480834 15922 layer_factory.hpp:77] Creating layer relu1
I0502 23:57:57.480841 15922 net.cpp:94] Creating Layer relu1
I0502 23:57:57.480845 15922 net.cpp:435] relu1 <- conv1
I0502 23:57:57.480849 15922 net.cpp:396] relu1 -> conv1 (in-place)
I0502 23:57:57.480865 15922 net.cpp:144] Setting up relu1
I0502 23:57:57.480868 15922 net.cpp:151] Top shape: 20 64 10 10 (128000)
I0502 23:57:57.480871 15922 net.cpp:159] Memory required for data: 1032080
I0502 23:57:57.480875 15922 layer_factory.hpp:77] Creating layer conv2
I0502 23:57:57.480883 15922 net.cpp:94] Creating Layer conv2
I0502 23:57:57.480886 15922 net.cpp:435] conv2 <- conv1
I0502 23:57:57.480891 15922 net.cpp:409] conv2 -> conv2
I0502 23:57:57.487110 15922 net.cpp:144] Setting up conv2
I0502 23:57:57.487124 15922 net.cpp:151] Top shape: 20 64 10 10 (128000)
I0502 23:57:57.487128 15922 net.cpp:159] Memory required for data: 1544080
I0502 23:57:57.487136 15922 layer_factory.hpp:77] Creating layer relu2
I0502 23:57:57.487143 15922 net.cpp:94] Creating Layer relu2
I0502 23:57:57.487146 15922 net.cpp:435] relu2 <- conv2
I0502 23:57:57.487151 15922 net.cpp:396] relu2 -> conv2 (in-place)
I0502 23:57:57.487157 15922 net.cpp:144] Setting up relu2
I0502 23:57:57.487162 15922 net.cpp:151] Top shape: 20 64 10 10 (128000)
I0502 23:57:57.487165 15922 net.cpp:159] Memory required for data: 2056080
I0502 23:57:57.487169 15922 layer_factory.hpp:77] Creating layer pool2
I0502 23:57:57.487174 15922 net.cpp:94] Creating Layer pool2
I0502 23:57:57.487184 15922 net.cpp:435] pool2 <- conv2
I0502 23:57:57.487188 15922 net.cpp:409] pool2 -> pool2
I0502 23:57:57.487244 15922 net.cpp:144] Setting up pool2
I0502 23:57:57.487252 15922 net.cpp:151] Top shape: 20 64 5 5 (32000)
I0502 23:57:57.487256 15922 net.cpp:159] Memory required for data: 2184080
I0502 23:57:57.487258 15922 layer_factory.hpp:77] Creating layer conv3
I0502 23:57:57.487267 15922 net.cpp:94] Creating Layer conv3
I0502 23:57:57.487270 15922 net.cpp:435] conv3 <- pool2
I0502 23:57:57.487275 15922 net.cpp:409] conv3 -> conv3
I0502 23:57:57.495492 15922 net.cpp:144] Setting up conv3
I0502 23:57:57.495507 15922 net.cpp:151] Top shape: 20 128 5 5 (64000)
I0502 23:57:57.495510 15922 net.cpp:159] Memory required for data: 2440080
I0502 23:57:57.495518 15922 layer_factory.hpp:77] Creating layer relu3
I0502 23:57:57.495524 15922 net.cpp:94] Creating Layer relu3
I0502 23:57:57.495528 15922 net.cpp:435] relu3 <- conv3
I0502 23:57:57.495532 15922 net.cpp:396] relu3 -> conv3 (in-place)
I0502 23:57:57.495539 15922 net.cpp:144] Setting up relu3
I0502 23:57:57.495543 15922 net.cpp:151] Top shape: 20 128 5 5 (64000)
I0502 23:57:57.495546 15922 net.cpp:159] Memory required for data: 2696080
I0502 23:57:57.495549 15922 layer_factory.hpp:77] Creating layer conv4
I0502 23:57:57.495558 15922 net.cpp:94] Creating Layer conv4
I0502 23:57:57.495561 15922 net.cpp:435] conv4 <- conv3
I0502 23:57:57.495565 15922 net.cpp:409] conv4 -> conv4
I0502 23:57:57.510855 15922 net.cpp:144] Setting up conv4
I0502 23:57:57.510874 15922 net.cpp:151] Top shape: 20 128 5 5 (64000)
I0502 23:57:57.510877 15922 net.cpp:159] Memory required for data: 2952080
I0502 23:57:57.510885 15922 layer_factory.hpp:77] Creating layer relu4
I0502 23:57:57.510890 15922 net.cpp:94] Creating Layer relu4
I0502 23:57:57.510895 15922 net.cpp:435] relu4 <- conv4
I0502 23:57:57.510898 15922 net.cpp:396] relu4 -> conv4 (in-place)
I0502 23:57:57.510906 15922 net.cpp:144] Setting up relu4
I0502 23:57:57.510910 15922 net.cpp:151] Top shape: 20 128 5 5 (64000)
I0502 23:57:57.510913 15922 net.cpp:159] Memory required for data: 3208080
I0502 23:57:57.510916 15922 layer_factory.hpp:77] Creating layer conv5
I0502 23:57:57.510924 15922 net.cpp:94] Creating Layer conv5
I0502 23:57:57.510927 15922 net.cpp:435] conv5 <- conv4
I0502 23:57:57.510932 15922 net.cpp:409] conv5 -> conv5
I0502 23:57:57.525610 15922 net.cpp:144] Setting up conv5
I0502 23:57:57.525629 15922 net.cpp:151] Top shape: 20 128 5 5 (64000)
I0502 23:57:57.525632 15922 net.cpp:159] Memory required for data: 3464080
I0502 23:57:57.525641 15922 layer_factory.hpp:77] Creating layer relu5
I0502 23:57:57.525648 15922 net.cpp:94] Creating Layer relu5
I0502 23:57:57.525651 15922 net.cpp:435] relu5 <- conv5
I0502 23:57:57.525656 15922 net.cpp:396] relu5 -> conv5 (in-place)
I0502 23:57:57.525663 15922 net.cpp:144] Setting up relu5
I0502 23:57:57.525668 15922 net.cpp:151] Top shape: 20 128 5 5 (64000)
I0502 23:57:57.525671 15922 net.cpp:159] Memory required for data: 3720080
I0502 23:57:57.525674 15922 layer_factory.hpp:77] Creating layer pool5
I0502 23:57:57.525678 15922 net.cpp:94] Creating Layer pool5
I0502 23:57:57.525682 15922 net.cpp:435] pool5 <- conv5
I0502 23:57:57.525686 15922 net.cpp:409] pool5 -> pool5
I0502 23:57:57.525729 15922 net.cpp:144] Setting up pool5
I0502 23:57:57.525737 15922 net.cpp:151] Top shape: 20 128 2 2 (10240)
I0502 23:57:57.525740 15922 net.cpp:159] Memory required for data: 3761040
I0502 23:57:57.525743 15922 layer_factory.hpp:77] Creating layer ip1
I0502 23:57:57.525753 15922 net.cpp:94] Creating Layer ip1
I0502 23:57:57.525756 15922 net.cpp:435] ip1 <- pool5
I0502 23:57:57.525761 15922 net.cpp:409] ip1 -> ip1
I0502 23:57:57.541918 15922 net.cpp:144] Setting up ip1
I0502 23:57:57.541934 15922 net.cpp:151] Top shape: 20 1024 (20480)
I0502 23:57:57.541939 15922 net.cpp:159] Memory required for data: 3842960
I0502 23:57:57.541944 15922 layer_factory.hpp:77] Creating layer ip2
I0502 23:57:57.541952 15922 net.cpp:94] Creating Layer ip2
I0502 23:57:57.541962 15922 net.cpp:435] ip2 <- ip1
I0502 23:57:57.541968 15922 net.cpp:409] ip2 -> ip2
I0502 23:57:57.557266 15922 net.cpp:144] Setting up ip2
I0502 23:57:57.557281 15922 net.cpp:151] Top shape: 20 512 (10240)
I0502 23:57:57.557284 15922 net.cpp:159] Memory required for data: 3883920
I0502 23:57:57.557291 15922 layer_factory.hpp:77] Creating layer ip3
I0502 23:57:57.557296 15922 net.cpp:94] Creating Layer ip3
I0502 23:57:57.557301 15922 net.cpp:435] ip3 <- ip2
I0502 23:57:57.557306 15922 net.cpp:409] ip3 -> ip3
I0502 23:57:57.557425 15922 net.cpp:144] Setting up ip3
I0502 23:57:57.557432 15922 net.cpp:151] Top shape: 20 1 (20)
I0502 23:57:57.557435 15922 net.cpp:159] Memory required for data: 3884000
I0502 23:57:57.557440 15922 layer_factory.hpp:77] Creating layer loss
I0502 23:57:57.557448 15922 net.cpp:94] Creating Layer loss
I0502 23:57:57.557451 15922 net.cpp:435] loss <- ip3
I0502 23:57:57.557456 15922 net.cpp:435] loss <- label
I0502 23:57:57.557461 15922 net.cpp:409] loss -> loss
I0502 23:57:57.557516 15922 net.cpp:144] Setting up loss
…
I0502 23:57:57.664901 15922 net.cpp:323] The NetState phase (0) differed from the phase (1) specified by a rule in layer intercept
I0502 23:57:57.664916 15922 net.cpp:323] The NetState phase (0) differed from the phase (1) specified by a rule in layer accuracy
I0502 23:57:57.665001 15922 net.cpp:52] Initializing net from parameters: 
state {
  phase: TRAIN
}
layer {
  name: "parameters"
  type: "HDF5Data"
  top: "data"
  top: "label"
  include {
    phase: TRAIN
  }
  hdf5_data_param {
    source: "/home/purduethu/scratch/radon/d/deng106/CNNStatisticalModel/distributions/input/50_distributions_100_sample_size_train-distributions-path.txt"
    batch_size: 20
  }
}
layer {
  name: "conv1"
  type: "Convolution"
  bottom: "data"
  top: "conv1"
  param {
    lr_mult: 1
  }
  param {
    lr_mult: 2
  }
  convolution_param {
    num_output: 64
    pad: 2
    kernel_size: 5
    stride: 1
    weight_filler {
      type: "gaussian"
      std: 0.0001
    }
    bias_filler {
      type: "constant"
    }
  }
}
layer {
  name: "relu1"
  type: "ReLU"
  bottom: "conv1"
  top: "conv1"
}
layer {
  name: "conv2"
  type: "Convolution"
  bottom: "conv1"
  top: "conv2"
  param {
    lr_mult: 1
  }
  param {
    lr_mult: 2
  }
  convolution_param {
    num_output: 64
    pad: 2
    kernel_size: 5
    stride: 1
    weight_filler {
      type: "gaussian"
      std: 0.01
    }
    bias_filler {
      type: "constant"
    }
  }
}
layer {
  name: "relu2"
  type: "ReLU"
  bottom: "conv2"
  top: "conv2"
}
layer {
  name: "pool2"
  type: "Pooling"
  bottom: "conv2"
  top: "pool2"
  pooling_param {
    pool: MAX
    kernel_size: 3
    stride: 2
  }
}
layer {
  name: "conv3"
  type: "Convolution"
  bottom: "pool2"
  top: "conv3"
  param {
    lr_mult: 1
  }
  param {
    lr_mult: 2
  }
  convolution_param {
    num_output: 128
    pad: 2
    kernel_size: 5
    stride: 1
    weight_filler {
      type: "gaussian"
      std: 0.01
    }
    bias_filler {
      type: "constant"
    }
  }
}
layer {
  name: "relu3"
  type: "ReLU"
  bottom: "conv3"
  top: "conv3"
}
layer {
  name: "conv4"
  type: "Convolution"
  bottom: "conv3"
  top: "conv4"
  param {
    lr_mult: 1
  }
  param {
    lr_mult: 2
  }
  convolution_param {
    num_output: 128
    pad: 2
    kernel_size: 5
    stride: 1
    weight_filler {
      type: "gaussian"
      std: 0.01
    }
    bias_filler {
      type: "constant"
    }
  }
}
layer {
  name: "relu4"
  type: "ReLU"
  bottom: "conv4"
  top: "conv4"
}
layer {
  name: "conv5"
  type: "Convolution"
  bottom: "conv4"
  top: "conv5"
  param {
    lr_mult: 1
  }
  param {
    lr_mult: 2
  }
  convolution_param {
    num_output: 128
    pad: 2
    kernel_size: 5
    stride: 1
    weight_filler {
      type: "gaussian"
      std: 0.01
    }
    bias_filler {
      type: "constant"
    }
  }
}
layer {
  name: "relu5"
  type: "ReLU"
  bottom: "conv5"
  top: "conv5"
}
layer {
  name: "pool5"
  type: "Pooling"
  bottom: "conv5"
  top: "pool5"
  pooling_param {
    pool: AVE
    kernel_size: 3
    stride: 2
  }
}
layer {
  name: "ip1"
  type: "InnerProduct"
  bottom: "pool5"
  top: "ip1"
  param {
    lr_mult: 1
  }
  param {
    lr_mult: 2
  }
  inner_product_param {
    num_output: 1024
    weight_filler {
      type: "gaussian"
      std: 0.1
    }
    bias_filler {
      type: "constant"
    }
  }
}
layer {
  name: "ip2"
  type: "InnerProduct"
  bottom: "ip1"
  top: "ip2"
  param {
    lr_mult: 1
  }
  param {
    lr_mult: 2
  }
  inner_product_param {
    num_output: 512
    weight_filler {
      type: "gaussian"
      std: 0.1
    }
    bias_filler {
      type: "constant"
    }
  }
}
layer {
  name: "ip3"
  type: "InnerProduct"
  bottom: "ip2"
  top: "ip3"
  param {
    lr_mult: 1
  }
  param {
    lr_mult: 2
  }
  inner_product_param {
    num_output: 50
    weight_filler {
      type: "gaussian"
      std: 0.1
    }
    bias_filler {
      type: "constant"
    }
  }
}
layer {
  name: "loss"
  type: "SoftmaxWithLoss"
  bottom: "ip3"
  bottom: "label"
  top: "loss"
}
I0502 23:57:57.665050 15922 layer_factory.hpp:77] Creating layer parameters
I0502 23:57:57.665058 15922 net.cpp:94] Creating Layer parameters
I0502 23:57:57.665061 15922 net.cpp:409] parameters -> data
I0502 23:57:57.665068 15922 net.cpp:409] parameters -> label
I0502 23:57:57.665073 15922 hdf5_data_layer.cpp:79] Loading list of HDF5 filenames from: /home/purduethu/scratch/radon/d/deng106/CNNStatisticalModel/distributions/input/50_distributions_100_sample_size_train-distributions-path.txt
I0502 23:57:57.665089 15922 hdf5_data_layer.cpp:93] Number of HDF5 files: 1
I0502 23:57:57.822783 15922 hdf5.cpp:35] Datatype class: H5T_INTEGER
I0502 23:57:57.825944 15922 net.cpp:144] Setting up parameters
I0502 23:57:57.825965 15922 net.cpp:151] Top shape: 20 1 10 10 (2000)
I0502 23:57:57.825969 15922 net.cpp:151] Top shape: 20 (20)
I0502 23:57:57.825973 15922 net.cpp:159] Memory required for data: 8080
I0502 23:57:57.825979 15922 layer_factory.hpp:77] Creating layer conv1
I0502 23:57:57.825995 15922 net.cpp:94] Creating Layer conv1
I0502 23:57:57.825999 15922 net.cpp:435] conv1 <- data
I0502 23:57:57.826006 15922 net.cpp:409] conv1 -> conv1
I0502 23:57:57.827888 15922 net.cpp:144] Setting up conv1
I0502 23:57:57.827900 15922 net.cpp:151] Top shape: 20 64 10 10 (128000)
I0502 23:57:57.827903 15922 net.cpp:159] Memory required for data: 520080
I0502 23:57:57.827914 15922 layer_factory.hpp:77] Creating layer relu1
I0502 23:57:57.827921 15922 net.cpp:94] Creating Layer relu1
I0502 23:57:57.827925 15922 net.cpp:435] relu1 <- conv1
I0502 23:57:57.827929 15922 net.cpp:396] relu1 -> conv1 (in-place)
I0502 23:57:57.827936 15922 net.cpp:144] Setting up relu1
I0502 23:57:57.827940 15922 net.cpp:151] Top shape: 20 64 10 10 (128000)
I0502 23:57:57.827944 15922 net.cpp:159] Memory required for data: 1032080
I0502 23:57:57.827946 15922 layer_factory.hpp:77] Creating layer conv2
I0502 23:57:57.827955 15922 net.cpp:94] Creating Layer conv2
I0502 23:57:57.827957 15922 net.cpp:435] conv2 <- conv1
I0502 23:57:57.827961 15922 net.cpp:409] conv2 -> conv2
I0502 23:57:57.833515 15922 net.cpp:144] Setting up conv2
I0502 23:57:57.833529 15922 net.cpp:151] Top shape: 20 64 10 10 (128000)
I0502 23:57:57.833534 15922 net.cpp:159] Memory required for data: 1544080
I0502 23:57:57.833541 15922 layer_factory.hpp:77] Creating layer relu2
I0502 23:57:57.833549 15922 net.cpp:94] Creating Layer relu2
I0502 23:57:57.833552 15922 net.cpp:435] relu2 <- conv2
I0502 23:57:57.833556 15922 net.cpp:396] relu2 -> conv2 (in-place)
I0502 23:57:57.833564 15922 net.cpp:144] Setting up relu2
I0502 23:57:57.833567 15922 net.cpp:151] Top shape: 20 64 10 10 (128000)
I0502 23:57:57.833570 15922 net.cpp:159] Memory required for data: 2056080
I0502 23:57:57.833573 15922 layer_factory.hpp:77] Creating layer pool2
I0502 23:57:57.833580 15922 net.cpp:94] Creating Layer pool2
I0502 23:57:57.833582 15922 net.cpp:435] pool2 <- conv2
I0502 23:57:57.833586 15922 net.cpp:409] pool2 -> pool2
I0502 23:57:57.833644 15922 net.cpp:144] Setting up pool2
I0502 23:57:57.833652 15922 net.cpp:151] Top shape: 20 64 5 5 (32000)
I0502 23:57:57.833655 15922 net.cpp:159] Memory required for data: 2184080
I0502 23:57:57.833658 15922 layer_factory.hpp:77] Creating layer conv3
I0502 23:57:57.833665 15922 net.cpp:94] Creating Layer conv3
I0502 23:57:57.833669 15922 net.cpp:435] conv3 <- pool2
I0502 23:57:57.833673 15922 net.cpp:409] conv3 -> conv3
I0502 23:57:57.842475 15922 net.cpp:144] Setting up conv3
I0502 23:57:57.842490 15922 net.cpp:151] Top shape: 20 128 5 5 (64000)
I0502 23:57:57.842494 15922 net.cpp:159] Memory required for data: 2440080
I0502 23:57:57.842502 15922 layer_factory.hpp:77] Creating layer relu3
I0502 23:57:57.842509 15922 net.cpp:94] Creating Layer relu3
I0502 23:57:57.842511 15922 net.cpp:435] relu3 <- conv3
I0502 23:57:57.842516 15922 net.cpp:396] relu3 -> conv3 (in-place)
I0502 23:57:57.842522 15922 net.cpp:144] Setting up relu3
I0502 23:57:57.842527 15922 net.cpp:151] Top shape: 20 128 5 5 (64000)
I0502 23:57:57.842530 15922 net.cpp:159] Memory required for data: 2696080
I0502 23:57:57.842532 15922 layer_factory.hpp:77] Creating layer conv4
I0502 23:57:57.842540 15922 net.cpp:94] Creating Layer conv4
I0502 23:57:57.842545 15922 net.cpp:435] conv4 <- conv3
I0502 23:57:57.842548 15922 net.cpp:409] conv4 -> conv4
I0502 23:57:57.857542 15922 net.cpp:144] Setting up conv4
I0502 23:57:57.857558 15922 net.cpp:151] Top shape: 20 128 5 5 (64000)
I0502 23:57:57.857561 15922 net.cpp:159] Memory required for data: 2952080
I0502 23:57:57.857568 15922 layer_factory.hpp:77] Creating layer relu4
I0502 23:57:57.857574 15922 net.cpp:94] Creating Layer relu4
I0502 23:57:57.857578 15922 net.cpp:435] relu4 <- conv4
I0502 23:57:57.857583 15922 net.cpp:396] relu4 -> conv4 (in-place)
I0502 23:57:57.857589 15922 net.cpp:144] Setting up relu4
I0502 23:57:57.857594 15922 net.cpp:151] Top shape: 20 128 5 5 (64000)
I0502 23:57:57.857596 15922 net.cpp:159] Memory required for data: 3208080
I0502 23:57:57.857600 15922 layer_factory.hpp:77] Creating layer conv5
I0502 23:57:57.857607 15922 net.cpp:94] Creating Layer conv5
I0502 23:57:57.857610 15922 net.cpp:435] conv5 <- conv4
I0502 23:57:57.857615 15922 net.cpp:409] conv5 -> conv5
I0502 23:57:57.872982 15922 net.cpp:144] Setting up conv5
I0502 23:57:57.872998 15922 net.cpp:151] Top shape: 20 128 5 5 (64000)
I0502 23:57:57.873001 15922 net.cpp:159] Memory required for data: 3464080
I0502 23:57:57.873010 15922 layer_factory.hpp:77] Creating layer relu5
I0502 23:57:57.873018 15922 net.cpp:94] Creating Layer relu5
I0502 23:57:57.873020 15922 net.cpp:435] relu5 <- conv5
I0502 23:57:57.873025 15922 net.cpp:396] relu5 -> conv5 (in-place)
I0502 23:57:57.873033 15922 net.cpp:144] Setting up relu5
I0502 23:57:57.873036 15922 net.cpp:151] Top shape: 20 128 5 5 (64000)
I0502 23:57:57.873039 15922 net.cpp:159] Memory required for data: 3720080
I0502 23:57:57.873042 15922 layer_factory.hpp:77] Creating layer pool5
I0502 23:57:57.873047 15922 net.cpp:94] Creating Layer pool5
I0502 23:57:57.873050 15922 net.cpp:435] pool5 <- conv5
I0502 23:57:57.873054 15922 net.cpp:409] pool5 -> pool5
I0502 23:57:57.873095 15922 net.cpp:144] Setting up pool5
I0502 23:57:57.873102 15922 net.cpp:151] Top shape: 20 128 2 2 (10240)
I0502 23:57:57.873106 15922 net.cpp:159] Memory required for data: 3761040
I0502 23:57:57.873108 15922 layer_factory.hpp:77] Creating layer ip1
I0502 23:57:57.873114 15922 net.cpp:94] Creating Layer ip1
I0502 23:57:57.873118 15922 net.cpp:435] ip1 <- pool5
I0502 23:57:57.873122 15922 net.cpp:409] ip1 -> ip1
I0502 23:57:57.888418 15922 net.cpp:144] Setting up ip1
I0502 23:57:57.888435 15922 net.cpp:151] Top shape: 20 1024 (20480)
I0502 23:57:57.888439 15922 net.cpp:159] Memory required for data: 3842960
I0502 23:57:57.888447 15922 layer_factory.hpp:77] Creating layer ip2
I0502 23:57:57.888453 15922 net.cpp:94] Creating Layer ip2
I0502 23:57:57.888456 15922 net.cpp:435] ip2 <- ip1
I0502 23:57:57.888463 15922 net.cpp:409] ip2 -> ip2
I0502 23:57:57.903746 15922 net.cpp:144] Setting up ip2
I0502 23:57:57.903762 15922 net.cpp:151] Top shape: 20 512 (10240)
I0502 23:57:57.903766 15922 net.cpp:159] Memory required for data: 3883920
I0502 23:57:57.903772 15922 layer_factory.hpp:77] Creating layer ip3
I0502 23:57:57.903779 15922 net.cpp:94] Creating Layer ip3
I0502 23:57:57.903782 15922 net.cpp:435] ip3 <- ip2
I0502 23:57:57.903787 15922 net.cpp:409] ip3 -> ip3
I0502 23:57:57.905505 15922 net.cpp:144] Setting up ip3
I0502 23:57:57.905519 15922 net.cpp:151] Top shape: 20 50 (1000)
I0502 23:57:57.905527 15922 net.cpp:159] Memory required for data: 3887920
I0502 23:57:57.905534 15922 layer_factory.hpp:77] Creating layer loss
I0502 23:57:57.905541 15922 net.cpp:94] Creating Layer loss
I0502 23:57:57.905545 15922 net.cpp:435] loss <- ip3
I0502 23:57:57.905550 15922 net.cpp:435] loss <- label
I0502 23:57:57.905553 15922 net.cpp:409] loss -> loss
I0502 23:57:57.905561 15922 layer_factory.hpp:77] Creating layer loss
…
I0502 23:57:57.906075 15922 solver.cpp:181] Creating test net (#0) specified by net file: ./protocol/dis_50_100_dimension.protocol_distribution
I0502 23:57:57.906100 15922 net.cpp:323] The NetState phase (1) differed from the phase (0) specified by a rule in layer parameters
I0502 23:57:57.906191 15922 net.cpp:52] Initializing net from parameters: 
state {
  phase: TEST
}
layer {
  name: "intercept"
  type: "HDF5Data"
  top: "data"
  top: "label"
  include {
    phase: TEST
  }
  hdf5_data_param {
    source: "/home/purduethu/scratch/radon/d/deng106/CNNStatisticalModel/distributions/input/50_distributions_100_sample_size_test-distributions-path.txt"
    batch_size: 20
  }
}
layer {
  name: "conv1"
  type: "Convolution"
  bottom: "data"
  top: "conv1"
  param {
    lr_mult: 1
  }
  param {
    lr_mult: 2
  }
  convolution_param {
    num_output: 64
    pad: 2
    kernel_size: 5
    stride: 1
    weight_filler {
      type: "gaussian"
      std: 0.0001
    }
    bias_filler {
      type: "constant"
    }
  }
}
layer {
  name: "relu1"
  type: "ReLU"
  bottom: "conv1"
  top: "conv1"
}
layer {
  name: "conv2"
  type: "Convolution"
  bottom: "conv1"
  top: "conv2"
  param {
    lr_mult: 1
  }
  param {
    lr_mult: 2
  }
  convolution_param {
    num_output: 64
    pad: 2
    kernel_size: 5
    stride: 1
    weight_filler {
      type: "gaussian"
      std: 0.01
    }
    bias_filler {
      type: "constant"
    }
  }
}
layer {
  name: "relu2"
  type: "ReLU"
  bottom: "conv2"
  top: "conv2"
}
layer {
  name: "pool2"
  type: "Pooling"
  bottom: "conv2"
  top: "pool2"
  pooling_param {
    pool: MAX
    kernel_size: 3
    stride: 2
  }
}
layer {
  name: "conv3"
  type: "Convolution"
  bottom: "pool2"
  top: "conv3"
  param {
    lr_mult: 1
  }
  param {
    lr_mult: 2
  }
  convolution_param {
    num_output: 128
    pad: 2
    kernel_size: 5
    stride: 1
    weight_filler {
      type: "gaussian"
      std: 0.01
    }
    bias_filler {
      type: "constant"
    }
  }
}
layer {
  name: "relu3"
  type: "ReLU"
  bottom: "conv3"
  top: "conv3"
}
layer {
  name: "conv4"
  type: "Convolution"
  bottom: "conv3"
  top: "conv4"
  param {
    lr_mult: 1
  }
  param {
    lr_mult: 2
  }
  convolution_param {
    num_output: 128
    pad: 2
    kernel_size: 5
    stride: 1
    weight_filler {
      type: "gaussian"
      std: 0.01
    }
    bias_filler {
      type: "constant"
    }
  }
}
layer {
  name: "relu4"
  type: "ReLU"
  bottom: "conv4"
  top: "conv4"
}
layer {
  name: "conv5"
  type: "Convolution"
  bottom: "conv4"
  top: "conv5"
  param {
    lr_mult: 1
  }
  param {
    lr_mult: 2
  }
  convolution_param {
    num_output: 128
    pad: 2
    kernel_size: 5
    stride: 1
    weight_filler {
      type: "gaussian"
      std: 0.01
    }
    bias_filler {
      type: "constant"
    }
  }
}
layer {
  name: "relu5"
  type: "ReLU"
  bottom: "conv5"
  top: "conv5"
}
layer {
  name: "pool5"
  type: "Pooling"
  bottom: "conv5"
  top: "pool5"
  pooling_param {
    pool: AVE
    kernel_size: 3
    stride: 2
  }
}
layer {
  name: "ip1"
  type: "InnerProduct"
  bottom: "pool5"
  top: "ip1"
  param {
    lr_mult: 1
  }
  param {
    lr_mult: 2
  }
  inner_product_param {
    num_output: 1024
    weight_filler {
      type: "gaussian"
      std: 0.1
    }
    bias_filler {
      type: "constant"
    }
  }
}
layer {
  name: "ip2"
  type: "InnerProduct"
  bottom: "ip1"
  top: "ip2"
  param {
    lr_mult: 1
  }
  param {
    lr_mult: 2
  }
  inner_product_param {
    num_output: 512
    weight_filler {
      type: "gaussian"
      std: 0.1
    }
    bias_filler {
      type: "constant"
    }
  }
}
layer {
  name: "ip3"
  type: "InnerProduct"
  bottom: "ip2"
  top: "ip3"
  param {
    lr_mult: 1
  }
  param {
    lr_mult: 2
  }
  inner_product_param {
    num_output: 50
    weight_filler {
      type: "gaussian"
      std: 0.1
    }
    bias_filler {
      type: "constant"
    }
  }
}
layer {
  name: "accuracy"
  type: "Accuracy"
  bottom: "ip3"
  bottom: "label"
  top: "accuracy"
  include {
    phase: TEST
  }
}
layer {
  name: "loss"
  type: "SoftmaxWithLoss"
  bottom: "ip3"
  bottom: "label"
  top: "loss"
}
I0502 23:57:57.906253 15922 layer_factory.hpp:77] Creating layer intercept
I0502 23:57:57.906261 15922 net.cpp:94] Creating Layer intercept
I0502 23:57:57.906265 15922 net.cpp:409] intercept -> data
I0502 23:57:57.906271 15922 net.cpp:409] intercept -> label
I0502 23:57:57.906276 15922 hdf5_data_layer.cpp:79] Loading list of HDF5 filenames from: /home/purduethu/scratch/radon/d/deng106/CNNStatisticalModel/distributions/input/50_distributions_100_sample_size_test-distributions-path.txt
I0502 23:57:57.906296 15922 hdf5_data_layer.cpp:93] Number of HDF5 files: 1
I0502 23:57:57.947813 15922 net.cpp:144] Setting up intercept
I0502 23:57:57.947847 15922 net.cpp:151] Top shape: 20 1 10 10 (2000)
I0502 23:57:57.947852 15922 net.cpp:151] Top shape: 20 (20)
I0502 23:57:57.947855 15922 net.cpp:159] Memory required for data: 8080
I0502 23:57:57.947861 15922 layer_factory.hpp:77] Creating layer label_intercept_1_split
I0502 23:57:57.947880 15922 net.cpp:94] Creating Layer label_intercept_1_split
I0502 23:57:57.947885 15922 net.cpp:435] label_intercept_1_split <- label
I0502 23:57:57.947890 15922 net.cpp:409] label_intercept_1_split -> label_intercept_1_split_0
I0502 23:57:57.947898 15922 net.cpp:409] label_intercept_1_split -> label_intercept_1_split_1
I0502 23:57:57.947942 15922 net.cpp:144] Setting up label_intercept_1_split
I0502 23:57:57.947948 15922 net.cpp:151] Top shape: 20 (20)
I0502 23:57:57.947952 15922 net.cpp:151] Top shape: 20 (20)
I0502 23:57:57.947954 15922 net.cpp:159] Memory required for data: 8240
I0502 23:57:57.947958 15922 layer_factory.hpp:77] Creating layer conv1
I0502 23:57:57.947968 15922 net.cpp:94] Creating Layer conv1
I0502 23:57:57.947971 15922 net.cpp:435] conv1 <- data
I0502 23:57:57.947975 15922 net.cpp:409] conv1 -> conv1
I0502 23:57:57.948882 15922 net.cpp:144] Setting up conv1
I0502 23:57:57.948895 15922 net.cpp:151] Top shape: 20 64 10 10 (128000)
I0502 23:57:57.948907 15922 net.cpp:159] Memory required for data: 520240
I0502 23:57:57.948917 15922 layer_factory.hpp:77] Creating layer relu1
I0502 23:57:57.948925 15922 net.cpp:94] Creating Layer relu1
I0502 23:57:57.948927 15922 net.cpp:435] relu1 <- conv1
I0502 23:57:57.948932 15922 net.cpp:396] relu1 -> conv1 (in-place)
I0502 23:57:57.948940 15922 net.cpp:144] Setting up relu1
I0502 23:57:57.948943 15922 net.cpp:151] Top shape: 20 64 10 10 (128000)
I0502 23:57:57.948946 15922 net.cpp:159] Memory required for data: 1032240
I0502 23:57:57.948948 15922 layer_factory.hpp:77] Creating layer conv2
I0502 23:57:57.948956 15922 net.cpp:94] Creating Layer conv2
I0502 23:57:57.948959 15922 net.cpp:435] conv2 <- conv1
I0502 23:57:57.948964 15922 net.cpp:409] conv2 -> conv2
I0502 23:57:57.953101 15922 net.cpp:144] Setting up conv2
I0502 23:57:57.953115 15922 net.cpp:151] Top shape: 20 64 10 10 (128000)
I0502 23:57:57.953119 15922 net.cpp:159] Memory required for data: 1544240
I0502 23:57:57.953126 15922 layer_factory.hpp:77] Creating layer relu2
I0502 23:57:57.953133 15922 net.cpp:94] Creating Layer relu2
I0502 23:57:57.953137 15922 net.cpp:435] relu2 <- conv2
I0502 23:57:57.953141 15922 net.cpp:396] relu2 -> conv2 (in-place)
I0502 23:57:57.953148 15922 net.cpp:144] Setting up relu2
I0502 23:57:57.953153 15922 net.cpp:151] Top shape: 20 64 10 10 (128000)
I0502 23:57:57.953156 15922 net.cpp:159] Memory required for data: 2056240
I0502 23:57:57.953160 15922 layer_factory.hpp:77] Creating layer pool2
I0502 23:57:57.953166 15922 net.cpp:94] Creating Layer pool2
I0502 23:57:57.953168 15922 net.cpp:435] pool2 <- conv2
I0502 23:57:57.953172 15922 net.cpp:409] pool2 -> pool2
I0502 23:57:57.953232 15922 net.cpp:144] Setting up pool2
I0502 23:57:57.953239 15922 net.cpp:151] Top shape: 20 64 5 5 (32000)
I0502 23:57:57.953241 15922 net.cpp:159] Memory required for data: 2184240
I0502 23:57:57.953245 15922 layer_factory.hpp:77] Creating layer conv3
I0502 23:57:57.953253 15922 net.cpp:94] Creating Layer conv3
I0502 23:57:57.953256 15922 net.cpp:435] conv3 <- pool2
I0502 23:57:57.953263 15922 net.cpp:409] conv3 -> conv3
I0502 23:57:57.959338 15922 net.cpp:144] Setting up conv3
I0502 23:57:57.959352 15922 net.cpp:151] Top shape: 20 128 5 5 (64000)
I0502 23:57:57.959355 15922 net.cpp:159] Memory required for data: 2440240
I0502 23:57:57.959364 15922 layer_factory.hpp:77] Creating layer relu3
I0502 23:57:57.959372 15922 net.cpp:94] Creating Layer relu3
I0502 23:57:57.959374 15922 net.cpp:435] relu3 <- conv3
I0502 23:57:57.959380 15922 net.cpp:396] relu3 -> conv3 (in-place)
I0502 23:57:57.959386 15922 net.cpp:144] Setting up relu3
I0502 23:57:57.959391 15922 net.cpp:151] Top shape: 20 128 5 5 (64000)
I0502 23:57:57.959393 15922 net.cpp:159] Memory required for data: 2696240
I0502 23:57:57.959396 15922 layer_factory.hpp:77] Creating layer conv4
I0502 23:57:57.959405 15922 net.cpp:94] Creating Layer conv4
I0502 23:57:57.959408 15922 net.cpp:435] conv4 <- conv3
I0502 23:57:57.959414 15922 net.cpp:409] conv4 -> conv4
I0502 23:57:57.972199 15922 net.cpp:144] Setting up conv4
I0502 23:57:57.972237 15922 net.cpp:151] Top shape: 20 128 5 5 (64000)
I0502 23:57:57.972257 15922 net.cpp:159] Memory required for data: 2952240
I0502 23:57:57.972265 15922 layer_factory.hpp:77] Creating layer relu4
I0502 23:57:57.972270 15922 net.cpp:94] Creating Layer relu4
I0502 23:57:57.972273 15922 net.cpp:435] relu4 <- conv4
I0502 23:57:57.972280 15922 net.cpp:396] relu4 -> conv4 (in-place)
I0502 23:57:57.972286 15922 net.cpp:144] Setting up relu4
I0502 23:57:57.972290 15922 net.cpp:151] Top shape: 20 128 5 5 (64000)
I0502 23:57:57.972293 15922 net.cpp:159] Memory required for data: 3208240
I0502 23:57:57.972296 15922 layer_factory.hpp:77] Creating layer conv5
I0502 23:57:57.972304 15922 net.cpp:94] Creating Layer conv5
I0502 23:57:57.972307 15922 net.cpp:435] conv5 <- conv4
I0502 23:57:57.972312 15922 net.cpp:409] conv5 -> conv5
I0502 23:57:57.985080 15922 net.cpp:144] Setting up conv5
I0502 23:57:57.985096 15922 net.cpp:151] Top shape: 20 128 5 5 (64000)
I0502 23:57:57.985105 15922 net.cpp:159] Memory required for data: 3464240
I0502 23:57:57.985116 15922 layer_factory.hpp:77] Creating layer relu5
I0502 23:57:57.985121 15922 net.cpp:94] Creating Layer relu5
I0502 23:57:57.985126 15922 net.cpp:435] relu5 <- conv5
I0502 23:57:57.985131 15922 net.cpp:396] relu5 -> conv5 (in-place)
I0502 23:57:57.985137 15922 net.cpp:144] Setting up relu5
I0502 23:57:57.985141 15922 net.cpp:151] Top shape: 20 128 5 5 (64000)
I0502 23:57:57.985144 15922 net.cpp:159] Memory required for data: 3720240
I0502 23:57:57.985147 15922 layer_factory.hpp:77] Creating layer pool5
I0502 23:57:57.985152 15922 net.cpp:94] Creating Layer pool5
I0502 23:57:57.985155 15922 net.cpp:435] pool5 <- conv5
I0502 23:57:57.985160 15922 net.cpp:409] pool5 -> pool5
I0502 23:57:57.985203 15922 net.cpp:144] Setting up pool5
I0502 23:57:57.985210 15922 net.cpp:151] Top shape: 20 128 2 2 (10240)
I0502 23:57:57.985213 15922 net.cpp:159] Memory required for data: 3761200
I0502 23:57:57.985216 15922 layer_factory.hpp:77] Creating layer ip1
I0502 23:57:57.985224 15922 net.cpp:94] Creating Layer ip1
I0502 23:57:57.985229 15922 net.cpp:435] ip1 <- pool5
I0502 23:57:57.985234 15922 net.cpp:409] ip1 -> ip1
I0502 23:57:57.998476 15922 net.cpp:144] Setting up ip1
I0502 23:57:57.998492 15922 net.cpp:151] Top shape: 20 1024 (20480)
I0502 23:57:57.998494 15922 net.cpp:159] Memory required for data: 3843120
I0502 23:57:57.998502 15922 layer_factory.hpp:77] Creating layer ip2
I0502 23:57:57.998508 15922 net.cpp:94] Creating Layer ip2
I0502 23:57:57.998512 15922 net.cpp:435] ip2 <- ip1
I0502 23:57:57.998517 15922 net.cpp:409] ip2 -> ip2
I0502 23:57:58.011694 15922 net.cpp:144] Setting up ip2
I0502 23:57:58.011711 15922 net.cpp:151] Top shape: 20 512 (10240)
I0502 23:57:58.011715 15922 net.cpp:159] Memory required for data: 3884080
I0502 23:57:58.011721 15922 layer_factory.hpp:77] Creating layer ip3
I0502 23:57:58.011732 15922 net.cpp:94] Creating Layer ip3
I0502 23:57:58.011735 15922 net.cpp:435] ip3 <- ip2
I0502 23:57:58.011742 15922 net.cpp:409] ip3 -> ip3
I0502 23:57:58.012490 15922 net.cpp:144] Setting up ip3
I0502 23:57:58.012498 15922 net.cpp:151] Top shape: 20 50 (1000)
I0502 23:57:58.012501 15922 net.cpp:159] Memory required for data: 3888080
I0502 23:57:58.012506 15922 layer_factory.hpp:77] Creating layer ip3_ip3_0_split
I0502 23:57:58.012513 15922 net.cpp:94] Creating Layer ip3_ip3_0_split
I0502 23:57:58.012516 15922 net.cpp:435] ip3_ip3_0_split <- ip3
I0502 23:57:58.012521 15922 net.cpp:409] ip3_ip3_0_split -> ip3_ip3_0_split_0
I0502 23:57:58.012526 15922 net.cpp:409] ip3_ip3_0_split -> ip3_ip3_0_split_1
I0502 23:57:58.012589 15922 net.cpp:144] Setting up ip3_ip3_0_split
I0502 23:57:58.012598 15922 net.cpp:151] Top shape: 20 50 (1000)
I0502 23:57:58.012600 15922 net.cpp:151] Top shape: 20 50 (1000)
I0502 23:57:58.012603 15922 net.cpp:159] Memory required for data: 3896080
I0502 23:57:58.012606 15922 layer_factory.hpp:77] Creating layer accuracy
I0502 23:57:58.012614 15922 net.cpp:94] Creating Layer accuracy
I0502 23:57:58.012617 15922 net.cpp:435] accuracy <- ip3_ip3_0_split_0
I0502 23:57:58.012620 15922 net.cpp:435] accuracy <- label_intercept_1_split_0
I0502 23:57:58.012625 15922 net.cpp:409] accuracy -> accuracy
…
