…
I0503 18:08:54.371914 21737 net.cpp:323] The NetState phase (0) differed from the phase (1) specified by a rule in layer intercept
I0503 18:08:54.371930 21737 net.cpp:323] The NetState phase (0) differed from the phase (1) specified by a rule in layer accuracy
I0503 18:08:54.372022 21737 net.cpp:52] Initializing net from parameters: 
state {
  phase: TRAIN
}
layer {
  name: "parameters"
  type: "HDF5Data"
  top: "data"
  top: "label"
  include {
    phase: TRAIN
  }
  hdf5_data_param {
    source: "/home/purduethu/scratch/radon/d/deng106/CNNStatisticalModel/distributions/input/50_distributions_100_sample_size_train-distributions-path.txt"
    batch_size: 20
  }
}
layer {
  name: "conv1"
  type: "Convolution"
  bottom: "data"
  top: "conv1"
  param {
    lr_mult: 1
  }
  param {
    lr_mult: 2
  }
  convolution_param {
    num_output: 64
    pad: 2
    kernel_size: 5
    stride: 1
    weight_filler {
      type: "gaussian"
      std: 0.0001
    }
    bias_filler {
      type: "constant"
    }
  }
}
layer {
  name: "relu1"
  type: "ReLU"
  bottom: "conv1"
  top: "conv1"
}
layer {
  name: "conv2"
  type: "Convolution"
  bottom: "conv1"
  top: "conv2"
  param {
    lr_mult: 1
  }
  param {
    lr_mult: 2
  }
  convolution_param {
    num_output: 64
    pad: 2
    kernel_size: 5
    stride: 1
    weight_filler {
      type: "gaussian"
      std: 0.01
    }
    bias_filler {
      type: "constant"
    }
  }
}
layer {
  name: "relu2"
  type: "ReLU"
  bottom: "conv2"
  top: "conv2"
}
layer {
  name: "pool2"
  type: "Pooling"
  bottom: "conv2"
  top: "pool2"
  pooling_param {
    pool: MAX
    kernel_size: 3
    stride: 2
  }
}
layer {
  name: "conv3"
  type: "Convolution"
  bottom: "pool2"
  top: "conv3"
  param {
    lr_mult: 1
  }
  param {
    lr_mult: 2
  }
  convolution_param {
    num_output: 128
    pad: 2
    kernel_size: 5
    stride: 1
    weight_filler {
      type: "gaussian"
      std: 0.01
    }
    bias_filler {
      type: "constant"
    }
  }
}
layer {
  name: "relu3"
  type: "ReLU"
  bottom: "conv3"
  top: "conv3"
}
layer {
  name: "conv4"
  type: "Convolution"
  bottom: "conv3"
  top: "conv4"
  param {
    lr_mult: 1
  }
  param {
    lr_mult: 2
  }
  convolution_param {
    num_output: 128
    pad: 2
    kernel_size: 5
    stride: 1
    weight_filler {
      type: "gaussian"
      std: 0.01
    }
    bias_filler {
      type: "constant"
    }
  }
}
layer {
  name: "relu4"
  type: "ReLU"
  bottom: "conv4"
  top: "conv4"
}
layer {
  name: "conv5"
  type: "Convolution"
  bottom: "conv4"
  top: "conv5"
  param {
    lr_mult: 1
  }
  param {
    lr_mult: 2
  }
  convolution_param {
    num_output: 128
    pad: 2
    kernel_size: 5
    stride: 1
    weight_filler {
      type: "gaussian"
      std: 0.01
    }
    bias_filler {
      type: "constant"
    }
  }
}
layer {
  name: "relu5"
  type: "ReLU"
  bottom: "conv5"
  top: "conv5"
}
layer {
  name: "pool5"
  type: "Pooling"
  bottom: "conv5"
  top: "pool5"
  pooling_param {
    pool: AVE
    kernel_size: 3
    stride: 2
  }
}
layer {
  name: "ip1"
  type: "InnerProduct"
  bottom: "pool5"
  top: "ip1"
  param {
    lr_mult: 1
  }
  param {
    lr_mult: 2
  }
  inner_product_param {
    num_output: 1024
    weight_filler {
      type: "gaussian"
      std: 0.1
    }
    bias_filler {
      type: "constant"
    }
  }
}
layer {
  name: "ip2"
  type: "InnerProduct"
  bottom: "ip1"
  top: "ip2"
  param {
    lr_mult: 1
  }
  param {
    lr_mult: 2
  }
  inner_product_param {
    num_output: 512
    weight_filler {
      type: "gaussian"
      std: 0.1
    }
    bias_filler {
      type: "constant"
    }
  }
}
layer {
  name: "ip3"
  type: "InnerProduct"
  bottom: "ip2"
  top: "ip3"
  param {
    lr_mult: 1
  }
  param {
    lr_mult: 2
  }
  inner_product_param {
    num_output: 50
    weight_filler {
      type: "gaussian"
      std: 0.1
    }
    bias_filler {
      type: "constant"
    }
  }
}
layer {
  name: "loss"
  type: "SoftmaxWithLoss"
  bottom: "ip3"
  bottom: "label"
  top: "loss"
}
I0503 18:08:54.372098 21737 layer_factory.hpp:77] Creating layer parameters
I0503 18:08:54.372112 21737 net.cpp:94] Creating Layer parameters
I0503 18:08:54.372118 21737 net.cpp:409] parameters -> data
I0503 18:08:54.372138 21737 net.cpp:409] parameters -> label
I0503 18:08:54.372148 21737 hdf5_data_layer.cpp:79] Loading list of HDF5 filenames from: /home/purduethu/scratch/radon/d/deng106/CNNStatisticalModel/distributions/input/50_distributions_100_sample_size_train-distributions-path.txt
I0503 18:08:54.372171 21737 hdf5_data_layer.cpp:93] Number of HDF5 files: 1
I0503 18:08:54.372649 21737 hdf5.cpp:32] Datatype class: H5T_FLOAT
I0503 18:08:54.532256 21737 hdf5.cpp:35] Datatype class: H5T_INTEGER
I0503 18:08:54.535110 21737 net.cpp:144] Setting up parameters
I0503 18:08:54.535130 21737 net.cpp:151] Top shape: 20 1 10 10 (2000)
I0503 18:08:54.535136 21737 net.cpp:151] Top shape: 20 (20)
I0503 18:08:54.535140 21737 net.cpp:159] Memory required for data: 8080
I0503 18:08:54.535148 21737 layer_factory.hpp:77] Creating layer conv1
I0503 18:08:54.535167 21737 net.cpp:94] Creating Layer conv1
I0503 18:08:54.535173 21737 net.cpp:435] conv1 <- data
I0503 18:08:54.535185 21737 net.cpp:409] conv1 -> conv1
I0503 18:08:54.539003 21737 net.cpp:144] Setting up conv1
I0503 18:08:54.539018 21737 net.cpp:151] Top shape: 20 64 10 10 (128000)
I0503 18:08:54.539022 21737 net.cpp:159] Memory required for data: 520080
I0503 18:08:54.539034 21737 layer_factory.hpp:77] Creating layer relu1
I0503 18:08:54.539042 21737 net.cpp:94] Creating Layer relu1
I0503 18:08:54.539047 21737 net.cpp:435] relu1 <- conv1
I0503 18:08:54.539052 21737 net.cpp:396] relu1 -> conv1 (in-place)
I0503 18:08:54.539062 21737 net.cpp:144] Setting up relu1
I0503 18:08:54.539067 21737 net.cpp:151] Top shape: 20 64 10 10 (128000)
I0503 18:08:54.539070 21737 net.cpp:159] Memory required for data: 1032080
I0503 18:08:54.539073 21737 layer_factory.hpp:77] Creating layer conv2
I0503 18:08:54.539082 21737 net.cpp:94] Creating Layer conv2
I0503 18:08:54.539085 21737 net.cpp:435] conv2 <- conv1
I0503 18:08:54.539090 21737 net.cpp:409] conv2 -> conv2
I0503 18:08:54.544925 21737 net.cpp:144] Setting up conv2
I0503 18:08:54.544939 21737 net.cpp:151] Top shape: 20 64 10 10 (128000)
I0503 18:08:54.544944 21737 net.cpp:159] Memory required for data: 1544080
I0503 18:08:54.544951 21737 layer_factory.hpp:77] Creating layer relu2
I0503 18:08:54.544958 21737 net.cpp:94] Creating Layer relu2
I0503 18:08:54.544962 21737 net.cpp:435] relu2 <- conv2
I0503 18:08:54.544967 21737 net.cpp:396] relu2 -> conv2 (in-place)
I0503 18:08:54.544975 21737 net.cpp:144] Setting up relu2
I0503 18:08:54.544980 21737 net.cpp:151] Top shape: 20 64 10 10 (128000)
I0503 18:08:54.544982 21737 net.cpp:159] Memory required for data: 2056080
I0503 18:08:54.544986 21737 layer_factory.hpp:77] Creating layer pool2
I0503 18:08:54.545001 21737 net.cpp:94] Creating Layer pool2
I0503 18:08:54.545004 21737 net.cpp:435] pool2 <- conv2
I0503 18:08:54.545009 21737 net.cpp:409] pool2 -> pool2
I0503 18:08:54.545056 21737 net.cpp:144] Setting up pool2
I0503 18:08:54.545064 21737 net.cpp:151] Top shape: 20 64 5 5 (32000)
I0503 18:08:54.545068 21737 net.cpp:159] Memory required for data: 2184080
I0503 18:08:54.545071 21737 layer_factory.hpp:77] Creating layer conv3
I0503 18:08:54.545079 21737 net.cpp:94] Creating Layer conv3
I0503 18:08:54.545083 21737 net.cpp:435] conv3 <- pool2
I0503 18:08:54.545096 21737 net.cpp:409] conv3 -> conv3
I0503 18:08:54.554540 21737 net.cpp:144] Setting up conv3
I0503 18:08:54.554554 21737 net.cpp:151] Top shape: 20 128 5 5 (64000)
I0503 18:08:54.554559 21737 net.cpp:159] Memory required for data: 2440080
I0503 18:08:54.554567 21737 layer_factory.hpp:77] Creating layer relu3
I0503 18:08:54.554574 21737 net.cpp:94] Creating Layer relu3
I0503 18:08:54.554577 21737 net.cpp:435] relu3 <- conv3
I0503 18:08:54.554582 21737 net.cpp:396] relu3 -> conv3 (in-place)
I0503 18:08:54.554589 21737 net.cpp:144] Setting up relu3
I0503 18:08:54.554594 21737 net.cpp:151] Top shape: 20 128 5 5 (64000)
I0503 18:08:54.554597 21737 net.cpp:159] Memory required for data: 2696080
I0503 18:08:54.554600 21737 layer_factory.hpp:77] Creating layer conv4
I0503 18:08:54.554608 21737 net.cpp:94] Creating Layer conv4
I0503 18:08:54.554612 21737 net.cpp:435] conv4 <- conv3
I0503 18:08:54.554617 21737 net.cpp:409] conv4 -> conv4
I0503 18:08:54.569442 21737 net.cpp:144] Setting up conv4
I0503 18:08:54.569458 21737 net.cpp:151] Top shape: 20 128 5 5 (64000)
I0503 18:08:54.569463 21737 net.cpp:159] Memory required for data: 2952080
I0503 18:08:54.569469 21737 layer_factory.hpp:77] Creating layer relu4
I0503 18:08:54.569475 21737 net.cpp:94] Creating Layer relu4
I0503 18:08:54.569479 21737 net.cpp:435] relu4 <- conv4
I0503 18:08:54.569484 21737 net.cpp:396] relu4 -> conv4 (in-place)
I0503 18:08:54.569491 21737 net.cpp:144] Setting up relu4
I0503 18:08:54.569496 21737 net.cpp:151] Top shape: 20 128 5 5 (64000)
I0503 18:08:54.569499 21737 net.cpp:159] Memory required for data: 3208080
I0503 18:08:54.569504 21737 layer_factory.hpp:77] Creating layer conv5
I0503 18:08:54.569511 21737 net.cpp:94] Creating Layer conv5
I0503 18:08:54.569515 21737 net.cpp:435] conv5 <- conv4
I0503 18:08:54.569520 21737 net.cpp:409] conv5 -> conv5
I0503 18:08:54.584010 21737 net.cpp:144] Setting up conv5
I0503 18:08:54.584026 21737 net.cpp:151] Top shape: 20 128 5 5 (64000)
I0503 18:08:54.584031 21737 net.cpp:159] Memory required for data: 3464080
I0503 18:08:54.584040 21737 layer_factory.hpp:77] Creating layer relu5
I0503 18:08:54.584046 21737 net.cpp:94] Creating Layer relu5
I0503 18:08:54.584050 21737 net.cpp:435] relu5 <- conv5
I0503 18:08:54.584054 21737 net.cpp:396] relu5 -> conv5 (in-place)
I0503 18:08:54.584062 21737 net.cpp:144] Setting up relu5
I0503 18:08:54.584066 21737 net.cpp:151] Top shape: 20 128 5 5 (64000)
I0503 18:08:54.584069 21737 net.cpp:159] Memory required for data: 3720080
I0503 18:08:54.584074 21737 layer_factory.hpp:77] Creating layer pool5
I0503 18:08:54.584079 21737 net.cpp:94] Creating Layer pool5
I0503 18:08:54.584081 21737 net.cpp:435] pool5 <- conv5
I0503 18:08:54.584085 21737 net.cpp:409] pool5 -> pool5
I0503 18:08:54.584121 21737 net.cpp:144] Setting up pool5
I0503 18:08:54.584128 21737 net.cpp:151] Top shape: 20 128 2 2 (10240)
I0503 18:08:54.584131 21737 net.cpp:159] Memory required for data: 3761040
I0503 18:08:54.584134 21737 layer_factory.hpp:77] Creating layer ip1
I0503 18:08:54.584144 21737 net.cpp:94] Creating Layer ip1
I0503 18:08:54.584147 21737 net.cpp:435] ip1 <- pool5
I0503 18:08:54.584152 21737 net.cpp:409] ip1 -> ip1
I0503 18:08:54.598268 21737 net.cpp:144] Setting up ip1
I0503 18:08:54.598284 21737 net.cpp:151] Top shape: 20 1024 (20480)
I0503 18:08:54.598287 21737 net.cpp:159] Memory required for data: 3842960
I0503 18:08:54.598294 21737 layer_factory.hpp:77] Creating layer ip2
I0503 18:08:54.598301 21737 net.cpp:94] Creating Layer ip2
I0503 18:08:54.598309 21737 net.cpp:435] ip2 <- ip1
I0503 18:08:54.598315 21737 net.cpp:409] ip2 -> ip2
I0503 18:08:54.611742 21737 net.cpp:144] Setting up ip2
I0503 18:08:54.611754 21737 net.cpp:151] Top shape: 20 512 (10240)
I0503 18:08:54.611759 21737 net.cpp:159] Memory required for data: 3883920
I0503 18:08:54.611765 21737 layer_factory.hpp:77] Creating layer ip3
I0503 18:08:54.611771 21737 net.cpp:94] Creating Layer ip3
I0503 18:08:54.611775 21737 net.cpp:435] ip3 <- ip2
I0503 18:08:54.611780 21737 net.cpp:409] ip3 -> ip3
I0503 18:08:54.613137 21737 net.cpp:144] Setting up ip3
I0503 18:08:54.613149 21737 net.cpp:151] Top shape: 20 50 (1000)
I0503 18:08:54.613153 21737 net.cpp:159] Memory required for data: 3887920
I0503 18:08:54.613159 21737 layer_factory.hpp:77] Creating layer loss
I0503 18:08:54.613168 21737 net.cpp:94] Creating Layer loss
I0503 18:08:54.613171 21737 net.cpp:435] loss <- ip3
I0503 18:08:54.613175 21737 net.cpp:435] loss <- label
I0503 18:08:54.613181 21737 net.cpp:409] loss -> loss
I0503 18:08:54.613193 21737 layer_factory.hpp:77] Creating layer loss
…
I0503 18:08:54.613704 21737 solver.cpp:181] Creating test net (#0) specified by net file: ./protocol/dis_50_100_dimension.protocol_distribution
I0503 18:08:54.613732 21737 net.cpp:323] The NetState phase (1) differed from the phase (0) specified by a rule in layer parameters
I0503 18:08:54.613833 21737 net.cpp:52] Initializing net from parameters: 
state {
  phase: TEST
}
layer {
  name: "intercept"
  type: "HDF5Data"
  top: "data"
  top: "label"
  include {
    phase: TEST
  }
  hdf5_data_param {
    source: "/home/purduethu/scratch/radon/d/deng106/CNNStatisticalModel/distributions/input/50_distributions_100_sample_size_test-distributions-path.txt"
    batch_size: 20
  }
}
layer {
  name: "conv1"
  type: "Convolution"
  bottom: "data"
  top: "conv1"
  param {
    lr_mult: 1
  }
  param {
    lr_mult: 2
  }
  convolution_param {
    num_output: 64
    pad: 2
    kernel_size: 5
    stride: 1
    weight_filler {
      type: "gaussian"
      std: 0.0001
    }
    bias_filler {
      type: "constant"
    }
  }
}
layer {
  name: "relu1"
  type: "ReLU"
  bottom: "conv1"
  top: "conv1"
}
layer {
  name: "conv2"
  type: "Convolution"
  bottom: "conv1"
  top: "conv2"
  param {
    lr_mult: 1
  }
  param {
    lr_mult: 2
  }
  convolution_param {
    num_output: 64
    pad: 2
    kernel_size: 5
    stride: 1
    weight_filler {
      type: "gaussian"
      std: 0.01
    }
    bias_filler {
      type: "constant"
    }
  }
}
layer {
  name: "relu2"
  type: "ReLU"
  bottom: "conv2"
  top: "conv2"
}
layer {
  name: "pool2"
  type: "Pooling"
  bottom: "conv2"
  top: "pool2"
  pooling_param {
    pool: MAX
    kernel_size: 3
    stride: 2
  }
}
layer {
  name: "conv3"
  type: "Convolution"
  bottom: "pool2"
  top: "conv3"
  param {
    lr_mult: 1
  }
  param {
    lr_mult: 2
  }
  convolution_param {
    num_output: 128
    pad: 2
    kernel_size: 5
    stride: 1
    weight_filler {
      type: "gaussian"
      std: 0.01
    }
    bias_filler {
      type: "constant"
    }
  }
}
layer {
  name: "relu3"
  type: "ReLU"
  bottom: "conv3"
  top: "conv3"
}
layer {
  name: "conv4"
  type: "Convolution"
  bottom: "conv3"
  top: "conv4"
  param {
    lr_mult: 1
  }
  param {
    lr_mult: 2
  }
  convolution_param {
    num_output: 128
    pad: 2
    kernel_size: 5
    stride: 1
    weight_filler {
      type: "gaussian"
      std: 0.01
    }
    bias_filler {
      type: "constant"
    }
  }
}
layer {
  name: "relu4"
  type: "ReLU"
  bottom: "conv4"
  top: "conv4"
}
layer {
  name: "conv5"
  type: "Convolution"
  bottom: "conv4"
  top: "conv5"
  param {
    lr_mult: 1
  }
  param {
    lr_mult: 2
  }
  convolution_param {
    num_output: 128
    pad: 2
    kernel_size: 5
    stride: 1
    weight_filler {
      type: "gaussian"
      std: 0.01
    }
    bias_filler {
      type: "constant"
    }
  }
}
layer {
  name: "relu5"
  type: "ReLU"
  bottom: "conv5"
  top: "conv5"
}
layer {
  name: "pool5"
  type: "Pooling"
  bottom: "conv5"
  top: "pool5"
  pooling_param {
    pool: AVE
    kernel_size: 3
    stride: 2
  }
}
layer {
  name: "ip1"
  type: "InnerProduct"
  bottom: "pool5"
  top: "ip1"
  param {
    lr_mult: 1
  }
  param {
    lr_mult: 2
  }
  inner_product_param {
    num_output: 1024
    weight_filler {
      type: "gaussian"
      std: 0.1
    }
    bias_filler {
      type: "constant"
    }
  }
}
layer {
  name: "ip2"
  type: "InnerProduct"
  bottom: "ip1"
  top: "ip2"
  param {
    lr_mult: 1
  }
  param {
    lr_mult: 2
  }
  inner_product_param {
    num_output: 512
    weight_filler {
      type: "gaussian"
      std: 0.1
    }
    bias_filler {
      type: "constant"
    }
  }
}
layer {
  name: "ip3"
  type: "InnerProduct"
  bottom: "ip2"
  top: "ip3"
  param {
    lr_mult: 1
  }
  param {
    lr_mult: 2
  }
  inner_product_param {
    num_output: 50
    weight_filler {
      type: "gaussian"
      std: 0.1
    }
    bias_filler {
      type: "constant"
    }
  }
}
layer {
  name: "accuracy"
  type: "Accuracy"
  bottom: "ip3"
  bottom: "label"
  top: "accuracy"
  include {
    phase: TEST
  }
}
layer {
  name: "loss"
  type: "SoftmaxWithLoss"
  bottom: "ip3"
  bottom: "label"
  top: "loss"
}
I0503 18:08:54.613910 21737 layer_factory.hpp:77] Creating layer intercept
I0503 18:08:54.613919 21737 net.cpp:94] Creating Layer intercept
I0503 18:08:54.613924 21737 net.cpp:409] intercept -> data
I0503 18:08:54.613930 21737 net.cpp:409] intercept -> label
I0503 18:08:54.613937 21737 hdf5_data_layer.cpp:79] Loading list of HDF5 filenames from: /home/purduethu/scratch/radon/d/deng106/CNNStatisticalModel/distributions/input/50_distributions_100_sample_size_test-distributions-path.txt
I0503 18:08:54.613957 21737 hdf5_data_layer.cpp:93] Number of HDF5 files: 1
I0503 18:08:54.656327 21737 net.cpp:144] Setting up intercept
I0503 18:08:54.656361 21737 net.cpp:151] Top shape: 20 1 10 10 (2000)
I0503 18:08:54.656366 21737 net.cpp:151] Top shape: 20 (20)
I0503 18:08:54.656370 21737 net.cpp:159] Memory required for data: 8080
I0503 18:08:54.656376 21737 layer_factory.hpp:77] Creating layer label_intercept_1_split
I0503 18:08:54.656397 21737 net.cpp:94] Creating Layer label_intercept_1_split
I0503 18:08:54.656402 21737 net.cpp:435] label_intercept_1_split <- label
I0503 18:08:54.656409 21737 net.cpp:409] label_intercept_1_split -> label_intercept_1_split_0
I0503 18:08:54.656417 21737 net.cpp:409] label_intercept_1_split -> label_intercept_1_split_1
I0503 18:08:54.656452 21737 net.cpp:144] Setting up label_intercept_1_split
I0503 18:08:54.656460 21737 net.cpp:151] Top shape: 20 (20)
I0503 18:08:54.656463 21737 net.cpp:151] Top shape: 20 (20)
I0503 18:08:54.656466 21737 net.cpp:159] Memory required for data: 8240
I0503 18:08:54.656469 21737 layer_factory.hpp:77] Creating layer conv1
I0503 18:08:54.656481 21737 net.cpp:94] Creating Layer conv1
I0503 18:08:54.656484 21737 net.cpp:435] conv1 <- data
I0503 18:08:54.656489 21737 net.cpp:409] conv1 -> conv1
I0503 18:08:54.657198 21737 net.cpp:144] Setting up conv1
I0503 18:08:54.657219 21737 net.cpp:151] Top shape: 20 64 10 10 (128000)
I0503 18:08:54.657223 21737 net.cpp:159] Memory required for data: 520240
I0503 18:08:54.657233 21737 layer_factory.hpp:77] Creating layer relu1
I0503 18:08:54.657240 21737 net.cpp:94] Creating Layer relu1
I0503 18:08:54.657244 21737 net.cpp:435] relu1 <- conv1
I0503 18:08:54.657248 21737 net.cpp:396] relu1 -> conv1 (in-place)
I0503 18:08:54.657256 21737 net.cpp:144] Setting up relu1
I0503 18:08:54.657261 21737 net.cpp:151] Top shape: 20 64 10 10 (128000)
I0503 18:08:54.657264 21737 net.cpp:159] Memory required for data: 1032240
I0503 18:08:54.657268 21737 layer_factory.hpp:77] Creating layer conv2
I0503 18:08:54.657276 21737 net.cpp:94] Creating Layer conv2
I0503 18:08:54.657280 21737 net.cpp:435] conv2 <- conv1
I0503 18:08:54.657285 21737 net.cpp:409] conv2 -> conv2
I0503 18:08:54.661258 21737 net.cpp:144] Setting up conv2
I0503 18:08:54.661272 21737 net.cpp:151] Top shape: 20 64 10 10 (128000)
I0503 18:08:54.661275 21737 net.cpp:159] Memory required for data: 1544240
I0503 18:08:54.661283 21737 layer_factory.hpp:77] Creating layer relu2
I0503 18:08:54.661289 21737 net.cpp:94] Creating Layer relu2
I0503 18:08:54.661293 21737 net.cpp:435] relu2 <- conv2
I0503 18:08:54.661298 21737 net.cpp:396] relu2 -> conv2 (in-place)
I0503 18:08:54.661305 21737 net.cpp:144] Setting up relu2
I0503 18:08:54.661310 21737 net.cpp:151] Top shape: 20 64 10 10 (128000)
I0503 18:08:54.661314 21737 net.cpp:159] Memory required for data: 2056240
I0503 18:08:54.661316 21737 layer_factory.hpp:77] Creating layer pool2
I0503 18:08:54.661322 21737 net.cpp:94] Creating Layer pool2
I0503 18:08:54.661326 21737 net.cpp:435] pool2 <- conv2
I0503 18:08:54.661331 21737 net.cpp:409] pool2 -> pool2
I0503 18:08:54.661365 21737 net.cpp:144] Setting up pool2
I0503 18:08:54.661371 21737 net.cpp:151] Top shape: 20 64 5 5 (32000)
I0503 18:08:54.661375 21737 net.cpp:159] Memory required for data: 2184240
I0503 18:08:54.661378 21737 layer_factory.hpp:77] Creating layer conv3
I0503 18:08:54.661386 21737 net.cpp:94] Creating Layer conv3
I0503 18:08:54.661389 21737 net.cpp:435] conv3 <- pool2
I0503 18:08:54.661394 21737 net.cpp:409] conv3 -> conv3
I0503 18:08:54.667940 21737 net.cpp:144] Setting up conv3
I0503 18:08:54.667954 21737 net.cpp:151] Top shape: 20 128 5 5 (64000)
I0503 18:08:54.667958 21737 net.cpp:159] Memory required for data: 2440240
I0503 18:08:54.667966 21737 layer_factory.hpp:77] Creating layer relu3
I0503 18:08:54.667973 21737 net.cpp:94] Creating Layer relu3
I0503 18:08:54.667978 21737 net.cpp:435] relu3 <- conv3
I0503 18:08:54.667982 21737 net.cpp:396] relu3 -> conv3 (in-place)
I0503 18:08:54.667989 21737 net.cpp:144] Setting up relu3
I0503 18:08:54.667994 21737 net.cpp:151] Top shape: 20 128 5 5 (64000)
I0503 18:08:54.667997 21737 net.cpp:159] Memory required for data: 2696240
I0503 18:08:54.668000 21737 layer_factory.hpp:77] Creating layer conv4
I0503 18:08:54.668009 21737 net.cpp:94] Creating Layer conv4
I0503 18:08:54.668012 21737 net.cpp:435] conv4 <- conv3
I0503 18:08:54.668017 21737 net.cpp:409] conv4 -> conv4
I0503 18:08:54.680615 21737 net.cpp:144] Setting up conv4
I0503 18:08:54.680629 21737 net.cpp:151] Top shape: 20 128 5 5 (64000)
I0503 18:08:54.680634 21737 net.cpp:159] Memory required for data: 2952240
I0503 18:08:54.680640 21737 layer_factory.hpp:77] Creating layer relu4
I0503 18:08:54.680646 21737 net.cpp:94] Creating Layer relu4
I0503 18:08:54.680650 21737 net.cpp:435] relu4 <- conv4
I0503 18:08:54.680660 21737 net.cpp:396] relu4 -> conv4 (in-place)
I0503 18:08:54.680666 21737 net.cpp:144] Setting up relu4
I0503 18:08:54.680671 21737 net.cpp:151] Top shape: 20 128 5 5 (64000)
I0503 18:08:54.680675 21737 net.cpp:159] Memory required for data: 3208240
I0503 18:08:54.680678 21737 layer_factory.hpp:77] Creating layer conv5
I0503 18:08:54.680686 21737 net.cpp:94] Creating Layer conv5
I0503 18:08:54.680691 21737 net.cpp:435] conv5 <- conv4
I0503 18:08:54.680696 21737 net.cpp:409] conv5 -> conv5
I0503 18:08:54.694044 21737 net.cpp:144] Setting up conv5
I0503 18:08:54.694064 21737 net.cpp:151] Top shape: 20 128 5 5 (64000)
I0503 18:08:54.694069 21737 net.cpp:159] Memory required for data: 3464240
I0503 18:08:54.694078 21737 layer_factory.hpp:77] Creating layer relu5
I0503 18:08:54.694084 21737 net.cpp:94] Creating Layer relu5
I0503 18:08:54.694088 21737 net.cpp:435] relu5 <- conv5
I0503 18:08:54.694092 21737 net.cpp:396] relu5 -> conv5 (in-place)
I0503 18:08:54.694099 21737 net.cpp:144] Setting up relu5
I0503 18:08:54.694104 21737 net.cpp:151] Top shape: 20 128 5 5 (64000)
I0503 18:08:54.694108 21737 net.cpp:159] Memory required for data: 3720240
I0503 18:08:54.694111 21737 layer_factory.hpp:77] Creating layer pool5
I0503 18:08:54.694116 21737 net.cpp:94] Creating Layer pool5
I0503 18:08:54.694119 21737 net.cpp:435] pool5 <- conv5
I0503 18:08:54.694124 21737 net.cpp:409] pool5 -> pool5
I0503 18:08:54.694150 21737 net.cpp:144] Setting up pool5
I0503 18:08:54.694156 21737 net.cpp:151] Top shape: 20 128 2 2 (10240)
I0503 18:08:54.694160 21737 net.cpp:159] Memory required for data: 3761200
I0503 18:08:54.694164 21737 layer_factory.hpp:77] Creating layer ip1
I0503 18:08:54.694170 21737 net.cpp:94] Creating Layer ip1
I0503 18:08:54.694174 21737 net.cpp:435] ip1 <- pool5
I0503 18:08:54.694178 21737 net.cpp:409] ip1 -> ip1
I0503 18:08:54.707664 21737 net.cpp:144] Setting up ip1
I0503 18:08:54.707677 21737 net.cpp:151] Top shape: 20 1024 (20480)
I0503 18:08:54.707681 21737 net.cpp:159] Memory required for data: 3843120
I0503 18:08:54.707687 21737 layer_factory.hpp:77] Creating layer ip2
I0503 18:08:54.707695 21737 net.cpp:94] Creating Layer ip2
I0503 18:08:54.707698 21737 net.cpp:435] ip2 <- ip1
I0503 18:08:54.707703 21737 net.cpp:409] ip2 -> ip2
I0503 18:08:54.721153 21737 net.cpp:144] Setting up ip2
I0503 18:08:54.721168 21737 net.cpp:151] Top shape: 20 512 (10240)
I0503 18:08:54.721171 21737 net.cpp:159] Memory required for data: 3884080
I0503 18:08:54.721177 21737 layer_factory.hpp:77] Creating layer ip3
I0503 18:08:54.721186 21737 net.cpp:94] Creating Layer ip3
I0503 18:08:54.721190 21737 net.cpp:435] ip3 <- ip2
I0503 18:08:54.721195 21737 net.cpp:409] ip3 -> ip3
I0503 18:08:54.721904 21737 net.cpp:144] Setting up ip3
I0503 18:08:54.721911 21737 net.cpp:151] Top shape: 20 50 (1000)
I0503 18:08:54.721915 21737 net.cpp:159] Memory required for data: 3888080
I0503 18:08:54.721920 21737 layer_factory.hpp:77] Creating layer ip3_ip3_0_split
I0503 18:08:54.721925 21737 net.cpp:94] Creating Layer ip3_ip3_0_split
I0503 18:08:54.721928 21737 net.cpp:435] ip3_ip3_0_split <- ip3
I0503 18:08:54.721933 21737 net.cpp:409] ip3_ip3_0_split -> ip3_ip3_0_split_0
I0503 18:08:54.721940 21737 net.cpp:409] ip3_ip3_0_split -> ip3_ip3_0_split_1
I0503 18:08:54.721964 21737 net.cpp:144] Setting up ip3_ip3_0_split
I0503 18:08:54.721971 21737 net.cpp:151] Top shape: 20 50 (1000)
I0503 18:08:54.721974 21737 net.cpp:151] Top shape: 20 50 (1000)
I0503 18:08:54.721977 21737 net.cpp:159] Memory required for data: 3896080
I0503 18:08:54.721981 21737 layer_factory.hpp:77] Creating layer accuracy
I0503 18:08:54.721987 21737 net.cpp:94] Creating Layer accuracy
I0503 18:08:54.721989 21737 net.cpp:435] accuracy <- ip3_ip3_0_split_0
I0503 18:08:54.721993 21737 net.cpp:435] accuracy <- label_intercept_1_split_0
I0503 18:08:54.721998 21737 net.cpp:409] accuracy -> accuracy
…
