…
I0505 02:00:25.977046  2021 net.cpp:323] The NetState phase (0) differed from the phase (1) specified by a rule in layer intercept
I0505 02:00:25.977061  2021 net.cpp:323] The NetState phase (0) differed from the phase (1) specified by a rule in layer accuracy
I0505 02:00:25.977144  2021 net.cpp:52] Initializing net from parameters: 
state {
  phase: TRAIN
}
layer {
  name: "parameters"
  type: "HDF5Data"
  top: "data"
  top: "label"
  include {
    phase: TRAIN
  }
  hdf5_data_param {
    source: "/home/purduethu/scratch/radon/d/deng106/CNNStatisticalModel/distributions/input/20_distributions_100_sample_size_train-distributions-path.txt"
    batch_size: 20
  }
}
layer {
  name: "conv1"
  type: "Convolution"
  bottom: "data"
  top: "conv1"
  param {
    lr_mult: 1
  }
  param {
    lr_mult: 2
  }
  convolution_param {
    num_output: 64
    pad: 2
    kernel_size: 5
    stride: 1
    weight_filler {
      type: "gaussian"
      std: 0.0001
    }
    bias_filler {
      type: "constant"
    }
  }
}
layer {
  name: "relu1"
  type: "ReLU"
  bottom: "conv1"
  top: "conv1"
}
layer {
  name: "pool1"
  type: "Pooling"
  bottom: "conv1"
  top: "pool1"
  pooling_param {
    pool: MAX
    kernel_size: 3
    stride: 2
  }
}
layer {
  name: "conv2"
  type: "Convolution"
  bottom: "pool1"
  top: "conv2"
  param {
    lr_mult: 1
  }
  param {
    lr_mult: 2
  }
  convolution_param {
    num_output: 128
    pad: 2
    kernel_size: 5
    stride: 1
    weight_filler {
      type: "gaussian"
      std: 0.01
    }
    bias_filler {
      type: "constant"
    }
  }
}
layer {
  name: "relu2"
  type: "ReLU"
  bottom: "conv2"
  top: "conv2"
}
layer {
  name: "conv3"
  type: "Convolution"
  bottom: "conv2"
  top: "conv3"
  param {
    lr_mult: 1
  }
  param {
    lr_mult: 2
  }
  convolution_param {
    num_output: 128
    pad: 2
    kernel_size: 5
    stride: 1
    weight_filler {
      type: "gaussian"
      std: 0.01
    }
    bias_filler {
      type: "constant"
    }
  }
}
layer {
  name: "relu3"
  type: "ReLU"
  bottom: "conv3"
  top: "conv3"
}
layer {
  name: "pool3"
  type: "Pooling"
  bottom: "conv3"
  top: "pool3"
  pooling_param {
    pool: AVE
    kernel_size: 3
    stride: 2
  }
}
layer {
  name: "ip1"
  type: "InnerProduct"
  bottom: "pool3"
  top: "ip1"
  param {
    lr_mult: 1
  }
  param {
    lr_mult: 2
  }
  inner_product_param {
    num_output: 512
    weight_filler {
      type: "gaussian"
      std: 0.1
    }
    bias_filler {
      type: "constant"
    }
  }
}
layer {
  name: "ip2"
  type: "InnerProduct"
  bottom: "ip1"
  top: "ip2"
  param {
    lr_mult: 1
  }
  param {
    lr_mult: 2
  }
  inner_product_param {
    num_output: 256
    weight_filler {
      type: "gaussian"
      std: 0.1
    }
    bias_filler {
      type: "constant"
    }
  }
}
layer {
  name: "ip3"
  type: "InnerProduct"
  bottom: "ip2"
  top: "ip3"
  param {
    lr_mult: 1
  }
  param {
    lr_mult: 2
  }
  inner_product_param {
    num_output: 50
    weight_filler {
      type: "gaussian"
      std: 0.1
    }
    bias_filler {
      type: "constant"
    }
  }
}
layer {
  name: "loss"
  type: "SoftmaxWithLoss"
  bottom: "ip3"
  bottom: "label"
  top: "loss"
}
I0505 02:00:25.977210  2021 layer_factory.hpp:77] Creating layer parameters
I0505 02:00:25.977224  2021 net.cpp:94] Creating Layer parameters
I0505 02:00:25.977238  2021 net.cpp:409] parameters -> data
I0505 02:00:25.977258  2021 net.cpp:409] parameters -> label
I0505 02:00:25.977272  2021 hdf5_data_layer.cpp:79] Loading list of HDF5 filenames from: /home/purduethu/scratch/radon/d/deng106/CNNStatisticalModel/distributions/input/20_distributions_100_sample_size_train-distributions-path.txt
I0505 02:00:25.977294  2021 hdf5_data_layer.cpp:93] Number of HDF5 files: 1
I0505 02:00:25.977869  2021 hdf5.cpp:32] Datatype class: H5T_FLOAT
I0505 02:00:26.044260  2021 hdf5.cpp:35] Datatype class: H5T_INTEGER
I0505 02:00:26.046015  2021 net.cpp:144] Setting up parameters
I0505 02:00:26.046035  2021 net.cpp:151] Top shape: 20 1 10 10 (2000)
I0505 02:00:26.046041  2021 net.cpp:151] Top shape: 20 (20)
I0505 02:00:26.046046  2021 net.cpp:159] Memory required for data: 8080
I0505 02:00:26.046053  2021 layer_factory.hpp:77] Creating layer conv1
I0505 02:00:26.046078  2021 net.cpp:94] Creating Layer conv1
I0505 02:00:26.046084  2021 net.cpp:435] conv1 <- data
I0505 02:00:26.046097  2021 net.cpp:409] conv1 -> conv1
I0505 02:00:26.049842  2021 net.cpp:144] Setting up conv1
I0505 02:00:26.049860  2021 net.cpp:151] Top shape: 20 64 10 10 (128000)
I0505 02:00:26.049865  2021 net.cpp:159] Memory required for data: 520080
I0505 02:00:26.049878  2021 layer_factory.hpp:77] Creating layer relu1
I0505 02:00:26.049887  2021 net.cpp:94] Creating Layer relu1
I0505 02:00:26.049891  2021 net.cpp:435] relu1 <- conv1
I0505 02:00:26.049897  2021 net.cpp:396] relu1 -> conv1 (in-place)
I0505 02:00:26.049912  2021 net.cpp:144] Setting up relu1
I0505 02:00:26.049918  2021 net.cpp:151] Top shape: 20 64 10 10 (128000)
I0505 02:00:26.049922  2021 net.cpp:159] Memory required for data: 1032080
I0505 02:00:26.049926  2021 layer_factory.hpp:77] Creating layer pool1
I0505 02:00:26.049934  2021 net.cpp:94] Creating Layer pool1
I0505 02:00:26.049938  2021 net.cpp:435] pool1 <- conv1
I0505 02:00:26.049943  2021 net.cpp:409] pool1 -> pool1
I0505 02:00:26.049988  2021 net.cpp:144] Setting up pool1
I0505 02:00:26.049995  2021 net.cpp:151] Top shape: 20 64 5 5 (32000)
I0505 02:00:26.049998  2021 net.cpp:159] Memory required for data: 1160080
I0505 02:00:26.050002  2021 layer_factory.hpp:77] Creating layer conv2
I0505 02:00:26.050012  2021 net.cpp:94] Creating Layer conv2
I0505 02:00:26.050016  2021 net.cpp:435] conv2 <- pool1
I0505 02:00:26.050022  2021 net.cpp:409] conv2 -> conv2
I0505 02:00:26.058167  2021 net.cpp:144] Setting up conv2
I0505 02:00:26.058188  2021 net.cpp:151] Top shape: 20 128 5 5 (64000)
I0505 02:00:26.058193  2021 net.cpp:159] Memory required for data: 1416080
I0505 02:00:26.058202  2021 layer_factory.hpp:77] Creating layer relu2
I0505 02:00:26.058210  2021 net.cpp:94] Creating Layer relu2
I0505 02:00:26.058214  2021 net.cpp:435] relu2 <- conv2
I0505 02:00:26.058220  2021 net.cpp:396] relu2 -> conv2 (in-place)
I0505 02:00:26.058228  2021 net.cpp:144] Setting up relu2
I0505 02:00:26.058233  2021 net.cpp:151] Top shape: 20 128 5 5 (64000)
I0505 02:00:26.058238  2021 net.cpp:159] Memory required for data: 1672080
I0505 02:00:26.058240  2021 layer_factory.hpp:77] Creating layer conv3
I0505 02:00:26.058249  2021 net.cpp:94] Creating Layer conv3
I0505 02:00:26.058254  2021 net.cpp:435] conv3 <- conv2
I0505 02:00:26.058259  2021 net.cpp:409] conv3 -> conv3
I0505 02:00:26.073348  2021 net.cpp:144] Setting up conv3
I0505 02:00:26.073380  2021 net.cpp:151] Top shape: 20 128 5 5 (64000)
I0505 02:00:26.073385  2021 net.cpp:159] Memory required for data: 1928080
I0505 02:00:26.073397  2021 layer_factory.hpp:77] Creating layer relu3
I0505 02:00:26.073415  2021 net.cpp:94] Creating Layer relu3
I0505 02:00:26.073421  2021 net.cpp:435] relu3 <- conv3
I0505 02:00:26.073427  2021 net.cpp:396] relu3 -> conv3 (in-place)
I0505 02:00:26.073438  2021 net.cpp:144] Setting up relu3
I0505 02:00:26.073443  2021 net.cpp:151] Top shape: 20 128 5 5 (64000)
I0505 02:00:26.073446  2021 net.cpp:159] Memory required for data: 2184080
I0505 02:00:26.073451  2021 layer_factory.hpp:77] Creating layer pool3
I0505 02:00:26.073457  2021 net.cpp:94] Creating Layer pool3
I0505 02:00:26.073469  2021 net.cpp:435] pool3 <- conv3
I0505 02:00:26.073475  2021 net.cpp:409] pool3 -> pool3
I0505 02:00:26.073516  2021 net.cpp:144] Setting up pool3
I0505 02:00:26.073524  2021 net.cpp:151] Top shape: 20 128 2 2 (10240)
I0505 02:00:26.073528  2021 net.cpp:159] Memory required for data: 2225040
I0505 02:00:26.073531  2021 layer_factory.hpp:77] Creating layer ip1
I0505 02:00:26.073541  2021 net.cpp:94] Creating Layer ip1
I0505 02:00:26.073545  2021 net.cpp:435] ip1 <- pool3
I0505 02:00:26.073550  2021 net.cpp:409] ip1 -> ip1
I0505 02:00:26.081326  2021 net.cpp:144] Setting up ip1
I0505 02:00:26.081348  2021 net.cpp:151] Top shape: 20 512 (10240)
I0505 02:00:26.081352  2021 net.cpp:159] Memory required for data: 2266000
I0505 02:00:26.081360  2021 layer_factory.hpp:77] Creating layer ip2
I0505 02:00:26.081368  2021 net.cpp:94] Creating Layer ip2
I0505 02:00:26.081373  2021 net.cpp:435] ip2 <- ip1
I0505 02:00:26.081379  2021 net.cpp:409] ip2 -> ip2
I0505 02:00:26.084646  2021 net.cpp:144] Setting up ip2
I0505 02:00:26.084656  2021 net.cpp:151] Top shape: 20 256 (5120)
I0505 02:00:26.084659  2021 net.cpp:159] Memory required for data: 2286480
I0505 02:00:26.084667  2021 layer_factory.hpp:77] Creating layer ip3
I0505 02:00:26.084674  2021 net.cpp:94] Creating Layer ip3
I0505 02:00:26.084678  2021 net.cpp:435] ip3 <- ip2
I0505 02:00:26.084683  2021 net.cpp:409] ip3 -> ip3
I0505 02:00:26.085723  2021 net.cpp:144] Setting up ip3
I0505 02:00:26.085736  2021 net.cpp:151] Top shape: 20 50 (1000)
I0505 02:00:26.085741  2021 net.cpp:159] Memory required for data: 2290480
I0505 02:00:26.085747  2021 layer_factory.hpp:77] Creating layer loss
I0505 02:00:26.085754  2021 net.cpp:94] Creating Layer loss
I0505 02:00:26.085758  2021 net.cpp:435] loss <- ip3
I0505 02:00:26.085762  2021 net.cpp:435] loss <- label
I0505 02:00:26.085769  2021 net.cpp:409] loss -> loss
I0505 02:00:26.085780  2021 layer_factory.hpp:77] Creating layer loss
…
I0505 02:00:26.086230  2021 solver.cpp:181] Creating test net (#0) specified by net file: ./protocol/dis_20_100_dimension.protocol_distribution
I0505 02:00:26.086256  2021 net.cpp:323] The NetState phase (1) differed from the phase (0) specified by a rule in layer parameters
I0505 02:00:26.086355  2021 net.cpp:52] Initializing net from parameters: 
state {
  phase: TEST
}
layer {
  name: "intercept"
  type: "HDF5Data"
  top: "data"
  top: "label"
  include {
    phase: TEST
  }
  hdf5_data_param {
    source: "/home/purduethu/scratch/radon/d/deng106/CNNStatisticalModel/distributions/input/20_distributions_100_sample_size_test-distributions-path.txt"
    batch_size: 20
  }
}
layer {
  name: "conv1"
  type: "Convolution"
  bottom: "data"
  top: "conv1"
  param {
    lr_mult: 1
  }
  param {
    lr_mult: 2
  }
  convolution_param {
    num_output: 64
    pad: 2
    kernel_size: 5
    stride: 1
    weight_filler {
      type: "gaussian"
      std: 0.0001
    }
    bias_filler {
      type: "constant"
    }
  }
}
layer {
  name: "relu1"
  type: "ReLU"
  bottom: "conv1"
  top: "conv1"
}
layer {
  name: "pool1"
  type: "Pooling"
  bottom: "conv1"
  top: "pool1"
  pooling_param {
    pool: MAX
    kernel_size: 3
    stride: 2
  }
}
layer {
  name: "conv2"
  type: "Convolution"
  bottom: "pool1"
  top: "conv2"
  param {
    lr_mult: 1
  }
  param {
    lr_mult: 2
  }
  convolution_param {
    num_output: 128
    pad: 2
    kernel_size: 5
    stride: 1
    weight_filler {
      type: "gaussian"
      std: 0.01
    }
    bias_filler {
      type: "constant"
    }
  }
}
layer {
  name: "relu2"
  type: "ReLU"
  bottom: "conv2"
  top: "conv2"
}
layer {
  name: "conv3"
  type: "Convolution"
  bottom: "conv2"
  top: "conv3"
  param {
    lr_mult: 1
  }
  param {
    lr_mult: 2
  }
  convolution_param {
    num_output: 128
    pad: 2
    kernel_size: 5
    stride: 1
    weight_filler {
      type: "gaussian"
      std: 0.01
    }
    bias_filler {
      type: "constant"
    }
  }
}
layer {
  name: "relu3"
  type: "ReLU"
  bottom: "conv3"
  top: "conv3"
}
layer {
  name: "pool3"
  type: "Pooling"
  bottom: "conv3"
  top: "pool3"
  pooling_param {
    pool: AVE
    kernel_size: 3
    stride: 2
  }
}
layer {
  name: "ip1"
  type: "InnerProduct"
  bottom: "pool3"
  top: "ip1"
  param {
    lr_mult: 1
  }
  param {
    lr_mult: 2
  }
  inner_product_param {
    num_output: 512
    weight_filler {
      type: "gaussian"
      std: 0.1
    }
    bias_filler {
      type: "constant"
    }
  }
}
layer {
  name: "ip2"
  type: "InnerProduct"
  bottom: "ip1"
  top: "ip2"
  param {
    lr_mult: 1
  }
  param {
    lr_mult: 2
  }
  inner_product_param {
    num_output: 256
    weight_filler {
      type: "gaussian"
      std: 0.1
    }
    bias_filler {
      type: "constant"
    }
  }
}
layer {
  name: "ip3"
  type: "InnerProduct"
  bottom: "ip2"
  top: "ip3"
  param {
    lr_mult: 1
  }
  param {
    lr_mult: 2
  }
  inner_product_param {
    num_output: 50
    weight_filler {
      type: "gaussian"
      std: 0.1
    }
    bias_filler {
      type: "constant"
    }
  }
}
layer {
  name: "accuracy"
  type: "Accuracy"
  bottom: "ip3"
  bottom: "label"
  top: "accuracy"
  include {
    phase: TEST
  }
}
layer {
  name: "loss"
  type: "SoftmaxWithLoss"
  bottom: "ip3"
  bottom: "label"
  top: "loss"
}
I0505 02:00:26.086422  2021 layer_factory.hpp:77] Creating layer intercept
I0505 02:00:26.086431  2021 net.cpp:94] Creating Layer intercept
I0505 02:00:26.086436  2021 net.cpp:409] intercept -> data
I0505 02:00:26.086443  2021 net.cpp:409] intercept -> label
I0505 02:00:26.086450  2021 hdf5_data_layer.cpp:79] Loading list of HDF5 filenames from: /home/purduethu/scratch/radon/d/deng106/CNNStatisticalModel/distributions/input/20_distributions_100_sample_size_test-distributions-path.txt
I0505 02:00:26.086469  2021 hdf5_data_layer.cpp:93] Number of HDF5 files: 1
I0505 02:00:26.104306  2021 net.cpp:144] Setting up intercept
I0505 02:00:26.104338  2021 net.cpp:151] Top shape: 20 1 10 10 (2000)
I0505 02:00:26.104344  2021 net.cpp:151] Top shape: 20 (20)
I0505 02:00:26.104348  2021 net.cpp:159] Memory required for data: 8080
I0505 02:00:26.104354  2021 layer_factory.hpp:77] Creating layer label_intercept_1_split
I0505 02:00:26.104372  2021 net.cpp:94] Creating Layer label_intercept_1_split
I0505 02:00:26.104384  2021 net.cpp:435] label_intercept_1_split <- label
I0505 02:00:26.104391  2021 net.cpp:409] label_intercept_1_split -> label_intercept_1_split_0
I0505 02:00:26.104400  2021 net.cpp:409] label_intercept_1_split -> label_intercept_1_split_1
I0505 02:00:26.104429  2021 net.cpp:144] Setting up label_intercept_1_split
I0505 02:00:26.104435  2021 net.cpp:151] Top shape: 20 (20)
I0505 02:00:26.104439  2021 net.cpp:151] Top shape: 20 (20)
I0505 02:00:26.104444  2021 net.cpp:159] Memory required for data: 8240
I0505 02:00:26.104454  2021 layer_factory.hpp:77] Creating layer conv1
I0505 02:00:26.104465  2021 net.cpp:94] Creating Layer conv1
I0505 02:00:26.104470  2021 net.cpp:435] conv1 <- data
I0505 02:00:26.104475  2021 net.cpp:409] conv1 -> conv1
I0505 02:00:26.105171  2021 net.cpp:144] Setting up conv1
I0505 02:00:26.105186  2021 net.cpp:151] Top shape: 20 64 10 10 (128000)
I0505 02:00:26.105190  2021 net.cpp:159] Memory required for data: 520240
I0505 02:00:26.105201  2021 layer_factory.hpp:77] Creating layer relu1
I0505 02:00:26.105207  2021 net.cpp:94] Creating Layer relu1
I0505 02:00:26.105211  2021 net.cpp:435] relu1 <- conv1
I0505 02:00:26.105216  2021 net.cpp:396] relu1 -> conv1 (in-place)
I0505 02:00:26.105224  2021 net.cpp:144] Setting up relu1
I0505 02:00:26.105228  2021 net.cpp:151] Top shape: 20 64 10 10 (128000)
I0505 02:00:26.105232  2021 net.cpp:159] Memory required for data: 1032240
I0505 02:00:26.105235  2021 layer_factory.hpp:77] Creating layer pool1
I0505 02:00:26.105243  2021 net.cpp:94] Creating Layer pool1
I0505 02:00:26.105247  2021 net.cpp:435] pool1 <- conv1
I0505 02:00:26.105252  2021 net.cpp:409] pool1 -> pool1
I0505 02:00:26.105288  2021 net.cpp:144] Setting up pool1
I0505 02:00:26.105295  2021 net.cpp:151] Top shape: 20 64 5 5 (32000)
I0505 02:00:26.105298  2021 net.cpp:159] Memory required for data: 1160240
I0505 02:00:26.105303  2021 layer_factory.hpp:77] Creating layer conv2
I0505 02:00:26.105310  2021 net.cpp:94] Creating Layer conv2
I0505 02:00:26.105314  2021 net.cpp:435] conv2 <- pool1
I0505 02:00:26.105319  2021 net.cpp:409] conv2 -> conv2
I0505 02:00:26.112520  2021 net.cpp:144] Setting up conv2
I0505 02:00:26.112540  2021 net.cpp:151] Top shape: 20 128 5 5 (64000)
I0505 02:00:26.112545  2021 net.cpp:159] Memory required for data: 1416240
I0505 02:00:26.112561  2021 layer_factory.hpp:77] Creating layer relu2
I0505 02:00:26.112570  2021 net.cpp:94] Creating Layer relu2
I0505 02:00:26.112574  2021 net.cpp:435] relu2 <- conv2
I0505 02:00:26.112581  2021 net.cpp:396] relu2 -> conv2 (in-place)
I0505 02:00:26.112587  2021 net.cpp:144] Setting up relu2
I0505 02:00:26.112593  2021 net.cpp:151] Top shape: 20 128 5 5 (64000)
I0505 02:00:26.112596  2021 net.cpp:159] Memory required for data: 1672240
I0505 02:00:26.112599  2021 layer_factory.hpp:77] Creating layer conv3
I0505 02:00:26.112608  2021 net.cpp:94] Creating Layer conv3
I0505 02:00:26.112612  2021 net.cpp:435] conv3 <- conv2
I0505 02:00:26.112617  2021 net.cpp:409] conv3 -> conv3
I0505 02:00:26.125339  2021 net.cpp:144] Setting up conv3
I0505 02:00:26.125366  2021 net.cpp:151] Top shape: 20 128 5 5 (64000)
I0505 02:00:26.125371  2021 net.cpp:159] Memory required for data: 1928240
I0505 02:00:26.125382  2021 layer_factory.hpp:77] Creating layer relu3
I0505 02:00:26.125392  2021 net.cpp:94] Creating Layer relu3
I0505 02:00:26.125398  2021 net.cpp:435] relu3 <- conv3
I0505 02:00:26.125403  2021 net.cpp:396] relu3 -> conv3 (in-place)
I0505 02:00:26.125412  2021 net.cpp:144] Setting up relu3
I0505 02:00:26.125417  2021 net.cpp:151] Top shape: 20 128 5 5 (64000)
I0505 02:00:26.125421  2021 net.cpp:159] Memory required for data: 2184240
I0505 02:00:26.125423  2021 layer_factory.hpp:77] Creating layer pool3
I0505 02:00:26.125430  2021 net.cpp:94] Creating Layer pool3
I0505 02:00:26.125433  2021 net.cpp:435] pool3 <- conv3
I0505 02:00:26.125438  2021 net.cpp:409] pool3 -> pool3
I0505 02:00:26.125466  2021 net.cpp:144] Setting up pool3
I0505 02:00:26.125473  2021 net.cpp:151] Top shape: 20 128 2 2 (10240)
I0505 02:00:26.125483  2021 net.cpp:159] Memory required for data: 2225200
I0505 02:00:26.125488  2021 layer_factory.hpp:77] Creating layer ip1
I0505 02:00:26.125494  2021 net.cpp:94] Creating Layer ip1
I0505 02:00:26.125499  2021 net.cpp:435] ip1 <- pool3
I0505 02:00:26.125504  2021 net.cpp:409] ip1 -> ip1
I0505 02:00:26.132009  2021 net.cpp:144] Setting up ip1
I0505 02:00:26.132019  2021 net.cpp:151] Top shape: 20 512 (10240)
I0505 02:00:26.132024  2021 net.cpp:159] Memory required for data: 2266160
I0505 02:00:26.132037  2021 layer_factory.hpp:77] Creating layer ip2
I0505 02:00:26.132045  2021 net.cpp:94] Creating Layer ip2
I0505 02:00:26.132048  2021 net.cpp:435] ip2 <- ip1
I0505 02:00:26.132053  2021 net.cpp:409] ip2 -> ip2
I0505 02:00:26.135335  2021 net.cpp:144] Setting up ip2
I0505 02:00:26.135344  2021 net.cpp:151] Top shape: 20 256 (5120)
I0505 02:00:26.135349  2021 net.cpp:159] Memory required for data: 2286640
I0505 02:00:26.135356  2021 layer_factory.hpp:77] Creating layer ip3
I0505 02:00:26.135362  2021 net.cpp:94] Creating Layer ip3
I0505 02:00:26.135366  2021 net.cpp:435] ip3 <- ip2
I0505 02:00:26.135371  2021 net.cpp:409] ip3 -> ip3
I0505 02:00:26.135761  2021 net.cpp:144] Setting up ip3
I0505 02:00:26.135768  2021 net.cpp:151] Top shape: 20 50 (1000)
I0505 02:00:26.135771  2021 net.cpp:159] Memory required for data: 2290640
I0505 02:00:26.135777  2021 layer_factory.hpp:77] Creating layer ip3_ip3_0_split
I0505 02:00:26.135783  2021 net.cpp:94] Creating Layer ip3_ip3_0_split
I0505 02:00:26.135787  2021 net.cpp:435] ip3_ip3_0_split <- ip3
I0505 02:00:26.135792  2021 net.cpp:409] ip3_ip3_0_split -> ip3_ip3_0_split_0
I0505 02:00:26.135797  2021 net.cpp:409] ip3_ip3_0_split -> ip3_ip3_0_split_1
I0505 02:00:26.135823  2021 net.cpp:144] Setting up ip3_ip3_0_split
I0505 02:00:26.135828  2021 net.cpp:151] Top shape: 20 50 (1000)
I0505 02:00:26.135833  2021 net.cpp:151] Top shape: 20 50 (1000)
I0505 02:00:26.135835  2021 net.cpp:159] Memory required for data: 2298640
I0505 02:00:26.135839  2021 layer_factory.hpp:77] Creating layer accuracy
I0505 02:00:26.135845  2021 net.cpp:94] Creating Layer accuracy
I0505 02:00:26.135849  2021 net.cpp:435] accuracy <- ip3_ip3_0_split_0
I0505 02:00:26.135854  2021 net.cpp:435] accuracy <- label_intercept_1_split_0
I0505 02:00:26.135859  2021 net.cpp:409] accuracy -> accuracy
…
