…
I0501 14:46:17.098614 13243 net.cpp:323] The NetState phase (0) differed from the phase (1) specified by a rule in layer intercept
I0501 14:46:17.098644 13243 net.cpp:323] The NetState phase (0) differed from the phase (1) specified by a rule in layer loss
I0501 14:46:17.098778 13243 net.cpp:52] Initializing net from parameters: 
state {
  phase: TRAIN
}
layer {
  name: "parameters"
  type: "HDF5Data"
  top: "data"
  top: "label"
  include {
    phase: TRAIN
  }
  hdf5_data_param {
    source: "/home/purduethu/scratch/radon/d/deng106/CNNStatisticalModel/distributions/input/20_distributions_900_sample_size_train-parameters-path.txt"
    batch_size: 20
  }
}
layer {
  name: "conv1"
  type: "Convolution"
  bottom: "data"
  top: "conv1"
  param {
    lr_mult: 1
  }
  param {
    lr_mult: 2
  }
  convolution_param {
    num_output: 64
    pad: 2
    kernel_size: 5
    stride: 1
    weight_filler {
      type: "gaussian"
      std: 0.0001
    }
    bias_filler {
      type: "constant"
    }
  }
}
layer {
  name: "relu1"
  type: "ReLU"
  bottom: "conv1"
  top: "conv1"
}
layer {
  name: "conv2"
  type: "Convolution"
  bottom: "conv1"
  top: "conv2"
  param {
    lr_mult: 1
  }
  param {
    lr_mult: 2
  }
  convolution_param {
    num_output: 64
    pad: 2
    kernel_size: 5
    stride: 1
    weight_filler {
      type: "gaussian"
      std: 0.01
    }
    bias_filler {
      type: "constant"
    }
  }
}
layer {
  name: "relu2"
  type: "ReLU"
  bottom: "conv2"
  top: "conv2"
}
layer {
  name: "pool2"
  type: "Pooling"
  bottom: "conv2"
  top: "pool2"
  pooling_param {
    pool: MAX
    kernel_size: 3
    stride: 2
  }
}
layer {
  name: "conv3"
  type: "Convolution"
  bottom: "pool2"
  top: "conv3"
  param {
    lr_mult: 1
  }
  param {
    lr_mult: 2
  }
  convolution_param {
    num_output: 64
    pad: 2
    kernel_size: 5
    stride: 1
    weight_filler {
      type: "gaussian"
      std: 0.01
    }
    bias_filler {
      type: "constant"
    }
  }
}
layer {
  name: "relu3"
  type: "ReLU"
  bottom: "conv3"
  top: "conv3"
}
layer {
  name: "conv4"
  type: "Convolution"
  bottom: "conv3"
  top: "conv4"
  param {
    lr_mult: 1
  }
  param {
    lr_mult: 2
  }
  convolution_param {
    num_output: 64
    pad: 2
    kernel_size: 5
    stride: 1
    weight_filler {
      type: "gaussian"
      std: 0.01
    }
    bias_filler {
      type: "constant"
    }
  }
}
layer {
  name: "relu4"
  type: "ReLU"
  bottom: "conv4"
  top: "conv4"
}
layer {
  name: "conv5"
  type: "Convolution"
  bottom: "conv4"
  top: "conv5"
  param {
    lr_mult: 1
  }
  param {
    lr_mult: 2
  }
  convolution_param {
    num_output: 64
    pad: 2
    kernel_size: 5
    stride: 1
    weight_filler {
      type: "gaussian"
      std: 0.01
    }
    bias_filler {
      type: "constant"
    }
  }
}
layer {
  name: "relu5"
  type: "ReLU"
  bottom: "conv5"
  top: "conv5"
}
layer {
  name: "pool5"
  type: "Pooling"
  bottom: "conv5"
  top: "pool5"
  pooling_param {
    pool: AVE
    kernel_size: 3
    stride: 2
  }
}
layer {
  name: "ip1"
  type: "InnerProduct"
  bottom: "pool5"
  top: "ip1"
  param {
    lr_mult: 1
  }
  param {
    lr_mult: 2
  }
  inner_product_param {
    num_output: 64
    weight_filler {
      type: "gaussian"
      std: 0.1
    }
    bias_filler {
      type: "constant"
    }
  }
}
layer {
  name: "ip2"
  type: "InnerProduct"
  bottom: "ip1"
  top: "ip2"
  param {
    lr_mult: 1
  }
  param {
    lr_mult: 2
  }
  inner_product_param {
    num_output: 64
    weight_filler {
      type: "gaussian"
      std: 0.1
    }
    bias_filler {
      type: "constant"
    }
  }
}
layer {
  name: "ip3"
  type: "InnerProduct"
  bottom: "ip2"
  top: "ip3"
  param {
    lr_mult: 1
  }
  param {
    lr_mult: 2
  }
  inner_product_param {
    num_output: 1
    weight_filler {
      type: "gaussian"
      std: 0.1
    }
    bias_filler {
      type: "constant"
    }
  }
}
layer {
  name: "loss"
  type: "HuberLoss"
  bottom: "ip3"
  bottom: "label"
  top: "loss"
  include {
    phase: TRAIN
  }
}
I0501 14:46:17.098865 13243 layer_factory.hpp:77] Creating layer parameters
I0501 14:46:17.098892 13243 net.cpp:94] Creating Layer parameters
I0501 14:46:17.098903 13243 net.cpp:409] parameters -> data
I0501 14:46:17.098918 13243 net.cpp:409] parameters -> label
I0501 14:46:17.098929 13243 hdf5_data_layer.cpp:79] Loading list of HDF5 filenames from: /home/purduethu/scratch/radon/d/deng106/CNNStatisticalModel/distributions/input/20_distributions_900_sample_size_train-parameters-path.txt
I0501 14:46:17.099056 13243 hdf5_data_layer.cpp:93] Number of HDF5 files: 1
I0501 14:46:17.100045 13243 hdf5.cpp:32] Datatype class: H5T_FLOAT
I0501 14:46:18.215579 13243 net.cpp:144] Setting up parameters
I0501 14:46:18.215621 13243 net.cpp:151] Top shape: 20 1 30 30 (18000)
I0501 14:46:18.215629 13243 net.cpp:151] Top shape: 20 (20)
I0501 14:46:18.215636 13243 net.cpp:159] Memory required for data: 72080
I0501 14:46:18.215646 13243 layer_factory.hpp:77] Creating layer conv1
I0501 14:46:18.215673 13243 net.cpp:94] Creating Layer conv1
I0501 14:46:18.215684 13243 net.cpp:435] conv1 <- data
I0501 14:46:18.215697 13243 net.cpp:409] conv1 -> conv1
I0501 14:46:18.224362 13243 net.cpp:144] Setting up conv1
I0501 14:46:18.224387 13243 net.cpp:151] Top shape: 20 64 30 30 (1152000)
I0501 14:46:18.224395 13243 net.cpp:159] Memory required for data: 4680080
I0501 14:46:18.224411 13243 layer_factory.hpp:77] Creating layer relu1
I0501 14:46:18.224422 13243 net.cpp:94] Creating Layer relu1
I0501 14:46:18.224428 13243 net.cpp:435] relu1 <- conv1
I0501 14:46:18.224436 13243 net.cpp:396] relu1 -> conv1 (in-place)
I0501 14:46:18.224452 13243 net.cpp:144] Setting up relu1
I0501 14:46:18.224460 13243 net.cpp:151] Top shape: 20 64 30 30 (1152000)
I0501 14:46:18.224467 13243 net.cpp:159] Memory required for data: 9288080
I0501 14:46:18.224473 13243 layer_factory.hpp:77] Creating layer conv2
I0501 14:46:18.224488 13243 net.cpp:94] Creating Layer conv2
I0501 14:46:18.224494 13243 net.cpp:435] conv2 <- conv1
I0501 14:46:18.224504 13243 net.cpp:409] conv2 -> conv2
I0501 14:46:18.241997 13243 net.cpp:144] Setting up conv2
I0501 14:46:18.242017 13243 net.cpp:151] Top shape: 20 64 30 30 (1152000)
I0501 14:46:18.242025 13243 net.cpp:159] Memory required for data: 13896080
I0501 14:46:18.242039 13243 layer_factory.hpp:77] Creating layer relu2
I0501 14:46:18.242050 13243 net.cpp:94] Creating Layer relu2
I0501 14:46:18.242056 13243 net.cpp:435] relu2 <- conv2
I0501 14:46:18.242064 13243 net.cpp:396] relu2 -> conv2 (in-place)
I0501 14:46:18.242076 13243 net.cpp:144] Setting up relu2
I0501 14:46:18.242085 13243 net.cpp:151] Top shape: 20 64 30 30 (1152000)
I0501 14:46:18.242091 13243 net.cpp:159] Memory required for data: 18504080
I0501 14:46:18.242097 13243 layer_factory.hpp:77] Creating layer pool2
I0501 14:46:18.242116 13243 net.cpp:94] Creating Layer pool2
I0501 14:46:18.242125 13243 net.cpp:435] pool2 <- conv2
I0501 14:46:18.242133 13243 net.cpp:409] pool2 -> pool2
I0501 14:46:18.242213 13243 net.cpp:144] Setting up pool2
I0501 14:46:18.242228 13243 net.cpp:151] Top shape: 20 64 15 15 (288000)
I0501 14:46:18.242235 13243 net.cpp:159] Memory required for data: 19656080
I0501 14:46:18.242241 13243 layer_factory.hpp:77] Creating layer conv3
I0501 14:46:18.242265 13243 net.cpp:94] Creating Layer conv3
I0501 14:46:18.242271 13243 net.cpp:435] conv3 <- pool2
I0501 14:46:18.242280 13243 net.cpp:409] conv3 -> conv3
I0501 14:46:18.252806 13243 net.cpp:144] Setting up conv3
I0501 14:46:18.252825 13243 net.cpp:151] Top shape: 20 64 15 15 (288000)
I0501 14:46:18.252833 13243 net.cpp:159] Memory required for data: 20808080
I0501 14:46:18.252847 13243 layer_factory.hpp:77] Creating layer relu3
I0501 14:46:18.252857 13243 net.cpp:94] Creating Layer relu3
I0501 14:46:18.252864 13243 net.cpp:435] relu3 <- conv3
I0501 14:46:18.252872 13243 net.cpp:396] relu3 -> conv3 (in-place)
I0501 14:46:18.252884 13243 net.cpp:144] Setting up relu3
I0501 14:46:18.252893 13243 net.cpp:151] Top shape: 20 64 15 15 (288000)
I0501 14:46:18.252899 13243 net.cpp:159] Memory required for data: 21960080
I0501 14:46:18.252905 13243 layer_factory.hpp:77] Creating layer conv4
I0501 14:46:18.252919 13243 net.cpp:94] Creating Layer conv4
I0501 14:46:18.252926 13243 net.cpp:435] conv4 <- conv3
I0501 14:46:18.252935 13243 net.cpp:409] conv4 -> conv4
I0501 14:46:18.262229 13243 net.cpp:144] Setting up conv4
I0501 14:46:18.262249 13243 net.cpp:151] Top shape: 20 64 15 15 (288000)
I0501 14:46:18.262257 13243 net.cpp:159] Memory required for data: 23112080
I0501 14:46:18.262267 13243 layer_factory.hpp:77] Creating layer relu4
I0501 14:46:18.262275 13243 net.cpp:94] Creating Layer relu4
I0501 14:46:18.262281 13243 net.cpp:435] relu4 <- conv4
I0501 14:46:18.262290 13243 net.cpp:396] relu4 -> conv4 (in-place)
I0501 14:46:18.262300 13243 net.cpp:144] Setting up relu4
I0501 14:46:18.262306 13243 net.cpp:151] Top shape: 20 64 15 15 (288000)
I0501 14:46:18.262311 13243 net.cpp:159] Memory required for data: 24264080
I0501 14:46:18.262317 13243 layer_factory.hpp:77] Creating layer conv5
I0501 14:46:18.262328 13243 net.cpp:94] Creating Layer conv5
I0501 14:46:18.262334 13243 net.cpp:435] conv5 <- conv4
I0501 14:46:18.262343 13243 net.cpp:409] conv5 -> conv5
I0501 14:46:18.272760 13243 net.cpp:144] Setting up conv5
I0501 14:46:18.272778 13243 net.cpp:151] Top shape: 20 64 15 15 (288000)
I0501 14:46:18.272786 13243 net.cpp:159] Memory required for data: 25416080
I0501 14:46:18.272801 13243 layer_factory.hpp:77] Creating layer relu5
I0501 14:46:18.272812 13243 net.cpp:94] Creating Layer relu5
I0501 14:46:18.272819 13243 net.cpp:435] relu5 <- conv5
I0501 14:46:18.272828 13243 net.cpp:396] relu5 -> conv5 (in-place)
I0501 14:46:18.272840 13243 net.cpp:144] Setting up relu5
I0501 14:46:18.272850 13243 net.cpp:151] Top shape: 20 64 15 15 (288000)
I0501 14:46:18.272855 13243 net.cpp:159] Memory required for data: 26568080
I0501 14:46:18.272861 13243 layer_factory.hpp:77] Creating layer pool5
I0501 14:46:18.272871 13243 net.cpp:94] Creating Layer pool5
I0501 14:46:18.272877 13243 net.cpp:435] pool5 <- conv5
I0501 14:46:18.272886 13243 net.cpp:409] pool5 -> pool5
I0501 14:46:18.272943 13243 net.cpp:144] Setting up pool5
I0501 14:46:18.272958 13243 net.cpp:151] Top shape: 20 64 7 7 (62720)
I0501 14:46:18.272964 13243 net.cpp:159] Memory required for data: 26818960
I0501 14:46:18.272970 13243 layer_factory.hpp:77] Creating layer ip1
I0501 14:46:18.272985 13243 net.cpp:94] Creating Layer ip1
I0501 14:46:18.272991 13243 net.cpp:435] ip1 <- pool5
I0501 14:46:18.273000 13243 net.cpp:409] ip1 -> ip1
I0501 14:46:18.279639 13243 net.cpp:144] Setting up ip1
I0501 14:46:18.279657 13243 net.cpp:151] Top shape: 20 64 (1280)
I0501 14:46:18.279665 13243 net.cpp:159] Memory required for data: 26824080
I0501 14:46:18.279678 13243 layer_factory.hpp:77] Creating layer ip2
I0501 14:46:18.279692 13243 net.cpp:94] Creating Layer ip2
I0501 14:46:18.279706 13243 net.cpp:435] ip2 <- ip1
I0501 14:46:18.279716 13243 net.cpp:409] ip2 -> ip2
I0501 14:46:18.280050 13243 net.cpp:144] Setting up ip2
I0501 14:46:18.280067 13243 net.cpp:151] Top shape: 20 64 (1280)
I0501 14:46:18.280074 13243 net.cpp:159] Memory required for data: 26829200
I0501 14:46:18.280084 13243 layer_factory.hpp:77] Creating layer ip3
I0501 14:46:18.280097 13243 net.cpp:94] Creating Layer ip3
I0501 14:46:18.280103 13243 net.cpp:435] ip3 <- ip2
I0501 14:46:18.280112 13243 net.cpp:409] ip3 -> ip3
I0501 14:46:18.280287 13243 net.cpp:144] Setting up ip3
I0501 14:46:18.280300 13243 net.cpp:151] Top shape: 20 1 (20)
I0501 14:46:18.280306 13243 net.cpp:159] Memory required for data: 26829280
I0501 14:46:18.280315 13243 layer_factory.hpp:77] Creating layer loss
I0501 14:46:18.280328 13243 net.cpp:94] Creating Layer loss
I0501 14:46:18.280335 13243 net.cpp:435] loss <- ip3
I0501 14:46:18.280342 13243 net.cpp:435] loss <- label
I0501 14:46:18.280350 13243 net.cpp:409] loss -> loss
I0501 14:46:18.280433 13243 net.cpp:144] Setting up loss
…
I0501 14:46:18.598076 13243 net.cpp:323] The NetState phase (0) differed from the phase (1) specified by a rule in layer intercept
I0501 14:46:18.598105 13243 net.cpp:323] The NetState phase (0) differed from the phase (1) specified by a rule in layer accuracy
I0501 14:46:18.598254 13243 net.cpp:52] Initializing net from parameters: 
state {
  phase: TRAIN
}
layer {
  name: "parameters"
  type: "HDF5Data"
  top: "data"
  top: "label"
  include {
    phase: TRAIN
  }
  hdf5_data_param {
    source: "/home/purduethu/scratch/radon/d/deng106/CNNStatisticalModel/distributions/input/20_distributions_900_sample_size_train-distributions-path.txt"
    batch_size: 20
  }
}
layer {
  name: "conv1"
  type: "Convolution"
  bottom: "data"
  top: "conv1"
  param {
    lr_mult: 1
  }
  param {
    lr_mult: 2
  }
  convolution_param {
    num_output: 64
    pad: 2
    kernel_size: 5
    stride: 1
    weight_filler {
      type: "gaussian"
      std: 0.0001
    }
    bias_filler {
      type: "constant"
    }
  }
}
layer {
  name: "relu1"
  type: "ReLU"
  bottom: "conv1"
  top: "conv1"
}
layer {
  name: "conv2"
  type: "Convolution"
  bottom: "conv1"
  top: "conv2"
  param {
    lr_mult: 1
  }
  param {
    lr_mult: 2
  }
  convolution_param {
    num_output: 64
    pad: 2
    kernel_size: 5
    stride: 1
    weight_filler {
      type: "gaussian"
      std: 0.01
    }
    bias_filler {
      type: "constant"
    }
  }
}
layer {
  name: "relu2"
  type: "ReLU"
  bottom: "conv2"
  top: "conv2"
}
layer {
  name: "pool2"
  type: "Pooling"
  bottom: "conv2"
  top: "pool2"
  pooling_param {
    pool: MAX
    kernel_size: 3
    stride: 2
  }
}
layer {
  name: "conv3"
  type: "Convolution"
  bottom: "pool2"
  top: "conv3"
  param {
    lr_mult: 1
  }
  param {
    lr_mult: 2
  }
  convolution_param {
    num_output: 64
    pad: 2
    kernel_size: 5
    stride: 1
    weight_filler {
      type: "gaussian"
      std: 0.01
    }
    bias_filler {
      type: "constant"
    }
  }
}
layer {
  name: "relu3"
  type: "ReLU"
  bottom: "conv3"
  top: "conv3"
}
layer {
  name: "conv4"
  type: "Convolution"
  bottom: "conv3"
  top: "conv4"
  param {
    lr_mult: 1
  }
  param {
    lr_mult: 2
  }
  convolution_param {
    num_output: 64
    pad: 2
    kernel_size: 5
    stride: 1
    weight_filler {
      type: "gaussian"
      std: 0.01
    }
    bias_filler {
      type: "constant"
    }
  }
}
layer {
  name: "relu4"
  type: "ReLU"
  bottom: "conv4"
  top: "conv4"
}
layer {
  name: "conv5"
  type: "Convolution"
  bottom: "conv4"
  top: "conv5"
  param {
    lr_mult: 1
  }
  param {
    lr_mult: 2
  }
  convolution_param {
    num_output: 64
    pad: 2
    kernel_size: 5
    stride: 1
    weight_filler {
      type: "gaussian"
      std: 0.01
    }
    bias_filler {
      type: "constant"
    }
  }
}
layer {
  name: "relu5"
  type: "ReLU"
  bottom: "conv5"
  top: "conv5"
}
layer {
  name: "pool5"
  type: "Pooling"
  bottom: "conv5"
  top: "pool5"
  pooling_param {
    pool: AVE
    kernel_size: 3
    stride: 2
  }
}
layer {
  name: "ip1"
  type: "InnerProduct"
  bottom: "pool5"
  top: "ip1"
  param {
    lr_mult: 1
  }
  param {
    lr_mult: 2
  }
  inner_product_param {
    num_output: 64
    weight_filler {
      type: "gaussian"
      std: 0.1
    }
    bias_filler {
      type: "constant"
    }
  }
}
layer {
  name: "ip2"
  type: "InnerProduct"
  bottom: "ip1"
  top: "ip2"
  param {
    lr_mult: 1
  }
  param {
    lr_mult: 2
  }
  inner_product_param {
    num_output: 64
    weight_filler {
      type: "gaussian"
      std: 0.1
    }
    bias_filler {
      type: "constant"
    }
  }
}
layer {
  name: "ip3"
  type: "InnerProduct"
  bottom: "ip2"
  top: "ip3"
  param {
    lr_mult: 1
  }
  param {
    lr_mult: 2
  }
  inner_product_param {
    num_output: 50
    weight_filler {
      type: "gaussian"
      std: 0.1
    }
    bias_filler {
      type: "constant"
    }
  }
}
layer {
  name: "loss"
  type: "SoftmaxWithLoss"
  bottom: "ip3"
  bottom: "label"
  top: "loss"
}
I0501 14:46:18.598335 13243 layer_factory.hpp:77] Creating layer parameters
I0501 14:46:18.598348 13243 net.cpp:94] Creating Layer parameters
I0501 14:46:18.598357 13243 net.cpp:409] parameters -> data
I0501 14:46:18.598368 13243 net.cpp:409] parameters -> label
I0501 14:46:18.598378 13243 hdf5_data_layer.cpp:79] Loading list of HDF5 filenames from: /home/purduethu/scratch/radon/d/deng106/CNNStatisticalModel/distributions/input/20_distributions_900_sample_size_train-distributions-path.txt
I0501 14:46:18.598496 13243 hdf5_data_layer.cpp:93] Number of HDF5 files: 1
I0501 14:46:19.667351 13243 hdf5.cpp:35] Datatype class: H5T_INTEGER
I0501 14:46:19.669379 13243 net.cpp:144] Setting up parameters
I0501 14:46:19.669404 13243 net.cpp:151] Top shape: 20 1 30 30 (18000)
I0501 14:46:19.669409 13243 net.cpp:151] Top shape: 20 (20)
I0501 14:46:19.669414 13243 net.cpp:159] Memory required for data: 72080
I0501 14:46:19.669420 13243 layer_factory.hpp:77] Creating layer conv1
I0501 14:46:19.669435 13243 net.cpp:94] Creating Layer conv1
I0501 14:46:19.669440 13243 net.cpp:435] conv1 <- data
I0501 14:46:19.669447 13243 net.cpp:409] conv1 -> conv1
I0501 14:46:19.672977 13243 net.cpp:144] Setting up conv1
I0501 14:46:19.672992 13243 net.cpp:151] Top shape: 20 64 30 30 (1152000)
I0501 14:46:19.672996 13243 net.cpp:159] Memory required for data: 4680080
I0501 14:46:19.673007 13243 layer_factory.hpp:77] Creating layer relu1
I0501 14:46:19.673014 13243 net.cpp:94] Creating Layer relu1
I0501 14:46:19.673018 13243 net.cpp:435] relu1 <- conv1
I0501 14:46:19.673022 13243 net.cpp:396] relu1 -> conv1 (in-place)
I0501 14:46:19.673030 13243 net.cpp:144] Setting up relu1
I0501 14:46:19.673035 13243 net.cpp:151] Top shape: 20 64 30 30 (1152000)
I0501 14:46:19.673038 13243 net.cpp:159] Memory required for data: 9288080
I0501 14:46:19.673041 13243 layer_factory.hpp:77] Creating layer conv2
I0501 14:46:19.673049 13243 net.cpp:94] Creating Layer conv2
I0501 14:46:19.673053 13243 net.cpp:435] conv2 <- conv1
I0501 14:46:19.673058 13243 net.cpp:409] conv2 -> conv2
I0501 14:46:19.689159 13243 net.cpp:144] Setting up conv2
I0501 14:46:19.689174 13243 net.cpp:151] Top shape: 20 64 30 30 (1152000)
I0501 14:46:19.689178 13243 net.cpp:159] Memory required for data: 13896080
I0501 14:46:19.689187 13243 layer_factory.hpp:77] Creating layer relu2
I0501 14:46:19.689193 13243 net.cpp:94] Creating Layer relu2
I0501 14:46:19.689198 13243 net.cpp:435] relu2 <- conv2
I0501 14:46:19.689201 13243 net.cpp:396] relu2 -> conv2 (in-place)
I0501 14:46:19.689208 13243 net.cpp:144] Setting up relu2
I0501 14:46:19.689213 13243 net.cpp:151] Top shape: 20 64 30 30 (1152000)
I0501 14:46:19.689216 13243 net.cpp:159] Memory required for data: 18504080
I0501 14:46:19.689219 13243 layer_factory.hpp:77] Creating layer pool2
I0501 14:46:19.689225 13243 net.cpp:94] Creating Layer pool2
I0501 14:46:19.689229 13243 net.cpp:435] pool2 <- conv2
I0501 14:46:19.689232 13243 net.cpp:409] pool2 -> pool2
I0501 14:46:19.689291 13243 net.cpp:144] Setting up pool2
I0501 14:46:19.689298 13243 net.cpp:151] Top shape: 20 64 15 15 (288000)
I0501 14:46:19.689301 13243 net.cpp:159] Memory required for data: 19656080
I0501 14:46:19.689304 13243 layer_factory.hpp:77] Creating layer conv3
I0501 14:46:19.689312 13243 net.cpp:94] Creating Layer conv3
I0501 14:46:19.689316 13243 net.cpp:435] conv3 <- pool2
I0501 14:46:19.689327 13243 net.cpp:409] conv3 -> conv3
I0501 14:46:19.698236 13243 net.cpp:144] Setting up conv3
I0501 14:46:19.698251 13243 net.cpp:151] Top shape: 20 64 15 15 (288000)
I0501 14:46:19.698256 13243 net.cpp:159] Memory required for data: 20808080
I0501 14:46:19.698263 13243 layer_factory.hpp:77] Creating layer relu3
I0501 14:46:19.698269 13243 net.cpp:94] Creating Layer relu3
I0501 14:46:19.698273 13243 net.cpp:435] relu3 <- conv3
I0501 14:46:19.698277 13243 net.cpp:396] relu3 -> conv3 (in-place)
I0501 14:46:19.698284 13243 net.cpp:144] Setting up relu3
I0501 14:46:19.698289 13243 net.cpp:151] Top shape: 20 64 15 15 (288000)
I0501 14:46:19.698292 13243 net.cpp:159] Memory required for data: 21960080
I0501 14:46:19.698295 13243 layer_factory.hpp:77] Creating layer conv4
I0501 14:46:19.698303 13243 net.cpp:94] Creating Layer conv4
I0501 14:46:19.698307 13243 net.cpp:435] conv4 <- conv3
I0501 14:46:19.698312 13243 net.cpp:409] conv4 -> conv4
I0501 14:46:19.706233 13243 net.cpp:144] Setting up conv4
I0501 14:46:19.706248 13243 net.cpp:151] Top shape: 20 64 15 15 (288000)
I0501 14:46:19.706252 13243 net.cpp:159] Memory required for data: 23112080
I0501 14:46:19.706259 13243 layer_factory.hpp:77] Creating layer relu4
I0501 14:46:19.706264 13243 net.cpp:94] Creating Layer relu4
I0501 14:46:19.706269 13243 net.cpp:435] relu4 <- conv4
I0501 14:46:19.706274 13243 net.cpp:396] relu4 -> conv4 (in-place)
I0501 14:46:19.706280 13243 net.cpp:144] Setting up relu4
I0501 14:46:19.706284 13243 net.cpp:151] Top shape: 20 64 15 15 (288000)
I0501 14:46:19.706287 13243 net.cpp:159] Memory required for data: 24264080
I0501 14:46:19.706290 13243 layer_factory.hpp:77] Creating layer conv5
I0501 14:46:19.706298 13243 net.cpp:94] Creating Layer conv5
I0501 14:46:19.706302 13243 net.cpp:435] conv5 <- conv4
I0501 14:46:19.706306 13243 net.cpp:409] conv5 -> conv5
I0501 14:46:19.714398 13243 net.cpp:144] Setting up conv5
I0501 14:46:19.714413 13243 net.cpp:151] Top shape: 20 64 15 15 (288000)
I0501 14:46:19.714417 13243 net.cpp:159] Memory required for data: 25416080
I0501 14:46:19.714426 13243 layer_factory.hpp:77] Creating layer relu5
I0501 14:46:19.714432 13243 net.cpp:94] Creating Layer relu5
I0501 14:46:19.714435 13243 net.cpp:435] relu5 <- conv5
I0501 14:46:19.714440 13243 net.cpp:396] relu5 -> conv5 (in-place)
I0501 14:46:19.714447 13243 net.cpp:144] Setting up relu5
I0501 14:46:19.714452 13243 net.cpp:151] Top shape: 20 64 15 15 (288000)
I0501 14:46:19.714454 13243 net.cpp:159] Memory required for data: 26568080
I0501 14:46:19.714457 13243 layer_factory.hpp:77] Creating layer pool5
I0501 14:46:19.714462 13243 net.cpp:94] Creating Layer pool5
I0501 14:46:19.714467 13243 net.cpp:435] pool5 <- conv5
I0501 14:46:19.714470 13243 net.cpp:409] pool5 -> pool5
I0501 14:46:19.714511 13243 net.cpp:144] Setting up pool5
I0501 14:46:19.714519 13243 net.cpp:151] Top shape: 20 64 7 7 (62720)
I0501 14:46:19.714522 13243 net.cpp:159] Memory required for data: 26818960
I0501 14:46:19.714525 13243 layer_factory.hpp:77] Creating layer ip1
I0501 14:46:19.714532 13243 net.cpp:94] Creating Layer ip1
I0501 14:46:19.714536 13243 net.cpp:435] ip1 <- pool5
I0501 14:46:19.714541 13243 net.cpp:409] ip1 -> ip1
I0501 14:46:19.720398 13243 net.cpp:144] Setting up ip1
I0501 14:46:19.720413 13243 net.cpp:151] Top shape: 20 64 (1280)
I0501 14:46:19.720417 13243 net.cpp:159] Memory required for data: 26824080
I0501 14:46:19.720424 13243 layer_factory.hpp:77] Creating layer ip2
I0501 14:46:19.720432 13243 net.cpp:94] Creating Layer ip2
I0501 14:46:19.720435 13243 net.cpp:435] ip2 <- ip1
I0501 14:46:19.720440 13243 net.cpp:409] ip2 -> ip2
I0501 14:46:19.720685 13243 net.cpp:144] Setting up ip2
I0501 14:46:19.720693 13243 net.cpp:151] Top shape: 20 64 (1280)
I0501 14:46:19.720697 13243 net.cpp:159] Memory required for data: 26829200
I0501 14:46:19.720702 13243 layer_factory.hpp:77] Creating layer ip3
I0501 14:46:19.720708 13243 net.cpp:94] Creating Layer ip3
I0501 14:46:19.720711 13243 net.cpp:435] ip3 <- ip2
I0501 14:46:19.720716 13243 net.cpp:409] ip3 -> ip3
I0501 14:46:19.720938 13243 net.cpp:144] Setting up ip3
I0501 14:46:19.720947 13243 net.cpp:151] Top shape: 20 50 (1000)
I0501 14:46:19.720950 13243 net.cpp:159] Memory required for data: 26833200
I0501 14:46:19.720955 13243 layer_factory.hpp:77] Creating layer loss
I0501 14:46:19.720963 13243 net.cpp:94] Creating Layer loss
I0501 14:46:19.720966 13243 net.cpp:435] loss <- ip3
I0501 14:46:19.720970 13243 net.cpp:435] loss <- label
I0501 14:46:19.720974 13243 net.cpp:409] loss -> loss
I0501 14:46:19.720981 13243 layer_factory.hpp:77] Creating layer loss
…
I0501 14:46:19.721519 13243 solver.cpp:181] Creating test net (#0) specified by net file: ./protocol/dis_20_900_dimension.protocol_distribution
I0501 14:46:19.721547 13243 net.cpp:323] The NetState phase (1) differed from the phase (0) specified by a rule in layer parameters
I0501 14:46:19.721645 13243 net.cpp:52] Initializing net from parameters: 
state {
  phase: TEST
}
layer {
  name: "intercept"
  type: "HDF5Data"
  top: "data"
  top: "label"
  include {
    phase: TEST
  }
  hdf5_data_param {
    source: "/home/purduethu/scratch/radon/d/deng106/CNNStatisticalModel/distributions/input/20_distributions_900_sample_size_test-distributions-path.txt"
    batch_size: 20
  }
}
layer {
  name: "conv1"
  type: "Convolution"
  bottom: "data"
  top: "conv1"
  param {
    lr_mult: 1
  }
  param {
    lr_mult: 2
  }
  convolution_param {
    num_output: 64
    pad: 2
    kernel_size: 5
    stride: 1
    weight_filler {
      type: "gaussian"
      std: 0.0001
    }
    bias_filler {
      type: "constant"
    }
  }
}
layer {
  name: "relu1"
  type: "ReLU"
  bottom: "conv1"
  top: "conv1"
}
layer {
  name: "conv2"
  type: "Convolution"
  bottom: "conv1"
  top: "conv2"
  param {
    lr_mult: 1
  }
  param {
    lr_mult: 2
  }
  convolution_param {
    num_output: 64
    pad: 2
    kernel_size: 5
    stride: 1
    weight_filler {
      type: "gaussian"
      std: 0.01
    }
    bias_filler {
      type: "constant"
    }
  }
}
layer {
  name: "relu2"
  type: "ReLU"
  bottom: "conv2"
  top: "conv2"
}
layer {
  name: "pool2"
  type: "Pooling"
  bottom: "conv2"
  top: "pool2"
  pooling_param {
    pool: MAX
    kernel_size: 3
    stride: 2
  }
}
layer {
  name: "conv3"
  type: "Convolution"
  bottom: "pool2"
  top: "conv3"
  param {
    lr_mult: 1
  }
  param {
    lr_mult: 2
  }
  convolution_param {
    num_output: 64
    pad: 2
    kernel_size: 5
    stride: 1
    weight_filler {
      type: "gaussian"
      std: 0.01
    }
    bias_filler {
      type: "constant"
    }
  }
}
layer {
  name: "relu3"
  type: "ReLU"
  bottom: "conv3"
  top: "conv3"
}
layer {
  name: "conv4"
  type: "Convolution"
  bottom: "conv3"
  top: "conv4"
  param {
    lr_mult: 1
  }
  param {
    lr_mult: 2
  }
  convolution_param {
    num_output: 64
    pad: 2
    kernel_size: 5
    stride: 1
    weight_filler {
      type: "gaussian"
      std: 0.01
    }
    bias_filler {
      type: "constant"
    }
  }
}
layer {
  name: "relu4"
  type: "ReLU"
  bottom: "conv4"
  top: "conv4"
}
layer {
  name: "conv5"
  type: "Convolution"
  bottom: "conv4"
  top: "conv5"
  param {
    lr_mult: 1
  }
  param {
    lr_mult: 2
  }
  convolution_param {
    num_output: 64
    pad: 2
    kernel_size: 5
    stride: 1
    weight_filler {
      type: "gaussian"
      std: 0.01
    }
    bias_filler {
      type: "constant"
    }
  }
}
layer {
  name: "relu5"
  type: "ReLU"
  bottom: "conv5"
  top: "conv5"
}
layer {
  name: "pool5"
  type: "Pooling"
  bottom: "conv5"
  top: "pool5"
  pooling_param {
    pool: AVE
    kernel_size: 3
    stride: 2
  }
}
layer {
  name: "ip1"
  type: "InnerProduct"
  bottom: "pool5"
  top: "ip1"
  param {
    lr_mult: 1
  }
  param {
    lr_mult: 2
  }
  inner_product_param {
    num_output: 64
    weight_filler {
      type: "gaussian"
      std: 0.1
    }
    bias_filler {
      type: "constant"
    }
  }
}
layer {
  name: "ip2"
  type: "InnerProduct"
  bottom: "ip1"
  top: "ip2"
  param {
    lr_mult: 1
  }
  param {
    lr_mult: 2
  }
  inner_product_param {
    num_output: 64
    weight_filler {
      type: "gaussian"
      std: 0.1
    }
    bias_filler {
      type: "constant"
    }
  }
}
layer {
  name: "ip3"
  type: "InnerProduct"
  bottom: "ip2"
  top: "ip3"
  param {
    lr_mult: 1
  }
  param {
    lr_mult: 2
  }
  inner_product_param {
    num_output: 50
    weight_filler {
      type: "gaussian"
      std: 0.1
    }
    bias_filler {
      type: "constant"
    }
  }
}
layer {
  name: "accuracy"
  type: "Accuracy"
  bottom: "ip3"
  bottom: "label"
  top: "accuracy"
  include {
    phase: TEST
  }
}
layer {
  name: "loss"
  type: "SoftmaxWithLoss"
  bottom: "ip3"
  bottom: "label"
  top: "loss"
}
I0501 14:46:19.721710 13243 layer_factory.hpp:77] Creating layer intercept
I0501 14:46:19.721719 13243 net.cpp:94] Creating Layer intercept
I0501 14:46:19.721724 13243 net.cpp:409] intercept -> data
I0501 14:46:19.721729 13243 net.cpp:409] intercept -> label
I0501 14:46:19.721735 13243 hdf5_data_layer.cpp:79] Loading list of HDF5 filenames from: /home/purduethu/scratch/radon/d/deng106/CNNStatisticalModel/distributions/input/20_distributions_900_sample_size_test-distributions-path.txt
I0501 14:46:19.721859 13243 hdf5_data_layer.cpp:93] Number of HDF5 files: 1
I0501 14:46:19.947891 13243 net.cpp:144] Setting up intercept
I0501 14:46:19.947926 13243 net.cpp:151] Top shape: 20 1 30 30 (18000)
I0501 14:46:19.947931 13243 net.cpp:151] Top shape: 20 (20)
I0501 14:46:19.947934 13243 net.cpp:159] Memory required for data: 72080
I0501 14:46:19.947940 13243 layer_factory.hpp:77] Creating layer label_intercept_1_split
I0501 14:46:19.947958 13243 net.cpp:94] Creating Layer label_intercept_1_split
I0501 14:46:19.947963 13243 net.cpp:435] label_intercept_1_split <- label
I0501 14:46:19.947969 13243 net.cpp:409] label_intercept_1_split -> label_intercept_1_split_0
I0501 14:46:19.947978 13243 net.cpp:409] label_intercept_1_split -> label_intercept_1_split_1
I0501 14:46:19.948022 13243 net.cpp:144] Setting up label_intercept_1_split
I0501 14:46:19.948029 13243 net.cpp:151] Top shape: 20 (20)
I0501 14:46:19.948034 13243 net.cpp:151] Top shape: 20 (20)
I0501 14:46:19.948036 13243 net.cpp:159] Memory required for data: 72240
I0501 14:46:19.948040 13243 layer_factory.hpp:77] Creating layer conv1
I0501 14:46:19.948051 13243 net.cpp:94] Creating Layer conv1
I0501 14:46:19.948055 13243 net.cpp:435] conv1 <- data
I0501 14:46:19.948060 13243 net.cpp:409] conv1 -> conv1
I0501 14:46:19.949616 13243 net.cpp:144] Setting up conv1
I0501 14:46:19.949631 13243 net.cpp:151] Top shape: 20 64 30 30 (1152000)
I0501 14:46:19.949635 13243 net.cpp:159] Memory required for data: 4680240
I0501 14:46:19.949645 13243 layer_factory.hpp:77] Creating layer relu1
I0501 14:46:19.949651 13243 net.cpp:94] Creating Layer relu1
I0501 14:46:19.949656 13243 net.cpp:435] relu1 <- conv1
I0501 14:46:19.949659 13243 net.cpp:396] relu1 -> conv1 (in-place)
I0501 14:46:19.949667 13243 net.cpp:144] Setting up relu1
I0501 14:46:19.949671 13243 net.cpp:151] Top shape: 20 64 30 30 (1152000)
I0501 14:46:19.949674 13243 net.cpp:159] Memory required for data: 9288240
I0501 14:46:19.949677 13243 layer_factory.hpp:77] Creating layer conv2
I0501 14:46:19.949686 13243 net.cpp:94] Creating Layer conv2
I0501 14:46:19.949689 13243 net.cpp:435] conv2 <- conv1
I0501 14:46:19.949694 13243 net.cpp:409] conv2 -> conv2
I0501 14:46:19.956475 13243 net.cpp:144] Setting up conv2
I0501 14:46:19.956490 13243 net.cpp:151] Top shape: 20 64 30 30 (1152000)
I0501 14:46:19.956493 13243 net.cpp:159] Memory required for data: 13896240
I0501 14:46:19.956501 13243 layer_factory.hpp:77] Creating layer relu2
I0501 14:46:19.956507 13243 net.cpp:94] Creating Layer relu2
I0501 14:46:19.956511 13243 net.cpp:435] relu2 <- conv2
I0501 14:46:19.956516 13243 net.cpp:396] relu2 -> conv2 (in-place)
I0501 14:46:19.956522 13243 net.cpp:144] Setting up relu2
I0501 14:46:19.956527 13243 net.cpp:151] Top shape: 20 64 30 30 (1152000)
I0501 14:46:19.956531 13243 net.cpp:159] Memory required for data: 18504240
I0501 14:46:19.956533 13243 layer_factory.hpp:77] Creating layer pool2
I0501 14:46:19.956539 13243 net.cpp:94] Creating Layer pool2
I0501 14:46:19.956542 13243 net.cpp:435] pool2 <- conv2
I0501 14:46:19.956547 13243 net.cpp:409] pool2 -> pool2
I0501 14:46:19.956615 13243 net.cpp:144] Setting up pool2
I0501 14:46:19.956624 13243 net.cpp:151] Top shape: 20 64 15 15 (288000)
I0501 14:46:19.956629 13243 net.cpp:159] Memory required for data: 19656240
I0501 14:46:19.956631 13243 layer_factory.hpp:77] Creating layer conv3
I0501 14:46:19.956640 13243 net.cpp:94] Creating Layer conv3
I0501 14:46:19.956643 13243 net.cpp:435] conv3 <- pool2
I0501 14:46:19.956648 13243 net.cpp:409] conv3 -> conv3
I0501 14:46:19.961881 13243 net.cpp:144] Setting up conv3
I0501 14:46:19.961896 13243 net.cpp:151] Top shape: 20 64 15 15 (288000)
I0501 14:46:19.961900 13243 net.cpp:159] Memory required for data: 20808240
I0501 14:46:19.961910 13243 layer_factory.hpp:77] Creating layer relu3
I0501 14:46:19.961916 13243 net.cpp:94] Creating Layer relu3
I0501 14:46:19.961920 13243 net.cpp:435] relu3 <- conv3
I0501 14:46:19.961925 13243 net.cpp:396] relu3 -> conv3 (in-place)
I0501 14:46:19.961932 13243 net.cpp:144] Setting up relu3
I0501 14:46:19.961936 13243 net.cpp:151] Top shape: 20 64 15 15 (288000)
I0501 14:46:19.961940 13243 net.cpp:159] Memory required for data: 21960240
I0501 14:46:19.961943 13243 layer_factory.hpp:77] Creating layer conv4
I0501 14:46:19.961951 13243 net.cpp:94] Creating Layer conv4
I0501 14:46:19.961954 13243 net.cpp:435] conv4 <- conv3
I0501 14:46:19.961959 13243 net.cpp:409] conv4 -> conv4
I0501 14:46:19.966763 13243 net.cpp:144] Setting up conv4
I0501 14:46:19.966778 13243 net.cpp:151] Top shape: 20 64 15 15 (288000)
I0501 14:46:19.966781 13243 net.cpp:159] Memory required for data: 23112240
I0501 14:46:19.966787 13243 layer_factory.hpp:77] Creating layer relu4
I0501 14:46:19.966794 13243 net.cpp:94] Creating Layer relu4
I0501 14:46:19.966797 13243 net.cpp:435] relu4 <- conv4
I0501 14:46:19.966802 13243 net.cpp:396] relu4 -> conv4 (in-place)
I0501 14:46:19.966809 13243 net.cpp:144] Setting up relu4
I0501 14:46:19.966814 13243 net.cpp:151] Top shape: 20 64 15 15 (288000)
I0501 14:46:19.966817 13243 net.cpp:159] Memory required for data: 24264240
I0501 14:46:19.966820 13243 layer_factory.hpp:77] Creating layer conv5
I0501 14:46:19.966827 13243 net.cpp:94] Creating Layer conv5
I0501 14:46:19.966831 13243 net.cpp:435] conv5 <- conv4
I0501 14:46:19.966835 13243 net.cpp:409] conv5 -> conv5
I0501 14:46:19.972481 13243 net.cpp:144] Setting up conv5
I0501 14:46:19.972496 13243 net.cpp:151] Top shape: 20 64 15 15 (288000)
I0501 14:46:19.972501 13243 net.cpp:159] Memory required for data: 25416240
I0501 14:46:19.972509 13243 layer_factory.hpp:77] Creating layer relu5
I0501 14:46:19.972517 13243 net.cpp:94] Creating Layer relu5
I0501 14:46:19.972519 13243 net.cpp:435] relu5 <- conv5
I0501 14:46:19.972524 13243 net.cpp:396] relu5 -> conv5 (in-place)
I0501 14:46:19.972532 13243 net.cpp:144] Setting up relu5
I0501 14:46:19.972535 13243 net.cpp:151] Top shape: 20 64 15 15 (288000)
I0501 14:46:19.972539 13243 net.cpp:159] Memory required for data: 26568240
I0501 14:46:19.972543 13243 layer_factory.hpp:77] Creating layer pool5
I0501 14:46:19.972548 13243 net.cpp:94] Creating Layer pool5
I0501 14:46:19.972560 13243 net.cpp:435] pool5 <- conv5
I0501 14:46:19.972569 13243 net.cpp:409] pool5 -> pool5
I0501 14:46:19.972612 13243 net.cpp:144] Setting up pool5
I0501 14:46:19.972620 13243 net.cpp:151] Top shape: 20 64 7 7 (62720)
I0501 14:46:19.972623 13243 net.cpp:159] Memory required for data: 26819120
I0501 14:46:19.972627 13243 layer_factory.hpp:77] Creating layer ip1
I0501 14:46:19.972635 13243 net.cpp:94] Creating Layer ip1
I0501 14:46:19.972638 13243 net.cpp:435] ip1 <- pool5
I0501 14:46:19.972643 13243 net.cpp:409] ip1 -> ip1
I0501 14:46:19.977751 13243 net.cpp:144] Setting up ip1
I0501 14:46:19.977759 13243 net.cpp:151] Top shape: 20 64 (1280)
I0501 14:46:19.977763 13243 net.cpp:159] Memory required for data: 26824240
I0501 14:46:19.977769 13243 layer_factory.hpp:77] Creating layer ip2
I0501 14:46:19.977776 13243 net.cpp:94] Creating Layer ip2
I0501 14:46:19.977778 13243 net.cpp:435] ip2 <- ip1
I0501 14:46:19.977784 13243 net.cpp:409] ip2 -> ip2
I0501 14:46:19.978044 13243 net.cpp:144] Setting up ip2
I0501 14:46:19.978051 13243 net.cpp:151] Top shape: 20 64 (1280)
I0501 14:46:19.978055 13243 net.cpp:159] Memory required for data: 26829360
I0501 14:46:19.978060 13243 layer_factory.hpp:77] Creating layer ip3
I0501 14:46:19.978067 13243 net.cpp:94] Creating Layer ip3
I0501 14:46:19.978070 13243 net.cpp:435] ip3 <- ip2
I0501 14:46:19.978076 13243 net.cpp:409] ip3 -> ip3
I0501 14:46:19.978296 13243 net.cpp:144] Setting up ip3
I0501 14:46:19.978303 13243 net.cpp:151] Top shape: 20 50 (1000)
I0501 14:46:19.978307 13243 net.cpp:159] Memory required for data: 26833360
I0501 14:46:19.978312 13243 layer_factory.hpp:77] Creating layer ip3_ip3_0_split
I0501 14:46:19.978317 13243 net.cpp:94] Creating Layer ip3_ip3_0_split
I0501 14:46:19.978320 13243 net.cpp:435] ip3_ip3_0_split <- ip3
I0501 14:46:19.978325 13243 net.cpp:409] ip3_ip3_0_split -> ip3_ip3_0_split_0
I0501 14:46:19.978330 13243 net.cpp:409] ip3_ip3_0_split -> ip3_ip3_0_split_1
I0501 14:46:19.978377 13243 net.cpp:144] Setting up ip3_ip3_0_split
I0501 14:46:19.978384 13243 net.cpp:151] Top shape: 20 50 (1000)
I0501 14:46:19.978389 13243 net.cpp:151] Top shape: 20 50 (1000)
I0501 14:46:19.978391 13243 net.cpp:159] Memory required for data: 26841360
I0501 14:46:19.978394 13243 layer_factory.hpp:77] Creating layer accuracy
I0501 14:46:19.978400 13243 net.cpp:94] Creating Layer accuracy
I0501 14:46:19.978404 13243 net.cpp:435] accuracy <- ip3_ip3_0_split_0
I0501 14:46:19.978407 13243 net.cpp:435] accuracy <- label_intercept_1_split_0
I0501 14:46:19.978411 13243 net.cpp:409] accuracy -> accuracy
…
