…
I0505 08:03:54.543011  5170 net.cpp:323] The NetState phase (0) differed from the phase (1) specified by a rule in layer intercept
I0505 08:03:54.543025  5170 net.cpp:323] The NetState phase (0) differed from the phase (1) specified by a rule in layer accuracy
I0505 08:03:54.543107  5170 net.cpp:52] Initializing net from parameters: 
state {
  phase: TRAIN
}
layer {
  name: "parameters"
  type: "HDF5Data"
  top: "data"
  top: "label"
  include {
    phase: TRAIN
  }
  hdf5_data_param {
    source: "/home/purduethu/scratch/radon/d/deng106/CNNStatisticalModel/distributions/input/50_distributions_900_sample_size_train-distributions-path.txt"
    batch_size: 20
  }
}
layer {
  name: "conv1"
  type: "Convolution"
  bottom: "data"
  top: "conv1"
  param {
    lr_mult: 1
  }
  param {
    lr_mult: 2
  }
  convolution_param {
    num_output: 64
    pad: 2
    kernel_size: 5
    stride: 1
    weight_filler {
      type: "gaussian"
      std: 0.0001
    }
    bias_filler {
      type: "constant"
    }
  }
}
layer {
  name: "relu1"
  type: "ReLU"
  bottom: "conv1"
  top: "conv1"
}
layer {
  name: "pool1"
  type: "Pooling"
  bottom: "conv1"
  top: "pool1"
  pooling_param {
    pool: MAX
    kernel_size: 3
    stride: 2
  }
}
layer {
  name: "conv2"
  type: "Convolution"
  bottom: "pool1"
  top: "conv2"
  param {
    lr_mult: 1
  }
  param {
    lr_mult: 2
  }
  convolution_param {
    num_output: 128
    pad: 2
    kernel_size: 5
    stride: 1
    weight_filler {
      type: "gaussian"
      std: 0.01
    }
    bias_filler {
      type: "constant"
    }
  }
}
layer {
  name: "relu2"
  type: "ReLU"
  bottom: "conv2"
  top: "conv2"
}
layer {
  name: "conv3"
  type: "Convolution"
  bottom: "conv2"
  top: "conv3"
  param {
    lr_mult: 1
  }
  param {
    lr_mult: 2
  }
  convolution_param {
    num_output: 128
    pad: 2
    kernel_size: 5
    stride: 1
    weight_filler {
      type: "gaussian"
      std: 0.01
    }
    bias_filler {
      type: "constant"
    }
  }
}
layer {
  name: "relu3"
  type: "ReLU"
  bottom: "conv3"
  top: "conv3"
}
layer {
  name: "pool3"
  type: "Pooling"
  bottom: "conv3"
  top: "pool3"
  pooling_param {
    pool: AVE
    kernel_size: 3
    stride: 2
  }
}
layer {
  name: "ip1"
  type: "InnerProduct"
  bottom: "pool3"
  top: "ip1"
  param {
    lr_mult: 1
  }
  param {
    lr_mult: 2
  }
  inner_product_param {
    num_output: 512
    weight_filler {
      type: "gaussian"
      std: 0.1
    }
    bias_filler {
      type: "constant"
    }
  }
}
layer {
  name: "ip2"
  type: "InnerProduct"
  bottom: "ip1"
  top: "ip2"
  param {
    lr_mult: 1
  }
  param {
    lr_mult: 2
  }
  inner_product_param {
    num_output: 256
    weight_filler {
      type: "gaussian"
      std: 0.1
    }
    bias_filler {
      type: "constant"
    }
  }
}
layer {
  name: "ip3"
  type: "InnerProduct"
  bottom: "ip2"
  top: "ip3"
  param {
    lr_mult: 1
  }
  param {
    lr_mult: 2
  }
  inner_product_param {
    num_output: 50
    weight_filler {
      type: "gaussian"
      std: 0.1
    }
    bias_filler {
      type: "constant"
    }
  }
}
layer {
  name: "loss"
  type: "SoftmaxWithLoss"
  bottom: "ip3"
  bottom: "label"
  top: "loss"
}
I0505 08:03:54.543176  5170 layer_factory.hpp:77] Creating layer parameters
I0505 08:03:54.543192  5170 net.cpp:94] Creating Layer parameters
I0505 08:03:54.543205  5170 net.cpp:409] parameters -> data
I0505 08:03:54.543226  5170 net.cpp:409] parameters -> label
I0505 08:03:54.543236  5170 hdf5_data_layer.cpp:79] Loading list of HDF5 filenames from: /home/purduethu/scratch/radon/d/deng106/CNNStatisticalModel/distributions/input/50_distributions_900_sample_size_train-distributions-path.txt
I0505 08:03:54.543258  5170 hdf5_data_layer.cpp:93] Number of HDF5 files: 1
I0505 08:03:54.543738  5170 hdf5.cpp:32] Datatype class: H5T_FLOAT
I0505 08:03:56.020170  5170 hdf5.cpp:35] Datatype class: H5T_INTEGER
I0505 08:03:56.022944  5170 net.cpp:144] Setting up parameters
I0505 08:03:56.022964  5170 net.cpp:151] Top shape: 20 1 30 30 (18000)
I0505 08:03:56.022969  5170 net.cpp:151] Top shape: 20 (20)
I0505 08:03:56.022974  5170 net.cpp:159] Memory required for data: 72080
I0505 08:03:56.022980  5170 layer_factory.hpp:77] Creating layer conv1
I0505 08:03:56.023005  5170 net.cpp:94] Creating Layer conv1
I0505 08:03:56.023010  5170 net.cpp:435] conv1 <- data
I0505 08:03:56.023021  5170 net.cpp:409] conv1 -> conv1
I0505 08:03:56.029711  5170 net.cpp:144] Setting up conv1
I0505 08:03:56.029726  5170 net.cpp:151] Top shape: 20 64 30 30 (1152000)
I0505 08:03:56.029731  5170 net.cpp:159] Memory required for data: 4680080
I0505 08:03:56.029743  5170 layer_factory.hpp:77] Creating layer relu1
I0505 08:03:56.029752  5170 net.cpp:94] Creating Layer relu1
I0505 08:03:56.029755  5170 net.cpp:435] relu1 <- conv1
I0505 08:03:56.029759  5170 net.cpp:396] relu1 -> conv1 (in-place)
I0505 08:03:56.029779  5170 net.cpp:144] Setting up relu1
I0505 08:03:56.029784  5170 net.cpp:151] Top shape: 20 64 30 30 (1152000)
I0505 08:03:56.029788  5170 net.cpp:159] Memory required for data: 9288080
I0505 08:03:56.029791  5170 layer_factory.hpp:77] Creating layer pool1
I0505 08:03:56.029798  5170 net.cpp:94] Creating Layer pool1
I0505 08:03:56.029803  5170 net.cpp:435] pool1 <- conv1
I0505 08:03:56.029806  5170 net.cpp:409] pool1 -> pool1
I0505 08:03:56.029847  5170 net.cpp:144] Setting up pool1
I0505 08:03:56.029855  5170 net.cpp:151] Top shape: 20 64 15 15 (288000)
I0505 08:03:56.029857  5170 net.cpp:159] Memory required for data: 10440080
I0505 08:03:56.029861  5170 layer_factory.hpp:77] Creating layer conv2
I0505 08:03:56.029870  5170 net.cpp:94] Creating Layer conv2
I0505 08:03:56.029873  5170 net.cpp:435] conv2 <- pool1
I0505 08:03:56.029878  5170 net.cpp:409] conv2 -> conv2
I0505 08:03:56.042924  5170 net.cpp:144] Setting up conv2
I0505 08:03:56.042964  5170 net.cpp:151] Top shape: 20 128 15 15 (576000)
I0505 08:03:56.042978  5170 net.cpp:159] Memory required for data: 12744080
I0505 08:03:56.042999  5170 layer_factory.hpp:77] Creating layer relu2
I0505 08:03:56.043016  5170 net.cpp:94] Creating Layer relu2
I0505 08:03:56.043027  5170 net.cpp:435] relu2 <- conv2
I0505 08:03:56.043041  5170 net.cpp:396] relu2 -> conv2 (in-place)
I0505 08:03:56.043061  5170 net.cpp:144] Setting up relu2
I0505 08:03:56.043076  5170 net.cpp:151] Top shape: 20 128 15 15 (576000)
I0505 08:03:56.043084  5170 net.cpp:159] Memory required for data: 15048080
I0505 08:03:56.043094  5170 layer_factory.hpp:77] Creating layer conv3
I0505 08:03:56.043114  5170 net.cpp:94] Creating Layer conv3
I0505 08:03:56.043125  5170 net.cpp:435] conv3 <- conv2
I0505 08:03:56.043138  5170 net.cpp:409] conv3 -> conv3
I0505 08:03:56.066115  5170 net.cpp:144] Setting up conv3
I0505 08:03:56.066130  5170 net.cpp:151] Top shape: 20 128 15 15 (576000)
I0505 08:03:56.066135  5170 net.cpp:159] Memory required for data: 17352080
I0505 08:03:56.066149  5170 layer_factory.hpp:77] Creating layer relu3
I0505 08:03:56.066156  5170 net.cpp:94] Creating Layer relu3
I0505 08:03:56.066160  5170 net.cpp:435] relu3 <- conv3
I0505 08:03:56.066165  5170 net.cpp:396] relu3 -> conv3 (in-place)
I0505 08:03:56.066172  5170 net.cpp:144] Setting up relu3
I0505 08:03:56.066177  5170 net.cpp:151] Top shape: 20 128 15 15 (576000)
I0505 08:03:56.066180  5170 net.cpp:159] Memory required for data: 19656080
I0505 08:03:56.066184  5170 layer_factory.hpp:77] Creating layer pool3
I0505 08:03:56.066196  5170 net.cpp:94] Creating Layer pool3
I0505 08:03:56.066200  5170 net.cpp:435] pool3 <- conv3
I0505 08:03:56.066205  5170 net.cpp:409] pool3 -> pool3
I0505 08:03:56.066238  5170 net.cpp:144] Setting up pool3
I0505 08:03:56.066246  5170 net.cpp:151] Top shape: 20 128 7 7 (125440)
I0505 08:03:56.066249  5170 net.cpp:159] Memory required for data: 20157840
I0505 08:03:56.066252  5170 layer_factory.hpp:77] Creating layer ip1
I0505 08:03:56.066262  5170 net.cpp:94] Creating Layer ip1
I0505 08:03:56.066267  5170 net.cpp:435] ip1 <- pool3
I0505 08:03:56.066272  5170 net.cpp:409] ip1 -> ip1
I0505 08:03:56.143751  5170 net.cpp:144] Setting up ip1
I0505 08:03:56.143781  5170 net.cpp:151] Top shape: 20 512 (10240)
I0505 08:03:56.143785  5170 net.cpp:159] Memory required for data: 20198800
I0505 08:03:56.143793  5170 layer_factory.hpp:77] Creating layer ip2
I0505 08:03:56.143803  5170 net.cpp:94] Creating Layer ip2
I0505 08:03:56.143808  5170 net.cpp:435] ip2 <- ip1
I0505 08:03:56.143813  5170 net.cpp:409] ip2 -> ip2
I0505 08:03:56.146922  5170 net.cpp:144] Setting up ip2
I0505 08:03:56.146931  5170 net.cpp:151] Top shape: 20 256 (5120)
I0505 08:03:56.146934  5170 net.cpp:159] Memory required for data: 20219280
I0505 08:03:56.146942  5170 layer_factory.hpp:77] Creating layer ip3
I0505 08:03:56.146948  5170 net.cpp:94] Creating Layer ip3
I0505 08:03:56.146952  5170 net.cpp:435] ip3 <- ip2
I0505 08:03:56.146957  5170 net.cpp:409] ip3 -> ip3
I0505 08:03:56.148036  5170 net.cpp:144] Setting up ip3
I0505 08:03:56.148049  5170 net.cpp:151] Top shape: 20 50 (1000)
I0505 08:03:56.148053  5170 net.cpp:159] Memory required for data: 20223280
I0505 08:03:56.148059  5170 layer_factory.hpp:77] Creating layer loss
I0505 08:03:56.148066  5170 net.cpp:94] Creating Layer loss
I0505 08:03:56.148069  5170 net.cpp:435] loss <- ip3
I0505 08:03:56.148073  5170 net.cpp:435] loss <- label
I0505 08:03:56.148079  5170 net.cpp:409] loss -> loss
I0505 08:03:56.148097  5170 layer_factory.hpp:77] Creating layer loss
…
I0505 08:03:56.148524  5170 solver.cpp:181] Creating test net (#0) specified by net file: ./protocol/dis_50_900_dimension.protocol_distribution
I0505 08:03:56.148573  5170 net.cpp:323] The NetState phase (1) differed from the phase (0) specified by a rule in layer parameters
I0505 08:03:56.148663  5170 net.cpp:52] Initializing net from parameters: 
state {
  phase: TEST
}
layer {
  name: "intercept"
  type: "HDF5Data"
  top: "data"
  top: "label"
  include {
    phase: TEST
  }
  hdf5_data_param {
    source: "/home/purduethu/scratch/radon/d/deng106/CNNStatisticalModel/distributions/input/50_distributions_900_sample_size_test-distributions-path.txt"
    batch_size: 20
  }
}
layer {
  name: "conv1"
  type: "Convolution"
  bottom: "data"
  top: "conv1"
  param {
    lr_mult: 1
  }
  param {
    lr_mult: 2
  }
  convolution_param {
    num_output: 64
    pad: 2
    kernel_size: 5
    stride: 1
    weight_filler {
      type: "gaussian"
      std: 0.0001
    }
    bias_filler {
      type: "constant"
    }
  }
}
layer {
  name: "relu1"
  type: "ReLU"
  bottom: "conv1"
  top: "conv1"
}
layer {
  name: "pool1"
  type: "Pooling"
  bottom: "conv1"
  top: "pool1"
  pooling_param {
    pool: MAX
    kernel_size: 3
    stride: 2
  }
}
layer {
  name: "conv2"
  type: "Convolution"
  bottom: "pool1"
  top: "conv2"
  param {
    lr_mult: 1
  }
  param {
    lr_mult: 2
  }
  convolution_param {
    num_output: 128
    pad: 2
    kernel_size: 5
    stride: 1
    weight_filler {
      type: "gaussian"
      std: 0.01
    }
    bias_filler {
      type: "constant"
    }
  }
}
layer {
  name: "relu2"
  type: "ReLU"
  bottom: "conv2"
  top: "conv2"
}
layer {
  name: "conv3"
  type: "Convolution"
  bottom: "conv2"
  top: "conv3"
  param {
    lr_mult: 1
  }
  param {
    lr_mult: 2
  }
  convolution_param {
    num_output: 128
    pad: 2
    kernel_size: 5
    stride: 1
    weight_filler {
      type: "gaussian"
      std: 0.01
    }
    bias_filler {
      type: "constant"
    }
  }
}
layer {
  name: "relu3"
  type: "ReLU"
  bottom: "conv3"
  top: "conv3"
}
layer {
  name: "pool3"
  type: "Pooling"
  bottom: "conv3"
  top: "pool3"
  pooling_param {
    pool: AVE
    kernel_size: 3
    stride: 2
  }
}
layer {
  name: "ip1"
  type: "InnerProduct"
  bottom: "pool3"
  top: "ip1"
  param {
    lr_mult: 1
  }
  param {
    lr_mult: 2
  }
  inner_product_param {
    num_output: 512
    weight_filler {
      type: "gaussian"
      std: 0.1
    }
    bias_filler {
      type: "constant"
    }
  }
}
layer {
  name: "ip2"
  type: "InnerProduct"
  bottom: "ip1"
  top: "ip2"
  param {
    lr_mult: 1
  }
  param {
    lr_mult: 2
  }
  inner_product_param {
    num_output: 256
    weight_filler {
      type: "gaussian"
      std: 0.1
    }
    bias_filler {
      type: "constant"
    }
  }
}
layer {
  name: "ip3"
  type: "InnerProduct"
  bottom: "ip2"
  top: "ip3"
  param {
    lr_mult: 1
  }
  param {
    lr_mult: 2
  }
  inner_product_param {
    num_output: 50
    weight_filler {
      type: "gaussian"
      std: 0.1
    }
    bias_filler {
      type: "constant"
    }
  }
}
layer {
  name: "accuracy"
  type: "Accuracy"
  bottom: "ip3"
  bottom: "label"
  top: "accuracy"
  include {
    phase: TEST
  }
}
layer {
  name: "loss"
  type: "SoftmaxWithLoss"
  bottom: "ip3"
  bottom: "label"
  top: "loss"
}
I0505 08:03:56.148730  5170 layer_factory.hpp:77] Creating layer intercept
I0505 08:03:56.148738  5170 net.cpp:94] Creating Layer intercept
I0505 08:03:56.148742  5170 net.cpp:409] intercept -> data
I0505 08:03:56.148749  5170 net.cpp:409] intercept -> label
I0505 08:03:56.148756  5170 hdf5_data_layer.cpp:79] Loading list of HDF5 filenames from: /home/purduethu/scratch/radon/d/deng106/CNNStatisticalModel/distributions/input/50_distributions_900_sample_size_test-distributions-path.txt
I0505 08:03:56.148775  5170 hdf5_data_layer.cpp:93] Number of HDF5 files: 1
I0505 08:03:56.507333  5170 net.cpp:144] Setting up intercept
I0505 08:03:56.507364  5170 net.cpp:151] Top shape: 20 1 30 30 (18000)
I0505 08:03:56.507370  5170 net.cpp:151] Top shape: 20 (20)
I0505 08:03:56.507374  5170 net.cpp:159] Memory required for data: 72080
I0505 08:03:56.507380  5170 layer_factory.hpp:77] Creating layer label_intercept_1_split
I0505 08:03:56.507407  5170 net.cpp:94] Creating Layer label_intercept_1_split
I0505 08:03:56.507413  5170 net.cpp:435] label_intercept_1_split <- label
I0505 08:03:56.507419  5170 net.cpp:409] label_intercept_1_split -> label_intercept_1_split_0
I0505 08:03:56.507427  5170 net.cpp:409] label_intercept_1_split -> label_intercept_1_split_1
I0505 08:03:56.507453  5170 net.cpp:144] Setting up label_intercept_1_split
I0505 08:03:56.507459  5170 net.cpp:151] Top shape: 20 (20)
I0505 08:03:56.507463  5170 net.cpp:151] Top shape: 20 (20)
I0505 08:03:56.507474  5170 net.cpp:159] Memory required for data: 72240
I0505 08:03:56.507478  5170 layer_factory.hpp:77] Creating layer conv1
I0505 08:03:56.507488  5170 net.cpp:94] Creating Layer conv1
I0505 08:03:56.507493  5170 net.cpp:435] conv1 <- data
I0505 08:03:56.507498  5170 net.cpp:409] conv1 -> conv1
I0505 08:03:56.508833  5170 net.cpp:144] Setting up conv1
I0505 08:03:56.508848  5170 net.cpp:151] Top shape: 20 64 30 30 (1152000)
I0505 08:03:56.508852  5170 net.cpp:159] Memory required for data: 4680240
I0505 08:03:56.508862  5170 layer_factory.hpp:77] Creating layer relu1
I0505 08:03:56.508868  5170 net.cpp:94] Creating Layer relu1
I0505 08:03:56.508872  5170 net.cpp:435] relu1 <- conv1
I0505 08:03:56.508877  5170 net.cpp:396] relu1 -> conv1 (in-place)
I0505 08:03:56.508884  5170 net.cpp:144] Setting up relu1
I0505 08:03:56.508889  5170 net.cpp:151] Top shape: 20 64 30 30 (1152000)
I0505 08:03:56.508893  5170 net.cpp:159] Memory required for data: 9288240
I0505 08:03:56.508895  5170 layer_factory.hpp:77] Creating layer pool1
I0505 08:03:56.508903  5170 net.cpp:94] Creating Layer pool1
I0505 08:03:56.508905  5170 net.cpp:435] pool1 <- conv1
I0505 08:03:56.508910  5170 net.cpp:409] pool1 -> pool1
I0505 08:03:56.508944  5170 net.cpp:144] Setting up pool1
I0505 08:03:56.508950  5170 net.cpp:151] Top shape: 20 64 15 15 (288000)
I0505 08:03:56.508955  5170 net.cpp:159] Memory required for data: 10440240
I0505 08:03:56.508957  5170 layer_factory.hpp:77] Creating layer conv2
I0505 08:03:56.508965  5170 net.cpp:94] Creating Layer conv2
I0505 08:03:56.508968  5170 net.cpp:435] conv2 <- pool1
I0505 08:03:56.508973  5170 net.cpp:409] conv2 -> conv2
I0505 08:03:56.517086  5170 net.cpp:144] Setting up conv2
I0505 08:03:56.517101  5170 net.cpp:151] Top shape: 20 128 15 15 (576000)
I0505 08:03:56.517105  5170 net.cpp:159] Memory required for data: 12744240
I0505 08:03:56.517113  5170 layer_factory.hpp:77] Creating layer relu2
I0505 08:03:56.517120  5170 net.cpp:94] Creating Layer relu2
I0505 08:03:56.517124  5170 net.cpp:435] relu2 <- conv2
I0505 08:03:56.517129  5170 net.cpp:396] relu2 -> conv2 (in-place)
I0505 08:03:56.517137  5170 net.cpp:144] Setting up relu2
I0505 08:03:56.517141  5170 net.cpp:151] Top shape: 20 128 15 15 (576000)
I0505 08:03:56.517144  5170 net.cpp:159] Memory required for data: 15048240
I0505 08:03:56.517148  5170 layer_factory.hpp:77] Creating layer conv3
I0505 08:03:56.517155  5170 net.cpp:94] Creating Layer conv3
I0505 08:03:56.517158  5170 net.cpp:435] conv3 <- conv2
I0505 08:03:56.517163  5170 net.cpp:409] conv3 -> conv3
I0505 08:03:56.532333  5170 net.cpp:144] Setting up conv3
I0505 08:03:56.532349  5170 net.cpp:151] Top shape: 20 128 15 15 (576000)
I0505 08:03:56.532353  5170 net.cpp:159] Memory required for data: 17352240
I0505 08:03:56.532362  5170 layer_factory.hpp:77] Creating layer relu3
I0505 08:03:56.532369  5170 net.cpp:94] Creating Layer relu3
I0505 08:03:56.532373  5170 net.cpp:435] relu3 <- conv3
I0505 08:03:56.532378  5170 net.cpp:396] relu3 -> conv3 (in-place)
I0505 08:03:56.532385  5170 net.cpp:144] Setting up relu3
I0505 08:03:56.532390  5170 net.cpp:151] Top shape: 20 128 15 15 (576000)
I0505 08:03:56.532393  5170 net.cpp:159] Memory required for data: 19656240
I0505 08:03:56.532397  5170 layer_factory.hpp:77] Creating layer pool3
I0505 08:03:56.532402  5170 net.cpp:94] Creating Layer pool3
I0505 08:03:56.532405  5170 net.cpp:435] pool3 <- conv3
I0505 08:03:56.532409  5170 net.cpp:409] pool3 -> pool3
I0505 08:03:56.532436  5170 net.cpp:144] Setting up pool3
I0505 08:03:56.532449  5170 net.cpp:151] Top shape: 20 128 7 7 (125440)
I0505 08:03:56.532452  5170 net.cpp:159] Memory required for data: 20158000
I0505 08:03:56.532455  5170 layer_factory.hpp:77] Creating layer ip1
I0505 08:03:56.532462  5170 net.cpp:94] Creating Layer ip1
I0505 08:03:56.532466  5170 net.cpp:435] ip1 <- pool3
I0505 08:03:56.532470  5170 net.cpp:409] ip1 -> ip1
I0505 08:03:56.609738  5170 net.cpp:144] Setting up ip1
I0505 08:03:56.609769  5170 net.cpp:151] Top shape: 20 512 (10240)
I0505 08:03:56.609774  5170 net.cpp:159] Memory required for data: 20198960
I0505 08:03:56.609794  5170 layer_factory.hpp:77] Creating layer ip2
I0505 08:03:56.609804  5170 net.cpp:94] Creating Layer ip2
I0505 08:03:56.609808  5170 net.cpp:435] ip2 <- ip1
I0505 08:03:56.609814  5170 net.cpp:409] ip2 -> ip2
I0505 08:03:56.612926  5170 net.cpp:144] Setting up ip2
I0505 08:03:56.612936  5170 net.cpp:151] Top shape: 20 256 (5120)
I0505 08:03:56.612938  5170 net.cpp:159] Memory required for data: 20219440
I0505 08:03:56.612947  5170 layer_factory.hpp:77] Creating layer ip3
I0505 08:03:56.612953  5170 net.cpp:94] Creating Layer ip3
I0505 08:03:56.612957  5170 net.cpp:435] ip3 <- ip2
I0505 08:03:56.612962  5170 net.cpp:409] ip3 -> ip3
I0505 08:03:56.613334  5170 net.cpp:144] Setting up ip3
I0505 08:03:56.613342  5170 net.cpp:151] Top shape: 20 50 (1000)
I0505 08:03:56.613344  5170 net.cpp:159] Memory required for data: 20223440
I0505 08:03:56.613349  5170 layer_factory.hpp:77] Creating layer ip3_ip3_0_split
I0505 08:03:56.613355  5170 net.cpp:94] Creating Layer ip3_ip3_0_split
I0505 08:03:56.613358  5170 net.cpp:435] ip3_ip3_0_split <- ip3
I0505 08:03:56.613363  5170 net.cpp:409] ip3_ip3_0_split -> ip3_ip3_0_split_0
I0505 08:03:56.613368  5170 net.cpp:409] ip3_ip3_0_split -> ip3_ip3_0_split_1
I0505 08:03:56.613394  5170 net.cpp:144] Setting up ip3_ip3_0_split
I0505 08:03:56.613399  5170 net.cpp:151] Top shape: 20 50 (1000)
I0505 08:03:56.613404  5170 net.cpp:151] Top shape: 20 50 (1000)
I0505 08:03:56.613406  5170 net.cpp:159] Memory required for data: 20231440
I0505 08:03:56.613409  5170 layer_factory.hpp:77] Creating layer accuracy
I0505 08:03:56.613415  5170 net.cpp:94] Creating Layer accuracy
I0505 08:03:56.613420  5170 net.cpp:435] accuracy <- ip3_ip3_0_split_0
I0505 08:03:56.613423  5170 net.cpp:435] accuracy <- label_intercept_1_split_0
I0505 08:03:56.613432  5170 net.cpp:409] accuracy -> accuracy
…
