…
I0504 04:41:42.715864 24026 net.cpp:323] The NetState phase (0) differed from the phase (1) specified by a rule in layer intercept
I0504 04:41:42.715881 24026 net.cpp:323] The NetState phase (0) differed from the phase (1) specified by a rule in layer loss
I0504 04:41:42.715977 24026 net.cpp:52] Initializing net from parameters: 
state {
  phase: TRAIN
}
layer {
  name: "parameters"
  type: "HDF5Data"
  top: "data"
  top: "label"
  include {
    phase: TRAIN
  }
  hdf5_data_param {
    source: "/home/purduethu/scratch/radon/d/deng106/CNNStatisticalModel/distributions/input/20_distributions_400_sample_size_train-parameters-path.txt"
    batch_size: 20
  }
}
layer {
  name: "conv1"
  type: "Convolution"
  bottom: "data"
  top: "conv1"
  param {
    lr_mult: 1
  }
  param {
    lr_mult: 2
  }
  convolution_param {
    num_output: 64
    pad: 2
    kernel_size: 5
    stride: 1
    weight_filler {
      type: "gaussian"
      std: 0.0001
    }
    bias_filler {
      type: "constant"
    }
  }
}
layer {
  name: "relu1"
  type: "ReLU"
  bottom: "conv1"
  top: "conv1"
}
layer {
  name: "conv2"
  type: "Convolution"
  bottom: "conv1"
  top: "conv2"
  param {
    lr_mult: 1
  }
  param {
    lr_mult: 2
  }
  convolution_param {
    num_output: 64
    pad: 2
    kernel_size: 5
    stride: 1
    weight_filler {
      type: "gaussian"
      std: 0.01
    }
    bias_filler {
      type: "constant"
    }
  }
}
layer {
  name: "relu2"
  type: "ReLU"
  bottom: "conv2"
  top: "conv2"
}
layer {
  name: "pool2"
  type: "Pooling"
  bottom: "conv2"
  top: "pool2"
  pooling_param {
    pool: MAX
    kernel_size: 3
    stride: 2
  }
}
layer {
  name: "conv3"
  type: "Convolution"
  bottom: "pool2"
  top: "conv3"
  param {
    lr_mult: 1
  }
  param {
    lr_mult: 2
  }
  convolution_param {
    num_output: 128
    pad: 2
    kernel_size: 5
    stride: 1
    weight_filler {
      type: "gaussian"
      std: 0.01
    }
    bias_filler {
      type: "constant"
    }
  }
}
layer {
  name: "relu3"
  type: "ReLU"
  bottom: "conv3"
  top: "conv3"
}
layer {
  name: "conv4"
  type: "Convolution"
  bottom: "conv3"
  top: "conv4"
  param {
    lr_mult: 1
  }
  param {
    lr_mult: 2
  }
  convolution_param {
    num_output: 128
    pad: 2
    kernel_size: 5
    stride: 1
    weight_filler {
      type: "gaussian"
      std: 0.01
    }
    bias_filler {
      type: "constant"
    }
  }
}
layer {
  name: "relu4"
  type: "ReLU"
  bottom: "conv4"
  top: "conv4"
}
layer {
  name: "conv5"
  type: "Convolution"
  bottom: "conv4"
  top: "conv5"
  param {
    lr_mult: 1
  }
  param {
    lr_mult: 2
  }
  convolution_param {
    num_output: 128
    pad: 2
    kernel_size: 5
    stride: 1
    weight_filler {
      type: "gaussian"
      std: 0.01
    }
    bias_filler {
      type: "constant"
    }
  }
}
layer {
  name: "relu5"
  type: "ReLU"
  bottom: "conv5"
  top: "conv5"
}
layer {
  name: "pool5"
  type: "Pooling"
  bottom: "conv5"
  top: "pool5"
  pooling_param {
    pool: AVE
    kernel_size: 3
    stride: 2
  }
}
layer {
  name: "ip1"
  type: "InnerProduct"
  bottom: "pool5"
  top: "ip1"
  param {
    lr_mult: 1
  }
  param {
    lr_mult: 2
  }
  inner_product_param {
    num_output: 1024
    weight_filler {
      type: "gaussian"
      std: 0.1
    }
    bias_filler {
      type: "constant"
    }
  }
}
layer {
  name: "ip2"
  type: "InnerProduct"
  bottom: "ip1"
  top: "ip2"
  param {
    lr_mult: 1
  }
  param {
    lr_mult: 2
  }
  inner_product_param {
    num_output: 512
    weight_filler {
      type: "gaussian"
      std: 0.1
    }
    bias_filler {
      type: "constant"
    }
  }
}
layer {
  name: "ip3"
  type: "InnerProduct"
  bottom: "ip2"
  top: "ip3"
  param {
    lr_mult: 1
  }
  param {
    lr_mult: 2
  }
  inner_product_param {
    num_output: 1
    weight_filler {
      type: "gaussian"
      std: 0.1
    }
    bias_filler {
      type: "constant"
    }
  }
}
layer {
  name: "loss"
  type: "HuberLoss"
  bottom: "ip3"
  bottom: "label"
  top: "loss"
  include {
    phase: TRAIN
  }
}
I0504 04:41:42.716056 24026 layer_factory.hpp:77] Creating layer parameters
I0504 04:41:42.716073 24026 net.cpp:94] Creating Layer parameters
I0504 04:41:42.716078 24026 net.cpp:409] parameters -> data
I0504 04:41:42.716099 24026 net.cpp:409] parameters -> label
I0504 04:41:42.716109 24026 hdf5_data_layer.cpp:79] Loading list of HDF5 filenames from: /home/purduethu/scratch/radon/d/deng106/CNNStatisticalModel/distributions/input/20_distributions_400_sample_size_train-parameters-path.txt
I0504 04:41:42.716131 24026 hdf5_data_layer.cpp:93] Number of HDF5 files: 1
I0504 04:41:42.716768 24026 hdf5.cpp:32] Datatype class: H5T_FLOAT
I0504 04:41:42.985924 24026 net.cpp:144] Setting up parameters
I0504 04:41:42.985955 24026 net.cpp:151] Top shape: 20 1 20 20 (8000)
I0504 04:41:42.985961 24026 net.cpp:151] Top shape: 20 (20)
I0504 04:41:42.985965 24026 net.cpp:159] Memory required for data: 32080
I0504 04:41:42.985972 24026 layer_factory.hpp:77] Creating layer conv1
I0504 04:41:42.985996 24026 net.cpp:94] Creating Layer conv1
I0504 04:41:42.986003 24026 net.cpp:435] conv1 <- data
I0504 04:41:42.986016 24026 net.cpp:409] conv1 -> conv1
I0504 04:41:42.990828 24026 net.cpp:144] Setting up conv1
I0504 04:41:42.990844 24026 net.cpp:151] Top shape: 20 64 20 20 (512000)
I0504 04:41:42.990849 24026 net.cpp:159] Memory required for data: 2080080
I0504 04:41:42.990860 24026 layer_factory.hpp:77] Creating layer relu1
I0504 04:41:42.990869 24026 net.cpp:94] Creating Layer relu1
I0504 04:41:42.990873 24026 net.cpp:435] relu1 <- conv1
I0504 04:41:42.990878 24026 net.cpp:396] relu1 -> conv1 (in-place)
I0504 04:41:42.990896 24026 net.cpp:144] Setting up relu1
I0504 04:41:42.990902 24026 net.cpp:151] Top shape: 20 64 20 20 (512000)
I0504 04:41:42.990906 24026 net.cpp:159] Memory required for data: 4128080
I0504 04:41:42.990908 24026 layer_factory.hpp:77] Creating layer conv2
I0504 04:41:42.990916 24026 net.cpp:94] Creating Layer conv2
I0504 04:41:42.990921 24026 net.cpp:435] conv2 <- conv1
I0504 04:41:42.990926 24026 net.cpp:409] conv2 -> conv2
I0504 04:41:43.000725 24026 net.cpp:144] Setting up conv2
I0504 04:41:43.000741 24026 net.cpp:151] Top shape: 20 64 20 20 (512000)
I0504 04:41:43.000744 24026 net.cpp:159] Memory required for data: 6176080
I0504 04:41:43.000753 24026 layer_factory.hpp:77] Creating layer relu2
I0504 04:41:43.000761 24026 net.cpp:94] Creating Layer relu2
I0504 04:41:43.000764 24026 net.cpp:435] relu2 <- conv2
I0504 04:41:43.000771 24026 net.cpp:396] relu2 -> conv2 (in-place)
I0504 04:41:43.000777 24026 net.cpp:144] Setting up relu2
I0504 04:41:43.000782 24026 net.cpp:151] Top shape: 20 64 20 20 (512000)
I0504 04:41:43.000785 24026 net.cpp:159] Memory required for data: 8224080
I0504 04:41:43.000788 24026 layer_factory.hpp:77] Creating layer pool2
I0504 04:41:43.000797 24026 net.cpp:94] Creating Layer pool2
I0504 04:41:43.000807 24026 net.cpp:435] pool2 <- conv2
I0504 04:41:43.000813 24026 net.cpp:409] pool2 -> pool2
I0504 04:41:43.000857 24026 net.cpp:144] Setting up pool2
I0504 04:41:43.000865 24026 net.cpp:151] Top shape: 20 64 10 10 (128000)
I0504 04:41:43.000869 24026 net.cpp:159] Memory required for data: 8736080
I0504 04:41:43.000872 24026 layer_factory.hpp:77] Creating layer conv3
I0504 04:41:43.000880 24026 net.cpp:94] Creating Layer conv3
I0504 04:41:43.000885 24026 net.cpp:435] conv3 <- pool2
I0504 04:41:43.000890 24026 net.cpp:409] conv3 -> conv3
I0504 04:41:43.010200 24026 net.cpp:144] Setting up conv3
I0504 04:41:43.010239 24026 net.cpp:151] Top shape: 20 128 10 10 (256000)
I0504 04:41:43.010251 24026 net.cpp:159] Memory required for data: 9760080
I0504 04:41:43.010274 24026 layer_factory.hpp:77] Creating layer relu3
I0504 04:41:43.010290 24026 net.cpp:94] Creating Layer relu3
I0504 04:41:43.010301 24026 net.cpp:435] relu3 <- conv3
I0504 04:41:43.010315 24026 net.cpp:396] relu3 -> conv3 (in-place)
I0504 04:41:43.010335 24026 net.cpp:144] Setting up relu3
I0504 04:41:43.010349 24026 net.cpp:151] Top shape: 20 128 10 10 (256000)
I0504 04:41:43.010359 24026 net.cpp:159] Memory required for data: 10784080
I0504 04:41:43.010367 24026 layer_factory.hpp:77] Creating layer conv4
I0504 04:41:43.010390 24026 net.cpp:94] Creating Layer conv4
I0504 04:41:43.010401 24026 net.cpp:435] conv4 <- conv3
I0504 04:41:43.010414 24026 net.cpp:409] conv4 -> conv4
I0504 04:41:43.029664 24026 net.cpp:144] Setting up conv4
I0504 04:41:43.029680 24026 net.cpp:151] Top shape: 20 128 10 10 (256000)
I0504 04:41:43.029685 24026 net.cpp:159] Memory required for data: 11808080
I0504 04:41:43.029690 24026 layer_factory.hpp:77] Creating layer relu4
I0504 04:41:43.029696 24026 net.cpp:94] Creating Layer relu4
I0504 04:41:43.029700 24026 net.cpp:435] relu4 <- conv4
I0504 04:41:43.029706 24026 net.cpp:396] relu4 -> conv4 (in-place)
I0504 04:41:43.029713 24026 net.cpp:144] Setting up relu4
I0504 04:41:43.029717 24026 net.cpp:151] Top shape: 20 128 10 10 (256000)
I0504 04:41:43.029721 24026 net.cpp:159] Memory required for data: 12832080
I0504 04:41:43.029724 24026 layer_factory.hpp:77] Creating layer conv5
I0504 04:41:43.029732 24026 net.cpp:94] Creating Layer conv5
I0504 04:41:43.029736 24026 net.cpp:435] conv5 <- conv4
I0504 04:41:43.029741 24026 net.cpp:409] conv5 -> conv5
I0504 04:41:43.047106 24026 net.cpp:144] Setting up conv5
I0504 04:41:43.047122 24026 net.cpp:151] Top shape: 20 128 10 10 (256000)
I0504 04:41:43.047127 24026 net.cpp:159] Memory required for data: 13856080
I0504 04:41:43.047137 24026 layer_factory.hpp:77] Creating layer relu5
I0504 04:41:43.047142 24026 net.cpp:94] Creating Layer relu5
I0504 04:41:43.047147 24026 net.cpp:435] relu5 <- conv5
I0504 04:41:43.047152 24026 net.cpp:396] relu5 -> conv5 (in-place)
I0504 04:41:43.047159 24026 net.cpp:144] Setting up relu5
I0504 04:41:43.047163 24026 net.cpp:151] Top shape: 20 128 10 10 (256000)
I0504 04:41:43.047168 24026 net.cpp:159] Memory required for data: 14880080
I0504 04:41:43.047170 24026 layer_factory.hpp:77] Creating layer pool5
I0504 04:41:43.047175 24026 net.cpp:94] Creating Layer pool5
I0504 04:41:43.047179 24026 net.cpp:435] pool5 <- conv5
I0504 04:41:43.047183 24026 net.cpp:409] pool5 -> pool5
I0504 04:41:43.047219 24026 net.cpp:144] Setting up pool5
I0504 04:41:43.047226 24026 net.cpp:151] Top shape: 20 128 5 5 (64000)
I0504 04:41:43.047230 24026 net.cpp:159] Memory required for data: 15136080
I0504 04:41:43.047233 24026 layer_factory.hpp:77] Creating layer ip1
I0504 04:41:43.047243 24026 net.cpp:94] Creating Layer ip1
I0504 04:41:43.047247 24026 net.cpp:435] ip1 <- pool5
I0504 04:41:43.047252 24026 net.cpp:409] ip1 -> ip1
I0504 04:41:43.130070 24026 net.cpp:144] Setting up ip1
I0504 04:41:43.130097 24026 net.cpp:151] Top shape: 20 1024 (20480)
I0504 04:41:43.130102 24026 net.cpp:159] Memory required for data: 15218000
I0504 04:41:43.130111 24026 layer_factory.hpp:77] Creating layer ip2
I0504 04:41:43.130121 24026 net.cpp:94] Creating Layer ip2
I0504 04:41:43.130133 24026 net.cpp:435] ip2 <- ip1
I0504 04:41:43.130141 24026 net.cpp:409] ip2 -> ip2
I0504 04:41:43.143659 24026 net.cpp:144] Setting up ip2
I0504 04:41:43.143673 24026 net.cpp:151] Top shape: 20 512 (10240)
I0504 04:41:43.143677 24026 net.cpp:159] Memory required for data: 15258960
I0504 04:41:43.143684 24026 layer_factory.hpp:77] Creating layer ip3
I0504 04:41:43.143692 24026 net.cpp:94] Creating Layer ip3
I0504 04:41:43.143695 24026 net.cpp:435] ip3 <- ip2
I0504 04:41:43.143700 24026 net.cpp:409] ip3 -> ip3
I0504 04:41:43.143784 24026 net.cpp:144] Setting up ip3
I0504 04:41:43.143798 24026 net.cpp:151] Top shape: 20 1 (20)
I0504 04:41:43.143802 24026 net.cpp:159] Memory required for data: 15259040
I0504 04:41:43.143807 24026 layer_factory.hpp:77] Creating layer loss
I0504 04:41:43.143816 24026 net.cpp:94] Creating Layer loss
I0504 04:41:43.143821 24026 net.cpp:435] loss <- ip3
I0504 04:41:43.143824 24026 net.cpp:435] loss <- label
I0504 04:41:43.143831 24026 net.cpp:409] loss -> loss
I0504 04:41:43.143867 24026 net.cpp:144] Setting up loss
…
