…
I0505 10:57:05.331096  6411 net.cpp:323] The NetState phase (0) differed from the phase (1) specified by a rule in layer intercept
I0505 10:57:05.331110  6411 net.cpp:323] The NetState phase (0) differed from the phase (1) specified by a rule in layer loss
I0505 10:57:05.331176  6411 net.cpp:52] Initializing net from parameters: 
state {
  phase: TRAIN
}
layer {
  name: "parameters"
  type: "HDF5Data"
  top: "data"
  top: "label"
  include {
    phase: TRAIN
  }
  hdf5_data_param {
    source: "/home/purduethu/scratch/radon/d/deng106/CNNStatisticalModel/distributions/input/50_distributions_400_sample_size_train-parameters-path.txt"
    batch_size: 20
  }
}
layer {
  name: "conv1"
  type: "Convolution"
  bottom: "data"
  top: "conv1"
  param {
    lr_mult: 1
  }
  param {
    lr_mult: 2
  }
  convolution_param {
    num_output: 64
    pad: 2
    kernel_size: 5
    stride: 1
    weight_filler {
      type: "gaussian"
      std: 0.0001
    }
    bias_filler {
      type: "constant"
    }
  }
}
layer {
  name: "relu1"
  type: "ReLU"
  bottom: "conv1"
  top: "conv1"
}
layer {
  name: "pool1"
  type: "Pooling"
  bottom: "conv1"
  top: "pool1"
  pooling_param {
    pool: MAX
    kernel_size: 3
    stride: 2
  }
}
layer {
  name: "conv2"
  type: "Convolution"
  bottom: "pool1"
  top: "conv2"
  param {
    lr_mult: 1
  }
  param {
    lr_mult: 2
  }
  convolution_param {
    num_output: 128
    pad: 2
    kernel_size: 5
    stride: 1
    weight_filler {
      type: "gaussian"
      std: 0.01
    }
    bias_filler {
      type: "constant"
    }
  }
}
layer {
  name: "relu2"
  type: "ReLU"
  bottom: "conv2"
  top: "conv2"
}
layer {
  name: "conv3"
  type: "Convolution"
  bottom: "conv2"
  top: "conv3"
  param {
    lr_mult: 1
  }
  param {
    lr_mult: 2
  }
  convolution_param {
    num_output: 128
    pad: 2
    kernel_size: 5
    stride: 1
    weight_filler {
      type: "gaussian"
      std: 0.01
    }
    bias_filler {
      type: "constant"
    }
  }
}
layer {
  name: "relu3"
  type: "ReLU"
  bottom: "conv3"
  top: "conv3"
}
layer {
  name: "pool3"
  type: "Pooling"
  bottom: "conv3"
  top: "pool3"
  pooling_param {
    pool: AVE
    kernel_size: 3
    stride: 2
  }
}
layer {
  name: "ip1"
  type: "InnerProduct"
  bottom: "pool3"
  top: "ip1"
  param {
    lr_mult: 1
  }
  param {
    lr_mult: 2
  }
  inner_product_param {
    num_output: 512
    weight_filler {
      type: "gaussian"
      std: 0.1
    }
    bias_filler {
      type: "constant"
    }
  }
}
layer {
  name: "ip2"
  type: "InnerProduct"
  bottom: "ip1"
  top: "ip2"
  param {
    lr_mult: 1
  }
  param {
    lr_mult: 2
  }
  inner_product_param {
    num_output: 256
    weight_filler {
      type: "gaussian"
      std: 0.1
    }
    bias_filler {
      type: "constant"
    }
  }
}
layer {
  name: "ip3"
  type: "InnerProduct"
  bottom: "ip2"
  top: "ip3"
  param {
    lr_mult: 1
  }
  param {
    lr_mult: 2
  }
  inner_product_param {
    num_output: 1
    weight_filler {
      type: "gaussian"
      std: 0.1
    }
    bias_filler {
      type: "constant"
    }
  }
}
layer {
  name: "loss"
  type: "HuberLoss"
  bottom: "ip3"
  bottom: "label"
  top: "loss"
  include {
    phase: TRAIN
  }
}
I0505 10:57:05.331220  6411 layer_factory.hpp:77] Creating layer parameters
I0505 10:57:05.331236  6411 net.cpp:94] Creating Layer parameters
I0505 10:57:05.331240  6411 net.cpp:409] parameters -> data
I0505 10:57:05.331249  6411 net.cpp:409] parameters -> label
I0505 10:57:05.331255  6411 hdf5_data_layer.cpp:79] Loading list of HDF5 filenames from: /home/purduethu/scratch/radon/d/deng106/CNNStatisticalModel/distributions/input/50_distributions_400_sample_size_train-parameters-path.txt
I0505 10:57:05.331270  6411 hdf5_data_layer.cpp:93] Number of HDF5 files: 1
I0505 10:57:05.331795  6411 hdf5.cpp:32] Datatype class: H5T_FLOAT
I0505 10:57:05.978315  6411 net.cpp:144] Setting up parameters
I0505 10:57:05.978348  6411 net.cpp:151] Top shape: 20 1 20 20 (8000)
I0505 10:57:05.978353  6411 net.cpp:151] Top shape: 20 (20)
I0505 10:57:05.978358  6411 net.cpp:159] Memory required for data: 32080
I0505 10:57:05.978363  6411 layer_factory.hpp:77] Creating layer conv1
I0505 10:57:05.978385  6411 net.cpp:94] Creating Layer conv1
I0505 10:57:05.978389  6411 net.cpp:435] conv1 <- data
I0505 10:57:05.978396  6411 net.cpp:409] conv1 -> conv1
I0505 10:57:05.983933  6411 net.cpp:144] Setting up conv1
I0505 10:57:05.983955  6411 net.cpp:151] Top shape: 20 64 20 20 (512000)
I0505 10:57:05.983959  6411 net.cpp:159] Memory required for data: 2080080
I0505 10:57:05.983971  6411 layer_factory.hpp:77] Creating layer relu1
I0505 10:57:05.983980  6411 net.cpp:94] Creating Layer relu1
I0505 10:57:05.983984  6411 net.cpp:435] relu1 <- conv1
I0505 10:57:05.983989  6411 net.cpp:396] relu1 -> conv1 (in-place)
I0505 10:57:05.984000  6411 net.cpp:144] Setting up relu1
I0505 10:57:05.984005  6411 net.cpp:151] Top shape: 20 64 20 20 (512000)
I0505 10:57:05.984009  6411 net.cpp:159] Memory required for data: 4128080
I0505 10:57:05.984011  6411 layer_factory.hpp:77] Creating layer pool1
I0505 10:57:05.984017  6411 net.cpp:94] Creating Layer pool1
I0505 10:57:05.984020  6411 net.cpp:435] pool1 <- conv1
I0505 10:57:05.984025  6411 net.cpp:409] pool1 -> pool1
I0505 10:57:05.984078  6411 net.cpp:144] Setting up pool1
I0505 10:57:05.984086  6411 net.cpp:151] Top shape: 20 64 10 10 (128000)
I0505 10:57:05.984088  6411 net.cpp:159] Memory required for data: 4640080
I0505 10:57:05.984091  6411 layer_factory.hpp:77] Creating layer conv2
I0505 10:57:05.984102  6411 net.cpp:94] Creating Layer conv2
I0505 10:57:05.984104  6411 net.cpp:435] conv2 <- pool1
I0505 10:57:05.984109  6411 net.cpp:409] conv2 -> conv2
I0505 10:57:05.995014  6411 net.cpp:144] Setting up conv2
I0505 10:57:05.995031  6411 net.cpp:151] Top shape: 20 128 10 10 (256000)
I0505 10:57:05.995035  6411 net.cpp:159] Memory required for data: 5664080
I0505 10:57:05.995043  6411 layer_factory.hpp:77] Creating layer relu2
I0505 10:57:05.995050  6411 net.cpp:94] Creating Layer relu2
I0505 10:57:05.995054  6411 net.cpp:435] relu2 <- conv2
I0505 10:57:05.995059  6411 net.cpp:396] relu2 -> conv2 (in-place)
I0505 10:57:05.995065  6411 net.cpp:144] Setting up relu2
I0505 10:57:05.995069  6411 net.cpp:151] Top shape: 20 128 10 10 (256000)
I0505 10:57:05.995072  6411 net.cpp:159] Memory required for data: 6688080
I0505 10:57:05.995075  6411 layer_factory.hpp:77] Creating layer conv3
I0505 10:57:05.995084  6411 net.cpp:94] Creating Layer conv3
I0505 10:57:05.995087  6411 net.cpp:435] conv3 <- conv2
I0505 10:57:05.995091  6411 net.cpp:409] conv3 -> conv3
I0505 10:57:06.013367  6411 net.cpp:144] Setting up conv3
I0505 10:57:06.013384  6411 net.cpp:151] Top shape: 20 128 10 10 (256000)
I0505 10:57:06.013388  6411 net.cpp:159] Memory required for data: 7712080
I0505 10:57:06.013396  6411 layer_factory.hpp:77] Creating layer relu3
I0505 10:57:06.013409  6411 net.cpp:94] Creating Layer relu3
I0505 10:57:06.013413  6411 net.cpp:435] relu3 <- conv3
I0505 10:57:06.013418  6411 net.cpp:396] relu3 -> conv3 (in-place)
I0505 10:57:06.013425  6411 net.cpp:144] Setting up relu3
I0505 10:57:06.013429  6411 net.cpp:151] Top shape: 20 128 10 10 (256000)
I0505 10:57:06.013432  6411 net.cpp:159] Memory required for data: 8736080
I0505 10:57:06.013435  6411 layer_factory.hpp:77] Creating layer pool3
I0505 10:57:06.013442  6411 net.cpp:94] Creating Layer pool3
I0505 10:57:06.013444  6411 net.cpp:435] pool3 <- conv3
I0505 10:57:06.013449  6411 net.cpp:409] pool3 -> pool3
I0505 10:57:06.013494  6411 net.cpp:144] Setting up pool3
I0505 10:57:06.013501  6411 net.cpp:151] Top shape: 20 128 5 5 (64000)
I0505 10:57:06.013504  6411 net.cpp:159] Memory required for data: 8992080
I0505 10:57:06.013507  6411 layer_factory.hpp:77] Creating layer ip1
I0505 10:57:06.013519  6411 net.cpp:94] Creating Layer ip1
I0505 10:57:06.013521  6411 net.cpp:435] ip1 <- pool3
I0505 10:57:06.013526  6411 net.cpp:409] ip1 -> ip1
I0505 10:57:06.053190  6411 net.cpp:144] Setting up ip1
I0505 10:57:06.053215  6411 net.cpp:151] Top shape: 20 512 (10240)
I0505 10:57:06.053220  6411 net.cpp:159] Memory required for data: 9033040
I0505 10:57:06.053226  6411 layer_factory.hpp:77] Creating layer ip2
I0505 10:57:06.053236  6411 net.cpp:94] Creating Layer ip2
I0505 10:57:06.053239  6411 net.cpp:435] ip2 <- ip1
I0505 10:57:06.053246  6411 net.cpp:409] ip2 -> ip2
I0505 10:57:06.056421  6411 net.cpp:144] Setting up ip2
I0505 10:57:06.056429  6411 net.cpp:151] Top shape: 20 256 (5120)
I0505 10:57:06.056433  6411 net.cpp:159] Memory required for data: 9053520
I0505 10:57:06.056440  6411 layer_factory.hpp:77] Creating layer ip3
I0505 10:57:06.056447  6411 net.cpp:94] Creating Layer ip3
I0505 10:57:06.056449  6411 net.cpp:435] ip3 <- ip2
I0505 10:57:06.056454  6411 net.cpp:409] ip3 -> ip3
I0505 10:57:06.056562  6411 net.cpp:144] Setting up ip3
I0505 10:57:06.056571  6411 net.cpp:151] Top shape: 20 1 (20)
I0505 10:57:06.056574  6411 net.cpp:159] Memory required for data: 9053600
I0505 10:57:06.056578  6411 layer_factory.hpp:77] Creating layer loss
I0505 10:57:06.056584  6411 net.cpp:94] Creating Layer loss
I0505 10:57:06.056587  6411 net.cpp:435] loss <- ip3
I0505 10:57:06.056591  6411 net.cpp:435] loss <- label
I0505 10:57:06.056596  6411 net.cpp:409] loss -> loss
I0505 10:57:06.056646  6411 net.cpp:144] Setting up loss
…
I0505 10:57:06.283509  6411 net.cpp:323] The NetState phase (0) differed from the phase (1) specified by a rule in layer intercept
I0505 10:57:06.283522  6411 net.cpp:323] The NetState phase (0) differed from the phase (1) specified by a rule in layer accuracy
I0505 10:57:06.283591  6411 net.cpp:52] Initializing net from parameters: 
state {
  phase: TRAIN
}
layer {
  name: "parameters"
  type: "HDF5Data"
  top: "data"
  top: "label"
  include {
    phase: TRAIN
  }
  hdf5_data_param {
    source: "/home/purduethu/scratch/radon/d/deng106/CNNStatisticalModel/distributions/input/50_distributions_400_sample_size_train-distributions-path.txt"
    batch_size: 20
  }
}
layer {
  name: "conv1"
  type: "Convolution"
  bottom: "data"
  top: "conv1"
  param {
    lr_mult: 1
  }
  param {
    lr_mult: 2
  }
  convolution_param {
    num_output: 64
    pad: 2
    kernel_size: 5
    stride: 1
    weight_filler {
      type: "gaussian"
      std: 0.0001
    }
    bias_filler {
      type: "constant"
    }
  }
}
layer {
  name: "relu1"
  type: "ReLU"
  bottom: "conv1"
  top: "conv1"
}
layer {
  name: "pool1"
  type: "Pooling"
  bottom: "conv1"
  top: "pool1"
  pooling_param {
    pool: MAX
    kernel_size: 3
    stride: 2
  }
}
layer {
  name: "conv2"
  type: "Convolution"
  bottom: "pool1"
  top: "conv2"
  param {
    lr_mult: 1
  }
  param {
    lr_mult: 2
  }
  convolution_param {
    num_output: 128
    pad: 2
    kernel_size: 5
    stride: 1
    weight_filler {
      type: "gaussian"
      std: 0.01
    }
    bias_filler {
      type: "constant"
    }
  }
}
layer {
  name: "relu2"
  type: "ReLU"
  bottom: "conv2"
  top: "conv2"
}
layer {
  name: "conv3"
  type: "Convolution"
  bottom: "conv2"
  top: "conv3"
  param {
    lr_mult: 1
  }
  param {
    lr_mult: 2
  }
  convolution_param {
    num_output: 128
    pad: 2
    kernel_size: 5
    stride: 1
    weight_filler {
      type: "gaussian"
      std: 0.01
    }
    bias_filler {
      type: "constant"
    }
  }
}
layer {
  name: "relu3"
  type: "ReLU"
  bottom: "conv3"
  top: "conv3"
}
layer {
  name: "pool3"
  type: "Pooling"
  bottom: "conv3"
  top: "pool3"
  pooling_param {
    pool: AVE
    kernel_size: 3
    stride: 2
  }
}
layer {
  name: "ip1"
  type: "InnerProduct"
  bottom: "pool3"
  top: "ip1"
  param {
    lr_mult: 1
  }
  param {
    lr_mult: 2
  }
  inner_product_param {
    num_output: 512
    weight_filler {
      type: "gaussian"
      std: 0.1
    }
    bias_filler {
      type: "constant"
    }
  }
}
layer {
  name: "ip2"
  type: "InnerProduct"
  bottom: "ip1"
  top: "ip2"
  param {
    lr_mult: 1
  }
  param {
    lr_mult: 2
  }
  inner_product_param {
    num_output: 256
    weight_filler {
      type: "gaussian"
      std: 0.1
    }
    bias_filler {
      type: "constant"
    }
  }
}
layer {
  name: "ip3"
  type: "InnerProduct"
  bottom: "ip2"
  top: "ip3"
  param {
    lr_mult: 1
  }
  param {
    lr_mult: 2
  }
  inner_product_param {
    num_output: 50
    weight_filler {
      type: "gaussian"
      std: 0.1
    }
    bias_filler {
      type: "constant"
    }
  }
}
layer {
  name: "loss"
  type: "SoftmaxWithLoss"
  bottom: "ip3"
  bottom: "label"
  top: "loss"
}
I0505 10:57:06.283634  6411 layer_factory.hpp:77] Creating layer parameters
I0505 10:57:06.283643  6411 net.cpp:94] Creating Layer parameters
I0505 10:57:06.283646  6411 net.cpp:409] parameters -> data
I0505 10:57:06.283653  6411 net.cpp:409] parameters -> label
I0505 10:57:06.283658  6411 hdf5_data_layer.cpp:79] Loading list of HDF5 filenames from: /home/purduethu/scratch/radon/d/deng106/CNNStatisticalModel/distributions/input/50_distributions_400_sample_size_train-distributions-path.txt
I0505 10:57:06.283674  6411 hdf5_data_layer.cpp:93] Number of HDF5 files: 1
I0505 10:57:06.924581  6411 hdf5.cpp:35] Datatype class: H5T_INTEGER
I0505 10:57:06.927597  6411 net.cpp:144] Setting up parameters
I0505 10:57:06.927618  6411 net.cpp:151] Top shape: 20 1 20 20 (8000)
I0505 10:57:06.927624  6411 net.cpp:151] Top shape: 20 (20)
I0505 10:57:06.927628  6411 net.cpp:159] Memory required for data: 32080
I0505 10:57:06.927634  6411 layer_factory.hpp:77] Creating layer conv1
I0505 10:57:06.927649  6411 net.cpp:94] Creating Layer conv1
I0505 10:57:06.927654  6411 net.cpp:435] conv1 <- data
I0505 10:57:06.927659  6411 net.cpp:409] conv1 -> conv1
I0505 10:57:06.929991  6411 net.cpp:144] Setting up conv1
I0505 10:57:06.930006  6411 net.cpp:151] Top shape: 20 64 20 20 (512000)
I0505 10:57:06.930009  6411 net.cpp:159] Memory required for data: 2080080
I0505 10:57:06.930021  6411 layer_factory.hpp:77] Creating layer relu1
I0505 10:57:06.930027  6411 net.cpp:94] Creating Layer relu1
I0505 10:57:06.930032  6411 net.cpp:435] relu1 <- conv1
I0505 10:57:06.930035  6411 net.cpp:396] relu1 -> conv1 (in-place)
I0505 10:57:06.930043  6411 net.cpp:144] Setting up relu1
I0505 10:57:06.930047  6411 net.cpp:151] Top shape: 20 64 20 20 (512000)
I0505 10:57:06.930050  6411 net.cpp:159] Memory required for data: 4128080
I0505 10:57:06.930053  6411 layer_factory.hpp:77] Creating layer pool1
I0505 10:57:06.930058  6411 net.cpp:94] Creating Layer pool1
I0505 10:57:06.930063  6411 net.cpp:435] pool1 <- conv1
I0505 10:57:06.930073  6411 net.cpp:409] pool1 -> pool1
I0505 10:57:06.930129  6411 net.cpp:144] Setting up pool1
I0505 10:57:06.930135  6411 net.cpp:151] Top shape: 20 64 10 10 (128000)
I0505 10:57:06.930140  6411 net.cpp:159] Memory required for data: 4640080
I0505 10:57:06.930142  6411 layer_factory.hpp:77] Creating layer conv2
I0505 10:57:06.930150  6411 net.cpp:94] Creating Layer conv2
I0505 10:57:06.930153  6411 net.cpp:435] conv2 <- pool1
I0505 10:57:06.930158  6411 net.cpp:409] conv2 -> conv2
I0505 10:57:06.941098  6411 net.cpp:144] Setting up conv2
I0505 10:57:06.941115  6411 net.cpp:151] Top shape: 20 128 10 10 (256000)
I0505 10:57:06.941119  6411 net.cpp:159] Memory required for data: 5664080
I0505 10:57:06.941128  6411 layer_factory.hpp:77] Creating layer relu2
I0505 10:57:06.941134  6411 net.cpp:94] Creating Layer relu2
I0505 10:57:06.941138  6411 net.cpp:435] relu2 <- conv2
I0505 10:57:06.941143  6411 net.cpp:396] relu2 -> conv2 (in-place)
I0505 10:57:06.941149  6411 net.cpp:144] Setting up relu2
I0505 10:57:06.941154  6411 net.cpp:151] Top shape: 20 128 10 10 (256000)
I0505 10:57:06.941156  6411 net.cpp:159] Memory required for data: 6688080
I0505 10:57:06.941159  6411 layer_factory.hpp:77] Creating layer conv3
I0505 10:57:06.941167  6411 net.cpp:94] Creating Layer conv3
I0505 10:57:06.941170  6411 net.cpp:435] conv3 <- conv2
I0505 10:57:06.941175  6411 net.cpp:409] conv3 -> conv3
I0505 10:57:06.959233  6411 net.cpp:144] Setting up conv3
I0505 10:57:06.959249  6411 net.cpp:151] Top shape: 20 128 10 10 (256000)
I0505 10:57:06.959254  6411 net.cpp:159] Memory required for data: 7712080
I0505 10:57:06.959261  6411 layer_factory.hpp:77] Creating layer relu3
I0505 10:57:06.959269  6411 net.cpp:94] Creating Layer relu3
I0505 10:57:06.959272  6411 net.cpp:435] relu3 <- conv3
I0505 10:57:06.959276  6411 net.cpp:396] relu3 -> conv3 (in-place)
I0505 10:57:06.959285  6411 net.cpp:144] Setting up relu3
I0505 10:57:06.959288  6411 net.cpp:151] Top shape: 20 128 10 10 (256000)
I0505 10:57:06.959291  6411 net.cpp:159] Memory required for data: 8736080
I0505 10:57:06.959295  6411 layer_factory.hpp:77] Creating layer pool3
I0505 10:57:06.959300  6411 net.cpp:94] Creating Layer pool3
I0505 10:57:06.959303  6411 net.cpp:435] pool3 <- conv3
I0505 10:57:06.959308  6411 net.cpp:409] pool3 -> pool3
I0505 10:57:06.959352  6411 net.cpp:144] Setting up pool3
I0505 10:57:06.959358  6411 net.cpp:151] Top shape: 20 128 5 5 (64000)
I0505 10:57:06.959362  6411 net.cpp:159] Memory required for data: 8992080
I0505 10:57:06.959364  6411 layer_factory.hpp:77] Creating layer ip1
I0505 10:57:06.959372  6411 net.cpp:94] Creating Layer ip1
I0505 10:57:06.959374  6411 net.cpp:435] ip1 <- pool3
I0505 10:57:06.959379  6411 net.cpp:409] ip1 -> ip1
I0505 10:57:06.998991  6411 net.cpp:144] Setting up ip1
I0505 10:57:06.999017  6411 net.cpp:151] Top shape: 20 512 (10240)
I0505 10:57:06.999022  6411 net.cpp:159] Memory required for data: 9033040
I0505 10:57:06.999029  6411 layer_factory.hpp:77] Creating layer ip2
I0505 10:57:06.999038  6411 net.cpp:94] Creating Layer ip2
I0505 10:57:06.999053  6411 net.cpp:435] ip2 <- ip1
I0505 10:57:06.999058  6411 net.cpp:409] ip2 -> ip2
I0505 10:57:07.002250  6411 net.cpp:144] Setting up ip2
I0505 10:57:07.002260  6411 net.cpp:151] Top shape: 20 256 (5120)
I0505 10:57:07.002264  6411 net.cpp:159] Memory required for data: 9053520
I0505 10:57:07.002271  6411 layer_factory.hpp:77] Creating layer ip3
I0505 10:57:07.002277  6411 net.cpp:94] Creating Layer ip3
I0505 10:57:07.002281  6411 net.cpp:435] ip3 <- ip2
I0505 10:57:07.002285  6411 net.cpp:409] ip3 -> ip3
I0505 10:57:07.003612  6411 net.cpp:144] Setting up ip3
I0505 10:57:07.003625  6411 net.cpp:151] Top shape: 20 50 (1000)
I0505 10:57:07.003629  6411 net.cpp:159] Memory required for data: 9057520
I0505 10:57:07.003635  6411 layer_factory.hpp:77] Creating layer loss
I0505 10:57:07.003643  6411 net.cpp:94] Creating Layer loss
I0505 10:57:07.003645  6411 net.cpp:435] loss <- ip3
I0505 10:57:07.003650  6411 net.cpp:435] loss <- label
I0505 10:57:07.003661  6411 net.cpp:409] loss -> loss
I0505 10:57:07.003669  6411 layer_factory.hpp:77] Creating layer loss
…
I0505 10:57:07.004118  6411 solver.cpp:181] Creating test net (#0) specified by net file: ./protocol/dis_50_400_dimension.protocol_distribution
I0505 10:57:07.004140  6411 net.cpp:323] The NetState phase (1) differed from the phase (0) specified by a rule in layer parameters
I0505 10:57:07.004220  6411 net.cpp:52] Initializing net from parameters: 
state {
  phase: TEST
}
layer {
  name: "intercept"
  type: "HDF5Data"
  top: "data"
  top: "label"
  include {
    phase: TEST
  }
  hdf5_data_param {
    source: "/home/purduethu/scratch/radon/d/deng106/CNNStatisticalModel/distributions/input/50_distributions_400_sample_size_test-distributions-path.txt"
    batch_size: 20
  }
}
layer {
  name: "conv1"
  type: "Convolution"
  bottom: "data"
  top: "conv1"
  param {
    lr_mult: 1
  }
  param {
    lr_mult: 2
  }
  convolution_param {
    num_output: 64
    pad: 2
    kernel_size: 5
    stride: 1
    weight_filler {
      type: "gaussian"
      std: 0.0001
    }
    bias_filler {
      type: "constant"
    }
  }
}
layer {
  name: "relu1"
  type: "ReLU"
  bottom: "conv1"
  top: "conv1"
}
layer {
  name: "pool1"
  type: "Pooling"
  bottom: "conv1"
  top: "pool1"
  pooling_param {
    pool: MAX
    kernel_size: 3
    stride: 2
  }
}
layer {
  name: "conv2"
  type: "Convolution"
  bottom: "pool1"
  top: "conv2"
  param {
    lr_mult: 1
  }
  param {
    lr_mult: 2
  }
  convolution_param {
    num_output: 128
    pad: 2
    kernel_size: 5
    stride: 1
    weight_filler {
      type: "gaussian"
      std: 0.01
    }
    bias_filler {
      type: "constant"
    }
  }
}
layer {
  name: "relu2"
  type: "ReLU"
  bottom: "conv2"
  top: "conv2"
}
layer {
  name: "conv3"
  type: "Convolution"
  bottom: "conv2"
  top: "conv3"
  param {
    lr_mult: 1
  }
  param {
    lr_mult: 2
  }
  convolution_param {
    num_output: 128
    pad: 2
    kernel_size: 5
    stride: 1
    weight_filler {
      type: "gaussian"
      std: 0.01
    }
    bias_filler {
      type: "constant"
    }
  }
}
layer {
  name: "relu3"
  type: "ReLU"
  bottom: "conv3"
  top: "conv3"
}
layer {
  name: "pool3"
  type: "Pooling"
  bottom: "conv3"
  top: "pool3"
  pooling_param {
    pool: AVE
    kernel_size: 3
    stride: 2
  }
}
layer {
  name: "ip1"
  type: "InnerProduct"
  bottom: "pool3"
  top: "ip1"
  param {
    lr_mult: 1
  }
  param {
    lr_mult: 2
  }
  inner_product_param {
    num_output: 512
    weight_filler {
      type: "gaussian"
      std: 0.1
    }
    bias_filler {
      type: "constant"
    }
  }
}
layer {
  name: "ip2"
  type: "InnerProduct"
  bottom: "ip1"
  top: "ip2"
  param {
    lr_mult: 1
  }
  param {
    lr_mult: 2
  }
  inner_product_param {
    num_output: 256
    weight_filler {
      type: "gaussian"
      std: 0.1
    }
    bias_filler {
      type: "constant"
    }
  }
}
layer {
  name: "ip3"
  type: "InnerProduct"
  bottom: "ip2"
  top: "ip3"
  param {
    lr_mult: 1
  }
  param {
    lr_mult: 2
  }
  inner_product_param {
    num_output: 50
    weight_filler {
      type: "gaussian"
      std: 0.1
    }
    bias_filler {
      type: "constant"
    }
  }
}
layer {
  name: "accuracy"
  type: "Accuracy"
  bottom: "ip3"
  bottom: "label"
  top: "accuracy"
  include {
    phase: TEST
  }
}
layer {
  name: "loss"
  type: "SoftmaxWithLoss"
  bottom: "ip3"
  bottom: "label"
  top: "loss"
}
I0505 10:57:07.004276  6411 layer_factory.hpp:77] Creating layer intercept
I0505 10:57:07.004283  6411 net.cpp:94] Creating Layer intercept
I0505 10:57:07.004287  6411 net.cpp:409] intercept -> data
I0505 10:57:07.004293  6411 net.cpp:409] intercept -> label
I0505 10:57:07.004299  6411 hdf5_data_layer.cpp:79] Loading list of HDF5 filenames from: /home/purduethu/scratch/radon/d/deng106/CNNStatisticalModel/distributions/input/50_distributions_400_sample_size_test-distributions-path.txt
I0505 10:57:07.004317  6411 hdf5_data_layer.cpp:93] Number of HDF5 files: 1
I0505 10:57:07.166213  6411 net.cpp:144] Setting up intercept
I0505 10:57:07.166246  6411 net.cpp:151] Top shape: 20 1 20 20 (8000)
I0505 10:57:07.166252  6411 net.cpp:151] Top shape: 20 (20)
I0505 10:57:07.166255  6411 net.cpp:159] Memory required for data: 32080
I0505 10:57:07.166262  6411 layer_factory.hpp:77] Creating layer label_intercept_1_split
I0505 10:57:07.166281  6411 net.cpp:94] Creating Layer label_intercept_1_split
I0505 10:57:07.166286  6411 net.cpp:435] label_intercept_1_split <- label
I0505 10:57:07.166292  6411 net.cpp:409] label_intercept_1_split -> label_intercept_1_split_0
I0505 10:57:07.166301  6411 net.cpp:409] label_intercept_1_split -> label_intercept_1_split_1
I0505 10:57:07.166345  6411 net.cpp:144] Setting up label_intercept_1_split
I0505 10:57:07.166352  6411 net.cpp:151] Top shape: 20 (20)
I0505 10:57:07.166354  6411 net.cpp:151] Top shape: 20 (20)
I0505 10:57:07.166357  6411 net.cpp:159] Memory required for data: 32240
I0505 10:57:07.166360  6411 layer_factory.hpp:77] Creating layer conv1
I0505 10:57:07.166371  6411 net.cpp:94] Creating Layer conv1
I0505 10:57:07.166374  6411 net.cpp:435] conv1 <- data
I0505 10:57:07.166379  6411 net.cpp:409] conv1 -> conv1
I0505 10:57:07.167188  6411 net.cpp:144] Setting up conv1
I0505 10:57:07.167201  6411 net.cpp:151] Top shape: 20 64 20 20 (512000)
I0505 10:57:07.167206  6411 net.cpp:159] Memory required for data: 2080240
I0505 10:57:07.167215  6411 layer_factory.hpp:77] Creating layer relu1
I0505 10:57:07.167222  6411 net.cpp:94] Creating Layer relu1
I0505 10:57:07.167225  6411 net.cpp:435] relu1 <- conv1
I0505 10:57:07.167229  6411 net.cpp:396] relu1 -> conv1 (in-place)
I0505 10:57:07.167237  6411 net.cpp:144] Setting up relu1
I0505 10:57:07.167242  6411 net.cpp:151] Top shape: 20 64 20 20 (512000)
I0505 10:57:07.167244  6411 net.cpp:159] Memory required for data: 4128240
I0505 10:57:07.167248  6411 layer_factory.hpp:77] Creating layer pool1
I0505 10:57:07.167253  6411 net.cpp:94] Creating Layer pool1
I0505 10:57:07.167258  6411 net.cpp:435] pool1 <- conv1
I0505 10:57:07.167261  6411 net.cpp:409] pool1 -> pool1
I0505 10:57:07.167315  6411 net.cpp:144] Setting up pool1
I0505 10:57:07.167321  6411 net.cpp:151] Top shape: 20 64 10 10 (128000)
I0505 10:57:07.167325  6411 net.cpp:159] Memory required for data: 4640240
I0505 10:57:07.167328  6411 layer_factory.hpp:77] Creating layer conv2
I0505 10:57:07.167336  6411 net.cpp:94] Creating Layer conv2
I0505 10:57:07.167340  6411 net.cpp:435] conv2 <- pool1
I0505 10:57:07.167345  6411 net.cpp:409] conv2 -> conv2
I0505 10:57:07.175088  6411 net.cpp:144] Setting up conv2
I0505 10:57:07.175103  6411 net.cpp:151] Top shape: 20 128 10 10 (256000)
I0505 10:57:07.175107  6411 net.cpp:159] Memory required for data: 5664240
I0505 10:57:07.175115  6411 layer_factory.hpp:77] Creating layer relu2
I0505 10:57:07.175127  6411 net.cpp:94] Creating Layer relu2
I0505 10:57:07.175132  6411 net.cpp:435] relu2 <- conv2
I0505 10:57:07.175137  6411 net.cpp:396] relu2 -> conv2 (in-place)
I0505 10:57:07.175143  6411 net.cpp:144] Setting up relu2
I0505 10:57:07.175148  6411 net.cpp:151] Top shape: 20 128 10 10 (256000)
I0505 10:57:07.175150  6411 net.cpp:159] Memory required for data: 6688240
I0505 10:57:07.175153  6411 layer_factory.hpp:77] Creating layer conv3
I0505 10:57:07.175161  6411 net.cpp:94] Creating Layer conv3
I0505 10:57:07.175164  6411 net.cpp:435] conv3 <- conv2
I0505 10:57:07.175169  6411 net.cpp:409] conv3 -> conv3
I0505 10:57:07.189117  6411 net.cpp:144] Setting up conv3
I0505 10:57:07.189132  6411 net.cpp:151] Top shape: 20 128 10 10 (256000)
I0505 10:57:07.189136  6411 net.cpp:159] Memory required for data: 7712240
I0505 10:57:07.189146  6411 layer_factory.hpp:77] Creating layer relu3
I0505 10:57:07.189152  6411 net.cpp:94] Creating Layer relu3
I0505 10:57:07.189157  6411 net.cpp:435] relu3 <- conv3
I0505 10:57:07.189160  6411 net.cpp:396] relu3 -> conv3 (in-place)
I0505 10:57:07.189167  6411 net.cpp:144] Setting up relu3
I0505 10:57:07.189172  6411 net.cpp:151] Top shape: 20 128 10 10 (256000)
I0505 10:57:07.189174  6411 net.cpp:159] Memory required for data: 8736240
I0505 10:57:07.189177  6411 layer_factory.hpp:77] Creating layer pool3
I0505 10:57:07.189182  6411 net.cpp:94] Creating Layer pool3
I0505 10:57:07.189185  6411 net.cpp:435] pool3 <- conv3
I0505 10:57:07.189189  6411 net.cpp:409] pool3 -> pool3
I0505 10:57:07.189231  6411 net.cpp:144] Setting up pool3
I0505 10:57:07.189239  6411 net.cpp:151] Top shape: 20 128 5 5 (64000)
I0505 10:57:07.189241  6411 net.cpp:159] Memory required for data: 8992240
I0505 10:57:07.189244  6411 layer_factory.hpp:77] Creating layer ip1
I0505 10:57:07.189251  6411 net.cpp:94] Creating Layer ip1
I0505 10:57:07.189254  6411 net.cpp:435] ip1 <- pool3
I0505 10:57:07.189258  6411 net.cpp:409] ip1 -> ip1
I0505 10:57:07.228960  6411 net.cpp:144] Setting up ip1
I0505 10:57:07.228986  6411 net.cpp:151] Top shape: 20 512 (10240)
I0505 10:57:07.228988  6411 net.cpp:159] Memory required for data: 9033200
I0505 10:57:07.228996  6411 layer_factory.hpp:77] Creating layer ip2
I0505 10:57:07.229005  6411 net.cpp:94] Creating Layer ip2
I0505 10:57:07.229009  6411 net.cpp:435] ip2 <- ip1
I0505 10:57:07.229017  6411 net.cpp:409] ip2 -> ip2
I0505 10:57:07.232197  6411 net.cpp:144] Setting up ip2
I0505 10:57:07.232208  6411 net.cpp:151] Top shape: 20 256 (5120)
I0505 10:57:07.232210  6411 net.cpp:159] Memory required for data: 9053680
I0505 10:57:07.232218  6411 layer_factory.hpp:77] Creating layer ip3
I0505 10:57:07.232226  6411 net.cpp:94] Creating Layer ip3
I0505 10:57:07.232229  6411 net.cpp:435] ip3 <- ip2
I0505 10:57:07.232234  6411 net.cpp:409] ip3 -> ip3
I0505 10:57:07.232681  6411 net.cpp:144] Setting up ip3
I0505 10:57:07.232689  6411 net.cpp:151] Top shape: 20 50 (1000)
I0505 10:57:07.232692  6411 net.cpp:159] Memory required for data: 9057680
I0505 10:57:07.232697  6411 layer_factory.hpp:77] Creating layer ip3_ip3_0_split
I0505 10:57:07.232703  6411 net.cpp:94] Creating Layer ip3_ip3_0_split
I0505 10:57:07.232707  6411 net.cpp:435] ip3_ip3_0_split <- ip3
I0505 10:57:07.232712  6411 net.cpp:409] ip3_ip3_0_split -> ip3_ip3_0_split_0
I0505 10:57:07.232717  6411 net.cpp:409] ip3_ip3_0_split -> ip3_ip3_0_split_1
I0505 10:57:07.232762  6411 net.cpp:144] Setting up ip3_ip3_0_split
I0505 10:57:07.232769  6411 net.cpp:151] Top shape: 20 50 (1000)
I0505 10:57:07.232772  6411 net.cpp:151] Top shape: 20 50 (1000)
I0505 10:57:07.232775  6411 net.cpp:159] Memory required for data: 9065680
I0505 10:57:07.232779  6411 layer_factory.hpp:77] Creating layer accuracy
I0505 10:57:07.232784  6411 net.cpp:94] Creating Layer accuracy
I0505 10:57:07.232786  6411 net.cpp:435] accuracy <- ip3_ip3_0_split_0
I0505 10:57:07.232790  6411 net.cpp:435] accuracy <- label_intercept_1_split_0
I0505 10:57:07.232795  6411 net.cpp:409] accuracy -> accuracy
…
