…
I0501 00:27:09.172335 28656 net.cpp:323] The NetState phase (0) differed from the phase (1) specified by a rule in layer intercept
I0501 00:27:09.172351 28656 net.cpp:323] The NetState phase (0) differed from the phase (1) specified by a rule in layer loss
I0501 00:27:09.172432 28656 net.cpp:52] Initializing net from parameters: 
state {
  phase: TRAIN
}
layer {
  name: "parameters"
  type: "HDF5Data"
  top: "data"
  top: "label"
  include {
    phase: TRAIN
  }
  hdf5_data_param {
    source: "/home/purduethu/scratch/radon/d/deng106/CNNStatisticalModel/distributions/input/50_distributions_100_sample_size_train-parameters-path.txt"
    batch_size: 20
  }
}
layer {
  name: "conv1"
  type: "Convolution"
  bottom: "data"
  top: "conv1"
  param {
    lr_mult: 1
  }
  param {
    lr_mult: 2
  }
  convolution_param {
    num_output: 64
    pad: 2
    kernel_size: 5
    stride: 1
    weight_filler {
      type: "gaussian"
      std: 0.0001
    }
    bias_filler {
      type: "constant"
    }
  }
}
layer {
  name: "relu1"
  type: "ReLU"
  bottom: "conv1"
  top: "conv1"
}
layer {
  name: "conv2"
  type: "Convolution"
  bottom: "conv1"
  top: "conv2"
  param {
    lr_mult: 1
  }
  param {
    lr_mult: 2
  }
  convolution_param {
    num_output: 64
    pad: 2
    kernel_size: 5
    stride: 1
    weight_filler {
      type: "gaussian"
      std: 0.01
    }
    bias_filler {
      type: "constant"
    }
  }
}
layer {
  name: "relu2"
  type: "ReLU"
  bottom: "conv2"
  top: "conv2"
}
layer {
  name: "pool2"
  type: "Pooling"
  bottom: "conv2"
  top: "pool2"
  pooling_param {
    pool: MAX
    kernel_size: 3
    stride: 2
  }
}
layer {
  name: "conv3"
  type: "Convolution"
  bottom: "pool2"
  top: "conv3"
  param {
    lr_mult: 1
  }
  param {
    lr_mult: 2
  }
  convolution_param {
    num_output: 128
    pad: 2
    kernel_size: 5
    stride: 1
    weight_filler {
      type: "gaussian"
      std: 0.01
    }
    bias_filler {
      type: "constant"
    }
  }
}
layer {
  name: "relu3"
  type: "ReLU"
  bottom: "conv3"
  top: "conv3"
}
layer {
  name: "conv4"
  type: "Convolution"
  bottom: "conv3"
  top: "conv4"
  param {
    lr_mult: 1
  }
  param {
    lr_mult: 2
  }
  convolution_param {
    num_output: 128
    pad: 2
    kernel_size: 5
    stride: 1
    weight_filler {
      type: "gaussian"
      std: 0.01
    }
    bias_filler {
      type: "constant"
    }
  }
}
layer {
  name: "relu4"
  type: "ReLU"
  bottom: "conv4"
  top: "conv4"
}
layer {
  name: "conv5"
  type: "Convolution"
  bottom: "conv4"
  top: "conv5"
  param {
    lr_mult: 1
  }
  param {
    lr_mult: 2
  }
  convolution_param {
    num_output: 128
    pad: 2
    kernel_size: 5
    stride: 1
    weight_filler {
      type: "gaussian"
      std: 0.01
    }
    bias_filler {
      type: "constant"
    }
  }
}
layer {
  name: "relu5"
  type: "ReLU"
  bottom: "conv5"
  top: "conv5"
}
layer {
  name: "pool5"
  type: "Pooling"
  bottom: "conv5"
  top: "pool5"
  pooling_param {
    pool: AVE
    kernel_size: 3
    stride: 2
  }
}
layer {
  name: "ip1"
  type: "InnerProduct"
  bottom: "pool5"
  top: "ip1"
  param {
    lr_mult: 1
  }
  param {
    lr_mult: 2
  }
  inner_product_param {
    num_output: 1024
    weight_filler {
      type: "gaussian"
      std: 0.1
    }
    bias_filler {
      type: "constant"
    }
  }
}
layer {
  name: "ip2"
  type: "InnerProduct"
  bottom: "ip1"
  top: "ip2"
  param {
    lr_mult: 1
  }
  param {
    lr_mult: 2
  }
  inner_product_param {
    num_output: 512
    weight_filler {
      type: "gaussian"
      std: 0.1
    }
    bias_filler {
      type: "constant"
    }
  }
}
layer {
  name: "ip3"
  type: "InnerProduct"
  bottom: "ip2"
  top: "ip3"
  param {
    lr_mult: 1
  }
  param {
    lr_mult: 2
  }
  inner_product_param {
    num_output: 1
    weight_filler {
      type: "gaussian"
      std: 0.1
    }
    bias_filler {
      type: "constant"
    }
  }
}
layer {
  name: "loss"
  type: "HuberLoss"
  bottom: "ip3"
  bottom: "label"
  top: "loss"
  include {
    phase: TRAIN
  }
}
I0501 00:27:09.172485 28656 layer_factory.hpp:77] Creating layer parameters
I0501 00:27:09.172498 28656 net.cpp:94] Creating Layer parameters
I0501 00:27:09.172503 28656 net.cpp:409] parameters -> data
I0501 00:27:09.172513 28656 net.cpp:409] parameters -> label
I0501 00:27:09.172523 28656 hdf5_data_layer.cpp:79] Loading list of HDF5 filenames from: /home/purduethu/scratch/radon/d/deng106/CNNStatisticalModel/distributions/input/50_distributions_100_sample_size_train-parameters-path.txt
I0501 00:27:09.172538 28656 hdf5_data_layer.cpp:93] Number of HDF5 files: 1
I0501 00:27:09.173120 28656 hdf5.cpp:32] Datatype class: H5T_FLOAT
I0501 00:27:09.335702 28656 net.cpp:144] Setting up parameters
I0501 00:27:09.335733 28656 net.cpp:151] Top shape: 20 1 10 10 (2000)
I0501 00:27:09.335738 28656 net.cpp:151] Top shape: 20 (20)
I0501 00:27:09.335741 28656 net.cpp:159] Memory required for data: 8080
I0501 00:27:09.335747 28656 layer_factory.hpp:77] Creating layer conv1
I0501 00:27:09.335768 28656 net.cpp:94] Creating Layer conv1
I0501 00:27:09.335773 28656 net.cpp:435] conv1 <- data
I0501 00:27:09.335779 28656 net.cpp:409] conv1 -> conv1
I0501 00:27:09.339848 28656 net.cpp:144] Setting up conv1
I0501 00:27:09.339865 28656 net.cpp:151] Top shape: 20 64 10 10 (128000)
I0501 00:27:09.339869 28656 net.cpp:159] Memory required for data: 520080
I0501 00:27:09.339879 28656 layer_factory.hpp:77] Creating layer relu1
I0501 00:27:09.339887 28656 net.cpp:94] Creating Layer relu1
I0501 00:27:09.339890 28656 net.cpp:435] relu1 <- conv1
I0501 00:27:09.339895 28656 net.cpp:396] relu1 -> conv1 (in-place)
I0501 00:27:09.339906 28656 net.cpp:144] Setting up relu1
I0501 00:27:09.339911 28656 net.cpp:151] Top shape: 20 64 10 10 (128000)
I0501 00:27:09.339915 28656 net.cpp:159] Memory required for data: 1032080
I0501 00:27:09.339917 28656 layer_factory.hpp:77] Creating layer conv2
I0501 00:27:09.339926 28656 net.cpp:94] Creating Layer conv2
I0501 00:27:09.339928 28656 net.cpp:435] conv2 <- conv1
I0501 00:27:09.339933 28656 net.cpp:409] conv2 -> conv2
I0501 00:27:09.346127 28656 net.cpp:144] Setting up conv2
I0501 00:27:09.346141 28656 net.cpp:151] Top shape: 20 64 10 10 (128000)
I0501 00:27:09.346145 28656 net.cpp:159] Memory required for data: 1544080
I0501 00:27:09.346153 28656 layer_factory.hpp:77] Creating layer relu2
I0501 00:27:09.346159 28656 net.cpp:94] Creating Layer relu2
I0501 00:27:09.346163 28656 net.cpp:435] relu2 <- conv2
I0501 00:27:09.346168 28656 net.cpp:396] relu2 -> conv2 (in-place)
I0501 00:27:09.346174 28656 net.cpp:144] Setting up relu2
I0501 00:27:09.346179 28656 net.cpp:151] Top shape: 20 64 10 10 (128000)
I0501 00:27:09.346180 28656 net.cpp:159] Memory required for data: 2056080
I0501 00:27:09.346184 28656 layer_factory.hpp:77] Creating layer pool2
I0501 00:27:09.346189 28656 net.cpp:94] Creating Layer pool2
I0501 00:27:09.346199 28656 net.cpp:435] pool2 <- conv2
I0501 00:27:09.346204 28656 net.cpp:409] pool2 -> pool2
I0501 00:27:09.346261 28656 net.cpp:144] Setting up pool2
I0501 00:27:09.346268 28656 net.cpp:151] Top shape: 20 64 5 5 (32000)
I0501 00:27:09.346271 28656 net.cpp:159] Memory required for data: 2184080
I0501 00:27:09.346276 28656 layer_factory.hpp:77] Creating layer conv3
I0501 00:27:09.346283 28656 net.cpp:94] Creating Layer conv3
I0501 00:27:09.346287 28656 net.cpp:435] conv3 <- pool2
I0501 00:27:09.346292 28656 net.cpp:409] conv3 -> conv3
I0501 00:27:09.354522 28656 net.cpp:144] Setting up conv3
I0501 00:27:09.354537 28656 net.cpp:151] Top shape: 20 128 5 5 (64000)
I0501 00:27:09.354542 28656 net.cpp:159] Memory required for data: 2440080
I0501 00:27:09.354549 28656 layer_factory.hpp:77] Creating layer relu3
I0501 00:27:09.354555 28656 net.cpp:94] Creating Layer relu3
I0501 00:27:09.354558 28656 net.cpp:435] relu3 <- conv3
I0501 00:27:09.354563 28656 net.cpp:396] relu3 -> conv3 (in-place)
I0501 00:27:09.354569 28656 net.cpp:144] Setting up relu3
I0501 00:27:09.354574 28656 net.cpp:151] Top shape: 20 128 5 5 (64000)
I0501 00:27:09.354578 28656 net.cpp:159] Memory required for data: 2696080
I0501 00:27:09.354579 28656 layer_factory.hpp:77] Creating layer conv4
I0501 00:27:09.354588 28656 net.cpp:94] Creating Layer conv4
I0501 00:27:09.354591 28656 net.cpp:435] conv4 <- conv3
I0501 00:27:09.354596 28656 net.cpp:409] conv4 -> conv4
I0501 00:27:09.369935 28656 net.cpp:144] Setting up conv4
I0501 00:27:09.369972 28656 net.cpp:151] Top shape: 20 128 5 5 (64000)
I0501 00:27:09.369982 28656 net.cpp:159] Memory required for data: 2952080
I0501 00:27:09.369995 28656 layer_factory.hpp:77] Creating layer relu4
I0501 00:27:09.370008 28656 net.cpp:94] Creating Layer relu4
I0501 00:27:09.370018 28656 net.cpp:435] relu4 <- conv4
I0501 00:27:09.370028 28656 net.cpp:396] relu4 -> conv4 (in-place)
I0501 00:27:09.370043 28656 net.cpp:144] Setting up relu4
I0501 00:27:09.370054 28656 net.cpp:151] Top shape: 20 128 5 5 (64000)
I0501 00:27:09.370060 28656 net.cpp:159] Memory required for data: 3208080
I0501 00:27:09.370067 28656 layer_factory.hpp:77] Creating layer conv5
I0501 00:27:09.370084 28656 net.cpp:94] Creating Layer conv5
I0501 00:27:09.370091 28656 net.cpp:435] conv5 <- conv4
I0501 00:27:09.370102 28656 net.cpp:409] conv5 -> conv5
I0501 00:27:09.404620 28656 net.cpp:144] Setting up conv5
I0501 00:27:09.404659 28656 net.cpp:151] Top shape: 20 128 5 5 (64000)
I0501 00:27:09.404667 28656 net.cpp:159] Memory required for data: 3464080
I0501 00:27:09.404688 28656 layer_factory.hpp:77] Creating layer relu5
I0501 00:27:09.404703 28656 net.cpp:94] Creating Layer relu5
I0501 00:27:09.404711 28656 net.cpp:435] relu5 <- conv5
I0501 00:27:09.404723 28656 net.cpp:396] relu5 -> conv5 (in-place)
I0501 00:27:09.404741 28656 net.cpp:144] Setting up relu5
I0501 00:27:09.404752 28656 net.cpp:151] Top shape: 20 128 5 5 (64000)
I0501 00:27:09.404759 28656 net.cpp:159] Memory required for data: 3720080
I0501 00:27:09.404767 28656 layer_factory.hpp:77] Creating layer pool5
I0501 00:27:09.404778 28656 net.cpp:94] Creating Layer pool5
I0501 00:27:09.404786 28656 net.cpp:435] pool5 <- conv5
I0501 00:27:09.404796 28656 net.cpp:409] pool5 -> pool5
I0501 00:27:09.404891 28656 net.cpp:144] Setting up pool5
I0501 00:27:09.404906 28656 net.cpp:151] Top shape: 20 128 2 2 (10240)
I0501 00:27:09.404914 28656 net.cpp:159] Memory required for data: 3761040
I0501 00:27:09.404922 28656 layer_factory.hpp:77] Creating layer ip1
I0501 00:27:09.404942 28656 net.cpp:94] Creating Layer ip1
I0501 00:27:09.404949 28656 net.cpp:435] ip1 <- pool5
I0501 00:27:09.404960 28656 net.cpp:409] ip1 -> ip1
I0501 00:27:09.436942 28656 net.cpp:144] Setting up ip1
I0501 00:27:09.436975 28656 net.cpp:151] Top shape: 20 1024 (20480)
I0501 00:27:09.436985 28656 net.cpp:159] Memory required for data: 3842960
I0501 00:27:09.436997 28656 layer_factory.hpp:77] Creating layer ip2
I0501 00:27:09.437011 28656 net.cpp:94] Creating Layer ip2
I0501 00:27:09.437028 28656 net.cpp:435] ip2 <- ip1
I0501 00:27:09.437041 28656 net.cpp:409] ip2 -> ip2
I0501 00:27:09.463335 28656 net.cpp:144] Setting up ip2
I0501 00:27:09.463361 28656 net.cpp:151] Top shape: 20 512 (10240)
I0501 00:27:09.463368 28656 net.cpp:159] Memory required for data: 3883920
I0501 00:27:09.463379 28656 layer_factory.hpp:77] Creating layer ip3
I0501 00:27:09.463392 28656 net.cpp:94] Creating Layer ip3
I0501 00:27:09.463398 28656 net.cpp:435] ip3 <- ip2
I0501 00:27:09.463407 28656 net.cpp:409] ip3 -> ip3
I0501 00:27:09.463629 28656 net.cpp:144] Setting up ip3
I0501 00:27:09.463640 28656 net.cpp:151] Top shape: 20 1 (20)
I0501 00:27:09.463646 28656 net.cpp:159] Memory required for data: 3884000
I0501 00:27:09.463655 28656 layer_factory.hpp:77] Creating layer loss
I0501 00:27:09.463675 28656 net.cpp:94] Creating Layer loss
I0501 00:27:09.463682 28656 net.cpp:435] loss <- ip3
I0501 00:27:09.463690 28656 net.cpp:435] loss <- label
I0501 00:27:09.463697 28656 net.cpp:409] loss -> loss
I0501 00:27:09.463793 28656 net.cpp:144] Setting up loss
…
I0501 00:27:09.608022 28656 net.cpp:323] The NetState phase (0) differed from the phase (1) specified by a rule in layer intercept
I0501 00:27:09.608042 28656 net.cpp:323] The NetState phase (0) differed from the phase (1) specified by a rule in layer accuracy
I0501 00:27:09.608144 28656 net.cpp:52] Initializing net from parameters: 
state {
  phase: TRAIN
}
layer {
  name: "parameters"
  type: "HDF5Data"
  top: "data"
  top: "label"
  include {
    phase: TRAIN
  }
  hdf5_data_param {
    source: "/home/purduethu/scratch/radon/d/deng106/CNNStatisticalModel/distributions/input/50_distributions_100_sample_size_train-distributions-path.txt"
    batch_size: 20
  }
}
layer {
  name: "conv1"
  type: "Convolution"
  bottom: "data"
  top: "conv1"
  param {
    lr_mult: 1
  }
  param {
    lr_mult: 2
  }
  convolution_param {
    num_output: 64
    pad: 2
    kernel_size: 5
    stride: 1
    weight_filler {
      type: "gaussian"
      std: 0.0001
    }
    bias_filler {
      type: "constant"
    }
  }
}
layer {
  name: "relu1"
  type: "ReLU"
  bottom: "conv1"
  top: "conv1"
}
layer {
  name: "conv2"
  type: "Convolution"
  bottom: "conv1"
  top: "conv2"
  param {
    lr_mult: 1
  }
  param {
    lr_mult: 2
  }
  convolution_param {
    num_output: 64
    pad: 2
    kernel_size: 5
    stride: 1
    weight_filler {
      type: "gaussian"
      std: 0.01
    }
    bias_filler {
      type: "constant"
    }
  }
}
layer {
  name: "relu2"
  type: "ReLU"
  bottom: "conv2"
  top: "conv2"
}
layer {
  name: "pool2"
  type: "Pooling"
  bottom: "conv2"
  top: "pool2"
  pooling_param {
    pool: MAX
    kernel_size: 3
    stride: 2
  }
}
layer {
  name: "conv3"
  type: "Convolution"
  bottom: "pool2"
  top: "conv3"
  param {
    lr_mult: 1
  }
  param {
    lr_mult: 2
  }
  convolution_param {
    num_output: 128
    pad: 2
    kernel_size: 5
    stride: 1
    weight_filler {
      type: "gaussian"
      std: 0.01
    }
    bias_filler {
      type: "constant"
    }
  }
}
layer {
  name: "relu3"
  type: "ReLU"
  bottom: "conv3"
  top: "conv3"
}
layer {
  name: "conv4"
  type: "Convolution"
  bottom: "conv3"
  top: "conv4"
  param {
    lr_mult: 1
  }
  param {
    lr_mult: 2
  }
  convolution_param {
    num_output: 128
    pad: 2
    kernel_size: 5
    stride: 1
    weight_filler {
      type: "gaussian"
      std: 0.01
    }
    bias_filler {
      type: "constant"
    }
  }
}
layer {
  name: "relu4"
  type: "ReLU"
  bottom: "conv4"
  top: "conv4"
}
layer {
  name: "conv5"
  type: "Convolution"
  bottom: "conv4"
  top: "conv5"
  param {
    lr_mult: 1
  }
  param {
    lr_mult: 2
  }
  convolution_param {
    num_output: 128
    pad: 2
    kernel_size: 5
    stride: 1
    weight_filler {
      type: "gaussian"
      std: 0.01
    }
    bias_filler {
      type: "constant"
    }
  }
}
layer {
  name: "relu5"
  type: "ReLU"
  bottom: "conv5"
  top: "conv5"
}
layer {
  name: "pool5"
  type: "Pooling"
  bottom: "conv5"
  top: "pool5"
  pooling_param {
    pool: AVE
    kernel_size: 3
    stride: 2
  }
}
layer {
  name: "ip1"
  type: "InnerProduct"
  bottom: "pool5"
  top: "ip1"
  param {
    lr_mult: 1
  }
  param {
    lr_mult: 2
  }
  inner_product_param {
    num_output: 1024
    weight_filler {
      type: "gaussian"
      std: 0.1
    }
    bias_filler {
      type: "constant"
    }
  }
}
layer {
  name: "ip2"
  type: "InnerProduct"
  bottom: "ip1"
  top: "ip2"
  param {
    lr_mult: 1
  }
  param {
    lr_mult: 2
  }
  inner_product_param {
    num_output: 512
    weight_filler {
      type: "gaussian"
      std: 0.1
    }
    bias_filler {
      type: "constant"
    }
  }
}
layer {
  name: "ip3"
  type: "InnerProduct"
  bottom: "ip2"
  top: "ip3"
  param {
    lr_mult: 1
  }
  param {
    lr_mult: 2
  }
  inner_product_param {
    num_output: 50
    weight_filler {
      type: "gaussian"
      std: 0.1
    }
    bias_filler {
      type: "constant"
    }
  }
}
layer {
  name: "loss"
  type: "SoftmaxWithLoss"
  bottom: "ip3"
  bottom: "label"
  top: "loss"
}
I0501 00:27:09.608203 28656 layer_factory.hpp:77] Creating layer parameters
I0501 00:27:09.608212 28656 net.cpp:94] Creating Layer parameters
I0501 00:27:09.608217 28656 net.cpp:409] parameters -> data
I0501 00:27:09.608224 28656 net.cpp:409] parameters -> label
I0501 00:27:09.608232 28656 hdf5_data_layer.cpp:79] Loading list of HDF5 filenames from: /home/purduethu/scratch/radon/d/deng106/CNNStatisticalModel/distributions/input/50_distributions_100_sample_size_train-distributions-path.txt
I0501 00:27:09.608248 28656 hdf5_data_layer.cpp:93] Number of HDF5 files: 1
I0501 00:27:09.771008 28656 hdf5.cpp:35] Datatype class: H5T_INTEGER
I0501 00:27:09.774284 28656 net.cpp:144] Setting up parameters
I0501 00:27:09.774302 28656 net.cpp:151] Top shape: 20 1 10 10 (2000)
I0501 00:27:09.774307 28656 net.cpp:151] Top shape: 20 (20)
I0501 00:27:09.774310 28656 net.cpp:159] Memory required for data: 8080
I0501 00:27:09.774317 28656 layer_factory.hpp:77] Creating layer conv1
I0501 00:27:09.774333 28656 net.cpp:94] Creating Layer conv1
I0501 00:27:09.774338 28656 net.cpp:435] conv1 <- data
I0501 00:27:09.774344 28656 net.cpp:409] conv1 -> conv1
I0501 00:27:09.776350 28656 net.cpp:144] Setting up conv1
I0501 00:27:09.776362 28656 net.cpp:151] Top shape: 20 64 10 10 (128000)
I0501 00:27:09.776366 28656 net.cpp:159] Memory required for data: 520080
I0501 00:27:09.776376 28656 layer_factory.hpp:77] Creating layer relu1
I0501 00:27:09.776383 28656 net.cpp:94] Creating Layer relu1
I0501 00:27:09.776387 28656 net.cpp:435] relu1 <- conv1
I0501 00:27:09.776391 28656 net.cpp:396] relu1 -> conv1 (in-place)
I0501 00:27:09.776398 28656 net.cpp:144] Setting up relu1
I0501 00:27:09.776403 28656 net.cpp:151] Top shape: 20 64 10 10 (128000)
I0501 00:27:09.776407 28656 net.cpp:159] Memory required for data: 1032080
I0501 00:27:09.776409 28656 layer_factory.hpp:77] Creating layer conv2
I0501 00:27:09.776417 28656 net.cpp:94] Creating Layer conv2
I0501 00:27:09.776420 28656 net.cpp:435] conv2 <- conv1
I0501 00:27:09.776424 28656 net.cpp:409] conv2 -> conv2
I0501 00:27:09.782109 28656 net.cpp:144] Setting up conv2
I0501 00:27:09.782124 28656 net.cpp:151] Top shape: 20 64 10 10 (128000)
I0501 00:27:09.782129 28656 net.cpp:159] Memory required for data: 1544080
I0501 00:27:09.782136 28656 layer_factory.hpp:77] Creating layer relu2
I0501 00:27:09.782143 28656 net.cpp:94] Creating Layer relu2
I0501 00:27:09.782147 28656 net.cpp:435] relu2 <- conv2
I0501 00:27:09.782151 28656 net.cpp:396] relu2 -> conv2 (in-place)
I0501 00:27:09.782158 28656 net.cpp:144] Setting up relu2
I0501 00:27:09.782163 28656 net.cpp:151] Top shape: 20 64 10 10 (128000)
I0501 00:27:09.782166 28656 net.cpp:159] Memory required for data: 2056080
I0501 00:27:09.782169 28656 layer_factory.hpp:77] Creating layer pool2
I0501 00:27:09.782176 28656 net.cpp:94] Creating Layer pool2
I0501 00:27:09.782178 28656 net.cpp:435] pool2 <- conv2
I0501 00:27:09.782182 28656 net.cpp:409] pool2 -> pool2
I0501 00:27:09.782240 28656 net.cpp:144] Setting up pool2
I0501 00:27:09.782248 28656 net.cpp:151] Top shape: 20 64 5 5 (32000)
I0501 00:27:09.782251 28656 net.cpp:159] Memory required for data: 2184080
I0501 00:27:09.782254 28656 layer_factory.hpp:77] Creating layer conv3
I0501 00:27:09.782263 28656 net.cpp:94] Creating Layer conv3
I0501 00:27:09.782266 28656 net.cpp:435] conv3 <- pool2
I0501 00:27:09.782270 28656 net.cpp:409] conv3 -> conv3
I0501 00:27:09.791347 28656 net.cpp:144] Setting up conv3
I0501 00:27:09.791363 28656 net.cpp:151] Top shape: 20 128 5 5 (64000)
I0501 00:27:09.791368 28656 net.cpp:159] Memory required for data: 2440080
I0501 00:27:09.791375 28656 layer_factory.hpp:77] Creating layer relu3
I0501 00:27:09.791383 28656 net.cpp:94] Creating Layer relu3
I0501 00:27:09.791385 28656 net.cpp:435] relu3 <- conv3
I0501 00:27:09.791390 28656 net.cpp:396] relu3 -> conv3 (in-place)
I0501 00:27:09.791398 28656 net.cpp:144] Setting up relu3
I0501 00:27:09.791401 28656 net.cpp:151] Top shape: 20 128 5 5 (64000)
I0501 00:27:09.791404 28656 net.cpp:159] Memory required for data: 2696080
I0501 00:27:09.791407 28656 layer_factory.hpp:77] Creating layer conv4
I0501 00:27:09.791416 28656 net.cpp:94] Creating Layer conv4
I0501 00:27:09.791419 28656 net.cpp:435] conv4 <- conv3
I0501 00:27:09.791424 28656 net.cpp:409] conv4 -> conv4
I0501 00:27:09.806658 28656 net.cpp:144] Setting up conv4
I0501 00:27:09.806676 28656 net.cpp:151] Top shape: 20 128 5 5 (64000)
I0501 00:27:09.806679 28656 net.cpp:159] Memory required for data: 2952080
I0501 00:27:09.806686 28656 layer_factory.hpp:77] Creating layer relu4
I0501 00:27:09.806692 28656 net.cpp:94] Creating Layer relu4
I0501 00:27:09.806696 28656 net.cpp:435] relu4 <- conv4
I0501 00:27:09.806701 28656 net.cpp:396] relu4 -> conv4 (in-place)
I0501 00:27:09.806709 28656 net.cpp:144] Setting up relu4
I0501 00:27:09.806712 28656 net.cpp:151] Top shape: 20 128 5 5 (64000)
I0501 00:27:09.806715 28656 net.cpp:159] Memory required for data: 3208080
I0501 00:27:09.806718 28656 layer_factory.hpp:77] Creating layer conv5
I0501 00:27:09.806726 28656 net.cpp:94] Creating Layer conv5
I0501 00:27:09.806730 28656 net.cpp:435] conv5 <- conv4
I0501 00:27:09.806735 28656 net.cpp:409] conv5 -> conv5
I0501 00:27:09.822441 28656 net.cpp:144] Setting up conv5
I0501 00:27:09.822459 28656 net.cpp:151] Top shape: 20 128 5 5 (64000)
I0501 00:27:09.822463 28656 net.cpp:159] Memory required for data: 3464080
I0501 00:27:09.822473 28656 layer_factory.hpp:77] Creating layer relu5
I0501 00:27:09.822479 28656 net.cpp:94] Creating Layer relu5
I0501 00:27:09.822482 28656 net.cpp:435] relu5 <- conv5
I0501 00:27:09.822487 28656 net.cpp:396] relu5 -> conv5 (in-place)
I0501 00:27:09.822494 28656 net.cpp:144] Setting up relu5
I0501 00:27:09.822499 28656 net.cpp:151] Top shape: 20 128 5 5 (64000)
I0501 00:27:09.822501 28656 net.cpp:159] Memory required for data: 3720080
I0501 00:27:09.822504 28656 layer_factory.hpp:77] Creating layer pool5
I0501 00:27:09.822510 28656 net.cpp:94] Creating Layer pool5
I0501 00:27:09.822513 28656 net.cpp:435] pool5 <- conv5
I0501 00:27:09.822517 28656 net.cpp:409] pool5 -> pool5
I0501 00:27:09.822561 28656 net.cpp:144] Setting up pool5
I0501 00:27:09.822567 28656 net.cpp:151] Top shape: 20 128 2 2 (10240)
I0501 00:27:09.822571 28656 net.cpp:159] Memory required for data: 3761040
I0501 00:27:09.822574 28656 layer_factory.hpp:77] Creating layer ip1
I0501 00:27:09.822582 28656 net.cpp:94] Creating Layer ip1
I0501 00:27:09.822584 28656 net.cpp:435] ip1 <- pool5
I0501 00:27:09.822588 28656 net.cpp:409] ip1 -> ip1
I0501 00:27:09.836329 28656 net.cpp:144] Setting up ip1
I0501 00:27:09.836346 28656 net.cpp:151] Top shape: 20 1024 (20480)
I0501 00:27:09.836350 28656 net.cpp:159] Memory required for data: 3842960
I0501 00:27:09.836357 28656 layer_factory.hpp:77] Creating layer ip2
I0501 00:27:09.836364 28656 net.cpp:94] Creating Layer ip2
I0501 00:27:09.836369 28656 net.cpp:435] ip2 <- ip1
I0501 00:27:09.836374 28656 net.cpp:409] ip2 -> ip2
I0501 00:27:09.850122 28656 net.cpp:144] Setting up ip2
I0501 00:27:09.850142 28656 net.cpp:151] Top shape: 20 512 (10240)
I0501 00:27:09.850147 28656 net.cpp:159] Memory required for data: 3883920
I0501 00:27:09.850152 28656 layer_factory.hpp:77] Creating layer ip3
I0501 00:27:09.850160 28656 net.cpp:94] Creating Layer ip3
I0501 00:27:09.850164 28656 net.cpp:435] ip3 <- ip2
I0501 00:27:09.850169 28656 net.cpp:409] ip3 -> ip3
I0501 00:27:09.851799 28656 net.cpp:144] Setting up ip3
I0501 00:27:09.851811 28656 net.cpp:151] Top shape: 20 50 (1000)
I0501 00:27:09.851821 28656 net.cpp:159] Memory required for data: 3887920
I0501 00:27:09.851828 28656 layer_factory.hpp:77] Creating layer loss
I0501 00:27:09.851836 28656 net.cpp:94] Creating Layer loss
I0501 00:27:09.851840 28656 net.cpp:435] loss <- ip3
I0501 00:27:09.851845 28656 net.cpp:435] loss <- label
I0501 00:27:09.851850 28656 net.cpp:409] loss -> loss
I0501 00:27:09.851857 28656 layer_factory.hpp:77] Creating layer loss
…
I0501 00:27:09.852404 28656 solver.cpp:181] Creating test net (#0) specified by net file: ./protocol/dis_50_100_dimension.protocol_distribution
I0501 00:27:09.852432 28656 net.cpp:323] The NetState phase (1) differed from the phase (0) specified by a rule in layer parameters
I0501 00:27:09.852530 28656 net.cpp:52] Initializing net from parameters: 
state {
  phase: TEST
}
layer {
  name: "intercept"
  type: "HDF5Data"
  top: "data"
  top: "label"
  include {
    phase: TEST
  }
  hdf5_data_param {
    source: "/home/purduethu/scratch/radon/d/deng106/CNNStatisticalModel/distributions/input/50_distributions_100_sample_size_test-distributions-path.txt"
    batch_size: 20
  }
}
layer {
  name: "conv1"
  type: "Convolution"
  bottom: "data"
  top: "conv1"
  param {
    lr_mult: 1
  }
  param {
    lr_mult: 2
  }
  convolution_param {
    num_output: 64
    pad: 2
    kernel_size: 5
    stride: 1
    weight_filler {
      type: "gaussian"
      std: 0.0001
    }
    bias_filler {
      type: "constant"
    }
  }
}
layer {
  name: "relu1"
  type: "ReLU"
  bottom: "conv1"
  top: "conv1"
}
layer {
  name: "conv2"
  type: "Convolution"
  bottom: "conv1"
  top: "conv2"
  param {
    lr_mult: 1
  }
  param {
    lr_mult: 2
  }
  convolution_param {
    num_output: 64
    pad: 2
    kernel_size: 5
    stride: 1
    weight_filler {
      type: "gaussian"
      std: 0.01
    }
    bias_filler {
      type: "constant"
    }
  }
}
layer {
  name: "relu2"
  type: "ReLU"
  bottom: "conv2"
  top: "conv2"
}
layer {
  name: "pool2"
  type: "Pooling"
  bottom: "conv2"
  top: "pool2"
  pooling_param {
    pool: MAX
    kernel_size: 3
    stride: 2
  }
}
layer {
  name: "conv3"
  type: "Convolution"
  bottom: "pool2"
  top: "conv3"
  param {
    lr_mult: 1
  }
  param {
    lr_mult: 2
  }
  convolution_param {
    num_output: 128
    pad: 2
    kernel_size: 5
    stride: 1
    weight_filler {
      type: "gaussian"
      std: 0.01
    }
    bias_filler {
      type: "constant"
    }
  }
}
layer {
  name: "relu3"
  type: "ReLU"
  bottom: "conv3"
  top: "conv3"
}
layer {
  name: "conv4"
  type: "Convolution"
  bottom: "conv3"
  top: "conv4"
  param {
    lr_mult: 1
  }
  param {
    lr_mult: 2
  }
  convolution_param {
    num_output: 128
    pad: 2
    kernel_size: 5
    stride: 1
    weight_filler {
      type: "gaussian"
      std: 0.01
    }
    bias_filler {
      type: "constant"
    }
  }
}
layer {
  name: "relu4"
  type: "ReLU"
  bottom: "conv4"
  top: "conv4"
}
layer {
  name: "conv5"
  type: "Convolution"
  bottom: "conv4"
  top: "conv5"
  param {
    lr_mult: 1
  }
  param {
    lr_mult: 2
  }
  convolution_param {
    num_output: 128
    pad: 2
    kernel_size: 5
    stride: 1
    weight_filler {
      type: "gaussian"
      std: 0.01
    }
    bias_filler {
      type: "constant"
    }
  }
}
layer {
  name: "relu5"
  type: "ReLU"
  bottom: "conv5"
  top: "conv5"
}
layer {
  name: "pool5"
  type: "Pooling"
  bottom: "conv5"
  top: "pool5"
  pooling_param {
    pool: AVE
    kernel_size: 3
    stride: 2
  }
}
layer {
  name: "ip1"
  type: "InnerProduct"
  bottom: "pool5"
  top: "ip1"
  param {
    lr_mult: 1
  }
  param {
    lr_mult: 2
  }
  inner_product_param {
    num_output: 1024
    weight_filler {
      type: "gaussian"
      std: 0.1
    }
    bias_filler {
      type: "constant"
    }
  }
}
layer {
  name: "ip2"
  type: "InnerProduct"
  bottom: "ip1"
  top: "ip2"
  param {
    lr_mult: 1
  }
  param {
    lr_mult: 2
  }
  inner_product_param {
    num_output: 512
    weight_filler {
      type: "gaussian"
      std: 0.1
    }
    bias_filler {
      type: "constant"
    }
  }
}
layer {
  name: "ip3"
  type: "InnerProduct"
  bottom: "ip2"
  top: "ip3"
  param {
    lr_mult: 1
  }
  param {
    lr_mult: 2
  }
  inner_product_param {
    num_output: 50
    weight_filler {
      type: "gaussian"
      std: 0.1
    }
    bias_filler {
      type: "constant"
    }
  }
}
layer {
  name: "accuracy"
  type: "Accuracy"
  bottom: "ip3"
  bottom: "label"
  top: "accuracy"
  include {
    phase: TEST
  }
}
layer {
  name: "loss"
  type: "SoftmaxWithLoss"
  bottom: "ip3"
  bottom: "label"
  top: "loss"
}
I0501 00:27:09.852605 28656 layer_factory.hpp:77] Creating layer intercept
I0501 00:27:09.852615 28656 net.cpp:94] Creating Layer intercept
I0501 00:27:09.852619 28656 net.cpp:409] intercept -> data
I0501 00:27:09.852627 28656 net.cpp:409] intercept -> label
I0501 00:27:09.852632 28656 hdf5_data_layer.cpp:79] Loading list of HDF5 filenames from: /home/purduethu/scratch/radon/d/deng106/CNNStatisticalModel/distributions/input/50_distributions_100_sample_size_test-distributions-path.txt
I0501 00:27:09.852651 28656 hdf5_data_layer.cpp:93] Number of HDF5 files: 1
I0501 00:27:09.894979 28656 net.cpp:144] Setting up intercept
I0501 00:27:09.895012 28656 net.cpp:151] Top shape: 20 1 10 10 (2000)
I0501 00:27:09.895017 28656 net.cpp:151] Top shape: 20 (20)
I0501 00:27:09.895020 28656 net.cpp:159] Memory required for data: 8080
I0501 00:27:09.895026 28656 layer_factory.hpp:77] Creating layer label_intercept_1_split
I0501 00:27:09.895045 28656 net.cpp:94] Creating Layer label_intercept_1_split
I0501 00:27:09.895051 28656 net.cpp:435] label_intercept_1_split <- label
I0501 00:27:09.895056 28656 net.cpp:409] label_intercept_1_split -> label_intercept_1_split_0
I0501 00:27:09.895064 28656 net.cpp:409] label_intercept_1_split -> label_intercept_1_split_1
I0501 00:27:09.895112 28656 net.cpp:144] Setting up label_intercept_1_split
I0501 00:27:09.895118 28656 net.cpp:151] Top shape: 20 (20)
I0501 00:27:09.895122 28656 net.cpp:151] Top shape: 20 (20)
I0501 00:27:09.895124 28656 net.cpp:159] Memory required for data: 8240
I0501 00:27:09.895128 28656 layer_factory.hpp:77] Creating layer conv1
I0501 00:27:09.895138 28656 net.cpp:94] Creating Layer conv1
I0501 00:27:09.895143 28656 net.cpp:435] conv1 <- data
I0501 00:27:09.895148 28656 net.cpp:409] conv1 -> conv1
I0501 00:27:09.896105 28656 net.cpp:144] Setting up conv1
I0501 00:27:09.896117 28656 net.cpp:151] Top shape: 20 64 10 10 (128000)
I0501 00:27:09.896128 28656 net.cpp:159] Memory required for data: 520240
I0501 00:27:09.896138 28656 layer_factory.hpp:77] Creating layer relu1
I0501 00:27:09.896147 28656 net.cpp:94] Creating Layer relu1
I0501 00:27:09.896149 28656 net.cpp:435] relu1 <- conv1
I0501 00:27:09.896153 28656 net.cpp:396] relu1 -> conv1 (in-place)
I0501 00:27:09.896160 28656 net.cpp:144] Setting up relu1
I0501 00:27:09.896165 28656 net.cpp:151] Top shape: 20 64 10 10 (128000)
I0501 00:27:09.896168 28656 net.cpp:159] Memory required for data: 1032240
I0501 00:27:09.896172 28656 layer_factory.hpp:77] Creating layer conv2
I0501 00:27:09.896179 28656 net.cpp:94] Creating Layer conv2
I0501 00:27:09.896183 28656 net.cpp:435] conv2 <- conv1
I0501 00:27:09.896188 28656 net.cpp:409] conv2 -> conv2
I0501 00:27:09.900455 28656 net.cpp:144] Setting up conv2
I0501 00:27:09.900470 28656 net.cpp:151] Top shape: 20 64 10 10 (128000)
I0501 00:27:09.900475 28656 net.cpp:159] Memory required for data: 1544240
I0501 00:27:09.900482 28656 layer_factory.hpp:77] Creating layer relu2
I0501 00:27:09.900488 28656 net.cpp:94] Creating Layer relu2
I0501 00:27:09.900491 28656 net.cpp:435] relu2 <- conv2
I0501 00:27:09.900497 28656 net.cpp:396] relu2 -> conv2 (in-place)
I0501 00:27:09.900504 28656 net.cpp:144] Setting up relu2
I0501 00:27:09.900509 28656 net.cpp:151] Top shape: 20 64 10 10 (128000)
I0501 00:27:09.900512 28656 net.cpp:159] Memory required for data: 2056240
I0501 00:27:09.900516 28656 layer_factory.hpp:77] Creating layer pool2
I0501 00:27:09.900521 28656 net.cpp:94] Creating Layer pool2
I0501 00:27:09.900524 28656 net.cpp:435] pool2 <- conv2
I0501 00:27:09.900529 28656 net.cpp:409] pool2 -> pool2
I0501 00:27:09.900604 28656 net.cpp:144] Setting up pool2
I0501 00:27:09.900611 28656 net.cpp:151] Top shape: 20 64 5 5 (32000)
I0501 00:27:09.900614 28656 net.cpp:159] Memory required for data: 2184240
I0501 00:27:09.900619 28656 layer_factory.hpp:77] Creating layer conv3
I0501 00:27:09.900629 28656 net.cpp:94] Creating Layer conv3
I0501 00:27:09.900631 28656 net.cpp:435] conv3 <- pool2
I0501 00:27:09.900636 28656 net.cpp:409] conv3 -> conv3
I0501 00:27:09.906993 28656 net.cpp:144] Setting up conv3
I0501 00:27:09.907007 28656 net.cpp:151] Top shape: 20 128 5 5 (64000)
I0501 00:27:09.907011 28656 net.cpp:159] Memory required for data: 2440240
I0501 00:27:09.907018 28656 layer_factory.hpp:77] Creating layer relu3
I0501 00:27:09.907027 28656 net.cpp:94] Creating Layer relu3
I0501 00:27:09.907030 28656 net.cpp:435] relu3 <- conv3
I0501 00:27:09.907034 28656 net.cpp:396] relu3 -> conv3 (in-place)
I0501 00:27:09.907042 28656 net.cpp:144] Setting up relu3
I0501 00:27:09.907045 28656 net.cpp:151] Top shape: 20 128 5 5 (64000)
I0501 00:27:09.907048 28656 net.cpp:159] Memory required for data: 2696240
I0501 00:27:09.907052 28656 layer_factory.hpp:77] Creating layer conv4
I0501 00:27:09.907059 28656 net.cpp:94] Creating Layer conv4
I0501 00:27:09.907063 28656 net.cpp:435] conv4 <- conv3
I0501 00:27:09.907069 28656 net.cpp:409] conv4 -> conv4
I0501 00:27:09.920238 28656 net.cpp:144] Setting up conv4
I0501 00:27:09.920255 28656 net.cpp:151] Top shape: 20 128 5 5 (64000)
I0501 00:27:09.920259 28656 net.cpp:159] Memory required for data: 2952240
I0501 00:27:09.920265 28656 layer_factory.hpp:77] Creating layer relu4
I0501 00:27:09.920271 28656 net.cpp:94] Creating Layer relu4
I0501 00:27:09.920275 28656 net.cpp:435] relu4 <- conv4
I0501 00:27:09.920279 28656 net.cpp:396] relu4 -> conv4 (in-place)
I0501 00:27:09.920287 28656 net.cpp:144] Setting up relu4
I0501 00:27:09.920291 28656 net.cpp:151] Top shape: 20 128 5 5 (64000)
I0501 00:27:09.920295 28656 net.cpp:159] Memory required for data: 3208240
I0501 00:27:09.920297 28656 layer_factory.hpp:77] Creating layer conv5
I0501 00:27:09.920306 28656 net.cpp:94] Creating Layer conv5
I0501 00:27:09.920310 28656 net.cpp:435] conv5 <- conv4
I0501 00:27:09.920315 28656 net.cpp:409] conv5 -> conv5
I0501 00:27:09.933465 28656 net.cpp:144] Setting up conv5
I0501 00:27:09.933480 28656 net.cpp:151] Top shape: 20 128 5 5 (64000)
I0501 00:27:09.933488 28656 net.cpp:159] Memory required for data: 3464240
I0501 00:27:09.933498 28656 layer_factory.hpp:77] Creating layer relu5
I0501 00:27:09.933506 28656 net.cpp:94] Creating Layer relu5
I0501 00:27:09.933511 28656 net.cpp:435] relu5 <- conv5
I0501 00:27:09.933514 28656 net.cpp:396] relu5 -> conv5 (in-place)
I0501 00:27:09.933521 28656 net.cpp:144] Setting up relu5
I0501 00:27:09.933526 28656 net.cpp:151] Top shape: 20 128 5 5 (64000)
I0501 00:27:09.933528 28656 net.cpp:159] Memory required for data: 3720240
I0501 00:27:09.933531 28656 layer_factory.hpp:77] Creating layer pool5
I0501 00:27:09.933538 28656 net.cpp:94] Creating Layer pool5
I0501 00:27:09.933542 28656 net.cpp:435] pool5 <- conv5
I0501 00:27:09.933547 28656 net.cpp:409] pool5 -> pool5
I0501 00:27:09.933588 28656 net.cpp:144] Setting up pool5
I0501 00:27:09.933596 28656 net.cpp:151] Top shape: 20 128 2 2 (10240)
I0501 00:27:09.933599 28656 net.cpp:159] Memory required for data: 3761200
I0501 00:27:09.933603 28656 layer_factory.hpp:77] Creating layer ip1
I0501 00:27:09.933609 28656 net.cpp:94] Creating Layer ip1
I0501 00:27:09.933612 28656 net.cpp:435] ip1 <- pool5
I0501 00:27:09.933617 28656 net.cpp:409] ip1 -> ip1
I0501 00:27:09.947877 28656 net.cpp:144] Setting up ip1
I0501 00:27:09.947896 28656 net.cpp:151] Top shape: 20 1024 (20480)
I0501 00:27:09.947898 28656 net.cpp:159] Memory required for data: 3843120
I0501 00:27:09.947906 28656 layer_factory.hpp:77] Creating layer ip2
I0501 00:27:09.947913 28656 net.cpp:94] Creating Layer ip2
I0501 00:27:09.947918 28656 net.cpp:435] ip2 <- ip1
I0501 00:27:09.947923 28656 net.cpp:409] ip2 -> ip2
I0501 00:27:09.962141 28656 net.cpp:144] Setting up ip2
I0501 00:27:09.962158 28656 net.cpp:151] Top shape: 20 512 (10240)
I0501 00:27:09.962162 28656 net.cpp:159] Memory required for data: 3884080
I0501 00:27:09.962168 28656 layer_factory.hpp:77] Creating layer ip3
I0501 00:27:09.962178 28656 net.cpp:94] Creating Layer ip3
I0501 00:27:09.962183 28656 net.cpp:435] ip3 <- ip2
I0501 00:27:09.962188 28656 net.cpp:409] ip3 -> ip3
I0501 00:27:09.962999 28656 net.cpp:144] Setting up ip3
I0501 00:27:09.963007 28656 net.cpp:151] Top shape: 20 50 (1000)
I0501 00:27:09.963011 28656 net.cpp:159] Memory required for data: 3888080
I0501 00:27:09.963016 28656 layer_factory.hpp:77] Creating layer ip3_ip3_0_split
I0501 00:27:09.963022 28656 net.cpp:94] Creating Layer ip3_ip3_0_split
I0501 00:27:09.963026 28656 net.cpp:435] ip3_ip3_0_split <- ip3
I0501 00:27:09.963029 28656 net.cpp:409] ip3_ip3_0_split -> ip3_ip3_0_split_0
I0501 00:27:09.963037 28656 net.cpp:409] ip3_ip3_0_split -> ip3_ip3_0_split_1
I0501 00:27:09.963083 28656 net.cpp:144] Setting up ip3_ip3_0_split
I0501 00:27:09.963090 28656 net.cpp:151] Top shape: 20 50 (1000)
I0501 00:27:09.963094 28656 net.cpp:151] Top shape: 20 50 (1000)
I0501 00:27:09.963098 28656 net.cpp:159] Memory required for data: 3896080
I0501 00:27:09.963100 28656 layer_factory.hpp:77] Creating layer accuracy
I0501 00:27:09.963106 28656 net.cpp:94] Creating Layer accuracy
I0501 00:27:09.963109 28656 net.cpp:435] accuracy <- ip3_ip3_0_split_0
I0501 00:27:09.963114 28656 net.cpp:435] accuracy <- label_intercept_1_split_0
I0501 00:27:09.963119 28656 net.cpp:409] accuracy -> accuracy
…
