…
I0505 06:35:28.227012  4422 net.cpp:323] The NetState phase (0) differed from the phase (1) specified by a rule in layer intercept
I0505 06:35:28.227027  4422 net.cpp:323] The NetState phase (0) differed from the phase (1) specified by a rule in layer loss
I0505 06:35:28.227102  4422 net.cpp:52] Initializing net from parameters: 
state {
  phase: TRAIN
}
layer {
  name: "parameters"
  type: "HDF5Data"
  top: "data"
  top: "label"
  include {
    phase: TRAIN
  }
  hdf5_data_param {
    source: "/home/purduethu/scratch/radon/d/deng106/CNNStatisticalModel/distributions/input/50_distributions_400_sample_size_train-parameters-path.txt"
    batch_size: 20
  }
}
layer {
  name: "conv1"
  type: "Convolution"
  bottom: "data"
  top: "conv1"
  param {
    lr_mult: 1
  }
  param {
    lr_mult: 2
  }
  convolution_param {
    num_output: 64
    pad: 2
    kernel_size: 5
    stride: 1
    weight_filler {
      type: "gaussian"
      std: 0.0001
    }
    bias_filler {
      type: "constant"
    }
  }
}
layer {
  name: "relu1"
  type: "ReLU"
  bottom: "conv1"
  top: "conv1"
}
layer {
  name: "pool1"
  type: "Pooling"
  bottom: "conv1"
  top: "pool1"
  pooling_param {
    pool: MAX
    kernel_size: 3
    stride: 2
  }
}
layer {
  name: "conv2"
  type: "Convolution"
  bottom: "pool1"
  top: "conv2"
  param {
    lr_mult: 1
  }
  param {
    lr_mult: 2
  }
  convolution_param {
    num_output: 128
    pad: 2
    kernel_size: 5
    stride: 1
    weight_filler {
      type: "gaussian"
      std: 0.01
    }
    bias_filler {
      type: "constant"
    }
  }
}
layer {
  name: "relu2"
  type: "ReLU"
  bottom: "conv2"
  top: "conv2"
}
layer {
  name: "conv3"
  type: "Convolution"
  bottom: "conv2"
  top: "conv3"
  param {
    lr_mult: 1
  }
  param {
    lr_mult: 2
  }
  convolution_param {
    num_output: 128
    pad: 2
    kernel_size: 5
    stride: 1
    weight_filler {
      type: "gaussian"
      std: 0.01
    }
    bias_filler {
      type: "constant"
    }
  }
}
layer {
  name: "relu3"
  type: "ReLU"
  bottom: "conv3"
  top: "conv3"
}
layer {
  name: "pool3"
  type: "Pooling"
  bottom: "conv3"
  top: "pool3"
  pooling_param {
    pool: AVE
    kernel_size: 3
    stride: 2
  }
}
layer {
  name: "ip1"
  type: "InnerProduct"
  bottom: "pool3"
  top: "ip1"
  param {
    lr_mult: 1
  }
  param {
    lr_mult: 2
  }
  inner_product_param {
    num_output: 512
    weight_filler {
      type: "gaussian"
      std: 0.1
    }
    bias_filler {
      type: "constant"
    }
  }
}
layer {
  name: "ip2"
  type: "InnerProduct"
  bottom: "ip1"
  top: "ip2"
  param {
    lr_mult: 1
  }
  param {
    lr_mult: 2
  }
  inner_product_param {
    num_output: 256
    weight_filler {
      type: "gaussian"
      std: 0.1
    }
    bias_filler {
      type: "constant"
    }
  }
}
layer {
  name: "ip3"
  type: "InnerProduct"
  bottom: "ip2"
  top: "ip3"
  param {
    lr_mult: 1
  }
  param {
    lr_mult: 2
  }
  inner_product_param {
    num_output: 1
    weight_filler {
      type: "gaussian"
      std: 0.1
    }
    bias_filler {
      type: "constant"
    }
  }
}
layer {
  name: "loss"
  type: "HuberLoss"
  bottom: "ip3"
  bottom: "label"
  top: "loss"
  include {
    phase: TRAIN
  }
}
I0505 06:35:28.227164  4422 layer_factory.hpp:77] Creating layer parameters
I0505 06:35:28.227179  4422 net.cpp:94] Creating Layer parameters
I0505 06:35:28.227191  4422 net.cpp:409] parameters -> data
I0505 06:35:28.227211  4422 net.cpp:409] parameters -> label
I0505 06:35:28.227221  4422 hdf5_data_layer.cpp:79] Loading list of HDF5 filenames from: /home/purduethu/scratch/radon/d/deng106/CNNStatisticalModel/distributions/input/50_distributions_400_sample_size_train-parameters-path.txt
I0505 06:35:28.227243  4422 hdf5_data_layer.cpp:93] Number of HDF5 files: 1
I0505 06:35:28.227835  4422 hdf5.cpp:32] Datatype class: H5T_FLOAT
I0505 06:35:28.855114  4422 net.cpp:144] Setting up parameters
I0505 06:35:28.855147  4422 net.cpp:151] Top shape: 20 1 20 20 (8000)
I0505 06:35:28.855154  4422 net.cpp:151] Top shape: 20 (20)
I0505 06:35:28.855157  4422 net.cpp:159] Memory required for data: 32080
I0505 06:35:28.855165  4422 layer_factory.hpp:77] Creating layer conv1
I0505 06:35:28.855185  4422 net.cpp:94] Creating Layer conv1
I0505 06:35:28.855190  4422 net.cpp:435] conv1 <- data
I0505 06:35:28.855201  4422 net.cpp:409] conv1 -> conv1
I0505 06:35:28.859910  4422 net.cpp:144] Setting up conv1
I0505 06:35:28.859926  4422 net.cpp:151] Top shape: 20 64 20 20 (512000)
I0505 06:35:28.859930  4422 net.cpp:159] Memory required for data: 2080080
I0505 06:35:28.859942  4422 layer_factory.hpp:77] Creating layer relu1
I0505 06:35:28.859951  4422 net.cpp:94] Creating Layer relu1
I0505 06:35:28.859954  4422 net.cpp:435] relu1 <- conv1
I0505 06:35:28.859959  4422 net.cpp:396] relu1 -> conv1 (in-place)
I0505 06:35:28.859974  4422 net.cpp:144] Setting up relu1
I0505 06:35:28.859980  4422 net.cpp:151] Top shape: 20 64 20 20 (512000)
I0505 06:35:28.859983  4422 net.cpp:159] Memory required for data: 4128080
I0505 06:35:28.859987  4422 layer_factory.hpp:77] Creating layer pool1
I0505 06:35:28.859994  4422 net.cpp:94] Creating Layer pool1
I0505 06:35:28.859998  4422 net.cpp:435] pool1 <- conv1
I0505 06:35:28.860002  4422 net.cpp:409] pool1 -> pool1
I0505 06:35:28.860043  4422 net.cpp:144] Setting up pool1
I0505 06:35:28.860049  4422 net.cpp:151] Top shape: 20 64 10 10 (128000)
I0505 06:35:28.860054  4422 net.cpp:159] Memory required for data: 4640080
I0505 06:35:28.860056  4422 layer_factory.hpp:77] Creating layer conv2
I0505 06:35:28.860065  4422 net.cpp:94] Creating Layer conv2
I0505 06:35:28.860069  4422 net.cpp:435] conv2 <- pool1
I0505 06:35:28.860074  4422 net.cpp:409] conv2 -> conv2
I0505 06:35:28.870268  4422 net.cpp:144] Setting up conv2
I0505 06:35:28.870285  4422 net.cpp:151] Top shape: 20 128 10 10 (256000)
I0505 06:35:28.870288  4422 net.cpp:159] Memory required for data: 5664080
I0505 06:35:28.870296  4422 layer_factory.hpp:77] Creating layer relu2
I0505 06:35:28.870303  4422 net.cpp:94] Creating Layer relu2
I0505 06:35:28.870307  4422 net.cpp:435] relu2 <- conv2
I0505 06:35:28.870311  4422 net.cpp:396] relu2 -> conv2 (in-place)
I0505 06:35:28.870319  4422 net.cpp:144] Setting up relu2
I0505 06:35:28.870324  4422 net.cpp:151] Top shape: 20 128 10 10 (256000)
I0505 06:35:28.870327  4422 net.cpp:159] Memory required for data: 6688080
I0505 06:35:28.870331  4422 layer_factory.hpp:77] Creating layer conv3
I0505 06:35:28.870338  4422 net.cpp:94] Creating Layer conv3
I0505 06:35:28.870342  4422 net.cpp:435] conv3 <- conv2
I0505 06:35:28.870347  4422 net.cpp:409] conv3 -> conv3
I0505 06:35:28.887444  4422 net.cpp:144] Setting up conv3
I0505 06:35:28.887459  4422 net.cpp:151] Top shape: 20 128 10 10 (256000)
I0505 06:35:28.887464  4422 net.cpp:159] Memory required for data: 7712080
I0505 06:35:28.887472  4422 layer_factory.hpp:77] Creating layer relu3
I0505 06:35:28.887478  4422 net.cpp:94] Creating Layer relu3
I0505 06:35:28.887488  4422 net.cpp:435] relu3 <- conv3
I0505 06:35:28.887495  4422 net.cpp:396] relu3 -> conv3 (in-place)
I0505 06:35:28.887501  4422 net.cpp:144] Setting up relu3
I0505 06:35:28.887506  4422 net.cpp:151] Top shape: 20 128 10 10 (256000)
I0505 06:35:28.887509  4422 net.cpp:159] Memory required for data: 8736080
I0505 06:35:28.887513  4422 layer_factory.hpp:77] Creating layer pool3
I0505 06:35:28.887519  4422 net.cpp:94] Creating Layer pool3
I0505 06:35:28.887523  4422 net.cpp:435] pool3 <- conv3
I0505 06:35:28.887534  4422 net.cpp:409] pool3 -> pool3
I0505 06:35:28.887569  4422 net.cpp:144] Setting up pool3
I0505 06:35:28.887576  4422 net.cpp:151] Top shape: 20 128 5 5 (64000)
I0505 06:35:28.887580  4422 net.cpp:159] Memory required for data: 8992080
I0505 06:35:28.887584  4422 layer_factory.hpp:77] Creating layer ip1
I0505 06:35:28.887594  4422 net.cpp:94] Creating Layer ip1
I0505 06:35:28.887598  4422 net.cpp:435] ip1 <- pool3
I0505 06:35:28.887603  4422 net.cpp:409] ip1 -> ip1
I0505 06:35:28.926924  4422 net.cpp:144] Setting up ip1
I0505 06:35:28.926942  4422 net.cpp:151] Top shape: 20 512 (10240)
I0505 06:35:28.926946  4422 net.cpp:159] Memory required for data: 9033040
I0505 06:35:28.926954  4422 layer_factory.hpp:77] Creating layer ip2
I0505 06:35:28.926961  4422 net.cpp:94] Creating Layer ip2
I0505 06:35:28.926965  4422 net.cpp:435] ip2 <- ip1
I0505 06:35:28.926970  4422 net.cpp:409] ip2 -> ip2
I0505 06:35:28.930065  4422 net.cpp:144] Setting up ip2
I0505 06:35:28.930074  4422 net.cpp:151] Top shape: 20 256 (5120)
I0505 06:35:28.930078  4422 net.cpp:159] Memory required for data: 9053520
I0505 06:35:28.930085  4422 layer_factory.hpp:77] Creating layer ip3
I0505 06:35:28.930091  4422 net.cpp:94] Creating Layer ip3
I0505 06:35:28.930095  4422 net.cpp:435] ip3 <- ip2
I0505 06:35:28.930100  4422 net.cpp:409] ip3 -> ip3
I0505 06:35:28.930166  4422 net.cpp:144] Setting up ip3
I0505 06:35:28.930171  4422 net.cpp:151] Top shape: 20 1 (20)
I0505 06:35:28.930174  4422 net.cpp:159] Memory required for data: 9053600
I0505 06:35:28.930181  4422 layer_factory.hpp:77] Creating layer loss
I0505 06:35:28.930191  4422 net.cpp:94] Creating Layer loss
I0505 06:35:28.930194  4422 net.cpp:435] loss <- ip3
I0505 06:35:28.930198  4422 net.cpp:435] loss <- label
I0505 06:35:28.930203  4422 net.cpp:409] loss -> loss
I0505 06:35:28.930238  4422 net.cpp:144] Setting up loss
…
