…
I0507 00:26:18.787288 30118 net.cpp:323] The NetState phase (0) differed from the phase (1) specified by a rule in layer intercept
I0507 00:26:18.787305 30118 net.cpp:323] The NetState phase (0) differed from the phase (1) specified by a rule in layer loss
I0507 00:26:18.787385 30118 net.cpp:52] Initializing net from parameters: 
state {
  phase: TRAIN
}
layer {
  name: "parameters"
  type: "HDF5Data"
  top: "data"
  top: "label"
  include {
    phase: TRAIN
  }
  hdf5_data_param {
    source: "/home/purduethu/scratch/radon/d/deng106/CNNStatisticalModel/distributions/input/50_distributions_100_sample_size_train-parameters-path.txt"
    batch_size: 20
  }
}
layer {
  name: "conv1"
  type: "Convolution"
  bottom: "data"
  top: "conv1"
  param {
    lr_mult: 1
  }
  param {
    lr_mult: 2
  }
  convolution_param {
    num_output: 64
    pad: 2
    kernel_size: 5
    stride: 1
    weight_filler {
      type: "gaussian"
      std: 0.0001
    }
    bias_filler {
      type: "constant"
    }
  }
}
layer {
  name: "relu1"
  type: "ReLU"
  bottom: "conv1"
  top: "conv1"
}
layer {
  name: "conv2"
  type: "Convolution"
  bottom: "conv1"
  top: "conv2"
  param {
    lr_mult: 1
  }
  param {
    lr_mult: 2
  }
  convolution_param {
    num_output: 64
    pad: 2
    kernel_size: 5
    stride: 1
    weight_filler {
      type: "gaussian"
      std: 0.01
    }
    bias_filler {
      type: "constant"
    }
  }
}
layer {
  name: "relu2"
  type: "ReLU"
  bottom: "conv2"
  top: "conv2"
}
layer {
  name: "pool2"
  type: "Pooling"
  bottom: "conv2"
  top: "pool2"
  pooling_param {
    pool: MAX
    kernel_size: 3
    stride: 2
  }
}
layer {
  name: "conv3"
  type: "Convolution"
  bottom: "pool2"
  top: "conv3"
  param {
    lr_mult: 1
  }
  param {
    lr_mult: 2
  }
  convolution_param {
    num_output: 64
    pad: 2
    kernel_size: 5
    stride: 1
    weight_filler {
      type: "gaussian"
      std: 0.01
    }
    bias_filler {
      type: "constant"
    }
  }
}
layer {
  name: "relu3"
  type: "ReLU"
  bottom: "conv3"
  top: "conv3"
}
layer {
  name: "conv4"
  type: "Convolution"
  bottom: "conv3"
  top: "conv4"
  param {
    lr_mult: 1
  }
  param {
    lr_mult: 2
  }
  convolution_param {
    num_output: 64
    pad: 2
    kernel_size: 5
    stride: 1
    weight_filler {
      type: "gaussian"
      std: 0.01
    }
    bias_filler {
      type: "constant"
    }
  }
}
layer {
  name: "relu4"
  type: "ReLU"
  bottom: "conv4"
  top: "conv4"
}
layer {
  name: "conv5"
  type: "Convolution"
  bottom: "conv4"
  top: "conv5"
  param {
    lr_mult: 1
  }
  param {
    lr_mult: 2
  }
  convolution_param {
    num_output: 64
    pad: 2
    kernel_size: 5
    stride: 1
    weight_filler {
      type: "gaussian"
      std: 0.01
    }
    bias_filler {
      type: "constant"
    }
  }
}
layer {
  name: "relu5"
  type: "ReLU"
  bottom: "conv5"
  top: "conv5"
}
layer {
  name: "pool5"
  type: "Pooling"
  bottom: "conv5"
  top: "pool5"
  pooling_param {
    pool: AVE
    kernel_size: 3
    stride: 2
  }
}
layer {
  name: "ip1"
  type: "InnerProduct"
  bottom: "pool5"
  top: "ip1"
  param {
    lr_mult: 1
  }
  param {
    lr_mult: 2
  }
  inner_product_param {
    num_output: 64
    weight_filler {
      type: "gaussian"
      std: 0.1
    }
    bias_filler {
      type: "constant"
    }
  }
}
layer {
  name: "ip2"
  type: "InnerProduct"
  bottom: "ip1"
  top: "ip2"
  param {
    lr_mult: 1
  }
  param {
    lr_mult: 2
  }
  inner_product_param {
    num_output: 64
    weight_filler {
      type: "gaussian"
      std: 0.1
    }
    bias_filler {
      type: "constant"
    }
  }
}
layer {
  name: "ip3"
  type: "InnerProduct"
  bottom: "ip2"
  top: "ip3"
  param {
    lr_mult: 1
  }
  param {
    lr_mult: 2
  }
  inner_product_param {
    num_output: 1
    weight_filler {
      type: "gaussian"
      std: 0.1
    }
    bias_filler {
      type: "constant"
    }
  }
}
layer {
  name: "loss"
  type: "HuberLoss"
  bottom: "ip3"
  bottom: "label"
  top: "loss"
  include {
    phase: TRAIN
  }
}
I0507 00:26:18.787439 30118 layer_factory.hpp:77] Creating layer parameters
I0507 00:26:18.787456 30118 net.cpp:94] Creating Layer parameters
I0507 00:26:18.787461 30118 net.cpp:409] parameters -> data
I0507 00:26:18.787469 30118 net.cpp:409] parameters -> label
I0507 00:26:18.787475 30118 hdf5_data_layer.cpp:79] Loading list of HDF5 filenames from: /home/purduethu/scratch/radon/d/deng106/CNNStatisticalModel/distributions/input/50_distributions_100_sample_size_train-parameters-path.txt
I0507 00:26:18.787490 30118 hdf5_data_layer.cpp:93] Number of HDF5 files: 1
I0507 00:26:18.788041 30118 hdf5.cpp:32] Datatype class: H5T_FLOAT
I0507 00:26:18.949348 30118 net.cpp:144] Setting up parameters
I0507 00:26:18.949378 30118 net.cpp:151] Top shape: 20 1 10 10 (2000)
I0507 00:26:18.949383 30118 net.cpp:151] Top shape: 20 (20)
I0507 00:26:18.949386 30118 net.cpp:159] Memory required for data: 8080
I0507 00:26:18.949393 30118 layer_factory.hpp:77] Creating layer conv1
I0507 00:26:18.949407 30118 net.cpp:94] Creating Layer conv1
I0507 00:26:18.949411 30118 net.cpp:435] conv1 <- data
I0507 00:26:18.949419 30118 net.cpp:409] conv1 -> conv1
I0507 00:26:18.953521 30118 net.cpp:144] Setting up conv1
I0507 00:26:18.953534 30118 net.cpp:151] Top shape: 20 64 10 10 (128000)
I0507 00:26:18.953538 30118 net.cpp:159] Memory required for data: 520080
I0507 00:26:18.953548 30118 layer_factory.hpp:77] Creating layer relu1
I0507 00:26:18.953555 30118 net.cpp:94] Creating Layer relu1
I0507 00:26:18.953559 30118 net.cpp:435] relu1 <- conv1
I0507 00:26:18.953563 30118 net.cpp:396] relu1 -> conv1 (in-place)
I0507 00:26:18.953570 30118 net.cpp:144] Setting up relu1
I0507 00:26:18.953575 30118 net.cpp:151] Top shape: 20 64 10 10 (128000)
I0507 00:26:18.953577 30118 net.cpp:159] Memory required for data: 1032080
I0507 00:26:18.953580 30118 layer_factory.hpp:77] Creating layer conv2
I0507 00:26:18.953588 30118 net.cpp:94] Creating Layer conv2
I0507 00:26:18.953591 30118 net.cpp:435] conv2 <- conv1
I0507 00:26:18.953595 30118 net.cpp:409] conv2 -> conv2
I0507 00:26:18.959578 30118 net.cpp:144] Setting up conv2
I0507 00:26:18.959592 30118 net.cpp:151] Top shape: 20 64 10 10 (128000)
I0507 00:26:18.959595 30118 net.cpp:159] Memory required for data: 1544080
I0507 00:26:18.959604 30118 layer_factory.hpp:77] Creating layer relu2
I0507 00:26:18.959609 30118 net.cpp:94] Creating Layer relu2
I0507 00:26:18.959614 30118 net.cpp:435] relu2 <- conv2
I0507 00:26:18.959617 30118 net.cpp:396] relu2 -> conv2 (in-place)
I0507 00:26:18.959625 30118 net.cpp:144] Setting up relu2
I0507 00:26:18.959628 30118 net.cpp:151] Top shape: 20 64 10 10 (128000)
I0507 00:26:18.959631 30118 net.cpp:159] Memory required for data: 2056080
I0507 00:26:18.959635 30118 layer_factory.hpp:77] Creating layer pool2
I0507 00:26:18.959640 30118 net.cpp:94] Creating Layer pool2
I0507 00:26:18.959642 30118 net.cpp:435] pool2 <- conv2
I0507 00:26:18.959646 30118 net.cpp:409] pool2 -> pool2
I0507 00:26:18.959699 30118 net.cpp:144] Setting up pool2
I0507 00:26:18.959707 30118 net.cpp:151] Top shape: 20 64 5 5 (32000)
I0507 00:26:18.959709 30118 net.cpp:159] Memory required for data: 2184080
I0507 00:26:18.959712 30118 layer_factory.hpp:77] Creating layer conv3
I0507 00:26:18.959720 30118 net.cpp:94] Creating Layer conv3
I0507 00:26:18.959723 30118 net.cpp:435] conv3 <- pool2
I0507 00:26:18.959734 30118 net.cpp:409] conv3 -> conv3
I0507 00:26:18.964592 30118 net.cpp:144] Setting up conv3
I0507 00:26:18.964607 30118 net.cpp:151] Top shape: 20 64 5 5 (32000)
I0507 00:26:18.964609 30118 net.cpp:159] Memory required for data: 2312080
I0507 00:26:18.964618 30118 layer_factory.hpp:77] Creating layer relu3
I0507 00:26:18.964624 30118 net.cpp:94] Creating Layer relu3
I0507 00:26:18.964627 30118 net.cpp:435] relu3 <- conv3
I0507 00:26:18.964632 30118 net.cpp:396] relu3 -> conv3 (in-place)
I0507 00:26:18.964638 30118 net.cpp:144] Setting up relu3
I0507 00:26:18.964643 30118 net.cpp:151] Top shape: 20 64 5 5 (32000)
I0507 00:26:18.964645 30118 net.cpp:159] Memory required for data: 2440080
I0507 00:26:18.964648 30118 layer_factory.hpp:77] Creating layer conv4
I0507 00:26:18.964656 30118 net.cpp:94] Creating Layer conv4
I0507 00:26:18.964659 30118 net.cpp:435] conv4 <- conv3
I0507 00:26:18.964664 30118 net.cpp:409] conv4 -> conv4
I0507 00:26:18.969034 30118 net.cpp:144] Setting up conv4
I0507 00:26:18.969048 30118 net.cpp:151] Top shape: 20 64 5 5 (32000)
I0507 00:26:18.969051 30118 net.cpp:159] Memory required for data: 2568080
I0507 00:26:18.969058 30118 layer_factory.hpp:77] Creating layer relu4
I0507 00:26:18.969063 30118 net.cpp:94] Creating Layer relu4
I0507 00:26:18.969066 30118 net.cpp:435] relu4 <- conv4
I0507 00:26:18.969070 30118 net.cpp:396] relu4 -> conv4 (in-place)
I0507 00:26:18.969077 30118 net.cpp:144] Setting up relu4
I0507 00:26:18.969081 30118 net.cpp:151] Top shape: 20 64 5 5 (32000)
I0507 00:26:18.969084 30118 net.cpp:159] Memory required for data: 2696080
I0507 00:26:18.969087 30118 layer_factory.hpp:77] Creating layer conv5
I0507 00:26:18.969094 30118 net.cpp:94] Creating Layer conv5
I0507 00:26:18.969097 30118 net.cpp:435] conv5 <- conv4
I0507 00:26:18.969102 30118 net.cpp:409] conv5 -> conv5
I0507 00:26:18.973930 30118 net.cpp:144] Setting up conv5
I0507 00:26:18.973944 30118 net.cpp:151] Top shape: 20 64 5 5 (32000)
I0507 00:26:18.973948 30118 net.cpp:159] Memory required for data: 2824080
I0507 00:26:18.973955 30118 layer_factory.hpp:77] Creating layer relu5
I0507 00:26:18.973961 30118 net.cpp:94] Creating Layer relu5
I0507 00:26:18.973965 30118 net.cpp:435] relu5 <- conv5
I0507 00:26:18.973969 30118 net.cpp:396] relu5 -> conv5 (in-place)
I0507 00:26:18.973976 30118 net.cpp:144] Setting up relu5
I0507 00:26:18.973980 30118 net.cpp:151] Top shape: 20 64 5 5 (32000)
I0507 00:26:18.973983 30118 net.cpp:159] Memory required for data: 2952080
I0507 00:26:18.973985 30118 layer_factory.hpp:77] Creating layer pool5
I0507 00:26:18.973990 30118 net.cpp:94] Creating Layer pool5
I0507 00:26:18.973994 30118 net.cpp:435] pool5 <- conv5
I0507 00:26:18.973997 30118 net.cpp:409] pool5 -> pool5
I0507 00:26:18.974035 30118 net.cpp:144] Setting up pool5
I0507 00:26:18.974041 30118 net.cpp:151] Top shape: 20 64 2 2 (5120)
I0507 00:26:18.974045 30118 net.cpp:159] Memory required for data: 2972560
I0507 00:26:18.974047 30118 layer_factory.hpp:77] Creating layer ip1
I0507 00:26:18.974056 30118 net.cpp:94] Creating Layer ip1
I0507 00:26:18.974059 30118 net.cpp:435] ip1 <- pool5
I0507 00:26:18.974064 30118 net.cpp:409] ip1 -> ip1
I0507 00:26:18.975353 30118 net.cpp:144] Setting up ip1
I0507 00:26:18.975364 30118 net.cpp:151] Top shape: 20 64 (1280)
I0507 00:26:18.975368 30118 net.cpp:159] Memory required for data: 2977680
I0507 00:26:18.975374 30118 layer_factory.hpp:77] Creating layer ip2
I0507 00:26:18.975380 30118 net.cpp:94] Creating Layer ip2
I0507 00:26:18.975384 30118 net.cpp:435] ip2 <- ip1
I0507 00:26:18.975389 30118 net.cpp:409] ip2 -> ip2
I0507 00:26:18.975594 30118 net.cpp:144] Setting up ip2
I0507 00:26:18.975600 30118 net.cpp:151] Top shape: 20 64 (1280)
I0507 00:26:18.975603 30118 net.cpp:159] Memory required for data: 2982800
I0507 00:26:18.975608 30118 layer_factory.hpp:77] Creating layer ip3
I0507 00:26:18.975615 30118 net.cpp:94] Creating Layer ip3
I0507 00:26:18.975617 30118 net.cpp:435] ip3 <- ip2
I0507 00:26:18.975621 30118 net.cpp:409] ip3 -> ip3
I0507 00:26:18.975726 30118 net.cpp:144] Setting up ip3
I0507 00:26:18.975733 30118 net.cpp:151] Top shape: 20 1 (20)
I0507 00:26:18.975736 30118 net.cpp:159] Memory required for data: 2982880
I0507 00:26:18.975741 30118 layer_factory.hpp:77] Creating layer loss
I0507 00:26:18.975752 30118 net.cpp:94] Creating Layer loss
I0507 00:26:18.975755 30118 net.cpp:435] loss <- ip3
I0507 00:26:18.975759 30118 net.cpp:435] loss <- label
I0507 00:26:18.975764 30118 net.cpp:409] loss -> loss
I0507 00:26:18.975811 30118 net.cpp:144] Setting up loss
…
I0507 00:26:19.036689 30118 net.cpp:323] The NetState phase (0) differed from the phase (1) specified by a rule in layer intercept
I0507 00:26:19.036706 30118 net.cpp:323] The NetState phase (0) differed from the phase (1) specified by a rule in layer accuracy
I0507 00:26:19.036793 30118 net.cpp:52] Initializing net from parameters: 
state {
  phase: TRAIN
}
layer {
  name: "parameters"
  type: "HDF5Data"
  top: "data"
  top: "label"
  include {
    phase: TRAIN
  }
  hdf5_data_param {
    source: "/home/purduethu/scratch/radon/d/deng106/CNNStatisticalModel/distributions/input/50_distributions_100_sample_size_train-distributions-path.txt"
    batch_size: 20
  }
}
layer {
  name: "conv1"
  type: "Convolution"
  bottom: "data"
  top: "conv1"
  param {
    lr_mult: 1
  }
  param {
    lr_mult: 2
  }
  convolution_param {
    num_output: 64
    pad: 2
    kernel_size: 5
    stride: 1
    weight_filler {
      type: "gaussian"
      std: 0.0001
    }
    bias_filler {
      type: "constant"
    }
  }
}
layer {
  name: "relu1"
  type: "ReLU"
  bottom: "conv1"
  top: "conv1"
}
layer {
  name: "conv2"
  type: "Convolution"
  bottom: "conv1"
  top: "conv2"
  param {
    lr_mult: 1
  }
  param {
    lr_mult: 2
  }
  convolution_param {
    num_output: 64
    pad: 2
    kernel_size: 5
    stride: 1
    weight_filler {
      type: "gaussian"
      std: 0.01
    }
    bias_filler {
      type: "constant"
    }
  }
}
layer {
  name: "relu2"
  type: "ReLU"
  bottom: "conv2"
  top: "conv2"
}
layer {
  name: "pool2"
  type: "Pooling"
  bottom: "conv2"
  top: "pool2"
  pooling_param {
    pool: MAX
    kernel_size: 3
    stride: 2
  }
}
layer {
  name: "conv3"
  type: "Convolution"
  bottom: "pool2"
  top: "conv3"
  param {
    lr_mult: 1
  }
  param {
    lr_mult: 2
  }
  convolution_param {
    num_output: 64
    pad: 2
    kernel_size: 5
    stride: 1
    weight_filler {
      type: "gaussian"
      std: 0.01
    }
    bias_filler {
      type: "constant"
    }
  }
}
layer {
  name: "relu3"
  type: "ReLU"
  bottom: "conv3"
  top: "conv3"
}
layer {
  name: "conv4"
  type: "Convolution"
  bottom: "conv3"
  top: "conv4"
  param {
    lr_mult: 1
  }
  param {
    lr_mult: 2
  }
  convolution_param {
    num_output: 64
    pad: 2
    kernel_size: 5
    stride: 1
    weight_filler {
      type: "gaussian"
      std: 0.01
    }
    bias_filler {
      type: "constant"
    }
  }
}
layer {
  name: "relu4"
  type: "ReLU"
  bottom: "conv4"
  top: "conv4"
}
layer {
  name: "conv5"
  type: "Convolution"
  bottom: "conv4"
  top: "conv5"
  param {
    lr_mult: 1
  }
  param {
    lr_mult: 2
  }
  convolution_param {
    num_output: 64
    pad: 2
    kernel_size: 5
    stride: 1
    weight_filler {
      type: "gaussian"
      std: 0.01
    }
    bias_filler {
      type: "constant"
    }
  }
}
layer {
  name: "relu5"
  type: "ReLU"
  bottom: "conv5"
  top: "conv5"
}
layer {
  name: "pool5"
  type: "Pooling"
  bottom: "conv5"
  top: "pool5"
  pooling_param {
    pool: AVE
    kernel_size: 3
    stride: 2
  }
}
layer {
  name: "ip1"
  type: "InnerProduct"
  bottom: "pool5"
  top: "ip1"
  param {
    lr_mult: 1
  }
  param {
    lr_mult: 2
  }
  inner_product_param {
    num_output: 64
    weight_filler {
      type: "gaussian"
      std: 0.1
    }
    bias_filler {
      type: "constant"
    }
  }
}
layer {
  name: "ip2"
  type: "InnerProduct"
  bottom: "ip1"
  top: "ip2"
  param {
    lr_mult: 1
  }
  param {
    lr_mult: 2
  }
  inner_product_param {
    num_output: 64
    weight_filler {
      type: "gaussian"
      std: 0.1
    }
    bias_filler {
      type: "constant"
    }
  }
}
layer {
  name: "ip3"
  type: "InnerProduct"
  bottom: "ip2"
  top: "ip3"
  param {
    lr_mult: 1
  }
  param {
    lr_mult: 2
  }
  inner_product_param {
    num_output: 50
    weight_filler {
      type: "gaussian"
      std: 0.1
    }
    bias_filler {
      type: "constant"
    }
  }
}
layer {
  name: "loss"
  type: "SoftmaxWithLoss"
  bottom: "ip3"
  bottom: "label"
  top: "loss"
}
I0507 00:26:19.036844 30118 layer_factory.hpp:77] Creating layer parameters
I0507 00:26:19.036852 30118 net.cpp:94] Creating Layer parameters
I0507 00:26:19.036855 30118 net.cpp:409] parameters -> data
I0507 00:26:19.036862 30118 net.cpp:409] parameters -> label
I0507 00:26:19.036867 30118 hdf5_data_layer.cpp:79] Loading list of HDF5 filenames from: /home/purduethu/scratch/radon/d/deng106/CNNStatisticalModel/distributions/input/50_distributions_100_sample_size_train-distributions-path.txt
I0507 00:26:19.036893 30118 hdf5_data_layer.cpp:93] Number of HDF5 files: 1
I0507 00:26:19.191519 30118 hdf5.cpp:35] Datatype class: H5T_INTEGER
I0507 00:26:19.194517 30118 net.cpp:144] Setting up parameters
I0507 00:26:19.194535 30118 net.cpp:151] Top shape: 20 1 10 10 (2000)
I0507 00:26:19.194540 30118 net.cpp:151] Top shape: 20 (20)
I0507 00:26:19.194543 30118 net.cpp:159] Memory required for data: 8080
I0507 00:26:19.194548 30118 layer_factory.hpp:77] Creating layer conv1
I0507 00:26:19.194564 30118 net.cpp:94] Creating Layer conv1
I0507 00:26:19.194568 30118 net.cpp:435] conv1 <- data
I0507 00:26:19.194574 30118 net.cpp:409] conv1 -> conv1
I0507 00:26:19.196322 30118 net.cpp:144] Setting up conv1
I0507 00:26:19.196336 30118 net.cpp:151] Top shape: 20 64 10 10 (128000)
I0507 00:26:19.196339 30118 net.cpp:159] Memory required for data: 520080
I0507 00:26:19.196349 30118 layer_factory.hpp:77] Creating layer relu1
I0507 00:26:19.196357 30118 net.cpp:94] Creating Layer relu1
I0507 00:26:19.196360 30118 net.cpp:435] relu1 <- conv1
I0507 00:26:19.196364 30118 net.cpp:396] relu1 -> conv1 (in-place)
I0507 00:26:19.196372 30118 net.cpp:144] Setting up relu1
I0507 00:26:19.196375 30118 net.cpp:151] Top shape: 20 64 10 10 (128000)
I0507 00:26:19.196378 30118 net.cpp:159] Memory required for data: 1032080
I0507 00:26:19.196382 30118 layer_factory.hpp:77] Creating layer conv2
I0507 00:26:19.196388 30118 net.cpp:94] Creating Layer conv2
I0507 00:26:19.196391 30118 net.cpp:435] conv2 <- conv1
I0507 00:26:19.196396 30118 net.cpp:409] conv2 -> conv2
I0507 00:26:19.201689 30118 net.cpp:144] Setting up conv2
I0507 00:26:19.201704 30118 net.cpp:151] Top shape: 20 64 10 10 (128000)
I0507 00:26:19.201707 30118 net.cpp:159] Memory required for data: 1544080
I0507 00:26:19.201714 30118 layer_factory.hpp:77] Creating layer relu2
I0507 00:26:19.201721 30118 net.cpp:94] Creating Layer relu2
I0507 00:26:19.201725 30118 net.cpp:435] relu2 <- conv2
I0507 00:26:19.201730 30118 net.cpp:396] relu2 -> conv2 (in-place)
I0507 00:26:19.201735 30118 net.cpp:144] Setting up relu2
I0507 00:26:19.201740 30118 net.cpp:151] Top shape: 20 64 10 10 (128000)
I0507 00:26:19.201742 30118 net.cpp:159] Memory required for data: 2056080
I0507 00:26:19.201745 30118 layer_factory.hpp:77] Creating layer pool2
I0507 00:26:19.201750 30118 net.cpp:94] Creating Layer pool2
I0507 00:26:19.201753 30118 net.cpp:435] pool2 <- conv2
I0507 00:26:19.201757 30118 net.cpp:409] pool2 -> pool2
I0507 00:26:19.201807 30118 net.cpp:144] Setting up pool2
I0507 00:26:19.201814 30118 net.cpp:151] Top shape: 20 64 5 5 (32000)
I0507 00:26:19.201817 30118 net.cpp:159] Memory required for data: 2184080
I0507 00:26:19.201820 30118 layer_factory.hpp:77] Creating layer conv3
I0507 00:26:19.201828 30118 net.cpp:94] Creating Layer conv3
I0507 00:26:19.201830 30118 net.cpp:435] conv3 <- pool2
I0507 00:26:19.201834 30118 net.cpp:409] conv3 -> conv3
I0507 00:26:19.207464 30118 net.cpp:144] Setting up conv3
I0507 00:26:19.207479 30118 net.cpp:151] Top shape: 20 64 5 5 (32000)
I0507 00:26:19.207481 30118 net.cpp:159] Memory required for data: 2312080
I0507 00:26:19.207490 30118 layer_factory.hpp:77] Creating layer relu3
I0507 00:26:19.207495 30118 net.cpp:94] Creating Layer relu3
I0507 00:26:19.207499 30118 net.cpp:435] relu3 <- conv3
I0507 00:26:19.207504 30118 net.cpp:396] relu3 -> conv3 (in-place)
I0507 00:26:19.207510 30118 net.cpp:144] Setting up relu3
I0507 00:26:19.207515 30118 net.cpp:151] Top shape: 20 64 5 5 (32000)
I0507 00:26:19.207522 30118 net.cpp:159] Memory required for data: 2440080
I0507 00:26:19.207526 30118 layer_factory.hpp:77] Creating layer conv4
I0507 00:26:19.207535 30118 net.cpp:94] Creating Layer conv4
I0507 00:26:19.207537 30118 net.cpp:435] conv4 <- conv3
I0507 00:26:19.207542 30118 net.cpp:409] conv4 -> conv4
I0507 00:26:19.212389 30118 net.cpp:144] Setting up conv4
I0507 00:26:19.212404 30118 net.cpp:151] Top shape: 20 64 5 5 (32000)
I0507 00:26:19.212406 30118 net.cpp:159] Memory required for data: 2568080
I0507 00:26:19.212412 30118 layer_factory.hpp:77] Creating layer relu4
I0507 00:26:19.212419 30118 net.cpp:94] Creating Layer relu4
I0507 00:26:19.212422 30118 net.cpp:435] relu4 <- conv4
I0507 00:26:19.212426 30118 net.cpp:396] relu4 -> conv4 (in-place)
I0507 00:26:19.212432 30118 net.cpp:144] Setting up relu4
I0507 00:26:19.212436 30118 net.cpp:151] Top shape: 20 64 5 5 (32000)
I0507 00:26:19.212440 30118 net.cpp:159] Memory required for data: 2696080
I0507 00:26:19.212442 30118 layer_factory.hpp:77] Creating layer conv5
I0507 00:26:19.212450 30118 net.cpp:94] Creating Layer conv5
I0507 00:26:19.212453 30118 net.cpp:435] conv5 <- conv4
I0507 00:26:19.212458 30118 net.cpp:409] conv5 -> conv5
I0507 00:26:19.216891 30118 net.cpp:144] Setting up conv5
I0507 00:26:19.216903 30118 net.cpp:151] Top shape: 20 64 5 5 (32000)
I0507 00:26:19.216907 30118 net.cpp:159] Memory required for data: 2824080
I0507 00:26:19.216914 30118 layer_factory.hpp:77] Creating layer relu5
I0507 00:26:19.216920 30118 net.cpp:94] Creating Layer relu5
I0507 00:26:19.216924 30118 net.cpp:435] relu5 <- conv5
I0507 00:26:19.216928 30118 net.cpp:396] relu5 -> conv5 (in-place)
I0507 00:26:19.216934 30118 net.cpp:144] Setting up relu5
I0507 00:26:19.216938 30118 net.cpp:151] Top shape: 20 64 5 5 (32000)
I0507 00:26:19.216941 30118 net.cpp:159] Memory required for data: 2952080
I0507 00:26:19.216944 30118 layer_factory.hpp:77] Creating layer pool5
I0507 00:26:19.216949 30118 net.cpp:94] Creating Layer pool5
I0507 00:26:19.216953 30118 net.cpp:435] pool5 <- conv5
I0507 00:26:19.216956 30118 net.cpp:409] pool5 -> pool5
I0507 00:26:19.216989 30118 net.cpp:144] Setting up pool5
I0507 00:26:19.216996 30118 net.cpp:151] Top shape: 20 64 2 2 (5120)
I0507 00:26:19.217000 30118 net.cpp:159] Memory required for data: 2972560
I0507 00:26:19.217002 30118 layer_factory.hpp:77] Creating layer ip1
I0507 00:26:19.217008 30118 net.cpp:94] Creating Layer ip1
I0507 00:26:19.217011 30118 net.cpp:435] ip1 <- pool5
I0507 00:26:19.217016 30118 net.cpp:409] ip1 -> ip1
I0507 00:26:19.217522 30118 net.cpp:144] Setting up ip1
I0507 00:26:19.217530 30118 net.cpp:151] Top shape: 20 64 (1280)
I0507 00:26:19.217533 30118 net.cpp:159] Memory required for data: 2977680
I0507 00:26:19.217538 30118 layer_factory.hpp:77] Creating layer ip2
I0507 00:26:19.217543 30118 net.cpp:94] Creating Layer ip2
I0507 00:26:19.217547 30118 net.cpp:435] ip2 <- ip1
I0507 00:26:19.217551 30118 net.cpp:409] ip2 -> ip2
I0507 00:26:19.217762 30118 net.cpp:144] Setting up ip2
I0507 00:26:19.217769 30118 net.cpp:151] Top shape: 20 64 (1280)
I0507 00:26:19.217772 30118 net.cpp:159] Memory required for data: 2982800
I0507 00:26:19.217777 30118 layer_factory.hpp:77] Creating layer ip3
I0507 00:26:19.217782 30118 net.cpp:94] Creating Layer ip3
I0507 00:26:19.217785 30118 net.cpp:435] ip3 <- ip2
I0507 00:26:19.217790 30118 net.cpp:409] ip3 -> ip3
I0507 00:26:19.217975 30118 net.cpp:144] Setting up ip3
I0507 00:26:19.217981 30118 net.cpp:151] Top shape: 20 50 (1000)
I0507 00:26:19.217984 30118 net.cpp:159] Memory required for data: 2986800
I0507 00:26:19.217989 30118 layer_factory.hpp:77] Creating layer loss
I0507 00:26:19.217995 30118 net.cpp:94] Creating Layer loss
I0507 00:26:19.217998 30118 net.cpp:435] loss <- ip3
I0507 00:26:19.218003 30118 net.cpp:435] loss <- label
I0507 00:26:19.218006 30118 net.cpp:409] loss -> loss
I0507 00:26:19.218013 30118 layer_factory.hpp:77] Creating layer loss
…
I0507 00:26:19.219329 30118 solver.cpp:181] Creating test net (#0) specified by net file: ./protocol/dis_50_100_dimension.protocol_distribution
I0507 00:26:19.219355 30118 net.cpp:323] The NetState phase (1) differed from the phase (0) specified by a rule in layer parameters
I0507 00:26:19.219449 30118 net.cpp:52] Initializing net from parameters: 
state {
  phase: TEST
}
layer {
  name: "intercept"
  type: "HDF5Data"
  top: "data"
  top: "label"
  include {
    phase: TEST
  }
  hdf5_data_param {
    source: "/home/purduethu/scratch/radon/d/deng106/CNNStatisticalModel/distributions/input/50_distributions_100_sample_size_test-distributions-path.txt"
    batch_size: 20
  }
}
layer {
  name: "conv1"
  type: "Convolution"
  bottom: "data"
  top: "conv1"
  param {
    lr_mult: 1
  }
  param {
    lr_mult: 2
  }
  convolution_param {
    num_output: 64
    pad: 2
    kernel_size: 5
    stride: 1
    weight_filler {
      type: "gaussian"
      std: 0.0001
    }
    bias_filler {
      type: "constant"
    }
  }
}
layer {
  name: "relu1"
  type: "ReLU"
  bottom: "conv1"
  top: "conv1"
}
layer {
  name: "conv2"
  type: "Convolution"
  bottom: "conv1"
  top: "conv2"
  param {
    lr_mult: 1
  }
  param {
    lr_mult: 2
  }
  convolution_param {
    num_output: 64
    pad: 2
    kernel_size: 5
    stride: 1
    weight_filler {
      type: "gaussian"
      std: 0.01
    }
    bias_filler {
      type: "constant"
    }
  }
}
layer {
  name: "relu2"
  type: "ReLU"
  bottom: "conv2"
  top: "conv2"
}
layer {
  name: "pool2"
  type: "Pooling"
  bottom: "conv2"
  top: "pool2"
  pooling_param {
    pool: MAX
    kernel_size: 3
    stride: 2
  }
}
layer {
  name: "conv3"
  type: "Convolution"
  bottom: "pool2"
  top: "conv3"
  param {
    lr_mult: 1
  }
  param {
    lr_mult: 2
  }
  convolution_param {
    num_output: 64
    pad: 2
    kernel_size: 5
    stride: 1
    weight_filler {
      type: "gaussian"
      std: 0.01
    }
    bias_filler {
      type: "constant"
    }
  }
}
layer {
  name: "relu3"
  type: "ReLU"
  bottom: "conv3"
  top: "conv3"
}
layer {
  name: "conv4"
  type: "Convolution"
  bottom: "conv3"
  top: "conv4"
  param {
    lr_mult: 1
  }
  param {
    lr_mult: 2
  }
  convolution_param {
    num_output: 64
    pad: 2
    kernel_size: 5
    stride: 1
    weight_filler {
      type: "gaussian"
      std: 0.01
    }
    bias_filler {
      type: "constant"
    }
  }
}
layer {
  name: "relu4"
  type: "ReLU"
  bottom: "conv4"
  top: "conv4"
}
layer {
  name: "conv5"
  type: "Convolution"
  bottom: "conv4"
  top: "conv5"
  param {
    lr_mult: 1
  }
  param {
    lr_mult: 2
  }
  convolution_param {
    num_output: 64
    pad: 2
    kernel_size: 5
    stride: 1
    weight_filler {
      type: "gaussian"
      std: 0.01
    }
    bias_filler {
      type: "constant"
    }
  }
}
layer {
  name: "relu5"
  type: "ReLU"
  bottom: "conv5"
  top: "conv5"
}
layer {
  name: "pool5"
  type: "Pooling"
  bottom: "conv5"
  top: "pool5"
  pooling_param {
    pool: AVE
    kernel_size: 3
    stride: 2
  }
}
layer {
  name: "ip1"
  type: "InnerProduct"
  bottom: "pool5"
  top: "ip1"
  param {
    lr_mult: 1
  }
  param {
    lr_mult: 2
  }
  inner_product_param {
    num_output: 64
    weight_filler {
      type: "gaussian"
      std: 0.1
    }
    bias_filler {
      type: "constant"
    }
  }
}
layer {
  name: "ip2"
  type: "InnerProduct"
  bottom: "ip1"
  top: "ip2"
  param {
    lr_mult: 1
  }
  param {
    lr_mult: 2
  }
  inner_product_param {
    num_output: 64
    weight_filler {
      type: "gaussian"
      std: 0.1
    }
    bias_filler {
      type: "constant"
    }
  }
}
layer {
  name: "ip3"
  type: "InnerProduct"
  bottom: "ip2"
  top: "ip3"
  param {
    lr_mult: 1
  }
  param {
    lr_mult: 2
  }
  inner_product_param {
    num_output: 50
    weight_filler {
      type: "gaussian"
      std: 0.1
    }
    bias_filler {
      type: "constant"
    }
  }
}
layer {
  name: "accuracy"
  type: "Accuracy"
  bottom: "ip3"
  bottom: "label"
  top: "accuracy"
  include {
    phase: TEST
  }
}
layer {
  name: "loss"
  type: "SoftmaxWithLoss"
  bottom: "ip3"
  bottom: "label"
  top: "loss"
}
I0507 00:26:19.219512 30118 layer_factory.hpp:77] Creating layer intercept
I0507 00:26:19.219521 30118 net.cpp:94] Creating Layer intercept
I0507 00:26:19.219524 30118 net.cpp:409] intercept -> data
I0507 00:26:19.219532 30118 net.cpp:409] intercept -> label
I0507 00:26:19.219537 30118 hdf5_data_layer.cpp:79] Loading list of HDF5 filenames from: /home/purduethu/scratch/radon/d/deng106/CNNStatisticalModel/distributions/input/50_distributions_100_sample_size_test-distributions-path.txt
I0507 00:26:19.219554 30118 hdf5_data_layer.cpp:93] Number of HDF5 files: 1
I0507 00:26:19.260593 30118 net.cpp:144] Setting up intercept
I0507 00:26:19.260624 30118 net.cpp:151] Top shape: 20 1 10 10 (2000)
I0507 00:26:19.260629 30118 net.cpp:151] Top shape: 20 (20)
I0507 00:26:19.260632 30118 net.cpp:159] Memory required for data: 8080
I0507 00:26:19.260638 30118 layer_factory.hpp:77] Creating layer label_intercept_1_split
I0507 00:26:19.260656 30118 net.cpp:94] Creating Layer label_intercept_1_split
I0507 00:26:19.260661 30118 net.cpp:435] label_intercept_1_split <- label
I0507 00:26:19.260668 30118 net.cpp:409] label_intercept_1_split -> label_intercept_1_split_0
I0507 00:26:19.260675 30118 net.cpp:409] label_intercept_1_split -> label_intercept_1_split_1
I0507 00:26:19.260715 30118 net.cpp:144] Setting up label_intercept_1_split
I0507 00:26:19.260721 30118 net.cpp:151] Top shape: 20 (20)
I0507 00:26:19.260725 30118 net.cpp:151] Top shape: 20 (20)
I0507 00:26:19.260727 30118 net.cpp:159] Memory required for data: 8240
I0507 00:26:19.260731 30118 layer_factory.hpp:77] Creating layer conv1
I0507 00:26:19.260741 30118 net.cpp:94] Creating Layer conv1
I0507 00:26:19.260745 30118 net.cpp:435] conv1 <- data
I0507 00:26:19.260749 30118 net.cpp:409] conv1 -> conv1
I0507 00:26:19.261566 30118 net.cpp:144] Setting up conv1
I0507 00:26:19.261579 30118 net.cpp:151] Top shape: 20 64 10 10 (128000)
I0507 00:26:19.261582 30118 net.cpp:159] Memory required for data: 520240
I0507 00:26:19.261592 30118 layer_factory.hpp:77] Creating layer relu1
I0507 00:26:19.261600 30118 net.cpp:94] Creating Layer relu1
I0507 00:26:19.261603 30118 net.cpp:435] relu1 <- conv1
I0507 00:26:19.261607 30118 net.cpp:396] relu1 -> conv1 (in-place)
I0507 00:26:19.261615 30118 net.cpp:144] Setting up relu1
I0507 00:26:19.261618 30118 net.cpp:151] Top shape: 20 64 10 10 (128000)
I0507 00:26:19.261620 30118 net.cpp:159] Memory required for data: 1032240
I0507 00:26:19.261631 30118 layer_factory.hpp:77] Creating layer conv2
I0507 00:26:19.261639 30118 net.cpp:94] Creating Layer conv2
I0507 00:26:19.261643 30118 net.cpp:435] conv2 <- conv1
I0507 00:26:19.261647 30118 net.cpp:409] conv2 -> conv2
I0507 00:26:19.265771 30118 net.cpp:144] Setting up conv2
I0507 00:26:19.265784 30118 net.cpp:151] Top shape: 20 64 10 10 (128000)
I0507 00:26:19.265789 30118 net.cpp:159] Memory required for data: 1544240
I0507 00:26:19.265796 30118 layer_factory.hpp:77] Creating layer relu2
I0507 00:26:19.265801 30118 net.cpp:94] Creating Layer relu2
I0507 00:26:19.265805 30118 net.cpp:435] relu2 <- conv2
I0507 00:26:19.265810 30118 net.cpp:396] relu2 -> conv2 (in-place)
I0507 00:26:19.265817 30118 net.cpp:144] Setting up relu2
I0507 00:26:19.265821 30118 net.cpp:151] Top shape: 20 64 10 10 (128000)
I0507 00:26:19.265825 30118 net.cpp:159] Memory required for data: 2056240
I0507 00:26:19.265827 30118 layer_factory.hpp:77] Creating layer pool2
I0507 00:26:19.265832 30118 net.cpp:94] Creating Layer pool2
I0507 00:26:19.265836 30118 net.cpp:435] pool2 <- conv2
I0507 00:26:19.265839 30118 net.cpp:409] pool2 -> pool2
I0507 00:26:19.265894 30118 net.cpp:144] Setting up pool2
I0507 00:26:19.265900 30118 net.cpp:151] Top shape: 20 64 5 5 (32000)
I0507 00:26:19.265903 30118 net.cpp:159] Memory required for data: 2184240
I0507 00:26:19.265907 30118 layer_factory.hpp:77] Creating layer conv3
I0507 00:26:19.265915 30118 net.cpp:94] Creating Layer conv3
I0507 00:26:19.265918 30118 net.cpp:435] conv3 <- pool2
I0507 00:26:19.265923 30118 net.cpp:409] conv3 -> conv3
I0507 00:26:19.270346 30118 net.cpp:144] Setting up conv3
I0507 00:26:19.270360 30118 net.cpp:151] Top shape: 20 64 5 5 (32000)
I0507 00:26:19.270364 30118 net.cpp:159] Memory required for data: 2312240
I0507 00:26:19.270371 30118 layer_factory.hpp:77] Creating layer relu3
I0507 00:26:19.270380 30118 net.cpp:94] Creating Layer relu3
I0507 00:26:19.270383 30118 net.cpp:435] relu3 <- conv3
I0507 00:26:19.270387 30118 net.cpp:396] relu3 -> conv3 (in-place)
I0507 00:26:19.270393 30118 net.cpp:144] Setting up relu3
I0507 00:26:19.270398 30118 net.cpp:151] Top shape: 20 64 5 5 (32000)
I0507 00:26:19.270401 30118 net.cpp:159] Memory required for data: 2440240
I0507 00:26:19.270403 30118 layer_factory.hpp:77] Creating layer conv4
I0507 00:26:19.270411 30118 net.cpp:94] Creating Layer conv4
I0507 00:26:19.270414 30118 net.cpp:435] conv4 <- conv3
I0507 00:26:19.270421 30118 net.cpp:409] conv4 -> conv4
I0507 00:26:19.273998 30118 net.cpp:144] Setting up conv4
I0507 00:26:19.274010 30118 net.cpp:151] Top shape: 20 64 5 5 (32000)
I0507 00:26:19.274014 30118 net.cpp:159] Memory required for data: 2568240
I0507 00:26:19.274020 30118 layer_factory.hpp:77] Creating layer relu4
I0507 00:26:19.274025 30118 net.cpp:94] Creating Layer relu4
I0507 00:26:19.274029 30118 net.cpp:435] relu4 <- conv4
I0507 00:26:19.274034 30118 net.cpp:396] relu4 -> conv4 (in-place)
I0507 00:26:19.274040 30118 net.cpp:144] Setting up relu4
I0507 00:26:19.274044 30118 net.cpp:151] Top shape: 20 64 5 5 (32000)
I0507 00:26:19.274047 30118 net.cpp:159] Memory required for data: 2696240
I0507 00:26:19.274050 30118 layer_factory.hpp:77] Creating layer conv5
I0507 00:26:19.274058 30118 net.cpp:94] Creating Layer conv5
I0507 00:26:19.274061 30118 net.cpp:435] conv5 <- conv4
I0507 00:26:19.274066 30118 net.cpp:409] conv5 -> conv5
I0507 00:26:19.278115 30118 net.cpp:144] Setting up conv5
I0507 00:26:19.278128 30118 net.cpp:151] Top shape: 20 64 5 5 (32000)
I0507 00:26:19.278131 30118 net.cpp:159] Memory required for data: 2824240
I0507 00:26:19.278146 30118 layer_factory.hpp:77] Creating layer relu5
I0507 00:26:19.278153 30118 net.cpp:94] Creating Layer relu5
I0507 00:26:19.278156 30118 net.cpp:435] relu5 <- conv5
I0507 00:26:19.278161 30118 net.cpp:396] relu5 -> conv5 (in-place)
I0507 00:26:19.278167 30118 net.cpp:144] Setting up relu5
I0507 00:26:19.278172 30118 net.cpp:151] Top shape: 20 64 5 5 (32000)
I0507 00:26:19.278173 30118 net.cpp:159] Memory required for data: 2952240
I0507 00:26:19.278182 30118 layer_factory.hpp:77] Creating layer pool5
I0507 00:26:19.278188 30118 net.cpp:94] Creating Layer pool5
I0507 00:26:19.278192 30118 net.cpp:435] pool5 <- conv5
I0507 00:26:19.278195 30118 net.cpp:409] pool5 -> pool5
I0507 00:26:19.278233 30118 net.cpp:144] Setting up pool5
I0507 00:26:19.278239 30118 net.cpp:151] Top shape: 20 64 2 2 (5120)
I0507 00:26:19.278242 30118 net.cpp:159] Memory required for data: 2972720
I0507 00:26:19.278245 30118 layer_factory.hpp:77] Creating layer ip1
I0507 00:26:19.278251 30118 net.cpp:94] Creating Layer ip1
I0507 00:26:19.278254 30118 net.cpp:435] ip1 <- pool5
I0507 00:26:19.278259 30118 net.cpp:409] ip1 -> ip1
I0507 00:26:19.278777 30118 net.cpp:144] Setting up ip1
I0507 00:26:19.278785 30118 net.cpp:151] Top shape: 20 64 (1280)
I0507 00:26:19.278787 30118 net.cpp:159] Memory required for data: 2977840
I0507 00:26:19.278794 30118 layer_factory.hpp:77] Creating layer ip2
I0507 00:26:19.278800 30118 net.cpp:94] Creating Layer ip2
I0507 00:26:19.278802 30118 net.cpp:435] ip2 <- ip1
I0507 00:26:19.278806 30118 net.cpp:409] ip2 -> ip2
I0507 00:26:19.279022 30118 net.cpp:144] Setting up ip2
I0507 00:26:19.279028 30118 net.cpp:151] Top shape: 20 64 (1280)
I0507 00:26:19.279031 30118 net.cpp:159] Memory required for data: 2982960
I0507 00:26:19.279036 30118 layer_factory.hpp:77] Creating layer ip3
I0507 00:26:19.279043 30118 net.cpp:94] Creating Layer ip3
I0507 00:26:19.279047 30118 net.cpp:435] ip3 <- ip2
I0507 00:26:19.279052 30118 net.cpp:409] ip3 -> ip3
I0507 00:26:19.279240 30118 net.cpp:144] Setting up ip3
I0507 00:26:19.279247 30118 net.cpp:151] Top shape: 20 50 (1000)
I0507 00:26:19.279249 30118 net.cpp:159] Memory required for data: 2986960
I0507 00:26:19.279254 30118 layer_factory.hpp:77] Creating layer ip3_ip3_0_split
I0507 00:26:19.279259 30118 net.cpp:94] Creating Layer ip3_ip3_0_split
I0507 00:26:19.279263 30118 net.cpp:435] ip3_ip3_0_split <- ip3
I0507 00:26:19.279266 30118 net.cpp:409] ip3_ip3_0_split -> ip3_ip3_0_split_0
I0507 00:26:19.279271 30118 net.cpp:409] ip3_ip3_0_split -> ip3_ip3_0_split_1
I0507 00:26:19.279309 30118 net.cpp:144] Setting up ip3_ip3_0_split
I0507 00:26:19.279314 30118 net.cpp:151] Top shape: 20 50 (1000)
I0507 00:26:19.279317 30118 net.cpp:151] Top shape: 20 50 (1000)
I0507 00:26:19.279320 30118 net.cpp:159] Memory required for data: 2994960
I0507 00:26:19.279323 30118 layer_factory.hpp:77] Creating layer accuracy
I0507 00:26:19.279328 30118 net.cpp:94] Creating Layer accuracy
I0507 00:26:19.279331 30118 net.cpp:435] accuracy <- ip3_ip3_0_split_0
I0507 00:26:19.279335 30118 net.cpp:435] accuracy <- label_intercept_1_split_0
I0507 00:26:19.279338 30118 net.cpp:409] accuracy -> accuracy
…
