…
I0502 04:51:44.481604 18640 net.cpp:323] The NetState phase (0) differed from the phase (1) specified by a rule in layer intercept
I0502 04:51:44.481621 18640 net.cpp:323] The NetState phase (0) differed from the phase (1) specified by a rule in layer loss
I0502 04:51:44.481715 18640 net.cpp:52] Initializing net from parameters: 
state {
  phase: TRAIN
}
layer {
  name: "parameters"
  type: "HDF5Data"
  top: "data"
  top: "label"
  include {
    phase: TRAIN
  }
  hdf5_data_param {
    source: "/home/purduethu/scratch/radon/d/deng106/CNNStatisticalModel/distributions/input/5_distributions_900_sample_size_train-parameters-path.txt"
    batch_size: 20
  }
}
layer {
  name: "conv1"
  type: "Convolution"
  bottom: "data"
  top: "conv1"
  param {
    lr_mult: 1
  }
  param {
    lr_mult: 2
  }
  convolution_param {
    num_output: 64
    pad: 2
    kernel_size: 5
    stride: 1
    weight_filler {
      type: "gaussian"
      std: 0.0001
    }
    bias_filler {
      type: "constant"
    }
  }
}
layer {
  name: "relu1"
  type: "ReLU"
  bottom: "conv1"
  top: "conv1"
}
layer {
  name: "conv2"
  type: "Convolution"
  bottom: "conv1"
  top: "conv2"
  param {
    lr_mult: 1
  }
  param {
    lr_mult: 2
  }
  convolution_param {
    num_output: 64
    pad: 2
    kernel_size: 5
    stride: 1
    weight_filler {
      type: "gaussian"
      std: 0.01
    }
    bias_filler {
      type: "constant"
    }
  }
}
layer {
  name: "relu2"
  type: "ReLU"
  bottom: "conv2"
  top: "conv2"
}
layer {
  name: "pool2"
  type: "Pooling"
  bottom: "conv2"
  top: "pool2"
  pooling_param {
    pool: MAX
    kernel_size: 3
    stride: 2
  }
}
layer {
  name: "conv3"
  type: "Convolution"
  bottom: "pool2"
  top: "conv3"
  param {
    lr_mult: 1
  }
  param {
    lr_mult: 2
  }
  convolution_param {
    num_output: 64
    pad: 2
    kernel_size: 5
    stride: 1
    weight_filler {
      type: "gaussian"
      std: 0.01
    }
    bias_filler {
      type: "constant"
    }
  }
}
layer {
  name: "relu3"
  type: "ReLU"
  bottom: "conv3"
  top: "conv3"
}
layer {
  name: "conv4"
  type: "Convolution"
  bottom: "conv3"
  top: "conv4"
  param {
    lr_mult: 1
  }
  param {
    lr_mult: 2
  }
  convolution_param {
    num_output: 64
    pad: 2
    kernel_size: 5
    stride: 1
    weight_filler {
      type: "gaussian"
      std: 0.01
    }
    bias_filler {
      type: "constant"
    }
  }
}
layer {
  name: "relu4"
  type: "ReLU"
  bottom: "conv4"
  top: "conv4"
}
layer {
  name: "conv5"
  type: "Convolution"
  bottom: "conv4"
  top: "conv5"
  param {
    lr_mult: 1
  }
  param {
    lr_mult: 2
  }
  convolution_param {
    num_output: 64
    pad: 2
    kernel_size: 5
    stride: 1
    weight_filler {
      type: "gaussian"
      std: 0.01
    }
    bias_filler {
      type: "constant"
    }
  }
}
layer {
  name: "relu5"
  type: "ReLU"
  bottom: "conv5"
  top: "conv5"
}
layer {
  name: "pool5"
  type: "Pooling"
  bottom: "conv5"
  top: "pool5"
  pooling_param {
    pool: AVE
    kernel_size: 3
    stride: 2
  }
}
layer {
  name: "ip1"
  type: "InnerProduct"
  bottom: "pool5"
  top: "ip1"
  param {
    lr_mult: 1
  }
  param {
    lr_mult: 2
  }
  inner_product_param {
    num_output: 64
    weight_filler {
      type: "gaussian"
      std: 0.1
    }
    bias_filler {
      type: "constant"
    }
  }
}
layer {
  name: "ip2"
  type: "InnerProduct"
  bottom: "ip1"
  top: "ip2"
  param {
    lr_mult: 1
  }
  param {
    lr_mult: 2
  }
  inner_product_param {
    num_output: 64
    weight_filler {
      type: "gaussian"
      std: 0.1
    }
    bias_filler {
      type: "constant"
    }
  }
}
layer {
  name: "ip3"
  type: "InnerProduct"
  bottom: "ip2"
  top: "ip3"
  param {
    lr_mult: 1
  }
  param {
    lr_mult: 2
  }
  inner_product_param {
    num_output: 1
    weight_filler {
      type: "gaussian"
      std: 0.1
    }
    bias_filler {
      type: "constant"
    }
  }
}
layer {
  name: "loss"
  type: "HuberLoss"
  bottom: "ip3"
  bottom: "label"
  top: "loss"
  include {
    phase: TRAIN
  }
}
I0502 04:51:44.481793 18640 layer_factory.hpp:77] Creating layer parameters
I0502 04:51:44.481808 18640 net.cpp:94] Creating Layer parameters
I0502 04:51:44.481813 18640 net.cpp:409] parameters -> data
I0502 04:51:44.481833 18640 net.cpp:409] parameters -> label
I0502 04:51:44.481843 18640 hdf5_data_layer.cpp:79] Loading list of HDF5 filenames from: /home/purduethu/scratch/radon/d/deng106/CNNStatisticalModel/distributions/input/5_distributions_900_sample_size_train-parameters-path.txt
I0502 04:51:44.481866 18640 hdf5_data_layer.cpp:93] Number of HDF5 files: 1
I0502 04:51:44.482441 18640 hdf5.cpp:32] Datatype class: H5T_FLOAT
I0502 04:51:44.620903 18640 net.cpp:144] Setting up parameters
I0502 04:51:44.620935 18640 net.cpp:151] Top shape: 20 1 30 30 (18000)
I0502 04:51:44.620941 18640 net.cpp:151] Top shape: 20 (20)
I0502 04:51:44.620945 18640 net.cpp:159] Memory required for data: 72080
I0502 04:51:44.620954 18640 layer_factory.hpp:77] Creating layer conv1
I0502 04:51:44.620972 18640 net.cpp:94] Creating Layer conv1
I0502 04:51:44.620978 18640 net.cpp:435] conv1 <- data
I0502 04:51:44.620990 18640 net.cpp:409] conv1 -> conv1
I0502 04:51:44.626898 18640 net.cpp:144] Setting up conv1
I0502 04:51:44.626912 18640 net.cpp:151] Top shape: 20 64 30 30 (1152000)
I0502 04:51:44.626917 18640 net.cpp:159] Memory required for data: 4680080
I0502 04:51:44.626929 18640 layer_factory.hpp:77] Creating layer relu1
I0502 04:51:44.626936 18640 net.cpp:94] Creating Layer relu1
I0502 04:51:44.626940 18640 net.cpp:435] relu1 <- conv1
I0502 04:51:44.626945 18640 net.cpp:396] relu1 -> conv1 (in-place)
I0502 04:51:44.626963 18640 net.cpp:144] Setting up relu1
I0502 04:51:44.626968 18640 net.cpp:151] Top shape: 20 64 30 30 (1152000)
I0502 04:51:44.626972 18640 net.cpp:159] Memory required for data: 9288080
I0502 04:51:44.626976 18640 layer_factory.hpp:77] Creating layer conv2
I0502 04:51:44.626983 18640 net.cpp:94] Creating Layer conv2
I0502 04:51:44.626987 18640 net.cpp:435] conv2 <- conv1
I0502 04:51:44.626992 18640 net.cpp:409] conv2 -> conv2
I0502 04:51:44.642413 18640 net.cpp:144] Setting up conv2
I0502 04:51:44.642431 18640 net.cpp:151] Top shape: 20 64 30 30 (1152000)
I0502 04:51:44.642436 18640 net.cpp:159] Memory required for data: 13896080
I0502 04:51:44.642446 18640 layer_factory.hpp:77] Creating layer relu2
I0502 04:51:44.642453 18640 net.cpp:94] Creating Layer relu2
I0502 04:51:44.642457 18640 net.cpp:435] relu2 <- conv2
I0502 04:51:44.642463 18640 net.cpp:396] relu2 -> conv2 (in-place)
I0502 04:51:44.642472 18640 net.cpp:144] Setting up relu2
I0502 04:51:44.642477 18640 net.cpp:151] Top shape: 20 64 30 30 (1152000)
I0502 04:51:44.642480 18640 net.cpp:159] Memory required for data: 18504080
I0502 04:51:44.642484 18640 layer_factory.hpp:77] Creating layer pool2
I0502 04:51:44.642493 18640 net.cpp:94] Creating Layer pool2
I0502 04:51:44.642503 18640 net.cpp:435] pool2 <- conv2
I0502 04:51:44.642509 18640 net.cpp:409] pool2 -> pool2
I0502 04:51:44.642566 18640 net.cpp:144] Setting up pool2
I0502 04:51:44.642575 18640 net.cpp:151] Top shape: 20 64 15 15 (288000)
I0502 04:51:44.642577 18640 net.cpp:159] Memory required for data: 19656080
I0502 04:51:44.642581 18640 layer_factory.hpp:77] Creating layer conv3
I0502 04:51:44.642590 18640 net.cpp:94] Creating Layer conv3
I0502 04:51:44.642593 18640 net.cpp:435] conv3 <- pool2
I0502 04:51:44.642598 18640 net.cpp:409] conv3 -> conv3
I0502 04:51:44.650743 18640 net.cpp:144] Setting up conv3
I0502 04:51:44.650758 18640 net.cpp:151] Top shape: 20 64 15 15 (288000)
I0502 04:51:44.650763 18640 net.cpp:159] Memory required for data: 20808080
I0502 04:51:44.650773 18640 layer_factory.hpp:77] Creating layer relu3
I0502 04:51:44.650779 18640 net.cpp:94] Creating Layer relu3
I0502 04:51:44.650782 18640 net.cpp:435] relu3 <- conv3
I0502 04:51:44.650787 18640 net.cpp:396] relu3 -> conv3 (in-place)
I0502 04:51:44.650794 18640 net.cpp:144] Setting up relu3
I0502 04:51:44.650799 18640 net.cpp:151] Top shape: 20 64 15 15 (288000)
I0502 04:51:44.650802 18640 net.cpp:159] Memory required for data: 21960080
I0502 04:51:44.650806 18640 layer_factory.hpp:77] Creating layer conv4
I0502 04:51:44.650815 18640 net.cpp:94] Creating Layer conv4
I0502 04:51:44.650820 18640 net.cpp:435] conv4 <- conv3
I0502 04:51:44.650825 18640 net.cpp:409] conv4 -> conv4
I0502 04:51:44.658181 18640 net.cpp:144] Setting up conv4
I0502 04:51:44.658197 18640 net.cpp:151] Top shape: 20 64 15 15 (288000)
I0502 04:51:44.658202 18640 net.cpp:159] Memory required for data: 23112080
I0502 04:51:44.658210 18640 layer_factory.hpp:77] Creating layer relu4
I0502 04:51:44.658215 18640 net.cpp:94] Creating Layer relu4
I0502 04:51:44.658219 18640 net.cpp:435] relu4 <- conv4
I0502 04:51:44.658226 18640 net.cpp:396] relu4 -> conv4 (in-place)
I0502 04:51:44.658233 18640 net.cpp:144] Setting up relu4
I0502 04:51:44.658238 18640 net.cpp:151] Top shape: 20 64 15 15 (288000)
I0502 04:51:44.658241 18640 net.cpp:159] Memory required for data: 24264080
I0502 04:51:44.658246 18640 layer_factory.hpp:77] Creating layer conv5
I0502 04:51:44.658253 18640 net.cpp:94] Creating Layer conv5
I0502 04:51:44.658257 18640 net.cpp:435] conv5 <- conv4
I0502 04:51:44.658263 18640 net.cpp:409] conv5 -> conv5
I0502 04:51:44.665532 18640 net.cpp:144] Setting up conv5
I0502 04:51:44.665547 18640 net.cpp:151] Top shape: 20 64 15 15 (288000)
I0502 04:51:44.665552 18640 net.cpp:159] Memory required for data: 25416080
I0502 04:51:44.665561 18640 layer_factory.hpp:77] Creating layer relu5
I0502 04:51:44.665567 18640 net.cpp:94] Creating Layer relu5
I0502 04:51:44.665571 18640 net.cpp:435] relu5 <- conv5
I0502 04:51:44.665576 18640 net.cpp:396] relu5 -> conv5 (in-place)
I0502 04:51:44.665583 18640 net.cpp:144] Setting up relu5
I0502 04:51:44.665588 18640 net.cpp:151] Top shape: 20 64 15 15 (288000)
I0502 04:51:44.665591 18640 net.cpp:159] Memory required for data: 26568080
I0502 04:51:44.665596 18640 layer_factory.hpp:77] Creating layer pool5
I0502 04:51:44.665601 18640 net.cpp:94] Creating Layer pool5
I0502 04:51:44.665603 18640 net.cpp:435] pool5 <- conv5
I0502 04:51:44.665608 18640 net.cpp:409] pool5 -> pool5
I0502 04:51:44.665643 18640 net.cpp:144] Setting up pool5
I0502 04:51:44.665650 18640 net.cpp:151] Top shape: 20 64 7 7 (62720)
I0502 04:51:44.665654 18640 net.cpp:159] Memory required for data: 26818960
I0502 04:51:44.665658 18640 layer_factory.hpp:77] Creating layer ip1
I0502 04:51:44.665665 18640 net.cpp:94] Creating Layer ip1
I0502 04:51:44.665668 18640 net.cpp:435] ip1 <- pool5
I0502 04:51:44.665673 18640 net.cpp:409] ip1 -> ip1
I0502 04:51:44.671288 18640 net.cpp:144] Setting up ip1
I0502 04:51:44.671303 18640 net.cpp:151] Top shape: 20 64 (1280)
I0502 04:51:44.671306 18640 net.cpp:159] Memory required for data: 26824080
I0502 04:51:44.671314 18640 layer_factory.hpp:77] Creating layer ip2
I0502 04:51:44.671319 18640 net.cpp:94] Creating Layer ip2
I0502 04:51:44.671329 18640 net.cpp:435] ip2 <- ip1
I0502 04:51:44.671334 18640 net.cpp:409] ip2 -> ip2
I0502 04:51:44.671509 18640 net.cpp:144] Setting up ip2
I0502 04:51:44.671515 18640 net.cpp:151] Top shape: 20 64 (1280)
I0502 04:51:44.671519 18640 net.cpp:159] Memory required for data: 26829200
I0502 04:51:44.671525 18640 layer_factory.hpp:77] Creating layer ip3
I0502 04:51:44.671530 18640 net.cpp:94] Creating Layer ip3
I0502 04:51:44.671535 18640 net.cpp:435] ip3 <- ip2
I0502 04:51:44.671540 18640 net.cpp:409] ip3 -> ip3
I0502 04:51:44.671605 18640 net.cpp:144] Setting up ip3
I0502 04:51:44.671617 18640 net.cpp:151] Top shape: 20 1 (20)
I0502 04:51:44.671622 18640 net.cpp:159] Memory required for data: 26829280
I0502 04:51:44.671627 18640 layer_factory.hpp:77] Creating layer loss
I0502 04:51:44.671638 18640 net.cpp:94] Creating Layer loss
I0502 04:51:44.671641 18640 net.cpp:435] loss <- ip3
I0502 04:51:44.671645 18640 net.cpp:435] loss <- label
I0502 04:51:44.671650 18640 net.cpp:409] loss -> loss
I0502 04:51:44.671686 18640 net.cpp:144] Setting up loss
…
