…
I0501 16:08:54.460495 13457 net.cpp:323] The NetState phase (0) differed from the phase (1) specified by a rule in layer intercept
I0501 16:08:54.460510 13457 net.cpp:323] The NetState phase (0) differed from the phase (1) specified by a rule in layer loss
I0501 16:08:54.460608 13457 net.cpp:52] Initializing net from parameters: 
state {
  phase: TRAIN
}
layer {
  name: "parameters"
  type: "HDF5Data"
  top: "data"
  top: "label"
  include {
    phase: TRAIN
  }
  hdf5_data_param {
    source: "/home/purduethu/scratch/radon/d/deng106/CNNStatisticalModel/distributions/input/20_distributions_100_sample_size_train-parameters-path.txt"
    batch_size: 20
  }
}
layer {
  name: "conv1"
  type: "Convolution"
  bottom: "data"
  top: "conv1"
  param {
    lr_mult: 1
  }
  param {
    lr_mult: 2
  }
  convolution_param {
    num_output: 64
    pad: 2
    kernel_size: 5
    stride: 1
    weight_filler {
      type: "gaussian"
      std: 0.0001
    }
    bias_filler {
      type: "constant"
    }
  }
}
layer {
  name: "relu1"
  type: "ReLU"
  bottom: "conv1"
  top: "conv1"
}
layer {
  name: "conv2"
  type: "Convolution"
  bottom: "conv1"
  top: "conv2"
  param {
    lr_mult: 1
  }
  param {
    lr_mult: 2
  }
  convolution_param {
    num_output: 64
    pad: 2
    kernel_size: 5
    stride: 1
    weight_filler {
      type: "gaussian"
      std: 0.01
    }
    bias_filler {
      type: "constant"
    }
  }
}
layer {
  name: "relu2"
  type: "ReLU"
  bottom: "conv2"
  top: "conv2"
}
layer {
  name: "pool2"
  type: "Pooling"
  bottom: "conv2"
  top: "pool2"
  pooling_param {
    pool: MAX
    kernel_size: 3
    stride: 2
  }
}
layer {
  name: "conv3"
  type: "Convolution"
  bottom: "pool2"
  top: "conv3"
  param {
    lr_mult: 1
  }
  param {
    lr_mult: 2
  }
  convolution_param {
    num_output: 64
    pad: 2
    kernel_size: 5
    stride: 1
    weight_filler {
      type: "gaussian"
      std: 0.01
    }
    bias_filler {
      type: "constant"
    }
  }
}
layer {
  name: "relu3"
  type: "ReLU"
  bottom: "conv3"
  top: "conv3"
}
layer {
  name: "conv4"
  type: "Convolution"
  bottom: "conv3"
  top: "conv4"
  param {
    lr_mult: 1
  }
  param {
    lr_mult: 2
  }
  convolution_param {
    num_output: 64
    pad: 2
    kernel_size: 5
    stride: 1
    weight_filler {
      type: "gaussian"
      std: 0.01
    }
    bias_filler {
      type: "constant"
    }
  }
}
layer {
  name: "relu4"
  type: "ReLU"
  bottom: "conv4"
  top: "conv4"
}
layer {
  name: "conv5"
  type: "Convolution"
  bottom: "conv4"
  top: "conv5"
  param {
    lr_mult: 1
  }
  param {
    lr_mult: 2
  }
  convolution_param {
    num_output: 64
    pad: 2
    kernel_size: 5
    stride: 1
    weight_filler {
      type: "gaussian"
      std: 0.01
    }
    bias_filler {
      type: "constant"
    }
  }
}
layer {
  name: "relu5"
  type: "ReLU"
  bottom: "conv5"
  top: "conv5"
}
layer {
  name: "pool5"
  type: "Pooling"
  bottom: "conv5"
  top: "pool5"
  pooling_param {
    pool: AVE
    kernel_size: 3
    stride: 2
  }
}
layer {
  name: "ip1"
  type: "InnerProduct"
  bottom: "pool5"
  top: "ip1"
  param {
    lr_mult: 1
  }
  param {
    lr_mult: 2
  }
  inner_product_param {
    num_output: 64
    weight_filler {
      type: "gaussian"
      std: 0.1
    }
    bias_filler {
      type: "constant"
    }
  }
}
layer {
  name: "ip2"
  type: "InnerProduct"
  bottom: "ip1"
  top: "ip2"
  param {
    lr_mult: 1
  }
  param {
    lr_mult: 2
  }
  inner_product_param {
    num_output: 64
    weight_filler {
      type: "gaussian"
      std: 0.1
    }
    bias_filler {
      type: "constant"
    }
  }
}
layer {
  name: "ip3"
  type: "InnerProduct"
  bottom: "ip2"
  top: "ip3"
  param {
    lr_mult: 1
  }
  param {
    lr_mult: 2
  }
  inner_product_param {
    num_output: 1
    weight_filler {
      type: "gaussian"
      std: 0.1
    }
    bias_filler {
      type: "constant"
    }
  }
}
layer {
  name: "loss"
  type: "HuberLoss"
  bottom: "ip3"
  bottom: "label"
  top: "loss"
  include {
    phase: TRAIN
  }
}
I0501 16:08:54.460664 13457 layer_factory.hpp:77] Creating layer parameters
I0501 16:08:54.460677 13457 net.cpp:94] Creating Layer parameters
I0501 16:08:54.460681 13457 net.cpp:409] parameters -> data
I0501 16:08:54.460690 13457 net.cpp:409] parameters -> label
I0501 16:08:54.460697 13457 hdf5_data_layer.cpp:79] Loading list of HDF5 filenames from: /home/purduethu/scratch/radon/d/deng106/CNNStatisticalModel/distributions/input/20_distributions_100_sample_size_train-parameters-path.txt
I0501 16:08:54.460957 13457 hdf5_data_layer.cpp:93] Number of HDF5 files: 1
I0501 16:08:54.461637 13457 hdf5.cpp:32] Datatype class: H5T_FLOAT
I0501 16:08:54.562728 13457 net.cpp:144] Setting up parameters
I0501 16:08:54.562759 13457 net.cpp:151] Top shape: 20 1 10 10 (2000)
I0501 16:08:54.562764 13457 net.cpp:151] Top shape: 20 (20)
I0501 16:08:54.562767 13457 net.cpp:159] Memory required for data: 8080
I0501 16:08:54.562773 13457 layer_factory.hpp:77] Creating layer conv1
I0501 16:08:54.562794 13457 net.cpp:94] Creating Layer conv1
I0501 16:08:54.562798 13457 net.cpp:435] conv1 <- data
I0501 16:08:54.562805 13457 net.cpp:409] conv1 -> conv1
I0501 16:08:54.567575 13457 net.cpp:144] Setting up conv1
I0501 16:08:54.567610 13457 net.cpp:151] Top shape: 20 64 10 10 (128000)
I0501 16:08:54.567620 13457 net.cpp:159] Memory required for data: 520080
I0501 16:08:54.567641 13457 layer_factory.hpp:77] Creating layer relu1
I0501 16:08:54.567654 13457 net.cpp:94] Creating Layer relu1
I0501 16:08:54.567662 13457 net.cpp:435] relu1 <- conv1
I0501 16:08:54.567672 13457 net.cpp:396] relu1 -> conv1 (in-place)
I0501 16:08:54.567695 13457 net.cpp:144] Setting up relu1
I0501 16:08:54.567706 13457 net.cpp:151] Top shape: 20 64 10 10 (128000)
I0501 16:08:54.567713 13457 net.cpp:159] Memory required for data: 1032080
I0501 16:08:54.567719 13457 layer_factory.hpp:77] Creating layer conv2
I0501 16:08:54.567736 13457 net.cpp:94] Creating Layer conv2
I0501 16:08:54.567744 13457 net.cpp:435] conv2 <- conv1
I0501 16:08:54.567755 13457 net.cpp:409] conv2 -> conv2
I0501 16:08:54.579378 13457 net.cpp:144] Setting up conv2
I0501 16:08:54.579414 13457 net.cpp:151] Top shape: 20 64 10 10 (128000)
I0501 16:08:54.579426 13457 net.cpp:159] Memory required for data: 1544080
I0501 16:08:54.579447 13457 layer_factory.hpp:77] Creating layer relu2
I0501 16:08:54.579463 13457 net.cpp:94] Creating Layer relu2
I0501 16:08:54.579473 13457 net.cpp:435] relu2 <- conv2
I0501 16:08:54.579485 13457 net.cpp:396] relu2 -> conv2 (in-place)
I0501 16:08:54.579504 13457 net.cpp:144] Setting up relu2
I0501 16:08:54.579516 13457 net.cpp:151] Top shape: 20 64 10 10 (128000)
I0501 16:08:54.579525 13457 net.cpp:159] Memory required for data: 2056080
I0501 16:08:54.579533 13457 layer_factory.hpp:77] Creating layer pool2
I0501 16:08:54.579557 13457 net.cpp:94] Creating Layer pool2
I0501 16:08:54.579567 13457 net.cpp:435] pool2 <- conv2
I0501 16:08:54.579581 13457 net.cpp:409] pool2 -> pool2
I0501 16:08:54.579727 13457 net.cpp:144] Setting up pool2
I0501 16:08:54.579746 13457 net.cpp:151] Top shape: 20 64 5 5 (32000)
I0501 16:08:54.579756 13457 net.cpp:159] Memory required for data: 2184080
I0501 16:08:54.579764 13457 layer_factory.hpp:77] Creating layer conv3
I0501 16:08:54.579783 13457 net.cpp:94] Creating Layer conv3
I0501 16:08:54.579793 13457 net.cpp:435] conv3 <- pool2
I0501 16:08:54.579807 13457 net.cpp:409] conv3 -> conv3
I0501 16:08:54.590716 13457 net.cpp:144] Setting up conv3
I0501 16:08:54.590749 13457 net.cpp:151] Top shape: 20 64 5 5 (32000)
I0501 16:08:54.590757 13457 net.cpp:159] Memory required for data: 2312080
I0501 16:08:54.590777 13457 layer_factory.hpp:77] Creating layer relu3
I0501 16:08:54.590791 13457 net.cpp:94] Creating Layer relu3
I0501 16:08:54.590801 13457 net.cpp:435] relu3 <- conv3
I0501 16:08:54.590812 13457 net.cpp:396] relu3 -> conv3 (in-place)
I0501 16:08:54.590829 13457 net.cpp:144] Setting up relu3
I0501 16:08:54.590840 13457 net.cpp:151] Top shape: 20 64 5 5 (32000)
I0501 16:08:54.590848 13457 net.cpp:159] Memory required for data: 2440080
I0501 16:08:54.590857 13457 layer_factory.hpp:77] Creating layer conv4
I0501 16:08:54.590875 13457 net.cpp:94] Creating Layer conv4
I0501 16:08:54.590884 13457 net.cpp:435] conv4 <- conv3
I0501 16:08:54.590898 13457 net.cpp:409] conv4 -> conv4
I0501 16:08:54.600157 13457 net.cpp:144] Setting up conv4
I0501 16:08:54.600186 13457 net.cpp:151] Top shape: 20 64 5 5 (32000)
I0501 16:08:54.600195 13457 net.cpp:159] Memory required for data: 2568080
I0501 16:08:54.600210 13457 layer_factory.hpp:77] Creating layer relu4
I0501 16:08:54.600224 13457 net.cpp:94] Creating Layer relu4
I0501 16:08:54.600231 13457 net.cpp:435] relu4 <- conv4
I0501 16:08:54.600242 13457 net.cpp:396] relu4 -> conv4 (in-place)
I0501 16:08:54.600258 13457 net.cpp:144] Setting up relu4
I0501 16:08:54.600270 13457 net.cpp:151] Top shape: 20 64 5 5 (32000)
I0501 16:08:54.600276 13457 net.cpp:159] Memory required for data: 2696080
I0501 16:08:54.600283 13457 layer_factory.hpp:77] Creating layer conv5
I0501 16:08:54.600299 13457 net.cpp:94] Creating Layer conv5
I0501 16:08:54.600308 13457 net.cpp:435] conv5 <- conv4
I0501 16:08:54.600319 13457 net.cpp:409] conv5 -> conv5
I0501 16:08:54.611631 13457 net.cpp:144] Setting up conv5
I0501 16:08:54.611661 13457 net.cpp:151] Top shape: 20 64 5 5 (32000)
I0501 16:08:54.611670 13457 net.cpp:159] Memory required for data: 2824080
I0501 16:08:54.611688 13457 layer_factory.hpp:77] Creating layer relu5
I0501 16:08:54.611701 13457 net.cpp:94] Creating Layer relu5
I0501 16:08:54.611708 13457 net.cpp:435] relu5 <- conv5
I0501 16:08:54.611718 13457 net.cpp:396] relu5 -> conv5 (in-place)
I0501 16:08:54.611733 13457 net.cpp:144] Setting up relu5
I0501 16:08:54.611743 13457 net.cpp:151] Top shape: 20 64 5 5 (32000)
I0501 16:08:54.611750 13457 net.cpp:159] Memory required for data: 2952080
I0501 16:08:54.611757 13457 layer_factory.hpp:77] Creating layer pool5
I0501 16:08:54.611768 13457 net.cpp:94] Creating Layer pool5
I0501 16:08:54.611774 13457 net.cpp:435] pool5 <- conv5
I0501 16:08:54.611783 13457 net.cpp:409] pool5 -> pool5
I0501 16:08:54.611865 13457 net.cpp:144] Setting up pool5
I0501 16:08:54.611881 13457 net.cpp:151] Top shape: 20 64 2 2 (5120)
I0501 16:08:54.611887 13457 net.cpp:159] Memory required for data: 2972560
I0501 16:08:54.611894 13457 layer_factory.hpp:77] Creating layer ip1
I0501 16:08:54.611913 13457 net.cpp:94] Creating Layer ip1
I0501 16:08:54.611922 13457 net.cpp:435] ip1 <- pool5
I0501 16:08:54.611932 13457 net.cpp:409] ip1 -> ip1
I0501 16:08:54.614645 13457 net.cpp:144] Setting up ip1
I0501 16:08:54.614673 13457 net.cpp:151] Top shape: 20 64 (1280)
I0501 16:08:54.614681 13457 net.cpp:159] Memory required for data: 2977680
I0501 16:08:54.614694 13457 layer_factory.hpp:77] Creating layer ip2
I0501 16:08:54.614709 13457 net.cpp:94] Creating Layer ip2
I0501 16:08:54.614725 13457 net.cpp:435] ip2 <- ip1
I0501 16:08:54.614738 13457 net.cpp:409] ip2 -> ip2
I0501 16:08:54.615241 13457 net.cpp:144] Setting up ip2
I0501 16:08:54.615257 13457 net.cpp:151] Top shape: 20 64 (1280)
I0501 16:08:54.615263 13457 net.cpp:159] Memory required for data: 2982800
I0501 16:08:54.615275 13457 layer_factory.hpp:77] Creating layer ip3
I0501 16:08:54.615288 13457 net.cpp:94] Creating Layer ip3
I0501 16:08:54.615295 13457 net.cpp:435] ip3 <- ip2
I0501 16:08:54.615306 13457 net.cpp:409] ip3 -> ip3
I0501 16:08:54.615559 13457 net.cpp:144] Setting up ip3
I0501 16:08:54.615573 13457 net.cpp:151] Top shape: 20 1 (20)
I0501 16:08:54.615581 13457 net.cpp:159] Memory required for data: 2982880
I0501 16:08:54.615592 13457 layer_factory.hpp:77] Creating layer loss
I0501 16:08:54.615605 13457 net.cpp:94] Creating Layer loss
I0501 16:08:54.615613 13457 net.cpp:435] loss <- ip3
I0501 16:08:54.615622 13457 net.cpp:435] loss <- label
I0501 16:08:54.615633 13457 net.cpp:409] loss -> loss
I0501 16:08:54.615754 13457 net.cpp:144] Setting up loss
…
I0501 16:08:54.687057 13457 net.cpp:323] The NetState phase (0) differed from the phase (1) specified by a rule in layer intercept
I0501 16:08:54.687081 13457 net.cpp:323] The NetState phase (0) differed from the phase (1) specified by a rule in layer accuracy
I0501 16:08:54.687222 13457 net.cpp:52] Initializing net from parameters: 
state {
  phase: TRAIN
}
layer {
  name: "parameters"
  type: "HDF5Data"
  top: "data"
  top: "label"
  include {
    phase: TRAIN
  }
  hdf5_data_param {
    source: "/home/purduethu/scratch/radon/d/deng106/CNNStatisticalModel/distributions/input/20_distributions_100_sample_size_train-distributions-path.txt"
    batch_size: 20
  }
}
layer {
  name: "conv1"
  type: "Convolution"
  bottom: "data"
  top: "conv1"
  param {
    lr_mult: 1
  }
  param {
    lr_mult: 2
  }
  convolution_param {
    num_output: 64
    pad: 2
    kernel_size: 5
    stride: 1
    weight_filler {
      type: "gaussian"
      std: 0.0001
    }
    bias_filler {
      type: "constant"
    }
  }
}
layer {
  name: "relu1"
  type: "ReLU"
  bottom: "conv1"
  top: "conv1"
}
layer {
  name: "conv2"
  type: "Convolution"
  bottom: "conv1"
  top: "conv2"
  param {
    lr_mult: 1
  }
  param {
    lr_mult: 2
  }
  convolution_param {
    num_output: 64
    pad: 2
    kernel_size: 5
    stride: 1
    weight_filler {
      type: "gaussian"
      std: 0.01
    }
    bias_filler {
      type: "constant"
    }
  }
}
layer {
  name: "relu2"
  type: "ReLU"
  bottom: "conv2"
  top: "conv2"
}
layer {
  name: "pool2"
  type: "Pooling"
  bottom: "conv2"
  top: "pool2"
  pooling_param {
    pool: MAX
    kernel_size: 3
    stride: 2
  }
}
layer {
  name: "conv3"
  type: "Convolution"
  bottom: "pool2"
  top: "conv3"
  param {
    lr_mult: 1
  }
  param {
    lr_mult: 2
  }
  convolution_param {
    num_output: 64
    pad: 2
    kernel_size: 5
    stride: 1
    weight_filler {
      type: "gaussian"
      std: 0.01
    }
    bias_filler {
      type: "constant"
    }
  }
}
layer {
  name: "relu3"
  type: "ReLU"
  bottom: "conv3"
  top: "conv3"
}
layer {
  name: "conv4"
  type: "Convolution"
  bottom: "conv3"
  top: "conv4"
  param {
    lr_mult: 1
  }
  param {
    lr_mult: 2
  }
  convolution_param {
    num_output: 64
    pad: 2
    kernel_size: 5
    stride: 1
    weight_filler {
      type: "gaussian"
      std: 0.01
    }
    bias_filler {
      type: "constant"
    }
  }
}
layer {
  name: "relu4"
  type: "ReLU"
  bottom: "conv4"
  top: "conv4"
}
layer {
  name: "conv5"
  type: "Convolution"
  bottom: "conv4"
  top: "conv5"
  param {
    lr_mult: 1
  }
  param {
    lr_mult: 2
  }
  convolution_param {
    num_output: 64
    pad: 2
    kernel_size: 5
    stride: 1
    weight_filler {
      type: "gaussian"
      std: 0.01
    }
    bias_filler {
      type: "constant"
    }
  }
}
layer {
  name: "relu5"
  type: "ReLU"
  bottom: "conv5"
  top: "conv5"
}
layer {
  name: "pool5"
  type: "Pooling"
  bottom: "conv5"
  top: "pool5"
  pooling_param {
    pool: AVE
    kernel_size: 3
    stride: 2
  }
}
layer {
  name: "ip1"
  type: "InnerProduct"
  bottom: "pool5"
  top: "ip1"
  param {
    lr_mult: 1
  }
  param {
    lr_mult: 2
  }
  inner_product_param {
    num_output: 64
    weight_filler {
      type: "gaussian"
      std: 0.1
    }
    bias_filler {
      type: "constant"
    }
  }
}
layer {
  name: "ip2"
  type: "InnerProduct"
  bottom: "ip1"
  top: "ip2"
  param {
    lr_mult: 1
  }
  param {
    lr_mult: 2
  }
  inner_product_param {
    num_output: 64
    weight_filler {
      type: "gaussian"
      std: 0.1
    }
    bias_filler {
      type: "constant"
    }
  }
}
layer {
  name: "ip3"
  type: "InnerProduct"
  bottom: "ip2"
  top: "ip3"
  param {
    lr_mult: 1
  }
  param {
    lr_mult: 2
  }
  inner_product_param {
    num_output: 50
    weight_filler {
      type: "gaussian"
      std: 0.1
    }
    bias_filler {
      type: "constant"
    }
  }
}
layer {
  name: "loss"
  type: "SoftmaxWithLoss"
  bottom: "ip3"
  bottom: "label"
  top: "loss"
}
I0501 16:08:54.687305 13457 layer_factory.hpp:77] Creating layer parameters
I0501 16:08:54.687319 13457 net.cpp:94] Creating Layer parameters
I0501 16:08:54.687325 13457 net.cpp:409] parameters -> data
I0501 16:08:54.687335 13457 net.cpp:409] parameters -> label
I0501 16:08:54.687345 13457 hdf5_data_layer.cpp:79] Loading list of HDF5 filenames from: /home/purduethu/scratch/radon/d/deng106/CNNStatisticalModel/distributions/input/20_distributions_100_sample_size_train-distributions-path.txt
I0501 16:08:54.687453 13457 hdf5_data_layer.cpp:93] Number of HDF5 files: 1
I0501 16:08:54.804090 13457 hdf5.cpp:35] Datatype class: H5T_INTEGER
I0501 16:08:54.806607 13457 net.cpp:144] Setting up parameters
I0501 16:08:54.806627 13457 net.cpp:151] Top shape: 20 1 10 10 (2000)
I0501 16:08:54.806632 13457 net.cpp:151] Top shape: 20 (20)
I0501 16:08:54.806635 13457 net.cpp:159] Memory required for data: 8080
I0501 16:08:54.806643 13457 layer_factory.hpp:77] Creating layer conv1
I0501 16:08:54.806660 13457 net.cpp:94] Creating Layer conv1
I0501 16:08:54.806664 13457 net.cpp:435] conv1 <- data
I0501 16:08:54.806671 13457 net.cpp:409] conv1 -> conv1
I0501 16:08:54.808707 13457 net.cpp:144] Setting up conv1
I0501 16:08:54.808723 13457 net.cpp:151] Top shape: 20 64 10 10 (128000)
I0501 16:08:54.808727 13457 net.cpp:159] Memory required for data: 520080
I0501 16:08:54.808738 13457 layer_factory.hpp:77] Creating layer relu1
I0501 16:08:54.808748 13457 net.cpp:94] Creating Layer relu1
I0501 16:08:54.808751 13457 net.cpp:435] relu1 <- conv1
I0501 16:08:54.808756 13457 net.cpp:396] relu1 -> conv1 (in-place)
I0501 16:08:54.808765 13457 net.cpp:144] Setting up relu1
I0501 16:08:54.808770 13457 net.cpp:151] Top shape: 20 64 10 10 (128000)
I0501 16:08:54.808773 13457 net.cpp:159] Memory required for data: 1032080
I0501 16:08:54.808776 13457 layer_factory.hpp:77] Creating layer conv2
I0501 16:08:54.808785 13457 net.cpp:94] Creating Layer conv2
I0501 16:08:54.808789 13457 net.cpp:435] conv2 <- conv1
I0501 16:08:54.808795 13457 net.cpp:409] conv2 -> conv2
I0501 16:08:54.814807 13457 net.cpp:144] Setting up conv2
I0501 16:08:54.814822 13457 net.cpp:151] Top shape: 20 64 10 10 (128000)
I0501 16:08:54.814826 13457 net.cpp:159] Memory required for data: 1544080
I0501 16:08:54.814836 13457 layer_factory.hpp:77] Creating layer relu2
I0501 16:08:54.814842 13457 net.cpp:94] Creating Layer relu2
I0501 16:08:54.814846 13457 net.cpp:435] relu2 <- conv2
I0501 16:08:54.814851 13457 net.cpp:396] relu2 -> conv2 (in-place)
I0501 16:08:54.814859 13457 net.cpp:144] Setting up relu2
I0501 16:08:54.814864 13457 net.cpp:151] Top shape: 20 64 10 10 (128000)
I0501 16:08:54.814867 13457 net.cpp:159] Memory required for data: 2056080
I0501 16:08:54.814870 13457 layer_factory.hpp:77] Creating layer pool2
I0501 16:08:54.814877 13457 net.cpp:94] Creating Layer pool2
I0501 16:08:54.814880 13457 net.cpp:435] pool2 <- conv2
I0501 16:08:54.814885 13457 net.cpp:409] pool2 -> pool2
I0501 16:08:54.814947 13457 net.cpp:144] Setting up pool2
I0501 16:08:54.814954 13457 net.cpp:151] Top shape: 20 64 5 5 (32000)
I0501 16:08:54.814959 13457 net.cpp:159] Memory required for data: 2184080
I0501 16:08:54.814962 13457 layer_factory.hpp:77] Creating layer conv3
I0501 16:08:54.814970 13457 net.cpp:94] Creating Layer conv3
I0501 16:08:54.814975 13457 net.cpp:435] conv3 <- pool2
I0501 16:08:54.814980 13457 net.cpp:409] conv3 -> conv3
I0501 16:08:54.820509 13457 net.cpp:144] Setting up conv3
I0501 16:08:54.820525 13457 net.cpp:151] Top shape: 20 64 5 5 (32000)
I0501 16:08:54.820529 13457 net.cpp:159] Memory required for data: 2312080
I0501 16:08:54.820538 13457 layer_factory.hpp:77] Creating layer relu3
I0501 16:08:54.820544 13457 net.cpp:94] Creating Layer relu3
I0501 16:08:54.820549 13457 net.cpp:435] relu3 <- conv3
I0501 16:08:54.820562 13457 net.cpp:396] relu3 -> conv3 (in-place)
I0501 16:08:54.820570 13457 net.cpp:144] Setting up relu3
I0501 16:08:54.820575 13457 net.cpp:151] Top shape: 20 64 5 5 (32000)
I0501 16:08:54.820578 13457 net.cpp:159] Memory required for data: 2440080
I0501 16:08:54.820582 13457 layer_factory.hpp:77] Creating layer conv4
I0501 16:08:54.820591 13457 net.cpp:94] Creating Layer conv4
I0501 16:08:54.820595 13457 net.cpp:435] conv4 <- conv3
I0501 16:08:54.820601 13457 net.cpp:409] conv4 -> conv4
I0501 16:08:54.826063 13457 net.cpp:144] Setting up conv4
I0501 16:08:54.826077 13457 net.cpp:151] Top shape: 20 64 5 5 (32000)
I0501 16:08:54.826082 13457 net.cpp:159] Memory required for data: 2568080
I0501 16:08:54.826088 13457 layer_factory.hpp:77] Creating layer relu4
I0501 16:08:54.826095 13457 net.cpp:94] Creating Layer relu4
I0501 16:08:54.826098 13457 net.cpp:435] relu4 <- conv4
I0501 16:08:54.826103 13457 net.cpp:396] relu4 -> conv4 (in-place)
I0501 16:08:54.826112 13457 net.cpp:144] Setting up relu4
I0501 16:08:54.826115 13457 net.cpp:151] Top shape: 20 64 5 5 (32000)
I0501 16:08:54.826119 13457 net.cpp:159] Memory required for data: 2696080
I0501 16:08:54.826122 13457 layer_factory.hpp:77] Creating layer conv5
I0501 16:08:54.826130 13457 net.cpp:94] Creating Layer conv5
I0501 16:08:54.826134 13457 net.cpp:435] conv5 <- conv4
I0501 16:08:54.826140 13457 net.cpp:409] conv5 -> conv5
I0501 16:08:54.831900 13457 net.cpp:144] Setting up conv5
I0501 16:08:54.831915 13457 net.cpp:151] Top shape: 20 64 5 5 (32000)
I0501 16:08:54.831919 13457 net.cpp:159] Memory required for data: 2824080
I0501 16:08:54.831928 13457 layer_factory.hpp:77] Creating layer relu5
I0501 16:08:54.831935 13457 net.cpp:94] Creating Layer relu5
I0501 16:08:54.831939 13457 net.cpp:435] relu5 <- conv5
I0501 16:08:54.831943 13457 net.cpp:396] relu5 -> conv5 (in-place)
I0501 16:08:54.831951 13457 net.cpp:144] Setting up relu5
I0501 16:08:54.831956 13457 net.cpp:151] Top shape: 20 64 5 5 (32000)
I0501 16:08:54.831959 13457 net.cpp:159] Memory required for data: 2952080
I0501 16:08:54.831962 13457 layer_factory.hpp:77] Creating layer pool5
I0501 16:08:54.831969 13457 net.cpp:94] Creating Layer pool5
I0501 16:08:54.831971 13457 net.cpp:435] pool5 <- conv5
I0501 16:08:54.831976 13457 net.cpp:409] pool5 -> pool5
I0501 16:08:54.832016 13457 net.cpp:144] Setting up pool5
I0501 16:08:54.832025 13457 net.cpp:151] Top shape: 20 64 2 2 (5120)
I0501 16:08:54.832027 13457 net.cpp:159] Memory required for data: 2972560
I0501 16:08:54.832031 13457 layer_factory.hpp:77] Creating layer ip1
I0501 16:08:54.832038 13457 net.cpp:94] Creating Layer ip1
I0501 16:08:54.832042 13457 net.cpp:435] ip1 <- pool5
I0501 16:08:54.832047 13457 net.cpp:409] ip1 -> ip1
I0501 16:08:54.832643 13457 net.cpp:144] Setting up ip1
I0501 16:08:54.832651 13457 net.cpp:151] Top shape: 20 64 (1280)
I0501 16:08:54.832655 13457 net.cpp:159] Memory required for data: 2977680
I0501 16:08:54.832661 13457 layer_factory.hpp:77] Creating layer ip2
I0501 16:08:54.832667 13457 net.cpp:94] Creating Layer ip2
I0501 16:08:54.832671 13457 net.cpp:435] ip2 <- ip1
I0501 16:08:54.832676 13457 net.cpp:409] ip2 -> ip2
I0501 16:08:54.832929 13457 net.cpp:144] Setting up ip2
I0501 16:08:54.832937 13457 net.cpp:151] Top shape: 20 64 (1280)
I0501 16:08:54.832940 13457 net.cpp:159] Memory required for data: 2982800
I0501 16:08:54.832947 13457 layer_factory.hpp:77] Creating layer ip3
I0501 16:08:54.832952 13457 net.cpp:94] Creating Layer ip3
I0501 16:08:54.832955 13457 net.cpp:435] ip3 <- ip2
I0501 16:08:54.832962 13457 net.cpp:409] ip3 -> ip3
I0501 16:08:54.833180 13457 net.cpp:144] Setting up ip3
I0501 16:08:54.833189 13457 net.cpp:151] Top shape: 20 50 (1000)
I0501 16:08:54.833195 13457 net.cpp:159] Memory required for data: 2986800
I0501 16:08:54.833201 13457 layer_factory.hpp:77] Creating layer loss
I0501 16:08:54.833209 13457 net.cpp:94] Creating Layer loss
I0501 16:08:54.833212 13457 net.cpp:435] loss <- ip3
I0501 16:08:54.833216 13457 net.cpp:435] loss <- label
I0501 16:08:54.833221 13457 net.cpp:409] loss -> loss
I0501 16:08:54.833230 13457 layer_factory.hpp:77] Creating layer loss
…
I0501 16:08:54.834697 13457 solver.cpp:181] Creating test net (#0) specified by net file: ./protocol/dis_20_100_dimension.protocol_distribution
I0501 16:08:54.834727 13457 net.cpp:323] The NetState phase (1) differed from the phase (0) specified by a rule in layer parameters
I0501 16:08:54.834831 13457 net.cpp:52] Initializing net from parameters: 
state {
  phase: TEST
}
layer {
  name: "intercept"
  type: "HDF5Data"
  top: "data"
  top: "label"
  include {
    phase: TEST
  }
  hdf5_data_param {
    source: "/home/purduethu/scratch/radon/d/deng106/CNNStatisticalModel/distributions/input/20_distributions_100_sample_size_test-distributions-path.txt"
    batch_size: 20
  }
}
layer {
  name: "conv1"
  type: "Convolution"
  bottom: "data"
  top: "conv1"
  param {
    lr_mult: 1
  }
  param {
    lr_mult: 2
  }
  convolution_param {
    num_output: 64
    pad: 2
    kernel_size: 5
    stride: 1
    weight_filler {
      type: "gaussian"
      std: 0.0001
    }
    bias_filler {
      type: "constant"
    }
  }
}
layer {
  name: "relu1"
  type: "ReLU"
  bottom: "conv1"
  top: "conv1"
}
layer {
  name: "conv2"
  type: "Convolution"
  bottom: "conv1"
  top: "conv2"
  param {
    lr_mult: 1
  }
  param {
    lr_mult: 2
  }
  convolution_param {
    num_output: 64
    pad: 2
    kernel_size: 5
    stride: 1
    weight_filler {
      type: "gaussian"
      std: 0.01
    }
    bias_filler {
      type: "constant"
    }
  }
}
layer {
  name: "relu2"
  type: "ReLU"
  bottom: "conv2"
  top: "conv2"
}
layer {
  name: "pool2"
  type: "Pooling"
  bottom: "conv2"
  top: "pool2"
  pooling_param {
    pool: MAX
    kernel_size: 3
    stride: 2
  }
}
layer {
  name: "conv3"
  type: "Convolution"
  bottom: "pool2"
  top: "conv3"
  param {
    lr_mult: 1
  }
  param {
    lr_mult: 2
  }
  convolution_param {
    num_output: 64
    pad: 2
    kernel_size: 5
    stride: 1
    weight_filler {
      type: "gaussian"
      std: 0.01
    }
    bias_filler {
      type: "constant"
    }
  }
}
layer {
  name: "relu3"
  type: "ReLU"
  bottom: "conv3"
  top: "conv3"
}
layer {
  name: "conv4"
  type: "Convolution"
  bottom: "conv3"
  top: "conv4"
  param {
    lr_mult: 1
  }
  param {
    lr_mult: 2
  }
  convolution_param {
    num_output: 64
    pad: 2
    kernel_size: 5
    stride: 1
    weight_filler {
      type: "gaussian"
      std: 0.01
    }
    bias_filler {
      type: "constant"
    }
  }
}
layer {
  name: "relu4"
  type: "ReLU"
  bottom: "conv4"
  top: "conv4"
}
layer {
  name: "conv5"
  type: "Convolution"
  bottom: "conv4"
  top: "conv5"
  param {
    lr_mult: 1
  }
  param {
    lr_mult: 2
  }
  convolution_param {
    num_output: 64
    pad: 2
    kernel_size: 5
    stride: 1
    weight_filler {
      type: "gaussian"
      std: 0.01
    }
    bias_filler {
      type: "constant"
    }
  }
}
layer {
  name: "relu5"
  type: "ReLU"
  bottom: "conv5"
  top: "conv5"
}
layer {
  name: "pool5"
  type: "Pooling"
  bottom: "conv5"
  top: "pool5"
  pooling_param {
    pool: AVE
    kernel_size: 3
    stride: 2
  }
}
layer {
  name: "ip1"
  type: "InnerProduct"
  bottom: "pool5"
  top: "ip1"
  param {
    lr_mult: 1
  }
  param {
    lr_mult: 2
  }
  inner_product_param {
    num_output: 64
    weight_filler {
      type: "gaussian"
      std: 0.1
    }
    bias_filler {
      type: "constant"
    }
  }
}
layer {
  name: "ip2"
  type: "InnerProduct"
  bottom: "ip1"
  top: "ip2"
  param {
    lr_mult: 1
  }
  param {
    lr_mult: 2
  }
  inner_product_param {
    num_output: 64
    weight_filler {
      type: "gaussian"
      std: 0.1
    }
    bias_filler {
      type: "constant"
    }
  }
}
layer {
  name: "ip3"
  type: "InnerProduct"
  bottom: "ip2"
  top: "ip3"
  param {
    lr_mult: 1
  }
  param {
    lr_mult: 2
  }
  inner_product_param {
    num_output: 50
    weight_filler {
      type: "gaussian"
      std: 0.1
    }
    bias_filler {
      type: "constant"
    }
  }
}
layer {
  name: "accuracy"
  type: "Accuracy"
  bottom: "ip3"
  bottom: "label"
  top: "accuracy"
  include {
    phase: TEST
  }
}
layer {
  name: "loss"
  type: "SoftmaxWithLoss"
  bottom: "ip3"
  bottom: "label"
  top: "loss"
}
I0501 16:08:54.834903 13457 layer_factory.hpp:77] Creating layer intercept
I0501 16:08:54.834910 13457 net.cpp:94] Creating Layer intercept
I0501 16:08:54.834915 13457 net.cpp:409] intercept -> data
I0501 16:08:54.834923 13457 net.cpp:409] intercept -> label
I0501 16:08:54.834928 13457 hdf5_data_layer.cpp:79] Loading list of HDF5 filenames from: /home/purduethu/scratch/radon/d/deng106/CNNStatisticalModel/distributions/input/20_distributions_100_sample_size_test-distributions-path.txt
I0501 16:08:54.835064 13457 hdf5_data_layer.cpp:93] Number of HDF5 files: 1
I0501 16:08:54.862607 13457 net.cpp:144] Setting up intercept
I0501 16:08:54.862640 13457 net.cpp:151] Top shape: 20 1 10 10 (2000)
I0501 16:08:54.862645 13457 net.cpp:151] Top shape: 20 (20)
I0501 16:08:54.862648 13457 net.cpp:159] Memory required for data: 8080
I0501 16:08:54.862654 13457 layer_factory.hpp:77] Creating layer label_intercept_1_split
I0501 16:08:54.862673 13457 net.cpp:94] Creating Layer label_intercept_1_split
I0501 16:08:54.862676 13457 net.cpp:435] label_intercept_1_split <- label
I0501 16:08:54.862682 13457 net.cpp:409] label_intercept_1_split -> label_intercept_1_split_0
I0501 16:08:54.862690 13457 net.cpp:409] label_intercept_1_split -> label_intercept_1_split_1
I0501 16:08:54.862735 13457 net.cpp:144] Setting up label_intercept_1_split
I0501 16:08:54.862741 13457 net.cpp:151] Top shape: 20 (20)
I0501 16:08:54.862746 13457 net.cpp:151] Top shape: 20 (20)
I0501 16:08:54.862747 13457 net.cpp:159] Memory required for data: 8240
I0501 16:08:54.862751 13457 layer_factory.hpp:77] Creating layer conv1
I0501 16:08:54.862762 13457 net.cpp:94] Creating Layer conv1
I0501 16:08:54.862766 13457 net.cpp:435] conv1 <- data
I0501 16:08:54.862771 13457 net.cpp:409] conv1 -> conv1
I0501 16:08:54.863636 13457 net.cpp:144] Setting up conv1
I0501 16:08:54.863648 13457 net.cpp:151] Top shape: 20 64 10 10 (128000)
I0501 16:08:54.863658 13457 net.cpp:159] Memory required for data: 520240
I0501 16:08:54.863668 13457 layer_factory.hpp:77] Creating layer relu1
I0501 16:08:54.863675 13457 net.cpp:94] Creating Layer relu1
I0501 16:08:54.863678 13457 net.cpp:435] relu1 <- conv1
I0501 16:08:54.863682 13457 net.cpp:396] relu1 -> conv1 (in-place)
I0501 16:08:54.863689 13457 net.cpp:144] Setting up relu1
I0501 16:08:54.863694 13457 net.cpp:151] Top shape: 20 64 10 10 (128000)
I0501 16:08:54.863696 13457 net.cpp:159] Memory required for data: 1032240
I0501 16:08:54.863699 13457 layer_factory.hpp:77] Creating layer conv2
I0501 16:08:54.863708 13457 net.cpp:94] Creating Layer conv2
I0501 16:08:54.863711 13457 net.cpp:435] conv2 <- conv1
I0501 16:08:54.863715 13457 net.cpp:409] conv2 -> conv2
I0501 16:08:54.867887 13457 net.cpp:144] Setting up conv2
I0501 16:08:54.867900 13457 net.cpp:151] Top shape: 20 64 10 10 (128000)
I0501 16:08:54.867904 13457 net.cpp:159] Memory required for data: 1544240
I0501 16:08:54.867913 13457 layer_factory.hpp:77] Creating layer relu2
I0501 16:08:54.867918 13457 net.cpp:94] Creating Layer relu2
I0501 16:08:54.867921 13457 net.cpp:435] relu2 <- conv2
I0501 16:08:54.867926 13457 net.cpp:396] relu2 -> conv2 (in-place)
I0501 16:08:54.867933 13457 net.cpp:144] Setting up relu2
I0501 16:08:54.867936 13457 net.cpp:151] Top shape: 20 64 10 10 (128000)
I0501 16:08:54.867939 13457 net.cpp:159] Memory required for data: 2056240
I0501 16:08:54.867943 13457 layer_factory.hpp:77] Creating layer pool2
I0501 16:08:54.867949 13457 net.cpp:94] Creating Layer pool2
I0501 16:08:54.867951 13457 net.cpp:435] pool2 <- conv2
I0501 16:08:54.867955 13457 net.cpp:409] pool2 -> pool2
I0501 16:08:54.868011 13457 net.cpp:144] Setting up pool2
I0501 16:08:54.868018 13457 net.cpp:151] Top shape: 20 64 5 5 (32000)
I0501 16:08:54.868021 13457 net.cpp:159] Memory required for data: 2184240
I0501 16:08:54.868024 13457 layer_factory.hpp:77] Creating layer conv3
I0501 16:08:54.868032 13457 net.cpp:94] Creating Layer conv3
I0501 16:08:54.868036 13457 net.cpp:435] conv3 <- pool2
I0501 16:08:54.868041 13457 net.cpp:409] conv3 -> conv3
I0501 16:08:54.871721 13457 net.cpp:144] Setting up conv3
I0501 16:08:54.871734 13457 net.cpp:151] Top shape: 20 64 5 5 (32000)
I0501 16:08:54.871737 13457 net.cpp:159] Memory required for data: 2312240
I0501 16:08:54.871745 13457 layer_factory.hpp:77] Creating layer relu3
I0501 16:08:54.871752 13457 net.cpp:94] Creating Layer relu3
I0501 16:08:54.871757 13457 net.cpp:435] relu3 <- conv3
I0501 16:08:54.871760 13457 net.cpp:396] relu3 -> conv3 (in-place)
I0501 16:08:54.871767 13457 net.cpp:144] Setting up relu3
I0501 16:08:54.871772 13457 net.cpp:151] Top shape: 20 64 5 5 (32000)
I0501 16:08:54.871774 13457 net.cpp:159] Memory required for data: 2440240
I0501 16:08:54.871778 13457 layer_factory.hpp:77] Creating layer conv4
I0501 16:08:54.871784 13457 net.cpp:94] Creating Layer conv4
I0501 16:08:54.871788 13457 net.cpp:435] conv4 <- conv3
I0501 16:08:54.871793 13457 net.cpp:409] conv4 -> conv4
I0501 16:08:54.875452 13457 net.cpp:144] Setting up conv4
I0501 16:08:54.875464 13457 net.cpp:151] Top shape: 20 64 5 5 (32000)
I0501 16:08:54.875468 13457 net.cpp:159] Memory required for data: 2568240
I0501 16:08:54.875474 13457 layer_factory.hpp:77] Creating layer relu4
I0501 16:08:54.875479 13457 net.cpp:94] Creating Layer relu4
I0501 16:08:54.875483 13457 net.cpp:435] relu4 <- conv4
I0501 16:08:54.875486 13457 net.cpp:396] relu4 -> conv4 (in-place)
I0501 16:08:54.875494 13457 net.cpp:144] Setting up relu4
I0501 16:08:54.875497 13457 net.cpp:151] Top shape: 20 64 5 5 (32000)
I0501 16:08:54.875500 13457 net.cpp:159] Memory required for data: 2696240
I0501 16:08:54.875504 13457 layer_factory.hpp:77] Creating layer conv5
I0501 16:08:54.875510 13457 net.cpp:94] Creating Layer conv5
I0501 16:08:54.875514 13457 net.cpp:435] conv5 <- conv4
I0501 16:08:54.875519 13457 net.cpp:409] conv5 -> conv5
I0501 16:08:54.879657 13457 net.cpp:144] Setting up conv5
I0501 16:08:54.879670 13457 net.cpp:151] Top shape: 20 64 5 5 (32000)
I0501 16:08:54.879674 13457 net.cpp:159] Memory required for data: 2824240
I0501 16:08:54.879685 13457 layer_factory.hpp:77] Creating layer relu5
I0501 16:08:54.879691 13457 net.cpp:94] Creating Layer relu5
I0501 16:08:54.879695 13457 net.cpp:435] relu5 <- conv5
I0501 16:08:54.879699 13457 net.cpp:396] relu5 -> conv5 (in-place)
I0501 16:08:54.879706 13457 net.cpp:144] Setting up relu5
I0501 16:08:54.879710 13457 net.cpp:151] Top shape: 20 64 5 5 (32000)
I0501 16:08:54.879714 13457 net.cpp:159] Memory required for data: 2952240
I0501 16:08:54.879716 13457 layer_factory.hpp:77] Creating layer pool5
I0501 16:08:54.879722 13457 net.cpp:94] Creating Layer pool5
I0501 16:08:54.879725 13457 net.cpp:435] pool5 <- conv5
I0501 16:08:54.879729 13457 net.cpp:409] pool5 -> pool5
I0501 16:08:54.879770 13457 net.cpp:144] Setting up pool5
I0501 16:08:54.879776 13457 net.cpp:151] Top shape: 20 64 2 2 (5120)
I0501 16:08:54.879778 13457 net.cpp:159] Memory required for data: 2972720
I0501 16:08:54.879782 13457 layer_factory.hpp:77] Creating layer ip1
I0501 16:08:54.879788 13457 net.cpp:94] Creating Layer ip1
I0501 16:08:54.879792 13457 net.cpp:435] ip1 <- pool5
I0501 16:08:54.879796 13457 net.cpp:409] ip1 -> ip1
I0501 16:08:54.880337 13457 net.cpp:144] Setting up ip1
I0501 16:08:54.880345 13457 net.cpp:151] Top shape: 20 64 (1280)
I0501 16:08:54.880348 13457 net.cpp:159] Memory required for data: 2977840
I0501 16:08:54.880353 13457 layer_factory.hpp:77] Creating layer ip2
I0501 16:08:54.880359 13457 net.cpp:94] Creating Layer ip2
I0501 16:08:54.880363 13457 net.cpp:435] ip2 <- ip1
I0501 16:08:54.880368 13457 net.cpp:409] ip2 -> ip2
I0501 16:08:54.880623 13457 net.cpp:144] Setting up ip2
I0501 16:08:54.880632 13457 net.cpp:151] Top shape: 20 64 (1280)
I0501 16:08:54.880635 13457 net.cpp:159] Memory required for data: 2982960
I0501 16:08:54.880640 13457 layer_factory.hpp:77] Creating layer ip3
I0501 16:08:54.880648 13457 net.cpp:94] Creating Layer ip3
I0501 16:08:54.880652 13457 net.cpp:435] ip3 <- ip2
I0501 16:08:54.880657 13457 net.cpp:409] ip3 -> ip3
I0501 16:08:54.880877 13457 net.cpp:144] Setting up ip3
I0501 16:08:54.880883 13457 net.cpp:151] Top shape: 20 50 (1000)
I0501 16:08:54.880887 13457 net.cpp:159] Memory required for data: 2986960
I0501 16:08:54.880892 13457 layer_factory.hpp:77] Creating layer ip3_ip3_0_split
I0501 16:08:54.880897 13457 net.cpp:94] Creating Layer ip3_ip3_0_split
I0501 16:08:54.880900 13457 net.cpp:435] ip3_ip3_0_split <- ip3
I0501 16:08:54.880905 13457 net.cpp:409] ip3_ip3_0_split -> ip3_ip3_0_split_0
I0501 16:08:54.880910 13457 net.cpp:409] ip3_ip3_0_split -> ip3_ip3_0_split_1
I0501 16:08:54.880956 13457 net.cpp:144] Setting up ip3_ip3_0_split
I0501 16:08:54.880962 13457 net.cpp:151] Top shape: 20 50 (1000)
I0501 16:08:54.880966 13457 net.cpp:151] Top shape: 20 50 (1000)
I0501 16:08:54.880969 13457 net.cpp:159] Memory required for data: 2994960
I0501 16:08:54.880971 13457 layer_factory.hpp:77] Creating layer accuracy
I0501 16:08:54.880978 13457 net.cpp:94] Creating Layer accuracy
I0501 16:08:54.880981 13457 net.cpp:435] accuracy <- ip3_ip3_0_split_0
I0501 16:08:54.880985 13457 net.cpp:435] accuracy <- label_intercept_1_split_0
I0501 16:08:54.880990 13457 net.cpp:409] accuracy -> accuracy
…
