…
I0505 22:37:57.430954 10073 net.cpp:323] The NetState phase (0) differed from the phase (1) specified by a rule in layer intercept
I0505 22:37:57.430968 10073 net.cpp:323] The NetState phase (0) differed from the phase (1) specified by a rule in layer loss
I0505 22:37:57.431035 10073 net.cpp:52] Initializing net from parameters: 
state {
  phase: TRAIN
}
layer {
  name: "parameters"
  type: "HDF5Data"
  top: "data"
  top: "label"
  include {
    phase: TRAIN
  }
  hdf5_data_param {
    source: "/home/purduethu/scratch/radon/d/deng106/CNNStatisticalModel/distributions/input/20_distributions_100_sample_size_train-parameters-path.txt"
    batch_size: 20
  }
}
layer {
  name: "conv1"
  type: "Convolution"
  bottom: "data"
  top: "conv1"
  param {
    lr_mult: 1
  }
  param {
    lr_mult: 2
  }
  convolution_param {
    num_output: 64
    pad: 2
    kernel_size: 5
    stride: 1
    weight_filler {
      type: "gaussian"
      std: 0.0001
    }
    bias_filler {
      type: "constant"
    }
  }
}
layer {
  name: "relu1"
  type: "ReLU"
  bottom: "conv1"
  top: "conv1"
}
layer {
  name: "pool1"
  type: "Pooling"
  bottom: "conv1"
  top: "pool1"
  pooling_param {
    pool: MAX
    kernel_size: 3
    stride: 2
  }
}
layer {
  name: "conv2"
  type: "Convolution"
  bottom: "pool1"
  top: "conv2"
  param {
    lr_mult: 1
  }
  param {
    lr_mult: 2
  }
  convolution_param {
    num_output: 128
    pad: 2
    kernel_size: 5
    stride: 1
    weight_filler {
      type: "gaussian"
      std: 0.01
    }
    bias_filler {
      type: "constant"
    }
  }
}
layer {
  name: "relu2"
  type: "ReLU"
  bottom: "conv2"
  top: "conv2"
}
layer {
  name: "conv3"
  type: "Convolution"
  bottom: "conv2"
  top: "conv3"
  param {
    lr_mult: 1
  }
  param {
    lr_mult: 2
  }
  convolution_param {
    num_output: 128
    pad: 2
    kernel_size: 5
    stride: 1
    weight_filler {
      type: "gaussian"
      std: 0.01
    }
    bias_filler {
      type: "constant"
    }
  }
}
layer {
  name: "relu3"
  type: "ReLU"
  bottom: "conv3"
  top: "conv3"
}
layer {
  name: "pool3"
  type: "Pooling"
  bottom: "conv3"
  top: "pool3"
  pooling_param {
    pool: AVE
    kernel_size: 3
    stride: 2
  }
}
layer {
  name: "ip1"
  type: "InnerProduct"
  bottom: "pool3"
  top: "ip1"
  param {
    lr_mult: 1
  }
  param {
    lr_mult: 2
  }
  inner_product_param {
    num_output: 512
    weight_filler {
      type: "gaussian"
      std: 0.1
    }
    bias_filler {
      type: "constant"
    }
  }
}
layer {
  name: "ip2"
  type: "InnerProduct"
  bottom: "ip1"
  top: "ip2"
  param {
    lr_mult: 1
  }
  param {
    lr_mult: 2
  }
  inner_product_param {
    num_output: 256
    weight_filler {
      type: "gaussian"
      std: 0.1
    }
    bias_filler {
      type: "constant"
    }
  }
}
layer {
  name: "ip3"
  type: "InnerProduct"
  bottom: "ip2"
  top: "ip3"
  param {
    lr_mult: 1
  }
  param {
    lr_mult: 2
  }
  inner_product_param {
    num_output: 1
    weight_filler {
      type: "gaussian"
      std: 0.1
    }
    bias_filler {
      type: "constant"
    }
  }
}
layer {
  name: "loss"
  type: "HuberLoss"
  bottom: "ip3"
  bottom: "label"
  top: "loss"
  include {
    phase: TRAIN
  }
}
I0505 22:37:57.431082 10073 layer_factory.hpp:77] Creating layer parameters
I0505 22:37:57.431093 10073 net.cpp:94] Creating Layer parameters
I0505 22:37:57.431097 10073 net.cpp:409] parameters -> data
I0505 22:37:57.431107 10073 net.cpp:409] parameters -> label
I0505 22:37:57.431113 10073 hdf5_data_layer.cpp:79] Loading list of HDF5 filenames from: /home/purduethu/scratch/radon/d/deng106/CNNStatisticalModel/distributions/input/20_distributions_100_sample_size_train-parameters-path.txt
I0505 22:37:57.431128 10073 hdf5_data_layer.cpp:93] Number of HDF5 files: 1
I0505 22:37:57.431661 10073 hdf5.cpp:32] Datatype class: H5T_FLOAT
I0505 22:37:57.498446 10073 net.cpp:144] Setting up parameters
I0505 22:37:57.498488 10073 net.cpp:151] Top shape: 20 1 10 10 (2000)
I0505 22:37:57.498493 10073 net.cpp:151] Top shape: 20 (20)
I0505 22:37:57.498497 10073 net.cpp:159] Memory required for data: 8080
I0505 22:37:57.498503 10073 layer_factory.hpp:77] Creating layer conv1
I0505 22:37:57.498527 10073 net.cpp:94] Creating Layer conv1
I0505 22:37:57.498530 10073 net.cpp:435] conv1 <- data
I0505 22:37:57.498538 10073 net.cpp:409] conv1 -> conv1
I0505 22:37:57.502851 10073 net.cpp:144] Setting up conv1
I0505 22:37:57.502868 10073 net.cpp:151] Top shape: 20 64 10 10 (128000)
I0505 22:37:57.502872 10073 net.cpp:159] Memory required for data: 520080
I0505 22:37:57.502882 10073 layer_factory.hpp:77] Creating layer relu1
I0505 22:37:57.502890 10073 net.cpp:94] Creating Layer relu1
I0505 22:37:57.502893 10073 net.cpp:435] relu1 <- conv1
I0505 22:37:57.502898 10073 net.cpp:396] relu1 -> conv1 (in-place)
I0505 22:37:57.502912 10073 net.cpp:144] Setting up relu1
I0505 22:37:57.502917 10073 net.cpp:151] Top shape: 20 64 10 10 (128000)
I0505 22:37:57.502919 10073 net.cpp:159] Memory required for data: 1032080
I0505 22:37:57.502923 10073 layer_factory.hpp:77] Creating layer pool1
I0505 22:37:57.502928 10073 net.cpp:94] Creating Layer pool1
I0505 22:37:57.502931 10073 net.cpp:435] pool1 <- conv1
I0505 22:37:57.502936 10073 net.cpp:409] pool1 -> pool1
I0505 22:37:57.502995 10073 net.cpp:144] Setting up pool1
I0505 22:37:57.503002 10073 net.cpp:151] Top shape: 20 64 5 5 (32000)
I0505 22:37:57.503005 10073 net.cpp:159] Memory required for data: 1160080
I0505 22:37:57.503008 10073 layer_factory.hpp:77] Creating layer conv2
I0505 22:37:57.503017 10073 net.cpp:94] Creating Layer conv2
I0505 22:37:57.503021 10073 net.cpp:435] conv2 <- pool1
I0505 22:37:57.503026 10073 net.cpp:409] conv2 -> conv2
I0505 22:37:57.511312 10073 net.cpp:144] Setting up conv2
I0505 22:37:57.511327 10073 net.cpp:151] Top shape: 20 128 5 5 (64000)
I0505 22:37:57.511330 10073 net.cpp:159] Memory required for data: 1416080
I0505 22:37:57.511338 10073 layer_factory.hpp:77] Creating layer relu2
I0505 22:37:57.511344 10073 net.cpp:94] Creating Layer relu2
I0505 22:37:57.511348 10073 net.cpp:435] relu2 <- conv2
I0505 22:37:57.511353 10073 net.cpp:396] relu2 -> conv2 (in-place)
I0505 22:37:57.511359 10073 net.cpp:144] Setting up relu2
I0505 22:37:57.511363 10073 net.cpp:151] Top shape: 20 128 5 5 (64000)
I0505 22:37:57.511366 10073 net.cpp:159] Memory required for data: 1672080
I0505 22:37:57.511369 10073 layer_factory.hpp:77] Creating layer conv3
I0505 22:37:57.511378 10073 net.cpp:94] Creating Layer conv3
I0505 22:37:57.511380 10073 net.cpp:435] conv3 <- conv2
I0505 22:37:57.511385 10073 net.cpp:409] conv3 -> conv3
I0505 22:37:57.526156 10073 net.cpp:144] Setting up conv3
I0505 22:37:57.526171 10073 net.cpp:151] Top shape: 20 128 5 5 (64000)
I0505 22:37:57.526175 10073 net.cpp:159] Memory required for data: 1928080
I0505 22:37:57.526183 10073 layer_factory.hpp:77] Creating layer relu3
I0505 22:37:57.526196 10073 net.cpp:94] Creating Layer relu3
I0505 22:37:57.526201 10073 net.cpp:435] relu3 <- conv3
I0505 22:37:57.526204 10073 net.cpp:396] relu3 -> conv3 (in-place)
I0505 22:37:57.526211 10073 net.cpp:144] Setting up relu3
I0505 22:37:57.526216 10073 net.cpp:151] Top shape: 20 128 5 5 (64000)
I0505 22:37:57.526219 10073 net.cpp:159] Memory required for data: 2184080
I0505 22:37:57.526222 10073 layer_factory.hpp:77] Creating layer pool3
I0505 22:37:57.526228 10073 net.cpp:94] Creating Layer pool3
I0505 22:37:57.526232 10073 net.cpp:435] pool3 <- conv3
I0505 22:37:57.526235 10073 net.cpp:409] pool3 -> pool3
I0505 22:37:57.526276 10073 net.cpp:144] Setting up pool3
I0505 22:37:57.526283 10073 net.cpp:151] Top shape: 20 128 2 2 (10240)
I0505 22:37:57.526286 10073 net.cpp:159] Memory required for data: 2225040
I0505 22:37:57.526289 10073 layer_factory.hpp:77] Creating layer ip1
I0505 22:37:57.526299 10073 net.cpp:94] Creating Layer ip1
I0505 22:37:57.526304 10073 net.cpp:435] ip1 <- pool3
I0505 22:37:57.526309 10073 net.cpp:409] ip1 -> ip1
I0505 22:37:57.534104 10073 net.cpp:144] Setting up ip1
I0505 22:37:57.534121 10073 net.cpp:151] Top shape: 20 512 (10240)
I0505 22:37:57.534124 10073 net.cpp:159] Memory required for data: 2266000
I0505 22:37:57.534131 10073 layer_factory.hpp:77] Creating layer ip2
I0505 22:37:57.534138 10073 net.cpp:94] Creating Layer ip2
I0505 22:37:57.534142 10073 net.cpp:435] ip2 <- ip1
I0505 22:37:57.534147 10073 net.cpp:409] ip2 -> ip2
I0505 22:37:57.537307 10073 net.cpp:144] Setting up ip2
I0505 22:37:57.537317 10073 net.cpp:151] Top shape: 20 256 (5120)
I0505 22:37:57.537319 10073 net.cpp:159] Memory required for data: 2286480
I0505 22:37:57.537327 10073 layer_factory.hpp:77] Creating layer ip3
I0505 22:37:57.537333 10073 net.cpp:94] Creating Layer ip3
I0505 22:37:57.537336 10073 net.cpp:435] ip3 <- ip2
I0505 22:37:57.537340 10073 net.cpp:409] ip3 -> ip3
I0505 22:37:57.537444 10073 net.cpp:144] Setting up ip3
I0505 22:37:57.537451 10073 net.cpp:151] Top shape: 20 1 (20)
I0505 22:37:57.537454 10073 net.cpp:159] Memory required for data: 2286560
I0505 22:37:57.537459 10073 layer_factory.hpp:77] Creating layer loss
I0505 22:37:57.537466 10073 net.cpp:94] Creating Layer loss
I0505 22:37:57.537469 10073 net.cpp:435] loss <- ip3
I0505 22:37:57.537472 10073 net.cpp:435] loss <- label
I0505 22:37:57.537477 10073 net.cpp:409] loss -> loss
I0505 22:37:57.537531 10073 net.cpp:144] Setting up loss
…
I0505 22:37:57.587641 10073 net.cpp:323] The NetState phase (0) differed from the phase (1) specified by a rule in layer intercept
I0505 22:37:57.587653 10073 net.cpp:323] The NetState phase (0) differed from the phase (1) specified by a rule in layer accuracy
I0505 22:37:57.587721 10073 net.cpp:52] Initializing net from parameters: 
state {
  phase: TRAIN
}
layer {
  name: "parameters"
  type: "HDF5Data"
  top: "data"
  top: "label"
  include {
    phase: TRAIN
  }
  hdf5_data_param {
    source: "/home/purduethu/scratch/radon/d/deng106/CNNStatisticalModel/distributions/input/20_distributions_100_sample_size_train-distributions-path.txt"
    batch_size: 20
  }
}
layer {
  name: "conv1"
  type: "Convolution"
  bottom: "data"
  top: "conv1"
  param {
    lr_mult: 1
  }
  param {
    lr_mult: 2
  }
  convolution_param {
    num_output: 64
    pad: 2
    kernel_size: 5
    stride: 1
    weight_filler {
      type: "gaussian"
      std: 0.0001
    }
    bias_filler {
      type: "constant"
    }
  }
}
layer {
  name: "relu1"
  type: "ReLU"
  bottom: "conv1"
  top: "conv1"
}
layer {
  name: "pool1"
  type: "Pooling"
  bottom: "conv1"
  top: "pool1"
  pooling_param {
    pool: MAX
    kernel_size: 3
    stride: 2
  }
}
layer {
  name: "conv2"
  type: "Convolution"
  bottom: "pool1"
  top: "conv2"
  param {
    lr_mult: 1
  }
  param {
    lr_mult: 2
  }
  convolution_param {
    num_output: 128
    pad: 2
    kernel_size: 5
    stride: 1
    weight_filler {
      type: "gaussian"
      std: 0.01
    }
    bias_filler {
      type: "constant"
    }
  }
}
layer {
  name: "relu2"
  type: "ReLU"
  bottom: "conv2"
  top: "conv2"
}
layer {
  name: "conv3"
  type: "Convolution"
  bottom: "conv2"
  top: "conv3"
  param {
    lr_mult: 1
  }
  param {
    lr_mult: 2
  }
  convolution_param {
    num_output: 128
    pad: 2
    kernel_size: 5
    stride: 1
    weight_filler {
      type: "gaussian"
      std: 0.01
    }
    bias_filler {
      type: "constant"
    }
  }
}
layer {
  name: "relu3"
  type: "ReLU"
  bottom: "conv3"
  top: "conv3"
}
layer {
  name: "pool3"
  type: "Pooling"
  bottom: "conv3"
  top: "pool3"
  pooling_param {
    pool: AVE
    kernel_size: 3
    stride: 2
  }
}
layer {
  name: "ip1"
  type: "InnerProduct"
  bottom: "pool3"
  top: "ip1"
  param {
    lr_mult: 1
  }
  param {
    lr_mult: 2
  }
  inner_product_param {
    num_output: 512
    weight_filler {
      type: "gaussian"
      std: 0.1
    }
    bias_filler {
      type: "constant"
    }
  }
}
layer {
  name: "ip2"
  type: "InnerProduct"
  bottom: "ip1"
  top: "ip2"
  param {
    lr_mult: 1
  }
  param {
    lr_mult: 2
  }
  inner_product_param {
    num_output: 256
    weight_filler {
      type: "gaussian"
      std: 0.1
    }
    bias_filler {
      type: "constant"
    }
  }
}
layer {
  name: "ip3"
  type: "InnerProduct"
  bottom: "ip2"
  top: "ip3"
  param {
    lr_mult: 1
  }
  param {
    lr_mult: 2
  }
  inner_product_param {
    num_output: 50
    weight_filler {
      type: "gaussian"
      std: 0.1
    }
    bias_filler {
      type: "constant"
    }
  }
}
layer {
  name: "loss"
  type: "SoftmaxWithLoss"
  bottom: "ip3"
  bottom: "label"
  top: "loss"
}
I0505 22:37:57.587761 10073 layer_factory.hpp:77] Creating layer parameters
I0505 22:37:57.587769 10073 net.cpp:94] Creating Layer parameters
I0505 22:37:57.587772 10073 net.cpp:409] parameters -> data
I0505 22:37:57.587779 10073 net.cpp:409] parameters -> label
I0505 22:37:57.587785 10073 hdf5_data_layer.cpp:79] Loading list of HDF5 filenames from: /home/purduethu/scratch/radon/d/deng106/CNNStatisticalModel/distributions/input/20_distributions_100_sample_size_train-distributions-path.txt
I0505 22:37:57.587798 10073 hdf5_data_layer.cpp:93] Number of HDF5 files: 1
I0505 22:37:57.651130 10073 hdf5.cpp:35] Datatype class: H5T_INTEGER
I0505 22:37:57.653143 10073 net.cpp:144] Setting up parameters
I0505 22:37:57.653161 10073 net.cpp:151] Top shape: 20 1 10 10 (2000)
I0505 22:37:57.653165 10073 net.cpp:151] Top shape: 20 (20)
I0505 22:37:57.653169 10073 net.cpp:159] Memory required for data: 8080
I0505 22:37:57.653175 10073 layer_factory.hpp:77] Creating layer conv1
I0505 22:37:57.653192 10073 net.cpp:94] Creating Layer conv1
I0505 22:37:57.653195 10073 net.cpp:435] conv1 <- data
I0505 22:37:57.653201 10073 net.cpp:409] conv1 -> conv1
I0505 22:37:57.655092 10073 net.cpp:144] Setting up conv1
I0505 22:37:57.655107 10073 net.cpp:151] Top shape: 20 64 10 10 (128000)
I0505 22:37:57.655110 10073 net.cpp:159] Memory required for data: 520080
I0505 22:37:57.655119 10073 layer_factory.hpp:77] Creating layer relu1
I0505 22:37:57.655128 10073 net.cpp:94] Creating Layer relu1
I0505 22:37:57.655130 10073 net.cpp:435] relu1 <- conv1
I0505 22:37:57.655135 10073 net.cpp:396] relu1 -> conv1 (in-place)
I0505 22:37:57.655143 10073 net.cpp:144] Setting up relu1
I0505 22:37:57.655146 10073 net.cpp:151] Top shape: 20 64 10 10 (128000)
I0505 22:37:57.655149 10073 net.cpp:159] Memory required for data: 1032080
I0505 22:37:57.655153 10073 layer_factory.hpp:77] Creating layer pool1
I0505 22:37:57.655158 10073 net.cpp:94] Creating Layer pool1
I0505 22:37:57.655161 10073 net.cpp:435] pool1 <- conv1
I0505 22:37:57.655174 10073 net.cpp:409] pool1 -> pool1
I0505 22:37:57.655236 10073 net.cpp:144] Setting up pool1
I0505 22:37:57.655243 10073 net.cpp:151] Top shape: 20 64 5 5 (32000)
I0505 22:37:57.655246 10073 net.cpp:159] Memory required for data: 1160080
I0505 22:37:57.655251 10073 layer_factory.hpp:77] Creating layer conv2
I0505 22:37:57.655259 10073 net.cpp:94] Creating Layer conv2
I0505 22:37:57.655262 10073 net.cpp:435] conv2 <- pool1
I0505 22:37:57.655267 10073 net.cpp:409] conv2 -> conv2
I0505 22:37:57.663570 10073 net.cpp:144] Setting up conv2
I0505 22:37:57.663585 10073 net.cpp:151] Top shape: 20 128 5 5 (64000)
I0505 22:37:57.663589 10073 net.cpp:159] Memory required for data: 1416080
I0505 22:37:57.663599 10073 layer_factory.hpp:77] Creating layer relu2
I0505 22:37:57.663604 10073 net.cpp:94] Creating Layer relu2
I0505 22:37:57.663607 10073 net.cpp:435] relu2 <- conv2
I0505 22:37:57.663611 10073 net.cpp:396] relu2 -> conv2 (in-place)
I0505 22:37:57.663619 10073 net.cpp:144] Setting up relu2
I0505 22:37:57.663624 10073 net.cpp:151] Top shape: 20 128 5 5 (64000)
I0505 22:37:57.663626 10073 net.cpp:159] Memory required for data: 1672080
I0505 22:37:57.663630 10073 layer_factory.hpp:77] Creating layer conv3
I0505 22:37:57.663636 10073 net.cpp:94] Creating Layer conv3
I0505 22:37:57.663640 10073 net.cpp:435] conv3 <- conv2
I0505 22:37:57.663645 10073 net.cpp:409] conv3 -> conv3
I0505 22:37:57.678177 10073 net.cpp:144] Setting up conv3
I0505 22:37:57.678191 10073 net.cpp:151] Top shape: 20 128 5 5 (64000)
I0505 22:37:57.678195 10073 net.cpp:159] Memory required for data: 1928080
I0505 22:37:57.678203 10073 layer_factory.hpp:77] Creating layer relu3
I0505 22:37:57.678210 10073 net.cpp:94] Creating Layer relu3
I0505 22:37:57.678213 10073 net.cpp:435] relu3 <- conv3
I0505 22:37:57.678217 10073 net.cpp:396] relu3 -> conv3 (in-place)
I0505 22:37:57.678225 10073 net.cpp:144] Setting up relu3
I0505 22:37:57.678228 10073 net.cpp:151] Top shape: 20 128 5 5 (64000)
I0505 22:37:57.678231 10073 net.cpp:159] Memory required for data: 2184080
I0505 22:37:57.678234 10073 layer_factory.hpp:77] Creating layer pool3
I0505 22:37:57.678241 10073 net.cpp:94] Creating Layer pool3
I0505 22:37:57.678243 10073 net.cpp:435] pool3 <- conv3
I0505 22:37:57.678247 10073 net.cpp:409] pool3 -> pool3
I0505 22:37:57.678285 10073 net.cpp:144] Setting up pool3
I0505 22:37:57.678292 10073 net.cpp:151] Top shape: 20 128 2 2 (10240)
I0505 22:37:57.678295 10073 net.cpp:159] Memory required for data: 2225040
I0505 22:37:57.678298 10073 layer_factory.hpp:77] Creating layer ip1
I0505 22:37:57.678305 10073 net.cpp:94] Creating Layer ip1
I0505 22:37:57.678308 10073 net.cpp:435] ip1 <- pool3
I0505 22:37:57.678313 10073 net.cpp:409] ip1 -> ip1
I0505 22:37:57.685338 10073 net.cpp:144] Setting up ip1
I0505 22:37:57.685353 10073 net.cpp:151] Top shape: 20 512 (10240)
I0505 22:37:57.685356 10073 net.cpp:159] Memory required for data: 2266000
I0505 22:37:57.685362 10073 layer_factory.hpp:77] Creating layer ip2
I0505 22:37:57.685369 10073 net.cpp:94] Creating Layer ip2
I0505 22:37:57.685374 10073 net.cpp:435] ip2 <- ip1
I0505 22:37:57.685379 10073 net.cpp:409] ip2 -> ip2
I0505 22:37:57.688505 10073 net.cpp:144] Setting up ip2
I0505 22:37:57.688514 10073 net.cpp:151] Top shape: 20 256 (5120)
I0505 22:37:57.688518 10073 net.cpp:159] Memory required for data: 2286480
I0505 22:37:57.688524 10073 layer_factory.hpp:77] Creating layer ip3
I0505 22:37:57.688530 10073 net.cpp:94] Creating Layer ip3
I0505 22:37:57.688534 10073 net.cpp:435] ip3 <- ip2
I0505 22:37:57.688539 10073 net.cpp:409] ip3 -> ip3
I0505 22:37:57.689795 10073 net.cpp:144] Setting up ip3
I0505 22:37:57.689808 10073 net.cpp:151] Top shape: 20 50 (1000)
I0505 22:37:57.689812 10073 net.cpp:159] Memory required for data: 2290480
I0505 22:37:57.689818 10073 layer_factory.hpp:77] Creating layer loss
I0505 22:37:57.689824 10073 net.cpp:94] Creating Layer loss
I0505 22:37:57.689827 10073 net.cpp:435] loss <- ip3
I0505 22:37:57.689831 10073 net.cpp:435] loss <- label
I0505 22:37:57.689836 10073 net.cpp:409] loss -> loss
I0505 22:37:57.689848 10073 layer_factory.hpp:77] Creating layer loss
…
I0505 22:37:57.690287 10073 solver.cpp:181] Creating test net (#0) specified by net file: ./protocol/dis_20_100_dimension.protocol_distribution
I0505 22:37:57.690310 10073 net.cpp:323] The NetState phase (1) differed from the phase (0) specified by a rule in layer parameters
I0505 22:37:57.690387 10073 net.cpp:52] Initializing net from parameters: 
state {
  phase: TEST
}
layer {
  name: "intercept"
  type: "HDF5Data"
  top: "data"
  top: "label"
  include {
    phase: TEST
  }
  hdf5_data_param {
    source: "/home/purduethu/scratch/radon/d/deng106/CNNStatisticalModel/distributions/input/20_distributions_100_sample_size_test-distributions-path.txt"
    batch_size: 20
  }
}
layer {
  name: "conv1"
  type: "Convolution"
  bottom: "data"
  top: "conv1"
  param {
    lr_mult: 1
  }
  param {
    lr_mult: 2
  }
  convolution_param {
    num_output: 64
    pad: 2
    kernel_size: 5
    stride: 1
    weight_filler {
      type: "gaussian"
      std: 0.0001
    }
    bias_filler {
      type: "constant"
    }
  }
}
layer {
  name: "relu1"
  type: "ReLU"
  bottom: "conv1"
  top: "conv1"
}
layer {
  name: "pool1"
  type: "Pooling"
  bottom: "conv1"
  top: "pool1"
  pooling_param {
    pool: MAX
    kernel_size: 3
    stride: 2
  }
}
layer {
  name: "conv2"
  type: "Convolution"
  bottom: "pool1"
  top: "conv2"
  param {
    lr_mult: 1
  }
  param {
    lr_mult: 2
  }
  convolution_param {
    num_output: 128
    pad: 2
    kernel_size: 5
    stride: 1
    weight_filler {
      type: "gaussian"
      std: 0.01
    }
    bias_filler {
      type: "constant"
    }
  }
}
layer {
  name: "relu2"
  type: "ReLU"
  bottom: "conv2"
  top: "conv2"
}
layer {
  name: "conv3"
  type: "Convolution"
  bottom: "conv2"
  top: "conv3"
  param {
    lr_mult: 1
  }
  param {
    lr_mult: 2
  }
  convolution_param {
    num_output: 128
    pad: 2
    kernel_size: 5
    stride: 1
    weight_filler {
      type: "gaussian"
      std: 0.01
    }
    bias_filler {
      type: "constant"
    }
  }
}
layer {
  name: "relu3"
  type: "ReLU"
  bottom: "conv3"
  top: "conv3"
}
layer {
  name: "pool3"
  type: "Pooling"
  bottom: "conv3"
  top: "pool3"
  pooling_param {
    pool: AVE
    kernel_size: 3
    stride: 2
  }
}
layer {
  name: "ip1"
  type: "InnerProduct"
  bottom: "pool3"
  top: "ip1"
  param {
    lr_mult: 1
  }
  param {
    lr_mult: 2
  }
  inner_product_param {
    num_output: 512
    weight_filler {
      type: "gaussian"
      std: 0.1
    }
    bias_filler {
      type: "constant"
    }
  }
}
layer {
  name: "ip2"
  type: "InnerProduct"
  bottom: "ip1"
  top: "ip2"
  param {
    lr_mult: 1
  }
  param {
    lr_mult: 2
  }
  inner_product_param {
    num_output: 256
    weight_filler {
      type: "gaussian"
      std: 0.1
    }
    bias_filler {
      type: "constant"
    }
  }
}
layer {
  name: "ip3"
  type: "InnerProduct"
  bottom: "ip2"
  top: "ip3"
  param {
    lr_mult: 1
  }
  param {
    lr_mult: 2
  }
  inner_product_param {
    num_output: 50
    weight_filler {
      type: "gaussian"
      std: 0.1
    }
    bias_filler {
      type: "constant"
    }
  }
}
layer {
  name: "accuracy"
  type: "Accuracy"
  bottom: "ip3"
  bottom: "label"
  top: "accuracy"
  include {
    phase: TEST
  }
}
layer {
  name: "loss"
  type: "SoftmaxWithLoss"
  bottom: "ip3"
  bottom: "label"
  top: "loss"
}
I0505 22:37:57.690441 10073 layer_factory.hpp:77] Creating layer intercept
I0505 22:37:57.690448 10073 net.cpp:94] Creating Layer intercept
I0505 22:37:57.690452 10073 net.cpp:409] intercept -> data
I0505 22:37:57.690459 10073 net.cpp:409] intercept -> label
I0505 22:37:57.690464 10073 hdf5_data_layer.cpp:79] Loading list of HDF5 filenames from: /home/purduethu/scratch/radon/d/deng106/CNNStatisticalModel/distributions/input/20_distributions_100_sample_size_test-distributions-path.txt
I0505 22:37:57.690484 10073 hdf5_data_layer.cpp:93] Number of HDF5 files: 1
I0505 22:37:57.707628 10073 net.cpp:144] Setting up intercept
I0505 22:37:57.707662 10073 net.cpp:151] Top shape: 20 1 10 10 (2000)
I0505 22:37:57.707667 10073 net.cpp:151] Top shape: 20 (20)
I0505 22:37:57.707670 10073 net.cpp:159] Memory required for data: 8080
I0505 22:37:57.707677 10073 layer_factory.hpp:77] Creating layer label_intercept_1_split
I0505 22:37:57.707695 10073 net.cpp:94] Creating Layer label_intercept_1_split
I0505 22:37:57.707700 10073 net.cpp:435] label_intercept_1_split <- label
I0505 22:37:57.707705 10073 net.cpp:409] label_intercept_1_split -> label_intercept_1_split_0
I0505 22:37:57.707713 10073 net.cpp:409] label_intercept_1_split -> label_intercept_1_split_1
I0505 22:37:57.707756 10073 net.cpp:144] Setting up label_intercept_1_split
I0505 22:37:57.707762 10073 net.cpp:151] Top shape: 20 (20)
I0505 22:37:57.707765 10073 net.cpp:151] Top shape: 20 (20)
I0505 22:37:57.707768 10073 net.cpp:159] Memory required for data: 8240
I0505 22:37:57.707772 10073 layer_factory.hpp:77] Creating layer conv1
I0505 22:37:57.707782 10073 net.cpp:94] Creating Layer conv1
I0505 22:37:57.707785 10073 net.cpp:435] conv1 <- data
I0505 22:37:57.707789 10073 net.cpp:409] conv1 -> conv1
I0505 22:37:57.708730 10073 net.cpp:144] Setting up conv1
I0505 22:37:57.708745 10073 net.cpp:151] Top shape: 20 64 10 10 (128000)
I0505 22:37:57.708747 10073 net.cpp:159] Memory required for data: 520240
I0505 22:37:57.708757 10073 layer_factory.hpp:77] Creating layer relu1
I0505 22:37:57.708763 10073 net.cpp:94] Creating Layer relu1
I0505 22:37:57.708767 10073 net.cpp:435] relu1 <- conv1
I0505 22:37:57.708771 10073 net.cpp:396] relu1 -> conv1 (in-place)
I0505 22:37:57.708778 10073 net.cpp:144] Setting up relu1
I0505 22:37:57.708783 10073 net.cpp:151] Top shape: 20 64 10 10 (128000)
I0505 22:37:57.708786 10073 net.cpp:159] Memory required for data: 1032240
I0505 22:37:57.708789 10073 layer_factory.hpp:77] Creating layer pool1
I0505 22:37:57.708796 10073 net.cpp:94] Creating Layer pool1
I0505 22:37:57.708798 10073 net.cpp:435] pool1 <- conv1
I0505 22:37:57.708803 10073 net.cpp:409] pool1 -> pool1
I0505 22:37:57.708860 10073 net.cpp:144] Setting up pool1
I0505 22:37:57.708866 10073 net.cpp:151] Top shape: 20 64 5 5 (32000)
I0505 22:37:57.708870 10073 net.cpp:159] Memory required for data: 1160240
I0505 22:37:57.708873 10073 layer_factory.hpp:77] Creating layer conv2
I0505 22:37:57.708881 10073 net.cpp:94] Creating Layer conv2
I0505 22:37:57.708884 10073 net.cpp:435] conv2 <- pool1
I0505 22:37:57.708890 10073 net.cpp:409] conv2 -> conv2
I0505 22:37:57.716367 10073 net.cpp:144] Setting up conv2
I0505 22:37:57.716380 10073 net.cpp:151] Top shape: 20 128 5 5 (64000)
I0505 22:37:57.716384 10073 net.cpp:159] Memory required for data: 1416240
I0505 22:37:57.716392 10073 layer_factory.hpp:77] Creating layer relu2
I0505 22:37:57.716404 10073 net.cpp:94] Creating Layer relu2
I0505 22:37:57.716408 10073 net.cpp:435] relu2 <- conv2
I0505 22:37:57.716413 10073 net.cpp:396] relu2 -> conv2 (in-place)
I0505 22:37:57.716420 10073 net.cpp:144] Setting up relu2
I0505 22:37:57.716424 10073 net.cpp:151] Top shape: 20 128 5 5 (64000)
I0505 22:37:57.716428 10073 net.cpp:159] Memory required for data: 1672240
I0505 22:37:57.716431 10073 layer_factory.hpp:77] Creating layer conv3
I0505 22:37:57.716439 10073 net.cpp:94] Creating Layer conv3
I0505 22:37:57.716441 10073 net.cpp:435] conv3 <- conv2
I0505 22:37:57.716446 10073 net.cpp:409] conv3 -> conv3
I0505 22:37:57.728889 10073 net.cpp:144] Setting up conv3
I0505 22:37:57.728904 10073 net.cpp:151] Top shape: 20 128 5 5 (64000)
I0505 22:37:57.728909 10073 net.cpp:159] Memory required for data: 1928240
I0505 22:37:57.728916 10073 layer_factory.hpp:77] Creating layer relu3
I0505 22:37:57.728924 10073 net.cpp:94] Creating Layer relu3
I0505 22:37:57.728927 10073 net.cpp:435] relu3 <- conv3
I0505 22:37:57.728931 10073 net.cpp:396] relu3 -> conv3 (in-place)
I0505 22:37:57.728938 10073 net.cpp:144] Setting up relu3
I0505 22:37:57.728942 10073 net.cpp:151] Top shape: 20 128 5 5 (64000)
I0505 22:37:57.728945 10073 net.cpp:159] Memory required for data: 2184240
I0505 22:37:57.728950 10073 layer_factory.hpp:77] Creating layer pool3
I0505 22:37:57.728955 10073 net.cpp:94] Creating Layer pool3
I0505 22:37:57.728957 10073 net.cpp:435] pool3 <- conv3
I0505 22:37:57.728961 10073 net.cpp:409] pool3 -> pool3
I0505 22:37:57.728999 10073 net.cpp:144] Setting up pool3
I0505 22:37:57.729007 10073 net.cpp:151] Top shape: 20 128 2 2 (10240)
I0505 22:37:57.729009 10073 net.cpp:159] Memory required for data: 2225200
I0505 22:37:57.729013 10073 layer_factory.hpp:77] Creating layer ip1
I0505 22:37:57.729019 10073 net.cpp:94] Creating Layer ip1
I0505 22:37:57.729023 10073 net.cpp:435] ip1 <- pool3
I0505 22:37:57.729027 10073 net.cpp:409] ip1 -> ip1
I0505 22:37:57.735244 10073 net.cpp:144] Setting up ip1
I0505 22:37:57.735254 10073 net.cpp:151] Top shape: 20 512 (10240)
I0505 22:37:57.735256 10073 net.cpp:159] Memory required for data: 2266160
I0505 22:37:57.735261 10073 layer_factory.hpp:77] Creating layer ip2
I0505 22:37:57.735268 10073 net.cpp:94] Creating Layer ip2
I0505 22:37:57.735271 10073 net.cpp:435] ip2 <- ip1
I0505 22:37:57.735276 10073 net.cpp:409] ip2 -> ip2
I0505 22:37:57.738453 10073 net.cpp:144] Setting up ip2
I0505 22:37:57.738462 10073 net.cpp:151] Top shape: 20 256 (5120)
I0505 22:37:57.738466 10073 net.cpp:159] Memory required for data: 2286640
I0505 22:37:57.738471 10073 layer_factory.hpp:77] Creating layer ip3
I0505 22:37:57.738477 10073 net.cpp:94] Creating Layer ip3
I0505 22:37:57.738481 10073 net.cpp:435] ip3 <- ip2
I0505 22:37:57.738484 10073 net.cpp:409] ip3 -> ip3
I0505 22:37:57.738912 10073 net.cpp:144] Setting up ip3
I0505 22:37:57.738919 10073 net.cpp:151] Top shape: 20 50 (1000)
I0505 22:37:57.738922 10073 net.cpp:159] Memory required for data: 2290640
I0505 22:37:57.738927 10073 layer_factory.hpp:77] Creating layer ip3_ip3_0_split
I0505 22:37:57.738932 10073 net.cpp:94] Creating Layer ip3_ip3_0_split
I0505 22:37:57.738935 10073 net.cpp:435] ip3_ip3_0_split <- ip3
I0505 22:37:57.738940 10073 net.cpp:409] ip3_ip3_0_split -> ip3_ip3_0_split_0
I0505 22:37:57.738945 10073 net.cpp:409] ip3_ip3_0_split -> ip3_ip3_0_split_1
I0505 22:37:57.738986 10073 net.cpp:144] Setting up ip3_ip3_0_split
I0505 22:37:57.738991 10073 net.cpp:151] Top shape: 20 50 (1000)
I0505 22:37:57.738996 10073 net.cpp:151] Top shape: 20 50 (1000)
I0505 22:37:57.738998 10073 net.cpp:159] Memory required for data: 2298640
I0505 22:37:57.739001 10073 layer_factory.hpp:77] Creating layer accuracy
I0505 22:37:57.739006 10073 net.cpp:94] Creating Layer accuracy
I0505 22:37:57.739009 10073 net.cpp:435] accuracy <- ip3_ip3_0_split_0
I0505 22:37:57.739013 10073 net.cpp:435] accuracy <- label_intercept_1_split_0
I0505 22:37:57.739017 10073 net.cpp:409] accuracy -> accuracy
…
