…
I0507 12:25:08.145876  1532 net.cpp:323] The NetState phase (0) differed from the phase (1) specified by a rule in layer intercept
I0507 12:25:08.145894  1532 net.cpp:323] The NetState phase (0) differed from the phase (1) specified by a rule in layer loss
I0507 12:25:08.145977  1532 net.cpp:52] Initializing net from parameters: 
state {
  phase: TRAIN
}
layer {
  name: "parameters"
  type: "HDF5Data"
  top: "data"
  top: "label"
  include {
    phase: TRAIN
  }
  hdf5_data_param {
    source: "/home/purduethu/scratch/radon/d/deng106/CNNStatisticalModel/distributions/input/20_distributions_400_sample_size_train-parameters-path.txt"
    batch_size: 20
  }
}
layer {
  name: "conv1"
  type: "Convolution"
  bottom: "data"
  top: "conv1"
  param {
    lr_mult: 1
  }
  param {
    lr_mult: 2
  }
  convolution_param {
    num_output: 64
    pad: 2
    kernel_size: 5
    stride: 1
    weight_filler {
      type: "gaussian"
      std: 0.0001
    }
    bias_filler {
      type: "constant"
    }
  }
}
layer {
  name: "relu1"
  type: "ReLU"
  bottom: "conv1"
  top: "conv1"
}
layer {
  name: "conv2"
  type: "Convolution"
  bottom: "conv1"
  top: "conv2"
  param {
    lr_mult: 1
  }
  param {
    lr_mult: 2
  }
  convolution_param {
    num_output: 64
    pad: 2
    kernel_size: 5
    stride: 1
    weight_filler {
      type: "gaussian"
      std: 0.01
    }
    bias_filler {
      type: "constant"
    }
  }
}
layer {
  name: "relu2"
  type: "ReLU"
  bottom: "conv2"
  top: "conv2"
}
layer {
  name: "pool2"
  type: "Pooling"
  bottom: "conv2"
  top: "pool2"
  pooling_param {
    pool: MAX
    kernel_size: 3
    stride: 2
  }
}
layer {
  name: "conv3"
  type: "Convolution"
  bottom: "pool2"
  top: "conv3"
  param {
    lr_mult: 1
  }
  param {
    lr_mult: 2
  }
  convolution_param {
    num_output: 64
    pad: 2
    kernel_size: 5
    stride: 1
    weight_filler {
      type: "gaussian"
      std: 0.01
    }
    bias_filler {
      type: "constant"
    }
  }
}
layer {
  name: "relu3"
  type: "ReLU"
  bottom: "conv3"
  top: "conv3"
}
layer {
  name: "conv4"
  type: "Convolution"
  bottom: "conv3"
  top: "conv4"
  param {
    lr_mult: 1
  }
  param {
    lr_mult: 2
  }
  convolution_param {
    num_output: 64
    pad: 2
    kernel_size: 5
    stride: 1
    weight_filler {
      type: "gaussian"
      std: 0.01
    }
    bias_filler {
      type: "constant"
    }
  }
}
layer {
  name: "relu4"
  type: "ReLU"
  bottom: "conv4"
  top: "conv4"
}
layer {
  name: "conv5"
  type: "Convolution"
  bottom: "conv4"
  top: "conv5"
  param {
    lr_mult: 1
  }
  param {
    lr_mult: 2
  }
  convolution_param {
    num_output: 64
    pad: 2
    kernel_size: 5
    stride: 1
    weight_filler {
      type: "gaussian"
      std: 0.01
    }
    bias_filler {
      type: "constant"
    }
  }
}
layer {
  name: "relu5"
  type: "ReLU"
  bottom: "conv5"
  top: "conv5"
}
layer {
  name: "pool5"
  type: "Pooling"
  bottom: "conv5"
  top: "pool5"
  pooling_param {
    pool: AVE
    kernel_size: 3
    stride: 2
  }
}
layer {
  name: "ip1"
  type: "InnerProduct"
  bottom: "pool5"
  top: "ip1"
  param {
    lr_mult: 1
  }
  param {
    lr_mult: 2
  }
  inner_product_param {
    num_output: 64
    weight_filler {
      type: "gaussian"
      std: 0.1
    }
    bias_filler {
      type: "constant"
    }
  }
}
layer {
  name: "ip2"
  type: "InnerProduct"
  bottom: "ip1"
  top: "ip2"
  param {
    lr_mult: 1
  }
  param {
    lr_mult: 2
  }
  inner_product_param {
    num_output: 64
    weight_filler {
      type: "gaussian"
      std: 0.1
    }
    bias_filler {
      type: "constant"
    }
  }
}
layer {
  name: "ip3"
  type: "InnerProduct"
  bottom: "ip2"
  top: "ip3"
  param {
    lr_mult: 1
  }
  param {
    lr_mult: 2
  }
  inner_product_param {
    num_output: 1
    weight_filler {
      type: "gaussian"
      std: 0.1
    }
    bias_filler {
      type: "constant"
    }
  }
}
layer {
  name: "loss"
  type: "HuberLoss"
  bottom: "ip3"
  bottom: "label"
  top: "loss"
  include {
    phase: TRAIN
  }
}
I0507 12:25:08.146034  1532 layer_factory.hpp:77] Creating layer parameters
I0507 12:25:08.146047  1532 net.cpp:94] Creating Layer parameters
I0507 12:25:08.146052  1532 net.cpp:409] parameters -> data
I0507 12:25:08.146061  1532 net.cpp:409] parameters -> label
I0507 12:25:08.146069  1532 hdf5_data_layer.cpp:79] Loading list of HDF5 filenames from: /home/purduethu/scratch/radon/d/deng106/CNNStatisticalModel/distributions/input/20_distributions_400_sample_size_train-parameters-path.txt
I0507 12:25:08.146088  1532 hdf5_data_layer.cpp:93] Number of HDF5 files: 1
I0507 12:25:08.146656  1532 hdf5.cpp:32] Datatype class: H5T_FLOAT
I0507 12:25:08.406381  1532 net.cpp:144] Setting up parameters
I0507 12:25:08.406410  1532 net.cpp:151] Top shape: 20 1 20 20 (8000)
I0507 12:25:08.406416  1532 net.cpp:151] Top shape: 20 (20)
I0507 12:25:08.406419  1532 net.cpp:159] Memory required for data: 32080
I0507 12:25:08.406426  1532 layer_factory.hpp:77] Creating layer conv1
I0507 12:25:08.406448  1532 net.cpp:94] Creating Layer conv1
I0507 12:25:08.406452  1532 net.cpp:435] conv1 <- data
I0507 12:25:08.406460  1532 net.cpp:409] conv1 -> conv1
I0507 12:25:08.411746  1532 net.cpp:144] Setting up conv1
I0507 12:25:08.411761  1532 net.cpp:151] Top shape: 20 64 20 20 (512000)
I0507 12:25:08.411765  1532 net.cpp:159] Memory required for data: 2080080
I0507 12:25:08.411775  1532 layer_factory.hpp:77] Creating layer relu1
I0507 12:25:08.411783  1532 net.cpp:94] Creating Layer relu1
I0507 12:25:08.411787  1532 net.cpp:435] relu1 <- conv1
I0507 12:25:08.411792  1532 net.cpp:396] relu1 -> conv1 (in-place)
I0507 12:25:08.411805  1532 net.cpp:144] Setting up relu1
I0507 12:25:08.411810  1532 net.cpp:151] Top shape: 20 64 20 20 (512000)
I0507 12:25:08.411813  1532 net.cpp:159] Memory required for data: 4128080
I0507 12:25:08.411818  1532 layer_factory.hpp:77] Creating layer conv2
I0507 12:25:08.411824  1532 net.cpp:94] Creating Layer conv2
I0507 12:25:08.411828  1532 net.cpp:435] conv2 <- conv1
I0507 12:25:08.411834  1532 net.cpp:409] conv2 -> conv2
I0507 12:25:08.422758  1532 net.cpp:144] Setting up conv2
I0507 12:25:08.422773  1532 net.cpp:151] Top shape: 20 64 20 20 (512000)
I0507 12:25:08.422777  1532 net.cpp:159] Memory required for data: 6176080
I0507 12:25:08.422785  1532 layer_factory.hpp:77] Creating layer relu2
I0507 12:25:08.422793  1532 net.cpp:94] Creating Layer relu2
I0507 12:25:08.422796  1532 net.cpp:435] relu2 <- conv2
I0507 12:25:08.422801  1532 net.cpp:396] relu2 -> conv2 (in-place)
I0507 12:25:08.422808  1532 net.cpp:144] Setting up relu2
I0507 12:25:08.422813  1532 net.cpp:151] Top shape: 20 64 20 20 (512000)
I0507 12:25:08.422816  1532 net.cpp:159] Memory required for data: 8224080
I0507 12:25:08.422819  1532 layer_factory.hpp:77] Creating layer pool2
I0507 12:25:08.422832  1532 net.cpp:94] Creating Layer pool2
I0507 12:25:08.422837  1532 net.cpp:435] pool2 <- conv2
I0507 12:25:08.422840  1532 net.cpp:409] pool2 -> pool2
I0507 12:25:08.422893  1532 net.cpp:144] Setting up pool2
I0507 12:25:08.422900  1532 net.cpp:151] Top shape: 20 64 10 10 (128000)
I0507 12:25:08.422904  1532 net.cpp:159] Memory required for data: 8736080
I0507 12:25:08.422907  1532 layer_factory.hpp:77] Creating layer conv3
I0507 12:25:08.422914  1532 net.cpp:94] Creating Layer conv3
I0507 12:25:08.422919  1532 net.cpp:435] conv3 <- pool2
I0507 12:25:08.422924  1532 net.cpp:409] conv3 -> conv3
I0507 12:25:08.428150  1532 net.cpp:144] Setting up conv3
I0507 12:25:08.428164  1532 net.cpp:151] Top shape: 20 64 10 10 (128000)
I0507 12:25:08.428169  1532 net.cpp:159] Memory required for data: 9248080
I0507 12:25:08.428176  1532 layer_factory.hpp:77] Creating layer relu3
I0507 12:25:08.428184  1532 net.cpp:94] Creating Layer relu3
I0507 12:25:08.428186  1532 net.cpp:435] relu3 <- conv3
I0507 12:25:08.428191  1532 net.cpp:396] relu3 -> conv3 (in-place)
I0507 12:25:08.428198  1532 net.cpp:144] Setting up relu3
I0507 12:25:08.428202  1532 net.cpp:151] Top shape: 20 64 10 10 (128000)
I0507 12:25:08.428205  1532 net.cpp:159] Memory required for data: 9760080
I0507 12:25:08.428210  1532 layer_factory.hpp:77] Creating layer conv4
I0507 12:25:08.428217  1532 net.cpp:94] Creating Layer conv4
I0507 12:25:08.428221  1532 net.cpp:435] conv4 <- conv3
I0507 12:25:08.428226  1532 net.cpp:409] conv4 -> conv4
I0507 12:25:08.433535  1532 net.cpp:144] Setting up conv4
I0507 12:25:08.433549  1532 net.cpp:151] Top shape: 20 64 10 10 (128000)
I0507 12:25:08.433553  1532 net.cpp:159] Memory required for data: 10272080
I0507 12:25:08.433559  1532 layer_factory.hpp:77] Creating layer relu4
I0507 12:25:08.433565  1532 net.cpp:94] Creating Layer relu4
I0507 12:25:08.433569  1532 net.cpp:435] relu4 <- conv4
I0507 12:25:08.433574  1532 net.cpp:396] relu4 -> conv4 (in-place)
I0507 12:25:08.433581  1532 net.cpp:144] Setting up relu4
I0507 12:25:08.433585  1532 net.cpp:151] Top shape: 20 64 10 10 (128000)
I0507 12:25:08.433588  1532 net.cpp:159] Memory required for data: 10784080
I0507 12:25:08.433591  1532 layer_factory.hpp:77] Creating layer conv5
I0507 12:25:08.433599  1532 net.cpp:94] Creating Layer conv5
I0507 12:25:08.433604  1532 net.cpp:435] conv5 <- conv4
I0507 12:25:08.433609  1532 net.cpp:409] conv5 -> conv5
I0507 12:25:08.439725  1532 net.cpp:144] Setting up conv5
I0507 12:25:08.439739  1532 net.cpp:151] Top shape: 20 64 10 10 (128000)
I0507 12:25:08.439743  1532 net.cpp:159] Memory required for data: 11296080
I0507 12:25:08.439752  1532 layer_factory.hpp:77] Creating layer relu5
I0507 12:25:08.439759  1532 net.cpp:94] Creating Layer relu5
I0507 12:25:08.439762  1532 net.cpp:435] relu5 <- conv5
I0507 12:25:08.439767  1532 net.cpp:396] relu5 -> conv5 (in-place)
I0507 12:25:08.439774  1532 net.cpp:144] Setting up relu5
I0507 12:25:08.439779  1532 net.cpp:151] Top shape: 20 64 10 10 (128000)
I0507 12:25:08.439782  1532 net.cpp:159] Memory required for data: 11808080
I0507 12:25:08.439785  1532 layer_factory.hpp:77] Creating layer pool5
I0507 12:25:08.439790  1532 net.cpp:94] Creating Layer pool5
I0507 12:25:08.439795  1532 net.cpp:435] pool5 <- conv5
I0507 12:25:08.439798  1532 net.cpp:409] pool5 -> pool5
I0507 12:25:08.439836  1532 net.cpp:144] Setting up pool5
I0507 12:25:08.439842  1532 net.cpp:151] Top shape: 20 64 5 5 (32000)
I0507 12:25:08.439846  1532 net.cpp:159] Memory required for data: 11936080
I0507 12:25:08.439849  1532 layer_factory.hpp:77] Creating layer ip1
I0507 12:25:08.439858  1532 net.cpp:94] Creating Layer ip1
I0507 12:25:08.439862  1532 net.cpp:435] ip1 <- pool5
I0507 12:25:08.439867  1532 net.cpp:409] ip1 -> ip1
I0507 12:25:08.442404  1532 net.cpp:144] Setting up ip1
I0507 12:25:08.442412  1532 net.cpp:151] Top shape: 20 64 (1280)
I0507 12:25:08.442415  1532 net.cpp:159] Memory required for data: 11941200
I0507 12:25:08.442421  1532 layer_factory.hpp:77] Creating layer ip2
I0507 12:25:08.442427  1532 net.cpp:94] Creating Layer ip2
I0507 12:25:08.442435  1532 net.cpp:435] ip2 <- ip1
I0507 12:25:08.442440  1532 net.cpp:409] ip2 -> ip2
I0507 12:25:08.442646  1532 net.cpp:144] Setting up ip2
I0507 12:25:08.442653  1532 net.cpp:151] Top shape: 20 64 (1280)
I0507 12:25:08.442657  1532 net.cpp:159] Memory required for data: 11946320
I0507 12:25:08.442662  1532 layer_factory.hpp:77] Creating layer ip3
I0507 12:25:08.442668  1532 net.cpp:94] Creating Layer ip3
I0507 12:25:08.442672  1532 net.cpp:435] ip3 <- ip2
I0507 12:25:08.442677  1532 net.cpp:409] ip3 -> ip3
I0507 12:25:08.442777  1532 net.cpp:144] Setting up ip3
I0507 12:25:08.442783  1532 net.cpp:151] Top shape: 20 1 (20)
I0507 12:25:08.442787  1532 net.cpp:159] Memory required for data: 11946400
I0507 12:25:08.442792  1532 layer_factory.hpp:77] Creating layer loss
I0507 12:25:08.442800  1532 net.cpp:94] Creating Layer loss
I0507 12:25:08.442803  1532 net.cpp:435] loss <- ip3
I0507 12:25:08.442807  1532 net.cpp:435] loss <- label
I0507 12:25:08.442811  1532 net.cpp:409] loss -> loss
I0507 12:25:08.442864  1532 net.cpp:144] Setting up loss
…
I0507 12:25:08.532555  1532 net.cpp:323] The NetState phase (0) differed from the phase (1) specified by a rule in layer intercept
I0507 12:25:08.532572  1532 net.cpp:323] The NetState phase (0) differed from the phase (1) specified by a rule in layer accuracy
I0507 12:25:08.532660  1532 net.cpp:52] Initializing net from parameters: 
state {
  phase: TRAIN
}
layer {
  name: "parameters"
  type: "HDF5Data"
  top: "data"
  top: "label"
  include {
    phase: TRAIN
  }
  hdf5_data_param {
    source: "/home/purduethu/scratch/radon/d/deng106/CNNStatisticalModel/distributions/input/20_distributions_400_sample_size_train-distributions-path.txt"
    batch_size: 20
  }
}
layer {
  name: "conv1"
  type: "Convolution"
  bottom: "data"
  top: "conv1"
  param {
    lr_mult: 1
  }
  param {
    lr_mult: 2
  }
  convolution_param {
    num_output: 64
    pad: 2
    kernel_size: 5
    stride: 1
    weight_filler {
      type: "gaussian"
      std: 0.0001
    }
    bias_filler {
      type: "constant"
    }
  }
}
layer {
  name: "relu1"
  type: "ReLU"
  bottom: "conv1"
  top: "conv1"
}
layer {
  name: "conv2"
  type: "Convolution"
  bottom: "conv1"
  top: "conv2"
  param {
    lr_mult: 1
  }
  param {
    lr_mult: 2
  }
  convolution_param {
    num_output: 64
    pad: 2
    kernel_size: 5
    stride: 1
    weight_filler {
      type: "gaussian"
      std: 0.01
    }
    bias_filler {
      type: "constant"
    }
  }
}
layer {
  name: "relu2"
  type: "ReLU"
  bottom: "conv2"
  top: "conv2"
}
layer {
  name: "pool2"
  type: "Pooling"
  bottom: "conv2"
  top: "pool2"
  pooling_param {
    pool: MAX
    kernel_size: 3
    stride: 2
  }
}
layer {
  name: "conv3"
  type: "Convolution"
  bottom: "pool2"
  top: "conv3"
  param {
    lr_mult: 1
  }
  param {
    lr_mult: 2
  }
  convolution_param {
    num_output: 64
    pad: 2
    kernel_size: 5
    stride: 1
    weight_filler {
      type: "gaussian"
      std: 0.01
    }
    bias_filler {
      type: "constant"
    }
  }
}
layer {
  name: "relu3"
  type: "ReLU"
  bottom: "conv3"
  top: "conv3"
}
layer {
  name: "conv4"
  type: "Convolution"
  bottom: "conv3"
  top: "conv4"
  param {
    lr_mult: 1
  }
  param {
    lr_mult: 2
  }
  convolution_param {
    num_output: 64
    pad: 2
    kernel_size: 5
    stride: 1
    weight_filler {
      type: "gaussian"
      std: 0.01
    }
    bias_filler {
      type: "constant"
    }
  }
}
layer {
  name: "relu4"
  type: "ReLU"
  bottom: "conv4"
  top: "conv4"
}
layer {
  name: "conv5"
  type: "Convolution"
  bottom: "conv4"
  top: "conv5"
  param {
    lr_mult: 1
  }
  param {
    lr_mult: 2
  }
  convolution_param {
    num_output: 64
    pad: 2
    kernel_size: 5
    stride: 1
    weight_filler {
      type: "gaussian"
      std: 0.01
    }
    bias_filler {
      type: "constant"
    }
  }
}
layer {
  name: "relu5"
  type: "ReLU"
  bottom: "conv5"
  top: "conv5"
}
layer {
  name: "pool5"
  type: "Pooling"
  bottom: "conv5"
  top: "pool5"
  pooling_param {
    pool: AVE
    kernel_size: 3
    stride: 2
  }
}
layer {
  name: "ip1"
  type: "InnerProduct"
  bottom: "pool5"
  top: "ip1"
  param {
    lr_mult: 1
  }
  param {
    lr_mult: 2
  }
  inner_product_param {
    num_output: 64
    weight_filler {
      type: "gaussian"
      std: 0.1
    }
    bias_filler {
      type: "constant"
    }
  }
}
layer {
  name: "ip2"
  type: "InnerProduct"
  bottom: "ip1"
  top: "ip2"
  param {
    lr_mult: 1
  }
  param {
    lr_mult: 2
  }
  inner_product_param {
    num_output: 64
    weight_filler {
      type: "gaussian"
      std: 0.1
    }
    bias_filler {
      type: "constant"
    }
  }
}
layer {
  name: "ip3"
  type: "InnerProduct"
  bottom: "ip2"
  top: "ip3"
  param {
    lr_mult: 1
  }
  param {
    lr_mult: 2
  }
  inner_product_param {
    num_output: 50
    weight_filler {
      type: "gaussian"
      std: 0.1
    }
    bias_filler {
      type: "constant"
    }
  }
}
layer {
  name: "loss"
  type: "SoftmaxWithLoss"
  bottom: "ip3"
  bottom: "label"
  top: "loss"
}
I0507 12:25:08.532712  1532 layer_factory.hpp:77] Creating layer parameters
I0507 12:25:08.532721  1532 net.cpp:94] Creating Layer parameters
I0507 12:25:08.532726  1532 net.cpp:409] parameters -> data
I0507 12:25:08.532732  1532 net.cpp:409] parameters -> label
I0507 12:25:08.532738  1532 hdf5_data_layer.cpp:79] Loading list of HDF5 filenames from: /home/purduethu/scratch/radon/d/deng106/CNNStatisticalModel/distributions/input/20_distributions_400_sample_size_train-distributions-path.txt
I0507 12:25:08.532757  1532 hdf5_data_layer.cpp:93] Number of HDF5 files: 1
I0507 12:25:08.786559  1532 hdf5.cpp:35] Datatype class: H5T_INTEGER
I0507 12:25:08.787573  1532 net.cpp:144] Setting up parameters
I0507 12:25:08.787587  1532 net.cpp:151] Top shape: 20 1 20 20 (8000)
I0507 12:25:08.787592  1532 net.cpp:151] Top shape: 20 (20)
I0507 12:25:08.787596  1532 net.cpp:159] Memory required for data: 32080
I0507 12:25:08.787602  1532 layer_factory.hpp:77] Creating layer conv1
I0507 12:25:08.787619  1532 net.cpp:94] Creating Layer conv1
I0507 12:25:08.787624  1532 net.cpp:435] conv1 <- data
I0507 12:25:08.787631  1532 net.cpp:409] conv1 -> conv1
I0507 12:25:08.790375  1532 net.cpp:144] Setting up conv1
I0507 12:25:08.790390  1532 net.cpp:151] Top shape: 20 64 20 20 (512000)
I0507 12:25:08.790395  1532 net.cpp:159] Memory required for data: 2080080
I0507 12:25:08.790405  1532 layer_factory.hpp:77] Creating layer relu1
I0507 12:25:08.790412  1532 net.cpp:94] Creating Layer relu1
I0507 12:25:08.790416  1532 net.cpp:435] relu1 <- conv1
I0507 12:25:08.790421  1532 net.cpp:396] relu1 -> conv1 (in-place)
I0507 12:25:08.790428  1532 net.cpp:144] Setting up relu1
I0507 12:25:08.790433  1532 net.cpp:151] Top shape: 20 64 20 20 (512000)
I0507 12:25:08.790436  1532 net.cpp:159] Memory required for data: 4128080
I0507 12:25:08.790439  1532 layer_factory.hpp:77] Creating layer conv2
I0507 12:25:08.790447  1532 net.cpp:94] Creating Layer conv2
I0507 12:25:08.790451  1532 net.cpp:435] conv2 <- conv1
I0507 12:25:08.790455  1532 net.cpp:409] conv2 -> conv2
I0507 12:25:08.800181  1532 net.cpp:144] Setting up conv2
I0507 12:25:08.800196  1532 net.cpp:151] Top shape: 20 64 20 20 (512000)
I0507 12:25:08.800200  1532 net.cpp:159] Memory required for data: 6176080
I0507 12:25:08.800209  1532 layer_factory.hpp:77] Creating layer relu2
I0507 12:25:08.800215  1532 net.cpp:94] Creating Layer relu2
I0507 12:25:08.800220  1532 net.cpp:435] relu2 <- conv2
I0507 12:25:08.800225  1532 net.cpp:396] relu2 -> conv2 (in-place)
I0507 12:25:08.800231  1532 net.cpp:144] Setting up relu2
I0507 12:25:08.800236  1532 net.cpp:151] Top shape: 20 64 20 20 (512000)
I0507 12:25:08.800240  1532 net.cpp:159] Memory required for data: 8224080
I0507 12:25:08.800242  1532 layer_factory.hpp:77] Creating layer pool2
I0507 12:25:08.800248  1532 net.cpp:94] Creating Layer pool2
I0507 12:25:08.800252  1532 net.cpp:435] pool2 <- conv2
I0507 12:25:08.800256  1532 net.cpp:409] pool2 -> pool2
I0507 12:25:08.800308  1532 net.cpp:144] Setting up pool2
I0507 12:25:08.800317  1532 net.cpp:151] Top shape: 20 64 10 10 (128000)
I0507 12:25:08.800319  1532 net.cpp:159] Memory required for data: 8736080
I0507 12:25:08.800323  1532 layer_factory.hpp:77] Creating layer conv3
I0507 12:25:08.800330  1532 net.cpp:94] Creating Layer conv3
I0507 12:25:08.800334  1532 net.cpp:435] conv3 <- pool2
I0507 12:25:08.800345  1532 net.cpp:409] conv3 -> conv3
I0507 12:25:08.806463  1532 net.cpp:144] Setting up conv3
I0507 12:25:08.806478  1532 net.cpp:151] Top shape: 20 64 10 10 (128000)
I0507 12:25:08.806481  1532 net.cpp:159] Memory required for data: 9248080
I0507 12:25:08.806489  1532 layer_factory.hpp:77] Creating layer relu3
I0507 12:25:08.806495  1532 net.cpp:94] Creating Layer relu3
I0507 12:25:08.806499  1532 net.cpp:435] relu3 <- conv3
I0507 12:25:08.806504  1532 net.cpp:396] relu3 -> conv3 (in-place)
I0507 12:25:08.806511  1532 net.cpp:144] Setting up relu3
I0507 12:25:08.806516  1532 net.cpp:151] Top shape: 20 64 10 10 (128000)
I0507 12:25:08.806519  1532 net.cpp:159] Memory required for data: 9760080
I0507 12:25:08.806522  1532 layer_factory.hpp:77] Creating layer conv4
I0507 12:25:08.806530  1532 net.cpp:94] Creating Layer conv4
I0507 12:25:08.806535  1532 net.cpp:435] conv4 <- conv3
I0507 12:25:08.806540  1532 net.cpp:409] conv4 -> conv4
I0507 12:25:08.811836  1532 net.cpp:144] Setting up conv4
I0507 12:25:08.811848  1532 net.cpp:151] Top shape: 20 64 10 10 (128000)
I0507 12:25:08.811852  1532 net.cpp:159] Memory required for data: 10272080
I0507 12:25:08.811859  1532 layer_factory.hpp:77] Creating layer relu4
I0507 12:25:08.811866  1532 net.cpp:94] Creating Layer relu4
I0507 12:25:08.811868  1532 net.cpp:435] relu4 <- conv4
I0507 12:25:08.811873  1532 net.cpp:396] relu4 -> conv4 (in-place)
I0507 12:25:08.811880  1532 net.cpp:144] Setting up relu4
I0507 12:25:08.811884  1532 net.cpp:151] Top shape: 20 64 10 10 (128000)
I0507 12:25:08.811888  1532 net.cpp:159] Memory required for data: 10784080
I0507 12:25:08.811892  1532 layer_factory.hpp:77] Creating layer conv5
I0507 12:25:08.811898  1532 net.cpp:94] Creating Layer conv5
I0507 12:25:08.811902  1532 net.cpp:435] conv5 <- conv4
I0507 12:25:08.811908  1532 net.cpp:409] conv5 -> conv5
I0507 12:25:08.817217  1532 net.cpp:144] Setting up conv5
I0507 12:25:08.817231  1532 net.cpp:151] Top shape: 20 64 10 10 (128000)
I0507 12:25:08.817235  1532 net.cpp:159] Memory required for data: 11296080
I0507 12:25:08.817245  1532 layer_factory.hpp:77] Creating layer relu5
I0507 12:25:08.817250  1532 net.cpp:94] Creating Layer relu5
I0507 12:25:08.817255  1532 net.cpp:435] relu5 <- conv5
I0507 12:25:08.817258  1532 net.cpp:396] relu5 -> conv5 (in-place)
I0507 12:25:08.817265  1532 net.cpp:144] Setting up relu5
I0507 12:25:08.817270  1532 net.cpp:151] Top shape: 20 64 10 10 (128000)
I0507 12:25:08.817273  1532 net.cpp:159] Memory required for data: 11808080
I0507 12:25:08.817276  1532 layer_factory.hpp:77] Creating layer pool5
I0507 12:25:08.817281  1532 net.cpp:94] Creating Layer pool5
I0507 12:25:08.817286  1532 net.cpp:435] pool5 <- conv5
I0507 12:25:08.817289  1532 net.cpp:409] pool5 -> pool5
I0507 12:25:08.817324  1532 net.cpp:144] Setting up pool5
I0507 12:25:08.817332  1532 net.cpp:151] Top shape: 20 64 5 5 (32000)
I0507 12:25:08.817335  1532 net.cpp:159] Memory required for data: 11936080
I0507 12:25:08.817338  1532 layer_factory.hpp:77] Creating layer ip1
I0507 12:25:08.817345  1532 net.cpp:94] Creating Layer ip1
I0507 12:25:08.817348  1532 net.cpp:435] ip1 <- pool5
I0507 12:25:08.817353  1532 net.cpp:409] ip1 -> ip1
I0507 12:25:08.819888  1532 net.cpp:144] Setting up ip1
I0507 12:25:08.819896  1532 net.cpp:151] Top shape: 20 64 (1280)
I0507 12:25:08.819900  1532 net.cpp:159] Memory required for data: 11941200
I0507 12:25:08.819905  1532 layer_factory.hpp:77] Creating layer ip2
I0507 12:25:08.819912  1532 net.cpp:94] Creating Layer ip2
I0507 12:25:08.819916  1532 net.cpp:435] ip2 <- ip1
I0507 12:25:08.819921  1532 net.cpp:409] ip2 -> ip2
I0507 12:25:08.820133  1532 net.cpp:144] Setting up ip2
I0507 12:25:08.820140  1532 net.cpp:151] Top shape: 20 64 (1280)
I0507 12:25:08.820144  1532 net.cpp:159] Memory required for data: 11946320
I0507 12:25:08.820149  1532 layer_factory.hpp:77] Creating layer ip3
I0507 12:25:08.820155  1532 net.cpp:94] Creating Layer ip3
I0507 12:25:08.820159  1532 net.cpp:435] ip3 <- ip2
I0507 12:25:08.820163  1532 net.cpp:409] ip3 -> ip3
I0507 12:25:08.820356  1532 net.cpp:144] Setting up ip3
I0507 12:25:08.820364  1532 net.cpp:151] Top shape: 20 50 (1000)
I0507 12:25:08.820368  1532 net.cpp:159] Memory required for data: 11950320
I0507 12:25:08.820372  1532 layer_factory.hpp:77] Creating layer loss
I0507 12:25:08.820379  1532 net.cpp:94] Creating Layer loss
I0507 12:25:08.820382  1532 net.cpp:435] loss <- ip3
I0507 12:25:08.820387  1532 net.cpp:435] loss <- label
I0507 12:25:08.820391  1532 net.cpp:409] loss -> loss
I0507 12:25:08.820399  1532 layer_factory.hpp:77] Creating layer loss
…
I0507 12:25:08.820919  1532 solver.cpp:181] Creating test net (#0) specified by net file: ./protocol/dis_20_400_dimension.protocol_distribution
I0507 12:25:08.820945  1532 net.cpp:323] The NetState phase (1) differed from the phase (0) specified by a rule in layer parameters
I0507 12:25:08.821041  1532 net.cpp:52] Initializing net from parameters: 
state {
  phase: TEST
}
layer {
  name: "intercept"
  type: "HDF5Data"
  top: "data"
  top: "label"
  include {
    phase: TEST
  }
  hdf5_data_param {
    source: "/home/purduethu/scratch/radon/d/deng106/CNNStatisticalModel/distributions/input/20_distributions_400_sample_size_test-distributions-path.txt"
    batch_size: 20
  }
}
layer {
  name: "conv1"
  type: "Convolution"
  bottom: "data"
  top: "conv1"
  param {
    lr_mult: 1
  }
  param {
    lr_mult: 2
  }
  convolution_param {
    num_output: 64
    pad: 2
    kernel_size: 5
    stride: 1
    weight_filler {
      type: "gaussian"
      std: 0.0001
    }
    bias_filler {
      type: "constant"
    }
  }
}
layer {
  name: "relu1"
  type: "ReLU"
  bottom: "conv1"
  top: "conv1"
}
layer {
  name: "conv2"
  type: "Convolution"
  bottom: "conv1"
  top: "conv2"
  param {
    lr_mult: 1
  }
  param {
    lr_mult: 2
  }
  convolution_param {
    num_output: 64
    pad: 2
    kernel_size: 5
    stride: 1
    weight_filler {
      type: "gaussian"
      std: 0.01
    }
    bias_filler {
      type: "constant"
    }
  }
}
layer {
  name: "relu2"
  type: "ReLU"
  bottom: "conv2"
  top: "conv2"
}
layer {
  name: "pool2"
  type: "Pooling"
  bottom: "conv2"
  top: "pool2"
  pooling_param {
    pool: MAX
    kernel_size: 3
    stride: 2
  }
}
layer {
  name: "conv3"
  type: "Convolution"
  bottom: "pool2"
  top: "conv3"
  param {
    lr_mult: 1
  }
  param {
    lr_mult: 2
  }
  convolution_param {
    num_output: 64
    pad: 2
    kernel_size: 5
    stride: 1
    weight_filler {
      type: "gaussian"
      std: 0.01
    }
    bias_filler {
      type: "constant"
    }
  }
}
layer {
  name: "relu3"
  type: "ReLU"
  bottom: "conv3"
  top: "conv3"
}
layer {
  name: "conv4"
  type: "Convolution"
  bottom: "conv3"
  top: "conv4"
  param {
    lr_mult: 1
  }
  param {
    lr_mult: 2
  }
  convolution_param {
    num_output: 64
    pad: 2
    kernel_size: 5
    stride: 1
    weight_filler {
      type: "gaussian"
      std: 0.01
    }
    bias_filler {
      type: "constant"
    }
  }
}
layer {
  name: "relu4"
  type: "ReLU"
  bottom: "conv4"
  top: "conv4"
}
layer {
  name: "conv5"
  type: "Convolution"
  bottom: "conv4"
  top: "conv5"
  param {
    lr_mult: 1
  }
  param {
    lr_mult: 2
  }
  convolution_param {
    num_output: 64
    pad: 2
    kernel_size: 5
    stride: 1
    weight_filler {
      type: "gaussian"
      std: 0.01
    }
    bias_filler {
      type: "constant"
    }
  }
}
layer {
  name: "relu5"
  type: "ReLU"
  bottom: "conv5"
  top: "conv5"
}
layer {
  name: "pool5"
  type: "Pooling"
  bottom: "conv5"
  top: "pool5"
  pooling_param {
    pool: AVE
    kernel_size: 3
    stride: 2
  }
}
layer {
  name: "ip1"
  type: "InnerProduct"
  bottom: "pool5"
  top: "ip1"
  param {
    lr_mult: 1
  }
  param {
    lr_mult: 2
  }
  inner_product_param {
    num_output: 64
    weight_filler {
      type: "gaussian"
      std: 0.1
    }
    bias_filler {
      type: "constant"
    }
  }
}
layer {
  name: "ip2"
  type: "InnerProduct"
  bottom: "ip1"
  top: "ip2"
  param {
    lr_mult: 1
  }
  param {
    lr_mult: 2
  }
  inner_product_param {
    num_output: 64
    weight_filler {
      type: "gaussian"
      std: 0.1
    }
    bias_filler {
      type: "constant"
    }
  }
}
layer {
  name: "ip3"
  type: "InnerProduct"
  bottom: "ip2"
  top: "ip3"
  param {
    lr_mult: 1
  }
  param {
    lr_mult: 2
  }
  inner_product_param {
    num_output: 50
    weight_filler {
      type: "gaussian"
      std: 0.1
    }
    bias_filler {
      type: "constant"
    }
  }
}
layer {
  name: "accuracy"
  type: "Accuracy"
  bottom: "ip3"
  bottom: "label"
  top: "accuracy"
  include {
    phase: TEST
  }
}
layer {
  name: "loss"
  type: "SoftmaxWithLoss"
  bottom: "ip3"
  bottom: "label"
  top: "loss"
}
I0507 12:25:08.821106  1532 layer_factory.hpp:77] Creating layer intercept
I0507 12:25:08.821115  1532 net.cpp:94] Creating Layer intercept
I0507 12:25:08.821120  1532 net.cpp:409] intercept -> data
I0507 12:25:08.821126  1532 net.cpp:409] intercept -> label
I0507 12:25:08.821132  1532 hdf5_data_layer.cpp:79] Loading list of HDF5 filenames from: /home/purduethu/scratch/radon/d/deng106/CNNStatisticalModel/distributions/input/20_distributions_400_sample_size_test-distributions-path.txt
I0507 12:25:08.821153  1532 hdf5_data_layer.cpp:93] Number of HDF5 files: 1
I0507 12:25:08.889189  1532 net.cpp:144] Setting up intercept
I0507 12:25:08.889222  1532 net.cpp:151] Top shape: 20 1 20 20 (8000)
I0507 12:25:08.889227  1532 net.cpp:151] Top shape: 20 (20)
I0507 12:25:08.889230  1532 net.cpp:159] Memory required for data: 32080
I0507 12:25:08.889237  1532 layer_factory.hpp:77] Creating layer label_intercept_1_split
I0507 12:25:08.889256  1532 net.cpp:94] Creating Layer label_intercept_1_split
I0507 12:25:08.889261  1532 net.cpp:435] label_intercept_1_split <- label
I0507 12:25:08.889266  1532 net.cpp:409] label_intercept_1_split -> label_intercept_1_split_0
I0507 12:25:08.889276  1532 net.cpp:409] label_intercept_1_split -> label_intercept_1_split_1
I0507 12:25:08.889317  1532 net.cpp:144] Setting up label_intercept_1_split
I0507 12:25:08.889322  1532 net.cpp:151] Top shape: 20 (20)
I0507 12:25:08.889327  1532 net.cpp:151] Top shape: 20 (20)
I0507 12:25:08.889329  1532 net.cpp:159] Memory required for data: 32240
I0507 12:25:08.889333  1532 layer_factory.hpp:77] Creating layer conv1
I0507 12:25:08.889344  1532 net.cpp:94] Creating Layer conv1
I0507 12:25:08.889348  1532 net.cpp:435] conv1 <- data
I0507 12:25:08.889353  1532 net.cpp:409] conv1 -> conv1
I0507 12:25:08.890705  1532 net.cpp:144] Setting up conv1
I0507 12:25:08.890727  1532 net.cpp:151] Top shape: 20 64 20 20 (512000)
I0507 12:25:08.890732  1532 net.cpp:159] Memory required for data: 2080240
I0507 12:25:08.890740  1532 layer_factory.hpp:77] Creating layer relu1
I0507 12:25:08.890748  1532 net.cpp:94] Creating Layer relu1
I0507 12:25:08.890753  1532 net.cpp:435] relu1 <- conv1
I0507 12:25:08.890756  1532 net.cpp:396] relu1 -> conv1 (in-place)
I0507 12:25:08.890764  1532 net.cpp:144] Setting up relu1
I0507 12:25:08.890769  1532 net.cpp:151] Top shape: 20 64 20 20 (512000)
I0507 12:25:08.890771  1532 net.cpp:159] Memory required for data: 4128240
I0507 12:25:08.890774  1532 layer_factory.hpp:77] Creating layer conv2
I0507 12:25:08.890782  1532 net.cpp:94] Creating Layer conv2
I0507 12:25:08.890786  1532 net.cpp:435] conv2 <- conv1
I0507 12:25:08.890791  1532 net.cpp:409] conv2 -> conv2
I0507 12:25:08.895700  1532 net.cpp:144] Setting up conv2
I0507 12:25:08.895714  1532 net.cpp:151] Top shape: 20 64 20 20 (512000)
I0507 12:25:08.895719  1532 net.cpp:159] Memory required for data: 6176240
I0507 12:25:08.895726  1532 layer_factory.hpp:77] Creating layer relu2
I0507 12:25:08.895732  1532 net.cpp:94] Creating Layer relu2
I0507 12:25:08.895736  1532 net.cpp:435] relu2 <- conv2
I0507 12:25:08.895740  1532 net.cpp:396] relu2 -> conv2 (in-place)
I0507 12:25:08.895747  1532 net.cpp:144] Setting up relu2
I0507 12:25:08.895752  1532 net.cpp:151] Top shape: 20 64 20 20 (512000)
I0507 12:25:08.895756  1532 net.cpp:159] Memory required for data: 8224240
I0507 12:25:08.895758  1532 layer_factory.hpp:77] Creating layer pool2
I0507 12:25:08.895764  1532 net.cpp:94] Creating Layer pool2
I0507 12:25:08.895767  1532 net.cpp:435] pool2 <- conv2
I0507 12:25:08.895771  1532 net.cpp:409] pool2 -> pool2
I0507 12:25:08.895823  1532 net.cpp:144] Setting up pool2
I0507 12:25:08.895830  1532 net.cpp:151] Top shape: 20 64 10 10 (128000)
I0507 12:25:08.895833  1532 net.cpp:159] Memory required for data: 8736240
I0507 12:25:08.895836  1532 layer_factory.hpp:77] Creating layer conv3
I0507 12:25:08.895844  1532 net.cpp:94] Creating Layer conv3
I0507 12:25:08.895848  1532 net.cpp:435] conv3 <- pool2
I0507 12:25:08.895853  1532 net.cpp:409] conv3 -> conv3
I0507 12:25:08.901417  1532 net.cpp:144] Setting up conv3
I0507 12:25:08.901432  1532 net.cpp:151] Top shape: 20 64 10 10 (128000)
I0507 12:25:08.901437  1532 net.cpp:159] Memory required for data: 9248240
I0507 12:25:08.901444  1532 layer_factory.hpp:77] Creating layer relu3
I0507 12:25:08.901453  1532 net.cpp:94] Creating Layer relu3
I0507 12:25:08.901456  1532 net.cpp:435] relu3 <- conv3
I0507 12:25:08.901460  1532 net.cpp:396] relu3 -> conv3 (in-place)
I0507 12:25:08.901468  1532 net.cpp:144] Setting up relu3
I0507 12:25:08.901473  1532 net.cpp:151] Top shape: 20 64 10 10 (128000)
I0507 12:25:08.901475  1532 net.cpp:159] Memory required for data: 9760240
I0507 12:25:08.901479  1532 layer_factory.hpp:77] Creating layer conv4
I0507 12:25:08.901486  1532 net.cpp:94] Creating Layer conv4
I0507 12:25:08.901490  1532 net.cpp:435] conv4 <- conv3
I0507 12:25:08.901495  1532 net.cpp:409] conv4 -> conv4
I0507 12:25:08.904997  1532 net.cpp:144] Setting up conv4
I0507 12:25:08.905010  1532 net.cpp:151] Top shape: 20 64 10 10 (128000)
I0507 12:25:08.905014  1532 net.cpp:159] Memory required for data: 10272240
I0507 12:25:08.905021  1532 layer_factory.hpp:77] Creating layer relu4
I0507 12:25:08.905026  1532 net.cpp:94] Creating Layer relu4
I0507 12:25:08.905030  1532 net.cpp:435] relu4 <- conv4
I0507 12:25:08.905035  1532 net.cpp:396] relu4 -> conv4 (in-place)
I0507 12:25:08.905042  1532 net.cpp:144] Setting up relu4
I0507 12:25:08.905046  1532 net.cpp:151] Top shape: 20 64 10 10 (128000)
I0507 12:25:08.905050  1532 net.cpp:159] Memory required for data: 10784240
I0507 12:25:08.905052  1532 layer_factory.hpp:77] Creating layer conv5
I0507 12:25:08.905059  1532 net.cpp:94] Creating Layer conv5
I0507 12:25:08.905063  1532 net.cpp:435] conv5 <- conv4
I0507 12:25:08.905068  1532 net.cpp:409] conv5 -> conv5
I0507 12:25:08.908947  1532 net.cpp:144] Setting up conv5
I0507 12:25:08.908964  1532 net.cpp:151] Top shape: 20 64 10 10 (128000)
I0507 12:25:08.908969  1532 net.cpp:159] Memory required for data: 11296240
I0507 12:25:08.908977  1532 layer_factory.hpp:77] Creating layer relu5
I0507 12:25:08.908983  1532 net.cpp:94] Creating Layer relu5
I0507 12:25:08.908987  1532 net.cpp:435] relu5 <- conv5
I0507 12:25:08.908993  1532 net.cpp:396] relu5 -> conv5 (in-place)
I0507 12:25:08.908999  1532 net.cpp:144] Setting up relu5
I0507 12:25:08.909003  1532 net.cpp:151] Top shape: 20 64 10 10 (128000)
I0507 12:25:08.909006  1532 net.cpp:159] Memory required for data: 11808240
I0507 12:25:08.909009  1532 layer_factory.hpp:77] Creating layer pool5
I0507 12:25:08.909014  1532 net.cpp:94] Creating Layer pool5
I0507 12:25:08.909018  1532 net.cpp:435] pool5 <- conv5
I0507 12:25:08.909023  1532 net.cpp:409] pool5 -> pool5
I0507 12:25:08.909057  1532 net.cpp:144] Setting up pool5
I0507 12:25:08.909065  1532 net.cpp:151] Top shape: 20 64 5 5 (32000)
I0507 12:25:08.909067  1532 net.cpp:159] Memory required for data: 11936240
I0507 12:25:08.909071  1532 layer_factory.hpp:77] Creating layer ip1
I0507 12:25:08.909077  1532 net.cpp:94] Creating Layer ip1
I0507 12:25:08.909081  1532 net.cpp:435] ip1 <- pool5
I0507 12:25:08.909086  1532 net.cpp:409] ip1 -> ip1
I0507 12:25:08.911623  1532 net.cpp:144] Setting up ip1
I0507 12:25:08.911631  1532 net.cpp:151] Top shape: 20 64 (1280)
I0507 12:25:08.911635  1532 net.cpp:159] Memory required for data: 11941360
I0507 12:25:08.911641  1532 layer_factory.hpp:77] Creating layer ip2
I0507 12:25:08.911648  1532 net.cpp:94] Creating Layer ip2
I0507 12:25:08.911650  1532 net.cpp:435] ip2 <- ip1
I0507 12:25:08.911655  1532 net.cpp:409] ip2 -> ip2
I0507 12:25:08.911880  1532 net.cpp:144] Setting up ip2
I0507 12:25:08.911887  1532 net.cpp:151] Top shape: 20 64 (1280)
I0507 12:25:08.911890  1532 net.cpp:159] Memory required for data: 11946480
I0507 12:25:08.911896  1532 layer_factory.hpp:77] Creating layer ip3
I0507 12:25:08.911903  1532 net.cpp:94] Creating Layer ip3
I0507 12:25:08.911907  1532 net.cpp:435] ip3 <- ip2
I0507 12:25:08.911913  1532 net.cpp:409] ip3 -> ip3
I0507 12:25:08.912113  1532 net.cpp:144] Setting up ip3
I0507 12:25:08.912120  1532 net.cpp:151] Top shape: 20 50 (1000)
I0507 12:25:08.912123  1532 net.cpp:159] Memory required for data: 11950480
I0507 12:25:08.912128  1532 layer_factory.hpp:77] Creating layer ip3_ip3_0_split
I0507 12:25:08.912133  1532 net.cpp:94] Creating Layer ip3_ip3_0_split
I0507 12:25:08.912137  1532 net.cpp:435] ip3_ip3_0_split <- ip3
I0507 12:25:08.912142  1532 net.cpp:409] ip3_ip3_0_split -> ip3_ip3_0_split_0
I0507 12:25:08.912147  1532 net.cpp:409] ip3_ip3_0_split -> ip3_ip3_0_split_1
I0507 12:25:08.912186  1532 net.cpp:144] Setting up ip3_ip3_0_split
I0507 12:25:08.912194  1532 net.cpp:151] Top shape: 20 50 (1000)
I0507 12:25:08.912197  1532 net.cpp:151] Top shape: 20 50 (1000)
I0507 12:25:08.912199  1532 net.cpp:159] Memory required for data: 11958480
I0507 12:25:08.912204  1532 layer_factory.hpp:77] Creating layer accuracy
I0507 12:25:08.912209  1532 net.cpp:94] Creating Layer accuracy
I0507 12:25:08.912214  1532 net.cpp:435] accuracy <- ip3_ip3_0_split_0
I0507 12:25:08.912217  1532 net.cpp:435] accuracy <- label_intercept_1_split_0
I0507 12:25:08.912221  1532 net.cpp:409] accuracy -> accuracy
…
