…
I0506 09:33:03.738425 21108 net.cpp:323] The NetState phase (0) differed from the phase (1) specified by a rule in layer intercept
I0506 09:33:03.738442 21108 net.cpp:323] The NetState phase (0) differed from the phase (1) specified by a rule in layer loss
I0506 09:33:03.738520 21108 net.cpp:52] Initializing net from parameters: 
state {
  phase: TRAIN
}
layer {
  name: "parameters"
  type: "HDF5Data"
  top: "data"
  top: "label"
  include {
    phase: TRAIN
  }
  hdf5_data_param {
    source: "/home/purduethu/scratch/radon/d/deng106/CNNStatisticalModel/distributions/input/50_distributions_100_sample_size_train-parameters-path.txt"
    batch_size: 20
  }
}
layer {
  name: "conv1"
  type: "Convolution"
  bottom: "data"
  top: "conv1"
  param {
    lr_mult: 1
  }
  param {
    lr_mult: 2
  }
  convolution_param {
    num_output: 64
    pad: 2
    kernel_size: 5
    stride: 1
    weight_filler {
      type: "gaussian"
      std: 0.0001
    }
    bias_filler {
      type: "constant"
    }
  }
}
layer {
  name: "relu1"
  type: "ReLU"
  bottom: "conv1"
  top: "conv1"
}
layer {
  name: "conv2"
  type: "Convolution"
  bottom: "conv1"
  top: "conv2"
  param {
    lr_mult: 1
  }
  param {
    lr_mult: 2
  }
  convolution_param {
    num_output: 64
    pad: 2
    kernel_size: 5
    stride: 1
    weight_filler {
      type: "gaussian"
      std: 0.01
    }
    bias_filler {
      type: "constant"
    }
  }
}
layer {
  name: "relu2"
  type: "ReLU"
  bottom: "conv2"
  top: "conv2"
}
layer {
  name: "pool2"
  type: "Pooling"
  bottom: "conv2"
  top: "pool2"
  pooling_param {
    pool: MAX
    kernel_size: 3
    stride: 2
  }
}
layer {
  name: "conv3"
  type: "Convolution"
  bottom: "pool2"
  top: "conv3"
  param {
    lr_mult: 1
  }
  param {
    lr_mult: 2
  }
  convolution_param {
    num_output: 128
    pad: 2
    kernel_size: 5
    stride: 1
    weight_filler {
      type: "gaussian"
      std: 0.01
    }
    bias_filler {
      type: "constant"
    }
  }
}
layer {
  name: "relu3"
  type: "ReLU"
  bottom: "conv3"
  top: "conv3"
}
layer {
  name: "conv4"
  type: "Convolution"
  bottom: "conv3"
  top: "conv4"
  param {
    lr_mult: 1
  }
  param {
    lr_mult: 2
  }
  convolution_param {
    num_output: 128
    pad: 2
    kernel_size: 5
    stride: 1
    weight_filler {
      type: "gaussian"
      std: 0.01
    }
    bias_filler {
      type: "constant"
    }
  }
}
layer {
  name: "relu4"
  type: "ReLU"
  bottom: "conv4"
  top: "conv4"
}
layer {
  name: "conv5"
  type: "Convolution"
  bottom: "conv4"
  top: "conv5"
  param {
    lr_mult: 1
  }
  param {
    lr_mult: 2
  }
  convolution_param {
    num_output: 128
    pad: 2
    kernel_size: 5
    stride: 1
    weight_filler {
      type: "gaussian"
      std: 0.01
    }
    bias_filler {
      type: "constant"
    }
  }
}
layer {
  name: "relu5"
  type: "ReLU"
  bottom: "conv5"
  top: "conv5"
}
layer {
  name: "pool5"
  type: "Pooling"
  bottom: "conv5"
  top: "pool5"
  pooling_param {
    pool: AVE
    kernel_size: 3
    stride: 2
  }
}
layer {
  name: "ip1"
  type: "InnerProduct"
  bottom: "pool5"
  top: "ip1"
  param {
    lr_mult: 1
  }
  param {
    lr_mult: 2
  }
  inner_product_param {
    num_output: 1024
    weight_filler {
      type: "gaussian"
      std: 0.1
    }
    bias_filler {
      type: "constant"
    }
  }
}
layer {
  name: "ip2"
  type: "InnerProduct"
  bottom: "ip1"
  top: "ip2"
  param {
    lr_mult: 1
  }
  param {
    lr_mult: 2
  }
  inner_product_param {
    num_output: 512
    weight_filler {
      type: "gaussian"
      std: 0.1
    }
    bias_filler {
      type: "constant"
    }
  }
}
layer {
  name: "ip3"
  type: "InnerProduct"
  bottom: "ip2"
  top: "ip3"
  param {
    lr_mult: 1
  }
  param {
    lr_mult: 2
  }
  inner_product_param {
    num_output: 1
    weight_filler {
      type: "gaussian"
      std: 0.1
    }
    bias_filler {
      type: "constant"
    }
  }
}
layer {
  name: "loss"
  type: "HuberLoss"
  bottom: "ip3"
  bottom: "label"
  top: "loss"
  include {
    phase: TRAIN
  }
}
I0506 09:33:03.738575 21108 layer_factory.hpp:77] Creating layer parameters
I0506 09:33:03.738587 21108 net.cpp:94] Creating Layer parameters
I0506 09:33:03.738592 21108 net.cpp:409] parameters -> data
I0506 09:33:03.738601 21108 net.cpp:409] parameters -> label
I0506 09:33:03.738607 21108 hdf5_data_layer.cpp:79] Loading list of HDF5 filenames from: /home/purduethu/scratch/radon/d/deng106/CNNStatisticalModel/distributions/input/50_distributions_100_sample_size_train-parameters-path.txt
I0506 09:33:03.738621 21108 hdf5_data_layer.cpp:93] Number of HDF5 files: 1
I0506 09:33:03.739166 21108 hdf5.cpp:32] Datatype class: H5T_FLOAT
I0506 09:33:03.900003 21108 net.cpp:144] Setting up parameters
I0506 09:33:03.900034 21108 net.cpp:151] Top shape: 20 1 10 10 (2000)
I0506 09:33:03.900039 21108 net.cpp:151] Top shape: 20 (20)
I0506 09:33:03.900043 21108 net.cpp:159] Memory required for data: 8080
I0506 09:33:03.900049 21108 layer_factory.hpp:77] Creating layer conv1
I0506 09:33:03.900071 21108 net.cpp:94] Creating Layer conv1
I0506 09:33:03.900075 21108 net.cpp:435] conv1 <- data
I0506 09:33:03.900081 21108 net.cpp:409] conv1 -> conv1
I0506 09:33:03.904264 21108 net.cpp:144] Setting up conv1
I0506 09:33:03.904279 21108 net.cpp:151] Top shape: 20 64 10 10 (128000)
I0506 09:33:03.904284 21108 net.cpp:159] Memory required for data: 520080
I0506 09:33:03.904294 21108 layer_factory.hpp:77] Creating layer relu1
I0506 09:33:03.904300 21108 net.cpp:94] Creating Layer relu1
I0506 09:33:03.904304 21108 net.cpp:435] relu1 <- conv1
I0506 09:33:03.904309 21108 net.cpp:396] relu1 -> conv1 (in-place)
I0506 09:33:03.904320 21108 net.cpp:144] Setting up relu1
I0506 09:33:03.904323 21108 net.cpp:151] Top shape: 20 64 10 10 (128000)
I0506 09:33:03.904326 21108 net.cpp:159] Memory required for data: 1032080
I0506 09:33:03.904330 21108 layer_factory.hpp:77] Creating layer conv2
I0506 09:33:03.904337 21108 net.cpp:94] Creating Layer conv2
I0506 09:33:03.904340 21108 net.cpp:435] conv2 <- conv1
I0506 09:33:03.904345 21108 net.cpp:409] conv2 -> conv2
I0506 09:33:03.910388 21108 net.cpp:144] Setting up conv2
I0506 09:33:03.910403 21108 net.cpp:151] Top shape: 20 64 10 10 (128000)
I0506 09:33:03.910408 21108 net.cpp:159] Memory required for data: 1544080
I0506 09:33:03.910415 21108 layer_factory.hpp:77] Creating layer relu2
I0506 09:33:03.910423 21108 net.cpp:94] Creating Layer relu2
I0506 09:33:03.910425 21108 net.cpp:435] relu2 <- conv2
I0506 09:33:03.910430 21108 net.cpp:396] relu2 -> conv2 (in-place)
I0506 09:33:03.910437 21108 net.cpp:144] Setting up relu2
I0506 09:33:03.910441 21108 net.cpp:151] Top shape: 20 64 10 10 (128000)
I0506 09:33:03.910444 21108 net.cpp:159] Memory required for data: 2056080
I0506 09:33:03.910447 21108 layer_factory.hpp:77] Creating layer pool2
I0506 09:33:03.910452 21108 net.cpp:94] Creating Layer pool2
I0506 09:33:03.910455 21108 net.cpp:435] pool2 <- conv2
I0506 09:33:03.910459 21108 net.cpp:409] pool2 -> pool2
I0506 09:33:03.910509 21108 net.cpp:144] Setting up pool2
I0506 09:33:03.910516 21108 net.cpp:151] Top shape: 20 64 5 5 (32000)
I0506 09:33:03.910519 21108 net.cpp:159] Memory required for data: 2184080
I0506 09:33:03.910523 21108 layer_factory.hpp:77] Creating layer conv3
I0506 09:33:03.910531 21108 net.cpp:94] Creating Layer conv3
I0506 09:33:03.910542 21108 net.cpp:435] conv3 <- pool2
I0506 09:33:03.910547 21108 net.cpp:409] conv3 -> conv3
I0506 09:33:03.918756 21108 net.cpp:144] Setting up conv3
I0506 09:33:03.918771 21108 net.cpp:151] Top shape: 20 128 5 5 (64000)
I0506 09:33:03.918773 21108 net.cpp:159] Memory required for data: 2440080
I0506 09:33:03.918781 21108 layer_factory.hpp:77] Creating layer relu3
I0506 09:33:03.918788 21108 net.cpp:94] Creating Layer relu3
I0506 09:33:03.918792 21108 net.cpp:435] relu3 <- conv3
I0506 09:33:03.918795 21108 net.cpp:396] relu3 -> conv3 (in-place)
I0506 09:33:03.918802 21108 net.cpp:144] Setting up relu3
I0506 09:33:03.918807 21108 net.cpp:151] Top shape: 20 128 5 5 (64000)
I0506 09:33:03.918809 21108 net.cpp:159] Memory required for data: 2696080
I0506 09:33:03.918812 21108 layer_factory.hpp:77] Creating layer conv4
I0506 09:33:03.918820 21108 net.cpp:94] Creating Layer conv4
I0506 09:33:03.918823 21108 net.cpp:435] conv4 <- conv3
I0506 09:33:03.918828 21108 net.cpp:409] conv4 -> conv4
I0506 09:33:03.933881 21108 net.cpp:144] Setting up conv4
I0506 09:33:03.933900 21108 net.cpp:151] Top shape: 20 128 5 5 (64000)
I0506 09:33:03.933904 21108 net.cpp:159] Memory required for data: 2952080
I0506 09:33:03.933912 21108 layer_factory.hpp:77] Creating layer relu4
I0506 09:33:03.933917 21108 net.cpp:94] Creating Layer relu4
I0506 09:33:03.933921 21108 net.cpp:435] relu4 <- conv4
I0506 09:33:03.933926 21108 net.cpp:396] relu4 -> conv4 (in-place)
I0506 09:33:03.933933 21108 net.cpp:144] Setting up relu4
I0506 09:33:03.933938 21108 net.cpp:151] Top shape: 20 128 5 5 (64000)
I0506 09:33:03.933940 21108 net.cpp:159] Memory required for data: 3208080
I0506 09:33:03.933943 21108 layer_factory.hpp:77] Creating layer conv5
I0506 09:33:03.933951 21108 net.cpp:94] Creating Layer conv5
I0506 09:33:03.933954 21108 net.cpp:435] conv5 <- conv4
I0506 09:33:03.933959 21108 net.cpp:409] conv5 -> conv5
I0506 09:33:03.948429 21108 net.cpp:144] Setting up conv5
I0506 09:33:03.948447 21108 net.cpp:151] Top shape: 20 128 5 5 (64000)
I0506 09:33:03.948451 21108 net.cpp:159] Memory required for data: 3464080
I0506 09:33:03.948460 21108 layer_factory.hpp:77] Creating layer relu5
I0506 09:33:03.948467 21108 net.cpp:94] Creating Layer relu5
I0506 09:33:03.948472 21108 net.cpp:435] relu5 <- conv5
I0506 09:33:03.948475 21108 net.cpp:396] relu5 -> conv5 (in-place)
I0506 09:33:03.948482 21108 net.cpp:144] Setting up relu5
I0506 09:33:03.948487 21108 net.cpp:151] Top shape: 20 128 5 5 (64000)
I0506 09:33:03.948490 21108 net.cpp:159] Memory required for data: 3720080
I0506 09:33:03.948493 21108 layer_factory.hpp:77] Creating layer pool5
I0506 09:33:03.948498 21108 net.cpp:94] Creating Layer pool5
I0506 09:33:03.948501 21108 net.cpp:435] pool5 <- conv5
I0506 09:33:03.948505 21108 net.cpp:409] pool5 -> pool5
I0506 09:33:03.948545 21108 net.cpp:144] Setting up pool5
I0506 09:33:03.948565 21108 net.cpp:151] Top shape: 20 128 2 2 (10240)
I0506 09:33:03.948570 21108 net.cpp:159] Memory required for data: 3761040
I0506 09:33:03.948572 21108 layer_factory.hpp:77] Creating layer ip1
I0506 09:33:03.948582 21108 net.cpp:94] Creating Layer ip1
I0506 09:33:03.948586 21108 net.cpp:435] ip1 <- pool5
I0506 09:33:03.948591 21108 net.cpp:409] ip1 -> ip1
I0506 09:33:03.962426 21108 net.cpp:144] Setting up ip1
I0506 09:33:03.962446 21108 net.cpp:151] Top shape: 20 1024 (20480)
I0506 09:33:03.962450 21108 net.cpp:159] Memory required for data: 3842960
I0506 09:33:03.962456 21108 layer_factory.hpp:77] Creating layer ip2
I0506 09:33:03.962465 21108 net.cpp:94] Creating Layer ip2
I0506 09:33:03.962468 21108 net.cpp:435] ip2 <- ip1
I0506 09:33:03.962473 21108 net.cpp:409] ip2 -> ip2
I0506 09:33:03.975405 21108 net.cpp:144] Setting up ip2
I0506 09:33:03.975421 21108 net.cpp:151] Top shape: 20 512 (10240)
I0506 09:33:03.975425 21108 net.cpp:159] Memory required for data: 3883920
I0506 09:33:03.975431 21108 layer_factory.hpp:77] Creating layer ip3
I0506 09:33:03.975438 21108 net.cpp:94] Creating Layer ip3
I0506 09:33:03.975442 21108 net.cpp:435] ip3 <- ip2
I0506 09:33:03.975453 21108 net.cpp:409] ip3 -> ip3
I0506 09:33:03.975564 21108 net.cpp:144] Setting up ip3
I0506 09:33:03.975571 21108 net.cpp:151] Top shape: 20 1 (20)
I0506 09:33:03.975574 21108 net.cpp:159] Memory required for data: 3884000
I0506 09:33:03.975579 21108 layer_factory.hpp:77] Creating layer loss
I0506 09:33:03.975586 21108 net.cpp:94] Creating Layer loss
I0506 09:33:03.975589 21108 net.cpp:435] loss <- ip3
I0506 09:33:03.975594 21108 net.cpp:435] loss <- label
I0506 09:33:03.975597 21108 net.cpp:409] loss -> loss
I0506 09:33:03.975651 21108 net.cpp:144] Setting up loss
…
I0506 09:33:04.081568 21108 net.cpp:323] The NetState phase (0) differed from the phase (1) specified by a rule in layer intercept
I0506 09:33:04.081583 21108 net.cpp:323] The NetState phase (0) differed from the phase (1) specified by a rule in layer accuracy
I0506 09:33:04.081668 21108 net.cpp:52] Initializing net from parameters: 
state {
  phase: TRAIN
}
layer {
  name: "parameters"
  type: "HDF5Data"
  top: "data"
  top: "label"
  include {
    phase: TRAIN
  }
  hdf5_data_param {
    source: "/home/purduethu/scratch/radon/d/deng106/CNNStatisticalModel/distributions/input/50_distributions_100_sample_size_train-distributions-path.txt"
    batch_size: 20
  }
}
layer {
  name: "conv1"
  type: "Convolution"
  bottom: "data"
  top: "conv1"
  param {
    lr_mult: 1
  }
  param {
    lr_mult: 2
  }
  convolution_param {
    num_output: 64
    pad: 2
    kernel_size: 5
    stride: 1
    weight_filler {
      type: "gaussian"
      std: 0.0001
    }
    bias_filler {
      type: "constant"
    }
  }
}
layer {
  name: "relu1"
  type: "ReLU"
  bottom: "conv1"
  top: "conv1"
}
layer {
  name: "conv2"
  type: "Convolution"
  bottom: "conv1"
  top: "conv2"
  param {
    lr_mult: 1
  }
  param {
    lr_mult: 2
  }
  convolution_param {
    num_output: 64
    pad: 2
    kernel_size: 5
    stride: 1
    weight_filler {
      type: "gaussian"
      std: 0.01
    }
    bias_filler {
      type: "constant"
    }
  }
}
layer {
  name: "relu2"
  type: "ReLU"
  bottom: "conv2"
  top: "conv2"
}
layer {
  name: "pool2"
  type: "Pooling"
  bottom: "conv2"
  top: "pool2"
  pooling_param {
    pool: MAX
    kernel_size: 3
    stride: 2
  }
}
layer {
  name: "conv3"
  type: "Convolution"
  bottom: "pool2"
  top: "conv3"
  param {
    lr_mult: 1
  }
  param {
    lr_mult: 2
  }
  convolution_param {
    num_output: 128
    pad: 2
    kernel_size: 5
    stride: 1
    weight_filler {
      type: "gaussian"
      std: 0.01
    }
    bias_filler {
      type: "constant"
    }
  }
}
layer {
  name: "relu3"
  type: "ReLU"
  bottom: "conv3"
  top: "conv3"
}
layer {
  name: "conv4"
  type: "Convolution"
  bottom: "conv3"
  top: "conv4"
  param {
    lr_mult: 1
  }
  param {
    lr_mult: 2
  }
  convolution_param {
    num_output: 128
    pad: 2
    kernel_size: 5
    stride: 1
    weight_filler {
      type: "gaussian"
      std: 0.01
    }
    bias_filler {
      type: "constant"
    }
  }
}
layer {
  name: "relu4"
  type: "ReLU"
  bottom: "conv4"
  top: "conv4"
}
layer {
  name: "conv5"
  type: "Convolution"
  bottom: "conv4"
  top: "conv5"
  param {
    lr_mult: 1
  }
  param {
    lr_mult: 2
  }
  convolution_param {
    num_output: 128
    pad: 2
    kernel_size: 5
    stride: 1
    weight_filler {
      type: "gaussian"
      std: 0.01
    }
    bias_filler {
      type: "constant"
    }
  }
}
layer {
  name: "relu5"
  type: "ReLU"
  bottom: "conv5"
  top: "conv5"
}
layer {
  name: "pool5"
  type: "Pooling"
  bottom: "conv5"
  top: "pool5"
  pooling_param {
    pool: AVE
    kernel_size: 3
    stride: 2
  }
}
layer {
  name: "ip1"
  type: "InnerProduct"
  bottom: "pool5"
  top: "ip1"
  param {
    lr_mult: 1
  }
  param {
    lr_mult: 2
  }
  inner_product_param {
    num_output: 1024
    weight_filler {
      type: "gaussian"
      std: 0.1
    }
    bias_filler {
      type: "constant"
    }
  }
}
layer {
  name: "ip2"
  type: "InnerProduct"
  bottom: "ip1"
  top: "ip2"
  param {
    lr_mult: 1
  }
  param {
    lr_mult: 2
  }
  inner_product_param {
    num_output: 512
    weight_filler {
      type: "gaussian"
      std: 0.1
    }
    bias_filler {
      type: "constant"
    }
  }
}
layer {
  name: "ip3"
  type: "InnerProduct"
  bottom: "ip2"
  top: "ip3"
  param {
    lr_mult: 1
  }
  param {
    lr_mult: 2
  }
  inner_product_param {
    num_output: 50
    weight_filler {
      type: "gaussian"
      std: 0.1
    }
    bias_filler {
      type: "constant"
    }
  }
}
layer {
  name: "loss"
  type: "SoftmaxWithLoss"
  bottom: "ip3"
  bottom: "label"
  top: "loss"
}
I0506 09:33:04.081719 21108 layer_factory.hpp:77] Creating layer parameters
I0506 09:33:04.081727 21108 net.cpp:94] Creating Layer parameters
I0506 09:33:04.081730 21108 net.cpp:409] parameters -> data
I0506 09:33:04.081737 21108 net.cpp:409] parameters -> label
I0506 09:33:04.081743 21108 hdf5_data_layer.cpp:79] Loading list of HDF5 filenames from: /home/purduethu/scratch/radon/d/deng106/CNNStatisticalModel/distributions/input/50_distributions_100_sample_size_train-distributions-path.txt
I0506 09:33:04.081758 21108 hdf5_data_layer.cpp:93] Number of HDF5 files: 1
I0506 09:33:04.237069 21108 hdf5.cpp:35] Datatype class: H5T_INTEGER
I0506 09:33:04.240064 21108 net.cpp:144] Setting up parameters
I0506 09:33:04.240083 21108 net.cpp:151] Top shape: 20 1 10 10 (2000)
I0506 09:33:04.240087 21108 net.cpp:151] Top shape: 20 (20)
I0506 09:33:04.240092 21108 net.cpp:159] Memory required for data: 8080
I0506 09:33:04.240097 21108 layer_factory.hpp:77] Creating layer conv1
I0506 09:33:04.240113 21108 net.cpp:94] Creating Layer conv1
I0506 09:33:04.240118 21108 net.cpp:435] conv1 <- data
I0506 09:33:04.240123 21108 net.cpp:409] conv1 -> conv1
I0506 09:33:04.241827 21108 net.cpp:144] Setting up conv1
I0506 09:33:04.241840 21108 net.cpp:151] Top shape: 20 64 10 10 (128000)
I0506 09:33:04.241844 21108 net.cpp:159] Memory required for data: 520080
I0506 09:33:04.241853 21108 layer_factory.hpp:77] Creating layer relu1
I0506 09:33:04.241861 21108 net.cpp:94] Creating Layer relu1
I0506 09:33:04.241864 21108 net.cpp:435] relu1 <- conv1
I0506 09:33:04.241869 21108 net.cpp:396] relu1 -> conv1 (in-place)
I0506 09:33:04.241875 21108 net.cpp:144] Setting up relu1
I0506 09:33:04.241880 21108 net.cpp:151] Top shape: 20 64 10 10 (128000)
I0506 09:33:04.241883 21108 net.cpp:159] Memory required for data: 1032080
I0506 09:33:04.241885 21108 layer_factory.hpp:77] Creating layer conv2
I0506 09:33:04.241894 21108 net.cpp:94] Creating Layer conv2
I0506 09:33:04.241896 21108 net.cpp:435] conv2 <- conv1
I0506 09:33:04.241900 21108 net.cpp:409] conv2 -> conv2
I0506 09:33:04.247222 21108 net.cpp:144] Setting up conv2
I0506 09:33:04.247236 21108 net.cpp:151] Top shape: 20 64 10 10 (128000)
I0506 09:33:04.247239 21108 net.cpp:159] Memory required for data: 1544080
I0506 09:33:04.247247 21108 layer_factory.hpp:77] Creating layer relu2
I0506 09:33:04.247253 21108 net.cpp:94] Creating Layer relu2
I0506 09:33:04.247257 21108 net.cpp:435] relu2 <- conv2
I0506 09:33:04.247262 21108 net.cpp:396] relu2 -> conv2 (in-place)
I0506 09:33:04.247268 21108 net.cpp:144] Setting up relu2
I0506 09:33:04.247272 21108 net.cpp:151] Top shape: 20 64 10 10 (128000)
I0506 09:33:04.247275 21108 net.cpp:159] Memory required for data: 2056080
I0506 09:33:04.247278 21108 layer_factory.hpp:77] Creating layer pool2
I0506 09:33:04.247284 21108 net.cpp:94] Creating Layer pool2
I0506 09:33:04.247287 21108 net.cpp:435] pool2 <- conv2
I0506 09:33:04.247292 21108 net.cpp:409] pool2 -> pool2
I0506 09:33:04.247340 21108 net.cpp:144] Setting up pool2
I0506 09:33:04.247347 21108 net.cpp:151] Top shape: 20 64 5 5 (32000)
I0506 09:33:04.247350 21108 net.cpp:159] Memory required for data: 2184080
I0506 09:33:04.247354 21108 layer_factory.hpp:77] Creating layer conv3
I0506 09:33:04.247360 21108 net.cpp:94] Creating Layer conv3
I0506 09:33:04.247364 21108 net.cpp:435] conv3 <- pool2
I0506 09:33:04.247369 21108 net.cpp:409] conv3 -> conv3
I0506 09:33:04.255893 21108 net.cpp:144] Setting up conv3
I0506 09:33:04.255909 21108 net.cpp:151] Top shape: 20 128 5 5 (64000)
I0506 09:33:04.255913 21108 net.cpp:159] Memory required for data: 2440080
I0506 09:33:04.255921 21108 layer_factory.hpp:77] Creating layer relu3
I0506 09:33:04.255928 21108 net.cpp:94] Creating Layer relu3
I0506 09:33:04.255930 21108 net.cpp:435] relu3 <- conv3
I0506 09:33:04.255935 21108 net.cpp:396] relu3 -> conv3 (in-place)
I0506 09:33:04.255949 21108 net.cpp:144] Setting up relu3
I0506 09:33:04.255954 21108 net.cpp:151] Top shape: 20 128 5 5 (64000)
I0506 09:33:04.255956 21108 net.cpp:159] Memory required for data: 2696080
I0506 09:33:04.255959 21108 layer_factory.hpp:77] Creating layer conv4
I0506 09:33:04.255969 21108 net.cpp:94] Creating Layer conv4
I0506 09:33:04.255971 21108 net.cpp:435] conv4 <- conv3
I0506 09:33:04.255976 21108 net.cpp:409] conv4 -> conv4
I0506 09:33:04.270793 21108 net.cpp:144] Setting up conv4
I0506 09:33:04.270812 21108 net.cpp:151] Top shape: 20 128 5 5 (64000)
I0506 09:33:04.270817 21108 net.cpp:159] Memory required for data: 2952080
I0506 09:33:04.270823 21108 layer_factory.hpp:77] Creating layer relu4
I0506 09:33:04.270830 21108 net.cpp:94] Creating Layer relu4
I0506 09:33:04.270833 21108 net.cpp:435] relu4 <- conv4
I0506 09:33:04.270838 21108 net.cpp:396] relu4 -> conv4 (in-place)
I0506 09:33:04.270846 21108 net.cpp:144] Setting up relu4
I0506 09:33:04.270850 21108 net.cpp:151] Top shape: 20 128 5 5 (64000)
I0506 09:33:04.270853 21108 net.cpp:159] Memory required for data: 3208080
I0506 09:33:04.270856 21108 layer_factory.hpp:77] Creating layer conv5
I0506 09:33:04.270864 21108 net.cpp:94] Creating Layer conv5
I0506 09:33:04.270866 21108 net.cpp:435] conv5 <- conv4
I0506 09:33:04.270871 21108 net.cpp:409] conv5 -> conv5
I0506 09:33:04.285856 21108 net.cpp:144] Setting up conv5
I0506 09:33:04.285871 21108 net.cpp:151] Top shape: 20 128 5 5 (64000)
I0506 09:33:04.285874 21108 net.cpp:159] Memory required for data: 3464080
I0506 09:33:04.285886 21108 layer_factory.hpp:77] Creating layer relu5
I0506 09:33:04.285892 21108 net.cpp:94] Creating Layer relu5
I0506 09:33:04.285895 21108 net.cpp:435] relu5 <- conv5
I0506 09:33:04.285900 21108 net.cpp:396] relu5 -> conv5 (in-place)
I0506 09:33:04.285907 21108 net.cpp:144] Setting up relu5
I0506 09:33:04.285912 21108 net.cpp:151] Top shape: 20 128 5 5 (64000)
I0506 09:33:04.285914 21108 net.cpp:159] Memory required for data: 3720080
I0506 09:33:04.285917 21108 layer_factory.hpp:77] Creating layer pool5
I0506 09:33:04.285923 21108 net.cpp:94] Creating Layer pool5
I0506 09:33:04.285925 21108 net.cpp:435] pool5 <- conv5
I0506 09:33:04.285929 21108 net.cpp:409] pool5 -> pool5
I0506 09:33:04.285966 21108 net.cpp:144] Setting up pool5
I0506 09:33:04.285974 21108 net.cpp:151] Top shape: 20 128 2 2 (10240)
I0506 09:33:04.285976 21108 net.cpp:159] Memory required for data: 3761040
I0506 09:33:04.285979 21108 layer_factory.hpp:77] Creating layer ip1
I0506 09:33:04.285986 21108 net.cpp:94] Creating Layer ip1
I0506 09:33:04.285989 21108 net.cpp:435] ip1 <- pool5
I0506 09:33:04.285995 21108 net.cpp:409] ip1 -> ip1
I0506 09:33:04.298995 21108 net.cpp:144] Setting up ip1
I0506 09:33:04.299008 21108 net.cpp:151] Top shape: 20 1024 (20480)
I0506 09:33:04.299012 21108 net.cpp:159] Memory required for data: 3842960
I0506 09:33:04.299018 21108 layer_factory.hpp:77] Creating layer ip2
I0506 09:33:04.299024 21108 net.cpp:94] Creating Layer ip2
I0506 09:33:04.299028 21108 net.cpp:435] ip2 <- ip1
I0506 09:33:04.299033 21108 net.cpp:409] ip2 -> ip2
I0506 09:33:04.312047 21108 net.cpp:144] Setting up ip2
I0506 09:33:04.312060 21108 net.cpp:151] Top shape: 20 512 (10240)
I0506 09:33:04.312064 21108 net.cpp:159] Memory required for data: 3883920
I0506 09:33:04.312070 21108 layer_factory.hpp:77] Creating layer ip3
I0506 09:33:04.312077 21108 net.cpp:94] Creating Layer ip3
I0506 09:33:04.312080 21108 net.cpp:435] ip3 <- ip2
I0506 09:33:04.312086 21108 net.cpp:409] ip3 -> ip3
I0506 09:33:04.313613 21108 net.cpp:144] Setting up ip3
I0506 09:33:04.313627 21108 net.cpp:151] Top shape: 20 50 (1000)
I0506 09:33:04.313630 21108 net.cpp:159] Memory required for data: 3887920
I0506 09:33:04.313635 21108 layer_factory.hpp:77] Creating layer loss
I0506 09:33:04.313643 21108 net.cpp:94] Creating Layer loss
I0506 09:33:04.313647 21108 net.cpp:435] loss <- ip3
I0506 09:33:04.313650 21108 net.cpp:435] loss <- label
I0506 09:33:04.313654 21108 net.cpp:409] loss -> loss
I0506 09:33:04.313663 21108 layer_factory.hpp:77] Creating layer loss
…
I0506 09:33:04.314172 21108 solver.cpp:181] Creating test net (#0) specified by net file: ./protocol/dis_50_100_dimension.protocol_distribution
I0506 09:33:04.314198 21108 net.cpp:323] The NetState phase (1) differed from the phase (0) specified by a rule in layer parameters
I0506 09:33:04.314290 21108 net.cpp:52] Initializing net from parameters: 
state {
  phase: TEST
}
layer {
  name: "intercept"
  type: "HDF5Data"
  top: "data"
  top: "label"
  include {
    phase: TEST
  }
  hdf5_data_param {
    source: "/home/purduethu/scratch/radon/d/deng106/CNNStatisticalModel/distributions/input/50_distributions_100_sample_size_test-distributions-path.txt"
    batch_size: 20
  }
}
layer {
  name: "conv1"
  type: "Convolution"
  bottom: "data"
  top: "conv1"
  param {
    lr_mult: 1
  }
  param {
    lr_mult: 2
  }
  convolution_param {
    num_output: 64
    pad: 2
    kernel_size: 5
    stride: 1
    weight_filler {
      type: "gaussian"
      std: 0.0001
    }
    bias_filler {
      type: "constant"
    }
  }
}
layer {
  name: "relu1"
  type: "ReLU"
  bottom: "conv1"
  top: "conv1"
}
layer {
  name: "conv2"
  type: "Convolution"
  bottom: "conv1"
  top: "conv2"
  param {
    lr_mult: 1
  }
  param {
    lr_mult: 2
  }
  convolution_param {
    num_output: 64
    pad: 2
    kernel_size: 5
    stride: 1
    weight_filler {
      type: "gaussian"
      std: 0.01
    }
    bias_filler {
      type: "constant"
    }
  }
}
layer {
  name: "relu2"
  type: "ReLU"
  bottom: "conv2"
  top: "conv2"
}
layer {
  name: "pool2"
  type: "Pooling"
  bottom: "conv2"
  top: "pool2"
  pooling_param {
    pool: MAX
    kernel_size: 3
    stride: 2
  }
}
layer {
  name: "conv3"
  type: "Convolution"
  bottom: "pool2"
  top: "conv3"
  param {
    lr_mult: 1
  }
  param {
    lr_mult: 2
  }
  convolution_param {
    num_output: 128
    pad: 2
    kernel_size: 5
    stride: 1
    weight_filler {
      type: "gaussian"
      std: 0.01
    }
    bias_filler {
      type: "constant"
    }
  }
}
layer {
  name: "relu3"
  type: "ReLU"
  bottom: "conv3"
  top: "conv3"
}
layer {
  name: "conv4"
  type: "Convolution"
  bottom: "conv3"
  top: "conv4"
  param {
    lr_mult: 1
  }
  param {
    lr_mult: 2
  }
  convolution_param {
    num_output: 128
    pad: 2
    kernel_size: 5
    stride: 1
    weight_filler {
      type: "gaussian"
      std: 0.01
    }
    bias_filler {
      type: "constant"
    }
  }
}
layer {
  name: "relu4"
  type: "ReLU"
  bottom: "conv4"
  top: "conv4"
}
layer {
  name: "conv5"
  type: "Convolution"
  bottom: "conv4"
  top: "conv5"
  param {
    lr_mult: 1
  }
  param {
    lr_mult: 2
  }
  convolution_param {
    num_output: 128
    pad: 2
    kernel_size: 5
    stride: 1
    weight_filler {
      type: "gaussian"
      std: 0.01
    }
    bias_filler {
      type: "constant"
    }
  }
}
layer {
  name: "relu5"
  type: "ReLU"
  bottom: "conv5"
  top: "conv5"
}
layer {
  name: "pool5"
  type: "Pooling"
  bottom: "conv5"
  top: "pool5"
  pooling_param {
    pool: AVE
    kernel_size: 3
    stride: 2
  }
}
layer {
  name: "ip1"
  type: "InnerProduct"
  bottom: "pool5"
  top: "ip1"
  param {
    lr_mult: 1
  }
  param {
    lr_mult: 2
  }
  inner_product_param {
    num_output: 1024
    weight_filler {
      type: "gaussian"
      std: 0.1
    }
    bias_filler {
      type: "constant"
    }
  }
}
layer {
  name: "ip2"
  type: "InnerProduct"
  bottom: "ip1"
  top: "ip2"
  param {
    lr_mult: 1
  }
  param {
    lr_mult: 2
  }
  inner_product_param {
    num_output: 512
    weight_filler {
      type: "gaussian"
      std: 0.1
    }
    bias_filler {
      type: "constant"
    }
  }
}
layer {
  name: "ip3"
  type: "InnerProduct"
  bottom: "ip2"
  top: "ip3"
  param {
    lr_mult: 1
  }
  param {
    lr_mult: 2
  }
  inner_product_param {
    num_output: 50
    weight_filler {
      type: "gaussian"
      std: 0.1
    }
    bias_filler {
      type: "constant"
    }
  }
}
layer {
  name: "accuracy"
  type: "Accuracy"
  bottom: "ip3"
  bottom: "label"
  top: "accuracy"
  include {
    phase: TEST
  }
}
layer {
  name: "loss"
  type: "SoftmaxWithLoss"
  bottom: "ip3"
  bottom: "label"
  top: "loss"
}
I0506 09:33:04.314353 21108 layer_factory.hpp:77] Creating layer intercept
I0506 09:33:04.314362 21108 net.cpp:94] Creating Layer intercept
I0506 09:33:04.314365 21108 net.cpp:409] intercept -> data
I0506 09:33:04.314373 21108 net.cpp:409] intercept -> label
I0506 09:33:04.314378 21108 hdf5_data_layer.cpp:79] Loading list of HDF5 filenames from: /home/purduethu/scratch/radon/d/deng106/CNNStatisticalModel/distributions/input/50_distributions_100_sample_size_test-distributions-path.txt
I0506 09:33:04.314395 21108 hdf5_data_layer.cpp:93] Number of HDF5 files: 1
I0506 09:33:04.354674 21108 net.cpp:144] Setting up intercept
I0506 09:33:04.354707 21108 net.cpp:151] Top shape: 20 1 10 10 (2000)
I0506 09:33:04.354712 21108 net.cpp:151] Top shape: 20 (20)
I0506 09:33:04.354715 21108 net.cpp:159] Memory required for data: 8080
I0506 09:33:04.354722 21108 layer_factory.hpp:77] Creating layer label_intercept_1_split
I0506 09:33:04.354742 21108 net.cpp:94] Creating Layer label_intercept_1_split
I0506 09:33:04.354745 21108 net.cpp:435] label_intercept_1_split <- label
I0506 09:33:04.354751 21108 net.cpp:409] label_intercept_1_split -> label_intercept_1_split_0
I0506 09:33:04.354760 21108 net.cpp:409] label_intercept_1_split -> label_intercept_1_split_1
I0506 09:33:04.354800 21108 net.cpp:144] Setting up label_intercept_1_split
I0506 09:33:04.354806 21108 net.cpp:151] Top shape: 20 (20)
I0506 09:33:04.354810 21108 net.cpp:151] Top shape: 20 (20)
I0506 09:33:04.354812 21108 net.cpp:159] Memory required for data: 8240
I0506 09:33:04.354815 21108 layer_factory.hpp:77] Creating layer conv1
I0506 09:33:04.354826 21108 net.cpp:94] Creating Layer conv1
I0506 09:33:04.354830 21108 net.cpp:435] conv1 <- data
I0506 09:33:04.354835 21108 net.cpp:409] conv1 -> conv1
I0506 09:33:04.355651 21108 net.cpp:144] Setting up conv1
I0506 09:33:04.355664 21108 net.cpp:151] Top shape: 20 64 10 10 (128000)
I0506 09:33:04.355667 21108 net.cpp:159] Memory required for data: 520240
I0506 09:33:04.355676 21108 layer_factory.hpp:77] Creating layer relu1
I0506 09:33:04.355684 21108 net.cpp:94] Creating Layer relu1
I0506 09:33:04.355686 21108 net.cpp:435] relu1 <- conv1
I0506 09:33:04.355690 21108 net.cpp:396] relu1 -> conv1 (in-place)
I0506 09:33:04.355697 21108 net.cpp:144] Setting up relu1
I0506 09:33:04.355701 21108 net.cpp:151] Top shape: 20 64 10 10 (128000)
I0506 09:33:04.355712 21108 net.cpp:159] Memory required for data: 1032240
I0506 09:33:04.355715 21108 layer_factory.hpp:77] Creating layer conv2
I0506 09:33:04.355723 21108 net.cpp:94] Creating Layer conv2
I0506 09:33:04.355726 21108 net.cpp:435] conv2 <- conv1
I0506 09:33:04.355731 21108 net.cpp:409] conv2 -> conv2
I0506 09:33:04.359825 21108 net.cpp:144] Setting up conv2
I0506 09:33:04.359838 21108 net.cpp:151] Top shape: 20 64 10 10 (128000)
I0506 09:33:04.359843 21108 net.cpp:159] Memory required for data: 1544240
I0506 09:33:04.359850 21108 layer_factory.hpp:77] Creating layer relu2
I0506 09:33:04.359858 21108 net.cpp:94] Creating Layer relu2
I0506 09:33:04.359860 21108 net.cpp:435] relu2 <- conv2
I0506 09:33:04.359865 21108 net.cpp:396] relu2 -> conv2 (in-place)
I0506 09:33:04.359871 21108 net.cpp:144] Setting up relu2
I0506 09:33:04.359875 21108 net.cpp:151] Top shape: 20 64 10 10 (128000)
I0506 09:33:04.359879 21108 net.cpp:159] Memory required for data: 2056240
I0506 09:33:04.359881 21108 layer_factory.hpp:77] Creating layer pool2
I0506 09:33:04.359887 21108 net.cpp:94] Creating Layer pool2
I0506 09:33:04.359891 21108 net.cpp:435] pool2 <- conv2
I0506 09:33:04.359894 21108 net.cpp:409] pool2 -> pool2
I0506 09:33:04.359948 21108 net.cpp:144] Setting up pool2
I0506 09:33:04.359956 21108 net.cpp:151] Top shape: 20 64 5 5 (32000)
I0506 09:33:04.359957 21108 net.cpp:159] Memory required for data: 2184240
I0506 09:33:04.359961 21108 layer_factory.hpp:77] Creating layer conv3
I0506 09:33:04.359968 21108 net.cpp:94] Creating Layer conv3
I0506 09:33:04.359972 21108 net.cpp:435] conv3 <- pool2
I0506 09:33:04.359977 21108 net.cpp:409] conv3 -> conv3
I0506 09:33:04.365980 21108 net.cpp:144] Setting up conv3
I0506 09:33:04.365993 21108 net.cpp:151] Top shape: 20 128 5 5 (64000)
I0506 09:33:04.365996 21108 net.cpp:159] Memory required for data: 2440240
I0506 09:33:04.366003 21108 layer_factory.hpp:77] Creating layer relu3
I0506 09:33:04.366011 21108 net.cpp:94] Creating Layer relu3
I0506 09:33:04.366014 21108 net.cpp:435] relu3 <- conv3
I0506 09:33:04.366019 21108 net.cpp:396] relu3 -> conv3 (in-place)
I0506 09:33:04.366025 21108 net.cpp:144] Setting up relu3
I0506 09:33:04.366030 21108 net.cpp:151] Top shape: 20 128 5 5 (64000)
I0506 09:33:04.366034 21108 net.cpp:159] Memory required for data: 2696240
I0506 09:33:04.366036 21108 layer_factory.hpp:77] Creating layer conv4
I0506 09:33:04.366044 21108 net.cpp:94] Creating Layer conv4
I0506 09:33:04.366046 21108 net.cpp:435] conv4 <- conv3
I0506 09:33:04.366052 21108 net.cpp:409] conv4 -> conv4
I0506 09:33:04.378551 21108 net.cpp:144] Setting up conv4
I0506 09:33:04.378564 21108 net.cpp:151] Top shape: 20 128 5 5 (64000)
I0506 09:33:04.378568 21108 net.cpp:159] Memory required for data: 2952240
I0506 09:33:04.378574 21108 layer_factory.hpp:77] Creating layer relu4
I0506 09:33:04.378581 21108 net.cpp:94] Creating Layer relu4
I0506 09:33:04.378583 21108 net.cpp:435] relu4 <- conv4
I0506 09:33:04.378588 21108 net.cpp:396] relu4 -> conv4 (in-place)
I0506 09:33:04.378594 21108 net.cpp:144] Setting up relu4
I0506 09:33:04.378598 21108 net.cpp:151] Top shape: 20 128 5 5 (64000)
I0506 09:33:04.378602 21108 net.cpp:159] Memory required for data: 3208240
I0506 09:33:04.378604 21108 layer_factory.hpp:77] Creating layer conv5
I0506 09:33:04.378613 21108 net.cpp:94] Creating Layer conv5
I0506 09:33:04.378617 21108 net.cpp:435] conv5 <- conv4
I0506 09:33:04.378621 21108 net.cpp:409] conv5 -> conv5
I0506 09:33:04.391017 21108 net.cpp:144] Setting up conv5
I0506 09:33:04.391031 21108 net.cpp:151] Top shape: 20 128 5 5 (64000)
I0506 09:33:04.391036 21108 net.cpp:159] Memory required for data: 3464240
I0506 09:33:04.391044 21108 layer_factory.hpp:77] Creating layer relu5
I0506 09:33:04.391050 21108 net.cpp:94] Creating Layer relu5
I0506 09:33:04.391053 21108 net.cpp:435] relu5 <- conv5
I0506 09:33:04.391058 21108 net.cpp:396] relu5 -> conv5 (in-place)
I0506 09:33:04.391065 21108 net.cpp:144] Setting up relu5
I0506 09:33:04.391069 21108 net.cpp:151] Top shape: 20 128 5 5 (64000)
I0506 09:33:04.391077 21108 net.cpp:159] Memory required for data: 3720240
I0506 09:33:04.391079 21108 layer_factory.hpp:77] Creating layer pool5
I0506 09:33:04.391084 21108 net.cpp:94] Creating Layer pool5
I0506 09:33:04.391088 21108 net.cpp:435] pool5 <- conv5
I0506 09:33:04.391091 21108 net.cpp:409] pool5 -> pool5
I0506 09:33:04.391129 21108 net.cpp:144] Setting up pool5
I0506 09:33:04.391136 21108 net.cpp:151] Top shape: 20 128 2 2 (10240)
I0506 09:33:04.391139 21108 net.cpp:159] Memory required for data: 3761200
I0506 09:33:04.391142 21108 layer_factory.hpp:77] Creating layer ip1
I0506 09:33:04.391149 21108 net.cpp:94] Creating Layer ip1
I0506 09:33:04.391151 21108 net.cpp:435] ip1 <- pool5
I0506 09:33:04.391156 21108 net.cpp:409] ip1 -> ip1
I0506 09:33:04.404155 21108 net.cpp:144] Setting up ip1
I0506 09:33:04.404167 21108 net.cpp:151] Top shape: 20 1024 (20480)
I0506 09:33:04.404170 21108 net.cpp:159] Memory required for data: 3843120
I0506 09:33:04.404176 21108 layer_factory.hpp:77] Creating layer ip2
I0506 09:33:04.404182 21108 net.cpp:94] Creating Layer ip2
I0506 09:33:04.404186 21108 net.cpp:435] ip2 <- ip1
I0506 09:33:04.404191 21108 net.cpp:409] ip2 -> ip2
I0506 09:33:04.417248 21108 net.cpp:144] Setting up ip2
I0506 09:33:04.417263 21108 net.cpp:151] Top shape: 20 512 (10240)
I0506 09:33:04.417266 21108 net.cpp:159] Memory required for data: 3884080
I0506 09:33:04.417273 21108 layer_factory.hpp:77] Creating layer ip3
I0506 09:33:04.417281 21108 net.cpp:94] Creating Layer ip3
I0506 09:33:04.417285 21108 net.cpp:435] ip3 <- ip2
I0506 09:33:04.417290 21108 net.cpp:409] ip3 -> ip3
I0506 09:33:04.418022 21108 net.cpp:144] Setting up ip3
I0506 09:33:04.418030 21108 net.cpp:151] Top shape: 20 50 (1000)
I0506 09:33:04.418032 21108 net.cpp:159] Memory required for data: 3888080
I0506 09:33:04.418037 21108 layer_factory.hpp:77] Creating layer ip3_ip3_0_split
I0506 09:33:04.418043 21108 net.cpp:94] Creating Layer ip3_ip3_0_split
I0506 09:33:04.418046 21108 net.cpp:435] ip3_ip3_0_split <- ip3
I0506 09:33:04.418051 21108 net.cpp:409] ip3_ip3_0_split -> ip3_ip3_0_split_0
I0506 09:33:04.418056 21108 net.cpp:409] ip3_ip3_0_split -> ip3_ip3_0_split_1
I0506 09:33:04.418097 21108 net.cpp:144] Setting up ip3_ip3_0_split
I0506 09:33:04.418103 21108 net.cpp:151] Top shape: 20 50 (1000)
I0506 09:33:04.418107 21108 net.cpp:151] Top shape: 20 50 (1000)
I0506 09:33:04.418109 21108 net.cpp:159] Memory required for data: 3896080
I0506 09:33:04.418112 21108 layer_factory.hpp:77] Creating layer accuracy
I0506 09:33:04.418118 21108 net.cpp:94] Creating Layer accuracy
I0506 09:33:04.418120 21108 net.cpp:435] accuracy <- ip3_ip3_0_split_0
I0506 09:33:04.418124 21108 net.cpp:435] accuracy <- label_intercept_1_split_0
I0506 09:33:04.418129 21108 net.cpp:409] accuracy -> accuracy
…
