…
I0502 03:11:11.512984 17517 net.cpp:323] The NetState phase (0) differed from the phase (1) specified by a rule in layer intercept
I0502 03:11:11.513000 17517 net.cpp:323] The NetState phase (0) differed from the phase (1) specified by a rule in layer loss
I0502 03:11:11.513077 17517 net.cpp:52] Initializing net from parameters: 
state {
  phase: TRAIN
}
layer {
  name: "parameters"
  type: "HDF5Data"
  top: "data"
  top: "label"
  include {
    phase: TRAIN
  }
  hdf5_data_param {
    source: "/home/purduethu/scratch/radon/d/deng106/CNNStatisticalModel/distributions/input/5_distributions_100_sample_size_train-parameters-path.txt"
    batch_size: 20
  }
}
layer {
  name: "conv1"
  type: "Convolution"
  bottom: "data"
  top: "conv1"
  param {
    lr_mult: 1
  }
  param {
    lr_mult: 2
  }
  convolution_param {
    num_output: 64
    pad: 2
    kernel_size: 5
    stride: 1
    weight_filler {
      type: "gaussian"
      std: 0.0001
    }
    bias_filler {
      type: "constant"
    }
  }
}
layer {
  name: "relu1"
  type: "ReLU"
  bottom: "conv1"
  top: "conv1"
}
layer {
  name: "conv2"
  type: "Convolution"
  bottom: "conv1"
  top: "conv2"
  param {
    lr_mult: 1
  }
  param {
    lr_mult: 2
  }
  convolution_param {
    num_output: 64
    pad: 2
    kernel_size: 5
    stride: 1
    weight_filler {
      type: "gaussian"
      std: 0.01
    }
    bias_filler {
      type: "constant"
    }
  }
}
layer {
  name: "relu2"
  type: "ReLU"
  bottom: "conv2"
  top: "conv2"
}
layer {
  name: "pool2"
  type: "Pooling"
  bottom: "conv2"
  top: "pool2"
  pooling_param {
    pool: MAX
    kernel_size: 3
    stride: 2
  }
}
layer {
  name: "conv3"
  type: "Convolution"
  bottom: "pool2"
  top: "conv3"
  param {
    lr_mult: 1
  }
  param {
    lr_mult: 2
  }
  convolution_param {
    num_output: 64
    pad: 2
    kernel_size: 5
    stride: 1
    weight_filler {
      type: "gaussian"
      std: 0.01
    }
    bias_filler {
      type: "constant"
    }
  }
}
layer {
  name: "relu3"
  type: "ReLU"
  bottom: "conv3"
  top: "conv3"
}
layer {
  name: "conv4"
  type: "Convolution"
  bottom: "conv3"
  top: "conv4"
  param {
    lr_mult: 1
  }
  param {
    lr_mult: 2
  }
  convolution_param {
    num_output: 64
    pad: 2
    kernel_size: 5
    stride: 1
    weight_filler {
      type: "gaussian"
      std: 0.01
    }
    bias_filler {
      type: "constant"
    }
  }
}
layer {
  name: "relu4"
  type: "ReLU"
  bottom: "conv4"
  top: "conv4"
}
layer {
  name: "conv5"
  type: "Convolution"
  bottom: "conv4"
  top: "conv5"
  param {
    lr_mult: 1
  }
  param {
    lr_mult: 2
  }
  convolution_param {
    num_output: 64
    pad: 2
    kernel_size: 5
    stride: 1
    weight_filler {
      type: "gaussian"
      std: 0.01
    }
    bias_filler {
      type: "constant"
    }
  }
}
layer {
  name: "relu5"
  type: "ReLU"
  bottom: "conv5"
  top: "conv5"
}
layer {
  name: "pool5"
  type: "Pooling"
  bottom: "conv5"
  top: "pool5"
  pooling_param {
    pool: AVE
    kernel_size: 3
    stride: 2
  }
}
layer {
  name: "ip1"
  type: "InnerProduct"
  bottom: "pool5"
  top: "ip1"
  param {
    lr_mult: 1
  }
  param {
    lr_mult: 2
  }
  inner_product_param {
    num_output: 64
    weight_filler {
      type: "gaussian"
      std: 0.1
    }
    bias_filler {
      type: "constant"
    }
  }
}
layer {
  name: "ip2"
  type: "InnerProduct"
  bottom: "ip1"
  top: "ip2"
  param {
    lr_mult: 1
  }
  param {
    lr_mult: 2
  }
  inner_product_param {
    num_output: 64
    weight_filler {
      type: "gaussian"
      std: 0.1
    }
    bias_filler {
      type: "constant"
    }
  }
}
layer {
  name: "ip3"
  type: "InnerProduct"
  bottom: "ip2"
  top: "ip3"
  param {
    lr_mult: 1
  }
  param {
    lr_mult: 2
  }
  inner_product_param {
    num_output: 1
    weight_filler {
      type: "gaussian"
      std: 0.1
    }
    bias_filler {
      type: "constant"
    }
  }
}
layer {
  name: "loss"
  type: "HuberLoss"
  bottom: "ip3"
  bottom: "label"
  top: "loss"
  include {
    phase: TRAIN
  }
}
I0502 03:11:11.513134 17517 layer_factory.hpp:77] Creating layer parameters
I0502 03:11:11.513146 17517 net.cpp:94] Creating Layer parameters
I0502 03:11:11.513151 17517 net.cpp:409] parameters -> data
I0502 03:11:11.513164 17517 net.cpp:409] parameters -> label
I0502 03:11:11.513170 17517 hdf5_data_layer.cpp:79] Loading list of HDF5 filenames from: /home/purduethu/scratch/radon/d/deng106/CNNStatisticalModel/distributions/input/5_distributions_100_sample_size_train-parameters-path.txt
I0502 03:11:11.513185 17517 hdf5_data_layer.cpp:93] Number of HDF5 files: 1
I0502 03:11:11.513738 17517 hdf5.cpp:32] Datatype class: H5T_FLOAT
I0502 03:11:11.531755 17517 net.cpp:144] Setting up parameters
I0502 03:11:11.531786 17517 net.cpp:151] Top shape: 20 1 10 10 (2000)
I0502 03:11:11.531791 17517 net.cpp:151] Top shape: 20 (20)
I0502 03:11:11.531795 17517 net.cpp:159] Memory required for data: 8080
I0502 03:11:11.531801 17517 layer_factory.hpp:77] Creating layer conv1
I0502 03:11:11.531817 17517 net.cpp:94] Creating Layer conv1
I0502 03:11:11.531822 17517 net.cpp:435] conv1 <- data
I0502 03:11:11.531828 17517 net.cpp:409] conv1 -> conv1
I0502 03:11:11.535895 17517 net.cpp:144] Setting up conv1
I0502 03:11:11.535912 17517 net.cpp:151] Top shape: 20 64 10 10 (128000)
I0502 03:11:11.535915 17517 net.cpp:159] Memory required for data: 520080
I0502 03:11:11.535926 17517 layer_factory.hpp:77] Creating layer relu1
I0502 03:11:11.535934 17517 net.cpp:94] Creating Layer relu1
I0502 03:11:11.535938 17517 net.cpp:435] relu1 <- conv1
I0502 03:11:11.535943 17517 net.cpp:396] relu1 -> conv1 (in-place)
I0502 03:11:11.535950 17517 net.cpp:144] Setting up relu1
I0502 03:11:11.535954 17517 net.cpp:151] Top shape: 20 64 10 10 (128000)
I0502 03:11:11.535957 17517 net.cpp:159] Memory required for data: 1032080
I0502 03:11:11.535960 17517 layer_factory.hpp:77] Creating layer conv2
I0502 03:11:11.535969 17517 net.cpp:94] Creating Layer conv2
I0502 03:11:11.535972 17517 net.cpp:435] conv2 <- conv1
I0502 03:11:11.535976 17517 net.cpp:409] conv2 -> conv2
I0502 03:11:11.542016 17517 net.cpp:144] Setting up conv2
I0502 03:11:11.542031 17517 net.cpp:151] Top shape: 20 64 10 10 (128000)
I0502 03:11:11.542034 17517 net.cpp:159] Memory required for data: 1544080
I0502 03:11:11.542042 17517 layer_factory.hpp:77] Creating layer relu2
I0502 03:11:11.542049 17517 net.cpp:94] Creating Layer relu2
I0502 03:11:11.542052 17517 net.cpp:435] relu2 <- conv2
I0502 03:11:11.542057 17517 net.cpp:396] relu2 -> conv2 (in-place)
I0502 03:11:11.542063 17517 net.cpp:144] Setting up relu2
I0502 03:11:11.542068 17517 net.cpp:151] Top shape: 20 64 10 10 (128000)
I0502 03:11:11.542071 17517 net.cpp:159] Memory required for data: 2056080
I0502 03:11:11.542074 17517 layer_factory.hpp:77] Creating layer pool2
I0502 03:11:11.542086 17517 net.cpp:94] Creating Layer pool2
I0502 03:11:11.542090 17517 net.cpp:435] pool2 <- conv2
I0502 03:11:11.542094 17517 net.cpp:409] pool2 -> pool2
I0502 03:11:11.542152 17517 net.cpp:144] Setting up pool2
I0502 03:11:11.542160 17517 net.cpp:151] Top shape: 20 64 5 5 (32000)
I0502 03:11:11.542162 17517 net.cpp:159] Memory required for data: 2184080
I0502 03:11:11.542165 17517 layer_factory.hpp:77] Creating layer conv3
I0502 03:11:11.542173 17517 net.cpp:94] Creating Layer conv3
I0502 03:11:11.542177 17517 net.cpp:435] conv3 <- pool2
I0502 03:11:11.542182 17517 net.cpp:409] conv3 -> conv3
I0502 03:11:11.547008 17517 net.cpp:144] Setting up conv3
I0502 03:11:11.547021 17517 net.cpp:151] Top shape: 20 64 5 5 (32000)
I0502 03:11:11.547025 17517 net.cpp:159] Memory required for data: 2312080
I0502 03:11:11.547034 17517 layer_factory.hpp:77] Creating layer relu3
I0502 03:11:11.547039 17517 net.cpp:94] Creating Layer relu3
I0502 03:11:11.547042 17517 net.cpp:435] relu3 <- conv3
I0502 03:11:11.547047 17517 net.cpp:396] relu3 -> conv3 (in-place)
I0502 03:11:11.547055 17517 net.cpp:144] Setting up relu3
I0502 03:11:11.547058 17517 net.cpp:151] Top shape: 20 64 5 5 (32000)
I0502 03:11:11.547061 17517 net.cpp:159] Memory required for data: 2440080
I0502 03:11:11.547065 17517 layer_factory.hpp:77] Creating layer conv4
I0502 03:11:11.547072 17517 net.cpp:94] Creating Layer conv4
I0502 03:11:11.547076 17517 net.cpp:435] conv4 <- conv3
I0502 03:11:11.547080 17517 net.cpp:409] conv4 -> conv4
I0502 03:11:11.551436 17517 net.cpp:144] Setting up conv4
I0502 03:11:11.551450 17517 net.cpp:151] Top shape: 20 64 5 5 (32000)
I0502 03:11:11.551453 17517 net.cpp:159] Memory required for data: 2568080
I0502 03:11:11.551460 17517 layer_factory.hpp:77] Creating layer relu4
I0502 03:11:11.551465 17517 net.cpp:94] Creating Layer relu4
I0502 03:11:11.551468 17517 net.cpp:435] relu4 <- conv4
I0502 03:11:11.551473 17517 net.cpp:396] relu4 -> conv4 (in-place)
I0502 03:11:11.551481 17517 net.cpp:144] Setting up relu4
I0502 03:11:11.551484 17517 net.cpp:151] Top shape: 20 64 5 5 (32000)
I0502 03:11:11.551487 17517 net.cpp:159] Memory required for data: 2696080
I0502 03:11:11.551491 17517 layer_factory.hpp:77] Creating layer conv5
I0502 03:11:11.551497 17517 net.cpp:94] Creating Layer conv5
I0502 03:11:11.551501 17517 net.cpp:435] conv5 <- conv4
I0502 03:11:11.551506 17517 net.cpp:409] conv5 -> conv5
I0502 03:11:11.556306 17517 net.cpp:144] Setting up conv5
I0502 03:11:11.556319 17517 net.cpp:151] Top shape: 20 64 5 5 (32000)
I0502 03:11:11.556324 17517 net.cpp:159] Memory required for data: 2824080
I0502 03:11:11.556331 17517 layer_factory.hpp:77] Creating layer relu5
I0502 03:11:11.556337 17517 net.cpp:94] Creating Layer relu5
I0502 03:11:11.556341 17517 net.cpp:435] relu5 <- conv5
I0502 03:11:11.556349 17517 net.cpp:396] relu5 -> conv5 (in-place)
I0502 03:11:11.556356 17517 net.cpp:144] Setting up relu5
I0502 03:11:11.556360 17517 net.cpp:151] Top shape: 20 64 5 5 (32000)
I0502 03:11:11.556363 17517 net.cpp:159] Memory required for data: 2952080
I0502 03:11:11.556366 17517 layer_factory.hpp:77] Creating layer pool5
I0502 03:11:11.556371 17517 net.cpp:94] Creating Layer pool5
I0502 03:11:11.556375 17517 net.cpp:435] pool5 <- conv5
I0502 03:11:11.556380 17517 net.cpp:409] pool5 -> pool5
I0502 03:11:11.556419 17517 net.cpp:144] Setting up pool5
I0502 03:11:11.556427 17517 net.cpp:151] Top shape: 20 64 2 2 (5120)
I0502 03:11:11.556429 17517 net.cpp:159] Memory required for data: 2972560
I0502 03:11:11.556432 17517 layer_factory.hpp:77] Creating layer ip1
I0502 03:11:11.556442 17517 net.cpp:94] Creating Layer ip1
I0502 03:11:11.556447 17517 net.cpp:435] ip1 <- pool5
I0502 03:11:11.556452 17517 net.cpp:409] ip1 -> ip1
I0502 03:11:11.557806 17517 net.cpp:144] Setting up ip1
I0502 03:11:11.557818 17517 net.cpp:151] Top shape: 20 64 (1280)
I0502 03:11:11.557821 17517 net.cpp:159] Memory required for data: 2977680
I0502 03:11:11.557827 17517 layer_factory.hpp:77] Creating layer ip2
I0502 03:11:11.557835 17517 net.cpp:94] Creating Layer ip2
I0502 03:11:11.557844 17517 net.cpp:435] ip2 <- ip1
I0502 03:11:11.557849 17517 net.cpp:409] ip2 -> ip2
I0502 03:11:11.558076 17517 net.cpp:144] Setting up ip2
I0502 03:11:11.558084 17517 net.cpp:151] Top shape: 20 64 (1280)
I0502 03:11:11.558087 17517 net.cpp:159] Memory required for data: 2982800
I0502 03:11:11.558092 17517 layer_factory.hpp:77] Creating layer ip3
I0502 03:11:11.558099 17517 net.cpp:94] Creating Layer ip3
I0502 03:11:11.558101 17517 net.cpp:435] ip3 <- ip2
I0502 03:11:11.558107 17517 net.cpp:409] ip3 -> ip3
I0502 03:11:11.558223 17517 net.cpp:144] Setting up ip3
I0502 03:11:11.558229 17517 net.cpp:151] Top shape: 20 1 (20)
I0502 03:11:11.558233 17517 net.cpp:159] Memory required for data: 2982880
I0502 03:11:11.558238 17517 layer_factory.hpp:77] Creating layer loss
I0502 03:11:11.558248 17517 net.cpp:94] Creating Layer loss
I0502 03:11:11.558251 17517 net.cpp:435] loss <- ip3
I0502 03:11:11.558255 17517 net.cpp:435] loss <- label
I0502 03:11:11.558259 17517 net.cpp:409] loss -> loss
I0502 03:11:11.558316 17517 net.cpp:144] Setting up loss
…
I0502 03:11:11.582267 17517 net.cpp:323] The NetState phase (0) differed from the phase (1) specified by a rule in layer intercept
I0502 03:11:11.582281 17517 net.cpp:323] The NetState phase (0) differed from the phase (1) specified by a rule in layer accuracy
I0502 03:11:11.582370 17517 net.cpp:52] Initializing net from parameters: 
state {
  phase: TRAIN
}
layer {
  name: "parameters"
  type: "HDF5Data"
  top: "data"
  top: "label"
  include {
    phase: TRAIN
  }
  hdf5_data_param {
    source: "/home/purduethu/scratch/radon/d/deng106/CNNStatisticalModel/distributions/input/5_distributions_100_sample_size_train-distributions-path.txt"
    batch_size: 20
  }
}
layer {
  name: "conv1"
  type: "Convolution"
  bottom: "data"
  top: "conv1"
  param {
    lr_mult: 1
  }
  param {
    lr_mult: 2
  }
  convolution_param {
    num_output: 64
    pad: 2
    kernel_size: 5
    stride: 1
    weight_filler {
      type: "gaussian"
      std: 0.0001
    }
    bias_filler {
      type: "constant"
    }
  }
}
layer {
  name: "relu1"
  type: "ReLU"
  bottom: "conv1"
  top: "conv1"
}
layer {
  name: "conv2"
  type: "Convolution"
  bottom: "conv1"
  top: "conv2"
  param {
    lr_mult: 1
  }
  param {
    lr_mult: 2
  }
  convolution_param {
    num_output: 64
    pad: 2
    kernel_size: 5
    stride: 1
    weight_filler {
      type: "gaussian"
      std: 0.01
    }
    bias_filler {
      type: "constant"
    }
  }
}
layer {
  name: "relu2"
  type: "ReLU"
  bottom: "conv2"
  top: "conv2"
}
layer {
  name: "pool2"
  type: "Pooling"
  bottom: "conv2"
  top: "pool2"
  pooling_param {
    pool: MAX
    kernel_size: 3
    stride: 2
  }
}
layer {
  name: "conv3"
  type: "Convolution"
  bottom: "pool2"
  top: "conv3"
  param {
    lr_mult: 1
  }
  param {
    lr_mult: 2
  }
  convolution_param {
    num_output: 64
    pad: 2
    kernel_size: 5
    stride: 1
    weight_filler {
      type: "gaussian"
      std: 0.01
    }
    bias_filler {
      type: "constant"
    }
  }
}
layer {
  name: "relu3"
  type: "ReLU"
  bottom: "conv3"
  top: "conv3"
}
layer {
  name: "conv4"
  type: "Convolution"
  bottom: "conv3"
  top: "conv4"
  param {
    lr_mult: 1
  }
  param {
    lr_mult: 2
  }
  convolution_param {
    num_output: 64
    pad: 2
    kernel_size: 5
    stride: 1
    weight_filler {
      type: "gaussian"
      std: 0.01
    }
    bias_filler {
      type: "constant"
    }
  }
}
layer {
  name: "relu4"
  type: "ReLU"
  bottom: "conv4"
  top: "conv4"
}
layer {
  name: "conv5"
  type: "Convolution"
  bottom: "conv4"
  top: "conv5"
  param {
    lr_mult: 1
  }
  param {
    lr_mult: 2
  }
  convolution_param {
    num_output: 64
    pad: 2
    kernel_size: 5
    stride: 1
    weight_filler {
      type: "gaussian"
      std: 0.01
    }
    bias_filler {
      type: "constant"
    }
  }
}
layer {
  name: "relu5"
  type: "ReLU"
  bottom: "conv5"
  top: "conv5"
}
layer {
  name: "pool5"
  type: "Pooling"
  bottom: "conv5"
  top: "pool5"
  pooling_param {
    pool: AVE
    kernel_size: 3
    stride: 2
  }
}
layer {
  name: "ip1"
  type: "InnerProduct"
  bottom: "pool5"
  top: "ip1"
  param {
    lr_mult: 1
  }
  param {
    lr_mult: 2
  }
  inner_product_param {
    num_output: 64
    weight_filler {
      type: "gaussian"
      std: 0.1
    }
    bias_filler {
      type: "constant"
    }
  }
}
layer {
  name: "ip2"
  type: "InnerProduct"
  bottom: "ip1"
  top: "ip2"
  param {
    lr_mult: 1
  }
  param {
    lr_mult: 2
  }
  inner_product_param {
    num_output: 64
    weight_filler {
      type: "gaussian"
      std: 0.1
    }
    bias_filler {
      type: "constant"
    }
  }
}
layer {
  name: "ip3"
  type: "InnerProduct"
  bottom: "ip2"
  top: "ip3"
  param {
    lr_mult: 1
  }
  param {
    lr_mult: 2
  }
  inner_product_param {
    num_output: 50
    weight_filler {
      type: "gaussian"
      std: 0.1
    }
    bias_filler {
      type: "constant"
    }
  }
}
layer {
  name: "loss"
  type: "SoftmaxWithLoss"
  bottom: "ip3"
  bottom: "label"
  top: "loss"
}
I0502 03:11:11.582422 17517 layer_factory.hpp:77] Creating layer parameters
I0502 03:11:11.582430 17517 net.cpp:94] Creating Layer parameters
I0502 03:11:11.582433 17517 net.cpp:409] parameters -> data
I0502 03:11:11.582440 17517 net.cpp:409] parameters -> label
I0502 03:11:11.582446 17517 hdf5_data_layer.cpp:79] Loading list of HDF5 filenames from: /home/purduethu/scratch/radon/d/deng106/CNNStatisticalModel/distributions/input/5_distributions_100_sample_size_train-distributions-path.txt
I0502 03:11:11.582461 17517 hdf5_data_layer.cpp:93] Number of HDF5 files: 1
I0502 03:11:11.598253 17517 hdf5.cpp:35] Datatype class: H5T_INTEGER
I0502 03:11:11.598701 17517 net.cpp:144] Setting up parameters
I0502 03:11:11.598714 17517 net.cpp:151] Top shape: 20 1 10 10 (2000)
I0502 03:11:11.598719 17517 net.cpp:151] Top shape: 20 (20)
I0502 03:11:11.598722 17517 net.cpp:159] Memory required for data: 8080
I0502 03:11:11.598728 17517 layer_factory.hpp:77] Creating layer conv1
I0502 03:11:11.598743 17517 net.cpp:94] Creating Layer conv1
I0502 03:11:11.598748 17517 net.cpp:435] conv1 <- data
I0502 03:11:11.598754 17517 net.cpp:409] conv1 -> conv1
I0502 03:11:11.600463 17517 net.cpp:144] Setting up conv1
I0502 03:11:11.600476 17517 net.cpp:151] Top shape: 20 64 10 10 (128000)
I0502 03:11:11.600481 17517 net.cpp:159] Memory required for data: 520080
I0502 03:11:11.600491 17517 layer_factory.hpp:77] Creating layer relu1
I0502 03:11:11.600497 17517 net.cpp:94] Creating Layer relu1
I0502 03:11:11.600500 17517 net.cpp:435] relu1 <- conv1
I0502 03:11:11.600505 17517 net.cpp:396] relu1 -> conv1 (in-place)
I0502 03:11:11.600512 17517 net.cpp:144] Setting up relu1
I0502 03:11:11.600517 17517 net.cpp:151] Top shape: 20 64 10 10 (128000)
I0502 03:11:11.600520 17517 net.cpp:159] Memory required for data: 1032080
I0502 03:11:11.600523 17517 layer_factory.hpp:77] Creating layer conv2
I0502 03:11:11.600530 17517 net.cpp:94] Creating Layer conv2
I0502 03:11:11.600533 17517 net.cpp:435] conv2 <- conv1
I0502 03:11:11.600538 17517 net.cpp:409] conv2 -> conv2
I0502 03:11:11.605906 17517 net.cpp:144] Setting up conv2
I0502 03:11:11.605921 17517 net.cpp:151] Top shape: 20 64 10 10 (128000)
I0502 03:11:11.605923 17517 net.cpp:159] Memory required for data: 1544080
I0502 03:11:11.605931 17517 layer_factory.hpp:77] Creating layer relu2
I0502 03:11:11.605937 17517 net.cpp:94] Creating Layer relu2
I0502 03:11:11.605942 17517 net.cpp:435] relu2 <- conv2
I0502 03:11:11.605945 17517 net.cpp:396] relu2 -> conv2 (in-place)
I0502 03:11:11.605952 17517 net.cpp:144] Setting up relu2
I0502 03:11:11.605957 17517 net.cpp:151] Top shape: 20 64 10 10 (128000)
I0502 03:11:11.605960 17517 net.cpp:159] Memory required for data: 2056080
I0502 03:11:11.605963 17517 layer_factory.hpp:77] Creating layer pool2
I0502 03:11:11.605968 17517 net.cpp:94] Creating Layer pool2
I0502 03:11:11.605971 17517 net.cpp:435] pool2 <- conv2
I0502 03:11:11.605976 17517 net.cpp:409] pool2 -> pool2
I0502 03:11:11.606031 17517 net.cpp:144] Setting up pool2
I0502 03:11:11.606039 17517 net.cpp:151] Top shape: 20 64 5 5 (32000)
I0502 03:11:11.606041 17517 net.cpp:159] Memory required for data: 2184080
I0502 03:11:11.606045 17517 layer_factory.hpp:77] Creating layer conv3
I0502 03:11:11.606051 17517 net.cpp:94] Creating Layer conv3
I0502 03:11:11.606055 17517 net.cpp:435] conv3 <- pool2
I0502 03:11:11.606060 17517 net.cpp:409] conv3 -> conv3
I0502 03:11:11.610944 17517 net.cpp:144] Setting up conv3
I0502 03:11:11.610965 17517 net.cpp:151] Top shape: 20 64 5 5 (32000)
I0502 03:11:11.610968 17517 net.cpp:159] Memory required for data: 2312080
I0502 03:11:11.610976 17517 layer_factory.hpp:77] Creating layer relu3
I0502 03:11:11.610982 17517 net.cpp:94] Creating Layer relu3
I0502 03:11:11.610985 17517 net.cpp:435] relu3 <- conv3
I0502 03:11:11.610991 17517 net.cpp:396] relu3 -> conv3 (in-place)
I0502 03:11:11.610997 17517 net.cpp:144] Setting up relu3
I0502 03:11:11.611001 17517 net.cpp:151] Top shape: 20 64 5 5 (32000)
I0502 03:11:11.611004 17517 net.cpp:159] Memory required for data: 2440080
I0502 03:11:11.611007 17517 layer_factory.hpp:77] Creating layer conv4
I0502 03:11:11.611016 17517 net.cpp:94] Creating Layer conv4
I0502 03:11:11.611019 17517 net.cpp:435] conv4 <- conv3
I0502 03:11:11.611024 17517 net.cpp:409] conv4 -> conv4
I0502 03:11:11.616746 17517 net.cpp:144] Setting up conv4
I0502 03:11:11.616760 17517 net.cpp:151] Top shape: 20 64 5 5 (32000)
I0502 03:11:11.616765 17517 net.cpp:159] Memory required for data: 2568080
I0502 03:11:11.616770 17517 layer_factory.hpp:77] Creating layer relu4
I0502 03:11:11.616776 17517 net.cpp:94] Creating Layer relu4
I0502 03:11:11.616780 17517 net.cpp:435] relu4 <- conv4
I0502 03:11:11.616785 17517 net.cpp:396] relu4 -> conv4 (in-place)
I0502 03:11:11.616791 17517 net.cpp:144] Setting up relu4
I0502 03:11:11.616796 17517 net.cpp:151] Top shape: 20 64 5 5 (32000)
I0502 03:11:11.616798 17517 net.cpp:159] Memory required for data: 2696080
I0502 03:11:11.616801 17517 layer_factory.hpp:77] Creating layer conv5
I0502 03:11:11.616809 17517 net.cpp:94] Creating Layer conv5
I0502 03:11:11.616812 17517 net.cpp:435] conv5 <- conv4
I0502 03:11:11.616817 17517 net.cpp:409] conv5 -> conv5
I0502 03:11:11.621202 17517 net.cpp:144] Setting up conv5
I0502 03:11:11.621215 17517 net.cpp:151] Top shape: 20 64 5 5 (32000)
I0502 03:11:11.621219 17517 net.cpp:159] Memory required for data: 2824080
I0502 03:11:11.621227 17517 layer_factory.hpp:77] Creating layer relu5
I0502 03:11:11.621233 17517 net.cpp:94] Creating Layer relu5
I0502 03:11:11.621237 17517 net.cpp:435] relu5 <- conv5
I0502 03:11:11.621240 17517 net.cpp:396] relu5 -> conv5 (in-place)
I0502 03:11:11.621248 17517 net.cpp:144] Setting up relu5
I0502 03:11:11.621251 17517 net.cpp:151] Top shape: 20 64 5 5 (32000)
I0502 03:11:11.621254 17517 net.cpp:159] Memory required for data: 2952080
I0502 03:11:11.621258 17517 layer_factory.hpp:77] Creating layer pool5
I0502 03:11:11.621263 17517 net.cpp:94] Creating Layer pool5
I0502 03:11:11.621265 17517 net.cpp:435] pool5 <- conv5
I0502 03:11:11.621269 17517 net.cpp:409] pool5 -> pool5
I0502 03:11:11.621306 17517 net.cpp:144] Setting up pool5
I0502 03:11:11.621314 17517 net.cpp:151] Top shape: 20 64 2 2 (5120)
I0502 03:11:11.621316 17517 net.cpp:159] Memory required for data: 2972560
I0502 03:11:11.621320 17517 layer_factory.hpp:77] Creating layer ip1
I0502 03:11:11.621326 17517 net.cpp:94] Creating Layer ip1
I0502 03:11:11.621330 17517 net.cpp:435] ip1 <- pool5
I0502 03:11:11.621335 17517 net.cpp:409] ip1 -> ip1
I0502 03:11:11.621860 17517 net.cpp:144] Setting up ip1
I0502 03:11:11.621868 17517 net.cpp:151] Top shape: 20 64 (1280)
I0502 03:11:11.621871 17517 net.cpp:159] Memory required for data: 2977680
I0502 03:11:11.621877 17517 layer_factory.hpp:77] Creating layer ip2
I0502 03:11:11.621883 17517 net.cpp:94] Creating Layer ip2
I0502 03:11:11.621886 17517 net.cpp:435] ip2 <- ip1
I0502 03:11:11.621893 17517 net.cpp:409] ip2 -> ip2
I0502 03:11:11.622126 17517 net.cpp:144] Setting up ip2
I0502 03:11:11.622133 17517 net.cpp:151] Top shape: 20 64 (1280)
I0502 03:11:11.622136 17517 net.cpp:159] Memory required for data: 2982800
I0502 03:11:11.622141 17517 layer_factory.hpp:77] Creating layer ip3
I0502 03:11:11.622148 17517 net.cpp:94] Creating Layer ip3
I0502 03:11:11.622150 17517 net.cpp:435] ip3 <- ip2
I0502 03:11:11.622155 17517 net.cpp:409] ip3 -> ip3
I0502 03:11:11.622359 17517 net.cpp:144] Setting up ip3
I0502 03:11:11.622366 17517 net.cpp:151] Top shape: 20 50 (1000)
I0502 03:11:11.622373 17517 net.cpp:159] Memory required for data: 2986800
I0502 03:11:11.622378 17517 layer_factory.hpp:77] Creating layer loss
I0502 03:11:11.622388 17517 net.cpp:94] Creating Layer loss
I0502 03:11:11.622392 17517 net.cpp:435] loss <- ip3
I0502 03:11:11.622396 17517 net.cpp:435] loss <- label
I0502 03:11:11.622401 17517 net.cpp:409] loss -> loss
I0502 03:11:11.622408 17517 layer_factory.hpp:77] Creating layer loss
…
I0502 03:11:11.623782 17517 solver.cpp:181] Creating test net (#0) specified by net file: ./protocol/dis_5_100_dimension.protocol_distribution
I0502 03:11:11.623807 17517 net.cpp:323] The NetState phase (1) differed from the phase (0) specified by a rule in layer parameters
I0502 03:11:11.623908 17517 net.cpp:52] Initializing net from parameters: 
state {
  phase: TEST
}
layer {
  name: "intercept"
  type: "HDF5Data"
  top: "data"
  top: "label"
  include {
    phase: TEST
  }
  hdf5_data_param {
    source: "/home/purduethu/scratch/radon/d/deng106/CNNStatisticalModel/distributions/input/5_distributions_100_sample_size_test-distributions-path.txt"
    batch_size: 20
  }
}
layer {
  name: "conv1"
  type: "Convolution"
  bottom: "data"
  top: "conv1"
  param {
    lr_mult: 1
  }
  param {
    lr_mult: 2
  }
  convolution_param {
    num_output: 64
    pad: 2
    kernel_size: 5
    stride: 1
    weight_filler {
      type: "gaussian"
      std: 0.0001
    }
    bias_filler {
      type: "constant"
    }
  }
}
layer {
  name: "relu1"
  type: "ReLU"
  bottom: "conv1"
  top: "conv1"
}
layer {
  name: "conv2"
  type: "Convolution"
  bottom: "conv1"
  top: "conv2"
  param {
    lr_mult: 1
  }
  param {
    lr_mult: 2
  }
  convolution_param {
    num_output: 64
    pad: 2
    kernel_size: 5
    stride: 1
    weight_filler {
      type: "gaussian"
      std: 0.01
    }
    bias_filler {
      type: "constant"
    }
  }
}
layer {
  name: "relu2"
  type: "ReLU"
  bottom: "conv2"
  top: "conv2"
}
layer {
  name: "pool2"
  type: "Pooling"
  bottom: "conv2"
  top: "pool2"
  pooling_param {
    pool: MAX
    kernel_size: 3
    stride: 2
  }
}
layer {
  name: "conv3"
  type: "Convolution"
  bottom: "pool2"
  top: "conv3"
  param {
    lr_mult: 1
  }
  param {
    lr_mult: 2
  }
  convolution_param {
    num_output: 64
    pad: 2
    kernel_size: 5
    stride: 1
    weight_filler {
      type: "gaussian"
      std: 0.01
    }
    bias_filler {
      type: "constant"
    }
  }
}
layer {
  name: "relu3"
  type: "ReLU"
  bottom: "conv3"
  top: "conv3"
}
layer {
  name: "conv4"
  type: "Convolution"
  bottom: "conv3"
  top: "conv4"
  param {
    lr_mult: 1
  }
  param {
    lr_mult: 2
  }
  convolution_param {
    num_output: 64
    pad: 2
    kernel_size: 5
    stride: 1
    weight_filler {
      type: "gaussian"
      std: 0.01
    }
    bias_filler {
      type: "constant"
    }
  }
}
layer {
  name: "relu4"
  type: "ReLU"
  bottom: "conv4"
  top: "conv4"
}
layer {
  name: "conv5"
  type: "Convolution"
  bottom: "conv4"
  top: "conv5"
  param {
    lr_mult: 1
  }
  param {
    lr_mult: 2
  }
  convolution_param {
    num_output: 64
    pad: 2
    kernel_size: 5
    stride: 1
    weight_filler {
      type: "gaussian"
      std: 0.01
    }
    bias_filler {
      type: "constant"
    }
  }
}
layer {
  name: "relu5"
  type: "ReLU"
  bottom: "conv5"
  top: "conv5"
}
layer {
  name: "pool5"
  type: "Pooling"
  bottom: "conv5"
  top: "pool5"
  pooling_param {
    pool: AVE
    kernel_size: 3
    stride: 2
  }
}
layer {
  name: "ip1"
  type: "InnerProduct"
  bottom: "pool5"
  top: "ip1"
  param {
    lr_mult: 1
  }
  param {
    lr_mult: 2
  }
  inner_product_param {
    num_output: 64
    weight_filler {
      type: "gaussian"
      std: 0.1
    }
    bias_filler {
      type: "constant"
    }
  }
}
layer {
  name: "ip2"
  type: "InnerProduct"
  bottom: "ip1"
  top: "ip2"
  param {
    lr_mult: 1
  }
  param {
    lr_mult: 2
  }
  inner_product_param {
    num_output: 64
    weight_filler {
      type: "gaussian"
      std: 0.1
    }
    bias_filler {
      type: "constant"
    }
  }
}
layer {
  name: "ip3"
  type: "InnerProduct"
  bottom: "ip2"
  top: "ip3"
  param {
    lr_mult: 1
  }
  param {
    lr_mult: 2
  }
  inner_product_param {
    num_output: 50
    weight_filler {
      type: "gaussian"
      std: 0.1
    }
    bias_filler {
      type: "constant"
    }
  }
}
layer {
  name: "accuracy"
  type: "Accuracy"
  bottom: "ip3"
  bottom: "label"
  top: "accuracy"
  include {
    phase: TEST
  }
}
layer {
  name: "loss"
  type: "SoftmaxWithLoss"
  bottom: "ip3"
  bottom: "label"
  top: "loss"
}
I0502 03:11:11.623977 17517 layer_factory.hpp:77] Creating layer intercept
I0502 03:11:11.623986 17517 net.cpp:94] Creating Layer intercept
I0502 03:11:11.623989 17517 net.cpp:409] intercept -> data
I0502 03:11:11.623996 17517 net.cpp:409] intercept -> label
I0502 03:11:11.624001 17517 hdf5_data_layer.cpp:79] Loading list of HDF5 filenames from: /home/purduethu/scratch/radon/d/deng106/CNNStatisticalModel/distributions/input/5_distributions_100_sample_size_test-distributions-path.txt
I0502 03:11:11.624020 17517 hdf5_data_layer.cpp:93] Number of HDF5 files: 1
I0502 03:11:11.628439 17517 net.cpp:144] Setting up intercept
I0502 03:11:11.628469 17517 net.cpp:151] Top shape: 20 1 10 10 (2000)
I0502 03:11:11.628474 17517 net.cpp:151] Top shape: 20 (20)
I0502 03:11:11.628478 17517 net.cpp:159] Memory required for data: 8080
I0502 03:11:11.628484 17517 layer_factory.hpp:77] Creating layer label_intercept_1_split
I0502 03:11:11.628499 17517 net.cpp:94] Creating Layer label_intercept_1_split
I0502 03:11:11.628504 17517 net.cpp:435] label_intercept_1_split <- label
I0502 03:11:11.628509 17517 net.cpp:409] label_intercept_1_split -> label_intercept_1_split_0
I0502 03:11:11.628517 17517 net.cpp:409] label_intercept_1_split -> label_intercept_1_split_1
I0502 03:11:11.628581 17517 net.cpp:144] Setting up label_intercept_1_split
I0502 03:11:11.628588 17517 net.cpp:151] Top shape: 20 (20)
I0502 03:11:11.628592 17517 net.cpp:151] Top shape: 20 (20)
I0502 03:11:11.628595 17517 net.cpp:159] Memory required for data: 8240
I0502 03:11:11.628598 17517 layer_factory.hpp:77] Creating layer conv1
I0502 03:11:11.628608 17517 net.cpp:94] Creating Layer conv1
I0502 03:11:11.628612 17517 net.cpp:435] conv1 <- data
I0502 03:11:11.628617 17517 net.cpp:409] conv1 -> conv1
I0502 03:11:11.629375 17517 net.cpp:144] Setting up conv1
I0502 03:11:11.629387 17517 net.cpp:151] Top shape: 20 64 10 10 (128000)
I0502 03:11:11.629391 17517 net.cpp:159] Memory required for data: 520240
I0502 03:11:11.629406 17517 layer_factory.hpp:77] Creating layer relu1
I0502 03:11:11.629413 17517 net.cpp:94] Creating Layer relu1
I0502 03:11:11.629416 17517 net.cpp:435] relu1 <- conv1
I0502 03:11:11.629421 17517 net.cpp:396] relu1 -> conv1 (in-place)
I0502 03:11:11.629428 17517 net.cpp:144] Setting up relu1
I0502 03:11:11.629433 17517 net.cpp:151] Top shape: 20 64 10 10 (128000)
I0502 03:11:11.629436 17517 net.cpp:159] Memory required for data: 1032240
I0502 03:11:11.629439 17517 layer_factory.hpp:77] Creating layer conv2
I0502 03:11:11.629446 17517 net.cpp:94] Creating Layer conv2
I0502 03:11:11.629451 17517 net.cpp:435] conv2 <- conv1
I0502 03:11:11.629456 17517 net.cpp:409] conv2 -> conv2
I0502 03:11:11.633460 17517 net.cpp:144] Setting up conv2
I0502 03:11:11.633472 17517 net.cpp:151] Top shape: 20 64 10 10 (128000)
I0502 03:11:11.633476 17517 net.cpp:159] Memory required for data: 1544240
I0502 03:11:11.633484 17517 layer_factory.hpp:77] Creating layer relu2
I0502 03:11:11.633491 17517 net.cpp:94] Creating Layer relu2
I0502 03:11:11.633493 17517 net.cpp:435] relu2 <- conv2
I0502 03:11:11.633498 17517 net.cpp:396] relu2 -> conv2 (in-place)
I0502 03:11:11.633504 17517 net.cpp:144] Setting up relu2
I0502 03:11:11.633509 17517 net.cpp:151] Top shape: 20 64 10 10 (128000)
I0502 03:11:11.633512 17517 net.cpp:159] Memory required for data: 2056240
I0502 03:11:11.633515 17517 layer_factory.hpp:77] Creating layer pool2
I0502 03:11:11.633520 17517 net.cpp:94] Creating Layer pool2
I0502 03:11:11.633523 17517 net.cpp:435] pool2 <- conv2
I0502 03:11:11.633527 17517 net.cpp:409] pool2 -> pool2
I0502 03:11:11.633582 17517 net.cpp:144] Setting up pool2
I0502 03:11:11.633589 17517 net.cpp:151] Top shape: 20 64 5 5 (32000)
I0502 03:11:11.633592 17517 net.cpp:159] Memory required for data: 2184240
I0502 03:11:11.633595 17517 layer_factory.hpp:77] Creating layer conv3
I0502 03:11:11.633604 17517 net.cpp:94] Creating Layer conv3
I0502 03:11:11.633607 17517 net.cpp:435] conv3 <- pool2
I0502 03:11:11.633611 17517 net.cpp:409] conv3 -> conv3
I0502 03:11:11.637125 17517 net.cpp:144] Setting up conv3
I0502 03:11:11.637138 17517 net.cpp:151] Top shape: 20 64 5 5 (32000)
I0502 03:11:11.637142 17517 net.cpp:159] Memory required for data: 2312240
I0502 03:11:11.637150 17517 layer_factory.hpp:77] Creating layer relu3
I0502 03:11:11.637156 17517 net.cpp:94] Creating Layer relu3
I0502 03:11:11.637161 17517 net.cpp:435] relu3 <- conv3
I0502 03:11:11.637164 17517 net.cpp:396] relu3 -> conv3 (in-place)
I0502 03:11:11.637171 17517 net.cpp:144] Setting up relu3
I0502 03:11:11.637176 17517 net.cpp:151] Top shape: 20 64 5 5 (32000)
I0502 03:11:11.637178 17517 net.cpp:159] Memory required for data: 2440240
I0502 03:11:11.637181 17517 layer_factory.hpp:77] Creating layer conv4
I0502 03:11:11.637189 17517 net.cpp:94] Creating Layer conv4
I0502 03:11:11.637192 17517 net.cpp:435] conv4 <- conv3
I0502 03:11:11.637197 17517 net.cpp:409] conv4 -> conv4
I0502 03:11:11.640671 17517 net.cpp:144] Setting up conv4
I0502 03:11:11.640684 17517 net.cpp:151] Top shape: 20 64 5 5 (32000)
I0502 03:11:11.640688 17517 net.cpp:159] Memory required for data: 2568240
I0502 03:11:11.640694 17517 layer_factory.hpp:77] Creating layer relu4
I0502 03:11:11.640700 17517 net.cpp:94] Creating Layer relu4
I0502 03:11:11.640703 17517 net.cpp:435] relu4 <- conv4
I0502 03:11:11.640708 17517 net.cpp:396] relu4 -> conv4 (in-place)
I0502 03:11:11.640714 17517 net.cpp:144] Setting up relu4
I0502 03:11:11.640719 17517 net.cpp:151] Top shape: 20 64 5 5 (32000)
I0502 03:11:11.640722 17517 net.cpp:159] Memory required for data: 2696240
I0502 03:11:11.640725 17517 layer_factory.hpp:77] Creating layer conv5
I0502 03:11:11.640733 17517 net.cpp:94] Creating Layer conv5
I0502 03:11:11.640736 17517 net.cpp:435] conv5 <- conv4
I0502 03:11:11.640740 17517 net.cpp:409] conv5 -> conv5
I0502 03:11:11.645522 17517 net.cpp:144] Setting up conv5
I0502 03:11:11.645535 17517 net.cpp:151] Top shape: 20 64 5 5 (32000)
I0502 03:11:11.645539 17517 net.cpp:159] Memory required for data: 2824240
I0502 03:11:11.645552 17517 layer_factory.hpp:77] Creating layer relu5
I0502 03:11:11.645560 17517 net.cpp:94] Creating Layer relu5
I0502 03:11:11.645563 17517 net.cpp:435] relu5 <- conv5
I0502 03:11:11.645567 17517 net.cpp:396] relu5 -> conv5 (in-place)
I0502 03:11:11.645575 17517 net.cpp:144] Setting up relu5
I0502 03:11:11.645579 17517 net.cpp:151] Top shape: 20 64 5 5 (32000)
I0502 03:11:11.645582 17517 net.cpp:159] Memory required for data: 2952240
I0502 03:11:11.645586 17517 layer_factory.hpp:77] Creating layer pool5
I0502 03:11:11.645591 17517 net.cpp:94] Creating Layer pool5
I0502 03:11:11.645593 17517 net.cpp:435] pool5 <- conv5
I0502 03:11:11.645597 17517 net.cpp:409] pool5 -> pool5
I0502 03:11:11.645635 17517 net.cpp:144] Setting up pool5
I0502 03:11:11.645642 17517 net.cpp:151] Top shape: 20 64 2 2 (5120)
I0502 03:11:11.645645 17517 net.cpp:159] Memory required for data: 2972720
I0502 03:11:11.645648 17517 layer_factory.hpp:77] Creating layer ip1
I0502 03:11:11.645655 17517 net.cpp:94] Creating Layer ip1
I0502 03:11:11.645658 17517 net.cpp:435] ip1 <- pool5
I0502 03:11:11.645663 17517 net.cpp:409] ip1 -> ip1
I0502 03:11:11.646194 17517 net.cpp:144] Setting up ip1
I0502 03:11:11.646203 17517 net.cpp:151] Top shape: 20 64 (1280)
I0502 03:11:11.646206 17517 net.cpp:159] Memory required for data: 2977840
I0502 03:11:11.646211 17517 layer_factory.hpp:77] Creating layer ip2
I0502 03:11:11.646217 17517 net.cpp:94] Creating Layer ip2
I0502 03:11:11.646220 17517 net.cpp:435] ip2 <- ip1
I0502 03:11:11.646225 17517 net.cpp:409] ip2 -> ip2
I0502 03:11:11.646456 17517 net.cpp:144] Setting up ip2
I0502 03:11:11.646462 17517 net.cpp:151] Top shape: 20 64 (1280)
I0502 03:11:11.646466 17517 net.cpp:159] Memory required for data: 2982960
I0502 03:11:11.646471 17517 layer_factory.hpp:77] Creating layer ip3
I0502 03:11:11.646477 17517 net.cpp:94] Creating Layer ip3
I0502 03:11:11.646481 17517 net.cpp:435] ip3 <- ip2
I0502 03:11:11.646486 17517 net.cpp:409] ip3 -> ip3
I0502 03:11:11.646688 17517 net.cpp:144] Setting up ip3
I0502 03:11:11.646695 17517 net.cpp:151] Top shape: 20 50 (1000)
I0502 03:11:11.646698 17517 net.cpp:159] Memory required for data: 2986960
I0502 03:11:11.646703 17517 layer_factory.hpp:77] Creating layer ip3_ip3_0_split
I0502 03:11:11.646708 17517 net.cpp:94] Creating Layer ip3_ip3_0_split
I0502 03:11:11.646711 17517 net.cpp:435] ip3_ip3_0_split <- ip3
I0502 03:11:11.646715 17517 net.cpp:409] ip3_ip3_0_split -> ip3_ip3_0_split_0
I0502 03:11:11.646721 17517 net.cpp:409] ip3_ip3_0_split -> ip3_ip3_0_split_1
I0502 03:11:11.646762 17517 net.cpp:144] Setting up ip3_ip3_0_split
I0502 03:11:11.646769 17517 net.cpp:151] Top shape: 20 50 (1000)
I0502 03:11:11.646772 17517 net.cpp:151] Top shape: 20 50 (1000)
I0502 03:11:11.646775 17517 net.cpp:159] Memory required for data: 2994960
I0502 03:11:11.646778 17517 layer_factory.hpp:77] Creating layer accuracy
I0502 03:11:11.646783 17517 net.cpp:94] Creating Layer accuracy
I0502 03:11:11.646787 17517 net.cpp:435] accuracy <- ip3_ip3_0_split_0
I0502 03:11:11.646791 17517 net.cpp:435] accuracy <- label_intercept_1_split_0
I0502 03:11:11.646795 17517 net.cpp:409] accuracy -> accuracy
…
