…
I0503 18:53:10.448320 21908 net.cpp:323] The NetState phase (0) differed from the phase (1) specified by a rule in layer intercept
I0503 18:53:10.448335 21908 net.cpp:323] The NetState phase (0) differed from the phase (1) specified by a rule in layer accuracy
I0503 18:53:10.448427 21908 net.cpp:52] Initializing net from parameters: 
state {
  phase: TRAIN
}
layer {
  name: "parameters"
  type: "HDF5Data"
  top: "data"
  top: "label"
  include {
    phase: TRAIN
  }
  hdf5_data_param {
    source: "/home/purduethu/scratch/radon/d/deng106/CNNStatisticalModel/distributions/input/20_distributions_400_sample_size_train-distributions-path.txt"
    batch_size: 20
  }
}
layer {
  name: "conv1"
  type: "Convolution"
  bottom: "data"
  top: "conv1"
  param {
    lr_mult: 1
  }
  param {
    lr_mult: 2
  }
  convolution_param {
    num_output: 64
    pad: 2
    kernel_size: 5
    stride: 1
    weight_filler {
      type: "gaussian"
      std: 0.0001
    }
    bias_filler {
      type: "constant"
    }
  }
}
layer {
  name: "relu1"
  type: "ReLU"
  bottom: "conv1"
  top: "conv1"
}
layer {
  name: "conv2"
  type: "Convolution"
  bottom: "conv1"
  top: "conv2"
  param {
    lr_mult: 1
  }
  param {
    lr_mult: 2
  }
  convolution_param {
    num_output: 64
    pad: 2
    kernel_size: 5
    stride: 1
    weight_filler {
      type: "gaussian"
      std: 0.01
    }
    bias_filler {
      type: "constant"
    }
  }
}
layer {
  name: "relu2"
  type: "ReLU"
  bottom: "conv2"
  top: "conv2"
}
layer {
  name: "pool2"
  type: "Pooling"
  bottom: "conv2"
  top: "pool2"
  pooling_param {
    pool: MAX
    kernel_size: 3
    stride: 2
  }
}
layer {
  name: "conv3"
  type: "Convolution"
  bottom: "pool2"
  top: "conv3"
  param {
    lr_mult: 1
  }
  param {
    lr_mult: 2
  }
  convolution_param {
    num_output: 128
    pad: 2
    kernel_size: 5
    stride: 1
    weight_filler {
      type: "gaussian"
      std: 0.01
    }
    bias_filler {
      type: "constant"
    }
  }
}
layer {
  name: "relu3"
  type: "ReLU"
  bottom: "conv3"
  top: "conv3"
}
layer {
  name: "conv4"
  type: "Convolution"
  bottom: "conv3"
  top: "conv4"
  param {
    lr_mult: 1
  }
  param {
    lr_mult: 2
  }
  convolution_param {
    num_output: 128
    pad: 2
    kernel_size: 5
    stride: 1
    weight_filler {
      type: "gaussian"
      std: 0.01
    }
    bias_filler {
      type: "constant"
    }
  }
}
layer {
  name: "relu4"
  type: "ReLU"
  bottom: "conv4"
  top: "conv4"
}
layer {
  name: "conv5"
  type: "Convolution"
  bottom: "conv4"
  top: "conv5"
  param {
    lr_mult: 1
  }
  param {
    lr_mult: 2
  }
  convolution_param {
    num_output: 128
    pad: 2
    kernel_size: 5
    stride: 1
    weight_filler {
      type: "gaussian"
      std: 0.01
    }
    bias_filler {
      type: "constant"
    }
  }
}
layer {
  name: "relu5"
  type: "ReLU"
  bottom: "conv5"
  top: "conv5"
}
layer {
  name: "pool5"
  type: "Pooling"
  bottom: "conv5"
  top: "pool5"
  pooling_param {
    pool: AVE
    kernel_size: 3
    stride: 2
  }
}
layer {
  name: "ip1"
  type: "InnerProduct"
  bottom: "pool5"
  top: "ip1"
  param {
    lr_mult: 1
  }
  param {
    lr_mult: 2
  }
  inner_product_param {
    num_output: 1024
    weight_filler {
      type: "gaussian"
      std: 0.1
    }
    bias_filler {
      type: "constant"
    }
  }
}
layer {
  name: "ip2"
  type: "InnerProduct"
  bottom: "ip1"
  top: "ip2"
  param {
    lr_mult: 1
  }
  param {
    lr_mult: 2
  }
  inner_product_param {
    num_output: 512
    weight_filler {
      type: "gaussian"
      std: 0.1
    }
    bias_filler {
      type: "constant"
    }
  }
}
layer {
  name: "ip3"
  type: "InnerProduct"
  bottom: "ip2"
  top: "ip3"
  param {
    lr_mult: 1
  }
  param {
    lr_mult: 2
  }
  inner_product_param {
    num_output: 50
    weight_filler {
      type: "gaussian"
      std: 0.1
    }
    bias_filler {
      type: "constant"
    }
  }
}
layer {
  name: "loss"
  type: "SoftmaxWithLoss"
  bottom: "ip3"
  bottom: "label"
  top: "loss"
}
I0503 18:53:10.448504 21908 layer_factory.hpp:77] Creating layer parameters
I0503 18:53:10.448519 21908 net.cpp:94] Creating Layer parameters
I0503 18:53:10.448524 21908 net.cpp:409] parameters -> data
I0503 18:53:10.448544 21908 net.cpp:409] parameters -> label
I0503 18:53:10.448570 21908 hdf5_data_layer.cpp:79] Loading list of HDF5 filenames from: /home/purduethu/scratch/radon/d/deng106/CNNStatisticalModel/distributions/input/20_distributions_400_sample_size_train-distributions-path.txt
I0503 18:53:10.448598 21908 hdf5_data_layer.cpp:93] Number of HDF5 files: 1
I0503 18:53:10.449213 21908 hdf5.cpp:32] Datatype class: H5T_FLOAT
I0503 18:53:10.708910 21908 hdf5.cpp:35] Datatype class: H5T_INTEGER
I0503 18:53:10.710692 21908 net.cpp:144] Setting up parameters
I0503 18:53:10.710711 21908 net.cpp:151] Top shape: 20 1 20 20 (8000)
I0503 18:53:10.710717 21908 net.cpp:151] Top shape: 20 (20)
I0503 18:53:10.710721 21908 net.cpp:159] Memory required for data: 32080
I0503 18:53:10.710729 21908 layer_factory.hpp:77] Creating layer conv1
I0503 18:53:10.710752 21908 net.cpp:94] Creating Layer conv1
I0503 18:53:10.710758 21908 net.cpp:435] conv1 <- data
I0503 18:53:10.710770 21908 net.cpp:409] conv1 -> conv1
I0503 18:53:10.715600 21908 net.cpp:144] Setting up conv1
I0503 18:53:10.715616 21908 net.cpp:151] Top shape: 20 64 20 20 (512000)
I0503 18:53:10.715620 21908 net.cpp:159] Memory required for data: 2080080
I0503 18:53:10.715632 21908 layer_factory.hpp:77] Creating layer relu1
I0503 18:53:10.715639 21908 net.cpp:94] Creating Layer relu1
I0503 18:53:10.715643 21908 net.cpp:435] relu1 <- conv1
I0503 18:53:10.715648 21908 net.cpp:396] relu1 -> conv1 (in-place)
I0503 18:53:10.715663 21908 net.cpp:144] Setting up relu1
I0503 18:53:10.715668 21908 net.cpp:151] Top shape: 20 64 20 20 (512000)
I0503 18:53:10.715672 21908 net.cpp:159] Memory required for data: 4128080
I0503 18:53:10.715675 21908 layer_factory.hpp:77] Creating layer conv2
I0503 18:53:10.715683 21908 net.cpp:94] Creating Layer conv2
I0503 18:53:10.715687 21908 net.cpp:435] conv2 <- conv1
I0503 18:53:10.715692 21908 net.cpp:409] conv2 -> conv2
I0503 18:53:10.725236 21908 net.cpp:144] Setting up conv2
I0503 18:53:10.725252 21908 net.cpp:151] Top shape: 20 64 20 20 (512000)
I0503 18:53:10.725257 21908 net.cpp:159] Memory required for data: 6176080
I0503 18:53:10.725265 21908 layer_factory.hpp:77] Creating layer relu2
I0503 18:53:10.725272 21908 net.cpp:94] Creating Layer relu2
I0503 18:53:10.725276 21908 net.cpp:435] relu2 <- conv2
I0503 18:53:10.725281 21908 net.cpp:396] relu2 -> conv2 (in-place)
I0503 18:53:10.725288 21908 net.cpp:144] Setting up relu2
I0503 18:53:10.725292 21908 net.cpp:151] Top shape: 20 64 20 20 (512000)
I0503 18:53:10.725296 21908 net.cpp:159] Memory required for data: 8224080
I0503 18:53:10.725299 21908 layer_factory.hpp:77] Creating layer pool2
I0503 18:53:10.725313 21908 net.cpp:94] Creating Layer pool2
I0503 18:53:10.725318 21908 net.cpp:435] pool2 <- conv2
I0503 18:53:10.725322 21908 net.cpp:409] pool2 -> pool2
I0503 18:53:10.725368 21908 net.cpp:144] Setting up pool2
I0503 18:53:10.725375 21908 net.cpp:151] Top shape: 20 64 10 10 (128000)
I0503 18:53:10.725378 21908 net.cpp:159] Memory required for data: 8736080
I0503 18:53:10.725381 21908 layer_factory.hpp:77] Creating layer conv3
I0503 18:53:10.725389 21908 net.cpp:94] Creating Layer conv3
I0503 18:53:10.725394 21908 net.cpp:435] conv3 <- pool2
I0503 18:53:10.725406 21908 net.cpp:409] conv3 -> conv3
I0503 18:53:10.734586 21908 net.cpp:144] Setting up conv3
I0503 18:53:10.734601 21908 net.cpp:151] Top shape: 20 128 10 10 (256000)
I0503 18:53:10.734606 21908 net.cpp:159] Memory required for data: 9760080
I0503 18:53:10.734614 21908 layer_factory.hpp:77] Creating layer relu3
I0503 18:53:10.734621 21908 net.cpp:94] Creating Layer relu3
I0503 18:53:10.734624 21908 net.cpp:435] relu3 <- conv3
I0503 18:53:10.734629 21908 net.cpp:396] relu3 -> conv3 (in-place)
I0503 18:53:10.734637 21908 net.cpp:144] Setting up relu3
I0503 18:53:10.734642 21908 net.cpp:151] Top shape: 20 128 10 10 (256000)
I0503 18:53:10.734644 21908 net.cpp:159] Memory required for data: 10784080
I0503 18:53:10.734647 21908 layer_factory.hpp:77] Creating layer conv4
I0503 18:53:10.734657 21908 net.cpp:94] Creating Layer conv4
I0503 18:53:10.734659 21908 net.cpp:435] conv4 <- conv3
I0503 18:53:10.734664 21908 net.cpp:409] conv4 -> conv4
I0503 18:53:10.752094 21908 net.cpp:144] Setting up conv4
I0503 18:53:10.752110 21908 net.cpp:151] Top shape: 20 128 10 10 (256000)
I0503 18:53:10.752113 21908 net.cpp:159] Memory required for data: 11808080
I0503 18:53:10.752120 21908 layer_factory.hpp:77] Creating layer relu4
I0503 18:53:10.752126 21908 net.cpp:94] Creating Layer relu4
I0503 18:53:10.752130 21908 net.cpp:435] relu4 <- conv4
I0503 18:53:10.752135 21908 net.cpp:396] relu4 -> conv4 (in-place)
I0503 18:53:10.752142 21908 net.cpp:144] Setting up relu4
I0503 18:53:10.752147 21908 net.cpp:151] Top shape: 20 128 10 10 (256000)
I0503 18:53:10.752151 21908 net.cpp:159] Memory required for data: 12832080
I0503 18:53:10.752153 21908 layer_factory.hpp:77] Creating layer conv5
I0503 18:53:10.752162 21908 net.cpp:94] Creating Layer conv5
I0503 18:53:10.752166 21908 net.cpp:435] conv5 <- conv4
I0503 18:53:10.752171 21908 net.cpp:409] conv5 -> conv5
I0503 18:53:10.769112 21908 net.cpp:144] Setting up conv5
I0503 18:53:10.769129 21908 net.cpp:151] Top shape: 20 128 10 10 (256000)
I0503 18:53:10.769132 21908 net.cpp:159] Memory required for data: 13856080
I0503 18:53:10.769141 21908 layer_factory.hpp:77] Creating layer relu5
I0503 18:53:10.769148 21908 net.cpp:94] Creating Layer relu5
I0503 18:53:10.769151 21908 net.cpp:435] relu5 <- conv5
I0503 18:53:10.769156 21908 net.cpp:396] relu5 -> conv5 (in-place)
I0503 18:53:10.769163 21908 net.cpp:144] Setting up relu5
I0503 18:53:10.769168 21908 net.cpp:151] Top shape: 20 128 10 10 (256000)
I0503 18:53:10.769171 21908 net.cpp:159] Memory required for data: 14880080
I0503 18:53:10.769174 21908 layer_factory.hpp:77] Creating layer pool5
I0503 18:53:10.769179 21908 net.cpp:94] Creating Layer pool5
I0503 18:53:10.769183 21908 net.cpp:435] pool5 <- conv5
I0503 18:53:10.769187 21908 net.cpp:409] pool5 -> pool5
I0503 18:53:10.769223 21908 net.cpp:144] Setting up pool5
I0503 18:53:10.769230 21908 net.cpp:151] Top shape: 20 128 5 5 (64000)
I0503 18:53:10.769234 21908 net.cpp:159] Memory required for data: 15136080
I0503 18:53:10.769237 21908 layer_factory.hpp:77] Creating layer ip1
I0503 18:53:10.769248 21908 net.cpp:94] Creating Layer ip1
I0503 18:53:10.769251 21908 net.cpp:435] ip1 <- pool5
I0503 18:53:10.769255 21908 net.cpp:409] ip1 -> ip1
I0503 18:53:10.852125 21908 net.cpp:144] Setting up ip1
I0503 18:53:10.852157 21908 net.cpp:151] Top shape: 20 1024 (20480)
I0503 18:53:10.852162 21908 net.cpp:159] Memory required for data: 15218000
I0503 18:53:10.852170 21908 layer_factory.hpp:77] Creating layer ip2
I0503 18:53:10.852186 21908 net.cpp:94] Creating Layer ip2
I0503 18:53:10.852192 21908 net.cpp:435] ip2 <- ip1
I0503 18:53:10.852198 21908 net.cpp:409] ip2 -> ip2
I0503 18:53:10.865727 21908 net.cpp:144] Setting up ip2
I0503 18:53:10.865742 21908 net.cpp:151] Top shape: 20 512 (10240)
I0503 18:53:10.865746 21908 net.cpp:159] Memory required for data: 15258960
I0503 18:53:10.865752 21908 layer_factory.hpp:77] Creating layer ip3
I0503 18:53:10.865759 21908 net.cpp:94] Creating Layer ip3
I0503 18:53:10.865763 21908 net.cpp:435] ip3 <- ip2
I0503 18:53:10.865768 21908 net.cpp:409] ip3 -> ip3
I0503 18:53:10.867120 21908 net.cpp:144] Setting up ip3
I0503 18:53:10.867132 21908 net.cpp:151] Top shape: 20 50 (1000)
I0503 18:53:10.867136 21908 net.cpp:159] Memory required for data: 15262960
I0503 18:53:10.867142 21908 layer_factory.hpp:77] Creating layer loss
I0503 18:53:10.867151 21908 net.cpp:94] Creating Layer loss
I0503 18:53:10.867154 21908 net.cpp:435] loss <- ip3
I0503 18:53:10.867159 21908 net.cpp:435] loss <- label
I0503 18:53:10.867166 21908 net.cpp:409] loss -> loss
I0503 18:53:10.867182 21908 layer_factory.hpp:77] Creating layer loss
…
I0503 18:53:10.867698 21908 solver.cpp:181] Creating test net (#0) specified by net file: ./protocol/dis_20_400_dimension.protocol_distribution
I0503 18:53:10.867727 21908 net.cpp:323] The NetState phase (1) differed from the phase (0) specified by a rule in layer parameters
I0503 18:53:10.867823 21908 net.cpp:52] Initializing net from parameters: 
state {
  phase: TEST
}
layer {
  name: "intercept"
  type: "HDF5Data"
  top: "data"
  top: "label"
  include {
    phase: TEST
  }
  hdf5_data_param {
    source: "/home/purduethu/scratch/radon/d/deng106/CNNStatisticalModel/distributions/input/20_distributions_400_sample_size_test-distributions-path.txt"
    batch_size: 20
  }
}
layer {
  name: "conv1"
  type: "Convolution"
  bottom: "data"
  top: "conv1"
  param {
    lr_mult: 1
  }
  param {
    lr_mult: 2
  }
  convolution_param {
    num_output: 64
    pad: 2
    kernel_size: 5
    stride: 1
    weight_filler {
      type: "gaussian"
      std: 0.0001
    }
    bias_filler {
      type: "constant"
    }
  }
}
layer {
  name: "relu1"
  type: "ReLU"
  bottom: "conv1"
  top: "conv1"
}
layer {
  name: "conv2"
  type: "Convolution"
  bottom: "conv1"
  top: "conv2"
  param {
    lr_mult: 1
  }
  param {
    lr_mult: 2
  }
  convolution_param {
    num_output: 64
    pad: 2
    kernel_size: 5
    stride: 1
    weight_filler {
      type: "gaussian"
      std: 0.01
    }
    bias_filler {
      type: "constant"
    }
  }
}
layer {
  name: "relu2"
  type: "ReLU"
  bottom: "conv2"
  top: "conv2"
}
layer {
  name: "pool2"
  type: "Pooling"
  bottom: "conv2"
  top: "pool2"
  pooling_param {
    pool: MAX
    kernel_size: 3
    stride: 2
  }
}
layer {
  name: "conv3"
  type: "Convolution"
  bottom: "pool2"
  top: "conv3"
  param {
    lr_mult: 1
  }
  param {
    lr_mult: 2
  }
  convolution_param {
    num_output: 128
    pad: 2
    kernel_size: 5
    stride: 1
    weight_filler {
      type: "gaussian"
      std: 0.01
    }
    bias_filler {
      type: "constant"
    }
  }
}
layer {
  name: "relu3"
  type: "ReLU"
  bottom: "conv3"
  top: "conv3"
}
layer {
  name: "conv4"
  type: "Convolution"
  bottom: "conv3"
  top: "conv4"
  param {
    lr_mult: 1
  }
  param {
    lr_mult: 2
  }
  convolution_param {
    num_output: 128
    pad: 2
    kernel_size: 5
    stride: 1
    weight_filler {
      type: "gaussian"
      std: 0.01
    }
    bias_filler {
      type: "constant"
    }
  }
}
layer {
  name: "relu4"
  type: "ReLU"
  bottom: "conv4"
  top: "conv4"
}
layer {
  name: "conv5"
  type: "Convolution"
  bottom: "conv4"
  top: "conv5"
  param {
    lr_mult: 1
  }
  param {
    lr_mult: 2
  }
  convolution_param {
    num_output: 128
    pad: 2
    kernel_size: 5
    stride: 1
    weight_filler {
      type: "gaussian"
      std: 0.01
    }
    bias_filler {
      type: "constant"
    }
  }
}
layer {
  name: "relu5"
  type: "ReLU"
  bottom: "conv5"
  top: "conv5"
}
layer {
  name: "pool5"
  type: "Pooling"
  bottom: "conv5"
  top: "pool5"
  pooling_param {
    pool: AVE
    kernel_size: 3
    stride: 2
  }
}
layer {
  name: "ip1"
  type: "InnerProduct"
  bottom: "pool5"
  top: "ip1"
  param {
    lr_mult: 1
  }
  param {
    lr_mult: 2
  }
  inner_product_param {
    num_output: 1024
    weight_filler {
      type: "gaussian"
      std: 0.1
    }
    bias_filler {
      type: "constant"
    }
  }
}
layer {
  name: "ip2"
  type: "InnerProduct"
  bottom: "ip1"
  top: "ip2"
  param {
    lr_mult: 1
  }
  param {
    lr_mult: 2
  }
  inner_product_param {
    num_output: 512
    weight_filler {
      type: "gaussian"
      std: 0.1
    }
    bias_filler {
      type: "constant"
    }
  }
}
layer {
  name: "ip3"
  type: "InnerProduct"
  bottom: "ip2"
  top: "ip3"
  param {
    lr_mult: 1
  }
  param {
    lr_mult: 2
  }
  inner_product_param {
    num_output: 50
    weight_filler {
      type: "gaussian"
      std: 0.1
    }
    bias_filler {
      type: "constant"
    }
  }
}
layer {
  name: "accuracy"
  type: "Accuracy"
  bottom: "ip3"
  bottom: "label"
  top: "accuracy"
  include {
    phase: TEST
  }
}
layer {
  name: "loss"
  type: "SoftmaxWithLoss"
  bottom: "ip3"
  bottom: "label"
  top: "loss"
}
I0503 18:53:10.867897 21908 layer_factory.hpp:77] Creating layer intercept
I0503 18:53:10.867905 21908 net.cpp:94] Creating Layer intercept
I0503 18:53:10.867909 21908 net.cpp:409] intercept -> data
I0503 18:53:10.867916 21908 net.cpp:409] intercept -> label
I0503 18:53:10.867923 21908 hdf5_data_layer.cpp:79] Loading list of HDF5 filenames from: /home/purduethu/scratch/radon/d/deng106/CNNStatisticalModel/distributions/input/20_distributions_400_sample_size_test-distributions-path.txt
I0503 18:53:10.867944 21908 hdf5_data_layer.cpp:93] Number of HDF5 files: 1
I0503 18:53:10.933419 21908 net.cpp:144] Setting up intercept
I0503 18:53:10.933454 21908 net.cpp:151] Top shape: 20 1 20 20 (8000)
I0503 18:53:10.933459 21908 net.cpp:151] Top shape: 20 (20)
I0503 18:53:10.933464 21908 net.cpp:159] Memory required for data: 32080
I0503 18:53:10.933470 21908 layer_factory.hpp:77] Creating layer label_intercept_1_split
I0503 18:53:10.933488 21908 net.cpp:94] Creating Layer label_intercept_1_split
I0503 18:53:10.933493 21908 net.cpp:435] label_intercept_1_split <- label
I0503 18:53:10.933500 21908 net.cpp:409] label_intercept_1_split -> label_intercept_1_split_0
I0503 18:53:10.933508 21908 net.cpp:409] label_intercept_1_split -> label_intercept_1_split_1
I0503 18:53:10.933545 21908 net.cpp:144] Setting up label_intercept_1_split
I0503 18:53:10.933552 21908 net.cpp:151] Top shape: 20 (20)
I0503 18:53:10.933557 21908 net.cpp:151] Top shape: 20 (20)
I0503 18:53:10.933559 21908 net.cpp:159] Memory required for data: 32240
I0503 18:53:10.933562 21908 layer_factory.hpp:77] Creating layer conv1
I0503 18:53:10.933573 21908 net.cpp:94] Creating Layer conv1
I0503 18:53:10.933578 21908 net.cpp:435] conv1 <- data
I0503 18:53:10.933583 21908 net.cpp:409] conv1 -> conv1
I0503 18:53:10.934244 21908 net.cpp:144] Setting up conv1
I0503 18:53:10.934258 21908 net.cpp:151] Top shape: 20 64 20 20 (512000)
I0503 18:53:10.934262 21908 net.cpp:159] Memory required for data: 2080240
I0503 18:53:10.934272 21908 layer_factory.hpp:77] Creating layer relu1
I0503 18:53:10.934278 21908 net.cpp:94] Creating Layer relu1
I0503 18:53:10.934283 21908 net.cpp:435] relu1 <- conv1
I0503 18:53:10.934286 21908 net.cpp:396] relu1 -> conv1 (in-place)
I0503 18:53:10.934294 21908 net.cpp:144] Setting up relu1
I0503 18:53:10.934299 21908 net.cpp:151] Top shape: 20 64 20 20 (512000)
I0503 18:53:10.934303 21908 net.cpp:159] Memory required for data: 4128240
I0503 18:53:10.934305 21908 layer_factory.hpp:77] Creating layer conv2
I0503 18:53:10.934314 21908 net.cpp:94] Creating Layer conv2
I0503 18:53:10.934317 21908 net.cpp:435] conv2 <- conv1
I0503 18:53:10.934322 21908 net.cpp:409] conv2 -> conv2
I0503 18:53:10.939239 21908 net.cpp:144] Setting up conv2
I0503 18:53:10.939252 21908 net.cpp:151] Top shape: 20 64 20 20 (512000)
I0503 18:53:10.939257 21908 net.cpp:159] Memory required for data: 6176240
I0503 18:53:10.939265 21908 layer_factory.hpp:77] Creating layer relu2
I0503 18:53:10.939271 21908 net.cpp:94] Creating Layer relu2
I0503 18:53:10.939275 21908 net.cpp:435] relu2 <- conv2
I0503 18:53:10.939280 21908 net.cpp:396] relu2 -> conv2 (in-place)
I0503 18:53:10.939286 21908 net.cpp:144] Setting up relu2
I0503 18:53:10.939291 21908 net.cpp:151] Top shape: 20 64 20 20 (512000)
I0503 18:53:10.939294 21908 net.cpp:159] Memory required for data: 8224240
I0503 18:53:10.939297 21908 layer_factory.hpp:77] Creating layer pool2
I0503 18:53:10.939303 21908 net.cpp:94] Creating Layer pool2
I0503 18:53:10.939307 21908 net.cpp:435] pool2 <- conv2
I0503 18:53:10.939311 21908 net.cpp:409] pool2 -> pool2
I0503 18:53:10.939345 21908 net.cpp:144] Setting up pool2
I0503 18:53:10.939352 21908 net.cpp:151] Top shape: 20 64 10 10 (128000)
I0503 18:53:10.939354 21908 net.cpp:159] Memory required for data: 8736240
I0503 18:53:10.939358 21908 layer_factory.hpp:77] Creating layer conv3
I0503 18:53:10.939366 21908 net.cpp:94] Creating Layer conv3
I0503 18:53:10.939369 21908 net.cpp:435] conv3 <- pool2
I0503 18:53:10.939374 21908 net.cpp:409] conv3 -> conv3
I0503 18:53:10.947131 21908 net.cpp:144] Setting up conv3
I0503 18:53:10.947146 21908 net.cpp:151] Top shape: 20 128 10 10 (256000)
I0503 18:53:10.947150 21908 net.cpp:159] Memory required for data: 9760240
I0503 18:53:10.947158 21908 layer_factory.hpp:77] Creating layer relu3
I0503 18:53:10.947165 21908 net.cpp:94] Creating Layer relu3
I0503 18:53:10.947170 21908 net.cpp:435] relu3 <- conv3
I0503 18:53:10.947173 21908 net.cpp:396] relu3 -> conv3 (in-place)
I0503 18:53:10.947180 21908 net.cpp:144] Setting up relu3
I0503 18:53:10.947185 21908 net.cpp:151] Top shape: 20 128 10 10 (256000)
I0503 18:53:10.947188 21908 net.cpp:159] Memory required for data: 10784240
I0503 18:53:10.947191 21908 layer_factory.hpp:77] Creating layer conv4
I0503 18:53:10.947199 21908 net.cpp:94] Creating Layer conv4
I0503 18:53:10.947202 21908 net.cpp:435] conv4 <- conv3
I0503 18:53:10.947207 21908 net.cpp:409] conv4 -> conv4
I0503 18:53:10.960834 21908 net.cpp:144] Setting up conv4
I0503 18:53:10.960885 21908 net.cpp:151] Top shape: 20 128 10 10 (256000)
I0503 18:53:10.960889 21908 net.cpp:159] Memory required for data: 11808240
I0503 18:53:10.960896 21908 layer_factory.hpp:77] Creating layer relu4
I0503 18:53:10.960901 21908 net.cpp:94] Creating Layer relu4
I0503 18:53:10.960909 21908 net.cpp:435] relu4 <- conv4
I0503 18:53:10.960916 21908 net.cpp:396] relu4 -> conv4 (in-place)
I0503 18:53:10.960922 21908 net.cpp:144] Setting up relu4
I0503 18:53:10.960927 21908 net.cpp:151] Top shape: 20 128 10 10 (256000)
I0503 18:53:10.960930 21908 net.cpp:159] Memory required for data: 12832240
I0503 18:53:10.960933 21908 layer_factory.hpp:77] Creating layer conv5
I0503 18:53:10.960942 21908 net.cpp:94] Creating Layer conv5
I0503 18:53:10.960944 21908 net.cpp:435] conv5 <- conv4
I0503 18:53:10.960949 21908 net.cpp:409] conv5 -> conv5
I0503 18:53:10.973903 21908 net.cpp:144] Setting up conv5
I0503 18:53:10.973918 21908 net.cpp:151] Top shape: 20 128 10 10 (256000)
I0503 18:53:10.973922 21908 net.cpp:159] Memory required for data: 13856240
I0503 18:53:10.973932 21908 layer_factory.hpp:77] Creating layer relu5
I0503 18:53:10.973937 21908 net.cpp:94] Creating Layer relu5
I0503 18:53:10.973940 21908 net.cpp:435] relu5 <- conv5
I0503 18:53:10.973945 21908 net.cpp:396] relu5 -> conv5 (in-place)
I0503 18:53:10.973953 21908 net.cpp:144] Setting up relu5
I0503 18:53:10.973958 21908 net.cpp:151] Top shape: 20 128 10 10 (256000)
I0503 18:53:10.973960 21908 net.cpp:159] Memory required for data: 14880240
I0503 18:53:10.973963 21908 layer_factory.hpp:77] Creating layer pool5
I0503 18:53:10.973968 21908 net.cpp:94] Creating Layer pool5
I0503 18:53:10.973971 21908 net.cpp:435] pool5 <- conv5
I0503 18:53:10.973975 21908 net.cpp:409] pool5 -> pool5
I0503 18:53:10.974001 21908 net.cpp:144] Setting up pool5
I0503 18:53:10.974009 21908 net.cpp:151] Top shape: 20 128 5 5 (64000)
I0503 18:53:10.974011 21908 net.cpp:159] Memory required for data: 15136240
I0503 18:53:10.974014 21908 layer_factory.hpp:77] Creating layer ip1
I0503 18:53:10.974021 21908 net.cpp:94] Creating Layer ip1
I0503 18:53:10.974025 21908 net.cpp:435] ip1 <- pool5
I0503 18:53:10.974028 21908 net.cpp:409] ip1 -> ip1
I0503 18:53:11.053170 21908 net.cpp:144] Setting up ip1
I0503 18:53:11.053201 21908 net.cpp:151] Top shape: 20 1024 (20480)
I0503 18:53:11.053205 21908 net.cpp:159] Memory required for data: 15218160
I0503 18:53:11.053213 21908 layer_factory.hpp:77] Creating layer ip2
I0503 18:53:11.053222 21908 net.cpp:94] Creating Layer ip2
I0503 18:53:11.053226 21908 net.cpp:435] ip2 <- ip1
I0503 18:53:11.053232 21908 net.cpp:409] ip2 -> ip2
I0503 18:53:11.066174 21908 net.cpp:144] Setting up ip2
I0503 18:53:11.066187 21908 net.cpp:151] Top shape: 20 512 (10240)
I0503 18:53:11.066191 21908 net.cpp:159] Memory required for data: 15259120
I0503 18:53:11.066196 21908 layer_factory.hpp:77] Creating layer ip3
I0503 18:53:11.066206 21908 net.cpp:94] Creating Layer ip3
I0503 18:53:11.066210 21908 net.cpp:435] ip3 <- ip2
I0503 18:53:11.066215 21908 net.cpp:409] ip3 -> ip3
I0503 18:53:11.066896 21908 net.cpp:144] Setting up ip3
I0503 18:53:11.066903 21908 net.cpp:151] Top shape: 20 50 (1000)
I0503 18:53:11.066906 21908 net.cpp:159] Memory required for data: 15263120
I0503 18:53:11.066911 21908 layer_factory.hpp:77] Creating layer ip3_ip3_0_split
I0503 18:53:11.066916 21908 net.cpp:94] Creating Layer ip3_ip3_0_split
I0503 18:53:11.066920 21908 net.cpp:435] ip3_ip3_0_split <- ip3
I0503 18:53:11.066925 21908 net.cpp:409] ip3_ip3_0_split -> ip3_ip3_0_split_0
I0503 18:53:11.066929 21908 net.cpp:409] ip3_ip3_0_split -> ip3_ip3_0_split_1
I0503 18:53:11.066953 21908 net.cpp:144] Setting up ip3_ip3_0_split
I0503 18:53:11.066959 21908 net.cpp:151] Top shape: 20 50 (1000)
I0503 18:53:11.066963 21908 net.cpp:151] Top shape: 20 50 (1000)
I0503 18:53:11.066967 21908 net.cpp:159] Memory required for data: 15271120
I0503 18:53:11.066969 21908 layer_factory.hpp:77] Creating layer accuracy
I0503 18:53:11.066974 21908 net.cpp:94] Creating Layer accuracy
I0503 18:53:11.066977 21908 net.cpp:435] accuracy <- ip3_ip3_0_split_0
I0503 18:53:11.066982 21908 net.cpp:435] accuracy <- label_intercept_1_split_0
I0503 18:53:11.066987 21908 net.cpp:409] accuracy -> accuracy
…
