…
I0503 14:34:39.197002 20977 net.cpp:323] The NetState phase (0) differed from the phase (1) specified by a rule in layer intercept
I0503 14:34:39.197018 20977 net.cpp:323] The NetState phase (0) differed from the phase (1) specified by a rule in layer accuracy
I0503 14:34:39.197105 20977 net.cpp:52] Initializing net from parameters: 
state {
  phase: TRAIN
}
layer {
  name: "parameters"
  type: "HDF5Data"
  top: "data"
  top: "label"
  include {
    phase: TRAIN
  }
  hdf5_data_param {
    source: "/home/purduethu/scratch/radon/d/deng106/CNNStatisticalModel/distributions/input/50_distributions_400_sample_size_train-distributions-path.txt"
    batch_size: 20
  }
}
layer {
  name: "conv1"
  type: "Convolution"
  bottom: "data"
  top: "conv1"
  param {
    lr_mult: 1
  }
  param {
    lr_mult: 2
  }
  convolution_param {
    num_output: 64
    pad: 2
    kernel_size: 5
    stride: 1
    weight_filler {
      type: "gaussian"
      std: 0.0001
    }
    bias_filler {
      type: "constant"
    }
  }
}
layer {
  name: "relu1"
  type: "ReLU"
  bottom: "conv1"
  top: "conv1"
}
layer {
  name: "conv2"
  type: "Convolution"
  bottom: "conv1"
  top: "conv2"
  param {
    lr_mult: 1
  }
  param {
    lr_mult: 2
  }
  convolution_param {
    num_output: 64
    pad: 2
    kernel_size: 5
    stride: 1
    weight_filler {
      type: "gaussian"
      std: 0.01
    }
    bias_filler {
      type: "constant"
    }
  }
}
layer {
  name: "relu2"
  type: "ReLU"
  bottom: "conv2"
  top: "conv2"
}
layer {
  name: "pool2"
  type: "Pooling"
  bottom: "conv2"
  top: "pool2"
  pooling_param {
    pool: MAX
    kernel_size: 3
    stride: 2
  }
}
layer {
  name: "conv3"
  type: "Convolution"
  bottom: "pool2"
  top: "conv3"
  param {
    lr_mult: 1
  }
  param {
    lr_mult: 2
  }
  convolution_param {
    num_output: 128
    pad: 2
    kernel_size: 5
    stride: 1
    weight_filler {
      type: "gaussian"
      std: 0.01
    }
    bias_filler {
      type: "constant"
    }
  }
}
layer {
  name: "relu3"
  type: "ReLU"
  bottom: "conv3"
  top: "conv3"
}
layer {
  name: "conv4"
  type: "Convolution"
  bottom: "conv3"
  top: "conv4"
  param {
    lr_mult: 1
  }
  param {
    lr_mult: 2
  }
  convolution_param {
    num_output: 128
    pad: 2
    kernel_size: 5
    stride: 1
    weight_filler {
      type: "gaussian"
      std: 0.01
    }
    bias_filler {
      type: "constant"
    }
  }
}
layer {
  name: "relu4"
  type: "ReLU"
  bottom: "conv4"
  top: "conv4"
}
layer {
  name: "conv5"
  type: "Convolution"
  bottom: "conv4"
  top: "conv5"
  param {
    lr_mult: 1
  }
  param {
    lr_mult: 2
  }
  convolution_param {
    num_output: 128
    pad: 2
    kernel_size: 5
    stride: 1
    weight_filler {
      type: "gaussian"
      std: 0.01
    }
    bias_filler {
      type: "constant"
    }
  }
}
layer {
  name: "relu5"
  type: "ReLU"
  bottom: "conv5"
  top: "conv5"
}
layer {
  name: "pool5"
  type: "Pooling"
  bottom: "conv5"
  top: "pool5"
  pooling_param {
    pool: AVE
    kernel_size: 3
    stride: 2
  }
}
layer {
  name: "ip1"
  type: "InnerProduct"
  bottom: "pool5"
  top: "ip1"
  param {
    lr_mult: 1
  }
  param {
    lr_mult: 2
  }
  inner_product_param {
    num_output: 1024
    weight_filler {
      type: "gaussian"
      std: 0.1
    }
    bias_filler {
      type: "constant"
    }
  }
}
layer {
  name: "ip2"
  type: "InnerProduct"
  bottom: "ip1"
  top: "ip2"
  param {
    lr_mult: 1
  }
  param {
    lr_mult: 2
  }
  inner_product_param {
    num_output: 512
    weight_filler {
      type: "gaussian"
      std: 0.1
    }
    bias_filler {
      type: "constant"
    }
  }
}
layer {
  name: "ip3"
  type: "InnerProduct"
  bottom: "ip2"
  top: "ip3"
  param {
    lr_mult: 1
  }
  param {
    lr_mult: 2
  }
  inner_product_param {
    num_output: 50
    weight_filler {
      type: "gaussian"
      std: 0.1
    }
    bias_filler {
      type: "constant"
    }
  }
}
layer {
  name: "loss"
  type: "SoftmaxWithLoss"
  bottom: "ip3"
  bottom: "label"
  top: "loss"
}
I0503 14:34:39.197177 20977 layer_factory.hpp:77] Creating layer parameters
I0503 14:34:39.197192 20977 net.cpp:94] Creating Layer parameters
I0503 14:34:39.197197 20977 net.cpp:409] parameters -> data
I0503 14:34:39.197216 20977 net.cpp:409] parameters -> label
I0503 14:34:39.197227 20977 hdf5_data_layer.cpp:79] Loading list of HDF5 filenames from: /home/purduethu/scratch/radon/d/deng106/CNNStatisticalModel/distributions/input/50_distributions_400_sample_size_train-distributions-path.txt
I0503 14:34:39.197247 20977 hdf5_data_layer.cpp:93] Number of HDF5 files: 1
I0503 14:34:39.197796 20977 hdf5.cpp:32] Datatype class: H5T_FLOAT
I0503 14:34:39.831487 20977 hdf5.cpp:35] Datatype class: H5T_INTEGER
I0503 14:34:39.834447 20977 net.cpp:144] Setting up parameters
I0503 14:34:39.834473 20977 net.cpp:151] Top shape: 20 1 20 20 (8000)
I0503 14:34:39.834480 20977 net.cpp:151] Top shape: 20 (20)
I0503 14:34:39.834483 20977 net.cpp:159] Memory required for data: 32080
I0503 14:34:39.834491 20977 layer_factory.hpp:77] Creating layer conv1
I0503 14:34:39.834511 20977 net.cpp:94] Creating Layer conv1
I0503 14:34:39.834516 20977 net.cpp:435] conv1 <- data
I0503 14:34:39.834527 20977 net.cpp:409] conv1 -> conv1
I0503 14:34:39.839308 20977 net.cpp:144] Setting up conv1
I0503 14:34:39.839324 20977 net.cpp:151] Top shape: 20 64 20 20 (512000)
I0503 14:34:39.839329 20977 net.cpp:159] Memory required for data: 2080080
I0503 14:34:39.839340 20977 layer_factory.hpp:77] Creating layer relu1
I0503 14:34:39.839349 20977 net.cpp:94] Creating Layer relu1
I0503 14:34:39.839354 20977 net.cpp:435] relu1 <- conv1
I0503 14:34:39.839357 20977 net.cpp:396] relu1 -> conv1 (in-place)
I0503 14:34:39.839376 20977 net.cpp:144] Setting up relu1
I0503 14:34:39.839381 20977 net.cpp:151] Top shape: 20 64 20 20 (512000)
I0503 14:34:39.839385 20977 net.cpp:159] Memory required for data: 4128080
I0503 14:34:39.839387 20977 layer_factory.hpp:77] Creating layer conv2
I0503 14:34:39.839396 20977 net.cpp:94] Creating Layer conv2
I0503 14:34:39.839399 20977 net.cpp:435] conv2 <- conv1
I0503 14:34:39.839404 20977 net.cpp:409] conv2 -> conv2
I0503 14:34:39.849792 20977 net.cpp:144] Setting up conv2
I0503 14:34:39.849807 20977 net.cpp:151] Top shape: 20 64 20 20 (512000)
I0503 14:34:39.849812 20977 net.cpp:159] Memory required for data: 6176080
I0503 14:34:39.849819 20977 layer_factory.hpp:77] Creating layer relu2
I0503 14:34:39.849827 20977 net.cpp:94] Creating Layer relu2
I0503 14:34:39.849830 20977 net.cpp:435] relu2 <- conv2
I0503 14:34:39.849834 20977 net.cpp:396] relu2 -> conv2 (in-place)
I0503 14:34:39.849843 20977 net.cpp:144] Setting up relu2
I0503 14:34:39.849846 20977 net.cpp:151] Top shape: 20 64 20 20 (512000)
I0503 14:34:39.849849 20977 net.cpp:159] Memory required for data: 8224080
I0503 14:34:39.849853 20977 layer_factory.hpp:77] Creating layer pool2
I0503 14:34:39.849866 20977 net.cpp:94] Creating Layer pool2
I0503 14:34:39.849870 20977 net.cpp:435] pool2 <- conv2
I0503 14:34:39.849875 20977 net.cpp:409] pool2 -> pool2
I0503 14:34:39.849917 20977 net.cpp:144] Setting up pool2
I0503 14:34:39.849925 20977 net.cpp:151] Top shape: 20 64 10 10 (128000)
I0503 14:34:39.849928 20977 net.cpp:159] Memory required for data: 8736080
I0503 14:34:39.849932 20977 layer_factory.hpp:77] Creating layer conv3
I0503 14:34:39.849941 20977 net.cpp:94] Creating Layer conv3
I0503 14:34:39.849943 20977 net.cpp:435] conv3 <- pool2
I0503 14:34:39.849956 20977 net.cpp:409] conv3 -> conv3
I0503 14:34:39.859112 20977 net.cpp:144] Setting up conv3
I0503 14:34:39.859127 20977 net.cpp:151] Top shape: 20 128 10 10 (256000)
I0503 14:34:39.859132 20977 net.cpp:159] Memory required for data: 9760080
I0503 14:34:39.859139 20977 layer_factory.hpp:77] Creating layer relu3
I0503 14:34:39.859145 20977 net.cpp:94] Creating Layer relu3
I0503 14:34:39.859149 20977 net.cpp:435] relu3 <- conv3
I0503 14:34:39.859153 20977 net.cpp:396] relu3 -> conv3 (in-place)
I0503 14:34:39.859161 20977 net.cpp:144] Setting up relu3
I0503 14:34:39.859165 20977 net.cpp:151] Top shape: 20 128 10 10 (256000)
I0503 14:34:39.859169 20977 net.cpp:159] Memory required for data: 10784080
I0503 14:34:39.859171 20977 layer_factory.hpp:77] Creating layer conv4
I0503 14:34:39.859180 20977 net.cpp:94] Creating Layer conv4
I0503 14:34:39.859184 20977 net.cpp:435] conv4 <- conv3
I0503 14:34:39.859189 20977 net.cpp:409] conv4 -> conv4
I0503 14:34:39.876389 20977 net.cpp:144] Setting up conv4
I0503 14:34:39.876405 20977 net.cpp:151] Top shape: 20 128 10 10 (256000)
I0503 14:34:39.876410 20977 net.cpp:159] Memory required for data: 11808080
I0503 14:34:39.876416 20977 layer_factory.hpp:77] Creating layer relu4
I0503 14:34:39.876422 20977 net.cpp:94] Creating Layer relu4
I0503 14:34:39.876426 20977 net.cpp:435] relu4 <- conv4
I0503 14:34:39.876430 20977 net.cpp:396] relu4 -> conv4 (in-place)
I0503 14:34:39.876438 20977 net.cpp:144] Setting up relu4
I0503 14:34:39.876442 20977 net.cpp:151] Top shape: 20 128 10 10 (256000)
I0503 14:34:39.876446 20977 net.cpp:159] Memory required for data: 12832080
I0503 14:34:39.876448 20977 layer_factory.hpp:77] Creating layer conv5
I0503 14:34:39.876456 20977 net.cpp:94] Creating Layer conv5
I0503 14:34:39.876461 20977 net.cpp:435] conv5 <- conv4
I0503 14:34:39.876466 20977 net.cpp:409] conv5 -> conv5
I0503 14:34:39.893357 20977 net.cpp:144] Setting up conv5
I0503 14:34:39.893371 20977 net.cpp:151] Top shape: 20 128 10 10 (256000)
I0503 14:34:39.893376 20977 net.cpp:159] Memory required for data: 13856080
I0503 14:34:39.893384 20977 layer_factory.hpp:77] Creating layer relu5
I0503 14:34:39.893391 20977 net.cpp:94] Creating Layer relu5
I0503 14:34:39.893394 20977 net.cpp:435] relu5 <- conv5
I0503 14:34:39.893399 20977 net.cpp:396] relu5 -> conv5 (in-place)
I0503 14:34:39.893406 20977 net.cpp:144] Setting up relu5
I0503 14:34:39.893411 20977 net.cpp:151] Top shape: 20 128 10 10 (256000)
I0503 14:34:39.893414 20977 net.cpp:159] Memory required for data: 14880080
I0503 14:34:39.893417 20977 layer_factory.hpp:77] Creating layer pool5
I0503 14:34:39.893422 20977 net.cpp:94] Creating Layer pool5
I0503 14:34:39.893425 20977 net.cpp:435] pool5 <- conv5
I0503 14:34:39.893429 20977 net.cpp:409] pool5 -> pool5
I0503 14:34:39.893463 20977 net.cpp:144] Setting up pool5
I0503 14:34:39.893471 20977 net.cpp:151] Top shape: 20 128 5 5 (64000)
I0503 14:34:39.893474 20977 net.cpp:159] Memory required for data: 15136080
I0503 14:34:39.893477 20977 layer_factory.hpp:77] Creating layer ip1
I0503 14:34:39.893484 20977 net.cpp:94] Creating Layer ip1
I0503 14:34:39.893487 20977 net.cpp:435] ip1 <- pool5
I0503 14:34:39.893492 20977 net.cpp:409] ip1 -> ip1
I0503 14:34:39.972378 20977 net.cpp:144] Setting up ip1
I0503 14:34:39.972409 20977 net.cpp:151] Top shape: 20 1024 (20480)
I0503 14:34:39.972414 20977 net.cpp:159] Memory required for data: 15218000
I0503 14:34:39.972421 20977 layer_factory.hpp:77] Creating layer ip2
I0503 14:34:39.972439 20977 net.cpp:94] Creating Layer ip2
I0503 14:34:39.972443 20977 net.cpp:435] ip2 <- ip1
I0503 14:34:39.972450 20977 net.cpp:409] ip2 -> ip2
I0503 14:34:39.985394 20977 net.cpp:144] Setting up ip2
I0503 14:34:39.985409 20977 net.cpp:151] Top shape: 20 512 (10240)
I0503 14:34:39.985412 20977 net.cpp:159] Memory required for data: 15258960
I0503 14:34:39.985419 20977 layer_factory.hpp:77] Creating layer ip3
I0503 14:34:39.985424 20977 net.cpp:94] Creating Layer ip3
I0503 14:34:39.985429 20977 net.cpp:435] ip3 <- ip2
I0503 14:34:39.985433 20977 net.cpp:409] ip3 -> ip3
I0503 14:34:39.986729 20977 net.cpp:144] Setting up ip3
I0503 14:34:39.986742 20977 net.cpp:151] Top shape: 20 50 (1000)
I0503 14:34:39.986745 20977 net.cpp:159] Memory required for data: 15262960
I0503 14:34:39.986750 20977 layer_factory.hpp:77] Creating layer loss
I0503 14:34:39.986759 20977 net.cpp:94] Creating Layer loss
I0503 14:34:39.986763 20977 net.cpp:435] loss <- ip3
I0503 14:34:39.986766 20977 net.cpp:435] loss <- label
I0503 14:34:39.986773 20977 net.cpp:409] loss -> loss
I0503 14:34:39.986784 20977 layer_factory.hpp:77] Creating layer loss
…
I0503 14:34:39.987290 20977 solver.cpp:181] Creating test net (#0) specified by net file: ./protocol/dis_50_400_dimension.protocol_distribution
I0503 14:34:39.987318 20977 net.cpp:323] The NetState phase (1) differed from the phase (0) specified by a rule in layer parameters
I0503 14:34:39.987421 20977 net.cpp:52] Initializing net from parameters: 
state {
  phase: TEST
}
layer {
  name: "intercept"
  type: "HDF5Data"
  top: "data"
  top: "label"
  include {
    phase: TEST
  }
  hdf5_data_param {
    source: "/home/purduethu/scratch/radon/d/deng106/CNNStatisticalModel/distributions/input/50_distributions_400_sample_size_test-distributions-path.txt"
    batch_size: 20
  }
}
layer {
  name: "conv1"
  type: "Convolution"
  bottom: "data"
  top: "conv1"
  param {
    lr_mult: 1
  }
  param {
    lr_mult: 2
  }
  convolution_param {
    num_output: 64
    pad: 2
    kernel_size: 5
    stride: 1
    weight_filler {
      type: "gaussian"
      std: 0.0001
    }
    bias_filler {
      type: "constant"
    }
  }
}
layer {
  name: "relu1"
  type: "ReLU"
  bottom: "conv1"
  top: "conv1"
}
layer {
  name: "conv2"
  type: "Convolution"
  bottom: "conv1"
  top: "conv2"
  param {
    lr_mult: 1
  }
  param {
    lr_mult: 2
  }
  convolution_param {
    num_output: 64
    pad: 2
    kernel_size: 5
    stride: 1
    weight_filler {
      type: "gaussian"
      std: 0.01
    }
    bias_filler {
      type: "constant"
    }
  }
}
layer {
  name: "relu2"
  type: "ReLU"
  bottom: "conv2"
  top: "conv2"
}
layer {
  name: "pool2"
  type: "Pooling"
  bottom: "conv2"
  top: "pool2"
  pooling_param {
    pool: MAX
    kernel_size: 3
    stride: 2
  }
}
layer {
  name: "conv3"
  type: "Convolution"
  bottom: "pool2"
  top: "conv3"
  param {
    lr_mult: 1
  }
  param {
    lr_mult: 2
  }
  convolution_param {
    num_output: 128
    pad: 2
    kernel_size: 5
    stride: 1
    weight_filler {
      type: "gaussian"
      std: 0.01
    }
    bias_filler {
      type: "constant"
    }
  }
}
layer {
  name: "relu3"
  type: "ReLU"
  bottom: "conv3"
  top: "conv3"
}
layer {
  name: "conv4"
  type: "Convolution"
  bottom: "conv3"
  top: "conv4"
  param {
    lr_mult: 1
  }
  param {
    lr_mult: 2
  }
  convolution_param {
    num_output: 128
    pad: 2
    kernel_size: 5
    stride: 1
    weight_filler {
      type: "gaussian"
      std: 0.01
    }
    bias_filler {
      type: "constant"
    }
  }
}
layer {
  name: "relu4"
  type: "ReLU"
  bottom: "conv4"
  top: "conv4"
}
layer {
  name: "conv5"
  type: "Convolution"
  bottom: "conv4"
  top: "conv5"
  param {
    lr_mult: 1
  }
  param {
    lr_mult: 2
  }
  convolution_param {
    num_output: 128
    pad: 2
    kernel_size: 5
    stride: 1
    weight_filler {
      type: "gaussian"
      std: 0.01
    }
    bias_filler {
      type: "constant"
    }
  }
}
layer {
  name: "relu5"
  type: "ReLU"
  bottom: "conv5"
  top: "conv5"
}
layer {
  name: "pool5"
  type: "Pooling"
  bottom: "conv5"
  top: "pool5"
  pooling_param {
    pool: AVE
    kernel_size: 3
    stride: 2
  }
}
layer {
  name: "ip1"
  type: "InnerProduct"
  bottom: "pool5"
  top: "ip1"
  param {
    lr_mult: 1
  }
  param {
    lr_mult: 2
  }
  inner_product_param {
    num_output: 1024
    weight_filler {
      type: "gaussian"
      std: 0.1
    }
    bias_filler {
      type: "constant"
    }
  }
}
layer {
  name: "ip2"
  type: "InnerProduct"
  bottom: "ip1"
  top: "ip2"
  param {
    lr_mult: 1
  }
  param {
    lr_mult: 2
  }
  inner_product_param {
    num_output: 512
    weight_filler {
      type: "gaussian"
      std: 0.1
    }
    bias_filler {
      type: "constant"
    }
  }
}
layer {
  name: "ip3"
  type: "InnerProduct"
  bottom: "ip2"
  top: "ip3"
  param {
    lr_mult: 1
  }
  param {
    lr_mult: 2
  }
  inner_product_param {
    num_output: 50
    weight_filler {
      type: "gaussian"
      std: 0.1
    }
    bias_filler {
      type: "constant"
    }
  }
}
layer {
  name: "accuracy"
  type: "Accuracy"
  bottom: "ip3"
  bottom: "label"
  top: "accuracy"
  include {
    phase: TEST
  }
}
layer {
  name: "loss"
  type: "SoftmaxWithLoss"
  bottom: "ip3"
  bottom: "label"
  top: "loss"
}
I0503 14:34:39.987493 20977 layer_factory.hpp:77] Creating layer intercept
I0503 14:34:39.987501 20977 net.cpp:94] Creating Layer intercept
I0503 14:34:39.987506 20977 net.cpp:409] intercept -> data
I0503 14:34:39.987512 20977 net.cpp:409] intercept -> label
I0503 14:34:39.987519 20977 hdf5_data_layer.cpp:79] Loading list of HDF5 filenames from: /home/purduethu/scratch/radon/d/deng106/CNNStatisticalModel/distributions/input/50_distributions_400_sample_size_test-distributions-path.txt
I0503 14:34:39.987538 20977 hdf5_data_layer.cpp:93] Number of HDF5 files: 1
I0503 14:34:40.152700 20977 net.cpp:144] Setting up intercept
I0503 14:34:40.152735 20977 net.cpp:151] Top shape: 20 1 20 20 (8000)
I0503 14:34:40.152740 20977 net.cpp:151] Top shape: 20 (20)
I0503 14:34:40.152745 20977 net.cpp:159] Memory required for data: 32080
I0503 14:34:40.152750 20977 layer_factory.hpp:77] Creating layer label_intercept_1_split
I0503 14:34:40.152770 20977 net.cpp:94] Creating Layer label_intercept_1_split
I0503 14:34:40.152776 20977 net.cpp:435] label_intercept_1_split <- label
I0503 14:34:40.152781 20977 net.cpp:409] label_intercept_1_split -> label_intercept_1_split_0
I0503 14:34:40.152791 20977 net.cpp:409] label_intercept_1_split -> label_intercept_1_split_1
I0503 14:34:40.152825 20977 net.cpp:144] Setting up label_intercept_1_split
I0503 14:34:40.152832 20977 net.cpp:151] Top shape: 20 (20)
I0503 14:34:40.152837 20977 net.cpp:151] Top shape: 20 (20)
I0503 14:34:40.152839 20977 net.cpp:159] Memory required for data: 32240
I0503 14:34:40.152842 20977 layer_factory.hpp:77] Creating layer conv1
I0503 14:34:40.152853 20977 net.cpp:94] Creating Layer conv1
I0503 14:34:40.152858 20977 net.cpp:435] conv1 <- data
I0503 14:34:40.152863 20977 net.cpp:409] conv1 -> conv1
I0503 14:34:40.153561 20977 net.cpp:144] Setting up conv1
I0503 14:34:40.153574 20977 net.cpp:151] Top shape: 20 64 20 20 (512000)
I0503 14:34:40.153579 20977 net.cpp:159] Memory required for data: 2080240
I0503 14:34:40.153589 20977 layer_factory.hpp:77] Creating layer relu1
I0503 14:34:40.153595 20977 net.cpp:94] Creating Layer relu1
I0503 14:34:40.153599 20977 net.cpp:435] relu1 <- conv1
I0503 14:34:40.153604 20977 net.cpp:396] relu1 -> conv1 (in-place)
I0503 14:34:40.153610 20977 net.cpp:144] Setting up relu1
I0503 14:34:40.153615 20977 net.cpp:151] Top shape: 20 64 20 20 (512000)
I0503 14:34:40.153619 20977 net.cpp:159] Memory required for data: 4128240
I0503 14:34:40.153621 20977 layer_factory.hpp:77] Creating layer conv2
I0503 14:34:40.153630 20977 net.cpp:94] Creating Layer conv2
I0503 14:34:40.153633 20977 net.cpp:435] conv2 <- conv1
I0503 14:34:40.153638 20977 net.cpp:409] conv2 -> conv2
I0503 14:34:40.158521 20977 net.cpp:144] Setting up conv2
I0503 14:34:40.158537 20977 net.cpp:151] Top shape: 20 64 20 20 (512000)
I0503 14:34:40.158542 20977 net.cpp:159] Memory required for data: 6176240
I0503 14:34:40.158550 20977 layer_factory.hpp:77] Creating layer relu2
I0503 14:34:40.158555 20977 net.cpp:94] Creating Layer relu2
I0503 14:34:40.158560 20977 net.cpp:435] relu2 <- conv2
I0503 14:34:40.158563 20977 net.cpp:396] relu2 -> conv2 (in-place)
I0503 14:34:40.158571 20977 net.cpp:144] Setting up relu2
I0503 14:34:40.158576 20977 net.cpp:151] Top shape: 20 64 20 20 (512000)
I0503 14:34:40.158578 20977 net.cpp:159] Memory required for data: 8224240
I0503 14:34:40.158581 20977 layer_factory.hpp:77] Creating layer pool2
I0503 14:34:40.158587 20977 net.cpp:94] Creating Layer pool2
I0503 14:34:40.158591 20977 net.cpp:435] pool2 <- conv2
I0503 14:34:40.158596 20977 net.cpp:409] pool2 -> pool2
I0503 14:34:40.158629 20977 net.cpp:144] Setting up pool2
I0503 14:34:40.158637 20977 net.cpp:151] Top shape: 20 64 10 10 (128000)
I0503 14:34:40.158639 20977 net.cpp:159] Memory required for data: 8736240
I0503 14:34:40.158643 20977 layer_factory.hpp:77] Creating layer conv3
I0503 14:34:40.158650 20977 net.cpp:94] Creating Layer conv3
I0503 14:34:40.158654 20977 net.cpp:435] conv3 <- pool2
I0503 14:34:40.158659 20977 net.cpp:409] conv3 -> conv3
I0503 14:34:40.165630 20977 net.cpp:144] Setting up conv3
I0503 14:34:40.165645 20977 net.cpp:151] Top shape: 20 128 10 10 (256000)
I0503 14:34:40.165650 20977 net.cpp:159] Memory required for data: 9760240
I0503 14:34:40.165658 20977 layer_factory.hpp:77] Creating layer relu3
I0503 14:34:40.165665 20977 net.cpp:94] Creating Layer relu3
I0503 14:34:40.165669 20977 net.cpp:435] relu3 <- conv3
I0503 14:34:40.165673 20977 net.cpp:396] relu3 -> conv3 (in-place)
I0503 14:34:40.165680 20977 net.cpp:144] Setting up relu3
I0503 14:34:40.165685 20977 net.cpp:151] Top shape: 20 128 10 10 (256000)
I0503 14:34:40.165688 20977 net.cpp:159] Memory required for data: 10784240
I0503 14:34:40.165691 20977 layer_factory.hpp:77] Creating layer conv4
I0503 14:34:40.165699 20977 net.cpp:94] Creating Layer conv4
I0503 14:34:40.165702 20977 net.cpp:435] conv4 <- conv3
I0503 14:34:40.165707 20977 net.cpp:409] conv4 -> conv4
I0503 14:34:40.178933 20977 net.cpp:144] Setting up conv4
I0503 14:34:40.178948 20977 net.cpp:151] Top shape: 20 128 10 10 (256000)
I0503 14:34:40.178952 20977 net.cpp:159] Memory required for data: 11808240
I0503 14:34:40.178958 20977 layer_factory.hpp:77] Creating layer relu4
I0503 14:34:40.178964 20977 net.cpp:94] Creating Layer relu4
I0503 14:34:40.178972 20977 net.cpp:435] relu4 <- conv4
I0503 14:34:40.178977 20977 net.cpp:396] relu4 -> conv4 (in-place)
I0503 14:34:40.178984 20977 net.cpp:144] Setting up relu4
I0503 14:34:40.178989 20977 net.cpp:151] Top shape: 20 128 10 10 (256000)
I0503 14:34:40.178992 20977 net.cpp:159] Memory required for data: 12832240
I0503 14:34:40.178995 20977 layer_factory.hpp:77] Creating layer conv5
I0503 14:34:40.179003 20977 net.cpp:94] Creating Layer conv5
I0503 14:34:40.179006 20977 net.cpp:435] conv5 <- conv4
I0503 14:34:40.179011 20977 net.cpp:409] conv5 -> conv5
I0503 14:34:40.191810 20977 net.cpp:144] Setting up conv5
I0503 14:34:40.191825 20977 net.cpp:151] Top shape: 20 128 10 10 (256000)
I0503 14:34:40.191829 20977 net.cpp:159] Memory required for data: 13856240
I0503 14:34:40.191838 20977 layer_factory.hpp:77] Creating layer relu5
I0503 14:34:40.191843 20977 net.cpp:94] Creating Layer relu5
I0503 14:34:40.191848 20977 net.cpp:435] relu5 <- conv5
I0503 14:34:40.191851 20977 net.cpp:396] relu5 -> conv5 (in-place)
I0503 14:34:40.191859 20977 net.cpp:144] Setting up relu5
I0503 14:34:40.191862 20977 net.cpp:151] Top shape: 20 128 10 10 (256000)
I0503 14:34:40.191866 20977 net.cpp:159] Memory required for data: 14880240
I0503 14:34:40.191869 20977 layer_factory.hpp:77] Creating layer pool5
I0503 14:34:40.191874 20977 net.cpp:94] Creating Layer pool5
I0503 14:34:40.191877 20977 net.cpp:435] pool5 <- conv5
I0503 14:34:40.191881 20977 net.cpp:409] pool5 -> pool5
I0503 14:34:40.191906 20977 net.cpp:144] Setting up pool5
I0503 14:34:40.191913 20977 net.cpp:151] Top shape: 20 128 5 5 (64000)
I0503 14:34:40.191916 20977 net.cpp:159] Memory required for data: 15136240
I0503 14:34:40.191920 20977 layer_factory.hpp:77] Creating layer ip1
I0503 14:34:40.191926 20977 net.cpp:94] Creating Layer ip1
I0503 14:34:40.191929 20977 net.cpp:435] ip1 <- pool5
I0503 14:34:40.191934 20977 net.cpp:409] ip1 -> ip1
I0503 14:34:40.270612 20977 net.cpp:144] Setting up ip1
I0503 14:34:40.270643 20977 net.cpp:151] Top shape: 20 1024 (20480)
I0503 14:34:40.270648 20977 net.cpp:159] Memory required for data: 15218160
I0503 14:34:40.270655 20977 layer_factory.hpp:77] Creating layer ip2
I0503 14:34:40.270664 20977 net.cpp:94] Creating Layer ip2
I0503 14:34:40.270669 20977 net.cpp:435] ip2 <- ip1
I0503 14:34:40.270675 20977 net.cpp:409] ip2 -> ip2
I0503 14:34:40.283632 20977 net.cpp:144] Setting up ip2
I0503 14:34:40.283644 20977 net.cpp:151] Top shape: 20 512 (10240)
I0503 14:34:40.283648 20977 net.cpp:159] Memory required for data: 15259120
I0503 14:34:40.283654 20977 layer_factory.hpp:77] Creating layer ip3
I0503 14:34:40.283663 20977 net.cpp:94] Creating Layer ip3
I0503 14:34:40.283668 20977 net.cpp:435] ip3 <- ip2
I0503 14:34:40.283673 20977 net.cpp:409] ip3 -> ip3
I0503 14:34:40.284343 20977 net.cpp:144] Setting up ip3
I0503 14:34:40.284350 20977 net.cpp:151] Top shape: 20 50 (1000)
I0503 14:34:40.284353 20977 net.cpp:159] Memory required for data: 15263120
I0503 14:34:40.284358 20977 layer_factory.hpp:77] Creating layer ip3_ip3_0_split
I0503 14:34:40.284364 20977 net.cpp:94] Creating Layer ip3_ip3_0_split
I0503 14:34:40.284368 20977 net.cpp:435] ip3_ip3_0_split <- ip3
I0503 14:34:40.284371 20977 net.cpp:409] ip3_ip3_0_split -> ip3_ip3_0_split_0
I0503 14:34:40.284377 20977 net.cpp:409] ip3_ip3_0_split -> ip3_ip3_0_split_1
I0503 14:34:40.284401 20977 net.cpp:144] Setting up ip3_ip3_0_split
I0503 14:34:40.284407 20977 net.cpp:151] Top shape: 20 50 (1000)
I0503 14:34:40.284410 20977 net.cpp:151] Top shape: 20 50 (1000)
I0503 14:34:40.284413 20977 net.cpp:159] Memory required for data: 15271120
I0503 14:34:40.284416 20977 layer_factory.hpp:77] Creating layer accuracy
I0503 14:34:40.284427 20977 net.cpp:94] Creating Layer accuracy
I0503 14:34:40.284431 20977 net.cpp:435] accuracy <- ip3_ip3_0_split_0
I0503 14:34:40.284435 20977 net.cpp:435] accuracy <- label_intercept_1_split_0
I0503 14:34:40.284440 20977 net.cpp:409] accuracy -> accuracy
…
