…
I0507 20:36:55.529767  7157 net.cpp:323] The NetState phase (0) differed from the phase (1) specified by a rule in layer intercept
I0507 20:36:55.529810  7157 net.cpp:323] The NetState phase (0) differed from the phase (1) specified by a rule in layer loss
I0507 20:36:55.530041  7157 net.cpp:52] Initializing net from parameters: 
state {
  phase: TRAIN
}
layer {
  name: "parameters"
  type: "HDF5Data"
  top: "data"
  top: "label"
  include {
    phase: TRAIN
  }
  hdf5_data_param {
    source: "/home/purduethu/scratch/radon/d/deng106/CNNStatisticalModel/distributions/input/20_distributions_900_sample_size_train-parameters-path.txt"
    batch_size: 20
  }
}
layer {
  name: "conv1"
  type: "Convolution"
  bottom: "data"
  top: "conv1"
  param {
    lr_mult: 1
  }
  param {
    lr_mult: 2
  }
  convolution_param {
    num_output: 64
    pad: 2
    kernel_size: 5
    stride: 1
    weight_filler {
      type: "gaussian"
      std: 0.0001
    }
    bias_filler {
      type: "constant"
    }
  }
}
layer {
  name: "relu1"
  type: "ReLU"
  bottom: "conv1"
  top: "conv1"
}
layer {
  name: "conv2"
  type: "Convolution"
  bottom: "conv1"
  top: "conv2"
  param {
    lr_mult: 1
  }
  param {
    lr_mult: 2
  }
  convolution_param {
    num_output: 64
    pad: 2
    kernel_size: 5
    stride: 1
    weight_filler {
      type: "gaussian"
      std: 0.01
    }
    bias_filler {
      type: "constant"
    }
  }
}
layer {
  name: "relu2"
  type: "ReLU"
  bottom: "conv2"
  top: "conv2"
}
layer {
  name: "pool2"
  type: "Pooling"
  bottom: "conv2"
  top: "pool2"
  pooling_param {
    pool: MAX
    kernel_size: 3
    stride: 2
  }
}
layer {
  name: "conv3"
  type: "Convolution"
  bottom: "pool2"
  top: "conv3"
  param {
    lr_mult: 1
  }
  param {
    lr_mult: 2
  }
  convolution_param {
    num_output: 64
    pad: 2
    kernel_size: 5
    stride: 1
    weight_filler {
      type: "gaussian"
      std: 0.01
    }
    bias_filler {
      type: "constant"
    }
  }
}
layer {
  name: "relu3"
  type: "ReLU"
  bottom: "conv3"
  top: "conv3"
}
layer {
  name: "conv4"
  type: "Convolution"
  bottom: "conv3"
  top: "conv4"
  param {
    lr_mult: 1
  }
  param {
    lr_mult: 2
  }
  convolution_param {
    num_output: 64
    pad: 2
    kernel_size: 5
    stride: 1
    weight_filler {
      type: "gaussian"
      std: 0.01
    }
    bias_filler {
      type: "constant"
    }
  }
}
layer {
  name: "relu4"
  type: "ReLU"
  bottom: "conv4"
  top: "conv4"
}
layer {
  name: "conv5"
  type: "Convolution"
  bottom: "conv4"
  top: "conv5"
  param {
    lr_mult: 1
  }
  param {
    lr_mult: 2
  }
  convolution_param {
    num_output: 64
    pad: 2
    kernel_size: 5
    stride: 1
    weight_filler {
      type: "gaussian"
      std: 0.01
    }
    bias_filler {
      type: "constant"
    }
  }
}
layer {
  name: "relu5"
  type: "ReLU"
  bottom: "conv5"
  top: "conv5"
}
layer {
  name: "pool5"
  type: "Pooling"
  bottom: "conv5"
  top: "pool5"
  pooling_param {
    pool: AVE
    kernel_size: 3
    stride: 2
  }
}
layer {
  name: "ip1"
  type: "InnerProduct"
  bottom: "pool5"
  top: "ip1"
  param {
    lr_mult: 1
  }
  param {
    lr_mult: 2
  }
  inner_product_param {
    num_output: 64
    weight_filler {
      type: "gaussian"
      std: 0.1
    }
    bias_filler {
      type: "constant"
    }
  }
}
layer {
  name: "ip2"
  type: "InnerProduct"
  bottom: "ip1"
  top: "ip2"
  param {
    lr_mult: 1
  }
  param {
    lr_mult: 2
  }
  inner_product_param {
    num_output: 64
    weight_filler {
      type: "gaussian"
      std: 0.1
    }
    bias_filler {
      type: "constant"
    }
  }
}
layer {
  name: "ip3"
  type: "InnerProduct"
  bottom: "ip2"
  top: "ip3"
  param {
    lr_mult: 1
  }
  param {
    lr_mult: 2
  }
  inner_product_param {
    num_output: 1
    weight_filler {
      type: "gaussian"
      std: 0.1
    }
    bias_filler {
      type: "constant"
    }
  }
}
layer {
  name: "loss"
  type: "HuberLoss"
  bottom: "ip3"
  bottom: "label"
  top: "loss"
  include {
    phase: TRAIN
  }
}
I0507 20:36:55.530175  7157 layer_factory.hpp:77] Creating layer parameters
I0507 20:36:55.530210  7157 net.cpp:94] Creating Layer parameters
I0507 20:36:55.530223  7157 net.cpp:409] parameters -> data
I0507 20:36:55.530244  7157 net.cpp:409] parameters -> label
I0507 20:36:55.530262  7157 hdf5_data_layer.cpp:79] Loading list of HDF5 filenames from: /home/purduethu/scratch/radon/d/deng106/CNNStatisticalModel/distributions/input/20_distributions_900_sample_size_train-parameters-path.txt
I0507 20:36:55.530297  7157 hdf5_data_layer.cpp:93] Number of HDF5 files: 1
I0507 20:36:55.531647  7157 hdf5.cpp:32] Datatype class: H5T_FLOAT
I0507 20:36:56.207273  7157 net.cpp:144] Setting up parameters
I0507 20:36:56.207304  7157 net.cpp:151] Top shape: 20 1 30 30 (18000)
I0507 20:36:56.207309  7157 net.cpp:151] Top shape: 20 (20)
I0507 20:36:56.207314  7157 net.cpp:159] Memory required for data: 72080
I0507 20:36:56.207319  7157 layer_factory.hpp:77] Creating layer conv1
I0507 20:36:56.207335  7157 net.cpp:94] Creating Layer conv1
I0507 20:36:56.207340  7157 net.cpp:435] conv1 <- data
I0507 20:36:56.207346  7157 net.cpp:409] conv1 -> conv1
I0507 20:36:56.214081  7157 net.cpp:144] Setting up conv1
I0507 20:36:56.214097  7157 net.cpp:151] Top shape: 20 64 30 30 (1152000)
I0507 20:36:56.214102  7157 net.cpp:159] Memory required for data: 4680080
I0507 20:36:56.214112  7157 layer_factory.hpp:77] Creating layer relu1
I0507 20:36:56.214120  7157 net.cpp:94] Creating Layer relu1
I0507 20:36:56.214123  7157 net.cpp:435] relu1 <- conv1
I0507 20:36:56.214128  7157 net.cpp:396] relu1 -> conv1 (in-place)
I0507 20:36:56.214135  7157 net.cpp:144] Setting up relu1
I0507 20:36:56.214140  7157 net.cpp:151] Top shape: 20 64 30 30 (1152000)
I0507 20:36:56.214143  7157 net.cpp:159] Memory required for data: 9288080
I0507 20:36:56.214146  7157 layer_factory.hpp:77] Creating layer conv2
I0507 20:36:56.214154  7157 net.cpp:94] Creating Layer conv2
I0507 20:36:56.214157  7157 net.cpp:435] conv2 <- conv1
I0507 20:36:56.214162  7157 net.cpp:409] conv2 -> conv2
I0507 20:36:56.229043  7157 net.cpp:144] Setting up conv2
I0507 20:36:56.229058  7157 net.cpp:151] Top shape: 20 64 30 30 (1152000)
I0507 20:36:56.229063  7157 net.cpp:159] Memory required for data: 13896080
I0507 20:36:56.229071  7157 layer_factory.hpp:77] Creating layer relu2
I0507 20:36:56.229077  7157 net.cpp:94] Creating Layer relu2
I0507 20:36:56.229081  7157 net.cpp:435] relu2 <- conv2
I0507 20:36:56.229085  7157 net.cpp:396] relu2 -> conv2 (in-place)
I0507 20:36:56.229092  7157 net.cpp:144] Setting up relu2
I0507 20:36:56.229097  7157 net.cpp:151] Top shape: 20 64 30 30 (1152000)
I0507 20:36:56.229100  7157 net.cpp:159] Memory required for data: 18504080
I0507 20:36:56.229104  7157 layer_factory.hpp:77] Creating layer pool2
I0507 20:36:56.229115  7157 net.cpp:94] Creating Layer pool2
I0507 20:36:56.229120  7157 net.cpp:435] pool2 <- conv2
I0507 20:36:56.229123  7157 net.cpp:409] pool2 -> pool2
I0507 20:36:56.229182  7157 net.cpp:144] Setting up pool2
I0507 20:36:56.229189  7157 net.cpp:151] Top shape: 20 64 15 15 (288000)
I0507 20:36:56.229192  7157 net.cpp:159] Memory required for data: 19656080
I0507 20:36:56.229195  7157 layer_factory.hpp:77] Creating layer conv3
I0507 20:36:56.229203  7157 net.cpp:94] Creating Layer conv3
I0507 20:36:56.229207  7157 net.cpp:435] conv3 <- pool2
I0507 20:36:56.229212  7157 net.cpp:409] conv3 -> conv3
I0507 20:36:56.237704  7157 net.cpp:144] Setting up conv3
I0507 20:36:56.237720  7157 net.cpp:151] Top shape: 20 64 15 15 (288000)
I0507 20:36:56.237725  7157 net.cpp:159] Memory required for data: 20808080
I0507 20:36:56.237733  7157 layer_factory.hpp:77] Creating layer relu3
I0507 20:36:56.237740  7157 net.cpp:94] Creating Layer relu3
I0507 20:36:56.237742  7157 net.cpp:435] relu3 <- conv3
I0507 20:36:56.237747  7157 net.cpp:396] relu3 -> conv3 (in-place)
I0507 20:36:56.237754  7157 net.cpp:144] Setting up relu3
I0507 20:36:56.237759  7157 net.cpp:151] Top shape: 20 64 15 15 (288000)
I0507 20:36:56.237762  7157 net.cpp:159] Memory required for data: 21960080
I0507 20:36:56.237766  7157 layer_factory.hpp:77] Creating layer conv4
I0507 20:36:56.237774  7157 net.cpp:94] Creating Layer conv4
I0507 20:36:56.237777  7157 net.cpp:435] conv4 <- conv3
I0507 20:36:56.237782  7157 net.cpp:409] conv4 -> conv4
I0507 20:36:56.245239  7157 net.cpp:144] Setting up conv4
I0507 20:36:56.245254  7157 net.cpp:151] Top shape: 20 64 15 15 (288000)
I0507 20:36:56.245257  7157 net.cpp:159] Memory required for data: 23112080
I0507 20:36:56.245265  7157 layer_factory.hpp:77] Creating layer relu4
I0507 20:36:56.245270  7157 net.cpp:94] Creating Layer relu4
I0507 20:36:56.245273  7157 net.cpp:435] relu4 <- conv4
I0507 20:36:56.245278  7157 net.cpp:396] relu4 -> conv4 (in-place)
I0507 20:36:56.245285  7157 net.cpp:144] Setting up relu4
I0507 20:36:56.245290  7157 net.cpp:151] Top shape: 20 64 15 15 (288000)
I0507 20:36:56.245292  7157 net.cpp:159] Memory required for data: 24264080
I0507 20:36:56.245296  7157 layer_factory.hpp:77] Creating layer conv5
I0507 20:36:56.245303  7157 net.cpp:94] Creating Layer conv5
I0507 20:36:56.245306  7157 net.cpp:435] conv5 <- conv4
I0507 20:36:56.245311  7157 net.cpp:409] conv5 -> conv5
I0507 20:36:56.253695  7157 net.cpp:144] Setting up conv5
I0507 20:36:56.253732  7157 net.cpp:151] Top shape: 20 64 15 15 (288000)
I0507 20:36:56.253751  7157 net.cpp:159] Memory required for data: 25416080
I0507 20:36:56.253759  7157 layer_factory.hpp:77] Creating layer relu5
I0507 20:36:56.253765  7157 net.cpp:94] Creating Layer relu5
I0507 20:36:56.253768  7157 net.cpp:435] relu5 <- conv5
I0507 20:36:56.253773  7157 net.cpp:396] relu5 -> conv5 (in-place)
I0507 20:36:56.253780  7157 net.cpp:144] Setting up relu5
I0507 20:36:56.253784  7157 net.cpp:151] Top shape: 20 64 15 15 (288000)
I0507 20:36:56.253787  7157 net.cpp:159] Memory required for data: 26568080
I0507 20:36:56.253792  7157 layer_factory.hpp:77] Creating layer pool5
I0507 20:36:56.253796  7157 net.cpp:94] Creating Layer pool5
I0507 20:36:56.253799  7157 net.cpp:435] pool5 <- conv5
I0507 20:36:56.253803  7157 net.cpp:409] pool5 -> pool5
I0507 20:36:56.253845  7157 net.cpp:144] Setting up pool5
I0507 20:36:56.253852  7157 net.cpp:151] Top shape: 20 64 7 7 (62720)
I0507 20:36:56.253855  7157 net.cpp:159] Memory required for data: 26818960
I0507 20:36:56.253859  7157 layer_factory.hpp:77] Creating layer ip1
I0507 20:36:56.253868  7157 net.cpp:94] Creating Layer ip1
I0507 20:36:56.253872  7157 net.cpp:435] ip1 <- pool5
I0507 20:36:56.253877  7157 net.cpp:409] ip1 -> ip1
I0507 20:36:56.258882  7157 net.cpp:144] Setting up ip1
I0507 20:36:56.258891  7157 net.cpp:151] Top shape: 20 64 (1280)
I0507 20:36:56.258895  7157 net.cpp:159] Memory required for data: 26824080
I0507 20:36:56.258901  7157 layer_factory.hpp:77] Creating layer ip2
I0507 20:36:56.258908  7157 net.cpp:94] Creating Layer ip2
I0507 20:36:56.258915  7157 net.cpp:435] ip2 <- ip1
I0507 20:36:56.258920  7157 net.cpp:409] ip2 -> ip2
I0507 20:36:56.259145  7157 net.cpp:144] Setting up ip2
I0507 20:36:56.259153  7157 net.cpp:151] Top shape: 20 64 (1280)
I0507 20:36:56.259156  7157 net.cpp:159] Memory required for data: 26829200
I0507 20:36:56.259161  7157 layer_factory.hpp:77] Creating layer ip3
I0507 20:36:56.259167  7157 net.cpp:94] Creating Layer ip3
I0507 20:36:56.259171  7157 net.cpp:435] ip3 <- ip2
I0507 20:36:56.259176  7157 net.cpp:409] ip3 -> ip3
I0507 20:36:56.259286  7157 net.cpp:144] Setting up ip3
I0507 20:36:56.259292  7157 net.cpp:151] Top shape: 20 1 (20)
I0507 20:36:56.259296  7157 net.cpp:159] Memory required for data: 26829280
I0507 20:36:56.259301  7157 layer_factory.hpp:77] Creating layer loss
I0507 20:36:56.259311  7157 net.cpp:94] Creating Layer loss
I0507 20:36:56.259315  7157 net.cpp:435] loss <- ip3
I0507 20:36:56.259318  7157 net.cpp:435] loss <- label
I0507 20:36:56.259323  7157 net.cpp:409] loss -> loss
I0507 20:36:56.259377  7157 net.cpp:144] Setting up loss
…
I0507 20:36:56.439914  7157 net.cpp:323] The NetState phase (0) differed from the phase (1) specified by a rule in layer intercept
I0507 20:36:56.439930  7157 net.cpp:323] The NetState phase (0) differed from the phase (1) specified by a rule in layer accuracy
I0507 20:36:56.440017  7157 net.cpp:52] Initializing net from parameters: 
state {
  phase: TRAIN
}
layer {
  name: "parameters"
  type: "HDF5Data"
  top: "data"
  top: "label"
  include {
    phase: TRAIN
  }
  hdf5_data_param {
    source: "/home/purduethu/scratch/radon/d/deng106/CNNStatisticalModel/distributions/input/20_distributions_900_sample_size_train-distributions-path.txt"
    batch_size: 20
  }
}
layer {
  name: "conv1"
  type: "Convolution"
  bottom: "data"
  top: "conv1"
  param {
    lr_mult: 1
  }
  param {
    lr_mult: 2
  }
  convolution_param {
    num_output: 64
    pad: 2
    kernel_size: 5
    stride: 1
    weight_filler {
      type: "gaussian"
      std: 0.0001
    }
    bias_filler {
      type: "constant"
    }
  }
}
layer {
  name: "relu1"
  type: "ReLU"
  bottom: "conv1"
  top: "conv1"
}
layer {
  name: "conv2"
  type: "Convolution"
  bottom: "conv1"
  top: "conv2"
  param {
    lr_mult: 1
  }
  param {
    lr_mult: 2
  }
  convolution_param {
    num_output: 64
    pad: 2
    kernel_size: 5
    stride: 1
    weight_filler {
      type: "gaussian"
      std: 0.01
    }
    bias_filler {
      type: "constant"
    }
  }
}
layer {
  name: "relu2"
  type: "ReLU"
  bottom: "conv2"
  top: "conv2"
}
layer {
  name: "pool2"
  type: "Pooling"
  bottom: "conv2"
  top: "pool2"
  pooling_param {
    pool: MAX
    kernel_size: 3
    stride: 2
  }
}
layer {
  name: "conv3"
  type: "Convolution"
  bottom: "pool2"
  top: "conv3"
  param {
    lr_mult: 1
  }
  param {
    lr_mult: 2
  }
  convolution_param {
    num_output: 64
    pad: 2
    kernel_size: 5
    stride: 1
    weight_filler {
      type: "gaussian"
      std: 0.01
    }
    bias_filler {
      type: "constant"
    }
  }
}
layer {
  name: "relu3"
  type: "ReLU"
  bottom: "conv3"
  top: "conv3"
}
layer {
  name: "conv4"
  type: "Convolution"
  bottom: "conv3"
  top: "conv4"
  param {
    lr_mult: 1
  }
  param {
    lr_mult: 2
  }
  convolution_param {
    num_output: 64
    pad: 2
    kernel_size: 5
    stride: 1
    weight_filler {
      type: "gaussian"
      std: 0.01
    }
    bias_filler {
      type: "constant"
    }
  }
}
layer {
  name: "relu4"
  type: "ReLU"
  bottom: "conv4"
  top: "conv4"
}
layer {
  name: "conv5"
  type: "Convolution"
  bottom: "conv4"
  top: "conv5"
  param {
    lr_mult: 1
  }
  param {
    lr_mult: 2
  }
  convolution_param {
    num_output: 64
    pad: 2
    kernel_size: 5
    stride: 1
    weight_filler {
      type: "gaussian"
      std: 0.01
    }
    bias_filler {
      type: "constant"
    }
  }
}
layer {
  name: "relu5"
  type: "ReLU"
  bottom: "conv5"
  top: "conv5"
}
layer {
  name: "pool5"
  type: "Pooling"
  bottom: "conv5"
  top: "pool5"
  pooling_param {
    pool: AVE
    kernel_size: 3
    stride: 2
  }
}
layer {
  name: "ip1"
  type: "InnerProduct"
  bottom: "pool5"
  top: "ip1"
  param {
    lr_mult: 1
  }
  param {
    lr_mult: 2
  }
  inner_product_param {
    num_output: 64
    weight_filler {
      type: "gaussian"
      std: 0.1
    }
    bias_filler {
      type: "constant"
    }
  }
}
layer {
  name: "ip2"
  type: "InnerProduct"
  bottom: "ip1"
  top: "ip2"
  param {
    lr_mult: 1
  }
  param {
    lr_mult: 2
  }
  inner_product_param {
    num_output: 64
    weight_filler {
      type: "gaussian"
      std: 0.1
    }
    bias_filler {
      type: "constant"
    }
  }
}
layer {
  name: "ip3"
  type: "InnerProduct"
  bottom: "ip2"
  top: "ip3"
  param {
    lr_mult: 1
  }
  param {
    lr_mult: 2
  }
  inner_product_param {
    num_output: 50
    weight_filler {
      type: "gaussian"
      std: 0.1
    }
    bias_filler {
      type: "constant"
    }
  }
}
layer {
  name: "loss"
  type: "SoftmaxWithLoss"
  bottom: "ip3"
  bottom: "label"
  top: "loss"
}
I0507 20:36:56.440069  7157 layer_factory.hpp:77] Creating layer parameters
I0507 20:36:56.440078  7157 net.cpp:94] Creating Layer parameters
I0507 20:36:56.440081  7157 net.cpp:409] parameters -> data
I0507 20:36:56.440088  7157 net.cpp:409] parameters -> label
I0507 20:36:56.440094  7157 hdf5_data_layer.cpp:79] Loading list of HDF5 filenames from: /home/purduethu/scratch/radon/d/deng106/CNNStatisticalModel/distributions/input/20_distributions_900_sample_size_train-distributions-path.txt
I0507 20:36:56.440110  7157 hdf5_data_layer.cpp:93] Number of HDF5 files: 1
I0507 20:36:57.010279  7157 hdf5.cpp:35] Datatype class: H5T_INTEGER
I0507 20:36:57.012274  7157 net.cpp:144] Setting up parameters
I0507 20:36:57.012292  7157 net.cpp:151] Top shape: 20 1 30 30 (18000)
I0507 20:36:57.012297  7157 net.cpp:151] Top shape: 20 (20)
I0507 20:36:57.012301  7157 net.cpp:159] Memory required for data: 72080
I0507 20:36:57.012307  7157 layer_factory.hpp:77] Creating layer conv1
I0507 20:36:57.012323  7157 net.cpp:94] Creating Layer conv1
I0507 20:36:57.012328  7157 net.cpp:435] conv1 <- data
I0507 20:36:57.012334  7157 net.cpp:409] conv1 -> conv1
I0507 20:36:57.015913  7157 net.cpp:144] Setting up conv1
I0507 20:36:57.015929  7157 net.cpp:151] Top shape: 20 64 30 30 (1152000)
I0507 20:36:57.015933  7157 net.cpp:159] Memory required for data: 4680080
I0507 20:36:57.015944  7157 layer_factory.hpp:77] Creating layer relu1
I0507 20:36:57.015951  7157 net.cpp:94] Creating Layer relu1
I0507 20:36:57.015954  7157 net.cpp:435] relu1 <- conv1
I0507 20:36:57.015959  7157 net.cpp:396] relu1 -> conv1 (in-place)
I0507 20:36:57.015966  7157 net.cpp:144] Setting up relu1
I0507 20:36:57.015970  7157 net.cpp:151] Top shape: 20 64 30 30 (1152000)
I0507 20:36:57.015974  7157 net.cpp:159] Memory required for data: 9288080
I0507 20:36:57.015976  7157 layer_factory.hpp:77] Creating layer conv2
I0507 20:36:57.015983  7157 net.cpp:94] Creating Layer conv2
I0507 20:36:57.015987  7157 net.cpp:435] conv2 <- conv1
I0507 20:36:57.015991  7157 net.cpp:409] conv2 -> conv2
I0507 20:36:57.032119  7157 net.cpp:144] Setting up conv2
I0507 20:36:57.032135  7157 net.cpp:151] Top shape: 20 64 30 30 (1152000)
I0507 20:36:57.032140  7157 net.cpp:159] Memory required for data: 13896080
I0507 20:36:57.032147  7157 layer_factory.hpp:77] Creating layer relu2
I0507 20:36:57.032155  7157 net.cpp:94] Creating Layer relu2
I0507 20:36:57.032158  7157 net.cpp:435] relu2 <- conv2
I0507 20:36:57.032162  7157 net.cpp:396] relu2 -> conv2 (in-place)
I0507 20:36:57.032169  7157 net.cpp:144] Setting up relu2
I0507 20:36:57.032173  7157 net.cpp:151] Top shape: 20 64 30 30 (1152000)
I0507 20:36:57.032176  7157 net.cpp:159] Memory required for data: 18504080
I0507 20:36:57.032179  7157 layer_factory.hpp:77] Creating layer pool2
I0507 20:36:57.032186  7157 net.cpp:94] Creating Layer pool2
I0507 20:36:57.032188  7157 net.cpp:435] pool2 <- conv2
I0507 20:36:57.032193  7157 net.cpp:409] pool2 -> pool2
I0507 20:36:57.032248  7157 net.cpp:144] Setting up pool2
I0507 20:36:57.032256  7157 net.cpp:151] Top shape: 20 64 15 15 (288000)
I0507 20:36:57.032259  7157 net.cpp:159] Memory required for data: 19656080
I0507 20:36:57.032263  7157 layer_factory.hpp:77] Creating layer conv3
I0507 20:36:57.032270  7157 net.cpp:94] Creating Layer conv3
I0507 20:36:57.032274  7157 net.cpp:435] conv3 <- pool2
I0507 20:36:57.032284  7157 net.cpp:409] conv3 -> conv3
I0507 20:36:57.041198  7157 net.cpp:144] Setting up conv3
I0507 20:36:57.041214  7157 net.cpp:151] Top shape: 20 64 15 15 (288000)
I0507 20:36:57.041218  7157 net.cpp:159] Memory required for data: 20808080
I0507 20:36:57.041226  7157 layer_factory.hpp:77] Creating layer relu3
I0507 20:36:57.041232  7157 net.cpp:94] Creating Layer relu3
I0507 20:36:57.041236  7157 net.cpp:435] relu3 <- conv3
I0507 20:36:57.041240  7157 net.cpp:396] relu3 -> conv3 (in-place)
I0507 20:36:57.041247  7157 net.cpp:144] Setting up relu3
I0507 20:36:57.041251  7157 net.cpp:151] Top shape: 20 64 15 15 (288000)
I0507 20:36:57.041254  7157 net.cpp:159] Memory required for data: 21960080
I0507 20:36:57.041257  7157 layer_factory.hpp:77] Creating layer conv4
I0507 20:36:57.041266  7157 net.cpp:94] Creating Layer conv4
I0507 20:36:57.041270  7157 net.cpp:435] conv4 <- conv3
I0507 20:36:57.041275  7157 net.cpp:409] conv4 -> conv4
I0507 20:36:57.049100  7157 net.cpp:144] Setting up conv4
I0507 20:36:57.049114  7157 net.cpp:151] Top shape: 20 64 15 15 (288000)
I0507 20:36:57.049119  7157 net.cpp:159] Memory required for data: 23112080
I0507 20:36:57.049125  7157 layer_factory.hpp:77] Creating layer relu4
I0507 20:36:57.049131  7157 net.cpp:94] Creating Layer relu4
I0507 20:36:57.049134  7157 net.cpp:435] relu4 <- conv4
I0507 20:36:57.049139  7157 net.cpp:396] relu4 -> conv4 (in-place)
I0507 20:36:57.049146  7157 net.cpp:144] Setting up relu4
I0507 20:36:57.049150  7157 net.cpp:151] Top shape: 20 64 15 15 (288000)
I0507 20:36:57.049154  7157 net.cpp:159] Memory required for data: 24264080
I0507 20:36:57.049156  7157 layer_factory.hpp:77] Creating layer conv5
I0507 20:36:57.049163  7157 net.cpp:94] Creating Layer conv5
I0507 20:36:57.049167  7157 net.cpp:435] conv5 <- conv4
I0507 20:36:57.049171  7157 net.cpp:409] conv5 -> conv5
I0507 20:36:57.057024  7157 net.cpp:144] Setting up conv5
I0507 20:36:57.057037  7157 net.cpp:151] Top shape: 20 64 15 15 (288000)
I0507 20:36:57.057041  7157 net.cpp:159] Memory required for data: 25416080
I0507 20:36:57.057050  7157 layer_factory.hpp:77] Creating layer relu5
I0507 20:36:57.057056  7157 net.cpp:94] Creating Layer relu5
I0507 20:36:57.057060  7157 net.cpp:435] relu5 <- conv5
I0507 20:36:57.057065  7157 net.cpp:396] relu5 -> conv5 (in-place)
I0507 20:36:57.057071  7157 net.cpp:144] Setting up relu5
I0507 20:36:57.057075  7157 net.cpp:151] Top shape: 20 64 15 15 (288000)
I0507 20:36:57.057078  7157 net.cpp:159] Memory required for data: 26568080
I0507 20:36:57.057081  7157 layer_factory.hpp:77] Creating layer pool5
I0507 20:36:57.057086  7157 net.cpp:94] Creating Layer pool5
I0507 20:36:57.057090  7157 net.cpp:435] pool5 <- conv5
I0507 20:36:57.057093  7157 net.cpp:409] pool5 -> pool5
I0507 20:36:57.057133  7157 net.cpp:144] Setting up pool5
I0507 20:36:57.057140  7157 net.cpp:151] Top shape: 20 64 7 7 (62720)
I0507 20:36:57.057143  7157 net.cpp:159] Memory required for data: 26818960
I0507 20:36:57.057147  7157 layer_factory.hpp:77] Creating layer ip1
I0507 20:36:57.057152  7157 net.cpp:94] Creating Layer ip1
I0507 20:36:57.057157  7157 net.cpp:435] ip1 <- pool5
I0507 20:36:57.057160  7157 net.cpp:409] ip1 -> ip1
I0507 20:36:57.062783  7157 net.cpp:144] Setting up ip1
I0507 20:36:57.062795  7157 net.cpp:151] Top shape: 20 64 (1280)
I0507 20:36:57.062799  7157 net.cpp:159] Memory required for data: 26824080
I0507 20:36:57.062805  7157 layer_factory.hpp:77] Creating layer ip2
I0507 20:36:57.062813  7157 net.cpp:94] Creating Layer ip2
I0507 20:36:57.062815  7157 net.cpp:435] ip2 <- ip1
I0507 20:36:57.062820  7157 net.cpp:409] ip2 -> ip2
I0507 20:36:57.063045  7157 net.cpp:144] Setting up ip2
I0507 20:36:57.063052  7157 net.cpp:151] Top shape: 20 64 (1280)
I0507 20:36:57.063055  7157 net.cpp:159] Memory required for data: 26829200
I0507 20:36:57.063060  7157 layer_factory.hpp:77] Creating layer ip3
I0507 20:36:57.063066  7157 net.cpp:94] Creating Layer ip3
I0507 20:36:57.063069  7157 net.cpp:435] ip3 <- ip2
I0507 20:36:57.063073  7157 net.cpp:409] ip3 -> ip3
I0507 20:36:57.063278  7157 net.cpp:144] Setting up ip3
I0507 20:36:57.063285  7157 net.cpp:151] Top shape: 20 50 (1000)
I0507 20:36:57.063288  7157 net.cpp:159] Memory required for data: 26833200
I0507 20:36:57.063293  7157 layer_factory.hpp:77] Creating layer loss
I0507 20:36:57.063300  7157 net.cpp:94] Creating Layer loss
I0507 20:36:57.063303  7157 net.cpp:435] loss <- ip3
I0507 20:36:57.063308  7157 net.cpp:435] loss <- label
I0507 20:36:57.063311  7157 net.cpp:409] loss -> loss
I0507 20:36:57.063318  7157 layer_factory.hpp:77] Creating layer loss
…
I0507 20:36:57.063825  7157 solver.cpp:181] Creating test net (#0) specified by net file: ./protocol/dis_20_900_dimension.protocol_distribution
I0507 20:36:57.063851  7157 net.cpp:323] The NetState phase (1) differed from the phase (0) specified by a rule in layer parameters
I0507 20:36:57.063941  7157 net.cpp:52] Initializing net from parameters: 
state {
  phase: TEST
}
layer {
  name: "intercept"
  type: "HDF5Data"
  top: "data"
  top: "label"
  include {
    phase: TEST
  }
  hdf5_data_param {
    source: "/home/purduethu/scratch/radon/d/deng106/CNNStatisticalModel/distributions/input/20_distributions_900_sample_size_test-distributions-path.txt"
    batch_size: 20
  }
}
layer {
  name: "conv1"
  type: "Convolution"
  bottom: "data"
  top: "conv1"
  param {
    lr_mult: 1
  }
  param {
    lr_mult: 2
  }
  convolution_param {
    num_output: 64
    pad: 2
    kernel_size: 5
    stride: 1
    weight_filler {
      type: "gaussian"
      std: 0.0001
    }
    bias_filler {
      type: "constant"
    }
  }
}
layer {
  name: "relu1"
  type: "ReLU"
  bottom: "conv1"
  top: "conv1"
}
layer {
  name: "conv2"
  type: "Convolution"
  bottom: "conv1"
  top: "conv2"
  param {
    lr_mult: 1
  }
  param {
    lr_mult: 2
  }
  convolution_param {
    num_output: 64
    pad: 2
    kernel_size: 5
    stride: 1
    weight_filler {
      type: "gaussian"
      std: 0.01
    }
    bias_filler {
      type: "constant"
    }
  }
}
layer {
  name: "relu2"
  type: "ReLU"
  bottom: "conv2"
  top: "conv2"
}
layer {
  name: "pool2"
  type: "Pooling"
  bottom: "conv2"
  top: "pool2"
  pooling_param {
    pool: MAX
    kernel_size: 3
    stride: 2
  }
}
layer {
  name: "conv3"
  type: "Convolution"
  bottom: "pool2"
  top: "conv3"
  param {
    lr_mult: 1
  }
  param {
    lr_mult: 2
  }
  convolution_param {
    num_output: 64
    pad: 2
    kernel_size: 5
    stride: 1
    weight_filler {
      type: "gaussian"
      std: 0.01
    }
    bias_filler {
      type: "constant"
    }
  }
}
layer {
  name: "relu3"
  type: "ReLU"
  bottom: "conv3"
  top: "conv3"
}
layer {
  name: "conv4"
  type: "Convolution"
  bottom: "conv3"
  top: "conv4"
  param {
    lr_mult: 1
  }
  param {
    lr_mult: 2
  }
  convolution_param {
    num_output: 64
    pad: 2
    kernel_size: 5
    stride: 1
    weight_filler {
      type: "gaussian"
      std: 0.01
    }
    bias_filler {
      type: "constant"
    }
  }
}
layer {
  name: "relu4"
  type: "ReLU"
  bottom: "conv4"
  top: "conv4"
}
layer {
  name: "conv5"
  type: "Convolution"
  bottom: "conv4"
  top: "conv5"
  param {
    lr_mult: 1
  }
  param {
    lr_mult: 2
  }
  convolution_param {
    num_output: 64
    pad: 2
    kernel_size: 5
    stride: 1
    weight_filler {
      type: "gaussian"
      std: 0.01
    }
    bias_filler {
      type: "constant"
    }
  }
}
layer {
  name: "relu5"
  type: "ReLU"
  bottom: "conv5"
  top: "conv5"
}
layer {
  name: "pool5"
  type: "Pooling"
  bottom: "conv5"
  top: "pool5"
  pooling_param {
    pool: AVE
    kernel_size: 3
    stride: 2
  }
}
layer {
  name: "ip1"
  type: "InnerProduct"
  bottom: "pool5"
  top: "ip1"
  param {
    lr_mult: 1
  }
  param {
    lr_mult: 2
  }
  inner_product_param {
    num_output: 64
    weight_filler {
      type: "gaussian"
      std: 0.1
    }
    bias_filler {
      type: "constant"
    }
  }
}
layer {
  name: "ip2"
  type: "InnerProduct"
  bottom: "ip1"
  top: "ip2"
  param {
    lr_mult: 1
  }
  param {
    lr_mult: 2
  }
  inner_product_param {
    num_output: 64
    weight_filler {
      type: "gaussian"
      std: 0.1
    }
    bias_filler {
      type: "constant"
    }
  }
}
layer {
  name: "ip3"
  type: "InnerProduct"
  bottom: "ip2"
  top: "ip3"
  param {
    lr_mult: 1
  }
  param {
    lr_mult: 2
  }
  inner_product_param {
    num_output: 50
    weight_filler {
      type: "gaussian"
      std: 0.1
    }
    bias_filler {
      type: "constant"
    }
  }
}
layer {
  name: "accuracy"
  type: "Accuracy"
  bottom: "ip3"
  bottom: "label"
  top: "accuracy"
  include {
    phase: TEST
  }
}
layer {
  name: "loss"
  type: "SoftmaxWithLoss"
  bottom: "ip3"
  bottom: "label"
  top: "loss"
}
I0507 20:36:57.064004  7157 layer_factory.hpp:77] Creating layer intercept
I0507 20:36:57.064012  7157 net.cpp:94] Creating Layer intercept
I0507 20:36:57.064015  7157 net.cpp:409] intercept -> data
I0507 20:36:57.064023  7157 net.cpp:409] intercept -> label
I0507 20:36:57.064028  7157 hdf5_data_layer.cpp:79] Loading list of HDF5 filenames from: /home/purduethu/scratch/radon/d/deng106/CNNStatisticalModel/distributions/input/20_distributions_900_sample_size_test-distributions-path.txt
I0507 20:36:57.064046  7157 hdf5_data_layer.cpp:93] Number of HDF5 files: 1
I0507 20:36:57.205528  7157 net.cpp:144] Setting up intercept
I0507 20:36:57.205562  7157 net.cpp:151] Top shape: 20 1 30 30 (18000)
I0507 20:36:57.205567  7157 net.cpp:151] Top shape: 20 (20)
I0507 20:36:57.205570  7157 net.cpp:159] Memory required for data: 72080
I0507 20:36:57.205576  7157 layer_factory.hpp:77] Creating layer label_intercept_1_split
I0507 20:36:57.205595  7157 net.cpp:94] Creating Layer label_intercept_1_split
I0507 20:36:57.205598  7157 net.cpp:435] label_intercept_1_split <- label
I0507 20:36:57.205605  7157 net.cpp:409] label_intercept_1_split -> label_intercept_1_split_0
I0507 20:36:57.205613  7157 net.cpp:409] label_intercept_1_split -> label_intercept_1_split_1
I0507 20:36:57.205657  7157 net.cpp:144] Setting up label_intercept_1_split
I0507 20:36:57.205663  7157 net.cpp:151] Top shape: 20 (20)
I0507 20:36:57.205667  7157 net.cpp:151] Top shape: 20 (20)
I0507 20:36:57.205669  7157 net.cpp:159] Memory required for data: 72240
I0507 20:36:57.205672  7157 layer_factory.hpp:77] Creating layer conv1
I0507 20:36:57.205683  7157 net.cpp:94] Creating Layer conv1
I0507 20:36:57.205687  7157 net.cpp:435] conv1 <- data
I0507 20:36:57.205691  7157 net.cpp:409] conv1 -> conv1
I0507 20:36:57.207238  7157 net.cpp:144] Setting up conv1
I0507 20:36:57.207253  7157 net.cpp:151] Top shape: 20 64 30 30 (1152000)
I0507 20:36:57.207257  7157 net.cpp:159] Memory required for data: 4680240
I0507 20:36:57.207267  7157 layer_factory.hpp:77] Creating layer relu1
I0507 20:36:57.207273  7157 net.cpp:94] Creating Layer relu1
I0507 20:36:57.207278  7157 net.cpp:435] relu1 <- conv1
I0507 20:36:57.207281  7157 net.cpp:396] relu1 -> conv1 (in-place)
I0507 20:36:57.207288  7157 net.cpp:144] Setting up relu1
I0507 20:36:57.207293  7157 net.cpp:151] Top shape: 20 64 30 30 (1152000)
I0507 20:36:57.207296  7157 net.cpp:159] Memory required for data: 9288240
I0507 20:36:57.207298  7157 layer_factory.hpp:77] Creating layer conv2
I0507 20:36:57.207306  7157 net.cpp:94] Creating Layer conv2
I0507 20:36:57.207310  7157 net.cpp:435] conv2 <- conv1
I0507 20:36:57.207314  7157 net.cpp:409] conv2 -> conv2
I0507 20:36:57.214081  7157 net.cpp:144] Setting up conv2
I0507 20:36:57.214095  7157 net.cpp:151] Top shape: 20 64 30 30 (1152000)
I0507 20:36:57.214098  7157 net.cpp:159] Memory required for data: 13896240
I0507 20:36:57.214107  7157 layer_factory.hpp:77] Creating layer relu2
I0507 20:36:57.214112  7157 net.cpp:94] Creating Layer relu2
I0507 20:36:57.214117  7157 net.cpp:435] relu2 <- conv2
I0507 20:36:57.214120  7157 net.cpp:396] relu2 -> conv2 (in-place)
I0507 20:36:57.214128  7157 net.cpp:144] Setting up relu2
I0507 20:36:57.214131  7157 net.cpp:151] Top shape: 20 64 30 30 (1152000)
I0507 20:36:57.214134  7157 net.cpp:159] Memory required for data: 18504240
I0507 20:36:57.214138  7157 layer_factory.hpp:77] Creating layer pool2
I0507 20:36:57.214143  7157 net.cpp:94] Creating Layer pool2
I0507 20:36:57.214145  7157 net.cpp:435] pool2 <- conv2
I0507 20:36:57.214149  7157 net.cpp:409] pool2 -> pool2
I0507 20:36:57.214205  7157 net.cpp:144] Setting up pool2
I0507 20:36:57.214212  7157 net.cpp:151] Top shape: 20 64 15 15 (288000)
I0507 20:36:57.214215  7157 net.cpp:159] Memory required for data: 19656240
I0507 20:36:57.214220  7157 layer_factory.hpp:77] Creating layer conv3
I0507 20:36:57.214226  7157 net.cpp:94] Creating Layer conv3
I0507 20:36:57.214229  7157 net.cpp:435] conv3 <- pool2
I0507 20:36:57.214234  7157 net.cpp:409] conv3 -> conv3
I0507 20:36:57.219449  7157 net.cpp:144] Setting up conv3
I0507 20:36:57.219462  7157 net.cpp:151] Top shape: 20 64 15 15 (288000)
I0507 20:36:57.219466  7157 net.cpp:159] Memory required for data: 20808240
I0507 20:36:57.219475  7157 layer_factory.hpp:77] Creating layer relu3
I0507 20:36:57.219480  7157 net.cpp:94] Creating Layer relu3
I0507 20:36:57.219485  7157 net.cpp:435] relu3 <- conv3
I0507 20:36:57.219490  7157 net.cpp:396] relu3 -> conv3 (in-place)
I0507 20:36:57.219496  7157 net.cpp:144] Setting up relu3
I0507 20:36:57.219501  7157 net.cpp:151] Top shape: 20 64 15 15 (288000)
I0507 20:36:57.219502  7157 net.cpp:159] Memory required for data: 21960240
I0507 20:36:57.219506  7157 layer_factory.hpp:77] Creating layer conv4
I0507 20:36:57.219513  7157 net.cpp:94] Creating Layer conv4
I0507 20:36:57.219516  7157 net.cpp:435] conv4 <- conv3
I0507 20:36:57.219521  7157 net.cpp:409] conv4 -> conv4
I0507 20:36:57.224380  7157 net.cpp:144] Setting up conv4
I0507 20:36:57.224395  7157 net.cpp:151] Top shape: 20 64 15 15 (288000)
I0507 20:36:57.224400  7157 net.cpp:159] Memory required for data: 23112240
I0507 20:36:57.224406  7157 layer_factory.hpp:77] Creating layer relu4
I0507 20:36:57.224411  7157 net.cpp:94] Creating Layer relu4
I0507 20:36:57.224414  7157 net.cpp:435] relu4 <- conv4
I0507 20:36:57.224419  7157 net.cpp:396] relu4 -> conv4 (in-place)
I0507 20:36:57.224426  7157 net.cpp:144] Setting up relu4
I0507 20:36:57.224431  7157 net.cpp:151] Top shape: 20 64 15 15 (288000)
I0507 20:36:57.224432  7157 net.cpp:159] Memory required for data: 24264240
I0507 20:36:57.224436  7157 layer_factory.hpp:77] Creating layer conv5
I0507 20:36:57.224443  7157 net.cpp:94] Creating Layer conv5
I0507 20:36:57.224447  7157 net.cpp:435] conv5 <- conv4
I0507 20:36:57.224452  7157 net.cpp:409] conv5 -> conv5
I0507 20:36:57.229949  7157 net.cpp:144] Setting up conv5
I0507 20:36:57.229964  7157 net.cpp:151] Top shape: 20 64 15 15 (288000)
I0507 20:36:57.229969  7157 net.cpp:159] Memory required for data: 25416240
I0507 20:36:57.229976  7157 layer_factory.hpp:77] Creating layer relu5
I0507 20:36:57.229984  7157 net.cpp:94] Creating Layer relu5
I0507 20:36:57.229986  7157 net.cpp:435] relu5 <- conv5
I0507 20:36:57.229991  7157 net.cpp:396] relu5 -> conv5 (in-place)
I0507 20:36:57.229998  7157 net.cpp:144] Setting up relu5
I0507 20:36:57.230002  7157 net.cpp:151] Top shape: 20 64 15 15 (288000)
I0507 20:36:57.230005  7157 net.cpp:159] Memory required for data: 26568240
I0507 20:36:57.230008  7157 layer_factory.hpp:77] Creating layer pool5
I0507 20:36:57.230012  7157 net.cpp:94] Creating Layer pool5
I0507 20:36:57.230016  7157 net.cpp:435] pool5 <- conv5
I0507 20:36:57.230022  7157 net.cpp:409] pool5 -> pool5
I0507 20:36:57.230064  7157 net.cpp:144] Setting up pool5
I0507 20:36:57.230072  7157 net.cpp:151] Top shape: 20 64 7 7 (62720)
I0507 20:36:57.230074  7157 net.cpp:159] Memory required for data: 26819120
I0507 20:36:57.230077  7157 layer_factory.hpp:77] Creating layer ip1
I0507 20:36:57.230083  7157 net.cpp:94] Creating Layer ip1
I0507 20:36:57.230087  7157 net.cpp:435] ip1 <- pool5
I0507 20:36:57.230092  7157 net.cpp:409] ip1 -> ip1
I0507 20:36:57.234889  7157 net.cpp:144] Setting up ip1
I0507 20:36:57.234899  7157 net.cpp:151] Top shape: 20 64 (1280)
I0507 20:36:57.234904  7157 net.cpp:159] Memory required for data: 26824240
I0507 20:36:57.234908  7157 layer_factory.hpp:77] Creating layer ip2
I0507 20:36:57.234915  7157 net.cpp:94] Creating Layer ip2
I0507 20:36:57.234917  7157 net.cpp:435] ip2 <- ip1
I0507 20:36:57.234922  7157 net.cpp:409] ip2 -> ip2
I0507 20:36:57.235165  7157 net.cpp:144] Setting up ip2
I0507 20:36:57.235173  7157 net.cpp:151] Top shape: 20 64 (1280)
I0507 20:36:57.235177  7157 net.cpp:159] Memory required for data: 26829360
I0507 20:36:57.235182  7157 layer_factory.hpp:77] Creating layer ip3
I0507 20:36:57.235189  7157 net.cpp:94] Creating Layer ip3
I0507 20:36:57.235193  7157 net.cpp:435] ip3 <- ip2
I0507 20:36:57.235198  7157 net.cpp:409] ip3 -> ip3
I0507 20:36:57.235406  7157 net.cpp:144] Setting up ip3
I0507 20:36:57.235414  7157 net.cpp:151] Top shape: 20 50 (1000)
I0507 20:36:57.235416  7157 net.cpp:159] Memory required for data: 26833360
I0507 20:36:57.235421  7157 layer_factory.hpp:77] Creating layer ip3_ip3_0_split
I0507 20:36:57.235426  7157 net.cpp:94] Creating Layer ip3_ip3_0_split
I0507 20:36:57.235430  7157 net.cpp:435] ip3_ip3_0_split <- ip3
I0507 20:36:57.235435  7157 net.cpp:409] ip3_ip3_0_split -> ip3_ip3_0_split_0
I0507 20:36:57.235440  7157 net.cpp:409] ip3_ip3_0_split -> ip3_ip3_0_split_1
I0507 20:36:57.235482  7157 net.cpp:144] Setting up ip3_ip3_0_split
I0507 20:36:57.235488  7157 net.cpp:151] Top shape: 20 50 (1000)
I0507 20:36:57.235492  7157 net.cpp:151] Top shape: 20 50 (1000)
I0507 20:36:57.235494  7157 net.cpp:159] Memory required for data: 26841360
I0507 20:36:57.235497  7157 layer_factory.hpp:77] Creating layer accuracy
I0507 20:36:57.235503  7157 net.cpp:94] Creating Layer accuracy
I0507 20:36:57.235507  7157 net.cpp:435] accuracy <- ip3_ip3_0_split_0
I0507 20:36:57.235509  7157 net.cpp:435] accuracy <- label_intercept_1_split_0
I0507 20:36:57.235514  7157 net.cpp:409] accuracy -> accuracy
…
