…
I0503 15:38:09.360841 21141 net.cpp:323] The NetState phase (0) differed from the phase (1) specified by a rule in layer intercept
I0503 15:38:09.360858 21141 net.cpp:323] The NetState phase (0) differed from the phase (1) specified by a rule in layer accuracy
I0503 15:38:09.360950 21141 net.cpp:52] Initializing net from parameters: 
state {
  phase: TRAIN
}
layer {
  name: "parameters"
  type: "HDF5Data"
  top: "data"
  top: "label"
  include {
    phase: TRAIN
  }
  hdf5_data_param {
    source: "/home/purduethu/scratch/radon/d/deng106/CNNStatisticalModel/distributions/input/20_distributions_400_sample_size_train-distributions-path.txt"
    batch_size: 20
  }
}
layer {
  name: "conv1"
  type: "Convolution"
  bottom: "data"
  top: "conv1"
  param {
    lr_mult: 1
  }
  param {
    lr_mult: 2
  }
  convolution_param {
    num_output: 64
    pad: 2
    kernel_size: 5
    stride: 1
    weight_filler {
      type: "gaussian"
      std: 0.0001
    }
    bias_filler {
      type: "constant"
    }
  }
}
layer {
  name: "relu1"
  type: "ReLU"
  bottom: "conv1"
  top: "conv1"
}
layer {
  name: "conv2"
  type: "Convolution"
  bottom: "conv1"
  top: "conv2"
  param {
    lr_mult: 1
  }
  param {
    lr_mult: 2
  }
  convolution_param {
    num_output: 64
    pad: 2
    kernel_size: 5
    stride: 1
    weight_filler {
      type: "gaussian"
      std: 0.01
    }
    bias_filler {
      type: "constant"
    }
  }
}
layer {
  name: "relu2"
  type: "ReLU"
  bottom: "conv2"
  top: "conv2"
}
layer {
  name: "pool2"
  type: "Pooling"
  bottom: "conv2"
  top: "pool2"
  pooling_param {
    pool: MAX
    kernel_size: 3
    stride: 2
  }
}
layer {
  name: "conv3"
  type: "Convolution"
  bottom: "pool2"
  top: "conv3"
  param {
    lr_mult: 1
  }
  param {
    lr_mult: 2
  }
  convolution_param {
    num_output: 128
    pad: 2
    kernel_size: 5
    stride: 1
    weight_filler {
      type: "gaussian"
      std: 0.01
    }
    bias_filler {
      type: "constant"
    }
  }
}
layer {
  name: "relu3"
  type: "ReLU"
  bottom: "conv3"
  top: "conv3"
}
layer {
  name: "conv4"
  type: "Convolution"
  bottom: "conv3"
  top: "conv4"
  param {
    lr_mult: 1
  }
  param {
    lr_mult: 2
  }
  convolution_param {
    num_output: 128
    pad: 2
    kernel_size: 5
    stride: 1
    weight_filler {
      type: "gaussian"
      std: 0.01
    }
    bias_filler {
      type: "constant"
    }
  }
}
layer {
  name: "relu4"
  type: "ReLU"
  bottom: "conv4"
  top: "conv4"
}
layer {
  name: "conv5"
  type: "Convolution"
  bottom: "conv4"
  top: "conv5"
  param {
    lr_mult: 1
  }
  param {
    lr_mult: 2
  }
  convolution_param {
    num_output: 128
    pad: 2
    kernel_size: 5
    stride: 1
    weight_filler {
      type: "gaussian"
      std: 0.01
    }
    bias_filler {
      type: "constant"
    }
  }
}
layer {
  name: "relu5"
  type: "ReLU"
  bottom: "conv5"
  top: "conv5"
}
layer {
  name: "pool5"
  type: "Pooling"
  bottom: "conv5"
  top: "pool5"
  pooling_param {
    pool: AVE
    kernel_size: 3
    stride: 2
  }
}
layer {
  name: "ip1"
  type: "InnerProduct"
  bottom: "pool5"
  top: "ip1"
  param {
    lr_mult: 1
  }
  param {
    lr_mult: 2
  }
  inner_product_param {
    num_output: 1024
    weight_filler {
      type: "gaussian"
      std: 0.1
    }
    bias_filler {
      type: "constant"
    }
  }
}
layer {
  name: "ip2"
  type: "InnerProduct"
  bottom: "ip1"
  top: "ip2"
  param {
    lr_mult: 1
  }
  param {
    lr_mult: 2
  }
  inner_product_param {
    num_output: 512
    weight_filler {
      type: "gaussian"
      std: 0.1
    }
    bias_filler {
      type: "constant"
    }
  }
}
layer {
  name: "ip3"
  type: "InnerProduct"
  bottom: "ip2"
  top: "ip3"
  param {
    lr_mult: 1
  }
  param {
    lr_mult: 2
  }
  inner_product_param {
    num_output: 50
    weight_filler {
      type: "gaussian"
      std: 0.1
    }
    bias_filler {
      type: "constant"
    }
  }
}
layer {
  name: "loss"
  type: "SoftmaxWithLoss"
  bottom: "ip3"
  bottom: "label"
  top: "loss"
}
I0503 15:38:09.361027 21141 layer_factory.hpp:77] Creating layer parameters
I0503 15:38:09.361042 21141 net.cpp:94] Creating Layer parameters
I0503 15:38:09.361048 21141 net.cpp:409] parameters -> data
I0503 15:38:09.361068 21141 net.cpp:409] parameters -> label
I0503 15:38:09.361078 21141 hdf5_data_layer.cpp:79] Loading list of HDF5 filenames from: /home/purduethu/scratch/radon/d/deng106/CNNStatisticalModel/distributions/input/20_distributions_400_sample_size_train-distributions-path.txt
I0503 15:38:09.361100 21141 hdf5_data_layer.cpp:93] Number of HDF5 files: 1
I0503 15:38:09.361567 21141 hdf5.cpp:32] Datatype class: H5T_FLOAT
I0503 15:38:09.620890 21141 hdf5.cpp:35] Datatype class: H5T_INTEGER
I0503 15:38:09.622629 21141 net.cpp:144] Setting up parameters
I0503 15:38:09.622648 21141 net.cpp:151] Top shape: 20 1 20 20 (8000)
I0503 15:38:09.622655 21141 net.cpp:151] Top shape: 20 (20)
I0503 15:38:09.622659 21141 net.cpp:159] Memory required for data: 32080
I0503 15:38:09.622666 21141 layer_factory.hpp:77] Creating layer conv1
I0503 15:38:09.622691 21141 net.cpp:94] Creating Layer conv1
I0503 15:38:09.622697 21141 net.cpp:435] conv1 <- data
I0503 15:38:09.622709 21141 net.cpp:409] conv1 -> conv1
I0503 15:38:09.627548 21141 net.cpp:144] Setting up conv1
I0503 15:38:09.627563 21141 net.cpp:151] Top shape: 20 64 20 20 (512000)
I0503 15:38:09.627568 21141 net.cpp:159] Memory required for data: 2080080
I0503 15:38:09.627580 21141 layer_factory.hpp:77] Creating layer relu1
I0503 15:38:09.627589 21141 net.cpp:94] Creating Layer relu1
I0503 15:38:09.627593 21141 net.cpp:435] relu1 <- conv1
I0503 15:38:09.627599 21141 net.cpp:396] relu1 -> conv1 (in-place)
I0503 15:38:09.627616 21141 net.cpp:144] Setting up relu1
I0503 15:38:09.627622 21141 net.cpp:151] Top shape: 20 64 20 20 (512000)
I0503 15:38:09.627626 21141 net.cpp:159] Memory required for data: 4128080
I0503 15:38:09.627630 21141 layer_factory.hpp:77] Creating layer conv2
I0503 15:38:09.627638 21141 net.cpp:94] Creating Layer conv2
I0503 15:38:09.627642 21141 net.cpp:435] conv2 <- conv1
I0503 15:38:09.627648 21141 net.cpp:409] conv2 -> conv2
I0503 15:38:09.637686 21141 net.cpp:144] Setting up conv2
I0503 15:38:09.637703 21141 net.cpp:151] Top shape: 20 64 20 20 (512000)
I0503 15:38:09.637708 21141 net.cpp:159] Memory required for data: 6176080
I0503 15:38:09.637717 21141 layer_factory.hpp:77] Creating layer relu2
I0503 15:38:09.637724 21141 net.cpp:94] Creating Layer relu2
I0503 15:38:09.637728 21141 net.cpp:435] relu2 <- conv2
I0503 15:38:09.637734 21141 net.cpp:396] relu2 -> conv2 (in-place)
I0503 15:38:09.637742 21141 net.cpp:144] Setting up relu2
I0503 15:38:09.637748 21141 net.cpp:151] Top shape: 20 64 20 20 (512000)
I0503 15:38:09.637750 21141 net.cpp:159] Memory required for data: 8224080
I0503 15:38:09.637754 21141 layer_factory.hpp:77] Creating layer pool2
I0503 15:38:09.637769 21141 net.cpp:94] Creating Layer pool2
I0503 15:38:09.637773 21141 net.cpp:435] pool2 <- conv2
I0503 15:38:09.637778 21141 net.cpp:409] pool2 -> pool2
I0503 15:38:09.637822 21141 net.cpp:144] Setting up pool2
I0503 15:38:09.637830 21141 net.cpp:151] Top shape: 20 64 10 10 (128000)
I0503 15:38:09.637833 21141 net.cpp:159] Memory required for data: 8736080
I0503 15:38:09.637837 21141 layer_factory.hpp:77] Creating layer conv3
I0503 15:38:09.637845 21141 net.cpp:94] Creating Layer conv3
I0503 15:38:09.637850 21141 net.cpp:435] conv3 <- pool2
I0503 15:38:09.637862 21141 net.cpp:409] conv3 -> conv3
I0503 15:38:09.647397 21141 net.cpp:144] Setting up conv3
I0503 15:38:09.647428 21141 net.cpp:151] Top shape: 20 128 10 10 (256000)
I0503 15:38:09.647433 21141 net.cpp:159] Memory required for data: 9760080
I0503 15:38:09.647441 21141 layer_factory.hpp:77] Creating layer relu3
I0503 15:38:09.647449 21141 net.cpp:94] Creating Layer relu3
I0503 15:38:09.647452 21141 net.cpp:435] relu3 <- conv3
I0503 15:38:09.647457 21141 net.cpp:396] relu3 -> conv3 (in-place)
I0503 15:38:09.647465 21141 net.cpp:144] Setting up relu3
I0503 15:38:09.647470 21141 net.cpp:151] Top shape: 20 128 10 10 (256000)
I0503 15:38:09.647474 21141 net.cpp:159] Memory required for data: 10784080
I0503 15:38:09.647477 21141 layer_factory.hpp:77] Creating layer conv4
I0503 15:38:09.647486 21141 net.cpp:94] Creating Layer conv4
I0503 15:38:09.647490 21141 net.cpp:435] conv4 <- conv3
I0503 15:38:09.647495 21141 net.cpp:409] conv4 -> conv4
I0503 15:38:09.665385 21141 net.cpp:144] Setting up conv4
I0503 15:38:09.665401 21141 net.cpp:151] Top shape: 20 128 10 10 (256000)
I0503 15:38:09.665405 21141 net.cpp:159] Memory required for data: 11808080
I0503 15:38:09.665415 21141 layer_factory.hpp:77] Creating layer relu4
I0503 15:38:09.665421 21141 net.cpp:94] Creating Layer relu4
I0503 15:38:09.665424 21141 net.cpp:435] relu4 <- conv4
I0503 15:38:09.665429 21141 net.cpp:396] relu4 -> conv4 (in-place)
I0503 15:38:09.665437 21141 net.cpp:144] Setting up relu4
I0503 15:38:09.665442 21141 net.cpp:151] Top shape: 20 128 10 10 (256000)
I0503 15:38:09.665446 21141 net.cpp:159] Memory required for data: 12832080
I0503 15:38:09.665449 21141 layer_factory.hpp:77] Creating layer conv5
I0503 15:38:09.665457 21141 net.cpp:94] Creating Layer conv5
I0503 15:38:09.665462 21141 net.cpp:435] conv5 <- conv4
I0503 15:38:09.665467 21141 net.cpp:409] conv5 -> conv5
I0503 15:38:09.683152 21141 net.cpp:144] Setting up conv5
I0503 15:38:09.683168 21141 net.cpp:151] Top shape: 20 128 10 10 (256000)
I0503 15:38:09.683172 21141 net.cpp:159] Memory required for data: 13856080
I0503 15:38:09.683182 21141 layer_factory.hpp:77] Creating layer relu5
I0503 15:38:09.683188 21141 net.cpp:94] Creating Layer relu5
I0503 15:38:09.683193 21141 net.cpp:435] relu5 <- conv5
I0503 15:38:09.683198 21141 net.cpp:396] relu5 -> conv5 (in-place)
I0503 15:38:09.683205 21141 net.cpp:144] Setting up relu5
I0503 15:38:09.683210 21141 net.cpp:151] Top shape: 20 128 10 10 (256000)
I0503 15:38:09.683213 21141 net.cpp:159] Memory required for data: 14880080
I0503 15:38:09.683218 21141 layer_factory.hpp:77] Creating layer pool5
I0503 15:38:09.683223 21141 net.cpp:94] Creating Layer pool5
I0503 15:38:09.683226 21141 net.cpp:435] pool5 <- conv5
I0503 15:38:09.683231 21141 net.cpp:409] pool5 -> pool5
I0503 15:38:09.683266 21141 net.cpp:144] Setting up pool5
I0503 15:38:09.683274 21141 net.cpp:151] Top shape: 20 128 5 5 (64000)
I0503 15:38:09.683277 21141 net.cpp:159] Memory required for data: 15136080
I0503 15:38:09.683281 21141 layer_factory.hpp:77] Creating layer ip1
I0503 15:38:09.683291 21141 net.cpp:94] Creating Layer ip1
I0503 15:38:09.683295 21141 net.cpp:435] ip1 <- pool5
I0503 15:38:09.683300 21141 net.cpp:409] ip1 -> ip1
I0503 15:38:09.766065 21141 net.cpp:144] Setting up ip1
I0503 15:38:09.766098 21141 net.cpp:151] Top shape: 20 1024 (20480)
I0503 15:38:09.766103 21141 net.cpp:159] Memory required for data: 15218000
I0503 15:38:09.766111 21141 layer_factory.hpp:77] Creating layer ip2
I0503 15:38:09.766129 21141 net.cpp:94] Creating Layer ip2
I0503 15:38:09.766135 21141 net.cpp:435] ip2 <- ip1
I0503 15:38:09.766142 21141 net.cpp:409] ip2 -> ip2
I0503 15:38:09.779660 21141 net.cpp:144] Setting up ip2
I0503 15:38:09.779675 21141 net.cpp:151] Top shape: 20 512 (10240)
I0503 15:38:09.779680 21141 net.cpp:159] Memory required for data: 15258960
I0503 15:38:09.779686 21141 layer_factory.hpp:77] Creating layer ip3
I0503 15:38:09.779695 21141 net.cpp:94] Creating Layer ip3
I0503 15:38:09.779698 21141 net.cpp:435] ip3 <- ip2
I0503 15:38:09.779703 21141 net.cpp:409] ip3 -> ip3
I0503 15:38:09.781067 21141 net.cpp:144] Setting up ip3
I0503 15:38:09.781081 21141 net.cpp:151] Top shape: 20 50 (1000)
I0503 15:38:09.781085 21141 net.cpp:159] Memory required for data: 15262960
I0503 15:38:09.781091 21141 layer_factory.hpp:77] Creating layer loss
I0503 15:38:09.781100 21141 net.cpp:94] Creating Layer loss
I0503 15:38:09.781103 21141 net.cpp:435] loss <- ip3
I0503 15:38:09.781108 21141 net.cpp:435] loss <- label
I0503 15:38:09.781114 21141 net.cpp:409] loss -> loss
I0503 15:38:09.781126 21141 layer_factory.hpp:77] Creating layer loss
…
I0503 15:38:09.781649 21141 solver.cpp:181] Creating test net (#0) specified by net file: ./protocol/dis_20_400_dimension.protocol_distribution
I0503 15:38:09.781677 21141 net.cpp:323] The NetState phase (1) differed from the phase (0) specified by a rule in layer parameters
I0503 15:38:09.781779 21141 net.cpp:52] Initializing net from parameters: 
state {
  phase: TEST
}
layer {
  name: "intercept"
  type: "HDF5Data"
  top: "data"
  top: "label"
  include {
    phase: TEST
  }
  hdf5_data_param {
    source: "/home/purduethu/scratch/radon/d/deng106/CNNStatisticalModel/distributions/input/20_distributions_400_sample_size_test-distributions-path.txt"
    batch_size: 20
  }
}
layer {
  name: "conv1"
  type: "Convolution"
  bottom: "data"
  top: "conv1"
  param {
    lr_mult: 1
  }
  param {
    lr_mult: 2
  }
  convolution_param {
    num_output: 64
    pad: 2
    kernel_size: 5
    stride: 1
    weight_filler {
      type: "gaussian"
      std: 0.0001
    }
    bias_filler {
      type: "constant"
    }
  }
}
layer {
  name: "relu1"
  type: "ReLU"
  bottom: "conv1"
  top: "conv1"
}
layer {
  name: "conv2"
  type: "Convolution"
  bottom: "conv1"
  top: "conv2"
  param {
    lr_mult: 1
  }
  param {
    lr_mult: 2
  }
  convolution_param {
    num_output: 64
    pad: 2
    kernel_size: 5
    stride: 1
    weight_filler {
      type: "gaussian"
      std: 0.01
    }
    bias_filler {
      type: "constant"
    }
  }
}
layer {
  name: "relu2"
  type: "ReLU"
  bottom: "conv2"
  top: "conv2"
}
layer {
  name: "pool2"
  type: "Pooling"
  bottom: "conv2"
  top: "pool2"
  pooling_param {
    pool: MAX
    kernel_size: 3
    stride: 2
  }
}
layer {
  name: "conv3"
  type: "Convolution"
  bottom: "pool2"
  top: "conv3"
  param {
    lr_mult: 1
  }
  param {
    lr_mult: 2
  }
  convolution_param {
    num_output: 128
    pad: 2
    kernel_size: 5
    stride: 1
    weight_filler {
      type: "gaussian"
      std: 0.01
    }
    bias_filler {
      type: "constant"
    }
  }
}
layer {
  name: "relu3"
  type: "ReLU"
  bottom: "conv3"
  top: "conv3"
}
layer {
  name: "conv4"
  type: "Convolution"
  bottom: "conv3"
  top: "conv4"
  param {
    lr_mult: 1
  }
  param {
    lr_mult: 2
  }
  convolution_param {
    num_output: 128
    pad: 2
    kernel_size: 5
    stride: 1
    weight_filler {
      type: "gaussian"
      std: 0.01
    }
    bias_filler {
      type: "constant"
    }
  }
}
layer {
  name: "relu4"
  type: "ReLU"
  bottom: "conv4"
  top: "conv4"
}
layer {
  name: "conv5"
  type: "Convolution"
  bottom: "conv4"
  top: "conv5"
  param {
    lr_mult: 1
  }
  param {
    lr_mult: 2
  }
  convolution_param {
    num_output: 128
    pad: 2
    kernel_size: 5
    stride: 1
    weight_filler {
      type: "gaussian"
      std: 0.01
    }
    bias_filler {
      type: "constant"
    }
  }
}
layer {
  name: "relu5"
  type: "ReLU"
  bottom: "conv5"
  top: "conv5"
}
layer {
  name: "pool5"
  type: "Pooling"
  bottom: "conv5"
  top: "pool5"
  pooling_param {
    pool: AVE
    kernel_size: 3
    stride: 2
  }
}
layer {
  name: "ip1"
  type: "InnerProduct"
  bottom: "pool5"
  top: "ip1"
  param {
    lr_mult: 1
  }
  param {
    lr_mult: 2
  }
  inner_product_param {
    num_output: 1024
    weight_filler {
      type: "gaussian"
      std: 0.1
    }
    bias_filler {
      type: "constant"
    }
  }
}
layer {
  name: "ip2"
  type: "InnerProduct"
  bottom: "ip1"
  top: "ip2"
  param {
    lr_mult: 1
  }
  param {
    lr_mult: 2
  }
  inner_product_param {
    num_output: 512
    weight_filler {
      type: "gaussian"
      std: 0.1
    }
    bias_filler {
      type: "constant"
    }
  }
}
layer {
  name: "ip3"
  type: "InnerProduct"
  bottom: "ip2"
  top: "ip3"
  param {
    lr_mult: 1
  }
  param {
    lr_mult: 2
  }
  inner_product_param {
    num_output: 50
    weight_filler {
      type: "gaussian"
      std: 0.1
    }
    bias_filler {
      type: "constant"
    }
  }
}
layer {
  name: "accuracy"
  type: "Accuracy"
  bottom: "ip3"
  bottom: "label"
  top: "accuracy"
  include {
    phase: TEST
  }
}
layer {
  name: "loss"
  type: "SoftmaxWithLoss"
  bottom: "ip3"
  bottom: "label"
  top: "loss"
}
I0503 15:38:09.781853 21141 layer_factory.hpp:77] Creating layer intercept
I0503 15:38:09.781862 21141 net.cpp:94] Creating Layer intercept
I0503 15:38:09.781867 21141 net.cpp:409] intercept -> data
I0503 15:38:09.781874 21141 net.cpp:409] intercept -> label
I0503 15:38:09.781882 21141 hdf5_data_layer.cpp:79] Loading list of HDF5 filenames from: /home/purduethu/scratch/radon/d/deng106/CNNStatisticalModel/distributions/input/20_distributions_400_sample_size_test-distributions-path.txt
I0503 15:38:09.781901 21141 hdf5_data_layer.cpp:93] Number of HDF5 files: 1
I0503 15:38:09.847177 21141 net.cpp:144] Setting up intercept
I0503 15:38:09.847211 21141 net.cpp:151] Top shape: 20 1 20 20 (8000)
I0503 15:38:09.847218 21141 net.cpp:151] Top shape: 20 (20)
I0503 15:38:09.847221 21141 net.cpp:159] Memory required for data: 32080
I0503 15:38:09.847228 21141 layer_factory.hpp:77] Creating layer label_intercept_1_split
I0503 15:38:09.847246 21141 net.cpp:94] Creating Layer label_intercept_1_split
I0503 15:38:09.847251 21141 net.cpp:435] label_intercept_1_split <- label
I0503 15:38:09.847257 21141 net.cpp:409] label_intercept_1_split -> label_intercept_1_split_0
I0503 15:38:09.847266 21141 net.cpp:409] label_intercept_1_split -> label_intercept_1_split_1
I0503 15:38:09.847302 21141 net.cpp:144] Setting up label_intercept_1_split
I0503 15:38:09.847309 21141 net.cpp:151] Top shape: 20 (20)
I0503 15:38:09.847313 21141 net.cpp:151] Top shape: 20 (20)
I0503 15:38:09.847317 21141 net.cpp:159] Memory required for data: 32240
I0503 15:38:09.847321 21141 layer_factory.hpp:77] Creating layer conv1
I0503 15:38:09.847332 21141 net.cpp:94] Creating Layer conv1
I0503 15:38:09.847337 21141 net.cpp:435] conv1 <- data
I0503 15:38:09.847342 21141 net.cpp:409] conv1 -> conv1
I0503 15:38:09.848037 21141 net.cpp:144] Setting up conv1
I0503 15:38:09.848052 21141 net.cpp:151] Top shape: 20 64 20 20 (512000)
I0503 15:38:09.848055 21141 net.cpp:159] Memory required for data: 2080240
I0503 15:38:09.848065 21141 layer_factory.hpp:77] Creating layer relu1
I0503 15:38:09.848073 21141 net.cpp:94] Creating Layer relu1
I0503 15:38:09.848076 21141 net.cpp:435] relu1 <- conv1
I0503 15:38:09.848081 21141 net.cpp:396] relu1 -> conv1 (in-place)
I0503 15:38:09.848089 21141 net.cpp:144] Setting up relu1
I0503 15:38:09.848094 21141 net.cpp:151] Top shape: 20 64 20 20 (512000)
I0503 15:38:09.848098 21141 net.cpp:159] Memory required for data: 4128240
I0503 15:38:09.848101 21141 layer_factory.hpp:77] Creating layer conv2
I0503 15:38:09.848110 21141 net.cpp:94] Creating Layer conv2
I0503 15:38:09.848114 21141 net.cpp:435] conv2 <- conv1
I0503 15:38:09.848119 21141 net.cpp:409] conv2 -> conv2
I0503 15:38:09.853093 21141 net.cpp:144] Setting up conv2
I0503 15:38:09.853109 21141 net.cpp:151] Top shape: 20 64 20 20 (512000)
I0503 15:38:09.853114 21141 net.cpp:159] Memory required for data: 6176240
I0503 15:38:09.853123 21141 layer_factory.hpp:77] Creating layer relu2
I0503 15:38:09.853129 21141 net.cpp:94] Creating Layer relu2
I0503 15:38:09.853133 21141 net.cpp:435] relu2 <- conv2
I0503 15:38:09.853138 21141 net.cpp:396] relu2 -> conv2 (in-place)
I0503 15:38:09.853147 21141 net.cpp:144] Setting up relu2
I0503 15:38:09.853152 21141 net.cpp:151] Top shape: 20 64 20 20 (512000)
I0503 15:38:09.853154 21141 net.cpp:159] Memory required for data: 8224240
I0503 15:38:09.853158 21141 layer_factory.hpp:77] Creating layer pool2
I0503 15:38:09.853164 21141 net.cpp:94] Creating Layer pool2
I0503 15:38:09.853168 21141 net.cpp:435] pool2 <- conv2
I0503 15:38:09.853173 21141 net.cpp:409] pool2 -> pool2
I0503 15:38:09.853207 21141 net.cpp:144] Setting up pool2
I0503 15:38:09.853214 21141 net.cpp:151] Top shape: 20 64 10 10 (128000)
I0503 15:38:09.853219 21141 net.cpp:159] Memory required for data: 8736240
I0503 15:38:09.853221 21141 layer_factory.hpp:77] Creating layer conv3
I0503 15:38:09.853230 21141 net.cpp:94] Creating Layer conv3
I0503 15:38:09.853235 21141 net.cpp:435] conv3 <- pool2
I0503 15:38:09.853240 21141 net.cpp:409] conv3 -> conv3
I0503 15:38:09.861014 21141 net.cpp:144] Setting up conv3
I0503 15:38:09.861029 21141 net.cpp:151] Top shape: 20 128 10 10 (256000)
I0503 15:38:09.861033 21141 net.cpp:159] Memory required for data: 9760240
I0503 15:38:09.861042 21141 layer_factory.hpp:77] Creating layer relu3
I0503 15:38:09.861049 21141 net.cpp:94] Creating Layer relu3
I0503 15:38:09.861054 21141 net.cpp:435] relu3 <- conv3
I0503 15:38:09.861059 21141 net.cpp:396] relu3 -> conv3 (in-place)
I0503 15:38:09.861066 21141 net.cpp:144] Setting up relu3
I0503 15:38:09.861071 21141 net.cpp:151] Top shape: 20 128 10 10 (256000)
I0503 15:38:09.861075 21141 net.cpp:159] Memory required for data: 10784240
I0503 15:38:09.861078 21141 layer_factory.hpp:77] Creating layer conv4
I0503 15:38:09.861086 21141 net.cpp:94] Creating Layer conv4
I0503 15:38:09.861090 21141 net.cpp:435] conv4 <- conv3
I0503 15:38:09.861095 21141 net.cpp:409] conv4 -> conv4
I0503 15:38:09.874908 21141 net.cpp:144] Setting up conv4
I0503 15:38:09.874949 21141 net.cpp:151] Top shape: 20 128 10 10 (256000)
I0503 15:38:09.874961 21141 net.cpp:159] Memory required for data: 11808240
I0503 15:38:09.874981 21141 layer_factory.hpp:77] Creating layer relu4
I0503 15:38:09.874997 21141 net.cpp:94] Creating Layer relu4
I0503 15:38:09.875020 21141 net.cpp:435] relu4 <- conv4
I0503 15:38:09.875035 21141 net.cpp:396] relu4 -> conv4 (in-place)
I0503 15:38:09.875056 21141 net.cpp:144] Setting up relu4
I0503 15:38:09.875069 21141 net.cpp:151] Top shape: 20 128 10 10 (256000)
I0503 15:38:09.875079 21141 net.cpp:159] Memory required for data: 12832240
I0503 15:38:09.875089 21141 layer_factory.hpp:77] Creating layer conv5
I0503 15:38:09.875110 21141 net.cpp:94] Creating Layer conv5
I0503 15:38:09.875121 21141 net.cpp:435] conv5 <- conv4
I0503 15:38:09.875136 21141 net.cpp:409] conv5 -> conv5
I0503 15:38:09.888617 21141 net.cpp:144] Setting up conv5
I0503 15:38:09.888654 21141 net.cpp:151] Top shape: 20 128 10 10 (256000)
I0503 15:38:09.888666 21141 net.cpp:159] Memory required for data: 13856240
I0503 15:38:09.888692 21141 layer_factory.hpp:77] Creating layer relu5
I0503 15:38:09.888710 21141 net.cpp:94] Creating Layer relu5
I0503 15:38:09.888720 21141 net.cpp:435] relu5 <- conv5
I0503 15:38:09.888734 21141 net.cpp:396] relu5 -> conv5 (in-place)
I0503 15:38:09.888754 21141 net.cpp:144] Setting up relu5
I0503 15:38:09.888768 21141 net.cpp:151] Top shape: 20 128 10 10 (256000)
I0503 15:38:09.888778 21141 net.cpp:159] Memory required for data: 14880240
I0503 15:38:09.888788 21141 layer_factory.hpp:77] Creating layer pool5
I0503 15:38:09.888803 21141 net.cpp:94] Creating Layer pool5
I0503 15:38:09.888813 21141 net.cpp:435] pool5 <- conv5
I0503 15:38:09.888825 21141 net.cpp:409] pool5 -> pool5
I0503 15:38:09.888895 21141 net.cpp:144] Setting up pool5
I0503 15:38:09.888912 21141 net.cpp:151] Top shape: 20 128 5 5 (64000)
I0503 15:38:09.888922 21141 net.cpp:159] Memory required for data: 15136240
I0503 15:38:09.888932 21141 layer_factory.hpp:77] Creating layer ip1
I0503 15:38:09.888949 21141 net.cpp:94] Creating Layer ip1
I0503 15:38:09.888960 21141 net.cpp:435] ip1 <- pool5
I0503 15:38:09.888974 21141 net.cpp:409] ip1 -> ip1
I0503 15:38:09.971925 21141 net.cpp:144] Setting up ip1
I0503 15:38:09.971957 21141 net.cpp:151] Top shape: 20 1024 (20480)
I0503 15:38:09.971962 21141 net.cpp:159] Memory required for data: 15218160
I0503 15:38:09.971971 21141 layer_factory.hpp:77] Creating layer ip2
I0503 15:38:09.971982 21141 net.cpp:94] Creating Layer ip2
I0503 15:38:09.971987 21141 net.cpp:435] ip2 <- ip1
I0503 15:38:09.971993 21141 net.cpp:409] ip2 -> ip2
I0503 15:38:09.985543 21141 net.cpp:144] Setting up ip2
I0503 15:38:09.985558 21141 net.cpp:151] Top shape: 20 512 (10240)
I0503 15:38:09.985561 21141 net.cpp:159] Memory required for data: 15259120
I0503 15:38:09.985568 21141 layer_factory.hpp:77] Creating layer ip3
I0503 15:38:09.985577 21141 net.cpp:94] Creating Layer ip3
I0503 15:38:09.985581 21141 net.cpp:435] ip3 <- ip2
I0503 15:38:09.985587 21141 net.cpp:409] ip3 -> ip3
I0503 15:38:09.986305 21141 net.cpp:144] Setting up ip3
I0503 15:38:09.986313 21141 net.cpp:151] Top shape: 20 50 (1000)
I0503 15:38:09.986317 21141 net.cpp:159] Memory required for data: 15263120
I0503 15:38:09.986322 21141 layer_factory.hpp:77] Creating layer ip3_ip3_0_split
I0503 15:38:09.986328 21141 net.cpp:94] Creating Layer ip3_ip3_0_split
I0503 15:38:09.986332 21141 net.cpp:435] ip3_ip3_0_split <- ip3
I0503 15:38:09.986337 21141 net.cpp:409] ip3_ip3_0_split -> ip3_ip3_0_split_0
I0503 15:38:09.986343 21141 net.cpp:409] ip3_ip3_0_split -> ip3_ip3_0_split_1
I0503 15:38:09.986371 21141 net.cpp:144] Setting up ip3_ip3_0_split
I0503 15:38:09.986377 21141 net.cpp:151] Top shape: 20 50 (1000)
I0503 15:38:09.986380 21141 net.cpp:151] Top shape: 20 50 (1000)
I0503 15:38:09.986383 21141 net.cpp:159] Memory required for data: 15271120
I0503 15:38:09.986387 21141 layer_factory.hpp:77] Creating layer accuracy
I0503 15:38:09.986393 21141 net.cpp:94] Creating Layer accuracy
I0503 15:38:09.986397 21141 net.cpp:435] accuracy <- ip3_ip3_0_split_0
I0503 15:38:09.986402 21141 net.cpp:435] accuracy <- label_intercept_1_split_0
I0503 15:38:09.986407 21141 net.cpp:409] accuracy -> accuracy
…
