…
I0501 16:15:17.086081 13494 net.cpp:323] The NetState phase (0) differed from the phase (1) specified by a rule in layer intercept
I0501 16:15:17.086102 13494 net.cpp:323] The NetState phase (0) differed from the phase (1) specified by a rule in layer loss
I0501 16:15:17.086201 13494 net.cpp:52] Initializing net from parameters: 
state {
  phase: TRAIN
}
layer {
  name: "parameters"
  type: "HDF5Data"
  top: "data"
  top: "label"
  include {
    phase: TRAIN
  }
  hdf5_data_param {
    source: "/home/purduethu/scratch/radon/d/deng106/CNNStatisticalModel/distributions/input/20_distributions_100_sample_size_train-parameters-path.txt"
    batch_size: 20
  }
}
layer {
  name: "conv1"
  type: "Convolution"
  bottom: "data"
  top: "conv1"
  param {
    lr_mult: 1
  }
  param {
    lr_mult: 2
  }
  convolution_param {
    num_output: 64
    pad: 2
    kernel_size: 5
    stride: 1
    weight_filler {
      type: "gaussian"
      std: 0.0001
    }
    bias_filler {
      type: "constant"
    }
  }
}
layer {
  name: "relu1"
  type: "ReLU"
  bottom: "conv1"
  top: "conv1"
}
layer {
  name: "conv2"
  type: "Convolution"
  bottom: "conv1"
  top: "conv2"
  param {
    lr_mult: 1
  }
  param {
    lr_mult: 2
  }
  convolution_param {
    num_output: 64
    pad: 2
    kernel_size: 5
    stride: 1
    weight_filler {
      type: "gaussian"
      std: 0.01
    }
    bias_filler {
      type: "constant"
    }
  }
}
layer {
  name: "relu2"
  type: "ReLU"
  bottom: "conv2"
  top: "conv2"
}
layer {
  name: "pool2"
  type: "Pooling"
  bottom: "conv2"
  top: "pool2"
  pooling_param {
    pool: MAX
    kernel_size: 3
    stride: 2
  }
}
layer {
  name: "conv3"
  type: "Convolution"
  bottom: "pool2"
  top: "conv3"
  param {
    lr_mult: 1
  }
  param {
    lr_mult: 2
  }
  convolution_param {
    num_output: 64
    pad: 2
    kernel_size: 5
    stride: 1
    weight_filler {
      type: "gaussian"
      std: 0.01
    }
    bias_filler {
      type: "constant"
    }
  }
}
layer {
  name: "relu3"
  type: "ReLU"
  bottom: "conv3"
  top: "conv3"
}
layer {
  name: "conv4"
  type: "Convolution"
  bottom: "conv3"
  top: "conv4"
  param {
    lr_mult: 1
  }
  param {
    lr_mult: 2
  }
  convolution_param {
    num_output: 64
    pad: 2
    kernel_size: 5
    stride: 1
    weight_filler {
      type: "gaussian"
      std: 0.01
    }
    bias_filler {
      type: "constant"
    }
  }
}
layer {
  name: "relu4"
  type: "ReLU"
  bottom: "conv4"
  top: "conv4"
}
layer {
  name: "conv5"
  type: "Convolution"
  bottom: "conv4"
  top: "conv5"
  param {
    lr_mult: 1
  }
  param {
    lr_mult: 2
  }
  convolution_param {
    num_output: 64
    pad: 2
    kernel_size: 5
    stride: 1
    weight_filler {
      type: "gaussian"
      std: 0.01
    }
    bias_filler {
      type: "constant"
    }
  }
}
layer {
  name: "relu5"
  type: "ReLU"
  bottom: "conv5"
  top: "conv5"
}
layer {
  name: "pool5"
  type: "Pooling"
  bottom: "conv5"
  top: "pool5"
  pooling_param {
    pool: AVE
    kernel_size: 3
    stride: 2
  }
}
layer {
  name: "ip1"
  type: "InnerProduct"
  bottom: "pool5"
  top: "ip1"
  param {
    lr_mult: 1
  }
  param {
    lr_mult: 2
  }
  inner_product_param {
    num_output: 64
    weight_filler {
      type: "gaussian"
      std: 0.1
    }
    bias_filler {
      type: "constant"
    }
  }
}
layer {
  name: "ip2"
  type: "InnerProduct"
  bottom: "ip1"
  top: "ip2"
  param {
    lr_mult: 1
  }
  param {
    lr_mult: 2
  }
  inner_product_param {
    num_output: 64
    weight_filler {
      type: "gaussian"
      std: 0.1
    }
    bias_filler {
      type: "constant"
    }
  }
}
layer {
  name: "ip3"
  type: "InnerProduct"
  bottom: "ip2"
  top: "ip3"
  param {
    lr_mult: 1
  }
  param {
    lr_mult: 2
  }
  inner_product_param {
    num_output: 1
    weight_filler {
      type: "gaussian"
      std: 0.1
    }
    bias_filler {
      type: "constant"
    }
  }
}
layer {
  name: "loss"
  type: "HuberLoss"
  bottom: "ip3"
  bottom: "label"
  top: "loss"
  include {
    phase: TRAIN
  }
}
I0501 16:15:17.086263 13494 layer_factory.hpp:77] Creating layer parameters
I0501 16:15:17.086277 13494 net.cpp:94] Creating Layer parameters
I0501 16:15:17.086283 13494 net.cpp:409] parameters -> data
I0501 16:15:17.086298 13494 net.cpp:409] parameters -> label
I0501 16:15:17.086307 13494 hdf5_data_layer.cpp:79] Loading list of HDF5 filenames from: /home/purduethu/scratch/radon/d/deng106/CNNStatisticalModel/distributions/input/20_distributions_100_sample_size_train-parameters-path.txt
I0501 16:15:17.086323 13494 hdf5_data_layer.cpp:93] Number of HDF5 files: 1
I0501 16:15:17.086969 13494 hdf5.cpp:32] Datatype class: H5T_FLOAT
I0501 16:15:17.158071 13494 net.cpp:144] Setting up parameters
I0501 16:15:17.158099 13494 net.cpp:151] Top shape: 20 1 10 10 (2000)
I0501 16:15:17.158105 13494 net.cpp:151] Top shape: 20 (20)
I0501 16:15:17.158108 13494 net.cpp:159] Memory required for data: 8080
I0501 16:15:17.158114 13494 layer_factory.hpp:77] Creating layer conv1
I0501 16:15:17.158130 13494 net.cpp:94] Creating Layer conv1
I0501 16:15:17.158135 13494 net.cpp:435] conv1 <- data
I0501 16:15:17.158141 13494 net.cpp:409] conv1 -> conv1
I0501 16:15:17.162300 13494 net.cpp:144] Setting up conv1
I0501 16:15:17.162317 13494 net.cpp:151] Top shape: 20 64 10 10 (128000)
I0501 16:15:17.162320 13494 net.cpp:159] Memory required for data: 520080
I0501 16:15:17.162330 13494 layer_factory.hpp:77] Creating layer relu1
I0501 16:15:17.162338 13494 net.cpp:94] Creating Layer relu1
I0501 16:15:17.162343 13494 net.cpp:435] relu1 <- conv1
I0501 16:15:17.162346 13494 net.cpp:396] relu1 -> conv1 (in-place)
I0501 16:15:17.162353 13494 net.cpp:144] Setting up relu1
I0501 16:15:17.162358 13494 net.cpp:151] Top shape: 20 64 10 10 (128000)
I0501 16:15:17.162361 13494 net.cpp:159] Memory required for data: 1032080
I0501 16:15:17.162364 13494 layer_factory.hpp:77] Creating layer conv2
I0501 16:15:17.162372 13494 net.cpp:94] Creating Layer conv2
I0501 16:15:17.162375 13494 net.cpp:435] conv2 <- conv1
I0501 16:15:17.162380 13494 net.cpp:409] conv2 -> conv2
I0501 16:15:17.167683 13494 net.cpp:144] Setting up conv2
I0501 16:15:17.167697 13494 net.cpp:151] Top shape: 20 64 10 10 (128000)
I0501 16:15:17.167701 13494 net.cpp:159] Memory required for data: 1544080
I0501 16:15:17.167709 13494 layer_factory.hpp:77] Creating layer relu2
I0501 16:15:17.167716 13494 net.cpp:94] Creating Layer relu2
I0501 16:15:17.167719 13494 net.cpp:435] relu2 <- conv2
I0501 16:15:17.167723 13494 net.cpp:396] relu2 -> conv2 (in-place)
I0501 16:15:17.167731 13494 net.cpp:144] Setting up relu2
I0501 16:15:17.167735 13494 net.cpp:151] Top shape: 20 64 10 10 (128000)
I0501 16:15:17.167737 13494 net.cpp:159] Memory required for data: 2056080
I0501 16:15:17.167740 13494 layer_factory.hpp:77] Creating layer pool2
I0501 16:15:17.167752 13494 net.cpp:94] Creating Layer pool2
I0501 16:15:17.167757 13494 net.cpp:435] pool2 <- conv2
I0501 16:15:17.167762 13494 net.cpp:409] pool2 -> pool2
I0501 16:15:17.167811 13494 net.cpp:144] Setting up pool2
I0501 16:15:17.167819 13494 net.cpp:151] Top shape: 20 64 5 5 (32000)
I0501 16:15:17.167821 13494 net.cpp:159] Memory required for data: 2184080
I0501 16:15:17.167825 13494 layer_factory.hpp:77] Creating layer conv3
I0501 16:15:17.167832 13494 net.cpp:94] Creating Layer conv3
I0501 16:15:17.167836 13494 net.cpp:435] conv3 <- pool2
I0501 16:15:17.167841 13494 net.cpp:409] conv3 -> conv3
I0501 16:15:17.172785 13494 net.cpp:144] Setting up conv3
I0501 16:15:17.172799 13494 net.cpp:151] Top shape: 20 64 5 5 (32000)
I0501 16:15:17.172803 13494 net.cpp:159] Memory required for data: 2312080
I0501 16:15:17.172811 13494 layer_factory.hpp:77] Creating layer relu3
I0501 16:15:17.172817 13494 net.cpp:94] Creating Layer relu3
I0501 16:15:17.172821 13494 net.cpp:435] relu3 <- conv3
I0501 16:15:17.172825 13494 net.cpp:396] relu3 -> conv3 (in-place)
I0501 16:15:17.172832 13494 net.cpp:144] Setting up relu3
I0501 16:15:17.172837 13494 net.cpp:151] Top shape: 20 64 5 5 (32000)
I0501 16:15:17.172839 13494 net.cpp:159] Memory required for data: 2440080
I0501 16:15:17.172842 13494 layer_factory.hpp:77] Creating layer conv4
I0501 16:15:17.172850 13494 net.cpp:94] Creating Layer conv4
I0501 16:15:17.172853 13494 net.cpp:435] conv4 <- conv3
I0501 16:15:17.172858 13494 net.cpp:409] conv4 -> conv4
I0501 16:15:17.177299 13494 net.cpp:144] Setting up conv4
I0501 16:15:17.177312 13494 net.cpp:151] Top shape: 20 64 5 5 (32000)
I0501 16:15:17.177316 13494 net.cpp:159] Memory required for data: 2568080
I0501 16:15:17.177322 13494 layer_factory.hpp:77] Creating layer relu4
I0501 16:15:17.177328 13494 net.cpp:94] Creating Layer relu4
I0501 16:15:17.177331 13494 net.cpp:435] relu4 <- conv4
I0501 16:15:17.177336 13494 net.cpp:396] relu4 -> conv4 (in-place)
I0501 16:15:17.177342 13494 net.cpp:144] Setting up relu4
I0501 16:15:17.177347 13494 net.cpp:151] Top shape: 20 64 5 5 (32000)
I0501 16:15:17.177350 13494 net.cpp:159] Memory required for data: 2696080
I0501 16:15:17.177353 13494 layer_factory.hpp:77] Creating layer conv5
I0501 16:15:17.177361 13494 net.cpp:94] Creating Layer conv5
I0501 16:15:17.177363 13494 net.cpp:435] conv5 <- conv4
I0501 16:15:17.177368 13494 net.cpp:409] conv5 -> conv5
I0501 16:15:17.183079 13494 net.cpp:144] Setting up conv5
I0501 16:15:17.183094 13494 net.cpp:151] Top shape: 20 64 5 5 (32000)
I0501 16:15:17.183097 13494 net.cpp:159] Memory required for data: 2824080
I0501 16:15:17.183105 13494 layer_factory.hpp:77] Creating layer relu5
I0501 16:15:17.183111 13494 net.cpp:94] Creating Layer relu5
I0501 16:15:17.183115 13494 net.cpp:435] relu5 <- conv5
I0501 16:15:17.183120 13494 net.cpp:396] relu5 -> conv5 (in-place)
I0501 16:15:17.183125 13494 net.cpp:144] Setting up relu5
I0501 16:15:17.183130 13494 net.cpp:151] Top shape: 20 64 5 5 (32000)
I0501 16:15:17.183133 13494 net.cpp:159] Memory required for data: 2952080
I0501 16:15:17.183136 13494 layer_factory.hpp:77] Creating layer pool5
I0501 16:15:17.183141 13494 net.cpp:94] Creating Layer pool5
I0501 16:15:17.183145 13494 net.cpp:435] pool5 <- conv5
I0501 16:15:17.183148 13494 net.cpp:409] pool5 -> pool5
I0501 16:15:17.183185 13494 net.cpp:144] Setting up pool5
I0501 16:15:17.183192 13494 net.cpp:151] Top shape: 20 64 2 2 (5120)
I0501 16:15:17.183195 13494 net.cpp:159] Memory required for data: 2972560
I0501 16:15:17.183198 13494 layer_factory.hpp:77] Creating layer ip1
I0501 16:15:17.183208 13494 net.cpp:94] Creating Layer ip1
I0501 16:15:17.183212 13494 net.cpp:435] ip1 <- pool5
I0501 16:15:17.183217 13494 net.cpp:409] ip1 -> ip1
I0501 16:15:17.184541 13494 net.cpp:144] Setting up ip1
I0501 16:15:17.184563 13494 net.cpp:151] Top shape: 20 64 (1280)
I0501 16:15:17.184568 13494 net.cpp:159] Memory required for data: 2977680
I0501 16:15:17.184574 13494 layer_factory.hpp:77] Creating layer ip2
I0501 16:15:17.184581 13494 net.cpp:94] Creating Layer ip2
I0501 16:15:17.184589 13494 net.cpp:435] ip2 <- ip1
I0501 16:15:17.184595 13494 net.cpp:409] ip2 -> ip2
I0501 16:15:17.184810 13494 net.cpp:144] Setting up ip2
I0501 16:15:17.184818 13494 net.cpp:151] Top shape: 20 64 (1280)
I0501 16:15:17.184820 13494 net.cpp:159] Memory required for data: 2982800
I0501 16:15:17.184826 13494 layer_factory.hpp:77] Creating layer ip3
I0501 16:15:17.184831 13494 net.cpp:94] Creating Layer ip3
I0501 16:15:17.184835 13494 net.cpp:435] ip3 <- ip2
I0501 16:15:17.184839 13494 net.cpp:409] ip3 -> ip3
I0501 16:15:17.184940 13494 net.cpp:144] Setting up ip3
I0501 16:15:17.184947 13494 net.cpp:151] Top shape: 20 1 (20)
I0501 16:15:17.184949 13494 net.cpp:159] Memory required for data: 2982880
I0501 16:15:17.184954 13494 layer_factory.hpp:77] Creating layer loss
I0501 16:15:17.184965 13494 net.cpp:94] Creating Layer loss
I0501 16:15:17.184969 13494 net.cpp:435] loss <- ip3
I0501 16:15:17.184973 13494 net.cpp:435] loss <- label
I0501 16:15:17.184978 13494 net.cpp:409] loss -> loss
I0501 16:15:17.185025 13494 net.cpp:144] Setting up loss
…
I0501 16:15:17.222678 13494 net.cpp:323] The NetState phase (0) differed from the phase (1) specified by a rule in layer intercept
I0501 16:15:17.222693 13494 net.cpp:323] The NetState phase (0) differed from the phase (1) specified by a rule in layer accuracy
I0501 16:15:17.222784 13494 net.cpp:52] Initializing net from parameters: 
state {
  phase: TRAIN
}
layer {
  name: "parameters"
  type: "HDF5Data"
  top: "data"
  top: "label"
  include {
    phase: TRAIN
  }
  hdf5_data_param {
    source: "/home/purduethu/scratch/radon/d/deng106/CNNStatisticalModel/distributions/input/20_distributions_100_sample_size_train-distributions-path.txt"
    batch_size: 20
  }
}
layer {
  name: "conv1"
  type: "Convolution"
  bottom: "data"
  top: "conv1"
  param {
    lr_mult: 1
  }
  param {
    lr_mult: 2
  }
  convolution_param {
    num_output: 64
    pad: 2
    kernel_size: 5
    stride: 1
    weight_filler {
      type: "gaussian"
      std: 0.0001
    }
    bias_filler {
      type: "constant"
    }
  }
}
layer {
  name: "relu1"
  type: "ReLU"
  bottom: "conv1"
  top: "conv1"
}
layer {
  name: "conv2"
  type: "Convolution"
  bottom: "conv1"
  top: "conv2"
  param {
    lr_mult: 1
  }
  param {
    lr_mult: 2
  }
  convolution_param {
    num_output: 64
    pad: 2
    kernel_size: 5
    stride: 1
    weight_filler {
      type: "gaussian"
      std: 0.01
    }
    bias_filler {
      type: "constant"
    }
  }
}
layer {
  name: "relu2"
  type: "ReLU"
  bottom: "conv2"
  top: "conv2"
}
layer {
  name: "pool2"
  type: "Pooling"
  bottom: "conv2"
  top: "pool2"
  pooling_param {
    pool: MAX
    kernel_size: 3
    stride: 2
  }
}
layer {
  name: "conv3"
  type: "Convolution"
  bottom: "pool2"
  top: "conv3"
  param {
    lr_mult: 1
  }
  param {
    lr_mult: 2
  }
  convolution_param {
    num_output: 64
    pad: 2
    kernel_size: 5
    stride: 1
    weight_filler {
      type: "gaussian"
      std: 0.01
    }
    bias_filler {
      type: "constant"
    }
  }
}
layer {
  name: "relu3"
  type: "ReLU"
  bottom: "conv3"
  top: "conv3"
}
layer {
  name: "conv4"
  type: "Convolution"
  bottom: "conv3"
  top: "conv4"
  param {
    lr_mult: 1
  }
  param {
    lr_mult: 2
  }
  convolution_param {
    num_output: 64
    pad: 2
    kernel_size: 5
    stride: 1
    weight_filler {
      type: "gaussian"
      std: 0.01
    }
    bias_filler {
      type: "constant"
    }
  }
}
layer {
  name: "relu4"
  type: "ReLU"
  bottom: "conv4"
  top: "conv4"
}
layer {
  name: "conv5"
  type: "Convolution"
  bottom: "conv4"
  top: "conv5"
  param {
    lr_mult: 1
  }
  param {
    lr_mult: 2
  }
  convolution_param {
    num_output: 64
    pad: 2
    kernel_size: 5
    stride: 1
    weight_filler {
      type: "gaussian"
      std: 0.01
    }
    bias_filler {
      type: "constant"
    }
  }
}
layer {
  name: "relu5"
  type: "ReLU"
  bottom: "conv5"
  top: "conv5"
}
layer {
  name: "pool5"
  type: "Pooling"
  bottom: "conv5"
  top: "pool5"
  pooling_param {
    pool: AVE
    kernel_size: 3
    stride: 2
  }
}
layer {
  name: "ip1"
  type: "InnerProduct"
  bottom: "pool5"
  top: "ip1"
  param {
    lr_mult: 1
  }
  param {
    lr_mult: 2
  }
  inner_product_param {
    num_output: 64
    weight_filler {
      type: "gaussian"
      std: 0.1
    }
    bias_filler {
      type: "constant"
    }
  }
}
layer {
  name: "ip2"
  type: "InnerProduct"
  bottom: "ip1"
  top: "ip2"
  param {
    lr_mult: 1
  }
  param {
    lr_mult: 2
  }
  inner_product_param {
    num_output: 64
    weight_filler {
      type: "gaussian"
      std: 0.1
    }
    bias_filler {
      type: "constant"
    }
  }
}
layer {
  name: "ip3"
  type: "InnerProduct"
  bottom: "ip2"
  top: "ip3"
  param {
    lr_mult: 1
  }
  param {
    lr_mult: 2
  }
  inner_product_param {
    num_output: 50
    weight_filler {
      type: "gaussian"
      std: 0.1
    }
    bias_filler {
      type: "constant"
    }
  }
}
layer {
  name: "loss"
  type: "SoftmaxWithLoss"
  bottom: "ip3"
  bottom: "label"
  top: "loss"
}
I0501 16:15:17.222836 13494 layer_factory.hpp:77] Creating layer parameters
I0501 16:15:17.222844 13494 net.cpp:94] Creating Layer parameters
I0501 16:15:17.222848 13494 net.cpp:409] parameters -> data
I0501 16:15:17.222856 13494 net.cpp:409] parameters -> label
I0501 16:15:17.222862 13494 hdf5_data_layer.cpp:79] Loading list of HDF5 filenames from: /home/purduethu/scratch/radon/d/deng106/CNNStatisticalModel/distributions/input/20_distributions_100_sample_size_train-distributions-path.txt
I0501 16:15:17.222877 13494 hdf5_data_layer.cpp:93] Number of HDF5 files: 1
I0501 16:15:17.289413 13494 hdf5.cpp:35] Datatype class: H5T_INTEGER
I0501 16:15:17.291460 13494 net.cpp:144] Setting up parameters
I0501 16:15:17.291483 13494 net.cpp:151] Top shape: 20 1 10 10 (2000)
I0501 16:15:17.291488 13494 net.cpp:151] Top shape: 20 (20)
I0501 16:15:17.291491 13494 net.cpp:159] Memory required for data: 8080
I0501 16:15:17.291497 13494 layer_factory.hpp:77] Creating layer conv1
I0501 16:15:17.291513 13494 net.cpp:94] Creating Layer conv1
I0501 16:15:17.291517 13494 net.cpp:435] conv1 <- data
I0501 16:15:17.291524 13494 net.cpp:409] conv1 -> conv1
I0501 16:15:17.293268 13494 net.cpp:144] Setting up conv1
I0501 16:15:17.293282 13494 net.cpp:151] Top shape: 20 64 10 10 (128000)
I0501 16:15:17.293287 13494 net.cpp:159] Memory required for data: 520080
I0501 16:15:17.293296 13494 layer_factory.hpp:77] Creating layer relu1
I0501 16:15:17.293303 13494 net.cpp:94] Creating Layer relu1
I0501 16:15:17.293308 13494 net.cpp:435] relu1 <- conv1
I0501 16:15:17.293311 13494 net.cpp:396] relu1 -> conv1 (in-place)
I0501 16:15:17.293318 13494 net.cpp:144] Setting up relu1
I0501 16:15:17.293323 13494 net.cpp:151] Top shape: 20 64 10 10 (128000)
I0501 16:15:17.293325 13494 net.cpp:159] Memory required for data: 1032080
I0501 16:15:17.293329 13494 layer_factory.hpp:77] Creating layer conv2
I0501 16:15:17.293336 13494 net.cpp:94] Creating Layer conv2
I0501 16:15:17.293339 13494 net.cpp:435] conv2 <- conv1
I0501 16:15:17.293344 13494 net.cpp:409] conv2 -> conv2
I0501 16:15:17.298688 13494 net.cpp:144] Setting up conv2
I0501 16:15:17.298702 13494 net.cpp:151] Top shape: 20 64 10 10 (128000)
I0501 16:15:17.298707 13494 net.cpp:159] Memory required for data: 1544080
I0501 16:15:17.298713 13494 layer_factory.hpp:77] Creating layer relu2
I0501 16:15:17.298720 13494 net.cpp:94] Creating Layer relu2
I0501 16:15:17.298723 13494 net.cpp:435] relu2 <- conv2
I0501 16:15:17.298728 13494 net.cpp:396] relu2 -> conv2 (in-place)
I0501 16:15:17.298735 13494 net.cpp:144] Setting up relu2
I0501 16:15:17.298739 13494 net.cpp:151] Top shape: 20 64 10 10 (128000)
I0501 16:15:17.298743 13494 net.cpp:159] Memory required for data: 2056080
I0501 16:15:17.298745 13494 layer_factory.hpp:77] Creating layer pool2
I0501 16:15:17.298751 13494 net.cpp:94] Creating Layer pool2
I0501 16:15:17.298754 13494 net.cpp:435] pool2 <- conv2
I0501 16:15:17.298758 13494 net.cpp:409] pool2 -> pool2
I0501 16:15:17.298807 13494 net.cpp:144] Setting up pool2
I0501 16:15:17.298815 13494 net.cpp:151] Top shape: 20 64 5 5 (32000)
I0501 16:15:17.298817 13494 net.cpp:159] Memory required for data: 2184080
I0501 16:15:17.298821 13494 layer_factory.hpp:77] Creating layer conv3
I0501 16:15:17.298828 13494 net.cpp:94] Creating Layer conv3
I0501 16:15:17.298831 13494 net.cpp:435] conv3 <- pool2
I0501 16:15:17.298836 13494 net.cpp:409] conv3 -> conv3
I0501 16:15:17.303783 13494 net.cpp:144] Setting up conv3
I0501 16:15:17.303797 13494 net.cpp:151] Top shape: 20 64 5 5 (32000)
I0501 16:15:17.303800 13494 net.cpp:159] Memory required for data: 2312080
I0501 16:15:17.303808 13494 layer_factory.hpp:77] Creating layer relu3
I0501 16:15:17.303814 13494 net.cpp:94] Creating Layer relu3
I0501 16:15:17.303818 13494 net.cpp:435] relu3 <- conv3
I0501 16:15:17.303822 13494 net.cpp:396] relu3 -> conv3 (in-place)
I0501 16:15:17.303829 13494 net.cpp:144] Setting up relu3
I0501 16:15:17.303833 13494 net.cpp:151] Top shape: 20 64 5 5 (32000)
I0501 16:15:17.303836 13494 net.cpp:159] Memory required for data: 2440080
I0501 16:15:17.303839 13494 layer_factory.hpp:77] Creating layer conv4
I0501 16:15:17.303848 13494 net.cpp:94] Creating Layer conv4
I0501 16:15:17.303851 13494 net.cpp:435] conv4 <- conv3
I0501 16:15:17.303855 13494 net.cpp:409] conv4 -> conv4
I0501 16:15:17.308780 13494 net.cpp:144] Setting up conv4
I0501 16:15:17.308794 13494 net.cpp:151] Top shape: 20 64 5 5 (32000)
I0501 16:15:17.308799 13494 net.cpp:159] Memory required for data: 2568080
I0501 16:15:17.308804 13494 layer_factory.hpp:77] Creating layer relu4
I0501 16:15:17.308810 13494 net.cpp:94] Creating Layer relu4
I0501 16:15:17.308815 13494 net.cpp:435] relu4 <- conv4
I0501 16:15:17.308818 13494 net.cpp:396] relu4 -> conv4 (in-place)
I0501 16:15:17.308825 13494 net.cpp:144] Setting up relu4
I0501 16:15:17.308830 13494 net.cpp:151] Top shape: 20 64 5 5 (32000)
I0501 16:15:17.308833 13494 net.cpp:159] Memory required for data: 2696080
I0501 16:15:17.308836 13494 layer_factory.hpp:77] Creating layer conv5
I0501 16:15:17.308845 13494 net.cpp:94] Creating Layer conv5
I0501 16:15:17.308847 13494 net.cpp:435] conv5 <- conv4
I0501 16:15:17.308852 13494 net.cpp:409] conv5 -> conv5
I0501 16:15:17.314158 13494 net.cpp:144] Setting up conv5
I0501 16:15:17.314172 13494 net.cpp:151] Top shape: 20 64 5 5 (32000)
I0501 16:15:17.314177 13494 net.cpp:159] Memory required for data: 2824080
I0501 16:15:17.314185 13494 layer_factory.hpp:77] Creating layer relu5
I0501 16:15:17.314190 13494 net.cpp:94] Creating Layer relu5
I0501 16:15:17.314194 13494 net.cpp:435] relu5 <- conv5
I0501 16:15:17.314198 13494 net.cpp:396] relu5 -> conv5 (in-place)
I0501 16:15:17.314205 13494 net.cpp:144] Setting up relu5
I0501 16:15:17.314210 13494 net.cpp:151] Top shape: 20 64 5 5 (32000)
I0501 16:15:17.314213 13494 net.cpp:159] Memory required for data: 2952080
I0501 16:15:17.314216 13494 layer_factory.hpp:77] Creating layer pool5
I0501 16:15:17.314220 13494 net.cpp:94] Creating Layer pool5
I0501 16:15:17.314224 13494 net.cpp:435] pool5 <- conv5
I0501 16:15:17.314229 13494 net.cpp:409] pool5 -> pool5
I0501 16:15:17.314262 13494 net.cpp:144] Setting up pool5
I0501 16:15:17.314270 13494 net.cpp:151] Top shape: 20 64 2 2 (5120)
I0501 16:15:17.314272 13494 net.cpp:159] Memory required for data: 2972560
I0501 16:15:17.314275 13494 layer_factory.hpp:77] Creating layer ip1
I0501 16:15:17.314282 13494 net.cpp:94] Creating Layer ip1
I0501 16:15:17.314285 13494 net.cpp:435] ip1 <- pool5
I0501 16:15:17.314291 13494 net.cpp:409] ip1 -> ip1
I0501 16:15:17.314812 13494 net.cpp:144] Setting up ip1
I0501 16:15:17.314821 13494 net.cpp:151] Top shape: 20 64 (1280)
I0501 16:15:17.314823 13494 net.cpp:159] Memory required for data: 2977680
I0501 16:15:17.314828 13494 layer_factory.hpp:77] Creating layer ip2
I0501 16:15:17.314834 13494 net.cpp:94] Creating Layer ip2
I0501 16:15:17.314837 13494 net.cpp:435] ip2 <- ip1
I0501 16:15:17.314842 13494 net.cpp:409] ip2 -> ip2
I0501 16:15:17.315060 13494 net.cpp:144] Setting up ip2
I0501 16:15:17.315068 13494 net.cpp:151] Top shape: 20 64 (1280)
I0501 16:15:17.315070 13494 net.cpp:159] Memory required for data: 2982800
I0501 16:15:17.315075 13494 layer_factory.hpp:77] Creating layer ip3
I0501 16:15:17.315081 13494 net.cpp:94] Creating Layer ip3
I0501 16:15:17.315085 13494 net.cpp:435] ip3 <- ip2
I0501 16:15:17.315089 13494 net.cpp:409] ip3 -> ip3
I0501 16:15:17.315279 13494 net.cpp:144] Setting up ip3
I0501 16:15:17.315284 13494 net.cpp:151] Top shape: 20 50 (1000)
I0501 16:15:17.315292 13494 net.cpp:159] Memory required for data: 2986800
I0501 16:15:17.315297 13494 layer_factory.hpp:77] Creating layer loss
I0501 16:15:17.315304 13494 net.cpp:94] Creating Layer loss
I0501 16:15:17.315307 13494 net.cpp:435] loss <- ip3
I0501 16:15:17.315311 13494 net.cpp:435] loss <- label
I0501 16:15:17.315315 13494 net.cpp:409] loss -> loss
I0501 16:15:17.315322 13494 layer_factory.hpp:77] Creating layer loss
…
I0501 16:15:17.316697 13494 solver.cpp:181] Creating test net (#0) specified by net file: ./protocol/dis_20_100_dimension.protocol_distribution
I0501 16:15:17.316725 13494 net.cpp:323] The NetState phase (1) differed from the phase (0) specified by a rule in layer parameters
I0501 16:15:17.316825 13494 net.cpp:52] Initializing net from parameters: 
state {
  phase: TEST
}
layer {
  name: "intercept"
  type: "HDF5Data"
  top: "data"
  top: "label"
  include {
    phase: TEST
  }
  hdf5_data_param {
    source: "/home/purduethu/scratch/radon/d/deng106/CNNStatisticalModel/distributions/input/20_distributions_100_sample_size_test-distributions-path.txt"
    batch_size: 20
  }
}
layer {
  name: "conv1"
  type: "Convolution"
  bottom: "data"
  top: "conv1"
  param {
    lr_mult: 1
  }
  param {
    lr_mult: 2
  }
  convolution_param {
    num_output: 64
    pad: 2
    kernel_size: 5
    stride: 1
    weight_filler {
      type: "gaussian"
      std: 0.0001
    }
    bias_filler {
      type: "constant"
    }
  }
}
layer {
  name: "relu1"
  type: "ReLU"
  bottom: "conv1"
  top: "conv1"
}
layer {
  name: "conv2"
  type: "Convolution"
  bottom: "conv1"
  top: "conv2"
  param {
    lr_mult: 1
  }
  param {
    lr_mult: 2
  }
  convolution_param {
    num_output: 64
    pad: 2
    kernel_size: 5
    stride: 1
    weight_filler {
      type: "gaussian"
      std: 0.01
    }
    bias_filler {
      type: "constant"
    }
  }
}
layer {
  name: "relu2"
  type: "ReLU"
  bottom: "conv2"
  top: "conv2"
}
layer {
  name: "pool2"
  type: "Pooling"
  bottom: "conv2"
  top: "pool2"
  pooling_param {
    pool: MAX
    kernel_size: 3
    stride: 2
  }
}
layer {
  name: "conv3"
  type: "Convolution"
  bottom: "pool2"
  top: "conv3"
  param {
    lr_mult: 1
  }
  param {
    lr_mult: 2
  }
  convolution_param {
    num_output: 64
    pad: 2
    kernel_size: 5
    stride: 1
    weight_filler {
      type: "gaussian"
      std: 0.01
    }
    bias_filler {
      type: "constant"
    }
  }
}
layer {
  name: "relu3"
  type: "ReLU"
  bottom: "conv3"
  top: "conv3"
}
layer {
  name: "conv4"
  type: "Convolution"
  bottom: "conv3"
  top: "conv4"
  param {
    lr_mult: 1
  }
  param {
    lr_mult: 2
  }
  convolution_param {
    num_output: 64
    pad: 2
    kernel_size: 5
    stride: 1
    weight_filler {
      type: "gaussian"
      std: 0.01
    }
    bias_filler {
      type: "constant"
    }
  }
}
layer {
  name: "relu4"
  type: "ReLU"
  bottom: "conv4"
  top: "conv4"
}
layer {
  name: "conv5"
  type: "Convolution"
  bottom: "conv4"
  top: "conv5"
  param {
    lr_mult: 1
  }
  param {
    lr_mult: 2
  }
  convolution_param {
    num_output: 64
    pad: 2
    kernel_size: 5
    stride: 1
    weight_filler {
      type: "gaussian"
      std: 0.01
    }
    bias_filler {
      type: "constant"
    }
  }
}
layer {
  name: "relu5"
  type: "ReLU"
  bottom: "conv5"
  top: "conv5"
}
layer {
  name: "pool5"
  type: "Pooling"
  bottom: "conv5"
  top: "pool5"
  pooling_param {
    pool: AVE
    kernel_size: 3
    stride: 2
  }
}
layer {
  name: "ip1"
  type: "InnerProduct"
  bottom: "pool5"
  top: "ip1"
  param {
    lr_mult: 1
  }
  param {
    lr_mult: 2
  }
  inner_product_param {
    num_output: 64
    weight_filler {
      type: "gaussian"
      std: 0.1
    }
    bias_filler {
      type: "constant"
    }
  }
}
layer {
  name: "ip2"
  type: "InnerProduct"
  bottom: "ip1"
  top: "ip2"
  param {
    lr_mult: 1
  }
  param {
    lr_mult: 2
  }
  inner_product_param {
    num_output: 64
    weight_filler {
      type: "gaussian"
      std: 0.1
    }
    bias_filler {
      type: "constant"
    }
  }
}
layer {
  name: "ip3"
  type: "InnerProduct"
  bottom: "ip2"
  top: "ip3"
  param {
    lr_mult: 1
  }
  param {
    lr_mult: 2
  }
  inner_product_param {
    num_output: 50
    weight_filler {
      type: "gaussian"
      std: 0.1
    }
    bias_filler {
      type: "constant"
    }
  }
}
layer {
  name: "accuracy"
  type: "Accuracy"
  bottom: "ip3"
  bottom: "label"
  top: "accuracy"
  include {
    phase: TEST
  }
}
layer {
  name: "loss"
  type: "SoftmaxWithLoss"
  bottom: "ip3"
  bottom: "label"
  top: "loss"
}
I0501 16:15:17.316891 13494 layer_factory.hpp:77] Creating layer intercept
I0501 16:15:17.316900 13494 net.cpp:94] Creating Layer intercept
I0501 16:15:17.316903 13494 net.cpp:409] intercept -> data
I0501 16:15:17.316910 13494 net.cpp:409] intercept -> label
I0501 16:15:17.316915 13494 hdf5_data_layer.cpp:79] Loading list of HDF5 filenames from: /home/purduethu/scratch/radon/d/deng106/CNNStatisticalModel/distributions/input/20_distributions_100_sample_size_test-distributions-path.txt
I0501 16:15:17.316936 13494 hdf5_data_layer.cpp:93] Number of HDF5 files: 1
I0501 16:15:17.334692 13494 net.cpp:144] Setting up intercept
I0501 16:15:17.334728 13494 net.cpp:151] Top shape: 20 1 10 10 (2000)
I0501 16:15:17.334733 13494 net.cpp:151] Top shape: 20 (20)
I0501 16:15:17.334735 13494 net.cpp:159] Memory required for data: 8080
I0501 16:15:17.334741 13494 layer_factory.hpp:77] Creating layer label_intercept_1_split
I0501 16:15:17.334760 13494 net.cpp:94] Creating Layer label_intercept_1_split
I0501 16:15:17.334764 13494 net.cpp:435] label_intercept_1_split <- label
I0501 16:15:17.334770 13494 net.cpp:409] label_intercept_1_split -> label_intercept_1_split_0
I0501 16:15:17.334779 13494 net.cpp:409] label_intercept_1_split -> label_intercept_1_split_1
I0501 16:15:17.334817 13494 net.cpp:144] Setting up label_intercept_1_split
I0501 16:15:17.334823 13494 net.cpp:151] Top shape: 20 (20)
I0501 16:15:17.334827 13494 net.cpp:151] Top shape: 20 (20)
I0501 16:15:17.334830 13494 net.cpp:159] Memory required for data: 8240
I0501 16:15:17.334833 13494 layer_factory.hpp:77] Creating layer conv1
I0501 16:15:17.334843 13494 net.cpp:94] Creating Layer conv1
I0501 16:15:17.334847 13494 net.cpp:435] conv1 <- data
I0501 16:15:17.334851 13494 net.cpp:409] conv1 -> conv1
I0501 16:15:17.335649 13494 net.cpp:144] Setting up conv1
I0501 16:15:17.335662 13494 net.cpp:151] Top shape: 20 64 10 10 (128000)
I0501 16:15:17.335674 13494 net.cpp:159] Memory required for data: 520240
I0501 16:15:17.335683 13494 layer_factory.hpp:77] Creating layer relu1
I0501 16:15:17.335690 13494 net.cpp:94] Creating Layer relu1
I0501 16:15:17.335693 13494 net.cpp:435] relu1 <- conv1
I0501 16:15:17.335698 13494 net.cpp:396] relu1 -> conv1 (in-place)
I0501 16:15:17.335705 13494 net.cpp:144] Setting up relu1
I0501 16:15:17.335710 13494 net.cpp:151] Top shape: 20 64 10 10 (128000)
I0501 16:15:17.335712 13494 net.cpp:159] Memory required for data: 1032240
I0501 16:15:17.335716 13494 layer_factory.hpp:77] Creating layer conv2
I0501 16:15:17.335723 13494 net.cpp:94] Creating Layer conv2
I0501 16:15:17.335726 13494 net.cpp:435] conv2 <- conv1
I0501 16:15:17.335731 13494 net.cpp:409] conv2 -> conv2
I0501 16:15:17.339869 13494 net.cpp:144] Setting up conv2
I0501 16:15:17.339882 13494 net.cpp:151] Top shape: 20 64 10 10 (128000)
I0501 16:15:17.339886 13494 net.cpp:159] Memory required for data: 1544240
I0501 16:15:17.339895 13494 layer_factory.hpp:77] Creating layer relu2
I0501 16:15:17.339900 13494 net.cpp:94] Creating Layer relu2
I0501 16:15:17.339903 13494 net.cpp:435] relu2 <- conv2
I0501 16:15:17.339908 13494 net.cpp:396] relu2 -> conv2 (in-place)
I0501 16:15:17.339915 13494 net.cpp:144] Setting up relu2
I0501 16:15:17.339918 13494 net.cpp:151] Top shape: 20 64 10 10 (128000)
I0501 16:15:17.339921 13494 net.cpp:159] Memory required for data: 2056240
I0501 16:15:17.339925 13494 layer_factory.hpp:77] Creating layer pool2
I0501 16:15:17.339931 13494 net.cpp:94] Creating Layer pool2
I0501 16:15:17.339933 13494 net.cpp:435] pool2 <- conv2
I0501 16:15:17.339937 13494 net.cpp:409] pool2 -> pool2
I0501 16:15:17.339987 13494 net.cpp:144] Setting up pool2
I0501 16:15:17.339993 13494 net.cpp:151] Top shape: 20 64 5 5 (32000)
I0501 16:15:17.339996 13494 net.cpp:159] Memory required for data: 2184240
I0501 16:15:17.339999 13494 layer_factory.hpp:77] Creating layer conv3
I0501 16:15:17.340008 13494 net.cpp:94] Creating Layer conv3
I0501 16:15:17.340010 13494 net.cpp:435] conv3 <- pool2
I0501 16:15:17.340015 13494 net.cpp:409] conv3 -> conv3
I0501 16:15:17.343631 13494 net.cpp:144] Setting up conv3
I0501 16:15:17.343643 13494 net.cpp:151] Top shape: 20 64 5 5 (32000)
I0501 16:15:17.343647 13494 net.cpp:159] Memory required for data: 2312240
I0501 16:15:17.343654 13494 layer_factory.hpp:77] Creating layer relu3
I0501 16:15:17.343662 13494 net.cpp:94] Creating Layer relu3
I0501 16:15:17.343664 13494 net.cpp:435] relu3 <- conv3
I0501 16:15:17.343668 13494 net.cpp:396] relu3 -> conv3 (in-place)
I0501 16:15:17.343675 13494 net.cpp:144] Setting up relu3
I0501 16:15:17.343679 13494 net.cpp:151] Top shape: 20 64 5 5 (32000)
I0501 16:15:17.343683 13494 net.cpp:159] Memory required for data: 2440240
I0501 16:15:17.343685 13494 layer_factory.hpp:77] Creating layer conv4
I0501 16:15:17.343693 13494 net.cpp:94] Creating Layer conv4
I0501 16:15:17.343695 13494 net.cpp:435] conv4 <- conv3
I0501 16:15:17.343700 13494 net.cpp:409] conv4 -> conv4
I0501 16:15:17.347316 13494 net.cpp:144] Setting up conv4
I0501 16:15:17.347328 13494 net.cpp:151] Top shape: 20 64 5 5 (32000)
I0501 16:15:17.347332 13494 net.cpp:159] Memory required for data: 2568240
I0501 16:15:17.347338 13494 layer_factory.hpp:77] Creating layer relu4
I0501 16:15:17.347343 13494 net.cpp:94] Creating Layer relu4
I0501 16:15:17.347347 13494 net.cpp:435] relu4 <- conv4
I0501 16:15:17.347350 13494 net.cpp:396] relu4 -> conv4 (in-place)
I0501 16:15:17.347357 13494 net.cpp:144] Setting up relu4
I0501 16:15:17.347362 13494 net.cpp:151] Top shape: 20 64 5 5 (32000)
I0501 16:15:17.347363 13494 net.cpp:159] Memory required for data: 2696240
I0501 16:15:17.347367 13494 layer_factory.hpp:77] Creating layer conv5
I0501 16:15:17.347373 13494 net.cpp:94] Creating Layer conv5
I0501 16:15:17.347376 13494 net.cpp:435] conv5 <- conv4
I0501 16:15:17.347381 13494 net.cpp:409] conv5 -> conv5
I0501 16:15:17.351461 13494 net.cpp:144] Setting up conv5
I0501 16:15:17.351475 13494 net.cpp:151] Top shape: 20 64 5 5 (32000)
I0501 16:15:17.351478 13494 net.cpp:159] Memory required for data: 2824240
I0501 16:15:17.351491 13494 layer_factory.hpp:77] Creating layer relu5
I0501 16:15:17.351497 13494 net.cpp:94] Creating Layer relu5
I0501 16:15:17.351500 13494 net.cpp:435] relu5 <- conv5
I0501 16:15:17.351505 13494 net.cpp:396] relu5 -> conv5 (in-place)
I0501 16:15:17.351511 13494 net.cpp:144] Setting up relu5
I0501 16:15:17.351516 13494 net.cpp:151] Top shape: 20 64 5 5 (32000)
I0501 16:15:17.351518 13494 net.cpp:159] Memory required for data: 2952240
I0501 16:15:17.351521 13494 layer_factory.hpp:77] Creating layer pool5
I0501 16:15:17.351526 13494 net.cpp:94] Creating Layer pool5
I0501 16:15:17.351529 13494 net.cpp:435] pool5 <- conv5
I0501 16:15:17.351534 13494 net.cpp:409] pool5 -> pool5
I0501 16:15:17.351569 13494 net.cpp:144] Setting up pool5
I0501 16:15:17.351575 13494 net.cpp:151] Top shape: 20 64 2 2 (5120)
I0501 16:15:17.351578 13494 net.cpp:159] Memory required for data: 2972720
I0501 16:15:17.351582 13494 layer_factory.hpp:77] Creating layer ip1
I0501 16:15:17.351589 13494 net.cpp:94] Creating Layer ip1
I0501 16:15:17.351593 13494 net.cpp:435] ip1 <- pool5
I0501 16:15:17.351598 13494 net.cpp:409] ip1 -> ip1
I0501 16:15:17.352123 13494 net.cpp:144] Setting up ip1
I0501 16:15:17.352131 13494 net.cpp:151] Top shape: 20 64 (1280)
I0501 16:15:17.352134 13494 net.cpp:159] Memory required for data: 2977840
I0501 16:15:17.352139 13494 layer_factory.hpp:77] Creating layer ip2
I0501 16:15:17.352145 13494 net.cpp:94] Creating Layer ip2
I0501 16:15:17.352149 13494 net.cpp:435] ip2 <- ip1
I0501 16:15:17.352154 13494 net.cpp:409] ip2 -> ip2
I0501 16:15:17.352381 13494 net.cpp:144] Setting up ip2
I0501 16:15:17.352388 13494 net.cpp:151] Top shape: 20 64 (1280)
I0501 16:15:17.352391 13494 net.cpp:159] Memory required for data: 2982960
I0501 16:15:17.352396 13494 layer_factory.hpp:77] Creating layer ip3
I0501 16:15:17.352404 13494 net.cpp:94] Creating Layer ip3
I0501 16:15:17.352407 13494 net.cpp:435] ip3 <- ip2
I0501 16:15:17.352412 13494 net.cpp:409] ip3 -> ip3
I0501 16:15:17.352628 13494 net.cpp:144] Setting up ip3
I0501 16:15:17.352638 13494 net.cpp:151] Top shape: 20 50 (1000)
I0501 16:15:17.352640 13494 net.cpp:159] Memory required for data: 2986960
I0501 16:15:17.352645 13494 layer_factory.hpp:77] Creating layer ip3_ip3_0_split
I0501 16:15:17.352650 13494 net.cpp:94] Creating Layer ip3_ip3_0_split
I0501 16:15:17.352653 13494 net.cpp:435] ip3_ip3_0_split <- ip3
I0501 16:15:17.352659 13494 net.cpp:409] ip3_ip3_0_split -> ip3_ip3_0_split_0
I0501 16:15:17.352664 13494 net.cpp:409] ip3_ip3_0_split -> ip3_ip3_0_split_1
I0501 16:15:17.352705 13494 net.cpp:144] Setting up ip3_ip3_0_split
I0501 16:15:17.352710 13494 net.cpp:151] Top shape: 20 50 (1000)
I0501 16:15:17.352715 13494 net.cpp:151] Top shape: 20 50 (1000)
I0501 16:15:17.352717 13494 net.cpp:159] Memory required for data: 2994960
I0501 16:15:17.352720 13494 layer_factory.hpp:77] Creating layer accuracy
I0501 16:15:17.352725 13494 net.cpp:94] Creating Layer accuracy
I0501 16:15:17.352728 13494 net.cpp:435] accuracy <- ip3_ip3_0_split_0
I0501 16:15:17.352732 13494 net.cpp:435] accuracy <- label_intercept_1_split_0
I0501 16:15:17.352737 13494 net.cpp:409] accuracy -> accuracy
…
