…
I0504 04:53:18.459921 24076 net.cpp:323] The NetState phase (0) differed from the phase (1) specified by a rule in layer intercept
I0504 04:53:18.459938 24076 net.cpp:323] The NetState phase (0) differed from the phase (1) specified by a rule in layer loss
I0504 04:53:18.460027 24076 net.cpp:52] Initializing net from parameters: 
state {
  phase: TRAIN
}
layer {
  name: "parameters"
  type: "HDF5Data"
  top: "data"
  top: "label"
  include {
    phase: TRAIN
  }
  hdf5_data_param {
    source: "/home/purduethu/scratch/radon/d/deng106/CNNStatisticalModel/distributions/input/5_distributions_900_sample_size_train-parameters-path.txt"
    batch_size: 20
  }
}
layer {
  name: "conv1"
  type: "Convolution"
  bottom: "data"
  top: "conv1"
  param {
    lr_mult: 1
  }
  param {
    lr_mult: 2
  }
  convolution_param {
    num_output: 64
    pad: 2
    kernel_size: 5
    stride: 1
    weight_filler {
      type: "gaussian"
      std: 0.0001
    }
    bias_filler {
      type: "constant"
    }
  }
}
layer {
  name: "relu1"
  type: "ReLU"
  bottom: "conv1"
  top: "conv1"
}
layer {
  name: "conv2"
  type: "Convolution"
  bottom: "conv1"
  top: "conv2"
  param {
    lr_mult: 1
  }
  param {
    lr_mult: 2
  }
  convolution_param {
    num_output: 64
    pad: 2
    kernel_size: 5
    stride: 1
    weight_filler {
      type: "gaussian"
      std: 0.01
    }
    bias_filler {
      type: "constant"
    }
  }
}
layer {
  name: "relu2"
  type: "ReLU"
  bottom: "conv2"
  top: "conv2"
}
layer {
  name: "pool2"
  type: "Pooling"
  bottom: "conv2"
  top: "pool2"
  pooling_param {
    pool: MAX
    kernel_size: 3
    stride: 2
  }
}
layer {
  name: "conv3"
  type: "Convolution"
  bottom: "pool2"
  top: "conv3"
  param {
    lr_mult: 1
  }
  param {
    lr_mult: 2
  }
  convolution_param {
    num_output: 128
    pad: 2
    kernel_size: 5
    stride: 1
    weight_filler {
      type: "gaussian"
      std: 0.01
    }
    bias_filler {
      type: "constant"
    }
  }
}
layer {
  name: "relu3"
  type: "ReLU"
  bottom: "conv3"
  top: "conv3"
}
layer {
  name: "conv4"
  type: "Convolution"
  bottom: "conv3"
  top: "conv4"
  param {
    lr_mult: 1
  }
  param {
    lr_mult: 2
  }
  convolution_param {
    num_output: 128
    pad: 2
    kernel_size: 5
    stride: 1
    weight_filler {
      type: "gaussian"
      std: 0.01
    }
    bias_filler {
      type: "constant"
    }
  }
}
layer {
  name: "relu4"
  type: "ReLU"
  bottom: "conv4"
  top: "conv4"
}
layer {
  name: "conv5"
  type: "Convolution"
  bottom: "conv4"
  top: "conv5"
  param {
    lr_mult: 1
  }
  param {
    lr_mult: 2
  }
  convolution_param {
    num_output: 128
    pad: 2
    kernel_size: 5
    stride: 1
    weight_filler {
      type: "gaussian"
      std: 0.01
    }
    bias_filler {
      type: "constant"
    }
  }
}
layer {
  name: "relu5"
  type: "ReLU"
  bottom: "conv5"
  top: "conv5"
}
layer {
  name: "pool5"
  type: "Pooling"
  bottom: "conv5"
  top: "pool5"
  pooling_param {
    pool: AVE
    kernel_size: 3
    stride: 2
  }
}
layer {
  name: "ip1"
  type: "InnerProduct"
  bottom: "pool5"
  top: "ip1"
  param {
    lr_mult: 1
  }
  param {
    lr_mult: 2
  }
  inner_product_param {
    num_output: 1024
    weight_filler {
      type: "gaussian"
      std: 0.1
    }
    bias_filler {
      type: "constant"
    }
  }
}
layer {
  name: "ip2"
  type: "InnerProduct"
  bottom: "ip1"
  top: "ip2"
  param {
    lr_mult: 1
  }
  param {
    lr_mult: 2
  }
  inner_product_param {
    num_output: 512
    weight_filler {
      type: "gaussian"
      std: 0.1
    }
    bias_filler {
      type: "constant"
    }
  }
}
layer {
  name: "ip3"
  type: "InnerProduct"
  bottom: "ip2"
  top: "ip3"
  param {
    lr_mult: 1
  }
  param {
    lr_mult: 2
  }
  inner_product_param {
    num_output: 1
    weight_filler {
      type: "gaussian"
      std: 0.1
    }
    bias_filler {
      type: "constant"
    }
  }
}
layer {
  name: "loss"
  type: "HuberLoss"
  bottom: "ip3"
  bottom: "label"
  top: "loss"
  include {
    phase: TRAIN
  }
}
I0504 04:53:18.460100 24076 layer_factory.hpp:77] Creating layer parameters
I0504 04:53:18.460115 24076 net.cpp:94] Creating Layer parameters
I0504 04:53:18.460121 24076 net.cpp:409] parameters -> data
I0504 04:53:18.460139 24076 net.cpp:409] parameters -> label
I0504 04:53:18.460150 24076 hdf5_data_layer.cpp:79] Loading list of HDF5 filenames from: /home/purduethu/scratch/radon/d/deng106/CNNStatisticalModel/distributions/input/5_distributions_900_sample_size_train-parameters-path.txt
I0504 04:53:18.460175 24076 hdf5_data_layer.cpp:93] Number of HDF5 files: 1
I0504 04:53:18.460647 24076 hdf5.cpp:32] Datatype class: H5T_FLOAT
I0504 04:53:18.595510 24076 net.cpp:144] Setting up parameters
I0504 04:53:18.595543 24076 net.cpp:151] Top shape: 20 1 30 30 (18000)
I0504 04:53:18.595549 24076 net.cpp:151] Top shape: 20 (20)
I0504 04:53:18.595553 24076 net.cpp:159] Memory required for data: 72080
I0504 04:53:18.595561 24076 layer_factory.hpp:77] Creating layer conv1
I0504 04:53:18.595585 24076 net.cpp:94] Creating Layer conv1
I0504 04:53:18.595592 24076 net.cpp:435] conv1 <- data
I0504 04:53:18.595602 24076 net.cpp:409] conv1 -> conv1
I0504 04:53:18.601371 24076 net.cpp:144] Setting up conv1
I0504 04:53:18.601387 24076 net.cpp:151] Top shape: 20 64 30 30 (1152000)
I0504 04:53:18.601392 24076 net.cpp:159] Memory required for data: 4680080
I0504 04:53:18.601403 24076 layer_factory.hpp:77] Creating layer relu1
I0504 04:53:18.601413 24076 net.cpp:94] Creating Layer relu1
I0504 04:53:18.601416 24076 net.cpp:435] relu1 <- conv1
I0504 04:53:18.601421 24076 net.cpp:396] relu1 -> conv1 (in-place)
I0504 04:53:18.601436 24076 net.cpp:144] Setting up relu1
I0504 04:53:18.601442 24076 net.cpp:151] Top shape: 20 64 30 30 (1152000)
I0504 04:53:18.601445 24076 net.cpp:159] Memory required for data: 9288080
I0504 04:53:18.601449 24076 layer_factory.hpp:77] Creating layer conv2
I0504 04:53:18.601457 24076 net.cpp:94] Creating Layer conv2
I0504 04:53:18.601460 24076 net.cpp:435] conv2 <- conv1
I0504 04:53:18.601465 24076 net.cpp:409] conv2 -> conv2
I0504 04:53:18.616663 24076 net.cpp:144] Setting up conv2
I0504 04:53:18.616679 24076 net.cpp:151] Top shape: 20 64 30 30 (1152000)
I0504 04:53:18.616683 24076 net.cpp:159] Memory required for data: 13896080
I0504 04:53:18.616691 24076 layer_factory.hpp:77] Creating layer relu2
I0504 04:53:18.616698 24076 net.cpp:94] Creating Layer relu2
I0504 04:53:18.616703 24076 net.cpp:435] relu2 <- conv2
I0504 04:53:18.616708 24076 net.cpp:396] relu2 -> conv2 (in-place)
I0504 04:53:18.616714 24076 net.cpp:144] Setting up relu2
I0504 04:53:18.616719 24076 net.cpp:151] Top shape: 20 64 30 30 (1152000)
I0504 04:53:18.616722 24076 net.cpp:159] Memory required for data: 18504080
I0504 04:53:18.616725 24076 layer_factory.hpp:77] Creating layer pool2
I0504 04:53:18.616732 24076 net.cpp:94] Creating Layer pool2
I0504 04:53:18.616742 24076 net.cpp:435] pool2 <- conv2
I0504 04:53:18.616747 24076 net.cpp:409] pool2 -> pool2
I0504 04:53:18.616792 24076 net.cpp:144] Setting up pool2
I0504 04:53:18.616801 24076 net.cpp:151] Top shape: 20 64 15 15 (288000)
I0504 04:53:18.616803 24076 net.cpp:159] Memory required for data: 19656080
I0504 04:53:18.616806 24076 layer_factory.hpp:77] Creating layer conv3
I0504 04:53:18.616814 24076 net.cpp:94] Creating Layer conv3
I0504 04:53:18.616818 24076 net.cpp:435] conv3 <- pool2
I0504 04:53:18.616822 24076 net.cpp:409] conv3 -> conv3
I0504 04:53:18.629201 24076 net.cpp:144] Setting up conv3
I0504 04:53:18.629216 24076 net.cpp:151] Top shape: 20 128 15 15 (576000)
I0504 04:53:18.629221 24076 net.cpp:159] Memory required for data: 21960080
I0504 04:53:18.629230 24076 layer_factory.hpp:77] Creating layer relu3
I0504 04:53:18.629235 24076 net.cpp:94] Creating Layer relu3
I0504 04:53:18.629240 24076 net.cpp:435] relu3 <- conv3
I0504 04:53:18.629245 24076 net.cpp:396] relu3 -> conv3 (in-place)
I0504 04:53:18.629251 24076 net.cpp:144] Setting up relu3
I0504 04:53:18.629256 24076 net.cpp:151] Top shape: 20 128 15 15 (576000)
I0504 04:53:18.629258 24076 net.cpp:159] Memory required for data: 24264080
I0504 04:53:18.629262 24076 layer_factory.hpp:77] Creating layer conv4
I0504 04:53:18.629271 24076 net.cpp:94] Creating Layer conv4
I0504 04:53:18.629274 24076 net.cpp:435] conv4 <- conv3
I0504 04:53:18.629279 24076 net.cpp:409] conv4 -> conv4
I0504 04:53:18.650708 24076 net.cpp:144] Setting up conv4
I0504 04:53:18.650723 24076 net.cpp:151] Top shape: 20 128 15 15 (576000)
I0504 04:53:18.650727 24076 net.cpp:159] Memory required for data: 26568080
I0504 04:53:18.650734 24076 layer_factory.hpp:77] Creating layer relu4
I0504 04:53:18.650740 24076 net.cpp:94] Creating Layer relu4
I0504 04:53:18.650744 24076 net.cpp:435] relu4 <- conv4
I0504 04:53:18.650749 24076 net.cpp:396] relu4 -> conv4 (in-place)
I0504 04:53:18.650756 24076 net.cpp:144] Setting up relu4
I0504 04:53:18.650760 24076 net.cpp:151] Top shape: 20 128 15 15 (576000)
I0504 04:53:18.650763 24076 net.cpp:159] Memory required for data: 28872080
I0504 04:53:18.650768 24076 layer_factory.hpp:77] Creating layer conv5
I0504 04:53:18.650774 24076 net.cpp:94] Creating Layer conv5
I0504 04:53:18.650779 24076 net.cpp:435] conv5 <- conv4
I0504 04:53:18.650784 24076 net.cpp:409] conv5 -> conv5
I0504 04:53:18.671963 24076 net.cpp:144] Setting up conv5
I0504 04:53:18.672003 24076 net.cpp:151] Top shape: 20 128 15 15 (576000)
I0504 04:53:18.672014 24076 net.cpp:159] Memory required for data: 31176080
I0504 04:53:18.672039 24076 layer_factory.hpp:77] Creating layer relu5
I0504 04:53:18.672055 24076 net.cpp:94] Creating Layer relu5
I0504 04:53:18.672065 24076 net.cpp:435] relu5 <- conv5
I0504 04:53:18.672078 24076 net.cpp:396] relu5 -> conv5 (in-place)
I0504 04:53:18.672098 24076 net.cpp:144] Setting up relu5
I0504 04:53:18.672111 24076 net.cpp:151] Top shape: 20 128 15 15 (576000)
I0504 04:53:18.672121 24076 net.cpp:159] Memory required for data: 33480080
I0504 04:53:18.672129 24076 layer_factory.hpp:77] Creating layer pool5
I0504 04:53:18.672142 24076 net.cpp:94] Creating Layer pool5
I0504 04:53:18.672152 24076 net.cpp:435] pool5 <- conv5
I0504 04:53:18.672165 24076 net.cpp:409] pool5 -> pool5
I0504 04:53:18.672230 24076 net.cpp:144] Setting up pool5
I0504 04:53:18.672236 24076 net.cpp:151] Top shape: 20 128 7 7 (125440)
I0504 04:53:18.672240 24076 net.cpp:159] Memory required for data: 33981840
I0504 04:53:18.672243 24076 layer_factory.hpp:77] Creating layer ip1
I0504 04:53:18.672252 24076 net.cpp:94] Creating Layer ip1
I0504 04:53:18.672256 24076 net.cpp:435] ip1 <- pool5
I0504 04:53:18.672260 24076 net.cpp:409] ip1 -> ip1
I0504 04:53:18.827409 24076 net.cpp:144] Setting up ip1
I0504 04:53:18.827445 24076 net.cpp:151] Top shape: 20 1024 (20480)
I0504 04:53:18.827450 24076 net.cpp:159] Memory required for data: 34063760
I0504 04:53:18.827457 24076 layer_factory.hpp:77] Creating layer ip2
I0504 04:53:18.827467 24076 net.cpp:94] Creating Layer ip2
I0504 04:53:18.827482 24076 net.cpp:435] ip2 <- ip1
I0504 04:53:18.827489 24076 net.cpp:409] ip2 -> ip2
I0504 04:53:18.840412 24076 net.cpp:144] Setting up ip2
I0504 04:53:18.840426 24076 net.cpp:151] Top shape: 20 512 (10240)
I0504 04:53:18.840430 24076 net.cpp:159] Memory required for data: 34104720
I0504 04:53:18.840436 24076 layer_factory.hpp:77] Creating layer ip3
I0504 04:53:18.840443 24076 net.cpp:94] Creating Layer ip3
I0504 04:53:18.840447 24076 net.cpp:435] ip3 <- ip2
I0504 04:53:18.840452 24076 net.cpp:409] ip3 -> ip3
I0504 04:53:18.840529 24076 net.cpp:144] Setting up ip3
I0504 04:53:18.840543 24076 net.cpp:151] Top shape: 20 1 (20)
I0504 04:53:18.840548 24076 net.cpp:159] Memory required for data: 34104800
I0504 04:53:18.840556 24076 layer_factory.hpp:77] Creating layer loss
I0504 04:53:18.840582 24076 net.cpp:94] Creating Layer loss
I0504 04:53:18.840586 24076 net.cpp:435] loss <- ip3
I0504 04:53:18.840590 24076 net.cpp:435] loss <- label
I0504 04:53:18.840596 24076 net.cpp:409] loss -> loss
I0504 04:53:18.840634 24076 net.cpp:144] Setting up loss
…
