…
I0507 22:35:10.659993  8418 net.cpp:323] The NetState phase (0) differed from the phase (1) specified by a rule in layer intercept
I0507 22:35:10.660008  8418 net.cpp:323] The NetState phase (0) differed from the phase (1) specified by a rule in layer loss
I0507 22:35:10.660099  8418 net.cpp:52] Initializing net from parameters: 
state {
  phase: TRAIN
}
layer {
  name: "parameters"
  type: "HDF5Data"
  top: "data"
  top: "label"
  include {
    phase: TRAIN
  }
  hdf5_data_param {
    source: "/home/purduethu/scratch/radon/d/deng106/CNNStatisticalModel/distributions/input/5_distributions_400_sample_size_train-parameters-path.txt"
    batch_size: 20
  }
}
layer {
  name: "conv1"
  type: "Convolution"
  bottom: "data"
  top: "conv1"
  param {
    lr_mult: 1
  }
  param {
    lr_mult: 2
  }
  convolution_param {
    num_output: 64
    pad: 2
    kernel_size: 5
    stride: 1
    weight_filler {
      type: "gaussian"
      std: 0.0001
    }
    bias_filler {
      type: "constant"
    }
  }
}
layer {
  name: "relu1"
  type: "ReLU"
  bottom: "conv1"
  top: "conv1"
}
layer {
  name: "conv2"
  type: "Convolution"
  bottom: "conv1"
  top: "conv2"
  param {
    lr_mult: 1
  }
  param {
    lr_mult: 2
  }
  convolution_param {
    num_output: 64
    pad: 2
    kernel_size: 5
    stride: 1
    weight_filler {
      type: "gaussian"
      std: 0.01
    }
    bias_filler {
      type: "constant"
    }
  }
}
layer {
  name: "relu2"
  type: "ReLU"
  bottom: "conv2"
  top: "conv2"
}
layer {
  name: "pool2"
  type: "Pooling"
  bottom: "conv2"
  top: "pool2"
  pooling_param {
    pool: MAX
    kernel_size: 3
    stride: 2
  }
}
layer {
  name: "conv3"
  type: "Convolution"
  bottom: "pool2"
  top: "conv3"
  param {
    lr_mult: 1
  }
  param {
    lr_mult: 2
  }
  convolution_param {
    num_output: 64
    pad: 2
    kernel_size: 5
    stride: 1
    weight_filler {
      type: "gaussian"
      std: 0.01
    }
    bias_filler {
      type: "constant"
    }
  }
}
layer {
  name: "relu3"
  type: "ReLU"
  bottom: "conv3"
  top: "conv3"
}
layer {
  name: "conv4"
  type: "Convolution"
  bottom: "conv3"
  top: "conv4"
  param {
    lr_mult: 1
  }
  param {
    lr_mult: 2
  }
  convolution_param {
    num_output: 64
    pad: 2
    kernel_size: 5
    stride: 1
    weight_filler {
      type: "gaussian"
      std: 0.01
    }
    bias_filler {
      type: "constant"
    }
  }
}
layer {
  name: "relu4"
  type: "ReLU"
  bottom: "conv4"
  top: "conv4"
}
layer {
  name: "conv5"
  type: "Convolution"
  bottom: "conv4"
  top: "conv5"
  param {
    lr_mult: 1
  }
  param {
    lr_mult: 2
  }
  convolution_param {
    num_output: 64
    pad: 2
    kernel_size: 5
    stride: 1
    weight_filler {
      type: "gaussian"
      std: 0.01
    }
    bias_filler {
      type: "constant"
    }
  }
}
layer {
  name: "relu5"
  type: "ReLU"
  bottom: "conv5"
  top: "conv5"
}
layer {
  name: "pool5"
  type: "Pooling"
  bottom: "conv5"
  top: "pool5"
  pooling_param {
    pool: AVE
    kernel_size: 3
    stride: 2
  }
}
layer {
  name: "ip1"
  type: "InnerProduct"
  bottom: "pool5"
  top: "ip1"
  param {
    lr_mult: 1
  }
  param {
    lr_mult: 2
  }
  inner_product_param {
    num_output: 64
    weight_filler {
      type: "gaussian"
      std: 0.1
    }
    bias_filler {
      type: "constant"
    }
  }
}
layer {
  name: "ip2"
  type: "InnerProduct"
  bottom: "ip1"
  top: "ip2"
  param {
    lr_mult: 1
  }
  param {
    lr_mult: 2
  }
  inner_product_param {
    num_output: 64
    weight_filler {
      type: "gaussian"
      std: 0.1
    }
    bias_filler {
      type: "constant"
    }
  }
}
layer {
  name: "ip3"
  type: "InnerProduct"
  bottom: "ip2"
  top: "ip3"
  param {
    lr_mult: 1
  }
  param {
    lr_mult: 2
  }
  inner_product_param {
    num_output: 1
    weight_filler {
      type: "gaussian"
      std: 0.1
    }
    bias_filler {
      type: "constant"
    }
  }
}
layer {
  name: "loss"
  type: "HuberLoss"
  bottom: "ip3"
  bottom: "label"
  top: "loss"
  include {
    phase: TRAIN
  }
}
I0507 22:35:10.660152  8418 layer_factory.hpp:77] Creating layer parameters
I0507 22:35:10.660166  8418 net.cpp:94] Creating Layer parameters
I0507 22:35:10.660169  8418 net.cpp:409] parameters -> data
I0507 22:35:10.660182  8418 net.cpp:409] parameters -> label
I0507 22:35:10.660189  8418 hdf5_data_layer.cpp:79] Loading list of HDF5 filenames from: /home/purduethu/scratch/radon/d/deng106/CNNStatisticalModel/distributions/input/5_distributions_400_sample_size_train-parameters-path.txt
I0507 22:35:10.660204  8418 hdf5_data_layer.cpp:93] Number of HDF5 files: 1
I0507 22:35:10.660773  8418 hdf5.cpp:32] Datatype class: H5T_FLOAT
I0507 22:35:10.725239  8418 net.cpp:144] Setting up parameters
I0507 22:35:10.725267  8418 net.cpp:151] Top shape: 20 1 20 20 (8000)
I0507 22:35:10.725272  8418 net.cpp:151] Top shape: 20 (20)
I0507 22:35:10.725275  8418 net.cpp:159] Memory required for data: 32080
I0507 22:35:10.725282  8418 layer_factory.hpp:77] Creating layer conv1
I0507 22:35:10.725297  8418 net.cpp:94] Creating Layer conv1
I0507 22:35:10.725301  8418 net.cpp:435] conv1 <- data
I0507 22:35:10.725308  8418 net.cpp:409] conv1 -> conv1
I0507 22:35:10.730535  8418 net.cpp:144] Setting up conv1
I0507 22:35:10.730552  8418 net.cpp:151] Top shape: 20 64 20 20 (512000)
I0507 22:35:10.730556  8418 net.cpp:159] Memory required for data: 2080080
I0507 22:35:10.730567  8418 layer_factory.hpp:77] Creating layer relu1
I0507 22:35:10.730576  8418 net.cpp:94] Creating Layer relu1
I0507 22:35:10.730581  8418 net.cpp:435] relu1 <- conv1
I0507 22:35:10.730584  8418 net.cpp:396] relu1 -> conv1 (in-place)
I0507 22:35:10.730592  8418 net.cpp:144] Setting up relu1
I0507 22:35:10.730597  8418 net.cpp:151] Top shape: 20 64 20 20 (512000)
I0507 22:35:10.730600  8418 net.cpp:159] Memory required for data: 4128080
I0507 22:35:10.730602  8418 layer_factory.hpp:77] Creating layer conv2
I0507 22:35:10.730612  8418 net.cpp:94] Creating Layer conv2
I0507 22:35:10.730614  8418 net.cpp:435] conv2 <- conv1
I0507 22:35:10.730619  8418 net.cpp:409] conv2 -> conv2
I0507 22:35:10.741149  8418 net.cpp:144] Setting up conv2
I0507 22:35:10.741164  8418 net.cpp:151] Top shape: 20 64 20 20 (512000)
I0507 22:35:10.741168  8418 net.cpp:159] Memory required for data: 6176080
I0507 22:35:10.741176  8418 layer_factory.hpp:77] Creating layer relu2
I0507 22:35:10.741183  8418 net.cpp:94] Creating Layer relu2
I0507 22:35:10.741186  8418 net.cpp:435] relu2 <- conv2
I0507 22:35:10.741191  8418 net.cpp:396] relu2 -> conv2 (in-place)
I0507 22:35:10.741199  8418 net.cpp:144] Setting up relu2
I0507 22:35:10.741202  8418 net.cpp:151] Top shape: 20 64 20 20 (512000)
I0507 22:35:10.741205  8418 net.cpp:159] Memory required for data: 8224080
I0507 22:35:10.741209  8418 layer_factory.hpp:77] Creating layer pool2
I0507 22:35:10.741219  8418 net.cpp:94] Creating Layer pool2
I0507 22:35:10.741224  8418 net.cpp:435] pool2 <- conv2
I0507 22:35:10.741227  8418 net.cpp:409] pool2 -> pool2
I0507 22:35:10.741277  8418 net.cpp:144] Setting up pool2
I0507 22:35:10.741286  8418 net.cpp:151] Top shape: 20 64 10 10 (128000)
I0507 22:35:10.741288  8418 net.cpp:159] Memory required for data: 8736080
I0507 22:35:10.741291  8418 layer_factory.hpp:77] Creating layer conv3
I0507 22:35:10.741299  8418 net.cpp:94] Creating Layer conv3
I0507 22:35:10.741302  8418 net.cpp:435] conv3 <- pool2
I0507 22:35:10.741307  8418 net.cpp:409] conv3 -> conv3
I0507 22:35:10.746408  8418 net.cpp:144] Setting up conv3
I0507 22:35:10.746423  8418 net.cpp:151] Top shape: 20 64 10 10 (128000)
I0507 22:35:10.746425  8418 net.cpp:159] Memory required for data: 9248080
I0507 22:35:10.746433  8418 layer_factory.hpp:77] Creating layer relu3
I0507 22:35:10.746439  8418 net.cpp:94] Creating Layer relu3
I0507 22:35:10.746443  8418 net.cpp:435] relu3 <- conv3
I0507 22:35:10.746448  8418 net.cpp:396] relu3 -> conv3 (in-place)
I0507 22:35:10.746454  8418 net.cpp:144] Setting up relu3
I0507 22:35:10.746459  8418 net.cpp:151] Top shape: 20 64 10 10 (128000)
I0507 22:35:10.746461  8418 net.cpp:159] Memory required for data: 9760080
I0507 22:35:10.746464  8418 layer_factory.hpp:77] Creating layer conv4
I0507 22:35:10.746472  8418 net.cpp:94] Creating Layer conv4
I0507 22:35:10.746475  8418 net.cpp:435] conv4 <- conv3
I0507 22:35:10.746479  8418 net.cpp:409] conv4 -> conv4
I0507 22:35:10.751646  8418 net.cpp:144] Setting up conv4
I0507 22:35:10.751660  8418 net.cpp:151] Top shape: 20 64 10 10 (128000)
I0507 22:35:10.751664  8418 net.cpp:159] Memory required for data: 10272080
I0507 22:35:10.751670  8418 layer_factory.hpp:77] Creating layer relu4
I0507 22:35:10.751677  8418 net.cpp:94] Creating Layer relu4
I0507 22:35:10.751679  8418 net.cpp:435] relu4 <- conv4
I0507 22:35:10.751683  8418 net.cpp:396] relu4 -> conv4 (in-place)
I0507 22:35:10.751690  8418 net.cpp:144] Setting up relu4
I0507 22:35:10.751694  8418 net.cpp:151] Top shape: 20 64 10 10 (128000)
I0507 22:35:10.751698  8418 net.cpp:159] Memory required for data: 10784080
I0507 22:35:10.751700  8418 layer_factory.hpp:77] Creating layer conv5
I0507 22:35:10.751708  8418 net.cpp:94] Creating Layer conv5
I0507 22:35:10.751710  8418 net.cpp:435] conv5 <- conv4
I0507 22:35:10.751715  8418 net.cpp:409] conv5 -> conv5
I0507 22:35:10.756912  8418 net.cpp:144] Setting up conv5
I0507 22:35:10.756925  8418 net.cpp:151] Top shape: 20 64 10 10 (128000)
I0507 22:35:10.756929  8418 net.cpp:159] Memory required for data: 11296080
I0507 22:35:10.756937  8418 layer_factory.hpp:77] Creating layer relu5
I0507 22:35:10.756943  8418 net.cpp:94] Creating Layer relu5
I0507 22:35:10.756947  8418 net.cpp:435] relu5 <- conv5
I0507 22:35:10.756950  8418 net.cpp:396] relu5 -> conv5 (in-place)
I0507 22:35:10.756958  8418 net.cpp:144] Setting up relu5
I0507 22:35:10.756961  8418 net.cpp:151] Top shape: 20 64 10 10 (128000)
I0507 22:35:10.756964  8418 net.cpp:159] Memory required for data: 11808080
I0507 22:35:10.756966  8418 layer_factory.hpp:77] Creating layer pool5
I0507 22:35:10.756973  8418 net.cpp:94] Creating Layer pool5
I0507 22:35:10.756976  8418 net.cpp:435] pool5 <- conv5
I0507 22:35:10.756980  8418 net.cpp:409] pool5 -> pool5
I0507 22:35:10.757019  8418 net.cpp:144] Setting up pool5
I0507 22:35:10.757025  8418 net.cpp:151] Top shape: 20 64 5 5 (32000)
I0507 22:35:10.757028  8418 net.cpp:159] Memory required for data: 11936080
I0507 22:35:10.757031  8418 layer_factory.hpp:77] Creating layer ip1
I0507 22:35:10.757040  8418 net.cpp:94] Creating Layer ip1
I0507 22:35:10.757045  8418 net.cpp:435] ip1 <- pool5
I0507 22:35:10.757048  8418 net.cpp:409] ip1 -> ip1
I0507 22:35:10.759578  8418 net.cpp:144] Setting up ip1
I0507 22:35:10.759587  8418 net.cpp:151] Top shape: 20 64 (1280)
I0507 22:35:10.759589  8418 net.cpp:159] Memory required for data: 11941200
I0507 22:35:10.759594  8418 layer_factory.hpp:77] Creating layer ip2
I0507 22:35:10.759600  8418 net.cpp:94] Creating Layer ip2
I0507 22:35:10.759608  8418 net.cpp:435] ip2 <- ip1
I0507 22:35:10.759613  8418 net.cpp:409] ip2 -> ip2
I0507 22:35:10.759822  8418 net.cpp:144] Setting up ip2
I0507 22:35:10.759830  8418 net.cpp:151] Top shape: 20 64 (1280)
I0507 22:35:10.759834  8418 net.cpp:159] Memory required for data: 11946320
I0507 22:35:10.759838  8418 layer_factory.hpp:77] Creating layer ip3
I0507 22:35:10.759843  8418 net.cpp:94] Creating Layer ip3
I0507 22:35:10.759846  8418 net.cpp:435] ip3 <- ip2
I0507 22:35:10.759850  8418 net.cpp:409] ip3 -> ip3
I0507 22:35:10.759953  8418 net.cpp:144] Setting up ip3
I0507 22:35:10.759959  8418 net.cpp:151] Top shape: 20 1 (20)
I0507 22:35:10.759963  8418 net.cpp:159] Memory required for data: 11946400
I0507 22:35:10.759968  8418 layer_factory.hpp:77] Creating layer loss
I0507 22:35:10.759979  8418 net.cpp:94] Creating Layer loss
I0507 22:35:10.759981  8418 net.cpp:435] loss <- ip3
I0507 22:35:10.759985  8418 net.cpp:435] loss <- label
I0507 22:35:10.759989  8418 net.cpp:409] loss -> loss
I0507 22:35:10.760042  8418 net.cpp:144] Setting up loss
…
I0507 22:35:10.800390  8418 net.cpp:323] The NetState phase (0) differed from the phase (1) specified by a rule in layer intercept
I0507 22:35:10.800408  8418 net.cpp:323] The NetState phase (0) differed from the phase (1) specified by a rule in layer accuracy
I0507 22:35:10.800496  8418 net.cpp:52] Initializing net from parameters: 
state {
  phase: TRAIN
}
layer {
  name: "parameters"
  type: "HDF5Data"
  top: "data"
  top: "label"
  include {
    phase: TRAIN
  }
  hdf5_data_param {
    source: "/home/purduethu/scratch/radon/d/deng106/CNNStatisticalModel/distributions/input/5_distributions_400_sample_size_train-distributions-path.txt"
    batch_size: 20
  }
}
layer {
  name: "conv1"
  type: "Convolution"
  bottom: "data"
  top: "conv1"
  param {
    lr_mult: 1
  }
  param {
    lr_mult: 2
  }
  convolution_param {
    num_output: 64
    pad: 2
    kernel_size: 5
    stride: 1
    weight_filler {
      type: "gaussian"
      std: 0.0001
    }
    bias_filler {
      type: "constant"
    }
  }
}
layer {
  name: "relu1"
  type: "ReLU"
  bottom: "conv1"
  top: "conv1"
}
layer {
  name: "conv2"
  type: "Convolution"
  bottom: "conv1"
  top: "conv2"
  param {
    lr_mult: 1
  }
  param {
    lr_mult: 2
  }
  convolution_param {
    num_output: 64
    pad: 2
    kernel_size: 5
    stride: 1
    weight_filler {
      type: "gaussian"
      std: 0.01
    }
    bias_filler {
      type: "constant"
    }
  }
}
layer {
  name: "relu2"
  type: "ReLU"
  bottom: "conv2"
  top: "conv2"
}
layer {
  name: "pool2"
  type: "Pooling"
  bottom: "conv2"
  top: "pool2"
  pooling_param {
    pool: MAX
    kernel_size: 3
    stride: 2
  }
}
layer {
  name: "conv3"
  type: "Convolution"
  bottom: "pool2"
  top: "conv3"
  param {
    lr_mult: 1
  }
  param {
    lr_mult: 2
  }
  convolution_param {
    num_output: 64
    pad: 2
    kernel_size: 5
    stride: 1
    weight_filler {
      type: "gaussian"
      std: 0.01
    }
    bias_filler {
      type: "constant"
    }
  }
}
layer {
  name: "relu3"
  type: "ReLU"
  bottom: "conv3"
  top: "conv3"
}
layer {
  name: "conv4"
  type: "Convolution"
  bottom: "conv3"
  top: "conv4"
  param {
    lr_mult: 1
  }
  param {
    lr_mult: 2
  }
  convolution_param {
    num_output: 64
    pad: 2
    kernel_size: 5
    stride: 1
    weight_filler {
      type: "gaussian"
      std: 0.01
    }
    bias_filler {
      type: "constant"
    }
  }
}
layer {
  name: "relu4"
  type: "ReLU"
  bottom: "conv4"
  top: "conv4"
}
layer {
  name: "conv5"
  type: "Convolution"
  bottom: "conv4"
  top: "conv5"
  param {
    lr_mult: 1
  }
  param {
    lr_mult: 2
  }
  convolution_param {
    num_output: 64
    pad: 2
    kernel_size: 5
    stride: 1
    weight_filler {
      type: "gaussian"
      std: 0.01
    }
    bias_filler {
      type: "constant"
    }
  }
}
layer {
  name: "relu5"
  type: "ReLU"
  bottom: "conv5"
  top: "conv5"
}
layer {
  name: "pool5"
  type: "Pooling"
  bottom: "conv5"
  top: "pool5"
  pooling_param {
    pool: AVE
    kernel_size: 3
    stride: 2
  }
}
layer {
  name: "ip1"
  type: "InnerProduct"
  bottom: "pool5"
  top: "ip1"
  param {
    lr_mult: 1
  }
  param {
    lr_mult: 2
  }
  inner_product_param {
    num_output: 64
    weight_filler {
      type: "gaussian"
      std: 0.1
    }
    bias_filler {
      type: "constant"
    }
  }
}
layer {
  name: "ip2"
  type: "InnerProduct"
  bottom: "ip1"
  top: "ip2"
  param {
    lr_mult: 1
  }
  param {
    lr_mult: 2
  }
  inner_product_param {
    num_output: 64
    weight_filler {
      type: "gaussian"
      std: 0.1
    }
    bias_filler {
      type: "constant"
    }
  }
}
layer {
  name: "ip3"
  type: "InnerProduct"
  bottom: "ip2"
  top: "ip3"
  param {
    lr_mult: 1
  }
  param {
    lr_mult: 2
  }
  inner_product_param {
    num_output: 50
    weight_filler {
      type: "gaussian"
      std: 0.1
    }
    bias_filler {
      type: "constant"
    }
  }
}
layer {
  name: "loss"
  type: "SoftmaxWithLoss"
  bottom: "ip3"
  bottom: "label"
  top: "loss"
}
I0507 22:35:10.800555  8418 layer_factory.hpp:77] Creating layer parameters
I0507 22:35:10.800565  8418 net.cpp:94] Creating Layer parameters
I0507 22:35:10.800568  8418 net.cpp:409] parameters -> data
I0507 22:35:10.800575  8418 net.cpp:409] parameters -> label
I0507 22:35:10.800580  8418 hdf5_data_layer.cpp:79] Loading list of HDF5 filenames from: /home/purduethu/scratch/radon/d/deng106/CNNStatisticalModel/distributions/input/5_distributions_400_sample_size_train-distributions-path.txt
I0507 22:35:10.800596  8418 hdf5_data_layer.cpp:93] Number of HDF5 files: 1
I0507 22:35:10.861752  8418 hdf5.cpp:35] Datatype class: H5T_INTEGER
I0507 22:35:10.862185  8418 net.cpp:144] Setting up parameters
I0507 22:35:10.862200  8418 net.cpp:151] Top shape: 20 1 20 20 (8000)
I0507 22:35:10.862205  8418 net.cpp:151] Top shape: 20 (20)
I0507 22:35:10.862208  8418 net.cpp:159] Memory required for data: 32080
I0507 22:35:10.862215  8418 layer_factory.hpp:77] Creating layer conv1
I0507 22:35:10.862229  8418 net.cpp:94] Creating Layer conv1
I0507 22:35:10.862233  8418 net.cpp:435] conv1 <- data
I0507 22:35:10.862239  8418 net.cpp:409] conv1 -> conv1
I0507 22:35:10.864905  8418 net.cpp:144] Setting up conv1
I0507 22:35:10.864919  8418 net.cpp:151] Top shape: 20 64 20 20 (512000)
I0507 22:35:10.864923  8418 net.cpp:159] Memory required for data: 2080080
I0507 22:35:10.864933  8418 layer_factory.hpp:77] Creating layer relu1
I0507 22:35:10.864939  8418 net.cpp:94] Creating Layer relu1
I0507 22:35:10.864943  8418 net.cpp:435] relu1 <- conv1
I0507 22:35:10.864948  8418 net.cpp:396] relu1 -> conv1 (in-place)
I0507 22:35:10.864954  8418 net.cpp:144] Setting up relu1
I0507 22:35:10.864959  8418 net.cpp:151] Top shape: 20 64 20 20 (512000)
I0507 22:35:10.864961  8418 net.cpp:159] Memory required for data: 4128080
I0507 22:35:10.864964  8418 layer_factory.hpp:77] Creating layer conv2
I0507 22:35:10.864972  8418 net.cpp:94] Creating Layer conv2
I0507 22:35:10.864975  8418 net.cpp:435] conv2 <- conv1
I0507 22:35:10.864980  8418 net.cpp:409] conv2 -> conv2
I0507 22:35:10.875200  8418 net.cpp:144] Setting up conv2
I0507 22:35:10.875214  8418 net.cpp:151] Top shape: 20 64 20 20 (512000)
I0507 22:35:10.875218  8418 net.cpp:159] Memory required for data: 6176080
I0507 22:35:10.875226  8418 layer_factory.hpp:77] Creating layer relu2
I0507 22:35:10.875233  8418 net.cpp:94] Creating Layer relu2
I0507 22:35:10.875237  8418 net.cpp:435] relu2 <- conv2
I0507 22:35:10.875241  8418 net.cpp:396] relu2 -> conv2 (in-place)
I0507 22:35:10.875248  8418 net.cpp:144] Setting up relu2
I0507 22:35:10.875252  8418 net.cpp:151] Top shape: 20 64 20 20 (512000)
I0507 22:35:10.875255  8418 net.cpp:159] Memory required for data: 8224080
I0507 22:35:10.875257  8418 layer_factory.hpp:77] Creating layer pool2
I0507 22:35:10.875263  8418 net.cpp:94] Creating Layer pool2
I0507 22:35:10.875267  8418 net.cpp:435] pool2 <- conv2
I0507 22:35:10.875270  8418 net.cpp:409] pool2 -> pool2
I0507 22:35:10.875320  8418 net.cpp:144] Setting up pool2
I0507 22:35:10.875327  8418 net.cpp:151] Top shape: 20 64 10 10 (128000)
I0507 22:35:10.875330  8418 net.cpp:159] Memory required for data: 8736080
I0507 22:35:10.875334  8418 layer_factory.hpp:77] Creating layer conv3
I0507 22:35:10.875340  8418 net.cpp:94] Creating Layer conv3
I0507 22:35:10.875344  8418 net.cpp:435] conv3 <- pool2
I0507 22:35:10.875349  8418 net.cpp:409] conv3 -> conv3
I0507 22:35:10.880527  8418 net.cpp:144] Setting up conv3
I0507 22:35:10.880540  8418 net.cpp:151] Top shape: 20 64 10 10 (128000)
I0507 22:35:10.880544  8418 net.cpp:159] Memory required for data: 9248080
I0507 22:35:10.880559  8418 layer_factory.hpp:77] Creating layer relu3
I0507 22:35:10.880568  8418 net.cpp:94] Creating Layer relu3
I0507 22:35:10.880570  8418 net.cpp:435] relu3 <- conv3
I0507 22:35:10.880575  8418 net.cpp:396] relu3 -> conv3 (in-place)
I0507 22:35:10.880581  8418 net.cpp:144] Setting up relu3
I0507 22:35:10.880586  8418 net.cpp:151] Top shape: 20 64 10 10 (128000)
I0507 22:35:10.880589  8418 net.cpp:159] Memory required for data: 9760080
I0507 22:35:10.880591  8418 layer_factory.hpp:77] Creating layer conv4
I0507 22:35:10.880599  8418 net.cpp:94] Creating Layer conv4
I0507 22:35:10.880604  8418 net.cpp:435] conv4 <- conv3
I0507 22:35:10.880607  8418 net.cpp:409] conv4 -> conv4
I0507 22:35:10.885809  8418 net.cpp:144] Setting up conv4
I0507 22:35:10.885823  8418 net.cpp:151] Top shape: 20 64 10 10 (128000)
I0507 22:35:10.885826  8418 net.cpp:159] Memory required for data: 10272080
I0507 22:35:10.885833  8418 layer_factory.hpp:77] Creating layer relu4
I0507 22:35:10.885838  8418 net.cpp:94] Creating Layer relu4
I0507 22:35:10.885841  8418 net.cpp:435] relu4 <- conv4
I0507 22:35:10.885845  8418 net.cpp:396] relu4 -> conv4 (in-place)
I0507 22:35:10.885852  8418 net.cpp:144] Setting up relu4
I0507 22:35:10.885856  8418 net.cpp:151] Top shape: 20 64 10 10 (128000)
I0507 22:35:10.885859  8418 net.cpp:159] Memory required for data: 10784080
I0507 22:35:10.885862  8418 layer_factory.hpp:77] Creating layer conv5
I0507 22:35:10.885870  8418 net.cpp:94] Creating Layer conv5
I0507 22:35:10.885874  8418 net.cpp:435] conv5 <- conv4
I0507 22:35:10.885879  8418 net.cpp:409] conv5 -> conv5
I0507 22:35:10.891099  8418 net.cpp:144] Setting up conv5
I0507 22:35:10.891113  8418 net.cpp:151] Top shape: 20 64 10 10 (128000)
I0507 22:35:10.891116  8418 net.cpp:159] Memory required for data: 11296080
I0507 22:35:10.891124  8418 layer_factory.hpp:77] Creating layer relu5
I0507 22:35:10.891130  8418 net.cpp:94] Creating Layer relu5
I0507 22:35:10.891134  8418 net.cpp:435] relu5 <- conv5
I0507 22:35:10.891139  8418 net.cpp:396] relu5 -> conv5 (in-place)
I0507 22:35:10.891144  8418 net.cpp:144] Setting up relu5
I0507 22:35:10.891149  8418 net.cpp:151] Top shape: 20 64 10 10 (128000)
I0507 22:35:10.891151  8418 net.cpp:159] Memory required for data: 11808080
I0507 22:35:10.891155  8418 layer_factory.hpp:77] Creating layer pool5
I0507 22:35:10.891160  8418 net.cpp:94] Creating Layer pool5
I0507 22:35:10.891162  8418 net.cpp:435] pool5 <- conv5
I0507 22:35:10.891166  8418 net.cpp:409] pool5 -> pool5
I0507 22:35:10.891199  8418 net.cpp:144] Setting up pool5
I0507 22:35:10.891206  8418 net.cpp:151] Top shape: 20 64 5 5 (32000)
I0507 22:35:10.891209  8418 net.cpp:159] Memory required for data: 11936080
I0507 22:35:10.891212  8418 layer_factory.hpp:77] Creating layer ip1
I0507 22:35:10.891219  8418 net.cpp:94] Creating Layer ip1
I0507 22:35:10.891222  8418 net.cpp:435] ip1 <- pool5
I0507 22:35:10.891227  8418 net.cpp:409] ip1 -> ip1
I0507 22:35:10.893772  8418 net.cpp:144] Setting up ip1
I0507 22:35:10.893782  8418 net.cpp:151] Top shape: 20 64 (1280)
I0507 22:35:10.893785  8418 net.cpp:159] Memory required for data: 11941200
I0507 22:35:10.893790  8418 layer_factory.hpp:77] Creating layer ip2
I0507 22:35:10.893796  8418 net.cpp:94] Creating Layer ip2
I0507 22:35:10.893800  8418 net.cpp:435] ip2 <- ip1
I0507 22:35:10.893805  8418 net.cpp:409] ip2 -> ip2
I0507 22:35:10.894024  8418 net.cpp:144] Setting up ip2
I0507 22:35:10.894032  8418 net.cpp:151] Top shape: 20 64 (1280)
I0507 22:35:10.894034  8418 net.cpp:159] Memory required for data: 11946320
I0507 22:35:10.894039  8418 layer_factory.hpp:77] Creating layer ip3
I0507 22:35:10.894045  8418 net.cpp:94] Creating Layer ip3
I0507 22:35:10.894048  8418 net.cpp:435] ip3 <- ip2
I0507 22:35:10.894054  8418 net.cpp:409] ip3 -> ip3
I0507 22:35:10.894249  8418 net.cpp:144] Setting up ip3
I0507 22:35:10.894259  8418 net.cpp:151] Top shape: 20 50 (1000)
I0507 22:35:10.894263  8418 net.cpp:159] Memory required for data: 11950320
I0507 22:35:10.894268  8418 layer_factory.hpp:77] Creating layer loss
I0507 22:35:10.894274  8418 net.cpp:94] Creating Layer loss
I0507 22:35:10.894278  8418 net.cpp:435] loss <- ip3
I0507 22:35:10.894281  8418 net.cpp:435] loss <- label
I0507 22:35:10.894286  8418 net.cpp:409] loss -> loss
I0507 22:35:10.894294  8418 layer_factory.hpp:77] Creating layer loss
…
I0507 22:35:10.894810  8418 solver.cpp:181] Creating test net (#0) specified by net file: ./protocol/dis_5_400_dimension.protocol_distribution
I0507 22:35:10.894836  8418 net.cpp:323] The NetState phase (1) differed from the phase (0) specified by a rule in layer parameters
I0507 22:35:10.894932  8418 net.cpp:52] Initializing net from parameters: 
state {
  phase: TEST
}
layer {
  name: "intercept"
  type: "HDF5Data"
  top: "data"
  top: "label"
  include {
    phase: TEST
  }
  hdf5_data_param {
    source: "/home/purduethu/scratch/radon/d/deng106/CNNStatisticalModel/distributions/input/5_distributions_400_sample_size_test-distributions-path.txt"
    batch_size: 20
  }
}
layer {
  name: "conv1"
  type: "Convolution"
  bottom: "data"
  top: "conv1"
  param {
    lr_mult: 1
  }
  param {
    lr_mult: 2
  }
  convolution_param {
    num_output: 64
    pad: 2
    kernel_size: 5
    stride: 1
    weight_filler {
      type: "gaussian"
      std: 0.0001
    }
    bias_filler {
      type: "constant"
    }
  }
}
layer {
  name: "relu1"
  type: "ReLU"
  bottom: "conv1"
  top: "conv1"
}
layer {
  name: "conv2"
  type: "Convolution"
  bottom: "conv1"
  top: "conv2"
  param {
    lr_mult: 1
  }
  param {
    lr_mult: 2
  }
  convolution_param {
    num_output: 64
    pad: 2
    kernel_size: 5
    stride: 1
    weight_filler {
      type: "gaussian"
      std: 0.01
    }
    bias_filler {
      type: "constant"
    }
  }
}
layer {
  name: "relu2"
  type: "ReLU"
  bottom: "conv2"
  top: "conv2"
}
layer {
  name: "pool2"
  type: "Pooling"
  bottom: "conv2"
  top: "pool2"
  pooling_param {
    pool: MAX
    kernel_size: 3
    stride: 2
  }
}
layer {
  name: "conv3"
  type: "Convolution"
  bottom: "pool2"
  top: "conv3"
  param {
    lr_mult: 1
  }
  param {
    lr_mult: 2
  }
  convolution_param {
    num_output: 64
    pad: 2
    kernel_size: 5
    stride: 1
    weight_filler {
      type: "gaussian"
      std: 0.01
    }
    bias_filler {
      type: "constant"
    }
  }
}
layer {
  name: "relu3"
  type: "ReLU"
  bottom: "conv3"
  top: "conv3"
}
layer {
  name: "conv4"
  type: "Convolution"
  bottom: "conv3"
  top: "conv4"
  param {
    lr_mult: 1
  }
  param {
    lr_mult: 2
  }
  convolution_param {
    num_output: 64
    pad: 2
    kernel_size: 5
    stride: 1
    weight_filler {
      type: "gaussian"
      std: 0.01
    }
    bias_filler {
      type: "constant"
    }
  }
}
layer {
  name: "relu4"
  type: "ReLU"
  bottom: "conv4"
  top: "conv4"
}
layer {
  name: "conv5"
  type: "Convolution"
  bottom: "conv4"
  top: "conv5"
  param {
    lr_mult: 1
  }
  param {
    lr_mult: 2
  }
  convolution_param {
    num_output: 64
    pad: 2
    kernel_size: 5
    stride: 1
    weight_filler {
      type: "gaussian"
      std: 0.01
    }
    bias_filler {
      type: "constant"
    }
  }
}
layer {
  name: "relu5"
  type: "ReLU"
  bottom: "conv5"
  top: "conv5"
}
layer {
  name: "pool5"
  type: "Pooling"
  bottom: "conv5"
  top: "pool5"
  pooling_param {
    pool: AVE
    kernel_size: 3
    stride: 2
  }
}
layer {
  name: "ip1"
  type: "InnerProduct"
  bottom: "pool5"
  top: "ip1"
  param {
    lr_mult: 1
  }
  param {
    lr_mult: 2
  }
  inner_product_param {
    num_output: 64
    weight_filler {
      type: "gaussian"
      std: 0.1
    }
    bias_filler {
      type: "constant"
    }
  }
}
layer {
  name: "ip2"
  type: "InnerProduct"
  bottom: "ip1"
  top: "ip2"
  param {
    lr_mult: 1
  }
  param {
    lr_mult: 2
  }
  inner_product_param {
    num_output: 64
    weight_filler {
      type: "gaussian"
      std: 0.1
    }
    bias_filler {
      type: "constant"
    }
  }
}
layer {
  name: "ip3"
  type: "InnerProduct"
  bottom: "ip2"
  top: "ip3"
  param {
    lr_mult: 1
  }
  param {
    lr_mult: 2
  }
  inner_product_param {
    num_output: 50
    weight_filler {
      type: "gaussian"
      std: 0.1
    }
    bias_filler {
      type: "constant"
    }
  }
}
layer {
  name: "accuracy"
  type: "Accuracy"
  bottom: "ip3"
  bottom: "label"
  top: "accuracy"
  include {
    phase: TEST
  }
}
layer {
  name: "loss"
  type: "SoftmaxWithLoss"
  bottom: "ip3"
  bottom: "label"
  top: "loss"
}
I0507 22:35:10.894999  8418 layer_factory.hpp:77] Creating layer intercept
I0507 22:35:10.895007  8418 net.cpp:94] Creating Layer intercept
I0507 22:35:10.895011  8418 net.cpp:409] intercept -> data
I0507 22:35:10.895017  8418 net.cpp:409] intercept -> label
I0507 22:35:10.895023  8418 hdf5_data_layer.cpp:79] Loading list of HDF5 filenames from: /home/purduethu/scratch/radon/d/deng106/CNNStatisticalModel/distributions/input/5_distributions_400_sample_size_test-distributions-path.txt
I0507 22:35:10.895042  8418 hdf5_data_layer.cpp:93] Number of HDF5 files: 1
I0507 22:35:10.911193  8418 net.cpp:144] Setting up intercept
I0507 22:35:10.911226  8418 net.cpp:151] Top shape: 20 1 20 20 (8000)
I0507 22:35:10.911231  8418 net.cpp:151] Top shape: 20 (20)
I0507 22:35:10.911234  8418 net.cpp:159] Memory required for data: 32080
I0507 22:35:10.911240  8418 layer_factory.hpp:77] Creating layer label_intercept_1_split
I0507 22:35:10.911259  8418 net.cpp:94] Creating Layer label_intercept_1_split
I0507 22:35:10.911263  8418 net.cpp:435] label_intercept_1_split <- label
I0507 22:35:10.911269  8418 net.cpp:409] label_intercept_1_split -> label_intercept_1_split_0
I0507 22:35:10.911278  8418 net.cpp:409] label_intercept_1_split -> label_intercept_1_split_1
I0507 22:35:10.911316  8418 net.cpp:144] Setting up label_intercept_1_split
I0507 22:35:10.911322  8418 net.cpp:151] Top shape: 20 (20)
I0507 22:35:10.911325  8418 net.cpp:151] Top shape: 20 (20)
I0507 22:35:10.911329  8418 net.cpp:159] Memory required for data: 32240
I0507 22:35:10.911331  8418 layer_factory.hpp:77] Creating layer conv1
I0507 22:35:10.911342  8418 net.cpp:94] Creating Layer conv1
I0507 22:35:10.911345  8418 net.cpp:435] conv1 <- data
I0507 22:35:10.911350  8418 net.cpp:409] conv1 -> conv1
I0507 22:35:10.912677  8418 net.cpp:144] Setting up conv1
I0507 22:35:10.912696  8418 net.cpp:151] Top shape: 20 64 20 20 (512000)
I0507 22:35:10.912700  8418 net.cpp:159] Memory required for data: 2080240
I0507 22:35:10.912709  8418 layer_factory.hpp:77] Creating layer relu1
I0507 22:35:10.912716  8418 net.cpp:94] Creating Layer relu1
I0507 22:35:10.912720  8418 net.cpp:435] relu1 <- conv1
I0507 22:35:10.912724  8418 net.cpp:396] relu1 -> conv1 (in-place)
I0507 22:35:10.912731  8418 net.cpp:144] Setting up relu1
I0507 22:35:10.912735  8418 net.cpp:151] Top shape: 20 64 20 20 (512000)
I0507 22:35:10.912739  8418 net.cpp:159] Memory required for data: 4128240
I0507 22:35:10.912741  8418 layer_factory.hpp:77] Creating layer conv2
I0507 22:35:10.912750  8418 net.cpp:94] Creating Layer conv2
I0507 22:35:10.912752  8418 net.cpp:435] conv2 <- conv1
I0507 22:35:10.912757  8418 net.cpp:409] conv2 -> conv2
I0507 22:35:10.918426  8418 net.cpp:144] Setting up conv2
I0507 22:35:10.918439  8418 net.cpp:151] Top shape: 20 64 20 20 (512000)
I0507 22:35:10.918442  8418 net.cpp:159] Memory required for data: 6176240
I0507 22:35:10.918450  8418 layer_factory.hpp:77] Creating layer relu2
I0507 22:35:10.918457  8418 net.cpp:94] Creating Layer relu2
I0507 22:35:10.918460  8418 net.cpp:435] relu2 <- conv2
I0507 22:35:10.918464  8418 net.cpp:396] relu2 -> conv2 (in-place)
I0507 22:35:10.918471  8418 net.cpp:144] Setting up relu2
I0507 22:35:10.918475  8418 net.cpp:151] Top shape: 20 64 20 20 (512000)
I0507 22:35:10.918478  8418 net.cpp:159] Memory required for data: 8224240
I0507 22:35:10.918480  8418 layer_factory.hpp:77] Creating layer pool2
I0507 22:35:10.918486  8418 net.cpp:94] Creating Layer pool2
I0507 22:35:10.918489  8418 net.cpp:435] pool2 <- conv2
I0507 22:35:10.918493  8418 net.cpp:409] pool2 -> pool2
I0507 22:35:10.918543  8418 net.cpp:144] Setting up pool2
I0507 22:35:10.918550  8418 net.cpp:151] Top shape: 20 64 10 10 (128000)
I0507 22:35:10.918552  8418 net.cpp:159] Memory required for data: 8736240
I0507 22:35:10.918555  8418 layer_factory.hpp:77] Creating layer conv3
I0507 22:35:10.918563  8418 net.cpp:94] Creating Layer conv3
I0507 22:35:10.918566  8418 net.cpp:435] conv3 <- pool2
I0507 22:35:10.918571  8418 net.cpp:409] conv3 -> conv3
I0507 22:35:10.923606  8418 net.cpp:144] Setting up conv3
I0507 22:35:10.923619  8418 net.cpp:151] Top shape: 20 64 10 10 (128000)
I0507 22:35:10.923622  8418 net.cpp:159] Memory required for data: 9248240
I0507 22:35:10.923631  8418 layer_factory.hpp:77] Creating layer relu3
I0507 22:35:10.923637  8418 net.cpp:94] Creating Layer relu3
I0507 22:35:10.923640  8418 net.cpp:435] relu3 <- conv3
I0507 22:35:10.923645  8418 net.cpp:396] relu3 -> conv3 (in-place)
I0507 22:35:10.923651  8418 net.cpp:144] Setting up relu3
I0507 22:35:10.923656  8418 net.cpp:151] Top shape: 20 64 10 10 (128000)
I0507 22:35:10.923658  8418 net.cpp:159] Memory required for data: 9760240
I0507 22:35:10.923661  8418 layer_factory.hpp:77] Creating layer conv4
I0507 22:35:10.923669  8418 net.cpp:94] Creating Layer conv4
I0507 22:35:10.923672  8418 net.cpp:435] conv4 <- conv3
I0507 22:35:10.923676  8418 net.cpp:409] conv4 -> conv4
I0507 22:35:10.927144  8418 net.cpp:144] Setting up conv4
I0507 22:35:10.927156  8418 net.cpp:151] Top shape: 20 64 10 10 (128000)
I0507 22:35:10.927160  8418 net.cpp:159] Memory required for data: 10272240
I0507 22:35:10.927166  8418 layer_factory.hpp:77] Creating layer relu4
I0507 22:35:10.927171  8418 net.cpp:94] Creating Layer relu4
I0507 22:35:10.927175  8418 net.cpp:435] relu4 <- conv4
I0507 22:35:10.927179  8418 net.cpp:396] relu4 -> conv4 (in-place)
I0507 22:35:10.927186  8418 net.cpp:144] Setting up relu4
I0507 22:35:10.927191  8418 net.cpp:151] Top shape: 20 64 10 10 (128000)
I0507 22:35:10.927193  8418 net.cpp:159] Memory required for data: 10784240
I0507 22:35:10.927196  8418 layer_factory.hpp:77] Creating layer conv5
I0507 22:35:10.927203  8418 net.cpp:94] Creating Layer conv5
I0507 22:35:10.927206  8418 net.cpp:435] conv5 <- conv4
I0507 22:35:10.927211  8418 net.cpp:409] conv5 -> conv5
I0507 22:35:10.931104  8418 net.cpp:144] Setting up conv5
I0507 22:35:10.931121  8418 net.cpp:151] Top shape: 20 64 10 10 (128000)
I0507 22:35:10.931125  8418 net.cpp:159] Memory required for data: 11296240
I0507 22:35:10.931133  8418 layer_factory.hpp:77] Creating layer relu5
I0507 22:35:10.931139  8418 net.cpp:94] Creating Layer relu5
I0507 22:35:10.931143  8418 net.cpp:435] relu5 <- conv5
I0507 22:35:10.931146  8418 net.cpp:396] relu5 -> conv5 (in-place)
I0507 22:35:10.931154  8418 net.cpp:144] Setting up relu5
I0507 22:35:10.931157  8418 net.cpp:151] Top shape: 20 64 10 10 (128000)
I0507 22:35:10.931160  8418 net.cpp:159] Memory required for data: 11808240
I0507 22:35:10.931164  8418 layer_factory.hpp:77] Creating layer pool5
I0507 22:35:10.931167  8418 net.cpp:94] Creating Layer pool5
I0507 22:35:10.931170  8418 net.cpp:435] pool5 <- conv5
I0507 22:35:10.931174  8418 net.cpp:409] pool5 -> pool5
I0507 22:35:10.931208  8418 net.cpp:144] Setting up pool5
I0507 22:35:10.931216  8418 net.cpp:151] Top shape: 20 64 5 5 (32000)
I0507 22:35:10.931217  8418 net.cpp:159] Memory required for data: 11936240
I0507 22:35:10.931221  8418 layer_factory.hpp:77] Creating layer ip1
I0507 22:35:10.931227  8418 net.cpp:94] Creating Layer ip1
I0507 22:35:10.931231  8418 net.cpp:435] ip1 <- pool5
I0507 22:35:10.931236  8418 net.cpp:409] ip1 -> ip1
I0507 22:35:10.933754  8418 net.cpp:144] Setting up ip1
I0507 22:35:10.933763  8418 net.cpp:151] Top shape: 20 64 (1280)
I0507 22:35:10.933765  8418 net.cpp:159] Memory required for data: 11941360
I0507 22:35:10.933770  8418 layer_factory.hpp:77] Creating layer ip2
I0507 22:35:10.933778  8418 net.cpp:94] Creating Layer ip2
I0507 22:35:10.933780  8418 net.cpp:435] ip2 <- ip1
I0507 22:35:10.933784  8418 net.cpp:409] ip2 -> ip2
I0507 22:35:10.934000  8418 net.cpp:144] Setting up ip2
I0507 22:35:10.934006  8418 net.cpp:151] Top shape: 20 64 (1280)
I0507 22:35:10.934010  8418 net.cpp:159] Memory required for data: 11946480
I0507 22:35:10.934015  8418 layer_factory.hpp:77] Creating layer ip3
I0507 22:35:10.934020  8418 net.cpp:94] Creating Layer ip3
I0507 22:35:10.934023  8418 net.cpp:435] ip3 <- ip2
I0507 22:35:10.934027  8418 net.cpp:409] ip3 -> ip3
I0507 22:35:10.934213  8418 net.cpp:144] Setting up ip3
I0507 22:35:10.934221  8418 net.cpp:151] Top shape: 20 50 (1000)
I0507 22:35:10.934223  8418 net.cpp:159] Memory required for data: 11950480
I0507 22:35:10.934228  8418 layer_factory.hpp:77] Creating layer ip3_ip3_0_split
I0507 22:35:10.934232  8418 net.cpp:94] Creating Layer ip3_ip3_0_split
I0507 22:35:10.934236  8418 net.cpp:435] ip3_ip3_0_split <- ip3
I0507 22:35:10.934240  8418 net.cpp:409] ip3_ip3_0_split -> ip3_ip3_0_split_0
I0507 22:35:10.934245  8418 net.cpp:409] ip3_ip3_0_split -> ip3_ip3_0_split_1
I0507 22:35:10.934281  8418 net.cpp:144] Setting up ip3_ip3_0_split
I0507 22:35:10.934288  8418 net.cpp:151] Top shape: 20 50 (1000)
I0507 22:35:10.934290  8418 net.cpp:151] Top shape: 20 50 (1000)
I0507 22:35:10.934293  8418 net.cpp:159] Memory required for data: 11958480
I0507 22:35:10.934296  8418 layer_factory.hpp:77] Creating layer accuracy
I0507 22:35:10.934301  8418 net.cpp:94] Creating Layer accuracy
I0507 22:35:10.934304  8418 net.cpp:435] accuracy <- ip3_ip3_0_split_0
I0507 22:35:10.934309  8418 net.cpp:435] accuracy <- label_intercept_1_split_0
I0507 22:35:10.934312  8418 net.cpp:409] accuracy -> accuracy
…
