…
I0505 06:25:31.278571  4393 net.cpp:323] The NetState phase (0) differed from the phase (1) specified by a rule in layer intercept
I0505 06:25:31.278586  4393 net.cpp:323] The NetState phase (0) differed from the phase (1) specified by a rule in layer loss
I0505 06:25:31.278663  4393 net.cpp:52] Initializing net from parameters: 
state {
  phase: TRAIN
}
layer {
  name: "parameters"
  type: "HDF5Data"
  top: "data"
  top: "label"
  include {
    phase: TRAIN
  }
  hdf5_data_param {
    source: "/home/purduethu/scratch/radon/d/deng106/CNNStatisticalModel/distributions/input/50_distributions_900_sample_size_train-parameters-path.txt"
    batch_size: 20
  }
}
layer {
  name: "conv1"
  type: "Convolution"
  bottom: "data"
  top: "conv1"
  param {
    lr_mult: 1
  }
  param {
    lr_mult: 2
  }
  convolution_param {
    num_output: 64
    pad: 2
    kernel_size: 5
    stride: 1
    weight_filler {
      type: "gaussian"
      std: 0.0001
    }
    bias_filler {
      type: "constant"
    }
  }
}
layer {
  name: "relu1"
  type: "ReLU"
  bottom: "conv1"
  top: "conv1"
}
layer {
  name: "pool1"
  type: "Pooling"
  bottom: "conv1"
  top: "pool1"
  pooling_param {
    pool: MAX
    kernel_size: 3
    stride: 2
  }
}
layer {
  name: "conv2"
  type: "Convolution"
  bottom: "pool1"
  top: "conv2"
  param {
    lr_mult: 1
  }
  param {
    lr_mult: 2
  }
  convolution_param {
    num_output: 128
    pad: 2
    kernel_size: 5
    stride: 1
    weight_filler {
      type: "gaussian"
      std: 0.01
    }
    bias_filler {
      type: "constant"
    }
  }
}
layer {
  name: "relu2"
  type: "ReLU"
  bottom: "conv2"
  top: "conv2"
}
layer {
  name: "conv3"
  type: "Convolution"
  bottom: "conv2"
  top: "conv3"
  param {
    lr_mult: 1
  }
  param {
    lr_mult: 2
  }
  convolution_param {
    num_output: 128
    pad: 2
    kernel_size: 5
    stride: 1
    weight_filler {
      type: "gaussian"
      std: 0.01
    }
    bias_filler {
      type: "constant"
    }
  }
}
layer {
  name: "relu3"
  type: "ReLU"
  bottom: "conv3"
  top: "conv3"
}
layer {
  name: "pool3"
  type: "Pooling"
  bottom: "conv3"
  top: "pool3"
  pooling_param {
    pool: AVE
    kernel_size: 3
    stride: 2
  }
}
layer {
  name: "ip1"
  type: "InnerProduct"
  bottom: "pool3"
  top: "ip1"
  param {
    lr_mult: 1
  }
  param {
    lr_mult: 2
  }
  inner_product_param {
    num_output: 512
    weight_filler {
      type: "gaussian"
      std: 0.1
    }
    bias_filler {
      type: "constant"
    }
  }
}
layer {
  name: "ip2"
  type: "InnerProduct"
  bottom: "ip1"
  top: "ip2"
  param {
    lr_mult: 1
  }
  param {
    lr_mult: 2
  }
  inner_product_param {
    num_output: 256
    weight_filler {
      type: "gaussian"
      std: 0.1
    }
    bias_filler {
      type: "constant"
    }
  }
}
layer {
  name: "ip3"
  type: "InnerProduct"
  bottom: "ip2"
  top: "ip3"
  param {
    lr_mult: 1
  }
  param {
    lr_mult: 2
  }
  inner_product_param {
    num_output: 1
    weight_filler {
      type: "gaussian"
      std: 0.1
    }
    bias_filler {
      type: "constant"
    }
  }
}
layer {
  name: "loss"
  type: "HuberLoss"
  bottom: "ip3"
  bottom: "label"
  top: "loss"
  include {
    phase: TRAIN
  }
}
I0505 06:25:31.278724  4393 layer_factory.hpp:77] Creating layer parameters
I0505 06:25:31.278740  4393 net.cpp:94] Creating Layer parameters
I0505 06:25:31.278753  4393 net.cpp:409] parameters -> data
I0505 06:25:31.278772  4393 net.cpp:409] parameters -> label
I0505 06:25:31.278784  4393 hdf5_data_layer.cpp:79] Loading list of HDF5 filenames from: /home/purduethu/scratch/radon/d/deng106/CNNStatisticalModel/distributions/input/50_distributions_900_sample_size_train-parameters-path.txt
I0505 06:25:31.278805  4393 hdf5_data_layer.cpp:93] Number of HDF5 files: 1
I0505 06:25:31.279256  4393 hdf5.cpp:32] Datatype class: H5T_FLOAT
I0505 06:25:32.724412  4393 net.cpp:144] Setting up parameters
I0505 06:25:32.724447  4393 net.cpp:151] Top shape: 20 1 30 30 (18000)
I0505 06:25:32.724452  4393 net.cpp:151] Top shape: 20 (20)
I0505 06:25:32.724455  4393 net.cpp:159] Memory required for data: 72080
I0505 06:25:32.724463  4393 layer_factory.hpp:77] Creating layer conv1
I0505 06:25:32.724483  4393 net.cpp:94] Creating Layer conv1
I0505 06:25:32.724488  4393 net.cpp:435] conv1 <- data
I0505 06:25:32.724499  4393 net.cpp:409] conv1 -> conv1
I0505 06:25:32.730340  4393 net.cpp:144] Setting up conv1
I0505 06:25:32.730355  4393 net.cpp:151] Top shape: 20 64 30 30 (1152000)
I0505 06:25:32.730360  4393 net.cpp:159] Memory required for data: 4680080
I0505 06:25:32.730371  4393 layer_factory.hpp:77] Creating layer relu1
I0505 06:25:32.730379  4393 net.cpp:94] Creating Layer relu1
I0505 06:25:32.730383  4393 net.cpp:435] relu1 <- conv1
I0505 06:25:32.730388  4393 net.cpp:396] relu1 -> conv1 (in-place)
I0505 06:25:32.730403  4393 net.cpp:144] Setting up relu1
I0505 06:25:32.730408  4393 net.cpp:151] Top shape: 20 64 30 30 (1152000)
I0505 06:25:32.730412  4393 net.cpp:159] Memory required for data: 9288080
I0505 06:25:32.730415  4393 layer_factory.hpp:77] Creating layer pool1
I0505 06:25:32.730423  4393 net.cpp:94] Creating Layer pool1
I0505 06:25:32.730427  4393 net.cpp:435] pool1 <- conv1
I0505 06:25:32.730432  4393 net.cpp:409] pool1 -> pool1
I0505 06:25:32.730470  4393 net.cpp:144] Setting up pool1
I0505 06:25:32.730479  4393 net.cpp:151] Top shape: 20 64 15 15 (288000)
I0505 06:25:32.730481  4393 net.cpp:159] Memory required for data: 10440080
I0505 06:25:32.730485  4393 layer_factory.hpp:77] Creating layer conv2
I0505 06:25:32.730494  4393 net.cpp:94] Creating Layer conv2
I0505 06:25:32.730497  4393 net.cpp:435] conv2 <- pool1
I0505 06:25:32.730502  4393 net.cpp:409] conv2 -> conv2
I0505 06:25:32.744262  4393 net.cpp:144] Setting up conv2
I0505 06:25:32.744278  4393 net.cpp:151] Top shape: 20 128 15 15 (576000)
I0505 06:25:32.744283  4393 net.cpp:159] Memory required for data: 12744080
I0505 06:25:32.744292  4393 layer_factory.hpp:77] Creating layer relu2
I0505 06:25:32.744297  4393 net.cpp:94] Creating Layer relu2
I0505 06:25:32.744302  4393 net.cpp:435] relu2 <- conv2
I0505 06:25:32.744307  4393 net.cpp:396] relu2 -> conv2 (in-place)
I0505 06:25:32.744314  4393 net.cpp:144] Setting up relu2
I0505 06:25:32.744318  4393 net.cpp:151] Top shape: 20 128 15 15 (576000)
I0505 06:25:32.744323  4393 net.cpp:159] Memory required for data: 15048080
I0505 06:25:32.744325  4393 layer_factory.hpp:77] Creating layer conv3
I0505 06:25:32.744333  4393 net.cpp:94] Creating Layer conv3
I0505 06:25:32.744338  4393 net.cpp:435] conv3 <- conv2
I0505 06:25:32.744343  4393 net.cpp:409] conv3 -> conv3
I0505 06:25:32.766463  4393 net.cpp:144] Setting up conv3
I0505 06:25:32.766479  4393 net.cpp:151] Top shape: 20 128 15 15 (576000)
I0505 06:25:32.766484  4393 net.cpp:159] Memory required for data: 17352080
I0505 06:25:32.766491  4393 layer_factory.hpp:77] Creating layer relu3
I0505 06:25:32.766505  4393 net.cpp:94] Creating Layer relu3
I0505 06:25:32.766510  4393 net.cpp:435] relu3 <- conv3
I0505 06:25:32.766515  4393 net.cpp:396] relu3 -> conv3 (in-place)
I0505 06:25:32.766521  4393 net.cpp:144] Setting up relu3
I0505 06:25:32.766526  4393 net.cpp:151] Top shape: 20 128 15 15 (576000)
I0505 06:25:32.766530  4393 net.cpp:159] Memory required for data: 19656080
I0505 06:25:32.766532  4393 layer_factory.hpp:77] Creating layer pool3
I0505 06:25:32.766538  4393 net.cpp:94] Creating Layer pool3
I0505 06:25:32.766542  4393 net.cpp:435] pool3 <- conv3
I0505 06:25:32.766554  4393 net.cpp:409] pool3 -> pool3
I0505 06:25:32.766588  4393 net.cpp:144] Setting up pool3
I0505 06:25:32.766595  4393 net.cpp:151] Top shape: 20 128 7 7 (125440)
I0505 06:25:32.766599  4393 net.cpp:159] Memory required for data: 20157840
I0505 06:25:32.766602  4393 layer_factory.hpp:77] Creating layer ip1
I0505 06:25:32.766613  4393 net.cpp:94] Creating Layer ip1
I0505 06:25:32.766616  4393 net.cpp:435] ip1 <- pool3
I0505 06:25:32.766621  4393 net.cpp:409] ip1 -> ip1
I0505 06:25:32.846010  4393 net.cpp:144] Setting up ip1
I0505 06:25:32.846034  4393 net.cpp:151] Top shape: 20 512 (10240)
I0505 06:25:32.846037  4393 net.cpp:159] Memory required for data: 20198800
I0505 06:25:32.846045  4393 layer_factory.hpp:77] Creating layer ip2
I0505 06:25:32.846055  4393 net.cpp:94] Creating Layer ip2
I0505 06:25:32.846060  4393 net.cpp:435] ip2 <- ip1
I0505 06:25:32.846065  4393 net.cpp:409] ip2 -> ip2
I0505 06:25:32.849257  4393 net.cpp:144] Setting up ip2
I0505 06:25:32.849267  4393 net.cpp:151] Top shape: 20 256 (5120)
I0505 06:25:32.849270  4393 net.cpp:159] Memory required for data: 20219280
I0505 06:25:32.849277  4393 layer_factory.hpp:77] Creating layer ip3
I0505 06:25:32.849283  4393 net.cpp:94] Creating Layer ip3
I0505 06:25:32.849287  4393 net.cpp:435] ip3 <- ip2
I0505 06:25:32.849292  4393 net.cpp:409] ip3 -> ip3
I0505 06:25:32.849355  4393 net.cpp:144] Setting up ip3
I0505 06:25:32.849361  4393 net.cpp:151] Top shape: 20 1 (20)
I0505 06:25:32.849365  4393 net.cpp:159] Memory required for data: 20219360
I0505 06:25:32.849370  4393 layer_factory.hpp:77] Creating layer loss
I0505 06:25:32.849383  4393 net.cpp:94] Creating Layer loss
I0505 06:25:32.849387  4393 net.cpp:435] loss <- ip3
I0505 06:25:32.849391  4393 net.cpp:435] loss <- label
I0505 06:25:32.849397  4393 net.cpp:409] loss -> loss
I0505 06:25:32.849431  4393 net.cpp:144] Setting up loss
…
