…
I0503 09:18:15.068241 19741 net.cpp:323] The NetState phase (0) differed from the phase (1) specified by a rule in layer intercept
I0503 09:18:15.068259 19741 net.cpp:323] The NetState phase (0) differed from the phase (1) specified by a rule in layer loss
I0503 09:18:15.068348 19741 net.cpp:52] Initializing net from parameters: 
state {
  phase: TRAIN
}
layer {
  name: "parameters"
  type: "HDF5Data"
  top: "data"
  top: "label"
  include {
    phase: TRAIN
  }
  hdf5_data_param {
    source: "/home/purduethu/scratch/radon/d/deng106/CNNStatisticalModel/distributions/input/5_distributions_400_sample_size_train-parameters-path.txt"
    batch_size: 20
  }
}
layer {
  name: "conv1"
  type: "Convolution"
  bottom: "data"
  top: "conv1"
  param {
    lr_mult: 1
  }
  param {
    lr_mult: 2
  }
  convolution_param {
    num_output: 64
    pad: 2
    kernel_size: 5
    stride: 1
    weight_filler {
      type: "gaussian"
      std: 0.0001
    }
    bias_filler {
      type: "constant"
    }
  }
}
layer {
  name: "relu1"
  type: "ReLU"
  bottom: "conv1"
  top: "conv1"
}
layer {
  name: "conv2"
  type: "Convolution"
  bottom: "conv1"
  top: "conv2"
  param {
    lr_mult: 1
  }
  param {
    lr_mult: 2
  }
  convolution_param {
    num_output: 64
    pad: 2
    kernel_size: 5
    stride: 1
    weight_filler {
      type: "gaussian"
      std: 0.01
    }
    bias_filler {
      type: "constant"
    }
  }
}
layer {
  name: "relu2"
  type: "ReLU"
  bottom: "conv2"
  top: "conv2"
}
layer {
  name: "pool2"
  type: "Pooling"
  bottom: "conv2"
  top: "pool2"
  pooling_param {
    pool: MAX
    kernel_size: 3
    stride: 2
  }
}
layer {
  name: "conv3"
  type: "Convolution"
  bottom: "pool2"
  top: "conv3"
  param {
    lr_mult: 1
  }
  param {
    lr_mult: 2
  }
  convolution_param {
    num_output: 128
    pad: 2
    kernel_size: 5
    stride: 1
    weight_filler {
      type: "gaussian"
      std: 0.01
    }
    bias_filler {
      type: "constant"
    }
  }
}
layer {
  name: "relu3"
  type: "ReLU"
  bottom: "conv3"
  top: "conv3"
}
layer {
  name: "conv4"
  type: "Convolution"
  bottom: "conv3"
  top: "conv4"
  param {
    lr_mult: 1
  }
  param {
    lr_mult: 2
  }
  convolution_param {
    num_output: 128
    pad: 2
    kernel_size: 5
    stride: 1
    weight_filler {
      type: "gaussian"
      std: 0.01
    }
    bias_filler {
      type: "constant"
    }
  }
}
layer {
  name: "relu4"
  type: "ReLU"
  bottom: "conv4"
  top: "conv4"
}
layer {
  name: "conv5"
  type: "Convolution"
  bottom: "conv4"
  top: "conv5"
  param {
    lr_mult: 1
  }
  param {
    lr_mult: 2
  }
  convolution_param {
    num_output: 128
    pad: 2
    kernel_size: 5
    stride: 1
    weight_filler {
      type: "gaussian"
      std: 0.01
    }
    bias_filler {
      type: "constant"
    }
  }
}
layer {
  name: "relu5"
  type: "ReLU"
  bottom: "conv5"
  top: "conv5"
}
layer {
  name: "pool5"
  type: "Pooling"
  bottom: "conv5"
  top: "pool5"
  pooling_param {
    pool: AVE
    kernel_size: 3
    stride: 2
  }
}
layer {
  name: "ip1"
  type: "InnerProduct"
  bottom: "pool5"
  top: "ip1"
  param {
    lr_mult: 1
  }
  param {
    lr_mult: 2
  }
  inner_product_param {
    num_output: 1024
    weight_filler {
      type: "gaussian"
      std: 0.1
    }
    bias_filler {
      type: "constant"
    }
  }
}
layer {
  name: "ip2"
  type: "InnerProduct"
  bottom: "ip1"
  top: "ip2"
  param {
    lr_mult: 1
  }
  param {
    lr_mult: 2
  }
  inner_product_param {
    num_output: 512
    weight_filler {
      type: "gaussian"
      std: 0.1
    }
    bias_filler {
      type: "constant"
    }
  }
}
layer {
  name: "ip3"
  type: "InnerProduct"
  bottom: "ip2"
  top: "ip3"
  param {
    lr_mult: 1
  }
  param {
    lr_mult: 2
  }
  inner_product_param {
    num_output: 1
    weight_filler {
      type: "gaussian"
      std: 0.1
    }
    bias_filler {
      type: "constant"
    }
  }
}
layer {
  name: "loss"
  type: "HuberLoss"
  bottom: "ip3"
  bottom: "label"
  top: "loss"
  include {
    phase: TRAIN
  }
}
I0503 09:18:15.068424 19741 layer_factory.hpp:77] Creating layer parameters
I0503 09:18:15.068439 19741 net.cpp:94] Creating Layer parameters
I0503 09:18:15.068444 19741 net.cpp:409] parameters -> data
I0503 09:18:15.068464 19741 net.cpp:409] parameters -> label
I0503 09:18:15.068473 19741 hdf5_data_layer.cpp:79] Loading list of HDF5 filenames from: /home/purduethu/scratch/radon/d/deng106/CNNStatisticalModel/distributions/input/5_distributions_400_sample_size_train-parameters-path.txt
I0503 09:18:15.068495 19741 hdf5_data_layer.cpp:93] Number of HDF5 files: 1
I0503 09:18:15.069000 19741 hdf5.cpp:32] Datatype class: H5T_FLOAT
I0503 09:18:15.131990 19741 net.cpp:144] Setting up parameters
I0503 09:18:15.132024 19741 net.cpp:151] Top shape: 20 1 20 20 (8000)
I0503 09:18:15.132030 19741 net.cpp:151] Top shape: 20 (20)
I0503 09:18:15.132033 19741 net.cpp:159] Memory required for data: 32080
I0503 09:18:15.132041 19741 layer_factory.hpp:77] Creating layer conv1
I0503 09:18:15.132066 19741 net.cpp:94] Creating Layer conv1
I0503 09:18:15.132071 19741 net.cpp:435] conv1 <- data
I0503 09:18:15.132082 19741 net.cpp:409] conv1 -> conv1
I0503 09:18:15.136950 19741 net.cpp:144] Setting up conv1
I0503 09:18:15.136966 19741 net.cpp:151] Top shape: 20 64 20 20 (512000)
I0503 09:18:15.136970 19741 net.cpp:159] Memory required for data: 2080080
I0503 09:18:15.136981 19741 layer_factory.hpp:77] Creating layer relu1
I0503 09:18:15.136989 19741 net.cpp:94] Creating Layer relu1
I0503 09:18:15.136993 19741 net.cpp:435] relu1 <- conv1
I0503 09:18:15.136998 19741 net.cpp:396] relu1 -> conv1 (in-place)
I0503 09:18:15.137013 19741 net.cpp:144] Setting up relu1
I0503 09:18:15.137018 19741 net.cpp:151] Top shape: 20 64 20 20 (512000)
I0503 09:18:15.137022 19741 net.cpp:159] Memory required for data: 4128080
I0503 09:18:15.137025 19741 layer_factory.hpp:77] Creating layer conv2
I0503 09:18:15.137033 19741 net.cpp:94] Creating Layer conv2
I0503 09:18:15.137037 19741 net.cpp:435] conv2 <- conv1
I0503 09:18:15.137042 19741 net.cpp:409] conv2 -> conv2
I0503 09:18:15.147877 19741 net.cpp:144] Setting up conv2
I0503 09:18:15.147892 19741 net.cpp:151] Top shape: 20 64 20 20 (512000)
I0503 09:18:15.147897 19741 net.cpp:159] Memory required for data: 6176080
I0503 09:18:15.147905 19741 layer_factory.hpp:77] Creating layer relu2
I0503 09:18:15.147912 19741 net.cpp:94] Creating Layer relu2
I0503 09:18:15.147915 19741 net.cpp:435] relu2 <- conv2
I0503 09:18:15.147920 19741 net.cpp:396] relu2 -> conv2 (in-place)
I0503 09:18:15.147927 19741 net.cpp:144] Setting up relu2
I0503 09:18:15.147933 19741 net.cpp:151] Top shape: 20 64 20 20 (512000)
I0503 09:18:15.147935 19741 net.cpp:159] Memory required for data: 8224080
I0503 09:18:15.147938 19741 layer_factory.hpp:77] Creating layer pool2
I0503 09:18:15.147946 19741 net.cpp:94] Creating Layer pool2
I0503 09:18:15.147956 19741 net.cpp:435] pool2 <- conv2
I0503 09:18:15.147963 19741 net.cpp:409] pool2 -> pool2
I0503 09:18:15.148005 19741 net.cpp:144] Setting up pool2
I0503 09:18:15.148013 19741 net.cpp:151] Top shape: 20 64 10 10 (128000)
I0503 09:18:15.148016 19741 net.cpp:159] Memory required for data: 8736080
I0503 09:18:15.148020 19741 layer_factory.hpp:77] Creating layer conv3
I0503 09:18:15.148028 19741 net.cpp:94] Creating Layer conv3
I0503 09:18:15.148032 19741 net.cpp:435] conv3 <- pool2
I0503 09:18:15.148037 19741 net.cpp:409] conv3 -> conv3
I0503 09:18:15.157765 19741 net.cpp:144] Setting up conv3
I0503 09:18:15.157780 19741 net.cpp:151] Top shape: 20 128 10 10 (256000)
I0503 09:18:15.157785 19741 net.cpp:159] Memory required for data: 9760080
I0503 09:18:15.157793 19741 layer_factory.hpp:77] Creating layer relu3
I0503 09:18:15.157799 19741 net.cpp:94] Creating Layer relu3
I0503 09:18:15.157804 19741 net.cpp:435] relu3 <- conv3
I0503 09:18:15.157809 19741 net.cpp:396] relu3 -> conv3 (in-place)
I0503 09:18:15.157815 19741 net.cpp:144] Setting up relu3
I0503 09:18:15.157820 19741 net.cpp:151] Top shape: 20 128 10 10 (256000)
I0503 09:18:15.157824 19741 net.cpp:159] Memory required for data: 10784080
I0503 09:18:15.157827 19741 layer_factory.hpp:77] Creating layer conv4
I0503 09:18:15.157835 19741 net.cpp:94] Creating Layer conv4
I0503 09:18:15.157840 19741 net.cpp:435] conv4 <- conv3
I0503 09:18:15.157845 19741 net.cpp:409] conv4 -> conv4
I0503 09:18:15.175693 19741 net.cpp:144] Setting up conv4
I0503 09:18:15.175709 19741 net.cpp:151] Top shape: 20 128 10 10 (256000)
I0503 09:18:15.175714 19741 net.cpp:159] Memory required for data: 11808080
I0503 09:18:15.175719 19741 layer_factory.hpp:77] Creating layer relu4
I0503 09:18:15.175726 19741 net.cpp:94] Creating Layer relu4
I0503 09:18:15.175730 19741 net.cpp:435] relu4 <- conv4
I0503 09:18:15.175734 19741 net.cpp:396] relu4 -> conv4 (in-place)
I0503 09:18:15.175742 19741 net.cpp:144] Setting up relu4
I0503 09:18:15.175746 19741 net.cpp:151] Top shape: 20 128 10 10 (256000)
I0503 09:18:15.175750 19741 net.cpp:159] Memory required for data: 12832080
I0503 09:18:15.175753 19741 layer_factory.hpp:77] Creating layer conv5
I0503 09:18:15.175761 19741 net.cpp:94] Creating Layer conv5
I0503 09:18:15.175765 19741 net.cpp:435] conv5 <- conv4
I0503 09:18:15.175770 19741 net.cpp:409] conv5 -> conv5
I0503 09:18:15.193240 19741 net.cpp:144] Setting up conv5
I0503 09:18:15.193256 19741 net.cpp:151] Top shape: 20 128 10 10 (256000)
I0503 09:18:15.193261 19741 net.cpp:159] Memory required for data: 13856080
I0503 09:18:15.193270 19741 layer_factory.hpp:77] Creating layer relu5
I0503 09:18:15.193276 19741 net.cpp:94] Creating Layer relu5
I0503 09:18:15.193280 19741 net.cpp:435] relu5 <- conv5
I0503 09:18:15.193285 19741 net.cpp:396] relu5 -> conv5 (in-place)
I0503 09:18:15.193292 19741 net.cpp:144] Setting up relu5
I0503 09:18:15.193297 19741 net.cpp:151] Top shape: 20 128 10 10 (256000)
I0503 09:18:15.193300 19741 net.cpp:159] Memory required for data: 14880080
I0503 09:18:15.193303 19741 layer_factory.hpp:77] Creating layer pool5
I0503 09:18:15.193308 19741 net.cpp:94] Creating Layer pool5
I0503 09:18:15.193312 19741 net.cpp:435] pool5 <- conv5
I0503 09:18:15.193316 19741 net.cpp:409] pool5 -> pool5
I0503 09:18:15.193351 19741 net.cpp:144] Setting up pool5
I0503 09:18:15.193359 19741 net.cpp:151] Top shape: 20 128 5 5 (64000)
I0503 09:18:15.193362 19741 net.cpp:159] Memory required for data: 15136080
I0503 09:18:15.193367 19741 layer_factory.hpp:77] Creating layer ip1
I0503 09:18:15.193375 19741 net.cpp:94] Creating Layer ip1
I0503 09:18:15.193379 19741 net.cpp:435] ip1 <- pool5
I0503 09:18:15.193384 19741 net.cpp:409] ip1 -> ip1
I0503 09:18:15.276325 19741 net.cpp:144] Setting up ip1
I0503 09:18:15.276360 19741 net.cpp:151] Top shape: 20 1024 (20480)
I0503 09:18:15.276363 19741 net.cpp:159] Memory required for data: 15218000
I0503 09:18:15.276371 19741 layer_factory.hpp:77] Creating layer ip2
I0503 09:18:15.276381 19741 net.cpp:94] Creating Layer ip2
I0503 09:18:15.276386 19741 net.cpp:435] ip2 <- ip1
I0503 09:18:15.276399 19741 net.cpp:409] ip2 -> ip2
I0503 09:18:15.289937 19741 net.cpp:144] Setting up ip2
I0503 09:18:15.289952 19741 net.cpp:151] Top shape: 20 512 (10240)
I0503 09:18:15.289955 19741 net.cpp:159] Memory required for data: 15258960
I0503 09:18:15.289961 19741 layer_factory.hpp:77] Creating layer ip3
I0503 09:18:15.289968 19741 net.cpp:94] Creating Layer ip3
I0503 09:18:15.289973 19741 net.cpp:435] ip3 <- ip2
I0503 09:18:15.289978 19741 net.cpp:409] ip3 -> ip3
I0503 09:18:15.290055 19741 net.cpp:144] Setting up ip3
I0503 09:18:15.290071 19741 net.cpp:151] Top shape: 20 1 (20)
I0503 09:18:15.290076 19741 net.cpp:159] Memory required for data: 15259040
I0503 09:18:15.290081 19741 layer_factory.hpp:77] Creating layer loss
I0503 09:18:15.290089 19741 net.cpp:94] Creating Layer loss
I0503 09:18:15.290093 19741 net.cpp:435] loss <- ip3
I0503 09:18:15.290097 19741 net.cpp:435] loss <- label
I0503 09:18:15.290103 19741 net.cpp:409] loss -> loss
I0503 09:18:15.290139 19741 net.cpp:144] Setting up loss
…
