…
I0506 23:31:34.031944 28129 net.cpp:323] The NetState phase (0) differed from the phase (1) specified by a rule in layer intercept
I0506 23:31:34.031960 28129 net.cpp:323] The NetState phase (0) differed from the phase (1) specified by a rule in layer loss
I0506 23:31:34.032044 28129 net.cpp:52] Initializing net from parameters: 
state {
  phase: TRAIN
}
layer {
  name: "parameters"
  type: "HDF5Data"
  top: "data"
  top: "label"
  include {
    phase: TRAIN
  }
  hdf5_data_param {
    source: "/home/purduethu/scratch/radon/d/deng106/CNNStatisticalModel/distributions/input/50_distributions_100_sample_size_train-parameters-path.txt"
    batch_size: 20
  }
}
layer {
  name: "conv1"
  type: "Convolution"
  bottom: "data"
  top: "conv1"
  param {
    lr_mult: 1
  }
  param {
    lr_mult: 2
  }
  convolution_param {
    num_output: 64
    pad: 2
    kernel_size: 5
    stride: 1
    weight_filler {
      type: "gaussian"
      std: 0.0001
    }
    bias_filler {
      type: "constant"
    }
  }
}
layer {
  name: "relu1"
  type: "ReLU"
  bottom: "conv1"
  top: "conv1"
}
layer {
  name: "conv2"
  type: "Convolution"
  bottom: "conv1"
  top: "conv2"
  param {
    lr_mult: 1
  }
  param {
    lr_mult: 2
  }
  convolution_param {
    num_output: 64
    pad: 2
    kernel_size: 5
    stride: 1
    weight_filler {
      type: "gaussian"
      std: 0.01
    }
    bias_filler {
      type: "constant"
    }
  }
}
layer {
  name: "relu2"
  type: "ReLU"
  bottom: "conv2"
  top: "conv2"
}
layer {
  name: "pool2"
  type: "Pooling"
  bottom: "conv2"
  top: "pool2"
  pooling_param {
    pool: MAX
    kernel_size: 3
    stride: 2
  }
}
layer {
  name: "conv3"
  type: "Convolution"
  bottom: "pool2"
  top: "conv3"
  param {
    lr_mult: 1
  }
  param {
    lr_mult: 2
  }
  convolution_param {
    num_output: 64
    pad: 2
    kernel_size: 5
    stride: 1
    weight_filler {
      type: "gaussian"
      std: 0.01
    }
    bias_filler {
      type: "constant"
    }
  }
}
layer {
  name: "relu3"
  type: "ReLU"
  bottom: "conv3"
  top: "conv3"
}
layer {
  name: "conv4"
  type: "Convolution"
  bottom: "conv3"
  top: "conv4"
  param {
    lr_mult: 1
  }
  param {
    lr_mult: 2
  }
  convolution_param {
    num_output: 64
    pad: 2
    kernel_size: 5
    stride: 1
    weight_filler {
      type: "gaussian"
      std: 0.01
    }
    bias_filler {
      type: "constant"
    }
  }
}
layer {
  name: "relu4"
  type: "ReLU"
  bottom: "conv4"
  top: "conv4"
}
layer {
  name: "conv5"
  type: "Convolution"
  bottom: "conv4"
  top: "conv5"
  param {
    lr_mult: 1
  }
  param {
    lr_mult: 2
  }
  convolution_param {
    num_output: 64
    pad: 2
    kernel_size: 5
    stride: 1
    weight_filler {
      type: "gaussian"
      std: 0.01
    }
    bias_filler {
      type: "constant"
    }
  }
}
layer {
  name: "relu5"
  type: "ReLU"
  bottom: "conv5"
  top: "conv5"
}
layer {
  name: "pool5"
  type: "Pooling"
  bottom: "conv5"
  top: "pool5"
  pooling_param {
    pool: AVE
    kernel_size: 3
    stride: 2
  }
}
layer {
  name: "ip1"
  type: "InnerProduct"
  bottom: "pool5"
  top: "ip1"
  param {
    lr_mult: 1
  }
  param {
    lr_mult: 2
  }
  inner_product_param {
    num_output: 64
    weight_filler {
      type: "gaussian"
      std: 0.1
    }
    bias_filler {
      type: "constant"
    }
  }
}
layer {
  name: "ip2"
  type: "InnerProduct"
  bottom: "ip1"
  top: "ip2"
  param {
    lr_mult: 1
  }
  param {
    lr_mult: 2
  }
  inner_product_param {
    num_output: 64
    weight_filler {
      type: "gaussian"
      std: 0.1
    }
    bias_filler {
      type: "constant"
    }
  }
}
layer {
  name: "ip3"
  type: "InnerProduct"
  bottom: "ip2"
  top: "ip3"
  param {
    lr_mult: 1
  }
  param {
    lr_mult: 2
  }
  inner_product_param {
    num_output: 1
    weight_filler {
      type: "gaussian"
      std: 0.1
    }
    bias_filler {
      type: "constant"
    }
  }
}
layer {
  name: "loss"
  type: "HuberLoss"
  bottom: "ip3"
  bottom: "label"
  top: "loss"
  include {
    phase: TRAIN
  }
}
I0506 23:31:34.032101 28129 layer_factory.hpp:77] Creating layer parameters
I0506 23:31:34.032114 28129 net.cpp:94] Creating Layer parameters
I0506 23:31:34.032119 28129 net.cpp:409] parameters -> data
I0506 23:31:34.032132 28129 net.cpp:409] parameters -> label
I0506 23:31:34.032140 28129 hdf5_data_layer.cpp:79] Loading list of HDF5 filenames from: /home/purduethu/scratch/radon/d/deng106/CNNStatisticalModel/distributions/input/50_distributions_100_sample_size_train-parameters-path.txt
I0506 23:31:34.032155 28129 hdf5_data_layer.cpp:93] Number of HDF5 files: 1
I0506 23:31:34.032726 28129 hdf5.cpp:32] Datatype class: H5T_FLOAT
I0506 23:31:34.194900 28129 net.cpp:144] Setting up parameters
I0506 23:31:34.194928 28129 net.cpp:151] Top shape: 20 1 10 10 (2000)
I0506 23:31:34.194933 28129 net.cpp:151] Top shape: 20 (20)
I0506 23:31:34.194936 28129 net.cpp:159] Memory required for data: 8080
I0506 23:31:34.194942 28129 layer_factory.hpp:77] Creating layer conv1
I0506 23:31:34.194957 28129 net.cpp:94] Creating Layer conv1
I0506 23:31:34.194962 28129 net.cpp:435] conv1 <- data
I0506 23:31:34.194968 28129 net.cpp:409] conv1 -> conv1
I0506 23:31:34.199133 28129 net.cpp:144] Setting up conv1
I0506 23:31:34.199148 28129 net.cpp:151] Top shape: 20 64 10 10 (128000)
I0506 23:31:34.199152 28129 net.cpp:159] Memory required for data: 520080
I0506 23:31:34.199162 28129 layer_factory.hpp:77] Creating layer relu1
I0506 23:31:34.199170 28129 net.cpp:94] Creating Layer relu1
I0506 23:31:34.199174 28129 net.cpp:435] relu1 <- conv1
I0506 23:31:34.199178 28129 net.cpp:396] relu1 -> conv1 (in-place)
I0506 23:31:34.199187 28129 net.cpp:144] Setting up relu1
I0506 23:31:34.199192 28129 net.cpp:151] Top shape: 20 64 10 10 (128000)
I0506 23:31:34.199194 28129 net.cpp:159] Memory required for data: 1032080
I0506 23:31:34.199198 28129 layer_factory.hpp:77] Creating layer conv2
I0506 23:31:34.199205 28129 net.cpp:94] Creating Layer conv2
I0506 23:31:34.199208 28129 net.cpp:435] conv2 <- conv1
I0506 23:31:34.199213 28129 net.cpp:409] conv2 -> conv2
I0506 23:31:34.205363 28129 net.cpp:144] Setting up conv2
I0506 23:31:34.205376 28129 net.cpp:151] Top shape: 20 64 10 10 (128000)
I0506 23:31:34.205380 28129 net.cpp:159] Memory required for data: 1544080
I0506 23:31:34.205389 28129 layer_factory.hpp:77] Creating layer relu2
I0506 23:31:34.205395 28129 net.cpp:94] Creating Layer relu2
I0506 23:31:34.205399 28129 net.cpp:435] relu2 <- conv2
I0506 23:31:34.205404 28129 net.cpp:396] relu2 -> conv2 (in-place)
I0506 23:31:34.205410 28129 net.cpp:144] Setting up relu2
I0506 23:31:34.205415 28129 net.cpp:151] Top shape: 20 64 10 10 (128000)
I0506 23:31:34.205418 28129 net.cpp:159] Memory required for data: 2056080
I0506 23:31:34.205421 28129 layer_factory.hpp:77] Creating layer pool2
I0506 23:31:34.205427 28129 net.cpp:94] Creating Layer pool2
I0506 23:31:34.205430 28129 net.cpp:435] pool2 <- conv2
I0506 23:31:34.205435 28129 net.cpp:409] pool2 -> pool2
I0506 23:31:34.205484 28129 net.cpp:144] Setting up pool2
I0506 23:31:34.205492 28129 net.cpp:151] Top shape: 20 64 5 5 (32000)
I0506 23:31:34.205495 28129 net.cpp:159] Memory required for data: 2184080
I0506 23:31:34.205499 28129 layer_factory.hpp:77] Creating layer conv3
I0506 23:31:34.205507 28129 net.cpp:94] Creating Layer conv3
I0506 23:31:34.205510 28129 net.cpp:435] conv3 <- pool2
I0506 23:31:34.205520 28129 net.cpp:409] conv3 -> conv3
I0506 23:31:34.210417 28129 net.cpp:144] Setting up conv3
I0506 23:31:34.210430 28129 net.cpp:151] Top shape: 20 64 5 5 (32000)
I0506 23:31:34.210434 28129 net.cpp:159] Memory required for data: 2312080
I0506 23:31:34.210443 28129 layer_factory.hpp:77] Creating layer relu3
I0506 23:31:34.210448 28129 net.cpp:94] Creating Layer relu3
I0506 23:31:34.210453 28129 net.cpp:435] relu3 <- conv3
I0506 23:31:34.210456 28129 net.cpp:396] relu3 -> conv3 (in-place)
I0506 23:31:34.210464 28129 net.cpp:144] Setting up relu3
I0506 23:31:34.210469 28129 net.cpp:151] Top shape: 20 64 5 5 (32000)
I0506 23:31:34.210471 28129 net.cpp:159] Memory required for data: 2440080
I0506 23:31:34.210474 28129 layer_factory.hpp:77] Creating layer conv4
I0506 23:31:34.210482 28129 net.cpp:94] Creating Layer conv4
I0506 23:31:34.210486 28129 net.cpp:435] conv4 <- conv3
I0506 23:31:34.210490 28129 net.cpp:409] conv4 -> conv4
I0506 23:31:34.214907 28129 net.cpp:144] Setting up conv4
I0506 23:31:34.214920 28129 net.cpp:151] Top shape: 20 64 5 5 (32000)
I0506 23:31:34.214925 28129 net.cpp:159] Memory required for data: 2568080
I0506 23:31:34.214931 28129 layer_factory.hpp:77] Creating layer relu4
I0506 23:31:34.214936 28129 net.cpp:94] Creating Layer relu4
I0506 23:31:34.214941 28129 net.cpp:435] relu4 <- conv4
I0506 23:31:34.214946 28129 net.cpp:396] relu4 -> conv4 (in-place)
I0506 23:31:34.214951 28129 net.cpp:144] Setting up relu4
I0506 23:31:34.214956 28129 net.cpp:151] Top shape: 20 64 5 5 (32000)
I0506 23:31:34.214959 28129 net.cpp:159] Memory required for data: 2696080
I0506 23:31:34.214962 28129 layer_factory.hpp:77] Creating layer conv5
I0506 23:31:34.214969 28129 net.cpp:94] Creating Layer conv5
I0506 23:31:34.214973 28129 net.cpp:435] conv5 <- conv4
I0506 23:31:34.214978 28129 net.cpp:409] conv5 -> conv5
I0506 23:31:34.219837 28129 net.cpp:144] Setting up conv5
I0506 23:31:34.219851 28129 net.cpp:151] Top shape: 20 64 5 5 (32000)
I0506 23:31:34.219856 28129 net.cpp:159] Memory required for data: 2824080
I0506 23:31:34.219863 28129 layer_factory.hpp:77] Creating layer relu5
I0506 23:31:34.219868 28129 net.cpp:94] Creating Layer relu5
I0506 23:31:34.219872 28129 net.cpp:435] relu5 <- conv5
I0506 23:31:34.219877 28129 net.cpp:396] relu5 -> conv5 (in-place)
I0506 23:31:34.219883 28129 net.cpp:144] Setting up relu5
I0506 23:31:34.219888 28129 net.cpp:151] Top shape: 20 64 5 5 (32000)
I0506 23:31:34.219892 28129 net.cpp:159] Memory required for data: 2952080
I0506 23:31:34.219894 28129 layer_factory.hpp:77] Creating layer pool5
I0506 23:31:34.219900 28129 net.cpp:94] Creating Layer pool5
I0506 23:31:34.219903 28129 net.cpp:435] pool5 <- conv5
I0506 23:31:34.219907 28129 net.cpp:409] pool5 -> pool5
I0506 23:31:34.219944 28129 net.cpp:144] Setting up pool5
I0506 23:31:34.219950 28129 net.cpp:151] Top shape: 20 64 2 2 (5120)
I0506 23:31:34.219954 28129 net.cpp:159] Memory required for data: 2972560
I0506 23:31:34.219957 28129 layer_factory.hpp:77] Creating layer ip1
I0506 23:31:34.219967 28129 net.cpp:94] Creating Layer ip1
I0506 23:31:34.219971 28129 net.cpp:435] ip1 <- pool5
I0506 23:31:34.219975 28129 net.cpp:409] ip1 -> ip1
I0506 23:31:34.221280 28129 net.cpp:144] Setting up ip1
I0506 23:31:34.221293 28129 net.cpp:151] Top shape: 20 64 (1280)
I0506 23:31:34.221297 28129 net.cpp:159] Memory required for data: 2977680
I0506 23:31:34.221303 28129 layer_factory.hpp:77] Creating layer ip2
I0506 23:31:34.221309 28129 net.cpp:94] Creating Layer ip2
I0506 23:31:34.221313 28129 net.cpp:435] ip2 <- ip1
I0506 23:31:34.221318 28129 net.cpp:409] ip2 -> ip2
I0506 23:31:34.221521 28129 net.cpp:144] Setting up ip2
I0506 23:31:34.221529 28129 net.cpp:151] Top shape: 20 64 (1280)
I0506 23:31:34.221532 28129 net.cpp:159] Memory required for data: 2982800
I0506 23:31:34.221537 28129 layer_factory.hpp:77] Creating layer ip3
I0506 23:31:34.221544 28129 net.cpp:94] Creating Layer ip3
I0506 23:31:34.221546 28129 net.cpp:435] ip3 <- ip2
I0506 23:31:34.221551 28129 net.cpp:409] ip3 -> ip3
I0506 23:31:34.221657 28129 net.cpp:144] Setting up ip3
I0506 23:31:34.221663 28129 net.cpp:151] Top shape: 20 1 (20)
I0506 23:31:34.221667 28129 net.cpp:159] Memory required for data: 2982880
I0506 23:31:34.221671 28129 layer_factory.hpp:77] Creating layer loss
I0506 23:31:34.221683 28129 net.cpp:94] Creating Layer loss
I0506 23:31:34.221686 28129 net.cpp:435] loss <- ip3
I0506 23:31:34.221690 28129 net.cpp:435] loss <- label
I0506 23:31:34.221694 28129 net.cpp:409] loss -> loss
I0506 23:31:34.221743 28129 net.cpp:144] Setting up loss
…
I0506 23:31:34.282374 28129 net.cpp:323] The NetState phase (0) differed from the phase (1) specified by a rule in layer intercept
I0506 23:31:34.282390 28129 net.cpp:323] The NetState phase (0) differed from the phase (1) specified by a rule in layer accuracy
I0506 23:31:34.282480 28129 net.cpp:52] Initializing net from parameters: 
state {
  phase: TRAIN
}
layer {
  name: "parameters"
  type: "HDF5Data"
  top: "data"
  top: "label"
  include {
    phase: TRAIN
  }
  hdf5_data_param {
    source: "/home/purduethu/scratch/radon/d/deng106/CNNStatisticalModel/distributions/input/50_distributions_100_sample_size_train-distributions-path.txt"
    batch_size: 20
  }
}
layer {
  name: "conv1"
  type: "Convolution"
  bottom: "data"
  top: "conv1"
  param {
    lr_mult: 1
  }
  param {
    lr_mult: 2
  }
  convolution_param {
    num_output: 64
    pad: 2
    kernel_size: 5
    stride: 1
    weight_filler {
      type: "gaussian"
      std: 0.0001
    }
    bias_filler {
      type: "constant"
    }
  }
}
layer {
  name: "relu1"
  type: "ReLU"
  bottom: "conv1"
  top: "conv1"
}
layer {
  name: "conv2"
  type: "Convolution"
  bottom: "conv1"
  top: "conv2"
  param {
    lr_mult: 1
  }
  param {
    lr_mult: 2
  }
  convolution_param {
    num_output: 64
    pad: 2
    kernel_size: 5
    stride: 1
    weight_filler {
      type: "gaussian"
      std: 0.01
    }
    bias_filler {
      type: "constant"
    }
  }
}
layer {
  name: "relu2"
  type: "ReLU"
  bottom: "conv2"
  top: "conv2"
}
layer {
  name: "pool2"
  type: "Pooling"
  bottom: "conv2"
  top: "pool2"
  pooling_param {
    pool: MAX
    kernel_size: 3
    stride: 2
  }
}
layer {
  name: "conv3"
  type: "Convolution"
  bottom: "pool2"
  top: "conv3"
  param {
    lr_mult: 1
  }
  param {
    lr_mult: 2
  }
  convolution_param {
    num_output: 64
    pad: 2
    kernel_size: 5
    stride: 1
    weight_filler {
      type: "gaussian"
      std: 0.01
    }
    bias_filler {
      type: "constant"
    }
  }
}
layer {
  name: "relu3"
  type: "ReLU"
  bottom: "conv3"
  top: "conv3"
}
layer {
  name: "conv4"
  type: "Convolution"
  bottom: "conv3"
  top: "conv4"
  param {
    lr_mult: 1
  }
  param {
    lr_mult: 2
  }
  convolution_param {
    num_output: 64
    pad: 2
    kernel_size: 5
    stride: 1
    weight_filler {
      type: "gaussian"
      std: 0.01
    }
    bias_filler {
      type: "constant"
    }
  }
}
layer {
  name: "relu4"
  type: "ReLU"
  bottom: "conv4"
  top: "conv4"
}
layer {
  name: "conv5"
  type: "Convolution"
  bottom: "conv4"
  top: "conv5"
  param {
    lr_mult: 1
  }
  param {
    lr_mult: 2
  }
  convolution_param {
    num_output: 64
    pad: 2
    kernel_size: 5
    stride: 1
    weight_filler {
      type: "gaussian"
      std: 0.01
    }
    bias_filler {
      type: "constant"
    }
  }
}
layer {
  name: "relu5"
  type: "ReLU"
  bottom: "conv5"
  top: "conv5"
}
layer {
  name: "pool5"
  type: "Pooling"
  bottom: "conv5"
  top: "pool5"
  pooling_param {
    pool: AVE
    kernel_size: 3
    stride: 2
  }
}
layer {
  name: "ip1"
  type: "InnerProduct"
  bottom: "pool5"
  top: "ip1"
  param {
    lr_mult: 1
  }
  param {
    lr_mult: 2
  }
  inner_product_param {
    num_output: 64
    weight_filler {
      type: "gaussian"
      std: 0.1
    }
    bias_filler {
      type: "constant"
    }
  }
}
layer {
  name: "ip2"
  type: "InnerProduct"
  bottom: "ip1"
  top: "ip2"
  param {
    lr_mult: 1
  }
  param {
    lr_mult: 2
  }
  inner_product_param {
    num_output: 64
    weight_filler {
      type: "gaussian"
      std: 0.1
    }
    bias_filler {
      type: "constant"
    }
  }
}
layer {
  name: "ip3"
  type: "InnerProduct"
  bottom: "ip2"
  top: "ip3"
  param {
    lr_mult: 1
  }
  param {
    lr_mult: 2
  }
  inner_product_param {
    num_output: 50
    weight_filler {
      type: "gaussian"
      std: 0.1
    }
    bias_filler {
      type: "constant"
    }
  }
}
layer {
  name: "loss"
  type: "SoftmaxWithLoss"
  bottom: "ip3"
  bottom: "label"
  top: "loss"
}
I0506 23:31:34.282531 28129 layer_factory.hpp:77] Creating layer parameters
I0506 23:31:34.282539 28129 net.cpp:94] Creating Layer parameters
I0506 23:31:34.282543 28129 net.cpp:409] parameters -> data
I0506 23:31:34.282551 28129 net.cpp:409] parameters -> label
I0506 23:31:34.282557 28129 hdf5_data_layer.cpp:79] Loading list of HDF5 filenames from: /home/purduethu/scratch/radon/d/deng106/CNNStatisticalModel/distributions/input/50_distributions_100_sample_size_train-distributions-path.txt
I0506 23:31:34.282572 28129 hdf5_data_layer.cpp:93] Number of HDF5 files: 1
I0506 23:31:34.437654 28129 hdf5.cpp:35] Datatype class: H5T_INTEGER
I0506 23:31:34.440757 28129 net.cpp:144] Setting up parameters
I0506 23:31:34.440778 28129 net.cpp:151] Top shape: 20 1 10 10 (2000)
I0506 23:31:34.440783 28129 net.cpp:151] Top shape: 20 (20)
I0506 23:31:34.440786 28129 net.cpp:159] Memory required for data: 8080
I0506 23:31:34.440793 28129 layer_factory.hpp:77] Creating layer conv1
I0506 23:31:34.440809 28129 net.cpp:94] Creating Layer conv1
I0506 23:31:34.440814 28129 net.cpp:435] conv1 <- data
I0506 23:31:34.440819 28129 net.cpp:409] conv1 -> conv1
I0506 23:31:34.442620 28129 net.cpp:144] Setting up conv1
I0506 23:31:34.442633 28129 net.cpp:151] Top shape: 20 64 10 10 (128000)
I0506 23:31:34.442637 28129 net.cpp:159] Memory required for data: 520080
I0506 23:31:34.442647 28129 layer_factory.hpp:77] Creating layer relu1
I0506 23:31:34.442654 28129 net.cpp:94] Creating Layer relu1
I0506 23:31:34.442658 28129 net.cpp:435] relu1 <- conv1
I0506 23:31:34.442662 28129 net.cpp:396] relu1 -> conv1 (in-place)
I0506 23:31:34.442669 28129 net.cpp:144] Setting up relu1
I0506 23:31:34.442674 28129 net.cpp:151] Top shape: 20 64 10 10 (128000)
I0506 23:31:34.442677 28129 net.cpp:159] Memory required for data: 1032080
I0506 23:31:34.442680 28129 layer_factory.hpp:77] Creating layer conv2
I0506 23:31:34.442688 28129 net.cpp:94] Creating Layer conv2
I0506 23:31:34.442692 28129 net.cpp:435] conv2 <- conv1
I0506 23:31:34.442697 28129 net.cpp:409] conv2 -> conv2
I0506 23:31:34.448148 28129 net.cpp:144] Setting up conv2
I0506 23:31:34.448161 28129 net.cpp:151] Top shape: 20 64 10 10 (128000)
I0506 23:31:34.448165 28129 net.cpp:159] Memory required for data: 1544080
I0506 23:31:34.448173 28129 layer_factory.hpp:77] Creating layer relu2
I0506 23:31:34.448180 28129 net.cpp:94] Creating Layer relu2
I0506 23:31:34.448184 28129 net.cpp:435] relu2 <- conv2
I0506 23:31:34.448189 28129 net.cpp:396] relu2 -> conv2 (in-place)
I0506 23:31:34.448195 28129 net.cpp:144] Setting up relu2
I0506 23:31:34.448199 28129 net.cpp:151] Top shape: 20 64 10 10 (128000)
I0506 23:31:34.448202 28129 net.cpp:159] Memory required for data: 2056080
I0506 23:31:34.448205 28129 layer_factory.hpp:77] Creating layer pool2
I0506 23:31:34.448212 28129 net.cpp:94] Creating Layer pool2
I0506 23:31:34.448215 28129 net.cpp:435] pool2 <- conv2
I0506 23:31:34.448220 28129 net.cpp:409] pool2 -> pool2
I0506 23:31:34.448267 28129 net.cpp:144] Setting up pool2
I0506 23:31:34.448274 28129 net.cpp:151] Top shape: 20 64 5 5 (32000)
I0506 23:31:34.448278 28129 net.cpp:159] Memory required for data: 2184080
I0506 23:31:34.448282 28129 layer_factory.hpp:77] Creating layer conv3
I0506 23:31:34.448289 28129 net.cpp:94] Creating Layer conv3
I0506 23:31:34.448292 28129 net.cpp:435] conv3 <- pool2
I0506 23:31:34.448297 28129 net.cpp:409] conv3 -> conv3
I0506 23:31:34.454035 28129 net.cpp:144] Setting up conv3
I0506 23:31:34.454047 28129 net.cpp:151] Top shape: 20 64 5 5 (32000)
I0506 23:31:34.454051 28129 net.cpp:159] Memory required for data: 2312080
I0506 23:31:34.454059 28129 layer_factory.hpp:77] Creating layer relu3
I0506 23:31:34.454066 28129 net.cpp:94] Creating Layer relu3
I0506 23:31:34.454069 28129 net.cpp:435] relu3 <- conv3
I0506 23:31:34.454074 28129 net.cpp:396] relu3 -> conv3 (in-place)
I0506 23:31:34.454080 28129 net.cpp:144] Setting up relu3
I0506 23:31:34.454085 28129 net.cpp:151] Top shape: 20 64 5 5 (32000)
I0506 23:31:34.454094 28129 net.cpp:159] Memory required for data: 2440080
I0506 23:31:34.454098 28129 layer_factory.hpp:77] Creating layer conv4
I0506 23:31:34.454107 28129 net.cpp:94] Creating Layer conv4
I0506 23:31:34.454110 28129 net.cpp:435] conv4 <- conv3
I0506 23:31:34.454115 28129 net.cpp:409] conv4 -> conv4
I0506 23:31:34.459048 28129 net.cpp:144] Setting up conv4
I0506 23:31:34.459060 28129 net.cpp:151] Top shape: 20 64 5 5 (32000)
I0506 23:31:34.459064 28129 net.cpp:159] Memory required for data: 2568080
I0506 23:31:34.459070 28129 layer_factory.hpp:77] Creating layer relu4
I0506 23:31:34.459076 28129 net.cpp:94] Creating Layer relu4
I0506 23:31:34.459080 28129 net.cpp:435] relu4 <- conv4
I0506 23:31:34.459084 28129 net.cpp:396] relu4 -> conv4 (in-place)
I0506 23:31:34.459091 28129 net.cpp:144] Setting up relu4
I0506 23:31:34.459095 28129 net.cpp:151] Top shape: 20 64 5 5 (32000)
I0506 23:31:34.459098 28129 net.cpp:159] Memory required for data: 2696080
I0506 23:31:34.459101 28129 layer_factory.hpp:77] Creating layer conv5
I0506 23:31:34.459110 28129 net.cpp:94] Creating Layer conv5
I0506 23:31:34.459113 28129 net.cpp:435] conv5 <- conv4
I0506 23:31:34.459117 28129 net.cpp:409] conv5 -> conv5
I0506 23:31:34.463610 28129 net.cpp:144] Setting up conv5
I0506 23:31:34.463624 28129 net.cpp:151] Top shape: 20 64 5 5 (32000)
I0506 23:31:34.463627 28129 net.cpp:159] Memory required for data: 2824080
I0506 23:31:34.463636 28129 layer_factory.hpp:77] Creating layer relu5
I0506 23:31:34.463641 28129 net.cpp:94] Creating Layer relu5
I0506 23:31:34.463645 28129 net.cpp:435] relu5 <- conv5
I0506 23:31:34.463650 28129 net.cpp:396] relu5 -> conv5 (in-place)
I0506 23:31:34.463656 28129 net.cpp:144] Setting up relu5
I0506 23:31:34.463661 28129 net.cpp:151] Top shape: 20 64 5 5 (32000)
I0506 23:31:34.463665 28129 net.cpp:159] Memory required for data: 2952080
I0506 23:31:34.463667 28129 layer_factory.hpp:77] Creating layer pool5
I0506 23:31:34.463672 28129 net.cpp:94] Creating Layer pool5
I0506 23:31:34.463675 28129 net.cpp:435] pool5 <- conv5
I0506 23:31:34.463680 28129 net.cpp:409] pool5 -> pool5
I0506 23:31:34.463713 28129 net.cpp:144] Setting up pool5
I0506 23:31:34.463721 28129 net.cpp:151] Top shape: 20 64 2 2 (5120)
I0506 23:31:34.463723 28129 net.cpp:159] Memory required for data: 2972560
I0506 23:31:34.463727 28129 layer_factory.hpp:77] Creating layer ip1
I0506 23:31:34.463733 28129 net.cpp:94] Creating Layer ip1
I0506 23:31:34.463737 28129 net.cpp:435] ip1 <- pool5
I0506 23:31:34.463742 28129 net.cpp:409] ip1 -> ip1
I0506 23:31:34.464251 28129 net.cpp:144] Setting up ip1
I0506 23:31:34.464257 28129 net.cpp:151] Top shape: 20 64 (1280)
I0506 23:31:34.464262 28129 net.cpp:159] Memory required for data: 2977680
I0506 23:31:34.464267 28129 layer_factory.hpp:77] Creating layer ip2
I0506 23:31:34.464272 28129 net.cpp:94] Creating Layer ip2
I0506 23:31:34.464275 28129 net.cpp:435] ip2 <- ip1
I0506 23:31:34.464280 28129 net.cpp:409] ip2 -> ip2
I0506 23:31:34.464493 28129 net.cpp:144] Setting up ip2
I0506 23:31:34.464500 28129 net.cpp:151] Top shape: 20 64 (1280)
I0506 23:31:34.464504 28129 net.cpp:159] Memory required for data: 2982800
I0506 23:31:34.464509 28129 layer_factory.hpp:77] Creating layer ip3
I0506 23:31:34.464514 28129 net.cpp:94] Creating Layer ip3
I0506 23:31:34.464517 28129 net.cpp:435] ip3 <- ip2
I0506 23:31:34.464522 28129 net.cpp:409] ip3 -> ip3
I0506 23:31:34.464720 28129 net.cpp:144] Setting up ip3
I0506 23:31:34.464728 28129 net.cpp:151] Top shape: 20 50 (1000)
I0506 23:31:34.464731 28129 net.cpp:159] Memory required for data: 2986800
I0506 23:31:34.464736 28129 layer_factory.hpp:77] Creating layer loss
I0506 23:31:34.464743 28129 net.cpp:94] Creating Layer loss
I0506 23:31:34.464746 28129 net.cpp:435] loss <- ip3
I0506 23:31:34.464751 28129 net.cpp:435] loss <- label
I0506 23:31:34.464756 28129 net.cpp:409] loss -> loss
I0506 23:31:34.464761 28129 layer_factory.hpp:77] Creating layer loss
…
I0506 23:31:34.466096 28129 solver.cpp:181] Creating test net (#0) specified by net file: ./protocol/dis_50_100_dimension.protocol_distribution
I0506 23:31:34.466122 28129 net.cpp:323] The NetState phase (1) differed from the phase (0) specified by a rule in layer parameters
I0506 23:31:34.466219 28129 net.cpp:52] Initializing net from parameters: 
state {
  phase: TEST
}
layer {
  name: "intercept"
  type: "HDF5Data"
  top: "data"
  top: "label"
  include {
    phase: TEST
  }
  hdf5_data_param {
    source: "/home/purduethu/scratch/radon/d/deng106/CNNStatisticalModel/distributions/input/50_distributions_100_sample_size_test-distributions-path.txt"
    batch_size: 20
  }
}
layer {
  name: "conv1"
  type: "Convolution"
  bottom: "data"
  top: "conv1"
  param {
    lr_mult: 1
  }
  param {
    lr_mult: 2
  }
  convolution_param {
    num_output: 64
    pad: 2
    kernel_size: 5
    stride: 1
    weight_filler {
      type: "gaussian"
      std: 0.0001
    }
    bias_filler {
      type: "constant"
    }
  }
}
layer {
  name: "relu1"
  type: "ReLU"
  bottom: "conv1"
  top: "conv1"
}
layer {
  name: "conv2"
  type: "Convolution"
  bottom: "conv1"
  top: "conv2"
  param {
    lr_mult: 1
  }
  param {
    lr_mult: 2
  }
  convolution_param {
    num_output: 64
    pad: 2
    kernel_size: 5
    stride: 1
    weight_filler {
      type: "gaussian"
      std: 0.01
    }
    bias_filler {
      type: "constant"
    }
  }
}
layer {
  name: "relu2"
  type: "ReLU"
  bottom: "conv2"
  top: "conv2"
}
layer {
  name: "pool2"
  type: "Pooling"
  bottom: "conv2"
  top: "pool2"
  pooling_param {
    pool: MAX
    kernel_size: 3
    stride: 2
  }
}
layer {
  name: "conv3"
  type: "Convolution"
  bottom: "pool2"
  top: "conv3"
  param {
    lr_mult: 1
  }
  param {
    lr_mult: 2
  }
  convolution_param {
    num_output: 64
    pad: 2
    kernel_size: 5
    stride: 1
    weight_filler {
      type: "gaussian"
      std: 0.01
    }
    bias_filler {
      type: "constant"
    }
  }
}
layer {
  name: "relu3"
  type: "ReLU"
  bottom: "conv3"
  top: "conv3"
}
layer {
  name: "conv4"
  type: "Convolution"
  bottom: "conv3"
  top: "conv4"
  param {
    lr_mult: 1
  }
  param {
    lr_mult: 2
  }
  convolution_param {
    num_output: 64
    pad: 2
    kernel_size: 5
    stride: 1
    weight_filler {
      type: "gaussian"
      std: 0.01
    }
    bias_filler {
      type: "constant"
    }
  }
}
layer {
  name: "relu4"
  type: "ReLU"
  bottom: "conv4"
  top: "conv4"
}
layer {
  name: "conv5"
  type: "Convolution"
  bottom: "conv4"
  top: "conv5"
  param {
    lr_mult: 1
  }
  param {
    lr_mult: 2
  }
  convolution_param {
    num_output: 64
    pad: 2
    kernel_size: 5
    stride: 1
    weight_filler {
      type: "gaussian"
      std: 0.01
    }
    bias_filler {
      type: "constant"
    }
  }
}
layer {
  name: "relu5"
  type: "ReLU"
  bottom: "conv5"
  top: "conv5"
}
layer {
  name: "pool5"
  type: "Pooling"
  bottom: "conv5"
  top: "pool5"
  pooling_param {
    pool: AVE
    kernel_size: 3
    stride: 2
  }
}
layer {
  name: "ip1"
  type: "InnerProduct"
  bottom: "pool5"
  top: "ip1"
  param {
    lr_mult: 1
  }
  param {
    lr_mult: 2
  }
  inner_product_param {
    num_output: 64
    weight_filler {
      type: "gaussian"
      std: 0.1
    }
    bias_filler {
      type: "constant"
    }
  }
}
layer {
  name: "ip2"
  type: "InnerProduct"
  bottom: "ip1"
  top: "ip2"
  param {
    lr_mult: 1
  }
  param {
    lr_mult: 2
  }
  inner_product_param {
    num_output: 64
    weight_filler {
      type: "gaussian"
      std: 0.1
    }
    bias_filler {
      type: "constant"
    }
  }
}
layer {
  name: "ip3"
  type: "InnerProduct"
  bottom: "ip2"
  top: "ip3"
  param {
    lr_mult: 1
  }
  param {
    lr_mult: 2
  }
  inner_product_param {
    num_output: 50
    weight_filler {
      type: "gaussian"
      std: 0.1
    }
    bias_filler {
      type: "constant"
    }
  }
}
layer {
  name: "accuracy"
  type: "Accuracy"
  bottom: "ip3"
  bottom: "label"
  top: "accuracy"
  include {
    phase: TEST
  }
}
layer {
  name: "loss"
  type: "SoftmaxWithLoss"
  bottom: "ip3"
  bottom: "label"
  top: "loss"
}
I0506 23:31:34.466284 28129 layer_factory.hpp:77] Creating layer intercept
I0506 23:31:34.466292 28129 net.cpp:94] Creating Layer intercept
I0506 23:31:34.466296 28129 net.cpp:409] intercept -> data
I0506 23:31:34.466303 28129 net.cpp:409] intercept -> label
I0506 23:31:34.466310 28129 hdf5_data_layer.cpp:79] Loading list of HDF5 filenames from: /home/purduethu/scratch/radon/d/deng106/CNNStatisticalModel/distributions/input/50_distributions_100_sample_size_test-distributions-path.txt
I0506 23:31:34.466327 28129 hdf5_data_layer.cpp:93] Number of HDF5 files: 1
I0506 23:31:34.507571 28129 net.cpp:144] Setting up intercept
I0506 23:31:34.507604 28129 net.cpp:151] Top shape: 20 1 10 10 (2000)
I0506 23:31:34.507609 28129 net.cpp:151] Top shape: 20 (20)
I0506 23:31:34.507613 28129 net.cpp:159] Memory required for data: 8080
I0506 23:31:34.507619 28129 layer_factory.hpp:77] Creating layer label_intercept_1_split
I0506 23:31:34.507638 28129 net.cpp:94] Creating Layer label_intercept_1_split
I0506 23:31:34.507642 28129 net.cpp:435] label_intercept_1_split <- label
I0506 23:31:34.507648 28129 net.cpp:409] label_intercept_1_split -> label_intercept_1_split_0
I0506 23:31:34.507658 28129 net.cpp:409] label_intercept_1_split -> label_intercept_1_split_1
I0506 23:31:34.507697 28129 net.cpp:144] Setting up label_intercept_1_split
I0506 23:31:34.507704 28129 net.cpp:151] Top shape: 20 (20)
I0506 23:31:34.507707 28129 net.cpp:151] Top shape: 20 (20)
I0506 23:31:34.507711 28129 net.cpp:159] Memory required for data: 8240
I0506 23:31:34.507714 28129 layer_factory.hpp:77] Creating layer conv1
I0506 23:31:34.507725 28129 net.cpp:94] Creating Layer conv1
I0506 23:31:34.507728 28129 net.cpp:435] conv1 <- data
I0506 23:31:34.507733 28129 net.cpp:409] conv1 -> conv1
I0506 23:31:34.508570 28129 net.cpp:144] Setting up conv1
I0506 23:31:34.508584 28129 net.cpp:151] Top shape: 20 64 10 10 (128000)
I0506 23:31:34.508587 28129 net.cpp:159] Memory required for data: 520240
I0506 23:31:34.508596 28129 layer_factory.hpp:77] Creating layer relu1
I0506 23:31:34.508602 28129 net.cpp:94] Creating Layer relu1
I0506 23:31:34.508606 28129 net.cpp:435] relu1 <- conv1
I0506 23:31:34.508610 28129 net.cpp:396] relu1 -> conv1 (in-place)
I0506 23:31:34.508617 28129 net.cpp:144] Setting up relu1
I0506 23:31:34.508622 28129 net.cpp:151] Top shape: 20 64 10 10 (128000)
I0506 23:31:34.508625 28129 net.cpp:159] Memory required for data: 1032240
I0506 23:31:34.508635 28129 layer_factory.hpp:77] Creating layer conv2
I0506 23:31:34.508643 28129 net.cpp:94] Creating Layer conv2
I0506 23:31:34.508646 28129 net.cpp:435] conv2 <- conv1
I0506 23:31:34.508651 28129 net.cpp:409] conv2 -> conv2
I0506 23:31:34.512745 28129 net.cpp:144] Setting up conv2
I0506 23:31:34.512759 28129 net.cpp:151] Top shape: 20 64 10 10 (128000)
I0506 23:31:34.512763 28129 net.cpp:159] Memory required for data: 1544240
I0506 23:31:34.512771 28129 layer_factory.hpp:77] Creating layer relu2
I0506 23:31:34.512778 28129 net.cpp:94] Creating Layer relu2
I0506 23:31:34.512780 28129 net.cpp:435] relu2 <- conv2
I0506 23:31:34.512785 28129 net.cpp:396] relu2 -> conv2 (in-place)
I0506 23:31:34.512791 28129 net.cpp:144] Setting up relu2
I0506 23:31:34.512795 28129 net.cpp:151] Top shape: 20 64 10 10 (128000)
I0506 23:31:34.512799 28129 net.cpp:159] Memory required for data: 2056240
I0506 23:31:34.512802 28129 layer_factory.hpp:77] Creating layer pool2
I0506 23:31:34.512807 28129 net.cpp:94] Creating Layer pool2
I0506 23:31:34.512810 28129 net.cpp:435] pool2 <- conv2
I0506 23:31:34.512814 28129 net.cpp:409] pool2 -> pool2
I0506 23:31:34.512867 28129 net.cpp:144] Setting up pool2
I0506 23:31:34.512876 28129 net.cpp:151] Top shape: 20 64 5 5 (32000)
I0506 23:31:34.512878 28129 net.cpp:159] Memory required for data: 2184240
I0506 23:31:34.512881 28129 layer_factory.hpp:77] Creating layer conv3
I0506 23:31:34.512889 28129 net.cpp:94] Creating Layer conv3
I0506 23:31:34.512893 28129 net.cpp:435] conv3 <- pool2
I0506 23:31:34.512898 28129 net.cpp:409] conv3 -> conv3
I0506 23:31:34.517271 28129 net.cpp:144] Setting up conv3
I0506 23:31:34.517283 28129 net.cpp:151] Top shape: 20 64 5 5 (32000)
I0506 23:31:34.517287 28129 net.cpp:159] Memory required for data: 2312240
I0506 23:31:34.517295 28129 layer_factory.hpp:77] Creating layer relu3
I0506 23:31:34.517302 28129 net.cpp:94] Creating Layer relu3
I0506 23:31:34.517305 28129 net.cpp:435] relu3 <- conv3
I0506 23:31:34.517312 28129 net.cpp:396] relu3 -> conv3 (in-place)
I0506 23:31:34.517318 28129 net.cpp:144] Setting up relu3
I0506 23:31:34.517323 28129 net.cpp:151] Top shape: 20 64 5 5 (32000)
I0506 23:31:34.517325 28129 net.cpp:159] Memory required for data: 2440240
I0506 23:31:34.517328 28129 layer_factory.hpp:77] Creating layer conv4
I0506 23:31:34.517338 28129 net.cpp:94] Creating Layer conv4
I0506 23:31:34.517340 28129 net.cpp:435] conv4 <- conv3
I0506 23:31:34.517345 28129 net.cpp:409] conv4 -> conv4
I0506 23:31:34.520870 28129 net.cpp:144] Setting up conv4
I0506 23:31:34.520884 28129 net.cpp:151] Top shape: 20 64 5 5 (32000)
I0506 23:31:34.520887 28129 net.cpp:159] Memory required for data: 2568240
I0506 23:31:34.520894 28129 layer_factory.hpp:77] Creating layer relu4
I0506 23:31:34.520900 28129 net.cpp:94] Creating Layer relu4
I0506 23:31:34.520903 28129 net.cpp:435] relu4 <- conv4
I0506 23:31:34.520908 28129 net.cpp:396] relu4 -> conv4 (in-place)
I0506 23:31:34.520915 28129 net.cpp:144] Setting up relu4
I0506 23:31:34.520920 28129 net.cpp:151] Top shape: 20 64 5 5 (32000)
I0506 23:31:34.520923 28129 net.cpp:159] Memory required for data: 2696240
I0506 23:31:34.520926 28129 layer_factory.hpp:77] Creating layer conv5
I0506 23:31:34.520934 28129 net.cpp:94] Creating Layer conv5
I0506 23:31:34.520937 28129 net.cpp:435] conv5 <- conv4
I0506 23:31:34.520942 28129 net.cpp:409] conv5 -> conv5
I0506 23:31:34.524919 28129 net.cpp:144] Setting up conv5
I0506 23:31:34.524932 28129 net.cpp:151] Top shape: 20 64 5 5 (32000)
I0506 23:31:34.524936 28129 net.cpp:159] Memory required for data: 2824240
I0506 23:31:34.524945 28129 layer_factory.hpp:77] Creating layer relu5
I0506 23:31:34.524950 28129 net.cpp:94] Creating Layer relu5
I0506 23:31:34.524955 28129 net.cpp:435] relu5 <- conv5
I0506 23:31:34.524958 28129 net.cpp:396] relu5 -> conv5 (in-place)
I0506 23:31:34.524965 28129 net.cpp:144] Setting up relu5
I0506 23:31:34.524969 28129 net.cpp:151] Top shape: 20 64 5 5 (32000)
I0506 23:31:34.524972 28129 net.cpp:159] Memory required for data: 2952240
I0506 23:31:34.524979 28129 layer_factory.hpp:77] Creating layer pool5
I0506 23:31:34.524984 28129 net.cpp:94] Creating Layer pool5
I0506 23:31:34.524987 28129 net.cpp:435] pool5 <- conv5
I0506 23:31:34.524993 28129 net.cpp:409] pool5 -> pool5
I0506 23:31:34.525030 28129 net.cpp:144] Setting up pool5
I0506 23:31:34.525037 28129 net.cpp:151] Top shape: 20 64 2 2 (5120)
I0506 23:31:34.525039 28129 net.cpp:159] Memory required for data: 2972720
I0506 23:31:34.525043 28129 layer_factory.hpp:77] Creating layer ip1
I0506 23:31:34.525050 28129 net.cpp:94] Creating Layer ip1
I0506 23:31:34.525054 28129 net.cpp:435] ip1 <- pool5
I0506 23:31:34.525059 28129 net.cpp:409] ip1 -> ip1
I0506 23:31:34.525578 28129 net.cpp:144] Setting up ip1
I0506 23:31:34.525586 28129 net.cpp:151] Top shape: 20 64 (1280)
I0506 23:31:34.525589 28129 net.cpp:159] Memory required for data: 2977840
I0506 23:31:34.525594 28129 layer_factory.hpp:77] Creating layer ip2
I0506 23:31:34.525600 28129 net.cpp:94] Creating Layer ip2
I0506 23:31:34.525604 28129 net.cpp:435] ip2 <- ip1
I0506 23:31:34.525609 28129 net.cpp:409] ip2 -> ip2
I0506 23:31:34.525825 28129 net.cpp:144] Setting up ip2
I0506 23:31:34.525831 28129 net.cpp:151] Top shape: 20 64 (1280)
I0506 23:31:34.525835 28129 net.cpp:159] Memory required for data: 2982960
I0506 23:31:34.525840 28129 layer_factory.hpp:77] Creating layer ip3
I0506 23:31:34.525847 28129 net.cpp:94] Creating Layer ip3
I0506 23:31:34.525851 28129 net.cpp:435] ip3 <- ip2
I0506 23:31:34.525856 28129 net.cpp:409] ip3 -> ip3
I0506 23:31:34.526046 28129 net.cpp:144] Setting up ip3
I0506 23:31:34.526053 28129 net.cpp:151] Top shape: 20 50 (1000)
I0506 23:31:34.526057 28129 net.cpp:159] Memory required for data: 2986960
I0506 23:31:34.526062 28129 layer_factory.hpp:77] Creating layer ip3_ip3_0_split
I0506 23:31:34.526067 28129 net.cpp:94] Creating Layer ip3_ip3_0_split
I0506 23:31:34.526069 28129 net.cpp:435] ip3_ip3_0_split <- ip3
I0506 23:31:34.526074 28129 net.cpp:409] ip3_ip3_0_split -> ip3_ip3_0_split_0
I0506 23:31:34.526079 28129 net.cpp:409] ip3_ip3_0_split -> ip3_ip3_0_split_1
I0506 23:31:34.526119 28129 net.cpp:144] Setting up ip3_ip3_0_split
I0506 23:31:34.526125 28129 net.cpp:151] Top shape: 20 50 (1000)
I0506 23:31:34.526129 28129 net.cpp:151] Top shape: 20 50 (1000)
I0506 23:31:34.526131 28129 net.cpp:159] Memory required for data: 2994960
I0506 23:31:34.526134 28129 layer_factory.hpp:77] Creating layer accuracy
I0506 23:31:34.526140 28129 net.cpp:94] Creating Layer accuracy
I0506 23:31:34.526144 28129 net.cpp:435] accuracy <- ip3_ip3_0_split_0
I0506 23:31:34.526147 28129 net.cpp:435] accuracy <- label_intercept_1_split_0
I0506 23:31:34.526152 28129 net.cpp:409] accuracy -> accuracy
…
