…
I0501 12:59:16.686096 12974 net.cpp:323] The NetState phase (0) differed from the phase (1) specified by a rule in layer intercept
I0501 12:59:16.686113 12974 net.cpp:323] The NetState phase (0) differed from the phase (1) specified by a rule in layer loss
I0501 12:59:16.686197 12974 net.cpp:52] Initializing net from parameters: 
state {
  phase: TRAIN
}
layer {
  name: "parameters"
  type: "HDF5Data"
  top: "data"
  top: "label"
  include {
    phase: TRAIN
  }
  hdf5_data_param {
    source: "/home/purduethu/scratch/radon/d/deng106/CNNStatisticalModel/distributions/input/50_distributions_900_sample_size_train-parameters-path.txt"
    batch_size: 20
  }
}
layer {
  name: "conv1"
  type: "Convolution"
  bottom: "data"
  top: "conv1"
  param {
    lr_mult: 1
  }
  param {
    lr_mult: 2
  }
  convolution_param {
    num_output: 64
    pad: 2
    kernel_size: 5
    stride: 1
    weight_filler {
      type: "gaussian"
      std: 0.0001
    }
    bias_filler {
      type: "constant"
    }
  }
}
layer {
  name: "relu1"
  type: "ReLU"
  bottom: "conv1"
  top: "conv1"
}
layer {
  name: "conv2"
  type: "Convolution"
  bottom: "conv1"
  top: "conv2"
  param {
    lr_mult: 1
  }
  param {
    lr_mult: 2
  }
  convolution_param {
    num_output: 64
    pad: 2
    kernel_size: 5
    stride: 1
    weight_filler {
      type: "gaussian"
      std: 0.01
    }
    bias_filler {
      type: "constant"
    }
  }
}
layer {
  name: "relu2"
  type: "ReLU"
  bottom: "conv2"
  top: "conv2"
}
layer {
  name: "pool2"
  type: "Pooling"
  bottom: "conv2"
  top: "pool2"
  pooling_param {
    pool: MAX
    kernel_size: 3
    stride: 2
  }
}
layer {
  name: "conv3"
  type: "Convolution"
  bottom: "pool2"
  top: "conv3"
  param {
    lr_mult: 1
  }
  param {
    lr_mult: 2
  }
  convolution_param {
    num_output: 64
    pad: 2
    kernel_size: 5
    stride: 1
    weight_filler {
      type: "gaussian"
      std: 0.01
    }
    bias_filler {
      type: "constant"
    }
  }
}
layer {
  name: "relu3"
  type: "ReLU"
  bottom: "conv3"
  top: "conv3"
}
layer {
  name: "conv4"
  type: "Convolution"
  bottom: "conv3"
  top: "conv4"
  param {
    lr_mult: 1
  }
  param {
    lr_mult: 2
  }
  convolution_param {
    num_output: 64
    pad: 2
    kernel_size: 5
    stride: 1
    weight_filler {
      type: "gaussian"
      std: 0.01
    }
    bias_filler {
      type: "constant"
    }
  }
}
layer {
  name: "relu4"
  type: "ReLU"
  bottom: "conv4"
  top: "conv4"
}
layer {
  name: "conv5"
  type: "Convolution"
  bottom: "conv4"
  top: "conv5"
  param {
    lr_mult: 1
  }
  param {
    lr_mult: 2
  }
  convolution_param {
    num_output: 64
    pad: 2
    kernel_size: 5
    stride: 1
    weight_filler {
      type: "gaussian"
      std: 0.01
    }
    bias_filler {
      type: "constant"
    }
  }
}
layer {
  name: "relu5"
  type: "ReLU"
  bottom: "conv5"
  top: "conv5"
}
layer {
  name: "pool5"
  type: "Pooling"
  bottom: "conv5"
  top: "pool5"
  pooling_param {
    pool: AVE
    kernel_size: 3
    stride: 2
  }
}
layer {
  name: "ip1"
  type: "InnerProduct"
  bottom: "pool5"
  top: "ip1"
  param {
    lr_mult: 1
  }
  param {
    lr_mult: 2
  }
  inner_product_param {
    num_output: 64
    weight_filler {
      type: "gaussian"
      std: 0.1
    }
    bias_filler {
      type: "constant"
    }
  }
}
layer {
  name: "ip2"
  type: "InnerProduct"
  bottom: "ip1"
  top: "ip2"
  param {
    lr_mult: 1
  }
  param {
    lr_mult: 2
  }
  inner_product_param {
    num_output: 64
    weight_filler {
      type: "gaussian"
      std: 0.1
    }
    bias_filler {
      type: "constant"
    }
  }
}
layer {
  name: "ip3"
  type: "InnerProduct"
  bottom: "ip2"
  top: "ip3"
  param {
    lr_mult: 1
  }
  param {
    lr_mult: 2
  }
  inner_product_param {
    num_output: 1
    weight_filler {
      type: "gaussian"
      std: 0.1
    }
    bias_filler {
      type: "constant"
    }
  }
}
layer {
  name: "loss"
  type: "HuberLoss"
  bottom: "ip3"
  bottom: "label"
  top: "loss"
  include {
    phase: TRAIN
  }
}
I0501 12:59:16.686254 12974 layer_factory.hpp:77] Creating layer parameters
I0501 12:59:16.686267 12974 net.cpp:94] Creating Layer parameters
I0501 12:59:16.686271 12974 net.cpp:409] parameters -> data
I0501 12:59:16.686280 12974 net.cpp:409] parameters -> label
I0501 12:59:16.686291 12974 hdf5_data_layer.cpp:79] Loading list of HDF5 filenames from: /home/purduethu/scratch/radon/d/deng106/CNNStatisticalModel/distributions/input/50_distributions_900_sample_size_train-parameters-path.txt
I0501 12:59:16.686306 12974 hdf5_data_layer.cpp:93] Number of HDF5 files: 1
I0501 12:59:16.686861 12974 hdf5.cpp:32] Datatype class: H5T_FLOAT
I0501 12:59:18.191851 12974 net.cpp:144] Setting up parameters
I0501 12:59:18.191872 12974 net.cpp:151] Top shape: 20 1 30 30 (18000)
I0501 12:59:18.191877 12974 net.cpp:151] Top shape: 20 (20)
I0501 12:59:18.191880 12974 net.cpp:159] Memory required for data: 72080
I0501 12:59:18.191887 12974 layer_factory.hpp:77] Creating layer conv1
I0501 12:59:18.191907 12974 net.cpp:94] Creating Layer conv1
I0501 12:59:18.191912 12974 net.cpp:435] conv1 <- data
I0501 12:59:18.191918 12974 net.cpp:409] conv1 -> conv1
I0501 12:59:18.198700 12974 net.cpp:144] Setting up conv1
I0501 12:59:18.198740 12974 net.cpp:151] Top shape: 20 64 30 30 (1152000)
I0501 12:59:18.198750 12974 net.cpp:159] Memory required for data: 4680080
I0501 12:59:18.198776 12974 layer_factory.hpp:77] Creating layer relu1
I0501 12:59:18.198796 12974 net.cpp:94] Creating Layer relu1
I0501 12:59:18.198807 12974 net.cpp:435] relu1 <- conv1
I0501 12:59:18.198827 12974 net.cpp:396] relu1 -> conv1 (in-place)
I0501 12:59:18.198839 12974 net.cpp:144] Setting up relu1
I0501 12:59:18.198844 12974 net.cpp:151] Top shape: 20 64 30 30 (1152000)
I0501 12:59:18.198848 12974 net.cpp:159] Memory required for data: 9288080
I0501 12:59:18.198850 12974 layer_factory.hpp:77] Creating layer conv2
I0501 12:59:18.198859 12974 net.cpp:94] Creating Layer conv2
I0501 12:59:18.198863 12974 net.cpp:435] conv2 <- conv1
I0501 12:59:18.198868 12974 net.cpp:409] conv2 -> conv2
I0501 12:59:18.218098 12974 net.cpp:144] Setting up conv2
I0501 12:59:18.218137 12974 net.cpp:151] Top shape: 20 64 30 30 (1152000)
I0501 12:59:18.218147 12974 net.cpp:159] Memory required for data: 13896080
I0501 12:59:18.218169 12974 layer_factory.hpp:77] Creating layer relu2
I0501 12:59:18.218188 12974 net.cpp:94] Creating Layer relu2
I0501 12:59:18.218199 12974 net.cpp:435] relu2 <- conv2
I0501 12:59:18.218211 12974 net.cpp:396] relu2 -> conv2 (in-place)
I0501 12:59:18.218230 12974 net.cpp:144] Setting up relu2
I0501 12:59:18.218243 12974 net.cpp:151] Top shape: 20 64 30 30 (1152000)
I0501 12:59:18.218252 12974 net.cpp:159] Memory required for data: 18504080
I0501 12:59:18.218261 12974 layer_factory.hpp:77] Creating layer pool2
I0501 12:59:18.218287 12974 net.cpp:94] Creating Layer pool2
I0501 12:59:18.218298 12974 net.cpp:435] pool2 <- conv2
I0501 12:59:18.218312 12974 net.cpp:409] pool2 -> pool2
I0501 12:59:18.218392 12974 net.cpp:144] Setting up pool2
I0501 12:59:18.218400 12974 net.cpp:151] Top shape: 20 64 15 15 (288000)
I0501 12:59:18.218402 12974 net.cpp:159] Memory required for data: 19656080
I0501 12:59:18.218405 12974 layer_factory.hpp:77] Creating layer conv3
I0501 12:59:18.218413 12974 net.cpp:94] Creating Layer conv3
I0501 12:59:18.218417 12974 net.cpp:435] conv3 <- pool2
I0501 12:59:18.218421 12974 net.cpp:409] conv3 -> conv3
I0501 12:59:18.236680 12974 net.cpp:144] Setting up conv3
I0501 12:59:18.236695 12974 net.cpp:151] Top shape: 20 64 15 15 (288000)
I0501 12:59:18.236699 12974 net.cpp:159] Memory required for data: 20808080
I0501 12:59:18.236707 12974 layer_factory.hpp:77] Creating layer relu3
I0501 12:59:18.236713 12974 net.cpp:94] Creating Layer relu3
I0501 12:59:18.236717 12974 net.cpp:435] relu3 <- conv3
I0501 12:59:18.236721 12974 net.cpp:396] relu3 -> conv3 (in-place)
I0501 12:59:18.236729 12974 net.cpp:144] Setting up relu3
I0501 12:59:18.236733 12974 net.cpp:151] Top shape: 20 64 15 15 (288000)
I0501 12:59:18.236737 12974 net.cpp:159] Memory required for data: 21960080
I0501 12:59:18.236739 12974 layer_factory.hpp:77] Creating layer conv4
I0501 12:59:18.236748 12974 net.cpp:94] Creating Layer conv4
I0501 12:59:18.236752 12974 net.cpp:435] conv4 <- conv3
I0501 12:59:18.236757 12974 net.cpp:409] conv4 -> conv4
I0501 12:59:18.246423 12974 net.cpp:144] Setting up conv4
I0501 12:59:18.246438 12974 net.cpp:151] Top shape: 20 64 15 15 (288000)
I0501 12:59:18.246441 12974 net.cpp:159] Memory required for data: 23112080
I0501 12:59:18.246448 12974 layer_factory.hpp:77] Creating layer relu4
I0501 12:59:18.246454 12974 net.cpp:94] Creating Layer relu4
I0501 12:59:18.246457 12974 net.cpp:435] relu4 <- conv4
I0501 12:59:18.246461 12974 net.cpp:396] relu4 -> conv4 (in-place)
I0501 12:59:18.246469 12974 net.cpp:144] Setting up relu4
I0501 12:59:18.246474 12974 net.cpp:151] Top shape: 20 64 15 15 (288000)
I0501 12:59:18.246476 12974 net.cpp:159] Memory required for data: 24264080
I0501 12:59:18.246479 12974 layer_factory.hpp:77] Creating layer conv5
I0501 12:59:18.246487 12974 net.cpp:94] Creating Layer conv5
I0501 12:59:18.246491 12974 net.cpp:435] conv5 <- conv4
I0501 12:59:18.246496 12974 net.cpp:409] conv5 -> conv5
I0501 12:59:18.258918 12974 net.cpp:144] Setting up conv5
I0501 12:59:18.258936 12974 net.cpp:151] Top shape: 20 64 15 15 (288000)
I0501 12:59:18.258941 12974 net.cpp:159] Memory required for data: 25416080
I0501 12:59:18.258952 12974 layer_factory.hpp:77] Creating layer relu5
I0501 12:59:18.258960 12974 net.cpp:94] Creating Layer relu5
I0501 12:59:18.258965 12974 net.cpp:435] relu5 <- conv5
I0501 12:59:18.258971 12974 net.cpp:396] relu5 -> conv5 (in-place)
I0501 12:59:18.258980 12974 net.cpp:144] Setting up relu5
I0501 12:59:18.258986 12974 net.cpp:151] Top shape: 20 64 15 15 (288000)
I0501 12:59:18.258991 12974 net.cpp:159] Memory required for data: 26568080
I0501 12:59:18.258994 12974 layer_factory.hpp:77] Creating layer pool5
I0501 12:59:18.259001 12974 net.cpp:94] Creating Layer pool5
I0501 12:59:18.259006 12974 net.cpp:435] pool5 <- conv5
I0501 12:59:18.259011 12974 net.cpp:409] pool5 -> pool5
I0501 12:59:18.259059 12974 net.cpp:144] Setting up pool5
I0501 12:59:18.259068 12974 net.cpp:151] Top shape: 20 64 7 7 (62720)
I0501 12:59:18.259073 12974 net.cpp:159] Memory required for data: 26818960
I0501 12:59:18.259076 12974 layer_factory.hpp:77] Creating layer ip1
I0501 12:59:18.259088 12974 net.cpp:94] Creating Layer ip1
I0501 12:59:18.259093 12974 net.cpp:435] ip1 <- pool5
I0501 12:59:18.259099 12974 net.cpp:409] ip1 -> ip1
I0501 12:59:18.267055 12974 net.cpp:144] Setting up ip1
I0501 12:59:18.267071 12974 net.cpp:151] Top shape: 20 64 (1280)
I0501 12:59:18.267074 12974 net.cpp:159] Memory required for data: 26824080
I0501 12:59:18.267081 12974 layer_factory.hpp:77] Creating layer ip2
I0501 12:59:18.267087 12974 net.cpp:94] Creating Layer ip2
I0501 12:59:18.267096 12974 net.cpp:435] ip2 <- ip1
I0501 12:59:18.267102 12974 net.cpp:409] ip2 -> ip2
I0501 12:59:18.267313 12974 net.cpp:144] Setting up ip2
I0501 12:59:18.267321 12974 net.cpp:151] Top shape: 20 64 (1280)
I0501 12:59:18.267325 12974 net.cpp:159] Memory required for data: 26829200
I0501 12:59:18.267330 12974 layer_factory.hpp:77] Creating layer ip3
I0501 12:59:18.267336 12974 net.cpp:94] Creating Layer ip3
I0501 12:59:18.267340 12974 net.cpp:435] ip3 <- ip2
I0501 12:59:18.267344 12974 net.cpp:409] ip3 -> ip3
I0501 12:59:18.267446 12974 net.cpp:144] Setting up ip3
I0501 12:59:18.267453 12974 net.cpp:151] Top shape: 20 1 (20)
I0501 12:59:18.267457 12974 net.cpp:159] Memory required for data: 26829280
I0501 12:59:18.267462 12974 layer_factory.hpp:77] Creating layer loss
I0501 12:59:18.267468 12974 net.cpp:94] Creating Layer loss
I0501 12:59:18.267472 12974 net.cpp:435] loss <- ip3
I0501 12:59:18.267475 12974 net.cpp:435] loss <- label
I0501 12:59:18.267479 12974 net.cpp:409] loss -> loss
I0501 12:59:18.267529 12974 net.cpp:144] Setting up loss
…
I0501 12:59:18.671658 12974 net.cpp:323] The NetState phase (0) differed from the phase (1) specified by a rule in layer intercept
I0501 12:59:18.671674 12974 net.cpp:323] The NetState phase (0) differed from the phase (1) specified by a rule in layer accuracy
I0501 12:59:18.671761 12974 net.cpp:52] Initializing net from parameters: 
state {
  phase: TRAIN
}
layer {
  name: "parameters"
  type: "HDF5Data"
  top: "data"
  top: "label"
  include {
    phase: TRAIN
  }
  hdf5_data_param {
    source: "/home/purduethu/scratch/radon/d/deng106/CNNStatisticalModel/distributions/input/50_distributions_900_sample_size_train-distributions-path.txt"
    batch_size: 20
  }
}
layer {
  name: "conv1"
  type: "Convolution"
  bottom: "data"
  top: "conv1"
  param {
    lr_mult: 1
  }
  param {
    lr_mult: 2
  }
  convolution_param {
    num_output: 64
    pad: 2
    kernel_size: 5
    stride: 1
    weight_filler {
      type: "gaussian"
      std: 0.0001
    }
    bias_filler {
      type: "constant"
    }
  }
}
layer {
  name: "relu1"
  type: "ReLU"
  bottom: "conv1"
  top: "conv1"
}
layer {
  name: "conv2"
  type: "Convolution"
  bottom: "conv1"
  top: "conv2"
  param {
    lr_mult: 1
  }
  param {
    lr_mult: 2
  }
  convolution_param {
    num_output: 64
    pad: 2
    kernel_size: 5
    stride: 1
    weight_filler {
      type: "gaussian"
      std: 0.01
    }
    bias_filler {
      type: "constant"
    }
  }
}
layer {
  name: "relu2"
  type: "ReLU"
  bottom: "conv2"
  top: "conv2"
}
layer {
  name: "pool2"
  type: "Pooling"
  bottom: "conv2"
  top: "pool2"
  pooling_param {
    pool: MAX
    kernel_size: 3
    stride: 2
  }
}
layer {
  name: "conv3"
  type: "Convolution"
  bottom: "pool2"
  top: "conv3"
  param {
    lr_mult: 1
  }
  param {
    lr_mult: 2
  }
  convolution_param {
    num_output: 64
    pad: 2
    kernel_size: 5
    stride: 1
    weight_filler {
      type: "gaussian"
      std: 0.01
    }
    bias_filler {
      type: "constant"
    }
  }
}
layer {
  name: "relu3"
  type: "ReLU"
  bottom: "conv3"
  top: "conv3"
}
layer {
  name: "conv4"
  type: "Convolution"
  bottom: "conv3"
  top: "conv4"
  param {
    lr_mult: 1
  }
  param {
    lr_mult: 2
  }
  convolution_param {
    num_output: 64
    pad: 2
    kernel_size: 5
    stride: 1
    weight_filler {
      type: "gaussian"
      std: 0.01
    }
    bias_filler {
      type: "constant"
    }
  }
}
layer {
  name: "relu4"
  type: "ReLU"
  bottom: "conv4"
  top: "conv4"
}
layer {
  name: "conv5"
  type: "Convolution"
  bottom: "conv4"
  top: "conv5"
  param {
    lr_mult: 1
  }
  param {
    lr_mult: 2
  }
  convolution_param {
    num_output: 64
    pad: 2
    kernel_size: 5
    stride: 1
    weight_filler {
      type: "gaussian"
      std: 0.01
    }
    bias_filler {
      type: "constant"
    }
  }
}
layer {
  name: "relu5"
  type: "ReLU"
  bottom: "conv5"
  top: "conv5"
}
layer {
  name: "pool5"
  type: "Pooling"
  bottom: "conv5"
  top: "pool5"
  pooling_param {
    pool: AVE
    kernel_size: 3
    stride: 2
  }
}
layer {
  name: "ip1"
  type: "InnerProduct"
  bottom: "pool5"
  top: "ip1"
  param {
    lr_mult: 1
  }
  param {
    lr_mult: 2
  }
  inner_product_param {
    num_output: 64
    weight_filler {
      type: "gaussian"
      std: 0.1
    }
    bias_filler {
      type: "constant"
    }
  }
}
layer {
  name: "ip2"
  type: "InnerProduct"
  bottom: "ip1"
  top: "ip2"
  param {
    lr_mult: 1
  }
  param {
    lr_mult: 2
  }
  inner_product_param {
    num_output: 64
    weight_filler {
      type: "gaussian"
      std: 0.1
    }
    bias_filler {
      type: "constant"
    }
  }
}
layer {
  name: "ip3"
  type: "InnerProduct"
  bottom: "ip2"
  top: "ip3"
  param {
    lr_mult: 1
  }
  param {
    lr_mult: 2
  }
  inner_product_param {
    num_output: 50
    weight_filler {
      type: "gaussian"
      std: 0.1
    }
    bias_filler {
      type: "constant"
    }
  }
}
layer {
  name: "loss"
  type: "SoftmaxWithLoss"
  bottom: "ip3"
  bottom: "label"
  top: "loss"
}
I0501 12:59:18.671813 12974 layer_factory.hpp:77] Creating layer parameters
I0501 12:59:18.671821 12974 net.cpp:94] Creating Layer parameters
I0501 12:59:18.671825 12974 net.cpp:409] parameters -> data
I0501 12:59:18.671833 12974 net.cpp:409] parameters -> label
I0501 12:59:18.671838 12974 hdf5_data_layer.cpp:79] Loading list of HDF5 filenames from: /home/purduethu/scratch/radon/d/deng106/CNNStatisticalModel/distributions/input/50_distributions_900_sample_size_train-distributions-path.txt
I0501 12:59:18.671855 12974 hdf5_data_layer.cpp:93] Number of HDF5 files: 1
I0501 12:59:20.124061 12974 hdf5.cpp:35] Datatype class: H5T_INTEGER
I0501 12:59:20.127137 12974 net.cpp:144] Setting up parameters
I0501 12:59:20.127156 12974 net.cpp:151] Top shape: 20 1 30 30 (18000)
I0501 12:59:20.127162 12974 net.cpp:151] Top shape: 20 (20)
I0501 12:59:20.127166 12974 net.cpp:159] Memory required for data: 72080
I0501 12:59:20.127171 12974 layer_factory.hpp:77] Creating layer conv1
I0501 12:59:20.127187 12974 net.cpp:94] Creating Layer conv1
I0501 12:59:20.127190 12974 net.cpp:435] conv1 <- data
I0501 12:59:20.127197 12974 net.cpp:409] conv1 -> conv1
I0501 12:59:20.130707 12974 net.cpp:144] Setting up conv1
I0501 12:59:20.130720 12974 net.cpp:151] Top shape: 20 64 30 30 (1152000)
I0501 12:59:20.130724 12974 net.cpp:159] Memory required for data: 4680080
I0501 12:59:20.130734 12974 layer_factory.hpp:77] Creating layer relu1
I0501 12:59:20.130743 12974 net.cpp:94] Creating Layer relu1
I0501 12:59:20.130746 12974 net.cpp:435] relu1 <- conv1
I0501 12:59:20.130750 12974 net.cpp:396] relu1 -> conv1 (in-place)
I0501 12:59:20.130759 12974 net.cpp:144] Setting up relu1
I0501 12:59:20.130762 12974 net.cpp:151] Top shape: 20 64 30 30 (1152000)
I0501 12:59:20.130765 12974 net.cpp:159] Memory required for data: 9288080
I0501 12:59:20.130769 12974 layer_factory.hpp:77] Creating layer conv2
I0501 12:59:20.130776 12974 net.cpp:94] Creating Layer conv2
I0501 12:59:20.130779 12974 net.cpp:435] conv2 <- conv1
I0501 12:59:20.130784 12974 net.cpp:409] conv2 -> conv2
I0501 12:59:20.146778 12974 net.cpp:144] Setting up conv2
I0501 12:59:20.146793 12974 net.cpp:151] Top shape: 20 64 30 30 (1152000)
I0501 12:59:20.146797 12974 net.cpp:159] Memory required for data: 13896080
I0501 12:59:20.146806 12974 layer_factory.hpp:77] Creating layer relu2
I0501 12:59:20.146812 12974 net.cpp:94] Creating Layer relu2
I0501 12:59:20.146816 12974 net.cpp:435] relu2 <- conv2
I0501 12:59:20.146821 12974 net.cpp:396] relu2 -> conv2 (in-place)
I0501 12:59:20.146827 12974 net.cpp:144] Setting up relu2
I0501 12:59:20.146832 12974 net.cpp:151] Top shape: 20 64 30 30 (1152000)
I0501 12:59:20.146834 12974 net.cpp:159] Memory required for data: 18504080
I0501 12:59:20.146837 12974 layer_factory.hpp:77] Creating layer pool2
I0501 12:59:20.146843 12974 net.cpp:94] Creating Layer pool2
I0501 12:59:20.146847 12974 net.cpp:435] pool2 <- conv2
I0501 12:59:20.146852 12974 net.cpp:409] pool2 -> pool2
I0501 12:59:20.146904 12974 net.cpp:144] Setting up pool2
I0501 12:59:20.146911 12974 net.cpp:151] Top shape: 20 64 15 15 (288000)
I0501 12:59:20.146914 12974 net.cpp:159] Memory required for data: 19656080
I0501 12:59:20.146917 12974 layer_factory.hpp:77] Creating layer conv3
I0501 12:59:20.146925 12974 net.cpp:94] Creating Layer conv3
I0501 12:59:20.146929 12974 net.cpp:435] conv3 <- pool2
I0501 12:59:20.146940 12974 net.cpp:409] conv3 -> conv3
I0501 12:59:20.155741 12974 net.cpp:144] Setting up conv3
I0501 12:59:20.155755 12974 net.cpp:151] Top shape: 20 64 15 15 (288000)
I0501 12:59:20.155760 12974 net.cpp:159] Memory required for data: 20808080
I0501 12:59:20.155768 12974 layer_factory.hpp:77] Creating layer relu3
I0501 12:59:20.155774 12974 net.cpp:94] Creating Layer relu3
I0501 12:59:20.155777 12974 net.cpp:435] relu3 <- conv3
I0501 12:59:20.155782 12974 net.cpp:396] relu3 -> conv3 (in-place)
I0501 12:59:20.155789 12974 net.cpp:144] Setting up relu3
I0501 12:59:20.155794 12974 net.cpp:151] Top shape: 20 64 15 15 (288000)
I0501 12:59:20.155797 12974 net.cpp:159] Memory required for data: 21960080
I0501 12:59:20.155800 12974 layer_factory.hpp:77] Creating layer conv4
I0501 12:59:20.155809 12974 net.cpp:94] Creating Layer conv4
I0501 12:59:20.155812 12974 net.cpp:435] conv4 <- conv3
I0501 12:59:20.155817 12974 net.cpp:409] conv4 -> conv4
I0501 12:59:20.164477 12974 net.cpp:144] Setting up conv4
I0501 12:59:20.164494 12974 net.cpp:151] Top shape: 20 64 15 15 (288000)
I0501 12:59:20.164497 12974 net.cpp:159] Memory required for data: 23112080
I0501 12:59:20.164505 12974 layer_factory.hpp:77] Creating layer relu4
I0501 12:59:20.164510 12974 net.cpp:94] Creating Layer relu4
I0501 12:59:20.164513 12974 net.cpp:435] relu4 <- conv4
I0501 12:59:20.164518 12974 net.cpp:396] relu4 -> conv4 (in-place)
I0501 12:59:20.164525 12974 net.cpp:144] Setting up relu4
I0501 12:59:20.164530 12974 net.cpp:151] Top shape: 20 64 15 15 (288000)
I0501 12:59:20.164533 12974 net.cpp:159] Memory required for data: 24264080
I0501 12:59:20.164536 12974 layer_factory.hpp:77] Creating layer conv5
I0501 12:59:20.164544 12974 net.cpp:94] Creating Layer conv5
I0501 12:59:20.164547 12974 net.cpp:435] conv5 <- conv4
I0501 12:59:20.164566 12974 net.cpp:409] conv5 -> conv5
I0501 12:59:20.172340 12974 net.cpp:144] Setting up conv5
I0501 12:59:20.172355 12974 net.cpp:151] Top shape: 20 64 15 15 (288000)
I0501 12:59:20.172359 12974 net.cpp:159] Memory required for data: 25416080
I0501 12:59:20.172369 12974 layer_factory.hpp:77] Creating layer relu5
I0501 12:59:20.172374 12974 net.cpp:94] Creating Layer relu5
I0501 12:59:20.172379 12974 net.cpp:435] relu5 <- conv5
I0501 12:59:20.172382 12974 net.cpp:396] relu5 -> conv5 (in-place)
I0501 12:59:20.172389 12974 net.cpp:144] Setting up relu5
I0501 12:59:20.172394 12974 net.cpp:151] Top shape: 20 64 15 15 (288000)
I0501 12:59:20.172397 12974 net.cpp:159] Memory required for data: 26568080
I0501 12:59:20.172400 12974 layer_factory.hpp:77] Creating layer pool5
I0501 12:59:20.172405 12974 net.cpp:94] Creating Layer pool5
I0501 12:59:20.172410 12974 net.cpp:435] pool5 <- conv5
I0501 12:59:20.172413 12974 net.cpp:409] pool5 -> pool5
I0501 12:59:20.172451 12974 net.cpp:144] Setting up pool5
I0501 12:59:20.172457 12974 net.cpp:151] Top shape: 20 64 7 7 (62720)
I0501 12:59:20.172461 12974 net.cpp:159] Memory required for data: 26818960
I0501 12:59:20.172464 12974 layer_factory.hpp:77] Creating layer ip1
I0501 12:59:20.172472 12974 net.cpp:94] Creating Layer ip1
I0501 12:59:20.172474 12974 net.cpp:435] ip1 <- pool5
I0501 12:59:20.172479 12974 net.cpp:409] ip1 -> ip1
I0501 12:59:20.177234 12974 net.cpp:144] Setting up ip1
I0501 12:59:20.177245 12974 net.cpp:151] Top shape: 20 64 (1280)
I0501 12:59:20.177248 12974 net.cpp:159] Memory required for data: 26824080
I0501 12:59:20.177254 12974 layer_factory.hpp:77] Creating layer ip2
I0501 12:59:20.177261 12974 net.cpp:94] Creating Layer ip2
I0501 12:59:20.177264 12974 net.cpp:435] ip2 <- ip1
I0501 12:59:20.177269 12974 net.cpp:409] ip2 -> ip2
I0501 12:59:20.177484 12974 net.cpp:144] Setting up ip2
I0501 12:59:20.177491 12974 net.cpp:151] Top shape: 20 64 (1280)
I0501 12:59:20.177495 12974 net.cpp:159] Memory required for data: 26829200
I0501 12:59:20.177500 12974 layer_factory.hpp:77] Creating layer ip3
I0501 12:59:20.177505 12974 net.cpp:94] Creating Layer ip3
I0501 12:59:20.177508 12974 net.cpp:435] ip3 <- ip2
I0501 12:59:20.177513 12974 net.cpp:409] ip3 -> ip3
I0501 12:59:20.177706 12974 net.cpp:144] Setting up ip3
I0501 12:59:20.177712 12974 net.cpp:151] Top shape: 20 50 (1000)
I0501 12:59:20.177716 12974 net.cpp:159] Memory required for data: 26833200
I0501 12:59:20.177721 12974 layer_factory.hpp:77] Creating layer loss
I0501 12:59:20.177727 12974 net.cpp:94] Creating Layer loss
I0501 12:59:20.177731 12974 net.cpp:435] loss <- ip3
I0501 12:59:20.177734 12974 net.cpp:435] loss <- label
I0501 12:59:20.177738 12974 net.cpp:409] loss -> loss
I0501 12:59:20.177744 12974 layer_factory.hpp:77] Creating layer loss
…
I0501 12:59:20.178253 12974 solver.cpp:181] Creating test net (#0) specified by net file: ./protocol/dis_50_900_dimension.protocol_distribution
I0501 12:59:20.178279 12974 net.cpp:323] The NetState phase (1) differed from the phase (0) specified by a rule in layer parameters
I0501 12:59:20.178376 12974 net.cpp:52] Initializing net from parameters: 
state {
  phase: TEST
}
layer {
  name: "intercept"
  type: "HDF5Data"
  top: "data"
  top: "label"
  include {
    phase: TEST
  }
  hdf5_data_param {
    source: "/home/purduethu/scratch/radon/d/deng106/CNNStatisticalModel/distributions/input/50_distributions_900_sample_size_test-distributions-path.txt"
    batch_size: 20
  }
}
layer {
  name: "conv1"
  type: "Convolution"
  bottom: "data"
  top: "conv1"
  param {
    lr_mult: 1
  }
  param {
    lr_mult: 2
  }
  convolution_param {
    num_output: 64
    pad: 2
    kernel_size: 5
    stride: 1
    weight_filler {
      type: "gaussian"
      std: 0.0001
    }
    bias_filler {
      type: "constant"
    }
  }
}
layer {
  name: "relu1"
  type: "ReLU"
  bottom: "conv1"
  top: "conv1"
}
layer {
  name: "conv2"
  type: "Convolution"
  bottom: "conv1"
  top: "conv2"
  param {
    lr_mult: 1
  }
  param {
    lr_mult: 2
  }
  convolution_param {
    num_output: 64
    pad: 2
    kernel_size: 5
    stride: 1
    weight_filler {
      type: "gaussian"
      std: 0.01
    }
    bias_filler {
      type: "constant"
    }
  }
}
layer {
  name: "relu2"
  type: "ReLU"
  bottom: "conv2"
  top: "conv2"
}
layer {
  name: "pool2"
  type: "Pooling"
  bottom: "conv2"
  top: "pool2"
  pooling_param {
    pool: MAX
    kernel_size: 3
    stride: 2
  }
}
layer {
  name: "conv3"
  type: "Convolution"
  bottom: "pool2"
  top: "conv3"
  param {
    lr_mult: 1
  }
  param {
    lr_mult: 2
  }
  convolution_param {
    num_output: 64
    pad: 2
    kernel_size: 5
    stride: 1
    weight_filler {
      type: "gaussian"
      std: 0.01
    }
    bias_filler {
      type: "constant"
    }
  }
}
layer {
  name: "relu3"
  type: "ReLU"
  bottom: "conv3"
  top: "conv3"
}
layer {
  name: "conv4"
  type: "Convolution"
  bottom: "conv3"
  top: "conv4"
  param {
    lr_mult: 1
  }
  param {
    lr_mult: 2
  }
  convolution_param {
    num_output: 64
    pad: 2
    kernel_size: 5
    stride: 1
    weight_filler {
      type: "gaussian"
      std: 0.01
    }
    bias_filler {
      type: "constant"
    }
  }
}
layer {
  name: "relu4"
  type: "ReLU"
  bottom: "conv4"
  top: "conv4"
}
layer {
  name: "conv5"
  type: "Convolution"
  bottom: "conv4"
  top: "conv5"
  param {
    lr_mult: 1
  }
  param {
    lr_mult: 2
  }
  convolution_param {
    num_output: 64
    pad: 2
    kernel_size: 5
    stride: 1
    weight_filler {
      type: "gaussian"
      std: 0.01
    }
    bias_filler {
      type: "constant"
    }
  }
}
layer {
  name: "relu5"
  type: "ReLU"
  bottom: "conv5"
  top: "conv5"
}
layer {
  name: "pool5"
  type: "Pooling"
  bottom: "conv5"
  top: "pool5"
  pooling_param {
    pool: AVE
    kernel_size: 3
    stride: 2
  }
}
layer {
  name: "ip1"
  type: "InnerProduct"
  bottom: "pool5"
  top: "ip1"
  param {
    lr_mult: 1
  }
  param {
    lr_mult: 2
  }
  inner_product_param {
    num_output: 64
    weight_filler {
      type: "gaussian"
      std: 0.1
    }
    bias_filler {
      type: "constant"
    }
  }
}
layer {
  name: "ip2"
  type: "InnerProduct"
  bottom: "ip1"
  top: "ip2"
  param {
    lr_mult: 1
  }
  param {
    lr_mult: 2
  }
  inner_product_param {
    num_output: 64
    weight_filler {
      type: "gaussian"
      std: 0.1
    }
    bias_filler {
      type: "constant"
    }
  }
}
layer {
  name: "ip3"
  type: "InnerProduct"
  bottom: "ip2"
  top: "ip3"
  param {
    lr_mult: 1
  }
  param {
    lr_mult: 2
  }
  inner_product_param {
    num_output: 50
    weight_filler {
      type: "gaussian"
      std: 0.1
    }
    bias_filler {
      type: "constant"
    }
  }
}
layer {
  name: "accuracy"
  type: "Accuracy"
  bottom: "ip3"
  bottom: "label"
  top: "accuracy"
  include {
    phase: TEST
  }
}
layer {
  name: "loss"
  type: "SoftmaxWithLoss"
  bottom: "ip3"
  bottom: "label"
  top: "loss"
}
I0501 12:59:20.178439 12974 layer_factory.hpp:77] Creating layer intercept
I0501 12:59:20.178447 12974 net.cpp:94] Creating Layer intercept
I0501 12:59:20.178452 12974 net.cpp:409] intercept -> data
I0501 12:59:20.178458 12974 net.cpp:409] intercept -> label
I0501 12:59:20.178465 12974 hdf5_data_layer.cpp:79] Loading list of HDF5 filenames from: /home/purduethu/scratch/radon/d/deng106/CNNStatisticalModel/distributions/input/50_distributions_900_sample_size_test-distributions-path.txt
I0501 12:59:20.178483 12974 hdf5_data_layer.cpp:93] Number of HDF5 files: 1
I0501 12:59:20.540772 12974 net.cpp:144] Setting up intercept
I0501 12:59:20.540805 12974 net.cpp:151] Top shape: 20 1 30 30 (18000)
I0501 12:59:20.540810 12974 net.cpp:151] Top shape: 20 (20)
I0501 12:59:20.540812 12974 net.cpp:159] Memory required for data: 72080
I0501 12:59:20.540819 12974 layer_factory.hpp:77] Creating layer label_intercept_1_split
I0501 12:59:20.540838 12974 net.cpp:94] Creating Layer label_intercept_1_split
I0501 12:59:20.540843 12974 net.cpp:435] label_intercept_1_split <- label
I0501 12:59:20.540848 12974 net.cpp:409] label_intercept_1_split -> label_intercept_1_split_0
I0501 12:59:20.540856 12974 net.cpp:409] label_intercept_1_split -> label_intercept_1_split_1
I0501 12:59:20.540896 12974 net.cpp:144] Setting up label_intercept_1_split
I0501 12:59:20.540902 12974 net.cpp:151] Top shape: 20 (20)
I0501 12:59:20.540906 12974 net.cpp:151] Top shape: 20 (20)
I0501 12:59:20.540908 12974 net.cpp:159] Memory required for data: 72240
I0501 12:59:20.540912 12974 layer_factory.hpp:77] Creating layer conv1
I0501 12:59:20.540922 12974 net.cpp:94] Creating Layer conv1
I0501 12:59:20.540925 12974 net.cpp:435] conv1 <- data
I0501 12:59:20.540930 12974 net.cpp:409] conv1 -> conv1
I0501 12:59:20.542449 12974 net.cpp:144] Setting up conv1
I0501 12:59:20.542465 12974 net.cpp:151] Top shape: 20 64 30 30 (1152000)
I0501 12:59:20.542469 12974 net.cpp:159] Memory required for data: 4680240
I0501 12:59:20.542479 12974 layer_factory.hpp:77] Creating layer relu1
I0501 12:59:20.542485 12974 net.cpp:94] Creating Layer relu1
I0501 12:59:20.542488 12974 net.cpp:435] relu1 <- conv1
I0501 12:59:20.542492 12974 net.cpp:396] relu1 -> conv1 (in-place)
I0501 12:59:20.542500 12974 net.cpp:144] Setting up relu1
I0501 12:59:20.542505 12974 net.cpp:151] Top shape: 20 64 30 30 (1152000)
I0501 12:59:20.542507 12974 net.cpp:159] Memory required for data: 9288240
I0501 12:59:20.542510 12974 layer_factory.hpp:77] Creating layer conv2
I0501 12:59:20.542518 12974 net.cpp:94] Creating Layer conv2
I0501 12:59:20.542521 12974 net.cpp:435] conv2 <- conv1
I0501 12:59:20.542526 12974 net.cpp:409] conv2 -> conv2
I0501 12:59:20.550217 12974 net.cpp:144] Setting up conv2
I0501 12:59:20.550232 12974 net.cpp:151] Top shape: 20 64 30 30 (1152000)
I0501 12:59:20.550235 12974 net.cpp:159] Memory required for data: 13896240
I0501 12:59:20.550245 12974 layer_factory.hpp:77] Creating layer relu2
I0501 12:59:20.550251 12974 net.cpp:94] Creating Layer relu2
I0501 12:59:20.550253 12974 net.cpp:435] relu2 <- conv2
I0501 12:59:20.550259 12974 net.cpp:396] relu2 -> conv2 (in-place)
I0501 12:59:20.550266 12974 net.cpp:144] Setting up relu2
I0501 12:59:20.550271 12974 net.cpp:151] Top shape: 20 64 30 30 (1152000)
I0501 12:59:20.550273 12974 net.cpp:159] Memory required for data: 18504240
I0501 12:59:20.550276 12974 layer_factory.hpp:77] Creating layer pool2
I0501 12:59:20.550282 12974 net.cpp:94] Creating Layer pool2
I0501 12:59:20.550285 12974 net.cpp:435] pool2 <- conv2
I0501 12:59:20.550292 12974 net.cpp:409] pool2 -> pool2
I0501 12:59:20.550348 12974 net.cpp:144] Setting up pool2
I0501 12:59:20.550355 12974 net.cpp:151] Top shape: 20 64 15 15 (288000)
I0501 12:59:20.550359 12974 net.cpp:159] Memory required for data: 19656240
I0501 12:59:20.550361 12974 layer_factory.hpp:77] Creating layer conv3
I0501 12:59:20.550370 12974 net.cpp:94] Creating Layer conv3
I0501 12:59:20.550374 12974 net.cpp:435] conv3 <- pool2
I0501 12:59:20.550379 12974 net.cpp:409] conv3 -> conv3
I0501 12:59:20.555472 12974 net.cpp:144] Setting up conv3
I0501 12:59:20.555486 12974 net.cpp:151] Top shape: 20 64 15 15 (288000)
I0501 12:59:20.555490 12974 net.cpp:159] Memory required for data: 20808240
I0501 12:59:20.555500 12974 layer_factory.hpp:77] Creating layer relu3
I0501 12:59:20.555507 12974 net.cpp:94] Creating Layer relu3
I0501 12:59:20.555510 12974 net.cpp:435] relu3 <- conv3
I0501 12:59:20.555516 12974 net.cpp:396] relu3 -> conv3 (in-place)
I0501 12:59:20.555523 12974 net.cpp:144] Setting up relu3
I0501 12:59:20.555528 12974 net.cpp:151] Top shape: 20 64 15 15 (288000)
I0501 12:59:20.555531 12974 net.cpp:159] Memory required for data: 21960240
I0501 12:59:20.555534 12974 layer_factory.hpp:77] Creating layer conv4
I0501 12:59:20.555543 12974 net.cpp:94] Creating Layer conv4
I0501 12:59:20.555546 12974 net.cpp:435] conv4 <- conv3
I0501 12:59:20.555552 12974 net.cpp:409] conv4 -> conv4
I0501 12:59:20.560197 12974 net.cpp:144] Setting up conv4
I0501 12:59:20.560211 12974 net.cpp:151] Top shape: 20 64 15 15 (288000)
I0501 12:59:20.560215 12974 net.cpp:159] Memory required for data: 23112240
I0501 12:59:20.560221 12974 layer_factory.hpp:77] Creating layer relu4
I0501 12:59:20.560227 12974 net.cpp:94] Creating Layer relu4
I0501 12:59:20.560231 12974 net.cpp:435] relu4 <- conv4
I0501 12:59:20.560235 12974 net.cpp:396] relu4 -> conv4 (in-place)
I0501 12:59:20.560242 12974 net.cpp:144] Setting up relu4
I0501 12:59:20.560247 12974 net.cpp:151] Top shape: 20 64 15 15 (288000)
I0501 12:59:20.560250 12974 net.cpp:159] Memory required for data: 24264240
I0501 12:59:20.560252 12974 layer_factory.hpp:77] Creating layer conv5
I0501 12:59:20.560262 12974 net.cpp:94] Creating Layer conv5
I0501 12:59:20.560266 12974 net.cpp:435] conv5 <- conv4
I0501 12:59:20.560271 12974 net.cpp:409] conv5 -> conv5
I0501 12:59:20.564913 12974 net.cpp:144] Setting up conv5
I0501 12:59:20.564927 12974 net.cpp:151] Top shape: 20 64 15 15 (288000)
I0501 12:59:20.564931 12974 net.cpp:159] Memory required for data: 25416240
I0501 12:59:20.564940 12974 layer_factory.hpp:77] Creating layer relu5
I0501 12:59:20.564947 12974 net.cpp:94] Creating Layer relu5
I0501 12:59:20.564950 12974 net.cpp:435] relu5 <- conv5
I0501 12:59:20.564956 12974 net.cpp:396] relu5 -> conv5 (in-place)
I0501 12:59:20.564962 12974 net.cpp:144] Setting up relu5
I0501 12:59:20.564967 12974 net.cpp:151] Top shape: 20 64 15 15 (288000)
I0501 12:59:20.564970 12974 net.cpp:159] Memory required for data: 26568240
I0501 12:59:20.564973 12974 layer_factory.hpp:77] Creating layer pool5
I0501 12:59:20.564978 12974 net.cpp:94] Creating Layer pool5
I0501 12:59:20.564981 12974 net.cpp:435] pool5 <- conv5
I0501 12:59:20.564985 12974 net.cpp:409] pool5 -> pool5
I0501 12:59:20.565026 12974 net.cpp:144] Setting up pool5
I0501 12:59:20.565032 12974 net.cpp:151] Top shape: 20 64 7 7 (62720)
I0501 12:59:20.565035 12974 net.cpp:159] Memory required for data: 26819120
I0501 12:59:20.565038 12974 layer_factory.hpp:77] Creating layer ip1
I0501 12:59:20.565047 12974 net.cpp:94] Creating Layer ip1
I0501 12:59:20.565049 12974 net.cpp:435] ip1 <- pool5
I0501 12:59:20.565054 12974 net.cpp:409] ip1 -> ip1
I0501 12:59:20.570643 12974 net.cpp:144] Setting up ip1
I0501 12:59:20.570657 12974 net.cpp:151] Top shape: 20 64 (1280)
I0501 12:59:20.570660 12974 net.cpp:159] Memory required for data: 26824240
I0501 12:59:20.570667 12974 layer_factory.hpp:77] Creating layer ip2
I0501 12:59:20.570673 12974 net.cpp:94] Creating Layer ip2
I0501 12:59:20.570677 12974 net.cpp:435] ip2 <- ip1
I0501 12:59:20.570682 12974 net.cpp:409] ip2 -> ip2
I0501 12:59:20.570915 12974 net.cpp:144] Setting up ip2
I0501 12:59:20.570924 12974 net.cpp:151] Top shape: 20 64 (1280)
I0501 12:59:20.570926 12974 net.cpp:159] Memory required for data: 26829360
I0501 12:59:20.570931 12974 layer_factory.hpp:77] Creating layer ip3
I0501 12:59:20.570940 12974 net.cpp:94] Creating Layer ip3
I0501 12:59:20.570943 12974 net.cpp:435] ip3 <- ip2
I0501 12:59:20.570947 12974 net.cpp:409] ip3 -> ip3
I0501 12:59:20.571143 12974 net.cpp:144] Setting up ip3
I0501 12:59:20.571151 12974 net.cpp:151] Top shape: 20 50 (1000)
I0501 12:59:20.571152 12974 net.cpp:159] Memory required for data: 26833360
I0501 12:59:20.571157 12974 layer_factory.hpp:77] Creating layer ip3_ip3_0_split
I0501 12:59:20.571162 12974 net.cpp:94] Creating Layer ip3_ip3_0_split
I0501 12:59:20.571166 12974 net.cpp:435] ip3_ip3_0_split <- ip3
I0501 12:59:20.571171 12974 net.cpp:409] ip3_ip3_0_split -> ip3_ip3_0_split_0
I0501 12:59:20.571177 12974 net.cpp:409] ip3_ip3_0_split -> ip3_ip3_0_split_1
I0501 12:59:20.571215 12974 net.cpp:144] Setting up ip3_ip3_0_split
I0501 12:59:20.571221 12974 net.cpp:151] Top shape: 20 50 (1000)
I0501 12:59:20.571224 12974 net.cpp:151] Top shape: 20 50 (1000)
I0501 12:59:20.571228 12974 net.cpp:159] Memory required for data: 26841360
I0501 12:59:20.571230 12974 layer_factory.hpp:77] Creating layer accuracy
I0501 12:59:20.571236 12974 net.cpp:94] Creating Layer accuracy
I0501 12:59:20.571239 12974 net.cpp:435] accuracy <- ip3_ip3_0_split_0
I0501 12:59:20.571243 12974 net.cpp:435] accuracy <- label_intercept_1_split_0
I0501 12:59:20.571247 12974 net.cpp:409] accuracy -> accuracy
…
