…
I0503 09:44:46.323400 19802 net.cpp:323] The NetState phase (0) differed from the phase (1) specified by a rule in layer intercept
I0503 09:44:46.323415 19802 net.cpp:323] The NetState phase (0) differed from the phase (1) specified by a rule in layer loss
I0503 09:44:46.323508 19802 net.cpp:52] Initializing net from parameters: 
state {
  phase: TRAIN
}
layer {
  name: "parameters"
  type: "HDF5Data"
  top: "data"
  top: "label"
  include {
    phase: TRAIN
  }
  hdf5_data_param {
    source: "/home/purduethu/scratch/radon/d/deng106/CNNStatisticalModel/distributions/input/5_distributions_400_sample_size_train-parameters-path.txt"
    batch_size: 20
  }
}
layer {
  name: "conv1"
  type: "Convolution"
  bottom: "data"
  top: "conv1"
  param {
    lr_mult: 1
  }
  param {
    lr_mult: 2
  }
  convolution_param {
    num_output: 64
    pad: 2
    kernel_size: 5
    stride: 1
    weight_filler {
      type: "gaussian"
      std: 0.0001
    }
    bias_filler {
      type: "constant"
    }
  }
}
layer {
  name: "relu1"
  type: "ReLU"
  bottom: "conv1"
  top: "conv1"
}
layer {
  name: "conv2"
  type: "Convolution"
  bottom: "conv1"
  top: "conv2"
  param {
    lr_mult: 1
  }
  param {
    lr_mult: 2
  }
  convolution_param {
    num_output: 64
    pad: 2
    kernel_size: 5
    stride: 1
    weight_filler {
      type: "gaussian"
      std: 0.01
    }
    bias_filler {
      type: "constant"
    }
  }
}
layer {
  name: "relu2"
  type: "ReLU"
  bottom: "conv2"
  top: "conv2"
}
layer {
  name: "pool2"
  type: "Pooling"
  bottom: "conv2"
  top: "pool2"
  pooling_param {
    pool: MAX
    kernel_size: 3
    stride: 2
  }
}
layer {
  name: "conv3"
  type: "Convolution"
  bottom: "pool2"
  top: "conv3"
  param {
    lr_mult: 1
  }
  param {
    lr_mult: 2
  }
  convolution_param {
    num_output: 128
    pad: 2
    kernel_size: 5
    stride: 1
    weight_filler {
      type: "gaussian"
      std: 0.01
    }
    bias_filler {
      type: "constant"
    }
  }
}
layer {
  name: "relu3"
  type: "ReLU"
  bottom: "conv3"
  top: "conv3"
}
layer {
  name: "conv4"
  type: "Convolution"
  bottom: "conv3"
  top: "conv4"
  param {
    lr_mult: 1
  }
  param {
    lr_mult: 2
  }
  convolution_param {
    num_output: 128
    pad: 2
    kernel_size: 5
    stride: 1
    weight_filler {
      type: "gaussian"
      std: 0.01
    }
    bias_filler {
      type: "constant"
    }
  }
}
layer {
  name: "relu4"
  type: "ReLU"
  bottom: "conv4"
  top: "conv4"
}
layer {
  name: "conv5"
  type: "Convolution"
  bottom: "conv4"
  top: "conv5"
  param {
    lr_mult: 1
  }
  param {
    lr_mult: 2
  }
  convolution_param {
    num_output: 128
    pad: 2
    kernel_size: 5
    stride: 1
    weight_filler {
      type: "gaussian"
      std: 0.01
    }
    bias_filler {
      type: "constant"
    }
  }
}
layer {
  name: "relu5"
  type: "ReLU"
  bottom: "conv5"
  top: "conv5"
}
layer {
  name: "pool5"
  type: "Pooling"
  bottom: "conv5"
  top: "pool5"
  pooling_param {
    pool: AVE
    kernel_size: 3
    stride: 2
  }
}
layer {
  name: "ip1"
  type: "InnerProduct"
  bottom: "pool5"
  top: "ip1"
  param {
    lr_mult: 1
  }
  param {
    lr_mult: 2
  }
  inner_product_param {
    num_output: 1024
    weight_filler {
      type: "gaussian"
      std: 0.1
    }
    bias_filler {
      type: "constant"
    }
  }
}
layer {
  name: "ip2"
  type: "InnerProduct"
  bottom: "ip1"
  top: "ip2"
  param {
    lr_mult: 1
  }
  param {
    lr_mult: 2
  }
  inner_product_param {
    num_output: 512
    weight_filler {
      type: "gaussian"
      std: 0.1
    }
    bias_filler {
      type: "constant"
    }
  }
}
layer {
  name: "ip3"
  type: "InnerProduct"
  bottom: "ip2"
  top: "ip3"
  param {
    lr_mult: 1
  }
  param {
    lr_mult: 2
  }
  inner_product_param {
    num_output: 1
    weight_filler {
      type: "gaussian"
      std: 0.1
    }
    bias_filler {
      type: "constant"
    }
  }
}
layer {
  name: "loss"
  type: "HuberLoss"
  bottom: "ip3"
  bottom: "label"
  top: "loss"
  include {
    phase: TRAIN
  }
}
I0503 09:44:46.323585 19802 layer_factory.hpp:77] Creating layer parameters
I0503 09:44:46.323601 19802 net.cpp:94] Creating Layer parameters
I0503 09:44:46.323606 19802 net.cpp:409] parameters -> data
I0503 09:44:46.323626 19802 net.cpp:409] parameters -> label
I0503 09:44:46.323637 19802 hdf5_data_layer.cpp:79] Loading list of HDF5 filenames from: /home/purduethu/scratch/radon/d/deng106/CNNStatisticalModel/distributions/input/5_distributions_400_sample_size_train-parameters-path.txt
I0503 09:44:46.323659 19802 hdf5_data_layer.cpp:93] Number of HDF5 files: 1
I0503 09:44:46.324281 19802 hdf5.cpp:32] Datatype class: H5T_FLOAT
I0503 09:44:46.387164 19802 net.cpp:144] Setting up parameters
I0503 09:44:46.387197 19802 net.cpp:151] Top shape: 20 1 20 20 (8000)
I0503 09:44:46.387202 19802 net.cpp:151] Top shape: 20 (20)
I0503 09:44:46.387207 19802 net.cpp:159] Memory required for data: 32080
I0503 09:44:46.387213 19802 layer_factory.hpp:77] Creating layer conv1
I0503 09:44:46.387238 19802 net.cpp:94] Creating Layer conv1
I0503 09:44:46.387244 19802 net.cpp:435] conv1 <- data
I0503 09:44:46.387255 19802 net.cpp:409] conv1 -> conv1
I0503 09:44:46.392143 19802 net.cpp:144] Setting up conv1
I0503 09:44:46.392158 19802 net.cpp:151] Top shape: 20 64 20 20 (512000)
I0503 09:44:46.392163 19802 net.cpp:159] Memory required for data: 2080080
I0503 09:44:46.392174 19802 layer_factory.hpp:77] Creating layer relu1
I0503 09:44:46.392184 19802 net.cpp:94] Creating Layer relu1
I0503 09:44:46.392187 19802 net.cpp:435] relu1 <- conv1
I0503 09:44:46.392192 19802 net.cpp:396] relu1 -> conv1 (in-place)
I0503 09:44:46.392207 19802 net.cpp:144] Setting up relu1
I0503 09:44:46.392213 19802 net.cpp:151] Top shape: 20 64 20 20 (512000)
I0503 09:44:46.392216 19802 net.cpp:159] Memory required for data: 4128080
I0503 09:44:46.392220 19802 layer_factory.hpp:77] Creating layer conv2
I0503 09:44:46.392227 19802 net.cpp:94] Creating Layer conv2
I0503 09:44:46.392231 19802 net.cpp:435] conv2 <- conv1
I0503 09:44:46.392236 19802 net.cpp:409] conv2 -> conv2
I0503 09:44:46.403245 19802 net.cpp:144] Setting up conv2
I0503 09:44:46.403260 19802 net.cpp:151] Top shape: 20 64 20 20 (512000)
I0503 09:44:46.403265 19802 net.cpp:159] Memory required for data: 6176080
I0503 09:44:46.403273 19802 layer_factory.hpp:77] Creating layer relu2
I0503 09:44:46.403280 19802 net.cpp:94] Creating Layer relu2
I0503 09:44:46.403285 19802 net.cpp:435] relu2 <- conv2
I0503 09:44:46.403290 19802 net.cpp:396] relu2 -> conv2 (in-place)
I0503 09:44:46.403297 19802 net.cpp:144] Setting up relu2
I0503 09:44:46.403302 19802 net.cpp:151] Top shape: 20 64 20 20 (512000)
I0503 09:44:46.403306 19802 net.cpp:159] Memory required for data: 8224080
I0503 09:44:46.403308 19802 layer_factory.hpp:77] Creating layer pool2
I0503 09:44:46.403316 19802 net.cpp:94] Creating Layer pool2
I0503 09:44:46.403326 19802 net.cpp:435] pool2 <- conv2
I0503 09:44:46.403331 19802 net.cpp:409] pool2 -> pool2
I0503 09:44:46.403375 19802 net.cpp:144] Setting up pool2
I0503 09:44:46.403383 19802 net.cpp:151] Top shape: 20 64 10 10 (128000)
I0503 09:44:46.403386 19802 net.cpp:159] Memory required for data: 8736080
I0503 09:44:46.403389 19802 layer_factory.hpp:77] Creating layer conv3
I0503 09:44:46.403398 19802 net.cpp:94] Creating Layer conv3
I0503 09:44:46.403401 19802 net.cpp:435] conv3 <- pool2
I0503 09:44:46.403406 19802 net.cpp:409] conv3 -> conv3
I0503 09:44:46.412961 19802 net.cpp:144] Setting up conv3
I0503 09:44:46.412977 19802 net.cpp:151] Top shape: 20 128 10 10 (256000)
I0503 09:44:46.412982 19802 net.cpp:159] Memory required for data: 9760080
I0503 09:44:46.412991 19802 layer_factory.hpp:77] Creating layer relu3
I0503 09:44:46.412997 19802 net.cpp:94] Creating Layer relu3
I0503 09:44:46.413002 19802 net.cpp:435] relu3 <- conv3
I0503 09:44:46.413005 19802 net.cpp:396] relu3 -> conv3 (in-place)
I0503 09:44:46.413013 19802 net.cpp:144] Setting up relu3
I0503 09:44:46.413018 19802 net.cpp:151] Top shape: 20 128 10 10 (256000)
I0503 09:44:46.413022 19802 net.cpp:159] Memory required for data: 10784080
I0503 09:44:46.413024 19802 layer_factory.hpp:77] Creating layer conv4
I0503 09:44:46.413033 19802 net.cpp:94] Creating Layer conv4
I0503 09:44:46.413038 19802 net.cpp:435] conv4 <- conv3
I0503 09:44:46.413043 19802 net.cpp:409] conv4 -> conv4
I0503 09:44:46.431071 19802 net.cpp:144] Setting up conv4
I0503 09:44:46.431087 19802 net.cpp:151] Top shape: 20 128 10 10 (256000)
I0503 09:44:46.431090 19802 net.cpp:159] Memory required for data: 11808080
I0503 09:44:46.431097 19802 layer_factory.hpp:77] Creating layer relu4
I0503 09:44:46.431103 19802 net.cpp:94] Creating Layer relu4
I0503 09:44:46.431108 19802 net.cpp:435] relu4 <- conv4
I0503 09:44:46.431113 19802 net.cpp:396] relu4 -> conv4 (in-place)
I0503 09:44:46.431120 19802 net.cpp:144] Setting up relu4
I0503 09:44:46.431125 19802 net.cpp:151] Top shape: 20 128 10 10 (256000)
I0503 09:44:46.431128 19802 net.cpp:159] Memory required for data: 12832080
I0503 09:44:46.431131 19802 layer_factory.hpp:77] Creating layer conv5
I0503 09:44:46.431139 19802 net.cpp:94] Creating Layer conv5
I0503 09:44:46.431143 19802 net.cpp:435] conv5 <- conv4
I0503 09:44:46.431149 19802 net.cpp:409] conv5 -> conv5
I0503 09:44:46.448850 19802 net.cpp:144] Setting up conv5
I0503 09:44:46.448865 19802 net.cpp:151] Top shape: 20 128 10 10 (256000)
I0503 09:44:46.448870 19802 net.cpp:159] Memory required for data: 13856080
I0503 09:44:46.448879 19802 layer_factory.hpp:77] Creating layer relu5
I0503 09:44:46.448885 19802 net.cpp:94] Creating Layer relu5
I0503 09:44:46.448889 19802 net.cpp:435] relu5 <- conv5
I0503 09:44:46.448894 19802 net.cpp:396] relu5 -> conv5 (in-place)
I0503 09:44:46.448901 19802 net.cpp:144] Setting up relu5
I0503 09:44:46.448906 19802 net.cpp:151] Top shape: 20 128 10 10 (256000)
I0503 09:44:46.448909 19802 net.cpp:159] Memory required for data: 14880080
I0503 09:44:46.448914 19802 layer_factory.hpp:77] Creating layer pool5
I0503 09:44:46.448918 19802 net.cpp:94] Creating Layer pool5
I0503 09:44:46.448921 19802 net.cpp:435] pool5 <- conv5
I0503 09:44:46.448926 19802 net.cpp:409] pool5 -> pool5
I0503 09:44:46.448962 19802 net.cpp:144] Setting up pool5
I0503 09:44:46.448969 19802 net.cpp:151] Top shape: 20 128 5 5 (64000)
I0503 09:44:46.448973 19802 net.cpp:159] Memory required for data: 15136080
I0503 09:44:46.448976 19802 layer_factory.hpp:77] Creating layer ip1
I0503 09:44:46.448987 19802 net.cpp:94] Creating Layer ip1
I0503 09:44:46.448990 19802 net.cpp:435] ip1 <- pool5
I0503 09:44:46.448995 19802 net.cpp:409] ip1 -> ip1
I0503 09:44:46.531924 19802 net.cpp:144] Setting up ip1
I0503 09:44:46.531963 19802 net.cpp:151] Top shape: 20 1024 (20480)
I0503 09:44:46.531968 19802 net.cpp:159] Memory required for data: 15218000
I0503 09:44:46.531977 19802 layer_factory.hpp:77] Creating layer ip2
I0503 09:44:46.531994 19802 net.cpp:94] Creating Layer ip2
I0503 09:44:46.532001 19802 net.cpp:435] ip2 <- ip1
I0503 09:44:46.532014 19802 net.cpp:409] ip2 -> ip2
I0503 09:44:46.545554 19802 net.cpp:144] Setting up ip2
I0503 09:44:46.545569 19802 net.cpp:151] Top shape: 20 512 (10240)
I0503 09:44:46.545574 19802 net.cpp:159] Memory required for data: 15258960
I0503 09:44:46.545580 19802 layer_factory.hpp:77] Creating layer ip3
I0503 09:44:46.545588 19802 net.cpp:94] Creating Layer ip3
I0503 09:44:46.545593 19802 net.cpp:435] ip3 <- ip2
I0503 09:44:46.545598 19802 net.cpp:409] ip3 -> ip3
I0503 09:44:46.545677 19802 net.cpp:144] Setting up ip3
I0503 09:44:46.545693 19802 net.cpp:151] Top shape: 20 1 (20)
I0503 09:44:46.545697 19802 net.cpp:159] Memory required for data: 15259040
I0503 09:44:46.545702 19802 layer_factory.hpp:77] Creating layer loss
I0503 09:44:46.545711 19802 net.cpp:94] Creating Layer loss
I0503 09:44:46.545716 19802 net.cpp:435] loss <- ip3
I0503 09:44:46.545719 19802 net.cpp:435] loss <- label
I0503 09:44:46.545725 19802 net.cpp:409] loss -> loss
I0503 09:44:46.545768 19802 net.cpp:144] Setting up loss
…
