…
I0506 09:05:17.513046 20933 net.cpp:323] The NetState phase (0) differed from the phase (1) specified by a rule in layer intercept
I0506 09:05:17.513062 20933 net.cpp:323] The NetState phase (0) differed from the phase (1) specified by a rule in layer loss
I0506 09:05:17.513142 20933 net.cpp:52] Initializing net from parameters: 
state {
  phase: TRAIN
}
layer {
  name: "parameters"
  type: "HDF5Data"
  top: "data"
  top: "label"
  include {
    phase: TRAIN
  }
  hdf5_data_param {
    source: "/home/purduethu/scratch/radon/d/deng106/CNNStatisticalModel/distributions/input/50_distributions_100_sample_size_train-parameters-path.txt"
    batch_size: 20
  }
}
layer {
  name: "conv1"
  type: "Convolution"
  bottom: "data"
  top: "conv1"
  param {
    lr_mult: 1
  }
  param {
    lr_mult: 2
  }
  convolution_param {
    num_output: 64
    pad: 2
    kernel_size: 5
    stride: 1
    weight_filler {
      type: "gaussian"
      std: 0.0001
    }
    bias_filler {
      type: "constant"
    }
  }
}
layer {
  name: "relu1"
  type: "ReLU"
  bottom: "conv1"
  top: "conv1"
}
layer {
  name: "conv2"
  type: "Convolution"
  bottom: "conv1"
  top: "conv2"
  param {
    lr_mult: 1
  }
  param {
    lr_mult: 2
  }
  convolution_param {
    num_output: 64
    pad: 2
    kernel_size: 5
    stride: 1
    weight_filler {
      type: "gaussian"
      std: 0.01
    }
    bias_filler {
      type: "constant"
    }
  }
}
layer {
  name: "relu2"
  type: "ReLU"
  bottom: "conv2"
  top: "conv2"
}
layer {
  name: "pool2"
  type: "Pooling"
  bottom: "conv2"
  top: "pool2"
  pooling_param {
    pool: MAX
    kernel_size: 3
    stride: 2
  }
}
layer {
  name: "conv3"
  type: "Convolution"
  bottom: "pool2"
  top: "conv3"
  param {
    lr_mult: 1
  }
  param {
    lr_mult: 2
  }
  convolution_param {
    num_output: 128
    pad: 2
    kernel_size: 5
    stride: 1
    weight_filler {
      type: "gaussian"
      std: 0.01
    }
    bias_filler {
      type: "constant"
    }
  }
}
layer {
  name: "relu3"
  type: "ReLU"
  bottom: "conv3"
  top: "conv3"
}
layer {
  name: "conv4"
  type: "Convolution"
  bottom: "conv3"
  top: "conv4"
  param {
    lr_mult: 1
  }
  param {
    lr_mult: 2
  }
  convolution_param {
    num_output: 128
    pad: 2
    kernel_size: 5
    stride: 1
    weight_filler {
      type: "gaussian"
      std: 0.01
    }
    bias_filler {
      type: "constant"
    }
  }
}
layer {
  name: "relu4"
  type: "ReLU"
  bottom: "conv4"
  top: "conv4"
}
layer {
  name: "conv5"
  type: "Convolution"
  bottom: "conv4"
  top: "conv5"
  param {
    lr_mult: 1
  }
  param {
    lr_mult: 2
  }
  convolution_param {
    num_output: 128
    pad: 2
    kernel_size: 5
    stride: 1
    weight_filler {
      type: "gaussian"
      std: 0.01
    }
    bias_filler {
      type: "constant"
    }
  }
}
layer {
  name: "relu5"
  type: "ReLU"
  bottom: "conv5"
  top: "conv5"
}
layer {
  name: "pool5"
  type: "Pooling"
  bottom: "conv5"
  top: "pool5"
  pooling_param {
    pool: AVE
    kernel_size: 3
    stride: 2
  }
}
layer {
  name: "ip1"
  type: "InnerProduct"
  bottom: "pool5"
  top: "ip1"
  param {
    lr_mult: 1
  }
  param {
    lr_mult: 2
  }
  inner_product_param {
    num_output: 1024
    weight_filler {
      type: "gaussian"
      std: 0.1
    }
    bias_filler {
      type: "constant"
    }
  }
}
layer {
  name: "ip2"
  type: "InnerProduct"
  bottom: "ip1"
  top: "ip2"
  param {
    lr_mult: 1
  }
  param {
    lr_mult: 2
  }
  inner_product_param {
    num_output: 512
    weight_filler {
      type: "gaussian"
      std: 0.1
    }
    bias_filler {
      type: "constant"
    }
  }
}
layer {
  name: "ip3"
  type: "InnerProduct"
  bottom: "ip2"
  top: "ip3"
  param {
    lr_mult: 1
  }
  param {
    lr_mult: 2
  }
  inner_product_param {
    num_output: 1
    weight_filler {
      type: "gaussian"
      std: 0.1
    }
    bias_filler {
      type: "constant"
    }
  }
}
layer {
  name: "loss"
  type: "HuberLoss"
  bottom: "ip3"
  bottom: "label"
  top: "loss"
  include {
    phase: TRAIN
  }
}
I0506 09:05:17.513195 20933 layer_factory.hpp:77] Creating layer parameters
I0506 09:05:17.513207 20933 net.cpp:94] Creating Layer parameters
I0506 09:05:17.513211 20933 net.cpp:409] parameters -> data
I0506 09:05:17.513221 20933 net.cpp:409] parameters -> label
I0506 09:05:17.513227 20933 hdf5_data_layer.cpp:79] Loading list of HDF5 filenames from: /home/purduethu/scratch/radon/d/deng106/CNNStatisticalModel/distributions/input/50_distributions_100_sample_size_train-parameters-path.txt
I0506 09:05:17.513242 20933 hdf5_data_layer.cpp:93] Number of HDF5 files: 1
I0506 09:05:17.513756 20933 hdf5.cpp:32] Datatype class: H5T_FLOAT
I0506 09:05:17.675853 20933 net.cpp:144] Setting up parameters
I0506 09:05:17.675884 20933 net.cpp:151] Top shape: 20 1 10 10 (2000)
I0506 09:05:17.675889 20933 net.cpp:151] Top shape: 20 (20)
I0506 09:05:17.675892 20933 net.cpp:159] Memory required for data: 8080
I0506 09:05:17.675899 20933 layer_factory.hpp:77] Creating layer conv1
I0506 09:05:17.675921 20933 net.cpp:94] Creating Layer conv1
I0506 09:05:17.675926 20933 net.cpp:435] conv1 <- data
I0506 09:05:17.675932 20933 net.cpp:409] conv1 -> conv1
I0506 09:05:17.680284 20933 net.cpp:144] Setting up conv1
I0506 09:05:17.680301 20933 net.cpp:151] Top shape: 20 64 10 10 (128000)
I0506 09:05:17.680305 20933 net.cpp:159] Memory required for data: 520080
I0506 09:05:17.680317 20933 layer_factory.hpp:77] Creating layer relu1
I0506 09:05:17.680326 20933 net.cpp:94] Creating Layer relu1
I0506 09:05:17.680330 20933 net.cpp:435] relu1 <- conv1
I0506 09:05:17.680335 20933 net.cpp:396] relu1 -> conv1 (in-place)
I0506 09:05:17.680349 20933 net.cpp:144] Setting up relu1
I0506 09:05:17.680353 20933 net.cpp:151] Top shape: 20 64 10 10 (128000)
I0506 09:05:17.680356 20933 net.cpp:159] Memory required for data: 1032080
I0506 09:05:17.680359 20933 layer_factory.hpp:77] Creating layer conv2
I0506 09:05:17.680367 20933 net.cpp:94] Creating Layer conv2
I0506 09:05:17.680371 20933 net.cpp:435] conv2 <- conv1
I0506 09:05:17.680375 20933 net.cpp:409] conv2 -> conv2
I0506 09:05:17.686488 20933 net.cpp:144] Setting up conv2
I0506 09:05:17.686503 20933 net.cpp:151] Top shape: 20 64 10 10 (128000)
I0506 09:05:17.686507 20933 net.cpp:159] Memory required for data: 1544080
I0506 09:05:17.686517 20933 layer_factory.hpp:77] Creating layer relu2
I0506 09:05:17.686523 20933 net.cpp:94] Creating Layer relu2
I0506 09:05:17.686527 20933 net.cpp:435] relu2 <- conv2
I0506 09:05:17.686532 20933 net.cpp:396] relu2 -> conv2 (in-place)
I0506 09:05:17.686538 20933 net.cpp:144] Setting up relu2
I0506 09:05:17.686542 20933 net.cpp:151] Top shape: 20 64 10 10 (128000)
I0506 09:05:17.686545 20933 net.cpp:159] Memory required for data: 2056080
I0506 09:05:17.686548 20933 layer_factory.hpp:77] Creating layer pool2
I0506 09:05:17.686554 20933 net.cpp:94] Creating Layer pool2
I0506 09:05:17.686558 20933 net.cpp:435] pool2 <- conv2
I0506 09:05:17.686561 20933 net.cpp:409] pool2 -> pool2
I0506 09:05:17.686617 20933 net.cpp:144] Setting up pool2
I0506 09:05:17.686625 20933 net.cpp:151] Top shape: 20 64 5 5 (32000)
I0506 09:05:17.686628 20933 net.cpp:159] Memory required for data: 2184080
I0506 09:05:17.686631 20933 layer_factory.hpp:77] Creating layer conv3
I0506 09:05:17.686640 20933 net.cpp:94] Creating Layer conv3
I0506 09:05:17.686648 20933 net.cpp:435] conv3 <- pool2
I0506 09:05:17.686653 20933 net.cpp:409] conv3 -> conv3
I0506 09:05:17.694777 20933 net.cpp:144] Setting up conv3
I0506 09:05:17.694792 20933 net.cpp:151] Top shape: 20 128 5 5 (64000)
I0506 09:05:17.694795 20933 net.cpp:159] Memory required for data: 2440080
I0506 09:05:17.694804 20933 layer_factory.hpp:77] Creating layer relu3
I0506 09:05:17.694809 20933 net.cpp:94] Creating Layer relu3
I0506 09:05:17.694813 20933 net.cpp:435] relu3 <- conv3
I0506 09:05:17.694818 20933 net.cpp:396] relu3 -> conv3 (in-place)
I0506 09:05:17.694824 20933 net.cpp:144] Setting up relu3
I0506 09:05:17.694828 20933 net.cpp:151] Top shape: 20 128 5 5 (64000)
I0506 09:05:17.694831 20933 net.cpp:159] Memory required for data: 2696080
I0506 09:05:17.694834 20933 layer_factory.hpp:77] Creating layer conv4
I0506 09:05:17.694842 20933 net.cpp:94] Creating Layer conv4
I0506 09:05:17.694845 20933 net.cpp:435] conv4 <- conv3
I0506 09:05:17.694850 20933 net.cpp:409] conv4 -> conv4
I0506 09:05:17.709863 20933 net.cpp:144] Setting up conv4
I0506 09:05:17.709879 20933 net.cpp:151] Top shape: 20 128 5 5 (64000)
I0506 09:05:17.709883 20933 net.cpp:159] Memory required for data: 2952080
I0506 09:05:17.709890 20933 layer_factory.hpp:77] Creating layer relu4
I0506 09:05:17.709897 20933 net.cpp:94] Creating Layer relu4
I0506 09:05:17.709900 20933 net.cpp:435] relu4 <- conv4
I0506 09:05:17.709904 20933 net.cpp:396] relu4 -> conv4 (in-place)
I0506 09:05:17.709911 20933 net.cpp:144] Setting up relu4
I0506 09:05:17.709916 20933 net.cpp:151] Top shape: 20 128 5 5 (64000)
I0506 09:05:17.709918 20933 net.cpp:159] Memory required for data: 3208080
I0506 09:05:17.709921 20933 layer_factory.hpp:77] Creating layer conv5
I0506 09:05:17.709929 20933 net.cpp:94] Creating Layer conv5
I0506 09:05:17.709933 20933 net.cpp:435] conv5 <- conv4
I0506 09:05:17.709938 20933 net.cpp:409] conv5 -> conv5
I0506 09:05:17.724532 20933 net.cpp:144] Setting up conv5
I0506 09:05:17.724547 20933 net.cpp:151] Top shape: 20 128 5 5 (64000)
I0506 09:05:17.724560 20933 net.cpp:159] Memory required for data: 3464080
I0506 09:05:17.724570 20933 layer_factory.hpp:77] Creating layer relu5
I0506 09:05:17.724576 20933 net.cpp:94] Creating Layer relu5
I0506 09:05:17.724580 20933 net.cpp:435] relu5 <- conv5
I0506 09:05:17.724583 20933 net.cpp:396] relu5 -> conv5 (in-place)
I0506 09:05:17.724591 20933 net.cpp:144] Setting up relu5
I0506 09:05:17.724596 20933 net.cpp:151] Top shape: 20 128 5 5 (64000)
I0506 09:05:17.724598 20933 net.cpp:159] Memory required for data: 3720080
I0506 09:05:17.724601 20933 layer_factory.hpp:77] Creating layer pool5
I0506 09:05:17.724606 20933 net.cpp:94] Creating Layer pool5
I0506 09:05:17.724609 20933 net.cpp:435] pool5 <- conv5
I0506 09:05:17.724613 20933 net.cpp:409] pool5 -> pool5
I0506 09:05:17.724654 20933 net.cpp:144] Setting up pool5
I0506 09:05:17.724663 20933 net.cpp:151] Top shape: 20 128 2 2 (10240)
I0506 09:05:17.724665 20933 net.cpp:159] Memory required for data: 3761040
I0506 09:05:17.724668 20933 layer_factory.hpp:77] Creating layer ip1
I0506 09:05:17.724678 20933 net.cpp:94] Creating Layer ip1
I0506 09:05:17.724681 20933 net.cpp:435] ip1 <- pool5
I0506 09:05:17.724685 20933 net.cpp:409] ip1 -> ip1
I0506 09:05:17.738826 20933 net.cpp:144] Setting up ip1
I0506 09:05:17.738842 20933 net.cpp:151] Top shape: 20 1024 (20480)
I0506 09:05:17.738845 20933 net.cpp:159] Memory required for data: 3842960
I0506 09:05:17.738852 20933 layer_factory.hpp:77] Creating layer ip2
I0506 09:05:17.738862 20933 net.cpp:94] Creating Layer ip2
I0506 09:05:17.738864 20933 net.cpp:435] ip2 <- ip1
I0506 09:05:17.738870 20933 net.cpp:409] ip2 -> ip2
I0506 09:05:17.752142 20933 net.cpp:144] Setting up ip2
I0506 09:05:17.752156 20933 net.cpp:151] Top shape: 20 512 (10240)
I0506 09:05:17.752159 20933 net.cpp:159] Memory required for data: 3883920
I0506 09:05:17.752166 20933 layer_factory.hpp:77] Creating layer ip3
I0506 09:05:17.752172 20933 net.cpp:94] Creating Layer ip3
I0506 09:05:17.752176 20933 net.cpp:435] ip3 <- ip2
I0506 09:05:17.752187 20933 net.cpp:409] ip3 -> ip3
I0506 09:05:17.752307 20933 net.cpp:144] Setting up ip3
I0506 09:05:17.752315 20933 net.cpp:151] Top shape: 20 1 (20)
I0506 09:05:17.752318 20933 net.cpp:159] Memory required for data: 3884000
I0506 09:05:17.752323 20933 layer_factory.hpp:77] Creating layer loss
I0506 09:05:17.752331 20933 net.cpp:94] Creating Layer loss
I0506 09:05:17.752334 20933 net.cpp:435] loss <- ip3
I0506 09:05:17.752337 20933 net.cpp:435] loss <- label
I0506 09:05:17.752341 20933 net.cpp:409] loss -> loss
I0506 09:05:17.752398 20933 net.cpp:144] Setting up loss
…
I0506 09:05:17.858981 20933 net.cpp:323] The NetState phase (0) differed from the phase (1) specified by a rule in layer intercept
I0506 09:05:17.858997 20933 net.cpp:323] The NetState phase (0) differed from the phase (1) specified by a rule in layer accuracy
I0506 09:05:17.859083 20933 net.cpp:52] Initializing net from parameters: 
state {
  phase: TRAIN
}
layer {
  name: "parameters"
  type: "HDF5Data"
  top: "data"
  top: "label"
  include {
    phase: TRAIN
  }
  hdf5_data_param {
    source: "/home/purduethu/scratch/radon/d/deng106/CNNStatisticalModel/distributions/input/50_distributions_100_sample_size_train-distributions-path.txt"
    batch_size: 20
  }
}
layer {
  name: "conv1"
  type: "Convolution"
  bottom: "data"
  top: "conv1"
  param {
    lr_mult: 1
  }
  param {
    lr_mult: 2
  }
  convolution_param {
    num_output: 64
    pad: 2
    kernel_size: 5
    stride: 1
    weight_filler {
      type: "gaussian"
      std: 0.0001
    }
    bias_filler {
      type: "constant"
    }
  }
}
layer {
  name: "relu1"
  type: "ReLU"
  bottom: "conv1"
  top: "conv1"
}
layer {
  name: "conv2"
  type: "Convolution"
  bottom: "conv1"
  top: "conv2"
  param {
    lr_mult: 1
  }
  param {
    lr_mult: 2
  }
  convolution_param {
    num_output: 64
    pad: 2
    kernel_size: 5
    stride: 1
    weight_filler {
      type: "gaussian"
      std: 0.01
    }
    bias_filler {
      type: "constant"
    }
  }
}
layer {
  name: "relu2"
  type: "ReLU"
  bottom: "conv2"
  top: "conv2"
}
layer {
  name: "pool2"
  type: "Pooling"
  bottom: "conv2"
  top: "pool2"
  pooling_param {
    pool: MAX
    kernel_size: 3
    stride: 2
  }
}
layer {
  name: "conv3"
  type: "Convolution"
  bottom: "pool2"
  top: "conv3"
  param {
    lr_mult: 1
  }
  param {
    lr_mult: 2
  }
  convolution_param {
    num_output: 128
    pad: 2
    kernel_size: 5
    stride: 1
    weight_filler {
      type: "gaussian"
      std: 0.01
    }
    bias_filler {
      type: "constant"
    }
  }
}
layer {
  name: "relu3"
  type: "ReLU"
  bottom: "conv3"
  top: "conv3"
}
layer {
  name: "conv4"
  type: "Convolution"
  bottom: "conv3"
  top: "conv4"
  param {
    lr_mult: 1
  }
  param {
    lr_mult: 2
  }
  convolution_param {
    num_output: 128
    pad: 2
    kernel_size: 5
    stride: 1
    weight_filler {
      type: "gaussian"
      std: 0.01
    }
    bias_filler {
      type: "constant"
    }
  }
}
layer {
  name: "relu4"
  type: "ReLU"
  bottom: "conv4"
  top: "conv4"
}
layer {
  name: "conv5"
  type: "Convolution"
  bottom: "conv4"
  top: "conv5"
  param {
    lr_mult: 1
  }
  param {
    lr_mult: 2
  }
  convolution_param {
    num_output: 128
    pad: 2
    kernel_size: 5
    stride: 1
    weight_filler {
      type: "gaussian"
      std: 0.01
    }
    bias_filler {
      type: "constant"
    }
  }
}
layer {
  name: "relu5"
  type: "ReLU"
  bottom: "conv5"
  top: "conv5"
}
layer {
  name: "pool5"
  type: "Pooling"
  bottom: "conv5"
  top: "pool5"
  pooling_param {
    pool: AVE
    kernel_size: 3
    stride: 2
  }
}
layer {
  name: "ip1"
  type: "InnerProduct"
  bottom: "pool5"
  top: "ip1"
  param {
    lr_mult: 1
  }
  param {
    lr_mult: 2
  }
  inner_product_param {
    num_output: 1024
    weight_filler {
      type: "gaussian"
      std: 0.1
    }
    bias_filler {
      type: "constant"
    }
  }
}
layer {
  name: "ip2"
  type: "InnerProduct"
  bottom: "ip1"
  top: "ip2"
  param {
    lr_mult: 1
  }
  param {
    lr_mult: 2
  }
  inner_product_param {
    num_output: 512
    weight_filler {
      type: "gaussian"
      std: 0.1
    }
    bias_filler {
      type: "constant"
    }
  }
}
layer {
  name: "ip3"
  type: "InnerProduct"
  bottom: "ip2"
  top: "ip3"
  param {
    lr_mult: 1
  }
  param {
    lr_mult: 2
  }
  inner_product_param {
    num_output: 50
    weight_filler {
      type: "gaussian"
      std: 0.1
    }
    bias_filler {
      type: "constant"
    }
  }
}
layer {
  name: "loss"
  type: "SoftmaxWithLoss"
  bottom: "ip3"
  bottom: "label"
  top: "loss"
}
I0506 09:05:17.859134 20933 layer_factory.hpp:77] Creating layer parameters
I0506 09:05:17.859143 20933 net.cpp:94] Creating Layer parameters
I0506 09:05:17.859145 20933 net.cpp:409] parameters -> data
I0506 09:05:17.859151 20933 net.cpp:409] parameters -> label
I0506 09:05:17.859158 20933 hdf5_data_layer.cpp:79] Loading list of HDF5 filenames from: /home/purduethu/scratch/radon/d/deng106/CNNStatisticalModel/distributions/input/50_distributions_100_sample_size_train-distributions-path.txt
I0506 09:05:17.859172 20933 hdf5_data_layer.cpp:93] Number of HDF5 files: 1
I0506 09:05:18.014195 20933 hdf5.cpp:35] Datatype class: H5T_INTEGER
I0506 09:05:18.017269 20933 net.cpp:144] Setting up parameters
I0506 09:05:18.017288 20933 net.cpp:151] Top shape: 20 1 10 10 (2000)
I0506 09:05:18.017293 20933 net.cpp:151] Top shape: 20 (20)
I0506 09:05:18.017297 20933 net.cpp:159] Memory required for data: 8080
I0506 09:05:18.017302 20933 layer_factory.hpp:77] Creating layer conv1
I0506 09:05:18.017318 20933 net.cpp:94] Creating Layer conv1
I0506 09:05:18.017323 20933 net.cpp:435] conv1 <- data
I0506 09:05:18.017328 20933 net.cpp:409] conv1 -> conv1
I0506 09:05:18.019227 20933 net.cpp:144] Setting up conv1
I0506 09:05:18.019242 20933 net.cpp:151] Top shape: 20 64 10 10 (128000)
I0506 09:05:18.019245 20933 net.cpp:159] Memory required for data: 520080
I0506 09:05:18.019255 20933 layer_factory.hpp:77] Creating layer relu1
I0506 09:05:18.019263 20933 net.cpp:94] Creating Layer relu1
I0506 09:05:18.019266 20933 net.cpp:435] relu1 <- conv1
I0506 09:05:18.019270 20933 net.cpp:396] relu1 -> conv1 (in-place)
I0506 09:05:18.019278 20933 net.cpp:144] Setting up relu1
I0506 09:05:18.019282 20933 net.cpp:151] Top shape: 20 64 10 10 (128000)
I0506 09:05:18.019285 20933 net.cpp:159] Memory required for data: 1032080
I0506 09:05:18.019289 20933 layer_factory.hpp:77] Creating layer conv2
I0506 09:05:18.019295 20933 net.cpp:94] Creating Layer conv2
I0506 09:05:18.019299 20933 net.cpp:435] conv2 <- conv1
I0506 09:05:18.019304 20933 net.cpp:409] conv2 -> conv2
I0506 09:05:18.024701 20933 net.cpp:144] Setting up conv2
I0506 09:05:18.024716 20933 net.cpp:151] Top shape: 20 64 10 10 (128000)
I0506 09:05:18.024720 20933 net.cpp:159] Memory required for data: 1544080
I0506 09:05:18.024727 20933 layer_factory.hpp:77] Creating layer relu2
I0506 09:05:18.024734 20933 net.cpp:94] Creating Layer relu2
I0506 09:05:18.024739 20933 net.cpp:435] relu2 <- conv2
I0506 09:05:18.024742 20933 net.cpp:396] relu2 -> conv2 (in-place)
I0506 09:05:18.024749 20933 net.cpp:144] Setting up relu2
I0506 09:05:18.024754 20933 net.cpp:151] Top shape: 20 64 10 10 (128000)
I0506 09:05:18.024756 20933 net.cpp:159] Memory required for data: 2056080
I0506 09:05:18.024758 20933 layer_factory.hpp:77] Creating layer pool2
I0506 09:05:18.024765 20933 net.cpp:94] Creating Layer pool2
I0506 09:05:18.024767 20933 net.cpp:435] pool2 <- conv2
I0506 09:05:18.024771 20933 net.cpp:409] pool2 -> pool2
I0506 09:05:18.024828 20933 net.cpp:144] Setting up pool2
I0506 09:05:18.024835 20933 net.cpp:151] Top shape: 20 64 5 5 (32000)
I0506 09:05:18.024838 20933 net.cpp:159] Memory required for data: 2184080
I0506 09:05:18.024842 20933 layer_factory.hpp:77] Creating layer conv3
I0506 09:05:18.024849 20933 net.cpp:94] Creating Layer conv3
I0506 09:05:18.024852 20933 net.cpp:435] conv3 <- pool2
I0506 09:05:18.024857 20933 net.cpp:409] conv3 -> conv3
I0506 09:05:18.033488 20933 net.cpp:144] Setting up conv3
I0506 09:05:18.033504 20933 net.cpp:151] Top shape: 20 128 5 5 (64000)
I0506 09:05:18.033507 20933 net.cpp:159] Memory required for data: 2440080
I0506 09:05:18.033515 20933 layer_factory.hpp:77] Creating layer relu3
I0506 09:05:18.033522 20933 net.cpp:94] Creating Layer relu3
I0506 09:05:18.033525 20933 net.cpp:435] relu3 <- conv3
I0506 09:05:18.033530 20933 net.cpp:396] relu3 -> conv3 (in-place)
I0506 09:05:18.033542 20933 net.cpp:144] Setting up relu3
I0506 09:05:18.033547 20933 net.cpp:151] Top shape: 20 128 5 5 (64000)
I0506 09:05:18.033550 20933 net.cpp:159] Memory required for data: 2696080
I0506 09:05:18.033553 20933 layer_factory.hpp:77] Creating layer conv4
I0506 09:05:18.033562 20933 net.cpp:94] Creating Layer conv4
I0506 09:05:18.033565 20933 net.cpp:435] conv4 <- conv3
I0506 09:05:18.033571 20933 net.cpp:409] conv4 -> conv4
I0506 09:05:18.048182 20933 net.cpp:144] Setting up conv4
I0506 09:05:18.048197 20933 net.cpp:151] Top shape: 20 128 5 5 (64000)
I0506 09:05:18.048202 20933 net.cpp:159] Memory required for data: 2952080
I0506 09:05:18.048208 20933 layer_factory.hpp:77] Creating layer relu4
I0506 09:05:18.048214 20933 net.cpp:94] Creating Layer relu4
I0506 09:05:18.048218 20933 net.cpp:435] relu4 <- conv4
I0506 09:05:18.048223 20933 net.cpp:396] relu4 -> conv4 (in-place)
I0506 09:05:18.048229 20933 net.cpp:144] Setting up relu4
I0506 09:05:18.048233 20933 net.cpp:151] Top shape: 20 128 5 5 (64000)
I0506 09:05:18.048236 20933 net.cpp:159] Memory required for data: 3208080
I0506 09:05:18.048239 20933 layer_factory.hpp:77] Creating layer conv5
I0506 09:05:18.048247 20933 net.cpp:94] Creating Layer conv5
I0506 09:05:18.048250 20933 net.cpp:435] conv5 <- conv4
I0506 09:05:18.048255 20933 net.cpp:409] conv5 -> conv5
I0506 09:05:18.063345 20933 net.cpp:144] Setting up conv5
I0506 09:05:18.063361 20933 net.cpp:151] Top shape: 20 128 5 5 (64000)
I0506 09:05:18.063365 20933 net.cpp:159] Memory required for data: 3464080
I0506 09:05:18.063374 20933 layer_factory.hpp:77] Creating layer relu5
I0506 09:05:18.063380 20933 net.cpp:94] Creating Layer relu5
I0506 09:05:18.063383 20933 net.cpp:435] relu5 <- conv5
I0506 09:05:18.063388 20933 net.cpp:396] relu5 -> conv5 (in-place)
I0506 09:05:18.063395 20933 net.cpp:144] Setting up relu5
I0506 09:05:18.063398 20933 net.cpp:151] Top shape: 20 128 5 5 (64000)
I0506 09:05:18.063401 20933 net.cpp:159] Memory required for data: 3720080
I0506 09:05:18.063405 20933 layer_factory.hpp:77] Creating layer pool5
I0506 09:05:18.063410 20933 net.cpp:94] Creating Layer pool5
I0506 09:05:18.063413 20933 net.cpp:435] pool5 <- conv5
I0506 09:05:18.063417 20933 net.cpp:409] pool5 -> pool5
I0506 09:05:18.063457 20933 net.cpp:144] Setting up pool5
I0506 09:05:18.063464 20933 net.cpp:151] Top shape: 20 128 2 2 (10240)
I0506 09:05:18.063467 20933 net.cpp:159] Memory required for data: 3761040
I0506 09:05:18.063470 20933 layer_factory.hpp:77] Creating layer ip1
I0506 09:05:18.063477 20933 net.cpp:94] Creating Layer ip1
I0506 09:05:18.063479 20933 net.cpp:435] ip1 <- pool5
I0506 09:05:18.063484 20933 net.cpp:409] ip1 -> ip1
I0506 09:05:18.076916 20933 net.cpp:144] Setting up ip1
I0506 09:05:18.076931 20933 net.cpp:151] Top shape: 20 1024 (20480)
I0506 09:05:18.076936 20933 net.cpp:159] Memory required for data: 3842960
I0506 09:05:18.076941 20933 layer_factory.hpp:77] Creating layer ip2
I0506 09:05:18.076948 20933 net.cpp:94] Creating Layer ip2
I0506 09:05:18.076951 20933 net.cpp:435] ip2 <- ip1
I0506 09:05:18.076956 20933 net.cpp:409] ip2 -> ip2
I0506 09:05:18.090229 20933 net.cpp:144] Setting up ip2
I0506 09:05:18.090242 20933 net.cpp:151] Top shape: 20 512 (10240)
I0506 09:05:18.090246 20933 net.cpp:159] Memory required for data: 3883920
I0506 09:05:18.090252 20933 layer_factory.hpp:77] Creating layer ip3
I0506 09:05:18.090260 20933 net.cpp:94] Creating Layer ip3
I0506 09:05:18.090262 20933 net.cpp:435] ip3 <- ip2
I0506 09:05:18.090267 20933 net.cpp:409] ip3 -> ip3
I0506 09:05:18.091785 20933 net.cpp:144] Setting up ip3
I0506 09:05:18.091799 20933 net.cpp:151] Top shape: 20 50 (1000)
I0506 09:05:18.091802 20933 net.cpp:159] Memory required for data: 3887920
I0506 09:05:18.091809 20933 layer_factory.hpp:77] Creating layer loss
I0506 09:05:18.091816 20933 net.cpp:94] Creating Layer loss
I0506 09:05:18.091820 20933 net.cpp:435] loss <- ip3
I0506 09:05:18.091823 20933 net.cpp:435] loss <- label
I0506 09:05:18.091827 20933 net.cpp:409] loss -> loss
I0506 09:05:18.091835 20933 layer_factory.hpp:77] Creating layer loss
…
I0506 09:05:18.092358 20933 solver.cpp:181] Creating test net (#0) specified by net file: ./protocol/dis_50_100_dimension.protocol_distribution
I0506 09:05:18.092384 20933 net.cpp:323] The NetState phase (1) differed from the phase (0) specified by a rule in layer parameters
I0506 09:05:18.092478 20933 net.cpp:52] Initializing net from parameters: 
state {
  phase: TEST
}
layer {
  name: "intercept"
  type: "HDF5Data"
  top: "data"
  top: "label"
  include {
    phase: TEST
  }
  hdf5_data_param {
    source: "/home/purduethu/scratch/radon/d/deng106/CNNStatisticalModel/distributions/input/50_distributions_100_sample_size_test-distributions-path.txt"
    batch_size: 20
  }
}
layer {
  name: "conv1"
  type: "Convolution"
  bottom: "data"
  top: "conv1"
  param {
    lr_mult: 1
  }
  param {
    lr_mult: 2
  }
  convolution_param {
    num_output: 64
    pad: 2
    kernel_size: 5
    stride: 1
    weight_filler {
      type: "gaussian"
      std: 0.0001
    }
    bias_filler {
      type: "constant"
    }
  }
}
layer {
  name: "relu1"
  type: "ReLU"
  bottom: "conv1"
  top: "conv1"
}
layer {
  name: "conv2"
  type: "Convolution"
  bottom: "conv1"
  top: "conv2"
  param {
    lr_mult: 1
  }
  param {
    lr_mult: 2
  }
  convolution_param {
    num_output: 64
    pad: 2
    kernel_size: 5
    stride: 1
    weight_filler {
      type: "gaussian"
      std: 0.01
    }
    bias_filler {
      type: "constant"
    }
  }
}
layer {
  name: "relu2"
  type: "ReLU"
  bottom: "conv2"
  top: "conv2"
}
layer {
  name: "pool2"
  type: "Pooling"
  bottom: "conv2"
  top: "pool2"
  pooling_param {
    pool: MAX
    kernel_size: 3
    stride: 2
  }
}
layer {
  name: "conv3"
  type: "Convolution"
  bottom: "pool2"
  top: "conv3"
  param {
    lr_mult: 1
  }
  param {
    lr_mult: 2
  }
  convolution_param {
    num_output: 128
    pad: 2
    kernel_size: 5
    stride: 1
    weight_filler {
      type: "gaussian"
      std: 0.01
    }
    bias_filler {
      type: "constant"
    }
  }
}
layer {
  name: "relu3"
  type: "ReLU"
  bottom: "conv3"
  top: "conv3"
}
layer {
  name: "conv4"
  type: "Convolution"
  bottom: "conv3"
  top: "conv4"
  param {
    lr_mult: 1
  }
  param {
    lr_mult: 2
  }
  convolution_param {
    num_output: 128
    pad: 2
    kernel_size: 5
    stride: 1
    weight_filler {
      type: "gaussian"
      std: 0.01
    }
    bias_filler {
      type: "constant"
    }
  }
}
layer {
  name: "relu4"
  type: "ReLU"
  bottom: "conv4"
  top: "conv4"
}
layer {
  name: "conv5"
  type: "Convolution"
  bottom: "conv4"
  top: "conv5"
  param {
    lr_mult: 1
  }
  param {
    lr_mult: 2
  }
  convolution_param {
    num_output: 128
    pad: 2
    kernel_size: 5
    stride: 1
    weight_filler {
      type: "gaussian"
      std: 0.01
    }
    bias_filler {
      type: "constant"
    }
  }
}
layer {
  name: "relu5"
  type: "ReLU"
  bottom: "conv5"
  top: "conv5"
}
layer {
  name: "pool5"
  type: "Pooling"
  bottom: "conv5"
  top: "pool5"
  pooling_param {
    pool: AVE
    kernel_size: 3
    stride: 2
  }
}
layer {
  name: "ip1"
  type: "InnerProduct"
  bottom: "pool5"
  top: "ip1"
  param {
    lr_mult: 1
  }
  param {
    lr_mult: 2
  }
  inner_product_param {
    num_output: 1024
    weight_filler {
      type: "gaussian"
      std: 0.1
    }
    bias_filler {
      type: "constant"
    }
  }
}
layer {
  name: "ip2"
  type: "InnerProduct"
  bottom: "ip1"
  top: "ip2"
  param {
    lr_mult: 1
  }
  param {
    lr_mult: 2
  }
  inner_product_param {
    num_output: 512
    weight_filler {
      type: "gaussian"
      std: 0.1
    }
    bias_filler {
      type: "constant"
    }
  }
}
layer {
  name: "ip3"
  type: "InnerProduct"
  bottom: "ip2"
  top: "ip3"
  param {
    lr_mult: 1
  }
  param {
    lr_mult: 2
  }
  inner_product_param {
    num_output: 50
    weight_filler {
      type: "gaussian"
      std: 0.1
    }
    bias_filler {
      type: "constant"
    }
  }
}
layer {
  name: "accuracy"
  type: "Accuracy"
  bottom: "ip3"
  bottom: "label"
  top: "accuracy"
  include {
    phase: TEST
  }
}
layer {
  name: "loss"
  type: "SoftmaxWithLoss"
  bottom: "ip3"
  bottom: "label"
  top: "loss"
}
I0506 09:05:18.092542 20933 layer_factory.hpp:77] Creating layer intercept
I0506 09:05:18.092553 20933 net.cpp:94] Creating Layer intercept
I0506 09:05:18.092568 20933 net.cpp:409] intercept -> data
I0506 09:05:18.092576 20933 net.cpp:409] intercept -> label
I0506 09:05:18.092581 20933 hdf5_data_layer.cpp:79] Loading list of HDF5 filenames from: /home/purduethu/scratch/radon/d/deng106/CNNStatisticalModel/distributions/input/50_distributions_100_sample_size_test-distributions-path.txt
I0506 09:05:18.092599 20933 hdf5_data_layer.cpp:93] Number of HDF5 files: 1
I0506 09:05:18.133591 20933 net.cpp:144] Setting up intercept
I0506 09:05:18.133625 20933 net.cpp:151] Top shape: 20 1 10 10 (2000)
I0506 09:05:18.133630 20933 net.cpp:151] Top shape: 20 (20)
I0506 09:05:18.133632 20933 net.cpp:159] Memory required for data: 8080
I0506 09:05:18.133638 20933 layer_factory.hpp:77] Creating layer label_intercept_1_split
I0506 09:05:18.133656 20933 net.cpp:94] Creating Layer label_intercept_1_split
I0506 09:05:18.133661 20933 net.cpp:435] label_intercept_1_split <- label
I0506 09:05:18.133666 20933 net.cpp:409] label_intercept_1_split -> label_intercept_1_split_0
I0506 09:05:18.133674 20933 net.cpp:409] label_intercept_1_split -> label_intercept_1_split_1
I0506 09:05:18.133718 20933 net.cpp:144] Setting up label_intercept_1_split
I0506 09:05:18.133724 20933 net.cpp:151] Top shape: 20 (20)
I0506 09:05:18.133728 20933 net.cpp:151] Top shape: 20 (20)
I0506 09:05:18.133730 20933 net.cpp:159] Memory required for data: 8240
I0506 09:05:18.133733 20933 layer_factory.hpp:77] Creating layer conv1
I0506 09:05:18.133744 20933 net.cpp:94] Creating Layer conv1
I0506 09:05:18.133747 20933 net.cpp:435] conv1 <- data
I0506 09:05:18.133752 20933 net.cpp:409] conv1 -> conv1
I0506 09:05:18.134660 20933 net.cpp:144] Setting up conv1
I0506 09:05:18.134673 20933 net.cpp:151] Top shape: 20 64 10 10 (128000)
I0506 09:05:18.134677 20933 net.cpp:159] Memory required for data: 520240
I0506 09:05:18.134687 20933 layer_factory.hpp:77] Creating layer relu1
I0506 09:05:18.134693 20933 net.cpp:94] Creating Layer relu1
I0506 09:05:18.134697 20933 net.cpp:435] relu1 <- conv1
I0506 09:05:18.134701 20933 net.cpp:396] relu1 -> conv1 (in-place)
I0506 09:05:18.134708 20933 net.cpp:144] Setting up relu1
I0506 09:05:18.134712 20933 net.cpp:151] Top shape: 20 64 10 10 (128000)
I0506 09:05:18.134722 20933 net.cpp:159] Memory required for data: 1032240
I0506 09:05:18.134726 20933 layer_factory.hpp:77] Creating layer conv2
I0506 09:05:18.134733 20933 net.cpp:94] Creating Layer conv2
I0506 09:05:18.134737 20933 net.cpp:435] conv2 <- conv1
I0506 09:05:18.134742 20933 net.cpp:409] conv2 -> conv2
I0506 09:05:18.138921 20933 net.cpp:144] Setting up conv2
I0506 09:05:18.138936 20933 net.cpp:151] Top shape: 20 64 10 10 (128000)
I0506 09:05:18.138941 20933 net.cpp:159] Memory required for data: 1544240
I0506 09:05:18.138948 20933 layer_factory.hpp:77] Creating layer relu2
I0506 09:05:18.138954 20933 net.cpp:94] Creating Layer relu2
I0506 09:05:18.138957 20933 net.cpp:435] relu2 <- conv2
I0506 09:05:18.138962 20933 net.cpp:396] relu2 -> conv2 (in-place)
I0506 09:05:18.138968 20933 net.cpp:144] Setting up relu2
I0506 09:05:18.138972 20933 net.cpp:151] Top shape: 20 64 10 10 (128000)
I0506 09:05:18.138975 20933 net.cpp:159] Memory required for data: 2056240
I0506 09:05:18.138978 20933 layer_factory.hpp:77] Creating layer pool2
I0506 09:05:18.138984 20933 net.cpp:94] Creating Layer pool2
I0506 09:05:18.138986 20933 net.cpp:435] pool2 <- conv2
I0506 09:05:18.138993 20933 net.cpp:409] pool2 -> pool2
I0506 09:05:18.139055 20933 net.cpp:144] Setting up pool2
I0506 09:05:18.139062 20933 net.cpp:151] Top shape: 20 64 5 5 (32000)
I0506 09:05:18.139065 20933 net.cpp:159] Memory required for data: 2184240
I0506 09:05:18.139067 20933 layer_factory.hpp:77] Creating layer conv3
I0506 09:05:18.139075 20933 net.cpp:94] Creating Layer conv3
I0506 09:05:18.139080 20933 net.cpp:435] conv3 <- pool2
I0506 09:05:18.139086 20933 net.cpp:409] conv3 -> conv3
I0506 09:05:18.145233 20933 net.cpp:144] Setting up conv3
I0506 09:05:18.145247 20933 net.cpp:151] Top shape: 20 128 5 5 (64000)
I0506 09:05:18.145251 20933 net.cpp:159] Memory required for data: 2440240
I0506 09:05:18.145258 20933 layer_factory.hpp:77] Creating layer relu3
I0506 09:05:18.145265 20933 net.cpp:94] Creating Layer relu3
I0506 09:05:18.145268 20933 net.cpp:435] relu3 <- conv3
I0506 09:05:18.145273 20933 net.cpp:396] relu3 -> conv3 (in-place)
I0506 09:05:18.145279 20933 net.cpp:144] Setting up relu3
I0506 09:05:18.145283 20933 net.cpp:151] Top shape: 20 128 5 5 (64000)
I0506 09:05:18.145287 20933 net.cpp:159] Memory required for data: 2696240
I0506 09:05:18.145289 20933 layer_factory.hpp:77] Creating layer conv4
I0506 09:05:18.145298 20933 net.cpp:94] Creating Layer conv4
I0506 09:05:18.145301 20933 net.cpp:435] conv4 <- conv3
I0506 09:05:18.145306 20933 net.cpp:409] conv4 -> conv4
I0506 09:05:18.158063 20933 net.cpp:144] Setting up conv4
I0506 09:05:18.158077 20933 net.cpp:151] Top shape: 20 128 5 5 (64000)
I0506 09:05:18.158082 20933 net.cpp:159] Memory required for data: 2952240
I0506 09:05:18.158088 20933 layer_factory.hpp:77] Creating layer relu4
I0506 09:05:18.158095 20933 net.cpp:94] Creating Layer relu4
I0506 09:05:18.158099 20933 net.cpp:435] relu4 <- conv4
I0506 09:05:18.158103 20933 net.cpp:396] relu4 -> conv4 (in-place)
I0506 09:05:18.158110 20933 net.cpp:144] Setting up relu4
I0506 09:05:18.158114 20933 net.cpp:151] Top shape: 20 128 5 5 (64000)
I0506 09:05:18.158118 20933 net.cpp:159] Memory required for data: 3208240
I0506 09:05:18.158120 20933 layer_factory.hpp:77] Creating layer conv5
I0506 09:05:18.158128 20933 net.cpp:94] Creating Layer conv5
I0506 09:05:18.158131 20933 net.cpp:435] conv5 <- conv4
I0506 09:05:18.158138 20933 net.cpp:409] conv5 -> conv5
I0506 09:05:18.170863 20933 net.cpp:144] Setting up conv5
I0506 09:05:18.170877 20933 net.cpp:151] Top shape: 20 128 5 5 (64000)
I0506 09:05:18.170881 20933 net.cpp:159] Memory required for data: 3464240
I0506 09:05:18.170891 20933 layer_factory.hpp:77] Creating layer relu5
I0506 09:05:18.170897 20933 net.cpp:94] Creating Layer relu5
I0506 09:05:18.170900 20933 net.cpp:435] relu5 <- conv5
I0506 09:05:18.170904 20933 net.cpp:396] relu5 -> conv5 (in-place)
I0506 09:05:18.170910 20933 net.cpp:144] Setting up relu5
I0506 09:05:18.170914 20933 net.cpp:151] Top shape: 20 128 5 5 (64000)
I0506 09:05:18.170922 20933 net.cpp:159] Memory required for data: 3720240
I0506 09:05:18.170925 20933 layer_factory.hpp:77] Creating layer pool5
I0506 09:05:18.170931 20933 net.cpp:94] Creating Layer pool5
I0506 09:05:18.170935 20933 net.cpp:435] pool5 <- conv5
I0506 09:05:18.170939 20933 net.cpp:409] pool5 -> pool5
I0506 09:05:18.170979 20933 net.cpp:144] Setting up pool5
I0506 09:05:18.170986 20933 net.cpp:151] Top shape: 20 128 2 2 (10240)
I0506 09:05:18.170989 20933 net.cpp:159] Memory required for data: 3761200
I0506 09:05:18.170992 20933 layer_factory.hpp:77] Creating layer ip1
I0506 09:05:18.171000 20933 net.cpp:94] Creating Layer ip1
I0506 09:05:18.171003 20933 net.cpp:435] ip1 <- pool5
I0506 09:05:18.171008 20933 net.cpp:409] ip1 -> ip1
I0506 09:05:18.184240 20933 net.cpp:144] Setting up ip1
I0506 09:05:18.184253 20933 net.cpp:151] Top shape: 20 1024 (20480)
I0506 09:05:18.184257 20933 net.cpp:159] Memory required for data: 3843120
I0506 09:05:18.184263 20933 layer_factory.hpp:77] Creating layer ip2
I0506 09:05:18.184270 20933 net.cpp:94] Creating Layer ip2
I0506 09:05:18.184273 20933 net.cpp:435] ip2 <- ip1
I0506 09:05:18.184279 20933 net.cpp:409] ip2 -> ip2
I0506 09:05:18.197772 20933 net.cpp:144] Setting up ip2
I0506 09:05:18.197787 20933 net.cpp:151] Top shape: 20 512 (10240)
I0506 09:05:18.197789 20933 net.cpp:159] Memory required for data: 3884080
I0506 09:05:18.197795 20933 layer_factory.hpp:77] Creating layer ip3
I0506 09:05:18.197805 20933 net.cpp:94] Creating Layer ip3
I0506 09:05:18.197809 20933 net.cpp:435] ip3 <- ip2
I0506 09:05:18.197814 20933 net.cpp:409] ip3 -> ip3
I0506 09:05:18.198561 20933 net.cpp:144] Setting up ip3
I0506 09:05:18.198570 20933 net.cpp:151] Top shape: 20 50 (1000)
I0506 09:05:18.198572 20933 net.cpp:159] Memory required for data: 3888080
I0506 09:05:18.198577 20933 layer_factory.hpp:77] Creating layer ip3_ip3_0_split
I0506 09:05:18.198583 20933 net.cpp:94] Creating Layer ip3_ip3_0_split
I0506 09:05:18.198586 20933 net.cpp:435] ip3_ip3_0_split <- ip3
I0506 09:05:18.198591 20933 net.cpp:409] ip3_ip3_0_split -> ip3_ip3_0_split_0
I0506 09:05:18.198597 20933 net.cpp:409] ip3_ip3_0_split -> ip3_ip3_0_split_1
I0506 09:05:18.198642 20933 net.cpp:144] Setting up ip3_ip3_0_split
I0506 09:05:18.198648 20933 net.cpp:151] Top shape: 20 50 (1000)
I0506 09:05:18.198652 20933 net.cpp:151] Top shape: 20 50 (1000)
I0506 09:05:18.198654 20933 net.cpp:159] Memory required for data: 3896080
I0506 09:05:18.198657 20933 layer_factory.hpp:77] Creating layer accuracy
I0506 09:05:18.198663 20933 net.cpp:94] Creating Layer accuracy
I0506 09:05:18.198667 20933 net.cpp:435] accuracy <- ip3_ip3_0_split_0
I0506 09:05:18.198669 20933 net.cpp:435] accuracy <- label_intercept_1_split_0
I0506 09:05:18.198673 20933 net.cpp:409] accuracy -> accuracy
…
