…
I0502 14:32:16.642195  7241 net.cpp:323] The NetState phase (0) differed from the phase (1) specified by a rule in layer intercept
I0502 14:32:16.642211  7241 net.cpp:323] The NetState phase (0) differed from the phase (1) specified by a rule in layer loss
I0502 14:32:16.642302  7241 net.cpp:52] Initializing net from parameters: 
state {
  phase: TRAIN
}
layer {
  name: "parameters"
  type: "HDF5Data"
  top: "data"
  top: "label"
  include {
    phase: TRAIN
  }
  hdf5_data_param {
    source: "/home/purduethu/scratch/radon/d/deng106/CNNStatisticalModel/distributions/input/20_distributions_900_sample_size_train-parameters-path.txt"
    batch_size: 20
  }
}
layer {
  name: "conv1"
  type: "Convolution"
  bottom: "data"
  top: "conv1"
  param {
    lr_mult: 1
  }
  param {
    lr_mult: 2
  }
  convolution_param {
    num_output: 64
    pad: 2
    kernel_size: 5
    stride: 1
    weight_filler {
      type: "gaussian"
      std: 0.0001
    }
    bias_filler {
      type: "constant"
    }
  }
}
layer {
  name: "relu1"
  type: "ReLU"
  bottom: "conv1"
  top: "conv1"
}
layer {
  name: "conv2"
  type: "Convolution"
  bottom: "conv1"
  top: "conv2"
  param {
    lr_mult: 1
  }
  param {
    lr_mult: 2
  }
  convolution_param {
    num_output: 64
    pad: 2
    kernel_size: 5
    stride: 1
    weight_filler {
      type: "gaussian"
      std: 0.01
    }
    bias_filler {
      type: "constant"
    }
  }
}
layer {
  name: "relu2"
  type: "ReLU"
  bottom: "conv2"
  top: "conv2"
}
layer {
  name: "pool2"
  type: "Pooling"
  bottom: "conv2"
  top: "pool2"
  pooling_param {
    pool: MAX
    kernel_size: 3
    stride: 2
  }
}
layer {
  name: "conv3"
  type: "Convolution"
  bottom: "pool2"
  top: "conv3"
  param {
    lr_mult: 1
  }
  param {
    lr_mult: 2
  }
  convolution_param {
    num_output: 64
    pad: 2
    kernel_size: 5
    stride: 1
    weight_filler {
      type: "gaussian"
      std: 0.01
    }
    bias_filler {
      type: "constant"
    }
  }
}
layer {
  name: "relu3"
  type: "ReLU"
  bottom: "conv3"
  top: "conv3"
}
layer {
  name: "conv4"
  type: "Convolution"
  bottom: "conv3"
  top: "conv4"
  param {
    lr_mult: 1
  }
  param {
    lr_mult: 2
  }
  convolution_param {
    num_output: 64
    pad: 2
    kernel_size: 5
    stride: 1
    weight_filler {
      type: "gaussian"
      std: 0.01
    }
    bias_filler {
      type: "constant"
    }
  }
}
layer {
  name: "relu4"
  type: "ReLU"
  bottom: "conv4"
  top: "conv4"
}
layer {
  name: "conv5"
  type: "Convolution"
  bottom: "conv4"
  top: "conv5"
  param {
    lr_mult: 1
  }
  param {
    lr_mult: 2
  }
  convolution_param {
    num_output: 64
    pad: 2
    kernel_size: 5
    stride: 1
    weight_filler {
      type: "gaussian"
      std: 0.01
    }
    bias_filler {
      type: "constant"
    }
  }
}
layer {
  name: "relu5"
  type: "ReLU"
  bottom: "conv5"
  top: "conv5"
}
layer {
  name: "pool5"
  type: "Pooling"
  bottom: "conv5"
  top: "pool5"
  pooling_param {
    pool: AVE
    kernel_size: 3
    stride: 2
  }
}
layer {
  name: "ip1"
  type: "InnerProduct"
  bottom: "pool5"
  top: "ip1"
  param {
    lr_mult: 1
  }
  param {
    lr_mult: 2
  }
  inner_product_param {
    num_output: 64
    weight_filler {
      type: "gaussian"
      std: 0.1
    }
    bias_filler {
      type: "constant"
    }
  }
}
layer {
  name: "ip2"
  type: "InnerProduct"
  bottom: "ip1"
  top: "ip2"
  param {
    lr_mult: 1
  }
  param {
    lr_mult: 2
  }
  inner_product_param {
    num_output: 64
    weight_filler {
      type: "gaussian"
      std: 0.1
    }
    bias_filler {
      type: "constant"
    }
  }
}
layer {
  name: "ip3"
  type: "InnerProduct"
  bottom: "ip2"
  top: "ip3"
  param {
    lr_mult: 1
  }
  param {
    lr_mult: 2
  }
  inner_product_param {
    num_output: 1
    weight_filler {
      type: "gaussian"
      std: 0.1
    }
    bias_filler {
      type: "constant"
    }
  }
}
layer {
  name: "loss"
  type: "HuberLoss"
  bottom: "ip3"
  bottom: "label"
  top: "loss"
  include {
    phase: TRAIN
  }
}
I0502 14:32:16.642379  7241 layer_factory.hpp:77] Creating layer parameters
I0502 14:32:16.642392  7241 net.cpp:94] Creating Layer parameters
I0502 14:32:16.642398  7241 net.cpp:409] parameters -> data
I0502 14:32:16.642417  7241 net.cpp:409] parameters -> label
I0502 14:32:16.642427  7241 hdf5_data_layer.cpp:79] Loading list of HDF5 filenames from: /home/purduethu/scratch/radon/d/deng106/CNNStatisticalModel/distributions/input/20_distributions_900_sample_size_train-parameters-path.txt
I0502 14:32:16.642451  7241 hdf5_data_layer.cpp:93] Number of HDF5 files: 1
I0502 14:32:16.643082  7241 hdf5.cpp:32] Datatype class: H5T_FLOAT
I0502 14:32:17.243026  7241 net.cpp:144] Setting up parameters
I0502 14:32:17.243060  7241 net.cpp:151] Top shape: 20 1 30 30 (18000)
I0502 14:32:17.243065  7241 net.cpp:151] Top shape: 20 (20)
I0502 14:32:17.243069  7241 net.cpp:159] Memory required for data: 72080
I0502 14:32:17.243077  7241 layer_factory.hpp:77] Creating layer conv1
I0502 14:32:17.243100  7241 net.cpp:94] Creating Layer conv1
I0502 14:32:17.243105  7241 net.cpp:435] conv1 <- data
I0502 14:32:17.243118  7241 net.cpp:409] conv1 -> conv1
I0502 14:32:17.248987  7241 net.cpp:144] Setting up conv1
I0502 14:32:17.249013  7241 net.cpp:151] Top shape: 20 64 30 30 (1152000)
I0502 14:32:17.249017  7241 net.cpp:159] Memory required for data: 4680080
I0502 14:32:17.249030  7241 layer_factory.hpp:77] Creating layer relu1
I0502 14:32:17.249040  7241 net.cpp:94] Creating Layer relu1
I0502 14:32:17.249044  7241 net.cpp:435] relu1 <- conv1
I0502 14:32:17.249048  7241 net.cpp:396] relu1 -> conv1 (in-place)
I0502 14:32:17.249066  7241 net.cpp:144] Setting up relu1
I0502 14:32:17.249073  7241 net.cpp:151] Top shape: 20 64 30 30 (1152000)
I0502 14:32:17.249075  7241 net.cpp:159] Memory required for data: 9288080
I0502 14:32:17.249078  7241 layer_factory.hpp:77] Creating layer conv2
I0502 14:32:17.249089  7241 net.cpp:94] Creating Layer conv2
I0502 14:32:17.249091  7241 net.cpp:435] conv2 <- conv1
I0502 14:32:17.249096  7241 net.cpp:409] conv2 -> conv2
I0502 14:32:17.263818  7241 net.cpp:144] Setting up conv2
I0502 14:32:17.263851  7241 net.cpp:151] Top shape: 20 64 30 30 (1152000)
I0502 14:32:17.263856  7241 net.cpp:159] Memory required for data: 13896080
I0502 14:32:17.263869  7241 layer_factory.hpp:77] Creating layer relu2
I0502 14:32:17.263880  7241 net.cpp:94] Creating Layer relu2
I0502 14:32:17.263885  7241 net.cpp:435] relu2 <- conv2
I0502 14:32:17.263891  7241 net.cpp:396] relu2 -> conv2 (in-place)
I0502 14:32:17.263901  7241 net.cpp:144] Setting up relu2
I0502 14:32:17.263907  7241 net.cpp:151] Top shape: 20 64 30 30 (1152000)
I0502 14:32:17.263911  7241 net.cpp:159] Memory required for data: 18504080
I0502 14:32:17.263914  7241 layer_factory.hpp:77] Creating layer pool2
I0502 14:32:17.263923  7241 net.cpp:94] Creating Layer pool2
I0502 14:32:17.263936  7241 net.cpp:435] pool2 <- conv2
I0502 14:32:17.263942  7241 net.cpp:409] pool2 -> pool2
I0502 14:32:17.264009  7241 net.cpp:144] Setting up pool2
I0502 14:32:17.264019  7241 net.cpp:151] Top shape: 20 64 15 15 (288000)
I0502 14:32:17.264022  7241 net.cpp:159] Memory required for data: 19656080
I0502 14:32:17.264026  7241 layer_factory.hpp:77] Creating layer conv3
I0502 14:32:17.264037  7241 net.cpp:94] Creating Layer conv3
I0502 14:32:17.264041  7241 net.cpp:435] conv3 <- pool2
I0502 14:32:17.264047  7241 net.cpp:409] conv3 -> conv3
I0502 14:32:17.272426  7241 net.cpp:144] Setting up conv3
I0502 14:32:17.272447  7241 net.cpp:151] Top shape: 20 64 15 15 (288000)
I0502 14:32:17.272452  7241 net.cpp:159] Memory required for data: 20808080
I0502 14:32:17.272462  7241 layer_factory.hpp:77] Creating layer relu3
I0502 14:32:17.272470  7241 net.cpp:94] Creating Layer relu3
I0502 14:32:17.272485  7241 net.cpp:435] relu3 <- conv3
I0502 14:32:17.272490  7241 net.cpp:396] relu3 -> conv3 (in-place)
I0502 14:32:17.272498  7241 net.cpp:144] Setting up relu3
I0502 14:32:17.272503  7241 net.cpp:151] Top shape: 20 64 15 15 (288000)
I0502 14:32:17.272506  7241 net.cpp:159] Memory required for data: 21960080
I0502 14:32:17.272511  7241 layer_factory.hpp:77] Creating layer conv4
I0502 14:32:17.272519  7241 net.cpp:94] Creating Layer conv4
I0502 14:32:17.272523  7241 net.cpp:435] conv4 <- conv3
I0502 14:32:17.272529  7241 net.cpp:409] conv4 -> conv4
I0502 14:32:17.279974  7241 net.cpp:144] Setting up conv4
I0502 14:32:17.279992  7241 net.cpp:151] Top shape: 20 64 15 15 (288000)
I0502 14:32:17.279997  7241 net.cpp:159] Memory required for data: 23112080
I0502 14:32:17.280004  7241 layer_factory.hpp:77] Creating layer relu4
I0502 14:32:17.280011  7241 net.cpp:94] Creating Layer relu4
I0502 14:32:17.280015  7241 net.cpp:435] relu4 <- conv4
I0502 14:32:17.280020  7241 net.cpp:396] relu4 -> conv4 (in-place)
I0502 14:32:17.280028  7241 net.cpp:144] Setting up relu4
I0502 14:32:17.280033  7241 net.cpp:151] Top shape: 20 64 15 15 (288000)
I0502 14:32:17.280036  7241 net.cpp:159] Memory required for data: 24264080
I0502 14:32:17.280040  7241 layer_factory.hpp:77] Creating layer conv5
I0502 14:32:17.280048  7241 net.cpp:94] Creating Layer conv5
I0502 14:32:17.280052  7241 net.cpp:435] conv5 <- conv4
I0502 14:32:17.280058  7241 net.cpp:409] conv5 -> conv5
I0502 14:32:17.288069  7241 net.cpp:144] Setting up conv5
I0502 14:32:17.288092  7241 net.cpp:151] Top shape: 20 64 15 15 (288000)
I0502 14:32:17.288097  7241 net.cpp:159] Memory required for data: 25416080
I0502 14:32:17.288108  7241 layer_factory.hpp:77] Creating layer relu5
I0502 14:32:17.288117  7241 net.cpp:94] Creating Layer relu5
I0502 14:32:17.288122  7241 net.cpp:435] relu5 <- conv5
I0502 14:32:17.288127  7241 net.cpp:396] relu5 -> conv5 (in-place)
I0502 14:32:17.288136  7241 net.cpp:144] Setting up relu5
I0502 14:32:17.288142  7241 net.cpp:151] Top shape: 20 64 15 15 (288000)
I0502 14:32:17.288146  7241 net.cpp:159] Memory required for data: 26568080
I0502 14:32:17.288149  7241 layer_factory.hpp:77] Creating layer pool5
I0502 14:32:17.288156  7241 net.cpp:94] Creating Layer pool5
I0502 14:32:17.288159  7241 net.cpp:435] pool5 <- conv5
I0502 14:32:17.288164  7241 net.cpp:409] pool5 -> pool5
I0502 14:32:17.288208  7241 net.cpp:144] Setting up pool5
I0502 14:32:17.288216  7241 net.cpp:151] Top shape: 20 64 7 7 (62720)
I0502 14:32:17.288220  7241 net.cpp:159] Memory required for data: 26818960
I0502 14:32:17.288223  7241 layer_factory.hpp:77] Creating layer ip1
I0502 14:32:17.288234  7241 net.cpp:94] Creating Layer ip1
I0502 14:32:17.288239  7241 net.cpp:435] ip1 <- pool5
I0502 14:32:17.288244  7241 net.cpp:409] ip1 -> ip1
I0502 14:32:17.293387  7241 net.cpp:144] Setting up ip1
I0502 14:32:17.293401  7241 net.cpp:151] Top shape: 20 64 (1280)
I0502 14:32:17.293404  7241 net.cpp:159] Memory required for data: 26824080
I0502 14:32:17.293411  7241 layer_factory.hpp:77] Creating layer ip2
I0502 14:32:17.293418  7241 net.cpp:94] Creating Layer ip2
I0502 14:32:17.293429  7241 net.cpp:435] ip2 <- ip1
I0502 14:32:17.293437  7241 net.cpp:409] ip2 -> ip2
I0502 14:32:17.293618  7241 net.cpp:144] Setting up ip2
I0502 14:32:17.293625  7241 net.cpp:151] Top shape: 20 64 (1280)
I0502 14:32:17.293629  7241 net.cpp:159] Memory required for data: 26829200
I0502 14:32:17.293634  7241 layer_factory.hpp:77] Creating layer ip3
I0502 14:32:17.293642  7241 net.cpp:94] Creating Layer ip3
I0502 14:32:17.293644  7241 net.cpp:435] ip3 <- ip2
I0502 14:32:17.293649  7241 net.cpp:409] ip3 -> ip3
I0502 14:32:17.293717  7241 net.cpp:144] Setting up ip3
I0502 14:32:17.293732  7241 net.cpp:151] Top shape: 20 1 (20)
I0502 14:32:17.293735  7241 net.cpp:159] Memory required for data: 26829280
I0502 14:32:17.293741  7241 layer_factory.hpp:77] Creating layer loss
I0502 14:32:17.293753  7241 net.cpp:94] Creating Layer loss
I0502 14:32:17.293757  7241 net.cpp:435] loss <- ip3
I0502 14:32:17.293761  7241 net.cpp:435] loss <- label
I0502 14:32:17.293767  7241 net.cpp:409] loss -> loss
I0502 14:32:17.293805  7241 net.cpp:144] Setting up loss
…
