…
I0505 01:12:44.817214  1619 net.cpp:323] The NetState phase (0) differed from the phase (1) specified by a rule in layer intercept
I0505 01:12:44.817227  1619 net.cpp:323] The NetState phase (0) differed from the phase (1) specified by a rule in layer accuracy
I0505 01:12:44.817306  1619 net.cpp:52] Initializing net from parameters: 
state {
  phase: TRAIN
}
layer {
  name: "parameters"
  type: "HDF5Data"
  top: "data"
  top: "label"
  include {
    phase: TRAIN
  }
  hdf5_data_param {
    source: "/home/purduethu/scratch/radon/d/deng106/CNNStatisticalModel/distributions/input/50_distributions_400_sample_size_train-distributions-path.txt"
    batch_size: 20
  }
}
layer {
  name: "conv1"
  type: "Convolution"
  bottom: "data"
  top: "conv1"
  param {
    lr_mult: 1
  }
  param {
    lr_mult: 2
  }
  convolution_param {
    num_output: 64
    pad: 2
    kernel_size: 5
    stride: 1
    weight_filler {
      type: "gaussian"
      std: 0.0001
    }
    bias_filler {
      type: "constant"
    }
  }
}
layer {
  name: "relu1"
  type: "ReLU"
  bottom: "conv1"
  top: "conv1"
}
layer {
  name: "pool1"
  type: "Pooling"
  bottom: "conv1"
  top: "pool1"
  pooling_param {
    pool: MAX
    kernel_size: 3
    stride: 2
  }
}
layer {
  name: "conv2"
  type: "Convolution"
  bottom: "pool1"
  top: "conv2"
  param {
    lr_mult: 1
  }
  param {
    lr_mult: 2
  }
  convolution_param {
    num_output: 128
    pad: 2
    kernel_size: 5
    stride: 1
    weight_filler {
      type: "gaussian"
      std: 0.01
    }
    bias_filler {
      type: "constant"
    }
  }
}
layer {
  name: "relu2"
  type: "ReLU"
  bottom: "conv2"
  top: "conv2"
}
layer {
  name: "conv3"
  type: "Convolution"
  bottom: "conv2"
  top: "conv3"
  param {
    lr_mult: 1
  }
  param {
    lr_mult: 2
  }
  convolution_param {
    num_output: 128
    pad: 2
    kernel_size: 5
    stride: 1
    weight_filler {
      type: "gaussian"
      std: 0.01
    }
    bias_filler {
      type: "constant"
    }
  }
}
layer {
  name: "relu3"
  type: "ReLU"
  bottom: "conv3"
  top: "conv3"
}
layer {
  name: "pool3"
  type: "Pooling"
  bottom: "conv3"
  top: "pool3"
  pooling_param {
    pool: AVE
    kernel_size: 3
    stride: 2
  }
}
layer {
  name: "ip1"
  type: "InnerProduct"
  bottom: "pool3"
  top: "ip1"
  param {
    lr_mult: 1
  }
  param {
    lr_mult: 2
  }
  inner_product_param {
    num_output: 512
    weight_filler {
      type: "gaussian"
      std: 0.1
    }
    bias_filler {
      type: "constant"
    }
  }
}
layer {
  name: "ip2"
  type: "InnerProduct"
  bottom: "ip1"
  top: "ip2"
  param {
    lr_mult: 1
  }
  param {
    lr_mult: 2
  }
  inner_product_param {
    num_output: 256
    weight_filler {
      type: "gaussian"
      std: 0.1
    }
    bias_filler {
      type: "constant"
    }
  }
}
layer {
  name: "ip3"
  type: "InnerProduct"
  bottom: "ip2"
  top: "ip3"
  param {
    lr_mult: 1
  }
  param {
    lr_mult: 2
  }
  inner_product_param {
    num_output: 50
    weight_filler {
      type: "gaussian"
      std: 0.1
    }
    bias_filler {
      type: "constant"
    }
  }
}
layer {
  name: "loss"
  type: "SoftmaxWithLoss"
  bottom: "ip3"
  bottom: "label"
  top: "loss"
}
I0505 01:12:44.817369  1619 layer_factory.hpp:77] Creating layer parameters
I0505 01:12:44.817384  1619 net.cpp:94] Creating Layer parameters
I0505 01:12:44.817397  1619 net.cpp:409] parameters -> data
I0505 01:12:44.817417  1619 net.cpp:409] parameters -> label
I0505 01:12:44.817428  1619 hdf5_data_layer.cpp:79] Loading list of HDF5 filenames from: /home/purduethu/scratch/radon/d/deng106/CNNStatisticalModel/distributions/input/50_distributions_400_sample_size_train-distributions-path.txt
I0505 01:12:44.817452  1619 hdf5_data_layer.cpp:93] Number of HDF5 files: 1
I0505 01:12:44.818032  1619 hdf5.cpp:32] Datatype class: H5T_FLOAT
I0505 01:12:45.476766  1619 hdf5.cpp:35] Datatype class: H5T_INTEGER
I0505 01:12:45.480425  1619 net.cpp:144] Setting up parameters
I0505 01:12:45.480461  1619 net.cpp:151] Top shape: 20 1 20 20 (8000)
I0505 01:12:45.480470  1619 net.cpp:151] Top shape: 20 (20)
I0505 01:12:45.480475  1619 net.cpp:159] Memory required for data: 32080
I0505 01:12:45.480486  1619 layer_factory.hpp:77] Creating layer conv1
I0505 01:12:45.480510  1619 net.cpp:94] Creating Layer conv1
I0505 01:12:45.480518  1619 net.cpp:435] conv1 <- data
I0505 01:12:45.480535  1619 net.cpp:409] conv1 -> conv1
I0505 01:12:45.485656  1619 net.cpp:144] Setting up conv1
I0505 01:12:45.485682  1619 net.cpp:151] Top shape: 20 64 20 20 (512000)
I0505 01:12:45.485687  1619 net.cpp:159] Memory required for data: 2080080
I0505 01:12:45.485699  1619 layer_factory.hpp:77] Creating layer relu1
I0505 01:12:45.485709  1619 net.cpp:94] Creating Layer relu1
I0505 01:12:45.485713  1619 net.cpp:435] relu1 <- conv1
I0505 01:12:45.485718  1619 net.cpp:396] relu1 -> conv1 (in-place)
I0505 01:12:45.485736  1619 net.cpp:144] Setting up relu1
I0505 01:12:45.485741  1619 net.cpp:151] Top shape: 20 64 20 20 (512000)
I0505 01:12:45.485745  1619 net.cpp:159] Memory required for data: 4128080
I0505 01:12:45.485749  1619 layer_factory.hpp:77] Creating layer pool1
I0505 01:12:45.485756  1619 net.cpp:94] Creating Layer pool1
I0505 01:12:45.485759  1619 net.cpp:435] pool1 <- conv1
I0505 01:12:45.485764  1619 net.cpp:409] pool1 -> pool1
I0505 01:12:45.485810  1619 net.cpp:144] Setting up pool1
I0505 01:12:45.485817  1619 net.cpp:151] Top shape: 20 64 10 10 (128000)
I0505 01:12:45.485821  1619 net.cpp:159] Memory required for data: 4640080
I0505 01:12:45.485823  1619 layer_factory.hpp:77] Creating layer conv2
I0505 01:12:45.485833  1619 net.cpp:94] Creating Layer conv2
I0505 01:12:45.485837  1619 net.cpp:435] conv2 <- pool1
I0505 01:12:45.485842  1619 net.cpp:409] conv2 -> conv2
I0505 01:12:45.496156  1619 net.cpp:144] Setting up conv2
I0505 01:12:45.496181  1619 net.cpp:151] Top shape: 20 128 10 10 (256000)
I0505 01:12:45.496186  1619 net.cpp:159] Memory required for data: 5664080
I0505 01:12:45.496194  1619 layer_factory.hpp:77] Creating layer relu2
I0505 01:12:45.496202  1619 net.cpp:94] Creating Layer relu2
I0505 01:12:45.496207  1619 net.cpp:435] relu2 <- conv2
I0505 01:12:45.496212  1619 net.cpp:396] relu2 -> conv2 (in-place)
I0505 01:12:45.496220  1619 net.cpp:144] Setting up relu2
I0505 01:12:45.496225  1619 net.cpp:151] Top shape: 20 128 10 10 (256000)
I0505 01:12:45.496228  1619 net.cpp:159] Memory required for data: 6688080
I0505 01:12:45.496232  1619 layer_factory.hpp:77] Creating layer conv3
I0505 01:12:45.496240  1619 net.cpp:94] Creating Layer conv3
I0505 01:12:45.496244  1619 net.cpp:435] conv3 <- conv2
I0505 01:12:45.496250  1619 net.cpp:409] conv3 -> conv3
I0505 01:12:45.514025  1619 net.cpp:144] Setting up conv3
I0505 01:12:45.514057  1619 net.cpp:151] Top shape: 20 128 10 10 (256000)
I0505 01:12:45.514061  1619 net.cpp:159] Memory required for data: 7712080
I0505 01:12:45.514081  1619 layer_factory.hpp:77] Creating layer relu3
I0505 01:12:45.514091  1619 net.cpp:94] Creating Layer relu3
I0505 01:12:45.514096  1619 net.cpp:435] relu3 <- conv3
I0505 01:12:45.514101  1619 net.cpp:396] relu3 -> conv3 (in-place)
I0505 01:12:45.514111  1619 net.cpp:144] Setting up relu3
I0505 01:12:45.514117  1619 net.cpp:151] Top shape: 20 128 10 10 (256000)
I0505 01:12:45.514119  1619 net.cpp:159] Memory required for data: 8736080
I0505 01:12:45.514122  1619 layer_factory.hpp:77] Creating layer pool3
I0505 01:12:45.514129  1619 net.cpp:94] Creating Layer pool3
I0505 01:12:45.514142  1619 net.cpp:435] pool3 <- conv3
I0505 01:12:45.514147  1619 net.cpp:409] pool3 -> pool3
I0505 01:12:45.514194  1619 net.cpp:144] Setting up pool3
I0505 01:12:45.514202  1619 net.cpp:151] Top shape: 20 128 5 5 (64000)
I0505 01:12:45.514205  1619 net.cpp:159] Memory required for data: 8992080
I0505 01:12:45.514209  1619 layer_factory.hpp:77] Creating layer ip1
I0505 01:12:45.514219  1619 net.cpp:94] Creating Layer ip1
I0505 01:12:45.514223  1619 net.cpp:435] ip1 <- pool3
I0505 01:12:45.514228  1619 net.cpp:409] ip1 -> ip1
I0505 01:12:45.556287  1619 net.cpp:144] Setting up ip1
I0505 01:12:45.556324  1619 net.cpp:151] Top shape: 20 512 (10240)
I0505 01:12:45.556329  1619 net.cpp:159] Memory required for data: 9033040
I0505 01:12:45.556339  1619 layer_factory.hpp:77] Creating layer ip2
I0505 01:12:45.556349  1619 net.cpp:94] Creating Layer ip2
I0505 01:12:45.556354  1619 net.cpp:435] ip2 <- ip1
I0505 01:12:45.556361  1619 net.cpp:409] ip2 -> ip2
I0505 01:12:45.559645  1619 net.cpp:144] Setting up ip2
I0505 01:12:45.559658  1619 net.cpp:151] Top shape: 20 256 (5120)
I0505 01:12:45.559660  1619 net.cpp:159] Memory required for data: 9053520
I0505 01:12:45.559669  1619 layer_factory.hpp:77] Creating layer ip3
I0505 01:12:45.559676  1619 net.cpp:94] Creating Layer ip3
I0505 01:12:45.559680  1619 net.cpp:435] ip3 <- ip2
I0505 01:12:45.559685  1619 net.cpp:409] ip3 -> ip3
I0505 01:12:45.560856  1619 net.cpp:144] Setting up ip3
I0505 01:12:45.560870  1619 net.cpp:151] Top shape: 20 50 (1000)
I0505 01:12:45.560874  1619 net.cpp:159] Memory required for data: 9057520
I0505 01:12:45.560880  1619 layer_factory.hpp:77] Creating layer loss
I0505 01:12:45.560887  1619 net.cpp:94] Creating Layer loss
I0505 01:12:45.560891  1619 net.cpp:435] loss <- ip3
I0505 01:12:45.560895  1619 net.cpp:435] loss <- label
I0505 01:12:45.560901  1619 net.cpp:409] loss -> loss
I0505 01:12:45.560914  1619 layer_factory.hpp:77] Creating layer loss
…
I0505 01:12:45.561355  1619 solver.cpp:181] Creating test net (#0) specified by net file: ./protocol/dis_50_400_dimension.protocol_distribution
I0505 01:12:45.561380  1619 net.cpp:323] The NetState phase (1) differed from the phase (0) specified by a rule in layer parameters
I0505 01:12:45.561473  1619 net.cpp:52] Initializing net from parameters: 
state {
  phase: TEST
}
layer {
  name: "intercept"
  type: "HDF5Data"
  top: "data"
  top: "label"
  include {
    phase: TEST
  }
  hdf5_data_param {
    source: "/home/purduethu/scratch/radon/d/deng106/CNNStatisticalModel/distributions/input/50_distributions_400_sample_size_test-distributions-path.txt"
    batch_size: 20
  }
}
layer {
  name: "conv1"
  type: "Convolution"
  bottom: "data"
  top: "conv1"
  param {
    lr_mult: 1
  }
  param {
    lr_mult: 2
  }
  convolution_param {
    num_output: 64
    pad: 2
    kernel_size: 5
    stride: 1
    weight_filler {
      type: "gaussian"
      std: 0.0001
    }
    bias_filler {
      type: "constant"
    }
  }
}
layer {
  name: "relu1"
  type: "ReLU"
  bottom: "conv1"
  top: "conv1"
}
layer {
  name: "pool1"
  type: "Pooling"
  bottom: "conv1"
  top: "pool1"
  pooling_param {
    pool: MAX
    kernel_size: 3
    stride: 2
  }
}
layer {
  name: "conv2"
  type: "Convolution"
  bottom: "pool1"
  top: "conv2"
  param {
    lr_mult: 1
  }
  param {
    lr_mult: 2
  }
  convolution_param {
    num_output: 128
    pad: 2
    kernel_size: 5
    stride: 1
    weight_filler {
      type: "gaussian"
      std: 0.01
    }
    bias_filler {
      type: "constant"
    }
  }
}
layer {
  name: "relu2"
  type: "ReLU"
  bottom: "conv2"
  top: "conv2"
}
layer {
  name: "conv3"
  type: "Convolution"
  bottom: "conv2"
  top: "conv3"
  param {
    lr_mult: 1
  }
  param {
    lr_mult: 2
  }
  convolution_param {
    num_output: 128
    pad: 2
    kernel_size: 5
    stride: 1
    weight_filler {
      type: "gaussian"
      std: 0.01
    }
    bias_filler {
      type: "constant"
    }
  }
}
layer {
  name: "relu3"
  type: "ReLU"
  bottom: "conv3"
  top: "conv3"
}
layer {
  name: "pool3"
  type: "Pooling"
  bottom: "conv3"
  top: "pool3"
  pooling_param {
    pool: AVE
    kernel_size: 3
    stride: 2
  }
}
layer {
  name: "ip1"
  type: "InnerProduct"
  bottom: "pool3"
  top: "ip1"
  param {
    lr_mult: 1
  }
  param {
    lr_mult: 2
  }
  inner_product_param {
    num_output: 512
    weight_filler {
      type: "gaussian"
      std: 0.1
    }
    bias_filler {
      type: "constant"
    }
  }
}
layer {
  name: "ip2"
  type: "InnerProduct"
  bottom: "ip1"
  top: "ip2"
  param {
    lr_mult: 1
  }
  param {
    lr_mult: 2
  }
  inner_product_param {
    num_output: 256
    weight_filler {
      type: "gaussian"
      std: 0.1
    }
    bias_filler {
      type: "constant"
    }
  }
}
layer {
  name: "ip3"
  type: "InnerProduct"
  bottom: "ip2"
  top: "ip3"
  param {
    lr_mult: 1
  }
  param {
    lr_mult: 2
  }
  inner_product_param {
    num_output: 50
    weight_filler {
      type: "gaussian"
      std: 0.1
    }
    bias_filler {
      type: "constant"
    }
  }
}
layer {
  name: "accuracy"
  type: "Accuracy"
  bottom: "ip3"
  bottom: "label"
  top: "accuracy"
  include {
    phase: TEST
  }
}
layer {
  name: "loss"
  type: "SoftmaxWithLoss"
  bottom: "ip3"
  bottom: "label"
  top: "loss"
}
I0505 01:12:45.561540  1619 layer_factory.hpp:77] Creating layer intercept
I0505 01:12:45.561548  1619 net.cpp:94] Creating Layer intercept
I0505 01:12:45.561553  1619 net.cpp:409] intercept -> data
I0505 01:12:45.561560  1619 net.cpp:409] intercept -> label
I0505 01:12:45.561568  1619 hdf5_data_layer.cpp:79] Loading list of HDF5 filenames from: /home/purduethu/scratch/radon/d/deng106/CNNStatisticalModel/distributions/input/50_distributions_400_sample_size_test-distributions-path.txt
I0505 01:12:45.561589  1619 hdf5_data_layer.cpp:93] Number of HDF5 files: 1
I0505 01:12:45.725337  1619 net.cpp:144] Setting up intercept
I0505 01:12:45.725371  1619 net.cpp:151] Top shape: 20 1 20 20 (8000)
I0505 01:12:45.725378  1619 net.cpp:151] Top shape: 20 (20)
I0505 01:12:45.725380  1619 net.cpp:159] Memory required for data: 32080
I0505 01:12:45.725386  1619 layer_factory.hpp:77] Creating layer label_intercept_1_split
I0505 01:12:45.725414  1619 net.cpp:94] Creating Layer label_intercept_1_split
I0505 01:12:45.725419  1619 net.cpp:435] label_intercept_1_split <- label
I0505 01:12:45.725426  1619 net.cpp:409] label_intercept_1_split -> label_intercept_1_split_0
I0505 01:12:45.725435  1619 net.cpp:409] label_intercept_1_split -> label_intercept_1_split_1
I0505 01:12:45.725461  1619 net.cpp:144] Setting up label_intercept_1_split
I0505 01:12:45.725468  1619 net.cpp:151] Top shape: 20 (20)
I0505 01:12:45.725471  1619 net.cpp:151] Top shape: 20 (20)
I0505 01:12:45.725474  1619 net.cpp:159] Memory required for data: 32240
I0505 01:12:45.725486  1619 layer_factory.hpp:77] Creating layer conv1
I0505 01:12:45.725497  1619 net.cpp:94] Creating Layer conv1
I0505 01:12:45.725500  1619 net.cpp:435] conv1 <- data
I0505 01:12:45.725505  1619 net.cpp:409] conv1 -> conv1
I0505 01:12:45.726172  1619 net.cpp:144] Setting up conv1
I0505 01:12:45.726186  1619 net.cpp:151] Top shape: 20 64 20 20 (512000)
I0505 01:12:45.726189  1619 net.cpp:159] Memory required for data: 2080240
I0505 01:12:45.726199  1619 layer_factory.hpp:77] Creating layer relu1
I0505 01:12:45.726207  1619 net.cpp:94] Creating Layer relu1
I0505 01:12:45.726210  1619 net.cpp:435] relu1 <- conv1
I0505 01:12:45.726214  1619 net.cpp:396] relu1 -> conv1 (in-place)
I0505 01:12:45.726222  1619 net.cpp:144] Setting up relu1
I0505 01:12:45.726227  1619 net.cpp:151] Top shape: 20 64 20 20 (512000)
I0505 01:12:45.726230  1619 net.cpp:159] Memory required for data: 4128240
I0505 01:12:45.726233  1619 layer_factory.hpp:77] Creating layer pool1
I0505 01:12:45.726240  1619 net.cpp:94] Creating Layer pool1
I0505 01:12:45.726243  1619 net.cpp:435] pool1 <- conv1
I0505 01:12:45.726248  1619 net.cpp:409] pool1 -> pool1
I0505 01:12:45.726281  1619 net.cpp:144] Setting up pool1
I0505 01:12:45.726287  1619 net.cpp:151] Top shape: 20 64 10 10 (128000)
I0505 01:12:45.726290  1619 net.cpp:159] Memory required for data: 4640240
I0505 01:12:45.726294  1619 layer_factory.hpp:77] Creating layer conv2
I0505 01:12:45.726302  1619 net.cpp:94] Creating Layer conv2
I0505 01:12:45.726305  1619 net.cpp:435] conv2 <- pool1
I0505 01:12:45.726311  1619 net.cpp:409] conv2 -> conv2
I0505 01:12:45.733608  1619 net.cpp:144] Setting up conv2
I0505 01:12:45.733629  1619 net.cpp:151] Top shape: 20 128 10 10 (256000)
I0505 01:12:45.733633  1619 net.cpp:159] Memory required for data: 5664240
I0505 01:12:45.733642  1619 layer_factory.hpp:77] Creating layer relu2
I0505 01:12:45.733649  1619 net.cpp:94] Creating Layer relu2
I0505 01:12:45.733654  1619 net.cpp:435] relu2 <- conv2
I0505 01:12:45.733659  1619 net.cpp:396] relu2 -> conv2 (in-place)
I0505 01:12:45.733665  1619 net.cpp:144] Setting up relu2
I0505 01:12:45.733670  1619 net.cpp:151] Top shape: 20 128 10 10 (256000)
I0505 01:12:45.733674  1619 net.cpp:159] Memory required for data: 6688240
I0505 01:12:45.733676  1619 layer_factory.hpp:77] Creating layer conv3
I0505 01:12:45.733685  1619 net.cpp:94] Creating Layer conv3
I0505 01:12:45.733687  1619 net.cpp:435] conv3 <- conv2
I0505 01:12:45.733693  1619 net.cpp:409] conv3 -> conv3
I0505 01:12:45.747548  1619 net.cpp:144] Setting up conv3
I0505 01:12:45.747576  1619 net.cpp:151] Top shape: 20 128 10 10 (256000)
I0505 01:12:45.747581  1619 net.cpp:159] Memory required for data: 7712240
I0505 01:12:45.747591  1619 layer_factory.hpp:77] Creating layer relu3
I0505 01:12:45.747601  1619 net.cpp:94] Creating Layer relu3
I0505 01:12:45.747606  1619 net.cpp:435] relu3 <- conv3
I0505 01:12:45.747611  1619 net.cpp:396] relu3 -> conv3 (in-place)
I0505 01:12:45.747620  1619 net.cpp:144] Setting up relu3
I0505 01:12:45.747625  1619 net.cpp:151] Top shape: 20 128 10 10 (256000)
I0505 01:12:45.747628  1619 net.cpp:159] Memory required for data: 8736240
I0505 01:12:45.747632  1619 layer_factory.hpp:77] Creating layer pool3
I0505 01:12:45.747637  1619 net.cpp:94] Creating Layer pool3
I0505 01:12:45.747640  1619 net.cpp:435] pool3 <- conv3
I0505 01:12:45.747645  1619 net.cpp:409] pool3 -> pool3
I0505 01:12:45.747676  1619 net.cpp:144] Setting up pool3
I0505 01:12:45.747689  1619 net.cpp:151] Top shape: 20 128 5 5 (64000)
I0505 01:12:45.747694  1619 net.cpp:159] Memory required for data: 8992240
I0505 01:12:45.747696  1619 layer_factory.hpp:77] Creating layer ip1
I0505 01:12:45.747704  1619 net.cpp:94] Creating Layer ip1
I0505 01:12:45.747707  1619 net.cpp:435] ip1 <- pool3
I0505 01:12:45.747712  1619 net.cpp:409] ip1 -> ip1
I0505 01:12:45.788040  1619 net.cpp:144] Setting up ip1
I0505 01:12:45.788079  1619 net.cpp:151] Top shape: 20 512 (10240)
I0505 01:12:45.788084  1619 net.cpp:159] Memory required for data: 9033200
I0505 01:12:45.788107  1619 layer_factory.hpp:77] Creating layer ip2
I0505 01:12:45.788118  1619 net.cpp:94] Creating Layer ip2
I0505 01:12:45.788123  1619 net.cpp:435] ip2 <- ip1
I0505 01:12:45.788130  1619 net.cpp:409] ip2 -> ip2
I0505 01:12:45.791326  1619 net.cpp:144] Setting up ip2
I0505 01:12:45.791335  1619 net.cpp:151] Top shape: 20 256 (5120)
I0505 01:12:45.791339  1619 net.cpp:159] Memory required for data: 9053680
I0505 01:12:45.791348  1619 layer_factory.hpp:77] Creating layer ip3
I0505 01:12:45.791354  1619 net.cpp:94] Creating Layer ip3
I0505 01:12:45.791358  1619 net.cpp:435] ip3 <- ip2
I0505 01:12:45.791363  1619 net.cpp:409] ip3 -> ip3
I0505 01:12:45.791743  1619 net.cpp:144] Setting up ip3
I0505 01:12:45.791749  1619 net.cpp:151] Top shape: 20 50 (1000)
I0505 01:12:45.791754  1619 net.cpp:159] Memory required for data: 9057680
I0505 01:12:45.791759  1619 layer_factory.hpp:77] Creating layer ip3_ip3_0_split
I0505 01:12:45.791764  1619 net.cpp:94] Creating Layer ip3_ip3_0_split
I0505 01:12:45.791767  1619 net.cpp:435] ip3_ip3_0_split <- ip3
I0505 01:12:45.791771  1619 net.cpp:409] ip3_ip3_0_split -> ip3_ip3_0_split_0
I0505 01:12:45.791777  1619 net.cpp:409] ip3_ip3_0_split -> ip3_ip3_0_split_1
I0505 01:12:45.791802  1619 net.cpp:144] Setting up ip3_ip3_0_split
I0505 01:12:45.791807  1619 net.cpp:151] Top shape: 20 50 (1000)
I0505 01:12:45.791811  1619 net.cpp:151] Top shape: 20 50 (1000)
I0505 01:12:45.791815  1619 net.cpp:159] Memory required for data: 9065680
I0505 01:12:45.791818  1619 layer_factory.hpp:77] Creating layer accuracy
I0505 01:12:45.791824  1619 net.cpp:94] Creating Layer accuracy
I0505 01:12:45.791827  1619 net.cpp:435] accuracy <- ip3_ip3_0_split_0
I0505 01:12:45.791831  1619 net.cpp:435] accuracy <- label_intercept_1_split_0
I0505 01:12:45.791836  1619 net.cpp:409] accuracy -> accuracy
…
