…
I0506 11:38:21.381278 21370 net.cpp:323] The NetState phase (0) differed from the phase (1) specified by a rule in layer intercept
I0506 11:38:21.381294 21370 net.cpp:323] The NetState phase (0) differed from the phase (1) specified by a rule in layer loss
I0506 11:38:21.381371 21370 net.cpp:52] Initializing net from parameters: 
state {
  phase: TRAIN
}
layer {
  name: "parameters"
  type: "HDF5Data"
  top: "data"
  top: "label"
  include {
    phase: TRAIN
  }
  hdf5_data_param {
    source: "/home/purduethu/scratch/radon/d/deng106/CNNStatisticalModel/distributions/input/50_distributions_100_sample_size_train-parameters-path.txt"
    batch_size: 20
  }
}
layer {
  name: "conv1"
  type: "Convolution"
  bottom: "data"
  top: "conv1"
  param {
    lr_mult: 1
  }
  param {
    lr_mult: 2
  }
  convolution_param {
    num_output: 64
    pad: 2
    kernel_size: 5
    stride: 1
    weight_filler {
      type: "gaussian"
      std: 0.0001
    }
    bias_filler {
      type: "constant"
    }
  }
}
layer {
  name: "relu1"
  type: "ReLU"
  bottom: "conv1"
  top: "conv1"
}
layer {
  name: "conv2"
  type: "Convolution"
  bottom: "conv1"
  top: "conv2"
  param {
    lr_mult: 1
  }
  param {
    lr_mult: 2
  }
  convolution_param {
    num_output: 64
    pad: 2
    kernel_size: 5
    stride: 1
    weight_filler {
      type: "gaussian"
      std: 0.01
    }
    bias_filler {
      type: "constant"
    }
  }
}
layer {
  name: "relu2"
  type: "ReLU"
  bottom: "conv2"
  top: "conv2"
}
layer {
  name: "pool2"
  type: "Pooling"
  bottom: "conv2"
  top: "pool2"
  pooling_param {
    pool: MAX
    kernel_size: 3
    stride: 2
  }
}
layer {
  name: "conv3"
  type: "Convolution"
  bottom: "pool2"
  top: "conv3"
  param {
    lr_mult: 1
  }
  param {
    lr_mult: 2
  }
  convolution_param {
    num_output: 128
    pad: 2
    kernel_size: 5
    stride: 1
    weight_filler {
      type: "gaussian"
      std: 0.01
    }
    bias_filler {
      type: "constant"
    }
  }
}
layer {
  name: "relu3"
  type: "ReLU"
  bottom: "conv3"
  top: "conv3"
}
layer {
  name: "conv4"
  type: "Convolution"
  bottom: "conv3"
  top: "conv4"
  param {
    lr_mult: 1
  }
  param {
    lr_mult: 2
  }
  convolution_param {
    num_output: 128
    pad: 2
    kernel_size: 5
    stride: 1
    weight_filler {
      type: "gaussian"
      std: 0.01
    }
    bias_filler {
      type: "constant"
    }
  }
}
layer {
  name: "relu4"
  type: "ReLU"
  bottom: "conv4"
  top: "conv4"
}
layer {
  name: "conv5"
  type: "Convolution"
  bottom: "conv4"
  top: "conv5"
  param {
    lr_mult: 1
  }
  param {
    lr_mult: 2
  }
  convolution_param {
    num_output: 128
    pad: 2
    kernel_size: 5
    stride: 1
    weight_filler {
      type: "gaussian"
      std: 0.01
    }
    bias_filler {
      type: "constant"
    }
  }
}
layer {
  name: "relu5"
  type: "ReLU"
  bottom: "conv5"
  top: "conv5"
}
layer {
  name: "pool5"
  type: "Pooling"
  bottom: "conv5"
  top: "pool5"
  pooling_param {
    pool: AVE
    kernel_size: 3
    stride: 2
  }
}
layer {
  name: "ip1"
  type: "InnerProduct"
  bottom: "pool5"
  top: "ip1"
  param {
    lr_mult: 1
  }
  param {
    lr_mult: 2
  }
  inner_product_param {
    num_output: 1024
    weight_filler {
      type: "gaussian"
      std: 0.1
    }
    bias_filler {
      type: "constant"
    }
  }
}
layer {
  name: "ip2"
  type: "InnerProduct"
  bottom: "ip1"
  top: "ip2"
  param {
    lr_mult: 1
  }
  param {
    lr_mult: 2
  }
  inner_product_param {
    num_output: 512
    weight_filler {
      type: "gaussian"
      std: 0.1
    }
    bias_filler {
      type: "constant"
    }
  }
}
layer {
  name: "ip3"
  type: "InnerProduct"
  bottom: "ip2"
  top: "ip3"
  param {
    lr_mult: 1
  }
  param {
    lr_mult: 2
  }
  inner_product_param {
    num_output: 1
    weight_filler {
      type: "gaussian"
      std: 0.1
    }
    bias_filler {
      type: "constant"
    }
  }
}
layer {
  name: "loss"
  type: "HuberLoss"
  bottom: "ip3"
  bottom: "label"
  top: "loss"
  include {
    phase: TRAIN
  }
}
I0506 11:38:21.381422 21370 layer_factory.hpp:77] Creating layer parameters
I0506 11:38:21.381434 21370 net.cpp:94] Creating Layer parameters
I0506 11:38:21.381438 21370 net.cpp:409] parameters -> data
I0506 11:38:21.381448 21370 net.cpp:409] parameters -> label
I0506 11:38:21.381453 21370 hdf5_data_layer.cpp:79] Loading list of HDF5 filenames from: /home/purduethu/scratch/radon/d/deng106/CNNStatisticalModel/distributions/input/50_distributions_100_sample_size_train-parameters-path.txt
I0506 11:38:21.381469 21370 hdf5_data_layer.cpp:93] Number of HDF5 files: 1
I0506 11:38:21.381989 21370 hdf5.cpp:32] Datatype class: H5T_FLOAT
I0506 11:38:21.544512 21370 net.cpp:144] Setting up parameters
I0506 11:38:21.544545 21370 net.cpp:151] Top shape: 20 1 10 10 (2000)
I0506 11:38:21.544560 21370 net.cpp:151] Top shape: 20 (20)
I0506 11:38:21.544576 21370 net.cpp:159] Memory required for data: 8080
I0506 11:38:21.544584 21370 layer_factory.hpp:77] Creating layer conv1
I0506 11:38:21.544605 21370 net.cpp:94] Creating Layer conv1
I0506 11:38:21.544610 21370 net.cpp:435] conv1 <- data
I0506 11:38:21.544617 21370 net.cpp:409] conv1 -> conv1
I0506 11:38:21.548789 21370 net.cpp:144] Setting up conv1
I0506 11:38:21.548805 21370 net.cpp:151] Top shape: 20 64 10 10 (128000)
I0506 11:38:21.548810 21370 net.cpp:159] Memory required for data: 520080
I0506 11:38:21.548820 21370 layer_factory.hpp:77] Creating layer relu1
I0506 11:38:21.548830 21370 net.cpp:94] Creating Layer relu1
I0506 11:38:21.548833 21370 net.cpp:435] relu1 <- conv1
I0506 11:38:21.548837 21370 net.cpp:396] relu1 -> conv1 (in-place)
I0506 11:38:21.548852 21370 net.cpp:144] Setting up relu1
I0506 11:38:21.548857 21370 net.cpp:151] Top shape: 20 64 10 10 (128000)
I0506 11:38:21.548861 21370 net.cpp:159] Memory required for data: 1032080
I0506 11:38:21.548863 21370 layer_factory.hpp:77] Creating layer conv2
I0506 11:38:21.548871 21370 net.cpp:94] Creating Layer conv2
I0506 11:38:21.548876 21370 net.cpp:435] conv2 <- conv1
I0506 11:38:21.548880 21370 net.cpp:409] conv2 -> conv2
I0506 11:38:21.554903 21370 net.cpp:144] Setting up conv2
I0506 11:38:21.554920 21370 net.cpp:151] Top shape: 20 64 10 10 (128000)
I0506 11:38:21.554924 21370 net.cpp:159] Memory required for data: 1544080
I0506 11:38:21.554934 21370 layer_factory.hpp:77] Creating layer relu2
I0506 11:38:21.554941 21370 net.cpp:94] Creating Layer relu2
I0506 11:38:21.554945 21370 net.cpp:435] relu2 <- conv2
I0506 11:38:21.554950 21370 net.cpp:396] relu2 -> conv2 (in-place)
I0506 11:38:21.554957 21370 net.cpp:144] Setting up relu2
I0506 11:38:21.554961 21370 net.cpp:151] Top shape: 20 64 10 10 (128000)
I0506 11:38:21.554965 21370 net.cpp:159] Memory required for data: 2056080
I0506 11:38:21.554967 21370 layer_factory.hpp:77] Creating layer pool2
I0506 11:38:21.554973 21370 net.cpp:94] Creating Layer pool2
I0506 11:38:21.554976 21370 net.cpp:435] pool2 <- conv2
I0506 11:38:21.554980 21370 net.cpp:409] pool2 -> pool2
I0506 11:38:21.555040 21370 net.cpp:144] Setting up pool2
I0506 11:38:21.555047 21370 net.cpp:151] Top shape: 20 64 5 5 (32000)
I0506 11:38:21.555052 21370 net.cpp:159] Memory required for data: 2184080
I0506 11:38:21.555054 21370 layer_factory.hpp:77] Creating layer conv3
I0506 11:38:21.555063 21370 net.cpp:94] Creating Layer conv3
I0506 11:38:21.555071 21370 net.cpp:435] conv3 <- pool2
I0506 11:38:21.555078 21370 net.cpp:409] conv3 -> conv3
I0506 11:38:21.563124 21370 net.cpp:144] Setting up conv3
I0506 11:38:21.563139 21370 net.cpp:151] Top shape: 20 128 5 5 (64000)
I0506 11:38:21.563143 21370 net.cpp:159] Memory required for data: 2440080
I0506 11:38:21.563153 21370 layer_factory.hpp:77] Creating layer relu3
I0506 11:38:21.563158 21370 net.cpp:94] Creating Layer relu3
I0506 11:38:21.563163 21370 net.cpp:435] relu3 <- conv3
I0506 11:38:21.563166 21370 net.cpp:396] relu3 -> conv3 (in-place)
I0506 11:38:21.563174 21370 net.cpp:144] Setting up relu3
I0506 11:38:21.563179 21370 net.cpp:151] Top shape: 20 128 5 5 (64000)
I0506 11:38:21.563180 21370 net.cpp:159] Memory required for data: 2696080
I0506 11:38:21.563184 21370 layer_factory.hpp:77] Creating layer conv4
I0506 11:38:21.563192 21370 net.cpp:94] Creating Layer conv4
I0506 11:38:21.563195 21370 net.cpp:435] conv4 <- conv3
I0506 11:38:21.563200 21370 net.cpp:409] conv4 -> conv4
I0506 11:38:21.578146 21370 net.cpp:144] Setting up conv4
I0506 11:38:21.578172 21370 net.cpp:151] Top shape: 20 128 5 5 (64000)
I0506 11:38:21.578176 21370 net.cpp:159] Memory required for data: 2952080
I0506 11:38:21.578184 21370 layer_factory.hpp:77] Creating layer relu4
I0506 11:38:21.578192 21370 net.cpp:94] Creating Layer relu4
I0506 11:38:21.578197 21370 net.cpp:435] relu4 <- conv4
I0506 11:38:21.578202 21370 net.cpp:396] relu4 -> conv4 (in-place)
I0506 11:38:21.578210 21370 net.cpp:144] Setting up relu4
I0506 11:38:21.578214 21370 net.cpp:151] Top shape: 20 128 5 5 (64000)
I0506 11:38:21.578217 21370 net.cpp:159] Memory required for data: 3208080
I0506 11:38:21.578220 21370 layer_factory.hpp:77] Creating layer conv5
I0506 11:38:21.578229 21370 net.cpp:94] Creating Layer conv5
I0506 11:38:21.578233 21370 net.cpp:435] conv5 <- conv4
I0506 11:38:21.578238 21370 net.cpp:409] conv5 -> conv5
I0506 11:38:21.592725 21370 net.cpp:144] Setting up conv5
I0506 11:38:21.592749 21370 net.cpp:151] Top shape: 20 128 5 5 (64000)
I0506 11:38:21.592753 21370 net.cpp:159] Memory required for data: 3464080
I0506 11:38:21.592766 21370 layer_factory.hpp:77] Creating layer relu5
I0506 11:38:21.592774 21370 net.cpp:94] Creating Layer relu5
I0506 11:38:21.592778 21370 net.cpp:435] relu5 <- conv5
I0506 11:38:21.592782 21370 net.cpp:396] relu5 -> conv5 (in-place)
I0506 11:38:21.592792 21370 net.cpp:144] Setting up relu5
I0506 11:38:21.592795 21370 net.cpp:151] Top shape: 20 128 5 5 (64000)
I0506 11:38:21.592798 21370 net.cpp:159] Memory required for data: 3720080
I0506 11:38:21.592802 21370 layer_factory.hpp:77] Creating layer pool5
I0506 11:38:21.592808 21370 net.cpp:94] Creating Layer pool5
I0506 11:38:21.592810 21370 net.cpp:435] pool5 <- conv5
I0506 11:38:21.592814 21370 net.cpp:409] pool5 -> pool5
I0506 11:38:21.592861 21370 net.cpp:144] Setting up pool5
I0506 11:38:21.592869 21370 net.cpp:151] Top shape: 20 128 2 2 (10240)
I0506 11:38:21.592872 21370 net.cpp:159] Memory required for data: 3761040
I0506 11:38:21.592875 21370 layer_factory.hpp:77] Creating layer ip1
I0506 11:38:21.592885 21370 net.cpp:94] Creating Layer ip1
I0506 11:38:21.592890 21370 net.cpp:435] ip1 <- pool5
I0506 11:38:21.592895 21370 net.cpp:409] ip1 -> ip1
I0506 11:38:21.606923 21370 net.cpp:144] Setting up ip1
I0506 11:38:21.606948 21370 net.cpp:151] Top shape: 20 1024 (20480)
I0506 11:38:21.606952 21370 net.cpp:159] Memory required for data: 3842960
I0506 11:38:21.606961 21370 layer_factory.hpp:77] Creating layer ip2
I0506 11:38:21.606969 21370 net.cpp:94] Creating Layer ip2
I0506 11:38:21.606974 21370 net.cpp:435] ip2 <- ip1
I0506 11:38:21.606981 21370 net.cpp:409] ip2 -> ip2
I0506 11:38:21.620123 21370 net.cpp:144] Setting up ip2
I0506 11:38:21.620149 21370 net.cpp:151] Top shape: 20 512 (10240)
I0506 11:38:21.620153 21370 net.cpp:159] Memory required for data: 3883920
I0506 11:38:21.620160 21370 layer_factory.hpp:77] Creating layer ip3
I0506 11:38:21.620169 21370 net.cpp:94] Creating Layer ip3
I0506 11:38:21.620173 21370 net.cpp:435] ip3 <- ip2
I0506 11:38:21.620187 21370 net.cpp:409] ip3 -> ip3
I0506 11:38:21.620311 21370 net.cpp:144] Setting up ip3
I0506 11:38:21.620319 21370 net.cpp:151] Top shape: 20 1 (20)
I0506 11:38:21.620322 21370 net.cpp:159] Memory required for data: 3884000
I0506 11:38:21.620327 21370 layer_factory.hpp:77] Creating layer loss
I0506 11:38:21.620335 21370 net.cpp:94] Creating Layer loss
I0506 11:38:21.620339 21370 net.cpp:435] loss <- ip3
I0506 11:38:21.620342 21370 net.cpp:435] loss <- label
I0506 11:38:21.620347 21370 net.cpp:409] loss -> loss
I0506 11:38:21.620407 21370 net.cpp:144] Setting up loss
…
I0506 11:38:21.727617 21370 net.cpp:323] The NetState phase (0) differed from the phase (1) specified by a rule in layer intercept
I0506 11:38:21.727630 21370 net.cpp:323] The NetState phase (0) differed from the phase (1) specified by a rule in layer accuracy
I0506 11:38:21.727715 21370 net.cpp:52] Initializing net from parameters: 
state {
  phase: TRAIN
}
layer {
  name: "parameters"
  type: "HDF5Data"
  top: "data"
  top: "label"
  include {
    phase: TRAIN
  }
  hdf5_data_param {
    source: "/home/purduethu/scratch/radon/d/deng106/CNNStatisticalModel/distributions/input/50_distributions_100_sample_size_train-distributions-path.txt"
    batch_size: 20
  }
}
layer {
  name: "conv1"
  type: "Convolution"
  bottom: "data"
  top: "conv1"
  param {
    lr_mult: 1
  }
  param {
    lr_mult: 2
  }
  convolution_param {
    num_output: 64
    pad: 2
    kernel_size: 5
    stride: 1
    weight_filler {
      type: "gaussian"
      std: 0.0001
    }
    bias_filler {
      type: "constant"
    }
  }
}
layer {
  name: "relu1"
  type: "ReLU"
  bottom: "conv1"
  top: "conv1"
}
layer {
  name: "conv2"
  type: "Convolution"
  bottom: "conv1"
  top: "conv2"
  param {
    lr_mult: 1
  }
  param {
    lr_mult: 2
  }
  convolution_param {
    num_output: 64
    pad: 2
    kernel_size: 5
    stride: 1
    weight_filler {
      type: "gaussian"
      std: 0.01
    }
    bias_filler {
      type: "constant"
    }
  }
}
layer {
  name: "relu2"
  type: "ReLU"
  bottom: "conv2"
  top: "conv2"
}
layer {
  name: "pool2"
  type: "Pooling"
  bottom: "conv2"
  top: "pool2"
  pooling_param {
    pool: MAX
    kernel_size: 3
    stride: 2
  }
}
layer {
  name: "conv3"
  type: "Convolution"
  bottom: "pool2"
  top: "conv3"
  param {
    lr_mult: 1
  }
  param {
    lr_mult: 2
  }
  convolution_param {
    num_output: 128
    pad: 2
    kernel_size: 5
    stride: 1
    weight_filler {
      type: "gaussian"
      std: 0.01
    }
    bias_filler {
      type: "constant"
    }
  }
}
layer {
  name: "relu3"
  type: "ReLU"
  bottom: "conv3"
  top: "conv3"
}
layer {
  name: "conv4"
  type: "Convolution"
  bottom: "conv3"
  top: "conv4"
  param {
    lr_mult: 1
  }
  param {
    lr_mult: 2
  }
  convolution_param {
    num_output: 128
    pad: 2
    kernel_size: 5
    stride: 1
    weight_filler {
      type: "gaussian"
      std: 0.01
    }
    bias_filler {
      type: "constant"
    }
  }
}
layer {
  name: "relu4"
  type: "ReLU"
  bottom: "conv4"
  top: "conv4"
}
layer {
  name: "conv5"
  type: "Convolution"
  bottom: "conv4"
  top: "conv5"
  param {
    lr_mult: 1
  }
  param {
    lr_mult: 2
  }
  convolution_param {
    num_output: 128
    pad: 2
    kernel_size: 5
    stride: 1
    weight_filler {
      type: "gaussian"
      std: 0.01
    }
    bias_filler {
      type: "constant"
    }
  }
}
layer {
  name: "relu5"
  type: "ReLU"
  bottom: "conv5"
  top: "conv5"
}
layer {
  name: "pool5"
  type: "Pooling"
  bottom: "conv5"
  top: "pool5"
  pooling_param {
    pool: AVE
    kernel_size: 3
    stride: 2
  }
}
layer {
  name: "ip1"
  type: "InnerProduct"
  bottom: "pool5"
  top: "ip1"
  param {
    lr_mult: 1
  }
  param {
    lr_mult: 2
  }
  inner_product_param {
    num_output: 1024
    weight_filler {
      type: "gaussian"
      std: 0.1
    }
    bias_filler {
      type: "constant"
    }
  }
}
layer {
  name: "ip2"
  type: "InnerProduct"
  bottom: "ip1"
  top: "ip2"
  param {
    lr_mult: 1
  }
  param {
    lr_mult: 2
  }
  inner_product_param {
    num_output: 512
    weight_filler {
      type: "gaussian"
      std: 0.1
    }
    bias_filler {
      type: "constant"
    }
  }
}
layer {
  name: "ip3"
  type: "InnerProduct"
  bottom: "ip2"
  top: "ip3"
  param {
    lr_mult: 1
  }
  param {
    lr_mult: 2
  }
  inner_product_param {
    num_output: 50
    weight_filler {
      type: "gaussian"
      std: 0.1
    }
    bias_filler {
      type: "constant"
    }
  }
}
layer {
  name: "loss"
  type: "SoftmaxWithLoss"
  bottom: "ip3"
  bottom: "label"
  top: "loss"
}
I0506 11:38:21.727766 21370 layer_factory.hpp:77] Creating layer parameters
I0506 11:38:21.727774 21370 net.cpp:94] Creating Layer parameters
I0506 11:38:21.727777 21370 net.cpp:409] parameters -> data
I0506 11:38:21.727784 21370 net.cpp:409] parameters -> label
I0506 11:38:21.727790 21370 hdf5_data_layer.cpp:79] Loading list of HDF5 filenames from: /home/purduethu/scratch/radon/d/deng106/CNNStatisticalModel/distributions/input/50_distributions_100_sample_size_train-distributions-path.txt
I0506 11:38:21.727807 21370 hdf5_data_layer.cpp:93] Number of HDF5 files: 1
I0506 11:38:21.884637 21370 hdf5.cpp:35] Datatype class: H5T_INTEGER
I0506 11:38:21.887657 21370 net.cpp:144] Setting up parameters
I0506 11:38:21.887682 21370 net.cpp:151] Top shape: 20 1 10 10 (2000)
I0506 11:38:21.887687 21370 net.cpp:151] Top shape: 20 (20)
I0506 11:38:21.887691 21370 net.cpp:159] Memory required for data: 8080
I0506 11:38:21.887696 21370 layer_factory.hpp:77] Creating layer conv1
I0506 11:38:21.887712 21370 net.cpp:94] Creating Layer conv1
I0506 11:38:21.887717 21370 net.cpp:435] conv1 <- data
I0506 11:38:21.887723 21370 net.cpp:409] conv1 -> conv1
I0506 11:38:21.889492 21370 net.cpp:144] Setting up conv1
I0506 11:38:21.889508 21370 net.cpp:151] Top shape: 20 64 10 10 (128000)
I0506 11:38:21.889513 21370 net.cpp:159] Memory required for data: 520080
I0506 11:38:21.889524 21370 layer_factory.hpp:77] Creating layer relu1
I0506 11:38:21.889533 21370 net.cpp:94] Creating Layer relu1
I0506 11:38:21.889536 21370 net.cpp:435] relu1 <- conv1
I0506 11:38:21.889541 21370 net.cpp:396] relu1 -> conv1 (in-place)
I0506 11:38:21.889550 21370 net.cpp:144] Setting up relu1
I0506 11:38:21.889554 21370 net.cpp:151] Top shape: 20 64 10 10 (128000)
I0506 11:38:21.889557 21370 net.cpp:159] Memory required for data: 1032080
I0506 11:38:21.889560 21370 layer_factory.hpp:77] Creating layer conv2
I0506 11:38:21.889569 21370 net.cpp:94] Creating Layer conv2
I0506 11:38:21.889572 21370 net.cpp:435] conv2 <- conv1
I0506 11:38:21.889577 21370 net.cpp:409] conv2 -> conv2
I0506 11:38:21.894928 21370 net.cpp:144] Setting up conv2
I0506 11:38:21.894942 21370 net.cpp:151] Top shape: 20 64 10 10 (128000)
I0506 11:38:21.894945 21370 net.cpp:159] Memory required for data: 1544080
I0506 11:38:21.894953 21370 layer_factory.hpp:77] Creating layer relu2
I0506 11:38:21.894960 21370 net.cpp:94] Creating Layer relu2
I0506 11:38:21.894964 21370 net.cpp:435] relu2 <- conv2
I0506 11:38:21.894968 21370 net.cpp:396] relu2 -> conv2 (in-place)
I0506 11:38:21.894975 21370 net.cpp:144] Setting up relu2
I0506 11:38:21.894979 21370 net.cpp:151] Top shape: 20 64 10 10 (128000)
I0506 11:38:21.894982 21370 net.cpp:159] Memory required for data: 2056080
I0506 11:38:21.894985 21370 layer_factory.hpp:77] Creating layer pool2
I0506 11:38:21.894991 21370 net.cpp:94] Creating Layer pool2
I0506 11:38:21.894994 21370 net.cpp:435] pool2 <- conv2
I0506 11:38:21.894999 21370 net.cpp:409] pool2 -> pool2
I0506 11:38:21.895056 21370 net.cpp:144] Setting up pool2
I0506 11:38:21.895064 21370 net.cpp:151] Top shape: 20 64 5 5 (32000)
I0506 11:38:21.895067 21370 net.cpp:159] Memory required for data: 2184080
I0506 11:38:21.895071 21370 layer_factory.hpp:77] Creating layer conv3
I0506 11:38:21.895077 21370 net.cpp:94] Creating Layer conv3
I0506 11:38:21.895081 21370 net.cpp:435] conv3 <- pool2
I0506 11:38:21.895087 21370 net.cpp:409] conv3 -> conv3
I0506 11:38:21.903743 21370 net.cpp:144] Setting up conv3
I0506 11:38:21.903760 21370 net.cpp:151] Top shape: 20 128 5 5 (64000)
I0506 11:38:21.903764 21370 net.cpp:159] Memory required for data: 2440080
I0506 11:38:21.903774 21370 layer_factory.hpp:77] Creating layer relu3
I0506 11:38:21.903780 21370 net.cpp:94] Creating Layer relu3
I0506 11:38:21.903784 21370 net.cpp:435] relu3 <- conv3
I0506 11:38:21.903789 21370 net.cpp:396] relu3 -> conv3 (in-place)
I0506 11:38:21.903802 21370 net.cpp:144] Setting up relu3
I0506 11:38:21.903807 21370 net.cpp:151] Top shape: 20 128 5 5 (64000)
I0506 11:38:21.903810 21370 net.cpp:159] Memory required for data: 2696080
I0506 11:38:21.903813 21370 layer_factory.hpp:77] Creating layer conv4
I0506 11:38:21.903822 21370 net.cpp:94] Creating Layer conv4
I0506 11:38:21.903826 21370 net.cpp:435] conv4 <- conv3
I0506 11:38:21.903831 21370 net.cpp:409] conv4 -> conv4
I0506 11:38:21.918649 21370 net.cpp:144] Setting up conv4
I0506 11:38:21.918675 21370 net.cpp:151] Top shape: 20 128 5 5 (64000)
I0506 11:38:21.918679 21370 net.cpp:159] Memory required for data: 2952080
I0506 11:38:21.918686 21370 layer_factory.hpp:77] Creating layer relu4
I0506 11:38:21.918694 21370 net.cpp:94] Creating Layer relu4
I0506 11:38:21.918699 21370 net.cpp:435] relu4 <- conv4
I0506 11:38:21.918704 21370 net.cpp:396] relu4 -> conv4 (in-place)
I0506 11:38:21.918712 21370 net.cpp:144] Setting up relu4
I0506 11:38:21.918716 21370 net.cpp:151] Top shape: 20 128 5 5 (64000)
I0506 11:38:21.918720 21370 net.cpp:159] Memory required for data: 3208080
I0506 11:38:21.918722 21370 layer_factory.hpp:77] Creating layer conv5
I0506 11:38:21.918731 21370 net.cpp:94] Creating Layer conv5
I0506 11:38:21.918735 21370 net.cpp:435] conv5 <- conv4
I0506 11:38:21.918740 21370 net.cpp:409] conv5 -> conv5
I0506 11:38:21.933750 21370 net.cpp:144] Setting up conv5
I0506 11:38:21.933775 21370 net.cpp:151] Top shape: 20 128 5 5 (64000)
I0506 11:38:21.933779 21370 net.cpp:159] Memory required for data: 3464080
I0506 11:38:21.933791 21370 layer_factory.hpp:77] Creating layer relu5
I0506 11:38:21.933799 21370 net.cpp:94] Creating Layer relu5
I0506 11:38:21.933804 21370 net.cpp:435] relu5 <- conv5
I0506 11:38:21.933809 21370 net.cpp:396] relu5 -> conv5 (in-place)
I0506 11:38:21.933816 21370 net.cpp:144] Setting up relu5
I0506 11:38:21.933820 21370 net.cpp:151] Top shape: 20 128 5 5 (64000)
I0506 11:38:21.933823 21370 net.cpp:159] Memory required for data: 3720080
I0506 11:38:21.933826 21370 layer_factory.hpp:77] Creating layer pool5
I0506 11:38:21.933832 21370 net.cpp:94] Creating Layer pool5
I0506 11:38:21.933835 21370 net.cpp:435] pool5 <- conv5
I0506 11:38:21.933840 21370 net.cpp:409] pool5 -> pool5
I0506 11:38:21.933888 21370 net.cpp:144] Setting up pool5
I0506 11:38:21.933895 21370 net.cpp:151] Top shape: 20 128 2 2 (10240)
I0506 11:38:21.933898 21370 net.cpp:159] Memory required for data: 3761040
I0506 11:38:21.933902 21370 layer_factory.hpp:77] Creating layer ip1
I0506 11:38:21.933908 21370 net.cpp:94] Creating Layer ip1
I0506 11:38:21.933912 21370 net.cpp:435] ip1 <- pool5
I0506 11:38:21.933917 21370 net.cpp:409] ip1 -> ip1
I0506 11:38:21.947142 21370 net.cpp:144] Setting up ip1
I0506 11:38:21.947167 21370 net.cpp:151] Top shape: 20 1024 (20480)
I0506 11:38:21.947171 21370 net.cpp:159] Memory required for data: 3842960
I0506 11:38:21.947178 21370 layer_factory.hpp:77] Creating layer ip2
I0506 11:38:21.947187 21370 net.cpp:94] Creating Layer ip2
I0506 11:38:21.947191 21370 net.cpp:435] ip2 <- ip1
I0506 11:38:21.947197 21370 net.cpp:409] ip2 -> ip2
I0506 11:38:21.960404 21370 net.cpp:144] Setting up ip2
I0506 11:38:21.960428 21370 net.cpp:151] Top shape: 20 512 (10240)
I0506 11:38:21.960433 21370 net.cpp:159] Memory required for data: 3883920
I0506 11:38:21.960440 21370 layer_factory.hpp:77] Creating layer ip3
I0506 11:38:21.960448 21370 net.cpp:94] Creating Layer ip3
I0506 11:38:21.960453 21370 net.cpp:435] ip3 <- ip2
I0506 11:38:21.960458 21370 net.cpp:409] ip3 -> ip3
I0506 11:38:21.962101 21370 net.cpp:144] Setting up ip3
I0506 11:38:21.962117 21370 net.cpp:151] Top shape: 20 50 (1000)
I0506 11:38:21.962121 21370 net.cpp:159] Memory required for data: 3887920
I0506 11:38:21.962127 21370 layer_factory.hpp:77] Creating layer loss
I0506 11:38:21.962136 21370 net.cpp:94] Creating Layer loss
I0506 11:38:21.962141 21370 net.cpp:435] loss <- ip3
I0506 11:38:21.962144 21370 net.cpp:435] loss <- label
I0506 11:38:21.962148 21370 net.cpp:409] loss -> loss
I0506 11:38:21.962157 21370 layer_factory.hpp:77] Creating layer loss
…
I0506 11:38:21.962693 21370 solver.cpp:181] Creating test net (#0) specified by net file: ./protocol/dis_50_100_dimension.protocol_distribution
I0506 11:38:21.962719 21370 net.cpp:323] The NetState phase (1) differed from the phase (0) specified by a rule in layer parameters
I0506 11:38:21.962821 21370 net.cpp:52] Initializing net from parameters: 
state {
  phase: TEST
}
layer {
  name: "intercept"
  type: "HDF5Data"
  top: "data"
  top: "label"
  include {
    phase: TEST
  }
  hdf5_data_param {
    source: "/home/purduethu/scratch/radon/d/deng106/CNNStatisticalModel/distributions/input/50_distributions_100_sample_size_test-distributions-path.txt"
    batch_size: 20
  }
}
layer {
  name: "conv1"
  type: "Convolution"
  bottom: "data"
  top: "conv1"
  param {
    lr_mult: 1
  }
  param {
    lr_mult: 2
  }
  convolution_param {
    num_output: 64
    pad: 2
    kernel_size: 5
    stride: 1
    weight_filler {
      type: "gaussian"
      std: 0.0001
    }
    bias_filler {
      type: "constant"
    }
  }
}
layer {
  name: "relu1"
  type: "ReLU"
  bottom: "conv1"
  top: "conv1"
}
layer {
  name: "conv2"
  type: "Convolution"
  bottom: "conv1"
  top: "conv2"
  param {
    lr_mult: 1
  }
  param {
    lr_mult: 2
  }
  convolution_param {
    num_output: 64
    pad: 2
    kernel_size: 5
    stride: 1
    weight_filler {
      type: "gaussian"
      std: 0.01
    }
    bias_filler {
      type: "constant"
    }
  }
}
layer {
  name: "relu2"
  type: "ReLU"
  bottom: "conv2"
  top: "conv2"
}
layer {
  name: "pool2"
  type: "Pooling"
  bottom: "conv2"
  top: "pool2"
  pooling_param {
    pool: MAX
    kernel_size: 3
    stride: 2
  }
}
layer {
  name: "conv3"
  type: "Convolution"
  bottom: "pool2"
  top: "conv3"
  param {
    lr_mult: 1
  }
  param {
    lr_mult: 2
  }
  convolution_param {
    num_output: 128
    pad: 2
    kernel_size: 5
    stride: 1
    weight_filler {
      type: "gaussian"
      std: 0.01
    }
    bias_filler {
      type: "constant"
    }
  }
}
layer {
  name: "relu3"
  type: "ReLU"
  bottom: "conv3"
  top: "conv3"
}
layer {
  name: "conv4"
  type: "Convolution"
  bottom: "conv3"
  top: "conv4"
  param {
    lr_mult: 1
  }
  param {
    lr_mult: 2
  }
  convolution_param {
    num_output: 128
    pad: 2
    kernel_size: 5
    stride: 1
    weight_filler {
      type: "gaussian"
      std: 0.01
    }
    bias_filler {
      type: "constant"
    }
  }
}
layer {
  name: "relu4"
  type: "ReLU"
  bottom: "conv4"
  top: "conv4"
}
layer {
  name: "conv5"
  type: "Convolution"
  bottom: "conv4"
  top: "conv5"
  param {
    lr_mult: 1
  }
  param {
    lr_mult: 2
  }
  convolution_param {
    num_output: 128
    pad: 2
    kernel_size: 5
    stride: 1
    weight_filler {
      type: "gaussian"
      std: 0.01
    }
    bias_filler {
      type: "constant"
    }
  }
}
layer {
  name: "relu5"
  type: "ReLU"
  bottom: "conv5"
  top: "conv5"
}
layer {
  name: "pool5"
  type: "Pooling"
  bottom: "conv5"
  top: "pool5"
  pooling_param {
    pool: AVE
    kernel_size: 3
    stride: 2
  }
}
layer {
  name: "ip1"
  type: "InnerProduct"
  bottom: "pool5"
  top: "ip1"
  param {
    lr_mult: 1
  }
  param {
    lr_mult: 2
  }
  inner_product_param {
    num_output: 1024
    weight_filler {
      type: "gaussian"
      std: 0.1
    }
    bias_filler {
      type: "constant"
    }
  }
}
layer {
  name: "ip2"
  type: "InnerProduct"
  bottom: "ip1"
  top: "ip2"
  param {
    lr_mult: 1
  }
  param {
    lr_mult: 2
  }
  inner_product_param {
    num_output: 512
    weight_filler {
      type: "gaussian"
      std: 0.1
    }
    bias_filler {
      type: "constant"
    }
  }
}
layer {
  name: "ip3"
  type: "InnerProduct"
  bottom: "ip2"
  top: "ip3"
  param {
    lr_mult: 1
  }
  param {
    lr_mult: 2
  }
  inner_product_param {
    num_output: 50
    weight_filler {
      type: "gaussian"
      std: 0.1
    }
    bias_filler {
      type: "constant"
    }
  }
}
layer {
  name: "accuracy"
  type: "Accuracy"
  bottom: "ip3"
  bottom: "label"
  top: "accuracy"
  include {
    phase: TEST
  }
}
layer {
  name: "loss"
  type: "SoftmaxWithLoss"
  bottom: "ip3"
  bottom: "label"
  top: "loss"
}
I0506 11:38:21.962885 21370 layer_factory.hpp:77] Creating layer intercept
I0506 11:38:21.962894 21370 net.cpp:94] Creating Layer intercept
I0506 11:38:21.962898 21370 net.cpp:409] intercept -> data
I0506 11:38:21.962905 21370 net.cpp:409] intercept -> label
I0506 11:38:21.962911 21370 hdf5_data_layer.cpp:79] Loading list of HDF5 filenames from: /home/purduethu/scratch/radon/d/deng106/CNNStatisticalModel/distributions/input/50_distributions_100_sample_size_test-distributions-path.txt
I0506 11:38:21.962932 21370 hdf5_data_layer.cpp:93] Number of HDF5 files: 1
I0506 11:38:22.004169 21370 net.cpp:144] Setting up intercept
I0506 11:38:22.004204 21370 net.cpp:151] Top shape: 20 1 10 10 (2000)
I0506 11:38:22.004209 21370 net.cpp:151] Top shape: 20 (20)
I0506 11:38:22.004212 21370 net.cpp:159] Memory required for data: 8080
I0506 11:38:22.004218 21370 layer_factory.hpp:77] Creating layer label_intercept_1_split
I0506 11:38:22.004237 21370 net.cpp:94] Creating Layer label_intercept_1_split
I0506 11:38:22.004242 21370 net.cpp:435] label_intercept_1_split <- label
I0506 11:38:22.004248 21370 net.cpp:409] label_intercept_1_split -> label_intercept_1_split_0
I0506 11:38:22.004256 21370 net.cpp:409] label_intercept_1_split -> label_intercept_1_split_1
I0506 11:38:22.004302 21370 net.cpp:144] Setting up label_intercept_1_split
I0506 11:38:22.004308 21370 net.cpp:151] Top shape: 20 (20)
I0506 11:38:22.004312 21370 net.cpp:151] Top shape: 20 (20)
I0506 11:38:22.004314 21370 net.cpp:159] Memory required for data: 8240
I0506 11:38:22.004317 21370 layer_factory.hpp:77] Creating layer conv1
I0506 11:38:22.004328 21370 net.cpp:94] Creating Layer conv1
I0506 11:38:22.004331 21370 net.cpp:435] conv1 <- data
I0506 11:38:22.004336 21370 net.cpp:409] conv1 -> conv1
I0506 11:38:22.005223 21370 net.cpp:144] Setting up conv1
I0506 11:38:22.005240 21370 net.cpp:151] Top shape: 20 64 10 10 (128000)
I0506 11:38:22.005244 21370 net.cpp:159] Memory required for data: 520240
I0506 11:38:22.005254 21370 layer_factory.hpp:77] Creating layer relu1
I0506 11:38:22.005261 21370 net.cpp:94] Creating Layer relu1
I0506 11:38:22.005264 21370 net.cpp:435] relu1 <- conv1
I0506 11:38:22.005270 21370 net.cpp:396] relu1 -> conv1 (in-place)
I0506 11:38:22.005276 21370 net.cpp:144] Setting up relu1
I0506 11:38:22.005281 21370 net.cpp:151] Top shape: 20 64 10 10 (128000)
I0506 11:38:22.005291 21370 net.cpp:159] Memory required for data: 1032240
I0506 11:38:22.005295 21370 layer_factory.hpp:77] Creating layer conv2
I0506 11:38:22.005303 21370 net.cpp:94] Creating Layer conv2
I0506 11:38:22.005306 21370 net.cpp:435] conv2 <- conv1
I0506 11:38:22.005311 21370 net.cpp:409] conv2 -> conv2
I0506 11:38:22.009531 21370 net.cpp:144] Setting up conv2
I0506 11:38:22.009547 21370 net.cpp:151] Top shape: 20 64 10 10 (128000)
I0506 11:38:22.009552 21370 net.cpp:159] Memory required for data: 1544240
I0506 11:38:22.009560 21370 layer_factory.hpp:77] Creating layer relu2
I0506 11:38:22.009567 21370 net.cpp:94] Creating Layer relu2
I0506 11:38:22.009570 21370 net.cpp:435] relu2 <- conv2
I0506 11:38:22.009575 21370 net.cpp:396] relu2 -> conv2 (in-place)
I0506 11:38:22.009582 21370 net.cpp:144] Setting up relu2
I0506 11:38:22.009587 21370 net.cpp:151] Top shape: 20 64 10 10 (128000)
I0506 11:38:22.009589 21370 net.cpp:159] Memory required for data: 2056240
I0506 11:38:22.009593 21370 layer_factory.hpp:77] Creating layer pool2
I0506 11:38:22.009599 21370 net.cpp:94] Creating Layer pool2
I0506 11:38:22.009603 21370 net.cpp:435] pool2 <- conv2
I0506 11:38:22.009606 21370 net.cpp:409] pool2 -> pool2
I0506 11:38:22.009671 21370 net.cpp:144] Setting up pool2
I0506 11:38:22.009678 21370 net.cpp:151] Top shape: 20 64 5 5 (32000)
I0506 11:38:22.009681 21370 net.cpp:159] Memory required for data: 2184240
I0506 11:38:22.009685 21370 layer_factory.hpp:77] Creating layer conv3
I0506 11:38:22.009693 21370 net.cpp:94] Creating Layer conv3
I0506 11:38:22.009696 21370 net.cpp:435] conv3 <- pool2
I0506 11:38:22.009702 21370 net.cpp:409] conv3 -> conv3
I0506 11:38:22.015759 21370 net.cpp:144] Setting up conv3
I0506 11:38:22.015774 21370 net.cpp:151] Top shape: 20 128 5 5 (64000)
I0506 11:38:22.015776 21370 net.cpp:159] Memory required for data: 2440240
I0506 11:38:22.015784 21370 layer_factory.hpp:77] Creating layer relu3
I0506 11:38:22.015791 21370 net.cpp:94] Creating Layer relu3
I0506 11:38:22.015794 21370 net.cpp:435] relu3 <- conv3
I0506 11:38:22.015799 21370 net.cpp:396] relu3 -> conv3 (in-place)
I0506 11:38:22.015805 21370 net.cpp:144] Setting up relu3
I0506 11:38:22.015810 21370 net.cpp:151] Top shape: 20 128 5 5 (64000)
I0506 11:38:22.015812 21370 net.cpp:159] Memory required for data: 2696240
I0506 11:38:22.015815 21370 layer_factory.hpp:77] Creating layer conv4
I0506 11:38:22.015825 21370 net.cpp:94] Creating Layer conv4
I0506 11:38:22.015828 21370 net.cpp:435] conv4 <- conv3
I0506 11:38:22.015833 21370 net.cpp:409] conv4 -> conv4
I0506 11:38:22.028697 21370 net.cpp:144] Setting up conv4
I0506 11:38:22.028717 21370 net.cpp:151] Top shape: 20 128 5 5 (64000)
I0506 11:38:22.028719 21370 net.cpp:159] Memory required for data: 2952240
I0506 11:38:22.028728 21370 layer_factory.hpp:77] Creating layer relu4
I0506 11:38:22.028735 21370 net.cpp:94] Creating Layer relu4
I0506 11:38:22.028739 21370 net.cpp:435] relu4 <- conv4
I0506 11:38:22.028745 21370 net.cpp:396] relu4 -> conv4 (in-place)
I0506 11:38:22.028753 21370 net.cpp:144] Setting up relu4
I0506 11:38:22.028758 21370 net.cpp:151] Top shape: 20 128 5 5 (64000)
I0506 11:38:22.028760 21370 net.cpp:159] Memory required for data: 3208240
I0506 11:38:22.028764 21370 layer_factory.hpp:77] Creating layer conv5
I0506 11:38:22.028772 21370 net.cpp:94] Creating Layer conv5
I0506 11:38:22.028775 21370 net.cpp:435] conv5 <- conv4
I0506 11:38:22.028780 21370 net.cpp:409] conv5 -> conv5
I0506 11:38:22.041642 21370 net.cpp:144] Setting up conv5
I0506 11:38:22.041678 21370 net.cpp:151] Top shape: 20 128 5 5 (64000)
I0506 11:38:22.041697 21370 net.cpp:159] Memory required for data: 3464240
I0506 11:38:22.041708 21370 layer_factory.hpp:77] Creating layer relu5
I0506 11:38:22.041716 21370 net.cpp:94] Creating Layer relu5
I0506 11:38:22.041720 21370 net.cpp:435] relu5 <- conv5
I0506 11:38:22.041725 21370 net.cpp:396] relu5 -> conv5 (in-place)
I0506 11:38:22.041733 21370 net.cpp:144] Setting up relu5
I0506 11:38:22.041738 21370 net.cpp:151] Top shape: 20 128 5 5 (64000)
I0506 11:38:22.041748 21370 net.cpp:159] Memory required for data: 3720240
I0506 11:38:22.041750 21370 layer_factory.hpp:77] Creating layer pool5
I0506 11:38:22.041757 21370 net.cpp:94] Creating Layer pool5
I0506 11:38:22.041760 21370 net.cpp:435] pool5 <- conv5
I0506 11:38:22.041766 21370 net.cpp:409] pool5 -> pool5
I0506 11:38:22.041816 21370 net.cpp:144] Setting up pool5
I0506 11:38:22.041823 21370 net.cpp:151] Top shape: 20 128 2 2 (10240)
I0506 11:38:22.041826 21370 net.cpp:159] Memory required for data: 3761200
I0506 11:38:22.041829 21370 layer_factory.hpp:77] Creating layer ip1
I0506 11:38:22.041837 21370 net.cpp:94] Creating Layer ip1
I0506 11:38:22.041841 21370 net.cpp:435] ip1 <- pool5
I0506 11:38:22.041846 21370 net.cpp:409] ip1 -> ip1
I0506 11:38:22.055119 21370 net.cpp:144] Setting up ip1
I0506 11:38:22.055140 21370 net.cpp:151] Top shape: 20 1024 (20480)
I0506 11:38:22.055145 21370 net.cpp:159] Memory required for data: 3843120
I0506 11:38:22.055151 21370 layer_factory.hpp:77] Creating layer ip2
I0506 11:38:22.055160 21370 net.cpp:94] Creating Layer ip2
I0506 11:38:22.055163 21370 net.cpp:435] ip2 <- ip1
I0506 11:38:22.055171 21370 net.cpp:409] ip2 -> ip2
I0506 11:38:22.068408 21370 net.cpp:144] Setting up ip2
I0506 11:38:22.068433 21370 net.cpp:151] Top shape: 20 512 (10240)
I0506 11:38:22.068436 21370 net.cpp:159] Memory required for data: 3884080
I0506 11:38:22.068444 21370 layer_factory.hpp:77] Creating layer ip3
I0506 11:38:22.068456 21370 net.cpp:94] Creating Layer ip3
I0506 11:38:22.068461 21370 net.cpp:435] ip3 <- ip2
I0506 11:38:22.068466 21370 net.cpp:409] ip3 -> ip3
I0506 11:38:22.069257 21370 net.cpp:144] Setting up ip3
I0506 11:38:22.069267 21370 net.cpp:151] Top shape: 20 50 (1000)
I0506 11:38:22.069270 21370 net.cpp:159] Memory required for data: 3888080
I0506 11:38:22.069275 21370 layer_factory.hpp:77] Creating layer ip3_ip3_0_split
I0506 11:38:22.069281 21370 net.cpp:94] Creating Layer ip3_ip3_0_split
I0506 11:38:22.069284 21370 net.cpp:435] ip3_ip3_0_split <- ip3
I0506 11:38:22.069289 21370 net.cpp:409] ip3_ip3_0_split -> ip3_ip3_0_split_0
I0506 11:38:22.069294 21370 net.cpp:409] ip3_ip3_0_split -> ip3_ip3_0_split_1
I0506 11:38:22.069339 21370 net.cpp:144] Setting up ip3_ip3_0_split
I0506 11:38:22.069346 21370 net.cpp:151] Top shape: 20 50 (1000)
I0506 11:38:22.069350 21370 net.cpp:151] Top shape: 20 50 (1000)
I0506 11:38:22.069352 21370 net.cpp:159] Memory required for data: 3896080
I0506 11:38:22.069355 21370 layer_factory.hpp:77] Creating layer accuracy
I0506 11:38:22.069361 21370 net.cpp:94] Creating Layer accuracy
I0506 11:38:22.069365 21370 net.cpp:435] accuracy <- ip3_ip3_0_split_0
I0506 11:38:22.069368 21370 net.cpp:435] accuracy <- label_intercept_1_split_0
I0506 11:38:22.069372 21370 net.cpp:409] accuracy -> accuracy
…
