…
I0507 22:05:27.408684  8033 net.cpp:323] The NetState phase (0) differed from the phase (1) specified by a rule in layer intercept
I0507 22:05:27.408701  8033 net.cpp:323] The NetState phase (0) differed from the phase (1) specified by a rule in layer loss
I0507 22:05:27.408780  8033 net.cpp:52] Initializing net from parameters: 
state {
  phase: TRAIN
}
layer {
  name: "parameters"
  type: "HDF5Data"
  top: "data"
  top: "label"
  include {
    phase: TRAIN
  }
  hdf5_data_param {
    source: "/home/purduethu/scratch/radon/d/deng106/CNNStatisticalModel/distributions/input/5_distributions_900_sample_size_train-parameters-path.txt"
    batch_size: 20
  }
}
layer {
  name: "conv1"
  type: "Convolution"
  bottom: "data"
  top: "conv1"
  param {
    lr_mult: 1
  }
  param {
    lr_mult: 2
  }
  convolution_param {
    num_output: 64
    pad: 2
    kernel_size: 5
    stride: 1
    weight_filler {
      type: "gaussian"
      std: 0.0001
    }
    bias_filler {
      type: "constant"
    }
  }
}
layer {
  name: "relu1"
  type: "ReLU"
  bottom: "conv1"
  top: "conv1"
}
layer {
  name: "conv2"
  type: "Convolution"
  bottom: "conv1"
  top: "conv2"
  param {
    lr_mult: 1
  }
  param {
    lr_mult: 2
  }
  convolution_param {
    num_output: 64
    pad: 2
    kernel_size: 5
    stride: 1
    weight_filler {
      type: "gaussian"
      std: 0.01
    }
    bias_filler {
      type: "constant"
    }
  }
}
layer {
  name: "relu2"
  type: "ReLU"
  bottom: "conv2"
  top: "conv2"
}
layer {
  name: "pool2"
  type: "Pooling"
  bottom: "conv2"
  top: "pool2"
  pooling_param {
    pool: MAX
    kernel_size: 3
    stride: 2
  }
}
layer {
  name: "conv3"
  type: "Convolution"
  bottom: "pool2"
  top: "conv3"
  param {
    lr_mult: 1
  }
  param {
    lr_mult: 2
  }
  convolution_param {
    num_output: 64
    pad: 2
    kernel_size: 5
    stride: 1
    weight_filler {
      type: "gaussian"
      std: 0.01
    }
    bias_filler {
      type: "constant"
    }
  }
}
layer {
  name: "relu3"
  type: "ReLU"
  bottom: "conv3"
  top: "conv3"
}
layer {
  name: "conv4"
  type: "Convolution"
  bottom: "conv3"
  top: "conv4"
  param {
    lr_mult: 1
  }
  param {
    lr_mult: 2
  }
  convolution_param {
    num_output: 64
    pad: 2
    kernel_size: 5
    stride: 1
    weight_filler {
      type: "gaussian"
      std: 0.01
    }
    bias_filler {
      type: "constant"
    }
  }
}
layer {
  name: "relu4"
  type: "ReLU"
  bottom: "conv4"
  top: "conv4"
}
layer {
  name: "conv5"
  type: "Convolution"
  bottom: "conv4"
  top: "conv5"
  param {
    lr_mult: 1
  }
  param {
    lr_mult: 2
  }
  convolution_param {
    num_output: 64
    pad: 2
    kernel_size: 5
    stride: 1
    weight_filler {
      type: "gaussian"
      std: 0.01
    }
    bias_filler {
      type: "constant"
    }
  }
}
layer {
  name: "relu5"
  type: "ReLU"
  bottom: "conv5"
  top: "conv5"
}
layer {
  name: "pool5"
  type: "Pooling"
  bottom: "conv5"
  top: "pool5"
  pooling_param {
    pool: AVE
    kernel_size: 3
    stride: 2
  }
}
layer {
  name: "ip1"
  type: "InnerProduct"
  bottom: "pool5"
  top: "ip1"
  param {
    lr_mult: 1
  }
  param {
    lr_mult: 2
  }
  inner_product_param {
    num_output: 64
    weight_filler {
      type: "gaussian"
      std: 0.1
    }
    bias_filler {
      type: "constant"
    }
  }
}
layer {
  name: "ip2"
  type: "InnerProduct"
  bottom: "ip1"
  top: "ip2"
  param {
    lr_mult: 1
  }
  param {
    lr_mult: 2
  }
  inner_product_param {
    num_output: 64
    weight_filler {
      type: "gaussian"
      std: 0.1
    }
    bias_filler {
      type: "constant"
    }
  }
}
layer {
  name: "ip3"
  type: "InnerProduct"
  bottom: "ip2"
  top: "ip3"
  param {
    lr_mult: 1
  }
  param {
    lr_mult: 2
  }
  inner_product_param {
    num_output: 1
    weight_filler {
      type: "gaussian"
      std: 0.1
    }
    bias_filler {
      type: "constant"
    }
  }
}
layer {
  name: "loss"
  type: "HuberLoss"
  bottom: "ip3"
  bottom: "label"
  top: "loss"
  include {
    phase: TRAIN
  }
}
I0507 22:05:27.408848  8033 layer_factory.hpp:77] Creating layer parameters
I0507 22:05:27.408864  8033 net.cpp:94] Creating Layer parameters
I0507 22:05:27.408869  8033 net.cpp:409] parameters -> data
I0507 22:05:27.408879  8033 net.cpp:409] parameters -> label
I0507 22:05:27.408885  8033 hdf5_data_layer.cpp:79] Loading list of HDF5 filenames from: /home/purduethu/scratch/radon/d/deng106/CNNStatisticalModel/distributions/input/5_distributions_900_sample_size_train-parameters-path.txt
I0507 22:05:27.408900  8033 hdf5_data_layer.cpp:93] Number of HDF5 files: 1
I0507 22:05:27.409310  8033 hdf5.cpp:32] Datatype class: H5T_FLOAT
I0507 22:05:27.546560  8033 net.cpp:144] Setting up parameters
I0507 22:05:27.546591  8033 net.cpp:151] Top shape: 20 1 30 30 (18000)
I0507 22:05:27.546596  8033 net.cpp:151] Top shape: 20 (20)
I0507 22:05:27.546599  8033 net.cpp:159] Memory required for data: 72080
I0507 22:05:27.546605  8033 layer_factory.hpp:77] Creating layer conv1
I0507 22:05:27.546622  8033 net.cpp:94] Creating Layer conv1
I0507 22:05:27.546627  8033 net.cpp:435] conv1 <- data
I0507 22:05:27.546633  8033 net.cpp:409] conv1 -> conv1
I0507 22:05:27.553110  8033 net.cpp:144] Setting up conv1
I0507 22:05:27.553128  8033 net.cpp:151] Top shape: 20 64 30 30 (1152000)
I0507 22:05:27.553131  8033 net.cpp:159] Memory required for data: 4680080
I0507 22:05:27.553143  8033 layer_factory.hpp:77] Creating layer relu1
I0507 22:05:27.553151  8033 net.cpp:94] Creating Layer relu1
I0507 22:05:27.553155  8033 net.cpp:435] relu1 <- conv1
I0507 22:05:27.553160  8033 net.cpp:396] relu1 -> conv1 (in-place)
I0507 22:05:27.553169  8033 net.cpp:144] Setting up relu1
I0507 22:05:27.553174  8033 net.cpp:151] Top shape: 20 64 30 30 (1152000)
I0507 22:05:27.553175  8033 net.cpp:159] Memory required for data: 9288080
I0507 22:05:27.553179  8033 layer_factory.hpp:77] Creating layer conv2
I0507 22:05:27.553187  8033 net.cpp:94] Creating Layer conv2
I0507 22:05:27.553191  8033 net.cpp:435] conv2 <- conv1
I0507 22:05:27.553196  8033 net.cpp:409] conv2 -> conv2
I0507 22:05:27.568828  8033 net.cpp:144] Setting up conv2
I0507 22:05:27.568845  8033 net.cpp:151] Top shape: 20 64 30 30 (1152000)
I0507 22:05:27.568850  8033 net.cpp:159] Memory required for data: 13896080
I0507 22:05:27.568858  8033 layer_factory.hpp:77] Creating layer relu2
I0507 22:05:27.568866  8033 net.cpp:94] Creating Layer relu2
I0507 22:05:27.568871  8033 net.cpp:435] relu2 <- conv2
I0507 22:05:27.568876  8033 net.cpp:396] relu2 -> conv2 (in-place)
I0507 22:05:27.568883  8033 net.cpp:144] Setting up relu2
I0507 22:05:27.568888  8033 net.cpp:151] Top shape: 20 64 30 30 (1152000)
I0507 22:05:27.568892  8033 net.cpp:159] Memory required for data: 18504080
I0507 22:05:27.568895  8033 layer_factory.hpp:77] Creating layer pool2
I0507 22:05:27.568908  8033 net.cpp:94] Creating Layer pool2
I0507 22:05:27.568912  8033 net.cpp:435] pool2 <- conv2
I0507 22:05:27.568917  8033 net.cpp:409] pool2 -> pool2
I0507 22:05:27.568980  8033 net.cpp:144] Setting up pool2
I0507 22:05:27.568989  8033 net.cpp:151] Top shape: 20 64 15 15 (288000)
I0507 22:05:27.568992  8033 net.cpp:159] Memory required for data: 19656080
I0507 22:05:27.568996  8033 layer_factory.hpp:77] Creating layer conv3
I0507 22:05:27.569005  8033 net.cpp:94] Creating Layer conv3
I0507 22:05:27.569010  8033 net.cpp:435] conv3 <- pool2
I0507 22:05:27.569015  8033 net.cpp:409] conv3 -> conv3
I0507 22:05:27.578621  8033 net.cpp:144] Setting up conv3
I0507 22:05:27.578637  8033 net.cpp:151] Top shape: 20 64 15 15 (288000)
I0507 22:05:27.578641  8033 net.cpp:159] Memory required for data: 20808080
I0507 22:05:27.578650  8033 layer_factory.hpp:77] Creating layer relu3
I0507 22:05:27.578657  8033 net.cpp:94] Creating Layer relu3
I0507 22:05:27.578661  8033 net.cpp:435] relu3 <- conv3
I0507 22:05:27.578666  8033 net.cpp:396] relu3 -> conv3 (in-place)
I0507 22:05:27.578675  8033 net.cpp:144] Setting up relu3
I0507 22:05:27.578680  8033 net.cpp:151] Top shape: 20 64 15 15 (288000)
I0507 22:05:27.578682  8033 net.cpp:159] Memory required for data: 21960080
I0507 22:05:27.578685  8033 layer_factory.hpp:77] Creating layer conv4
I0507 22:05:27.578694  8033 net.cpp:94] Creating Layer conv4
I0507 22:05:27.578698  8033 net.cpp:435] conv4 <- conv3
I0507 22:05:27.578704  8033 net.cpp:409] conv4 -> conv4
I0507 22:05:27.586313  8033 net.cpp:144] Setting up conv4
I0507 22:05:27.586326  8033 net.cpp:151] Top shape: 20 64 15 15 (288000)
I0507 22:05:27.586331  8033 net.cpp:159] Memory required for data: 23112080
I0507 22:05:27.586338  8033 layer_factory.hpp:77] Creating layer relu4
I0507 22:05:27.586344  8033 net.cpp:94] Creating Layer relu4
I0507 22:05:27.586349  8033 net.cpp:435] relu4 <- conv4
I0507 22:05:27.586354  8033 net.cpp:396] relu4 -> conv4 (in-place)
I0507 22:05:27.586361  8033 net.cpp:144] Setting up relu4
I0507 22:05:27.586366  8033 net.cpp:151] Top shape: 20 64 15 15 (288000)
I0507 22:05:27.586369  8033 net.cpp:159] Memory required for data: 24264080
I0507 22:05:27.586372  8033 layer_factory.hpp:77] Creating layer conv5
I0507 22:05:27.586381  8033 net.cpp:94] Creating Layer conv5
I0507 22:05:27.586385  8033 net.cpp:435] conv5 <- conv4
I0507 22:05:27.586390  8033 net.cpp:409] conv5 -> conv5
I0507 22:05:27.595597  8033 net.cpp:144] Setting up conv5
I0507 22:05:27.595613  8033 net.cpp:151] Top shape: 20 64 15 15 (288000)
I0507 22:05:27.595618  8033 net.cpp:159] Memory required for data: 25416080
I0507 22:05:27.595628  8033 layer_factory.hpp:77] Creating layer relu5
I0507 22:05:27.595633  8033 net.cpp:94] Creating Layer relu5
I0507 22:05:27.595638  8033 net.cpp:435] relu5 <- conv5
I0507 22:05:27.595643  8033 net.cpp:396] relu5 -> conv5 (in-place)
I0507 22:05:27.595651  8033 net.cpp:144] Setting up relu5
I0507 22:05:27.595656  8033 net.cpp:151] Top shape: 20 64 15 15 (288000)
I0507 22:05:27.595659  8033 net.cpp:159] Memory required for data: 26568080
I0507 22:05:27.595662  8033 layer_factory.hpp:77] Creating layer pool5
I0507 22:05:27.595669  8033 net.cpp:94] Creating Layer pool5
I0507 22:05:27.595671  8033 net.cpp:435] pool5 <- conv5
I0507 22:05:27.595676  8033 net.cpp:409] pool5 -> pool5
I0507 22:05:27.595721  8033 net.cpp:144] Setting up pool5
I0507 22:05:27.595729  8033 net.cpp:151] Top shape: 20 64 7 7 (62720)
I0507 22:05:27.595733  8033 net.cpp:159] Memory required for data: 26818960
I0507 22:05:27.595736  8033 layer_factory.hpp:77] Creating layer ip1
I0507 22:05:27.595746  8033 net.cpp:94] Creating Layer ip1
I0507 22:05:27.595751  8033 net.cpp:435] ip1 <- pool5
I0507 22:05:27.595757  8033 net.cpp:409] ip1 -> ip1
I0507 22:05:27.601919  8033 net.cpp:144] Setting up ip1
I0507 22:05:27.601934  8033 net.cpp:151] Top shape: 20 64 (1280)
I0507 22:05:27.601939  8033 net.cpp:159] Memory required for data: 26824080
I0507 22:05:27.601945  8033 layer_factory.hpp:77] Creating layer ip2
I0507 22:05:27.601953  8033 net.cpp:94] Creating Layer ip2
I0507 22:05:27.601963  8033 net.cpp:435] ip2 <- ip1
I0507 22:05:27.601969  8033 net.cpp:409] ip2 -> ip2
I0507 22:05:27.602206  8033 net.cpp:144] Setting up ip2
I0507 22:05:27.602216  8033 net.cpp:151] Top shape: 20 64 (1280)
I0507 22:05:27.602219  8033 net.cpp:159] Memory required for data: 26829200
I0507 22:05:27.602226  8033 layer_factory.hpp:77] Creating layer ip3
I0507 22:05:27.602231  8033 net.cpp:94] Creating Layer ip3
I0507 22:05:27.602236  8033 net.cpp:435] ip3 <- ip2
I0507 22:05:27.602241  8033 net.cpp:409] ip3 -> ip3
I0507 22:05:27.602356  8033 net.cpp:144] Setting up ip3
I0507 22:05:27.602365  8033 net.cpp:151] Top shape: 20 1 (20)
I0507 22:05:27.602367  8033 net.cpp:159] Memory required for data: 26829280
I0507 22:05:27.602372  8033 layer_factory.hpp:77] Creating layer loss
I0507 22:05:27.602385  8033 net.cpp:94] Creating Layer loss
I0507 22:05:27.602388  8033 net.cpp:435] loss <- ip3
I0507 22:05:27.602392  8033 net.cpp:435] loss <- label
I0507 22:05:27.602397  8033 net.cpp:409] loss -> loss
I0507 22:05:27.602454  8033 net.cpp:144] Setting up loss
…
I0507 22:05:27.672286  8033 net.cpp:323] The NetState phase (0) differed from the phase (1) specified by a rule in layer intercept
I0507 22:05:27.672302  8033 net.cpp:323] The NetState phase (0) differed from the phase (1) specified by a rule in layer accuracy
I0507 22:05:27.672390  8033 net.cpp:52] Initializing net from parameters: 
state {
  phase: TRAIN
}
layer {
  name: "parameters"
  type: "HDF5Data"
  top: "data"
  top: "label"
  include {
    phase: TRAIN
  }
  hdf5_data_param {
    source: "/home/purduethu/scratch/radon/d/deng106/CNNStatisticalModel/distributions/input/5_distributions_900_sample_size_train-distributions-path.txt"
    batch_size: 20
  }
}
layer {
  name: "conv1"
  type: "Convolution"
  bottom: "data"
  top: "conv1"
  param {
    lr_mult: 1
  }
  param {
    lr_mult: 2
  }
  convolution_param {
    num_output: 64
    pad: 2
    kernel_size: 5
    stride: 1
    weight_filler {
      type: "gaussian"
      std: 0.0001
    }
    bias_filler {
      type: "constant"
    }
  }
}
layer {
  name: "relu1"
  type: "ReLU"
  bottom: "conv1"
  top: "conv1"
}
layer {
  name: "conv2"
  type: "Convolution"
  bottom: "conv1"
  top: "conv2"
  param {
    lr_mult: 1
  }
  param {
    lr_mult: 2
  }
  convolution_param {
    num_output: 64
    pad: 2
    kernel_size: 5
    stride: 1
    weight_filler {
      type: "gaussian"
      std: 0.01
    }
    bias_filler {
      type: "constant"
    }
  }
}
layer {
  name: "relu2"
  type: "ReLU"
  bottom: "conv2"
  top: "conv2"
}
layer {
  name: "pool2"
  type: "Pooling"
  bottom: "conv2"
  top: "pool2"
  pooling_param {
    pool: MAX
    kernel_size: 3
    stride: 2
  }
}
layer {
  name: "conv3"
  type: "Convolution"
  bottom: "pool2"
  top: "conv3"
  param {
    lr_mult: 1
  }
  param {
    lr_mult: 2
  }
  convolution_param {
    num_output: 64
    pad: 2
    kernel_size: 5
    stride: 1
    weight_filler {
      type: "gaussian"
      std: 0.01
    }
    bias_filler {
      type: "constant"
    }
  }
}
layer {
  name: "relu3"
  type: "ReLU"
  bottom: "conv3"
  top: "conv3"
}
layer {
  name: "conv4"
  type: "Convolution"
  bottom: "conv3"
  top: "conv4"
  param {
    lr_mult: 1
  }
  param {
    lr_mult: 2
  }
  convolution_param {
    num_output: 64
    pad: 2
    kernel_size: 5
    stride: 1
    weight_filler {
      type: "gaussian"
      std: 0.01
    }
    bias_filler {
      type: "constant"
    }
  }
}
layer {
  name: "relu4"
  type: "ReLU"
  bottom: "conv4"
  top: "conv4"
}
layer {
  name: "conv5"
  type: "Convolution"
  bottom: "conv4"
  top: "conv5"
  param {
    lr_mult: 1
  }
  param {
    lr_mult: 2
  }
  convolution_param {
    num_output: 64
    pad: 2
    kernel_size: 5
    stride: 1
    weight_filler {
      type: "gaussian"
      std: 0.01
    }
    bias_filler {
      type: "constant"
    }
  }
}
layer {
  name: "relu5"
  type: "ReLU"
  bottom: "conv5"
  top: "conv5"
}
layer {
  name: "pool5"
  type: "Pooling"
  bottom: "conv5"
  top: "pool5"
  pooling_param {
    pool: AVE
    kernel_size: 3
    stride: 2
  }
}
layer {
  name: "ip1"
  type: "InnerProduct"
  bottom: "pool5"
  top: "ip1"
  param {
    lr_mult: 1
  }
  param {
    lr_mult: 2
  }
  inner_product_param {
    num_output: 64
    weight_filler {
      type: "gaussian"
      std: 0.1
    }
    bias_filler {
      type: "constant"
    }
  }
}
layer {
  name: "ip2"
  type: "InnerProduct"
  bottom: "ip1"
  top: "ip2"
  param {
    lr_mult: 1
  }
  param {
    lr_mult: 2
  }
  inner_product_param {
    num_output: 64
    weight_filler {
      type: "gaussian"
      std: 0.1
    }
    bias_filler {
      type: "constant"
    }
  }
}
layer {
  name: "ip3"
  type: "InnerProduct"
  bottom: "ip2"
  top: "ip3"
  param {
    lr_mult: 1
  }
  param {
    lr_mult: 2
  }
  inner_product_param {
    num_output: 50
    weight_filler {
      type: "gaussian"
      std: 0.1
    }
    bias_filler {
      type: "constant"
    }
  }
}
layer {
  name: "loss"
  type: "SoftmaxWithLoss"
  bottom: "ip3"
  bottom: "label"
  top: "loss"
}
I0507 22:05:27.672444  8033 layer_factory.hpp:77] Creating layer parameters
I0507 22:05:27.672453  8033 net.cpp:94] Creating Layer parameters
I0507 22:05:27.672457  8033 net.cpp:409] parameters -> data
I0507 22:05:27.672464  8033 net.cpp:409] parameters -> label
I0507 22:05:27.672472  8033 hdf5_data_layer.cpp:79] Loading list of HDF5 filenames from: /home/purduethu/scratch/radon/d/deng106/CNNStatisticalModel/distributions/input/5_distributions_900_sample_size_train-distributions-path.txt
I0507 22:05:27.672489  8033 hdf5_data_layer.cpp:93] Number of HDF5 files: 1
I0507 22:05:27.810700  8033 hdf5.cpp:35] Datatype class: H5T_INTEGER
I0507 22:05:27.811157  8033 net.cpp:144] Setting up parameters
I0507 22:05:27.811172  8033 net.cpp:151] Top shape: 20 1 30 30 (18000)
I0507 22:05:27.811177  8033 net.cpp:151] Top shape: 20 (20)
I0507 22:05:27.811179  8033 net.cpp:159] Memory required for data: 72080
I0507 22:05:27.811185  8033 layer_factory.hpp:77] Creating layer conv1
I0507 22:05:27.811202  8033 net.cpp:94] Creating Layer conv1
I0507 22:05:27.811206  8033 net.cpp:435] conv1 <- data
I0507 22:05:27.811213  8033 net.cpp:409] conv1 -> conv1
I0507 22:05:27.814779  8033 net.cpp:144] Setting up conv1
I0507 22:05:27.814816  8033 net.cpp:151] Top shape: 20 64 30 30 (1152000)
I0507 22:05:27.814827  8033 net.cpp:159] Memory required for data: 4680080
I0507 22:05:27.814853  8033 layer_factory.hpp:77] Creating layer relu1
I0507 22:05:27.814872  8033 net.cpp:94] Creating Layer relu1
I0507 22:05:27.814883  8033 net.cpp:435] relu1 <- conv1
I0507 22:05:27.814898  8033 net.cpp:396] relu1 -> conv1 (in-place)
I0507 22:05:27.814918  8033 net.cpp:144] Setting up relu1
I0507 22:05:27.814930  8033 net.cpp:151] Top shape: 20 64 30 30 (1152000)
I0507 22:05:27.814939  8033 net.cpp:159] Memory required for data: 9288080
I0507 22:05:27.814947  8033 layer_factory.hpp:77] Creating layer conv2
I0507 22:05:27.814967  8033 net.cpp:94] Creating Layer conv2
I0507 22:05:27.814977  8033 net.cpp:435] conv2 <- conv1
I0507 22:05:27.814991  8033 net.cpp:409] conv2 -> conv2
I0507 22:05:27.830041  8033 net.cpp:144] Setting up conv2
I0507 22:05:27.830056  8033 net.cpp:151] Top shape: 20 64 30 30 (1152000)
I0507 22:05:27.830060  8033 net.cpp:159] Memory required for data: 13896080
I0507 22:05:27.830068  8033 layer_factory.hpp:77] Creating layer relu2
I0507 22:05:27.830075  8033 net.cpp:94] Creating Layer relu2
I0507 22:05:27.830080  8033 net.cpp:435] relu2 <- conv2
I0507 22:05:27.830085  8033 net.cpp:396] relu2 -> conv2 (in-place)
I0507 22:05:27.830091  8033 net.cpp:144] Setting up relu2
I0507 22:05:27.830096  8033 net.cpp:151] Top shape: 20 64 30 30 (1152000)
I0507 22:05:27.830098  8033 net.cpp:159] Memory required for data: 18504080
I0507 22:05:27.830101  8033 layer_factory.hpp:77] Creating layer pool2
I0507 22:05:27.830107  8033 net.cpp:94] Creating Layer pool2
I0507 22:05:27.830111  8033 net.cpp:435] pool2 <- conv2
I0507 22:05:27.830116  8033 net.cpp:409] pool2 -> pool2
I0507 22:05:27.830171  8033 net.cpp:144] Setting up pool2
I0507 22:05:27.830179  8033 net.cpp:151] Top shape: 20 64 15 15 (288000)
I0507 22:05:27.830183  8033 net.cpp:159] Memory required for data: 19656080
I0507 22:05:27.830185  8033 layer_factory.hpp:77] Creating layer conv3
I0507 22:05:27.830193  8033 net.cpp:94] Creating Layer conv3
I0507 22:05:27.830198  8033 net.cpp:435] conv3 <- pool2
I0507 22:05:27.830209  8033 net.cpp:409] conv3 -> conv3
I0507 22:05:27.838954  8033 net.cpp:144] Setting up conv3
I0507 22:05:27.838970  8033 net.cpp:151] Top shape: 20 64 15 15 (288000)
I0507 22:05:27.838974  8033 net.cpp:159] Memory required for data: 20808080
I0507 22:05:27.838984  8033 layer_factory.hpp:77] Creating layer relu3
I0507 22:05:27.838989  8033 net.cpp:94] Creating Layer relu3
I0507 22:05:27.838994  8033 net.cpp:435] relu3 <- conv3
I0507 22:05:27.838999  8033 net.cpp:396] relu3 -> conv3 (in-place)
I0507 22:05:27.839006  8033 net.cpp:144] Setting up relu3
I0507 22:05:27.839011  8033 net.cpp:151] Top shape: 20 64 15 15 (288000)
I0507 22:05:27.839015  8033 net.cpp:159] Memory required for data: 21960080
I0507 22:05:27.839018  8033 layer_factory.hpp:77] Creating layer conv4
I0507 22:05:27.839027  8033 net.cpp:94] Creating Layer conv4
I0507 22:05:27.839031  8033 net.cpp:435] conv4 <- conv3
I0507 22:05:27.839037  8033 net.cpp:409] conv4 -> conv4
I0507 22:05:27.846901  8033 net.cpp:144] Setting up conv4
I0507 22:05:27.846916  8033 net.cpp:151] Top shape: 20 64 15 15 (288000)
I0507 22:05:27.846921  8033 net.cpp:159] Memory required for data: 23112080
I0507 22:05:27.846927  8033 layer_factory.hpp:77] Creating layer relu4
I0507 22:05:27.846935  8033 net.cpp:94] Creating Layer relu4
I0507 22:05:27.846938  8033 net.cpp:435] relu4 <- conv4
I0507 22:05:27.846943  8033 net.cpp:396] relu4 -> conv4 (in-place)
I0507 22:05:27.846951  8033 net.cpp:144] Setting up relu4
I0507 22:05:27.846956  8033 net.cpp:151] Top shape: 20 64 15 15 (288000)
I0507 22:05:27.846958  8033 net.cpp:159] Memory required for data: 24264080
I0507 22:05:27.846962  8033 layer_factory.hpp:77] Creating layer conv5
I0507 22:05:27.846971  8033 net.cpp:94] Creating Layer conv5
I0507 22:05:27.846974  8033 net.cpp:435] conv5 <- conv4
I0507 22:05:27.846979  8033 net.cpp:409] conv5 -> conv5
I0507 22:05:27.857501  8033 net.cpp:144] Setting up conv5
I0507 22:05:27.857543  8033 net.cpp:151] Top shape: 20 64 15 15 (288000)
I0507 22:05:27.857554  8033 net.cpp:159] Memory required for data: 25416080
I0507 22:05:27.857578  8033 layer_factory.hpp:77] Creating layer relu5
I0507 22:05:27.857595  8033 net.cpp:94] Creating Layer relu5
I0507 22:05:27.857606  8033 net.cpp:435] relu5 <- conv5
I0507 22:05:27.857620  8033 net.cpp:396] relu5 -> conv5 (in-place)
I0507 22:05:27.857640  8033 net.cpp:144] Setting up relu5
I0507 22:05:27.857653  8033 net.cpp:151] Top shape: 20 64 15 15 (288000)
I0507 22:05:27.857661  8033 net.cpp:159] Memory required for data: 26568080
I0507 22:05:27.857671  8033 layer_factory.hpp:77] Creating layer pool5
I0507 22:05:27.857684  8033 net.cpp:94] Creating Layer pool5
I0507 22:05:27.857694  8033 net.cpp:435] pool5 <- conv5
I0507 22:05:27.857710  8033 net.cpp:409] pool5 -> pool5
I0507 22:05:27.857825  8033 net.cpp:144] Setting up pool5
I0507 22:05:27.857844  8033 net.cpp:151] Top shape: 20 64 7 7 (62720)
I0507 22:05:27.857853  8033 net.cpp:159] Memory required for data: 26818960
I0507 22:05:27.857862  8033 layer_factory.hpp:77] Creating layer ip1
I0507 22:05:27.857882  8033 net.cpp:94] Creating Layer ip1
I0507 22:05:27.857892  8033 net.cpp:435] ip1 <- pool5
I0507 22:05:27.857908  8033 net.cpp:409] ip1 -> ip1
I0507 22:05:27.872495  8033 net.cpp:144] Setting up ip1
I0507 22:05:27.872520  8033 net.cpp:151] Top shape: 20 64 (1280)
I0507 22:05:27.872530  8033 net.cpp:159] Memory required for data: 26824080
I0507 22:05:27.872545  8033 layer_factory.hpp:77] Creating layer ip2
I0507 22:05:27.872576  8033 net.cpp:94] Creating Layer ip2
I0507 22:05:27.872588  8033 net.cpp:435] ip2 <- ip1
I0507 22:05:27.872602  8033 net.cpp:409] ip2 -> ip2
I0507 22:05:27.873261  8033 net.cpp:144] Setting up ip2
I0507 22:05:27.873281  8033 net.cpp:151] Top shape: 20 64 (1280)
I0507 22:05:27.873289  8033 net.cpp:159] Memory required for data: 26829200
I0507 22:05:27.873302  8033 layer_factory.hpp:77] Creating layer ip3
I0507 22:05:27.873317  8033 net.cpp:94] Creating Layer ip3
I0507 22:05:27.873325  8033 net.cpp:435] ip3 <- ip2
I0507 22:05:27.873340  8033 net.cpp:409] ip3 -> ip3
I0507 22:05:27.873889  8033 net.cpp:144] Setting up ip3
I0507 22:05:27.873908  8033 net.cpp:151] Top shape: 20 50 (1000)
I0507 22:05:27.873915  8033 net.cpp:159] Memory required for data: 26833200
I0507 22:05:27.873929  8033 layer_factory.hpp:77] Creating layer loss
I0507 22:05:27.873944  8033 net.cpp:94] Creating Layer loss
I0507 22:05:27.873953  8033 net.cpp:435] loss <- ip3
I0507 22:05:27.873963  8033 net.cpp:435] loss <- label
I0507 22:05:27.873977  8033 net.cpp:409] loss -> loss
I0507 22:05:27.873996  8033 layer_factory.hpp:77] Creating layer loss
…
I0507 22:05:27.875332  8033 solver.cpp:181] Creating test net (#0) specified by net file: ./protocol/dis_5_900_dimension.protocol_distribution
I0507 22:05:27.875397  8033 net.cpp:323] The NetState phase (1) differed from the phase (0) specified by a rule in layer parameters
I0507 22:05:27.875639  8033 net.cpp:52] Initializing net from parameters: 
state {
  phase: TEST
}
layer {
  name: "intercept"
  type: "HDF5Data"
  top: "data"
  top: "label"
  include {
    phase: TEST
  }
  hdf5_data_param {
    source: "/home/purduethu/scratch/radon/d/deng106/CNNStatisticalModel/distributions/input/5_distributions_900_sample_size_test-distributions-path.txt"
    batch_size: 20
  }
}
layer {
  name: "conv1"
  type: "Convolution"
  bottom: "data"
  top: "conv1"
  param {
    lr_mult: 1
  }
  param {
    lr_mult: 2
  }
  convolution_param {
    num_output: 64
    pad: 2
    kernel_size: 5
    stride: 1
    weight_filler {
      type: "gaussian"
      std: 0.0001
    }
    bias_filler {
      type: "constant"
    }
  }
}
layer {
  name: "relu1"
  type: "ReLU"
  bottom: "conv1"
  top: "conv1"
}
layer {
  name: "conv2"
  type: "Convolution"
  bottom: "conv1"
  top: "conv2"
  param {
    lr_mult: 1
  }
  param {
    lr_mult: 2
  }
  convolution_param {
    num_output: 64
    pad: 2
    kernel_size: 5
    stride: 1
    weight_filler {
      type: "gaussian"
      std: 0.01
    }
    bias_filler {
      type: "constant"
    }
  }
}
layer {
  name: "relu2"
  type: "ReLU"
  bottom: "conv2"
  top: "conv2"
}
layer {
  name: "pool2"
  type: "Pooling"
  bottom: "conv2"
  top: "pool2"
  pooling_param {
    pool: MAX
    kernel_size: 3
    stride: 2
  }
}
layer {
  name: "conv3"
  type: "Convolution"
  bottom: "pool2"
  top: "conv3"
  param {
    lr_mult: 1
  }
  param {
    lr_mult: 2
  }
  convolution_param {
    num_output: 64
    pad: 2
    kernel_size: 5
    stride: 1
    weight_filler {
      type: "gaussian"
      std: 0.01
    }
    bias_filler {
      type: "constant"
    }
  }
}
layer {
  name: "relu3"
  type: "ReLU"
  bottom: "conv3"
  top: "conv3"
}
layer {
  name: "conv4"
  type: "Convolution"
  bottom: "conv3"
  top: "conv4"
  param {
    lr_mult: 1
  }
  param {
    lr_mult: 2
  }
  convolution_param {
    num_output: 64
    pad: 2
    kernel_size: 5
    stride: 1
    weight_filler {
      type: "gaussian"
      std: 0.01
    }
    bias_filler {
      type: "constant"
    }
  }
}
layer {
  name: "relu4"
  type: "ReLU"
  bottom: "conv4"
  top: "conv4"
}
layer {
  name: "conv5"
  type: "Convolution"
  bottom: "conv4"
  top: "conv5"
  param {
    lr_mult: 1
  }
  param {
    lr_mult: 2
  }
  convolution_param {
    num_output: 64
    pad: 2
    kernel_size: 5
    stride: 1
    weight_filler {
      type: "gaussian"
      std: 0.01
    }
    bias_filler {
      type: "constant"
    }
  }
}
layer {
  name: "relu5"
  type: "ReLU"
  bottom: "conv5"
  top: "conv5"
}
layer {
  name: "pool5"
  type: "Pooling"
  bottom: "conv5"
  top: "pool5"
  pooling_param {
    pool: AVE
    kernel_size: 3
    stride: 2
  }
}
layer {
  name: "ip1"
  type: "InnerProduct"
  bottom: "pool5"
  top: "ip1"
  param {
    lr_mult: 1
  }
  param {
    lr_mult: 2
  }
  inner_product_param {
    num_output: 64
    weight_filler {
      type: "gaussian"
      std: 0.1
    }
    bias_filler {
      type: "constant"
    }
  }
}
layer {
  name: "ip2"
  type: "InnerProduct"
  bottom: "ip1"
  top: "ip2"
  param {
    lr_mult: 1
  }
  param {
    lr_mult: 2
  }
  inner_product_param {
    num_output: 64
    weight_filler {
      type: "gaussian"
      std: 0.1
    }
    bias_filler {
      type: "constant"
    }
  }
}
layer {
  name: "ip3"
  type: "InnerProduct"
  bottom: "ip2"
  top: "ip3"
  param {
    lr_mult: 1
  }
  param {
    lr_mult: 2
  }
  inner_product_param {
    num_output: 50
    weight_filler {
      type: "gaussian"
      std: 0.1
    }
    bias_filler {
      type: "constant"
    }
  }
}
layer {
  name: "accuracy"
  type: "Accuracy"
  bottom: "ip3"
  bottom: "label"
  top: "accuracy"
  include {
    phase: TEST
  }
}
layer {
  name: "loss"
  type: "SoftmaxWithLoss"
  bottom: "ip3"
  bottom: "label"
  top: "loss"
}
I0507 22:05:27.875813  8033 layer_factory.hpp:77] Creating layer intercept
I0507 22:05:27.875834  8033 net.cpp:94] Creating Layer intercept
I0507 22:05:27.875846  8033 net.cpp:409] intercept -> data
I0507 22:05:27.875864  8033 net.cpp:409] intercept -> label
I0507 22:05:27.875880  8033 hdf5_data_layer.cpp:79] Loading list of HDF5 filenames from: /home/purduethu/scratch/radon/d/deng106/CNNStatisticalModel/distributions/input/5_distributions_900_sample_size_test-distributions-path.txt
I0507 22:05:27.875918  8033 hdf5_data_layer.cpp:93] Number of HDF5 files: 1
I0507 22:05:27.942852  8033 net.cpp:144] Setting up intercept
I0507 22:05:27.942896  8033 net.cpp:151] Top shape: 20 1 30 30 (18000)
I0507 22:05:27.942906  8033 net.cpp:151] Top shape: 20 (20)
I0507 22:05:27.942912  8033 net.cpp:159] Memory required for data: 72080
I0507 22:05:27.942922  8033 layer_factory.hpp:77] Creating layer label_intercept_1_split
I0507 22:05:27.942948  8033 net.cpp:94] Creating Layer label_intercept_1_split
I0507 22:05:27.942957  8033 net.cpp:435] label_intercept_1_split <- label
I0507 22:05:27.942968  8033 net.cpp:409] label_intercept_1_split -> label_intercept_1_split_0
I0507 22:05:27.942982  8033 net.cpp:409] label_intercept_1_split -> label_intercept_1_split_1
I0507 22:05:27.943065  8033 net.cpp:144] Setting up label_intercept_1_split
I0507 22:05:27.943078  8033 net.cpp:151] Top shape: 20 (20)
I0507 22:05:27.943085  8033 net.cpp:151] Top shape: 20 (20)
I0507 22:05:27.943090  8033 net.cpp:159] Memory required for data: 72240
I0507 22:05:27.943096  8033 layer_factory.hpp:77] Creating layer conv1
I0507 22:05:27.943114  8033 net.cpp:94] Creating Layer conv1
I0507 22:05:27.943122  8033 net.cpp:435] conv1 <- data
I0507 22:05:27.943131  8033 net.cpp:409] conv1 -> conv1
I0507 22:05:27.945385  8033 net.cpp:144] Setting up conv1
I0507 22:05:27.945417  8033 net.cpp:151] Top shape: 20 64 30 30 (1152000)
I0507 22:05:27.945425  8033 net.cpp:159] Memory required for data: 4680240
I0507 22:05:27.945442  8033 layer_factory.hpp:77] Creating layer relu1
I0507 22:05:27.945454  8033 net.cpp:94] Creating Layer relu1
I0507 22:05:27.945461  8033 net.cpp:435] relu1 <- conv1
I0507 22:05:27.945469  8033 net.cpp:396] relu1 -> conv1 (in-place)
I0507 22:05:27.945482  8033 net.cpp:144] Setting up relu1
I0507 22:05:27.945490  8033 net.cpp:151] Top shape: 20 64 30 30 (1152000)
I0507 22:05:27.945497  8033 net.cpp:159] Memory required for data: 9288240
I0507 22:05:27.945502  8033 layer_factory.hpp:77] Creating layer conv2
I0507 22:05:27.945516  8033 net.cpp:94] Creating Layer conv2
I0507 22:05:27.945523  8033 net.cpp:435] conv2 <- conv1
I0507 22:05:27.945533  8033 net.cpp:409] conv2 -> conv2
I0507 22:05:27.954773  8033 net.cpp:144] Setting up conv2
I0507 22:05:27.954812  8033 net.cpp:151] Top shape: 20 64 30 30 (1152000)
I0507 22:05:27.954823  8033 net.cpp:159] Memory required for data: 13896240
I0507 22:05:27.954844  8033 layer_factory.hpp:77] Creating layer relu2
I0507 22:05:27.954860  8033 net.cpp:94] Creating Layer relu2
I0507 22:05:27.954872  8033 net.cpp:435] relu2 <- conv2
I0507 22:05:27.954885  8033 net.cpp:396] relu2 -> conv2 (in-place)
I0507 22:05:27.954905  8033 net.cpp:144] Setting up relu2
I0507 22:05:27.954918  8033 net.cpp:151] Top shape: 20 64 30 30 (1152000)
I0507 22:05:27.954926  8033 net.cpp:159] Memory required for data: 18504240
I0507 22:05:27.954936  8033 layer_factory.hpp:77] Creating layer pool2
I0507 22:05:27.954949  8033 net.cpp:94] Creating Layer pool2
I0507 22:05:27.954959  8033 net.cpp:435] pool2 <- conv2
I0507 22:05:27.954972  8033 net.cpp:409] pool2 -> pool2
I0507 22:05:27.955092  8033 net.cpp:144] Setting up pool2
I0507 22:05:27.955104  8033 net.cpp:151] Top shape: 20 64 15 15 (288000)
I0507 22:05:27.955111  8033 net.cpp:159] Memory required for data: 19656240
I0507 22:05:27.955116  8033 layer_factory.hpp:77] Creating layer conv3
I0507 22:05:27.955129  8033 net.cpp:94] Creating Layer conv3
I0507 22:05:27.955137  8033 net.cpp:435] conv3 <- pool2
I0507 22:05:27.955145  8033 net.cpp:409] conv3 -> conv3
I0507 22:05:27.963330  8033 net.cpp:144] Setting up conv3
I0507 22:05:27.963356  8033 net.cpp:151] Top shape: 20 64 15 15 (288000)
I0507 22:05:27.963362  8033 net.cpp:159] Memory required for data: 20808240
I0507 22:05:27.963377  8033 layer_factory.hpp:77] Creating layer relu3
I0507 22:05:27.963389  8033 net.cpp:94] Creating Layer relu3
I0507 22:05:27.963397  8033 net.cpp:435] relu3 <- conv3
I0507 22:05:27.963405  8033 net.cpp:396] relu3 -> conv3 (in-place)
I0507 22:05:27.963418  8033 net.cpp:144] Setting up relu3
I0507 22:05:27.963428  8033 net.cpp:151] Top shape: 20 64 15 15 (288000)
I0507 22:05:27.963433  8033 net.cpp:159] Memory required for data: 21960240
I0507 22:05:27.963438  8033 layer_factory.hpp:77] Creating layer conv4
I0507 22:05:27.963451  8033 net.cpp:94] Creating Layer conv4
I0507 22:05:27.963459  8033 net.cpp:435] conv4 <- conv3
I0507 22:05:27.963467  8033 net.cpp:409] conv4 -> conv4
I0507 22:05:27.972168  8033 net.cpp:144] Setting up conv4
I0507 22:05:27.972193  8033 net.cpp:151] Top shape: 20 64 15 15 (288000)
I0507 22:05:27.972200  8033 net.cpp:159] Memory required for data: 23112240
I0507 22:05:27.972211  8033 layer_factory.hpp:77] Creating layer relu4
I0507 22:05:27.972221  8033 net.cpp:94] Creating Layer relu4
I0507 22:05:27.972229  8033 net.cpp:435] relu4 <- conv4
I0507 22:05:27.972236  8033 net.cpp:396] relu4 -> conv4 (in-place)
I0507 22:05:27.972249  8033 net.cpp:144] Setting up relu4
I0507 22:05:27.972257  8033 net.cpp:151] Top shape: 20 64 15 15 (288000)
I0507 22:05:27.972262  8033 net.cpp:159] Memory required for data: 24264240
I0507 22:05:27.972267  8033 layer_factory.hpp:77] Creating layer conv5
I0507 22:05:27.972280  8033 net.cpp:94] Creating Layer conv5
I0507 22:05:27.972287  8033 net.cpp:435] conv5 <- conv4
I0507 22:05:27.972295  8033 net.cpp:409] conv5 -> conv5
I0507 22:05:27.979495  8033 net.cpp:144] Setting up conv5
I0507 22:05:27.979542  8033 net.cpp:151] Top shape: 20 64 15 15 (288000)
I0507 22:05:27.979555  8033 net.cpp:159] Memory required for data: 25416240
I0507 22:05:27.979579  8033 layer_factory.hpp:77] Creating layer relu5
I0507 22:05:27.979595  8033 net.cpp:94] Creating Layer relu5
I0507 22:05:27.979619  8033 net.cpp:435] relu5 <- conv5
I0507 22:05:27.979626  8033 net.cpp:396] relu5 -> conv5 (in-place)
I0507 22:05:27.979640  8033 net.cpp:144] Setting up relu5
I0507 22:05:27.979647  8033 net.cpp:151] Top shape: 20 64 15 15 (288000)
I0507 22:05:27.979652  8033 net.cpp:159] Memory required for data: 26568240
I0507 22:05:27.979657  8033 layer_factory.hpp:77] Creating layer pool5
I0507 22:05:27.979666  8033 net.cpp:94] Creating Layer pool5
I0507 22:05:27.979672  8033 net.cpp:435] pool5 <- conv5
I0507 22:05:27.979679  8033 net.cpp:409] pool5 -> pool5
I0507 22:05:27.979749  8033 net.cpp:144] Setting up pool5
I0507 22:05:27.979761  8033 net.cpp:151] Top shape: 20 64 7 7 (62720)
I0507 22:05:27.979766  8033 net.cpp:159] Memory required for data: 26819120
I0507 22:05:27.979771  8033 layer_factory.hpp:77] Creating layer ip1
I0507 22:05:27.979782  8033 net.cpp:94] Creating Layer ip1
I0507 22:05:27.979789  8033 net.cpp:435] ip1 <- pool5
I0507 22:05:27.979797  8033 net.cpp:409] ip1 -> ip1
I0507 22:05:27.988564  8033 net.cpp:144] Setting up ip1
I0507 22:05:27.988579  8033 net.cpp:151] Top shape: 20 64 (1280)
I0507 22:05:27.988585  8033 net.cpp:159] Memory required for data: 26824240
I0507 22:05:27.988595  8033 layer_factory.hpp:77] Creating layer ip2
I0507 22:05:27.988605  8033 net.cpp:94] Creating Layer ip2
I0507 22:05:27.988612  8033 net.cpp:435] ip2 <- ip1
I0507 22:05:27.988621  8033 net.cpp:409] ip2 -> ip2
I0507 22:05:27.989028  8033 net.cpp:144] Setting up ip2
I0507 22:05:27.989040  8033 net.cpp:151] Top shape: 20 64 (1280)
I0507 22:05:27.989047  8033 net.cpp:159] Memory required for data: 26829360
I0507 22:05:27.989054  8033 layer_factory.hpp:77] Creating layer ip3
I0507 22:05:27.989066  8033 net.cpp:94] Creating Layer ip3
I0507 22:05:27.989073  8033 net.cpp:435] ip3 <- ip2
I0507 22:05:27.989081  8033 net.cpp:409] ip3 -> ip3
I0507 22:05:27.989434  8033 net.cpp:144] Setting up ip3
I0507 22:05:27.989445  8033 net.cpp:151] Top shape: 20 50 (1000)
I0507 22:05:27.989450  8033 net.cpp:159] Memory required for data: 26833360
I0507 22:05:27.989459  8033 layer_factory.hpp:77] Creating layer ip3_ip3_0_split
I0507 22:05:27.989469  8033 net.cpp:94] Creating Layer ip3_ip3_0_split
I0507 22:05:27.989475  8033 net.cpp:435] ip3_ip3_0_split <- ip3
I0507 22:05:27.989482  8033 net.cpp:409] ip3_ip3_0_split -> ip3_ip3_0_split_0
I0507 22:05:27.989492  8033 net.cpp:409] ip3_ip3_0_split -> ip3_ip3_0_split_1
I0507 22:05:27.989563  8033 net.cpp:144] Setting up ip3_ip3_0_split
I0507 22:05:27.989573  8033 net.cpp:151] Top shape: 20 50 (1000)
I0507 22:05:27.989579  8033 net.cpp:151] Top shape: 20 50 (1000)
I0507 22:05:27.989584  8033 net.cpp:159] Memory required for data: 26841360
I0507 22:05:27.989589  8033 layer_factory.hpp:77] Creating layer accuracy
I0507 22:05:27.989598  8033 net.cpp:94] Creating Layer accuracy
I0507 22:05:27.989605  8033 net.cpp:435] accuracy <- ip3_ip3_0_split_0
I0507 22:05:27.989612  8033 net.cpp:435] accuracy <- label_intercept_1_split_0
I0507 22:05:27.989619  8033 net.cpp:409] accuracy -> accuracy
…
