…
I0503 00:04:51.856307 16015 net.cpp:323] The NetState phase (0) differed from the phase (1) specified by a rule in layer intercept
I0503 00:04:51.856325 16015 net.cpp:323] The NetState phase (0) differed from the phase (1) specified by a rule in layer loss
I0503 00:04:51.856407 16015 net.cpp:52] Initializing net from parameters: 
state {
  phase: TRAIN
}
layer {
  name: "parameters"
  type: "HDF5Data"
  top: "data"
  top: "label"
  include {
    phase: TRAIN
  }
  hdf5_data_param {
    source: "/home/purduethu/scratch/radon/d/deng106/CNNStatisticalModel/distributions/input/50_distributions_100_sample_size_train-parameters-path.txt"
    batch_size: 20
  }
}
layer {
  name: "conv1"
  type: "Convolution"
  bottom: "data"
  top: "conv1"
  param {
    lr_mult: 1
  }
  param {
    lr_mult: 2
  }
  convolution_param {
    num_output: 64
    pad: 2
    kernel_size: 5
    stride: 1
    weight_filler {
      type: "gaussian"
      std: 0.0001
    }
    bias_filler {
      type: "constant"
    }
  }
}
layer {
  name: "relu1"
  type: "ReLU"
  bottom: "conv1"
  top: "conv1"
}
layer {
  name: "conv2"
  type: "Convolution"
  bottom: "conv1"
  top: "conv2"
  param {
    lr_mult: 1
  }
  param {
    lr_mult: 2
  }
  convolution_param {
    num_output: 64
    pad: 2
    kernel_size: 5
    stride: 1
    weight_filler {
      type: "gaussian"
      std: 0.01
    }
    bias_filler {
      type: "constant"
    }
  }
}
layer {
  name: "relu2"
  type: "ReLU"
  bottom: "conv2"
  top: "conv2"
}
layer {
  name: "pool2"
  type: "Pooling"
  bottom: "conv2"
  top: "pool2"
  pooling_param {
    pool: MAX
    kernel_size: 3
    stride: 2
  }
}
layer {
  name: "conv3"
  type: "Convolution"
  bottom: "pool2"
  top: "conv3"
  param {
    lr_mult: 1
  }
  param {
    lr_mult: 2
  }
  convolution_param {
    num_output: 128
    pad: 2
    kernel_size: 5
    stride: 1
    weight_filler {
      type: "gaussian"
      std: 0.01
    }
    bias_filler {
      type: "constant"
    }
  }
}
layer {
  name: "relu3"
  type: "ReLU"
  bottom: "conv3"
  top: "conv3"
}
layer {
  name: "conv4"
  type: "Convolution"
  bottom: "conv3"
  top: "conv4"
  param {
    lr_mult: 1
  }
  param {
    lr_mult: 2
  }
  convolution_param {
    num_output: 128
    pad: 2
    kernel_size: 5
    stride: 1
    weight_filler {
      type: "gaussian"
      std: 0.01
    }
    bias_filler {
      type: "constant"
    }
  }
}
layer {
  name: "relu4"
  type: "ReLU"
  bottom: "conv4"
  top: "conv4"
}
layer {
  name: "conv5"
  type: "Convolution"
  bottom: "conv4"
  top: "conv5"
  param {
    lr_mult: 1
  }
  param {
    lr_mult: 2
  }
  convolution_param {
    num_output: 128
    pad: 2
    kernel_size: 5
    stride: 1
    weight_filler {
      type: "gaussian"
      std: 0.01
    }
    bias_filler {
      type: "constant"
    }
  }
}
layer {
  name: "relu5"
  type: "ReLU"
  bottom: "conv5"
  top: "conv5"
}
layer {
  name: "pool5"
  type: "Pooling"
  bottom: "conv5"
  top: "pool5"
  pooling_param {
    pool: AVE
    kernel_size: 3
    stride: 2
  }
}
layer {
  name: "ip1"
  type: "InnerProduct"
  bottom: "pool5"
  top: "ip1"
  param {
    lr_mult: 1
  }
  param {
    lr_mult: 2
  }
  inner_product_param {
    num_output: 1024
    weight_filler {
      type: "gaussian"
      std: 0.1
    }
    bias_filler {
      type: "constant"
    }
  }
}
layer {
  name: "ip2"
  type: "InnerProduct"
  bottom: "ip1"
  top: "ip2"
  param {
    lr_mult: 1
  }
  param {
    lr_mult: 2
  }
  inner_product_param {
    num_output: 512
    weight_filler {
      type: "gaussian"
      std: 0.1
    }
    bias_filler {
      type: "constant"
    }
  }
}
layer {
  name: "ip3"
  type: "InnerProduct"
  bottom: "ip2"
  top: "ip3"
  param {
    lr_mult: 1
  }
  param {
    lr_mult: 2
  }
  inner_product_param {
    num_output: 1
    weight_filler {
      type: "gaussian"
      std: 0.1
    }
    bias_filler {
      type: "constant"
    }
  }
}
layer {
  name: "loss"
  type: "HuberLoss"
  bottom: "ip3"
  bottom: "label"
  top: "loss"
  include {
    phase: TRAIN
  }
}
I0503 00:04:51.856463 16015 layer_factory.hpp:77] Creating layer parameters
I0503 00:04:51.856480 16015 net.cpp:94] Creating Layer parameters
I0503 00:04:51.856485 16015 net.cpp:409] parameters -> data
I0503 00:04:51.856494 16015 net.cpp:409] parameters -> label
I0503 00:04:51.856501 16015 hdf5_data_layer.cpp:79] Loading list of HDF5 filenames from: /home/purduethu/scratch/radon/d/deng106/CNNStatisticalModel/distributions/input/50_distributions_100_sample_size_train-parameters-path.txt
I0503 00:04:51.856518 16015 hdf5_data_layer.cpp:93] Number of HDF5 files: 1
I0503 00:04:51.857107 16015 hdf5.cpp:32] Datatype class: H5T_FLOAT
I0503 00:04:52.022737 16015 net.cpp:144] Setting up parameters
I0503 00:04:52.022771 16015 net.cpp:151] Top shape: 20 1 10 10 (2000)
I0503 00:04:52.022776 16015 net.cpp:151] Top shape: 20 (20)
I0503 00:04:52.022780 16015 net.cpp:159] Memory required for data: 8080
I0503 00:04:52.022786 16015 layer_factory.hpp:77] Creating layer conv1
I0503 00:04:52.022809 16015 net.cpp:94] Creating Layer conv1
I0503 00:04:52.022814 16015 net.cpp:435] conv1 <- data
I0503 00:04:52.022821 16015 net.cpp:409] conv1 -> conv1
I0503 00:04:52.027117 16015 net.cpp:144] Setting up conv1
I0503 00:04:52.027135 16015 net.cpp:151] Top shape: 20 64 10 10 (128000)
I0503 00:04:52.027140 16015 net.cpp:159] Memory required for data: 520080
I0503 00:04:52.027151 16015 layer_factory.hpp:77] Creating layer relu1
I0503 00:04:52.027160 16015 net.cpp:94] Creating Layer relu1
I0503 00:04:52.027163 16015 net.cpp:435] relu1 <- conv1
I0503 00:04:52.027168 16015 net.cpp:396] relu1 -> conv1 (in-place)
I0503 00:04:52.027180 16015 net.cpp:144] Setting up relu1
I0503 00:04:52.027185 16015 net.cpp:151] Top shape: 20 64 10 10 (128000)
I0503 00:04:52.027189 16015 net.cpp:159] Memory required for data: 1032080
I0503 00:04:52.027192 16015 layer_factory.hpp:77] Creating layer conv2
I0503 00:04:52.027200 16015 net.cpp:94] Creating Layer conv2
I0503 00:04:52.027204 16015 net.cpp:435] conv2 <- conv1
I0503 00:04:52.027209 16015 net.cpp:409] conv2 -> conv2
I0503 00:04:52.033346 16015 net.cpp:144] Setting up conv2
I0503 00:04:52.033363 16015 net.cpp:151] Top shape: 20 64 10 10 (128000)
I0503 00:04:52.033367 16015 net.cpp:159] Memory required for data: 1544080
I0503 00:04:52.033376 16015 layer_factory.hpp:77] Creating layer relu2
I0503 00:04:52.033385 16015 net.cpp:94] Creating Layer relu2
I0503 00:04:52.033388 16015 net.cpp:435] relu2 <- conv2
I0503 00:04:52.033393 16015 net.cpp:396] relu2 -> conv2 (in-place)
I0503 00:04:52.033401 16015 net.cpp:144] Setting up relu2
I0503 00:04:52.033406 16015 net.cpp:151] Top shape: 20 64 10 10 (128000)
I0503 00:04:52.033408 16015 net.cpp:159] Memory required for data: 2056080
I0503 00:04:52.033411 16015 layer_factory.hpp:77] Creating layer pool2
I0503 00:04:52.033417 16015 net.cpp:94] Creating Layer pool2
I0503 00:04:52.033427 16015 net.cpp:435] pool2 <- conv2
I0503 00:04:52.033432 16015 net.cpp:409] pool2 -> pool2
I0503 00:04:52.033484 16015 net.cpp:144] Setting up pool2
I0503 00:04:52.033493 16015 net.cpp:151] Top shape: 20 64 5 5 (32000)
I0503 00:04:52.033496 16015 net.cpp:159] Memory required for data: 2184080
I0503 00:04:52.033499 16015 layer_factory.hpp:77] Creating layer conv3
I0503 00:04:52.033509 16015 net.cpp:94] Creating Layer conv3
I0503 00:04:52.033512 16015 net.cpp:435] conv3 <- pool2
I0503 00:04:52.033517 16015 net.cpp:409] conv3 -> conv3
I0503 00:04:52.041765 16015 net.cpp:144] Setting up conv3
I0503 00:04:52.041780 16015 net.cpp:151] Top shape: 20 128 5 5 (64000)
I0503 00:04:52.041785 16015 net.cpp:159] Memory required for data: 2440080
I0503 00:04:52.041795 16015 layer_factory.hpp:77] Creating layer relu3
I0503 00:04:52.041801 16015 net.cpp:94] Creating Layer relu3
I0503 00:04:52.041805 16015 net.cpp:435] relu3 <- conv3
I0503 00:04:52.041810 16015 net.cpp:396] relu3 -> conv3 (in-place)
I0503 00:04:52.041817 16015 net.cpp:144] Setting up relu3
I0503 00:04:52.041821 16015 net.cpp:151] Top shape: 20 128 5 5 (64000)
I0503 00:04:52.041824 16015 net.cpp:159] Memory required for data: 2696080
I0503 00:04:52.041827 16015 layer_factory.hpp:77] Creating layer conv4
I0503 00:04:52.041837 16015 net.cpp:94] Creating Layer conv4
I0503 00:04:52.041841 16015 net.cpp:435] conv4 <- conv3
I0503 00:04:52.041846 16015 net.cpp:409] conv4 -> conv4
I0503 00:04:52.057018 16015 net.cpp:144] Setting up conv4
I0503 00:04:52.057035 16015 net.cpp:151] Top shape: 20 128 5 5 (64000)
I0503 00:04:52.057039 16015 net.cpp:159] Memory required for data: 2952080
I0503 00:04:52.057046 16015 layer_factory.hpp:77] Creating layer relu4
I0503 00:04:52.057054 16015 net.cpp:94] Creating Layer relu4
I0503 00:04:52.057057 16015 net.cpp:435] relu4 <- conv4
I0503 00:04:52.057062 16015 net.cpp:396] relu4 -> conv4 (in-place)
I0503 00:04:52.057070 16015 net.cpp:144] Setting up relu4
I0503 00:04:52.057075 16015 net.cpp:151] Top shape: 20 128 5 5 (64000)
I0503 00:04:52.057077 16015 net.cpp:159] Memory required for data: 3208080
I0503 00:04:52.057080 16015 layer_factory.hpp:77] Creating layer conv5
I0503 00:04:52.057090 16015 net.cpp:94] Creating Layer conv5
I0503 00:04:52.057093 16015 net.cpp:435] conv5 <- conv4
I0503 00:04:52.057098 16015 net.cpp:409] conv5 -> conv5
I0503 00:04:52.071760 16015 net.cpp:144] Setting up conv5
I0503 00:04:52.071781 16015 net.cpp:151] Top shape: 20 128 5 5 (64000)
I0503 00:04:52.071785 16015 net.cpp:159] Memory required for data: 3464080
I0503 00:04:52.071796 16015 layer_factory.hpp:77] Creating layer relu5
I0503 00:04:52.071804 16015 net.cpp:94] Creating Layer relu5
I0503 00:04:52.071807 16015 net.cpp:435] relu5 <- conv5
I0503 00:04:52.071812 16015 net.cpp:396] relu5 -> conv5 (in-place)
I0503 00:04:52.071820 16015 net.cpp:144] Setting up relu5
I0503 00:04:52.071825 16015 net.cpp:151] Top shape: 20 128 5 5 (64000)
I0503 00:04:52.071828 16015 net.cpp:159] Memory required for data: 3720080
I0503 00:04:52.071831 16015 layer_factory.hpp:77] Creating layer pool5
I0503 00:04:52.071837 16015 net.cpp:94] Creating Layer pool5
I0503 00:04:52.071841 16015 net.cpp:435] pool5 <- conv5
I0503 00:04:52.071846 16015 net.cpp:409] pool5 -> pool5
I0503 00:04:52.071887 16015 net.cpp:144] Setting up pool5
I0503 00:04:52.071895 16015 net.cpp:151] Top shape: 20 128 2 2 (10240)
I0503 00:04:52.071898 16015 net.cpp:159] Memory required for data: 3761040
I0503 00:04:52.071902 16015 layer_factory.hpp:77] Creating layer ip1
I0503 00:04:52.071913 16015 net.cpp:94] Creating Layer ip1
I0503 00:04:52.071915 16015 net.cpp:435] ip1 <- pool5
I0503 00:04:52.071921 16015 net.cpp:409] ip1 -> ip1
I0503 00:04:52.085875 16015 net.cpp:144] Setting up ip1
I0503 00:04:52.085896 16015 net.cpp:151] Top shape: 20 1024 (20480)
I0503 00:04:52.085901 16015 net.cpp:159] Memory required for data: 3842960
I0503 00:04:52.085908 16015 layer_factory.hpp:77] Creating layer ip2
I0503 00:04:52.085917 16015 net.cpp:94] Creating Layer ip2
I0503 00:04:52.085927 16015 net.cpp:435] ip2 <- ip1
I0503 00:04:52.085934 16015 net.cpp:409] ip2 -> ip2
I0503 00:04:52.099015 16015 net.cpp:144] Setting up ip2
I0503 00:04:52.099035 16015 net.cpp:151] Top shape: 20 512 (10240)
I0503 00:04:52.099038 16015 net.cpp:159] Memory required for data: 3883920
I0503 00:04:52.099045 16015 layer_factory.hpp:77] Creating layer ip3
I0503 00:04:52.099053 16015 net.cpp:94] Creating Layer ip3
I0503 00:04:52.099057 16015 net.cpp:435] ip3 <- ip2
I0503 00:04:52.099062 16015 net.cpp:409] ip3 -> ip3
I0503 00:04:52.099174 16015 net.cpp:144] Setting up ip3
I0503 00:04:52.099181 16015 net.cpp:151] Top shape: 20 1 (20)
I0503 00:04:52.099185 16015 net.cpp:159] Memory required for data: 3884000
I0503 00:04:52.099190 16015 layer_factory.hpp:77] Creating layer loss
I0503 00:04:52.099198 16015 net.cpp:94] Creating Layer loss
I0503 00:04:52.099201 16015 net.cpp:435] loss <- ip3
I0503 00:04:52.099205 16015 net.cpp:435] loss <- label
I0503 00:04:52.099210 16015 net.cpp:409] loss -> loss
I0503 00:04:52.099258 16015 net.cpp:144] Setting up loss
…
I0503 00:04:52.207355 16015 net.cpp:323] The NetState phase (0) differed from the phase (1) specified by a rule in layer intercept
I0503 00:04:52.207370 16015 net.cpp:323] The NetState phase (0) differed from the phase (1) specified by a rule in layer accuracy
I0503 00:04:52.207454 16015 net.cpp:52] Initializing net from parameters: 
state {
  phase: TRAIN
}
layer {
  name: "parameters"
  type: "HDF5Data"
  top: "data"
  top: "label"
  include {
    phase: TRAIN
  }
  hdf5_data_param {
    source: "/home/purduethu/scratch/radon/d/deng106/CNNStatisticalModel/distributions/input/50_distributions_100_sample_size_train-distributions-path.txt"
    batch_size: 20
  }
}
layer {
  name: "conv1"
  type: "Convolution"
  bottom: "data"
  top: "conv1"
  param {
    lr_mult: 1
  }
  param {
    lr_mult: 2
  }
  convolution_param {
    num_output: 64
    pad: 2
    kernel_size: 5
    stride: 1
    weight_filler {
      type: "gaussian"
      std: 0.0001
    }
    bias_filler {
      type: "constant"
    }
  }
}
layer {
  name: "relu1"
  type: "ReLU"
  bottom: "conv1"
  top: "conv1"
}
layer {
  name: "conv2"
  type: "Convolution"
  bottom: "conv1"
  top: "conv2"
  param {
    lr_mult: 1
  }
  param {
    lr_mult: 2
  }
  convolution_param {
    num_output: 64
    pad: 2
    kernel_size: 5
    stride: 1
    weight_filler {
      type: "gaussian"
      std: 0.01
    }
    bias_filler {
      type: "constant"
    }
  }
}
layer {
  name: "relu2"
  type: "ReLU"
  bottom: "conv2"
  top: "conv2"
}
layer {
  name: "pool2"
  type: "Pooling"
  bottom: "conv2"
  top: "pool2"
  pooling_param {
    pool: MAX
    kernel_size: 3
    stride: 2
  }
}
layer {
  name: "conv3"
  type: "Convolution"
  bottom: "pool2"
  top: "conv3"
  param {
    lr_mult: 1
  }
  param {
    lr_mult: 2
  }
  convolution_param {
    num_output: 128
    pad: 2
    kernel_size: 5
    stride: 1
    weight_filler {
      type: "gaussian"
      std: 0.01
    }
    bias_filler {
      type: "constant"
    }
  }
}
layer {
  name: "relu3"
  type: "ReLU"
  bottom: "conv3"
  top: "conv3"
}
layer {
  name: "conv4"
  type: "Convolution"
  bottom: "conv3"
  top: "conv4"
  param {
    lr_mult: 1
  }
  param {
    lr_mult: 2
  }
  convolution_param {
    num_output: 128
    pad: 2
    kernel_size: 5
    stride: 1
    weight_filler {
      type: "gaussian"
      std: 0.01
    }
    bias_filler {
      type: "constant"
    }
  }
}
layer {
  name: "relu4"
  type: "ReLU"
  bottom: "conv4"
  top: "conv4"
}
layer {
  name: "conv5"
  type: "Convolution"
  bottom: "conv4"
  top: "conv5"
  param {
    lr_mult: 1
  }
  param {
    lr_mult: 2
  }
  convolution_param {
    num_output: 128
    pad: 2
    kernel_size: 5
    stride: 1
    weight_filler {
      type: "gaussian"
      std: 0.01
    }
    bias_filler {
      type: "constant"
    }
  }
}
layer {
  name: "relu5"
  type: "ReLU"
  bottom: "conv5"
  top: "conv5"
}
layer {
  name: "pool5"
  type: "Pooling"
  bottom: "conv5"
  top: "pool5"
  pooling_param {
    pool: AVE
    kernel_size: 3
    stride: 2
  }
}
layer {
  name: "ip1"
  type: "InnerProduct"
  bottom: "pool5"
  top: "ip1"
  param {
    lr_mult: 1
  }
  param {
    lr_mult: 2
  }
  inner_product_param {
    num_output: 1024
    weight_filler {
      type: "gaussian"
      std: 0.1
    }
    bias_filler {
      type: "constant"
    }
  }
}
layer {
  name: "ip2"
  type: "InnerProduct"
  bottom: "ip1"
  top: "ip2"
  param {
    lr_mult: 1
  }
  param {
    lr_mult: 2
  }
  inner_product_param {
    num_output: 512
    weight_filler {
      type: "gaussian"
      std: 0.1
    }
    bias_filler {
      type: "constant"
    }
  }
}
layer {
  name: "ip3"
  type: "InnerProduct"
  bottom: "ip2"
  top: "ip3"
  param {
    lr_mult: 1
  }
  param {
    lr_mult: 2
  }
  inner_product_param {
    num_output: 50
    weight_filler {
      type: "gaussian"
      std: 0.1
    }
    bias_filler {
      type: "constant"
    }
  }
}
layer {
  name: "loss"
  type: "SoftmaxWithLoss"
  bottom: "ip3"
  bottom: "label"
  top: "loss"
}
I0503 00:04:52.207505 16015 layer_factory.hpp:77] Creating layer parameters
I0503 00:04:52.207515 16015 net.cpp:94] Creating Layer parameters
I0503 00:04:52.207518 16015 net.cpp:409] parameters -> data
I0503 00:04:52.207525 16015 net.cpp:409] parameters -> label
I0503 00:04:52.207530 16015 hdf5_data_layer.cpp:79] Loading list of HDF5 filenames from: /home/purduethu/scratch/radon/d/deng106/CNNStatisticalModel/distributions/input/50_distributions_100_sample_size_train-distributions-path.txt
I0503 00:04:52.207547 16015 hdf5_data_layer.cpp:93] Number of HDF5 files: 1
I0503 00:04:52.367547 16015 hdf5.cpp:35] Datatype class: H5T_INTEGER
I0503 00:04:52.370779 16015 net.cpp:144] Setting up parameters
I0503 00:04:52.370808 16015 net.cpp:151] Top shape: 20 1 10 10 (2000)
I0503 00:04:52.370813 16015 net.cpp:151] Top shape: 20 (20)
I0503 00:04:52.370816 16015 net.cpp:159] Memory required for data: 8080
I0503 00:04:52.370823 16015 layer_factory.hpp:77] Creating layer conv1
I0503 00:04:52.370841 16015 net.cpp:94] Creating Layer conv1
I0503 00:04:52.370844 16015 net.cpp:435] conv1 <- data
I0503 00:04:52.370851 16015 net.cpp:409] conv1 -> conv1
I0503 00:04:52.372642 16015 net.cpp:144] Setting up conv1
I0503 00:04:52.372655 16015 net.cpp:151] Top shape: 20 64 10 10 (128000)
I0503 00:04:52.372659 16015 net.cpp:159] Memory required for data: 520080
I0503 00:04:52.372669 16015 layer_factory.hpp:77] Creating layer relu1
I0503 00:04:52.372678 16015 net.cpp:94] Creating Layer relu1
I0503 00:04:52.372681 16015 net.cpp:435] relu1 <- conv1
I0503 00:04:52.372686 16015 net.cpp:396] relu1 -> conv1 (in-place)
I0503 00:04:52.372694 16015 net.cpp:144] Setting up relu1
I0503 00:04:52.372699 16015 net.cpp:151] Top shape: 20 64 10 10 (128000)
I0503 00:04:52.372701 16015 net.cpp:159] Memory required for data: 1032080
I0503 00:04:52.372704 16015 layer_factory.hpp:77] Creating layer conv2
I0503 00:04:52.372712 16015 net.cpp:94] Creating Layer conv2
I0503 00:04:52.372715 16015 net.cpp:435] conv2 <- conv1
I0503 00:04:52.372720 16015 net.cpp:409] conv2 -> conv2
I0503 00:04:52.378146 16015 net.cpp:144] Setting up conv2
I0503 00:04:52.378161 16015 net.cpp:151] Top shape: 20 64 10 10 (128000)
I0503 00:04:52.378165 16015 net.cpp:159] Memory required for data: 1544080
I0503 00:04:52.378173 16015 layer_factory.hpp:77] Creating layer relu2
I0503 00:04:52.378181 16015 net.cpp:94] Creating Layer relu2
I0503 00:04:52.378185 16015 net.cpp:435] relu2 <- conv2
I0503 00:04:52.378190 16015 net.cpp:396] relu2 -> conv2 (in-place)
I0503 00:04:52.378196 16015 net.cpp:144] Setting up relu2
I0503 00:04:52.378201 16015 net.cpp:151] Top shape: 20 64 10 10 (128000)
I0503 00:04:52.378204 16015 net.cpp:159] Memory required for data: 2056080
I0503 00:04:52.378207 16015 layer_factory.hpp:77] Creating layer pool2
I0503 00:04:52.378213 16015 net.cpp:94] Creating Layer pool2
I0503 00:04:52.378216 16015 net.cpp:435] pool2 <- conv2
I0503 00:04:52.378221 16015 net.cpp:409] pool2 -> pool2
I0503 00:04:52.378271 16015 net.cpp:144] Setting up pool2
I0503 00:04:52.378278 16015 net.cpp:151] Top shape: 20 64 5 5 (32000)
I0503 00:04:52.378283 16015 net.cpp:159] Memory required for data: 2184080
I0503 00:04:52.378285 16015 layer_factory.hpp:77] Creating layer conv3
I0503 00:04:52.378293 16015 net.cpp:94] Creating Layer conv3
I0503 00:04:52.378298 16015 net.cpp:435] conv3 <- pool2
I0503 00:04:52.378303 16015 net.cpp:409] conv3 -> conv3
I0503 00:04:52.387079 16015 net.cpp:144] Setting up conv3
I0503 00:04:52.387095 16015 net.cpp:151] Top shape: 20 128 5 5 (64000)
I0503 00:04:52.387099 16015 net.cpp:159] Memory required for data: 2440080
I0503 00:04:52.387109 16015 layer_factory.hpp:77] Creating layer relu3
I0503 00:04:52.387115 16015 net.cpp:94] Creating Layer relu3
I0503 00:04:52.387120 16015 net.cpp:435] relu3 <- conv3
I0503 00:04:52.387125 16015 net.cpp:396] relu3 -> conv3 (in-place)
I0503 00:04:52.387131 16015 net.cpp:144] Setting up relu3
I0503 00:04:52.387135 16015 net.cpp:151] Top shape: 20 128 5 5 (64000)
I0503 00:04:52.387138 16015 net.cpp:159] Memory required for data: 2696080
I0503 00:04:52.387142 16015 layer_factory.hpp:77] Creating layer conv4
I0503 00:04:52.387151 16015 net.cpp:94] Creating Layer conv4
I0503 00:04:52.387154 16015 net.cpp:435] conv4 <- conv3
I0503 00:04:52.387159 16015 net.cpp:409] conv4 -> conv4
I0503 00:04:52.402021 16015 net.cpp:144] Setting up conv4
I0503 00:04:52.402040 16015 net.cpp:151] Top shape: 20 128 5 5 (64000)
I0503 00:04:52.402043 16015 net.cpp:159] Memory required for data: 2952080
I0503 00:04:52.402050 16015 layer_factory.hpp:77] Creating layer relu4
I0503 00:04:52.402058 16015 net.cpp:94] Creating Layer relu4
I0503 00:04:52.402062 16015 net.cpp:435] relu4 <- conv4
I0503 00:04:52.402067 16015 net.cpp:396] relu4 -> conv4 (in-place)
I0503 00:04:52.402076 16015 net.cpp:144] Setting up relu4
I0503 00:04:52.402081 16015 net.cpp:151] Top shape: 20 128 5 5 (64000)
I0503 00:04:52.402083 16015 net.cpp:159] Memory required for data: 3208080
I0503 00:04:52.402086 16015 layer_factory.hpp:77] Creating layer conv5
I0503 00:04:52.402096 16015 net.cpp:94] Creating Layer conv5
I0503 00:04:52.402098 16015 net.cpp:435] conv5 <- conv4
I0503 00:04:52.402103 16015 net.cpp:409] conv5 -> conv5
I0503 00:04:52.417434 16015 net.cpp:144] Setting up conv5
I0503 00:04:52.417454 16015 net.cpp:151] Top shape: 20 128 5 5 (64000)
I0503 00:04:52.417459 16015 net.cpp:159] Memory required for data: 3464080
I0503 00:04:52.417467 16015 layer_factory.hpp:77] Creating layer relu5
I0503 00:04:52.417474 16015 net.cpp:94] Creating Layer relu5
I0503 00:04:52.417479 16015 net.cpp:435] relu5 <- conv5
I0503 00:04:52.417484 16015 net.cpp:396] relu5 -> conv5 (in-place)
I0503 00:04:52.417490 16015 net.cpp:144] Setting up relu5
I0503 00:04:52.417495 16015 net.cpp:151] Top shape: 20 128 5 5 (64000)
I0503 00:04:52.417498 16015 net.cpp:159] Memory required for data: 3720080
I0503 00:04:52.417501 16015 layer_factory.hpp:77] Creating layer pool5
I0503 00:04:52.417507 16015 net.cpp:94] Creating Layer pool5
I0503 00:04:52.417510 16015 net.cpp:435] pool5 <- conv5
I0503 00:04:52.417515 16015 net.cpp:409] pool5 -> pool5
I0503 00:04:52.417556 16015 net.cpp:144] Setting up pool5
I0503 00:04:52.417563 16015 net.cpp:151] Top shape: 20 128 2 2 (10240)
I0503 00:04:52.417567 16015 net.cpp:159] Memory required for data: 3761040
I0503 00:04:52.417569 16015 layer_factory.hpp:77] Creating layer ip1
I0503 00:04:52.417577 16015 net.cpp:94] Creating Layer ip1
I0503 00:04:52.417580 16015 net.cpp:435] ip1 <- pool5
I0503 00:04:52.417585 16015 net.cpp:409] ip1 -> ip1
I0503 00:04:52.430732 16015 net.cpp:144] Setting up ip1
I0503 00:04:52.430749 16015 net.cpp:151] Top shape: 20 1024 (20480)
I0503 00:04:52.430754 16015 net.cpp:159] Memory required for data: 3842960
I0503 00:04:52.430760 16015 layer_factory.hpp:77] Creating layer ip2
I0503 00:04:52.430768 16015 net.cpp:94] Creating Layer ip2
I0503 00:04:52.430771 16015 net.cpp:435] ip2 <- ip1
I0503 00:04:52.430778 16015 net.cpp:409] ip2 -> ip2
I0503 00:04:52.443876 16015 net.cpp:144] Setting up ip2
I0503 00:04:52.443893 16015 net.cpp:151] Top shape: 20 512 (10240)
I0503 00:04:52.443897 16015 net.cpp:159] Memory required for data: 3883920
I0503 00:04:52.443904 16015 layer_factory.hpp:77] Creating layer ip3
I0503 00:04:52.443912 16015 net.cpp:94] Creating Layer ip3
I0503 00:04:52.443915 16015 net.cpp:435] ip3 <- ip2
I0503 00:04:52.443922 16015 net.cpp:409] ip3 -> ip3
I0503 00:04:52.445545 16015 net.cpp:144] Setting up ip3
I0503 00:04:52.445560 16015 net.cpp:151] Top shape: 20 50 (1000)
I0503 00:04:52.445570 16015 net.cpp:159] Memory required for data: 3887920
I0503 00:04:52.445577 16015 layer_factory.hpp:77] Creating layer loss
I0503 00:04:52.445586 16015 net.cpp:94] Creating Layer loss
I0503 00:04:52.445590 16015 net.cpp:435] loss <- ip3
I0503 00:04:52.445595 16015 net.cpp:435] loss <- label
I0503 00:04:52.445598 16015 net.cpp:409] loss -> loss
I0503 00:04:52.445607 16015 layer_factory.hpp:77] Creating layer loss
…
I0503 00:04:52.446122 16015 solver.cpp:181] Creating test net (#0) specified by net file: ./protocol/dis_50_100_dimension.protocol_distribution
I0503 00:04:52.446149 16015 net.cpp:323] The NetState phase (1) differed from the phase (0) specified by a rule in layer parameters
I0503 00:04:52.446243 16015 net.cpp:52] Initializing net from parameters: 
state {
  phase: TEST
}
layer {
  name: "intercept"
  type: "HDF5Data"
  top: "data"
  top: "label"
  include {
    phase: TEST
  }
  hdf5_data_param {
    source: "/home/purduethu/scratch/radon/d/deng106/CNNStatisticalModel/distributions/input/50_distributions_100_sample_size_test-distributions-path.txt"
    batch_size: 20
  }
}
layer {
  name: "conv1"
  type: "Convolution"
  bottom: "data"
  top: "conv1"
  param {
    lr_mult: 1
  }
  param {
    lr_mult: 2
  }
  convolution_param {
    num_output: 64
    pad: 2
    kernel_size: 5
    stride: 1
    weight_filler {
      type: "gaussian"
      std: 0.0001
    }
    bias_filler {
      type: "constant"
    }
  }
}
layer {
  name: "relu1"
  type: "ReLU"
  bottom: "conv1"
  top: "conv1"
}
layer {
  name: "conv2"
  type: "Convolution"
  bottom: "conv1"
  top: "conv2"
  param {
    lr_mult: 1
  }
  param {
    lr_mult: 2
  }
  convolution_param {
    num_output: 64
    pad: 2
    kernel_size: 5
    stride: 1
    weight_filler {
      type: "gaussian"
      std: 0.01
    }
    bias_filler {
      type: "constant"
    }
  }
}
layer {
  name: "relu2"
  type: "ReLU"
  bottom: "conv2"
  top: "conv2"
}
layer {
  name: "pool2"
  type: "Pooling"
  bottom: "conv2"
  top: "pool2"
  pooling_param {
    pool: MAX
    kernel_size: 3
    stride: 2
  }
}
layer {
  name: "conv3"
  type: "Convolution"
  bottom: "pool2"
  top: "conv3"
  param {
    lr_mult: 1
  }
  param {
    lr_mult: 2
  }
  convolution_param {
    num_output: 128
    pad: 2
    kernel_size: 5
    stride: 1
    weight_filler {
      type: "gaussian"
      std: 0.01
    }
    bias_filler {
      type: "constant"
    }
  }
}
layer {
  name: "relu3"
  type: "ReLU"
  bottom: "conv3"
  top: "conv3"
}
layer {
  name: "conv4"
  type: "Convolution"
  bottom: "conv3"
  top: "conv4"
  param {
    lr_mult: 1
  }
  param {
    lr_mult: 2
  }
  convolution_param {
    num_output: 128
    pad: 2
    kernel_size: 5
    stride: 1
    weight_filler {
      type: "gaussian"
      std: 0.01
    }
    bias_filler {
      type: "constant"
    }
  }
}
layer {
  name: "relu4"
  type: "ReLU"
  bottom: "conv4"
  top: "conv4"
}
layer {
  name: "conv5"
  type: "Convolution"
  bottom: "conv4"
  top: "conv5"
  param {
    lr_mult: 1
  }
  param {
    lr_mult: 2
  }
  convolution_param {
    num_output: 128
    pad: 2
    kernel_size: 5
    stride: 1
    weight_filler {
      type: "gaussian"
      std: 0.01
    }
    bias_filler {
      type: "constant"
    }
  }
}
layer {
  name: "relu5"
  type: "ReLU"
  bottom: "conv5"
  top: "conv5"
}
layer {
  name: "pool5"
  type: "Pooling"
  bottom: "conv5"
  top: "pool5"
  pooling_param {
    pool: AVE
    kernel_size: 3
    stride: 2
  }
}
layer {
  name: "ip1"
  type: "InnerProduct"
  bottom: "pool5"
  top: "ip1"
  param {
    lr_mult: 1
  }
  param {
    lr_mult: 2
  }
  inner_product_param {
    num_output: 1024
    weight_filler {
      type: "gaussian"
      std: 0.1
    }
    bias_filler {
      type: "constant"
    }
  }
}
layer {
  name: "ip2"
  type: "InnerProduct"
  bottom: "ip1"
  top: "ip2"
  param {
    lr_mult: 1
  }
  param {
    lr_mult: 2
  }
  inner_product_param {
    num_output: 512
    weight_filler {
      type: "gaussian"
      std: 0.1
    }
    bias_filler {
      type: "constant"
    }
  }
}
layer {
  name: "ip3"
  type: "InnerProduct"
  bottom: "ip2"
  top: "ip3"
  param {
    lr_mult: 1
  }
  param {
    lr_mult: 2
  }
  inner_product_param {
    num_output: 50
    weight_filler {
      type: "gaussian"
      std: 0.1
    }
    bias_filler {
      type: "constant"
    }
  }
}
layer {
  name: "accuracy"
  type: "Accuracy"
  bottom: "ip3"
  bottom: "label"
  top: "accuracy"
  include {
    phase: TEST
  }
}
layer {
  name: "loss"
  type: "SoftmaxWithLoss"
  bottom: "ip3"
  bottom: "label"
  top: "loss"
}
I0503 00:04:52.446306 16015 layer_factory.hpp:77] Creating layer intercept
I0503 00:04:52.446315 16015 net.cpp:94] Creating Layer intercept
I0503 00:04:52.446319 16015 net.cpp:409] intercept -> data
I0503 00:04:52.446326 16015 net.cpp:409] intercept -> label
I0503 00:04:52.446331 16015 hdf5_data_layer.cpp:79] Loading list of HDF5 filenames from: /home/purduethu/scratch/radon/d/deng106/CNNStatisticalModel/distributions/input/50_distributions_100_sample_size_test-distributions-path.txt
I0503 00:04:52.446352 16015 hdf5_data_layer.cpp:93] Number of HDF5 files: 1
I0503 00:04:52.488216 16015 net.cpp:144] Setting up intercept
I0503 00:04:52.488253 16015 net.cpp:151] Top shape: 20 1 10 10 (2000)
I0503 00:04:52.488258 16015 net.cpp:151] Top shape: 20 (20)
I0503 00:04:52.488261 16015 net.cpp:159] Memory required for data: 8080
I0503 00:04:52.488268 16015 layer_factory.hpp:77] Creating layer label_intercept_1_split
I0503 00:04:52.488288 16015 net.cpp:94] Creating Layer label_intercept_1_split
I0503 00:04:52.488293 16015 net.cpp:435] label_intercept_1_split <- label
I0503 00:04:52.488299 16015 net.cpp:409] label_intercept_1_split -> label_intercept_1_split_0
I0503 00:04:52.488307 16015 net.cpp:409] label_intercept_1_split -> label_intercept_1_split_1
I0503 00:04:52.488348 16015 net.cpp:144] Setting up label_intercept_1_split
I0503 00:04:52.488353 16015 net.cpp:151] Top shape: 20 (20)
I0503 00:04:52.488358 16015 net.cpp:151] Top shape: 20 (20)
I0503 00:04:52.488360 16015 net.cpp:159] Memory required for data: 8240
I0503 00:04:52.488364 16015 layer_factory.hpp:77] Creating layer conv1
I0503 00:04:52.488375 16015 net.cpp:94] Creating Layer conv1
I0503 00:04:52.488379 16015 net.cpp:435] conv1 <- data
I0503 00:04:52.488384 16015 net.cpp:409] conv1 -> conv1
I0503 00:04:52.489270 16015 net.cpp:144] Setting up conv1
I0503 00:04:52.489286 16015 net.cpp:151] Top shape: 20 64 10 10 (128000)
I0503 00:04:52.489298 16015 net.cpp:159] Memory required for data: 520240
I0503 00:04:52.489310 16015 layer_factory.hpp:77] Creating layer relu1
I0503 00:04:52.489316 16015 net.cpp:94] Creating Layer relu1
I0503 00:04:52.489320 16015 net.cpp:435] relu1 <- conv1
I0503 00:04:52.489326 16015 net.cpp:396] relu1 -> conv1 (in-place)
I0503 00:04:52.489332 16015 net.cpp:144] Setting up relu1
I0503 00:04:52.489337 16015 net.cpp:151] Top shape: 20 64 10 10 (128000)
I0503 00:04:52.489341 16015 net.cpp:159] Memory required for data: 1032240
I0503 00:04:52.489343 16015 layer_factory.hpp:77] Creating layer conv2
I0503 00:04:52.489352 16015 net.cpp:94] Creating Layer conv2
I0503 00:04:52.489356 16015 net.cpp:435] conv2 <- conv1
I0503 00:04:52.489361 16015 net.cpp:409] conv2 -> conv2
I0503 00:04:52.493466 16015 net.cpp:144] Setting up conv2
I0503 00:04:52.493479 16015 net.cpp:151] Top shape: 20 64 10 10 (128000)
I0503 00:04:52.493484 16015 net.cpp:159] Memory required for data: 1544240
I0503 00:04:52.493491 16015 layer_factory.hpp:77] Creating layer relu2
I0503 00:04:52.493497 16015 net.cpp:94] Creating Layer relu2
I0503 00:04:52.493501 16015 net.cpp:435] relu2 <- conv2
I0503 00:04:52.493507 16015 net.cpp:396] relu2 -> conv2 (in-place)
I0503 00:04:52.493513 16015 net.cpp:144] Setting up relu2
I0503 00:04:52.493518 16015 net.cpp:151] Top shape: 20 64 10 10 (128000)
I0503 00:04:52.493521 16015 net.cpp:159] Memory required for data: 2056240
I0503 00:04:52.493525 16015 layer_factory.hpp:77] Creating layer pool2
I0503 00:04:52.493530 16015 net.cpp:94] Creating Layer pool2
I0503 00:04:52.493533 16015 net.cpp:435] pool2 <- conv2
I0503 00:04:52.493538 16015 net.cpp:409] pool2 -> pool2
I0503 00:04:52.493592 16015 net.cpp:144] Setting up pool2
I0503 00:04:52.493599 16015 net.cpp:151] Top shape: 20 64 5 5 (32000)
I0503 00:04:52.493602 16015 net.cpp:159] Memory required for data: 2184240
I0503 00:04:52.493607 16015 layer_factory.hpp:77] Creating layer conv3
I0503 00:04:52.493615 16015 net.cpp:94] Creating Layer conv3
I0503 00:04:52.493619 16015 net.cpp:435] conv3 <- pool2
I0503 00:04:52.493624 16015 net.cpp:409] conv3 -> conv3
I0503 00:04:52.499685 16015 net.cpp:144] Setting up conv3
I0503 00:04:52.499698 16015 net.cpp:151] Top shape: 20 128 5 5 (64000)
I0503 00:04:52.499702 16015 net.cpp:159] Memory required for data: 2440240
I0503 00:04:52.499711 16015 layer_factory.hpp:77] Creating layer relu3
I0503 00:04:52.499718 16015 net.cpp:94] Creating Layer relu3
I0503 00:04:52.499722 16015 net.cpp:435] relu3 <- conv3
I0503 00:04:52.499727 16015 net.cpp:396] relu3 -> conv3 (in-place)
I0503 00:04:52.499733 16015 net.cpp:144] Setting up relu3
I0503 00:04:52.499737 16015 net.cpp:151] Top shape: 20 128 5 5 (64000)
I0503 00:04:52.499740 16015 net.cpp:159] Memory required for data: 2696240
I0503 00:04:52.499744 16015 layer_factory.hpp:77] Creating layer conv4
I0503 00:04:52.499752 16015 net.cpp:94] Creating Layer conv4
I0503 00:04:52.499757 16015 net.cpp:435] conv4 <- conv3
I0503 00:04:52.499763 16015 net.cpp:409] conv4 -> conv4
I0503 00:04:52.512542 16015 net.cpp:144] Setting up conv4
I0503 00:04:52.512570 16015 net.cpp:151] Top shape: 20 128 5 5 (64000)
I0503 00:04:52.512574 16015 net.cpp:159] Memory required for data: 2952240
I0503 00:04:52.512581 16015 layer_factory.hpp:77] Creating layer relu4
I0503 00:04:52.512588 16015 net.cpp:94] Creating Layer relu4
I0503 00:04:52.512593 16015 net.cpp:435] relu4 <- conv4
I0503 00:04:52.512598 16015 net.cpp:396] relu4 -> conv4 (in-place)
I0503 00:04:52.512605 16015 net.cpp:144] Setting up relu4
I0503 00:04:52.512609 16015 net.cpp:151] Top shape: 20 128 5 5 (64000)
I0503 00:04:52.512612 16015 net.cpp:159] Memory required for data: 3208240
I0503 00:04:52.512615 16015 layer_factory.hpp:77] Creating layer conv5
I0503 00:04:52.512625 16015 net.cpp:94] Creating Layer conv5
I0503 00:04:52.512629 16015 net.cpp:435] conv5 <- conv4
I0503 00:04:52.512634 16015 net.cpp:409] conv5 -> conv5
I0503 00:04:52.525333 16015 net.cpp:144] Setting up conv5
I0503 00:04:52.525351 16015 net.cpp:151] Top shape: 20 128 5 5 (64000)
I0503 00:04:52.525360 16015 net.cpp:159] Memory required for data: 3464240
I0503 00:04:52.525370 16015 layer_factory.hpp:77] Creating layer relu5
I0503 00:04:52.525379 16015 net.cpp:94] Creating Layer relu5
I0503 00:04:52.525383 16015 net.cpp:435] relu5 <- conv5
I0503 00:04:52.525388 16015 net.cpp:396] relu5 -> conv5 (in-place)
I0503 00:04:52.525395 16015 net.cpp:144] Setting up relu5
I0503 00:04:52.525400 16015 net.cpp:151] Top shape: 20 128 5 5 (64000)
I0503 00:04:52.525403 16015 net.cpp:159] Memory required for data: 3720240
I0503 00:04:52.525406 16015 layer_factory.hpp:77] Creating layer pool5
I0503 00:04:52.525413 16015 net.cpp:94] Creating Layer pool5
I0503 00:04:52.525416 16015 net.cpp:435] pool5 <- conv5
I0503 00:04:52.525420 16015 net.cpp:409] pool5 -> pool5
I0503 00:04:52.525460 16015 net.cpp:144] Setting up pool5
I0503 00:04:52.525467 16015 net.cpp:151] Top shape: 20 128 2 2 (10240)
I0503 00:04:52.525470 16015 net.cpp:159] Memory required for data: 3761200
I0503 00:04:52.525473 16015 layer_factory.hpp:77] Creating layer ip1
I0503 00:04:52.525481 16015 net.cpp:94] Creating Layer ip1
I0503 00:04:52.525485 16015 net.cpp:435] ip1 <- pool5
I0503 00:04:52.525490 16015 net.cpp:409] ip1 -> ip1
I0503 00:04:52.538836 16015 net.cpp:144] Setting up ip1
I0503 00:04:52.538854 16015 net.cpp:151] Top shape: 20 1024 (20480)
I0503 00:04:52.538858 16015 net.cpp:159] Memory required for data: 3843120
I0503 00:04:52.538866 16015 layer_factory.hpp:77] Creating layer ip2
I0503 00:04:52.538875 16015 net.cpp:94] Creating Layer ip2
I0503 00:04:52.538879 16015 net.cpp:435] ip2 <- ip1
I0503 00:04:52.538884 16015 net.cpp:409] ip2 -> ip2
I0503 00:04:52.552052 16015 net.cpp:144] Setting up ip2
I0503 00:04:52.552070 16015 net.cpp:151] Top shape: 20 512 (10240)
I0503 00:04:52.552073 16015 net.cpp:159] Memory required for data: 3884080
I0503 00:04:52.552080 16015 layer_factory.hpp:77] Creating layer ip3
I0503 00:04:52.552089 16015 net.cpp:94] Creating Layer ip3
I0503 00:04:52.552093 16015 net.cpp:435] ip3 <- ip2
I0503 00:04:52.552099 16015 net.cpp:409] ip3 -> ip3
I0503 00:04:52.552858 16015 net.cpp:144] Setting up ip3
I0503 00:04:52.552867 16015 net.cpp:151] Top shape: 20 50 (1000)
I0503 00:04:52.552870 16015 net.cpp:159] Memory required for data: 3888080
I0503 00:04:52.552886 16015 layer_factory.hpp:77] Creating layer ip3_ip3_0_split
I0503 00:04:52.552893 16015 net.cpp:94] Creating Layer ip3_ip3_0_split
I0503 00:04:52.552896 16015 net.cpp:435] ip3_ip3_0_split <- ip3
I0503 00:04:52.552902 16015 net.cpp:409] ip3_ip3_0_split -> ip3_ip3_0_split_0
I0503 00:04:52.552907 16015 net.cpp:409] ip3_ip3_0_split -> ip3_ip3_0_split_1
I0503 00:04:52.552950 16015 net.cpp:144] Setting up ip3_ip3_0_split
I0503 00:04:52.552958 16015 net.cpp:151] Top shape: 20 50 (1000)
I0503 00:04:52.552960 16015 net.cpp:151] Top shape: 20 50 (1000)
I0503 00:04:52.552963 16015 net.cpp:159] Memory required for data: 3896080
I0503 00:04:52.552966 16015 layer_factory.hpp:77] Creating layer accuracy
I0503 00:04:52.552973 16015 net.cpp:94] Creating Layer accuracy
I0503 00:04:52.552975 16015 net.cpp:435] accuracy <- ip3_ip3_0_split_0
I0503 00:04:52.552979 16015 net.cpp:435] accuracy <- label_intercept_1_split_0
I0503 00:04:52.552985 16015 net.cpp:409] accuracy -> accuracy
…
