…
I0507 00:46:51.030230 30534 net.cpp:323] The NetState phase (0) differed from the phase (1) specified by a rule in layer intercept
I0507 00:46:51.030246 30534 net.cpp:323] The NetState phase (0) differed from the phase (1) specified by a rule in layer loss
I0507 00:46:51.030324 30534 net.cpp:52] Initializing net from parameters: 
state {
  phase: TRAIN
}
layer {
  name: "parameters"
  type: "HDF5Data"
  top: "data"
  top: "label"
  include {
    phase: TRAIN
  }
  hdf5_data_param {
    source: "/home/purduethu/scratch/radon/d/deng106/CNNStatisticalModel/distributions/input/50_distributions_100_sample_size_train-parameters-path.txt"
    batch_size: 20
  }
}
layer {
  name: "conv1"
  type: "Convolution"
  bottom: "data"
  top: "conv1"
  param {
    lr_mult: 1
  }
  param {
    lr_mult: 2
  }
  convolution_param {
    num_output: 64
    pad: 2
    kernel_size: 5
    stride: 1
    weight_filler {
      type: "gaussian"
      std: 0.0001
    }
    bias_filler {
      type: "constant"
    }
  }
}
layer {
  name: "relu1"
  type: "ReLU"
  bottom: "conv1"
  top: "conv1"
}
layer {
  name: "conv2"
  type: "Convolution"
  bottom: "conv1"
  top: "conv2"
  param {
    lr_mult: 1
  }
  param {
    lr_mult: 2
  }
  convolution_param {
    num_output: 64
    pad: 2
    kernel_size: 5
    stride: 1
    weight_filler {
      type: "gaussian"
      std: 0.01
    }
    bias_filler {
      type: "constant"
    }
  }
}
layer {
  name: "relu2"
  type: "ReLU"
  bottom: "conv2"
  top: "conv2"
}
layer {
  name: "pool2"
  type: "Pooling"
  bottom: "conv2"
  top: "pool2"
  pooling_param {
    pool: MAX
    kernel_size: 3
    stride: 2
  }
}
layer {
  name: "conv3"
  type: "Convolution"
  bottom: "pool2"
  top: "conv3"
  param {
    lr_mult: 1
  }
  param {
    lr_mult: 2
  }
  convolution_param {
    num_output: 64
    pad: 2
    kernel_size: 5
    stride: 1
    weight_filler {
      type: "gaussian"
      std: 0.01
    }
    bias_filler {
      type: "constant"
    }
  }
}
layer {
  name: "relu3"
  type: "ReLU"
  bottom: "conv3"
  top: "conv3"
}
layer {
  name: "conv4"
  type: "Convolution"
  bottom: "conv3"
  top: "conv4"
  param {
    lr_mult: 1
  }
  param {
    lr_mult: 2
  }
  convolution_param {
    num_output: 64
    pad: 2
    kernel_size: 5
    stride: 1
    weight_filler {
      type: "gaussian"
      std: 0.01
    }
    bias_filler {
      type: "constant"
    }
  }
}
layer {
  name: "relu4"
  type: "ReLU"
  bottom: "conv4"
  top: "conv4"
}
layer {
  name: "conv5"
  type: "Convolution"
  bottom: "conv4"
  top: "conv5"
  param {
    lr_mult: 1
  }
  param {
    lr_mult: 2
  }
  convolution_param {
    num_output: 64
    pad: 2
    kernel_size: 5
    stride: 1
    weight_filler {
      type: "gaussian"
      std: 0.01
    }
    bias_filler {
      type: "constant"
    }
  }
}
layer {
  name: "relu5"
  type: "ReLU"
  bottom: "conv5"
  top: "conv5"
}
layer {
  name: "pool5"
  type: "Pooling"
  bottom: "conv5"
  top: "pool5"
  pooling_param {
    pool: AVE
    kernel_size: 3
    stride: 2
  }
}
layer {
  name: "ip1"
  type: "InnerProduct"
  bottom: "pool5"
  top: "ip1"
  param {
    lr_mult: 1
  }
  param {
    lr_mult: 2
  }
  inner_product_param {
    num_output: 64
    weight_filler {
      type: "gaussian"
      std: 0.1
    }
    bias_filler {
      type: "constant"
    }
  }
}
layer {
  name: "ip2"
  type: "InnerProduct"
  bottom: "ip1"
  top: "ip2"
  param {
    lr_mult: 1
  }
  param {
    lr_mult: 2
  }
  inner_product_param {
    num_output: 64
    weight_filler {
      type: "gaussian"
      std: 0.1
    }
    bias_filler {
      type: "constant"
    }
  }
}
layer {
  name: "ip3"
  type: "InnerProduct"
  bottom: "ip2"
  top: "ip3"
  param {
    lr_mult: 1
  }
  param {
    lr_mult: 2
  }
  inner_product_param {
    num_output: 1
    weight_filler {
      type: "gaussian"
      std: 0.1
    }
    bias_filler {
      type: "constant"
    }
  }
}
layer {
  name: "loss"
  type: "HuberLoss"
  bottom: "ip3"
  bottom: "label"
  top: "loss"
  include {
    phase: TRAIN
  }
}
I0507 00:46:51.030376 30534 layer_factory.hpp:77] Creating layer parameters
I0507 00:46:51.030393 30534 net.cpp:94] Creating Layer parameters
I0507 00:46:51.030397 30534 net.cpp:409] parameters -> data
I0507 00:46:51.030407 30534 net.cpp:409] parameters -> label
I0507 00:46:51.030414 30534 hdf5_data_layer.cpp:79] Loading list of HDF5 filenames from: /home/purduethu/scratch/radon/d/deng106/CNNStatisticalModel/distributions/input/50_distributions_100_sample_size_train-parameters-path.txt
I0507 00:46:51.030429 30534 hdf5_data_layer.cpp:93] Number of HDF5 files: 1
I0507 00:46:51.030840 30534 hdf5.cpp:32] Datatype class: H5T_FLOAT
I0507 00:46:51.192080 30534 net.cpp:144] Setting up parameters
I0507 00:46:51.192113 30534 net.cpp:151] Top shape: 20 1 10 10 (2000)
I0507 00:46:51.192118 30534 net.cpp:151] Top shape: 20 (20)
I0507 00:46:51.192122 30534 net.cpp:159] Memory required for data: 8080
I0507 00:46:51.192128 30534 layer_factory.hpp:77] Creating layer conv1
I0507 00:46:51.192144 30534 net.cpp:94] Creating Layer conv1
I0507 00:46:51.192149 30534 net.cpp:435] conv1 <- data
I0507 00:46:51.192155 30534 net.cpp:409] conv1 -> conv1
I0507 00:46:51.196408 30534 net.cpp:144] Setting up conv1
I0507 00:46:51.196424 30534 net.cpp:151] Top shape: 20 64 10 10 (128000)
I0507 00:46:51.196429 30534 net.cpp:159] Memory required for data: 520080
I0507 00:46:51.196439 30534 layer_factory.hpp:77] Creating layer relu1
I0507 00:46:51.196446 30534 net.cpp:94] Creating Layer relu1
I0507 00:46:51.196450 30534 net.cpp:435] relu1 <- conv1
I0507 00:46:51.196455 30534 net.cpp:396] relu1 -> conv1 (in-place)
I0507 00:46:51.196462 30534 net.cpp:144] Setting up relu1
I0507 00:46:51.196467 30534 net.cpp:151] Top shape: 20 64 10 10 (128000)
I0507 00:46:51.196470 30534 net.cpp:159] Memory required for data: 1032080
I0507 00:46:51.196475 30534 layer_factory.hpp:77] Creating layer conv2
I0507 00:46:51.196482 30534 net.cpp:94] Creating Layer conv2
I0507 00:46:51.196485 30534 net.cpp:435] conv2 <- conv1
I0507 00:46:51.196491 30534 net.cpp:409] conv2 -> conv2
I0507 00:46:51.202509 30534 net.cpp:144] Setting up conv2
I0507 00:46:51.202524 30534 net.cpp:151] Top shape: 20 64 10 10 (128000)
I0507 00:46:51.202528 30534 net.cpp:159] Memory required for data: 1544080
I0507 00:46:51.202536 30534 layer_factory.hpp:77] Creating layer relu2
I0507 00:46:51.202543 30534 net.cpp:94] Creating Layer relu2
I0507 00:46:51.202546 30534 net.cpp:435] relu2 <- conv2
I0507 00:46:51.202551 30534 net.cpp:396] relu2 -> conv2 (in-place)
I0507 00:46:51.202558 30534 net.cpp:144] Setting up relu2
I0507 00:46:51.202564 30534 net.cpp:151] Top shape: 20 64 10 10 (128000)
I0507 00:46:51.202566 30534 net.cpp:159] Memory required for data: 2056080
I0507 00:46:51.202569 30534 layer_factory.hpp:77] Creating layer pool2
I0507 00:46:51.202575 30534 net.cpp:94] Creating Layer pool2
I0507 00:46:51.202579 30534 net.cpp:435] pool2 <- conv2
I0507 00:46:51.202582 30534 net.cpp:409] pool2 -> pool2
I0507 00:46:51.202639 30534 net.cpp:144] Setting up pool2
I0507 00:46:51.202647 30534 net.cpp:151] Top shape: 20 64 5 5 (32000)
I0507 00:46:51.202651 30534 net.cpp:159] Memory required for data: 2184080
I0507 00:46:51.202653 30534 layer_factory.hpp:77] Creating layer conv3
I0507 00:46:51.202661 30534 net.cpp:94] Creating Layer conv3
I0507 00:46:51.202666 30534 net.cpp:435] conv3 <- pool2
I0507 00:46:51.202677 30534 net.cpp:409] conv3 -> conv3
I0507 00:46:51.207509 30534 net.cpp:144] Setting up conv3
I0507 00:46:51.207523 30534 net.cpp:151] Top shape: 20 64 5 5 (32000)
I0507 00:46:51.207527 30534 net.cpp:159] Memory required for data: 2312080
I0507 00:46:51.207536 30534 layer_factory.hpp:77] Creating layer relu3
I0507 00:46:51.207542 30534 net.cpp:94] Creating Layer relu3
I0507 00:46:51.207545 30534 net.cpp:435] relu3 <- conv3
I0507 00:46:51.207551 30534 net.cpp:396] relu3 -> conv3 (in-place)
I0507 00:46:51.207557 30534 net.cpp:144] Setting up relu3
I0507 00:46:51.207562 30534 net.cpp:151] Top shape: 20 64 5 5 (32000)
I0507 00:46:51.207566 30534 net.cpp:159] Memory required for data: 2440080
I0507 00:46:51.207568 30534 layer_factory.hpp:77] Creating layer conv4
I0507 00:46:51.207576 30534 net.cpp:94] Creating Layer conv4
I0507 00:46:51.207581 30534 net.cpp:435] conv4 <- conv3
I0507 00:46:51.207586 30534 net.cpp:409] conv4 -> conv4
I0507 00:46:51.211956 30534 net.cpp:144] Setting up conv4
I0507 00:46:51.211971 30534 net.cpp:151] Top shape: 20 64 5 5 (32000)
I0507 00:46:51.211973 30534 net.cpp:159] Memory required for data: 2568080
I0507 00:46:51.211980 30534 layer_factory.hpp:77] Creating layer relu4
I0507 00:46:51.211987 30534 net.cpp:94] Creating Layer relu4
I0507 00:46:51.211989 30534 net.cpp:435] relu4 <- conv4
I0507 00:46:51.211994 30534 net.cpp:396] relu4 -> conv4 (in-place)
I0507 00:46:51.212002 30534 net.cpp:144] Setting up relu4
I0507 00:46:51.212005 30534 net.cpp:151] Top shape: 20 64 5 5 (32000)
I0507 00:46:51.212008 30534 net.cpp:159] Memory required for data: 2696080
I0507 00:46:51.212011 30534 layer_factory.hpp:77] Creating layer conv5
I0507 00:46:51.212020 30534 net.cpp:94] Creating Layer conv5
I0507 00:46:51.212023 30534 net.cpp:435] conv5 <- conv4
I0507 00:46:51.212029 30534 net.cpp:409] conv5 -> conv5
I0507 00:46:51.216852 30534 net.cpp:144] Setting up conv5
I0507 00:46:51.216866 30534 net.cpp:151] Top shape: 20 64 5 5 (32000)
I0507 00:46:51.216871 30534 net.cpp:159] Memory required for data: 2824080
I0507 00:46:51.216878 30534 layer_factory.hpp:77] Creating layer relu5
I0507 00:46:51.216884 30534 net.cpp:94] Creating Layer relu5
I0507 00:46:51.216888 30534 net.cpp:435] relu5 <- conv5
I0507 00:46:51.216892 30534 net.cpp:396] relu5 -> conv5 (in-place)
I0507 00:46:51.216899 30534 net.cpp:144] Setting up relu5
I0507 00:46:51.216904 30534 net.cpp:151] Top shape: 20 64 5 5 (32000)
I0507 00:46:51.216907 30534 net.cpp:159] Memory required for data: 2952080
I0507 00:46:51.216910 30534 layer_factory.hpp:77] Creating layer pool5
I0507 00:46:51.216915 30534 net.cpp:94] Creating Layer pool5
I0507 00:46:51.216918 30534 net.cpp:435] pool5 <- conv5
I0507 00:46:51.216922 30534 net.cpp:409] pool5 -> pool5
I0507 00:46:51.216962 30534 net.cpp:144] Setting up pool5
I0507 00:46:51.216969 30534 net.cpp:151] Top shape: 20 64 2 2 (5120)
I0507 00:46:51.216972 30534 net.cpp:159] Memory required for data: 2972560
I0507 00:46:51.216976 30534 layer_factory.hpp:77] Creating layer ip1
I0507 00:46:51.216985 30534 net.cpp:94] Creating Layer ip1
I0507 00:46:51.216989 30534 net.cpp:435] ip1 <- pool5
I0507 00:46:51.216995 30534 net.cpp:409] ip1 -> ip1
I0507 00:46:51.218323 30534 net.cpp:144] Setting up ip1
I0507 00:46:51.218338 30534 net.cpp:151] Top shape: 20 64 (1280)
I0507 00:46:51.218341 30534 net.cpp:159] Memory required for data: 2977680
I0507 00:46:51.218348 30534 layer_factory.hpp:77] Creating layer ip2
I0507 00:46:51.218354 30534 net.cpp:94] Creating Layer ip2
I0507 00:46:51.218358 30534 net.cpp:435] ip2 <- ip1
I0507 00:46:51.218364 30534 net.cpp:409] ip2 -> ip2
I0507 00:46:51.218578 30534 net.cpp:144] Setting up ip2
I0507 00:46:51.218585 30534 net.cpp:151] Top shape: 20 64 (1280)
I0507 00:46:51.218590 30534 net.cpp:159] Memory required for data: 2982800
I0507 00:46:51.218595 30534 layer_factory.hpp:77] Creating layer ip3
I0507 00:46:51.218600 30534 net.cpp:94] Creating Layer ip3
I0507 00:46:51.218605 30534 net.cpp:435] ip3 <- ip2
I0507 00:46:51.218610 30534 net.cpp:409] ip3 -> ip3
I0507 00:46:51.218722 30534 net.cpp:144] Setting up ip3
I0507 00:46:51.218729 30534 net.cpp:151] Top shape: 20 1 (20)
I0507 00:46:51.218732 30534 net.cpp:159] Memory required for data: 2982880
I0507 00:46:51.218737 30534 layer_factory.hpp:77] Creating layer loss
I0507 00:46:51.218749 30534 net.cpp:94] Creating Layer loss
I0507 00:46:51.218752 30534 net.cpp:435] loss <- ip3
I0507 00:46:51.218756 30534 net.cpp:435] loss <- label
I0507 00:46:51.218760 30534 net.cpp:409] loss -> loss
I0507 00:46:51.218813 30534 net.cpp:144] Setting up loss
…
I0507 00:46:51.279716 30534 net.cpp:323] The NetState phase (0) differed from the phase (1) specified by a rule in layer intercept
I0507 00:46:51.279731 30534 net.cpp:323] The NetState phase (0) differed from the phase (1) specified by a rule in layer accuracy
I0507 00:46:51.279819 30534 net.cpp:52] Initializing net from parameters: 
state {
  phase: TRAIN
}
layer {
  name: "parameters"
  type: "HDF5Data"
  top: "data"
  top: "label"
  include {
    phase: TRAIN
  }
  hdf5_data_param {
    source: "/home/purduethu/scratch/radon/d/deng106/CNNStatisticalModel/distributions/input/50_distributions_100_sample_size_train-distributions-path.txt"
    batch_size: 20
  }
}
layer {
  name: "conv1"
  type: "Convolution"
  bottom: "data"
  top: "conv1"
  param {
    lr_mult: 1
  }
  param {
    lr_mult: 2
  }
  convolution_param {
    num_output: 64
    pad: 2
    kernel_size: 5
    stride: 1
    weight_filler {
      type: "gaussian"
      std: 0.0001
    }
    bias_filler {
      type: "constant"
    }
  }
}
layer {
  name: "relu1"
  type: "ReLU"
  bottom: "conv1"
  top: "conv1"
}
layer {
  name: "conv2"
  type: "Convolution"
  bottom: "conv1"
  top: "conv2"
  param {
    lr_mult: 1
  }
  param {
    lr_mult: 2
  }
  convolution_param {
    num_output: 64
    pad: 2
    kernel_size: 5
    stride: 1
    weight_filler {
      type: "gaussian"
      std: 0.01
    }
    bias_filler {
      type: "constant"
    }
  }
}
layer {
  name: "relu2"
  type: "ReLU"
  bottom: "conv2"
  top: "conv2"
}
layer {
  name: "pool2"
  type: "Pooling"
  bottom: "conv2"
  top: "pool2"
  pooling_param {
    pool: MAX
    kernel_size: 3
    stride: 2
  }
}
layer {
  name: "conv3"
  type: "Convolution"
  bottom: "pool2"
  top: "conv3"
  param {
    lr_mult: 1
  }
  param {
    lr_mult: 2
  }
  convolution_param {
    num_output: 64
    pad: 2
    kernel_size: 5
    stride: 1
    weight_filler {
      type: "gaussian"
      std: 0.01
    }
    bias_filler {
      type: "constant"
    }
  }
}
layer {
  name: "relu3"
  type: "ReLU"
  bottom: "conv3"
  top: "conv3"
}
layer {
  name: "conv4"
  type: "Convolution"
  bottom: "conv3"
  top: "conv4"
  param {
    lr_mult: 1
  }
  param {
    lr_mult: 2
  }
  convolution_param {
    num_output: 64
    pad: 2
    kernel_size: 5
    stride: 1
    weight_filler {
      type: "gaussian"
      std: 0.01
    }
    bias_filler {
      type: "constant"
    }
  }
}
layer {
  name: "relu4"
  type: "ReLU"
  bottom: "conv4"
  top: "conv4"
}
layer {
  name: "conv5"
  type: "Convolution"
  bottom: "conv4"
  top: "conv5"
  param {
    lr_mult: 1
  }
  param {
    lr_mult: 2
  }
  convolution_param {
    num_output: 64
    pad: 2
    kernel_size: 5
    stride: 1
    weight_filler {
      type: "gaussian"
      std: 0.01
    }
    bias_filler {
      type: "constant"
    }
  }
}
layer {
  name: "relu5"
  type: "ReLU"
  bottom: "conv5"
  top: "conv5"
}
layer {
  name: "pool5"
  type: "Pooling"
  bottom: "conv5"
  top: "pool5"
  pooling_param {
    pool: AVE
    kernel_size: 3
    stride: 2
  }
}
layer {
  name: "ip1"
  type: "InnerProduct"
  bottom: "pool5"
  top: "ip1"
  param {
    lr_mult: 1
  }
  param {
    lr_mult: 2
  }
  inner_product_param {
    num_output: 64
    weight_filler {
      type: "gaussian"
      std: 0.1
    }
    bias_filler {
      type: "constant"
    }
  }
}
layer {
  name: "ip2"
  type: "InnerProduct"
  bottom: "ip1"
  top: "ip2"
  param {
    lr_mult: 1
  }
  param {
    lr_mult: 2
  }
  inner_product_param {
    num_output: 64
    weight_filler {
      type: "gaussian"
      std: 0.1
    }
    bias_filler {
      type: "constant"
    }
  }
}
layer {
  name: "ip3"
  type: "InnerProduct"
  bottom: "ip2"
  top: "ip3"
  param {
    lr_mult: 1
  }
  param {
    lr_mult: 2
  }
  inner_product_param {
    num_output: 50
    weight_filler {
      type: "gaussian"
      std: 0.1
    }
    bias_filler {
      type: "constant"
    }
  }
}
layer {
  name: "loss"
  type: "SoftmaxWithLoss"
  bottom: "ip3"
  bottom: "label"
  top: "loss"
}
I0507 00:46:51.279870 30534 layer_factory.hpp:77] Creating layer parameters
I0507 00:46:51.279878 30534 net.cpp:94] Creating Layer parameters
I0507 00:46:51.279882 30534 net.cpp:409] parameters -> data
I0507 00:46:51.279888 30534 net.cpp:409] parameters -> label
I0507 00:46:51.279894 30534 hdf5_data_layer.cpp:79] Loading list of HDF5 filenames from: /home/purduethu/scratch/radon/d/deng106/CNNStatisticalModel/distributions/input/50_distributions_100_sample_size_train-distributions-path.txt
I0507 00:46:51.279911 30534 hdf5_data_layer.cpp:93] Number of HDF5 files: 1
I0507 00:46:51.435962 30534 hdf5.cpp:35] Datatype class: H5T_INTEGER
I0507 00:46:51.439013 30534 net.cpp:144] Setting up parameters
I0507 00:46:51.439038 30534 net.cpp:151] Top shape: 20 1 10 10 (2000)
I0507 00:46:51.439043 30534 net.cpp:151] Top shape: 20 (20)
I0507 00:46:51.439046 30534 net.cpp:159] Memory required for data: 8080
I0507 00:46:51.439052 30534 layer_factory.hpp:77] Creating layer conv1
I0507 00:46:51.439069 30534 net.cpp:94] Creating Layer conv1
I0507 00:46:51.439072 30534 net.cpp:435] conv1 <- data
I0507 00:46:51.439079 30534 net.cpp:409] conv1 -> conv1
I0507 00:46:51.440933 30534 net.cpp:144] Setting up conv1
I0507 00:46:51.440948 30534 net.cpp:151] Top shape: 20 64 10 10 (128000)
I0507 00:46:51.440951 30534 net.cpp:159] Memory required for data: 520080
I0507 00:46:51.440961 30534 layer_factory.hpp:77] Creating layer relu1
I0507 00:46:51.440968 30534 net.cpp:94] Creating Layer relu1
I0507 00:46:51.440973 30534 net.cpp:435] relu1 <- conv1
I0507 00:46:51.440978 30534 net.cpp:396] relu1 -> conv1 (in-place)
I0507 00:46:51.440984 30534 net.cpp:144] Setting up relu1
I0507 00:46:51.440989 30534 net.cpp:151] Top shape: 20 64 10 10 (128000)
I0507 00:46:51.440992 30534 net.cpp:159] Memory required for data: 1032080
I0507 00:46:51.440995 30534 layer_factory.hpp:77] Creating layer conv2
I0507 00:46:51.441004 30534 net.cpp:94] Creating Layer conv2
I0507 00:46:51.441006 30534 net.cpp:435] conv2 <- conv1
I0507 00:46:51.441011 30534 net.cpp:409] conv2 -> conv2
I0507 00:46:51.446321 30534 net.cpp:144] Setting up conv2
I0507 00:46:51.446334 30534 net.cpp:151] Top shape: 20 64 10 10 (128000)
I0507 00:46:51.446338 30534 net.cpp:159] Memory required for data: 1544080
I0507 00:46:51.446346 30534 layer_factory.hpp:77] Creating layer relu2
I0507 00:46:51.446352 30534 net.cpp:94] Creating Layer relu2
I0507 00:46:51.446357 30534 net.cpp:435] relu2 <- conv2
I0507 00:46:51.446360 30534 net.cpp:396] relu2 -> conv2 (in-place)
I0507 00:46:51.446368 30534 net.cpp:144] Setting up relu2
I0507 00:46:51.446372 30534 net.cpp:151] Top shape: 20 64 10 10 (128000)
I0507 00:46:51.446377 30534 net.cpp:159] Memory required for data: 2056080
I0507 00:46:51.446379 30534 layer_factory.hpp:77] Creating layer pool2
I0507 00:46:51.446385 30534 net.cpp:94] Creating Layer pool2
I0507 00:46:51.446388 30534 net.cpp:435] pool2 <- conv2
I0507 00:46:51.446393 30534 net.cpp:409] pool2 -> pool2
I0507 00:46:51.446449 30534 net.cpp:144] Setting up pool2
I0507 00:46:51.446456 30534 net.cpp:151] Top shape: 20 64 5 5 (32000)
I0507 00:46:51.446460 30534 net.cpp:159] Memory required for data: 2184080
I0507 00:46:51.446463 30534 layer_factory.hpp:77] Creating layer conv3
I0507 00:46:51.446471 30534 net.cpp:94] Creating Layer conv3
I0507 00:46:51.446475 30534 net.cpp:435] conv3 <- pool2
I0507 00:46:51.446480 30534 net.cpp:409] conv3 -> conv3
I0507 00:46:51.452252 30534 net.cpp:144] Setting up conv3
I0507 00:46:51.452267 30534 net.cpp:151] Top shape: 20 64 5 5 (32000)
I0507 00:46:51.452271 30534 net.cpp:159] Memory required for data: 2312080
I0507 00:46:51.452280 30534 layer_factory.hpp:77] Creating layer relu3
I0507 00:46:51.452286 30534 net.cpp:94] Creating Layer relu3
I0507 00:46:51.452289 30534 net.cpp:435] relu3 <- conv3
I0507 00:46:51.452293 30534 net.cpp:396] relu3 -> conv3 (in-place)
I0507 00:46:51.452301 30534 net.cpp:144] Setting up relu3
I0507 00:46:51.452306 30534 net.cpp:151] Top shape: 20 64 5 5 (32000)
I0507 00:46:51.452316 30534 net.cpp:159] Memory required for data: 2440080
I0507 00:46:51.452319 30534 layer_factory.hpp:77] Creating layer conv4
I0507 00:46:51.452327 30534 net.cpp:94] Creating Layer conv4
I0507 00:46:51.452332 30534 net.cpp:435] conv4 <- conv3
I0507 00:46:51.452337 30534 net.cpp:409] conv4 -> conv4
I0507 00:46:51.457231 30534 net.cpp:144] Setting up conv4
I0507 00:46:51.457245 30534 net.cpp:151] Top shape: 20 64 5 5 (32000)
I0507 00:46:51.457249 30534 net.cpp:159] Memory required for data: 2568080
I0507 00:46:51.457257 30534 layer_factory.hpp:77] Creating layer relu4
I0507 00:46:51.457262 30534 net.cpp:94] Creating Layer relu4
I0507 00:46:51.457265 30534 net.cpp:435] relu4 <- conv4
I0507 00:46:51.457270 30534 net.cpp:396] relu4 -> conv4 (in-place)
I0507 00:46:51.457278 30534 net.cpp:144] Setting up relu4
I0507 00:46:51.457281 30534 net.cpp:151] Top shape: 20 64 5 5 (32000)
I0507 00:46:51.457284 30534 net.cpp:159] Memory required for data: 2696080
I0507 00:46:51.457288 30534 layer_factory.hpp:77] Creating layer conv5
I0507 00:46:51.457295 30534 net.cpp:94] Creating Layer conv5
I0507 00:46:51.457298 30534 net.cpp:435] conv5 <- conv4
I0507 00:46:51.457304 30534 net.cpp:409] conv5 -> conv5
I0507 00:46:51.461733 30534 net.cpp:144] Setting up conv5
I0507 00:46:51.461746 30534 net.cpp:151] Top shape: 20 64 5 5 (32000)
I0507 00:46:51.461751 30534 net.cpp:159] Memory required for data: 2824080
I0507 00:46:51.461760 30534 layer_factory.hpp:77] Creating layer relu5
I0507 00:46:51.461766 30534 net.cpp:94] Creating Layer relu5
I0507 00:46:51.461769 30534 net.cpp:435] relu5 <- conv5
I0507 00:46:51.461773 30534 net.cpp:396] relu5 -> conv5 (in-place)
I0507 00:46:51.461781 30534 net.cpp:144] Setting up relu5
I0507 00:46:51.461786 30534 net.cpp:151] Top shape: 20 64 5 5 (32000)
I0507 00:46:51.461788 30534 net.cpp:159] Memory required for data: 2952080
I0507 00:46:51.461791 30534 layer_factory.hpp:77] Creating layer pool5
I0507 00:46:51.461796 30534 net.cpp:94] Creating Layer pool5
I0507 00:46:51.461799 30534 net.cpp:435] pool5 <- conv5
I0507 00:46:51.461804 30534 net.cpp:409] pool5 -> pool5
I0507 00:46:51.461841 30534 net.cpp:144] Setting up pool5
I0507 00:46:51.461848 30534 net.cpp:151] Top shape: 20 64 2 2 (5120)
I0507 00:46:51.461851 30534 net.cpp:159] Memory required for data: 2972560
I0507 00:46:51.461854 30534 layer_factory.hpp:77] Creating layer ip1
I0507 00:46:51.461861 30534 net.cpp:94] Creating Layer ip1
I0507 00:46:51.461865 30534 net.cpp:435] ip1 <- pool5
I0507 00:46:51.461869 30534 net.cpp:409] ip1 -> ip1
I0507 00:46:51.462389 30534 net.cpp:144] Setting up ip1
I0507 00:46:51.462397 30534 net.cpp:151] Top shape: 20 64 (1280)
I0507 00:46:51.462401 30534 net.cpp:159] Memory required for data: 2977680
I0507 00:46:51.462406 30534 layer_factory.hpp:77] Creating layer ip2
I0507 00:46:51.462412 30534 net.cpp:94] Creating Layer ip2
I0507 00:46:51.462415 30534 net.cpp:435] ip2 <- ip1
I0507 00:46:51.462420 30534 net.cpp:409] ip2 -> ip2
I0507 00:46:51.462646 30534 net.cpp:144] Setting up ip2
I0507 00:46:51.462652 30534 net.cpp:151] Top shape: 20 64 (1280)
I0507 00:46:51.462656 30534 net.cpp:159] Memory required for data: 2982800
I0507 00:46:51.462661 30534 layer_factory.hpp:77] Creating layer ip3
I0507 00:46:51.462667 30534 net.cpp:94] Creating Layer ip3
I0507 00:46:51.462671 30534 net.cpp:435] ip3 <- ip2
I0507 00:46:51.462676 30534 net.cpp:409] ip3 -> ip3
I0507 00:46:51.462873 30534 net.cpp:144] Setting up ip3
I0507 00:46:51.462880 30534 net.cpp:151] Top shape: 20 50 (1000)
I0507 00:46:51.462884 30534 net.cpp:159] Memory required for data: 2986800
I0507 00:46:51.462889 30534 layer_factory.hpp:77] Creating layer loss
I0507 00:46:51.462895 30534 net.cpp:94] Creating Layer loss
I0507 00:46:51.462899 30534 net.cpp:435] loss <- ip3
I0507 00:46:51.462903 30534 net.cpp:435] loss <- label
I0507 00:46:51.462908 30534 net.cpp:409] loss -> loss
I0507 00:46:51.462914 30534 layer_factory.hpp:77] Creating layer loss
…
I0507 00:46:51.464288 30534 solver.cpp:181] Creating test net (#0) specified by net file: ./protocol/dis_50_100_dimension.protocol_distribution
I0507 00:46:51.464315 30534 net.cpp:323] The NetState phase (1) differed from the phase (0) specified by a rule in layer parameters
I0507 00:46:51.464408 30534 net.cpp:52] Initializing net from parameters: 
state {
  phase: TEST
}
layer {
  name: "intercept"
  type: "HDF5Data"
  top: "data"
  top: "label"
  include {
    phase: TEST
  }
  hdf5_data_param {
    source: "/home/purduethu/scratch/radon/d/deng106/CNNStatisticalModel/distributions/input/50_distributions_100_sample_size_test-distributions-path.txt"
    batch_size: 20
  }
}
layer {
  name: "conv1"
  type: "Convolution"
  bottom: "data"
  top: "conv1"
  param {
    lr_mult: 1
  }
  param {
    lr_mult: 2
  }
  convolution_param {
    num_output: 64
    pad: 2
    kernel_size: 5
    stride: 1
    weight_filler {
      type: "gaussian"
      std: 0.0001
    }
    bias_filler {
      type: "constant"
    }
  }
}
layer {
  name: "relu1"
  type: "ReLU"
  bottom: "conv1"
  top: "conv1"
}
layer {
  name: "conv2"
  type: "Convolution"
  bottom: "conv1"
  top: "conv2"
  param {
    lr_mult: 1
  }
  param {
    lr_mult: 2
  }
  convolution_param {
    num_output: 64
    pad: 2
    kernel_size: 5
    stride: 1
    weight_filler {
      type: "gaussian"
      std: 0.01
    }
    bias_filler {
      type: "constant"
    }
  }
}
layer {
  name: "relu2"
  type: "ReLU"
  bottom: "conv2"
  top: "conv2"
}
layer {
  name: "pool2"
  type: "Pooling"
  bottom: "conv2"
  top: "pool2"
  pooling_param {
    pool: MAX
    kernel_size: 3
    stride: 2
  }
}
layer {
  name: "conv3"
  type: "Convolution"
  bottom: "pool2"
  top: "conv3"
  param {
    lr_mult: 1
  }
  param {
    lr_mult: 2
  }
  convolution_param {
    num_output: 64
    pad: 2
    kernel_size: 5
    stride: 1
    weight_filler {
      type: "gaussian"
      std: 0.01
    }
    bias_filler {
      type: "constant"
    }
  }
}
layer {
  name: "relu3"
  type: "ReLU"
  bottom: "conv3"
  top: "conv3"
}
layer {
  name: "conv4"
  type: "Convolution"
  bottom: "conv3"
  top: "conv4"
  param {
    lr_mult: 1
  }
  param {
    lr_mult: 2
  }
  convolution_param {
    num_output: 64
    pad: 2
    kernel_size: 5
    stride: 1
    weight_filler {
      type: "gaussian"
      std: 0.01
    }
    bias_filler {
      type: "constant"
    }
  }
}
layer {
  name: "relu4"
  type: "ReLU"
  bottom: "conv4"
  top: "conv4"
}
layer {
  name: "conv5"
  type: "Convolution"
  bottom: "conv4"
  top: "conv5"
  param {
    lr_mult: 1
  }
  param {
    lr_mult: 2
  }
  convolution_param {
    num_output: 64
    pad: 2
    kernel_size: 5
    stride: 1
    weight_filler {
      type: "gaussian"
      std: 0.01
    }
    bias_filler {
      type: "constant"
    }
  }
}
layer {
  name: "relu5"
  type: "ReLU"
  bottom: "conv5"
  top: "conv5"
}
layer {
  name: "pool5"
  type: "Pooling"
  bottom: "conv5"
  top: "pool5"
  pooling_param {
    pool: AVE
    kernel_size: 3
    stride: 2
  }
}
layer {
  name: "ip1"
  type: "InnerProduct"
  bottom: "pool5"
  top: "ip1"
  param {
    lr_mult: 1
  }
  param {
    lr_mult: 2
  }
  inner_product_param {
    num_output: 64
    weight_filler {
      type: "gaussian"
      std: 0.1
    }
    bias_filler {
      type: "constant"
    }
  }
}
layer {
  name: "ip2"
  type: "InnerProduct"
  bottom: "ip1"
  top: "ip2"
  param {
    lr_mult: 1
  }
  param {
    lr_mult: 2
  }
  inner_product_param {
    num_output: 64
    weight_filler {
      type: "gaussian"
      std: 0.1
    }
    bias_filler {
      type: "constant"
    }
  }
}
layer {
  name: "ip3"
  type: "InnerProduct"
  bottom: "ip2"
  top: "ip3"
  param {
    lr_mult: 1
  }
  param {
    lr_mult: 2
  }
  inner_product_param {
    num_output: 50
    weight_filler {
      type: "gaussian"
      std: 0.1
    }
    bias_filler {
      type: "constant"
    }
  }
}
layer {
  name: "accuracy"
  type: "Accuracy"
  bottom: "ip3"
  bottom: "label"
  top: "accuracy"
  include {
    phase: TEST
  }
}
layer {
  name: "loss"
  type: "SoftmaxWithLoss"
  bottom: "ip3"
  bottom: "label"
  top: "loss"
}
I0507 00:46:51.464474 30534 layer_factory.hpp:77] Creating layer intercept
I0507 00:46:51.464483 30534 net.cpp:94] Creating Layer intercept
I0507 00:46:51.464486 30534 net.cpp:409] intercept -> data
I0507 00:46:51.464493 30534 net.cpp:409] intercept -> label
I0507 00:46:51.464499 30534 hdf5_data_layer.cpp:79] Loading list of HDF5 filenames from: /home/purduethu/scratch/radon/d/deng106/CNNStatisticalModel/distributions/input/50_distributions_100_sample_size_test-distributions-path.txt
I0507 00:46:51.464519 30534 hdf5_data_layer.cpp:93] Number of HDF5 files: 1
I0507 00:46:51.505795 30534 net.cpp:144] Setting up intercept
I0507 00:46:51.505830 30534 net.cpp:151] Top shape: 20 1 10 10 (2000)
I0507 00:46:51.505836 30534 net.cpp:151] Top shape: 20 (20)
I0507 00:46:51.505838 30534 net.cpp:159] Memory required for data: 8080
I0507 00:46:51.505844 30534 layer_factory.hpp:77] Creating layer label_intercept_1_split
I0507 00:46:51.505864 30534 net.cpp:94] Creating Layer label_intercept_1_split
I0507 00:46:51.505869 30534 net.cpp:435] label_intercept_1_split <- label
I0507 00:46:51.505875 30534 net.cpp:409] label_intercept_1_split -> label_intercept_1_split_0
I0507 00:46:51.505884 30534 net.cpp:409] label_intercept_1_split -> label_intercept_1_split_1
I0507 00:46:51.505928 30534 net.cpp:144] Setting up label_intercept_1_split
I0507 00:46:51.505934 30534 net.cpp:151] Top shape: 20 (20)
I0507 00:46:51.505939 30534 net.cpp:151] Top shape: 20 (20)
I0507 00:46:51.505941 30534 net.cpp:159] Memory required for data: 8240
I0507 00:46:51.505945 30534 layer_factory.hpp:77] Creating layer conv1
I0507 00:46:51.505956 30534 net.cpp:94] Creating Layer conv1
I0507 00:46:51.505960 30534 net.cpp:435] conv1 <- data
I0507 00:46:51.505964 30534 net.cpp:409] conv1 -> conv1
I0507 00:46:51.506799 30534 net.cpp:144] Setting up conv1
I0507 00:46:51.506813 30534 net.cpp:151] Top shape: 20 64 10 10 (128000)
I0507 00:46:51.506816 30534 net.cpp:159] Memory required for data: 520240
I0507 00:46:51.506825 30534 layer_factory.hpp:77] Creating layer relu1
I0507 00:46:51.506832 30534 net.cpp:94] Creating Layer relu1
I0507 00:46:51.506835 30534 net.cpp:435] relu1 <- conv1
I0507 00:46:51.506840 30534 net.cpp:396] relu1 -> conv1 (in-place)
I0507 00:46:51.506847 30534 net.cpp:144] Setting up relu1
I0507 00:46:51.506852 30534 net.cpp:151] Top shape: 20 64 10 10 (128000)
I0507 00:46:51.506855 30534 net.cpp:159] Memory required for data: 1032240
I0507 00:46:51.506865 30534 layer_factory.hpp:77] Creating layer conv2
I0507 00:46:51.506873 30534 net.cpp:94] Creating Layer conv2
I0507 00:46:51.506877 30534 net.cpp:435] conv2 <- conv1
I0507 00:46:51.506882 30534 net.cpp:409] conv2 -> conv2
I0507 00:46:51.510957 30534 net.cpp:144] Setting up conv2
I0507 00:46:51.510972 30534 net.cpp:151] Top shape: 20 64 10 10 (128000)
I0507 00:46:51.510975 30534 net.cpp:159] Memory required for data: 1544240
I0507 00:46:51.510983 30534 layer_factory.hpp:77] Creating layer relu2
I0507 00:46:51.510989 30534 net.cpp:94] Creating Layer relu2
I0507 00:46:51.510993 30534 net.cpp:435] relu2 <- conv2
I0507 00:46:51.510998 30534 net.cpp:396] relu2 -> conv2 (in-place)
I0507 00:46:51.511005 30534 net.cpp:144] Setting up relu2
I0507 00:46:51.511010 30534 net.cpp:151] Top shape: 20 64 10 10 (128000)
I0507 00:46:51.511013 30534 net.cpp:159] Memory required for data: 2056240
I0507 00:46:51.511016 30534 layer_factory.hpp:77] Creating layer pool2
I0507 00:46:51.511023 30534 net.cpp:94] Creating Layer pool2
I0507 00:46:51.511026 30534 net.cpp:435] pool2 <- conv2
I0507 00:46:51.511030 30534 net.cpp:409] pool2 -> pool2
I0507 00:46:51.511090 30534 net.cpp:144] Setting up pool2
I0507 00:46:51.511096 30534 net.cpp:151] Top shape: 20 64 5 5 (32000)
I0507 00:46:51.511099 30534 net.cpp:159] Memory required for data: 2184240
I0507 00:46:51.511103 30534 layer_factory.hpp:77] Creating layer conv3
I0507 00:46:51.511112 30534 net.cpp:94] Creating Layer conv3
I0507 00:46:51.511116 30534 net.cpp:435] conv3 <- pool2
I0507 00:46:51.511121 30534 net.cpp:409] conv3 -> conv3
I0507 00:46:51.515504 30534 net.cpp:144] Setting up conv3
I0507 00:46:51.515517 30534 net.cpp:151] Top shape: 20 64 5 5 (32000)
I0507 00:46:51.515522 30534 net.cpp:159] Memory required for data: 2312240
I0507 00:46:51.515529 30534 layer_factory.hpp:77] Creating layer relu3
I0507 00:46:51.515537 30534 net.cpp:94] Creating Layer relu3
I0507 00:46:51.515540 30534 net.cpp:435] relu3 <- conv3
I0507 00:46:51.515545 30534 net.cpp:396] relu3 -> conv3 (in-place)
I0507 00:46:51.515552 30534 net.cpp:144] Setting up relu3
I0507 00:46:51.515557 30534 net.cpp:151] Top shape: 20 64 5 5 (32000)
I0507 00:46:51.515559 30534 net.cpp:159] Memory required for data: 2440240
I0507 00:46:51.515563 30534 layer_factory.hpp:77] Creating layer conv4
I0507 00:46:51.515571 30534 net.cpp:94] Creating Layer conv4
I0507 00:46:51.515575 30534 net.cpp:435] conv4 <- conv3
I0507 00:46:51.515581 30534 net.cpp:409] conv4 -> conv4
I0507 00:46:51.519096 30534 net.cpp:144] Setting up conv4
I0507 00:46:51.519109 30534 net.cpp:151] Top shape: 20 64 5 5 (32000)
I0507 00:46:51.519114 30534 net.cpp:159] Memory required for data: 2568240
I0507 00:46:51.519119 30534 layer_factory.hpp:77] Creating layer relu4
I0507 00:46:51.519125 30534 net.cpp:94] Creating Layer relu4
I0507 00:46:51.519129 30534 net.cpp:435] relu4 <- conv4
I0507 00:46:51.519134 30534 net.cpp:396] relu4 -> conv4 (in-place)
I0507 00:46:51.519140 30534 net.cpp:144] Setting up relu4
I0507 00:46:51.519145 30534 net.cpp:151] Top shape: 20 64 5 5 (32000)
I0507 00:46:51.519147 30534 net.cpp:159] Memory required for data: 2696240
I0507 00:46:51.519150 30534 layer_factory.hpp:77] Creating layer conv5
I0507 00:46:51.519160 30534 net.cpp:94] Creating Layer conv5
I0507 00:46:51.519163 30534 net.cpp:435] conv5 <- conv4
I0507 00:46:51.519168 30534 net.cpp:409] conv5 -> conv5
I0507 00:46:51.523123 30534 net.cpp:144] Setting up conv5
I0507 00:46:51.523135 30534 net.cpp:151] Top shape: 20 64 5 5 (32000)
I0507 00:46:51.523139 30534 net.cpp:159] Memory required for data: 2824240
I0507 00:46:51.523147 30534 layer_factory.hpp:77] Creating layer relu5
I0507 00:46:51.523154 30534 net.cpp:94] Creating Layer relu5
I0507 00:46:51.523159 30534 net.cpp:435] relu5 <- conv5
I0507 00:46:51.523164 30534 net.cpp:396] relu5 -> conv5 (in-place)
I0507 00:46:51.523169 30534 net.cpp:144] Setting up relu5
I0507 00:46:51.523175 30534 net.cpp:151] Top shape: 20 64 5 5 (32000)
I0507 00:46:51.523177 30534 net.cpp:159] Memory required for data: 2952240
I0507 00:46:51.523185 30534 layer_factory.hpp:77] Creating layer pool5
I0507 00:46:51.523191 30534 net.cpp:94] Creating Layer pool5
I0507 00:46:51.523195 30534 net.cpp:435] pool5 <- conv5
I0507 00:46:51.523200 30534 net.cpp:409] pool5 -> pool5
I0507 00:46:51.523239 30534 net.cpp:144] Setting up pool5
I0507 00:46:51.523247 30534 net.cpp:151] Top shape: 20 64 2 2 (5120)
I0507 00:46:51.523249 30534 net.cpp:159] Memory required for data: 2972720
I0507 00:46:51.523252 30534 layer_factory.hpp:77] Creating layer ip1
I0507 00:46:51.523259 30534 net.cpp:94] Creating Layer ip1
I0507 00:46:51.523262 30534 net.cpp:435] ip1 <- pool5
I0507 00:46:51.523268 30534 net.cpp:409] ip1 -> ip1
I0507 00:46:51.523802 30534 net.cpp:144] Setting up ip1
I0507 00:46:51.523809 30534 net.cpp:151] Top shape: 20 64 (1280)
I0507 00:46:51.523813 30534 net.cpp:159] Memory required for data: 2977840
I0507 00:46:51.523818 30534 layer_factory.hpp:77] Creating layer ip2
I0507 00:46:51.523823 30534 net.cpp:94] Creating Layer ip2
I0507 00:46:51.523828 30534 net.cpp:435] ip2 <- ip1
I0507 00:46:51.523831 30534 net.cpp:409] ip2 -> ip2
I0507 00:46:51.524063 30534 net.cpp:144] Setting up ip2
I0507 00:46:51.524071 30534 net.cpp:151] Top shape: 20 64 (1280)
I0507 00:46:51.524075 30534 net.cpp:159] Memory required for data: 2982960
I0507 00:46:51.524080 30534 layer_factory.hpp:77] Creating layer ip3
I0507 00:46:51.524087 30534 net.cpp:94] Creating Layer ip3
I0507 00:46:51.524091 30534 net.cpp:435] ip3 <- ip2
I0507 00:46:51.524096 30534 net.cpp:409] ip3 -> ip3
I0507 00:46:51.524300 30534 net.cpp:144] Setting up ip3
I0507 00:46:51.524308 30534 net.cpp:151] Top shape: 20 50 (1000)
I0507 00:46:51.524312 30534 net.cpp:159] Memory required for data: 2986960
I0507 00:46:51.524317 30534 layer_factory.hpp:77] Creating layer ip3_ip3_0_split
I0507 00:46:51.524322 30534 net.cpp:94] Creating Layer ip3_ip3_0_split
I0507 00:46:51.524325 30534 net.cpp:435] ip3_ip3_0_split <- ip3
I0507 00:46:51.524329 30534 net.cpp:409] ip3_ip3_0_split -> ip3_ip3_0_split_0
I0507 00:46:51.524334 30534 net.cpp:409] ip3_ip3_0_split -> ip3_ip3_0_split_1
I0507 00:46:51.524376 30534 net.cpp:144] Setting up ip3_ip3_0_split
I0507 00:46:51.524382 30534 net.cpp:151] Top shape: 20 50 (1000)
I0507 00:46:51.524386 30534 net.cpp:151] Top shape: 20 50 (1000)
I0507 00:46:51.524389 30534 net.cpp:159] Memory required for data: 2994960
I0507 00:46:51.524391 30534 layer_factory.hpp:77] Creating layer accuracy
I0507 00:46:51.524397 30534 net.cpp:94] Creating Layer accuracy
I0507 00:46:51.524400 30534 net.cpp:435] accuracy <- ip3_ip3_0_split_0
I0507 00:46:51.524405 30534 net.cpp:435] accuracy <- label_intercept_1_split_0
I0507 00:46:51.524408 30534 net.cpp:409] accuracy -> accuracy
…
