…
I0501 19:02:34.518842 14175 net.cpp:323] The NetState phase (0) differed from the phase (1) specified by a rule in layer intercept
I0501 19:02:34.518859 14175 net.cpp:323] The NetState phase (0) differed from the phase (1) specified by a rule in layer loss
I0501 19:02:34.518951 14175 net.cpp:52] Initializing net from parameters: 
state {
  phase: TRAIN
}
layer {
  name: "parameters"
  type: "HDF5Data"
  top: "data"
  top: "label"
  include {
    phase: TRAIN
  }
  hdf5_data_param {
    source: "/home/purduethu/scratch/radon/d/deng106/CNNStatisticalModel/distributions/input/50_distributions_100_sample_size_train-parameters-path.txt"
    batch_size: 20
  }
}
layer {
  name: "conv1"
  type: "Convolution"
  bottom: "data"
  top: "conv1"
  param {
    lr_mult: 1
  }
  param {
    lr_mult: 2
  }
  convolution_param {
    num_output: 64
    pad: 2
    kernel_size: 5
    stride: 1
    weight_filler {
      type: "gaussian"
      std: 0.0001
    }
    bias_filler {
      type: "constant"
    }
  }
}
layer {
  name: "relu1"
  type: "ReLU"
  bottom: "conv1"
  top: "conv1"
}
layer {
  name: "conv2"
  type: "Convolution"
  bottom: "conv1"
  top: "conv2"
  param {
    lr_mult: 1
  }
  param {
    lr_mult: 2
  }
  convolution_param {
    num_output: 64
    pad: 2
    kernel_size: 5
    stride: 1
    weight_filler {
      type: "gaussian"
      std: 0.01
    }
    bias_filler {
      type: "constant"
    }
  }
}
layer {
  name: "relu2"
  type: "ReLU"
  bottom: "conv2"
  top: "conv2"
}
layer {
  name: "pool2"
  type: "Pooling"
  bottom: "conv2"
  top: "pool2"
  pooling_param {
    pool: MAX
    kernel_size: 3
    stride: 2
  }
}
layer {
  name: "conv3"
  type: "Convolution"
  bottom: "pool2"
  top: "conv3"
  param {
    lr_mult: 1
  }
  param {
    lr_mult: 2
  }
  convolution_param {
    num_output: 64
    pad: 2
    kernel_size: 5
    stride: 1
    weight_filler {
      type: "gaussian"
      std: 0.01
    }
    bias_filler {
      type: "constant"
    }
  }
}
layer {
  name: "relu3"
  type: "ReLU"
  bottom: "conv3"
  top: "conv3"
}
layer {
  name: "conv4"
  type: "Convolution"
  bottom: "conv3"
  top: "conv4"
  param {
    lr_mult: 1
  }
  param {
    lr_mult: 2
  }
  convolution_param {
    num_output: 64
    pad: 2
    kernel_size: 5
    stride: 1
    weight_filler {
      type: "gaussian"
      std: 0.01
    }
    bias_filler {
      type: "constant"
    }
  }
}
layer {
  name: "relu4"
  type: "ReLU"
  bottom: "conv4"
  top: "conv4"
}
layer {
  name: "conv5"
  type: "Convolution"
  bottom: "conv4"
  top: "conv5"
  param {
    lr_mult: 1
  }
  param {
    lr_mult: 2
  }
  convolution_param {
    num_output: 64
    pad: 2
    kernel_size: 5
    stride: 1
    weight_filler {
      type: "gaussian"
      std: 0.01
    }
    bias_filler {
      type: "constant"
    }
  }
}
layer {
  name: "relu5"
  type: "ReLU"
  bottom: "conv5"
  top: "conv5"
}
layer {
  name: "pool5"
  type: "Pooling"
  bottom: "conv5"
  top: "pool5"
  pooling_param {
    pool: AVE
    kernel_size: 3
    stride: 2
  }
}
layer {
  name: "ip1"
  type: "InnerProduct"
  bottom: "pool5"
  top: "ip1"
  param {
    lr_mult: 1
  }
  param {
    lr_mult: 2
  }
  inner_product_param {
    num_output: 64
    weight_filler {
      type: "gaussian"
      std: 0.1
    }
    bias_filler {
      type: "constant"
    }
  }
}
layer {
  name: "ip2"
  type: "InnerProduct"
  bottom: "ip1"
  top: "ip2"
  param {
    lr_mult: 1
  }
  param {
    lr_mult: 2
  }
  inner_product_param {
    num_output: 64
    weight_filler {
      type: "gaussian"
      std: 0.1
    }
    bias_filler {
      type: "constant"
    }
  }
}
layer {
  name: "ip3"
  type: "InnerProduct"
  bottom: "ip2"
  top: "ip3"
  param {
    lr_mult: 1
  }
  param {
    lr_mult: 2
  }
  inner_product_param {
    num_output: 1
    weight_filler {
      type: "gaussian"
      std: 0.1
    }
    bias_filler {
      type: "constant"
    }
  }
}
layer {
  name: "loss"
  type: "HuberLoss"
  bottom: "ip3"
  bottom: "label"
  top: "loss"
  include {
    phase: TRAIN
  }
}
I0501 19:02:34.519028 14175 layer_factory.hpp:77] Creating layer parameters
I0501 19:02:34.519043 14175 net.cpp:94] Creating Layer parameters
I0501 19:02:34.519049 14175 net.cpp:409] parameters -> data
I0501 19:02:34.519069 14175 net.cpp:409] parameters -> label
I0501 19:02:34.519083 14175 hdf5_data_layer.cpp:79] Loading list of HDF5 filenames from: /home/purduethu/scratch/radon/d/deng106/CNNStatisticalModel/distributions/input/50_distributions_100_sample_size_train-parameters-path.txt
I0501 19:02:34.519104 14175 hdf5_data_layer.cpp:93] Number of HDF5 files: 1
I0501 19:02:34.519590 14175 hdf5.cpp:32] Datatype class: H5T_FLOAT
I0501 19:02:34.684846 14175 net.cpp:144] Setting up parameters
I0501 19:02:34.684880 14175 net.cpp:151] Top shape: 20 1 10 10 (2000)
I0501 19:02:34.684886 14175 net.cpp:151] Top shape: 20 (20)
I0501 19:02:34.684890 14175 net.cpp:159] Memory required for data: 8080
I0501 19:02:34.684897 14175 layer_factory.hpp:77] Creating layer conv1
I0501 19:02:34.684921 14175 net.cpp:94] Creating Layer conv1
I0501 19:02:34.684928 14175 net.cpp:435] conv1 <- data
I0501 19:02:34.684940 14175 net.cpp:409] conv1 -> conv1
I0501 19:02:34.688891 14175 net.cpp:144] Setting up conv1
I0501 19:02:34.688906 14175 net.cpp:151] Top shape: 20 64 10 10 (128000)
I0501 19:02:34.688910 14175 net.cpp:159] Memory required for data: 520080
I0501 19:02:34.688922 14175 layer_factory.hpp:77] Creating layer relu1
I0501 19:02:34.688930 14175 net.cpp:94] Creating Layer relu1
I0501 19:02:34.688935 14175 net.cpp:435] relu1 <- conv1
I0501 19:02:34.688938 14175 net.cpp:396] relu1 -> conv1 (in-place)
I0501 19:02:34.688954 14175 net.cpp:144] Setting up relu1
I0501 19:02:34.688961 14175 net.cpp:151] Top shape: 20 64 10 10 (128000)
I0501 19:02:34.688963 14175 net.cpp:159] Memory required for data: 1032080
I0501 19:02:34.688966 14175 layer_factory.hpp:77] Creating layer conv2
I0501 19:02:34.688976 14175 net.cpp:94] Creating Layer conv2
I0501 19:02:34.688978 14175 net.cpp:435] conv2 <- conv1
I0501 19:02:34.688983 14175 net.cpp:409] conv2 -> conv2
I0501 19:02:34.694838 14175 net.cpp:144] Setting up conv2
I0501 19:02:34.694851 14175 net.cpp:151] Top shape: 20 64 10 10 (128000)
I0501 19:02:34.694856 14175 net.cpp:159] Memory required for data: 1544080
I0501 19:02:34.694864 14175 layer_factory.hpp:77] Creating layer relu2
I0501 19:02:34.694870 14175 net.cpp:94] Creating Layer relu2
I0501 19:02:34.694875 14175 net.cpp:435] relu2 <- conv2
I0501 19:02:34.694880 14175 net.cpp:396] relu2 -> conv2 (in-place)
I0501 19:02:34.694886 14175 net.cpp:144] Setting up relu2
I0501 19:02:34.694891 14175 net.cpp:151] Top shape: 20 64 10 10 (128000)
I0501 19:02:34.694895 14175 net.cpp:159] Memory required for data: 2056080
I0501 19:02:34.694897 14175 layer_factory.hpp:77] Creating layer pool2
I0501 19:02:34.694905 14175 net.cpp:94] Creating Layer pool2
I0501 19:02:34.694916 14175 net.cpp:435] pool2 <- conv2
I0501 19:02:34.694921 14175 net.cpp:409] pool2 -> pool2
I0501 19:02:34.694964 14175 net.cpp:144] Setting up pool2
I0501 19:02:34.694972 14175 net.cpp:151] Top shape: 20 64 5 5 (32000)
I0501 19:02:34.694975 14175 net.cpp:159] Memory required for data: 2184080
I0501 19:02:34.694978 14175 layer_factory.hpp:77] Creating layer conv3
I0501 19:02:34.694988 14175 net.cpp:94] Creating Layer conv3
I0501 19:02:34.694990 14175 net.cpp:435] conv3 <- pool2
I0501 19:02:34.694995 14175 net.cpp:409] conv3 -> conv3
I0501 19:02:34.699851 14175 net.cpp:144] Setting up conv3
I0501 19:02:34.699865 14175 net.cpp:151] Top shape: 20 64 5 5 (32000)
I0501 19:02:34.699869 14175 net.cpp:159] Memory required for data: 2312080
I0501 19:02:34.699877 14175 layer_factory.hpp:77] Creating layer relu3
I0501 19:02:34.699883 14175 net.cpp:94] Creating Layer relu3
I0501 19:02:34.699887 14175 net.cpp:435] relu3 <- conv3
I0501 19:02:34.699892 14175 net.cpp:396] relu3 -> conv3 (in-place)
I0501 19:02:34.699899 14175 net.cpp:144] Setting up relu3
I0501 19:02:34.699904 14175 net.cpp:151] Top shape: 20 64 5 5 (32000)
I0501 19:02:34.699908 14175 net.cpp:159] Memory required for data: 2440080
I0501 19:02:34.699910 14175 layer_factory.hpp:77] Creating layer conv4
I0501 19:02:34.699919 14175 net.cpp:94] Creating Layer conv4
I0501 19:02:34.699923 14175 net.cpp:435] conv4 <- conv3
I0501 19:02:34.699928 14175 net.cpp:409] conv4 -> conv4
I0501 19:02:34.704344 14175 net.cpp:144] Setting up conv4
I0501 19:02:34.704356 14175 net.cpp:151] Top shape: 20 64 5 5 (32000)
I0501 19:02:34.704360 14175 net.cpp:159] Memory required for data: 2568080
I0501 19:02:34.704366 14175 layer_factory.hpp:77] Creating layer relu4
I0501 19:02:34.704372 14175 net.cpp:94] Creating Layer relu4
I0501 19:02:34.704376 14175 net.cpp:435] relu4 <- conv4
I0501 19:02:34.704381 14175 net.cpp:396] relu4 -> conv4 (in-place)
I0501 19:02:34.704388 14175 net.cpp:144] Setting up relu4
I0501 19:02:34.704392 14175 net.cpp:151] Top shape: 20 64 5 5 (32000)
I0501 19:02:34.704396 14175 net.cpp:159] Memory required for data: 2696080
I0501 19:02:34.704399 14175 layer_factory.hpp:77] Creating layer conv5
I0501 19:02:34.704407 14175 net.cpp:94] Creating Layer conv5
I0501 19:02:34.704411 14175 net.cpp:435] conv5 <- conv4
I0501 19:02:34.704416 14175 net.cpp:409] conv5 -> conv5
I0501 19:02:34.709241 14175 net.cpp:144] Setting up conv5
I0501 19:02:34.709255 14175 net.cpp:151] Top shape: 20 64 5 5 (32000)
I0501 19:02:34.709259 14175 net.cpp:159] Memory required for data: 2824080
I0501 19:02:34.709269 14175 layer_factory.hpp:77] Creating layer relu5
I0501 19:02:34.709275 14175 net.cpp:94] Creating Layer relu5
I0501 19:02:34.709278 14175 net.cpp:435] relu5 <- conv5
I0501 19:02:34.709282 14175 net.cpp:396] relu5 -> conv5 (in-place)
I0501 19:02:34.709290 14175 net.cpp:144] Setting up relu5
I0501 19:02:34.709295 14175 net.cpp:151] Top shape: 20 64 5 5 (32000)
I0501 19:02:34.709297 14175 net.cpp:159] Memory required for data: 2952080
I0501 19:02:34.709300 14175 layer_factory.hpp:77] Creating layer pool5
I0501 19:02:34.709306 14175 net.cpp:94] Creating Layer pool5
I0501 19:02:34.709309 14175 net.cpp:435] pool5 <- conv5
I0501 19:02:34.709313 14175 net.cpp:409] pool5 -> pool5
I0501 19:02:34.709347 14175 net.cpp:144] Setting up pool5
I0501 19:02:34.709354 14175 net.cpp:151] Top shape: 20 64 2 2 (5120)
I0501 19:02:34.709358 14175 net.cpp:159] Memory required for data: 2972560
I0501 19:02:34.709362 14175 layer_factory.hpp:77] Creating layer ip1
I0501 19:02:34.709372 14175 net.cpp:94] Creating Layer ip1
I0501 19:02:34.709375 14175 net.cpp:435] ip1 <- pool5
I0501 19:02:34.709379 14175 net.cpp:409] ip1 -> ip1
I0501 19:02:34.710505 14175 net.cpp:144] Setting up ip1
I0501 19:02:34.710518 14175 net.cpp:151] Top shape: 20 64 (1280)
I0501 19:02:34.710522 14175 net.cpp:159] Memory required for data: 2977680
I0501 19:02:34.710528 14175 layer_factory.hpp:77] Creating layer ip2
I0501 19:02:34.710536 14175 net.cpp:94] Creating Layer ip2
I0501 19:02:34.710539 14175 net.cpp:435] ip2 <- ip1
I0501 19:02:34.710549 14175 net.cpp:409] ip2 -> ip2
I0501 19:02:34.710719 14175 net.cpp:144] Setting up ip2
I0501 19:02:34.710727 14175 net.cpp:151] Top shape: 20 64 (1280)
I0501 19:02:34.710731 14175 net.cpp:159] Memory required for data: 2982800
I0501 19:02:34.710736 14175 layer_factory.hpp:77] Creating layer ip3
I0501 19:02:34.710741 14175 net.cpp:94] Creating Layer ip3
I0501 19:02:34.710744 14175 net.cpp:435] ip3 <- ip2
I0501 19:02:34.710749 14175 net.cpp:409] ip3 -> ip3
I0501 19:02:34.710813 14175 net.cpp:144] Setting up ip3
I0501 19:02:34.710819 14175 net.cpp:151] Top shape: 20 1 (20)
I0501 19:02:34.710827 14175 net.cpp:159] Memory required for data: 2982880
I0501 19:02:34.710832 14175 layer_factory.hpp:77] Creating layer loss
I0501 19:02:34.710839 14175 net.cpp:94] Creating Layer loss
I0501 19:02:34.710844 14175 net.cpp:435] loss <- ip3
I0501 19:02:34.710847 14175 net.cpp:435] loss <- label
I0501 19:02:34.710853 14175 net.cpp:409] loss -> loss
I0501 19:02:34.710888 14175 net.cpp:144] Setting up loss
…
