…
I0503 14:33:15.226300 20957 net.cpp:323] The NetState phase (0) differed from the phase (1) specified by a rule in layer intercept
I0503 14:33:15.226316 20957 net.cpp:323] The NetState phase (0) differed from the phase (1) specified by a rule in layer accuracy
I0503 14:33:15.226408 20957 net.cpp:52] Initializing net from parameters: 
state {
  phase: TRAIN
}
layer {
  name: "parameters"
  type: "HDF5Data"
  top: "data"
  top: "label"
  include {
    phase: TRAIN
  }
  hdf5_data_param {
    source: "/home/purduethu/scratch/radon/d/deng106/CNNStatisticalModel/distributions/input/50_distributions_400_sample_size_train-distributions-path.txt"
    batch_size: 20
  }
}
layer {
  name: "conv1"
  type: "Convolution"
  bottom: "data"
  top: "conv1"
  param {
    lr_mult: 1
  }
  param {
    lr_mult: 2
  }
  convolution_param {
    num_output: 64
    pad: 2
    kernel_size: 5
    stride: 1
    weight_filler {
      type: "gaussian"
      std: 0.0001
    }
    bias_filler {
      type: "constant"
    }
  }
}
layer {
  name: "relu1"
  type: "ReLU"
  bottom: "conv1"
  top: "conv1"
}
layer {
  name: "conv2"
  type: "Convolution"
  bottom: "conv1"
  top: "conv2"
  param {
    lr_mult: 1
  }
  param {
    lr_mult: 2
  }
  convolution_param {
    num_output: 64
    pad: 2
    kernel_size: 5
    stride: 1
    weight_filler {
      type: "gaussian"
      std: 0.01
    }
    bias_filler {
      type: "constant"
    }
  }
}
layer {
  name: "relu2"
  type: "ReLU"
  bottom: "conv2"
  top: "conv2"
}
layer {
  name: "pool2"
  type: "Pooling"
  bottom: "conv2"
  top: "pool2"
  pooling_param {
    pool: MAX
    kernel_size: 3
    stride: 2
  }
}
layer {
  name: "conv3"
  type: "Convolution"
  bottom: "pool2"
  top: "conv3"
  param {
    lr_mult: 1
  }
  param {
    lr_mult: 2
  }
  convolution_param {
    num_output: 128
    pad: 2
    kernel_size: 5
    stride: 1
    weight_filler {
      type: "gaussian"
      std: 0.01
    }
    bias_filler {
      type: "constant"
    }
  }
}
layer {
  name: "relu3"
  type: "ReLU"
  bottom: "conv3"
  top: "conv3"
}
layer {
  name: "conv4"
  type: "Convolution"
  bottom: "conv3"
  top: "conv4"
  param {
    lr_mult: 1
  }
  param {
    lr_mult: 2
  }
  convolution_param {
    num_output: 128
    pad: 2
    kernel_size: 5
    stride: 1
    weight_filler {
      type: "gaussian"
      std: 0.01
    }
    bias_filler {
      type: "constant"
    }
  }
}
layer {
  name: "relu4"
  type: "ReLU"
  bottom: "conv4"
  top: "conv4"
}
layer {
  name: "conv5"
  type: "Convolution"
  bottom: "conv4"
  top: "conv5"
  param {
    lr_mult: 1
  }
  param {
    lr_mult: 2
  }
  convolution_param {
    num_output: 128
    pad: 2
    kernel_size: 5
    stride: 1
    weight_filler {
      type: "gaussian"
      std: 0.01
    }
    bias_filler {
      type: "constant"
    }
  }
}
layer {
  name: "relu5"
  type: "ReLU"
  bottom: "conv5"
  top: "conv5"
}
layer {
  name: "pool5"
  type: "Pooling"
  bottom: "conv5"
  top: "pool5"
  pooling_param {
    pool: AVE
    kernel_size: 3
    stride: 2
  }
}
layer {
  name: "ip1"
  type: "InnerProduct"
  bottom: "pool5"
  top: "ip1"
  param {
    lr_mult: 1
  }
  param {
    lr_mult: 2
  }
  inner_product_param {
    num_output: 1024
    weight_filler {
      type: "gaussian"
      std: 0.1
    }
    bias_filler {
      type: "constant"
    }
  }
}
layer {
  name: "ip2"
  type: "InnerProduct"
  bottom: "ip1"
  top: "ip2"
  param {
    lr_mult: 1
  }
  param {
    lr_mult: 2
  }
  inner_product_param {
    num_output: 512
    weight_filler {
      type: "gaussian"
      std: 0.1
    }
    bias_filler {
      type: "constant"
    }
  }
}
layer {
  name: "ip3"
  type: "InnerProduct"
  bottom: "ip2"
  top: "ip3"
  param {
    lr_mult: 1
  }
  param {
    lr_mult: 2
  }
  inner_product_param {
    num_output: 50
    weight_filler {
      type: "gaussian"
      std: 0.1
    }
    bias_filler {
      type: "constant"
    }
  }
}
layer {
  name: "loss"
  type: "SoftmaxWithLoss"
  bottom: "ip3"
  bottom: "label"
  top: "loss"
}
I0503 14:33:15.226483 20957 layer_factory.hpp:77] Creating layer parameters
I0503 14:33:15.226497 20957 net.cpp:94] Creating Layer parameters
I0503 14:33:15.226503 20957 net.cpp:409] parameters -> data
I0503 14:33:15.226523 20957 net.cpp:409] parameters -> label
I0503 14:33:15.226534 20957 hdf5_data_layer.cpp:79] Loading list of HDF5 filenames from: /home/purduethu/scratch/radon/d/deng106/CNNStatisticalModel/distributions/input/50_distributions_400_sample_size_train-distributions-path.txt
I0503 14:33:15.226557 20957 hdf5_data_layer.cpp:93] Number of HDF5 files: 1
I0503 14:33:15.227023 20957 hdf5.cpp:32] Datatype class: H5T_FLOAT
I0503 14:33:15.866927 20957 hdf5.cpp:35] Datatype class: H5T_INTEGER
I0503 14:33:15.869709 20957 net.cpp:144] Setting up parameters
I0503 14:33:15.869730 20957 net.cpp:151] Top shape: 20 1 20 20 (8000)
I0503 14:33:15.869736 20957 net.cpp:151] Top shape: 20 (20)
I0503 14:33:15.869740 20957 net.cpp:159] Memory required for data: 32080
I0503 14:33:15.869747 20957 layer_factory.hpp:77] Creating layer conv1
I0503 14:33:15.869771 20957 net.cpp:94] Creating Layer conv1
I0503 14:33:15.869777 20957 net.cpp:435] conv1 <- data
I0503 14:33:15.869789 20957 net.cpp:409] conv1 -> conv1
I0503 14:33:15.874505 20957 net.cpp:144] Setting up conv1
I0503 14:33:15.874521 20957 net.cpp:151] Top shape: 20 64 20 20 (512000)
I0503 14:33:15.874524 20957 net.cpp:159] Memory required for data: 2080080
I0503 14:33:15.874537 20957 layer_factory.hpp:77] Creating layer relu1
I0503 14:33:15.874546 20957 net.cpp:94] Creating Layer relu1
I0503 14:33:15.874549 20957 net.cpp:435] relu1 <- conv1
I0503 14:33:15.874554 20957 net.cpp:396] relu1 -> conv1 (in-place)
I0503 14:33:15.874569 20957 net.cpp:144] Setting up relu1
I0503 14:33:15.874575 20957 net.cpp:151] Top shape: 20 64 20 20 (512000)
I0503 14:33:15.874578 20957 net.cpp:159] Memory required for data: 4128080
I0503 14:33:15.874581 20957 layer_factory.hpp:77] Creating layer conv2
I0503 14:33:15.874589 20957 net.cpp:94] Creating Layer conv2
I0503 14:33:15.874593 20957 net.cpp:435] conv2 <- conv1
I0503 14:33:15.874598 20957 net.cpp:409] conv2 -> conv2
I0503 14:33:15.885033 20957 net.cpp:144] Setting up conv2
I0503 14:33:15.885048 20957 net.cpp:151] Top shape: 20 64 20 20 (512000)
I0503 14:33:15.885052 20957 net.cpp:159] Memory required for data: 6176080
I0503 14:33:15.885061 20957 layer_factory.hpp:77] Creating layer relu2
I0503 14:33:15.885067 20957 net.cpp:94] Creating Layer relu2
I0503 14:33:15.885071 20957 net.cpp:435] relu2 <- conv2
I0503 14:33:15.885076 20957 net.cpp:396] relu2 -> conv2 (in-place)
I0503 14:33:15.885084 20957 net.cpp:144] Setting up relu2
I0503 14:33:15.885089 20957 net.cpp:151] Top shape: 20 64 20 20 (512000)
I0503 14:33:15.885092 20957 net.cpp:159] Memory required for data: 8224080
I0503 14:33:15.885095 20957 layer_factory.hpp:77] Creating layer pool2
I0503 14:33:15.885109 20957 net.cpp:94] Creating Layer pool2
I0503 14:33:15.885113 20957 net.cpp:435] pool2 <- conv2
I0503 14:33:15.885118 20957 net.cpp:409] pool2 -> pool2
I0503 14:33:15.885161 20957 net.cpp:144] Setting up pool2
I0503 14:33:15.885169 20957 net.cpp:151] Top shape: 20 64 10 10 (128000)
I0503 14:33:15.885172 20957 net.cpp:159] Memory required for data: 8736080
I0503 14:33:15.885175 20957 layer_factory.hpp:77] Creating layer conv3
I0503 14:33:15.885184 20957 net.cpp:94] Creating Layer conv3
I0503 14:33:15.885187 20957 net.cpp:435] conv3 <- pool2
I0503 14:33:15.885200 20957 net.cpp:409] conv3 -> conv3
I0503 14:33:15.894263 20957 net.cpp:144] Setting up conv3
I0503 14:33:15.894278 20957 net.cpp:151] Top shape: 20 128 10 10 (256000)
I0503 14:33:15.894281 20957 net.cpp:159] Memory required for data: 9760080
I0503 14:33:15.894289 20957 layer_factory.hpp:77] Creating layer relu3
I0503 14:33:15.894295 20957 net.cpp:94] Creating Layer relu3
I0503 14:33:15.894299 20957 net.cpp:435] relu3 <- conv3
I0503 14:33:15.894304 20957 net.cpp:396] relu3 -> conv3 (in-place)
I0503 14:33:15.894312 20957 net.cpp:144] Setting up relu3
I0503 14:33:15.894317 20957 net.cpp:151] Top shape: 20 128 10 10 (256000)
I0503 14:33:15.894320 20957 net.cpp:159] Memory required for data: 10784080
I0503 14:33:15.894323 20957 layer_factory.hpp:77] Creating layer conv4
I0503 14:33:15.894331 20957 net.cpp:94] Creating Layer conv4
I0503 14:33:15.894335 20957 net.cpp:435] conv4 <- conv3
I0503 14:33:15.894340 20957 net.cpp:409] conv4 -> conv4
I0503 14:33:15.911641 20957 net.cpp:144] Setting up conv4
I0503 14:33:15.911666 20957 net.cpp:151] Top shape: 20 128 10 10 (256000)
I0503 14:33:15.911674 20957 net.cpp:159] Memory required for data: 11808080
I0503 14:33:15.911685 20957 layer_factory.hpp:77] Creating layer relu4
I0503 14:33:15.911696 20957 net.cpp:94] Creating Layer relu4
I0503 14:33:15.911703 20957 net.cpp:435] relu4 <- conv4
I0503 14:33:15.911712 20957 net.cpp:396] relu4 -> conv4 (in-place)
I0503 14:33:15.911725 20957 net.cpp:144] Setting up relu4
I0503 14:33:15.911734 20957 net.cpp:151] Top shape: 20 128 10 10 (256000)
I0503 14:33:15.911741 20957 net.cpp:159] Memory required for data: 12832080
I0503 14:33:15.911746 20957 layer_factory.hpp:77] Creating layer conv5
I0503 14:33:15.911759 20957 net.cpp:94] Creating Layer conv5
I0503 14:33:15.911767 20957 net.cpp:435] conv5 <- conv4
I0503 14:33:15.911777 20957 net.cpp:409] conv5 -> conv5
I0503 14:33:15.928653 20957 net.cpp:144] Setting up conv5
I0503 14:33:15.928669 20957 net.cpp:151] Top shape: 20 128 10 10 (256000)
I0503 14:33:15.928673 20957 net.cpp:159] Memory required for data: 13856080
I0503 14:33:15.928681 20957 layer_factory.hpp:77] Creating layer relu5
I0503 14:33:15.928689 20957 net.cpp:94] Creating Layer relu5
I0503 14:33:15.928692 20957 net.cpp:435] relu5 <- conv5
I0503 14:33:15.928697 20957 net.cpp:396] relu5 -> conv5 (in-place)
I0503 14:33:15.928704 20957 net.cpp:144] Setting up relu5
I0503 14:33:15.928709 20957 net.cpp:151] Top shape: 20 128 10 10 (256000)
I0503 14:33:15.928712 20957 net.cpp:159] Memory required for data: 14880080
I0503 14:33:15.928715 20957 layer_factory.hpp:77] Creating layer pool5
I0503 14:33:15.928720 20957 net.cpp:94] Creating Layer pool5
I0503 14:33:15.928725 20957 net.cpp:435] pool5 <- conv5
I0503 14:33:15.928728 20957 net.cpp:409] pool5 -> pool5
I0503 14:33:15.928763 20957 net.cpp:144] Setting up pool5
I0503 14:33:15.928771 20957 net.cpp:151] Top shape: 20 128 5 5 (64000)
I0503 14:33:15.928774 20957 net.cpp:159] Memory required for data: 15136080
I0503 14:33:15.928777 20957 layer_factory.hpp:77] Creating layer ip1
I0503 14:33:15.928787 20957 net.cpp:94] Creating Layer ip1
I0503 14:33:15.928791 20957 net.cpp:435] ip1 <- pool5
I0503 14:33:15.928797 20957 net.cpp:409] ip1 -> ip1
I0503 14:33:16.007551 20957 net.cpp:144] Setting up ip1
I0503 14:33:16.007581 20957 net.cpp:151] Top shape: 20 1024 (20480)
I0503 14:33:16.007586 20957 net.cpp:159] Memory required for data: 15218000
I0503 14:33:16.007592 20957 layer_factory.hpp:77] Creating layer ip2
I0503 14:33:16.007609 20957 net.cpp:94] Creating Layer ip2
I0503 14:33:16.007616 20957 net.cpp:435] ip2 <- ip1
I0503 14:33:16.007622 20957 net.cpp:409] ip2 -> ip2
I0503 14:33:16.020539 20957 net.cpp:144] Setting up ip2
I0503 14:33:16.020555 20957 net.cpp:151] Top shape: 20 512 (10240)
I0503 14:33:16.020570 20957 net.cpp:159] Memory required for data: 15258960
I0503 14:33:16.020576 20957 layer_factory.hpp:77] Creating layer ip3
I0503 14:33:16.020582 20957 net.cpp:94] Creating Layer ip3
I0503 14:33:16.020587 20957 net.cpp:435] ip3 <- ip2
I0503 14:33:16.020592 20957 net.cpp:409] ip3 -> ip3
I0503 14:33:16.021914 20957 net.cpp:144] Setting up ip3
I0503 14:33:16.021927 20957 net.cpp:151] Top shape: 20 50 (1000)
I0503 14:33:16.021930 20957 net.cpp:159] Memory required for data: 15262960
I0503 14:33:16.021936 20957 layer_factory.hpp:77] Creating layer loss
I0503 14:33:16.021944 20957 net.cpp:94] Creating Layer loss
I0503 14:33:16.021948 20957 net.cpp:435] loss <- ip3
I0503 14:33:16.021952 20957 net.cpp:435] loss <- label
I0503 14:33:16.021958 20957 net.cpp:409] loss -> loss
I0503 14:33:16.021970 20957 layer_factory.hpp:77] Creating layer loss
…
I0503 14:33:16.022464 20957 solver.cpp:181] Creating test net (#0) specified by net file: ./protocol/dis_50_400_dimension.protocol_distribution
I0503 14:33:16.022491 20957 net.cpp:323] The NetState phase (1) differed from the phase (0) specified by a rule in layer parameters
I0503 14:33:16.022584 20957 net.cpp:52] Initializing net from parameters: 
state {
  phase: TEST
}
layer {
  name: "intercept"
  type: "HDF5Data"
  top: "data"
  top: "label"
  include {
    phase: TEST
  }
  hdf5_data_param {
    source: "/home/purduethu/scratch/radon/d/deng106/CNNStatisticalModel/distributions/input/50_distributions_400_sample_size_test-distributions-path.txt"
    batch_size: 20
  }
}
layer {
  name: "conv1"
  type: "Convolution"
  bottom: "data"
  top: "conv1"
  param {
    lr_mult: 1
  }
  param {
    lr_mult: 2
  }
  convolution_param {
    num_output: 64
    pad: 2
    kernel_size: 5
    stride: 1
    weight_filler {
      type: "gaussian"
      std: 0.0001
    }
    bias_filler {
      type: "constant"
    }
  }
}
layer {
  name: "relu1"
  type: "ReLU"
  bottom: "conv1"
  top: "conv1"
}
layer {
  name: "conv2"
  type: "Convolution"
  bottom: "conv1"
  top: "conv2"
  param {
    lr_mult: 1
  }
  param {
    lr_mult: 2
  }
  convolution_param {
    num_output: 64
    pad: 2
    kernel_size: 5
    stride: 1
    weight_filler {
      type: "gaussian"
      std: 0.01
    }
    bias_filler {
      type: "constant"
    }
  }
}
layer {
  name: "relu2"
  type: "ReLU"
  bottom: "conv2"
  top: "conv2"
}
layer {
  name: "pool2"
  type: "Pooling"
  bottom: "conv2"
  top: "pool2"
  pooling_param {
    pool: MAX
    kernel_size: 3
    stride: 2
  }
}
layer {
  name: "conv3"
  type: "Convolution"
  bottom: "pool2"
  top: "conv3"
  param {
    lr_mult: 1
  }
  param {
    lr_mult: 2
  }
  convolution_param {
    num_output: 128
    pad: 2
    kernel_size: 5
    stride: 1
    weight_filler {
      type: "gaussian"
      std: 0.01
    }
    bias_filler {
      type: "constant"
    }
  }
}
layer {
  name: "relu3"
  type: "ReLU"
  bottom: "conv3"
  top: "conv3"
}
layer {
  name: "conv4"
  type: "Convolution"
  bottom: "conv3"
  top: "conv4"
  param {
    lr_mult: 1
  }
  param {
    lr_mult: 2
  }
  convolution_param {
    num_output: 128
    pad: 2
    kernel_size: 5
    stride: 1
    weight_filler {
      type: "gaussian"
      std: 0.01
    }
    bias_filler {
      type: "constant"
    }
  }
}
layer {
  name: "relu4"
  type: "ReLU"
  bottom: "conv4"
  top: "conv4"
}
layer {
  name: "conv5"
  type: "Convolution"
  bottom: "conv4"
  top: "conv5"
  param {
    lr_mult: 1
  }
  param {
    lr_mult: 2
  }
  convolution_param {
    num_output: 128
    pad: 2
    kernel_size: 5
    stride: 1
    weight_filler {
      type: "gaussian"
      std: 0.01
    }
    bias_filler {
      type: "constant"
    }
  }
}
layer {
  name: "relu5"
  type: "ReLU"
  bottom: "conv5"
  top: "conv5"
}
layer {
  name: "pool5"
  type: "Pooling"
  bottom: "conv5"
  top: "pool5"
  pooling_param {
    pool: AVE
    kernel_size: 3
    stride: 2
  }
}
layer {
  name: "ip1"
  type: "InnerProduct"
  bottom: "pool5"
  top: "ip1"
  param {
    lr_mult: 1
  }
  param {
    lr_mult: 2
  }
  inner_product_param {
    num_output: 1024
    weight_filler {
      type: "gaussian"
      std: 0.1
    }
    bias_filler {
      type: "constant"
    }
  }
}
layer {
  name: "ip2"
  type: "InnerProduct"
  bottom: "ip1"
  top: "ip2"
  param {
    lr_mult: 1
  }
  param {
    lr_mult: 2
  }
  inner_product_param {
    num_output: 512
    weight_filler {
      type: "gaussian"
      std: 0.1
    }
    bias_filler {
      type: "constant"
    }
  }
}
layer {
  name: "ip3"
  type: "InnerProduct"
  bottom: "ip2"
  top: "ip3"
  param {
    lr_mult: 1
  }
  param {
    lr_mult: 2
  }
  inner_product_param {
    num_output: 50
    weight_filler {
      type: "gaussian"
      std: 0.1
    }
    bias_filler {
      type: "constant"
    }
  }
}
layer {
  name: "accuracy"
  type: "Accuracy"
  bottom: "ip3"
  bottom: "label"
  top: "accuracy"
  include {
    phase: TEST
  }
}
layer {
  name: "loss"
  type: "SoftmaxWithLoss"
  bottom: "ip3"
  bottom: "label"
  top: "loss"
}
I0503 14:33:16.022655 20957 layer_factory.hpp:77] Creating layer intercept
I0503 14:33:16.022665 20957 net.cpp:94] Creating Layer intercept
I0503 14:33:16.022668 20957 net.cpp:409] intercept -> data
I0503 14:33:16.022675 20957 net.cpp:409] intercept -> label
I0503 14:33:16.022682 20957 hdf5_data_layer.cpp:79] Loading list of HDF5 filenames from: /home/purduethu/scratch/radon/d/deng106/CNNStatisticalModel/distributions/input/50_distributions_400_sample_size_test-distributions-path.txt
I0503 14:33:16.022701 20957 hdf5_data_layer.cpp:93] Number of HDF5 files: 1
I0503 14:33:16.181949 20957 net.cpp:144] Setting up intercept
I0503 14:33:16.181983 20957 net.cpp:151] Top shape: 20 1 20 20 (8000)
I0503 14:33:16.181989 20957 net.cpp:151] Top shape: 20 (20)
I0503 14:33:16.181993 20957 net.cpp:159] Memory required for data: 32080
I0503 14:33:16.181998 20957 layer_factory.hpp:77] Creating layer label_intercept_1_split
I0503 14:33:16.182018 20957 net.cpp:94] Creating Layer label_intercept_1_split
I0503 14:33:16.182024 20957 net.cpp:435] label_intercept_1_split <- label
I0503 14:33:16.182029 20957 net.cpp:409] label_intercept_1_split -> label_intercept_1_split_0
I0503 14:33:16.182039 20957 net.cpp:409] label_intercept_1_split -> label_intercept_1_split_1
I0503 14:33:16.182075 20957 net.cpp:144] Setting up label_intercept_1_split
I0503 14:33:16.182080 20957 net.cpp:151] Top shape: 20 (20)
I0503 14:33:16.182085 20957 net.cpp:151] Top shape: 20 (20)
I0503 14:33:16.182087 20957 net.cpp:159] Memory required for data: 32240
I0503 14:33:16.182091 20957 layer_factory.hpp:77] Creating layer conv1
I0503 14:33:16.182101 20957 net.cpp:94] Creating Layer conv1
I0503 14:33:16.182106 20957 net.cpp:435] conv1 <- data
I0503 14:33:16.182111 20957 net.cpp:409] conv1 -> conv1
I0503 14:33:16.182768 20957 net.cpp:144] Setting up conv1
I0503 14:33:16.182782 20957 net.cpp:151] Top shape: 20 64 20 20 (512000)
I0503 14:33:16.182786 20957 net.cpp:159] Memory required for data: 2080240
I0503 14:33:16.182796 20957 layer_factory.hpp:77] Creating layer relu1
I0503 14:33:16.182802 20957 net.cpp:94] Creating Layer relu1
I0503 14:33:16.182806 20957 net.cpp:435] relu1 <- conv1
I0503 14:33:16.182811 20957 net.cpp:396] relu1 -> conv1 (in-place)
I0503 14:33:16.182819 20957 net.cpp:144] Setting up relu1
I0503 14:33:16.182823 20957 net.cpp:151] Top shape: 20 64 20 20 (512000)
I0503 14:33:16.182827 20957 net.cpp:159] Memory required for data: 4128240
I0503 14:33:16.182831 20957 layer_factory.hpp:77] Creating layer conv2
I0503 14:33:16.182838 20957 net.cpp:94] Creating Layer conv2
I0503 14:33:16.182842 20957 net.cpp:435] conv2 <- conv1
I0503 14:33:16.182848 20957 net.cpp:409] conv2 -> conv2
I0503 14:33:16.187721 20957 net.cpp:144] Setting up conv2
I0503 14:33:16.187734 20957 net.cpp:151] Top shape: 20 64 20 20 (512000)
I0503 14:33:16.187738 20957 net.cpp:159] Memory required for data: 6176240
I0503 14:33:16.187746 20957 layer_factory.hpp:77] Creating layer relu2
I0503 14:33:16.187752 20957 net.cpp:94] Creating Layer relu2
I0503 14:33:16.187757 20957 net.cpp:435] relu2 <- conv2
I0503 14:33:16.187760 20957 net.cpp:396] relu2 -> conv2 (in-place)
I0503 14:33:16.187767 20957 net.cpp:144] Setting up relu2
I0503 14:33:16.187772 20957 net.cpp:151] Top shape: 20 64 20 20 (512000)
I0503 14:33:16.187775 20957 net.cpp:159] Memory required for data: 8224240
I0503 14:33:16.187778 20957 layer_factory.hpp:77] Creating layer pool2
I0503 14:33:16.187785 20957 net.cpp:94] Creating Layer pool2
I0503 14:33:16.187788 20957 net.cpp:435] pool2 <- conv2
I0503 14:33:16.187793 20957 net.cpp:409] pool2 -> pool2
I0503 14:33:16.187825 20957 net.cpp:144] Setting up pool2
I0503 14:33:16.187832 20957 net.cpp:151] Top shape: 20 64 10 10 (128000)
I0503 14:33:16.187835 20957 net.cpp:159] Memory required for data: 8736240
I0503 14:33:16.187839 20957 layer_factory.hpp:77] Creating layer conv3
I0503 14:33:16.187847 20957 net.cpp:94] Creating Layer conv3
I0503 14:33:16.187850 20957 net.cpp:435] conv3 <- pool2
I0503 14:33:16.187856 20957 net.cpp:409] conv3 -> conv3
I0503 14:33:16.194792 20957 net.cpp:144] Setting up conv3
I0503 14:33:16.194808 20957 net.cpp:151] Top shape: 20 128 10 10 (256000)
I0503 14:33:16.194811 20957 net.cpp:159] Memory required for data: 9760240
I0503 14:33:16.194819 20957 layer_factory.hpp:77] Creating layer relu3
I0503 14:33:16.194826 20957 net.cpp:94] Creating Layer relu3
I0503 14:33:16.194830 20957 net.cpp:435] relu3 <- conv3
I0503 14:33:16.194835 20957 net.cpp:396] relu3 -> conv3 (in-place)
I0503 14:33:16.194842 20957 net.cpp:144] Setting up relu3
I0503 14:33:16.194847 20957 net.cpp:151] Top shape: 20 128 10 10 (256000)
I0503 14:33:16.194850 20957 net.cpp:159] Memory required for data: 10784240
I0503 14:33:16.194854 20957 layer_factory.hpp:77] Creating layer conv4
I0503 14:33:16.194861 20957 net.cpp:94] Creating Layer conv4
I0503 14:33:16.194865 20957 net.cpp:435] conv4 <- conv3
I0503 14:33:16.194870 20957 net.cpp:409] conv4 -> conv4
I0503 14:33:16.208112 20957 net.cpp:144] Setting up conv4
I0503 14:33:16.208127 20957 net.cpp:151] Top shape: 20 128 10 10 (256000)
I0503 14:33:16.208132 20957 net.cpp:159] Memory required for data: 11808240
I0503 14:33:16.208137 20957 layer_factory.hpp:77] Creating layer relu4
I0503 14:33:16.208143 20957 net.cpp:94] Creating Layer relu4
I0503 14:33:16.208151 20957 net.cpp:435] relu4 <- conv4
I0503 14:33:16.208156 20957 net.cpp:396] relu4 -> conv4 (in-place)
I0503 14:33:16.208164 20957 net.cpp:144] Setting up relu4
I0503 14:33:16.208169 20957 net.cpp:151] Top shape: 20 128 10 10 (256000)
I0503 14:33:16.208173 20957 net.cpp:159] Memory required for data: 12832240
I0503 14:33:16.208175 20957 layer_factory.hpp:77] Creating layer conv5
I0503 14:33:16.208184 20957 net.cpp:94] Creating Layer conv5
I0503 14:33:16.208187 20957 net.cpp:435] conv5 <- conv4
I0503 14:33:16.208192 20957 net.cpp:409] conv5 -> conv5
I0503 14:33:16.221072 20957 net.cpp:144] Setting up conv5
I0503 14:33:16.221087 20957 net.cpp:151] Top shape: 20 128 10 10 (256000)
I0503 14:33:16.221092 20957 net.cpp:159] Memory required for data: 13856240
I0503 14:33:16.221101 20957 layer_factory.hpp:77] Creating layer relu5
I0503 14:33:16.221107 20957 net.cpp:94] Creating Layer relu5
I0503 14:33:16.221110 20957 net.cpp:435] relu5 <- conv5
I0503 14:33:16.221115 20957 net.cpp:396] relu5 -> conv5 (in-place)
I0503 14:33:16.221122 20957 net.cpp:144] Setting up relu5
I0503 14:33:16.221127 20957 net.cpp:151] Top shape: 20 128 10 10 (256000)
I0503 14:33:16.221130 20957 net.cpp:159] Memory required for data: 14880240
I0503 14:33:16.221133 20957 layer_factory.hpp:77] Creating layer pool5
I0503 14:33:16.221138 20957 net.cpp:94] Creating Layer pool5
I0503 14:33:16.221143 20957 net.cpp:435] pool5 <- conv5
I0503 14:33:16.221146 20957 net.cpp:409] pool5 -> pool5
I0503 14:33:16.221173 20957 net.cpp:144] Setting up pool5
I0503 14:33:16.221179 20957 net.cpp:151] Top shape: 20 128 5 5 (64000)
I0503 14:33:16.221182 20957 net.cpp:159] Memory required for data: 15136240
I0503 14:33:16.221185 20957 layer_factory.hpp:77] Creating layer ip1
I0503 14:33:16.221192 20957 net.cpp:94] Creating Layer ip1
I0503 14:33:16.221195 20957 net.cpp:435] ip1 <- pool5
I0503 14:33:16.221200 20957 net.cpp:409] ip1 -> ip1
I0503 14:33:16.299994 20957 net.cpp:144] Setting up ip1
I0503 14:33:16.300024 20957 net.cpp:151] Top shape: 20 1024 (20480)
I0503 14:33:16.300027 20957 net.cpp:159] Memory required for data: 15218160
I0503 14:33:16.300035 20957 layer_factory.hpp:77] Creating layer ip2
I0503 14:33:16.300045 20957 net.cpp:94] Creating Layer ip2
I0503 14:33:16.300050 20957 net.cpp:435] ip2 <- ip1
I0503 14:33:16.300055 20957 net.cpp:409] ip2 -> ip2
I0503 14:33:16.313016 20957 net.cpp:144] Setting up ip2
I0503 14:33:16.313030 20957 net.cpp:151] Top shape: 20 512 (10240)
I0503 14:33:16.313035 20957 net.cpp:159] Memory required for data: 15259120
I0503 14:33:16.313040 20957 layer_factory.hpp:77] Creating layer ip3
I0503 14:33:16.313050 20957 net.cpp:94] Creating Layer ip3
I0503 14:33:16.313053 20957 net.cpp:435] ip3 <- ip2
I0503 14:33:16.313060 20957 net.cpp:409] ip3 -> ip3
I0503 14:33:16.313738 20957 net.cpp:144] Setting up ip3
I0503 14:33:16.313745 20957 net.cpp:151] Top shape: 20 50 (1000)
I0503 14:33:16.313748 20957 net.cpp:159] Memory required for data: 15263120
I0503 14:33:16.313753 20957 layer_factory.hpp:77] Creating layer ip3_ip3_0_split
I0503 14:33:16.313760 20957 net.cpp:94] Creating Layer ip3_ip3_0_split
I0503 14:33:16.313763 20957 net.cpp:435] ip3_ip3_0_split <- ip3
I0503 14:33:16.313767 20957 net.cpp:409] ip3_ip3_0_split -> ip3_ip3_0_split_0
I0503 14:33:16.313774 20957 net.cpp:409] ip3_ip3_0_split -> ip3_ip3_0_split_1
I0503 14:33:16.313802 20957 net.cpp:144] Setting up ip3_ip3_0_split
I0503 14:33:16.313807 20957 net.cpp:151] Top shape: 20 50 (1000)
I0503 14:33:16.313810 20957 net.cpp:151] Top shape: 20 50 (1000)
I0503 14:33:16.313813 20957 net.cpp:159] Memory required for data: 15271120
I0503 14:33:16.313817 20957 layer_factory.hpp:77] Creating layer accuracy
I0503 14:33:16.313828 20957 net.cpp:94] Creating Layer accuracy
I0503 14:33:16.313832 20957 net.cpp:435] accuracy <- ip3_ip3_0_split_0
I0503 14:33:16.313837 20957 net.cpp:435] accuracy <- label_intercept_1_split_0
I0503 14:33:16.313841 20957 net.cpp:409] accuracy -> accuracy
…
