…
I0503 08:40:30.115435 19636 net.cpp:323] The NetState phase (0) differed from the phase (1) specified by a rule in layer intercept
I0503 08:40:30.115453 19636 net.cpp:323] The NetState phase (0) differed from the phase (1) specified by a rule in layer loss
I0503 08:40:30.115542 19636 net.cpp:52] Initializing net from parameters: 
state {
  phase: TRAIN
}
layer {
  name: "parameters"
  type: "HDF5Data"
  top: "data"
  top: "label"
  include {
    phase: TRAIN
  }
  hdf5_data_param {
    source: "/home/purduethu/scratch/radon/d/deng106/CNNStatisticalModel/distributions/input/20_distributions_400_sample_size_train-parameters-path.txt"
    batch_size: 20
  }
}
layer {
  name: "conv1"
  type: "Convolution"
  bottom: "data"
  top: "conv1"
  param {
    lr_mult: 1
  }
  param {
    lr_mult: 2
  }
  convolution_param {
    num_output: 64
    pad: 2
    kernel_size: 5
    stride: 1
    weight_filler {
      type: "gaussian"
      std: 0.0001
    }
    bias_filler {
      type: "constant"
    }
  }
}
layer {
  name: "relu1"
  type: "ReLU"
  bottom: "conv1"
  top: "conv1"
}
layer {
  name: "conv2"
  type: "Convolution"
  bottom: "conv1"
  top: "conv2"
  param {
    lr_mult: 1
  }
  param {
    lr_mult: 2
  }
  convolution_param {
    num_output: 64
    pad: 2
    kernel_size: 5
    stride: 1
    weight_filler {
      type: "gaussian"
      std: 0.01
    }
    bias_filler {
      type: "constant"
    }
  }
}
layer {
  name: "relu2"
  type: "ReLU"
  bottom: "conv2"
  top: "conv2"
}
layer {
  name: "pool2"
  type: "Pooling"
  bottom: "conv2"
  top: "pool2"
  pooling_param {
    pool: MAX
    kernel_size: 3
    stride: 2
  }
}
layer {
  name: "conv3"
  type: "Convolution"
  bottom: "pool2"
  top: "conv3"
  param {
    lr_mult: 1
  }
  param {
    lr_mult: 2
  }
  convolution_param {
    num_output: 128
    pad: 2
    kernel_size: 5
    stride: 1
    weight_filler {
      type: "gaussian"
      std: 0.01
    }
    bias_filler {
      type: "constant"
    }
  }
}
layer {
  name: "relu3"
  type: "ReLU"
  bottom: "conv3"
  top: "conv3"
}
layer {
  name: "conv4"
  type: "Convolution"
  bottom: "conv3"
  top: "conv4"
  param {
    lr_mult: 1
  }
  param {
    lr_mult: 2
  }
  convolution_param {
    num_output: 128
    pad: 2
    kernel_size: 5
    stride: 1
    weight_filler {
      type: "gaussian"
      std: 0.01
    }
    bias_filler {
      type: "constant"
    }
  }
}
layer {
  name: "relu4"
  type: "ReLU"
  bottom: "conv4"
  top: "conv4"
}
layer {
  name: "conv5"
  type: "Convolution"
  bottom: "conv4"
  top: "conv5"
  param {
    lr_mult: 1
  }
  param {
    lr_mult: 2
  }
  convolution_param {
    num_output: 128
    pad: 2
    kernel_size: 5
    stride: 1
    weight_filler {
      type: "gaussian"
      std: 0.01
    }
    bias_filler {
      type: "constant"
    }
  }
}
layer {
  name: "relu5"
  type: "ReLU"
  bottom: "conv5"
  top: "conv5"
}
layer {
  name: "pool5"
  type: "Pooling"
  bottom: "conv5"
  top: "pool5"
  pooling_param {
    pool: AVE
    kernel_size: 3
    stride: 2
  }
}
layer {
  name: "ip1"
  type: "InnerProduct"
  bottom: "pool5"
  top: "ip1"
  param {
    lr_mult: 1
  }
  param {
    lr_mult: 2
  }
  inner_product_param {
    num_output: 1024
    weight_filler {
      type: "gaussian"
      std: 0.1
    }
    bias_filler {
      type: "constant"
    }
  }
}
layer {
  name: "ip2"
  type: "InnerProduct"
  bottom: "ip1"
  top: "ip2"
  param {
    lr_mult: 1
  }
  param {
    lr_mult: 2
  }
  inner_product_param {
    num_output: 512
    weight_filler {
      type: "gaussian"
      std: 0.1
    }
    bias_filler {
      type: "constant"
    }
  }
}
layer {
  name: "ip3"
  type: "InnerProduct"
  bottom: "ip2"
  top: "ip3"
  param {
    lr_mult: 1
  }
  param {
    lr_mult: 2
  }
  inner_product_param {
    num_output: 1
    weight_filler {
      type: "gaussian"
      std: 0.1
    }
    bias_filler {
      type: "constant"
    }
  }
}
layer {
  name: "loss"
  type: "HuberLoss"
  bottom: "ip3"
  bottom: "label"
  top: "loss"
  include {
    phase: TRAIN
  }
}
I0503 08:40:30.115617 19636 layer_factory.hpp:77] Creating layer parameters
I0503 08:40:30.115631 19636 net.cpp:94] Creating Layer parameters
I0503 08:40:30.115638 19636 net.cpp:409] parameters -> data
I0503 08:40:30.115656 19636 net.cpp:409] parameters -> label
I0503 08:40:30.115667 19636 hdf5_data_layer.cpp:79] Loading list of HDF5 filenames from: /home/purduethu/scratch/radon/d/deng106/CNNStatisticalModel/distributions/input/20_distributions_400_sample_size_train-parameters-path.txt
I0503 08:40:30.115689 19636 hdf5_data_layer.cpp:93] Number of HDF5 files: 1
I0503 08:40:30.116264 19636 hdf5.cpp:32] Datatype class: H5T_FLOAT
I0503 08:40:30.382083 19636 net.cpp:144] Setting up parameters
I0503 08:40:30.382119 19636 net.cpp:151] Top shape: 20 1 20 20 (8000)
I0503 08:40:30.382127 19636 net.cpp:151] Top shape: 20 (20)
I0503 08:40:30.382129 19636 net.cpp:159] Memory required for data: 32080
I0503 08:40:30.382138 19636 layer_factory.hpp:77] Creating layer conv1
I0503 08:40:30.382158 19636 net.cpp:94] Creating Layer conv1
I0503 08:40:30.382163 19636 net.cpp:435] conv1 <- data
I0503 08:40:30.382174 19636 net.cpp:409] conv1 -> conv1
I0503 08:40:30.387068 19636 net.cpp:144] Setting up conv1
I0503 08:40:30.387082 19636 net.cpp:151] Top shape: 20 64 20 20 (512000)
I0503 08:40:30.387086 19636 net.cpp:159] Memory required for data: 2080080
I0503 08:40:30.387099 19636 layer_factory.hpp:77] Creating layer relu1
I0503 08:40:30.387106 19636 net.cpp:94] Creating Layer relu1
I0503 08:40:30.387110 19636 net.cpp:435] relu1 <- conv1
I0503 08:40:30.387115 19636 net.cpp:396] relu1 -> conv1 (in-place)
I0503 08:40:30.387133 19636 net.cpp:144] Setting up relu1
I0503 08:40:30.387140 19636 net.cpp:151] Top shape: 20 64 20 20 (512000)
I0503 08:40:30.387142 19636 net.cpp:159] Memory required for data: 4128080
I0503 08:40:30.387145 19636 layer_factory.hpp:77] Creating layer conv2
I0503 08:40:30.387153 19636 net.cpp:94] Creating Layer conv2
I0503 08:40:30.387157 19636 net.cpp:435] conv2 <- conv1
I0503 08:40:30.387162 19636 net.cpp:409] conv2 -> conv2
I0503 08:40:30.397411 19636 net.cpp:144] Setting up conv2
I0503 08:40:30.397428 19636 net.cpp:151] Top shape: 20 64 20 20 (512000)
I0503 08:40:30.397431 19636 net.cpp:159] Memory required for data: 6176080
I0503 08:40:30.397439 19636 layer_factory.hpp:77] Creating layer relu2
I0503 08:40:30.397446 19636 net.cpp:94] Creating Layer relu2
I0503 08:40:30.397450 19636 net.cpp:435] relu2 <- conv2
I0503 08:40:30.397455 19636 net.cpp:396] relu2 -> conv2 (in-place)
I0503 08:40:30.397462 19636 net.cpp:144] Setting up relu2
I0503 08:40:30.397467 19636 net.cpp:151] Top shape: 20 64 20 20 (512000)
I0503 08:40:30.397470 19636 net.cpp:159] Memory required for data: 8224080
I0503 08:40:30.397474 19636 layer_factory.hpp:77] Creating layer pool2
I0503 08:40:30.397481 19636 net.cpp:94] Creating Layer pool2
I0503 08:40:30.397491 19636 net.cpp:435] pool2 <- conv2
I0503 08:40:30.397496 19636 net.cpp:409] pool2 -> pool2
I0503 08:40:30.397541 19636 net.cpp:144] Setting up pool2
I0503 08:40:30.397549 19636 net.cpp:151] Top shape: 20 64 10 10 (128000)
I0503 08:40:30.397553 19636 net.cpp:159] Memory required for data: 8736080
I0503 08:40:30.397557 19636 layer_factory.hpp:77] Creating layer conv3
I0503 08:40:30.397564 19636 net.cpp:94] Creating Layer conv3
I0503 08:40:30.397568 19636 net.cpp:435] conv3 <- pool2
I0503 08:40:30.397573 19636 net.cpp:409] conv3 -> conv3
I0503 08:40:30.407353 19636 net.cpp:144] Setting up conv3
I0503 08:40:30.407369 19636 net.cpp:151] Top shape: 20 128 10 10 (256000)
I0503 08:40:30.407374 19636 net.cpp:159] Memory required for data: 9760080
I0503 08:40:30.407382 19636 layer_factory.hpp:77] Creating layer relu3
I0503 08:40:30.407388 19636 net.cpp:94] Creating Layer relu3
I0503 08:40:30.407392 19636 net.cpp:435] relu3 <- conv3
I0503 08:40:30.407397 19636 net.cpp:396] relu3 -> conv3 (in-place)
I0503 08:40:30.407405 19636 net.cpp:144] Setting up relu3
I0503 08:40:30.407409 19636 net.cpp:151] Top shape: 20 128 10 10 (256000)
I0503 08:40:30.407413 19636 net.cpp:159] Memory required for data: 10784080
I0503 08:40:30.407416 19636 layer_factory.hpp:77] Creating layer conv4
I0503 08:40:30.407425 19636 net.cpp:94] Creating Layer conv4
I0503 08:40:30.407428 19636 net.cpp:435] conv4 <- conv3
I0503 08:40:30.407433 19636 net.cpp:409] conv4 -> conv4
I0503 08:40:30.425441 19636 net.cpp:144] Setting up conv4
I0503 08:40:30.425457 19636 net.cpp:151] Top shape: 20 128 10 10 (256000)
I0503 08:40:30.425462 19636 net.cpp:159] Memory required for data: 11808080
I0503 08:40:30.425467 19636 layer_factory.hpp:77] Creating layer relu4
I0503 08:40:30.425473 19636 net.cpp:94] Creating Layer relu4
I0503 08:40:30.425477 19636 net.cpp:435] relu4 <- conv4
I0503 08:40:30.425482 19636 net.cpp:396] relu4 -> conv4 (in-place)
I0503 08:40:30.425489 19636 net.cpp:144] Setting up relu4
I0503 08:40:30.425494 19636 net.cpp:151] Top shape: 20 128 10 10 (256000)
I0503 08:40:30.425498 19636 net.cpp:159] Memory required for data: 12832080
I0503 08:40:30.425500 19636 layer_factory.hpp:77] Creating layer conv5
I0503 08:40:30.425509 19636 net.cpp:94] Creating Layer conv5
I0503 08:40:30.425513 19636 net.cpp:435] conv5 <- conv4
I0503 08:40:30.425518 19636 net.cpp:409] conv5 -> conv5
I0503 08:40:30.443033 19636 net.cpp:144] Setting up conv5
I0503 08:40:30.443053 19636 net.cpp:151] Top shape: 20 128 10 10 (256000)
I0503 08:40:30.443059 19636 net.cpp:159] Memory required for data: 13856080
I0503 08:40:30.443073 19636 layer_factory.hpp:77] Creating layer relu5
I0503 08:40:30.443083 19636 net.cpp:94] Creating Layer relu5
I0503 08:40:30.443089 19636 net.cpp:435] relu5 <- conv5
I0503 08:40:30.443096 19636 net.cpp:396] relu5 -> conv5 (in-place)
I0503 08:40:30.443107 19636 net.cpp:144] Setting up relu5
I0503 08:40:30.443114 19636 net.cpp:151] Top shape: 20 128 10 10 (256000)
I0503 08:40:30.443120 19636 net.cpp:159] Memory required for data: 14880080
I0503 08:40:30.443125 19636 layer_factory.hpp:77] Creating layer pool5
I0503 08:40:30.443133 19636 net.cpp:94] Creating Layer pool5
I0503 08:40:30.443140 19636 net.cpp:435] pool5 <- conv5
I0503 08:40:30.443146 19636 net.cpp:409] pool5 -> pool5
I0503 08:40:30.443189 19636 net.cpp:144] Setting up pool5
I0503 08:40:30.443200 19636 net.cpp:151] Top shape: 20 128 5 5 (64000)
I0503 08:40:30.443205 19636 net.cpp:159] Memory required for data: 15136080
I0503 08:40:30.443212 19636 layer_factory.hpp:77] Creating layer ip1
I0503 08:40:30.443220 19636 net.cpp:94] Creating Layer ip1
I0503 08:40:30.443226 19636 net.cpp:435] ip1 <- pool5
I0503 08:40:30.443233 19636 net.cpp:409] ip1 -> ip1
I0503 08:40:30.524696 19636 net.cpp:144] Setting up ip1
I0503 08:40:30.524729 19636 net.cpp:151] Top shape: 20 1024 (20480)
I0503 08:40:30.524734 19636 net.cpp:159] Memory required for data: 15218000
I0503 08:40:30.524740 19636 layer_factory.hpp:77] Creating layer ip2
I0503 08:40:30.524749 19636 net.cpp:94] Creating Layer ip2
I0503 08:40:30.524760 19636 net.cpp:435] ip2 <- ip1
I0503 08:40:30.524767 19636 net.cpp:409] ip2 -> ip2
I0503 08:40:30.537566 19636 net.cpp:144] Setting up ip2
I0503 08:40:30.537580 19636 net.cpp:151] Top shape: 20 512 (10240)
I0503 08:40:30.537585 19636 net.cpp:159] Memory required for data: 15258960
I0503 08:40:30.537590 19636 layer_factory.hpp:77] Creating layer ip3
I0503 08:40:30.537596 19636 net.cpp:94] Creating Layer ip3
I0503 08:40:30.537600 19636 net.cpp:435] ip3 <- ip2
I0503 08:40:30.537606 19636 net.cpp:409] ip3 -> ip3
I0503 08:40:30.537680 19636 net.cpp:144] Setting up ip3
I0503 08:40:30.537695 19636 net.cpp:151] Top shape: 20 1 (20)
I0503 08:40:30.537699 19636 net.cpp:159] Memory required for data: 15259040
I0503 08:40:30.537704 19636 layer_factory.hpp:77] Creating layer loss
I0503 08:40:30.537717 19636 net.cpp:94] Creating Layer loss
I0503 08:40:30.537721 19636 net.cpp:435] loss <- ip3
I0503 08:40:30.537724 19636 net.cpp:435] loss <- label
I0503 08:40:30.537731 19636 net.cpp:409] loss -> loss
I0503 08:40:30.537768 19636 net.cpp:144] Setting up loss
…
