…
I0507 05:07:01.010625 31475 net.cpp:323] The NetState phase (0) differed from the phase (1) specified by a rule in layer intercept
I0507 05:07:01.010641 31475 net.cpp:323] The NetState phase (0) differed from the phase (1) specified by a rule in layer loss
I0507 05:07:01.010720 31475 net.cpp:52] Initializing net from parameters: 
state {
  phase: TRAIN
}
layer {
  name: "parameters"
  type: "HDF5Data"
  top: "data"
  top: "label"
  include {
    phase: TRAIN
  }
  hdf5_data_param {
    source: "/home/purduethu/scratch/radon/d/deng106/CNNStatisticalModel/distributions/input/50_distributions_100_sample_size_train-parameters-path.txt"
    batch_size: 20
  }
}
layer {
  name: "conv1"
  type: "Convolution"
  bottom: "data"
  top: "conv1"
  param {
    lr_mult: 1
  }
  param {
    lr_mult: 2
  }
  convolution_param {
    num_output: 64
    pad: 2
    kernel_size: 5
    stride: 1
    weight_filler {
      type: "gaussian"
      std: 0.0001
    }
    bias_filler {
      type: "constant"
    }
  }
}
layer {
  name: "relu1"
  type: "ReLU"
  bottom: "conv1"
  top: "conv1"
}
layer {
  name: "conv2"
  type: "Convolution"
  bottom: "conv1"
  top: "conv2"
  param {
    lr_mult: 1
  }
  param {
    lr_mult: 2
  }
  convolution_param {
    num_output: 64
    pad: 2
    kernel_size: 5
    stride: 1
    weight_filler {
      type: "gaussian"
      std: 0.01
    }
    bias_filler {
      type: "constant"
    }
  }
}
layer {
  name: "relu2"
  type: "ReLU"
  bottom: "conv2"
  top: "conv2"
}
layer {
  name: "pool2"
  type: "Pooling"
  bottom: "conv2"
  top: "pool2"
  pooling_param {
    pool: MAX
    kernel_size: 3
    stride: 2
  }
}
layer {
  name: "conv3"
  type: "Convolution"
  bottom: "pool2"
  top: "conv3"
  param {
    lr_mult: 1
  }
  param {
    lr_mult: 2
  }
  convolution_param {
    num_output: 64
    pad: 2
    kernel_size: 5
    stride: 1
    weight_filler {
      type: "gaussian"
      std: 0.01
    }
    bias_filler {
      type: "constant"
    }
  }
}
layer {
  name: "relu3"
  type: "ReLU"
  bottom: "conv3"
  top: "conv3"
}
layer {
  name: "conv4"
  type: "Convolution"
  bottom: "conv3"
  top: "conv4"
  param {
    lr_mult: 1
  }
  param {
    lr_mult: 2
  }
  convolution_param {
    num_output: 64
    pad: 2
    kernel_size: 5
    stride: 1
    weight_filler {
      type: "gaussian"
      std: 0.01
    }
    bias_filler {
      type: "constant"
    }
  }
}
layer {
  name: "relu4"
  type: "ReLU"
  bottom: "conv4"
  top: "conv4"
}
layer {
  name: "conv5"
  type: "Convolution"
  bottom: "conv4"
  top: "conv5"
  param {
    lr_mult: 1
  }
  param {
    lr_mult: 2
  }
  convolution_param {
    num_output: 64
    pad: 2
    kernel_size: 5
    stride: 1
    weight_filler {
      type: "gaussian"
      std: 0.01
    }
    bias_filler {
      type: "constant"
    }
  }
}
layer {
  name: "relu5"
  type: "ReLU"
  bottom: "conv5"
  top: "conv5"
}
layer {
  name: "pool5"
  type: "Pooling"
  bottom: "conv5"
  top: "pool5"
  pooling_param {
    pool: AVE
    kernel_size: 3
    stride: 2
  }
}
layer {
  name: "ip1"
  type: "InnerProduct"
  bottom: "pool5"
  top: "ip1"
  param {
    lr_mult: 1
  }
  param {
    lr_mult: 2
  }
  inner_product_param {
    num_output: 64
    weight_filler {
      type: "gaussian"
      std: 0.1
    }
    bias_filler {
      type: "constant"
    }
  }
}
layer {
  name: "ip2"
  type: "InnerProduct"
  bottom: "ip1"
  top: "ip2"
  param {
    lr_mult: 1
  }
  param {
    lr_mult: 2
  }
  inner_product_param {
    num_output: 64
    weight_filler {
      type: "gaussian"
      std: 0.1
    }
    bias_filler {
      type: "constant"
    }
  }
}
layer {
  name: "ip3"
  type: "InnerProduct"
  bottom: "ip2"
  top: "ip3"
  param {
    lr_mult: 1
  }
  param {
    lr_mult: 2
  }
  inner_product_param {
    num_output: 1
    weight_filler {
      type: "gaussian"
      std: 0.1
    }
    bias_filler {
      type: "constant"
    }
  }
}
layer {
  name: "loss"
  type: "HuberLoss"
  bottom: "ip3"
  bottom: "label"
  top: "loss"
  include {
    phase: TRAIN
  }
}
I0507 05:07:01.010771 31475 layer_factory.hpp:77] Creating layer parameters
I0507 05:07:01.010788 31475 net.cpp:94] Creating Layer parameters
I0507 05:07:01.010793 31475 net.cpp:409] parameters -> data
I0507 05:07:01.010802 31475 net.cpp:409] parameters -> label
I0507 05:07:01.010808 31475 hdf5_data_layer.cpp:79] Loading list of HDF5 filenames from: /home/purduethu/scratch/radon/d/deng106/CNNStatisticalModel/distributions/input/50_distributions_100_sample_size_train-parameters-path.txt
I0507 05:07:01.010823 31475 hdf5_data_layer.cpp:93] Number of HDF5 files: 1
I0507 05:07:01.011260 31475 hdf5.cpp:32] Datatype class: H5T_FLOAT
I0507 05:07:01.171640 31475 net.cpp:144] Setting up parameters
I0507 05:07:01.171674 31475 net.cpp:151] Top shape: 20 1 10 10 (2000)
I0507 05:07:01.171680 31475 net.cpp:151] Top shape: 20 (20)
I0507 05:07:01.171684 31475 net.cpp:159] Memory required for data: 8080
I0507 05:07:01.171690 31475 layer_factory.hpp:77] Creating layer conv1
I0507 05:07:01.171712 31475 net.cpp:94] Creating Layer conv1
I0507 05:07:01.171716 31475 net.cpp:435] conv1 <- data
I0507 05:07:01.171723 31475 net.cpp:409] conv1 -> conv1
I0507 05:07:01.175932 31475 net.cpp:144] Setting up conv1
I0507 05:07:01.175950 31475 net.cpp:151] Top shape: 20 64 10 10 (128000)
I0507 05:07:01.175953 31475 net.cpp:159] Memory required for data: 520080
I0507 05:07:01.175964 31475 layer_factory.hpp:77] Creating layer relu1
I0507 05:07:01.175973 31475 net.cpp:94] Creating Layer relu1
I0507 05:07:01.175976 31475 net.cpp:435] relu1 <- conv1
I0507 05:07:01.175981 31475 net.cpp:396] relu1 -> conv1 (in-place)
I0507 05:07:01.175992 31475 net.cpp:144] Setting up relu1
I0507 05:07:01.175997 31475 net.cpp:151] Top shape: 20 64 10 10 (128000)
I0507 05:07:01.176000 31475 net.cpp:159] Memory required for data: 1032080
I0507 05:07:01.176003 31475 layer_factory.hpp:77] Creating layer conv2
I0507 05:07:01.176012 31475 net.cpp:94] Creating Layer conv2
I0507 05:07:01.176014 31475 net.cpp:435] conv2 <- conv1
I0507 05:07:01.176019 31475 net.cpp:409] conv2 -> conv2
I0507 05:07:01.182032 31475 net.cpp:144] Setting up conv2
I0507 05:07:01.182046 31475 net.cpp:151] Top shape: 20 64 10 10 (128000)
I0507 05:07:01.182050 31475 net.cpp:159] Memory required for data: 1544080
I0507 05:07:01.182059 31475 layer_factory.hpp:77] Creating layer relu2
I0507 05:07:01.182065 31475 net.cpp:94] Creating Layer relu2
I0507 05:07:01.182068 31475 net.cpp:435] relu2 <- conv2
I0507 05:07:01.182073 31475 net.cpp:396] relu2 -> conv2 (in-place)
I0507 05:07:01.182080 31475 net.cpp:144] Setting up relu2
I0507 05:07:01.182085 31475 net.cpp:151] Top shape: 20 64 10 10 (128000)
I0507 05:07:01.182087 31475 net.cpp:159] Memory required for data: 2056080
I0507 05:07:01.182090 31475 layer_factory.hpp:77] Creating layer pool2
I0507 05:07:01.182096 31475 net.cpp:94] Creating Layer pool2
I0507 05:07:01.182099 31475 net.cpp:435] pool2 <- conv2
I0507 05:07:01.182104 31475 net.cpp:409] pool2 -> pool2
I0507 05:07:01.182159 31475 net.cpp:144] Setting up pool2
I0507 05:07:01.182166 31475 net.cpp:151] Top shape: 20 64 5 5 (32000)
I0507 05:07:01.182169 31475 net.cpp:159] Memory required for data: 2184080
I0507 05:07:01.182173 31475 layer_factory.hpp:77] Creating layer conv3
I0507 05:07:01.182180 31475 net.cpp:94] Creating Layer conv3
I0507 05:07:01.182184 31475 net.cpp:435] conv3 <- pool2
I0507 05:07:01.182194 31475 net.cpp:409] conv3 -> conv3
I0507 05:07:01.187026 31475 net.cpp:144] Setting up conv3
I0507 05:07:01.187039 31475 net.cpp:151] Top shape: 20 64 5 5 (32000)
I0507 05:07:01.187043 31475 net.cpp:159] Memory required for data: 2312080
I0507 05:07:01.187050 31475 layer_factory.hpp:77] Creating layer relu3
I0507 05:07:01.187057 31475 net.cpp:94] Creating Layer relu3
I0507 05:07:01.187060 31475 net.cpp:435] relu3 <- conv3
I0507 05:07:01.187064 31475 net.cpp:396] relu3 -> conv3 (in-place)
I0507 05:07:01.187072 31475 net.cpp:144] Setting up relu3
I0507 05:07:01.187075 31475 net.cpp:151] Top shape: 20 64 5 5 (32000)
I0507 05:07:01.187078 31475 net.cpp:159] Memory required for data: 2440080
I0507 05:07:01.187081 31475 layer_factory.hpp:77] Creating layer conv4
I0507 05:07:01.187089 31475 net.cpp:94] Creating Layer conv4
I0507 05:07:01.187093 31475 net.cpp:435] conv4 <- conv3
I0507 05:07:01.187098 31475 net.cpp:409] conv4 -> conv4
I0507 05:07:01.191447 31475 net.cpp:144] Setting up conv4
I0507 05:07:01.191460 31475 net.cpp:151] Top shape: 20 64 5 5 (32000)
I0507 05:07:01.191464 31475 net.cpp:159] Memory required for data: 2568080
I0507 05:07:01.191470 31475 layer_factory.hpp:77] Creating layer relu4
I0507 05:07:01.191475 31475 net.cpp:94] Creating Layer relu4
I0507 05:07:01.191479 31475 net.cpp:435] relu4 <- conv4
I0507 05:07:01.191483 31475 net.cpp:396] relu4 -> conv4 (in-place)
I0507 05:07:01.191490 31475 net.cpp:144] Setting up relu4
I0507 05:07:01.191494 31475 net.cpp:151] Top shape: 20 64 5 5 (32000)
I0507 05:07:01.191498 31475 net.cpp:159] Memory required for data: 2696080
I0507 05:07:01.191500 31475 layer_factory.hpp:77] Creating layer conv5
I0507 05:07:01.191507 31475 net.cpp:94] Creating Layer conv5
I0507 05:07:01.191511 31475 net.cpp:435] conv5 <- conv4
I0507 05:07:01.191515 31475 net.cpp:409] conv5 -> conv5
I0507 05:07:01.196316 31475 net.cpp:144] Setting up conv5
I0507 05:07:01.196331 31475 net.cpp:151] Top shape: 20 64 5 5 (32000)
I0507 05:07:01.196334 31475 net.cpp:159] Memory required for data: 2824080
I0507 05:07:01.196342 31475 layer_factory.hpp:77] Creating layer relu5
I0507 05:07:01.196348 31475 net.cpp:94] Creating Layer relu5
I0507 05:07:01.196352 31475 net.cpp:435] relu5 <- conv5
I0507 05:07:01.196357 31475 net.cpp:396] relu5 -> conv5 (in-place)
I0507 05:07:01.196362 31475 net.cpp:144] Setting up relu5
I0507 05:07:01.196367 31475 net.cpp:151] Top shape: 20 64 5 5 (32000)
I0507 05:07:01.196369 31475 net.cpp:159] Memory required for data: 2952080
I0507 05:07:01.196372 31475 layer_factory.hpp:77] Creating layer pool5
I0507 05:07:01.196377 31475 net.cpp:94] Creating Layer pool5
I0507 05:07:01.196380 31475 net.cpp:435] pool5 <- conv5
I0507 05:07:01.196385 31475 net.cpp:409] pool5 -> pool5
I0507 05:07:01.196424 31475 net.cpp:144] Setting up pool5
I0507 05:07:01.196430 31475 net.cpp:151] Top shape: 20 64 2 2 (5120)
I0507 05:07:01.196434 31475 net.cpp:159] Memory required for data: 2972560
I0507 05:07:01.196436 31475 layer_factory.hpp:77] Creating layer ip1
I0507 05:07:01.196446 31475 net.cpp:94] Creating Layer ip1
I0507 05:07:01.196449 31475 net.cpp:435] ip1 <- pool5
I0507 05:07:01.196455 31475 net.cpp:409] ip1 -> ip1
I0507 05:07:01.197773 31475 net.cpp:144] Setting up ip1
I0507 05:07:01.197788 31475 net.cpp:151] Top shape: 20 64 (1280)
I0507 05:07:01.197790 31475 net.cpp:159] Memory required for data: 2977680
I0507 05:07:01.197796 31475 layer_factory.hpp:77] Creating layer ip2
I0507 05:07:01.197803 31475 net.cpp:94] Creating Layer ip2
I0507 05:07:01.197808 31475 net.cpp:435] ip2 <- ip1
I0507 05:07:01.197813 31475 net.cpp:409] ip2 -> ip2
I0507 05:07:01.198024 31475 net.cpp:144] Setting up ip2
I0507 05:07:01.198030 31475 net.cpp:151] Top shape: 20 64 (1280)
I0507 05:07:01.198034 31475 net.cpp:159] Memory required for data: 2982800
I0507 05:07:01.198038 31475 layer_factory.hpp:77] Creating layer ip3
I0507 05:07:01.198045 31475 net.cpp:94] Creating Layer ip3
I0507 05:07:01.198047 31475 net.cpp:435] ip3 <- ip2
I0507 05:07:01.198052 31475 net.cpp:409] ip3 -> ip3
I0507 05:07:01.198163 31475 net.cpp:144] Setting up ip3
I0507 05:07:01.198169 31475 net.cpp:151] Top shape: 20 1 (20)
I0507 05:07:01.198173 31475 net.cpp:159] Memory required for data: 2982880
I0507 05:07:01.198177 31475 layer_factory.hpp:77] Creating layer loss
I0507 05:07:01.198184 31475 net.cpp:94] Creating Layer loss
I0507 05:07:01.198187 31475 net.cpp:435] loss <- ip3
I0507 05:07:01.198191 31475 net.cpp:435] loss <- label
I0507 05:07:01.198195 31475 net.cpp:409] loss -> loss
I0507 05:07:01.198246 31475 net.cpp:144] Setting up loss
…
I0507 05:07:01.258704 31475 net.cpp:323] The NetState phase (0) differed from the phase (1) specified by a rule in layer intercept
I0507 05:07:01.258718 31475 net.cpp:323] The NetState phase (0) differed from the phase (1) specified by a rule in layer accuracy
I0507 05:07:01.258800 31475 net.cpp:52] Initializing net from parameters: 
state {
  phase: TRAIN
}
layer {
  name: "parameters"
  type: "HDF5Data"
  top: "data"
  top: "label"
  include {
    phase: TRAIN
  }
  hdf5_data_param {
    source: "/home/purduethu/scratch/radon/d/deng106/CNNStatisticalModel/distributions/input/50_distributions_100_sample_size_train-distributions-path.txt"
    batch_size: 20
  }
}
layer {
  name: "conv1"
  type: "Convolution"
  bottom: "data"
  top: "conv1"
  param {
    lr_mult: 1
  }
  param {
    lr_mult: 2
  }
  convolution_param {
    num_output: 64
    pad: 2
    kernel_size: 5
    stride: 1
    weight_filler {
      type: "gaussian"
      std: 0.0001
    }
    bias_filler {
      type: "constant"
    }
  }
}
layer {
  name: "relu1"
  type: "ReLU"
  bottom: "conv1"
  top: "conv1"
}
layer {
  name: "conv2"
  type: "Convolution"
  bottom: "conv1"
  top: "conv2"
  param {
    lr_mult: 1
  }
  param {
    lr_mult: 2
  }
  convolution_param {
    num_output: 64
    pad: 2
    kernel_size: 5
    stride: 1
    weight_filler {
      type: "gaussian"
      std: 0.01
    }
    bias_filler {
      type: "constant"
    }
  }
}
layer {
  name: "relu2"
  type: "ReLU"
  bottom: "conv2"
  top: "conv2"
}
layer {
  name: "pool2"
  type: "Pooling"
  bottom: "conv2"
  top: "pool2"
  pooling_param {
    pool: MAX
    kernel_size: 3
    stride: 2
  }
}
layer {
  name: "conv3"
  type: "Convolution"
  bottom: "pool2"
  top: "conv3"
  param {
    lr_mult: 1
  }
  param {
    lr_mult: 2
  }
  convolution_param {
    num_output: 64
    pad: 2
    kernel_size: 5
    stride: 1
    weight_filler {
      type: "gaussian"
      std: 0.01
    }
    bias_filler {
      type: "constant"
    }
  }
}
layer {
  name: "relu3"
  type: "ReLU"
  bottom: "conv3"
  top: "conv3"
}
layer {
  name: "conv4"
  type: "Convolution"
  bottom: "conv3"
  top: "conv4"
  param {
    lr_mult: 1
  }
  param {
    lr_mult: 2
  }
  convolution_param {
    num_output: 64
    pad: 2
    kernel_size: 5
    stride: 1
    weight_filler {
      type: "gaussian"
      std: 0.01
    }
    bias_filler {
      type: "constant"
    }
  }
}
layer {
  name: "relu4"
  type: "ReLU"
  bottom: "conv4"
  top: "conv4"
}
layer {
  name: "conv5"
  type: "Convolution"
  bottom: "conv4"
  top: "conv5"
  param {
    lr_mult: 1
  }
  param {
    lr_mult: 2
  }
  convolution_param {
    num_output: 64
    pad: 2
    kernel_size: 5
    stride: 1
    weight_filler {
      type: "gaussian"
      std: 0.01
    }
    bias_filler {
      type: "constant"
    }
  }
}
layer {
  name: "relu5"
  type: "ReLU"
  bottom: "conv5"
  top: "conv5"
}
layer {
  name: "pool5"
  type: "Pooling"
  bottom: "conv5"
  top: "pool5"
  pooling_param {
    pool: AVE
    kernel_size: 3
    stride: 2
  }
}
layer {
  name: "ip1"
  type: "InnerProduct"
  bottom: "pool5"
  top: "ip1"
  param {
    lr_mult: 1
  }
  param {
    lr_mult: 2
  }
  inner_product_param {
    num_output: 64
    weight_filler {
      type: "gaussian"
      std: 0.1
    }
    bias_filler {
      type: "constant"
    }
  }
}
layer {
  name: "ip2"
  type: "InnerProduct"
  bottom: "ip1"
  top: "ip2"
  param {
    lr_mult: 1
  }
  param {
    lr_mult: 2
  }
  inner_product_param {
    num_output: 64
    weight_filler {
      type: "gaussian"
      std: 0.1
    }
    bias_filler {
      type: "constant"
    }
  }
}
layer {
  name: "ip3"
  type: "InnerProduct"
  bottom: "ip2"
  top: "ip3"
  param {
    lr_mult: 1
  }
  param {
    lr_mult: 2
  }
  inner_product_param {
    num_output: 50
    weight_filler {
      type: "gaussian"
      std: 0.1
    }
    bias_filler {
      type: "constant"
    }
  }
}
layer {
  name: "loss"
  type: "SoftmaxWithLoss"
  bottom: "ip3"
  bottom: "label"
  top: "loss"
}
I0507 05:07:01.258846 31475 layer_factory.hpp:77] Creating layer parameters
I0507 05:07:01.258852 31475 net.cpp:94] Creating Layer parameters
I0507 05:07:01.258857 31475 net.cpp:409] parameters -> data
I0507 05:07:01.258862 31475 net.cpp:409] parameters -> label
I0507 05:07:01.258868 31475 hdf5_data_layer.cpp:79] Loading list of HDF5 filenames from: /home/purduethu/scratch/radon/d/deng106/CNNStatisticalModel/distributions/input/50_distributions_100_sample_size_train-distributions-path.txt
I0507 05:07:01.258882 31475 hdf5_data_layer.cpp:93] Number of HDF5 files: 1
I0507 05:07:01.413214 31475 hdf5.cpp:35] Datatype class: H5T_INTEGER
I0507 05:07:01.416185 31475 net.cpp:144] Setting up parameters
I0507 05:07:01.416206 31475 net.cpp:151] Top shape: 20 1 10 10 (2000)
I0507 05:07:01.416211 31475 net.cpp:151] Top shape: 20 (20)
I0507 05:07:01.416214 31475 net.cpp:159] Memory required for data: 8080
I0507 05:07:01.416221 31475 layer_factory.hpp:77] Creating layer conv1
I0507 05:07:01.416237 31475 net.cpp:94] Creating Layer conv1
I0507 05:07:01.416241 31475 net.cpp:435] conv1 <- data
I0507 05:07:01.416247 31475 net.cpp:409] conv1 -> conv1
I0507 05:07:01.418020 31475 net.cpp:144] Setting up conv1
I0507 05:07:01.418033 31475 net.cpp:151] Top shape: 20 64 10 10 (128000)
I0507 05:07:01.418037 31475 net.cpp:159] Memory required for data: 520080
I0507 05:07:01.418047 31475 layer_factory.hpp:77] Creating layer relu1
I0507 05:07:01.418054 31475 net.cpp:94] Creating Layer relu1
I0507 05:07:01.418058 31475 net.cpp:435] relu1 <- conv1
I0507 05:07:01.418063 31475 net.cpp:396] relu1 -> conv1 (in-place)
I0507 05:07:01.418071 31475 net.cpp:144] Setting up relu1
I0507 05:07:01.418074 31475 net.cpp:151] Top shape: 20 64 10 10 (128000)
I0507 05:07:01.418077 31475 net.cpp:159] Memory required for data: 1032080
I0507 05:07:01.418081 31475 layer_factory.hpp:77] Creating layer conv2
I0507 05:07:01.418087 31475 net.cpp:94] Creating Layer conv2
I0507 05:07:01.418090 31475 net.cpp:435] conv2 <- conv1
I0507 05:07:01.418095 31475 net.cpp:409] conv2 -> conv2
I0507 05:07:01.423387 31475 net.cpp:144] Setting up conv2
I0507 05:07:01.423400 31475 net.cpp:151] Top shape: 20 64 10 10 (128000)
I0507 05:07:01.423404 31475 net.cpp:159] Memory required for data: 1544080
I0507 05:07:01.423411 31475 layer_factory.hpp:77] Creating layer relu2
I0507 05:07:01.423418 31475 net.cpp:94] Creating Layer relu2
I0507 05:07:01.423421 31475 net.cpp:435] relu2 <- conv2
I0507 05:07:01.423426 31475 net.cpp:396] relu2 -> conv2 (in-place)
I0507 05:07:01.423432 31475 net.cpp:144] Setting up relu2
I0507 05:07:01.423437 31475 net.cpp:151] Top shape: 20 64 10 10 (128000)
I0507 05:07:01.423439 31475 net.cpp:159] Memory required for data: 2056080
I0507 05:07:01.423442 31475 layer_factory.hpp:77] Creating layer pool2
I0507 05:07:01.423449 31475 net.cpp:94] Creating Layer pool2
I0507 05:07:01.423451 31475 net.cpp:435] pool2 <- conv2
I0507 05:07:01.423455 31475 net.cpp:409] pool2 -> pool2
I0507 05:07:01.423508 31475 net.cpp:144] Setting up pool2
I0507 05:07:01.423516 31475 net.cpp:151] Top shape: 20 64 5 5 (32000)
I0507 05:07:01.423518 31475 net.cpp:159] Memory required for data: 2184080
I0507 05:07:01.423521 31475 layer_factory.hpp:77] Creating layer conv3
I0507 05:07:01.423528 31475 net.cpp:94] Creating Layer conv3
I0507 05:07:01.423532 31475 net.cpp:435] conv3 <- pool2
I0507 05:07:01.423537 31475 net.cpp:409] conv3 -> conv3
I0507 05:07:01.429214 31475 net.cpp:144] Setting up conv3
I0507 05:07:01.429227 31475 net.cpp:151] Top shape: 20 64 5 5 (32000)
I0507 05:07:01.429231 31475 net.cpp:159] Memory required for data: 2312080
I0507 05:07:01.429239 31475 layer_factory.hpp:77] Creating layer relu3
I0507 05:07:01.429245 31475 net.cpp:94] Creating Layer relu3
I0507 05:07:01.429249 31475 net.cpp:435] relu3 <- conv3
I0507 05:07:01.429253 31475 net.cpp:396] relu3 -> conv3 (in-place)
I0507 05:07:01.429260 31475 net.cpp:144] Setting up relu3
I0507 05:07:01.429265 31475 net.cpp:151] Top shape: 20 64 5 5 (32000)
I0507 05:07:01.429273 31475 net.cpp:159] Memory required for data: 2440080
I0507 05:07:01.429276 31475 layer_factory.hpp:77] Creating layer conv4
I0507 05:07:01.429286 31475 net.cpp:94] Creating Layer conv4
I0507 05:07:01.429288 31475 net.cpp:435] conv4 <- conv3
I0507 05:07:01.429293 31475 net.cpp:409] conv4 -> conv4
I0507 05:07:01.434159 31475 net.cpp:144] Setting up conv4
I0507 05:07:01.434173 31475 net.cpp:151] Top shape: 20 64 5 5 (32000)
I0507 05:07:01.434177 31475 net.cpp:159] Memory required for data: 2568080
I0507 05:07:01.434183 31475 layer_factory.hpp:77] Creating layer relu4
I0507 05:07:01.434190 31475 net.cpp:94] Creating Layer relu4
I0507 05:07:01.434192 31475 net.cpp:435] relu4 <- conv4
I0507 05:07:01.434197 31475 net.cpp:396] relu4 -> conv4 (in-place)
I0507 05:07:01.434204 31475 net.cpp:144] Setting up relu4
I0507 05:07:01.434208 31475 net.cpp:151] Top shape: 20 64 5 5 (32000)
I0507 05:07:01.434211 31475 net.cpp:159] Memory required for data: 2696080
I0507 05:07:01.434214 31475 layer_factory.hpp:77] Creating layer conv5
I0507 05:07:01.434221 31475 net.cpp:94] Creating Layer conv5
I0507 05:07:01.434224 31475 net.cpp:435] conv5 <- conv4
I0507 05:07:01.434229 31475 net.cpp:409] conv5 -> conv5
I0507 05:07:01.438632 31475 net.cpp:144] Setting up conv5
I0507 05:07:01.438645 31475 net.cpp:151] Top shape: 20 64 5 5 (32000)
I0507 05:07:01.438649 31475 net.cpp:159] Memory required for data: 2824080
I0507 05:07:01.438657 31475 layer_factory.hpp:77] Creating layer relu5
I0507 05:07:01.438663 31475 net.cpp:94] Creating Layer relu5
I0507 05:07:01.438668 31475 net.cpp:435] relu5 <- conv5
I0507 05:07:01.438671 31475 net.cpp:396] relu5 -> conv5 (in-place)
I0507 05:07:01.438678 31475 net.cpp:144] Setting up relu5
I0507 05:07:01.438683 31475 net.cpp:151] Top shape: 20 64 5 5 (32000)
I0507 05:07:01.438685 31475 net.cpp:159] Memory required for data: 2952080
I0507 05:07:01.438688 31475 layer_factory.hpp:77] Creating layer pool5
I0507 05:07:01.438694 31475 net.cpp:94] Creating Layer pool5
I0507 05:07:01.438696 31475 net.cpp:435] pool5 <- conv5
I0507 05:07:01.438700 31475 net.cpp:409] pool5 -> pool5
I0507 05:07:01.438735 31475 net.cpp:144] Setting up pool5
I0507 05:07:01.438742 31475 net.cpp:151] Top shape: 20 64 2 2 (5120)
I0507 05:07:01.438745 31475 net.cpp:159] Memory required for data: 2972560
I0507 05:07:01.438748 31475 layer_factory.hpp:77] Creating layer ip1
I0507 05:07:01.438755 31475 net.cpp:94] Creating Layer ip1
I0507 05:07:01.438758 31475 net.cpp:435] ip1 <- pool5
I0507 05:07:01.438762 31475 net.cpp:409] ip1 -> ip1
I0507 05:07:01.439275 31475 net.cpp:144] Setting up ip1
I0507 05:07:01.439283 31475 net.cpp:151] Top shape: 20 64 (1280)
I0507 05:07:01.439286 31475 net.cpp:159] Memory required for data: 2977680
I0507 05:07:01.439292 31475 layer_factory.hpp:77] Creating layer ip2
I0507 05:07:01.439297 31475 net.cpp:94] Creating Layer ip2
I0507 05:07:01.439301 31475 net.cpp:435] ip2 <- ip1
I0507 05:07:01.439306 31475 net.cpp:409] ip2 -> ip2
I0507 05:07:01.439524 31475 net.cpp:144] Setting up ip2
I0507 05:07:01.439532 31475 net.cpp:151] Top shape: 20 64 (1280)
I0507 05:07:01.439534 31475 net.cpp:159] Memory required for data: 2982800
I0507 05:07:01.439539 31475 layer_factory.hpp:77] Creating layer ip3
I0507 05:07:01.439544 31475 net.cpp:94] Creating Layer ip3
I0507 05:07:01.439548 31475 net.cpp:435] ip3 <- ip2
I0507 05:07:01.439553 31475 net.cpp:409] ip3 -> ip3
I0507 05:07:01.439744 31475 net.cpp:144] Setting up ip3
I0507 05:07:01.439751 31475 net.cpp:151] Top shape: 20 50 (1000)
I0507 05:07:01.439754 31475 net.cpp:159] Memory required for data: 2986800
I0507 05:07:01.439759 31475 layer_factory.hpp:77] Creating layer loss
I0507 05:07:01.439765 31475 net.cpp:94] Creating Layer loss
I0507 05:07:01.439769 31475 net.cpp:435] loss <- ip3
I0507 05:07:01.439771 31475 net.cpp:435] loss <- label
I0507 05:07:01.439776 31475 net.cpp:409] loss -> loss
I0507 05:07:01.439782 31475 layer_factory.hpp:77] Creating layer loss
…
I0507 05:07:01.441134 31475 solver.cpp:181] Creating test net (#0) specified by net file: ./protocol/dis_50_100_dimension.protocol_distribution
I0507 05:07:01.441159 31475 net.cpp:323] The NetState phase (1) differed from the phase (0) specified by a rule in layer parameters
I0507 05:07:01.441253 31475 net.cpp:52] Initializing net from parameters: 
state {
  phase: TEST
}
layer {
  name: "intercept"
  type: "HDF5Data"
  top: "data"
  top: "label"
  include {
    phase: TEST
  }
  hdf5_data_param {
    source: "/home/purduethu/scratch/radon/d/deng106/CNNStatisticalModel/distributions/input/50_distributions_100_sample_size_test-distributions-path.txt"
    batch_size: 20
  }
}
layer {
  name: "conv1"
  type: "Convolution"
  bottom: "data"
  top: "conv1"
  param {
    lr_mult: 1
  }
  param {
    lr_mult: 2
  }
  convolution_param {
    num_output: 64
    pad: 2
    kernel_size: 5
    stride: 1
    weight_filler {
      type: "gaussian"
      std: 0.0001
    }
    bias_filler {
      type: "constant"
    }
  }
}
layer {
  name: "relu1"
  type: "ReLU"
  bottom: "conv1"
  top: "conv1"
}
layer {
  name: "conv2"
  type: "Convolution"
  bottom: "conv1"
  top: "conv2"
  param {
    lr_mult: 1
  }
  param {
    lr_mult: 2
  }
  convolution_param {
    num_output: 64
    pad: 2
    kernel_size: 5
    stride: 1
    weight_filler {
      type: "gaussian"
      std: 0.01
    }
    bias_filler {
      type: "constant"
    }
  }
}
layer {
  name: "relu2"
  type: "ReLU"
  bottom: "conv2"
  top: "conv2"
}
layer {
  name: "pool2"
  type: "Pooling"
  bottom: "conv2"
  top: "pool2"
  pooling_param {
    pool: MAX
    kernel_size: 3
    stride: 2
  }
}
layer {
  name: "conv3"
  type: "Convolution"
  bottom: "pool2"
  top: "conv3"
  param {
    lr_mult: 1
  }
  param {
    lr_mult: 2
  }
  convolution_param {
    num_output: 64
    pad: 2
    kernel_size: 5
    stride: 1
    weight_filler {
      type: "gaussian"
      std: 0.01
    }
    bias_filler {
      type: "constant"
    }
  }
}
layer {
  name: "relu3"
  type: "ReLU"
  bottom: "conv3"
  top: "conv3"
}
layer {
  name: "conv4"
  type: "Convolution"
  bottom: "conv3"
  top: "conv4"
  param {
    lr_mult: 1
  }
  param {
    lr_mult: 2
  }
  convolution_param {
    num_output: 64
    pad: 2
    kernel_size: 5
    stride: 1
    weight_filler {
      type: "gaussian"
      std: 0.01
    }
    bias_filler {
      type: "constant"
    }
  }
}
layer {
  name: "relu4"
  type: "ReLU"
  bottom: "conv4"
  top: "conv4"
}
layer {
  name: "conv5"
  type: "Convolution"
  bottom: "conv4"
  top: "conv5"
  param {
    lr_mult: 1
  }
  param {
    lr_mult: 2
  }
  convolution_param {
    num_output: 64
    pad: 2
    kernel_size: 5
    stride: 1
    weight_filler {
      type: "gaussian"
      std: 0.01
    }
    bias_filler {
      type: "constant"
    }
  }
}
layer {
  name: "relu5"
  type: "ReLU"
  bottom: "conv5"
  top: "conv5"
}
layer {
  name: "pool5"
  type: "Pooling"
  bottom: "conv5"
  top: "pool5"
  pooling_param {
    pool: AVE
    kernel_size: 3
    stride: 2
  }
}
layer {
  name: "ip1"
  type: "InnerProduct"
  bottom: "pool5"
  top: "ip1"
  param {
    lr_mult: 1
  }
  param {
    lr_mult: 2
  }
  inner_product_param {
    num_output: 64
    weight_filler {
      type: "gaussian"
      std: 0.1
    }
    bias_filler {
      type: "constant"
    }
  }
}
layer {
  name: "ip2"
  type: "InnerProduct"
  bottom: "ip1"
  top: "ip2"
  param {
    lr_mult: 1
  }
  param {
    lr_mult: 2
  }
  inner_product_param {
    num_output: 64
    weight_filler {
      type: "gaussian"
      std: 0.1
    }
    bias_filler {
      type: "constant"
    }
  }
}
layer {
  name: "ip3"
  type: "InnerProduct"
  bottom: "ip2"
  top: "ip3"
  param {
    lr_mult: 1
  }
  param {
    lr_mult: 2
  }
  inner_product_param {
    num_output: 50
    weight_filler {
      type: "gaussian"
      std: 0.1
    }
    bias_filler {
      type: "constant"
    }
  }
}
layer {
  name: "accuracy"
  type: "Accuracy"
  bottom: "ip3"
  bottom: "label"
  top: "accuracy"
  include {
    phase: TEST
  }
}
layer {
  name: "loss"
  type: "SoftmaxWithLoss"
  bottom: "ip3"
  bottom: "label"
  top: "loss"
}
I0507 05:07:01.441316 31475 layer_factory.hpp:77] Creating layer intercept
I0507 05:07:01.441324 31475 net.cpp:94] Creating Layer intercept
I0507 05:07:01.441329 31475 net.cpp:409] intercept -> data
I0507 05:07:01.441334 31475 net.cpp:409] intercept -> label
I0507 05:07:01.441340 31475 hdf5_data_layer.cpp:79] Loading list of HDF5 filenames from: /home/purduethu/scratch/radon/d/deng106/CNNStatisticalModel/distributions/input/50_distributions_100_sample_size_test-distributions-path.txt
I0507 05:07:01.441359 31475 hdf5_data_layer.cpp:93] Number of HDF5 files: 1
I0507 05:07:01.482251 31475 net.cpp:144] Setting up intercept
I0507 05:07:01.482283 31475 net.cpp:151] Top shape: 20 1 10 10 (2000)
I0507 05:07:01.482288 31475 net.cpp:151] Top shape: 20 (20)
I0507 05:07:01.482291 31475 net.cpp:159] Memory required for data: 8080
I0507 05:07:01.482298 31475 layer_factory.hpp:77] Creating layer label_intercept_1_split
I0507 05:07:01.482316 31475 net.cpp:94] Creating Layer label_intercept_1_split
I0507 05:07:01.482321 31475 net.cpp:435] label_intercept_1_split <- label
I0507 05:07:01.482326 31475 net.cpp:409] label_intercept_1_split -> label_intercept_1_split_0
I0507 05:07:01.482336 31475 net.cpp:409] label_intercept_1_split -> label_intercept_1_split_1
I0507 05:07:01.482375 31475 net.cpp:144] Setting up label_intercept_1_split
I0507 05:07:01.482381 31475 net.cpp:151] Top shape: 20 (20)
I0507 05:07:01.482385 31475 net.cpp:151] Top shape: 20 (20)
I0507 05:07:01.482388 31475 net.cpp:159] Memory required for data: 8240
I0507 05:07:01.482391 31475 layer_factory.hpp:77] Creating layer conv1
I0507 05:07:01.482403 31475 net.cpp:94] Creating Layer conv1
I0507 05:07:01.482405 31475 net.cpp:435] conv1 <- data
I0507 05:07:01.482410 31475 net.cpp:409] conv1 -> conv1
I0507 05:07:01.483232 31475 net.cpp:144] Setting up conv1
I0507 05:07:01.483244 31475 net.cpp:151] Top shape: 20 64 10 10 (128000)
I0507 05:07:01.483248 31475 net.cpp:159] Memory required for data: 520240
I0507 05:07:01.483258 31475 layer_factory.hpp:77] Creating layer relu1
I0507 05:07:01.483264 31475 net.cpp:94] Creating Layer relu1
I0507 05:07:01.483268 31475 net.cpp:435] relu1 <- conv1
I0507 05:07:01.483273 31475 net.cpp:396] relu1 -> conv1 (in-place)
I0507 05:07:01.483279 31475 net.cpp:144] Setting up relu1
I0507 05:07:01.483283 31475 net.cpp:151] Top shape: 20 64 10 10 (128000)
I0507 05:07:01.483286 31475 net.cpp:159] Memory required for data: 1032240
I0507 05:07:01.483299 31475 layer_factory.hpp:77] Creating layer conv2
I0507 05:07:01.483306 31475 net.cpp:94] Creating Layer conv2
I0507 05:07:01.483310 31475 net.cpp:435] conv2 <- conv1
I0507 05:07:01.483315 31475 net.cpp:409] conv2 -> conv2
I0507 05:07:01.487357 31475 net.cpp:144] Setting up conv2
I0507 05:07:01.487371 31475 net.cpp:151] Top shape: 20 64 10 10 (128000)
I0507 05:07:01.487375 31475 net.cpp:159] Memory required for data: 1544240
I0507 05:07:01.487382 31475 layer_factory.hpp:77] Creating layer relu2
I0507 05:07:01.487388 31475 net.cpp:94] Creating Layer relu2
I0507 05:07:01.487392 31475 net.cpp:435] relu2 <- conv2
I0507 05:07:01.487396 31475 net.cpp:396] relu2 -> conv2 (in-place)
I0507 05:07:01.487403 31475 net.cpp:144] Setting up relu2
I0507 05:07:01.487407 31475 net.cpp:151] Top shape: 20 64 10 10 (128000)
I0507 05:07:01.487411 31475 net.cpp:159] Memory required for data: 2056240
I0507 05:07:01.487413 31475 layer_factory.hpp:77] Creating layer pool2
I0507 05:07:01.487419 31475 net.cpp:94] Creating Layer pool2
I0507 05:07:01.487421 31475 net.cpp:435] pool2 <- conv2
I0507 05:07:01.487426 31475 net.cpp:409] pool2 -> pool2
I0507 05:07:01.487479 31475 net.cpp:144] Setting up pool2
I0507 05:07:01.487486 31475 net.cpp:151] Top shape: 20 64 5 5 (32000)
I0507 05:07:01.487489 31475 net.cpp:159] Memory required for data: 2184240
I0507 05:07:01.487493 31475 layer_factory.hpp:77] Creating layer conv3
I0507 05:07:01.487500 31475 net.cpp:94] Creating Layer conv3
I0507 05:07:01.487504 31475 net.cpp:435] conv3 <- pool2
I0507 05:07:01.487509 31475 net.cpp:409] conv3 -> conv3
I0507 05:07:01.491849 31475 net.cpp:144] Setting up conv3
I0507 05:07:01.491863 31475 net.cpp:151] Top shape: 20 64 5 5 (32000)
I0507 05:07:01.491868 31475 net.cpp:159] Memory required for data: 2312240
I0507 05:07:01.491875 31475 layer_factory.hpp:77] Creating layer relu3
I0507 05:07:01.491883 31475 net.cpp:94] Creating Layer relu3
I0507 05:07:01.491886 31475 net.cpp:435] relu3 <- conv3
I0507 05:07:01.491890 31475 net.cpp:396] relu3 -> conv3 (in-place)
I0507 05:07:01.491897 31475 net.cpp:144] Setting up relu3
I0507 05:07:01.491901 31475 net.cpp:151] Top shape: 20 64 5 5 (32000)
I0507 05:07:01.491904 31475 net.cpp:159] Memory required for data: 2440240
I0507 05:07:01.491907 31475 layer_factory.hpp:77] Creating layer conv4
I0507 05:07:01.491914 31475 net.cpp:94] Creating Layer conv4
I0507 05:07:01.491917 31475 net.cpp:435] conv4 <- conv3
I0507 05:07:01.491922 31475 net.cpp:409] conv4 -> conv4
I0507 05:07:01.495404 31475 net.cpp:144] Setting up conv4
I0507 05:07:01.495417 31475 net.cpp:151] Top shape: 20 64 5 5 (32000)
I0507 05:07:01.495421 31475 net.cpp:159] Memory required for data: 2568240
I0507 05:07:01.495427 31475 layer_factory.hpp:77] Creating layer relu4
I0507 05:07:01.495434 31475 net.cpp:94] Creating Layer relu4
I0507 05:07:01.495436 31475 net.cpp:435] relu4 <- conv4
I0507 05:07:01.495441 31475 net.cpp:396] relu4 -> conv4 (in-place)
I0507 05:07:01.495448 31475 net.cpp:144] Setting up relu4
I0507 05:07:01.495452 31475 net.cpp:151] Top shape: 20 64 5 5 (32000)
I0507 05:07:01.495455 31475 net.cpp:159] Memory required for data: 2696240
I0507 05:07:01.495458 31475 layer_factory.hpp:77] Creating layer conv5
I0507 05:07:01.495465 31475 net.cpp:94] Creating Layer conv5
I0507 05:07:01.495468 31475 net.cpp:435] conv5 <- conv4
I0507 05:07:01.495473 31475 net.cpp:409] conv5 -> conv5
I0507 05:07:01.499400 31475 net.cpp:144] Setting up conv5
I0507 05:07:01.499414 31475 net.cpp:151] Top shape: 20 64 5 5 (32000)
I0507 05:07:01.499418 31475 net.cpp:159] Memory required for data: 2824240
I0507 05:07:01.499426 31475 layer_factory.hpp:77] Creating layer relu5
I0507 05:07:01.499433 31475 net.cpp:94] Creating Layer relu5
I0507 05:07:01.499436 31475 net.cpp:435] relu5 <- conv5
I0507 05:07:01.499440 31475 net.cpp:396] relu5 -> conv5 (in-place)
I0507 05:07:01.499447 31475 net.cpp:144] Setting up relu5
I0507 05:07:01.499451 31475 net.cpp:151] Top shape: 20 64 5 5 (32000)
I0507 05:07:01.499454 31475 net.cpp:159] Memory required for data: 2952240
I0507 05:07:01.499462 31475 layer_factory.hpp:77] Creating layer pool5
I0507 05:07:01.499467 31475 net.cpp:94] Creating Layer pool5
I0507 05:07:01.499470 31475 net.cpp:435] pool5 <- conv5
I0507 05:07:01.499475 31475 net.cpp:409] pool5 -> pool5
I0507 05:07:01.499512 31475 net.cpp:144] Setting up pool5
I0507 05:07:01.499518 31475 net.cpp:151] Top shape: 20 64 2 2 (5120)
I0507 05:07:01.499521 31475 net.cpp:159] Memory required for data: 2972720
I0507 05:07:01.499524 31475 layer_factory.hpp:77] Creating layer ip1
I0507 05:07:01.499531 31475 net.cpp:94] Creating Layer ip1
I0507 05:07:01.499534 31475 net.cpp:435] ip1 <- pool5
I0507 05:07:01.499539 31475 net.cpp:409] ip1 -> ip1
I0507 05:07:01.500059 31475 net.cpp:144] Setting up ip1
I0507 05:07:01.500066 31475 net.cpp:151] Top shape: 20 64 (1280)
I0507 05:07:01.500069 31475 net.cpp:159] Memory required for data: 2977840
I0507 05:07:01.500074 31475 layer_factory.hpp:77] Creating layer ip2
I0507 05:07:01.500080 31475 net.cpp:94] Creating Layer ip2
I0507 05:07:01.500083 31475 net.cpp:435] ip2 <- ip1
I0507 05:07:01.500088 31475 net.cpp:409] ip2 -> ip2
I0507 05:07:01.500304 31475 net.cpp:144] Setting up ip2
I0507 05:07:01.500311 31475 net.cpp:151] Top shape: 20 64 (1280)
I0507 05:07:01.500314 31475 net.cpp:159] Memory required for data: 2982960
I0507 05:07:01.500319 31475 layer_factory.hpp:77] Creating layer ip3
I0507 05:07:01.500325 31475 net.cpp:94] Creating Layer ip3
I0507 05:07:01.500329 31475 net.cpp:435] ip3 <- ip2
I0507 05:07:01.500334 31475 net.cpp:409] ip3 -> ip3
I0507 05:07:01.500522 31475 net.cpp:144] Setting up ip3
I0507 05:07:01.500529 31475 net.cpp:151] Top shape: 20 50 (1000)
I0507 05:07:01.500531 31475 net.cpp:159] Memory required for data: 2986960
I0507 05:07:01.500536 31475 layer_factory.hpp:77] Creating layer ip3_ip3_0_split
I0507 05:07:01.500541 31475 net.cpp:94] Creating Layer ip3_ip3_0_split
I0507 05:07:01.500545 31475 net.cpp:435] ip3_ip3_0_split <- ip3
I0507 05:07:01.500548 31475 net.cpp:409] ip3_ip3_0_split -> ip3_ip3_0_split_0
I0507 05:07:01.500576 31475 net.cpp:409] ip3_ip3_0_split -> ip3_ip3_0_split_1
I0507 05:07:01.500617 31475 net.cpp:144] Setting up ip3_ip3_0_split
I0507 05:07:01.500622 31475 net.cpp:151] Top shape: 20 50 (1000)
I0507 05:07:01.500625 31475 net.cpp:151] Top shape: 20 50 (1000)
I0507 05:07:01.500628 31475 net.cpp:159] Memory required for data: 2994960
I0507 05:07:01.500632 31475 layer_factory.hpp:77] Creating layer accuracy
I0507 05:07:01.500638 31475 net.cpp:94] Creating Layer accuracy
I0507 05:07:01.500640 31475 net.cpp:435] accuracy <- ip3_ip3_0_split_0
I0507 05:07:01.500644 31475 net.cpp:435] accuracy <- label_intercept_1_split_0
I0507 05:07:01.500648 31475 net.cpp:409] accuracy -> accuracy
…
