…
I0504 09:24:53.490548 26011 net.cpp:323] The NetState phase (0) differed from the phase (1) specified by a rule in layer intercept
I0504 09:24:53.490566 26011 net.cpp:323] The NetState phase (0) differed from the phase (1) specified by a rule in layer loss
I0504 09:24:53.490645 26011 net.cpp:52] Initializing net from parameters: 
state {
  phase: TRAIN
}
layer {
  name: "parameters"
  type: "HDF5Data"
  top: "data"
  top: "label"
  include {
    phase: TRAIN
  }
  hdf5_data_param {
    source: "/home/purduethu/scratch/radon/d/deng106/CNNStatisticalModel/distributions/input/5_distributions_900_sample_size_train-parameters-path.txt"
    batch_size: 20
  }
}
layer {
  name: "conv1"
  type: "Convolution"
  bottom: "data"
  top: "conv1"
  param {
    lr_mult: 1
  }
  param {
    lr_mult: 2
  }
  convolution_param {
    num_output: 64
    pad: 2
    kernel_size: 5
    stride: 1
    weight_filler {
      type: "gaussian"
      std: 0.0001
    }
    bias_filler {
      type: "constant"
    }
  }
}
layer {
  name: "relu1"
  type: "ReLU"
  bottom: "conv1"
  top: "conv1"
}
layer {
  name: "conv2"
  type: "Convolution"
  bottom: "conv1"
  top: "conv2"
  param {
    lr_mult: 1
  }
  param {
    lr_mult: 2
  }
  convolution_param {
    num_output: 64
    pad: 2
    kernel_size: 5
    stride: 1
    weight_filler {
      type: "gaussian"
      std: 0.01
    }
    bias_filler {
      type: "constant"
    }
  }
}
layer {
  name: "relu2"
  type: "ReLU"
  bottom: "conv2"
  top: "conv2"
}
layer {
  name: "pool2"
  type: "Pooling"
  bottom: "conv2"
  top: "pool2"
  pooling_param {
    pool: MAX
    kernel_size: 3
    stride: 2
  }
}
layer {
  name: "conv3"
  type: "Convolution"
  bottom: "pool2"
  top: "conv3"
  param {
    lr_mult: 1
  }
  param {
    lr_mult: 2
  }
  convolution_param {
    num_output: 128
    pad: 2
    kernel_size: 5
    stride: 1
    weight_filler {
      type: "gaussian"
      std: 0.01
    }
    bias_filler {
      type: "constant"
    }
  }
}
layer {
  name: "relu3"
  type: "ReLU"
  bottom: "conv3"
  top: "conv3"
}
layer {
  name: "conv4"
  type: "Convolution"
  bottom: "conv3"
  top: "conv4"
  param {
    lr_mult: 1
  }
  param {
    lr_mult: 2
  }
  convolution_param {
    num_output: 128
    pad: 2
    kernel_size: 5
    stride: 1
    weight_filler {
      type: "gaussian"
      std: 0.01
    }
    bias_filler {
      type: "constant"
    }
  }
}
layer {
  name: "relu4"
  type: "ReLU"
  bottom: "conv4"
  top: "conv4"
}
layer {
  name: "conv5"
  type: "Convolution"
  bottom: "conv4"
  top: "conv5"
  param {
    lr_mult: 1
  }
  param {
    lr_mult: 2
  }
  convolution_param {
    num_output: 128
    pad: 2
    kernel_size: 5
    stride: 1
    weight_filler {
      type: "gaussian"
      std: 0.01
    }
    bias_filler {
      type: "constant"
    }
  }
}
layer {
  name: "relu5"
  type: "ReLU"
  bottom: "conv5"
  top: "conv5"
}
layer {
  name: "pool5"
  type: "Pooling"
  bottom: "conv5"
  top: "pool5"
  pooling_param {
    pool: AVE
    kernel_size: 3
    stride: 2
  }
}
layer {
  name: "ip1"
  type: "InnerProduct"
  bottom: "pool5"
  top: "ip1"
  param {
    lr_mult: 1
  }
  param {
    lr_mult: 2
  }
  inner_product_param {
    num_output: 1024
    weight_filler {
      type: "gaussian"
      std: 0.1
    }
    bias_filler {
      type: "constant"
    }
  }
}
layer {
  name: "ip2"
  type: "InnerProduct"
  bottom: "ip1"
  top: "ip2"
  param {
    lr_mult: 1
  }
  param {
    lr_mult: 2
  }
  inner_product_param {
    num_output: 512
    weight_filler {
      type: "gaussian"
      std: 0.1
    }
    bias_filler {
      type: "constant"
    }
  }
}
layer {
  name: "ip3"
  type: "InnerProduct"
  bottom: "ip2"
  top: "ip3"
  param {
    lr_mult: 1
  }
  param {
    lr_mult: 2
  }
  inner_product_param {
    num_output: 1
    weight_filler {
      type: "gaussian"
      std: 0.1
    }
    bias_filler {
      type: "constant"
    }
  }
}
layer {
  name: "loss"
  type: "HuberLoss"
  bottom: "ip3"
  bottom: "label"
  top: "loss"
  include {
    phase: TRAIN
  }
}
I0504 09:24:53.490701 26011 layer_factory.hpp:77] Creating layer parameters
I0504 09:24:53.490713 26011 net.cpp:94] Creating Layer parameters
I0504 09:24:53.490718 26011 net.cpp:409] parameters -> data
I0504 09:24:53.490727 26011 net.cpp:409] parameters -> label
I0504 09:24:53.490737 26011 hdf5_data_layer.cpp:79] Loading list of HDF5 filenames from: /home/purduethu/scratch/radon/d/deng106/CNNStatisticalModel/distributions/input/5_distributions_900_sample_size_train-parameters-path.txt
I0504 09:24:53.490753 26011 hdf5_data_layer.cpp:93] Number of HDF5 files: 1
I0504 09:24:53.491315 26011 hdf5.cpp:32] Datatype class: H5T_FLOAT
I0504 09:24:53.628963 26011 net.cpp:144] Setting up parameters
I0504 09:24:53.628993 26011 net.cpp:151] Top shape: 20 1 30 30 (18000)
I0504 09:24:53.628998 26011 net.cpp:151] Top shape: 20 (20)
I0504 09:24:53.629000 26011 net.cpp:159] Memory required for data: 72080
I0504 09:24:53.629007 26011 layer_factory.hpp:77] Creating layer conv1
I0504 09:24:53.629027 26011 net.cpp:94] Creating Layer conv1
I0504 09:24:53.629031 26011 net.cpp:435] conv1 <- data
I0504 09:24:53.629037 26011 net.cpp:409] conv1 -> conv1
I0504 09:24:53.640398 26011 net.cpp:144] Setting up conv1
I0504 09:24:53.640422 26011 net.cpp:151] Top shape: 20 64 30 30 (1152000)
I0504 09:24:53.640426 26011 net.cpp:159] Memory required for data: 4680080
I0504 09:24:53.640437 26011 layer_factory.hpp:77] Creating layer relu1
I0504 09:24:53.640446 26011 net.cpp:94] Creating Layer relu1
I0504 09:24:53.640450 26011 net.cpp:435] relu1 <- conv1
I0504 09:24:53.640455 26011 net.cpp:396] relu1 -> conv1 (in-place)
I0504 09:24:53.640467 26011 net.cpp:144] Setting up relu1
I0504 09:24:53.640472 26011 net.cpp:151] Top shape: 20 64 30 30 (1152000)
I0504 09:24:53.640475 26011 net.cpp:159] Memory required for data: 9288080
I0504 09:24:53.640478 26011 layer_factory.hpp:77] Creating layer conv2
I0504 09:24:53.640487 26011 net.cpp:94] Creating Layer conv2
I0504 09:24:53.640491 26011 net.cpp:435] conv2 <- conv1
I0504 09:24:53.640496 26011 net.cpp:409] conv2 -> conv2
I0504 09:24:53.659360 26011 net.cpp:144] Setting up conv2
I0504 09:24:53.659379 26011 net.cpp:151] Top shape: 20 64 30 30 (1152000)
I0504 09:24:53.659384 26011 net.cpp:159] Memory required for data: 13896080
I0504 09:24:53.659392 26011 layer_factory.hpp:77] Creating layer relu2
I0504 09:24:53.659399 26011 net.cpp:94] Creating Layer relu2
I0504 09:24:53.659404 26011 net.cpp:435] relu2 <- conv2
I0504 09:24:53.659407 26011 net.cpp:396] relu2 -> conv2 (in-place)
I0504 09:24:53.659415 26011 net.cpp:144] Setting up relu2
I0504 09:24:53.659420 26011 net.cpp:151] Top shape: 20 64 30 30 (1152000)
I0504 09:24:53.659422 26011 net.cpp:159] Memory required for data: 18504080
I0504 09:24:53.659425 26011 layer_factory.hpp:77] Creating layer pool2
I0504 09:24:53.659431 26011 net.cpp:94] Creating Layer pool2
I0504 09:24:53.659440 26011 net.cpp:435] pool2 <- conv2
I0504 09:24:53.659446 26011 net.cpp:409] pool2 -> pool2
I0504 09:24:53.659498 26011 net.cpp:144] Setting up pool2
I0504 09:24:53.659507 26011 net.cpp:151] Top shape: 20 64 15 15 (288000)
I0504 09:24:53.659509 26011 net.cpp:159] Memory required for data: 19656080
I0504 09:24:53.659512 26011 layer_factory.hpp:77] Creating layer conv3
I0504 09:24:53.659520 26011 net.cpp:94] Creating Layer conv3
I0504 09:24:53.659524 26011 net.cpp:435] conv3 <- pool2
I0504 09:24:53.659529 26011 net.cpp:409] conv3 -> conv3
I0504 09:24:53.673624 26011 net.cpp:144] Setting up conv3
I0504 09:24:53.673640 26011 net.cpp:151] Top shape: 20 128 15 15 (576000)
I0504 09:24:53.673643 26011 net.cpp:159] Memory required for data: 21960080
I0504 09:24:53.673651 26011 layer_factory.hpp:77] Creating layer relu3
I0504 09:24:53.673658 26011 net.cpp:94] Creating Layer relu3
I0504 09:24:53.673661 26011 net.cpp:435] relu3 <- conv3
I0504 09:24:53.673666 26011 net.cpp:396] relu3 -> conv3 (in-place)
I0504 09:24:53.673672 26011 net.cpp:144] Setting up relu3
I0504 09:24:53.673677 26011 net.cpp:151] Top shape: 20 128 15 15 (576000)
I0504 09:24:53.673681 26011 net.cpp:159] Memory required for data: 24264080
I0504 09:24:53.673683 26011 layer_factory.hpp:77] Creating layer conv4
I0504 09:24:53.673691 26011 net.cpp:94] Creating Layer conv4
I0504 09:24:53.673694 26011 net.cpp:435] conv4 <- conv3
I0504 09:24:53.673699 26011 net.cpp:409] conv4 -> conv4
I0504 09:24:53.695713 26011 net.cpp:144] Setting up conv4
I0504 09:24:53.695734 26011 net.cpp:151] Top shape: 20 128 15 15 (576000)
I0504 09:24:53.695736 26011 net.cpp:159] Memory required for data: 26568080
I0504 09:24:53.695744 26011 layer_factory.hpp:77] Creating layer relu4
I0504 09:24:53.695749 26011 net.cpp:94] Creating Layer relu4
I0504 09:24:53.695754 26011 net.cpp:435] relu4 <- conv4
I0504 09:24:53.695758 26011 net.cpp:396] relu4 -> conv4 (in-place)
I0504 09:24:53.695765 26011 net.cpp:144] Setting up relu4
I0504 09:24:53.695770 26011 net.cpp:151] Top shape: 20 128 15 15 (576000)
I0504 09:24:53.695772 26011 net.cpp:159] Memory required for data: 28872080
I0504 09:24:53.695775 26011 layer_factory.hpp:77] Creating layer conv5
I0504 09:24:53.695783 26011 net.cpp:94] Creating Layer conv5
I0504 09:24:53.695786 26011 net.cpp:435] conv5 <- conv4
I0504 09:24:53.695791 26011 net.cpp:409] conv5 -> conv5
I0504 09:24:53.722177 26011 net.cpp:144] Setting up conv5
I0504 09:24:53.722198 26011 net.cpp:151] Top shape: 20 128 15 15 (576000)
I0504 09:24:53.722201 26011 net.cpp:159] Memory required for data: 31176080
I0504 09:24:53.722211 26011 layer_factory.hpp:77] Creating layer relu5
I0504 09:24:53.722218 26011 net.cpp:94] Creating Layer relu5
I0504 09:24:53.722221 26011 net.cpp:435] relu5 <- conv5
I0504 09:24:53.722225 26011 net.cpp:396] relu5 -> conv5 (in-place)
I0504 09:24:53.722234 26011 net.cpp:144] Setting up relu5
I0504 09:24:53.722237 26011 net.cpp:151] Top shape: 20 128 15 15 (576000)
I0504 09:24:53.722240 26011 net.cpp:159] Memory required for data: 33480080
I0504 09:24:53.722244 26011 layer_factory.hpp:77] Creating layer pool5
I0504 09:24:53.722250 26011 net.cpp:94] Creating Layer pool5
I0504 09:24:53.722254 26011 net.cpp:435] pool5 <- conv5
I0504 09:24:53.722259 26011 net.cpp:409] pool5 -> pool5
I0504 09:24:53.722301 26011 net.cpp:144] Setting up pool5
I0504 09:24:53.722308 26011 net.cpp:151] Top shape: 20 128 7 7 (125440)
I0504 09:24:53.722311 26011 net.cpp:159] Memory required for data: 33981840
I0504 09:24:53.722314 26011 layer_factory.hpp:77] Creating layer ip1
I0504 09:24:53.722326 26011 net.cpp:94] Creating Layer ip1
I0504 09:24:53.722329 26011 net.cpp:435] ip1 <- pool5
I0504 09:24:53.722333 26011 net.cpp:409] ip1 -> ip1
I0504 09:24:53.880954 26011 net.cpp:144] Setting up ip1
I0504 09:24:53.880986 26011 net.cpp:151] Top shape: 20 1024 (20480)
I0504 09:24:53.880990 26011 net.cpp:159] Memory required for data: 34063760
I0504 09:24:53.881000 26011 layer_factory.hpp:77] Creating layer ip2
I0504 09:24:53.881008 26011 net.cpp:94] Creating Layer ip2
I0504 09:24:53.881019 26011 net.cpp:435] ip2 <- ip1
I0504 09:24:53.881027 26011 net.cpp:409] ip2 -> ip2
I0504 09:24:53.894261 26011 net.cpp:144] Setting up ip2
I0504 09:24:53.894279 26011 net.cpp:151] Top shape: 20 512 (10240)
I0504 09:24:53.894282 26011 net.cpp:159] Memory required for data: 34104720
I0504 09:24:53.894289 26011 layer_factory.hpp:77] Creating layer ip3
I0504 09:24:53.894297 26011 net.cpp:94] Creating Layer ip3
I0504 09:24:53.894300 26011 net.cpp:435] ip3 <- ip2
I0504 09:24:53.894306 26011 net.cpp:409] ip3 -> ip3
I0504 09:24:53.894425 26011 net.cpp:144] Setting up ip3
I0504 09:24:53.894433 26011 net.cpp:151] Top shape: 20 1 (20)
I0504 09:24:53.894435 26011 net.cpp:159] Memory required for data: 34104800
I0504 09:24:53.894440 26011 layer_factory.hpp:77] Creating layer loss
I0504 09:24:53.894454 26011 net.cpp:94] Creating Layer loss
I0504 09:24:53.894457 26011 net.cpp:435] loss <- ip3
I0504 09:24:53.894461 26011 net.cpp:435] loss <- label
I0504 09:24:53.894466 26011 net.cpp:409] loss -> loss
I0504 09:24:53.894516 26011 net.cpp:144] Setting up loss
…
I0504 09:24:54.149597 26011 net.cpp:323] The NetState phase (0) differed from the phase (1) specified by a rule in layer intercept
I0504 09:24:54.149613 26011 net.cpp:323] The NetState phase (0) differed from the phase (1) specified by a rule in layer accuracy
I0504 09:24:54.149700 26011 net.cpp:52] Initializing net from parameters: 
state {
  phase: TRAIN
}
layer {
  name: "parameters"
  type: "HDF5Data"
  top: "data"
  top: "label"
  include {
    phase: TRAIN
  }
  hdf5_data_param {
    source: "/home/purduethu/scratch/radon/d/deng106/CNNStatisticalModel/distributions/input/5_distributions_900_sample_size_train-distributions-path.txt"
    batch_size: 20
  }
}
layer {
  name: "conv1"
  type: "Convolution"
  bottom: "data"
  top: "conv1"
  param {
    lr_mult: 1
  }
  param {
    lr_mult: 2
  }
  convolution_param {
    num_output: 64
    pad: 2
    kernel_size: 5
    stride: 1
    weight_filler {
      type: "gaussian"
      std: 0.0001
    }
    bias_filler {
      type: "constant"
    }
  }
}
layer {
  name: "relu1"
  type: "ReLU"
  bottom: "conv1"
  top: "conv1"
}
layer {
  name: "conv2"
  type: "Convolution"
  bottom: "conv1"
  top: "conv2"
  param {
    lr_mult: 1
  }
  param {
    lr_mult: 2
  }
  convolution_param {
    num_output: 64
    pad: 2
    kernel_size: 5
    stride: 1
    weight_filler {
      type: "gaussian"
      std: 0.01
    }
    bias_filler {
      type: "constant"
    }
  }
}
layer {
  name: "relu2"
  type: "ReLU"
  bottom: "conv2"
  top: "conv2"
}
layer {
  name: "pool2"
  type: "Pooling"
  bottom: "conv2"
  top: "pool2"
  pooling_param {
    pool: MAX
    kernel_size: 3
    stride: 2
  }
}
layer {
  name: "conv3"
  type: "Convolution"
  bottom: "pool2"
  top: "conv3"
  param {
    lr_mult: 1
  }
  param {
    lr_mult: 2
  }
  convolution_param {
    num_output: 128
    pad: 2
    kernel_size: 5
    stride: 1
    weight_filler {
      type: "gaussian"
      std: 0.01
    }
    bias_filler {
      type: "constant"
    }
  }
}
layer {
  name: "relu3"
  type: "ReLU"
  bottom: "conv3"
  top: "conv3"
}
layer {
  name: "conv4"
  type: "Convolution"
  bottom: "conv3"
  top: "conv4"
  param {
    lr_mult: 1
  }
  param {
    lr_mult: 2
  }
  convolution_param {
    num_output: 128
    pad: 2
    kernel_size: 5
    stride: 1
    weight_filler {
      type: "gaussian"
      std: 0.01
    }
    bias_filler {
      type: "constant"
    }
  }
}
layer {
  name: "relu4"
  type: "ReLU"
  bottom: "conv4"
  top: "conv4"
}
layer {
  name: "conv5"
  type: "Convolution"
  bottom: "conv4"
  top: "conv5"
  param {
    lr_mult: 1
  }
  param {
    lr_mult: 2
  }
  convolution_param {
    num_output: 128
    pad: 2
    kernel_size: 5
    stride: 1
    weight_filler {
      type: "gaussian"
      std: 0.01
    }
    bias_filler {
      type: "constant"
    }
  }
}
layer {
  name: "relu5"
  type: "ReLU"
  bottom: "conv5"
  top: "conv5"
}
layer {
  name: "pool5"
  type: "Pooling"
  bottom: "conv5"
  top: "pool5"
  pooling_param {
    pool: AVE
    kernel_size: 3
    stride: 2
  }
}
layer {
  name: "ip1"
  type: "InnerProduct"
  bottom: "pool5"
  top: "ip1"
  param {
    lr_mult: 1
  }
  param {
    lr_mult: 2
  }
  inner_product_param {
    num_output: 1024
    weight_filler {
      type: "gaussian"
      std: 0.1
    }
    bias_filler {
      type: "constant"
    }
  }
}
layer {
  name: "ip2"
  type: "InnerProduct"
  bottom: "ip1"
  top: "ip2"
  param {
    lr_mult: 1
  }
  param {
    lr_mult: 2
  }
  inner_product_param {
    num_output: 512
    weight_filler {
      type: "gaussian"
      std: 0.1
    }
    bias_filler {
      type: "constant"
    }
  }
}
layer {
  name: "ip3"
  type: "InnerProduct"
  bottom: "ip2"
  top: "ip3"
  param {
    lr_mult: 1
  }
  param {
    lr_mult: 2
  }
  inner_product_param {
    num_output: 50
    weight_filler {
      type: "gaussian"
      std: 0.1
    }
    bias_filler {
      type: "constant"
    }
  }
}
layer {
  name: "loss"
  type: "SoftmaxWithLoss"
  bottom: "ip3"
  bottom: "label"
  top: "loss"
}
I0504 09:24:54.149754 26011 layer_factory.hpp:77] Creating layer parameters
I0504 09:24:54.149762 26011 net.cpp:94] Creating Layer parameters
I0504 09:24:54.149766 26011 net.cpp:409] parameters -> data
I0504 09:24:54.149773 26011 net.cpp:409] parameters -> label
I0504 09:24:54.149778 26011 hdf5_data_layer.cpp:79] Loading list of HDF5 filenames from: /home/purduethu/scratch/radon/d/deng106/CNNStatisticalModel/distributions/input/5_distributions_900_sample_size_train-distributions-path.txt
I0504 09:24:54.149796 26011 hdf5_data_layer.cpp:93] Number of HDF5 files: 1
I0504 09:24:54.284248 26011 hdf5.cpp:35] Datatype class: H5T_INTEGER
I0504 09:24:54.284714 26011 net.cpp:144] Setting up parameters
I0504 09:24:54.284730 26011 net.cpp:151] Top shape: 20 1 30 30 (18000)
I0504 09:24:54.284735 26011 net.cpp:151] Top shape: 20 (20)
I0504 09:24:54.284739 26011 net.cpp:159] Memory required for data: 72080
I0504 09:24:54.284744 26011 layer_factory.hpp:77] Creating layer conv1
I0504 09:24:54.284760 26011 net.cpp:94] Creating Layer conv1
I0504 09:24:54.284765 26011 net.cpp:435] conv1 <- data
I0504 09:24:54.284770 26011 net.cpp:409] conv1 -> conv1
I0504 09:24:54.288229 26011 net.cpp:144] Setting up conv1
I0504 09:24:54.288242 26011 net.cpp:151] Top shape: 20 64 30 30 (1152000)
I0504 09:24:54.288246 26011 net.cpp:159] Memory required for data: 4680080
I0504 09:24:54.288256 26011 layer_factory.hpp:77] Creating layer relu1
I0504 09:24:54.288264 26011 net.cpp:94] Creating Layer relu1
I0504 09:24:54.288266 26011 net.cpp:435] relu1 <- conv1
I0504 09:24:54.288270 26011 net.cpp:396] relu1 -> conv1 (in-place)
I0504 09:24:54.288278 26011 net.cpp:144] Setting up relu1
I0504 09:24:54.288282 26011 net.cpp:151] Top shape: 20 64 30 30 (1152000)
I0504 09:24:54.288285 26011 net.cpp:159] Memory required for data: 9288080
I0504 09:24:54.288288 26011 layer_factory.hpp:77] Creating layer conv2
I0504 09:24:54.288295 26011 net.cpp:94] Creating Layer conv2
I0504 09:24:54.288298 26011 net.cpp:435] conv2 <- conv1
I0504 09:24:54.288302 26011 net.cpp:409] conv2 -> conv2
I0504 09:24:54.307701 26011 net.cpp:144] Setting up conv2
I0504 09:24:54.307720 26011 net.cpp:151] Top shape: 20 64 30 30 (1152000)
I0504 09:24:54.307724 26011 net.cpp:159] Memory required for data: 13896080
I0504 09:24:54.307734 26011 layer_factory.hpp:77] Creating layer relu2
I0504 09:24:54.307741 26011 net.cpp:94] Creating Layer relu2
I0504 09:24:54.307744 26011 net.cpp:435] relu2 <- conv2
I0504 09:24:54.307749 26011 net.cpp:396] relu2 -> conv2 (in-place)
I0504 09:24:54.307757 26011 net.cpp:144] Setting up relu2
I0504 09:24:54.307761 26011 net.cpp:151] Top shape: 20 64 30 30 (1152000)
I0504 09:24:54.307765 26011 net.cpp:159] Memory required for data: 18504080
I0504 09:24:54.307767 26011 layer_factory.hpp:77] Creating layer pool2
I0504 09:24:54.307772 26011 net.cpp:94] Creating Layer pool2
I0504 09:24:54.307775 26011 net.cpp:435] pool2 <- conv2
I0504 09:24:54.307780 26011 net.cpp:409] pool2 -> pool2
I0504 09:24:54.307837 26011 net.cpp:144] Setting up pool2
I0504 09:24:54.307844 26011 net.cpp:151] Top shape: 20 64 15 15 (288000)
I0504 09:24:54.307847 26011 net.cpp:159] Memory required for data: 19656080
I0504 09:24:54.307850 26011 layer_factory.hpp:77] Creating layer conv3
I0504 09:24:54.307858 26011 net.cpp:94] Creating Layer conv3
I0504 09:24:54.307862 26011 net.cpp:435] conv3 <- pool2
I0504 09:24:54.307875 26011 net.cpp:409] conv3 -> conv3
I0504 09:24:54.322399 26011 net.cpp:144] Setting up conv3
I0504 09:24:54.322417 26011 net.cpp:151] Top shape: 20 128 15 15 (576000)
I0504 09:24:54.322422 26011 net.cpp:159] Memory required for data: 21960080
I0504 09:24:54.322430 26011 layer_factory.hpp:77] Creating layer relu3
I0504 09:24:54.322437 26011 net.cpp:94] Creating Layer relu3
I0504 09:24:54.322439 26011 net.cpp:435] relu3 <- conv3
I0504 09:24:54.322444 26011 net.cpp:396] relu3 -> conv3 (in-place)
I0504 09:24:54.322451 26011 net.cpp:144] Setting up relu3
I0504 09:24:54.322456 26011 net.cpp:151] Top shape: 20 128 15 15 (576000)
I0504 09:24:54.322459 26011 net.cpp:159] Memory required for data: 24264080
I0504 09:24:54.322461 26011 layer_factory.hpp:77] Creating layer conv4
I0504 09:24:54.322470 26011 net.cpp:94] Creating Layer conv4
I0504 09:24:54.322474 26011 net.cpp:435] conv4 <- conv3
I0504 09:24:54.322479 26011 net.cpp:409] conv4 -> conv4
I0504 09:24:54.345592 26011 net.cpp:144] Setting up conv4
I0504 09:24:54.345634 26011 net.cpp:151] Top shape: 20 128 15 15 (576000)
I0504 09:24:54.345644 26011 net.cpp:159] Memory required for data: 26568080
I0504 09:24:54.345662 26011 layer_factory.hpp:77] Creating layer relu4
I0504 09:24:54.345677 26011 net.cpp:94] Creating Layer relu4
I0504 09:24:54.345687 26011 net.cpp:435] relu4 <- conv4
I0504 09:24:54.345700 26011 net.cpp:396] relu4 -> conv4 (in-place)
I0504 09:24:54.345719 26011 net.cpp:144] Setting up relu4
I0504 09:24:54.345732 26011 net.cpp:151] Top shape: 20 128 15 15 (576000)
I0504 09:24:54.345741 26011 net.cpp:159] Memory required for data: 28872080
I0504 09:24:54.345748 26011 layer_factory.hpp:77] Creating layer conv5
I0504 09:24:54.345767 26011 net.cpp:94] Creating Layer conv5
I0504 09:24:54.345777 26011 net.cpp:435] conv5 <- conv4
I0504 09:24:54.345790 26011 net.cpp:409] conv5 -> conv5
I0504 09:24:54.369120 26011 net.cpp:144] Setting up conv5
I0504 09:24:54.369163 26011 net.cpp:151] Top shape: 20 128 15 15 (576000)
I0504 09:24:54.369174 26011 net.cpp:159] Memory required for data: 31176080
I0504 09:24:54.369196 26011 layer_factory.hpp:77] Creating layer relu5
I0504 09:24:54.369212 26011 net.cpp:94] Creating Layer relu5
I0504 09:24:54.369221 26011 net.cpp:435] relu5 <- conv5
I0504 09:24:54.369233 26011 net.cpp:396] relu5 -> conv5 (in-place)
I0504 09:24:54.369252 26011 net.cpp:144] Setting up relu5
I0504 09:24:54.369264 26011 net.cpp:151] Top shape: 20 128 15 15 (576000)
I0504 09:24:54.369273 26011 net.cpp:159] Memory required for data: 33480080
I0504 09:24:54.369282 26011 layer_factory.hpp:77] Creating layer pool5
I0504 09:24:54.369298 26011 net.cpp:94] Creating Layer pool5
I0504 09:24:54.369307 26011 net.cpp:435] pool5 <- conv5
I0504 09:24:54.369319 26011 net.cpp:409] pool5 -> pool5
I0504 09:24:54.369421 26011 net.cpp:144] Setting up pool5
I0504 09:24:54.369441 26011 net.cpp:151] Top shape: 20 128 7 7 (125440)
I0504 09:24:54.369448 26011 net.cpp:159] Memory required for data: 33981840
I0504 09:24:54.369457 26011 layer_factory.hpp:77] Creating layer ip1
I0504 09:24:54.369475 26011 net.cpp:94] Creating Layer ip1
I0504 09:24:54.369495 26011 net.cpp:435] ip1 <- pool5
I0504 09:24:54.369499 26011 net.cpp:409] ip1 -> ip1
I0504 09:24:54.527108 26011 net.cpp:144] Setting up ip1
I0504 09:24:54.527144 26011 net.cpp:151] Top shape: 20 1024 (20480)
I0504 09:24:54.527148 26011 net.cpp:159] Memory required for data: 34063760
I0504 09:24:54.527156 26011 layer_factory.hpp:77] Creating layer ip2
I0504 09:24:54.527166 26011 net.cpp:94] Creating Layer ip2
I0504 09:24:54.527170 26011 net.cpp:435] ip2 <- ip1
I0504 09:24:54.527179 26011 net.cpp:409] ip2 -> ip2
I0504 09:24:54.540546 26011 net.cpp:144] Setting up ip2
I0504 09:24:54.540581 26011 net.cpp:151] Top shape: 20 512 (10240)
I0504 09:24:54.540585 26011 net.cpp:159] Memory required for data: 34104720
I0504 09:24:54.540592 26011 layer_factory.hpp:77] Creating layer ip3
I0504 09:24:54.540601 26011 net.cpp:94] Creating Layer ip3
I0504 09:24:54.540603 26011 net.cpp:435] ip3 <- ip2
I0504 09:24:54.540609 26011 net.cpp:409] ip3 -> ip3
I0504 09:24:54.541373 26011 net.cpp:144] Setting up ip3
I0504 09:24:54.541383 26011 net.cpp:151] Top shape: 20 50 (1000)
I0504 09:24:54.541385 26011 net.cpp:159] Memory required for data: 34108720
I0504 09:24:54.541390 26011 layer_factory.hpp:77] Creating layer loss
I0504 09:24:54.541399 26011 net.cpp:94] Creating Layer loss
I0504 09:24:54.541402 26011 net.cpp:435] loss <- ip3
I0504 09:24:54.541406 26011 net.cpp:435] loss <- label
I0504 09:24:54.541410 26011 net.cpp:409] loss -> loss
I0504 09:24:54.541417 26011 layer_factory.hpp:77] Creating layer loss
…
I0504 09:24:54.541935 26011 solver.cpp:181] Creating test net (#0) specified by net file: ./protocol/dis_5_900_dimension.protocol_distribution
I0504 09:24:54.541961 26011 net.cpp:323] The NetState phase (1) differed from the phase (0) specified by a rule in layer parameters
I0504 09:24:54.542058 26011 net.cpp:52] Initializing net from parameters: 
state {
  phase: TEST
}
layer {
  name: "intercept"
  type: "HDF5Data"
  top: "data"
  top: "label"
  include {
    phase: TEST
  }
  hdf5_data_param {
    source: "/home/purduethu/scratch/radon/d/deng106/CNNStatisticalModel/distributions/input/5_distributions_900_sample_size_test-distributions-path.txt"
    batch_size: 20
  }
}
layer {
  name: "conv1"
  type: "Convolution"
  bottom: "data"
  top: "conv1"
  param {
    lr_mult: 1
  }
  param {
    lr_mult: 2
  }
  convolution_param {
    num_output: 64
    pad: 2
    kernel_size: 5
    stride: 1
    weight_filler {
      type: "gaussian"
      std: 0.0001
    }
    bias_filler {
      type: "constant"
    }
  }
}
layer {
  name: "relu1"
  type: "ReLU"
  bottom: "conv1"
  top: "conv1"
}
layer {
  name: "conv2"
  type: "Convolution"
  bottom: "conv1"
  top: "conv2"
  param {
    lr_mult: 1
  }
  param {
    lr_mult: 2
  }
  convolution_param {
    num_output: 64
    pad: 2
    kernel_size: 5
    stride: 1
    weight_filler {
      type: "gaussian"
      std: 0.01
    }
    bias_filler {
      type: "constant"
    }
  }
}
layer {
  name: "relu2"
  type: "ReLU"
  bottom: "conv2"
  top: "conv2"
}
layer {
  name: "pool2"
  type: "Pooling"
  bottom: "conv2"
  top: "pool2"
  pooling_param {
    pool: MAX
    kernel_size: 3
    stride: 2
  }
}
layer {
  name: "conv3"
  type: "Convolution"
  bottom: "pool2"
  top: "conv3"
  param {
    lr_mult: 1
  }
  param {
    lr_mult: 2
  }
  convolution_param {
    num_output: 128
    pad: 2
    kernel_size: 5
    stride: 1
    weight_filler {
      type: "gaussian"
      std: 0.01
    }
    bias_filler {
      type: "constant"
    }
  }
}
layer {
  name: "relu3"
  type: "ReLU"
  bottom: "conv3"
  top: "conv3"
}
layer {
  name: "conv4"
  type: "Convolution"
  bottom: "conv3"
  top: "conv4"
  param {
    lr_mult: 1
  }
  param {
    lr_mult: 2
  }
  convolution_param {
    num_output: 128
    pad: 2
    kernel_size: 5
    stride: 1
    weight_filler {
      type: "gaussian"
      std: 0.01
    }
    bias_filler {
      type: "constant"
    }
  }
}
layer {
  name: "relu4"
  type: "ReLU"
  bottom: "conv4"
  top: "conv4"
}
layer {
  name: "conv5"
  type: "Convolution"
  bottom: "conv4"
  top: "conv5"
  param {
    lr_mult: 1
  }
  param {
    lr_mult: 2
  }
  convolution_param {
    num_output: 128
    pad: 2
    kernel_size: 5
    stride: 1
    weight_filler {
      type: "gaussian"
      std: 0.01
    }
    bias_filler {
      type: "constant"
    }
  }
}
layer {
  name: "relu5"
  type: "ReLU"
  bottom: "conv5"
  top: "conv5"
}
layer {
  name: "pool5"
  type: "Pooling"
  bottom: "conv5"
  top: "pool5"
  pooling_param {
    pool: AVE
    kernel_size: 3
    stride: 2
  }
}
layer {
  name: "ip1"
  type: "InnerProduct"
  bottom: "pool5"
  top: "ip1"
  param {
    lr_mult: 1
  }
  param {
    lr_mult: 2
  }
  inner_product_param {
    num_output: 1024
    weight_filler {
      type: "gaussian"
      std: 0.1
    }
    bias_filler {
      type: "constant"
    }
  }
}
layer {
  name: "ip2"
  type: "InnerProduct"
  bottom: "ip1"
  top: "ip2"
  param {
    lr_mult: 1
  }
  param {
    lr_mult: 2
  }
  inner_product_param {
    num_output: 512
    weight_filler {
      type: "gaussian"
      std: 0.1
    }
    bias_filler {
      type: "constant"
    }
  }
}
layer {
  name: "ip3"
  type: "InnerProduct"
  bottom: "ip2"
  top: "ip3"
  param {
    lr_mult: 1
  }
  param {
    lr_mult: 2
  }
  inner_product_param {
    num_output: 50
    weight_filler {
      type: "gaussian"
      std: 0.1
    }
    bias_filler {
      type: "constant"
    }
  }
}
layer {
  name: "accuracy"
  type: "Accuracy"
  bottom: "ip3"
  bottom: "label"
  top: "accuracy"
  include {
    phase: TEST
  }
}
layer {
  name: "loss"
  type: "SoftmaxWithLoss"
  bottom: "ip3"
  bottom: "label"
  top: "loss"
}
I0504 09:24:54.542125 26011 layer_factory.hpp:77] Creating layer intercept
I0504 09:24:54.542135 26011 net.cpp:94] Creating Layer intercept
I0504 09:24:54.542137 26011 net.cpp:409] intercept -> data
I0504 09:24:54.542145 26011 net.cpp:409] intercept -> label
I0504 09:24:54.542150 26011 hdf5_data_layer.cpp:79] Loading list of HDF5 filenames from: /home/purduethu/scratch/radon/d/deng106/CNNStatisticalModel/distributions/input/5_distributions_900_sample_size_test-distributions-path.txt
I0504 09:24:54.542171 26011 hdf5_data_layer.cpp:93] Number of HDF5 files: 1
I0504 09:24:54.577055 26011 net.cpp:144] Setting up intercept
I0504 09:24:54.577088 26011 net.cpp:151] Top shape: 20 1 30 30 (18000)
I0504 09:24:54.577093 26011 net.cpp:151] Top shape: 20 (20)
I0504 09:24:54.577096 26011 net.cpp:159] Memory required for data: 72080
I0504 09:24:54.577102 26011 layer_factory.hpp:77] Creating layer label_intercept_1_split
I0504 09:24:54.577119 26011 net.cpp:94] Creating Layer label_intercept_1_split
I0504 09:24:54.577123 26011 net.cpp:435] label_intercept_1_split <- label
I0504 09:24:54.577129 26011 net.cpp:409] label_intercept_1_split -> label_intercept_1_split_0
I0504 09:24:54.577138 26011 net.cpp:409] label_intercept_1_split -> label_intercept_1_split_1
I0504 09:24:54.577178 26011 net.cpp:144] Setting up label_intercept_1_split
I0504 09:24:54.577184 26011 net.cpp:151] Top shape: 20 (20)
I0504 09:24:54.577188 26011 net.cpp:151] Top shape: 20 (20)
I0504 09:24:54.577190 26011 net.cpp:159] Memory required for data: 72240
I0504 09:24:54.577193 26011 layer_factory.hpp:77] Creating layer conv1
I0504 09:24:54.577204 26011 net.cpp:94] Creating Layer conv1
I0504 09:24:54.577208 26011 net.cpp:435] conv1 <- data
I0504 09:24:54.577213 26011 net.cpp:409] conv1 -> conv1
I0504 09:24:54.578768 26011 net.cpp:144] Setting up conv1
I0504 09:24:54.578781 26011 net.cpp:151] Top shape: 20 64 30 30 (1152000)
I0504 09:24:54.578785 26011 net.cpp:159] Memory required for data: 4680240
I0504 09:24:54.578794 26011 layer_factory.hpp:77] Creating layer relu1
I0504 09:24:54.578801 26011 net.cpp:94] Creating Layer relu1
I0504 09:24:54.578805 26011 net.cpp:435] relu1 <- conv1
I0504 09:24:54.578809 26011 net.cpp:396] relu1 -> conv1 (in-place)
I0504 09:24:54.578816 26011 net.cpp:144] Setting up relu1
I0504 09:24:54.578820 26011 net.cpp:151] Top shape: 20 64 30 30 (1152000)
I0504 09:24:54.578824 26011 net.cpp:159] Memory required for data: 9288240
I0504 09:24:54.578826 26011 layer_factory.hpp:77] Creating layer conv2
I0504 09:24:54.578835 26011 net.cpp:94] Creating Layer conv2
I0504 09:24:54.578837 26011 net.cpp:435] conv2 <- conv1
I0504 09:24:54.578842 26011 net.cpp:409] conv2 -> conv2
I0504 09:24:54.591681 26011 net.cpp:144] Setting up conv2
I0504 09:24:54.591699 26011 net.cpp:151] Top shape: 20 64 30 30 (1152000)
I0504 09:24:54.591702 26011 net.cpp:159] Memory required for data: 13896240
I0504 09:24:54.591711 26011 layer_factory.hpp:77] Creating layer relu2
I0504 09:24:54.591717 26011 net.cpp:94] Creating Layer relu2
I0504 09:24:54.591722 26011 net.cpp:435] relu2 <- conv2
I0504 09:24:54.591725 26011 net.cpp:396] relu2 -> conv2 (in-place)
I0504 09:24:54.591732 26011 net.cpp:144] Setting up relu2
I0504 09:24:54.591737 26011 net.cpp:151] Top shape: 20 64 30 30 (1152000)
I0504 09:24:54.591739 26011 net.cpp:159] Memory required for data: 18504240
I0504 09:24:54.591742 26011 layer_factory.hpp:77] Creating layer pool2
I0504 09:24:54.591748 26011 net.cpp:94] Creating Layer pool2
I0504 09:24:54.591751 26011 net.cpp:435] pool2 <- conv2
I0504 09:24:54.591755 26011 net.cpp:409] pool2 -> pool2
I0504 09:24:54.591815 26011 net.cpp:144] Setting up pool2
I0504 09:24:54.591822 26011 net.cpp:151] Top shape: 20 64 15 15 (288000)
I0504 09:24:54.591825 26011 net.cpp:159] Memory required for data: 19656240
I0504 09:24:54.591828 26011 layer_factory.hpp:77] Creating layer conv3
I0504 09:24:54.591835 26011 net.cpp:94] Creating Layer conv3
I0504 09:24:54.591840 26011 net.cpp:435] conv3 <- pool2
I0504 09:24:54.591845 26011 net.cpp:409] conv3 -> conv3
I0504 09:24:54.599526 26011 net.cpp:144] Setting up conv3
I0504 09:24:54.599542 26011 net.cpp:151] Top shape: 20 128 15 15 (576000)
I0504 09:24:54.599545 26011 net.cpp:159] Memory required for data: 21960240
I0504 09:24:54.599555 26011 layer_factory.hpp:77] Creating layer relu3
I0504 09:24:54.599561 26011 net.cpp:94] Creating Layer relu3
I0504 09:24:54.599565 26011 net.cpp:435] relu3 <- conv3
I0504 09:24:54.599568 26011 net.cpp:396] relu3 -> conv3 (in-place)
I0504 09:24:54.599575 26011 net.cpp:144] Setting up relu3
I0504 09:24:54.599581 26011 net.cpp:151] Top shape: 20 128 15 15 (576000)
I0504 09:24:54.599583 26011 net.cpp:159] Memory required for data: 24264240
I0504 09:24:54.599586 26011 layer_factory.hpp:77] Creating layer conv4
I0504 09:24:54.599593 26011 net.cpp:94] Creating Layer conv4
I0504 09:24:54.599596 26011 net.cpp:435] conv4 <- conv3
I0504 09:24:54.599601 26011 net.cpp:409] conv4 -> conv4
I0504 09:24:54.615196 26011 net.cpp:144] Setting up conv4
I0504 09:24:54.615213 26011 net.cpp:151] Top shape: 20 128 15 15 (576000)
I0504 09:24:54.615216 26011 net.cpp:159] Memory required for data: 26568240
I0504 09:24:54.615223 26011 layer_factory.hpp:77] Creating layer relu4
I0504 09:24:54.615229 26011 net.cpp:94] Creating Layer relu4
I0504 09:24:54.615232 26011 net.cpp:435] relu4 <- conv4
I0504 09:24:54.615237 26011 net.cpp:396] relu4 -> conv4 (in-place)
I0504 09:24:54.615244 26011 net.cpp:144] Setting up relu4
I0504 09:24:54.615248 26011 net.cpp:151] Top shape: 20 128 15 15 (576000)
I0504 09:24:54.615252 26011 net.cpp:159] Memory required for data: 28872240
I0504 09:24:54.615254 26011 layer_factory.hpp:77] Creating layer conv5
I0504 09:24:54.615262 26011 net.cpp:94] Creating Layer conv5
I0504 09:24:54.615265 26011 net.cpp:435] conv5 <- conv4
I0504 09:24:54.615270 26011 net.cpp:409] conv5 -> conv5
I0504 09:24:54.630390 26011 net.cpp:144] Setting up conv5
I0504 09:24:54.630408 26011 net.cpp:151] Top shape: 20 128 15 15 (576000)
I0504 09:24:54.630411 26011 net.cpp:159] Memory required for data: 31176240
I0504 09:24:54.630420 26011 layer_factory.hpp:77] Creating layer relu5
I0504 09:24:54.630427 26011 net.cpp:94] Creating Layer relu5
I0504 09:24:54.630430 26011 net.cpp:435] relu5 <- conv5
I0504 09:24:54.630434 26011 net.cpp:396] relu5 -> conv5 (in-place)
I0504 09:24:54.630441 26011 net.cpp:144] Setting up relu5
I0504 09:24:54.630446 26011 net.cpp:151] Top shape: 20 128 15 15 (576000)
I0504 09:24:54.630450 26011 net.cpp:159] Memory required for data: 33480240
I0504 09:24:54.630452 26011 layer_factory.hpp:77] Creating layer pool5
I0504 09:24:54.630457 26011 net.cpp:94] Creating Layer pool5
I0504 09:24:54.630460 26011 net.cpp:435] pool5 <- conv5
I0504 09:24:54.630465 26011 net.cpp:409] pool5 -> pool5
I0504 09:24:54.630503 26011 net.cpp:144] Setting up pool5
I0504 09:24:54.630511 26011 net.cpp:151] Top shape: 20 128 7 7 (125440)
I0504 09:24:54.630512 26011 net.cpp:159] Memory required for data: 33982000
I0504 09:24:54.630517 26011 layer_factory.hpp:77] Creating layer ip1
I0504 09:24:54.630523 26011 net.cpp:94] Creating Layer ip1
I0504 09:24:54.630527 26011 net.cpp:435] ip1 <- pool5
I0504 09:24:54.630532 26011 net.cpp:409] ip1 -> ip1
I0504 09:24:54.786679 26011 net.cpp:144] Setting up ip1
I0504 09:24:54.786715 26011 net.cpp:151] Top shape: 20 1024 (20480)
I0504 09:24:54.786718 26011 net.cpp:159] Memory required for data: 34063920
I0504 09:24:54.786727 26011 layer_factory.hpp:77] Creating layer ip2
I0504 09:24:54.786737 26011 net.cpp:94] Creating Layer ip2
I0504 09:24:54.786741 26011 net.cpp:435] ip2 <- ip1
I0504 09:24:54.786748 26011 net.cpp:409] ip2 -> ip2
I0504 09:24:54.800042 26011 net.cpp:144] Setting up ip2
I0504 09:24:54.800063 26011 net.cpp:151] Top shape: 20 512 (10240)
I0504 09:24:54.800067 26011 net.cpp:159] Memory required for data: 34104880
I0504 09:24:54.800074 26011 layer_factory.hpp:77] Creating layer ip3
I0504 09:24:54.800084 26011 net.cpp:94] Creating Layer ip3
I0504 09:24:54.800088 26011 net.cpp:435] ip3 <- ip2
I0504 09:24:54.800094 26011 net.cpp:409] ip3 -> ip3
I0504 09:24:54.800855 26011 net.cpp:144] Setting up ip3
I0504 09:24:54.800864 26011 net.cpp:151] Top shape: 20 50 (1000)
I0504 09:24:54.800868 26011 net.cpp:159] Memory required for data: 34108880
I0504 09:24:54.800873 26011 layer_factory.hpp:77] Creating layer ip3_ip3_0_split
I0504 09:24:54.800889 26011 net.cpp:94] Creating Layer ip3_ip3_0_split
I0504 09:24:54.800892 26011 net.cpp:435] ip3_ip3_0_split <- ip3
I0504 09:24:54.800896 26011 net.cpp:409] ip3_ip3_0_split -> ip3_ip3_0_split_0
I0504 09:24:54.800902 26011 net.cpp:409] ip3_ip3_0_split -> ip3_ip3_0_split_1
I0504 09:24:54.800945 26011 net.cpp:144] Setting up ip3_ip3_0_split
I0504 09:24:54.800951 26011 net.cpp:151] Top shape: 20 50 (1000)
I0504 09:24:54.800953 26011 net.cpp:151] Top shape: 20 50 (1000)
I0504 09:24:54.800956 26011 net.cpp:159] Memory required for data: 34116880
I0504 09:24:54.800959 26011 layer_factory.hpp:77] Creating layer accuracy
I0504 09:24:54.800966 26011 net.cpp:94] Creating Layer accuracy
I0504 09:24:54.800968 26011 net.cpp:435] accuracy <- ip3_ip3_0_split_0
I0504 09:24:54.800972 26011 net.cpp:435] accuracy <- label_intercept_1_split_0
I0504 09:24:54.800976 26011 net.cpp:409] accuracy -> accuracy
…
