…
I0504 12:48:19.838160 26644 net.cpp:323] The NetState phase (0) differed from the phase (1) specified by a rule in layer intercept
I0504 12:48:19.838176 26644 net.cpp:323] The NetState phase (0) differed from the phase (1) specified by a rule in layer loss
I0504 12:48:19.838268 26644 net.cpp:52] Initializing net from parameters: 
state {
  phase: TRAIN
}
layer {
  name: "parameters"
  type: "HDF5Data"
  top: "data"
  top: "label"
  include {
    phase: TRAIN
  }
  hdf5_data_param {
    source: "/home/purduethu/scratch/radon/d/deng106/CNNStatisticalModel/distributions/input/20_distributions_100_sample_size_train-parameters-path.txt"
    batch_size: 20
  }
}
layer {
  name: "conv1"
  type: "Convolution"
  bottom: "data"
  top: "conv1"
  param {
    lr_mult: 1
  }
  param {
    lr_mult: 2
  }
  convolution_param {
    num_output: 64
    pad: 2
    kernel_size: 5
    stride: 1
    weight_filler {
      type: "gaussian"
      std: 0.0001
    }
    bias_filler {
      type: "constant"
    }
  }
}
layer {
  name: "relu1"
  type: "ReLU"
  bottom: "conv1"
  top: "conv1"
}
layer {
  name: "conv2"
  type: "Convolution"
  bottom: "conv1"
  top: "conv2"
  param {
    lr_mult: 1
  }
  param {
    lr_mult: 2
  }
  convolution_param {
    num_output: 64
    pad: 2
    kernel_size: 5
    stride: 1
    weight_filler {
      type: "gaussian"
      std: 0.01
    }
    bias_filler {
      type: "constant"
    }
  }
}
layer {
  name: "relu2"
  type: "ReLU"
  bottom: "conv2"
  top: "conv2"
}
layer {
  name: "pool2"
  type: "Pooling"
  bottom: "conv2"
  top: "pool2"
  pooling_param {
    pool: MAX
    kernel_size: 3
    stride: 2
  }
}
layer {
  name: "conv3"
  type: "Convolution"
  bottom: "pool2"
  top: "conv3"
  param {
    lr_mult: 1
  }
  param {
    lr_mult: 2
  }
  convolution_param {
    num_output: 128
    pad: 2
    kernel_size: 5
    stride: 1
    weight_filler {
      type: "gaussian"
      std: 0.01
    }
    bias_filler {
      type: "constant"
    }
  }
}
layer {
  name: "relu3"
  type: "ReLU"
  bottom: "conv3"
  top: "conv3"
}
layer {
  name: "conv4"
  type: "Convolution"
  bottom: "conv3"
  top: "conv4"
  param {
    lr_mult: 1
  }
  param {
    lr_mult: 2
  }
  convolution_param {
    num_output: 128
    pad: 2
    kernel_size: 5
    stride: 1
    weight_filler {
      type: "gaussian"
      std: 0.01
    }
    bias_filler {
      type: "constant"
    }
  }
}
layer {
  name: "relu4"
  type: "ReLU"
  bottom: "conv4"
  top: "conv4"
}
layer {
  name: "conv5"
  type: "Convolution"
  bottom: "conv4"
  top: "conv5"
  param {
    lr_mult: 1
  }
  param {
    lr_mult: 2
  }
  convolution_param {
    num_output: 128
    pad: 2
    kernel_size: 5
    stride: 1
    weight_filler {
      type: "gaussian"
      std: 0.01
    }
    bias_filler {
      type: "constant"
    }
  }
}
layer {
  name: "relu5"
  type: "ReLU"
  bottom: "conv5"
  top: "conv5"
}
layer {
  name: "pool5"
  type: "Pooling"
  bottom: "conv5"
  top: "pool5"
  pooling_param {
    pool: AVE
    kernel_size: 3
    stride: 2
  }
}
layer {
  name: "ip1"
  type: "InnerProduct"
  bottom: "pool5"
  top: "ip1"
  param {
    lr_mult: 1
  }
  param {
    lr_mult: 2
  }
  inner_product_param {
    num_output: 1024
    weight_filler {
      type: "gaussian"
      std: 0.1
    }
    bias_filler {
      type: "constant"
    }
  }
}
layer {
  name: "ip2"
  type: "InnerProduct"
  bottom: "ip1"
  top: "ip2"
  param {
    lr_mult: 1
  }
  param {
    lr_mult: 2
  }
  inner_product_param {
    num_output: 512
    weight_filler {
      type: "gaussian"
      std: 0.1
    }
    bias_filler {
      type: "constant"
    }
  }
}
layer {
  name: "ip3"
  type: "InnerProduct"
  bottom: "ip2"
  top: "ip3"
  param {
    lr_mult: 1
  }
  param {
    lr_mult: 2
  }
  inner_product_param {
    num_output: 1
    weight_filler {
      type: "gaussian"
      std: 0.1
    }
    bias_filler {
      type: "constant"
    }
  }
}
layer {
  name: "loss"
  type: "HuberLoss"
  bottom: "ip3"
  bottom: "label"
  top: "loss"
  include {
    phase: TRAIN
  }
}
I0504 12:48:19.838346 26644 layer_factory.hpp:77] Creating layer parameters
I0504 12:48:19.838361 26644 net.cpp:94] Creating Layer parameters
I0504 12:48:19.838366 26644 net.cpp:409] parameters -> data
I0504 12:48:19.838387 26644 net.cpp:409] parameters -> label
I0504 12:48:19.838397 26644 hdf5_data_layer.cpp:79] Loading list of HDF5 filenames from: /home/purduethu/scratch/radon/d/deng106/CNNStatisticalModel/distributions/input/20_distributions_100_sample_size_train-parameters-path.txt
I0504 12:48:19.838418 26644 hdf5_data_layer.cpp:93] Number of HDF5 files: 1
I0504 12:48:19.839004 26644 hdf5.cpp:32] Datatype class: H5T_FLOAT
I0504 12:48:19.907415 26644 net.cpp:144] Setting up parameters
I0504 12:48:19.907450 26644 net.cpp:151] Top shape: 20 1 10 10 (2000)
I0504 12:48:19.907456 26644 net.cpp:151] Top shape: 20 (20)
I0504 12:48:19.907459 26644 net.cpp:159] Memory required for data: 8080
I0504 12:48:19.907467 26644 layer_factory.hpp:77] Creating layer conv1
I0504 12:48:19.907492 26644 net.cpp:94] Creating Layer conv1
I0504 12:48:19.907498 26644 net.cpp:435] conv1 <- data
I0504 12:48:19.907510 26644 net.cpp:409] conv1 -> conv1
I0504 12:48:19.911263 26644 net.cpp:144] Setting up conv1
I0504 12:48:19.911278 26644 net.cpp:151] Top shape: 20 64 10 10 (128000)
I0504 12:48:19.911283 26644 net.cpp:159] Memory required for data: 520080
I0504 12:48:19.911294 26644 layer_factory.hpp:77] Creating layer relu1
I0504 12:48:19.911303 26644 net.cpp:94] Creating Layer relu1
I0504 12:48:19.911306 26644 net.cpp:435] relu1 <- conv1
I0504 12:48:19.911311 26644 net.cpp:396] relu1 -> conv1 (in-place)
I0504 12:48:19.911329 26644 net.cpp:144] Setting up relu1
I0504 12:48:19.911335 26644 net.cpp:151] Top shape: 20 64 10 10 (128000)
I0504 12:48:19.911339 26644 net.cpp:159] Memory required for data: 1032080
I0504 12:48:19.911342 26644 layer_factory.hpp:77] Creating layer conv2
I0504 12:48:19.911350 26644 net.cpp:94] Creating Layer conv2
I0504 12:48:19.911353 26644 net.cpp:435] conv2 <- conv1
I0504 12:48:19.911360 26644 net.cpp:409] conv2 -> conv2
I0504 12:48:19.916425 26644 net.cpp:144] Setting up conv2
I0504 12:48:19.916440 26644 net.cpp:151] Top shape: 20 64 10 10 (128000)
I0504 12:48:19.916445 26644 net.cpp:159] Memory required for data: 1544080
I0504 12:48:19.916452 26644 layer_factory.hpp:77] Creating layer relu2
I0504 12:48:19.916460 26644 net.cpp:94] Creating Layer relu2
I0504 12:48:19.916463 26644 net.cpp:435] relu2 <- conv2
I0504 12:48:19.916468 26644 net.cpp:396] relu2 -> conv2 (in-place)
I0504 12:48:19.916476 26644 net.cpp:144] Setting up relu2
I0504 12:48:19.916481 26644 net.cpp:151] Top shape: 20 64 10 10 (128000)
I0504 12:48:19.916483 26644 net.cpp:159] Memory required for data: 2056080
I0504 12:48:19.916487 26644 layer_factory.hpp:77] Creating layer pool2
I0504 12:48:19.916496 26644 net.cpp:94] Creating Layer pool2
I0504 12:48:19.916504 26644 net.cpp:435] pool2 <- conv2
I0504 12:48:19.916510 26644 net.cpp:409] pool2 -> pool2
I0504 12:48:19.916564 26644 net.cpp:144] Setting up pool2
I0504 12:48:19.916574 26644 net.cpp:151] Top shape: 20 64 5 5 (32000)
I0504 12:48:19.916577 26644 net.cpp:159] Memory required for data: 2184080
I0504 12:48:19.916580 26644 layer_factory.hpp:77] Creating layer conv3
I0504 12:48:19.916589 26644 net.cpp:94] Creating Layer conv3
I0504 12:48:19.916592 26644 net.cpp:435] conv3 <- pool2
I0504 12:48:19.916599 26644 net.cpp:409] conv3 -> conv3
I0504 12:48:19.924654 26644 net.cpp:144] Setting up conv3
I0504 12:48:19.924669 26644 net.cpp:151] Top shape: 20 128 5 5 (64000)
I0504 12:48:19.924674 26644 net.cpp:159] Memory required for data: 2440080
I0504 12:48:19.924682 26644 layer_factory.hpp:77] Creating layer relu3
I0504 12:48:19.924687 26644 net.cpp:94] Creating Layer relu3
I0504 12:48:19.924692 26644 net.cpp:435] relu3 <- conv3
I0504 12:48:19.924697 26644 net.cpp:396] relu3 -> conv3 (in-place)
I0504 12:48:19.924705 26644 net.cpp:144] Setting up relu3
I0504 12:48:19.924710 26644 net.cpp:151] Top shape: 20 128 5 5 (64000)
I0504 12:48:19.924712 26644 net.cpp:159] Memory required for data: 2696080
I0504 12:48:19.924716 26644 layer_factory.hpp:77] Creating layer conv4
I0504 12:48:19.924726 26644 net.cpp:94] Creating Layer conv4
I0504 12:48:19.924728 26644 net.cpp:435] conv4 <- conv3
I0504 12:48:19.924733 26644 net.cpp:409] conv4 -> conv4
I0504 12:48:19.939417 26644 net.cpp:144] Setting up conv4
I0504 12:48:19.939432 26644 net.cpp:151] Top shape: 20 128 5 5 (64000)
I0504 12:48:19.939436 26644 net.cpp:159] Memory required for data: 2952080
I0504 12:48:19.939443 26644 layer_factory.hpp:77] Creating layer relu4
I0504 12:48:19.939450 26644 net.cpp:94] Creating Layer relu4
I0504 12:48:19.939453 26644 net.cpp:435] relu4 <- conv4
I0504 12:48:19.939458 26644 net.cpp:396] relu4 -> conv4 (in-place)
I0504 12:48:19.939465 26644 net.cpp:144] Setting up relu4
I0504 12:48:19.939471 26644 net.cpp:151] Top shape: 20 128 5 5 (64000)
I0504 12:48:19.939474 26644 net.cpp:159] Memory required for data: 3208080
I0504 12:48:19.939477 26644 layer_factory.hpp:77] Creating layer conv5
I0504 12:48:19.939486 26644 net.cpp:94] Creating Layer conv5
I0504 12:48:19.939489 26644 net.cpp:435] conv5 <- conv4
I0504 12:48:19.939494 26644 net.cpp:409] conv5 -> conv5
I0504 12:48:19.953824 26644 net.cpp:144] Setting up conv5
I0504 12:48:19.953840 26644 net.cpp:151] Top shape: 20 128 5 5 (64000)
I0504 12:48:19.953843 26644 net.cpp:159] Memory required for data: 3464080
I0504 12:48:19.953852 26644 layer_factory.hpp:77] Creating layer relu5
I0504 12:48:19.953858 26644 net.cpp:94] Creating Layer relu5
I0504 12:48:19.953862 26644 net.cpp:435] relu5 <- conv5
I0504 12:48:19.953867 26644 net.cpp:396] relu5 -> conv5 (in-place)
I0504 12:48:19.953874 26644 net.cpp:144] Setting up relu5
I0504 12:48:19.953879 26644 net.cpp:151] Top shape: 20 128 5 5 (64000)
I0504 12:48:19.953882 26644 net.cpp:159] Memory required for data: 3720080
I0504 12:48:19.953886 26644 layer_factory.hpp:77] Creating layer pool5
I0504 12:48:19.953891 26644 net.cpp:94] Creating Layer pool5
I0504 12:48:19.953896 26644 net.cpp:435] pool5 <- conv5
I0504 12:48:19.953899 26644 net.cpp:409] pool5 -> pool5
I0504 12:48:19.953933 26644 net.cpp:144] Setting up pool5
I0504 12:48:19.953941 26644 net.cpp:151] Top shape: 20 128 2 2 (10240)
I0504 12:48:19.953944 26644 net.cpp:159] Memory required for data: 3761040
I0504 12:48:19.953948 26644 layer_factory.hpp:77] Creating layer ip1
I0504 12:48:19.953958 26644 net.cpp:94] Creating Layer ip1
I0504 12:48:19.953961 26644 net.cpp:435] ip1 <- pool5
I0504 12:48:19.953966 26644 net.cpp:409] ip1 -> ip1
I0504 12:48:19.968040 26644 net.cpp:144] Setting up ip1
I0504 12:48:19.968055 26644 net.cpp:151] Top shape: 20 1024 (20480)
I0504 12:48:19.968060 26644 net.cpp:159] Memory required for data: 3842960
I0504 12:48:19.968065 26644 layer_factory.hpp:77] Creating layer ip2
I0504 12:48:19.968072 26644 net.cpp:94] Creating Layer ip2
I0504 12:48:19.968076 26644 net.cpp:435] ip2 <- ip1
I0504 12:48:19.968086 26644 net.cpp:409] ip2 -> ip2
I0504 12:48:19.981514 26644 net.cpp:144] Setting up ip2
I0504 12:48:19.981528 26644 net.cpp:151] Top shape: 20 512 (10240)
I0504 12:48:19.981533 26644 net.cpp:159] Memory required for data: 3883920
I0504 12:48:19.981539 26644 layer_factory.hpp:77] Creating layer ip3
I0504 12:48:19.981545 26644 net.cpp:94] Creating Layer ip3
I0504 12:48:19.981549 26644 net.cpp:435] ip3 <- ip2
I0504 12:48:19.981554 26644 net.cpp:409] ip3 -> ip3
I0504 12:48:19.981631 26644 net.cpp:144] Setting up ip3
I0504 12:48:19.981638 26644 net.cpp:151] Top shape: 20 1 (20)
I0504 12:48:19.981648 26644 net.cpp:159] Memory required for data: 3884000
I0504 12:48:19.981654 26644 layer_factory.hpp:77] Creating layer loss
I0504 12:48:19.981662 26644 net.cpp:94] Creating Layer loss
I0504 12:48:19.981665 26644 net.cpp:435] loss <- ip3
I0504 12:48:19.981669 26644 net.cpp:435] loss <- label
I0504 12:48:19.981675 26644 net.cpp:409] loss -> loss
I0504 12:48:19.981710 26644 net.cpp:144] Setting up loss
…
