…
I0507 14:19:18.144363  2920 net.cpp:323] The NetState phase (0) differed from the phase (1) specified by a rule in layer intercept
I0507 14:19:18.144384  2920 net.cpp:323] The NetState phase (0) differed from the phase (1) specified by a rule in layer loss
I0507 14:19:18.144497  2920 net.cpp:52] Initializing net from parameters: 
state {
  phase: TRAIN
}
layer {
  name: "parameters"
  type: "HDF5Data"
  top: "data"
  top: "label"
  include {
    phase: TRAIN
  }
  hdf5_data_param {
    source: "/home/purduethu/scratch/radon/d/deng106/CNNStatisticalModel/distributions/input/5_distributions_100_sample_size_train-parameters-path.txt"
    batch_size: 20
  }
}
layer {
  name: "conv1"
  type: "Convolution"
  bottom: "data"
  top: "conv1"
  param {
    lr_mult: 1
  }
  param {
    lr_mult: 2
  }
  convolution_param {
    num_output: 64
    pad: 2
    kernel_size: 5
    stride: 1
    weight_filler {
      type: "gaussian"
      std: 0.0001
    }
    bias_filler {
      type: "constant"
    }
  }
}
layer {
  name: "relu1"
  type: "ReLU"
  bottom: "conv1"
  top: "conv1"
}
layer {
  name: "conv2"
  type: "Convolution"
  bottom: "conv1"
  top: "conv2"
  param {
    lr_mult: 1
  }
  param {
    lr_mult: 2
  }
  convolution_param {
    num_output: 64
    pad: 2
    kernel_size: 5
    stride: 1
    weight_filler {
      type: "gaussian"
      std: 0.01
    }
    bias_filler {
      type: "constant"
    }
  }
}
layer {
  name: "relu2"
  type: "ReLU"
  bottom: "conv2"
  top: "conv2"
}
layer {
  name: "pool2"
  type: "Pooling"
  bottom: "conv2"
  top: "pool2"
  pooling_param {
    pool: MAX
    kernel_size: 3
    stride: 2
  }
}
layer {
  name: "conv3"
  type: "Convolution"
  bottom: "pool2"
  top: "conv3"
  param {
    lr_mult: 1
  }
  param {
    lr_mult: 2
  }
  convolution_param {
    num_output: 64
    pad: 2
    kernel_size: 5
    stride: 1
    weight_filler {
      type: "gaussian"
      std: 0.01
    }
    bias_filler {
      type: "constant"
    }
  }
}
layer {
  name: "relu3"
  type: "ReLU"
  bottom: "conv3"
  top: "conv3"
}
layer {
  name: "conv4"
  type: "Convolution"
  bottom: "conv3"
  top: "conv4"
  param {
    lr_mult: 1
  }
  param {
    lr_mult: 2
  }
  convolution_param {
    num_output: 64
    pad: 2
    kernel_size: 5
    stride: 1
    weight_filler {
      type: "gaussian"
      std: 0.01
    }
    bias_filler {
      type: "constant"
    }
  }
}
layer {
  name: "relu4"
  type: "ReLU"
  bottom: "conv4"
  top: "conv4"
}
layer {
  name: "conv5"
  type: "Convolution"
  bottom: "conv4"
  top: "conv5"
  param {
    lr_mult: 1
  }
  param {
    lr_mult: 2
  }
  convolution_param {
    num_output: 64
    pad: 2
    kernel_size: 5
    stride: 1
    weight_filler {
      type: "gaussian"
      std: 0.01
    }
    bias_filler {
      type: "constant"
    }
  }
}
layer {
  name: "relu5"
  type: "ReLU"
  bottom: "conv5"
  top: "conv5"
}
layer {
  name: "pool5"
  type: "Pooling"
  bottom: "conv5"
  top: "pool5"
  pooling_param {
    pool: AVE
    kernel_size: 3
    stride: 2
  }
}
layer {
  name: "ip1"
  type: "InnerProduct"
  bottom: "pool5"
  top: "ip1"
  param {
    lr_mult: 1
  }
  param {
    lr_mult: 2
  }
  inner_product_param {
    num_output: 64
    weight_filler {
      type: "gaussian"
      std: 0.1
    }
    bias_filler {
      type: "constant"
    }
  }
}
layer {
  name: "ip2"
  type: "InnerProduct"
  bottom: "ip1"
  top: "ip2"
  param {
    lr_mult: 1
  }
  param {
    lr_mult: 2
  }
  inner_product_param {
    num_output: 64
    weight_filler {
      type: "gaussian"
      std: 0.1
    }
    bias_filler {
      type: "constant"
    }
  }
}
layer {
  name: "ip3"
  type: "InnerProduct"
  bottom: "ip2"
  top: "ip3"
  param {
    lr_mult: 1
  }
  param {
    lr_mult: 2
  }
  inner_product_param {
    num_output: 1
    weight_filler {
      type: "gaussian"
      std: 0.1
    }
    bias_filler {
      type: "constant"
    }
  }
}
layer {
  name: "loss"
  type: "HuberLoss"
  bottom: "ip3"
  bottom: "label"
  top: "loss"
  include {
    phase: TRAIN
  }
}
I0507 14:19:18.144582  2920 layer_factory.hpp:77] Creating layer parameters
I0507 14:19:18.144603  2920 net.cpp:94] Creating Layer parameters
I0507 14:19:18.144608  2920 net.cpp:409] parameters -> data
I0507 14:19:18.144618  2920 net.cpp:409] parameters -> label
I0507 14:19:18.144625  2920 hdf5_data_layer.cpp:79] Loading list of HDF5 filenames from: /home/purduethu/scratch/radon/d/deng106/CNNStatisticalModel/distributions/input/5_distributions_100_sample_size_train-parameters-path.txt
I0507 14:19:18.144645  2920 hdf5_data_layer.cpp:93] Number of HDF5 files: 1
I0507 14:19:18.145223  2920 hdf5.cpp:32] Datatype class: H5T_FLOAT
I0507 14:19:18.164834  2920 net.cpp:144] Setting up parameters
I0507 14:19:18.164872  2920 net.cpp:151] Top shape: 20 1 10 10 (2000)
I0507 14:19:18.164877  2920 net.cpp:151] Top shape: 20 (20)
I0507 14:19:18.164881  2920 net.cpp:159] Memory required for data: 8080
I0507 14:19:18.164887  2920 layer_factory.hpp:77] Creating layer conv1
I0507 14:19:18.164911  2920 net.cpp:94] Creating Layer conv1
I0507 14:19:18.164914  2920 net.cpp:435] conv1 <- data
I0507 14:19:18.164921  2920 net.cpp:409] conv1 -> conv1
I0507 14:19:18.169078  2920 net.cpp:144] Setting up conv1
I0507 14:19:18.169093  2920 net.cpp:151] Top shape: 20 64 10 10 (128000)
I0507 14:19:18.169097  2920 net.cpp:159] Memory required for data: 520080
I0507 14:19:18.169106  2920 layer_factory.hpp:77] Creating layer relu1
I0507 14:19:18.169114  2920 net.cpp:94] Creating Layer relu1
I0507 14:19:18.169118  2920 net.cpp:435] relu1 <- conv1
I0507 14:19:18.169122  2920 net.cpp:396] relu1 -> conv1 (in-place)
I0507 14:19:18.169133  2920 net.cpp:144] Setting up relu1
I0507 14:19:18.169138  2920 net.cpp:151] Top shape: 20 64 10 10 (128000)
I0507 14:19:18.169142  2920 net.cpp:159] Memory required for data: 1032080
I0507 14:19:18.169144  2920 layer_factory.hpp:77] Creating layer conv2
I0507 14:19:18.169152  2920 net.cpp:94] Creating Layer conv2
I0507 14:19:18.169157  2920 net.cpp:435] conv2 <- conv1
I0507 14:19:18.169162  2920 net.cpp:409] conv2 -> conv2
I0507 14:19:18.175232  2920 net.cpp:144] Setting up conv2
I0507 14:19:18.175247  2920 net.cpp:151] Top shape: 20 64 10 10 (128000)
I0507 14:19:18.175251  2920 net.cpp:159] Memory required for data: 1544080
I0507 14:19:18.175258  2920 layer_factory.hpp:77] Creating layer relu2
I0507 14:19:18.175266  2920 net.cpp:94] Creating Layer relu2
I0507 14:19:18.175268  2920 net.cpp:435] relu2 <- conv2
I0507 14:19:18.175273  2920 net.cpp:396] relu2 -> conv2 (in-place)
I0507 14:19:18.175281  2920 net.cpp:144] Setting up relu2
I0507 14:19:18.175284  2920 net.cpp:151] Top shape: 20 64 10 10 (128000)
I0507 14:19:18.175287  2920 net.cpp:159] Memory required for data: 2056080
I0507 14:19:18.175290  2920 layer_factory.hpp:77] Creating layer pool2
I0507 14:19:18.175302  2920 net.cpp:94] Creating Layer pool2
I0507 14:19:18.175307  2920 net.cpp:435] pool2 <- conv2
I0507 14:19:18.175312  2920 net.cpp:409] pool2 -> pool2
I0507 14:19:18.175362  2920 net.cpp:144] Setting up pool2
I0507 14:19:18.175370  2920 net.cpp:151] Top shape: 20 64 5 5 (32000)
I0507 14:19:18.175374  2920 net.cpp:159] Memory required for data: 2184080
I0507 14:19:18.175376  2920 layer_factory.hpp:77] Creating layer conv3
I0507 14:19:18.175384  2920 net.cpp:94] Creating Layer conv3
I0507 14:19:18.175389  2920 net.cpp:435] conv3 <- pool2
I0507 14:19:18.175393  2920 net.cpp:409] conv3 -> conv3
I0507 14:19:18.180346  2920 net.cpp:144] Setting up conv3
I0507 14:19:18.180361  2920 net.cpp:151] Top shape: 20 64 5 5 (32000)
I0507 14:19:18.180364  2920 net.cpp:159] Memory required for data: 2312080
I0507 14:19:18.180372  2920 layer_factory.hpp:77] Creating layer relu3
I0507 14:19:18.180378  2920 net.cpp:94] Creating Layer relu3
I0507 14:19:18.180382  2920 net.cpp:435] relu3 <- conv3
I0507 14:19:18.180387  2920 net.cpp:396] relu3 -> conv3 (in-place)
I0507 14:19:18.180393  2920 net.cpp:144] Setting up relu3
I0507 14:19:18.180397  2920 net.cpp:151] Top shape: 20 64 5 5 (32000)
I0507 14:19:18.180400  2920 net.cpp:159] Memory required for data: 2440080
I0507 14:19:18.180403  2920 layer_factory.hpp:77] Creating layer conv4
I0507 14:19:18.180411  2920 net.cpp:94] Creating Layer conv4
I0507 14:19:18.180415  2920 net.cpp:435] conv4 <- conv3
I0507 14:19:18.180420  2920 net.cpp:409] conv4 -> conv4
I0507 14:19:18.184897  2920 net.cpp:144] Setting up conv4
I0507 14:19:18.184911  2920 net.cpp:151] Top shape: 20 64 5 5 (32000)
I0507 14:19:18.184916  2920 net.cpp:159] Memory required for data: 2568080
I0507 14:19:18.184921  2920 layer_factory.hpp:77] Creating layer relu4
I0507 14:19:18.184927  2920 net.cpp:94] Creating Layer relu4
I0507 14:19:18.184931  2920 net.cpp:435] relu4 <- conv4
I0507 14:19:18.184936  2920 net.cpp:396] relu4 -> conv4 (in-place)
I0507 14:19:18.184942  2920 net.cpp:144] Setting up relu4
I0507 14:19:18.184947  2920 net.cpp:151] Top shape: 20 64 5 5 (32000)
I0507 14:19:18.184949  2920 net.cpp:159] Memory required for data: 2696080
I0507 14:19:18.184953  2920 layer_factory.hpp:77] Creating layer conv5
I0507 14:19:18.184960  2920 net.cpp:94] Creating Layer conv5
I0507 14:19:18.184964  2920 net.cpp:435] conv5 <- conv4
I0507 14:19:18.184968  2920 net.cpp:409] conv5 -> conv5
I0507 14:19:18.189891  2920 net.cpp:144] Setting up conv5
I0507 14:19:18.189905  2920 net.cpp:151] Top shape: 20 64 5 5 (32000)
I0507 14:19:18.189909  2920 net.cpp:159] Memory required for data: 2824080
I0507 14:19:18.189918  2920 layer_factory.hpp:77] Creating layer relu5
I0507 14:19:18.189924  2920 net.cpp:94] Creating Layer relu5
I0507 14:19:18.189927  2920 net.cpp:435] relu5 <- conv5
I0507 14:19:18.189932  2920 net.cpp:396] relu5 -> conv5 (in-place)
I0507 14:19:18.189939  2920 net.cpp:144] Setting up relu5
I0507 14:19:18.189944  2920 net.cpp:151] Top shape: 20 64 5 5 (32000)
I0507 14:19:18.189946  2920 net.cpp:159] Memory required for data: 2952080
I0507 14:19:18.189949  2920 layer_factory.hpp:77] Creating layer pool5
I0507 14:19:18.189954  2920 net.cpp:94] Creating Layer pool5
I0507 14:19:18.189957  2920 net.cpp:435] pool5 <- conv5
I0507 14:19:18.189961  2920 net.cpp:409] pool5 -> pool5
I0507 14:19:18.189998  2920 net.cpp:144] Setting up pool5
I0507 14:19:18.190006  2920 net.cpp:151] Top shape: 20 64 2 2 (5120)
I0507 14:19:18.190009  2920 net.cpp:159] Memory required for data: 2972560
I0507 14:19:18.190012  2920 layer_factory.hpp:77] Creating layer ip1
I0507 14:19:18.190021  2920 net.cpp:94] Creating Layer ip1
I0507 14:19:18.190026  2920 net.cpp:435] ip1 <- pool5
I0507 14:19:18.190030  2920 net.cpp:409] ip1 -> ip1
I0507 14:19:18.191367  2920 net.cpp:144] Setting up ip1
I0507 14:19:18.191380  2920 net.cpp:151] Top shape: 20 64 (1280)
I0507 14:19:18.191385  2920 net.cpp:159] Memory required for data: 2977680
I0507 14:19:18.191390  2920 layer_factory.hpp:77] Creating layer ip2
I0507 14:19:18.191397  2920 net.cpp:94] Creating Layer ip2
I0507 14:19:18.191407  2920 net.cpp:435] ip2 <- ip1
I0507 14:19:18.191413  2920 net.cpp:409] ip2 -> ip2
I0507 14:19:18.191627  2920 net.cpp:144] Setting up ip2
I0507 14:19:18.191635  2920 net.cpp:151] Top shape: 20 64 (1280)
I0507 14:19:18.191639  2920 net.cpp:159] Memory required for data: 2982800
I0507 14:19:18.191644  2920 layer_factory.hpp:77] Creating layer ip3
I0507 14:19:18.191650  2920 net.cpp:94] Creating Layer ip3
I0507 14:19:18.191654  2920 net.cpp:435] ip3 <- ip2
I0507 14:19:18.191658  2920 net.cpp:409] ip3 -> ip3
I0507 14:19:18.191761  2920 net.cpp:144] Setting up ip3
I0507 14:19:18.191767  2920 net.cpp:151] Top shape: 20 1 (20)
I0507 14:19:18.191771  2920 net.cpp:159] Memory required for data: 2982880
I0507 14:19:18.191776  2920 layer_factory.hpp:77] Creating layer loss
I0507 14:19:18.191782  2920 net.cpp:94] Creating Layer loss
I0507 14:19:18.191787  2920 net.cpp:435] loss <- ip3
I0507 14:19:18.191790  2920 net.cpp:435] loss <- label
I0507 14:19:18.191794  2920 net.cpp:409] loss -> loss
I0507 14:19:18.191843  2920 net.cpp:144] Setting up loss
…
I0507 14:19:18.219081  2920 net.cpp:323] The NetState phase (0) differed from the phase (1) specified by a rule in layer intercept
I0507 14:19:18.219096  2920 net.cpp:323] The NetState phase (0) differed from the phase (1) specified by a rule in layer accuracy
I0507 14:19:18.219183  2920 net.cpp:52] Initializing net from parameters: 
state {
  phase: TRAIN
}
layer {
  name: "parameters"
  type: "HDF5Data"
  top: "data"
  top: "label"
  include {
    phase: TRAIN
  }
  hdf5_data_param {
    source: "/home/purduethu/scratch/radon/d/deng106/CNNStatisticalModel/distributions/input/5_distributions_100_sample_size_train-distributions-path.txt"
    batch_size: 20
  }
}
layer {
  name: "conv1"
  type: "Convolution"
  bottom: "data"
  top: "conv1"
  param {
    lr_mult: 1
  }
  param {
    lr_mult: 2
  }
  convolution_param {
    num_output: 64
    pad: 2
    kernel_size: 5
    stride: 1
    weight_filler {
      type: "gaussian"
      std: 0.0001
    }
    bias_filler {
      type: "constant"
    }
  }
}
layer {
  name: "relu1"
  type: "ReLU"
  bottom: "conv1"
  top: "conv1"
}
layer {
  name: "conv2"
  type: "Convolution"
  bottom: "conv1"
  top: "conv2"
  param {
    lr_mult: 1
  }
  param {
    lr_mult: 2
  }
  convolution_param {
    num_output: 64
    pad: 2
    kernel_size: 5
    stride: 1
    weight_filler {
      type: "gaussian"
      std: 0.01
    }
    bias_filler {
      type: "constant"
    }
  }
}
layer {
  name: "relu2"
  type: "ReLU"
  bottom: "conv2"
  top: "conv2"
}
layer {
  name: "pool2"
  type: "Pooling"
  bottom: "conv2"
  top: "pool2"
  pooling_param {
    pool: MAX
    kernel_size: 3
    stride: 2
  }
}
layer {
  name: "conv3"
  type: "Convolution"
  bottom: "pool2"
  top: "conv3"
  param {
    lr_mult: 1
  }
  param {
    lr_mult: 2
  }
  convolution_param {
    num_output: 64
    pad: 2
    kernel_size: 5
    stride: 1
    weight_filler {
      type: "gaussian"
      std: 0.01
    }
    bias_filler {
      type: "constant"
    }
  }
}
layer {
  name: "relu3"
  type: "ReLU"
  bottom: "conv3"
  top: "conv3"
}
layer {
  name: "conv4"
  type: "Convolution"
  bottom: "conv3"
  top: "conv4"
  param {
    lr_mult: 1
  }
  param {
    lr_mult: 2
  }
  convolution_param {
    num_output: 64
    pad: 2
    kernel_size: 5
    stride: 1
    weight_filler {
      type: "gaussian"
      std: 0.01
    }
    bias_filler {
      type: "constant"
    }
  }
}
layer {
  name: "relu4"
  type: "ReLU"
  bottom: "conv4"
  top: "conv4"
}
layer {
  name: "conv5"
  type: "Convolution"
  bottom: "conv4"
  top: "conv5"
  param {
    lr_mult: 1
  }
  param {
    lr_mult: 2
  }
  convolution_param {
    num_output: 64
    pad: 2
    kernel_size: 5
    stride: 1
    weight_filler {
      type: "gaussian"
      std: 0.01
    }
    bias_filler {
      type: "constant"
    }
  }
}
layer {
  name: "relu5"
  type: "ReLU"
  bottom: "conv5"
  top: "conv5"
}
layer {
  name: "pool5"
  type: "Pooling"
  bottom: "conv5"
  top: "pool5"
  pooling_param {
    pool: AVE
    kernel_size: 3
    stride: 2
  }
}
layer {
  name: "ip1"
  type: "InnerProduct"
  bottom: "pool5"
  top: "ip1"
  param {
    lr_mult: 1
  }
  param {
    lr_mult: 2
  }
  inner_product_param {
    num_output: 64
    weight_filler {
      type: "gaussian"
      std: 0.1
    }
    bias_filler {
      type: "constant"
    }
  }
}
layer {
  name: "ip2"
  type: "InnerProduct"
  bottom: "ip1"
  top: "ip2"
  param {
    lr_mult: 1
  }
  param {
    lr_mult: 2
  }
  inner_product_param {
    num_output: 64
    weight_filler {
      type: "gaussian"
      std: 0.1
    }
    bias_filler {
      type: "constant"
    }
  }
}
layer {
  name: "ip3"
  type: "InnerProduct"
  bottom: "ip2"
  top: "ip3"
  param {
    lr_mult: 1
  }
  param {
    lr_mult: 2
  }
  inner_product_param {
    num_output: 50
    weight_filler {
      type: "gaussian"
      std: 0.1
    }
    bias_filler {
      type: "constant"
    }
  }
}
layer {
  name: "loss"
  type: "SoftmaxWithLoss"
  bottom: "ip3"
  bottom: "label"
  top: "loss"
}
I0507 14:19:18.219233  2920 layer_factory.hpp:77] Creating layer parameters
I0507 14:19:18.219240  2920 net.cpp:94] Creating Layer parameters
I0507 14:19:18.219244  2920 net.cpp:409] parameters -> data
I0507 14:19:18.219251  2920 net.cpp:409] parameters -> label
I0507 14:19:18.219257  2920 hdf5_data_layer.cpp:79] Loading list of HDF5 filenames from: /home/purduethu/scratch/radon/d/deng106/CNNStatisticalModel/distributions/input/5_distributions_100_sample_size_train-distributions-path.txt
I0507 14:19:18.219274  2920 hdf5_data_layer.cpp:93] Number of HDF5 files: 1
I0507 14:19:18.235340  2920 hdf5.cpp:35] Datatype class: H5T_INTEGER
I0507 14:19:18.235772  2920 net.cpp:144] Setting up parameters
I0507 14:19:18.235786  2920 net.cpp:151] Top shape: 20 1 10 10 (2000)
I0507 14:19:18.235791  2920 net.cpp:151] Top shape: 20 (20)
I0507 14:19:18.235795  2920 net.cpp:159] Memory required for data: 8080
I0507 14:19:18.235800  2920 layer_factory.hpp:77] Creating layer conv1
I0507 14:19:18.235816  2920 net.cpp:94] Creating Layer conv1
I0507 14:19:18.235821  2920 net.cpp:435] conv1 <- data
I0507 14:19:18.235827  2920 net.cpp:409] conv1 -> conv1
I0507 14:19:18.237574  2920 net.cpp:144] Setting up conv1
I0507 14:19:18.237588  2920 net.cpp:151] Top shape: 20 64 10 10 (128000)
I0507 14:19:18.237592  2920 net.cpp:159] Memory required for data: 520080
I0507 14:19:18.237601  2920 layer_factory.hpp:77] Creating layer relu1
I0507 14:19:18.237608  2920 net.cpp:94] Creating Layer relu1
I0507 14:19:18.237612  2920 net.cpp:435] relu1 <- conv1
I0507 14:19:18.237617  2920 net.cpp:396] relu1 -> conv1 (in-place)
I0507 14:19:18.237624  2920 net.cpp:144] Setting up relu1
I0507 14:19:18.237629  2920 net.cpp:151] Top shape: 20 64 10 10 (128000)
I0507 14:19:18.237632  2920 net.cpp:159] Memory required for data: 1032080
I0507 14:19:18.237634  2920 layer_factory.hpp:77] Creating layer conv2
I0507 14:19:18.237643  2920 net.cpp:94] Creating Layer conv2
I0507 14:19:18.237645  2920 net.cpp:435] conv2 <- conv1
I0507 14:19:18.237650  2920 net.cpp:409] conv2 -> conv2
I0507 14:19:18.243167  2920 net.cpp:144] Setting up conv2
I0507 14:19:18.243181  2920 net.cpp:151] Top shape: 20 64 10 10 (128000)
I0507 14:19:18.243185  2920 net.cpp:159] Memory required for data: 1544080
I0507 14:19:18.243192  2920 layer_factory.hpp:77] Creating layer relu2
I0507 14:19:18.243199  2920 net.cpp:94] Creating Layer relu2
I0507 14:19:18.243202  2920 net.cpp:435] relu2 <- conv2
I0507 14:19:18.243207  2920 net.cpp:396] relu2 -> conv2 (in-place)
I0507 14:19:18.243214  2920 net.cpp:144] Setting up relu2
I0507 14:19:18.243218  2920 net.cpp:151] Top shape: 20 64 10 10 (128000)
I0507 14:19:18.243222  2920 net.cpp:159] Memory required for data: 2056080
I0507 14:19:18.243227  2920 layer_factory.hpp:77] Creating layer pool2
I0507 14:19:18.243234  2920 net.cpp:94] Creating Layer pool2
I0507 14:19:18.243240  2920 net.cpp:435] pool2 <- conv2
I0507 14:19:18.243245  2920 net.cpp:409] pool2 -> pool2
I0507 14:19:18.243294  2920 net.cpp:144] Setting up pool2
I0507 14:19:18.243302  2920 net.cpp:151] Top shape: 20 64 5 5 (32000)
I0507 14:19:18.243305  2920 net.cpp:159] Memory required for data: 2184080
I0507 14:19:18.243309  2920 layer_factory.hpp:77] Creating layer conv3
I0507 14:19:18.243316  2920 net.cpp:94] Creating Layer conv3
I0507 14:19:18.243320  2920 net.cpp:435] conv3 <- pool2
I0507 14:19:18.243324  2920 net.cpp:409] conv3 -> conv3
I0507 14:19:18.248325  2920 net.cpp:144] Setting up conv3
I0507 14:19:18.248345  2920 net.cpp:151] Top shape: 20 64 5 5 (32000)
I0507 14:19:18.248349  2920 net.cpp:159] Memory required for data: 2312080
I0507 14:19:18.248358  2920 layer_factory.hpp:77] Creating layer relu3
I0507 14:19:18.248363  2920 net.cpp:94] Creating Layer relu3
I0507 14:19:18.248366  2920 net.cpp:435] relu3 <- conv3
I0507 14:19:18.248371  2920 net.cpp:396] relu3 -> conv3 (in-place)
I0507 14:19:18.248378  2920 net.cpp:144] Setting up relu3
I0507 14:19:18.248383  2920 net.cpp:151] Top shape: 20 64 5 5 (32000)
I0507 14:19:18.248385  2920 net.cpp:159] Memory required for data: 2440080
I0507 14:19:18.248389  2920 layer_factory.hpp:77] Creating layer conv4
I0507 14:19:18.248396  2920 net.cpp:94] Creating Layer conv4
I0507 14:19:18.248400  2920 net.cpp:435] conv4 <- conv3
I0507 14:19:18.248404  2920 net.cpp:409] conv4 -> conv4
I0507 14:19:18.254230  2920 net.cpp:144] Setting up conv4
I0507 14:19:18.254245  2920 net.cpp:151] Top shape: 20 64 5 5 (32000)
I0507 14:19:18.254248  2920 net.cpp:159] Memory required for data: 2568080
I0507 14:19:18.254254  2920 layer_factory.hpp:77] Creating layer relu4
I0507 14:19:18.254261  2920 net.cpp:94] Creating Layer relu4
I0507 14:19:18.254264  2920 net.cpp:435] relu4 <- conv4
I0507 14:19:18.254268  2920 net.cpp:396] relu4 -> conv4 (in-place)
I0507 14:19:18.254276  2920 net.cpp:144] Setting up relu4
I0507 14:19:18.254281  2920 net.cpp:151] Top shape: 20 64 5 5 (32000)
I0507 14:19:18.254283  2920 net.cpp:159] Memory required for data: 2696080
I0507 14:19:18.254287  2920 layer_factory.hpp:77] Creating layer conv5
I0507 14:19:18.254293  2920 net.cpp:94] Creating Layer conv5
I0507 14:19:18.254297  2920 net.cpp:435] conv5 <- conv4
I0507 14:19:18.254302  2920 net.cpp:409] conv5 -> conv5
I0507 14:19:18.258797  2920 net.cpp:144] Setting up conv5
I0507 14:19:18.258810  2920 net.cpp:151] Top shape: 20 64 5 5 (32000)
I0507 14:19:18.258815  2920 net.cpp:159] Memory required for data: 2824080
I0507 14:19:18.258822  2920 layer_factory.hpp:77] Creating layer relu5
I0507 14:19:18.258828  2920 net.cpp:94] Creating Layer relu5
I0507 14:19:18.258832  2920 net.cpp:435] relu5 <- conv5
I0507 14:19:18.258836  2920 net.cpp:396] relu5 -> conv5 (in-place)
I0507 14:19:18.258843  2920 net.cpp:144] Setting up relu5
I0507 14:19:18.258847  2920 net.cpp:151] Top shape: 20 64 5 5 (32000)
I0507 14:19:18.258851  2920 net.cpp:159] Memory required for data: 2952080
I0507 14:19:18.258853  2920 layer_factory.hpp:77] Creating layer pool5
I0507 14:19:18.258858  2920 net.cpp:94] Creating Layer pool5
I0507 14:19:18.258862  2920 net.cpp:435] pool5 <- conv5
I0507 14:19:18.258867  2920 net.cpp:409] pool5 -> pool5
I0507 14:19:18.258900  2920 net.cpp:144] Setting up pool5
I0507 14:19:18.258908  2920 net.cpp:151] Top shape: 20 64 2 2 (5120)
I0507 14:19:18.258910  2920 net.cpp:159] Memory required for data: 2972560
I0507 14:19:18.258913  2920 layer_factory.hpp:77] Creating layer ip1
I0507 14:19:18.258920  2920 net.cpp:94] Creating Layer ip1
I0507 14:19:18.258924  2920 net.cpp:435] ip1 <- pool5
I0507 14:19:18.258927  2920 net.cpp:409] ip1 -> ip1
I0507 14:19:18.259455  2920 net.cpp:144] Setting up ip1
I0507 14:19:18.259464  2920 net.cpp:151] Top shape: 20 64 (1280)
I0507 14:19:18.259466  2920 net.cpp:159] Memory required for data: 2977680
I0507 14:19:18.259471  2920 layer_factory.hpp:77] Creating layer ip2
I0507 14:19:18.259477  2920 net.cpp:94] Creating Layer ip2
I0507 14:19:18.259481  2920 net.cpp:435] ip2 <- ip1
I0507 14:19:18.259486  2920 net.cpp:409] ip2 -> ip2
I0507 14:19:18.259711  2920 net.cpp:144] Setting up ip2
I0507 14:19:18.259717  2920 net.cpp:151] Top shape: 20 64 (1280)
I0507 14:19:18.259721  2920 net.cpp:159] Memory required for data: 2982800
I0507 14:19:18.259726  2920 layer_factory.hpp:77] Creating layer ip3
I0507 14:19:18.259732  2920 net.cpp:94] Creating Layer ip3
I0507 14:19:18.259735  2920 net.cpp:435] ip3 <- ip2
I0507 14:19:18.259740  2920 net.cpp:409] ip3 -> ip3
I0507 14:19:18.259939  2920 net.cpp:144] Setting up ip3
I0507 14:19:18.259946  2920 net.cpp:151] Top shape: 20 50 (1000)
I0507 14:19:18.259953  2920 net.cpp:159] Memory required for data: 2986800
I0507 14:19:18.259958  2920 layer_factory.hpp:77] Creating layer loss
I0507 14:19:18.259966  2920 net.cpp:94] Creating Layer loss
I0507 14:19:18.259969  2920 net.cpp:435] loss <- ip3
I0507 14:19:18.259974  2920 net.cpp:435] loss <- label
I0507 14:19:18.259977  2920 net.cpp:409] loss -> loss
I0507 14:19:18.259984  2920 layer_factory.hpp:77] Creating layer loss
…
I0507 14:19:18.261762  2920 solver.cpp:181] Creating test net (#0) specified by net file: ./protocol/dis_5_100_dimension.protocol_distribution
I0507 14:19:18.261790  2920 net.cpp:323] The NetState phase (1) differed from the phase (0) specified by a rule in layer parameters
I0507 14:19:18.261890  2920 net.cpp:52] Initializing net from parameters: 
state {
  phase: TEST
}
layer {
  name: "intercept"
  type: "HDF5Data"
  top: "data"
  top: "label"
  include {
    phase: TEST
  }
  hdf5_data_param {
    source: "/home/purduethu/scratch/radon/d/deng106/CNNStatisticalModel/distributions/input/5_distributions_100_sample_size_test-distributions-path.txt"
    batch_size: 20
  }
}
layer {
  name: "conv1"
  type: "Convolution"
  bottom: "data"
  top: "conv1"
  param {
    lr_mult: 1
  }
  param {
    lr_mult: 2
  }
  convolution_param {
    num_output: 64
    pad: 2
    kernel_size: 5
    stride: 1
    weight_filler {
      type: "gaussian"
      std: 0.0001
    }
    bias_filler {
      type: "constant"
    }
  }
}
layer {
  name: "relu1"
  type: "ReLU"
  bottom: "conv1"
  top: "conv1"
}
layer {
  name: "conv2"
  type: "Convolution"
  bottom: "conv1"
  top: "conv2"
  param {
    lr_mult: 1
  }
  param {
    lr_mult: 2
  }
  convolution_param {
    num_output: 64
    pad: 2
    kernel_size: 5
    stride: 1
    weight_filler {
      type: "gaussian"
      std: 0.01
    }
    bias_filler {
      type: "constant"
    }
  }
}
layer {
  name: "relu2"
  type: "ReLU"
  bottom: "conv2"
  top: "conv2"
}
layer {
  name: "pool2"
  type: "Pooling"
  bottom: "conv2"
  top: "pool2"
  pooling_param {
    pool: MAX
    kernel_size: 3
    stride: 2
  }
}
layer {
  name: "conv3"
  type: "Convolution"
  bottom: "pool2"
  top: "conv3"
  param {
    lr_mult: 1
  }
  param {
    lr_mult: 2
  }
  convolution_param {
    num_output: 64
    pad: 2
    kernel_size: 5
    stride: 1
    weight_filler {
      type: "gaussian"
      std: 0.01
    }
    bias_filler {
      type: "constant"
    }
  }
}
layer {
  name: "relu3"
  type: "ReLU"
  bottom: "conv3"
  top: "conv3"
}
layer {
  name: "conv4"
  type: "Convolution"
  bottom: "conv3"
  top: "conv4"
  param {
    lr_mult: 1
  }
  param {
    lr_mult: 2
  }
  convolution_param {
    num_output: 64
    pad: 2
    kernel_size: 5
    stride: 1
    weight_filler {
      type: "gaussian"
      std: 0.01
    }
    bias_filler {
      type: "constant"
    }
  }
}
layer {
  name: "relu4"
  type: "ReLU"
  bottom: "conv4"
  top: "conv4"
}
layer {
  name: "conv5"
  type: "Convolution"
  bottom: "conv4"
  top: "conv5"
  param {
    lr_mult: 1
  }
  param {
    lr_mult: 2
  }
  convolution_param {
    num_output: 64
    pad: 2
    kernel_size: 5
    stride: 1
    weight_filler {
      type: "gaussian"
      std: 0.01
    }
    bias_filler {
      type: "constant"
    }
  }
}
layer {
  name: "relu5"
  type: "ReLU"
  bottom: "conv5"
  top: "conv5"
}
layer {
  name: "pool5"
  type: "Pooling"
  bottom: "conv5"
  top: "pool5"
  pooling_param {
    pool: AVE
    kernel_size: 3
    stride: 2
  }
}
layer {
  name: "ip1"
  type: "InnerProduct"
  bottom: "pool5"
  top: "ip1"
  param {
    lr_mult: 1
  }
  param {
    lr_mult: 2
  }
  inner_product_param {
    num_output: 64
    weight_filler {
      type: "gaussian"
      std: 0.1
    }
    bias_filler {
      type: "constant"
    }
  }
}
layer {
  name: "ip2"
  type: "InnerProduct"
  bottom: "ip1"
  top: "ip2"
  param {
    lr_mult: 1
  }
  param {
    lr_mult: 2
  }
  inner_product_param {
    num_output: 64
    weight_filler {
      type: "gaussian"
      std: 0.1
    }
    bias_filler {
      type: "constant"
    }
  }
}
layer {
  name: "ip3"
  type: "InnerProduct"
  bottom: "ip2"
  top: "ip3"
  param {
    lr_mult: 1
  }
  param {
    lr_mult: 2
  }
  inner_product_param {
    num_output: 50
    weight_filler {
      type: "gaussian"
      std: 0.1
    }
    bias_filler {
      type: "constant"
    }
  }
}
layer {
  name: "accuracy"
  type: "Accuracy"
  bottom: "ip3"
  bottom: "label"
  top: "accuracy"
  include {
    phase: TEST
  }
}
layer {
  name: "loss"
  type: "SoftmaxWithLoss"
  bottom: "ip3"
  bottom: "label"
  top: "loss"
}
I0507 14:19:18.261961  2920 layer_factory.hpp:77] Creating layer intercept
I0507 14:19:18.261970  2920 net.cpp:94] Creating Layer intercept
I0507 14:19:18.261973  2920 net.cpp:409] intercept -> data
I0507 14:19:18.261981  2920 net.cpp:409] intercept -> label
I0507 14:19:18.261986  2920 hdf5_data_layer.cpp:79] Loading list of HDF5 filenames from: /home/purduethu/scratch/radon/d/deng106/CNNStatisticalModel/distributions/input/5_distributions_100_sample_size_test-distributions-path.txt
I0507 14:19:18.262008  2920 hdf5_data_layer.cpp:93] Number of HDF5 files: 1
I0507 14:19:18.266432  2920 net.cpp:144] Setting up intercept
I0507 14:19:18.266458  2920 net.cpp:151] Top shape: 20 1 10 10 (2000)
I0507 14:19:18.266463  2920 net.cpp:151] Top shape: 20 (20)
I0507 14:19:18.266466  2920 net.cpp:159] Memory required for data: 8080
I0507 14:19:18.266471  2920 layer_factory.hpp:77] Creating layer label_intercept_1_split
I0507 14:19:18.266487  2920 net.cpp:94] Creating Layer label_intercept_1_split
I0507 14:19:18.266491  2920 net.cpp:435] label_intercept_1_split <- label
I0507 14:19:18.266497  2920 net.cpp:409] label_intercept_1_split -> label_intercept_1_split_0
I0507 14:19:18.266505  2920 net.cpp:409] label_intercept_1_split -> label_intercept_1_split_1
I0507 14:19:18.266544  2920 net.cpp:144] Setting up label_intercept_1_split
I0507 14:19:18.266551  2920 net.cpp:151] Top shape: 20 (20)
I0507 14:19:18.266554  2920 net.cpp:151] Top shape: 20 (20)
I0507 14:19:18.266557  2920 net.cpp:159] Memory required for data: 8240
I0507 14:19:18.266561  2920 layer_factory.hpp:77] Creating layer conv1
I0507 14:19:18.266571  2920 net.cpp:94] Creating Layer conv1
I0507 14:19:18.266574  2920 net.cpp:435] conv1 <- data
I0507 14:19:18.266578  2920 net.cpp:409] conv1 -> conv1
I0507 14:19:18.267330  2920 net.cpp:144] Setting up conv1
I0507 14:19:18.267344  2920 net.cpp:151] Top shape: 20 64 10 10 (128000)
I0507 14:19:18.267348  2920 net.cpp:159] Memory required for data: 520240
I0507 14:19:18.267362  2920 layer_factory.hpp:77] Creating layer relu1
I0507 14:19:18.267369  2920 net.cpp:94] Creating Layer relu1
I0507 14:19:18.267374  2920 net.cpp:435] relu1 <- conv1
I0507 14:19:18.267377  2920 net.cpp:396] relu1 -> conv1 (in-place)
I0507 14:19:18.267385  2920 net.cpp:144] Setting up relu1
I0507 14:19:18.267390  2920 net.cpp:151] Top shape: 20 64 10 10 (128000)
I0507 14:19:18.267392  2920 net.cpp:159] Memory required for data: 1032240
I0507 14:19:18.267395  2920 layer_factory.hpp:77] Creating layer conv2
I0507 14:19:18.267403  2920 net.cpp:94] Creating Layer conv2
I0507 14:19:18.267407  2920 net.cpp:435] conv2 <- conv1
I0507 14:19:18.267411  2920 net.cpp:409] conv2 -> conv2
I0507 14:19:18.271505  2920 net.cpp:144] Setting up conv2
I0507 14:19:18.271519  2920 net.cpp:151] Top shape: 20 64 10 10 (128000)
I0507 14:19:18.271522  2920 net.cpp:159] Memory required for data: 1544240
I0507 14:19:18.271530  2920 layer_factory.hpp:77] Creating layer relu2
I0507 14:19:18.271536  2920 net.cpp:94] Creating Layer relu2
I0507 14:19:18.271539  2920 net.cpp:435] relu2 <- conv2
I0507 14:19:18.271544  2920 net.cpp:396] relu2 -> conv2 (in-place)
I0507 14:19:18.271550  2920 net.cpp:144] Setting up relu2
I0507 14:19:18.271555  2920 net.cpp:151] Top shape: 20 64 10 10 (128000)
I0507 14:19:18.271559  2920 net.cpp:159] Memory required for data: 2056240
I0507 14:19:18.271561  2920 layer_factory.hpp:77] Creating layer pool2
I0507 14:19:18.271566  2920 net.cpp:94] Creating Layer pool2
I0507 14:19:18.271569  2920 net.cpp:435] pool2 <- conv2
I0507 14:19:18.271574  2920 net.cpp:409] pool2 -> pool2
I0507 14:19:18.271623  2920 net.cpp:144] Setting up pool2
I0507 14:19:18.271631  2920 net.cpp:151] Top shape: 20 64 5 5 (32000)
I0507 14:19:18.271633  2920 net.cpp:159] Memory required for data: 2184240
I0507 14:19:18.271637  2920 layer_factory.hpp:77] Creating layer conv3
I0507 14:19:18.271644  2920 net.cpp:94] Creating Layer conv3
I0507 14:19:18.271647  2920 net.cpp:435] conv3 <- pool2
I0507 14:19:18.271652  2920 net.cpp:409] conv3 -> conv3
I0507 14:19:18.275279  2920 net.cpp:144] Setting up conv3
I0507 14:19:18.275291  2920 net.cpp:151] Top shape: 20 64 5 5 (32000)
I0507 14:19:18.275295  2920 net.cpp:159] Memory required for data: 2312240
I0507 14:19:18.275303  2920 layer_factory.hpp:77] Creating layer relu3
I0507 14:19:18.275310  2920 net.cpp:94] Creating Layer relu3
I0507 14:19:18.275313  2920 net.cpp:435] relu3 <- conv3
I0507 14:19:18.275317  2920 net.cpp:396] relu3 -> conv3 (in-place)
I0507 14:19:18.275324  2920 net.cpp:144] Setting up relu3
I0507 14:19:18.275329  2920 net.cpp:151] Top shape: 20 64 5 5 (32000)
I0507 14:19:18.275332  2920 net.cpp:159] Memory required for data: 2440240
I0507 14:19:18.275336  2920 layer_factory.hpp:77] Creating layer conv4
I0507 14:19:18.275342  2920 net.cpp:94] Creating Layer conv4
I0507 14:19:18.275346  2920 net.cpp:435] conv4 <- conv3
I0507 14:19:18.275351  2920 net.cpp:409] conv4 -> conv4
I0507 14:19:18.278975  2920 net.cpp:144] Setting up conv4
I0507 14:19:18.278987  2920 net.cpp:151] Top shape: 20 64 5 5 (32000)
I0507 14:19:18.278991  2920 net.cpp:159] Memory required for data: 2568240
I0507 14:19:18.278997  2920 layer_factory.hpp:77] Creating layer relu4
I0507 14:19:18.279002  2920 net.cpp:94] Creating Layer relu4
I0507 14:19:18.279006  2920 net.cpp:435] relu4 <- conv4
I0507 14:19:18.279011  2920 net.cpp:396] relu4 -> conv4 (in-place)
I0507 14:19:18.279017  2920 net.cpp:144] Setting up relu4
I0507 14:19:18.279021  2920 net.cpp:151] Top shape: 20 64 5 5 (32000)
I0507 14:19:18.279024  2920 net.cpp:159] Memory required for data: 2696240
I0507 14:19:18.279027  2920 layer_factory.hpp:77] Creating layer conv5
I0507 14:19:18.279036  2920 net.cpp:94] Creating Layer conv5
I0507 14:19:18.279038  2920 net.cpp:435] conv5 <- conv4
I0507 14:19:18.279042  2920 net.cpp:409] conv5 -> conv5
I0507 14:19:18.283962  2920 net.cpp:144] Setting up conv5
I0507 14:19:18.283975  2920 net.cpp:151] Top shape: 20 64 5 5 (32000)
I0507 14:19:18.283979  2920 net.cpp:159] Memory required for data: 2824240
I0507 14:19:18.283991  2920 layer_factory.hpp:77] Creating layer relu5
I0507 14:19:18.283998  2920 net.cpp:94] Creating Layer relu5
I0507 14:19:18.284001  2920 net.cpp:435] relu5 <- conv5
I0507 14:19:18.284006  2920 net.cpp:396] relu5 -> conv5 (in-place)
I0507 14:19:18.284013  2920 net.cpp:144] Setting up relu5
I0507 14:19:18.284018  2920 net.cpp:151] Top shape: 20 64 5 5 (32000)
I0507 14:19:18.284020  2920 net.cpp:159] Memory required for data: 2952240
I0507 14:19:18.284024  2920 layer_factory.hpp:77] Creating layer pool5
I0507 14:19:18.284029  2920 net.cpp:94] Creating Layer pool5
I0507 14:19:18.284031  2920 net.cpp:435] pool5 <- conv5
I0507 14:19:18.284035  2920 net.cpp:409] pool5 -> pool5
I0507 14:19:18.284070  2920 net.cpp:144] Setting up pool5
I0507 14:19:18.284077  2920 net.cpp:151] Top shape: 20 64 2 2 (5120)
I0507 14:19:18.284080  2920 net.cpp:159] Memory required for data: 2972720
I0507 14:19:18.284083  2920 layer_factory.hpp:77] Creating layer ip1
I0507 14:19:18.284090  2920 net.cpp:94] Creating Layer ip1
I0507 14:19:18.284093  2920 net.cpp:435] ip1 <- pool5
I0507 14:19:18.284097  2920 net.cpp:409] ip1 -> ip1
I0507 14:19:18.284648  2920 net.cpp:144] Setting up ip1
I0507 14:19:18.284657  2920 net.cpp:151] Top shape: 20 64 (1280)
I0507 14:19:18.284660  2920 net.cpp:159] Memory required for data: 2977840
I0507 14:19:18.284667  2920 layer_factory.hpp:77] Creating layer ip2
I0507 14:19:18.284672  2920 net.cpp:94] Creating Layer ip2
I0507 14:19:18.284675  2920 net.cpp:435] ip2 <- ip1
I0507 14:19:18.284680  2920 net.cpp:409] ip2 -> ip2
I0507 14:19:18.284910  2920 net.cpp:144] Setting up ip2
I0507 14:19:18.284917  2920 net.cpp:151] Top shape: 20 64 (1280)
I0507 14:19:18.284920  2920 net.cpp:159] Memory required for data: 2982960
I0507 14:19:18.284926  2920 layer_factory.hpp:77] Creating layer ip3
I0507 14:19:18.284934  2920 net.cpp:94] Creating Layer ip3
I0507 14:19:18.284936  2920 net.cpp:435] ip3 <- ip2
I0507 14:19:18.284940  2920 net.cpp:409] ip3 -> ip3
I0507 14:19:18.285135  2920 net.cpp:144] Setting up ip3
I0507 14:19:18.285141  2920 net.cpp:151] Top shape: 20 50 (1000)
I0507 14:19:18.285145  2920 net.cpp:159] Memory required for data: 2986960
I0507 14:19:18.285150  2920 layer_factory.hpp:77] Creating layer ip3_ip3_0_split
I0507 14:19:18.285154  2920 net.cpp:94] Creating Layer ip3_ip3_0_split
I0507 14:19:18.285157  2920 net.cpp:435] ip3_ip3_0_split <- ip3
I0507 14:19:18.285161  2920 net.cpp:409] ip3_ip3_0_split -> ip3_ip3_0_split_0
I0507 14:19:18.285167  2920 net.cpp:409] ip3_ip3_0_split -> ip3_ip3_0_split_1
I0507 14:19:18.285205  2920 net.cpp:144] Setting up ip3_ip3_0_split
I0507 14:19:18.285212  2920 net.cpp:151] Top shape: 20 50 (1000)
I0507 14:19:18.285214  2920 net.cpp:151] Top shape: 20 50 (1000)
I0507 14:19:18.285218  2920 net.cpp:159] Memory required for data: 2994960
I0507 14:19:18.285220  2920 layer_factory.hpp:77] Creating layer accuracy
I0507 14:19:18.285226  2920 net.cpp:94] Creating Layer accuracy
I0507 14:19:18.285229  2920 net.cpp:435] accuracy <- ip3_ip3_0_split_0
I0507 14:19:18.285233  2920 net.cpp:435] accuracy <- label_intercept_1_split_0
I0507 14:19:18.285238  2920 net.cpp:409] accuracy -> accuracy
…
