…
I0503 19:39:44.797857 22051 net.cpp:323] The NetState phase (0) differed from the phase (1) specified by a rule in layer intercept
I0503 19:39:44.797873 22051 net.cpp:323] The NetState phase (0) differed from the phase (1) specified by a rule in layer accuracy
I0503 19:39:44.797971 22051 net.cpp:52] Initializing net from parameters: 
state {
  phase: TRAIN
}
layer {
  name: "parameters"
  type: "HDF5Data"
  top: "data"
  top: "label"
  include {
    phase: TRAIN
  }
  hdf5_data_param {
    source: "/home/purduethu/scratch/radon/d/deng106/CNNStatisticalModel/distributions/input/5_distributions_900_sample_size_train-distributions-path.txt"
    batch_size: 20
  }
}
layer {
  name: "conv1"
  type: "Convolution"
  bottom: "data"
  top: "conv1"
  param {
    lr_mult: 1
  }
  param {
    lr_mult: 2
  }
  convolution_param {
    num_output: 64
    pad: 2
    kernel_size: 5
    stride: 1
    weight_filler {
      type: "gaussian"
      std: 0.0001
    }
    bias_filler {
      type: "constant"
    }
  }
}
layer {
  name: "relu1"
  type: "ReLU"
  bottom: "conv1"
  top: "conv1"
}
layer {
  name: "conv2"
  type: "Convolution"
  bottom: "conv1"
  top: "conv2"
  param {
    lr_mult: 1
  }
  param {
    lr_mult: 2
  }
  convolution_param {
    num_output: 64
    pad: 2
    kernel_size: 5
    stride: 1
    weight_filler {
      type: "gaussian"
      std: 0.01
    }
    bias_filler {
      type: "constant"
    }
  }
}
layer {
  name: "relu2"
  type: "ReLU"
  bottom: "conv2"
  top: "conv2"
}
layer {
  name: "pool2"
  type: "Pooling"
  bottom: "conv2"
  top: "pool2"
  pooling_param {
    pool: MAX
    kernel_size: 3
    stride: 2
  }
}
layer {
  name: "conv3"
  type: "Convolution"
  bottom: "pool2"
  top: "conv3"
  param {
    lr_mult: 1
  }
  param {
    lr_mult: 2
  }
  convolution_param {
    num_output: 128
    pad: 2
    kernel_size: 5
    stride: 1
    weight_filler {
      type: "gaussian"
      std: 0.01
    }
    bias_filler {
      type: "constant"
    }
  }
}
layer {
  name: "relu3"
  type: "ReLU"
  bottom: "conv3"
  top: "conv3"
}
layer {
  name: "conv4"
  type: "Convolution"
  bottom: "conv3"
  top: "conv4"
  param {
    lr_mult: 1
  }
  param {
    lr_mult: 2
  }
  convolution_param {
    num_output: 128
    pad: 2
    kernel_size: 5
    stride: 1
    weight_filler {
      type: "gaussian"
      std: 0.01
    }
    bias_filler {
      type: "constant"
    }
  }
}
layer {
  name: "relu4"
  type: "ReLU"
  bottom: "conv4"
  top: "conv4"
}
layer {
  name: "conv5"
  type: "Convolution"
  bottom: "conv4"
  top: "conv5"
  param {
    lr_mult: 1
  }
  param {
    lr_mult: 2
  }
  convolution_param {
    num_output: 128
    pad: 2
    kernel_size: 5
    stride: 1
    weight_filler {
      type: "gaussian"
      std: 0.01
    }
    bias_filler {
      type: "constant"
    }
  }
}
layer {
  name: "relu5"
  type: "ReLU"
  bottom: "conv5"
  top: "conv5"
}
layer {
  name: "pool5"
  type: "Pooling"
  bottom: "conv5"
  top: "pool5"
  pooling_param {
    pool: AVE
    kernel_size: 3
    stride: 2
  }
}
layer {
  name: "ip1"
  type: "InnerProduct"
  bottom: "pool5"
  top: "ip1"
  param {
    lr_mult: 1
  }
  param {
    lr_mult: 2
  }
  inner_product_param {
    num_output: 1024
    weight_filler {
      type: "gaussian"
      std: 0.1
    }
    bias_filler {
      type: "constant"
    }
  }
}
layer {
  name: "ip2"
  type: "InnerProduct"
  bottom: "ip1"
  top: "ip2"
  param {
    lr_mult: 1
  }
  param {
    lr_mult: 2
  }
  inner_product_param {
    num_output: 512
    weight_filler {
      type: "gaussian"
      std: 0.1
    }
    bias_filler {
      type: "constant"
    }
  }
}
layer {
  name: "ip3"
  type: "InnerProduct"
  bottom: "ip2"
  top: "ip3"
  param {
    lr_mult: 1
  }
  param {
    lr_mult: 2
  }
  inner_product_param {
    num_output: 50
    weight_filler {
      type: "gaussian"
      std: 0.1
    }
    bias_filler {
      type: "constant"
    }
  }
}
layer {
  name: "loss"
  type: "SoftmaxWithLoss"
  bottom: "ip3"
  bottom: "label"
  top: "loss"
}
I0503 19:39:44.798048 22051 layer_factory.hpp:77] Creating layer parameters
I0503 19:39:44.798061 22051 net.cpp:94] Creating Layer parameters
I0503 19:39:44.798068 22051 net.cpp:409] parameters -> data
I0503 19:39:44.798086 22051 net.cpp:409] parameters -> label
I0503 19:39:44.798097 22051 hdf5_data_layer.cpp:79] Loading list of HDF5 filenames from: /home/purduethu/scratch/radon/d/deng106/CNNStatisticalModel/distributions/input/5_distributions_900_sample_size_train-distributions-path.txt
I0503 19:39:44.798120 22051 hdf5_data_layer.cpp:93] Number of HDF5 files: 1
I0503 19:39:44.798691 22051 hdf5.cpp:32] Datatype class: H5T_FLOAT
I0503 19:39:44.935803 22051 hdf5.cpp:35] Datatype class: H5T_INTEGER
I0503 19:39:44.936959 22051 net.cpp:144] Setting up parameters
I0503 19:39:44.936980 22051 net.cpp:151] Top shape: 20 1 30 30 (18000)
I0503 19:39:44.936985 22051 net.cpp:151] Top shape: 20 (20)
I0503 19:39:44.936988 22051 net.cpp:159] Memory required for data: 72080
I0503 19:39:44.936996 22051 layer_factory.hpp:77] Creating layer conv1
I0503 19:39:44.937017 22051 net.cpp:94] Creating Layer conv1
I0503 19:39:44.937023 22051 net.cpp:435] conv1 <- data
I0503 19:39:44.937034 22051 net.cpp:409] conv1 -> conv1
I0503 19:39:44.942981 22051 net.cpp:144] Setting up conv1
I0503 19:39:44.942996 22051 net.cpp:151] Top shape: 20 64 30 30 (1152000)
I0503 19:39:44.943001 22051 net.cpp:159] Memory required for data: 4680080
I0503 19:39:44.943012 22051 layer_factory.hpp:77] Creating layer relu1
I0503 19:39:44.943019 22051 net.cpp:94] Creating Layer relu1
I0503 19:39:44.943023 22051 net.cpp:435] relu1 <- conv1
I0503 19:39:44.943028 22051 net.cpp:396] relu1 -> conv1 (in-place)
I0503 19:39:44.943047 22051 net.cpp:144] Setting up relu1
I0503 19:39:44.943051 22051 net.cpp:151] Top shape: 20 64 30 30 (1152000)
I0503 19:39:44.943055 22051 net.cpp:159] Memory required for data: 9288080
I0503 19:39:44.943058 22051 layer_factory.hpp:77] Creating layer conv2
I0503 19:39:44.943066 22051 net.cpp:94] Creating Layer conv2
I0503 19:39:44.943070 22051 net.cpp:435] conv2 <- conv1
I0503 19:39:44.943075 22051 net.cpp:409] conv2 -> conv2
I0503 19:39:44.958333 22051 net.cpp:144] Setting up conv2
I0503 19:39:44.958349 22051 net.cpp:151] Top shape: 20 64 30 30 (1152000)
I0503 19:39:44.958353 22051 net.cpp:159] Memory required for data: 13896080
I0503 19:39:44.958361 22051 layer_factory.hpp:77] Creating layer relu2
I0503 19:39:44.958369 22051 net.cpp:94] Creating Layer relu2
I0503 19:39:44.958372 22051 net.cpp:435] relu2 <- conv2
I0503 19:39:44.958377 22051 net.cpp:396] relu2 -> conv2 (in-place)
I0503 19:39:44.958384 22051 net.cpp:144] Setting up relu2
I0503 19:39:44.958389 22051 net.cpp:151] Top shape: 20 64 30 30 (1152000)
I0503 19:39:44.958392 22051 net.cpp:159] Memory required for data: 18504080
I0503 19:39:44.958395 22051 layer_factory.hpp:77] Creating layer pool2
I0503 19:39:44.958410 22051 net.cpp:94] Creating Layer pool2
I0503 19:39:44.958413 22051 net.cpp:435] pool2 <- conv2
I0503 19:39:44.958418 22051 net.cpp:409] pool2 -> pool2
I0503 19:39:44.958462 22051 net.cpp:144] Setting up pool2
I0503 19:39:44.958470 22051 net.cpp:151] Top shape: 20 64 15 15 (288000)
I0503 19:39:44.958473 22051 net.cpp:159] Memory required for data: 19656080
I0503 19:39:44.958477 22051 layer_factory.hpp:77] Creating layer conv3
I0503 19:39:44.958485 22051 net.cpp:94] Creating Layer conv3
I0503 19:39:44.958488 22051 net.cpp:435] conv3 <- pool2
I0503 19:39:44.958503 22051 net.cpp:409] conv3 -> conv3
I0503 19:39:44.970980 22051 net.cpp:144] Setting up conv3
I0503 19:39:44.970995 22051 net.cpp:151] Top shape: 20 128 15 15 (576000)
I0503 19:39:44.971000 22051 net.cpp:159] Memory required for data: 21960080
I0503 19:39:44.971009 22051 layer_factory.hpp:77] Creating layer relu3
I0503 19:39:44.971014 22051 net.cpp:94] Creating Layer relu3
I0503 19:39:44.971019 22051 net.cpp:435] relu3 <- conv3
I0503 19:39:44.971024 22051 net.cpp:396] relu3 -> conv3 (in-place)
I0503 19:39:44.971030 22051 net.cpp:144] Setting up relu3
I0503 19:39:44.971035 22051 net.cpp:151] Top shape: 20 128 15 15 (576000)
I0503 19:39:44.971038 22051 net.cpp:159] Memory required for data: 24264080
I0503 19:39:44.971041 22051 layer_factory.hpp:77] Creating layer conv4
I0503 19:39:44.971050 22051 net.cpp:94] Creating Layer conv4
I0503 19:39:44.971055 22051 net.cpp:435] conv4 <- conv3
I0503 19:39:44.971060 22051 net.cpp:409] conv4 -> conv4
I0503 19:39:44.992985 22051 net.cpp:144] Setting up conv4
I0503 19:39:44.993001 22051 net.cpp:151] Top shape: 20 128 15 15 (576000)
I0503 19:39:44.993005 22051 net.cpp:159] Memory required for data: 26568080
I0503 19:39:44.993011 22051 layer_factory.hpp:77] Creating layer relu4
I0503 19:39:44.993017 22051 net.cpp:94] Creating Layer relu4
I0503 19:39:44.993021 22051 net.cpp:435] relu4 <- conv4
I0503 19:39:44.993026 22051 net.cpp:396] relu4 -> conv4 (in-place)
I0503 19:39:44.993033 22051 net.cpp:144] Setting up relu4
I0503 19:39:44.993038 22051 net.cpp:151] Top shape: 20 128 15 15 (576000)
I0503 19:39:44.993041 22051 net.cpp:159] Memory required for data: 28872080
I0503 19:39:44.993044 22051 layer_factory.hpp:77] Creating layer conv5
I0503 19:39:44.993052 22051 net.cpp:94] Creating Layer conv5
I0503 19:39:44.993057 22051 net.cpp:435] conv5 <- conv4
I0503 19:39:44.993062 22051 net.cpp:409] conv5 -> conv5
I0503 19:39:45.014577 22051 net.cpp:144] Setting up conv5
I0503 19:39:45.014592 22051 net.cpp:151] Top shape: 20 128 15 15 (576000)
I0503 19:39:45.014597 22051 net.cpp:159] Memory required for data: 31176080
I0503 19:39:45.014606 22051 layer_factory.hpp:77] Creating layer relu5
I0503 19:39:45.014612 22051 net.cpp:94] Creating Layer relu5
I0503 19:39:45.014616 22051 net.cpp:435] relu5 <- conv5
I0503 19:39:45.014621 22051 net.cpp:396] relu5 -> conv5 (in-place)
I0503 19:39:45.014628 22051 net.cpp:144] Setting up relu5
I0503 19:39:45.014633 22051 net.cpp:151] Top shape: 20 128 15 15 (576000)
I0503 19:39:45.014636 22051 net.cpp:159] Memory required for data: 33480080
I0503 19:39:45.014639 22051 layer_factory.hpp:77] Creating layer pool5
I0503 19:39:45.014644 22051 net.cpp:94] Creating Layer pool5
I0503 19:39:45.014648 22051 net.cpp:435] pool5 <- conv5
I0503 19:39:45.014652 22051 net.cpp:409] pool5 -> pool5
I0503 19:39:45.014688 22051 net.cpp:144] Setting up pool5
I0503 19:39:45.014695 22051 net.cpp:151] Top shape: 20 128 7 7 (125440)
I0503 19:39:45.014698 22051 net.cpp:159] Memory required for data: 33981840
I0503 19:39:45.014701 22051 layer_factory.hpp:77] Creating layer ip1
I0503 19:39:45.014709 22051 net.cpp:94] Creating Layer ip1
I0503 19:39:45.014713 22051 net.cpp:435] ip1 <- pool5
I0503 19:39:45.014717 22051 net.cpp:409] ip1 -> ip1
I0503 19:39:45.177116 22051 net.cpp:144] Setting up ip1
I0503 19:39:45.177152 22051 net.cpp:151] Top shape: 20 1024 (20480)
I0503 19:39:45.177156 22051 net.cpp:159] Memory required for data: 34063760
I0503 19:39:45.177165 22051 layer_factory.hpp:77] Creating layer ip2
I0503 19:39:45.177184 22051 net.cpp:94] Creating Layer ip2
I0503 19:39:45.177191 22051 net.cpp:435] ip2 <- ip1
I0503 19:39:45.177196 22051 net.cpp:409] ip2 -> ip2
I0503 19:39:45.190284 22051 net.cpp:144] Setting up ip2
I0503 19:39:45.190297 22051 net.cpp:151] Top shape: 20 512 (10240)
I0503 19:39:45.190301 22051 net.cpp:159] Memory required for data: 34104720
I0503 19:39:45.190306 22051 layer_factory.hpp:77] Creating layer ip3
I0503 19:39:45.190313 22051 net.cpp:94] Creating Layer ip3
I0503 19:39:45.190317 22051 net.cpp:435] ip3 <- ip2
I0503 19:39:45.190322 22051 net.cpp:409] ip3 -> ip3
I0503 19:39:45.191005 22051 net.cpp:144] Setting up ip3
I0503 19:39:45.191014 22051 net.cpp:151] Top shape: 20 50 (1000)
I0503 19:39:45.191016 22051 net.cpp:159] Memory required for data: 34108720
I0503 19:39:45.191021 22051 layer_factory.hpp:77] Creating layer loss
I0503 19:39:45.191030 22051 net.cpp:94] Creating Layer loss
I0503 19:39:45.191032 22051 net.cpp:435] loss <- ip3
I0503 19:39:45.191036 22051 net.cpp:435] loss <- label
I0503 19:39:45.191042 22051 net.cpp:409] loss -> loss
I0503 19:39:45.191053 22051 layer_factory.hpp:77] Creating layer loss
…
I0503 19:39:45.191542 22051 solver.cpp:181] Creating test net (#0) specified by net file: ./protocol/dis_5_900_dimension.protocol_distribution
I0503 19:39:45.191570 22051 net.cpp:323] The NetState phase (1) differed from the phase (0) specified by a rule in layer parameters
I0503 19:39:45.191670 22051 net.cpp:52] Initializing net from parameters: 
state {
  phase: TEST
}
layer {
  name: "intercept"
  type: "HDF5Data"
  top: "data"
  top: "label"
  include {
    phase: TEST
  }
  hdf5_data_param {
    source: "/home/purduethu/scratch/radon/d/deng106/CNNStatisticalModel/distributions/input/5_distributions_900_sample_size_test-distributions-path.txt"
    batch_size: 20
  }
}
layer {
  name: "conv1"
  type: "Convolution"
  bottom: "data"
  top: "conv1"
  param {
    lr_mult: 1
  }
  param {
    lr_mult: 2
  }
  convolution_param {
    num_output: 64
    pad: 2
    kernel_size: 5
    stride: 1
    weight_filler {
      type: "gaussian"
      std: 0.0001
    }
    bias_filler {
      type: "constant"
    }
  }
}
layer {
  name: "relu1"
  type: "ReLU"
  bottom: "conv1"
  top: "conv1"
}
layer {
  name: "conv2"
  type: "Convolution"
  bottom: "conv1"
  top: "conv2"
  param {
    lr_mult: 1
  }
  param {
    lr_mult: 2
  }
  convolution_param {
    num_output: 64
    pad: 2
    kernel_size: 5
    stride: 1
    weight_filler {
      type: "gaussian"
      std: 0.01
    }
    bias_filler {
      type: "constant"
    }
  }
}
layer {
  name: "relu2"
  type: "ReLU"
  bottom: "conv2"
  top: "conv2"
}
layer {
  name: "pool2"
  type: "Pooling"
  bottom: "conv2"
  top: "pool2"
  pooling_param {
    pool: MAX
    kernel_size: 3
    stride: 2
  }
}
layer {
  name: "conv3"
  type: "Convolution"
  bottom: "pool2"
  top: "conv3"
  param {
    lr_mult: 1
  }
  param {
    lr_mult: 2
  }
  convolution_param {
    num_output: 128
    pad: 2
    kernel_size: 5
    stride: 1
    weight_filler {
      type: "gaussian"
      std: 0.01
    }
    bias_filler {
      type: "constant"
    }
  }
}
layer {
  name: "relu3"
  type: "ReLU"
  bottom: "conv3"
  top: "conv3"
}
layer {
  name: "conv4"
  type: "Convolution"
  bottom: "conv3"
  top: "conv4"
  param {
    lr_mult: 1
  }
  param {
    lr_mult: 2
  }
  convolution_param {
    num_output: 128
    pad: 2
    kernel_size: 5
    stride: 1
    weight_filler {
      type: "gaussian"
      std: 0.01
    }
    bias_filler {
      type: "constant"
    }
  }
}
layer {
  name: "relu4"
  type: "ReLU"
  bottom: "conv4"
  top: "conv4"
}
layer {
  name: "conv5"
  type: "Convolution"
  bottom: "conv4"
  top: "conv5"
  param {
    lr_mult: 1
  }
  param {
    lr_mult: 2
  }
  convolution_param {
    num_output: 128
    pad: 2
    kernel_size: 5
    stride: 1
    weight_filler {
      type: "gaussian"
      std: 0.01
    }
    bias_filler {
      type: "constant"
    }
  }
}
layer {
  name: "relu5"
  type: "ReLU"
  bottom: "conv5"
  top: "conv5"
}
layer {
  name: "pool5"
  type: "Pooling"
  bottom: "conv5"
  top: "pool5"
  pooling_param {
    pool: AVE
    kernel_size: 3
    stride: 2
  }
}
layer {
  name: "ip1"
  type: "InnerProduct"
  bottom: "pool5"
  top: "ip1"
  param {
    lr_mult: 1
  }
  param {
    lr_mult: 2
  }
  inner_product_param {
    num_output: 1024
    weight_filler {
      type: "gaussian"
      std: 0.1
    }
    bias_filler {
      type: "constant"
    }
  }
}
layer {
  name: "ip2"
  type: "InnerProduct"
  bottom: "ip1"
  top: "ip2"
  param {
    lr_mult: 1
  }
  param {
    lr_mult: 2
  }
  inner_product_param {
    num_output: 512
    weight_filler {
      type: "gaussian"
      std: 0.1
    }
    bias_filler {
      type: "constant"
    }
  }
}
layer {
  name: "ip3"
  type: "InnerProduct"
  bottom: "ip2"
  top: "ip3"
  param {
    lr_mult: 1
  }
  param {
    lr_mult: 2
  }
  inner_product_param {
    num_output: 50
    weight_filler {
      type: "gaussian"
      std: 0.1
    }
    bias_filler {
      type: "constant"
    }
  }
}
layer {
  name: "accuracy"
  type: "Accuracy"
  bottom: "ip3"
  bottom: "label"
  top: "accuracy"
  include {
    phase: TEST
  }
}
layer {
  name: "loss"
  type: "SoftmaxWithLoss"
  bottom: "ip3"
  bottom: "label"
  top: "loss"
}
I0503 19:39:45.191740 22051 layer_factory.hpp:77] Creating layer intercept
I0503 19:39:45.191747 22051 net.cpp:94] Creating Layer intercept
I0503 19:39:45.191752 22051 net.cpp:409] intercept -> data
I0503 19:39:45.191758 22051 net.cpp:409] intercept -> label
I0503 19:39:45.191764 22051 hdf5_data_layer.cpp:79] Loading list of HDF5 filenames from: /home/purduethu/scratch/radon/d/deng106/CNNStatisticalModel/distributions/input/5_distributions_900_sample_size_test-distributions-path.txt
I0503 19:39:45.191783 22051 hdf5_data_layer.cpp:93] Number of HDF5 files: 1
I0503 19:39:45.226722 22051 net.cpp:144] Setting up intercept
I0503 19:39:45.226752 22051 net.cpp:151] Top shape: 20 1 30 30 (18000)
I0503 19:39:45.226757 22051 net.cpp:151] Top shape: 20 (20)
I0503 19:39:45.226759 22051 net.cpp:159] Memory required for data: 72080
I0503 19:39:45.226765 22051 layer_factory.hpp:77] Creating layer label_intercept_1_split
I0503 19:39:45.226776 22051 net.cpp:94] Creating Layer label_intercept_1_split
I0503 19:39:45.226781 22051 net.cpp:435] label_intercept_1_split <- label
I0503 19:39:45.226788 22051 net.cpp:409] label_intercept_1_split -> label_intercept_1_split_0
I0503 19:39:45.226795 22051 net.cpp:409] label_intercept_1_split -> label_intercept_1_split_1
I0503 19:39:45.226835 22051 net.cpp:144] Setting up label_intercept_1_split
I0503 19:39:45.226841 22051 net.cpp:151] Top shape: 20 (20)
I0503 19:39:45.226845 22051 net.cpp:151] Top shape: 20 (20)
I0503 19:39:45.226847 22051 net.cpp:159] Memory required for data: 72240
I0503 19:39:45.226850 22051 layer_factory.hpp:77] Creating layer conv1
I0503 19:39:45.226862 22051 net.cpp:94] Creating Layer conv1
I0503 19:39:45.226866 22051 net.cpp:435] conv1 <- data
I0503 19:39:45.226871 22051 net.cpp:409] conv1 -> conv1
I0503 19:39:45.228075 22051 net.cpp:144] Setting up conv1
I0503 19:39:45.228090 22051 net.cpp:151] Top shape: 20 64 30 30 (1152000)
I0503 19:39:45.228093 22051 net.cpp:159] Memory required for data: 4680240
I0503 19:39:45.228102 22051 layer_factory.hpp:77] Creating layer relu1
I0503 19:39:45.228109 22051 net.cpp:94] Creating Layer relu1
I0503 19:39:45.228113 22051 net.cpp:435] relu1 <- conv1
I0503 19:39:45.228117 22051 net.cpp:396] relu1 -> conv1 (in-place)
I0503 19:39:45.228124 22051 net.cpp:144] Setting up relu1
I0503 19:39:45.228128 22051 net.cpp:151] Top shape: 20 64 30 30 (1152000)
I0503 19:39:45.228132 22051 net.cpp:159] Memory required for data: 9288240
I0503 19:39:45.228134 22051 layer_factory.hpp:77] Creating layer conv2
I0503 19:39:45.228142 22051 net.cpp:94] Creating Layer conv2
I0503 19:39:45.228147 22051 net.cpp:435] conv2 <- conv1
I0503 19:39:45.228150 22051 net.cpp:409] conv2 -> conv2
I0503 19:39:45.234330 22051 net.cpp:144] Setting up conv2
I0503 19:39:45.234346 22051 net.cpp:151] Top shape: 20 64 30 30 (1152000)
I0503 19:39:45.234350 22051 net.cpp:159] Memory required for data: 13896240
I0503 19:39:45.234359 22051 layer_factory.hpp:77] Creating layer relu2
I0503 19:39:45.234364 22051 net.cpp:94] Creating Layer relu2
I0503 19:39:45.234367 22051 net.cpp:435] relu2 <- conv2
I0503 19:39:45.234372 22051 net.cpp:396] relu2 -> conv2 (in-place)
I0503 19:39:45.234380 22051 net.cpp:144] Setting up relu2
I0503 19:39:45.234383 22051 net.cpp:151] Top shape: 20 64 30 30 (1152000)
I0503 19:39:45.234386 22051 net.cpp:159] Memory required for data: 18504240
I0503 19:39:45.234390 22051 layer_factory.hpp:77] Creating layer pool2
I0503 19:39:45.234395 22051 net.cpp:94] Creating Layer pool2
I0503 19:39:45.234398 22051 net.cpp:435] pool2 <- conv2
I0503 19:39:45.234402 22051 net.cpp:409] pool2 -> pool2
I0503 19:39:45.234437 22051 net.cpp:144] Setting up pool2
I0503 19:39:45.234444 22051 net.cpp:151] Top shape: 20 64 15 15 (288000)
I0503 19:39:45.234447 22051 net.cpp:159] Memory required for data: 19656240
I0503 19:39:45.234450 22051 layer_factory.hpp:77] Creating layer conv3
I0503 19:39:45.234457 22051 net.cpp:94] Creating Layer conv3
I0503 19:39:45.234462 22051 net.cpp:435] conv3 <- pool2
I0503 19:39:45.234467 22051 net.cpp:409] conv3 -> conv3
I0503 19:39:45.241674 22051 net.cpp:144] Setting up conv3
I0503 19:39:45.241689 22051 net.cpp:151] Top shape: 20 128 15 15 (576000)
I0503 19:39:45.241693 22051 net.cpp:159] Memory required for data: 21960240
I0503 19:39:45.241701 22051 layer_factory.hpp:77] Creating layer relu3
I0503 19:39:45.241708 22051 net.cpp:94] Creating Layer relu3
I0503 19:39:45.241713 22051 net.cpp:435] relu3 <- conv3
I0503 19:39:45.241716 22051 net.cpp:396] relu3 -> conv3 (in-place)
I0503 19:39:45.241724 22051 net.cpp:144] Setting up relu3
I0503 19:39:45.241729 22051 net.cpp:151] Top shape: 20 128 15 15 (576000)
I0503 19:39:45.241731 22051 net.cpp:159] Memory required for data: 24264240
I0503 19:39:45.241734 22051 layer_factory.hpp:77] Creating layer conv4
I0503 19:39:45.241741 22051 net.cpp:94] Creating Layer conv4
I0503 19:39:45.241745 22051 net.cpp:435] conv4 <- conv3
I0503 19:39:45.241750 22051 net.cpp:409] conv4 -> conv4
I0503 19:39:45.256423 22051 net.cpp:144] Setting up conv4
I0503 19:39:45.256438 22051 net.cpp:151] Top shape: 20 128 15 15 (576000)
I0503 19:39:45.256443 22051 net.cpp:159] Memory required for data: 26568240
I0503 19:39:45.256449 22051 layer_factory.hpp:77] Creating layer relu4
I0503 19:39:45.256455 22051 net.cpp:94] Creating Layer relu4
I0503 19:39:45.256464 22051 net.cpp:435] relu4 <- conv4
I0503 19:39:45.256469 22051 net.cpp:396] relu4 -> conv4 (in-place)
I0503 19:39:45.256475 22051 net.cpp:144] Setting up relu4
I0503 19:39:45.256480 22051 net.cpp:151] Top shape: 20 128 15 15 (576000)
I0503 19:39:45.256484 22051 net.cpp:159] Memory required for data: 28872240
I0503 19:39:45.256486 22051 layer_factory.hpp:77] Creating layer conv5
I0503 19:39:45.256494 22051 net.cpp:94] Creating Layer conv5
I0503 19:39:45.256497 22051 net.cpp:435] conv5 <- conv4
I0503 19:39:45.256502 22051 net.cpp:409] conv5 -> conv5
I0503 19:39:45.270853 22051 net.cpp:144] Setting up conv5
I0503 19:39:45.270869 22051 net.cpp:151] Top shape: 20 128 15 15 (576000)
I0503 19:39:45.270874 22051 net.cpp:159] Memory required for data: 31176240
I0503 19:39:45.270881 22051 layer_factory.hpp:77] Creating layer relu5
I0503 19:39:45.270887 22051 net.cpp:94] Creating Layer relu5
I0503 19:39:45.270891 22051 net.cpp:435] relu5 <- conv5
I0503 19:39:45.270895 22051 net.cpp:396] relu5 -> conv5 (in-place)
I0503 19:39:45.270902 22051 net.cpp:144] Setting up relu5
I0503 19:39:45.270907 22051 net.cpp:151] Top shape: 20 128 15 15 (576000)
I0503 19:39:45.270910 22051 net.cpp:159] Memory required for data: 33480240
I0503 19:39:45.270913 22051 layer_factory.hpp:77] Creating layer pool5
I0503 19:39:45.270918 22051 net.cpp:94] Creating Layer pool5
I0503 19:39:45.270921 22051 net.cpp:435] pool5 <- conv5
I0503 19:39:45.270925 22051 net.cpp:409] pool5 -> pool5
I0503 19:39:45.270951 22051 net.cpp:144] Setting up pool5
I0503 19:39:45.270958 22051 net.cpp:151] Top shape: 20 128 7 7 (125440)
I0503 19:39:45.270961 22051 net.cpp:159] Memory required for data: 33982000
I0503 19:39:45.270964 22051 layer_factory.hpp:77] Creating layer ip1
I0503 19:39:45.270972 22051 net.cpp:94] Creating Layer ip1
I0503 19:39:45.270974 22051 net.cpp:435] ip1 <- pool5
I0503 19:39:45.270978 22051 net.cpp:409] ip1 -> ip1
I0503 19:39:45.425905 22051 net.cpp:144] Setting up ip1
I0503 19:39:45.425940 22051 net.cpp:151] Top shape: 20 1024 (20480)
I0503 19:39:45.425945 22051 net.cpp:159] Memory required for data: 34063920
I0503 19:39:45.425952 22051 layer_factory.hpp:77] Creating layer ip2
I0503 19:39:45.425963 22051 net.cpp:94] Creating Layer ip2
I0503 19:39:45.425967 22051 net.cpp:435] ip2 <- ip1
I0503 19:39:45.425973 22051 net.cpp:409] ip2 -> ip2
I0503 19:39:45.438916 22051 net.cpp:144] Setting up ip2
I0503 19:39:45.438930 22051 net.cpp:151] Top shape: 20 512 (10240)
I0503 19:39:45.438932 22051 net.cpp:159] Memory required for data: 34104880
I0503 19:39:45.438938 22051 layer_factory.hpp:77] Creating layer ip3
I0503 19:39:45.438947 22051 net.cpp:94] Creating Layer ip3
I0503 19:39:45.438951 22051 net.cpp:435] ip3 <- ip2
I0503 19:39:45.438956 22051 net.cpp:409] ip3 -> ip3
I0503 19:39:45.439633 22051 net.cpp:144] Setting up ip3
I0503 19:39:45.439640 22051 net.cpp:151] Top shape: 20 50 (1000)
I0503 19:39:45.439643 22051 net.cpp:159] Memory required for data: 34108880
I0503 19:39:45.439648 22051 layer_factory.hpp:77] Creating layer ip3_ip3_0_split
I0503 19:39:45.439653 22051 net.cpp:94] Creating Layer ip3_ip3_0_split
I0503 19:39:45.439656 22051 net.cpp:435] ip3_ip3_0_split <- ip3
I0503 19:39:45.439661 22051 net.cpp:409] ip3_ip3_0_split -> ip3_ip3_0_split_0
I0503 19:39:45.439666 22051 net.cpp:409] ip3_ip3_0_split -> ip3_ip3_0_split_1
I0503 19:39:45.439692 22051 net.cpp:144] Setting up ip3_ip3_0_split
I0503 19:39:45.439697 22051 net.cpp:151] Top shape: 20 50 (1000)
I0503 19:39:45.439700 22051 net.cpp:151] Top shape: 20 50 (1000)
I0503 19:39:45.439702 22051 net.cpp:159] Memory required for data: 34116880
I0503 19:39:45.439705 22051 layer_factory.hpp:77] Creating layer accuracy
I0503 19:39:45.439718 22051 net.cpp:94] Creating Layer accuracy
I0503 19:39:45.439720 22051 net.cpp:435] accuracy <- ip3_ip3_0_split_0
I0503 19:39:45.439724 22051 net.cpp:435] accuracy <- label_intercept_1_split_0
I0503 19:39:45.439729 22051 net.cpp:409] accuracy -> accuracy
…
