…
I0505 22:59:22.419354 10232 net.cpp:323] The NetState phase (0) differed from the phase (1) specified by a rule in layer intercept
I0505 22:59:22.419369 10232 net.cpp:323] The NetState phase (0) differed from the phase (1) specified by a rule in layer loss
I0505 22:59:22.419435 10232 net.cpp:52] Initializing net from parameters: 
state {
  phase: TRAIN
}
layer {
  name: "parameters"
  type: "HDF5Data"
  top: "data"
  top: "label"
  include {
    phase: TRAIN
  }
  hdf5_data_param {
    source: "/home/purduethu/scratch/radon/d/deng106/CNNStatisticalModel/distributions/input/5_distributions_900_sample_size_train-parameters-path.txt"
    batch_size: 20
  }
}
layer {
  name: "conv1"
  type: "Convolution"
  bottom: "data"
  top: "conv1"
  param {
    lr_mult: 1
  }
  param {
    lr_mult: 2
  }
  convolution_param {
    num_output: 64
    pad: 2
    kernel_size: 5
    stride: 1
    weight_filler {
      type: "gaussian"
      std: 0.0001
    }
    bias_filler {
      type: "constant"
    }
  }
}
layer {
  name: "relu1"
  type: "ReLU"
  bottom: "conv1"
  top: "conv1"
}
layer {
  name: "pool1"
  type: "Pooling"
  bottom: "conv1"
  top: "pool1"
  pooling_param {
    pool: MAX
    kernel_size: 3
    stride: 2
  }
}
layer {
  name: "conv2"
  type: "Convolution"
  bottom: "pool1"
  top: "conv2"
  param {
    lr_mult: 1
  }
  param {
    lr_mult: 2
  }
  convolution_param {
    num_output: 128
    pad: 2
    kernel_size: 5
    stride: 1
    weight_filler {
      type: "gaussian"
      std: 0.01
    }
    bias_filler {
      type: "constant"
    }
  }
}
layer {
  name: "relu2"
  type: "ReLU"
  bottom: "conv2"
  top: "conv2"
}
layer {
  name: "conv3"
  type: "Convolution"
  bottom: "conv2"
  top: "conv3"
  param {
    lr_mult: 1
  }
  param {
    lr_mult: 2
  }
  convolution_param {
    num_output: 128
    pad: 2
    kernel_size: 5
    stride: 1
    weight_filler {
      type: "gaussian"
      std: 0.01
    }
    bias_filler {
      type: "constant"
    }
  }
}
layer {
  name: "relu3"
  type: "ReLU"
  bottom: "conv3"
  top: "conv3"
}
layer {
  name: "pool3"
  type: "Pooling"
  bottom: "conv3"
  top: "pool3"
  pooling_param {
    pool: AVE
    kernel_size: 3
    stride: 2
  }
}
layer {
  name: "ip1"
  type: "InnerProduct"
  bottom: "pool3"
  top: "ip1"
  param {
    lr_mult: 1
  }
  param {
    lr_mult: 2
  }
  inner_product_param {
    num_output: 512
    weight_filler {
      type: "gaussian"
      std: 0.1
    }
    bias_filler {
      type: "constant"
    }
  }
}
layer {
  name: "ip2"
  type: "InnerProduct"
  bottom: "ip1"
  top: "ip2"
  param {
    lr_mult: 1
  }
  param {
    lr_mult: 2
  }
  inner_product_param {
    num_output: 256
    weight_filler {
      type: "gaussian"
      std: 0.1
    }
    bias_filler {
      type: "constant"
    }
  }
}
layer {
  name: "ip3"
  type: "InnerProduct"
  bottom: "ip2"
  top: "ip3"
  param {
    lr_mult: 1
  }
  param {
    lr_mult: 2
  }
  inner_product_param {
    num_output: 1
    weight_filler {
      type: "gaussian"
      std: 0.1
    }
    bias_filler {
      type: "constant"
    }
  }
}
layer {
  name: "loss"
  type: "HuberLoss"
  bottom: "ip3"
  bottom: "label"
  top: "loss"
  include {
    phase: TRAIN
  }
}
I0505 22:59:22.419481 10232 layer_factory.hpp:77] Creating layer parameters
I0505 22:59:22.419493 10232 net.cpp:94] Creating Layer parameters
I0505 22:59:22.419498 10232 net.cpp:409] parameters -> data
I0505 22:59:22.419507 10232 net.cpp:409] parameters -> label
I0505 22:59:22.419518 10232 hdf5_data_layer.cpp:79] Loading list of HDF5 filenames from: /home/purduethu/scratch/radon/d/deng106/CNNStatisticalModel/distributions/input/5_distributions_900_sample_size_train-parameters-path.txt
I0505 22:59:22.419533 10232 hdf5_data_layer.cpp:93] Number of HDF5 files: 1
I0505 22:59:22.419952 10232 hdf5.cpp:32] Datatype class: H5T_FLOAT
I0505 22:59:22.555968 10232 net.cpp:144] Setting up parameters
I0505 22:59:22.555997 10232 net.cpp:151] Top shape: 20 1 30 30 (18000)
I0505 22:59:22.556002 10232 net.cpp:151] Top shape: 20 (20)
I0505 22:59:22.556006 10232 net.cpp:159] Memory required for data: 72080
I0505 22:59:22.556012 10232 layer_factory.hpp:77] Creating layer conv1
I0505 22:59:22.556028 10232 net.cpp:94] Creating Layer conv1
I0505 22:59:22.556032 10232 net.cpp:435] conv1 <- data
I0505 22:59:22.556040 10232 net.cpp:409] conv1 -> conv1
I0505 22:59:22.562443 10232 net.cpp:144] Setting up conv1
I0505 22:59:22.562463 10232 net.cpp:151] Top shape: 20 64 30 30 (1152000)
I0505 22:59:22.562467 10232 net.cpp:159] Memory required for data: 4680080
I0505 22:59:22.562479 10232 layer_factory.hpp:77] Creating layer relu1
I0505 22:59:22.562486 10232 net.cpp:94] Creating Layer relu1
I0505 22:59:22.562489 10232 net.cpp:435] relu1 <- conv1
I0505 22:59:22.562494 10232 net.cpp:396] relu1 -> conv1 (in-place)
I0505 22:59:22.562505 10232 net.cpp:144] Setting up relu1
I0505 22:59:22.562510 10232 net.cpp:151] Top shape: 20 64 30 30 (1152000)
I0505 22:59:22.562513 10232 net.cpp:159] Memory required for data: 9288080
I0505 22:59:22.562516 10232 layer_factory.hpp:77] Creating layer pool1
I0505 22:59:22.562522 10232 net.cpp:94] Creating Layer pool1
I0505 22:59:22.562525 10232 net.cpp:435] pool1 <- conv1
I0505 22:59:22.562530 10232 net.cpp:409] pool1 -> pool1
I0505 22:59:22.562585 10232 net.cpp:144] Setting up pool1
I0505 22:59:22.562592 10232 net.cpp:151] Top shape: 20 64 15 15 (288000)
I0505 22:59:22.562597 10232 net.cpp:159] Memory required for data: 10440080
I0505 22:59:22.562599 10232 layer_factory.hpp:77] Creating layer conv2
I0505 22:59:22.562608 10232 net.cpp:94] Creating Layer conv2
I0505 22:59:22.562611 10232 net.cpp:435] conv2 <- pool1
I0505 22:59:22.562616 10232 net.cpp:409] conv2 -> conv2
I0505 22:59:22.575963 10232 net.cpp:144] Setting up conv2
I0505 22:59:22.575991 10232 net.cpp:151] Top shape: 20 128 15 15 (576000)
I0505 22:59:22.575999 10232 net.cpp:159] Memory required for data: 12744080
I0505 22:59:22.576015 10232 layer_factory.hpp:77] Creating layer relu2
I0505 22:59:22.576027 10232 net.cpp:94] Creating Layer relu2
I0505 22:59:22.576035 10232 net.cpp:435] relu2 <- conv2
I0505 22:59:22.576045 10232 net.cpp:396] relu2 -> conv2 (in-place)
I0505 22:59:22.576057 10232 net.cpp:144] Setting up relu2
I0505 22:59:22.576067 10232 net.cpp:151] Top shape: 20 128 15 15 (576000)
I0505 22:59:22.576073 10232 net.cpp:159] Memory required for data: 15048080
I0505 22:59:22.576079 10232 layer_factory.hpp:77] Creating layer conv3
I0505 22:59:22.576094 10232 net.cpp:94] Creating Layer conv3
I0505 22:59:22.576102 10232 net.cpp:435] conv3 <- conv2
I0505 22:59:22.576110 10232 net.cpp:409] conv3 -> conv3
I0505 22:59:22.598192 10232 net.cpp:144] Setting up conv3
I0505 22:59:22.598209 10232 net.cpp:151] Top shape: 20 128 15 15 (576000)
I0505 22:59:22.598213 10232 net.cpp:159] Memory required for data: 17352080
I0505 22:59:22.598222 10232 layer_factory.hpp:77] Creating layer relu3
I0505 22:59:22.598234 10232 net.cpp:94] Creating Layer relu3
I0505 22:59:22.598239 10232 net.cpp:435] relu3 <- conv3
I0505 22:59:22.598244 10232 net.cpp:396] relu3 -> conv3 (in-place)
I0505 22:59:22.598251 10232 net.cpp:144] Setting up relu3
I0505 22:59:22.598256 10232 net.cpp:151] Top shape: 20 128 15 15 (576000)
I0505 22:59:22.598259 10232 net.cpp:159] Memory required for data: 19656080
I0505 22:59:22.598263 10232 layer_factory.hpp:77] Creating layer pool3
I0505 22:59:22.598268 10232 net.cpp:94] Creating Layer pool3
I0505 22:59:22.598271 10232 net.cpp:435] pool3 <- conv3
I0505 22:59:22.598276 10232 net.cpp:409] pool3 -> pool3
I0505 22:59:22.598321 10232 net.cpp:144] Setting up pool3
I0505 22:59:22.598328 10232 net.cpp:151] Top shape: 20 128 7 7 (125440)
I0505 22:59:22.598332 10232 net.cpp:159] Memory required for data: 20157840
I0505 22:59:22.598335 10232 layer_factory.hpp:77] Creating layer ip1
I0505 22:59:22.598342 10232 net.cpp:94] Creating Layer ip1
I0505 22:59:22.598345 10232 net.cpp:435] ip1 <- pool3
I0505 22:59:22.598351 10232 net.cpp:409] ip1 -> ip1
I0505 22:59:22.676774 10232 net.cpp:144] Setting up ip1
I0505 22:59:22.676807 10232 net.cpp:151] Top shape: 20 512 (10240)
I0505 22:59:22.676812 10232 net.cpp:159] Memory required for data: 20198800
I0505 22:59:22.676820 10232 layer_factory.hpp:77] Creating layer ip2
I0505 22:59:22.676831 10232 net.cpp:94] Creating Layer ip2
I0505 22:59:22.676836 10232 net.cpp:435] ip2 <- ip1
I0505 22:59:22.676841 10232 net.cpp:409] ip2 -> ip2
I0505 22:59:22.680034 10232 net.cpp:144] Setting up ip2
I0505 22:59:22.680044 10232 net.cpp:151] Top shape: 20 256 (5120)
I0505 22:59:22.680047 10232 net.cpp:159] Memory required for data: 20219280
I0505 22:59:22.680055 10232 layer_factory.hpp:77] Creating layer ip3
I0505 22:59:22.680061 10232 net.cpp:94] Creating Layer ip3
I0505 22:59:22.680064 10232 net.cpp:435] ip3 <- ip2
I0505 22:59:22.680069 10232 net.cpp:409] ip3 -> ip3
I0505 22:59:22.680173 10232 net.cpp:144] Setting up ip3
I0505 22:59:22.680179 10232 net.cpp:151] Top shape: 20 1 (20)
I0505 22:59:22.680183 10232 net.cpp:159] Memory required for data: 20219360
I0505 22:59:22.680188 10232 layer_factory.hpp:77] Creating layer loss
I0505 22:59:22.680200 10232 net.cpp:94] Creating Layer loss
I0505 22:59:22.680203 10232 net.cpp:435] loss <- ip3
I0505 22:59:22.680207 10232 net.cpp:435] loss <- label
I0505 22:59:22.680212 10232 net.cpp:409] loss -> loss
I0505 22:59:22.680263 10232 net.cpp:144] Setting up loss
…
I0505 22:59:22.824934 10232 net.cpp:323] The NetState phase (0) differed from the phase (1) specified by a rule in layer intercept
I0505 22:59:22.824946 10232 net.cpp:323] The NetState phase (0) differed from the phase (1) specified by a rule in layer accuracy
I0505 22:59:22.825017 10232 net.cpp:52] Initializing net from parameters: 
state {
  phase: TRAIN
}
layer {
  name: "parameters"
  type: "HDF5Data"
  top: "data"
  top: "label"
  include {
    phase: TRAIN
  }
  hdf5_data_param {
    source: "/home/purduethu/scratch/radon/d/deng106/CNNStatisticalModel/distributions/input/5_distributions_900_sample_size_train-distributions-path.txt"
    batch_size: 20
  }
}
layer {
  name: "conv1"
  type: "Convolution"
  bottom: "data"
  top: "conv1"
  param {
    lr_mult: 1
  }
  param {
    lr_mult: 2
  }
  convolution_param {
    num_output: 64
    pad: 2
    kernel_size: 5
    stride: 1
    weight_filler {
      type: "gaussian"
      std: 0.0001
    }
    bias_filler {
      type: "constant"
    }
  }
}
layer {
  name: "relu1"
  type: "ReLU"
  bottom: "conv1"
  top: "conv1"
}
layer {
  name: "pool1"
  type: "Pooling"
  bottom: "conv1"
  top: "pool1"
  pooling_param {
    pool: MAX
    kernel_size: 3
    stride: 2
  }
}
layer {
  name: "conv2"
  type: "Convolution"
  bottom: "pool1"
  top: "conv2"
  param {
    lr_mult: 1
  }
  param {
    lr_mult: 2
  }
  convolution_param {
    num_output: 128
    pad: 2
    kernel_size: 5
    stride: 1
    weight_filler {
      type: "gaussian"
      std: 0.01
    }
    bias_filler {
      type: "constant"
    }
  }
}
layer {
  name: "relu2"
  type: "ReLU"
  bottom: "conv2"
  top: "conv2"
}
layer {
  name: "conv3"
  type: "Convolution"
  bottom: "conv2"
  top: "conv3"
  param {
    lr_mult: 1
  }
  param {
    lr_mult: 2
  }
  convolution_param {
    num_output: 128
    pad: 2
    kernel_size: 5
    stride: 1
    weight_filler {
      type: "gaussian"
      std: 0.01
    }
    bias_filler {
      type: "constant"
    }
  }
}
layer {
  name: "relu3"
  type: "ReLU"
  bottom: "conv3"
  top: "conv3"
}
layer {
  name: "pool3"
  type: "Pooling"
  bottom: "conv3"
  top: "pool3"
  pooling_param {
    pool: AVE
    kernel_size: 3
    stride: 2
  }
}
layer {
  name: "ip1"
  type: "InnerProduct"
  bottom: "pool3"
  top: "ip1"
  param {
    lr_mult: 1
  }
  param {
    lr_mult: 2
  }
  inner_product_param {
    num_output: 512
    weight_filler {
      type: "gaussian"
      std: 0.1
    }
    bias_filler {
      type: "constant"
    }
  }
}
layer {
  name: "ip2"
  type: "InnerProduct"
  bottom: "ip1"
  top: "ip2"
  param {
    lr_mult: 1
  }
  param {
    lr_mult: 2
  }
  inner_product_param {
    num_output: 256
    weight_filler {
      type: "gaussian"
      std: 0.1
    }
    bias_filler {
      type: "constant"
    }
  }
}
layer {
  name: "ip3"
  type: "InnerProduct"
  bottom: "ip2"
  top: "ip3"
  param {
    lr_mult: 1
  }
  param {
    lr_mult: 2
  }
  inner_product_param {
    num_output: 50
    weight_filler {
      type: "gaussian"
      std: 0.1
    }
    bias_filler {
      type: "constant"
    }
  }
}
layer {
  name: "loss"
  type: "SoftmaxWithLoss"
  bottom: "ip3"
  bottom: "label"
  top: "loss"
}
I0505 22:59:22.825058 10232 layer_factory.hpp:77] Creating layer parameters
I0505 22:59:22.825067 10232 net.cpp:94] Creating Layer parameters
I0505 22:59:22.825070 10232 net.cpp:409] parameters -> data
I0505 22:59:22.825076 10232 net.cpp:409] parameters -> label
I0505 22:59:22.825083 10232 hdf5_data_layer.cpp:79] Loading list of HDF5 filenames from: /home/purduethu/scratch/radon/d/deng106/CNNStatisticalModel/distributions/input/5_distributions_900_sample_size_train-distributions-path.txt
I0505 22:59:22.825098 10232 hdf5_data_layer.cpp:93] Number of HDF5 files: 1
I0505 22:59:22.961596 10232 hdf5.cpp:35] Datatype class: H5T_INTEGER
I0505 22:59:22.962038 10232 net.cpp:144] Setting up parameters
I0505 22:59:22.962051 10232 net.cpp:151] Top shape: 20 1 30 30 (18000)
I0505 22:59:22.962056 10232 net.cpp:151] Top shape: 20 (20)
I0505 22:59:22.962060 10232 net.cpp:159] Memory required for data: 72080
I0505 22:59:22.962066 10232 layer_factory.hpp:77] Creating layer conv1
I0505 22:59:22.962082 10232 net.cpp:94] Creating Layer conv1
I0505 22:59:22.962087 10232 net.cpp:435] conv1 <- data
I0505 22:59:22.962093 10232 net.cpp:409] conv1 -> conv1
I0505 22:59:22.965528 10232 net.cpp:144] Setting up conv1
I0505 22:59:22.965541 10232 net.cpp:151] Top shape: 20 64 30 30 (1152000)
I0505 22:59:22.965545 10232 net.cpp:159] Memory required for data: 4680080
I0505 22:59:22.965555 10232 layer_factory.hpp:77] Creating layer relu1
I0505 22:59:22.965564 10232 net.cpp:94] Creating Layer relu1
I0505 22:59:22.965567 10232 net.cpp:435] relu1 <- conv1
I0505 22:59:22.965571 10232 net.cpp:396] relu1 -> conv1 (in-place)
I0505 22:59:22.965579 10232 net.cpp:144] Setting up relu1
I0505 22:59:22.965584 10232 net.cpp:151] Top shape: 20 64 30 30 (1152000)
I0505 22:59:22.965586 10232 net.cpp:159] Memory required for data: 9288080
I0505 22:59:22.965590 10232 layer_factory.hpp:77] Creating layer pool1
I0505 22:59:22.965595 10232 net.cpp:94] Creating Layer pool1
I0505 22:59:22.965598 10232 net.cpp:435] pool1 <- conv1
I0505 22:59:22.965610 10232 net.cpp:409] pool1 -> pool1
I0505 22:59:22.965665 10232 net.cpp:144] Setting up pool1
I0505 22:59:22.965673 10232 net.cpp:151] Top shape: 20 64 15 15 (288000)
I0505 22:59:22.965677 10232 net.cpp:159] Memory required for data: 10440080
I0505 22:59:22.965679 10232 layer_factory.hpp:77] Creating layer conv2
I0505 22:59:22.965688 10232 net.cpp:94] Creating Layer conv2
I0505 22:59:22.965692 10232 net.cpp:435] conv2 <- pool1
I0505 22:59:22.965697 10232 net.cpp:409] conv2 -> conv2
I0505 22:59:22.979182 10232 net.cpp:144] Setting up conv2
I0505 22:59:22.979198 10232 net.cpp:151] Top shape: 20 128 15 15 (576000)
I0505 22:59:22.979202 10232 net.cpp:159] Memory required for data: 12744080
I0505 22:59:22.979210 10232 layer_factory.hpp:77] Creating layer relu2
I0505 22:59:22.979218 10232 net.cpp:94] Creating Layer relu2
I0505 22:59:22.979220 10232 net.cpp:435] relu2 <- conv2
I0505 22:59:22.979225 10232 net.cpp:396] relu2 -> conv2 (in-place)
I0505 22:59:22.979233 10232 net.cpp:144] Setting up relu2
I0505 22:59:22.979236 10232 net.cpp:151] Top shape: 20 128 15 15 (576000)
I0505 22:59:22.979239 10232 net.cpp:159] Memory required for data: 15048080
I0505 22:59:22.979243 10232 layer_factory.hpp:77] Creating layer conv3
I0505 22:59:22.979250 10232 net.cpp:94] Creating Layer conv3
I0505 22:59:22.979254 10232 net.cpp:435] conv3 <- conv2
I0505 22:59:22.979259 10232 net.cpp:409] conv3 -> conv3
I0505 22:59:23.001246 10232 net.cpp:144] Setting up conv3
I0505 22:59:23.001265 10232 net.cpp:151] Top shape: 20 128 15 15 (576000)
I0505 22:59:23.001268 10232 net.cpp:159] Memory required for data: 17352080
I0505 22:59:23.001277 10232 layer_factory.hpp:77] Creating layer relu3
I0505 22:59:23.001283 10232 net.cpp:94] Creating Layer relu3
I0505 22:59:23.001287 10232 net.cpp:435] relu3 <- conv3
I0505 22:59:23.001291 10232 net.cpp:396] relu3 -> conv3 (in-place)
I0505 22:59:23.001298 10232 net.cpp:144] Setting up relu3
I0505 22:59:23.001303 10232 net.cpp:151] Top shape: 20 128 15 15 (576000)
I0505 22:59:23.001307 10232 net.cpp:159] Memory required for data: 19656080
I0505 22:59:23.001309 10232 layer_factory.hpp:77] Creating layer pool3
I0505 22:59:23.001315 10232 net.cpp:94] Creating Layer pool3
I0505 22:59:23.001318 10232 net.cpp:435] pool3 <- conv3
I0505 22:59:23.001322 10232 net.cpp:409] pool3 -> pool3
I0505 22:59:23.001366 10232 net.cpp:144] Setting up pool3
I0505 22:59:23.001374 10232 net.cpp:151] Top shape: 20 128 7 7 (125440)
I0505 22:59:23.001376 10232 net.cpp:159] Memory required for data: 20157840
I0505 22:59:23.001379 10232 layer_factory.hpp:77] Creating layer ip1
I0505 22:59:23.001386 10232 net.cpp:94] Creating Layer ip1
I0505 22:59:23.001389 10232 net.cpp:435] ip1 <- pool3
I0505 22:59:23.001394 10232 net.cpp:409] ip1 -> ip1
I0505 22:59:23.080006 10232 net.cpp:144] Setting up ip1
I0505 22:59:23.080041 10232 net.cpp:151] Top shape: 20 512 (10240)
I0505 22:59:23.080045 10232 net.cpp:159] Memory required for data: 20198800
I0505 22:59:23.080054 10232 layer_factory.hpp:77] Creating layer ip2
I0505 22:59:23.080065 10232 net.cpp:94] Creating Layer ip2
I0505 22:59:23.080070 10232 net.cpp:435] ip2 <- ip1
I0505 22:59:23.080076 10232 net.cpp:409] ip2 -> ip2
I0505 22:59:23.083297 10232 net.cpp:144] Setting up ip2
I0505 22:59:23.083308 10232 net.cpp:151] Top shape: 20 256 (5120)
I0505 22:59:23.083312 10232 net.cpp:159] Memory required for data: 20219280
I0505 22:59:23.083319 10232 layer_factory.hpp:77] Creating layer ip3
I0505 22:59:23.083325 10232 net.cpp:94] Creating Layer ip3
I0505 22:59:23.083328 10232 net.cpp:435] ip3 <- ip2
I0505 22:59:23.083333 10232 net.cpp:409] ip3 -> ip3
I0505 22:59:23.083780 10232 net.cpp:144] Setting up ip3
I0505 22:59:23.083787 10232 net.cpp:151] Top shape: 20 50 (1000)
I0505 22:59:23.083791 10232 net.cpp:159] Memory required for data: 20223280
I0505 22:59:23.083796 10232 layer_factory.hpp:77] Creating layer loss
I0505 22:59:23.083801 10232 net.cpp:94] Creating Layer loss
I0505 22:59:23.083804 10232 net.cpp:435] loss <- ip3
I0505 22:59:23.083807 10232 net.cpp:435] loss <- label
I0505 22:59:23.083822 10232 net.cpp:409] loss -> loss
I0505 22:59:23.083829 10232 layer_factory.hpp:77] Creating layer loss
…
I0505 22:59:23.084292 10232 solver.cpp:181] Creating test net (#0) specified by net file: ./protocol/dis_5_900_dimension.protocol_distribution
I0505 22:59:23.084316 10232 net.cpp:323] The NetState phase (1) differed from the phase (0) specified by a rule in layer parameters
I0505 22:59:23.084395 10232 net.cpp:52] Initializing net from parameters: 
state {
  phase: TEST
}
layer {
  name: "intercept"
  type: "HDF5Data"
  top: "data"
  top: "label"
  include {
    phase: TEST
  }
  hdf5_data_param {
    source: "/home/purduethu/scratch/radon/d/deng106/CNNStatisticalModel/distributions/input/5_distributions_900_sample_size_test-distributions-path.txt"
    batch_size: 20
  }
}
layer {
  name: "conv1"
  type: "Convolution"
  bottom: "data"
  top: "conv1"
  param {
    lr_mult: 1
  }
  param {
    lr_mult: 2
  }
  convolution_param {
    num_output: 64
    pad: 2
    kernel_size: 5
    stride: 1
    weight_filler {
      type: "gaussian"
      std: 0.0001
    }
    bias_filler {
      type: "constant"
    }
  }
}
layer {
  name: "relu1"
  type: "ReLU"
  bottom: "conv1"
  top: "conv1"
}
layer {
  name: "pool1"
  type: "Pooling"
  bottom: "conv1"
  top: "pool1"
  pooling_param {
    pool: MAX
    kernel_size: 3
    stride: 2
  }
}
layer {
  name: "conv2"
  type: "Convolution"
  bottom: "pool1"
  top: "conv2"
  param {
    lr_mult: 1
  }
  param {
    lr_mult: 2
  }
  convolution_param {
    num_output: 128
    pad: 2
    kernel_size: 5
    stride: 1
    weight_filler {
      type: "gaussian"
      std: 0.01
    }
    bias_filler {
      type: "constant"
    }
  }
}
layer {
  name: "relu2"
  type: "ReLU"
  bottom: "conv2"
  top: "conv2"
}
layer {
  name: "conv3"
  type: "Convolution"
  bottom: "conv2"
  top: "conv3"
  param {
    lr_mult: 1
  }
  param {
    lr_mult: 2
  }
  convolution_param {
    num_output: 128
    pad: 2
    kernel_size: 5
    stride: 1
    weight_filler {
      type: "gaussian"
      std: 0.01
    }
    bias_filler {
      type: "constant"
    }
  }
}
layer {
  name: "relu3"
  type: "ReLU"
  bottom: "conv3"
  top: "conv3"
}
layer {
  name: "pool3"
  type: "Pooling"
  bottom: "conv3"
  top: "pool3"
  pooling_param {
    pool: AVE
    kernel_size: 3
    stride: 2
  }
}
layer {
  name: "ip1"
  type: "InnerProduct"
  bottom: "pool3"
  top: "ip1"
  param {
    lr_mult: 1
  }
  param {
    lr_mult: 2
  }
  inner_product_param {
    num_output: 512
    weight_filler {
      type: "gaussian"
      std: 0.1
    }
    bias_filler {
      type: "constant"
    }
  }
}
layer {
  name: "ip2"
  type: "InnerProduct"
  bottom: "ip1"
  top: "ip2"
  param {
    lr_mult: 1
  }
  param {
    lr_mult: 2
  }
  inner_product_param {
    num_output: 256
    weight_filler {
      type: "gaussian"
      std: 0.1
    }
    bias_filler {
      type: "constant"
    }
  }
}
layer {
  name: "ip3"
  type: "InnerProduct"
  bottom: "ip2"
  top: "ip3"
  param {
    lr_mult: 1
  }
  param {
    lr_mult: 2
  }
  inner_product_param {
    num_output: 50
    weight_filler {
      type: "gaussian"
      std: 0.1
    }
    bias_filler {
      type: "constant"
    }
  }
}
layer {
  name: "accuracy"
  type: "Accuracy"
  bottom: "ip3"
  bottom: "label"
  top: "accuracy"
  include {
    phase: TEST
  }
}
layer {
  name: "loss"
  type: "SoftmaxWithLoss"
  bottom: "ip3"
  bottom: "label"
  top: "loss"
}
I0505 22:59:23.084453 10232 layer_factory.hpp:77] Creating layer intercept
I0505 22:59:23.084461 10232 net.cpp:94] Creating Layer intercept
I0505 22:59:23.084465 10232 net.cpp:409] intercept -> data
I0505 22:59:23.084471 10232 net.cpp:409] intercept -> label
I0505 22:59:23.084477 10232 hdf5_data_layer.cpp:79] Loading list of HDF5 filenames from: /home/purduethu/scratch/radon/d/deng106/CNNStatisticalModel/distributions/input/5_distributions_900_sample_size_test-distributions-path.txt
I0505 22:59:23.084497 10232 hdf5_data_layer.cpp:93] Number of HDF5 files: 1
I0505 22:59:23.119141 10232 net.cpp:144] Setting up intercept
I0505 22:59:23.119176 10232 net.cpp:151] Top shape: 20 1 30 30 (18000)
I0505 22:59:23.119181 10232 net.cpp:151] Top shape: 20 (20)
I0505 22:59:23.119185 10232 net.cpp:159] Memory required for data: 72080
I0505 22:59:23.119191 10232 layer_factory.hpp:77] Creating layer label_intercept_1_split
I0505 22:59:23.119209 10232 net.cpp:94] Creating Layer label_intercept_1_split
I0505 22:59:23.119213 10232 net.cpp:435] label_intercept_1_split <- label
I0505 22:59:23.119220 10232 net.cpp:409] label_intercept_1_split -> label_intercept_1_split_0
I0505 22:59:23.119227 10232 net.cpp:409] label_intercept_1_split -> label_intercept_1_split_1
I0505 22:59:23.119271 10232 net.cpp:144] Setting up label_intercept_1_split
I0505 22:59:23.119278 10232 net.cpp:151] Top shape: 20 (20)
I0505 22:59:23.119282 10232 net.cpp:151] Top shape: 20 (20)
I0505 22:59:23.119284 10232 net.cpp:159] Memory required for data: 72240
I0505 22:59:23.119288 10232 layer_factory.hpp:77] Creating layer conv1
I0505 22:59:23.119299 10232 net.cpp:94] Creating Layer conv1
I0505 22:59:23.119302 10232 net.cpp:435] conv1 <- data
I0505 22:59:23.119307 10232 net.cpp:409] conv1 -> conv1
I0505 22:59:23.120857 10232 net.cpp:144] Setting up conv1
I0505 22:59:23.120872 10232 net.cpp:151] Top shape: 20 64 30 30 (1152000)
I0505 22:59:23.120877 10232 net.cpp:159] Memory required for data: 4680240
I0505 22:59:23.120887 10232 layer_factory.hpp:77] Creating layer relu1
I0505 22:59:23.120893 10232 net.cpp:94] Creating Layer relu1
I0505 22:59:23.120898 10232 net.cpp:435] relu1 <- conv1
I0505 22:59:23.120903 10232 net.cpp:396] relu1 -> conv1 (in-place)
I0505 22:59:23.120909 10232 net.cpp:144] Setting up relu1
I0505 22:59:23.120913 10232 net.cpp:151] Top shape: 20 64 30 30 (1152000)
I0505 22:59:23.120916 10232 net.cpp:159] Memory required for data: 9288240
I0505 22:59:23.120920 10232 layer_factory.hpp:77] Creating layer pool1
I0505 22:59:23.120926 10232 net.cpp:94] Creating Layer pool1
I0505 22:59:23.120929 10232 net.cpp:435] pool1 <- conv1
I0505 22:59:23.120934 10232 net.cpp:409] pool1 -> pool1
I0505 22:59:23.120993 10232 net.cpp:144] Setting up pool1
I0505 22:59:23.121001 10232 net.cpp:151] Top shape: 20 64 15 15 (288000)
I0505 22:59:23.121003 10232 net.cpp:159] Memory required for data: 10440240
I0505 22:59:23.121006 10232 layer_factory.hpp:77] Creating layer conv2
I0505 22:59:23.121014 10232 net.cpp:94] Creating Layer conv2
I0505 22:59:23.121018 10232 net.cpp:435] conv2 <- pool1
I0505 22:59:23.121023 10232 net.cpp:409] conv2 -> conv2
I0505 22:59:23.129534 10232 net.cpp:144] Setting up conv2
I0505 22:59:23.129551 10232 net.cpp:151] Top shape: 20 128 15 15 (576000)
I0505 22:59:23.129555 10232 net.cpp:159] Memory required for data: 12744240
I0505 22:59:23.129570 10232 layer_factory.hpp:77] Creating layer relu2
I0505 22:59:23.129576 10232 net.cpp:94] Creating Layer relu2
I0505 22:59:23.129580 10232 net.cpp:435] relu2 <- conv2
I0505 22:59:23.129585 10232 net.cpp:396] relu2 -> conv2 (in-place)
I0505 22:59:23.129592 10232 net.cpp:144] Setting up relu2
I0505 22:59:23.129596 10232 net.cpp:151] Top shape: 20 128 15 15 (576000)
I0505 22:59:23.129601 10232 net.cpp:159] Memory required for data: 15048240
I0505 22:59:23.129603 10232 layer_factory.hpp:77] Creating layer conv3
I0505 22:59:23.129611 10232 net.cpp:94] Creating Layer conv3
I0505 22:59:23.129614 10232 net.cpp:435] conv3 <- conv2
I0505 22:59:23.129619 10232 net.cpp:409] conv3 -> conv3
I0505 22:59:23.145069 10232 net.cpp:144] Setting up conv3
I0505 22:59:23.145087 10232 net.cpp:151] Top shape: 20 128 15 15 (576000)
I0505 22:59:23.145090 10232 net.cpp:159] Memory required for data: 17352240
I0505 22:59:23.145099 10232 layer_factory.hpp:77] Creating layer relu3
I0505 22:59:23.145107 10232 net.cpp:94] Creating Layer relu3
I0505 22:59:23.145110 10232 net.cpp:435] relu3 <- conv3
I0505 22:59:23.145115 10232 net.cpp:396] relu3 -> conv3 (in-place)
I0505 22:59:23.145123 10232 net.cpp:144] Setting up relu3
I0505 22:59:23.145126 10232 net.cpp:151] Top shape: 20 128 15 15 (576000)
I0505 22:59:23.145129 10232 net.cpp:159] Memory required for data: 19656240
I0505 22:59:23.145133 10232 layer_factory.hpp:77] Creating layer pool3
I0505 22:59:23.145138 10232 net.cpp:94] Creating Layer pool3
I0505 22:59:23.145141 10232 net.cpp:435] pool3 <- conv3
I0505 22:59:23.145145 10232 net.cpp:409] pool3 -> pool3
I0505 22:59:23.145189 10232 net.cpp:144] Setting up pool3
I0505 22:59:23.145196 10232 net.cpp:151] Top shape: 20 128 7 7 (125440)
I0505 22:59:23.145200 10232 net.cpp:159] Memory required for data: 20158000
I0505 22:59:23.145202 10232 layer_factory.hpp:77] Creating layer ip1
I0505 22:59:23.145210 10232 net.cpp:94] Creating Layer ip1
I0505 22:59:23.145213 10232 net.cpp:435] ip1 <- pool3
I0505 22:59:23.145217 10232 net.cpp:409] ip1 -> ip1
I0505 22:59:23.223027 10232 net.cpp:144] Setting up ip1
I0505 22:59:23.223062 10232 net.cpp:151] Top shape: 20 512 (10240)
I0505 22:59:23.223065 10232 net.cpp:159] Memory required for data: 20198960
I0505 22:59:23.223074 10232 layer_factory.hpp:77] Creating layer ip2
I0505 22:59:23.223085 10232 net.cpp:94] Creating Layer ip2
I0505 22:59:23.223090 10232 net.cpp:435] ip2 <- ip1
I0505 22:59:23.223096 10232 net.cpp:409] ip2 -> ip2
I0505 22:59:23.226289 10232 net.cpp:144] Setting up ip2
I0505 22:59:23.226300 10232 net.cpp:151] Top shape: 20 256 (5120)
I0505 22:59:23.226302 10232 net.cpp:159] Memory required for data: 20219440
I0505 22:59:23.226312 10232 layer_factory.hpp:77] Creating layer ip3
I0505 22:59:23.226318 10232 net.cpp:94] Creating Layer ip3
I0505 22:59:23.226321 10232 net.cpp:435] ip3 <- ip2
I0505 22:59:23.226326 10232 net.cpp:409] ip3 -> ip3
I0505 22:59:23.226771 10232 net.cpp:144] Setting up ip3
I0505 22:59:23.226778 10232 net.cpp:151] Top shape: 20 50 (1000)
I0505 22:59:23.226783 10232 net.cpp:159] Memory required for data: 20223440
I0505 22:59:23.226788 10232 layer_factory.hpp:77] Creating layer ip3_ip3_0_split
I0505 22:59:23.226794 10232 net.cpp:94] Creating Layer ip3_ip3_0_split
I0505 22:59:23.226796 10232 net.cpp:435] ip3_ip3_0_split <- ip3
I0505 22:59:23.226800 10232 net.cpp:409] ip3_ip3_0_split -> ip3_ip3_0_split_0
I0505 22:59:23.226806 10232 net.cpp:409] ip3_ip3_0_split -> ip3_ip3_0_split_1
I0505 22:59:23.226850 10232 net.cpp:144] Setting up ip3_ip3_0_split
I0505 22:59:23.226855 10232 net.cpp:151] Top shape: 20 50 (1000)
I0505 22:59:23.226860 10232 net.cpp:151] Top shape: 20 50 (1000)
I0505 22:59:23.226862 10232 net.cpp:159] Memory required for data: 20231440
I0505 22:59:23.226866 10232 layer_factory.hpp:77] Creating layer accuracy
I0505 22:59:23.226871 10232 net.cpp:94] Creating Layer accuracy
I0505 22:59:23.226874 10232 net.cpp:435] accuracy <- ip3_ip3_0_split_0
I0505 22:59:23.226878 10232 net.cpp:435] accuracy <- label_intercept_1_split_0
I0505 22:59:23.226883 10232 net.cpp:409] accuracy -> accuracy
…
