…
I0502 23:01:23.146380 14816 net.cpp:323] The NetState phase (0) differed from the phase (1) specified by a rule in layer intercept
I0502 23:01:23.146397 14816 net.cpp:323] The NetState phase (0) differed from the phase (1) specified by a rule in layer loss
I0502 23:01:23.146474 14816 net.cpp:52] Initializing net from parameters: 
state {
  phase: TRAIN
}
layer {
  name: "parameters"
  type: "HDF5Data"
  top: "data"
  top: "label"
  include {
    phase: TRAIN
  }
  hdf5_data_param {
    source: "/home/purduethu/scratch/radon/d/deng106/CNNStatisticalModel/distributions/input/50_distributions_400_sample_size_train-parameters-path.txt"
    batch_size: 20
  }
}
layer {
  name: "conv1"
  type: "Convolution"
  bottom: "data"
  top: "conv1"
  param {
    lr_mult: 1
  }
  param {
    lr_mult: 2
  }
  convolution_param {
    num_output: 64
    pad: 2
    kernel_size: 5
    stride: 1
    weight_filler {
      type: "gaussian"
      std: 0.0001
    }
    bias_filler {
      type: "constant"
    }
  }
}
layer {
  name: "relu1"
  type: "ReLU"
  bottom: "conv1"
  top: "conv1"
}
layer {
  name: "conv2"
  type: "Convolution"
  bottom: "conv1"
  top: "conv2"
  param {
    lr_mult: 1
  }
  param {
    lr_mult: 2
  }
  convolution_param {
    num_output: 64
    pad: 2
    kernel_size: 5
    stride: 1
    weight_filler {
      type: "gaussian"
      std: 0.01
    }
    bias_filler {
      type: "constant"
    }
  }
}
layer {
  name: "relu2"
  type: "ReLU"
  bottom: "conv2"
  top: "conv2"
}
layer {
  name: "pool2"
  type: "Pooling"
  bottom: "conv2"
  top: "pool2"
  pooling_param {
    pool: MAX
    kernel_size: 3
    stride: 2
  }
}
layer {
  name: "conv3"
  type: "Convolution"
  bottom: "pool2"
  top: "conv3"
  param {
    lr_mult: 1
  }
  param {
    lr_mult: 2
  }
  convolution_param {
    num_output: 128
    pad: 2
    kernel_size: 5
    stride: 1
    weight_filler {
      type: "gaussian"
      std: 0.01
    }
    bias_filler {
      type: "constant"
    }
  }
}
layer {
  name: "relu3"
  type: "ReLU"
  bottom: "conv3"
  top: "conv3"
}
layer {
  name: "conv4"
  type: "Convolution"
  bottom: "conv3"
  top: "conv4"
  param {
    lr_mult: 1
  }
  param {
    lr_mult: 2
  }
  convolution_param {
    num_output: 128
    pad: 2
    kernel_size: 5
    stride: 1
    weight_filler {
      type: "gaussian"
      std: 0.01
    }
    bias_filler {
      type: "constant"
    }
  }
}
layer {
  name: "relu4"
  type: "ReLU"
  bottom: "conv4"
  top: "conv4"
}
layer {
  name: "conv5"
  type: "Convolution"
  bottom: "conv4"
  top: "conv5"
  param {
    lr_mult: 1
  }
  param {
    lr_mult: 2
  }
  convolution_param {
    num_output: 128
    pad: 2
    kernel_size: 5
    stride: 1
    weight_filler {
      type: "gaussian"
      std: 0.01
    }
    bias_filler {
      type: "constant"
    }
  }
}
layer {
  name: "relu5"
  type: "ReLU"
  bottom: "conv5"
  top: "conv5"
}
layer {
  name: "pool5"
  type: "Pooling"
  bottom: "conv5"
  top: "pool5"
  pooling_param {
    pool: AVE
    kernel_size: 3
    stride: 2
  }
}
layer {
  name: "ip1"
  type: "InnerProduct"
  bottom: "pool5"
  top: "ip1"
  param {
    lr_mult: 1
  }
  param {
    lr_mult: 2
  }
  inner_product_param {
    num_output: 1024
    weight_filler {
      type: "gaussian"
      std: 0.1
    }
    bias_filler {
      type: "constant"
    }
  }
}
layer {
  name: "ip2"
  type: "InnerProduct"
  bottom: "ip1"
  top: "ip2"
  param {
    lr_mult: 1
  }
  param {
    lr_mult: 2
  }
  inner_product_param {
    num_output: 512
    weight_filler {
      type: "gaussian"
      std: 0.1
    }
    bias_filler {
      type: "constant"
    }
  }
}
layer {
  name: "ip3"
  type: "InnerProduct"
  bottom: "ip2"
  top: "ip3"
  param {
    lr_mult: 1
  }
  param {
    lr_mult: 2
  }
  inner_product_param {
    num_output: 1
    weight_filler {
      type: "gaussian"
      std: 0.1
    }
    bias_filler {
      type: "constant"
    }
  }
}
layer {
  name: "loss"
  type: "HuberLoss"
  bottom: "ip3"
  bottom: "label"
  top: "loss"
  include {
    phase: TRAIN
  }
}
I0502 23:01:23.146530 14816 layer_factory.hpp:77] Creating layer parameters
I0502 23:01:23.146543 14816 net.cpp:94] Creating Layer parameters
I0502 23:01:23.146548 14816 net.cpp:409] parameters -> data
I0502 23:01:23.146558 14816 net.cpp:409] parameters -> label
I0502 23:01:23.146569 14816 hdf5_data_layer.cpp:79] Loading list of HDF5 filenames from: /home/purduethu/scratch/radon/d/deng106/CNNStatisticalModel/distributions/input/50_distributions_400_sample_size_train-parameters-path.txt
I0502 23:01:23.146585 14816 hdf5_data_layer.cpp:93] Number of HDF5 files: 1
I0502 23:01:23.147142 14816 hdf5.cpp:32] Datatype class: H5T_FLOAT
I0502 23:01:23.790000 14816 net.cpp:144] Setting up parameters
I0502 23:01:23.790033 14816 net.cpp:151] Top shape: 20 1 20 20 (8000)
I0502 23:01:23.790040 14816 net.cpp:151] Top shape: 20 (20)
I0502 23:01:23.790042 14816 net.cpp:159] Memory required for data: 32080
I0502 23:01:23.790050 14816 layer_factory.hpp:77] Creating layer conv1
I0502 23:01:23.790069 14816 net.cpp:94] Creating Layer conv1
I0502 23:01:23.790074 14816 net.cpp:435] conv1 <- data
I0502 23:01:23.790081 14816 net.cpp:409] conv1 -> conv1
I0502 23:01:23.795655 14816 net.cpp:144] Setting up conv1
I0502 23:01:23.795675 14816 net.cpp:151] Top shape: 20 64 20 20 (512000)
I0502 23:01:23.795678 14816 net.cpp:159] Memory required for data: 2080080
I0502 23:01:23.795688 14816 layer_factory.hpp:77] Creating layer relu1
I0502 23:01:23.795696 14816 net.cpp:94] Creating Layer relu1
I0502 23:01:23.795701 14816 net.cpp:435] relu1 <- conv1
I0502 23:01:23.795704 14816 net.cpp:396] relu1 -> conv1 (in-place)
I0502 23:01:23.795717 14816 net.cpp:144] Setting up relu1
I0502 23:01:23.795722 14816 net.cpp:151] Top shape: 20 64 20 20 (512000)
I0502 23:01:23.795724 14816 net.cpp:159] Memory required for data: 4128080
I0502 23:01:23.795727 14816 layer_factory.hpp:77] Creating layer conv2
I0502 23:01:23.795735 14816 net.cpp:94] Creating Layer conv2
I0502 23:01:23.795738 14816 net.cpp:435] conv2 <- conv1
I0502 23:01:23.795743 14816 net.cpp:409] conv2 -> conv2
I0502 23:01:23.807227 14816 net.cpp:144] Setting up conv2
I0502 23:01:23.807245 14816 net.cpp:151] Top shape: 20 64 20 20 (512000)
I0502 23:01:23.807250 14816 net.cpp:159] Memory required for data: 6176080
I0502 23:01:23.807258 14816 layer_factory.hpp:77] Creating layer relu2
I0502 23:01:23.807266 14816 net.cpp:94] Creating Layer relu2
I0502 23:01:23.807270 14816 net.cpp:435] relu2 <- conv2
I0502 23:01:23.807274 14816 net.cpp:396] relu2 -> conv2 (in-place)
I0502 23:01:23.807282 14816 net.cpp:144] Setting up relu2
I0502 23:01:23.807287 14816 net.cpp:151] Top shape: 20 64 20 20 (512000)
I0502 23:01:23.807291 14816 net.cpp:159] Memory required for data: 8224080
I0502 23:01:23.807293 14816 layer_factory.hpp:77] Creating layer pool2
I0502 23:01:23.807299 14816 net.cpp:94] Creating Layer pool2
I0502 23:01:23.807309 14816 net.cpp:435] pool2 <- conv2
I0502 23:01:23.807314 14816 net.cpp:409] pool2 -> pool2
I0502 23:01:23.807373 14816 net.cpp:144] Setting up pool2
I0502 23:01:23.807379 14816 net.cpp:151] Top shape: 20 64 10 10 (128000)
I0502 23:01:23.807384 14816 net.cpp:159] Memory required for data: 8736080
I0502 23:01:23.807387 14816 layer_factory.hpp:77] Creating layer conv3
I0502 23:01:23.807395 14816 net.cpp:94] Creating Layer conv3
I0502 23:01:23.807399 14816 net.cpp:435] conv3 <- pool2
I0502 23:01:23.807404 14816 net.cpp:409] conv3 -> conv3
I0502 23:01:23.817004 14816 net.cpp:144] Setting up conv3
I0502 23:01:23.817019 14816 net.cpp:151] Top shape: 20 128 10 10 (256000)
I0502 23:01:23.817023 14816 net.cpp:159] Memory required for data: 9760080
I0502 23:01:23.817031 14816 layer_factory.hpp:77] Creating layer relu3
I0502 23:01:23.817037 14816 net.cpp:94] Creating Layer relu3
I0502 23:01:23.817041 14816 net.cpp:435] relu3 <- conv3
I0502 23:01:23.817046 14816 net.cpp:396] relu3 -> conv3 (in-place)
I0502 23:01:23.817054 14816 net.cpp:144] Setting up relu3
I0502 23:01:23.817057 14816 net.cpp:151] Top shape: 20 128 10 10 (256000)
I0502 23:01:23.817060 14816 net.cpp:159] Memory required for data: 10784080
I0502 23:01:23.817064 14816 layer_factory.hpp:77] Creating layer conv4
I0502 23:01:23.817072 14816 net.cpp:94] Creating Layer conv4
I0502 23:01:23.817076 14816 net.cpp:435] conv4 <- conv3
I0502 23:01:23.817081 14816 net.cpp:409] conv4 -> conv4
I0502 23:01:23.835312 14816 net.cpp:144] Setting up conv4
I0502 23:01:23.835328 14816 net.cpp:151] Top shape: 20 128 10 10 (256000)
I0502 23:01:23.835332 14816 net.cpp:159] Memory required for data: 11808080
I0502 23:01:23.835340 14816 layer_factory.hpp:77] Creating layer relu4
I0502 23:01:23.835346 14816 net.cpp:94] Creating Layer relu4
I0502 23:01:23.835350 14816 net.cpp:435] relu4 <- conv4
I0502 23:01:23.835355 14816 net.cpp:396] relu4 -> conv4 (in-place)
I0502 23:01:23.835362 14816 net.cpp:144] Setting up relu4
I0502 23:01:23.835366 14816 net.cpp:151] Top shape: 20 128 10 10 (256000)
I0502 23:01:23.835369 14816 net.cpp:159] Memory required for data: 12832080
I0502 23:01:23.835372 14816 layer_factory.hpp:77] Creating layer conv5
I0502 23:01:23.835381 14816 net.cpp:94] Creating Layer conv5
I0502 23:01:23.835384 14816 net.cpp:435] conv5 <- conv4
I0502 23:01:23.835389 14816 net.cpp:409] conv5 -> conv5
I0502 23:01:23.853143 14816 net.cpp:144] Setting up conv5
I0502 23:01:23.853163 14816 net.cpp:151] Top shape: 20 128 10 10 (256000)
I0502 23:01:23.853168 14816 net.cpp:159] Memory required for data: 13856080
I0502 23:01:23.853178 14816 layer_factory.hpp:77] Creating layer relu5
I0502 23:01:23.853184 14816 net.cpp:94] Creating Layer relu5
I0502 23:01:23.853188 14816 net.cpp:435] relu5 <- conv5
I0502 23:01:23.853193 14816 net.cpp:396] relu5 -> conv5 (in-place)
I0502 23:01:23.853201 14816 net.cpp:144] Setting up relu5
I0502 23:01:23.853205 14816 net.cpp:151] Top shape: 20 128 10 10 (256000)
I0502 23:01:23.853209 14816 net.cpp:159] Memory required for data: 14880080
I0502 23:01:23.853211 14816 layer_factory.hpp:77] Creating layer pool5
I0502 23:01:23.853217 14816 net.cpp:94] Creating Layer pool5
I0502 23:01:23.853220 14816 net.cpp:435] pool5 <- conv5
I0502 23:01:23.853224 14816 net.cpp:409] pool5 -> pool5
I0502 23:01:23.853273 14816 net.cpp:144] Setting up pool5
I0502 23:01:23.853281 14816 net.cpp:151] Top shape: 20 128 5 5 (64000)
I0502 23:01:23.853284 14816 net.cpp:159] Memory required for data: 15136080
I0502 23:01:23.853288 14816 layer_factory.hpp:77] Creating layer ip1
I0502 23:01:23.853297 14816 net.cpp:94] Creating Layer ip1
I0502 23:01:23.853302 14816 net.cpp:435] ip1 <- pool5
I0502 23:01:23.853307 14816 net.cpp:409] ip1 -> ip1
I0502 23:01:23.932576 14816 net.cpp:144] Setting up ip1
I0502 23:01:23.932611 14816 net.cpp:151] Top shape: 20 1024 (20480)
I0502 23:01:23.932616 14816 net.cpp:159] Memory required for data: 15218000
I0502 23:01:23.932626 14816 layer_factory.hpp:77] Creating layer ip2
I0502 23:01:23.932636 14816 net.cpp:94] Creating Layer ip2
I0502 23:01:23.932649 14816 net.cpp:435] ip2 <- ip1
I0502 23:01:23.932657 14816 net.cpp:409] ip2 -> ip2
I0502 23:01:23.945791 14816 net.cpp:144] Setting up ip2
I0502 23:01:23.945809 14816 net.cpp:151] Top shape: 20 512 (10240)
I0502 23:01:23.945813 14816 net.cpp:159] Memory required for data: 15258960
I0502 23:01:23.945822 14816 layer_factory.hpp:77] Creating layer ip3
I0502 23:01:23.945829 14816 net.cpp:94] Creating Layer ip3
I0502 23:01:23.945833 14816 net.cpp:435] ip3 <- ip2
I0502 23:01:23.945839 14816 net.cpp:409] ip3 -> ip3
I0502 23:01:23.945958 14816 net.cpp:144] Setting up ip3
I0502 23:01:23.945966 14816 net.cpp:151] Top shape: 20 1 (20)
I0502 23:01:23.945969 14816 net.cpp:159] Memory required for data: 15259040
I0502 23:01:23.945974 14816 layer_factory.hpp:77] Creating layer loss
I0502 23:01:23.945988 14816 net.cpp:94] Creating Layer loss
I0502 23:01:23.945992 14816 net.cpp:435] loss <- ip3
I0502 23:01:23.945996 14816 net.cpp:435] loss <- label
I0502 23:01:23.946000 14816 net.cpp:409] loss -> loss
I0502 23:01:23.946053 14816 net.cpp:144] Setting up loss
…
I0502 23:01:24.240283 14816 net.cpp:323] The NetState phase (0) differed from the phase (1) specified by a rule in layer intercept
I0502 23:01:24.240299 14816 net.cpp:323] The NetState phase (0) differed from the phase (1) specified by a rule in layer accuracy
I0502 23:01:24.240386 14816 net.cpp:52] Initializing net from parameters: 
state {
  phase: TRAIN
}
layer {
  name: "parameters"
  type: "HDF5Data"
  top: "data"
  top: "label"
  include {
    phase: TRAIN
  }
  hdf5_data_param {
    source: "/home/purduethu/scratch/radon/d/deng106/CNNStatisticalModel/distributions/input/50_distributions_400_sample_size_train-distributions-path.txt"
    batch_size: 20
  }
}
layer {
  name: "conv1"
  type: "Convolution"
  bottom: "data"
  top: "conv1"
  param {
    lr_mult: 1
  }
  param {
    lr_mult: 2
  }
  convolution_param {
    num_output: 64
    pad: 2
    kernel_size: 5
    stride: 1
    weight_filler {
      type: "gaussian"
      std: 0.0001
    }
    bias_filler {
      type: "constant"
    }
  }
}
layer {
  name: "relu1"
  type: "ReLU"
  bottom: "conv1"
  top: "conv1"
}
layer {
  name: "conv2"
  type: "Convolution"
  bottom: "conv1"
  top: "conv2"
  param {
    lr_mult: 1
  }
  param {
    lr_mult: 2
  }
  convolution_param {
    num_output: 64
    pad: 2
    kernel_size: 5
    stride: 1
    weight_filler {
      type: "gaussian"
      std: 0.01
    }
    bias_filler {
      type: "constant"
    }
  }
}
layer {
  name: "relu2"
  type: "ReLU"
  bottom: "conv2"
  top: "conv2"
}
layer {
  name: "pool2"
  type: "Pooling"
  bottom: "conv2"
  top: "pool2"
  pooling_param {
    pool: MAX
    kernel_size: 3
    stride: 2
  }
}
layer {
  name: "conv3"
  type: "Convolution"
  bottom: "pool2"
  top: "conv3"
  param {
    lr_mult: 1
  }
  param {
    lr_mult: 2
  }
  convolution_param {
    num_output: 128
    pad: 2
    kernel_size: 5
    stride: 1
    weight_filler {
      type: "gaussian"
      std: 0.01
    }
    bias_filler {
      type: "constant"
    }
  }
}
layer {
  name: "relu3"
  type: "ReLU"
  bottom: "conv3"
  top: "conv3"
}
layer {
  name: "conv4"
  type: "Convolution"
  bottom: "conv3"
  top: "conv4"
  param {
    lr_mult: 1
  }
  param {
    lr_mult: 2
  }
  convolution_param {
    num_output: 128
    pad: 2
    kernel_size: 5
    stride: 1
    weight_filler {
      type: "gaussian"
      std: 0.01
    }
    bias_filler {
      type: "constant"
    }
  }
}
layer {
  name: "relu4"
  type: "ReLU"
  bottom: "conv4"
  top: "conv4"
}
layer {
  name: "conv5"
  type: "Convolution"
  bottom: "conv4"
  top: "conv5"
  param {
    lr_mult: 1
  }
  param {
    lr_mult: 2
  }
  convolution_param {
    num_output: 128
    pad: 2
    kernel_size: 5
    stride: 1
    weight_filler {
      type: "gaussian"
      std: 0.01
    }
    bias_filler {
      type: "constant"
    }
  }
}
layer {
  name: "relu5"
  type: "ReLU"
  bottom: "conv5"
  top: "conv5"
}
layer {
  name: "pool5"
  type: "Pooling"
  bottom: "conv5"
  top: "pool5"
  pooling_param {
    pool: AVE
    kernel_size: 3
    stride: 2
  }
}
layer {
  name: "ip1"
  type: "InnerProduct"
  bottom: "pool5"
  top: "ip1"
  param {
    lr_mult: 1
  }
  param {
    lr_mult: 2
  }
  inner_product_param {
    num_output: 1024
    weight_filler {
      type: "gaussian"
      std: 0.1
    }
    bias_filler {
      type: "constant"
    }
  }
}
layer {
  name: "ip2"
  type: "InnerProduct"
  bottom: "ip1"
  top: "ip2"
  param {
    lr_mult: 1
  }
  param {
    lr_mult: 2
  }
  inner_product_param {
    num_output: 512
    weight_filler {
      type: "gaussian"
      std: 0.1
    }
    bias_filler {
      type: "constant"
    }
  }
}
layer {
  name: "ip3"
  type: "InnerProduct"
  bottom: "ip2"
  top: "ip3"
  param {
    lr_mult: 1
  }
  param {
    lr_mult: 2
  }
  inner_product_param {
    num_output: 50
    weight_filler {
      type: "gaussian"
      std: 0.1
    }
    bias_filler {
      type: "constant"
    }
  }
}
layer {
  name: "loss"
  type: "SoftmaxWithLoss"
  bottom: "ip3"
  bottom: "label"
  top: "loss"
}
I0502 23:01:24.240437 14816 layer_factory.hpp:77] Creating layer parameters
I0502 23:01:24.240444 14816 net.cpp:94] Creating Layer parameters
I0502 23:01:24.240449 14816 net.cpp:409] parameters -> data
I0502 23:01:24.240455 14816 net.cpp:409] parameters -> label
I0502 23:01:24.240461 14816 hdf5_data_layer.cpp:79] Loading list of HDF5 filenames from: /home/purduethu/scratch/radon/d/deng106/CNNStatisticalModel/distributions/input/50_distributions_400_sample_size_train-distributions-path.txt
I0502 23:01:24.240478 14816 hdf5_data_layer.cpp:93] Number of HDF5 files: 1
I0502 23:01:24.882189 14816 hdf5.cpp:35] Datatype class: H5T_INTEGER
I0502 23:01:24.885324 14816 net.cpp:144] Setting up parameters
I0502 23:01:24.885352 14816 net.cpp:151] Top shape: 20 1 20 20 (8000)
I0502 23:01:24.885357 14816 net.cpp:151] Top shape: 20 (20)
I0502 23:01:24.885360 14816 net.cpp:159] Memory required for data: 32080
I0502 23:01:24.885366 14816 layer_factory.hpp:77] Creating layer conv1
I0502 23:01:24.885385 14816 net.cpp:94] Creating Layer conv1
I0502 23:01:24.885388 14816 net.cpp:435] conv1 <- data
I0502 23:01:24.885396 14816 net.cpp:409] conv1 -> conv1
I0502 23:01:24.887841 14816 net.cpp:144] Setting up conv1
I0502 23:01:24.887856 14816 net.cpp:151] Top shape: 20 64 20 20 (512000)
I0502 23:01:24.887859 14816 net.cpp:159] Memory required for data: 2080080
I0502 23:01:24.887869 14816 layer_factory.hpp:77] Creating layer relu1
I0502 23:01:24.887877 14816 net.cpp:94] Creating Layer relu1
I0502 23:01:24.887881 14816 net.cpp:435] relu1 <- conv1
I0502 23:01:24.887886 14816 net.cpp:396] relu1 -> conv1 (in-place)
I0502 23:01:24.887892 14816 net.cpp:144] Setting up relu1
I0502 23:01:24.887897 14816 net.cpp:151] Top shape: 20 64 20 20 (512000)
I0502 23:01:24.887900 14816 net.cpp:159] Memory required for data: 4128080
I0502 23:01:24.887903 14816 layer_factory.hpp:77] Creating layer conv2
I0502 23:01:24.887910 14816 net.cpp:94] Creating Layer conv2
I0502 23:01:24.887914 14816 net.cpp:435] conv2 <- conv1
I0502 23:01:24.887919 14816 net.cpp:409] conv2 -> conv2
I0502 23:01:24.898757 14816 net.cpp:144] Setting up conv2
I0502 23:01:24.898773 14816 net.cpp:151] Top shape: 20 64 20 20 (512000)
I0502 23:01:24.898777 14816 net.cpp:159] Memory required for data: 6176080
I0502 23:01:24.898787 14816 layer_factory.hpp:77] Creating layer relu2
I0502 23:01:24.898793 14816 net.cpp:94] Creating Layer relu2
I0502 23:01:24.898797 14816 net.cpp:435] relu2 <- conv2
I0502 23:01:24.898802 14816 net.cpp:396] relu2 -> conv2 (in-place)
I0502 23:01:24.898809 14816 net.cpp:144] Setting up relu2
I0502 23:01:24.898813 14816 net.cpp:151] Top shape: 20 64 20 20 (512000)
I0502 23:01:24.898816 14816 net.cpp:159] Memory required for data: 8224080
I0502 23:01:24.898819 14816 layer_factory.hpp:77] Creating layer pool2
I0502 23:01:24.898825 14816 net.cpp:94] Creating Layer pool2
I0502 23:01:24.898828 14816 net.cpp:435] pool2 <- conv2
I0502 23:01:24.898833 14816 net.cpp:409] pool2 -> pool2
I0502 23:01:24.898892 14816 net.cpp:144] Setting up pool2
I0502 23:01:24.898900 14816 net.cpp:151] Top shape: 20 64 10 10 (128000)
I0502 23:01:24.898903 14816 net.cpp:159] Memory required for data: 8736080
I0502 23:01:24.898907 14816 layer_factory.hpp:77] Creating layer conv3
I0502 23:01:24.898916 14816 net.cpp:94] Creating Layer conv3
I0502 23:01:24.898919 14816 net.cpp:435] conv3 <- pool2
I0502 23:01:24.898931 14816 net.cpp:409] conv3 -> conv3
I0502 23:01:24.909508 14816 net.cpp:144] Setting up conv3
I0502 23:01:24.909525 14816 net.cpp:151] Top shape: 20 128 10 10 (256000)
I0502 23:01:24.909529 14816 net.cpp:159] Memory required for data: 9760080
I0502 23:01:24.909538 14816 layer_factory.hpp:77] Creating layer relu3
I0502 23:01:24.909544 14816 net.cpp:94] Creating Layer relu3
I0502 23:01:24.909548 14816 net.cpp:435] relu3 <- conv3
I0502 23:01:24.909553 14816 net.cpp:396] relu3 -> conv3 (in-place)
I0502 23:01:24.909559 14816 net.cpp:144] Setting up relu3
I0502 23:01:24.909564 14816 net.cpp:151] Top shape: 20 128 10 10 (256000)
I0502 23:01:24.909567 14816 net.cpp:159] Memory required for data: 10784080
I0502 23:01:24.909570 14816 layer_factory.hpp:77] Creating layer conv4
I0502 23:01:24.909579 14816 net.cpp:94] Creating Layer conv4
I0502 23:01:24.909582 14816 net.cpp:435] conv4 <- conv3
I0502 23:01:24.909587 14816 net.cpp:409] conv4 -> conv4
I0502 23:01:24.927744 14816 net.cpp:144] Setting up conv4
I0502 23:01:24.927762 14816 net.cpp:151] Top shape: 20 128 10 10 (256000)
I0502 23:01:24.927767 14816 net.cpp:159] Memory required for data: 11808080
I0502 23:01:24.927772 14816 layer_factory.hpp:77] Creating layer relu4
I0502 23:01:24.927779 14816 net.cpp:94] Creating Layer relu4
I0502 23:01:24.927783 14816 net.cpp:435] relu4 <- conv4
I0502 23:01:24.927788 14816 net.cpp:396] relu4 -> conv4 (in-place)
I0502 23:01:24.927795 14816 net.cpp:144] Setting up relu4
I0502 23:01:24.927799 14816 net.cpp:151] Top shape: 20 128 10 10 (256000)
I0502 23:01:24.927803 14816 net.cpp:159] Memory required for data: 12832080
I0502 23:01:24.927805 14816 layer_factory.hpp:77] Creating layer conv5
I0502 23:01:24.927814 14816 net.cpp:94] Creating Layer conv5
I0502 23:01:24.927817 14816 net.cpp:435] conv5 <- conv4
I0502 23:01:24.927822 14816 net.cpp:409] conv5 -> conv5
I0502 23:01:24.945660 14816 net.cpp:144] Setting up conv5
I0502 23:01:24.945680 14816 net.cpp:151] Top shape: 20 128 10 10 (256000)
I0502 23:01:24.945684 14816 net.cpp:159] Memory required for data: 13856080
I0502 23:01:24.945693 14816 layer_factory.hpp:77] Creating layer relu5
I0502 23:01:24.945700 14816 net.cpp:94] Creating Layer relu5
I0502 23:01:24.945704 14816 net.cpp:435] relu5 <- conv5
I0502 23:01:24.945709 14816 net.cpp:396] relu5 -> conv5 (in-place)
I0502 23:01:24.945716 14816 net.cpp:144] Setting up relu5
I0502 23:01:24.945721 14816 net.cpp:151] Top shape: 20 128 10 10 (256000)
I0502 23:01:24.945724 14816 net.cpp:159] Memory required for data: 14880080
I0502 23:01:24.945727 14816 layer_factory.hpp:77] Creating layer pool5
I0502 23:01:24.945732 14816 net.cpp:94] Creating Layer pool5
I0502 23:01:24.945736 14816 net.cpp:435] pool5 <- conv5
I0502 23:01:24.945740 14816 net.cpp:409] pool5 -> pool5
I0502 23:01:24.945785 14816 net.cpp:144] Setting up pool5
I0502 23:01:24.945793 14816 net.cpp:151] Top shape: 20 128 5 5 (64000)
I0502 23:01:24.945796 14816 net.cpp:159] Memory required for data: 15136080
I0502 23:01:24.945799 14816 layer_factory.hpp:77] Creating layer ip1
I0502 23:01:24.945806 14816 net.cpp:94] Creating Layer ip1
I0502 23:01:24.945809 14816 net.cpp:435] ip1 <- pool5
I0502 23:01:24.945814 14816 net.cpp:409] ip1 -> ip1
I0502 23:01:25.025106 14816 net.cpp:144] Setting up ip1
I0502 23:01:25.025141 14816 net.cpp:151] Top shape: 20 1024 (20480)
I0502 23:01:25.025146 14816 net.cpp:159] Memory required for data: 15218000
I0502 23:01:25.025153 14816 layer_factory.hpp:77] Creating layer ip2
I0502 23:01:25.025164 14816 net.cpp:94] Creating Layer ip2
I0502 23:01:25.025169 14816 net.cpp:435] ip2 <- ip1
I0502 23:01:25.025177 14816 net.cpp:409] ip2 -> ip2
I0502 23:01:25.038401 14816 net.cpp:144] Setting up ip2
I0502 23:01:25.038424 14816 net.cpp:151] Top shape: 20 512 (10240)
I0502 23:01:25.038427 14816 net.cpp:159] Memory required for data: 15258960
I0502 23:01:25.038434 14816 layer_factory.hpp:77] Creating layer ip3
I0502 23:01:25.038442 14816 net.cpp:94] Creating Layer ip3
I0502 23:01:25.038446 14816 net.cpp:435] ip3 <- ip2
I0502 23:01:25.038452 14816 net.cpp:409] ip3 -> ip3
I0502 23:01:25.040081 14816 net.cpp:144] Setting up ip3
I0502 23:01:25.040096 14816 net.cpp:151] Top shape: 20 50 (1000)
I0502 23:01:25.040099 14816 net.cpp:159] Memory required for data: 15262960
I0502 23:01:25.040105 14816 layer_factory.hpp:77] Creating layer loss
I0502 23:01:25.040114 14816 net.cpp:94] Creating Layer loss
I0502 23:01:25.040117 14816 net.cpp:435] loss <- ip3
I0502 23:01:25.040122 14816 net.cpp:435] loss <- label
I0502 23:01:25.040127 14816 net.cpp:409] loss -> loss
I0502 23:01:25.040135 14816 layer_factory.hpp:77] Creating layer loss
…
I0502 23:01:25.040685 14816 solver.cpp:181] Creating test net (#0) specified by net file: ./protocol/dis_50_400_dimension.protocol_distribution
I0502 23:01:25.040714 14816 net.cpp:323] The NetState phase (1) differed from the phase (0) specified by a rule in layer parameters
I0502 23:01:25.040807 14816 net.cpp:52] Initializing net from parameters: 
state {
  phase: TEST
}
layer {
  name: "intercept"
  type: "HDF5Data"
  top: "data"
  top: "label"
  include {
    phase: TEST
  }
  hdf5_data_param {
    source: "/home/purduethu/scratch/radon/d/deng106/CNNStatisticalModel/distributions/input/50_distributions_400_sample_size_test-distributions-path.txt"
    batch_size: 20
  }
}
layer {
  name: "conv1"
  type: "Convolution"
  bottom: "data"
  top: "conv1"
  param {
    lr_mult: 1
  }
  param {
    lr_mult: 2
  }
  convolution_param {
    num_output: 64
    pad: 2
    kernel_size: 5
    stride: 1
    weight_filler {
      type: "gaussian"
      std: 0.0001
    }
    bias_filler {
      type: "constant"
    }
  }
}
layer {
  name: "relu1"
  type: "ReLU"
  bottom: "conv1"
  top: "conv1"
}
layer {
  name: "conv2"
  type: "Convolution"
  bottom: "conv1"
  top: "conv2"
  param {
    lr_mult: 1
  }
  param {
    lr_mult: 2
  }
  convolution_param {
    num_output: 64
    pad: 2
    kernel_size: 5
    stride: 1
    weight_filler {
      type: "gaussian"
      std: 0.01
    }
    bias_filler {
      type: "constant"
    }
  }
}
layer {
  name: "relu2"
  type: "ReLU"
  bottom: "conv2"
  top: "conv2"
}
layer {
  name: "pool2"
  type: "Pooling"
  bottom: "conv2"
  top: "pool2"
  pooling_param {
    pool: MAX
    kernel_size: 3
    stride: 2
  }
}
layer {
  name: "conv3"
  type: "Convolution"
  bottom: "pool2"
  top: "conv3"
  param {
    lr_mult: 1
  }
  param {
    lr_mult: 2
  }
  convolution_param {
    num_output: 128
    pad: 2
    kernel_size: 5
    stride: 1
    weight_filler {
      type: "gaussian"
      std: 0.01
    }
    bias_filler {
      type: "constant"
    }
  }
}
layer {
  name: "relu3"
  type: "ReLU"
  bottom: "conv3"
  top: "conv3"
}
layer {
  name: "conv4"
  type: "Convolution"
  bottom: "conv3"
  top: "conv4"
  param {
    lr_mult: 1
  }
  param {
    lr_mult: 2
  }
  convolution_param {
    num_output: 128
    pad: 2
    kernel_size: 5
    stride: 1
    weight_filler {
      type: "gaussian"
      std: 0.01
    }
    bias_filler {
      type: "constant"
    }
  }
}
layer {
  name: "relu4"
  type: "ReLU"
  bottom: "conv4"
  top: "conv4"
}
layer {
  name: "conv5"
  type: "Convolution"
  bottom: "conv4"
  top: "conv5"
  param {
    lr_mult: 1
  }
  param {
    lr_mult: 2
  }
  convolution_param {
    num_output: 128
    pad: 2
    kernel_size: 5
    stride: 1
    weight_filler {
      type: "gaussian"
      std: 0.01
    }
    bias_filler {
      type: "constant"
    }
  }
}
layer {
  name: "relu5"
  type: "ReLU"
  bottom: "conv5"
  top: "conv5"
}
layer {
  name: "pool5"
  type: "Pooling"
  bottom: "conv5"
  top: "pool5"
  pooling_param {
    pool: AVE
    kernel_size: 3
    stride: 2
  }
}
layer {
  name: "ip1"
  type: "InnerProduct"
  bottom: "pool5"
  top: "ip1"
  param {
    lr_mult: 1
  }
  param {
    lr_mult: 2
  }
  inner_product_param {
    num_output: 1024
    weight_filler {
      type: "gaussian"
      std: 0.1
    }
    bias_filler {
      type: "constant"
    }
  }
}
layer {
  name: "ip2"
  type: "InnerProduct"
  bottom: "ip1"
  top: "ip2"
  param {
    lr_mult: 1
  }
  param {
    lr_mult: 2
  }
  inner_product_param {
    num_output: 512
    weight_filler {
      type: "gaussian"
      std: 0.1
    }
    bias_filler {
      type: "constant"
    }
  }
}
layer {
  name: "ip3"
  type: "InnerProduct"
  bottom: "ip2"
  top: "ip3"
  param {
    lr_mult: 1
  }
  param {
    lr_mult: 2
  }
  inner_product_param {
    num_output: 50
    weight_filler {
      type: "gaussian"
      std: 0.1
    }
    bias_filler {
      type: "constant"
    }
  }
}
layer {
  name: "accuracy"
  type: "Accuracy"
  bottom: "ip3"
  bottom: "label"
  top: "accuracy"
  include {
    phase: TEST
  }
}
layer {
  name: "loss"
  type: "SoftmaxWithLoss"
  bottom: "ip3"
  bottom: "label"
  top: "loss"
}
I0502 23:01:25.040875 14816 layer_factory.hpp:77] Creating layer intercept
I0502 23:01:25.040884 14816 net.cpp:94] Creating Layer intercept
I0502 23:01:25.040889 14816 net.cpp:409] intercept -> data
I0502 23:01:25.040895 14816 net.cpp:409] intercept -> label
I0502 23:01:25.040901 14816 hdf5_data_layer.cpp:79] Loading list of HDF5 filenames from: /home/purduethu/scratch/radon/d/deng106/CNNStatisticalModel/distributions/input/50_distributions_400_sample_size_test-distributions-path.txt
I0502 23:01:25.040922 14816 hdf5_data_layer.cpp:93] Number of HDF5 files: 1
I0502 23:01:25.204546 14816 net.cpp:144] Setting up intercept
I0502 23:01:25.204594 14816 net.cpp:151] Top shape: 20 1 20 20 (8000)
I0502 23:01:25.204601 14816 net.cpp:151] Top shape: 20 (20)
I0502 23:01:25.204603 14816 net.cpp:159] Memory required for data: 32080
I0502 23:01:25.204609 14816 layer_factory.hpp:77] Creating layer label_intercept_1_split
I0502 23:01:25.204628 14816 net.cpp:94] Creating Layer label_intercept_1_split
I0502 23:01:25.204632 14816 net.cpp:435] label_intercept_1_split <- label
I0502 23:01:25.204638 14816 net.cpp:409] label_intercept_1_split -> label_intercept_1_split_0
I0502 23:01:25.204648 14816 net.cpp:409] label_intercept_1_split -> label_intercept_1_split_1
I0502 23:01:25.204695 14816 net.cpp:144] Setting up label_intercept_1_split
I0502 23:01:25.204702 14816 net.cpp:151] Top shape: 20 (20)
I0502 23:01:25.204705 14816 net.cpp:151] Top shape: 20 (20)
I0502 23:01:25.204708 14816 net.cpp:159] Memory required for data: 32240
I0502 23:01:25.204712 14816 layer_factory.hpp:77] Creating layer conv1
I0502 23:01:25.204723 14816 net.cpp:94] Creating Layer conv1
I0502 23:01:25.204726 14816 net.cpp:435] conv1 <- data
I0502 23:01:25.204731 14816 net.cpp:409] conv1 -> conv1
I0502 23:01:25.205559 14816 net.cpp:144] Setting up conv1
I0502 23:01:25.205571 14816 net.cpp:151] Top shape: 20 64 20 20 (512000)
I0502 23:01:25.205575 14816 net.cpp:159] Memory required for data: 2080240
I0502 23:01:25.205585 14816 layer_factory.hpp:77] Creating layer relu1
I0502 23:01:25.205592 14816 net.cpp:94] Creating Layer relu1
I0502 23:01:25.205595 14816 net.cpp:435] relu1 <- conv1
I0502 23:01:25.205600 14816 net.cpp:396] relu1 -> conv1 (in-place)
I0502 23:01:25.205607 14816 net.cpp:144] Setting up relu1
I0502 23:01:25.205612 14816 net.cpp:151] Top shape: 20 64 20 20 (512000)
I0502 23:01:25.205615 14816 net.cpp:159] Memory required for data: 4128240
I0502 23:01:25.205618 14816 layer_factory.hpp:77] Creating layer conv2
I0502 23:01:25.205626 14816 net.cpp:94] Creating Layer conv2
I0502 23:01:25.205631 14816 net.cpp:435] conv2 <- conv1
I0502 23:01:25.205636 14816 net.cpp:409] conv2 -> conv2
I0502 23:01:25.210965 14816 net.cpp:144] Setting up conv2
I0502 23:01:25.210983 14816 net.cpp:151] Top shape: 20 64 20 20 (512000)
I0502 23:01:25.210986 14816 net.cpp:159] Memory required for data: 6176240
I0502 23:01:25.210995 14816 layer_factory.hpp:77] Creating layer relu2
I0502 23:01:25.211002 14816 net.cpp:94] Creating Layer relu2
I0502 23:01:25.211006 14816 net.cpp:435] relu2 <- conv2
I0502 23:01:25.211010 14816 net.cpp:396] relu2 -> conv2 (in-place)
I0502 23:01:25.211017 14816 net.cpp:144] Setting up relu2
I0502 23:01:25.211022 14816 net.cpp:151] Top shape: 20 64 20 20 (512000)
I0502 23:01:25.211025 14816 net.cpp:159] Memory required for data: 8224240
I0502 23:01:25.211028 14816 layer_factory.hpp:77] Creating layer pool2
I0502 23:01:25.211035 14816 net.cpp:94] Creating Layer pool2
I0502 23:01:25.211037 14816 net.cpp:435] pool2 <- conv2
I0502 23:01:25.211043 14816 net.cpp:409] pool2 -> pool2
I0502 23:01:25.211107 14816 net.cpp:144] Setting up pool2
I0502 23:01:25.211114 14816 net.cpp:151] Top shape: 20 64 10 10 (128000)
I0502 23:01:25.211117 14816 net.cpp:159] Memory required for data: 8736240
I0502 23:01:25.211122 14816 layer_factory.hpp:77] Creating layer conv3
I0502 23:01:25.211129 14816 net.cpp:94] Creating Layer conv3
I0502 23:01:25.211133 14816 net.cpp:435] conv3 <- pool2
I0502 23:01:25.211139 14816 net.cpp:409] conv3 -> conv3
I0502 23:01:25.218451 14816 net.cpp:144] Setting up conv3
I0502 23:01:25.218466 14816 net.cpp:151] Top shape: 20 128 10 10 (256000)
I0502 23:01:25.218469 14816 net.cpp:159] Memory required for data: 9760240
I0502 23:01:25.218477 14816 layer_factory.hpp:77] Creating layer relu3
I0502 23:01:25.218484 14816 net.cpp:94] Creating Layer relu3
I0502 23:01:25.218488 14816 net.cpp:435] relu3 <- conv3
I0502 23:01:25.218493 14816 net.cpp:396] relu3 -> conv3 (in-place)
I0502 23:01:25.218500 14816 net.cpp:144] Setting up relu3
I0502 23:01:25.218504 14816 net.cpp:151] Top shape: 20 128 10 10 (256000)
I0502 23:01:25.218508 14816 net.cpp:159] Memory required for data: 10784240
I0502 23:01:25.218510 14816 layer_factory.hpp:77] Creating layer conv4
I0502 23:01:25.218519 14816 net.cpp:94] Creating Layer conv4
I0502 23:01:25.218523 14816 net.cpp:435] conv4 <- conv3
I0502 23:01:25.218529 14816 net.cpp:409] conv4 -> conv4
I0502 23:01:25.232421 14816 net.cpp:144] Setting up conv4
I0502 23:01:25.232440 14816 net.cpp:151] Top shape: 20 128 10 10 (256000)
I0502 23:01:25.232445 14816 net.cpp:159] Memory required for data: 11808240
I0502 23:01:25.232450 14816 layer_factory.hpp:77] Creating layer relu4
I0502 23:01:25.232457 14816 net.cpp:94] Creating Layer relu4
I0502 23:01:25.232461 14816 net.cpp:435] relu4 <- conv4
I0502 23:01:25.232466 14816 net.cpp:396] relu4 -> conv4 (in-place)
I0502 23:01:25.232473 14816 net.cpp:144] Setting up relu4
I0502 23:01:25.232478 14816 net.cpp:151] Top shape: 20 128 10 10 (256000)
I0502 23:01:25.232481 14816 net.cpp:159] Memory required for data: 12832240
I0502 23:01:25.232484 14816 layer_factory.hpp:77] Creating layer conv5
I0502 23:01:25.232493 14816 net.cpp:94] Creating Layer conv5
I0502 23:01:25.232497 14816 net.cpp:435] conv5 <- conv4
I0502 23:01:25.232503 14816 net.cpp:409] conv5 -> conv5
I0502 23:01:25.245829 14816 net.cpp:144] Setting up conv5
I0502 23:01:25.245847 14816 net.cpp:151] Top shape: 20 128 10 10 (256000)
I0502 23:01:25.245851 14816 net.cpp:159] Memory required for data: 13856240
I0502 23:01:25.245860 14816 layer_factory.hpp:77] Creating layer relu5
I0502 23:01:25.245867 14816 net.cpp:94] Creating Layer relu5
I0502 23:01:25.245872 14816 net.cpp:435] relu5 <- conv5
I0502 23:01:25.245877 14816 net.cpp:396] relu5 -> conv5 (in-place)
I0502 23:01:25.245884 14816 net.cpp:144] Setting up relu5
I0502 23:01:25.245888 14816 net.cpp:151] Top shape: 20 128 10 10 (256000)
I0502 23:01:25.245892 14816 net.cpp:159] Memory required for data: 14880240
I0502 23:01:25.245894 14816 layer_factory.hpp:77] Creating layer pool5
I0502 23:01:25.245900 14816 net.cpp:94] Creating Layer pool5
I0502 23:01:25.245903 14816 net.cpp:435] pool5 <- conv5
I0502 23:01:25.245908 14816 net.cpp:409] pool5 -> pool5
I0502 23:01:25.245959 14816 net.cpp:144] Setting up pool5
I0502 23:01:25.245966 14816 net.cpp:151] Top shape: 20 128 5 5 (64000)
I0502 23:01:25.245970 14816 net.cpp:159] Memory required for data: 15136240
I0502 23:01:25.245973 14816 layer_factory.hpp:77] Creating layer ip1
I0502 23:01:25.245981 14816 net.cpp:94] Creating Layer ip1
I0502 23:01:25.245985 14816 net.cpp:435] ip1 <- pool5
I0502 23:01:25.245990 14816 net.cpp:409] ip1 -> ip1
I0502 23:01:25.325317 14816 net.cpp:144] Setting up ip1
I0502 23:01:25.325352 14816 net.cpp:151] Top shape: 20 1024 (20480)
I0502 23:01:25.325356 14816 net.cpp:159] Memory required for data: 15218160
I0502 23:01:25.325364 14816 layer_factory.hpp:77] Creating layer ip2
I0502 23:01:25.325376 14816 net.cpp:94] Creating Layer ip2
I0502 23:01:25.325381 14816 net.cpp:435] ip2 <- ip1
I0502 23:01:25.325388 14816 net.cpp:409] ip2 -> ip2
I0502 23:01:25.338614 14816 net.cpp:144] Setting up ip2
I0502 23:01:25.338632 14816 net.cpp:151] Top shape: 20 512 (10240)
I0502 23:01:25.338636 14816 net.cpp:159] Memory required for data: 15259120
I0502 23:01:25.338642 14816 layer_factory.hpp:77] Creating layer ip3
I0502 23:01:25.338651 14816 net.cpp:94] Creating Layer ip3
I0502 23:01:25.338655 14816 net.cpp:435] ip3 <- ip2
I0502 23:01:25.338661 14816 net.cpp:409] ip3 -> ip3
I0502 23:01:25.339411 14816 net.cpp:144] Setting up ip3
I0502 23:01:25.339419 14816 net.cpp:151] Top shape: 20 50 (1000)
I0502 23:01:25.339422 14816 net.cpp:159] Memory required for data: 15263120
I0502 23:01:25.339427 14816 layer_factory.hpp:77] Creating layer ip3_ip3_0_split
I0502 23:01:25.339433 14816 net.cpp:94] Creating Layer ip3_ip3_0_split
I0502 23:01:25.339437 14816 net.cpp:435] ip3_ip3_0_split <- ip3
I0502 23:01:25.339442 14816 net.cpp:409] ip3_ip3_0_split -> ip3_ip3_0_split_0
I0502 23:01:25.339448 14816 net.cpp:409] ip3_ip3_0_split -> ip3_ip3_0_split_1
I0502 23:01:25.339493 14816 net.cpp:144] Setting up ip3_ip3_0_split
I0502 23:01:25.339500 14816 net.cpp:151] Top shape: 20 50 (1000)
I0502 23:01:25.339504 14816 net.cpp:151] Top shape: 20 50 (1000)
I0502 23:01:25.339507 14816 net.cpp:159] Memory required for data: 15271120
I0502 23:01:25.339510 14816 layer_factory.hpp:77] Creating layer accuracy
I0502 23:01:25.339516 14816 net.cpp:94] Creating Layer accuracy
I0502 23:01:25.339519 14816 net.cpp:435] accuracy <- ip3_ip3_0_split_0
I0502 23:01:25.339524 14816 net.cpp:435] accuracy <- label_intercept_1_split_0
I0502 23:01:25.339529 14816 net.cpp:409] accuracy -> accuracy
…
