…
I0505 05:41:40.990150  3647 net.cpp:323] The NetState phase (0) differed from the phase (1) specified by a rule in layer intercept
I0505 05:41:40.990165  3647 net.cpp:323] The NetState phase (0) differed from the phase (1) specified by a rule in layer accuracy
I0505 05:41:40.990243  3647 net.cpp:52] Initializing net from parameters: 
state {
  phase: TRAIN
}
layer {
  name: "parameters"
  type: "HDF5Data"
  top: "data"
  top: "label"
  include {
    phase: TRAIN
  }
  hdf5_data_param {
    source: "/home/purduethu/scratch/radon/d/deng106/CNNStatisticalModel/distributions/input/5_distributions_900_sample_size_train-distributions-path.txt"
    batch_size: 20
  }
}
layer {
  name: "conv1"
  type: "Convolution"
  bottom: "data"
  top: "conv1"
  param {
    lr_mult: 1
  }
  param {
    lr_mult: 2
  }
  convolution_param {
    num_output: 64
    pad: 2
    kernel_size: 5
    stride: 1
    weight_filler {
      type: "gaussian"
      std: 0.0001
    }
    bias_filler {
      type: "constant"
    }
  }
}
layer {
  name: "relu1"
  type: "ReLU"
  bottom: "conv1"
  top: "conv1"
}
layer {
  name: "pool1"
  type: "Pooling"
  bottom: "conv1"
  top: "pool1"
  pooling_param {
    pool: MAX
    kernel_size: 3
    stride: 2
  }
}
layer {
  name: "conv2"
  type: "Convolution"
  bottom: "pool1"
  top: "conv2"
  param {
    lr_mult: 1
  }
  param {
    lr_mult: 2
  }
  convolution_param {
    num_output: 128
    pad: 2
    kernel_size: 5
    stride: 1
    weight_filler {
      type: "gaussian"
      std: 0.01
    }
    bias_filler {
      type: "constant"
    }
  }
}
layer {
  name: "relu2"
  type: "ReLU"
  bottom: "conv2"
  top: "conv2"
}
layer {
  name: "conv3"
  type: "Convolution"
  bottom: "conv2"
  top: "conv3"
  param {
    lr_mult: 1
  }
  param {
    lr_mult: 2
  }
  convolution_param {
    num_output: 128
    pad: 2
    kernel_size: 5
    stride: 1
    weight_filler {
      type: "gaussian"
      std: 0.01
    }
    bias_filler {
      type: "constant"
    }
  }
}
layer {
  name: "relu3"
  type: "ReLU"
  bottom: "conv3"
  top: "conv3"
}
layer {
  name: "pool3"
  type: "Pooling"
  bottom: "conv3"
  top: "pool3"
  pooling_param {
    pool: AVE
    kernel_size: 3
    stride: 2
  }
}
layer {
  name: "ip1"
  type: "InnerProduct"
  bottom: "pool3"
  top: "ip1"
  param {
    lr_mult: 1
  }
  param {
    lr_mult: 2
  }
  inner_product_param {
    num_output: 512
    weight_filler {
      type: "gaussian"
      std: 0.1
    }
    bias_filler {
      type: "constant"
    }
  }
}
layer {
  name: "ip2"
  type: "InnerProduct"
  bottom: "ip1"
  top: "ip2"
  param {
    lr_mult: 1
  }
  param {
    lr_mult: 2
  }
  inner_product_param {
    num_output: 256
    weight_filler {
      type: "gaussian"
      std: 0.1
    }
    bias_filler {
      type: "constant"
    }
  }
}
layer {
  name: "ip3"
  type: "InnerProduct"
  bottom: "ip2"
  top: "ip3"
  param {
    lr_mult: 1
  }
  param {
    lr_mult: 2
  }
  inner_product_param {
    num_output: 50
    weight_filler {
      type: "gaussian"
      std: 0.1
    }
    bias_filler {
      type: "constant"
    }
  }
}
layer {
  name: "loss"
  type: "SoftmaxWithLoss"
  bottom: "ip3"
  bottom: "label"
  top: "loss"
}
I0505 05:41:40.990305  3647 layer_factory.hpp:77] Creating layer parameters
I0505 05:41:40.990322  3647 net.cpp:94] Creating Layer parameters
I0505 05:41:40.990329  3647 net.cpp:409] parameters -> data
I0505 05:41:40.990356  3647 net.cpp:409] parameters -> label
I0505 05:41:40.990367  3647 hdf5_data_layer.cpp:79] Loading list of HDF5 filenames from: /home/purduethu/scratch/radon/d/deng106/CNNStatisticalModel/distributions/input/5_distributions_900_sample_size_train-distributions-path.txt
I0505 05:41:40.990391  3647 hdf5_data_layer.cpp:93] Number of HDF5 files: 1
I0505 05:41:40.990854  3647 hdf5.cpp:32] Datatype class: H5T_FLOAT
I0505 05:41:41.127086  3647 hdf5.cpp:35] Datatype class: H5T_INTEGER
I0505 05:41:41.128226  3647 net.cpp:144] Setting up parameters
I0505 05:41:41.128245  3647 net.cpp:151] Top shape: 20 1 30 30 (18000)
I0505 05:41:41.128252  3647 net.cpp:151] Top shape: 20 (20)
I0505 05:41:41.128255  3647 net.cpp:159] Memory required for data: 72080
I0505 05:41:41.128263  3647 layer_factory.hpp:77] Creating layer conv1
I0505 05:41:41.128281  3647 net.cpp:94] Creating Layer conv1
I0505 05:41:41.128288  3647 net.cpp:435] conv1 <- data
I0505 05:41:41.128298  3647 net.cpp:409] conv1 -> conv1
I0505 05:41:41.134264  3647 net.cpp:144] Setting up conv1
I0505 05:41:41.134304  3647 net.cpp:151] Top shape: 20 64 30 30 (1152000)
I0505 05:41:41.134315  3647 net.cpp:159] Memory required for data: 4680080
I0505 05:41:41.134343  3647 layer_factory.hpp:77] Creating layer relu1
I0505 05:41:41.134362  3647 net.cpp:94] Creating Layer relu1
I0505 05:41:41.134374  3647 net.cpp:435] relu1 <- conv1
I0505 05:41:41.134387  3647 net.cpp:396] relu1 -> conv1 (in-place)
I0505 05:41:41.134424  3647 net.cpp:144] Setting up relu1
I0505 05:41:41.134438  3647 net.cpp:151] Top shape: 20 64 30 30 (1152000)
I0505 05:41:41.134449  3647 net.cpp:159] Memory required for data: 9288080
I0505 05:41:41.134457  3647 layer_factory.hpp:77] Creating layer pool1
I0505 05:41:41.134474  3647 net.cpp:94] Creating Layer pool1
I0505 05:41:41.134483  3647 net.cpp:435] pool1 <- conv1
I0505 05:41:41.134496  3647 net.cpp:409] pool1 -> pool1
I0505 05:41:41.134601  3647 net.cpp:144] Setting up pool1
I0505 05:41:41.134619  3647 net.cpp:151] Top shape: 20 64 15 15 (288000)
I0505 05:41:41.134629  3647 net.cpp:159] Memory required for data: 10440080
I0505 05:41:41.134649  3647 layer_factory.hpp:77] Creating layer conv2
I0505 05:41:41.134658  3647 net.cpp:94] Creating Layer conv2
I0505 05:41:41.134662  3647 net.cpp:435] conv2 <- pool1
I0505 05:41:41.134667  3647 net.cpp:409] conv2 -> conv2
I0505 05:41:41.148172  3647 net.cpp:144] Setting up conv2
I0505 05:41:41.148188  3647 net.cpp:151] Top shape: 20 128 15 15 (576000)
I0505 05:41:41.148193  3647 net.cpp:159] Memory required for data: 12744080
I0505 05:41:41.148201  3647 layer_factory.hpp:77] Creating layer relu2
I0505 05:41:41.148207  3647 net.cpp:94] Creating Layer relu2
I0505 05:41:41.148211  3647 net.cpp:435] relu2 <- conv2
I0505 05:41:41.148216  3647 net.cpp:396] relu2 -> conv2 (in-place)
I0505 05:41:41.148224  3647 net.cpp:144] Setting up relu2
I0505 05:41:41.148228  3647 net.cpp:151] Top shape: 20 128 15 15 (576000)
I0505 05:41:41.148231  3647 net.cpp:159] Memory required for data: 15048080
I0505 05:41:41.148236  3647 layer_factory.hpp:77] Creating layer conv3
I0505 05:41:41.148243  3647 net.cpp:94] Creating Layer conv3
I0505 05:41:41.148247  3647 net.cpp:435] conv3 <- conv2
I0505 05:41:41.148252  3647 net.cpp:409] conv3 -> conv3
I0505 05:41:41.170625  3647 net.cpp:144] Setting up conv3
I0505 05:41:41.170666  3647 net.cpp:151] Top shape: 20 128 15 15 (576000)
I0505 05:41:41.170678  3647 net.cpp:159] Memory required for data: 17352080
I0505 05:41:41.170712  3647 layer_factory.hpp:77] Creating layer relu3
I0505 05:41:41.170730  3647 net.cpp:94] Creating Layer relu3
I0505 05:41:41.170742  3647 net.cpp:435] relu3 <- conv3
I0505 05:41:41.170753  3647 net.cpp:396] relu3 -> conv3 (in-place)
I0505 05:41:41.170773  3647 net.cpp:144] Setting up relu3
I0505 05:41:41.170786  3647 net.cpp:151] Top shape: 20 128 15 15 (576000)
I0505 05:41:41.170796  3647 net.cpp:159] Memory required for data: 19656080
I0505 05:41:41.170804  3647 layer_factory.hpp:77] Creating layer pool3
I0505 05:41:41.170820  3647 net.cpp:94] Creating Layer pool3
I0505 05:41:41.170843  3647 net.cpp:435] pool3 <- conv3
I0505 05:41:41.170858  3647 net.cpp:409] pool3 -> pool3
I0505 05:41:41.170943  3647 net.cpp:144] Setting up pool3
I0505 05:41:41.170969  3647 net.cpp:151] Top shape: 20 128 7 7 (125440)
I0505 05:41:41.170972  3647 net.cpp:159] Memory required for data: 20157840
I0505 05:41:41.170975  3647 layer_factory.hpp:77] Creating layer ip1
I0505 05:41:41.170986  3647 net.cpp:94] Creating Layer ip1
I0505 05:41:41.170990  3647 net.cpp:435] ip1 <- pool3
I0505 05:41:41.170995  3647 net.cpp:409] ip1 -> ip1
I0505 05:41:41.253245  3647 net.cpp:144] Setting up ip1
I0505 05:41:41.253276  3647 net.cpp:151] Top shape: 20 512 (10240)
I0505 05:41:41.253280  3647 net.cpp:159] Memory required for data: 20198800
I0505 05:41:41.253288  3647 layer_factory.hpp:77] Creating layer ip2
I0505 05:41:41.253298  3647 net.cpp:94] Creating Layer ip2
I0505 05:41:41.253304  3647 net.cpp:435] ip2 <- ip1
I0505 05:41:41.253310  3647 net.cpp:409] ip2 -> ip2
I0505 05:41:41.256597  3647 net.cpp:144] Setting up ip2
I0505 05:41:41.256608  3647 net.cpp:151] Top shape: 20 256 (5120)
I0505 05:41:41.256611  3647 net.cpp:159] Memory required for data: 20219280
I0505 05:41:41.256619  3647 layer_factory.hpp:77] Creating layer ip3
I0505 05:41:41.256625  3647 net.cpp:94] Creating Layer ip3
I0505 05:41:41.256629  3647 net.cpp:435] ip3 <- ip2
I0505 05:41:41.256634  3647 net.cpp:409] ip3 -> ip3
I0505 05:41:41.257751  3647 net.cpp:144] Setting up ip3
I0505 05:41:41.257766  3647 net.cpp:151] Top shape: 20 50 (1000)
I0505 05:41:41.257769  3647 net.cpp:159] Memory required for data: 20223280
I0505 05:41:41.257776  3647 layer_factory.hpp:77] Creating layer loss
I0505 05:41:41.257781  3647 net.cpp:94] Creating Layer loss
I0505 05:41:41.257786  3647 net.cpp:435] loss <- ip3
I0505 05:41:41.257789  3647 net.cpp:435] loss <- label
I0505 05:41:41.257796  3647 net.cpp:409] loss -> loss
I0505 05:41:41.257807  3647 layer_factory.hpp:77] Creating layer loss
…
I0505 05:41:41.258252  3647 solver.cpp:181] Creating test net (#0) specified by net file: ./protocol/dis_5_900_dimension.protocol_distribution
I0505 05:41:41.258278  3647 net.cpp:323] The NetState phase (1) differed from the phase (0) specified by a rule in layer parameters
I0505 05:41:41.258371  3647 net.cpp:52] Initializing net from parameters: 
state {
  phase: TEST
}
layer {
  name: "intercept"
  type: "HDF5Data"
  top: "data"
  top: "label"
  include {
    phase: TEST
  }
  hdf5_data_param {
    source: "/home/purduethu/scratch/radon/d/deng106/CNNStatisticalModel/distributions/input/5_distributions_900_sample_size_test-distributions-path.txt"
    batch_size: 20
  }
}
layer {
  name: "conv1"
  type: "Convolution"
  bottom: "data"
  top: "conv1"
  param {
    lr_mult: 1
  }
  param {
    lr_mult: 2
  }
  convolution_param {
    num_output: 64
    pad: 2
    kernel_size: 5
    stride: 1
    weight_filler {
      type: "gaussian"
      std: 0.0001
    }
    bias_filler {
      type: "constant"
    }
  }
}
layer {
  name: "relu1"
  type: "ReLU"
  bottom: "conv1"
  top: "conv1"
}
layer {
  name: "pool1"
  type: "Pooling"
  bottom: "conv1"
  top: "pool1"
  pooling_param {
    pool: MAX
    kernel_size: 3
    stride: 2
  }
}
layer {
  name: "conv2"
  type: "Convolution"
  bottom: "pool1"
  top: "conv2"
  param {
    lr_mult: 1
  }
  param {
    lr_mult: 2
  }
  convolution_param {
    num_output: 128
    pad: 2
    kernel_size: 5
    stride: 1
    weight_filler {
      type: "gaussian"
      std: 0.01
    }
    bias_filler {
      type: "constant"
    }
  }
}
layer {
  name: "relu2"
  type: "ReLU"
  bottom: "conv2"
  top: "conv2"
}
layer {
  name: "conv3"
  type: "Convolution"
  bottom: "conv2"
  top: "conv3"
  param {
    lr_mult: 1
  }
  param {
    lr_mult: 2
  }
  convolution_param {
    num_output: 128
    pad: 2
    kernel_size: 5
    stride: 1
    weight_filler {
      type: "gaussian"
      std: 0.01
    }
    bias_filler {
      type: "constant"
    }
  }
}
layer {
  name: "relu3"
  type: "ReLU"
  bottom: "conv3"
  top: "conv3"
}
layer {
  name: "pool3"
  type: "Pooling"
  bottom: "conv3"
  top: "pool3"
  pooling_param {
    pool: AVE
    kernel_size: 3
    stride: 2
  }
}
layer {
  name: "ip1"
  type: "InnerProduct"
  bottom: "pool3"
  top: "ip1"
  param {
    lr_mult: 1
  }
  param {
    lr_mult: 2
  }
  inner_product_param {
    num_output: 512
    weight_filler {
      type: "gaussian"
      std: 0.1
    }
    bias_filler {
      type: "constant"
    }
  }
}
layer {
  name: "ip2"
  type: "InnerProduct"
  bottom: "ip1"
  top: "ip2"
  param {
    lr_mult: 1
  }
  param {
    lr_mult: 2
  }
  inner_product_param {
    num_output: 256
    weight_filler {
      type: "gaussian"
      std: 0.1
    }
    bias_filler {
      type: "constant"
    }
  }
}
layer {
  name: "ip3"
  type: "InnerProduct"
  bottom: "ip2"
  top: "ip3"
  param {
    lr_mult: 1
  }
  param {
    lr_mult: 2
  }
  inner_product_param {
    num_output: 50
    weight_filler {
      type: "gaussian"
      std: 0.1
    }
    bias_filler {
      type: "constant"
    }
  }
}
layer {
  name: "accuracy"
  type: "Accuracy"
  bottom: "ip3"
  bottom: "label"
  top: "accuracy"
  include {
    phase: TEST
  }
}
layer {
  name: "loss"
  type: "SoftmaxWithLoss"
  bottom: "ip3"
  bottom: "label"
  top: "loss"
}
I0505 05:41:41.258438  3647 layer_factory.hpp:77] Creating layer intercept
I0505 05:41:41.258446  3647 net.cpp:94] Creating Layer intercept
I0505 05:41:41.258451  3647 net.cpp:409] intercept -> data
I0505 05:41:41.258458  3647 net.cpp:409] intercept -> label
I0505 05:41:41.258464  3647 hdf5_data_layer.cpp:79] Loading list of HDF5 filenames from: /home/purduethu/scratch/radon/d/deng106/CNNStatisticalModel/distributions/input/5_distributions_900_sample_size_test-distributions-path.txt
I0505 05:41:41.258483  3647 hdf5_data_layer.cpp:93] Number of HDF5 files: 1
I0505 05:41:41.293242  3647 net.cpp:144] Setting up intercept
I0505 05:41:41.293277  3647 net.cpp:151] Top shape: 20 1 30 30 (18000)
I0505 05:41:41.293283  3647 net.cpp:151] Top shape: 20 (20)
I0505 05:41:41.293287  3647 net.cpp:159] Memory required for data: 72080
I0505 05:41:41.293293  3647 layer_factory.hpp:77] Creating layer label_intercept_1_split
I0505 05:41:41.293323  3647 net.cpp:94] Creating Layer label_intercept_1_split
I0505 05:41:41.293329  3647 net.cpp:435] label_intercept_1_split <- label
I0505 05:41:41.293334  3647 net.cpp:409] label_intercept_1_split -> label_intercept_1_split_0
I0505 05:41:41.293342  3647 net.cpp:409] label_intercept_1_split -> label_intercept_1_split_1
I0505 05:41:41.293371  3647 net.cpp:144] Setting up label_intercept_1_split
I0505 05:41:41.293378  3647 net.cpp:151] Top shape: 20 (20)
I0505 05:41:41.293382  3647 net.cpp:151] Top shape: 20 (20)
I0505 05:41:41.293393  3647 net.cpp:159] Memory required for data: 72240
I0505 05:41:41.293397  3647 layer_factory.hpp:77] Creating layer conv1
I0505 05:41:41.293408  3647 net.cpp:94] Creating Layer conv1
I0505 05:41:41.293412  3647 net.cpp:435] conv1 <- data
I0505 05:41:41.293417  3647 net.cpp:409] conv1 -> conv1
I0505 05:41:41.294709  3647 net.cpp:144] Setting up conv1
I0505 05:41:41.294724  3647 net.cpp:151] Top shape: 20 64 30 30 (1152000)
I0505 05:41:41.294728  3647 net.cpp:159] Memory required for data: 4680240
I0505 05:41:41.294737  3647 layer_factory.hpp:77] Creating layer relu1
I0505 05:41:41.294744  3647 net.cpp:94] Creating Layer relu1
I0505 05:41:41.294749  3647 net.cpp:435] relu1 <- conv1
I0505 05:41:41.294754  3647 net.cpp:396] relu1 -> conv1 (in-place)
I0505 05:41:41.294761  3647 net.cpp:144] Setting up relu1
I0505 05:41:41.294765  3647 net.cpp:151] Top shape: 20 64 30 30 (1152000)
I0505 05:41:41.294769  3647 net.cpp:159] Memory required for data: 9288240
I0505 05:41:41.294772  3647 layer_factory.hpp:77] Creating layer pool1
I0505 05:41:41.294778  3647 net.cpp:94] Creating Layer pool1
I0505 05:41:41.294782  3647 net.cpp:435] pool1 <- conv1
I0505 05:41:41.294786  3647 net.cpp:409] pool1 -> pool1
I0505 05:41:41.294821  3647 net.cpp:144] Setting up pool1
I0505 05:41:41.294827  3647 net.cpp:151] Top shape: 20 64 15 15 (288000)
I0505 05:41:41.294831  3647 net.cpp:159] Memory required for data: 10440240
I0505 05:41:41.294834  3647 layer_factory.hpp:77] Creating layer conv2
I0505 05:41:41.294842  3647 net.cpp:94] Creating Layer conv2
I0505 05:41:41.294845  3647 net.cpp:435] conv2 <- pool1
I0505 05:41:41.294850  3647 net.cpp:409] conv2 -> conv2
I0505 05:41:41.302912  3647 net.cpp:144] Setting up conv2
I0505 05:41:41.302928  3647 net.cpp:151] Top shape: 20 128 15 15 (576000)
I0505 05:41:41.302932  3647 net.cpp:159] Memory required for data: 12744240
I0505 05:41:41.302940  3647 layer_factory.hpp:77] Creating layer relu2
I0505 05:41:41.302947  3647 net.cpp:94] Creating Layer relu2
I0505 05:41:41.302952  3647 net.cpp:435] relu2 <- conv2
I0505 05:41:41.302955  3647 net.cpp:396] relu2 -> conv2 (in-place)
I0505 05:41:41.302963  3647 net.cpp:144] Setting up relu2
I0505 05:41:41.302968  3647 net.cpp:151] Top shape: 20 128 15 15 (576000)
I0505 05:41:41.302971  3647 net.cpp:159] Memory required for data: 15048240
I0505 05:41:41.302974  3647 layer_factory.hpp:77] Creating layer conv3
I0505 05:41:41.302983  3647 net.cpp:94] Creating Layer conv3
I0505 05:41:41.302986  3647 net.cpp:435] conv3 <- conv2
I0505 05:41:41.302991  3647 net.cpp:409] conv3 -> conv3
I0505 05:41:41.318392  3647 net.cpp:144] Setting up conv3
I0505 05:41:41.318433  3647 net.cpp:151] Top shape: 20 128 15 15 (576000)
I0505 05:41:41.318444  3647 net.cpp:159] Memory required for data: 17352240
I0505 05:41:41.318467  3647 layer_factory.hpp:77] Creating layer relu3
I0505 05:41:41.318485  3647 net.cpp:94] Creating Layer relu3
I0505 05:41:41.318496  3647 net.cpp:435] relu3 <- conv3
I0505 05:41:41.318509  3647 net.cpp:396] relu3 -> conv3 (in-place)
I0505 05:41:41.318529  3647 net.cpp:144] Setting up relu3
I0505 05:41:41.318543  3647 net.cpp:151] Top shape: 20 128 15 15 (576000)
I0505 05:41:41.318552  3647 net.cpp:159] Memory required for data: 19656240
I0505 05:41:41.318562  3647 layer_factory.hpp:77] Creating layer pool3
I0505 05:41:41.318574  3647 net.cpp:94] Creating Layer pool3
I0505 05:41:41.318583  3647 net.cpp:435] pool3 <- conv3
I0505 05:41:41.318596  3647 net.cpp:409] pool3 -> pool3
I0505 05:41:41.318655  3647 net.cpp:144] Setting up pool3
I0505 05:41:41.318667  3647 net.cpp:151] Top shape: 20 128 7 7 (125440)
I0505 05:41:41.318671  3647 net.cpp:159] Memory required for data: 20158000
I0505 05:41:41.318675  3647 layer_factory.hpp:77] Creating layer ip1
I0505 05:41:41.318681  3647 net.cpp:94] Creating Layer ip1
I0505 05:41:41.318686  3647 net.cpp:435] ip1 <- pool3
I0505 05:41:41.318691  3647 net.cpp:409] ip1 -> ip1
I0505 05:41:41.399802  3647 net.cpp:144] Setting up ip1
I0505 05:41:41.399837  3647 net.cpp:151] Top shape: 20 512 (10240)
I0505 05:41:41.399842  3647 net.cpp:159] Memory required for data: 20198960
I0505 05:41:41.399862  3647 layer_factory.hpp:77] Creating layer ip2
I0505 05:41:41.399871  3647 net.cpp:94] Creating Layer ip2
I0505 05:41:41.399876  3647 net.cpp:435] ip2 <- ip1
I0505 05:41:41.399883  3647 net.cpp:409] ip2 -> ip2
I0505 05:41:41.403174  3647 net.cpp:144] Setting up ip2
I0505 05:41:41.403184  3647 net.cpp:151] Top shape: 20 256 (5120)
I0505 05:41:41.403187  3647 net.cpp:159] Memory required for data: 20219440
I0505 05:41:41.403197  3647 layer_factory.hpp:77] Creating layer ip3
I0505 05:41:41.403203  3647 net.cpp:94] Creating Layer ip3
I0505 05:41:41.403206  3647 net.cpp:435] ip3 <- ip2
I0505 05:41:41.403211  3647 net.cpp:409] ip3 -> ip3
I0505 05:41:41.403604  3647 net.cpp:144] Setting up ip3
I0505 05:41:41.403611  3647 net.cpp:151] Top shape: 20 50 (1000)
I0505 05:41:41.403614  3647 net.cpp:159] Memory required for data: 20223440
I0505 05:41:41.403620  3647 layer_factory.hpp:77] Creating layer ip3_ip3_0_split
I0505 05:41:41.403625  3647 net.cpp:94] Creating Layer ip3_ip3_0_split
I0505 05:41:41.403628  3647 net.cpp:435] ip3_ip3_0_split <- ip3
I0505 05:41:41.403633  3647 net.cpp:409] ip3_ip3_0_split -> ip3_ip3_0_split_0
I0505 05:41:41.403640  3647 net.cpp:409] ip3_ip3_0_split -> ip3_ip3_0_split_1
I0505 05:41:41.403664  3647 net.cpp:144] Setting up ip3_ip3_0_split
I0505 05:41:41.403669  3647 net.cpp:151] Top shape: 20 50 (1000)
I0505 05:41:41.403673  3647 net.cpp:151] Top shape: 20 50 (1000)
I0505 05:41:41.403677  3647 net.cpp:159] Memory required for data: 20231440
I0505 05:41:41.403681  3647 layer_factory.hpp:77] Creating layer accuracy
I0505 05:41:41.403693  3647 net.cpp:94] Creating Layer accuracy
I0505 05:41:41.403697  3647 net.cpp:435] accuracy <- ip3_ip3_0_split_0
I0505 05:41:41.403702  3647 net.cpp:435] accuracy <- label_intercept_1_split_0
I0505 05:41:41.403707  3647 net.cpp:409] accuracy -> accuracy
…
