…
I0502 01:31:05.656080 16900 net.cpp:323] The NetState phase (0) differed from the phase (1) specified by a rule in layer intercept
I0502 01:31:05.656095 16900 net.cpp:323] The NetState phase (0) differed from the phase (1) specified by a rule in layer loss
I0502 01:31:05.656175 16900 net.cpp:52] Initializing net from parameters: 
state {
  phase: TRAIN
}
layer {
  name: "parameters"
  type: "HDF5Data"
  top: "data"
  top: "label"
  include {
    phase: TRAIN
  }
  hdf5_data_param {
    source: "/home/purduethu/scratch/radon/d/deng106/CNNStatisticalModel/distributions/input/20_distributions_100_sample_size_train-parameters-path.txt"
    batch_size: 20
  }
}
layer {
  name: "conv1"
  type: "Convolution"
  bottom: "data"
  top: "conv1"
  param {
    lr_mult: 1
  }
  param {
    lr_mult: 2
  }
  convolution_param {
    num_output: 64
    pad: 2
    kernel_size: 5
    stride: 1
    weight_filler {
      type: "gaussian"
      std: 0.0001
    }
    bias_filler {
      type: "constant"
    }
  }
}
layer {
  name: "relu1"
  type: "ReLU"
  bottom: "conv1"
  top: "conv1"
}
layer {
  name: "conv2"
  type: "Convolution"
  bottom: "conv1"
  top: "conv2"
  param {
    lr_mult: 1
  }
  param {
    lr_mult: 2
  }
  convolution_param {
    num_output: 64
    pad: 2
    kernel_size: 5
    stride: 1
    weight_filler {
      type: "gaussian"
      std: 0.01
    }
    bias_filler {
      type: "constant"
    }
  }
}
layer {
  name: "relu2"
  type: "ReLU"
  bottom: "conv2"
  top: "conv2"
}
layer {
  name: "pool2"
  type: "Pooling"
  bottom: "conv2"
  top: "pool2"
  pooling_param {
    pool: MAX
    kernel_size: 3
    stride: 2
  }
}
layer {
  name: "conv3"
  type: "Convolution"
  bottom: "pool2"
  top: "conv3"
  param {
    lr_mult: 1
  }
  param {
    lr_mult: 2
  }
  convolution_param {
    num_output: 64
    pad: 2
    kernel_size: 5
    stride: 1
    weight_filler {
      type: "gaussian"
      std: 0.01
    }
    bias_filler {
      type: "constant"
    }
  }
}
layer {
  name: "relu3"
  type: "ReLU"
  bottom: "conv3"
  top: "conv3"
}
layer {
  name: "conv4"
  type: "Convolution"
  bottom: "conv3"
  top: "conv4"
  param {
    lr_mult: 1
  }
  param {
    lr_mult: 2
  }
  convolution_param {
    num_output: 64
    pad: 2
    kernel_size: 5
    stride: 1
    weight_filler {
      type: "gaussian"
      std: 0.01
    }
    bias_filler {
      type: "constant"
    }
  }
}
layer {
  name: "relu4"
  type: "ReLU"
  bottom: "conv4"
  top: "conv4"
}
layer {
  name: "conv5"
  type: "Convolution"
  bottom: "conv4"
  top: "conv5"
  param {
    lr_mult: 1
  }
  param {
    lr_mult: 2
  }
  convolution_param {
    num_output: 64
    pad: 2
    kernel_size: 5
    stride: 1
    weight_filler {
      type: "gaussian"
      std: 0.01
    }
    bias_filler {
      type: "constant"
    }
  }
}
layer {
  name: "relu5"
  type: "ReLU"
  bottom: "conv5"
  top: "conv5"
}
layer {
  name: "pool5"
  type: "Pooling"
  bottom: "conv5"
  top: "pool5"
  pooling_param {
    pool: AVE
    kernel_size: 3
    stride: 2
  }
}
layer {
  name: "ip1"
  type: "InnerProduct"
  bottom: "pool5"
  top: "ip1"
  param {
    lr_mult: 1
  }
  param {
    lr_mult: 2
  }
  inner_product_param {
    num_output: 64
    weight_filler {
      type: "gaussian"
      std: 0.1
    }
    bias_filler {
      type: "constant"
    }
  }
}
layer {
  name: "ip2"
  type: "InnerProduct"
  bottom: "ip1"
  top: "ip2"
  param {
    lr_mult: 1
  }
  param {
    lr_mult: 2
  }
  inner_product_param {
    num_output: 64
    weight_filler {
      type: "gaussian"
      std: 0.1
    }
    bias_filler {
      type: "constant"
    }
  }
}
layer {
  name: "ip3"
  type: "InnerProduct"
  bottom: "ip2"
  top: "ip3"
  param {
    lr_mult: 1
  }
  param {
    lr_mult: 2
  }
  inner_product_param {
    num_output: 1
    weight_filler {
      type: "gaussian"
      std: 0.1
    }
    bias_filler {
      type: "constant"
    }
  }
}
layer {
  name: "loss"
  type: "HuberLoss"
  bottom: "ip3"
  bottom: "label"
  top: "loss"
  include {
    phase: TRAIN
  }
}
I0502 01:31:05.656229 16900 layer_factory.hpp:77] Creating layer parameters
I0502 01:31:05.656244 16900 net.cpp:94] Creating Layer parameters
I0502 01:31:05.656250 16900 net.cpp:409] parameters -> data
I0502 01:31:05.656261 16900 net.cpp:409] parameters -> label
I0502 01:31:05.656268 16900 hdf5_data_layer.cpp:79] Loading list of HDF5 filenames from: /home/purduethu/scratch/radon/d/deng106/CNNStatisticalModel/distributions/input/20_distributions_100_sample_size_train-parameters-path.txt
I0502 01:31:05.656283 16900 hdf5_data_layer.cpp:93] Number of HDF5 files: 1
I0502 01:31:05.656844 16900 hdf5.cpp:32] Datatype class: H5T_FLOAT
I0502 01:31:05.724889 16900 net.cpp:144] Setting up parameters
I0502 01:31:05.724918 16900 net.cpp:151] Top shape: 20 1 10 10 (2000)
I0502 01:31:05.724923 16900 net.cpp:151] Top shape: 20 (20)
I0502 01:31:05.724926 16900 net.cpp:159] Memory required for data: 8080
I0502 01:31:05.724932 16900 layer_factory.hpp:77] Creating layer conv1
I0502 01:31:05.724947 16900 net.cpp:94] Creating Layer conv1
I0502 01:31:05.724951 16900 net.cpp:435] conv1 <- data
I0502 01:31:05.724957 16900 net.cpp:409] conv1 -> conv1
I0502 01:31:05.729089 16900 net.cpp:144] Setting up conv1
I0502 01:31:05.729109 16900 net.cpp:151] Top shape: 20 64 10 10 (128000)
I0502 01:31:05.729112 16900 net.cpp:159] Memory required for data: 520080
I0502 01:31:05.729123 16900 layer_factory.hpp:77] Creating layer relu1
I0502 01:31:05.729132 16900 net.cpp:94] Creating Layer relu1
I0502 01:31:05.729135 16900 net.cpp:435] relu1 <- conv1
I0502 01:31:05.729140 16900 net.cpp:396] relu1 -> conv1 (in-place)
I0502 01:31:05.729148 16900 net.cpp:144] Setting up relu1
I0502 01:31:05.729152 16900 net.cpp:151] Top shape: 20 64 10 10 (128000)
I0502 01:31:05.729156 16900 net.cpp:159] Memory required for data: 1032080
I0502 01:31:05.729158 16900 layer_factory.hpp:77] Creating layer conv2
I0502 01:31:05.729166 16900 net.cpp:94] Creating Layer conv2
I0502 01:31:05.729169 16900 net.cpp:435] conv2 <- conv1
I0502 01:31:05.729173 16900 net.cpp:409] conv2 -> conv2
I0502 01:31:05.734427 16900 net.cpp:144] Setting up conv2
I0502 01:31:05.734441 16900 net.cpp:151] Top shape: 20 64 10 10 (128000)
I0502 01:31:05.734446 16900 net.cpp:159] Memory required for data: 1544080
I0502 01:31:05.734453 16900 layer_factory.hpp:77] Creating layer relu2
I0502 01:31:05.734460 16900 net.cpp:94] Creating Layer relu2
I0502 01:31:05.734463 16900 net.cpp:435] relu2 <- conv2
I0502 01:31:05.734468 16900 net.cpp:396] relu2 -> conv2 (in-place)
I0502 01:31:05.734474 16900 net.cpp:144] Setting up relu2
I0502 01:31:05.734479 16900 net.cpp:151] Top shape: 20 64 10 10 (128000)
I0502 01:31:05.734482 16900 net.cpp:159] Memory required for data: 2056080
I0502 01:31:05.734484 16900 layer_factory.hpp:77] Creating layer pool2
I0502 01:31:05.734496 16900 net.cpp:94] Creating Layer pool2
I0502 01:31:05.734500 16900 net.cpp:435] pool2 <- conv2
I0502 01:31:05.734504 16900 net.cpp:409] pool2 -> pool2
I0502 01:31:05.734555 16900 net.cpp:144] Setting up pool2
I0502 01:31:05.734561 16900 net.cpp:151] Top shape: 20 64 5 5 (32000)
I0502 01:31:05.734565 16900 net.cpp:159] Memory required for data: 2184080
I0502 01:31:05.734568 16900 layer_factory.hpp:77] Creating layer conv3
I0502 01:31:05.734575 16900 net.cpp:94] Creating Layer conv3
I0502 01:31:05.734578 16900 net.cpp:435] conv3 <- pool2
I0502 01:31:05.734583 16900 net.cpp:409] conv3 -> conv3
I0502 01:31:05.739483 16900 net.cpp:144] Setting up conv3
I0502 01:31:05.739497 16900 net.cpp:151] Top shape: 20 64 5 5 (32000)
I0502 01:31:05.739501 16900 net.cpp:159] Memory required for data: 2312080
I0502 01:31:05.739509 16900 layer_factory.hpp:77] Creating layer relu3
I0502 01:31:05.739516 16900 net.cpp:94] Creating Layer relu3
I0502 01:31:05.739519 16900 net.cpp:435] relu3 <- conv3
I0502 01:31:05.739523 16900 net.cpp:396] relu3 -> conv3 (in-place)
I0502 01:31:05.739531 16900 net.cpp:144] Setting up relu3
I0502 01:31:05.739534 16900 net.cpp:151] Top shape: 20 64 5 5 (32000)
I0502 01:31:05.739537 16900 net.cpp:159] Memory required for data: 2440080
I0502 01:31:05.739540 16900 layer_factory.hpp:77] Creating layer conv4
I0502 01:31:05.739548 16900 net.cpp:94] Creating Layer conv4
I0502 01:31:05.739552 16900 net.cpp:435] conv4 <- conv3
I0502 01:31:05.739557 16900 net.cpp:409] conv4 -> conv4
I0502 01:31:05.744005 16900 net.cpp:144] Setting up conv4
I0502 01:31:05.744019 16900 net.cpp:151] Top shape: 20 64 5 5 (32000)
I0502 01:31:05.744022 16900 net.cpp:159] Memory required for data: 2568080
I0502 01:31:05.744029 16900 layer_factory.hpp:77] Creating layer relu4
I0502 01:31:05.744035 16900 net.cpp:94] Creating Layer relu4
I0502 01:31:05.744038 16900 net.cpp:435] relu4 <- conv4
I0502 01:31:05.744042 16900 net.cpp:396] relu4 -> conv4 (in-place)
I0502 01:31:05.744050 16900 net.cpp:144] Setting up relu4
I0502 01:31:05.744053 16900 net.cpp:151] Top shape: 20 64 5 5 (32000)
I0502 01:31:05.744056 16900 net.cpp:159] Memory required for data: 2696080
I0502 01:31:05.744060 16900 layer_factory.hpp:77] Creating layer conv5
I0502 01:31:05.744067 16900 net.cpp:94] Creating Layer conv5
I0502 01:31:05.744071 16900 net.cpp:435] conv5 <- conv4
I0502 01:31:05.744074 16900 net.cpp:409] conv5 -> conv5
I0502 01:31:05.749804 16900 net.cpp:144] Setting up conv5
I0502 01:31:05.749819 16900 net.cpp:151] Top shape: 20 64 5 5 (32000)
I0502 01:31:05.749822 16900 net.cpp:159] Memory required for data: 2824080
I0502 01:31:05.749830 16900 layer_factory.hpp:77] Creating layer relu5
I0502 01:31:05.749836 16900 net.cpp:94] Creating Layer relu5
I0502 01:31:05.749840 16900 net.cpp:435] relu5 <- conv5
I0502 01:31:05.749845 16900 net.cpp:396] relu5 -> conv5 (in-place)
I0502 01:31:05.749851 16900 net.cpp:144] Setting up relu5
I0502 01:31:05.749855 16900 net.cpp:151] Top shape: 20 64 5 5 (32000)
I0502 01:31:05.749858 16900 net.cpp:159] Memory required for data: 2952080
I0502 01:31:05.749861 16900 layer_factory.hpp:77] Creating layer pool5
I0502 01:31:05.749866 16900 net.cpp:94] Creating Layer pool5
I0502 01:31:05.749869 16900 net.cpp:435] pool5 <- conv5
I0502 01:31:05.749873 16900 net.cpp:409] pool5 -> pool5
I0502 01:31:05.749909 16900 net.cpp:144] Setting up pool5
I0502 01:31:05.749917 16900 net.cpp:151] Top shape: 20 64 2 2 (5120)
I0502 01:31:05.749920 16900 net.cpp:159] Memory required for data: 2972560
I0502 01:31:05.749923 16900 layer_factory.hpp:77] Creating layer ip1
I0502 01:31:05.749933 16900 net.cpp:94] Creating Layer ip1
I0502 01:31:05.749936 16900 net.cpp:435] ip1 <- pool5
I0502 01:31:05.749940 16900 net.cpp:409] ip1 -> ip1
I0502 01:31:05.751271 16900 net.cpp:144] Setting up ip1
I0502 01:31:05.751286 16900 net.cpp:151] Top shape: 20 64 (1280)
I0502 01:31:05.751288 16900 net.cpp:159] Memory required for data: 2977680
I0502 01:31:05.751294 16900 layer_factory.hpp:77] Creating layer ip2
I0502 01:31:05.751302 16900 net.cpp:94] Creating Layer ip2
I0502 01:31:05.751312 16900 net.cpp:435] ip2 <- ip1
I0502 01:31:05.751317 16900 net.cpp:409] ip2 -> ip2
I0502 01:31:05.751524 16900 net.cpp:144] Setting up ip2
I0502 01:31:05.751533 16900 net.cpp:151] Top shape: 20 64 (1280)
I0502 01:31:05.751535 16900 net.cpp:159] Memory required for data: 2982800
I0502 01:31:05.751540 16900 layer_factory.hpp:77] Creating layer ip3
I0502 01:31:05.751546 16900 net.cpp:94] Creating Layer ip3
I0502 01:31:05.751549 16900 net.cpp:435] ip3 <- ip2
I0502 01:31:05.751554 16900 net.cpp:409] ip3 -> ip3
I0502 01:31:05.751652 16900 net.cpp:144] Setting up ip3
I0502 01:31:05.751659 16900 net.cpp:151] Top shape: 20 1 (20)
I0502 01:31:05.751662 16900 net.cpp:159] Memory required for data: 2982880
I0502 01:31:05.751667 16900 layer_factory.hpp:77] Creating layer loss
I0502 01:31:05.751677 16900 net.cpp:94] Creating Layer loss
I0502 01:31:05.751682 16900 net.cpp:435] loss <- ip3
I0502 01:31:05.751684 16900 net.cpp:435] loss <- label
I0502 01:31:05.751689 16900 net.cpp:409] loss -> loss
I0502 01:31:05.751739 16900 net.cpp:144] Setting up loss
…
I0502 01:31:05.788962 16900 net.cpp:323] The NetState phase (0) differed from the phase (1) specified by a rule in layer intercept
I0502 01:31:05.788978 16900 net.cpp:323] The NetState phase (0) differed from the phase (1) specified by a rule in layer accuracy
I0502 01:31:05.789062 16900 net.cpp:52] Initializing net from parameters: 
state {
  phase: TRAIN
}
layer {
  name: "parameters"
  type: "HDF5Data"
  top: "data"
  top: "label"
  include {
    phase: TRAIN
  }
  hdf5_data_param {
    source: "/home/purduethu/scratch/radon/d/deng106/CNNStatisticalModel/distributions/input/20_distributions_100_sample_size_train-distributions-path.txt"
    batch_size: 20
  }
}
layer {
  name: "conv1"
  type: "Convolution"
  bottom: "data"
  top: "conv1"
  param {
    lr_mult: 1
  }
  param {
    lr_mult: 2
  }
  convolution_param {
    num_output: 64
    pad: 2
    kernel_size: 5
    stride: 1
    weight_filler {
      type: "gaussian"
      std: 0.0001
    }
    bias_filler {
      type: "constant"
    }
  }
}
layer {
  name: "relu1"
  type: "ReLU"
  bottom: "conv1"
  top: "conv1"
}
layer {
  name: "conv2"
  type: "Convolution"
  bottom: "conv1"
  top: "conv2"
  param {
    lr_mult: 1
  }
  param {
    lr_mult: 2
  }
  convolution_param {
    num_output: 64
    pad: 2
    kernel_size: 5
    stride: 1
    weight_filler {
      type: "gaussian"
      std: 0.01
    }
    bias_filler {
      type: "constant"
    }
  }
}
layer {
  name: "relu2"
  type: "ReLU"
  bottom: "conv2"
  top: "conv2"
}
layer {
  name: "pool2"
  type: "Pooling"
  bottom: "conv2"
  top: "pool2"
  pooling_param {
    pool: MAX
    kernel_size: 3
    stride: 2
  }
}
layer {
  name: "conv3"
  type: "Convolution"
  bottom: "pool2"
  top: "conv3"
  param {
    lr_mult: 1
  }
  param {
    lr_mult: 2
  }
  convolution_param {
    num_output: 64
    pad: 2
    kernel_size: 5
    stride: 1
    weight_filler {
      type: "gaussian"
      std: 0.01
    }
    bias_filler {
      type: "constant"
    }
  }
}
layer {
  name: "relu3"
  type: "ReLU"
  bottom: "conv3"
  top: "conv3"
}
layer {
  name: "conv4"
  type: "Convolution"
  bottom: "conv3"
  top: "conv4"
  param {
    lr_mult: 1
  }
  param {
    lr_mult: 2
  }
  convolution_param {
    num_output: 64
    pad: 2
    kernel_size: 5
    stride: 1
    weight_filler {
      type: "gaussian"
      std: 0.01
    }
    bias_filler {
      type: "constant"
    }
  }
}
layer {
  name: "relu4"
  type: "ReLU"
  bottom: "conv4"
  top: "conv4"
}
layer {
  name: "conv5"
  type: "Convolution"
  bottom: "conv4"
  top: "conv5"
  param {
    lr_mult: 1
  }
  param {
    lr_mult: 2
  }
  convolution_param {
    num_output: 64
    pad: 2
    kernel_size: 5
    stride: 1
    weight_filler {
      type: "gaussian"
      std: 0.01
    }
    bias_filler {
      type: "constant"
    }
  }
}
layer {
  name: "relu5"
  type: "ReLU"
  bottom: "conv5"
  top: "conv5"
}
layer {
  name: "pool5"
  type: "Pooling"
  bottom: "conv5"
  top: "pool5"
  pooling_param {
    pool: AVE
    kernel_size: 3
    stride: 2
  }
}
layer {
  name: "ip1"
  type: "InnerProduct"
  bottom: "pool5"
  top: "ip1"
  param {
    lr_mult: 1
  }
  param {
    lr_mult: 2
  }
  inner_product_param {
    num_output: 64
    weight_filler {
      type: "gaussian"
      std: 0.1
    }
    bias_filler {
      type: "constant"
    }
  }
}
layer {
  name: "ip2"
  type: "InnerProduct"
  bottom: "ip1"
  top: "ip2"
  param {
    lr_mult: 1
  }
  param {
    lr_mult: 2
  }
  inner_product_param {
    num_output: 64
    weight_filler {
      type: "gaussian"
      std: 0.1
    }
    bias_filler {
      type: "constant"
    }
  }
}
layer {
  name: "ip3"
  type: "InnerProduct"
  bottom: "ip2"
  top: "ip3"
  param {
    lr_mult: 1
  }
  param {
    lr_mult: 2
  }
  inner_product_param {
    num_output: 50
    weight_filler {
      type: "gaussian"
      std: 0.1
    }
    bias_filler {
      type: "constant"
    }
  }
}
layer {
  name: "loss"
  type: "SoftmaxWithLoss"
  bottom: "ip3"
  bottom: "label"
  top: "loss"
}
I0502 01:31:05.789114 16900 layer_factory.hpp:77] Creating layer parameters
I0502 01:31:05.789122 16900 net.cpp:94] Creating Layer parameters
I0502 01:31:05.789126 16900 net.cpp:409] parameters -> data
I0502 01:31:05.789132 16900 net.cpp:409] parameters -> label
I0502 01:31:05.789139 16900 hdf5_data_layer.cpp:79] Loading list of HDF5 filenames from: /home/purduethu/scratch/radon/d/deng106/CNNStatisticalModel/distributions/input/20_distributions_100_sample_size_train-distributions-path.txt
I0502 01:31:05.789153 16900 hdf5_data_layer.cpp:93] Number of HDF5 files: 1
I0502 01:31:05.854176 16900 hdf5.cpp:35] Datatype class: H5T_INTEGER
I0502 01:31:05.856181 16900 net.cpp:144] Setting up parameters
I0502 01:31:05.856204 16900 net.cpp:151] Top shape: 20 1 10 10 (2000)
I0502 01:31:05.856209 16900 net.cpp:151] Top shape: 20 (20)
I0502 01:31:05.856212 16900 net.cpp:159] Memory required for data: 8080
I0502 01:31:05.856218 16900 layer_factory.hpp:77] Creating layer conv1
I0502 01:31:05.856235 16900 net.cpp:94] Creating Layer conv1
I0502 01:31:05.856237 16900 net.cpp:435] conv1 <- data
I0502 01:31:05.856243 16900 net.cpp:409] conv1 -> conv1
I0502 01:31:05.858012 16900 net.cpp:144] Setting up conv1
I0502 01:31:05.858026 16900 net.cpp:151] Top shape: 20 64 10 10 (128000)
I0502 01:31:05.858031 16900 net.cpp:159] Memory required for data: 520080
I0502 01:31:05.858039 16900 layer_factory.hpp:77] Creating layer relu1
I0502 01:31:05.858047 16900 net.cpp:94] Creating Layer relu1
I0502 01:31:05.858050 16900 net.cpp:435] relu1 <- conv1
I0502 01:31:05.858055 16900 net.cpp:396] relu1 -> conv1 (in-place)
I0502 01:31:05.858062 16900 net.cpp:144] Setting up relu1
I0502 01:31:05.858067 16900 net.cpp:151] Top shape: 20 64 10 10 (128000)
I0502 01:31:05.858069 16900 net.cpp:159] Memory required for data: 1032080
I0502 01:31:05.858072 16900 layer_factory.hpp:77] Creating layer conv2
I0502 01:31:05.858079 16900 net.cpp:94] Creating Layer conv2
I0502 01:31:05.858083 16900 net.cpp:435] conv2 <- conv1
I0502 01:31:05.858086 16900 net.cpp:409] conv2 -> conv2
I0502 01:31:05.863406 16900 net.cpp:144] Setting up conv2
I0502 01:31:05.863420 16900 net.cpp:151] Top shape: 20 64 10 10 (128000)
I0502 01:31:05.863425 16900 net.cpp:159] Memory required for data: 1544080
I0502 01:31:05.863432 16900 layer_factory.hpp:77] Creating layer relu2
I0502 01:31:05.863438 16900 net.cpp:94] Creating Layer relu2
I0502 01:31:05.863442 16900 net.cpp:435] relu2 <- conv2
I0502 01:31:05.863446 16900 net.cpp:396] relu2 -> conv2 (in-place)
I0502 01:31:05.863453 16900 net.cpp:144] Setting up relu2
I0502 01:31:05.863457 16900 net.cpp:151] Top shape: 20 64 10 10 (128000)
I0502 01:31:05.863461 16900 net.cpp:159] Memory required for data: 2056080
I0502 01:31:05.863463 16900 layer_factory.hpp:77] Creating layer pool2
I0502 01:31:05.863468 16900 net.cpp:94] Creating Layer pool2
I0502 01:31:05.863471 16900 net.cpp:435] pool2 <- conv2
I0502 01:31:05.863476 16900 net.cpp:409] pool2 -> pool2
I0502 01:31:05.863524 16900 net.cpp:144] Setting up pool2
I0502 01:31:05.863531 16900 net.cpp:151] Top shape: 20 64 5 5 (32000)
I0502 01:31:05.863534 16900 net.cpp:159] Memory required for data: 2184080
I0502 01:31:05.863538 16900 layer_factory.hpp:77] Creating layer conv3
I0502 01:31:05.863545 16900 net.cpp:94] Creating Layer conv3
I0502 01:31:05.863548 16900 net.cpp:435] conv3 <- pool2
I0502 01:31:05.863553 16900 net.cpp:409] conv3 -> conv3
I0502 01:31:05.868505 16900 net.cpp:144] Setting up conv3
I0502 01:31:05.868520 16900 net.cpp:151] Top shape: 20 64 5 5 (32000)
I0502 01:31:05.868522 16900 net.cpp:159] Memory required for data: 2312080
I0502 01:31:05.868531 16900 layer_factory.hpp:77] Creating layer relu3
I0502 01:31:05.868536 16900 net.cpp:94] Creating Layer relu3
I0502 01:31:05.868541 16900 net.cpp:435] relu3 <- conv3
I0502 01:31:05.868544 16900 net.cpp:396] relu3 -> conv3 (in-place)
I0502 01:31:05.868558 16900 net.cpp:144] Setting up relu3
I0502 01:31:05.868564 16900 net.cpp:151] Top shape: 20 64 5 5 (32000)
I0502 01:31:05.868567 16900 net.cpp:159] Memory required for data: 2440080
I0502 01:31:05.868571 16900 layer_factory.hpp:77] Creating layer conv4
I0502 01:31:05.868579 16900 net.cpp:94] Creating Layer conv4
I0502 01:31:05.868582 16900 net.cpp:435] conv4 <- conv3
I0502 01:31:05.868587 16900 net.cpp:409] conv4 -> conv4
I0502 01:31:05.873497 16900 net.cpp:144] Setting up conv4
I0502 01:31:05.873509 16900 net.cpp:151] Top shape: 20 64 5 5 (32000)
I0502 01:31:05.873513 16900 net.cpp:159] Memory required for data: 2568080
I0502 01:31:05.873519 16900 layer_factory.hpp:77] Creating layer relu4
I0502 01:31:05.873525 16900 net.cpp:94] Creating Layer relu4
I0502 01:31:05.873528 16900 net.cpp:435] relu4 <- conv4
I0502 01:31:05.873533 16900 net.cpp:396] relu4 -> conv4 (in-place)
I0502 01:31:05.873539 16900 net.cpp:144] Setting up relu4
I0502 01:31:05.873543 16900 net.cpp:151] Top shape: 20 64 5 5 (32000)
I0502 01:31:05.873546 16900 net.cpp:159] Memory required for data: 2696080
I0502 01:31:05.873549 16900 layer_factory.hpp:77] Creating layer conv5
I0502 01:31:05.873556 16900 net.cpp:94] Creating Layer conv5
I0502 01:31:05.873559 16900 net.cpp:435] conv5 <- conv4
I0502 01:31:05.873564 16900 net.cpp:409] conv5 -> conv5
I0502 01:31:05.878873 16900 net.cpp:144] Setting up conv5
I0502 01:31:05.878887 16900 net.cpp:151] Top shape: 20 64 5 5 (32000)
I0502 01:31:05.878891 16900 net.cpp:159] Memory required for data: 2824080
I0502 01:31:05.878900 16900 layer_factory.hpp:77] Creating layer relu5
I0502 01:31:05.878906 16900 net.cpp:94] Creating Layer relu5
I0502 01:31:05.878909 16900 net.cpp:435] relu5 <- conv5
I0502 01:31:05.878913 16900 net.cpp:396] relu5 -> conv5 (in-place)
I0502 01:31:05.878921 16900 net.cpp:144] Setting up relu5
I0502 01:31:05.878926 16900 net.cpp:151] Top shape: 20 64 5 5 (32000)
I0502 01:31:05.878927 16900 net.cpp:159] Memory required for data: 2952080
I0502 01:31:05.878931 16900 layer_factory.hpp:77] Creating layer pool5
I0502 01:31:05.878935 16900 net.cpp:94] Creating Layer pool5
I0502 01:31:05.878938 16900 net.cpp:435] pool5 <- conv5
I0502 01:31:05.878943 16900 net.cpp:409] pool5 -> pool5
I0502 01:31:05.878978 16900 net.cpp:144] Setting up pool5
I0502 01:31:05.878984 16900 net.cpp:151] Top shape: 20 64 2 2 (5120)
I0502 01:31:05.878988 16900 net.cpp:159] Memory required for data: 2972560
I0502 01:31:05.878990 16900 layer_factory.hpp:77] Creating layer ip1
I0502 01:31:05.878998 16900 net.cpp:94] Creating Layer ip1
I0502 01:31:05.879000 16900 net.cpp:435] ip1 <- pool5
I0502 01:31:05.879004 16900 net.cpp:409] ip1 -> ip1
I0502 01:31:05.879514 16900 net.cpp:144] Setting up ip1
I0502 01:31:05.879523 16900 net.cpp:151] Top shape: 20 64 (1280)
I0502 01:31:05.879525 16900 net.cpp:159] Memory required for data: 2977680
I0502 01:31:05.879530 16900 layer_factory.hpp:77] Creating layer ip2
I0502 01:31:05.879536 16900 net.cpp:94] Creating Layer ip2
I0502 01:31:05.879539 16900 net.cpp:435] ip2 <- ip1
I0502 01:31:05.879544 16900 net.cpp:409] ip2 -> ip2
I0502 01:31:05.879757 16900 net.cpp:144] Setting up ip2
I0502 01:31:05.879765 16900 net.cpp:151] Top shape: 20 64 (1280)
I0502 01:31:05.879767 16900 net.cpp:159] Memory required for data: 2982800
I0502 01:31:05.879771 16900 layer_factory.hpp:77] Creating layer ip3
I0502 01:31:05.879777 16900 net.cpp:94] Creating Layer ip3
I0502 01:31:05.879781 16900 net.cpp:435] ip3 <- ip2
I0502 01:31:05.879786 16900 net.cpp:409] ip3 -> ip3
I0502 01:31:05.879972 16900 net.cpp:144] Setting up ip3
I0502 01:31:05.879979 16900 net.cpp:151] Top shape: 20 50 (1000)
I0502 01:31:05.879987 16900 net.cpp:159] Memory required for data: 2986800
I0502 01:31:05.879992 16900 layer_factory.hpp:77] Creating layer loss
I0502 01:31:05.879998 16900 net.cpp:94] Creating Layer loss
I0502 01:31:05.880002 16900 net.cpp:435] loss <- ip3
I0502 01:31:05.880005 16900 net.cpp:435] loss <- label
I0502 01:31:05.880009 16900 net.cpp:409] loss -> loss
I0502 01:31:05.880017 16900 layer_factory.hpp:77] Creating layer loss
…
I0502 01:31:05.881389 16900 solver.cpp:181] Creating test net (#0) specified by net file: ./protocol/dis_20_100_dimension.protocol_distribution
I0502 01:31:05.881417 16900 net.cpp:323] The NetState phase (1) differed from the phase (0) specified by a rule in layer parameters
I0502 01:31:05.881510 16900 net.cpp:52] Initializing net from parameters: 
state {
  phase: TEST
}
layer {
  name: "intercept"
  type: "HDF5Data"
  top: "data"
  top: "label"
  include {
    phase: TEST
  }
  hdf5_data_param {
    source: "/home/purduethu/scratch/radon/d/deng106/CNNStatisticalModel/distributions/input/20_distributions_100_sample_size_test-distributions-path.txt"
    batch_size: 20
  }
}
layer {
  name: "conv1"
  type: "Convolution"
  bottom: "data"
  top: "conv1"
  param {
    lr_mult: 1
  }
  param {
    lr_mult: 2
  }
  convolution_param {
    num_output: 64
    pad: 2
    kernel_size: 5
    stride: 1
    weight_filler {
      type: "gaussian"
      std: 0.0001
    }
    bias_filler {
      type: "constant"
    }
  }
}
layer {
  name: "relu1"
  type: "ReLU"
  bottom: "conv1"
  top: "conv1"
}
layer {
  name: "conv2"
  type: "Convolution"
  bottom: "conv1"
  top: "conv2"
  param {
    lr_mult: 1
  }
  param {
    lr_mult: 2
  }
  convolution_param {
    num_output: 64
    pad: 2
    kernel_size: 5
    stride: 1
    weight_filler {
      type: "gaussian"
      std: 0.01
    }
    bias_filler {
      type: "constant"
    }
  }
}
layer {
  name: "relu2"
  type: "ReLU"
  bottom: "conv2"
  top: "conv2"
}
layer {
  name: "pool2"
  type: "Pooling"
  bottom: "conv2"
  top: "pool2"
  pooling_param {
    pool: MAX
    kernel_size: 3
    stride: 2
  }
}
layer {
  name: "conv3"
  type: "Convolution"
  bottom: "pool2"
  top: "conv3"
  param {
    lr_mult: 1
  }
  param {
    lr_mult: 2
  }
  convolution_param {
    num_output: 64
    pad: 2
    kernel_size: 5
    stride: 1
    weight_filler {
      type: "gaussian"
      std: 0.01
    }
    bias_filler {
      type: "constant"
    }
  }
}
layer {
  name: "relu3"
  type: "ReLU"
  bottom: "conv3"
  top: "conv3"
}
layer {
  name: "conv4"
  type: "Convolution"
  bottom: "conv3"
  top: "conv4"
  param {
    lr_mult: 1
  }
  param {
    lr_mult: 2
  }
  convolution_param {
    num_output: 64
    pad: 2
    kernel_size: 5
    stride: 1
    weight_filler {
      type: "gaussian"
      std: 0.01
    }
    bias_filler {
      type: "constant"
    }
  }
}
layer {
  name: "relu4"
  type: "ReLU"
  bottom: "conv4"
  top: "conv4"
}
layer {
  name: "conv5"
  type: "Convolution"
  bottom: "conv4"
  top: "conv5"
  param {
    lr_mult: 1
  }
  param {
    lr_mult: 2
  }
  convolution_param {
    num_output: 64
    pad: 2
    kernel_size: 5
    stride: 1
    weight_filler {
      type: "gaussian"
      std: 0.01
    }
    bias_filler {
      type: "constant"
    }
  }
}
layer {
  name: "relu5"
  type: "ReLU"
  bottom: "conv5"
  top: "conv5"
}
layer {
  name: "pool5"
  type: "Pooling"
  bottom: "conv5"
  top: "pool5"
  pooling_param {
    pool: AVE
    kernel_size: 3
    stride: 2
  }
}
layer {
  name: "ip1"
  type: "InnerProduct"
  bottom: "pool5"
  top: "ip1"
  param {
    lr_mult: 1
  }
  param {
    lr_mult: 2
  }
  inner_product_param {
    num_output: 64
    weight_filler {
      type: "gaussian"
      std: 0.1
    }
    bias_filler {
      type: "constant"
    }
  }
}
layer {
  name: "ip2"
  type: "InnerProduct"
  bottom: "ip1"
  top: "ip2"
  param {
    lr_mult: 1
  }
  param {
    lr_mult: 2
  }
  inner_product_param {
    num_output: 64
    weight_filler {
      type: "gaussian"
      std: 0.1
    }
    bias_filler {
      type: "constant"
    }
  }
}
layer {
  name: "ip3"
  type: "InnerProduct"
  bottom: "ip2"
  top: "ip3"
  param {
    lr_mult: 1
  }
  param {
    lr_mult: 2
  }
  inner_product_param {
    num_output: 50
    weight_filler {
      type: "gaussian"
      std: 0.1
    }
    bias_filler {
      type: "constant"
    }
  }
}
layer {
  name: "accuracy"
  type: "Accuracy"
  bottom: "ip3"
  bottom: "label"
  top: "accuracy"
  include {
    phase: TEST
  }
}
layer {
  name: "loss"
  type: "SoftmaxWithLoss"
  bottom: "ip3"
  bottom: "label"
  top: "loss"
}
I0502 01:31:05.881574 16900 layer_factory.hpp:77] Creating layer intercept
I0502 01:31:05.881582 16900 net.cpp:94] Creating Layer intercept
I0502 01:31:05.881587 16900 net.cpp:409] intercept -> data
I0502 01:31:05.881593 16900 net.cpp:409] intercept -> label
I0502 01:31:05.881598 16900 hdf5_data_layer.cpp:79] Loading list of HDF5 filenames from: /home/purduethu/scratch/radon/d/deng106/CNNStatisticalModel/distributions/input/20_distributions_100_sample_size_test-distributions-path.txt
I0502 01:31:05.881618 16900 hdf5_data_layer.cpp:93] Number of HDF5 files: 1
I0502 01:31:05.899164 16900 net.cpp:144] Setting up intercept
I0502 01:31:05.899199 16900 net.cpp:151] Top shape: 20 1 10 10 (2000)
I0502 01:31:05.899204 16900 net.cpp:151] Top shape: 20 (20)
I0502 01:31:05.899206 16900 net.cpp:159] Memory required for data: 8080
I0502 01:31:05.899212 16900 layer_factory.hpp:77] Creating layer label_intercept_1_split
I0502 01:31:05.899231 16900 net.cpp:94] Creating Layer label_intercept_1_split
I0502 01:31:05.899236 16900 net.cpp:435] label_intercept_1_split <- label
I0502 01:31:05.899241 16900 net.cpp:409] label_intercept_1_split -> label_intercept_1_split_0
I0502 01:31:05.899250 16900 net.cpp:409] label_intercept_1_split -> label_intercept_1_split_1
I0502 01:31:05.899288 16900 net.cpp:144] Setting up label_intercept_1_split
I0502 01:31:05.899294 16900 net.cpp:151] Top shape: 20 (20)
I0502 01:31:05.899297 16900 net.cpp:151] Top shape: 20 (20)
I0502 01:31:05.899300 16900 net.cpp:159] Memory required for data: 8240
I0502 01:31:05.899303 16900 layer_factory.hpp:77] Creating layer conv1
I0502 01:31:05.899314 16900 net.cpp:94] Creating Layer conv1
I0502 01:31:05.899317 16900 net.cpp:435] conv1 <- data
I0502 01:31:05.899322 16900 net.cpp:409] conv1 -> conv1
I0502 01:31:05.900126 16900 net.cpp:144] Setting up conv1
I0502 01:31:05.900140 16900 net.cpp:151] Top shape: 20 64 10 10 (128000)
I0502 01:31:05.900151 16900 net.cpp:159] Memory required for data: 520240
I0502 01:31:05.900161 16900 layer_factory.hpp:77] Creating layer relu1
I0502 01:31:05.900167 16900 net.cpp:94] Creating Layer relu1
I0502 01:31:05.900171 16900 net.cpp:435] relu1 <- conv1
I0502 01:31:05.900176 16900 net.cpp:396] relu1 -> conv1 (in-place)
I0502 01:31:05.900182 16900 net.cpp:144] Setting up relu1
I0502 01:31:05.900187 16900 net.cpp:151] Top shape: 20 64 10 10 (128000)
I0502 01:31:05.900189 16900 net.cpp:159] Memory required for data: 1032240
I0502 01:31:05.900192 16900 layer_factory.hpp:77] Creating layer conv2
I0502 01:31:05.900200 16900 net.cpp:94] Creating Layer conv2
I0502 01:31:05.900203 16900 net.cpp:435] conv2 <- conv1
I0502 01:31:05.900208 16900 net.cpp:409] conv2 -> conv2
I0502 01:31:05.904273 16900 net.cpp:144] Setting up conv2
I0502 01:31:05.904286 16900 net.cpp:151] Top shape: 20 64 10 10 (128000)
I0502 01:31:05.904290 16900 net.cpp:159] Memory required for data: 1544240
I0502 01:31:05.904299 16900 layer_factory.hpp:77] Creating layer relu2
I0502 01:31:05.904305 16900 net.cpp:94] Creating Layer relu2
I0502 01:31:05.904309 16900 net.cpp:435] relu2 <- conv2
I0502 01:31:05.904312 16900 net.cpp:396] relu2 -> conv2 (in-place)
I0502 01:31:05.904320 16900 net.cpp:144] Setting up relu2
I0502 01:31:05.904323 16900 net.cpp:151] Top shape: 20 64 10 10 (128000)
I0502 01:31:05.904325 16900 net.cpp:159] Memory required for data: 2056240
I0502 01:31:05.904328 16900 layer_factory.hpp:77] Creating layer pool2
I0502 01:31:05.904335 16900 net.cpp:94] Creating Layer pool2
I0502 01:31:05.904337 16900 net.cpp:435] pool2 <- conv2
I0502 01:31:05.904341 16900 net.cpp:409] pool2 -> pool2
I0502 01:31:05.904389 16900 net.cpp:144] Setting up pool2
I0502 01:31:05.904397 16900 net.cpp:151] Top shape: 20 64 5 5 (32000)
I0502 01:31:05.904399 16900 net.cpp:159] Memory required for data: 2184240
I0502 01:31:05.904402 16900 layer_factory.hpp:77] Creating layer conv3
I0502 01:31:05.904409 16900 net.cpp:94] Creating Layer conv3
I0502 01:31:05.904412 16900 net.cpp:435] conv3 <- pool2
I0502 01:31:05.904417 16900 net.cpp:409] conv3 -> conv3
I0502 01:31:05.907912 16900 net.cpp:144] Setting up conv3
I0502 01:31:05.907924 16900 net.cpp:151] Top shape: 20 64 5 5 (32000)
I0502 01:31:05.907928 16900 net.cpp:159] Memory required for data: 2312240
I0502 01:31:05.907937 16900 layer_factory.hpp:77] Creating layer relu3
I0502 01:31:05.907943 16900 net.cpp:94] Creating Layer relu3
I0502 01:31:05.907946 16900 net.cpp:435] relu3 <- conv3
I0502 01:31:05.907950 16900 net.cpp:396] relu3 -> conv3 (in-place)
I0502 01:31:05.907958 16900 net.cpp:144] Setting up relu3
I0502 01:31:05.907961 16900 net.cpp:151] Top shape: 20 64 5 5 (32000)
I0502 01:31:05.907963 16900 net.cpp:159] Memory required for data: 2440240
I0502 01:31:05.907966 16900 layer_factory.hpp:77] Creating layer conv4
I0502 01:31:05.907974 16900 net.cpp:94] Creating Layer conv4
I0502 01:31:05.907977 16900 net.cpp:435] conv4 <- conv3
I0502 01:31:05.907981 16900 net.cpp:409] conv4 -> conv4
I0502 01:31:05.911496 16900 net.cpp:144] Setting up conv4
I0502 01:31:05.911510 16900 net.cpp:151] Top shape: 20 64 5 5 (32000)
I0502 01:31:05.911514 16900 net.cpp:159] Memory required for data: 2568240
I0502 01:31:05.911520 16900 layer_factory.hpp:77] Creating layer relu4
I0502 01:31:05.911525 16900 net.cpp:94] Creating Layer relu4
I0502 01:31:05.911528 16900 net.cpp:435] relu4 <- conv4
I0502 01:31:05.911532 16900 net.cpp:396] relu4 -> conv4 (in-place)
I0502 01:31:05.911538 16900 net.cpp:144] Setting up relu4
I0502 01:31:05.911542 16900 net.cpp:151] Top shape: 20 64 5 5 (32000)
I0502 01:31:05.911545 16900 net.cpp:159] Memory required for data: 2696240
I0502 01:31:05.911548 16900 layer_factory.hpp:77] Creating layer conv5
I0502 01:31:05.911556 16900 net.cpp:94] Creating Layer conv5
I0502 01:31:05.911558 16900 net.cpp:435] conv5 <- conv4
I0502 01:31:05.911563 16900 net.cpp:409] conv5 -> conv5
I0502 01:31:05.915524 16900 net.cpp:144] Setting up conv5
I0502 01:31:05.915537 16900 net.cpp:151] Top shape: 20 64 5 5 (32000)
I0502 01:31:05.915541 16900 net.cpp:159] Memory required for data: 2824240
I0502 01:31:05.915554 16900 layer_factory.hpp:77] Creating layer relu5
I0502 01:31:05.915560 16900 net.cpp:94] Creating Layer relu5
I0502 01:31:05.915563 16900 net.cpp:435] relu5 <- conv5
I0502 01:31:05.915568 16900 net.cpp:396] relu5 -> conv5 (in-place)
I0502 01:31:05.915575 16900 net.cpp:144] Setting up relu5
I0502 01:31:05.915578 16900 net.cpp:151] Top shape: 20 64 5 5 (32000)
I0502 01:31:05.915581 16900 net.cpp:159] Memory required for data: 2952240
I0502 01:31:05.915583 16900 layer_factory.hpp:77] Creating layer pool5
I0502 01:31:05.915588 16900 net.cpp:94] Creating Layer pool5
I0502 01:31:05.915591 16900 net.cpp:435] pool5 <- conv5
I0502 01:31:05.915597 16900 net.cpp:409] pool5 -> pool5
I0502 01:31:05.915632 16900 net.cpp:144] Setting up pool5
I0502 01:31:05.915638 16900 net.cpp:151] Top shape: 20 64 2 2 (5120)
I0502 01:31:05.915642 16900 net.cpp:159] Memory required for data: 2972720
I0502 01:31:05.915644 16900 layer_factory.hpp:77] Creating layer ip1
I0502 01:31:05.915652 16900 net.cpp:94] Creating Layer ip1
I0502 01:31:05.915655 16900 net.cpp:435] ip1 <- pool5
I0502 01:31:05.915660 16900 net.cpp:409] ip1 -> ip1
I0502 01:31:05.916174 16900 net.cpp:144] Setting up ip1
I0502 01:31:05.916182 16900 net.cpp:151] Top shape: 20 64 (1280)
I0502 01:31:05.916185 16900 net.cpp:159] Memory required for data: 2977840
I0502 01:31:05.916190 16900 layer_factory.hpp:77] Creating layer ip2
I0502 01:31:05.916196 16900 net.cpp:94] Creating Layer ip2
I0502 01:31:05.916199 16900 net.cpp:435] ip2 <- ip1
I0502 01:31:05.916203 16900 net.cpp:409] ip2 -> ip2
I0502 01:31:05.916424 16900 net.cpp:144] Setting up ip2
I0502 01:31:05.916431 16900 net.cpp:151] Top shape: 20 64 (1280)
I0502 01:31:05.916435 16900 net.cpp:159] Memory required for data: 2982960
I0502 01:31:05.916438 16900 layer_factory.hpp:77] Creating layer ip3
I0502 01:31:05.916446 16900 net.cpp:94] Creating Layer ip3
I0502 01:31:05.916450 16900 net.cpp:435] ip3 <- ip2
I0502 01:31:05.916455 16900 net.cpp:409] ip3 -> ip3
I0502 01:31:05.916671 16900 net.cpp:144] Setting up ip3
I0502 01:31:05.916679 16900 net.cpp:151] Top shape: 20 50 (1000)
I0502 01:31:05.916682 16900 net.cpp:159] Memory required for data: 2986960
I0502 01:31:05.916687 16900 layer_factory.hpp:77] Creating layer ip3_ip3_0_split
I0502 01:31:05.916692 16900 net.cpp:94] Creating Layer ip3_ip3_0_split
I0502 01:31:05.916695 16900 net.cpp:435] ip3_ip3_0_split <- ip3
I0502 01:31:05.916700 16900 net.cpp:409] ip3_ip3_0_split -> ip3_ip3_0_split_0
I0502 01:31:05.916707 16900 net.cpp:409] ip3_ip3_0_split -> ip3_ip3_0_split_1
I0502 01:31:05.916744 16900 net.cpp:144] Setting up ip3_ip3_0_split
I0502 01:31:05.916750 16900 net.cpp:151] Top shape: 20 50 (1000)
I0502 01:31:05.916754 16900 net.cpp:151] Top shape: 20 50 (1000)
I0502 01:31:05.916757 16900 net.cpp:159] Memory required for data: 2994960
I0502 01:31:05.916760 16900 layer_factory.hpp:77] Creating layer accuracy
I0502 01:31:05.916765 16900 net.cpp:94] Creating Layer accuracy
I0502 01:31:05.916769 16900 net.cpp:435] accuracy <- ip3_ip3_0_split_0
I0502 01:31:05.916771 16900 net.cpp:435] accuracy <- label_intercept_1_split_0
I0502 01:31:05.916776 16900 net.cpp:409] accuracy -> accuracy
…
