…
I0502 19:11:28.564803 12518 net.cpp:323] The NetState phase (0) differed from the phase (1) specified by a rule in layer intercept
I0502 19:11:28.564821 12518 net.cpp:323] The NetState phase (0) differed from the phase (1) specified by a rule in layer accuracy
I0502 19:11:28.564913 12518 net.cpp:52] Initializing net from parameters: 
state {
  phase: TRAIN
}
layer {
  name: "parameters"
  type: "HDF5Data"
  top: "data"
  top: "label"
  include {
    phase: TRAIN
  }
  hdf5_data_param {
    source: "/home/purduethu/scratch/radon/d/deng106/CNNStatisticalModel/distributions/input/20_distributions_100_sample_size_train-distributions-path.txt"
    batch_size: 20
  }
}
layer {
  name: "conv1"
  type: "Convolution"
  bottom: "data"
  top: "conv1"
  param {
    lr_mult: 1
  }
  param {
    lr_mult: 2
  }
  convolution_param {
    num_output: 64
    pad: 2
    kernel_size: 5
    stride: 1
    weight_filler {
      type: "gaussian"
      std: 0.0001
    }
    bias_filler {
      type: "constant"
    }
  }
}
layer {
  name: "relu1"
  type: "ReLU"
  bottom: "conv1"
  top: "conv1"
}
layer {
  name: "conv2"
  type: "Convolution"
  bottom: "conv1"
  top: "conv2"
  param {
    lr_mult: 1
  }
  param {
    lr_mult: 2
  }
  convolution_param {
    num_output: 64
    pad: 2
    kernel_size: 5
    stride: 1
    weight_filler {
      type: "gaussian"
      std: 0.01
    }
    bias_filler {
      type: "constant"
    }
  }
}
layer {
  name: "relu2"
  type: "ReLU"
  bottom: "conv2"
  top: "conv2"
}
layer {
  name: "pool2"
  type: "Pooling"
  bottom: "conv2"
  top: "pool2"
  pooling_param {
    pool: MAX
    kernel_size: 3
    stride: 2
  }
}
layer {
  name: "conv3"
  type: "Convolution"
  bottom: "pool2"
  top: "conv3"
  param {
    lr_mult: 1
  }
  param {
    lr_mult: 2
  }
  convolution_param {
    num_output: 64
    pad: 2
    kernel_size: 5
    stride: 1
    weight_filler {
      type: "gaussian"
      std: 0.01
    }
    bias_filler {
      type: "constant"
    }
  }
}
layer {
  name: "relu3"
  type: "ReLU"
  bottom: "conv3"
  top: "conv3"
}
layer {
  name: "conv4"
  type: "Convolution"
  bottom: "conv3"
  top: "conv4"
  param {
    lr_mult: 1
  }
  param {
    lr_mult: 2
  }
  convolution_param {
    num_output: 64
    pad: 2
    kernel_size: 5
    stride: 1
    weight_filler {
      type: "gaussian"
      std: 0.01
    }
    bias_filler {
      type: "constant"
    }
  }
}
layer {
  name: "relu4"
  type: "ReLU"
  bottom: "conv4"
  top: "conv4"
}
layer {
  name: "conv5"
  type: "Convolution"
  bottom: "conv4"
  top: "conv5"
  param {
    lr_mult: 1
  }
  param {
    lr_mult: 2
  }
  convolution_param {
    num_output: 64
    pad: 2
    kernel_size: 5
    stride: 1
    weight_filler {
      type: "gaussian"
      std: 0.01
    }
    bias_filler {
      type: "constant"
    }
  }
}
layer {
  name: "relu5"
  type: "ReLU"
  bottom: "conv5"
  top: "conv5"
}
layer {
  name: "pool5"
  type: "Pooling"
  bottom: "conv5"
  top: "pool5"
  pooling_param {
    pool: AVE
    kernel_size: 3
    stride: 2
  }
}
layer {
  name: "ip1"
  type: "InnerProduct"
  bottom: "pool5"
  top: "ip1"
  param {
    lr_mult: 1
  }
  param {
    lr_mult: 2
  }
  inner_product_param {
    num_output: 64
    weight_filler {
      type: "gaussian"
      std: 0.1
    }
    bias_filler {
      type: "constant"
    }
  }
}
layer {
  name: "ip2"
  type: "InnerProduct"
  bottom: "ip1"
  top: "ip2"
  param {
    lr_mult: 1
  }
  param {
    lr_mult: 2
  }
  inner_product_param {
    num_output: 64
    weight_filler {
      type: "gaussian"
      std: 0.1
    }
    bias_filler {
      type: "constant"
    }
  }
}
layer {
  name: "ip3"
  type: "InnerProduct"
  bottom: "ip2"
  top: "ip3"
  param {
    lr_mult: 1
  }
  param {
    lr_mult: 2
  }
  inner_product_param {
    num_output: 50
    weight_filler {
      type: "gaussian"
      std: 0.1
    }
    bias_filler {
      type: "constant"
    }
  }
}
layer {
  name: "loss"
  type: "SoftmaxWithLoss"
  bottom: "ip3"
  bottom: "label"
  top: "loss"
}
I0502 19:11:28.564987 12518 layer_factory.hpp:77] Creating layer parameters
I0502 19:11:28.565002 12518 net.cpp:94] Creating Layer parameters
I0502 19:11:28.565008 12518 net.cpp:409] parameters -> data
I0502 19:11:28.565027 12518 net.cpp:409] parameters -> label
I0502 19:11:28.565037 12518 hdf5_data_layer.cpp:79] Loading list of HDF5 filenames from: /home/purduethu/scratch/radon/d/deng106/CNNStatisticalModel/distributions/input/20_distributions_100_sample_size_train-distributions-path.txt
I0502 19:11:28.565059 12518 hdf5_data_layer.cpp:93] Number of HDF5 files: 1
I0502 19:11:28.565527 12518 hdf5.cpp:32] Datatype class: H5T_FLOAT
I0502 19:11:28.631254 12518 hdf5.cpp:35] Datatype class: H5T_INTEGER
I0502 19:11:28.632952 12518 net.cpp:144] Setting up parameters
I0502 19:11:28.632972 12518 net.cpp:151] Top shape: 20 1 10 10 (2000)
I0502 19:11:28.632977 12518 net.cpp:151] Top shape: 20 (20)
I0502 19:11:28.632980 12518 net.cpp:159] Memory required for data: 8080
I0502 19:11:28.632988 12518 layer_factory.hpp:77] Creating layer conv1
I0502 19:11:28.633013 12518 net.cpp:94] Creating Layer conv1
I0502 19:11:28.633018 12518 net.cpp:435] conv1 <- data
I0502 19:11:28.633029 12518 net.cpp:409] conv1 -> conv1
I0502 19:11:28.639458 12518 net.cpp:144] Setting up conv1
I0502 19:11:28.639473 12518 net.cpp:151] Top shape: 20 64 10 10 (128000)
I0502 19:11:28.639477 12518 net.cpp:159] Memory required for data: 520080
I0502 19:11:28.639489 12518 layer_factory.hpp:77] Creating layer relu1
I0502 19:11:28.639497 12518 net.cpp:94] Creating Layer relu1
I0502 19:11:28.639502 12518 net.cpp:435] relu1 <- conv1
I0502 19:11:28.639506 12518 net.cpp:396] relu1 -> conv1 (in-place)
I0502 19:11:28.639521 12518 net.cpp:144] Setting up relu1
I0502 19:11:28.639528 12518 net.cpp:151] Top shape: 20 64 10 10 (128000)
I0502 19:11:28.639530 12518 net.cpp:159] Memory required for data: 1032080
I0502 19:11:28.639533 12518 layer_factory.hpp:77] Creating layer conv2
I0502 19:11:28.639541 12518 net.cpp:94] Creating Layer conv2
I0502 19:11:28.639545 12518 net.cpp:435] conv2 <- conv1
I0502 19:11:28.639550 12518 net.cpp:409] conv2 -> conv2
I0502 19:11:28.647188 12518 net.cpp:144] Setting up conv2
I0502 19:11:28.647203 12518 net.cpp:151] Top shape: 20 64 10 10 (128000)
I0502 19:11:28.647207 12518 net.cpp:159] Memory required for data: 1544080
I0502 19:11:28.647215 12518 layer_factory.hpp:77] Creating layer relu2
I0502 19:11:28.647222 12518 net.cpp:94] Creating Layer relu2
I0502 19:11:28.647227 12518 net.cpp:435] relu2 <- conv2
I0502 19:11:28.647231 12518 net.cpp:396] relu2 -> conv2 (in-place)
I0502 19:11:28.647238 12518 net.cpp:144] Setting up relu2
I0502 19:11:28.647243 12518 net.cpp:151] Top shape: 20 64 10 10 (128000)
I0502 19:11:28.647246 12518 net.cpp:159] Memory required for data: 2056080
I0502 19:11:28.647249 12518 layer_factory.hpp:77] Creating layer pool2
I0502 19:11:28.647264 12518 net.cpp:94] Creating Layer pool2
I0502 19:11:28.647267 12518 net.cpp:435] pool2 <- conv2
I0502 19:11:28.647272 12518 net.cpp:409] pool2 -> pool2
I0502 19:11:28.647316 12518 net.cpp:144] Setting up pool2
I0502 19:11:28.647325 12518 net.cpp:151] Top shape: 20 64 5 5 (32000)
I0502 19:11:28.647327 12518 net.cpp:159] Memory required for data: 2184080
I0502 19:11:28.647331 12518 layer_factory.hpp:77] Creating layer conv3
I0502 19:11:28.647339 12518 net.cpp:94] Creating Layer conv3
I0502 19:11:28.647342 12518 net.cpp:435] conv3 <- pool2
I0502 19:11:28.647356 12518 net.cpp:409] conv3 -> conv3
I0502 19:11:28.654734 12518 net.cpp:144] Setting up conv3
I0502 19:11:28.654749 12518 net.cpp:151] Top shape: 20 64 5 5 (32000)
I0502 19:11:28.654753 12518 net.cpp:159] Memory required for data: 2312080
I0502 19:11:28.654762 12518 layer_factory.hpp:77] Creating layer relu3
I0502 19:11:28.654768 12518 net.cpp:94] Creating Layer relu3
I0502 19:11:28.654772 12518 net.cpp:435] relu3 <- conv3
I0502 19:11:28.654777 12518 net.cpp:396] relu3 -> conv3 (in-place)
I0502 19:11:28.654783 12518 net.cpp:144] Setting up relu3
I0502 19:11:28.654788 12518 net.cpp:151] Top shape: 20 64 5 5 (32000)
I0502 19:11:28.654791 12518 net.cpp:159] Memory required for data: 2440080
I0502 19:11:28.654795 12518 layer_factory.hpp:77] Creating layer conv4
I0502 19:11:28.654803 12518 net.cpp:94] Creating Layer conv4
I0502 19:11:28.654808 12518 net.cpp:435] conv4 <- conv3
I0502 19:11:28.654813 12518 net.cpp:409] conv4 -> conv4
I0502 19:11:28.662183 12518 net.cpp:144] Setting up conv4
I0502 19:11:28.662197 12518 net.cpp:151] Top shape: 20 64 5 5 (32000)
I0502 19:11:28.662201 12518 net.cpp:159] Memory required for data: 2568080
I0502 19:11:28.662207 12518 layer_factory.hpp:77] Creating layer relu4
I0502 19:11:28.662214 12518 net.cpp:94] Creating Layer relu4
I0502 19:11:28.662217 12518 net.cpp:435] relu4 <- conv4
I0502 19:11:28.662222 12518 net.cpp:396] relu4 -> conv4 (in-place)
I0502 19:11:28.662230 12518 net.cpp:144] Setting up relu4
I0502 19:11:28.662235 12518 net.cpp:151] Top shape: 20 64 5 5 (32000)
I0502 19:11:28.662237 12518 net.cpp:159] Memory required for data: 2696080
I0502 19:11:28.662241 12518 layer_factory.hpp:77] Creating layer conv5
I0502 19:11:28.662250 12518 net.cpp:94] Creating Layer conv5
I0502 19:11:28.662252 12518 net.cpp:435] conv5 <- conv4
I0502 19:11:28.662257 12518 net.cpp:409] conv5 -> conv5
I0502 19:11:28.669626 12518 net.cpp:144] Setting up conv5
I0502 19:11:28.669641 12518 net.cpp:151] Top shape: 20 64 5 5 (32000)
I0502 19:11:28.669644 12518 net.cpp:159] Memory required for data: 2824080
I0502 19:11:28.669653 12518 layer_factory.hpp:77] Creating layer relu5
I0502 19:11:28.669661 12518 net.cpp:94] Creating Layer relu5
I0502 19:11:28.669664 12518 net.cpp:435] relu5 <- conv5
I0502 19:11:28.669668 12518 net.cpp:396] relu5 -> conv5 (in-place)
I0502 19:11:28.669675 12518 net.cpp:144] Setting up relu5
I0502 19:11:28.669680 12518 net.cpp:151] Top shape: 20 64 5 5 (32000)
I0502 19:11:28.669683 12518 net.cpp:159] Memory required for data: 2952080
I0502 19:11:28.669687 12518 layer_factory.hpp:77] Creating layer pool5
I0502 19:11:28.669692 12518 net.cpp:94] Creating Layer pool5
I0502 19:11:28.669695 12518 net.cpp:435] pool5 <- conv5
I0502 19:11:28.669700 12518 net.cpp:409] pool5 -> pool5
I0502 19:11:28.669734 12518 net.cpp:144] Setting up pool5
I0502 19:11:28.669740 12518 net.cpp:151] Top shape: 20 64 2 2 (5120)
I0502 19:11:28.669744 12518 net.cpp:159] Memory required for data: 2972560
I0502 19:11:28.669747 12518 layer_factory.hpp:77] Creating layer ip1
I0502 19:11:28.669756 12518 net.cpp:94] Creating Layer ip1
I0502 19:11:28.669760 12518 net.cpp:435] ip1 <- pool5
I0502 19:11:28.669764 12518 net.cpp:409] ip1 -> ip1
I0502 19:11:28.670889 12518 net.cpp:144] Setting up ip1
I0502 19:11:28.670902 12518 net.cpp:151] Top shape: 20 64 (1280)
I0502 19:11:28.670907 12518 net.cpp:159] Memory required for data: 2977680
I0502 19:11:28.670913 12518 layer_factory.hpp:77] Creating layer ip2
I0502 19:11:28.670920 12518 net.cpp:94] Creating Layer ip2
I0502 19:11:28.670928 12518 net.cpp:435] ip2 <- ip1
I0502 19:11:28.670934 12518 net.cpp:409] ip2 -> ip2
I0502 19:11:28.671103 12518 net.cpp:144] Setting up ip2
I0502 19:11:28.671109 12518 net.cpp:151] Top shape: 20 64 (1280)
I0502 19:11:28.671113 12518 net.cpp:159] Memory required for data: 2982800
I0502 19:11:28.671118 12518 layer_factory.hpp:77] Creating layer ip3
I0502 19:11:28.671124 12518 net.cpp:94] Creating Layer ip3
I0502 19:11:28.671128 12518 net.cpp:435] ip3 <- ip2
I0502 19:11:28.671133 12518 net.cpp:409] ip3 -> ip3
I0502 19:11:28.671273 12518 net.cpp:144] Setting up ip3
I0502 19:11:28.671286 12518 net.cpp:151] Top shape: 20 50 (1000)
I0502 19:11:28.671290 12518 net.cpp:159] Memory required for data: 2986800
I0502 19:11:28.671295 12518 layer_factory.hpp:77] Creating layer loss
I0502 19:11:28.671303 12518 net.cpp:94] Creating Layer loss
I0502 19:11:28.671305 12518 net.cpp:435] loss <- ip3
I0502 19:11:28.671309 12518 net.cpp:435] loss <- label
I0502 19:11:28.671315 12518 net.cpp:409] loss -> loss
I0502 19:11:28.671325 12518 layer_factory.hpp:77] Creating layer loss
…
I0502 19:11:28.672494 12518 solver.cpp:181] Creating test net (#0) specified by net file: ./protocol/dis_20_100_dimension.protocol_distribution
I0502 19:11:28.672521 12518 net.cpp:323] The NetState phase (1) differed from the phase (0) specified by a rule in layer parameters
I0502 19:11:28.672629 12518 net.cpp:52] Initializing net from parameters: 
state {
  phase: TEST
}
layer {
  name: "intercept"
  type: "HDF5Data"
  top: "data"
  top: "label"
  include {
    phase: TEST
  }
  hdf5_data_param {
    source: "/home/purduethu/scratch/radon/d/deng106/CNNStatisticalModel/distributions/input/20_distributions_100_sample_size_test-distributions-path.txt"
    batch_size: 20
  }
}
layer {
  name: "conv1"
  type: "Convolution"
  bottom: "data"
  top: "conv1"
  param {
    lr_mult: 1
  }
  param {
    lr_mult: 2
  }
  convolution_param {
    num_output: 64
    pad: 2
    kernel_size: 5
    stride: 1
    weight_filler {
      type: "gaussian"
      std: 0.0001
    }
    bias_filler {
      type: "constant"
    }
  }
}
layer {
  name: "relu1"
  type: "ReLU"
  bottom: "conv1"
  top: "conv1"
}
layer {
  name: "conv2"
  type: "Convolution"
  bottom: "conv1"
  top: "conv2"
  param {
    lr_mult: 1
  }
  param {
    lr_mult: 2
  }
  convolution_param {
    num_output: 64
    pad: 2
    kernel_size: 5
    stride: 1
    weight_filler {
      type: "gaussian"
      std: 0.01
    }
    bias_filler {
      type: "constant"
    }
  }
}
layer {
  name: "relu2"
  type: "ReLU"
  bottom: "conv2"
  top: "conv2"
}
layer {
  name: "pool2"
  type: "Pooling"
  bottom: "conv2"
  top: "pool2"
  pooling_param {
    pool: MAX
    kernel_size: 3
    stride: 2
  }
}
layer {
  name: "conv3"
  type: "Convolution"
  bottom: "pool2"
  top: "conv3"
  param {
    lr_mult: 1
  }
  param {
    lr_mult: 2
  }
  convolution_param {
    num_output: 64
    pad: 2
    kernel_size: 5
    stride: 1
    weight_filler {
      type: "gaussian"
      std: 0.01
    }
    bias_filler {
      type: "constant"
    }
  }
}
layer {
  name: "relu3"
  type: "ReLU"
  bottom: "conv3"
  top: "conv3"
}
layer {
  name: "conv4"
  type: "Convolution"
  bottom: "conv3"
  top: "conv4"
  param {
    lr_mult: 1
  }
  param {
    lr_mult: 2
  }
  convolution_param {
    num_output: 64
    pad: 2
    kernel_size: 5
    stride: 1
    weight_filler {
      type: "gaussian"
      std: 0.01
    }
    bias_filler {
      type: "constant"
    }
  }
}
layer {
  name: "relu4"
  type: "ReLU"
  bottom: "conv4"
  top: "conv4"
}
layer {
  name: "conv5"
  type: "Convolution"
  bottom: "conv4"
  top: "conv5"
  param {
    lr_mult: 1
  }
  param {
    lr_mult: 2
  }
  convolution_param {
    num_output: 64
    pad: 2
    kernel_size: 5
    stride: 1
    weight_filler {
      type: "gaussian"
      std: 0.01
    }
    bias_filler {
      type: "constant"
    }
  }
}
layer {
  name: "relu5"
  type: "ReLU"
  bottom: "conv5"
  top: "conv5"
}
layer {
  name: "pool5"
  type: "Pooling"
  bottom: "conv5"
  top: "pool5"
  pooling_param {
    pool: AVE
    kernel_size: 3
    stride: 2
  }
}
layer {
  name: "ip1"
  type: "InnerProduct"
  bottom: "pool5"
  top: "ip1"
  param {
    lr_mult: 1
  }
  param {
    lr_mult: 2
  }
  inner_product_param {
    num_output: 64
    weight_filler {
      type: "gaussian"
      std: 0.1
    }
    bias_filler {
      type: "constant"
    }
  }
}
layer {
  name: "ip2"
  type: "InnerProduct"
  bottom: "ip1"
  top: "ip2"
  param {
    lr_mult: 1
  }
  param {
    lr_mult: 2
  }
  inner_product_param {
    num_output: 64
    weight_filler {
      type: "gaussian"
      std: 0.1
    }
    bias_filler {
      type: "constant"
    }
  }
}
layer {
  name: "ip3"
  type: "InnerProduct"
  bottom: "ip2"
  top: "ip3"
  param {
    lr_mult: 1
  }
  param {
    lr_mult: 2
  }
  inner_product_param {
    num_output: 50
    weight_filler {
      type: "gaussian"
      std: 0.1
    }
    bias_filler {
      type: "constant"
    }
  }
}
layer {
  name: "accuracy"
  type: "Accuracy"
  bottom: "ip3"
  bottom: "label"
  top: "accuracy"
  include {
    phase: TEST
  }
}
layer {
  name: "loss"
  type: "SoftmaxWithLoss"
  bottom: "ip3"
  bottom: "label"
  top: "loss"
}
I0502 19:11:28.672703 12518 layer_factory.hpp:77] Creating layer intercept
I0502 19:11:28.672713 12518 net.cpp:94] Creating Layer intercept
I0502 19:11:28.672716 12518 net.cpp:409] intercept -> data
I0502 19:11:28.672724 12518 net.cpp:409] intercept -> label
I0502 19:11:28.672730 12518 hdf5_data_layer.cpp:79] Loading list of HDF5 filenames from: /home/purduethu/scratch/radon/d/deng106/CNNStatisticalModel/distributions/input/20_distributions_100_sample_size_test-distributions-path.txt
I0502 19:11:28.672749 12518 hdf5_data_layer.cpp:93] Number of HDF5 files: 1
I0502 19:11:28.690295 12518 net.cpp:144] Setting up intercept
I0502 19:11:28.690325 12518 net.cpp:151] Top shape: 20 1 10 10 (2000)
I0502 19:11:28.690330 12518 net.cpp:151] Top shape: 20 (20)
I0502 19:11:28.690335 12518 net.cpp:159] Memory required for data: 8080
I0502 19:11:28.690341 12518 layer_factory.hpp:77] Creating layer label_intercept_1_split
I0502 19:11:28.690357 12518 net.cpp:94] Creating Layer label_intercept_1_split
I0502 19:11:28.690362 12518 net.cpp:435] label_intercept_1_split <- label
I0502 19:11:28.690368 12518 net.cpp:409] label_intercept_1_split -> label_intercept_1_split_0
I0502 19:11:28.690377 12518 net.cpp:409] label_intercept_1_split -> label_intercept_1_split_1
I0502 19:11:28.690412 12518 net.cpp:144] Setting up label_intercept_1_split
I0502 19:11:28.690418 12518 net.cpp:151] Top shape: 20 (20)
I0502 19:11:28.690423 12518 net.cpp:151] Top shape: 20 (20)
I0502 19:11:28.690425 12518 net.cpp:159] Memory required for data: 8240
I0502 19:11:28.690429 12518 layer_factory.hpp:77] Creating layer conv1
I0502 19:11:28.690440 12518 net.cpp:94] Creating Layer conv1
I0502 19:11:28.690444 12518 net.cpp:435] conv1 <- data
I0502 19:11:28.690450 12518 net.cpp:409] conv1 -> conv1
I0502 19:11:28.691653 12518 net.cpp:144] Setting up conv1
I0502 19:11:28.691674 12518 net.cpp:151] Top shape: 20 64 10 10 (128000)
I0502 19:11:28.691679 12518 net.cpp:159] Memory required for data: 520240
I0502 19:11:28.691689 12518 layer_factory.hpp:77] Creating layer relu1
I0502 19:11:28.691695 12518 net.cpp:94] Creating Layer relu1
I0502 19:11:28.691699 12518 net.cpp:435] relu1 <- conv1
I0502 19:11:28.691704 12518 net.cpp:396] relu1 -> conv1 (in-place)
I0502 19:11:28.691711 12518 net.cpp:144] Setting up relu1
I0502 19:11:28.691715 12518 net.cpp:151] Top shape: 20 64 10 10 (128000)
I0502 19:11:28.691718 12518 net.cpp:159] Memory required for data: 1032240
I0502 19:11:28.691722 12518 layer_factory.hpp:77] Creating layer conv2
I0502 19:11:28.691731 12518 net.cpp:94] Creating Layer conv2
I0502 19:11:28.691735 12518 net.cpp:435] conv2 <- conv1
I0502 19:11:28.691740 12518 net.cpp:409] conv2 -> conv2
I0502 19:11:28.697587 12518 net.cpp:144] Setting up conv2
I0502 19:11:28.697602 12518 net.cpp:151] Top shape: 20 64 10 10 (128000)
I0502 19:11:28.697607 12518 net.cpp:159] Memory required for data: 1544240
I0502 19:11:28.697614 12518 layer_factory.hpp:77] Creating layer relu2
I0502 19:11:28.697620 12518 net.cpp:94] Creating Layer relu2
I0502 19:11:28.697624 12518 net.cpp:435] relu2 <- conv2
I0502 19:11:28.697629 12518 net.cpp:396] relu2 -> conv2 (in-place)
I0502 19:11:28.697636 12518 net.cpp:144] Setting up relu2
I0502 19:11:28.697641 12518 net.cpp:151] Top shape: 20 64 10 10 (128000)
I0502 19:11:28.697644 12518 net.cpp:159] Memory required for data: 2056240
I0502 19:11:28.697648 12518 layer_factory.hpp:77] Creating layer pool2
I0502 19:11:28.697654 12518 net.cpp:94] Creating Layer pool2
I0502 19:11:28.697656 12518 net.cpp:435] pool2 <- conv2
I0502 19:11:28.697661 12518 net.cpp:409] pool2 -> pool2
I0502 19:11:28.697696 12518 net.cpp:144] Setting up pool2
I0502 19:11:28.697702 12518 net.cpp:151] Top shape: 20 64 5 5 (32000)
I0502 19:11:28.697706 12518 net.cpp:159] Memory required for data: 2184240
I0502 19:11:28.697710 12518 layer_factory.hpp:77] Creating layer conv3
I0502 19:11:28.697717 12518 net.cpp:94] Creating Layer conv3
I0502 19:11:28.697721 12518 net.cpp:435] conv3 <- pool2
I0502 19:11:28.697726 12518 net.cpp:409] conv3 -> conv3
I0502 19:11:28.704327 12518 net.cpp:144] Setting up conv3
I0502 19:11:28.704356 12518 net.cpp:151] Top shape: 20 64 5 5 (32000)
I0502 19:11:28.704360 12518 net.cpp:159] Memory required for data: 2312240
I0502 19:11:28.704370 12518 layer_factory.hpp:77] Creating layer relu3
I0502 19:11:28.704376 12518 net.cpp:94] Creating Layer relu3
I0502 19:11:28.704380 12518 net.cpp:435] relu3 <- conv3
I0502 19:11:28.704385 12518 net.cpp:396] relu3 -> conv3 (in-place)
I0502 19:11:28.704392 12518 net.cpp:144] Setting up relu3
I0502 19:11:28.704397 12518 net.cpp:151] Top shape: 20 64 5 5 (32000)
I0502 19:11:28.704401 12518 net.cpp:159] Memory required for data: 2440240
I0502 19:11:28.704403 12518 layer_factory.hpp:77] Creating layer conv4
I0502 19:11:28.704411 12518 net.cpp:94] Creating Layer conv4
I0502 19:11:28.704414 12518 net.cpp:435] conv4 <- conv3
I0502 19:11:28.704419 12518 net.cpp:409] conv4 -> conv4
I0502 19:11:28.710813 12518 net.cpp:144] Setting up conv4
I0502 19:11:28.710852 12518 net.cpp:151] Top shape: 20 64 5 5 (32000)
I0502 19:11:28.710865 12518 net.cpp:159] Memory required for data: 2568240
I0502 19:11:28.710883 12518 layer_factory.hpp:77] Creating layer relu4
I0502 19:11:28.710902 12518 net.cpp:94] Creating Layer relu4
I0502 19:11:28.710906 12518 net.cpp:435] relu4 <- conv4
I0502 19:11:28.710916 12518 net.cpp:396] relu4 -> conv4 (in-place)
I0502 19:11:28.710923 12518 net.cpp:144] Setting up relu4
I0502 19:11:28.710928 12518 net.cpp:151] Top shape: 20 64 5 5 (32000)
I0502 19:11:28.710932 12518 net.cpp:159] Memory required for data: 2696240
I0502 19:11:28.710935 12518 layer_factory.hpp:77] Creating layer conv5
I0502 19:11:28.710943 12518 net.cpp:94] Creating Layer conv5
I0502 19:11:28.710947 12518 net.cpp:435] conv5 <- conv4
I0502 19:11:28.710952 12518 net.cpp:409] conv5 -> conv5
I0502 19:11:28.717296 12518 net.cpp:144] Setting up conv5
I0502 19:11:28.717319 12518 net.cpp:151] Top shape: 20 64 5 5 (32000)
I0502 19:11:28.717322 12518 net.cpp:159] Memory required for data: 2824240
I0502 19:11:28.717331 12518 layer_factory.hpp:77] Creating layer relu5
I0502 19:11:28.717337 12518 net.cpp:94] Creating Layer relu5
I0502 19:11:28.717341 12518 net.cpp:435] relu5 <- conv5
I0502 19:11:28.717346 12518 net.cpp:396] relu5 -> conv5 (in-place)
I0502 19:11:28.717353 12518 net.cpp:144] Setting up relu5
I0502 19:11:28.717358 12518 net.cpp:151] Top shape: 20 64 5 5 (32000)
I0502 19:11:28.717361 12518 net.cpp:159] Memory required for data: 2952240
I0502 19:11:28.717365 12518 layer_factory.hpp:77] Creating layer pool5
I0502 19:11:28.717370 12518 net.cpp:94] Creating Layer pool5
I0502 19:11:28.717373 12518 net.cpp:435] pool5 <- conv5
I0502 19:11:28.717377 12518 net.cpp:409] pool5 -> pool5
I0502 19:11:28.717402 12518 net.cpp:144] Setting up pool5
I0502 19:11:28.717409 12518 net.cpp:151] Top shape: 20 64 2 2 (5120)
I0502 19:11:28.717412 12518 net.cpp:159] Memory required for data: 2972720
I0502 19:11:28.717417 12518 layer_factory.hpp:77] Creating layer ip1
I0502 19:11:28.717422 12518 net.cpp:94] Creating Layer ip1
I0502 19:11:28.717427 12518 net.cpp:435] ip1 <- pool5
I0502 19:11:28.717430 12518 net.cpp:409] ip1 -> ip1
I0502 19:11:28.717895 12518 net.cpp:144] Setting up ip1
I0502 19:11:28.717902 12518 net.cpp:151] Top shape: 20 64 (1280)
I0502 19:11:28.717905 12518 net.cpp:159] Memory required for data: 2977840
I0502 19:11:28.717911 12518 layer_factory.hpp:77] Creating layer ip2
I0502 19:11:28.717916 12518 net.cpp:94] Creating Layer ip2
I0502 19:11:28.717919 12518 net.cpp:435] ip2 <- ip1
I0502 19:11:28.717924 12518 net.cpp:409] ip2 -> ip2
I0502 19:11:28.718088 12518 net.cpp:144] Setting up ip2
I0502 19:11:28.718096 12518 net.cpp:151] Top shape: 20 64 (1280)
I0502 19:11:28.718098 12518 net.cpp:159] Memory required for data: 2982960
I0502 19:11:28.718103 12518 layer_factory.hpp:77] Creating layer ip3
I0502 19:11:28.718111 12518 net.cpp:94] Creating Layer ip3
I0502 19:11:28.718114 12518 net.cpp:435] ip3 <- ip2
I0502 19:11:28.718119 12518 net.cpp:409] ip3 -> ip3
I0502 19:11:28.718262 12518 net.cpp:144] Setting up ip3
I0502 19:11:28.718269 12518 net.cpp:151] Top shape: 20 50 (1000)
I0502 19:11:28.718272 12518 net.cpp:159] Memory required for data: 2986960
I0502 19:11:28.718277 12518 layer_factory.hpp:77] Creating layer ip3_ip3_0_split
I0502 19:11:28.718282 12518 net.cpp:94] Creating Layer ip3_ip3_0_split
I0502 19:11:28.718286 12518 net.cpp:435] ip3_ip3_0_split <- ip3
I0502 19:11:28.718291 12518 net.cpp:409] ip3_ip3_0_split -> ip3_ip3_0_split_0
I0502 19:11:28.718296 12518 net.cpp:409] ip3_ip3_0_split -> ip3_ip3_0_split_1
I0502 19:11:28.718318 12518 net.cpp:144] Setting up ip3_ip3_0_split
I0502 19:11:28.718324 12518 net.cpp:151] Top shape: 20 50 (1000)
I0502 19:11:28.718327 12518 net.cpp:151] Top shape: 20 50 (1000)
I0502 19:11:28.718331 12518 net.cpp:159] Memory required for data: 2994960
I0502 19:11:28.718334 12518 layer_factory.hpp:77] Creating layer accuracy
I0502 19:11:28.718344 12518 net.cpp:94] Creating Layer accuracy
I0502 19:11:28.718348 12518 net.cpp:435] accuracy <- ip3_ip3_0_split_0
I0502 19:11:28.718351 12518 net.cpp:435] accuracy <- label_intercept_1_split_0
I0502 19:11:28.718356 12518 net.cpp:409] accuracy -> accuracy
…
