…
I0501 20:22:56.273833 14521 net.cpp:323] The NetState phase (0) differed from the phase (1) specified by a rule in layer intercept
I0501 20:22:56.273849 14521 net.cpp:323] The NetState phase (0) differed from the phase (1) specified by a rule in layer accuracy
I0501 20:22:56.273943 14521 net.cpp:52] Initializing net from parameters: 
state {
  phase: TRAIN
}
layer {
  name: "parameters"
  type: "HDF5Data"
  top: "data"
  top: "label"
  include {
    phase: TRAIN
  }
  hdf5_data_param {
    source: "/home/purduethu/scratch/radon/d/deng106/CNNStatisticalModel/distributions/input/50_distributions_900_sample_size_train-distributions-path.txt"
    batch_size: 20
  }
}
layer {
  name: "conv1"
  type: "Convolution"
  bottom: "data"
  top: "conv1"
  param {
    lr_mult: 1
  }
  param {
    lr_mult: 2
  }
  convolution_param {
    num_output: 64
    pad: 2
    kernel_size: 5
    stride: 1
    weight_filler {
      type: "gaussian"
      std: 0.0001
    }
    bias_filler {
      type: "constant"
    }
  }
}
layer {
  name: "relu1"
  type: "ReLU"
  bottom: "conv1"
  top: "conv1"
}
layer {
  name: "conv2"
  type: "Convolution"
  bottom: "conv1"
  top: "conv2"
  param {
    lr_mult: 1
  }
  param {
    lr_mult: 2
  }
  convolution_param {
    num_output: 64
    pad: 2
    kernel_size: 5
    stride: 1
    weight_filler {
      type: "gaussian"
      std: 0.01
    }
    bias_filler {
      type: "constant"
    }
  }
}
layer {
  name: "relu2"
  type: "ReLU"
  bottom: "conv2"
  top: "conv2"
}
layer {
  name: "pool2"
  type: "Pooling"
  bottom: "conv2"
  top: "pool2"
  pooling_param {
    pool: MAX
    kernel_size: 3
    stride: 2
  }
}
layer {
  name: "conv3"
  type: "Convolution"
  bottom: "pool2"
  top: "conv3"
  param {
    lr_mult: 1
  }
  param {
    lr_mult: 2
  }
  convolution_param {
    num_output: 64
    pad: 2
    kernel_size: 5
    stride: 1
    weight_filler {
      type: "gaussian"
      std: 0.01
    }
    bias_filler {
      type: "constant"
    }
  }
}
layer {
  name: "relu3"
  type: "ReLU"
  bottom: "conv3"
  top: "conv3"
}
layer {
  name: "conv4"
  type: "Convolution"
  bottom: "conv3"
  top: "conv4"
  param {
    lr_mult: 1
  }
  param {
    lr_mult: 2
  }
  convolution_param {
    num_output: 64
    pad: 2
    kernel_size: 5
    stride: 1
    weight_filler {
      type: "gaussian"
      std: 0.01
    }
    bias_filler {
      type: "constant"
    }
  }
}
layer {
  name: "relu4"
  type: "ReLU"
  bottom: "conv4"
  top: "conv4"
}
layer {
  name: "conv5"
  type: "Convolution"
  bottom: "conv4"
  top: "conv5"
  param {
    lr_mult: 1
  }
  param {
    lr_mult: 2
  }
  convolution_param {
    num_output: 64
    pad: 2
    kernel_size: 5
    stride: 1
    weight_filler {
      type: "gaussian"
      std: 0.01
    }
    bias_filler {
      type: "constant"
    }
  }
}
layer {
  name: "relu5"
  type: "ReLU"
  bottom: "conv5"
  top: "conv5"
}
layer {
  name: "pool5"
  type: "Pooling"
  bottom: "conv5"
  top: "pool5"
  pooling_param {
    pool: AVE
    kernel_size: 3
    stride: 2
  }
}
layer {
  name: "ip1"
  type: "InnerProduct"
  bottom: "pool5"
  top: "ip1"
  param {
    lr_mult: 1
  }
  param {
    lr_mult: 2
  }
  inner_product_param {
    num_output: 64
    weight_filler {
      type: "gaussian"
      std: 0.1
    }
    bias_filler {
      type: "constant"
    }
  }
}
layer {
  name: "ip2"
  type: "InnerProduct"
  bottom: "ip1"
  top: "ip2"
  param {
    lr_mult: 1
  }
  param {
    lr_mult: 2
  }
  inner_product_param {
    num_output: 64
    weight_filler {
      type: "gaussian"
      std: 0.1
    }
    bias_filler {
      type: "constant"
    }
  }
}
layer {
  name: "ip3"
  type: "InnerProduct"
  bottom: "ip2"
  top: "ip3"
  param {
    lr_mult: 1
  }
  param {
    lr_mult: 2
  }
  inner_product_param {
    num_output: 50
    weight_filler {
      type: "gaussian"
      std: 0.1
    }
    bias_filler {
      type: "constant"
    }
  }
}
layer {
  name: "loss"
  type: "SoftmaxWithLoss"
  bottom: "ip3"
  bottom: "label"
  top: "loss"
}
I0501 20:22:56.274019 14521 layer_factory.hpp:77] Creating layer parameters
I0501 20:22:56.274035 14521 net.cpp:94] Creating Layer parameters
I0501 20:22:56.274041 14521 net.cpp:409] parameters -> data
I0501 20:22:56.274060 14521 net.cpp:409] parameters -> label
I0501 20:22:56.274071 14521 hdf5_data_layer.cpp:79] Loading list of HDF5 filenames from: /home/purduethu/scratch/radon/d/deng106/CNNStatisticalModel/distributions/input/50_distributions_900_sample_size_train-distributions-path.txt
I0501 20:22:56.274094 14521 hdf5_data_layer.cpp:93] Number of HDF5 files: 1
I0501 20:22:56.274690 14521 hdf5.cpp:32] Datatype class: H5T_FLOAT
I0501 20:22:57.743345 14521 hdf5.cpp:35] Datatype class: H5T_INTEGER
I0501 20:22:57.746129 14521 net.cpp:144] Setting up parameters
I0501 20:22:57.746147 14521 net.cpp:151] Top shape: 20 1 30 30 (18000)
I0501 20:22:57.746152 14521 net.cpp:151] Top shape: 20 (20)
I0501 20:22:57.746156 14521 net.cpp:159] Memory required for data: 72080
I0501 20:22:57.746163 14521 layer_factory.hpp:77] Creating layer conv1
I0501 20:22:57.746181 14521 net.cpp:94] Creating Layer conv1
I0501 20:22:57.746187 14521 net.cpp:435] conv1 <- data
I0501 20:22:57.746198 14521 net.cpp:409] conv1 -> conv1
I0501 20:22:57.752037 14521 net.cpp:144] Setting up conv1
I0501 20:22:57.752053 14521 net.cpp:151] Top shape: 20 64 30 30 (1152000)
I0501 20:22:57.752058 14521 net.cpp:159] Memory required for data: 4680080
I0501 20:22:57.752068 14521 layer_factory.hpp:77] Creating layer relu1
I0501 20:22:57.752076 14521 net.cpp:94] Creating Layer relu1
I0501 20:22:57.752080 14521 net.cpp:435] relu1 <- conv1
I0501 20:22:57.752084 14521 net.cpp:396] relu1 -> conv1 (in-place)
I0501 20:22:57.752099 14521 net.cpp:144] Setting up relu1
I0501 20:22:57.752105 14521 net.cpp:151] Top shape: 20 64 30 30 (1152000)
I0501 20:22:57.752109 14521 net.cpp:159] Memory required for data: 9288080
I0501 20:22:57.752111 14521 layer_factory.hpp:77] Creating layer conv2
I0501 20:22:57.752120 14521 net.cpp:94] Creating Layer conv2
I0501 20:22:57.752122 14521 net.cpp:435] conv2 <- conv1
I0501 20:22:57.752128 14521 net.cpp:409] conv2 -> conv2
I0501 20:22:57.767670 14521 net.cpp:144] Setting up conv2
I0501 20:22:57.767710 14521 net.cpp:151] Top shape: 20 64 30 30 (1152000)
I0501 20:22:57.767722 14521 net.cpp:159] Memory required for data: 13896080
I0501 20:22:57.767745 14521 layer_factory.hpp:77] Creating layer relu2
I0501 20:22:57.767762 14521 net.cpp:94] Creating Layer relu2
I0501 20:22:57.767773 14521 net.cpp:435] relu2 <- conv2
I0501 20:22:57.767786 14521 net.cpp:396] relu2 -> conv2 (in-place)
I0501 20:22:57.767807 14521 net.cpp:144] Setting up relu2
I0501 20:22:57.767819 14521 net.cpp:151] Top shape: 20 64 30 30 (1152000)
I0501 20:22:57.767828 14521 net.cpp:159] Memory required for data: 18504080
I0501 20:22:57.767838 14521 layer_factory.hpp:77] Creating layer pool2
I0501 20:22:57.767876 14521 net.cpp:94] Creating Layer pool2
I0501 20:22:57.767881 14521 net.cpp:435] pool2 <- conv2
I0501 20:22:57.767895 14521 net.cpp:409] pool2 -> pool2
I0501 20:22:57.767937 14521 net.cpp:144] Setting up pool2
I0501 20:22:57.767946 14521 net.cpp:151] Top shape: 20 64 15 15 (288000)
I0501 20:22:57.767948 14521 net.cpp:159] Memory required for data: 19656080
I0501 20:22:57.767952 14521 layer_factory.hpp:77] Creating layer conv3
I0501 20:22:57.767961 14521 net.cpp:94] Creating Layer conv3
I0501 20:22:57.767963 14521 net.cpp:435] conv3 <- pool2
I0501 20:22:57.767977 14521 net.cpp:409] conv3 -> conv3
I0501 20:22:57.776505 14521 net.cpp:144] Setting up conv3
I0501 20:22:57.776543 14521 net.cpp:151] Top shape: 20 64 15 15 (288000)
I0501 20:22:57.776573 14521 net.cpp:159] Memory required for data: 20808080
I0501 20:22:57.776599 14521 layer_factory.hpp:77] Creating layer relu3
I0501 20:22:57.776615 14521 net.cpp:94] Creating Layer relu3
I0501 20:22:57.776634 14521 net.cpp:435] relu3 <- conv3
I0501 20:22:57.776639 14521 net.cpp:396] relu3 -> conv3 (in-place)
I0501 20:22:57.776648 14521 net.cpp:144] Setting up relu3
I0501 20:22:57.776654 14521 net.cpp:151] Top shape: 20 64 15 15 (288000)
I0501 20:22:57.776656 14521 net.cpp:159] Memory required for data: 21960080
I0501 20:22:57.776660 14521 layer_factory.hpp:77] Creating layer conv4
I0501 20:22:57.776669 14521 net.cpp:94] Creating Layer conv4
I0501 20:22:57.776674 14521 net.cpp:435] conv4 <- conv3
I0501 20:22:57.776679 14521 net.cpp:409] conv4 -> conv4
I0501 20:22:57.784225 14521 net.cpp:144] Setting up conv4
I0501 20:22:57.784242 14521 net.cpp:151] Top shape: 20 64 15 15 (288000)
I0501 20:22:57.784247 14521 net.cpp:159] Memory required for data: 23112080
I0501 20:22:57.784255 14521 layer_factory.hpp:77] Creating layer relu4
I0501 20:22:57.784260 14521 net.cpp:94] Creating Layer relu4
I0501 20:22:57.784265 14521 net.cpp:435] relu4 <- conv4
I0501 20:22:57.784271 14521 net.cpp:396] relu4 -> conv4 (in-place)
I0501 20:22:57.784278 14521 net.cpp:144] Setting up relu4
I0501 20:22:57.784283 14521 net.cpp:151] Top shape: 20 64 15 15 (288000)
I0501 20:22:57.784286 14521 net.cpp:159] Memory required for data: 24264080
I0501 20:22:57.784291 14521 layer_factory.hpp:77] Creating layer conv5
I0501 20:22:57.784299 14521 net.cpp:94] Creating Layer conv5
I0501 20:22:57.784303 14521 net.cpp:435] conv5 <- conv4
I0501 20:22:57.784309 14521 net.cpp:409] conv5 -> conv5
I0501 20:22:57.791852 14521 net.cpp:144] Setting up conv5
I0501 20:22:57.791869 14521 net.cpp:151] Top shape: 20 64 15 15 (288000)
I0501 20:22:57.791874 14521 net.cpp:159] Memory required for data: 25416080
I0501 20:22:57.791884 14521 layer_factory.hpp:77] Creating layer relu5
I0501 20:22:57.791890 14521 net.cpp:94] Creating Layer relu5
I0501 20:22:57.791894 14521 net.cpp:435] relu5 <- conv5
I0501 20:22:57.791900 14521 net.cpp:396] relu5 -> conv5 (in-place)
I0501 20:22:57.791908 14521 net.cpp:144] Setting up relu5
I0501 20:22:57.791913 14521 net.cpp:151] Top shape: 20 64 15 15 (288000)
I0501 20:22:57.791916 14521 net.cpp:159] Memory required for data: 26568080
I0501 20:22:57.791920 14521 layer_factory.hpp:77] Creating layer pool5
I0501 20:22:57.791925 14521 net.cpp:94] Creating Layer pool5
I0501 20:22:57.791929 14521 net.cpp:435] pool5 <- conv5
I0501 20:22:57.791934 14521 net.cpp:409] pool5 -> pool5
I0501 20:22:57.791970 14521 net.cpp:144] Setting up pool5
I0501 20:22:57.791978 14521 net.cpp:151] Top shape: 20 64 7 7 (62720)
I0501 20:22:57.791982 14521 net.cpp:159] Memory required for data: 26818960
I0501 20:22:57.791986 14521 layer_factory.hpp:77] Creating layer ip1
I0501 20:22:57.791996 14521 net.cpp:94] Creating Layer ip1
I0501 20:22:57.792001 14521 net.cpp:435] ip1 <- pool5
I0501 20:22:57.792006 14521 net.cpp:409] ip1 -> ip1
I0501 20:22:57.797983 14521 net.cpp:144] Setting up ip1
I0501 20:22:57.797998 14521 net.cpp:151] Top shape: 20 64 (1280)
I0501 20:22:57.798002 14521 net.cpp:159] Memory required for data: 26824080
I0501 20:22:57.798009 14521 layer_factory.hpp:77] Creating layer ip2
I0501 20:22:57.798020 14521 net.cpp:94] Creating Layer ip2
I0501 20:22:57.798025 14521 net.cpp:435] ip2 <- ip1
I0501 20:22:57.798032 14521 net.cpp:409] ip2 -> ip2
I0501 20:22:57.798214 14521 net.cpp:144] Setting up ip2
I0501 20:22:57.798223 14521 net.cpp:151] Top shape: 20 64 (1280)
I0501 20:22:57.798226 14521 net.cpp:159] Memory required for data: 26829200
I0501 20:22:57.798233 14521 layer_factory.hpp:77] Creating layer ip3
I0501 20:22:57.798238 14521 net.cpp:94] Creating Layer ip3
I0501 20:22:57.798243 14521 net.cpp:435] ip3 <- ip2
I0501 20:22:57.798247 14521 net.cpp:409] ip3 -> ip3
I0501 20:22:57.798410 14521 net.cpp:144] Setting up ip3
I0501 20:22:57.798418 14521 net.cpp:151] Top shape: 20 50 (1000)
I0501 20:22:57.798421 14521 net.cpp:159] Memory required for data: 26833200
I0501 20:22:57.798427 14521 layer_factory.hpp:77] Creating layer loss
I0501 20:22:57.798434 14521 net.cpp:94] Creating Layer loss
I0501 20:22:57.798437 14521 net.cpp:435] loss <- ip3
I0501 20:22:57.798442 14521 net.cpp:435] loss <- label
I0501 20:22:57.798447 14521 net.cpp:409] loss -> loss
I0501 20:22:57.798458 14521 layer_factory.hpp:77] Creating layer loss
…
I0501 20:22:57.798980 14521 solver.cpp:181] Creating test net (#0) specified by net file: ./protocol/dis_50_900_dimension.protocol_distribution
I0501 20:22:57.799010 14521 net.cpp:323] The NetState phase (1) differed from the phase (0) specified by a rule in layer parameters
I0501 20:22:57.799115 14521 net.cpp:52] Initializing net from parameters: 
state {
  phase: TEST
}
layer {
  name: "intercept"
  type: "HDF5Data"
  top: "data"
  top: "label"
  include {
    phase: TEST
  }
  hdf5_data_param {
    source: "/home/purduethu/scratch/radon/d/deng106/CNNStatisticalModel/distributions/input/50_distributions_900_sample_size_test-distributions-path.txt"
    batch_size: 20
  }
}
layer {
  name: "conv1"
  type: "Convolution"
  bottom: "data"
  top: "conv1"
  param {
    lr_mult: 1
  }
  param {
    lr_mult: 2
  }
  convolution_param {
    num_output: 64
    pad: 2
    kernel_size: 5
    stride: 1
    weight_filler {
      type: "gaussian"
      std: 0.0001
    }
    bias_filler {
      type: "constant"
    }
  }
}
layer {
  name: "relu1"
  type: "ReLU"
  bottom: "conv1"
  top: "conv1"
}
layer {
  name: "conv2"
  type: "Convolution"
  bottom: "conv1"
  top: "conv2"
  param {
    lr_mult: 1
  }
  param {
    lr_mult: 2
  }
  convolution_param {
    num_output: 64
    pad: 2
    kernel_size: 5
    stride: 1
    weight_filler {
      type: "gaussian"
      std: 0.01
    }
    bias_filler {
      type: "constant"
    }
  }
}
layer {
  name: "relu2"
  type: "ReLU"
  bottom: "conv2"
  top: "conv2"
}
layer {
  name: "pool2"
  type: "Pooling"
  bottom: "conv2"
  top: "pool2"
  pooling_param {
    pool: MAX
    kernel_size: 3
    stride: 2
  }
}
layer {
  name: "conv3"
  type: "Convolution"
  bottom: "pool2"
  top: "conv3"
  param {
    lr_mult: 1
  }
  param {
    lr_mult: 2
  }
  convolution_param {
    num_output: 64
    pad: 2
    kernel_size: 5
    stride: 1
    weight_filler {
      type: "gaussian"
      std: 0.01
    }
    bias_filler {
      type: "constant"
    }
  }
}
layer {
  name: "relu3"
  type: "ReLU"
  bottom: "conv3"
  top: "conv3"
}
layer {
  name: "conv4"
  type: "Convolution"
  bottom: "conv3"
  top: "conv4"
  param {
    lr_mult: 1
  }
  param {
    lr_mult: 2
  }
  convolution_param {
    num_output: 64
    pad: 2
    kernel_size: 5
    stride: 1
    weight_filler {
      type: "gaussian"
      std: 0.01
    }
    bias_filler {
      type: "constant"
    }
  }
}
layer {
  name: "relu4"
  type: "ReLU"
  bottom: "conv4"
  top: "conv4"
}
layer {
  name: "conv5"
  type: "Convolution"
  bottom: "conv4"
  top: "conv5"
  param {
    lr_mult: 1
  }
  param {
    lr_mult: 2
  }
  convolution_param {
    num_output: 64
    pad: 2
    kernel_size: 5
    stride: 1
    weight_filler {
      type: "gaussian"
      std: 0.01
    }
    bias_filler {
      type: "constant"
    }
  }
}
layer {
  name: "relu5"
  type: "ReLU"
  bottom: "conv5"
  top: "conv5"
}
layer {
  name: "pool5"
  type: "Pooling"
  bottom: "conv5"
  top: "pool5"
  pooling_param {
    pool: AVE
    kernel_size: 3
    stride: 2
  }
}
layer {
  name: "ip1"
  type: "InnerProduct"
  bottom: "pool5"
  top: "ip1"
  param {
    lr_mult: 1
  }
  param {
    lr_mult: 2
  }
  inner_product_param {
    num_output: 64
    weight_filler {
      type: "gaussian"
      std: 0.1
    }
    bias_filler {
      type: "constant"
    }
  }
}
layer {
  name: "ip2"
  type: "InnerProduct"
  bottom: "ip1"
  top: "ip2"
  param {
    lr_mult: 1
  }
  param {
    lr_mult: 2
  }
  inner_product_param {
    num_output: 64
    weight_filler {
      type: "gaussian"
      std: 0.1
    }
    bias_filler {
      type: "constant"
    }
  }
}
layer {
  name: "ip3"
  type: "InnerProduct"
  bottom: "ip2"
  top: "ip3"
  param {
    lr_mult: 1
  }
  param {
    lr_mult: 2
  }
  inner_product_param {
    num_output: 50
    weight_filler {
      type: "gaussian"
      std: 0.1
    }
    bias_filler {
      type: "constant"
    }
  }
}
layer {
  name: "accuracy"
  type: "Accuracy"
  bottom: "ip3"
  bottom: "label"
  top: "accuracy"
  include {
    phase: TEST
  }
}
layer {
  name: "loss"
  type: "SoftmaxWithLoss"
  bottom: "ip3"
  bottom: "label"
  top: "loss"
}
I0501 20:22:57.799192 14521 layer_factory.hpp:77] Creating layer intercept
I0501 20:22:57.799201 14521 net.cpp:94] Creating Layer intercept
I0501 20:22:57.799206 14521 net.cpp:409] intercept -> data
I0501 20:22:57.799213 14521 net.cpp:409] intercept -> label
I0501 20:22:57.799221 14521 hdf5_data_layer.cpp:79] Loading list of HDF5 filenames from: /home/purduethu/scratch/radon/d/deng106/CNNStatisticalModel/distributions/input/50_distributions_900_sample_size_test-distributions-path.txt
I0501 20:22:57.799239 14521 hdf5_data_layer.cpp:93] Number of HDF5 files: 1
I0501 20:22:58.156368 14521 net.cpp:144] Setting up intercept
I0501 20:22:58.156401 14521 net.cpp:151] Top shape: 20 1 30 30 (18000)
I0501 20:22:58.156407 14521 net.cpp:151] Top shape: 20 (20)
I0501 20:22:58.156410 14521 net.cpp:159] Memory required for data: 72080
I0501 20:22:58.156416 14521 layer_factory.hpp:77] Creating layer label_intercept_1_split
I0501 20:22:58.156435 14521 net.cpp:94] Creating Layer label_intercept_1_split
I0501 20:22:58.156440 14521 net.cpp:435] label_intercept_1_split <- label
I0501 20:22:58.156446 14521 net.cpp:409] label_intercept_1_split -> label_intercept_1_split_0
I0501 20:22:58.156455 14521 net.cpp:409] label_intercept_1_split -> label_intercept_1_split_1
I0501 20:22:58.156489 14521 net.cpp:144] Setting up label_intercept_1_split
I0501 20:22:58.156497 14521 net.cpp:151] Top shape: 20 (20)
I0501 20:22:58.156500 14521 net.cpp:151] Top shape: 20 (20)
I0501 20:22:58.156503 14521 net.cpp:159] Memory required for data: 72240
I0501 20:22:58.156507 14521 layer_factory.hpp:77] Creating layer conv1
I0501 20:22:58.156518 14521 net.cpp:94] Creating Layer conv1
I0501 20:22:58.156522 14521 net.cpp:435] conv1 <- data
I0501 20:22:58.156527 14521 net.cpp:409] conv1 -> conv1
I0501 20:22:58.157877 14521 net.cpp:144] Setting up conv1
I0501 20:22:58.157891 14521 net.cpp:151] Top shape: 20 64 30 30 (1152000)
I0501 20:22:58.157896 14521 net.cpp:159] Memory required for data: 4680240
I0501 20:22:58.157905 14521 layer_factory.hpp:77] Creating layer relu1
I0501 20:22:58.157912 14521 net.cpp:94] Creating Layer relu1
I0501 20:22:58.157917 14521 net.cpp:435] relu1 <- conv1
I0501 20:22:58.157922 14521 net.cpp:396] relu1 -> conv1 (in-place)
I0501 20:22:58.157928 14521 net.cpp:144] Setting up relu1
I0501 20:22:58.157933 14521 net.cpp:151] Top shape: 20 64 30 30 (1152000)
I0501 20:22:58.157937 14521 net.cpp:159] Memory required for data: 9288240
I0501 20:22:58.157939 14521 layer_factory.hpp:77] Creating layer conv2
I0501 20:22:58.157948 14521 net.cpp:94] Creating Layer conv2
I0501 20:22:58.157953 14521 net.cpp:435] conv2 <- conv1
I0501 20:22:58.157958 14521 net.cpp:409] conv2 -> conv2
I0501 20:22:58.164618 14521 net.cpp:144] Setting up conv2
I0501 20:22:58.164654 14521 net.cpp:151] Top shape: 20 64 30 30 (1152000)
I0501 20:22:58.164665 14521 net.cpp:159] Memory required for data: 13896240
I0501 20:22:58.164687 14521 layer_factory.hpp:77] Creating layer relu2
I0501 20:22:58.164703 14521 net.cpp:94] Creating Layer relu2
I0501 20:22:58.164713 14521 net.cpp:435] relu2 <- conv2
I0501 20:22:58.164727 14521 net.cpp:396] relu2 -> conv2 (in-place)
I0501 20:22:58.164746 14521 net.cpp:144] Setting up relu2
I0501 20:22:58.164758 14521 net.cpp:151] Top shape: 20 64 30 30 (1152000)
I0501 20:22:58.164768 14521 net.cpp:159] Memory required for data: 18504240
I0501 20:22:58.164777 14521 layer_factory.hpp:77] Creating layer pool2
I0501 20:22:58.164791 14521 net.cpp:94] Creating Layer pool2
I0501 20:22:58.164809 14521 net.cpp:435] pool2 <- conv2
I0501 20:22:58.164814 14521 net.cpp:409] pool2 -> pool2
I0501 20:22:58.164847 14521 net.cpp:144] Setting up pool2
I0501 20:22:58.164854 14521 net.cpp:151] Top shape: 20 64 15 15 (288000)
I0501 20:22:58.164856 14521 net.cpp:159] Memory required for data: 19656240
I0501 20:22:58.164860 14521 layer_factory.hpp:77] Creating layer conv3
I0501 20:22:58.164868 14521 net.cpp:94] Creating Layer conv3
I0501 20:22:58.164882 14521 net.cpp:435] conv3 <- pool2
I0501 20:22:58.164887 14521 net.cpp:409] conv3 -> conv3
I0501 20:22:58.169719 14521 net.cpp:144] Setting up conv3
I0501 20:22:58.169735 14521 net.cpp:151] Top shape: 20 64 15 15 (288000)
I0501 20:22:58.169739 14521 net.cpp:159] Memory required for data: 20808240
I0501 20:22:58.169747 14521 layer_factory.hpp:77] Creating layer relu3
I0501 20:22:58.169754 14521 net.cpp:94] Creating Layer relu3
I0501 20:22:58.169759 14521 net.cpp:435] relu3 <- conv3
I0501 20:22:58.169764 14521 net.cpp:396] relu3 -> conv3 (in-place)
I0501 20:22:58.169770 14521 net.cpp:144] Setting up relu3
I0501 20:22:58.169775 14521 net.cpp:151] Top shape: 20 64 15 15 (288000)
I0501 20:22:58.169778 14521 net.cpp:159] Memory required for data: 21960240
I0501 20:22:58.169781 14521 layer_factory.hpp:77] Creating layer conv4
I0501 20:22:58.169788 14521 net.cpp:94] Creating Layer conv4
I0501 20:22:58.169792 14521 net.cpp:435] conv4 <- conv3
I0501 20:22:58.169797 14521 net.cpp:409] conv4 -> conv4
I0501 20:22:58.175901 14521 net.cpp:144] Setting up conv4
I0501 20:22:58.175916 14521 net.cpp:151] Top shape: 20 64 15 15 (288000)
I0501 20:22:58.175920 14521 net.cpp:159] Memory required for data: 23112240
I0501 20:22:58.175927 14521 layer_factory.hpp:77] Creating layer relu4
I0501 20:22:58.175933 14521 net.cpp:94] Creating Layer relu4
I0501 20:22:58.175940 14521 net.cpp:435] relu4 <- conv4
I0501 20:22:58.175946 14521 net.cpp:396] relu4 -> conv4 (in-place)
I0501 20:22:58.175953 14521 net.cpp:144] Setting up relu4
I0501 20:22:58.175957 14521 net.cpp:151] Top shape: 20 64 15 15 (288000)
I0501 20:22:58.175961 14521 net.cpp:159] Memory required for data: 24264240
I0501 20:22:58.175964 14521 layer_factory.hpp:77] Creating layer conv5
I0501 20:22:58.175971 14521 net.cpp:94] Creating Layer conv5
I0501 20:22:58.175976 14521 net.cpp:435] conv5 <- conv4
I0501 20:22:58.175981 14521 net.cpp:409] conv5 -> conv5
I0501 20:22:58.181107 14521 net.cpp:144] Setting up conv5
I0501 20:22:58.181123 14521 net.cpp:151] Top shape: 20 64 15 15 (288000)
I0501 20:22:58.181128 14521 net.cpp:159] Memory required for data: 25416240
I0501 20:22:58.181135 14521 layer_factory.hpp:77] Creating layer relu5
I0501 20:22:58.181143 14521 net.cpp:94] Creating Layer relu5
I0501 20:22:58.181145 14521 net.cpp:435] relu5 <- conv5
I0501 20:22:58.181150 14521 net.cpp:396] relu5 -> conv5 (in-place)
I0501 20:22:58.181157 14521 net.cpp:144] Setting up relu5
I0501 20:22:58.181161 14521 net.cpp:151] Top shape: 20 64 15 15 (288000)
I0501 20:22:58.181164 14521 net.cpp:159] Memory required for data: 26568240
I0501 20:22:58.181167 14521 layer_factory.hpp:77] Creating layer pool5
I0501 20:22:58.181172 14521 net.cpp:94] Creating Layer pool5
I0501 20:22:58.181175 14521 net.cpp:435] pool5 <- conv5
I0501 20:22:58.181180 14521 net.cpp:409] pool5 -> pool5
I0501 20:22:58.181205 14521 net.cpp:144] Setting up pool5
I0501 20:22:58.181212 14521 net.cpp:151] Top shape: 20 64 7 7 (62720)
I0501 20:22:58.181216 14521 net.cpp:159] Memory required for data: 26819120
I0501 20:22:58.181218 14521 layer_factory.hpp:77] Creating layer ip1
I0501 20:22:58.181226 14521 net.cpp:94] Creating Layer ip1
I0501 20:22:58.181229 14521 net.cpp:435] ip1 <- pool5
I0501 20:22:58.181233 14521 net.cpp:409] ip1 -> ip1
I0501 20:22:58.185959 14521 net.cpp:144] Setting up ip1
I0501 20:22:58.185968 14521 net.cpp:151] Top shape: 20 64 (1280)
I0501 20:22:58.185971 14521 net.cpp:159] Memory required for data: 26824240
I0501 20:22:58.185976 14521 layer_factory.hpp:77] Creating layer ip2
I0501 20:22:58.185982 14521 net.cpp:94] Creating Layer ip2
I0501 20:22:58.185986 14521 net.cpp:435] ip2 <- ip1
I0501 20:22:58.185991 14521 net.cpp:409] ip2 -> ip2
I0501 20:22:58.186156 14521 net.cpp:144] Setting up ip2
I0501 20:22:58.186163 14521 net.cpp:151] Top shape: 20 64 (1280)
I0501 20:22:58.186167 14521 net.cpp:159] Memory required for data: 26829360
I0501 20:22:58.186172 14521 layer_factory.hpp:77] Creating layer ip3
I0501 20:22:58.186179 14521 net.cpp:94] Creating Layer ip3
I0501 20:22:58.186182 14521 net.cpp:435] ip3 <- ip2
I0501 20:22:58.186187 14521 net.cpp:409] ip3 -> ip3
I0501 20:22:58.186332 14521 net.cpp:144] Setting up ip3
I0501 20:22:58.186339 14521 net.cpp:151] Top shape: 20 50 (1000)
I0501 20:22:58.186342 14521 net.cpp:159] Memory required for data: 26833360
I0501 20:22:58.186347 14521 layer_factory.hpp:77] Creating layer ip3_ip3_0_split
I0501 20:22:58.186352 14521 net.cpp:94] Creating Layer ip3_ip3_0_split
I0501 20:22:58.186355 14521 net.cpp:435] ip3_ip3_0_split <- ip3
I0501 20:22:58.186359 14521 net.cpp:409] ip3_ip3_0_split -> ip3_ip3_0_split_0
I0501 20:22:58.186364 14521 net.cpp:409] ip3_ip3_0_split -> ip3_ip3_0_split_1
I0501 20:22:58.186390 14521 net.cpp:144] Setting up ip3_ip3_0_split
I0501 20:22:58.186396 14521 net.cpp:151] Top shape: 20 50 (1000)
I0501 20:22:58.186399 14521 net.cpp:151] Top shape: 20 50 (1000)
I0501 20:22:58.186403 14521 net.cpp:159] Memory required for data: 26841360
I0501 20:22:58.186405 14521 layer_factory.hpp:77] Creating layer accuracy
I0501 20:22:58.186415 14521 net.cpp:94] Creating Layer accuracy
I0501 20:22:58.186419 14521 net.cpp:435] accuracy <- ip3_ip3_0_split_0
I0501 20:22:58.186422 14521 net.cpp:435] accuracy <- label_intercept_1_split_0
I0501 20:22:58.186426 14521 net.cpp:409] accuracy -> accuracy
…
