…
I0502 21:38:28.310200 13955 net.cpp:323] The NetState phase (0) differed from the phase (1) specified by a rule in layer intercept
I0502 21:38:28.310216 13955 net.cpp:323] The NetState phase (0) differed from the phase (1) specified by a rule in layer loss
I0502 21:38:28.310293 13955 net.cpp:52] Initializing net from parameters: 
state {
  phase: TRAIN
}
layer {
  name: "parameters"
  type: "HDF5Data"
  top: "data"
  top: "label"
  include {
    phase: TRAIN
  }
  hdf5_data_param {
    source: "/home/purduethu/scratch/radon/d/deng106/CNNStatisticalModel/distributions/input/50_distributions_900_sample_size_train-parameters-path.txt"
    batch_size: 20
  }
}
layer {
  name: "conv1"
  type: "Convolution"
  bottom: "data"
  top: "conv1"
  param {
    lr_mult: 1
  }
  param {
    lr_mult: 2
  }
  convolution_param {
    num_output: 64
    pad: 2
    kernel_size: 5
    stride: 1
    weight_filler {
      type: "gaussian"
      std: 0.0001
    }
    bias_filler {
      type: "constant"
    }
  }
}
layer {
  name: "relu1"
  type: "ReLU"
  bottom: "conv1"
  top: "conv1"
}
layer {
  name: "conv2"
  type: "Convolution"
  bottom: "conv1"
  top: "conv2"
  param {
    lr_mult: 1
  }
  param {
    lr_mult: 2
  }
  convolution_param {
    num_output: 64
    pad: 2
    kernel_size: 5
    stride: 1
    weight_filler {
      type: "gaussian"
      std: 0.01
    }
    bias_filler {
      type: "constant"
    }
  }
}
layer {
  name: "relu2"
  type: "ReLU"
  bottom: "conv2"
  top: "conv2"
}
layer {
  name: "pool2"
  type: "Pooling"
  bottom: "conv2"
  top: "pool2"
  pooling_param {
    pool: MAX
    kernel_size: 3
    stride: 2
  }
}
layer {
  name: "conv3"
  type: "Convolution"
  bottom: "pool2"
  top: "conv3"
  param {
    lr_mult: 1
  }
  param {
    lr_mult: 2
  }
  convolution_param {
    num_output: 128
    pad: 2
    kernel_size: 5
    stride: 1
    weight_filler {
      type: "gaussian"
      std: 0.01
    }
    bias_filler {
      type: "constant"
    }
  }
}
layer {
  name: "relu3"
  type: "ReLU"
  bottom: "conv3"
  top: "conv3"
}
layer {
  name: "conv4"
  type: "Convolution"
  bottom: "conv3"
  top: "conv4"
  param {
    lr_mult: 1
  }
  param {
    lr_mult: 2
  }
  convolution_param {
    num_output: 128
    pad: 2
    kernel_size: 5
    stride: 1
    weight_filler {
      type: "gaussian"
      std: 0.01
    }
    bias_filler {
      type: "constant"
    }
  }
}
layer {
  name: "relu4"
  type: "ReLU"
  bottom: "conv4"
  top: "conv4"
}
layer {
  name: "conv5"
  type: "Convolution"
  bottom: "conv4"
  top: "conv5"
  param {
    lr_mult: 1
  }
  param {
    lr_mult: 2
  }
  convolution_param {
    num_output: 128
    pad: 2
    kernel_size: 5
    stride: 1
    weight_filler {
      type: "gaussian"
      std: 0.01
    }
    bias_filler {
      type: "constant"
    }
  }
}
layer {
  name: "relu5"
  type: "ReLU"
  bottom: "conv5"
  top: "conv5"
}
layer {
  name: "pool5"
  type: "Pooling"
  bottom: "conv5"
  top: "pool5"
  pooling_param {
    pool: AVE
    kernel_size: 3
    stride: 2
  }
}
layer {
  name: "ip1"
  type: "InnerProduct"
  bottom: "pool5"
  top: "ip1"
  param {
    lr_mult: 1
  }
  param {
    lr_mult: 2
  }
  inner_product_param {
    num_output: 1024
    weight_filler {
      type: "gaussian"
      std: 0.1
    }
    bias_filler {
      type: "constant"
    }
  }
}
layer {
  name: "ip2"
  type: "InnerProduct"
  bottom: "ip1"
  top: "ip2"
  param {
    lr_mult: 1
  }
  param {
    lr_mult: 2
  }
  inner_product_param {
    num_output: 512
    weight_filler {
      type: "gaussian"
      std: 0.1
    }
    bias_filler {
      type: "constant"
    }
  }
}
layer {
  name: "ip3"
  type: "InnerProduct"
  bottom: "ip2"
  top: "ip3"
  param {
    lr_mult: 1
  }
  param {
    lr_mult: 2
  }
  inner_product_param {
    num_output: 1
    weight_filler {
      type: "gaussian"
      std: 0.1
    }
    bias_filler {
      type: "constant"
    }
  }
}
layer {
  name: "loss"
  type: "HuberLoss"
  bottom: "ip3"
  bottom: "label"
  top: "loss"
  include {
    phase: TRAIN
  }
}
I0502 21:38:28.310346 13955 layer_factory.hpp:77] Creating layer parameters
I0502 21:38:28.310359 13955 net.cpp:94] Creating Layer parameters
I0502 21:38:28.310364 13955 net.cpp:409] parameters -> data
I0502 21:38:28.310374 13955 net.cpp:409] parameters -> label
I0502 21:38:28.310384 13955 hdf5_data_layer.cpp:79] Loading list of HDF5 filenames from: /home/purduethu/scratch/radon/d/deng106/CNNStatisticalModel/distributions/input/50_distributions_900_sample_size_train-parameters-path.txt
I0502 21:38:28.310400 13955 hdf5_data_layer.cpp:93] Number of HDF5 files: 1
I0502 21:38:28.310955 13955 hdf5.cpp:32] Datatype class: H5T_FLOAT
I0502 21:38:29.760583 13955 net.cpp:144] Setting up parameters
I0502 21:38:29.760619 13955 net.cpp:151] Top shape: 20 1 30 30 (18000)
I0502 21:38:29.760625 13955 net.cpp:151] Top shape: 20 (20)
I0502 21:38:29.760629 13955 net.cpp:159] Memory required for data: 72080
I0502 21:38:29.760635 13955 layer_factory.hpp:77] Creating layer conv1
I0502 21:38:29.760653 13955 net.cpp:94] Creating Layer conv1
I0502 21:38:29.760658 13955 net.cpp:435] conv1 <- data
I0502 21:38:29.760663 13955 net.cpp:409] conv1 -> conv1
I0502 21:38:29.767774 13955 net.cpp:144] Setting up conv1
I0502 21:38:29.767817 13955 net.cpp:151] Top shape: 20 64 30 30 (1152000)
I0502 21:38:29.767828 13955 net.cpp:159] Memory required for data: 4680080
I0502 21:38:29.767853 13955 layer_factory.hpp:77] Creating layer relu1
I0502 21:38:29.767860 13955 net.cpp:94] Creating Layer relu1
I0502 21:38:29.767864 13955 net.cpp:435] relu1 <- conv1
I0502 21:38:29.767868 13955 net.cpp:396] relu1 -> conv1 (in-place)
I0502 21:38:29.767881 13955 net.cpp:144] Setting up relu1
I0502 21:38:29.767885 13955 net.cpp:151] Top shape: 20 64 30 30 (1152000)
I0502 21:38:29.767889 13955 net.cpp:159] Memory required for data: 9288080
I0502 21:38:29.767892 13955 layer_factory.hpp:77] Creating layer conv2
I0502 21:38:29.767900 13955 net.cpp:94] Creating Layer conv2
I0502 21:38:29.767904 13955 net.cpp:435] conv2 <- conv1
I0502 21:38:29.767909 13955 net.cpp:409] conv2 -> conv2
I0502 21:38:29.785331 13955 net.cpp:144] Setting up conv2
I0502 21:38:29.785370 13955 net.cpp:151] Top shape: 20 64 30 30 (1152000)
I0502 21:38:29.785382 13955 net.cpp:159] Memory required for data: 13896080
I0502 21:38:29.785403 13955 layer_factory.hpp:77] Creating layer relu2
I0502 21:38:29.785421 13955 net.cpp:94] Creating Layer relu2
I0502 21:38:29.785432 13955 net.cpp:435] relu2 <- conv2
I0502 21:38:29.785445 13955 net.cpp:396] relu2 -> conv2 (in-place)
I0502 21:38:29.785465 13955 net.cpp:144] Setting up relu2
I0502 21:38:29.785477 13955 net.cpp:151] Top shape: 20 64 30 30 (1152000)
I0502 21:38:29.785486 13955 net.cpp:159] Memory required for data: 18504080
I0502 21:38:29.785495 13955 layer_factory.hpp:77] Creating layer pool2
I0502 21:38:29.785522 13955 net.cpp:94] Creating Layer pool2
I0502 21:38:29.785533 13955 net.cpp:435] pool2 <- conv2
I0502 21:38:29.785547 13955 net.cpp:409] pool2 -> pool2
I0502 21:38:29.785698 13955 net.cpp:144] Setting up pool2
I0502 21:38:29.785706 13955 net.cpp:151] Top shape: 20 64 15 15 (288000)
I0502 21:38:29.785709 13955 net.cpp:159] Memory required for data: 19656080
I0502 21:38:29.785713 13955 layer_factory.hpp:77] Creating layer conv3
I0502 21:38:29.785722 13955 net.cpp:94] Creating Layer conv3
I0502 21:38:29.785725 13955 net.cpp:435] conv3 <- pool2
I0502 21:38:29.785729 13955 net.cpp:409] conv3 -> conv3
I0502 21:38:29.799865 13955 net.cpp:144] Setting up conv3
I0502 21:38:29.799891 13955 net.cpp:151] Top shape: 20 128 15 15 (576000)
I0502 21:38:29.799899 13955 net.cpp:159] Memory required for data: 21960080
I0502 21:38:29.799916 13955 layer_factory.hpp:77] Creating layer relu3
I0502 21:38:29.799926 13955 net.cpp:94] Creating Layer relu3
I0502 21:38:29.799933 13955 net.cpp:435] relu3 <- conv3
I0502 21:38:29.799942 13955 net.cpp:396] relu3 -> conv3 (in-place)
I0502 21:38:29.799957 13955 net.cpp:144] Setting up relu3
I0502 21:38:29.799964 13955 net.cpp:151] Top shape: 20 128 15 15 (576000)
I0502 21:38:29.799970 13955 net.cpp:159] Memory required for data: 24264080
I0502 21:38:29.799988 13955 layer_factory.hpp:77] Creating layer conv4
I0502 21:38:29.799998 13955 net.cpp:94] Creating Layer conv4
I0502 21:38:29.800001 13955 net.cpp:435] conv4 <- conv3
I0502 21:38:29.800006 13955 net.cpp:409] conv4 -> conv4
I0502 21:38:29.825386 13955 net.cpp:144] Setting up conv4
I0502 21:38:29.825403 13955 net.cpp:151] Top shape: 20 128 15 15 (576000)
I0502 21:38:29.825408 13955 net.cpp:159] Memory required for data: 26568080
I0502 21:38:29.825417 13955 layer_factory.hpp:77] Creating layer relu4
I0502 21:38:29.825424 13955 net.cpp:94] Creating Layer relu4
I0502 21:38:29.825428 13955 net.cpp:435] relu4 <- conv4
I0502 21:38:29.825434 13955 net.cpp:396] relu4 -> conv4 (in-place)
I0502 21:38:29.825443 13955 net.cpp:144] Setting up relu4
I0502 21:38:29.825448 13955 net.cpp:151] Top shape: 20 128 15 15 (576000)
I0502 21:38:29.825453 13955 net.cpp:159] Memory required for data: 28872080
I0502 21:38:29.825456 13955 layer_factory.hpp:77] Creating layer conv5
I0502 21:38:29.825465 13955 net.cpp:94] Creating Layer conv5
I0502 21:38:29.825469 13955 net.cpp:435] conv5 <- conv4
I0502 21:38:29.825475 13955 net.cpp:409] conv5 -> conv5
I0502 21:38:29.851627 13955 net.cpp:144] Setting up conv5
I0502 21:38:29.851666 13955 net.cpp:151] Top shape: 20 128 15 15 (576000)
I0502 21:38:29.851678 13955 net.cpp:159] Memory required for data: 31176080
I0502 21:38:29.851702 13955 layer_factory.hpp:77] Creating layer relu5
I0502 21:38:29.851718 13955 net.cpp:94] Creating Layer relu5
I0502 21:38:29.851729 13955 net.cpp:435] relu5 <- conv5
I0502 21:38:29.851742 13955 net.cpp:396] relu5 -> conv5 (in-place)
I0502 21:38:29.851771 13955 net.cpp:144] Setting up relu5
I0502 21:38:29.851778 13955 net.cpp:151] Top shape: 20 128 15 15 (576000)
I0502 21:38:29.851781 13955 net.cpp:159] Memory required for data: 33480080
I0502 21:38:29.851785 13955 layer_factory.hpp:77] Creating layer pool5
I0502 21:38:29.851791 13955 net.cpp:94] Creating Layer pool5
I0502 21:38:29.851795 13955 net.cpp:435] pool5 <- conv5
I0502 21:38:29.851801 13955 net.cpp:409] pool5 -> pool5
I0502 21:38:29.851855 13955 net.cpp:144] Setting up pool5
I0502 21:38:29.851866 13955 net.cpp:151] Top shape: 20 128 7 7 (125440)
I0502 21:38:29.851869 13955 net.cpp:159] Memory required for data: 33981840
I0502 21:38:29.851873 13955 layer_factory.hpp:77] Creating layer ip1
I0502 21:38:29.851882 13955 net.cpp:94] Creating Layer ip1
I0502 21:38:29.851886 13955 net.cpp:435] ip1 <- pool5
I0502 21:38:29.851892 13955 net.cpp:409] ip1 -> ip1
I0502 21:38:30.023186 13955 net.cpp:144] Setting up ip1
I0502 21:38:30.023223 13955 net.cpp:151] Top shape: 20 1024 (20480)
I0502 21:38:30.023228 13955 net.cpp:159] Memory required for data: 34063760
I0502 21:38:30.023238 13955 layer_factory.hpp:77] Creating layer ip2
I0502 21:38:30.023249 13955 net.cpp:94] Creating Layer ip2
I0502 21:38:30.023265 13955 net.cpp:435] ip2 <- ip1
I0502 21:38:30.023272 13955 net.cpp:409] ip2 -> ip2
I0502 21:38:30.036440 13955 net.cpp:144] Setting up ip2
I0502 21:38:30.036454 13955 net.cpp:151] Top shape: 20 512 (10240)
I0502 21:38:30.036458 13955 net.cpp:159] Memory required for data: 34104720
I0502 21:38:30.036464 13955 layer_factory.hpp:77] Creating layer ip3
I0502 21:38:30.036471 13955 net.cpp:94] Creating Layer ip3
I0502 21:38:30.036474 13955 net.cpp:435] ip3 <- ip2
I0502 21:38:30.036480 13955 net.cpp:409] ip3 -> ip3
I0502 21:38:30.036607 13955 net.cpp:144] Setting up ip3
I0502 21:38:30.036615 13955 net.cpp:151] Top shape: 20 1 (20)
I0502 21:38:30.036618 13955 net.cpp:159] Memory required for data: 34104800
I0502 21:38:30.036623 13955 layer_factory.hpp:77] Creating layer loss
I0502 21:38:30.036638 13955 net.cpp:94] Creating Layer loss
I0502 21:38:30.036641 13955 net.cpp:435] loss <- ip3
I0502 21:38:30.036645 13955 net.cpp:435] loss <- label
I0502 21:38:30.036649 13955 net.cpp:409] loss -> loss
I0502 21:38:30.036703 13955 net.cpp:144] Setting up loss
…
I0502 21:38:30.624284 13955 net.cpp:323] The NetState phase (0) differed from the phase (1) specified by a rule in layer intercept
I0502 21:38:30.624299 13955 net.cpp:323] The NetState phase (0) differed from the phase (1) specified by a rule in layer accuracy
I0502 21:38:30.624382 13955 net.cpp:52] Initializing net from parameters: 
state {
  phase: TRAIN
}
layer {
  name: "parameters"
  type: "HDF5Data"
  top: "data"
  top: "label"
  include {
    phase: TRAIN
  }
  hdf5_data_param {
    source: "/home/purduethu/scratch/radon/d/deng106/CNNStatisticalModel/distributions/input/50_distributions_900_sample_size_train-distributions-path.txt"
    batch_size: 20
  }
}
layer {
  name: "conv1"
  type: "Convolution"
  bottom: "data"
  top: "conv1"
  param {
    lr_mult: 1
  }
  param {
    lr_mult: 2
  }
  convolution_param {
    num_output: 64
    pad: 2
    kernel_size: 5
    stride: 1
    weight_filler {
      type: "gaussian"
      std: 0.0001
    }
    bias_filler {
      type: "constant"
    }
  }
}
layer {
  name: "relu1"
  type: "ReLU"
  bottom: "conv1"
  top: "conv1"
}
layer {
  name: "conv2"
  type: "Convolution"
  bottom: "conv1"
  top: "conv2"
  param {
    lr_mult: 1
  }
  param {
    lr_mult: 2
  }
  convolution_param {
    num_output: 64
    pad: 2
    kernel_size: 5
    stride: 1
    weight_filler {
      type: "gaussian"
      std: 0.01
    }
    bias_filler {
      type: "constant"
    }
  }
}
layer {
  name: "relu2"
  type: "ReLU"
  bottom: "conv2"
  top: "conv2"
}
layer {
  name: "pool2"
  type: "Pooling"
  bottom: "conv2"
  top: "pool2"
  pooling_param {
    pool: MAX
    kernel_size: 3
    stride: 2
  }
}
layer {
  name: "conv3"
  type: "Convolution"
  bottom: "pool2"
  top: "conv3"
  param {
    lr_mult: 1
  }
  param {
    lr_mult: 2
  }
  convolution_param {
    num_output: 128
    pad: 2
    kernel_size: 5
    stride: 1
    weight_filler {
      type: "gaussian"
      std: 0.01
    }
    bias_filler {
      type: "constant"
    }
  }
}
layer {
  name: "relu3"
  type: "ReLU"
  bottom: "conv3"
  top: "conv3"
}
layer {
  name: "conv4"
  type: "Convolution"
  bottom: "conv3"
  top: "conv4"
  param {
    lr_mult: 1
  }
  param {
    lr_mult: 2
  }
  convolution_param {
    num_output: 128
    pad: 2
    kernel_size: 5
    stride: 1
    weight_filler {
      type: "gaussian"
      std: 0.01
    }
    bias_filler {
      type: "constant"
    }
  }
}
layer {
  name: "relu4"
  type: "ReLU"
  bottom: "conv4"
  top: "conv4"
}
layer {
  name: "conv5"
  type: "Convolution"
  bottom: "conv4"
  top: "conv5"
  param {
    lr_mult: 1
  }
  param {
    lr_mult: 2
  }
  convolution_param {
    num_output: 128
    pad: 2
    kernel_size: 5
    stride: 1
    weight_filler {
      type: "gaussian"
      std: 0.01
    }
    bias_filler {
      type: "constant"
    }
  }
}
layer {
  name: "relu5"
  type: "ReLU"
  bottom: "conv5"
  top: "conv5"
}
layer {
  name: "pool5"
  type: "Pooling"
  bottom: "conv5"
  top: "pool5"
  pooling_param {
    pool: AVE
    kernel_size: 3
    stride: 2
  }
}
layer {
  name: "ip1"
  type: "InnerProduct"
  bottom: "pool5"
  top: "ip1"
  param {
    lr_mult: 1
  }
  param {
    lr_mult: 2
  }
  inner_product_param {
    num_output: 1024
    weight_filler {
      type: "gaussian"
      std: 0.1
    }
    bias_filler {
      type: "constant"
    }
  }
}
layer {
  name: "ip2"
  type: "InnerProduct"
  bottom: "ip1"
  top: "ip2"
  param {
    lr_mult: 1
  }
  param {
    lr_mult: 2
  }
  inner_product_param {
    num_output: 512
    weight_filler {
      type: "gaussian"
      std: 0.1
    }
    bias_filler {
      type: "constant"
    }
  }
}
layer {
  name: "ip3"
  type: "InnerProduct"
  bottom: "ip2"
  top: "ip3"
  param {
    lr_mult: 1
  }
  param {
    lr_mult: 2
  }
  inner_product_param {
    num_output: 50
    weight_filler {
      type: "gaussian"
      std: 0.1
    }
    bias_filler {
      type: "constant"
    }
  }
}
layer {
  name: "loss"
  type: "SoftmaxWithLoss"
  bottom: "ip3"
  bottom: "label"
  top: "loss"
}
I0502 21:38:30.624434 13955 layer_factory.hpp:77] Creating layer parameters
I0502 21:38:30.624444 13955 net.cpp:94] Creating Layer parameters
I0502 21:38:30.624447 13955 net.cpp:409] parameters -> data
I0502 21:38:30.624454 13955 net.cpp:409] parameters -> label
I0502 21:38:30.624459 13955 hdf5_data_layer.cpp:79] Loading list of HDF5 filenames from: /home/purduethu/scratch/radon/d/deng106/CNNStatisticalModel/distributions/input/50_distributions_900_sample_size_train-distributions-path.txt
I0502 21:38:30.624475 13955 hdf5_data_layer.cpp:93] Number of HDF5 files: 1
I0502 21:38:32.190896 13955 hdf5.cpp:35] Datatype class: H5T_INTEGER
I0502 21:38:32.194103 13955 net.cpp:144] Setting up parameters
I0502 21:38:32.194136 13955 net.cpp:151] Top shape: 20 1 30 30 (18000)
I0502 21:38:32.194141 13955 net.cpp:151] Top shape: 20 (20)
I0502 21:38:32.194145 13955 net.cpp:159] Memory required for data: 72080
I0502 21:38:32.194151 13955 layer_factory.hpp:77] Creating layer conv1
I0502 21:38:32.194169 13955 net.cpp:94] Creating Layer conv1
I0502 21:38:32.194174 13955 net.cpp:435] conv1 <- data
I0502 21:38:32.194180 13955 net.cpp:409] conv1 -> conv1
I0502 21:38:32.197899 13955 net.cpp:144] Setting up conv1
I0502 21:38:32.197928 13955 net.cpp:151] Top shape: 20 64 30 30 (1152000)
I0502 21:38:32.197932 13955 net.cpp:159] Memory required for data: 4680080
I0502 21:38:32.197945 13955 layer_factory.hpp:77] Creating layer relu1
I0502 21:38:32.197957 13955 net.cpp:94] Creating Layer relu1
I0502 21:38:32.197960 13955 net.cpp:435] relu1 <- conv1
I0502 21:38:32.197965 13955 net.cpp:396] relu1 -> conv1 (in-place)
I0502 21:38:32.197975 13955 net.cpp:144] Setting up relu1
I0502 21:38:32.197979 13955 net.cpp:151] Top shape: 20 64 30 30 (1152000)
I0502 21:38:32.197983 13955 net.cpp:159] Memory required for data: 9288080
I0502 21:38:32.197985 13955 layer_factory.hpp:77] Creating layer conv2
I0502 21:38:32.197995 13955 net.cpp:94] Creating Layer conv2
I0502 21:38:32.197999 13955 net.cpp:435] conv2 <- conv1
I0502 21:38:32.198004 13955 net.cpp:409] conv2 -> conv2
I0502 21:38:32.214004 13955 net.cpp:144] Setting up conv2
I0502 21:38:32.214038 13955 net.cpp:151] Top shape: 20 64 30 30 (1152000)
I0502 21:38:32.214043 13955 net.cpp:159] Memory required for data: 13896080
I0502 21:38:32.214057 13955 layer_factory.hpp:77] Creating layer relu2
I0502 21:38:32.214068 13955 net.cpp:94] Creating Layer relu2
I0502 21:38:32.214073 13955 net.cpp:435] relu2 <- conv2
I0502 21:38:32.214078 13955 net.cpp:396] relu2 -> conv2 (in-place)
I0502 21:38:32.214089 13955 net.cpp:144] Setting up relu2
I0502 21:38:32.214093 13955 net.cpp:151] Top shape: 20 64 30 30 (1152000)
I0502 21:38:32.214097 13955 net.cpp:159] Memory required for data: 18504080
I0502 21:38:32.214100 13955 layer_factory.hpp:77] Creating layer pool2
I0502 21:38:32.214107 13955 net.cpp:94] Creating Layer pool2
I0502 21:38:32.214109 13955 net.cpp:435] pool2 <- conv2
I0502 21:38:32.214113 13955 net.cpp:409] pool2 -> pool2
I0502 21:38:32.214234 13955 net.cpp:144] Setting up pool2
I0502 21:38:32.214241 13955 net.cpp:151] Top shape: 20 64 15 15 (288000)
I0502 21:38:32.214246 13955 net.cpp:159] Memory required for data: 19656080
I0502 21:38:32.214248 13955 layer_factory.hpp:77] Creating layer conv3
I0502 21:38:32.214259 13955 net.cpp:94] Creating Layer conv3
I0502 21:38:32.214272 13955 net.cpp:435] conv3 <- pool2
I0502 21:38:32.214277 13955 net.cpp:409] conv3 -> conv3
I0502 21:38:32.227959 13955 net.cpp:144] Setting up conv3
I0502 21:38:32.227993 13955 net.cpp:151] Top shape: 20 128 15 15 (576000)
I0502 21:38:32.227998 13955 net.cpp:159] Memory required for data: 21960080
I0502 21:38:32.228013 13955 layer_factory.hpp:77] Creating layer relu3
I0502 21:38:32.228024 13955 net.cpp:94] Creating Layer relu3
I0502 21:38:32.228029 13955 net.cpp:435] relu3 <- conv3
I0502 21:38:32.228034 13955 net.cpp:396] relu3 -> conv3 (in-place)
I0502 21:38:32.228044 13955 net.cpp:144] Setting up relu3
I0502 21:38:32.228049 13955 net.cpp:151] Top shape: 20 128 15 15 (576000)
I0502 21:38:32.228051 13955 net.cpp:159] Memory required for data: 24264080
I0502 21:38:32.228055 13955 layer_factory.hpp:77] Creating layer conv4
I0502 21:38:32.228067 13955 net.cpp:94] Creating Layer conv4
I0502 21:38:32.228071 13955 net.cpp:435] conv4 <- conv3
I0502 21:38:32.228076 13955 net.cpp:409] conv4 -> conv4
I0502 21:38:32.250941 13955 net.cpp:144] Setting up conv4
I0502 21:38:32.250977 13955 net.cpp:151] Top shape: 20 128 15 15 (576000)
I0502 21:38:32.250980 13955 net.cpp:159] Memory required for data: 26568080
I0502 21:38:32.250991 13955 layer_factory.hpp:77] Creating layer relu4
I0502 21:38:32.251003 13955 net.cpp:94] Creating Layer relu4
I0502 21:38:32.251006 13955 net.cpp:435] relu4 <- conv4
I0502 21:38:32.251013 13955 net.cpp:396] relu4 -> conv4 (in-place)
I0502 21:38:32.251024 13955 net.cpp:144] Setting up relu4
I0502 21:38:32.251027 13955 net.cpp:151] Top shape: 20 128 15 15 (576000)
I0502 21:38:32.251030 13955 net.cpp:159] Memory required for data: 28872080
I0502 21:38:32.251034 13955 layer_factory.hpp:77] Creating layer conv5
I0502 21:38:32.251045 13955 net.cpp:94] Creating Layer conv5
I0502 21:38:32.251049 13955 net.cpp:435] conv5 <- conv4
I0502 21:38:32.251054 13955 net.cpp:409] conv5 -> conv5
I0502 21:38:32.273727 13955 net.cpp:144] Setting up conv5
I0502 21:38:32.273764 13955 net.cpp:151] Top shape: 20 128 15 15 (576000)
I0502 21:38:32.273768 13955 net.cpp:159] Memory required for data: 31176080
I0502 21:38:32.273784 13955 layer_factory.hpp:77] Creating layer relu5
I0502 21:38:32.273795 13955 net.cpp:94] Creating Layer relu5
I0502 21:38:32.273800 13955 net.cpp:435] relu5 <- conv5
I0502 21:38:32.273805 13955 net.cpp:396] relu5 -> conv5 (in-place)
I0502 21:38:32.273816 13955 net.cpp:144] Setting up relu5
I0502 21:38:32.273820 13955 net.cpp:151] Top shape: 20 128 15 15 (576000)
I0502 21:38:32.273823 13955 net.cpp:159] Memory required for data: 33480080
I0502 21:38:32.273828 13955 layer_factory.hpp:77] Creating layer pool5
I0502 21:38:32.273833 13955 net.cpp:94] Creating Layer pool5
I0502 21:38:32.273836 13955 net.cpp:435] pool5 <- conv5
I0502 21:38:32.273840 13955 net.cpp:409] pool5 -> pool5
I0502 21:38:32.273936 13955 net.cpp:144] Setting up pool5
I0502 21:38:32.273944 13955 net.cpp:151] Top shape: 20 128 7 7 (125440)
I0502 21:38:32.273947 13955 net.cpp:159] Memory required for data: 33981840
I0502 21:38:32.273950 13955 layer_factory.hpp:77] Creating layer ip1
I0502 21:38:32.273957 13955 net.cpp:94] Creating Layer ip1
I0502 21:38:32.273962 13955 net.cpp:435] ip1 <- pool5
I0502 21:38:32.273967 13955 net.cpp:409] ip1 -> ip1
I0502 21:38:32.430801 13955 net.cpp:144] Setting up ip1
I0502 21:38:32.430840 13955 net.cpp:151] Top shape: 20 1024 (20480)
I0502 21:38:32.430845 13955 net.cpp:159] Memory required for data: 34063760
I0502 21:38:32.430853 13955 layer_factory.hpp:77] Creating layer ip2
I0502 21:38:32.430865 13955 net.cpp:94] Creating Layer ip2
I0502 21:38:32.430881 13955 net.cpp:435] ip2 <- ip1
I0502 21:38:32.430887 13955 net.cpp:409] ip2 -> ip2
I0502 21:38:32.444257 13955 net.cpp:144] Setting up ip2
I0502 21:38:32.444293 13955 net.cpp:151] Top shape: 20 512 (10240)
I0502 21:38:32.444298 13955 net.cpp:159] Memory required for data: 34104720
I0502 21:38:32.444308 13955 layer_factory.hpp:77] Creating layer ip3
I0502 21:38:32.444317 13955 net.cpp:94] Creating Layer ip3
I0502 21:38:32.444322 13955 net.cpp:435] ip3 <- ip2
I0502 21:38:32.444339 13955 net.cpp:409] ip3 -> ip3
I0502 21:38:32.446115 13955 net.cpp:144] Setting up ip3
I0502 21:38:32.446138 13955 net.cpp:151] Top shape: 20 50 (1000)
I0502 21:38:32.446142 13955 net.cpp:159] Memory required for data: 34108720
I0502 21:38:32.446151 13955 layer_factory.hpp:77] Creating layer loss
I0502 21:38:32.446161 13955 net.cpp:94] Creating Layer loss
I0502 21:38:32.446166 13955 net.cpp:435] loss <- ip3
I0502 21:38:32.446171 13955 net.cpp:435] loss <- label
I0502 21:38:32.446175 13955 net.cpp:409] loss -> loss
I0502 21:38:32.446187 13955 layer_factory.hpp:77] Creating layer loss
…
I0502 21:38:32.446745 13955 solver.cpp:181] Creating test net (#0) specified by net file: ./protocol/dis_50_900_dimension.protocol_distribution
I0502 21:38:32.446774 13955 net.cpp:323] The NetState phase (1) differed from the phase (0) specified by a rule in layer parameters
I0502 21:38:32.446866 13955 net.cpp:52] Initializing net from parameters: 
state {
  phase: TEST
}
layer {
  name: "intercept"
  type: "HDF5Data"
  top: "data"
  top: "label"
  include {
    phase: TEST
  }
  hdf5_data_param {
    source: "/home/purduethu/scratch/radon/d/deng106/CNNStatisticalModel/distributions/input/50_distributions_900_sample_size_test-distributions-path.txt"
    batch_size: 20
  }
}
layer {
  name: "conv1"
  type: "Convolution"
  bottom: "data"
  top: "conv1"
  param {
    lr_mult: 1
  }
  param {
    lr_mult: 2
  }
  convolution_param {
    num_output: 64
    pad: 2
    kernel_size: 5
    stride: 1
    weight_filler {
      type: "gaussian"
      std: 0.0001
    }
    bias_filler {
      type: "constant"
    }
  }
}
layer {
  name: "relu1"
  type: "ReLU"
  bottom: "conv1"
  top: "conv1"
}
layer {
  name: "conv2"
  type: "Convolution"
  bottom: "conv1"
  top: "conv2"
  param {
    lr_mult: 1
  }
  param {
    lr_mult: 2
  }
  convolution_param {
    num_output: 64
    pad: 2
    kernel_size: 5
    stride: 1
    weight_filler {
      type: "gaussian"
      std: 0.01
    }
    bias_filler {
      type: "constant"
    }
  }
}
layer {
  name: "relu2"
  type: "ReLU"
  bottom: "conv2"
  top: "conv2"
}
layer {
  name: "pool2"
  type: "Pooling"
  bottom: "conv2"
  top: "pool2"
  pooling_param {
    pool: MAX
    kernel_size: 3
    stride: 2
  }
}
layer {
  name: "conv3"
  type: "Convolution"
  bottom: "pool2"
  top: "conv3"
  param {
    lr_mult: 1
  }
  param {
    lr_mult: 2
  }
  convolution_param {
    num_output: 128
    pad: 2
    kernel_size: 5
    stride: 1
    weight_filler {
      type: "gaussian"
      std: 0.01
    }
    bias_filler {
      type: "constant"
    }
  }
}
layer {
  name: "relu3"
  type: "ReLU"
  bottom: "conv3"
  top: "conv3"
}
layer {
  name: "conv4"
  type: "Convolution"
  bottom: "conv3"
  top: "conv4"
  param {
    lr_mult: 1
  }
  param {
    lr_mult: 2
  }
  convolution_param {
    num_output: 128
    pad: 2
    kernel_size: 5
    stride: 1
    weight_filler {
      type: "gaussian"
      std: 0.01
    }
    bias_filler {
      type: "constant"
    }
  }
}
layer {
  name: "relu4"
  type: "ReLU"
  bottom: "conv4"
  top: "conv4"
}
layer {
  name: "conv5"
  type: "Convolution"
  bottom: "conv4"
  top: "conv5"
  param {
    lr_mult: 1
  }
  param {
    lr_mult: 2
  }
  convolution_param {
    num_output: 128
    pad: 2
    kernel_size: 5
    stride: 1
    weight_filler {
      type: "gaussian"
      std: 0.01
    }
    bias_filler {
      type: "constant"
    }
  }
}
layer {
  name: "relu5"
  type: "ReLU"
  bottom: "conv5"
  top: "conv5"
}
layer {
  name: "pool5"
  type: "Pooling"
  bottom: "conv5"
  top: "pool5"
  pooling_param {
    pool: AVE
    kernel_size: 3
    stride: 2
  }
}
layer {
  name: "ip1"
  type: "InnerProduct"
  bottom: "pool5"
  top: "ip1"
  param {
    lr_mult: 1
  }
  param {
    lr_mult: 2
  }
  inner_product_param {
    num_output: 1024
    weight_filler {
      type: "gaussian"
      std: 0.1
    }
    bias_filler {
      type: "constant"
    }
  }
}
layer {
  name: "ip2"
  type: "InnerProduct"
  bottom: "ip1"
  top: "ip2"
  param {
    lr_mult: 1
  }
  param {
    lr_mult: 2
  }
  inner_product_param {
    num_output: 512
    weight_filler {
      type: "gaussian"
      std: 0.1
    }
    bias_filler {
      type: "constant"
    }
  }
}
layer {
  name: "ip3"
  type: "InnerProduct"
  bottom: "ip2"
  top: "ip3"
  param {
    lr_mult: 1
  }
  param {
    lr_mult: 2
  }
  inner_product_param {
    num_output: 50
    weight_filler {
      type: "gaussian"
      std: 0.1
    }
    bias_filler {
      type: "constant"
    }
  }
}
layer {
  name: "accuracy"
  type: "Accuracy"
  bottom: "ip3"
  bottom: "label"
  top: "accuracy"
  include {
    phase: TEST
  }
}
layer {
  name: "loss"
  type: "SoftmaxWithLoss"
  bottom: "ip3"
  bottom: "label"
  top: "loss"
}
I0502 21:38:32.446938 13955 layer_factory.hpp:77] Creating layer intercept
I0502 21:38:32.446959 13955 net.cpp:94] Creating Layer intercept
I0502 21:38:32.446962 13955 net.cpp:409] intercept -> data
I0502 21:38:32.446969 13955 net.cpp:409] intercept -> label
I0502 21:38:32.446975 13955 hdf5_data_layer.cpp:79] Loading list of HDF5 filenames from: /home/purduethu/scratch/radon/d/deng106/CNNStatisticalModel/distributions/input/50_distributions_900_sample_size_test-distributions-path.txt
I0502 21:38:32.446997 13955 hdf5_data_layer.cpp:93] Number of HDF5 files: 1
I0502 21:38:32.810184 13955 net.cpp:144] Setting up intercept
I0502 21:38:32.810219 13955 net.cpp:151] Top shape: 20 1 30 30 (18000)
I0502 21:38:32.810225 13955 net.cpp:151] Top shape: 20 (20)
I0502 21:38:32.810227 13955 net.cpp:159] Memory required for data: 72080
I0502 21:38:32.810233 13955 layer_factory.hpp:77] Creating layer label_intercept_1_split
I0502 21:38:32.810255 13955 net.cpp:94] Creating Layer label_intercept_1_split
I0502 21:38:32.810259 13955 net.cpp:435] label_intercept_1_split <- label
I0502 21:38:32.810266 13955 net.cpp:409] label_intercept_1_split -> label_intercept_1_split_0
I0502 21:38:32.810274 13955 net.cpp:409] label_intercept_1_split -> label_intercept_1_split_1
I0502 21:38:32.810322 13955 net.cpp:144] Setting up label_intercept_1_split
I0502 21:38:32.810329 13955 net.cpp:151] Top shape: 20 (20)
I0502 21:38:32.810333 13955 net.cpp:151] Top shape: 20 (20)
I0502 21:38:32.810336 13955 net.cpp:159] Memory required for data: 72240
I0502 21:38:32.810339 13955 layer_factory.hpp:77] Creating layer conv1
I0502 21:38:32.810350 13955 net.cpp:94] Creating Layer conv1
I0502 21:38:32.810354 13955 net.cpp:435] conv1 <- data
I0502 21:38:32.810359 13955 net.cpp:409] conv1 -> conv1
I0502 21:38:32.811977 13955 net.cpp:144] Setting up conv1
I0502 21:38:32.811993 13955 net.cpp:151] Top shape: 20 64 30 30 (1152000)
I0502 21:38:32.811997 13955 net.cpp:159] Memory required for data: 4680240
I0502 21:38:32.812007 13955 layer_factory.hpp:77] Creating layer relu1
I0502 21:38:32.812014 13955 net.cpp:94] Creating Layer relu1
I0502 21:38:32.812018 13955 net.cpp:435] relu1 <- conv1
I0502 21:38:32.812022 13955 net.cpp:396] relu1 -> conv1 (in-place)
I0502 21:38:32.812029 13955 net.cpp:144] Setting up relu1
I0502 21:38:32.812034 13955 net.cpp:151] Top shape: 20 64 30 30 (1152000)
I0502 21:38:32.812037 13955 net.cpp:159] Memory required for data: 9288240
I0502 21:38:32.812041 13955 layer_factory.hpp:77] Creating layer conv2
I0502 21:38:32.812052 13955 net.cpp:94] Creating Layer conv2
I0502 21:38:32.812055 13955 net.cpp:435] conv2 <- conv1
I0502 21:38:32.812060 13955 net.cpp:409] conv2 -> conv2
I0502 21:38:32.818956 13955 net.cpp:144] Setting up conv2
I0502 21:38:32.818989 13955 net.cpp:151] Top shape: 20 64 30 30 (1152000)
I0502 21:38:32.818994 13955 net.cpp:159] Memory required for data: 13896240
I0502 21:38:32.819006 13955 layer_factory.hpp:77] Creating layer relu2
I0502 21:38:32.819017 13955 net.cpp:94] Creating Layer relu2
I0502 21:38:32.819022 13955 net.cpp:435] relu2 <- conv2
I0502 21:38:32.819028 13955 net.cpp:396] relu2 -> conv2 (in-place)
I0502 21:38:32.819038 13955 net.cpp:144] Setting up relu2
I0502 21:38:32.819043 13955 net.cpp:151] Top shape: 20 64 30 30 (1152000)
I0502 21:38:32.819046 13955 net.cpp:159] Memory required for data: 18504240
I0502 21:38:32.819049 13955 layer_factory.hpp:77] Creating layer pool2
I0502 21:38:32.819056 13955 net.cpp:94] Creating Layer pool2
I0502 21:38:32.819058 13955 net.cpp:435] pool2 <- conv2
I0502 21:38:32.819063 13955 net.cpp:409] pool2 -> pool2
I0502 21:38:32.819171 13955 net.cpp:144] Setting up pool2
I0502 21:38:32.819178 13955 net.cpp:151] Top shape: 20 64 15 15 (288000)
I0502 21:38:32.819182 13955 net.cpp:159] Memory required for data: 19656240
I0502 21:38:32.819185 13955 layer_factory.hpp:77] Creating layer conv3
I0502 21:38:32.819196 13955 net.cpp:94] Creating Layer conv3
I0502 21:38:32.819200 13955 net.cpp:435] conv3 <- pool2
I0502 21:38:32.819206 13955 net.cpp:409] conv3 -> conv3
I0502 21:38:32.827172 13955 net.cpp:144] Setting up conv3
I0502 21:38:32.827205 13955 net.cpp:151] Top shape: 20 128 15 15 (576000)
I0502 21:38:32.827209 13955 net.cpp:159] Memory required for data: 21960240
I0502 21:38:32.827224 13955 layer_factory.hpp:77] Creating layer relu3
I0502 21:38:32.827235 13955 net.cpp:94] Creating Layer relu3
I0502 21:38:32.827240 13955 net.cpp:435] relu3 <- conv3
I0502 21:38:32.827245 13955 net.cpp:396] relu3 -> conv3 (in-place)
I0502 21:38:32.827256 13955 net.cpp:144] Setting up relu3
I0502 21:38:32.827260 13955 net.cpp:151] Top shape: 20 128 15 15 (576000)
I0502 21:38:32.827263 13955 net.cpp:159] Memory required for data: 24264240
I0502 21:38:32.827266 13955 layer_factory.hpp:77] Creating layer conv4
I0502 21:38:32.827278 13955 net.cpp:94] Creating Layer conv4
I0502 21:38:32.827282 13955 net.cpp:435] conv4 <- conv3
I0502 21:38:32.827287 13955 net.cpp:409] conv4 -> conv4
I0502 21:38:32.843236 13955 net.cpp:144] Setting up conv4
I0502 21:38:32.843271 13955 net.cpp:151] Top shape: 20 128 15 15 (576000)
I0502 21:38:32.843276 13955 net.cpp:159] Memory required for data: 26568240
I0502 21:38:32.843288 13955 layer_factory.hpp:77] Creating layer relu4
I0502 21:38:32.843299 13955 net.cpp:94] Creating Layer relu4
I0502 21:38:32.843304 13955 net.cpp:435] relu4 <- conv4
I0502 21:38:32.843312 13955 net.cpp:396] relu4 -> conv4 (in-place)
I0502 21:38:32.843322 13955 net.cpp:144] Setting up relu4
I0502 21:38:32.843327 13955 net.cpp:151] Top shape: 20 128 15 15 (576000)
I0502 21:38:32.843329 13955 net.cpp:159] Memory required for data: 28872240
I0502 21:38:32.843333 13955 layer_factory.hpp:77] Creating layer conv5
I0502 21:38:32.843345 13955 net.cpp:94] Creating Layer conv5
I0502 21:38:32.843348 13955 net.cpp:435] conv5 <- conv4
I0502 21:38:32.843363 13955 net.cpp:409] conv5 -> conv5
I0502 21:38:32.858901 13955 net.cpp:144] Setting up conv5
I0502 21:38:32.858932 13955 net.cpp:151] Top shape: 20 128 15 15 (576000)
I0502 21:38:32.858937 13955 net.cpp:159] Memory required for data: 31176240
I0502 21:38:32.858952 13955 layer_factory.hpp:77] Creating layer relu5
I0502 21:38:32.858964 13955 net.cpp:94] Creating Layer relu5
I0502 21:38:32.858968 13955 net.cpp:435] relu5 <- conv5
I0502 21:38:32.858974 13955 net.cpp:396] relu5 -> conv5 (in-place)
I0502 21:38:32.858985 13955 net.cpp:144] Setting up relu5
I0502 21:38:32.858990 13955 net.cpp:151] Top shape: 20 128 15 15 (576000)
I0502 21:38:32.858994 13955 net.cpp:159] Memory required for data: 33480240
I0502 21:38:32.858996 13955 layer_factory.hpp:77] Creating layer pool5
I0502 21:38:32.859002 13955 net.cpp:94] Creating Layer pool5
I0502 21:38:32.859005 13955 net.cpp:435] pool5 <- conv5
I0502 21:38:32.859010 13955 net.cpp:409] pool5 -> pool5
I0502 21:38:32.859102 13955 net.cpp:144] Setting up pool5
I0502 21:38:32.859110 13955 net.cpp:151] Top shape: 20 128 7 7 (125440)
I0502 21:38:32.859113 13955 net.cpp:159] Memory required for data: 33982000
I0502 21:38:32.859117 13955 layer_factory.hpp:77] Creating layer ip1
I0502 21:38:32.859124 13955 net.cpp:94] Creating Layer ip1
I0502 21:38:32.859127 13955 net.cpp:435] ip1 <- pool5
I0502 21:38:32.859133 13955 net.cpp:409] ip1 -> ip1
I0502 21:38:33.016614 13955 net.cpp:144] Setting up ip1
I0502 21:38:33.016634 13955 net.cpp:151] Top shape: 20 1024 (20480)
I0502 21:38:33.016638 13955 net.cpp:159] Memory required for data: 34063920
I0502 21:38:33.016646 13955 layer_factory.hpp:77] Creating layer ip2
I0502 21:38:33.016655 13955 net.cpp:94] Creating Layer ip2
I0502 21:38:33.016660 13955 net.cpp:435] ip2 <- ip1
I0502 21:38:33.016665 13955 net.cpp:409] ip2 -> ip2
I0502 21:38:33.030227 13955 net.cpp:144] Setting up ip2
I0502 21:38:33.030251 13955 net.cpp:151] Top shape: 20 512 (10240)
I0502 21:38:33.030256 13955 net.cpp:159] Memory required for data: 34104880
I0502 21:38:33.030263 13955 layer_factory.hpp:77] Creating layer ip3
I0502 21:38:33.030275 13955 net.cpp:94] Creating Layer ip3
I0502 21:38:33.030279 13955 net.cpp:435] ip3 <- ip2
I0502 21:38:33.030287 13955 net.cpp:409] ip3 -> ip3
I0502 21:38:33.031050 13955 net.cpp:144] Setting up ip3
I0502 21:38:33.031059 13955 net.cpp:151] Top shape: 20 50 (1000)
I0502 21:38:33.031062 13955 net.cpp:159] Memory required for data: 34108880
I0502 21:38:33.031069 13955 layer_factory.hpp:77] Creating layer ip3_ip3_0_split
I0502 21:38:33.031075 13955 net.cpp:94] Creating Layer ip3_ip3_0_split
I0502 21:38:33.031077 13955 net.cpp:435] ip3_ip3_0_split <- ip3
I0502 21:38:33.031081 13955 net.cpp:409] ip3_ip3_0_split -> ip3_ip3_0_split_0
I0502 21:38:33.031088 13955 net.cpp:409] ip3_ip3_0_split -> ip3_ip3_0_split_1
I0502 21:38:33.031136 13955 net.cpp:144] Setting up ip3_ip3_0_split
I0502 21:38:33.031141 13955 net.cpp:151] Top shape: 20 50 (1000)
I0502 21:38:33.031146 13955 net.cpp:151] Top shape: 20 50 (1000)
I0502 21:38:33.031148 13955 net.cpp:159] Memory required for data: 34116880
I0502 21:38:33.031152 13955 layer_factory.hpp:77] Creating layer accuracy
I0502 21:38:33.031159 13955 net.cpp:94] Creating Layer accuracy
I0502 21:38:33.031162 13955 net.cpp:435] accuracy <- ip3_ip3_0_split_0
I0502 21:38:33.031167 13955 net.cpp:435] accuracy <- label_intercept_1_split_0
I0502 21:38:33.031170 13955 net.cpp:409] accuracy -> accuracy
…
