…
I0501 06:08:27.015384 31680 net.cpp:323] The NetState phase (0) differed from the phase (1) specified by a rule in layer intercept
I0501 06:08:27.015400 31680 net.cpp:323] The NetState phase (0) differed from the phase (1) specified by a rule in layer loss
I0501 06:08:27.015492 31680 net.cpp:52] Initializing net from parameters: 
state {
  phase: TRAIN
}
layer {
  name: "parameters"
  type: "HDF5Data"
  top: "data"
  top: "label"
  include {
    phase: TRAIN
  }
  hdf5_data_param {
    source: "/home/purduethu/scratch/radon/d/deng106/CNNStatisticalModel/distributions/input/50_distributions_400_sample_size_train-parameters-path.txt"
    batch_size: 20
  }
}
layer {
  name: "conv1"
  type: "Convolution"
  bottom: "data"
  top: "conv1"
  param {
    lr_mult: 1
  }
  param {
    lr_mult: 2
  }
  convolution_param {
    num_output: 64
    pad: 2
    kernel_size: 5
    stride: 1
    weight_filler {
      type: "gaussian"
      std: 0.0001
    }
    bias_filler {
      type: "constant"
    }
  }
}
layer {
  name: "relu1"
  type: "ReLU"
  bottom: "conv1"
  top: "conv1"
}
layer {
  name: "conv2"
  type: "Convolution"
  bottom: "conv1"
  top: "conv2"
  param {
    lr_mult: 1
  }
  param {
    lr_mult: 2
  }
  convolution_param {
    num_output: 64
    pad: 2
    kernel_size: 5
    stride: 1
    weight_filler {
      type: "gaussian"
      std: 0.01
    }
    bias_filler {
      type: "constant"
    }
  }
}
layer {
  name: "relu2"
  type: "ReLU"
  bottom: "conv2"
  top: "conv2"
}
layer {
  name: "pool2"
  type: "Pooling"
  bottom: "conv2"
  top: "pool2"
  pooling_param {
    pool: MAX
    kernel_size: 3
    stride: 2
  }
}
layer {
  name: "conv3"
  type: "Convolution"
  bottom: "pool2"
  top: "conv3"
  param {
    lr_mult: 1
  }
  param {
    lr_mult: 2
  }
  convolution_param {
    num_output: 128
    pad: 2
    kernel_size: 5
    stride: 1
    weight_filler {
      type: "gaussian"
      std: 0.01
    }
    bias_filler {
      type: "constant"
    }
  }
}
layer {
  name: "relu3"
  type: "ReLU"
  bottom: "conv3"
  top: "conv3"
}
layer {
  name: "conv4"
  type: "Convolution"
  bottom: "conv3"
  top: "conv4"
  param {
    lr_mult: 1
  }
  param {
    lr_mult: 2
  }
  convolution_param {
    num_output: 128
    pad: 2
    kernel_size: 5
    stride: 1
    weight_filler {
      type: "gaussian"
      std: 0.01
    }
    bias_filler {
      type: "constant"
    }
  }
}
layer {
  name: "relu4"
  type: "ReLU"
  bottom: "conv4"
  top: "conv4"
}
layer {
  name: "conv5"
  type: "Convolution"
  bottom: "conv4"
  top: "conv5"
  param {
    lr_mult: 1
  }
  param {
    lr_mult: 2
  }
  convolution_param {
    num_output: 128
    pad: 2
    kernel_size: 5
    stride: 1
    weight_filler {
      type: "gaussian"
      std: 0.01
    }
    bias_filler {
      type: "constant"
    }
  }
}
layer {
  name: "relu5"
  type: "ReLU"
  bottom: "conv5"
  top: "conv5"
}
layer {
  name: "pool5"
  type: "Pooling"
  bottom: "conv5"
  top: "pool5"
  pooling_param {
    pool: AVE
    kernel_size: 3
    stride: 2
  }
}
layer {
  name: "ip1"
  type: "InnerProduct"
  bottom: "pool5"
  top: "ip1"
  param {
    lr_mult: 1
  }
  param {
    lr_mult: 2
  }
  inner_product_param {
    num_output: 1024
    weight_filler {
      type: "gaussian"
      std: 0.1
    }
    bias_filler {
      type: "constant"
    }
  }
}
layer {
  name: "ip2"
  type: "InnerProduct"
  bottom: "ip1"
  top: "ip2"
  param {
    lr_mult: 1
  }
  param {
    lr_mult: 2
  }
  inner_product_param {
    num_output: 512
    weight_filler {
      type: "gaussian"
      std: 0.1
    }
    bias_filler {
      type: "constant"
    }
  }
}
layer {
  name: "ip3"
  type: "InnerProduct"
  bottom: "ip2"
  top: "ip3"
  param {
    lr_mult: 1
  }
  param {
    lr_mult: 2
  }
  inner_product_param {
    num_output: 1
    weight_filler {
      type: "gaussian"
      std: 0.1
    }
    bias_filler {
      type: "constant"
    }
  }
}
layer {
  name: "loss"
  type: "HuberLoss"
  bottom: "ip3"
  bottom: "label"
  top: "loss"
  include {
    phase: TRAIN
  }
}
I0501 06:08:27.015568 31680 layer_factory.hpp:77] Creating layer parameters
I0501 06:08:27.015581 31680 net.cpp:94] Creating Layer parameters
I0501 06:08:27.015588 31680 net.cpp:409] parameters -> data
I0501 06:08:27.015606 31680 net.cpp:409] parameters -> label
I0501 06:08:27.015616 31680 hdf5_data_layer.cpp:79] Loading list of HDF5 filenames from: /home/purduethu/scratch/radon/d/deng106/CNNStatisticalModel/distributions/input/50_distributions_400_sample_size_train-parameters-path.txt
I0501 06:08:27.015638 31680 hdf5_data_layer.cpp:93] Number of HDF5 files: 1
I0501 06:08:27.016212 31680 hdf5.cpp:32] Datatype class: H5T_FLOAT
I0501 06:08:27.659111 31680 net.cpp:144] Setting up parameters
I0501 06:08:27.659143 31680 net.cpp:151] Top shape: 20 1 20 20 (8000)
I0501 06:08:27.659149 31680 net.cpp:151] Top shape: 20 (20)
I0501 06:08:27.659152 31680 net.cpp:159] Memory required for data: 32080
I0501 06:08:27.659160 31680 layer_factory.hpp:77] Creating layer conv1
I0501 06:08:27.659178 31680 net.cpp:94] Creating Layer conv1
I0501 06:08:27.659183 31680 net.cpp:435] conv1 <- data
I0501 06:08:27.659194 31680 net.cpp:409] conv1 -> conv1
I0501 06:08:27.663950 31680 net.cpp:144] Setting up conv1
I0501 06:08:27.663965 31680 net.cpp:151] Top shape: 20 64 20 20 (512000)
I0501 06:08:27.663969 31680 net.cpp:159] Memory required for data: 2080080
I0501 06:08:27.663980 31680 layer_factory.hpp:77] Creating layer relu1
I0501 06:08:27.663988 31680 net.cpp:94] Creating Layer relu1
I0501 06:08:27.663992 31680 net.cpp:435] relu1 <- conv1
I0501 06:08:27.663996 31680 net.cpp:396] relu1 -> conv1 (in-place)
I0501 06:08:27.664007 31680 net.cpp:144] Setting up relu1
I0501 06:08:27.664012 31680 net.cpp:151] Top shape: 20 64 20 20 (512000)
I0501 06:08:27.664016 31680 net.cpp:159] Memory required for data: 4128080
I0501 06:08:27.664019 31680 layer_factory.hpp:77] Creating layer conv2
I0501 06:08:27.664026 31680 net.cpp:94] Creating Layer conv2
I0501 06:08:27.664031 31680 net.cpp:435] conv2 <- conv1
I0501 06:08:27.664036 31680 net.cpp:409] conv2 -> conv2
I0501 06:08:27.674091 31680 net.cpp:144] Setting up conv2
I0501 06:08:27.674106 31680 net.cpp:151] Top shape: 20 64 20 20 (512000)
I0501 06:08:27.674111 31680 net.cpp:159] Memory required for data: 6176080
I0501 06:08:27.674119 31680 layer_factory.hpp:77] Creating layer relu2
I0501 06:08:27.674126 31680 net.cpp:94] Creating Layer relu2
I0501 06:08:27.674129 31680 net.cpp:435] relu2 <- conv2
I0501 06:08:27.674134 31680 net.cpp:396] relu2 -> conv2 (in-place)
I0501 06:08:27.674141 31680 net.cpp:144] Setting up relu2
I0501 06:08:27.674146 31680 net.cpp:151] Top shape: 20 64 20 20 (512000)
I0501 06:08:27.674149 31680 net.cpp:159] Memory required for data: 8224080
I0501 06:08:27.674151 31680 layer_factory.hpp:77] Creating layer pool2
I0501 06:08:27.674160 31680 net.cpp:94] Creating Layer pool2
I0501 06:08:27.674168 31680 net.cpp:435] pool2 <- conv2
I0501 06:08:27.674173 31680 net.cpp:409] pool2 -> pool2
I0501 06:08:27.674217 31680 net.cpp:144] Setting up pool2
I0501 06:08:27.674226 31680 net.cpp:151] Top shape: 20 64 10 10 (128000)
I0501 06:08:27.674228 31680 net.cpp:159] Memory required for data: 8736080
I0501 06:08:27.674232 31680 layer_factory.hpp:77] Creating layer conv3
I0501 06:08:27.674239 31680 net.cpp:94] Creating Layer conv3
I0501 06:08:27.674242 31680 net.cpp:435] conv3 <- pool2
I0501 06:08:27.674247 31680 net.cpp:409] conv3 -> conv3
I0501 06:08:27.683413 31680 net.cpp:144] Setting up conv3
I0501 06:08:27.683429 31680 net.cpp:151] Top shape: 20 128 10 10 (256000)
I0501 06:08:27.683434 31680 net.cpp:159] Memory required for data: 9760080
I0501 06:08:27.683441 31680 layer_factory.hpp:77] Creating layer relu3
I0501 06:08:27.683447 31680 net.cpp:94] Creating Layer relu3
I0501 06:08:27.683451 31680 net.cpp:435] relu3 <- conv3
I0501 06:08:27.683455 31680 net.cpp:396] relu3 -> conv3 (in-place)
I0501 06:08:27.683464 31680 net.cpp:144] Setting up relu3
I0501 06:08:27.683467 31680 net.cpp:151] Top shape: 20 128 10 10 (256000)
I0501 06:08:27.683470 31680 net.cpp:159] Memory required for data: 10784080
I0501 06:08:27.683473 31680 layer_factory.hpp:77] Creating layer conv4
I0501 06:08:27.683482 31680 net.cpp:94] Creating Layer conv4
I0501 06:08:27.683486 31680 net.cpp:435] conv4 <- conv3
I0501 06:08:27.683491 31680 net.cpp:409] conv4 -> conv4
I0501 06:08:27.700587 31680 net.cpp:144] Setting up conv4
I0501 06:08:27.700603 31680 net.cpp:151] Top shape: 20 128 10 10 (256000)
I0501 06:08:27.700608 31680 net.cpp:159] Memory required for data: 11808080
I0501 06:08:27.700613 31680 layer_factory.hpp:77] Creating layer relu4
I0501 06:08:27.700619 31680 net.cpp:94] Creating Layer relu4
I0501 06:08:27.700623 31680 net.cpp:435] relu4 <- conv4
I0501 06:08:27.700628 31680 net.cpp:396] relu4 -> conv4 (in-place)
I0501 06:08:27.700635 31680 net.cpp:144] Setting up relu4
I0501 06:08:27.700639 31680 net.cpp:151] Top shape: 20 128 10 10 (256000)
I0501 06:08:27.700642 31680 net.cpp:159] Memory required for data: 12832080
I0501 06:08:27.700645 31680 layer_factory.hpp:77] Creating layer conv5
I0501 06:08:27.700654 31680 net.cpp:94] Creating Layer conv5
I0501 06:08:27.700657 31680 net.cpp:435] conv5 <- conv4
I0501 06:08:27.700661 31680 net.cpp:409] conv5 -> conv5
I0501 06:08:27.717066 31680 net.cpp:144] Setting up conv5
I0501 06:08:27.717080 31680 net.cpp:151] Top shape: 20 128 10 10 (256000)
I0501 06:08:27.717085 31680 net.cpp:159] Memory required for data: 13856080
I0501 06:08:27.717094 31680 layer_factory.hpp:77] Creating layer relu5
I0501 06:08:27.717100 31680 net.cpp:94] Creating Layer relu5
I0501 06:08:27.717103 31680 net.cpp:435] relu5 <- conv5
I0501 06:08:27.717108 31680 net.cpp:396] relu5 -> conv5 (in-place)
I0501 06:08:27.717115 31680 net.cpp:144] Setting up relu5
I0501 06:08:27.717120 31680 net.cpp:151] Top shape: 20 128 10 10 (256000)
I0501 06:08:27.717123 31680 net.cpp:159] Memory required for data: 14880080
I0501 06:08:27.717126 31680 layer_factory.hpp:77] Creating layer pool5
I0501 06:08:27.717131 31680 net.cpp:94] Creating Layer pool5
I0501 06:08:27.717134 31680 net.cpp:435] pool5 <- conv5
I0501 06:08:27.717139 31680 net.cpp:409] pool5 -> pool5
I0501 06:08:27.717175 31680 net.cpp:144] Setting up pool5
I0501 06:08:27.717181 31680 net.cpp:151] Top shape: 20 128 5 5 (64000)
I0501 06:08:27.717185 31680 net.cpp:159] Memory required for data: 15136080
I0501 06:08:27.717187 31680 layer_factory.hpp:77] Creating layer ip1
I0501 06:08:27.717197 31680 net.cpp:94] Creating Layer ip1
I0501 06:08:27.717200 31680 net.cpp:435] ip1 <- pool5
I0501 06:08:27.717206 31680 net.cpp:409] ip1 -> ip1
I0501 06:08:27.795971 31680 net.cpp:144] Setting up ip1
I0501 06:08:27.795991 31680 net.cpp:151] Top shape: 20 1024 (20480)
I0501 06:08:27.795995 31680 net.cpp:159] Memory required for data: 15218000
I0501 06:08:27.796003 31680 layer_factory.hpp:77] Creating layer ip2
I0501 06:08:27.796015 31680 net.cpp:94] Creating Layer ip2
I0501 06:08:27.796025 31680 net.cpp:435] ip2 <- ip1
I0501 06:08:27.796032 31680 net.cpp:409] ip2 -> ip2
I0501 06:08:27.808959 31680 net.cpp:144] Setting up ip2
I0501 06:08:27.808971 31680 net.cpp:151] Top shape: 20 512 (10240)
I0501 06:08:27.808975 31680 net.cpp:159] Memory required for data: 15258960
I0501 06:08:27.808980 31680 layer_factory.hpp:77] Creating layer ip3
I0501 06:08:27.808987 31680 net.cpp:94] Creating Layer ip3
I0501 06:08:27.808991 31680 net.cpp:435] ip3 <- ip2
I0501 06:08:27.808996 31680 net.cpp:409] ip3 -> ip3
I0501 06:08:27.809072 31680 net.cpp:144] Setting up ip3
I0501 06:08:27.809087 31680 net.cpp:151] Top shape: 20 1 (20)
I0501 06:08:27.809090 31680 net.cpp:159] Memory required for data: 15259040
I0501 06:08:27.809095 31680 layer_factory.hpp:77] Creating layer loss
I0501 06:08:27.809109 31680 net.cpp:94] Creating Layer loss
I0501 06:08:27.809113 31680 net.cpp:435] loss <- ip3
I0501 06:08:27.809116 31680 net.cpp:435] loss <- label
I0501 06:08:27.809123 31680 net.cpp:409] loss -> loss
I0501 06:08:27.809159 31680 net.cpp:144] Setting up loss
…
