…
I0505 08:57:29.074335  5415 net.cpp:323] The NetState phase (0) differed from the phase (1) specified by a rule in layer intercept
I0505 08:57:29.074350  5415 net.cpp:323] The NetState phase (0) differed from the phase (1) specified by a rule in layer accuracy
I0505 08:57:29.074434  5415 net.cpp:52] Initializing net from parameters: 
state {
  phase: TRAIN
}
layer {
  name: "parameters"
  type: "HDF5Data"
  top: "data"
  top: "label"
  include {
    phase: TRAIN
  }
  hdf5_data_param {
    source: "/home/purduethu/scratch/radon/d/deng106/CNNStatisticalModel/distributions/input/20_distributions_400_sample_size_train-distributions-path.txt"
    batch_size: 20
  }
}
layer {
  name: "conv1"
  type: "Convolution"
  bottom: "data"
  top: "conv1"
  param {
    lr_mult: 1
  }
  param {
    lr_mult: 2
  }
  convolution_param {
    num_output: 64
    pad: 2
    kernel_size: 5
    stride: 1
    weight_filler {
      type: "gaussian"
      std: 0.0001
    }
    bias_filler {
      type: "constant"
    }
  }
}
layer {
  name: "relu1"
  type: "ReLU"
  bottom: "conv1"
  top: "conv1"
}
layer {
  name: "pool1"
  type: "Pooling"
  bottom: "conv1"
  top: "pool1"
  pooling_param {
    pool: MAX
    kernel_size: 3
    stride: 2
  }
}
layer {
  name: "conv2"
  type: "Convolution"
  bottom: "pool1"
  top: "conv2"
  param {
    lr_mult: 1
  }
  param {
    lr_mult: 2
  }
  convolution_param {
    num_output: 128
    pad: 2
    kernel_size: 5
    stride: 1
    weight_filler {
      type: "gaussian"
      std: 0.01
    }
    bias_filler {
      type: "constant"
    }
  }
}
layer {
  name: "relu2"
  type: "ReLU"
  bottom: "conv2"
  top: "conv2"
}
layer {
  name: "conv3"
  type: "Convolution"
  bottom: "conv2"
  top: "conv3"
  param {
    lr_mult: 1
  }
  param {
    lr_mult: 2
  }
  convolution_param {
    num_output: 128
    pad: 2
    kernel_size: 5
    stride: 1
    weight_filler {
      type: "gaussian"
      std: 0.01
    }
    bias_filler {
      type: "constant"
    }
  }
}
layer {
  name: "relu3"
  type: "ReLU"
  bottom: "conv3"
  top: "conv3"
}
layer {
  name: "pool3"
  type: "Pooling"
  bottom: "conv3"
  top: "pool3"
  pooling_param {
    pool: AVE
    kernel_size: 3
    stride: 2
  }
}
layer {
  name: "ip1"
  type: "InnerProduct"
  bottom: "pool3"
  top: "ip1"
  param {
    lr_mult: 1
  }
  param {
    lr_mult: 2
  }
  inner_product_param {
    num_output: 512
    weight_filler {
      type: "gaussian"
      std: 0.1
    }
    bias_filler {
      type: "constant"
    }
  }
}
layer {
  name: "ip2"
  type: "InnerProduct"
  bottom: "ip1"
  top: "ip2"
  param {
    lr_mult: 1
  }
  param {
    lr_mult: 2
  }
  inner_product_param {
    num_output: 256
    weight_filler {
      type: "gaussian"
      std: 0.1
    }
    bias_filler {
      type: "constant"
    }
  }
}
layer {
  name: "ip3"
  type: "InnerProduct"
  bottom: "ip2"
  top: "ip3"
  param {
    lr_mult: 1
  }
  param {
    lr_mult: 2
  }
  inner_product_param {
    num_output: 50
    weight_filler {
      type: "gaussian"
      std: 0.1
    }
    bias_filler {
      type: "constant"
    }
  }
}
layer {
  name: "loss"
  type: "SoftmaxWithLoss"
  bottom: "ip3"
  bottom: "label"
  top: "loss"
}
I0505 08:57:29.074498  5415 layer_factory.hpp:77] Creating layer parameters
I0505 08:57:29.074514  5415 net.cpp:94] Creating Layer parameters
I0505 08:57:29.074527  5415 net.cpp:409] parameters -> data
I0505 08:57:29.074548  5415 net.cpp:409] parameters -> label
I0505 08:57:29.074558  5415 hdf5_data_layer.cpp:79] Loading list of HDF5 filenames from: /home/purduethu/scratch/radon/d/deng106/CNNStatisticalModel/distributions/input/20_distributions_400_sample_size_train-distributions-path.txt
I0505 08:57:29.074582  5415 hdf5_data_layer.cpp:93] Number of HDF5 files: 1
I0505 08:57:29.075170  5415 hdf5.cpp:32] Datatype class: H5T_FLOAT
I0505 08:57:29.340798  5415 hdf5.cpp:35] Datatype class: H5T_INTEGER
I0505 08:57:29.342523  5415 net.cpp:144] Setting up parameters
I0505 08:57:29.342542  5415 net.cpp:151] Top shape: 20 1 20 20 (8000)
I0505 08:57:29.342548  5415 net.cpp:151] Top shape: 20 (20)
I0505 08:57:29.342552  5415 net.cpp:159] Memory required for data: 32080
I0505 08:57:29.342559  5415 layer_factory.hpp:77] Creating layer conv1
I0505 08:57:29.342584  5415 net.cpp:94] Creating Layer conv1
I0505 08:57:29.342591  5415 net.cpp:435] conv1 <- data
I0505 08:57:29.342602  5415 net.cpp:409] conv1 -> conv1
I0505 08:57:29.347488  5415 net.cpp:144] Setting up conv1
I0505 08:57:29.347503  5415 net.cpp:151] Top shape: 20 64 20 20 (512000)
I0505 08:57:29.347508  5415 net.cpp:159] Memory required for data: 2080080
I0505 08:57:29.347519  5415 layer_factory.hpp:77] Creating layer relu1
I0505 08:57:29.347527  5415 net.cpp:94] Creating Layer relu1
I0505 08:57:29.347532  5415 net.cpp:435] relu1 <- conv1
I0505 08:57:29.347537  5415 net.cpp:396] relu1 -> conv1 (in-place)
I0505 08:57:29.347551  5415 net.cpp:144] Setting up relu1
I0505 08:57:29.347558  5415 net.cpp:151] Top shape: 20 64 20 20 (512000)
I0505 08:57:29.347561  5415 net.cpp:159] Memory required for data: 4128080
I0505 08:57:29.347564  5415 layer_factory.hpp:77] Creating layer pool1
I0505 08:57:29.347571  5415 net.cpp:94] Creating Layer pool1
I0505 08:57:29.347575  5415 net.cpp:435] pool1 <- conv1
I0505 08:57:29.347580  5415 net.cpp:409] pool1 -> pool1
I0505 08:57:29.347620  5415 net.cpp:144] Setting up pool1
I0505 08:57:29.347627  5415 net.cpp:151] Top shape: 20 64 10 10 (128000)
I0505 08:57:29.347631  5415 net.cpp:159] Memory required for data: 4640080
I0505 08:57:29.347635  5415 layer_factory.hpp:77] Creating layer conv2
I0505 08:57:29.347643  5415 net.cpp:94] Creating Layer conv2
I0505 08:57:29.347647  5415 net.cpp:435] conv2 <- pool1
I0505 08:57:29.347652  5415 net.cpp:409] conv2 -> conv2
I0505 08:57:29.357311  5415 net.cpp:144] Setting up conv2
I0505 08:57:29.357326  5415 net.cpp:151] Top shape: 20 128 10 10 (256000)
I0505 08:57:29.357331  5415 net.cpp:159] Memory required for data: 5664080
I0505 08:57:29.357338  5415 layer_factory.hpp:77] Creating layer relu2
I0505 08:57:29.357344  5415 net.cpp:94] Creating Layer relu2
I0505 08:57:29.357348  5415 net.cpp:435] relu2 <- conv2
I0505 08:57:29.357353  5415 net.cpp:396] relu2 -> conv2 (in-place)
I0505 08:57:29.357360  5415 net.cpp:144] Setting up relu2
I0505 08:57:29.357365  5415 net.cpp:151] Top shape: 20 128 10 10 (256000)
I0505 08:57:29.357369  5415 net.cpp:159] Memory required for data: 6688080
I0505 08:57:29.357372  5415 layer_factory.hpp:77] Creating layer conv3
I0505 08:57:29.357380  5415 net.cpp:94] Creating Layer conv3
I0505 08:57:29.357384  5415 net.cpp:435] conv3 <- conv2
I0505 08:57:29.357389  5415 net.cpp:409] conv3 -> conv3
I0505 08:57:29.375152  5415 net.cpp:144] Setting up conv3
I0505 08:57:29.375167  5415 net.cpp:151] Top shape: 20 128 10 10 (256000)
I0505 08:57:29.375171  5415 net.cpp:159] Memory required for data: 7712080
I0505 08:57:29.375186  5415 layer_factory.hpp:77] Creating layer relu3
I0505 08:57:29.375193  5415 net.cpp:94] Creating Layer relu3
I0505 08:57:29.375197  5415 net.cpp:435] relu3 <- conv3
I0505 08:57:29.375201  5415 net.cpp:396] relu3 -> conv3 (in-place)
I0505 08:57:29.375210  5415 net.cpp:144] Setting up relu3
I0505 08:57:29.375214  5415 net.cpp:151] Top shape: 20 128 10 10 (256000)
I0505 08:57:29.375217  5415 net.cpp:159] Memory required for data: 8736080
I0505 08:57:29.375221  5415 layer_factory.hpp:77] Creating layer pool3
I0505 08:57:29.375226  5415 net.cpp:94] Creating Layer pool3
I0505 08:57:29.375236  5415 net.cpp:435] pool3 <- conv3
I0505 08:57:29.375241  5415 net.cpp:409] pool3 -> pool3
I0505 08:57:29.375273  5415 net.cpp:144] Setting up pool3
I0505 08:57:29.375282  5415 net.cpp:151] Top shape: 20 128 5 5 (64000)
I0505 08:57:29.375285  5415 net.cpp:159] Memory required for data: 8992080
I0505 08:57:29.375288  5415 layer_factory.hpp:77] Creating layer ip1
I0505 08:57:29.375298  5415 net.cpp:94] Creating Layer ip1
I0505 08:57:29.375303  5415 net.cpp:435] ip1 <- pool3
I0505 08:57:29.375308  5415 net.cpp:409] ip1 -> ip1
I0505 08:57:29.416715  5415 net.cpp:144] Setting up ip1
I0505 08:57:29.416733  5415 net.cpp:151] Top shape: 20 512 (10240)
I0505 08:57:29.416736  5415 net.cpp:159] Memory required for data: 9033040
I0505 08:57:29.416743  5415 layer_factory.hpp:77] Creating layer ip2
I0505 08:57:29.416750  5415 net.cpp:94] Creating Layer ip2
I0505 08:57:29.416755  5415 net.cpp:435] ip2 <- ip1
I0505 08:57:29.416760  5415 net.cpp:409] ip2 -> ip2
I0505 08:57:29.420042  5415 net.cpp:144] Setting up ip2
I0505 08:57:29.420052  5415 net.cpp:151] Top shape: 20 256 (5120)
I0505 08:57:29.420055  5415 net.cpp:159] Memory required for data: 9053520
I0505 08:57:29.420063  5415 layer_factory.hpp:77] Creating layer ip3
I0505 08:57:29.420069  5415 net.cpp:94] Creating Layer ip3
I0505 08:57:29.420073  5415 net.cpp:435] ip3 <- ip2
I0505 08:57:29.420078  5415 net.cpp:409] ip3 -> ip3
I0505 08:57:29.425110  5415 net.cpp:144] Setting up ip3
I0505 08:57:29.425124  5415 net.cpp:151] Top shape: 20 50 (1000)
I0505 08:57:29.425128  5415 net.cpp:159] Memory required for data: 9057520
I0505 08:57:29.425134  5415 layer_factory.hpp:77] Creating layer loss
I0505 08:57:29.425142  5415 net.cpp:94] Creating Layer loss
I0505 08:57:29.425145  5415 net.cpp:435] loss <- ip3
I0505 08:57:29.425149  5415 net.cpp:435] loss <- label
I0505 08:57:29.425155  5415 net.cpp:409] loss -> loss
I0505 08:57:29.425170  5415 layer_factory.hpp:77] Creating layer loss
…
I0505 08:57:29.425604  5415 solver.cpp:181] Creating test net (#0) specified by net file: ./protocol/dis_20_400_dimension.protocol_distribution
I0505 08:57:29.425631  5415 net.cpp:323] The NetState phase (1) differed from the phase (0) specified by a rule in layer parameters
I0505 08:57:29.425724  5415 net.cpp:52] Initializing net from parameters: 
state {
  phase: TEST
}
layer {
  name: "intercept"
  type: "HDF5Data"
  top: "data"
  top: "label"
  include {
    phase: TEST
  }
  hdf5_data_param {
    source: "/home/purduethu/scratch/radon/d/deng106/CNNStatisticalModel/distributions/input/20_distributions_400_sample_size_test-distributions-path.txt"
    batch_size: 20
  }
}
layer {
  name: "conv1"
  type: "Convolution"
  bottom: "data"
  top: "conv1"
  param {
    lr_mult: 1
  }
  param {
    lr_mult: 2
  }
  convolution_param {
    num_output: 64
    pad: 2
    kernel_size: 5
    stride: 1
    weight_filler {
      type: "gaussian"
      std: 0.0001
    }
    bias_filler {
      type: "constant"
    }
  }
}
layer {
  name: "relu1"
  type: "ReLU"
  bottom: "conv1"
  top: "conv1"
}
layer {
  name: "pool1"
  type: "Pooling"
  bottom: "conv1"
  top: "pool1"
  pooling_param {
    pool: MAX
    kernel_size: 3
    stride: 2
  }
}
layer {
  name: "conv2"
  type: "Convolution"
  bottom: "pool1"
  top: "conv2"
  param {
    lr_mult: 1
  }
  param {
    lr_mult: 2
  }
  convolution_param {
    num_output: 128
    pad: 2
    kernel_size: 5
    stride: 1
    weight_filler {
      type: "gaussian"
      std: 0.01
    }
    bias_filler {
      type: "constant"
    }
  }
}
layer {
  name: "relu2"
  type: "ReLU"
  bottom: "conv2"
  top: "conv2"
}
layer {
  name: "conv3"
  type: "Convolution"
  bottom: "conv2"
  top: "conv3"
  param {
    lr_mult: 1
  }
  param {
    lr_mult: 2
  }
  convolution_param {
    num_output: 128
    pad: 2
    kernel_size: 5
    stride: 1
    weight_filler {
      type: "gaussian"
      std: 0.01
    }
    bias_filler {
      type: "constant"
    }
  }
}
layer {
  name: "relu3"
  type: "ReLU"
  bottom: "conv3"
  top: "conv3"
}
layer {
  name: "pool3"
  type: "Pooling"
  bottom: "conv3"
  top: "pool3"
  pooling_param {
    pool: AVE
    kernel_size: 3
    stride: 2
  }
}
layer {
  name: "ip1"
  type: "InnerProduct"
  bottom: "pool3"
  top: "ip1"
  param {
    lr_mult: 1
  }
  param {
    lr_mult: 2
  }
  inner_product_param {
    num_output: 512
    weight_filler {
      type: "gaussian"
      std: 0.1
    }
    bias_filler {
      type: "constant"
    }
  }
}
layer {
  name: "ip2"
  type: "InnerProduct"
  bottom: "ip1"
  top: "ip2"
  param {
    lr_mult: 1
  }
  param {
    lr_mult: 2
  }
  inner_product_param {
    num_output: 256
    weight_filler {
      type: "gaussian"
      std: 0.1
    }
    bias_filler {
      type: "constant"
    }
  }
}
layer {
  name: "ip3"
  type: "InnerProduct"
  bottom: "ip2"
  top: "ip3"
  param {
    lr_mult: 1
  }
  param {
    lr_mult: 2
  }
  inner_product_param {
    num_output: 50
    weight_filler {
      type: "gaussian"
      std: 0.1
    }
    bias_filler {
      type: "constant"
    }
  }
}
layer {
  name: "accuracy"
  type: "Accuracy"
  bottom: "ip3"
  bottom: "label"
  top: "accuracy"
  include {
    phase: TEST
  }
}
layer {
  name: "loss"
  type: "SoftmaxWithLoss"
  bottom: "ip3"
  bottom: "label"
  top: "loss"
}
I0505 08:57:29.425788  5415 layer_factory.hpp:77] Creating layer intercept
I0505 08:57:29.425797  5415 net.cpp:94] Creating Layer intercept
I0505 08:57:29.425802  5415 net.cpp:409] intercept -> data
I0505 08:57:29.425809  5415 net.cpp:409] intercept -> label
I0505 08:57:29.425817  5415 hdf5_data_layer.cpp:79] Loading list of HDF5 filenames from: /home/purduethu/scratch/radon/d/deng106/CNNStatisticalModel/distributions/input/20_distributions_400_sample_size_test-distributions-path.txt
I0505 08:57:29.425837  5415 hdf5_data_layer.cpp:93] Number of HDF5 files: 1
I0505 08:57:29.491453  5415 net.cpp:144] Setting up intercept
I0505 08:57:29.491484  5415 net.cpp:151] Top shape: 20 1 20 20 (8000)
I0505 08:57:29.491490  5415 net.cpp:151] Top shape: 20 (20)
I0505 08:57:29.491494  5415 net.cpp:159] Memory required for data: 32080
I0505 08:57:29.491500  5415 layer_factory.hpp:77] Creating layer label_intercept_1_split
I0505 08:57:29.491523  5415 net.cpp:94] Creating Layer label_intercept_1_split
I0505 08:57:29.491529  5415 net.cpp:435] label_intercept_1_split <- label
I0505 08:57:29.491535  5415 net.cpp:409] label_intercept_1_split -> label_intercept_1_split_0
I0505 08:57:29.491544  5415 net.cpp:409] label_intercept_1_split -> label_intercept_1_split_1
I0505 08:57:29.491571  5415 net.cpp:144] Setting up label_intercept_1_split
I0505 08:57:29.491578  5415 net.cpp:151] Top shape: 20 (20)
I0505 08:57:29.491582  5415 net.cpp:151] Top shape: 20 (20)
I0505 08:57:29.491585  5415 net.cpp:159] Memory required for data: 32240
I0505 08:57:29.491596  5415 layer_factory.hpp:77] Creating layer conv1
I0505 08:57:29.491608  5415 net.cpp:94] Creating Layer conv1
I0505 08:57:29.491611  5415 net.cpp:435] conv1 <- data
I0505 08:57:29.491616  5415 net.cpp:409] conv1 -> conv1
I0505 08:57:29.492321  5415 net.cpp:144] Setting up conv1
I0505 08:57:29.492336  5415 net.cpp:151] Top shape: 20 64 20 20 (512000)
I0505 08:57:29.492339  5415 net.cpp:159] Memory required for data: 2080240
I0505 08:57:29.492349  5415 layer_factory.hpp:77] Creating layer relu1
I0505 08:57:29.492357  5415 net.cpp:94] Creating Layer relu1
I0505 08:57:29.492359  5415 net.cpp:435] relu1 <- conv1
I0505 08:57:29.492364  5415 net.cpp:396] relu1 -> conv1 (in-place)
I0505 08:57:29.492372  5415 net.cpp:144] Setting up relu1
I0505 08:57:29.492377  5415 net.cpp:151] Top shape: 20 64 20 20 (512000)
I0505 08:57:29.492379  5415 net.cpp:159] Memory required for data: 4128240
I0505 08:57:29.492383  5415 layer_factory.hpp:77] Creating layer pool1
I0505 08:57:29.492389  5415 net.cpp:94] Creating Layer pool1
I0505 08:57:29.492393  5415 net.cpp:435] pool1 <- conv1
I0505 08:57:29.492398  5415 net.cpp:409] pool1 -> pool1
I0505 08:57:29.492430  5415 net.cpp:144] Setting up pool1
I0505 08:57:29.492436  5415 net.cpp:151] Top shape: 20 64 10 10 (128000)
I0505 08:57:29.492440  5415 net.cpp:159] Memory required for data: 4640240
I0505 08:57:29.492444  5415 layer_factory.hpp:77] Creating layer conv2
I0505 08:57:29.492450  5415 net.cpp:94] Creating Layer conv2
I0505 08:57:29.492455  5415 net.cpp:435] conv2 <- pool1
I0505 08:57:29.492460  5415 net.cpp:409] conv2 -> conv2
I0505 08:57:29.499785  5415 net.cpp:144] Setting up conv2
I0505 08:57:29.499799  5415 net.cpp:151] Top shape: 20 128 10 10 (256000)
I0505 08:57:29.499804  5415 net.cpp:159] Memory required for data: 5664240
I0505 08:57:29.499812  5415 layer_factory.hpp:77] Creating layer relu2
I0505 08:57:29.499819  5415 net.cpp:94] Creating Layer relu2
I0505 08:57:29.499822  5415 net.cpp:435] relu2 <- conv2
I0505 08:57:29.499827  5415 net.cpp:396] relu2 -> conv2 (in-place)
I0505 08:57:29.499835  5415 net.cpp:144] Setting up relu2
I0505 08:57:29.499840  5415 net.cpp:151] Top shape: 20 128 10 10 (256000)
I0505 08:57:29.499842  5415 net.cpp:159] Memory required for data: 6688240
I0505 08:57:29.499845  5415 layer_factory.hpp:77] Creating layer conv3
I0505 08:57:29.499853  5415 net.cpp:94] Creating Layer conv3
I0505 08:57:29.499856  5415 net.cpp:435] conv3 <- conv2
I0505 08:57:29.499861  5415 net.cpp:409] conv3 -> conv3
I0505 08:57:29.513561  5415 net.cpp:144] Setting up conv3
I0505 08:57:29.513576  5415 net.cpp:151] Top shape: 20 128 10 10 (256000)
I0505 08:57:29.513581  5415 net.cpp:159] Memory required for data: 7712240
I0505 08:57:29.513589  5415 layer_factory.hpp:77] Creating layer relu3
I0505 08:57:29.513597  5415 net.cpp:94] Creating Layer relu3
I0505 08:57:29.513600  5415 net.cpp:435] relu3 <- conv3
I0505 08:57:29.513604  5415 net.cpp:396] relu3 -> conv3 (in-place)
I0505 08:57:29.513612  5415 net.cpp:144] Setting up relu3
I0505 08:57:29.513617  5415 net.cpp:151] Top shape: 20 128 10 10 (256000)
I0505 08:57:29.513620  5415 net.cpp:159] Memory required for data: 8736240
I0505 08:57:29.513623  5415 layer_factory.hpp:77] Creating layer pool3
I0505 08:57:29.513628  5415 net.cpp:94] Creating Layer pool3
I0505 08:57:29.513631  5415 net.cpp:435] pool3 <- conv3
I0505 08:57:29.513636  5415 net.cpp:409] pool3 -> pool3
I0505 08:57:29.513662  5415 net.cpp:144] Setting up pool3
I0505 08:57:29.513674  5415 net.cpp:151] Top shape: 20 128 5 5 (64000)
I0505 08:57:29.513676  5415 net.cpp:159] Memory required for data: 8992240
I0505 08:57:29.513680  5415 layer_factory.hpp:77] Creating layer ip1
I0505 08:57:29.513687  5415 net.cpp:94] Creating Layer ip1
I0505 08:57:29.513690  5415 net.cpp:435] ip1 <- pool3
I0505 08:57:29.513695  5415 net.cpp:409] ip1 -> ip1
I0505 08:57:29.555094  5415 net.cpp:144] Setting up ip1
I0505 08:57:29.555110  5415 net.cpp:151] Top shape: 20 512 (10240)
I0505 08:57:29.555114  5415 net.cpp:159] Memory required for data: 9033200
I0505 08:57:29.555129  5415 layer_factory.hpp:77] Creating layer ip2
I0505 08:57:29.555136  5415 net.cpp:94] Creating Layer ip2
I0505 08:57:29.555141  5415 net.cpp:435] ip2 <- ip1
I0505 08:57:29.555146  5415 net.cpp:409] ip2 -> ip2
I0505 08:57:29.558413  5415 net.cpp:144] Setting up ip2
I0505 08:57:29.558421  5415 net.cpp:151] Top shape: 20 256 (5120)
I0505 08:57:29.558425  5415 net.cpp:159] Memory required for data: 9053680
I0505 08:57:29.558432  5415 layer_factory.hpp:77] Creating layer ip3
I0505 08:57:29.558439  5415 net.cpp:94] Creating Layer ip3
I0505 08:57:29.558442  5415 net.cpp:435] ip3 <- ip2
I0505 08:57:29.558447  5415 net.cpp:409] ip3 -> ip3
I0505 08:57:29.558835  5415 net.cpp:144] Setting up ip3
I0505 08:57:29.558842  5415 net.cpp:151] Top shape: 20 50 (1000)
I0505 08:57:29.558846  5415 net.cpp:159] Memory required for data: 9057680
I0505 08:57:29.558851  5415 layer_factory.hpp:77] Creating layer ip3_ip3_0_split
I0505 08:57:29.558856  5415 net.cpp:94] Creating Layer ip3_ip3_0_split
I0505 08:57:29.558859  5415 net.cpp:435] ip3_ip3_0_split <- ip3
I0505 08:57:29.558864  5415 net.cpp:409] ip3_ip3_0_split -> ip3_ip3_0_split_0
I0505 08:57:29.558869  5415 net.cpp:409] ip3_ip3_0_split -> ip3_ip3_0_split_1
I0505 08:57:29.558894  5415 net.cpp:144] Setting up ip3_ip3_0_split
I0505 08:57:29.558899  5415 net.cpp:151] Top shape: 20 50 (1000)
I0505 08:57:29.558903  5415 net.cpp:151] Top shape: 20 50 (1000)
I0505 08:57:29.558907  5415 net.cpp:159] Memory required for data: 9065680
I0505 08:57:29.558910  5415 layer_factory.hpp:77] Creating layer accuracy
I0505 08:57:29.558915  5415 net.cpp:94] Creating Layer accuracy
I0505 08:57:29.558919  5415 net.cpp:435] accuracy <- ip3_ip3_0_split_0
I0505 08:57:29.558923  5415 net.cpp:435] accuracy <- label_intercept_1_split_0
I0505 08:57:29.558928  5415 net.cpp:409] accuracy -> accuracy
…
