…
I0503 13:19:53.123157 20825 net.cpp:323] The NetState phase (0) differed from the phase (1) specified by a rule in layer intercept
I0503 13:19:53.123178 20825 net.cpp:323] The NetState phase (0) differed from the phase (1) specified by a rule in layer accuracy
I0503 13:19:53.123273 20825 net.cpp:52] Initializing net from parameters: 
state {
  phase: TRAIN
}
layer {
  name: "parameters"
  type: "HDF5Data"
  top: "data"
  top: "label"
  include {
    phase: TRAIN
  }
  hdf5_data_param {
    source: "/home/purduethu/scratch/radon/d/deng106/CNNStatisticalModel/distributions/input/5_distributions_100_sample_size_train-distributions-path.txt"
    batch_size: 20
  }
}
layer {
  name: "conv1"
  type: "Convolution"
  bottom: "data"
  top: "conv1"
  param {
    lr_mult: 1
  }
  param {
    lr_mult: 2
  }
  convolution_param {
    num_output: 64
    pad: 2
    kernel_size: 5
    stride: 1
    weight_filler {
      type: "gaussian"
      std: 0.0001
    }
    bias_filler {
      type: "constant"
    }
  }
}
layer {
  name: "relu1"
  type: "ReLU"
  bottom: "conv1"
  top: "conv1"
}
layer {
  name: "conv2"
  type: "Convolution"
  bottom: "conv1"
  top: "conv2"
  param {
    lr_mult: 1
  }
  param {
    lr_mult: 2
  }
  convolution_param {
    num_output: 64
    pad: 2
    kernel_size: 5
    stride: 1
    weight_filler {
      type: "gaussian"
      std: 0.01
    }
    bias_filler {
      type: "constant"
    }
  }
}
layer {
  name: "relu2"
  type: "ReLU"
  bottom: "conv2"
  top: "conv2"
}
layer {
  name: "pool2"
  type: "Pooling"
  bottom: "conv2"
  top: "pool2"
  pooling_param {
    pool: MAX
    kernel_size: 3
    stride: 2
  }
}
layer {
  name: "conv3"
  type: "Convolution"
  bottom: "pool2"
  top: "conv3"
  param {
    lr_mult: 1
  }
  param {
    lr_mult: 2
  }
  convolution_param {
    num_output: 128
    pad: 2
    kernel_size: 5
    stride: 1
    weight_filler {
      type: "gaussian"
      std: 0.01
    }
    bias_filler {
      type: "constant"
    }
  }
}
layer {
  name: "relu3"
  type: "ReLU"
  bottom: "conv3"
  top: "conv3"
}
layer {
  name: "conv4"
  type: "Convolution"
  bottom: "conv3"
  top: "conv4"
  param {
    lr_mult: 1
  }
  param {
    lr_mult: 2
  }
  convolution_param {
    num_output: 128
    pad: 2
    kernel_size: 5
    stride: 1
    weight_filler {
      type: "gaussian"
      std: 0.01
    }
    bias_filler {
      type: "constant"
    }
  }
}
layer {
  name: "relu4"
  type: "ReLU"
  bottom: "conv4"
  top: "conv4"
}
layer {
  name: "conv5"
  type: "Convolution"
  bottom: "conv4"
  top: "conv5"
  param {
    lr_mult: 1
  }
  param {
    lr_mult: 2
  }
  convolution_param {
    num_output: 128
    pad: 2
    kernel_size: 5
    stride: 1
    weight_filler {
      type: "gaussian"
      std: 0.01
    }
    bias_filler {
      type: "constant"
    }
  }
}
layer {
  name: "relu5"
  type: "ReLU"
  bottom: "conv5"
  top: "conv5"
}
layer {
  name: "pool5"
  type: "Pooling"
  bottom: "conv5"
  top: "pool5"
  pooling_param {
    pool: AVE
    kernel_size: 3
    stride: 2
  }
}
layer {
  name: "ip1"
  type: "InnerProduct"
  bottom: "pool5"
  top: "ip1"
  param {
    lr_mult: 1
  }
  param {
    lr_mult: 2
  }
  inner_product_param {
    num_output: 1024
    weight_filler {
      type: "gaussian"
      std: 0.1
    }
    bias_filler {
      type: "constant"
    }
  }
}
layer {
  name: "ip2"
  type: "InnerProduct"
  bottom: "ip1"
  top: "ip2"
  param {
    lr_mult: 1
  }
  param {
    lr_mult: 2
  }
  inner_product_param {
    num_output: 512
    weight_filler {
      type: "gaussian"
      std: 0.1
    }
    bias_filler {
      type: "constant"
    }
  }
}
layer {
  name: "ip3"
  type: "InnerProduct"
  bottom: "ip2"
  top: "ip3"
  param {
    lr_mult: 1
  }
  param {
    lr_mult: 2
  }
  inner_product_param {
    num_output: 50
    weight_filler {
      type: "gaussian"
      std: 0.1
    }
    bias_filler {
      type: "constant"
    }
  }
}
layer {
  name: "loss"
  type: "SoftmaxWithLoss"
  bottom: "ip3"
  bottom: "label"
  top: "loss"
}
I0503 13:19:53.123358 20825 layer_factory.hpp:77] Creating layer parameters
I0503 13:19:53.123374 20825 net.cpp:94] Creating Layer parameters
I0503 13:19:53.123380 20825 net.cpp:409] parameters -> data
I0503 13:19:53.123402 20825 net.cpp:409] parameters -> label
I0503 13:19:53.123414 20825 hdf5_data_layer.cpp:79] Loading list of HDF5 filenames from: /home/purduethu/scratch/radon/d/deng106/CNNStatisticalModel/distributions/input/5_distributions_100_sample_size_train-distributions-path.txt
I0503 13:19:53.123442 20825 hdf5_data_layer.cpp:93] Number of HDF5 files: 1
I0503 13:19:53.124111 20825 hdf5.cpp:32] Datatype class: H5T_FLOAT
I0503 13:19:53.141926 20825 hdf5.cpp:35] Datatype class: H5T_INTEGER
I0503 13:19:53.143196 20825 net.cpp:144] Setting up parameters
I0503 13:19:53.143218 20825 net.cpp:151] Top shape: 20 1 10 10 (2000)
I0503 13:19:53.143225 20825 net.cpp:151] Top shape: 20 (20)
I0503 13:19:53.143229 20825 net.cpp:159] Memory required for data: 8080
I0503 13:19:53.143239 20825 layer_factory.hpp:77] Creating layer conv1
I0503 13:19:53.143260 20825 net.cpp:94] Creating Layer conv1
I0503 13:19:53.143266 20825 net.cpp:435] conv1 <- data
I0503 13:19:53.143278 20825 net.cpp:409] conv1 -> conv1
I0503 13:19:53.147294 20825 net.cpp:144] Setting up conv1
I0503 13:19:53.147310 20825 net.cpp:151] Top shape: 20 64 10 10 (128000)
I0503 13:19:53.147315 20825 net.cpp:159] Memory required for data: 520080
I0503 13:19:53.147327 20825 layer_factory.hpp:77] Creating layer relu1
I0503 13:19:53.147337 20825 net.cpp:94] Creating Layer relu1
I0503 13:19:53.147341 20825 net.cpp:435] relu1 <- conv1
I0503 13:19:53.147346 20825 net.cpp:396] relu1 -> conv1 (in-place)
I0503 13:19:53.147364 20825 net.cpp:144] Setting up relu1
I0503 13:19:53.147372 20825 net.cpp:151] Top shape: 20 64 10 10 (128000)
I0503 13:19:53.147374 20825 net.cpp:159] Memory required for data: 1032080
I0503 13:19:53.147378 20825 layer_factory.hpp:77] Creating layer conv2
I0503 13:19:53.147387 20825 net.cpp:94] Creating Layer conv2
I0503 13:19:53.147392 20825 net.cpp:435] conv2 <- conv1
I0503 13:19:53.147397 20825 net.cpp:409] conv2 -> conv2
I0503 13:19:53.153698 20825 net.cpp:144] Setting up conv2
I0503 13:19:53.153738 20825 net.cpp:151] Top shape: 20 64 10 10 (128000)
I0503 13:19:53.153749 20825 net.cpp:159] Memory required for data: 1544080
I0503 13:19:53.153774 20825 layer_factory.hpp:77] Creating layer relu2
I0503 13:19:53.153791 20825 net.cpp:94] Creating Layer relu2
I0503 13:19:53.153803 20825 net.cpp:435] relu2 <- conv2
I0503 13:19:53.153817 20825 net.cpp:396] relu2 -> conv2 (in-place)
I0503 13:19:53.153837 20825 net.cpp:144] Setting up relu2
I0503 13:19:53.153851 20825 net.cpp:151] Top shape: 20 64 10 10 (128000)
I0503 13:19:53.153861 20825 net.cpp:159] Memory required for data: 2056080
I0503 13:19:53.153880 20825 layer_factory.hpp:77] Creating layer pool2
I0503 13:19:53.153895 20825 net.cpp:94] Creating Layer pool2
I0503 13:19:53.153899 20825 net.cpp:435] pool2 <- conv2
I0503 13:19:53.153904 20825 net.cpp:409] pool2 -> pool2
I0503 13:19:53.153955 20825 net.cpp:144] Setting up pool2
I0503 13:19:53.153964 20825 net.cpp:151] Top shape: 20 64 5 5 (32000)
I0503 13:19:53.153969 20825 net.cpp:159] Memory required for data: 2184080
I0503 13:19:53.153972 20825 layer_factory.hpp:77] Creating layer conv3
I0503 13:19:53.153980 20825 net.cpp:94] Creating Layer conv3
I0503 13:19:53.153985 20825 net.cpp:435] conv3 <- pool2
I0503 13:19:53.153997 20825 net.cpp:409] conv3 -> conv3
I0503 13:19:53.162377 20825 net.cpp:144] Setting up conv3
I0503 13:19:53.162394 20825 net.cpp:151] Top shape: 20 128 5 5 (64000)
I0503 13:19:53.162398 20825 net.cpp:159] Memory required for data: 2440080
I0503 13:19:53.162407 20825 layer_factory.hpp:77] Creating layer relu3
I0503 13:19:53.162415 20825 net.cpp:94] Creating Layer relu3
I0503 13:19:53.162418 20825 net.cpp:435] relu3 <- conv3
I0503 13:19:53.162423 20825 net.cpp:396] relu3 -> conv3 (in-place)
I0503 13:19:53.162431 20825 net.cpp:144] Setting up relu3
I0503 13:19:53.162436 20825 net.cpp:151] Top shape: 20 128 5 5 (64000)
I0503 13:19:53.162439 20825 net.cpp:159] Memory required for data: 2696080
I0503 13:19:53.162442 20825 layer_factory.hpp:77] Creating layer conv4
I0503 13:19:53.162451 20825 net.cpp:94] Creating Layer conv4
I0503 13:19:53.162456 20825 net.cpp:435] conv4 <- conv3
I0503 13:19:53.162461 20825 net.cpp:409] conv4 -> conv4
I0503 13:19:53.177726 20825 net.cpp:144] Setting up conv4
I0503 13:19:53.177765 20825 net.cpp:151] Top shape: 20 128 5 5 (64000)
I0503 13:19:53.177778 20825 net.cpp:159] Memory required for data: 2952080
I0503 13:19:53.177796 20825 layer_factory.hpp:77] Creating layer relu4
I0503 13:19:53.177812 20825 net.cpp:94] Creating Layer relu4
I0503 13:19:53.177824 20825 net.cpp:435] relu4 <- conv4
I0503 13:19:53.177839 20825 net.cpp:396] relu4 -> conv4 (in-place)
I0503 13:19:53.177860 20825 net.cpp:144] Setting up relu4
I0503 13:19:53.177875 20825 net.cpp:151] Top shape: 20 128 5 5 (64000)
I0503 13:19:53.177884 20825 net.cpp:159] Memory required for data: 3208080
I0503 13:19:53.177903 20825 layer_factory.hpp:77] Creating layer conv5
I0503 13:19:53.177912 20825 net.cpp:94] Creating Layer conv5
I0503 13:19:53.177917 20825 net.cpp:435] conv5 <- conv4
I0503 13:19:53.177922 20825 net.cpp:409] conv5 -> conv5
I0503 13:19:53.193001 20825 net.cpp:144] Setting up conv5
I0503 13:19:53.193018 20825 net.cpp:151] Top shape: 20 128 5 5 (64000)
I0503 13:19:53.193023 20825 net.cpp:159] Memory required for data: 3464080
I0503 13:19:53.193033 20825 layer_factory.hpp:77] Creating layer relu5
I0503 13:19:53.193040 20825 net.cpp:94] Creating Layer relu5
I0503 13:19:53.193044 20825 net.cpp:435] relu5 <- conv5
I0503 13:19:53.193049 20825 net.cpp:396] relu5 -> conv5 (in-place)
I0503 13:19:53.193058 20825 net.cpp:144] Setting up relu5
I0503 13:19:53.193063 20825 net.cpp:151] Top shape: 20 128 5 5 (64000)
I0503 13:19:53.193065 20825 net.cpp:159] Memory required for data: 3720080
I0503 13:19:53.193069 20825 layer_factory.hpp:77] Creating layer pool5
I0503 13:19:53.193075 20825 net.cpp:94] Creating Layer pool5
I0503 13:19:53.193078 20825 net.cpp:435] pool5 <- conv5
I0503 13:19:53.193084 20825 net.cpp:409] pool5 -> pool5
I0503 13:19:53.193122 20825 net.cpp:144] Setting up pool5
I0503 13:19:53.193130 20825 net.cpp:151] Top shape: 20 128 2 2 (10240)
I0503 13:19:53.193135 20825 net.cpp:159] Memory required for data: 3761040
I0503 13:19:53.193137 20825 layer_factory.hpp:77] Creating layer ip1
I0503 13:19:53.193148 20825 net.cpp:94] Creating Layer ip1
I0503 13:19:53.193152 20825 net.cpp:435] ip1 <- pool5
I0503 13:19:53.193157 20825 net.cpp:409] ip1 -> ip1
I0503 13:19:53.207413 20825 net.cpp:144] Setting up ip1
I0503 13:19:53.207429 20825 net.cpp:151] Top shape: 20 1024 (20480)
I0503 13:19:53.207434 20825 net.cpp:159] Memory required for data: 3842960
I0503 13:19:53.207442 20825 layer_factory.hpp:77] Creating layer ip2
I0503 13:19:53.207448 20825 net.cpp:94] Creating Layer ip2
I0503 13:19:53.207458 20825 net.cpp:435] ip2 <- ip1
I0503 13:19:53.207464 20825 net.cpp:409] ip2 -> ip2
I0503 13:19:53.221011 20825 net.cpp:144] Setting up ip2
I0503 13:19:53.221026 20825 net.cpp:151] Top shape: 20 512 (10240)
I0503 13:19:53.221031 20825 net.cpp:159] Memory required for data: 3883920
I0503 13:19:53.221037 20825 layer_factory.hpp:77] Creating layer ip3
I0503 13:19:53.221045 20825 net.cpp:94] Creating Layer ip3
I0503 13:19:53.221050 20825 net.cpp:435] ip3 <- ip2
I0503 13:19:53.221055 20825 net.cpp:409] ip3 -> ip3
I0503 13:19:53.221778 20825 net.cpp:144] Setting up ip3
I0503 13:19:53.221786 20825 net.cpp:151] Top shape: 20 50 (1000)
I0503 13:19:53.221791 20825 net.cpp:159] Memory required for data: 3887920
I0503 13:19:53.221796 20825 layer_factory.hpp:77] Creating layer loss
I0503 13:19:53.221804 20825 net.cpp:94] Creating Layer loss
I0503 13:19:53.221808 20825 net.cpp:435] loss <- ip3
I0503 13:19:53.221812 20825 net.cpp:435] loss <- label
I0503 13:19:53.221818 20825 net.cpp:409] loss -> loss
I0503 13:19:53.221830 20825 layer_factory.hpp:77] Creating layer loss
…
I0503 13:19:53.222365 20825 solver.cpp:181] Creating test net (#0) specified by net file: ./protocol/dis_5_100_dimension.protocol_distribution
I0503 13:19:53.222394 20825 net.cpp:323] The NetState phase (1) differed from the phase (0) specified by a rule in layer parameters
I0503 13:19:53.222496 20825 net.cpp:52] Initializing net from parameters: 
state {
  phase: TEST
}
layer {
  name: "intercept"
  type: "HDF5Data"
  top: "data"
  top: "label"
  include {
    phase: TEST
  }
  hdf5_data_param {
    source: "/home/purduethu/scratch/radon/d/deng106/CNNStatisticalModel/distributions/input/5_distributions_100_sample_size_test-distributions-path.txt"
    batch_size: 20
  }
}
layer {
  name: "conv1"
  type: "Convolution"
  bottom: "data"
  top: "conv1"
  param {
    lr_mult: 1
  }
  param {
    lr_mult: 2
  }
  convolution_param {
    num_output: 64
    pad: 2
    kernel_size: 5
    stride: 1
    weight_filler {
      type: "gaussian"
      std: 0.0001
    }
    bias_filler {
      type: "constant"
    }
  }
}
layer {
  name: "relu1"
  type: "ReLU"
  bottom: "conv1"
  top: "conv1"
}
layer {
  name: "conv2"
  type: "Convolution"
  bottom: "conv1"
  top: "conv2"
  param {
    lr_mult: 1
  }
  param {
    lr_mult: 2
  }
  convolution_param {
    num_output: 64
    pad: 2
    kernel_size: 5
    stride: 1
    weight_filler {
      type: "gaussian"
      std: 0.01
    }
    bias_filler {
      type: "constant"
    }
  }
}
layer {
  name: "relu2"
  type: "ReLU"
  bottom: "conv2"
  top: "conv2"
}
layer {
  name: "pool2"
  type: "Pooling"
  bottom: "conv2"
  top: "pool2"
  pooling_param {
    pool: MAX
    kernel_size: 3
    stride: 2
  }
}
layer {
  name: "conv3"
  type: "Convolution"
  bottom: "pool2"
  top: "conv3"
  param {
    lr_mult: 1
  }
  param {
    lr_mult: 2
  }
  convolution_param {
    num_output: 128
    pad: 2
    kernel_size: 5
    stride: 1
    weight_filler {
      type: "gaussian"
      std: 0.01
    }
    bias_filler {
      type: "constant"
    }
  }
}
layer {
  name: "relu3"
  type: "ReLU"
  bottom: "conv3"
  top: "conv3"
}
layer {
  name: "conv4"
  type: "Convolution"
  bottom: "conv3"
  top: "conv4"
  param {
    lr_mult: 1
  }
  param {
    lr_mult: 2
  }
  convolution_param {
    num_output: 128
    pad: 2
    kernel_size: 5
    stride: 1
    weight_filler {
      type: "gaussian"
      std: 0.01
    }
    bias_filler {
      type: "constant"
    }
  }
}
layer {
  name: "relu4"
  type: "ReLU"
  bottom: "conv4"
  top: "conv4"
}
layer {
  name: "conv5"
  type: "Convolution"
  bottom: "conv4"
  top: "conv5"
  param {
    lr_mult: 1
  }
  param {
    lr_mult: 2
  }
  convolution_param {
    num_output: 128
    pad: 2
    kernel_size: 5
    stride: 1
    weight_filler {
      type: "gaussian"
      std: 0.01
    }
    bias_filler {
      type: "constant"
    }
  }
}
layer {
  name: "relu5"
  type: "ReLU"
  bottom: "conv5"
  top: "conv5"
}
layer {
  name: "pool5"
  type: "Pooling"
  bottom: "conv5"
  top: "pool5"
  pooling_param {
    pool: AVE
    kernel_size: 3
    stride: 2
  }
}
layer {
  name: "ip1"
  type: "InnerProduct"
  bottom: "pool5"
  top: "ip1"
  param {
    lr_mult: 1
  }
  param {
    lr_mult: 2
  }
  inner_product_param {
    num_output: 1024
    weight_filler {
      type: "gaussian"
      std: 0.1
    }
    bias_filler {
      type: "constant"
    }
  }
}
layer {
  name: "ip2"
  type: "InnerProduct"
  bottom: "ip1"
  top: "ip2"
  param {
    lr_mult: 1
  }
  param {
    lr_mult: 2
  }
  inner_product_param {
    num_output: 512
    weight_filler {
      type: "gaussian"
      std: 0.1
    }
    bias_filler {
      type: "constant"
    }
  }
}
layer {
  name: "ip3"
  type: "InnerProduct"
  bottom: "ip2"
  top: "ip3"
  param {
    lr_mult: 1
  }
  param {
    lr_mult: 2
  }
  inner_product_param {
    num_output: 50
    weight_filler {
      type: "gaussian"
      std: 0.1
    }
    bias_filler {
      type: "constant"
    }
  }
}
layer {
  name: "accuracy"
  type: "Accuracy"
  bottom: "ip3"
  bottom: "label"
  top: "accuracy"
  include {
    phase: TEST
  }
}
layer {
  name: "loss"
  type: "SoftmaxWithLoss"
  bottom: "ip3"
  bottom: "label"
  top: "loss"
}
I0503 13:19:53.222581 20825 layer_factory.hpp:77] Creating layer intercept
I0503 13:19:53.222591 20825 net.cpp:94] Creating Layer intercept
I0503 13:19:53.222596 20825 net.cpp:409] intercept -> data
I0503 13:19:53.222604 20825 net.cpp:409] intercept -> label
I0503 13:19:53.222610 20825 hdf5_data_layer.cpp:79] Loading list of HDF5 filenames from: /home/purduethu/scratch/radon/d/deng106/CNNStatisticalModel/distributions/input/5_distributions_100_sample_size_test-distributions-path.txt
I0503 13:19:53.222632 20825 hdf5_data_layer.cpp:93] Number of HDF5 files: 1
I0503 13:19:53.228010 20825 net.cpp:144] Setting up intercept
I0503 13:19:53.228039 20825 net.cpp:151] Top shape: 20 1 10 10 (2000)
I0503 13:19:53.228045 20825 net.cpp:151] Top shape: 20 (20)
I0503 13:19:53.228049 20825 net.cpp:159] Memory required for data: 8080
I0503 13:19:53.228055 20825 layer_factory.hpp:77] Creating layer label_intercept_1_split
I0503 13:19:53.228070 20825 net.cpp:94] Creating Layer label_intercept_1_split
I0503 13:19:53.228075 20825 net.cpp:435] label_intercept_1_split <- label
I0503 13:19:53.228081 20825 net.cpp:409] label_intercept_1_split -> label_intercept_1_split_0
I0503 13:19:53.228091 20825 net.cpp:409] label_intercept_1_split -> label_intercept_1_split_1
I0503 13:19:53.228127 20825 net.cpp:144] Setting up label_intercept_1_split
I0503 13:19:53.228134 20825 net.cpp:151] Top shape: 20 (20)
I0503 13:19:53.228139 20825 net.cpp:151] Top shape: 20 (20)
I0503 13:19:53.228142 20825 net.cpp:159] Memory required for data: 8240
I0503 13:19:53.228145 20825 layer_factory.hpp:77] Creating layer conv1
I0503 13:19:53.228157 20825 net.cpp:94] Creating Layer conv1
I0503 13:19:53.228160 20825 net.cpp:435] conv1 <- data
I0503 13:19:53.228165 20825 net.cpp:409] conv1 -> conv1
I0503 13:19:53.228926 20825 net.cpp:144] Setting up conv1
I0503 13:19:53.228951 20825 net.cpp:151] Top shape: 20 64 10 10 (128000)
I0503 13:19:53.228956 20825 net.cpp:159] Memory required for data: 520240
I0503 13:19:53.228965 20825 layer_factory.hpp:77] Creating layer relu1
I0503 13:19:53.228973 20825 net.cpp:94] Creating Layer relu1
I0503 13:19:53.228976 20825 net.cpp:435] relu1 <- conv1
I0503 13:19:53.228981 20825 net.cpp:396] relu1 -> conv1 (in-place)
I0503 13:19:53.228989 20825 net.cpp:144] Setting up relu1
I0503 13:19:53.228996 20825 net.cpp:151] Top shape: 20 64 10 10 (128000)
I0503 13:19:53.228998 20825 net.cpp:159] Memory required for data: 1032240
I0503 13:19:53.229002 20825 layer_factory.hpp:77] Creating layer conv2
I0503 13:19:53.229012 20825 net.cpp:94] Creating Layer conv2
I0503 13:19:53.229015 20825 net.cpp:435] conv2 <- conv1
I0503 13:19:53.229020 20825 net.cpp:409] conv2 -> conv2
I0503 13:19:53.233078 20825 net.cpp:144] Setting up conv2
I0503 13:19:53.233114 20825 net.cpp:151] Top shape: 20 64 10 10 (128000)
I0503 13:19:53.233126 20825 net.cpp:159] Memory required for data: 1544240
I0503 13:19:53.233150 20825 layer_factory.hpp:77] Creating layer relu2
I0503 13:19:53.233166 20825 net.cpp:94] Creating Layer relu2
I0503 13:19:53.233176 20825 net.cpp:435] relu2 <- conv2
I0503 13:19:53.233189 20825 net.cpp:396] relu2 -> conv2 (in-place)
I0503 13:19:53.233209 20825 net.cpp:144] Setting up relu2
I0503 13:19:53.233223 20825 net.cpp:151] Top shape: 20 64 10 10 (128000)
I0503 13:19:53.233232 20825 net.cpp:159] Memory required for data: 2056240
I0503 13:19:53.233242 20825 layer_factory.hpp:77] Creating layer pool2
I0503 13:19:53.233258 20825 net.cpp:94] Creating Layer pool2
I0503 13:19:53.233266 20825 net.cpp:435] pool2 <- conv2
I0503 13:19:53.233278 20825 net.cpp:409] pool2 -> pool2
I0503 13:19:53.233371 20825 net.cpp:144] Setting up pool2
I0503 13:19:53.233387 20825 net.cpp:151] Top shape: 20 64 5 5 (32000)
I0503 13:19:53.233397 20825 net.cpp:159] Memory required for data: 2184240
I0503 13:19:53.233407 20825 layer_factory.hpp:77] Creating layer conv3
I0503 13:19:53.233427 20825 net.cpp:94] Creating Layer conv3
I0503 13:19:53.233436 20825 net.cpp:435] conv3 <- pool2
I0503 13:19:53.233450 20825 net.cpp:409] conv3 -> conv3
I0503 13:19:53.240041 20825 net.cpp:144] Setting up conv3
I0503 13:19:53.240057 20825 net.cpp:151] Top shape: 20 128 5 5 (64000)
I0503 13:19:53.240061 20825 net.cpp:159] Memory required for data: 2440240
I0503 13:19:53.240070 20825 layer_factory.hpp:77] Creating layer relu3
I0503 13:19:53.240078 20825 net.cpp:94] Creating Layer relu3
I0503 13:19:53.240082 20825 net.cpp:435] relu3 <- conv3
I0503 13:19:53.240087 20825 net.cpp:396] relu3 -> conv3 (in-place)
I0503 13:19:53.240094 20825 net.cpp:144] Setting up relu3
I0503 13:19:53.240100 20825 net.cpp:151] Top shape: 20 128 5 5 (64000)
I0503 13:19:53.240103 20825 net.cpp:159] Memory required for data: 2696240
I0503 13:19:53.240108 20825 layer_factory.hpp:77] Creating layer conv4
I0503 13:19:53.240114 20825 net.cpp:94] Creating Layer conv4
I0503 13:19:53.240118 20825 net.cpp:435] conv4 <- conv3
I0503 13:19:53.240123 20825 net.cpp:409] conv4 -> conv4
I0503 13:19:53.253018 20825 net.cpp:144] Setting up conv4
I0503 13:19:53.253036 20825 net.cpp:151] Top shape: 20 128 5 5 (64000)
I0503 13:19:53.253039 20825 net.cpp:159] Memory required for data: 2952240
I0503 13:19:53.253046 20825 layer_factory.hpp:77] Creating layer relu4
I0503 13:19:53.253053 20825 net.cpp:94] Creating Layer relu4
I0503 13:19:53.253057 20825 net.cpp:435] relu4 <- conv4
I0503 13:19:53.253067 20825 net.cpp:396] relu4 -> conv4 (in-place)
I0503 13:19:53.253074 20825 net.cpp:144] Setting up relu4
I0503 13:19:53.253079 20825 net.cpp:151] Top shape: 20 128 5 5 (64000)
I0503 13:19:53.253083 20825 net.cpp:159] Memory required for data: 3208240
I0503 13:19:53.253087 20825 layer_factory.hpp:77] Creating layer conv5
I0503 13:19:53.253095 20825 net.cpp:94] Creating Layer conv5
I0503 13:19:53.253098 20825 net.cpp:435] conv5 <- conv4
I0503 13:19:53.253104 20825 net.cpp:409] conv5 -> conv5
I0503 13:19:53.266053 20825 net.cpp:144] Setting up conv5
I0503 13:19:53.266108 20825 net.cpp:151] Top shape: 20 128 5 5 (64000)
I0503 13:19:53.266119 20825 net.cpp:159] Memory required for data: 3464240
I0503 13:19:53.266144 20825 layer_factory.hpp:77] Creating layer relu5
I0503 13:19:53.266160 20825 net.cpp:94] Creating Layer relu5
I0503 13:19:53.266171 20825 net.cpp:435] relu5 <- conv5
I0503 13:19:53.266185 20825 net.cpp:396] relu5 -> conv5 (in-place)
I0503 13:19:53.266204 20825 net.cpp:144] Setting up relu5
I0503 13:19:53.266218 20825 net.cpp:151] Top shape: 20 128 5 5 (64000)
I0503 13:19:53.266227 20825 net.cpp:159] Memory required for data: 3720240
I0503 13:19:53.266237 20825 layer_factory.hpp:77] Creating layer pool5
I0503 13:19:53.266250 20825 net.cpp:94] Creating Layer pool5
I0503 13:19:53.266260 20825 net.cpp:435] pool5 <- conv5
I0503 13:19:53.266273 20825 net.cpp:409] pool5 -> pool5
I0503 13:19:53.266340 20825 net.cpp:144] Setting up pool5
I0503 13:19:53.266347 20825 net.cpp:151] Top shape: 20 128 2 2 (10240)
I0503 13:19:53.266351 20825 net.cpp:159] Memory required for data: 3761200
I0503 13:19:53.266355 20825 layer_factory.hpp:77] Creating layer ip1
I0503 13:19:53.266361 20825 net.cpp:94] Creating Layer ip1
I0503 13:19:53.266366 20825 net.cpp:435] ip1 <- pool5
I0503 13:19:53.266371 20825 net.cpp:409] ip1 -> ip1
I0503 13:19:53.279913 20825 net.cpp:144] Setting up ip1
I0503 13:19:53.279928 20825 net.cpp:151] Top shape: 20 1024 (20480)
I0503 13:19:53.279932 20825 net.cpp:159] Memory required for data: 3843120
I0503 13:19:53.279939 20825 layer_factory.hpp:77] Creating layer ip2
I0503 13:19:53.279947 20825 net.cpp:94] Creating Layer ip2
I0503 13:19:53.279950 20825 net.cpp:435] ip2 <- ip1
I0503 13:19:53.279956 20825 net.cpp:409] ip2 -> ip2
I0503 13:19:53.293481 20825 net.cpp:144] Setting up ip2
I0503 13:19:53.293496 20825 net.cpp:151] Top shape: 20 512 (10240)
I0503 13:19:53.293501 20825 net.cpp:159] Memory required for data: 3884080
I0503 13:19:53.293507 20825 layer_factory.hpp:77] Creating layer ip3
I0503 13:19:53.293516 20825 net.cpp:94] Creating Layer ip3
I0503 13:19:53.293520 20825 net.cpp:435] ip3 <- ip2
I0503 13:19:53.293526 20825 net.cpp:409] ip3 -> ip3
I0503 13:19:53.294239 20825 net.cpp:144] Setting up ip3
I0503 13:19:53.294247 20825 net.cpp:151] Top shape: 20 50 (1000)
I0503 13:19:53.294250 20825 net.cpp:159] Memory required for data: 3888080
I0503 13:19:53.294256 20825 layer_factory.hpp:77] Creating layer ip3_ip3_0_split
I0503 13:19:53.294262 20825 net.cpp:94] Creating Layer ip3_ip3_0_split
I0503 13:19:53.294265 20825 net.cpp:435] ip3_ip3_0_split <- ip3
I0503 13:19:53.294270 20825 net.cpp:409] ip3_ip3_0_split -> ip3_ip3_0_split_0
I0503 13:19:53.294276 20825 net.cpp:409] ip3_ip3_0_split -> ip3_ip3_0_split_1
I0503 13:19:53.294303 20825 net.cpp:144] Setting up ip3_ip3_0_split
I0503 13:19:53.294309 20825 net.cpp:151] Top shape: 20 50 (1000)
I0503 13:19:53.294313 20825 net.cpp:151] Top shape: 20 50 (1000)
I0503 13:19:53.294317 20825 net.cpp:159] Memory required for data: 3896080
I0503 13:19:53.294320 20825 layer_factory.hpp:77] Creating layer accuracy
I0503 13:19:53.294327 20825 net.cpp:94] Creating Layer accuracy
I0503 13:19:53.294330 20825 net.cpp:435] accuracy <- ip3_ip3_0_split_0
I0503 13:19:53.294334 20825 net.cpp:435] accuracy <- label_intercept_1_split_0
I0503 13:19:53.294339 20825 net.cpp:409] accuracy -> accuracy
…
