…
I0501 15:35:25.184628 13359 net.cpp:323] The NetState phase (0) differed from the phase (1) specified by a rule in layer intercept
I0501 15:35:25.184645 13359 net.cpp:323] The NetState phase (0) differed from the phase (1) specified by a rule in layer loss
I0501 15:35:25.184726 13359 net.cpp:52] Initializing net from parameters: 
state {
  phase: TRAIN
}
layer {
  name: "parameters"
  type: "HDF5Data"
  top: "data"
  top: "label"
  include {
    phase: TRAIN
  }
  hdf5_data_param {
    source: "/home/purduethu/scratch/radon/d/deng106/CNNStatisticalModel/distributions/input/20_distributions_400_sample_size_train-parameters-path.txt"
    batch_size: 20
  }
}
layer {
  name: "conv1"
  type: "Convolution"
  bottom: "data"
  top: "conv1"
  param {
    lr_mult: 1
  }
  param {
    lr_mult: 2
  }
  convolution_param {
    num_output: 64
    pad: 2
    kernel_size: 5
    stride: 1
    weight_filler {
      type: "gaussian"
      std: 0.0001
    }
    bias_filler {
      type: "constant"
    }
  }
}
layer {
  name: "relu1"
  type: "ReLU"
  bottom: "conv1"
  top: "conv1"
}
layer {
  name: "conv2"
  type: "Convolution"
  bottom: "conv1"
  top: "conv2"
  param {
    lr_mult: 1
  }
  param {
    lr_mult: 2
  }
  convolution_param {
    num_output: 64
    pad: 2
    kernel_size: 5
    stride: 1
    weight_filler {
      type: "gaussian"
      std: 0.01
    }
    bias_filler {
      type: "constant"
    }
  }
}
layer {
  name: "relu2"
  type: "ReLU"
  bottom: "conv2"
  top: "conv2"
}
layer {
  name: "pool2"
  type: "Pooling"
  bottom: "conv2"
  top: "pool2"
  pooling_param {
    pool: MAX
    kernel_size: 3
    stride: 2
  }
}
layer {
  name: "conv3"
  type: "Convolution"
  bottom: "pool2"
  top: "conv3"
  param {
    lr_mult: 1
  }
  param {
    lr_mult: 2
  }
  convolution_param {
    num_output: 64
    pad: 2
    kernel_size: 5
    stride: 1
    weight_filler {
      type: "gaussian"
      std: 0.01
    }
    bias_filler {
      type: "constant"
    }
  }
}
layer {
  name: "relu3"
  type: "ReLU"
  bottom: "conv3"
  top: "conv3"
}
layer {
  name: "conv4"
  type: "Convolution"
  bottom: "conv3"
  top: "conv4"
  param {
    lr_mult: 1
  }
  param {
    lr_mult: 2
  }
  convolution_param {
    num_output: 64
    pad: 2
    kernel_size: 5
    stride: 1
    weight_filler {
      type: "gaussian"
      std: 0.01
    }
    bias_filler {
      type: "constant"
    }
  }
}
layer {
  name: "relu4"
  type: "ReLU"
  bottom: "conv4"
  top: "conv4"
}
layer {
  name: "conv5"
  type: "Convolution"
  bottom: "conv4"
  top: "conv5"
  param {
    lr_mult: 1
  }
  param {
    lr_mult: 2
  }
  convolution_param {
    num_output: 64
    pad: 2
    kernel_size: 5
    stride: 1
    weight_filler {
      type: "gaussian"
      std: 0.01
    }
    bias_filler {
      type: "constant"
    }
  }
}
layer {
  name: "relu5"
  type: "ReLU"
  bottom: "conv5"
  top: "conv5"
}
layer {
  name: "pool5"
  type: "Pooling"
  bottom: "conv5"
  top: "pool5"
  pooling_param {
    pool: AVE
    kernel_size: 3
    stride: 2
  }
}
layer {
  name: "ip1"
  type: "InnerProduct"
  bottom: "pool5"
  top: "ip1"
  param {
    lr_mult: 1
  }
  param {
    lr_mult: 2
  }
  inner_product_param {
    num_output: 64
    weight_filler {
      type: "gaussian"
      std: 0.1
    }
    bias_filler {
      type: "constant"
    }
  }
}
layer {
  name: "ip2"
  type: "InnerProduct"
  bottom: "ip1"
  top: "ip2"
  param {
    lr_mult: 1
  }
  param {
    lr_mult: 2
  }
  inner_product_param {
    num_output: 64
    weight_filler {
      type: "gaussian"
      std: 0.1
    }
    bias_filler {
      type: "constant"
    }
  }
}
layer {
  name: "ip3"
  type: "InnerProduct"
  bottom: "ip2"
  top: "ip3"
  param {
    lr_mult: 1
  }
  param {
    lr_mult: 2
  }
  inner_product_param {
    num_output: 1
    weight_filler {
      type: "gaussian"
      std: 0.1
    }
    bias_filler {
      type: "constant"
    }
  }
}
layer {
  name: "loss"
  type: "HuberLoss"
  bottom: "ip3"
  bottom: "label"
  top: "loss"
  include {
    phase: TRAIN
  }
}
I0501 15:35:25.184782 13359 layer_factory.hpp:77] Creating layer parameters
I0501 15:35:25.184795 13359 net.cpp:94] Creating Layer parameters
I0501 15:35:25.184799 13359 net.cpp:409] parameters -> data
I0501 15:35:25.184813 13359 net.cpp:409] parameters -> label
I0501 15:35:25.184820 13359 hdf5_data_layer.cpp:79] Loading list of HDF5 filenames from: /home/purduethu/scratch/radon/d/deng106/CNNStatisticalModel/distributions/input/20_distributions_400_sample_size_train-parameters-path.txt
I0501 15:35:25.184952 13359 hdf5_data_layer.cpp:93] Number of HDF5 files: 1
I0501 15:35:25.185518 13359 hdf5.cpp:32] Datatype class: H5T_FLOAT
I0501 15:35:25.590560 13359 net.cpp:144] Setting up parameters
I0501 15:35:25.590591 13359 net.cpp:151] Top shape: 20 1 20 20 (8000)
I0501 15:35:25.590597 13359 net.cpp:151] Top shape: 20 (20)
I0501 15:35:25.590600 13359 net.cpp:159] Memory required for data: 32080
I0501 15:35:25.590607 13359 layer_factory.hpp:77] Creating layer conv1
I0501 15:35:25.590625 13359 net.cpp:94] Creating Layer conv1
I0501 15:35:25.590628 13359 net.cpp:435] conv1 <- data
I0501 15:35:25.590634 13359 net.cpp:409] conv1 -> conv1
I0501 15:35:25.595945 13359 net.cpp:144] Setting up conv1
I0501 15:35:25.595963 13359 net.cpp:151] Top shape: 20 64 20 20 (512000)
I0501 15:35:25.595966 13359 net.cpp:159] Memory required for data: 2080080
I0501 15:35:25.595976 13359 layer_factory.hpp:77] Creating layer relu1
I0501 15:35:25.595984 13359 net.cpp:94] Creating Layer relu1
I0501 15:35:25.595988 13359 net.cpp:435] relu1 <- conv1
I0501 15:35:25.595993 13359 net.cpp:396] relu1 -> conv1 (in-place)
I0501 15:35:25.596000 13359 net.cpp:144] Setting up relu1
I0501 15:35:25.596004 13359 net.cpp:151] Top shape: 20 64 20 20 (512000)
I0501 15:35:25.596007 13359 net.cpp:159] Memory required for data: 4128080
I0501 15:35:25.596010 13359 layer_factory.hpp:77] Creating layer conv2
I0501 15:35:25.596019 13359 net.cpp:94] Creating Layer conv2
I0501 15:35:25.596021 13359 net.cpp:435] conv2 <- conv1
I0501 15:35:25.596026 13359 net.cpp:409] conv2 -> conv2
I0501 15:35:25.606477 13359 net.cpp:144] Setting up conv2
I0501 15:35:25.606493 13359 net.cpp:151] Top shape: 20 64 20 20 (512000)
I0501 15:35:25.606498 13359 net.cpp:159] Memory required for data: 6176080
I0501 15:35:25.606505 13359 layer_factory.hpp:77] Creating layer relu2
I0501 15:35:25.606513 13359 net.cpp:94] Creating Layer relu2
I0501 15:35:25.606516 13359 net.cpp:435] relu2 <- conv2
I0501 15:35:25.606520 13359 net.cpp:396] relu2 -> conv2 (in-place)
I0501 15:35:25.606528 13359 net.cpp:144] Setting up relu2
I0501 15:35:25.606531 13359 net.cpp:151] Top shape: 20 64 20 20 (512000)
I0501 15:35:25.606534 13359 net.cpp:159] Memory required for data: 8224080
I0501 15:35:25.606537 13359 layer_factory.hpp:77] Creating layer pool2
I0501 15:35:25.606549 13359 net.cpp:94] Creating Layer pool2
I0501 15:35:25.606554 13359 net.cpp:435] pool2 <- conv2
I0501 15:35:25.606559 13359 net.cpp:409] pool2 -> pool2
I0501 15:35:25.606614 13359 net.cpp:144] Setting up pool2
I0501 15:35:25.606622 13359 net.cpp:151] Top shape: 20 64 10 10 (128000)
I0501 15:35:25.606626 13359 net.cpp:159] Memory required for data: 8736080
I0501 15:35:25.606628 13359 layer_factory.hpp:77] Creating layer conv3
I0501 15:35:25.606637 13359 net.cpp:94] Creating Layer conv3
I0501 15:35:25.606640 13359 net.cpp:435] conv3 <- pool2
I0501 15:35:25.606644 13359 net.cpp:409] conv3 -> conv3
I0501 15:35:25.611866 13359 net.cpp:144] Setting up conv3
I0501 15:35:25.611881 13359 net.cpp:151] Top shape: 20 64 10 10 (128000)
I0501 15:35:25.611884 13359 net.cpp:159] Memory required for data: 9248080
I0501 15:35:25.611892 13359 layer_factory.hpp:77] Creating layer relu3
I0501 15:35:25.611897 13359 net.cpp:94] Creating Layer relu3
I0501 15:35:25.611901 13359 net.cpp:435] relu3 <- conv3
I0501 15:35:25.611905 13359 net.cpp:396] relu3 -> conv3 (in-place)
I0501 15:35:25.611912 13359 net.cpp:144] Setting up relu3
I0501 15:35:25.611917 13359 net.cpp:151] Top shape: 20 64 10 10 (128000)
I0501 15:35:25.611919 13359 net.cpp:159] Memory required for data: 9760080
I0501 15:35:25.611922 13359 layer_factory.hpp:77] Creating layer conv4
I0501 15:35:25.611932 13359 net.cpp:94] Creating Layer conv4
I0501 15:35:25.611934 13359 net.cpp:435] conv4 <- conv3
I0501 15:35:25.611939 13359 net.cpp:409] conv4 -> conv4
I0501 15:35:25.617146 13359 net.cpp:144] Setting up conv4
I0501 15:35:25.617161 13359 net.cpp:151] Top shape: 20 64 10 10 (128000)
I0501 15:35:25.617164 13359 net.cpp:159] Memory required for data: 10272080
I0501 15:35:25.617171 13359 layer_factory.hpp:77] Creating layer relu4
I0501 15:35:25.617177 13359 net.cpp:94] Creating Layer relu4
I0501 15:35:25.617180 13359 net.cpp:435] relu4 <- conv4
I0501 15:35:25.617184 13359 net.cpp:396] relu4 -> conv4 (in-place)
I0501 15:35:25.617192 13359 net.cpp:144] Setting up relu4
I0501 15:35:25.617197 13359 net.cpp:151] Top shape: 20 64 10 10 (128000)
I0501 15:35:25.617199 13359 net.cpp:159] Memory required for data: 10784080
I0501 15:35:25.617202 13359 layer_factory.hpp:77] Creating layer conv5
I0501 15:35:25.617210 13359 net.cpp:94] Creating Layer conv5
I0501 15:35:25.617213 13359 net.cpp:435] conv5 <- conv4
I0501 15:35:25.617218 13359 net.cpp:409] conv5 -> conv5
I0501 15:35:25.623251 13359 net.cpp:144] Setting up conv5
I0501 15:35:25.623265 13359 net.cpp:151] Top shape: 20 64 10 10 (128000)
I0501 15:35:25.623270 13359 net.cpp:159] Memory required for data: 11296080
I0501 15:35:25.623278 13359 layer_factory.hpp:77] Creating layer relu5
I0501 15:35:25.623283 13359 net.cpp:94] Creating Layer relu5
I0501 15:35:25.623287 13359 net.cpp:435] relu5 <- conv5
I0501 15:35:25.623291 13359 net.cpp:396] relu5 -> conv5 (in-place)
I0501 15:35:25.623298 13359 net.cpp:144] Setting up relu5
I0501 15:35:25.623303 13359 net.cpp:151] Top shape: 20 64 10 10 (128000)
I0501 15:35:25.623306 13359 net.cpp:159] Memory required for data: 11808080
I0501 15:35:25.623309 13359 layer_factory.hpp:77] Creating layer pool5
I0501 15:35:25.623314 13359 net.cpp:94] Creating Layer pool5
I0501 15:35:25.623317 13359 net.cpp:435] pool5 <- conv5
I0501 15:35:25.623322 13359 net.cpp:409] pool5 -> pool5
I0501 15:35:25.623363 13359 net.cpp:144] Setting up pool5
I0501 15:35:25.623369 13359 net.cpp:151] Top shape: 20 64 5 5 (32000)
I0501 15:35:25.623373 13359 net.cpp:159] Memory required for data: 11936080
I0501 15:35:25.623375 13359 layer_factory.hpp:77] Creating layer ip1
I0501 15:35:25.623385 13359 net.cpp:94] Creating Layer ip1
I0501 15:35:25.623389 13359 net.cpp:435] ip1 <- pool5
I0501 15:35:25.623394 13359 net.cpp:409] ip1 -> ip1
I0501 15:35:25.625911 13359 net.cpp:144] Setting up ip1
I0501 15:35:25.625919 13359 net.cpp:151] Top shape: 20 64 (1280)
I0501 15:35:25.625923 13359 net.cpp:159] Memory required for data: 11941200
I0501 15:35:25.625928 13359 layer_factory.hpp:77] Creating layer ip2
I0501 15:35:25.625934 13359 net.cpp:94] Creating Layer ip2
I0501 15:35:25.625941 13359 net.cpp:435] ip2 <- ip1
I0501 15:35:25.625946 13359 net.cpp:409] ip2 -> ip2
I0501 15:35:25.626152 13359 net.cpp:144] Setting up ip2
I0501 15:35:25.626159 13359 net.cpp:151] Top shape: 20 64 (1280)
I0501 15:35:25.626163 13359 net.cpp:159] Memory required for data: 11946320
I0501 15:35:25.626168 13359 layer_factory.hpp:77] Creating layer ip3
I0501 15:35:25.626173 13359 net.cpp:94] Creating Layer ip3
I0501 15:35:25.626176 13359 net.cpp:435] ip3 <- ip2
I0501 15:35:25.626180 13359 net.cpp:409] ip3 -> ip3
I0501 15:35:25.626284 13359 net.cpp:144] Setting up ip3
I0501 15:35:25.626291 13359 net.cpp:151] Top shape: 20 1 (20)
I0501 15:35:25.626293 13359 net.cpp:159] Memory required for data: 11946400
I0501 15:35:25.626298 13359 layer_factory.hpp:77] Creating layer loss
I0501 15:35:25.626308 13359 net.cpp:94] Creating Layer loss
I0501 15:35:25.626312 13359 net.cpp:435] loss <- ip3
I0501 15:35:25.626315 13359 net.cpp:435] loss <- label
I0501 15:35:25.626319 13359 net.cpp:409] loss -> loss
I0501 15:35:25.626368 13359 net.cpp:144] Setting up loss
…
I0501 15:35:25.754515 13359 net.cpp:323] The NetState phase (0) differed from the phase (1) specified by a rule in layer intercept
I0501 15:35:25.754530 13359 net.cpp:323] The NetState phase (0) differed from the phase (1) specified by a rule in layer accuracy
I0501 15:35:25.754616 13359 net.cpp:52] Initializing net from parameters: 
state {
  phase: TRAIN
}
layer {
  name: "parameters"
  type: "HDF5Data"
  top: "data"
  top: "label"
  include {
    phase: TRAIN
  }
  hdf5_data_param {
    source: "/home/purduethu/scratch/radon/d/deng106/CNNStatisticalModel/distributions/input/20_distributions_400_sample_size_train-distributions-path.txt"
    batch_size: 20
  }
}
layer {
  name: "conv1"
  type: "Convolution"
  bottom: "data"
  top: "conv1"
  param {
    lr_mult: 1
  }
  param {
    lr_mult: 2
  }
  convolution_param {
    num_output: 64
    pad: 2
    kernel_size: 5
    stride: 1
    weight_filler {
      type: "gaussian"
      std: 0.0001
    }
    bias_filler {
      type: "constant"
    }
  }
}
layer {
  name: "relu1"
  type: "ReLU"
  bottom: "conv1"
  top: "conv1"
}
layer {
  name: "conv2"
  type: "Convolution"
  bottom: "conv1"
  top: "conv2"
  param {
    lr_mult: 1
  }
  param {
    lr_mult: 2
  }
  convolution_param {
    num_output: 64
    pad: 2
    kernel_size: 5
    stride: 1
    weight_filler {
      type: "gaussian"
      std: 0.01
    }
    bias_filler {
      type: "constant"
    }
  }
}
layer {
  name: "relu2"
  type: "ReLU"
  bottom: "conv2"
  top: "conv2"
}
layer {
  name: "pool2"
  type: "Pooling"
  bottom: "conv2"
  top: "pool2"
  pooling_param {
    pool: MAX
    kernel_size: 3
    stride: 2
  }
}
layer {
  name: "conv3"
  type: "Convolution"
  bottom: "pool2"
  top: "conv3"
  param {
    lr_mult: 1
  }
  param {
    lr_mult: 2
  }
  convolution_param {
    num_output: 64
    pad: 2
    kernel_size: 5
    stride: 1
    weight_filler {
      type: "gaussian"
      std: 0.01
    }
    bias_filler {
      type: "constant"
    }
  }
}
layer {
  name: "relu3"
  type: "ReLU"
  bottom: "conv3"
  top: "conv3"
}
layer {
  name: "conv4"
  type: "Convolution"
  bottom: "conv3"
  top: "conv4"
  param {
    lr_mult: 1
  }
  param {
    lr_mult: 2
  }
  convolution_param {
    num_output: 64
    pad: 2
    kernel_size: 5
    stride: 1
    weight_filler {
      type: "gaussian"
      std: 0.01
    }
    bias_filler {
      type: "constant"
    }
  }
}
layer {
  name: "relu4"
  type: "ReLU"
  bottom: "conv4"
  top: "conv4"
}
layer {
  name: "conv5"
  type: "Convolution"
  bottom: "conv4"
  top: "conv5"
  param {
    lr_mult: 1
  }
  param {
    lr_mult: 2
  }
  convolution_param {
    num_output: 64
    pad: 2
    kernel_size: 5
    stride: 1
    weight_filler {
      type: "gaussian"
      std: 0.01
    }
    bias_filler {
      type: "constant"
    }
  }
}
layer {
  name: "relu5"
  type: "ReLU"
  bottom: "conv5"
  top: "conv5"
}
layer {
  name: "pool5"
  type: "Pooling"
  bottom: "conv5"
  top: "pool5"
  pooling_param {
    pool: AVE
    kernel_size: 3
    stride: 2
  }
}
layer {
  name: "ip1"
  type: "InnerProduct"
  bottom: "pool5"
  top: "ip1"
  param {
    lr_mult: 1
  }
  param {
    lr_mult: 2
  }
  inner_product_param {
    num_output: 64
    weight_filler {
      type: "gaussian"
      std: 0.1
    }
    bias_filler {
      type: "constant"
    }
  }
}
layer {
  name: "ip2"
  type: "InnerProduct"
  bottom: "ip1"
  top: "ip2"
  param {
    lr_mult: 1
  }
  param {
    lr_mult: 2
  }
  inner_product_param {
    num_output: 64
    weight_filler {
      type: "gaussian"
      std: 0.1
    }
    bias_filler {
      type: "constant"
    }
  }
}
layer {
  name: "ip3"
  type: "InnerProduct"
  bottom: "ip2"
  top: "ip3"
  param {
    lr_mult: 1
  }
  param {
    lr_mult: 2
  }
  inner_product_param {
    num_output: 50
    weight_filler {
      type: "gaussian"
      std: 0.1
    }
    bias_filler {
      type: "constant"
    }
  }
}
layer {
  name: "loss"
  type: "SoftmaxWithLoss"
  bottom: "ip3"
  bottom: "label"
  top: "loss"
}
I0501 15:35:25.754663 13359 layer_factory.hpp:77] Creating layer parameters
I0501 15:35:25.754672 13359 net.cpp:94] Creating Layer parameters
I0501 15:35:25.754675 13359 net.cpp:409] parameters -> data
I0501 15:35:25.754683 13359 net.cpp:409] parameters -> label
I0501 15:35:25.754688 13359 hdf5_data_layer.cpp:79] Loading list of HDF5 filenames from: /home/purduethu/scratch/radon/d/deng106/CNNStatisticalModel/distributions/input/20_distributions_400_sample_size_train-distributions-path.txt
I0501 15:35:25.754781 13359 hdf5_data_layer.cpp:93] Number of HDF5 files: 1
I0501 15:35:26.147325 13359 hdf5.cpp:35] Datatype class: H5T_INTEGER
I0501 15:35:26.148223 13359 net.cpp:144] Setting up parameters
I0501 15:35:26.148239 13359 net.cpp:151] Top shape: 20 1 20 20 (8000)
I0501 15:35:26.148244 13359 net.cpp:151] Top shape: 20 (20)
I0501 15:35:26.148247 13359 net.cpp:159] Memory required for data: 32080
I0501 15:35:26.148253 13359 layer_factory.hpp:77] Creating layer conv1
I0501 15:35:26.148269 13359 net.cpp:94] Creating Layer conv1
I0501 15:35:26.148273 13359 net.cpp:435] conv1 <- data
I0501 15:35:26.148279 13359 net.cpp:409] conv1 -> conv1
I0501 15:35:26.151175 13359 net.cpp:144] Setting up conv1
I0501 15:35:26.151190 13359 net.cpp:151] Top shape: 20 64 20 20 (512000)
I0501 15:35:26.151193 13359 net.cpp:159] Memory required for data: 2080080
I0501 15:35:26.151203 13359 layer_factory.hpp:77] Creating layer relu1
I0501 15:35:26.151211 13359 net.cpp:94] Creating Layer relu1
I0501 15:35:26.151214 13359 net.cpp:435] relu1 <- conv1
I0501 15:35:26.151218 13359 net.cpp:396] relu1 -> conv1 (in-place)
I0501 15:35:26.151226 13359 net.cpp:144] Setting up relu1
I0501 15:35:26.151231 13359 net.cpp:151] Top shape: 20 64 20 20 (512000)
I0501 15:35:26.151233 13359 net.cpp:159] Memory required for data: 4128080
I0501 15:35:26.151237 13359 layer_factory.hpp:77] Creating layer conv2
I0501 15:35:26.151244 13359 net.cpp:94] Creating Layer conv2
I0501 15:35:26.151247 13359 net.cpp:435] conv2 <- conv1
I0501 15:35:26.151252 13359 net.cpp:409] conv2 -> conv2
I0501 15:35:26.161761 13359 net.cpp:144] Setting up conv2
I0501 15:35:26.161777 13359 net.cpp:151] Top shape: 20 64 20 20 (512000)
I0501 15:35:26.161780 13359 net.cpp:159] Memory required for data: 6176080
I0501 15:35:26.161789 13359 layer_factory.hpp:77] Creating layer relu2
I0501 15:35:26.161795 13359 net.cpp:94] Creating Layer relu2
I0501 15:35:26.161799 13359 net.cpp:435] relu2 <- conv2
I0501 15:35:26.161803 13359 net.cpp:396] relu2 -> conv2 (in-place)
I0501 15:35:26.161810 13359 net.cpp:144] Setting up relu2
I0501 15:35:26.161815 13359 net.cpp:151] Top shape: 20 64 20 20 (512000)
I0501 15:35:26.161818 13359 net.cpp:159] Memory required for data: 8224080
I0501 15:35:26.161820 13359 layer_factory.hpp:77] Creating layer pool2
I0501 15:35:26.161828 13359 net.cpp:94] Creating Layer pool2
I0501 15:35:26.161830 13359 net.cpp:435] pool2 <- conv2
I0501 15:35:26.161834 13359 net.cpp:409] pool2 -> pool2
I0501 15:35:26.161890 13359 net.cpp:144] Setting up pool2
I0501 15:35:26.161896 13359 net.cpp:151] Top shape: 20 64 10 10 (128000)
I0501 15:35:26.161900 13359 net.cpp:159] Memory required for data: 8736080
I0501 15:35:26.161902 13359 layer_factory.hpp:77] Creating layer conv3
I0501 15:35:26.161911 13359 net.cpp:94] Creating Layer conv3
I0501 15:35:26.161913 13359 net.cpp:435] conv3 <- pool2
I0501 15:35:26.161926 13359 net.cpp:409] conv3 -> conv3
I0501 15:35:26.168232 13359 net.cpp:144] Setting up conv3
I0501 15:35:26.168246 13359 net.cpp:151] Top shape: 20 64 10 10 (128000)
I0501 15:35:26.168251 13359 net.cpp:159] Memory required for data: 9248080
I0501 15:35:26.168258 13359 layer_factory.hpp:77] Creating layer relu3
I0501 15:35:26.168264 13359 net.cpp:94] Creating Layer relu3
I0501 15:35:26.168267 13359 net.cpp:435] relu3 <- conv3
I0501 15:35:26.168272 13359 net.cpp:396] relu3 -> conv3 (in-place)
I0501 15:35:26.168279 13359 net.cpp:144] Setting up relu3
I0501 15:35:26.168283 13359 net.cpp:151] Top shape: 20 64 10 10 (128000)
I0501 15:35:26.168287 13359 net.cpp:159] Memory required for data: 9760080
I0501 15:35:26.168289 13359 layer_factory.hpp:77] Creating layer conv4
I0501 15:35:26.168298 13359 net.cpp:94] Creating Layer conv4
I0501 15:35:26.168301 13359 net.cpp:435] conv4 <- conv3
I0501 15:35:26.168305 13359 net.cpp:409] conv4 -> conv4
I0501 15:35:26.173751 13359 net.cpp:144] Setting up conv4
I0501 15:35:26.173764 13359 net.cpp:151] Top shape: 20 64 10 10 (128000)
I0501 15:35:26.173768 13359 net.cpp:159] Memory required for data: 10272080
I0501 15:35:26.173774 13359 layer_factory.hpp:77] Creating layer relu4
I0501 15:35:26.173780 13359 net.cpp:94] Creating Layer relu4
I0501 15:35:26.173784 13359 net.cpp:435] relu4 <- conv4
I0501 15:35:26.173789 13359 net.cpp:396] relu4 -> conv4 (in-place)
I0501 15:35:26.173795 13359 net.cpp:144] Setting up relu4
I0501 15:35:26.173799 13359 net.cpp:151] Top shape: 20 64 10 10 (128000)
I0501 15:35:26.173802 13359 net.cpp:159] Memory required for data: 10784080
I0501 15:35:26.173805 13359 layer_factory.hpp:77] Creating layer conv5
I0501 15:35:26.173813 13359 net.cpp:94] Creating Layer conv5
I0501 15:35:26.173816 13359 net.cpp:435] conv5 <- conv4
I0501 15:35:26.173821 13359 net.cpp:409] conv5 -> conv5
I0501 15:35:26.179237 13359 net.cpp:144] Setting up conv5
I0501 15:35:26.179251 13359 net.cpp:151] Top shape: 20 64 10 10 (128000)
I0501 15:35:26.179255 13359 net.cpp:159] Memory required for data: 11296080
I0501 15:35:26.179263 13359 layer_factory.hpp:77] Creating layer relu5
I0501 15:35:26.179270 13359 net.cpp:94] Creating Layer relu5
I0501 15:35:26.179272 13359 net.cpp:435] relu5 <- conv5
I0501 15:35:26.179277 13359 net.cpp:396] relu5 -> conv5 (in-place)
I0501 15:35:26.179285 13359 net.cpp:144] Setting up relu5
I0501 15:35:26.179288 13359 net.cpp:151] Top shape: 20 64 10 10 (128000)
I0501 15:35:26.179291 13359 net.cpp:159] Memory required for data: 11808080
I0501 15:35:26.179294 13359 layer_factory.hpp:77] Creating layer pool5
I0501 15:35:26.179299 13359 net.cpp:94] Creating Layer pool5
I0501 15:35:26.179302 13359 net.cpp:435] pool5 <- conv5
I0501 15:35:26.179307 13359 net.cpp:409] pool5 -> pool5
I0501 15:35:26.179343 13359 net.cpp:144] Setting up pool5
I0501 15:35:26.179350 13359 net.cpp:151] Top shape: 20 64 5 5 (32000)
I0501 15:35:26.179354 13359 net.cpp:159] Memory required for data: 11936080
I0501 15:35:26.179358 13359 layer_factory.hpp:77] Creating layer ip1
I0501 15:35:26.179364 13359 net.cpp:94] Creating Layer ip1
I0501 15:35:26.179368 13359 net.cpp:435] ip1 <- pool5
I0501 15:35:26.179373 13359 net.cpp:409] ip1 -> ip1
I0501 15:35:26.181918 13359 net.cpp:144] Setting up ip1
I0501 15:35:26.181927 13359 net.cpp:151] Top shape: 20 64 (1280)
I0501 15:35:26.181931 13359 net.cpp:159] Memory required for data: 11941200
I0501 15:35:26.181936 13359 layer_factory.hpp:77] Creating layer ip2
I0501 15:35:26.181942 13359 net.cpp:94] Creating Layer ip2
I0501 15:35:26.181946 13359 net.cpp:435] ip2 <- ip1
I0501 15:35:26.181951 13359 net.cpp:409] ip2 -> ip2
I0501 15:35:26.182170 13359 net.cpp:144] Setting up ip2
I0501 15:35:26.182178 13359 net.cpp:151] Top shape: 20 64 (1280)
I0501 15:35:26.182180 13359 net.cpp:159] Memory required for data: 11946320
I0501 15:35:26.182185 13359 layer_factory.hpp:77] Creating layer ip3
I0501 15:35:26.182190 13359 net.cpp:94] Creating Layer ip3
I0501 15:35:26.182193 13359 net.cpp:435] ip3 <- ip2
I0501 15:35:26.182199 13359 net.cpp:409] ip3 -> ip3
I0501 15:35:26.182399 13359 net.cpp:144] Setting up ip3
I0501 15:35:26.182406 13359 net.cpp:151] Top shape: 20 50 (1000)
I0501 15:35:26.182410 13359 net.cpp:159] Memory required for data: 11950320
I0501 15:35:26.182415 13359 layer_factory.hpp:77] Creating layer loss
I0501 15:35:26.182420 13359 net.cpp:94] Creating Layer loss
I0501 15:35:26.182423 13359 net.cpp:435] loss <- ip3
I0501 15:35:26.182427 13359 net.cpp:435] loss <- label
I0501 15:35:26.182431 13359 net.cpp:409] loss -> loss
I0501 15:35:26.182438 13359 layer_factory.hpp:77] Creating layer loss
…
I0501 15:35:26.182962 13359 solver.cpp:181] Creating test net (#0) specified by net file: ./protocol/dis_20_400_dimension.protocol_distribution
I0501 15:35:26.182988 13359 net.cpp:323] The NetState phase (1) differed from the phase (0) specified by a rule in layer parameters
I0501 15:35:26.183085 13359 net.cpp:52] Initializing net from parameters: 
state {
  phase: TEST
}
layer {
  name: "intercept"
  type: "HDF5Data"
  top: "data"
  top: "label"
  include {
    phase: TEST
  }
  hdf5_data_param {
    source: "/home/purduethu/scratch/radon/d/deng106/CNNStatisticalModel/distributions/input/20_distributions_400_sample_size_test-distributions-path.txt"
    batch_size: 20
  }
}
layer {
  name: "conv1"
  type: "Convolution"
  bottom: "data"
  top: "conv1"
  param {
    lr_mult: 1
  }
  param {
    lr_mult: 2
  }
  convolution_param {
    num_output: 64
    pad: 2
    kernel_size: 5
    stride: 1
    weight_filler {
      type: "gaussian"
      std: 0.0001
    }
    bias_filler {
      type: "constant"
    }
  }
}
layer {
  name: "relu1"
  type: "ReLU"
  bottom: "conv1"
  top: "conv1"
}
layer {
  name: "conv2"
  type: "Convolution"
  bottom: "conv1"
  top: "conv2"
  param {
    lr_mult: 1
  }
  param {
    lr_mult: 2
  }
  convolution_param {
    num_output: 64
    pad: 2
    kernel_size: 5
    stride: 1
    weight_filler {
      type: "gaussian"
      std: 0.01
    }
    bias_filler {
      type: "constant"
    }
  }
}
layer {
  name: "relu2"
  type: "ReLU"
  bottom: "conv2"
  top: "conv2"
}
layer {
  name: "pool2"
  type: "Pooling"
  bottom: "conv2"
  top: "pool2"
  pooling_param {
    pool: MAX
    kernel_size: 3
    stride: 2
  }
}
layer {
  name: "conv3"
  type: "Convolution"
  bottom: "pool2"
  top: "conv3"
  param {
    lr_mult: 1
  }
  param {
    lr_mult: 2
  }
  convolution_param {
    num_output: 64
    pad: 2
    kernel_size: 5
    stride: 1
    weight_filler {
      type: "gaussian"
      std: 0.01
    }
    bias_filler {
      type: "constant"
    }
  }
}
layer {
  name: "relu3"
  type: "ReLU"
  bottom: "conv3"
  top: "conv3"
}
layer {
  name: "conv4"
  type: "Convolution"
  bottom: "conv3"
  top: "conv4"
  param {
    lr_mult: 1
  }
  param {
    lr_mult: 2
  }
  convolution_param {
    num_output: 64
    pad: 2
    kernel_size: 5
    stride: 1
    weight_filler {
      type: "gaussian"
      std: 0.01
    }
    bias_filler {
      type: "constant"
    }
  }
}
layer {
  name: "relu4"
  type: "ReLU"
  bottom: "conv4"
  top: "conv4"
}
layer {
  name: "conv5"
  type: "Convolution"
  bottom: "conv4"
  top: "conv5"
  param {
    lr_mult: 1
  }
  param {
    lr_mult: 2
  }
  convolution_param {
    num_output: 64
    pad: 2
    kernel_size: 5
    stride: 1
    weight_filler {
      type: "gaussian"
      std: 0.01
    }
    bias_filler {
      type: "constant"
    }
  }
}
layer {
  name: "relu5"
  type: "ReLU"
  bottom: "conv5"
  top: "conv5"
}
layer {
  name: "pool5"
  type: "Pooling"
  bottom: "conv5"
  top: "pool5"
  pooling_param {
    pool: AVE
    kernel_size: 3
    stride: 2
  }
}
layer {
  name: "ip1"
  type: "InnerProduct"
  bottom: "pool5"
  top: "ip1"
  param {
    lr_mult: 1
  }
  param {
    lr_mult: 2
  }
  inner_product_param {
    num_output: 64
    weight_filler {
      type: "gaussian"
      std: 0.1
    }
    bias_filler {
      type: "constant"
    }
  }
}
layer {
  name: "ip2"
  type: "InnerProduct"
  bottom: "ip1"
  top: "ip2"
  param {
    lr_mult: 1
  }
  param {
    lr_mult: 2
  }
  inner_product_param {
    num_output: 64
    weight_filler {
      type: "gaussian"
      std: 0.1
    }
    bias_filler {
      type: "constant"
    }
  }
}
layer {
  name: "ip3"
  type: "InnerProduct"
  bottom: "ip2"
  top: "ip3"
  param {
    lr_mult: 1
  }
  param {
    lr_mult: 2
  }
  inner_product_param {
    num_output: 50
    weight_filler {
      type: "gaussian"
      std: 0.1
    }
    bias_filler {
      type: "constant"
    }
  }
}
layer {
  name: "accuracy"
  type: "Accuracy"
  bottom: "ip3"
  bottom: "label"
  top: "accuracy"
  include {
    phase: TEST
  }
}
layer {
  name: "loss"
  type: "SoftmaxWithLoss"
  bottom: "ip3"
  bottom: "label"
  top: "loss"
}
I0501 15:35:26.183151 13359 layer_factory.hpp:77] Creating layer intercept
I0501 15:35:26.183161 13359 net.cpp:94] Creating Layer intercept
I0501 15:35:26.183164 13359 net.cpp:409] intercept -> data
I0501 15:35:26.183171 13359 net.cpp:409] intercept -> label
I0501 15:35:26.183177 13359 hdf5_data_layer.cpp:79] Loading list of HDF5 filenames from: /home/purduethu/scratch/radon/d/deng106/CNNStatisticalModel/distributions/input/20_distributions_400_sample_size_test-distributions-path.txt
I0501 15:35:26.183279 13359 hdf5_data_layer.cpp:93] Number of HDF5 files: 1
I0501 15:35:26.282367 13359 net.cpp:144] Setting up intercept
I0501 15:35:26.282400 13359 net.cpp:151] Top shape: 20 1 20 20 (8000)
I0501 15:35:26.282405 13359 net.cpp:151] Top shape: 20 (20)
I0501 15:35:26.282408 13359 net.cpp:159] Memory required for data: 32080
I0501 15:35:26.282414 13359 layer_factory.hpp:77] Creating layer label_intercept_1_split
I0501 15:35:26.282433 13359 net.cpp:94] Creating Layer label_intercept_1_split
I0501 15:35:26.282438 13359 net.cpp:435] label_intercept_1_split <- label
I0501 15:35:26.282444 13359 net.cpp:409] label_intercept_1_split -> label_intercept_1_split_0
I0501 15:35:26.282451 13359 net.cpp:409] label_intercept_1_split -> label_intercept_1_split_1
I0501 15:35:26.282492 13359 net.cpp:144] Setting up label_intercept_1_split
I0501 15:35:26.282498 13359 net.cpp:151] Top shape: 20 (20)
I0501 15:35:26.282502 13359 net.cpp:151] Top shape: 20 (20)
I0501 15:35:26.282505 13359 net.cpp:159] Memory required for data: 32240
I0501 15:35:26.282508 13359 layer_factory.hpp:77] Creating layer conv1
I0501 15:35:26.282519 13359 net.cpp:94] Creating Layer conv1
I0501 15:35:26.282522 13359 net.cpp:435] conv1 <- data
I0501 15:35:26.282527 13359 net.cpp:409] conv1 -> conv1
I0501 15:35:26.283891 13359 net.cpp:144] Setting up conv1
I0501 15:35:26.283910 13359 net.cpp:151] Top shape: 20 64 20 20 (512000)
I0501 15:35:26.283915 13359 net.cpp:159] Memory required for data: 2080240
I0501 15:35:26.283926 13359 layer_factory.hpp:77] Creating layer relu1
I0501 15:35:26.283931 13359 net.cpp:94] Creating Layer relu1
I0501 15:35:26.283936 13359 net.cpp:435] relu1 <- conv1
I0501 15:35:26.283939 13359 net.cpp:396] relu1 -> conv1 (in-place)
I0501 15:35:26.283947 13359 net.cpp:144] Setting up relu1
I0501 15:35:26.283951 13359 net.cpp:151] Top shape: 20 64 20 20 (512000)
I0501 15:35:26.283954 13359 net.cpp:159] Memory required for data: 4128240
I0501 15:35:26.283957 13359 layer_factory.hpp:77] Creating layer conv2
I0501 15:35:26.283965 13359 net.cpp:94] Creating Layer conv2
I0501 15:35:26.283969 13359 net.cpp:435] conv2 <- conv1
I0501 15:35:26.283974 13359 net.cpp:409] conv2 -> conv2
I0501 15:35:26.289057 13359 net.cpp:144] Setting up conv2
I0501 15:35:26.289072 13359 net.cpp:151] Top shape: 20 64 20 20 (512000)
I0501 15:35:26.289075 13359 net.cpp:159] Memory required for data: 6176240
I0501 15:35:26.289083 13359 layer_factory.hpp:77] Creating layer relu2
I0501 15:35:26.289089 13359 net.cpp:94] Creating Layer relu2
I0501 15:35:26.289093 13359 net.cpp:435] relu2 <- conv2
I0501 15:35:26.289096 13359 net.cpp:396] relu2 -> conv2 (in-place)
I0501 15:35:26.289103 13359 net.cpp:144] Setting up relu2
I0501 15:35:26.289108 13359 net.cpp:151] Top shape: 20 64 20 20 (512000)
I0501 15:35:26.289110 13359 net.cpp:159] Memory required for data: 8224240
I0501 15:35:26.289113 13359 layer_factory.hpp:77] Creating layer pool2
I0501 15:35:26.289119 13359 net.cpp:94] Creating Layer pool2
I0501 15:35:26.289122 13359 net.cpp:435] pool2 <- conv2
I0501 15:35:26.289126 13359 net.cpp:409] pool2 -> pool2
I0501 15:35:26.289178 13359 net.cpp:144] Setting up pool2
I0501 15:35:26.289186 13359 net.cpp:151] Top shape: 20 64 10 10 (128000)
I0501 15:35:26.289188 13359 net.cpp:159] Memory required for data: 8736240
I0501 15:35:26.289191 13359 layer_factory.hpp:77] Creating layer conv3
I0501 15:35:26.289199 13359 net.cpp:94] Creating Layer conv3
I0501 15:35:26.289203 13359 net.cpp:435] conv3 <- pool2
I0501 15:35:26.289208 13359 net.cpp:409] conv3 -> conv3
I0501 15:35:26.293980 13359 net.cpp:144] Setting up conv3
I0501 15:35:26.293994 13359 net.cpp:151] Top shape: 20 64 10 10 (128000)
I0501 15:35:26.293998 13359 net.cpp:159] Memory required for data: 9248240
I0501 15:35:26.294008 13359 layer_factory.hpp:77] Creating layer relu3
I0501 15:35:26.294013 13359 net.cpp:94] Creating Layer relu3
I0501 15:35:26.294018 13359 net.cpp:435] relu3 <- conv3
I0501 15:35:26.294021 13359 net.cpp:396] relu3 -> conv3 (in-place)
I0501 15:35:26.294028 13359 net.cpp:144] Setting up relu3
I0501 15:35:26.294033 13359 net.cpp:151] Top shape: 20 64 10 10 (128000)
I0501 15:35:26.294035 13359 net.cpp:159] Memory required for data: 9760240
I0501 15:35:26.294039 13359 layer_factory.hpp:77] Creating layer conv4
I0501 15:35:26.294046 13359 net.cpp:94] Creating Layer conv4
I0501 15:35:26.294049 13359 net.cpp:435] conv4 <- conv3
I0501 15:35:26.294054 13359 net.cpp:409] conv4 -> conv4
I0501 15:35:26.297607 13359 net.cpp:144] Setting up conv4
I0501 15:35:26.297621 13359 net.cpp:151] Top shape: 20 64 10 10 (128000)
I0501 15:35:26.297624 13359 net.cpp:159] Memory required for data: 10272240
I0501 15:35:26.297631 13359 layer_factory.hpp:77] Creating layer relu4
I0501 15:35:26.297636 13359 net.cpp:94] Creating Layer relu4
I0501 15:35:26.297639 13359 net.cpp:435] relu4 <- conv4
I0501 15:35:26.297644 13359 net.cpp:396] relu4 -> conv4 (in-place)
I0501 15:35:26.297652 13359 net.cpp:144] Setting up relu4
I0501 15:35:26.297655 13359 net.cpp:151] Top shape: 20 64 10 10 (128000)
I0501 15:35:26.297658 13359 net.cpp:159] Memory required for data: 10784240
I0501 15:35:26.297662 13359 layer_factory.hpp:77] Creating layer conv5
I0501 15:35:26.297668 13359 net.cpp:94] Creating Layer conv5
I0501 15:35:26.297672 13359 net.cpp:435] conv5 <- conv4
I0501 15:35:26.297677 13359 net.cpp:409] conv5 -> conv5
I0501 15:35:26.301678 13359 net.cpp:144] Setting up conv5
I0501 15:35:26.301695 13359 net.cpp:151] Top shape: 20 64 10 10 (128000)
I0501 15:35:26.301700 13359 net.cpp:159] Memory required for data: 11296240
I0501 15:35:26.301708 13359 layer_factory.hpp:77] Creating layer relu5
I0501 15:35:26.301714 13359 net.cpp:94] Creating Layer relu5
I0501 15:35:26.301717 13359 net.cpp:435] relu5 <- conv5
I0501 15:35:26.301723 13359 net.cpp:396] relu5 -> conv5 (in-place)
I0501 15:35:26.301728 13359 net.cpp:144] Setting up relu5
I0501 15:35:26.301733 13359 net.cpp:151] Top shape: 20 64 10 10 (128000)
I0501 15:35:26.301735 13359 net.cpp:159] Memory required for data: 11808240
I0501 15:35:26.301738 13359 layer_factory.hpp:77] Creating layer pool5
I0501 15:35:26.301743 13359 net.cpp:94] Creating Layer pool5
I0501 15:35:26.301746 13359 net.cpp:435] pool5 <- conv5
I0501 15:35:26.301750 13359 net.cpp:409] pool5 -> pool5
I0501 15:35:26.301789 13359 net.cpp:144] Setting up pool5
I0501 15:35:26.301795 13359 net.cpp:151] Top shape: 20 64 5 5 (32000)
I0501 15:35:26.301797 13359 net.cpp:159] Memory required for data: 11936240
I0501 15:35:26.301800 13359 layer_factory.hpp:77] Creating layer ip1
I0501 15:35:26.301807 13359 net.cpp:94] Creating Layer ip1
I0501 15:35:26.301811 13359 net.cpp:435] ip1 <- pool5
I0501 15:35:26.301815 13359 net.cpp:409] ip1 -> ip1
I0501 15:35:26.304361 13359 net.cpp:144] Setting up ip1
I0501 15:35:26.304368 13359 net.cpp:151] Top shape: 20 64 (1280)
I0501 15:35:26.304371 13359 net.cpp:159] Memory required for data: 11941360
I0501 15:35:26.304378 13359 layer_factory.hpp:77] Creating layer ip2
I0501 15:35:26.304385 13359 net.cpp:94] Creating Layer ip2
I0501 15:35:26.304389 13359 net.cpp:435] ip2 <- ip1
I0501 15:35:26.304394 13359 net.cpp:409] ip2 -> ip2
I0501 15:35:26.304654 13359 net.cpp:144] Setting up ip2
I0501 15:35:26.304664 13359 net.cpp:151] Top shape: 20 64 (1280)
I0501 15:35:26.304667 13359 net.cpp:159] Memory required for data: 11946480
I0501 15:35:26.304673 13359 layer_factory.hpp:77] Creating layer ip3
I0501 15:35:26.304680 13359 net.cpp:94] Creating Layer ip3
I0501 15:35:26.304683 13359 net.cpp:435] ip3 <- ip2
I0501 15:35:26.304689 13359 net.cpp:409] ip3 -> ip3
I0501 15:35:26.304900 13359 net.cpp:144] Setting up ip3
I0501 15:35:26.304908 13359 net.cpp:151] Top shape: 20 50 (1000)
I0501 15:35:26.304910 13359 net.cpp:159] Memory required for data: 11950480
I0501 15:35:26.304915 13359 layer_factory.hpp:77] Creating layer ip3_ip3_0_split
I0501 15:35:26.304920 13359 net.cpp:94] Creating Layer ip3_ip3_0_split
I0501 15:35:26.304924 13359 net.cpp:435] ip3_ip3_0_split <- ip3
I0501 15:35:26.304929 13359 net.cpp:409] ip3_ip3_0_split -> ip3_ip3_0_split_0
I0501 15:35:26.304934 13359 net.cpp:409] ip3_ip3_0_split -> ip3_ip3_0_split_1
I0501 15:35:26.304976 13359 net.cpp:144] Setting up ip3_ip3_0_split
I0501 15:35:26.304983 13359 net.cpp:151] Top shape: 20 50 (1000)
I0501 15:35:26.304987 13359 net.cpp:151] Top shape: 20 50 (1000)
I0501 15:35:26.304989 13359 net.cpp:159] Memory required for data: 11958480
I0501 15:35:26.304992 13359 layer_factory.hpp:77] Creating layer accuracy
I0501 15:35:26.304999 13359 net.cpp:94] Creating Layer accuracy
I0501 15:35:26.305002 13359 net.cpp:435] accuracy <- ip3_ip3_0_split_0
I0501 15:35:26.305006 13359 net.cpp:435] accuracy <- label_intercept_1_split_0
I0501 15:35:26.305011 13359 net.cpp:409] accuracy -> accuracy
…
