…
I0504 10:19:37.388368 26144 net.cpp:323] The NetState phase (0) differed from the phase (1) specified by a rule in layer intercept
I0504 10:19:37.388386 26144 net.cpp:323] The NetState phase (0) differed from the phase (1) specified by a rule in layer loss
I0504 10:19:37.388463 26144 net.cpp:52] Initializing net from parameters: 
state {
  phase: TRAIN
}
layer {
  name: "parameters"
  type: "HDF5Data"
  top: "data"
  top: "label"
  include {
    phase: TRAIN
  }
  hdf5_data_param {
    source: "/home/purduethu/scratch/radon/d/deng106/CNNStatisticalModel/distributions/input/5_distributions_400_sample_size_train-parameters-path.txt"
    batch_size: 20
  }
}
layer {
  name: "conv1"
  type: "Convolution"
  bottom: "data"
  top: "conv1"
  param {
    lr_mult: 1
  }
  param {
    lr_mult: 2
  }
  convolution_param {
    num_output: 64
    pad: 2
    kernel_size: 5
    stride: 1
    weight_filler {
      type: "gaussian"
      std: 0.0001
    }
    bias_filler {
      type: "constant"
    }
  }
}
layer {
  name: "relu1"
  type: "ReLU"
  bottom: "conv1"
  top: "conv1"
}
layer {
  name: "conv2"
  type: "Convolution"
  bottom: "conv1"
  top: "conv2"
  param {
    lr_mult: 1
  }
  param {
    lr_mult: 2
  }
  convolution_param {
    num_output: 64
    pad: 2
    kernel_size: 5
    stride: 1
    weight_filler {
      type: "gaussian"
      std: 0.01
    }
    bias_filler {
      type: "constant"
    }
  }
}
layer {
  name: "relu2"
  type: "ReLU"
  bottom: "conv2"
  top: "conv2"
}
layer {
  name: "pool2"
  type: "Pooling"
  bottom: "conv2"
  top: "pool2"
  pooling_param {
    pool: MAX
    kernel_size: 3
    stride: 2
  }
}
layer {
  name: "conv3"
  type: "Convolution"
  bottom: "pool2"
  top: "conv3"
  param {
    lr_mult: 1
  }
  param {
    lr_mult: 2
  }
  convolution_param {
    num_output: 128
    pad: 2
    kernel_size: 5
    stride: 1
    weight_filler {
      type: "gaussian"
      std: 0.01
    }
    bias_filler {
      type: "constant"
    }
  }
}
layer {
  name: "relu3"
  type: "ReLU"
  bottom: "conv3"
  top: "conv3"
}
layer {
  name: "conv4"
  type: "Convolution"
  bottom: "conv3"
  top: "conv4"
  param {
    lr_mult: 1
  }
  param {
    lr_mult: 2
  }
  convolution_param {
    num_output: 128
    pad: 2
    kernel_size: 5
    stride: 1
    weight_filler {
      type: "gaussian"
      std: 0.01
    }
    bias_filler {
      type: "constant"
    }
  }
}
layer {
  name: "relu4"
  type: "ReLU"
  bottom: "conv4"
  top: "conv4"
}
layer {
  name: "conv5"
  type: "Convolution"
  bottom: "conv4"
  top: "conv5"
  param {
    lr_mult: 1
  }
  param {
    lr_mult: 2
  }
  convolution_param {
    num_output: 128
    pad: 2
    kernel_size: 5
    stride: 1
    weight_filler {
      type: "gaussian"
      std: 0.01
    }
    bias_filler {
      type: "constant"
    }
  }
}
layer {
  name: "relu5"
  type: "ReLU"
  bottom: "conv5"
  top: "conv5"
}
layer {
  name: "pool5"
  type: "Pooling"
  bottom: "conv5"
  top: "pool5"
  pooling_param {
    pool: AVE
    kernel_size: 3
    stride: 2
  }
}
layer {
  name: "ip1"
  type: "InnerProduct"
  bottom: "pool5"
  top: "ip1"
  param {
    lr_mult: 1
  }
  param {
    lr_mult: 2
  }
  inner_product_param {
    num_output: 1024
    weight_filler {
      type: "gaussian"
      std: 0.1
    }
    bias_filler {
      type: "constant"
    }
  }
}
layer {
  name: "ip2"
  type: "InnerProduct"
  bottom: "ip1"
  top: "ip2"
  param {
    lr_mult: 1
  }
  param {
    lr_mult: 2
  }
  inner_product_param {
    num_output: 512
    weight_filler {
      type: "gaussian"
      std: 0.1
    }
    bias_filler {
      type: "constant"
    }
  }
}
layer {
  name: "ip3"
  type: "InnerProduct"
  bottom: "ip2"
  top: "ip3"
  param {
    lr_mult: 1
  }
  param {
    lr_mult: 2
  }
  inner_product_param {
    num_output: 1
    weight_filler {
      type: "gaussian"
      std: 0.1
    }
    bias_filler {
      type: "constant"
    }
  }
}
layer {
  name: "loss"
  type: "HuberLoss"
  bottom: "ip3"
  bottom: "label"
  top: "loss"
  include {
    phase: TRAIN
  }
}
I0504 10:19:37.388517 26144 layer_factory.hpp:77] Creating layer parameters
I0504 10:19:37.388530 26144 net.cpp:94] Creating Layer parameters
I0504 10:19:37.388535 26144 net.cpp:409] parameters -> data
I0504 10:19:37.388545 26144 net.cpp:409] parameters -> label
I0504 10:19:37.388572 26144 hdf5_data_layer.cpp:79] Loading list of HDF5 filenames from: /home/purduethu/scratch/radon/d/deng106/CNNStatisticalModel/distributions/input/5_distributions_400_sample_size_train-parameters-path.txt
I0504 10:19:37.388589 26144 hdf5_data_layer.cpp:93] Number of HDF5 files: 1
I0504 10:19:37.389113 26144 hdf5.cpp:32] Datatype class: H5T_FLOAT
I0504 10:19:37.451766 26144 net.cpp:144] Setting up parameters
I0504 10:19:37.451797 26144 net.cpp:151] Top shape: 20 1 20 20 (8000)
I0504 10:19:37.451802 26144 net.cpp:151] Top shape: 20 (20)
I0504 10:19:37.451805 26144 net.cpp:159] Memory required for data: 32080
I0504 10:19:37.451812 26144 layer_factory.hpp:77] Creating layer conv1
I0504 10:19:37.451827 26144 net.cpp:94] Creating Layer conv1
I0504 10:19:37.451831 26144 net.cpp:435] conv1 <- data
I0504 10:19:37.451838 26144 net.cpp:409] conv1 -> conv1
I0504 10:19:37.457350 26144 net.cpp:144] Setting up conv1
I0504 10:19:37.457365 26144 net.cpp:151] Top shape: 20 64 20 20 (512000)
I0504 10:19:37.457370 26144 net.cpp:159] Memory required for data: 2080080
I0504 10:19:37.457379 26144 layer_factory.hpp:77] Creating layer relu1
I0504 10:19:37.457386 26144 net.cpp:94] Creating Layer relu1
I0504 10:19:37.457391 26144 net.cpp:435] relu1 <- conv1
I0504 10:19:37.457394 26144 net.cpp:396] relu1 -> conv1 (in-place)
I0504 10:19:37.457404 26144 net.cpp:144] Setting up relu1
I0504 10:19:37.457409 26144 net.cpp:151] Top shape: 20 64 20 20 (512000)
I0504 10:19:37.457412 26144 net.cpp:159] Memory required for data: 4128080
I0504 10:19:37.457415 26144 layer_factory.hpp:77] Creating layer conv2
I0504 10:19:37.457423 26144 net.cpp:94] Creating Layer conv2
I0504 10:19:37.457427 26144 net.cpp:435] conv2 <- conv1
I0504 10:19:37.457432 26144 net.cpp:409] conv2 -> conv2
I0504 10:19:37.468343 26144 net.cpp:144] Setting up conv2
I0504 10:19:37.468382 26144 net.cpp:151] Top shape: 20 64 20 20 (512000)
I0504 10:19:37.468394 26144 net.cpp:159] Memory required for data: 6176080
I0504 10:19:37.468415 26144 layer_factory.hpp:77] Creating layer relu2
I0504 10:19:37.468435 26144 net.cpp:94] Creating Layer relu2
I0504 10:19:37.468444 26144 net.cpp:435] relu2 <- conv2
I0504 10:19:37.468457 26144 net.cpp:396] relu2 -> conv2 (in-place)
I0504 10:19:37.468477 26144 net.cpp:144] Setting up relu2
I0504 10:19:37.468489 26144 net.cpp:151] Top shape: 20 64 20 20 (512000)
I0504 10:19:37.468498 26144 net.cpp:159] Memory required for data: 8224080
I0504 10:19:37.468508 26144 layer_factory.hpp:77] Creating layer pool2
I0504 10:19:37.468520 26144 net.cpp:94] Creating Layer pool2
I0504 10:19:37.468542 26144 net.cpp:435] pool2 <- conv2
I0504 10:19:37.468575 26144 net.cpp:409] pool2 -> pool2
I0504 10:19:37.468731 26144 net.cpp:144] Setting up pool2
I0504 10:19:37.468750 26144 net.cpp:151] Top shape: 20 64 10 10 (128000)
I0504 10:19:37.468760 26144 net.cpp:159] Memory required for data: 8736080
I0504 10:19:37.468770 26144 layer_factory.hpp:77] Creating layer conv3
I0504 10:19:37.468789 26144 net.cpp:94] Creating Layer conv3
I0504 10:19:37.468798 26144 net.cpp:435] conv3 <- pool2
I0504 10:19:37.468823 26144 net.cpp:409] conv3 -> conv3
I0504 10:19:37.478281 26144 net.cpp:144] Setting up conv3
I0504 10:19:37.478296 26144 net.cpp:151] Top shape: 20 128 10 10 (256000)
I0504 10:19:37.478299 26144 net.cpp:159] Memory required for data: 9760080
I0504 10:19:37.478307 26144 layer_factory.hpp:77] Creating layer relu3
I0504 10:19:37.478313 26144 net.cpp:94] Creating Layer relu3
I0504 10:19:37.478317 26144 net.cpp:435] relu3 <- conv3
I0504 10:19:37.478322 26144 net.cpp:396] relu3 -> conv3 (in-place)
I0504 10:19:37.478328 26144 net.cpp:144] Setting up relu3
I0504 10:19:37.478333 26144 net.cpp:151] Top shape: 20 128 10 10 (256000)
I0504 10:19:37.478337 26144 net.cpp:159] Memory required for data: 10784080
I0504 10:19:37.478339 26144 layer_factory.hpp:77] Creating layer conv4
I0504 10:19:37.478348 26144 net.cpp:94] Creating Layer conv4
I0504 10:19:37.478350 26144 net.cpp:435] conv4 <- conv3
I0504 10:19:37.478355 26144 net.cpp:409] conv4 -> conv4
I0504 10:19:37.496662 26144 net.cpp:144] Setting up conv4
I0504 10:19:37.496678 26144 net.cpp:151] Top shape: 20 128 10 10 (256000)
I0504 10:19:37.496682 26144 net.cpp:159] Memory required for data: 11808080
I0504 10:19:37.496690 26144 layer_factory.hpp:77] Creating layer relu4
I0504 10:19:37.496696 26144 net.cpp:94] Creating Layer relu4
I0504 10:19:37.496700 26144 net.cpp:435] relu4 <- conv4
I0504 10:19:37.496704 26144 net.cpp:396] relu4 -> conv4 (in-place)
I0504 10:19:37.496711 26144 net.cpp:144] Setting up relu4
I0504 10:19:37.496716 26144 net.cpp:151] Top shape: 20 128 10 10 (256000)
I0504 10:19:37.496718 26144 net.cpp:159] Memory required for data: 12832080
I0504 10:19:37.496721 26144 layer_factory.hpp:77] Creating layer conv5
I0504 10:19:37.496728 26144 net.cpp:94] Creating Layer conv5
I0504 10:19:37.496732 26144 net.cpp:435] conv5 <- conv4
I0504 10:19:37.496737 26144 net.cpp:409] conv5 -> conv5
I0504 10:19:37.514310 26144 net.cpp:144] Setting up conv5
I0504 10:19:37.514329 26144 net.cpp:151] Top shape: 20 128 10 10 (256000)
I0504 10:19:37.514333 26144 net.cpp:159] Memory required for data: 13856080
I0504 10:19:37.514343 26144 layer_factory.hpp:77] Creating layer relu5
I0504 10:19:37.514350 26144 net.cpp:94] Creating Layer relu5
I0504 10:19:37.514354 26144 net.cpp:435] relu5 <- conv5
I0504 10:19:37.514359 26144 net.cpp:396] relu5 -> conv5 (in-place)
I0504 10:19:37.514366 26144 net.cpp:144] Setting up relu5
I0504 10:19:37.514371 26144 net.cpp:151] Top shape: 20 128 10 10 (256000)
I0504 10:19:37.514374 26144 net.cpp:159] Memory required for data: 14880080
I0504 10:19:37.514377 26144 layer_factory.hpp:77] Creating layer pool5
I0504 10:19:37.514385 26144 net.cpp:94] Creating Layer pool5
I0504 10:19:37.514389 26144 net.cpp:435] pool5 <- conv5
I0504 10:19:37.514392 26144 net.cpp:409] pool5 -> pool5
I0504 10:19:37.514438 26144 net.cpp:144] Setting up pool5
I0504 10:19:37.514446 26144 net.cpp:151] Top shape: 20 128 5 5 (64000)
I0504 10:19:37.514449 26144 net.cpp:159] Memory required for data: 15136080
I0504 10:19:37.514452 26144 layer_factory.hpp:77] Creating layer ip1
I0504 10:19:37.514459 26144 net.cpp:94] Creating Layer ip1
I0504 10:19:37.514462 26144 net.cpp:435] ip1 <- pool5
I0504 10:19:37.514467 26144 net.cpp:409] ip1 -> ip1
I0504 10:19:37.593822 26144 net.cpp:144] Setting up ip1
I0504 10:19:37.593858 26144 net.cpp:151] Top shape: 20 1024 (20480)
I0504 10:19:37.593863 26144 net.cpp:159] Memory required for data: 15218000
I0504 10:19:37.593871 26144 layer_factory.hpp:77] Creating layer ip2
I0504 10:19:37.593884 26144 net.cpp:94] Creating Layer ip2
I0504 10:19:37.593895 26144 net.cpp:435] ip2 <- ip1
I0504 10:19:37.593901 26144 net.cpp:409] ip2 -> ip2
I0504 10:19:37.607118 26144 net.cpp:144] Setting up ip2
I0504 10:19:37.607136 26144 net.cpp:151] Top shape: 20 512 (10240)
I0504 10:19:37.607139 26144 net.cpp:159] Memory required for data: 15258960
I0504 10:19:37.607146 26144 layer_factory.hpp:77] Creating layer ip3
I0504 10:19:37.607152 26144 net.cpp:94] Creating Layer ip3
I0504 10:19:37.607156 26144 net.cpp:435] ip3 <- ip2
I0504 10:19:37.607161 26144 net.cpp:409] ip3 -> ip3
I0504 10:19:37.607290 26144 net.cpp:144] Setting up ip3
I0504 10:19:37.607296 26144 net.cpp:151] Top shape: 20 1 (20)
I0504 10:19:37.607300 26144 net.cpp:159] Memory required for data: 15259040
I0504 10:19:37.607305 26144 layer_factory.hpp:77] Creating layer loss
I0504 10:19:37.607318 26144 net.cpp:94] Creating Layer loss
I0504 10:19:37.607322 26144 net.cpp:435] loss <- ip3
I0504 10:19:37.607326 26144 net.cpp:435] loss <- label
I0504 10:19:37.607331 26144 net.cpp:409] loss -> loss
I0504 10:19:37.607384 26144 net.cpp:144] Setting up loss
…
I0504 10:19:37.760427 26144 net.cpp:323] The NetState phase (0) differed from the phase (1) specified by a rule in layer intercept
I0504 10:19:37.760443 26144 net.cpp:323] The NetState phase (0) differed from the phase (1) specified by a rule in layer accuracy
I0504 10:19:37.760529 26144 net.cpp:52] Initializing net from parameters: 
state {
  phase: TRAIN
}
layer {
  name: "parameters"
  type: "HDF5Data"
  top: "data"
  top: "label"
  include {
    phase: TRAIN
  }
  hdf5_data_param {
    source: "/home/purduethu/scratch/radon/d/deng106/CNNStatisticalModel/distributions/input/5_distributions_400_sample_size_train-distributions-path.txt"
    batch_size: 20
  }
}
layer {
  name: "conv1"
  type: "Convolution"
  bottom: "data"
  top: "conv1"
  param {
    lr_mult: 1
  }
  param {
    lr_mult: 2
  }
  convolution_param {
    num_output: 64
    pad: 2
    kernel_size: 5
    stride: 1
    weight_filler {
      type: "gaussian"
      std: 0.0001
    }
    bias_filler {
      type: "constant"
    }
  }
}
layer {
  name: "relu1"
  type: "ReLU"
  bottom: "conv1"
  top: "conv1"
}
layer {
  name: "conv2"
  type: "Convolution"
  bottom: "conv1"
  top: "conv2"
  param {
    lr_mult: 1
  }
  param {
    lr_mult: 2
  }
  convolution_param {
    num_output: 64
    pad: 2
    kernel_size: 5
    stride: 1
    weight_filler {
      type: "gaussian"
      std: 0.01
    }
    bias_filler {
      type: "constant"
    }
  }
}
layer {
  name: "relu2"
  type: "ReLU"
  bottom: "conv2"
  top: "conv2"
}
layer {
  name: "pool2"
  type: "Pooling"
  bottom: "conv2"
  top: "pool2"
  pooling_param {
    pool: MAX
    kernel_size: 3
    stride: 2
  }
}
layer {
  name: "conv3"
  type: "Convolution"
  bottom: "pool2"
  top: "conv3"
  param {
    lr_mult: 1
  }
  param {
    lr_mult: 2
  }
  convolution_param {
    num_output: 128
    pad: 2
    kernel_size: 5
    stride: 1
    weight_filler {
      type: "gaussian"
      std: 0.01
    }
    bias_filler {
      type: "constant"
    }
  }
}
layer {
  name: "relu3"
  type: "ReLU"
  bottom: "conv3"
  top: "conv3"
}
layer {
  name: "conv4"
  type: "Convolution"
  bottom: "conv3"
  top: "conv4"
  param {
    lr_mult: 1
  }
  param {
    lr_mult: 2
  }
  convolution_param {
    num_output: 128
    pad: 2
    kernel_size: 5
    stride: 1
    weight_filler {
      type: "gaussian"
      std: 0.01
    }
    bias_filler {
      type: "constant"
    }
  }
}
layer {
  name: "relu4"
  type: "ReLU"
  bottom: "conv4"
  top: "conv4"
}
layer {
  name: "conv5"
  type: "Convolution"
  bottom: "conv4"
  top: "conv5"
  param {
    lr_mult: 1
  }
  param {
    lr_mult: 2
  }
  convolution_param {
    num_output: 128
    pad: 2
    kernel_size: 5
    stride: 1
    weight_filler {
      type: "gaussian"
      std: 0.01
    }
    bias_filler {
      type: "constant"
    }
  }
}
layer {
  name: "relu5"
  type: "ReLU"
  bottom: "conv5"
  top: "conv5"
}
layer {
  name: "pool5"
  type: "Pooling"
  bottom: "conv5"
  top: "pool5"
  pooling_param {
    pool: AVE
    kernel_size: 3
    stride: 2
  }
}
layer {
  name: "ip1"
  type: "InnerProduct"
  bottom: "pool5"
  top: "ip1"
  param {
    lr_mult: 1
  }
  param {
    lr_mult: 2
  }
  inner_product_param {
    num_output: 1024
    weight_filler {
      type: "gaussian"
      std: 0.1
    }
    bias_filler {
      type: "constant"
    }
  }
}
layer {
  name: "ip2"
  type: "InnerProduct"
  bottom: "ip1"
  top: "ip2"
  param {
    lr_mult: 1
  }
  param {
    lr_mult: 2
  }
  inner_product_param {
    num_output: 512
    weight_filler {
      type: "gaussian"
      std: 0.1
    }
    bias_filler {
      type: "constant"
    }
  }
}
layer {
  name: "ip3"
  type: "InnerProduct"
  bottom: "ip2"
  top: "ip3"
  param {
    lr_mult: 1
  }
  param {
    lr_mult: 2
  }
  inner_product_param {
    num_output: 50
    weight_filler {
      type: "gaussian"
      std: 0.1
    }
    bias_filler {
      type: "constant"
    }
  }
}
layer {
  name: "loss"
  type: "SoftmaxWithLoss"
  bottom: "ip3"
  bottom: "label"
  top: "loss"
}
I0504 10:19:37.760598 26144 layer_factory.hpp:77] Creating layer parameters
I0504 10:19:37.760607 26144 net.cpp:94] Creating Layer parameters
I0504 10:19:37.760612 26144 net.cpp:409] parameters -> data
I0504 10:19:37.760618 26144 net.cpp:409] parameters -> label
I0504 10:19:37.760624 26144 hdf5_data_layer.cpp:79] Loading list of HDF5 filenames from: /home/purduethu/scratch/radon/d/deng106/CNNStatisticalModel/distributions/input/5_distributions_400_sample_size_train-distributions-path.txt
I0504 10:19:37.760641 26144 hdf5_data_layer.cpp:93] Number of HDF5 files: 1
I0504 10:19:37.821982 26144 hdf5.cpp:35] Datatype class: H5T_INTEGER
I0504 10:19:37.822425 26144 net.cpp:144] Setting up parameters
I0504 10:19:37.822439 26144 net.cpp:151] Top shape: 20 1 20 20 (8000)
I0504 10:19:37.822443 26144 net.cpp:151] Top shape: 20 (20)
I0504 10:19:37.822448 26144 net.cpp:159] Memory required for data: 32080
I0504 10:19:37.822453 26144 layer_factory.hpp:77] Creating layer conv1
I0504 10:19:37.822469 26144 net.cpp:94] Creating Layer conv1
I0504 10:19:37.822474 26144 net.cpp:435] conv1 <- data
I0504 10:19:37.822479 26144 net.cpp:409] conv1 -> conv1
I0504 10:19:37.824887 26144 net.cpp:144] Setting up conv1
I0504 10:19:37.824901 26144 net.cpp:151] Top shape: 20 64 20 20 (512000)
I0504 10:19:37.824905 26144 net.cpp:159] Memory required for data: 2080080
I0504 10:19:37.824915 26144 layer_factory.hpp:77] Creating layer relu1
I0504 10:19:37.824923 26144 net.cpp:94] Creating Layer relu1
I0504 10:19:37.824926 26144 net.cpp:435] relu1 <- conv1
I0504 10:19:37.824930 26144 net.cpp:396] relu1 -> conv1 (in-place)
I0504 10:19:37.824937 26144 net.cpp:144] Setting up relu1
I0504 10:19:37.824942 26144 net.cpp:151] Top shape: 20 64 20 20 (512000)
I0504 10:19:37.824945 26144 net.cpp:159] Memory required for data: 4128080
I0504 10:19:37.824947 26144 layer_factory.hpp:77] Creating layer conv2
I0504 10:19:37.824955 26144 net.cpp:94] Creating Layer conv2
I0504 10:19:37.824959 26144 net.cpp:435] conv2 <- conv1
I0504 10:19:37.824964 26144 net.cpp:409] conv2 -> conv2
I0504 10:19:37.835484 26144 net.cpp:144] Setting up conv2
I0504 10:19:37.835500 26144 net.cpp:151] Top shape: 20 64 20 20 (512000)
I0504 10:19:37.835505 26144 net.cpp:159] Memory required for data: 6176080
I0504 10:19:37.835512 26144 layer_factory.hpp:77] Creating layer relu2
I0504 10:19:37.835520 26144 net.cpp:94] Creating Layer relu2
I0504 10:19:37.835523 26144 net.cpp:435] relu2 <- conv2
I0504 10:19:37.835528 26144 net.cpp:396] relu2 -> conv2 (in-place)
I0504 10:19:37.835536 26144 net.cpp:144] Setting up relu2
I0504 10:19:37.835539 26144 net.cpp:151] Top shape: 20 64 20 20 (512000)
I0504 10:19:37.835542 26144 net.cpp:159] Memory required for data: 8224080
I0504 10:19:37.835546 26144 layer_factory.hpp:77] Creating layer pool2
I0504 10:19:37.835551 26144 net.cpp:94] Creating Layer pool2
I0504 10:19:37.835554 26144 net.cpp:435] pool2 <- conv2
I0504 10:19:37.835558 26144 net.cpp:409] pool2 -> pool2
I0504 10:19:37.835618 26144 net.cpp:144] Setting up pool2
I0504 10:19:37.835624 26144 net.cpp:151] Top shape: 20 64 10 10 (128000)
I0504 10:19:37.835628 26144 net.cpp:159] Memory required for data: 8736080
I0504 10:19:37.835630 26144 layer_factory.hpp:77] Creating layer conv3
I0504 10:19:37.835638 26144 net.cpp:94] Creating Layer conv3
I0504 10:19:37.835642 26144 net.cpp:435] conv3 <- pool2
I0504 10:19:37.835654 26144 net.cpp:409] conv3 -> conv3
I0504 10:19:37.846424 26144 net.cpp:144] Setting up conv3
I0504 10:19:37.846441 26144 net.cpp:151] Top shape: 20 128 10 10 (256000)
I0504 10:19:37.846446 26144 net.cpp:159] Memory required for data: 9760080
I0504 10:19:37.846454 26144 layer_factory.hpp:77] Creating layer relu3
I0504 10:19:37.846460 26144 net.cpp:94] Creating Layer relu3
I0504 10:19:37.846463 26144 net.cpp:435] relu3 <- conv3
I0504 10:19:37.846468 26144 net.cpp:396] relu3 -> conv3 (in-place)
I0504 10:19:37.846475 26144 net.cpp:144] Setting up relu3
I0504 10:19:37.846479 26144 net.cpp:151] Top shape: 20 128 10 10 (256000)
I0504 10:19:37.846482 26144 net.cpp:159] Memory required for data: 10784080
I0504 10:19:37.846485 26144 layer_factory.hpp:77] Creating layer conv4
I0504 10:19:37.846494 26144 net.cpp:94] Creating Layer conv4
I0504 10:19:37.846498 26144 net.cpp:435] conv4 <- conv3
I0504 10:19:37.846503 26144 net.cpp:409] conv4 -> conv4
I0504 10:19:37.865181 26144 net.cpp:144] Setting up conv4
I0504 10:19:37.865198 26144 net.cpp:151] Top shape: 20 128 10 10 (256000)
I0504 10:19:37.865202 26144 net.cpp:159] Memory required for data: 11808080
I0504 10:19:37.865209 26144 layer_factory.hpp:77] Creating layer relu4
I0504 10:19:37.865216 26144 net.cpp:94] Creating Layer relu4
I0504 10:19:37.865219 26144 net.cpp:435] relu4 <- conv4
I0504 10:19:37.865224 26144 net.cpp:396] relu4 -> conv4 (in-place)
I0504 10:19:37.865231 26144 net.cpp:144] Setting up relu4
I0504 10:19:37.865236 26144 net.cpp:151] Top shape: 20 128 10 10 (256000)
I0504 10:19:37.865238 26144 net.cpp:159] Memory required for data: 12832080
I0504 10:19:37.865242 26144 layer_factory.hpp:77] Creating layer conv5
I0504 10:19:37.865249 26144 net.cpp:94] Creating Layer conv5
I0504 10:19:37.865252 26144 net.cpp:435] conv5 <- conv4
I0504 10:19:37.865257 26144 net.cpp:409] conv5 -> conv5
I0504 10:19:37.883574 26144 net.cpp:144] Setting up conv5
I0504 10:19:37.883592 26144 net.cpp:151] Top shape: 20 128 10 10 (256000)
I0504 10:19:37.883596 26144 net.cpp:159] Memory required for data: 13856080
I0504 10:19:37.883606 26144 layer_factory.hpp:77] Creating layer relu5
I0504 10:19:37.883615 26144 net.cpp:94] Creating Layer relu5
I0504 10:19:37.883618 26144 net.cpp:435] relu5 <- conv5
I0504 10:19:37.883623 26144 net.cpp:396] relu5 -> conv5 (in-place)
I0504 10:19:37.883631 26144 net.cpp:144] Setting up relu5
I0504 10:19:37.883636 26144 net.cpp:151] Top shape: 20 128 10 10 (256000)
I0504 10:19:37.883640 26144 net.cpp:159] Memory required for data: 14880080
I0504 10:19:37.883642 26144 layer_factory.hpp:77] Creating layer pool5
I0504 10:19:37.883647 26144 net.cpp:94] Creating Layer pool5
I0504 10:19:37.883651 26144 net.cpp:435] pool5 <- conv5
I0504 10:19:37.883656 26144 net.cpp:409] pool5 -> pool5
I0504 10:19:37.883702 26144 net.cpp:144] Setting up pool5
I0504 10:19:37.883708 26144 net.cpp:151] Top shape: 20 128 5 5 (64000)
I0504 10:19:37.883711 26144 net.cpp:159] Memory required for data: 15136080
I0504 10:19:37.883714 26144 layer_factory.hpp:77] Creating layer ip1
I0504 10:19:37.883721 26144 net.cpp:94] Creating Layer ip1
I0504 10:19:37.883724 26144 net.cpp:435] ip1 <- pool5
I0504 10:19:37.883729 26144 net.cpp:409] ip1 -> ip1
I0504 10:19:37.963032 26144 net.cpp:144] Setting up ip1
I0504 10:19:37.963066 26144 net.cpp:151] Top shape: 20 1024 (20480)
I0504 10:19:37.963070 26144 net.cpp:159] Memory required for data: 15218000
I0504 10:19:37.963078 26144 layer_factory.hpp:77] Creating layer ip2
I0504 10:19:37.963088 26144 net.cpp:94] Creating Layer ip2
I0504 10:19:37.963093 26144 net.cpp:435] ip2 <- ip1
I0504 10:19:37.963099 26144 net.cpp:409] ip2 -> ip2
I0504 10:19:37.976377 26144 net.cpp:144] Setting up ip2
I0504 10:19:37.976395 26144 net.cpp:151] Top shape: 20 512 (10240)
I0504 10:19:37.976399 26144 net.cpp:159] Memory required for data: 15258960
I0504 10:19:37.976407 26144 layer_factory.hpp:77] Creating layer ip3
I0504 10:19:37.976414 26144 net.cpp:94] Creating Layer ip3
I0504 10:19:37.976418 26144 net.cpp:435] ip3 <- ip2
I0504 10:19:37.976426 26144 net.cpp:409] ip3 -> ip3
I0504 10:19:37.977223 26144 net.cpp:144] Setting up ip3
I0504 10:19:37.977234 26144 net.cpp:151] Top shape: 20 50 (1000)
I0504 10:19:37.977237 26144 net.cpp:159] Memory required for data: 15262960
I0504 10:19:37.977242 26144 layer_factory.hpp:77] Creating layer loss
I0504 10:19:37.977250 26144 net.cpp:94] Creating Layer loss
I0504 10:19:37.977254 26144 net.cpp:435] loss <- ip3
I0504 10:19:37.977258 26144 net.cpp:435] loss <- label
I0504 10:19:37.977262 26144 net.cpp:409] loss -> loss
I0504 10:19:37.977269 26144 layer_factory.hpp:77] Creating layer loss
…
I0504 10:19:37.977799 26144 solver.cpp:181] Creating test net (#0) specified by net file: ./protocol/dis_5_400_dimension.protocol_distribution
I0504 10:19:37.977828 26144 net.cpp:323] The NetState phase (1) differed from the phase (0) specified by a rule in layer parameters
I0504 10:19:37.977924 26144 net.cpp:52] Initializing net from parameters: 
state {
  phase: TEST
}
layer {
  name: "intercept"
  type: "HDF5Data"
  top: "data"
  top: "label"
  include {
    phase: TEST
  }
  hdf5_data_param {
    source: "/home/purduethu/scratch/radon/d/deng106/CNNStatisticalModel/distributions/input/5_distributions_400_sample_size_test-distributions-path.txt"
    batch_size: 20
  }
}
layer {
  name: "conv1"
  type: "Convolution"
  bottom: "data"
  top: "conv1"
  param {
    lr_mult: 1
  }
  param {
    lr_mult: 2
  }
  convolution_param {
    num_output: 64
    pad: 2
    kernel_size: 5
    stride: 1
    weight_filler {
      type: "gaussian"
      std: 0.0001
    }
    bias_filler {
      type: "constant"
    }
  }
}
layer {
  name: "relu1"
  type: "ReLU"
  bottom: "conv1"
  top: "conv1"
}
layer {
  name: "conv2"
  type: "Convolution"
  bottom: "conv1"
  top: "conv2"
  param {
    lr_mult: 1
  }
  param {
    lr_mult: 2
  }
  convolution_param {
    num_output: 64
    pad: 2
    kernel_size: 5
    stride: 1
    weight_filler {
      type: "gaussian"
      std: 0.01
    }
    bias_filler {
      type: "constant"
    }
  }
}
layer {
  name: "relu2"
  type: "ReLU"
  bottom: "conv2"
  top: "conv2"
}
layer {
  name: "pool2"
  type: "Pooling"
  bottom: "conv2"
  top: "pool2"
  pooling_param {
    pool: MAX
    kernel_size: 3
    stride: 2
  }
}
layer {
  name: "conv3"
  type: "Convolution"
  bottom: "pool2"
  top: "conv3"
  param {
    lr_mult: 1
  }
  param {
    lr_mult: 2
  }
  convolution_param {
    num_output: 128
    pad: 2
    kernel_size: 5
    stride: 1
    weight_filler {
      type: "gaussian"
      std: 0.01
    }
    bias_filler {
      type: "constant"
    }
  }
}
layer {
  name: "relu3"
  type: "ReLU"
  bottom: "conv3"
  top: "conv3"
}
layer {
  name: "conv4"
  type: "Convolution"
  bottom: "conv3"
  top: "conv4"
  param {
    lr_mult: 1
  }
  param {
    lr_mult: 2
  }
  convolution_param {
    num_output: 128
    pad: 2
    kernel_size: 5
    stride: 1
    weight_filler {
      type: "gaussian"
      std: 0.01
    }
    bias_filler {
      type: "constant"
    }
  }
}
layer {
  name: "relu4"
  type: "ReLU"
  bottom: "conv4"
  top: "conv4"
}
layer {
  name: "conv5"
  type: "Convolution"
  bottom: "conv4"
  top: "conv5"
  param {
    lr_mult: 1
  }
  param {
    lr_mult: 2
  }
  convolution_param {
    num_output: 128
    pad: 2
    kernel_size: 5
    stride: 1
    weight_filler {
      type: "gaussian"
      std: 0.01
    }
    bias_filler {
      type: "constant"
    }
  }
}
layer {
  name: "relu5"
  type: "ReLU"
  bottom: "conv5"
  top: "conv5"
}
layer {
  name: "pool5"
  type: "Pooling"
  bottom: "conv5"
  top: "pool5"
  pooling_param {
    pool: AVE
    kernel_size: 3
    stride: 2
  }
}
layer {
  name: "ip1"
  type: "InnerProduct"
  bottom: "pool5"
  top: "ip1"
  param {
    lr_mult: 1
  }
  param {
    lr_mult: 2
  }
  inner_product_param {
    num_output: 1024
    weight_filler {
      type: "gaussian"
      std: 0.1
    }
    bias_filler {
      type: "constant"
    }
  }
}
layer {
  name: "ip2"
  type: "InnerProduct"
  bottom: "ip1"
  top: "ip2"
  param {
    lr_mult: 1
  }
  param {
    lr_mult: 2
  }
  inner_product_param {
    num_output: 512
    weight_filler {
      type: "gaussian"
      std: 0.1
    }
    bias_filler {
      type: "constant"
    }
  }
}
layer {
  name: "ip3"
  type: "InnerProduct"
  bottom: "ip2"
  top: "ip3"
  param {
    lr_mult: 1
  }
  param {
    lr_mult: 2
  }
  inner_product_param {
    num_output: 50
    weight_filler {
      type: "gaussian"
      std: 0.1
    }
    bias_filler {
      type: "constant"
    }
  }
}
layer {
  name: "accuracy"
  type: "Accuracy"
  bottom: "ip3"
  bottom: "label"
  top: "accuracy"
  include {
    phase: TEST
  }
}
layer {
  name: "loss"
  type: "SoftmaxWithLoss"
  bottom: "ip3"
  bottom: "label"
  top: "loss"
}
I0504 10:19:37.977994 26144 layer_factory.hpp:77] Creating layer intercept
I0504 10:19:37.978003 26144 net.cpp:94] Creating Layer intercept
I0504 10:19:37.978008 26144 net.cpp:409] intercept -> data
I0504 10:19:37.978013 26144 net.cpp:409] intercept -> label
I0504 10:19:37.978019 26144 hdf5_data_layer.cpp:79] Loading list of HDF5 filenames from: /home/purduethu/scratch/radon/d/deng106/CNNStatisticalModel/distributions/input/5_distributions_400_sample_size_test-distributions-path.txt
I0504 10:19:37.978040 26144 hdf5_data_layer.cpp:93] Number of HDF5 files: 1
I0504 10:19:37.994448 26144 net.cpp:144] Setting up intercept
I0504 10:19:37.994480 26144 net.cpp:151] Top shape: 20 1 20 20 (8000)
I0504 10:19:37.994485 26144 net.cpp:151] Top shape: 20 (20)
I0504 10:19:37.994489 26144 net.cpp:159] Memory required for data: 32080
I0504 10:19:37.994494 26144 layer_factory.hpp:77] Creating layer label_intercept_1_split
I0504 10:19:37.994511 26144 net.cpp:94] Creating Layer label_intercept_1_split
I0504 10:19:37.994515 26144 net.cpp:435] label_intercept_1_split <- label
I0504 10:19:37.994520 26144 net.cpp:409] label_intercept_1_split -> label_intercept_1_split_0
I0504 10:19:37.994529 26144 net.cpp:409] label_intercept_1_split -> label_intercept_1_split_1
I0504 10:19:37.994575 26144 net.cpp:144] Setting up label_intercept_1_split
I0504 10:19:37.994580 26144 net.cpp:151] Top shape: 20 (20)
I0504 10:19:37.994585 26144 net.cpp:151] Top shape: 20 (20)
I0504 10:19:37.994587 26144 net.cpp:159] Memory required for data: 32240
I0504 10:19:37.994590 26144 layer_factory.hpp:77] Creating layer conv1
I0504 10:19:37.994601 26144 net.cpp:94] Creating Layer conv1
I0504 10:19:37.994604 26144 net.cpp:435] conv1 <- data
I0504 10:19:37.994608 26144 net.cpp:409] conv1 -> conv1
I0504 10:19:37.995424 26144 net.cpp:144] Setting up conv1
I0504 10:19:37.995442 26144 net.cpp:151] Top shape: 20 64 20 20 (512000)
I0504 10:19:37.995447 26144 net.cpp:159] Memory required for data: 2080240
I0504 10:19:37.995457 26144 layer_factory.hpp:77] Creating layer relu1
I0504 10:19:37.995465 26144 net.cpp:94] Creating Layer relu1
I0504 10:19:37.995467 26144 net.cpp:435] relu1 <- conv1
I0504 10:19:37.995471 26144 net.cpp:396] relu1 -> conv1 (in-place)
I0504 10:19:37.995479 26144 net.cpp:144] Setting up relu1
I0504 10:19:37.995483 26144 net.cpp:151] Top shape: 20 64 20 20 (512000)
I0504 10:19:37.995486 26144 net.cpp:159] Memory required for data: 4128240
I0504 10:19:37.995489 26144 layer_factory.hpp:77] Creating layer conv2
I0504 10:19:37.995497 26144 net.cpp:94] Creating Layer conv2
I0504 10:19:37.995501 26144 net.cpp:435] conv2 <- conv1
I0504 10:19:37.995506 26144 net.cpp:409] conv2 -> conv2
I0504 10:19:38.000762 26144 net.cpp:144] Setting up conv2
I0504 10:19:38.000777 26144 net.cpp:151] Top shape: 20 64 20 20 (512000)
I0504 10:19:38.000782 26144 net.cpp:159] Memory required for data: 6176240
I0504 10:19:38.000789 26144 layer_factory.hpp:77] Creating layer relu2
I0504 10:19:38.000795 26144 net.cpp:94] Creating Layer relu2
I0504 10:19:38.000798 26144 net.cpp:435] relu2 <- conv2
I0504 10:19:38.000803 26144 net.cpp:396] relu2 -> conv2 (in-place)
I0504 10:19:38.000810 26144 net.cpp:144] Setting up relu2
I0504 10:19:38.000814 26144 net.cpp:151] Top shape: 20 64 20 20 (512000)
I0504 10:19:38.000818 26144 net.cpp:159] Memory required for data: 8224240
I0504 10:19:38.000820 26144 layer_factory.hpp:77] Creating layer pool2
I0504 10:19:38.000826 26144 net.cpp:94] Creating Layer pool2
I0504 10:19:38.000829 26144 net.cpp:435] pool2 <- conv2
I0504 10:19:38.000833 26144 net.cpp:409] pool2 -> pool2
I0504 10:19:38.000891 26144 net.cpp:144] Setting up pool2
I0504 10:19:38.000900 26144 net.cpp:151] Top shape: 20 64 10 10 (128000)
I0504 10:19:38.000902 26144 net.cpp:159] Memory required for data: 8736240
I0504 10:19:38.000905 26144 layer_factory.hpp:77] Creating layer conv3
I0504 10:19:38.000913 26144 net.cpp:94] Creating Layer conv3
I0504 10:19:38.000916 26144 net.cpp:435] conv3 <- pool2
I0504 10:19:38.000921 26144 net.cpp:409] conv3 -> conv3
I0504 10:19:38.008246 26144 net.cpp:144] Setting up conv3
I0504 10:19:38.008262 26144 net.cpp:151] Top shape: 20 128 10 10 (256000)
I0504 10:19:38.008266 26144 net.cpp:159] Memory required for data: 9760240
I0504 10:19:38.008275 26144 layer_factory.hpp:77] Creating layer relu3
I0504 10:19:38.008282 26144 net.cpp:94] Creating Layer relu3
I0504 10:19:38.008285 26144 net.cpp:435] relu3 <- conv3
I0504 10:19:38.008291 26144 net.cpp:396] relu3 -> conv3 (in-place)
I0504 10:19:38.008297 26144 net.cpp:144] Setting up relu3
I0504 10:19:38.008302 26144 net.cpp:151] Top shape: 20 128 10 10 (256000)
I0504 10:19:38.008304 26144 net.cpp:159] Memory required for data: 10784240
I0504 10:19:38.008307 26144 layer_factory.hpp:77] Creating layer conv4
I0504 10:19:38.008316 26144 net.cpp:94] Creating Layer conv4
I0504 10:19:38.008319 26144 net.cpp:435] conv4 <- conv3
I0504 10:19:38.008324 26144 net.cpp:409] conv4 -> conv4
I0504 10:19:38.022076 26144 net.cpp:144] Setting up conv4
I0504 10:19:38.022094 26144 net.cpp:151] Top shape: 20 128 10 10 (256000)
I0504 10:19:38.022099 26144 net.cpp:159] Memory required for data: 11808240
I0504 10:19:38.022105 26144 layer_factory.hpp:77] Creating layer relu4
I0504 10:19:38.022111 26144 net.cpp:94] Creating Layer relu4
I0504 10:19:38.022115 26144 net.cpp:435] relu4 <- conv4
I0504 10:19:38.022120 26144 net.cpp:396] relu4 -> conv4 (in-place)
I0504 10:19:38.022127 26144 net.cpp:144] Setting up relu4
I0504 10:19:38.022131 26144 net.cpp:151] Top shape: 20 128 10 10 (256000)
I0504 10:19:38.022135 26144 net.cpp:159] Memory required for data: 12832240
I0504 10:19:38.022137 26144 layer_factory.hpp:77] Creating layer conv5
I0504 10:19:38.022145 26144 net.cpp:94] Creating Layer conv5
I0504 10:19:38.022150 26144 net.cpp:435] conv5 <- conv4
I0504 10:19:38.022155 26144 net.cpp:409] conv5 -> conv5
I0504 10:19:38.035470 26144 net.cpp:144] Setting up conv5
I0504 10:19:38.035491 26144 net.cpp:151] Top shape: 20 128 10 10 (256000)
I0504 10:19:38.035496 26144 net.cpp:159] Memory required for data: 13856240
I0504 10:19:38.035506 26144 layer_factory.hpp:77] Creating layer relu5
I0504 10:19:38.035512 26144 net.cpp:94] Creating Layer relu5
I0504 10:19:38.035516 26144 net.cpp:435] relu5 <- conv5
I0504 10:19:38.035521 26144 net.cpp:396] relu5 -> conv5 (in-place)
I0504 10:19:38.035528 26144 net.cpp:144] Setting up relu5
I0504 10:19:38.035532 26144 net.cpp:151] Top shape: 20 128 10 10 (256000)
I0504 10:19:38.035536 26144 net.cpp:159] Memory required for data: 14880240
I0504 10:19:38.035538 26144 layer_factory.hpp:77] Creating layer pool5
I0504 10:19:38.035544 26144 net.cpp:94] Creating Layer pool5
I0504 10:19:38.035547 26144 net.cpp:435] pool5 <- conv5
I0504 10:19:38.035552 26144 net.cpp:409] pool5 -> pool5
I0504 10:19:38.035594 26144 net.cpp:144] Setting up pool5
I0504 10:19:38.035601 26144 net.cpp:151] Top shape: 20 128 5 5 (64000)
I0504 10:19:38.035604 26144 net.cpp:159] Memory required for data: 15136240
I0504 10:19:38.035607 26144 layer_factory.hpp:77] Creating layer ip1
I0504 10:19:38.035614 26144 net.cpp:94] Creating Layer ip1
I0504 10:19:38.035617 26144 net.cpp:435] ip1 <- pool5
I0504 10:19:38.035622 26144 net.cpp:409] ip1 -> ip1
I0504 10:19:38.116662 26144 net.cpp:144] Setting up ip1
I0504 10:19:38.116694 26144 net.cpp:151] Top shape: 20 1024 (20480)
I0504 10:19:38.116698 26144 net.cpp:159] Memory required for data: 15218160
I0504 10:19:38.116708 26144 layer_factory.hpp:77] Creating layer ip2
I0504 10:19:38.116717 26144 net.cpp:94] Creating Layer ip2
I0504 10:19:38.116722 26144 net.cpp:435] ip2 <- ip1
I0504 10:19:38.116729 26144 net.cpp:409] ip2 -> ip2
I0504 10:19:38.130020 26144 net.cpp:144] Setting up ip2
I0504 10:19:38.130041 26144 net.cpp:151] Top shape: 20 512 (10240)
I0504 10:19:38.130045 26144 net.cpp:159] Memory required for data: 15259120
I0504 10:19:38.130053 26144 layer_factory.hpp:77] Creating layer ip3
I0504 10:19:38.130062 26144 net.cpp:94] Creating Layer ip3
I0504 10:19:38.130066 26144 net.cpp:435] ip3 <- ip2
I0504 10:19:38.130071 26144 net.cpp:409] ip3 -> ip3
I0504 10:19:38.130815 26144 net.cpp:144] Setting up ip3
I0504 10:19:38.130823 26144 net.cpp:151] Top shape: 20 50 (1000)
I0504 10:19:38.130827 26144 net.cpp:159] Memory required for data: 15263120
I0504 10:19:38.130832 26144 layer_factory.hpp:77] Creating layer ip3_ip3_0_split
I0504 10:19:38.130838 26144 net.cpp:94] Creating Layer ip3_ip3_0_split
I0504 10:19:38.130841 26144 net.cpp:435] ip3_ip3_0_split <- ip3
I0504 10:19:38.130846 26144 net.cpp:409] ip3_ip3_0_split -> ip3_ip3_0_split_0
I0504 10:19:38.130851 26144 net.cpp:409] ip3_ip3_0_split -> ip3_ip3_0_split_1
I0504 10:19:38.130895 26144 net.cpp:144] Setting up ip3_ip3_0_split
I0504 10:19:38.130901 26144 net.cpp:151] Top shape: 20 50 (1000)
I0504 10:19:38.130904 26144 net.cpp:151] Top shape: 20 50 (1000)
I0504 10:19:38.130908 26144 net.cpp:159] Memory required for data: 15271120
I0504 10:19:38.130911 26144 layer_factory.hpp:77] Creating layer accuracy
I0504 10:19:38.130918 26144 net.cpp:94] Creating Layer accuracy
I0504 10:19:38.130920 26144 net.cpp:435] accuracy <- ip3_ip3_0_split_0
I0504 10:19:38.130924 26144 net.cpp:435] accuracy <- label_intercept_1_split_0
I0504 10:19:38.130929 26144 net.cpp:409] accuracy -> accuracy
…
