…
I0504 11:53:26.786258 26435 net.cpp:323] The NetState phase (0) differed from the phase (1) specified by a rule in layer intercept
I0504 11:53:26.786288 26435 net.cpp:323] The NetState phase (0) differed from the phase (1) specified by a rule in layer loss
I0504 11:53:26.786448 26435 net.cpp:52] Initializing net from parameters: 
state {
  phase: TRAIN
}
layer {
  name: "parameters"
  type: "HDF5Data"
  top: "data"
  top: "label"
  include {
    phase: TRAIN
  }
  hdf5_data_param {
    source: "/home/purduethu/scratch/radon/d/deng106/CNNStatisticalModel/distributions/input/20_distributions_900_sample_size_train-parameters-path.txt"
    batch_size: 20
  }
}
layer {
  name: "conv1"
  type: "Convolution"
  bottom: "data"
  top: "conv1"
  param {
    lr_mult: 1
  }
  param {
    lr_mult: 2
  }
  convolution_param {
    num_output: 64
    pad: 2
    kernel_size: 5
    stride: 1
    weight_filler {
      type: "gaussian"
      std: 0.0001
    }
    bias_filler {
      type: "constant"
    }
  }
}
layer {
  name: "relu1"
  type: "ReLU"
  bottom: "conv1"
  top: "conv1"
}
layer {
  name: "conv2"
  type: "Convolution"
  bottom: "conv1"
  top: "conv2"
  param {
    lr_mult: 1
  }
  param {
    lr_mult: 2
  }
  convolution_param {
    num_output: 64
    pad: 2
    kernel_size: 5
    stride: 1
    weight_filler {
      type: "gaussian"
      std: 0.01
    }
    bias_filler {
      type: "constant"
    }
  }
}
layer {
  name: "relu2"
  type: "ReLU"
  bottom: "conv2"
  top: "conv2"
}
layer {
  name: "pool2"
  type: "Pooling"
  bottom: "conv2"
  top: "pool2"
  pooling_param {
    pool: MAX
    kernel_size: 3
    stride: 2
  }
}
layer {
  name: "conv3"
  type: "Convolution"
  bottom: "pool2"
  top: "conv3"
  param {
    lr_mult: 1
  }
  param {
    lr_mult: 2
  }
  convolution_param {
    num_output: 128
    pad: 2
    kernel_size: 5
    stride: 1
    weight_filler {
      type: "gaussian"
      std: 0.01
    }
    bias_filler {
      type: "constant"
    }
  }
}
layer {
  name: "relu3"
  type: "ReLU"
  bottom: "conv3"
  top: "conv3"
}
layer {
  name: "conv4"
  type: "Convolution"
  bottom: "conv3"
  top: "conv4"
  param {
    lr_mult: 1
  }
  param {
    lr_mult: 2
  }
  convolution_param {
    num_output: 128
    pad: 2
    kernel_size: 5
    stride: 1
    weight_filler {
      type: "gaussian"
      std: 0.01
    }
    bias_filler {
      type: "constant"
    }
  }
}
layer {
  name: "relu4"
  type: "ReLU"
  bottom: "conv4"
  top: "conv4"
}
layer {
  name: "conv5"
  type: "Convolution"
  bottom: "conv4"
  top: "conv5"
  param {
    lr_mult: 1
  }
  param {
    lr_mult: 2
  }
  convolution_param {
    num_output: 128
    pad: 2
    kernel_size: 5
    stride: 1
    weight_filler {
      type: "gaussian"
      std: 0.01
    }
    bias_filler {
      type: "constant"
    }
  }
}
layer {
  name: "relu5"
  type: "ReLU"
  bottom: "conv5"
  top: "conv5"
}
layer {
  name: "pool5"
  type: "Pooling"
  bottom: "conv5"
  top: "pool5"
  pooling_param {
    pool: AVE
    kernel_size: 3
    stride: 2
  }
}
layer {
  name: "ip1"
  type: "InnerProduct"
  bottom: "pool5"
  top: "ip1"
  param {
    lr_mult: 1
  }
  param {
    lr_mult: 2
  }
  inner_product_param {
    num_output: 1024
    weight_filler {
      type: "gaussian"
      std: 0.1
    }
    bias_filler {
      type: "constant"
    }
  }
}
layer {
  name: "ip2"
  type: "InnerProduct"
  bottom: "ip1"
  top: "ip2"
  param {
    lr_mult: 1
  }
  param {
    lr_mult: 2
  }
  inner_product_param {
    num_output: 512
    weight_filler {
      type: "gaussian"
      std: 0.1
    }
    bias_filler {
      type: "constant"
    }
  }
}
layer {
  name: "ip3"
  type: "InnerProduct"
  bottom: "ip2"
  top: "ip3"
  param {
    lr_mult: 1
  }
  param {
    lr_mult: 2
  }
  inner_product_param {
    num_output: 1
    weight_filler {
      type: "gaussian"
      std: 0.1
    }
    bias_filler {
      type: "constant"
    }
  }
}
layer {
  name: "loss"
  type: "HuberLoss"
  bottom: "ip3"
  bottom: "label"
  top: "loss"
  include {
    phase: TRAIN
  }
}
I0504 11:53:26.786568 26435 layer_factory.hpp:77] Creating layer parameters
I0504 11:53:26.786592 26435 net.cpp:94] Creating Layer parameters
I0504 11:53:26.786602 26435 net.cpp:409] parameters -> data
I0504 11:53:26.786631 26435 net.cpp:409] parameters -> label
I0504 11:53:26.786648 26435 hdf5_data_layer.cpp:79] Loading list of HDF5 filenames from: /home/purduethu/scratch/radon/d/deng106/CNNStatisticalModel/distributions/input/20_distributions_900_sample_size_train-parameters-path.txt
I0504 11:53:26.786684 26435 hdf5_data_layer.cpp:93] Number of HDF5 files: 1
I0504 11:53:26.787446 26435 hdf5.cpp:32] Datatype class: H5T_FLOAT
I0504 11:53:27.446336 26435 net.cpp:144] Setting up parameters
I0504 11:53:27.446370 26435 net.cpp:151] Top shape: 20 1 30 30 (18000)
I0504 11:53:27.446377 26435 net.cpp:151] Top shape: 20 (20)
I0504 11:53:27.446380 26435 net.cpp:159] Memory required for data: 72080
I0504 11:53:27.446388 26435 layer_factory.hpp:77] Creating layer conv1
I0504 11:53:27.446408 26435 net.cpp:94] Creating Layer conv1
I0504 11:53:27.446413 26435 net.cpp:435] conv1 <- data
I0504 11:53:27.446424 26435 net.cpp:409] conv1 -> conv1
I0504 11:53:27.452443 26435 net.cpp:144] Setting up conv1
I0504 11:53:27.452466 26435 net.cpp:151] Top shape: 20 64 30 30 (1152000)
I0504 11:53:27.452471 26435 net.cpp:159] Memory required for data: 4680080
I0504 11:53:27.452482 26435 layer_factory.hpp:77] Creating layer relu1
I0504 11:53:27.452491 26435 net.cpp:94] Creating Layer relu1
I0504 11:53:27.452497 26435 net.cpp:435] relu1 <- conv1
I0504 11:53:27.452502 26435 net.cpp:396] relu1 -> conv1 (in-place)
I0504 11:53:27.452520 26435 net.cpp:144] Setting up relu1
I0504 11:53:27.452527 26435 net.cpp:151] Top shape: 20 64 30 30 (1152000)
I0504 11:53:27.452529 26435 net.cpp:159] Memory required for data: 9288080
I0504 11:53:27.452533 26435 layer_factory.hpp:77] Creating layer conv2
I0504 11:53:27.452541 26435 net.cpp:94] Creating Layer conv2
I0504 11:53:27.452545 26435 net.cpp:435] conv2 <- conv1
I0504 11:53:27.452565 26435 net.cpp:409] conv2 -> conv2
I0504 11:53:27.467392 26435 net.cpp:144] Setting up conv2
I0504 11:53:27.467408 26435 net.cpp:151] Top shape: 20 64 30 30 (1152000)
I0504 11:53:27.467413 26435 net.cpp:159] Memory required for data: 13896080
I0504 11:53:27.467422 26435 layer_factory.hpp:77] Creating layer relu2
I0504 11:53:27.467429 26435 net.cpp:94] Creating Layer relu2
I0504 11:53:27.467433 26435 net.cpp:435] relu2 <- conv2
I0504 11:53:27.467438 26435 net.cpp:396] relu2 -> conv2 (in-place)
I0504 11:53:27.467447 26435 net.cpp:144] Setting up relu2
I0504 11:53:27.467452 26435 net.cpp:151] Top shape: 20 64 30 30 (1152000)
I0504 11:53:27.467454 26435 net.cpp:159] Memory required for data: 18504080
I0504 11:53:27.467458 26435 layer_factory.hpp:77] Creating layer pool2
I0504 11:53:27.467465 26435 net.cpp:94] Creating Layer pool2
I0504 11:53:27.467475 26435 net.cpp:435] pool2 <- conv2
I0504 11:53:27.467481 26435 net.cpp:409] pool2 -> pool2
I0504 11:53:27.467528 26435 net.cpp:144] Setting up pool2
I0504 11:53:27.467535 26435 net.cpp:151] Top shape: 20 64 15 15 (288000)
I0504 11:53:27.467540 26435 net.cpp:159] Memory required for data: 19656080
I0504 11:53:27.467543 26435 layer_factory.hpp:77] Creating layer conv3
I0504 11:53:27.467551 26435 net.cpp:94] Creating Layer conv3
I0504 11:53:27.467555 26435 net.cpp:435] conv3 <- pool2
I0504 11:53:27.467561 26435 net.cpp:409] conv3 -> conv3
I0504 11:53:27.480454 26435 net.cpp:144] Setting up conv3
I0504 11:53:27.480471 26435 net.cpp:151] Top shape: 20 128 15 15 (576000)
I0504 11:53:27.480475 26435 net.cpp:159] Memory required for data: 21960080
I0504 11:53:27.480484 26435 layer_factory.hpp:77] Creating layer relu3
I0504 11:53:27.480491 26435 net.cpp:94] Creating Layer relu3
I0504 11:53:27.480495 26435 net.cpp:435] relu3 <- conv3
I0504 11:53:27.480501 26435 net.cpp:396] relu3 -> conv3 (in-place)
I0504 11:53:27.480509 26435 net.cpp:144] Setting up relu3
I0504 11:53:27.480515 26435 net.cpp:151] Top shape: 20 128 15 15 (576000)
I0504 11:53:27.480517 26435 net.cpp:159] Memory required for data: 24264080
I0504 11:53:27.480521 26435 layer_factory.hpp:77] Creating layer conv4
I0504 11:53:27.480530 26435 net.cpp:94] Creating Layer conv4
I0504 11:53:27.480533 26435 net.cpp:435] conv4 <- conv3
I0504 11:53:27.480540 26435 net.cpp:409] conv4 -> conv4
I0504 11:53:27.502706 26435 net.cpp:144] Setting up conv4
I0504 11:53:27.502748 26435 net.cpp:151] Top shape: 20 128 15 15 (576000)
I0504 11:53:27.502761 26435 net.cpp:159] Memory required for data: 26568080
I0504 11:53:27.502780 26435 layer_factory.hpp:77] Creating layer relu4
I0504 11:53:27.502797 26435 net.cpp:94] Creating Layer relu4
I0504 11:53:27.502810 26435 net.cpp:435] relu4 <- conv4
I0504 11:53:27.502823 26435 net.cpp:396] relu4 -> conv4 (in-place)
I0504 11:53:27.502846 26435 net.cpp:144] Setting up relu4
I0504 11:53:27.502858 26435 net.cpp:151] Top shape: 20 128 15 15 (576000)
I0504 11:53:27.502868 26435 net.cpp:159] Memory required for data: 28872080
I0504 11:53:27.502877 26435 layer_factory.hpp:77] Creating layer conv5
I0504 11:53:27.502898 26435 net.cpp:94] Creating Layer conv5
I0504 11:53:27.502919 26435 net.cpp:435] conv5 <- conv4
I0504 11:53:27.502924 26435 net.cpp:409] conv5 -> conv5
I0504 11:53:27.524958 26435 net.cpp:144] Setting up conv5
I0504 11:53:27.524977 26435 net.cpp:151] Top shape: 20 128 15 15 (576000)
I0504 11:53:27.524982 26435 net.cpp:159] Memory required for data: 31176080
I0504 11:53:27.524993 26435 layer_factory.hpp:77] Creating layer relu5
I0504 11:53:27.525002 26435 net.cpp:94] Creating Layer relu5
I0504 11:53:27.525005 26435 net.cpp:435] relu5 <- conv5
I0504 11:53:27.525010 26435 net.cpp:396] relu5 -> conv5 (in-place)
I0504 11:53:27.525018 26435 net.cpp:144] Setting up relu5
I0504 11:53:27.525024 26435 net.cpp:151] Top shape: 20 128 15 15 (576000)
I0504 11:53:27.525027 26435 net.cpp:159] Memory required for data: 33480080
I0504 11:53:27.525032 26435 layer_factory.hpp:77] Creating layer pool5
I0504 11:53:27.525037 26435 net.cpp:94] Creating Layer pool5
I0504 11:53:27.525040 26435 net.cpp:435] pool5 <- conv5
I0504 11:53:27.525045 26435 net.cpp:409] pool5 -> pool5
I0504 11:53:27.525089 26435 net.cpp:144] Setting up pool5
I0504 11:53:27.525096 26435 net.cpp:151] Top shape: 20 128 7 7 (125440)
I0504 11:53:27.525099 26435 net.cpp:159] Memory required for data: 33981840
I0504 11:53:27.525104 26435 layer_factory.hpp:77] Creating layer ip1
I0504 11:53:27.525111 26435 net.cpp:94] Creating Layer ip1
I0504 11:53:27.525115 26435 net.cpp:435] ip1 <- pool5
I0504 11:53:27.525120 26435 net.cpp:409] ip1 -> ip1
I0504 11:53:27.688464 26435 net.cpp:144] Setting up ip1
I0504 11:53:27.688499 26435 net.cpp:151] Top shape: 20 1024 (20480)
I0504 11:53:27.688503 26435 net.cpp:159] Memory required for data: 34063760
I0504 11:53:27.688513 26435 layer_factory.hpp:77] Creating layer ip2
I0504 11:53:27.688524 26435 net.cpp:94] Creating Layer ip2
I0504 11:53:27.688539 26435 net.cpp:435] ip2 <- ip1
I0504 11:53:27.688545 26435 net.cpp:409] ip2 -> ip2
I0504 11:53:27.702141 26435 net.cpp:144] Setting up ip2
I0504 11:53:27.702162 26435 net.cpp:151] Top shape: 20 512 (10240)
I0504 11:53:27.702167 26435 net.cpp:159] Memory required for data: 34104720
I0504 11:53:27.702174 26435 layer_factory.hpp:77] Creating layer ip3
I0504 11:53:27.702183 26435 net.cpp:94] Creating Layer ip3
I0504 11:53:27.702188 26435 net.cpp:435] ip3 <- ip2
I0504 11:53:27.702193 26435 net.cpp:409] ip3 -> ip3
I0504 11:53:27.702275 26435 net.cpp:144] Setting up ip3
I0504 11:53:27.702293 26435 net.cpp:151] Top shape: 20 1 (20)
I0504 11:53:27.702297 26435 net.cpp:159] Memory required for data: 34104800
I0504 11:53:27.702302 26435 layer_factory.hpp:77] Creating layer loss
I0504 11:53:27.702317 26435 net.cpp:94] Creating Layer loss
I0504 11:53:27.702322 26435 net.cpp:435] loss <- ip3
I0504 11:53:27.702325 26435 net.cpp:435] loss <- label
I0504 11:53:27.702332 26435 net.cpp:409] loss -> loss
I0504 11:53:27.702370 26435 net.cpp:144] Setting up loss
…
