…
I0505 08:13:05.642829  5214 net.cpp:323] The NetState phase (0) differed from the phase (1) specified by a rule in layer intercept
I0505 08:13:05.642844  5214 net.cpp:323] The NetState phase (0) differed from the phase (1) specified by a rule in layer accuracy
I0505 08:13:05.642926  5214 net.cpp:52] Initializing net from parameters: 
state {
  phase: TRAIN
}
layer {
  name: "parameters"
  type: "HDF5Data"
  top: "data"
  top: "label"
  include {
    phase: TRAIN
  }
  hdf5_data_param {
    source: "/home/purduethu/scratch/radon/d/deng106/CNNStatisticalModel/distributions/input/50_distributions_900_sample_size_train-distributions-path.txt"
    batch_size: 20
  }
}
layer {
  name: "conv1"
  type: "Convolution"
  bottom: "data"
  top: "conv1"
  param {
    lr_mult: 1
  }
  param {
    lr_mult: 2
  }
  convolution_param {
    num_output: 64
    pad: 2
    kernel_size: 5
    stride: 1
    weight_filler {
      type: "gaussian"
      std: 0.0001
    }
    bias_filler {
      type: "constant"
    }
  }
}
layer {
  name: "relu1"
  type: "ReLU"
  bottom: "conv1"
  top: "conv1"
}
layer {
  name: "pool1"
  type: "Pooling"
  bottom: "conv1"
  top: "pool1"
  pooling_param {
    pool: MAX
    kernel_size: 3
    stride: 2
  }
}
layer {
  name: "conv2"
  type: "Convolution"
  bottom: "pool1"
  top: "conv2"
  param {
    lr_mult: 1
  }
  param {
    lr_mult: 2
  }
  convolution_param {
    num_output: 128
    pad: 2
    kernel_size: 5
    stride: 1
    weight_filler {
      type: "gaussian"
      std: 0.01
    }
    bias_filler {
      type: "constant"
    }
  }
}
layer {
  name: "relu2"
  type: "ReLU"
  bottom: "conv2"
  top: "conv2"
}
layer {
  name: "conv3"
  type: "Convolution"
  bottom: "conv2"
  top: "conv3"
  param {
    lr_mult: 1
  }
  param {
    lr_mult: 2
  }
  convolution_param {
    num_output: 128
    pad: 2
    kernel_size: 5
    stride: 1
    weight_filler {
      type: "gaussian"
      std: 0.01
    }
    bias_filler {
      type: "constant"
    }
  }
}
layer {
  name: "relu3"
  type: "ReLU"
  bottom: "conv3"
  top: "conv3"
}
layer {
  name: "pool3"
  type: "Pooling"
  bottom: "conv3"
  top: "pool3"
  pooling_param {
    pool: AVE
    kernel_size: 3
    stride: 2
  }
}
layer {
  name: "ip1"
  type: "InnerProduct"
  bottom: "pool3"
  top: "ip1"
  param {
    lr_mult: 1
  }
  param {
    lr_mult: 2
  }
  inner_product_param {
    num_output: 512
    weight_filler {
      type: "gaussian"
      std: 0.1
    }
    bias_filler {
      type: "constant"
    }
  }
}
layer {
  name: "ip2"
  type: "InnerProduct"
  bottom: "ip1"
  top: "ip2"
  param {
    lr_mult: 1
  }
  param {
    lr_mult: 2
  }
  inner_product_param {
    num_output: 256
    weight_filler {
      type: "gaussian"
      std: 0.1
    }
    bias_filler {
      type: "constant"
    }
  }
}
layer {
  name: "ip3"
  type: "InnerProduct"
  bottom: "ip2"
  top: "ip3"
  param {
    lr_mult: 1
  }
  param {
    lr_mult: 2
  }
  inner_product_param {
    num_output: 50
    weight_filler {
      type: "gaussian"
      std: 0.1
    }
    bias_filler {
      type: "constant"
    }
  }
}
layer {
  name: "loss"
  type: "SoftmaxWithLoss"
  bottom: "ip3"
  bottom: "label"
  top: "loss"
}
I0505 08:13:05.642992  5214 layer_factory.hpp:77] Creating layer parameters
I0505 08:13:05.643007  5214 net.cpp:94] Creating Layer parameters
I0505 08:13:05.643019  5214 net.cpp:409] parameters -> data
I0505 08:13:05.643038  5214 net.cpp:409] parameters -> label
I0505 08:13:05.643049  5214 hdf5_data_layer.cpp:79] Loading list of HDF5 filenames from: /home/purduethu/scratch/radon/d/deng106/CNNStatisticalModel/distributions/input/50_distributions_900_sample_size_train-distributions-path.txt
I0505 08:13:05.643071  5214 hdf5_data_layer.cpp:93] Number of HDF5 files: 1
I0505 08:13:05.643697  5214 hdf5.cpp:32] Datatype class: H5T_FLOAT
I0505 08:13:07.061661  5214 hdf5.cpp:35] Datatype class: H5T_INTEGER
I0505 08:13:07.064375  5214 net.cpp:144] Setting up parameters
I0505 08:13:07.064396  5214 net.cpp:151] Top shape: 20 1 30 30 (18000)
I0505 08:13:07.064402  5214 net.cpp:151] Top shape: 20 (20)
I0505 08:13:07.064406  5214 net.cpp:159] Memory required for data: 72080
I0505 08:13:07.064414  5214 layer_factory.hpp:77] Creating layer conv1
I0505 08:13:07.064438  5214 net.cpp:94] Creating Layer conv1
I0505 08:13:07.064445  5214 net.cpp:435] conv1 <- data
I0505 08:13:07.064455  5214 net.cpp:409] conv1 -> conv1
I0505 08:13:07.070279  5214 net.cpp:144] Setting up conv1
I0505 08:13:07.070297  5214 net.cpp:151] Top shape: 20 64 30 30 (1152000)
I0505 08:13:07.070302  5214 net.cpp:159] Memory required for data: 4680080
I0505 08:13:07.070313  5214 layer_factory.hpp:77] Creating layer relu1
I0505 08:13:07.070322  5214 net.cpp:94] Creating Layer relu1
I0505 08:13:07.070327  5214 net.cpp:435] relu1 <- conv1
I0505 08:13:07.070332  5214 net.cpp:396] relu1 -> conv1 (in-place)
I0505 08:13:07.070348  5214 net.cpp:144] Setting up relu1
I0505 08:13:07.070353  5214 net.cpp:151] Top shape: 20 64 30 30 (1152000)
I0505 08:13:07.070358  5214 net.cpp:159] Memory required for data: 9288080
I0505 08:13:07.070360  5214 layer_factory.hpp:77] Creating layer pool1
I0505 08:13:07.070368  5214 net.cpp:94] Creating Layer pool1
I0505 08:13:07.070370  5214 net.cpp:435] pool1 <- conv1
I0505 08:13:07.070375  5214 net.cpp:409] pool1 -> pool1
I0505 08:13:07.070417  5214 net.cpp:144] Setting up pool1
I0505 08:13:07.070425  5214 net.cpp:151] Top shape: 20 64 15 15 (288000)
I0505 08:13:07.070427  5214 net.cpp:159] Memory required for data: 10440080
I0505 08:13:07.070430  5214 layer_factory.hpp:77] Creating layer conv2
I0505 08:13:07.070441  5214 net.cpp:94] Creating Layer conv2
I0505 08:13:07.070443  5214 net.cpp:435] conv2 <- pool1
I0505 08:13:07.070448  5214 net.cpp:409] conv2 -> conv2
I0505 08:13:07.083508  5214 net.cpp:144] Setting up conv2
I0505 08:13:07.083523  5214 net.cpp:151] Top shape: 20 128 15 15 (576000)
I0505 08:13:07.083528  5214 net.cpp:159] Memory required for data: 12744080
I0505 08:13:07.083536  5214 layer_factory.hpp:77] Creating layer relu2
I0505 08:13:07.083542  5214 net.cpp:94] Creating Layer relu2
I0505 08:13:07.083546  5214 net.cpp:435] relu2 <- conv2
I0505 08:13:07.083551  5214 net.cpp:396] relu2 -> conv2 (in-place)
I0505 08:13:07.083559  5214 net.cpp:144] Setting up relu2
I0505 08:13:07.083564  5214 net.cpp:151] Top shape: 20 128 15 15 (576000)
I0505 08:13:07.083566  5214 net.cpp:159] Memory required for data: 15048080
I0505 08:13:07.083570  5214 layer_factory.hpp:77] Creating layer conv3
I0505 08:13:07.083577  5214 net.cpp:94] Creating Layer conv3
I0505 08:13:07.083581  5214 net.cpp:435] conv3 <- conv2
I0505 08:13:07.083586  5214 net.cpp:409] conv3 -> conv3
I0505 08:13:07.105170  5214 net.cpp:144] Setting up conv3
I0505 08:13:07.105186  5214 net.cpp:151] Top shape: 20 128 15 15 (576000)
I0505 08:13:07.105190  5214 net.cpp:159] Memory required for data: 17352080
I0505 08:13:07.105204  5214 layer_factory.hpp:77] Creating layer relu3
I0505 08:13:07.105211  5214 net.cpp:94] Creating Layer relu3
I0505 08:13:07.105216  5214 net.cpp:435] relu3 <- conv3
I0505 08:13:07.105221  5214 net.cpp:396] relu3 -> conv3 (in-place)
I0505 08:13:07.105227  5214 net.cpp:144] Setting up relu3
I0505 08:13:07.105232  5214 net.cpp:151] Top shape: 20 128 15 15 (576000)
I0505 08:13:07.105235  5214 net.cpp:159] Memory required for data: 19656080
I0505 08:13:07.105238  5214 layer_factory.hpp:77] Creating layer pool3
I0505 08:13:07.105253  5214 net.cpp:94] Creating Layer pool3
I0505 08:13:07.105257  5214 net.cpp:435] pool3 <- conv3
I0505 08:13:07.105262  5214 net.cpp:409] pool3 -> pool3
I0505 08:13:07.105296  5214 net.cpp:144] Setting up pool3
I0505 08:13:07.105304  5214 net.cpp:151] Top shape: 20 128 7 7 (125440)
I0505 08:13:07.105307  5214 net.cpp:159] Memory required for data: 20157840
I0505 08:13:07.105310  5214 layer_factory.hpp:77] Creating layer ip1
I0505 08:13:07.105320  5214 net.cpp:94] Creating Layer ip1
I0505 08:13:07.105324  5214 net.cpp:435] ip1 <- pool3
I0505 08:13:07.105329  5214 net.cpp:409] ip1 -> ip1
I0505 08:13:07.182562  5214 net.cpp:144] Setting up ip1
I0505 08:13:07.182595  5214 net.cpp:151] Top shape: 20 512 (10240)
I0505 08:13:07.182600  5214 net.cpp:159] Memory required for data: 20198800
I0505 08:13:07.182607  5214 layer_factory.hpp:77] Creating layer ip2
I0505 08:13:07.182617  5214 net.cpp:94] Creating Layer ip2
I0505 08:13:07.182621  5214 net.cpp:435] ip2 <- ip1
I0505 08:13:07.182628  5214 net.cpp:409] ip2 -> ip2
I0505 08:13:07.185766  5214 net.cpp:144] Setting up ip2
I0505 08:13:07.185775  5214 net.cpp:151] Top shape: 20 256 (5120)
I0505 08:13:07.185780  5214 net.cpp:159] Memory required for data: 20219280
I0505 08:13:07.185786  5214 layer_factory.hpp:77] Creating layer ip3
I0505 08:13:07.185792  5214 net.cpp:94] Creating Layer ip3
I0505 08:13:07.185796  5214 net.cpp:435] ip3 <- ip2
I0505 08:13:07.185801  5214 net.cpp:409] ip3 -> ip3
I0505 08:13:07.186884  5214 net.cpp:144] Setting up ip3
I0505 08:13:07.186897  5214 net.cpp:151] Top shape: 20 50 (1000)
I0505 08:13:07.186902  5214 net.cpp:159] Memory required for data: 20223280
I0505 08:13:07.186908  5214 layer_factory.hpp:77] Creating layer loss
I0505 08:13:07.186913  5214 net.cpp:94] Creating Layer loss
I0505 08:13:07.186918  5214 net.cpp:435] loss <- ip3
I0505 08:13:07.186921  5214 net.cpp:435] loss <- label
I0505 08:13:07.186928  5214 net.cpp:409] loss -> loss
I0505 08:13:07.186939  5214 layer_factory.hpp:77] Creating layer loss
…
I0505 08:13:07.187369  5214 solver.cpp:181] Creating test net (#0) specified by net file: ./protocol/dis_50_900_dimension.protocol_distribution
I0505 08:13:07.187399  5214 net.cpp:323] The NetState phase (1) differed from the phase (0) specified by a rule in layer parameters
I0505 08:13:07.187479  5214 net.cpp:52] Initializing net from parameters: 
state {
  phase: TEST
}
layer {
  name: "intercept"
  type: "HDF5Data"
  top: "data"
  top: "label"
  include {
    phase: TEST
  }
  hdf5_data_param {
    source: "/home/purduethu/scratch/radon/d/deng106/CNNStatisticalModel/distributions/input/50_distributions_900_sample_size_test-distributions-path.txt"
    batch_size: 20
  }
}
layer {
  name: "conv1"
  type: "Convolution"
  bottom: "data"
  top: "conv1"
  param {
    lr_mult: 1
  }
  param {
    lr_mult: 2
  }
  convolution_param {
    num_output: 64
    pad: 2
    kernel_size: 5
    stride: 1
    weight_filler {
      type: "gaussian"
      std: 0.0001
    }
    bias_filler {
      type: "constant"
    }
  }
}
layer {
  name: "relu1"
  type: "ReLU"
  bottom: "conv1"
  top: "conv1"
}
layer {
  name: "pool1"
  type: "Pooling"
  bottom: "conv1"
  top: "pool1"
  pooling_param {
    pool: MAX
    kernel_size: 3
    stride: 2
  }
}
layer {
  name: "conv2"
  type: "Convolution"
  bottom: "pool1"
  top: "conv2"
  param {
    lr_mult: 1
  }
  param {
    lr_mult: 2
  }
  convolution_param {
    num_output: 128
    pad: 2
    kernel_size: 5
    stride: 1
    weight_filler {
      type: "gaussian"
      std: 0.01
    }
    bias_filler {
      type: "constant"
    }
  }
}
layer {
  name: "relu2"
  type: "ReLU"
  bottom: "conv2"
  top: "conv2"
}
layer {
  name: "conv3"
  type: "Convolution"
  bottom: "conv2"
  top: "conv3"
  param {
    lr_mult: 1
  }
  param {
    lr_mult: 2
  }
  convolution_param {
    num_output: 128
    pad: 2
    kernel_size: 5
    stride: 1
    weight_filler {
      type: "gaussian"
      std: 0.01
    }
    bias_filler {
      type: "constant"
    }
  }
}
layer {
  name: "relu3"
  type: "ReLU"
  bottom: "conv3"
  top: "conv3"
}
layer {
  name: "pool3"
  type: "Pooling"
  bottom: "conv3"
  top: "pool3"
  pooling_param {
    pool: AVE
    kernel_size: 3
    stride: 2
  }
}
layer {
  name: "ip1"
  type: "InnerProduct"
  bottom: "pool3"
  top: "ip1"
  param {
    lr_mult: 1
  }
  param {
    lr_mult: 2
  }
  inner_product_param {
    num_output: 512
    weight_filler {
      type: "gaussian"
      std: 0.1
    }
    bias_filler {
      type: "constant"
    }
  }
}
layer {
  name: "ip2"
  type: "InnerProduct"
  bottom: "ip1"
  top: "ip2"
  param {
    lr_mult: 1
  }
  param {
    lr_mult: 2
  }
  inner_product_param {
    num_output: 256
    weight_filler {
      type: "gaussian"
      std: 0.1
    }
    bias_filler {
      type: "constant"
    }
  }
}
layer {
  name: "ip3"
  type: "InnerProduct"
  bottom: "ip2"
  top: "ip3"
  param {
    lr_mult: 1
  }
  param {
    lr_mult: 2
  }
  inner_product_param {
    num_output: 50
    weight_filler {
      type: "gaussian"
      std: 0.1
    }
    bias_filler {
      type: "constant"
    }
  }
}
layer {
  name: "accuracy"
  type: "Accuracy"
  bottom: "ip3"
  bottom: "label"
  top: "accuracy"
  include {
    phase: TEST
  }
}
layer {
  name: "loss"
  type: "SoftmaxWithLoss"
  bottom: "ip3"
  bottom: "label"
  top: "loss"
}
I0505 08:13:07.187542  5214 layer_factory.hpp:77] Creating layer intercept
I0505 08:13:07.187551  5214 net.cpp:94] Creating Layer intercept
I0505 08:13:07.187554  5214 net.cpp:409] intercept -> data
I0505 08:13:07.187561  5214 net.cpp:409] intercept -> label
I0505 08:13:07.187567  5214 hdf5_data_layer.cpp:79] Loading list of HDF5 filenames from: /home/purduethu/scratch/radon/d/deng106/CNNStatisticalModel/distributions/input/50_distributions_900_sample_size_test-distributions-path.txt
I0505 08:13:07.187587  5214 hdf5_data_layer.cpp:93] Number of HDF5 files: 1
I0505 08:13:07.535567  5214 net.cpp:144] Setting up intercept
I0505 08:13:07.535603  5214 net.cpp:151] Top shape: 20 1 30 30 (18000)
I0505 08:13:07.535609  5214 net.cpp:151] Top shape: 20 (20)
I0505 08:13:07.535612  5214 net.cpp:159] Memory required for data: 72080
I0505 08:13:07.535617  5214 layer_factory.hpp:77] Creating layer label_intercept_1_split
I0505 08:13:07.535645  5214 net.cpp:94] Creating Layer label_intercept_1_split
I0505 08:13:07.535650  5214 net.cpp:435] label_intercept_1_split <- label
I0505 08:13:07.535656  5214 net.cpp:409] label_intercept_1_split -> label_intercept_1_split_0
I0505 08:13:07.535665  5214 net.cpp:409] label_intercept_1_split -> label_intercept_1_split_1
I0505 08:13:07.535692  5214 net.cpp:144] Setting up label_intercept_1_split
I0505 08:13:07.535698  5214 net.cpp:151] Top shape: 20 (20)
I0505 08:13:07.535702  5214 net.cpp:151] Top shape: 20 (20)
I0505 08:13:07.535713  5214 net.cpp:159] Memory required for data: 72240
I0505 08:13:07.535717  5214 layer_factory.hpp:77] Creating layer conv1
I0505 08:13:07.535727  5214 net.cpp:94] Creating Layer conv1
I0505 08:13:07.535732  5214 net.cpp:435] conv1 <- data
I0505 08:13:07.535737  5214 net.cpp:409] conv1 -> conv1
I0505 08:13:07.540221  5214 net.cpp:144] Setting up conv1
I0505 08:13:07.540236  5214 net.cpp:151] Top shape: 20 64 30 30 (1152000)
I0505 08:13:07.540241  5214 net.cpp:159] Memory required for data: 4680240
I0505 08:13:07.540251  5214 layer_factory.hpp:77] Creating layer relu1
I0505 08:13:07.540257  5214 net.cpp:94] Creating Layer relu1
I0505 08:13:07.540261  5214 net.cpp:435] relu1 <- conv1
I0505 08:13:07.540266  5214 net.cpp:396] relu1 -> conv1 (in-place)
I0505 08:13:07.540274  5214 net.cpp:144] Setting up relu1
I0505 08:13:07.540279  5214 net.cpp:151] Top shape: 20 64 30 30 (1152000)
I0505 08:13:07.540282  5214 net.cpp:159] Memory required for data: 9288240
I0505 08:13:07.540285  5214 layer_factory.hpp:77] Creating layer pool1
I0505 08:13:07.540293  5214 net.cpp:94] Creating Layer pool1
I0505 08:13:07.540297  5214 net.cpp:435] pool1 <- conv1
I0505 08:13:07.540302  5214 net.cpp:409] pool1 -> pool1
I0505 08:13:07.540336  5214 net.cpp:144] Setting up pool1
I0505 08:13:07.540343  5214 net.cpp:151] Top shape: 20 64 15 15 (288000)
I0505 08:13:07.540345  5214 net.cpp:159] Memory required for data: 10440240
I0505 08:13:07.540349  5214 layer_factory.hpp:77] Creating layer conv2
I0505 08:13:07.540357  5214 net.cpp:94] Creating Layer conv2
I0505 08:13:07.540360  5214 net.cpp:435] conv2 <- pool1
I0505 08:13:07.540365  5214 net.cpp:409] conv2 -> conv2
I0505 08:13:07.548543  5214 net.cpp:144] Setting up conv2
I0505 08:13:07.548566  5214 net.cpp:151] Top shape: 20 128 15 15 (576000)
I0505 08:13:07.548571  5214 net.cpp:159] Memory required for data: 12744240
I0505 08:13:07.548579  5214 layer_factory.hpp:77] Creating layer relu2
I0505 08:13:07.548586  5214 net.cpp:94] Creating Layer relu2
I0505 08:13:07.548589  5214 net.cpp:435] relu2 <- conv2
I0505 08:13:07.548594  5214 net.cpp:396] relu2 -> conv2 (in-place)
I0505 08:13:07.548602  5214 net.cpp:144] Setting up relu2
I0505 08:13:07.548606  5214 net.cpp:151] Top shape: 20 128 15 15 (576000)
I0505 08:13:07.548610  5214 net.cpp:159] Memory required for data: 15048240
I0505 08:13:07.548614  5214 layer_factory.hpp:77] Creating layer conv3
I0505 08:13:07.548621  5214 net.cpp:94] Creating Layer conv3
I0505 08:13:07.548624  5214 net.cpp:435] conv3 <- conv2
I0505 08:13:07.548630  5214 net.cpp:409] conv3 -> conv3
I0505 08:13:07.563679  5214 net.cpp:144] Setting up conv3
I0505 08:13:07.563695  5214 net.cpp:151] Top shape: 20 128 15 15 (576000)
I0505 08:13:07.563699  5214 net.cpp:159] Memory required for data: 17352240
I0505 08:13:07.563707  5214 layer_factory.hpp:77] Creating layer relu3
I0505 08:13:07.563714  5214 net.cpp:94] Creating Layer relu3
I0505 08:13:07.563719  5214 net.cpp:435] relu3 <- conv3
I0505 08:13:07.563724  5214 net.cpp:396] relu3 -> conv3 (in-place)
I0505 08:13:07.563731  5214 net.cpp:144] Setting up relu3
I0505 08:13:07.563736  5214 net.cpp:151] Top shape: 20 128 15 15 (576000)
I0505 08:13:07.563740  5214 net.cpp:159] Memory required for data: 19656240
I0505 08:13:07.563742  5214 layer_factory.hpp:77] Creating layer pool3
I0505 08:13:07.563747  5214 net.cpp:94] Creating Layer pool3
I0505 08:13:07.563751  5214 net.cpp:435] pool3 <- conv3
I0505 08:13:07.563755  5214 net.cpp:409] pool3 -> pool3
I0505 08:13:07.563782  5214 net.cpp:144] Setting up pool3
I0505 08:13:07.563794  5214 net.cpp:151] Top shape: 20 128 7 7 (125440)
I0505 08:13:07.563797  5214 net.cpp:159] Memory required for data: 20158000
I0505 08:13:07.563802  5214 layer_factory.hpp:77] Creating layer ip1
I0505 08:13:07.563808  5214 net.cpp:94] Creating Layer ip1
I0505 08:13:07.563812  5214 net.cpp:435] ip1 <- pool3
I0505 08:13:07.563817  5214 net.cpp:409] ip1 -> ip1
I0505 08:13:07.640743  5214 net.cpp:144] Setting up ip1
I0505 08:13:07.640775  5214 net.cpp:151] Top shape: 20 512 (10240)
I0505 08:13:07.640779  5214 net.cpp:159] Memory required for data: 20198960
I0505 08:13:07.640800  5214 layer_factory.hpp:77] Creating layer ip2
I0505 08:13:07.640810  5214 net.cpp:94] Creating Layer ip2
I0505 08:13:07.640815  5214 net.cpp:435] ip2 <- ip1
I0505 08:13:07.640821  5214 net.cpp:409] ip2 -> ip2
I0505 08:13:07.643929  5214 net.cpp:144] Setting up ip2
I0505 08:13:07.643937  5214 net.cpp:151] Top shape: 20 256 (5120)
I0505 08:13:07.643941  5214 net.cpp:159] Memory required for data: 20219440
I0505 08:13:07.643950  5214 layer_factory.hpp:77] Creating layer ip3
I0505 08:13:07.643956  5214 net.cpp:94] Creating Layer ip3
I0505 08:13:07.643960  5214 net.cpp:435] ip3 <- ip2
I0505 08:13:07.643965  5214 net.cpp:409] ip3 -> ip3
I0505 08:13:07.644335  5214 net.cpp:144] Setting up ip3
I0505 08:13:07.644342  5214 net.cpp:151] Top shape: 20 50 (1000)
I0505 08:13:07.644346  5214 net.cpp:159] Memory required for data: 20223440
I0505 08:13:07.644351  5214 layer_factory.hpp:77] Creating layer ip3_ip3_0_split
I0505 08:13:07.644357  5214 net.cpp:94] Creating Layer ip3_ip3_0_split
I0505 08:13:07.644361  5214 net.cpp:435] ip3_ip3_0_split <- ip3
I0505 08:13:07.644364  5214 net.cpp:409] ip3_ip3_0_split -> ip3_ip3_0_split_0
I0505 08:13:07.644371  5214 net.cpp:409] ip3_ip3_0_split -> ip3_ip3_0_split_1
I0505 08:13:07.644394  5214 net.cpp:144] Setting up ip3_ip3_0_split
I0505 08:13:07.644400  5214 net.cpp:151] Top shape: 20 50 (1000)
I0505 08:13:07.644403  5214 net.cpp:151] Top shape: 20 50 (1000)
I0505 08:13:07.644407  5214 net.cpp:159] Memory required for data: 20231440
I0505 08:13:07.644410  5214 layer_factory.hpp:77] Creating layer accuracy
I0505 08:13:07.644424  5214 net.cpp:94] Creating Layer accuracy
I0505 08:13:07.644428  5214 net.cpp:435] accuracy <- ip3_ip3_0_split_0
I0505 08:13:07.644431  5214 net.cpp:435] accuracy <- label_intercept_1_split_0
I0505 08:13:07.644436  5214 net.cpp:409] accuracy -> accuracy
…
