…
I0504 13:36:58.819458 26852 net.cpp:323] The NetState phase (0) differed from the phase (1) specified by a rule in layer intercept
I0504 13:36:58.819474 26852 net.cpp:323] The NetState phase (0) differed from the phase (1) specified by a rule in layer loss
I0504 13:36:58.819566 26852 net.cpp:52] Initializing net from parameters: 
state {
  phase: TRAIN
}
layer {
  name: "parameters"
  type: "HDF5Data"
  top: "data"
  top: "label"
  include {
    phase: TRAIN
  }
  hdf5_data_param {
    source: "/home/purduethu/scratch/radon/d/deng106/CNNStatisticalModel/distributions/input/5_distributions_900_sample_size_train-parameters-path.txt"
    batch_size: 20
  }
}
layer {
  name: "conv1"
  type: "Convolution"
  bottom: "data"
  top: "conv1"
  param {
    lr_mult: 1
  }
  param {
    lr_mult: 2
  }
  convolution_param {
    num_output: 64
    pad: 2
    kernel_size: 5
    stride: 1
    weight_filler {
      type: "gaussian"
      std: 0.0001
    }
    bias_filler {
      type: "constant"
    }
  }
}
layer {
  name: "relu1"
  type: "ReLU"
  bottom: "conv1"
  top: "conv1"
}
layer {
  name: "conv2"
  type: "Convolution"
  bottom: "conv1"
  top: "conv2"
  param {
    lr_mult: 1
  }
  param {
    lr_mult: 2
  }
  convolution_param {
    num_output: 64
    pad: 2
    kernel_size: 5
    stride: 1
    weight_filler {
      type: "gaussian"
      std: 0.01
    }
    bias_filler {
      type: "constant"
    }
  }
}
layer {
  name: "relu2"
  type: "ReLU"
  bottom: "conv2"
  top: "conv2"
}
layer {
  name: "pool2"
  type: "Pooling"
  bottom: "conv2"
  top: "pool2"
  pooling_param {
    pool: MAX
    kernel_size: 3
    stride: 2
  }
}
layer {
  name: "conv3"
  type: "Convolution"
  bottom: "pool2"
  top: "conv3"
  param {
    lr_mult: 1
  }
  param {
    lr_mult: 2
  }
  convolution_param {
    num_output: 128
    pad: 2
    kernel_size: 5
    stride: 1
    weight_filler {
      type: "gaussian"
      std: 0.01
    }
    bias_filler {
      type: "constant"
    }
  }
}
layer {
  name: "relu3"
  type: "ReLU"
  bottom: "conv3"
  top: "conv3"
}
layer {
  name: "conv4"
  type: "Convolution"
  bottom: "conv3"
  top: "conv4"
  param {
    lr_mult: 1
  }
  param {
    lr_mult: 2
  }
  convolution_param {
    num_output: 128
    pad: 2
    kernel_size: 5
    stride: 1
    weight_filler {
      type: "gaussian"
      std: 0.01
    }
    bias_filler {
      type: "constant"
    }
  }
}
layer {
  name: "relu4"
  type: "ReLU"
  bottom: "conv4"
  top: "conv4"
}
layer {
  name: "conv5"
  type: "Convolution"
  bottom: "conv4"
  top: "conv5"
  param {
    lr_mult: 1
  }
  param {
    lr_mult: 2
  }
  convolution_param {
    num_output: 128
    pad: 2
    kernel_size: 5
    stride: 1
    weight_filler {
      type: "gaussian"
      std: 0.01
    }
    bias_filler {
      type: "constant"
    }
  }
}
layer {
  name: "relu5"
  type: "ReLU"
  bottom: "conv5"
  top: "conv5"
}
layer {
  name: "pool5"
  type: "Pooling"
  bottom: "conv5"
  top: "pool5"
  pooling_param {
    pool: AVE
    kernel_size: 3
    stride: 2
  }
}
layer {
  name: "ip1"
  type: "InnerProduct"
  bottom: "pool5"
  top: "ip1"
  param {
    lr_mult: 1
  }
  param {
    lr_mult: 2
  }
  inner_product_param {
    num_output: 1024
    weight_filler {
      type: "gaussian"
      std: 0.1
    }
    bias_filler {
      type: "constant"
    }
  }
}
layer {
  name: "ip2"
  type: "InnerProduct"
  bottom: "ip1"
  top: "ip2"
  param {
    lr_mult: 1
  }
  param {
    lr_mult: 2
  }
  inner_product_param {
    num_output: 512
    weight_filler {
      type: "gaussian"
      std: 0.1
    }
    bias_filler {
      type: "constant"
    }
  }
}
layer {
  name: "ip3"
  type: "InnerProduct"
  bottom: "ip2"
  top: "ip3"
  param {
    lr_mult: 1
  }
  param {
    lr_mult: 2
  }
  inner_product_param {
    num_output: 1
    weight_filler {
      type: "gaussian"
      std: 0.1
    }
    bias_filler {
      type: "constant"
    }
  }
}
layer {
  name: "loss"
  type: "HuberLoss"
  bottom: "ip3"
  bottom: "label"
  top: "loss"
  include {
    phase: TRAIN
  }
}
I0504 13:36:58.819644 26852 layer_factory.hpp:77] Creating layer parameters
I0504 13:36:58.819660 26852 net.cpp:94] Creating Layer parameters
I0504 13:36:58.819666 26852 net.cpp:409] parameters -> data
I0504 13:36:58.819687 26852 net.cpp:409] parameters -> label
I0504 13:36:58.819697 26852 hdf5_data_layer.cpp:79] Loading list of HDF5 filenames from: /home/purduethu/scratch/radon/d/deng106/CNNStatisticalModel/distributions/input/5_distributions_900_sample_size_train-parameters-path.txt
I0504 13:36:58.819721 26852 hdf5_data_layer.cpp:93] Number of HDF5 files: 1
I0504 13:36:58.820303 26852 hdf5.cpp:32] Datatype class: H5T_FLOAT
I0504 13:36:58.961746 26852 net.cpp:144] Setting up parameters
I0504 13:36:58.961789 26852 net.cpp:151] Top shape: 20 1 30 30 (18000)
I0504 13:36:58.961796 26852 net.cpp:151] Top shape: 20 (20)
I0504 13:36:58.961799 26852 net.cpp:159] Memory required for data: 72080
I0504 13:36:58.961807 26852 layer_factory.hpp:77] Creating layer conv1
I0504 13:36:58.961830 26852 net.cpp:94] Creating Layer conv1
I0504 13:36:58.961838 26852 net.cpp:435] conv1 <- data
I0504 13:36:58.961849 26852 net.cpp:409] conv1 -> conv1
I0504 13:36:58.967734 26852 net.cpp:144] Setting up conv1
I0504 13:36:58.967751 26852 net.cpp:151] Top shape: 20 64 30 30 (1152000)
I0504 13:36:58.967754 26852 net.cpp:159] Memory required for data: 4680080
I0504 13:36:58.967767 26852 layer_factory.hpp:77] Creating layer relu1
I0504 13:36:58.967774 26852 net.cpp:94] Creating Layer relu1
I0504 13:36:58.967778 26852 net.cpp:435] relu1 <- conv1
I0504 13:36:58.967783 26852 net.cpp:396] relu1 -> conv1 (in-place)
I0504 13:36:58.967798 26852 net.cpp:144] Setting up relu1
I0504 13:36:58.967804 26852 net.cpp:151] Top shape: 20 64 30 30 (1152000)
I0504 13:36:58.967808 26852 net.cpp:159] Memory required for data: 9288080
I0504 13:36:58.967811 26852 layer_factory.hpp:77] Creating layer conv2
I0504 13:36:58.967819 26852 net.cpp:94] Creating Layer conv2
I0504 13:36:58.967823 26852 net.cpp:435] conv2 <- conv1
I0504 13:36:58.967828 26852 net.cpp:409] conv2 -> conv2
I0504 13:36:58.988822 26852 net.cpp:144] Setting up conv2
I0504 13:36:58.988838 26852 net.cpp:151] Top shape: 20 64 30 30 (1152000)
I0504 13:36:58.988842 26852 net.cpp:159] Memory required for data: 13896080
I0504 13:36:58.988852 26852 layer_factory.hpp:77] Creating layer relu2
I0504 13:36:58.988858 26852 net.cpp:94] Creating Layer relu2
I0504 13:36:58.988862 26852 net.cpp:435] relu2 <- conv2
I0504 13:36:58.988867 26852 net.cpp:396] relu2 -> conv2 (in-place)
I0504 13:36:58.988875 26852 net.cpp:144] Setting up relu2
I0504 13:36:58.988880 26852 net.cpp:151] Top shape: 20 64 30 30 (1152000)
I0504 13:36:58.988883 26852 net.cpp:159] Memory required for data: 18504080
I0504 13:36:58.988886 26852 layer_factory.hpp:77] Creating layer pool2
I0504 13:36:58.988894 26852 net.cpp:94] Creating Layer pool2
I0504 13:36:58.988903 26852 net.cpp:435] pool2 <- conv2
I0504 13:36:58.988909 26852 net.cpp:409] pool2 -> pool2
I0504 13:36:58.988955 26852 net.cpp:144] Setting up pool2
I0504 13:36:58.988961 26852 net.cpp:151] Top shape: 20 64 15 15 (288000)
I0504 13:36:58.988965 26852 net.cpp:159] Memory required for data: 19656080
I0504 13:36:58.988970 26852 layer_factory.hpp:77] Creating layer conv3
I0504 13:36:58.988977 26852 net.cpp:94] Creating Layer conv3
I0504 13:36:58.988981 26852 net.cpp:435] conv3 <- pool2
I0504 13:36:58.988986 26852 net.cpp:409] conv3 -> conv3
I0504 13:36:59.002337 26852 net.cpp:144] Setting up conv3
I0504 13:36:59.002352 26852 net.cpp:151] Top shape: 20 128 15 15 (576000)
I0504 13:36:59.002357 26852 net.cpp:159] Memory required for data: 21960080
I0504 13:36:59.002367 26852 layer_factory.hpp:77] Creating layer relu3
I0504 13:36:59.002372 26852 net.cpp:94] Creating Layer relu3
I0504 13:36:59.002377 26852 net.cpp:435] relu3 <- conv3
I0504 13:36:59.002382 26852 net.cpp:396] relu3 -> conv3 (in-place)
I0504 13:36:59.002389 26852 net.cpp:144] Setting up relu3
I0504 13:36:59.002394 26852 net.cpp:151] Top shape: 20 128 15 15 (576000)
I0504 13:36:59.002398 26852 net.cpp:159] Memory required for data: 24264080
I0504 13:36:59.002401 26852 layer_factory.hpp:77] Creating layer conv4
I0504 13:36:59.002409 26852 net.cpp:94] Creating Layer conv4
I0504 13:36:59.002413 26852 net.cpp:435] conv4 <- conv3
I0504 13:36:59.002418 26852 net.cpp:409] conv4 -> conv4
I0504 13:36:59.025598 26852 net.cpp:144] Setting up conv4
I0504 13:36:59.025614 26852 net.cpp:151] Top shape: 20 128 15 15 (576000)
I0504 13:36:59.025617 26852 net.cpp:159] Memory required for data: 26568080
I0504 13:36:59.025624 26852 layer_factory.hpp:77] Creating layer relu4
I0504 13:36:59.025631 26852 net.cpp:94] Creating Layer relu4
I0504 13:36:59.025635 26852 net.cpp:435] relu4 <- conv4
I0504 13:36:59.025640 26852 net.cpp:396] relu4 -> conv4 (in-place)
I0504 13:36:59.025648 26852 net.cpp:144] Setting up relu4
I0504 13:36:59.025653 26852 net.cpp:151] Top shape: 20 128 15 15 (576000)
I0504 13:36:59.025656 26852 net.cpp:159] Memory required for data: 28872080
I0504 13:36:59.025660 26852 layer_factory.hpp:77] Creating layer conv5
I0504 13:36:59.025667 26852 net.cpp:94] Creating Layer conv5
I0504 13:36:59.025671 26852 net.cpp:435] conv5 <- conv4
I0504 13:36:59.025677 26852 net.cpp:409] conv5 -> conv5
I0504 13:36:59.047138 26852 net.cpp:144] Setting up conv5
I0504 13:36:59.047165 26852 net.cpp:151] Top shape: 20 128 15 15 (576000)
I0504 13:36:59.047174 26852 net.cpp:159] Memory required for data: 31176080
I0504 13:36:59.047191 26852 layer_factory.hpp:77] Creating layer relu5
I0504 13:36:59.047202 26852 net.cpp:94] Creating Layer relu5
I0504 13:36:59.047210 26852 net.cpp:435] relu5 <- conv5
I0504 13:36:59.047219 26852 net.cpp:396] relu5 -> conv5 (in-place)
I0504 13:36:59.047233 26852 net.cpp:144] Setting up relu5
I0504 13:36:59.047242 26852 net.cpp:151] Top shape: 20 128 15 15 (576000)
I0504 13:36:59.047248 26852 net.cpp:159] Memory required for data: 33480080
I0504 13:36:59.047255 26852 layer_factory.hpp:77] Creating layer pool5
I0504 13:36:59.047264 26852 net.cpp:94] Creating Layer pool5
I0504 13:36:59.047271 26852 net.cpp:435] pool5 <- conv5
I0504 13:36:59.047281 26852 net.cpp:409] pool5 -> pool5
I0504 13:36:59.047339 26852 net.cpp:144] Setting up pool5
I0504 13:36:59.047353 26852 net.cpp:151] Top shape: 20 128 7 7 (125440)
I0504 13:36:59.047358 26852 net.cpp:159] Memory required for data: 33981840
I0504 13:36:59.047365 26852 layer_factory.hpp:77] Creating layer ip1
I0504 13:36:59.047381 26852 net.cpp:94] Creating Layer ip1
I0504 13:36:59.047389 26852 net.cpp:435] ip1 <- pool5
I0504 13:36:59.047399 26852 net.cpp:409] ip1 -> ip1
I0504 13:36:59.210078 26852 net.cpp:144] Setting up ip1
I0504 13:36:59.210113 26852 net.cpp:151] Top shape: 20 1024 (20480)
I0504 13:36:59.210117 26852 net.cpp:159] Memory required for data: 34063760
I0504 13:36:59.210126 26852 layer_factory.hpp:77] Creating layer ip2
I0504 13:36:59.210136 26852 net.cpp:94] Creating Layer ip2
I0504 13:36:59.210152 26852 net.cpp:435] ip2 <- ip1
I0504 13:36:59.210160 26852 net.cpp:409] ip2 -> ip2
I0504 13:36:59.223713 26852 net.cpp:144] Setting up ip2
I0504 13:36:59.223727 26852 net.cpp:151] Top shape: 20 512 (10240)
I0504 13:36:59.223731 26852 net.cpp:159] Memory required for data: 34104720
I0504 13:36:59.223737 26852 layer_factory.hpp:77] Creating layer ip3
I0504 13:36:59.223745 26852 net.cpp:94] Creating Layer ip3
I0504 13:36:59.223749 26852 net.cpp:435] ip3 <- ip2
I0504 13:36:59.223755 26852 net.cpp:409] ip3 -> ip3
I0504 13:36:59.223835 26852 net.cpp:144] Setting up ip3
I0504 13:36:59.223851 26852 net.cpp:151] Top shape: 20 1 (20)
I0504 13:36:59.223855 26852 net.cpp:159] Memory required for data: 34104800
I0504 13:36:59.223860 26852 layer_factory.hpp:77] Creating layer loss
I0504 13:36:59.223875 26852 net.cpp:94] Creating Layer loss
I0504 13:36:59.223879 26852 net.cpp:435] loss <- ip3
I0504 13:36:59.223883 26852 net.cpp:435] loss <- label
I0504 13:36:59.223891 26852 net.cpp:409] loss -> loss
I0504 13:36:59.223927 26852 net.cpp:144] Setting up loss
…
