…
I0503 18:31:44.140049 21865 net.cpp:323] The NetState phase (0) differed from the phase (1) specified by a rule in layer intercept
I0503 18:31:44.140065 21865 net.cpp:323] The NetState phase (0) differed from the phase (1) specified by a rule in layer accuracy
I0503 18:31:44.140158 21865 net.cpp:52] Initializing net from parameters: 
state {
  phase: TRAIN
}
layer {
  name: "parameters"
  type: "HDF5Data"
  top: "data"
  top: "label"
  include {
    phase: TRAIN
  }
  hdf5_data_param {
    source: "/home/purduethu/scratch/radon/d/deng106/CNNStatisticalModel/distributions/input/20_distributions_900_sample_size_train-distributions-path.txt"
    batch_size: 20
  }
}
layer {
  name: "conv1"
  type: "Convolution"
  bottom: "data"
  top: "conv1"
  param {
    lr_mult: 1
  }
  param {
    lr_mult: 2
  }
  convolution_param {
    num_output: 64
    pad: 2
    kernel_size: 5
    stride: 1
    weight_filler {
      type: "gaussian"
      std: 0.0001
    }
    bias_filler {
      type: "constant"
    }
  }
}
layer {
  name: "relu1"
  type: "ReLU"
  bottom: "conv1"
  top: "conv1"
}
layer {
  name: "conv2"
  type: "Convolution"
  bottom: "conv1"
  top: "conv2"
  param {
    lr_mult: 1
  }
  param {
    lr_mult: 2
  }
  convolution_param {
    num_output: 64
    pad: 2
    kernel_size: 5
    stride: 1
    weight_filler {
      type: "gaussian"
      std: 0.01
    }
    bias_filler {
      type: "constant"
    }
  }
}
layer {
  name: "relu2"
  type: "ReLU"
  bottom: "conv2"
  top: "conv2"
}
layer {
  name: "pool2"
  type: "Pooling"
  bottom: "conv2"
  top: "pool2"
  pooling_param {
    pool: MAX
    kernel_size: 3
    stride: 2
  }
}
layer {
  name: "conv3"
  type: "Convolution"
  bottom: "pool2"
  top: "conv3"
  param {
    lr_mult: 1
  }
  param {
    lr_mult: 2
  }
  convolution_param {
    num_output: 128
    pad: 2
    kernel_size: 5
    stride: 1
    weight_filler {
      type: "gaussian"
      std: 0.01
    }
    bias_filler {
      type: "constant"
    }
  }
}
layer {
  name: "relu3"
  type: "ReLU"
  bottom: "conv3"
  top: "conv3"
}
layer {
  name: "conv4"
  type: "Convolution"
  bottom: "conv3"
  top: "conv4"
  param {
    lr_mult: 1
  }
  param {
    lr_mult: 2
  }
  convolution_param {
    num_output: 128
    pad: 2
    kernel_size: 5
    stride: 1
    weight_filler {
      type: "gaussian"
      std: 0.01
    }
    bias_filler {
      type: "constant"
    }
  }
}
layer {
  name: "relu4"
  type: "ReLU"
  bottom: "conv4"
  top: "conv4"
}
layer {
  name: "conv5"
  type: "Convolution"
  bottom: "conv4"
  top: "conv5"
  param {
    lr_mult: 1
  }
  param {
    lr_mult: 2
  }
  convolution_param {
    num_output: 128
    pad: 2
    kernel_size: 5
    stride: 1
    weight_filler {
      type: "gaussian"
      std: 0.01
    }
    bias_filler {
      type: "constant"
    }
  }
}
layer {
  name: "relu5"
  type: "ReLU"
  bottom: "conv5"
  top: "conv5"
}
layer {
  name: "pool5"
  type: "Pooling"
  bottom: "conv5"
  top: "pool5"
  pooling_param {
    pool: AVE
    kernel_size: 3
    stride: 2
  }
}
layer {
  name: "ip1"
  type: "InnerProduct"
  bottom: "pool5"
  top: "ip1"
  param {
    lr_mult: 1
  }
  param {
    lr_mult: 2
  }
  inner_product_param {
    num_output: 1024
    weight_filler {
      type: "gaussian"
      std: 0.1
    }
    bias_filler {
      type: "constant"
    }
  }
}
layer {
  name: "ip2"
  type: "InnerProduct"
  bottom: "ip1"
  top: "ip2"
  param {
    lr_mult: 1
  }
  param {
    lr_mult: 2
  }
  inner_product_param {
    num_output: 512
    weight_filler {
      type: "gaussian"
      std: 0.1
    }
    bias_filler {
      type: "constant"
    }
  }
}
layer {
  name: "ip3"
  type: "InnerProduct"
  bottom: "ip2"
  top: "ip3"
  param {
    lr_mult: 1
  }
  param {
    lr_mult: 2
  }
  inner_product_param {
    num_output: 50
    weight_filler {
      type: "gaussian"
      std: 0.1
    }
    bias_filler {
      type: "constant"
    }
  }
}
layer {
  name: "loss"
  type: "SoftmaxWithLoss"
  bottom: "ip3"
  bottom: "label"
  top: "loss"
}
I0503 18:31:44.140235 21865 layer_factory.hpp:77] Creating layer parameters
I0503 18:31:44.140250 21865 net.cpp:94] Creating Layer parameters
I0503 18:31:44.140257 21865 net.cpp:409] parameters -> data
I0503 18:31:44.140276 21865 net.cpp:409] parameters -> label
I0503 18:31:44.140286 21865 hdf5_data_layer.cpp:79] Loading list of HDF5 filenames from: /home/purduethu/scratch/radon/d/deng106/CNNStatisticalModel/distributions/input/20_distributions_900_sample_size_train-distributions-path.txt
I0503 18:31:44.140310 21865 hdf5_data_layer.cpp:93] Number of HDF5 files: 1
I0503 18:31:44.140921 21865 hdf5.cpp:32] Datatype class: H5T_FLOAT
I0503 18:31:44.722685 21865 hdf5.cpp:35] Datatype class: H5T_INTEGER
I0503 18:31:44.724468 21865 net.cpp:144] Setting up parameters
I0503 18:31:44.724489 21865 net.cpp:151] Top shape: 20 1 30 30 (18000)
I0503 18:31:44.724495 21865 net.cpp:151] Top shape: 20 (20)
I0503 18:31:44.724499 21865 net.cpp:159] Memory required for data: 72080
I0503 18:31:44.724506 21865 layer_factory.hpp:77] Creating layer conv1
I0503 18:31:44.724530 21865 net.cpp:94] Creating Layer conv1
I0503 18:31:44.724536 21865 net.cpp:435] conv1 <- data
I0503 18:31:44.724548 21865 net.cpp:409] conv1 -> conv1
I0503 18:31:44.730546 21865 net.cpp:144] Setting up conv1
I0503 18:31:44.730562 21865 net.cpp:151] Top shape: 20 64 30 30 (1152000)
I0503 18:31:44.730567 21865 net.cpp:159] Memory required for data: 4680080
I0503 18:31:44.730578 21865 layer_factory.hpp:77] Creating layer relu1
I0503 18:31:44.730587 21865 net.cpp:94] Creating Layer relu1
I0503 18:31:44.730592 21865 net.cpp:435] relu1 <- conv1
I0503 18:31:44.730597 21865 net.cpp:396] relu1 -> conv1 (in-place)
I0503 18:31:44.730613 21865 net.cpp:144] Setting up relu1
I0503 18:31:44.730619 21865 net.cpp:151] Top shape: 20 64 30 30 (1152000)
I0503 18:31:44.730623 21865 net.cpp:159] Memory required for data: 9288080
I0503 18:31:44.730625 21865 layer_factory.hpp:77] Creating layer conv2
I0503 18:31:44.730634 21865 net.cpp:94] Creating Layer conv2
I0503 18:31:44.730638 21865 net.cpp:435] conv2 <- conv1
I0503 18:31:44.730643 21865 net.cpp:409] conv2 -> conv2
I0503 18:31:44.745631 21865 net.cpp:144] Setting up conv2
I0503 18:31:44.745647 21865 net.cpp:151] Top shape: 20 64 30 30 (1152000)
I0503 18:31:44.745651 21865 net.cpp:159] Memory required for data: 13896080
I0503 18:31:44.745659 21865 layer_factory.hpp:77] Creating layer relu2
I0503 18:31:44.745667 21865 net.cpp:94] Creating Layer relu2
I0503 18:31:44.745671 21865 net.cpp:435] relu2 <- conv2
I0503 18:31:44.745676 21865 net.cpp:396] relu2 -> conv2 (in-place)
I0503 18:31:44.745683 21865 net.cpp:144] Setting up relu2
I0503 18:31:44.745688 21865 net.cpp:151] Top shape: 20 64 30 30 (1152000)
I0503 18:31:44.745692 21865 net.cpp:159] Memory required for data: 18504080
I0503 18:31:44.745695 21865 layer_factory.hpp:77] Creating layer pool2
I0503 18:31:44.745708 21865 net.cpp:94] Creating Layer pool2
I0503 18:31:44.745713 21865 net.cpp:435] pool2 <- conv2
I0503 18:31:44.745718 21865 net.cpp:409] pool2 -> pool2
I0503 18:31:44.745764 21865 net.cpp:144] Setting up pool2
I0503 18:31:44.745771 21865 net.cpp:151] Top shape: 20 64 15 15 (288000)
I0503 18:31:44.745775 21865 net.cpp:159] Memory required for data: 19656080
I0503 18:31:44.745779 21865 layer_factory.hpp:77] Creating layer conv3
I0503 18:31:44.745787 21865 net.cpp:94] Creating Layer conv3
I0503 18:31:44.745790 21865 net.cpp:435] conv3 <- pool2
I0503 18:31:44.745805 21865 net.cpp:409] conv3 -> conv3
I0503 18:31:44.758718 21865 net.cpp:144] Setting up conv3
I0503 18:31:44.758733 21865 net.cpp:151] Top shape: 20 128 15 15 (576000)
I0503 18:31:44.758738 21865 net.cpp:159] Memory required for data: 21960080
I0503 18:31:44.758746 21865 layer_factory.hpp:77] Creating layer relu3
I0503 18:31:44.758752 21865 net.cpp:94] Creating Layer relu3
I0503 18:31:44.758756 21865 net.cpp:435] relu3 <- conv3
I0503 18:31:44.758761 21865 net.cpp:396] relu3 -> conv3 (in-place)
I0503 18:31:44.758769 21865 net.cpp:144] Setting up relu3
I0503 18:31:44.758774 21865 net.cpp:151] Top shape: 20 128 15 15 (576000)
I0503 18:31:44.758776 21865 net.cpp:159] Memory required for data: 24264080
I0503 18:31:44.758780 21865 layer_factory.hpp:77] Creating layer conv4
I0503 18:31:44.758790 21865 net.cpp:94] Creating Layer conv4
I0503 18:31:44.758792 21865 net.cpp:435] conv4 <- conv3
I0503 18:31:44.758797 21865 net.cpp:409] conv4 -> conv4
I0503 18:31:44.781029 21865 net.cpp:144] Setting up conv4
I0503 18:31:44.781045 21865 net.cpp:151] Top shape: 20 128 15 15 (576000)
I0503 18:31:44.781050 21865 net.cpp:159] Memory required for data: 26568080
I0503 18:31:44.781057 21865 layer_factory.hpp:77] Creating layer relu4
I0503 18:31:44.781064 21865 net.cpp:94] Creating Layer relu4
I0503 18:31:44.781067 21865 net.cpp:435] relu4 <- conv4
I0503 18:31:44.781072 21865 net.cpp:396] relu4 -> conv4 (in-place)
I0503 18:31:44.781080 21865 net.cpp:144] Setting up relu4
I0503 18:31:44.781085 21865 net.cpp:151] Top shape: 20 128 15 15 (576000)
I0503 18:31:44.781088 21865 net.cpp:159] Memory required for data: 28872080
I0503 18:31:44.781091 21865 layer_factory.hpp:77] Creating layer conv5
I0503 18:31:44.781100 21865 net.cpp:94] Creating Layer conv5
I0503 18:31:44.781103 21865 net.cpp:435] conv5 <- conv4
I0503 18:31:44.781108 21865 net.cpp:409] conv5 -> conv5
I0503 18:31:44.803248 21865 net.cpp:144] Setting up conv5
I0503 18:31:44.803283 21865 net.cpp:151] Top shape: 20 128 15 15 (576000)
I0503 18:31:44.803293 21865 net.cpp:159] Memory required for data: 31176080
I0503 18:31:44.803313 21865 layer_factory.hpp:77] Creating layer relu5
I0503 18:31:44.803328 21865 net.cpp:94] Creating Layer relu5
I0503 18:31:44.803336 21865 net.cpp:435] relu5 <- conv5
I0503 18:31:44.803347 21865 net.cpp:396] relu5 -> conv5 (in-place)
I0503 18:31:44.803364 21865 net.cpp:144] Setting up relu5
I0503 18:31:44.803376 21865 net.cpp:151] Top shape: 20 128 15 15 (576000)
I0503 18:31:44.803383 21865 net.cpp:159] Memory required for data: 33480080
I0503 18:31:44.803391 21865 layer_factory.hpp:77] Creating layer pool5
I0503 18:31:44.803403 21865 net.cpp:94] Creating Layer pool5
I0503 18:31:44.803411 21865 net.cpp:435] pool5 <- conv5
I0503 18:31:44.803422 21865 net.cpp:409] pool5 -> pool5
I0503 18:31:44.803498 21865 net.cpp:144] Setting up pool5
I0503 18:31:44.803514 21865 net.cpp:151] Top shape: 20 128 7 7 (125440)
I0503 18:31:44.803521 21865 net.cpp:159] Memory required for data: 33981840
I0503 18:31:44.803529 21865 layer_factory.hpp:77] Creating layer ip1
I0503 18:31:44.803549 21865 net.cpp:94] Creating Layer ip1
I0503 18:31:44.803557 21865 net.cpp:435] ip1 <- pool5
I0503 18:31:44.803568 21865 net.cpp:409] ip1 -> ip1
I0503 18:31:44.967124 21865 net.cpp:144] Setting up ip1
I0503 18:31:44.967145 21865 net.cpp:151] Top shape: 20 1024 (20480)
I0503 18:31:44.967150 21865 net.cpp:159] Memory required for data: 34063760
I0503 18:31:44.967159 21865 layer_factory.hpp:77] Creating layer ip2
I0503 18:31:44.967178 21865 net.cpp:94] Creating Layer ip2
I0503 18:31:44.967185 21865 net.cpp:435] ip2 <- ip1
I0503 18:31:44.967192 21865 net.cpp:409] ip2 -> ip2
I0503 18:31:44.980758 21865 net.cpp:144] Setting up ip2
I0503 18:31:44.980772 21865 net.cpp:151] Top shape: 20 512 (10240)
I0503 18:31:44.980775 21865 net.cpp:159] Memory required for data: 34104720
I0503 18:31:44.980782 21865 layer_factory.hpp:77] Creating layer ip3
I0503 18:31:44.980788 21865 net.cpp:94] Creating Layer ip3
I0503 18:31:44.980792 21865 net.cpp:435] ip3 <- ip2
I0503 18:31:44.980798 21865 net.cpp:409] ip3 -> ip3
I0503 18:31:44.982161 21865 net.cpp:144] Setting up ip3
I0503 18:31:44.982173 21865 net.cpp:151] Top shape: 20 50 (1000)
I0503 18:31:44.982177 21865 net.cpp:159] Memory required for data: 34108720
I0503 18:31:44.982183 21865 layer_factory.hpp:77] Creating layer loss
I0503 18:31:44.982192 21865 net.cpp:94] Creating Layer loss
I0503 18:31:44.982197 21865 net.cpp:435] loss <- ip3
I0503 18:31:44.982201 21865 net.cpp:435] loss <- label
I0503 18:31:44.982208 21865 net.cpp:409] loss -> loss
I0503 18:31:44.982220 21865 layer_factory.hpp:77] Creating layer loss
…
I0503 18:31:44.982748 21865 solver.cpp:181] Creating test net (#0) specified by net file: ./protocol/dis_20_900_dimension.protocol_distribution
I0503 18:31:44.982776 21865 net.cpp:323] The NetState phase (1) differed from the phase (0) specified by a rule in layer parameters
I0503 18:31:44.982875 21865 net.cpp:52] Initializing net from parameters: 
state {
  phase: TEST
}
layer {
  name: "intercept"
  type: "HDF5Data"
  top: "data"
  top: "label"
  include {
    phase: TEST
  }
  hdf5_data_param {
    source: "/home/purduethu/scratch/radon/d/deng106/CNNStatisticalModel/distributions/input/20_distributions_900_sample_size_test-distributions-path.txt"
    batch_size: 20
  }
}
layer {
  name: "conv1"
  type: "Convolution"
  bottom: "data"
  top: "conv1"
  param {
    lr_mult: 1
  }
  param {
    lr_mult: 2
  }
  convolution_param {
    num_output: 64
    pad: 2
    kernel_size: 5
    stride: 1
    weight_filler {
      type: "gaussian"
      std: 0.0001
    }
    bias_filler {
      type: "constant"
    }
  }
}
layer {
  name: "relu1"
  type: "ReLU"
  bottom: "conv1"
  top: "conv1"
}
layer {
  name: "conv2"
  type: "Convolution"
  bottom: "conv1"
  top: "conv2"
  param {
    lr_mult: 1
  }
  param {
    lr_mult: 2
  }
  convolution_param {
    num_output: 64
    pad: 2
    kernel_size: 5
    stride: 1
    weight_filler {
      type: "gaussian"
      std: 0.01
    }
    bias_filler {
      type: "constant"
    }
  }
}
layer {
  name: "relu2"
  type: "ReLU"
  bottom: "conv2"
  top: "conv2"
}
layer {
  name: "pool2"
  type: "Pooling"
  bottom: "conv2"
  top: "pool2"
  pooling_param {
    pool: MAX
    kernel_size: 3
    stride: 2
  }
}
layer {
  name: "conv3"
  type: "Convolution"
  bottom: "pool2"
  top: "conv3"
  param {
    lr_mult: 1
  }
  param {
    lr_mult: 2
  }
  convolution_param {
    num_output: 128
    pad: 2
    kernel_size: 5
    stride: 1
    weight_filler {
      type: "gaussian"
      std: 0.01
    }
    bias_filler {
      type: "constant"
    }
  }
}
layer {
  name: "relu3"
  type: "ReLU"
  bottom: "conv3"
  top: "conv3"
}
layer {
  name: "conv4"
  type: "Convolution"
  bottom: "conv3"
  top: "conv4"
  param {
    lr_mult: 1
  }
  param {
    lr_mult: 2
  }
  convolution_param {
    num_output: 128
    pad: 2
    kernel_size: 5
    stride: 1
    weight_filler {
      type: "gaussian"
      std: 0.01
    }
    bias_filler {
      type: "constant"
    }
  }
}
layer {
  name: "relu4"
  type: "ReLU"
  bottom: "conv4"
  top: "conv4"
}
layer {
  name: "conv5"
  type: "Convolution"
  bottom: "conv4"
  top: "conv5"
  param {
    lr_mult: 1
  }
  param {
    lr_mult: 2
  }
  convolution_param {
    num_output: 128
    pad: 2
    kernel_size: 5
    stride: 1
    weight_filler {
      type: "gaussian"
      std: 0.01
    }
    bias_filler {
      type: "constant"
    }
  }
}
layer {
  name: "relu5"
  type: "ReLU"
  bottom: "conv5"
  top: "conv5"
}
layer {
  name: "pool5"
  type: "Pooling"
  bottom: "conv5"
  top: "pool5"
  pooling_param {
    pool: AVE
    kernel_size: 3
    stride: 2
  }
}
layer {
  name: "ip1"
  type: "InnerProduct"
  bottom: "pool5"
  top: "ip1"
  param {
    lr_mult: 1
  }
  param {
    lr_mult: 2
  }
  inner_product_param {
    num_output: 1024
    weight_filler {
      type: "gaussian"
      std: 0.1
    }
    bias_filler {
      type: "constant"
    }
  }
}
layer {
  name: "ip2"
  type: "InnerProduct"
  bottom: "ip1"
  top: "ip2"
  param {
    lr_mult: 1
  }
  param {
    lr_mult: 2
  }
  inner_product_param {
    num_output: 512
    weight_filler {
      type: "gaussian"
      std: 0.1
    }
    bias_filler {
      type: "constant"
    }
  }
}
layer {
  name: "ip3"
  type: "InnerProduct"
  bottom: "ip2"
  top: "ip3"
  param {
    lr_mult: 1
  }
  param {
    lr_mult: 2
  }
  inner_product_param {
    num_output: 50
    weight_filler {
      type: "gaussian"
      std: 0.1
    }
    bias_filler {
      type: "constant"
    }
  }
}
layer {
  name: "accuracy"
  type: "Accuracy"
  bottom: "ip3"
  bottom: "label"
  top: "accuracy"
  include {
    phase: TEST
  }
}
layer {
  name: "loss"
  type: "SoftmaxWithLoss"
  bottom: "ip3"
  bottom: "label"
  top: "loss"
}
I0503 18:31:44.982949 21865 layer_factory.hpp:77] Creating layer intercept
I0503 18:31:44.982957 21865 net.cpp:94] Creating Layer intercept
I0503 18:31:44.982962 21865 net.cpp:409] intercept -> data
I0503 18:31:44.982969 21865 net.cpp:409] intercept -> label
I0503 18:31:44.982975 21865 hdf5_data_layer.cpp:79] Loading list of HDF5 filenames from: /home/purduethu/scratch/radon/d/deng106/CNNStatisticalModel/distributions/input/20_distributions_900_sample_size_test-distributions-path.txt
I0503 18:31:44.982995 21865 hdf5_data_layer.cpp:93] Number of HDF5 files: 1
I0503 18:31:45.132529 21865 net.cpp:144] Setting up intercept
I0503 18:31:45.132580 21865 net.cpp:151] Top shape: 20 1 30 30 (18000)
I0503 18:31:45.132587 21865 net.cpp:151] Top shape: 20 (20)
I0503 18:31:45.132591 21865 net.cpp:159] Memory required for data: 72080
I0503 18:31:45.132597 21865 layer_factory.hpp:77] Creating layer label_intercept_1_split
I0503 18:31:45.132617 21865 net.cpp:94] Creating Layer label_intercept_1_split
I0503 18:31:45.132622 21865 net.cpp:435] label_intercept_1_split <- label
I0503 18:31:45.132628 21865 net.cpp:409] label_intercept_1_split -> label_intercept_1_split_0
I0503 18:31:45.132645 21865 net.cpp:409] label_intercept_1_split -> label_intercept_1_split_1
I0503 18:31:45.132675 21865 net.cpp:144] Setting up label_intercept_1_split
I0503 18:31:45.132681 21865 net.cpp:151] Top shape: 20 (20)
I0503 18:31:45.132685 21865 net.cpp:151] Top shape: 20 (20)
I0503 18:31:45.132688 21865 net.cpp:159] Memory required for data: 72240
I0503 18:31:45.132692 21865 layer_factory.hpp:77] Creating layer conv1
I0503 18:31:45.132704 21865 net.cpp:94] Creating Layer conv1
I0503 18:31:45.132706 21865 net.cpp:435] conv1 <- data
I0503 18:31:45.132711 21865 net.cpp:409] conv1 -> conv1
I0503 18:31:45.134040 21865 net.cpp:144] Setting up conv1
I0503 18:31:45.134054 21865 net.cpp:151] Top shape: 20 64 30 30 (1152000)
I0503 18:31:45.134058 21865 net.cpp:159] Memory required for data: 4680240
I0503 18:31:45.134068 21865 layer_factory.hpp:77] Creating layer relu1
I0503 18:31:45.134075 21865 net.cpp:94] Creating Layer relu1
I0503 18:31:45.134079 21865 net.cpp:435] relu1 <- conv1
I0503 18:31:45.134084 21865 net.cpp:396] relu1 -> conv1 (in-place)
I0503 18:31:45.134091 21865 net.cpp:144] Setting up relu1
I0503 18:31:45.134096 21865 net.cpp:151] Top shape: 20 64 30 30 (1152000)
I0503 18:31:45.134099 21865 net.cpp:159] Memory required for data: 9288240
I0503 18:31:45.134104 21865 layer_factory.hpp:77] Creating layer conv2
I0503 18:31:45.134111 21865 net.cpp:94] Creating Layer conv2
I0503 18:31:45.134115 21865 net.cpp:435] conv2 <- conv1
I0503 18:31:45.134120 21865 net.cpp:409] conv2 -> conv2
I0503 18:31:45.140548 21865 net.cpp:144] Setting up conv2
I0503 18:31:45.140599 21865 net.cpp:151] Top shape: 20 64 30 30 (1152000)
I0503 18:31:45.140609 21865 net.cpp:159] Memory required for data: 13896240
I0503 18:31:45.140628 21865 layer_factory.hpp:77] Creating layer relu2
I0503 18:31:45.140642 21865 net.cpp:94] Creating Layer relu2
I0503 18:31:45.140651 21865 net.cpp:435] relu2 <- conv2
I0503 18:31:45.140663 21865 net.cpp:396] relu2 -> conv2 (in-place)
I0503 18:31:45.140688 21865 net.cpp:144] Setting up relu2
I0503 18:31:45.140693 21865 net.cpp:151] Top shape: 20 64 30 30 (1152000)
I0503 18:31:45.140697 21865 net.cpp:159] Memory required for data: 18504240
I0503 18:31:45.140700 21865 layer_factory.hpp:77] Creating layer pool2
I0503 18:31:45.140707 21865 net.cpp:94] Creating Layer pool2
I0503 18:31:45.140709 21865 net.cpp:435] pool2 <- conv2
I0503 18:31:45.140714 21865 net.cpp:409] pool2 -> pool2
I0503 18:31:45.140750 21865 net.cpp:144] Setting up pool2
I0503 18:31:45.140758 21865 net.cpp:151] Top shape: 20 64 15 15 (288000)
I0503 18:31:45.140760 21865 net.cpp:159] Memory required for data: 19656240
I0503 18:31:45.140764 21865 layer_factory.hpp:77] Creating layer conv3
I0503 18:31:45.140772 21865 net.cpp:94] Creating Layer conv3
I0503 18:31:45.140776 21865 net.cpp:435] conv3 <- pool2
I0503 18:31:45.140781 21865 net.cpp:409] conv3 -> conv3
I0503 18:31:45.149003 21865 net.cpp:144] Setting up conv3
I0503 18:31:45.149019 21865 net.cpp:151] Top shape: 20 128 15 15 (576000)
I0503 18:31:45.149022 21865 net.cpp:159] Memory required for data: 21960240
I0503 18:31:45.149031 21865 layer_factory.hpp:77] Creating layer relu3
I0503 18:31:45.149039 21865 net.cpp:94] Creating Layer relu3
I0503 18:31:45.149042 21865 net.cpp:435] relu3 <- conv3
I0503 18:31:45.149047 21865 net.cpp:396] relu3 -> conv3 (in-place)
I0503 18:31:45.149055 21865 net.cpp:144] Setting up relu3
I0503 18:31:45.149060 21865 net.cpp:151] Top shape: 20 128 15 15 (576000)
I0503 18:31:45.149063 21865 net.cpp:159] Memory required for data: 24264240
I0503 18:31:45.149066 21865 layer_factory.hpp:77] Creating layer conv4
I0503 18:31:45.149073 21865 net.cpp:94] Creating Layer conv4
I0503 18:31:45.149077 21865 net.cpp:435] conv4 <- conv3
I0503 18:31:45.149082 21865 net.cpp:409] conv4 -> conv4
I0503 18:31:45.164338 21865 net.cpp:144] Setting up conv4
I0503 18:31:45.164353 21865 net.cpp:151] Top shape: 20 128 15 15 (576000)
I0503 18:31:45.164358 21865 net.cpp:159] Memory required for data: 26568240
I0503 18:31:45.164364 21865 layer_factory.hpp:77] Creating layer relu4
I0503 18:31:45.164371 21865 net.cpp:94] Creating Layer relu4
I0503 18:31:45.164378 21865 net.cpp:435] relu4 <- conv4
I0503 18:31:45.164384 21865 net.cpp:396] relu4 -> conv4 (in-place)
I0503 18:31:45.164391 21865 net.cpp:144] Setting up relu4
I0503 18:31:45.164397 21865 net.cpp:151] Top shape: 20 128 15 15 (576000)
I0503 18:31:45.164399 21865 net.cpp:159] Memory required for data: 28872240
I0503 18:31:45.164402 21865 layer_factory.hpp:77] Creating layer conv5
I0503 18:31:45.164410 21865 net.cpp:94] Creating Layer conv5
I0503 18:31:45.164414 21865 net.cpp:435] conv5 <- conv4
I0503 18:31:45.164419 21865 net.cpp:409] conv5 -> conv5
I0503 18:31:45.179289 21865 net.cpp:144] Setting up conv5
I0503 18:31:45.179322 21865 net.cpp:151] Top shape: 20 128 15 15 (576000)
I0503 18:31:45.179333 21865 net.cpp:159] Memory required for data: 31176240
I0503 18:31:45.179353 21865 layer_factory.hpp:77] Creating layer relu5
I0503 18:31:45.179368 21865 net.cpp:94] Creating Layer relu5
I0503 18:31:45.179376 21865 net.cpp:435] relu5 <- conv5
I0503 18:31:45.179388 21865 net.cpp:396] relu5 -> conv5 (in-place)
I0503 18:31:45.179404 21865 net.cpp:144] Setting up relu5
I0503 18:31:45.179415 21865 net.cpp:151] Top shape: 20 128 15 15 (576000)
I0503 18:31:45.179422 21865 net.cpp:159] Memory required for data: 33480240
I0503 18:31:45.179430 21865 layer_factory.hpp:77] Creating layer pool5
I0503 18:31:45.179442 21865 net.cpp:94] Creating Layer pool5
I0503 18:31:45.179450 21865 net.cpp:435] pool5 <- conv5
I0503 18:31:45.179461 21865 net.cpp:409] pool5 -> pool5
I0503 18:31:45.179525 21865 net.cpp:144] Setting up pool5
I0503 18:31:45.179539 21865 net.cpp:151] Top shape: 20 128 7 7 (125440)
I0503 18:31:45.179546 21865 net.cpp:159] Memory required for data: 33982000
I0503 18:31:45.179554 21865 layer_factory.hpp:77] Creating layer ip1
I0503 18:31:45.179569 21865 net.cpp:94] Creating Layer ip1
I0503 18:31:45.179576 21865 net.cpp:435] ip1 <- pool5
I0503 18:31:45.179587 21865 net.cpp:409] ip1 -> ip1
I0503 18:31:45.342365 21865 net.cpp:144] Setting up ip1
I0503 18:31:45.342396 21865 net.cpp:151] Top shape: 20 1024 (20480)
I0503 18:31:45.342399 21865 net.cpp:159] Memory required for data: 34063920
I0503 18:31:45.342407 21865 layer_factory.hpp:77] Creating layer ip2
I0503 18:31:45.342418 21865 net.cpp:94] Creating Layer ip2
I0503 18:31:45.342423 21865 net.cpp:435] ip2 <- ip1
I0503 18:31:45.342429 21865 net.cpp:409] ip2 -> ip2
I0503 18:31:45.356024 21865 net.cpp:144] Setting up ip2
I0503 18:31:45.356039 21865 net.cpp:151] Top shape: 20 512 (10240)
I0503 18:31:45.356042 21865 net.cpp:159] Memory required for data: 34104880
I0503 18:31:45.356048 21865 layer_factory.hpp:77] Creating layer ip3
I0503 18:31:45.356057 21865 net.cpp:94] Creating Layer ip3
I0503 18:31:45.356061 21865 net.cpp:435] ip3 <- ip2
I0503 18:31:45.356066 21865 net.cpp:409] ip3 -> ip3
I0503 18:31:45.356791 21865 net.cpp:144] Setting up ip3
I0503 18:31:45.356799 21865 net.cpp:151] Top shape: 20 50 (1000)
I0503 18:31:45.356803 21865 net.cpp:159] Memory required for data: 34108880
I0503 18:31:45.356808 21865 layer_factory.hpp:77] Creating layer ip3_ip3_0_split
I0503 18:31:45.356814 21865 net.cpp:94] Creating Layer ip3_ip3_0_split
I0503 18:31:45.356817 21865 net.cpp:435] ip3_ip3_0_split <- ip3
I0503 18:31:45.356822 21865 net.cpp:409] ip3_ip3_0_split -> ip3_ip3_0_split_0
I0503 18:31:45.356827 21865 net.cpp:409] ip3_ip3_0_split -> ip3_ip3_0_split_1
I0503 18:31:45.356854 21865 net.cpp:144] Setting up ip3_ip3_0_split
I0503 18:31:45.356860 21865 net.cpp:151] Top shape: 20 50 (1000)
I0503 18:31:45.356864 21865 net.cpp:151] Top shape: 20 50 (1000)
I0503 18:31:45.356868 21865 net.cpp:159] Memory required for data: 34116880
I0503 18:31:45.356870 21865 layer_factory.hpp:77] Creating layer accuracy
I0503 18:31:45.356887 21865 net.cpp:94] Creating Layer accuracy
I0503 18:31:45.356891 21865 net.cpp:435] accuracy <- ip3_ip3_0_split_0
I0503 18:31:45.356895 21865 net.cpp:435] accuracy <- label_intercept_1_split_0
I0503 18:31:45.356900 21865 net.cpp:409] accuracy -> accuracy
…
