…
I0502 15:42:18.544646 11365 net.cpp:323] The NetState phase (0) differed from the phase (1) specified by a rule in layer intercept
I0502 15:42:18.544664 11365 net.cpp:323] The NetState phase (0) differed from the phase (1) specified by a rule in layer loss
I0502 15:42:18.544759 11365 net.cpp:52] Initializing net from parameters: 
state {
  phase: TRAIN
}
layer {
  name: "parameters"
  type: "HDF5Data"
  top: "data"
  top: "label"
  include {
    phase: TRAIN
  }
  hdf5_data_param {
    source: "/home/purduethu/scratch/radon/d/deng106/CNNStatisticalModel/distributions/input/5_distributions_100_sample_size_train-parameters-path.txt"
    batch_size: 20
  }
}
layer {
  name: "conv1"
  type: "Convolution"
  bottom: "data"
  top: "conv1"
  param {
    lr_mult: 1
  }
  param {
    lr_mult: 2
  }
  convolution_param {
    num_output: 64
    pad: 2
    kernel_size: 5
    stride: 1
    weight_filler {
      type: "gaussian"
      std: 0.0001
    }
    bias_filler {
      type: "constant"
    }
  }
}
layer {
  name: "relu1"
  type: "ReLU"
  bottom: "conv1"
  top: "conv1"
}
layer {
  name: "conv2"
  type: "Convolution"
  bottom: "conv1"
  top: "conv2"
  param {
    lr_mult: 1
  }
  param {
    lr_mult: 2
  }
  convolution_param {
    num_output: 64
    pad: 2
    kernel_size: 5
    stride: 1
    weight_filler {
      type: "gaussian"
      std: 0.01
    }
    bias_filler {
      type: "constant"
    }
  }
}
layer {
  name: "relu2"
  type: "ReLU"
  bottom: "conv2"
  top: "conv2"
}
layer {
  name: "pool2"
  type: "Pooling"
  bottom: "conv2"
  top: "pool2"
  pooling_param {
    pool: MAX
    kernel_size: 3
    stride: 2
  }
}
layer {
  name: "conv3"
  type: "Convolution"
  bottom: "pool2"
  top: "conv3"
  param {
    lr_mult: 1
  }
  param {
    lr_mult: 2
  }
  convolution_param {
    num_output: 64
    pad: 2
    kernel_size: 5
    stride: 1
    weight_filler {
      type: "gaussian"
      std: 0.01
    }
    bias_filler {
      type: "constant"
    }
  }
}
layer {
  name: "relu3"
  type: "ReLU"
  bottom: "conv3"
  top: "conv3"
}
layer {
  name: "conv4"
  type: "Convolution"
  bottom: "conv3"
  top: "conv4"
  param {
    lr_mult: 1
  }
  param {
    lr_mult: 2
  }
  convolution_param {
    num_output: 64
    pad: 2
    kernel_size: 5
    stride: 1
    weight_filler {
      type: "gaussian"
      std: 0.01
    }
    bias_filler {
      type: "constant"
    }
  }
}
layer {
  name: "relu4"
  type: "ReLU"
  bottom: "conv4"
  top: "conv4"
}
layer {
  name: "conv5"
  type: "Convolution"
  bottom: "conv4"
  top: "conv5"
  param {
    lr_mult: 1
  }
  param {
    lr_mult: 2
  }
  convolution_param {
    num_output: 64
    pad: 2
    kernel_size: 5
    stride: 1
    weight_filler {
      type: "gaussian"
      std: 0.01
    }
    bias_filler {
      type: "constant"
    }
  }
}
layer {
  name: "relu5"
  type: "ReLU"
  bottom: "conv5"
  top: "conv5"
}
layer {
  name: "pool5"
  type: "Pooling"
  bottom: "conv5"
  top: "pool5"
  pooling_param {
    pool: AVE
    kernel_size: 3
    stride: 2
  }
}
layer {
  name: "ip1"
  type: "InnerProduct"
  bottom: "pool5"
  top: "ip1"
  param {
    lr_mult: 1
  }
  param {
    lr_mult: 2
  }
  inner_product_param {
    num_output: 64
    weight_filler {
      type: "gaussian"
      std: 0.1
    }
    bias_filler {
      type: "constant"
    }
  }
}
layer {
  name: "ip2"
  type: "InnerProduct"
  bottom: "ip1"
  top: "ip2"
  param {
    lr_mult: 1
  }
  param {
    lr_mult: 2
  }
  inner_product_param {
    num_output: 64
    weight_filler {
      type: "gaussian"
      std: 0.1
    }
    bias_filler {
      type: "constant"
    }
  }
}
layer {
  name: "ip3"
  type: "InnerProduct"
  bottom: "ip2"
  top: "ip3"
  param {
    lr_mult: 1
  }
  param {
    lr_mult: 2
  }
  inner_product_param {
    num_output: 1
    weight_filler {
      type: "gaussian"
      std: 0.1
    }
    bias_filler {
      type: "constant"
    }
  }
}
layer {
  name: "loss"
  type: "HuberLoss"
  bottom: "ip3"
  bottom: "label"
  top: "loss"
  include {
    phase: TRAIN
  }
}
I0502 15:42:18.544833 11365 layer_factory.hpp:77] Creating layer parameters
I0502 15:42:18.544848 11365 net.cpp:94] Creating Layer parameters
I0502 15:42:18.544854 11365 net.cpp:409] parameters -> data
I0502 15:42:18.544879 11365 net.cpp:409] parameters -> label
I0502 15:42:18.544890 11365 hdf5_data_layer.cpp:79] Loading list of HDF5 filenames from: /home/purduethu/scratch/radon/d/deng106/CNNStatisticalModel/distributions/input/5_distributions_100_sample_size_train-parameters-path.txt
I0502 15:42:18.544914 11365 hdf5_data_layer.cpp:93] Number of HDF5 files: 1
I0502 15:42:18.545506 11365 hdf5.cpp:32] Datatype class: H5T_FLOAT
I0502 15:42:18.563555 11365 net.cpp:144] Setting up parameters
I0502 15:42:18.563586 11365 net.cpp:151] Top shape: 20 1 10 10 (2000)
I0502 15:42:18.563592 11365 net.cpp:151] Top shape: 20 (20)
I0502 15:42:18.563596 11365 net.cpp:159] Memory required for data: 8080
I0502 15:42:18.563604 11365 layer_factory.hpp:77] Creating layer conv1
I0502 15:42:18.563629 11365 net.cpp:94] Creating Layer conv1
I0502 15:42:18.563635 11365 net.cpp:435] conv1 <- data
I0502 15:42:18.563647 11365 net.cpp:409] conv1 -> conv1
I0502 15:42:18.567508 11365 net.cpp:144] Setting up conv1
I0502 15:42:18.567523 11365 net.cpp:151] Top shape: 20 64 10 10 (128000)
I0502 15:42:18.567528 11365 net.cpp:159] Memory required for data: 520080
I0502 15:42:18.567539 11365 layer_factory.hpp:77] Creating layer relu1
I0502 15:42:18.567548 11365 net.cpp:94] Creating Layer relu1
I0502 15:42:18.567551 11365 net.cpp:435] relu1 <- conv1
I0502 15:42:18.567556 11365 net.cpp:396] relu1 -> conv1 (in-place)
I0502 15:42:18.567571 11365 net.cpp:144] Setting up relu1
I0502 15:42:18.567576 11365 net.cpp:151] Top shape: 20 64 10 10 (128000)
I0502 15:42:18.567580 11365 net.cpp:159] Memory required for data: 1032080
I0502 15:42:18.567584 11365 layer_factory.hpp:77] Creating layer conv2
I0502 15:42:18.567591 11365 net.cpp:94] Creating Layer conv2
I0502 15:42:18.567595 11365 net.cpp:435] conv2 <- conv1
I0502 15:42:18.567600 11365 net.cpp:409] conv2 -> conv2
I0502 15:42:18.573420 11365 net.cpp:144] Setting up conv2
I0502 15:42:18.573433 11365 net.cpp:151] Top shape: 20 64 10 10 (128000)
I0502 15:42:18.573437 11365 net.cpp:159] Memory required for data: 1544080
I0502 15:42:18.573446 11365 layer_factory.hpp:77] Creating layer relu2
I0502 15:42:18.573452 11365 net.cpp:94] Creating Layer relu2
I0502 15:42:18.573457 11365 net.cpp:435] relu2 <- conv2
I0502 15:42:18.573462 11365 net.cpp:396] relu2 -> conv2 (in-place)
I0502 15:42:18.573468 11365 net.cpp:144] Setting up relu2
I0502 15:42:18.573473 11365 net.cpp:151] Top shape: 20 64 10 10 (128000)
I0502 15:42:18.573477 11365 net.cpp:159] Memory required for data: 2056080
I0502 15:42:18.573480 11365 layer_factory.hpp:77] Creating layer pool2
I0502 15:42:18.573487 11365 net.cpp:94] Creating Layer pool2
I0502 15:42:18.573498 11365 net.cpp:435] pool2 <- conv2
I0502 15:42:18.573503 11365 net.cpp:409] pool2 -> pool2
I0502 15:42:18.573545 11365 net.cpp:144] Setting up pool2
I0502 15:42:18.573552 11365 net.cpp:151] Top shape: 20 64 5 5 (32000)
I0502 15:42:18.573556 11365 net.cpp:159] Memory required for data: 2184080
I0502 15:42:18.573560 11365 layer_factory.hpp:77] Creating layer conv3
I0502 15:42:18.573568 11365 net.cpp:94] Creating Layer conv3
I0502 15:42:18.573572 11365 net.cpp:435] conv3 <- pool2
I0502 15:42:18.573577 11365 net.cpp:409] conv3 -> conv3
I0502 15:42:18.578312 11365 net.cpp:144] Setting up conv3
I0502 15:42:18.578326 11365 net.cpp:151] Top shape: 20 64 5 5 (32000)
I0502 15:42:18.578330 11365 net.cpp:159] Memory required for data: 2312080
I0502 15:42:18.578339 11365 layer_factory.hpp:77] Creating layer relu3
I0502 15:42:18.578346 11365 net.cpp:94] Creating Layer relu3
I0502 15:42:18.578349 11365 net.cpp:435] relu3 <- conv3
I0502 15:42:18.578354 11365 net.cpp:396] relu3 -> conv3 (in-place)
I0502 15:42:18.578361 11365 net.cpp:144] Setting up relu3
I0502 15:42:18.578366 11365 net.cpp:151] Top shape: 20 64 5 5 (32000)
I0502 15:42:18.578369 11365 net.cpp:159] Memory required for data: 2440080
I0502 15:42:18.578373 11365 layer_factory.hpp:77] Creating layer conv4
I0502 15:42:18.578382 11365 net.cpp:94] Creating Layer conv4
I0502 15:42:18.578385 11365 net.cpp:435] conv4 <- conv3
I0502 15:42:18.578390 11365 net.cpp:409] conv4 -> conv4
I0502 15:42:18.582684 11365 net.cpp:144] Setting up conv4
I0502 15:42:18.582697 11365 net.cpp:151] Top shape: 20 64 5 5 (32000)
I0502 15:42:18.582701 11365 net.cpp:159] Memory required for data: 2568080
I0502 15:42:18.582707 11365 layer_factory.hpp:77] Creating layer relu4
I0502 15:42:18.582713 11365 net.cpp:94] Creating Layer relu4
I0502 15:42:18.582716 11365 net.cpp:435] relu4 <- conv4
I0502 15:42:18.582721 11365 net.cpp:396] relu4 -> conv4 (in-place)
I0502 15:42:18.582729 11365 net.cpp:144] Setting up relu4
I0502 15:42:18.582733 11365 net.cpp:151] Top shape: 20 64 5 5 (32000)
I0502 15:42:18.582737 11365 net.cpp:159] Memory required for data: 2696080
I0502 15:42:18.582741 11365 layer_factory.hpp:77] Creating layer conv5
I0502 15:42:18.582748 11365 net.cpp:94] Creating Layer conv5
I0502 15:42:18.582752 11365 net.cpp:435] conv5 <- conv4
I0502 15:42:18.582757 11365 net.cpp:409] conv5 -> conv5
I0502 15:42:18.587448 11365 net.cpp:144] Setting up conv5
I0502 15:42:18.587462 11365 net.cpp:151] Top shape: 20 64 5 5 (32000)
I0502 15:42:18.587466 11365 net.cpp:159] Memory required for data: 2824080
I0502 15:42:18.587476 11365 layer_factory.hpp:77] Creating layer relu5
I0502 15:42:18.587481 11365 net.cpp:94] Creating Layer relu5
I0502 15:42:18.587486 11365 net.cpp:435] relu5 <- conv5
I0502 15:42:18.587491 11365 net.cpp:396] relu5 -> conv5 (in-place)
I0502 15:42:18.587497 11365 net.cpp:144] Setting up relu5
I0502 15:42:18.587502 11365 net.cpp:151] Top shape: 20 64 5 5 (32000)
I0502 15:42:18.587505 11365 net.cpp:159] Memory required for data: 2952080
I0502 15:42:18.587509 11365 layer_factory.hpp:77] Creating layer pool5
I0502 15:42:18.587514 11365 net.cpp:94] Creating Layer pool5
I0502 15:42:18.587517 11365 net.cpp:435] pool5 <- conv5
I0502 15:42:18.587522 11365 net.cpp:409] pool5 -> pool5
I0502 15:42:18.587553 11365 net.cpp:144] Setting up pool5
I0502 15:42:18.587561 11365 net.cpp:151] Top shape: 20 64 2 2 (5120)
I0502 15:42:18.587564 11365 net.cpp:159] Memory required for data: 2972560
I0502 15:42:18.587568 11365 layer_factory.hpp:77] Creating layer ip1
I0502 15:42:18.587579 11365 net.cpp:94] Creating Layer ip1
I0502 15:42:18.587581 11365 net.cpp:435] ip1 <- pool5
I0502 15:42:18.587586 11365 net.cpp:409] ip1 -> ip1
I0502 15:42:18.588780 11365 net.cpp:144] Setting up ip1
I0502 15:42:18.588795 11365 net.cpp:151] Top shape: 20 64 (1280)
I0502 15:42:18.588799 11365 net.cpp:159] Memory required for data: 2977680
I0502 15:42:18.588805 11365 layer_factory.hpp:77] Creating layer ip2
I0502 15:42:18.588812 11365 net.cpp:94] Creating Layer ip2
I0502 15:42:18.588816 11365 net.cpp:435] ip2 <- ip1
I0502 15:42:18.588826 11365 net.cpp:409] ip2 -> ip2
I0502 15:42:18.588995 11365 net.cpp:144] Setting up ip2
I0502 15:42:18.589002 11365 net.cpp:151] Top shape: 20 64 (1280)
I0502 15:42:18.589006 11365 net.cpp:159] Memory required for data: 2982800
I0502 15:42:18.589011 11365 layer_factory.hpp:77] Creating layer ip3
I0502 15:42:18.589017 11365 net.cpp:94] Creating Layer ip3
I0502 15:42:18.589021 11365 net.cpp:435] ip3 <- ip2
I0502 15:42:18.589026 11365 net.cpp:409] ip3 -> ip3
I0502 15:42:18.589088 11365 net.cpp:144] Setting up ip3
I0502 15:42:18.589094 11365 net.cpp:151] Top shape: 20 1 (20)
I0502 15:42:18.589104 11365 net.cpp:159] Memory required for data: 2982880
I0502 15:42:18.589109 11365 layer_factory.hpp:77] Creating layer loss
I0502 15:42:18.589120 11365 net.cpp:94] Creating Layer loss
I0502 15:42:18.589124 11365 net.cpp:435] loss <- ip3
I0502 15:42:18.589128 11365 net.cpp:435] loss <- label
I0502 15:42:18.589133 11365 net.cpp:409] loss -> loss
I0502 15:42:18.589169 11365 net.cpp:144] Setting up loss
…
