…
I0506 10:15:18.187902 21187 net.cpp:323] The NetState phase (0) differed from the phase (1) specified by a rule in layer intercept
I0506 10:15:18.187917 21187 net.cpp:323] The NetState phase (0) differed from the phase (1) specified by a rule in layer loss
I0506 10:15:18.187996 21187 net.cpp:52] Initializing net from parameters: 
state {
  phase: TRAIN
}
layer {
  name: "parameters"
  type: "HDF5Data"
  top: "data"
  top: "label"
  include {
    phase: TRAIN
  }
  hdf5_data_param {
    source: "/home/purduethu/scratch/radon/d/deng106/CNNStatisticalModel/distributions/input/50_distributions_100_sample_size_train-parameters-path.txt"
    batch_size: 20
  }
}
layer {
  name: "conv1"
  type: "Convolution"
  bottom: "data"
  top: "conv1"
  param {
    lr_mult: 1
  }
  param {
    lr_mult: 2
  }
  convolution_param {
    num_output: 64
    pad: 2
    kernel_size: 5
    stride: 1
    weight_filler {
      type: "gaussian"
      std: 0.0001
    }
    bias_filler {
      type: "constant"
    }
  }
}
layer {
  name: "relu1"
  type: "ReLU"
  bottom: "conv1"
  top: "conv1"
}
layer {
  name: "conv2"
  type: "Convolution"
  bottom: "conv1"
  top: "conv2"
  param {
    lr_mult: 1
  }
  param {
    lr_mult: 2
  }
  convolution_param {
    num_output: 64
    pad: 2
    kernel_size: 5
    stride: 1
    weight_filler {
      type: "gaussian"
      std: 0.01
    }
    bias_filler {
      type: "constant"
    }
  }
}
layer {
  name: "relu2"
  type: "ReLU"
  bottom: "conv2"
  top: "conv2"
}
layer {
  name: "pool2"
  type: "Pooling"
  bottom: "conv2"
  top: "pool2"
  pooling_param {
    pool: MAX
    kernel_size: 3
    stride: 2
  }
}
layer {
  name: "conv3"
  type: "Convolution"
  bottom: "pool2"
  top: "conv3"
  param {
    lr_mult: 1
  }
  param {
    lr_mult: 2
  }
  convolution_param {
    num_output: 128
    pad: 2
    kernel_size: 5
    stride: 1
    weight_filler {
      type: "gaussian"
      std: 0.01
    }
    bias_filler {
      type: "constant"
    }
  }
}
layer {
  name: "relu3"
  type: "ReLU"
  bottom: "conv3"
  top: "conv3"
}
layer {
  name: "conv4"
  type: "Convolution"
  bottom: "conv3"
  top: "conv4"
  param {
    lr_mult: 1
  }
  param {
    lr_mult: 2
  }
  convolution_param {
    num_output: 128
    pad: 2
    kernel_size: 5
    stride: 1
    weight_filler {
      type: "gaussian"
      std: 0.01
    }
    bias_filler {
      type: "constant"
    }
  }
}
layer {
  name: "relu4"
  type: "ReLU"
  bottom: "conv4"
  top: "conv4"
}
layer {
  name: "conv5"
  type: "Convolution"
  bottom: "conv4"
  top: "conv5"
  param {
    lr_mult: 1
  }
  param {
    lr_mult: 2
  }
  convolution_param {
    num_output: 128
    pad: 2
    kernel_size: 5
    stride: 1
    weight_filler {
      type: "gaussian"
      std: 0.01
    }
    bias_filler {
      type: "constant"
    }
  }
}
layer {
  name: "relu5"
  type: "ReLU"
  bottom: "conv5"
  top: "conv5"
}
layer {
  name: "pool5"
  type: "Pooling"
  bottom: "conv5"
  top: "pool5"
  pooling_param {
    pool: AVE
    kernel_size: 3
    stride: 2
  }
}
layer {
  name: "ip1"
  type: "InnerProduct"
  bottom: "pool5"
  top: "ip1"
  param {
    lr_mult: 1
  }
  param {
    lr_mult: 2
  }
  inner_product_param {
    num_output: 1024
    weight_filler {
      type: "gaussian"
      std: 0.1
    }
    bias_filler {
      type: "constant"
    }
  }
}
layer {
  name: "ip2"
  type: "InnerProduct"
  bottom: "ip1"
  top: "ip2"
  param {
    lr_mult: 1
  }
  param {
    lr_mult: 2
  }
  inner_product_param {
    num_output: 512
    weight_filler {
      type: "gaussian"
      std: 0.1
    }
    bias_filler {
      type: "constant"
    }
  }
}
layer {
  name: "ip3"
  type: "InnerProduct"
  bottom: "ip2"
  top: "ip3"
  param {
    lr_mult: 1
  }
  param {
    lr_mult: 2
  }
  inner_product_param {
    num_output: 1
    weight_filler {
      type: "gaussian"
      std: 0.1
    }
    bias_filler {
      type: "constant"
    }
  }
}
layer {
  name: "loss"
  type: "HuberLoss"
  bottom: "ip3"
  bottom: "label"
  top: "loss"
  include {
    phase: TRAIN
  }
}
I0506 10:15:18.188052 21187 layer_factory.hpp:77] Creating layer parameters
I0506 10:15:18.188066 21187 net.cpp:94] Creating Layer parameters
I0506 10:15:18.188071 21187 net.cpp:409] parameters -> data
I0506 10:15:18.188083 21187 net.cpp:409] parameters -> label
I0506 10:15:18.188091 21187 hdf5_data_layer.cpp:79] Loading list of HDF5 filenames from: /home/purduethu/scratch/radon/d/deng106/CNNStatisticalModel/distributions/input/50_distributions_100_sample_size_train-parameters-path.txt
I0506 10:15:18.188105 21187 hdf5_data_layer.cpp:93] Number of HDF5 files: 1
I0506 10:15:18.188666 21187 hdf5.cpp:32] Datatype class: H5T_FLOAT
I0506 10:15:18.352442 21187 net.cpp:144] Setting up parameters
I0506 10:15:18.352473 21187 net.cpp:151] Top shape: 20 1 10 10 (2000)
I0506 10:15:18.352478 21187 net.cpp:151] Top shape: 20 (20)
I0506 10:15:18.352481 21187 net.cpp:159] Memory required for data: 8080
I0506 10:15:18.352488 21187 layer_factory.hpp:77] Creating layer conv1
I0506 10:15:18.352504 21187 net.cpp:94] Creating Layer conv1
I0506 10:15:18.352507 21187 net.cpp:435] conv1 <- data
I0506 10:15:18.352514 21187 net.cpp:409] conv1 -> conv1
I0506 10:15:18.356735 21187 net.cpp:144] Setting up conv1
I0506 10:15:18.356756 21187 net.cpp:151] Top shape: 20 64 10 10 (128000)
I0506 10:15:18.356760 21187 net.cpp:159] Memory required for data: 520080
I0506 10:15:18.356775 21187 layer_factory.hpp:77] Creating layer relu1
I0506 10:15:18.356784 21187 net.cpp:94] Creating Layer relu1
I0506 10:15:18.356787 21187 net.cpp:435] relu1 <- conv1
I0506 10:15:18.356792 21187 net.cpp:396] relu1 -> conv1 (in-place)
I0506 10:15:18.356801 21187 net.cpp:144] Setting up relu1
I0506 10:15:18.356806 21187 net.cpp:151] Top shape: 20 64 10 10 (128000)
I0506 10:15:18.356808 21187 net.cpp:159] Memory required for data: 1032080
I0506 10:15:18.356812 21187 layer_factory.hpp:77] Creating layer conv2
I0506 10:15:18.356820 21187 net.cpp:94] Creating Layer conv2
I0506 10:15:18.356823 21187 net.cpp:435] conv2 <- conv1
I0506 10:15:18.356828 21187 net.cpp:409] conv2 -> conv2
I0506 10:15:18.362849 21187 net.cpp:144] Setting up conv2
I0506 10:15:18.362865 21187 net.cpp:151] Top shape: 20 64 10 10 (128000)
I0506 10:15:18.362869 21187 net.cpp:159] Memory required for data: 1544080
I0506 10:15:18.362879 21187 layer_factory.hpp:77] Creating layer relu2
I0506 10:15:18.362886 21187 net.cpp:94] Creating Layer relu2
I0506 10:15:18.362890 21187 net.cpp:435] relu2 <- conv2
I0506 10:15:18.362895 21187 net.cpp:396] relu2 -> conv2 (in-place)
I0506 10:15:18.362902 21187 net.cpp:144] Setting up relu2
I0506 10:15:18.362906 21187 net.cpp:151] Top shape: 20 64 10 10 (128000)
I0506 10:15:18.362910 21187 net.cpp:159] Memory required for data: 2056080
I0506 10:15:18.362912 21187 layer_factory.hpp:77] Creating layer pool2
I0506 10:15:18.362918 21187 net.cpp:94] Creating Layer pool2
I0506 10:15:18.362921 21187 net.cpp:435] pool2 <- conv2
I0506 10:15:18.362926 21187 net.cpp:409] pool2 -> pool2
I0506 10:15:18.362978 21187 net.cpp:144] Setting up pool2
I0506 10:15:18.362985 21187 net.cpp:151] Top shape: 20 64 5 5 (32000)
I0506 10:15:18.362988 21187 net.cpp:159] Memory required for data: 2184080
I0506 10:15:18.362992 21187 layer_factory.hpp:77] Creating layer conv3
I0506 10:15:18.362999 21187 net.cpp:94] Creating Layer conv3
I0506 10:15:18.363009 21187 net.cpp:435] conv3 <- pool2
I0506 10:15:18.363014 21187 net.cpp:409] conv3 -> conv3
I0506 10:15:18.371198 21187 net.cpp:144] Setting up conv3
I0506 10:15:18.371212 21187 net.cpp:151] Top shape: 20 128 5 5 (64000)
I0506 10:15:18.371217 21187 net.cpp:159] Memory required for data: 2440080
I0506 10:15:18.371224 21187 layer_factory.hpp:77] Creating layer relu3
I0506 10:15:18.371230 21187 net.cpp:94] Creating Layer relu3
I0506 10:15:18.371233 21187 net.cpp:435] relu3 <- conv3
I0506 10:15:18.371238 21187 net.cpp:396] relu3 -> conv3 (in-place)
I0506 10:15:18.371245 21187 net.cpp:144] Setting up relu3
I0506 10:15:18.371250 21187 net.cpp:151] Top shape: 20 128 5 5 (64000)
I0506 10:15:18.371253 21187 net.cpp:159] Memory required for data: 2696080
I0506 10:15:18.371255 21187 layer_factory.hpp:77] Creating layer conv4
I0506 10:15:18.371264 21187 net.cpp:94] Creating Layer conv4
I0506 10:15:18.371268 21187 net.cpp:435] conv4 <- conv3
I0506 10:15:18.371273 21187 net.cpp:409] conv4 -> conv4
I0506 10:15:18.386199 21187 net.cpp:144] Setting up conv4
I0506 10:15:18.386221 21187 net.cpp:151] Top shape: 20 128 5 5 (64000)
I0506 10:15:18.386225 21187 net.cpp:159] Memory required for data: 2952080
I0506 10:15:18.386234 21187 layer_factory.hpp:77] Creating layer relu4
I0506 10:15:18.386240 21187 net.cpp:94] Creating Layer relu4
I0506 10:15:18.386245 21187 net.cpp:435] relu4 <- conv4
I0506 10:15:18.386250 21187 net.cpp:396] relu4 -> conv4 (in-place)
I0506 10:15:18.386257 21187 net.cpp:144] Setting up relu4
I0506 10:15:18.386262 21187 net.cpp:151] Top shape: 20 128 5 5 (64000)
I0506 10:15:18.386265 21187 net.cpp:159] Memory required for data: 3208080
I0506 10:15:18.386267 21187 layer_factory.hpp:77] Creating layer conv5
I0506 10:15:18.386276 21187 net.cpp:94] Creating Layer conv5
I0506 10:15:18.386279 21187 net.cpp:435] conv5 <- conv4
I0506 10:15:18.386284 21187 net.cpp:409] conv5 -> conv5
I0506 10:15:18.400713 21187 net.cpp:144] Setting up conv5
I0506 10:15:18.400734 21187 net.cpp:151] Top shape: 20 128 5 5 (64000)
I0506 10:15:18.400738 21187 net.cpp:159] Memory required for data: 3464080
I0506 10:15:18.400748 21187 layer_factory.hpp:77] Creating layer relu5
I0506 10:15:18.400756 21187 net.cpp:94] Creating Layer relu5
I0506 10:15:18.400760 21187 net.cpp:435] relu5 <- conv5
I0506 10:15:18.400765 21187 net.cpp:396] relu5 -> conv5 (in-place)
I0506 10:15:18.400773 21187 net.cpp:144] Setting up relu5
I0506 10:15:18.400777 21187 net.cpp:151] Top shape: 20 128 5 5 (64000)
I0506 10:15:18.400780 21187 net.cpp:159] Memory required for data: 3720080
I0506 10:15:18.400784 21187 layer_factory.hpp:77] Creating layer pool5
I0506 10:15:18.400789 21187 net.cpp:94] Creating Layer pool5
I0506 10:15:18.400792 21187 net.cpp:435] pool5 <- conv5
I0506 10:15:18.400796 21187 net.cpp:409] pool5 -> pool5
I0506 10:15:18.400838 21187 net.cpp:144] Setting up pool5
I0506 10:15:18.400846 21187 net.cpp:151] Top shape: 20 128 2 2 (10240)
I0506 10:15:18.400849 21187 net.cpp:159] Memory required for data: 3761040
I0506 10:15:18.400852 21187 layer_factory.hpp:77] Creating layer ip1
I0506 10:15:18.400862 21187 net.cpp:94] Creating Layer ip1
I0506 10:15:18.400866 21187 net.cpp:435] ip1 <- pool5
I0506 10:15:18.400871 21187 net.cpp:409] ip1 -> ip1
I0506 10:15:18.414788 21187 net.cpp:144] Setting up ip1
I0506 10:15:18.414810 21187 net.cpp:151] Top shape: 20 1024 (20480)
I0506 10:15:18.414815 21187 net.cpp:159] Memory required for data: 3842960
I0506 10:15:18.414824 21187 layer_factory.hpp:77] Creating layer ip2
I0506 10:15:18.414834 21187 net.cpp:94] Creating Layer ip2
I0506 10:15:18.414839 21187 net.cpp:435] ip2 <- ip1
I0506 10:15:18.414844 21187 net.cpp:409] ip2 -> ip2
I0506 10:15:18.427932 21187 net.cpp:144] Setting up ip2
I0506 10:15:18.427949 21187 net.cpp:151] Top shape: 20 512 (10240)
I0506 10:15:18.427953 21187 net.cpp:159] Memory required for data: 3883920
I0506 10:15:18.427960 21187 layer_factory.hpp:77] Creating layer ip3
I0506 10:15:18.427968 21187 net.cpp:94] Creating Layer ip3
I0506 10:15:18.427973 21187 net.cpp:435] ip3 <- ip2
I0506 10:15:18.427985 21187 net.cpp:409] ip3 -> ip3
I0506 10:15:18.428099 21187 net.cpp:144] Setting up ip3
I0506 10:15:18.428107 21187 net.cpp:151] Top shape: 20 1 (20)
I0506 10:15:18.428109 21187 net.cpp:159] Memory required for data: 3884000
I0506 10:15:18.428114 21187 layer_factory.hpp:77] Creating layer loss
I0506 10:15:18.428128 21187 net.cpp:94] Creating Layer loss
I0506 10:15:18.428131 21187 net.cpp:435] loss <- ip3
I0506 10:15:18.428135 21187 net.cpp:435] loss <- label
I0506 10:15:18.428139 21187 net.cpp:409] loss -> loss
I0506 10:15:18.428189 21187 net.cpp:144] Setting up loss
…
I0506 10:15:18.536011 21187 net.cpp:323] The NetState phase (0) differed from the phase (1) specified by a rule in layer intercept
I0506 10:15:18.536026 21187 net.cpp:323] The NetState phase (0) differed from the phase (1) specified by a rule in layer accuracy
I0506 10:15:18.536113 21187 net.cpp:52] Initializing net from parameters: 
state {
  phase: TRAIN
}
layer {
  name: "parameters"
  type: "HDF5Data"
  top: "data"
  top: "label"
  include {
    phase: TRAIN
  }
  hdf5_data_param {
    source: "/home/purduethu/scratch/radon/d/deng106/CNNStatisticalModel/distributions/input/50_distributions_100_sample_size_train-distributions-path.txt"
    batch_size: 20
  }
}
layer {
  name: "conv1"
  type: "Convolution"
  bottom: "data"
  top: "conv1"
  param {
    lr_mult: 1
  }
  param {
    lr_mult: 2
  }
  convolution_param {
    num_output: 64
    pad: 2
    kernel_size: 5
    stride: 1
    weight_filler {
      type: "gaussian"
      std: 0.0001
    }
    bias_filler {
      type: "constant"
    }
  }
}
layer {
  name: "relu1"
  type: "ReLU"
  bottom: "conv1"
  top: "conv1"
}
layer {
  name: "conv2"
  type: "Convolution"
  bottom: "conv1"
  top: "conv2"
  param {
    lr_mult: 1
  }
  param {
    lr_mult: 2
  }
  convolution_param {
    num_output: 64
    pad: 2
    kernel_size: 5
    stride: 1
    weight_filler {
      type: "gaussian"
      std: 0.01
    }
    bias_filler {
      type: "constant"
    }
  }
}
layer {
  name: "relu2"
  type: "ReLU"
  bottom: "conv2"
  top: "conv2"
}
layer {
  name: "pool2"
  type: "Pooling"
  bottom: "conv2"
  top: "pool2"
  pooling_param {
    pool: MAX
    kernel_size: 3
    stride: 2
  }
}
layer {
  name: "conv3"
  type: "Convolution"
  bottom: "pool2"
  top: "conv3"
  param {
    lr_mult: 1
  }
  param {
    lr_mult: 2
  }
  convolution_param {
    num_output: 128
    pad: 2
    kernel_size: 5
    stride: 1
    weight_filler {
      type: "gaussian"
      std: 0.01
    }
    bias_filler {
      type: "constant"
    }
  }
}
layer {
  name: "relu3"
  type: "ReLU"
  bottom: "conv3"
  top: "conv3"
}
layer {
  name: "conv4"
  type: "Convolution"
  bottom: "conv3"
  top: "conv4"
  param {
    lr_mult: 1
  }
  param {
    lr_mult: 2
  }
  convolution_param {
    num_output: 128
    pad: 2
    kernel_size: 5
    stride: 1
    weight_filler {
      type: "gaussian"
      std: 0.01
    }
    bias_filler {
      type: "constant"
    }
  }
}
layer {
  name: "relu4"
  type: "ReLU"
  bottom: "conv4"
  top: "conv4"
}
layer {
  name: "conv5"
  type: "Convolution"
  bottom: "conv4"
  top: "conv5"
  param {
    lr_mult: 1
  }
  param {
    lr_mult: 2
  }
  convolution_param {
    num_output: 128
    pad: 2
    kernel_size: 5
    stride: 1
    weight_filler {
      type: "gaussian"
      std: 0.01
    }
    bias_filler {
      type: "constant"
    }
  }
}
layer {
  name: "relu5"
  type: "ReLU"
  bottom: "conv5"
  top: "conv5"
}
layer {
  name: "pool5"
  type: "Pooling"
  bottom: "conv5"
  top: "pool5"
  pooling_param {
    pool: AVE
    kernel_size: 3
    stride: 2
  }
}
layer {
  name: "ip1"
  type: "InnerProduct"
  bottom: "pool5"
  top: "ip1"
  param {
    lr_mult: 1
  }
  param {
    lr_mult: 2
  }
  inner_product_param {
    num_output: 1024
    weight_filler {
      type: "gaussian"
      std: 0.1
    }
    bias_filler {
      type: "constant"
    }
  }
}
layer {
  name: "ip2"
  type: "InnerProduct"
  bottom: "ip1"
  top: "ip2"
  param {
    lr_mult: 1
  }
  param {
    lr_mult: 2
  }
  inner_product_param {
    num_output: 512
    weight_filler {
      type: "gaussian"
      std: 0.1
    }
    bias_filler {
      type: "constant"
    }
  }
}
layer {
  name: "ip3"
  type: "InnerProduct"
  bottom: "ip2"
  top: "ip3"
  param {
    lr_mult: 1
  }
  param {
    lr_mult: 2
  }
  inner_product_param {
    num_output: 50
    weight_filler {
      type: "gaussian"
      std: 0.1
    }
    bias_filler {
      type: "constant"
    }
  }
}
layer {
  name: "loss"
  type: "SoftmaxWithLoss"
  bottom: "ip3"
  bottom: "label"
  top: "loss"
}
I0506 10:15:18.536165 21187 layer_factory.hpp:77] Creating layer parameters
I0506 10:15:18.536173 21187 net.cpp:94] Creating Layer parameters
I0506 10:15:18.536177 21187 net.cpp:409] parameters -> data
I0506 10:15:18.536185 21187 net.cpp:409] parameters -> label
I0506 10:15:18.536190 21187 hdf5_data_layer.cpp:79] Loading list of HDF5 filenames from: /home/purduethu/scratch/radon/d/deng106/CNNStatisticalModel/distributions/input/50_distributions_100_sample_size_train-distributions-path.txt
I0506 10:15:18.536207 21187 hdf5_data_layer.cpp:93] Number of HDF5 files: 1
I0506 10:15:18.693042 21187 hdf5.cpp:35] Datatype class: H5T_INTEGER
I0506 10:15:18.696096 21187 net.cpp:144] Setting up parameters
I0506 10:15:18.696125 21187 net.cpp:151] Top shape: 20 1 10 10 (2000)
I0506 10:15:18.696130 21187 net.cpp:151] Top shape: 20 (20)
I0506 10:15:18.696133 21187 net.cpp:159] Memory required for data: 8080
I0506 10:15:18.696140 21187 layer_factory.hpp:77] Creating layer conv1
I0506 10:15:18.696156 21187 net.cpp:94] Creating Layer conv1
I0506 10:15:18.696159 21187 net.cpp:435] conv1 <- data
I0506 10:15:18.696166 21187 net.cpp:409] conv1 -> conv1
I0506 10:15:18.697931 21187 net.cpp:144] Setting up conv1
I0506 10:15:18.697943 21187 net.cpp:151] Top shape: 20 64 10 10 (128000)
I0506 10:15:18.697947 21187 net.cpp:159] Memory required for data: 520080
I0506 10:15:18.697957 21187 layer_factory.hpp:77] Creating layer relu1
I0506 10:15:18.697964 21187 net.cpp:94] Creating Layer relu1
I0506 10:15:18.697968 21187 net.cpp:435] relu1 <- conv1
I0506 10:15:18.697971 21187 net.cpp:396] relu1 -> conv1 (in-place)
I0506 10:15:18.697979 21187 net.cpp:144] Setting up relu1
I0506 10:15:18.697983 21187 net.cpp:151] Top shape: 20 64 10 10 (128000)
I0506 10:15:18.697986 21187 net.cpp:159] Memory required for data: 1032080
I0506 10:15:18.697989 21187 layer_factory.hpp:77] Creating layer conv2
I0506 10:15:18.697996 21187 net.cpp:94] Creating Layer conv2
I0506 10:15:18.697999 21187 net.cpp:435] conv2 <- conv1
I0506 10:15:18.698004 21187 net.cpp:409] conv2 -> conv2
I0506 10:15:18.703384 21187 net.cpp:144] Setting up conv2
I0506 10:15:18.703399 21187 net.cpp:151] Top shape: 20 64 10 10 (128000)
I0506 10:15:18.703403 21187 net.cpp:159] Memory required for data: 1544080
I0506 10:15:18.703411 21187 layer_factory.hpp:77] Creating layer relu2
I0506 10:15:18.703418 21187 net.cpp:94] Creating Layer relu2
I0506 10:15:18.703423 21187 net.cpp:435] relu2 <- conv2
I0506 10:15:18.703426 21187 net.cpp:396] relu2 -> conv2 (in-place)
I0506 10:15:18.703433 21187 net.cpp:144] Setting up relu2
I0506 10:15:18.703438 21187 net.cpp:151] Top shape: 20 64 10 10 (128000)
I0506 10:15:18.703441 21187 net.cpp:159] Memory required for data: 2056080
I0506 10:15:18.703444 21187 layer_factory.hpp:77] Creating layer pool2
I0506 10:15:18.703449 21187 net.cpp:94] Creating Layer pool2
I0506 10:15:18.703452 21187 net.cpp:435] pool2 <- conv2
I0506 10:15:18.703457 21187 net.cpp:409] pool2 -> pool2
I0506 10:15:18.703510 21187 net.cpp:144] Setting up pool2
I0506 10:15:18.703517 21187 net.cpp:151] Top shape: 20 64 5 5 (32000)
I0506 10:15:18.703521 21187 net.cpp:159] Memory required for data: 2184080
I0506 10:15:18.703523 21187 layer_factory.hpp:77] Creating layer conv3
I0506 10:15:18.703531 21187 net.cpp:94] Creating Layer conv3
I0506 10:15:18.703534 21187 net.cpp:435] conv3 <- pool2
I0506 10:15:18.703539 21187 net.cpp:409] conv3 -> conv3
I0506 10:15:18.712278 21187 net.cpp:144] Setting up conv3
I0506 10:15:18.712294 21187 net.cpp:151] Top shape: 20 128 5 5 (64000)
I0506 10:15:18.712298 21187 net.cpp:159] Memory required for data: 2440080
I0506 10:15:18.712306 21187 layer_factory.hpp:77] Creating layer relu3
I0506 10:15:18.712313 21187 net.cpp:94] Creating Layer relu3
I0506 10:15:18.712316 21187 net.cpp:435] relu3 <- conv3
I0506 10:15:18.712321 21187 net.cpp:396] relu3 -> conv3 (in-place)
I0506 10:15:18.712334 21187 net.cpp:144] Setting up relu3
I0506 10:15:18.712340 21187 net.cpp:151] Top shape: 20 128 5 5 (64000)
I0506 10:15:18.712343 21187 net.cpp:159] Memory required for data: 2696080
I0506 10:15:18.712347 21187 layer_factory.hpp:77] Creating layer conv4
I0506 10:15:18.712354 21187 net.cpp:94] Creating Layer conv4
I0506 10:15:18.712358 21187 net.cpp:435] conv4 <- conv3
I0506 10:15:18.712363 21187 net.cpp:409] conv4 -> conv4
I0506 10:15:18.727066 21187 net.cpp:144] Setting up conv4
I0506 10:15:18.727087 21187 net.cpp:151] Top shape: 20 128 5 5 (64000)
I0506 10:15:18.727092 21187 net.cpp:159] Memory required for data: 2952080
I0506 10:15:18.727099 21187 layer_factory.hpp:77] Creating layer relu4
I0506 10:15:18.727107 21187 net.cpp:94] Creating Layer relu4
I0506 10:15:18.727110 21187 net.cpp:435] relu4 <- conv4
I0506 10:15:18.727115 21187 net.cpp:396] relu4 -> conv4 (in-place)
I0506 10:15:18.727124 21187 net.cpp:144] Setting up relu4
I0506 10:15:18.727128 21187 net.cpp:151] Top shape: 20 128 5 5 (64000)
I0506 10:15:18.727131 21187 net.cpp:159] Memory required for data: 3208080
I0506 10:15:18.727134 21187 layer_factory.hpp:77] Creating layer conv5
I0506 10:15:18.727143 21187 net.cpp:94] Creating Layer conv5
I0506 10:15:18.727146 21187 net.cpp:435] conv5 <- conv4
I0506 10:15:18.727151 21187 net.cpp:409] conv5 -> conv5
I0506 10:15:18.742204 21187 net.cpp:144] Setting up conv5
I0506 10:15:18.742224 21187 net.cpp:151] Top shape: 20 128 5 5 (64000)
I0506 10:15:18.742228 21187 net.cpp:159] Memory required for data: 3464080
I0506 10:15:18.742239 21187 layer_factory.hpp:77] Creating layer relu5
I0506 10:15:18.742247 21187 net.cpp:94] Creating Layer relu5
I0506 10:15:18.742251 21187 net.cpp:435] relu5 <- conv5
I0506 10:15:18.742255 21187 net.cpp:396] relu5 -> conv5 (in-place)
I0506 10:15:18.742264 21187 net.cpp:144] Setting up relu5
I0506 10:15:18.742267 21187 net.cpp:151] Top shape: 20 128 5 5 (64000)
I0506 10:15:18.742270 21187 net.cpp:159] Memory required for data: 3720080
I0506 10:15:18.742274 21187 layer_factory.hpp:77] Creating layer pool5
I0506 10:15:18.742280 21187 net.cpp:94] Creating Layer pool5
I0506 10:15:18.742282 21187 net.cpp:435] pool5 <- conv5
I0506 10:15:18.742287 21187 net.cpp:409] pool5 -> pool5
I0506 10:15:18.742328 21187 net.cpp:144] Setting up pool5
I0506 10:15:18.742336 21187 net.cpp:151] Top shape: 20 128 2 2 (10240)
I0506 10:15:18.742338 21187 net.cpp:159] Memory required for data: 3761040
I0506 10:15:18.742341 21187 layer_factory.hpp:77] Creating layer ip1
I0506 10:15:18.742348 21187 net.cpp:94] Creating Layer ip1
I0506 10:15:18.742352 21187 net.cpp:435] ip1 <- pool5
I0506 10:15:18.742357 21187 net.cpp:409] ip1 -> ip1
I0506 10:15:18.755573 21187 net.cpp:144] Setting up ip1
I0506 10:15:18.755590 21187 net.cpp:151] Top shape: 20 1024 (20480)
I0506 10:15:18.755594 21187 net.cpp:159] Memory required for data: 3842960
I0506 10:15:18.755601 21187 layer_factory.hpp:77] Creating layer ip2
I0506 10:15:18.755609 21187 net.cpp:94] Creating Layer ip2
I0506 10:15:18.755614 21187 net.cpp:435] ip2 <- ip1
I0506 10:15:18.755620 21187 net.cpp:409] ip2 -> ip2
I0506 10:15:18.768795 21187 net.cpp:144] Setting up ip2
I0506 10:15:18.768811 21187 net.cpp:151] Top shape: 20 512 (10240)
I0506 10:15:18.768815 21187 net.cpp:159] Memory required for data: 3883920
I0506 10:15:18.768822 21187 layer_factory.hpp:77] Creating layer ip3
I0506 10:15:18.768831 21187 net.cpp:94] Creating Layer ip3
I0506 10:15:18.768836 21187 net.cpp:435] ip3 <- ip2
I0506 10:15:18.768841 21187 net.cpp:409] ip3 -> ip3
I0506 10:15:18.770419 21187 net.cpp:144] Setting up ip3
I0506 10:15:18.770433 21187 net.cpp:151] Top shape: 20 50 (1000)
I0506 10:15:18.770437 21187 net.cpp:159] Memory required for data: 3887920
I0506 10:15:18.770443 21187 layer_factory.hpp:77] Creating layer loss
I0506 10:15:18.770452 21187 net.cpp:94] Creating Layer loss
I0506 10:15:18.770455 21187 net.cpp:435] loss <- ip3
I0506 10:15:18.770460 21187 net.cpp:435] loss <- label
I0506 10:15:18.770464 21187 net.cpp:409] loss -> loss
I0506 10:15:18.770473 21187 layer_factory.hpp:77] Creating layer loss
…
I0506 10:15:18.770987 21187 solver.cpp:181] Creating test net (#0) specified by net file: ./protocol/dis_50_100_dimension.protocol_distribution
I0506 10:15:18.771013 21187 net.cpp:323] The NetState phase (1) differed from the phase (0) specified by a rule in layer parameters
I0506 10:15:18.771105 21187 net.cpp:52] Initializing net from parameters: 
state {
  phase: TEST
}
layer {
  name: "intercept"
  type: "HDF5Data"
  top: "data"
  top: "label"
  include {
    phase: TEST
  }
  hdf5_data_param {
    source: "/home/purduethu/scratch/radon/d/deng106/CNNStatisticalModel/distributions/input/50_distributions_100_sample_size_test-distributions-path.txt"
    batch_size: 20
  }
}
layer {
  name: "conv1"
  type: "Convolution"
  bottom: "data"
  top: "conv1"
  param {
    lr_mult: 1
  }
  param {
    lr_mult: 2
  }
  convolution_param {
    num_output: 64
    pad: 2
    kernel_size: 5
    stride: 1
    weight_filler {
      type: "gaussian"
      std: 0.0001
    }
    bias_filler {
      type: "constant"
    }
  }
}
layer {
  name: "relu1"
  type: "ReLU"
  bottom: "conv1"
  top: "conv1"
}
layer {
  name: "conv2"
  type: "Convolution"
  bottom: "conv1"
  top: "conv2"
  param {
    lr_mult: 1
  }
  param {
    lr_mult: 2
  }
  convolution_param {
    num_output: 64
    pad: 2
    kernel_size: 5
    stride: 1
    weight_filler {
      type: "gaussian"
      std: 0.01
    }
    bias_filler {
      type: "constant"
    }
  }
}
layer {
  name: "relu2"
  type: "ReLU"
  bottom: "conv2"
  top: "conv2"
}
layer {
  name: "pool2"
  type: "Pooling"
  bottom: "conv2"
  top: "pool2"
  pooling_param {
    pool: MAX
    kernel_size: 3
    stride: 2
  }
}
layer {
  name: "conv3"
  type: "Convolution"
  bottom: "pool2"
  top: "conv3"
  param {
    lr_mult: 1
  }
  param {
    lr_mult: 2
  }
  convolution_param {
    num_output: 128
    pad: 2
    kernel_size: 5
    stride: 1
    weight_filler {
      type: "gaussian"
      std: 0.01
    }
    bias_filler {
      type: "constant"
    }
  }
}
layer {
  name: "relu3"
  type: "ReLU"
  bottom: "conv3"
  top: "conv3"
}
layer {
  name: "conv4"
  type: "Convolution"
  bottom: "conv3"
  top: "conv4"
  param {
    lr_mult: 1
  }
  param {
    lr_mult: 2
  }
  convolution_param {
    num_output: 128
    pad: 2
    kernel_size: 5
    stride: 1
    weight_filler {
      type: "gaussian"
      std: 0.01
    }
    bias_filler {
      type: "constant"
    }
  }
}
layer {
  name: "relu4"
  type: "ReLU"
  bottom: "conv4"
  top: "conv4"
}
layer {
  name: "conv5"
  type: "Convolution"
  bottom: "conv4"
  top: "conv5"
  param {
    lr_mult: 1
  }
  param {
    lr_mult: 2
  }
  convolution_param {
    num_output: 128
    pad: 2
    kernel_size: 5
    stride: 1
    weight_filler {
      type: "gaussian"
      std: 0.01
    }
    bias_filler {
      type: "constant"
    }
  }
}
layer {
  name: "relu5"
  type: "ReLU"
  bottom: "conv5"
  top: "conv5"
}
layer {
  name: "pool5"
  type: "Pooling"
  bottom: "conv5"
  top: "pool5"
  pooling_param {
    pool: AVE
    kernel_size: 3
    stride: 2
  }
}
layer {
  name: "ip1"
  type: "InnerProduct"
  bottom: "pool5"
  top: "ip1"
  param {
    lr_mult: 1
  }
  param {
    lr_mult: 2
  }
  inner_product_param {
    num_output: 1024
    weight_filler {
      type: "gaussian"
      std: 0.1
    }
    bias_filler {
      type: "constant"
    }
  }
}
layer {
  name: "ip2"
  type: "InnerProduct"
  bottom: "ip1"
  top: "ip2"
  param {
    lr_mult: 1
  }
  param {
    lr_mult: 2
  }
  inner_product_param {
    num_output: 512
    weight_filler {
      type: "gaussian"
      std: 0.1
    }
    bias_filler {
      type: "constant"
    }
  }
}
layer {
  name: "ip3"
  type: "InnerProduct"
  bottom: "ip2"
  top: "ip3"
  param {
    lr_mult: 1
  }
  param {
    lr_mult: 2
  }
  inner_product_param {
    num_output: 50
    weight_filler {
      type: "gaussian"
      std: 0.1
    }
    bias_filler {
      type: "constant"
    }
  }
}
layer {
  name: "accuracy"
  type: "Accuracy"
  bottom: "ip3"
  bottom: "label"
  top: "accuracy"
  include {
    phase: TEST
  }
}
layer {
  name: "loss"
  type: "SoftmaxWithLoss"
  bottom: "ip3"
  bottom: "label"
  top: "loss"
}
I0506 10:15:18.771169 21187 layer_factory.hpp:77] Creating layer intercept
I0506 10:15:18.771178 21187 net.cpp:94] Creating Layer intercept
I0506 10:15:18.771181 21187 net.cpp:409] intercept -> data
I0506 10:15:18.771188 21187 net.cpp:409] intercept -> label
I0506 10:15:18.771193 21187 hdf5_data_layer.cpp:79] Loading list of HDF5 filenames from: /home/purduethu/scratch/radon/d/deng106/CNNStatisticalModel/distributions/input/50_distributions_100_sample_size_test-distributions-path.txt
I0506 10:15:18.771214 21187 hdf5_data_layer.cpp:93] Number of HDF5 files: 1
I0506 10:15:18.812304 21187 net.cpp:144] Setting up intercept
I0506 10:15:18.812337 21187 net.cpp:151] Top shape: 20 1 10 10 (2000)
I0506 10:15:18.812342 21187 net.cpp:151] Top shape: 20 (20)
I0506 10:15:18.812345 21187 net.cpp:159] Memory required for data: 8080
I0506 10:15:18.812351 21187 layer_factory.hpp:77] Creating layer label_intercept_1_split
I0506 10:15:18.812371 21187 net.cpp:94] Creating Layer label_intercept_1_split
I0506 10:15:18.812376 21187 net.cpp:435] label_intercept_1_split <- label
I0506 10:15:18.812381 21187 net.cpp:409] label_intercept_1_split -> label_intercept_1_split_0
I0506 10:15:18.812389 21187 net.cpp:409] label_intercept_1_split -> label_intercept_1_split_1
I0506 10:15:18.812429 21187 net.cpp:144] Setting up label_intercept_1_split
I0506 10:15:18.812436 21187 net.cpp:151] Top shape: 20 (20)
I0506 10:15:18.812439 21187 net.cpp:151] Top shape: 20 (20)
I0506 10:15:18.812443 21187 net.cpp:159] Memory required for data: 8240
I0506 10:15:18.812445 21187 layer_factory.hpp:77] Creating layer conv1
I0506 10:15:18.812456 21187 net.cpp:94] Creating Layer conv1
I0506 10:15:18.812460 21187 net.cpp:435] conv1 <- data
I0506 10:15:18.812465 21187 net.cpp:409] conv1 -> conv1
I0506 10:15:18.813369 21187 net.cpp:144] Setting up conv1
I0506 10:15:18.813382 21187 net.cpp:151] Top shape: 20 64 10 10 (128000)
I0506 10:15:18.813386 21187 net.cpp:159] Memory required for data: 520240
I0506 10:15:18.813395 21187 layer_factory.hpp:77] Creating layer relu1
I0506 10:15:18.813402 21187 net.cpp:94] Creating Layer relu1
I0506 10:15:18.813406 21187 net.cpp:435] relu1 <- conv1
I0506 10:15:18.813410 21187 net.cpp:396] relu1 -> conv1 (in-place)
I0506 10:15:18.813417 21187 net.cpp:144] Setting up relu1
I0506 10:15:18.813421 21187 net.cpp:151] Top shape: 20 64 10 10 (128000)
I0506 10:15:18.813433 21187 net.cpp:159] Memory required for data: 1032240
I0506 10:15:18.813437 21187 layer_factory.hpp:77] Creating layer conv2
I0506 10:15:18.813446 21187 net.cpp:94] Creating Layer conv2
I0506 10:15:18.813448 21187 net.cpp:435] conv2 <- conv1
I0506 10:15:18.813453 21187 net.cpp:409] conv2 -> conv2
I0506 10:15:18.817561 21187 net.cpp:144] Setting up conv2
I0506 10:15:18.817575 21187 net.cpp:151] Top shape: 20 64 10 10 (128000)
I0506 10:15:18.817579 21187 net.cpp:159] Memory required for data: 1544240
I0506 10:15:18.817586 21187 layer_factory.hpp:77] Creating layer relu2
I0506 10:15:18.817592 21187 net.cpp:94] Creating Layer relu2
I0506 10:15:18.817595 21187 net.cpp:435] relu2 <- conv2
I0506 10:15:18.817600 21187 net.cpp:396] relu2 -> conv2 (in-place)
I0506 10:15:18.817606 21187 net.cpp:144] Setting up relu2
I0506 10:15:18.817610 21187 net.cpp:151] Top shape: 20 64 10 10 (128000)
I0506 10:15:18.817613 21187 net.cpp:159] Memory required for data: 2056240
I0506 10:15:18.817616 21187 layer_factory.hpp:77] Creating layer pool2
I0506 10:15:18.817623 21187 net.cpp:94] Creating Layer pool2
I0506 10:15:18.817627 21187 net.cpp:435] pool2 <- conv2
I0506 10:15:18.817631 21187 net.cpp:409] pool2 -> pool2
I0506 10:15:18.817687 21187 net.cpp:144] Setting up pool2
I0506 10:15:18.817693 21187 net.cpp:151] Top shape: 20 64 5 5 (32000)
I0506 10:15:18.817697 21187 net.cpp:159] Memory required for data: 2184240
I0506 10:15:18.817699 21187 layer_factory.hpp:77] Creating layer conv3
I0506 10:15:18.817708 21187 net.cpp:94] Creating Layer conv3
I0506 10:15:18.817711 21187 net.cpp:435] conv3 <- pool2
I0506 10:15:18.817716 21187 net.cpp:409] conv3 -> conv3
I0506 10:15:18.823855 21187 net.cpp:144] Setting up conv3
I0506 10:15:18.823869 21187 net.cpp:151] Top shape: 20 128 5 5 (64000)
I0506 10:15:18.823873 21187 net.cpp:159] Memory required for data: 2440240
I0506 10:15:18.823880 21187 layer_factory.hpp:77] Creating layer relu3
I0506 10:15:18.823887 21187 net.cpp:94] Creating Layer relu3
I0506 10:15:18.823890 21187 net.cpp:435] relu3 <- conv3
I0506 10:15:18.823895 21187 net.cpp:396] relu3 -> conv3 (in-place)
I0506 10:15:18.823901 21187 net.cpp:144] Setting up relu3
I0506 10:15:18.823905 21187 net.cpp:151] Top shape: 20 128 5 5 (64000)
I0506 10:15:18.823909 21187 net.cpp:159] Memory required for data: 2696240
I0506 10:15:18.823911 21187 layer_factory.hpp:77] Creating layer conv4
I0506 10:15:18.823921 21187 net.cpp:94] Creating Layer conv4
I0506 10:15:18.823925 21187 net.cpp:435] conv4 <- conv3
I0506 10:15:18.823930 21187 net.cpp:409] conv4 -> conv4
I0506 10:15:18.836799 21187 net.cpp:144] Setting up conv4
I0506 10:15:18.836820 21187 net.cpp:151] Top shape: 20 128 5 5 (64000)
I0506 10:15:18.836824 21187 net.cpp:159] Memory required for data: 2952240
I0506 10:15:18.836833 21187 layer_factory.hpp:77] Creating layer relu4
I0506 10:15:18.836839 21187 net.cpp:94] Creating Layer relu4
I0506 10:15:18.836843 21187 net.cpp:435] relu4 <- conv4
I0506 10:15:18.836849 21187 net.cpp:396] relu4 -> conv4 (in-place)
I0506 10:15:18.836858 21187 net.cpp:144] Setting up relu4
I0506 10:15:18.836861 21187 net.cpp:151] Top shape: 20 128 5 5 (64000)
I0506 10:15:18.836864 21187 net.cpp:159] Memory required for data: 3208240
I0506 10:15:18.836868 21187 layer_factory.hpp:77] Creating layer conv5
I0506 10:15:18.836876 21187 net.cpp:94] Creating Layer conv5
I0506 10:15:18.836879 21187 net.cpp:435] conv5 <- conv4
I0506 10:15:18.836885 21187 net.cpp:409] conv5 -> conv5
I0506 10:15:18.849516 21187 net.cpp:144] Setting up conv5
I0506 10:15:18.849539 21187 net.cpp:151] Top shape: 20 128 5 5 (64000)
I0506 10:15:18.849542 21187 net.cpp:159] Memory required for data: 3464240
I0506 10:15:18.849552 21187 layer_factory.hpp:77] Creating layer relu5
I0506 10:15:18.849560 21187 net.cpp:94] Creating Layer relu5
I0506 10:15:18.849565 21187 net.cpp:435] relu5 <- conv5
I0506 10:15:18.849570 21187 net.cpp:396] relu5 -> conv5 (in-place)
I0506 10:15:18.849578 21187 net.cpp:144] Setting up relu5
I0506 10:15:18.849582 21187 net.cpp:151] Top shape: 20 128 5 5 (64000)
I0506 10:15:18.849591 21187 net.cpp:159] Memory required for data: 3720240
I0506 10:15:18.849594 21187 layer_factory.hpp:77] Creating layer pool5
I0506 10:15:18.849601 21187 net.cpp:94] Creating Layer pool5
I0506 10:15:18.849603 21187 net.cpp:435] pool5 <- conv5
I0506 10:15:18.849609 21187 net.cpp:409] pool5 -> pool5
I0506 10:15:18.849650 21187 net.cpp:144] Setting up pool5
I0506 10:15:18.849658 21187 net.cpp:151] Top shape: 20 128 2 2 (10240)
I0506 10:15:18.849660 21187 net.cpp:159] Memory required for data: 3761200
I0506 10:15:18.849664 21187 layer_factory.hpp:77] Creating layer ip1
I0506 10:15:18.849671 21187 net.cpp:94] Creating Layer ip1
I0506 10:15:18.849675 21187 net.cpp:435] ip1 <- pool5
I0506 10:15:18.849679 21187 net.cpp:409] ip1 -> ip1
I0506 10:15:18.862843 21187 net.cpp:144] Setting up ip1
I0506 10:15:18.862865 21187 net.cpp:151] Top shape: 20 1024 (20480)
I0506 10:15:18.862869 21187 net.cpp:159] Memory required for data: 3843120
I0506 10:15:18.862875 21187 layer_factory.hpp:77] Creating layer ip2
I0506 10:15:18.862884 21187 net.cpp:94] Creating Layer ip2
I0506 10:15:18.862889 21187 net.cpp:435] ip2 <- ip1
I0506 10:15:18.862895 21187 net.cpp:409] ip2 -> ip2
I0506 10:15:18.876170 21187 net.cpp:144] Setting up ip2
I0506 10:15:18.876190 21187 net.cpp:151] Top shape: 20 512 (10240)
I0506 10:15:18.876194 21187 net.cpp:159] Memory required for data: 3884080
I0506 10:15:18.876200 21187 layer_factory.hpp:77] Creating layer ip3
I0506 10:15:18.876214 21187 net.cpp:94] Creating Layer ip3
I0506 10:15:18.876217 21187 net.cpp:435] ip3 <- ip2
I0506 10:15:18.876224 21187 net.cpp:409] ip3 -> ip3
I0506 10:15:18.876994 21187 net.cpp:144] Setting up ip3
I0506 10:15:18.877004 21187 net.cpp:151] Top shape: 20 50 (1000)
I0506 10:15:18.877007 21187 net.cpp:159] Memory required for data: 3888080
I0506 10:15:18.877012 21187 layer_factory.hpp:77] Creating layer ip3_ip3_0_split
I0506 10:15:18.877018 21187 net.cpp:94] Creating Layer ip3_ip3_0_split
I0506 10:15:18.877022 21187 net.cpp:435] ip3_ip3_0_split <- ip3
I0506 10:15:18.877025 21187 net.cpp:409] ip3_ip3_0_split -> ip3_ip3_0_split_0
I0506 10:15:18.877032 21187 net.cpp:409] ip3_ip3_0_split -> ip3_ip3_0_split_1
I0506 10:15:18.877074 21187 net.cpp:144] Setting up ip3_ip3_0_split
I0506 10:15:18.877079 21187 net.cpp:151] Top shape: 20 50 (1000)
I0506 10:15:18.877082 21187 net.cpp:151] Top shape: 20 50 (1000)
I0506 10:15:18.877085 21187 net.cpp:159] Memory required for data: 3896080
I0506 10:15:18.877089 21187 layer_factory.hpp:77] Creating layer accuracy
I0506 10:15:18.877094 21187 net.cpp:94] Creating Layer accuracy
I0506 10:15:18.877096 21187 net.cpp:435] accuracy <- ip3_ip3_0_split_0
I0506 10:15:18.877100 21187 net.cpp:435] accuracy <- label_intercept_1_split_0
I0506 10:15:18.877105 21187 net.cpp:409] accuracy -> accuracy
…
