…
I0506 03:33:43.244758 12722 net.cpp:323] The NetState phase (0) differed from the phase (1) specified by a rule in layer intercept
I0506 03:33:43.244776 12722 net.cpp:323] The NetState phase (0) differed from the phase (1) specified by a rule in layer loss
I0506 03:33:43.244858 12722 net.cpp:52] Initializing net from parameters: 
state {
  phase: TRAIN
}
layer {
  name: "parameters"
  type: "HDF5Data"
  top: "data"
  top: "label"
  include {
    phase: TRAIN
  }
  hdf5_data_param {
    source: "/home/purduethu/scratch/radon/d/deng106/CNNStatisticalModel/distributions/input/50_distributions_100_sample_size_train-parameters-path.txt"
    batch_size: 20
  }
}
layer {
  name: "conv1"
  type: "Convolution"
  bottom: "data"
  top: "conv1"
  param {
    lr_mult: 1
  }
  param {
    lr_mult: 2
  }
  convolution_param {
    num_output: 64
    pad: 2
    kernel_size: 5
    stride: 1
    weight_filler {
      type: "gaussian"
      std: 0.0001
    }
    bias_filler {
      type: "constant"
    }
  }
}
layer {
  name: "relu1"
  type: "ReLU"
  bottom: "conv1"
  top: "conv1"
}
layer {
  name: "conv2"
  type: "Convolution"
  bottom: "conv1"
  top: "conv2"
  param {
    lr_mult: 1
  }
  param {
    lr_mult: 2
  }
  convolution_param {
    num_output: 64
    pad: 2
    kernel_size: 5
    stride: 1
    weight_filler {
      type: "gaussian"
      std: 0.01
    }
    bias_filler {
      type: "constant"
    }
  }
}
layer {
  name: "relu2"
  type: "ReLU"
  bottom: "conv2"
  top: "conv2"
}
layer {
  name: "pool2"
  type: "Pooling"
  bottom: "conv2"
  top: "pool2"
  pooling_param {
    pool: MAX
    kernel_size: 3
    stride: 2
  }
}
layer {
  name: "conv3"
  type: "Convolution"
  bottom: "pool2"
  top: "conv3"
  param {
    lr_mult: 1
  }
  param {
    lr_mult: 2
  }
  convolution_param {
    num_output: 128
    pad: 2
    kernel_size: 5
    stride: 1
    weight_filler {
      type: "gaussian"
      std: 0.01
    }
    bias_filler {
      type: "constant"
    }
  }
}
layer {
  name: "relu3"
  type: "ReLU"
  bottom: "conv3"
  top: "conv3"
}
layer {
  name: "conv4"
  type: "Convolution"
  bottom: "conv3"
  top: "conv4"
  param {
    lr_mult: 1
  }
  param {
    lr_mult: 2
  }
  convolution_param {
    num_output: 128
    pad: 2
    kernel_size: 5
    stride: 1
    weight_filler {
      type: "gaussian"
      std: 0.01
    }
    bias_filler {
      type: "constant"
    }
  }
}
layer {
  name: "relu4"
  type: "ReLU"
  bottom: "conv4"
  top: "conv4"
}
layer {
  name: "conv5"
  type: "Convolution"
  bottom: "conv4"
  top: "conv5"
  param {
    lr_mult: 1
  }
  param {
    lr_mult: 2
  }
  convolution_param {
    num_output: 128
    pad: 2
    kernel_size: 5
    stride: 1
    weight_filler {
      type: "gaussian"
      std: 0.01
    }
    bias_filler {
      type: "constant"
    }
  }
}
layer {
  name: "relu5"
  type: "ReLU"
  bottom: "conv5"
  top: "conv5"
}
layer {
  name: "pool5"
  type: "Pooling"
  bottom: "conv5"
  top: "pool5"
  pooling_param {
    pool: AVE
    kernel_size: 3
    stride: 2
  }
}
layer {
  name: "ip1"
  type: "InnerProduct"
  bottom: "pool5"
  top: "ip1"
  param {
    lr_mult: 1
  }
  param {
    lr_mult: 2
  }
  inner_product_param {
    num_output: 1024
    weight_filler {
      type: "gaussian"
      std: 0.1
    }
    bias_filler {
      type: "constant"
    }
  }
}
layer {
  name: "ip2"
  type: "InnerProduct"
  bottom: "ip1"
  top: "ip2"
  param {
    lr_mult: 1
  }
  param {
    lr_mult: 2
  }
  inner_product_param {
    num_output: 512
    weight_filler {
      type: "gaussian"
      std: 0.1
    }
    bias_filler {
      type: "constant"
    }
  }
}
layer {
  name: "ip3"
  type: "InnerProduct"
  bottom: "ip2"
  top: "ip3"
  param {
    lr_mult: 1
  }
  param {
    lr_mult: 2
  }
  inner_product_param {
    num_output: 1
    weight_filler {
      type: "gaussian"
      std: 0.1
    }
    bias_filler {
      type: "constant"
    }
  }
}
layer {
  name: "loss"
  type: "HuberLoss"
  bottom: "ip3"
  bottom: "label"
  top: "loss"
  include {
    phase: TRAIN
  }
}
I0506 03:33:43.244920 12722 layer_factory.hpp:77] Creating layer parameters
I0506 03:33:43.244932 12722 net.cpp:94] Creating Layer parameters
I0506 03:33:43.244936 12722 net.cpp:409] parameters -> data
I0506 03:33:43.244946 12722 net.cpp:409] parameters -> label
I0506 03:33:43.244956 12722 hdf5_data_layer.cpp:79] Loading list of HDF5 filenames from: /home/purduethu/scratch/radon/d/deng106/CNNStatisticalModel/distributions/input/50_distributions_100_sample_size_train-parameters-path.txt
I0506 03:33:43.244971 12722 hdf5_data_layer.cpp:93] Number of HDF5 files: 1
I0506 03:33:43.245509 12722 hdf5.cpp:32] Datatype class: H5T_FLOAT
I0506 03:33:43.405611 12722 net.cpp:144] Setting up parameters
I0506 03:33:43.405642 12722 net.cpp:151] Top shape: 20 1 10 10 (2000)
I0506 03:33:43.405647 12722 net.cpp:151] Top shape: 20 (20)
I0506 03:33:43.405649 12722 net.cpp:159] Memory required for data: 8080
I0506 03:33:43.405656 12722 layer_factory.hpp:77] Creating layer conv1
I0506 03:33:43.405671 12722 net.cpp:94] Creating Layer conv1
I0506 03:33:43.405675 12722 net.cpp:435] conv1 <- data
I0506 03:33:43.405681 12722 net.cpp:409] conv1 -> conv1
I0506 03:33:43.410012 12722 net.cpp:144] Setting up conv1
I0506 03:33:43.410025 12722 net.cpp:151] Top shape: 20 64 10 10 (128000)
I0506 03:33:43.410029 12722 net.cpp:159] Memory required for data: 520080
I0506 03:33:43.410039 12722 layer_factory.hpp:77] Creating layer relu1
I0506 03:33:43.410046 12722 net.cpp:94] Creating Layer relu1
I0506 03:33:43.410049 12722 net.cpp:435] relu1 <- conv1
I0506 03:33:43.410054 12722 net.cpp:396] relu1 -> conv1 (in-place)
I0506 03:33:43.410065 12722 net.cpp:144] Setting up relu1
I0506 03:33:43.410070 12722 net.cpp:151] Top shape: 20 64 10 10 (128000)
I0506 03:33:43.410073 12722 net.cpp:159] Memory required for data: 1032080
I0506 03:33:43.410076 12722 layer_factory.hpp:77] Creating layer conv2
I0506 03:33:43.410084 12722 net.cpp:94] Creating Layer conv2
I0506 03:33:43.410087 12722 net.cpp:435] conv2 <- conv1
I0506 03:33:43.410091 12722 net.cpp:409] conv2 -> conv2
I0506 03:33:43.416200 12722 net.cpp:144] Setting up conv2
I0506 03:33:43.416213 12722 net.cpp:151] Top shape: 20 64 10 10 (128000)
I0506 03:33:43.416218 12722 net.cpp:159] Memory required for data: 1544080
I0506 03:33:43.416225 12722 layer_factory.hpp:77] Creating layer relu2
I0506 03:33:43.416231 12722 net.cpp:94] Creating Layer relu2
I0506 03:33:43.416235 12722 net.cpp:435] relu2 <- conv2
I0506 03:33:43.416239 12722 net.cpp:396] relu2 -> conv2 (in-place)
I0506 03:33:43.416246 12722 net.cpp:144] Setting up relu2
I0506 03:33:43.416250 12722 net.cpp:151] Top shape: 20 64 10 10 (128000)
I0506 03:33:43.416254 12722 net.cpp:159] Memory required for data: 2056080
I0506 03:33:43.416256 12722 layer_factory.hpp:77] Creating layer pool2
I0506 03:33:43.416262 12722 net.cpp:94] Creating Layer pool2
I0506 03:33:43.416265 12722 net.cpp:435] pool2 <- conv2
I0506 03:33:43.416270 12722 net.cpp:409] pool2 -> pool2
I0506 03:33:43.416326 12722 net.cpp:144] Setting up pool2
I0506 03:33:43.416332 12722 net.cpp:151] Top shape: 20 64 5 5 (32000)
I0506 03:33:43.416335 12722 net.cpp:159] Memory required for data: 2184080
I0506 03:33:43.416338 12722 layer_factory.hpp:77] Creating layer conv3
I0506 03:33:43.416347 12722 net.cpp:94] Creating Layer conv3
I0506 03:33:43.416355 12722 net.cpp:435] conv3 <- pool2
I0506 03:33:43.416362 12722 net.cpp:409] conv3 -> conv3
I0506 03:33:43.424541 12722 net.cpp:144] Setting up conv3
I0506 03:33:43.424563 12722 net.cpp:151] Top shape: 20 128 5 5 (64000)
I0506 03:33:43.424568 12722 net.cpp:159] Memory required for data: 2440080
I0506 03:33:43.424576 12722 layer_factory.hpp:77] Creating layer relu3
I0506 03:33:43.424582 12722 net.cpp:94] Creating Layer relu3
I0506 03:33:43.424587 12722 net.cpp:435] relu3 <- conv3
I0506 03:33:43.424590 12722 net.cpp:396] relu3 -> conv3 (in-place)
I0506 03:33:43.424597 12722 net.cpp:144] Setting up relu3
I0506 03:33:43.424602 12722 net.cpp:151] Top shape: 20 128 5 5 (64000)
I0506 03:33:43.424604 12722 net.cpp:159] Memory required for data: 2696080
I0506 03:33:43.424607 12722 layer_factory.hpp:77] Creating layer conv4
I0506 03:33:43.424615 12722 net.cpp:94] Creating Layer conv4
I0506 03:33:43.424619 12722 net.cpp:435] conv4 <- conv3
I0506 03:33:43.424623 12722 net.cpp:409] conv4 -> conv4
I0506 03:33:43.439432 12722 net.cpp:144] Setting up conv4
I0506 03:33:43.439446 12722 net.cpp:151] Top shape: 20 128 5 5 (64000)
I0506 03:33:43.439450 12722 net.cpp:159] Memory required for data: 2952080
I0506 03:33:43.439456 12722 layer_factory.hpp:77] Creating layer relu4
I0506 03:33:43.439462 12722 net.cpp:94] Creating Layer relu4
I0506 03:33:43.439465 12722 net.cpp:435] relu4 <- conv4
I0506 03:33:43.439471 12722 net.cpp:396] relu4 -> conv4 (in-place)
I0506 03:33:43.439477 12722 net.cpp:144] Setting up relu4
I0506 03:33:43.439481 12722 net.cpp:151] Top shape: 20 128 5 5 (64000)
I0506 03:33:43.439484 12722 net.cpp:159] Memory required for data: 3208080
I0506 03:33:43.439487 12722 layer_factory.hpp:77] Creating layer conv5
I0506 03:33:43.439494 12722 net.cpp:94] Creating Layer conv5
I0506 03:33:43.439498 12722 net.cpp:435] conv5 <- conv4
I0506 03:33:43.439502 12722 net.cpp:409] conv5 -> conv5
I0506 03:33:43.453893 12722 net.cpp:144] Setting up conv5
I0506 03:33:43.453907 12722 net.cpp:151] Top shape: 20 128 5 5 (64000)
I0506 03:33:43.453912 12722 net.cpp:159] Memory required for data: 3464080
I0506 03:33:43.453919 12722 layer_factory.hpp:77] Creating layer relu5
I0506 03:33:43.453925 12722 net.cpp:94] Creating Layer relu5
I0506 03:33:43.453929 12722 net.cpp:435] relu5 <- conv5
I0506 03:33:43.453933 12722 net.cpp:396] relu5 -> conv5 (in-place)
I0506 03:33:43.453940 12722 net.cpp:144] Setting up relu5
I0506 03:33:43.453944 12722 net.cpp:151] Top shape: 20 128 5 5 (64000)
I0506 03:33:43.453948 12722 net.cpp:159] Memory required for data: 3720080
I0506 03:33:43.453950 12722 layer_factory.hpp:77] Creating layer pool5
I0506 03:33:43.453956 12722 net.cpp:94] Creating Layer pool5
I0506 03:33:43.453959 12722 net.cpp:435] pool5 <- conv5
I0506 03:33:43.453963 12722 net.cpp:409] pool5 -> pool5
I0506 03:33:43.454002 12722 net.cpp:144] Setting up pool5
I0506 03:33:43.454010 12722 net.cpp:151] Top shape: 20 128 2 2 (10240)
I0506 03:33:43.454013 12722 net.cpp:159] Memory required for data: 3761040
I0506 03:33:43.454016 12722 layer_factory.hpp:77] Creating layer ip1
I0506 03:33:43.454022 12722 net.cpp:94] Creating Layer ip1
I0506 03:33:43.454025 12722 net.cpp:435] ip1 <- pool5
I0506 03:33:43.454030 12722 net.cpp:409] ip1 -> ip1
I0506 03:33:43.467911 12722 net.cpp:144] Setting up ip1
I0506 03:33:43.467926 12722 net.cpp:151] Top shape: 20 1024 (20480)
I0506 03:33:43.467929 12722 net.cpp:159] Memory required for data: 3842960
I0506 03:33:43.467936 12722 layer_factory.hpp:77] Creating layer ip2
I0506 03:33:43.467942 12722 net.cpp:94] Creating Layer ip2
I0506 03:33:43.467947 12722 net.cpp:435] ip2 <- ip1
I0506 03:33:43.467952 12722 net.cpp:409] ip2 -> ip2
I0506 03:33:43.480970 12722 net.cpp:144] Setting up ip2
I0506 03:33:43.480983 12722 net.cpp:151] Top shape: 20 512 (10240)
I0506 03:33:43.480986 12722 net.cpp:159] Memory required for data: 3883920
I0506 03:33:43.480993 12722 layer_factory.hpp:77] Creating layer ip3
I0506 03:33:43.480999 12722 net.cpp:94] Creating Layer ip3
I0506 03:33:43.481003 12722 net.cpp:435] ip3 <- ip2
I0506 03:33:43.481012 12722 net.cpp:409] ip3 -> ip3
I0506 03:33:43.481130 12722 net.cpp:144] Setting up ip3
I0506 03:33:43.481138 12722 net.cpp:151] Top shape: 20 1 (20)
I0506 03:33:43.481142 12722 net.cpp:159] Memory required for data: 3884000
I0506 03:33:43.481147 12722 layer_factory.hpp:77] Creating layer loss
I0506 03:33:43.481158 12722 net.cpp:94] Creating Layer loss
I0506 03:33:43.481160 12722 net.cpp:435] loss <- ip3
I0506 03:33:43.481164 12722 net.cpp:435] loss <- label
I0506 03:33:43.481168 12722 net.cpp:409] loss -> loss
I0506 03:33:43.481220 12722 net.cpp:144] Setting up loss
…
I0506 03:33:43.587127 12722 net.cpp:323] The NetState phase (0) differed from the phase (1) specified by a rule in layer intercept
I0506 03:33:43.587142 12722 net.cpp:323] The NetState phase (0) differed from the phase (1) specified by a rule in layer accuracy
I0506 03:33:43.587229 12722 net.cpp:52] Initializing net from parameters: 
state {
  phase: TRAIN
}
layer {
  name: "parameters"
  type: "HDF5Data"
  top: "data"
  top: "label"
  include {
    phase: TRAIN
  }
  hdf5_data_param {
    source: "/home/purduethu/scratch/radon/d/deng106/CNNStatisticalModel/distributions/input/50_distributions_100_sample_size_train-distributions-path.txt"
    batch_size: 20
  }
}
layer {
  name: "conv1"
  type: "Convolution"
  bottom: "data"
  top: "conv1"
  param {
    lr_mult: 1
  }
  param {
    lr_mult: 2
  }
  convolution_param {
    num_output: 64
    pad: 2
    kernel_size: 5
    stride: 1
    weight_filler {
      type: "gaussian"
      std: 0.0001
    }
    bias_filler {
      type: "constant"
    }
  }
}
layer {
  name: "relu1"
  type: "ReLU"
  bottom: "conv1"
  top: "conv1"
}
layer {
  name: "conv2"
  type: "Convolution"
  bottom: "conv1"
  top: "conv2"
  param {
    lr_mult: 1
  }
  param {
    lr_mult: 2
  }
  convolution_param {
    num_output: 64
    pad: 2
    kernel_size: 5
    stride: 1
    weight_filler {
      type: "gaussian"
      std: 0.01
    }
    bias_filler {
      type: "constant"
    }
  }
}
layer {
  name: "relu2"
  type: "ReLU"
  bottom: "conv2"
  top: "conv2"
}
layer {
  name: "pool2"
  type: "Pooling"
  bottom: "conv2"
  top: "pool2"
  pooling_param {
    pool: MAX
    kernel_size: 3
    stride: 2
  }
}
layer {
  name: "conv3"
  type: "Convolution"
  bottom: "pool2"
  top: "conv3"
  param {
    lr_mult: 1
  }
  param {
    lr_mult: 2
  }
  convolution_param {
    num_output: 128
    pad: 2
    kernel_size: 5
    stride: 1
    weight_filler {
      type: "gaussian"
      std: 0.01
    }
    bias_filler {
      type: "constant"
    }
  }
}
layer {
  name: "relu3"
  type: "ReLU"
  bottom: "conv3"
  top: "conv3"
}
layer {
  name: "conv4"
  type: "Convolution"
  bottom: "conv3"
  top: "conv4"
  param {
    lr_mult: 1
  }
  param {
    lr_mult: 2
  }
  convolution_param {
    num_output: 128
    pad: 2
    kernel_size: 5
    stride: 1
    weight_filler {
      type: "gaussian"
      std: 0.01
    }
    bias_filler {
      type: "constant"
    }
  }
}
layer {
  name: "relu4"
  type: "ReLU"
  bottom: "conv4"
  top: "conv4"
}
layer {
  name: "conv5"
  type: "Convolution"
  bottom: "conv4"
  top: "conv5"
  param {
    lr_mult: 1
  }
  param {
    lr_mult: 2
  }
  convolution_param {
    num_output: 128
    pad: 2
    kernel_size: 5
    stride: 1
    weight_filler {
      type: "gaussian"
      std: 0.01
    }
    bias_filler {
      type: "constant"
    }
  }
}
layer {
  name: "relu5"
  type: "ReLU"
  bottom: "conv5"
  top: "conv5"
}
layer {
  name: "pool5"
  type: "Pooling"
  bottom: "conv5"
  top: "pool5"
  pooling_param {
    pool: AVE
    kernel_size: 3
    stride: 2
  }
}
layer {
  name: "ip1"
  type: "InnerProduct"
  bottom: "pool5"
  top: "ip1"
  param {
    lr_mult: 1
  }
  param {
    lr_mult: 2
  }
  inner_product_param {
    num_output: 1024
    weight_filler {
      type: "gaussian"
      std: 0.1
    }
    bias_filler {
      type: "constant"
    }
  }
}
layer {
  name: "ip2"
  type: "InnerProduct"
  bottom: "ip1"
  top: "ip2"
  param {
    lr_mult: 1
  }
  param {
    lr_mult: 2
  }
  inner_product_param {
    num_output: 512
    weight_filler {
      type: "gaussian"
      std: 0.1
    }
    bias_filler {
      type: "constant"
    }
  }
}
layer {
  name: "ip3"
  type: "InnerProduct"
  bottom: "ip2"
  top: "ip3"
  param {
    lr_mult: 1
  }
  param {
    lr_mult: 2
  }
  inner_product_param {
    num_output: 50
    weight_filler {
      type: "gaussian"
      std: 0.1
    }
    bias_filler {
      type: "constant"
    }
  }
}
layer {
  name: "loss"
  type: "SoftmaxWithLoss"
  bottom: "ip3"
  bottom: "label"
  top: "loss"
}
I0506 03:33:43.587280 12722 layer_factory.hpp:77] Creating layer parameters
I0506 03:33:43.587287 12722 net.cpp:94] Creating Layer parameters
I0506 03:33:43.587291 12722 net.cpp:409] parameters -> data
I0506 03:33:43.587297 12722 net.cpp:409] parameters -> label
I0506 03:33:43.587303 12722 hdf5_data_layer.cpp:79] Loading list of HDF5 filenames from: /home/purduethu/scratch/radon/d/deng106/CNNStatisticalModel/distributions/input/50_distributions_100_sample_size_train-distributions-path.txt
I0506 03:33:43.587319 12722 hdf5_data_layer.cpp:93] Number of HDF5 files: 1
I0506 03:33:43.741510 12722 hdf5.cpp:35] Datatype class: H5T_INTEGER
I0506 03:33:43.744508 12722 net.cpp:144] Setting up parameters
I0506 03:33:43.744524 12722 net.cpp:151] Top shape: 20 1 10 10 (2000)
I0506 03:33:43.744529 12722 net.cpp:151] Top shape: 20 (20)
I0506 03:33:43.744531 12722 net.cpp:159] Memory required for data: 8080
I0506 03:33:43.744537 12722 layer_factory.hpp:77] Creating layer conv1
I0506 03:33:43.744562 12722 net.cpp:94] Creating Layer conv1
I0506 03:33:43.744580 12722 net.cpp:435] conv1 <- data
I0506 03:33:43.744585 12722 net.cpp:409] conv1 -> conv1
I0506 03:33:43.746580 12722 net.cpp:144] Setting up conv1
I0506 03:33:43.746594 12722 net.cpp:151] Top shape: 20 64 10 10 (128000)
I0506 03:33:43.746598 12722 net.cpp:159] Memory required for data: 520080
I0506 03:33:43.746608 12722 layer_factory.hpp:77] Creating layer relu1
I0506 03:33:43.746614 12722 net.cpp:94] Creating Layer relu1
I0506 03:33:43.746618 12722 net.cpp:435] relu1 <- conv1
I0506 03:33:43.746623 12722 net.cpp:396] relu1 -> conv1 (in-place)
I0506 03:33:43.746629 12722 net.cpp:144] Setting up relu1
I0506 03:33:43.746634 12722 net.cpp:151] Top shape: 20 64 10 10 (128000)
I0506 03:33:43.746636 12722 net.cpp:159] Memory required for data: 1032080
I0506 03:33:43.746639 12722 layer_factory.hpp:77] Creating layer conv2
I0506 03:33:43.746647 12722 net.cpp:94] Creating Layer conv2
I0506 03:33:43.746650 12722 net.cpp:435] conv2 <- conv1
I0506 03:33:43.746654 12722 net.cpp:409] conv2 -> conv2
I0506 03:33:43.752069 12722 net.cpp:144] Setting up conv2
I0506 03:33:43.752084 12722 net.cpp:151] Top shape: 20 64 10 10 (128000)
I0506 03:33:43.752086 12722 net.cpp:159] Memory required for data: 1544080
I0506 03:33:43.752094 12722 layer_factory.hpp:77] Creating layer relu2
I0506 03:33:43.752100 12722 net.cpp:94] Creating Layer relu2
I0506 03:33:43.752104 12722 net.cpp:435] relu2 <- conv2
I0506 03:33:43.752109 12722 net.cpp:396] relu2 -> conv2 (in-place)
I0506 03:33:43.752115 12722 net.cpp:144] Setting up relu2
I0506 03:33:43.752120 12722 net.cpp:151] Top shape: 20 64 10 10 (128000)
I0506 03:33:43.752122 12722 net.cpp:159] Memory required for data: 2056080
I0506 03:33:43.752125 12722 layer_factory.hpp:77] Creating layer pool2
I0506 03:33:43.752131 12722 net.cpp:94] Creating Layer pool2
I0506 03:33:43.752135 12722 net.cpp:435] pool2 <- conv2
I0506 03:33:43.752138 12722 net.cpp:409] pool2 -> pool2
I0506 03:33:43.752194 12722 net.cpp:144] Setting up pool2
I0506 03:33:43.752202 12722 net.cpp:151] Top shape: 20 64 5 5 (32000)
I0506 03:33:43.752204 12722 net.cpp:159] Memory required for data: 2184080
I0506 03:33:43.752207 12722 layer_factory.hpp:77] Creating layer conv3
I0506 03:33:43.752214 12722 net.cpp:94] Creating Layer conv3
I0506 03:33:43.752218 12722 net.cpp:435] conv3 <- pool2
I0506 03:33:43.752223 12722 net.cpp:409] conv3 -> conv3
I0506 03:33:43.760936 12722 net.cpp:144] Setting up conv3
I0506 03:33:43.760949 12722 net.cpp:151] Top shape: 20 128 5 5 (64000)
I0506 03:33:43.760953 12722 net.cpp:159] Memory required for data: 2440080
I0506 03:33:43.760962 12722 layer_factory.hpp:77] Creating layer relu3
I0506 03:33:43.760967 12722 net.cpp:94] Creating Layer relu3
I0506 03:33:43.760970 12722 net.cpp:435] relu3 <- conv3
I0506 03:33:43.760974 12722 net.cpp:396] relu3 -> conv3 (in-place)
I0506 03:33:43.760987 12722 net.cpp:144] Setting up relu3
I0506 03:33:43.760993 12722 net.cpp:151] Top shape: 20 128 5 5 (64000)
I0506 03:33:43.760995 12722 net.cpp:159] Memory required for data: 2696080
I0506 03:33:43.760998 12722 layer_factory.hpp:77] Creating layer conv4
I0506 03:33:43.761006 12722 net.cpp:94] Creating Layer conv4
I0506 03:33:43.761010 12722 net.cpp:435] conv4 <- conv3
I0506 03:33:43.761014 12722 net.cpp:409] conv4 -> conv4
I0506 03:33:43.775511 12722 net.cpp:144] Setting up conv4
I0506 03:33:43.775524 12722 net.cpp:151] Top shape: 20 128 5 5 (64000)
I0506 03:33:43.775527 12722 net.cpp:159] Memory required for data: 2952080
I0506 03:33:43.775534 12722 layer_factory.hpp:77] Creating layer relu4
I0506 03:33:43.775539 12722 net.cpp:94] Creating Layer relu4
I0506 03:33:43.775543 12722 net.cpp:435] relu4 <- conv4
I0506 03:33:43.775547 12722 net.cpp:396] relu4 -> conv4 (in-place)
I0506 03:33:43.775554 12722 net.cpp:144] Setting up relu4
I0506 03:33:43.775558 12722 net.cpp:151] Top shape: 20 128 5 5 (64000)
I0506 03:33:43.775562 12722 net.cpp:159] Memory required for data: 3208080
I0506 03:33:43.775564 12722 layer_factory.hpp:77] Creating layer conv5
I0506 03:33:43.775573 12722 net.cpp:94] Creating Layer conv5
I0506 03:33:43.775575 12722 net.cpp:435] conv5 <- conv4
I0506 03:33:43.775580 12722 net.cpp:409] conv5 -> conv5
I0506 03:33:43.790431 12722 net.cpp:144] Setting up conv5
I0506 03:33:43.790444 12722 net.cpp:151] Top shape: 20 128 5 5 (64000)
I0506 03:33:43.790448 12722 net.cpp:159] Memory required for data: 3464080
I0506 03:33:43.790457 12722 layer_factory.hpp:77] Creating layer relu5
I0506 03:33:43.790462 12722 net.cpp:94] Creating Layer relu5
I0506 03:33:43.790465 12722 net.cpp:435] relu5 <- conv5
I0506 03:33:43.790469 12722 net.cpp:396] relu5 -> conv5 (in-place)
I0506 03:33:43.790477 12722 net.cpp:144] Setting up relu5
I0506 03:33:43.790480 12722 net.cpp:151] Top shape: 20 128 5 5 (64000)
I0506 03:33:43.790483 12722 net.cpp:159] Memory required for data: 3720080
I0506 03:33:43.790487 12722 layer_factory.hpp:77] Creating layer pool5
I0506 03:33:43.790491 12722 net.cpp:94] Creating Layer pool5
I0506 03:33:43.790494 12722 net.cpp:435] pool5 <- conv5
I0506 03:33:43.790498 12722 net.cpp:409] pool5 -> pool5
I0506 03:33:43.790537 12722 net.cpp:144] Setting up pool5
I0506 03:33:43.790545 12722 net.cpp:151] Top shape: 20 128 2 2 (10240)
I0506 03:33:43.790549 12722 net.cpp:159] Memory required for data: 3761040
I0506 03:33:43.790551 12722 layer_factory.hpp:77] Creating layer ip1
I0506 03:33:43.790558 12722 net.cpp:94] Creating Layer ip1
I0506 03:33:43.790561 12722 net.cpp:435] ip1 <- pool5
I0506 03:33:43.790565 12722 net.cpp:409] ip1 -> ip1
I0506 03:33:43.803622 12722 net.cpp:144] Setting up ip1
I0506 03:33:43.803635 12722 net.cpp:151] Top shape: 20 1024 (20480)
I0506 03:33:43.803639 12722 net.cpp:159] Memory required for data: 3842960
I0506 03:33:43.803645 12722 layer_factory.hpp:77] Creating layer ip2
I0506 03:33:43.803652 12722 net.cpp:94] Creating Layer ip2
I0506 03:33:43.803655 12722 net.cpp:435] ip2 <- ip1
I0506 03:33:43.803660 12722 net.cpp:409] ip2 -> ip2
I0506 03:33:43.816700 12722 net.cpp:144] Setting up ip2
I0506 03:33:43.816715 12722 net.cpp:151] Top shape: 20 512 (10240)
I0506 03:33:43.816718 12722 net.cpp:159] Memory required for data: 3883920
I0506 03:33:43.816725 12722 layer_factory.hpp:77] Creating layer ip3
I0506 03:33:43.816730 12722 net.cpp:94] Creating Layer ip3
I0506 03:33:43.816735 12722 net.cpp:435] ip3 <- ip2
I0506 03:33:43.816740 12722 net.cpp:409] ip3 -> ip3
I0506 03:33:43.818264 12722 net.cpp:144] Setting up ip3
I0506 03:33:43.818277 12722 net.cpp:151] Top shape: 20 50 (1000)
I0506 03:33:43.818280 12722 net.cpp:159] Memory required for data: 3887920
I0506 03:33:43.818286 12722 layer_factory.hpp:77] Creating layer loss
I0506 03:33:43.818295 12722 net.cpp:94] Creating Layer loss
I0506 03:33:43.818297 12722 net.cpp:435] loss <- ip3
I0506 03:33:43.818301 12722 net.cpp:435] loss <- label
I0506 03:33:43.818305 12722 net.cpp:409] loss -> loss
I0506 03:33:43.818312 12722 layer_factory.hpp:77] Creating layer loss
…
I0506 03:33:43.818837 12722 solver.cpp:181] Creating test net (#0) specified by net file: ./protocol/dis_50_100_dimension.protocol_distribution
I0506 03:33:43.818863 12722 net.cpp:323] The NetState phase (1) differed from the phase (0) specified by a rule in layer parameters
I0506 03:33:43.818958 12722 net.cpp:52] Initializing net from parameters: 
state {
  phase: TEST
}
layer {
  name: "intercept"
  type: "HDF5Data"
  top: "data"
  top: "label"
  include {
    phase: TEST
  }
  hdf5_data_param {
    source: "/home/purduethu/scratch/radon/d/deng106/CNNStatisticalModel/distributions/input/50_distributions_100_sample_size_test-distributions-path.txt"
    batch_size: 20
  }
}
layer {
  name: "conv1"
  type: "Convolution"
  bottom: "data"
  top: "conv1"
  param {
    lr_mult: 1
  }
  param {
    lr_mult: 2
  }
  convolution_param {
    num_output: 64
    pad: 2
    kernel_size: 5
    stride: 1
    weight_filler {
      type: "gaussian"
      std: 0.0001
    }
    bias_filler {
      type: "constant"
    }
  }
}
layer {
  name: "relu1"
  type: "ReLU"
  bottom: "conv1"
  top: "conv1"
}
layer {
  name: "conv2"
  type: "Convolution"
  bottom: "conv1"
  top: "conv2"
  param {
    lr_mult: 1
  }
  param {
    lr_mult: 2
  }
  convolution_param {
    num_output: 64
    pad: 2
    kernel_size: 5
    stride: 1
    weight_filler {
      type: "gaussian"
      std: 0.01
    }
    bias_filler {
      type: "constant"
    }
  }
}
layer {
  name: "relu2"
  type: "ReLU"
  bottom: "conv2"
  top: "conv2"
}
layer {
  name: "pool2"
  type: "Pooling"
  bottom: "conv2"
  top: "pool2"
  pooling_param {
    pool: MAX
    kernel_size: 3
    stride: 2
  }
}
layer {
  name: "conv3"
  type: "Convolution"
  bottom: "pool2"
  top: "conv3"
  param {
    lr_mult: 1
  }
  param {
    lr_mult: 2
  }
  convolution_param {
    num_output: 128
    pad: 2
    kernel_size: 5
    stride: 1
    weight_filler {
      type: "gaussian"
      std: 0.01
    }
    bias_filler {
      type: "constant"
    }
  }
}
layer {
  name: "relu3"
  type: "ReLU"
  bottom: "conv3"
  top: "conv3"
}
layer {
  name: "conv4"
  type: "Convolution"
  bottom: "conv3"
  top: "conv4"
  param {
    lr_mult: 1
  }
  param {
    lr_mult: 2
  }
  convolution_param {
    num_output: 128
    pad: 2
    kernel_size: 5
    stride: 1
    weight_filler {
      type: "gaussian"
      std: 0.01
    }
    bias_filler {
      type: "constant"
    }
  }
}
layer {
  name: "relu4"
  type: "ReLU"
  bottom: "conv4"
  top: "conv4"
}
layer {
  name: "conv5"
  type: "Convolution"
  bottom: "conv4"
  top: "conv5"
  param {
    lr_mult: 1
  }
  param {
    lr_mult: 2
  }
  convolution_param {
    num_output: 128
    pad: 2
    kernel_size: 5
    stride: 1
    weight_filler {
      type: "gaussian"
      std: 0.01
    }
    bias_filler {
      type: "constant"
    }
  }
}
layer {
  name: "relu5"
  type: "ReLU"
  bottom: "conv5"
  top: "conv5"
}
layer {
  name: "pool5"
  type: "Pooling"
  bottom: "conv5"
  top: "pool5"
  pooling_param {
    pool: AVE
    kernel_size: 3
    stride: 2
  }
}
layer {
  name: "ip1"
  type: "InnerProduct"
  bottom: "pool5"
  top: "ip1"
  param {
    lr_mult: 1
  }
  param {
    lr_mult: 2
  }
  inner_product_param {
    num_output: 1024
    weight_filler {
      type: "gaussian"
      std: 0.1
    }
    bias_filler {
      type: "constant"
    }
  }
}
layer {
  name: "ip2"
  type: "InnerProduct"
  bottom: "ip1"
  top: "ip2"
  param {
    lr_mult: 1
  }
  param {
    lr_mult: 2
  }
  inner_product_param {
    num_output: 512
    weight_filler {
      type: "gaussian"
      std: 0.1
    }
    bias_filler {
      type: "constant"
    }
  }
}
layer {
  name: "ip3"
  type: "InnerProduct"
  bottom: "ip2"
  top: "ip3"
  param {
    lr_mult: 1
  }
  param {
    lr_mult: 2
  }
  inner_product_param {
    num_output: 50
    weight_filler {
      type: "gaussian"
      std: 0.1
    }
    bias_filler {
      type: "constant"
    }
  }
}
layer {
  name: "accuracy"
  type: "Accuracy"
  bottom: "ip3"
  bottom: "label"
  top: "accuracy"
  include {
    phase: TEST
  }
}
layer {
  name: "loss"
  type: "SoftmaxWithLoss"
  bottom: "ip3"
  bottom: "label"
  top: "loss"
}
I0506 03:33:43.819021 12722 layer_factory.hpp:77] Creating layer intercept
I0506 03:33:43.819031 12722 net.cpp:94] Creating Layer intercept
I0506 03:33:43.819033 12722 net.cpp:409] intercept -> data
I0506 03:33:43.819041 12722 net.cpp:409] intercept -> label
I0506 03:33:43.819046 12722 hdf5_data_layer.cpp:79] Loading list of HDF5 filenames from: /home/purduethu/scratch/radon/d/deng106/CNNStatisticalModel/distributions/input/50_distributions_100_sample_size_test-distributions-path.txt
I0506 03:33:43.819066 12722 hdf5_data_layer.cpp:93] Number of HDF5 files: 1
I0506 03:33:43.859606 12722 net.cpp:144] Setting up intercept
I0506 03:33:43.859637 12722 net.cpp:151] Top shape: 20 1 10 10 (2000)
I0506 03:33:43.859642 12722 net.cpp:151] Top shape: 20 (20)
I0506 03:33:43.859645 12722 net.cpp:159] Memory required for data: 8080
I0506 03:33:43.859652 12722 layer_factory.hpp:77] Creating layer label_intercept_1_split
I0506 03:33:43.859670 12722 net.cpp:94] Creating Layer label_intercept_1_split
I0506 03:33:43.859674 12722 net.cpp:435] label_intercept_1_split <- label
I0506 03:33:43.859680 12722 net.cpp:409] label_intercept_1_split -> label_intercept_1_split_0
I0506 03:33:43.859688 12722 net.cpp:409] label_intercept_1_split -> label_intercept_1_split_1
I0506 03:33:43.859733 12722 net.cpp:144] Setting up label_intercept_1_split
I0506 03:33:43.859740 12722 net.cpp:151] Top shape: 20 (20)
I0506 03:33:43.859743 12722 net.cpp:151] Top shape: 20 (20)
I0506 03:33:43.859746 12722 net.cpp:159] Memory required for data: 8240
I0506 03:33:43.859750 12722 layer_factory.hpp:77] Creating layer conv1
I0506 03:33:43.859760 12722 net.cpp:94] Creating Layer conv1
I0506 03:33:43.859762 12722 net.cpp:435] conv1 <- data
I0506 03:33:43.859767 12722 net.cpp:409] conv1 -> conv1
I0506 03:33:43.860734 12722 net.cpp:144] Setting up conv1
I0506 03:33:43.860749 12722 net.cpp:151] Top shape: 20 64 10 10 (128000)
I0506 03:33:43.860752 12722 net.cpp:159] Memory required for data: 520240
I0506 03:33:43.860761 12722 layer_factory.hpp:77] Creating layer relu1
I0506 03:33:43.860767 12722 net.cpp:94] Creating Layer relu1
I0506 03:33:43.860770 12722 net.cpp:435] relu1 <- conv1
I0506 03:33:43.860775 12722 net.cpp:396] relu1 -> conv1 (in-place)
I0506 03:33:43.860782 12722 net.cpp:144] Setting up relu1
I0506 03:33:43.860787 12722 net.cpp:151] Top shape: 20 64 10 10 (128000)
I0506 03:33:43.860797 12722 net.cpp:159] Memory required for data: 1032240
I0506 03:33:43.860800 12722 layer_factory.hpp:77] Creating layer conv2
I0506 03:33:43.860810 12722 net.cpp:94] Creating Layer conv2
I0506 03:33:43.860812 12722 net.cpp:435] conv2 <- conv1
I0506 03:33:43.860817 12722 net.cpp:409] conv2 -> conv2
I0506 03:33:43.864930 12722 net.cpp:144] Setting up conv2
I0506 03:33:43.864944 12722 net.cpp:151] Top shape: 20 64 10 10 (128000)
I0506 03:33:43.864948 12722 net.cpp:159] Memory required for data: 1544240
I0506 03:33:43.864955 12722 layer_factory.hpp:77] Creating layer relu2
I0506 03:33:43.864961 12722 net.cpp:94] Creating Layer relu2
I0506 03:33:43.864964 12722 net.cpp:435] relu2 <- conv2
I0506 03:33:43.864969 12722 net.cpp:396] relu2 -> conv2 (in-place)
I0506 03:33:43.864975 12722 net.cpp:144] Setting up relu2
I0506 03:33:43.864979 12722 net.cpp:151] Top shape: 20 64 10 10 (128000)
I0506 03:33:43.864982 12722 net.cpp:159] Memory required for data: 2056240
I0506 03:33:43.864985 12722 layer_factory.hpp:77] Creating layer pool2
I0506 03:33:43.864992 12722 net.cpp:94] Creating Layer pool2
I0506 03:33:43.864995 12722 net.cpp:435] pool2 <- conv2
I0506 03:33:43.865000 12722 net.cpp:409] pool2 -> pool2
I0506 03:33:43.865061 12722 net.cpp:144] Setting up pool2
I0506 03:33:43.865068 12722 net.cpp:151] Top shape: 20 64 5 5 (32000)
I0506 03:33:43.865072 12722 net.cpp:159] Memory required for data: 2184240
I0506 03:33:43.865074 12722 layer_factory.hpp:77] Creating layer conv3
I0506 03:33:43.865083 12722 net.cpp:94] Creating Layer conv3
I0506 03:33:43.865087 12722 net.cpp:435] conv3 <- pool2
I0506 03:33:43.865092 12722 net.cpp:409] conv3 -> conv3
I0506 03:33:43.871151 12722 net.cpp:144] Setting up conv3
I0506 03:33:43.871165 12722 net.cpp:151] Top shape: 20 128 5 5 (64000)
I0506 03:33:43.871168 12722 net.cpp:159] Memory required for data: 2440240
I0506 03:33:43.871176 12722 layer_factory.hpp:77] Creating layer relu3
I0506 03:33:43.871182 12722 net.cpp:94] Creating Layer relu3
I0506 03:33:43.871186 12722 net.cpp:435] relu3 <- conv3
I0506 03:33:43.871191 12722 net.cpp:396] relu3 -> conv3 (in-place)
I0506 03:33:43.871197 12722 net.cpp:144] Setting up relu3
I0506 03:33:43.871202 12722 net.cpp:151] Top shape: 20 128 5 5 (64000)
I0506 03:33:43.871206 12722 net.cpp:159] Memory required for data: 2696240
I0506 03:33:43.871207 12722 layer_factory.hpp:77] Creating layer conv4
I0506 03:33:43.871215 12722 net.cpp:94] Creating Layer conv4
I0506 03:33:43.871219 12722 net.cpp:435] conv4 <- conv3
I0506 03:33:43.871223 12722 net.cpp:409] conv4 -> conv4
I0506 03:33:43.883702 12722 net.cpp:144] Setting up conv4
I0506 03:33:43.883716 12722 net.cpp:151] Top shape: 20 128 5 5 (64000)
I0506 03:33:43.883719 12722 net.cpp:159] Memory required for data: 2952240
I0506 03:33:43.883726 12722 layer_factory.hpp:77] Creating layer relu4
I0506 03:33:43.883733 12722 net.cpp:94] Creating Layer relu4
I0506 03:33:43.883735 12722 net.cpp:435] relu4 <- conv4
I0506 03:33:43.883739 12722 net.cpp:396] relu4 -> conv4 (in-place)
I0506 03:33:43.883746 12722 net.cpp:144] Setting up relu4
I0506 03:33:43.883750 12722 net.cpp:151] Top shape: 20 128 5 5 (64000)
I0506 03:33:43.883754 12722 net.cpp:159] Memory required for data: 3208240
I0506 03:33:43.883756 12722 layer_factory.hpp:77] Creating layer conv5
I0506 03:33:43.883764 12722 net.cpp:94] Creating Layer conv5
I0506 03:33:43.883767 12722 net.cpp:435] conv5 <- conv4
I0506 03:33:43.883774 12722 net.cpp:409] conv5 -> conv5
I0506 03:33:43.896278 12722 net.cpp:144] Setting up conv5
I0506 03:33:43.896292 12722 net.cpp:151] Top shape: 20 128 5 5 (64000)
I0506 03:33:43.896296 12722 net.cpp:159] Memory required for data: 3464240
I0506 03:33:43.896303 12722 layer_factory.hpp:77] Creating layer relu5
I0506 03:33:43.896309 12722 net.cpp:94] Creating Layer relu5
I0506 03:33:43.896312 12722 net.cpp:435] relu5 <- conv5
I0506 03:33:43.896318 12722 net.cpp:396] relu5 -> conv5 (in-place)
I0506 03:33:43.896324 12722 net.cpp:144] Setting up relu5
I0506 03:33:43.896329 12722 net.cpp:151] Top shape: 20 128 5 5 (64000)
I0506 03:33:43.896335 12722 net.cpp:159] Memory required for data: 3720240
I0506 03:33:43.896338 12722 layer_factory.hpp:77] Creating layer pool5
I0506 03:33:43.896343 12722 net.cpp:94] Creating Layer pool5
I0506 03:33:43.896347 12722 net.cpp:435] pool5 <- conv5
I0506 03:33:43.896351 12722 net.cpp:409] pool5 -> pool5
I0506 03:33:43.896392 12722 net.cpp:144] Setting up pool5
I0506 03:33:43.896399 12722 net.cpp:151] Top shape: 20 128 2 2 (10240)
I0506 03:33:43.896402 12722 net.cpp:159] Memory required for data: 3761200
I0506 03:33:43.896405 12722 layer_factory.hpp:77] Creating layer ip1
I0506 03:33:43.896412 12722 net.cpp:94] Creating Layer ip1
I0506 03:33:43.896415 12722 net.cpp:435] ip1 <- pool5
I0506 03:33:43.896420 12722 net.cpp:409] ip1 -> ip1
I0506 03:33:43.909689 12722 net.cpp:144] Setting up ip1
I0506 03:33:43.909703 12722 net.cpp:151] Top shape: 20 1024 (20480)
I0506 03:33:43.909706 12722 net.cpp:159] Memory required for data: 3843120
I0506 03:33:43.909713 12722 layer_factory.hpp:77] Creating layer ip2
I0506 03:33:43.909721 12722 net.cpp:94] Creating Layer ip2
I0506 03:33:43.909724 12722 net.cpp:435] ip2 <- ip1
I0506 03:33:43.909729 12722 net.cpp:409] ip2 -> ip2
I0506 03:33:43.922786 12722 net.cpp:144] Setting up ip2
I0506 03:33:43.922799 12722 net.cpp:151] Top shape: 20 512 (10240)
I0506 03:33:43.922803 12722 net.cpp:159] Memory required for data: 3884080
I0506 03:33:43.922808 12722 layer_factory.hpp:77] Creating layer ip3
I0506 03:33:43.922818 12722 net.cpp:94] Creating Layer ip3
I0506 03:33:43.922822 12722 net.cpp:435] ip3 <- ip2
I0506 03:33:43.922827 12722 net.cpp:409] ip3 -> ip3
I0506 03:33:43.923563 12722 net.cpp:144] Setting up ip3
I0506 03:33:43.923571 12722 net.cpp:151] Top shape: 20 50 (1000)
I0506 03:33:43.923574 12722 net.cpp:159] Memory required for data: 3888080
I0506 03:33:43.923579 12722 layer_factory.hpp:77] Creating layer ip3_ip3_0_split
I0506 03:33:43.923584 12722 net.cpp:94] Creating Layer ip3_ip3_0_split
I0506 03:33:43.923588 12722 net.cpp:435] ip3_ip3_0_split <- ip3
I0506 03:33:43.923593 12722 net.cpp:409] ip3_ip3_0_split -> ip3_ip3_0_split_0
I0506 03:33:43.923598 12722 net.cpp:409] ip3_ip3_0_split -> ip3_ip3_0_split_1
I0506 03:33:43.923641 12722 net.cpp:144] Setting up ip3_ip3_0_split
I0506 03:33:43.923647 12722 net.cpp:151] Top shape: 20 50 (1000)
I0506 03:33:43.923651 12722 net.cpp:151] Top shape: 20 50 (1000)
I0506 03:33:43.923655 12722 net.cpp:159] Memory required for data: 3896080
I0506 03:33:43.923657 12722 layer_factory.hpp:77] Creating layer accuracy
I0506 03:33:43.923662 12722 net.cpp:94] Creating Layer accuracy
I0506 03:33:43.923666 12722 net.cpp:435] accuracy <- ip3_ip3_0_split_0
I0506 03:33:43.923668 12722 net.cpp:435] accuracy <- label_intercept_1_split_0
I0506 03:33:43.923672 12722 net.cpp:409] accuracy -> accuracy
…
