…
I0507 04:37:11.055296 31403 net.cpp:323] The NetState phase (0) differed from the phase (1) specified by a rule in layer intercept
I0507 04:37:11.055312 31403 net.cpp:323] The NetState phase (0) differed from the phase (1) specified by a rule in layer loss
I0507 04:37:11.055392 31403 net.cpp:52] Initializing net from parameters: 
state {
  phase: TRAIN
}
layer {
  name: "parameters"
  type: "HDF5Data"
  top: "data"
  top: "label"
  include {
    phase: TRAIN
  }
  hdf5_data_param {
    source: "/home/purduethu/scratch/radon/d/deng106/CNNStatisticalModel/distributions/input/50_distributions_100_sample_size_train-parameters-path.txt"
    batch_size: 20
  }
}
layer {
  name: "conv1"
  type: "Convolution"
  bottom: "data"
  top: "conv1"
  param {
    lr_mult: 1
  }
  param {
    lr_mult: 2
  }
  convolution_param {
    num_output: 64
    pad: 2
    kernel_size: 5
    stride: 1
    weight_filler {
      type: "gaussian"
      std: 0.0001
    }
    bias_filler {
      type: "constant"
    }
  }
}
layer {
  name: "relu1"
  type: "ReLU"
  bottom: "conv1"
  top: "conv1"
}
layer {
  name: "conv2"
  type: "Convolution"
  bottom: "conv1"
  top: "conv2"
  param {
    lr_mult: 1
  }
  param {
    lr_mult: 2
  }
  convolution_param {
    num_output: 64
    pad: 2
    kernel_size: 5
    stride: 1
    weight_filler {
      type: "gaussian"
      std: 0.01
    }
    bias_filler {
      type: "constant"
    }
  }
}
layer {
  name: "relu2"
  type: "ReLU"
  bottom: "conv2"
  top: "conv2"
}
layer {
  name: "pool2"
  type: "Pooling"
  bottom: "conv2"
  top: "pool2"
  pooling_param {
    pool: MAX
    kernel_size: 3
    stride: 2
  }
}
layer {
  name: "conv3"
  type: "Convolution"
  bottom: "pool2"
  top: "conv3"
  param {
    lr_mult: 1
  }
  param {
    lr_mult: 2
  }
  convolution_param {
    num_output: 64
    pad: 2
    kernel_size: 5
    stride: 1
    weight_filler {
      type: "gaussian"
      std: 0.01
    }
    bias_filler {
      type: "constant"
    }
  }
}
layer {
  name: "relu3"
  type: "ReLU"
  bottom: "conv3"
  top: "conv3"
}
layer {
  name: "conv4"
  type: "Convolution"
  bottom: "conv3"
  top: "conv4"
  param {
    lr_mult: 1
  }
  param {
    lr_mult: 2
  }
  convolution_param {
    num_output: 64
    pad: 2
    kernel_size: 5
    stride: 1
    weight_filler {
      type: "gaussian"
      std: 0.01
    }
    bias_filler {
      type: "constant"
    }
  }
}
layer {
  name: "relu4"
  type: "ReLU"
  bottom: "conv4"
  top: "conv4"
}
layer {
  name: "conv5"
  type: "Convolution"
  bottom: "conv4"
  top: "conv5"
  param {
    lr_mult: 1
  }
  param {
    lr_mult: 2
  }
  convolution_param {
    num_output: 64
    pad: 2
    kernel_size: 5
    stride: 1
    weight_filler {
      type: "gaussian"
      std: 0.01
    }
    bias_filler {
      type: "constant"
    }
  }
}
layer {
  name: "relu5"
  type: "ReLU"
  bottom: "conv5"
  top: "conv5"
}
layer {
  name: "pool5"
  type: "Pooling"
  bottom: "conv5"
  top: "pool5"
  pooling_param {
    pool: AVE
    kernel_size: 3
    stride: 2
  }
}
layer {
  name: "ip1"
  type: "InnerProduct"
  bottom: "pool5"
  top: "ip1"
  param {
    lr_mult: 1
  }
  param {
    lr_mult: 2
  }
  inner_product_param {
    num_output: 64
    weight_filler {
      type: "gaussian"
      std: 0.1
    }
    bias_filler {
      type: "constant"
    }
  }
}
layer {
  name: "ip2"
  type: "InnerProduct"
  bottom: "ip1"
  top: "ip2"
  param {
    lr_mult: 1
  }
  param {
    lr_mult: 2
  }
  inner_product_param {
    num_output: 64
    weight_filler {
      type: "gaussian"
      std: 0.1
    }
    bias_filler {
      type: "constant"
    }
  }
}
layer {
  name: "ip3"
  type: "InnerProduct"
  bottom: "ip2"
  top: "ip3"
  param {
    lr_mult: 1
  }
  param {
    lr_mult: 2
  }
  inner_product_param {
    num_output: 1
    weight_filler {
      type: "gaussian"
      std: 0.1
    }
    bias_filler {
      type: "constant"
    }
  }
}
layer {
  name: "loss"
  type: "HuberLoss"
  bottom: "ip3"
  bottom: "label"
  top: "loss"
  include {
    phase: TRAIN
  }
}
I0507 04:37:11.055444 31403 layer_factory.hpp:77] Creating layer parameters
I0507 04:37:11.055460 31403 net.cpp:94] Creating Layer parameters
I0507 04:37:11.055465 31403 net.cpp:409] parameters -> data
I0507 04:37:11.055474 31403 net.cpp:409] parameters -> label
I0507 04:37:11.055481 31403 hdf5_data_layer.cpp:79] Loading list of HDF5 filenames from: /home/purduethu/scratch/radon/d/deng106/CNNStatisticalModel/distributions/input/50_distributions_100_sample_size_train-parameters-path.txt
I0507 04:37:11.055495 31403 hdf5_data_layer.cpp:93] Number of HDF5 files: 1
I0507 04:37:11.056040 31403 hdf5.cpp:32] Datatype class: H5T_FLOAT
I0507 04:37:11.218714 31403 net.cpp:144] Setting up parameters
I0507 04:37:11.218746 31403 net.cpp:151] Top shape: 20 1 10 10 (2000)
I0507 04:37:11.218751 31403 net.cpp:151] Top shape: 20 (20)
I0507 04:37:11.218755 31403 net.cpp:159] Memory required for data: 8080
I0507 04:37:11.218760 31403 layer_factory.hpp:77] Creating layer conv1
I0507 04:37:11.218783 31403 net.cpp:94] Creating Layer conv1
I0507 04:37:11.218787 31403 net.cpp:435] conv1 <- data
I0507 04:37:11.218794 31403 net.cpp:409] conv1 -> conv1
I0507 04:37:11.222980 31403 net.cpp:144] Setting up conv1
I0507 04:37:11.222996 31403 net.cpp:151] Top shape: 20 64 10 10 (128000)
I0507 04:37:11.223001 31403 net.cpp:159] Memory required for data: 520080
I0507 04:37:11.223011 31403 layer_factory.hpp:77] Creating layer relu1
I0507 04:37:11.223019 31403 net.cpp:94] Creating Layer relu1
I0507 04:37:11.223022 31403 net.cpp:435] relu1 <- conv1
I0507 04:37:11.223027 31403 net.cpp:396] relu1 -> conv1 (in-place)
I0507 04:37:11.223039 31403 net.cpp:144] Setting up relu1
I0507 04:37:11.223043 31403 net.cpp:151] Top shape: 20 64 10 10 (128000)
I0507 04:37:11.223047 31403 net.cpp:159] Memory required for data: 1032080
I0507 04:37:11.223049 31403 layer_factory.hpp:77] Creating layer conv2
I0507 04:37:11.223057 31403 net.cpp:94] Creating Layer conv2
I0507 04:37:11.223062 31403 net.cpp:435] conv2 <- conv1
I0507 04:37:11.223065 31403 net.cpp:409] conv2 -> conv2
I0507 04:37:11.229116 31403 net.cpp:144] Setting up conv2
I0507 04:37:11.229130 31403 net.cpp:151] Top shape: 20 64 10 10 (128000)
I0507 04:37:11.229135 31403 net.cpp:159] Memory required for data: 1544080
I0507 04:37:11.229142 31403 layer_factory.hpp:77] Creating layer relu2
I0507 04:37:11.229149 31403 net.cpp:94] Creating Layer relu2
I0507 04:37:11.229152 31403 net.cpp:435] relu2 <- conv2
I0507 04:37:11.229157 31403 net.cpp:396] relu2 -> conv2 (in-place)
I0507 04:37:11.229163 31403 net.cpp:144] Setting up relu2
I0507 04:37:11.229168 31403 net.cpp:151] Top shape: 20 64 10 10 (128000)
I0507 04:37:11.229171 31403 net.cpp:159] Memory required for data: 2056080
I0507 04:37:11.229173 31403 layer_factory.hpp:77] Creating layer pool2
I0507 04:37:11.229179 31403 net.cpp:94] Creating Layer pool2
I0507 04:37:11.229182 31403 net.cpp:435] pool2 <- conv2
I0507 04:37:11.229187 31403 net.cpp:409] pool2 -> pool2
I0507 04:37:11.229236 31403 net.cpp:144] Setting up pool2
I0507 04:37:11.229243 31403 net.cpp:151] Top shape: 20 64 5 5 (32000)
I0507 04:37:11.229246 31403 net.cpp:159] Memory required for data: 2184080
I0507 04:37:11.229249 31403 layer_factory.hpp:77] Creating layer conv3
I0507 04:37:11.229257 31403 net.cpp:94] Creating Layer conv3
I0507 04:37:11.229260 31403 net.cpp:435] conv3 <- pool2
I0507 04:37:11.229271 31403 net.cpp:409] conv3 -> conv3
I0507 04:37:11.234123 31403 net.cpp:144] Setting up conv3
I0507 04:37:11.234136 31403 net.cpp:151] Top shape: 20 64 5 5 (32000)
I0507 04:37:11.234140 31403 net.cpp:159] Memory required for data: 2312080
I0507 04:37:11.234148 31403 layer_factory.hpp:77] Creating layer relu3
I0507 04:37:11.234154 31403 net.cpp:94] Creating Layer relu3
I0507 04:37:11.234158 31403 net.cpp:435] relu3 <- conv3
I0507 04:37:11.234161 31403 net.cpp:396] relu3 -> conv3 (in-place)
I0507 04:37:11.234169 31403 net.cpp:144] Setting up relu3
I0507 04:37:11.234172 31403 net.cpp:151] Top shape: 20 64 5 5 (32000)
I0507 04:37:11.234175 31403 net.cpp:159] Memory required for data: 2440080
I0507 04:37:11.234179 31403 layer_factory.hpp:77] Creating layer conv4
I0507 04:37:11.234187 31403 net.cpp:94] Creating Layer conv4
I0507 04:37:11.234190 31403 net.cpp:435] conv4 <- conv3
I0507 04:37:11.234195 31403 net.cpp:409] conv4 -> conv4
I0507 04:37:11.238600 31403 net.cpp:144] Setting up conv4
I0507 04:37:11.238612 31403 net.cpp:151] Top shape: 20 64 5 5 (32000)
I0507 04:37:11.238616 31403 net.cpp:159] Memory required for data: 2568080
I0507 04:37:11.238622 31403 layer_factory.hpp:77] Creating layer relu4
I0507 04:37:11.238627 31403 net.cpp:94] Creating Layer relu4
I0507 04:37:11.238631 31403 net.cpp:435] relu4 <- conv4
I0507 04:37:11.238636 31403 net.cpp:396] relu4 -> conv4 (in-place)
I0507 04:37:11.238642 31403 net.cpp:144] Setting up relu4
I0507 04:37:11.238646 31403 net.cpp:151] Top shape: 20 64 5 5 (32000)
I0507 04:37:11.238649 31403 net.cpp:159] Memory required for data: 2696080
I0507 04:37:11.238652 31403 layer_factory.hpp:77] Creating layer conv5
I0507 04:37:11.238659 31403 net.cpp:94] Creating Layer conv5
I0507 04:37:11.238662 31403 net.cpp:435] conv5 <- conv4
I0507 04:37:11.238667 31403 net.cpp:409] conv5 -> conv5
I0507 04:37:11.243507 31403 net.cpp:144] Setting up conv5
I0507 04:37:11.243520 31403 net.cpp:151] Top shape: 20 64 5 5 (32000)
I0507 04:37:11.243525 31403 net.cpp:159] Memory required for data: 2824080
I0507 04:37:11.243532 31403 layer_factory.hpp:77] Creating layer relu5
I0507 04:37:11.243537 31403 net.cpp:94] Creating Layer relu5
I0507 04:37:11.243541 31403 net.cpp:435] relu5 <- conv5
I0507 04:37:11.243546 31403 net.cpp:396] relu5 -> conv5 (in-place)
I0507 04:37:11.243552 31403 net.cpp:144] Setting up relu5
I0507 04:37:11.243556 31403 net.cpp:151] Top shape: 20 64 5 5 (32000)
I0507 04:37:11.243558 31403 net.cpp:159] Memory required for data: 2952080
I0507 04:37:11.243561 31403 layer_factory.hpp:77] Creating layer pool5
I0507 04:37:11.243566 31403 net.cpp:94] Creating Layer pool5
I0507 04:37:11.243569 31403 net.cpp:435] pool5 <- conv5
I0507 04:37:11.243573 31403 net.cpp:409] pool5 -> pool5
I0507 04:37:11.243608 31403 net.cpp:144] Setting up pool5
I0507 04:37:11.243616 31403 net.cpp:151] Top shape: 20 64 2 2 (5120)
I0507 04:37:11.243619 31403 net.cpp:159] Memory required for data: 2972560
I0507 04:37:11.243623 31403 layer_factory.hpp:77] Creating layer ip1
I0507 04:37:11.243631 31403 net.cpp:94] Creating Layer ip1
I0507 04:37:11.243634 31403 net.cpp:435] ip1 <- pool5
I0507 04:37:11.243639 31403 net.cpp:409] ip1 -> ip1
I0507 04:37:11.244953 31403 net.cpp:144] Setting up ip1
I0507 04:37:11.244966 31403 net.cpp:151] Top shape: 20 64 (1280)
I0507 04:37:11.244971 31403 net.cpp:159] Memory required for data: 2977680
I0507 04:37:11.244976 31403 layer_factory.hpp:77] Creating layer ip2
I0507 04:37:11.244982 31403 net.cpp:94] Creating Layer ip2
I0507 04:37:11.244987 31403 net.cpp:435] ip2 <- ip1
I0507 04:37:11.244992 31403 net.cpp:409] ip2 -> ip2
I0507 04:37:11.245195 31403 net.cpp:144] Setting up ip2
I0507 04:37:11.245203 31403 net.cpp:151] Top shape: 20 64 (1280)
I0507 04:37:11.245206 31403 net.cpp:159] Memory required for data: 2982800
I0507 04:37:11.245211 31403 layer_factory.hpp:77] Creating layer ip3
I0507 04:37:11.245218 31403 net.cpp:94] Creating Layer ip3
I0507 04:37:11.245220 31403 net.cpp:435] ip3 <- ip2
I0507 04:37:11.245225 31403 net.cpp:409] ip3 -> ip3
I0507 04:37:11.245332 31403 net.cpp:144] Setting up ip3
I0507 04:37:11.245338 31403 net.cpp:151] Top shape: 20 1 (20)
I0507 04:37:11.245342 31403 net.cpp:159] Memory required for data: 2982880
I0507 04:37:11.245347 31403 layer_factory.hpp:77] Creating layer loss
I0507 04:37:11.245353 31403 net.cpp:94] Creating Layer loss
I0507 04:37:11.245357 31403 net.cpp:435] loss <- ip3
I0507 04:37:11.245360 31403 net.cpp:435] loss <- label
I0507 04:37:11.245364 31403 net.cpp:409] loss -> loss
I0507 04:37:11.245412 31403 net.cpp:144] Setting up loss
…
I0507 04:37:11.306123 31403 net.cpp:323] The NetState phase (0) differed from the phase (1) specified by a rule in layer intercept
I0507 04:37:11.306138 31403 net.cpp:323] The NetState phase (0) differed from the phase (1) specified by a rule in layer accuracy
I0507 04:37:11.306224 31403 net.cpp:52] Initializing net from parameters: 
state {
  phase: TRAIN
}
layer {
  name: "parameters"
  type: "HDF5Data"
  top: "data"
  top: "label"
  include {
    phase: TRAIN
  }
  hdf5_data_param {
    source: "/home/purduethu/scratch/radon/d/deng106/CNNStatisticalModel/distributions/input/50_distributions_100_sample_size_train-distributions-path.txt"
    batch_size: 20
  }
}
layer {
  name: "conv1"
  type: "Convolution"
  bottom: "data"
  top: "conv1"
  param {
    lr_mult: 1
  }
  param {
    lr_mult: 2
  }
  convolution_param {
    num_output: 64
    pad: 2
    kernel_size: 5
    stride: 1
    weight_filler {
      type: "gaussian"
      std: 0.0001
    }
    bias_filler {
      type: "constant"
    }
  }
}
layer {
  name: "relu1"
  type: "ReLU"
  bottom: "conv1"
  top: "conv1"
}
layer {
  name: "conv2"
  type: "Convolution"
  bottom: "conv1"
  top: "conv2"
  param {
    lr_mult: 1
  }
  param {
    lr_mult: 2
  }
  convolution_param {
    num_output: 64
    pad: 2
    kernel_size: 5
    stride: 1
    weight_filler {
      type: "gaussian"
      std: 0.01
    }
    bias_filler {
      type: "constant"
    }
  }
}
layer {
  name: "relu2"
  type: "ReLU"
  bottom: "conv2"
  top: "conv2"
}
layer {
  name: "pool2"
  type: "Pooling"
  bottom: "conv2"
  top: "pool2"
  pooling_param {
    pool: MAX
    kernel_size: 3
    stride: 2
  }
}
layer {
  name: "conv3"
  type: "Convolution"
  bottom: "pool2"
  top: "conv3"
  param {
    lr_mult: 1
  }
  param {
    lr_mult: 2
  }
  convolution_param {
    num_output: 64
    pad: 2
    kernel_size: 5
    stride: 1
    weight_filler {
      type: "gaussian"
      std: 0.01
    }
    bias_filler {
      type: "constant"
    }
  }
}
layer {
  name: "relu3"
  type: "ReLU"
  bottom: "conv3"
  top: "conv3"
}
layer {
  name: "conv4"
  type: "Convolution"
  bottom: "conv3"
  top: "conv4"
  param {
    lr_mult: 1
  }
  param {
    lr_mult: 2
  }
  convolution_param {
    num_output: 64
    pad: 2
    kernel_size: 5
    stride: 1
    weight_filler {
      type: "gaussian"
      std: 0.01
    }
    bias_filler {
      type: "constant"
    }
  }
}
layer {
  name: "relu4"
  type: "ReLU"
  bottom: "conv4"
  top: "conv4"
}
layer {
  name: "conv5"
  type: "Convolution"
  bottom: "conv4"
  top: "conv5"
  param {
    lr_mult: 1
  }
  param {
    lr_mult: 2
  }
  convolution_param {
    num_output: 64
    pad: 2
    kernel_size: 5
    stride: 1
    weight_filler {
      type: "gaussian"
      std: 0.01
    }
    bias_filler {
      type: "constant"
    }
  }
}
layer {
  name: "relu5"
  type: "ReLU"
  bottom: "conv5"
  top: "conv5"
}
layer {
  name: "pool5"
  type: "Pooling"
  bottom: "conv5"
  top: "pool5"
  pooling_param {
    pool: AVE
    kernel_size: 3
    stride: 2
  }
}
layer {
  name: "ip1"
  type: "InnerProduct"
  bottom: "pool5"
  top: "ip1"
  param {
    lr_mult: 1
  }
  param {
    lr_mult: 2
  }
  inner_product_param {
    num_output: 64
    weight_filler {
      type: "gaussian"
      std: 0.1
    }
    bias_filler {
      type: "constant"
    }
  }
}
layer {
  name: "ip2"
  type: "InnerProduct"
  bottom: "ip1"
  top: "ip2"
  param {
    lr_mult: 1
  }
  param {
    lr_mult: 2
  }
  inner_product_param {
    num_output: 64
    weight_filler {
      type: "gaussian"
      std: 0.1
    }
    bias_filler {
      type: "constant"
    }
  }
}
layer {
  name: "ip3"
  type: "InnerProduct"
  bottom: "ip2"
  top: "ip3"
  param {
    lr_mult: 1
  }
  param {
    lr_mult: 2
  }
  inner_product_param {
    num_output: 50
    weight_filler {
      type: "gaussian"
      std: 0.1
    }
    bias_filler {
      type: "constant"
    }
  }
}
layer {
  name: "loss"
  type: "SoftmaxWithLoss"
  bottom: "ip3"
  bottom: "label"
  top: "loss"
}
I0507 04:37:11.306275 31403 layer_factory.hpp:77] Creating layer parameters
I0507 04:37:11.306282 31403 net.cpp:94] Creating Layer parameters
I0507 04:37:11.306287 31403 net.cpp:409] parameters -> data
I0507 04:37:11.306293 31403 net.cpp:409] parameters -> label
I0507 04:37:11.306298 31403 hdf5_data_layer.cpp:79] Loading list of HDF5 filenames from: /home/purduethu/scratch/radon/d/deng106/CNNStatisticalModel/distributions/input/50_distributions_100_sample_size_train-distributions-path.txt
I0507 04:37:11.306313 31403 hdf5_data_layer.cpp:93] Number of HDF5 files: 1
I0507 04:37:11.462043 31403 hdf5.cpp:35] Datatype class: H5T_INTEGER
I0507 04:37:11.465087 31403 net.cpp:144] Setting up parameters
I0507 04:37:11.465109 31403 net.cpp:151] Top shape: 20 1 10 10 (2000)
I0507 04:37:11.465114 31403 net.cpp:151] Top shape: 20 (20)
I0507 04:37:11.465117 31403 net.cpp:159] Memory required for data: 8080
I0507 04:37:11.465123 31403 layer_factory.hpp:77] Creating layer conv1
I0507 04:37:11.465139 31403 net.cpp:94] Creating Layer conv1
I0507 04:37:11.465143 31403 net.cpp:435] conv1 <- data
I0507 04:37:11.465149 31403 net.cpp:409] conv1 -> conv1
I0507 04:37:11.466889 31403 net.cpp:144] Setting up conv1
I0507 04:37:11.466903 31403 net.cpp:151] Top shape: 20 64 10 10 (128000)
I0507 04:37:11.466907 31403 net.cpp:159] Memory required for data: 520080
I0507 04:37:11.466917 31403 layer_factory.hpp:77] Creating layer relu1
I0507 04:37:11.466923 31403 net.cpp:94] Creating Layer relu1
I0507 04:37:11.466928 31403 net.cpp:435] relu1 <- conv1
I0507 04:37:11.466931 31403 net.cpp:396] relu1 -> conv1 (in-place)
I0507 04:37:11.466938 31403 net.cpp:144] Setting up relu1
I0507 04:37:11.466943 31403 net.cpp:151] Top shape: 20 64 10 10 (128000)
I0507 04:37:11.466945 31403 net.cpp:159] Memory required for data: 1032080
I0507 04:37:11.466948 31403 layer_factory.hpp:77] Creating layer conv2
I0507 04:37:11.466955 31403 net.cpp:94] Creating Layer conv2
I0507 04:37:11.466958 31403 net.cpp:435] conv2 <- conv1
I0507 04:37:11.466964 31403 net.cpp:409] conv2 -> conv2
I0507 04:37:11.472276 31403 net.cpp:144] Setting up conv2
I0507 04:37:11.472290 31403 net.cpp:151] Top shape: 20 64 10 10 (128000)
I0507 04:37:11.472295 31403 net.cpp:159] Memory required for data: 1544080
I0507 04:37:11.472301 31403 layer_factory.hpp:77] Creating layer relu2
I0507 04:37:11.472308 31403 net.cpp:94] Creating Layer relu2
I0507 04:37:11.472311 31403 net.cpp:435] relu2 <- conv2
I0507 04:37:11.472316 31403 net.cpp:396] relu2 -> conv2 (in-place)
I0507 04:37:11.472322 31403 net.cpp:144] Setting up relu2
I0507 04:37:11.472326 31403 net.cpp:151] Top shape: 20 64 10 10 (128000)
I0507 04:37:11.472329 31403 net.cpp:159] Memory required for data: 2056080
I0507 04:37:11.472332 31403 layer_factory.hpp:77] Creating layer pool2
I0507 04:37:11.472338 31403 net.cpp:94] Creating Layer pool2
I0507 04:37:11.472340 31403 net.cpp:435] pool2 <- conv2
I0507 04:37:11.472345 31403 net.cpp:409] pool2 -> pool2
I0507 04:37:11.472393 31403 net.cpp:144] Setting up pool2
I0507 04:37:11.472400 31403 net.cpp:151] Top shape: 20 64 5 5 (32000)
I0507 04:37:11.472404 31403 net.cpp:159] Memory required for data: 2184080
I0507 04:37:11.472406 31403 layer_factory.hpp:77] Creating layer conv3
I0507 04:37:11.472414 31403 net.cpp:94] Creating Layer conv3
I0507 04:37:11.472417 31403 net.cpp:435] conv3 <- pool2
I0507 04:37:11.472422 31403 net.cpp:409] conv3 -> conv3
I0507 04:37:11.478163 31403 net.cpp:144] Setting up conv3
I0507 04:37:11.478178 31403 net.cpp:151] Top shape: 20 64 5 5 (32000)
I0507 04:37:11.478181 31403 net.cpp:159] Memory required for data: 2312080
I0507 04:37:11.478189 31403 layer_factory.hpp:77] Creating layer relu3
I0507 04:37:11.478194 31403 net.cpp:94] Creating Layer relu3
I0507 04:37:11.478199 31403 net.cpp:435] relu3 <- conv3
I0507 04:37:11.478202 31403 net.cpp:396] relu3 -> conv3 (in-place)
I0507 04:37:11.478209 31403 net.cpp:144] Setting up relu3
I0507 04:37:11.478214 31403 net.cpp:151] Top shape: 20 64 5 5 (32000)
I0507 04:37:11.478221 31403 net.cpp:159] Memory required for data: 2440080
I0507 04:37:11.478225 31403 layer_factory.hpp:77] Creating layer conv4
I0507 04:37:11.478235 31403 net.cpp:94] Creating Layer conv4
I0507 04:37:11.478237 31403 net.cpp:435] conv4 <- conv3
I0507 04:37:11.478242 31403 net.cpp:409] conv4 -> conv4
I0507 04:37:11.483124 31403 net.cpp:144] Setting up conv4
I0507 04:37:11.483137 31403 net.cpp:151] Top shape: 20 64 5 5 (32000)
I0507 04:37:11.483141 31403 net.cpp:159] Memory required for data: 2568080
I0507 04:37:11.483147 31403 layer_factory.hpp:77] Creating layer relu4
I0507 04:37:11.483152 31403 net.cpp:94] Creating Layer relu4
I0507 04:37:11.483155 31403 net.cpp:435] relu4 <- conv4
I0507 04:37:11.483160 31403 net.cpp:396] relu4 -> conv4 (in-place)
I0507 04:37:11.483167 31403 net.cpp:144] Setting up relu4
I0507 04:37:11.483171 31403 net.cpp:151] Top shape: 20 64 5 5 (32000)
I0507 04:37:11.483175 31403 net.cpp:159] Memory required for data: 2696080
I0507 04:37:11.483176 31403 layer_factory.hpp:77] Creating layer conv5
I0507 04:37:11.483184 31403 net.cpp:94] Creating Layer conv5
I0507 04:37:11.483187 31403 net.cpp:435] conv5 <- conv4
I0507 04:37:11.483192 31403 net.cpp:409] conv5 -> conv5
I0507 04:37:11.487608 31403 net.cpp:144] Setting up conv5
I0507 04:37:11.487622 31403 net.cpp:151] Top shape: 20 64 5 5 (32000)
I0507 04:37:11.487624 31403 net.cpp:159] Memory required for data: 2824080
I0507 04:37:11.487632 31403 layer_factory.hpp:77] Creating layer relu5
I0507 04:37:11.487638 31403 net.cpp:94] Creating Layer relu5
I0507 04:37:11.487642 31403 net.cpp:435] relu5 <- conv5
I0507 04:37:11.487646 31403 net.cpp:396] relu5 -> conv5 (in-place)
I0507 04:37:11.487653 31403 net.cpp:144] Setting up relu5
I0507 04:37:11.487656 31403 net.cpp:151] Top shape: 20 64 5 5 (32000)
I0507 04:37:11.487659 31403 net.cpp:159] Memory required for data: 2952080
I0507 04:37:11.487663 31403 layer_factory.hpp:77] Creating layer pool5
I0507 04:37:11.487668 31403 net.cpp:94] Creating Layer pool5
I0507 04:37:11.487670 31403 net.cpp:435] pool5 <- conv5
I0507 04:37:11.487674 31403 net.cpp:409] pool5 -> pool5
I0507 04:37:11.487707 31403 net.cpp:144] Setting up pool5
I0507 04:37:11.487715 31403 net.cpp:151] Top shape: 20 64 2 2 (5120)
I0507 04:37:11.487717 31403 net.cpp:159] Memory required for data: 2972560
I0507 04:37:11.487720 31403 layer_factory.hpp:77] Creating layer ip1
I0507 04:37:11.487727 31403 net.cpp:94] Creating Layer ip1
I0507 04:37:11.487730 31403 net.cpp:435] ip1 <- pool5
I0507 04:37:11.487735 31403 net.cpp:409] ip1 -> ip1
I0507 04:37:11.488241 31403 net.cpp:144] Setting up ip1
I0507 04:37:11.488250 31403 net.cpp:151] Top shape: 20 64 (1280)
I0507 04:37:11.488252 31403 net.cpp:159] Memory required for data: 2977680
I0507 04:37:11.488257 31403 layer_factory.hpp:77] Creating layer ip2
I0507 04:37:11.488263 31403 net.cpp:94] Creating Layer ip2
I0507 04:37:11.488266 31403 net.cpp:435] ip2 <- ip1
I0507 04:37:11.488271 31403 net.cpp:409] ip2 -> ip2
I0507 04:37:11.488484 31403 net.cpp:144] Setting up ip2
I0507 04:37:11.488492 31403 net.cpp:151] Top shape: 20 64 (1280)
I0507 04:37:11.488494 31403 net.cpp:159] Memory required for data: 2982800
I0507 04:37:11.488499 31403 layer_factory.hpp:77] Creating layer ip3
I0507 04:37:11.488504 31403 net.cpp:94] Creating Layer ip3
I0507 04:37:11.488507 31403 net.cpp:435] ip3 <- ip2
I0507 04:37:11.488512 31403 net.cpp:409] ip3 -> ip3
I0507 04:37:11.488713 31403 net.cpp:144] Setting up ip3
I0507 04:37:11.488721 31403 net.cpp:151] Top shape: 20 50 (1000)
I0507 04:37:11.488724 31403 net.cpp:159] Memory required for data: 2986800
I0507 04:37:11.488729 31403 layer_factory.hpp:77] Creating layer loss
I0507 04:37:11.488736 31403 net.cpp:94] Creating Layer loss
I0507 04:37:11.488739 31403 net.cpp:435] loss <- ip3
I0507 04:37:11.488742 31403 net.cpp:435] loss <- label
I0507 04:37:11.488746 31403 net.cpp:409] loss -> loss
I0507 04:37:11.488754 31403 layer_factory.hpp:77] Creating layer loss
…
I0507 04:37:11.490082 31403 solver.cpp:181] Creating test net (#0) specified by net file: ./protocol/dis_50_100_dimension.protocol_distribution
I0507 04:37:11.490108 31403 net.cpp:323] The NetState phase (1) differed from the phase (0) specified by a rule in layer parameters
I0507 04:37:11.490205 31403 net.cpp:52] Initializing net from parameters: 
state {
  phase: TEST
}
layer {
  name: "intercept"
  type: "HDF5Data"
  top: "data"
  top: "label"
  include {
    phase: TEST
  }
  hdf5_data_param {
    source: "/home/purduethu/scratch/radon/d/deng106/CNNStatisticalModel/distributions/input/50_distributions_100_sample_size_test-distributions-path.txt"
    batch_size: 20
  }
}
layer {
  name: "conv1"
  type: "Convolution"
  bottom: "data"
  top: "conv1"
  param {
    lr_mult: 1
  }
  param {
    lr_mult: 2
  }
  convolution_param {
    num_output: 64
    pad: 2
    kernel_size: 5
    stride: 1
    weight_filler {
      type: "gaussian"
      std: 0.0001
    }
    bias_filler {
      type: "constant"
    }
  }
}
layer {
  name: "relu1"
  type: "ReLU"
  bottom: "conv1"
  top: "conv1"
}
layer {
  name: "conv2"
  type: "Convolution"
  bottom: "conv1"
  top: "conv2"
  param {
    lr_mult: 1
  }
  param {
    lr_mult: 2
  }
  convolution_param {
    num_output: 64
    pad: 2
    kernel_size: 5
    stride: 1
    weight_filler {
      type: "gaussian"
      std: 0.01
    }
    bias_filler {
      type: "constant"
    }
  }
}
layer {
  name: "relu2"
  type: "ReLU"
  bottom: "conv2"
  top: "conv2"
}
layer {
  name: "pool2"
  type: "Pooling"
  bottom: "conv2"
  top: "pool2"
  pooling_param {
    pool: MAX
    kernel_size: 3
    stride: 2
  }
}
layer {
  name: "conv3"
  type: "Convolution"
  bottom: "pool2"
  top: "conv3"
  param {
    lr_mult: 1
  }
  param {
    lr_mult: 2
  }
  convolution_param {
    num_output: 64
    pad: 2
    kernel_size: 5
    stride: 1
    weight_filler {
      type: "gaussian"
      std: 0.01
    }
    bias_filler {
      type: "constant"
    }
  }
}
layer {
  name: "relu3"
  type: "ReLU"
  bottom: "conv3"
  top: "conv3"
}
layer {
  name: "conv4"
  type: "Convolution"
  bottom: "conv3"
  top: "conv4"
  param {
    lr_mult: 1
  }
  param {
    lr_mult: 2
  }
  convolution_param {
    num_output: 64
    pad: 2
    kernel_size: 5
    stride: 1
    weight_filler {
      type: "gaussian"
      std: 0.01
    }
    bias_filler {
      type: "constant"
    }
  }
}
layer {
  name: "relu4"
  type: "ReLU"
  bottom: "conv4"
  top: "conv4"
}
layer {
  name: "conv5"
  type: "Convolution"
  bottom: "conv4"
  top: "conv5"
  param {
    lr_mult: 1
  }
  param {
    lr_mult: 2
  }
  convolution_param {
    num_output: 64
    pad: 2
    kernel_size: 5
    stride: 1
    weight_filler {
      type: "gaussian"
      std: 0.01
    }
    bias_filler {
      type: "constant"
    }
  }
}
layer {
  name: "relu5"
  type: "ReLU"
  bottom: "conv5"
  top: "conv5"
}
layer {
  name: "pool5"
  type: "Pooling"
  bottom: "conv5"
  top: "pool5"
  pooling_param {
    pool: AVE
    kernel_size: 3
    stride: 2
  }
}
layer {
  name: "ip1"
  type: "InnerProduct"
  bottom: "pool5"
  top: "ip1"
  param {
    lr_mult: 1
  }
  param {
    lr_mult: 2
  }
  inner_product_param {
    num_output: 64
    weight_filler {
      type: "gaussian"
      std: 0.1
    }
    bias_filler {
      type: "constant"
    }
  }
}
layer {
  name: "ip2"
  type: "InnerProduct"
  bottom: "ip1"
  top: "ip2"
  param {
    lr_mult: 1
  }
  param {
    lr_mult: 2
  }
  inner_product_param {
    num_output: 64
    weight_filler {
      type: "gaussian"
      std: 0.1
    }
    bias_filler {
      type: "constant"
    }
  }
}
layer {
  name: "ip3"
  type: "InnerProduct"
  bottom: "ip2"
  top: "ip3"
  param {
    lr_mult: 1
  }
  param {
    lr_mult: 2
  }
  inner_product_param {
    num_output: 50
    weight_filler {
      type: "gaussian"
      std: 0.1
    }
    bias_filler {
      type: "constant"
    }
  }
}
layer {
  name: "accuracy"
  type: "Accuracy"
  bottom: "ip3"
  bottom: "label"
  top: "accuracy"
  include {
    phase: TEST
  }
}
layer {
  name: "loss"
  type: "SoftmaxWithLoss"
  bottom: "ip3"
  bottom: "label"
  top: "loss"
}
I0507 04:37:11.490268 31403 layer_factory.hpp:77] Creating layer intercept
I0507 04:37:11.490276 31403 net.cpp:94] Creating Layer intercept
I0507 04:37:11.490280 31403 net.cpp:409] intercept -> data
I0507 04:37:11.490288 31403 net.cpp:409] intercept -> label
I0507 04:37:11.490293 31403 hdf5_data_layer.cpp:79] Loading list of HDF5 filenames from: /home/purduethu/scratch/radon/d/deng106/CNNStatisticalModel/distributions/input/50_distributions_100_sample_size_test-distributions-path.txt
I0507 04:37:11.490311 31403 hdf5_data_layer.cpp:93] Number of HDF5 files: 1
I0507 04:37:11.531477 31403 net.cpp:144] Setting up intercept
I0507 04:37:11.531510 31403 net.cpp:151] Top shape: 20 1 10 10 (2000)
I0507 04:37:11.531515 31403 net.cpp:151] Top shape: 20 (20)
I0507 04:37:11.531518 31403 net.cpp:159] Memory required for data: 8080
I0507 04:37:11.531524 31403 layer_factory.hpp:77] Creating layer label_intercept_1_split
I0507 04:37:11.531543 31403 net.cpp:94] Creating Layer label_intercept_1_split
I0507 04:37:11.531548 31403 net.cpp:435] label_intercept_1_split <- label
I0507 04:37:11.531554 31403 net.cpp:409] label_intercept_1_split -> label_intercept_1_split_0
I0507 04:37:11.531563 31403 net.cpp:409] label_intercept_1_split -> label_intercept_1_split_1
I0507 04:37:11.531602 31403 net.cpp:144] Setting up label_intercept_1_split
I0507 04:37:11.531610 31403 net.cpp:151] Top shape: 20 (20)
I0507 04:37:11.531613 31403 net.cpp:151] Top shape: 20 (20)
I0507 04:37:11.531615 31403 net.cpp:159] Memory required for data: 8240
I0507 04:37:11.531618 31403 layer_factory.hpp:77] Creating layer conv1
I0507 04:37:11.531630 31403 net.cpp:94] Creating Layer conv1
I0507 04:37:11.531633 31403 net.cpp:435] conv1 <- data
I0507 04:37:11.531637 31403 net.cpp:409] conv1 -> conv1
I0507 04:37:11.532456 31403 net.cpp:144] Setting up conv1
I0507 04:37:11.532469 31403 net.cpp:151] Top shape: 20 64 10 10 (128000)
I0507 04:37:11.532472 31403 net.cpp:159] Memory required for data: 520240
I0507 04:37:11.532482 31403 layer_factory.hpp:77] Creating layer relu1
I0507 04:37:11.532490 31403 net.cpp:94] Creating Layer relu1
I0507 04:37:11.532492 31403 net.cpp:435] relu1 <- conv1
I0507 04:37:11.532496 31403 net.cpp:396] relu1 -> conv1 (in-place)
I0507 04:37:11.532503 31403 net.cpp:144] Setting up relu1
I0507 04:37:11.532507 31403 net.cpp:151] Top shape: 20 64 10 10 (128000)
I0507 04:37:11.532510 31403 net.cpp:159] Memory required for data: 1032240
I0507 04:37:11.532521 31403 layer_factory.hpp:77] Creating layer conv2
I0507 04:37:11.532528 31403 net.cpp:94] Creating Layer conv2
I0507 04:37:11.532532 31403 net.cpp:435] conv2 <- conv1
I0507 04:37:11.532536 31403 net.cpp:409] conv2 -> conv2
I0507 04:37:11.536599 31403 net.cpp:144] Setting up conv2
I0507 04:37:11.536612 31403 net.cpp:151] Top shape: 20 64 10 10 (128000)
I0507 04:37:11.536617 31403 net.cpp:159] Memory required for data: 1544240
I0507 04:37:11.536623 31403 layer_factory.hpp:77] Creating layer relu2
I0507 04:37:11.536629 31403 net.cpp:94] Creating Layer relu2
I0507 04:37:11.536633 31403 net.cpp:435] relu2 <- conv2
I0507 04:37:11.536638 31403 net.cpp:396] relu2 -> conv2 (in-place)
I0507 04:37:11.536644 31403 net.cpp:144] Setting up relu2
I0507 04:37:11.536648 31403 net.cpp:151] Top shape: 20 64 10 10 (128000)
I0507 04:37:11.536651 31403 net.cpp:159] Memory required for data: 2056240
I0507 04:37:11.536654 31403 layer_factory.hpp:77] Creating layer pool2
I0507 04:37:11.536660 31403 net.cpp:94] Creating Layer pool2
I0507 04:37:11.536664 31403 net.cpp:435] pool2 <- conv2
I0507 04:37:11.536667 31403 net.cpp:409] pool2 -> pool2
I0507 04:37:11.536720 31403 net.cpp:144] Setting up pool2
I0507 04:37:11.536726 31403 net.cpp:151] Top shape: 20 64 5 5 (32000)
I0507 04:37:11.536730 31403 net.cpp:159] Memory required for data: 2184240
I0507 04:37:11.536732 31403 layer_factory.hpp:77] Creating layer conv3
I0507 04:37:11.536741 31403 net.cpp:94] Creating Layer conv3
I0507 04:37:11.536744 31403 net.cpp:435] conv3 <- pool2
I0507 04:37:11.536749 31403 net.cpp:409] conv3 -> conv3
I0507 04:37:11.541100 31403 net.cpp:144] Setting up conv3
I0507 04:37:11.541115 31403 net.cpp:151] Top shape: 20 64 5 5 (32000)
I0507 04:37:11.541117 31403 net.cpp:159] Memory required for data: 2312240
I0507 04:37:11.541126 31403 layer_factory.hpp:77] Creating layer relu3
I0507 04:37:11.541133 31403 net.cpp:94] Creating Layer relu3
I0507 04:37:11.541136 31403 net.cpp:435] relu3 <- conv3
I0507 04:37:11.541141 31403 net.cpp:396] relu3 -> conv3 (in-place)
I0507 04:37:11.541147 31403 net.cpp:144] Setting up relu3
I0507 04:37:11.541152 31403 net.cpp:151] Top shape: 20 64 5 5 (32000)
I0507 04:37:11.541154 31403 net.cpp:159] Memory required for data: 2440240
I0507 04:37:11.541157 31403 layer_factory.hpp:77] Creating layer conv4
I0507 04:37:11.541165 31403 net.cpp:94] Creating Layer conv4
I0507 04:37:11.541169 31403 net.cpp:435] conv4 <- conv3
I0507 04:37:11.541174 31403 net.cpp:409] conv4 -> conv4
I0507 04:37:11.544667 31403 net.cpp:144] Setting up conv4
I0507 04:37:11.544680 31403 net.cpp:151] Top shape: 20 64 5 5 (32000)
I0507 04:37:11.544684 31403 net.cpp:159] Memory required for data: 2568240
I0507 04:37:11.544689 31403 layer_factory.hpp:77] Creating layer relu4
I0507 04:37:11.544695 31403 net.cpp:94] Creating Layer relu4
I0507 04:37:11.544698 31403 net.cpp:435] relu4 <- conv4
I0507 04:37:11.544703 31403 net.cpp:396] relu4 -> conv4 (in-place)
I0507 04:37:11.544708 31403 net.cpp:144] Setting up relu4
I0507 04:37:11.544713 31403 net.cpp:151] Top shape: 20 64 5 5 (32000)
I0507 04:37:11.544715 31403 net.cpp:159] Memory required for data: 2696240
I0507 04:37:11.544718 31403 layer_factory.hpp:77] Creating layer conv5
I0507 04:37:11.544726 31403 net.cpp:94] Creating Layer conv5
I0507 04:37:11.544729 31403 net.cpp:435] conv5 <- conv4
I0507 04:37:11.544735 31403 net.cpp:409] conv5 -> conv5
I0507 04:37:11.548763 31403 net.cpp:144] Setting up conv5
I0507 04:37:11.548776 31403 net.cpp:151] Top shape: 20 64 5 5 (32000)
I0507 04:37:11.548780 31403 net.cpp:159] Memory required for data: 2824240
I0507 04:37:11.548789 31403 layer_factory.hpp:77] Creating layer relu5
I0507 04:37:11.548794 31403 net.cpp:94] Creating Layer relu5
I0507 04:37:11.548799 31403 net.cpp:435] relu5 <- conv5
I0507 04:37:11.548802 31403 net.cpp:396] relu5 -> conv5 (in-place)
I0507 04:37:11.548809 31403 net.cpp:144] Setting up relu5
I0507 04:37:11.548812 31403 net.cpp:151] Top shape: 20 64 5 5 (32000)
I0507 04:37:11.548815 31403 net.cpp:159] Memory required for data: 2952240
I0507 04:37:11.548821 31403 layer_factory.hpp:77] Creating layer pool5
I0507 04:37:11.548828 31403 net.cpp:94] Creating Layer pool5
I0507 04:37:11.548831 31403 net.cpp:435] pool5 <- conv5
I0507 04:37:11.548835 31403 net.cpp:409] pool5 -> pool5
I0507 04:37:11.548871 31403 net.cpp:144] Setting up pool5
I0507 04:37:11.548878 31403 net.cpp:151] Top shape: 20 64 2 2 (5120)
I0507 04:37:11.548882 31403 net.cpp:159] Memory required for data: 2972720
I0507 04:37:11.548884 31403 layer_factory.hpp:77] Creating layer ip1
I0507 04:37:11.548892 31403 net.cpp:94] Creating Layer ip1
I0507 04:37:11.548894 31403 net.cpp:435] ip1 <- pool5
I0507 04:37:11.548899 31403 net.cpp:409] ip1 -> ip1
I0507 04:37:11.549417 31403 net.cpp:144] Setting up ip1
I0507 04:37:11.549424 31403 net.cpp:151] Top shape: 20 64 (1280)
I0507 04:37:11.549427 31403 net.cpp:159] Memory required for data: 2977840
I0507 04:37:11.549432 31403 layer_factory.hpp:77] Creating layer ip2
I0507 04:37:11.549438 31403 net.cpp:94] Creating Layer ip2
I0507 04:37:11.549441 31403 net.cpp:435] ip2 <- ip1
I0507 04:37:11.549445 31403 net.cpp:409] ip2 -> ip2
I0507 04:37:11.549664 31403 net.cpp:144] Setting up ip2
I0507 04:37:11.549671 31403 net.cpp:151] Top shape: 20 64 (1280)
I0507 04:37:11.549674 31403 net.cpp:159] Memory required for data: 2982960
I0507 04:37:11.549679 31403 layer_factory.hpp:77] Creating layer ip3
I0507 04:37:11.549686 31403 net.cpp:94] Creating Layer ip3
I0507 04:37:11.549690 31403 net.cpp:435] ip3 <- ip2
I0507 04:37:11.549695 31403 net.cpp:409] ip3 -> ip3
I0507 04:37:11.549883 31403 net.cpp:144] Setting up ip3
I0507 04:37:11.549890 31403 net.cpp:151] Top shape: 20 50 (1000)
I0507 04:37:11.549893 31403 net.cpp:159] Memory required for data: 2986960
I0507 04:37:11.549898 31403 layer_factory.hpp:77] Creating layer ip3_ip3_0_split
I0507 04:37:11.549903 31403 net.cpp:94] Creating Layer ip3_ip3_0_split
I0507 04:37:11.549906 31403 net.cpp:435] ip3_ip3_0_split <- ip3
I0507 04:37:11.549911 31403 net.cpp:409] ip3_ip3_0_split -> ip3_ip3_0_split_0
I0507 04:37:11.549914 31403 net.cpp:409] ip3_ip3_0_split -> ip3_ip3_0_split_1
I0507 04:37:11.549952 31403 net.cpp:144] Setting up ip3_ip3_0_split
I0507 04:37:11.549958 31403 net.cpp:151] Top shape: 20 50 (1000)
I0507 04:37:11.549962 31403 net.cpp:151] Top shape: 20 50 (1000)
I0507 04:37:11.549964 31403 net.cpp:159] Memory required for data: 2994960
I0507 04:37:11.549968 31403 layer_factory.hpp:77] Creating layer accuracy
I0507 04:37:11.549973 31403 net.cpp:94] Creating Layer accuracy
I0507 04:37:11.549975 31403 net.cpp:435] accuracy <- ip3_ip3_0_split_0
I0507 04:37:11.549978 31403 net.cpp:435] accuracy <- label_intercept_1_split_0
I0507 04:37:11.549983 31403 net.cpp:409] accuracy -> accuracy
…
