…
I0506 12:51:59.011581 21512 net.cpp:323] The NetState phase (0) differed from the phase (1) specified by a rule in layer intercept
I0506 12:51:59.011600 21512 net.cpp:323] The NetState phase (0) differed from the phase (1) specified by a rule in layer loss
I0506 12:51:59.011685 21512 net.cpp:52] Initializing net from parameters: 
state {
  phase: TRAIN
}
layer {
  name: "parameters"
  type: "HDF5Data"
  top: "data"
  top: "label"
  include {
    phase: TRAIN
  }
  hdf5_data_param {
    source: "/home/purduethu/scratch/radon/d/deng106/CNNStatisticalModel/distributions/input/50_distributions_100_sample_size_train-parameters-path.txt"
    batch_size: 20
  }
}
layer {
  name: "conv1"
  type: "Convolution"
  bottom: "data"
  top: "conv1"
  param {
    lr_mult: 1
  }
  param {
    lr_mult: 2
  }
  convolution_param {
    num_output: 64
    pad: 2
    kernel_size: 5
    stride: 1
    weight_filler {
      type: "gaussian"
      std: 0.0001
    }
    bias_filler {
      type: "constant"
    }
  }
}
layer {
  name: "relu1"
  type: "ReLU"
  bottom: "conv1"
  top: "conv1"
}
layer {
  name: "conv2"
  type: "Convolution"
  bottom: "conv1"
  top: "conv2"
  param {
    lr_mult: 1
  }
  param {
    lr_mult: 2
  }
  convolution_param {
    num_output: 64
    pad: 2
    kernel_size: 5
    stride: 1
    weight_filler {
      type: "gaussian"
      std: 0.01
    }
    bias_filler {
      type: "constant"
    }
  }
}
layer {
  name: "relu2"
  type: "ReLU"
  bottom: "conv2"
  top: "conv2"
}
layer {
  name: "pool2"
  type: "Pooling"
  bottom: "conv2"
  top: "pool2"
  pooling_param {
    pool: MAX
    kernel_size: 3
    stride: 2
  }
}
layer {
  name: "conv3"
  type: "Convolution"
  bottom: "pool2"
  top: "conv3"
  param {
    lr_mult: 1
  }
  param {
    lr_mult: 2
  }
  convolution_param {
    num_output: 128
    pad: 2
    kernel_size: 5
    stride: 1
    weight_filler {
      type: "gaussian"
      std: 0.01
    }
    bias_filler {
      type: "constant"
    }
  }
}
layer {
  name: "relu3"
  type: "ReLU"
  bottom: "conv3"
  top: "conv3"
}
layer {
  name: "conv4"
  type: "Convolution"
  bottom: "conv3"
  top: "conv4"
  param {
    lr_mult: 1
  }
  param {
    lr_mult: 2
  }
  convolution_param {
    num_output: 128
    pad: 2
    kernel_size: 5
    stride: 1
    weight_filler {
      type: "gaussian"
      std: 0.01
    }
    bias_filler {
      type: "constant"
    }
  }
}
layer {
  name: "relu4"
  type: "ReLU"
  bottom: "conv4"
  top: "conv4"
}
layer {
  name: "conv5"
  type: "Convolution"
  bottom: "conv4"
  top: "conv5"
  param {
    lr_mult: 1
  }
  param {
    lr_mult: 2
  }
  convolution_param {
    num_output: 128
    pad: 2
    kernel_size: 5
    stride: 1
    weight_filler {
      type: "gaussian"
      std: 0.01
    }
    bias_filler {
      type: "constant"
    }
  }
}
layer {
  name: "relu5"
  type: "ReLU"
  bottom: "conv5"
  top: "conv5"
}
layer {
  name: "pool5"
  type: "Pooling"
  bottom: "conv5"
  top: "pool5"
  pooling_param {
    pool: AVE
    kernel_size: 3
    stride: 2
  }
}
layer {
  name: "ip1"
  type: "InnerProduct"
  bottom: "pool5"
  top: "ip1"
  param {
    lr_mult: 1
  }
  param {
    lr_mult: 2
  }
  inner_product_param {
    num_output: 1024
    weight_filler {
      type: "gaussian"
      std: 0.1
    }
    bias_filler {
      type: "constant"
    }
  }
}
layer {
  name: "ip2"
  type: "InnerProduct"
  bottom: "ip1"
  top: "ip2"
  param {
    lr_mult: 1
  }
  param {
    lr_mult: 2
  }
  inner_product_param {
    num_output: 512
    weight_filler {
      type: "gaussian"
      std: 0.1
    }
    bias_filler {
      type: "constant"
    }
  }
}
layer {
  name: "ip3"
  type: "InnerProduct"
  bottom: "ip2"
  top: "ip3"
  param {
    lr_mult: 1
  }
  param {
    lr_mult: 2
  }
  inner_product_param {
    num_output: 1
    weight_filler {
      type: "gaussian"
      std: 0.1
    }
    bias_filler {
      type: "constant"
    }
  }
}
layer {
  name: "loss"
  type: "HuberLoss"
  bottom: "ip3"
  bottom: "label"
  top: "loss"
  include {
    phase: TRAIN
  }
}
I0506 12:51:59.011744 21512 layer_factory.hpp:77] Creating layer parameters
I0506 12:51:59.011759 21512 net.cpp:94] Creating Layer parameters
I0506 12:51:59.011764 21512 net.cpp:409] parameters -> data
I0506 12:51:59.011772 21512 net.cpp:409] parameters -> label
I0506 12:51:59.011780 21512 hdf5_data_layer.cpp:79] Loading list of HDF5 filenames from: /home/purduethu/scratch/radon/d/deng106/CNNStatisticalModel/distributions/input/50_distributions_100_sample_size_train-parameters-path.txt
I0506 12:51:59.011795 21512 hdf5_data_layer.cpp:93] Number of HDF5 files: 1
I0506 12:51:59.012377 21512 hdf5.cpp:32] Datatype class: H5T_FLOAT
I0506 12:51:59.179102 21512 net.cpp:144] Setting up parameters
I0506 12:51:59.179134 21512 net.cpp:151] Top shape: 20 1 10 10 (2000)
I0506 12:51:59.179139 21512 net.cpp:151] Top shape: 20 (20)
I0506 12:51:59.179143 21512 net.cpp:159] Memory required for data: 8080
I0506 12:51:59.179149 21512 layer_factory.hpp:77] Creating layer conv1
I0506 12:51:59.179172 21512 net.cpp:94] Creating Layer conv1
I0506 12:51:59.179177 21512 net.cpp:435] conv1 <- data
I0506 12:51:59.179183 21512 net.cpp:409] conv1 -> conv1
I0506 12:51:59.183419 21512 net.cpp:144] Setting up conv1
I0506 12:51:59.183439 21512 net.cpp:151] Top shape: 20 64 10 10 (128000)
I0506 12:51:59.183442 21512 net.cpp:159] Memory required for data: 520080
I0506 12:51:59.183452 21512 layer_factory.hpp:77] Creating layer relu1
I0506 12:51:59.183461 21512 net.cpp:94] Creating Layer relu1
I0506 12:51:59.183465 21512 net.cpp:435] relu1 <- conv1
I0506 12:51:59.183470 21512 net.cpp:396] relu1 -> conv1 (in-place)
I0506 12:51:59.183485 21512 net.cpp:144] Setting up relu1
I0506 12:51:59.183490 21512 net.cpp:151] Top shape: 20 64 10 10 (128000)
I0506 12:51:59.183492 21512 net.cpp:159] Memory required for data: 1032080
I0506 12:51:59.183496 21512 layer_factory.hpp:77] Creating layer conv2
I0506 12:51:59.183504 21512 net.cpp:94] Creating Layer conv2
I0506 12:51:59.183508 21512 net.cpp:435] conv2 <- conv1
I0506 12:51:59.183513 21512 net.cpp:409] conv2 -> conv2
I0506 12:51:59.189749 21512 net.cpp:144] Setting up conv2
I0506 12:51:59.189764 21512 net.cpp:151] Top shape: 20 64 10 10 (128000)
I0506 12:51:59.189767 21512 net.cpp:159] Memory required for data: 1544080
I0506 12:51:59.189775 21512 layer_factory.hpp:77] Creating layer relu2
I0506 12:51:59.189782 21512 net.cpp:94] Creating Layer relu2
I0506 12:51:59.189786 21512 net.cpp:435] relu2 <- conv2
I0506 12:51:59.189790 21512 net.cpp:396] relu2 -> conv2 (in-place)
I0506 12:51:59.189798 21512 net.cpp:144] Setting up relu2
I0506 12:51:59.189802 21512 net.cpp:151] Top shape: 20 64 10 10 (128000)
I0506 12:51:59.189805 21512 net.cpp:159] Memory required for data: 2056080
I0506 12:51:59.189808 21512 layer_factory.hpp:77] Creating layer pool2
I0506 12:51:59.189815 21512 net.cpp:94] Creating Layer pool2
I0506 12:51:59.189817 21512 net.cpp:435] pool2 <- conv2
I0506 12:51:59.189821 21512 net.cpp:409] pool2 -> pool2
I0506 12:51:59.189874 21512 net.cpp:144] Setting up pool2
I0506 12:51:59.189882 21512 net.cpp:151] Top shape: 20 64 5 5 (32000)
I0506 12:51:59.189885 21512 net.cpp:159] Memory required for data: 2184080
I0506 12:51:59.189888 21512 layer_factory.hpp:77] Creating layer conv3
I0506 12:51:59.189896 21512 net.cpp:94] Creating Layer conv3
I0506 12:51:59.189906 21512 net.cpp:435] conv3 <- pool2
I0506 12:51:59.189911 21512 net.cpp:409] conv3 -> conv3
I0506 12:51:59.198317 21512 net.cpp:144] Setting up conv3
I0506 12:51:59.198330 21512 net.cpp:151] Top shape: 20 128 5 5 (64000)
I0506 12:51:59.198334 21512 net.cpp:159] Memory required for data: 2440080
I0506 12:51:59.198343 21512 layer_factory.hpp:77] Creating layer relu3
I0506 12:51:59.198348 21512 net.cpp:94] Creating Layer relu3
I0506 12:51:59.198351 21512 net.cpp:435] relu3 <- conv3
I0506 12:51:59.198356 21512 net.cpp:396] relu3 -> conv3 (in-place)
I0506 12:51:59.198364 21512 net.cpp:144] Setting up relu3
I0506 12:51:59.198367 21512 net.cpp:151] Top shape: 20 128 5 5 (64000)
I0506 12:51:59.198370 21512 net.cpp:159] Memory required for data: 2696080
I0506 12:51:59.198374 21512 layer_factory.hpp:77] Creating layer conv4
I0506 12:51:59.198382 21512 net.cpp:94] Creating Layer conv4
I0506 12:51:59.198385 21512 net.cpp:435] conv4 <- conv3
I0506 12:51:59.198390 21512 net.cpp:409] conv4 -> conv4
I0506 12:51:59.213630 21512 net.cpp:144] Setting up conv4
I0506 12:51:59.213647 21512 net.cpp:151] Top shape: 20 128 5 5 (64000)
I0506 12:51:59.213651 21512 net.cpp:159] Memory required for data: 2952080
I0506 12:51:59.213657 21512 layer_factory.hpp:77] Creating layer relu4
I0506 12:51:59.213663 21512 net.cpp:94] Creating Layer relu4
I0506 12:51:59.213667 21512 net.cpp:435] relu4 <- conv4
I0506 12:51:59.213672 21512 net.cpp:396] relu4 -> conv4 (in-place)
I0506 12:51:59.213680 21512 net.cpp:144] Setting up relu4
I0506 12:51:59.213685 21512 net.cpp:151] Top shape: 20 128 5 5 (64000)
I0506 12:51:59.213686 21512 net.cpp:159] Memory required for data: 3208080
I0506 12:51:59.213690 21512 layer_factory.hpp:77] Creating layer conv5
I0506 12:51:59.213697 21512 net.cpp:94] Creating Layer conv5
I0506 12:51:59.213701 21512 net.cpp:435] conv5 <- conv4
I0506 12:51:59.213706 21512 net.cpp:409] conv5 -> conv5
I0506 12:51:59.228610 21512 net.cpp:144] Setting up conv5
I0506 12:51:59.228626 21512 net.cpp:151] Top shape: 20 128 5 5 (64000)
I0506 12:51:59.228631 21512 net.cpp:159] Memory required for data: 3464080
I0506 12:51:59.228639 21512 layer_factory.hpp:77] Creating layer relu5
I0506 12:51:59.228646 21512 net.cpp:94] Creating Layer relu5
I0506 12:51:59.228649 21512 net.cpp:435] relu5 <- conv5
I0506 12:51:59.228654 21512 net.cpp:396] relu5 -> conv5 (in-place)
I0506 12:51:59.228662 21512 net.cpp:144] Setting up relu5
I0506 12:51:59.228665 21512 net.cpp:151] Top shape: 20 128 5 5 (64000)
I0506 12:51:59.228668 21512 net.cpp:159] Memory required for data: 3720080
I0506 12:51:59.228672 21512 layer_factory.hpp:77] Creating layer pool5
I0506 12:51:59.228677 21512 net.cpp:94] Creating Layer pool5
I0506 12:51:59.228680 21512 net.cpp:435] pool5 <- conv5
I0506 12:51:59.228685 21512 net.cpp:409] pool5 -> pool5
I0506 12:51:59.228726 21512 net.cpp:144] Setting up pool5
I0506 12:51:59.228734 21512 net.cpp:151] Top shape: 20 128 2 2 (10240)
I0506 12:51:59.228736 21512 net.cpp:159] Memory required for data: 3761040
I0506 12:51:59.228739 21512 layer_factory.hpp:77] Creating layer ip1
I0506 12:51:59.228749 21512 net.cpp:94] Creating Layer ip1
I0506 12:51:59.228754 21512 net.cpp:435] ip1 <- pool5
I0506 12:51:59.228757 21512 net.cpp:409] ip1 -> ip1
I0506 12:51:59.243227 21512 net.cpp:144] Setting up ip1
I0506 12:51:59.243244 21512 net.cpp:151] Top shape: 20 1024 (20480)
I0506 12:51:59.243248 21512 net.cpp:159] Memory required for data: 3842960
I0506 12:51:59.243255 21512 layer_factory.hpp:77] Creating layer ip2
I0506 12:51:59.243263 21512 net.cpp:94] Creating Layer ip2
I0506 12:51:59.243268 21512 net.cpp:435] ip2 <- ip1
I0506 12:51:59.243273 21512 net.cpp:409] ip2 -> ip2
I0506 12:51:59.256930 21512 net.cpp:144] Setting up ip2
I0506 12:51:59.256944 21512 net.cpp:151] Top shape: 20 512 (10240)
I0506 12:51:59.256948 21512 net.cpp:159] Memory required for data: 3883920
I0506 12:51:59.256954 21512 layer_factory.hpp:77] Creating layer ip3
I0506 12:51:59.256961 21512 net.cpp:94] Creating Layer ip3
I0506 12:51:59.256965 21512 net.cpp:435] ip3 <- ip2
I0506 12:51:59.256978 21512 net.cpp:409] ip3 -> ip3
I0506 12:51:59.257094 21512 net.cpp:144] Setting up ip3
I0506 12:51:59.257102 21512 net.cpp:151] Top shape: 20 1 (20)
I0506 12:51:59.257105 21512 net.cpp:159] Memory required for data: 3884000
I0506 12:51:59.257110 21512 layer_factory.hpp:77] Creating layer loss
I0506 12:51:59.257118 21512 net.cpp:94] Creating Layer loss
I0506 12:51:59.257122 21512 net.cpp:435] loss <- ip3
I0506 12:51:59.257127 21512 net.cpp:435] loss <- label
I0506 12:51:59.257130 21512 net.cpp:409] loss -> loss
I0506 12:51:59.257181 21512 net.cpp:144] Setting up loss
…
I0506 12:51:59.367637 21512 net.cpp:323] The NetState phase (0) differed from the phase (1) specified by a rule in layer intercept
I0506 12:51:59.367653 21512 net.cpp:323] The NetState phase (0) differed from the phase (1) specified by a rule in layer accuracy
I0506 12:51:59.367743 21512 net.cpp:52] Initializing net from parameters: 
state {
  phase: TRAIN
}
layer {
  name: "parameters"
  type: "HDF5Data"
  top: "data"
  top: "label"
  include {
    phase: TRAIN
  }
  hdf5_data_param {
    source: "/home/purduethu/scratch/radon/d/deng106/CNNStatisticalModel/distributions/input/50_distributions_100_sample_size_train-distributions-path.txt"
    batch_size: 20
  }
}
layer {
  name: "conv1"
  type: "Convolution"
  bottom: "data"
  top: "conv1"
  param {
    lr_mult: 1
  }
  param {
    lr_mult: 2
  }
  convolution_param {
    num_output: 64
    pad: 2
    kernel_size: 5
    stride: 1
    weight_filler {
      type: "gaussian"
      std: 0.0001
    }
    bias_filler {
      type: "constant"
    }
  }
}
layer {
  name: "relu1"
  type: "ReLU"
  bottom: "conv1"
  top: "conv1"
}
layer {
  name: "conv2"
  type: "Convolution"
  bottom: "conv1"
  top: "conv2"
  param {
    lr_mult: 1
  }
  param {
    lr_mult: 2
  }
  convolution_param {
    num_output: 64
    pad: 2
    kernel_size: 5
    stride: 1
    weight_filler {
      type: "gaussian"
      std: 0.01
    }
    bias_filler {
      type: "constant"
    }
  }
}
layer {
  name: "relu2"
  type: "ReLU"
  bottom: "conv2"
  top: "conv2"
}
layer {
  name: "pool2"
  type: "Pooling"
  bottom: "conv2"
  top: "pool2"
  pooling_param {
    pool: MAX
    kernel_size: 3
    stride: 2
  }
}
layer {
  name: "conv3"
  type: "Convolution"
  bottom: "pool2"
  top: "conv3"
  param {
    lr_mult: 1
  }
  param {
    lr_mult: 2
  }
  convolution_param {
    num_output: 128
    pad: 2
    kernel_size: 5
    stride: 1
    weight_filler {
      type: "gaussian"
      std: 0.01
    }
    bias_filler {
      type: "constant"
    }
  }
}
layer {
  name: "relu3"
  type: "ReLU"
  bottom: "conv3"
  top: "conv3"
}
layer {
  name: "conv4"
  type: "Convolution"
  bottom: "conv3"
  top: "conv4"
  param {
    lr_mult: 1
  }
  param {
    lr_mult: 2
  }
  convolution_param {
    num_output: 128
    pad: 2
    kernel_size: 5
    stride: 1
    weight_filler {
      type: "gaussian"
      std: 0.01
    }
    bias_filler {
      type: "constant"
    }
  }
}
layer {
  name: "relu4"
  type: "ReLU"
  bottom: "conv4"
  top: "conv4"
}
layer {
  name: "conv5"
  type: "Convolution"
  bottom: "conv4"
  top: "conv5"
  param {
    lr_mult: 1
  }
  param {
    lr_mult: 2
  }
  convolution_param {
    num_output: 128
    pad: 2
    kernel_size: 5
    stride: 1
    weight_filler {
      type: "gaussian"
      std: 0.01
    }
    bias_filler {
      type: "constant"
    }
  }
}
layer {
  name: "relu5"
  type: "ReLU"
  bottom: "conv5"
  top: "conv5"
}
layer {
  name: "pool5"
  type: "Pooling"
  bottom: "conv5"
  top: "pool5"
  pooling_param {
    pool: AVE
    kernel_size: 3
    stride: 2
  }
}
layer {
  name: "ip1"
  type: "InnerProduct"
  bottom: "pool5"
  top: "ip1"
  param {
    lr_mult: 1
  }
  param {
    lr_mult: 2
  }
  inner_product_param {
    num_output: 1024
    weight_filler {
      type: "gaussian"
      std: 0.1
    }
    bias_filler {
      type: "constant"
    }
  }
}
layer {
  name: "ip2"
  type: "InnerProduct"
  bottom: "ip1"
  top: "ip2"
  param {
    lr_mult: 1
  }
  param {
    lr_mult: 2
  }
  inner_product_param {
    num_output: 512
    weight_filler {
      type: "gaussian"
      std: 0.1
    }
    bias_filler {
      type: "constant"
    }
  }
}
layer {
  name: "ip3"
  type: "InnerProduct"
  bottom: "ip2"
  top: "ip3"
  param {
    lr_mult: 1
  }
  param {
    lr_mult: 2
  }
  inner_product_param {
    num_output: 50
    weight_filler {
      type: "gaussian"
      std: 0.1
    }
    bias_filler {
      type: "constant"
    }
  }
}
layer {
  name: "loss"
  type: "SoftmaxWithLoss"
  bottom: "ip3"
  bottom: "label"
  top: "loss"
}
I0506 12:51:59.367795 21512 layer_factory.hpp:77] Creating layer parameters
I0506 12:51:59.367804 21512 net.cpp:94] Creating Layer parameters
I0506 12:51:59.367807 21512 net.cpp:409] parameters -> data
I0506 12:51:59.367815 21512 net.cpp:409] parameters -> label
I0506 12:51:59.367820 21512 hdf5_data_layer.cpp:79] Loading list of HDF5 filenames from: /home/purduethu/scratch/radon/d/deng106/CNNStatisticalModel/distributions/input/50_distributions_100_sample_size_train-distributions-path.txt
I0506 12:51:59.367836 21512 hdf5_data_layer.cpp:93] Number of HDF5 files: 1
I0506 12:51:59.528719 21512 hdf5.cpp:35] Datatype class: H5T_INTEGER
I0506 12:51:59.531877 21512 net.cpp:144] Setting up parameters
I0506 12:51:59.531903 21512 net.cpp:151] Top shape: 20 1 10 10 (2000)
I0506 12:51:59.531908 21512 net.cpp:151] Top shape: 20 (20)
I0506 12:51:59.531913 21512 net.cpp:159] Memory required for data: 8080
I0506 12:51:59.531919 21512 layer_factory.hpp:77] Creating layer conv1
I0506 12:51:59.531934 21512 net.cpp:94] Creating Layer conv1
I0506 12:51:59.531939 21512 net.cpp:435] conv1 <- data
I0506 12:51:59.531945 21512 net.cpp:409] conv1 -> conv1
I0506 12:51:59.533748 21512 net.cpp:144] Setting up conv1
I0506 12:51:59.533762 21512 net.cpp:151] Top shape: 20 64 10 10 (128000)
I0506 12:51:59.533766 21512 net.cpp:159] Memory required for data: 520080
I0506 12:51:59.533776 21512 layer_factory.hpp:77] Creating layer relu1
I0506 12:51:59.533784 21512 net.cpp:94] Creating Layer relu1
I0506 12:51:59.533787 21512 net.cpp:435] relu1 <- conv1
I0506 12:51:59.533792 21512 net.cpp:396] relu1 -> conv1 (in-place)
I0506 12:51:59.533799 21512 net.cpp:144] Setting up relu1
I0506 12:51:59.533804 21512 net.cpp:151] Top shape: 20 64 10 10 (128000)
I0506 12:51:59.533807 21512 net.cpp:159] Memory required for data: 1032080
I0506 12:51:59.533810 21512 layer_factory.hpp:77] Creating layer conv2
I0506 12:51:59.533818 21512 net.cpp:94] Creating Layer conv2
I0506 12:51:59.533820 21512 net.cpp:435] conv2 <- conv1
I0506 12:51:59.533825 21512 net.cpp:409] conv2 -> conv2
I0506 12:51:59.539348 21512 net.cpp:144] Setting up conv2
I0506 12:51:59.539363 21512 net.cpp:151] Top shape: 20 64 10 10 (128000)
I0506 12:51:59.539367 21512 net.cpp:159] Memory required for data: 1544080
I0506 12:51:59.539376 21512 layer_factory.hpp:77] Creating layer relu2
I0506 12:51:59.539381 21512 net.cpp:94] Creating Layer relu2
I0506 12:51:59.539386 21512 net.cpp:435] relu2 <- conv2
I0506 12:51:59.539389 21512 net.cpp:396] relu2 -> conv2 (in-place)
I0506 12:51:59.539397 21512 net.cpp:144] Setting up relu2
I0506 12:51:59.539402 21512 net.cpp:151] Top shape: 20 64 10 10 (128000)
I0506 12:51:59.539404 21512 net.cpp:159] Memory required for data: 2056080
I0506 12:51:59.539407 21512 layer_factory.hpp:77] Creating layer pool2
I0506 12:51:59.539413 21512 net.cpp:94] Creating Layer pool2
I0506 12:51:59.539417 21512 net.cpp:435] pool2 <- conv2
I0506 12:51:59.539420 21512 net.cpp:409] pool2 -> pool2
I0506 12:51:59.539472 21512 net.cpp:144] Setting up pool2
I0506 12:51:59.539480 21512 net.cpp:151] Top shape: 20 64 5 5 (32000)
I0506 12:51:59.539484 21512 net.cpp:159] Memory required for data: 2184080
I0506 12:51:59.539486 21512 layer_factory.hpp:77] Creating layer conv3
I0506 12:51:59.539494 21512 net.cpp:94] Creating Layer conv3
I0506 12:51:59.539497 21512 net.cpp:435] conv3 <- pool2
I0506 12:51:59.539502 21512 net.cpp:409] conv3 -> conv3
I0506 12:51:59.548472 21512 net.cpp:144] Setting up conv3
I0506 12:51:59.548487 21512 net.cpp:151] Top shape: 20 128 5 5 (64000)
I0506 12:51:59.548491 21512 net.cpp:159] Memory required for data: 2440080
I0506 12:51:59.548499 21512 layer_factory.hpp:77] Creating layer relu3
I0506 12:51:59.548506 21512 net.cpp:94] Creating Layer relu3
I0506 12:51:59.548509 21512 net.cpp:435] relu3 <- conv3
I0506 12:51:59.548514 21512 net.cpp:396] relu3 -> conv3 (in-place)
I0506 12:51:59.548527 21512 net.cpp:144] Setting up relu3
I0506 12:51:59.548532 21512 net.cpp:151] Top shape: 20 128 5 5 (64000)
I0506 12:51:59.548535 21512 net.cpp:159] Memory required for data: 2696080
I0506 12:51:59.548538 21512 layer_factory.hpp:77] Creating layer conv4
I0506 12:51:59.548547 21512 net.cpp:94] Creating Layer conv4
I0506 12:51:59.548558 21512 net.cpp:435] conv4 <- conv3
I0506 12:51:59.548565 21512 net.cpp:409] conv4 -> conv4
I0506 12:51:59.563509 21512 net.cpp:144] Setting up conv4
I0506 12:51:59.563546 21512 net.cpp:151] Top shape: 20 128 5 5 (64000)
I0506 12:51:59.563557 21512 net.cpp:159] Memory required for data: 2952080
I0506 12:51:59.563575 21512 layer_factory.hpp:77] Creating layer relu4
I0506 12:51:59.563590 21512 net.cpp:94] Creating Layer relu4
I0506 12:51:59.563599 21512 net.cpp:435] relu4 <- conv4
I0506 12:51:59.563613 21512 net.cpp:396] relu4 -> conv4 (in-place)
I0506 12:51:59.563632 21512 net.cpp:144] Setting up relu4
I0506 12:51:59.563644 21512 net.cpp:151] Top shape: 20 128 5 5 (64000)
I0506 12:51:59.563653 21512 net.cpp:159] Memory required for data: 3208080
I0506 12:51:59.563661 21512 layer_factory.hpp:77] Creating layer conv5
I0506 12:51:59.563680 21512 net.cpp:94] Creating Layer conv5
I0506 12:51:59.563690 21512 net.cpp:435] conv5 <- conv4
I0506 12:51:59.563704 21512 net.cpp:409] conv5 -> conv5
I0506 12:51:59.579259 21512 net.cpp:144] Setting up conv5
I0506 12:51:59.579275 21512 net.cpp:151] Top shape: 20 128 5 5 (64000)
I0506 12:51:59.579279 21512 net.cpp:159] Memory required for data: 3464080
I0506 12:51:59.579288 21512 layer_factory.hpp:77] Creating layer relu5
I0506 12:51:59.579294 21512 net.cpp:94] Creating Layer relu5
I0506 12:51:59.579298 21512 net.cpp:435] relu5 <- conv5
I0506 12:51:59.579303 21512 net.cpp:396] relu5 -> conv5 (in-place)
I0506 12:51:59.579309 21512 net.cpp:144] Setting up relu5
I0506 12:51:59.579314 21512 net.cpp:151] Top shape: 20 128 5 5 (64000)
I0506 12:51:59.579318 21512 net.cpp:159] Memory required for data: 3720080
I0506 12:51:59.579320 21512 layer_factory.hpp:77] Creating layer pool5
I0506 12:51:59.579325 21512 net.cpp:94] Creating Layer pool5
I0506 12:51:59.579329 21512 net.cpp:435] pool5 <- conv5
I0506 12:51:59.579334 21512 net.cpp:409] pool5 -> pool5
I0506 12:51:59.579371 21512 net.cpp:144] Setting up pool5
I0506 12:51:59.579378 21512 net.cpp:151] Top shape: 20 128 2 2 (10240)
I0506 12:51:59.579381 21512 net.cpp:159] Memory required for data: 3761040
I0506 12:51:59.579385 21512 layer_factory.hpp:77] Creating layer ip1
I0506 12:51:59.579391 21512 net.cpp:94] Creating Layer ip1
I0506 12:51:59.579394 21512 net.cpp:435] ip1 <- pool5
I0506 12:51:59.579399 21512 net.cpp:409] ip1 -> ip1
I0506 12:51:59.593101 21512 net.cpp:144] Setting up ip1
I0506 12:51:59.593116 21512 net.cpp:151] Top shape: 20 1024 (20480)
I0506 12:51:59.593119 21512 net.cpp:159] Memory required for data: 3842960
I0506 12:51:59.593125 21512 layer_factory.hpp:77] Creating layer ip2
I0506 12:51:59.593133 21512 net.cpp:94] Creating Layer ip2
I0506 12:51:59.593137 21512 net.cpp:435] ip2 <- ip1
I0506 12:51:59.593142 21512 net.cpp:409] ip2 -> ip2
I0506 12:51:59.606833 21512 net.cpp:144] Setting up ip2
I0506 12:51:59.606848 21512 net.cpp:151] Top shape: 20 512 (10240)
I0506 12:51:59.606851 21512 net.cpp:159] Memory required for data: 3883920
I0506 12:51:59.606858 21512 layer_factory.hpp:77] Creating layer ip3
I0506 12:51:59.606864 21512 net.cpp:94] Creating Layer ip3
I0506 12:51:59.606868 21512 net.cpp:435] ip3 <- ip2
I0506 12:51:59.606873 21512 net.cpp:409] ip3 -> ip3
I0506 12:51:59.608459 21512 net.cpp:144] Setting up ip3
I0506 12:51:59.608472 21512 net.cpp:151] Top shape: 20 50 (1000)
I0506 12:51:59.608476 21512 net.cpp:159] Memory required for data: 3887920
I0506 12:51:59.608482 21512 layer_factory.hpp:77] Creating layer loss
I0506 12:51:59.608490 21512 net.cpp:94] Creating Layer loss
I0506 12:51:59.608494 21512 net.cpp:435] loss <- ip3
I0506 12:51:59.608499 21512 net.cpp:435] loss <- label
I0506 12:51:59.608502 21512 net.cpp:409] loss -> loss
I0506 12:51:59.608510 21512 layer_factory.hpp:77] Creating layer loss
…
I0506 12:51:59.609062 21512 solver.cpp:181] Creating test net (#0) specified by net file: ./protocol/dis_50_100_dimension.protocol_distribution
I0506 12:51:59.609089 21512 net.cpp:323] The NetState phase (1) differed from the phase (0) specified by a rule in layer parameters
I0506 12:51:59.609185 21512 net.cpp:52] Initializing net from parameters: 
state {
  phase: TEST
}
layer {
  name: "intercept"
  type: "HDF5Data"
  top: "data"
  top: "label"
  include {
    phase: TEST
  }
  hdf5_data_param {
    source: "/home/purduethu/scratch/radon/d/deng106/CNNStatisticalModel/distributions/input/50_distributions_100_sample_size_test-distributions-path.txt"
    batch_size: 20
  }
}
layer {
  name: "conv1"
  type: "Convolution"
  bottom: "data"
  top: "conv1"
  param {
    lr_mult: 1
  }
  param {
    lr_mult: 2
  }
  convolution_param {
    num_output: 64
    pad: 2
    kernel_size: 5
    stride: 1
    weight_filler {
      type: "gaussian"
      std: 0.0001
    }
    bias_filler {
      type: "constant"
    }
  }
}
layer {
  name: "relu1"
  type: "ReLU"
  bottom: "conv1"
  top: "conv1"
}
layer {
  name: "conv2"
  type: "Convolution"
  bottom: "conv1"
  top: "conv2"
  param {
    lr_mult: 1
  }
  param {
    lr_mult: 2
  }
  convolution_param {
    num_output: 64
    pad: 2
    kernel_size: 5
    stride: 1
    weight_filler {
      type: "gaussian"
      std: 0.01
    }
    bias_filler {
      type: "constant"
    }
  }
}
layer {
  name: "relu2"
  type: "ReLU"
  bottom: "conv2"
  top: "conv2"
}
layer {
  name: "pool2"
  type: "Pooling"
  bottom: "conv2"
  top: "pool2"
  pooling_param {
    pool: MAX
    kernel_size: 3
    stride: 2
  }
}
layer {
  name: "conv3"
  type: "Convolution"
  bottom: "pool2"
  top: "conv3"
  param {
    lr_mult: 1
  }
  param {
    lr_mult: 2
  }
  convolution_param {
    num_output: 128
    pad: 2
    kernel_size: 5
    stride: 1
    weight_filler {
      type: "gaussian"
      std: 0.01
    }
    bias_filler {
      type: "constant"
    }
  }
}
layer {
  name: "relu3"
  type: "ReLU"
  bottom: "conv3"
  top: "conv3"
}
layer {
  name: "conv4"
  type: "Convolution"
  bottom: "conv3"
  top: "conv4"
  param {
    lr_mult: 1
  }
  param {
    lr_mult: 2
  }
  convolution_param {
    num_output: 128
    pad: 2
    kernel_size: 5
    stride: 1
    weight_filler {
      type: "gaussian"
      std: 0.01
    }
    bias_filler {
      type: "constant"
    }
  }
}
layer {
  name: "relu4"
  type: "ReLU"
  bottom: "conv4"
  top: "conv4"
}
layer {
  name: "conv5"
  type: "Convolution"
  bottom: "conv4"
  top: "conv5"
  param {
    lr_mult: 1
  }
  param {
    lr_mult: 2
  }
  convolution_param {
    num_output: 128
    pad: 2
    kernel_size: 5
    stride: 1
    weight_filler {
      type: "gaussian"
      std: 0.01
    }
    bias_filler {
      type: "constant"
    }
  }
}
layer {
  name: "relu5"
  type: "ReLU"
  bottom: "conv5"
  top: "conv5"
}
layer {
  name: "pool5"
  type: "Pooling"
  bottom: "conv5"
  top: "pool5"
  pooling_param {
    pool: AVE
    kernel_size: 3
    stride: 2
  }
}
layer {
  name: "ip1"
  type: "InnerProduct"
  bottom: "pool5"
  top: "ip1"
  param {
    lr_mult: 1
  }
  param {
    lr_mult: 2
  }
  inner_product_param {
    num_output: 1024
    weight_filler {
      type: "gaussian"
      std: 0.1
    }
    bias_filler {
      type: "constant"
    }
  }
}
layer {
  name: "ip2"
  type: "InnerProduct"
  bottom: "ip1"
  top: "ip2"
  param {
    lr_mult: 1
  }
  param {
    lr_mult: 2
  }
  inner_product_param {
    num_output: 512
    weight_filler {
      type: "gaussian"
      std: 0.1
    }
    bias_filler {
      type: "constant"
    }
  }
}
layer {
  name: "ip3"
  type: "InnerProduct"
  bottom: "ip2"
  top: "ip3"
  param {
    lr_mult: 1
  }
  param {
    lr_mult: 2
  }
  inner_product_param {
    num_output: 50
    weight_filler {
      type: "gaussian"
      std: 0.1
    }
    bias_filler {
      type: "constant"
    }
  }
}
layer {
  name: "accuracy"
  type: "Accuracy"
  bottom: "ip3"
  bottom: "label"
  top: "accuracy"
  include {
    phase: TEST
  }
}
layer {
  name: "loss"
  type: "SoftmaxWithLoss"
  bottom: "ip3"
  bottom: "label"
  top: "loss"
}
I0506 12:51:59.609253 21512 layer_factory.hpp:77] Creating layer intercept
I0506 12:51:59.609262 21512 net.cpp:94] Creating Layer intercept
I0506 12:51:59.609266 21512 net.cpp:409] intercept -> data
I0506 12:51:59.609273 21512 net.cpp:409] intercept -> label
I0506 12:51:59.609279 21512 hdf5_data_layer.cpp:79] Loading list of HDF5 filenames from: /home/purduethu/scratch/radon/d/deng106/CNNStatisticalModel/distributions/input/50_distributions_100_sample_size_test-distributions-path.txt
I0506 12:51:59.609299 21512 hdf5_data_layer.cpp:93] Number of HDF5 files: 1
I0506 12:51:59.651522 21512 net.cpp:144] Setting up intercept
I0506 12:51:59.651557 21512 net.cpp:151] Top shape: 20 1 10 10 (2000)
I0506 12:51:59.651562 21512 net.cpp:151] Top shape: 20 (20)
I0506 12:51:59.651566 21512 net.cpp:159] Memory required for data: 8080
I0506 12:51:59.651571 21512 layer_factory.hpp:77] Creating layer label_intercept_1_split
I0506 12:51:59.651592 21512 net.cpp:94] Creating Layer label_intercept_1_split
I0506 12:51:59.651597 21512 net.cpp:435] label_intercept_1_split <- label
I0506 12:51:59.651602 21512 net.cpp:409] label_intercept_1_split -> label_intercept_1_split_0
I0506 12:51:59.651610 21512 net.cpp:409] label_intercept_1_split -> label_intercept_1_split_1
I0506 12:51:59.651654 21512 net.cpp:144] Setting up label_intercept_1_split
I0506 12:51:59.651659 21512 net.cpp:151] Top shape: 20 (20)
I0506 12:51:59.651664 21512 net.cpp:151] Top shape: 20 (20)
I0506 12:51:59.651666 21512 net.cpp:159] Memory required for data: 8240
I0506 12:51:59.651669 21512 layer_factory.hpp:77] Creating layer conv1
I0506 12:51:59.651679 21512 net.cpp:94] Creating Layer conv1
I0506 12:51:59.651684 21512 net.cpp:435] conv1 <- data
I0506 12:51:59.651688 21512 net.cpp:409] conv1 -> conv1
I0506 12:51:59.652493 21512 net.cpp:144] Setting up conv1
I0506 12:51:59.652506 21512 net.cpp:151] Top shape: 20 64 10 10 (128000)
I0506 12:51:59.652510 21512 net.cpp:159] Memory required for data: 520240
I0506 12:51:59.652519 21512 layer_factory.hpp:77] Creating layer relu1
I0506 12:51:59.652526 21512 net.cpp:94] Creating Layer relu1
I0506 12:51:59.652530 21512 net.cpp:435] relu1 <- conv1
I0506 12:51:59.652534 21512 net.cpp:396] relu1 -> conv1 (in-place)
I0506 12:51:59.652542 21512 net.cpp:144] Setting up relu1
I0506 12:51:59.652546 21512 net.cpp:151] Top shape: 20 64 10 10 (128000)
I0506 12:51:59.652577 21512 net.cpp:159] Memory required for data: 1032240
I0506 12:51:59.652582 21512 layer_factory.hpp:77] Creating layer conv2
I0506 12:51:59.652591 21512 net.cpp:94] Creating Layer conv2
I0506 12:51:59.652595 21512 net.cpp:435] conv2 <- conv1
I0506 12:51:59.652600 21512 net.cpp:409] conv2 -> conv2
I0506 12:51:59.656800 21512 net.cpp:144] Setting up conv2
I0506 12:51:59.656813 21512 net.cpp:151] Top shape: 20 64 10 10 (128000)
I0506 12:51:59.656817 21512 net.cpp:159] Memory required for data: 1544240
I0506 12:51:59.656826 21512 layer_factory.hpp:77] Creating layer relu2
I0506 12:51:59.656831 21512 net.cpp:94] Creating Layer relu2
I0506 12:51:59.656836 21512 net.cpp:435] relu2 <- conv2
I0506 12:51:59.656839 21512 net.cpp:396] relu2 -> conv2 (in-place)
I0506 12:51:59.656847 21512 net.cpp:144] Setting up relu2
I0506 12:51:59.656850 21512 net.cpp:151] Top shape: 20 64 10 10 (128000)
I0506 12:51:59.656853 21512 net.cpp:159] Memory required for data: 2056240
I0506 12:51:59.656857 21512 layer_factory.hpp:77] Creating layer pool2
I0506 12:51:59.656862 21512 net.cpp:94] Creating Layer pool2
I0506 12:51:59.656865 21512 net.cpp:435] pool2 <- conv2
I0506 12:51:59.656872 21512 net.cpp:409] pool2 -> pool2
I0506 12:51:59.656929 21512 net.cpp:144] Setting up pool2
I0506 12:51:59.656936 21512 net.cpp:151] Top shape: 20 64 5 5 (32000)
I0506 12:51:59.656939 21512 net.cpp:159] Memory required for data: 2184240
I0506 12:51:59.656942 21512 layer_factory.hpp:77] Creating layer conv3
I0506 12:51:59.656951 21512 net.cpp:94] Creating Layer conv3
I0506 12:51:59.656955 21512 net.cpp:435] conv3 <- pool2
I0506 12:51:59.656960 21512 net.cpp:409] conv3 -> conv3
I0506 12:51:59.663256 21512 net.cpp:144] Setting up conv3
I0506 12:51:59.663269 21512 net.cpp:151] Top shape: 20 128 5 5 (64000)
I0506 12:51:59.663274 21512 net.cpp:159] Memory required for data: 2440240
I0506 12:51:59.663281 21512 layer_factory.hpp:77] Creating layer relu3
I0506 12:51:59.663287 21512 net.cpp:94] Creating Layer relu3
I0506 12:51:59.663291 21512 net.cpp:435] relu3 <- conv3
I0506 12:51:59.663295 21512 net.cpp:396] relu3 -> conv3 (in-place)
I0506 12:51:59.663302 21512 net.cpp:144] Setting up relu3
I0506 12:51:59.663306 21512 net.cpp:151] Top shape: 20 128 5 5 (64000)
I0506 12:51:59.663310 21512 net.cpp:159] Memory required for data: 2696240
I0506 12:51:59.663312 21512 layer_factory.hpp:77] Creating layer conv4
I0506 12:51:59.663322 21512 net.cpp:94] Creating Layer conv4
I0506 12:51:59.663326 21512 net.cpp:435] conv4 <- conv3
I0506 12:51:59.663331 21512 net.cpp:409] conv4 -> conv4
I0506 12:51:59.676425 21512 net.cpp:144] Setting up conv4
I0506 12:51:59.676440 21512 net.cpp:151] Top shape: 20 128 5 5 (64000)
I0506 12:51:59.676445 21512 net.cpp:159] Memory required for data: 2952240
I0506 12:51:59.676451 21512 layer_factory.hpp:77] Creating layer relu4
I0506 12:51:59.676458 21512 net.cpp:94] Creating Layer relu4
I0506 12:51:59.676462 21512 net.cpp:435] relu4 <- conv4
I0506 12:51:59.676466 21512 net.cpp:396] relu4 -> conv4 (in-place)
I0506 12:51:59.676473 21512 net.cpp:144] Setting up relu4
I0506 12:51:59.676479 21512 net.cpp:151] Top shape: 20 128 5 5 (64000)
I0506 12:51:59.676482 21512 net.cpp:159] Memory required for data: 3208240
I0506 12:51:59.676486 21512 layer_factory.hpp:77] Creating layer conv5
I0506 12:51:59.676492 21512 net.cpp:94] Creating Layer conv5
I0506 12:51:59.676496 21512 net.cpp:435] conv5 <- conv4
I0506 12:51:59.676501 21512 net.cpp:409] conv5 -> conv5
I0506 12:51:59.689580 21512 net.cpp:144] Setting up conv5
I0506 12:51:59.689616 21512 net.cpp:151] Top shape: 20 128 5 5 (64000)
I0506 12:51:59.689627 21512 net.cpp:159] Memory required for data: 3464240
I0506 12:51:59.689649 21512 layer_factory.hpp:77] Creating layer relu5
I0506 12:51:59.689664 21512 net.cpp:94] Creating Layer relu5
I0506 12:51:59.689674 21512 net.cpp:435] relu5 <- conv5
I0506 12:51:59.689687 21512 net.cpp:396] relu5 -> conv5 (in-place)
I0506 12:51:59.689704 21512 net.cpp:144] Setting up relu5
I0506 12:51:59.689723 21512 net.cpp:151] Top shape: 20 128 5 5 (64000)
I0506 12:51:59.689733 21512 net.cpp:159] Memory required for data: 3720240
I0506 12:51:59.689735 21512 layer_factory.hpp:77] Creating layer pool5
I0506 12:51:59.689743 21512 net.cpp:94] Creating Layer pool5
I0506 12:51:59.689745 21512 net.cpp:435] pool5 <- conv5
I0506 12:51:59.689750 21512 net.cpp:409] pool5 -> pool5
I0506 12:51:59.689790 21512 net.cpp:144] Setting up pool5
I0506 12:51:59.689796 21512 net.cpp:151] Top shape: 20 128 2 2 (10240)
I0506 12:51:59.689800 21512 net.cpp:159] Memory required for data: 3761200
I0506 12:51:59.689802 21512 layer_factory.hpp:77] Creating layer ip1
I0506 12:51:59.689810 21512 net.cpp:94] Creating Layer ip1
I0506 12:51:59.689815 21512 net.cpp:435] ip1 <- pool5
I0506 12:51:59.689818 21512 net.cpp:409] ip1 -> ip1
I0506 12:51:59.703560 21512 net.cpp:144] Setting up ip1
I0506 12:51:59.703574 21512 net.cpp:151] Top shape: 20 1024 (20480)
I0506 12:51:59.703578 21512 net.cpp:159] Memory required for data: 3843120
I0506 12:51:59.703583 21512 layer_factory.hpp:77] Creating layer ip2
I0506 12:51:59.703591 21512 net.cpp:94] Creating Layer ip2
I0506 12:51:59.703595 21512 net.cpp:435] ip2 <- ip1
I0506 12:51:59.703601 21512 net.cpp:409] ip2 -> ip2
I0506 12:51:59.717304 21512 net.cpp:144] Setting up ip2
I0506 12:51:59.717319 21512 net.cpp:151] Top shape: 20 512 (10240)
I0506 12:51:59.717322 21512 net.cpp:159] Memory required for data: 3884080
I0506 12:51:59.717329 21512 layer_factory.hpp:77] Creating layer ip3
I0506 12:51:59.717340 21512 net.cpp:94] Creating Layer ip3
I0506 12:51:59.717344 21512 net.cpp:435] ip3 <- ip2
I0506 12:51:59.717350 21512 net.cpp:409] ip3 -> ip3
I0506 12:51:59.718124 21512 net.cpp:144] Setting up ip3
I0506 12:51:59.718132 21512 net.cpp:151] Top shape: 20 50 (1000)
I0506 12:51:59.718142 21512 net.cpp:159] Memory required for data: 3888080
I0506 12:51:59.718147 21512 layer_factory.hpp:77] Creating layer ip3_ip3_0_split
I0506 12:51:59.718153 21512 net.cpp:94] Creating Layer ip3_ip3_0_split
I0506 12:51:59.718156 21512 net.cpp:435] ip3_ip3_0_split <- ip3
I0506 12:51:59.718161 21512 net.cpp:409] ip3_ip3_0_split -> ip3_ip3_0_split_0
I0506 12:51:59.718166 21512 net.cpp:409] ip3_ip3_0_split -> ip3_ip3_0_split_1
I0506 12:51:59.718210 21512 net.cpp:144] Setting up ip3_ip3_0_split
I0506 12:51:59.718216 21512 net.cpp:151] Top shape: 20 50 (1000)
I0506 12:51:59.718220 21512 net.cpp:151] Top shape: 20 50 (1000)
I0506 12:51:59.718224 21512 net.cpp:159] Memory required for data: 3896080
I0506 12:51:59.718226 21512 layer_factory.hpp:77] Creating layer accuracy
I0506 12:51:59.718231 21512 net.cpp:94] Creating Layer accuracy
I0506 12:51:59.718235 21512 net.cpp:435] accuracy <- ip3_ip3_0_split_0
I0506 12:51:59.718238 21512 net.cpp:435] accuracy <- label_intercept_1_split_0
I0506 12:51:59.718243 21512 net.cpp:409] accuracy -> accuracy
…
