…
I0502 14:52:04.280654  8437 net.cpp:323] The NetState phase (0) differed from the phase (1) specified by a rule in layer intercept
I0502 14:52:04.280671  8437 net.cpp:323] The NetState phase (0) differed from the phase (1) specified by a rule in layer loss
I0502 14:52:04.280778  8437 net.cpp:52] Initializing net from parameters: 
state {
  phase: TRAIN
}
layer {
  name: "parameters"
  type: "HDF5Data"
  top: "data"
  top: "label"
  include {
    phase: TRAIN
  }
  hdf5_data_param {
    source: "/home/purduethu/scratch/radon/d/deng106/CNNStatisticalModel/distributions/input/20_distributions_400_sample_size_train-parameters-path.txt"
    batch_size: 20
  }
}
layer {
  name: "conv1"
  type: "Convolution"
  bottom: "data"
  top: "conv1"
  param {
    lr_mult: 1
  }
  param {
    lr_mult: 2
  }
  convolution_param {
    num_output: 64
    pad: 2
    kernel_size: 5
    stride: 1
    weight_filler {
      type: "gaussian"
      std: 0.0001
    }
    bias_filler {
      type: "constant"
    }
  }
}
layer {
  name: "relu1"
  type: "ReLU"
  bottom: "conv1"
  top: "conv1"
}
layer {
  name: "conv2"
  type: "Convolution"
  bottom: "conv1"
  top: "conv2"
  param {
    lr_mult: 1
  }
  param {
    lr_mult: 2
  }
  convolution_param {
    num_output: 64
    pad: 2
    kernel_size: 5
    stride: 1
    weight_filler {
      type: "gaussian"
      std: 0.01
    }
    bias_filler {
      type: "constant"
    }
  }
}
layer {
  name: "relu2"
  type: "ReLU"
  bottom: "conv2"
  top: "conv2"
}
layer {
  name: "pool2"
  type: "Pooling"
  bottom: "conv2"
  top: "pool2"
  pooling_param {
    pool: MAX
    kernel_size: 3
    stride: 2
  }
}
layer {
  name: "conv3"
  type: "Convolution"
  bottom: "pool2"
  top: "conv3"
  param {
    lr_mult: 1
  }
  param {
    lr_mult: 2
  }
  convolution_param {
    num_output: 64
    pad: 2
    kernel_size: 5
    stride: 1
    weight_filler {
      type: "gaussian"
      std: 0.01
    }
    bias_filler {
      type: "constant"
    }
  }
}
layer {
  name: "relu3"
  type: "ReLU"
  bottom: "conv3"
  top: "conv3"
}
layer {
  name: "conv4"
  type: "Convolution"
  bottom: "conv3"
  top: "conv4"
  param {
    lr_mult: 1
  }
  param {
    lr_mult: 2
  }
  convolution_param {
    num_output: 64
    pad: 2
    kernel_size: 5
    stride: 1
    weight_filler {
      type: "gaussian"
      std: 0.01
    }
    bias_filler {
      type: "constant"
    }
  }
}
layer {
  name: "relu4"
  type: "ReLU"
  bottom: "conv4"
  top: "conv4"
}
layer {
  name: "conv5"
  type: "Convolution"
  bottom: "conv4"
  top: "conv5"
  param {
    lr_mult: 1
  }
  param {
    lr_mult: 2
  }
  convolution_param {
    num_output: 64
    pad: 2
    kernel_size: 5
    stride: 1
    weight_filler {
      type: "gaussian"
      std: 0.01
    }
    bias_filler {
      type: "constant"
    }
  }
}
layer {
  name: "relu5"
  type: "ReLU"
  bottom: "conv5"
  top: "conv5"
}
layer {
  name: "pool5"
  type: "Pooling"
  bottom: "conv5"
  top: "pool5"
  pooling_param {
    pool: AVE
    kernel_size: 3
    stride: 2
  }
}
layer {
  name: "ip1"
  type: "InnerProduct"
  bottom: "pool5"
  top: "ip1"
  param {
    lr_mult: 1
  }
  param {
    lr_mult: 2
  }
  inner_product_param {
    num_output: 64
    weight_filler {
      type: "gaussian"
      std: 0.1
    }
    bias_filler {
      type: "constant"
    }
  }
}
layer {
  name: "ip2"
  type: "InnerProduct"
  bottom: "ip1"
  top: "ip2"
  param {
    lr_mult: 1
  }
  param {
    lr_mult: 2
  }
  inner_product_param {
    num_output: 64
    weight_filler {
      type: "gaussian"
      std: 0.1
    }
    bias_filler {
      type: "constant"
    }
  }
}
layer {
  name: "ip3"
  type: "InnerProduct"
  bottom: "ip2"
  top: "ip3"
  param {
    lr_mult: 1
  }
  param {
    lr_mult: 2
  }
  inner_product_param {
    num_output: 1
    weight_filler {
      type: "gaussian"
      std: 0.1
    }
    bias_filler {
      type: "constant"
    }
  }
}
layer {
  name: "loss"
  type: "HuberLoss"
  bottom: "ip3"
  bottom: "label"
  top: "loss"
  include {
    phase: TRAIN
  }
}
I0502 14:52:04.280864  8437 layer_factory.hpp:77] Creating layer parameters
I0502 14:52:04.280877  8437 net.cpp:94] Creating Layer parameters
I0502 14:52:04.280884  8437 net.cpp:409] parameters -> data
I0502 14:52:04.280903  8437 net.cpp:409] parameters -> label
I0502 14:52:04.280913  8437 hdf5_data_layer.cpp:79] Loading list of HDF5 filenames from: /home/purduethu/scratch/radon/d/deng106/CNNStatisticalModel/distributions/input/20_distributions_400_sample_size_train-parameters-path.txt
I0502 14:52:04.280937  8437 hdf5_data_layer.cpp:93] Number of HDF5 files: 1
I0502 14:52:04.281584  8437 hdf5.cpp:32] Datatype class: H5T_FLOAT
I0502 14:52:04.546053  8437 net.cpp:144] Setting up parameters
I0502 14:52:04.546085  8437 net.cpp:151] Top shape: 20 1 20 20 (8000)
I0502 14:52:04.546092  8437 net.cpp:151] Top shape: 20 (20)
I0502 14:52:04.546095  8437 net.cpp:159] Memory required for data: 32080
I0502 14:52:04.546103  8437 layer_factory.hpp:77] Creating layer conv1
I0502 14:52:04.546123  8437 net.cpp:94] Creating Layer conv1
I0502 14:52:04.546128  8437 net.cpp:435] conv1 <- data
I0502 14:52:04.546139  8437 net.cpp:409] conv1 -> conv1
I0502 14:52:04.550995  8437 net.cpp:144] Setting up conv1
I0502 14:52:04.551012  8437 net.cpp:151] Top shape: 20 64 20 20 (512000)
I0502 14:52:04.551017  8437 net.cpp:159] Memory required for data: 2080080
I0502 14:52:04.551028  8437 layer_factory.hpp:77] Creating layer relu1
I0502 14:52:04.551038  8437 net.cpp:94] Creating Layer relu1
I0502 14:52:04.551041  8437 net.cpp:435] relu1 <- conv1
I0502 14:52:04.551046  8437 net.cpp:396] relu1 -> conv1 (in-place)
I0502 14:52:04.551064  8437 net.cpp:144] Setting up relu1
I0502 14:52:04.551070  8437 net.cpp:151] Top shape: 20 64 20 20 (512000)
I0502 14:52:04.551074  8437 net.cpp:159] Memory required for data: 4128080
I0502 14:52:04.551076  8437 layer_factory.hpp:77] Creating layer conv2
I0502 14:52:04.551085  8437 net.cpp:94] Creating Layer conv2
I0502 14:52:04.551089  8437 net.cpp:435] conv2 <- conv1
I0502 14:52:04.551093  8437 net.cpp:409] conv2 -> conv2
I0502 14:52:04.561079  8437 net.cpp:144] Setting up conv2
I0502 14:52:04.561094  8437 net.cpp:151] Top shape: 20 64 20 20 (512000)
I0502 14:52:04.561100  8437 net.cpp:159] Memory required for data: 6176080
I0502 14:52:04.561107  8437 layer_factory.hpp:77] Creating layer relu2
I0502 14:52:04.561115  8437 net.cpp:94] Creating Layer relu2
I0502 14:52:04.561118  8437 net.cpp:435] relu2 <- conv2
I0502 14:52:04.561123  8437 net.cpp:396] relu2 -> conv2 (in-place)
I0502 14:52:04.561131  8437 net.cpp:144] Setting up relu2
I0502 14:52:04.561136  8437 net.cpp:151] Top shape: 20 64 20 20 (512000)
I0502 14:52:04.561139  8437 net.cpp:159] Memory required for data: 8224080
I0502 14:52:04.561142  8437 layer_factory.hpp:77] Creating layer pool2
I0502 14:52:04.561151  8437 net.cpp:94] Creating Layer pool2
I0502 14:52:04.561161  8437 net.cpp:435] pool2 <- conv2
I0502 14:52:04.561166  8437 net.cpp:409] pool2 -> pool2
I0502 14:52:04.561210  8437 net.cpp:144] Setting up pool2
I0502 14:52:04.561218  8437 net.cpp:151] Top shape: 20 64 10 10 (128000)
I0502 14:52:04.561221  8437 net.cpp:159] Memory required for data: 8736080
I0502 14:52:04.561224  8437 layer_factory.hpp:77] Creating layer conv3
I0502 14:52:04.561233  8437 net.cpp:94] Creating Layer conv3
I0502 14:52:04.561236  8437 net.cpp:435] conv3 <- pool2
I0502 14:52:04.561241  8437 net.cpp:409] conv3 -> conv3
I0502 14:52:04.566491  8437 net.cpp:144] Setting up conv3
I0502 14:52:04.566505  8437 net.cpp:151] Top shape: 20 64 10 10 (128000)
I0502 14:52:04.566509  8437 net.cpp:159] Memory required for data: 9248080
I0502 14:52:04.566519  8437 layer_factory.hpp:77] Creating layer relu3
I0502 14:52:04.566524  8437 net.cpp:94] Creating Layer relu3
I0502 14:52:04.566529  8437 net.cpp:435] relu3 <- conv3
I0502 14:52:04.566532  8437 net.cpp:396] relu3 -> conv3 (in-place)
I0502 14:52:04.566540  8437 net.cpp:144] Setting up relu3
I0502 14:52:04.566545  8437 net.cpp:151] Top shape: 20 64 10 10 (128000)
I0502 14:52:04.566547  8437 net.cpp:159] Memory required for data: 9760080
I0502 14:52:04.566551  8437 layer_factory.hpp:77] Creating layer conv4
I0502 14:52:04.566560  8437 net.cpp:94] Creating Layer conv4
I0502 14:52:04.566563  8437 net.cpp:435] conv4 <- conv3
I0502 14:52:04.566570  8437 net.cpp:409] conv4 -> conv4
I0502 14:52:04.571800  8437 net.cpp:144] Setting up conv4
I0502 14:52:04.571815  8437 net.cpp:151] Top shape: 20 64 10 10 (128000)
I0502 14:52:04.571820  8437 net.cpp:159] Memory required for data: 10272080
I0502 14:52:04.571825  8437 layer_factory.hpp:77] Creating layer relu4
I0502 14:52:04.571831  8437 net.cpp:94] Creating Layer relu4
I0502 14:52:04.571835  8437 net.cpp:435] relu4 <- conv4
I0502 14:52:04.571841  8437 net.cpp:396] relu4 -> conv4 (in-place)
I0502 14:52:04.571847  8437 net.cpp:144] Setting up relu4
I0502 14:52:04.571852  8437 net.cpp:151] Top shape: 20 64 10 10 (128000)
I0502 14:52:04.571856  8437 net.cpp:159] Memory required for data: 10784080
I0502 14:52:04.571859  8437 layer_factory.hpp:77] Creating layer conv5
I0502 14:52:04.571866  8437 net.cpp:94] Creating Layer conv5
I0502 14:52:04.571871  8437 net.cpp:435] conv5 <- conv4
I0502 14:52:04.571876  8437 net.cpp:409] conv5 -> conv5
I0502 14:52:04.577811  8437 net.cpp:144] Setting up conv5
I0502 14:52:04.577826  8437 net.cpp:151] Top shape: 20 64 10 10 (128000)
I0502 14:52:04.577831  8437 net.cpp:159] Memory required for data: 11296080
I0502 14:52:04.577839  8437 layer_factory.hpp:77] Creating layer relu5
I0502 14:52:04.577846  8437 net.cpp:94] Creating Layer relu5
I0502 14:52:04.577849  8437 net.cpp:435] relu5 <- conv5
I0502 14:52:04.577854  8437 net.cpp:396] relu5 -> conv5 (in-place)
I0502 14:52:04.577862  8437 net.cpp:144] Setting up relu5
I0502 14:52:04.577865  8437 net.cpp:151] Top shape: 20 64 10 10 (128000)
I0502 14:52:04.577869  8437 net.cpp:159] Memory required for data: 11808080
I0502 14:52:04.577872  8437 layer_factory.hpp:77] Creating layer pool5
I0502 14:52:04.577877  8437 net.cpp:94] Creating Layer pool5
I0502 14:52:04.577882  8437 net.cpp:435] pool5 <- conv5
I0502 14:52:04.577885  8437 net.cpp:409] pool5 -> pool5
I0502 14:52:04.577921  8437 net.cpp:144] Setting up pool5
I0502 14:52:04.577929  8437 net.cpp:151] Top shape: 20 64 5 5 (32000)
I0502 14:52:04.577931  8437 net.cpp:159] Memory required for data: 11936080
I0502 14:52:04.577935  8437 layer_factory.hpp:77] Creating layer ip1
I0502 14:52:04.577942  8437 net.cpp:94] Creating Layer ip1
I0502 14:52:04.577945  8437 net.cpp:435] ip1 <- pool5
I0502 14:52:04.577950  8437 net.cpp:409] ip1 -> ip1
I0502 14:52:04.580514  8437 net.cpp:144] Setting up ip1
I0502 14:52:04.580523  8437 net.cpp:151] Top shape: 20 64 (1280)
I0502 14:52:04.580525  8437 net.cpp:159] Memory required for data: 11941200
I0502 14:52:04.580531  8437 layer_factory.hpp:77] Creating layer ip2
I0502 14:52:04.580538  8437 net.cpp:94] Creating Layer ip2
I0502 14:52:04.580545  8437 net.cpp:435] ip2 <- ip1
I0502 14:52:04.580559  8437 net.cpp:409] ip2 -> ip2
I0502 14:52:04.580732  8437 net.cpp:144] Setting up ip2
I0502 14:52:04.580739  8437 net.cpp:151] Top shape: 20 64 (1280)
I0502 14:52:04.580742  8437 net.cpp:159] Memory required for data: 11946320
I0502 14:52:04.580747  8437 layer_factory.hpp:77] Creating layer ip3
I0502 14:52:04.580754  8437 net.cpp:94] Creating Layer ip3
I0502 14:52:04.580757  8437 net.cpp:435] ip3 <- ip2
I0502 14:52:04.580762  8437 net.cpp:409] ip3 -> ip3
I0502 14:52:04.580827  8437 net.cpp:144] Setting up ip3
I0502 14:52:04.580839  8437 net.cpp:151] Top shape: 20 1 (20)
I0502 14:52:04.580842  8437 net.cpp:159] Memory required for data: 11946400
I0502 14:52:04.580848  8437 layer_factory.hpp:77] Creating layer loss
I0502 14:52:04.580858  8437 net.cpp:94] Creating Layer loss
I0502 14:52:04.580862  8437 net.cpp:435] loss <- ip3
I0502 14:52:04.580865  8437 net.cpp:435] loss <- label
I0502 14:52:04.580871  8437 net.cpp:409] loss -> loss
I0502 14:52:04.580909  8437 net.cpp:144] Setting up loss
…
