…
I0502 15:20:15.290112 10355 net.cpp:323] The NetState phase (0) differed from the phase (1) specified by a rule in layer intercept
I0502 15:20:15.290129 10355 net.cpp:323] The NetState phase (0) differed from the phase (1) specified by a rule in layer loss
I0502 15:20:15.290223 10355 net.cpp:52] Initializing net from parameters: 
state {
  phase: TRAIN
}
layer {
  name: "parameters"
  type: "HDF5Data"
  top: "data"
  top: "label"
  include {
    phase: TRAIN
  }
  hdf5_data_param {
    source: "/home/purduethu/scratch/radon/d/deng106/CNNStatisticalModel/distributions/input/5_distributions_900_sample_size_train-parameters-path.txt"
    batch_size: 20
  }
}
layer {
  name: "conv1"
  type: "Convolution"
  bottom: "data"
  top: "conv1"
  param {
    lr_mult: 1
  }
  param {
    lr_mult: 2
  }
  convolution_param {
    num_output: 64
    pad: 2
    kernel_size: 5
    stride: 1
    weight_filler {
      type: "gaussian"
      std: 0.0001
    }
    bias_filler {
      type: "constant"
    }
  }
}
layer {
  name: "relu1"
  type: "ReLU"
  bottom: "conv1"
  top: "conv1"
}
layer {
  name: "conv2"
  type: "Convolution"
  bottom: "conv1"
  top: "conv2"
  param {
    lr_mult: 1
  }
  param {
    lr_mult: 2
  }
  convolution_param {
    num_output: 64
    pad: 2
    kernel_size: 5
    stride: 1
    weight_filler {
      type: "gaussian"
      std: 0.01
    }
    bias_filler {
      type: "constant"
    }
  }
}
layer {
  name: "relu2"
  type: "ReLU"
  bottom: "conv2"
  top: "conv2"
}
layer {
  name: "pool2"
  type: "Pooling"
  bottom: "conv2"
  top: "pool2"
  pooling_param {
    pool: MAX
    kernel_size: 3
    stride: 2
  }
}
layer {
  name: "conv3"
  type: "Convolution"
  bottom: "pool2"
  top: "conv3"
  param {
    lr_mult: 1
  }
  param {
    lr_mult: 2
  }
  convolution_param {
    num_output: 64
    pad: 2
    kernel_size: 5
    stride: 1
    weight_filler {
      type: "gaussian"
      std: 0.01
    }
    bias_filler {
      type: "constant"
    }
  }
}
layer {
  name: "relu3"
  type: "ReLU"
  bottom: "conv3"
  top: "conv3"
}
layer {
  name: "conv4"
  type: "Convolution"
  bottom: "conv3"
  top: "conv4"
  param {
    lr_mult: 1
  }
  param {
    lr_mult: 2
  }
  convolution_param {
    num_output: 64
    pad: 2
    kernel_size: 5
    stride: 1
    weight_filler {
      type: "gaussian"
      std: 0.01
    }
    bias_filler {
      type: "constant"
    }
  }
}
layer {
  name: "relu4"
  type: "ReLU"
  bottom: "conv4"
  top: "conv4"
}
layer {
  name: "conv5"
  type: "Convolution"
  bottom: "conv4"
  top: "conv5"
  param {
    lr_mult: 1
  }
  param {
    lr_mult: 2
  }
  convolution_param {
    num_output: 64
    pad: 2
    kernel_size: 5
    stride: 1
    weight_filler {
      type: "gaussian"
      std: 0.01
    }
    bias_filler {
      type: "constant"
    }
  }
}
layer {
  name: "relu5"
  type: "ReLU"
  bottom: "conv5"
  top: "conv5"
}
layer {
  name: "pool5"
  type: "Pooling"
  bottom: "conv5"
  top: "pool5"
  pooling_param {
    pool: AVE
    kernel_size: 3
    stride: 2
  }
}
layer {
  name: "ip1"
  type: "InnerProduct"
  bottom: "pool5"
  top: "ip1"
  param {
    lr_mult: 1
  }
  param {
    lr_mult: 2
  }
  inner_product_param {
    num_output: 64
    weight_filler {
      type: "gaussian"
      std: 0.1
    }
    bias_filler {
      type: "constant"
    }
  }
}
layer {
  name: "ip2"
  type: "InnerProduct"
  bottom: "ip1"
  top: "ip2"
  param {
    lr_mult: 1
  }
  param {
    lr_mult: 2
  }
  inner_product_param {
    num_output: 64
    weight_filler {
      type: "gaussian"
      std: 0.1
    }
    bias_filler {
      type: "constant"
    }
  }
}
layer {
  name: "ip3"
  type: "InnerProduct"
  bottom: "ip2"
  top: "ip3"
  param {
    lr_mult: 1
  }
  param {
    lr_mult: 2
  }
  inner_product_param {
    num_output: 1
    weight_filler {
      type: "gaussian"
      std: 0.1
    }
    bias_filler {
      type: "constant"
    }
  }
}
layer {
  name: "loss"
  type: "HuberLoss"
  bottom: "ip3"
  bottom: "label"
  top: "loss"
  include {
    phase: TRAIN
  }
}
I0502 15:20:15.290299 10355 layer_factory.hpp:77] Creating layer parameters
I0502 15:20:15.290314 10355 net.cpp:94] Creating Layer parameters
I0502 15:20:15.290321 10355 net.cpp:409] parameters -> data
I0502 15:20:15.290341 10355 net.cpp:409] parameters -> label
I0502 15:20:15.290351 10355 hdf5_data_layer.cpp:79] Loading list of HDF5 filenames from: /home/purduethu/scratch/radon/d/deng106/CNNStatisticalModel/distributions/input/5_distributions_900_sample_size_train-parameters-path.txt
I0502 15:20:15.290374 10355 hdf5_data_layer.cpp:93] Number of HDF5 files: 1
I0502 15:20:15.290972 10355 hdf5.cpp:32] Datatype class: H5T_FLOAT
I0502 15:20:15.433445 10355 net.cpp:144] Setting up parameters
I0502 15:20:15.433478 10355 net.cpp:151] Top shape: 20 1 30 30 (18000)
I0502 15:20:15.433485 10355 net.cpp:151] Top shape: 20 (20)
I0502 15:20:15.433490 10355 net.cpp:159] Memory required for data: 72080
I0502 15:20:15.433497 10355 layer_factory.hpp:77] Creating layer conv1
I0502 15:20:15.433517 10355 net.cpp:94] Creating Layer conv1
I0502 15:20:15.433523 10355 net.cpp:435] conv1 <- data
I0502 15:20:15.433534 10355 net.cpp:409] conv1 -> conv1
I0502 15:20:15.439528 10355 net.cpp:144] Setting up conv1
I0502 15:20:15.439545 10355 net.cpp:151] Top shape: 20 64 30 30 (1152000)
I0502 15:20:15.439550 10355 net.cpp:159] Memory required for data: 4680080
I0502 15:20:15.439561 10355 layer_factory.hpp:77] Creating layer relu1
I0502 15:20:15.439570 10355 net.cpp:94] Creating Layer relu1
I0502 15:20:15.439574 10355 net.cpp:435] relu1 <- conv1
I0502 15:20:15.439579 10355 net.cpp:396] relu1 -> conv1 (in-place)
I0502 15:20:15.439591 10355 net.cpp:144] Setting up relu1
I0502 15:20:15.439596 10355 net.cpp:151] Top shape: 20 64 30 30 (1152000)
I0502 15:20:15.439600 10355 net.cpp:159] Memory required for data: 9288080
I0502 15:20:15.439604 10355 layer_factory.hpp:77] Creating layer conv2
I0502 15:20:15.439611 10355 net.cpp:94] Creating Layer conv2
I0502 15:20:15.439615 10355 net.cpp:435] conv2 <- conv1
I0502 15:20:15.439620 10355 net.cpp:409] conv2 -> conv2
I0502 15:20:15.454836 10355 net.cpp:144] Setting up conv2
I0502 15:20:15.454862 10355 net.cpp:151] Top shape: 20 64 30 30 (1152000)
I0502 15:20:15.454870 10355 net.cpp:159] Memory required for data: 13896080
I0502 15:20:15.454885 10355 layer_factory.hpp:77] Creating layer relu2
I0502 15:20:15.454897 10355 net.cpp:94] Creating Layer relu2
I0502 15:20:15.454905 10355 net.cpp:435] relu2 <- conv2
I0502 15:20:15.454913 10355 net.cpp:396] relu2 -> conv2 (in-place)
I0502 15:20:15.454926 10355 net.cpp:144] Setting up relu2
I0502 15:20:15.454936 10355 net.cpp:151] Top shape: 20 64 30 30 (1152000)
I0502 15:20:15.454941 10355 net.cpp:159] Memory required for data: 18504080
I0502 15:20:15.454947 10355 layer_factory.hpp:77] Creating layer pool2
I0502 15:20:15.454959 10355 net.cpp:94] Creating Layer pool2
I0502 15:20:15.454974 10355 net.cpp:435] pool2 <- conv2
I0502 15:20:15.454983 10355 net.cpp:409] pool2 -> pool2
I0502 15:20:15.455061 10355 net.cpp:144] Setting up pool2
I0502 15:20:15.455075 10355 net.cpp:151] Top shape: 20 64 15 15 (288000)
I0502 15:20:15.455081 10355 net.cpp:159] Memory required for data: 19656080
I0502 15:20:15.455088 10355 layer_factory.hpp:77] Creating layer conv3
I0502 15:20:15.455102 10355 net.cpp:94] Creating Layer conv3
I0502 15:20:15.455108 10355 net.cpp:435] conv3 <- pool2
I0502 15:20:15.455118 10355 net.cpp:409] conv3 -> conv3
I0502 15:20:15.463279 10355 net.cpp:144] Setting up conv3
I0502 15:20:15.463294 10355 net.cpp:151] Top shape: 20 64 15 15 (288000)
I0502 15:20:15.463299 10355 net.cpp:159] Memory required for data: 20808080
I0502 15:20:15.463307 10355 layer_factory.hpp:77] Creating layer relu3
I0502 15:20:15.463315 10355 net.cpp:94] Creating Layer relu3
I0502 15:20:15.463318 10355 net.cpp:435] relu3 <- conv3
I0502 15:20:15.463323 10355 net.cpp:396] relu3 -> conv3 (in-place)
I0502 15:20:15.463331 10355 net.cpp:144] Setting up relu3
I0502 15:20:15.463336 10355 net.cpp:151] Top shape: 20 64 15 15 (288000)
I0502 15:20:15.463340 10355 net.cpp:159] Memory required for data: 21960080
I0502 15:20:15.463342 10355 layer_factory.hpp:77] Creating layer conv4
I0502 15:20:15.463351 10355 net.cpp:94] Creating Layer conv4
I0502 15:20:15.463356 10355 net.cpp:435] conv4 <- conv3
I0502 15:20:15.463361 10355 net.cpp:409] conv4 -> conv4
I0502 15:20:15.470666 10355 net.cpp:144] Setting up conv4
I0502 15:20:15.470682 10355 net.cpp:151] Top shape: 20 64 15 15 (288000)
I0502 15:20:15.470687 10355 net.cpp:159] Memory required for data: 23112080
I0502 15:20:15.470693 10355 layer_factory.hpp:77] Creating layer relu4
I0502 15:20:15.470700 10355 net.cpp:94] Creating Layer relu4
I0502 15:20:15.470705 10355 net.cpp:435] relu4 <- conv4
I0502 15:20:15.470710 10355 net.cpp:396] relu4 -> conv4 (in-place)
I0502 15:20:15.470717 10355 net.cpp:144] Setting up relu4
I0502 15:20:15.470722 10355 net.cpp:151] Top shape: 20 64 15 15 (288000)
I0502 15:20:15.470726 10355 net.cpp:159] Memory required for data: 24264080
I0502 15:20:15.470729 10355 layer_factory.hpp:77] Creating layer conv5
I0502 15:20:15.470738 10355 net.cpp:94] Creating Layer conv5
I0502 15:20:15.470742 10355 net.cpp:435] conv5 <- conv4
I0502 15:20:15.470747 10355 net.cpp:409] conv5 -> conv5
I0502 15:20:15.478083 10355 net.cpp:144] Setting up conv5
I0502 15:20:15.478099 10355 net.cpp:151] Top shape: 20 64 15 15 (288000)
I0502 15:20:15.478104 10355 net.cpp:159] Memory required for data: 25416080
I0502 15:20:15.478113 10355 layer_factory.hpp:77] Creating layer relu5
I0502 15:20:15.478121 10355 net.cpp:94] Creating Layer relu5
I0502 15:20:15.478124 10355 net.cpp:435] relu5 <- conv5
I0502 15:20:15.478129 10355 net.cpp:396] relu5 -> conv5 (in-place)
I0502 15:20:15.478137 10355 net.cpp:144] Setting up relu5
I0502 15:20:15.478142 10355 net.cpp:151] Top shape: 20 64 15 15 (288000)
I0502 15:20:15.478145 10355 net.cpp:159] Memory required for data: 26568080
I0502 15:20:15.478149 10355 layer_factory.hpp:77] Creating layer pool5
I0502 15:20:15.478154 10355 net.cpp:94] Creating Layer pool5
I0502 15:20:15.478158 10355 net.cpp:435] pool5 <- conv5
I0502 15:20:15.478163 10355 net.cpp:409] pool5 -> pool5
I0502 15:20:15.478199 10355 net.cpp:144] Setting up pool5
I0502 15:20:15.478206 10355 net.cpp:151] Top shape: 20 64 7 7 (62720)
I0502 15:20:15.478210 10355 net.cpp:159] Memory required for data: 26818960
I0502 15:20:15.478214 10355 layer_factory.hpp:77] Creating layer ip1
I0502 15:20:15.478224 10355 net.cpp:94] Creating Layer ip1
I0502 15:20:15.478227 10355 net.cpp:435] ip1 <- pool5
I0502 15:20:15.478233 10355 net.cpp:409] ip1 -> ip1
I0502 15:20:15.484060 10355 net.cpp:144] Setting up ip1
I0502 15:20:15.484074 10355 net.cpp:151] Top shape: 20 64 (1280)
I0502 15:20:15.484078 10355 net.cpp:159] Memory required for data: 26824080
I0502 15:20:15.484086 10355 layer_factory.hpp:77] Creating layer ip2
I0502 15:20:15.484092 10355 net.cpp:94] Creating Layer ip2
I0502 15:20:15.484102 10355 net.cpp:435] ip2 <- ip1
I0502 15:20:15.484107 10355 net.cpp:409] ip2 -> ip2
I0502 15:20:15.484289 10355 net.cpp:144] Setting up ip2
I0502 15:20:15.484297 10355 net.cpp:151] Top shape: 20 64 (1280)
I0502 15:20:15.484300 10355 net.cpp:159] Memory required for data: 26829200
I0502 15:20:15.484307 10355 layer_factory.hpp:77] Creating layer ip3
I0502 15:20:15.484313 10355 net.cpp:94] Creating Layer ip3
I0502 15:20:15.484318 10355 net.cpp:435] ip3 <- ip2
I0502 15:20:15.484323 10355 net.cpp:409] ip3 -> ip3
I0502 15:20:15.484390 10355 net.cpp:144] Setting up ip3
I0502 15:20:15.484406 10355 net.cpp:151] Top shape: 20 1 (20)
I0502 15:20:15.484411 10355 net.cpp:159] Memory required for data: 26829280
I0502 15:20:15.484416 10355 layer_factory.hpp:77] Creating layer loss
I0502 15:20:15.484427 10355 net.cpp:94] Creating Layer loss
I0502 15:20:15.484431 10355 net.cpp:435] loss <- ip3
I0502 15:20:15.484436 10355 net.cpp:435] loss <- label
I0502 15:20:15.484441 10355 net.cpp:409] loss -> loss
I0502 15:20:15.484479 10355 net.cpp:144] Setting up loss
…
