…
I0505 22:16:35.077564  9871 net.cpp:323] The NetState phase (0) differed from the phase (1) specified by a rule in layer intercept
I0505 22:16:35.077577  9871 net.cpp:323] The NetState phase (0) differed from the phase (1) specified by a rule in layer loss
I0505 22:16:35.077644  9871 net.cpp:52] Initializing net from parameters: 
state {
  phase: TRAIN
}
layer {
  name: "parameters"
  type: "HDF5Data"
  top: "data"
  top: "label"
  include {
    phase: TRAIN
  }
  hdf5_data_param {
    source: "/home/purduethu/scratch/radon/d/deng106/CNNStatisticalModel/distributions/input/20_distributions_900_sample_size_train-parameters-path.txt"
    batch_size: 20
  }
}
layer {
  name: "conv1"
  type: "Convolution"
  bottom: "data"
  top: "conv1"
  param {
    lr_mult: 1
  }
  param {
    lr_mult: 2
  }
  convolution_param {
    num_output: 64
    pad: 2
    kernel_size: 5
    stride: 1
    weight_filler {
      type: "gaussian"
      std: 0.0001
    }
    bias_filler {
      type: "constant"
    }
  }
}
layer {
  name: "relu1"
  type: "ReLU"
  bottom: "conv1"
  top: "conv1"
}
layer {
  name: "pool1"
  type: "Pooling"
  bottom: "conv1"
  top: "pool1"
  pooling_param {
    pool: MAX
    kernel_size: 3
    stride: 2
  }
}
layer {
  name: "conv2"
  type: "Convolution"
  bottom: "pool1"
  top: "conv2"
  param {
    lr_mult: 1
  }
  param {
    lr_mult: 2
  }
  convolution_param {
    num_output: 128
    pad: 2
    kernel_size: 5
    stride: 1
    weight_filler {
      type: "gaussian"
      std: 0.01
    }
    bias_filler {
      type: "constant"
    }
  }
}
layer {
  name: "relu2"
  type: "ReLU"
  bottom: "conv2"
  top: "conv2"
}
layer {
  name: "conv3"
  type: "Convolution"
  bottom: "conv2"
  top: "conv3"
  param {
    lr_mult: 1
  }
  param {
    lr_mult: 2
  }
  convolution_param {
    num_output: 128
    pad: 2
    kernel_size: 5
    stride: 1
    weight_filler {
      type: "gaussian"
      std: 0.01
    }
    bias_filler {
      type: "constant"
    }
  }
}
layer {
  name: "relu3"
  type: "ReLU"
  bottom: "conv3"
  top: "conv3"
}
layer {
  name: "pool3"
  type: "Pooling"
  bottom: "conv3"
  top: "pool3"
  pooling_param {
    pool: AVE
    kernel_size: 3
    stride: 2
  }
}
layer {
  name: "ip1"
  type: "InnerProduct"
  bottom: "pool3"
  top: "ip1"
  param {
    lr_mult: 1
  }
  param {
    lr_mult: 2
  }
  inner_product_param {
    num_output: 512
    weight_filler {
      type: "gaussian"
      std: 0.1
    }
    bias_filler {
      type: "constant"
    }
  }
}
layer {
  name: "ip2"
  type: "InnerProduct"
  bottom: "ip1"
  top: "ip2"
  param {
    lr_mult: 1
  }
  param {
    lr_mult: 2
  }
  inner_product_param {
    num_output: 256
    weight_filler {
      type: "gaussian"
      std: 0.1
    }
    bias_filler {
      type: "constant"
    }
  }
}
layer {
  name: "ip3"
  type: "InnerProduct"
  bottom: "ip2"
  top: "ip3"
  param {
    lr_mult: 1
  }
  param {
    lr_mult: 2
  }
  inner_product_param {
    num_output: 1
    weight_filler {
      type: "gaussian"
      std: 0.1
    }
    bias_filler {
      type: "constant"
    }
  }
}
layer {
  name: "loss"
  type: "HuberLoss"
  bottom: "ip3"
  bottom: "label"
  top: "loss"
  include {
    phase: TRAIN
  }
}
I0505 22:16:35.077692  9871 layer_factory.hpp:77] Creating layer parameters
I0505 22:16:35.077704  9871 net.cpp:94] Creating Layer parameters
I0505 22:16:35.077709  9871 net.cpp:409] parameters -> data
I0505 22:16:35.077723  9871 net.cpp:409] parameters -> label
I0505 22:16:35.077729  9871 hdf5_data_layer.cpp:79] Loading list of HDF5 filenames from: /home/purduethu/scratch/radon/d/deng106/CNNStatisticalModel/distributions/input/20_distributions_900_sample_size_train-parameters-path.txt
I0505 22:16:35.077744  9871 hdf5_data_layer.cpp:93] Number of HDF5 files: 1
I0505 22:16:35.078290  9871 hdf5.cpp:32] Datatype class: H5T_FLOAT
I0505 22:16:35.660063  9871 net.cpp:144] Setting up parameters
I0505 22:16:35.660094  9871 net.cpp:151] Top shape: 20 1 30 30 (18000)
I0505 22:16:35.660099  9871 net.cpp:151] Top shape: 20 (20)
I0505 22:16:35.660104  9871 net.cpp:159] Memory required for data: 72080
I0505 22:16:35.660109  9871 layer_factory.hpp:77] Creating layer conv1
I0505 22:16:35.660125  9871 net.cpp:94] Creating Layer conv1
I0505 22:16:35.660128  9871 net.cpp:435] conv1 <- data
I0505 22:16:35.660135  9871 net.cpp:409] conv1 -> conv1
I0505 22:16:35.666676  9871 net.cpp:144] Setting up conv1
I0505 22:16:35.666697  9871 net.cpp:151] Top shape: 20 64 30 30 (1152000)
I0505 22:16:35.666702  9871 net.cpp:159] Memory required for data: 4680080
I0505 22:16:35.666712  9871 layer_factory.hpp:77] Creating layer relu1
I0505 22:16:35.666720  9871 net.cpp:94] Creating Layer relu1
I0505 22:16:35.666724  9871 net.cpp:435] relu1 <- conv1
I0505 22:16:35.666729  9871 net.cpp:396] relu1 -> conv1 (in-place)
I0505 22:16:35.666738  9871 net.cpp:144] Setting up relu1
I0505 22:16:35.666743  9871 net.cpp:151] Top shape: 20 64 30 30 (1152000)
I0505 22:16:35.666745  9871 net.cpp:159] Memory required for data: 9288080
I0505 22:16:35.666749  9871 layer_factory.hpp:77] Creating layer pool1
I0505 22:16:35.666754  9871 net.cpp:94] Creating Layer pool1
I0505 22:16:35.666757  9871 net.cpp:435] pool1 <- conv1
I0505 22:16:35.666762  9871 net.cpp:409] pool1 -> pool1
I0505 22:16:35.666811  9871 net.cpp:144] Setting up pool1
I0505 22:16:35.666818  9871 net.cpp:151] Top shape: 20 64 15 15 (288000)
I0505 22:16:35.666821  9871 net.cpp:159] Memory required for data: 10440080
I0505 22:16:35.666826  9871 layer_factory.hpp:77] Creating layer conv2
I0505 22:16:35.666834  9871 net.cpp:94] Creating Layer conv2
I0505 22:16:35.666838  9871 net.cpp:435] conv2 <- pool1
I0505 22:16:35.666843  9871 net.cpp:409] conv2 -> conv2
I0505 22:16:35.679389  9871 net.cpp:144] Setting up conv2
I0505 22:16:35.679405  9871 net.cpp:151] Top shape: 20 128 15 15 (576000)
I0505 22:16:35.679409  9871 net.cpp:159] Memory required for data: 12744080
I0505 22:16:35.679417  9871 layer_factory.hpp:77] Creating layer relu2
I0505 22:16:35.679425  9871 net.cpp:94] Creating Layer relu2
I0505 22:16:35.679427  9871 net.cpp:435] relu2 <- conv2
I0505 22:16:35.679432  9871 net.cpp:396] relu2 -> conv2 (in-place)
I0505 22:16:35.679440  9871 net.cpp:144] Setting up relu2
I0505 22:16:35.679445  9871 net.cpp:151] Top shape: 20 128 15 15 (576000)
I0505 22:16:35.679447  9871 net.cpp:159] Memory required for data: 15048080
I0505 22:16:35.679450  9871 layer_factory.hpp:77] Creating layer conv3
I0505 22:16:35.679458  9871 net.cpp:94] Creating Layer conv3
I0505 22:16:35.679461  9871 net.cpp:435] conv3 <- conv2
I0505 22:16:35.679466  9871 net.cpp:409] conv3 -> conv3
I0505 22:16:35.701331  9871 net.cpp:144] Setting up conv3
I0505 22:16:35.701349  9871 net.cpp:151] Top shape: 20 128 15 15 (576000)
I0505 22:16:35.701352  9871 net.cpp:159] Memory required for data: 17352080
I0505 22:16:35.701361  9871 layer_factory.hpp:77] Creating layer relu3
I0505 22:16:35.701375  9871 net.cpp:94] Creating Layer relu3
I0505 22:16:35.701378  9871 net.cpp:435] relu3 <- conv3
I0505 22:16:35.701383  9871 net.cpp:396] relu3 -> conv3 (in-place)
I0505 22:16:35.701391  9871 net.cpp:144] Setting up relu3
I0505 22:16:35.701395  9871 net.cpp:151] Top shape: 20 128 15 15 (576000)
I0505 22:16:35.701398  9871 net.cpp:159] Memory required for data: 19656080
I0505 22:16:35.701402  9871 layer_factory.hpp:77] Creating layer pool3
I0505 22:16:35.701408  9871 net.cpp:94] Creating Layer pool3
I0505 22:16:35.701411  9871 net.cpp:435] pool3 <- conv3
I0505 22:16:35.701416  9871 net.cpp:409] pool3 -> pool3
I0505 22:16:35.701457  9871 net.cpp:144] Setting up pool3
I0505 22:16:35.701463  9871 net.cpp:151] Top shape: 20 128 7 7 (125440)
I0505 22:16:35.701467  9871 net.cpp:159] Memory required for data: 20157840
I0505 22:16:35.701470  9871 layer_factory.hpp:77] Creating layer ip1
I0505 22:16:35.701479  9871 net.cpp:94] Creating Layer ip1
I0505 22:16:35.701483  9871 net.cpp:435] ip1 <- pool3
I0505 22:16:35.701488  9871 net.cpp:409] ip1 -> ip1
I0505 22:16:35.783639  9871 net.cpp:144] Setting up ip1
I0505 22:16:35.783668  9871 net.cpp:151] Top shape: 20 512 (10240)
I0505 22:16:35.783671  9871 net.cpp:159] Memory required for data: 20198800
I0505 22:16:35.783680  9871 layer_factory.hpp:77] Creating layer ip2
I0505 22:16:35.783690  9871 net.cpp:94] Creating Layer ip2
I0505 22:16:35.783695  9871 net.cpp:435] ip2 <- ip1
I0505 22:16:35.783701  9871 net.cpp:409] ip2 -> ip2
I0505 22:16:35.787078  9871 net.cpp:144] Setting up ip2
I0505 22:16:35.787087  9871 net.cpp:151] Top shape: 20 256 (5120)
I0505 22:16:35.787091  9871 net.cpp:159] Memory required for data: 20219280
I0505 22:16:35.787098  9871 layer_factory.hpp:77] Creating layer ip3
I0505 22:16:35.787104  9871 net.cpp:94] Creating Layer ip3
I0505 22:16:35.787107  9871 net.cpp:435] ip3 <- ip2
I0505 22:16:35.787112  9871 net.cpp:409] ip3 -> ip3
I0505 22:16:35.787209  9871 net.cpp:144] Setting up ip3
I0505 22:16:35.787216  9871 net.cpp:151] Top shape: 20 1 (20)
I0505 22:16:35.787220  9871 net.cpp:159] Memory required for data: 20219360
I0505 22:16:35.787225  9871 layer_factory.hpp:77] Creating layer loss
I0505 22:16:35.787238  9871 net.cpp:94] Creating Layer loss
I0505 22:16:35.787241  9871 net.cpp:435] loss <- ip3
I0505 22:16:35.787245  9871 net.cpp:435] loss <- label
I0505 22:16:35.787250  9871 net.cpp:409] loss -> loss
I0505 22:16:35.787297  9871 net.cpp:144] Setting up loss
…
I0505 22:16:36.042870  9871 net.cpp:323] The NetState phase (0) differed from the phase (1) specified by a rule in layer intercept
I0505 22:16:36.042882  9871 net.cpp:323] The NetState phase (0) differed from the phase (1) specified by a rule in layer accuracy
I0505 22:16:36.042953  9871 net.cpp:52] Initializing net from parameters: 
state {
  phase: TRAIN
}
layer {
  name: "parameters"
  type: "HDF5Data"
  top: "data"
  top: "label"
  include {
    phase: TRAIN
  }
  hdf5_data_param {
    source: "/home/purduethu/scratch/radon/d/deng106/CNNStatisticalModel/distributions/input/20_distributions_900_sample_size_train-distributions-path.txt"
    batch_size: 20
  }
}
layer {
  name: "conv1"
  type: "Convolution"
  bottom: "data"
  top: "conv1"
  param {
    lr_mult: 1
  }
  param {
    lr_mult: 2
  }
  convolution_param {
    num_output: 64
    pad: 2
    kernel_size: 5
    stride: 1
    weight_filler {
      type: "gaussian"
      std: 0.0001
    }
    bias_filler {
      type: "constant"
    }
  }
}
layer {
  name: "relu1"
  type: "ReLU"
  bottom: "conv1"
  top: "conv1"
}
layer {
  name: "pool1"
  type: "Pooling"
  bottom: "conv1"
  top: "pool1"
  pooling_param {
    pool: MAX
    kernel_size: 3
    stride: 2
  }
}
layer {
  name: "conv2"
  type: "Convolution"
  bottom: "pool1"
  top: "conv2"
  param {
    lr_mult: 1
  }
  param {
    lr_mult: 2
  }
  convolution_param {
    num_output: 128
    pad: 2
    kernel_size: 5
    stride: 1
    weight_filler {
      type: "gaussian"
      std: 0.01
    }
    bias_filler {
      type: "constant"
    }
  }
}
layer {
  name: "relu2"
  type: "ReLU"
  bottom: "conv2"
  top: "conv2"
}
layer {
  name: "conv3"
  type: "Convolution"
  bottom: "conv2"
  top: "conv3"
  param {
    lr_mult: 1
  }
  param {
    lr_mult: 2
  }
  convolution_param {
    num_output: 128
    pad: 2
    kernel_size: 5
    stride: 1
    weight_filler {
      type: "gaussian"
      std: 0.01
    }
    bias_filler {
      type: "constant"
    }
  }
}
layer {
  name: "relu3"
  type: "ReLU"
  bottom: "conv3"
  top: "conv3"
}
layer {
  name: "pool3"
  type: "Pooling"
  bottom: "conv3"
  top: "pool3"
  pooling_param {
    pool: AVE
    kernel_size: 3
    stride: 2
  }
}
layer {
  name: "ip1"
  type: "InnerProduct"
  bottom: "pool3"
  top: "ip1"
  param {
    lr_mult: 1
  }
  param {
    lr_mult: 2
  }
  inner_product_param {
    num_output: 512
    weight_filler {
      type: "gaussian"
      std: 0.1
    }
    bias_filler {
      type: "constant"
    }
  }
}
layer {
  name: "ip2"
  type: "InnerProduct"
  bottom: "ip1"
  top: "ip2"
  param {
    lr_mult: 1
  }
  param {
    lr_mult: 2
  }
  inner_product_param {
    num_output: 256
    weight_filler {
      type: "gaussian"
      std: 0.1
    }
    bias_filler {
      type: "constant"
    }
  }
}
layer {
  name: "ip3"
  type: "InnerProduct"
  bottom: "ip2"
  top: "ip3"
  param {
    lr_mult: 1
  }
  param {
    lr_mult: 2
  }
  inner_product_param {
    num_output: 50
    weight_filler {
      type: "gaussian"
      std: 0.1
    }
    bias_filler {
      type: "constant"
    }
  }
}
layer {
  name: "loss"
  type: "SoftmaxWithLoss"
  bottom: "ip3"
  bottom: "label"
  top: "loss"
}
I0505 22:16:36.042994  9871 layer_factory.hpp:77] Creating layer parameters
I0505 22:16:36.043001  9871 net.cpp:94] Creating Layer parameters
I0505 22:16:36.043004  9871 net.cpp:409] parameters -> data
I0505 22:16:36.043011  9871 net.cpp:409] parameters -> label
I0505 22:16:36.043017  9871 hdf5_data_layer.cpp:79] Loading list of HDF5 filenames from: /home/purduethu/scratch/radon/d/deng106/CNNStatisticalModel/distributions/input/20_distributions_900_sample_size_train-distributions-path.txt
I0505 22:16:36.043032  9871 hdf5_data_layer.cpp:93] Number of HDF5 files: 1
I0505 22:16:36.607136  9871 hdf5.cpp:35] Datatype class: H5T_INTEGER
I0505 22:16:36.608281  9871 net.cpp:144] Setting up parameters
I0505 22:16:36.608305  9871 net.cpp:151] Top shape: 20 1 30 30 (18000)
I0505 22:16:36.608310  9871 net.cpp:151] Top shape: 20 (20)
I0505 22:16:36.608314  9871 net.cpp:159] Memory required for data: 72080
I0505 22:16:36.608320  9871 layer_factory.hpp:77] Creating layer conv1
I0505 22:16:36.608336  9871 net.cpp:94] Creating Layer conv1
I0505 22:16:36.608340  9871 net.cpp:435] conv1 <- data
I0505 22:16:36.608347  9871 net.cpp:409] conv1 -> conv1
I0505 22:16:36.612017  9871 net.cpp:144] Setting up conv1
I0505 22:16:36.612032  9871 net.cpp:151] Top shape: 20 64 30 30 (1152000)
I0505 22:16:36.612036  9871 net.cpp:159] Memory required for data: 4680080
I0505 22:16:36.612046  9871 layer_factory.hpp:77] Creating layer relu1
I0505 22:16:36.612054  9871 net.cpp:94] Creating Layer relu1
I0505 22:16:36.612057  9871 net.cpp:435] relu1 <- conv1
I0505 22:16:36.612062  9871 net.cpp:396] relu1 -> conv1 (in-place)
I0505 22:16:36.612069  9871 net.cpp:144] Setting up relu1
I0505 22:16:36.612074  9871 net.cpp:151] Top shape: 20 64 30 30 (1152000)
I0505 22:16:36.612077  9871 net.cpp:159] Memory required for data: 9288080
I0505 22:16:36.612081  9871 layer_factory.hpp:77] Creating layer pool1
I0505 22:16:36.612087  9871 net.cpp:94] Creating Layer pool1
I0505 22:16:36.612094  9871 net.cpp:435] pool1 <- conv1
I0505 22:16:36.612099  9871 net.cpp:409] pool1 -> pool1
I0505 22:16:36.612149  9871 net.cpp:144] Setting up pool1
I0505 22:16:36.612156  9871 net.cpp:151] Top shape: 20 64 15 15 (288000)
I0505 22:16:36.612159  9871 net.cpp:159] Memory required for data: 10440080
I0505 22:16:36.612164  9871 layer_factory.hpp:77] Creating layer conv2
I0505 22:16:36.612171  9871 net.cpp:94] Creating Layer conv2
I0505 22:16:36.612174  9871 net.cpp:435] conv2 <- pool1
I0505 22:16:36.612179  9871 net.cpp:409] conv2 -> conv2
I0505 22:16:36.625754  9871 net.cpp:144] Setting up conv2
I0505 22:16:36.625771  9871 net.cpp:151] Top shape: 20 128 15 15 (576000)
I0505 22:16:36.625775  9871 net.cpp:159] Memory required for data: 12744080
I0505 22:16:36.625783  9871 layer_factory.hpp:77] Creating layer relu2
I0505 22:16:36.625790  9871 net.cpp:94] Creating Layer relu2
I0505 22:16:36.625794  9871 net.cpp:435] relu2 <- conv2
I0505 22:16:36.625798  9871 net.cpp:396] relu2 -> conv2 (in-place)
I0505 22:16:36.625807  9871 net.cpp:144] Setting up relu2
I0505 22:16:36.625811  9871 net.cpp:151] Top shape: 20 128 15 15 (576000)
I0505 22:16:36.625814  9871 net.cpp:159] Memory required for data: 15048080
I0505 22:16:36.625818  9871 layer_factory.hpp:77] Creating layer conv3
I0505 22:16:36.625825  9871 net.cpp:94] Creating Layer conv3
I0505 22:16:36.625828  9871 net.cpp:435] conv3 <- conv2
I0505 22:16:36.625833  9871 net.cpp:409] conv3 -> conv3
I0505 22:16:36.648942  9871 net.cpp:144] Setting up conv3
I0505 22:16:36.648959  9871 net.cpp:151] Top shape: 20 128 15 15 (576000)
I0505 22:16:36.648963  9871 net.cpp:159] Memory required for data: 17352080
I0505 22:16:36.648972  9871 layer_factory.hpp:77] Creating layer relu3
I0505 22:16:36.648977  9871 net.cpp:94] Creating Layer relu3
I0505 22:16:36.648982  9871 net.cpp:435] relu3 <- conv3
I0505 22:16:36.648985  9871 net.cpp:396] relu3 -> conv3 (in-place)
I0505 22:16:36.648993  9871 net.cpp:144] Setting up relu3
I0505 22:16:36.648998  9871 net.cpp:151] Top shape: 20 128 15 15 (576000)
I0505 22:16:36.649000  9871 net.cpp:159] Memory required for data: 19656080
I0505 22:16:36.649003  9871 layer_factory.hpp:77] Creating layer pool3
I0505 22:16:36.649009  9871 net.cpp:94] Creating Layer pool3
I0505 22:16:36.649013  9871 net.cpp:435] pool3 <- conv3
I0505 22:16:36.649018  9871 net.cpp:409] pool3 -> pool3
I0505 22:16:36.649055  9871 net.cpp:144] Setting up pool3
I0505 22:16:36.649062  9871 net.cpp:151] Top shape: 20 128 7 7 (125440)
I0505 22:16:36.649065  9871 net.cpp:159] Memory required for data: 20157840
I0505 22:16:36.649068  9871 layer_factory.hpp:77] Creating layer ip1
I0505 22:16:36.649075  9871 net.cpp:94] Creating Layer ip1
I0505 22:16:36.649078  9871 net.cpp:435] ip1 <- pool3
I0505 22:16:36.649083  9871 net.cpp:409] ip1 -> ip1
I0505 22:16:36.731659  9871 net.cpp:144] Setting up ip1
I0505 22:16:36.731694  9871 net.cpp:151] Top shape: 20 512 (10240)
I0505 22:16:36.731698  9871 net.cpp:159] Memory required for data: 20198800
I0505 22:16:36.731709  9871 layer_factory.hpp:77] Creating layer ip2
I0505 22:16:36.731719  9871 net.cpp:94] Creating Layer ip2
I0505 22:16:36.731724  9871 net.cpp:435] ip2 <- ip1
I0505 22:16:36.731730  9871 net.cpp:409] ip2 -> ip2
I0505 22:16:36.735074  9871 net.cpp:144] Setting up ip2
I0505 22:16:36.735087  9871 net.cpp:151] Top shape: 20 256 (5120)
I0505 22:16:36.735090  9871 net.cpp:159] Memory required for data: 20219280
I0505 22:16:36.735100  9871 layer_factory.hpp:77] Creating layer ip3
I0505 22:16:36.735105  9871 net.cpp:94] Creating Layer ip3
I0505 22:16:36.735108  9871 net.cpp:435] ip3 <- ip2
I0505 22:16:36.735115  9871 net.cpp:409] ip3 -> ip3
I0505 22:16:36.736651  9871 net.cpp:144] Setting up ip3
I0505 22:16:36.736666  9871 net.cpp:151] Top shape: 20 50 (1000)
I0505 22:16:36.736670  9871 net.cpp:159] Memory required for data: 20223280
I0505 22:16:36.736676  9871 layer_factory.hpp:77] Creating layer loss
I0505 22:16:36.736683  9871 net.cpp:94] Creating Layer loss
I0505 22:16:36.736686  9871 net.cpp:435] loss <- ip3
I0505 22:16:36.736691  9871 net.cpp:435] loss <- label
I0505 22:16:36.736702  9871 net.cpp:409] loss -> loss
I0505 22:16:36.736711  9871 layer_factory.hpp:77] Creating layer loss
…
I0505 22:16:36.737164  9871 solver.cpp:181] Creating test net (#0) specified by net file: ./protocol/dis_20_900_dimension.protocol_distribution
I0505 22:16:36.737188  9871 net.cpp:323] The NetState phase (1) differed from the phase (0) specified by a rule in layer parameters
I0505 22:16:36.737269  9871 net.cpp:52] Initializing net from parameters: 
state {
  phase: TEST
}
layer {
  name: "intercept"
  type: "HDF5Data"
  top: "data"
  top: "label"
  include {
    phase: TEST
  }
  hdf5_data_param {
    source: "/home/purduethu/scratch/radon/d/deng106/CNNStatisticalModel/distributions/input/20_distributions_900_sample_size_test-distributions-path.txt"
    batch_size: 20
  }
}
layer {
  name: "conv1"
  type: "Convolution"
  bottom: "data"
  top: "conv1"
  param {
    lr_mult: 1
  }
  param {
    lr_mult: 2
  }
  convolution_param {
    num_output: 64
    pad: 2
    kernel_size: 5
    stride: 1
    weight_filler {
      type: "gaussian"
      std: 0.0001
    }
    bias_filler {
      type: "constant"
    }
  }
}
layer {
  name: "relu1"
  type: "ReLU"
  bottom: "conv1"
  top: "conv1"
}
layer {
  name: "pool1"
  type: "Pooling"
  bottom: "conv1"
  top: "pool1"
  pooling_param {
    pool: MAX
    kernel_size: 3
    stride: 2
  }
}
layer {
  name: "conv2"
  type: "Convolution"
  bottom: "pool1"
  top: "conv2"
  param {
    lr_mult: 1
  }
  param {
    lr_mult: 2
  }
  convolution_param {
    num_output: 128
    pad: 2
    kernel_size: 5
    stride: 1
    weight_filler {
      type: "gaussian"
      std: 0.01
    }
    bias_filler {
      type: "constant"
    }
  }
}
layer {
  name: "relu2"
  type: "ReLU"
  bottom: "conv2"
  top: "conv2"
}
layer {
  name: "conv3"
  type: "Convolution"
  bottom: "conv2"
  top: "conv3"
  param {
    lr_mult: 1
  }
  param {
    lr_mult: 2
  }
  convolution_param {
    num_output: 128
    pad: 2
    kernel_size: 5
    stride: 1
    weight_filler {
      type: "gaussian"
      std: 0.01
    }
    bias_filler {
      type: "constant"
    }
  }
}
layer {
  name: "relu3"
  type: "ReLU"
  bottom: "conv3"
  top: "conv3"
}
layer {
  name: "pool3"
  type: "Pooling"
  bottom: "conv3"
  top: "pool3"
  pooling_param {
    pool: AVE
    kernel_size: 3
    stride: 2
  }
}
layer {
  name: "ip1"
  type: "InnerProduct"
  bottom: "pool3"
  top: "ip1"
  param {
    lr_mult: 1
  }
  param {
    lr_mult: 2
  }
  inner_product_param {
    num_output: 512
    weight_filler {
      type: "gaussian"
      std: 0.1
    }
    bias_filler {
      type: "constant"
    }
  }
}
layer {
  name: "ip2"
  type: "InnerProduct"
  bottom: "ip1"
  top: "ip2"
  param {
    lr_mult: 1
  }
  param {
    lr_mult: 2
  }
  inner_product_param {
    num_output: 256
    weight_filler {
      type: "gaussian"
      std: 0.1
    }
    bias_filler {
      type: "constant"
    }
  }
}
layer {
  name: "ip3"
  type: "InnerProduct"
  bottom: "ip2"
  top: "ip3"
  param {
    lr_mult: 1
  }
  param {
    lr_mult: 2
  }
  inner_product_param {
    num_output: 50
    weight_filler {
      type: "gaussian"
      std: 0.1
    }
    bias_filler {
      type: "constant"
    }
  }
}
layer {
  name: "accuracy"
  type: "Accuracy"
  bottom: "ip3"
  bottom: "label"
  top: "accuracy"
  include {
    phase: TEST
  }
}
layer {
  name: "loss"
  type: "SoftmaxWithLoss"
  bottom: "ip3"
  bottom: "label"
  top: "loss"
}
I0505 22:16:36.737325  9871 layer_factory.hpp:77] Creating layer intercept
I0505 22:16:36.737334  9871 net.cpp:94] Creating Layer intercept
I0505 22:16:36.737337  9871 net.cpp:409] intercept -> data
I0505 22:16:36.737344  9871 net.cpp:409] intercept -> label
I0505 22:16:36.737350  9871 hdf5_data_layer.cpp:79] Loading list of HDF5 filenames from: /home/purduethu/scratch/radon/d/deng106/CNNStatisticalModel/distributions/input/20_distributions_900_sample_size_test-distributions-path.txt
I0505 22:16:36.737370  9871 hdf5_data_layer.cpp:93] Number of HDF5 files: 1
I0505 22:16:36.879400  9871 net.cpp:144] Setting up intercept
I0505 22:16:36.879434  9871 net.cpp:151] Top shape: 20 1 30 30 (18000)
I0505 22:16:36.879439  9871 net.cpp:151] Top shape: 20 (20)
I0505 22:16:36.879442  9871 net.cpp:159] Memory required for data: 72080
I0505 22:16:36.879448  9871 layer_factory.hpp:77] Creating layer label_intercept_1_split
I0505 22:16:36.879469  9871 net.cpp:94] Creating Layer label_intercept_1_split
I0505 22:16:36.879473  9871 net.cpp:435] label_intercept_1_split <- label
I0505 22:16:36.879479  9871 net.cpp:409] label_intercept_1_split -> label_intercept_1_split_0
I0505 22:16:36.879488  9871 net.cpp:409] label_intercept_1_split -> label_intercept_1_split_1
I0505 22:16:36.879528  9871 net.cpp:144] Setting up label_intercept_1_split
I0505 22:16:36.879534  9871 net.cpp:151] Top shape: 20 (20)
I0505 22:16:36.879539  9871 net.cpp:151] Top shape: 20 (20)
I0505 22:16:36.879541  9871 net.cpp:159] Memory required for data: 72240
I0505 22:16:36.879544  9871 layer_factory.hpp:77] Creating layer conv1
I0505 22:16:36.879555  9871 net.cpp:94] Creating Layer conv1
I0505 22:16:36.879559  9871 net.cpp:435] conv1 <- data
I0505 22:16:36.879565  9871 net.cpp:409] conv1 -> conv1
I0505 22:16:36.881075  9871 net.cpp:144] Setting up conv1
I0505 22:16:36.881091  9871 net.cpp:151] Top shape: 20 64 30 30 (1152000)
I0505 22:16:36.881095  9871 net.cpp:159] Memory required for data: 4680240
I0505 22:16:36.881105  9871 layer_factory.hpp:77] Creating layer relu1
I0505 22:16:36.881112  9871 net.cpp:94] Creating Layer relu1
I0505 22:16:36.881116  9871 net.cpp:435] relu1 <- conv1
I0505 22:16:36.881120  9871 net.cpp:396] relu1 -> conv1 (in-place)
I0505 22:16:36.881129  9871 net.cpp:144] Setting up relu1
I0505 22:16:36.881134  9871 net.cpp:151] Top shape: 20 64 30 30 (1152000)
I0505 22:16:36.881136  9871 net.cpp:159] Memory required for data: 9288240
I0505 22:16:36.881139  9871 layer_factory.hpp:77] Creating layer pool1
I0505 22:16:36.881145  9871 net.cpp:94] Creating Layer pool1
I0505 22:16:36.881150  9871 net.cpp:435] pool1 <- conv1
I0505 22:16:36.881153  9871 net.cpp:409] pool1 -> pool1
I0505 22:16:36.881207  9871 net.cpp:144] Setting up pool1
I0505 22:16:36.881214  9871 net.cpp:151] Top shape: 20 64 15 15 (288000)
I0505 22:16:36.881217  9871 net.cpp:159] Memory required for data: 10440240
I0505 22:16:36.881220  9871 layer_factory.hpp:77] Creating layer conv2
I0505 22:16:36.881229  9871 net.cpp:94] Creating Layer conv2
I0505 22:16:36.881232  9871 net.cpp:435] conv2 <- pool1
I0505 22:16:36.881237  9871 net.cpp:409] conv2 -> conv2
I0505 22:16:36.889807  9871 net.cpp:144] Setting up conv2
I0505 22:16:36.889822  9871 net.cpp:151] Top shape: 20 128 15 15 (576000)
I0505 22:16:36.889827  9871 net.cpp:159] Memory required for data: 12744240
I0505 22:16:36.889842  9871 layer_factory.hpp:77] Creating layer relu2
I0505 22:16:36.889847  9871 net.cpp:94] Creating Layer relu2
I0505 22:16:36.889852  9871 net.cpp:435] relu2 <- conv2
I0505 22:16:36.889855  9871 net.cpp:396] relu2 -> conv2 (in-place)
I0505 22:16:36.889863  9871 net.cpp:144] Setting up relu2
I0505 22:16:36.889868  9871 net.cpp:151] Top shape: 20 128 15 15 (576000)
I0505 22:16:36.889870  9871 net.cpp:159] Memory required for data: 15048240
I0505 22:16:36.889873  9871 layer_factory.hpp:77] Creating layer conv3
I0505 22:16:36.889881  9871 net.cpp:94] Creating Layer conv3
I0505 22:16:36.889884  9871 net.cpp:435] conv3 <- conv2
I0505 22:16:36.889889  9871 net.cpp:409] conv3 -> conv3
I0505 22:16:36.905438  9871 net.cpp:144] Setting up conv3
I0505 22:16:36.905455  9871 net.cpp:151] Top shape: 20 128 15 15 (576000)
I0505 22:16:36.905459  9871 net.cpp:159] Memory required for data: 17352240
I0505 22:16:36.905467  9871 layer_factory.hpp:77] Creating layer relu3
I0505 22:16:36.905475  9871 net.cpp:94] Creating Layer relu3
I0505 22:16:36.905478  9871 net.cpp:435] relu3 <- conv3
I0505 22:16:36.905483  9871 net.cpp:396] relu3 -> conv3 (in-place)
I0505 22:16:36.905490  9871 net.cpp:144] Setting up relu3
I0505 22:16:36.905495  9871 net.cpp:151] Top shape: 20 128 15 15 (576000)
I0505 22:16:36.905498  9871 net.cpp:159] Memory required for data: 19656240
I0505 22:16:36.905501  9871 layer_factory.hpp:77] Creating layer pool3
I0505 22:16:36.905506  9871 net.cpp:94] Creating Layer pool3
I0505 22:16:36.905509  9871 net.cpp:435] pool3 <- conv3
I0505 22:16:36.905514  9871 net.cpp:409] pool3 -> pool3
I0505 22:16:36.905552  9871 net.cpp:144] Setting up pool3
I0505 22:16:36.905560  9871 net.cpp:151] Top shape: 20 128 7 7 (125440)
I0505 22:16:36.905562  9871 net.cpp:159] Memory required for data: 20158000
I0505 22:16:36.905565  9871 layer_factory.hpp:77] Creating layer ip1
I0505 22:16:36.905572  9871 net.cpp:94] Creating Layer ip1
I0505 22:16:36.905575  9871 net.cpp:435] ip1 <- pool3
I0505 22:16:36.905580  9871 net.cpp:409] ip1 -> ip1
I0505 22:16:36.987174  9871 net.cpp:144] Setting up ip1
I0505 22:16:36.987207  9871 net.cpp:151] Top shape: 20 512 (10240)
I0505 22:16:36.987211  9871 net.cpp:159] Memory required for data: 20198960
I0505 22:16:36.987221  9871 layer_factory.hpp:77] Creating layer ip2
I0505 22:16:36.987231  9871 net.cpp:94] Creating Layer ip2
I0505 22:16:36.987236  9871 net.cpp:435] ip2 <- ip1
I0505 22:16:36.987241  9871 net.cpp:409] ip2 -> ip2
I0505 22:16:36.990581  9871 net.cpp:144] Setting up ip2
I0505 22:16:36.990594  9871 net.cpp:151] Top shape: 20 256 (5120)
I0505 22:16:36.990597  9871 net.cpp:159] Memory required for data: 20219440
I0505 22:16:36.990607  9871 layer_factory.hpp:77] Creating layer ip3
I0505 22:16:36.990613  9871 net.cpp:94] Creating Layer ip3
I0505 22:16:36.990617  9871 net.cpp:435] ip3 <- ip2
I0505 22:16:36.990622  9871 net.cpp:409] ip3 -> ip3
I0505 22:16:36.991065  9871 net.cpp:144] Setting up ip3
I0505 22:16:36.991071  9871 net.cpp:151] Top shape: 20 50 (1000)
I0505 22:16:36.991075  9871 net.cpp:159] Memory required for data: 20223440
I0505 22:16:36.991080  9871 layer_factory.hpp:77] Creating layer ip3_ip3_0_split
I0505 22:16:36.991086  9871 net.cpp:94] Creating Layer ip3_ip3_0_split
I0505 22:16:36.991088  9871 net.cpp:435] ip3_ip3_0_split <- ip3
I0505 22:16:36.991093  9871 net.cpp:409] ip3_ip3_0_split -> ip3_ip3_0_split_0
I0505 22:16:36.991098  9871 net.cpp:409] ip3_ip3_0_split -> ip3_ip3_0_split_1
I0505 22:16:36.991138  9871 net.cpp:144] Setting up ip3_ip3_0_split
I0505 22:16:36.991143  9871 net.cpp:151] Top shape: 20 50 (1000)
I0505 22:16:36.991147  9871 net.cpp:151] Top shape: 20 50 (1000)
I0505 22:16:36.991150  9871 net.cpp:159] Memory required for data: 20231440
I0505 22:16:36.991153  9871 layer_factory.hpp:77] Creating layer accuracy
I0505 22:16:36.991158  9871 net.cpp:94] Creating Layer accuracy
I0505 22:16:36.991161  9871 net.cpp:435] accuracy <- ip3_ip3_0_split_0
I0505 22:16:36.991165  9871 net.cpp:435] accuracy <- label_intercept_1_split_0
I0505 22:16:36.991169  9871 net.cpp:409] accuracy -> accuracy
…
