…
I0506 14:27:17.474258 22159 net.cpp:323] The NetState phase (0) differed from the phase (1) specified by a rule in layer intercept
I0506 14:27:17.474274 22159 net.cpp:323] The NetState phase (0) differed from the phase (1) specified by a rule in layer loss
I0506 14:27:17.474356 22159 net.cpp:52] Initializing net from parameters: 
state {
  phase: TRAIN
}
layer {
  name: "parameters"
  type: "HDF5Data"
  top: "data"
  top: "label"
  include {
    phase: TRAIN
  }
  hdf5_data_param {
    source: "/home/purduethu/scratch/radon/d/deng106/CNNStatisticalModel/distributions/input/50_distributions_100_sample_size_train-parameters-path.txt"
    batch_size: 20
  }
}
layer {
  name: "conv1"
  type: "Convolution"
  bottom: "data"
  top: "conv1"
  param {
    lr_mult: 1
  }
  param {
    lr_mult: 2
  }
  convolution_param {
    num_output: 64
    pad: 2
    kernel_size: 5
    stride: 1
    weight_filler {
      type: "gaussian"
      std: 0.0001
    }
    bias_filler {
      type: "constant"
    }
  }
}
layer {
  name: "relu1"
  type: "ReLU"
  bottom: "conv1"
  top: "conv1"
}
layer {
  name: "conv2"
  type: "Convolution"
  bottom: "conv1"
  top: "conv2"
  param {
    lr_mult: 1
  }
  param {
    lr_mult: 2
  }
  convolution_param {
    num_output: 64
    pad: 2
    kernel_size: 5
    stride: 1
    weight_filler {
      type: "gaussian"
      std: 0.01
    }
    bias_filler {
      type: "constant"
    }
  }
}
layer {
  name: "relu2"
  type: "ReLU"
  bottom: "conv2"
  top: "conv2"
}
layer {
  name: "pool2"
  type: "Pooling"
  bottom: "conv2"
  top: "pool2"
  pooling_param {
    pool: MAX
    kernel_size: 3
    stride: 2
  }
}
layer {
  name: "conv3"
  type: "Convolution"
  bottom: "pool2"
  top: "conv3"
  param {
    lr_mult: 1
  }
  param {
    lr_mult: 2
  }
  convolution_param {
    num_output: 128
    pad: 2
    kernel_size: 5
    stride: 1
    weight_filler {
      type: "gaussian"
      std: 0.01
    }
    bias_filler {
      type: "constant"
    }
  }
}
layer {
  name: "relu3"
  type: "ReLU"
  bottom: "conv3"
  top: "conv3"
}
layer {
  name: "conv4"
  type: "Convolution"
  bottom: "conv3"
  top: "conv4"
  param {
    lr_mult: 1
  }
  param {
    lr_mult: 2
  }
  convolution_param {
    num_output: 128
    pad: 2
    kernel_size: 5
    stride: 1
    weight_filler {
      type: "gaussian"
      std: 0.01
    }
    bias_filler {
      type: "constant"
    }
  }
}
layer {
  name: "relu4"
  type: "ReLU"
  bottom: "conv4"
  top: "conv4"
}
layer {
  name: "conv5"
  type: "Convolution"
  bottom: "conv4"
  top: "conv5"
  param {
    lr_mult: 1
  }
  param {
    lr_mult: 2
  }
  convolution_param {
    num_output: 128
    pad: 2
    kernel_size: 5
    stride: 1
    weight_filler {
      type: "gaussian"
      std: 0.01
    }
    bias_filler {
      type: "constant"
    }
  }
}
layer {
  name: "relu5"
  type: "ReLU"
  bottom: "conv5"
  top: "conv5"
}
layer {
  name: "pool5"
  type: "Pooling"
  bottom: "conv5"
  top: "pool5"
  pooling_param {
    pool: AVE
    kernel_size: 3
    stride: 2
  }
}
layer {
  name: "ip1"
  type: "InnerProduct"
  bottom: "pool5"
  top: "ip1"
  param {
    lr_mult: 1
  }
  param {
    lr_mult: 2
  }
  inner_product_param {
    num_output: 1024
    weight_filler {
      type: "gaussian"
      std: 0.1
    }
    bias_filler {
      type: "constant"
    }
  }
}
layer {
  name: "ip2"
  type: "InnerProduct"
  bottom: "ip1"
  top: "ip2"
  param {
    lr_mult: 1
  }
  param {
    lr_mult: 2
  }
  inner_product_param {
    num_output: 512
    weight_filler {
      type: "gaussian"
      std: 0.1
    }
    bias_filler {
      type: "constant"
    }
  }
}
layer {
  name: "ip3"
  type: "InnerProduct"
  bottom: "ip2"
  top: "ip3"
  param {
    lr_mult: 1
  }
  param {
    lr_mult: 2
  }
  inner_product_param {
    num_output: 1
    weight_filler {
      type: "gaussian"
      std: 0.1
    }
    bias_filler {
      type: "constant"
    }
  }
}
layer {
  name: "loss"
  type: "HuberLoss"
  bottom: "ip3"
  bottom: "label"
  top: "loss"
  include {
    phase: TRAIN
  }
}
I0506 14:27:17.474409 22159 layer_factory.hpp:77] Creating layer parameters
I0506 14:27:17.474422 22159 net.cpp:94] Creating Layer parameters
I0506 14:27:17.474426 22159 net.cpp:409] parameters -> data
I0506 14:27:17.474441 22159 net.cpp:409] parameters -> label
I0506 14:27:17.474447 22159 hdf5_data_layer.cpp:79] Loading list of HDF5 filenames from: /home/purduethu/scratch/radon/d/deng106/CNNStatisticalModel/distributions/input/50_distributions_100_sample_size_train-parameters-path.txt
I0506 14:27:17.474462 22159 hdf5_data_layer.cpp:93] Number of HDF5 files: 1
I0506 14:27:17.475002 22159 hdf5.cpp:32] Datatype class: H5T_FLOAT
I0506 14:27:17.635982 22159 net.cpp:144] Setting up parameters
I0506 14:27:17.636014 22159 net.cpp:151] Top shape: 20 1 10 10 (2000)
I0506 14:27:17.636019 22159 net.cpp:151] Top shape: 20 (20)
I0506 14:27:17.636023 22159 net.cpp:159] Memory required for data: 8080
I0506 14:27:17.636029 22159 layer_factory.hpp:77] Creating layer conv1
I0506 14:27:17.636045 22159 net.cpp:94] Creating Layer conv1
I0506 14:27:17.636049 22159 net.cpp:435] conv1 <- data
I0506 14:27:17.636056 22159 net.cpp:409] conv1 -> conv1
I0506 14:27:17.640398 22159 net.cpp:144] Setting up conv1
I0506 14:27:17.640419 22159 net.cpp:151] Top shape: 20 64 10 10 (128000)
I0506 14:27:17.640422 22159 net.cpp:159] Memory required for data: 520080
I0506 14:27:17.640432 22159 layer_factory.hpp:77] Creating layer relu1
I0506 14:27:17.640440 22159 net.cpp:94] Creating Layer relu1
I0506 14:27:17.640444 22159 net.cpp:435] relu1 <- conv1
I0506 14:27:17.640449 22159 net.cpp:396] relu1 -> conv1 (in-place)
I0506 14:27:17.640457 22159 net.cpp:144] Setting up relu1
I0506 14:27:17.640461 22159 net.cpp:151] Top shape: 20 64 10 10 (128000)
I0506 14:27:17.640465 22159 net.cpp:159] Memory required for data: 1032080
I0506 14:27:17.640467 22159 layer_factory.hpp:77] Creating layer conv2
I0506 14:27:17.640476 22159 net.cpp:94] Creating Layer conv2
I0506 14:27:17.640480 22159 net.cpp:435] conv2 <- conv1
I0506 14:27:17.640485 22159 net.cpp:409] conv2 -> conv2
I0506 14:27:17.646590 22159 net.cpp:144] Setting up conv2
I0506 14:27:17.646605 22159 net.cpp:151] Top shape: 20 64 10 10 (128000)
I0506 14:27:17.646608 22159 net.cpp:159] Memory required for data: 1544080
I0506 14:27:17.646617 22159 layer_factory.hpp:77] Creating layer relu2
I0506 14:27:17.646625 22159 net.cpp:94] Creating Layer relu2
I0506 14:27:17.646627 22159 net.cpp:435] relu2 <- conv2
I0506 14:27:17.646632 22159 net.cpp:396] relu2 -> conv2 (in-place)
I0506 14:27:17.646641 22159 net.cpp:144] Setting up relu2
I0506 14:27:17.646644 22159 net.cpp:151] Top shape: 20 64 10 10 (128000)
I0506 14:27:17.646647 22159 net.cpp:159] Memory required for data: 2056080
I0506 14:27:17.646651 22159 layer_factory.hpp:77] Creating layer pool2
I0506 14:27:17.646657 22159 net.cpp:94] Creating Layer pool2
I0506 14:27:17.646661 22159 net.cpp:435] pool2 <- conv2
I0506 14:27:17.646664 22159 net.cpp:409] pool2 -> pool2
I0506 14:27:17.646721 22159 net.cpp:144] Setting up pool2
I0506 14:27:17.646728 22159 net.cpp:151] Top shape: 20 64 5 5 (32000)
I0506 14:27:17.646731 22159 net.cpp:159] Memory required for data: 2184080
I0506 14:27:17.646734 22159 layer_factory.hpp:77] Creating layer conv3
I0506 14:27:17.646742 22159 net.cpp:94] Creating Layer conv3
I0506 14:27:17.646755 22159 net.cpp:435] conv3 <- pool2
I0506 14:27:17.646761 22159 net.cpp:409] conv3 -> conv3
I0506 14:27:17.654902 22159 net.cpp:144] Setting up conv3
I0506 14:27:17.654917 22159 net.cpp:151] Top shape: 20 128 5 5 (64000)
I0506 14:27:17.654920 22159 net.cpp:159] Memory required for data: 2440080
I0506 14:27:17.654929 22159 layer_factory.hpp:77] Creating layer relu3
I0506 14:27:17.654935 22159 net.cpp:94] Creating Layer relu3
I0506 14:27:17.654938 22159 net.cpp:435] relu3 <- conv3
I0506 14:27:17.654943 22159 net.cpp:396] relu3 -> conv3 (in-place)
I0506 14:27:17.654950 22159 net.cpp:144] Setting up relu3
I0506 14:27:17.654954 22159 net.cpp:151] Top shape: 20 128 5 5 (64000)
I0506 14:27:17.654958 22159 net.cpp:159] Memory required for data: 2696080
I0506 14:27:17.654960 22159 layer_factory.hpp:77] Creating layer conv4
I0506 14:27:17.654968 22159 net.cpp:94] Creating Layer conv4
I0506 14:27:17.654973 22159 net.cpp:435] conv4 <- conv3
I0506 14:27:17.654978 22159 net.cpp:409] conv4 -> conv4
I0506 14:27:17.669900 22159 net.cpp:144] Setting up conv4
I0506 14:27:17.669916 22159 net.cpp:151] Top shape: 20 128 5 5 (64000)
I0506 14:27:17.669919 22159 net.cpp:159] Memory required for data: 2952080
I0506 14:27:17.669926 22159 layer_factory.hpp:77] Creating layer relu4
I0506 14:27:17.669932 22159 net.cpp:94] Creating Layer relu4
I0506 14:27:17.669935 22159 net.cpp:435] relu4 <- conv4
I0506 14:27:17.669940 22159 net.cpp:396] relu4 -> conv4 (in-place)
I0506 14:27:17.669947 22159 net.cpp:144] Setting up relu4
I0506 14:27:17.669952 22159 net.cpp:151] Top shape: 20 128 5 5 (64000)
I0506 14:27:17.669955 22159 net.cpp:159] Memory required for data: 3208080
I0506 14:27:17.669958 22159 layer_factory.hpp:77] Creating layer conv5
I0506 14:27:17.669966 22159 net.cpp:94] Creating Layer conv5
I0506 14:27:17.669970 22159 net.cpp:435] conv5 <- conv4
I0506 14:27:17.669975 22159 net.cpp:409] conv5 -> conv5
I0506 14:27:17.684342 22159 net.cpp:144] Setting up conv5
I0506 14:27:17.684356 22159 net.cpp:151] Top shape: 20 128 5 5 (64000)
I0506 14:27:17.684360 22159 net.cpp:159] Memory required for data: 3464080
I0506 14:27:17.684370 22159 layer_factory.hpp:77] Creating layer relu5
I0506 14:27:17.684376 22159 net.cpp:94] Creating Layer relu5
I0506 14:27:17.684379 22159 net.cpp:435] relu5 <- conv5
I0506 14:27:17.684383 22159 net.cpp:396] relu5 -> conv5 (in-place)
I0506 14:27:17.684391 22159 net.cpp:144] Setting up relu5
I0506 14:27:17.684396 22159 net.cpp:151] Top shape: 20 128 5 5 (64000)
I0506 14:27:17.684398 22159 net.cpp:159] Memory required for data: 3720080
I0506 14:27:17.684401 22159 layer_factory.hpp:77] Creating layer pool5
I0506 14:27:17.684407 22159 net.cpp:94] Creating Layer pool5
I0506 14:27:17.684411 22159 net.cpp:435] pool5 <- conv5
I0506 14:27:17.684414 22159 net.cpp:409] pool5 -> pool5
I0506 14:27:17.684456 22159 net.cpp:144] Setting up pool5
I0506 14:27:17.684463 22159 net.cpp:151] Top shape: 20 128 2 2 (10240)
I0506 14:27:17.684466 22159 net.cpp:159] Memory required for data: 3761040
I0506 14:27:17.684469 22159 layer_factory.hpp:77] Creating layer ip1
I0506 14:27:17.684479 22159 net.cpp:94] Creating Layer ip1
I0506 14:27:17.684484 22159 net.cpp:435] ip1 <- pool5
I0506 14:27:17.684487 22159 net.cpp:409] ip1 -> ip1
I0506 14:27:17.698487 22159 net.cpp:144] Setting up ip1
I0506 14:27:17.698508 22159 net.cpp:151] Top shape: 20 1024 (20480)
I0506 14:27:17.698511 22159 net.cpp:159] Memory required for data: 3842960
I0506 14:27:17.698518 22159 layer_factory.hpp:77] Creating layer ip2
I0506 14:27:17.698528 22159 net.cpp:94] Creating Layer ip2
I0506 14:27:17.698531 22159 net.cpp:435] ip2 <- ip1
I0506 14:27:17.698536 22159 net.cpp:409] ip2 -> ip2
I0506 14:27:17.711617 22159 net.cpp:144] Setting up ip2
I0506 14:27:17.711634 22159 net.cpp:151] Top shape: 20 512 (10240)
I0506 14:27:17.711638 22159 net.cpp:159] Memory required for data: 3883920
I0506 14:27:17.711644 22159 layer_factory.hpp:77] Creating layer ip3
I0506 14:27:17.711652 22159 net.cpp:94] Creating Layer ip3
I0506 14:27:17.711654 22159 net.cpp:435] ip3 <- ip2
I0506 14:27:17.711666 22159 net.cpp:409] ip3 -> ip3
I0506 14:27:17.711787 22159 net.cpp:144] Setting up ip3
I0506 14:27:17.711794 22159 net.cpp:151] Top shape: 20 1 (20)
I0506 14:27:17.711797 22159 net.cpp:159] Memory required for data: 3884000
I0506 14:27:17.711802 22159 layer_factory.hpp:77] Creating layer loss
I0506 14:27:17.711817 22159 net.cpp:94] Creating Layer loss
I0506 14:27:17.711819 22159 net.cpp:435] loss <- ip3
I0506 14:27:17.711823 22159 net.cpp:435] loss <- label
I0506 14:27:17.711828 22159 net.cpp:409] loss -> loss
I0506 14:27:17.711880 22159 net.cpp:144] Setting up loss
…
I0506 14:27:17.818943 22159 net.cpp:323] The NetState phase (0) differed from the phase (1) specified by a rule in layer intercept
I0506 14:27:17.818960 22159 net.cpp:323] The NetState phase (0) differed from the phase (1) specified by a rule in layer accuracy
I0506 14:27:17.819047 22159 net.cpp:52] Initializing net from parameters: 
state {
  phase: TRAIN
}
layer {
  name: "parameters"
  type: "HDF5Data"
  top: "data"
  top: "label"
  include {
    phase: TRAIN
  }
  hdf5_data_param {
    source: "/home/purduethu/scratch/radon/d/deng106/CNNStatisticalModel/distributions/input/50_distributions_100_sample_size_train-distributions-path.txt"
    batch_size: 20
  }
}
layer {
  name: "conv1"
  type: "Convolution"
  bottom: "data"
  top: "conv1"
  param {
    lr_mult: 1
  }
  param {
    lr_mult: 2
  }
  convolution_param {
    num_output: 64
    pad: 2
    kernel_size: 5
    stride: 1
    weight_filler {
      type: "gaussian"
      std: 0.0001
    }
    bias_filler {
      type: "constant"
    }
  }
}
layer {
  name: "relu1"
  type: "ReLU"
  bottom: "conv1"
  top: "conv1"
}
layer {
  name: "conv2"
  type: "Convolution"
  bottom: "conv1"
  top: "conv2"
  param {
    lr_mult: 1
  }
  param {
    lr_mult: 2
  }
  convolution_param {
    num_output: 64
    pad: 2
    kernel_size: 5
    stride: 1
    weight_filler {
      type: "gaussian"
      std: 0.01
    }
    bias_filler {
      type: "constant"
    }
  }
}
layer {
  name: "relu2"
  type: "ReLU"
  bottom: "conv2"
  top: "conv2"
}
layer {
  name: "pool2"
  type: "Pooling"
  bottom: "conv2"
  top: "pool2"
  pooling_param {
    pool: MAX
    kernel_size: 3
    stride: 2
  }
}
layer {
  name: "conv3"
  type: "Convolution"
  bottom: "pool2"
  top: "conv3"
  param {
    lr_mult: 1
  }
  param {
    lr_mult: 2
  }
  convolution_param {
    num_output: 128
    pad: 2
    kernel_size: 5
    stride: 1
    weight_filler {
      type: "gaussian"
      std: 0.01
    }
    bias_filler {
      type: "constant"
    }
  }
}
layer {
  name: "relu3"
  type: "ReLU"
  bottom: "conv3"
  top: "conv3"
}
layer {
  name: "conv4"
  type: "Convolution"
  bottom: "conv3"
  top: "conv4"
  param {
    lr_mult: 1
  }
  param {
    lr_mult: 2
  }
  convolution_param {
    num_output: 128
    pad: 2
    kernel_size: 5
    stride: 1
    weight_filler {
      type: "gaussian"
      std: 0.01
    }
    bias_filler {
      type: "constant"
    }
  }
}
layer {
  name: "relu4"
  type: "ReLU"
  bottom: "conv4"
  top: "conv4"
}
layer {
  name: "conv5"
  type: "Convolution"
  bottom: "conv4"
  top: "conv5"
  param {
    lr_mult: 1
  }
  param {
    lr_mult: 2
  }
  convolution_param {
    num_output: 128
    pad: 2
    kernel_size: 5
    stride: 1
    weight_filler {
      type: "gaussian"
      std: 0.01
    }
    bias_filler {
      type: "constant"
    }
  }
}
layer {
  name: "relu5"
  type: "ReLU"
  bottom: "conv5"
  top: "conv5"
}
layer {
  name: "pool5"
  type: "Pooling"
  bottom: "conv5"
  top: "pool5"
  pooling_param {
    pool: AVE
    kernel_size: 3
    stride: 2
  }
}
layer {
  name: "ip1"
  type: "InnerProduct"
  bottom: "pool5"
  top: "ip1"
  param {
    lr_mult: 1
  }
  param {
    lr_mult: 2
  }
  inner_product_param {
    num_output: 1024
    weight_filler {
      type: "gaussian"
      std: 0.1
    }
    bias_filler {
      type: "constant"
    }
  }
}
layer {
  name: "ip2"
  type: "InnerProduct"
  bottom: "ip1"
  top: "ip2"
  param {
    lr_mult: 1
  }
  param {
    lr_mult: 2
  }
  inner_product_param {
    num_output: 512
    weight_filler {
      type: "gaussian"
      std: 0.1
    }
    bias_filler {
      type: "constant"
    }
  }
}
layer {
  name: "ip3"
  type: "InnerProduct"
  bottom: "ip2"
  top: "ip3"
  param {
    lr_mult: 1
  }
  param {
    lr_mult: 2
  }
  inner_product_param {
    num_output: 50
    weight_filler {
      type: "gaussian"
      std: 0.1
    }
    bias_filler {
      type: "constant"
    }
  }
}
layer {
  name: "loss"
  type: "SoftmaxWithLoss"
  bottom: "ip3"
  bottom: "label"
  top: "loss"
}
I0506 14:27:17.819098 22159 layer_factory.hpp:77] Creating layer parameters
I0506 14:27:17.819106 22159 net.cpp:94] Creating Layer parameters
I0506 14:27:17.819110 22159 net.cpp:409] parameters -> data
I0506 14:27:17.819116 22159 net.cpp:409] parameters -> label
I0506 14:27:17.819123 22159 hdf5_data_layer.cpp:79] Loading list of HDF5 filenames from: /home/purduethu/scratch/radon/d/deng106/CNNStatisticalModel/distributions/input/50_distributions_100_sample_size_train-distributions-path.txt
I0506 14:27:17.819139 22159 hdf5_data_layer.cpp:93] Number of HDF5 files: 1
I0506 14:27:17.975486 22159 hdf5.cpp:35] Datatype class: H5T_INTEGER
I0506 14:27:17.978540 22159 net.cpp:144] Setting up parameters
I0506 14:27:17.978564 22159 net.cpp:151] Top shape: 20 1 10 10 (2000)
I0506 14:27:17.978569 22159 net.cpp:151] Top shape: 20 (20)
I0506 14:27:17.978574 22159 net.cpp:159] Memory required for data: 8080
I0506 14:27:17.978579 22159 layer_factory.hpp:77] Creating layer conv1
I0506 14:27:17.978596 22159 net.cpp:94] Creating Layer conv1
I0506 14:27:17.978601 22159 net.cpp:435] conv1 <- data
I0506 14:27:17.978607 22159 net.cpp:409] conv1 -> conv1
I0506 14:27:17.980460 22159 net.cpp:144] Setting up conv1
I0506 14:27:17.980476 22159 net.cpp:151] Top shape: 20 64 10 10 (128000)
I0506 14:27:17.980479 22159 net.cpp:159] Memory required for data: 520080
I0506 14:27:17.980489 22159 layer_factory.hpp:77] Creating layer relu1
I0506 14:27:17.980497 22159 net.cpp:94] Creating Layer relu1
I0506 14:27:17.980501 22159 net.cpp:435] relu1 <- conv1
I0506 14:27:17.980505 22159 net.cpp:396] relu1 -> conv1 (in-place)
I0506 14:27:17.980514 22159 net.cpp:144] Setting up relu1
I0506 14:27:17.980518 22159 net.cpp:151] Top shape: 20 64 10 10 (128000)
I0506 14:27:17.980521 22159 net.cpp:159] Memory required for data: 1032080
I0506 14:27:17.980523 22159 layer_factory.hpp:77] Creating layer conv2
I0506 14:27:17.980531 22159 net.cpp:94] Creating Layer conv2
I0506 14:27:17.980535 22159 net.cpp:435] conv2 <- conv1
I0506 14:27:17.980540 22159 net.cpp:409] conv2 -> conv2
I0506 14:27:17.985955 22159 net.cpp:144] Setting up conv2
I0506 14:27:17.985970 22159 net.cpp:151] Top shape: 20 64 10 10 (128000)
I0506 14:27:17.985972 22159 net.cpp:159] Memory required for data: 1544080
I0506 14:27:17.985980 22159 layer_factory.hpp:77] Creating layer relu2
I0506 14:27:17.985987 22159 net.cpp:94] Creating Layer relu2
I0506 14:27:17.985991 22159 net.cpp:435] relu2 <- conv2
I0506 14:27:17.985996 22159 net.cpp:396] relu2 -> conv2 (in-place)
I0506 14:27:17.986002 22159 net.cpp:144] Setting up relu2
I0506 14:27:17.986006 22159 net.cpp:151] Top shape: 20 64 10 10 (128000)
I0506 14:27:17.986009 22159 net.cpp:159] Memory required for data: 2056080
I0506 14:27:17.986012 22159 layer_factory.hpp:77] Creating layer pool2
I0506 14:27:17.986018 22159 net.cpp:94] Creating Layer pool2
I0506 14:27:17.986021 22159 net.cpp:435] pool2 <- conv2
I0506 14:27:17.986026 22159 net.cpp:409] pool2 -> pool2
I0506 14:27:17.986083 22159 net.cpp:144] Setting up pool2
I0506 14:27:17.986090 22159 net.cpp:151] Top shape: 20 64 5 5 (32000)
I0506 14:27:17.986093 22159 net.cpp:159] Memory required for data: 2184080
I0506 14:27:17.986096 22159 layer_factory.hpp:77] Creating layer conv3
I0506 14:27:17.986104 22159 net.cpp:94] Creating Layer conv3
I0506 14:27:17.986107 22159 net.cpp:435] conv3 <- pool2
I0506 14:27:17.986112 22159 net.cpp:409] conv3 -> conv3
I0506 14:27:17.994856 22159 net.cpp:144] Setting up conv3
I0506 14:27:17.994871 22159 net.cpp:151] Top shape: 20 128 5 5 (64000)
I0506 14:27:17.994875 22159 net.cpp:159] Memory required for data: 2440080
I0506 14:27:17.994884 22159 layer_factory.hpp:77] Creating layer relu3
I0506 14:27:17.994889 22159 net.cpp:94] Creating Layer relu3
I0506 14:27:17.994892 22159 net.cpp:435] relu3 <- conv3
I0506 14:27:17.994897 22159 net.cpp:396] relu3 -> conv3 (in-place)
I0506 14:27:17.994910 22159 net.cpp:144] Setting up relu3
I0506 14:27:17.994915 22159 net.cpp:151] Top shape: 20 128 5 5 (64000)
I0506 14:27:17.994918 22159 net.cpp:159] Memory required for data: 2696080
I0506 14:27:17.994921 22159 layer_factory.hpp:77] Creating layer conv4
I0506 14:27:17.994930 22159 net.cpp:94] Creating Layer conv4
I0506 14:27:17.994933 22159 net.cpp:435] conv4 <- conv3
I0506 14:27:17.994938 22159 net.cpp:409] conv4 -> conv4
I0506 14:27:18.009709 22159 net.cpp:144] Setting up conv4
I0506 14:27:18.009727 22159 net.cpp:151] Top shape: 20 128 5 5 (64000)
I0506 14:27:18.009732 22159 net.cpp:159] Memory required for data: 2952080
I0506 14:27:18.009738 22159 layer_factory.hpp:77] Creating layer relu4
I0506 14:27:18.009744 22159 net.cpp:94] Creating Layer relu4
I0506 14:27:18.009747 22159 net.cpp:435] relu4 <- conv4
I0506 14:27:18.009752 22159 net.cpp:396] relu4 -> conv4 (in-place)
I0506 14:27:18.009759 22159 net.cpp:144] Setting up relu4
I0506 14:27:18.009764 22159 net.cpp:151] Top shape: 20 128 5 5 (64000)
I0506 14:27:18.009766 22159 net.cpp:159] Memory required for data: 3208080
I0506 14:27:18.009769 22159 layer_factory.hpp:77] Creating layer conv5
I0506 14:27:18.009778 22159 net.cpp:94] Creating Layer conv5
I0506 14:27:18.009781 22159 net.cpp:435] conv5 <- conv4
I0506 14:27:18.009786 22159 net.cpp:409] conv5 -> conv5
I0506 14:27:18.024647 22159 net.cpp:144] Setting up conv5
I0506 14:27:18.024664 22159 net.cpp:151] Top shape: 20 128 5 5 (64000)
I0506 14:27:18.024668 22159 net.cpp:159] Memory required for data: 3464080
I0506 14:27:18.024677 22159 layer_factory.hpp:77] Creating layer relu5
I0506 14:27:18.024684 22159 net.cpp:94] Creating Layer relu5
I0506 14:27:18.024688 22159 net.cpp:435] relu5 <- conv5
I0506 14:27:18.024693 22159 net.cpp:396] relu5 -> conv5 (in-place)
I0506 14:27:18.024699 22159 net.cpp:144] Setting up relu5
I0506 14:27:18.024704 22159 net.cpp:151] Top shape: 20 128 5 5 (64000)
I0506 14:27:18.024708 22159 net.cpp:159] Memory required for data: 3720080
I0506 14:27:18.024709 22159 layer_factory.hpp:77] Creating layer pool5
I0506 14:27:18.024715 22159 net.cpp:94] Creating Layer pool5
I0506 14:27:18.024718 22159 net.cpp:435] pool5 <- conv5
I0506 14:27:18.024722 22159 net.cpp:409] pool5 -> pool5
I0506 14:27:18.024765 22159 net.cpp:144] Setting up pool5
I0506 14:27:18.024771 22159 net.cpp:151] Top shape: 20 128 2 2 (10240)
I0506 14:27:18.024775 22159 net.cpp:159] Memory required for data: 3761040
I0506 14:27:18.024777 22159 layer_factory.hpp:77] Creating layer ip1
I0506 14:27:18.024785 22159 net.cpp:94] Creating Layer ip1
I0506 14:27:18.024788 22159 net.cpp:435] ip1 <- pool5
I0506 14:27:18.024793 22159 net.cpp:409] ip1 -> ip1
I0506 14:27:18.037870 22159 net.cpp:144] Setting up ip1
I0506 14:27:18.037886 22159 net.cpp:151] Top shape: 20 1024 (20480)
I0506 14:27:18.037889 22159 net.cpp:159] Memory required for data: 3842960
I0506 14:27:18.037896 22159 layer_factory.hpp:77] Creating layer ip2
I0506 14:27:18.037904 22159 net.cpp:94] Creating Layer ip2
I0506 14:27:18.037907 22159 net.cpp:435] ip2 <- ip1
I0506 14:27:18.037914 22159 net.cpp:409] ip2 -> ip2
I0506 14:27:18.051017 22159 net.cpp:144] Setting up ip2
I0506 14:27:18.051046 22159 net.cpp:151] Top shape: 20 512 (10240)
I0506 14:27:18.051051 22159 net.cpp:159] Memory required for data: 3883920
I0506 14:27:18.051059 22159 layer_factory.hpp:77] Creating layer ip3
I0506 14:27:18.051066 22159 net.cpp:94] Creating Layer ip3
I0506 14:27:18.051074 22159 net.cpp:435] ip3 <- ip2
I0506 14:27:18.051080 22159 net.cpp:409] ip3 -> ip3
I0506 14:27:18.052691 22159 net.cpp:144] Setting up ip3
I0506 14:27:18.052707 22159 net.cpp:151] Top shape: 20 50 (1000)
I0506 14:27:18.052712 22159 net.cpp:159] Memory required for data: 3887920
I0506 14:27:18.052718 22159 layer_factory.hpp:77] Creating layer loss
I0506 14:27:18.052726 22159 net.cpp:94] Creating Layer loss
I0506 14:27:18.052731 22159 net.cpp:435] loss <- ip3
I0506 14:27:18.052734 22159 net.cpp:435] loss <- label
I0506 14:27:18.052739 22159 net.cpp:409] loss -> loss
I0506 14:27:18.052748 22159 layer_factory.hpp:77] Creating layer loss
…
I0506 14:27:18.053292 22159 solver.cpp:181] Creating test net (#0) specified by net file: ./protocol/dis_50_100_dimension.protocol_distribution
I0506 14:27:18.053318 22159 net.cpp:323] The NetState phase (1) differed from the phase (0) specified by a rule in layer parameters
I0506 14:27:18.053417 22159 net.cpp:52] Initializing net from parameters: 
state {
  phase: TEST
}
layer {
  name: "intercept"
  type: "HDF5Data"
  top: "data"
  top: "label"
  include {
    phase: TEST
  }
  hdf5_data_param {
    source: "/home/purduethu/scratch/radon/d/deng106/CNNStatisticalModel/distributions/input/50_distributions_100_sample_size_test-distributions-path.txt"
    batch_size: 20
  }
}
layer {
  name: "conv1"
  type: "Convolution"
  bottom: "data"
  top: "conv1"
  param {
    lr_mult: 1
  }
  param {
    lr_mult: 2
  }
  convolution_param {
    num_output: 64
    pad: 2
    kernel_size: 5
    stride: 1
    weight_filler {
      type: "gaussian"
      std: 0.0001
    }
    bias_filler {
      type: "constant"
    }
  }
}
layer {
  name: "relu1"
  type: "ReLU"
  bottom: "conv1"
  top: "conv1"
}
layer {
  name: "conv2"
  type: "Convolution"
  bottom: "conv1"
  top: "conv2"
  param {
    lr_mult: 1
  }
  param {
    lr_mult: 2
  }
  convolution_param {
    num_output: 64
    pad: 2
    kernel_size: 5
    stride: 1
    weight_filler {
      type: "gaussian"
      std: 0.01
    }
    bias_filler {
      type: "constant"
    }
  }
}
layer {
  name: "relu2"
  type: "ReLU"
  bottom: "conv2"
  top: "conv2"
}
layer {
  name: "pool2"
  type: "Pooling"
  bottom: "conv2"
  top: "pool2"
  pooling_param {
    pool: MAX
    kernel_size: 3
    stride: 2
  }
}
layer {
  name: "conv3"
  type: "Convolution"
  bottom: "pool2"
  top: "conv3"
  param {
    lr_mult: 1
  }
  param {
    lr_mult: 2
  }
  convolution_param {
    num_output: 128
    pad: 2
    kernel_size: 5
    stride: 1
    weight_filler {
      type: "gaussian"
      std: 0.01
    }
    bias_filler {
      type: "constant"
    }
  }
}
layer {
  name: "relu3"
  type: "ReLU"
  bottom: "conv3"
  top: "conv3"
}
layer {
  name: "conv4"
  type: "Convolution"
  bottom: "conv3"
  top: "conv4"
  param {
    lr_mult: 1
  }
  param {
    lr_mult: 2
  }
  convolution_param {
    num_output: 128
    pad: 2
    kernel_size: 5
    stride: 1
    weight_filler {
      type: "gaussian"
      std: 0.01
    }
    bias_filler {
      type: "constant"
    }
  }
}
layer {
  name: "relu4"
  type: "ReLU"
  bottom: "conv4"
  top: "conv4"
}
layer {
  name: "conv5"
  type: "Convolution"
  bottom: "conv4"
  top: "conv5"
  param {
    lr_mult: 1
  }
  param {
    lr_mult: 2
  }
  convolution_param {
    num_output: 128
    pad: 2
    kernel_size: 5
    stride: 1
    weight_filler {
      type: "gaussian"
      std: 0.01
    }
    bias_filler {
      type: "constant"
    }
  }
}
layer {
  name: "relu5"
  type: "ReLU"
  bottom: "conv5"
  top: "conv5"
}
layer {
  name: "pool5"
  type: "Pooling"
  bottom: "conv5"
  top: "pool5"
  pooling_param {
    pool: AVE
    kernel_size: 3
    stride: 2
  }
}
layer {
  name: "ip1"
  type: "InnerProduct"
  bottom: "pool5"
  top: "ip1"
  param {
    lr_mult: 1
  }
  param {
    lr_mult: 2
  }
  inner_product_param {
    num_output: 1024
    weight_filler {
      type: "gaussian"
      std: 0.1
    }
    bias_filler {
      type: "constant"
    }
  }
}
layer {
  name: "ip2"
  type: "InnerProduct"
  bottom: "ip1"
  top: "ip2"
  param {
    lr_mult: 1
  }
  param {
    lr_mult: 2
  }
  inner_product_param {
    num_output: 512
    weight_filler {
      type: "gaussian"
      std: 0.1
    }
    bias_filler {
      type: "constant"
    }
  }
}
layer {
  name: "ip3"
  type: "InnerProduct"
  bottom: "ip2"
  top: "ip3"
  param {
    lr_mult: 1
  }
  param {
    lr_mult: 2
  }
  inner_product_param {
    num_output: 50
    weight_filler {
      type: "gaussian"
      std: 0.1
    }
    bias_filler {
      type: "constant"
    }
  }
}
layer {
  name: "accuracy"
  type: "Accuracy"
  bottom: "ip3"
  bottom: "label"
  top: "accuracy"
  include {
    phase: TEST
  }
}
layer {
  name: "loss"
  type: "SoftmaxWithLoss"
  bottom: "ip3"
  bottom: "label"
  top: "loss"
}
I0506 14:27:18.053481 22159 layer_factory.hpp:77] Creating layer intercept
I0506 14:27:18.053489 22159 net.cpp:94] Creating Layer intercept
I0506 14:27:18.053493 22159 net.cpp:409] intercept -> data
I0506 14:27:18.053500 22159 net.cpp:409] intercept -> label
I0506 14:27:18.053506 22159 hdf5_data_layer.cpp:79] Loading list of HDF5 filenames from: /home/purduethu/scratch/radon/d/deng106/CNNStatisticalModel/distributions/input/50_distributions_100_sample_size_test-distributions-path.txt
I0506 14:27:18.053525 22159 hdf5_data_layer.cpp:93] Number of HDF5 files: 1
I0506 14:27:18.094835 22159 net.cpp:144] Setting up intercept
I0506 14:27:18.094868 22159 net.cpp:151] Top shape: 20 1 10 10 (2000)
I0506 14:27:18.094873 22159 net.cpp:151] Top shape: 20 (20)
I0506 14:27:18.094877 22159 net.cpp:159] Memory required for data: 8080
I0506 14:27:18.094882 22159 layer_factory.hpp:77] Creating layer label_intercept_1_split
I0506 14:27:18.094902 22159 net.cpp:94] Creating Layer label_intercept_1_split
I0506 14:27:18.094907 22159 net.cpp:435] label_intercept_1_split <- label
I0506 14:27:18.094911 22159 net.cpp:409] label_intercept_1_split -> label_intercept_1_split_0
I0506 14:27:18.094921 22159 net.cpp:409] label_intercept_1_split -> label_intercept_1_split_1
I0506 14:27:18.094966 22159 net.cpp:144] Setting up label_intercept_1_split
I0506 14:27:18.094974 22159 net.cpp:151] Top shape: 20 (20)
I0506 14:27:18.094977 22159 net.cpp:151] Top shape: 20 (20)
I0506 14:27:18.094980 22159 net.cpp:159] Memory required for data: 8240
I0506 14:27:18.094983 22159 layer_factory.hpp:77] Creating layer conv1
I0506 14:27:18.094995 22159 net.cpp:94] Creating Layer conv1
I0506 14:27:18.094998 22159 net.cpp:435] conv1 <- data
I0506 14:27:18.095003 22159 net.cpp:409] conv1 -> conv1
I0506 14:27:18.095881 22159 net.cpp:144] Setting up conv1
I0506 14:27:18.095897 22159 net.cpp:151] Top shape: 20 64 10 10 (128000)
I0506 14:27:18.095901 22159 net.cpp:159] Memory required for data: 520240
I0506 14:27:18.095911 22159 layer_factory.hpp:77] Creating layer relu1
I0506 14:27:18.095917 22159 net.cpp:94] Creating Layer relu1
I0506 14:27:18.095921 22159 net.cpp:435] relu1 <- conv1
I0506 14:27:18.095926 22159 net.cpp:396] relu1 -> conv1 (in-place)
I0506 14:27:18.095932 22159 net.cpp:144] Setting up relu1
I0506 14:27:18.095937 22159 net.cpp:151] Top shape: 20 64 10 10 (128000)
I0506 14:27:18.095947 22159 net.cpp:159] Memory required for data: 1032240
I0506 14:27:18.095950 22159 layer_factory.hpp:77] Creating layer conv2
I0506 14:27:18.095958 22159 net.cpp:94] Creating Layer conv2
I0506 14:27:18.095962 22159 net.cpp:435] conv2 <- conv1
I0506 14:27:18.095966 22159 net.cpp:409] conv2 -> conv2
I0506 14:27:18.100069 22159 net.cpp:144] Setting up conv2
I0506 14:27:18.100082 22159 net.cpp:151] Top shape: 20 64 10 10 (128000)
I0506 14:27:18.100085 22159 net.cpp:159] Memory required for data: 1544240
I0506 14:27:18.100093 22159 layer_factory.hpp:77] Creating layer relu2
I0506 14:27:18.100100 22159 net.cpp:94] Creating Layer relu2
I0506 14:27:18.100105 22159 net.cpp:435] relu2 <- conv2
I0506 14:27:18.100108 22159 net.cpp:396] relu2 -> conv2 (in-place)
I0506 14:27:18.100116 22159 net.cpp:144] Setting up relu2
I0506 14:27:18.100121 22159 net.cpp:151] Top shape: 20 64 10 10 (128000)
I0506 14:27:18.100122 22159 net.cpp:159] Memory required for data: 2056240
I0506 14:27:18.100126 22159 layer_factory.hpp:77] Creating layer pool2
I0506 14:27:18.100132 22159 net.cpp:94] Creating Layer pool2
I0506 14:27:18.100136 22159 net.cpp:435] pool2 <- conv2
I0506 14:27:18.100141 22159 net.cpp:409] pool2 -> pool2
I0506 14:27:18.100199 22159 net.cpp:144] Setting up pool2
I0506 14:27:18.100206 22159 net.cpp:151] Top shape: 20 64 5 5 (32000)
I0506 14:27:18.100208 22159 net.cpp:159] Memory required for data: 2184240
I0506 14:27:18.100213 22159 layer_factory.hpp:77] Creating layer conv3
I0506 14:27:18.100220 22159 net.cpp:94] Creating Layer conv3
I0506 14:27:18.100224 22159 net.cpp:435] conv3 <- pool2
I0506 14:27:18.100229 22159 net.cpp:409] conv3 -> conv3
I0506 14:27:18.106329 22159 net.cpp:144] Setting up conv3
I0506 14:27:18.106343 22159 net.cpp:151] Top shape: 20 128 5 5 (64000)
I0506 14:27:18.106346 22159 net.cpp:159] Memory required for data: 2440240
I0506 14:27:18.106354 22159 layer_factory.hpp:77] Creating layer relu3
I0506 14:27:18.106362 22159 net.cpp:94] Creating Layer relu3
I0506 14:27:18.106366 22159 net.cpp:435] relu3 <- conv3
I0506 14:27:18.106370 22159 net.cpp:396] relu3 -> conv3 (in-place)
I0506 14:27:18.106379 22159 net.cpp:144] Setting up relu3
I0506 14:27:18.106382 22159 net.cpp:151] Top shape: 20 128 5 5 (64000)
I0506 14:27:18.106385 22159 net.cpp:159] Memory required for data: 2696240
I0506 14:27:18.106389 22159 layer_factory.hpp:77] Creating layer conv4
I0506 14:27:18.106395 22159 net.cpp:94] Creating Layer conv4
I0506 14:27:18.106398 22159 net.cpp:435] conv4 <- conv3
I0506 14:27:18.106405 22159 net.cpp:409] conv4 -> conv4
I0506 14:27:18.119102 22159 net.cpp:144] Setting up conv4
I0506 14:27:18.119117 22159 net.cpp:151] Top shape: 20 128 5 5 (64000)
I0506 14:27:18.119122 22159 net.cpp:159] Memory required for data: 2952240
I0506 14:27:18.119127 22159 layer_factory.hpp:77] Creating layer relu4
I0506 14:27:18.119133 22159 net.cpp:94] Creating Layer relu4
I0506 14:27:18.119137 22159 net.cpp:435] relu4 <- conv4
I0506 14:27:18.119141 22159 net.cpp:396] relu4 -> conv4 (in-place)
I0506 14:27:18.119148 22159 net.cpp:144] Setting up relu4
I0506 14:27:18.119153 22159 net.cpp:151] Top shape: 20 128 5 5 (64000)
I0506 14:27:18.119155 22159 net.cpp:159] Memory required for data: 3208240
I0506 14:27:18.119158 22159 layer_factory.hpp:77] Creating layer conv5
I0506 14:27:18.119168 22159 net.cpp:94] Creating Layer conv5
I0506 14:27:18.119171 22159 net.cpp:435] conv5 <- conv4
I0506 14:27:18.119175 22159 net.cpp:409] conv5 -> conv5
I0506 14:27:18.131886 22159 net.cpp:144] Setting up conv5
I0506 14:27:18.131909 22159 net.cpp:151] Top shape: 20 128 5 5 (64000)
I0506 14:27:18.131914 22159 net.cpp:159] Memory required for data: 3464240
I0506 14:27:18.131930 22159 layer_factory.hpp:77] Creating layer relu5
I0506 14:27:18.131940 22159 net.cpp:94] Creating Layer relu5
I0506 14:27:18.131945 22159 net.cpp:435] relu5 <- conv5
I0506 14:27:18.131954 22159 net.cpp:396] relu5 -> conv5 (in-place)
I0506 14:27:18.131965 22159 net.cpp:144] Setting up relu5
I0506 14:27:18.131973 22159 net.cpp:151] Top shape: 20 128 5 5 (64000)
I0506 14:27:18.131984 22159 net.cpp:159] Memory required for data: 3720240
I0506 14:27:18.131989 22159 layer_factory.hpp:77] Creating layer pool5
I0506 14:27:18.131999 22159 net.cpp:94] Creating Layer pool5
I0506 14:27:18.132004 22159 net.cpp:435] pool5 <- conv5
I0506 14:27:18.132010 22159 net.cpp:409] pool5 -> pool5
I0506 14:27:18.132083 22159 net.cpp:144] Setting up pool5
I0506 14:27:18.132091 22159 net.cpp:151] Top shape: 20 128 2 2 (10240)
I0506 14:27:18.132093 22159 net.cpp:159] Memory required for data: 3761200
I0506 14:27:18.132097 22159 layer_factory.hpp:77] Creating layer ip1
I0506 14:27:18.132103 22159 net.cpp:94] Creating Layer ip1
I0506 14:27:18.132107 22159 net.cpp:435] ip1 <- pool5
I0506 14:27:18.132112 22159 net.cpp:409] ip1 -> ip1
I0506 14:27:18.145505 22159 net.cpp:144] Setting up ip1
I0506 14:27:18.145521 22159 net.cpp:151] Top shape: 20 1024 (20480)
I0506 14:27:18.145524 22159 net.cpp:159] Memory required for data: 3843120
I0506 14:27:18.145531 22159 layer_factory.hpp:77] Creating layer ip2
I0506 14:27:18.145539 22159 net.cpp:94] Creating Layer ip2
I0506 14:27:18.145542 22159 net.cpp:435] ip2 <- ip1
I0506 14:27:18.145547 22159 net.cpp:409] ip2 -> ip2
I0506 14:27:18.158915 22159 net.cpp:144] Setting up ip2
I0506 14:27:18.158931 22159 net.cpp:151] Top shape: 20 512 (10240)
I0506 14:27:18.158934 22159 net.cpp:159] Memory required for data: 3884080
I0506 14:27:18.158941 22159 layer_factory.hpp:77] Creating layer ip3
I0506 14:27:18.158951 22159 net.cpp:94] Creating Layer ip3
I0506 14:27:18.158956 22159 net.cpp:435] ip3 <- ip2
I0506 14:27:18.158962 22159 net.cpp:409] ip3 -> ip3
I0506 14:27:18.159726 22159 net.cpp:144] Setting up ip3
I0506 14:27:18.159734 22159 net.cpp:151] Top shape: 20 50 (1000)
I0506 14:27:18.159737 22159 net.cpp:159] Memory required for data: 3888080
I0506 14:27:18.159744 22159 layer_factory.hpp:77] Creating layer ip3_ip3_0_split
I0506 14:27:18.159749 22159 net.cpp:94] Creating Layer ip3_ip3_0_split
I0506 14:27:18.159754 22159 net.cpp:435] ip3_ip3_0_split <- ip3
I0506 14:27:18.159757 22159 net.cpp:409] ip3_ip3_0_split -> ip3_ip3_0_split_0
I0506 14:27:18.159764 22159 net.cpp:409] ip3_ip3_0_split -> ip3_ip3_0_split_1
I0506 14:27:18.159811 22159 net.cpp:144] Setting up ip3_ip3_0_split
I0506 14:27:18.159816 22159 net.cpp:151] Top shape: 20 50 (1000)
I0506 14:27:18.159821 22159 net.cpp:151] Top shape: 20 50 (1000)
I0506 14:27:18.159823 22159 net.cpp:159] Memory required for data: 3896080
I0506 14:27:18.159826 22159 layer_factory.hpp:77] Creating layer accuracy
I0506 14:27:18.159832 22159 net.cpp:94] Creating Layer accuracy
I0506 14:27:18.159834 22159 net.cpp:435] accuracy <- ip3_ip3_0_split_0
I0506 14:27:18.159839 22159 net.cpp:435] accuracy <- label_intercept_1_split_0
I0506 14:27:18.159844 22159 net.cpp:409] accuracy -> accuracy
…
