…
I0507 02:21:26.259799 30951 net.cpp:323] The NetState phase (0) differed from the phase (1) specified by a rule in layer intercept
I0507 02:21:26.259815 30951 net.cpp:323] The NetState phase (0) differed from the phase (1) specified by a rule in layer loss
I0507 02:21:26.259896 30951 net.cpp:52] Initializing net from parameters: 
state {
  phase: TRAIN
}
layer {
  name: "parameters"
  type: "HDF5Data"
  top: "data"
  top: "label"
  include {
    phase: TRAIN
  }
  hdf5_data_param {
    source: "/home/purduethu/scratch/radon/d/deng106/CNNStatisticalModel/distributions/input/50_distributions_100_sample_size_train-parameters-path.txt"
    batch_size: 20
  }
}
layer {
  name: "conv1"
  type: "Convolution"
  bottom: "data"
  top: "conv1"
  param {
    lr_mult: 1
  }
  param {
    lr_mult: 2
  }
  convolution_param {
    num_output: 64
    pad: 2
    kernel_size: 5
    stride: 1
    weight_filler {
      type: "gaussian"
      std: 0.0001
    }
    bias_filler {
      type: "constant"
    }
  }
}
layer {
  name: "relu1"
  type: "ReLU"
  bottom: "conv1"
  top: "conv1"
}
layer {
  name: "conv2"
  type: "Convolution"
  bottom: "conv1"
  top: "conv2"
  param {
    lr_mult: 1
  }
  param {
    lr_mult: 2
  }
  convolution_param {
    num_output: 64
    pad: 2
    kernel_size: 5
    stride: 1
    weight_filler {
      type: "gaussian"
      std: 0.01
    }
    bias_filler {
      type: "constant"
    }
  }
}
layer {
  name: "relu2"
  type: "ReLU"
  bottom: "conv2"
  top: "conv2"
}
layer {
  name: "pool2"
  type: "Pooling"
  bottom: "conv2"
  top: "pool2"
  pooling_param {
    pool: MAX
    kernel_size: 3
    stride: 2
  }
}
layer {
  name: "conv3"
  type: "Convolution"
  bottom: "pool2"
  top: "conv3"
  param {
    lr_mult: 1
  }
  param {
    lr_mult: 2
  }
  convolution_param {
    num_output: 64
    pad: 2
    kernel_size: 5
    stride: 1
    weight_filler {
      type: "gaussian"
      std: 0.01
    }
    bias_filler {
      type: "constant"
    }
  }
}
layer {
  name: "relu3"
  type: "ReLU"
  bottom: "conv3"
  top: "conv3"
}
layer {
  name: "conv4"
  type: "Convolution"
  bottom: "conv3"
  top: "conv4"
  param {
    lr_mult: 1
  }
  param {
    lr_mult: 2
  }
  convolution_param {
    num_output: 64
    pad: 2
    kernel_size: 5
    stride: 1
    weight_filler {
      type: "gaussian"
      std: 0.01
    }
    bias_filler {
      type: "constant"
    }
  }
}
layer {
  name: "relu4"
  type: "ReLU"
  bottom: "conv4"
  top: "conv4"
}
layer {
  name: "conv5"
  type: "Convolution"
  bottom: "conv4"
  top: "conv5"
  param {
    lr_mult: 1
  }
  param {
    lr_mult: 2
  }
  convolution_param {
    num_output: 64
    pad: 2
    kernel_size: 5
    stride: 1
    weight_filler {
      type: "gaussian"
      std: 0.01
    }
    bias_filler {
      type: "constant"
    }
  }
}
layer {
  name: "relu5"
  type: "ReLU"
  bottom: "conv5"
  top: "conv5"
}
layer {
  name: "pool5"
  type: "Pooling"
  bottom: "conv5"
  top: "pool5"
  pooling_param {
    pool: AVE
    kernel_size: 3
    stride: 2
  }
}
layer {
  name: "ip1"
  type: "InnerProduct"
  bottom: "pool5"
  top: "ip1"
  param {
    lr_mult: 1
  }
  param {
    lr_mult: 2
  }
  inner_product_param {
    num_output: 64
    weight_filler {
      type: "gaussian"
      std: 0.1
    }
    bias_filler {
      type: "constant"
    }
  }
}
layer {
  name: "ip2"
  type: "InnerProduct"
  bottom: "ip1"
  top: "ip2"
  param {
    lr_mult: 1
  }
  param {
    lr_mult: 2
  }
  inner_product_param {
    num_output: 64
    weight_filler {
      type: "gaussian"
      std: 0.1
    }
    bias_filler {
      type: "constant"
    }
  }
}
layer {
  name: "ip3"
  type: "InnerProduct"
  bottom: "ip2"
  top: "ip3"
  param {
    lr_mult: 1
  }
  param {
    lr_mult: 2
  }
  inner_product_param {
    num_output: 1
    weight_filler {
      type: "gaussian"
      std: 0.1
    }
    bias_filler {
      type: "constant"
    }
  }
}
layer {
  name: "loss"
  type: "HuberLoss"
  bottom: "ip3"
  bottom: "label"
  top: "loss"
  include {
    phase: TRAIN
  }
}
I0507 02:21:26.259950 30951 layer_factory.hpp:77] Creating layer parameters
I0507 02:21:26.259963 30951 net.cpp:94] Creating Layer parameters
I0507 02:21:26.259968 30951 net.cpp:409] parameters -> data
I0507 02:21:26.259976 30951 net.cpp:409] parameters -> label
I0507 02:21:26.259987 30951 hdf5_data_layer.cpp:79] Loading list of HDF5 filenames from: /home/purduethu/scratch/radon/d/deng106/CNNStatisticalModel/distributions/input/50_distributions_100_sample_size_train-parameters-path.txt
I0507 02:21:26.260002 30951 hdf5_data_layer.cpp:93] Number of HDF5 files: 1
I0507 02:21:26.260565 30951 hdf5.cpp:32] Datatype class: H5T_FLOAT
I0507 02:21:26.421946 30951 net.cpp:144] Setting up parameters
I0507 02:21:26.421977 30951 net.cpp:151] Top shape: 20 1 10 10 (2000)
I0507 02:21:26.421982 30951 net.cpp:151] Top shape: 20 (20)
I0507 02:21:26.421984 30951 net.cpp:159] Memory required for data: 8080
I0507 02:21:26.421991 30951 layer_factory.hpp:77] Creating layer conv1
I0507 02:21:26.422013 30951 net.cpp:94] Creating Layer conv1
I0507 02:21:26.422018 30951 net.cpp:435] conv1 <- data
I0507 02:21:26.422024 30951 net.cpp:409] conv1 -> conv1
I0507 02:21:26.426635 30951 net.cpp:144] Setting up conv1
I0507 02:21:26.426676 30951 net.cpp:151] Top shape: 20 64 10 10 (128000)
I0507 02:21:26.426687 30951 net.cpp:159] Memory required for data: 520080
I0507 02:21:26.426712 30951 layer_factory.hpp:77] Creating layer relu1
I0507 02:21:26.426730 30951 net.cpp:94] Creating Layer relu1
I0507 02:21:26.426741 30951 net.cpp:435] relu1 <- conv1
I0507 02:21:26.426754 30951 net.cpp:396] relu1 -> conv1 (in-place)
I0507 02:21:26.426784 30951 net.cpp:144] Setting up relu1
I0507 02:21:26.426796 30951 net.cpp:151] Top shape: 20 64 10 10 (128000)
I0507 02:21:26.426806 30951 net.cpp:159] Memory required for data: 1032080
I0507 02:21:26.426815 30951 layer_factory.hpp:77] Creating layer conv2
I0507 02:21:26.426836 30951 net.cpp:94] Creating Layer conv2
I0507 02:21:26.426846 30951 net.cpp:435] conv2 <- conv1
I0507 02:21:26.426859 30951 net.cpp:409] conv2 -> conv2
I0507 02:21:26.440572 30951 net.cpp:144] Setting up conv2
I0507 02:21:26.440608 30951 net.cpp:151] Top shape: 20 64 10 10 (128000)
I0507 02:21:26.440619 30951 net.cpp:159] Memory required for data: 1544080
I0507 02:21:26.440641 30951 layer_factory.hpp:77] Creating layer relu2
I0507 02:21:26.440659 30951 net.cpp:94] Creating Layer relu2
I0507 02:21:26.440668 30951 net.cpp:435] relu2 <- conv2
I0507 02:21:26.440682 30951 net.cpp:396] relu2 -> conv2 (in-place)
I0507 02:21:26.440701 30951 net.cpp:144] Setting up relu2
I0507 02:21:26.440714 30951 net.cpp:151] Top shape: 20 64 10 10 (128000)
I0507 02:21:26.440723 30951 net.cpp:159] Memory required for data: 2056080
I0507 02:21:26.440732 30951 layer_factory.hpp:77] Creating layer pool2
I0507 02:21:26.440747 30951 net.cpp:94] Creating Layer pool2
I0507 02:21:26.440755 30951 net.cpp:435] pool2 <- conv2
I0507 02:21:26.440768 30951 net.cpp:409] pool2 -> pool2
I0507 02:21:26.440901 30951 net.cpp:144] Setting up pool2
I0507 02:21:26.440918 30951 net.cpp:151] Top shape: 20 64 5 5 (32000)
I0507 02:21:26.440927 30951 net.cpp:159] Memory required for data: 2184080
I0507 02:21:26.440937 30951 layer_factory.hpp:77] Creating layer conv3
I0507 02:21:26.440954 30951 net.cpp:94] Creating Layer conv3
I0507 02:21:26.440963 30951 net.cpp:435] conv3 <- pool2
I0507 02:21:26.440986 30951 net.cpp:409] conv3 -> conv3
I0507 02:21:26.451773 30951 net.cpp:144] Setting up conv3
I0507 02:21:26.451805 30951 net.cpp:151] Top shape: 20 64 5 5 (32000)
I0507 02:21:26.451817 30951 net.cpp:159] Memory required for data: 2312080
I0507 02:21:26.451836 30951 layer_factory.hpp:77] Creating layer relu3
I0507 02:21:26.451851 30951 net.cpp:94] Creating Layer relu3
I0507 02:21:26.451860 30951 net.cpp:435] relu3 <- conv3
I0507 02:21:26.451872 30951 net.cpp:396] relu3 -> conv3 (in-place)
I0507 02:21:26.451890 30951 net.cpp:144] Setting up relu3
I0507 02:21:26.451901 30951 net.cpp:151] Top shape: 20 64 5 5 (32000)
I0507 02:21:26.451910 30951 net.cpp:159] Memory required for data: 2440080
I0507 02:21:26.451918 30951 layer_factory.hpp:77] Creating layer conv4
I0507 02:21:26.451937 30951 net.cpp:94] Creating Layer conv4
I0507 02:21:26.451946 30951 net.cpp:435] conv4 <- conv3
I0507 02:21:26.451959 30951 net.cpp:409] conv4 -> conv4
I0507 02:21:26.461138 30951 net.cpp:144] Setting up conv4
I0507 02:21:26.461166 30951 net.cpp:151] Top shape: 20 64 5 5 (32000)
I0507 02:21:26.461175 30951 net.cpp:159] Memory required for data: 2568080
I0507 02:21:26.461189 30951 layer_factory.hpp:77] Creating layer relu4
I0507 02:21:26.461202 30951 net.cpp:94] Creating Layer relu4
I0507 02:21:26.461211 30951 net.cpp:435] relu4 <- conv4
I0507 02:21:26.461223 30951 net.cpp:396] relu4 -> conv4 (in-place)
I0507 02:21:26.461239 30951 net.cpp:144] Setting up relu4
I0507 02:21:26.461251 30951 net.cpp:151] Top shape: 20 64 5 5 (32000)
I0507 02:21:26.461257 30951 net.cpp:159] Memory required for data: 2696080
I0507 02:21:26.461266 30951 layer_factory.hpp:77] Creating layer conv5
I0507 02:21:26.461282 30951 net.cpp:94] Creating Layer conv5
I0507 02:21:26.461290 30951 net.cpp:435] conv5 <- conv4
I0507 02:21:26.461302 30951 net.cpp:409] conv5 -> conv5
I0507 02:21:26.471081 30951 net.cpp:144] Setting up conv5
I0507 02:21:26.471109 30951 net.cpp:151] Top shape: 20 64 5 5 (32000)
I0507 02:21:26.471119 30951 net.cpp:159] Memory required for data: 2824080
I0507 02:21:26.471138 30951 layer_factory.hpp:77] Creating layer relu5
I0507 02:21:26.471149 30951 net.cpp:94] Creating Layer relu5
I0507 02:21:26.471158 30951 net.cpp:435] relu5 <- conv5
I0507 02:21:26.471168 30951 net.cpp:396] relu5 -> conv5 (in-place)
I0507 02:21:26.471184 30951 net.cpp:144] Setting up relu5
I0507 02:21:26.471192 30951 net.cpp:151] Top shape: 20 64 5 5 (32000)
I0507 02:21:26.471199 30951 net.cpp:159] Memory required for data: 2952080
I0507 02:21:26.471206 30951 layer_factory.hpp:77] Creating layer pool5
I0507 02:21:26.471217 30951 net.cpp:94] Creating Layer pool5
I0507 02:21:26.471225 30951 net.cpp:435] pool5 <- conv5
I0507 02:21:26.471235 30951 net.cpp:409] pool5 -> pool5
I0507 02:21:26.471309 30951 net.cpp:144] Setting up pool5
I0507 02:21:26.471324 30951 net.cpp:151] Top shape: 20 64 2 2 (5120)
I0507 02:21:26.471331 30951 net.cpp:159] Memory required for data: 2972560
I0507 02:21:26.471339 30951 layer_factory.hpp:77] Creating layer ip1
I0507 02:21:26.471359 30951 net.cpp:94] Creating Layer ip1
I0507 02:21:26.471366 30951 net.cpp:435] ip1 <- pool5
I0507 02:21:26.471376 30951 net.cpp:409] ip1 -> ip1
I0507 02:21:26.474061 30951 net.cpp:144] Setting up ip1
I0507 02:21:26.474088 30951 net.cpp:151] Top shape: 20 64 (1280)
I0507 02:21:26.474097 30951 net.cpp:159] Memory required for data: 2977680
I0507 02:21:26.474110 30951 layer_factory.hpp:77] Creating layer ip2
I0507 02:21:26.474125 30951 net.cpp:94] Creating Layer ip2
I0507 02:21:26.474133 30951 net.cpp:435] ip2 <- ip1
I0507 02:21:26.474145 30951 net.cpp:409] ip2 -> ip2
I0507 02:21:26.474618 30951 net.cpp:144] Setting up ip2
I0507 02:21:26.474633 30951 net.cpp:151] Top shape: 20 64 (1280)
I0507 02:21:26.474642 30951 net.cpp:159] Memory required for data: 2982800
I0507 02:21:26.474653 30951 layer_factory.hpp:77] Creating layer ip3
I0507 02:21:26.474664 30951 net.cpp:94] Creating Layer ip3
I0507 02:21:26.474673 30951 net.cpp:435] ip3 <- ip2
I0507 02:21:26.474684 30951 net.cpp:409] ip3 -> ip3
I0507 02:21:26.474920 30951 net.cpp:144] Setting up ip3
I0507 02:21:26.474933 30951 net.cpp:151] Top shape: 20 1 (20)
I0507 02:21:26.474941 30951 net.cpp:159] Memory required for data: 2982880
I0507 02:21:26.474952 30951 layer_factory.hpp:77] Creating layer loss
I0507 02:21:26.474974 30951 net.cpp:94] Creating Layer loss
I0507 02:21:26.474982 30951 net.cpp:435] loss <- ip3
I0507 02:21:26.474992 30951 net.cpp:435] loss <- label
I0507 02:21:26.475002 30951 net.cpp:409] loss -> loss
I0507 02:21:26.475107 30951 net.cpp:144] Setting up loss
…
I0507 02:21:26.572039 30951 net.cpp:323] The NetState phase (0) differed from the phase (1) specified by a rule in layer intercept
I0507 02:21:26.572064 30951 net.cpp:323] The NetState phase (0) differed from the phase (1) specified by a rule in layer accuracy
I0507 02:21:26.572197 30951 net.cpp:52] Initializing net from parameters: 
state {
  phase: TRAIN
}
layer {
  name: "parameters"
  type: "HDF5Data"
  top: "data"
  top: "label"
  include {
    phase: TRAIN
  }
  hdf5_data_param {
    source: "/home/purduethu/scratch/radon/d/deng106/CNNStatisticalModel/distributions/input/50_distributions_100_sample_size_train-distributions-path.txt"
    batch_size: 20
  }
}
layer {
  name: "conv1"
  type: "Convolution"
  bottom: "data"
  top: "conv1"
  param {
    lr_mult: 1
  }
  param {
    lr_mult: 2
  }
  convolution_param {
    num_output: 64
    pad: 2
    kernel_size: 5
    stride: 1
    weight_filler {
      type: "gaussian"
      std: 0.0001
    }
    bias_filler {
      type: "constant"
    }
  }
}
layer {
  name: "relu1"
  type: "ReLU"
  bottom: "conv1"
  top: "conv1"
}
layer {
  name: "conv2"
  type: "Convolution"
  bottom: "conv1"
  top: "conv2"
  param {
    lr_mult: 1
  }
  param {
    lr_mult: 2
  }
  convolution_param {
    num_output: 64
    pad: 2
    kernel_size: 5
    stride: 1
    weight_filler {
      type: "gaussian"
      std: 0.01
    }
    bias_filler {
      type: "constant"
    }
  }
}
layer {
  name: "relu2"
  type: "ReLU"
  bottom: "conv2"
  top: "conv2"
}
layer {
  name: "pool2"
  type: "Pooling"
  bottom: "conv2"
  top: "pool2"
  pooling_param {
    pool: MAX
    kernel_size: 3
    stride: 2
  }
}
layer {
  name: "conv3"
  type: "Convolution"
  bottom: "pool2"
  top: "conv3"
  param {
    lr_mult: 1
  }
  param {
    lr_mult: 2
  }
  convolution_param {
    num_output: 64
    pad: 2
    kernel_size: 5
    stride: 1
    weight_filler {
      type: "gaussian"
      std: 0.01
    }
    bias_filler {
      type: "constant"
    }
  }
}
layer {
  name: "relu3"
  type: "ReLU"
  bottom: "conv3"
  top: "conv3"
}
layer {
  name: "conv4"
  type: "Convolution"
  bottom: "conv3"
  top: "conv4"
  param {
    lr_mult: 1
  }
  param {
    lr_mult: 2
  }
  convolution_param {
    num_output: 64
    pad: 2
    kernel_size: 5
    stride: 1
    weight_filler {
      type: "gaussian"
      std: 0.01
    }
    bias_filler {
      type: "constant"
    }
  }
}
layer {
  name: "relu4"
  type: "ReLU"
  bottom: "conv4"
  top: "conv4"
}
layer {
  name: "conv5"
  type: "Convolution"
  bottom: "conv4"
  top: "conv5"
  param {
    lr_mult: 1
  }
  param {
    lr_mult: 2
  }
  convolution_param {
    num_output: 64
    pad: 2
    kernel_size: 5
    stride: 1
    weight_filler {
      type: "gaussian"
      std: 0.01
    }
    bias_filler {
      type: "constant"
    }
  }
}
layer {
  name: "relu5"
  type: "ReLU"
  bottom: "conv5"
  top: "conv5"
}
layer {
  name: "pool5"
  type: "Pooling"
  bottom: "conv5"
  top: "pool5"
  pooling_param {
    pool: AVE
    kernel_size: 3
    stride: 2
  }
}
layer {
  name: "ip1"
  type: "InnerProduct"
  bottom: "pool5"
  top: "ip1"
  param {
    lr_mult: 1
  }
  param {
    lr_mult: 2
  }
  inner_product_param {
    num_output: 64
    weight_filler {
      type: "gaussian"
      std: 0.1
    }
    bias_filler {
      type: "constant"
    }
  }
}
layer {
  name: "ip2"
  type: "InnerProduct"
  bottom: "ip1"
  top: "ip2"
  param {
    lr_mult: 1
  }
  param {
    lr_mult: 2
  }
  inner_product_param {
    num_output: 64
    weight_filler {
      type: "gaussian"
      std: 0.1
    }
    bias_filler {
      type: "constant"
    }
  }
}
layer {
  name: "ip3"
  type: "InnerProduct"
  bottom: "ip2"
  top: "ip3"
  param {
    lr_mult: 1
  }
  param {
    lr_mult: 2
  }
  inner_product_param {
    num_output: 50
    weight_filler {
      type: "gaussian"
      std: 0.1
    }
    bias_filler {
      type: "constant"
    }
  }
}
layer {
  name: "loss"
  type: "SoftmaxWithLoss"
  bottom: "ip3"
  bottom: "label"
  top: "loss"
}
I0507 02:21:26.572273 30951 layer_factory.hpp:77] Creating layer parameters
I0507 02:21:26.572284 30951 net.cpp:94] Creating Layer parameters
I0507 02:21:26.572290 30951 net.cpp:409] parameters -> data
I0507 02:21:26.572301 30951 net.cpp:409] parameters -> label
I0507 02:21:26.572310 30951 hdf5_data_layer.cpp:79] Loading list of HDF5 filenames from: /home/purduethu/scratch/radon/d/deng106/CNNStatisticalModel/distributions/input/50_distributions_100_sample_size_train-distributions-path.txt
I0507 02:21:26.572332 30951 hdf5_data_layer.cpp:93] Number of HDF5 files: 1
I0507 02:21:26.751790 30951 hdf5.cpp:35] Datatype class: H5T_INTEGER
I0507 02:21:26.754920 30951 net.cpp:144] Setting up parameters
I0507 02:21:26.754937 30951 net.cpp:151] Top shape: 20 1 10 10 (2000)
I0507 02:21:26.754942 30951 net.cpp:151] Top shape: 20 (20)
I0507 02:21:26.754946 30951 net.cpp:159] Memory required for data: 8080
I0507 02:21:26.754952 30951 layer_factory.hpp:77] Creating layer conv1
I0507 02:21:26.754968 30951 net.cpp:94] Creating Layer conv1
I0507 02:21:26.754972 30951 net.cpp:435] conv1 <- data
I0507 02:21:26.754979 30951 net.cpp:409] conv1 -> conv1
I0507 02:21:26.756736 30951 net.cpp:144] Setting up conv1
I0507 02:21:26.756750 30951 net.cpp:151] Top shape: 20 64 10 10 (128000)
I0507 02:21:26.756754 30951 net.cpp:159] Memory required for data: 520080
I0507 02:21:26.756764 30951 layer_factory.hpp:77] Creating layer relu1
I0507 02:21:26.756772 30951 net.cpp:94] Creating Layer relu1
I0507 02:21:26.756775 30951 net.cpp:435] relu1 <- conv1
I0507 02:21:26.756779 30951 net.cpp:396] relu1 -> conv1 (in-place)
I0507 02:21:26.756788 30951 net.cpp:144] Setting up relu1
I0507 02:21:26.756793 30951 net.cpp:151] Top shape: 20 64 10 10 (128000)
I0507 02:21:26.756795 30951 net.cpp:159] Memory required for data: 1032080
I0507 02:21:26.756798 30951 layer_factory.hpp:77] Creating layer conv2
I0507 02:21:26.756805 30951 net.cpp:94] Creating Layer conv2
I0507 02:21:26.756809 30951 net.cpp:435] conv2 <- conv1
I0507 02:21:26.756814 30951 net.cpp:409] conv2 -> conv2
I0507 02:21:26.762277 30951 net.cpp:144] Setting up conv2
I0507 02:21:26.762290 30951 net.cpp:151] Top shape: 20 64 10 10 (128000)
I0507 02:21:26.762295 30951 net.cpp:159] Memory required for data: 1544080
I0507 02:21:26.762302 30951 layer_factory.hpp:77] Creating layer relu2
I0507 02:21:26.762310 30951 net.cpp:94] Creating Layer relu2
I0507 02:21:26.762313 30951 net.cpp:435] relu2 <- conv2
I0507 02:21:26.762317 30951 net.cpp:396] relu2 -> conv2 (in-place)
I0507 02:21:26.762325 30951 net.cpp:144] Setting up relu2
I0507 02:21:26.762329 30951 net.cpp:151] Top shape: 20 64 10 10 (128000)
I0507 02:21:26.762332 30951 net.cpp:159] Memory required for data: 2056080
I0507 02:21:26.762336 30951 layer_factory.hpp:77] Creating layer pool2
I0507 02:21:26.762341 30951 net.cpp:94] Creating Layer pool2
I0507 02:21:26.762344 30951 net.cpp:435] pool2 <- conv2
I0507 02:21:26.762348 30951 net.cpp:409] pool2 -> pool2
I0507 02:21:26.762398 30951 net.cpp:144] Setting up pool2
I0507 02:21:26.762406 30951 net.cpp:151] Top shape: 20 64 5 5 (32000)
I0507 02:21:26.762409 30951 net.cpp:159] Memory required for data: 2184080
I0507 02:21:26.762413 30951 layer_factory.hpp:77] Creating layer conv3
I0507 02:21:26.762420 30951 net.cpp:94] Creating Layer conv3
I0507 02:21:26.762424 30951 net.cpp:435] conv3 <- pool2
I0507 02:21:26.762429 30951 net.cpp:409] conv3 -> conv3
I0507 02:21:26.768345 30951 net.cpp:144] Setting up conv3
I0507 02:21:26.768359 30951 net.cpp:151] Top shape: 20 64 5 5 (32000)
I0507 02:21:26.768363 30951 net.cpp:159] Memory required for data: 2312080
I0507 02:21:26.768371 30951 layer_factory.hpp:77] Creating layer relu3
I0507 02:21:26.768378 30951 net.cpp:94] Creating Layer relu3
I0507 02:21:26.768381 30951 net.cpp:435] relu3 <- conv3
I0507 02:21:26.768385 30951 net.cpp:396] relu3 -> conv3 (in-place)
I0507 02:21:26.768393 30951 net.cpp:144] Setting up relu3
I0507 02:21:26.768398 30951 net.cpp:151] Top shape: 20 64 5 5 (32000)
I0507 02:21:26.768406 30951 net.cpp:159] Memory required for data: 2440080
I0507 02:21:26.768410 30951 layer_factory.hpp:77] Creating layer conv4
I0507 02:21:26.768419 30951 net.cpp:94] Creating Layer conv4
I0507 02:21:26.768422 30951 net.cpp:435] conv4 <- conv3
I0507 02:21:26.768427 30951 net.cpp:409] conv4 -> conv4
I0507 02:21:26.773522 30951 net.cpp:144] Setting up conv4
I0507 02:21:26.773536 30951 net.cpp:151] Top shape: 20 64 5 5 (32000)
I0507 02:21:26.773541 30951 net.cpp:159] Memory required for data: 2568080
I0507 02:21:26.773547 30951 layer_factory.hpp:77] Creating layer relu4
I0507 02:21:26.773553 30951 net.cpp:94] Creating Layer relu4
I0507 02:21:26.773557 30951 net.cpp:435] relu4 <- conv4
I0507 02:21:26.773562 30951 net.cpp:396] relu4 -> conv4 (in-place)
I0507 02:21:26.773569 30951 net.cpp:144] Setting up relu4
I0507 02:21:26.773573 30951 net.cpp:151] Top shape: 20 64 5 5 (32000)
I0507 02:21:26.773576 30951 net.cpp:159] Memory required for data: 2696080
I0507 02:21:26.773579 30951 layer_factory.hpp:77] Creating layer conv5
I0507 02:21:26.773587 30951 net.cpp:94] Creating Layer conv5
I0507 02:21:26.773591 30951 net.cpp:435] conv5 <- conv4
I0507 02:21:26.773596 30951 net.cpp:409] conv5 -> conv5
I0507 02:21:26.778165 30951 net.cpp:144] Setting up conv5
I0507 02:21:26.778178 30951 net.cpp:151] Top shape: 20 64 5 5 (32000)
I0507 02:21:26.778182 30951 net.cpp:159] Memory required for data: 2824080
I0507 02:21:26.778192 30951 layer_factory.hpp:77] Creating layer relu5
I0507 02:21:26.778198 30951 net.cpp:94] Creating Layer relu5
I0507 02:21:26.778200 30951 net.cpp:435] relu5 <- conv5
I0507 02:21:26.778205 30951 net.cpp:396] relu5 -> conv5 (in-place)
I0507 02:21:26.778213 30951 net.cpp:144] Setting up relu5
I0507 02:21:26.778216 30951 net.cpp:151] Top shape: 20 64 5 5 (32000)
I0507 02:21:26.778220 30951 net.cpp:159] Memory required for data: 2952080
I0507 02:21:26.778223 30951 layer_factory.hpp:77] Creating layer pool5
I0507 02:21:26.778228 30951 net.cpp:94] Creating Layer pool5
I0507 02:21:26.778231 30951 net.cpp:435] pool5 <- conv5
I0507 02:21:26.778235 30951 net.cpp:409] pool5 -> pool5
I0507 02:21:26.778270 30951 net.cpp:144] Setting up pool5
I0507 02:21:26.778276 30951 net.cpp:151] Top shape: 20 64 2 2 (5120)
I0507 02:21:26.778280 30951 net.cpp:159] Memory required for data: 2972560
I0507 02:21:26.778283 30951 layer_factory.hpp:77] Creating layer ip1
I0507 02:21:26.778290 30951 net.cpp:94] Creating Layer ip1
I0507 02:21:26.778293 30951 net.cpp:435] ip1 <- pool5
I0507 02:21:26.778298 30951 net.cpp:409] ip1 -> ip1
I0507 02:21:26.778817 30951 net.cpp:144] Setting up ip1
I0507 02:21:26.778825 30951 net.cpp:151] Top shape: 20 64 (1280)
I0507 02:21:26.778828 30951 net.cpp:159] Memory required for data: 2977680
I0507 02:21:26.778834 30951 layer_factory.hpp:77] Creating layer ip2
I0507 02:21:26.778841 30951 net.cpp:94] Creating Layer ip2
I0507 02:21:26.778843 30951 net.cpp:435] ip2 <- ip1
I0507 02:21:26.778848 30951 net.cpp:409] ip2 -> ip2
I0507 02:21:26.779064 30951 net.cpp:144] Setting up ip2
I0507 02:21:26.779072 30951 net.cpp:151] Top shape: 20 64 (1280)
I0507 02:21:26.779074 30951 net.cpp:159] Memory required for data: 2982800
I0507 02:21:26.779079 30951 layer_factory.hpp:77] Creating layer ip3
I0507 02:21:26.779085 30951 net.cpp:94] Creating Layer ip3
I0507 02:21:26.779089 30951 net.cpp:435] ip3 <- ip2
I0507 02:21:26.779094 30951 net.cpp:409] ip3 -> ip3
I0507 02:21:26.779283 30951 net.cpp:144] Setting up ip3
I0507 02:21:26.779289 30951 net.cpp:151] Top shape: 20 50 (1000)
I0507 02:21:26.779292 30951 net.cpp:159] Memory required for data: 2986800
I0507 02:21:26.779297 30951 layer_factory.hpp:77] Creating layer loss
I0507 02:21:26.779304 30951 net.cpp:94] Creating Layer loss
I0507 02:21:26.779307 30951 net.cpp:435] loss <- ip3
I0507 02:21:26.779311 30951 net.cpp:435] loss <- label
I0507 02:21:26.779315 30951 net.cpp:409] loss -> loss
I0507 02:21:26.779322 30951 layer_factory.hpp:77] Creating layer loss
…
I0507 02:21:26.780691 30951 solver.cpp:181] Creating test net (#0) specified by net file: ./protocol/dis_50_100_dimension.protocol_distribution
I0507 02:21:26.780720 30951 net.cpp:323] The NetState phase (1) differed from the phase (0) specified by a rule in layer parameters
I0507 02:21:26.780817 30951 net.cpp:52] Initializing net from parameters: 
state {
  phase: TEST
}
layer {
  name: "intercept"
  type: "HDF5Data"
  top: "data"
  top: "label"
  include {
    phase: TEST
  }
  hdf5_data_param {
    source: "/home/purduethu/scratch/radon/d/deng106/CNNStatisticalModel/distributions/input/50_distributions_100_sample_size_test-distributions-path.txt"
    batch_size: 20
  }
}
layer {
  name: "conv1"
  type: "Convolution"
  bottom: "data"
  top: "conv1"
  param {
    lr_mult: 1
  }
  param {
    lr_mult: 2
  }
  convolution_param {
    num_output: 64
    pad: 2
    kernel_size: 5
    stride: 1
    weight_filler {
      type: "gaussian"
      std: 0.0001
    }
    bias_filler {
      type: "constant"
    }
  }
}
layer {
  name: "relu1"
  type: "ReLU"
  bottom: "conv1"
  top: "conv1"
}
layer {
  name: "conv2"
  type: "Convolution"
  bottom: "conv1"
  top: "conv2"
  param {
    lr_mult: 1
  }
  param {
    lr_mult: 2
  }
  convolution_param {
    num_output: 64
    pad: 2
    kernel_size: 5
    stride: 1
    weight_filler {
      type: "gaussian"
      std: 0.01
    }
    bias_filler {
      type: "constant"
    }
  }
}
layer {
  name: "relu2"
  type: "ReLU"
  bottom: "conv2"
  top: "conv2"
}
layer {
  name: "pool2"
  type: "Pooling"
  bottom: "conv2"
  top: "pool2"
  pooling_param {
    pool: MAX
    kernel_size: 3
    stride: 2
  }
}
layer {
  name: "conv3"
  type: "Convolution"
  bottom: "pool2"
  top: "conv3"
  param {
    lr_mult: 1
  }
  param {
    lr_mult: 2
  }
  convolution_param {
    num_output: 64
    pad: 2
    kernel_size: 5
    stride: 1
    weight_filler {
      type: "gaussian"
      std: 0.01
    }
    bias_filler {
      type: "constant"
    }
  }
}
layer {
  name: "relu3"
  type: "ReLU"
  bottom: "conv3"
  top: "conv3"
}
layer {
  name: "conv4"
  type: "Convolution"
  bottom: "conv3"
  top: "conv4"
  param {
    lr_mult: 1
  }
  param {
    lr_mult: 2
  }
  convolution_param {
    num_output: 64
    pad: 2
    kernel_size: 5
    stride: 1
    weight_filler {
      type: "gaussian"
      std: 0.01
    }
    bias_filler {
      type: "constant"
    }
  }
}
layer {
  name: "relu4"
  type: "ReLU"
  bottom: "conv4"
  top: "conv4"
}
layer {
  name: "conv5"
  type: "Convolution"
  bottom: "conv4"
  top: "conv5"
  param {
    lr_mult: 1
  }
  param {
    lr_mult: 2
  }
  convolution_param {
    num_output: 64
    pad: 2
    kernel_size: 5
    stride: 1
    weight_filler {
      type: "gaussian"
      std: 0.01
    }
    bias_filler {
      type: "constant"
    }
  }
}
layer {
  name: "relu5"
  type: "ReLU"
  bottom: "conv5"
  top: "conv5"
}
layer {
  name: "pool5"
  type: "Pooling"
  bottom: "conv5"
  top: "pool5"
  pooling_param {
    pool: AVE
    kernel_size: 3
    stride: 2
  }
}
layer {
  name: "ip1"
  type: "InnerProduct"
  bottom: "pool5"
  top: "ip1"
  param {
    lr_mult: 1
  }
  param {
    lr_mult: 2
  }
  inner_product_param {
    num_output: 64
    weight_filler {
      type: "gaussian"
      std: 0.1
    }
    bias_filler {
      type: "constant"
    }
  }
}
layer {
  name: "ip2"
  type: "InnerProduct"
  bottom: "ip1"
  top: "ip2"
  param {
    lr_mult: 1
  }
  param {
    lr_mult: 2
  }
  inner_product_param {
    num_output: 64
    weight_filler {
      type: "gaussian"
      std: 0.1
    }
    bias_filler {
      type: "constant"
    }
  }
}
layer {
  name: "ip3"
  type: "InnerProduct"
  bottom: "ip2"
  top: "ip3"
  param {
    lr_mult: 1
  }
  param {
    lr_mult: 2
  }
  inner_product_param {
    num_output: 50
    weight_filler {
      type: "gaussian"
      std: 0.1
    }
    bias_filler {
      type: "constant"
    }
  }
}
layer {
  name: "accuracy"
  type: "Accuracy"
  bottom: "ip3"
  bottom: "label"
  top: "accuracy"
  include {
    phase: TEST
  }
}
layer {
  name: "loss"
  type: "SoftmaxWithLoss"
  bottom: "ip3"
  bottom: "label"
  top: "loss"
}
I0507 02:21:26.780882 30951 layer_factory.hpp:77] Creating layer intercept
I0507 02:21:26.780890 30951 net.cpp:94] Creating Layer intercept
I0507 02:21:26.780894 30951 net.cpp:409] intercept -> data
I0507 02:21:26.780901 30951 net.cpp:409] intercept -> label
I0507 02:21:26.780907 30951 hdf5_data_layer.cpp:79] Loading list of HDF5 filenames from: /home/purduethu/scratch/radon/d/deng106/CNNStatisticalModel/distributions/input/50_distributions_100_sample_size_test-distributions-path.txt
I0507 02:21:26.780926 30951 hdf5_data_layer.cpp:93] Number of HDF5 files: 1
I0507 02:21:26.823782 30951 net.cpp:144] Setting up intercept
I0507 02:21:26.823815 30951 net.cpp:151] Top shape: 20 1 10 10 (2000)
I0507 02:21:26.823822 30951 net.cpp:151] Top shape: 20 (20)
I0507 02:21:26.823824 30951 net.cpp:159] Memory required for data: 8080
I0507 02:21:26.823832 30951 layer_factory.hpp:77] Creating layer label_intercept_1_split
I0507 02:21:26.823851 30951 net.cpp:94] Creating Layer label_intercept_1_split
I0507 02:21:26.823855 30951 net.cpp:435] label_intercept_1_split <- label
I0507 02:21:26.823861 30951 net.cpp:409] label_intercept_1_split -> label_intercept_1_split_0
I0507 02:21:26.823870 30951 net.cpp:409] label_intercept_1_split -> label_intercept_1_split_1
I0507 02:21:26.823910 30951 net.cpp:144] Setting up label_intercept_1_split
I0507 02:21:26.823917 30951 net.cpp:151] Top shape: 20 (20)
I0507 02:21:26.823920 30951 net.cpp:151] Top shape: 20 (20)
I0507 02:21:26.823925 30951 net.cpp:159] Memory required for data: 8240
I0507 02:21:26.823927 30951 layer_factory.hpp:77] Creating layer conv1
I0507 02:21:26.823938 30951 net.cpp:94] Creating Layer conv1
I0507 02:21:26.823942 30951 net.cpp:435] conv1 <- data
I0507 02:21:26.823947 30951 net.cpp:409] conv1 -> conv1
I0507 02:21:26.824709 30951 net.cpp:144] Setting up conv1
I0507 02:21:26.824723 30951 net.cpp:151] Top shape: 20 64 10 10 (128000)
I0507 02:21:26.824728 30951 net.cpp:159] Memory required for data: 520240
I0507 02:21:26.824738 30951 layer_factory.hpp:77] Creating layer relu1
I0507 02:21:26.824744 30951 net.cpp:94] Creating Layer relu1
I0507 02:21:26.824748 30951 net.cpp:435] relu1 <- conv1
I0507 02:21:26.824753 30951 net.cpp:396] relu1 -> conv1 (in-place)
I0507 02:21:26.824759 30951 net.cpp:144] Setting up relu1
I0507 02:21:26.824764 30951 net.cpp:151] Top shape: 20 64 10 10 (128000)
I0507 02:21:26.824766 30951 net.cpp:159] Memory required for data: 1032240
I0507 02:21:26.824777 30951 layer_factory.hpp:77] Creating layer conv2
I0507 02:21:26.824785 30951 net.cpp:94] Creating Layer conv2
I0507 02:21:26.824790 30951 net.cpp:435] conv2 <- conv1
I0507 02:21:26.824795 30951 net.cpp:409] conv2 -> conv2
I0507 02:21:26.828930 30951 net.cpp:144] Setting up conv2
I0507 02:21:26.828944 30951 net.cpp:151] Top shape: 20 64 10 10 (128000)
I0507 02:21:26.828948 30951 net.cpp:159] Memory required for data: 1544240
I0507 02:21:26.828956 30951 layer_factory.hpp:77] Creating layer relu2
I0507 02:21:26.828963 30951 net.cpp:94] Creating Layer relu2
I0507 02:21:26.828965 30951 net.cpp:435] relu2 <- conv2
I0507 02:21:26.828970 30951 net.cpp:396] relu2 -> conv2 (in-place)
I0507 02:21:26.828977 30951 net.cpp:144] Setting up relu2
I0507 02:21:26.828981 30951 net.cpp:151] Top shape: 20 64 10 10 (128000)
I0507 02:21:26.828984 30951 net.cpp:159] Memory required for data: 2056240
I0507 02:21:26.828987 30951 layer_factory.hpp:77] Creating layer pool2
I0507 02:21:26.828995 30951 net.cpp:94] Creating Layer pool2
I0507 02:21:26.828999 30951 net.cpp:435] pool2 <- conv2
I0507 02:21:26.829004 30951 net.cpp:409] pool2 -> pool2
I0507 02:21:26.829056 30951 net.cpp:144] Setting up pool2
I0507 02:21:26.829062 30951 net.cpp:151] Top shape: 20 64 5 5 (32000)
I0507 02:21:26.829066 30951 net.cpp:159] Memory required for data: 2184240
I0507 02:21:26.829068 30951 layer_factory.hpp:77] Creating layer conv3
I0507 02:21:26.829077 30951 net.cpp:94] Creating Layer conv3
I0507 02:21:26.829082 30951 net.cpp:435] conv3 <- pool2
I0507 02:21:26.829087 30951 net.cpp:409] conv3 -> conv3
I0507 02:21:26.833609 30951 net.cpp:144] Setting up conv3
I0507 02:21:26.833622 30951 net.cpp:151] Top shape: 20 64 5 5 (32000)
I0507 02:21:26.833626 30951 net.cpp:159] Memory required for data: 2312240
I0507 02:21:26.833634 30951 layer_factory.hpp:77] Creating layer relu3
I0507 02:21:26.833643 30951 net.cpp:94] Creating Layer relu3
I0507 02:21:26.833647 30951 net.cpp:435] relu3 <- conv3
I0507 02:21:26.833652 30951 net.cpp:396] relu3 -> conv3 (in-place)
I0507 02:21:26.833658 30951 net.cpp:144] Setting up relu3
I0507 02:21:26.833664 30951 net.cpp:151] Top shape: 20 64 5 5 (32000)
I0507 02:21:26.833667 30951 net.cpp:159] Memory required for data: 2440240
I0507 02:21:26.833670 30951 layer_factory.hpp:77] Creating layer conv4
I0507 02:21:26.833678 30951 net.cpp:94] Creating Layer conv4
I0507 02:21:26.833681 30951 net.cpp:435] conv4 <- conv3
I0507 02:21:26.833688 30951 net.cpp:409] conv4 -> conv4
I0507 02:21:26.837296 30951 net.cpp:144] Setting up conv4
I0507 02:21:26.837311 30951 net.cpp:151] Top shape: 20 64 5 5 (32000)
I0507 02:21:26.837314 30951 net.cpp:159] Memory required for data: 2568240
I0507 02:21:26.837321 30951 layer_factory.hpp:77] Creating layer relu4
I0507 02:21:26.837327 30951 net.cpp:94] Creating Layer relu4
I0507 02:21:26.837330 30951 net.cpp:435] relu4 <- conv4
I0507 02:21:26.837335 30951 net.cpp:396] relu4 -> conv4 (in-place)
I0507 02:21:26.837342 30951 net.cpp:144] Setting up relu4
I0507 02:21:26.837347 30951 net.cpp:151] Top shape: 20 64 5 5 (32000)
I0507 02:21:26.837349 30951 net.cpp:159] Memory required for data: 2696240
I0507 02:21:26.837352 30951 layer_factory.hpp:77] Creating layer conv5
I0507 02:21:26.837360 30951 net.cpp:94] Creating Layer conv5
I0507 02:21:26.837364 30951 net.cpp:435] conv5 <- conv4
I0507 02:21:26.837370 30951 net.cpp:409] conv5 -> conv5
I0507 02:21:26.841446 30951 net.cpp:144] Setting up conv5
I0507 02:21:26.841459 30951 net.cpp:151] Top shape: 20 64 5 5 (32000)
I0507 02:21:26.841464 30951 net.cpp:159] Memory required for data: 2824240
I0507 02:21:26.841471 30951 layer_factory.hpp:77] Creating layer relu5
I0507 02:21:26.841477 30951 net.cpp:94] Creating Layer relu5
I0507 02:21:26.841481 30951 net.cpp:435] relu5 <- conv5
I0507 02:21:26.841487 30951 net.cpp:396] relu5 -> conv5 (in-place)
I0507 02:21:26.841495 30951 net.cpp:144] Setting up relu5
I0507 02:21:26.841498 30951 net.cpp:151] Top shape: 20 64 5 5 (32000)
I0507 02:21:26.841502 30951 net.cpp:159] Memory required for data: 2952240
I0507 02:21:26.841508 30951 layer_factory.hpp:77] Creating layer pool5
I0507 02:21:26.841514 30951 net.cpp:94] Creating Layer pool5
I0507 02:21:26.841517 30951 net.cpp:435] pool5 <- conv5
I0507 02:21:26.841522 30951 net.cpp:409] pool5 -> pool5
I0507 02:21:26.841559 30951 net.cpp:144] Setting up pool5
I0507 02:21:26.841567 30951 net.cpp:151] Top shape: 20 64 2 2 (5120)
I0507 02:21:26.841569 30951 net.cpp:159] Memory required for data: 2972720
I0507 02:21:26.841572 30951 layer_factory.hpp:77] Creating layer ip1
I0507 02:21:26.841580 30951 net.cpp:94] Creating Layer ip1
I0507 02:21:26.841584 30951 net.cpp:435] ip1 <- pool5
I0507 02:21:26.841588 30951 net.cpp:409] ip1 -> ip1
I0507 02:21:26.842120 30951 net.cpp:144] Setting up ip1
I0507 02:21:26.842128 30951 net.cpp:151] Top shape: 20 64 (1280)
I0507 02:21:26.842131 30951 net.cpp:159] Memory required for data: 2977840
I0507 02:21:26.842137 30951 layer_factory.hpp:77] Creating layer ip2
I0507 02:21:26.842144 30951 net.cpp:94] Creating Layer ip2
I0507 02:21:26.842147 30951 net.cpp:435] ip2 <- ip1
I0507 02:21:26.842152 30951 net.cpp:409] ip2 -> ip2
I0507 02:21:26.842381 30951 net.cpp:144] Setting up ip2
I0507 02:21:26.842387 30951 net.cpp:151] Top shape: 20 64 (1280)
I0507 02:21:26.842391 30951 net.cpp:159] Memory required for data: 2982960
I0507 02:21:26.842396 30951 layer_factory.hpp:77] Creating layer ip3
I0507 02:21:26.842402 30951 net.cpp:94] Creating Layer ip3
I0507 02:21:26.842406 30951 net.cpp:435] ip3 <- ip2
I0507 02:21:26.842412 30951 net.cpp:409] ip3 -> ip3
I0507 02:21:26.842612 30951 net.cpp:144] Setting up ip3
I0507 02:21:26.842619 30951 net.cpp:151] Top shape: 20 50 (1000)
I0507 02:21:26.842622 30951 net.cpp:159] Memory required for data: 2986960
I0507 02:21:26.842628 30951 layer_factory.hpp:77] Creating layer ip3_ip3_0_split
I0507 02:21:26.842633 30951 net.cpp:94] Creating Layer ip3_ip3_0_split
I0507 02:21:26.842635 30951 net.cpp:435] ip3_ip3_0_split <- ip3
I0507 02:21:26.842641 30951 net.cpp:409] ip3_ip3_0_split -> ip3_ip3_0_split_0
I0507 02:21:26.842648 30951 net.cpp:409] ip3_ip3_0_split -> ip3_ip3_0_split_1
I0507 02:21:26.842687 30951 net.cpp:144] Setting up ip3_ip3_0_split
I0507 02:21:26.842694 30951 net.cpp:151] Top shape: 20 50 (1000)
I0507 02:21:26.842697 30951 net.cpp:151] Top shape: 20 50 (1000)
I0507 02:21:26.842700 30951 net.cpp:159] Memory required for data: 2994960
I0507 02:21:26.842703 30951 layer_factory.hpp:77] Creating layer accuracy
I0507 02:21:26.842710 30951 net.cpp:94] Creating Layer accuracy
I0507 02:21:26.842713 30951 net.cpp:435] accuracy <- ip3_ip3_0_split_0
I0507 02:21:26.842717 30951 net.cpp:435] accuracy <- label_intercept_1_split_0
I0507 02:21:26.842722 30951 net.cpp:409] accuracy -> accuracy
…
