…
I0501 15:40:00.360620 13394 net.cpp:323] The NetState phase (0) differed from the phase (1) specified by a rule in layer intercept
I0501 15:40:00.360637 13394 net.cpp:323] The NetState phase (0) differed from the phase (1) specified by a rule in layer loss
I0501 15:40:00.360716 13394 net.cpp:52] Initializing net from parameters: 
state {
  phase: TRAIN
}
layer {
  name: "parameters"
  type: "HDF5Data"
  top: "data"
  top: "label"
  include {
    phase: TRAIN
  }
  hdf5_data_param {
    source: "/home/purduethu/scratch/radon/d/deng106/CNNStatisticalModel/distributions/input/20_distributions_400_sample_size_train-parameters-path.txt"
    batch_size: 20
  }
}
layer {
  name: "conv1"
  type: "Convolution"
  bottom: "data"
  top: "conv1"
  param {
    lr_mult: 1
  }
  param {
    lr_mult: 2
  }
  convolution_param {
    num_output: 64
    pad: 2
    kernel_size: 5
    stride: 1
    weight_filler {
      type: "gaussian"
      std: 0.0001
    }
    bias_filler {
      type: "constant"
    }
  }
}
layer {
  name: "relu1"
  type: "ReLU"
  bottom: "conv1"
  top: "conv1"
}
layer {
  name: "conv2"
  type: "Convolution"
  bottom: "conv1"
  top: "conv2"
  param {
    lr_mult: 1
  }
  param {
    lr_mult: 2
  }
  convolution_param {
    num_output: 64
    pad: 2
    kernel_size: 5
    stride: 1
    weight_filler {
      type: "gaussian"
      std: 0.01
    }
    bias_filler {
      type: "constant"
    }
  }
}
layer {
  name: "relu2"
  type: "ReLU"
  bottom: "conv2"
  top: "conv2"
}
layer {
  name: "pool2"
  type: "Pooling"
  bottom: "conv2"
  top: "pool2"
  pooling_param {
    pool: MAX
    kernel_size: 3
    stride: 2
  }
}
layer {
  name: "conv3"
  type: "Convolution"
  bottom: "pool2"
  top: "conv3"
  param {
    lr_mult: 1
  }
  param {
    lr_mult: 2
  }
  convolution_param {
    num_output: 64
    pad: 2
    kernel_size: 5
    stride: 1
    weight_filler {
      type: "gaussian"
      std: 0.01
    }
    bias_filler {
      type: "constant"
    }
  }
}
layer {
  name: "relu3"
  type: "ReLU"
  bottom: "conv3"
  top: "conv3"
}
layer {
  name: "conv4"
  type: "Convolution"
  bottom: "conv3"
  top: "conv4"
  param {
    lr_mult: 1
  }
  param {
    lr_mult: 2
  }
  convolution_param {
    num_output: 64
    pad: 2
    kernel_size: 5
    stride: 1
    weight_filler {
      type: "gaussian"
      std: 0.01
    }
    bias_filler {
      type: "constant"
    }
  }
}
layer {
  name: "relu4"
  type: "ReLU"
  bottom: "conv4"
  top: "conv4"
}
layer {
  name: "conv5"
  type: "Convolution"
  bottom: "conv4"
  top: "conv5"
  param {
    lr_mult: 1
  }
  param {
    lr_mult: 2
  }
  convolution_param {
    num_output: 64
    pad: 2
    kernel_size: 5
    stride: 1
    weight_filler {
      type: "gaussian"
      std: 0.01
    }
    bias_filler {
      type: "constant"
    }
  }
}
layer {
  name: "relu5"
  type: "ReLU"
  bottom: "conv5"
  top: "conv5"
}
layer {
  name: "pool5"
  type: "Pooling"
  bottom: "conv5"
  top: "pool5"
  pooling_param {
    pool: AVE
    kernel_size: 3
    stride: 2
  }
}
layer {
  name: "ip1"
  type: "InnerProduct"
  bottom: "pool5"
  top: "ip1"
  param {
    lr_mult: 1
  }
  param {
    lr_mult: 2
  }
  inner_product_param {
    num_output: 64
    weight_filler {
      type: "gaussian"
      std: 0.1
    }
    bias_filler {
      type: "constant"
    }
  }
}
layer {
  name: "ip2"
  type: "InnerProduct"
  bottom: "ip1"
  top: "ip2"
  param {
    lr_mult: 1
  }
  param {
    lr_mult: 2
  }
  inner_product_param {
    num_output: 64
    weight_filler {
      type: "gaussian"
      std: 0.1
    }
    bias_filler {
      type: "constant"
    }
  }
}
layer {
  name: "ip3"
  type: "InnerProduct"
  bottom: "ip2"
  top: "ip3"
  param {
    lr_mult: 1
  }
  param {
    lr_mult: 2
  }
  inner_product_param {
    num_output: 1
    weight_filler {
      type: "gaussian"
      std: 0.1
    }
    bias_filler {
      type: "constant"
    }
  }
}
layer {
  name: "loss"
  type: "HuberLoss"
  bottom: "ip3"
  bottom: "label"
  top: "loss"
  include {
    phase: TRAIN
  }
}
I0501 15:40:00.360769 13394 layer_factory.hpp:77] Creating layer parameters
I0501 15:40:00.360785 13394 net.cpp:94] Creating Layer parameters
I0501 15:40:00.360790 13394 net.cpp:409] parameters -> data
I0501 15:40:00.360800 13394 net.cpp:409] parameters -> label
I0501 15:40:00.360806 13394 hdf5_data_layer.cpp:79] Loading list of HDF5 filenames from: /home/purduethu/scratch/radon/d/deng106/CNNStatisticalModel/distributions/input/20_distributions_400_sample_size_train-parameters-path.txt
I0501 15:40:00.360821 13394 hdf5_data_layer.cpp:93] Number of HDF5 files: 1
I0501 15:40:00.361371 13394 hdf5.cpp:32] Datatype class: H5T_FLOAT
I0501 15:40:00.624083 13394 net.cpp:144] Setting up parameters
I0501 15:40:00.624104 13394 net.cpp:151] Top shape: 20 1 20 20 (8000)
I0501 15:40:00.624109 13394 net.cpp:151] Top shape: 20 (20)
I0501 15:40:00.624112 13394 net.cpp:159] Memory required for data: 32080
I0501 15:40:00.624119 13394 layer_factory.hpp:77] Creating layer conv1
I0501 15:40:00.624135 13394 net.cpp:94] Creating Layer conv1
I0501 15:40:00.624138 13394 net.cpp:435] conv1 <- data
I0501 15:40:00.624145 13394 net.cpp:409] conv1 -> conv1
I0501 15:40:00.629500 13394 net.cpp:144] Setting up conv1
I0501 15:40:00.629519 13394 net.cpp:151] Top shape: 20 64 20 20 (512000)
I0501 15:40:00.629523 13394 net.cpp:159] Memory required for data: 2080080
I0501 15:40:00.629534 13394 layer_factory.hpp:77] Creating layer relu1
I0501 15:40:00.629544 13394 net.cpp:94] Creating Layer relu1
I0501 15:40:00.629549 13394 net.cpp:435] relu1 <- conv1
I0501 15:40:00.629552 13394 net.cpp:396] relu1 -> conv1 (in-place)
I0501 15:40:00.629560 13394 net.cpp:144] Setting up relu1
I0501 15:40:00.629565 13394 net.cpp:151] Top shape: 20 64 20 20 (512000)
I0501 15:40:00.629567 13394 net.cpp:159] Memory required for data: 4128080
I0501 15:40:00.629570 13394 layer_factory.hpp:77] Creating layer conv2
I0501 15:40:00.629578 13394 net.cpp:94] Creating Layer conv2
I0501 15:40:00.629581 13394 net.cpp:435] conv2 <- conv1
I0501 15:40:00.629586 13394 net.cpp:409] conv2 -> conv2
I0501 15:40:00.640475 13394 net.cpp:144] Setting up conv2
I0501 15:40:00.640491 13394 net.cpp:151] Top shape: 20 64 20 20 (512000)
I0501 15:40:00.640494 13394 net.cpp:159] Memory required for data: 6176080
I0501 15:40:00.640503 13394 layer_factory.hpp:77] Creating layer relu2
I0501 15:40:00.640511 13394 net.cpp:94] Creating Layer relu2
I0501 15:40:00.640513 13394 net.cpp:435] relu2 <- conv2
I0501 15:40:00.640518 13394 net.cpp:396] relu2 -> conv2 (in-place)
I0501 15:40:00.640525 13394 net.cpp:144] Setting up relu2
I0501 15:40:00.640529 13394 net.cpp:151] Top shape: 20 64 20 20 (512000)
I0501 15:40:00.640532 13394 net.cpp:159] Memory required for data: 8224080
I0501 15:40:00.640535 13394 layer_factory.hpp:77] Creating layer pool2
I0501 15:40:00.640547 13394 net.cpp:94] Creating Layer pool2
I0501 15:40:00.640560 13394 net.cpp:435] pool2 <- conv2
I0501 15:40:00.640565 13394 net.cpp:409] pool2 -> pool2
I0501 15:40:00.640619 13394 net.cpp:144] Setting up pool2
I0501 15:40:00.640625 13394 net.cpp:151] Top shape: 20 64 10 10 (128000)
I0501 15:40:00.640628 13394 net.cpp:159] Memory required for data: 8736080
I0501 15:40:00.640632 13394 layer_factory.hpp:77] Creating layer conv3
I0501 15:40:00.640640 13394 net.cpp:94] Creating Layer conv3
I0501 15:40:00.640643 13394 net.cpp:435] conv3 <- pool2
I0501 15:40:00.640648 13394 net.cpp:409] conv3 -> conv3
I0501 15:40:00.645845 13394 net.cpp:144] Setting up conv3
I0501 15:40:00.645859 13394 net.cpp:151] Top shape: 20 64 10 10 (128000)
I0501 15:40:00.645864 13394 net.cpp:159] Memory required for data: 9248080
I0501 15:40:00.645871 13394 layer_factory.hpp:77] Creating layer relu3
I0501 15:40:00.645877 13394 net.cpp:94] Creating Layer relu3
I0501 15:40:00.645880 13394 net.cpp:435] relu3 <- conv3
I0501 15:40:00.645885 13394 net.cpp:396] relu3 -> conv3 (in-place)
I0501 15:40:00.645892 13394 net.cpp:144] Setting up relu3
I0501 15:40:00.645896 13394 net.cpp:151] Top shape: 20 64 10 10 (128000)
I0501 15:40:00.645900 13394 net.cpp:159] Memory required for data: 9760080
I0501 15:40:00.645901 13394 layer_factory.hpp:77] Creating layer conv4
I0501 15:40:00.645910 13394 net.cpp:94] Creating Layer conv4
I0501 15:40:00.645913 13394 net.cpp:435] conv4 <- conv3
I0501 15:40:00.645918 13394 net.cpp:409] conv4 -> conv4
I0501 15:40:00.651171 13394 net.cpp:144] Setting up conv4
I0501 15:40:00.651185 13394 net.cpp:151] Top shape: 20 64 10 10 (128000)
I0501 15:40:00.651188 13394 net.cpp:159] Memory required for data: 10272080
I0501 15:40:00.651196 13394 layer_factory.hpp:77] Creating layer relu4
I0501 15:40:00.651201 13394 net.cpp:94] Creating Layer relu4
I0501 15:40:00.651204 13394 net.cpp:435] relu4 <- conv4
I0501 15:40:00.651209 13394 net.cpp:396] relu4 -> conv4 (in-place)
I0501 15:40:00.651216 13394 net.cpp:144] Setting up relu4
I0501 15:40:00.651221 13394 net.cpp:151] Top shape: 20 64 10 10 (128000)
I0501 15:40:00.651223 13394 net.cpp:159] Memory required for data: 10784080
I0501 15:40:00.651226 13394 layer_factory.hpp:77] Creating layer conv5
I0501 15:40:00.651233 13394 net.cpp:94] Creating Layer conv5
I0501 15:40:00.651237 13394 net.cpp:435] conv5 <- conv4
I0501 15:40:00.651242 13394 net.cpp:409] conv5 -> conv5
I0501 15:40:00.657328 13394 net.cpp:144] Setting up conv5
I0501 15:40:00.657342 13394 net.cpp:151] Top shape: 20 64 10 10 (128000)
I0501 15:40:00.657346 13394 net.cpp:159] Memory required for data: 11296080
I0501 15:40:00.657354 13394 layer_factory.hpp:77] Creating layer relu5
I0501 15:40:00.657361 13394 net.cpp:94] Creating Layer relu5
I0501 15:40:00.657364 13394 net.cpp:435] relu5 <- conv5
I0501 15:40:00.657369 13394 net.cpp:396] relu5 -> conv5 (in-place)
I0501 15:40:00.657377 13394 net.cpp:144] Setting up relu5
I0501 15:40:00.657380 13394 net.cpp:151] Top shape: 20 64 10 10 (128000)
I0501 15:40:00.657383 13394 net.cpp:159] Memory required for data: 11808080
I0501 15:40:00.657387 13394 layer_factory.hpp:77] Creating layer pool5
I0501 15:40:00.657392 13394 net.cpp:94] Creating Layer pool5
I0501 15:40:00.657394 13394 net.cpp:435] pool5 <- conv5
I0501 15:40:00.657398 13394 net.cpp:409] pool5 -> pool5
I0501 15:40:00.657435 13394 net.cpp:144] Setting up pool5
I0501 15:40:00.657444 13394 net.cpp:151] Top shape: 20 64 5 5 (32000)
I0501 15:40:00.657446 13394 net.cpp:159] Memory required for data: 11936080
I0501 15:40:00.657449 13394 layer_factory.hpp:77] Creating layer ip1
I0501 15:40:00.657459 13394 net.cpp:94] Creating Layer ip1
I0501 15:40:00.657464 13394 net.cpp:435] ip1 <- pool5
I0501 15:40:00.657467 13394 net.cpp:409] ip1 -> ip1
I0501 15:40:00.659996 13394 net.cpp:144] Setting up ip1
I0501 15:40:00.660004 13394 net.cpp:151] Top shape: 20 64 (1280)
I0501 15:40:00.660008 13394 net.cpp:159] Memory required for data: 11941200
I0501 15:40:00.660013 13394 layer_factory.hpp:77] Creating layer ip2
I0501 15:40:00.660019 13394 net.cpp:94] Creating Layer ip2
I0501 15:40:00.660027 13394 net.cpp:435] ip2 <- ip1
I0501 15:40:00.660032 13394 net.cpp:409] ip2 -> ip2
I0501 15:40:00.660236 13394 net.cpp:144] Setting up ip2
I0501 15:40:00.660243 13394 net.cpp:151] Top shape: 20 64 (1280)
I0501 15:40:00.660246 13394 net.cpp:159] Memory required for data: 11946320
I0501 15:40:00.660251 13394 layer_factory.hpp:77] Creating layer ip3
I0501 15:40:00.660257 13394 net.cpp:94] Creating Layer ip3
I0501 15:40:00.660260 13394 net.cpp:435] ip3 <- ip2
I0501 15:40:00.660265 13394 net.cpp:409] ip3 -> ip3
I0501 15:40:00.660362 13394 net.cpp:144] Setting up ip3
I0501 15:40:00.660368 13394 net.cpp:151] Top shape: 20 1 (20)
I0501 15:40:00.660372 13394 net.cpp:159] Memory required for data: 11946400
I0501 15:40:00.660377 13394 layer_factory.hpp:77] Creating layer loss
I0501 15:40:00.660387 13394 net.cpp:94] Creating Layer loss
I0501 15:40:00.660390 13394 net.cpp:435] loss <- ip3
I0501 15:40:00.660394 13394 net.cpp:435] loss <- label
I0501 15:40:00.660398 13394 net.cpp:409] loss -> loss
I0501 15:40:00.660449 13394 net.cpp:144] Setting up loss
…
I0501 15:40:00.752166 13394 net.cpp:323] The NetState phase (0) differed from the phase (1) specified by a rule in layer intercept
I0501 15:40:00.752182 13394 net.cpp:323] The NetState phase (0) differed from the phase (1) specified by a rule in layer accuracy
I0501 15:40:00.752270 13394 net.cpp:52] Initializing net from parameters: 
state {
  phase: TRAIN
}
layer {
  name: "parameters"
  type: "HDF5Data"
  top: "data"
  top: "label"
  include {
    phase: TRAIN
  }
  hdf5_data_param {
    source: "/home/purduethu/scratch/radon/d/deng106/CNNStatisticalModel/distributions/input/20_distributions_400_sample_size_train-distributions-path.txt"
    batch_size: 20
  }
}
layer {
  name: "conv1"
  type: "Convolution"
  bottom: "data"
  top: "conv1"
  param {
    lr_mult: 1
  }
  param {
    lr_mult: 2
  }
  convolution_param {
    num_output: 64
    pad: 2
    kernel_size: 5
    stride: 1
    weight_filler {
      type: "gaussian"
      std: 0.0001
    }
    bias_filler {
      type: "constant"
    }
  }
}
layer {
  name: "relu1"
  type: "ReLU"
  bottom: "conv1"
  top: "conv1"
}
layer {
  name: "conv2"
  type: "Convolution"
  bottom: "conv1"
  top: "conv2"
  param {
    lr_mult: 1
  }
  param {
    lr_mult: 2
  }
  convolution_param {
    num_output: 64
    pad: 2
    kernel_size: 5
    stride: 1
    weight_filler {
      type: "gaussian"
      std: 0.01
    }
    bias_filler {
      type: "constant"
    }
  }
}
layer {
  name: "relu2"
  type: "ReLU"
  bottom: "conv2"
  top: "conv2"
}
layer {
  name: "pool2"
  type: "Pooling"
  bottom: "conv2"
  top: "pool2"
  pooling_param {
    pool: MAX
    kernel_size: 3
    stride: 2
  }
}
layer {
  name: "conv3"
  type: "Convolution"
  bottom: "pool2"
  top: "conv3"
  param {
    lr_mult: 1
  }
  param {
    lr_mult: 2
  }
  convolution_param {
    num_output: 64
    pad: 2
    kernel_size: 5
    stride: 1
    weight_filler {
      type: "gaussian"
      std: 0.01
    }
    bias_filler {
      type: "constant"
    }
  }
}
layer {
  name: "relu3"
  type: "ReLU"
  bottom: "conv3"
  top: "conv3"
}
layer {
  name: "conv4"
  type: "Convolution"
  bottom: "conv3"
  top: "conv4"
  param {
    lr_mult: 1
  }
  param {
    lr_mult: 2
  }
  convolution_param {
    num_output: 64
    pad: 2
    kernel_size: 5
    stride: 1
    weight_filler {
      type: "gaussian"
      std: 0.01
    }
    bias_filler {
      type: "constant"
    }
  }
}
layer {
  name: "relu4"
  type: "ReLU"
  bottom: "conv4"
  top: "conv4"
}
layer {
  name: "conv5"
  type: "Convolution"
  bottom: "conv4"
  top: "conv5"
  param {
    lr_mult: 1
  }
  param {
    lr_mult: 2
  }
  convolution_param {
    num_output: 64
    pad: 2
    kernel_size: 5
    stride: 1
    weight_filler {
      type: "gaussian"
      std: 0.01
    }
    bias_filler {
      type: "constant"
    }
  }
}
layer {
  name: "relu5"
  type: "ReLU"
  bottom: "conv5"
  top: "conv5"
}
layer {
  name: "pool5"
  type: "Pooling"
  bottom: "conv5"
  top: "pool5"
  pooling_param {
    pool: AVE
    kernel_size: 3
    stride: 2
  }
}
layer {
  name: "ip1"
  type: "InnerProduct"
  bottom: "pool5"
  top: "ip1"
  param {
    lr_mult: 1
  }
  param {
    lr_mult: 2
  }
  inner_product_param {
    num_output: 64
    weight_filler {
      type: "gaussian"
      std: 0.1
    }
    bias_filler {
      type: "constant"
    }
  }
}
layer {
  name: "ip2"
  type: "InnerProduct"
  bottom: "ip1"
  top: "ip2"
  param {
    lr_mult: 1
  }
  param {
    lr_mult: 2
  }
  inner_product_param {
    num_output: 64
    weight_filler {
      type: "gaussian"
      std: 0.1
    }
    bias_filler {
      type: "constant"
    }
  }
}
layer {
  name: "ip3"
  type: "InnerProduct"
  bottom: "ip2"
  top: "ip3"
  param {
    lr_mult: 1
  }
  param {
    lr_mult: 2
  }
  inner_product_param {
    num_output: 50
    weight_filler {
      type: "gaussian"
      std: 0.1
    }
    bias_filler {
      type: "constant"
    }
  }
}
layer {
  name: "loss"
  type: "SoftmaxWithLoss"
  bottom: "ip3"
  bottom: "label"
  top: "loss"
}
I0501 15:40:00.752321 13394 layer_factory.hpp:77] Creating layer parameters
I0501 15:40:00.752328 13394 net.cpp:94] Creating Layer parameters
I0501 15:40:00.752332 13394 net.cpp:409] parameters -> data
I0501 15:40:00.752339 13394 net.cpp:409] parameters -> label
I0501 15:40:00.752346 13394 hdf5_data_layer.cpp:79] Loading list of HDF5 filenames from: /home/purduethu/scratch/radon/d/deng106/CNNStatisticalModel/distributions/input/20_distributions_400_sample_size_train-distributions-path.txt
I0501 15:40:00.752362 13394 hdf5_data_layer.cpp:93] Number of HDF5 files: 1
I0501 15:40:01.007969 13394 hdf5.cpp:35] Datatype class: H5T_INTEGER
I0501 15:40:01.009027 13394 net.cpp:144] Setting up parameters
I0501 15:40:01.009042 13394 net.cpp:151] Top shape: 20 1 20 20 (8000)
I0501 15:40:01.009047 13394 net.cpp:151] Top shape: 20 (20)
I0501 15:40:01.009050 13394 net.cpp:159] Memory required for data: 32080
I0501 15:40:01.009057 13394 layer_factory.hpp:77] Creating layer conv1
I0501 15:40:01.009073 13394 net.cpp:94] Creating Layer conv1
I0501 15:40:01.009078 13394 net.cpp:435] conv1 <- data
I0501 15:40:01.009083 13394 net.cpp:409] conv1 -> conv1
I0501 15:40:01.011762 13394 net.cpp:144] Setting up conv1
I0501 15:40:01.011776 13394 net.cpp:151] Top shape: 20 64 20 20 (512000)
I0501 15:40:01.011780 13394 net.cpp:159] Memory required for data: 2080080
I0501 15:40:01.011790 13394 layer_factory.hpp:77] Creating layer relu1
I0501 15:40:01.011797 13394 net.cpp:94] Creating Layer relu1
I0501 15:40:01.011801 13394 net.cpp:435] relu1 <- conv1
I0501 15:40:01.011806 13394 net.cpp:396] relu1 -> conv1 (in-place)
I0501 15:40:01.011813 13394 net.cpp:144] Setting up relu1
I0501 15:40:01.011818 13394 net.cpp:151] Top shape: 20 64 20 20 (512000)
I0501 15:40:01.011821 13394 net.cpp:159] Memory required for data: 4128080
I0501 15:40:01.011823 13394 layer_factory.hpp:77] Creating layer conv2
I0501 15:40:01.011831 13394 net.cpp:94] Creating Layer conv2
I0501 15:40:01.011834 13394 net.cpp:435] conv2 <- conv1
I0501 15:40:01.011839 13394 net.cpp:409] conv2 -> conv2
I0501 15:40:01.021165 13394 net.cpp:144] Setting up conv2
I0501 15:40:01.021180 13394 net.cpp:151] Top shape: 20 64 20 20 (512000)
I0501 15:40:01.021184 13394 net.cpp:159] Memory required for data: 6176080
I0501 15:40:01.021193 13394 layer_factory.hpp:77] Creating layer relu2
I0501 15:40:01.021199 13394 net.cpp:94] Creating Layer relu2
I0501 15:40:01.021203 13394 net.cpp:435] relu2 <- conv2
I0501 15:40:01.021208 13394 net.cpp:396] relu2 -> conv2 (in-place)
I0501 15:40:01.021214 13394 net.cpp:144] Setting up relu2
I0501 15:40:01.021219 13394 net.cpp:151] Top shape: 20 64 20 20 (512000)
I0501 15:40:01.021221 13394 net.cpp:159] Memory required for data: 8224080
I0501 15:40:01.021224 13394 layer_factory.hpp:77] Creating layer pool2
I0501 15:40:01.021230 13394 net.cpp:94] Creating Layer pool2
I0501 15:40:01.021234 13394 net.cpp:435] pool2 <- conv2
I0501 15:40:01.021237 13394 net.cpp:409] pool2 -> pool2
I0501 15:40:01.021288 13394 net.cpp:144] Setting up pool2
I0501 15:40:01.021296 13394 net.cpp:151] Top shape: 20 64 10 10 (128000)
I0501 15:40:01.021299 13394 net.cpp:159] Memory required for data: 8736080
I0501 15:40:01.021302 13394 layer_factory.hpp:77] Creating layer conv3
I0501 15:40:01.021311 13394 net.cpp:94] Creating Layer conv3
I0501 15:40:01.021313 13394 net.cpp:435] conv3 <- pool2
I0501 15:40:01.021325 13394 net.cpp:409] conv3 -> conv3
I0501 15:40:01.027398 13394 net.cpp:144] Setting up conv3
I0501 15:40:01.027412 13394 net.cpp:151] Top shape: 20 64 10 10 (128000)
I0501 15:40:01.027416 13394 net.cpp:159] Memory required for data: 9248080
I0501 15:40:01.027425 13394 layer_factory.hpp:77] Creating layer relu3
I0501 15:40:01.027431 13394 net.cpp:94] Creating Layer relu3
I0501 15:40:01.027433 13394 net.cpp:435] relu3 <- conv3
I0501 15:40:01.027438 13394 net.cpp:396] relu3 -> conv3 (in-place)
I0501 15:40:01.027446 13394 net.cpp:144] Setting up relu3
I0501 15:40:01.027449 13394 net.cpp:151] Top shape: 20 64 10 10 (128000)
I0501 15:40:01.027452 13394 net.cpp:159] Memory required for data: 9760080
I0501 15:40:01.027456 13394 layer_factory.hpp:77] Creating layer conv4
I0501 15:40:01.027463 13394 net.cpp:94] Creating Layer conv4
I0501 15:40:01.027467 13394 net.cpp:435] conv4 <- conv3
I0501 15:40:01.027472 13394 net.cpp:409] conv4 -> conv4
I0501 15:40:01.032769 13394 net.cpp:144] Setting up conv4
I0501 15:40:01.032783 13394 net.cpp:151] Top shape: 20 64 10 10 (128000)
I0501 15:40:01.032788 13394 net.cpp:159] Memory required for data: 10272080
I0501 15:40:01.032793 13394 layer_factory.hpp:77] Creating layer relu4
I0501 15:40:01.032799 13394 net.cpp:94] Creating Layer relu4
I0501 15:40:01.032802 13394 net.cpp:435] relu4 <- conv4
I0501 15:40:01.032807 13394 net.cpp:396] relu4 -> conv4 (in-place)
I0501 15:40:01.032814 13394 net.cpp:144] Setting up relu4
I0501 15:40:01.032819 13394 net.cpp:151] Top shape: 20 64 10 10 (128000)
I0501 15:40:01.032821 13394 net.cpp:159] Memory required for data: 10784080
I0501 15:40:01.032824 13394 layer_factory.hpp:77] Creating layer conv5
I0501 15:40:01.032831 13394 net.cpp:94] Creating Layer conv5
I0501 15:40:01.032835 13394 net.cpp:435] conv5 <- conv4
I0501 15:40:01.032840 13394 net.cpp:409] conv5 -> conv5
I0501 15:40:01.038051 13394 net.cpp:144] Setting up conv5
I0501 15:40:01.038064 13394 net.cpp:151] Top shape: 20 64 10 10 (128000)
I0501 15:40:01.038069 13394 net.cpp:159] Memory required for data: 11296080
I0501 15:40:01.038076 13394 layer_factory.hpp:77] Creating layer relu5
I0501 15:40:01.038082 13394 net.cpp:94] Creating Layer relu5
I0501 15:40:01.038086 13394 net.cpp:435] relu5 <- conv5
I0501 15:40:01.038090 13394 net.cpp:396] relu5 -> conv5 (in-place)
I0501 15:40:01.038097 13394 net.cpp:144] Setting up relu5
I0501 15:40:01.038101 13394 net.cpp:151] Top shape: 20 64 10 10 (128000)
I0501 15:40:01.038105 13394 net.cpp:159] Memory required for data: 11808080
I0501 15:40:01.038107 13394 layer_factory.hpp:77] Creating layer pool5
I0501 15:40:01.038112 13394 net.cpp:94] Creating Layer pool5
I0501 15:40:01.038115 13394 net.cpp:435] pool5 <- conv5
I0501 15:40:01.038120 13394 net.cpp:409] pool5 -> pool5
I0501 15:40:01.038156 13394 net.cpp:144] Setting up pool5
I0501 15:40:01.038161 13394 net.cpp:151] Top shape: 20 64 5 5 (32000)
I0501 15:40:01.038166 13394 net.cpp:159] Memory required for data: 11936080
I0501 15:40:01.038168 13394 layer_factory.hpp:77] Creating layer ip1
I0501 15:40:01.038174 13394 net.cpp:94] Creating Layer ip1
I0501 15:40:01.038178 13394 net.cpp:435] ip1 <- pool5
I0501 15:40:01.038182 13394 net.cpp:409] ip1 -> ip1
I0501 15:40:01.040688 13394 net.cpp:144] Setting up ip1
I0501 15:40:01.040696 13394 net.cpp:151] Top shape: 20 64 (1280)
I0501 15:40:01.040699 13394 net.cpp:159] Memory required for data: 11941200
I0501 15:40:01.040705 13394 layer_factory.hpp:77] Creating layer ip2
I0501 15:40:01.040711 13394 net.cpp:94] Creating Layer ip2
I0501 15:40:01.040715 13394 net.cpp:435] ip2 <- ip1
I0501 15:40:01.040720 13394 net.cpp:409] ip2 -> ip2
I0501 15:40:01.040940 13394 net.cpp:144] Setting up ip2
I0501 15:40:01.040946 13394 net.cpp:151] Top shape: 20 64 (1280)
I0501 15:40:01.040951 13394 net.cpp:159] Memory required for data: 11946320
I0501 15:40:01.040954 13394 layer_factory.hpp:77] Creating layer ip3
I0501 15:40:01.040961 13394 net.cpp:94] Creating Layer ip3
I0501 15:40:01.040963 13394 net.cpp:435] ip3 <- ip2
I0501 15:40:01.040968 13394 net.cpp:409] ip3 -> ip3
I0501 15:40:01.041153 13394 net.cpp:144] Setting up ip3
I0501 15:40:01.041160 13394 net.cpp:151] Top shape: 20 50 (1000)
I0501 15:40:01.041163 13394 net.cpp:159] Memory required for data: 11950320
I0501 15:40:01.041168 13394 layer_factory.hpp:77] Creating layer loss
I0501 15:40:01.041174 13394 net.cpp:94] Creating Layer loss
I0501 15:40:01.041177 13394 net.cpp:435] loss <- ip3
I0501 15:40:01.041182 13394 net.cpp:435] loss <- label
I0501 15:40:01.041185 13394 net.cpp:409] loss -> loss
I0501 15:40:01.041193 13394 layer_factory.hpp:77] Creating layer loss
…
I0501 15:40:01.041689 13394 solver.cpp:181] Creating test net (#0) specified by net file: ./protocol/dis_20_400_dimension.protocol_distribution
I0501 15:40:01.041714 13394 net.cpp:323] The NetState phase (1) differed from the phase (0) specified by a rule in layer parameters
I0501 15:40:01.041810 13394 net.cpp:52] Initializing net from parameters: 
state {
  phase: TEST
}
layer {
  name: "intercept"
  type: "HDF5Data"
  top: "data"
  top: "label"
  include {
    phase: TEST
  }
  hdf5_data_param {
    source: "/home/purduethu/scratch/radon/d/deng106/CNNStatisticalModel/distributions/input/20_distributions_400_sample_size_test-distributions-path.txt"
    batch_size: 20
  }
}
layer {
  name: "conv1"
  type: "Convolution"
  bottom: "data"
  top: "conv1"
  param {
    lr_mult: 1
  }
  param {
    lr_mult: 2
  }
  convolution_param {
    num_output: 64
    pad: 2
    kernel_size: 5
    stride: 1
    weight_filler {
      type: "gaussian"
      std: 0.0001
    }
    bias_filler {
      type: "constant"
    }
  }
}
layer {
  name: "relu1"
  type: "ReLU"
  bottom: "conv1"
  top: "conv1"
}
layer {
  name: "conv2"
  type: "Convolution"
  bottom: "conv1"
  top: "conv2"
  param {
    lr_mult: 1
  }
  param {
    lr_mult: 2
  }
  convolution_param {
    num_output: 64
    pad: 2
    kernel_size: 5
    stride: 1
    weight_filler {
      type: "gaussian"
      std: 0.01
    }
    bias_filler {
      type: "constant"
    }
  }
}
layer {
  name: "relu2"
  type: "ReLU"
  bottom: "conv2"
  top: "conv2"
}
layer {
  name: "pool2"
  type: "Pooling"
  bottom: "conv2"
  top: "pool2"
  pooling_param {
    pool: MAX
    kernel_size: 3
    stride: 2
  }
}
layer {
  name: "conv3"
  type: "Convolution"
  bottom: "pool2"
  top: "conv3"
  param {
    lr_mult: 1
  }
  param {
    lr_mult: 2
  }
  convolution_param {
    num_output: 64
    pad: 2
    kernel_size: 5
    stride: 1
    weight_filler {
      type: "gaussian"
      std: 0.01
    }
    bias_filler {
      type: "constant"
    }
  }
}
layer {
  name: "relu3"
  type: "ReLU"
  bottom: "conv3"
  top: "conv3"
}
layer {
  name: "conv4"
  type: "Convolution"
  bottom: "conv3"
  top: "conv4"
  param {
    lr_mult: 1
  }
  param {
    lr_mult: 2
  }
  convolution_param {
    num_output: 64
    pad: 2
    kernel_size: 5
    stride: 1
    weight_filler {
      type: "gaussian"
      std: 0.01
    }
    bias_filler {
      type: "constant"
    }
  }
}
layer {
  name: "relu4"
  type: "ReLU"
  bottom: "conv4"
  top: "conv4"
}
layer {
  name: "conv5"
  type: "Convolution"
  bottom: "conv4"
  top: "conv5"
  param {
    lr_mult: 1
  }
  param {
    lr_mult: 2
  }
  convolution_param {
    num_output: 64
    pad: 2
    kernel_size: 5
    stride: 1
    weight_filler {
      type: "gaussian"
      std: 0.01
    }
    bias_filler {
      type: "constant"
    }
  }
}
layer {
  name: "relu5"
  type: "ReLU"
  bottom: "conv5"
  top: "conv5"
}
layer {
  name: "pool5"
  type: "Pooling"
  bottom: "conv5"
  top: "pool5"
  pooling_param {
    pool: AVE
    kernel_size: 3
    stride: 2
  }
}
layer {
  name: "ip1"
  type: "InnerProduct"
  bottom: "pool5"
  top: "ip1"
  param {
    lr_mult: 1
  }
  param {
    lr_mult: 2
  }
  inner_product_param {
    num_output: 64
    weight_filler {
      type: "gaussian"
      std: 0.1
    }
    bias_filler {
      type: "constant"
    }
  }
}
layer {
  name: "ip2"
  type: "InnerProduct"
  bottom: "ip1"
  top: "ip2"
  param {
    lr_mult: 1
  }
  param {
    lr_mult: 2
  }
  inner_product_param {
    num_output: 64
    weight_filler {
      type: "gaussian"
      std: 0.1
    }
    bias_filler {
      type: "constant"
    }
  }
}
layer {
  name: "ip3"
  type: "InnerProduct"
  bottom: "ip2"
  top: "ip3"
  param {
    lr_mult: 1
  }
  param {
    lr_mult: 2
  }
  inner_product_param {
    num_output: 50
    weight_filler {
      type: "gaussian"
      std: 0.1
    }
    bias_filler {
      type: "constant"
    }
  }
}
layer {
  name: "accuracy"
  type: "Accuracy"
  bottom: "ip3"
  bottom: "label"
  top: "accuracy"
  include {
    phase: TEST
  }
}
layer {
  name: "loss"
  type: "SoftmaxWithLoss"
  bottom: "ip3"
  bottom: "label"
  top: "loss"
}
I0501 15:40:01.041872 13394 layer_factory.hpp:77] Creating layer intercept
I0501 15:40:01.041880 13394 net.cpp:94] Creating Layer intercept
I0501 15:40:01.041884 13394 net.cpp:409] intercept -> data
I0501 15:40:01.041891 13394 net.cpp:409] intercept -> label
I0501 15:40:01.041898 13394 hdf5_data_layer.cpp:79] Loading list of HDF5 filenames from: /home/purduethu/scratch/radon/d/deng106/CNNStatisticalModel/distributions/input/20_distributions_400_sample_size_test-distributions-path.txt
I0501 15:40:01.041915 13394 hdf5_data_layer.cpp:93] Number of HDF5 files: 1
I0501 15:40:01.108255 13394 net.cpp:144] Setting up intercept
I0501 15:40:01.108299 13394 net.cpp:151] Top shape: 20 1 20 20 (8000)
I0501 15:40:01.108304 13394 net.cpp:151] Top shape: 20 (20)
I0501 15:40:01.108307 13394 net.cpp:159] Memory required for data: 32080
I0501 15:40:01.108314 13394 layer_factory.hpp:77] Creating layer label_intercept_1_split
I0501 15:40:01.108331 13394 net.cpp:94] Creating Layer label_intercept_1_split
I0501 15:40:01.108336 13394 net.cpp:435] label_intercept_1_split <- label
I0501 15:40:01.108342 13394 net.cpp:409] label_intercept_1_split -> label_intercept_1_split_0
I0501 15:40:01.108351 13394 net.cpp:409] label_intercept_1_split -> label_intercept_1_split_1
I0501 15:40:01.108392 13394 net.cpp:144] Setting up label_intercept_1_split
I0501 15:40:01.108398 13394 net.cpp:151] Top shape: 20 (20)
I0501 15:40:01.108402 13394 net.cpp:151] Top shape: 20 (20)
I0501 15:40:01.108404 13394 net.cpp:159] Memory required for data: 32240
I0501 15:40:01.108408 13394 layer_factory.hpp:77] Creating layer conv1
I0501 15:40:01.108419 13394 net.cpp:94] Creating Layer conv1
I0501 15:40:01.108423 13394 net.cpp:435] conv1 <- data
I0501 15:40:01.108428 13394 net.cpp:409] conv1 -> conv1
I0501 15:40:01.109760 13394 net.cpp:144] Setting up conv1
I0501 15:40:01.109781 13394 net.cpp:151] Top shape: 20 64 20 20 (512000)
I0501 15:40:01.109786 13394 net.cpp:159] Memory required for data: 2080240
I0501 15:40:01.109796 13394 layer_factory.hpp:77] Creating layer relu1
I0501 15:40:01.109802 13394 net.cpp:94] Creating Layer relu1
I0501 15:40:01.109805 13394 net.cpp:435] relu1 <- conv1
I0501 15:40:01.109809 13394 net.cpp:396] relu1 -> conv1 (in-place)
I0501 15:40:01.109817 13394 net.cpp:144] Setting up relu1
I0501 15:40:01.109822 13394 net.cpp:151] Top shape: 20 64 20 20 (512000)
I0501 15:40:01.109824 13394 net.cpp:159] Memory required for data: 4128240
I0501 15:40:01.109827 13394 layer_factory.hpp:77] Creating layer conv2
I0501 15:40:01.109835 13394 net.cpp:94] Creating Layer conv2
I0501 15:40:01.109839 13394 net.cpp:435] conv2 <- conv1
I0501 15:40:01.109843 13394 net.cpp:409] conv2 -> conv2
I0501 15:40:01.114683 13394 net.cpp:144] Setting up conv2
I0501 15:40:01.114697 13394 net.cpp:151] Top shape: 20 64 20 20 (512000)
I0501 15:40:01.114701 13394 net.cpp:159] Memory required for data: 6176240
I0501 15:40:01.114709 13394 layer_factory.hpp:77] Creating layer relu2
I0501 15:40:01.114715 13394 net.cpp:94] Creating Layer relu2
I0501 15:40:01.114718 13394 net.cpp:435] relu2 <- conv2
I0501 15:40:01.114723 13394 net.cpp:396] relu2 -> conv2 (in-place)
I0501 15:40:01.114729 13394 net.cpp:144] Setting up relu2
I0501 15:40:01.114733 13394 net.cpp:151] Top shape: 20 64 20 20 (512000)
I0501 15:40:01.114737 13394 net.cpp:159] Memory required for data: 8224240
I0501 15:40:01.114739 13394 layer_factory.hpp:77] Creating layer pool2
I0501 15:40:01.114745 13394 net.cpp:94] Creating Layer pool2
I0501 15:40:01.114748 13394 net.cpp:435] pool2 <- conv2
I0501 15:40:01.114753 13394 net.cpp:409] pool2 -> pool2
I0501 15:40:01.114802 13394 net.cpp:144] Setting up pool2
I0501 15:40:01.114809 13394 net.cpp:151] Top shape: 20 64 10 10 (128000)
I0501 15:40:01.114811 13394 net.cpp:159] Memory required for data: 8736240
I0501 15:40:01.114815 13394 layer_factory.hpp:77] Creating layer conv3
I0501 15:40:01.114822 13394 net.cpp:94] Creating Layer conv3
I0501 15:40:01.114826 13394 net.cpp:435] conv3 <- pool2
I0501 15:40:01.114831 13394 net.cpp:409] conv3 -> conv3
I0501 15:40:01.119573 13394 net.cpp:144] Setting up conv3
I0501 15:40:01.119587 13394 net.cpp:151] Top shape: 20 64 10 10 (128000)
I0501 15:40:01.119591 13394 net.cpp:159] Memory required for data: 9248240
I0501 15:40:01.119599 13394 layer_factory.hpp:77] Creating layer relu3
I0501 15:40:01.119606 13394 net.cpp:94] Creating Layer relu3
I0501 15:40:01.119609 13394 net.cpp:435] relu3 <- conv3
I0501 15:40:01.119614 13394 net.cpp:396] relu3 -> conv3 (in-place)
I0501 15:40:01.119621 13394 net.cpp:144] Setting up relu3
I0501 15:40:01.119626 13394 net.cpp:151] Top shape: 20 64 10 10 (128000)
I0501 15:40:01.119628 13394 net.cpp:159] Memory required for data: 9760240
I0501 15:40:01.119632 13394 layer_factory.hpp:77] Creating layer conv4
I0501 15:40:01.119638 13394 net.cpp:94] Creating Layer conv4
I0501 15:40:01.119642 13394 net.cpp:435] conv4 <- conv3
I0501 15:40:01.119647 13394 net.cpp:409] conv4 -> conv4
I0501 15:40:01.123141 13394 net.cpp:144] Setting up conv4
I0501 15:40:01.123153 13394 net.cpp:151] Top shape: 20 64 10 10 (128000)
I0501 15:40:01.123157 13394 net.cpp:159] Memory required for data: 10272240
I0501 15:40:01.123163 13394 layer_factory.hpp:77] Creating layer relu4
I0501 15:40:01.123169 13394 net.cpp:94] Creating Layer relu4
I0501 15:40:01.123172 13394 net.cpp:435] relu4 <- conv4
I0501 15:40:01.123178 13394 net.cpp:396] relu4 -> conv4 (in-place)
I0501 15:40:01.123184 13394 net.cpp:144] Setting up relu4
I0501 15:40:01.123188 13394 net.cpp:151] Top shape: 20 64 10 10 (128000)
I0501 15:40:01.123191 13394 net.cpp:159] Memory required for data: 10784240
I0501 15:40:01.123194 13394 layer_factory.hpp:77] Creating layer conv5
I0501 15:40:01.123201 13394 net.cpp:94] Creating Layer conv5
I0501 15:40:01.123205 13394 net.cpp:435] conv5 <- conv4
I0501 15:40:01.123210 13394 net.cpp:409] conv5 -> conv5
I0501 15:40:01.127115 13394 net.cpp:144] Setting up conv5
I0501 15:40:01.127133 13394 net.cpp:151] Top shape: 20 64 10 10 (128000)
I0501 15:40:01.127137 13394 net.cpp:159] Memory required for data: 11296240
I0501 15:40:01.127146 13394 layer_factory.hpp:77] Creating layer relu5
I0501 15:40:01.127151 13394 net.cpp:94] Creating Layer relu5
I0501 15:40:01.127156 13394 net.cpp:435] relu5 <- conv5
I0501 15:40:01.127159 13394 net.cpp:396] relu5 -> conv5 (in-place)
I0501 15:40:01.127166 13394 net.cpp:144] Setting up relu5
I0501 15:40:01.127171 13394 net.cpp:151] Top shape: 20 64 10 10 (128000)
I0501 15:40:01.127173 13394 net.cpp:159] Memory required for data: 11808240
I0501 15:40:01.127177 13394 layer_factory.hpp:77] Creating layer pool5
I0501 15:40:01.127182 13394 net.cpp:94] Creating Layer pool5
I0501 15:40:01.127185 13394 net.cpp:435] pool5 <- conv5
I0501 15:40:01.127189 13394 net.cpp:409] pool5 -> pool5
I0501 15:40:01.127224 13394 net.cpp:144] Setting up pool5
I0501 15:40:01.127230 13394 net.cpp:151] Top shape: 20 64 5 5 (32000)
I0501 15:40:01.127234 13394 net.cpp:159] Memory required for data: 11936240
I0501 15:40:01.127238 13394 layer_factory.hpp:77] Creating layer ip1
I0501 15:40:01.127244 13394 net.cpp:94] Creating Layer ip1
I0501 15:40:01.127248 13394 net.cpp:435] ip1 <- pool5
I0501 15:40:01.127252 13394 net.cpp:409] ip1 -> ip1
I0501 15:40:01.129778 13394 net.cpp:144] Setting up ip1
I0501 15:40:01.129787 13394 net.cpp:151] Top shape: 20 64 (1280)
I0501 15:40:01.129791 13394 net.cpp:159] Memory required for data: 11941360
I0501 15:40:01.129796 13394 layer_factory.hpp:77] Creating layer ip2
I0501 15:40:01.129801 13394 net.cpp:94] Creating Layer ip2
I0501 15:40:01.129806 13394 net.cpp:435] ip2 <- ip1
I0501 15:40:01.129811 13394 net.cpp:409] ip2 -> ip2
I0501 15:40:01.130028 13394 net.cpp:144] Setting up ip2
I0501 15:40:01.130036 13394 net.cpp:151] Top shape: 20 64 (1280)
I0501 15:40:01.130039 13394 net.cpp:159] Memory required for data: 11946480
I0501 15:40:01.130044 13394 layer_factory.hpp:77] Creating layer ip3
I0501 15:40:01.130051 13394 net.cpp:94] Creating Layer ip3
I0501 15:40:01.130054 13394 net.cpp:435] ip3 <- ip2
I0501 15:40:01.130059 13394 net.cpp:409] ip3 -> ip3
I0501 15:40:01.130254 13394 net.cpp:144] Setting up ip3
I0501 15:40:01.130259 13394 net.cpp:151] Top shape: 20 50 (1000)
I0501 15:40:01.130262 13394 net.cpp:159] Memory required for data: 11950480
I0501 15:40:01.130267 13394 layer_factory.hpp:77] Creating layer ip3_ip3_0_split
I0501 15:40:01.130273 13394 net.cpp:94] Creating Layer ip3_ip3_0_split
I0501 15:40:01.130276 13394 net.cpp:435] ip3_ip3_0_split <- ip3
I0501 15:40:01.130280 13394 net.cpp:409] ip3_ip3_0_split -> ip3_ip3_0_split_0
I0501 15:40:01.130285 13394 net.cpp:409] ip3_ip3_0_split -> ip3_ip3_0_split_1
I0501 15:40:01.130323 13394 net.cpp:144] Setting up ip3_ip3_0_split
I0501 15:40:01.130329 13394 net.cpp:151] Top shape: 20 50 (1000)
I0501 15:40:01.130332 13394 net.cpp:151] Top shape: 20 50 (1000)
I0501 15:40:01.130336 13394 net.cpp:159] Memory required for data: 11958480
I0501 15:40:01.130338 13394 layer_factory.hpp:77] Creating layer accuracy
I0501 15:40:01.130344 13394 net.cpp:94] Creating Layer accuracy
I0501 15:40:01.130347 13394 net.cpp:435] accuracy <- ip3_ip3_0_split_0
I0501 15:40:01.130352 13394 net.cpp:435] accuracy <- label_intercept_1_split_0
I0501 15:40:01.130355 13394 net.cpp:409] accuracy -> accuracy
…
