…
I0502 00:01:40.500161 16646 net.cpp:323] The NetState phase (0) differed from the phase (1) specified by a rule in layer intercept
I0502 00:01:40.500178 16646 net.cpp:323] The NetState phase (0) differed from the phase (1) specified by a rule in layer loss
I0502 00:01:40.500260 16646 net.cpp:52] Initializing net from parameters: 
state {
  phase: TRAIN
}
layer {
  name: "parameters"
  type: "HDF5Data"
  top: "data"
  top: "label"
  include {
    phase: TRAIN
  }
  hdf5_data_param {
    source: "/home/purduethu/scratch/radon/d/deng106/CNNStatisticalModel/distributions/input/20_distributions_900_sample_size_train-parameters-path.txt"
    batch_size: 20
  }
}
layer {
  name: "conv1"
  type: "Convolution"
  bottom: "data"
  top: "conv1"
  param {
    lr_mult: 1
  }
  param {
    lr_mult: 2
  }
  convolution_param {
    num_output: 64
    pad: 2
    kernel_size: 5
    stride: 1
    weight_filler {
      type: "gaussian"
      std: 0.0001
    }
    bias_filler {
      type: "constant"
    }
  }
}
layer {
  name: "relu1"
  type: "ReLU"
  bottom: "conv1"
  top: "conv1"
}
layer {
  name: "conv2"
  type: "Convolution"
  bottom: "conv1"
  top: "conv2"
  param {
    lr_mult: 1
  }
  param {
    lr_mult: 2
  }
  convolution_param {
    num_output: 64
    pad: 2
    kernel_size: 5
    stride: 1
    weight_filler {
      type: "gaussian"
      std: 0.01
    }
    bias_filler {
      type: "constant"
    }
  }
}
layer {
  name: "relu2"
  type: "ReLU"
  bottom: "conv2"
  top: "conv2"
}
layer {
  name: "pool2"
  type: "Pooling"
  bottom: "conv2"
  top: "pool2"
  pooling_param {
    pool: MAX
    kernel_size: 3
    stride: 2
  }
}
layer {
  name: "conv3"
  type: "Convolution"
  bottom: "pool2"
  top: "conv3"
  param {
    lr_mult: 1
  }
  param {
    lr_mult: 2
  }
  convolution_param {
    num_output: 64
    pad: 2
    kernel_size: 5
    stride: 1
    weight_filler {
      type: "gaussian"
      std: 0.01
    }
    bias_filler {
      type: "constant"
    }
  }
}
layer {
  name: "relu3"
  type: "ReLU"
  bottom: "conv3"
  top: "conv3"
}
layer {
  name: "conv4"
  type: "Convolution"
  bottom: "conv3"
  top: "conv4"
  param {
    lr_mult: 1
  }
  param {
    lr_mult: 2
  }
  convolution_param {
    num_output: 64
    pad: 2
    kernel_size: 5
    stride: 1
    weight_filler {
      type: "gaussian"
      std: 0.01
    }
    bias_filler {
      type: "constant"
    }
  }
}
layer {
  name: "relu4"
  type: "ReLU"
  bottom: "conv4"
  top: "conv4"
}
layer {
  name: "conv5"
  type: "Convolution"
  bottom: "conv4"
  top: "conv5"
  param {
    lr_mult: 1
  }
  param {
    lr_mult: 2
  }
  convolution_param {
    num_output: 64
    pad: 2
    kernel_size: 5
    stride: 1
    weight_filler {
      type: "gaussian"
      std: 0.01
    }
    bias_filler {
      type: "constant"
    }
  }
}
layer {
  name: "relu5"
  type: "ReLU"
  bottom: "conv5"
  top: "conv5"
}
layer {
  name: "pool5"
  type: "Pooling"
  bottom: "conv5"
  top: "pool5"
  pooling_param {
    pool: AVE
    kernel_size: 3
    stride: 2
  }
}
layer {
  name: "ip1"
  type: "InnerProduct"
  bottom: "pool5"
  top: "ip1"
  param {
    lr_mult: 1
  }
  param {
    lr_mult: 2
  }
  inner_product_param {
    num_output: 64
    weight_filler {
      type: "gaussian"
      std: 0.1
    }
    bias_filler {
      type: "constant"
    }
  }
}
layer {
  name: "ip2"
  type: "InnerProduct"
  bottom: "ip1"
  top: "ip2"
  param {
    lr_mult: 1
  }
  param {
    lr_mult: 2
  }
  inner_product_param {
    num_output: 64
    weight_filler {
      type: "gaussian"
      std: 0.1
    }
    bias_filler {
      type: "constant"
    }
  }
}
layer {
  name: "ip3"
  type: "InnerProduct"
  bottom: "ip2"
  top: "ip3"
  param {
    lr_mult: 1
  }
  param {
    lr_mult: 2
  }
  inner_product_param {
    num_output: 1
    weight_filler {
      type: "gaussian"
      std: 0.1
    }
    bias_filler {
      type: "constant"
    }
  }
}
layer {
  name: "loss"
  type: "HuberLoss"
  bottom: "ip3"
  bottom: "label"
  top: "loss"
  include {
    phase: TRAIN
  }
}
I0502 00:01:40.500316 16646 layer_factory.hpp:77] Creating layer parameters
I0502 00:01:40.500329 16646 net.cpp:94] Creating Layer parameters
I0502 00:01:40.500334 16646 net.cpp:409] parameters -> data
I0502 00:01:40.500344 16646 net.cpp:409] parameters -> label
I0502 00:01:40.500351 16646 hdf5_data_layer.cpp:79] Loading list of HDF5 filenames from: /home/purduethu/scratch/radon/d/deng106/CNNStatisticalModel/distributions/input/20_distributions_900_sample_size_train-parameters-path.txt
I0502 00:01:40.500366 16646 hdf5_data_layer.cpp:93] Number of HDF5 files: 1
I0502 00:01:40.500954 16646 hdf5.cpp:32] Datatype class: H5T_FLOAT
I0502 00:01:41.097458 16646 net.cpp:144] Setting up parameters
I0502 00:01:41.097491 16646 net.cpp:151] Top shape: 20 1 30 30 (18000)
I0502 00:01:41.097496 16646 net.cpp:151] Top shape: 20 (20)
I0502 00:01:41.097501 16646 net.cpp:159] Memory required for data: 72080
I0502 00:01:41.097507 16646 layer_factory.hpp:77] Creating layer conv1
I0502 00:01:41.097528 16646 net.cpp:94] Creating Layer conv1
I0502 00:01:41.097533 16646 net.cpp:435] conv1 <- data
I0502 00:01:41.097542 16646 net.cpp:409] conv1 -> conv1
I0502 00:01:41.108261 16646 net.cpp:144] Setting up conv1
I0502 00:01:41.108284 16646 net.cpp:151] Top shape: 20 64 30 30 (1152000)
I0502 00:01:41.108289 16646 net.cpp:159] Memory required for data: 4680080
I0502 00:01:41.108300 16646 layer_factory.hpp:77] Creating layer relu1
I0502 00:01:41.108310 16646 net.cpp:94] Creating Layer relu1
I0502 00:01:41.108314 16646 net.cpp:435] relu1 <- conv1
I0502 00:01:41.108319 16646 net.cpp:396] relu1 -> conv1 (in-place)
I0502 00:01:41.108335 16646 net.cpp:144] Setting up relu1
I0502 00:01:41.108340 16646 net.cpp:151] Top shape: 20 64 30 30 (1152000)
I0502 00:01:41.108343 16646 net.cpp:159] Memory required for data: 9288080
I0502 00:01:41.108347 16646 layer_factory.hpp:77] Creating layer conv2
I0502 00:01:41.108355 16646 net.cpp:94] Creating Layer conv2
I0502 00:01:41.108359 16646 net.cpp:435] conv2 <- conv1
I0502 00:01:41.108364 16646 net.cpp:409] conv2 -> conv2
I0502 00:01:41.124564 16646 net.cpp:144] Setting up conv2
I0502 00:01:41.124579 16646 net.cpp:151] Top shape: 20 64 30 30 (1152000)
I0502 00:01:41.124584 16646 net.cpp:159] Memory required for data: 13896080
I0502 00:01:41.124593 16646 layer_factory.hpp:77] Creating layer relu2
I0502 00:01:41.124600 16646 net.cpp:94] Creating Layer relu2
I0502 00:01:41.124604 16646 net.cpp:435] relu2 <- conv2
I0502 00:01:41.124609 16646 net.cpp:396] relu2 -> conv2 (in-place)
I0502 00:01:41.124616 16646 net.cpp:144] Setting up relu2
I0502 00:01:41.124621 16646 net.cpp:151] Top shape: 20 64 30 30 (1152000)
I0502 00:01:41.124624 16646 net.cpp:159] Memory required for data: 18504080
I0502 00:01:41.124629 16646 layer_factory.hpp:77] Creating layer pool2
I0502 00:01:41.124640 16646 net.cpp:94] Creating Layer pool2
I0502 00:01:41.124644 16646 net.cpp:435] pool2 <- conv2
I0502 00:01:41.124650 16646 net.cpp:409] pool2 -> pool2
I0502 00:01:41.124712 16646 net.cpp:144] Setting up pool2
I0502 00:01:41.124721 16646 net.cpp:151] Top shape: 20 64 15 15 (288000)
I0502 00:01:41.124724 16646 net.cpp:159] Memory required for data: 19656080
I0502 00:01:41.124727 16646 layer_factory.hpp:77] Creating layer conv3
I0502 00:01:41.124737 16646 net.cpp:94] Creating Layer conv3
I0502 00:01:41.124739 16646 net.cpp:435] conv3 <- pool2
I0502 00:01:41.124744 16646 net.cpp:409] conv3 -> conv3
I0502 00:01:41.133878 16646 net.cpp:144] Setting up conv3
I0502 00:01:41.133893 16646 net.cpp:151] Top shape: 20 64 15 15 (288000)
I0502 00:01:41.133898 16646 net.cpp:159] Memory required for data: 20808080
I0502 00:01:41.133908 16646 layer_factory.hpp:77] Creating layer relu3
I0502 00:01:41.133913 16646 net.cpp:94] Creating Layer relu3
I0502 00:01:41.133918 16646 net.cpp:435] relu3 <- conv3
I0502 00:01:41.133922 16646 net.cpp:396] relu3 -> conv3 (in-place)
I0502 00:01:41.133930 16646 net.cpp:144] Setting up relu3
I0502 00:01:41.133934 16646 net.cpp:151] Top shape: 20 64 15 15 (288000)
I0502 00:01:41.133939 16646 net.cpp:159] Memory required for data: 21960080
I0502 00:01:41.133941 16646 layer_factory.hpp:77] Creating layer conv4
I0502 00:01:41.133950 16646 net.cpp:94] Creating Layer conv4
I0502 00:01:41.133955 16646 net.cpp:435] conv4 <- conv3
I0502 00:01:41.133960 16646 net.cpp:409] conv4 -> conv4
I0502 00:01:41.142103 16646 net.cpp:144] Setting up conv4
I0502 00:01:41.142119 16646 net.cpp:151] Top shape: 20 64 15 15 (288000)
I0502 00:01:41.142123 16646 net.cpp:159] Memory required for data: 23112080
I0502 00:01:41.142130 16646 layer_factory.hpp:77] Creating layer relu4
I0502 00:01:41.142138 16646 net.cpp:94] Creating Layer relu4
I0502 00:01:41.142141 16646 net.cpp:435] relu4 <- conv4
I0502 00:01:41.142146 16646 net.cpp:396] relu4 -> conv4 (in-place)
I0502 00:01:41.142153 16646 net.cpp:144] Setting up relu4
I0502 00:01:41.142158 16646 net.cpp:151] Top shape: 20 64 15 15 (288000)
I0502 00:01:41.142161 16646 net.cpp:159] Memory required for data: 24264080
I0502 00:01:41.142165 16646 layer_factory.hpp:77] Creating layer conv5
I0502 00:01:41.142174 16646 net.cpp:94] Creating Layer conv5
I0502 00:01:41.142177 16646 net.cpp:435] conv5 <- conv4
I0502 00:01:41.142182 16646 net.cpp:409] conv5 -> conv5
I0502 00:01:41.150956 16646 net.cpp:144] Setting up conv5
I0502 00:01:41.150972 16646 net.cpp:151] Top shape: 20 64 15 15 (288000)
I0502 00:01:41.150977 16646 net.cpp:159] Memory required for data: 25416080
I0502 00:01:41.150986 16646 layer_factory.hpp:77] Creating layer relu5
I0502 00:01:41.150992 16646 net.cpp:94] Creating Layer relu5
I0502 00:01:41.150996 16646 net.cpp:435] relu5 <- conv5
I0502 00:01:41.151001 16646 net.cpp:396] relu5 -> conv5 (in-place)
I0502 00:01:41.151008 16646 net.cpp:144] Setting up relu5
I0502 00:01:41.151013 16646 net.cpp:151] Top shape: 20 64 15 15 (288000)
I0502 00:01:41.151017 16646 net.cpp:159] Memory required for data: 26568080
I0502 00:01:41.151021 16646 layer_factory.hpp:77] Creating layer pool5
I0502 00:01:41.151026 16646 net.cpp:94] Creating Layer pool5
I0502 00:01:41.151029 16646 net.cpp:435] pool5 <- conv5
I0502 00:01:41.151034 16646 net.cpp:409] pool5 -> pool5
I0502 00:01:41.151077 16646 net.cpp:144] Setting up pool5
I0502 00:01:41.151087 16646 net.cpp:151] Top shape: 20 64 7 7 (62720)
I0502 00:01:41.151089 16646 net.cpp:159] Memory required for data: 26818960
I0502 00:01:41.151093 16646 layer_factory.hpp:77] Creating layer ip1
I0502 00:01:41.151103 16646 net.cpp:94] Creating Layer ip1
I0502 00:01:41.151108 16646 net.cpp:435] ip1 <- pool5
I0502 00:01:41.151113 16646 net.cpp:409] ip1 -> ip1
I0502 00:01:41.156131 16646 net.cpp:144] Setting up ip1
I0502 00:01:41.156141 16646 net.cpp:151] Top shape: 20 64 (1280)
I0502 00:01:41.156146 16646 net.cpp:159] Memory required for data: 26824080
I0502 00:01:41.156152 16646 layer_factory.hpp:77] Creating layer ip2
I0502 00:01:41.156158 16646 net.cpp:94] Creating Layer ip2
I0502 00:01:41.156167 16646 net.cpp:435] ip2 <- ip1
I0502 00:01:41.156173 16646 net.cpp:409] ip2 -> ip2
I0502 00:01:41.156399 16646 net.cpp:144] Setting up ip2
I0502 00:01:41.156407 16646 net.cpp:151] Top shape: 20 64 (1280)
I0502 00:01:41.156411 16646 net.cpp:159] Memory required for data: 26829200
I0502 00:01:41.156416 16646 layer_factory.hpp:77] Creating layer ip3
I0502 00:01:41.156422 16646 net.cpp:94] Creating Layer ip3
I0502 00:01:41.156426 16646 net.cpp:435] ip3 <- ip2
I0502 00:01:41.156432 16646 net.cpp:409] ip3 -> ip3
I0502 00:01:41.156543 16646 net.cpp:144] Setting up ip3
I0502 00:01:41.156556 16646 net.cpp:151] Top shape: 20 1 (20)
I0502 00:01:41.156560 16646 net.cpp:159] Memory required for data: 26829280
I0502 00:01:41.156566 16646 layer_factory.hpp:77] Creating layer loss
I0502 00:01:41.156574 16646 net.cpp:94] Creating Layer loss
I0502 00:01:41.156579 16646 net.cpp:435] loss <- ip3
I0502 00:01:41.156582 16646 net.cpp:435] loss <- label
I0502 00:01:41.156587 16646 net.cpp:409] loss -> loss
I0502 00:01:41.156646 16646 net.cpp:144] Setting up loss
…
I0502 00:01:41.334573 16646 net.cpp:323] The NetState phase (0) differed from the phase (1) specified by a rule in layer intercept
I0502 00:01:41.334589 16646 net.cpp:323] The NetState phase (0) differed from the phase (1) specified by a rule in layer accuracy
I0502 00:01:41.334686 16646 net.cpp:52] Initializing net from parameters: 
state {
  phase: TRAIN
}
layer {
  name: "parameters"
  type: "HDF5Data"
  top: "data"
  top: "label"
  include {
    phase: TRAIN
  }
  hdf5_data_param {
    source: "/home/purduethu/scratch/radon/d/deng106/CNNStatisticalModel/distributions/input/20_distributions_900_sample_size_train-distributions-path.txt"
    batch_size: 20
  }
}
layer {
  name: "conv1"
  type: "Convolution"
  bottom: "data"
  top: "conv1"
  param {
    lr_mult: 1
  }
  param {
    lr_mult: 2
  }
  convolution_param {
    num_output: 64
    pad: 2
    kernel_size: 5
    stride: 1
    weight_filler {
      type: "gaussian"
      std: 0.0001
    }
    bias_filler {
      type: "constant"
    }
  }
}
layer {
  name: "relu1"
  type: "ReLU"
  bottom: "conv1"
  top: "conv1"
}
layer {
  name: "conv2"
  type: "Convolution"
  bottom: "conv1"
  top: "conv2"
  param {
    lr_mult: 1
  }
  param {
    lr_mult: 2
  }
  convolution_param {
    num_output: 64
    pad: 2
    kernel_size: 5
    stride: 1
    weight_filler {
      type: "gaussian"
      std: 0.01
    }
    bias_filler {
      type: "constant"
    }
  }
}
layer {
  name: "relu2"
  type: "ReLU"
  bottom: "conv2"
  top: "conv2"
}
layer {
  name: "pool2"
  type: "Pooling"
  bottom: "conv2"
  top: "pool2"
  pooling_param {
    pool: MAX
    kernel_size: 3
    stride: 2
  }
}
layer {
  name: "conv3"
  type: "Convolution"
  bottom: "pool2"
  top: "conv3"
  param {
    lr_mult: 1
  }
  param {
    lr_mult: 2
  }
  convolution_param {
    num_output: 64
    pad: 2
    kernel_size: 5
    stride: 1
    weight_filler {
      type: "gaussian"
      std: 0.01
    }
    bias_filler {
      type: "constant"
    }
  }
}
layer {
  name: "relu3"
  type: "ReLU"
  bottom: "conv3"
  top: "conv3"
}
layer {
  name: "conv4"
  type: "Convolution"
  bottom: "conv3"
  top: "conv4"
  param {
    lr_mult: 1
  }
  param {
    lr_mult: 2
  }
  convolution_param {
    num_output: 64
    pad: 2
    kernel_size: 5
    stride: 1
    weight_filler {
      type: "gaussian"
      std: 0.01
    }
    bias_filler {
      type: "constant"
    }
  }
}
layer {
  name: "relu4"
  type: "ReLU"
  bottom: "conv4"
  top: "conv4"
}
layer {
  name: "conv5"
  type: "Convolution"
  bottom: "conv4"
  top: "conv5"
  param {
    lr_mult: 1
  }
  param {
    lr_mult: 2
  }
  convolution_param {
    num_output: 64
    pad: 2
    kernel_size: 5
    stride: 1
    weight_filler {
      type: "gaussian"
      std: 0.01
    }
    bias_filler {
      type: "constant"
    }
  }
}
layer {
  name: "relu5"
  type: "ReLU"
  bottom: "conv5"
  top: "conv5"
}
layer {
  name: "pool5"
  type: "Pooling"
  bottom: "conv5"
  top: "pool5"
  pooling_param {
    pool: AVE
    kernel_size: 3
    stride: 2
  }
}
layer {
  name: "ip1"
  type: "InnerProduct"
  bottom: "pool5"
  top: "ip1"
  param {
    lr_mult: 1
  }
  param {
    lr_mult: 2
  }
  inner_product_param {
    num_output: 64
    weight_filler {
      type: "gaussian"
      std: 0.1
    }
    bias_filler {
      type: "constant"
    }
  }
}
layer {
  name: "ip2"
  type: "InnerProduct"
  bottom: "ip1"
  top: "ip2"
  param {
    lr_mult: 1
  }
  param {
    lr_mult: 2
  }
  inner_product_param {
    num_output: 64
    weight_filler {
      type: "gaussian"
      std: 0.1
    }
    bias_filler {
      type: "constant"
    }
  }
}
layer {
  name: "ip3"
  type: "InnerProduct"
  bottom: "ip2"
  top: "ip3"
  param {
    lr_mult: 1
  }
  param {
    lr_mult: 2
  }
  inner_product_param {
    num_output: 50
    weight_filler {
      type: "gaussian"
      std: 0.1
    }
    bias_filler {
      type: "constant"
    }
  }
}
layer {
  name: "loss"
  type: "SoftmaxWithLoss"
  bottom: "ip3"
  bottom: "label"
  top: "loss"
}
I0502 00:01:41.334738 16646 layer_factory.hpp:77] Creating layer parameters
I0502 00:01:41.334745 16646 net.cpp:94] Creating Layer parameters
I0502 00:01:41.334750 16646 net.cpp:409] parameters -> data
I0502 00:01:41.334758 16646 net.cpp:409] parameters -> label
I0502 00:01:41.334764 16646 hdf5_data_layer.cpp:79] Loading list of HDF5 filenames from: /home/purduethu/scratch/radon/d/deng106/CNNStatisticalModel/distributions/input/20_distributions_900_sample_size_train-distributions-path.txt
I0502 00:01:41.334779 16646 hdf5_data_layer.cpp:93] Number of HDF5 files: 1
I0502 00:01:41.900606 16646 hdf5.cpp:35] Datatype class: H5T_INTEGER
I0502 00:01:41.902590 16646 net.cpp:144] Setting up parameters
I0502 00:01:41.902608 16646 net.cpp:151] Top shape: 20 1 30 30 (18000)
I0502 00:01:41.902613 16646 net.cpp:151] Top shape: 20 (20)
I0502 00:01:41.902617 16646 net.cpp:159] Memory required for data: 72080
I0502 00:01:41.902624 16646 layer_factory.hpp:77] Creating layer conv1
I0502 00:01:41.902640 16646 net.cpp:94] Creating Layer conv1
I0502 00:01:41.902645 16646 net.cpp:435] conv1 <- data
I0502 00:01:41.902652 16646 net.cpp:409] conv1 -> conv1
I0502 00:01:41.906146 16646 net.cpp:144] Setting up conv1
I0502 00:01:41.906159 16646 net.cpp:151] Top shape: 20 64 30 30 (1152000)
I0502 00:01:41.906164 16646 net.cpp:159] Memory required for data: 4680080
I0502 00:01:41.906174 16646 layer_factory.hpp:77] Creating layer relu1
I0502 00:01:41.906183 16646 net.cpp:94] Creating Layer relu1
I0502 00:01:41.906186 16646 net.cpp:435] relu1 <- conv1
I0502 00:01:41.906190 16646 net.cpp:396] relu1 -> conv1 (in-place)
I0502 00:01:41.906198 16646 net.cpp:144] Setting up relu1
I0502 00:01:41.906203 16646 net.cpp:151] Top shape: 20 64 30 30 (1152000)
I0502 00:01:41.906206 16646 net.cpp:159] Memory required for data: 9288080
I0502 00:01:41.906209 16646 layer_factory.hpp:77] Creating layer conv2
I0502 00:01:41.906217 16646 net.cpp:94] Creating Layer conv2
I0502 00:01:41.906221 16646 net.cpp:435] conv2 <- conv1
I0502 00:01:41.906226 16646 net.cpp:409] conv2 -> conv2
I0502 00:01:41.922152 16646 net.cpp:144] Setting up conv2
I0502 00:01:41.922190 16646 net.cpp:151] Top shape: 20 64 30 30 (1152000)
I0502 00:01:41.922202 16646 net.cpp:159] Memory required for data: 13896080
I0502 00:01:41.922225 16646 layer_factory.hpp:77] Creating layer relu2
I0502 00:01:41.922243 16646 net.cpp:94] Creating Layer relu2
I0502 00:01:41.922255 16646 net.cpp:435] relu2 <- conv2
I0502 00:01:41.922268 16646 net.cpp:396] relu2 -> conv2 (in-place)
I0502 00:01:41.922288 16646 net.cpp:144] Setting up relu2
I0502 00:01:41.922302 16646 net.cpp:151] Top shape: 20 64 30 30 (1152000)
I0502 00:01:41.922310 16646 net.cpp:159] Memory required for data: 18504080
I0502 00:01:41.922320 16646 layer_factory.hpp:77] Creating layer pool2
I0502 00:01:41.922334 16646 net.cpp:94] Creating Layer pool2
I0502 00:01:41.922344 16646 net.cpp:435] pool2 <- conv2
I0502 00:01:41.922358 16646 net.cpp:409] pool2 -> pool2
I0502 00:01:41.922456 16646 net.cpp:144] Setting up pool2
I0502 00:01:41.922462 16646 net.cpp:151] Top shape: 20 64 15 15 (288000)
I0502 00:01:41.922466 16646 net.cpp:159] Memory required for data: 19656080
I0502 00:01:41.922469 16646 layer_factory.hpp:77] Creating layer conv3
I0502 00:01:41.922477 16646 net.cpp:94] Creating Layer conv3
I0502 00:01:41.922480 16646 net.cpp:435] conv3 <- pool2
I0502 00:01:41.922492 16646 net.cpp:409] conv3 -> conv3
I0502 00:01:41.931380 16646 net.cpp:144] Setting up conv3
I0502 00:01:41.931394 16646 net.cpp:151] Top shape: 20 64 15 15 (288000)
I0502 00:01:41.931399 16646 net.cpp:159] Memory required for data: 20808080
I0502 00:01:41.931408 16646 layer_factory.hpp:77] Creating layer relu3
I0502 00:01:41.931414 16646 net.cpp:94] Creating Layer relu3
I0502 00:01:41.931418 16646 net.cpp:435] relu3 <- conv3
I0502 00:01:41.931423 16646 net.cpp:396] relu3 -> conv3 (in-place)
I0502 00:01:41.931432 16646 net.cpp:144] Setting up relu3
I0502 00:01:41.931435 16646 net.cpp:151] Top shape: 20 64 15 15 (288000)
I0502 00:01:41.931439 16646 net.cpp:159] Memory required for data: 21960080
I0502 00:01:41.931442 16646 layer_factory.hpp:77] Creating layer conv4
I0502 00:01:41.931452 16646 net.cpp:94] Creating Layer conv4
I0502 00:01:41.931455 16646 net.cpp:435] conv4 <- conv3
I0502 00:01:41.931460 16646 net.cpp:409] conv4 -> conv4
I0502 00:01:41.939473 16646 net.cpp:144] Setting up conv4
I0502 00:01:41.939512 16646 net.cpp:151] Top shape: 20 64 15 15 (288000)
I0502 00:01:41.939524 16646 net.cpp:159] Memory required for data: 23112080
I0502 00:01:41.939543 16646 layer_factory.hpp:77] Creating layer relu4
I0502 00:01:41.939559 16646 net.cpp:94] Creating Layer relu4
I0502 00:01:41.939570 16646 net.cpp:435] relu4 <- conv4
I0502 00:01:41.939585 16646 net.cpp:396] relu4 -> conv4 (in-place)
I0502 00:01:41.939605 16646 net.cpp:144] Setting up relu4
I0502 00:01:41.939618 16646 net.cpp:151] Top shape: 20 64 15 15 (288000)
I0502 00:01:41.939627 16646 net.cpp:159] Memory required for data: 24264080
I0502 00:01:41.939637 16646 layer_factory.hpp:77] Creating layer conv5
I0502 00:01:41.939658 16646 net.cpp:94] Creating Layer conv5
I0502 00:01:41.939668 16646 net.cpp:435] conv5 <- conv4
I0502 00:01:41.939682 16646 net.cpp:409] conv5 -> conv5
I0502 00:01:41.947878 16646 net.cpp:144] Setting up conv5
I0502 00:01:41.947893 16646 net.cpp:151] Top shape: 20 64 15 15 (288000)
I0502 00:01:41.947897 16646 net.cpp:159] Memory required for data: 25416080
I0502 00:01:41.947907 16646 layer_factory.hpp:77] Creating layer relu5
I0502 00:01:41.947913 16646 net.cpp:94] Creating Layer relu5
I0502 00:01:41.947917 16646 net.cpp:435] relu5 <- conv5
I0502 00:01:41.947922 16646 net.cpp:396] relu5 -> conv5 (in-place)
I0502 00:01:41.947931 16646 net.cpp:144] Setting up relu5
I0502 00:01:41.947934 16646 net.cpp:151] Top shape: 20 64 15 15 (288000)
I0502 00:01:41.947938 16646 net.cpp:159] Memory required for data: 26568080
I0502 00:01:41.947942 16646 layer_factory.hpp:77] Creating layer pool5
I0502 00:01:41.947947 16646 net.cpp:94] Creating Layer pool5
I0502 00:01:41.947950 16646 net.cpp:435] pool5 <- conv5
I0502 00:01:41.947955 16646 net.cpp:409] pool5 -> pool5
I0502 00:01:41.947998 16646 net.cpp:144] Setting up pool5
I0502 00:01:41.948004 16646 net.cpp:151] Top shape: 20 64 7 7 (62720)
I0502 00:01:41.948009 16646 net.cpp:159] Memory required for data: 26818960
I0502 00:01:41.948011 16646 layer_factory.hpp:77] Creating layer ip1
I0502 00:01:41.948019 16646 net.cpp:94] Creating Layer ip1
I0502 00:01:41.948022 16646 net.cpp:435] ip1 <- pool5
I0502 00:01:41.948027 16646 net.cpp:409] ip1 -> ip1
I0502 00:01:41.954133 16646 net.cpp:144] Setting up ip1
I0502 00:01:41.954149 16646 net.cpp:151] Top shape: 20 64 (1280)
I0502 00:01:41.954152 16646 net.cpp:159] Memory required for data: 26824080
I0502 00:01:41.954159 16646 layer_factory.hpp:77] Creating layer ip2
I0502 00:01:41.954166 16646 net.cpp:94] Creating Layer ip2
I0502 00:01:41.954170 16646 net.cpp:435] ip2 <- ip1
I0502 00:01:41.954176 16646 net.cpp:409] ip2 -> ip2
I0502 00:01:41.954421 16646 net.cpp:144] Setting up ip2
I0502 00:01:41.954429 16646 net.cpp:151] Top shape: 20 64 (1280)
I0502 00:01:41.954433 16646 net.cpp:159] Memory required for data: 26829200
I0502 00:01:41.954439 16646 layer_factory.hpp:77] Creating layer ip3
I0502 00:01:41.954445 16646 net.cpp:94] Creating Layer ip3
I0502 00:01:41.954449 16646 net.cpp:435] ip3 <- ip2
I0502 00:01:41.954455 16646 net.cpp:409] ip3 -> ip3
I0502 00:01:41.954674 16646 net.cpp:144] Setting up ip3
I0502 00:01:41.954684 16646 net.cpp:151] Top shape: 20 50 (1000)
I0502 00:01:41.954686 16646 net.cpp:159] Memory required for data: 26833200
I0502 00:01:41.954692 16646 layer_factory.hpp:77] Creating layer loss
I0502 00:01:41.954700 16646 net.cpp:94] Creating Layer loss
I0502 00:01:41.954704 16646 net.cpp:435] loss <- ip3
I0502 00:01:41.954708 16646 net.cpp:435] loss <- label
I0502 00:01:41.954713 16646 net.cpp:409] loss -> loss
I0502 00:01:41.954721 16646 layer_factory.hpp:77] Creating layer loss
…
I0502 00:01:41.955282 16646 solver.cpp:181] Creating test net (#0) specified by net file: ./protocol/dis_20_900_dimension.protocol_distribution
I0502 00:01:41.955310 16646 net.cpp:323] The NetState phase (1) differed from the phase (0) specified by a rule in layer parameters
I0502 00:01:41.955410 16646 net.cpp:52] Initializing net from parameters: 
state {
  phase: TEST
}
layer {
  name: "intercept"
  type: "HDF5Data"
  top: "data"
  top: "label"
  include {
    phase: TEST
  }
  hdf5_data_param {
    source: "/home/purduethu/scratch/radon/d/deng106/CNNStatisticalModel/distributions/input/20_distributions_900_sample_size_test-distributions-path.txt"
    batch_size: 20
  }
}
layer {
  name: "conv1"
  type: "Convolution"
  bottom: "data"
  top: "conv1"
  param {
    lr_mult: 1
  }
  param {
    lr_mult: 2
  }
  convolution_param {
    num_output: 64
    pad: 2
    kernel_size: 5
    stride: 1
    weight_filler {
      type: "gaussian"
      std: 0.0001
    }
    bias_filler {
      type: "constant"
    }
  }
}
layer {
  name: "relu1"
  type: "ReLU"
  bottom: "conv1"
  top: "conv1"
}
layer {
  name: "conv2"
  type: "Convolution"
  bottom: "conv1"
  top: "conv2"
  param {
    lr_mult: 1
  }
  param {
    lr_mult: 2
  }
  convolution_param {
    num_output: 64
    pad: 2
    kernel_size: 5
    stride: 1
    weight_filler {
      type: "gaussian"
      std: 0.01
    }
    bias_filler {
      type: "constant"
    }
  }
}
layer {
  name: "relu2"
  type: "ReLU"
  bottom: "conv2"
  top: "conv2"
}
layer {
  name: "pool2"
  type: "Pooling"
  bottom: "conv2"
  top: "pool2"
  pooling_param {
    pool: MAX
    kernel_size: 3
    stride: 2
  }
}
layer {
  name: "conv3"
  type: "Convolution"
  bottom: "pool2"
  top: "conv3"
  param {
    lr_mult: 1
  }
  param {
    lr_mult: 2
  }
  convolution_param {
    num_output: 64
    pad: 2
    kernel_size: 5
    stride: 1
    weight_filler {
      type: "gaussian"
      std: 0.01
    }
    bias_filler {
      type: "constant"
    }
  }
}
layer {
  name: "relu3"
  type: "ReLU"
  bottom: "conv3"
  top: "conv3"
}
layer {
  name: "conv4"
  type: "Convolution"
  bottom: "conv3"
  top: "conv4"
  param {
    lr_mult: 1
  }
  param {
    lr_mult: 2
  }
  convolution_param {
    num_output: 64
    pad: 2
    kernel_size: 5
    stride: 1
    weight_filler {
      type: "gaussian"
      std: 0.01
    }
    bias_filler {
      type: "constant"
    }
  }
}
layer {
  name: "relu4"
  type: "ReLU"
  bottom: "conv4"
  top: "conv4"
}
layer {
  name: "conv5"
  type: "Convolution"
  bottom: "conv4"
  top: "conv5"
  param {
    lr_mult: 1
  }
  param {
    lr_mult: 2
  }
  convolution_param {
    num_output: 64
    pad: 2
    kernel_size: 5
    stride: 1
    weight_filler {
      type: "gaussian"
      std: 0.01
    }
    bias_filler {
      type: "constant"
    }
  }
}
layer {
  name: "relu5"
  type: "ReLU"
  bottom: "conv5"
  top: "conv5"
}
layer {
  name: "pool5"
  type: "Pooling"
  bottom: "conv5"
  top: "pool5"
  pooling_param {
    pool: AVE
    kernel_size: 3
    stride: 2
  }
}
layer {
  name: "ip1"
  type: "InnerProduct"
  bottom: "pool5"
  top: "ip1"
  param {
    lr_mult: 1
  }
  param {
    lr_mult: 2
  }
  inner_product_param {
    num_output: 64
    weight_filler {
      type: "gaussian"
      std: 0.1
    }
    bias_filler {
      type: "constant"
    }
  }
}
layer {
  name: "ip2"
  type: "InnerProduct"
  bottom: "ip1"
  top: "ip2"
  param {
    lr_mult: 1
  }
  param {
    lr_mult: 2
  }
  inner_product_param {
    num_output: 64
    weight_filler {
      type: "gaussian"
      std: 0.1
    }
    bias_filler {
      type: "constant"
    }
  }
}
layer {
  name: "ip3"
  type: "InnerProduct"
  bottom: "ip2"
  top: "ip3"
  param {
    lr_mult: 1
  }
  param {
    lr_mult: 2
  }
  inner_product_param {
    num_output: 50
    weight_filler {
      type: "gaussian"
      std: 0.1
    }
    bias_filler {
      type: "constant"
    }
  }
}
layer {
  name: "accuracy"
  type: "Accuracy"
  bottom: "ip3"
  bottom: "label"
  top: "accuracy"
  include {
    phase: TEST
  }
}
layer {
  name: "loss"
  type: "SoftmaxWithLoss"
  bottom: "ip3"
  bottom: "label"
  top: "loss"
}
I0502 00:01:41.955477 16646 layer_factory.hpp:77] Creating layer intercept
I0502 00:01:41.955485 16646 net.cpp:94] Creating Layer intercept
I0502 00:01:41.955490 16646 net.cpp:409] intercept -> data
I0502 00:01:41.955497 16646 net.cpp:409] intercept -> label
I0502 00:01:41.955504 16646 hdf5_data_layer.cpp:79] Loading list of HDF5 filenames from: /home/purduethu/scratch/radon/d/deng106/CNNStatisticalModel/distributions/input/20_distributions_900_sample_size_test-distributions-path.txt
I0502 00:01:41.955523 16646 hdf5_data_layer.cpp:93] Number of HDF5 files: 1
I0502 00:01:42.102283 16646 net.cpp:144] Setting up intercept
I0502 00:01:42.102316 16646 net.cpp:151] Top shape: 20 1 30 30 (18000)
I0502 00:01:42.102321 16646 net.cpp:151] Top shape: 20 (20)
I0502 00:01:42.102325 16646 net.cpp:159] Memory required for data: 72080
I0502 00:01:42.102331 16646 layer_factory.hpp:77] Creating layer label_intercept_1_split
I0502 00:01:42.102350 16646 net.cpp:94] Creating Layer label_intercept_1_split
I0502 00:01:42.102355 16646 net.cpp:435] label_intercept_1_split <- label
I0502 00:01:42.102362 16646 net.cpp:409] label_intercept_1_split -> label_intercept_1_split_0
I0502 00:01:42.102371 16646 net.cpp:409] label_intercept_1_split -> label_intercept_1_split_1
I0502 00:01:42.102414 16646 net.cpp:144] Setting up label_intercept_1_split
I0502 00:01:42.102421 16646 net.cpp:151] Top shape: 20 (20)
I0502 00:01:42.102425 16646 net.cpp:151] Top shape: 20 (20)
I0502 00:01:42.102428 16646 net.cpp:159] Memory required for data: 72240
I0502 00:01:42.102432 16646 layer_factory.hpp:77] Creating layer conv1
I0502 00:01:42.102443 16646 net.cpp:94] Creating Layer conv1
I0502 00:01:42.102447 16646 net.cpp:435] conv1 <- data
I0502 00:01:42.102452 16646 net.cpp:409] conv1 -> conv1
I0502 00:01:42.103970 16646 net.cpp:144] Setting up conv1
I0502 00:01:42.103983 16646 net.cpp:151] Top shape: 20 64 30 30 (1152000)
I0502 00:01:42.103987 16646 net.cpp:159] Memory required for data: 4680240
I0502 00:01:42.103997 16646 layer_factory.hpp:77] Creating layer relu1
I0502 00:01:42.104005 16646 net.cpp:94] Creating Layer relu1
I0502 00:01:42.104009 16646 net.cpp:435] relu1 <- conv1
I0502 00:01:42.104013 16646 net.cpp:396] relu1 -> conv1 (in-place)
I0502 00:01:42.104022 16646 net.cpp:144] Setting up relu1
I0502 00:01:42.104025 16646 net.cpp:151] Top shape: 20 64 30 30 (1152000)
I0502 00:01:42.104029 16646 net.cpp:159] Memory required for data: 9288240
I0502 00:01:42.104032 16646 layer_factory.hpp:77] Creating layer conv2
I0502 00:01:42.104040 16646 net.cpp:94] Creating Layer conv2
I0502 00:01:42.104044 16646 net.cpp:435] conv2 <- conv1
I0502 00:01:42.104049 16646 net.cpp:409] conv2 -> conv2
I0502 00:01:42.110823 16646 net.cpp:144] Setting up conv2
I0502 00:01:42.110839 16646 net.cpp:151] Top shape: 20 64 30 30 (1152000)
I0502 00:01:42.110843 16646 net.cpp:159] Memory required for data: 13896240
I0502 00:01:42.110852 16646 layer_factory.hpp:77] Creating layer relu2
I0502 00:01:42.110858 16646 net.cpp:94] Creating Layer relu2
I0502 00:01:42.110862 16646 net.cpp:435] relu2 <- conv2
I0502 00:01:42.110867 16646 net.cpp:396] relu2 -> conv2 (in-place)
I0502 00:01:42.110873 16646 net.cpp:144] Setting up relu2
I0502 00:01:42.110878 16646 net.cpp:151] Top shape: 20 64 30 30 (1152000)
I0502 00:01:42.110882 16646 net.cpp:159] Memory required for data: 18504240
I0502 00:01:42.110884 16646 layer_factory.hpp:77] Creating layer pool2
I0502 00:01:42.110890 16646 net.cpp:94] Creating Layer pool2
I0502 00:01:42.110893 16646 net.cpp:435] pool2 <- conv2
I0502 00:01:42.110898 16646 net.cpp:409] pool2 -> pool2
I0502 00:01:42.110957 16646 net.cpp:144] Setting up pool2
I0502 00:01:42.110965 16646 net.cpp:151] Top shape: 20 64 15 15 (288000)
I0502 00:01:42.110968 16646 net.cpp:159] Memory required for data: 19656240
I0502 00:01:42.110971 16646 layer_factory.hpp:77] Creating layer conv3
I0502 00:01:42.110980 16646 net.cpp:94] Creating Layer conv3
I0502 00:01:42.110983 16646 net.cpp:435] conv3 <- pool2
I0502 00:01:42.110988 16646 net.cpp:409] conv3 -> conv3
I0502 00:01:42.116124 16646 net.cpp:144] Setting up conv3
I0502 00:01:42.116139 16646 net.cpp:151] Top shape: 20 64 15 15 (288000)
I0502 00:01:42.116143 16646 net.cpp:159] Memory required for data: 20808240
I0502 00:01:42.116153 16646 layer_factory.hpp:77] Creating layer relu3
I0502 00:01:42.116159 16646 net.cpp:94] Creating Layer relu3
I0502 00:01:42.116163 16646 net.cpp:435] relu3 <- conv3
I0502 00:01:42.116168 16646 net.cpp:396] relu3 -> conv3 (in-place)
I0502 00:01:42.116175 16646 net.cpp:144] Setting up relu3
I0502 00:01:42.116180 16646 net.cpp:151] Top shape: 20 64 15 15 (288000)
I0502 00:01:42.116183 16646 net.cpp:159] Memory required for data: 21960240
I0502 00:01:42.116186 16646 layer_factory.hpp:77] Creating layer conv4
I0502 00:01:42.116194 16646 net.cpp:94] Creating Layer conv4
I0502 00:01:42.116199 16646 net.cpp:435] conv4 <- conv3
I0502 00:01:42.116204 16646 net.cpp:409] conv4 -> conv4
I0502 00:01:42.120857 16646 net.cpp:144] Setting up conv4
I0502 00:01:42.120872 16646 net.cpp:151] Top shape: 20 64 15 15 (288000)
I0502 00:01:42.120877 16646 net.cpp:159] Memory required for data: 23112240
I0502 00:01:42.120883 16646 layer_factory.hpp:77] Creating layer relu4
I0502 00:01:42.120890 16646 net.cpp:94] Creating Layer relu4
I0502 00:01:42.120894 16646 net.cpp:435] relu4 <- conv4
I0502 00:01:42.120899 16646 net.cpp:396] relu4 -> conv4 (in-place)
I0502 00:01:42.120906 16646 net.cpp:144] Setting up relu4
I0502 00:01:42.120910 16646 net.cpp:151] Top shape: 20 64 15 15 (288000)
I0502 00:01:42.120914 16646 net.cpp:159] Memory required for data: 24264240
I0502 00:01:42.120918 16646 layer_factory.hpp:77] Creating layer conv5
I0502 00:01:42.120925 16646 net.cpp:94] Creating Layer conv5
I0502 00:01:42.120929 16646 net.cpp:435] conv5 <- conv4
I0502 00:01:42.120934 16646 net.cpp:409] conv5 -> conv5
I0502 00:01:42.126476 16646 net.cpp:144] Setting up conv5
I0502 00:01:42.126492 16646 net.cpp:151] Top shape: 20 64 15 15 (288000)
I0502 00:01:42.126495 16646 net.cpp:159] Memory required for data: 25416240
I0502 00:01:42.126504 16646 layer_factory.hpp:77] Creating layer relu5
I0502 00:01:42.126512 16646 net.cpp:94] Creating Layer relu5
I0502 00:01:42.126515 16646 net.cpp:435] relu5 <- conv5
I0502 00:01:42.126520 16646 net.cpp:396] relu5 -> conv5 (in-place)
I0502 00:01:42.126528 16646 net.cpp:144] Setting up relu5
I0502 00:01:42.126531 16646 net.cpp:151] Top shape: 20 64 15 15 (288000)
I0502 00:01:42.126534 16646 net.cpp:159] Memory required for data: 26568240
I0502 00:01:42.126538 16646 layer_factory.hpp:77] Creating layer pool5
I0502 00:01:42.126546 16646 net.cpp:94] Creating Layer pool5
I0502 00:01:42.126550 16646 net.cpp:435] pool5 <- conv5
I0502 00:01:42.126555 16646 net.cpp:409] pool5 -> pool5
I0502 00:01:42.126596 16646 net.cpp:144] Setting up pool5
I0502 00:01:42.126603 16646 net.cpp:151] Top shape: 20 64 7 7 (62720)
I0502 00:01:42.126607 16646 net.cpp:159] Memory required for data: 26819120
I0502 00:01:42.126610 16646 layer_factory.hpp:77] Creating layer ip1
I0502 00:01:42.126617 16646 net.cpp:94] Creating Layer ip1
I0502 00:01:42.126621 16646 net.cpp:435] ip1 <- pool5
I0502 00:01:42.126626 16646 net.cpp:409] ip1 -> ip1
I0502 00:01:42.131552 16646 net.cpp:144] Setting up ip1
I0502 00:01:42.131561 16646 net.cpp:151] Top shape: 20 64 (1280)
I0502 00:01:42.131566 16646 net.cpp:159] Memory required for data: 26824240
I0502 00:01:42.131572 16646 layer_factory.hpp:77] Creating layer ip2
I0502 00:01:42.131577 16646 net.cpp:94] Creating Layer ip2
I0502 00:01:42.131582 16646 net.cpp:435] ip2 <- ip1
I0502 00:01:42.131587 16646 net.cpp:409] ip2 -> ip2
I0502 00:01:42.131835 16646 net.cpp:144] Setting up ip2
I0502 00:01:42.131844 16646 net.cpp:151] Top shape: 20 64 (1280)
I0502 00:01:42.131846 16646 net.cpp:159] Memory required for data: 26829360
I0502 00:01:42.131851 16646 layer_factory.hpp:77] Creating layer ip3
I0502 00:01:42.131860 16646 net.cpp:94] Creating Layer ip3
I0502 00:01:42.131865 16646 net.cpp:435] ip3 <- ip2
I0502 00:01:42.131870 16646 net.cpp:409] ip3 -> ip3
I0502 00:01:42.132081 16646 net.cpp:144] Setting up ip3
I0502 00:01:42.132088 16646 net.cpp:151] Top shape: 20 50 (1000)
I0502 00:01:42.132091 16646 net.cpp:159] Memory required for data: 26833360
I0502 00:01:42.132097 16646 layer_factory.hpp:77] Creating layer ip3_ip3_0_split
I0502 00:01:42.132102 16646 net.cpp:94] Creating Layer ip3_ip3_0_split
I0502 00:01:42.132105 16646 net.cpp:435] ip3_ip3_0_split <- ip3
I0502 00:01:42.132110 16646 net.cpp:409] ip3_ip3_0_split -> ip3_ip3_0_split_0
I0502 00:01:42.132117 16646 net.cpp:409] ip3_ip3_0_split -> ip3_ip3_0_split_1
I0502 00:01:42.132161 16646 net.cpp:144] Setting up ip3_ip3_0_split
I0502 00:01:42.132167 16646 net.cpp:151] Top shape: 20 50 (1000)
I0502 00:01:42.132171 16646 net.cpp:151] Top shape: 20 50 (1000)
I0502 00:01:42.132174 16646 net.cpp:159] Memory required for data: 26841360
I0502 00:01:42.132179 16646 layer_factory.hpp:77] Creating layer accuracy
I0502 00:01:42.132184 16646 net.cpp:94] Creating Layer accuracy
I0502 00:01:42.132186 16646 net.cpp:435] accuracy <- ip3_ip3_0_split_0
I0502 00:01:42.132191 16646 net.cpp:435] accuracy <- label_intercept_1_split_0
I0502 00:01:42.132195 16646 net.cpp:409] accuracy -> accuracy
…
