…
I0503 12:42:21.799118 20687 net.cpp:323] The NetState phase (0) differed from the phase (1) specified by a rule in layer intercept
I0503 12:42:21.799135 20687 net.cpp:323] The NetState phase (0) differed from the phase (1) specified by a rule in layer accuracy
I0503 12:42:21.799226 20687 net.cpp:52] Initializing net from parameters: 
state {
  phase: TRAIN
}
layer {
  name: "parameters"
  type: "HDF5Data"
  top: "data"
  top: "label"
  include {
    phase: TRAIN
  }
  hdf5_data_param {
    source: "/home/purduethu/scratch/radon/d/deng106/CNNStatisticalModel/distributions/input/5_distributions_400_sample_size_train-distributions-path.txt"
    batch_size: 20
  }
}
layer {
  name: "conv1"
  type: "Convolution"
  bottom: "data"
  top: "conv1"
  param {
    lr_mult: 1
  }
  param {
    lr_mult: 2
  }
  convolution_param {
    num_output: 64
    pad: 2
    kernel_size: 5
    stride: 1
    weight_filler {
      type: "gaussian"
      std: 0.0001
    }
    bias_filler {
      type: "constant"
    }
  }
}
layer {
  name: "relu1"
  type: "ReLU"
  bottom: "conv1"
  top: "conv1"
}
layer {
  name: "conv2"
  type: "Convolution"
  bottom: "conv1"
  top: "conv2"
  param {
    lr_mult: 1
  }
  param {
    lr_mult: 2
  }
  convolution_param {
    num_output: 64
    pad: 2
    kernel_size: 5
    stride: 1
    weight_filler {
      type: "gaussian"
      std: 0.01
    }
    bias_filler {
      type: "constant"
    }
  }
}
layer {
  name: "relu2"
  type: "ReLU"
  bottom: "conv2"
  top: "conv2"
}
layer {
  name: "pool2"
  type: "Pooling"
  bottom: "conv2"
  top: "pool2"
  pooling_param {
    pool: MAX
    kernel_size: 3
    stride: 2
  }
}
layer {
  name: "conv3"
  type: "Convolution"
  bottom: "pool2"
  top: "conv3"
  param {
    lr_mult: 1
  }
  param {
    lr_mult: 2
  }
  convolution_param {
    num_output: 128
    pad: 2
    kernel_size: 5
    stride: 1
    weight_filler {
      type: "gaussian"
      std: 0.01
    }
    bias_filler {
      type: "constant"
    }
  }
}
layer {
  name: "relu3"
  type: "ReLU"
  bottom: "conv3"
  top: "conv3"
}
layer {
  name: "conv4"
  type: "Convolution"
  bottom: "conv3"
  top: "conv4"
  param {
    lr_mult: 1
  }
  param {
    lr_mult: 2
  }
  convolution_param {
    num_output: 128
    pad: 2
    kernel_size: 5
    stride: 1
    weight_filler {
      type: "gaussian"
      std: 0.01
    }
    bias_filler {
      type: "constant"
    }
  }
}
layer {
  name: "relu4"
  type: "ReLU"
  bottom: "conv4"
  top: "conv4"
}
layer {
  name: "conv5"
  type: "Convolution"
  bottom: "conv4"
  top: "conv5"
  param {
    lr_mult: 1
  }
  param {
    lr_mult: 2
  }
  convolution_param {
    num_output: 128
    pad: 2
    kernel_size: 5
    stride: 1
    weight_filler {
      type: "gaussian"
      std: 0.01
    }
    bias_filler {
      type: "constant"
    }
  }
}
layer {
  name: "relu5"
  type: "ReLU"
  bottom: "conv5"
  top: "conv5"
}
layer {
  name: "pool5"
  type: "Pooling"
  bottom: "conv5"
  top: "pool5"
  pooling_param {
    pool: AVE
    kernel_size: 3
    stride: 2
  }
}
layer {
  name: "ip1"
  type: "InnerProduct"
  bottom: "pool5"
  top: "ip1"
  param {
    lr_mult: 1
  }
  param {
    lr_mult: 2
  }
  inner_product_param {
    num_output: 1024
    weight_filler {
      type: "gaussian"
      std: 0.1
    }
    bias_filler {
      type: "constant"
    }
  }
}
layer {
  name: "ip2"
  type: "InnerProduct"
  bottom: "ip1"
  top: "ip2"
  param {
    lr_mult: 1
  }
  param {
    lr_mult: 2
  }
  inner_product_param {
    num_output: 512
    weight_filler {
      type: "gaussian"
      std: 0.1
    }
    bias_filler {
      type: "constant"
    }
  }
}
layer {
  name: "ip3"
  type: "InnerProduct"
  bottom: "ip2"
  top: "ip3"
  param {
    lr_mult: 1
  }
  param {
    lr_mult: 2
  }
  inner_product_param {
    num_output: 50
    weight_filler {
      type: "gaussian"
      std: 0.1
    }
    bias_filler {
      type: "constant"
    }
  }
}
layer {
  name: "loss"
  type: "SoftmaxWithLoss"
  bottom: "ip3"
  bottom: "label"
  top: "loss"
}
I0503 12:42:21.799301 20687 layer_factory.hpp:77] Creating layer parameters
I0503 12:42:21.799316 20687 net.cpp:94] Creating Layer parameters
I0503 12:42:21.799324 20687 net.cpp:409] parameters -> data
I0503 12:42:21.799343 20687 net.cpp:409] parameters -> label
I0503 12:42:21.799357 20687 hdf5_data_layer.cpp:79] Loading list of HDF5 filenames from: /home/purduethu/scratch/radon/d/deng106/CNNStatisticalModel/distributions/input/5_distributions_400_sample_size_train-distributions-path.txt
I0503 12:42:21.799381 20687 hdf5_data_layer.cpp:93] Number of HDF5 files: 1
I0503 12:42:21.799850 20687 hdf5.cpp:32] Datatype class: H5T_FLOAT
I0503 12:42:21.862107 20687 hdf5.cpp:35] Datatype class: H5T_INTEGER
I0503 12:42:21.863258 20687 net.cpp:144] Setting up parameters
I0503 12:42:21.863277 20687 net.cpp:151] Top shape: 20 1 20 20 (8000)
I0503 12:42:21.863283 20687 net.cpp:151] Top shape: 20 (20)
I0503 12:42:21.863287 20687 net.cpp:159] Memory required for data: 32080
I0503 12:42:21.863296 20687 layer_factory.hpp:77] Creating layer conv1
I0503 12:42:21.863319 20687 net.cpp:94] Creating Layer conv1
I0503 12:42:21.863325 20687 net.cpp:435] conv1 <- data
I0503 12:42:21.863338 20687 net.cpp:409] conv1 -> conv1
I0503 12:42:21.868188 20687 net.cpp:144] Setting up conv1
I0503 12:42:21.868203 20687 net.cpp:151] Top shape: 20 64 20 20 (512000)
I0503 12:42:21.868208 20687 net.cpp:159] Memory required for data: 2080080
I0503 12:42:21.868221 20687 layer_factory.hpp:77] Creating layer relu1
I0503 12:42:21.868228 20687 net.cpp:94] Creating Layer relu1
I0503 12:42:21.868232 20687 net.cpp:435] relu1 <- conv1
I0503 12:42:21.868237 20687 net.cpp:396] relu1 -> conv1 (in-place)
I0503 12:42:21.868253 20687 net.cpp:144] Setting up relu1
I0503 12:42:21.868259 20687 net.cpp:151] Top shape: 20 64 20 20 (512000)
I0503 12:42:21.868263 20687 net.cpp:159] Memory required for data: 4128080
I0503 12:42:21.868265 20687 layer_factory.hpp:77] Creating layer conv2
I0503 12:42:21.868274 20687 net.cpp:94] Creating Layer conv2
I0503 12:42:21.868278 20687 net.cpp:435] conv2 <- conv1
I0503 12:42:21.868283 20687 net.cpp:409] conv2 -> conv2
I0503 12:42:21.879467 20687 net.cpp:144] Setting up conv2
I0503 12:42:21.879482 20687 net.cpp:151] Top shape: 20 64 20 20 (512000)
I0503 12:42:21.879487 20687 net.cpp:159] Memory required for data: 6176080
I0503 12:42:21.879495 20687 layer_factory.hpp:77] Creating layer relu2
I0503 12:42:21.879503 20687 net.cpp:94] Creating Layer relu2
I0503 12:42:21.879506 20687 net.cpp:435] relu2 <- conv2
I0503 12:42:21.879511 20687 net.cpp:396] relu2 -> conv2 (in-place)
I0503 12:42:21.879518 20687 net.cpp:144] Setting up relu2
I0503 12:42:21.879523 20687 net.cpp:151] Top shape: 20 64 20 20 (512000)
I0503 12:42:21.879526 20687 net.cpp:159] Memory required for data: 8224080
I0503 12:42:21.879529 20687 layer_factory.hpp:77] Creating layer pool2
I0503 12:42:21.879544 20687 net.cpp:94] Creating Layer pool2
I0503 12:42:21.879549 20687 net.cpp:435] pool2 <- conv2
I0503 12:42:21.879552 20687 net.cpp:409] pool2 -> pool2
I0503 12:42:21.879596 20687 net.cpp:144] Setting up pool2
I0503 12:42:21.879603 20687 net.cpp:151] Top shape: 20 64 10 10 (128000)
I0503 12:42:21.879607 20687 net.cpp:159] Memory required for data: 8736080
I0503 12:42:21.879611 20687 layer_factory.hpp:77] Creating layer conv3
I0503 12:42:21.879619 20687 net.cpp:94] Creating Layer conv3
I0503 12:42:21.879623 20687 net.cpp:435] conv3 <- pool2
I0503 12:42:21.879636 20687 net.cpp:409] conv3 -> conv3
I0503 12:42:21.889535 20687 net.cpp:144] Setting up conv3
I0503 12:42:21.889551 20687 net.cpp:151] Top shape: 20 128 10 10 (256000)
I0503 12:42:21.889556 20687 net.cpp:159] Memory required for data: 9760080
I0503 12:42:21.889564 20687 layer_factory.hpp:77] Creating layer relu3
I0503 12:42:21.889571 20687 net.cpp:94] Creating Layer relu3
I0503 12:42:21.889575 20687 net.cpp:435] relu3 <- conv3
I0503 12:42:21.889580 20687 net.cpp:396] relu3 -> conv3 (in-place)
I0503 12:42:21.889587 20687 net.cpp:144] Setting up relu3
I0503 12:42:21.889592 20687 net.cpp:151] Top shape: 20 128 10 10 (256000)
I0503 12:42:21.889595 20687 net.cpp:159] Memory required for data: 10784080
I0503 12:42:21.889600 20687 layer_factory.hpp:77] Creating layer conv4
I0503 12:42:21.889607 20687 net.cpp:94] Creating Layer conv4
I0503 12:42:21.889611 20687 net.cpp:435] conv4 <- conv3
I0503 12:42:21.889616 20687 net.cpp:409] conv4 -> conv4
I0503 12:42:21.907836 20687 net.cpp:144] Setting up conv4
I0503 12:42:21.907852 20687 net.cpp:151] Top shape: 20 128 10 10 (256000)
I0503 12:42:21.907857 20687 net.cpp:159] Memory required for data: 11808080
I0503 12:42:21.907863 20687 layer_factory.hpp:77] Creating layer relu4
I0503 12:42:21.907871 20687 net.cpp:94] Creating Layer relu4
I0503 12:42:21.907874 20687 net.cpp:435] relu4 <- conv4
I0503 12:42:21.907878 20687 net.cpp:396] relu4 -> conv4 (in-place)
I0503 12:42:21.907886 20687 net.cpp:144] Setting up relu4
I0503 12:42:21.907891 20687 net.cpp:151] Top shape: 20 128 10 10 (256000)
I0503 12:42:21.907894 20687 net.cpp:159] Memory required for data: 12832080
I0503 12:42:21.907897 20687 layer_factory.hpp:77] Creating layer conv5
I0503 12:42:21.907907 20687 net.cpp:94] Creating Layer conv5
I0503 12:42:21.907910 20687 net.cpp:435] conv5 <- conv4
I0503 12:42:21.907915 20687 net.cpp:409] conv5 -> conv5
I0503 12:42:21.925959 20687 net.cpp:144] Setting up conv5
I0503 12:42:21.925976 20687 net.cpp:151] Top shape: 20 128 10 10 (256000)
I0503 12:42:21.925981 20687 net.cpp:159] Memory required for data: 13856080
I0503 12:42:21.925989 20687 layer_factory.hpp:77] Creating layer relu5
I0503 12:42:21.925995 20687 net.cpp:94] Creating Layer relu5
I0503 12:42:21.925999 20687 net.cpp:435] relu5 <- conv5
I0503 12:42:21.926004 20687 net.cpp:396] relu5 -> conv5 (in-place)
I0503 12:42:21.926012 20687 net.cpp:144] Setting up relu5
I0503 12:42:21.926017 20687 net.cpp:151] Top shape: 20 128 10 10 (256000)
I0503 12:42:21.926020 20687 net.cpp:159] Memory required for data: 14880080
I0503 12:42:21.926023 20687 layer_factory.hpp:77] Creating layer pool5
I0503 12:42:21.926028 20687 net.cpp:94] Creating Layer pool5
I0503 12:42:21.926033 20687 net.cpp:435] pool5 <- conv5
I0503 12:42:21.926036 20687 net.cpp:409] pool5 -> pool5
I0503 12:42:21.926072 20687 net.cpp:144] Setting up pool5
I0503 12:42:21.926080 20687 net.cpp:151] Top shape: 20 128 5 5 (64000)
I0503 12:42:21.926084 20687 net.cpp:159] Memory required for data: 15136080
I0503 12:42:21.926086 20687 layer_factory.hpp:77] Creating layer ip1
I0503 12:42:21.926097 20687 net.cpp:94] Creating Layer ip1
I0503 12:42:21.926100 20687 net.cpp:435] ip1 <- pool5
I0503 12:42:21.926105 20687 net.cpp:409] ip1 -> ip1
I0503 12:42:22.009034 20687 net.cpp:144] Setting up ip1
I0503 12:42:22.009066 20687 net.cpp:151] Top shape: 20 1024 (20480)
I0503 12:42:22.009071 20687 net.cpp:159] Memory required for data: 15218000
I0503 12:42:22.009079 20687 layer_factory.hpp:77] Creating layer ip2
I0503 12:42:22.009097 20687 net.cpp:94] Creating Layer ip2
I0503 12:42:22.009104 20687 net.cpp:435] ip2 <- ip1
I0503 12:42:22.009109 20687 net.cpp:409] ip2 -> ip2
I0503 12:42:22.022634 20687 net.cpp:144] Setting up ip2
I0503 12:42:22.022649 20687 net.cpp:151] Top shape: 20 512 (10240)
I0503 12:42:22.022652 20687 net.cpp:159] Memory required for data: 15258960
I0503 12:42:22.022658 20687 layer_factory.hpp:77] Creating layer ip3
I0503 12:42:22.022665 20687 net.cpp:94] Creating Layer ip3
I0503 12:42:22.022670 20687 net.cpp:435] ip3 <- ip2
I0503 12:42:22.022675 20687 net.cpp:409] ip3 -> ip3
I0503 12:42:22.023391 20687 net.cpp:144] Setting up ip3
I0503 12:42:22.023398 20687 net.cpp:151] Top shape: 20 50 (1000)
I0503 12:42:22.023401 20687 net.cpp:159] Memory required for data: 15262960
I0503 12:42:22.023407 20687 layer_factory.hpp:77] Creating layer loss
I0503 12:42:22.023416 20687 net.cpp:94] Creating Layer loss
I0503 12:42:22.023419 20687 net.cpp:435] loss <- ip3
I0503 12:42:22.023423 20687 net.cpp:435] loss <- label
I0503 12:42:22.023429 20687 net.cpp:409] loss -> loss
I0503 12:42:22.023442 20687 layer_factory.hpp:77] Creating layer loss
…
I0503 12:42:22.023967 20687 solver.cpp:181] Creating test net (#0) specified by net file: ./protocol/dis_5_400_dimension.protocol_distribution
I0503 12:42:22.023994 20687 net.cpp:323] The NetState phase (1) differed from the phase (0) specified by a rule in layer parameters
I0503 12:42:22.024096 20687 net.cpp:52] Initializing net from parameters: 
state {
  phase: TEST
}
layer {
  name: "intercept"
  type: "HDF5Data"
  top: "data"
  top: "label"
  include {
    phase: TEST
  }
  hdf5_data_param {
    source: "/home/purduethu/scratch/radon/d/deng106/CNNStatisticalModel/distributions/input/5_distributions_400_sample_size_test-distributions-path.txt"
    batch_size: 20
  }
}
layer {
  name: "conv1"
  type: "Convolution"
  bottom: "data"
  top: "conv1"
  param {
    lr_mult: 1
  }
  param {
    lr_mult: 2
  }
  convolution_param {
    num_output: 64
    pad: 2
    kernel_size: 5
    stride: 1
    weight_filler {
      type: "gaussian"
      std: 0.0001
    }
    bias_filler {
      type: "constant"
    }
  }
}
layer {
  name: "relu1"
  type: "ReLU"
  bottom: "conv1"
  top: "conv1"
}
layer {
  name: "conv2"
  type: "Convolution"
  bottom: "conv1"
  top: "conv2"
  param {
    lr_mult: 1
  }
  param {
    lr_mult: 2
  }
  convolution_param {
    num_output: 64
    pad: 2
    kernel_size: 5
    stride: 1
    weight_filler {
      type: "gaussian"
      std: 0.01
    }
    bias_filler {
      type: "constant"
    }
  }
}
layer {
  name: "relu2"
  type: "ReLU"
  bottom: "conv2"
  top: "conv2"
}
layer {
  name: "pool2"
  type: "Pooling"
  bottom: "conv2"
  top: "pool2"
  pooling_param {
    pool: MAX
    kernel_size: 3
    stride: 2
  }
}
layer {
  name: "conv3"
  type: "Convolution"
  bottom: "pool2"
  top: "conv3"
  param {
    lr_mult: 1
  }
  param {
    lr_mult: 2
  }
  convolution_param {
    num_output: 128
    pad: 2
    kernel_size: 5
    stride: 1
    weight_filler {
      type: "gaussian"
      std: 0.01
    }
    bias_filler {
      type: "constant"
    }
  }
}
layer {
  name: "relu3"
  type: "ReLU"
  bottom: "conv3"
  top: "conv3"
}
layer {
  name: "conv4"
  type: "Convolution"
  bottom: "conv3"
  top: "conv4"
  param {
    lr_mult: 1
  }
  param {
    lr_mult: 2
  }
  convolution_param {
    num_output: 128
    pad: 2
    kernel_size: 5
    stride: 1
    weight_filler {
      type: "gaussian"
      std: 0.01
    }
    bias_filler {
      type: "constant"
    }
  }
}
layer {
  name: "relu4"
  type: "ReLU"
  bottom: "conv4"
  top: "conv4"
}
layer {
  name: "conv5"
  type: "Convolution"
  bottom: "conv4"
  top: "conv5"
  param {
    lr_mult: 1
  }
  param {
    lr_mult: 2
  }
  convolution_param {
    num_output: 128
    pad: 2
    kernel_size: 5
    stride: 1
    weight_filler {
      type: "gaussian"
      std: 0.01
    }
    bias_filler {
      type: "constant"
    }
  }
}
layer {
  name: "relu5"
  type: "ReLU"
  bottom: "conv5"
  top: "conv5"
}
layer {
  name: "pool5"
  type: "Pooling"
  bottom: "conv5"
  top: "pool5"
  pooling_param {
    pool: AVE
    kernel_size: 3
    stride: 2
  }
}
layer {
  name: "ip1"
  type: "InnerProduct"
  bottom: "pool5"
  top: "ip1"
  param {
    lr_mult: 1
  }
  param {
    lr_mult: 2
  }
  inner_product_param {
    num_output: 1024
    weight_filler {
      type: "gaussian"
      std: 0.1
    }
    bias_filler {
      type: "constant"
    }
  }
}
layer {
  name: "ip2"
  type: "InnerProduct"
  bottom: "ip1"
  top: "ip2"
  param {
    lr_mult: 1
  }
  param {
    lr_mult: 2
  }
  inner_product_param {
    num_output: 512
    weight_filler {
      type: "gaussian"
      std: 0.1
    }
    bias_filler {
      type: "constant"
    }
  }
}
layer {
  name: "ip3"
  type: "InnerProduct"
  bottom: "ip2"
  top: "ip3"
  param {
    lr_mult: 1
  }
  param {
    lr_mult: 2
  }
  inner_product_param {
    num_output: 50
    weight_filler {
      type: "gaussian"
      std: 0.1
    }
    bias_filler {
      type: "constant"
    }
  }
}
layer {
  name: "accuracy"
  type: "Accuracy"
  bottom: "ip3"
  bottom: "label"
  top: "accuracy"
  include {
    phase: TEST
  }
}
layer {
  name: "loss"
  type: "SoftmaxWithLoss"
  bottom: "ip3"
  bottom: "label"
  top: "loss"
}
I0503 12:42:22.024170 20687 layer_factory.hpp:77] Creating layer intercept
I0503 12:42:22.024179 20687 net.cpp:94] Creating Layer intercept
I0503 12:42:22.024184 20687 net.cpp:409] intercept -> data
I0503 12:42:22.024191 20687 net.cpp:409] intercept -> label
I0503 12:42:22.024197 20687 hdf5_data_layer.cpp:79] Loading list of HDF5 filenames from: /home/purduethu/scratch/radon/d/deng106/CNNStatisticalModel/distributions/input/5_distributions_400_sample_size_test-distributions-path.txt
I0503 12:42:22.024217 20687 hdf5_data_layer.cpp:93] Number of HDF5 files: 1
I0503 12:42:22.041317 20687 net.cpp:144] Setting up intercept
I0503 12:42:22.041348 20687 net.cpp:151] Top shape: 20 1 20 20 (8000)
I0503 12:42:22.041354 20687 net.cpp:151] Top shape: 20 (20)
I0503 12:42:22.041358 20687 net.cpp:159] Memory required for data: 32080
I0503 12:42:22.041364 20687 layer_factory.hpp:77] Creating layer label_intercept_1_split
I0503 12:42:22.041381 20687 net.cpp:94] Creating Layer label_intercept_1_split
I0503 12:42:22.041386 20687 net.cpp:435] label_intercept_1_split <- label
I0503 12:42:22.041393 20687 net.cpp:409] label_intercept_1_split -> label_intercept_1_split_0
I0503 12:42:22.041401 20687 net.cpp:409] label_intercept_1_split -> label_intercept_1_split_1
I0503 12:42:22.041436 20687 net.cpp:144] Setting up label_intercept_1_split
I0503 12:42:22.041443 20687 net.cpp:151] Top shape: 20 (20)
I0503 12:42:22.041447 20687 net.cpp:151] Top shape: 20 (20)
I0503 12:42:22.041450 20687 net.cpp:159] Memory required for data: 32240
I0503 12:42:22.041455 20687 layer_factory.hpp:77] Creating layer conv1
I0503 12:42:22.041465 20687 net.cpp:94] Creating Layer conv1
I0503 12:42:22.041470 20687 net.cpp:435] conv1 <- data
I0503 12:42:22.041474 20687 net.cpp:409] conv1 -> conv1
I0503 12:42:22.042141 20687 net.cpp:144] Setting up conv1
I0503 12:42:22.042155 20687 net.cpp:151] Top shape: 20 64 20 20 (512000)
I0503 12:42:22.042160 20687 net.cpp:159] Memory required for data: 2080240
I0503 12:42:22.042168 20687 layer_factory.hpp:77] Creating layer relu1
I0503 12:42:22.042176 20687 net.cpp:94] Creating Layer relu1
I0503 12:42:22.042179 20687 net.cpp:435] relu1 <- conv1
I0503 12:42:22.042183 20687 net.cpp:396] relu1 -> conv1 (in-place)
I0503 12:42:22.042191 20687 net.cpp:144] Setting up relu1
I0503 12:42:22.042196 20687 net.cpp:151] Top shape: 20 64 20 20 (512000)
I0503 12:42:22.042199 20687 net.cpp:159] Memory required for data: 4128240
I0503 12:42:22.042203 20687 layer_factory.hpp:77] Creating layer conv2
I0503 12:42:22.042212 20687 net.cpp:94] Creating Layer conv2
I0503 12:42:22.042215 20687 net.cpp:435] conv2 <- conv1
I0503 12:42:22.042220 20687 net.cpp:409] conv2 -> conv2
I0503 12:42:22.047293 20687 net.cpp:144] Setting up conv2
I0503 12:42:22.047308 20687 net.cpp:151] Top shape: 20 64 20 20 (512000)
I0503 12:42:22.047312 20687 net.cpp:159] Memory required for data: 6176240
I0503 12:42:22.047320 20687 layer_factory.hpp:77] Creating layer relu2
I0503 12:42:22.047327 20687 net.cpp:94] Creating Layer relu2
I0503 12:42:22.047330 20687 net.cpp:435] relu2 <- conv2
I0503 12:42:22.047335 20687 net.cpp:396] relu2 -> conv2 (in-place)
I0503 12:42:22.047341 20687 net.cpp:144] Setting up relu2
I0503 12:42:22.047346 20687 net.cpp:151] Top shape: 20 64 20 20 (512000)
I0503 12:42:22.047350 20687 net.cpp:159] Memory required for data: 8224240
I0503 12:42:22.047353 20687 layer_factory.hpp:77] Creating layer pool2
I0503 12:42:22.047359 20687 net.cpp:94] Creating Layer pool2
I0503 12:42:22.047363 20687 net.cpp:435] pool2 <- conv2
I0503 12:42:22.047368 20687 net.cpp:409] pool2 -> pool2
I0503 12:42:22.047401 20687 net.cpp:144] Setting up pool2
I0503 12:42:22.047408 20687 net.cpp:151] Top shape: 20 64 10 10 (128000)
I0503 12:42:22.047411 20687 net.cpp:159] Memory required for data: 8736240
I0503 12:42:22.047415 20687 layer_factory.hpp:77] Creating layer conv3
I0503 12:42:22.047423 20687 net.cpp:94] Creating Layer conv3
I0503 12:42:22.047427 20687 net.cpp:435] conv3 <- pool2
I0503 12:42:22.047432 20687 net.cpp:409] conv3 -> conv3
I0503 12:42:22.054747 20687 net.cpp:144] Setting up conv3
I0503 12:42:22.054764 20687 net.cpp:151] Top shape: 20 128 10 10 (256000)
I0503 12:42:22.054767 20687 net.cpp:159] Memory required for data: 9760240
I0503 12:42:22.054776 20687 layer_factory.hpp:77] Creating layer relu3
I0503 12:42:22.054783 20687 net.cpp:94] Creating Layer relu3
I0503 12:42:22.054787 20687 net.cpp:435] relu3 <- conv3
I0503 12:42:22.054792 20687 net.cpp:396] relu3 -> conv3 (in-place)
I0503 12:42:22.054800 20687 net.cpp:144] Setting up relu3
I0503 12:42:22.054805 20687 net.cpp:151] Top shape: 20 128 10 10 (256000)
I0503 12:42:22.054808 20687 net.cpp:159] Memory required for data: 10784240
I0503 12:42:22.054811 20687 layer_factory.hpp:77] Creating layer conv4
I0503 12:42:22.054819 20687 net.cpp:94] Creating Layer conv4
I0503 12:42:22.054822 20687 net.cpp:435] conv4 <- conv3
I0503 12:42:22.054828 20687 net.cpp:409] conv4 -> conv4
I0503 12:42:22.068622 20687 net.cpp:144] Setting up conv4
I0503 12:42:22.068661 20687 net.cpp:151] Top shape: 20 128 10 10 (256000)
I0503 12:42:22.068675 20687 net.cpp:159] Memory required for data: 11808240
I0503 12:42:22.068692 20687 layer_factory.hpp:77] Creating layer relu4
I0503 12:42:22.068707 20687 net.cpp:94] Creating Layer relu4
I0503 12:42:22.068728 20687 net.cpp:435] relu4 <- conv4
I0503 12:42:22.068742 20687 net.cpp:396] relu4 -> conv4 (in-place)
I0503 12:42:22.068763 20687 net.cpp:144] Setting up relu4
I0503 12:42:22.068778 20687 net.cpp:151] Top shape: 20 128 10 10 (256000)
I0503 12:42:22.068788 20687 net.cpp:159] Memory required for data: 12832240
I0503 12:42:22.068796 20687 layer_factory.hpp:77] Creating layer conv5
I0503 12:42:22.068817 20687 net.cpp:94] Creating Layer conv5
I0503 12:42:22.068827 20687 net.cpp:435] conv5 <- conv4
I0503 12:42:22.068842 20687 net.cpp:409] conv5 -> conv5
I0503 12:42:22.082402 20687 net.cpp:144] Setting up conv5
I0503 12:42:22.082418 20687 net.cpp:151] Top shape: 20 128 10 10 (256000)
I0503 12:42:22.082422 20687 net.cpp:159] Memory required for data: 13856240
I0503 12:42:22.082432 20687 layer_factory.hpp:77] Creating layer relu5
I0503 12:42:22.082438 20687 net.cpp:94] Creating Layer relu5
I0503 12:42:22.082442 20687 net.cpp:435] relu5 <- conv5
I0503 12:42:22.082448 20687 net.cpp:396] relu5 -> conv5 (in-place)
I0503 12:42:22.082455 20687 net.cpp:144] Setting up relu5
I0503 12:42:22.082460 20687 net.cpp:151] Top shape: 20 128 10 10 (256000)
I0503 12:42:22.082463 20687 net.cpp:159] Memory required for data: 14880240
I0503 12:42:22.082468 20687 layer_factory.hpp:77] Creating layer pool5
I0503 12:42:22.082473 20687 net.cpp:94] Creating Layer pool5
I0503 12:42:22.082475 20687 net.cpp:435] pool5 <- conv5
I0503 12:42:22.082480 20687 net.cpp:409] pool5 -> pool5
I0503 12:42:22.082506 20687 net.cpp:144] Setting up pool5
I0503 12:42:22.082514 20687 net.cpp:151] Top shape: 20 128 5 5 (64000)
I0503 12:42:22.082516 20687 net.cpp:159] Memory required for data: 15136240
I0503 12:42:22.082520 20687 layer_factory.hpp:77] Creating layer ip1
I0503 12:42:22.082527 20687 net.cpp:94] Creating Layer ip1
I0503 12:42:22.082531 20687 net.cpp:435] ip1 <- pool5
I0503 12:42:22.082536 20687 net.cpp:409] ip1 -> ip1
I0503 12:42:22.165339 20687 net.cpp:144] Setting up ip1
I0503 12:42:22.165372 20687 net.cpp:151] Top shape: 20 1024 (20480)
I0503 12:42:22.165376 20687 net.cpp:159] Memory required for data: 15218160
I0503 12:42:22.165385 20687 layer_factory.hpp:77] Creating layer ip2
I0503 12:42:22.165395 20687 net.cpp:94] Creating Layer ip2
I0503 12:42:22.165400 20687 net.cpp:435] ip2 <- ip1
I0503 12:42:22.165405 20687 net.cpp:409] ip2 -> ip2
I0503 12:42:22.178956 20687 net.cpp:144] Setting up ip2
I0503 12:42:22.178969 20687 net.cpp:151] Top shape: 20 512 (10240)
I0503 12:42:22.178974 20687 net.cpp:159] Memory required for data: 15259120
I0503 12:42:22.178980 20687 layer_factory.hpp:77] Creating layer ip3
I0503 12:42:22.178989 20687 net.cpp:94] Creating Layer ip3
I0503 12:42:22.178993 20687 net.cpp:435] ip3 <- ip2
I0503 12:42:22.178998 20687 net.cpp:409] ip3 -> ip3
I0503 12:42:22.179705 20687 net.cpp:144] Setting up ip3
I0503 12:42:22.179713 20687 net.cpp:151] Top shape: 20 50 (1000)
I0503 12:42:22.179716 20687 net.cpp:159] Memory required for data: 15263120
I0503 12:42:22.179721 20687 layer_factory.hpp:77] Creating layer ip3_ip3_0_split
I0503 12:42:22.179728 20687 net.cpp:94] Creating Layer ip3_ip3_0_split
I0503 12:42:22.179731 20687 net.cpp:435] ip3_ip3_0_split <- ip3
I0503 12:42:22.179736 20687 net.cpp:409] ip3_ip3_0_split -> ip3_ip3_0_split_0
I0503 12:42:22.179743 20687 net.cpp:409] ip3_ip3_0_split -> ip3_ip3_0_split_1
I0503 12:42:22.179767 20687 net.cpp:144] Setting up ip3_ip3_0_split
I0503 12:42:22.179774 20687 net.cpp:151] Top shape: 20 50 (1000)
I0503 12:42:22.179777 20687 net.cpp:151] Top shape: 20 50 (1000)
I0503 12:42:22.179780 20687 net.cpp:159] Memory required for data: 15271120
I0503 12:42:22.179785 20687 layer_factory.hpp:77] Creating layer accuracy
I0503 12:42:22.179790 20687 net.cpp:94] Creating Layer accuracy
I0503 12:42:22.179793 20687 net.cpp:435] accuracy <- ip3_ip3_0_split_0
I0503 12:42:22.179798 20687 net.cpp:435] accuracy <- label_intercept_1_split_0
I0503 12:42:22.179803 20687 net.cpp:409] accuracy -> accuracy
…
