…
I0503 16:04:22.915135 21222 net.cpp:323] The NetState phase (0) differed from the phase (1) specified by a rule in layer intercept
I0503 16:04:22.915153 21222 net.cpp:323] The NetState phase (0) differed from the phase (1) specified by a rule in layer accuracy
I0503 16:04:22.915247 21222 net.cpp:52] Initializing net from parameters: 
state {
  phase: TRAIN
}
layer {
  name: "parameters"
  type: "HDF5Data"
  top: "data"
  top: "label"
  include {
    phase: TRAIN
  }
  hdf5_data_param {
    source: "/home/purduethu/scratch/radon/d/deng106/CNNStatisticalModel/distributions/input/20_distributions_100_sample_size_train-distributions-path.txt"
    batch_size: 20
  }
}
layer {
  name: "conv1"
  type: "Convolution"
  bottom: "data"
  top: "conv1"
  param {
    lr_mult: 1
  }
  param {
    lr_mult: 2
  }
  convolution_param {
    num_output: 64
    pad: 2
    kernel_size: 5
    stride: 1
    weight_filler {
      type: "gaussian"
      std: 0.0001
    }
    bias_filler {
      type: "constant"
    }
  }
}
layer {
  name: "relu1"
  type: "ReLU"
  bottom: "conv1"
  top: "conv1"
}
layer {
  name: "conv2"
  type: "Convolution"
  bottom: "conv1"
  top: "conv2"
  param {
    lr_mult: 1
  }
  param {
    lr_mult: 2
  }
  convolution_param {
    num_output: 64
    pad: 2
    kernel_size: 5
    stride: 1
    weight_filler {
      type: "gaussian"
      std: 0.01
    }
    bias_filler {
      type: "constant"
    }
  }
}
layer {
  name: "relu2"
  type: "ReLU"
  bottom: "conv2"
  top: "conv2"
}
layer {
  name: "pool2"
  type: "Pooling"
  bottom: "conv2"
  top: "pool2"
  pooling_param {
    pool: MAX
    kernel_size: 3
    stride: 2
  }
}
layer {
  name: "conv3"
  type: "Convolution"
  bottom: "pool2"
  top: "conv3"
  param {
    lr_mult: 1
  }
  param {
    lr_mult: 2
  }
  convolution_param {
    num_output: 128
    pad: 2
    kernel_size: 5
    stride: 1
    weight_filler {
      type: "gaussian"
      std: 0.01
    }
    bias_filler {
      type: "constant"
    }
  }
}
layer {
  name: "relu3"
  type: "ReLU"
  bottom: "conv3"
  top: "conv3"
}
layer {
  name: "conv4"
  type: "Convolution"
  bottom: "conv3"
  top: "conv4"
  param {
    lr_mult: 1
  }
  param {
    lr_mult: 2
  }
  convolution_param {
    num_output: 128
    pad: 2
    kernel_size: 5
    stride: 1
    weight_filler {
      type: "gaussian"
      std: 0.01
    }
    bias_filler {
      type: "constant"
    }
  }
}
layer {
  name: "relu4"
  type: "ReLU"
  bottom: "conv4"
  top: "conv4"
}
layer {
  name: "conv5"
  type: "Convolution"
  bottom: "conv4"
  top: "conv5"
  param {
    lr_mult: 1
  }
  param {
    lr_mult: 2
  }
  convolution_param {
    num_output: 128
    pad: 2
    kernel_size: 5
    stride: 1
    weight_filler {
      type: "gaussian"
      std: 0.01
    }
    bias_filler {
      type: "constant"
    }
  }
}
layer {
  name: "relu5"
  type: "ReLU"
  bottom: "conv5"
  top: "conv5"
}
layer {
  name: "pool5"
  type: "Pooling"
  bottom: "conv5"
  top: "pool5"
  pooling_param {
    pool: AVE
    kernel_size: 3
    stride: 2
  }
}
layer {
  name: "ip1"
  type: "InnerProduct"
  bottom: "pool5"
  top: "ip1"
  param {
    lr_mult: 1
  }
  param {
    lr_mult: 2
  }
  inner_product_param {
    num_output: 1024
    weight_filler {
      type: "gaussian"
      std: 0.1
    }
    bias_filler {
      type: "constant"
    }
  }
}
layer {
  name: "ip2"
  type: "InnerProduct"
  bottom: "ip1"
  top: "ip2"
  param {
    lr_mult: 1
  }
  param {
    lr_mult: 2
  }
  inner_product_param {
    num_output: 512
    weight_filler {
      type: "gaussian"
      std: 0.1
    }
    bias_filler {
      type: "constant"
    }
  }
}
layer {
  name: "ip3"
  type: "InnerProduct"
  bottom: "ip2"
  top: "ip3"
  param {
    lr_mult: 1
  }
  param {
    lr_mult: 2
  }
  inner_product_param {
    num_output: 50
    weight_filler {
      type: "gaussian"
      std: 0.1
    }
    bias_filler {
      type: "constant"
    }
  }
}
layer {
  name: "loss"
  type: "SoftmaxWithLoss"
  bottom: "ip3"
  bottom: "label"
  top: "loss"
}
I0503 16:04:22.915321 21222 layer_factory.hpp:77] Creating layer parameters
I0503 16:04:22.915338 21222 net.cpp:94] Creating Layer parameters
I0503 16:04:22.915343 21222 net.cpp:409] parameters -> data
I0503 16:04:22.915364 21222 net.cpp:409] parameters -> label
I0503 16:04:22.915374 21222 hdf5_data_layer.cpp:79] Loading list of HDF5 filenames from: /home/purduethu/scratch/radon/d/deng106/CNNStatisticalModel/distributions/input/20_distributions_100_sample_size_train-distributions-path.txt
I0503 16:04:22.915396 21222 hdf5_data_layer.cpp:93] Number of HDF5 files: 1
I0503 16:04:22.915861 21222 hdf5.cpp:32] Datatype class: H5T_FLOAT
I0503 16:04:22.981462 21222 hdf5.cpp:35] Datatype class: H5T_INTEGER
I0503 16:04:22.983201 21222 net.cpp:144] Setting up parameters
I0503 16:04:22.983222 21222 net.cpp:151] Top shape: 20 1 10 10 (2000)
I0503 16:04:22.983228 21222 net.cpp:151] Top shape: 20 (20)
I0503 16:04:22.983232 21222 net.cpp:159] Memory required for data: 8080
I0503 16:04:22.983240 21222 layer_factory.hpp:77] Creating layer conv1
I0503 16:04:22.983264 21222 net.cpp:94] Creating Layer conv1
I0503 16:04:22.983270 21222 net.cpp:435] conv1 <- data
I0503 16:04:22.983281 21222 net.cpp:409] conv1 -> conv1
I0503 16:04:22.987269 21222 net.cpp:144] Setting up conv1
I0503 16:04:22.987284 21222 net.cpp:151] Top shape: 20 64 10 10 (128000)
I0503 16:04:22.987289 21222 net.cpp:159] Memory required for data: 520080
I0503 16:04:22.987300 21222 layer_factory.hpp:77] Creating layer relu1
I0503 16:04:22.987309 21222 net.cpp:94] Creating Layer relu1
I0503 16:04:22.987313 21222 net.cpp:435] relu1 <- conv1
I0503 16:04:22.987318 21222 net.cpp:396] relu1 -> conv1 (in-place)
I0503 16:04:22.987334 21222 net.cpp:144] Setting up relu1
I0503 16:04:22.987339 21222 net.cpp:151] Top shape: 20 64 10 10 (128000)
I0503 16:04:22.987342 21222 net.cpp:159] Memory required for data: 1032080
I0503 16:04:22.987346 21222 layer_factory.hpp:77] Creating layer conv2
I0503 16:04:22.987354 21222 net.cpp:94] Creating Layer conv2
I0503 16:04:22.987359 21222 net.cpp:435] conv2 <- conv1
I0503 16:04:22.987363 21222 net.cpp:409] conv2 -> conv2
I0503 16:04:22.992645 21222 net.cpp:144] Setting up conv2
I0503 16:04:22.992660 21222 net.cpp:151] Top shape: 20 64 10 10 (128000)
I0503 16:04:22.992663 21222 net.cpp:159] Memory required for data: 1544080
I0503 16:04:22.992671 21222 layer_factory.hpp:77] Creating layer relu2
I0503 16:04:22.992678 21222 net.cpp:94] Creating Layer relu2
I0503 16:04:22.992682 21222 net.cpp:435] relu2 <- conv2
I0503 16:04:22.992687 21222 net.cpp:396] relu2 -> conv2 (in-place)
I0503 16:04:22.992694 21222 net.cpp:144] Setting up relu2
I0503 16:04:22.992699 21222 net.cpp:151] Top shape: 20 64 10 10 (128000)
I0503 16:04:22.992702 21222 net.cpp:159] Memory required for data: 2056080
I0503 16:04:22.992707 21222 layer_factory.hpp:77] Creating layer pool2
I0503 16:04:22.992720 21222 net.cpp:94] Creating Layer pool2
I0503 16:04:22.992724 21222 net.cpp:435] pool2 <- conv2
I0503 16:04:22.992729 21222 net.cpp:409] pool2 -> pool2
I0503 16:04:22.992772 21222 net.cpp:144] Setting up pool2
I0503 16:04:22.992779 21222 net.cpp:151] Top shape: 20 64 5 5 (32000)
I0503 16:04:22.992784 21222 net.cpp:159] Memory required for data: 2184080
I0503 16:04:22.992787 21222 layer_factory.hpp:77] Creating layer conv3
I0503 16:04:22.992795 21222 net.cpp:94] Creating Layer conv3
I0503 16:04:22.992799 21222 net.cpp:435] conv3 <- pool2
I0503 16:04:22.992811 21222 net.cpp:409] conv3 -> conv3
I0503 16:04:23.001113 21222 net.cpp:144] Setting up conv3
I0503 16:04:23.001127 21222 net.cpp:151] Top shape: 20 128 5 5 (64000)
I0503 16:04:23.001132 21222 net.cpp:159] Memory required for data: 2440080
I0503 16:04:23.001140 21222 layer_factory.hpp:77] Creating layer relu3
I0503 16:04:23.001147 21222 net.cpp:94] Creating Layer relu3
I0503 16:04:23.001150 21222 net.cpp:435] relu3 <- conv3
I0503 16:04:23.001157 21222 net.cpp:396] relu3 -> conv3 (in-place)
I0503 16:04:23.001163 21222 net.cpp:144] Setting up relu3
I0503 16:04:23.001168 21222 net.cpp:151] Top shape: 20 128 5 5 (64000)
I0503 16:04:23.001171 21222 net.cpp:159] Memory required for data: 2696080
I0503 16:04:23.001174 21222 layer_factory.hpp:77] Creating layer conv4
I0503 16:04:23.001183 21222 net.cpp:94] Creating Layer conv4
I0503 16:04:23.001188 21222 net.cpp:435] conv4 <- conv3
I0503 16:04:23.001193 21222 net.cpp:409] conv4 -> conv4
I0503 16:04:23.016161 21222 net.cpp:144] Setting up conv4
I0503 16:04:23.016176 21222 net.cpp:151] Top shape: 20 128 5 5 (64000)
I0503 16:04:23.016180 21222 net.cpp:159] Memory required for data: 2952080
I0503 16:04:23.016187 21222 layer_factory.hpp:77] Creating layer relu4
I0503 16:04:23.016193 21222 net.cpp:94] Creating Layer relu4
I0503 16:04:23.016197 21222 net.cpp:435] relu4 <- conv4
I0503 16:04:23.016202 21222 net.cpp:396] relu4 -> conv4 (in-place)
I0503 16:04:23.016211 21222 net.cpp:144] Setting up relu4
I0503 16:04:23.016216 21222 net.cpp:151] Top shape: 20 128 5 5 (64000)
I0503 16:04:23.016218 21222 net.cpp:159] Memory required for data: 3208080
I0503 16:04:23.016222 21222 layer_factory.hpp:77] Creating layer conv5
I0503 16:04:23.016229 21222 net.cpp:94] Creating Layer conv5
I0503 16:04:23.016233 21222 net.cpp:435] conv5 <- conv4
I0503 16:04:23.016238 21222 net.cpp:409] conv5 -> conv5
I0503 16:04:23.030910 21222 net.cpp:144] Setting up conv5
I0503 16:04:23.030925 21222 net.cpp:151] Top shape: 20 128 5 5 (64000)
I0503 16:04:23.030928 21222 net.cpp:159] Memory required for data: 3464080
I0503 16:04:23.030937 21222 layer_factory.hpp:77] Creating layer relu5
I0503 16:04:23.030943 21222 net.cpp:94] Creating Layer relu5
I0503 16:04:23.030947 21222 net.cpp:435] relu5 <- conv5
I0503 16:04:23.030952 21222 net.cpp:396] relu5 -> conv5 (in-place)
I0503 16:04:23.030961 21222 net.cpp:144] Setting up relu5
I0503 16:04:23.030964 21222 net.cpp:151] Top shape: 20 128 5 5 (64000)
I0503 16:04:23.030968 21222 net.cpp:159] Memory required for data: 3720080
I0503 16:04:23.030972 21222 layer_factory.hpp:77] Creating layer pool5
I0503 16:04:23.030977 21222 net.cpp:94] Creating Layer pool5
I0503 16:04:23.030980 21222 net.cpp:435] pool5 <- conv5
I0503 16:04:23.030984 21222 net.cpp:409] pool5 -> pool5
I0503 16:04:23.031018 21222 net.cpp:144] Setting up pool5
I0503 16:04:23.031025 21222 net.cpp:151] Top shape: 20 128 2 2 (10240)
I0503 16:04:23.031028 21222 net.cpp:159] Memory required for data: 3761040
I0503 16:04:23.031033 21222 layer_factory.hpp:77] Creating layer ip1
I0503 16:04:23.031042 21222 net.cpp:94] Creating Layer ip1
I0503 16:04:23.031046 21222 net.cpp:435] ip1 <- pool5
I0503 16:04:23.031051 21222 net.cpp:409] ip1 -> ip1
I0503 16:04:23.045182 21222 net.cpp:144] Setting up ip1
I0503 16:04:23.045197 21222 net.cpp:151] Top shape: 20 1024 (20480)
I0503 16:04:23.045202 21222 net.cpp:159] Memory required for data: 3842960
I0503 16:04:23.045207 21222 layer_factory.hpp:77] Creating layer ip2
I0503 16:04:23.045214 21222 net.cpp:94] Creating Layer ip2
I0503 16:04:23.045223 21222 net.cpp:435] ip2 <- ip1
I0503 16:04:23.045229 21222 net.cpp:409] ip2 -> ip2
I0503 16:04:23.058676 21222 net.cpp:144] Setting up ip2
I0503 16:04:23.058691 21222 net.cpp:151] Top shape: 20 512 (10240)
I0503 16:04:23.058694 21222 net.cpp:159] Memory required for data: 3883920
I0503 16:04:23.058701 21222 layer_factory.hpp:77] Creating layer ip3
I0503 16:04:23.058708 21222 net.cpp:94] Creating Layer ip3
I0503 16:04:23.058712 21222 net.cpp:435] ip3 <- ip2
I0503 16:04:23.058717 21222 net.cpp:409] ip3 -> ip3
I0503 16:04:23.060066 21222 net.cpp:144] Setting up ip3
I0503 16:04:23.060078 21222 net.cpp:151] Top shape: 20 50 (1000)
I0503 16:04:23.060083 21222 net.cpp:159] Memory required for data: 3887920
I0503 16:04:23.060089 21222 layer_factory.hpp:77] Creating layer loss
I0503 16:04:23.060097 21222 net.cpp:94] Creating Layer loss
I0503 16:04:23.060101 21222 net.cpp:435] loss <- ip3
I0503 16:04:23.060106 21222 net.cpp:435] loss <- label
I0503 16:04:23.060111 21222 net.cpp:409] loss -> loss
I0503 16:04:23.060122 21222 layer_factory.hpp:77] Creating layer loss
…
I0503 16:04:23.060632 21222 solver.cpp:181] Creating test net (#0) specified by net file: ./protocol/dis_20_100_dimension.protocol_distribution
I0503 16:04:23.060660 21222 net.cpp:323] The NetState phase (1) differed from the phase (0) specified by a rule in layer parameters
I0503 16:04:23.060761 21222 net.cpp:52] Initializing net from parameters: 
state {
  phase: TEST
}
layer {
  name: "intercept"
  type: "HDF5Data"
  top: "data"
  top: "label"
  include {
    phase: TEST
  }
  hdf5_data_param {
    source: "/home/purduethu/scratch/radon/d/deng106/CNNStatisticalModel/distributions/input/20_distributions_100_sample_size_test-distributions-path.txt"
    batch_size: 20
  }
}
layer {
  name: "conv1"
  type: "Convolution"
  bottom: "data"
  top: "conv1"
  param {
    lr_mult: 1
  }
  param {
    lr_mult: 2
  }
  convolution_param {
    num_output: 64
    pad: 2
    kernel_size: 5
    stride: 1
    weight_filler {
      type: "gaussian"
      std: 0.0001
    }
    bias_filler {
      type: "constant"
    }
  }
}
layer {
  name: "relu1"
  type: "ReLU"
  bottom: "conv1"
  top: "conv1"
}
layer {
  name: "conv2"
  type: "Convolution"
  bottom: "conv1"
  top: "conv2"
  param {
    lr_mult: 1
  }
  param {
    lr_mult: 2
  }
  convolution_param {
    num_output: 64
    pad: 2
    kernel_size: 5
    stride: 1
    weight_filler {
      type: "gaussian"
      std: 0.01
    }
    bias_filler {
      type: "constant"
    }
  }
}
layer {
  name: "relu2"
  type: "ReLU"
  bottom: "conv2"
  top: "conv2"
}
layer {
  name: "pool2"
  type: "Pooling"
  bottom: "conv2"
  top: "pool2"
  pooling_param {
    pool: MAX
    kernel_size: 3
    stride: 2
  }
}
layer {
  name: "conv3"
  type: "Convolution"
  bottom: "pool2"
  top: "conv3"
  param {
    lr_mult: 1
  }
  param {
    lr_mult: 2
  }
  convolution_param {
    num_output: 128
    pad: 2
    kernel_size: 5
    stride: 1
    weight_filler {
      type: "gaussian"
      std: 0.01
    }
    bias_filler {
      type: "constant"
    }
  }
}
layer {
  name: "relu3"
  type: "ReLU"
  bottom: "conv3"
  top: "conv3"
}
layer {
  name: "conv4"
  type: "Convolution"
  bottom: "conv3"
  top: "conv4"
  param {
    lr_mult: 1
  }
  param {
    lr_mult: 2
  }
  convolution_param {
    num_output: 128
    pad: 2
    kernel_size: 5
    stride: 1
    weight_filler {
      type: "gaussian"
      std: 0.01
    }
    bias_filler {
      type: "constant"
    }
  }
}
layer {
  name: "relu4"
  type: "ReLU"
  bottom: "conv4"
  top: "conv4"
}
layer {
  name: "conv5"
  type: "Convolution"
  bottom: "conv4"
  top: "conv5"
  param {
    lr_mult: 1
  }
  param {
    lr_mult: 2
  }
  convolution_param {
    num_output: 128
    pad: 2
    kernel_size: 5
    stride: 1
    weight_filler {
      type: "gaussian"
      std: 0.01
    }
    bias_filler {
      type: "constant"
    }
  }
}
layer {
  name: "relu5"
  type: "ReLU"
  bottom: "conv5"
  top: "conv5"
}
layer {
  name: "pool5"
  type: "Pooling"
  bottom: "conv5"
  top: "pool5"
  pooling_param {
    pool: AVE
    kernel_size: 3
    stride: 2
  }
}
layer {
  name: "ip1"
  type: "InnerProduct"
  bottom: "pool5"
  top: "ip1"
  param {
    lr_mult: 1
  }
  param {
    lr_mult: 2
  }
  inner_product_param {
    num_output: 1024
    weight_filler {
      type: "gaussian"
      std: 0.1
    }
    bias_filler {
      type: "constant"
    }
  }
}
layer {
  name: "ip2"
  type: "InnerProduct"
  bottom: "ip1"
  top: "ip2"
  param {
    lr_mult: 1
  }
  param {
    lr_mult: 2
  }
  inner_product_param {
    num_output: 512
    weight_filler {
      type: "gaussian"
      std: 0.1
    }
    bias_filler {
      type: "constant"
    }
  }
}
layer {
  name: "ip3"
  type: "InnerProduct"
  bottom: "ip2"
  top: "ip3"
  param {
    lr_mult: 1
  }
  param {
    lr_mult: 2
  }
  inner_product_param {
    num_output: 50
    weight_filler {
      type: "gaussian"
      std: 0.1
    }
    bias_filler {
      type: "constant"
    }
  }
}
layer {
  name: "accuracy"
  type: "Accuracy"
  bottom: "ip3"
  bottom: "label"
  top: "accuracy"
  include {
    phase: TEST
  }
}
layer {
  name: "loss"
  type: "SoftmaxWithLoss"
  bottom: "ip3"
  bottom: "label"
  top: "loss"
}
I0503 16:04:23.060837 21222 layer_factory.hpp:77] Creating layer intercept
I0503 16:04:23.060847 21222 net.cpp:94] Creating Layer intercept
I0503 16:04:23.060852 21222 net.cpp:409] intercept -> data
I0503 16:04:23.060858 21222 net.cpp:409] intercept -> label
I0503 16:04:23.060865 21222 hdf5_data_layer.cpp:79] Loading list of HDF5 filenames from: /home/purduethu/scratch/radon/d/deng106/CNNStatisticalModel/distributions/input/20_distributions_100_sample_size_test-distributions-path.txt
I0503 16:04:23.060884 21222 hdf5_data_layer.cpp:93] Number of HDF5 files: 1
I0503 16:04:23.077908 21222 net.cpp:144] Setting up intercept
I0503 16:04:23.077942 21222 net.cpp:151] Top shape: 20 1 10 10 (2000)
I0503 16:04:23.077947 21222 net.cpp:151] Top shape: 20 (20)
I0503 16:04:23.077951 21222 net.cpp:159] Memory required for data: 8080
I0503 16:04:23.077957 21222 layer_factory.hpp:77] Creating layer label_intercept_1_split
I0503 16:04:23.077977 21222 net.cpp:94] Creating Layer label_intercept_1_split
I0503 16:04:23.077982 21222 net.cpp:435] label_intercept_1_split <- label
I0503 16:04:23.077988 21222 net.cpp:409] label_intercept_1_split -> label_intercept_1_split_0
I0503 16:04:23.077996 21222 net.cpp:409] label_intercept_1_split -> label_intercept_1_split_1
I0503 16:04:23.078034 21222 net.cpp:144] Setting up label_intercept_1_split
I0503 16:04:23.078042 21222 net.cpp:151] Top shape: 20 (20)
I0503 16:04:23.078045 21222 net.cpp:151] Top shape: 20 (20)
I0503 16:04:23.078049 21222 net.cpp:159] Memory required for data: 8240
I0503 16:04:23.078052 21222 layer_factory.hpp:77] Creating layer conv1
I0503 16:04:23.078063 21222 net.cpp:94] Creating Layer conv1
I0503 16:04:23.078068 21222 net.cpp:435] conv1 <- data
I0503 16:04:23.078073 21222 net.cpp:409] conv1 -> conv1
I0503 16:04:23.078800 21222 net.cpp:144] Setting up conv1
I0503 16:04:23.078824 21222 net.cpp:151] Top shape: 20 64 10 10 (128000)
I0503 16:04:23.078829 21222 net.cpp:159] Memory required for data: 520240
I0503 16:04:23.078837 21222 layer_factory.hpp:77] Creating layer relu1
I0503 16:04:23.078845 21222 net.cpp:94] Creating Layer relu1
I0503 16:04:23.078848 21222 net.cpp:435] relu1 <- conv1
I0503 16:04:23.078853 21222 net.cpp:396] relu1 -> conv1 (in-place)
I0503 16:04:23.078861 21222 net.cpp:144] Setting up relu1
I0503 16:04:23.078866 21222 net.cpp:151] Top shape: 20 64 10 10 (128000)
I0503 16:04:23.078869 21222 net.cpp:159] Memory required for data: 1032240
I0503 16:04:23.078872 21222 layer_factory.hpp:77] Creating layer conv2
I0503 16:04:23.078881 21222 net.cpp:94] Creating Layer conv2
I0503 16:04:23.078886 21222 net.cpp:435] conv2 <- conv1
I0503 16:04:23.078891 21222 net.cpp:409] conv2 -> conv2
I0503 16:04:23.082871 21222 net.cpp:144] Setting up conv2
I0503 16:04:23.082885 21222 net.cpp:151] Top shape: 20 64 10 10 (128000)
I0503 16:04:23.082890 21222 net.cpp:159] Memory required for data: 1544240
I0503 16:04:23.082897 21222 layer_factory.hpp:77] Creating layer relu2
I0503 16:04:23.082904 21222 net.cpp:94] Creating Layer relu2
I0503 16:04:23.082908 21222 net.cpp:435] relu2 <- conv2
I0503 16:04:23.082912 21222 net.cpp:396] relu2 -> conv2 (in-place)
I0503 16:04:23.082919 21222 net.cpp:144] Setting up relu2
I0503 16:04:23.082924 21222 net.cpp:151] Top shape: 20 64 10 10 (128000)
I0503 16:04:23.082927 21222 net.cpp:159] Memory required for data: 2056240
I0503 16:04:23.082931 21222 layer_factory.hpp:77] Creating layer pool2
I0503 16:04:23.082937 21222 net.cpp:94] Creating Layer pool2
I0503 16:04:23.082940 21222 net.cpp:435] pool2 <- conv2
I0503 16:04:23.082945 21222 net.cpp:409] pool2 -> pool2
I0503 16:04:23.082978 21222 net.cpp:144] Setting up pool2
I0503 16:04:23.082984 21222 net.cpp:151] Top shape: 20 64 5 5 (32000)
I0503 16:04:23.082988 21222 net.cpp:159] Memory required for data: 2184240
I0503 16:04:23.082991 21222 layer_factory.hpp:77] Creating layer conv3
I0503 16:04:23.082999 21222 net.cpp:94] Creating Layer conv3
I0503 16:04:23.083003 21222 net.cpp:435] conv3 <- pool2
I0503 16:04:23.083009 21222 net.cpp:409] conv3 -> conv3
I0503 16:04:23.090224 21222 net.cpp:144] Setting up conv3
I0503 16:04:23.090237 21222 net.cpp:151] Top shape: 20 128 5 5 (64000)
I0503 16:04:23.090242 21222 net.cpp:159] Memory required for data: 2440240
I0503 16:04:23.090250 21222 layer_factory.hpp:77] Creating layer relu3
I0503 16:04:23.090258 21222 net.cpp:94] Creating Layer relu3
I0503 16:04:23.090262 21222 net.cpp:435] relu3 <- conv3
I0503 16:04:23.090267 21222 net.cpp:396] relu3 -> conv3 (in-place)
I0503 16:04:23.090275 21222 net.cpp:144] Setting up relu3
I0503 16:04:23.090279 21222 net.cpp:151] Top shape: 20 128 5 5 (64000)
I0503 16:04:23.090282 21222 net.cpp:159] Memory required for data: 2696240
I0503 16:04:23.090286 21222 layer_factory.hpp:77] Creating layer conv4
I0503 16:04:23.090293 21222 net.cpp:94] Creating Layer conv4
I0503 16:04:23.090297 21222 net.cpp:435] conv4 <- conv3
I0503 16:04:23.090302 21222 net.cpp:409] conv4 -> conv4
I0503 16:04:23.102877 21222 net.cpp:144] Setting up conv4
I0503 16:04:23.102892 21222 net.cpp:151] Top shape: 20 128 5 5 (64000)
I0503 16:04:23.102896 21222 net.cpp:159] Memory required for data: 2952240
I0503 16:04:23.102903 21222 layer_factory.hpp:77] Creating layer relu4
I0503 16:04:23.102910 21222 net.cpp:94] Creating Layer relu4
I0503 16:04:23.102913 21222 net.cpp:435] relu4 <- conv4
I0503 16:04:23.102922 21222 net.cpp:396] relu4 -> conv4 (in-place)
I0503 16:04:23.102931 21222 net.cpp:144] Setting up relu4
I0503 16:04:23.102936 21222 net.cpp:151] Top shape: 20 128 5 5 (64000)
I0503 16:04:23.102939 21222 net.cpp:159] Memory required for data: 3208240
I0503 16:04:23.102942 21222 layer_factory.hpp:77] Creating layer conv5
I0503 16:04:23.102952 21222 net.cpp:94] Creating Layer conv5
I0503 16:04:23.102954 21222 net.cpp:435] conv5 <- conv4
I0503 16:04:23.102959 21222 net.cpp:409] conv5 -> conv5
I0503 16:04:23.115561 21222 net.cpp:144] Setting up conv5
I0503 16:04:23.115582 21222 net.cpp:151] Top shape: 20 128 5 5 (64000)
I0503 16:04:23.115586 21222 net.cpp:159] Memory required for data: 3464240
I0503 16:04:23.115595 21222 layer_factory.hpp:77] Creating layer relu5
I0503 16:04:23.115602 21222 net.cpp:94] Creating Layer relu5
I0503 16:04:23.115607 21222 net.cpp:435] relu5 <- conv5
I0503 16:04:23.115610 21222 net.cpp:396] relu5 -> conv5 (in-place)
I0503 16:04:23.115618 21222 net.cpp:144] Setting up relu5
I0503 16:04:23.115622 21222 net.cpp:151] Top shape: 20 128 5 5 (64000)
I0503 16:04:23.115625 21222 net.cpp:159] Memory required for data: 3720240
I0503 16:04:23.115629 21222 layer_factory.hpp:77] Creating layer pool5
I0503 16:04:23.115634 21222 net.cpp:94] Creating Layer pool5
I0503 16:04:23.115638 21222 net.cpp:435] pool5 <- conv5
I0503 16:04:23.115643 21222 net.cpp:409] pool5 -> pool5
I0503 16:04:23.115666 21222 net.cpp:144] Setting up pool5
I0503 16:04:23.115674 21222 net.cpp:151] Top shape: 20 128 2 2 (10240)
I0503 16:04:23.115676 21222 net.cpp:159] Memory required for data: 3761200
I0503 16:04:23.115680 21222 layer_factory.hpp:77] Creating layer ip1
I0503 16:04:23.115686 21222 net.cpp:94] Creating Layer ip1
I0503 16:04:23.115690 21222 net.cpp:435] ip1 <- pool5
I0503 16:04:23.115695 21222 net.cpp:409] ip1 -> ip1
I0503 16:04:23.129179 21222 net.cpp:144] Setting up ip1
I0503 16:04:23.129194 21222 net.cpp:151] Top shape: 20 1024 (20480)
I0503 16:04:23.129197 21222 net.cpp:159] Memory required for data: 3843120
I0503 16:04:23.129204 21222 layer_factory.hpp:77] Creating layer ip2
I0503 16:04:23.129211 21222 net.cpp:94] Creating Layer ip2
I0503 16:04:23.129215 21222 net.cpp:435] ip2 <- ip1
I0503 16:04:23.129220 21222 net.cpp:409] ip2 -> ip2
I0503 16:04:23.142679 21222 net.cpp:144] Setting up ip2
I0503 16:04:23.142693 21222 net.cpp:151] Top shape: 20 512 (10240)
I0503 16:04:23.142698 21222 net.cpp:159] Memory required for data: 3884080
I0503 16:04:23.142704 21222 layer_factory.hpp:77] Creating layer ip3
I0503 16:04:23.142711 21222 net.cpp:94] Creating Layer ip3
I0503 16:04:23.142715 21222 net.cpp:435] ip3 <- ip2
I0503 16:04:23.142721 21222 net.cpp:409] ip3 -> ip3
I0503 16:04:23.143429 21222 net.cpp:144] Setting up ip3
I0503 16:04:23.143437 21222 net.cpp:151] Top shape: 20 50 (1000)
I0503 16:04:23.143440 21222 net.cpp:159] Memory required for data: 3888080
I0503 16:04:23.143445 21222 layer_factory.hpp:77] Creating layer ip3_ip3_0_split
I0503 16:04:23.143452 21222 net.cpp:94] Creating Layer ip3_ip3_0_split
I0503 16:04:23.143455 21222 net.cpp:435] ip3_ip3_0_split <- ip3
I0503 16:04:23.143460 21222 net.cpp:409] ip3_ip3_0_split -> ip3_ip3_0_split_0
I0503 16:04:23.143465 21222 net.cpp:409] ip3_ip3_0_split -> ip3_ip3_0_split_1
I0503 16:04:23.143491 21222 net.cpp:144] Setting up ip3_ip3_0_split
I0503 16:04:23.143497 21222 net.cpp:151] Top shape: 20 50 (1000)
I0503 16:04:23.143501 21222 net.cpp:151] Top shape: 20 50 (1000)
I0503 16:04:23.143504 21222 net.cpp:159] Memory required for data: 3896080
I0503 16:04:23.143507 21222 layer_factory.hpp:77] Creating layer accuracy
I0503 16:04:23.143513 21222 net.cpp:94] Creating Layer accuracy
I0503 16:04:23.143517 21222 net.cpp:435] accuracy <- ip3_ip3_0_split_0
I0503 16:04:23.143522 21222 net.cpp:435] accuracy <- label_intercept_1_split_0
I0503 16:04:23.143527 21222 net.cpp:409] accuracy -> accuracy
…
