…
I0501 16:41:27.019378 13596 net.cpp:323] The NetState phase (0) differed from the phase (1) specified by a rule in layer intercept
I0501 16:41:27.019394 13596 net.cpp:323] The NetState phase (0) differed from the phase (1) specified by a rule in layer loss
I0501 16:41:27.019471 13596 net.cpp:52] Initializing net from parameters: 
state {
  phase: TRAIN
}
layer {
  name: "parameters"
  type: "HDF5Data"
  top: "data"
  top: "label"
  include {
    phase: TRAIN
  }
  hdf5_data_param {
    source: "/home/purduethu/scratch/radon/d/deng106/CNNStatisticalModel/distributions/input/5_distributions_900_sample_size_train-parameters-path.txt"
    batch_size: 20
  }
}
layer {
  name: "conv1"
  type: "Convolution"
  bottom: "data"
  top: "conv1"
  param {
    lr_mult: 1
  }
  param {
    lr_mult: 2
  }
  convolution_param {
    num_output: 64
    pad: 2
    kernel_size: 5
    stride: 1
    weight_filler {
      type: "gaussian"
      std: 0.0001
    }
    bias_filler {
      type: "constant"
    }
  }
}
layer {
  name: "relu1"
  type: "ReLU"
  bottom: "conv1"
  top: "conv1"
}
layer {
  name: "conv2"
  type: "Convolution"
  bottom: "conv1"
  top: "conv2"
  param {
    lr_mult: 1
  }
  param {
    lr_mult: 2
  }
  convolution_param {
    num_output: 64
    pad: 2
    kernel_size: 5
    stride: 1
    weight_filler {
      type: "gaussian"
      std: 0.01
    }
    bias_filler {
      type: "constant"
    }
  }
}
layer {
  name: "relu2"
  type: "ReLU"
  bottom: "conv2"
  top: "conv2"
}
layer {
  name: "pool2"
  type: "Pooling"
  bottom: "conv2"
  top: "pool2"
  pooling_param {
    pool: MAX
    kernel_size: 3
    stride: 2
  }
}
layer {
  name: "conv3"
  type: "Convolution"
  bottom: "pool2"
  top: "conv3"
  param {
    lr_mult: 1
  }
  param {
    lr_mult: 2
  }
  convolution_param {
    num_output: 64
    pad: 2
    kernel_size: 5
    stride: 1
    weight_filler {
      type: "gaussian"
      std: 0.01
    }
    bias_filler {
      type: "constant"
    }
  }
}
layer {
  name: "relu3"
  type: "ReLU"
  bottom: "conv3"
  top: "conv3"
}
layer {
  name: "conv4"
  type: "Convolution"
  bottom: "conv3"
  top: "conv4"
  param {
    lr_mult: 1
  }
  param {
    lr_mult: 2
  }
  convolution_param {
    num_output: 64
    pad: 2
    kernel_size: 5
    stride: 1
    weight_filler {
      type: "gaussian"
      std: 0.01
    }
    bias_filler {
      type: "constant"
    }
  }
}
layer {
  name: "relu4"
  type: "ReLU"
  bottom: "conv4"
  top: "conv4"
}
layer {
  name: "conv5"
  type: "Convolution"
  bottom: "conv4"
  top: "conv5"
  param {
    lr_mult: 1
  }
  param {
    lr_mult: 2
  }
  convolution_param {
    num_output: 64
    pad: 2
    kernel_size: 5
    stride: 1
    weight_filler {
      type: "gaussian"
      std: 0.01
    }
    bias_filler {
      type: "constant"
    }
  }
}
layer {
  name: "relu5"
  type: "ReLU"
  bottom: "conv5"
  top: "conv5"
}
layer {
  name: "pool5"
  type: "Pooling"
  bottom: "conv5"
  top: "pool5"
  pooling_param {
    pool: AVE
    kernel_size: 3
    stride: 2
  }
}
layer {
  name: "ip1"
  type: "InnerProduct"
  bottom: "pool5"
  top: "ip1"
  param {
    lr_mult: 1
  }
  param {
    lr_mult: 2
  }
  inner_product_param {
    num_output: 64
    weight_filler {
      type: "gaussian"
      std: 0.1
    }
    bias_filler {
      type: "constant"
    }
  }
}
layer {
  name: "ip2"
  type: "InnerProduct"
  bottom: "ip1"
  top: "ip2"
  param {
    lr_mult: 1
  }
  param {
    lr_mult: 2
  }
  inner_product_param {
    num_output: 64
    weight_filler {
      type: "gaussian"
      std: 0.1
    }
    bias_filler {
      type: "constant"
    }
  }
}
layer {
  name: "ip3"
  type: "InnerProduct"
  bottom: "ip2"
  top: "ip3"
  param {
    lr_mult: 1
  }
  param {
    lr_mult: 2
  }
  inner_product_param {
    num_output: 1
    weight_filler {
      type: "gaussian"
      std: 0.1
    }
    bias_filler {
      type: "constant"
    }
  }
}
layer {
  name: "loss"
  type: "HuberLoss"
  bottom: "ip3"
  bottom: "label"
  top: "loss"
  include {
    phase: TRAIN
  }
}
I0501 16:41:27.019523 13596 layer_factory.hpp:77] Creating layer parameters
I0501 16:41:27.019536 13596 net.cpp:94] Creating Layer parameters
I0501 16:41:27.019541 13596 net.cpp:409] parameters -> data
I0501 16:41:27.019549 13596 net.cpp:409] parameters -> label
I0501 16:41:27.019559 13596 hdf5_data_layer.cpp:79] Loading list of HDF5 filenames from: /home/purduethu/scratch/radon/d/deng106/CNNStatisticalModel/distributions/input/5_distributions_900_sample_size_train-parameters-path.txt
I0501 16:41:27.019574 13596 hdf5_data_layer.cpp:93] Number of HDF5 files: 1
I0501 16:41:27.020119 13596 hdf5.cpp:32] Datatype class: H5T_FLOAT
I0501 16:41:27.156734 13596 net.cpp:144] Setting up parameters
I0501 16:41:27.156765 13596 net.cpp:151] Top shape: 20 1 30 30 (18000)
I0501 16:41:27.156771 13596 net.cpp:151] Top shape: 20 (20)
I0501 16:41:27.156774 13596 net.cpp:159] Memory required for data: 72080
I0501 16:41:27.156780 13596 layer_factory.hpp:77] Creating layer conv1
I0501 16:41:27.156801 13596 net.cpp:94] Creating Layer conv1
I0501 16:41:27.156806 13596 net.cpp:435] conv1 <- data
I0501 16:41:27.156812 13596 net.cpp:409] conv1 -> conv1
I0501 16:41:27.163569 13596 net.cpp:144] Setting up conv1
I0501 16:41:27.163584 13596 net.cpp:151] Top shape: 20 64 30 30 (1152000)
I0501 16:41:27.163588 13596 net.cpp:159] Memory required for data: 4680080
I0501 16:41:27.163597 13596 layer_factory.hpp:77] Creating layer relu1
I0501 16:41:27.163605 13596 net.cpp:94] Creating Layer relu1
I0501 16:41:27.163609 13596 net.cpp:435] relu1 <- conv1
I0501 16:41:27.163614 13596 net.cpp:396] relu1 -> conv1 (in-place)
I0501 16:41:27.163625 13596 net.cpp:144] Setting up relu1
I0501 16:41:27.163628 13596 net.cpp:151] Top shape: 20 64 30 30 (1152000)
I0501 16:41:27.163631 13596 net.cpp:159] Memory required for data: 9288080
I0501 16:41:27.163635 13596 layer_factory.hpp:77] Creating layer conv2
I0501 16:41:27.163642 13596 net.cpp:94] Creating Layer conv2
I0501 16:41:27.163645 13596 net.cpp:435] conv2 <- conv1
I0501 16:41:27.163650 13596 net.cpp:409] conv2 -> conv2
I0501 16:41:27.178902 13596 net.cpp:144] Setting up conv2
I0501 16:41:27.178917 13596 net.cpp:151] Top shape: 20 64 30 30 (1152000)
I0501 16:41:27.178921 13596 net.cpp:159] Memory required for data: 13896080
I0501 16:41:27.178930 13596 layer_factory.hpp:77] Creating layer relu2
I0501 16:41:27.178936 13596 net.cpp:94] Creating Layer relu2
I0501 16:41:27.178939 13596 net.cpp:435] relu2 <- conv2
I0501 16:41:27.178944 13596 net.cpp:396] relu2 -> conv2 (in-place)
I0501 16:41:27.178951 13596 net.cpp:144] Setting up relu2
I0501 16:41:27.178956 13596 net.cpp:151] Top shape: 20 64 30 30 (1152000)
I0501 16:41:27.178958 13596 net.cpp:159] Memory required for data: 18504080
I0501 16:41:27.178961 13596 layer_factory.hpp:77] Creating layer pool2
I0501 16:41:27.178973 13596 net.cpp:94] Creating Layer pool2
I0501 16:41:27.178977 13596 net.cpp:435] pool2 <- conv2
I0501 16:41:27.178982 13596 net.cpp:409] pool2 -> pool2
I0501 16:41:27.179033 13596 net.cpp:144] Setting up pool2
I0501 16:41:27.179039 13596 net.cpp:151] Top shape: 20 64 15 15 (288000)
I0501 16:41:27.179042 13596 net.cpp:159] Memory required for data: 19656080
I0501 16:41:27.179046 13596 layer_factory.hpp:77] Creating layer conv3
I0501 16:41:27.179054 13596 net.cpp:94] Creating Layer conv3
I0501 16:41:27.179057 13596 net.cpp:435] conv3 <- pool2
I0501 16:41:27.179062 13596 net.cpp:409] conv3 -> conv3
I0501 16:41:27.187522 13596 net.cpp:144] Setting up conv3
I0501 16:41:27.187537 13596 net.cpp:151] Top shape: 20 64 15 15 (288000)
I0501 16:41:27.187541 13596 net.cpp:159] Memory required for data: 20808080
I0501 16:41:27.187549 13596 layer_factory.hpp:77] Creating layer relu3
I0501 16:41:27.187556 13596 net.cpp:94] Creating Layer relu3
I0501 16:41:27.187559 13596 net.cpp:435] relu3 <- conv3
I0501 16:41:27.187564 13596 net.cpp:396] relu3 -> conv3 (in-place)
I0501 16:41:27.187572 13596 net.cpp:144] Setting up relu3
I0501 16:41:27.187575 13596 net.cpp:151] Top shape: 20 64 15 15 (288000)
I0501 16:41:27.187578 13596 net.cpp:159] Memory required for data: 21960080
I0501 16:41:27.187582 13596 layer_factory.hpp:77] Creating layer conv4
I0501 16:41:27.187589 13596 net.cpp:94] Creating Layer conv4
I0501 16:41:27.187593 13596 net.cpp:435] conv4 <- conv3
I0501 16:41:27.187598 13596 net.cpp:409] conv4 -> conv4
I0501 16:41:27.194877 13596 net.cpp:144] Setting up conv4
I0501 16:41:27.194891 13596 net.cpp:151] Top shape: 20 64 15 15 (288000)
I0501 16:41:27.194895 13596 net.cpp:159] Memory required for data: 23112080
I0501 16:41:27.194901 13596 layer_factory.hpp:77] Creating layer relu4
I0501 16:41:27.194907 13596 net.cpp:94] Creating Layer relu4
I0501 16:41:27.194911 13596 net.cpp:435] relu4 <- conv4
I0501 16:41:27.194916 13596 net.cpp:396] relu4 -> conv4 (in-place)
I0501 16:41:27.194922 13596 net.cpp:144] Setting up relu4
I0501 16:41:27.194926 13596 net.cpp:151] Top shape: 20 64 15 15 (288000)
I0501 16:41:27.194929 13596 net.cpp:159] Memory required for data: 24264080
I0501 16:41:27.194932 13596 layer_factory.hpp:77] Creating layer conv5
I0501 16:41:27.194939 13596 net.cpp:94] Creating Layer conv5
I0501 16:41:27.194943 13596 net.cpp:435] conv5 <- conv4
I0501 16:41:27.194948 13596 net.cpp:409] conv5 -> conv5
I0501 16:41:27.202239 13596 net.cpp:144] Setting up conv5
I0501 16:41:27.202253 13596 net.cpp:151] Top shape: 20 64 15 15 (288000)
I0501 16:41:27.202257 13596 net.cpp:159] Memory required for data: 25416080
I0501 16:41:27.202265 13596 layer_factory.hpp:77] Creating layer relu5
I0501 16:41:27.202272 13596 net.cpp:94] Creating Layer relu5
I0501 16:41:27.202276 13596 net.cpp:435] relu5 <- conv5
I0501 16:41:27.202280 13596 net.cpp:396] relu5 -> conv5 (in-place)
I0501 16:41:27.202288 13596 net.cpp:144] Setting up relu5
I0501 16:41:27.202292 13596 net.cpp:151] Top shape: 20 64 15 15 (288000)
I0501 16:41:27.202296 13596 net.cpp:159] Memory required for data: 26568080
I0501 16:41:27.202298 13596 layer_factory.hpp:77] Creating layer pool5
I0501 16:41:27.202303 13596 net.cpp:94] Creating Layer pool5
I0501 16:41:27.202306 13596 net.cpp:435] pool5 <- conv5
I0501 16:41:27.202311 13596 net.cpp:409] pool5 -> pool5
I0501 16:41:27.202349 13596 net.cpp:144] Setting up pool5
I0501 16:41:27.202356 13596 net.cpp:151] Top shape: 20 64 7 7 (62720)
I0501 16:41:27.202359 13596 net.cpp:159] Memory required for data: 26818960
I0501 16:41:27.202363 13596 layer_factory.hpp:77] Creating layer ip1
I0501 16:41:27.202371 13596 net.cpp:94] Creating Layer ip1
I0501 16:41:27.202375 13596 net.cpp:435] ip1 <- pool5
I0501 16:41:27.202380 13596 net.cpp:409] ip1 -> ip1
I0501 16:41:27.208000 13596 net.cpp:144] Setting up ip1
I0501 16:41:27.208014 13596 net.cpp:151] Top shape: 20 64 (1280)
I0501 16:41:27.208017 13596 net.cpp:159] Memory required for data: 26824080
I0501 16:41:27.208024 13596 layer_factory.hpp:77] Creating layer ip2
I0501 16:41:27.208030 13596 net.cpp:94] Creating Layer ip2
I0501 16:41:27.208037 13596 net.cpp:435] ip2 <- ip1
I0501 16:41:27.208042 13596 net.cpp:409] ip2 -> ip2
I0501 16:41:27.208252 13596 net.cpp:144] Setting up ip2
I0501 16:41:27.208259 13596 net.cpp:151] Top shape: 20 64 (1280)
I0501 16:41:27.208262 13596 net.cpp:159] Memory required for data: 26829200
I0501 16:41:27.208268 13596 layer_factory.hpp:77] Creating layer ip3
I0501 16:41:27.208276 13596 net.cpp:94] Creating Layer ip3
I0501 16:41:27.208289 13596 net.cpp:435] ip3 <- ip2
I0501 16:41:27.208295 13596 net.cpp:409] ip3 -> ip3
I0501 16:41:27.208402 13596 net.cpp:144] Setting up ip3
I0501 16:41:27.208410 13596 net.cpp:151] Top shape: 20 1 (20)
I0501 16:41:27.208412 13596 net.cpp:159] Memory required for data: 26829280
I0501 16:41:27.208417 13596 layer_factory.hpp:77] Creating layer loss
I0501 16:41:27.208429 13596 net.cpp:94] Creating Layer loss
I0501 16:41:27.208432 13596 net.cpp:435] loss <- ip3
I0501 16:41:27.208436 13596 net.cpp:435] loss <- label
I0501 16:41:27.208441 13596 net.cpp:409] loss -> loss
I0501 16:41:27.208492 13596 net.cpp:144] Setting up loss
…
I0501 16:41:27.273859 13596 net.cpp:323] The NetState phase (0) differed from the phase (1) specified by a rule in layer intercept
I0501 16:41:27.273874 13596 net.cpp:323] The NetState phase (0) differed from the phase (1) specified by a rule in layer accuracy
I0501 16:41:27.273959 13596 net.cpp:52] Initializing net from parameters: 
state {
  phase: TRAIN
}
layer {
  name: "parameters"
  type: "HDF5Data"
  top: "data"
  top: "label"
  include {
    phase: TRAIN
  }
  hdf5_data_param {
    source: "/home/purduethu/scratch/radon/d/deng106/CNNStatisticalModel/distributions/input/5_distributions_900_sample_size_train-distributions-path.txt"
    batch_size: 20
  }
}
layer {
  name: "conv1"
  type: "Convolution"
  bottom: "data"
  top: "conv1"
  param {
    lr_mult: 1
  }
  param {
    lr_mult: 2
  }
  convolution_param {
    num_output: 64
    pad: 2
    kernel_size: 5
    stride: 1
    weight_filler {
      type: "gaussian"
      std: 0.0001
    }
    bias_filler {
      type: "constant"
    }
  }
}
layer {
  name: "relu1"
  type: "ReLU"
  bottom: "conv1"
  top: "conv1"
}
layer {
  name: "conv2"
  type: "Convolution"
  bottom: "conv1"
  top: "conv2"
  param {
    lr_mult: 1
  }
  param {
    lr_mult: 2
  }
  convolution_param {
    num_output: 64
    pad: 2
    kernel_size: 5
    stride: 1
    weight_filler {
      type: "gaussian"
      std: 0.01
    }
    bias_filler {
      type: "constant"
    }
  }
}
layer {
  name: "relu2"
  type: "ReLU"
  bottom: "conv2"
  top: "conv2"
}
layer {
  name: "pool2"
  type: "Pooling"
  bottom: "conv2"
  top: "pool2"
  pooling_param {
    pool: MAX
    kernel_size: 3
    stride: 2
  }
}
layer {
  name: "conv3"
  type: "Convolution"
  bottom: "pool2"
  top: "conv3"
  param {
    lr_mult: 1
  }
  param {
    lr_mult: 2
  }
  convolution_param {
    num_output: 64
    pad: 2
    kernel_size: 5
    stride: 1
    weight_filler {
      type: "gaussian"
      std: 0.01
    }
    bias_filler {
      type: "constant"
    }
  }
}
layer {
  name: "relu3"
  type: "ReLU"
  bottom: "conv3"
  top: "conv3"
}
layer {
  name: "conv4"
  type: "Convolution"
  bottom: "conv3"
  top: "conv4"
  param {
    lr_mult: 1
  }
  param {
    lr_mult: 2
  }
  convolution_param {
    num_output: 64
    pad: 2
    kernel_size: 5
    stride: 1
    weight_filler {
      type: "gaussian"
      std: 0.01
    }
    bias_filler {
      type: "constant"
    }
  }
}
layer {
  name: "relu4"
  type: "ReLU"
  bottom: "conv4"
  top: "conv4"
}
layer {
  name: "conv5"
  type: "Convolution"
  bottom: "conv4"
  top: "conv5"
  param {
    lr_mult: 1
  }
  param {
    lr_mult: 2
  }
  convolution_param {
    num_output: 64
    pad: 2
    kernel_size: 5
    stride: 1
    weight_filler {
      type: "gaussian"
      std: 0.01
    }
    bias_filler {
      type: "constant"
    }
  }
}
layer {
  name: "relu5"
  type: "ReLU"
  bottom: "conv5"
  top: "conv5"
}
layer {
  name: "pool5"
  type: "Pooling"
  bottom: "conv5"
  top: "pool5"
  pooling_param {
    pool: AVE
    kernel_size: 3
    stride: 2
  }
}
layer {
  name: "ip1"
  type: "InnerProduct"
  bottom: "pool5"
  top: "ip1"
  param {
    lr_mult: 1
  }
  param {
    lr_mult: 2
  }
  inner_product_param {
    num_output: 64
    weight_filler {
      type: "gaussian"
      std: 0.1
    }
    bias_filler {
      type: "constant"
    }
  }
}
layer {
  name: "ip2"
  type: "InnerProduct"
  bottom: "ip1"
  top: "ip2"
  param {
    lr_mult: 1
  }
  param {
    lr_mult: 2
  }
  inner_product_param {
    num_output: 64
    weight_filler {
      type: "gaussian"
      std: 0.1
    }
    bias_filler {
      type: "constant"
    }
  }
}
layer {
  name: "ip3"
  type: "InnerProduct"
  bottom: "ip2"
  top: "ip3"
  param {
    lr_mult: 1
  }
  param {
    lr_mult: 2
  }
  inner_product_param {
    num_output: 50
    weight_filler {
      type: "gaussian"
      std: 0.1
    }
    bias_filler {
      type: "constant"
    }
  }
}
layer {
  name: "loss"
  type: "SoftmaxWithLoss"
  bottom: "ip3"
  bottom: "label"
  top: "loss"
}
I0501 16:41:27.274009 13596 layer_factory.hpp:77] Creating layer parameters
I0501 16:41:27.274018 13596 net.cpp:94] Creating Layer parameters
I0501 16:41:27.274020 13596 net.cpp:409] parameters -> data
I0501 16:41:27.274027 13596 net.cpp:409] parameters -> label
I0501 16:41:27.274034 13596 hdf5_data_layer.cpp:79] Loading list of HDF5 filenames from: /home/purduethu/scratch/radon/d/deng106/CNNStatisticalModel/distributions/input/5_distributions_900_sample_size_train-distributions-path.txt
I0501 16:41:27.274049 13596 hdf5_data_layer.cpp:93] Number of HDF5 files: 1
I0501 16:41:27.409740 13596 hdf5.cpp:35] Datatype class: H5T_INTEGER
I0501 16:41:27.410158 13596 net.cpp:144] Setting up parameters
I0501 16:41:27.410171 13596 net.cpp:151] Top shape: 20 1 30 30 (18000)
I0501 16:41:27.410176 13596 net.cpp:151] Top shape: 20 (20)
I0501 16:41:27.410179 13596 net.cpp:159] Memory required for data: 72080
I0501 16:41:27.410185 13596 layer_factory.hpp:77] Creating layer conv1
I0501 16:41:27.410202 13596 net.cpp:94] Creating Layer conv1
I0501 16:41:27.410205 13596 net.cpp:435] conv1 <- data
I0501 16:41:27.410212 13596 net.cpp:409] conv1 -> conv1
I0501 16:41:27.413640 13596 net.cpp:144] Setting up conv1
I0501 16:41:27.413655 13596 net.cpp:151] Top shape: 20 64 30 30 (1152000)
I0501 16:41:27.413660 13596 net.cpp:159] Memory required for data: 4680080
I0501 16:41:27.413669 13596 layer_factory.hpp:77] Creating layer relu1
I0501 16:41:27.413677 13596 net.cpp:94] Creating Layer relu1
I0501 16:41:27.413681 13596 net.cpp:435] relu1 <- conv1
I0501 16:41:27.413686 13596 net.cpp:396] relu1 -> conv1 (in-place)
I0501 16:41:27.413692 13596 net.cpp:144] Setting up relu1
I0501 16:41:27.413697 13596 net.cpp:151] Top shape: 20 64 30 30 (1152000)
I0501 16:41:27.413699 13596 net.cpp:159] Memory required for data: 9288080
I0501 16:41:27.413702 13596 layer_factory.hpp:77] Creating layer conv2
I0501 16:41:27.413710 13596 net.cpp:94] Creating Layer conv2
I0501 16:41:27.413713 13596 net.cpp:435] conv2 <- conv1
I0501 16:41:27.413718 13596 net.cpp:409] conv2 -> conv2
I0501 16:41:27.428345 13596 net.cpp:144] Setting up conv2
I0501 16:41:27.428360 13596 net.cpp:151] Top shape: 20 64 30 30 (1152000)
I0501 16:41:27.428364 13596 net.cpp:159] Memory required for data: 13896080
I0501 16:41:27.428372 13596 layer_factory.hpp:77] Creating layer relu2
I0501 16:41:27.428380 13596 net.cpp:94] Creating Layer relu2
I0501 16:41:27.428382 13596 net.cpp:435] relu2 <- conv2
I0501 16:41:27.428387 13596 net.cpp:396] relu2 -> conv2 (in-place)
I0501 16:41:27.428393 13596 net.cpp:144] Setting up relu2
I0501 16:41:27.428398 13596 net.cpp:151] Top shape: 20 64 30 30 (1152000)
I0501 16:41:27.428400 13596 net.cpp:159] Memory required for data: 18504080
I0501 16:41:27.428403 13596 layer_factory.hpp:77] Creating layer pool2
I0501 16:41:27.428409 13596 net.cpp:94] Creating Layer pool2
I0501 16:41:27.428412 13596 net.cpp:435] pool2 <- conv2
I0501 16:41:27.428416 13596 net.cpp:409] pool2 -> pool2
I0501 16:41:27.428467 13596 net.cpp:144] Setting up pool2
I0501 16:41:27.428473 13596 net.cpp:151] Top shape: 20 64 15 15 (288000)
I0501 16:41:27.428477 13596 net.cpp:159] Memory required for data: 19656080
I0501 16:41:27.428479 13596 layer_factory.hpp:77] Creating layer conv3
I0501 16:41:27.428488 13596 net.cpp:94] Creating Layer conv3
I0501 16:41:27.428490 13596 net.cpp:435] conv3 <- pool2
I0501 16:41:27.428503 13596 net.cpp:409] conv3 -> conv3
I0501 16:41:27.436839 13596 net.cpp:144] Setting up conv3
I0501 16:41:27.436854 13596 net.cpp:151] Top shape: 20 64 15 15 (288000)
I0501 16:41:27.436858 13596 net.cpp:159] Memory required for data: 20808080
I0501 16:41:27.436866 13596 layer_factory.hpp:77] Creating layer relu3
I0501 16:41:27.436872 13596 net.cpp:94] Creating Layer relu3
I0501 16:41:27.436875 13596 net.cpp:435] relu3 <- conv3
I0501 16:41:27.436879 13596 net.cpp:396] relu3 -> conv3 (in-place)
I0501 16:41:27.436887 13596 net.cpp:144] Setting up relu3
I0501 16:41:27.436892 13596 net.cpp:151] Top shape: 20 64 15 15 (288000)
I0501 16:41:27.436893 13596 net.cpp:159] Memory required for data: 21960080
I0501 16:41:27.436897 13596 layer_factory.hpp:77] Creating layer conv4
I0501 16:41:27.436905 13596 net.cpp:94] Creating Layer conv4
I0501 16:41:27.436909 13596 net.cpp:435] conv4 <- conv3
I0501 16:41:27.436913 13596 net.cpp:409] conv4 -> conv4
I0501 16:41:27.444236 13596 net.cpp:144] Setting up conv4
I0501 16:41:27.444252 13596 net.cpp:151] Top shape: 20 64 15 15 (288000)
I0501 16:41:27.444255 13596 net.cpp:159] Memory required for data: 23112080
I0501 16:41:27.444262 13596 layer_factory.hpp:77] Creating layer relu4
I0501 16:41:27.444267 13596 net.cpp:94] Creating Layer relu4
I0501 16:41:27.444272 13596 net.cpp:435] relu4 <- conv4
I0501 16:41:27.444275 13596 net.cpp:396] relu4 -> conv4 (in-place)
I0501 16:41:27.444283 13596 net.cpp:144] Setting up relu4
I0501 16:41:27.444286 13596 net.cpp:151] Top shape: 20 64 15 15 (288000)
I0501 16:41:27.444289 13596 net.cpp:159] Memory required for data: 24264080
I0501 16:41:27.444293 13596 layer_factory.hpp:77] Creating layer conv5
I0501 16:41:27.444300 13596 net.cpp:94] Creating Layer conv5
I0501 16:41:27.444304 13596 net.cpp:435] conv5 <- conv4
I0501 16:41:27.444308 13596 net.cpp:409] conv5 -> conv5
I0501 16:41:27.452462 13596 net.cpp:144] Setting up conv5
I0501 16:41:27.452477 13596 net.cpp:151] Top shape: 20 64 15 15 (288000)
I0501 16:41:27.452481 13596 net.cpp:159] Memory required for data: 25416080
I0501 16:41:27.452489 13596 layer_factory.hpp:77] Creating layer relu5
I0501 16:41:27.452495 13596 net.cpp:94] Creating Layer relu5
I0501 16:41:27.452498 13596 net.cpp:435] relu5 <- conv5
I0501 16:41:27.452503 13596 net.cpp:396] relu5 -> conv5 (in-place)
I0501 16:41:27.452510 13596 net.cpp:144] Setting up relu5
I0501 16:41:27.452514 13596 net.cpp:151] Top shape: 20 64 15 15 (288000)
I0501 16:41:27.452517 13596 net.cpp:159] Memory required for data: 26568080
I0501 16:41:27.452520 13596 layer_factory.hpp:77] Creating layer pool5
I0501 16:41:27.452524 13596 net.cpp:94] Creating Layer pool5
I0501 16:41:27.452528 13596 net.cpp:435] pool5 <- conv5
I0501 16:41:27.452533 13596 net.cpp:409] pool5 -> pool5
I0501 16:41:27.452579 13596 net.cpp:144] Setting up pool5
I0501 16:41:27.452586 13596 net.cpp:151] Top shape: 20 64 7 7 (62720)
I0501 16:41:27.452589 13596 net.cpp:159] Memory required for data: 26818960
I0501 16:41:27.452592 13596 layer_factory.hpp:77] Creating layer ip1
I0501 16:41:27.452600 13596 net.cpp:94] Creating Layer ip1
I0501 16:41:27.452603 13596 net.cpp:435] ip1 <- pool5
I0501 16:41:27.452608 13596 net.cpp:409] ip1 -> ip1
I0501 16:41:27.457387 13596 net.cpp:144] Setting up ip1
I0501 16:41:27.457396 13596 net.cpp:151] Top shape: 20 64 (1280)
I0501 16:41:27.457399 13596 net.cpp:159] Memory required for data: 26824080
I0501 16:41:27.457404 13596 layer_factory.hpp:77] Creating layer ip2
I0501 16:41:27.457411 13596 net.cpp:94] Creating Layer ip2
I0501 16:41:27.457413 13596 net.cpp:435] ip2 <- ip1
I0501 16:41:27.457417 13596 net.cpp:409] ip2 -> ip2
I0501 16:41:27.457638 13596 net.cpp:144] Setting up ip2
I0501 16:41:27.457644 13596 net.cpp:151] Top shape: 20 64 (1280)
I0501 16:41:27.457648 13596 net.cpp:159] Memory required for data: 26829200
I0501 16:41:27.457653 13596 layer_factory.hpp:77] Creating layer ip3
I0501 16:41:27.457664 13596 net.cpp:94] Creating Layer ip3
I0501 16:41:27.457666 13596 net.cpp:435] ip3 <- ip2
I0501 16:41:27.457671 13596 net.cpp:409] ip3 -> ip3
I0501 16:41:27.457866 13596 net.cpp:144] Setting up ip3
I0501 16:41:27.457875 13596 net.cpp:151] Top shape: 20 50 (1000)
I0501 16:41:27.457877 13596 net.cpp:159] Memory required for data: 26833200
I0501 16:41:27.457882 13596 layer_factory.hpp:77] Creating layer loss
I0501 16:41:27.457890 13596 net.cpp:94] Creating Layer loss
I0501 16:41:27.457892 13596 net.cpp:435] loss <- ip3
I0501 16:41:27.457895 13596 net.cpp:435] loss <- label
I0501 16:41:27.457900 13596 net.cpp:409] loss -> loss
I0501 16:41:27.457906 13596 layer_factory.hpp:77] Creating layer loss
…
I0501 16:41:27.458417 13596 solver.cpp:181] Creating test net (#0) specified by net file: ./protocol/dis_5_900_dimension.protocol_distribution
I0501 16:41:27.458443 13596 net.cpp:323] The NetState phase (1) differed from the phase (0) specified by a rule in layer parameters
I0501 16:41:27.458540 13596 net.cpp:52] Initializing net from parameters: 
state {
  phase: TEST
}
layer {
  name: "intercept"
  type: "HDF5Data"
  top: "data"
  top: "label"
  include {
    phase: TEST
  }
  hdf5_data_param {
    source: "/home/purduethu/scratch/radon/d/deng106/CNNStatisticalModel/distributions/input/5_distributions_900_sample_size_test-distributions-path.txt"
    batch_size: 20
  }
}
layer {
  name: "conv1"
  type: "Convolution"
  bottom: "data"
  top: "conv1"
  param {
    lr_mult: 1
  }
  param {
    lr_mult: 2
  }
  convolution_param {
    num_output: 64
    pad: 2
    kernel_size: 5
    stride: 1
    weight_filler {
      type: "gaussian"
      std: 0.0001
    }
    bias_filler {
      type: "constant"
    }
  }
}
layer {
  name: "relu1"
  type: "ReLU"
  bottom: "conv1"
  top: "conv1"
}
layer {
  name: "conv2"
  type: "Convolution"
  bottom: "conv1"
  top: "conv2"
  param {
    lr_mult: 1
  }
  param {
    lr_mult: 2
  }
  convolution_param {
    num_output: 64
    pad: 2
    kernel_size: 5
    stride: 1
    weight_filler {
      type: "gaussian"
      std: 0.01
    }
    bias_filler {
      type: "constant"
    }
  }
}
layer {
  name: "relu2"
  type: "ReLU"
  bottom: "conv2"
  top: "conv2"
}
layer {
  name: "pool2"
  type: "Pooling"
  bottom: "conv2"
  top: "pool2"
  pooling_param {
    pool: MAX
    kernel_size: 3
    stride: 2
  }
}
layer {
  name: "conv3"
  type: "Convolution"
  bottom: "pool2"
  top: "conv3"
  param {
    lr_mult: 1
  }
  param {
    lr_mult: 2
  }
  convolution_param {
    num_output: 64
    pad: 2
    kernel_size: 5
    stride: 1
    weight_filler {
      type: "gaussian"
      std: 0.01
    }
    bias_filler {
      type: "constant"
    }
  }
}
layer {
  name: "relu3"
  type: "ReLU"
  bottom: "conv3"
  top: "conv3"
}
layer {
  name: "conv4"
  type: "Convolution"
  bottom: "conv3"
  top: "conv4"
  param {
    lr_mult: 1
  }
  param {
    lr_mult: 2
  }
  convolution_param {
    num_output: 64
    pad: 2
    kernel_size: 5
    stride: 1
    weight_filler {
      type: "gaussian"
      std: 0.01
    }
    bias_filler {
      type: "constant"
    }
  }
}
layer {
  name: "relu4"
  type: "ReLU"
  bottom: "conv4"
  top: "conv4"
}
layer {
  name: "conv5"
  type: "Convolution"
  bottom: "conv4"
  top: "conv5"
  param {
    lr_mult: 1
  }
  param {
    lr_mult: 2
  }
  convolution_param {
    num_output: 64
    pad: 2
    kernel_size: 5
    stride: 1
    weight_filler {
      type: "gaussian"
      std: 0.01
    }
    bias_filler {
      type: "constant"
    }
  }
}
layer {
  name: "relu5"
  type: "ReLU"
  bottom: "conv5"
  top: "conv5"
}
layer {
  name: "pool5"
  type: "Pooling"
  bottom: "conv5"
  top: "pool5"
  pooling_param {
    pool: AVE
    kernel_size: 3
    stride: 2
  }
}
layer {
  name: "ip1"
  type: "InnerProduct"
  bottom: "pool5"
  top: "ip1"
  param {
    lr_mult: 1
  }
  param {
    lr_mult: 2
  }
  inner_product_param {
    num_output: 64
    weight_filler {
      type: "gaussian"
      std: 0.1
    }
    bias_filler {
      type: "constant"
    }
  }
}
layer {
  name: "ip2"
  type: "InnerProduct"
  bottom: "ip1"
  top: "ip2"
  param {
    lr_mult: 1
  }
  param {
    lr_mult: 2
  }
  inner_product_param {
    num_output: 64
    weight_filler {
      type: "gaussian"
      std: 0.1
    }
    bias_filler {
      type: "constant"
    }
  }
}
layer {
  name: "ip3"
  type: "InnerProduct"
  bottom: "ip2"
  top: "ip3"
  param {
    lr_mult: 1
  }
  param {
    lr_mult: 2
  }
  inner_product_param {
    num_output: 50
    weight_filler {
      type: "gaussian"
      std: 0.1
    }
    bias_filler {
      type: "constant"
    }
  }
}
layer {
  name: "accuracy"
  type: "Accuracy"
  bottom: "ip3"
  bottom: "label"
  top: "accuracy"
  include {
    phase: TEST
  }
}
layer {
  name: "loss"
  type: "SoftmaxWithLoss"
  bottom: "ip3"
  bottom: "label"
  top: "loss"
}
I0501 16:41:27.458606 13596 layer_factory.hpp:77] Creating layer intercept
I0501 16:41:27.458614 13596 net.cpp:94] Creating Layer intercept
I0501 16:41:27.458618 13596 net.cpp:409] intercept -> data
I0501 16:41:27.458624 13596 net.cpp:409] intercept -> label
I0501 16:41:27.458629 13596 hdf5_data_layer.cpp:79] Loading list of HDF5 filenames from: /home/purduethu/scratch/radon/d/deng106/CNNStatisticalModel/distributions/input/5_distributions_900_sample_size_test-distributions-path.txt
I0501 16:41:27.458648 13596 hdf5_data_layer.cpp:93] Number of HDF5 files: 1
I0501 16:41:27.495420 13596 net.cpp:144] Setting up intercept
I0501 16:41:27.495453 13596 net.cpp:151] Top shape: 20 1 30 30 (18000)
I0501 16:41:27.495458 13596 net.cpp:151] Top shape: 20 (20)
I0501 16:41:27.495461 13596 net.cpp:159] Memory required for data: 72080
I0501 16:41:27.495467 13596 layer_factory.hpp:77] Creating layer label_intercept_1_split
I0501 16:41:27.495486 13596 net.cpp:94] Creating Layer label_intercept_1_split
I0501 16:41:27.495489 13596 net.cpp:435] label_intercept_1_split <- label
I0501 16:41:27.495494 13596 net.cpp:409] label_intercept_1_split -> label_intercept_1_split_0
I0501 16:41:27.495503 13596 net.cpp:409] label_intercept_1_split -> label_intercept_1_split_1
I0501 16:41:27.495543 13596 net.cpp:144] Setting up label_intercept_1_split
I0501 16:41:27.495549 13596 net.cpp:151] Top shape: 20 (20)
I0501 16:41:27.495553 13596 net.cpp:151] Top shape: 20 (20)
I0501 16:41:27.495555 13596 net.cpp:159] Memory required for data: 72240
I0501 16:41:27.495558 13596 layer_factory.hpp:77] Creating layer conv1
I0501 16:41:27.495569 13596 net.cpp:94] Creating Layer conv1
I0501 16:41:27.495573 13596 net.cpp:435] conv1 <- data
I0501 16:41:27.495578 13596 net.cpp:409] conv1 -> conv1
I0501 16:41:27.497025 13596 net.cpp:144] Setting up conv1
I0501 16:41:27.497046 13596 net.cpp:151] Top shape: 20 64 30 30 (1152000)
I0501 16:41:27.497051 13596 net.cpp:159] Memory required for data: 4680240
I0501 16:41:27.497061 13596 layer_factory.hpp:77] Creating layer relu1
I0501 16:41:27.497067 13596 net.cpp:94] Creating Layer relu1
I0501 16:41:27.497071 13596 net.cpp:435] relu1 <- conv1
I0501 16:41:27.497076 13596 net.cpp:396] relu1 -> conv1 (in-place)
I0501 16:41:27.497082 13596 net.cpp:144] Setting up relu1
I0501 16:41:27.497087 13596 net.cpp:151] Top shape: 20 64 30 30 (1152000)
I0501 16:41:27.497089 13596 net.cpp:159] Memory required for data: 9288240
I0501 16:41:27.497092 13596 layer_factory.hpp:77] Creating layer conv2
I0501 16:41:27.497102 13596 net.cpp:94] Creating Layer conv2
I0501 16:41:27.497104 13596 net.cpp:435] conv2 <- conv1
I0501 16:41:27.497109 13596 net.cpp:409] conv2 -> conv2
I0501 16:41:27.503419 13596 net.cpp:144] Setting up conv2
I0501 16:41:27.503434 13596 net.cpp:151] Top shape: 20 64 30 30 (1152000)
I0501 16:41:27.503437 13596 net.cpp:159] Memory required for data: 13896240
I0501 16:41:27.503445 13596 layer_factory.hpp:77] Creating layer relu2
I0501 16:41:27.503451 13596 net.cpp:94] Creating Layer relu2
I0501 16:41:27.503455 13596 net.cpp:435] relu2 <- conv2
I0501 16:41:27.503459 13596 net.cpp:396] relu2 -> conv2 (in-place)
I0501 16:41:27.503466 13596 net.cpp:144] Setting up relu2
I0501 16:41:27.503470 13596 net.cpp:151] Top shape: 20 64 30 30 (1152000)
I0501 16:41:27.503473 13596 net.cpp:159] Memory required for data: 18504240
I0501 16:41:27.503476 13596 layer_factory.hpp:77] Creating layer pool2
I0501 16:41:27.503481 13596 net.cpp:94] Creating Layer pool2
I0501 16:41:27.503485 13596 net.cpp:435] pool2 <- conv2
I0501 16:41:27.503489 13596 net.cpp:409] pool2 -> pool2
I0501 16:41:27.503540 13596 net.cpp:144] Setting up pool2
I0501 16:41:27.503546 13596 net.cpp:151] Top shape: 20 64 15 15 (288000)
I0501 16:41:27.503549 13596 net.cpp:159] Memory required for data: 19656240
I0501 16:41:27.503552 13596 layer_factory.hpp:77] Creating layer conv3
I0501 16:41:27.503561 13596 net.cpp:94] Creating Layer conv3
I0501 16:41:27.503563 13596 net.cpp:435] conv3 <- pool2
I0501 16:41:27.503568 13596 net.cpp:409] conv3 -> conv3
I0501 16:41:27.508533 13596 net.cpp:144] Setting up conv3
I0501 16:41:27.508548 13596 net.cpp:151] Top shape: 20 64 15 15 (288000)
I0501 16:41:27.508558 13596 net.cpp:159] Memory required for data: 20808240
I0501 16:41:27.508569 13596 layer_factory.hpp:77] Creating layer relu3
I0501 16:41:27.508575 13596 net.cpp:94] Creating Layer relu3
I0501 16:41:27.508579 13596 net.cpp:435] relu3 <- conv3
I0501 16:41:27.508584 13596 net.cpp:396] relu3 -> conv3 (in-place)
I0501 16:41:27.508589 13596 net.cpp:144] Setting up relu3
I0501 16:41:27.508594 13596 net.cpp:151] Top shape: 20 64 15 15 (288000)
I0501 16:41:27.508597 13596 net.cpp:159] Memory required for data: 21960240
I0501 16:41:27.508599 13596 layer_factory.hpp:77] Creating layer conv4
I0501 16:41:27.508607 13596 net.cpp:94] Creating Layer conv4
I0501 16:41:27.508610 13596 net.cpp:435] conv4 <- conv3
I0501 16:41:27.508615 13596 net.cpp:409] conv4 -> conv4
I0501 16:41:27.514022 13596 net.cpp:144] Setting up conv4
I0501 16:41:27.514037 13596 net.cpp:151] Top shape: 20 64 15 15 (288000)
I0501 16:41:27.514041 13596 net.cpp:159] Memory required for data: 23112240
I0501 16:41:27.514047 13596 layer_factory.hpp:77] Creating layer relu4
I0501 16:41:27.514053 13596 net.cpp:94] Creating Layer relu4
I0501 16:41:27.514057 13596 net.cpp:435] relu4 <- conv4
I0501 16:41:27.514062 13596 net.cpp:396] relu4 -> conv4 (in-place)
I0501 16:41:27.514070 13596 net.cpp:144] Setting up relu4
I0501 16:41:27.514073 13596 net.cpp:151] Top shape: 20 64 15 15 (288000)
I0501 16:41:27.514076 13596 net.cpp:159] Memory required for data: 24264240
I0501 16:41:27.514080 13596 layer_factory.hpp:77] Creating layer conv5
I0501 16:41:27.514086 13596 net.cpp:94] Creating Layer conv5
I0501 16:41:27.514089 13596 net.cpp:435] conv5 <- conv4
I0501 16:41:27.514094 13596 net.cpp:409] conv5 -> conv5
I0501 16:41:27.518623 13596 net.cpp:144] Setting up conv5
I0501 16:41:27.518642 13596 net.cpp:151] Top shape: 20 64 15 15 (288000)
I0501 16:41:27.518646 13596 net.cpp:159] Memory required for data: 25416240
I0501 16:41:27.518656 13596 layer_factory.hpp:77] Creating layer relu5
I0501 16:41:27.518661 13596 net.cpp:94] Creating Layer relu5
I0501 16:41:27.518664 13596 net.cpp:435] relu5 <- conv5
I0501 16:41:27.518669 13596 net.cpp:396] relu5 -> conv5 (in-place)
I0501 16:41:27.518676 13596 net.cpp:144] Setting up relu5
I0501 16:41:27.518681 13596 net.cpp:151] Top shape: 20 64 15 15 (288000)
I0501 16:41:27.518683 13596 net.cpp:159] Memory required for data: 26568240
I0501 16:41:27.518687 13596 layer_factory.hpp:77] Creating layer pool5
I0501 16:41:27.518692 13596 net.cpp:94] Creating Layer pool5
I0501 16:41:27.518694 13596 net.cpp:435] pool5 <- conv5
I0501 16:41:27.518698 13596 net.cpp:409] pool5 -> pool5
I0501 16:41:27.518734 13596 net.cpp:144] Setting up pool5
I0501 16:41:27.518741 13596 net.cpp:151] Top shape: 20 64 7 7 (62720)
I0501 16:41:27.518744 13596 net.cpp:159] Memory required for data: 26819120
I0501 16:41:27.518748 13596 layer_factory.hpp:77] Creating layer ip1
I0501 16:41:27.518754 13596 net.cpp:94] Creating Layer ip1
I0501 16:41:27.518757 13596 net.cpp:435] ip1 <- pool5
I0501 16:41:27.518762 13596 net.cpp:409] ip1 -> ip1
I0501 16:41:27.523625 13596 net.cpp:144] Setting up ip1
I0501 16:41:27.523635 13596 net.cpp:151] Top shape: 20 64 (1280)
I0501 16:41:27.523638 13596 net.cpp:159] Memory required for data: 26824240
I0501 16:41:27.523643 13596 layer_factory.hpp:77] Creating layer ip2
I0501 16:41:27.523649 13596 net.cpp:94] Creating Layer ip2
I0501 16:41:27.523653 13596 net.cpp:435] ip2 <- ip1
I0501 16:41:27.523658 13596 net.cpp:409] ip2 -> ip2
I0501 16:41:27.523877 13596 net.cpp:144] Setting up ip2
I0501 16:41:27.523885 13596 net.cpp:151] Top shape: 20 64 (1280)
I0501 16:41:27.523887 13596 net.cpp:159] Memory required for data: 26829360
I0501 16:41:27.523892 13596 layer_factory.hpp:77] Creating layer ip3
I0501 16:41:27.523900 13596 net.cpp:94] Creating Layer ip3
I0501 16:41:27.523902 13596 net.cpp:435] ip3 <- ip2
I0501 16:41:27.523906 13596 net.cpp:409] ip3 -> ip3
I0501 16:41:27.524094 13596 net.cpp:144] Setting up ip3
I0501 16:41:27.524101 13596 net.cpp:151] Top shape: 20 50 (1000)
I0501 16:41:27.524104 13596 net.cpp:159] Memory required for data: 26833360
I0501 16:41:27.524109 13596 layer_factory.hpp:77] Creating layer ip3_ip3_0_split
I0501 16:41:27.524114 13596 net.cpp:94] Creating Layer ip3_ip3_0_split
I0501 16:41:27.524117 13596 net.cpp:435] ip3_ip3_0_split <- ip3
I0501 16:41:27.524121 13596 net.cpp:409] ip3_ip3_0_split -> ip3_ip3_0_split_0
I0501 16:41:27.524127 13596 net.cpp:409] ip3_ip3_0_split -> ip3_ip3_0_split_1
I0501 16:41:27.524164 13596 net.cpp:144] Setting up ip3_ip3_0_split
I0501 16:41:27.524170 13596 net.cpp:151] Top shape: 20 50 (1000)
I0501 16:41:27.524173 13596 net.cpp:151] Top shape: 20 50 (1000)
I0501 16:41:27.524176 13596 net.cpp:159] Memory required for data: 26841360
I0501 16:41:27.524179 13596 layer_factory.hpp:77] Creating layer accuracy
I0501 16:41:27.524184 13596 net.cpp:94] Creating Layer accuracy
I0501 16:41:27.524188 13596 net.cpp:435] accuracy <- ip3_ip3_0_split_0
I0501 16:41:27.524191 13596 net.cpp:435] accuracy <- label_intercept_1_split_0
I0501 16:41:27.524195 13596 net.cpp:409] accuracy -> accuracy
…
