…
I0507 11:25:50.897816  1264 net.cpp:323] The NetState phase (0) differed from the phase (1) specified by a rule in layer intercept
I0507 11:25:50.897832  1264 net.cpp:323] The NetState phase (0) differed from the phase (1) specified by a rule in layer loss
I0507 11:25:50.897912  1264 net.cpp:52] Initializing net from parameters: 
state {
  phase: TRAIN
}
layer {
  name: "parameters"
  type: "HDF5Data"
  top: "data"
  top: "label"
  include {
    phase: TRAIN
  }
  hdf5_data_param {
    source: "/home/purduethu/scratch/radon/d/deng106/CNNStatisticalModel/distributions/input/50_distributions_100_sample_size_train-parameters-path.txt"
    batch_size: 20
  }
}
layer {
  name: "conv1"
  type: "Convolution"
  bottom: "data"
  top: "conv1"
  param {
    lr_mult: 1
  }
  param {
    lr_mult: 2
  }
  convolution_param {
    num_output: 64
    pad: 2
    kernel_size: 5
    stride: 1
    weight_filler {
      type: "gaussian"
      std: 0.0001
    }
    bias_filler {
      type: "constant"
    }
  }
}
layer {
  name: "relu1"
  type: "ReLU"
  bottom: "conv1"
  top: "conv1"
}
layer {
  name: "conv2"
  type: "Convolution"
  bottom: "conv1"
  top: "conv2"
  param {
    lr_mult: 1
  }
  param {
    lr_mult: 2
  }
  convolution_param {
    num_output: 64
    pad: 2
    kernel_size: 5
    stride: 1
    weight_filler {
      type: "gaussian"
      std: 0.01
    }
    bias_filler {
      type: "constant"
    }
  }
}
layer {
  name: "relu2"
  type: "ReLU"
  bottom: "conv2"
  top: "conv2"
}
layer {
  name: "pool2"
  type: "Pooling"
  bottom: "conv2"
  top: "pool2"
  pooling_param {
    pool: MAX
    kernel_size: 3
    stride: 2
  }
}
layer {
  name: "conv3"
  type: "Convolution"
  bottom: "pool2"
  top: "conv3"
  param {
    lr_mult: 1
  }
  param {
    lr_mult: 2
  }
  convolution_param {
    num_output: 64
    pad: 2
    kernel_size: 5
    stride: 1
    weight_filler {
      type: "gaussian"
      std: 0.01
    }
    bias_filler {
      type: "constant"
    }
  }
}
layer {
  name: "relu3"
  type: "ReLU"
  bottom: "conv3"
  top: "conv3"
}
layer {
  name: "conv4"
  type: "Convolution"
  bottom: "conv3"
  top: "conv4"
  param {
    lr_mult: 1
  }
  param {
    lr_mult: 2
  }
  convolution_param {
    num_output: 64
    pad: 2
    kernel_size: 5
    stride: 1
    weight_filler {
      type: "gaussian"
      std: 0.01
    }
    bias_filler {
      type: "constant"
    }
  }
}
layer {
  name: "relu4"
  type: "ReLU"
  bottom: "conv4"
  top: "conv4"
}
layer {
  name: "conv5"
  type: "Convolution"
  bottom: "conv4"
  top: "conv5"
  param {
    lr_mult: 1
  }
  param {
    lr_mult: 2
  }
  convolution_param {
    num_output: 64
    pad: 2
    kernel_size: 5
    stride: 1
    weight_filler {
      type: "gaussian"
      std: 0.01
    }
    bias_filler {
      type: "constant"
    }
  }
}
layer {
  name: "relu5"
  type: "ReLU"
  bottom: "conv5"
  top: "conv5"
}
layer {
  name: "pool5"
  type: "Pooling"
  bottom: "conv5"
  top: "pool5"
  pooling_param {
    pool: AVE
    kernel_size: 3
    stride: 2
  }
}
layer {
  name: "ip1"
  type: "InnerProduct"
  bottom: "pool5"
  top: "ip1"
  param {
    lr_mult: 1
  }
  param {
    lr_mult: 2
  }
  inner_product_param {
    num_output: 64
    weight_filler {
      type: "gaussian"
      std: 0.1
    }
    bias_filler {
      type: "constant"
    }
  }
}
layer {
  name: "ip2"
  type: "InnerProduct"
  bottom: "ip1"
  top: "ip2"
  param {
    lr_mult: 1
  }
  param {
    lr_mult: 2
  }
  inner_product_param {
    num_output: 64
    weight_filler {
      type: "gaussian"
      std: 0.1
    }
    bias_filler {
      type: "constant"
    }
  }
}
layer {
  name: "ip3"
  type: "InnerProduct"
  bottom: "ip2"
  top: "ip3"
  param {
    lr_mult: 1
  }
  param {
    lr_mult: 2
  }
  inner_product_param {
    num_output: 1
    weight_filler {
      type: "gaussian"
      std: 0.1
    }
    bias_filler {
      type: "constant"
    }
  }
}
layer {
  name: "loss"
  type: "HuberLoss"
  bottom: "ip3"
  bottom: "label"
  top: "loss"
  include {
    phase: TRAIN
  }
}
I0507 11:25:50.897964  1264 layer_factory.hpp:77] Creating layer parameters
I0507 11:25:50.897976  1264 net.cpp:94] Creating Layer parameters
I0507 11:25:50.897980  1264 net.cpp:409] parameters -> data
I0507 11:25:50.897989  1264 net.cpp:409] parameters -> label
I0507 11:25:50.897996  1264 hdf5_data_layer.cpp:79] Loading list of HDF5 filenames from: /home/purduethu/scratch/radon/d/deng106/CNNStatisticalModel/distributions/input/50_distributions_100_sample_size_train-parameters-path.txt
I0507 11:25:50.898011  1264 hdf5_data_layer.cpp:93] Number of HDF5 files: 1
I0507 11:25:50.898526  1264 hdf5.cpp:32] Datatype class: H5T_FLOAT
I0507 11:25:51.060251  1264 net.cpp:144] Setting up parameters
I0507 11:25:51.060283  1264 net.cpp:151] Top shape: 20 1 10 10 (2000)
I0507 11:25:51.060288  1264 net.cpp:151] Top shape: 20 (20)
I0507 11:25:51.060292  1264 net.cpp:159] Memory required for data: 8080
I0507 11:25:51.060297  1264 layer_factory.hpp:77] Creating layer conv1
I0507 11:25:51.060318  1264 net.cpp:94] Creating Layer conv1
I0507 11:25:51.060323  1264 net.cpp:435] conv1 <- data
I0507 11:25:51.060329  1264 net.cpp:409] conv1 -> conv1
I0507 11:25:51.064621  1264 net.cpp:144] Setting up conv1
I0507 11:25:51.064637  1264 net.cpp:151] Top shape: 20 64 10 10 (128000)
I0507 11:25:51.064641  1264 net.cpp:159] Memory required for data: 520080
I0507 11:25:51.064651  1264 layer_factory.hpp:77] Creating layer relu1
I0507 11:25:51.064658  1264 net.cpp:94] Creating Layer relu1
I0507 11:25:51.064662  1264 net.cpp:435] relu1 <- conv1
I0507 11:25:51.064666  1264 net.cpp:396] relu1 -> conv1 (in-place)
I0507 11:25:51.064680  1264 net.cpp:144] Setting up relu1
I0507 11:25:51.064685  1264 net.cpp:151] Top shape: 20 64 10 10 (128000)
I0507 11:25:51.064688  1264 net.cpp:159] Memory required for data: 1032080
I0507 11:25:51.064692  1264 layer_factory.hpp:77] Creating layer conv2
I0507 11:25:51.064698  1264 net.cpp:94] Creating Layer conv2
I0507 11:25:51.064702  1264 net.cpp:435] conv2 <- conv1
I0507 11:25:51.064707  1264 net.cpp:409] conv2 -> conv2
I0507 11:25:51.070844  1264 net.cpp:144] Setting up conv2
I0507 11:25:51.070858  1264 net.cpp:151] Top shape: 20 64 10 10 (128000)
I0507 11:25:51.070863  1264 net.cpp:159] Memory required for data: 1544080
I0507 11:25:51.070870  1264 layer_factory.hpp:77] Creating layer relu2
I0507 11:25:51.070876  1264 net.cpp:94] Creating Layer relu2
I0507 11:25:51.070880  1264 net.cpp:435] relu2 <- conv2
I0507 11:25:51.070884  1264 net.cpp:396] relu2 -> conv2 (in-place)
I0507 11:25:51.070891  1264 net.cpp:144] Setting up relu2
I0507 11:25:51.070895  1264 net.cpp:151] Top shape: 20 64 10 10 (128000)
I0507 11:25:51.070899  1264 net.cpp:159] Memory required for data: 2056080
I0507 11:25:51.070901  1264 layer_factory.hpp:77] Creating layer pool2
I0507 11:25:51.070912  1264 net.cpp:94] Creating Layer pool2
I0507 11:25:51.070916  1264 net.cpp:435] pool2 <- conv2
I0507 11:25:51.070920  1264 net.cpp:409] pool2 -> pool2
I0507 11:25:51.070977  1264 net.cpp:144] Setting up pool2
I0507 11:25:51.070986  1264 net.cpp:151] Top shape: 20 64 5 5 (32000)
I0507 11:25:51.070988  1264 net.cpp:159] Memory required for data: 2184080
I0507 11:25:51.070991  1264 layer_factory.hpp:77] Creating layer conv3
I0507 11:25:51.070999  1264 net.cpp:94] Creating Layer conv3
I0507 11:25:51.071003  1264 net.cpp:435] conv3 <- pool2
I0507 11:25:51.071007  1264 net.cpp:409] conv3 -> conv3
I0507 11:25:51.075939  1264 net.cpp:144] Setting up conv3
I0507 11:25:51.075953  1264 net.cpp:151] Top shape: 20 64 5 5 (32000)
I0507 11:25:51.075958  1264 net.cpp:159] Memory required for data: 2312080
I0507 11:25:51.075965  1264 layer_factory.hpp:77] Creating layer relu3
I0507 11:25:51.075970  1264 net.cpp:94] Creating Layer relu3
I0507 11:25:51.075974  1264 net.cpp:435] relu3 <- conv3
I0507 11:25:51.075978  1264 net.cpp:396] relu3 -> conv3 (in-place)
I0507 11:25:51.075985  1264 net.cpp:144] Setting up relu3
I0507 11:25:51.075989  1264 net.cpp:151] Top shape: 20 64 5 5 (32000)
I0507 11:25:51.075992  1264 net.cpp:159] Memory required for data: 2440080
I0507 11:25:51.075995  1264 layer_factory.hpp:77] Creating layer conv4
I0507 11:25:51.076004  1264 net.cpp:94] Creating Layer conv4
I0507 11:25:51.076007  1264 net.cpp:435] conv4 <- conv3
I0507 11:25:51.076011  1264 net.cpp:409] conv4 -> conv4
I0507 11:25:51.080472  1264 net.cpp:144] Setting up conv4
I0507 11:25:51.080487  1264 net.cpp:151] Top shape: 20 64 5 5 (32000)
I0507 11:25:51.080490  1264 net.cpp:159] Memory required for data: 2568080
I0507 11:25:51.080497  1264 layer_factory.hpp:77] Creating layer relu4
I0507 11:25:51.080502  1264 net.cpp:94] Creating Layer relu4
I0507 11:25:51.080505  1264 net.cpp:435] relu4 <- conv4
I0507 11:25:51.080510  1264 net.cpp:396] relu4 -> conv4 (in-place)
I0507 11:25:51.080516  1264 net.cpp:144] Setting up relu4
I0507 11:25:51.080520  1264 net.cpp:151] Top shape: 20 64 5 5 (32000)
I0507 11:25:51.080523  1264 net.cpp:159] Memory required for data: 2696080
I0507 11:25:51.080526  1264 layer_factory.hpp:77] Creating layer conv5
I0507 11:25:51.080533  1264 net.cpp:94] Creating Layer conv5
I0507 11:25:51.080538  1264 net.cpp:435] conv5 <- conv4
I0507 11:25:51.080543  1264 net.cpp:409] conv5 -> conv5
I0507 11:25:51.085464  1264 net.cpp:144] Setting up conv5
I0507 11:25:51.085477  1264 net.cpp:151] Top shape: 20 64 5 5 (32000)
I0507 11:25:51.085481  1264 net.cpp:159] Memory required for data: 2824080
I0507 11:25:51.085489  1264 layer_factory.hpp:77] Creating layer relu5
I0507 11:25:51.085495  1264 net.cpp:94] Creating Layer relu5
I0507 11:25:51.085499  1264 net.cpp:435] relu5 <- conv5
I0507 11:25:51.085502  1264 net.cpp:396] relu5 -> conv5 (in-place)
I0507 11:25:51.085510  1264 net.cpp:144] Setting up relu5
I0507 11:25:51.085513  1264 net.cpp:151] Top shape: 20 64 5 5 (32000)
I0507 11:25:51.085516  1264 net.cpp:159] Memory required for data: 2952080
I0507 11:25:51.085520  1264 layer_factory.hpp:77] Creating layer pool5
I0507 11:25:51.085525  1264 net.cpp:94] Creating Layer pool5
I0507 11:25:51.085526  1264 net.cpp:435] pool5 <- conv5
I0507 11:25:51.085531  1264 net.cpp:409] pool5 -> pool5
I0507 11:25:51.085572  1264 net.cpp:144] Setting up pool5
I0507 11:25:51.085578  1264 net.cpp:151] Top shape: 20 64 2 2 (5120)
I0507 11:25:51.085582  1264 net.cpp:159] Memory required for data: 2972560
I0507 11:25:51.085584  1264 layer_factory.hpp:77] Creating layer ip1
I0507 11:25:51.085594  1264 net.cpp:94] Creating Layer ip1
I0507 11:25:51.085597  1264 net.cpp:435] ip1 <- pool5
I0507 11:25:51.085602  1264 net.cpp:409] ip1 -> ip1
I0507 11:25:51.086920  1264 net.cpp:144] Setting up ip1
I0507 11:25:51.086932  1264 net.cpp:151] Top shape: 20 64 (1280)
I0507 11:25:51.086936  1264 net.cpp:159] Memory required for data: 2977680
I0507 11:25:51.086942  1264 layer_factory.hpp:77] Creating layer ip2
I0507 11:25:51.086949  1264 net.cpp:94] Creating Layer ip2
I0507 11:25:51.086956  1264 net.cpp:435] ip2 <- ip1
I0507 11:25:51.086962  1264 net.cpp:409] ip2 -> ip2
I0507 11:25:51.087177  1264 net.cpp:144] Setting up ip2
I0507 11:25:51.087184  1264 net.cpp:151] Top shape: 20 64 (1280)
I0507 11:25:51.087188  1264 net.cpp:159] Memory required for data: 2982800
I0507 11:25:51.087193  1264 layer_factory.hpp:77] Creating layer ip3
I0507 11:25:51.087198  1264 net.cpp:94] Creating Layer ip3
I0507 11:25:51.087201  1264 net.cpp:435] ip3 <- ip2
I0507 11:25:51.087206  1264 net.cpp:409] ip3 -> ip3
I0507 11:25:51.087311  1264 net.cpp:144] Setting up ip3
I0507 11:25:51.087318  1264 net.cpp:151] Top shape: 20 1 (20)
I0507 11:25:51.087321  1264 net.cpp:159] Memory required for data: 2982880
I0507 11:25:51.087327  1264 layer_factory.hpp:77] Creating layer loss
I0507 11:25:51.087333  1264 net.cpp:94] Creating Layer loss
I0507 11:25:51.087337  1264 net.cpp:435] loss <- ip3
I0507 11:25:51.087340  1264 net.cpp:435] loss <- label
I0507 11:25:51.087344  1264 net.cpp:409] loss -> loss
I0507 11:25:51.087394  1264 net.cpp:144] Setting up loss
…
I0507 11:25:51.148419  1264 net.cpp:323] The NetState phase (0) differed from the phase (1) specified by a rule in layer intercept
I0507 11:25:51.148434  1264 net.cpp:323] The NetState phase (0) differed from the phase (1) specified by a rule in layer accuracy
I0507 11:25:51.148517  1264 net.cpp:52] Initializing net from parameters: 
state {
  phase: TRAIN
}
layer {
  name: "parameters"
  type: "HDF5Data"
  top: "data"
  top: "label"
  include {
    phase: TRAIN
  }
  hdf5_data_param {
    source: "/home/purduethu/scratch/radon/d/deng106/CNNStatisticalModel/distributions/input/50_distributions_100_sample_size_train-distributions-path.txt"
    batch_size: 20
  }
}
layer {
  name: "conv1"
  type: "Convolution"
  bottom: "data"
  top: "conv1"
  param {
    lr_mult: 1
  }
  param {
    lr_mult: 2
  }
  convolution_param {
    num_output: 64
    pad: 2
    kernel_size: 5
    stride: 1
    weight_filler {
      type: "gaussian"
      std: 0.0001
    }
    bias_filler {
      type: "constant"
    }
  }
}
layer {
  name: "relu1"
  type: "ReLU"
  bottom: "conv1"
  top: "conv1"
}
layer {
  name: "conv2"
  type: "Convolution"
  bottom: "conv1"
  top: "conv2"
  param {
    lr_mult: 1
  }
  param {
    lr_mult: 2
  }
  convolution_param {
    num_output: 64
    pad: 2
    kernel_size: 5
    stride: 1
    weight_filler {
      type: "gaussian"
      std: 0.01
    }
    bias_filler {
      type: "constant"
    }
  }
}
layer {
  name: "relu2"
  type: "ReLU"
  bottom: "conv2"
  top: "conv2"
}
layer {
  name: "pool2"
  type: "Pooling"
  bottom: "conv2"
  top: "pool2"
  pooling_param {
    pool: MAX
    kernel_size: 3
    stride: 2
  }
}
layer {
  name: "conv3"
  type: "Convolution"
  bottom: "pool2"
  top: "conv3"
  param {
    lr_mult: 1
  }
  param {
    lr_mult: 2
  }
  convolution_param {
    num_output: 64
    pad: 2
    kernel_size: 5
    stride: 1
    weight_filler {
      type: "gaussian"
      std: 0.01
    }
    bias_filler {
      type: "constant"
    }
  }
}
layer {
  name: "relu3"
  type: "ReLU"
  bottom: "conv3"
  top: "conv3"
}
layer {
  name: "conv4"
  type: "Convolution"
  bottom: "conv3"
  top: "conv4"
  param {
    lr_mult: 1
  }
  param {
    lr_mult: 2
  }
  convolution_param {
    num_output: 64
    pad: 2
    kernel_size: 5
    stride: 1
    weight_filler {
      type: "gaussian"
      std: 0.01
    }
    bias_filler {
      type: "constant"
    }
  }
}
layer {
  name: "relu4"
  type: "ReLU"
  bottom: "conv4"
  top: "conv4"
}
layer {
  name: "conv5"
  type: "Convolution"
  bottom: "conv4"
  top: "conv5"
  param {
    lr_mult: 1
  }
  param {
    lr_mult: 2
  }
  convolution_param {
    num_output: 64
    pad: 2
    kernel_size: 5
    stride: 1
    weight_filler {
      type: "gaussian"
      std: 0.01
    }
    bias_filler {
      type: "constant"
    }
  }
}
layer {
  name: "relu5"
  type: "ReLU"
  bottom: "conv5"
  top: "conv5"
}
layer {
  name: "pool5"
  type: "Pooling"
  bottom: "conv5"
  top: "pool5"
  pooling_param {
    pool: AVE
    kernel_size: 3
    stride: 2
  }
}
layer {
  name: "ip1"
  type: "InnerProduct"
  bottom: "pool5"
  top: "ip1"
  param {
    lr_mult: 1
  }
  param {
    lr_mult: 2
  }
  inner_product_param {
    num_output: 64
    weight_filler {
      type: "gaussian"
      std: 0.1
    }
    bias_filler {
      type: "constant"
    }
  }
}
layer {
  name: "ip2"
  type: "InnerProduct"
  bottom: "ip1"
  top: "ip2"
  param {
    lr_mult: 1
  }
  param {
    lr_mult: 2
  }
  inner_product_param {
    num_output: 64
    weight_filler {
      type: "gaussian"
      std: 0.1
    }
    bias_filler {
      type: "constant"
    }
  }
}
layer {
  name: "ip3"
  type: "InnerProduct"
  bottom: "ip2"
  top: "ip3"
  param {
    lr_mult: 1
  }
  param {
    lr_mult: 2
  }
  inner_product_param {
    num_output: 50
    weight_filler {
      type: "gaussian"
      std: 0.1
    }
    bias_filler {
      type: "constant"
    }
  }
}
layer {
  name: "loss"
  type: "SoftmaxWithLoss"
  bottom: "ip3"
  bottom: "label"
  top: "loss"
}
I0507 11:25:51.148589  1264 layer_factory.hpp:77] Creating layer parameters
I0507 11:25:51.148600  1264 net.cpp:94] Creating Layer parameters
I0507 11:25:51.148603  1264 net.cpp:409] parameters -> data
I0507 11:25:51.148610  1264 net.cpp:409] parameters -> label
I0507 11:25:51.148617  1264 hdf5_data_layer.cpp:79] Loading list of HDF5 filenames from: /home/purduethu/scratch/radon/d/deng106/CNNStatisticalModel/distributions/input/50_distributions_100_sample_size_train-distributions-path.txt
I0507 11:25:51.148633  1264 hdf5_data_layer.cpp:93] Number of HDF5 files: 1
I0507 11:25:51.304960  1264 hdf5.cpp:35] Datatype class: H5T_INTEGER
I0507 11:25:51.307950  1264 net.cpp:144] Setting up parameters
I0507 11:25:51.307966  1264 net.cpp:151] Top shape: 20 1 10 10 (2000)
I0507 11:25:51.307971  1264 net.cpp:151] Top shape: 20 (20)
I0507 11:25:51.307974  1264 net.cpp:159] Memory required for data: 8080
I0507 11:25:51.307981  1264 layer_factory.hpp:77] Creating layer conv1
I0507 11:25:51.307996  1264 net.cpp:94] Creating Layer conv1
I0507 11:25:51.307999  1264 net.cpp:435] conv1 <- data
I0507 11:25:51.308006  1264 net.cpp:409] conv1 -> conv1
I0507 11:25:51.309881  1264 net.cpp:144] Setting up conv1
I0507 11:25:51.309896  1264 net.cpp:151] Top shape: 20 64 10 10 (128000)
I0507 11:25:51.309900  1264 net.cpp:159] Memory required for data: 520080
I0507 11:25:51.309909  1264 layer_factory.hpp:77] Creating layer relu1
I0507 11:25:51.309916  1264 net.cpp:94] Creating Layer relu1
I0507 11:25:51.309921  1264 net.cpp:435] relu1 <- conv1
I0507 11:25:51.309924  1264 net.cpp:396] relu1 -> conv1 (in-place)
I0507 11:25:51.309931  1264 net.cpp:144] Setting up relu1
I0507 11:25:51.309937  1264 net.cpp:151] Top shape: 20 64 10 10 (128000)
I0507 11:25:51.309939  1264 net.cpp:159] Memory required for data: 1032080
I0507 11:25:51.309942  1264 layer_factory.hpp:77] Creating layer conv2
I0507 11:25:51.309949  1264 net.cpp:94] Creating Layer conv2
I0507 11:25:51.309952  1264 net.cpp:435] conv2 <- conv1
I0507 11:25:51.309957  1264 net.cpp:409] conv2 -> conv2
I0507 11:25:51.315356  1264 net.cpp:144] Setting up conv2
I0507 11:25:51.315368  1264 net.cpp:151] Top shape: 20 64 10 10 (128000)
I0507 11:25:51.315373  1264 net.cpp:159] Memory required for data: 1544080
I0507 11:25:51.315381  1264 layer_factory.hpp:77] Creating layer relu2
I0507 11:25:51.315387  1264 net.cpp:94] Creating Layer relu2
I0507 11:25:51.315390  1264 net.cpp:435] relu2 <- conv2
I0507 11:25:51.315394  1264 net.cpp:396] relu2 -> conv2 (in-place)
I0507 11:25:51.315402  1264 net.cpp:144] Setting up relu2
I0507 11:25:51.315405  1264 net.cpp:151] Top shape: 20 64 10 10 (128000)
I0507 11:25:51.315408  1264 net.cpp:159] Memory required for data: 2056080
I0507 11:25:51.315412  1264 layer_factory.hpp:77] Creating layer pool2
I0507 11:25:51.315418  1264 net.cpp:94] Creating Layer pool2
I0507 11:25:51.315419  1264 net.cpp:435] pool2 <- conv2
I0507 11:25:51.315424  1264 net.cpp:409] pool2 -> pool2
I0507 11:25:51.315479  1264 net.cpp:144] Setting up pool2
I0507 11:25:51.315486  1264 net.cpp:151] Top shape: 20 64 5 5 (32000)
I0507 11:25:51.315490  1264 net.cpp:159] Memory required for data: 2184080
I0507 11:25:51.315492  1264 layer_factory.hpp:77] Creating layer conv3
I0507 11:25:51.315500  1264 net.cpp:94] Creating Layer conv3
I0507 11:25:51.315502  1264 net.cpp:435] conv3 <- pool2
I0507 11:25:51.315507  1264 net.cpp:409] conv3 -> conv3
I0507 11:25:51.321287  1264 net.cpp:144] Setting up conv3
I0507 11:25:51.321302  1264 net.cpp:151] Top shape: 20 64 5 5 (32000)
I0507 11:25:51.321306  1264 net.cpp:159] Memory required for data: 2312080
I0507 11:25:51.321315  1264 layer_factory.hpp:77] Creating layer relu3
I0507 11:25:51.321321  1264 net.cpp:94] Creating Layer relu3
I0507 11:25:51.321323  1264 net.cpp:435] relu3 <- conv3
I0507 11:25:51.321328  1264 net.cpp:396] relu3 -> conv3 (in-place)
I0507 11:25:51.321334  1264 net.cpp:144] Setting up relu3
I0507 11:25:51.321338  1264 net.cpp:151] Top shape: 20 64 5 5 (32000)
I0507 11:25:51.321341  1264 net.cpp:159] Memory required for data: 2440080
I0507 11:25:51.321344  1264 layer_factory.hpp:77] Creating layer conv4
I0507 11:25:51.321352  1264 net.cpp:94] Creating Layer conv4
I0507 11:25:51.321355  1264 net.cpp:435] conv4 <- conv3
I0507 11:25:51.321360  1264 net.cpp:409] conv4 -> conv4
I0507 11:25:51.326310  1264 net.cpp:144] Setting up conv4
I0507 11:25:51.326324  1264 net.cpp:151] Top shape: 20 64 5 5 (32000)
I0507 11:25:51.326328  1264 net.cpp:159] Memory required for data: 2568080
I0507 11:25:51.326334  1264 layer_factory.hpp:77] Creating layer relu4
I0507 11:25:51.326339  1264 net.cpp:94] Creating Layer relu4
I0507 11:25:51.326344  1264 net.cpp:435] relu4 <- conv4
I0507 11:25:51.326347  1264 net.cpp:396] relu4 -> conv4 (in-place)
I0507 11:25:51.326354  1264 net.cpp:144] Setting up relu4
I0507 11:25:51.326359  1264 net.cpp:151] Top shape: 20 64 5 5 (32000)
I0507 11:25:51.326361  1264 net.cpp:159] Memory required for data: 2696080
I0507 11:25:51.326364  1264 layer_factory.hpp:77] Creating layer conv5
I0507 11:25:51.326371  1264 net.cpp:94] Creating Layer conv5
I0507 11:25:51.326375  1264 net.cpp:435] conv5 <- conv4
I0507 11:25:51.326380  1264 net.cpp:409] conv5 -> conv5
I0507 11:25:51.330865  1264 net.cpp:144] Setting up conv5
I0507 11:25:51.330879  1264 net.cpp:151] Top shape: 20 64 5 5 (32000)
I0507 11:25:51.330883  1264 net.cpp:159] Memory required for data: 2824080
I0507 11:25:51.330891  1264 layer_factory.hpp:77] Creating layer relu5
I0507 11:25:51.330898  1264 net.cpp:94] Creating Layer relu5
I0507 11:25:51.330900  1264 net.cpp:435] relu5 <- conv5
I0507 11:25:51.330904  1264 net.cpp:396] relu5 -> conv5 (in-place)
I0507 11:25:51.330911  1264 net.cpp:144] Setting up relu5
I0507 11:25:51.330915  1264 net.cpp:151] Top shape: 20 64 5 5 (32000)
I0507 11:25:51.330919  1264 net.cpp:159] Memory required for data: 2952080
I0507 11:25:51.330921  1264 layer_factory.hpp:77] Creating layer pool5
I0507 11:25:51.330926  1264 net.cpp:94] Creating Layer pool5
I0507 11:25:51.330929  1264 net.cpp:435] pool5 <- conv5
I0507 11:25:51.330934  1264 net.cpp:409] pool5 -> pool5
I0507 11:25:51.330971  1264 net.cpp:144] Setting up pool5
I0507 11:25:51.330977  1264 net.cpp:151] Top shape: 20 64 2 2 (5120)
I0507 11:25:51.330981  1264 net.cpp:159] Memory required for data: 2972560
I0507 11:25:51.330983  1264 layer_factory.hpp:77] Creating layer ip1
I0507 11:25:51.330989  1264 net.cpp:94] Creating Layer ip1
I0507 11:25:51.330992  1264 net.cpp:435] ip1 <- pool5
I0507 11:25:51.330997  1264 net.cpp:409] ip1 -> ip1
I0507 11:25:51.331519  1264 net.cpp:144] Setting up ip1
I0507 11:25:51.331527  1264 net.cpp:151] Top shape: 20 64 (1280)
I0507 11:25:51.331531  1264 net.cpp:159] Memory required for data: 2977680
I0507 11:25:51.331535  1264 layer_factory.hpp:77] Creating layer ip2
I0507 11:25:51.331542  1264 net.cpp:94] Creating Layer ip2
I0507 11:25:51.331544  1264 net.cpp:435] ip2 <- ip1
I0507 11:25:51.331549  1264 net.cpp:409] ip2 -> ip2
I0507 11:25:51.331774  1264 net.cpp:144] Setting up ip2
I0507 11:25:51.331782  1264 net.cpp:151] Top shape: 20 64 (1280)
I0507 11:25:51.331785  1264 net.cpp:159] Memory required for data: 2982800
I0507 11:25:51.331790  1264 layer_factory.hpp:77] Creating layer ip3
I0507 11:25:51.331795  1264 net.cpp:94] Creating Layer ip3
I0507 11:25:51.331799  1264 net.cpp:435] ip3 <- ip2
I0507 11:25:51.331804  1264 net.cpp:409] ip3 -> ip3
I0507 11:25:51.332005  1264 net.cpp:144] Setting up ip3
I0507 11:25:51.332011  1264 net.cpp:151] Top shape: 20 50 (1000)
I0507 11:25:51.332018  1264 net.cpp:159] Memory required for data: 2986800
I0507 11:25:51.332025  1264 layer_factory.hpp:77] Creating layer loss
I0507 11:25:51.332031  1264 net.cpp:94] Creating Layer loss
I0507 11:25:51.332034  1264 net.cpp:435] loss <- ip3
I0507 11:25:51.332037  1264 net.cpp:435] loss <- label
I0507 11:25:51.332042  1264 net.cpp:409] loss -> loss
I0507 11:25:51.332048  1264 layer_factory.hpp:77] Creating layer loss
…
I0507 11:25:51.333416  1264 solver.cpp:181] Creating test net (#0) specified by net file: ./protocol/dis_50_100_dimension.protocol_distribution
I0507 11:25:51.333442  1264 net.cpp:323] The NetState phase (1) differed from the phase (0) specified by a rule in layer parameters
I0507 11:25:51.333535  1264 net.cpp:52] Initializing net from parameters: 
state {
  phase: TEST
}
layer {
  name: "intercept"
  type: "HDF5Data"
  top: "data"
  top: "label"
  include {
    phase: TEST
  }
  hdf5_data_param {
    source: "/home/purduethu/scratch/radon/d/deng106/CNNStatisticalModel/distributions/input/50_distributions_100_sample_size_test-distributions-path.txt"
    batch_size: 20
  }
}
layer {
  name: "conv1"
  type: "Convolution"
  bottom: "data"
  top: "conv1"
  param {
    lr_mult: 1
  }
  param {
    lr_mult: 2
  }
  convolution_param {
    num_output: 64
    pad: 2
    kernel_size: 5
    stride: 1
    weight_filler {
      type: "gaussian"
      std: 0.0001
    }
    bias_filler {
      type: "constant"
    }
  }
}
layer {
  name: "relu1"
  type: "ReLU"
  bottom: "conv1"
  top: "conv1"
}
layer {
  name: "conv2"
  type: "Convolution"
  bottom: "conv1"
  top: "conv2"
  param {
    lr_mult: 1
  }
  param {
    lr_mult: 2
  }
  convolution_param {
    num_output: 64
    pad: 2
    kernel_size: 5
    stride: 1
    weight_filler {
      type: "gaussian"
      std: 0.01
    }
    bias_filler {
      type: "constant"
    }
  }
}
layer {
  name: "relu2"
  type: "ReLU"
  bottom: "conv2"
  top: "conv2"
}
layer {
  name: "pool2"
  type: "Pooling"
  bottom: "conv2"
  top: "pool2"
  pooling_param {
    pool: MAX
    kernel_size: 3
    stride: 2
  }
}
layer {
  name: "conv3"
  type: "Convolution"
  bottom: "pool2"
  top: "conv3"
  param {
    lr_mult: 1
  }
  param {
    lr_mult: 2
  }
  convolution_param {
    num_output: 64
    pad: 2
    kernel_size: 5
    stride: 1
    weight_filler {
      type: "gaussian"
      std: 0.01
    }
    bias_filler {
      type: "constant"
    }
  }
}
layer {
  name: "relu3"
  type: "ReLU"
  bottom: "conv3"
  top: "conv3"
}
layer {
  name: "conv4"
  type: "Convolution"
  bottom: "conv3"
  top: "conv4"
  param {
    lr_mult: 1
  }
  param {
    lr_mult: 2
  }
  convolution_param {
    num_output: 64
    pad: 2
    kernel_size: 5
    stride: 1
    weight_filler {
      type: "gaussian"
      std: 0.01
    }
    bias_filler {
      type: "constant"
    }
  }
}
layer {
  name: "relu4"
  type: "ReLU"
  bottom: "conv4"
  top: "conv4"
}
layer {
  name: "conv5"
  type: "Convolution"
  bottom: "conv4"
  top: "conv5"
  param {
    lr_mult: 1
  }
  param {
    lr_mult: 2
  }
  convolution_param {
    num_output: 64
    pad: 2
    kernel_size: 5
    stride: 1
    weight_filler {
      type: "gaussian"
      std: 0.01
    }
    bias_filler {
      type: "constant"
    }
  }
}
layer {
  name: "relu5"
  type: "ReLU"
  bottom: "conv5"
  top: "conv5"
}
layer {
  name: "pool5"
  type: "Pooling"
  bottom: "conv5"
  top: "pool5"
  pooling_param {
    pool: AVE
    kernel_size: 3
    stride: 2
  }
}
layer {
  name: "ip1"
  type: "InnerProduct"
  bottom: "pool5"
  top: "ip1"
  param {
    lr_mult: 1
  }
  param {
    lr_mult: 2
  }
  inner_product_param {
    num_output: 64
    weight_filler {
      type: "gaussian"
      std: 0.1
    }
    bias_filler {
      type: "constant"
    }
  }
}
layer {
  name: "ip2"
  type: "InnerProduct"
  bottom: "ip1"
  top: "ip2"
  param {
    lr_mult: 1
  }
  param {
    lr_mult: 2
  }
  inner_product_param {
    num_output: 64
    weight_filler {
      type: "gaussian"
      std: 0.1
    }
    bias_filler {
      type: "constant"
    }
  }
}
layer {
  name: "ip3"
  type: "InnerProduct"
  bottom: "ip2"
  top: "ip3"
  param {
    lr_mult: 1
  }
  param {
    lr_mult: 2
  }
  inner_product_param {
    num_output: 50
    weight_filler {
      type: "gaussian"
      std: 0.1
    }
    bias_filler {
      type: "constant"
    }
  }
}
layer {
  name: "accuracy"
  type: "Accuracy"
  bottom: "ip3"
  bottom: "label"
  top: "accuracy"
  include {
    phase: TEST
  }
}
layer {
  name: "loss"
  type: "SoftmaxWithLoss"
  bottom: "ip3"
  bottom: "label"
  top: "loss"
}
I0507 11:25:51.333600  1264 layer_factory.hpp:77] Creating layer intercept
I0507 11:25:51.333607  1264 net.cpp:94] Creating Layer intercept
I0507 11:25:51.333611  1264 net.cpp:409] intercept -> data
I0507 11:25:51.333617  1264 net.cpp:409] intercept -> label
I0507 11:25:51.333623  1264 hdf5_data_layer.cpp:79] Loading list of HDF5 filenames from: /home/purduethu/scratch/radon/d/deng106/CNNStatisticalModel/distributions/input/50_distributions_100_sample_size_test-distributions-path.txt
I0507 11:25:51.333642  1264 hdf5_data_layer.cpp:93] Number of HDF5 files: 1
I0507 11:25:51.374927  1264 net.cpp:144] Setting up intercept
I0507 11:25:51.374963  1264 net.cpp:151] Top shape: 20 1 10 10 (2000)
I0507 11:25:51.374967  1264 net.cpp:151] Top shape: 20 (20)
I0507 11:25:51.374970  1264 net.cpp:159] Memory required for data: 8080
I0507 11:25:51.374976  1264 layer_factory.hpp:77] Creating layer label_intercept_1_split
I0507 11:25:51.374996  1264 net.cpp:94] Creating Layer label_intercept_1_split
I0507 11:25:51.375000  1264 net.cpp:435] label_intercept_1_split <- label
I0507 11:25:51.375006  1264 net.cpp:409] label_intercept_1_split -> label_intercept_1_split_0
I0507 11:25:51.375015  1264 net.cpp:409] label_intercept_1_split -> label_intercept_1_split_1
I0507 11:25:51.375058  1264 net.cpp:144] Setting up label_intercept_1_split
I0507 11:25:51.375066  1264 net.cpp:151] Top shape: 20 (20)
I0507 11:25:51.375069  1264 net.cpp:151] Top shape: 20 (20)
I0507 11:25:51.375072  1264 net.cpp:159] Memory required for data: 8240
I0507 11:25:51.375075  1264 layer_factory.hpp:77] Creating layer conv1
I0507 11:25:51.375085  1264 net.cpp:94] Creating Layer conv1
I0507 11:25:51.375089  1264 net.cpp:435] conv1 <- data
I0507 11:25:51.375094  1264 net.cpp:409] conv1 -> conv1
I0507 11:25:51.375895  1264 net.cpp:144] Setting up conv1
I0507 11:25:51.375910  1264 net.cpp:151] Top shape: 20 64 10 10 (128000)
I0507 11:25:51.375919  1264 net.cpp:159] Memory required for data: 520240
I0507 11:25:51.375929  1264 layer_factory.hpp:77] Creating layer relu1
I0507 11:25:51.375936  1264 net.cpp:94] Creating Layer relu1
I0507 11:25:51.375939  1264 net.cpp:435] relu1 <- conv1
I0507 11:25:51.375943  1264 net.cpp:396] relu1 -> conv1 (in-place)
I0507 11:25:51.375950  1264 net.cpp:144] Setting up relu1
I0507 11:25:51.375954  1264 net.cpp:151] Top shape: 20 64 10 10 (128000)
I0507 11:25:51.375957  1264 net.cpp:159] Memory required for data: 1032240
I0507 11:25:51.375960  1264 layer_factory.hpp:77] Creating layer conv2
I0507 11:25:51.375967  1264 net.cpp:94] Creating Layer conv2
I0507 11:25:51.375970  1264 net.cpp:435] conv2 <- conv1
I0507 11:25:51.375975  1264 net.cpp:409] conv2 -> conv2
I0507 11:25:51.380074  1264 net.cpp:144] Setting up conv2
I0507 11:25:51.380086  1264 net.cpp:151] Top shape: 20 64 10 10 (128000)
I0507 11:25:51.380090  1264 net.cpp:159] Memory required for data: 1544240
I0507 11:25:51.380098  1264 layer_factory.hpp:77] Creating layer relu2
I0507 11:25:51.380105  1264 net.cpp:94] Creating Layer relu2
I0507 11:25:51.380108  1264 net.cpp:435] relu2 <- conv2
I0507 11:25:51.380113  1264 net.cpp:396] relu2 -> conv2 (in-place)
I0507 11:25:51.380120  1264 net.cpp:144] Setting up relu2
I0507 11:25:51.380123  1264 net.cpp:151] Top shape: 20 64 10 10 (128000)
I0507 11:25:51.380126  1264 net.cpp:159] Memory required for data: 2056240
I0507 11:25:51.380129  1264 layer_factory.hpp:77] Creating layer pool2
I0507 11:25:51.380134  1264 net.cpp:94] Creating Layer pool2
I0507 11:25:51.380137  1264 net.cpp:435] pool2 <- conv2
I0507 11:25:51.380141  1264 net.cpp:409] pool2 -> pool2
I0507 11:25:51.380200  1264 net.cpp:144] Setting up pool2
I0507 11:25:51.380208  1264 net.cpp:151] Top shape: 20 64 5 5 (32000)
I0507 11:25:51.380210  1264 net.cpp:159] Memory required for data: 2184240
I0507 11:25:51.380213  1264 layer_factory.hpp:77] Creating layer conv3
I0507 11:25:51.380223  1264 net.cpp:94] Creating Layer conv3
I0507 11:25:51.380225  1264 net.cpp:435] conv3 <- pool2
I0507 11:25:51.380230  1264 net.cpp:409] conv3 -> conv3
I0507 11:25:51.384616  1264 net.cpp:144] Setting up conv3
I0507 11:25:51.384630  1264 net.cpp:151] Top shape: 20 64 5 5 (32000)
I0507 11:25:51.384634  1264 net.cpp:159] Memory required for data: 2312240
I0507 11:25:51.384642  1264 layer_factory.hpp:77] Creating layer relu3
I0507 11:25:51.384649  1264 net.cpp:94] Creating Layer relu3
I0507 11:25:51.384651  1264 net.cpp:435] relu3 <- conv3
I0507 11:25:51.384656  1264 net.cpp:396] relu3 -> conv3 (in-place)
I0507 11:25:51.384662  1264 net.cpp:144] Setting up relu3
I0507 11:25:51.384666  1264 net.cpp:151] Top shape: 20 64 5 5 (32000)
I0507 11:25:51.384670  1264 net.cpp:159] Memory required for data: 2440240
I0507 11:25:51.384672  1264 layer_factory.hpp:77] Creating layer conv4
I0507 11:25:51.384680  1264 net.cpp:94] Creating Layer conv4
I0507 11:25:51.384683  1264 net.cpp:435] conv4 <- conv3
I0507 11:25:51.384690  1264 net.cpp:409] conv4 -> conv4
I0507 11:25:51.388196  1264 net.cpp:144] Setting up conv4
I0507 11:25:51.388209  1264 net.cpp:151] Top shape: 20 64 5 5 (32000)
I0507 11:25:51.388212  1264 net.cpp:159] Memory required for data: 2568240
I0507 11:25:51.388218  1264 layer_factory.hpp:77] Creating layer relu4
I0507 11:25:51.388224  1264 net.cpp:94] Creating Layer relu4
I0507 11:25:51.388227  1264 net.cpp:435] relu4 <- conv4
I0507 11:25:51.388231  1264 net.cpp:396] relu4 -> conv4 (in-place)
I0507 11:25:51.388237  1264 net.cpp:144] Setting up relu4
I0507 11:25:51.388242  1264 net.cpp:151] Top shape: 20 64 5 5 (32000)
I0507 11:25:51.388244  1264 net.cpp:159] Memory required for data: 2696240
I0507 11:25:51.388247  1264 layer_factory.hpp:77] Creating layer conv5
I0507 11:25:51.388255  1264 net.cpp:94] Creating Layer conv5
I0507 11:25:51.388259  1264 net.cpp:435] conv5 <- conv4
I0507 11:25:51.388264  1264 net.cpp:409] conv5 -> conv5
I0507 11:25:51.392254  1264 net.cpp:144] Setting up conv5
I0507 11:25:51.392268  1264 net.cpp:151] Top shape: 20 64 5 5 (32000)
I0507 11:25:51.392272  1264 net.cpp:159] Memory required for data: 2824240
I0507 11:25:51.392284  1264 layer_factory.hpp:77] Creating layer relu5
I0507 11:25:51.392292  1264 net.cpp:94] Creating Layer relu5
I0507 11:25:51.392294  1264 net.cpp:435] relu5 <- conv5
I0507 11:25:51.392299  1264 net.cpp:396] relu5 -> conv5 (in-place)
I0507 11:25:51.392307  1264 net.cpp:144] Setting up relu5
I0507 11:25:51.392310  1264 net.cpp:151] Top shape: 20 64 5 5 (32000)
I0507 11:25:51.392313  1264 net.cpp:159] Memory required for data: 2952240
I0507 11:25:51.392315  1264 layer_factory.hpp:77] Creating layer pool5
I0507 11:25:51.392320  1264 net.cpp:94] Creating Layer pool5
I0507 11:25:51.392323  1264 net.cpp:435] pool5 <- conv5
I0507 11:25:51.392328  1264 net.cpp:409] pool5 -> pool5
I0507 11:25:51.392367  1264 net.cpp:144] Setting up pool5
I0507 11:25:51.392374  1264 net.cpp:151] Top shape: 20 64 2 2 (5120)
I0507 11:25:51.392377  1264 net.cpp:159] Memory required for data: 2972720
I0507 11:25:51.392380  1264 layer_factory.hpp:77] Creating layer ip1
I0507 11:25:51.392386  1264 net.cpp:94] Creating Layer ip1
I0507 11:25:51.392390  1264 net.cpp:435] ip1 <- pool5
I0507 11:25:51.392395  1264 net.cpp:409] ip1 -> ip1
I0507 11:25:51.392966  1264 net.cpp:144] Setting up ip1
I0507 11:25:51.392974  1264 net.cpp:151] Top shape: 20 64 (1280)
I0507 11:25:51.392977  1264 net.cpp:159] Memory required for data: 2977840
I0507 11:25:51.392982  1264 layer_factory.hpp:77] Creating layer ip2
I0507 11:25:51.392988  1264 net.cpp:94] Creating Layer ip2
I0507 11:25:51.392992  1264 net.cpp:435] ip2 <- ip1
I0507 11:25:51.392997  1264 net.cpp:409] ip2 -> ip2
I0507 11:25:51.393227  1264 net.cpp:144] Setting up ip2
I0507 11:25:51.393234  1264 net.cpp:151] Top shape: 20 64 (1280)
I0507 11:25:51.393237  1264 net.cpp:159] Memory required for data: 2982960
I0507 11:25:51.393242  1264 layer_factory.hpp:77] Creating layer ip3
I0507 11:25:51.393250  1264 net.cpp:94] Creating Layer ip3
I0507 11:25:51.393254  1264 net.cpp:435] ip3 <- ip2
I0507 11:25:51.393259  1264 net.cpp:409] ip3 -> ip3
I0507 11:25:51.393465  1264 net.cpp:144] Setting up ip3
I0507 11:25:51.393472  1264 net.cpp:151] Top shape: 20 50 (1000)
I0507 11:25:51.393476  1264 net.cpp:159] Memory required for data: 2986960
I0507 11:25:51.393481  1264 layer_factory.hpp:77] Creating layer ip3_ip3_0_split
I0507 11:25:51.393484  1264 net.cpp:94] Creating Layer ip3_ip3_0_split
I0507 11:25:51.393487  1264 net.cpp:435] ip3_ip3_0_split <- ip3
I0507 11:25:51.393491  1264 net.cpp:409] ip3_ip3_0_split -> ip3_ip3_0_split_0
I0507 11:25:51.393496  1264 net.cpp:409] ip3_ip3_0_split -> ip3_ip3_0_split_1
I0507 11:25:51.393537  1264 net.cpp:144] Setting up ip3_ip3_0_split
I0507 11:25:51.393543  1264 net.cpp:151] Top shape: 20 50 (1000)
I0507 11:25:51.393546  1264 net.cpp:151] Top shape: 20 50 (1000)
I0507 11:25:51.393549  1264 net.cpp:159] Memory required for data: 2994960
I0507 11:25:51.393553  1264 layer_factory.hpp:77] Creating layer accuracy
I0507 11:25:51.393558  1264 net.cpp:94] Creating Layer accuracy
I0507 11:25:51.393560  1264 net.cpp:435] accuracy <- ip3_ip3_0_split_0
I0507 11:25:51.393563  1264 net.cpp:435] accuracy <- label_intercept_1_split_0
I0507 11:25:51.393568  1264 net.cpp:409] accuracy -> accuracy
…
