…
I0505 11:48:58.922543  6669 net.cpp:323] The NetState phase (0) differed from the phase (1) specified by a rule in layer intercept
I0505 11:48:58.922557  6669 net.cpp:323] The NetState phase (0) differed from the phase (1) specified by a rule in layer loss
I0505 11:48:58.922622  6669 net.cpp:52] Initializing net from parameters: 
state {
  phase: TRAIN
}
layer {
  name: "parameters"
  type: "HDF5Data"
  top: "data"
  top: "label"
  include {
    phase: TRAIN
  }
  hdf5_data_param {
    source: "/home/purduethu/scratch/radon/d/deng106/CNNStatisticalModel/distributions/input/20_distributions_900_sample_size_train-parameters-path.txt"
    batch_size: 20
  }
}
layer {
  name: "conv1"
  type: "Convolution"
  bottom: "data"
  top: "conv1"
  param {
    lr_mult: 1
  }
  param {
    lr_mult: 2
  }
  convolution_param {
    num_output: 64
    pad: 2
    kernel_size: 5
    stride: 1
    weight_filler {
      type: "gaussian"
      std: 0.0001
    }
    bias_filler {
      type: "constant"
    }
  }
}
layer {
  name: "relu1"
  type: "ReLU"
  bottom: "conv1"
  top: "conv1"
}
layer {
  name: "pool1"
  type: "Pooling"
  bottom: "conv1"
  top: "pool1"
  pooling_param {
    pool: MAX
    kernel_size: 3
    stride: 2
  }
}
layer {
  name: "conv2"
  type: "Convolution"
  bottom: "pool1"
  top: "conv2"
  param {
    lr_mult: 1
  }
  param {
    lr_mult: 2
  }
  convolution_param {
    num_output: 128
    pad: 2
    kernel_size: 5
    stride: 1
    weight_filler {
      type: "gaussian"
      std: 0.01
    }
    bias_filler {
      type: "constant"
    }
  }
}
layer {
  name: "relu2"
  type: "ReLU"
  bottom: "conv2"
  top: "conv2"
}
layer {
  name: "conv3"
  type: "Convolution"
  bottom: "conv2"
  top: "conv3"
  param {
    lr_mult: 1
  }
  param {
    lr_mult: 2
  }
  convolution_param {
    num_output: 128
    pad: 2
    kernel_size: 5
    stride: 1
    weight_filler {
      type: "gaussian"
      std: 0.01
    }
    bias_filler {
      type: "constant"
    }
  }
}
layer {
  name: "relu3"
  type: "ReLU"
  bottom: "conv3"
  top: "conv3"
}
layer {
  name: "pool3"
  type: "Pooling"
  bottom: "conv3"
  top: "pool3"
  pooling_param {
    pool: AVE
    kernel_size: 3
    stride: 2
  }
}
layer {
  name: "ip1"
  type: "InnerProduct"
  bottom: "pool3"
  top: "ip1"
  param {
    lr_mult: 1
  }
  param {
    lr_mult: 2
  }
  inner_product_param {
    num_output: 512
    weight_filler {
      type: "gaussian"
      std: 0.1
    }
    bias_filler {
      type: "constant"
    }
  }
}
layer {
  name: "ip2"
  type: "InnerProduct"
  bottom: "ip1"
  top: "ip2"
  param {
    lr_mult: 1
  }
  param {
    lr_mult: 2
  }
  inner_product_param {
    num_output: 256
    weight_filler {
      type: "gaussian"
      std: 0.1
    }
    bias_filler {
      type: "constant"
    }
  }
}
layer {
  name: "ip3"
  type: "InnerProduct"
  bottom: "ip2"
  top: "ip3"
  param {
    lr_mult: 1
  }
  param {
    lr_mult: 2
  }
  inner_product_param {
    num_output: 1
    weight_filler {
      type: "gaussian"
      std: 0.1
    }
    bias_filler {
      type: "constant"
    }
  }
}
layer {
  name: "loss"
  type: "HuberLoss"
  bottom: "ip3"
  bottom: "label"
  top: "loss"
  include {
    phase: TRAIN
  }
}
I0505 11:48:58.922670  6669 layer_factory.hpp:77] Creating layer parameters
I0505 11:48:58.922688  6669 net.cpp:94] Creating Layer parameters
I0505 11:48:58.922693  6669 net.cpp:409] parameters -> data
I0505 11:48:58.922701  6669 net.cpp:409] parameters -> label
I0505 11:48:58.922708  6669 hdf5_data_layer.cpp:79] Loading list of HDF5 filenames from: /home/purduethu/scratch/radon/d/deng106/CNNStatisticalModel/distributions/input/20_distributions_900_sample_size_train-parameters-path.txt
I0505 11:48:58.922722  6669 hdf5_data_layer.cpp:93] Number of HDF5 files: 1
I0505 11:48:58.923280  6669 hdf5.cpp:32] Datatype class: H5T_FLOAT
I0505 11:48:59.504988  6669 net.cpp:144] Setting up parameters
I0505 11:48:59.505020  6669 net.cpp:151] Top shape: 20 1 30 30 (18000)
I0505 11:48:59.505026  6669 net.cpp:151] Top shape: 20 (20)
I0505 11:48:59.505029  6669 net.cpp:159] Memory required for data: 72080
I0505 11:48:59.505035  6669 layer_factory.hpp:77] Creating layer conv1
I0505 11:48:59.505053  6669 net.cpp:94] Creating Layer conv1
I0505 11:48:59.505058  6669 net.cpp:435] conv1 <- data
I0505 11:48:59.505064  6669 net.cpp:409] conv1 -> conv1
I0505 11:48:59.511528  6669 net.cpp:144] Setting up conv1
I0505 11:48:59.511545  6669 net.cpp:151] Top shape: 20 64 30 30 (1152000)
I0505 11:48:59.511550  6669 net.cpp:159] Memory required for data: 4680080
I0505 11:48:59.511561  6669 layer_factory.hpp:77] Creating layer relu1
I0505 11:48:59.511569  6669 net.cpp:94] Creating Layer relu1
I0505 11:48:59.511574  6669 net.cpp:435] relu1 <- conv1
I0505 11:48:59.511579  6669 net.cpp:396] relu1 -> conv1 (in-place)
I0505 11:48:59.511586  6669 net.cpp:144] Setting up relu1
I0505 11:48:59.511590  6669 net.cpp:151] Top shape: 20 64 30 30 (1152000)
I0505 11:48:59.511593  6669 net.cpp:159] Memory required for data: 9288080
I0505 11:48:59.511596  6669 layer_factory.hpp:77] Creating layer pool1
I0505 11:48:59.511602  6669 net.cpp:94] Creating Layer pool1
I0505 11:48:59.511605  6669 net.cpp:435] pool1 <- conv1
I0505 11:48:59.511610  6669 net.cpp:409] pool1 -> pool1
I0505 11:48:59.511669  6669 net.cpp:144] Setting up pool1
I0505 11:48:59.511677  6669 net.cpp:151] Top shape: 20 64 15 15 (288000)
I0505 11:48:59.511680  6669 net.cpp:159] Memory required for data: 10440080
I0505 11:48:59.511683  6669 layer_factory.hpp:77] Creating layer conv2
I0505 11:48:59.511693  6669 net.cpp:94] Creating Layer conv2
I0505 11:48:59.511696  6669 net.cpp:435] conv2 <- pool1
I0505 11:48:59.511701  6669 net.cpp:409] conv2 -> conv2
I0505 11:48:59.524401  6669 net.cpp:144] Setting up conv2
I0505 11:48:59.524418  6669 net.cpp:151] Top shape: 20 128 15 15 (576000)
I0505 11:48:59.524422  6669 net.cpp:159] Memory required for data: 12744080
I0505 11:48:59.524431  6669 layer_factory.hpp:77] Creating layer relu2
I0505 11:48:59.524438  6669 net.cpp:94] Creating Layer relu2
I0505 11:48:59.524442  6669 net.cpp:435] relu2 <- conv2
I0505 11:48:59.524447  6669 net.cpp:396] relu2 -> conv2 (in-place)
I0505 11:48:59.524456  6669 net.cpp:144] Setting up relu2
I0505 11:48:59.524459  6669 net.cpp:151] Top shape: 20 128 15 15 (576000)
I0505 11:48:59.524462  6669 net.cpp:159] Memory required for data: 15048080
I0505 11:48:59.524466  6669 layer_factory.hpp:77] Creating layer conv3
I0505 11:48:59.524474  6669 net.cpp:94] Creating Layer conv3
I0505 11:48:59.524477  6669 net.cpp:435] conv3 <- conv2
I0505 11:48:59.524483  6669 net.cpp:409] conv3 -> conv3
I0505 11:48:59.546237  6669 net.cpp:144] Setting up conv3
I0505 11:48:59.546253  6669 net.cpp:151] Top shape: 20 128 15 15 (576000)
I0505 11:48:59.546257  6669 net.cpp:159] Memory required for data: 17352080
I0505 11:48:59.546267  6669 layer_factory.hpp:77] Creating layer relu3
I0505 11:48:59.546279  6669 net.cpp:94] Creating Layer relu3
I0505 11:48:59.546284  6669 net.cpp:435] relu3 <- conv3
I0505 11:48:59.546289  6669 net.cpp:396] relu3 -> conv3 (in-place)
I0505 11:48:59.546296  6669 net.cpp:144] Setting up relu3
I0505 11:48:59.546301  6669 net.cpp:151] Top shape: 20 128 15 15 (576000)
I0505 11:48:59.546304  6669 net.cpp:159] Memory required for data: 19656080
I0505 11:48:59.546308  6669 layer_factory.hpp:77] Creating layer pool3
I0505 11:48:59.546314  6669 net.cpp:94] Creating Layer pool3
I0505 11:48:59.546319  6669 net.cpp:435] pool3 <- conv3
I0505 11:48:59.546322  6669 net.cpp:409] pool3 -> pool3
I0505 11:48:59.546370  6669 net.cpp:144] Setting up pool3
I0505 11:48:59.546376  6669 net.cpp:151] Top shape: 20 128 7 7 (125440)
I0505 11:48:59.546380  6669 net.cpp:159] Memory required for data: 20157840
I0505 11:48:59.546383  6669 layer_factory.hpp:77] Creating layer ip1
I0505 11:48:59.546393  6669 net.cpp:94] Creating Layer ip1
I0505 11:48:59.546397  6669 net.cpp:435] ip1 <- pool3
I0505 11:48:59.546402  6669 net.cpp:409] ip1 -> ip1
I0505 11:48:59.624588  6669 net.cpp:144] Setting up ip1
I0505 11:48:59.624621  6669 net.cpp:151] Top shape: 20 512 (10240)
I0505 11:48:59.624626  6669 net.cpp:159] Memory required for data: 20198800
I0505 11:48:59.624635  6669 layer_factory.hpp:77] Creating layer ip2
I0505 11:48:59.624645  6669 net.cpp:94] Creating Layer ip2
I0505 11:48:59.624650  6669 net.cpp:435] ip2 <- ip1
I0505 11:48:59.624657  6669 net.cpp:409] ip2 -> ip2
I0505 11:48:59.627821  6669 net.cpp:144] Setting up ip2
I0505 11:48:59.627835  6669 net.cpp:151] Top shape: 20 256 (5120)
I0505 11:48:59.627838  6669 net.cpp:159] Memory required for data: 20219280
I0505 11:48:59.627847  6669 layer_factory.hpp:77] Creating layer ip3
I0505 11:48:59.627853  6669 net.cpp:94] Creating Layer ip3
I0505 11:48:59.627857  6669 net.cpp:435] ip3 <- ip2
I0505 11:48:59.627862  6669 net.cpp:409] ip3 -> ip3
I0505 11:48:59.627970  6669 net.cpp:144] Setting up ip3
I0505 11:48:59.627977  6669 net.cpp:151] Top shape: 20 1 (20)
I0505 11:48:59.627980  6669 net.cpp:159] Memory required for data: 20219360
I0505 11:48:59.627985  6669 layer_factory.hpp:77] Creating layer loss
I0505 11:48:59.628000  6669 net.cpp:94] Creating Layer loss
I0505 11:48:59.628003  6669 net.cpp:435] loss <- ip3
I0505 11:48:59.628007  6669 net.cpp:435] loss <- label
I0505 11:48:59.628011  6669 net.cpp:409] loss -> loss
I0505 11:48:59.628064  6669 net.cpp:144] Setting up loss
…
I0505 11:48:59.888594  6669 net.cpp:323] The NetState phase (0) differed from the phase (1) specified by a rule in layer intercept
I0505 11:48:59.888608  6669 net.cpp:323] The NetState phase (0) differed from the phase (1) specified by a rule in layer accuracy
I0505 11:48:59.888679  6669 net.cpp:52] Initializing net from parameters: 
state {
  phase: TRAIN
}
layer {
  name: "parameters"
  type: "HDF5Data"
  top: "data"
  top: "label"
  include {
    phase: TRAIN
  }
  hdf5_data_param {
    source: "/home/purduethu/scratch/radon/d/deng106/CNNStatisticalModel/distributions/input/20_distributions_900_sample_size_train-distributions-path.txt"
    batch_size: 20
  }
}
layer {
  name: "conv1"
  type: "Convolution"
  bottom: "data"
  top: "conv1"
  param {
    lr_mult: 1
  }
  param {
    lr_mult: 2
  }
  convolution_param {
    num_output: 64
    pad: 2
    kernel_size: 5
    stride: 1
    weight_filler {
      type: "gaussian"
      std: 0.0001
    }
    bias_filler {
      type: "constant"
    }
  }
}
layer {
  name: "relu1"
  type: "ReLU"
  bottom: "conv1"
  top: "conv1"
}
layer {
  name: "pool1"
  type: "Pooling"
  bottom: "conv1"
  top: "pool1"
  pooling_param {
    pool: MAX
    kernel_size: 3
    stride: 2
  }
}
layer {
  name: "conv2"
  type: "Convolution"
  bottom: "pool1"
  top: "conv2"
  param {
    lr_mult: 1
  }
  param {
    lr_mult: 2
  }
  convolution_param {
    num_output: 128
    pad: 2
    kernel_size: 5
    stride: 1
    weight_filler {
      type: "gaussian"
      std: 0.01
    }
    bias_filler {
      type: "constant"
    }
  }
}
layer {
  name: "relu2"
  type: "ReLU"
  bottom: "conv2"
  top: "conv2"
}
layer {
  name: "conv3"
  type: "Convolution"
  bottom: "conv2"
  top: "conv3"
  param {
    lr_mult: 1
  }
  param {
    lr_mult: 2
  }
  convolution_param {
    num_output: 128
    pad: 2
    kernel_size: 5
    stride: 1
    weight_filler {
      type: "gaussian"
      std: 0.01
    }
    bias_filler {
      type: "constant"
    }
  }
}
layer {
  name: "relu3"
  type: "ReLU"
  bottom: "conv3"
  top: "conv3"
}
layer {
  name: "pool3"
  type: "Pooling"
  bottom: "conv3"
  top: "pool3"
  pooling_param {
    pool: AVE
    kernel_size: 3
    stride: 2
  }
}
layer {
  name: "ip1"
  type: "InnerProduct"
  bottom: "pool3"
  top: "ip1"
  param {
    lr_mult: 1
  }
  param {
    lr_mult: 2
  }
  inner_product_param {
    num_output: 512
    weight_filler {
      type: "gaussian"
      std: 0.1
    }
    bias_filler {
      type: "constant"
    }
  }
}
layer {
  name: "ip2"
  type: "InnerProduct"
  bottom: "ip1"
  top: "ip2"
  param {
    lr_mult: 1
  }
  param {
    lr_mult: 2
  }
  inner_product_param {
    num_output: 256
    weight_filler {
      type: "gaussian"
      std: 0.1
    }
    bias_filler {
      type: "constant"
    }
  }
}
layer {
  name: "ip3"
  type: "InnerProduct"
  bottom: "ip2"
  top: "ip3"
  param {
    lr_mult: 1
  }
  param {
    lr_mult: 2
  }
  inner_product_param {
    num_output: 50
    weight_filler {
      type: "gaussian"
      std: 0.1
    }
    bias_filler {
      type: "constant"
    }
  }
}
layer {
  name: "loss"
  type: "SoftmaxWithLoss"
  bottom: "ip3"
  bottom: "label"
  top: "loss"
}
I0505 11:48:59.888721  6669 layer_factory.hpp:77] Creating layer parameters
I0505 11:48:59.888731  6669 net.cpp:94] Creating Layer parameters
I0505 11:48:59.888734  6669 net.cpp:409] parameters -> data
I0505 11:48:59.888741  6669 net.cpp:409] parameters -> label
I0505 11:48:59.888747  6669 hdf5_data_layer.cpp:79] Loading list of HDF5 filenames from: /home/purduethu/scratch/radon/d/deng106/CNNStatisticalModel/distributions/input/20_distributions_900_sample_size_train-distributions-path.txt
I0505 11:48:59.888762  6669 hdf5_data_layer.cpp:93] Number of HDF5 files: 1
I0505 11:49:00.484840  6669 hdf5.cpp:35] Datatype class: H5T_INTEGER
I0505 11:49:00.485966  6669 net.cpp:144] Setting up parameters
I0505 11:49:00.485985  6669 net.cpp:151] Top shape: 20 1 30 30 (18000)
I0505 11:49:00.485991  6669 net.cpp:151] Top shape: 20 (20)
I0505 11:49:00.485994  6669 net.cpp:159] Memory required for data: 72080
I0505 11:49:00.486001  6669 layer_factory.hpp:77] Creating layer conv1
I0505 11:49:00.486017  6669 net.cpp:94] Creating Layer conv1
I0505 11:49:00.486022  6669 net.cpp:435] conv1 <- data
I0505 11:49:00.486029  6669 net.cpp:409] conv1 -> conv1
I0505 11:49:00.489595  6669 net.cpp:144] Setting up conv1
I0505 11:49:00.489611  6669 net.cpp:151] Top shape: 20 64 30 30 (1152000)
I0505 11:49:00.489615  6669 net.cpp:159] Memory required for data: 4680080
I0505 11:49:00.489625  6669 layer_factory.hpp:77] Creating layer relu1
I0505 11:49:00.489634  6669 net.cpp:94] Creating Layer relu1
I0505 11:49:00.489639  6669 net.cpp:435] relu1 <- conv1
I0505 11:49:00.489642  6669 net.cpp:396] relu1 -> conv1 (in-place)
I0505 11:49:00.489650  6669 net.cpp:144] Setting up relu1
I0505 11:49:00.489655  6669 net.cpp:151] Top shape: 20 64 30 30 (1152000)
I0505 11:49:00.489657  6669 net.cpp:159] Memory required for data: 9288080
I0505 11:49:00.489660  6669 layer_factory.hpp:77] Creating layer pool1
I0505 11:49:00.489666  6669 net.cpp:94] Creating Layer pool1
I0505 11:49:00.489677  6669 net.cpp:435] pool1 <- conv1
I0505 11:49:00.489682  6669 net.cpp:409] pool1 -> pool1
I0505 11:49:00.489740  6669 net.cpp:144] Setting up pool1
I0505 11:49:00.489748  6669 net.cpp:151] Top shape: 20 64 15 15 (288000)
I0505 11:49:00.489751  6669 net.cpp:159] Memory required for data: 10440080
I0505 11:49:00.489754  6669 layer_factory.hpp:77] Creating layer conv2
I0505 11:49:00.489763  6669 net.cpp:94] Creating Layer conv2
I0505 11:49:00.489768  6669 net.cpp:435] conv2 <- pool1
I0505 11:49:00.489773  6669 net.cpp:409] conv2 -> conv2
I0505 11:49:00.503221  6669 net.cpp:144] Setting up conv2
I0505 11:49:00.503237  6669 net.cpp:151] Top shape: 20 128 15 15 (576000)
I0505 11:49:00.503242  6669 net.cpp:159] Memory required for data: 12744080
I0505 11:49:00.503249  6669 layer_factory.hpp:77] Creating layer relu2
I0505 11:49:00.503257  6669 net.cpp:94] Creating Layer relu2
I0505 11:49:00.503260  6669 net.cpp:435] relu2 <- conv2
I0505 11:49:00.503265  6669 net.cpp:396] relu2 -> conv2 (in-place)
I0505 11:49:00.503273  6669 net.cpp:144] Setting up relu2
I0505 11:49:00.503276  6669 net.cpp:151] Top shape: 20 128 15 15 (576000)
I0505 11:49:00.503280  6669 net.cpp:159] Memory required for data: 15048080
I0505 11:49:00.503283  6669 layer_factory.hpp:77] Creating layer conv3
I0505 11:49:00.503291  6669 net.cpp:94] Creating Layer conv3
I0505 11:49:00.503295  6669 net.cpp:435] conv3 <- conv2
I0505 11:49:00.503300  6669 net.cpp:409] conv3 -> conv3
I0505 11:49:00.526130  6669 net.cpp:144] Setting up conv3
I0505 11:49:00.526147  6669 net.cpp:151] Top shape: 20 128 15 15 (576000)
I0505 11:49:00.526152  6669 net.cpp:159] Memory required for data: 17352080
I0505 11:49:00.526160  6669 layer_factory.hpp:77] Creating layer relu3
I0505 11:49:00.526167  6669 net.cpp:94] Creating Layer relu3
I0505 11:49:00.526171  6669 net.cpp:435] relu3 <- conv3
I0505 11:49:00.526175  6669 net.cpp:396] relu3 -> conv3 (in-place)
I0505 11:49:00.526183  6669 net.cpp:144] Setting up relu3
I0505 11:49:00.526187  6669 net.cpp:151] Top shape: 20 128 15 15 (576000)
I0505 11:49:00.526190  6669 net.cpp:159] Memory required for data: 19656080
I0505 11:49:00.526193  6669 layer_factory.hpp:77] Creating layer pool3
I0505 11:49:00.526201  6669 net.cpp:94] Creating Layer pool3
I0505 11:49:00.526203  6669 net.cpp:435] pool3 <- conv3
I0505 11:49:00.526207  6669 net.cpp:409] pool3 -> pool3
I0505 11:49:00.526250  6669 net.cpp:144] Setting up pool3
I0505 11:49:00.526258  6669 net.cpp:151] Top shape: 20 128 7 7 (125440)
I0505 11:49:00.526262  6669 net.cpp:159] Memory required for data: 20157840
I0505 11:49:00.526264  6669 layer_factory.hpp:77] Creating layer ip1
I0505 11:49:00.526271  6669 net.cpp:94] Creating Layer ip1
I0505 11:49:00.526274  6669 net.cpp:435] ip1 <- pool3
I0505 11:49:00.526279  6669 net.cpp:409] ip1 -> ip1
I0505 11:49:00.605971  6669 net.cpp:144] Setting up ip1
I0505 11:49:00.606005  6669 net.cpp:151] Top shape: 20 512 (10240)
I0505 11:49:00.606010  6669 net.cpp:159] Memory required for data: 20198800
I0505 11:49:00.606019  6669 layer_factory.hpp:77] Creating layer ip2
I0505 11:49:00.606029  6669 net.cpp:94] Creating Layer ip2
I0505 11:49:00.606034  6669 net.cpp:435] ip2 <- ip1
I0505 11:49:00.606042  6669 net.cpp:409] ip2 -> ip2
I0505 11:49:00.609313  6669 net.cpp:144] Setting up ip2
I0505 11:49:00.609328  6669 net.cpp:151] Top shape: 20 256 (5120)
I0505 11:49:00.609333  6669 net.cpp:159] Memory required for data: 20219280
I0505 11:49:00.609341  6669 layer_factory.hpp:77] Creating layer ip3
I0505 11:49:00.609347  6669 net.cpp:94] Creating Layer ip3
I0505 11:49:00.609351  6669 net.cpp:435] ip3 <- ip2
I0505 11:49:00.609356  6669 net.cpp:409] ip3 -> ip3
I0505 11:49:00.610802  6669 net.cpp:144] Setting up ip3
I0505 11:49:00.610817  6669 net.cpp:151] Top shape: 20 50 (1000)
I0505 11:49:00.610821  6669 net.cpp:159] Memory required for data: 20223280
I0505 11:49:00.610827  6669 layer_factory.hpp:77] Creating layer loss
I0505 11:49:00.610833  6669 net.cpp:94] Creating Layer loss
I0505 11:49:00.610837  6669 net.cpp:435] loss <- ip3
I0505 11:49:00.610842  6669 net.cpp:435] loss <- label
I0505 11:49:00.610853  6669 net.cpp:409] loss -> loss
I0505 11:49:00.610862  6669 layer_factory.hpp:77] Creating layer loss
…
I0505 11:49:00.611328  6669 solver.cpp:181] Creating test net (#0) specified by net file: ./protocol/dis_20_900_dimension.protocol_distribution
I0505 11:49:00.611353  6669 net.cpp:323] The NetState phase (1) differed from the phase (0) specified by a rule in layer parameters
I0505 11:49:00.611436  6669 net.cpp:52] Initializing net from parameters: 
state {
  phase: TEST
}
layer {
  name: "intercept"
  type: "HDF5Data"
  top: "data"
  top: "label"
  include {
    phase: TEST
  }
  hdf5_data_param {
    source: "/home/purduethu/scratch/radon/d/deng106/CNNStatisticalModel/distributions/input/20_distributions_900_sample_size_test-distributions-path.txt"
    batch_size: 20
  }
}
layer {
  name: "conv1"
  type: "Convolution"
  bottom: "data"
  top: "conv1"
  param {
    lr_mult: 1
  }
  param {
    lr_mult: 2
  }
  convolution_param {
    num_output: 64
    pad: 2
    kernel_size: 5
    stride: 1
    weight_filler {
      type: "gaussian"
      std: 0.0001
    }
    bias_filler {
      type: "constant"
    }
  }
}
layer {
  name: "relu1"
  type: "ReLU"
  bottom: "conv1"
  top: "conv1"
}
layer {
  name: "pool1"
  type: "Pooling"
  bottom: "conv1"
  top: "pool1"
  pooling_param {
    pool: MAX
    kernel_size: 3
    stride: 2
  }
}
layer {
  name: "conv2"
  type: "Convolution"
  bottom: "pool1"
  top: "conv2"
  param {
    lr_mult: 1
  }
  param {
    lr_mult: 2
  }
  convolution_param {
    num_output: 128
    pad: 2
    kernel_size: 5
    stride: 1
    weight_filler {
      type: "gaussian"
      std: 0.01
    }
    bias_filler {
      type: "constant"
    }
  }
}
layer {
  name: "relu2"
  type: "ReLU"
  bottom: "conv2"
  top: "conv2"
}
layer {
  name: "conv3"
  type: "Convolution"
  bottom: "conv2"
  top: "conv3"
  param {
    lr_mult: 1
  }
  param {
    lr_mult: 2
  }
  convolution_param {
    num_output: 128
    pad: 2
    kernel_size: 5
    stride: 1
    weight_filler {
      type: "gaussian"
      std: 0.01
    }
    bias_filler {
      type: "constant"
    }
  }
}
layer {
  name: "relu3"
  type: "ReLU"
  bottom: "conv3"
  top: "conv3"
}
layer {
  name: "pool3"
  type: "Pooling"
  bottom: "conv3"
  top: "pool3"
  pooling_param {
    pool: AVE
    kernel_size: 3
    stride: 2
  }
}
layer {
  name: "ip1"
  type: "InnerProduct"
  bottom: "pool3"
  top: "ip1"
  param {
    lr_mult: 1
  }
  param {
    lr_mult: 2
  }
  inner_product_param {
    num_output: 512
    weight_filler {
      type: "gaussian"
      std: 0.1
    }
    bias_filler {
      type: "constant"
    }
  }
}
layer {
  name: "ip2"
  type: "InnerProduct"
  bottom: "ip1"
  top: "ip2"
  param {
    lr_mult: 1
  }
  param {
    lr_mult: 2
  }
  inner_product_param {
    num_output: 256
    weight_filler {
      type: "gaussian"
      std: 0.1
    }
    bias_filler {
      type: "constant"
    }
  }
}
layer {
  name: "ip3"
  type: "InnerProduct"
  bottom: "ip2"
  top: "ip3"
  param {
    lr_mult: 1
  }
  param {
    lr_mult: 2
  }
  inner_product_param {
    num_output: 50
    weight_filler {
      type: "gaussian"
      std: 0.1
    }
    bias_filler {
      type: "constant"
    }
  }
}
layer {
  name: "accuracy"
  type: "Accuracy"
  bottom: "ip3"
  bottom: "label"
  top: "accuracy"
  include {
    phase: TEST
  }
}
layer {
  name: "loss"
  type: "SoftmaxWithLoss"
  bottom: "ip3"
  bottom: "label"
  top: "loss"
}
I0505 11:49:00.611493  6669 layer_factory.hpp:77] Creating layer intercept
I0505 11:49:00.611502  6669 net.cpp:94] Creating Layer intercept
I0505 11:49:00.611507  6669 net.cpp:409] intercept -> data
I0505 11:49:00.611515  6669 net.cpp:409] intercept -> label
I0505 11:49:00.611521  6669 hdf5_data_layer.cpp:79] Loading list of HDF5 filenames from: /home/purduethu/scratch/radon/d/deng106/CNNStatisticalModel/distributions/input/20_distributions_900_sample_size_test-distributions-path.txt
I0505 11:49:00.611539  6669 hdf5_data_layer.cpp:93] Number of HDF5 files: 1
I0505 11:49:00.758546  6669 net.cpp:144] Setting up intercept
I0505 11:49:00.758581  6669 net.cpp:151] Top shape: 20 1 30 30 (18000)
I0505 11:49:00.758586  6669 net.cpp:151] Top shape: 20 (20)
I0505 11:49:00.758589  6669 net.cpp:159] Memory required for data: 72080
I0505 11:49:00.758595  6669 layer_factory.hpp:77] Creating layer label_intercept_1_split
I0505 11:49:00.758615  6669 net.cpp:94] Creating Layer label_intercept_1_split
I0505 11:49:00.758620  6669 net.cpp:435] label_intercept_1_split <- label
I0505 11:49:00.758626  6669 net.cpp:409] label_intercept_1_split -> label_intercept_1_split_0
I0505 11:49:00.758635  6669 net.cpp:409] label_intercept_1_split -> label_intercept_1_split_1
I0505 11:49:00.758679  6669 net.cpp:144] Setting up label_intercept_1_split
I0505 11:49:00.758685  6669 net.cpp:151] Top shape: 20 (20)
I0505 11:49:00.758689  6669 net.cpp:151] Top shape: 20 (20)
I0505 11:49:00.758692  6669 net.cpp:159] Memory required for data: 72240
I0505 11:49:00.758695  6669 layer_factory.hpp:77] Creating layer conv1
I0505 11:49:00.758707  6669 net.cpp:94] Creating Layer conv1
I0505 11:49:00.758710  6669 net.cpp:435] conv1 <- data
I0505 11:49:00.758715  6669 net.cpp:409] conv1 -> conv1
I0505 11:49:00.760191  6669 net.cpp:144] Setting up conv1
I0505 11:49:00.760205  6669 net.cpp:151] Top shape: 20 64 30 30 (1152000)
I0505 11:49:00.760210  6669 net.cpp:159] Memory required for data: 4680240
I0505 11:49:00.760220  6669 layer_factory.hpp:77] Creating layer relu1
I0505 11:49:00.760226  6669 net.cpp:94] Creating Layer relu1
I0505 11:49:00.760231  6669 net.cpp:435] relu1 <- conv1
I0505 11:49:00.760236  6669 net.cpp:396] relu1 -> conv1 (in-place)
I0505 11:49:00.760242  6669 net.cpp:144] Setting up relu1
I0505 11:49:00.760247  6669 net.cpp:151] Top shape: 20 64 30 30 (1152000)
I0505 11:49:00.760251  6669 net.cpp:159] Memory required for data: 9288240
I0505 11:49:00.760253  6669 layer_factory.hpp:77] Creating layer pool1
I0505 11:49:00.760260  6669 net.cpp:94] Creating Layer pool1
I0505 11:49:00.760264  6669 net.cpp:435] pool1 <- conv1
I0505 11:49:00.760268  6669 net.cpp:409] pool1 -> pool1
I0505 11:49:00.760325  6669 net.cpp:144] Setting up pool1
I0505 11:49:00.760332  6669 net.cpp:151] Top shape: 20 64 15 15 (288000)
I0505 11:49:00.760335  6669 net.cpp:159] Memory required for data: 10440240
I0505 11:49:00.760339  6669 layer_factory.hpp:77] Creating layer conv2
I0505 11:49:00.760347  6669 net.cpp:94] Creating Layer conv2
I0505 11:49:00.760351  6669 net.cpp:435] conv2 <- pool1
I0505 11:49:00.760356  6669 net.cpp:409] conv2 -> conv2
I0505 11:49:00.768786  6669 net.cpp:144] Setting up conv2
I0505 11:49:00.768833  6669 net.cpp:151] Top shape: 20 128 15 15 (576000)
I0505 11:49:00.768837  6669 net.cpp:159] Memory required for data: 12744240
I0505 11:49:00.768852  6669 layer_factory.hpp:77] Creating layer relu2
I0505 11:49:00.768859  6669 net.cpp:94] Creating Layer relu2
I0505 11:49:00.768862  6669 net.cpp:435] relu2 <- conv2
I0505 11:49:00.768867  6669 net.cpp:396] relu2 -> conv2 (in-place)
I0505 11:49:00.768875  6669 net.cpp:144] Setting up relu2
I0505 11:49:00.768879  6669 net.cpp:151] Top shape: 20 128 15 15 (576000)
I0505 11:49:00.768882  6669 net.cpp:159] Memory required for data: 15048240
I0505 11:49:00.768885  6669 layer_factory.hpp:77] Creating layer conv3
I0505 11:49:00.768893  6669 net.cpp:94] Creating Layer conv3
I0505 11:49:00.768898  6669 net.cpp:435] conv3 <- conv2
I0505 11:49:00.768903  6669 net.cpp:409] conv3 -> conv3
I0505 11:49:00.784382  6669 net.cpp:144] Setting up conv3
I0505 11:49:00.784399  6669 net.cpp:151] Top shape: 20 128 15 15 (576000)
I0505 11:49:00.784402  6669 net.cpp:159] Memory required for data: 17352240
I0505 11:49:00.784411  6669 layer_factory.hpp:77] Creating layer relu3
I0505 11:49:00.784420  6669 net.cpp:94] Creating Layer relu3
I0505 11:49:00.784422  6669 net.cpp:435] relu3 <- conv3
I0505 11:49:00.784427  6669 net.cpp:396] relu3 -> conv3 (in-place)
I0505 11:49:00.784435  6669 net.cpp:144] Setting up relu3
I0505 11:49:00.784440  6669 net.cpp:151] Top shape: 20 128 15 15 (576000)
I0505 11:49:00.784442  6669 net.cpp:159] Memory required for data: 19656240
I0505 11:49:00.784446  6669 layer_factory.hpp:77] Creating layer pool3
I0505 11:49:00.784451  6669 net.cpp:94] Creating Layer pool3
I0505 11:49:00.784453  6669 net.cpp:435] pool3 <- conv3
I0505 11:49:00.784458  6669 net.cpp:409] pool3 -> pool3
I0505 11:49:00.784500  6669 net.cpp:144] Setting up pool3
I0505 11:49:00.784508  6669 net.cpp:151] Top shape: 20 128 7 7 (125440)
I0505 11:49:00.784512  6669 net.cpp:159] Memory required for data: 20158000
I0505 11:49:00.784514  6669 layer_factory.hpp:77] Creating layer ip1
I0505 11:49:00.784521  6669 net.cpp:94] Creating Layer ip1
I0505 11:49:00.784525  6669 net.cpp:435] ip1 <- pool3
I0505 11:49:00.784530  6669 net.cpp:409] ip1 -> ip1
I0505 11:49:00.862398  6669 net.cpp:144] Setting up ip1
I0505 11:49:00.862421  6669 net.cpp:151] Top shape: 20 512 (10240)
I0505 11:49:00.862426  6669 net.cpp:159] Memory required for data: 20198960
I0505 11:49:00.862434  6669 layer_factory.hpp:77] Creating layer ip2
I0505 11:49:00.862445  6669 net.cpp:94] Creating Layer ip2
I0505 11:49:00.862450  6669 net.cpp:435] ip2 <- ip1
I0505 11:49:00.862457  6669 net.cpp:409] ip2 -> ip2
I0505 11:49:00.865643  6669 net.cpp:144] Setting up ip2
I0505 11:49:00.865651  6669 net.cpp:151] Top shape: 20 256 (5120)
I0505 11:49:00.865655  6669 net.cpp:159] Memory required for data: 20219440
I0505 11:49:00.865664  6669 layer_factory.hpp:77] Creating layer ip3
I0505 11:49:00.865670  6669 net.cpp:94] Creating Layer ip3
I0505 11:49:00.865674  6669 net.cpp:435] ip3 <- ip2
I0505 11:49:00.865679  6669 net.cpp:409] ip3 -> ip3
I0505 11:49:00.866118  6669 net.cpp:144] Setting up ip3
I0505 11:49:00.866127  6669 net.cpp:151] Top shape: 20 50 (1000)
I0505 11:49:00.866129  6669 net.cpp:159] Memory required for data: 20223440
I0505 11:49:00.866134  6669 layer_factory.hpp:77] Creating layer ip3_ip3_0_split
I0505 11:49:00.866140  6669 net.cpp:94] Creating Layer ip3_ip3_0_split
I0505 11:49:00.866144  6669 net.cpp:435] ip3_ip3_0_split <- ip3
I0505 11:49:00.866149  6669 net.cpp:409] ip3_ip3_0_split -> ip3_ip3_0_split_0
I0505 11:49:00.866154  6669 net.cpp:409] ip3_ip3_0_split -> ip3_ip3_0_split_1
I0505 11:49:00.866196  6669 net.cpp:144] Setting up ip3_ip3_0_split
I0505 11:49:00.866202  6669 net.cpp:151] Top shape: 20 50 (1000)
I0505 11:49:00.866205  6669 net.cpp:151] Top shape: 20 50 (1000)
I0505 11:49:00.866209  6669 net.cpp:159] Memory required for data: 20231440
I0505 11:49:00.866211  6669 layer_factory.hpp:77] Creating layer accuracy
I0505 11:49:00.866217  6669 net.cpp:94] Creating Layer accuracy
I0505 11:49:00.866220  6669 net.cpp:435] accuracy <- ip3_ip3_0_split_0
I0505 11:49:00.866225  6669 net.cpp:435] accuracy <- label_intercept_1_split_0
I0505 11:49:00.866230  6669 net.cpp:409] accuracy -> accuracy
…
