…
I0504 03:27:17.395165 23799 net.cpp:323] The NetState phase (0) differed from the phase (1) specified by a rule in layer intercept
I0504 03:27:17.395181 23799 net.cpp:323] The NetState phase (0) differed from the phase (1) specified by a rule in layer loss
I0504 03:27:17.395259 23799 net.cpp:52] Initializing net from parameters: 
state {
  phase: TRAIN
}
layer {
  name: "parameters"
  type: "HDF5Data"
  top: "data"
  top: "label"
  include {
    phase: TRAIN
  }
  hdf5_data_param {
    source: "/home/purduethu/scratch/radon/d/deng106/CNNStatisticalModel/distributions/input/5_distributions_100_sample_size_train-parameters-path.txt"
    batch_size: 20
  }
}
layer {
  name: "conv1"
  type: "Convolution"
  bottom: "data"
  top: "conv1"
  param {
    lr_mult: 1
  }
  param {
    lr_mult: 2
  }
  convolution_param {
    num_output: 64
    pad: 2
    kernel_size: 5
    stride: 1
    weight_filler {
      type: "gaussian"
      std: 0.0001
    }
    bias_filler {
      type: "constant"
    }
  }
}
layer {
  name: "relu1"
  type: "ReLU"
  bottom: "conv1"
  top: "conv1"
}
layer {
  name: "conv2"
  type: "Convolution"
  bottom: "conv1"
  top: "conv2"
  param {
    lr_mult: 1
  }
  param {
    lr_mult: 2
  }
  convolution_param {
    num_output: 64
    pad: 2
    kernel_size: 5
    stride: 1
    weight_filler {
      type: "gaussian"
      std: 0.01
    }
    bias_filler {
      type: "constant"
    }
  }
}
layer {
  name: "relu2"
  type: "ReLU"
  bottom: "conv2"
  top: "conv2"
}
layer {
  name: "pool2"
  type: "Pooling"
  bottom: "conv2"
  top: "pool2"
  pooling_param {
    pool: MAX
    kernel_size: 3
    stride: 2
  }
}
layer {
  name: "conv3"
  type: "Convolution"
  bottom: "pool2"
  top: "conv3"
  param {
    lr_mult: 1
  }
  param {
    lr_mult: 2
  }
  convolution_param {
    num_output: 128
    pad: 2
    kernel_size: 5
    stride: 1
    weight_filler {
      type: "gaussian"
      std: 0.01
    }
    bias_filler {
      type: "constant"
    }
  }
}
layer {
  name: "relu3"
  type: "ReLU"
  bottom: "conv3"
  top: "conv3"
}
layer {
  name: "conv4"
  type: "Convolution"
  bottom: "conv3"
  top: "conv4"
  param {
    lr_mult: 1
  }
  param {
    lr_mult: 2
  }
  convolution_param {
    num_output: 128
    pad: 2
    kernel_size: 5
    stride: 1
    weight_filler {
      type: "gaussian"
      std: 0.01
    }
    bias_filler {
      type: "constant"
    }
  }
}
layer {
  name: "relu4"
  type: "ReLU"
  bottom: "conv4"
  top: "conv4"
}
layer {
  name: "conv5"
  type: "Convolution"
  bottom: "conv4"
  top: "conv5"
  param {
    lr_mult: 1
  }
  param {
    lr_mult: 2
  }
  convolution_param {
    num_output: 128
    pad: 2
    kernel_size: 5
    stride: 1
    weight_filler {
      type: "gaussian"
      std: 0.01
    }
    bias_filler {
      type: "constant"
    }
  }
}
layer {
  name: "relu5"
  type: "ReLU"
  bottom: "conv5"
  top: "conv5"
}
layer {
  name: "pool5"
  type: "Pooling"
  bottom: "conv5"
  top: "pool5"
  pooling_param {
    pool: AVE
    kernel_size: 3
    stride: 2
  }
}
layer {
  name: "ip1"
  type: "InnerProduct"
  bottom: "pool5"
  top: "ip1"
  param {
    lr_mult: 1
  }
  param {
    lr_mult: 2
  }
  inner_product_param {
    num_output: 1024
    weight_filler {
      type: "gaussian"
      std: 0.1
    }
    bias_filler {
      type: "constant"
    }
  }
}
layer {
  name: "ip2"
  type: "InnerProduct"
  bottom: "ip1"
  top: "ip2"
  param {
    lr_mult: 1
  }
  param {
    lr_mult: 2
  }
  inner_product_param {
    num_output: 512
    weight_filler {
      type: "gaussian"
      std: 0.1
    }
    bias_filler {
      type: "constant"
    }
  }
}
layer {
  name: "ip3"
  type: "InnerProduct"
  bottom: "ip2"
  top: "ip3"
  param {
    lr_mult: 1
  }
  param {
    lr_mult: 2
  }
  inner_product_param {
    num_output: 1
    weight_filler {
      type: "gaussian"
      std: 0.1
    }
    bias_filler {
      type: "constant"
    }
  }
}
layer {
  name: "loss"
  type: "HuberLoss"
  bottom: "ip3"
  bottom: "label"
  top: "loss"
  include {
    phase: TRAIN
  }
}
I0504 03:27:17.395311 23799 layer_factory.hpp:77] Creating layer parameters
I0504 03:27:17.395328 23799 net.cpp:94] Creating Layer parameters
I0504 03:27:17.395332 23799 net.cpp:409] parameters -> data
I0504 03:27:17.395340 23799 net.cpp:409] parameters -> label
I0504 03:27:17.395347 23799 hdf5_data_layer.cpp:79] Loading list of HDF5 filenames from: /home/purduethu/scratch/radon/d/deng106/CNNStatisticalModel/distributions/input/5_distributions_100_sample_size_train-parameters-path.txt
I0504 03:27:17.395361 23799 hdf5_data_layer.cpp:93] Number of HDF5 files: 1
I0504 03:27:17.395934 23799 hdf5.cpp:32] Datatype class: H5T_FLOAT
I0504 03:27:17.414098 23799 net.cpp:144] Setting up parameters
I0504 03:27:17.414130 23799 net.cpp:151] Top shape: 20 1 10 10 (2000)
I0504 03:27:17.414136 23799 net.cpp:151] Top shape: 20 (20)
I0504 03:27:17.414139 23799 net.cpp:159] Memory required for data: 8080
I0504 03:27:17.414145 23799 layer_factory.hpp:77] Creating layer conv1
I0504 03:27:17.414162 23799 net.cpp:94] Creating Layer conv1
I0504 03:27:17.414166 23799 net.cpp:435] conv1 <- data
I0504 03:27:17.414172 23799 net.cpp:409] conv1 -> conv1
I0504 03:27:17.418400 23799 net.cpp:144] Setting up conv1
I0504 03:27:17.418416 23799 net.cpp:151] Top shape: 20 64 10 10 (128000)
I0504 03:27:17.418419 23799 net.cpp:159] Memory required for data: 520080
I0504 03:27:17.418429 23799 layer_factory.hpp:77] Creating layer relu1
I0504 03:27:17.418437 23799 net.cpp:94] Creating Layer relu1
I0504 03:27:17.418440 23799 net.cpp:435] relu1 <- conv1
I0504 03:27:17.418445 23799 net.cpp:396] relu1 -> conv1 (in-place)
I0504 03:27:17.418452 23799 net.cpp:144] Setting up relu1
I0504 03:27:17.418457 23799 net.cpp:151] Top shape: 20 64 10 10 (128000)
I0504 03:27:17.418459 23799 net.cpp:159] Memory required for data: 1032080
I0504 03:27:17.418462 23799 layer_factory.hpp:77] Creating layer conv2
I0504 03:27:17.418470 23799 net.cpp:94] Creating Layer conv2
I0504 03:27:17.418473 23799 net.cpp:435] conv2 <- conv1
I0504 03:27:17.418478 23799 net.cpp:409] conv2 -> conv2
I0504 03:27:17.424600 23799 net.cpp:144] Setting up conv2
I0504 03:27:17.424618 23799 net.cpp:151] Top shape: 20 64 10 10 (128000)
I0504 03:27:17.424623 23799 net.cpp:159] Memory required for data: 1544080
I0504 03:27:17.424631 23799 layer_factory.hpp:77] Creating layer relu2
I0504 03:27:17.424638 23799 net.cpp:94] Creating Layer relu2
I0504 03:27:17.424643 23799 net.cpp:435] relu2 <- conv2
I0504 03:27:17.424646 23799 net.cpp:396] relu2 -> conv2 (in-place)
I0504 03:27:17.424654 23799 net.cpp:144] Setting up relu2
I0504 03:27:17.424657 23799 net.cpp:151] Top shape: 20 64 10 10 (128000)
I0504 03:27:17.424660 23799 net.cpp:159] Memory required for data: 2056080
I0504 03:27:17.424664 23799 layer_factory.hpp:77] Creating layer pool2
I0504 03:27:17.424669 23799 net.cpp:94] Creating Layer pool2
I0504 03:27:17.424677 23799 net.cpp:435] pool2 <- conv2
I0504 03:27:17.424682 23799 net.cpp:409] pool2 -> pool2
I0504 03:27:17.424739 23799 net.cpp:144] Setting up pool2
I0504 03:27:17.424747 23799 net.cpp:151] Top shape: 20 64 5 5 (32000)
I0504 03:27:17.424751 23799 net.cpp:159] Memory required for data: 2184080
I0504 03:27:17.424754 23799 layer_factory.hpp:77] Creating layer conv3
I0504 03:27:17.424762 23799 net.cpp:94] Creating Layer conv3
I0504 03:27:17.424765 23799 net.cpp:435] conv3 <- pool2
I0504 03:27:17.424770 23799 net.cpp:409] conv3 -> conv3
I0504 03:27:17.432929 23799 net.cpp:144] Setting up conv3
I0504 03:27:17.432945 23799 net.cpp:151] Top shape: 20 128 5 5 (64000)
I0504 03:27:17.432947 23799 net.cpp:159] Memory required for data: 2440080
I0504 03:27:17.432956 23799 layer_factory.hpp:77] Creating layer relu3
I0504 03:27:17.432962 23799 net.cpp:94] Creating Layer relu3
I0504 03:27:17.432966 23799 net.cpp:435] relu3 <- conv3
I0504 03:27:17.432971 23799 net.cpp:396] relu3 -> conv3 (in-place)
I0504 03:27:17.432976 23799 net.cpp:144] Setting up relu3
I0504 03:27:17.432981 23799 net.cpp:151] Top shape: 20 128 5 5 (64000)
I0504 03:27:17.432984 23799 net.cpp:159] Memory required for data: 2696080
I0504 03:27:17.432986 23799 layer_factory.hpp:77] Creating layer conv4
I0504 03:27:17.432996 23799 net.cpp:94] Creating Layer conv4
I0504 03:27:17.432998 23799 net.cpp:435] conv4 <- conv3
I0504 03:27:17.433003 23799 net.cpp:409] conv4 -> conv4
I0504 03:27:17.448334 23799 net.cpp:144] Setting up conv4
I0504 03:27:17.448352 23799 net.cpp:151] Top shape: 20 128 5 5 (64000)
I0504 03:27:17.448356 23799 net.cpp:159] Memory required for data: 2952080
I0504 03:27:17.448364 23799 layer_factory.hpp:77] Creating layer relu4
I0504 03:27:17.448369 23799 net.cpp:94] Creating Layer relu4
I0504 03:27:17.448374 23799 net.cpp:435] relu4 <- conv4
I0504 03:27:17.448379 23799 net.cpp:396] relu4 -> conv4 (in-place)
I0504 03:27:17.448385 23799 net.cpp:144] Setting up relu4
I0504 03:27:17.448390 23799 net.cpp:151] Top shape: 20 128 5 5 (64000)
I0504 03:27:17.448392 23799 net.cpp:159] Memory required for data: 3208080
I0504 03:27:17.448395 23799 layer_factory.hpp:77] Creating layer conv5
I0504 03:27:17.448402 23799 net.cpp:94] Creating Layer conv5
I0504 03:27:17.448405 23799 net.cpp:435] conv5 <- conv4
I0504 03:27:17.448410 23799 net.cpp:409] conv5 -> conv5
I0504 03:27:17.463387 23799 net.cpp:144] Setting up conv5
I0504 03:27:17.463407 23799 net.cpp:151] Top shape: 20 128 5 5 (64000)
I0504 03:27:17.463409 23799 net.cpp:159] Memory required for data: 3464080
I0504 03:27:17.463419 23799 layer_factory.hpp:77] Creating layer relu5
I0504 03:27:17.463426 23799 net.cpp:94] Creating Layer relu5
I0504 03:27:17.463429 23799 net.cpp:435] relu5 <- conv5
I0504 03:27:17.463435 23799 net.cpp:396] relu5 -> conv5 (in-place)
I0504 03:27:17.463443 23799 net.cpp:144] Setting up relu5
I0504 03:27:17.463448 23799 net.cpp:151] Top shape: 20 128 5 5 (64000)
I0504 03:27:17.463450 23799 net.cpp:159] Memory required for data: 3720080
I0504 03:27:17.463454 23799 layer_factory.hpp:77] Creating layer pool5
I0504 03:27:17.463459 23799 net.cpp:94] Creating Layer pool5
I0504 03:27:17.463461 23799 net.cpp:435] pool5 <- conv5
I0504 03:27:17.463466 23799 net.cpp:409] pool5 -> pool5
I0504 03:27:17.463510 23799 net.cpp:144] Setting up pool5
I0504 03:27:17.463517 23799 net.cpp:151] Top shape: 20 128 2 2 (10240)
I0504 03:27:17.463521 23799 net.cpp:159] Memory required for data: 3761040
I0504 03:27:17.463523 23799 layer_factory.hpp:77] Creating layer ip1
I0504 03:27:17.463533 23799 net.cpp:94] Creating Layer ip1
I0504 03:27:17.463536 23799 net.cpp:435] ip1 <- pool5
I0504 03:27:17.463543 23799 net.cpp:409] ip1 -> ip1
I0504 03:27:17.477511 23799 net.cpp:144] Setting up ip1
I0504 03:27:17.477531 23799 net.cpp:151] Top shape: 20 1024 (20480)
I0504 03:27:17.477535 23799 net.cpp:159] Memory required for data: 3842960
I0504 03:27:17.477542 23799 layer_factory.hpp:77] Creating layer ip2
I0504 03:27:17.477550 23799 net.cpp:94] Creating Layer ip2
I0504 03:27:17.477553 23799 net.cpp:435] ip2 <- ip1
I0504 03:27:17.477566 23799 net.cpp:409] ip2 -> ip2
I0504 03:27:17.490646 23799 net.cpp:144] Setting up ip2
I0504 03:27:17.490665 23799 net.cpp:151] Top shape: 20 512 (10240)
I0504 03:27:17.490669 23799 net.cpp:159] Memory required for data: 3883920
I0504 03:27:17.490675 23799 layer_factory.hpp:77] Creating layer ip3
I0504 03:27:17.490684 23799 net.cpp:94] Creating Layer ip3
I0504 03:27:17.490689 23799 net.cpp:435] ip3 <- ip2
I0504 03:27:17.490694 23799 net.cpp:409] ip3 -> ip3
I0504 03:27:17.490813 23799 net.cpp:144] Setting up ip3
I0504 03:27:17.490821 23799 net.cpp:151] Top shape: 20 1 (20)
I0504 03:27:17.490825 23799 net.cpp:159] Memory required for data: 3884000
I0504 03:27:17.490830 23799 layer_factory.hpp:77] Creating layer loss
I0504 03:27:17.490841 23799 net.cpp:94] Creating Layer loss
I0504 03:27:17.490845 23799 net.cpp:435] loss <- ip3
I0504 03:27:17.490849 23799 net.cpp:435] loss <- label
I0504 03:27:17.490854 23799 net.cpp:409] loss -> loss
I0504 03:27:17.490903 23799 net.cpp:144] Setting up loss
…
I0504 03:27:17.562054 23799 net.cpp:323] The NetState phase (0) differed from the phase (1) specified by a rule in layer intercept
I0504 03:27:17.562069 23799 net.cpp:323] The NetState phase (0) differed from the phase (1) specified by a rule in layer accuracy
I0504 03:27:17.562155 23799 net.cpp:52] Initializing net from parameters: 
state {
  phase: TRAIN
}
layer {
  name: "parameters"
  type: "HDF5Data"
  top: "data"
  top: "label"
  include {
    phase: TRAIN
  }
  hdf5_data_param {
    source: "/home/purduethu/scratch/radon/d/deng106/CNNStatisticalModel/distributions/input/5_distributions_100_sample_size_train-distributions-path.txt"
    batch_size: 20
  }
}
layer {
  name: "conv1"
  type: "Convolution"
  bottom: "data"
  top: "conv1"
  param {
    lr_mult: 1
  }
  param {
    lr_mult: 2
  }
  convolution_param {
    num_output: 64
    pad: 2
    kernel_size: 5
    stride: 1
    weight_filler {
      type: "gaussian"
      std: 0.0001
    }
    bias_filler {
      type: "constant"
    }
  }
}
layer {
  name: "relu1"
  type: "ReLU"
  bottom: "conv1"
  top: "conv1"
}
layer {
  name: "conv2"
  type: "Convolution"
  bottom: "conv1"
  top: "conv2"
  param {
    lr_mult: 1
  }
  param {
    lr_mult: 2
  }
  convolution_param {
    num_output: 64
    pad: 2
    kernel_size: 5
    stride: 1
    weight_filler {
      type: "gaussian"
      std: 0.01
    }
    bias_filler {
      type: "constant"
    }
  }
}
layer {
  name: "relu2"
  type: "ReLU"
  bottom: "conv2"
  top: "conv2"
}
layer {
  name: "pool2"
  type: "Pooling"
  bottom: "conv2"
  top: "pool2"
  pooling_param {
    pool: MAX
    kernel_size: 3
    stride: 2
  }
}
layer {
  name: "conv3"
  type: "Convolution"
  bottom: "pool2"
  top: "conv3"
  param {
    lr_mult: 1
  }
  param {
    lr_mult: 2
  }
  convolution_param {
    num_output: 128
    pad: 2
    kernel_size: 5
    stride: 1
    weight_filler {
      type: "gaussian"
      std: 0.01
    }
    bias_filler {
      type: "constant"
    }
  }
}
layer {
  name: "relu3"
  type: "ReLU"
  bottom: "conv3"
  top: "conv3"
}
layer {
  name: "conv4"
  type: "Convolution"
  bottom: "conv3"
  top: "conv4"
  param {
    lr_mult: 1
  }
  param {
    lr_mult: 2
  }
  convolution_param {
    num_output: 128
    pad: 2
    kernel_size: 5
    stride: 1
    weight_filler {
      type: "gaussian"
      std: 0.01
    }
    bias_filler {
      type: "constant"
    }
  }
}
layer {
  name: "relu4"
  type: "ReLU"
  bottom: "conv4"
  top: "conv4"
}
layer {
  name: "conv5"
  type: "Convolution"
  bottom: "conv4"
  top: "conv5"
  param {
    lr_mult: 1
  }
  param {
    lr_mult: 2
  }
  convolution_param {
    num_output: 128
    pad: 2
    kernel_size: 5
    stride: 1
    weight_filler {
      type: "gaussian"
      std: 0.01
    }
    bias_filler {
      type: "constant"
    }
  }
}
layer {
  name: "relu5"
  type: "ReLU"
  bottom: "conv5"
  top: "conv5"
}
layer {
  name: "pool5"
  type: "Pooling"
  bottom: "conv5"
  top: "pool5"
  pooling_param {
    pool: AVE
    kernel_size: 3
    stride: 2
  }
}
layer {
  name: "ip1"
  type: "InnerProduct"
  bottom: "pool5"
  top: "ip1"
  param {
    lr_mult: 1
  }
  param {
    lr_mult: 2
  }
  inner_product_param {
    num_output: 1024
    weight_filler {
      type: "gaussian"
      std: 0.1
    }
    bias_filler {
      type: "constant"
    }
  }
}
layer {
  name: "ip2"
  type: "InnerProduct"
  bottom: "ip1"
  top: "ip2"
  param {
    lr_mult: 1
  }
  param {
    lr_mult: 2
  }
  inner_product_param {
    num_output: 512
    weight_filler {
      type: "gaussian"
      std: 0.1
    }
    bias_filler {
      type: "constant"
    }
  }
}
layer {
  name: "ip3"
  type: "InnerProduct"
  bottom: "ip2"
  top: "ip3"
  param {
    lr_mult: 1
  }
  param {
    lr_mult: 2
  }
  inner_product_param {
    num_output: 50
    weight_filler {
      type: "gaussian"
      std: 0.1
    }
    bias_filler {
      type: "constant"
    }
  }
}
layer {
  name: "loss"
  type: "SoftmaxWithLoss"
  bottom: "ip3"
  bottom: "label"
  top: "loss"
}
I0504 03:27:17.562203 23799 layer_factory.hpp:77] Creating layer parameters
I0504 03:27:17.562211 23799 net.cpp:94] Creating Layer parameters
I0504 03:27:17.562214 23799 net.cpp:409] parameters -> data
I0504 03:27:17.562222 23799 net.cpp:409] parameters -> label
I0504 03:27:17.562227 23799 hdf5_data_layer.cpp:79] Loading list of HDF5 filenames from: /home/purduethu/scratch/radon/d/deng106/CNNStatisticalModel/distributions/input/5_distributions_100_sample_size_train-distributions-path.txt
I0504 03:27:17.562243 23799 hdf5_data_layer.cpp:93] Number of HDF5 files: 1
I0504 03:27:17.578088 23799 hdf5.cpp:35] Datatype class: H5T_INTEGER
I0504 03:27:17.578516 23799 net.cpp:144] Setting up parameters
I0504 03:27:17.578531 23799 net.cpp:151] Top shape: 20 1 10 10 (2000)
I0504 03:27:17.578536 23799 net.cpp:151] Top shape: 20 (20)
I0504 03:27:17.578538 23799 net.cpp:159] Memory required for data: 8080
I0504 03:27:17.578544 23799 layer_factory.hpp:77] Creating layer conv1
I0504 03:27:17.578560 23799 net.cpp:94] Creating Layer conv1
I0504 03:27:17.578564 23799 net.cpp:435] conv1 <- data
I0504 03:27:17.578570 23799 net.cpp:409] conv1 -> conv1
I0504 03:27:17.580338 23799 net.cpp:144] Setting up conv1
I0504 03:27:17.580351 23799 net.cpp:151] Top shape: 20 64 10 10 (128000)
I0504 03:27:17.580355 23799 net.cpp:159] Memory required for data: 520080
I0504 03:27:17.580364 23799 layer_factory.hpp:77] Creating layer relu1
I0504 03:27:17.580371 23799 net.cpp:94] Creating Layer relu1
I0504 03:27:17.580375 23799 net.cpp:435] relu1 <- conv1
I0504 03:27:17.580379 23799 net.cpp:396] relu1 -> conv1 (in-place)
I0504 03:27:17.580386 23799 net.cpp:144] Setting up relu1
I0504 03:27:17.580390 23799 net.cpp:151] Top shape: 20 64 10 10 (128000)
I0504 03:27:17.580394 23799 net.cpp:159] Memory required for data: 1032080
I0504 03:27:17.580396 23799 layer_factory.hpp:77] Creating layer conv2
I0504 03:27:17.580404 23799 net.cpp:94] Creating Layer conv2
I0504 03:27:17.580406 23799 net.cpp:435] conv2 <- conv1
I0504 03:27:17.580410 23799 net.cpp:409] conv2 -> conv2
I0504 03:27:17.585860 23799 net.cpp:144] Setting up conv2
I0504 03:27:17.585875 23799 net.cpp:151] Top shape: 20 64 10 10 (128000)
I0504 03:27:17.585878 23799 net.cpp:159] Memory required for data: 1544080
I0504 03:27:17.585887 23799 layer_factory.hpp:77] Creating layer relu2
I0504 03:27:17.585894 23799 net.cpp:94] Creating Layer relu2
I0504 03:27:17.585897 23799 net.cpp:435] relu2 <- conv2
I0504 03:27:17.585901 23799 net.cpp:396] relu2 -> conv2 (in-place)
I0504 03:27:17.585908 23799 net.cpp:144] Setting up relu2
I0504 03:27:17.585912 23799 net.cpp:151] Top shape: 20 64 10 10 (128000)
I0504 03:27:17.585916 23799 net.cpp:159] Memory required for data: 2056080
I0504 03:27:17.585918 23799 layer_factory.hpp:77] Creating layer pool2
I0504 03:27:17.585923 23799 net.cpp:94] Creating Layer pool2
I0504 03:27:17.585927 23799 net.cpp:435] pool2 <- conv2
I0504 03:27:17.585930 23799 net.cpp:409] pool2 -> pool2
I0504 03:27:17.585983 23799 net.cpp:144] Setting up pool2
I0504 03:27:17.585989 23799 net.cpp:151] Top shape: 20 64 5 5 (32000)
I0504 03:27:17.585994 23799 net.cpp:159] Memory required for data: 2184080
I0504 03:27:17.585996 23799 layer_factory.hpp:77] Creating layer conv3
I0504 03:27:17.586004 23799 net.cpp:94] Creating Layer conv3
I0504 03:27:17.586006 23799 net.cpp:435] conv3 <- pool2
I0504 03:27:17.586011 23799 net.cpp:409] conv3 -> conv3
I0504 03:27:17.594656 23799 net.cpp:144] Setting up conv3
I0504 03:27:17.594679 23799 net.cpp:151] Top shape: 20 128 5 5 (64000)
I0504 03:27:17.594683 23799 net.cpp:159] Memory required for data: 2440080
I0504 03:27:17.594692 23799 layer_factory.hpp:77] Creating layer relu3
I0504 03:27:17.594698 23799 net.cpp:94] Creating Layer relu3
I0504 03:27:17.594702 23799 net.cpp:435] relu3 <- conv3
I0504 03:27:17.594707 23799 net.cpp:396] relu3 -> conv3 (in-place)
I0504 03:27:17.594713 23799 net.cpp:144] Setting up relu3
I0504 03:27:17.594717 23799 net.cpp:151] Top shape: 20 128 5 5 (64000)
I0504 03:27:17.594720 23799 net.cpp:159] Memory required for data: 2696080
I0504 03:27:17.594722 23799 layer_factory.hpp:77] Creating layer conv4
I0504 03:27:17.594732 23799 net.cpp:94] Creating Layer conv4
I0504 03:27:17.594734 23799 net.cpp:435] conv4 <- conv3
I0504 03:27:17.594739 23799 net.cpp:409] conv4 -> conv4
I0504 03:27:17.609717 23799 net.cpp:144] Setting up conv4
I0504 03:27:17.609736 23799 net.cpp:151] Top shape: 20 128 5 5 (64000)
I0504 03:27:17.609740 23799 net.cpp:159] Memory required for data: 2952080
I0504 03:27:17.609747 23799 layer_factory.hpp:77] Creating layer relu4
I0504 03:27:17.609753 23799 net.cpp:94] Creating Layer relu4
I0504 03:27:17.609757 23799 net.cpp:435] relu4 <- conv4
I0504 03:27:17.609761 23799 net.cpp:396] relu4 -> conv4 (in-place)
I0504 03:27:17.609769 23799 net.cpp:144] Setting up relu4
I0504 03:27:17.609773 23799 net.cpp:151] Top shape: 20 128 5 5 (64000)
I0504 03:27:17.609776 23799 net.cpp:159] Memory required for data: 3208080
I0504 03:27:17.609779 23799 layer_factory.hpp:77] Creating layer conv5
I0504 03:27:17.609786 23799 net.cpp:94] Creating Layer conv5
I0504 03:27:17.609789 23799 net.cpp:435] conv5 <- conv4
I0504 03:27:17.609794 23799 net.cpp:409] conv5 -> conv5
I0504 03:27:17.625011 23799 net.cpp:144] Setting up conv5
I0504 03:27:17.625031 23799 net.cpp:151] Top shape: 20 128 5 5 (64000)
I0504 03:27:17.625036 23799 net.cpp:159] Memory required for data: 3464080
I0504 03:27:17.625046 23799 layer_factory.hpp:77] Creating layer relu5
I0504 03:27:17.625051 23799 net.cpp:94] Creating Layer relu5
I0504 03:27:17.625056 23799 net.cpp:435] relu5 <- conv5
I0504 03:27:17.625061 23799 net.cpp:396] relu5 -> conv5 (in-place)
I0504 03:27:17.625067 23799 net.cpp:144] Setting up relu5
I0504 03:27:17.625072 23799 net.cpp:151] Top shape: 20 128 5 5 (64000)
I0504 03:27:17.625074 23799 net.cpp:159] Memory required for data: 3720080
I0504 03:27:17.625077 23799 layer_factory.hpp:77] Creating layer pool5
I0504 03:27:17.625082 23799 net.cpp:94] Creating Layer pool5
I0504 03:27:17.625085 23799 net.cpp:435] pool5 <- conv5
I0504 03:27:17.625088 23799 net.cpp:409] pool5 -> pool5
I0504 03:27:17.625129 23799 net.cpp:144] Setting up pool5
I0504 03:27:17.625136 23799 net.cpp:151] Top shape: 20 128 2 2 (10240)
I0504 03:27:17.625139 23799 net.cpp:159] Memory required for data: 3761040
I0504 03:27:17.625143 23799 layer_factory.hpp:77] Creating layer ip1
I0504 03:27:17.625149 23799 net.cpp:94] Creating Layer ip1
I0504 03:27:17.625152 23799 net.cpp:435] ip1 <- pool5
I0504 03:27:17.625156 23799 net.cpp:409] ip1 -> ip1
I0504 03:27:17.638293 23799 net.cpp:144] Setting up ip1
I0504 03:27:17.638311 23799 net.cpp:151] Top shape: 20 1024 (20480)
I0504 03:27:17.638315 23799 net.cpp:159] Memory required for data: 3842960
I0504 03:27:17.638321 23799 layer_factory.hpp:77] Creating layer ip2
I0504 03:27:17.638330 23799 net.cpp:94] Creating Layer ip2
I0504 03:27:17.638335 23799 net.cpp:435] ip2 <- ip1
I0504 03:27:17.638340 23799 net.cpp:409] ip2 -> ip2
I0504 03:27:17.651459 23799 net.cpp:144] Setting up ip2
I0504 03:27:17.651477 23799 net.cpp:151] Top shape: 20 512 (10240)
I0504 03:27:17.651480 23799 net.cpp:159] Memory required for data: 3883920
I0504 03:27:17.651486 23799 layer_factory.hpp:77] Creating layer ip3
I0504 03:27:17.651494 23799 net.cpp:94] Creating Layer ip3
I0504 03:27:17.651499 23799 net.cpp:435] ip3 <- ip2
I0504 03:27:17.651504 23799 net.cpp:409] ip3 -> ip3
I0504 03:27:17.652243 23799 net.cpp:144] Setting up ip3
I0504 03:27:17.652252 23799 net.cpp:151] Top shape: 20 50 (1000)
I0504 03:27:17.652261 23799 net.cpp:159] Memory required for data: 3887920
I0504 03:27:17.652267 23799 layer_factory.hpp:77] Creating layer loss
I0504 03:27:17.652274 23799 net.cpp:94] Creating Layer loss
I0504 03:27:17.652277 23799 net.cpp:435] loss <- ip3
I0504 03:27:17.652281 23799 net.cpp:435] loss <- label
I0504 03:27:17.652287 23799 net.cpp:409] loss -> loss
I0504 03:27:17.652294 23799 layer_factory.hpp:77] Creating layer loss
…
I0504 03:27:17.652829 23799 solver.cpp:181] Creating test net (#0) specified by net file: ./protocol/dis_5_100_dimension.protocol_distribution
I0504 03:27:17.652866 23799 net.cpp:323] The NetState phase (1) differed from the phase (0) specified by a rule in layer parameters
I0504 03:27:17.652966 23799 net.cpp:52] Initializing net from parameters: 
state {
  phase: TEST
}
layer {
  name: "intercept"
  type: "HDF5Data"
  top: "data"
  top: "label"
  include {
    phase: TEST
  }
  hdf5_data_param {
    source: "/home/purduethu/scratch/radon/d/deng106/CNNStatisticalModel/distributions/input/5_distributions_100_sample_size_test-distributions-path.txt"
    batch_size: 20
  }
}
layer {
  name: "conv1"
  type: "Convolution"
  bottom: "data"
  top: "conv1"
  param {
    lr_mult: 1
  }
  param {
    lr_mult: 2
  }
  convolution_param {
    num_output: 64
    pad: 2
    kernel_size: 5
    stride: 1
    weight_filler {
      type: "gaussian"
      std: 0.0001
    }
    bias_filler {
      type: "constant"
    }
  }
}
layer {
  name: "relu1"
  type: "ReLU"
  bottom: "conv1"
  top: "conv1"
}
layer {
  name: "conv2"
  type: "Convolution"
  bottom: "conv1"
  top: "conv2"
  param {
    lr_mult: 1
  }
  param {
    lr_mult: 2
  }
  convolution_param {
    num_output: 64
    pad: 2
    kernel_size: 5
    stride: 1
    weight_filler {
      type: "gaussian"
      std: 0.01
    }
    bias_filler {
      type: "constant"
    }
  }
}
layer {
  name: "relu2"
  type: "ReLU"
  bottom: "conv2"
  top: "conv2"
}
layer {
  name: "pool2"
  type: "Pooling"
  bottom: "conv2"
  top: "pool2"
  pooling_param {
    pool: MAX
    kernel_size: 3
    stride: 2
  }
}
layer {
  name: "conv3"
  type: "Convolution"
  bottom: "pool2"
  top: "conv3"
  param {
    lr_mult: 1
  }
  param {
    lr_mult: 2
  }
  convolution_param {
    num_output: 128
    pad: 2
    kernel_size: 5
    stride: 1
    weight_filler {
      type: "gaussian"
      std: 0.01
    }
    bias_filler {
      type: "constant"
    }
  }
}
layer {
  name: "relu3"
  type: "ReLU"
  bottom: "conv3"
  top: "conv3"
}
layer {
  name: "conv4"
  type: "Convolution"
  bottom: "conv3"
  top: "conv4"
  param {
    lr_mult: 1
  }
  param {
    lr_mult: 2
  }
  convolution_param {
    num_output: 128
    pad: 2
    kernel_size: 5
    stride: 1
    weight_filler {
      type: "gaussian"
      std: 0.01
    }
    bias_filler {
      type: "constant"
    }
  }
}
layer {
  name: "relu4"
  type: "ReLU"
  bottom: "conv4"
  top: "conv4"
}
layer {
  name: "conv5"
  type: "Convolution"
  bottom: "conv4"
  top: "conv5"
  param {
    lr_mult: 1
  }
  param {
    lr_mult: 2
  }
  convolution_param {
    num_output: 128
    pad: 2
    kernel_size: 5
    stride: 1
    weight_filler {
      type: "gaussian"
      std: 0.01
    }
    bias_filler {
      type: "constant"
    }
  }
}
layer {
  name: "relu5"
  type: "ReLU"
  bottom: "conv5"
  top: "conv5"
}
layer {
  name: "pool5"
  type: "Pooling"
  bottom: "conv5"
  top: "pool5"
  pooling_param {
    pool: AVE
    kernel_size: 3
    stride: 2
  }
}
layer {
  name: "ip1"
  type: "InnerProduct"
  bottom: "pool5"
  top: "ip1"
  param {
    lr_mult: 1
  }
  param {
    lr_mult: 2
  }
  inner_product_param {
    num_output: 1024
    weight_filler {
      type: "gaussian"
      std: 0.1
    }
    bias_filler {
      type: "constant"
    }
  }
}
layer {
  name: "ip2"
  type: "InnerProduct"
  bottom: "ip1"
  top: "ip2"
  param {
    lr_mult: 1
  }
  param {
    lr_mult: 2
  }
  inner_product_param {
    num_output: 512
    weight_filler {
      type: "gaussian"
      std: 0.1
    }
    bias_filler {
      type: "constant"
    }
  }
}
layer {
  name: "ip3"
  type: "InnerProduct"
  bottom: "ip2"
  top: "ip3"
  param {
    lr_mult: 1
  }
  param {
    lr_mult: 2
  }
  inner_product_param {
    num_output: 50
    weight_filler {
      type: "gaussian"
      std: 0.1
    }
    bias_filler {
      type: "constant"
    }
  }
}
layer {
  name: "accuracy"
  type: "Accuracy"
  bottom: "ip3"
  bottom: "label"
  top: "accuracy"
  include {
    phase: TEST
  }
}
layer {
  name: "loss"
  type: "SoftmaxWithLoss"
  bottom: "ip3"
  bottom: "label"
  top: "loss"
}
I0504 03:27:17.653034 23799 layer_factory.hpp:77] Creating layer intercept
I0504 03:27:17.653043 23799 net.cpp:94] Creating Layer intercept
I0504 03:27:17.653048 23799 net.cpp:409] intercept -> data
I0504 03:27:17.653053 23799 net.cpp:409] intercept -> label
I0504 03:27:17.653059 23799 hdf5_data_layer.cpp:79] Loading list of HDF5 filenames from: /home/purduethu/scratch/radon/d/deng106/CNNStatisticalModel/distributions/input/5_distributions_100_sample_size_test-distributions-path.txt
I0504 03:27:17.653079 23799 hdf5_data_layer.cpp:93] Number of HDF5 files: 1
I0504 03:27:17.657745 23799 net.cpp:144] Setting up intercept
I0504 03:27:17.657774 23799 net.cpp:151] Top shape: 20 1 10 10 (2000)
I0504 03:27:17.657779 23799 net.cpp:151] Top shape: 20 (20)
I0504 03:27:17.657783 23799 net.cpp:159] Memory required for data: 8080
I0504 03:27:17.657788 23799 layer_factory.hpp:77] Creating layer label_intercept_1_split
I0504 03:27:17.657805 23799 net.cpp:94] Creating Layer label_intercept_1_split
I0504 03:27:17.657809 23799 net.cpp:435] label_intercept_1_split <- label
I0504 03:27:17.657815 23799 net.cpp:409] label_intercept_1_split -> label_intercept_1_split_0
I0504 03:27:17.657824 23799 net.cpp:409] label_intercept_1_split -> label_intercept_1_split_1
I0504 03:27:17.657863 23799 net.cpp:144] Setting up label_intercept_1_split
I0504 03:27:17.657869 23799 net.cpp:151] Top shape: 20 (20)
I0504 03:27:17.657873 23799 net.cpp:151] Top shape: 20 (20)
I0504 03:27:17.657876 23799 net.cpp:159] Memory required for data: 8240
I0504 03:27:17.657878 23799 layer_factory.hpp:77] Creating layer conv1
I0504 03:27:17.657889 23799 net.cpp:94] Creating Layer conv1
I0504 03:27:17.657893 23799 net.cpp:435] conv1 <- data
I0504 03:27:17.657897 23799 net.cpp:409] conv1 -> conv1
I0504 03:27:17.658725 23799 net.cpp:144] Setting up conv1
I0504 03:27:17.658740 23799 net.cpp:151] Top shape: 20 64 10 10 (128000)
I0504 03:27:17.658749 23799 net.cpp:159] Memory required for data: 520240
I0504 03:27:17.658761 23799 layer_factory.hpp:77] Creating layer relu1
I0504 03:27:17.658766 23799 net.cpp:94] Creating Layer relu1
I0504 03:27:17.658771 23799 net.cpp:435] relu1 <- conv1
I0504 03:27:17.658774 23799 net.cpp:396] relu1 -> conv1 (in-place)
I0504 03:27:17.658782 23799 net.cpp:144] Setting up relu1
I0504 03:27:17.658787 23799 net.cpp:151] Top shape: 20 64 10 10 (128000)
I0504 03:27:17.658788 23799 net.cpp:159] Memory required for data: 1032240
I0504 03:27:17.658792 23799 layer_factory.hpp:77] Creating layer conv2
I0504 03:27:17.658799 23799 net.cpp:94] Creating Layer conv2
I0504 03:27:17.658802 23799 net.cpp:435] conv2 <- conv1
I0504 03:27:17.658807 23799 net.cpp:409] conv2 -> conv2
I0504 03:27:17.662879 23799 net.cpp:144] Setting up conv2
I0504 03:27:17.662894 23799 net.cpp:151] Top shape: 20 64 10 10 (128000)
I0504 03:27:17.662897 23799 net.cpp:159] Memory required for data: 1544240
I0504 03:27:17.662904 23799 layer_factory.hpp:77] Creating layer relu2
I0504 03:27:17.662910 23799 net.cpp:94] Creating Layer relu2
I0504 03:27:17.662914 23799 net.cpp:435] relu2 <- conv2
I0504 03:27:17.662919 23799 net.cpp:396] relu2 -> conv2 (in-place)
I0504 03:27:17.662925 23799 net.cpp:144] Setting up relu2
I0504 03:27:17.662928 23799 net.cpp:151] Top shape: 20 64 10 10 (128000)
I0504 03:27:17.662931 23799 net.cpp:159] Memory required for data: 2056240
I0504 03:27:17.662935 23799 layer_factory.hpp:77] Creating layer pool2
I0504 03:27:17.662940 23799 net.cpp:94] Creating Layer pool2
I0504 03:27:17.662943 23799 net.cpp:435] pool2 <- conv2
I0504 03:27:17.662947 23799 net.cpp:409] pool2 -> pool2
I0504 03:27:17.662999 23799 net.cpp:144] Setting up pool2
I0504 03:27:17.663007 23799 net.cpp:151] Top shape: 20 64 5 5 (32000)
I0504 03:27:17.663009 23799 net.cpp:159] Memory required for data: 2184240
I0504 03:27:17.663012 23799 layer_factory.hpp:77] Creating layer conv3
I0504 03:27:17.663019 23799 net.cpp:94] Creating Layer conv3
I0504 03:27:17.663023 23799 net.cpp:435] conv3 <- pool2
I0504 03:27:17.663028 23799 net.cpp:409] conv3 -> conv3
I0504 03:27:17.669070 23799 net.cpp:144] Setting up conv3
I0504 03:27:17.669085 23799 net.cpp:151] Top shape: 20 128 5 5 (64000)
I0504 03:27:17.669088 23799 net.cpp:159] Memory required for data: 2440240
I0504 03:27:17.669096 23799 layer_factory.hpp:77] Creating layer relu3
I0504 03:27:17.669103 23799 net.cpp:94] Creating Layer relu3
I0504 03:27:17.669106 23799 net.cpp:435] relu3 <- conv3
I0504 03:27:17.669111 23799 net.cpp:396] relu3 -> conv3 (in-place)
I0504 03:27:17.669117 23799 net.cpp:144] Setting up relu3
I0504 03:27:17.669121 23799 net.cpp:151] Top shape: 20 128 5 5 (64000)
I0504 03:27:17.669124 23799 net.cpp:159] Memory required for data: 2696240
I0504 03:27:17.669127 23799 layer_factory.hpp:77] Creating layer conv4
I0504 03:27:17.669134 23799 net.cpp:94] Creating Layer conv4
I0504 03:27:17.669137 23799 net.cpp:435] conv4 <- conv3
I0504 03:27:17.669142 23799 net.cpp:409] conv4 -> conv4
I0504 03:27:17.681725 23799 net.cpp:144] Setting up conv4
I0504 03:27:17.681742 23799 net.cpp:151] Top shape: 20 128 5 5 (64000)
I0504 03:27:17.681746 23799 net.cpp:159] Memory required for data: 2952240
I0504 03:27:17.681753 23799 layer_factory.hpp:77] Creating layer relu4
I0504 03:27:17.681758 23799 net.cpp:94] Creating Layer relu4
I0504 03:27:17.681762 23799 net.cpp:435] relu4 <- conv4
I0504 03:27:17.681767 23799 net.cpp:396] relu4 -> conv4 (in-place)
I0504 03:27:17.681774 23799 net.cpp:144] Setting up relu4
I0504 03:27:17.681778 23799 net.cpp:151] Top shape: 20 128 5 5 (64000)
I0504 03:27:17.681782 23799 net.cpp:159] Memory required for data: 3208240
I0504 03:27:17.681783 23799 layer_factory.hpp:77] Creating layer conv5
I0504 03:27:17.681792 23799 net.cpp:94] Creating Layer conv5
I0504 03:27:17.681794 23799 net.cpp:435] conv5 <- conv4
I0504 03:27:17.681799 23799 net.cpp:409] conv5 -> conv5
I0504 03:27:17.694463 23799 net.cpp:144] Setting up conv5
I0504 03:27:17.694481 23799 net.cpp:151] Top shape: 20 128 5 5 (64000)
I0504 03:27:17.694491 23799 net.cpp:159] Memory required for data: 3464240
I0504 03:27:17.694502 23799 layer_factory.hpp:77] Creating layer relu5
I0504 03:27:17.694509 23799 net.cpp:94] Creating Layer relu5
I0504 03:27:17.694512 23799 net.cpp:435] relu5 <- conv5
I0504 03:27:17.694517 23799 net.cpp:396] relu5 -> conv5 (in-place)
I0504 03:27:17.694525 23799 net.cpp:144] Setting up relu5
I0504 03:27:17.694528 23799 net.cpp:151] Top shape: 20 128 5 5 (64000)
I0504 03:27:17.694531 23799 net.cpp:159] Memory required for data: 3720240
I0504 03:27:17.694535 23799 layer_factory.hpp:77] Creating layer pool5
I0504 03:27:17.694540 23799 net.cpp:94] Creating Layer pool5
I0504 03:27:17.694542 23799 net.cpp:435] pool5 <- conv5
I0504 03:27:17.694546 23799 net.cpp:409] pool5 -> pool5
I0504 03:27:17.694584 23799 net.cpp:144] Setting up pool5
I0504 03:27:17.694591 23799 net.cpp:151] Top shape: 20 128 2 2 (10240)
I0504 03:27:17.694594 23799 net.cpp:159] Memory required for data: 3761200
I0504 03:27:17.694597 23799 layer_factory.hpp:77] Creating layer ip1
I0504 03:27:17.694604 23799 net.cpp:94] Creating Layer ip1
I0504 03:27:17.694607 23799 net.cpp:435] ip1 <- pool5
I0504 03:27:17.694612 23799 net.cpp:409] ip1 -> ip1
I0504 03:27:17.707834 23799 net.cpp:144] Setting up ip1
I0504 03:27:17.707854 23799 net.cpp:151] Top shape: 20 1024 (20480)
I0504 03:27:17.707857 23799 net.cpp:159] Memory required for data: 3843120
I0504 03:27:17.707864 23799 layer_factory.hpp:77] Creating layer ip2
I0504 03:27:17.707870 23799 net.cpp:94] Creating Layer ip2
I0504 03:27:17.707875 23799 net.cpp:435] ip2 <- ip1
I0504 03:27:17.707880 23799 net.cpp:409] ip2 -> ip2
I0504 03:27:17.721014 23799 net.cpp:144] Setting up ip2
I0504 03:27:17.721032 23799 net.cpp:151] Top shape: 20 512 (10240)
I0504 03:27:17.721035 23799 net.cpp:159] Memory required for data: 3884080
I0504 03:27:17.721042 23799 layer_factory.hpp:77] Creating layer ip3
I0504 03:27:17.721051 23799 net.cpp:94] Creating Layer ip3
I0504 03:27:17.721055 23799 net.cpp:435] ip3 <- ip2
I0504 03:27:17.721060 23799 net.cpp:409] ip3 -> ip3
I0504 03:27:17.721788 23799 net.cpp:144] Setting up ip3
I0504 03:27:17.721796 23799 net.cpp:151] Top shape: 20 50 (1000)
I0504 03:27:17.721799 23799 net.cpp:159] Memory required for data: 3888080
I0504 03:27:17.721804 23799 layer_factory.hpp:77] Creating layer ip3_ip3_0_split
I0504 03:27:17.721809 23799 net.cpp:94] Creating Layer ip3_ip3_0_split
I0504 03:27:17.721812 23799 net.cpp:435] ip3_ip3_0_split <- ip3
I0504 03:27:17.721817 23799 net.cpp:409] ip3_ip3_0_split -> ip3_ip3_0_split_0
I0504 03:27:17.721822 23799 net.cpp:409] ip3_ip3_0_split -> ip3_ip3_0_split_1
I0504 03:27:17.721863 23799 net.cpp:144] Setting up ip3_ip3_0_split
I0504 03:27:17.721868 23799 net.cpp:151] Top shape: 20 50 (1000)
I0504 03:27:17.721873 23799 net.cpp:151] Top shape: 20 50 (1000)
I0504 03:27:17.721874 23799 net.cpp:159] Memory required for data: 3896080
I0504 03:27:17.721877 23799 layer_factory.hpp:77] Creating layer accuracy
I0504 03:27:17.721884 23799 net.cpp:94] Creating Layer accuracy
I0504 03:27:17.721887 23799 net.cpp:435] accuracy <- ip3_ip3_0_split_0
I0504 03:27:17.721890 23799 net.cpp:435] accuracy <- label_intercept_1_split_0
I0504 03:27:17.721895 23799 net.cpp:409] accuracy -> accuracy
…
