…
I0503 11:10:02.753530 20308 net.cpp:323] The NetState phase (0) differed from the phase (1) specified by a rule in layer intercept
I0503 11:10:02.753547 20308 net.cpp:323] The NetState phase (0) differed from the phase (1) specified by a rule in layer accuracy
I0503 11:10:02.753646 20308 net.cpp:52] Initializing net from parameters: 
state {
  phase: TRAIN
}
layer {
  name: "parameters"
  type: "HDF5Data"
  top: "data"
  top: "label"
  include {
    phase: TRAIN
  }
  hdf5_data_param {
    source: "/home/purduethu/scratch/radon/d/deng106/CNNStatisticalModel/distributions/input/50_distributions_100_sample_size_train-distributions-path.txt"
    batch_size: 20
  }
}
layer {
  name: "conv1"
  type: "Convolution"
  bottom: "data"
  top: "conv1"
  param {
    lr_mult: 1
  }
  param {
    lr_mult: 2
  }
  convolution_param {
    num_output: 64
    pad: 2
    kernel_size: 5
    stride: 1
    weight_filler {
      type: "gaussian"
      std: 0.0001
    }
    bias_filler {
      type: "constant"
    }
  }
}
layer {
  name: "relu1"
  type: "ReLU"
  bottom: "conv1"
  top: "conv1"
}
layer {
  name: "conv2"
  type: "Convolution"
  bottom: "conv1"
  top: "conv2"
  param {
    lr_mult: 1
  }
  param {
    lr_mult: 2
  }
  convolution_param {
    num_output: 64
    pad: 2
    kernel_size: 5
    stride: 1
    weight_filler {
      type: "gaussian"
      std: 0.01
    }
    bias_filler {
      type: "constant"
    }
  }
}
layer {
  name: "relu2"
  type: "ReLU"
  bottom: "conv2"
  top: "conv2"
}
layer {
  name: "pool2"
  type: "Pooling"
  bottom: "conv2"
  top: "pool2"
  pooling_param {
    pool: MAX
    kernel_size: 3
    stride: 2
  }
}
layer {
  name: "conv3"
  type: "Convolution"
  bottom: "pool2"
  top: "conv3"
  param {
    lr_mult: 1
  }
  param {
    lr_mult: 2
  }
  convolution_param {
    num_output: 128
    pad: 2
    kernel_size: 5
    stride: 1
    weight_filler {
      type: "gaussian"
      std: 0.01
    }
    bias_filler {
      type: "constant"
    }
  }
}
layer {
  name: "relu3"
  type: "ReLU"
  bottom: "conv3"
  top: "conv3"
}
layer {
  name: "conv4"
  type: "Convolution"
  bottom: "conv3"
  top: "conv4"
  param {
    lr_mult: 1
  }
  param {
    lr_mult: 2
  }
  convolution_param {
    num_output: 128
    pad: 2
    kernel_size: 5
    stride: 1
    weight_filler {
      type: "gaussian"
      std: 0.01
    }
    bias_filler {
      type: "constant"
    }
  }
}
layer {
  name: "relu4"
  type: "ReLU"
  bottom: "conv4"
  top: "conv4"
}
layer {
  name: "conv5"
  type: "Convolution"
  bottom: "conv4"
  top: "conv5"
  param {
    lr_mult: 1
  }
  param {
    lr_mult: 2
  }
  convolution_param {
    num_output: 128
    pad: 2
    kernel_size: 5
    stride: 1
    weight_filler {
      type: "gaussian"
      std: 0.01
    }
    bias_filler {
      type: "constant"
    }
  }
}
layer {
  name: "relu5"
  type: "ReLU"
  bottom: "conv5"
  top: "conv5"
}
layer {
  name: "pool5"
  type: "Pooling"
  bottom: "conv5"
  top: "pool5"
  pooling_param {
    pool: AVE
    kernel_size: 3
    stride: 2
  }
}
layer {
  name: "ip1"
  type: "InnerProduct"
  bottom: "pool5"
  top: "ip1"
  param {
    lr_mult: 1
  }
  param {
    lr_mult: 2
  }
  inner_product_param {
    num_output: 1024
    weight_filler {
      type: "gaussian"
      std: 0.1
    }
    bias_filler {
      type: "constant"
    }
  }
}
layer {
  name: "ip2"
  type: "InnerProduct"
  bottom: "ip1"
  top: "ip2"
  param {
    lr_mult: 1
  }
  param {
    lr_mult: 2
  }
  inner_product_param {
    num_output: 512
    weight_filler {
      type: "gaussian"
      std: 0.1
    }
    bias_filler {
      type: "constant"
    }
  }
}
layer {
  name: "ip3"
  type: "InnerProduct"
  bottom: "ip2"
  top: "ip3"
  param {
    lr_mult: 1
  }
  param {
    lr_mult: 2
  }
  inner_product_param {
    num_output: 50
    weight_filler {
      type: "gaussian"
      std: 0.1
    }
    bias_filler {
      type: "constant"
    }
  }
}
layer {
  name: "loss"
  type: "SoftmaxWithLoss"
  bottom: "ip3"
  bottom: "label"
  top: "loss"
}
I0503 11:10:02.753728 20308 layer_factory.hpp:77] Creating layer parameters
I0503 11:10:02.753742 20308 net.cpp:94] Creating Layer parameters
I0503 11:10:02.753748 20308 net.cpp:409] parameters -> data
I0503 11:10:02.753768 20308 net.cpp:409] parameters -> label
I0503 11:10:02.753778 20308 hdf5_data_layer.cpp:79] Loading list of HDF5 filenames from: /home/purduethu/scratch/radon/d/deng106/CNNStatisticalModel/distributions/input/50_distributions_100_sample_size_train-distributions-path.txt
I0503 11:10:02.753801 20308 hdf5_data_layer.cpp:93] Number of HDF5 files: 1
I0503 11:10:02.754423 20308 hdf5.cpp:32] Datatype class: H5T_FLOAT
I0503 11:10:02.913555 20308 hdf5.cpp:35] Datatype class: H5T_INTEGER
I0503 11:10:02.916393 20308 net.cpp:144] Setting up parameters
I0503 11:10:02.916411 20308 net.cpp:151] Top shape: 20 1 10 10 (2000)
I0503 11:10:02.916417 20308 net.cpp:151] Top shape: 20 (20)
I0503 11:10:02.916421 20308 net.cpp:159] Memory required for data: 8080
I0503 11:10:02.916429 20308 layer_factory.hpp:77] Creating layer conv1
I0503 11:10:02.916446 20308 net.cpp:94] Creating Layer conv1
I0503 11:10:02.916452 20308 net.cpp:435] conv1 <- data
I0503 11:10:02.916463 20308 net.cpp:409] conv1 -> conv1
I0503 11:10:02.920259 20308 net.cpp:144] Setting up conv1
I0503 11:10:02.920274 20308 net.cpp:151] Top shape: 20 64 10 10 (128000)
I0503 11:10:02.920279 20308 net.cpp:159] Memory required for data: 520080
I0503 11:10:02.920289 20308 layer_factory.hpp:77] Creating layer relu1
I0503 11:10:02.920297 20308 net.cpp:94] Creating Layer relu1
I0503 11:10:02.920301 20308 net.cpp:435] relu1 <- conv1
I0503 11:10:02.920305 20308 net.cpp:396] relu1 -> conv1 (in-place)
I0503 11:10:02.920316 20308 net.cpp:144] Setting up relu1
I0503 11:10:02.920321 20308 net.cpp:151] Top shape: 20 64 10 10 (128000)
I0503 11:10:02.920325 20308 net.cpp:159] Memory required for data: 1032080
I0503 11:10:02.920328 20308 layer_factory.hpp:77] Creating layer conv2
I0503 11:10:02.920336 20308 net.cpp:94] Creating Layer conv2
I0503 11:10:02.920339 20308 net.cpp:435] conv2 <- conv1
I0503 11:10:02.920343 20308 net.cpp:409] conv2 -> conv2
I0503 11:10:02.926093 20308 net.cpp:144] Setting up conv2
I0503 11:10:02.926108 20308 net.cpp:151] Top shape: 20 64 10 10 (128000)
I0503 11:10:02.926112 20308 net.cpp:159] Memory required for data: 1544080
I0503 11:10:02.926120 20308 layer_factory.hpp:77] Creating layer relu2
I0503 11:10:02.926127 20308 net.cpp:94] Creating Layer relu2
I0503 11:10:02.926131 20308 net.cpp:435] relu2 <- conv2
I0503 11:10:02.926136 20308 net.cpp:396] relu2 -> conv2 (in-place)
I0503 11:10:02.926142 20308 net.cpp:144] Setting up relu2
I0503 11:10:02.926147 20308 net.cpp:151] Top shape: 20 64 10 10 (128000)
I0503 11:10:02.926151 20308 net.cpp:159] Memory required for data: 2056080
I0503 11:10:02.926153 20308 layer_factory.hpp:77] Creating layer pool2
I0503 11:10:02.926167 20308 net.cpp:94] Creating Layer pool2
I0503 11:10:02.926170 20308 net.cpp:435] pool2 <- conv2
I0503 11:10:02.926174 20308 net.cpp:409] pool2 -> pool2
I0503 11:10:02.926218 20308 net.cpp:144] Setting up pool2
I0503 11:10:02.926224 20308 net.cpp:151] Top shape: 20 64 5 5 (32000)
I0503 11:10:02.926229 20308 net.cpp:159] Memory required for data: 2184080
I0503 11:10:02.926231 20308 layer_factory.hpp:77] Creating layer conv3
I0503 11:10:02.926239 20308 net.cpp:94] Creating Layer conv3
I0503 11:10:02.926244 20308 net.cpp:435] conv3 <- pool2
I0503 11:10:02.926255 20308 net.cpp:409] conv3 -> conv3
I0503 11:10:02.934240 20308 net.cpp:144] Setting up conv3
I0503 11:10:02.934254 20308 net.cpp:151] Top shape: 20 128 5 5 (64000)
I0503 11:10:02.934259 20308 net.cpp:159] Memory required for data: 2440080
I0503 11:10:02.934267 20308 layer_factory.hpp:77] Creating layer relu3
I0503 11:10:02.934273 20308 net.cpp:94] Creating Layer relu3
I0503 11:10:02.934278 20308 net.cpp:435] relu3 <- conv3
I0503 11:10:02.934281 20308 net.cpp:396] relu3 -> conv3 (in-place)
I0503 11:10:02.934288 20308 net.cpp:144] Setting up relu3
I0503 11:10:02.934293 20308 net.cpp:151] Top shape: 20 128 5 5 (64000)
I0503 11:10:02.934296 20308 net.cpp:159] Memory required for data: 2696080
I0503 11:10:02.934299 20308 layer_factory.hpp:77] Creating layer conv4
I0503 11:10:02.934309 20308 net.cpp:94] Creating Layer conv4
I0503 11:10:02.934311 20308 net.cpp:435] conv4 <- conv3
I0503 11:10:02.934316 20308 net.cpp:409] conv4 -> conv4
I0503 11:10:02.949137 20308 net.cpp:144] Setting up conv4
I0503 11:10:02.949153 20308 net.cpp:151] Top shape: 20 128 5 5 (64000)
I0503 11:10:02.949157 20308 net.cpp:159] Memory required for data: 2952080
I0503 11:10:02.949163 20308 layer_factory.hpp:77] Creating layer relu4
I0503 11:10:02.949169 20308 net.cpp:94] Creating Layer relu4
I0503 11:10:02.949173 20308 net.cpp:435] relu4 <- conv4
I0503 11:10:02.949178 20308 net.cpp:396] relu4 -> conv4 (in-place)
I0503 11:10:02.949185 20308 net.cpp:144] Setting up relu4
I0503 11:10:02.949190 20308 net.cpp:151] Top shape: 20 128 5 5 (64000)
I0503 11:10:02.949193 20308 net.cpp:159] Memory required for data: 3208080
I0503 11:10:02.949196 20308 layer_factory.hpp:77] Creating layer conv5
I0503 11:10:02.949204 20308 net.cpp:94] Creating Layer conv5
I0503 11:10:02.949208 20308 net.cpp:435] conv5 <- conv4
I0503 11:10:02.949213 20308 net.cpp:409] conv5 -> conv5
I0503 11:10:02.963407 20308 net.cpp:144] Setting up conv5
I0503 11:10:02.963423 20308 net.cpp:151] Top shape: 20 128 5 5 (64000)
I0503 11:10:02.963428 20308 net.cpp:159] Memory required for data: 3464080
I0503 11:10:02.963435 20308 layer_factory.hpp:77] Creating layer relu5
I0503 11:10:02.963443 20308 net.cpp:94] Creating Layer relu5
I0503 11:10:02.963446 20308 net.cpp:435] relu5 <- conv5
I0503 11:10:02.963450 20308 net.cpp:396] relu5 -> conv5 (in-place)
I0503 11:10:02.963459 20308 net.cpp:144] Setting up relu5
I0503 11:10:02.963464 20308 net.cpp:151] Top shape: 20 128 5 5 (64000)
I0503 11:10:02.963466 20308 net.cpp:159] Memory required for data: 3720080
I0503 11:10:02.963469 20308 layer_factory.hpp:77] Creating layer pool5
I0503 11:10:02.963475 20308 net.cpp:94] Creating Layer pool5
I0503 11:10:02.963479 20308 net.cpp:435] pool5 <- conv5
I0503 11:10:02.963482 20308 net.cpp:409] pool5 -> pool5
I0503 11:10:02.963517 20308 net.cpp:144] Setting up pool5
I0503 11:10:02.963524 20308 net.cpp:151] Top shape: 20 128 2 2 (10240)
I0503 11:10:02.963527 20308 net.cpp:159] Memory required for data: 3761040
I0503 11:10:02.963531 20308 layer_factory.hpp:77] Creating layer ip1
I0503 11:10:02.963541 20308 net.cpp:94] Creating Layer ip1
I0503 11:10:02.963544 20308 net.cpp:435] ip1 <- pool5
I0503 11:10:02.963549 20308 net.cpp:409] ip1 -> ip1
I0503 11:10:02.976948 20308 net.cpp:144] Setting up ip1
I0503 11:10:02.976963 20308 net.cpp:151] Top shape: 20 1024 (20480)
I0503 11:10:02.976968 20308 net.cpp:159] Memory required for data: 3842960
I0503 11:10:02.976974 20308 layer_factory.hpp:77] Creating layer ip2
I0503 11:10:02.976980 20308 net.cpp:94] Creating Layer ip2
I0503 11:10:02.976989 20308 net.cpp:435] ip2 <- ip1
I0503 11:10:02.976994 20308 net.cpp:409] ip2 -> ip2
I0503 11:10:02.989729 20308 net.cpp:144] Setting up ip2
I0503 11:10:02.989742 20308 net.cpp:151] Top shape: 20 512 (10240)
I0503 11:10:02.989747 20308 net.cpp:159] Memory required for data: 3883920
I0503 11:10:02.989753 20308 layer_factory.hpp:77] Creating layer ip3
I0503 11:10:02.989759 20308 net.cpp:94] Creating Layer ip3
I0503 11:10:02.989763 20308 net.cpp:435] ip3 <- ip2
I0503 11:10:02.989768 20308 net.cpp:409] ip3 -> ip3
I0503 11:10:02.991067 20308 net.cpp:144] Setting up ip3
I0503 11:10:02.991080 20308 net.cpp:151] Top shape: 20 50 (1000)
I0503 11:10:02.991084 20308 net.cpp:159] Memory required for data: 3887920
I0503 11:10:02.991089 20308 layer_factory.hpp:77] Creating layer loss
I0503 11:10:02.991097 20308 net.cpp:94] Creating Layer loss
I0503 11:10:02.991101 20308 net.cpp:435] loss <- ip3
I0503 11:10:02.991106 20308 net.cpp:435] loss <- label
I0503 11:10:02.991111 20308 net.cpp:409] loss -> loss
I0503 11:10:02.991122 20308 layer_factory.hpp:77] Creating layer loss
…
I0503 11:10:02.991610 20308 solver.cpp:181] Creating test net (#0) specified by net file: ./protocol/dis_50_100_dimension.protocol_distribution
I0503 11:10:02.991636 20308 net.cpp:323] The NetState phase (1) differed from the phase (0) specified by a rule in layer parameters
I0503 11:10:02.991732 20308 net.cpp:52] Initializing net from parameters: 
state {
  phase: TEST
}
layer {
  name: "intercept"
  type: "HDF5Data"
  top: "data"
  top: "label"
  include {
    phase: TEST
  }
  hdf5_data_param {
    source: "/home/purduethu/scratch/radon/d/deng106/CNNStatisticalModel/distributions/input/50_distributions_100_sample_size_test-distributions-path.txt"
    batch_size: 20
  }
}
layer {
  name: "conv1"
  type: "Convolution"
  bottom: "data"
  top: "conv1"
  param {
    lr_mult: 1
  }
  param {
    lr_mult: 2
  }
  convolution_param {
    num_output: 64
    pad: 2
    kernel_size: 5
    stride: 1
    weight_filler {
      type: "gaussian"
      std: 0.0001
    }
    bias_filler {
      type: "constant"
    }
  }
}
layer {
  name: "relu1"
  type: "ReLU"
  bottom: "conv1"
  top: "conv1"
}
layer {
  name: "conv2"
  type: "Convolution"
  bottom: "conv1"
  top: "conv2"
  param {
    lr_mult: 1
  }
  param {
    lr_mult: 2
  }
  convolution_param {
    num_output: 64
    pad: 2
    kernel_size: 5
    stride: 1
    weight_filler {
      type: "gaussian"
      std: 0.01
    }
    bias_filler {
      type: "constant"
    }
  }
}
layer {
  name: "relu2"
  type: "ReLU"
  bottom: "conv2"
  top: "conv2"
}
layer {
  name: "pool2"
  type: "Pooling"
  bottom: "conv2"
  top: "pool2"
  pooling_param {
    pool: MAX
    kernel_size: 3
    stride: 2
  }
}
layer {
  name: "conv3"
  type: "Convolution"
  bottom: "pool2"
  top: "conv3"
  param {
    lr_mult: 1
  }
  param {
    lr_mult: 2
  }
  convolution_param {
    num_output: 128
    pad: 2
    kernel_size: 5
    stride: 1
    weight_filler {
      type: "gaussian"
      std: 0.01
    }
    bias_filler {
      type: "constant"
    }
  }
}
layer {
  name: "relu3"
  type: "ReLU"
  bottom: "conv3"
  top: "conv3"
}
layer {
  name: "conv4"
  type: "Convolution"
  bottom: "conv3"
  top: "conv4"
  param {
    lr_mult: 1
  }
  param {
    lr_mult: 2
  }
  convolution_param {
    num_output: 128
    pad: 2
    kernel_size: 5
    stride: 1
    weight_filler {
      type: "gaussian"
      std: 0.01
    }
    bias_filler {
      type: "constant"
    }
  }
}
layer {
  name: "relu4"
  type: "ReLU"
  bottom: "conv4"
  top: "conv4"
}
layer {
  name: "conv5"
  type: "Convolution"
  bottom: "conv4"
  top: "conv5"
  param {
    lr_mult: 1
  }
  param {
    lr_mult: 2
  }
  convolution_param {
    num_output: 128
    pad: 2
    kernel_size: 5
    stride: 1
    weight_filler {
      type: "gaussian"
      std: 0.01
    }
    bias_filler {
      type: "constant"
    }
  }
}
layer {
  name: "relu5"
  type: "ReLU"
  bottom: "conv5"
  top: "conv5"
}
layer {
  name: "pool5"
  type: "Pooling"
  bottom: "conv5"
  top: "pool5"
  pooling_param {
    pool: AVE
    kernel_size: 3
    stride: 2
  }
}
layer {
  name: "ip1"
  type: "InnerProduct"
  bottom: "pool5"
  top: "ip1"
  param {
    lr_mult: 1
  }
  param {
    lr_mult: 2
  }
  inner_product_param {
    num_output: 1024
    weight_filler {
      type: "gaussian"
      std: 0.1
    }
    bias_filler {
      type: "constant"
    }
  }
}
layer {
  name: "ip2"
  type: "InnerProduct"
  bottom: "ip1"
  top: "ip2"
  param {
    lr_mult: 1
  }
  param {
    lr_mult: 2
  }
  inner_product_param {
    num_output: 512
    weight_filler {
      type: "gaussian"
      std: 0.1
    }
    bias_filler {
      type: "constant"
    }
  }
}
layer {
  name: "ip3"
  type: "InnerProduct"
  bottom: "ip2"
  top: "ip3"
  param {
    lr_mult: 1
  }
  param {
    lr_mult: 2
  }
  inner_product_param {
    num_output: 50
    weight_filler {
      type: "gaussian"
      std: 0.1
    }
    bias_filler {
      type: "constant"
    }
  }
}
layer {
  name: "accuracy"
  type: "Accuracy"
  bottom: "ip3"
  bottom: "label"
  top: "accuracy"
  include {
    phase: TEST
  }
}
layer {
  name: "loss"
  type: "SoftmaxWithLoss"
  bottom: "ip3"
  bottom: "label"
  top: "loss"
}
I0503 11:10:02.991803 20308 layer_factory.hpp:77] Creating layer intercept
I0503 11:10:02.991811 20308 net.cpp:94] Creating Layer intercept
I0503 11:10:02.991816 20308 net.cpp:409] intercept -> data
I0503 11:10:02.991822 20308 net.cpp:409] intercept -> label
I0503 11:10:02.991828 20308 hdf5_data_layer.cpp:79] Loading list of HDF5 filenames from: /home/purduethu/scratch/radon/d/deng106/CNNStatisticalModel/distributions/input/50_distributions_100_sample_size_test-distributions-path.txt
I0503 11:10:02.991847 20308 hdf5_data_layer.cpp:93] Number of HDF5 files: 1
I0503 11:10:03.031932 20308 net.cpp:144] Setting up intercept
I0503 11:10:03.031966 20308 net.cpp:151] Top shape: 20 1 10 10 (2000)
I0503 11:10:03.031972 20308 net.cpp:151] Top shape: 20 (20)
I0503 11:10:03.031975 20308 net.cpp:159] Memory required for data: 8080
I0503 11:10:03.031981 20308 layer_factory.hpp:77] Creating layer label_intercept_1_split
I0503 11:10:03.032002 20308 net.cpp:94] Creating Layer label_intercept_1_split
I0503 11:10:03.032007 20308 net.cpp:435] label_intercept_1_split <- label
I0503 11:10:03.032013 20308 net.cpp:409] label_intercept_1_split -> label_intercept_1_split_0
I0503 11:10:03.032021 20308 net.cpp:409] label_intercept_1_split -> label_intercept_1_split_1
I0503 11:10:03.032055 20308 net.cpp:144] Setting up label_intercept_1_split
I0503 11:10:03.032061 20308 net.cpp:151] Top shape: 20 (20)
I0503 11:10:03.032065 20308 net.cpp:151] Top shape: 20 (20)
I0503 11:10:03.032068 20308 net.cpp:159] Memory required for data: 8240
I0503 11:10:03.032073 20308 layer_factory.hpp:77] Creating layer conv1
I0503 11:10:03.032083 20308 net.cpp:94] Creating Layer conv1
I0503 11:10:03.032086 20308 net.cpp:435] conv1 <- data
I0503 11:10:03.032091 20308 net.cpp:409] conv1 -> conv1
I0503 11:10:03.032799 20308 net.cpp:144] Setting up conv1
I0503 11:10:03.032822 20308 net.cpp:151] Top shape: 20 64 10 10 (128000)
I0503 11:10:03.032827 20308 net.cpp:159] Memory required for data: 520240
I0503 11:10:03.032836 20308 layer_factory.hpp:77] Creating layer relu1
I0503 11:10:03.032843 20308 net.cpp:94] Creating Layer relu1
I0503 11:10:03.032847 20308 net.cpp:435] relu1 <- conv1
I0503 11:10:03.032852 20308 net.cpp:396] relu1 -> conv1 (in-place)
I0503 11:10:03.032860 20308 net.cpp:144] Setting up relu1
I0503 11:10:03.032865 20308 net.cpp:151] Top shape: 20 64 10 10 (128000)
I0503 11:10:03.032867 20308 net.cpp:159] Memory required for data: 1032240
I0503 11:10:03.032871 20308 layer_factory.hpp:77] Creating layer conv2
I0503 11:10:03.032879 20308 net.cpp:94] Creating Layer conv2
I0503 11:10:03.032883 20308 net.cpp:435] conv2 <- conv1
I0503 11:10:03.032888 20308 net.cpp:409] conv2 -> conv2
I0503 11:10:03.036792 20308 net.cpp:144] Setting up conv2
I0503 11:10:03.036805 20308 net.cpp:151] Top shape: 20 64 10 10 (128000)
I0503 11:10:03.036809 20308 net.cpp:159] Memory required for data: 1544240
I0503 11:10:03.036818 20308 layer_factory.hpp:77] Creating layer relu2
I0503 11:10:03.036823 20308 net.cpp:94] Creating Layer relu2
I0503 11:10:03.036828 20308 net.cpp:435] relu2 <- conv2
I0503 11:10:03.036833 20308 net.cpp:396] relu2 -> conv2 (in-place)
I0503 11:10:03.036839 20308 net.cpp:144] Setting up relu2
I0503 11:10:03.036844 20308 net.cpp:151] Top shape: 20 64 10 10 (128000)
I0503 11:10:03.036846 20308 net.cpp:159] Memory required for data: 2056240
I0503 11:10:03.036850 20308 layer_factory.hpp:77] Creating layer pool2
I0503 11:10:03.036856 20308 net.cpp:94] Creating Layer pool2
I0503 11:10:03.036859 20308 net.cpp:435] pool2 <- conv2
I0503 11:10:03.036864 20308 net.cpp:409] pool2 -> pool2
I0503 11:10:03.036897 20308 net.cpp:144] Setting up pool2
I0503 11:10:03.036903 20308 net.cpp:151] Top shape: 20 64 5 5 (32000)
I0503 11:10:03.036906 20308 net.cpp:159] Memory required for data: 2184240
I0503 11:10:03.036911 20308 layer_factory.hpp:77] Creating layer conv3
I0503 11:10:03.036917 20308 net.cpp:94] Creating Layer conv3
I0503 11:10:03.036921 20308 net.cpp:435] conv3 <- pool2
I0503 11:10:03.036926 20308 net.cpp:409] conv3 -> conv3
I0503 11:10:03.043256 20308 net.cpp:144] Setting up conv3
I0503 11:10:03.043270 20308 net.cpp:151] Top shape: 20 128 5 5 (64000)
I0503 11:10:03.043274 20308 net.cpp:159] Memory required for data: 2440240
I0503 11:10:03.043282 20308 layer_factory.hpp:77] Creating layer relu3
I0503 11:10:03.043289 20308 net.cpp:94] Creating Layer relu3
I0503 11:10:03.043293 20308 net.cpp:435] relu3 <- conv3
I0503 11:10:03.043298 20308 net.cpp:396] relu3 -> conv3 (in-place)
I0503 11:10:03.043304 20308 net.cpp:144] Setting up relu3
I0503 11:10:03.043309 20308 net.cpp:151] Top shape: 20 128 5 5 (64000)
I0503 11:10:03.043313 20308 net.cpp:159] Memory required for data: 2696240
I0503 11:10:03.043316 20308 layer_factory.hpp:77] Creating layer conv4
I0503 11:10:03.043323 20308 net.cpp:94] Creating Layer conv4
I0503 11:10:03.043328 20308 net.cpp:435] conv4 <- conv3
I0503 11:10:03.043332 20308 net.cpp:409] conv4 -> conv4
I0503 11:10:03.055639 20308 net.cpp:144] Setting up conv4
I0503 11:10:03.055655 20308 net.cpp:151] Top shape: 20 128 5 5 (64000)
I0503 11:10:03.055658 20308 net.cpp:159] Memory required for data: 2952240
I0503 11:10:03.055665 20308 layer_factory.hpp:77] Creating layer relu4
I0503 11:10:03.055670 20308 net.cpp:94] Creating Layer relu4
I0503 11:10:03.055675 20308 net.cpp:435] relu4 <- conv4
I0503 11:10:03.055682 20308 net.cpp:396] relu4 -> conv4 (in-place)
I0503 11:10:03.055691 20308 net.cpp:144] Setting up relu4
I0503 11:10:03.055696 20308 net.cpp:151] Top shape: 20 128 5 5 (64000)
I0503 11:10:03.055698 20308 net.cpp:159] Memory required for data: 3208240
I0503 11:10:03.055701 20308 layer_factory.hpp:77] Creating layer conv5
I0503 11:10:03.055708 20308 net.cpp:94] Creating Layer conv5
I0503 11:10:03.055712 20308 net.cpp:435] conv5 <- conv4
I0503 11:10:03.055717 20308 net.cpp:409] conv5 -> conv5
I0503 11:10:03.067986 20308 net.cpp:144] Setting up conv5
I0503 11:10:03.068006 20308 net.cpp:151] Top shape: 20 128 5 5 (64000)
I0503 11:10:03.068011 20308 net.cpp:159] Memory required for data: 3464240
I0503 11:10:03.068019 20308 layer_factory.hpp:77] Creating layer relu5
I0503 11:10:03.068025 20308 net.cpp:94] Creating Layer relu5
I0503 11:10:03.068028 20308 net.cpp:435] relu5 <- conv5
I0503 11:10:03.068033 20308 net.cpp:396] relu5 -> conv5 (in-place)
I0503 11:10:03.068039 20308 net.cpp:144] Setting up relu5
I0503 11:10:03.068044 20308 net.cpp:151] Top shape: 20 128 5 5 (64000)
I0503 11:10:03.068048 20308 net.cpp:159] Memory required for data: 3720240
I0503 11:10:03.068050 20308 layer_factory.hpp:77] Creating layer pool5
I0503 11:10:03.068055 20308 net.cpp:94] Creating Layer pool5
I0503 11:10:03.068059 20308 net.cpp:435] pool5 <- conv5
I0503 11:10:03.068063 20308 net.cpp:409] pool5 -> pool5
I0503 11:10:03.068089 20308 net.cpp:144] Setting up pool5
I0503 11:10:03.068094 20308 net.cpp:151] Top shape: 20 128 2 2 (10240)
I0503 11:10:03.068099 20308 net.cpp:159] Memory required for data: 3761200
I0503 11:10:03.068101 20308 layer_factory.hpp:77] Creating layer ip1
I0503 11:10:03.068109 20308 net.cpp:94] Creating Layer ip1
I0503 11:10:03.068111 20308 net.cpp:435] ip1 <- pool5
I0503 11:10:03.068116 20308 net.cpp:409] ip1 -> ip1
I0503 11:10:03.081006 20308 net.cpp:144] Setting up ip1
I0503 11:10:03.081018 20308 net.cpp:151] Top shape: 20 1024 (20480)
I0503 11:10:03.081022 20308 net.cpp:159] Memory required for data: 3843120
I0503 11:10:03.081028 20308 layer_factory.hpp:77] Creating layer ip2
I0503 11:10:03.081037 20308 net.cpp:94] Creating Layer ip2
I0503 11:10:03.081042 20308 net.cpp:435] ip2 <- ip1
I0503 11:10:03.081046 20308 net.cpp:409] ip2 -> ip2
I0503 11:10:03.093878 20308 net.cpp:144] Setting up ip2
I0503 11:10:03.093891 20308 net.cpp:151] Top shape: 20 512 (10240)
I0503 11:10:03.093895 20308 net.cpp:159] Memory required for data: 3884080
I0503 11:10:03.093900 20308 layer_factory.hpp:77] Creating layer ip3
I0503 11:10:03.093909 20308 net.cpp:94] Creating Layer ip3
I0503 11:10:03.093914 20308 net.cpp:435] ip3 <- ip2
I0503 11:10:03.093919 20308 net.cpp:409] ip3 -> ip3
I0503 11:10:03.094590 20308 net.cpp:144] Setting up ip3
I0503 11:10:03.094596 20308 net.cpp:151] Top shape: 20 50 (1000)
I0503 11:10:03.094600 20308 net.cpp:159] Memory required for data: 3888080
I0503 11:10:03.094604 20308 layer_factory.hpp:77] Creating layer ip3_ip3_0_split
I0503 11:10:03.094610 20308 net.cpp:94] Creating Layer ip3_ip3_0_split
I0503 11:10:03.094614 20308 net.cpp:435] ip3_ip3_0_split <- ip3
I0503 11:10:03.094617 20308 net.cpp:409] ip3_ip3_0_split -> ip3_ip3_0_split_0
I0503 11:10:03.094622 20308 net.cpp:409] ip3_ip3_0_split -> ip3_ip3_0_split_1
I0503 11:10:03.094647 20308 net.cpp:144] Setting up ip3_ip3_0_split
I0503 11:10:03.094653 20308 net.cpp:151] Top shape: 20 50 (1000)
I0503 11:10:03.094658 20308 net.cpp:151] Top shape: 20 50 (1000)
I0503 11:10:03.094661 20308 net.cpp:159] Memory required for data: 3896080
I0503 11:10:03.094665 20308 layer_factory.hpp:77] Creating layer accuracy
I0503 11:10:03.094671 20308 net.cpp:94] Creating Layer accuracy
I0503 11:10:03.094673 20308 net.cpp:435] accuracy <- ip3_ip3_0_split_0
I0503 11:10:03.094677 20308 net.cpp:435] accuracy <- label_intercept_1_split_0
I0503 11:10:03.094681 20308 net.cpp:409] accuracy -> accuracy
…
