…
I0506 00:42:42.901520 10970 net.cpp:323] The NetState phase (0) differed from the phase (1) specified by a rule in layer intercept
I0506 00:42:42.901536 10970 net.cpp:323] The NetState phase (0) differed from the phase (1) specified by a rule in layer loss
I0506 00:42:42.901607 10970 net.cpp:52] Initializing net from parameters: 
state {
  phase: TRAIN
}
layer {
  name: "parameters"
  type: "HDF5Data"
  top: "data"
  top: "label"
  include {
    phase: TRAIN
  }
  hdf5_data_param {
    source: "/home/purduethu/scratch/radon/d/deng106/CNNStatisticalModel/distributions/input/5_distributions_400_sample_size_train-parameters-path.txt"
    batch_size: 20
  }
}
layer {
  name: "conv1"
  type: "Convolution"
  bottom: "data"
  top: "conv1"
  param {
    lr_mult: 1
  }
  param {
    lr_mult: 2
  }
  convolution_param {
    num_output: 64
    pad: 2
    kernel_size: 5
    stride: 1
    weight_filler {
      type: "gaussian"
      std: 0.0001
    }
    bias_filler {
      type: "constant"
    }
  }
}
layer {
  name: "relu1"
  type: "ReLU"
  bottom: "conv1"
  top: "conv1"
}
layer {
  name: "pool1"
  type: "Pooling"
  bottom: "conv1"
  top: "pool1"
  pooling_param {
    pool: MAX
    kernel_size: 3
    stride: 2
  }
}
layer {
  name: "conv2"
  type: "Convolution"
  bottom: "pool1"
  top: "conv2"
  param {
    lr_mult: 1
  }
  param {
    lr_mult: 2
  }
  convolution_param {
    num_output: 128
    pad: 2
    kernel_size: 5
    stride: 1
    weight_filler {
      type: "gaussian"
      std: 0.01
    }
    bias_filler {
      type: "constant"
    }
  }
}
layer {
  name: "relu2"
  type: "ReLU"
  bottom: "conv2"
  top: "conv2"
}
layer {
  name: "conv3"
  type: "Convolution"
  bottom: "conv2"
  top: "conv3"
  param {
    lr_mult: 1
  }
  param {
    lr_mult: 2
  }
  convolution_param {
    num_output: 128
    pad: 2
    kernel_size: 5
    stride: 1
    weight_filler {
      type: "gaussian"
      std: 0.01
    }
    bias_filler {
      type: "constant"
    }
  }
}
layer {
  name: "relu3"
  type: "ReLU"
  bottom: "conv3"
  top: "conv3"
}
layer {
  name: "pool3"
  type: "Pooling"
  bottom: "conv3"
  top: "pool3"
  pooling_param {
    pool: AVE
    kernel_size: 3
    stride: 2
  }
}
layer {
  name: "ip1"
  type: "InnerProduct"
  bottom: "pool3"
  top: "ip1"
  param {
    lr_mult: 1
  }
  param {
    lr_mult: 2
  }
  inner_product_param {
    num_output: 512
    weight_filler {
      type: "gaussian"
      std: 0.1
    }
    bias_filler {
      type: "constant"
    }
  }
}
layer {
  name: "ip2"
  type: "InnerProduct"
  bottom: "ip1"
  top: "ip2"
  param {
    lr_mult: 1
  }
  param {
    lr_mult: 2
  }
  inner_product_param {
    num_output: 256
    weight_filler {
      type: "gaussian"
      std: 0.1
    }
    bias_filler {
      type: "constant"
    }
  }
}
layer {
  name: "ip3"
  type: "InnerProduct"
  bottom: "ip2"
  top: "ip3"
  param {
    lr_mult: 1
  }
  param {
    lr_mult: 2
  }
  inner_product_param {
    num_output: 1
    weight_filler {
      type: "gaussian"
      std: 0.1
    }
    bias_filler {
      type: "constant"
    }
  }
}
layer {
  name: "loss"
  type: "HuberLoss"
  bottom: "ip3"
  bottom: "label"
  top: "loss"
  include {
    phase: TRAIN
  }
}
I0506 00:42:42.901659 10970 layer_factory.hpp:77] Creating layer parameters
I0506 00:42:42.901677 10970 net.cpp:94] Creating Layer parameters
I0506 00:42:42.901681 10970 net.cpp:409] parameters -> data
I0506 00:42:42.901691 10970 net.cpp:409] parameters -> label
I0506 00:42:42.901698 10970 hdf5_data_layer.cpp:79] Loading list of HDF5 filenames from: /home/purduethu/scratch/radon/d/deng106/CNNStatisticalModel/distributions/input/5_distributions_400_sample_size_train-parameters-path.txt
I0506 00:42:42.901715 10970 hdf5_data_layer.cpp:93] Number of HDF5 files: 1
I0506 00:42:42.902314 10970 hdf5.cpp:32] Datatype class: H5T_FLOAT
I0506 00:42:42.969916 10970 net.cpp:144] Setting up parameters
I0506 00:42:42.969947 10970 net.cpp:151] Top shape: 20 1 20 20 (8000)
I0506 00:42:42.969952 10970 net.cpp:151] Top shape: 20 (20)
I0506 00:42:42.969955 10970 net.cpp:159] Memory required for data: 32080
I0506 00:42:42.969961 10970 layer_factory.hpp:77] Creating layer conv1
I0506 00:42:42.969979 10970 net.cpp:94] Creating Layer conv1
I0506 00:42:42.969983 10970 net.cpp:435] conv1 <- data
I0506 00:42:42.969990 10970 net.cpp:409] conv1 -> conv1
I0506 00:42:42.975327 10970 net.cpp:144] Setting up conv1
I0506 00:42:42.975364 10970 net.cpp:151] Top shape: 20 64 20 20 (512000)
I0506 00:42:42.975375 10970 net.cpp:159] Memory required for data: 2080080
I0506 00:42:42.975399 10970 layer_factory.hpp:77] Creating layer relu1
I0506 00:42:42.975417 10970 net.cpp:94] Creating Layer relu1
I0506 00:42:42.975427 10970 net.cpp:435] relu1 <- conv1
I0506 00:42:42.975440 10970 net.cpp:396] relu1 -> conv1 (in-place)
I0506 00:42:42.975458 10970 net.cpp:144] Setting up relu1
I0506 00:42:42.975471 10970 net.cpp:151] Top shape: 20 64 20 20 (512000)
I0506 00:42:42.975478 10970 net.cpp:159] Memory required for data: 4128080
I0506 00:42:42.975486 10970 layer_factory.hpp:77] Creating layer pool1
I0506 00:42:42.975499 10970 net.cpp:94] Creating Layer pool1
I0506 00:42:42.975507 10970 net.cpp:435] pool1 <- conv1
I0506 00:42:42.975519 10970 net.cpp:409] pool1 -> pool1
I0506 00:42:42.975653 10970 net.cpp:144] Setting up pool1
I0506 00:42:42.975661 10970 net.cpp:151] Top shape: 20 64 10 10 (128000)
I0506 00:42:42.975663 10970 net.cpp:159] Memory required for data: 4640080
I0506 00:42:42.975666 10970 layer_factory.hpp:77] Creating layer conv2
I0506 00:42:42.975675 10970 net.cpp:94] Creating Layer conv2
I0506 00:42:42.975678 10970 net.cpp:435] conv2 <- pool1
I0506 00:42:42.975682 10970 net.cpp:409] conv2 -> conv2
I0506 00:42:42.986599 10970 net.cpp:144] Setting up conv2
I0506 00:42:42.986639 10970 net.cpp:151] Top shape: 20 128 10 10 (256000)
I0506 00:42:42.986650 10970 net.cpp:159] Memory required for data: 5664080
I0506 00:42:42.986672 10970 layer_factory.hpp:77] Creating layer relu2
I0506 00:42:42.986688 10970 net.cpp:94] Creating Layer relu2
I0506 00:42:42.986698 10970 net.cpp:435] relu2 <- conv2
I0506 00:42:42.986711 10970 net.cpp:396] relu2 -> conv2 (in-place)
I0506 00:42:42.986729 10970 net.cpp:144] Setting up relu2
I0506 00:42:42.986742 10970 net.cpp:151] Top shape: 20 128 10 10 (256000)
I0506 00:42:42.986749 10970 net.cpp:159] Memory required for data: 6688080
I0506 00:42:42.986758 10970 layer_factory.hpp:77] Creating layer conv3
I0506 00:42:42.986781 10970 net.cpp:94] Creating Layer conv3
I0506 00:42:42.986784 10970 net.cpp:435] conv3 <- conv2
I0506 00:42:42.986789 10970 net.cpp:409] conv3 -> conv3
I0506 00:42:43.004880 10970 net.cpp:144] Setting up conv3
I0506 00:42:43.004895 10970 net.cpp:151] Top shape: 20 128 10 10 (256000)
I0506 00:42:43.004899 10970 net.cpp:159] Memory required for data: 7712080
I0506 00:42:43.004909 10970 layer_factory.hpp:77] Creating layer relu3
I0506 00:42:43.004920 10970 net.cpp:94] Creating Layer relu3
I0506 00:42:43.004925 10970 net.cpp:435] relu3 <- conv3
I0506 00:42:43.004928 10970 net.cpp:396] relu3 -> conv3 (in-place)
I0506 00:42:43.004935 10970 net.cpp:144] Setting up relu3
I0506 00:42:43.004940 10970 net.cpp:151] Top shape: 20 128 10 10 (256000)
I0506 00:42:43.004943 10970 net.cpp:159] Memory required for data: 8736080
I0506 00:42:43.004945 10970 layer_factory.hpp:77] Creating layer pool3
I0506 00:42:43.004951 10970 net.cpp:94] Creating Layer pool3
I0506 00:42:43.004954 10970 net.cpp:435] pool3 <- conv3
I0506 00:42:43.004958 10970 net.cpp:409] pool3 -> pool3
I0506 00:42:43.004997 10970 net.cpp:144] Setting up pool3
I0506 00:42:43.005003 10970 net.cpp:151] Top shape: 20 128 5 5 (64000)
I0506 00:42:43.005007 10970 net.cpp:159] Memory required for data: 8992080
I0506 00:42:43.005009 10970 layer_factory.hpp:77] Creating layer ip1
I0506 00:42:43.005019 10970 net.cpp:94] Creating Layer ip1
I0506 00:42:43.005023 10970 net.cpp:435] ip1 <- pool3
I0506 00:42:43.005028 10970 net.cpp:409] ip1 -> ip1
I0506 00:42:43.044484 10970 net.cpp:144] Setting up ip1
I0506 00:42:43.044499 10970 net.cpp:151] Top shape: 20 512 (10240)
I0506 00:42:43.044503 10970 net.cpp:159] Memory required for data: 9033040
I0506 00:42:43.044509 10970 layer_factory.hpp:77] Creating layer ip2
I0506 00:42:43.044515 10970 net.cpp:94] Creating Layer ip2
I0506 00:42:43.044519 10970 net.cpp:435] ip2 <- ip1
I0506 00:42:43.044524 10970 net.cpp:409] ip2 -> ip2
I0506 00:42:43.047644 10970 net.cpp:144] Setting up ip2
I0506 00:42:43.047653 10970 net.cpp:151] Top shape: 20 256 (5120)
I0506 00:42:43.047657 10970 net.cpp:159] Memory required for data: 9053520
I0506 00:42:43.047663 10970 layer_factory.hpp:77] Creating layer ip3
I0506 00:42:43.047668 10970 net.cpp:94] Creating Layer ip3
I0506 00:42:43.047672 10970 net.cpp:435] ip3 <- ip2
I0506 00:42:43.047677 10970 net.cpp:409] ip3 -> ip3
I0506 00:42:43.047773 10970 net.cpp:144] Setting up ip3
I0506 00:42:43.047780 10970 net.cpp:151] Top shape: 20 1 (20)
I0506 00:42:43.047782 10970 net.cpp:159] Memory required for data: 9053600
I0506 00:42:43.047787 10970 layer_factory.hpp:77] Creating layer loss
I0506 00:42:43.047797 10970 net.cpp:94] Creating Layer loss
I0506 00:42:43.047801 10970 net.cpp:435] loss <- ip3
I0506 00:42:43.047804 10970 net.cpp:435] loss <- label
I0506 00:42:43.047808 10970 net.cpp:409] loss -> loss
I0506 00:42:43.047859 10970 net.cpp:144] Setting up loss
…
I0506 00:42:43.131688 10970 net.cpp:323] The NetState phase (0) differed from the phase (1) specified by a rule in layer intercept
I0506 00:42:43.131701 10970 net.cpp:323] The NetState phase (0) differed from the phase (1) specified by a rule in layer accuracy
I0506 00:42:43.131772 10970 net.cpp:52] Initializing net from parameters: 
state {
  phase: TRAIN
}
layer {
  name: "parameters"
  type: "HDF5Data"
  top: "data"
  top: "label"
  include {
    phase: TRAIN
  }
  hdf5_data_param {
    source: "/home/purduethu/scratch/radon/d/deng106/CNNStatisticalModel/distributions/input/5_distributions_400_sample_size_train-distributions-path.txt"
    batch_size: 20
  }
}
layer {
  name: "conv1"
  type: "Convolution"
  bottom: "data"
  top: "conv1"
  param {
    lr_mult: 1
  }
  param {
    lr_mult: 2
  }
  convolution_param {
    num_output: 64
    pad: 2
    kernel_size: 5
    stride: 1
    weight_filler {
      type: "gaussian"
      std: 0.0001
    }
    bias_filler {
      type: "constant"
    }
  }
}
layer {
  name: "relu1"
  type: "ReLU"
  bottom: "conv1"
  top: "conv1"
}
layer {
  name: "pool1"
  type: "Pooling"
  bottom: "conv1"
  top: "pool1"
  pooling_param {
    pool: MAX
    kernel_size: 3
    stride: 2
  }
}
layer {
  name: "conv2"
  type: "Convolution"
  bottom: "pool1"
  top: "conv2"
  param {
    lr_mult: 1
  }
  param {
    lr_mult: 2
  }
  convolution_param {
    num_output: 128
    pad: 2
    kernel_size: 5
    stride: 1
    weight_filler {
      type: "gaussian"
      std: 0.01
    }
    bias_filler {
      type: "constant"
    }
  }
}
layer {
  name: "relu2"
  type: "ReLU"
  bottom: "conv2"
  top: "conv2"
}
layer {
  name: "conv3"
  type: "Convolution"
  bottom: "conv2"
  top: "conv3"
  param {
    lr_mult: 1
  }
  param {
    lr_mult: 2
  }
  convolution_param {
    num_output: 128
    pad: 2
    kernel_size: 5
    stride: 1
    weight_filler {
      type: "gaussian"
      std: 0.01
    }
    bias_filler {
      type: "constant"
    }
  }
}
layer {
  name: "relu3"
  type: "ReLU"
  bottom: "conv3"
  top: "conv3"
}
layer {
  name: "pool3"
  type: "Pooling"
  bottom: "conv3"
  top: "pool3"
  pooling_param {
    pool: AVE
    kernel_size: 3
    stride: 2
  }
}
layer {
  name: "ip1"
  type: "InnerProduct"
  bottom: "pool3"
  top: "ip1"
  param {
    lr_mult: 1
  }
  param {
    lr_mult: 2
  }
  inner_product_param {
    num_output: 512
    weight_filler {
      type: "gaussian"
      std: 0.1
    }
    bias_filler {
      type: "constant"
    }
  }
}
layer {
  name: "ip2"
  type: "InnerProduct"
  bottom: "ip1"
  top: "ip2"
  param {
    lr_mult: 1
  }
  param {
    lr_mult: 2
  }
  inner_product_param {
    num_output: 256
    weight_filler {
      type: "gaussian"
      std: 0.1
    }
    bias_filler {
      type: "constant"
    }
  }
}
layer {
  name: "ip3"
  type: "InnerProduct"
  bottom: "ip2"
  top: "ip3"
  param {
    lr_mult: 1
  }
  param {
    lr_mult: 2
  }
  inner_product_param {
    num_output: 50
    weight_filler {
      type: "gaussian"
      std: 0.1
    }
    bias_filler {
      type: "constant"
    }
  }
}
layer {
  name: "loss"
  type: "SoftmaxWithLoss"
  bottom: "ip3"
  bottom: "label"
  top: "loss"
}
I0506 00:42:43.131813 10970 layer_factory.hpp:77] Creating layer parameters
I0506 00:42:43.131819 10970 net.cpp:94] Creating Layer parameters
I0506 00:42:43.131824 10970 net.cpp:409] parameters -> data
I0506 00:42:43.131830 10970 net.cpp:409] parameters -> label
I0506 00:42:43.131835 10970 hdf5_data_layer.cpp:79] Loading list of HDF5 filenames from: /home/purduethu/scratch/radon/d/deng106/CNNStatisticalModel/distributions/input/5_distributions_400_sample_size_train-distributions-path.txt
I0506 00:42:43.131850 10970 hdf5_data_layer.cpp:93] Number of HDF5 files: 1
I0506 00:42:43.191721 10970 hdf5.cpp:35] Datatype class: H5T_INTEGER
I0506 00:42:43.192162 10970 net.cpp:144] Setting up parameters
I0506 00:42:43.192176 10970 net.cpp:151] Top shape: 20 1 20 20 (8000)
I0506 00:42:43.192181 10970 net.cpp:151] Top shape: 20 (20)
I0506 00:42:43.192184 10970 net.cpp:159] Memory required for data: 32080
I0506 00:42:43.192190 10970 layer_factory.hpp:77] Creating layer conv1
I0506 00:42:43.192205 10970 net.cpp:94] Creating Layer conv1
I0506 00:42:43.192210 10970 net.cpp:435] conv1 <- data
I0506 00:42:43.192216 10970 net.cpp:409] conv1 -> conv1
I0506 00:42:43.194524 10970 net.cpp:144] Setting up conv1
I0506 00:42:43.194537 10970 net.cpp:151] Top shape: 20 64 20 20 (512000)
I0506 00:42:43.194541 10970 net.cpp:159] Memory required for data: 2080080
I0506 00:42:43.194550 10970 layer_factory.hpp:77] Creating layer relu1
I0506 00:42:43.194557 10970 net.cpp:94] Creating Layer relu1
I0506 00:42:43.194561 10970 net.cpp:435] relu1 <- conv1
I0506 00:42:43.194566 10970 net.cpp:396] relu1 -> conv1 (in-place)
I0506 00:42:43.194572 10970 net.cpp:144] Setting up relu1
I0506 00:42:43.194576 10970 net.cpp:151] Top shape: 20 64 20 20 (512000)
I0506 00:42:43.194579 10970 net.cpp:159] Memory required for data: 4128080
I0506 00:42:43.194582 10970 layer_factory.hpp:77] Creating layer pool1
I0506 00:42:43.194588 10970 net.cpp:94] Creating Layer pool1
I0506 00:42:43.194591 10970 net.cpp:435] pool1 <- conv1
I0506 00:42:43.194602 10970 net.cpp:409] pool1 -> pool1
I0506 00:42:43.194649 10970 net.cpp:144] Setting up pool1
I0506 00:42:43.194655 10970 net.cpp:151] Top shape: 20 64 10 10 (128000)
I0506 00:42:43.194659 10970 net.cpp:159] Memory required for data: 4640080
I0506 00:42:43.194663 10970 layer_factory.hpp:77] Creating layer conv2
I0506 00:42:43.194669 10970 net.cpp:94] Creating Layer conv2
I0506 00:42:43.194674 10970 net.cpp:435] conv2 <- pool1
I0506 00:42:43.194679 10970 net.cpp:409] conv2 -> conv2
I0506 00:42:43.205471 10970 net.cpp:144] Setting up conv2
I0506 00:42:43.205509 10970 net.cpp:151] Top shape: 20 128 10 10 (256000)
I0506 00:42:43.205521 10970 net.cpp:159] Memory required for data: 5664080
I0506 00:42:43.205541 10970 layer_factory.hpp:77] Creating layer relu2
I0506 00:42:43.205557 10970 net.cpp:94] Creating Layer relu2
I0506 00:42:43.205567 10970 net.cpp:435] relu2 <- conv2
I0506 00:42:43.205579 10970 net.cpp:396] relu2 -> conv2 (in-place)
I0506 00:42:43.205598 10970 net.cpp:144] Setting up relu2
I0506 00:42:43.205610 10970 net.cpp:151] Top shape: 20 128 10 10 (256000)
I0506 00:42:43.205618 10970 net.cpp:159] Memory required for data: 6688080
I0506 00:42:43.205627 10970 layer_factory.hpp:77] Creating layer conv3
I0506 00:42:43.205646 10970 net.cpp:94] Creating Layer conv3
I0506 00:42:43.205655 10970 net.cpp:435] conv3 <- conv2
I0506 00:42:43.205668 10970 net.cpp:409] conv3 -> conv3
I0506 00:42:43.223812 10970 net.cpp:144] Setting up conv3
I0506 00:42:43.223829 10970 net.cpp:151] Top shape: 20 128 10 10 (256000)
I0506 00:42:43.223832 10970 net.cpp:159] Memory required for data: 7712080
I0506 00:42:43.223850 10970 layer_factory.hpp:77] Creating layer relu3
I0506 00:42:43.223855 10970 net.cpp:94] Creating Layer relu3
I0506 00:42:43.223860 10970 net.cpp:435] relu3 <- conv3
I0506 00:42:43.223863 10970 net.cpp:396] relu3 -> conv3 (in-place)
I0506 00:42:43.223870 10970 net.cpp:144] Setting up relu3
I0506 00:42:43.223873 10970 net.cpp:151] Top shape: 20 128 10 10 (256000)
I0506 00:42:43.223876 10970 net.cpp:159] Memory required for data: 8736080
I0506 00:42:43.223879 10970 layer_factory.hpp:77] Creating layer pool3
I0506 00:42:43.223884 10970 net.cpp:94] Creating Layer pool3
I0506 00:42:43.223887 10970 net.cpp:435] pool3 <- conv3
I0506 00:42:43.223891 10970 net.cpp:409] pool3 -> pool3
I0506 00:42:43.223927 10970 net.cpp:144] Setting up pool3
I0506 00:42:43.223932 10970 net.cpp:151] Top shape: 20 128 5 5 (64000)
I0506 00:42:43.223935 10970 net.cpp:159] Memory required for data: 8992080
I0506 00:42:43.223938 10970 layer_factory.hpp:77] Creating layer ip1
I0506 00:42:43.223945 10970 net.cpp:94] Creating Layer ip1
I0506 00:42:43.223948 10970 net.cpp:435] ip1 <- pool3
I0506 00:42:43.223953 10970 net.cpp:409] ip1 -> ip1
I0506 00:42:43.263357 10970 net.cpp:144] Setting up ip1
I0506 00:42:43.263372 10970 net.cpp:151] Top shape: 20 512 (10240)
I0506 00:42:43.263376 10970 net.cpp:159] Memory required for data: 9033040
I0506 00:42:43.263382 10970 layer_factory.hpp:77] Creating layer ip2
I0506 00:42:43.263391 10970 net.cpp:94] Creating Layer ip2
I0506 00:42:43.263393 10970 net.cpp:435] ip2 <- ip1
I0506 00:42:43.263399 10970 net.cpp:409] ip2 -> ip2
I0506 00:42:43.266530 10970 net.cpp:144] Setting up ip2
I0506 00:42:43.266540 10970 net.cpp:151] Top shape: 20 256 (5120)
I0506 00:42:43.266542 10970 net.cpp:159] Memory required for data: 9053520
I0506 00:42:43.266549 10970 layer_factory.hpp:77] Creating layer ip3
I0506 00:42:43.266556 10970 net.cpp:94] Creating Layer ip3
I0506 00:42:43.266558 10970 net.cpp:435] ip3 <- ip2
I0506 00:42:43.266563 10970 net.cpp:409] ip3 -> ip3
I0506 00:42:43.266978 10970 net.cpp:144] Setting up ip3
I0506 00:42:43.266985 10970 net.cpp:151] Top shape: 20 50 (1000)
I0506 00:42:43.266988 10970 net.cpp:159] Memory required for data: 9057520
I0506 00:42:43.266993 10970 layer_factory.hpp:77] Creating layer loss
I0506 00:42:43.266999 10970 net.cpp:94] Creating Layer loss
I0506 00:42:43.267001 10970 net.cpp:435] loss <- ip3
I0506 00:42:43.267005 10970 net.cpp:435] loss <- label
I0506 00:42:43.267009 10970 net.cpp:409] loss -> loss
I0506 00:42:43.267021 10970 layer_factory.hpp:77] Creating layer loss
…
I0506 00:42:43.267452 10970 solver.cpp:181] Creating test net (#0) specified by net file: ./protocol/dis_5_400_dimension.protocol_distribution
I0506 00:42:43.267475 10970 net.cpp:323] The NetState phase (1) differed from the phase (0) specified by a rule in layer parameters
I0506 00:42:43.267557 10970 net.cpp:52] Initializing net from parameters: 
state {
  phase: TEST
}
layer {
  name: "intercept"
  type: "HDF5Data"
  top: "data"
  top: "label"
  include {
    phase: TEST
  }
  hdf5_data_param {
    source: "/home/purduethu/scratch/radon/d/deng106/CNNStatisticalModel/distributions/input/5_distributions_400_sample_size_test-distributions-path.txt"
    batch_size: 20
  }
}
layer {
  name: "conv1"
  type: "Convolution"
  bottom: "data"
  top: "conv1"
  param {
    lr_mult: 1
  }
  param {
    lr_mult: 2
  }
  convolution_param {
    num_output: 64
    pad: 2
    kernel_size: 5
    stride: 1
    weight_filler {
      type: "gaussian"
      std: 0.0001
    }
    bias_filler {
      type: "constant"
    }
  }
}
layer {
  name: "relu1"
  type: "ReLU"
  bottom: "conv1"
  top: "conv1"
}
layer {
  name: "pool1"
  type: "Pooling"
  bottom: "conv1"
  top: "pool1"
  pooling_param {
    pool: MAX
    kernel_size: 3
    stride: 2
  }
}
layer {
  name: "conv2"
  type: "Convolution"
  bottom: "pool1"
  top: "conv2"
  param {
    lr_mult: 1
  }
  param {
    lr_mult: 2
  }
  convolution_param {
    num_output: 128
    pad: 2
    kernel_size: 5
    stride: 1
    weight_filler {
      type: "gaussian"
      std: 0.01
    }
    bias_filler {
      type: "constant"
    }
  }
}
layer {
  name: "relu2"
  type: "ReLU"
  bottom: "conv2"
  top: "conv2"
}
layer {
  name: "conv3"
  type: "Convolution"
  bottom: "conv2"
  top: "conv3"
  param {
    lr_mult: 1
  }
  param {
    lr_mult: 2
  }
  convolution_param {
    num_output: 128
    pad: 2
    kernel_size: 5
    stride: 1
    weight_filler {
      type: "gaussian"
      std: 0.01
    }
    bias_filler {
      type: "constant"
    }
  }
}
layer {
  name: "relu3"
  type: "ReLU"
  bottom: "conv3"
  top: "conv3"
}
layer {
  name: "pool3"
  type: "Pooling"
  bottom: "conv3"
  top: "pool3"
  pooling_param {
    pool: AVE
    kernel_size: 3
    stride: 2
  }
}
layer {
  name: "ip1"
  type: "InnerProduct"
  bottom: "pool3"
  top: "ip1"
  param {
    lr_mult: 1
  }
  param {
    lr_mult: 2
  }
  inner_product_param {
    num_output: 512
    weight_filler {
      type: "gaussian"
      std: 0.1
    }
    bias_filler {
      type: "constant"
    }
  }
}
layer {
  name: "ip2"
  type: "InnerProduct"
  bottom: "ip1"
  top: "ip2"
  param {
    lr_mult: 1
  }
  param {
    lr_mult: 2
  }
  inner_product_param {
    num_output: 256
    weight_filler {
      type: "gaussian"
      std: 0.1
    }
    bias_filler {
      type: "constant"
    }
  }
}
layer {
  name: "ip3"
  type: "InnerProduct"
  bottom: "ip2"
  top: "ip3"
  param {
    lr_mult: 1
  }
  param {
    lr_mult: 2
  }
  inner_product_param {
    num_output: 50
    weight_filler {
      type: "gaussian"
      std: 0.1
    }
    bias_filler {
      type: "constant"
    }
  }
}
layer {
  name: "accuracy"
  type: "Accuracy"
  bottom: "ip3"
  bottom: "label"
  top: "accuracy"
  include {
    phase: TEST
  }
}
layer {
  name: "loss"
  type: "SoftmaxWithLoss"
  bottom: "ip3"
  bottom: "label"
  top: "loss"
}
I0506 00:42:43.267616 10970 layer_factory.hpp:77] Creating layer intercept
I0506 00:42:43.267623 10970 net.cpp:94] Creating Layer intercept
I0506 00:42:43.267627 10970 net.cpp:409] intercept -> data
I0506 00:42:43.267633 10970 net.cpp:409] intercept -> label
I0506 00:42:43.267639 10970 hdf5_data_layer.cpp:79] Loading list of HDF5 filenames from: /home/purduethu/scratch/radon/d/deng106/CNNStatisticalModel/distributions/input/5_distributions_400_sample_size_test-distributions-path.txt
I0506 00:42:43.267658 10970 hdf5_data_layer.cpp:93] Number of HDF5 files: 1
I0506 00:42:43.283462 10970 net.cpp:144] Setting up intercept
I0506 00:42:43.283495 10970 net.cpp:151] Top shape: 20 1 20 20 (8000)
I0506 00:42:43.283500 10970 net.cpp:151] Top shape: 20 (20)
I0506 00:42:43.283504 10970 net.cpp:159] Memory required for data: 32080
I0506 00:42:43.283509 10970 layer_factory.hpp:77] Creating layer label_intercept_1_split
I0506 00:42:43.283529 10970 net.cpp:94] Creating Layer label_intercept_1_split
I0506 00:42:43.283532 10970 net.cpp:435] label_intercept_1_split <- label
I0506 00:42:43.283537 10970 net.cpp:409] label_intercept_1_split -> label_intercept_1_split_0
I0506 00:42:43.283546 10970 net.cpp:409] label_intercept_1_split -> label_intercept_1_split_1
I0506 00:42:43.283586 10970 net.cpp:144] Setting up label_intercept_1_split
I0506 00:42:43.283591 10970 net.cpp:151] Top shape: 20 (20)
I0506 00:42:43.283594 10970 net.cpp:151] Top shape: 20 (20)
I0506 00:42:43.283597 10970 net.cpp:159] Memory required for data: 32240
I0506 00:42:43.283601 10970 layer_factory.hpp:77] Creating layer conv1
I0506 00:42:43.283612 10970 net.cpp:94] Creating Layer conv1
I0506 00:42:43.283614 10970 net.cpp:435] conv1 <- data
I0506 00:42:43.283618 10970 net.cpp:409] conv1 -> conv1
I0506 00:42:43.284437 10970 net.cpp:144] Setting up conv1
I0506 00:42:43.284451 10970 net.cpp:151] Top shape: 20 64 20 20 (512000)
I0506 00:42:43.284453 10970 net.cpp:159] Memory required for data: 2080240
I0506 00:42:43.284463 10970 layer_factory.hpp:77] Creating layer relu1
I0506 00:42:43.284471 10970 net.cpp:94] Creating Layer relu1
I0506 00:42:43.284473 10970 net.cpp:435] relu1 <- conv1
I0506 00:42:43.284477 10970 net.cpp:396] relu1 -> conv1 (in-place)
I0506 00:42:43.284484 10970 net.cpp:144] Setting up relu1
I0506 00:42:43.284488 10970 net.cpp:151] Top shape: 20 64 20 20 (512000)
I0506 00:42:43.284492 10970 net.cpp:159] Memory required for data: 4128240
I0506 00:42:43.284493 10970 layer_factory.hpp:77] Creating layer pool1
I0506 00:42:43.284500 10970 net.cpp:94] Creating Layer pool1
I0506 00:42:43.284503 10970 net.cpp:435] pool1 <- conv1
I0506 00:42:43.284507 10970 net.cpp:409] pool1 -> pool1
I0506 00:42:43.284574 10970 net.cpp:144] Setting up pool1
I0506 00:42:43.284581 10970 net.cpp:151] Top shape: 20 64 10 10 (128000)
I0506 00:42:43.284584 10970 net.cpp:159] Memory required for data: 4640240
I0506 00:42:43.284587 10970 layer_factory.hpp:77] Creating layer conv2
I0506 00:42:43.284595 10970 net.cpp:94] Creating Layer conv2
I0506 00:42:43.284598 10970 net.cpp:435] conv2 <- pool1
I0506 00:42:43.284603 10970 net.cpp:409] conv2 -> conv2
I0506 00:42:43.292265 10970 net.cpp:144] Setting up conv2
I0506 00:42:43.292279 10970 net.cpp:151] Top shape: 20 128 10 10 (256000)
I0506 00:42:43.292284 10970 net.cpp:159] Memory required for data: 5664240
I0506 00:42:43.292291 10970 layer_factory.hpp:77] Creating layer relu2
I0506 00:42:43.292304 10970 net.cpp:94] Creating Layer relu2
I0506 00:42:43.292307 10970 net.cpp:435] relu2 <- conv2
I0506 00:42:43.292311 10970 net.cpp:396] relu2 -> conv2 (in-place)
I0506 00:42:43.292318 10970 net.cpp:144] Setting up relu2
I0506 00:42:43.292322 10970 net.cpp:151] Top shape: 20 128 10 10 (256000)
I0506 00:42:43.292325 10970 net.cpp:159] Memory required for data: 6688240
I0506 00:42:43.292328 10970 layer_factory.hpp:77] Creating layer conv3
I0506 00:42:43.292335 10970 net.cpp:94] Creating Layer conv3
I0506 00:42:43.292338 10970 net.cpp:435] conv3 <- conv2
I0506 00:42:43.292343 10970 net.cpp:409] conv3 -> conv3
I0506 00:42:43.305991 10970 net.cpp:144] Setting up conv3
I0506 00:42:43.306030 10970 net.cpp:151] Top shape: 20 128 10 10 (256000)
I0506 00:42:43.306040 10970 net.cpp:159] Memory required for data: 7712240
I0506 00:42:43.306061 10970 layer_factory.hpp:77] Creating layer relu3
I0506 00:42:43.306079 10970 net.cpp:94] Creating Layer relu3
I0506 00:42:43.306088 10970 net.cpp:435] relu3 <- conv3
I0506 00:42:43.306100 10970 net.cpp:396] relu3 -> conv3 (in-place)
I0506 00:42:43.306119 10970 net.cpp:144] Setting up relu3
I0506 00:42:43.306130 10970 net.cpp:151] Top shape: 20 128 10 10 (256000)
I0506 00:42:43.306139 10970 net.cpp:159] Memory required for data: 8736240
I0506 00:42:43.306149 10970 layer_factory.hpp:77] Creating layer pool3
I0506 00:42:43.306164 10970 net.cpp:94] Creating Layer pool3
I0506 00:42:43.306172 10970 net.cpp:435] pool3 <- conv3
I0506 00:42:43.306185 10970 net.cpp:409] pool3 -> pool3
I0506 00:42:43.306249 10970 net.cpp:144] Setting up pool3
I0506 00:42:43.306255 10970 net.cpp:151] Top shape: 20 128 5 5 (64000)
I0506 00:42:43.306258 10970 net.cpp:159] Memory required for data: 8992240
I0506 00:42:43.306260 10970 layer_factory.hpp:77] Creating layer ip1
I0506 00:42:43.306267 10970 net.cpp:94] Creating Layer ip1
I0506 00:42:43.306272 10970 net.cpp:435] ip1 <- pool3
I0506 00:42:43.306275 10970 net.cpp:409] ip1 -> ip1
I0506 00:42:43.345775 10970 net.cpp:144] Setting up ip1
I0506 00:42:43.345791 10970 net.cpp:151] Top shape: 20 512 (10240)
I0506 00:42:43.345794 10970 net.cpp:159] Memory required for data: 9033200
I0506 00:42:43.345800 10970 layer_factory.hpp:77] Creating layer ip2
I0506 00:42:43.345808 10970 net.cpp:94] Creating Layer ip2
I0506 00:42:43.345810 10970 net.cpp:435] ip2 <- ip1
I0506 00:42:43.345815 10970 net.cpp:409] ip2 -> ip2
I0506 00:42:43.348945 10970 net.cpp:144] Setting up ip2
I0506 00:42:43.348954 10970 net.cpp:151] Top shape: 20 256 (5120)
I0506 00:42:43.348958 10970 net.cpp:159] Memory required for data: 9053680
I0506 00:42:43.348964 10970 layer_factory.hpp:77] Creating layer ip3
I0506 00:42:43.348970 10970 net.cpp:94] Creating Layer ip3
I0506 00:42:43.348973 10970 net.cpp:435] ip3 <- ip2
I0506 00:42:43.348978 10970 net.cpp:409] ip3 -> ip3
I0506 00:42:43.349397 10970 net.cpp:144] Setting up ip3
I0506 00:42:43.349405 10970 net.cpp:151] Top shape: 20 50 (1000)
I0506 00:42:43.349407 10970 net.cpp:159] Memory required for data: 9057680
I0506 00:42:43.349411 10970 layer_factory.hpp:77] Creating layer ip3_ip3_0_split
I0506 00:42:43.349417 10970 net.cpp:94] Creating Layer ip3_ip3_0_split
I0506 00:42:43.349421 10970 net.cpp:435] ip3_ip3_0_split <- ip3
I0506 00:42:43.349424 10970 net.cpp:409] ip3_ip3_0_split -> ip3_ip3_0_split_0
I0506 00:42:43.349429 10970 net.cpp:409] ip3_ip3_0_split -> ip3_ip3_0_split_1
I0506 00:42:43.349467 10970 net.cpp:144] Setting up ip3_ip3_0_split
I0506 00:42:43.349472 10970 net.cpp:151] Top shape: 20 50 (1000)
I0506 00:42:43.349474 10970 net.cpp:151] Top shape: 20 50 (1000)
I0506 00:42:43.349478 10970 net.cpp:159] Memory required for data: 9065680
I0506 00:42:43.349480 10970 layer_factory.hpp:77] Creating layer accuracy
I0506 00:42:43.349485 10970 net.cpp:94] Creating Layer accuracy
I0506 00:42:43.349488 10970 net.cpp:435] accuracy <- ip3_ip3_0_split_0
I0506 00:42:43.349493 10970 net.cpp:435] accuracy <- label_intercept_1_split_0
I0506 00:42:43.349495 10970 net.cpp:409] accuracy -> accuracy
…
