…
I0503 03:55:37.028260 18135 net.cpp:323] The NetState phase (0) differed from the phase (1) specified by a rule in layer intercept
I0503 03:55:37.028276 18135 net.cpp:323] The NetState phase (0) differed from the phase (1) specified by a rule in layer loss
I0503 03:55:37.028355 18135 net.cpp:52] Initializing net from parameters: 
state {
  phase: TRAIN
}
layer {
  name: "parameters"
  type: "HDF5Data"
  top: "data"
  top: "label"
  include {
    phase: TRAIN
  }
  hdf5_data_param {
    source: "/home/purduethu/scratch/radon/d/deng106/CNNStatisticalModel/distributions/input/5_distributions_900_sample_size_train-parameters-path.txt"
    batch_size: 20
  }
}
layer {
  name: "conv1"
  type: "Convolution"
  bottom: "data"
  top: "conv1"
  param {
    lr_mult: 1
  }
  param {
    lr_mult: 2
  }
  convolution_param {
    num_output: 64
    pad: 2
    kernel_size: 5
    stride: 1
    weight_filler {
      type: "gaussian"
      std: 0.0001
    }
    bias_filler {
      type: "constant"
    }
  }
}
layer {
  name: "relu1"
  type: "ReLU"
  bottom: "conv1"
  top: "conv1"
}
layer {
  name: "conv2"
  type: "Convolution"
  bottom: "conv1"
  top: "conv2"
  param {
    lr_mult: 1
  }
  param {
    lr_mult: 2
  }
  convolution_param {
    num_output: 64
    pad: 2
    kernel_size: 5
    stride: 1
    weight_filler {
      type: "gaussian"
      std: 0.01
    }
    bias_filler {
      type: "constant"
    }
  }
}
layer {
  name: "relu2"
  type: "ReLU"
  bottom: "conv2"
  top: "conv2"
}
layer {
  name: "pool2"
  type: "Pooling"
  bottom: "conv2"
  top: "pool2"
  pooling_param {
    pool: MAX
    kernel_size: 3
    stride: 2
  }
}
layer {
  name: "conv3"
  type: "Convolution"
  bottom: "pool2"
  top: "conv3"
  param {
    lr_mult: 1
  }
  param {
    lr_mult: 2
  }
  convolution_param {
    num_output: 128
    pad: 2
    kernel_size: 5
    stride: 1
    weight_filler {
      type: "gaussian"
      std: 0.01
    }
    bias_filler {
      type: "constant"
    }
  }
}
layer {
  name: "relu3"
  type: "ReLU"
  bottom: "conv3"
  top: "conv3"
}
layer {
  name: "conv4"
  type: "Convolution"
  bottom: "conv3"
  top: "conv4"
  param {
    lr_mult: 1
  }
  param {
    lr_mult: 2
  }
  convolution_param {
    num_output: 128
    pad: 2
    kernel_size: 5
    stride: 1
    weight_filler {
      type: "gaussian"
      std: 0.01
    }
    bias_filler {
      type: "constant"
    }
  }
}
layer {
  name: "relu4"
  type: "ReLU"
  bottom: "conv4"
  top: "conv4"
}
layer {
  name: "conv5"
  type: "Convolution"
  bottom: "conv4"
  top: "conv5"
  param {
    lr_mult: 1
  }
  param {
    lr_mult: 2
  }
  convolution_param {
    num_output: 128
    pad: 2
    kernel_size: 5
    stride: 1
    weight_filler {
      type: "gaussian"
      std: 0.01
    }
    bias_filler {
      type: "constant"
    }
  }
}
layer {
  name: "relu5"
  type: "ReLU"
  bottom: "conv5"
  top: "conv5"
}
layer {
  name: "pool5"
  type: "Pooling"
  bottom: "conv5"
  top: "pool5"
  pooling_param {
    pool: AVE
    kernel_size: 3
    stride: 2
  }
}
layer {
  name: "ip1"
  type: "InnerProduct"
  bottom: "pool5"
  top: "ip1"
  param {
    lr_mult: 1
  }
  param {
    lr_mult: 2
  }
  inner_product_param {
    num_output: 1024
    weight_filler {
      type: "gaussian"
      std: 0.1
    }
    bias_filler {
      type: "constant"
    }
  }
}
layer {
  name: "ip2"
  type: "InnerProduct"
  bottom: "ip1"
  top: "ip2"
  param {
    lr_mult: 1
  }
  param {
    lr_mult: 2
  }
  inner_product_param {
    num_output: 512
    weight_filler {
      type: "gaussian"
      std: 0.1
    }
    bias_filler {
      type: "constant"
    }
  }
}
layer {
  name: "ip3"
  type: "InnerProduct"
  bottom: "ip2"
  top: "ip3"
  param {
    lr_mult: 1
  }
  param {
    lr_mult: 2
  }
  inner_product_param {
    num_output: 1
    weight_filler {
      type: "gaussian"
      std: 0.1
    }
    bias_filler {
      type: "constant"
    }
  }
}
layer {
  name: "loss"
  type: "HuberLoss"
  bottom: "ip3"
  bottom: "label"
  top: "loss"
  include {
    phase: TRAIN
  }
}
I0503 03:55:37.028409 18135 layer_factory.hpp:77] Creating layer parameters
I0503 03:55:37.028424 18135 net.cpp:94] Creating Layer parameters
I0503 03:55:37.028429 18135 net.cpp:409] parameters -> data
I0503 03:55:37.028437 18135 net.cpp:409] parameters -> label
I0503 03:55:37.028443 18135 hdf5_data_layer.cpp:79] Loading list of HDF5 filenames from: /home/purduethu/scratch/radon/d/deng106/CNNStatisticalModel/distributions/input/5_distributions_900_sample_size_train-parameters-path.txt
I0503 03:55:37.028458 18135 hdf5_data_layer.cpp:93] Number of HDF5 files: 1
I0503 03:55:37.029013 18135 hdf5.cpp:32] Datatype class: H5T_FLOAT
I0503 03:55:37.172157 18135 net.cpp:144] Setting up parameters
I0503 03:55:37.172188 18135 net.cpp:151] Top shape: 20 1 30 30 (18000)
I0503 03:55:37.172193 18135 net.cpp:151] Top shape: 20 (20)
I0503 03:55:37.172196 18135 net.cpp:159] Memory required for data: 72080
I0503 03:55:37.172202 18135 layer_factory.hpp:77] Creating layer conv1
I0503 03:55:37.172224 18135 net.cpp:94] Creating Layer conv1
I0503 03:55:37.172229 18135 net.cpp:435] conv1 <- data
I0503 03:55:37.172235 18135 net.cpp:409] conv1 -> conv1
I0503 03:55:37.178694 18135 net.cpp:144] Setting up conv1
I0503 03:55:37.178717 18135 net.cpp:151] Top shape: 20 64 30 30 (1152000)
I0503 03:55:37.178721 18135 net.cpp:159] Memory required for data: 4680080
I0503 03:55:37.178733 18135 layer_factory.hpp:77] Creating layer relu1
I0503 03:55:37.178745 18135 net.cpp:94] Creating Layer relu1
I0503 03:55:37.178748 18135 net.cpp:435] relu1 <- conv1
I0503 03:55:37.178752 18135 net.cpp:396] relu1 -> conv1 (in-place)
I0503 03:55:37.178766 18135 net.cpp:144] Setting up relu1
I0503 03:55:37.178771 18135 net.cpp:151] Top shape: 20 64 30 30 (1152000)
I0503 03:55:37.178774 18135 net.cpp:159] Memory required for data: 9288080
I0503 03:55:37.178776 18135 layer_factory.hpp:77] Creating layer conv2
I0503 03:55:37.178786 18135 net.cpp:94] Creating Layer conv2
I0503 03:55:37.178788 18135 net.cpp:435] conv2 <- conv1
I0503 03:55:37.178793 18135 net.cpp:409] conv2 -> conv2
I0503 03:55:37.195919 18135 net.cpp:144] Setting up conv2
I0503 03:55:37.195935 18135 net.cpp:151] Top shape: 20 64 30 30 (1152000)
I0503 03:55:37.195940 18135 net.cpp:159] Memory required for data: 13896080
I0503 03:55:37.195948 18135 layer_factory.hpp:77] Creating layer relu2
I0503 03:55:37.195956 18135 net.cpp:94] Creating Layer relu2
I0503 03:55:37.195960 18135 net.cpp:435] relu2 <- conv2
I0503 03:55:37.195964 18135 net.cpp:396] relu2 -> conv2 (in-place)
I0503 03:55:37.195971 18135 net.cpp:144] Setting up relu2
I0503 03:55:37.195976 18135 net.cpp:151] Top shape: 20 64 30 30 (1152000)
I0503 03:55:37.195978 18135 net.cpp:159] Memory required for data: 18504080
I0503 03:55:37.195981 18135 layer_factory.hpp:77] Creating layer pool2
I0503 03:55:37.195987 18135 net.cpp:94] Creating Layer pool2
I0503 03:55:37.195996 18135 net.cpp:435] pool2 <- conv2
I0503 03:55:37.196002 18135 net.cpp:409] pool2 -> pool2
I0503 03:55:37.196053 18135 net.cpp:144] Setting up pool2
I0503 03:55:37.196060 18135 net.cpp:151] Top shape: 20 64 15 15 (288000)
I0503 03:55:37.196063 18135 net.cpp:159] Memory required for data: 19656080
I0503 03:55:37.196066 18135 layer_factory.hpp:77] Creating layer conv3
I0503 03:55:37.196075 18135 net.cpp:94] Creating Layer conv3
I0503 03:55:37.196079 18135 net.cpp:435] conv3 <- pool2
I0503 03:55:37.196084 18135 net.cpp:409] conv3 -> conv3
I0503 03:55:37.208645 18135 net.cpp:144] Setting up conv3
I0503 03:55:37.208662 18135 net.cpp:151] Top shape: 20 128 15 15 (576000)
I0503 03:55:37.208665 18135 net.cpp:159] Memory required for data: 21960080
I0503 03:55:37.208673 18135 layer_factory.hpp:77] Creating layer relu3
I0503 03:55:37.208679 18135 net.cpp:94] Creating Layer relu3
I0503 03:55:37.208683 18135 net.cpp:435] relu3 <- conv3
I0503 03:55:37.208688 18135 net.cpp:396] relu3 -> conv3 (in-place)
I0503 03:55:37.208695 18135 net.cpp:144] Setting up relu3
I0503 03:55:37.208699 18135 net.cpp:151] Top shape: 20 128 15 15 (576000)
I0503 03:55:37.208703 18135 net.cpp:159] Memory required for data: 24264080
I0503 03:55:37.208705 18135 layer_factory.hpp:77] Creating layer conv4
I0503 03:55:37.208714 18135 net.cpp:94] Creating Layer conv4
I0503 03:55:37.208717 18135 net.cpp:435] conv4 <- conv3
I0503 03:55:37.208722 18135 net.cpp:409] conv4 -> conv4
I0503 03:55:37.231284 18135 net.cpp:144] Setting up conv4
I0503 03:55:37.231304 18135 net.cpp:151] Top shape: 20 128 15 15 (576000)
I0503 03:55:37.231308 18135 net.cpp:159] Memory required for data: 26568080
I0503 03:55:37.231315 18135 layer_factory.hpp:77] Creating layer relu4
I0503 03:55:37.231323 18135 net.cpp:94] Creating Layer relu4
I0503 03:55:37.231326 18135 net.cpp:435] relu4 <- conv4
I0503 03:55:37.231331 18135 net.cpp:396] relu4 -> conv4 (in-place)
I0503 03:55:37.231338 18135 net.cpp:144] Setting up relu4
I0503 03:55:37.231343 18135 net.cpp:151] Top shape: 20 128 15 15 (576000)
I0503 03:55:37.231345 18135 net.cpp:159] Memory required for data: 28872080
I0503 03:55:37.231348 18135 layer_factory.hpp:77] Creating layer conv5
I0503 03:55:37.231355 18135 net.cpp:94] Creating Layer conv5
I0503 03:55:37.231359 18135 net.cpp:435] conv5 <- conv4
I0503 03:55:37.231364 18135 net.cpp:409] conv5 -> conv5
I0503 03:55:37.254818 18135 net.cpp:144] Setting up conv5
I0503 03:55:37.254838 18135 net.cpp:151] Top shape: 20 128 15 15 (576000)
I0503 03:55:37.254842 18135 net.cpp:159] Memory required for data: 31176080
I0503 03:55:37.254853 18135 layer_factory.hpp:77] Creating layer relu5
I0503 03:55:37.254859 18135 net.cpp:94] Creating Layer relu5
I0503 03:55:37.254863 18135 net.cpp:435] relu5 <- conv5
I0503 03:55:37.254868 18135 net.cpp:396] relu5 -> conv5 (in-place)
I0503 03:55:37.254874 18135 net.cpp:144] Setting up relu5
I0503 03:55:37.254878 18135 net.cpp:151] Top shape: 20 128 15 15 (576000)
I0503 03:55:37.254881 18135 net.cpp:159] Memory required for data: 33480080
I0503 03:55:37.254884 18135 layer_factory.hpp:77] Creating layer pool5
I0503 03:55:37.254891 18135 net.cpp:94] Creating Layer pool5
I0503 03:55:37.254894 18135 net.cpp:435] pool5 <- conv5
I0503 03:55:37.254899 18135 net.cpp:409] pool5 -> pool5
I0503 03:55:37.254943 18135 net.cpp:144] Setting up pool5
I0503 03:55:37.254951 18135 net.cpp:151] Top shape: 20 128 7 7 (125440)
I0503 03:55:37.254953 18135 net.cpp:159] Memory required for data: 33981840
I0503 03:55:37.254956 18135 layer_factory.hpp:77] Creating layer ip1
I0503 03:55:37.254967 18135 net.cpp:94] Creating Layer ip1
I0503 03:55:37.254971 18135 net.cpp:435] ip1 <- pool5
I0503 03:55:37.254976 18135 net.cpp:409] ip1 -> ip1
I0503 03:55:37.412699 18135 net.cpp:144] Setting up ip1
I0503 03:55:37.412736 18135 net.cpp:151] Top shape: 20 1024 (20480)
I0503 03:55:37.412740 18135 net.cpp:159] Memory required for data: 34063760
I0503 03:55:37.412750 18135 layer_factory.hpp:77] Creating layer ip2
I0503 03:55:37.412760 18135 net.cpp:94] Creating Layer ip2
I0503 03:55:37.412770 18135 net.cpp:435] ip2 <- ip1
I0503 03:55:37.412777 18135 net.cpp:409] ip2 -> ip2
I0503 03:55:37.426055 18135 net.cpp:144] Setting up ip2
I0503 03:55:37.426076 18135 net.cpp:151] Top shape: 20 512 (10240)
I0503 03:55:37.426080 18135 net.cpp:159] Memory required for data: 34104720
I0503 03:55:37.426086 18135 layer_factory.hpp:77] Creating layer ip3
I0503 03:55:37.426097 18135 net.cpp:94] Creating Layer ip3
I0503 03:55:37.426101 18135 net.cpp:435] ip3 <- ip2
I0503 03:55:37.426107 18135 net.cpp:409] ip3 -> ip3
I0503 03:55:37.426224 18135 net.cpp:144] Setting up ip3
I0503 03:55:37.426231 18135 net.cpp:151] Top shape: 20 1 (20)
I0503 03:55:37.426234 18135 net.cpp:159] Memory required for data: 34104800
I0503 03:55:37.426239 18135 layer_factory.hpp:77] Creating layer loss
I0503 03:55:37.426247 18135 net.cpp:94] Creating Layer loss
I0503 03:55:37.426250 18135 net.cpp:435] loss <- ip3
I0503 03:55:37.426254 18135 net.cpp:435] loss <- label
I0503 03:55:37.426259 18135 net.cpp:409] loss -> loss
I0503 03:55:37.426308 18135 net.cpp:144] Setting up loss
…
I0503 03:55:37.681300 18135 net.cpp:323] The NetState phase (0) differed from the phase (1) specified by a rule in layer intercept
I0503 03:55:37.681316 18135 net.cpp:323] The NetState phase (0) differed from the phase (1) specified by a rule in layer accuracy
I0503 03:55:37.681408 18135 net.cpp:52] Initializing net from parameters: 
state {
  phase: TRAIN
}
layer {
  name: "parameters"
  type: "HDF5Data"
  top: "data"
  top: "label"
  include {
    phase: TRAIN
  }
  hdf5_data_param {
    source: "/home/purduethu/scratch/radon/d/deng106/CNNStatisticalModel/distributions/input/5_distributions_900_sample_size_train-distributions-path.txt"
    batch_size: 20
  }
}
layer {
  name: "conv1"
  type: "Convolution"
  bottom: "data"
  top: "conv1"
  param {
    lr_mult: 1
  }
  param {
    lr_mult: 2
  }
  convolution_param {
    num_output: 64
    pad: 2
    kernel_size: 5
    stride: 1
    weight_filler {
      type: "gaussian"
      std: 0.0001
    }
    bias_filler {
      type: "constant"
    }
  }
}
layer {
  name: "relu1"
  type: "ReLU"
  bottom: "conv1"
  top: "conv1"
}
layer {
  name: "conv2"
  type: "Convolution"
  bottom: "conv1"
  top: "conv2"
  param {
    lr_mult: 1
  }
  param {
    lr_mult: 2
  }
  convolution_param {
    num_output: 64
    pad: 2
    kernel_size: 5
    stride: 1
    weight_filler {
      type: "gaussian"
      std: 0.01
    }
    bias_filler {
      type: "constant"
    }
  }
}
layer {
  name: "relu2"
  type: "ReLU"
  bottom: "conv2"
  top: "conv2"
}
layer {
  name: "pool2"
  type: "Pooling"
  bottom: "conv2"
  top: "pool2"
  pooling_param {
    pool: MAX
    kernel_size: 3
    stride: 2
  }
}
layer {
  name: "conv3"
  type: "Convolution"
  bottom: "pool2"
  top: "conv3"
  param {
    lr_mult: 1
  }
  param {
    lr_mult: 2
  }
  convolution_param {
    num_output: 128
    pad: 2
    kernel_size: 5
    stride: 1
    weight_filler {
      type: "gaussian"
      std: 0.01
    }
    bias_filler {
      type: "constant"
    }
  }
}
layer {
  name: "relu3"
  type: "ReLU"
  bottom: "conv3"
  top: "conv3"
}
layer {
  name: "conv4"
  type: "Convolution"
  bottom: "conv3"
  top: "conv4"
  param {
    lr_mult: 1
  }
  param {
    lr_mult: 2
  }
  convolution_param {
    num_output: 128
    pad: 2
    kernel_size: 5
    stride: 1
    weight_filler {
      type: "gaussian"
      std: 0.01
    }
    bias_filler {
      type: "constant"
    }
  }
}
layer {
  name: "relu4"
  type: "ReLU"
  bottom: "conv4"
  top: "conv4"
}
layer {
  name: "conv5"
  type: "Convolution"
  bottom: "conv4"
  top: "conv5"
  param {
    lr_mult: 1
  }
  param {
    lr_mult: 2
  }
  convolution_param {
    num_output: 128
    pad: 2
    kernel_size: 5
    stride: 1
    weight_filler {
      type: "gaussian"
      std: 0.01
    }
    bias_filler {
      type: "constant"
    }
  }
}
layer {
  name: "relu5"
  type: "ReLU"
  bottom: "conv5"
  top: "conv5"
}
layer {
  name: "pool5"
  type: "Pooling"
  bottom: "conv5"
  top: "pool5"
  pooling_param {
    pool: AVE
    kernel_size: 3
    stride: 2
  }
}
layer {
  name: "ip1"
  type: "InnerProduct"
  bottom: "pool5"
  top: "ip1"
  param {
    lr_mult: 1
  }
  param {
    lr_mult: 2
  }
  inner_product_param {
    num_output: 1024
    weight_filler {
      type: "gaussian"
      std: 0.1
    }
    bias_filler {
      type: "constant"
    }
  }
}
layer {
  name: "ip2"
  type: "InnerProduct"
  bottom: "ip1"
  top: "ip2"
  param {
    lr_mult: 1
  }
  param {
    lr_mult: 2
  }
  inner_product_param {
    num_output: 512
    weight_filler {
      type: "gaussian"
      std: 0.1
    }
    bias_filler {
      type: "constant"
    }
  }
}
layer {
  name: "ip3"
  type: "InnerProduct"
  bottom: "ip2"
  top: "ip3"
  param {
    lr_mult: 1
  }
  param {
    lr_mult: 2
  }
  inner_product_param {
    num_output: 50
    weight_filler {
      type: "gaussian"
      std: 0.1
    }
    bias_filler {
      type: "constant"
    }
  }
}
layer {
  name: "loss"
  type: "SoftmaxWithLoss"
  bottom: "ip3"
  bottom: "label"
  top: "loss"
}
I0503 03:55:37.681463 18135 layer_factory.hpp:77] Creating layer parameters
I0503 03:55:37.681471 18135 net.cpp:94] Creating Layer parameters
I0503 03:55:37.681475 18135 net.cpp:409] parameters -> data
I0503 03:55:37.681483 18135 net.cpp:409] parameters -> label
I0503 03:55:37.681488 18135 hdf5_data_layer.cpp:79] Loading list of HDF5 filenames from: /home/purduethu/scratch/radon/d/deng106/CNNStatisticalModel/distributions/input/5_distributions_900_sample_size_train-distributions-path.txt
I0503 03:55:37.681505 18135 hdf5_data_layer.cpp:93] Number of HDF5 files: 1
I0503 03:55:37.817667 18135 hdf5.cpp:35] Datatype class: H5T_INTEGER
I0503 03:55:37.818112 18135 net.cpp:144] Setting up parameters
I0503 03:55:37.818127 18135 net.cpp:151] Top shape: 20 1 30 30 (18000)
I0503 03:55:37.818131 18135 net.cpp:151] Top shape: 20 (20)
I0503 03:55:37.818135 18135 net.cpp:159] Memory required for data: 72080
I0503 03:55:37.818141 18135 layer_factory.hpp:77] Creating layer conv1
I0503 03:55:37.818156 18135 net.cpp:94] Creating Layer conv1
I0503 03:55:37.818161 18135 net.cpp:435] conv1 <- data
I0503 03:55:37.818167 18135 net.cpp:409] conv1 -> conv1
I0503 03:55:37.825451 18135 net.cpp:144] Setting up conv1
I0503 03:55:37.825469 18135 net.cpp:151] Top shape: 20 64 30 30 (1152000)
I0503 03:55:37.825474 18135 net.cpp:159] Memory required for data: 4680080
I0503 03:55:37.825485 18135 layer_factory.hpp:77] Creating layer relu1
I0503 03:55:37.825494 18135 net.cpp:94] Creating Layer relu1
I0503 03:55:37.825497 18135 net.cpp:435] relu1 <- conv1
I0503 03:55:37.825502 18135 net.cpp:396] relu1 -> conv1 (in-place)
I0503 03:55:37.825510 18135 net.cpp:144] Setting up relu1
I0503 03:55:37.825515 18135 net.cpp:151] Top shape: 20 64 30 30 (1152000)
I0503 03:55:37.825517 18135 net.cpp:159] Memory required for data: 9288080
I0503 03:55:37.825520 18135 layer_factory.hpp:77] Creating layer conv2
I0503 03:55:37.825527 18135 net.cpp:94] Creating Layer conv2
I0503 03:55:37.825531 18135 net.cpp:435] conv2 <- conv1
I0503 03:55:37.825536 18135 net.cpp:409] conv2 -> conv2
I0503 03:55:37.841357 18135 net.cpp:144] Setting up conv2
I0503 03:55:37.841374 18135 net.cpp:151] Top shape: 20 64 30 30 (1152000)
I0503 03:55:37.841378 18135 net.cpp:159] Memory required for data: 13896080
I0503 03:55:37.841387 18135 layer_factory.hpp:77] Creating layer relu2
I0503 03:55:37.841394 18135 net.cpp:94] Creating Layer relu2
I0503 03:55:37.841398 18135 net.cpp:435] relu2 <- conv2
I0503 03:55:37.841403 18135 net.cpp:396] relu2 -> conv2 (in-place)
I0503 03:55:37.841409 18135 net.cpp:144] Setting up relu2
I0503 03:55:37.841413 18135 net.cpp:151] Top shape: 20 64 30 30 (1152000)
I0503 03:55:37.841416 18135 net.cpp:159] Memory required for data: 18504080
I0503 03:55:37.841418 18135 layer_factory.hpp:77] Creating layer pool2
I0503 03:55:37.841424 18135 net.cpp:94] Creating Layer pool2
I0503 03:55:37.841428 18135 net.cpp:435] pool2 <- conv2
I0503 03:55:37.841431 18135 net.cpp:409] pool2 -> pool2
I0503 03:55:37.841485 18135 net.cpp:144] Setting up pool2
I0503 03:55:37.841491 18135 net.cpp:151] Top shape: 20 64 15 15 (288000)
I0503 03:55:37.841495 18135 net.cpp:159] Memory required for data: 19656080
I0503 03:55:37.841497 18135 layer_factory.hpp:77] Creating layer conv3
I0503 03:55:37.841506 18135 net.cpp:94] Creating Layer conv3
I0503 03:55:37.841508 18135 net.cpp:435] conv3 <- pool2
I0503 03:55:37.841519 18135 net.cpp:409] conv3 -> conv3
I0503 03:55:37.854707 18135 net.cpp:144] Setting up conv3
I0503 03:55:37.854723 18135 net.cpp:151] Top shape: 20 128 15 15 (576000)
I0503 03:55:37.854727 18135 net.cpp:159] Memory required for data: 21960080
I0503 03:55:37.854737 18135 layer_factory.hpp:77] Creating layer relu3
I0503 03:55:37.854743 18135 net.cpp:94] Creating Layer relu3
I0503 03:55:37.854746 18135 net.cpp:435] relu3 <- conv3
I0503 03:55:37.854750 18135 net.cpp:396] relu3 -> conv3 (in-place)
I0503 03:55:37.854758 18135 net.cpp:144] Setting up relu3
I0503 03:55:37.854761 18135 net.cpp:151] Top shape: 20 128 15 15 (576000)
I0503 03:55:37.854764 18135 net.cpp:159] Memory required for data: 24264080
I0503 03:55:37.854768 18135 layer_factory.hpp:77] Creating layer conv4
I0503 03:55:37.854776 18135 net.cpp:94] Creating Layer conv4
I0503 03:55:37.854779 18135 net.cpp:435] conv4 <- conv3
I0503 03:55:37.854784 18135 net.cpp:409] conv4 -> conv4
I0503 03:55:37.877547 18135 net.cpp:144] Setting up conv4
I0503 03:55:37.877566 18135 net.cpp:151] Top shape: 20 128 15 15 (576000)
I0503 03:55:37.877570 18135 net.cpp:159] Memory required for data: 26568080
I0503 03:55:37.877578 18135 layer_factory.hpp:77] Creating layer relu4
I0503 03:55:37.877585 18135 net.cpp:94] Creating Layer relu4
I0503 03:55:37.877589 18135 net.cpp:435] relu4 <- conv4
I0503 03:55:37.877593 18135 net.cpp:396] relu4 -> conv4 (in-place)
I0503 03:55:37.877601 18135 net.cpp:144] Setting up relu4
I0503 03:55:37.877605 18135 net.cpp:151] Top shape: 20 128 15 15 (576000)
I0503 03:55:37.877609 18135 net.cpp:159] Memory required for data: 28872080
I0503 03:55:37.877610 18135 layer_factory.hpp:77] Creating layer conv5
I0503 03:55:37.877619 18135 net.cpp:94] Creating Layer conv5
I0503 03:55:37.877621 18135 net.cpp:435] conv5 <- conv4
I0503 03:55:37.877626 18135 net.cpp:409] conv5 -> conv5
I0503 03:55:37.899945 18135 net.cpp:144] Setting up conv5
I0503 03:55:37.899965 18135 net.cpp:151] Top shape: 20 128 15 15 (576000)
I0503 03:55:37.899968 18135 net.cpp:159] Memory required for data: 31176080
I0503 03:55:37.899978 18135 layer_factory.hpp:77] Creating layer relu5
I0503 03:55:37.899986 18135 net.cpp:94] Creating Layer relu5
I0503 03:55:37.899989 18135 net.cpp:435] relu5 <- conv5
I0503 03:55:37.899993 18135 net.cpp:396] relu5 -> conv5 (in-place)
I0503 03:55:37.900001 18135 net.cpp:144] Setting up relu5
I0503 03:55:37.900004 18135 net.cpp:151] Top shape: 20 128 15 15 (576000)
I0503 03:55:37.900007 18135 net.cpp:159] Memory required for data: 33480080
I0503 03:55:37.900010 18135 layer_factory.hpp:77] Creating layer pool5
I0503 03:55:37.900017 18135 net.cpp:94] Creating Layer pool5
I0503 03:55:37.900020 18135 net.cpp:435] pool5 <- conv5
I0503 03:55:37.900024 18135 net.cpp:409] pool5 -> pool5
I0503 03:55:37.900068 18135 net.cpp:144] Setting up pool5
I0503 03:55:37.900074 18135 net.cpp:151] Top shape: 20 128 7 7 (125440)
I0503 03:55:37.900077 18135 net.cpp:159] Memory required for data: 33981840
I0503 03:55:37.900080 18135 layer_factory.hpp:77] Creating layer ip1
I0503 03:55:37.900089 18135 net.cpp:94] Creating Layer ip1
I0503 03:55:37.900091 18135 net.cpp:435] ip1 <- pool5
I0503 03:55:37.900096 18135 net.cpp:409] ip1 -> ip1
I0503 03:55:38.055865 18135 net.cpp:144] Setting up ip1
I0503 03:55:38.055892 18135 net.cpp:151] Top shape: 20 1024 (20480)
I0503 03:55:38.055896 18135 net.cpp:159] Memory required for data: 34063760
I0503 03:55:38.055904 18135 layer_factory.hpp:77] Creating layer ip2
I0503 03:55:38.055915 18135 net.cpp:94] Creating Layer ip2
I0503 03:55:38.055919 18135 net.cpp:435] ip2 <- ip1
I0503 03:55:38.055927 18135 net.cpp:409] ip2 -> ip2
I0503 03:55:38.069255 18135 net.cpp:144] Setting up ip2
I0503 03:55:38.069272 18135 net.cpp:151] Top shape: 20 512 (10240)
I0503 03:55:38.069277 18135 net.cpp:159] Memory required for data: 34104720
I0503 03:55:38.069283 18135 layer_factory.hpp:77] Creating layer ip3
I0503 03:55:38.069291 18135 net.cpp:94] Creating Layer ip3
I0503 03:55:38.069295 18135 net.cpp:435] ip3 <- ip2
I0503 03:55:38.069300 18135 net.cpp:409] ip3 -> ip3
I0503 03:55:38.070050 18135 net.cpp:144] Setting up ip3
I0503 03:55:38.070058 18135 net.cpp:151] Top shape: 20 50 (1000)
I0503 03:55:38.070061 18135 net.cpp:159] Memory required for data: 34108720
I0503 03:55:38.070066 18135 layer_factory.hpp:77] Creating layer loss
I0503 03:55:38.070075 18135 net.cpp:94] Creating Layer loss
I0503 03:55:38.070078 18135 net.cpp:435] loss <- ip3
I0503 03:55:38.070082 18135 net.cpp:435] loss <- label
I0503 03:55:38.070087 18135 net.cpp:409] loss -> loss
I0503 03:55:38.070094 18135 layer_factory.hpp:77] Creating layer loss
…
I0503 03:55:38.070617 18135 solver.cpp:181] Creating test net (#0) specified by net file: ./protocol/dis_5_900_dimension.protocol_distribution
I0503 03:55:38.070646 18135 net.cpp:323] The NetState phase (1) differed from the phase (0) specified by a rule in layer parameters
I0503 03:55:38.070744 18135 net.cpp:52] Initializing net from parameters: 
state {
  phase: TEST
}
layer {
  name: "intercept"
  type: "HDF5Data"
  top: "data"
  top: "label"
  include {
    phase: TEST
  }
  hdf5_data_param {
    source: "/home/purduethu/scratch/radon/d/deng106/CNNStatisticalModel/distributions/input/5_distributions_900_sample_size_test-distributions-path.txt"
    batch_size: 20
  }
}
layer {
  name: "conv1"
  type: "Convolution"
  bottom: "data"
  top: "conv1"
  param {
    lr_mult: 1
  }
  param {
    lr_mult: 2
  }
  convolution_param {
    num_output: 64
    pad: 2
    kernel_size: 5
    stride: 1
    weight_filler {
      type: "gaussian"
      std: 0.0001
    }
    bias_filler {
      type: "constant"
    }
  }
}
layer {
  name: "relu1"
  type: "ReLU"
  bottom: "conv1"
  top: "conv1"
}
layer {
  name: "conv2"
  type: "Convolution"
  bottom: "conv1"
  top: "conv2"
  param {
    lr_mult: 1
  }
  param {
    lr_mult: 2
  }
  convolution_param {
    num_output: 64
    pad: 2
    kernel_size: 5
    stride: 1
    weight_filler {
      type: "gaussian"
      std: 0.01
    }
    bias_filler {
      type: "constant"
    }
  }
}
layer {
  name: "relu2"
  type: "ReLU"
  bottom: "conv2"
  top: "conv2"
}
layer {
  name: "pool2"
  type: "Pooling"
  bottom: "conv2"
  top: "pool2"
  pooling_param {
    pool: MAX
    kernel_size: 3
    stride: 2
  }
}
layer {
  name: "conv3"
  type: "Convolution"
  bottom: "pool2"
  top: "conv3"
  param {
    lr_mult: 1
  }
  param {
    lr_mult: 2
  }
  convolution_param {
    num_output: 128
    pad: 2
    kernel_size: 5
    stride: 1
    weight_filler {
      type: "gaussian"
      std: 0.01
    }
    bias_filler {
      type: "constant"
    }
  }
}
layer {
  name: "relu3"
  type: "ReLU"
  bottom: "conv3"
  top: "conv3"
}
layer {
  name: "conv4"
  type: "Convolution"
  bottom: "conv3"
  top: "conv4"
  param {
    lr_mult: 1
  }
  param {
    lr_mult: 2
  }
  convolution_param {
    num_output: 128
    pad: 2
    kernel_size: 5
    stride: 1
    weight_filler {
      type: "gaussian"
      std: 0.01
    }
    bias_filler {
      type: "constant"
    }
  }
}
layer {
  name: "relu4"
  type: "ReLU"
  bottom: "conv4"
  top: "conv4"
}
layer {
  name: "conv5"
  type: "Convolution"
  bottom: "conv4"
  top: "conv5"
  param {
    lr_mult: 1
  }
  param {
    lr_mult: 2
  }
  convolution_param {
    num_output: 128
    pad: 2
    kernel_size: 5
    stride: 1
    weight_filler {
      type: "gaussian"
      std: 0.01
    }
    bias_filler {
      type: "constant"
    }
  }
}
layer {
  name: "relu5"
  type: "ReLU"
  bottom: "conv5"
  top: "conv5"
}
layer {
  name: "pool5"
  type: "Pooling"
  bottom: "conv5"
  top: "pool5"
  pooling_param {
    pool: AVE
    kernel_size: 3
    stride: 2
  }
}
layer {
  name: "ip1"
  type: "InnerProduct"
  bottom: "pool5"
  top: "ip1"
  param {
    lr_mult: 1
  }
  param {
    lr_mult: 2
  }
  inner_product_param {
    num_output: 1024
    weight_filler {
      type: "gaussian"
      std: 0.1
    }
    bias_filler {
      type: "constant"
    }
  }
}
layer {
  name: "ip2"
  type: "InnerProduct"
  bottom: "ip1"
  top: "ip2"
  param {
    lr_mult: 1
  }
  param {
    lr_mult: 2
  }
  inner_product_param {
    num_output: 512
    weight_filler {
      type: "gaussian"
      std: 0.1
    }
    bias_filler {
      type: "constant"
    }
  }
}
layer {
  name: "ip3"
  type: "InnerProduct"
  bottom: "ip2"
  top: "ip3"
  param {
    lr_mult: 1
  }
  param {
    lr_mult: 2
  }
  inner_product_param {
    num_output: 50
    weight_filler {
      type: "gaussian"
      std: 0.1
    }
    bias_filler {
      type: "constant"
    }
  }
}
layer {
  name: "accuracy"
  type: "Accuracy"
  bottom: "ip3"
  bottom: "label"
  top: "accuracy"
  include {
    phase: TEST
  }
}
layer {
  name: "loss"
  type: "SoftmaxWithLoss"
  bottom: "ip3"
  bottom: "label"
  top: "loss"
}
I0503 03:55:38.070814 18135 layer_factory.hpp:77] Creating layer intercept
I0503 03:55:38.070823 18135 net.cpp:94] Creating Layer intercept
I0503 03:55:38.070827 18135 net.cpp:409] intercept -> data
I0503 03:55:38.070833 18135 net.cpp:409] intercept -> label
I0503 03:55:38.070839 18135 hdf5_data_layer.cpp:79] Loading list of HDF5 filenames from: /home/purduethu/scratch/radon/d/deng106/CNNStatisticalModel/distributions/input/5_distributions_900_sample_size_test-distributions-path.txt
I0503 03:55:38.070860 18135 hdf5_data_layer.cpp:93] Number of HDF5 files: 1
I0503 03:55:38.106056 18135 net.cpp:144] Setting up intercept
I0503 03:55:38.106088 18135 net.cpp:151] Top shape: 20 1 30 30 (18000)
I0503 03:55:38.106093 18135 net.cpp:151] Top shape: 20 (20)
I0503 03:55:38.106096 18135 net.cpp:159] Memory required for data: 72080
I0503 03:55:38.106102 18135 layer_factory.hpp:77] Creating layer label_intercept_1_split
I0503 03:55:38.106119 18135 net.cpp:94] Creating Layer label_intercept_1_split
I0503 03:55:38.106124 18135 net.cpp:435] label_intercept_1_split <- label
I0503 03:55:38.106130 18135 net.cpp:409] label_intercept_1_split -> label_intercept_1_split_0
I0503 03:55:38.106138 18135 net.cpp:409] label_intercept_1_split -> label_intercept_1_split_1
I0503 03:55:38.106178 18135 net.cpp:144] Setting up label_intercept_1_split
I0503 03:55:38.106185 18135 net.cpp:151] Top shape: 20 (20)
I0503 03:55:38.106189 18135 net.cpp:151] Top shape: 20 (20)
I0503 03:55:38.106191 18135 net.cpp:159] Memory required for data: 72240
I0503 03:55:38.106194 18135 layer_factory.hpp:77] Creating layer conv1
I0503 03:55:38.106205 18135 net.cpp:94] Creating Layer conv1
I0503 03:55:38.106209 18135 net.cpp:435] conv1 <- data
I0503 03:55:38.106214 18135 net.cpp:409] conv1 -> conv1
I0503 03:55:38.107748 18135 net.cpp:144] Setting up conv1
I0503 03:55:38.107762 18135 net.cpp:151] Top shape: 20 64 30 30 (1152000)
I0503 03:55:38.107766 18135 net.cpp:159] Memory required for data: 4680240
I0503 03:55:38.107775 18135 layer_factory.hpp:77] Creating layer relu1
I0503 03:55:38.107782 18135 net.cpp:94] Creating Layer relu1
I0503 03:55:38.107786 18135 net.cpp:435] relu1 <- conv1
I0503 03:55:38.107790 18135 net.cpp:396] relu1 -> conv1 (in-place)
I0503 03:55:38.107797 18135 net.cpp:144] Setting up relu1
I0503 03:55:38.107801 18135 net.cpp:151] Top shape: 20 64 30 30 (1152000)
I0503 03:55:38.107805 18135 net.cpp:159] Memory required for data: 9288240
I0503 03:55:38.107807 18135 layer_factory.hpp:77] Creating layer conv2
I0503 03:55:38.107815 18135 net.cpp:94] Creating Layer conv2
I0503 03:55:38.107818 18135 net.cpp:435] conv2 <- conv1
I0503 03:55:38.107823 18135 net.cpp:409] conv2 -> conv2
I0503 03:55:38.114506 18135 net.cpp:144] Setting up conv2
I0503 03:55:38.114521 18135 net.cpp:151] Top shape: 20 64 30 30 (1152000)
I0503 03:55:38.114523 18135 net.cpp:159] Memory required for data: 13896240
I0503 03:55:38.114531 18135 layer_factory.hpp:77] Creating layer relu2
I0503 03:55:38.114537 18135 net.cpp:94] Creating Layer relu2
I0503 03:55:38.114542 18135 net.cpp:435] relu2 <- conv2
I0503 03:55:38.114545 18135 net.cpp:396] relu2 -> conv2 (in-place)
I0503 03:55:38.114552 18135 net.cpp:144] Setting up relu2
I0503 03:55:38.114557 18135 net.cpp:151] Top shape: 20 64 30 30 (1152000)
I0503 03:55:38.114559 18135 net.cpp:159] Memory required for data: 18504240
I0503 03:55:38.114562 18135 layer_factory.hpp:77] Creating layer pool2
I0503 03:55:38.114567 18135 net.cpp:94] Creating Layer pool2
I0503 03:55:38.114570 18135 net.cpp:435] pool2 <- conv2
I0503 03:55:38.114574 18135 net.cpp:409] pool2 -> pool2
I0503 03:55:38.114629 18135 net.cpp:144] Setting up pool2
I0503 03:55:38.114635 18135 net.cpp:151] Top shape: 20 64 15 15 (288000)
I0503 03:55:38.114637 18135 net.cpp:159] Memory required for data: 19656240
I0503 03:55:38.114640 18135 layer_factory.hpp:77] Creating layer conv3
I0503 03:55:38.114648 18135 net.cpp:94] Creating Layer conv3
I0503 03:55:38.114652 18135 net.cpp:435] conv3 <- pool2
I0503 03:55:38.114656 18135 net.cpp:409] conv3 -> conv3
I0503 03:55:38.122210 18135 net.cpp:144] Setting up conv3
I0503 03:55:38.122226 18135 net.cpp:151] Top shape: 20 128 15 15 (576000)
I0503 03:55:38.122231 18135 net.cpp:159] Memory required for data: 21960240
I0503 03:55:38.122238 18135 layer_factory.hpp:77] Creating layer relu3
I0503 03:55:38.122246 18135 net.cpp:94] Creating Layer relu3
I0503 03:55:38.122249 18135 net.cpp:435] relu3 <- conv3
I0503 03:55:38.122254 18135 net.cpp:396] relu3 -> conv3 (in-place)
I0503 03:55:38.122262 18135 net.cpp:144] Setting up relu3
I0503 03:55:38.122265 18135 net.cpp:151] Top shape: 20 128 15 15 (576000)
I0503 03:55:38.122268 18135 net.cpp:159] Memory required for data: 24264240
I0503 03:55:38.122272 18135 layer_factory.hpp:77] Creating layer conv4
I0503 03:55:38.122278 18135 net.cpp:94] Creating Layer conv4
I0503 03:55:38.122282 18135 net.cpp:435] conv4 <- conv3
I0503 03:55:38.122287 18135 net.cpp:409] conv4 -> conv4
I0503 03:55:38.137887 18135 net.cpp:144] Setting up conv4
I0503 03:55:38.137903 18135 net.cpp:151] Top shape: 20 128 15 15 (576000)
I0503 03:55:38.137907 18135 net.cpp:159] Memory required for data: 26568240
I0503 03:55:38.137914 18135 layer_factory.hpp:77] Creating layer relu4
I0503 03:55:38.137920 18135 net.cpp:94] Creating Layer relu4
I0503 03:55:38.137924 18135 net.cpp:435] relu4 <- conv4
I0503 03:55:38.137928 18135 net.cpp:396] relu4 -> conv4 (in-place)
I0503 03:55:38.137935 18135 net.cpp:144] Setting up relu4
I0503 03:55:38.137939 18135 net.cpp:151] Top shape: 20 128 15 15 (576000)
I0503 03:55:38.137943 18135 net.cpp:159] Memory required for data: 28872240
I0503 03:55:38.137945 18135 layer_factory.hpp:77] Creating layer conv5
I0503 03:55:38.137953 18135 net.cpp:94] Creating Layer conv5
I0503 03:55:38.137956 18135 net.cpp:435] conv5 <- conv4
I0503 03:55:38.137961 18135 net.cpp:409] conv5 -> conv5
I0503 03:55:38.153138 18135 net.cpp:144] Setting up conv5
I0503 03:55:38.153157 18135 net.cpp:151] Top shape: 20 128 15 15 (576000)
I0503 03:55:38.153162 18135 net.cpp:159] Memory required for data: 31176240
I0503 03:55:38.153172 18135 layer_factory.hpp:77] Creating layer relu5
I0503 03:55:38.153179 18135 net.cpp:94] Creating Layer relu5
I0503 03:55:38.153183 18135 net.cpp:435] relu5 <- conv5
I0503 03:55:38.153187 18135 net.cpp:396] relu5 -> conv5 (in-place)
I0503 03:55:38.153194 18135 net.cpp:144] Setting up relu5
I0503 03:55:38.153199 18135 net.cpp:151] Top shape: 20 128 15 15 (576000)
I0503 03:55:38.153203 18135 net.cpp:159] Memory required for data: 33480240
I0503 03:55:38.153204 18135 layer_factory.hpp:77] Creating layer pool5
I0503 03:55:38.153210 18135 net.cpp:94] Creating Layer pool5
I0503 03:55:38.153213 18135 net.cpp:435] pool5 <- conv5
I0503 03:55:38.153218 18135 net.cpp:409] pool5 -> pool5
I0503 03:55:38.153259 18135 net.cpp:144] Setting up pool5
I0503 03:55:38.153264 18135 net.cpp:151] Top shape: 20 128 7 7 (125440)
I0503 03:55:38.153267 18135 net.cpp:159] Memory required for data: 33982000
I0503 03:55:38.153270 18135 layer_factory.hpp:77] Creating layer ip1
I0503 03:55:38.153277 18135 net.cpp:94] Creating Layer ip1
I0503 03:55:38.153280 18135 net.cpp:435] ip1 <- pool5
I0503 03:55:38.153285 18135 net.cpp:409] ip1 -> ip1
I0503 03:55:38.309298 18135 net.cpp:144] Setting up ip1
I0503 03:55:38.309332 18135 net.cpp:151] Top shape: 20 1024 (20480)
I0503 03:55:38.309336 18135 net.cpp:159] Memory required for data: 34063920
I0503 03:55:38.309345 18135 layer_factory.hpp:77] Creating layer ip2
I0503 03:55:38.309355 18135 net.cpp:94] Creating Layer ip2
I0503 03:55:38.309360 18135 net.cpp:435] ip2 <- ip1
I0503 03:55:38.309367 18135 net.cpp:409] ip2 -> ip2
I0503 03:55:38.322664 18135 net.cpp:144] Setting up ip2
I0503 03:55:38.322685 18135 net.cpp:151] Top shape: 20 512 (10240)
I0503 03:55:38.322688 18135 net.cpp:159] Memory required for data: 34104880
I0503 03:55:38.322695 18135 layer_factory.hpp:77] Creating layer ip3
I0503 03:55:38.322705 18135 net.cpp:94] Creating Layer ip3
I0503 03:55:38.322710 18135 net.cpp:435] ip3 <- ip2
I0503 03:55:38.322715 18135 net.cpp:409] ip3 -> ip3
I0503 03:55:38.323447 18135 net.cpp:144] Setting up ip3
I0503 03:55:38.323456 18135 net.cpp:151] Top shape: 20 50 (1000)
I0503 03:55:38.323458 18135 net.cpp:159] Memory required for data: 34108880
I0503 03:55:38.323463 18135 layer_factory.hpp:77] Creating layer ip3_ip3_0_split
I0503 03:55:38.323468 18135 net.cpp:94] Creating Layer ip3_ip3_0_split
I0503 03:55:38.323472 18135 net.cpp:435] ip3_ip3_0_split <- ip3
I0503 03:55:38.323477 18135 net.cpp:409] ip3_ip3_0_split -> ip3_ip3_0_split_0
I0503 03:55:38.323482 18135 net.cpp:409] ip3_ip3_0_split -> ip3_ip3_0_split_1
I0503 03:55:38.323523 18135 net.cpp:144] Setting up ip3_ip3_0_split
I0503 03:55:38.323529 18135 net.cpp:151] Top shape: 20 50 (1000)
I0503 03:55:38.323532 18135 net.cpp:151] Top shape: 20 50 (1000)
I0503 03:55:38.323535 18135 net.cpp:159] Memory required for data: 34116880
I0503 03:55:38.323539 18135 layer_factory.hpp:77] Creating layer accuracy
I0503 03:55:38.323544 18135 net.cpp:94] Creating Layer accuracy
I0503 03:55:38.323547 18135 net.cpp:435] accuracy <- ip3_ip3_0_split_0
I0503 03:55:38.323551 18135 net.cpp:435] accuracy <- label_intercept_1_split_0
I0503 03:55:38.323555 18135 net.cpp:409] accuracy -> accuracy
…
