…
I0506 05:02:27.336840 12900 net.cpp:323] The NetState phase (0) differed from the phase (1) specified by a rule in layer intercept
I0506 05:02:27.336858 12900 net.cpp:323] The NetState phase (0) differed from the phase (1) specified by a rule in layer loss
I0506 05:02:27.336947 12900 net.cpp:52] Initializing net from parameters: 
state {
  phase: TRAIN
}
layer {
  name: "parameters"
  type: "HDF5Data"
  top: "data"
  top: "label"
  include {
    phase: TRAIN
  }
  hdf5_data_param {
    source: "/home/purduethu/scratch/radon/d/deng106/CNNStatisticalModel/distributions/input/50_distributions_100_sample_size_train-parameters-path.txt"
    batch_size: 20
  }
}
layer {
  name: "conv1"
  type: "Convolution"
  bottom: "data"
  top: "conv1"
  param {
    lr_mult: 1
  }
  param {
    lr_mult: 2
  }
  convolution_param {
    num_output: 64
    pad: 2
    kernel_size: 5
    stride: 1
    weight_filler {
      type: "gaussian"
      std: 0.0001
    }
    bias_filler {
      type: "constant"
    }
  }
}
layer {
  name: "relu1"
  type: "ReLU"
  bottom: "conv1"
  top: "conv1"
}
layer {
  name: "conv2"
  type: "Convolution"
  bottom: "conv1"
  top: "conv2"
  param {
    lr_mult: 1
  }
  param {
    lr_mult: 2
  }
  convolution_param {
    num_output: 64
    pad: 2
    kernel_size: 5
    stride: 1
    weight_filler {
      type: "gaussian"
      std: 0.01
    }
    bias_filler {
      type: "constant"
    }
  }
}
layer {
  name: "relu2"
  type: "ReLU"
  bottom: "conv2"
  top: "conv2"
}
layer {
  name: "pool2"
  type: "Pooling"
  bottom: "conv2"
  top: "pool2"
  pooling_param {
    pool: MAX
    kernel_size: 3
    stride: 2
  }
}
layer {
  name: "conv3"
  type: "Convolution"
  bottom: "pool2"
  top: "conv3"
  param {
    lr_mult: 1
  }
  param {
    lr_mult: 2
  }
  convolution_param {
    num_output: 128
    pad: 2
    kernel_size: 5
    stride: 1
    weight_filler {
      type: "gaussian"
      std: 0.01
    }
    bias_filler {
      type: "constant"
    }
  }
}
layer {
  name: "relu3"
  type: "ReLU"
  bottom: "conv3"
  top: "conv3"
}
layer {
  name: "conv4"
  type: "Convolution"
  bottom: "conv3"
  top: "conv4"
  param {
    lr_mult: 1
  }
  param {
    lr_mult: 2
  }
  convolution_param {
    num_output: 128
    pad: 2
    kernel_size: 5
    stride: 1
    weight_filler {
      type: "gaussian"
      std: 0.01
    }
    bias_filler {
      type: "constant"
    }
  }
}
layer {
  name: "relu4"
  type: "ReLU"
  bottom: "conv4"
  top: "conv4"
}
layer {
  name: "conv5"
  type: "Convolution"
  bottom: "conv4"
  top: "conv5"
  param {
    lr_mult: 1
  }
  param {
    lr_mult: 2
  }
  convolution_param {
    num_output: 128
    pad: 2
    kernel_size: 5
    stride: 1
    weight_filler {
      type: "gaussian"
      std: 0.01
    }
    bias_filler {
      type: "constant"
    }
  }
}
layer {
  name: "relu5"
  type: "ReLU"
  bottom: "conv5"
  top: "conv5"
}
layer {
  name: "pool5"
  type: "Pooling"
  bottom: "conv5"
  top: "pool5"
  pooling_param {
    pool: AVE
    kernel_size: 3
    stride: 2
  }
}
layer {
  name: "ip1"
  type: "InnerProduct"
  bottom: "pool5"
  top: "ip1"
  param {
    lr_mult: 1
  }
  param {
    lr_mult: 2
  }
  inner_product_param {
    num_output: 1024
    weight_filler {
      type: "gaussian"
      std: 0.1
    }
    bias_filler {
      type: "constant"
    }
  }
}
layer {
  name: "ip2"
  type: "InnerProduct"
  bottom: "ip1"
  top: "ip2"
  param {
    lr_mult: 1
  }
  param {
    lr_mult: 2
  }
  inner_product_param {
    num_output: 512
    weight_filler {
      type: "gaussian"
      std: 0.1
    }
    bias_filler {
      type: "constant"
    }
  }
}
layer {
  name: "ip3"
  type: "InnerProduct"
  bottom: "ip2"
  top: "ip3"
  param {
    lr_mult: 1
  }
  param {
    lr_mult: 2
  }
  inner_product_param {
    num_output: 1
    weight_filler {
      type: "gaussian"
      std: 0.1
    }
    bias_filler {
      type: "constant"
    }
  }
}
layer {
  name: "loss"
  type: "HuberLoss"
  bottom: "ip3"
  bottom: "label"
  top: "loss"
  include {
    phase: TRAIN
  }
}
I0506 05:02:27.337000 12900 layer_factory.hpp:77] Creating layer parameters
I0506 05:02:27.337013 12900 net.cpp:94] Creating Layer parameters
I0506 05:02:27.337018 12900 net.cpp:409] parameters -> data
I0506 05:02:27.337028 12900 net.cpp:409] parameters -> label
I0506 05:02:27.337039 12900 hdf5_data_layer.cpp:79] Loading list of HDF5 filenames from: /home/purduethu/scratch/radon/d/deng106/CNNStatisticalModel/distributions/input/50_distributions_100_sample_size_train-parameters-path.txt
I0506 05:02:27.337055 12900 hdf5_data_layer.cpp:93] Number of HDF5 files: 1
I0506 05:02:27.337596 12900 hdf5.cpp:32] Datatype class: H5T_FLOAT
I0506 05:02:27.499614 12900 net.cpp:144] Setting up parameters
I0506 05:02:27.499661 12900 net.cpp:151] Top shape: 20 1 10 10 (2000)
I0506 05:02:27.499667 12900 net.cpp:151] Top shape: 20 (20)
I0506 05:02:27.499671 12900 net.cpp:159] Memory required for data: 8080
I0506 05:02:27.499691 12900 layer_factory.hpp:77] Creating layer conv1
I0506 05:02:27.499708 12900 net.cpp:94] Creating Layer conv1
I0506 05:02:27.499713 12900 net.cpp:435] conv1 <- data
I0506 05:02:27.499722 12900 net.cpp:409] conv1 -> conv1
I0506 05:02:27.504014 12900 net.cpp:144] Setting up conv1
I0506 05:02:27.504034 12900 net.cpp:151] Top shape: 20 64 10 10 (128000)
I0506 05:02:27.504037 12900 net.cpp:159] Memory required for data: 520080
I0506 05:02:27.504050 12900 layer_factory.hpp:77] Creating layer relu1
I0506 05:02:27.504058 12900 net.cpp:94] Creating Layer relu1
I0506 05:02:27.504062 12900 net.cpp:435] relu1 <- conv1
I0506 05:02:27.504067 12900 net.cpp:396] relu1 -> conv1 (in-place)
I0506 05:02:27.504081 12900 net.cpp:144] Setting up relu1
I0506 05:02:27.504086 12900 net.cpp:151] Top shape: 20 64 10 10 (128000)
I0506 05:02:27.504088 12900 net.cpp:159] Memory required for data: 1032080
I0506 05:02:27.504092 12900 layer_factory.hpp:77] Creating layer conv2
I0506 05:02:27.504101 12900 net.cpp:94] Creating Layer conv2
I0506 05:02:27.504104 12900 net.cpp:435] conv2 <- conv1
I0506 05:02:27.504109 12900 net.cpp:409] conv2 -> conv2
I0506 05:02:27.510241 12900 net.cpp:144] Setting up conv2
I0506 05:02:27.510257 12900 net.cpp:151] Top shape: 20 64 10 10 (128000)
I0506 05:02:27.510260 12900 net.cpp:159] Memory required for data: 1544080
I0506 05:02:27.510269 12900 layer_factory.hpp:77] Creating layer relu2
I0506 05:02:27.510277 12900 net.cpp:94] Creating Layer relu2
I0506 05:02:27.510280 12900 net.cpp:435] relu2 <- conv2
I0506 05:02:27.510285 12900 net.cpp:396] relu2 -> conv2 (in-place)
I0506 05:02:27.510293 12900 net.cpp:144] Setting up relu2
I0506 05:02:27.510298 12900 net.cpp:151] Top shape: 20 64 10 10 (128000)
I0506 05:02:27.510301 12900 net.cpp:159] Memory required for data: 2056080
I0506 05:02:27.510304 12900 layer_factory.hpp:77] Creating layer pool2
I0506 05:02:27.510311 12900 net.cpp:94] Creating Layer pool2
I0506 05:02:27.510314 12900 net.cpp:435] pool2 <- conv2
I0506 05:02:27.510319 12900 net.cpp:409] pool2 -> pool2
I0506 05:02:27.510377 12900 net.cpp:144] Setting up pool2
I0506 05:02:27.510386 12900 net.cpp:151] Top shape: 20 64 5 5 (32000)
I0506 05:02:27.510390 12900 net.cpp:159] Memory required for data: 2184080
I0506 05:02:27.510393 12900 layer_factory.hpp:77] Creating layer conv3
I0506 05:02:27.510401 12900 net.cpp:94] Creating Layer conv3
I0506 05:02:27.510411 12900 net.cpp:435] conv3 <- pool2
I0506 05:02:27.510417 12900 net.cpp:409] conv3 -> conv3
I0506 05:02:27.518622 12900 net.cpp:144] Setting up conv3
I0506 05:02:27.518637 12900 net.cpp:151] Top shape: 20 128 5 5 (64000)
I0506 05:02:27.518641 12900 net.cpp:159] Memory required for data: 2440080
I0506 05:02:27.518649 12900 layer_factory.hpp:77] Creating layer relu3
I0506 05:02:27.518656 12900 net.cpp:94] Creating Layer relu3
I0506 05:02:27.518659 12900 net.cpp:435] relu3 <- conv3
I0506 05:02:27.518664 12900 net.cpp:396] relu3 -> conv3 (in-place)
I0506 05:02:27.518671 12900 net.cpp:144] Setting up relu3
I0506 05:02:27.518676 12900 net.cpp:151] Top shape: 20 128 5 5 (64000)
I0506 05:02:27.518679 12900 net.cpp:159] Memory required for data: 2696080
I0506 05:02:27.518683 12900 layer_factory.hpp:77] Creating layer conv4
I0506 05:02:27.518692 12900 net.cpp:94] Creating Layer conv4
I0506 05:02:27.518697 12900 net.cpp:435] conv4 <- conv3
I0506 05:02:27.518702 12900 net.cpp:409] conv4 -> conv4
I0506 05:02:27.533810 12900 net.cpp:144] Setting up conv4
I0506 05:02:27.533828 12900 net.cpp:151] Top shape: 20 128 5 5 (64000)
I0506 05:02:27.533833 12900 net.cpp:159] Memory required for data: 2952080
I0506 05:02:27.533840 12900 layer_factory.hpp:77] Creating layer relu4
I0506 05:02:27.533848 12900 net.cpp:94] Creating Layer relu4
I0506 05:02:27.533851 12900 net.cpp:435] relu4 <- conv4
I0506 05:02:27.533856 12900 net.cpp:396] relu4 -> conv4 (in-place)
I0506 05:02:27.533864 12900 net.cpp:144] Setting up relu4
I0506 05:02:27.533869 12900 net.cpp:151] Top shape: 20 128 5 5 (64000)
I0506 05:02:27.533872 12900 net.cpp:159] Memory required for data: 3208080
I0506 05:02:27.533875 12900 layer_factory.hpp:77] Creating layer conv5
I0506 05:02:27.533884 12900 net.cpp:94] Creating Layer conv5
I0506 05:02:27.533887 12900 net.cpp:435] conv5 <- conv4
I0506 05:02:27.533892 12900 net.cpp:409] conv5 -> conv5
I0506 05:02:27.548442 12900 net.cpp:144] Setting up conv5
I0506 05:02:27.548458 12900 net.cpp:151] Top shape: 20 128 5 5 (64000)
I0506 05:02:27.548462 12900 net.cpp:159] Memory required for data: 3464080
I0506 05:02:27.548472 12900 layer_factory.hpp:77] Creating layer relu5
I0506 05:02:27.548480 12900 net.cpp:94] Creating Layer relu5
I0506 05:02:27.548483 12900 net.cpp:435] relu5 <- conv5
I0506 05:02:27.548488 12900 net.cpp:396] relu5 -> conv5 (in-place)
I0506 05:02:27.548496 12900 net.cpp:144] Setting up relu5
I0506 05:02:27.548501 12900 net.cpp:151] Top shape: 20 128 5 5 (64000)
I0506 05:02:27.548504 12900 net.cpp:159] Memory required for data: 3720080
I0506 05:02:27.548507 12900 layer_factory.hpp:77] Creating layer pool5
I0506 05:02:27.548513 12900 net.cpp:94] Creating Layer pool5
I0506 05:02:27.548517 12900 net.cpp:435] pool5 <- conv5
I0506 05:02:27.548521 12900 net.cpp:409] pool5 -> pool5
I0506 05:02:27.548575 12900 net.cpp:144] Setting up pool5
I0506 05:02:27.548585 12900 net.cpp:151] Top shape: 20 128 2 2 (10240)
I0506 05:02:27.548589 12900 net.cpp:159] Memory required for data: 3761040
I0506 05:02:27.548593 12900 layer_factory.hpp:77] Creating layer ip1
I0506 05:02:27.548600 12900 net.cpp:94] Creating Layer ip1
I0506 05:02:27.548604 12900 net.cpp:435] ip1 <- pool5
I0506 05:02:27.548609 12900 net.cpp:409] ip1 -> ip1
I0506 05:02:27.562638 12900 net.cpp:144] Setting up ip1
I0506 05:02:27.562656 12900 net.cpp:151] Top shape: 20 1024 (20480)
I0506 05:02:27.562661 12900 net.cpp:159] Memory required for data: 3842960
I0506 05:02:27.562667 12900 layer_factory.hpp:77] Creating layer ip2
I0506 05:02:27.562676 12900 net.cpp:94] Creating Layer ip2
I0506 05:02:27.562680 12900 net.cpp:435] ip2 <- ip1
I0506 05:02:27.562686 12900 net.cpp:409] ip2 -> ip2
I0506 05:02:27.575709 12900 net.cpp:144] Setting up ip2
I0506 05:02:27.575724 12900 net.cpp:151] Top shape: 20 512 (10240)
I0506 05:02:27.575729 12900 net.cpp:159] Memory required for data: 3883920
I0506 05:02:27.575736 12900 layer_factory.hpp:77] Creating layer ip3
I0506 05:02:27.575743 12900 net.cpp:94] Creating Layer ip3
I0506 05:02:27.575747 12900 net.cpp:435] ip3 <- ip2
I0506 05:02:27.575759 12900 net.cpp:409] ip3 -> ip3
I0506 05:02:27.575881 12900 net.cpp:144] Setting up ip3
I0506 05:02:27.575889 12900 net.cpp:151] Top shape: 20 1 (20)
I0506 05:02:27.575892 12900 net.cpp:159] Memory required for data: 3884000
I0506 05:02:27.575898 12900 layer_factory.hpp:77] Creating layer loss
I0506 05:02:27.575911 12900 net.cpp:94] Creating Layer loss
I0506 05:02:27.575914 12900 net.cpp:435] loss <- ip3
I0506 05:02:27.575918 12900 net.cpp:435] loss <- label
I0506 05:02:27.575923 12900 net.cpp:409] loss -> loss
I0506 05:02:27.575975 12900 net.cpp:144] Setting up loss
…
I0506 05:02:27.682585 12900 net.cpp:323] The NetState phase (0) differed from the phase (1) specified by a rule in layer intercept
I0506 05:02:27.682602 12900 net.cpp:323] The NetState phase (0) differed from the phase (1) specified by a rule in layer accuracy
I0506 05:02:27.682687 12900 net.cpp:52] Initializing net from parameters: 
state {
  phase: TRAIN
}
layer {
  name: "parameters"
  type: "HDF5Data"
  top: "data"
  top: "label"
  include {
    phase: TRAIN
  }
  hdf5_data_param {
    source: "/home/purduethu/scratch/radon/d/deng106/CNNStatisticalModel/distributions/input/50_distributions_100_sample_size_train-distributions-path.txt"
    batch_size: 20
  }
}
layer {
  name: "conv1"
  type: "Convolution"
  bottom: "data"
  top: "conv1"
  param {
    lr_mult: 1
  }
  param {
    lr_mult: 2
  }
  convolution_param {
    num_output: 64
    pad: 2
    kernel_size: 5
    stride: 1
    weight_filler {
      type: "gaussian"
      std: 0.0001
    }
    bias_filler {
      type: "constant"
    }
  }
}
layer {
  name: "relu1"
  type: "ReLU"
  bottom: "conv1"
  top: "conv1"
}
layer {
  name: "conv2"
  type: "Convolution"
  bottom: "conv1"
  top: "conv2"
  param {
    lr_mult: 1
  }
  param {
    lr_mult: 2
  }
  convolution_param {
    num_output: 64
    pad: 2
    kernel_size: 5
    stride: 1
    weight_filler {
      type: "gaussian"
      std: 0.01
    }
    bias_filler {
      type: "constant"
    }
  }
}
layer {
  name: "relu2"
  type: "ReLU"
  bottom: "conv2"
  top: "conv2"
}
layer {
  name: "pool2"
  type: "Pooling"
  bottom: "conv2"
  top: "pool2"
  pooling_param {
    pool: MAX
    kernel_size: 3
    stride: 2
  }
}
layer {
  name: "conv3"
  type: "Convolution"
  bottom: "pool2"
  top: "conv3"
  param {
    lr_mult: 1
  }
  param {
    lr_mult: 2
  }
  convolution_param {
    num_output: 128
    pad: 2
    kernel_size: 5
    stride: 1
    weight_filler {
      type: "gaussian"
      std: 0.01
    }
    bias_filler {
      type: "constant"
    }
  }
}
layer {
  name: "relu3"
  type: "ReLU"
  bottom: "conv3"
  top: "conv3"
}
layer {
  name: "conv4"
  type: "Convolution"
  bottom: "conv3"
  top: "conv4"
  param {
    lr_mult: 1
  }
  param {
    lr_mult: 2
  }
  convolution_param {
    num_output: 128
    pad: 2
    kernel_size: 5
    stride: 1
    weight_filler {
      type: "gaussian"
      std: 0.01
    }
    bias_filler {
      type: "constant"
    }
  }
}
layer {
  name: "relu4"
  type: "ReLU"
  bottom: "conv4"
  top: "conv4"
}
layer {
  name: "conv5"
  type: "Convolution"
  bottom: "conv4"
  top: "conv5"
  param {
    lr_mult: 1
  }
  param {
    lr_mult: 2
  }
  convolution_param {
    num_output: 128
    pad: 2
    kernel_size: 5
    stride: 1
    weight_filler {
      type: "gaussian"
      std: 0.01
    }
    bias_filler {
      type: "constant"
    }
  }
}
layer {
  name: "relu5"
  type: "ReLU"
  bottom: "conv5"
  top: "conv5"
}
layer {
  name: "pool5"
  type: "Pooling"
  bottom: "conv5"
  top: "pool5"
  pooling_param {
    pool: AVE
    kernel_size: 3
    stride: 2
  }
}
layer {
  name: "ip1"
  type: "InnerProduct"
  bottom: "pool5"
  top: "ip1"
  param {
    lr_mult: 1
  }
  param {
    lr_mult: 2
  }
  inner_product_param {
    num_output: 1024
    weight_filler {
      type: "gaussian"
      std: 0.1
    }
    bias_filler {
      type: "constant"
    }
  }
}
layer {
  name: "ip2"
  type: "InnerProduct"
  bottom: "ip1"
  top: "ip2"
  param {
    lr_mult: 1
  }
  param {
    lr_mult: 2
  }
  inner_product_param {
    num_output: 512
    weight_filler {
      type: "gaussian"
      std: 0.1
    }
    bias_filler {
      type: "constant"
    }
  }
}
layer {
  name: "ip3"
  type: "InnerProduct"
  bottom: "ip2"
  top: "ip3"
  param {
    lr_mult: 1
  }
  param {
    lr_mult: 2
  }
  inner_product_param {
    num_output: 50
    weight_filler {
      type: "gaussian"
      std: 0.1
    }
    bias_filler {
      type: "constant"
    }
  }
}
layer {
  name: "loss"
  type: "SoftmaxWithLoss"
  bottom: "ip3"
  bottom: "label"
  top: "loss"
}
I0506 05:02:27.682739 12900 layer_factory.hpp:77] Creating layer parameters
I0506 05:02:27.682749 12900 net.cpp:94] Creating Layer parameters
I0506 05:02:27.682752 12900 net.cpp:409] parameters -> data
I0506 05:02:27.682760 12900 net.cpp:409] parameters -> label
I0506 05:02:27.682765 12900 hdf5_data_layer.cpp:79] Loading list of HDF5 filenames from: /home/purduethu/scratch/radon/d/deng106/CNNStatisticalModel/distributions/input/50_distributions_100_sample_size_train-distributions-path.txt
I0506 05:02:27.682782 12900 hdf5_data_layer.cpp:93] Number of HDF5 files: 1
I0506 05:02:27.838863 12900 hdf5.cpp:35] Datatype class: H5T_INTEGER
I0506 05:02:27.841954 12900 net.cpp:144] Setting up parameters
I0506 05:02:27.841982 12900 net.cpp:151] Top shape: 20 1 10 10 (2000)
I0506 05:02:27.841989 12900 net.cpp:151] Top shape: 20 (20)
I0506 05:02:27.841992 12900 net.cpp:159] Memory required for data: 8080
I0506 05:02:27.841998 12900 layer_factory.hpp:77] Creating layer conv1
I0506 05:02:27.842015 12900 net.cpp:94] Creating Layer conv1
I0506 05:02:27.842020 12900 net.cpp:435] conv1 <- data
I0506 05:02:27.842026 12900 net.cpp:409] conv1 -> conv1
I0506 05:02:27.843854 12900 net.cpp:144] Setting up conv1
I0506 05:02:27.843868 12900 net.cpp:151] Top shape: 20 64 10 10 (128000)
I0506 05:02:27.843873 12900 net.cpp:159] Memory required for data: 520080
I0506 05:02:27.843883 12900 layer_factory.hpp:77] Creating layer relu1
I0506 05:02:27.843890 12900 net.cpp:94] Creating Layer relu1
I0506 05:02:27.843894 12900 net.cpp:435] relu1 <- conv1
I0506 05:02:27.843899 12900 net.cpp:396] relu1 -> conv1 (in-place)
I0506 05:02:27.843906 12900 net.cpp:144] Setting up relu1
I0506 05:02:27.843911 12900 net.cpp:151] Top shape: 20 64 10 10 (128000)
I0506 05:02:27.843914 12900 net.cpp:159] Memory required for data: 1032080
I0506 05:02:27.843919 12900 layer_factory.hpp:77] Creating layer conv2
I0506 05:02:27.843925 12900 net.cpp:94] Creating Layer conv2
I0506 05:02:27.843930 12900 net.cpp:435] conv2 <- conv1
I0506 05:02:27.843935 12900 net.cpp:409] conv2 -> conv2
I0506 05:02:27.849340 12900 net.cpp:144] Setting up conv2
I0506 05:02:27.849354 12900 net.cpp:151] Top shape: 20 64 10 10 (128000)
I0506 05:02:27.849359 12900 net.cpp:159] Memory required for data: 1544080
I0506 05:02:27.849367 12900 layer_factory.hpp:77] Creating layer relu2
I0506 05:02:27.849375 12900 net.cpp:94] Creating Layer relu2
I0506 05:02:27.849380 12900 net.cpp:435] relu2 <- conv2
I0506 05:02:27.849385 12900 net.cpp:396] relu2 -> conv2 (in-place)
I0506 05:02:27.849391 12900 net.cpp:144] Setting up relu2
I0506 05:02:27.849396 12900 net.cpp:151] Top shape: 20 64 10 10 (128000)
I0506 05:02:27.849400 12900 net.cpp:159] Memory required for data: 2056080
I0506 05:02:27.849402 12900 layer_factory.hpp:77] Creating layer pool2
I0506 05:02:27.849409 12900 net.cpp:94] Creating Layer pool2
I0506 05:02:27.849413 12900 net.cpp:435] pool2 <- conv2
I0506 05:02:27.849418 12900 net.cpp:409] pool2 -> pool2
I0506 05:02:27.849475 12900 net.cpp:144] Setting up pool2
I0506 05:02:27.849483 12900 net.cpp:151] Top shape: 20 64 5 5 (32000)
I0506 05:02:27.849488 12900 net.cpp:159] Memory required for data: 2184080
I0506 05:02:27.849490 12900 layer_factory.hpp:77] Creating layer conv3
I0506 05:02:27.849498 12900 net.cpp:94] Creating Layer conv3
I0506 05:02:27.849503 12900 net.cpp:435] conv3 <- pool2
I0506 05:02:27.849509 12900 net.cpp:409] conv3 -> conv3
I0506 05:02:27.858227 12900 net.cpp:144] Setting up conv3
I0506 05:02:27.858242 12900 net.cpp:151] Top shape: 20 128 5 5 (64000)
I0506 05:02:27.858247 12900 net.cpp:159] Memory required for data: 2440080
I0506 05:02:27.858255 12900 layer_factory.hpp:77] Creating layer relu3
I0506 05:02:27.858261 12900 net.cpp:94] Creating Layer relu3
I0506 05:02:27.858265 12900 net.cpp:435] relu3 <- conv3
I0506 05:02:27.858270 12900 net.cpp:396] relu3 -> conv3 (in-place)
I0506 05:02:27.858284 12900 net.cpp:144] Setting up relu3
I0506 05:02:27.858290 12900 net.cpp:151] Top shape: 20 128 5 5 (64000)
I0506 05:02:27.858294 12900 net.cpp:159] Memory required for data: 2696080
I0506 05:02:27.858297 12900 layer_factory.hpp:77] Creating layer conv4
I0506 05:02:27.858306 12900 net.cpp:94] Creating Layer conv4
I0506 05:02:27.858309 12900 net.cpp:435] conv4 <- conv3
I0506 05:02:27.858315 12900 net.cpp:409] conv4 -> conv4
I0506 05:02:27.873039 12900 net.cpp:144] Setting up conv4
I0506 05:02:27.873055 12900 net.cpp:151] Top shape: 20 128 5 5 (64000)
I0506 05:02:27.873060 12900 net.cpp:159] Memory required for data: 2952080
I0506 05:02:27.873067 12900 layer_factory.hpp:77] Creating layer relu4
I0506 05:02:27.873073 12900 net.cpp:94] Creating Layer relu4
I0506 05:02:27.873077 12900 net.cpp:435] relu4 <- conv4
I0506 05:02:27.873082 12900 net.cpp:396] relu4 -> conv4 (in-place)
I0506 05:02:27.873090 12900 net.cpp:144] Setting up relu4
I0506 05:02:27.873095 12900 net.cpp:151] Top shape: 20 128 5 5 (64000)
I0506 05:02:27.873098 12900 net.cpp:159] Memory required for data: 3208080
I0506 05:02:27.873101 12900 layer_factory.hpp:77] Creating layer conv5
I0506 05:02:27.873109 12900 net.cpp:94] Creating Layer conv5
I0506 05:02:27.873113 12900 net.cpp:435] conv5 <- conv4
I0506 05:02:27.873118 12900 net.cpp:409] conv5 -> conv5
I0506 05:02:27.888085 12900 net.cpp:144] Setting up conv5
I0506 05:02:27.888103 12900 net.cpp:151] Top shape: 20 128 5 5 (64000)
I0506 05:02:27.888106 12900 net.cpp:159] Memory required for data: 3464080
I0506 05:02:27.888115 12900 layer_factory.hpp:77] Creating layer relu5
I0506 05:02:27.888123 12900 net.cpp:94] Creating Layer relu5
I0506 05:02:27.888126 12900 net.cpp:435] relu5 <- conv5
I0506 05:02:27.888133 12900 net.cpp:396] relu5 -> conv5 (in-place)
I0506 05:02:27.888140 12900 net.cpp:144] Setting up relu5
I0506 05:02:27.888145 12900 net.cpp:151] Top shape: 20 128 5 5 (64000)
I0506 05:02:27.888149 12900 net.cpp:159] Memory required for data: 3720080
I0506 05:02:27.888151 12900 layer_factory.hpp:77] Creating layer pool5
I0506 05:02:27.888157 12900 net.cpp:94] Creating Layer pool5
I0506 05:02:27.888161 12900 net.cpp:435] pool5 <- conv5
I0506 05:02:27.888166 12900 net.cpp:409] pool5 -> pool5
I0506 05:02:27.888208 12900 net.cpp:144] Setting up pool5
I0506 05:02:27.888216 12900 net.cpp:151] Top shape: 20 128 2 2 (10240)
I0506 05:02:27.888221 12900 net.cpp:159] Memory required for data: 3761040
I0506 05:02:27.888224 12900 layer_factory.hpp:77] Creating layer ip1
I0506 05:02:27.888231 12900 net.cpp:94] Creating Layer ip1
I0506 05:02:27.888234 12900 net.cpp:435] ip1 <- pool5
I0506 05:02:27.888239 12900 net.cpp:409] ip1 -> ip1
I0506 05:02:27.901535 12900 net.cpp:144] Setting up ip1
I0506 05:02:27.901549 12900 net.cpp:151] Top shape: 20 1024 (20480)
I0506 05:02:27.901554 12900 net.cpp:159] Memory required for data: 3842960
I0506 05:02:27.901561 12900 layer_factory.hpp:77] Creating layer ip2
I0506 05:02:27.901568 12900 net.cpp:94] Creating Layer ip2
I0506 05:02:27.901572 12900 net.cpp:435] ip2 <- ip1
I0506 05:02:27.901577 12900 net.cpp:409] ip2 -> ip2
I0506 05:02:27.914645 12900 net.cpp:144] Setting up ip2
I0506 05:02:27.914660 12900 net.cpp:151] Top shape: 20 512 (10240)
I0506 05:02:27.914664 12900 net.cpp:159] Memory required for data: 3883920
I0506 05:02:27.914670 12900 layer_factory.hpp:77] Creating layer ip3
I0506 05:02:27.914679 12900 net.cpp:94] Creating Layer ip3
I0506 05:02:27.914682 12900 net.cpp:435] ip3 <- ip2
I0506 05:02:27.914687 12900 net.cpp:409] ip3 -> ip3
I0506 05:02:27.916206 12900 net.cpp:144] Setting up ip3
I0506 05:02:27.916219 12900 net.cpp:151] Top shape: 20 50 (1000)
I0506 05:02:27.916224 12900 net.cpp:159] Memory required for data: 3887920
I0506 05:02:27.916230 12900 layer_factory.hpp:77] Creating layer loss
I0506 05:02:27.916239 12900 net.cpp:94] Creating Layer loss
I0506 05:02:27.916242 12900 net.cpp:435] loss <- ip3
I0506 05:02:27.916247 12900 net.cpp:435] loss <- label
I0506 05:02:27.916251 12900 net.cpp:409] loss -> loss
I0506 05:02:27.916260 12900 layer_factory.hpp:77] Creating layer loss
…
I0506 05:02:27.916817 12900 solver.cpp:181] Creating test net (#0) specified by net file: ./protocol/dis_50_100_dimension.protocol_distribution
I0506 05:02:27.916856 12900 net.cpp:323] The NetState phase (1) differed from the phase (0) specified by a rule in layer parameters
I0506 05:02:27.916949 12900 net.cpp:52] Initializing net from parameters: 
state {
  phase: TEST
}
layer {
  name: "intercept"
  type: "HDF5Data"
  top: "data"
  top: "label"
  include {
    phase: TEST
  }
  hdf5_data_param {
    source: "/home/purduethu/scratch/radon/d/deng106/CNNStatisticalModel/distributions/input/50_distributions_100_sample_size_test-distributions-path.txt"
    batch_size: 20
  }
}
layer {
  name: "conv1"
  type: "Convolution"
  bottom: "data"
  top: "conv1"
  param {
    lr_mult: 1
  }
  param {
    lr_mult: 2
  }
  convolution_param {
    num_output: 64
    pad: 2
    kernel_size: 5
    stride: 1
    weight_filler {
      type: "gaussian"
      std: 0.0001
    }
    bias_filler {
      type: "constant"
    }
  }
}
layer {
  name: "relu1"
  type: "ReLU"
  bottom: "conv1"
  top: "conv1"
}
layer {
  name: "conv2"
  type: "Convolution"
  bottom: "conv1"
  top: "conv2"
  param {
    lr_mult: 1
  }
  param {
    lr_mult: 2
  }
  convolution_param {
    num_output: 64
    pad: 2
    kernel_size: 5
    stride: 1
    weight_filler {
      type: "gaussian"
      std: 0.01
    }
    bias_filler {
      type: "constant"
    }
  }
}
layer {
  name: "relu2"
  type: "ReLU"
  bottom: "conv2"
  top: "conv2"
}
layer {
  name: "pool2"
  type: "Pooling"
  bottom: "conv2"
  top: "pool2"
  pooling_param {
    pool: MAX
    kernel_size: 3
    stride: 2
  }
}
layer {
  name: "conv3"
  type: "Convolution"
  bottom: "pool2"
  top: "conv3"
  param {
    lr_mult: 1
  }
  param {
    lr_mult: 2
  }
  convolution_param {
    num_output: 128
    pad: 2
    kernel_size: 5
    stride: 1
    weight_filler {
      type: "gaussian"
      std: 0.01
    }
    bias_filler {
      type: "constant"
    }
  }
}
layer {
  name: "relu3"
  type: "ReLU"
  bottom: "conv3"
  top: "conv3"
}
layer {
  name: "conv4"
  type: "Convolution"
  bottom: "conv3"
  top: "conv4"
  param {
    lr_mult: 1
  }
  param {
    lr_mult: 2
  }
  convolution_param {
    num_output: 128
    pad: 2
    kernel_size: 5
    stride: 1
    weight_filler {
      type: "gaussian"
      std: 0.01
    }
    bias_filler {
      type: "constant"
    }
  }
}
layer {
  name: "relu4"
  type: "ReLU"
  bottom: "conv4"
  top: "conv4"
}
layer {
  name: "conv5"
  type: "Convolution"
  bottom: "conv4"
  top: "conv5"
  param {
    lr_mult: 1
  }
  param {
    lr_mult: 2
  }
  convolution_param {
    num_output: 128
    pad: 2
    kernel_size: 5
    stride: 1
    weight_filler {
      type: "gaussian"
      std: 0.01
    }
    bias_filler {
      type: "constant"
    }
  }
}
layer {
  name: "relu5"
  type: "ReLU"
  bottom: "conv5"
  top: "conv5"
}
layer {
  name: "pool5"
  type: "Pooling"
  bottom: "conv5"
  top: "pool5"
  pooling_param {
    pool: AVE
    kernel_size: 3
    stride: 2
  }
}
layer {
  name: "ip1"
  type: "InnerProduct"
  bottom: "pool5"
  top: "ip1"
  param {
    lr_mult: 1
  }
  param {
    lr_mult: 2
  }
  inner_product_param {
    num_output: 1024
    weight_filler {
      type: "gaussian"
      std: 0.1
    }
    bias_filler {
      type: "constant"
    }
  }
}
layer {
  name: "ip2"
  type: "InnerProduct"
  bottom: "ip1"
  top: "ip2"
  param {
    lr_mult: 1
  }
  param {
    lr_mult: 2
  }
  inner_product_param {
    num_output: 512
    weight_filler {
      type: "gaussian"
      std: 0.1
    }
    bias_filler {
      type: "constant"
    }
  }
}
layer {
  name: "ip3"
  type: "InnerProduct"
  bottom: "ip2"
  top: "ip3"
  param {
    lr_mult: 1
  }
  param {
    lr_mult: 2
  }
  inner_product_param {
    num_output: 50
    weight_filler {
      type: "gaussian"
      std: 0.1
    }
    bias_filler {
      type: "constant"
    }
  }
}
layer {
  name: "accuracy"
  type: "Accuracy"
  bottom: "ip3"
  bottom: "label"
  top: "accuracy"
  include {
    phase: TEST
  }
}
layer {
  name: "loss"
  type: "SoftmaxWithLoss"
  bottom: "ip3"
  bottom: "label"
  top: "loss"
}
I0506 05:02:27.917013 12900 layer_factory.hpp:77] Creating layer intercept
I0506 05:02:27.917023 12900 net.cpp:94] Creating Layer intercept
I0506 05:02:27.917027 12900 net.cpp:409] intercept -> data
I0506 05:02:27.917034 12900 net.cpp:409] intercept -> label
I0506 05:02:27.917042 12900 hdf5_data_layer.cpp:79] Loading list of HDF5 filenames from: /home/purduethu/scratch/radon/d/deng106/CNNStatisticalModel/distributions/input/50_distributions_100_sample_size_test-distributions-path.txt
I0506 05:02:27.917062 12900 hdf5_data_layer.cpp:93] Number of HDF5 files: 1
I0506 05:02:27.958163 12900 net.cpp:144] Setting up intercept
I0506 05:02:27.958197 12900 net.cpp:151] Top shape: 20 1 10 10 (2000)
I0506 05:02:27.958204 12900 net.cpp:151] Top shape: 20 (20)
I0506 05:02:27.958206 12900 net.cpp:159] Memory required for data: 8080
I0506 05:02:27.958214 12900 layer_factory.hpp:77] Creating layer label_intercept_1_split
I0506 05:02:27.958232 12900 net.cpp:94] Creating Layer label_intercept_1_split
I0506 05:02:27.958237 12900 net.cpp:435] label_intercept_1_split <- label
I0506 05:02:27.958243 12900 net.cpp:409] label_intercept_1_split -> label_intercept_1_split_0
I0506 05:02:27.958252 12900 net.cpp:409] label_intercept_1_split -> label_intercept_1_split_1
I0506 05:02:27.958297 12900 net.cpp:144] Setting up label_intercept_1_split
I0506 05:02:27.958313 12900 net.cpp:151] Top shape: 20 (20)
I0506 05:02:27.958317 12900 net.cpp:151] Top shape: 20 (20)
I0506 05:02:27.958320 12900 net.cpp:159] Memory required for data: 8240
I0506 05:02:27.958324 12900 layer_factory.hpp:77] Creating layer conv1
I0506 05:02:27.958335 12900 net.cpp:94] Creating Layer conv1
I0506 05:02:27.958339 12900 net.cpp:435] conv1 <- data
I0506 05:02:27.958344 12900 net.cpp:409] conv1 -> conv1
I0506 05:02:27.959219 12900 net.cpp:144] Setting up conv1
I0506 05:02:27.959233 12900 net.cpp:151] Top shape: 20 64 10 10 (128000)
I0506 05:02:27.959236 12900 net.cpp:159] Memory required for data: 520240
I0506 05:02:27.959246 12900 layer_factory.hpp:77] Creating layer relu1
I0506 05:02:27.959254 12900 net.cpp:94] Creating Layer relu1
I0506 05:02:27.959257 12900 net.cpp:435] relu1 <- conv1
I0506 05:02:27.959261 12900 net.cpp:396] relu1 -> conv1 (in-place)
I0506 05:02:27.959270 12900 net.cpp:144] Setting up relu1
I0506 05:02:27.959273 12900 net.cpp:151] Top shape: 20 64 10 10 (128000)
I0506 05:02:27.959285 12900 net.cpp:159] Memory required for data: 1032240
I0506 05:02:27.959290 12900 layer_factory.hpp:77] Creating layer conv2
I0506 05:02:27.959297 12900 net.cpp:94] Creating Layer conv2
I0506 05:02:27.959301 12900 net.cpp:435] conv2 <- conv1
I0506 05:02:27.959306 12900 net.cpp:409] conv2 -> conv2
I0506 05:02:27.963423 12900 net.cpp:144] Setting up conv2
I0506 05:02:27.963438 12900 net.cpp:151] Top shape: 20 64 10 10 (128000)
I0506 05:02:27.963441 12900 net.cpp:159] Memory required for data: 1544240
I0506 05:02:27.963450 12900 layer_factory.hpp:77] Creating layer relu2
I0506 05:02:27.963457 12900 net.cpp:94] Creating Layer relu2
I0506 05:02:27.963461 12900 net.cpp:435] relu2 <- conv2
I0506 05:02:27.963466 12900 net.cpp:396] relu2 -> conv2 (in-place)
I0506 05:02:27.963472 12900 net.cpp:144] Setting up relu2
I0506 05:02:27.963477 12900 net.cpp:151] Top shape: 20 64 10 10 (128000)
I0506 05:02:27.963480 12900 net.cpp:159] Memory required for data: 2056240
I0506 05:02:27.963485 12900 layer_factory.hpp:77] Creating layer pool2
I0506 05:02:27.963491 12900 net.cpp:94] Creating Layer pool2
I0506 05:02:27.963495 12900 net.cpp:435] pool2 <- conv2
I0506 05:02:27.963500 12900 net.cpp:409] pool2 -> pool2
I0506 05:02:27.963562 12900 net.cpp:144] Setting up pool2
I0506 05:02:27.963569 12900 net.cpp:151] Top shape: 20 64 5 5 (32000)
I0506 05:02:27.963572 12900 net.cpp:159] Memory required for data: 2184240
I0506 05:02:27.963577 12900 layer_factory.hpp:77] Creating layer conv3
I0506 05:02:27.963585 12900 net.cpp:94] Creating Layer conv3
I0506 05:02:27.963589 12900 net.cpp:435] conv3 <- pool2
I0506 05:02:27.963594 12900 net.cpp:409] conv3 -> conv3
I0506 05:02:27.969665 12900 net.cpp:144] Setting up conv3
I0506 05:02:27.969677 12900 net.cpp:151] Top shape: 20 128 5 5 (64000)
I0506 05:02:27.969681 12900 net.cpp:159] Memory required for data: 2440240
I0506 05:02:27.969689 12900 layer_factory.hpp:77] Creating layer relu3
I0506 05:02:27.969696 12900 net.cpp:94] Creating Layer relu3
I0506 05:02:27.969700 12900 net.cpp:435] relu3 <- conv3
I0506 05:02:27.969707 12900 net.cpp:396] relu3 -> conv3 (in-place)
I0506 05:02:27.969713 12900 net.cpp:144] Setting up relu3
I0506 05:02:27.969718 12900 net.cpp:151] Top shape: 20 128 5 5 (64000)
I0506 05:02:27.969722 12900 net.cpp:159] Memory required for data: 2696240
I0506 05:02:27.969725 12900 layer_factory.hpp:77] Creating layer conv4
I0506 05:02:27.969733 12900 net.cpp:94] Creating Layer conv4
I0506 05:02:27.969738 12900 net.cpp:435] conv4 <- conv3
I0506 05:02:27.969743 12900 net.cpp:409] conv4 -> conv4
I0506 05:02:27.982379 12900 net.cpp:144] Setting up conv4
I0506 05:02:27.982394 12900 net.cpp:151] Top shape: 20 128 5 5 (64000)
I0506 05:02:27.982399 12900 net.cpp:159] Memory required for data: 2952240
I0506 05:02:27.982405 12900 layer_factory.hpp:77] Creating layer relu4
I0506 05:02:27.982412 12900 net.cpp:94] Creating Layer relu4
I0506 05:02:27.982416 12900 net.cpp:435] relu4 <- conv4
I0506 05:02:27.982421 12900 net.cpp:396] relu4 -> conv4 (in-place)
I0506 05:02:27.982429 12900 net.cpp:144] Setting up relu4
I0506 05:02:27.982434 12900 net.cpp:151] Top shape: 20 128 5 5 (64000)
I0506 05:02:27.982436 12900 net.cpp:159] Memory required for data: 3208240
I0506 05:02:27.982439 12900 layer_factory.hpp:77] Creating layer conv5
I0506 05:02:27.982450 12900 net.cpp:94] Creating Layer conv5
I0506 05:02:27.982453 12900 net.cpp:435] conv5 <- conv4
I0506 05:02:27.982460 12900 net.cpp:409] conv5 -> conv5
I0506 05:02:27.995033 12900 net.cpp:144] Setting up conv5
I0506 05:02:27.995048 12900 net.cpp:151] Top shape: 20 128 5 5 (64000)
I0506 05:02:27.995052 12900 net.cpp:159] Memory required for data: 3464240
I0506 05:02:27.995061 12900 layer_factory.hpp:77] Creating layer relu5
I0506 05:02:27.995069 12900 net.cpp:94] Creating Layer relu5
I0506 05:02:27.995071 12900 net.cpp:435] relu5 <- conv5
I0506 05:02:27.995077 12900 net.cpp:396] relu5 -> conv5 (in-place)
I0506 05:02:27.995085 12900 net.cpp:144] Setting up relu5
I0506 05:02:27.995090 12900 net.cpp:151] Top shape: 20 128 5 5 (64000)
I0506 05:02:27.995098 12900 net.cpp:159] Memory required for data: 3720240
I0506 05:02:27.995102 12900 layer_factory.hpp:77] Creating layer pool5
I0506 05:02:27.995108 12900 net.cpp:94] Creating Layer pool5
I0506 05:02:27.995111 12900 net.cpp:435] pool5 <- conv5
I0506 05:02:27.995117 12900 net.cpp:409] pool5 -> pool5
I0506 05:02:27.995159 12900 net.cpp:144] Setting up pool5
I0506 05:02:27.995167 12900 net.cpp:151] Top shape: 20 128 2 2 (10240)
I0506 05:02:27.995169 12900 net.cpp:159] Memory required for data: 3761200
I0506 05:02:27.995173 12900 layer_factory.hpp:77] Creating layer ip1
I0506 05:02:27.995182 12900 net.cpp:94] Creating Layer ip1
I0506 05:02:27.995185 12900 net.cpp:435] ip1 <- pool5
I0506 05:02:27.995190 12900 net.cpp:409] ip1 -> ip1
I0506 05:02:28.008458 12900 net.cpp:144] Setting up ip1
I0506 05:02:28.008473 12900 net.cpp:151] Top shape: 20 1024 (20480)
I0506 05:02:28.008477 12900 net.cpp:159] Memory required for data: 3843120
I0506 05:02:28.008483 12900 layer_factory.hpp:77] Creating layer ip2
I0506 05:02:28.008492 12900 net.cpp:94] Creating Layer ip2
I0506 05:02:28.008496 12900 net.cpp:435] ip2 <- ip1
I0506 05:02:28.008502 12900 net.cpp:409] ip2 -> ip2
I0506 05:02:28.021802 12900 net.cpp:144] Setting up ip2
I0506 05:02:28.021816 12900 net.cpp:151] Top shape: 20 512 (10240)
I0506 05:02:28.021821 12900 net.cpp:159] Memory required for data: 3884080
I0506 05:02:28.021827 12900 layer_factory.hpp:77] Creating layer ip3
I0506 05:02:28.021838 12900 net.cpp:94] Creating Layer ip3
I0506 05:02:28.021842 12900 net.cpp:435] ip3 <- ip2
I0506 05:02:28.021848 12900 net.cpp:409] ip3 -> ip3
I0506 05:02:28.022593 12900 net.cpp:144] Setting up ip3
I0506 05:02:28.022601 12900 net.cpp:151] Top shape: 20 50 (1000)
I0506 05:02:28.022605 12900 net.cpp:159] Memory required for data: 3888080
I0506 05:02:28.022610 12900 layer_factory.hpp:77] Creating layer ip3_ip3_0_split
I0506 05:02:28.022616 12900 net.cpp:94] Creating Layer ip3_ip3_0_split
I0506 05:02:28.022620 12900 net.cpp:435] ip3_ip3_0_split <- ip3
I0506 05:02:28.022625 12900 net.cpp:409] ip3_ip3_0_split -> ip3_ip3_0_split_0
I0506 05:02:28.022630 12900 net.cpp:409] ip3_ip3_0_split -> ip3_ip3_0_split_1
I0506 05:02:28.022676 12900 net.cpp:144] Setting up ip3_ip3_0_split
I0506 05:02:28.022683 12900 net.cpp:151] Top shape: 20 50 (1000)
I0506 05:02:28.022687 12900 net.cpp:151] Top shape: 20 50 (1000)
I0506 05:02:28.022691 12900 net.cpp:159] Memory required for data: 3896080
I0506 05:02:28.022693 12900 layer_factory.hpp:77] Creating layer accuracy
I0506 05:02:28.022699 12900 net.cpp:94] Creating Layer accuracy
I0506 05:02:28.022703 12900 net.cpp:435] accuracy <- ip3_ip3_0_split_0
I0506 05:02:28.022707 12900 net.cpp:435] accuracy <- label_intercept_1_split_0
I0506 05:02:28.022711 12900 net.cpp:409] accuracy -> accuracy
…
