…
I0506 05:06:34.197921 12923 net.cpp:323] The NetState phase (0) differed from the phase (1) specified by a rule in layer intercept
I0506 05:06:34.197937 12923 net.cpp:323] The NetState phase (0) differed from the phase (1) specified by a rule in layer loss
I0506 05:06:34.198020 12923 net.cpp:52] Initializing net from parameters: 
state {
  phase: TRAIN
}
layer {
  name: "parameters"
  type: "HDF5Data"
  top: "data"
  top: "label"
  include {
    phase: TRAIN
  }
  hdf5_data_param {
    source: "/home/purduethu/scratch/radon/d/deng106/CNNStatisticalModel/distributions/input/50_distributions_100_sample_size_train-parameters-path.txt"
    batch_size: 20
  }
}
layer {
  name: "conv1"
  type: "Convolution"
  bottom: "data"
  top: "conv1"
  param {
    lr_mult: 1
  }
  param {
    lr_mult: 2
  }
  convolution_param {
    num_output: 64
    pad: 2
    kernel_size: 5
    stride: 1
    weight_filler {
      type: "gaussian"
      std: 0.0001
    }
    bias_filler {
      type: "constant"
    }
  }
}
layer {
  name: "relu1"
  type: "ReLU"
  bottom: "conv1"
  top: "conv1"
}
layer {
  name: "conv2"
  type: "Convolution"
  bottom: "conv1"
  top: "conv2"
  param {
    lr_mult: 1
  }
  param {
    lr_mult: 2
  }
  convolution_param {
    num_output: 64
    pad: 2
    kernel_size: 5
    stride: 1
    weight_filler {
      type: "gaussian"
      std: 0.01
    }
    bias_filler {
      type: "constant"
    }
  }
}
layer {
  name: "relu2"
  type: "ReLU"
  bottom: "conv2"
  top: "conv2"
}
layer {
  name: "pool2"
  type: "Pooling"
  bottom: "conv2"
  top: "pool2"
  pooling_param {
    pool: MAX
    kernel_size: 3
    stride: 2
  }
}
layer {
  name: "conv3"
  type: "Convolution"
  bottom: "pool2"
  top: "conv3"
  param {
    lr_mult: 1
  }
  param {
    lr_mult: 2
  }
  convolution_param {
    num_output: 128
    pad: 2
    kernel_size: 5
    stride: 1
    weight_filler {
      type: "gaussian"
      std: 0.01
    }
    bias_filler {
      type: "constant"
    }
  }
}
layer {
  name: "relu3"
  type: "ReLU"
  bottom: "conv3"
  top: "conv3"
}
layer {
  name: "conv4"
  type: "Convolution"
  bottom: "conv3"
  top: "conv4"
  param {
    lr_mult: 1
  }
  param {
    lr_mult: 2
  }
  convolution_param {
    num_output: 128
    pad: 2
    kernel_size: 5
    stride: 1
    weight_filler {
      type: "gaussian"
      std: 0.01
    }
    bias_filler {
      type: "constant"
    }
  }
}
layer {
  name: "relu4"
  type: "ReLU"
  bottom: "conv4"
  top: "conv4"
}
layer {
  name: "conv5"
  type: "Convolution"
  bottom: "conv4"
  top: "conv5"
  param {
    lr_mult: 1
  }
  param {
    lr_mult: 2
  }
  convolution_param {
    num_output: 128
    pad: 2
    kernel_size: 5
    stride: 1
    weight_filler {
      type: "gaussian"
      std: 0.01
    }
    bias_filler {
      type: "constant"
    }
  }
}
layer {
  name: "relu5"
  type: "ReLU"
  bottom: "conv5"
  top: "conv5"
}
layer {
  name: "pool5"
  type: "Pooling"
  bottom: "conv5"
  top: "pool5"
  pooling_param {
    pool: AVE
    kernel_size: 3
    stride: 2
  }
}
layer {
  name: "ip1"
  type: "InnerProduct"
  bottom: "pool5"
  top: "ip1"
  param {
    lr_mult: 1
  }
  param {
    lr_mult: 2
  }
  inner_product_param {
    num_output: 1024
    weight_filler {
      type: "gaussian"
      std: 0.1
    }
    bias_filler {
      type: "constant"
    }
  }
}
layer {
  name: "ip2"
  type: "InnerProduct"
  bottom: "ip1"
  top: "ip2"
  param {
    lr_mult: 1
  }
  param {
    lr_mult: 2
  }
  inner_product_param {
    num_output: 512
    weight_filler {
      type: "gaussian"
      std: 0.1
    }
    bias_filler {
      type: "constant"
    }
  }
}
layer {
  name: "ip3"
  type: "InnerProduct"
  bottom: "ip2"
  top: "ip3"
  param {
    lr_mult: 1
  }
  param {
    lr_mult: 2
  }
  inner_product_param {
    num_output: 1
    weight_filler {
      type: "gaussian"
      std: 0.1
    }
    bias_filler {
      type: "constant"
    }
  }
}
layer {
  name: "loss"
  type: "HuberLoss"
  bottom: "ip3"
  bottom: "label"
  top: "loss"
  include {
    phase: TRAIN
  }
}
I0506 05:06:34.198074 12923 layer_factory.hpp:77] Creating layer parameters
I0506 05:06:34.198089 12923 net.cpp:94] Creating Layer parameters
I0506 05:06:34.198093 12923 net.cpp:409] parameters -> data
I0506 05:06:34.198107 12923 net.cpp:409] parameters -> label
I0506 05:06:34.198114 12923 hdf5_data_layer.cpp:79] Loading list of HDF5 filenames from: /home/purduethu/scratch/radon/d/deng106/CNNStatisticalModel/distributions/input/50_distributions_100_sample_size_train-parameters-path.txt
I0506 05:06:34.198129 12923 hdf5_data_layer.cpp:93] Number of HDF5 files: 1
I0506 05:06:34.198645 12923 hdf5.cpp:32] Datatype class: H5T_FLOAT
I0506 05:06:34.361228 12923 net.cpp:144] Setting up parameters
I0506 05:06:34.361259 12923 net.cpp:151] Top shape: 20 1 10 10 (2000)
I0506 05:06:34.361264 12923 net.cpp:151] Top shape: 20 (20)
I0506 05:06:34.361268 12923 net.cpp:159] Memory required for data: 8080
I0506 05:06:34.361274 12923 layer_factory.hpp:77] Creating layer conv1
I0506 05:06:34.361289 12923 net.cpp:94] Creating Layer conv1
I0506 05:06:34.361294 12923 net.cpp:435] conv1 <- data
I0506 05:06:34.361299 12923 net.cpp:409] conv1 -> conv1
I0506 05:06:34.365466 12923 net.cpp:144] Setting up conv1
I0506 05:06:34.365487 12923 net.cpp:151] Top shape: 20 64 10 10 (128000)
I0506 05:06:34.365491 12923 net.cpp:159] Memory required for data: 520080
I0506 05:06:34.365502 12923 layer_factory.hpp:77] Creating layer relu1
I0506 05:06:34.365511 12923 net.cpp:94] Creating Layer relu1
I0506 05:06:34.365515 12923 net.cpp:435] relu1 <- conv1
I0506 05:06:34.365520 12923 net.cpp:396] relu1 -> conv1 (in-place)
I0506 05:06:34.365527 12923 net.cpp:144] Setting up relu1
I0506 05:06:34.365532 12923 net.cpp:151] Top shape: 20 64 10 10 (128000)
I0506 05:06:34.365535 12923 net.cpp:159] Memory required for data: 1032080
I0506 05:06:34.365538 12923 layer_factory.hpp:77] Creating layer conv2
I0506 05:06:34.365546 12923 net.cpp:94] Creating Layer conv2
I0506 05:06:34.365550 12923 net.cpp:435] conv2 <- conv1
I0506 05:06:34.365555 12923 net.cpp:409] conv2 -> conv2
I0506 05:06:34.371631 12923 net.cpp:144] Setting up conv2
I0506 05:06:34.371649 12923 net.cpp:151] Top shape: 20 64 10 10 (128000)
I0506 05:06:34.371652 12923 net.cpp:159] Memory required for data: 1544080
I0506 05:06:34.371661 12923 layer_factory.hpp:77] Creating layer relu2
I0506 05:06:34.371668 12923 net.cpp:94] Creating Layer relu2
I0506 05:06:34.371672 12923 net.cpp:435] relu2 <- conv2
I0506 05:06:34.371677 12923 net.cpp:396] relu2 -> conv2 (in-place)
I0506 05:06:34.371685 12923 net.cpp:144] Setting up relu2
I0506 05:06:34.371690 12923 net.cpp:151] Top shape: 20 64 10 10 (128000)
I0506 05:06:34.371692 12923 net.cpp:159] Memory required for data: 2056080
I0506 05:06:34.371695 12923 layer_factory.hpp:77] Creating layer pool2
I0506 05:06:34.371701 12923 net.cpp:94] Creating Layer pool2
I0506 05:06:34.371703 12923 net.cpp:435] pool2 <- conv2
I0506 05:06:34.371707 12923 net.cpp:409] pool2 -> pool2
I0506 05:06:34.371758 12923 net.cpp:144] Setting up pool2
I0506 05:06:34.371765 12923 net.cpp:151] Top shape: 20 64 5 5 (32000)
I0506 05:06:34.371768 12923 net.cpp:159] Memory required for data: 2184080
I0506 05:06:34.371773 12923 layer_factory.hpp:77] Creating layer conv3
I0506 05:06:34.371779 12923 net.cpp:94] Creating Layer conv3
I0506 05:06:34.371789 12923 net.cpp:435] conv3 <- pool2
I0506 05:06:34.371794 12923 net.cpp:409] conv3 -> conv3
I0506 05:06:34.380089 12923 net.cpp:144] Setting up conv3
I0506 05:06:34.380105 12923 net.cpp:151] Top shape: 20 128 5 5 (64000)
I0506 05:06:34.380110 12923 net.cpp:159] Memory required for data: 2440080
I0506 05:06:34.380117 12923 layer_factory.hpp:77] Creating layer relu3
I0506 05:06:34.380123 12923 net.cpp:94] Creating Layer relu3
I0506 05:06:34.380127 12923 net.cpp:435] relu3 <- conv3
I0506 05:06:34.380132 12923 net.cpp:396] relu3 -> conv3 (in-place)
I0506 05:06:34.380138 12923 net.cpp:144] Setting up relu3
I0506 05:06:34.380143 12923 net.cpp:151] Top shape: 20 128 5 5 (64000)
I0506 05:06:34.380146 12923 net.cpp:159] Memory required for data: 2696080
I0506 05:06:34.380149 12923 layer_factory.hpp:77] Creating layer conv4
I0506 05:06:34.380157 12923 net.cpp:94] Creating Layer conv4
I0506 05:06:34.380161 12923 net.cpp:435] conv4 <- conv3
I0506 05:06:34.380165 12923 net.cpp:409] conv4 -> conv4
I0506 05:06:34.395045 12923 net.cpp:144] Setting up conv4
I0506 05:06:34.395063 12923 net.cpp:151] Top shape: 20 128 5 5 (64000)
I0506 05:06:34.395067 12923 net.cpp:159] Memory required for data: 2952080
I0506 05:06:34.395074 12923 layer_factory.hpp:77] Creating layer relu4
I0506 05:06:34.395081 12923 net.cpp:94] Creating Layer relu4
I0506 05:06:34.395084 12923 net.cpp:435] relu4 <- conv4
I0506 05:06:34.395089 12923 net.cpp:396] relu4 -> conv4 (in-place)
I0506 05:06:34.395097 12923 net.cpp:144] Setting up relu4
I0506 05:06:34.395102 12923 net.cpp:151] Top shape: 20 128 5 5 (64000)
I0506 05:06:34.395103 12923 net.cpp:159] Memory required for data: 3208080
I0506 05:06:34.395107 12923 layer_factory.hpp:77] Creating layer conv5
I0506 05:06:34.395114 12923 net.cpp:94] Creating Layer conv5
I0506 05:06:34.395117 12923 net.cpp:435] conv5 <- conv4
I0506 05:06:34.395123 12923 net.cpp:409] conv5 -> conv5
I0506 05:06:34.409421 12923 net.cpp:144] Setting up conv5
I0506 05:06:34.409440 12923 net.cpp:151] Top shape: 20 128 5 5 (64000)
I0506 05:06:34.409446 12923 net.cpp:159] Memory required for data: 3464080
I0506 05:06:34.409454 12923 layer_factory.hpp:77] Creating layer relu5
I0506 05:06:34.409461 12923 net.cpp:94] Creating Layer relu5
I0506 05:06:34.409466 12923 net.cpp:435] relu5 <- conv5
I0506 05:06:34.409471 12923 net.cpp:396] relu5 -> conv5 (in-place)
I0506 05:06:34.409477 12923 net.cpp:144] Setting up relu5
I0506 05:06:34.409482 12923 net.cpp:151] Top shape: 20 128 5 5 (64000)
I0506 05:06:34.409485 12923 net.cpp:159] Memory required for data: 3720080
I0506 05:06:34.409488 12923 layer_factory.hpp:77] Creating layer pool5
I0506 05:06:34.409494 12923 net.cpp:94] Creating Layer pool5
I0506 05:06:34.409497 12923 net.cpp:435] pool5 <- conv5
I0506 05:06:34.409502 12923 net.cpp:409] pool5 -> pool5
I0506 05:06:34.409543 12923 net.cpp:144] Setting up pool5
I0506 05:06:34.409551 12923 net.cpp:151] Top shape: 20 128 2 2 (10240)
I0506 05:06:34.409554 12923 net.cpp:159] Memory required for data: 3761040
I0506 05:06:34.409557 12923 layer_factory.hpp:77] Creating layer ip1
I0506 05:06:34.409567 12923 net.cpp:94] Creating Layer ip1
I0506 05:06:34.409571 12923 net.cpp:435] ip1 <- pool5
I0506 05:06:34.409576 12923 net.cpp:409] ip1 -> ip1
I0506 05:06:34.423518 12923 net.cpp:144] Setting up ip1
I0506 05:06:34.423539 12923 net.cpp:151] Top shape: 20 1024 (20480)
I0506 05:06:34.423543 12923 net.cpp:159] Memory required for data: 3842960
I0506 05:06:34.423550 12923 layer_factory.hpp:77] Creating layer ip2
I0506 05:06:34.423558 12923 net.cpp:94] Creating Layer ip2
I0506 05:06:34.423563 12923 net.cpp:435] ip2 <- ip1
I0506 05:06:34.423568 12923 net.cpp:409] ip2 -> ip2
I0506 05:06:34.436648 12923 net.cpp:144] Setting up ip2
I0506 05:06:34.436667 12923 net.cpp:151] Top shape: 20 512 (10240)
I0506 05:06:34.436671 12923 net.cpp:159] Memory required for data: 3883920
I0506 05:06:34.436678 12923 layer_factory.hpp:77] Creating layer ip3
I0506 05:06:34.436686 12923 net.cpp:94] Creating Layer ip3
I0506 05:06:34.436689 12923 net.cpp:435] ip3 <- ip2
I0506 05:06:34.436702 12923 net.cpp:409] ip3 -> ip3
I0506 05:06:34.436816 12923 net.cpp:144] Setting up ip3
I0506 05:06:34.436825 12923 net.cpp:151] Top shape: 20 1 (20)
I0506 05:06:34.436827 12923 net.cpp:159] Memory required for data: 3884000
I0506 05:06:34.436832 12923 layer_factory.hpp:77] Creating layer loss
I0506 05:06:34.436846 12923 net.cpp:94] Creating Layer loss
I0506 05:06:34.436849 12923 net.cpp:435] loss <- ip3
I0506 05:06:34.436852 12923 net.cpp:435] loss <- label
I0506 05:06:34.436857 12923 net.cpp:409] loss -> loss
I0506 05:06:34.436916 12923 net.cpp:144] Setting up loss
…
I0506 05:06:34.543603 12923 net.cpp:323] The NetState phase (0) differed from the phase (1) specified by a rule in layer intercept
I0506 05:06:34.543619 12923 net.cpp:323] The NetState phase (0) differed from the phase (1) specified by a rule in layer accuracy
I0506 05:06:34.543707 12923 net.cpp:52] Initializing net from parameters: 
state {
  phase: TRAIN
}
layer {
  name: "parameters"
  type: "HDF5Data"
  top: "data"
  top: "label"
  include {
    phase: TRAIN
  }
  hdf5_data_param {
    source: "/home/purduethu/scratch/radon/d/deng106/CNNStatisticalModel/distributions/input/50_distributions_100_sample_size_train-distributions-path.txt"
    batch_size: 20
  }
}
layer {
  name: "conv1"
  type: "Convolution"
  bottom: "data"
  top: "conv1"
  param {
    lr_mult: 1
  }
  param {
    lr_mult: 2
  }
  convolution_param {
    num_output: 64
    pad: 2
    kernel_size: 5
    stride: 1
    weight_filler {
      type: "gaussian"
      std: 0.0001
    }
    bias_filler {
      type: "constant"
    }
  }
}
layer {
  name: "relu1"
  type: "ReLU"
  bottom: "conv1"
  top: "conv1"
}
layer {
  name: "conv2"
  type: "Convolution"
  bottom: "conv1"
  top: "conv2"
  param {
    lr_mult: 1
  }
  param {
    lr_mult: 2
  }
  convolution_param {
    num_output: 64
    pad: 2
    kernel_size: 5
    stride: 1
    weight_filler {
      type: "gaussian"
      std: 0.01
    }
    bias_filler {
      type: "constant"
    }
  }
}
layer {
  name: "relu2"
  type: "ReLU"
  bottom: "conv2"
  top: "conv2"
}
layer {
  name: "pool2"
  type: "Pooling"
  bottom: "conv2"
  top: "pool2"
  pooling_param {
    pool: MAX
    kernel_size: 3
    stride: 2
  }
}
layer {
  name: "conv3"
  type: "Convolution"
  bottom: "pool2"
  top: "conv3"
  param {
    lr_mult: 1
  }
  param {
    lr_mult: 2
  }
  convolution_param {
    num_output: 128
    pad: 2
    kernel_size: 5
    stride: 1
    weight_filler {
      type: "gaussian"
      std: 0.01
    }
    bias_filler {
      type: "constant"
    }
  }
}
layer {
  name: "relu3"
  type: "ReLU"
  bottom: "conv3"
  top: "conv3"
}
layer {
  name: "conv4"
  type: "Convolution"
  bottom: "conv3"
  top: "conv4"
  param {
    lr_mult: 1
  }
  param {
    lr_mult: 2
  }
  convolution_param {
    num_output: 128
    pad: 2
    kernel_size: 5
    stride: 1
    weight_filler {
      type: "gaussian"
      std: 0.01
    }
    bias_filler {
      type: "constant"
    }
  }
}
layer {
  name: "relu4"
  type: "ReLU"
  bottom: "conv4"
  top: "conv4"
}
layer {
  name: "conv5"
  type: "Convolution"
  bottom: "conv4"
  top: "conv5"
  param {
    lr_mult: 1
  }
  param {
    lr_mult: 2
  }
  convolution_param {
    num_output: 128
    pad: 2
    kernel_size: 5
    stride: 1
    weight_filler {
      type: "gaussian"
      std: 0.01
    }
    bias_filler {
      type: "constant"
    }
  }
}
layer {
  name: "relu5"
  type: "ReLU"
  bottom: "conv5"
  top: "conv5"
}
layer {
  name: "pool5"
  type: "Pooling"
  bottom: "conv5"
  top: "pool5"
  pooling_param {
    pool: AVE
    kernel_size: 3
    stride: 2
  }
}
layer {
  name: "ip1"
  type: "InnerProduct"
  bottom: "pool5"
  top: "ip1"
  param {
    lr_mult: 1
  }
  param {
    lr_mult: 2
  }
  inner_product_param {
    num_output: 1024
    weight_filler {
      type: "gaussian"
      std: 0.1
    }
    bias_filler {
      type: "constant"
    }
  }
}
layer {
  name: "ip2"
  type: "InnerProduct"
  bottom: "ip1"
  top: "ip2"
  param {
    lr_mult: 1
  }
  param {
    lr_mult: 2
  }
  inner_product_param {
    num_output: 512
    weight_filler {
      type: "gaussian"
      std: 0.1
    }
    bias_filler {
      type: "constant"
    }
  }
}
layer {
  name: "ip3"
  type: "InnerProduct"
  bottom: "ip2"
  top: "ip3"
  param {
    lr_mult: 1
  }
  param {
    lr_mult: 2
  }
  inner_product_param {
    num_output: 50
    weight_filler {
      type: "gaussian"
      std: 0.1
    }
    bias_filler {
      type: "constant"
    }
  }
}
layer {
  name: "loss"
  type: "SoftmaxWithLoss"
  bottom: "ip3"
  bottom: "label"
  top: "loss"
}
I0506 05:06:34.543759 12923 layer_factory.hpp:77] Creating layer parameters
I0506 05:06:34.543767 12923 net.cpp:94] Creating Layer parameters
I0506 05:06:34.543771 12923 net.cpp:409] parameters -> data
I0506 05:06:34.543777 12923 net.cpp:409] parameters -> label
I0506 05:06:34.543783 12923 hdf5_data_layer.cpp:79] Loading list of HDF5 filenames from: /home/purduethu/scratch/radon/d/deng106/CNNStatisticalModel/distributions/input/50_distributions_100_sample_size_train-distributions-path.txt
I0506 05:06:34.543800 12923 hdf5_data_layer.cpp:93] Number of HDF5 files: 1
I0506 05:06:34.699656 12923 hdf5.cpp:35] Datatype class: H5T_INTEGER
I0506 05:06:34.702783 12923 net.cpp:144] Setting up parameters
I0506 05:06:34.702807 12923 net.cpp:151] Top shape: 20 1 10 10 (2000)
I0506 05:06:34.702812 12923 net.cpp:151] Top shape: 20 (20)
I0506 05:06:34.702816 12923 net.cpp:159] Memory required for data: 8080
I0506 05:06:34.702821 12923 layer_factory.hpp:77] Creating layer conv1
I0506 05:06:34.702837 12923 net.cpp:94] Creating Layer conv1
I0506 05:06:34.702841 12923 net.cpp:435] conv1 <- data
I0506 05:06:34.702847 12923 net.cpp:409] conv1 -> conv1
I0506 05:06:34.704607 12923 net.cpp:144] Setting up conv1
I0506 05:06:34.704623 12923 net.cpp:151] Top shape: 20 64 10 10 (128000)
I0506 05:06:34.704627 12923 net.cpp:159] Memory required for data: 520080
I0506 05:06:34.704638 12923 layer_factory.hpp:77] Creating layer relu1
I0506 05:06:34.704646 12923 net.cpp:94] Creating Layer relu1
I0506 05:06:34.704650 12923 net.cpp:435] relu1 <- conv1
I0506 05:06:34.704654 12923 net.cpp:396] relu1 -> conv1 (in-place)
I0506 05:06:34.704663 12923 net.cpp:144] Setting up relu1
I0506 05:06:34.704668 12923 net.cpp:151] Top shape: 20 64 10 10 (128000)
I0506 05:06:34.704670 12923 net.cpp:159] Memory required for data: 1032080
I0506 05:06:34.704674 12923 layer_factory.hpp:77] Creating layer conv2
I0506 05:06:34.704680 12923 net.cpp:94] Creating Layer conv2
I0506 05:06:34.704684 12923 net.cpp:435] conv2 <- conv1
I0506 05:06:34.704689 12923 net.cpp:409] conv2 -> conv2
I0506 05:06:34.710034 12923 net.cpp:144] Setting up conv2
I0506 05:06:34.710049 12923 net.cpp:151] Top shape: 20 64 10 10 (128000)
I0506 05:06:34.710053 12923 net.cpp:159] Memory required for data: 1544080
I0506 05:06:34.710062 12923 layer_factory.hpp:77] Creating layer relu2
I0506 05:06:34.710067 12923 net.cpp:94] Creating Layer relu2
I0506 05:06:34.710072 12923 net.cpp:435] relu2 <- conv2
I0506 05:06:34.710077 12923 net.cpp:396] relu2 -> conv2 (in-place)
I0506 05:06:34.710083 12923 net.cpp:144] Setting up relu2
I0506 05:06:34.710088 12923 net.cpp:151] Top shape: 20 64 10 10 (128000)
I0506 05:06:34.710090 12923 net.cpp:159] Memory required for data: 2056080
I0506 05:06:34.710093 12923 layer_factory.hpp:77] Creating layer pool2
I0506 05:06:34.710099 12923 net.cpp:94] Creating Layer pool2
I0506 05:06:34.710103 12923 net.cpp:435] pool2 <- conv2
I0506 05:06:34.710106 12923 net.cpp:409] pool2 -> pool2
I0506 05:06:34.710158 12923 net.cpp:144] Setting up pool2
I0506 05:06:34.710165 12923 net.cpp:151] Top shape: 20 64 5 5 (32000)
I0506 05:06:34.710168 12923 net.cpp:159] Memory required for data: 2184080
I0506 05:06:34.710171 12923 layer_factory.hpp:77] Creating layer conv3
I0506 05:06:34.710180 12923 net.cpp:94] Creating Layer conv3
I0506 05:06:34.710182 12923 net.cpp:435] conv3 <- pool2
I0506 05:06:34.710187 12923 net.cpp:409] conv3 -> conv3
I0506 05:06:34.718852 12923 net.cpp:144] Setting up conv3
I0506 05:06:34.718868 12923 net.cpp:151] Top shape: 20 128 5 5 (64000)
I0506 05:06:34.718871 12923 net.cpp:159] Memory required for data: 2440080
I0506 05:06:34.718879 12923 layer_factory.hpp:77] Creating layer relu3
I0506 05:06:34.718886 12923 net.cpp:94] Creating Layer relu3
I0506 05:06:34.718889 12923 net.cpp:435] relu3 <- conv3
I0506 05:06:34.718894 12923 net.cpp:396] relu3 -> conv3 (in-place)
I0506 05:06:34.718906 12923 net.cpp:144] Setting up relu3
I0506 05:06:34.718912 12923 net.cpp:151] Top shape: 20 128 5 5 (64000)
I0506 05:06:34.718914 12923 net.cpp:159] Memory required for data: 2696080
I0506 05:06:34.718919 12923 layer_factory.hpp:77] Creating layer conv4
I0506 05:06:34.718926 12923 net.cpp:94] Creating Layer conv4
I0506 05:06:34.718930 12923 net.cpp:435] conv4 <- conv3
I0506 05:06:34.718935 12923 net.cpp:409] conv4 -> conv4
I0506 05:06:34.733552 12923 net.cpp:144] Setting up conv4
I0506 05:06:34.733572 12923 net.cpp:151] Top shape: 20 128 5 5 (64000)
I0506 05:06:34.733575 12923 net.cpp:159] Memory required for data: 2952080
I0506 05:06:34.733583 12923 layer_factory.hpp:77] Creating layer relu4
I0506 05:06:34.733589 12923 net.cpp:94] Creating Layer relu4
I0506 05:06:34.733593 12923 net.cpp:435] relu4 <- conv4
I0506 05:06:34.733597 12923 net.cpp:396] relu4 -> conv4 (in-place)
I0506 05:06:34.733605 12923 net.cpp:144] Setting up relu4
I0506 05:06:34.733609 12923 net.cpp:151] Top shape: 20 128 5 5 (64000)
I0506 05:06:34.733613 12923 net.cpp:159] Memory required for data: 3208080
I0506 05:06:34.733615 12923 layer_factory.hpp:77] Creating layer conv5
I0506 05:06:34.733623 12923 net.cpp:94] Creating Layer conv5
I0506 05:06:34.733626 12923 net.cpp:435] conv5 <- conv4
I0506 05:06:34.733631 12923 net.cpp:409] conv5 -> conv5
I0506 05:06:34.748579 12923 net.cpp:144] Setting up conv5
I0506 05:06:34.748598 12923 net.cpp:151] Top shape: 20 128 5 5 (64000)
I0506 05:06:34.748602 12923 net.cpp:159] Memory required for data: 3464080
I0506 05:06:34.748611 12923 layer_factory.hpp:77] Creating layer relu5
I0506 05:06:34.748618 12923 net.cpp:94] Creating Layer relu5
I0506 05:06:34.748622 12923 net.cpp:435] relu5 <- conv5
I0506 05:06:34.748627 12923 net.cpp:396] relu5 -> conv5 (in-place)
I0506 05:06:34.748636 12923 net.cpp:144] Setting up relu5
I0506 05:06:34.748639 12923 net.cpp:151] Top shape: 20 128 5 5 (64000)
I0506 05:06:34.748642 12923 net.cpp:159] Memory required for data: 3720080
I0506 05:06:34.748646 12923 layer_factory.hpp:77] Creating layer pool5
I0506 05:06:34.748651 12923 net.cpp:94] Creating Layer pool5
I0506 05:06:34.748654 12923 net.cpp:435] pool5 <- conv5
I0506 05:06:34.748658 12923 net.cpp:409] pool5 -> pool5
I0506 05:06:34.748697 12923 net.cpp:144] Setting up pool5
I0506 05:06:34.748705 12923 net.cpp:151] Top shape: 20 128 2 2 (10240)
I0506 05:06:34.748708 12923 net.cpp:159] Memory required for data: 3761040
I0506 05:06:34.748711 12923 layer_factory.hpp:77] Creating layer ip1
I0506 05:06:34.748718 12923 net.cpp:94] Creating Layer ip1
I0506 05:06:34.748721 12923 net.cpp:435] ip1 <- pool5
I0506 05:06:34.748725 12923 net.cpp:409] ip1 -> ip1
I0506 05:06:34.761834 12923 net.cpp:144] Setting up ip1
I0506 05:06:34.761853 12923 net.cpp:151] Top shape: 20 1024 (20480)
I0506 05:06:34.761857 12923 net.cpp:159] Memory required for data: 3842960
I0506 05:06:34.761863 12923 layer_factory.hpp:77] Creating layer ip2
I0506 05:06:34.761871 12923 net.cpp:94] Creating Layer ip2
I0506 05:06:34.761875 12923 net.cpp:435] ip2 <- ip1
I0506 05:06:34.761880 12923 net.cpp:409] ip2 -> ip2
I0506 05:06:34.774973 12923 net.cpp:144] Setting up ip2
I0506 05:06:34.774992 12923 net.cpp:151] Top shape: 20 512 (10240)
I0506 05:06:34.774996 12923 net.cpp:159] Memory required for data: 3883920
I0506 05:06:34.775002 12923 layer_factory.hpp:77] Creating layer ip3
I0506 05:06:34.775009 12923 net.cpp:94] Creating Layer ip3
I0506 05:06:34.775013 12923 net.cpp:435] ip3 <- ip2
I0506 05:06:34.775018 12923 net.cpp:409] ip3 -> ip3
I0506 05:06:34.776571 12923 net.cpp:144] Setting up ip3
I0506 05:06:34.776585 12923 net.cpp:151] Top shape: 20 50 (1000)
I0506 05:06:34.776589 12923 net.cpp:159] Memory required for data: 3887920
I0506 05:06:34.776597 12923 layer_factory.hpp:77] Creating layer loss
I0506 05:06:34.776604 12923 net.cpp:94] Creating Layer loss
I0506 05:06:34.776608 12923 net.cpp:435] loss <- ip3
I0506 05:06:34.776612 12923 net.cpp:435] loss <- label
I0506 05:06:34.776617 12923 net.cpp:409] loss -> loss
I0506 05:06:34.776625 12923 layer_factory.hpp:77] Creating layer loss
…
I0506 05:06:34.777154 12923 solver.cpp:181] Creating test net (#0) specified by net file: ./protocol/dis_50_100_dimension.protocol_distribution
I0506 05:06:34.777181 12923 net.cpp:323] The NetState phase (1) differed from the phase (0) specified by a rule in layer parameters
I0506 05:06:34.777276 12923 net.cpp:52] Initializing net from parameters: 
state {
  phase: TEST
}
layer {
  name: "intercept"
  type: "HDF5Data"
  top: "data"
  top: "label"
  include {
    phase: TEST
  }
  hdf5_data_param {
    source: "/home/purduethu/scratch/radon/d/deng106/CNNStatisticalModel/distributions/input/50_distributions_100_sample_size_test-distributions-path.txt"
    batch_size: 20
  }
}
layer {
  name: "conv1"
  type: "Convolution"
  bottom: "data"
  top: "conv1"
  param {
    lr_mult: 1
  }
  param {
    lr_mult: 2
  }
  convolution_param {
    num_output: 64
    pad: 2
    kernel_size: 5
    stride: 1
    weight_filler {
      type: "gaussian"
      std: 0.0001
    }
    bias_filler {
      type: "constant"
    }
  }
}
layer {
  name: "relu1"
  type: "ReLU"
  bottom: "conv1"
  top: "conv1"
}
layer {
  name: "conv2"
  type: "Convolution"
  bottom: "conv1"
  top: "conv2"
  param {
    lr_mult: 1
  }
  param {
    lr_mult: 2
  }
  convolution_param {
    num_output: 64
    pad: 2
    kernel_size: 5
    stride: 1
    weight_filler {
      type: "gaussian"
      std: 0.01
    }
    bias_filler {
      type: "constant"
    }
  }
}
layer {
  name: "relu2"
  type: "ReLU"
  bottom: "conv2"
  top: "conv2"
}
layer {
  name: "pool2"
  type: "Pooling"
  bottom: "conv2"
  top: "pool2"
  pooling_param {
    pool: MAX
    kernel_size: 3
    stride: 2
  }
}
layer {
  name: "conv3"
  type: "Convolution"
  bottom: "pool2"
  top: "conv3"
  param {
    lr_mult: 1
  }
  param {
    lr_mult: 2
  }
  convolution_param {
    num_output: 128
    pad: 2
    kernel_size: 5
    stride: 1
    weight_filler {
      type: "gaussian"
      std: 0.01
    }
    bias_filler {
      type: "constant"
    }
  }
}
layer {
  name: "relu3"
  type: "ReLU"
  bottom: "conv3"
  top: "conv3"
}
layer {
  name: "conv4"
  type: "Convolution"
  bottom: "conv3"
  top: "conv4"
  param {
    lr_mult: 1
  }
  param {
    lr_mult: 2
  }
  convolution_param {
    num_output: 128
    pad: 2
    kernel_size: 5
    stride: 1
    weight_filler {
      type: "gaussian"
      std: 0.01
    }
    bias_filler {
      type: "constant"
    }
  }
}
layer {
  name: "relu4"
  type: "ReLU"
  bottom: "conv4"
  top: "conv4"
}
layer {
  name: "conv5"
  type: "Convolution"
  bottom: "conv4"
  top: "conv5"
  param {
    lr_mult: 1
  }
  param {
    lr_mult: 2
  }
  convolution_param {
    num_output: 128
    pad: 2
    kernel_size: 5
    stride: 1
    weight_filler {
      type: "gaussian"
      std: 0.01
    }
    bias_filler {
      type: "constant"
    }
  }
}
layer {
  name: "relu5"
  type: "ReLU"
  bottom: "conv5"
  top: "conv5"
}
layer {
  name: "pool5"
  type: "Pooling"
  bottom: "conv5"
  top: "pool5"
  pooling_param {
    pool: AVE
    kernel_size: 3
    stride: 2
  }
}
layer {
  name: "ip1"
  type: "InnerProduct"
  bottom: "pool5"
  top: "ip1"
  param {
    lr_mult: 1
  }
  param {
    lr_mult: 2
  }
  inner_product_param {
    num_output: 1024
    weight_filler {
      type: "gaussian"
      std: 0.1
    }
    bias_filler {
      type: "constant"
    }
  }
}
layer {
  name: "ip2"
  type: "InnerProduct"
  bottom: "ip1"
  top: "ip2"
  param {
    lr_mult: 1
  }
  param {
    lr_mult: 2
  }
  inner_product_param {
    num_output: 512
    weight_filler {
      type: "gaussian"
      std: 0.1
    }
    bias_filler {
      type: "constant"
    }
  }
}
layer {
  name: "ip3"
  type: "InnerProduct"
  bottom: "ip2"
  top: "ip3"
  param {
    lr_mult: 1
  }
  param {
    lr_mult: 2
  }
  inner_product_param {
    num_output: 50
    weight_filler {
      type: "gaussian"
      std: 0.1
    }
    bias_filler {
      type: "constant"
    }
  }
}
layer {
  name: "accuracy"
  type: "Accuracy"
  bottom: "ip3"
  bottom: "label"
  top: "accuracy"
  include {
    phase: TEST
  }
}
layer {
  name: "loss"
  type: "SoftmaxWithLoss"
  bottom: "ip3"
  bottom: "label"
  top: "loss"
}
I0506 05:06:34.777340 12923 layer_factory.hpp:77] Creating layer intercept
I0506 05:06:34.777349 12923 net.cpp:94] Creating Layer intercept
I0506 05:06:34.777354 12923 net.cpp:409] intercept -> data
I0506 05:06:34.777359 12923 net.cpp:409] intercept -> label
I0506 05:06:34.777365 12923 hdf5_data_layer.cpp:79] Loading list of HDF5 filenames from: /home/purduethu/scratch/radon/d/deng106/CNNStatisticalModel/distributions/input/50_distributions_100_sample_size_test-distributions-path.txt
I0506 05:06:34.777384 12923 hdf5_data_layer.cpp:93] Number of HDF5 files: 1
I0506 05:06:34.818320 12923 net.cpp:144] Setting up intercept
I0506 05:06:34.818352 12923 net.cpp:151] Top shape: 20 1 10 10 (2000)
I0506 05:06:34.818357 12923 net.cpp:151] Top shape: 20 (20)
I0506 05:06:34.818361 12923 net.cpp:159] Memory required for data: 8080
I0506 05:06:34.818367 12923 layer_factory.hpp:77] Creating layer label_intercept_1_split
I0506 05:06:34.818385 12923 net.cpp:94] Creating Layer label_intercept_1_split
I0506 05:06:34.818390 12923 net.cpp:435] label_intercept_1_split <- label
I0506 05:06:34.818397 12923 net.cpp:409] label_intercept_1_split -> label_intercept_1_split_0
I0506 05:06:34.818404 12923 net.cpp:409] label_intercept_1_split -> label_intercept_1_split_1
I0506 05:06:34.818445 12923 net.cpp:144] Setting up label_intercept_1_split
I0506 05:06:34.818451 12923 net.cpp:151] Top shape: 20 (20)
I0506 05:06:34.818455 12923 net.cpp:151] Top shape: 20 (20)
I0506 05:06:34.818457 12923 net.cpp:159] Memory required for data: 8240
I0506 05:06:34.818460 12923 layer_factory.hpp:77] Creating layer conv1
I0506 05:06:34.818470 12923 net.cpp:94] Creating Layer conv1
I0506 05:06:34.818475 12923 net.cpp:435] conv1 <- data
I0506 05:06:34.818478 12923 net.cpp:409] conv1 -> conv1
I0506 05:06:34.819268 12923 net.cpp:144] Setting up conv1
I0506 05:06:34.819283 12923 net.cpp:151] Top shape: 20 64 10 10 (128000)
I0506 05:06:34.819286 12923 net.cpp:159] Memory required for data: 520240
I0506 05:06:34.819296 12923 layer_factory.hpp:77] Creating layer relu1
I0506 05:06:34.819303 12923 net.cpp:94] Creating Layer relu1
I0506 05:06:34.819306 12923 net.cpp:435] relu1 <- conv1
I0506 05:06:34.819310 12923 net.cpp:396] relu1 -> conv1 (in-place)
I0506 05:06:34.819317 12923 net.cpp:144] Setting up relu1
I0506 05:06:34.819321 12923 net.cpp:151] Top shape: 20 64 10 10 (128000)
I0506 05:06:34.819332 12923 net.cpp:159] Memory required for data: 1032240
I0506 05:06:34.819335 12923 layer_factory.hpp:77] Creating layer conv2
I0506 05:06:34.819344 12923 net.cpp:94] Creating Layer conv2
I0506 05:06:34.819347 12923 net.cpp:435] conv2 <- conv1
I0506 05:06:34.819351 12923 net.cpp:409] conv2 -> conv2
I0506 05:06:34.823462 12923 net.cpp:144] Setting up conv2
I0506 05:06:34.823477 12923 net.cpp:151] Top shape: 20 64 10 10 (128000)
I0506 05:06:34.823482 12923 net.cpp:159] Memory required for data: 1544240
I0506 05:06:34.823489 12923 layer_factory.hpp:77] Creating layer relu2
I0506 05:06:34.823496 12923 net.cpp:94] Creating Layer relu2
I0506 05:06:34.823499 12923 net.cpp:435] relu2 <- conv2
I0506 05:06:34.823505 12923 net.cpp:396] relu2 -> conv2 (in-place)
I0506 05:06:34.823511 12923 net.cpp:144] Setting up relu2
I0506 05:06:34.823516 12923 net.cpp:151] Top shape: 20 64 10 10 (128000)
I0506 05:06:34.823519 12923 net.cpp:159] Memory required for data: 2056240
I0506 05:06:34.823523 12923 layer_factory.hpp:77] Creating layer pool2
I0506 05:06:34.823528 12923 net.cpp:94] Creating Layer pool2
I0506 05:06:34.823530 12923 net.cpp:435] pool2 <- conv2
I0506 05:06:34.823535 12923 net.cpp:409] pool2 -> pool2
I0506 05:06:34.823591 12923 net.cpp:144] Setting up pool2
I0506 05:06:34.823598 12923 net.cpp:151] Top shape: 20 64 5 5 (32000)
I0506 05:06:34.823601 12923 net.cpp:159] Memory required for data: 2184240
I0506 05:06:34.823604 12923 layer_factory.hpp:77] Creating layer conv3
I0506 05:06:34.823616 12923 net.cpp:94] Creating Layer conv3
I0506 05:06:34.823618 12923 net.cpp:435] conv3 <- pool2
I0506 05:06:34.823623 12923 net.cpp:409] conv3 -> conv3
I0506 05:06:34.829686 12923 net.cpp:144] Setting up conv3
I0506 05:06:34.829700 12923 net.cpp:151] Top shape: 20 128 5 5 (64000)
I0506 05:06:34.829704 12923 net.cpp:159] Memory required for data: 2440240
I0506 05:06:34.829711 12923 layer_factory.hpp:77] Creating layer relu3
I0506 05:06:34.829718 12923 net.cpp:94] Creating Layer relu3
I0506 05:06:34.829722 12923 net.cpp:435] relu3 <- conv3
I0506 05:06:34.829726 12923 net.cpp:396] relu3 -> conv3 (in-place)
I0506 05:06:34.829733 12923 net.cpp:144] Setting up relu3
I0506 05:06:34.829737 12923 net.cpp:151] Top shape: 20 128 5 5 (64000)
I0506 05:06:34.829741 12923 net.cpp:159] Memory required for data: 2696240
I0506 05:06:34.829743 12923 layer_factory.hpp:77] Creating layer conv4
I0506 05:06:34.829751 12923 net.cpp:94] Creating Layer conv4
I0506 05:06:34.829756 12923 net.cpp:435] conv4 <- conv3
I0506 05:06:34.829761 12923 net.cpp:409] conv4 -> conv4
I0506 05:06:34.842489 12923 net.cpp:144] Setting up conv4
I0506 05:06:34.842507 12923 net.cpp:151] Top shape: 20 128 5 5 (64000)
I0506 05:06:34.842510 12923 net.cpp:159] Memory required for data: 2952240
I0506 05:06:34.842517 12923 layer_factory.hpp:77] Creating layer relu4
I0506 05:06:34.842523 12923 net.cpp:94] Creating Layer relu4
I0506 05:06:34.842527 12923 net.cpp:435] relu4 <- conv4
I0506 05:06:34.842532 12923 net.cpp:396] relu4 -> conv4 (in-place)
I0506 05:06:34.842540 12923 net.cpp:144] Setting up relu4
I0506 05:06:34.842543 12923 net.cpp:151] Top shape: 20 128 5 5 (64000)
I0506 05:06:34.842546 12923 net.cpp:159] Memory required for data: 3208240
I0506 05:06:34.842550 12923 layer_factory.hpp:77] Creating layer conv5
I0506 05:06:34.842558 12923 net.cpp:94] Creating Layer conv5
I0506 05:06:34.842561 12923 net.cpp:435] conv5 <- conv4
I0506 05:06:34.842567 12923 net.cpp:409] conv5 -> conv5
I0506 05:06:34.855254 12923 net.cpp:144] Setting up conv5
I0506 05:06:34.855273 12923 net.cpp:151] Top shape: 20 128 5 5 (64000)
I0506 05:06:34.855276 12923 net.cpp:159] Memory required for data: 3464240
I0506 05:06:34.855285 12923 layer_factory.hpp:77] Creating layer relu5
I0506 05:06:34.855291 12923 net.cpp:94] Creating Layer relu5
I0506 05:06:34.855295 12923 net.cpp:435] relu5 <- conv5
I0506 05:06:34.855301 12923 net.cpp:396] relu5 -> conv5 (in-place)
I0506 05:06:34.855309 12923 net.cpp:144] Setting up relu5
I0506 05:06:34.855314 12923 net.cpp:151] Top shape: 20 128 5 5 (64000)
I0506 05:06:34.855321 12923 net.cpp:159] Memory required for data: 3720240
I0506 05:06:34.855325 12923 layer_factory.hpp:77] Creating layer pool5
I0506 05:06:34.855332 12923 net.cpp:94] Creating Layer pool5
I0506 05:06:34.855335 12923 net.cpp:435] pool5 <- conv5
I0506 05:06:34.855340 12923 net.cpp:409] pool5 -> pool5
I0506 05:06:34.855378 12923 net.cpp:144] Setting up pool5
I0506 05:06:34.855386 12923 net.cpp:151] Top shape: 20 128 2 2 (10240)
I0506 05:06:34.855389 12923 net.cpp:159] Memory required for data: 3761200
I0506 05:06:34.855392 12923 layer_factory.hpp:77] Creating layer ip1
I0506 05:06:34.855399 12923 net.cpp:94] Creating Layer ip1
I0506 05:06:34.855402 12923 net.cpp:435] ip1 <- pool5
I0506 05:06:34.855407 12923 net.cpp:409] ip1 -> ip1
I0506 05:06:34.868543 12923 net.cpp:144] Setting up ip1
I0506 05:06:34.868577 12923 net.cpp:151] Top shape: 20 1024 (20480)
I0506 05:06:34.868580 12923 net.cpp:159] Memory required for data: 3843120
I0506 05:06:34.868587 12923 layer_factory.hpp:77] Creating layer ip2
I0506 05:06:34.868597 12923 net.cpp:94] Creating Layer ip2
I0506 05:06:34.868599 12923 net.cpp:435] ip2 <- ip1
I0506 05:06:34.868605 12923 net.cpp:409] ip2 -> ip2
I0506 05:06:34.881716 12923 net.cpp:144] Setting up ip2
I0506 05:06:34.881734 12923 net.cpp:151] Top shape: 20 512 (10240)
I0506 05:06:34.881738 12923 net.cpp:159] Memory required for data: 3884080
I0506 05:06:34.881744 12923 layer_factory.hpp:77] Creating layer ip3
I0506 05:06:34.881755 12923 net.cpp:94] Creating Layer ip3
I0506 05:06:34.881759 12923 net.cpp:435] ip3 <- ip2
I0506 05:06:34.881764 12923 net.cpp:409] ip3 -> ip3
I0506 05:06:34.882498 12923 net.cpp:144] Setting up ip3
I0506 05:06:34.882505 12923 net.cpp:151] Top shape: 20 50 (1000)
I0506 05:06:34.882508 12923 net.cpp:159] Memory required for data: 3888080
I0506 05:06:34.882513 12923 layer_factory.hpp:77] Creating layer ip3_ip3_0_split
I0506 05:06:34.882519 12923 net.cpp:94] Creating Layer ip3_ip3_0_split
I0506 05:06:34.882522 12923 net.cpp:435] ip3_ip3_0_split <- ip3
I0506 05:06:34.882526 12923 net.cpp:409] ip3_ip3_0_split -> ip3_ip3_0_split_0
I0506 05:06:34.882534 12923 net.cpp:409] ip3_ip3_0_split -> ip3_ip3_0_split_1
I0506 05:06:34.882575 12923 net.cpp:144] Setting up ip3_ip3_0_split
I0506 05:06:34.882580 12923 net.cpp:151] Top shape: 20 50 (1000)
I0506 05:06:34.882585 12923 net.cpp:151] Top shape: 20 50 (1000)
I0506 05:06:34.882586 12923 net.cpp:159] Memory required for data: 3896080
I0506 05:06:34.882589 12923 layer_factory.hpp:77] Creating layer accuracy
I0506 05:06:34.882596 12923 net.cpp:94] Creating Layer accuracy
I0506 05:06:34.882598 12923 net.cpp:435] accuracy <- ip3_ip3_0_split_0
I0506 05:06:34.882602 12923 net.cpp:435] accuracy <- label_intercept_1_split_0
I0506 05:06:34.882606 12923 net.cpp:409] accuracy -> accuracy
…
