…
I0504 14:30:12.230615 27871 net.cpp:323] The NetState phase (0) differed from the phase (1) specified by a rule in layer intercept
I0504 14:30:12.230633 27871 net.cpp:323] The NetState phase (0) differed from the phase (1) specified by a rule in layer loss
I0504 14:30:12.230731 27871 net.cpp:52] Initializing net from parameters: 
state {
  phase: TRAIN
}
layer {
  name: "parameters"
  type: "HDF5Data"
  top: "data"
  top: "label"
  include {
    phase: TRAIN
  }
  hdf5_data_param {
    source: "/home/purduethu/scratch/radon/d/deng106/CNNStatisticalModel/distributions/input/5_distributions_100_sample_size_train-parameters-path.txt"
    batch_size: 20
  }
}
layer {
  name: "conv1"
  type: "Convolution"
  bottom: "data"
  top: "conv1"
  param {
    lr_mult: 1
  }
  param {
    lr_mult: 2
  }
  convolution_param {
    num_output: 64
    pad: 2
    kernel_size: 5
    stride: 1
    weight_filler {
      type: "gaussian"
      std: 0.0001
    }
    bias_filler {
      type: "constant"
    }
  }
}
layer {
  name: "relu1"
  type: "ReLU"
  bottom: "conv1"
  top: "conv1"
}
layer {
  name: "conv2"
  type: "Convolution"
  bottom: "conv1"
  top: "conv2"
  param {
    lr_mult: 1
  }
  param {
    lr_mult: 2
  }
  convolution_param {
    num_output: 64
    pad: 2
    kernel_size: 5
    stride: 1
    weight_filler {
      type: "gaussian"
      std: 0.01
    }
    bias_filler {
      type: "constant"
    }
  }
}
layer {
  name: "relu2"
  type: "ReLU"
  bottom: "conv2"
  top: "conv2"
}
layer {
  name: "pool2"
  type: "Pooling"
  bottom: "conv2"
  top: "pool2"
  pooling_param {
    pool: MAX
    kernel_size: 3
    stride: 2
  }
}
layer {
  name: "conv3"
  type: "Convolution"
  bottom: "pool2"
  top: "conv3"
  param {
    lr_mult: 1
  }
  param {
    lr_mult: 2
  }
  convolution_param {
    num_output: 128
    pad: 2
    kernel_size: 5
    stride: 1
    weight_filler {
      type: "gaussian"
      std: 0.01
    }
    bias_filler {
      type: "constant"
    }
  }
}
layer {
  name: "relu3"
  type: "ReLU"
  bottom: "conv3"
  top: "conv3"
}
layer {
  name: "conv4"
  type: "Convolution"
  bottom: "conv3"
  top: "conv4"
  param {
    lr_mult: 1
  }
  param {
    lr_mult: 2
  }
  convolution_param {
    num_output: 128
    pad: 2
    kernel_size: 5
    stride: 1
    weight_filler {
      type: "gaussian"
      std: 0.01
    }
    bias_filler {
      type: "constant"
    }
  }
}
layer {
  name: "relu4"
  type: "ReLU"
  bottom: "conv4"
  top: "conv4"
}
layer {
  name: "conv5"
  type: "Convolution"
  bottom: "conv4"
  top: "conv5"
  param {
    lr_mult: 1
  }
  param {
    lr_mult: 2
  }
  convolution_param {
    num_output: 128
    pad: 2
    kernel_size: 5
    stride: 1
    weight_filler {
      type: "gaussian"
      std: 0.01
    }
    bias_filler {
      type: "constant"
    }
  }
}
layer {
  name: "relu5"
  type: "ReLU"
  bottom: "conv5"
  top: "conv5"
}
layer {
  name: "pool5"
  type: "Pooling"
  bottom: "conv5"
  top: "pool5"
  pooling_param {
    pool: AVE
    kernel_size: 3
    stride: 2
  }
}
layer {
  name: "ip1"
  type: "InnerProduct"
  bottom: "pool5"
  top: "ip1"
  param {
    lr_mult: 1
  }
  param {
    lr_mult: 2
  }
  inner_product_param {
    num_output: 1024
    weight_filler {
      type: "gaussian"
      std: 0.1
    }
    bias_filler {
      type: "constant"
    }
  }
}
layer {
  name: "ip2"
  type: "InnerProduct"
  bottom: "ip1"
  top: "ip2"
  param {
    lr_mult: 1
  }
  param {
    lr_mult: 2
  }
  inner_product_param {
    num_output: 512
    weight_filler {
      type: "gaussian"
      std: 0.1
    }
    bias_filler {
      type: "constant"
    }
  }
}
layer {
  name: "ip3"
  type: "InnerProduct"
  bottom: "ip2"
  top: "ip3"
  param {
    lr_mult: 1
  }
  param {
    lr_mult: 2
  }
  inner_product_param {
    num_output: 1
    weight_filler {
      type: "gaussian"
      std: 0.1
    }
    bias_filler {
      type: "constant"
    }
  }
}
layer {
  name: "loss"
  type: "HuberLoss"
  bottom: "ip3"
  bottom: "label"
  top: "loss"
  include {
    phase: TRAIN
  }
}
I0504 14:30:12.230814 27871 layer_factory.hpp:77] Creating layer parameters
I0504 14:30:12.230830 27871 net.cpp:94] Creating Layer parameters
I0504 14:30:12.230836 27871 net.cpp:409] parameters -> data
I0504 14:30:12.230859 27871 net.cpp:409] parameters -> label
I0504 14:30:12.230868 27871 hdf5_data_layer.cpp:79] Loading list of HDF5 filenames from: /home/purduethu/scratch/radon/d/deng106/CNNStatisticalModel/distributions/input/5_distributions_100_sample_size_train-parameters-path.txt
I0504 14:30:12.230893 27871 hdf5_data_layer.cpp:93] Number of HDF5 files: 1
I0504 14:30:12.231423 27871 hdf5.cpp:32] Datatype class: H5T_FLOAT
I0504 14:30:12.250123 27871 net.cpp:144] Setting up parameters
I0504 14:30:12.250160 27871 net.cpp:151] Top shape: 20 1 10 10 (2000)
I0504 14:30:12.250167 27871 net.cpp:151] Top shape: 20 (20)
I0504 14:30:12.250171 27871 net.cpp:159] Memory required for data: 8080
I0504 14:30:12.250180 27871 layer_factory.hpp:77] Creating layer conv1
I0504 14:30:12.250208 27871 net.cpp:94] Creating Layer conv1
I0504 14:30:12.250216 27871 net.cpp:435] conv1 <- data
I0504 14:30:12.250227 27871 net.cpp:409] conv1 -> conv1
I0504 14:30:12.254246 27871 net.cpp:144] Setting up conv1
I0504 14:30:12.254262 27871 net.cpp:151] Top shape: 20 64 10 10 (128000)
I0504 14:30:12.254267 27871 net.cpp:159] Memory required for data: 520080
I0504 14:30:12.254281 27871 layer_factory.hpp:77] Creating layer relu1
I0504 14:30:12.254289 27871 net.cpp:94] Creating Layer relu1
I0504 14:30:12.254293 27871 net.cpp:435] relu1 <- conv1
I0504 14:30:12.254298 27871 net.cpp:396] relu1 -> conv1 (in-place)
I0504 14:30:12.254317 27871 net.cpp:144] Setting up relu1
I0504 14:30:12.254324 27871 net.cpp:151] Top shape: 20 64 10 10 (128000)
I0504 14:30:12.254328 27871 net.cpp:159] Memory required for data: 1032080
I0504 14:30:12.254330 27871 layer_factory.hpp:77] Creating layer conv2
I0504 14:30:12.254339 27871 net.cpp:94] Creating Layer conv2
I0504 14:30:12.254343 27871 net.cpp:435] conv2 <- conv1
I0504 14:30:12.254348 27871 net.cpp:409] conv2 -> conv2
I0504 14:30:12.260360 27871 net.cpp:144] Setting up conv2
I0504 14:30:12.260375 27871 net.cpp:151] Top shape: 20 64 10 10 (128000)
I0504 14:30:12.260380 27871 net.cpp:159] Memory required for data: 1544080
I0504 14:30:12.260388 27871 layer_factory.hpp:77] Creating layer relu2
I0504 14:30:12.260396 27871 net.cpp:94] Creating Layer relu2
I0504 14:30:12.260401 27871 net.cpp:435] relu2 <- conv2
I0504 14:30:12.260406 27871 net.cpp:396] relu2 -> conv2 (in-place)
I0504 14:30:12.260412 27871 net.cpp:144] Setting up relu2
I0504 14:30:12.260417 27871 net.cpp:151] Top shape: 20 64 10 10 (128000)
I0504 14:30:12.260421 27871 net.cpp:159] Memory required for data: 2056080
I0504 14:30:12.260424 27871 layer_factory.hpp:77] Creating layer pool2
I0504 14:30:12.260433 27871 net.cpp:94] Creating Layer pool2
I0504 14:30:12.260443 27871 net.cpp:435] pool2 <- conv2
I0504 14:30:12.260448 27871 net.cpp:409] pool2 -> pool2
I0504 14:30:12.260495 27871 net.cpp:144] Setting up pool2
I0504 14:30:12.260504 27871 net.cpp:151] Top shape: 20 64 5 5 (32000)
I0504 14:30:12.260506 27871 net.cpp:159] Memory required for data: 2184080
I0504 14:30:12.260510 27871 layer_factory.hpp:77] Creating layer conv3
I0504 14:30:12.260519 27871 net.cpp:94] Creating Layer conv3
I0504 14:30:12.260522 27871 net.cpp:435] conv3 <- pool2
I0504 14:30:12.260529 27871 net.cpp:409] conv3 -> conv3
I0504 14:30:12.268766 27871 net.cpp:144] Setting up conv3
I0504 14:30:12.268782 27871 net.cpp:151] Top shape: 20 128 5 5 (64000)
I0504 14:30:12.268786 27871 net.cpp:159] Memory required for data: 2440080
I0504 14:30:12.268795 27871 layer_factory.hpp:77] Creating layer relu3
I0504 14:30:12.268802 27871 net.cpp:94] Creating Layer relu3
I0504 14:30:12.268806 27871 net.cpp:435] relu3 <- conv3
I0504 14:30:12.268811 27871 net.cpp:396] relu3 -> conv3 (in-place)
I0504 14:30:12.268818 27871 net.cpp:144] Setting up relu3
I0504 14:30:12.268824 27871 net.cpp:151] Top shape: 20 128 5 5 (64000)
I0504 14:30:12.268827 27871 net.cpp:159] Memory required for data: 2696080
I0504 14:30:12.268831 27871 layer_factory.hpp:77] Creating layer conv4
I0504 14:30:12.268839 27871 net.cpp:94] Creating Layer conv4
I0504 14:30:12.268843 27871 net.cpp:435] conv4 <- conv3
I0504 14:30:12.268848 27871 net.cpp:409] conv4 -> conv4
I0504 14:30:12.284132 27871 net.cpp:144] Setting up conv4
I0504 14:30:12.284174 27871 net.cpp:151] Top shape: 20 128 5 5 (64000)
I0504 14:30:12.284186 27871 net.cpp:159] Memory required for data: 2952080
I0504 14:30:12.284204 27871 layer_factory.hpp:77] Creating layer relu4
I0504 14:30:12.284220 27871 net.cpp:94] Creating Layer relu4
I0504 14:30:12.284230 27871 net.cpp:435] relu4 <- conv4
I0504 14:30:12.284243 27871 net.cpp:396] relu4 -> conv4 (in-place)
I0504 14:30:12.284263 27871 net.cpp:144] Setting up relu4
I0504 14:30:12.284276 27871 net.cpp:151] Top shape: 20 128 5 5 (64000)
I0504 14:30:12.284286 27871 net.cpp:159] Memory required for data: 3208080
I0504 14:30:12.284294 27871 layer_factory.hpp:77] Creating layer conv5
I0504 14:30:12.284314 27871 net.cpp:94] Creating Layer conv5
I0504 14:30:12.284324 27871 net.cpp:435] conv5 <- conv4
I0504 14:30:12.284337 27871 net.cpp:409] conv5 -> conv5
I0504 14:30:12.318650 27871 net.cpp:144] Setting up conv5
I0504 14:30:12.318684 27871 net.cpp:151] Top shape: 20 128 5 5 (64000)
I0504 14:30:12.318691 27871 net.cpp:159] Memory required for data: 3464080
I0504 14:30:12.318708 27871 layer_factory.hpp:77] Creating layer relu5
I0504 14:30:12.318719 27871 net.cpp:94] Creating Layer relu5
I0504 14:30:12.318725 27871 net.cpp:435] relu5 <- conv5
I0504 14:30:12.318733 27871 net.cpp:396] relu5 -> conv5 (in-place)
I0504 14:30:12.318747 27871 net.cpp:144] Setting up relu5
I0504 14:30:12.318753 27871 net.cpp:151] Top shape: 20 128 5 5 (64000)
I0504 14:30:12.318758 27871 net.cpp:159] Memory required for data: 3720080
I0504 14:30:12.318763 27871 layer_factory.hpp:77] Creating layer pool5
I0504 14:30:12.318771 27871 net.cpp:94] Creating Layer pool5
I0504 14:30:12.318776 27871 net.cpp:435] pool5 <- conv5
I0504 14:30:12.318783 27871 net.cpp:409] pool5 -> pool5
I0504 14:30:12.318845 27871 net.cpp:144] Setting up pool5
I0504 14:30:12.318856 27871 net.cpp:151] Top shape: 20 128 2 2 (10240)
I0504 14:30:12.318862 27871 net.cpp:159] Memory required for data: 3761040
I0504 14:30:12.318867 27871 layer_factory.hpp:77] Creating layer ip1
I0504 14:30:12.318881 27871 net.cpp:94] Creating Layer ip1
I0504 14:30:12.318886 27871 net.cpp:435] ip1 <- pool5
I0504 14:30:12.318893 27871 net.cpp:409] ip1 -> ip1
I0504 14:30:12.339123 27871 net.cpp:144] Setting up ip1
I0504 14:30:12.339154 27871 net.cpp:151] Top shape: 20 1024 (20480)
I0504 14:30:12.339161 27871 net.cpp:159] Memory required for data: 3842960
I0504 14:30:12.339172 27871 layer_factory.hpp:77] Creating layer ip2
I0504 14:30:12.339185 27871 net.cpp:94] Creating Layer ip2
I0504 14:30:12.339191 27871 net.cpp:435] ip2 <- ip1
I0504 14:30:12.339208 27871 net.cpp:409] ip2 -> ip2
I0504 14:30:12.357554 27871 net.cpp:144] Setting up ip2
I0504 14:30:12.357578 27871 net.cpp:151] Top shape: 20 512 (10240)
I0504 14:30:12.357583 27871 net.cpp:159] Memory required for data: 3883920
I0504 14:30:12.357591 27871 layer_factory.hpp:77] Creating layer ip3
I0504 14:30:12.357601 27871 net.cpp:94] Creating Layer ip3
I0504 14:30:12.357607 27871 net.cpp:435] ip3 <- ip2
I0504 14:30:12.357614 27871 net.cpp:409] ip3 -> ip3
I0504 14:30:12.357717 27871 net.cpp:144] Setting up ip3
I0504 14:30:12.357727 27871 net.cpp:151] Top shape: 20 1 (20)
I0504 14:30:12.357745 27871 net.cpp:159] Memory required for data: 3884000
I0504 14:30:12.357753 27871 layer_factory.hpp:77] Creating layer loss
I0504 14:30:12.357764 27871 net.cpp:94] Creating Layer loss
I0504 14:30:12.357769 27871 net.cpp:435] loss <- ip3
I0504 14:30:12.357774 27871 net.cpp:435] loss <- label
I0504 14:30:12.357781 27871 net.cpp:409] loss -> loss
I0504 14:30:12.357831 27871 net.cpp:144] Setting up loss
…
