…
I0503 20:36:33.822655 22263 net.cpp:323] The NetState phase (0) differed from the phase (1) specified by a rule in layer intercept
I0503 20:36:33.822672 22263 net.cpp:323] The NetState phase (0) differed from the phase (1) specified by a rule in layer accuracy
I0503 20:36:33.822767 22263 net.cpp:52] Initializing net from parameters: 
state {
  phase: TRAIN
}
layer {
  name: "parameters"
  type: "HDF5Data"
  top: "data"
  top: "label"
  include {
    phase: TRAIN
  }
  hdf5_data_param {
    source: "/home/purduethu/scratch/radon/d/deng106/CNNStatisticalModel/distributions/input/5_distributions_100_sample_size_train-distributions-path.txt"
    batch_size: 20
  }
}
layer {
  name: "conv1"
  type: "Convolution"
  bottom: "data"
  top: "conv1"
  param {
    lr_mult: 1
  }
  param {
    lr_mult: 2
  }
  convolution_param {
    num_output: 64
    pad: 2
    kernel_size: 5
    stride: 1
    weight_filler {
      type: "gaussian"
      std: 0.0001
    }
    bias_filler {
      type: "constant"
    }
  }
}
layer {
  name: "relu1"
  type: "ReLU"
  bottom: "conv1"
  top: "conv1"
}
layer {
  name: "conv2"
  type: "Convolution"
  bottom: "conv1"
  top: "conv2"
  param {
    lr_mult: 1
  }
  param {
    lr_mult: 2
  }
  convolution_param {
    num_output: 64
    pad: 2
    kernel_size: 5
    stride: 1
    weight_filler {
      type: "gaussian"
      std: 0.01
    }
    bias_filler {
      type: "constant"
    }
  }
}
layer {
  name: "relu2"
  type: "ReLU"
  bottom: "conv2"
  top: "conv2"
}
layer {
  name: "pool2"
  type: "Pooling"
  bottom: "conv2"
  top: "pool2"
  pooling_param {
    pool: MAX
    kernel_size: 3
    stride: 2
  }
}
layer {
  name: "conv3"
  type: "Convolution"
  bottom: "pool2"
  top: "conv3"
  param {
    lr_mult: 1
  }
  param {
    lr_mult: 2
  }
  convolution_param {
    num_output: 128
    pad: 2
    kernel_size: 5
    stride: 1
    weight_filler {
      type: "gaussian"
      std: 0.01
    }
    bias_filler {
      type: "constant"
    }
  }
}
layer {
  name: "relu3"
  type: "ReLU"
  bottom: "conv3"
  top: "conv3"
}
layer {
  name: "conv4"
  type: "Convolution"
  bottom: "conv3"
  top: "conv4"
  param {
    lr_mult: 1
  }
  param {
    lr_mult: 2
  }
  convolution_param {
    num_output: 128
    pad: 2
    kernel_size: 5
    stride: 1
    weight_filler {
      type: "gaussian"
      std: 0.01
    }
    bias_filler {
      type: "constant"
    }
  }
}
layer {
  name: "relu4"
  type: "ReLU"
  bottom: "conv4"
  top: "conv4"
}
layer {
  name: "conv5"
  type: "Convolution"
  bottom: "conv4"
  top: "conv5"
  param {
    lr_mult: 1
  }
  param {
    lr_mult: 2
  }
  convolution_param {
    num_output: 128
    pad: 2
    kernel_size: 5
    stride: 1
    weight_filler {
      type: "gaussian"
      std: 0.01
    }
    bias_filler {
      type: "constant"
    }
  }
}
layer {
  name: "relu5"
  type: "ReLU"
  bottom: "conv5"
  top: "conv5"
}
layer {
  name: "pool5"
  type: "Pooling"
  bottom: "conv5"
  top: "pool5"
  pooling_param {
    pool: AVE
    kernel_size: 3
    stride: 2
  }
}
layer {
  name: "ip1"
  type: "InnerProduct"
  bottom: "pool5"
  top: "ip1"
  param {
    lr_mult: 1
  }
  param {
    lr_mult: 2
  }
  inner_product_param {
    num_output: 1024
    weight_filler {
      type: "gaussian"
      std: 0.1
    }
    bias_filler {
      type: "constant"
    }
  }
}
layer {
  name: "ip2"
  type: "InnerProduct"
  bottom: "ip1"
  top: "ip2"
  param {
    lr_mult: 1
  }
  param {
    lr_mult: 2
  }
  inner_product_param {
    num_output: 512
    weight_filler {
      type: "gaussian"
      std: 0.1
    }
    bias_filler {
      type: "constant"
    }
  }
}
layer {
  name: "ip3"
  type: "InnerProduct"
  bottom: "ip2"
  top: "ip3"
  param {
    lr_mult: 1
  }
  param {
    lr_mult: 2
  }
  inner_product_param {
    num_output: 50
    weight_filler {
      type: "gaussian"
      std: 0.1
    }
    bias_filler {
      type: "constant"
    }
  }
}
layer {
  name: "loss"
  type: "SoftmaxWithLoss"
  bottom: "ip3"
  bottom: "label"
  top: "loss"
}
I0503 20:36:33.822846 22263 layer_factory.hpp:77] Creating layer parameters
I0503 20:36:33.822862 22263 net.cpp:94] Creating Layer parameters
I0503 20:36:33.822870 22263 net.cpp:409] parameters -> data
I0503 20:36:33.822890 22263 net.cpp:409] parameters -> label
I0503 20:36:33.822902 22263 hdf5_data_layer.cpp:79] Loading list of HDF5 filenames from: /home/purduethu/scratch/radon/d/deng106/CNNStatisticalModel/distributions/input/5_distributions_100_sample_size_train-distributions-path.txt
I0503 20:36:33.822927 22263 hdf5_data_layer.cpp:93] Number of HDF5 files: 1
I0503 20:36:33.823544 22263 hdf5.cpp:32] Datatype class: H5T_FLOAT
I0503 20:36:33.841289 22263 hdf5.cpp:35] Datatype class: H5T_INTEGER
I0503 20:36:33.842545 22263 net.cpp:144] Setting up parameters
I0503 20:36:33.842566 22263 net.cpp:151] Top shape: 20 1 10 10 (2000)
I0503 20:36:33.842573 22263 net.cpp:151] Top shape: 20 (20)
I0503 20:36:33.842577 22263 net.cpp:159] Memory required for data: 8080
I0503 20:36:33.842586 22263 layer_factory.hpp:77] Creating layer conv1
I0503 20:36:33.842613 22263 net.cpp:94] Creating Layer conv1
I0503 20:36:33.842620 22263 net.cpp:435] conv1 <- data
I0503 20:36:33.842633 22263 net.cpp:409] conv1 -> conv1
I0503 20:36:33.846709 22263 net.cpp:144] Setting up conv1
I0503 20:36:33.846725 22263 net.cpp:151] Top shape: 20 64 10 10 (128000)
I0503 20:36:33.846729 22263 net.cpp:159] Memory required for data: 520080
I0503 20:36:33.846741 22263 layer_factory.hpp:77] Creating layer relu1
I0503 20:36:33.846750 22263 net.cpp:94] Creating Layer relu1
I0503 20:36:33.846755 22263 net.cpp:435] relu1 <- conv1
I0503 20:36:33.846760 22263 net.cpp:396] relu1 -> conv1 (in-place)
I0503 20:36:33.846776 22263 net.cpp:144] Setting up relu1
I0503 20:36:33.846782 22263 net.cpp:151] Top shape: 20 64 10 10 (128000)
I0503 20:36:33.846786 22263 net.cpp:159] Memory required for data: 1032080
I0503 20:36:33.846788 22263 layer_factory.hpp:77] Creating layer conv2
I0503 20:36:33.846797 22263 net.cpp:94] Creating Layer conv2
I0503 20:36:33.846801 22263 net.cpp:435] conv2 <- conv1
I0503 20:36:33.846807 22263 net.cpp:409] conv2 -> conv2
I0503 20:36:33.853160 22263 net.cpp:144] Setting up conv2
I0503 20:36:33.853175 22263 net.cpp:151] Top shape: 20 64 10 10 (128000)
I0503 20:36:33.853180 22263 net.cpp:159] Memory required for data: 1544080
I0503 20:36:33.853188 22263 layer_factory.hpp:77] Creating layer relu2
I0503 20:36:33.853196 22263 net.cpp:94] Creating Layer relu2
I0503 20:36:33.853200 22263 net.cpp:435] relu2 <- conv2
I0503 20:36:33.853205 22263 net.cpp:396] relu2 -> conv2 (in-place)
I0503 20:36:33.853212 22263 net.cpp:144] Setting up relu2
I0503 20:36:33.853217 22263 net.cpp:151] Top shape: 20 64 10 10 (128000)
I0503 20:36:33.853221 22263 net.cpp:159] Memory required for data: 2056080
I0503 20:36:33.853224 22263 layer_factory.hpp:77] Creating layer pool2
I0503 20:36:33.853240 22263 net.cpp:94] Creating Layer pool2
I0503 20:36:33.853243 22263 net.cpp:435] pool2 <- conv2
I0503 20:36:33.853248 22263 net.cpp:409] pool2 -> pool2
I0503 20:36:33.853296 22263 net.cpp:144] Setting up pool2
I0503 20:36:33.853305 22263 net.cpp:151] Top shape: 20 64 5 5 (32000)
I0503 20:36:33.853308 22263 net.cpp:159] Memory required for data: 2184080
I0503 20:36:33.853312 22263 layer_factory.hpp:77] Creating layer conv3
I0503 20:36:33.853320 22263 net.cpp:94] Creating Layer conv3
I0503 20:36:33.853324 22263 net.cpp:435] conv3 <- pool2
I0503 20:36:33.853338 22263 net.cpp:409] conv3 -> conv3
I0503 20:36:33.862010 22263 net.cpp:144] Setting up conv3
I0503 20:36:33.862025 22263 net.cpp:151] Top shape: 20 128 5 5 (64000)
I0503 20:36:33.862030 22263 net.cpp:159] Memory required for data: 2440080
I0503 20:36:33.862038 22263 layer_factory.hpp:77] Creating layer relu3
I0503 20:36:33.862046 22263 net.cpp:94] Creating Layer relu3
I0503 20:36:33.862049 22263 net.cpp:435] relu3 <- conv3
I0503 20:36:33.862054 22263 net.cpp:396] relu3 -> conv3 (in-place)
I0503 20:36:33.862061 22263 net.cpp:144] Setting up relu3
I0503 20:36:33.862066 22263 net.cpp:151] Top shape: 20 128 5 5 (64000)
I0503 20:36:33.862069 22263 net.cpp:159] Memory required for data: 2696080
I0503 20:36:33.862073 22263 layer_factory.hpp:77] Creating layer conv4
I0503 20:36:33.862082 22263 net.cpp:94] Creating Layer conv4
I0503 20:36:33.862087 22263 net.cpp:435] conv4 <- conv3
I0503 20:36:33.862092 22263 net.cpp:409] conv4 -> conv4
I0503 20:36:33.878191 22263 net.cpp:144] Setting up conv4
I0503 20:36:33.878228 22263 net.cpp:151] Top shape: 20 128 5 5 (64000)
I0503 20:36:33.878240 22263 net.cpp:159] Memory required for data: 2952080
I0503 20:36:33.878258 22263 layer_factory.hpp:77] Creating layer relu4
I0503 20:36:33.878274 22263 net.cpp:94] Creating Layer relu4
I0503 20:36:33.878285 22263 net.cpp:435] relu4 <- conv4
I0503 20:36:33.878298 22263 net.cpp:396] relu4 -> conv4 (in-place)
I0503 20:36:33.878319 22263 net.cpp:144] Setting up relu4
I0503 20:36:33.878334 22263 net.cpp:151] Top shape: 20 128 5 5 (64000)
I0503 20:36:33.878342 22263 net.cpp:159] Memory required for data: 3208080
I0503 20:36:33.878352 22263 layer_factory.hpp:77] Creating layer conv5
I0503 20:36:33.878373 22263 net.cpp:94] Creating Layer conv5
I0503 20:36:33.878393 22263 net.cpp:435] conv5 <- conv4
I0503 20:36:33.878399 22263 net.cpp:409] conv5 -> conv5
I0503 20:36:33.893898 22263 net.cpp:144] Setting up conv5
I0503 20:36:33.893935 22263 net.cpp:151] Top shape: 20 128 5 5 (64000)
I0503 20:36:33.893947 22263 net.cpp:159] Memory required for data: 3464080
I0503 20:36:33.893971 22263 layer_factory.hpp:77] Creating layer relu5
I0503 20:36:33.893988 22263 net.cpp:94] Creating Layer relu5
I0503 20:36:33.893999 22263 net.cpp:435] relu5 <- conv5
I0503 20:36:33.894013 22263 net.cpp:396] relu5 -> conv5 (in-place)
I0503 20:36:33.894033 22263 net.cpp:144] Setting up relu5
I0503 20:36:33.894047 22263 net.cpp:151] Top shape: 20 128 5 5 (64000)
I0503 20:36:33.894057 22263 net.cpp:159] Memory required for data: 3720080
I0503 20:36:33.894067 22263 layer_factory.hpp:77] Creating layer pool5
I0503 20:36:33.894085 22263 net.cpp:94] Creating Layer pool5
I0503 20:36:33.894088 22263 net.cpp:435] pool5 <- conv5
I0503 20:36:33.894093 22263 net.cpp:409] pool5 -> pool5
I0503 20:36:33.894130 22263 net.cpp:144] Setting up pool5
I0503 20:36:33.894140 22263 net.cpp:151] Top shape: 20 128 2 2 (10240)
I0503 20:36:33.894142 22263 net.cpp:159] Memory required for data: 3761040
I0503 20:36:33.894146 22263 layer_factory.hpp:77] Creating layer ip1
I0503 20:36:33.894156 22263 net.cpp:94] Creating Layer ip1
I0503 20:36:33.894160 22263 net.cpp:435] ip1 <- pool5
I0503 20:36:33.894165 22263 net.cpp:409] ip1 -> ip1
I0503 20:36:33.908416 22263 net.cpp:144] Setting up ip1
I0503 20:36:33.908432 22263 net.cpp:151] Top shape: 20 1024 (20480)
I0503 20:36:33.908437 22263 net.cpp:159] Memory required for data: 3842960
I0503 20:36:33.908443 22263 layer_factory.hpp:77] Creating layer ip2
I0503 20:36:33.908450 22263 net.cpp:94] Creating Layer ip2
I0503 20:36:33.908459 22263 net.cpp:435] ip2 <- ip1
I0503 20:36:33.908466 22263 net.cpp:409] ip2 -> ip2
I0503 20:36:33.921998 22263 net.cpp:144] Setting up ip2
I0503 20:36:33.922013 22263 net.cpp:151] Top shape: 20 512 (10240)
I0503 20:36:33.922018 22263 net.cpp:159] Memory required for data: 3883920
I0503 20:36:33.922024 22263 layer_factory.hpp:77] Creating layer ip3
I0503 20:36:33.922031 22263 net.cpp:94] Creating Layer ip3
I0503 20:36:33.922035 22263 net.cpp:435] ip3 <- ip2
I0503 20:36:33.922041 22263 net.cpp:409] ip3 -> ip3
I0503 20:36:33.922765 22263 net.cpp:144] Setting up ip3
I0503 20:36:33.922773 22263 net.cpp:151] Top shape: 20 50 (1000)
I0503 20:36:33.922776 22263 net.cpp:159] Memory required for data: 3887920
I0503 20:36:33.922782 22263 layer_factory.hpp:77] Creating layer loss
I0503 20:36:33.922791 22263 net.cpp:94] Creating Layer loss
I0503 20:36:33.922794 22263 net.cpp:435] loss <- ip3
I0503 20:36:33.922798 22263 net.cpp:435] loss <- label
I0503 20:36:33.922804 22263 net.cpp:409] loss -> loss
I0503 20:36:33.922816 22263 layer_factory.hpp:77] Creating layer loss
…
I0503 20:36:33.923341 22263 solver.cpp:181] Creating test net (#0) specified by net file: ./protocol/dis_5_100_dimension.protocol_distribution
I0503 20:36:33.923370 22263 net.cpp:323] The NetState phase (1) differed from the phase (0) specified by a rule in layer parameters
I0503 20:36:33.923475 22263 net.cpp:52] Initializing net from parameters: 
state {
  phase: TEST
}
layer {
  name: "intercept"
  type: "HDF5Data"
  top: "data"
  top: "label"
  include {
    phase: TEST
  }
  hdf5_data_param {
    source: "/home/purduethu/scratch/radon/d/deng106/CNNStatisticalModel/distributions/input/5_distributions_100_sample_size_test-distributions-path.txt"
    batch_size: 20
  }
}
layer {
  name: "conv1"
  type: "Convolution"
  bottom: "data"
  top: "conv1"
  param {
    lr_mult: 1
  }
  param {
    lr_mult: 2
  }
  convolution_param {
    num_output: 64
    pad: 2
    kernel_size: 5
    stride: 1
    weight_filler {
      type: "gaussian"
      std: 0.0001
    }
    bias_filler {
      type: "constant"
    }
  }
}
layer {
  name: "relu1"
  type: "ReLU"
  bottom: "conv1"
  top: "conv1"
}
layer {
  name: "conv2"
  type: "Convolution"
  bottom: "conv1"
  top: "conv2"
  param {
    lr_mult: 1
  }
  param {
    lr_mult: 2
  }
  convolution_param {
    num_output: 64
    pad: 2
    kernel_size: 5
    stride: 1
    weight_filler {
      type: "gaussian"
      std: 0.01
    }
    bias_filler {
      type: "constant"
    }
  }
}
layer {
  name: "relu2"
  type: "ReLU"
  bottom: "conv2"
  top: "conv2"
}
layer {
  name: "pool2"
  type: "Pooling"
  bottom: "conv2"
  top: "pool2"
  pooling_param {
    pool: MAX
    kernel_size: 3
    stride: 2
  }
}
layer {
  name: "conv3"
  type: "Convolution"
  bottom: "pool2"
  top: "conv3"
  param {
    lr_mult: 1
  }
  param {
    lr_mult: 2
  }
  convolution_param {
    num_output: 128
    pad: 2
    kernel_size: 5
    stride: 1
    weight_filler {
      type: "gaussian"
      std: 0.01
    }
    bias_filler {
      type: "constant"
    }
  }
}
layer {
  name: "relu3"
  type: "ReLU"
  bottom: "conv3"
  top: "conv3"
}
layer {
  name: "conv4"
  type: "Convolution"
  bottom: "conv3"
  top: "conv4"
  param {
    lr_mult: 1
  }
  param {
    lr_mult: 2
  }
  convolution_param {
    num_output: 128
    pad: 2
    kernel_size: 5
    stride: 1
    weight_filler {
      type: "gaussian"
      std: 0.01
    }
    bias_filler {
      type: "constant"
    }
  }
}
layer {
  name: "relu4"
  type: "ReLU"
  bottom: "conv4"
  top: "conv4"
}
layer {
  name: "conv5"
  type: "Convolution"
  bottom: "conv4"
  top: "conv5"
  param {
    lr_mult: 1
  }
  param {
    lr_mult: 2
  }
  convolution_param {
    num_output: 128
    pad: 2
    kernel_size: 5
    stride: 1
    weight_filler {
      type: "gaussian"
      std: 0.01
    }
    bias_filler {
      type: "constant"
    }
  }
}
layer {
  name: "relu5"
  type: "ReLU"
  bottom: "conv5"
  top: "conv5"
}
layer {
  name: "pool5"
  type: "Pooling"
  bottom: "conv5"
  top: "pool5"
  pooling_param {
    pool: AVE
    kernel_size: 3
    stride: 2
  }
}
layer {
  name: "ip1"
  type: "InnerProduct"
  bottom: "pool5"
  top: "ip1"
  param {
    lr_mult: 1
  }
  param {
    lr_mult: 2
  }
  inner_product_param {
    num_output: 1024
    weight_filler {
      type: "gaussian"
      std: 0.1
    }
    bias_filler {
      type: "constant"
    }
  }
}
layer {
  name: "ip2"
  type: "InnerProduct"
  bottom: "ip1"
  top: "ip2"
  param {
    lr_mult: 1
  }
  param {
    lr_mult: 2
  }
  inner_product_param {
    num_output: 512
    weight_filler {
      type: "gaussian"
      std: 0.1
    }
    bias_filler {
      type: "constant"
    }
  }
}
layer {
  name: "ip3"
  type: "InnerProduct"
  bottom: "ip2"
  top: "ip3"
  param {
    lr_mult: 1
  }
  param {
    lr_mult: 2
  }
  inner_product_param {
    num_output: 50
    weight_filler {
      type: "gaussian"
      std: 0.1
    }
    bias_filler {
      type: "constant"
    }
  }
}
layer {
  name: "accuracy"
  type: "Accuracy"
  bottom: "ip3"
  bottom: "label"
  top: "accuracy"
  include {
    phase: TEST
  }
}
layer {
  name: "loss"
  type: "SoftmaxWithLoss"
  bottom: "ip3"
  bottom: "label"
  top: "loss"
}
I0503 20:36:33.923550 22263 layer_factory.hpp:77] Creating layer intercept
I0503 20:36:33.923560 22263 net.cpp:94] Creating Layer intercept
I0503 20:36:33.923564 22263 net.cpp:409] intercept -> data
I0503 20:36:33.923571 22263 net.cpp:409] intercept -> label
I0503 20:36:33.923578 22263 hdf5_data_layer.cpp:79] Loading list of HDF5 filenames from: /home/purduethu/scratch/radon/d/deng106/CNNStatisticalModel/distributions/input/5_distributions_100_sample_size_test-distributions-path.txt
I0503 20:36:33.923600 22263 hdf5_data_layer.cpp:93] Number of HDF5 files: 1
I0503 20:36:33.928970 22263 net.cpp:144] Setting up intercept
I0503 20:36:33.928997 22263 net.cpp:151] Top shape: 20 1 10 10 (2000)
I0503 20:36:33.929003 22263 net.cpp:151] Top shape: 20 (20)
I0503 20:36:33.929006 22263 net.cpp:159] Memory required for data: 8080
I0503 20:36:33.929011 22263 layer_factory.hpp:77] Creating layer label_intercept_1_split
I0503 20:36:33.929029 22263 net.cpp:94] Creating Layer label_intercept_1_split
I0503 20:36:33.929034 22263 net.cpp:435] label_intercept_1_split <- label
I0503 20:36:33.929040 22263 net.cpp:409] label_intercept_1_split -> label_intercept_1_split_0
I0503 20:36:33.929049 22263 net.cpp:409] label_intercept_1_split -> label_intercept_1_split_1
I0503 20:36:33.929085 22263 net.cpp:144] Setting up label_intercept_1_split
I0503 20:36:33.929092 22263 net.cpp:151] Top shape: 20 (20)
I0503 20:36:33.929095 22263 net.cpp:151] Top shape: 20 (20)
I0503 20:36:33.929100 22263 net.cpp:159] Memory required for data: 8240
I0503 20:36:33.929102 22263 layer_factory.hpp:77] Creating layer conv1
I0503 20:36:33.929112 22263 net.cpp:94] Creating Layer conv1
I0503 20:36:33.929116 22263 net.cpp:435] conv1 <- data
I0503 20:36:33.929122 22263 net.cpp:409] conv1 -> conv1
I0503 20:36:33.929828 22263 net.cpp:144] Setting up conv1
I0503 20:36:33.929852 22263 net.cpp:151] Top shape: 20 64 10 10 (128000)
I0503 20:36:33.929855 22263 net.cpp:159] Memory required for data: 520240
I0503 20:36:33.929865 22263 layer_factory.hpp:77] Creating layer relu1
I0503 20:36:33.929873 22263 net.cpp:94] Creating Layer relu1
I0503 20:36:33.929877 22263 net.cpp:435] relu1 <- conv1
I0503 20:36:33.929882 22263 net.cpp:396] relu1 -> conv1 (in-place)
I0503 20:36:33.929889 22263 net.cpp:144] Setting up relu1
I0503 20:36:33.929894 22263 net.cpp:151] Top shape: 20 64 10 10 (128000)
I0503 20:36:33.929898 22263 net.cpp:159] Memory required for data: 1032240
I0503 20:36:33.929901 22263 layer_factory.hpp:77] Creating layer conv2
I0503 20:36:33.929909 22263 net.cpp:94] Creating Layer conv2
I0503 20:36:33.929913 22263 net.cpp:435] conv2 <- conv1
I0503 20:36:33.929919 22263 net.cpp:409] conv2 -> conv2
I0503 20:36:33.933943 22263 net.cpp:144] Setting up conv2
I0503 20:36:33.933979 22263 net.cpp:151] Top shape: 20 64 10 10 (128000)
I0503 20:36:33.933990 22263 net.cpp:159] Memory required for data: 1544240
I0503 20:36:33.934011 22263 layer_factory.hpp:77] Creating layer relu2
I0503 20:36:33.934027 22263 net.cpp:94] Creating Layer relu2
I0503 20:36:33.934038 22263 net.cpp:435] relu2 <- conv2
I0503 20:36:33.934051 22263 net.cpp:396] relu2 -> conv2 (in-place)
I0503 20:36:33.934070 22263 net.cpp:144] Setting up relu2
I0503 20:36:33.934084 22263 net.cpp:151] Top shape: 20 64 10 10 (128000)
I0503 20:36:33.934093 22263 net.cpp:159] Memory required for data: 2056240
I0503 20:36:33.934103 22263 layer_factory.hpp:77] Creating layer pool2
I0503 20:36:33.934128 22263 net.cpp:94] Creating Layer pool2
I0503 20:36:33.934132 22263 net.cpp:435] pool2 <- conv2
I0503 20:36:33.934137 22263 net.cpp:409] pool2 -> pool2
I0503 20:36:33.934175 22263 net.cpp:144] Setting up pool2
I0503 20:36:33.934181 22263 net.cpp:151] Top shape: 20 64 5 5 (32000)
I0503 20:36:33.934185 22263 net.cpp:159] Memory required for data: 2184240
I0503 20:36:33.934188 22263 layer_factory.hpp:77] Creating layer conv3
I0503 20:36:33.934196 22263 net.cpp:94] Creating Layer conv3
I0503 20:36:33.934201 22263 net.cpp:435] conv3 <- pool2
I0503 20:36:33.934206 22263 net.cpp:409] conv3 -> conv3
I0503 20:36:33.940814 22263 net.cpp:144] Setting up conv3
I0503 20:36:33.940829 22263 net.cpp:151] Top shape: 20 128 5 5 (64000)
I0503 20:36:33.940834 22263 net.cpp:159] Memory required for data: 2440240
I0503 20:36:33.940842 22263 layer_factory.hpp:77] Creating layer relu3
I0503 20:36:33.940850 22263 net.cpp:94] Creating Layer relu3
I0503 20:36:33.940853 22263 net.cpp:435] relu3 <- conv3
I0503 20:36:33.940858 22263 net.cpp:396] relu3 -> conv3 (in-place)
I0503 20:36:33.940866 22263 net.cpp:144] Setting up relu3
I0503 20:36:33.940871 22263 net.cpp:151] Top shape: 20 128 5 5 (64000)
I0503 20:36:33.940874 22263 net.cpp:159] Memory required for data: 2696240
I0503 20:36:33.940877 22263 layer_factory.hpp:77] Creating layer conv4
I0503 20:36:33.940886 22263 net.cpp:94] Creating Layer conv4
I0503 20:36:33.940889 22263 net.cpp:435] conv4 <- conv3
I0503 20:36:33.940894 22263 net.cpp:409] conv4 -> conv4
I0503 20:36:33.953657 22263 net.cpp:144] Setting up conv4
I0503 20:36:33.953673 22263 net.cpp:151] Top shape: 20 128 5 5 (64000)
I0503 20:36:33.953677 22263 net.cpp:159] Memory required for data: 2952240
I0503 20:36:33.953685 22263 layer_factory.hpp:77] Creating layer relu4
I0503 20:36:33.953691 22263 net.cpp:94] Creating Layer relu4
I0503 20:36:33.953694 22263 net.cpp:435] relu4 <- conv4
I0503 20:36:33.953703 22263 net.cpp:396] relu4 -> conv4 (in-place)
I0503 20:36:33.953711 22263 net.cpp:144] Setting up relu4
I0503 20:36:33.953716 22263 net.cpp:151] Top shape: 20 128 5 5 (64000)
I0503 20:36:33.953721 22263 net.cpp:159] Memory required for data: 3208240
I0503 20:36:33.953723 22263 layer_factory.hpp:77] Creating layer conv5
I0503 20:36:33.953732 22263 net.cpp:94] Creating Layer conv5
I0503 20:36:33.953737 22263 net.cpp:435] conv5 <- conv4
I0503 20:36:33.953742 22263 net.cpp:409] conv5 -> conv5
I0503 20:36:33.966562 22263 net.cpp:144] Setting up conv5
I0503 20:36:33.966585 22263 net.cpp:151] Top shape: 20 128 5 5 (64000)
I0503 20:36:33.966589 22263 net.cpp:159] Memory required for data: 3464240
I0503 20:36:33.966599 22263 layer_factory.hpp:77] Creating layer relu5
I0503 20:36:33.966605 22263 net.cpp:94] Creating Layer relu5
I0503 20:36:33.966609 22263 net.cpp:435] relu5 <- conv5
I0503 20:36:33.966614 22263 net.cpp:396] relu5 -> conv5 (in-place)
I0503 20:36:33.966621 22263 net.cpp:144] Setting up relu5
I0503 20:36:33.966626 22263 net.cpp:151] Top shape: 20 128 5 5 (64000)
I0503 20:36:33.966630 22263 net.cpp:159] Memory required for data: 3720240
I0503 20:36:33.966634 22263 layer_factory.hpp:77] Creating layer pool5
I0503 20:36:33.966639 22263 net.cpp:94] Creating Layer pool5
I0503 20:36:33.966644 22263 net.cpp:435] pool5 <- conv5
I0503 20:36:33.966647 22263 net.cpp:409] pool5 -> pool5
I0503 20:36:33.966675 22263 net.cpp:144] Setting up pool5
I0503 20:36:33.966682 22263 net.cpp:151] Top shape: 20 128 2 2 (10240)
I0503 20:36:33.966686 22263 net.cpp:159] Memory required for data: 3761200
I0503 20:36:33.966689 22263 layer_factory.hpp:77] Creating layer ip1
I0503 20:36:33.966696 22263 net.cpp:94] Creating Layer ip1
I0503 20:36:33.966701 22263 net.cpp:435] ip1 <- pool5
I0503 20:36:33.966706 22263 net.cpp:409] ip1 -> ip1
I0503 20:36:33.980262 22263 net.cpp:144] Setting up ip1
I0503 20:36:33.980276 22263 net.cpp:151] Top shape: 20 1024 (20480)
I0503 20:36:33.980280 22263 net.cpp:159] Memory required for data: 3843120
I0503 20:36:33.980288 22263 layer_factory.hpp:77] Creating layer ip2
I0503 20:36:33.980294 22263 net.cpp:94] Creating Layer ip2
I0503 20:36:33.980298 22263 net.cpp:435] ip2 <- ip1
I0503 20:36:33.980304 22263 net.cpp:409] ip2 -> ip2
I0503 20:36:33.993849 22263 net.cpp:144] Setting up ip2
I0503 20:36:33.993865 22263 net.cpp:151] Top shape: 20 512 (10240)
I0503 20:36:33.993868 22263 net.cpp:159] Memory required for data: 3884080
I0503 20:36:33.993875 22263 layer_factory.hpp:77] Creating layer ip3
I0503 20:36:33.993883 22263 net.cpp:94] Creating Layer ip3
I0503 20:36:33.993887 22263 net.cpp:435] ip3 <- ip2
I0503 20:36:33.993892 22263 net.cpp:409] ip3 -> ip3
I0503 20:36:33.994606 22263 net.cpp:144] Setting up ip3
I0503 20:36:33.994613 22263 net.cpp:151] Top shape: 20 50 (1000)
I0503 20:36:33.994617 22263 net.cpp:159] Memory required for data: 3888080
I0503 20:36:33.994622 22263 layer_factory.hpp:77] Creating layer ip3_ip3_0_split
I0503 20:36:33.994628 22263 net.cpp:94] Creating Layer ip3_ip3_0_split
I0503 20:36:33.994632 22263 net.cpp:435] ip3_ip3_0_split <- ip3
I0503 20:36:33.994637 22263 net.cpp:409] ip3_ip3_0_split -> ip3_ip3_0_split_0
I0503 20:36:33.994643 22263 net.cpp:409] ip3_ip3_0_split -> ip3_ip3_0_split_1
I0503 20:36:33.994670 22263 net.cpp:144] Setting up ip3_ip3_0_split
I0503 20:36:33.994676 22263 net.cpp:151] Top shape: 20 50 (1000)
I0503 20:36:33.994680 22263 net.cpp:151] Top shape: 20 50 (1000)
I0503 20:36:33.994684 22263 net.cpp:159] Memory required for data: 3896080
I0503 20:36:33.994688 22263 layer_factory.hpp:77] Creating layer accuracy
I0503 20:36:33.994699 22263 net.cpp:94] Creating Layer accuracy
I0503 20:36:33.994702 22263 net.cpp:435] accuracy <- ip3_ip3_0_split_0
I0503 20:36:33.994707 22263 net.cpp:435] accuracy <- label_intercept_1_split_0
I0503 20:36:33.994711 22263 net.cpp:409] accuracy -> accuracy
…
