…
I0507 10:57:54.322569   392 net.cpp:323] The NetState phase (0) differed from the phase (1) specified by a rule in layer intercept
I0507 10:57:54.322585   392 net.cpp:323] The NetState phase (0) differed from the phase (1) specified by a rule in layer loss
I0507 10:57:54.322664   392 net.cpp:52] Initializing net from parameters: 
state {
  phase: TRAIN
}
layer {
  name: "parameters"
  type: "HDF5Data"
  top: "data"
  top: "label"
  include {
    phase: TRAIN
  }
  hdf5_data_param {
    source: "/home/purduethu/scratch/radon/d/deng106/CNNStatisticalModel/distributions/input/50_distributions_400_sample_size_train-parameters-path.txt"
    batch_size: 20
  }
}
layer {
  name: "conv1"
  type: "Convolution"
  bottom: "data"
  top: "conv1"
  param {
    lr_mult: 1
  }
  param {
    lr_mult: 2
  }
  convolution_param {
    num_output: 64
    pad: 2
    kernel_size: 5
    stride: 1
    weight_filler {
      type: "gaussian"
      std: 0.0001
    }
    bias_filler {
      type: "constant"
    }
  }
}
layer {
  name: "relu1"
  type: "ReLU"
  bottom: "conv1"
  top: "conv1"
}
layer {
  name: "conv2"
  type: "Convolution"
  bottom: "conv1"
  top: "conv2"
  param {
    lr_mult: 1
  }
  param {
    lr_mult: 2
  }
  convolution_param {
    num_output: 64
    pad: 2
    kernel_size: 5
    stride: 1
    weight_filler {
      type: "gaussian"
      std: 0.01
    }
    bias_filler {
      type: "constant"
    }
  }
}
layer {
  name: "relu2"
  type: "ReLU"
  bottom: "conv2"
  top: "conv2"
}
layer {
  name: "pool2"
  type: "Pooling"
  bottom: "conv2"
  top: "pool2"
  pooling_param {
    pool: MAX
    kernel_size: 3
    stride: 2
  }
}
layer {
  name: "conv3"
  type: "Convolution"
  bottom: "pool2"
  top: "conv3"
  param {
    lr_mult: 1
  }
  param {
    lr_mult: 2
  }
  convolution_param {
    num_output: 64
    pad: 2
    kernel_size: 5
    stride: 1
    weight_filler {
      type: "gaussian"
      std: 0.01
    }
    bias_filler {
      type: "constant"
    }
  }
}
layer {
  name: "relu3"
  type: "ReLU"
  bottom: "conv3"
  top: "conv3"
}
layer {
  name: "conv4"
  type: "Convolution"
  bottom: "conv3"
  top: "conv4"
  param {
    lr_mult: 1
  }
  param {
    lr_mult: 2
  }
  convolution_param {
    num_output: 64
    pad: 2
    kernel_size: 5
    stride: 1
    weight_filler {
      type: "gaussian"
      std: 0.01
    }
    bias_filler {
      type: "constant"
    }
  }
}
layer {
  name: "relu4"
  type: "ReLU"
  bottom: "conv4"
  top: "conv4"
}
layer {
  name: "conv5"
  type: "Convolution"
  bottom: "conv4"
  top: "conv5"
  param {
    lr_mult: 1
  }
  param {
    lr_mult: 2
  }
  convolution_param {
    num_output: 64
    pad: 2
    kernel_size: 5
    stride: 1
    weight_filler {
      type: "gaussian"
      std: 0.01
    }
    bias_filler {
      type: "constant"
    }
  }
}
layer {
  name: "relu5"
  type: "ReLU"
  bottom: "conv5"
  top: "conv5"
}
layer {
  name: "pool5"
  type: "Pooling"
  bottom: "conv5"
  top: "pool5"
  pooling_param {
    pool: AVE
    kernel_size: 3
    stride: 2
  }
}
layer {
  name: "ip1"
  type: "InnerProduct"
  bottom: "pool5"
  top: "ip1"
  param {
    lr_mult: 1
  }
  param {
    lr_mult: 2
  }
  inner_product_param {
    num_output: 64
    weight_filler {
      type: "gaussian"
      std: 0.1
    }
    bias_filler {
      type: "constant"
    }
  }
}
layer {
  name: "ip2"
  type: "InnerProduct"
  bottom: "ip1"
  top: "ip2"
  param {
    lr_mult: 1
  }
  param {
    lr_mult: 2
  }
  inner_product_param {
    num_output: 64
    weight_filler {
      type: "gaussian"
      std: 0.1
    }
    bias_filler {
      type: "constant"
    }
  }
}
layer {
  name: "ip3"
  type: "InnerProduct"
  bottom: "ip2"
  top: "ip3"
  param {
    lr_mult: 1
  }
  param {
    lr_mult: 2
  }
  inner_product_param {
    num_output: 1
    weight_filler {
      type: "gaussian"
      std: 0.1
    }
    bias_filler {
      type: "constant"
    }
  }
}
layer {
  name: "loss"
  type: "HuberLoss"
  bottom: "ip3"
  bottom: "label"
  top: "loss"
  include {
    phase: TRAIN
  }
}
I0507 10:57:54.322717   392 layer_factory.hpp:77] Creating layer parameters
I0507 10:57:54.322734   392 net.cpp:94] Creating Layer parameters
I0507 10:57:54.322739   392 net.cpp:409] parameters -> data
I0507 10:57:54.322749   392 net.cpp:409] parameters -> label
I0507 10:57:54.322755   392 hdf5_data_layer.cpp:79] Loading list of HDF5 filenames from: /home/purduethu/scratch/radon/d/deng106/CNNStatisticalModel/distributions/input/50_distributions_400_sample_size_train-parameters-path.txt
I0507 10:57:54.322774   392 hdf5_data_layer.cpp:93] Number of HDF5 files: 1
I0507 10:57:54.323312   392 hdf5.cpp:32] Datatype class: H5T_FLOAT
I0507 10:57:54.958773   392 net.cpp:144] Setting up parameters
I0507 10:57:54.958803   392 net.cpp:151] Top shape: 20 1 20 20 (8000)
I0507 10:57:54.958808   392 net.cpp:151] Top shape: 20 (20)
I0507 10:57:54.958812   392 net.cpp:159] Memory required for data: 32080
I0507 10:57:54.958818   392 layer_factory.hpp:77] Creating layer conv1
I0507 10:57:54.958833   392 net.cpp:94] Creating Layer conv1
I0507 10:57:54.958838   392 net.cpp:435] conv1 <- data
I0507 10:57:54.958844   392 net.cpp:409] conv1 -> conv1
I0507 10:57:54.964164   392 net.cpp:144] Setting up conv1
I0507 10:57:54.964179   392 net.cpp:151] Top shape: 20 64 20 20 (512000)
I0507 10:57:54.964182   392 net.cpp:159] Memory required for data: 2080080
I0507 10:57:54.964192   392 layer_factory.hpp:77] Creating layer relu1
I0507 10:57:54.964200   392 net.cpp:94] Creating Layer relu1
I0507 10:57:54.964205   392 net.cpp:435] relu1 <- conv1
I0507 10:57:54.964208   392 net.cpp:396] relu1 -> conv1 (in-place)
I0507 10:57:54.964216   392 net.cpp:144] Setting up relu1
I0507 10:57:54.964221   392 net.cpp:151] Top shape: 20 64 20 20 (512000)
I0507 10:57:54.964223   392 net.cpp:159] Memory required for data: 4128080
I0507 10:57:54.964226   392 layer_factory.hpp:77] Creating layer conv2
I0507 10:57:54.964234   392 net.cpp:94] Creating Layer conv2
I0507 10:57:54.964238   392 net.cpp:435] conv2 <- conv1
I0507 10:57:54.964243   392 net.cpp:409] conv2 -> conv2
I0507 10:57:54.974736   392 net.cpp:144] Setting up conv2
I0507 10:57:54.974752   392 net.cpp:151] Top shape: 20 64 20 20 (512000)
I0507 10:57:54.974756   392 net.cpp:159] Memory required for data: 6176080
I0507 10:57:54.974764   392 layer_factory.hpp:77] Creating layer relu2
I0507 10:57:54.974771   392 net.cpp:94] Creating Layer relu2
I0507 10:57:54.974776   392 net.cpp:435] relu2 <- conv2
I0507 10:57:54.974779   392 net.cpp:396] relu2 -> conv2 (in-place)
I0507 10:57:54.974787   392 net.cpp:144] Setting up relu2
I0507 10:57:54.974792   392 net.cpp:151] Top shape: 20 64 20 20 (512000)
I0507 10:57:54.974794   392 net.cpp:159] Memory required for data: 8224080
I0507 10:57:54.974797   392 layer_factory.hpp:77] Creating layer pool2
I0507 10:57:54.974809   392 net.cpp:94] Creating Layer pool2
I0507 10:57:54.974813   392 net.cpp:435] pool2 <- conv2
I0507 10:57:54.974818   392 net.cpp:409] pool2 -> pool2
I0507 10:57:54.974869   392 net.cpp:144] Setting up pool2
I0507 10:57:54.974877   392 net.cpp:151] Top shape: 20 64 10 10 (128000)
I0507 10:57:54.974880   392 net.cpp:159] Memory required for data: 8736080
I0507 10:57:54.974884   392 layer_factory.hpp:77] Creating layer conv3
I0507 10:57:54.974891   392 net.cpp:94] Creating Layer conv3
I0507 10:57:54.974895   392 net.cpp:435] conv3 <- pool2
I0507 10:57:54.974900   392 net.cpp:409] conv3 -> conv3
I0507 10:57:54.980177   392 net.cpp:144] Setting up conv3
I0507 10:57:54.980191   392 net.cpp:151] Top shape: 20 64 10 10 (128000)
I0507 10:57:54.980195   392 net.cpp:159] Memory required for data: 9248080
I0507 10:57:54.980202   392 layer_factory.hpp:77] Creating layer relu3
I0507 10:57:54.980208   392 net.cpp:94] Creating Layer relu3
I0507 10:57:54.980212   392 net.cpp:435] relu3 <- conv3
I0507 10:57:54.980217   392 net.cpp:396] relu3 -> conv3 (in-place)
I0507 10:57:54.980224   392 net.cpp:144] Setting up relu3
I0507 10:57:54.980229   392 net.cpp:151] Top shape: 20 64 10 10 (128000)
I0507 10:57:54.980232   392 net.cpp:159] Memory required for data: 9760080
I0507 10:57:54.980235   392 layer_factory.hpp:77] Creating layer conv4
I0507 10:57:54.980243   392 net.cpp:94] Creating Layer conv4
I0507 10:57:54.980247   392 net.cpp:435] conv4 <- conv3
I0507 10:57:54.980252   392 net.cpp:409] conv4 -> conv4
I0507 10:57:54.985564   392 net.cpp:144] Setting up conv4
I0507 10:57:54.985579   392 net.cpp:151] Top shape: 20 64 10 10 (128000)
I0507 10:57:54.985582   392 net.cpp:159] Memory required for data: 10272080
I0507 10:57:54.985589   392 layer_factory.hpp:77] Creating layer relu4
I0507 10:57:54.985594   392 net.cpp:94] Creating Layer relu4
I0507 10:57:54.985599   392 net.cpp:435] relu4 <- conv4
I0507 10:57:54.985604   392 net.cpp:396] relu4 -> conv4 (in-place)
I0507 10:57:54.985610   392 net.cpp:144] Setting up relu4
I0507 10:57:54.985615   392 net.cpp:151] Top shape: 20 64 10 10 (128000)
I0507 10:57:54.985617   392 net.cpp:159] Memory required for data: 10784080
I0507 10:57:54.985620   392 layer_factory.hpp:77] Creating layer conv5
I0507 10:57:54.985628   392 net.cpp:94] Creating Layer conv5
I0507 10:57:54.985632   392 net.cpp:435] conv5 <- conv4
I0507 10:57:54.985637   392 net.cpp:409] conv5 -> conv5
I0507 10:57:54.990901   392 net.cpp:144] Setting up conv5
I0507 10:57:54.990916   392 net.cpp:151] Top shape: 20 64 10 10 (128000)
I0507 10:57:54.990919   392 net.cpp:159] Memory required for data: 11296080
I0507 10:57:54.990928   392 layer_factory.hpp:77] Creating layer relu5
I0507 10:57:54.990934   392 net.cpp:94] Creating Layer relu5
I0507 10:57:54.990937   392 net.cpp:435] relu5 <- conv5
I0507 10:57:54.990942   392 net.cpp:396] relu5 -> conv5 (in-place)
I0507 10:57:54.990949   392 net.cpp:144] Setting up relu5
I0507 10:57:54.990954   392 net.cpp:151] Top shape: 20 64 10 10 (128000)
I0507 10:57:54.990957   392 net.cpp:159] Memory required for data: 11808080
I0507 10:57:54.990960   392 layer_factory.hpp:77] Creating layer pool5
I0507 10:57:54.990965   392 net.cpp:94] Creating Layer pool5
I0507 10:57:54.990968   392 net.cpp:435] pool5 <- conv5
I0507 10:57:54.990973   392 net.cpp:409] pool5 -> pool5
I0507 10:57:54.991009   392 net.cpp:144] Setting up pool5
I0507 10:57:54.991016   392 net.cpp:151] Top shape: 20 64 5 5 (32000)
I0507 10:57:54.991019   392 net.cpp:159] Memory required for data: 11936080
I0507 10:57:54.991024   392 layer_factory.hpp:77] Creating layer ip1
I0507 10:57:54.991032   392 net.cpp:94] Creating Layer ip1
I0507 10:57:54.991036   392 net.cpp:435] ip1 <- pool5
I0507 10:57:54.991041   392 net.cpp:409] ip1 -> ip1
I0507 10:57:54.993717   392 net.cpp:144] Setting up ip1
I0507 10:57:54.993726   392 net.cpp:151] Top shape: 20 64 (1280)
I0507 10:57:54.993731   392 net.cpp:159] Memory required for data: 11941200
I0507 10:57:54.993736   392 layer_factory.hpp:77] Creating layer ip2
I0507 10:57:54.993741   392 net.cpp:94] Creating Layer ip2
I0507 10:57:54.993748   392 net.cpp:435] ip2 <- ip1
I0507 10:57:54.993754   392 net.cpp:409] ip2 -> ip2
I0507 10:57:54.993963   392 net.cpp:144] Setting up ip2
I0507 10:57:54.993969   392 net.cpp:151] Top shape: 20 64 (1280)
I0507 10:57:54.993973   392 net.cpp:159] Memory required for data: 11946320
I0507 10:57:54.993978   392 layer_factory.hpp:77] Creating layer ip3
I0507 10:57:54.993983   392 net.cpp:94] Creating Layer ip3
I0507 10:57:54.993986   392 net.cpp:435] ip3 <- ip2
I0507 10:57:54.993991   392 net.cpp:409] ip3 -> ip3
I0507 10:57:54.994089   392 net.cpp:144] Setting up ip3
I0507 10:57:54.994096   392 net.cpp:151] Top shape: 20 1 (20)
I0507 10:57:54.994098   392 net.cpp:159] Memory required for data: 11946400
I0507 10:57:54.994103   392 layer_factory.hpp:77] Creating layer loss
I0507 10:57:54.994113   392 net.cpp:94] Creating Layer loss
I0507 10:57:54.994117   392 net.cpp:435] loss <- ip3
I0507 10:57:54.994122   392 net.cpp:435] loss <- label
I0507 10:57:54.994127   392 net.cpp:409] loss -> loss
I0507 10:57:54.994175   392 net.cpp:144] Setting up loss
…
I0507 10:57:55.181869   392 net.cpp:323] The NetState phase (0) differed from the phase (1) specified by a rule in layer intercept
I0507 10:57:55.181885   392 net.cpp:323] The NetState phase (0) differed from the phase (1) specified by a rule in layer accuracy
I0507 10:57:55.181970   392 net.cpp:52] Initializing net from parameters: 
state {
  phase: TRAIN
}
layer {
  name: "parameters"
  type: "HDF5Data"
  top: "data"
  top: "label"
  include {
    phase: TRAIN
  }
  hdf5_data_param {
    source: "/home/purduethu/scratch/radon/d/deng106/CNNStatisticalModel/distributions/input/50_distributions_400_sample_size_train-distributions-path.txt"
    batch_size: 20
  }
}
layer {
  name: "conv1"
  type: "Convolution"
  bottom: "data"
  top: "conv1"
  param {
    lr_mult: 1
  }
  param {
    lr_mult: 2
  }
  convolution_param {
    num_output: 64
    pad: 2
    kernel_size: 5
    stride: 1
    weight_filler {
      type: "gaussian"
      std: 0.0001
    }
    bias_filler {
      type: "constant"
    }
  }
}
layer {
  name: "relu1"
  type: "ReLU"
  bottom: "conv1"
  top: "conv1"
}
layer {
  name: "conv2"
  type: "Convolution"
  bottom: "conv1"
  top: "conv2"
  param {
    lr_mult: 1
  }
  param {
    lr_mult: 2
  }
  convolution_param {
    num_output: 64
    pad: 2
    kernel_size: 5
    stride: 1
    weight_filler {
      type: "gaussian"
      std: 0.01
    }
    bias_filler {
      type: "constant"
    }
  }
}
layer {
  name: "relu2"
  type: "ReLU"
  bottom: "conv2"
  top: "conv2"
}
layer {
  name: "pool2"
  type: "Pooling"
  bottom: "conv2"
  top: "pool2"
  pooling_param {
    pool: MAX
    kernel_size: 3
    stride: 2
  }
}
layer {
  name: "conv3"
  type: "Convolution"
  bottom: "pool2"
  top: "conv3"
  param {
    lr_mult: 1
  }
  param {
    lr_mult: 2
  }
  convolution_param {
    num_output: 64
    pad: 2
    kernel_size: 5
    stride: 1
    weight_filler {
      type: "gaussian"
      std: 0.01
    }
    bias_filler {
      type: "constant"
    }
  }
}
layer {
  name: "relu3"
  type: "ReLU"
  bottom: "conv3"
  top: "conv3"
}
layer {
  name: "conv4"
  type: "Convolution"
  bottom: "conv3"
  top: "conv4"
  param {
    lr_mult: 1
  }
  param {
    lr_mult: 2
  }
  convolution_param {
    num_output: 64
    pad: 2
    kernel_size: 5
    stride: 1
    weight_filler {
      type: "gaussian"
      std: 0.01
    }
    bias_filler {
      type: "constant"
    }
  }
}
layer {
  name: "relu4"
  type: "ReLU"
  bottom: "conv4"
  top: "conv4"
}
layer {
  name: "conv5"
  type: "Convolution"
  bottom: "conv4"
  top: "conv5"
  param {
    lr_mult: 1
  }
  param {
    lr_mult: 2
  }
  convolution_param {
    num_output: 64
    pad: 2
    kernel_size: 5
    stride: 1
    weight_filler {
      type: "gaussian"
      std: 0.01
    }
    bias_filler {
      type: "constant"
    }
  }
}
layer {
  name: "relu5"
  type: "ReLU"
  bottom: "conv5"
  top: "conv5"
}
layer {
  name: "pool5"
  type: "Pooling"
  bottom: "conv5"
  top: "pool5"
  pooling_param {
    pool: AVE
    kernel_size: 3
    stride: 2
  }
}
layer {
  name: "ip1"
  type: "InnerProduct"
  bottom: "pool5"
  top: "ip1"
  param {
    lr_mult: 1
  }
  param {
    lr_mult: 2
  }
  inner_product_param {
    num_output: 64
    weight_filler {
      type: "gaussian"
      std: 0.1
    }
    bias_filler {
      type: "constant"
    }
  }
}
layer {
  name: "ip2"
  type: "InnerProduct"
  bottom: "ip1"
  top: "ip2"
  param {
    lr_mult: 1
  }
  param {
    lr_mult: 2
  }
  inner_product_param {
    num_output: 64
    weight_filler {
      type: "gaussian"
      std: 0.1
    }
    bias_filler {
      type: "constant"
    }
  }
}
layer {
  name: "ip3"
  type: "InnerProduct"
  bottom: "ip2"
  top: "ip3"
  param {
    lr_mult: 1
  }
  param {
    lr_mult: 2
  }
  inner_product_param {
    num_output: 50
    weight_filler {
      type: "gaussian"
      std: 0.1
    }
    bias_filler {
      type: "constant"
    }
  }
}
layer {
  name: "loss"
  type: "SoftmaxWithLoss"
  bottom: "ip3"
  bottom: "label"
  top: "loss"
}
I0507 10:57:55.182024   392 layer_factory.hpp:77] Creating layer parameters
I0507 10:57:55.182032   392 net.cpp:94] Creating Layer parameters
I0507 10:57:55.182036   392 net.cpp:409] parameters -> data
I0507 10:57:55.182042   392 net.cpp:409] parameters -> label
I0507 10:57:55.182049   392 hdf5_data_layer.cpp:79] Loading list of HDF5 filenames from: /home/purduethu/scratch/radon/d/deng106/CNNStatisticalModel/distributions/input/50_distributions_400_sample_size_train-distributions-path.txt
I0507 10:57:55.182068   392 hdf5_data_layer.cpp:93] Number of HDF5 files: 1
I0507 10:57:55.823920   392 hdf5.cpp:35] Datatype class: H5T_INTEGER
I0507 10:57:55.827052   392 net.cpp:144] Setting up parameters
I0507 10:57:55.827069   392 net.cpp:151] Top shape: 20 1 20 20 (8000)
I0507 10:57:55.827075   392 net.cpp:151] Top shape: 20 (20)
I0507 10:57:55.827077   392 net.cpp:159] Memory required for data: 32080
I0507 10:57:55.827083   392 layer_factory.hpp:77] Creating layer conv1
I0507 10:57:55.827098   392 net.cpp:94] Creating Layer conv1
I0507 10:57:55.827103   392 net.cpp:435] conv1 <- data
I0507 10:57:55.827109   392 net.cpp:409] conv1 -> conv1
I0507 10:57:55.829881   392 net.cpp:144] Setting up conv1
I0507 10:57:55.829895   392 net.cpp:151] Top shape: 20 64 20 20 (512000)
I0507 10:57:55.829900   392 net.cpp:159] Memory required for data: 2080080
I0507 10:57:55.829910   392 layer_factory.hpp:77] Creating layer relu1
I0507 10:57:55.829916   392 net.cpp:94] Creating Layer relu1
I0507 10:57:55.829921   392 net.cpp:435] relu1 <- conv1
I0507 10:57:55.829926   392 net.cpp:396] relu1 -> conv1 (in-place)
I0507 10:57:55.829932   392 net.cpp:144] Setting up relu1
I0507 10:57:55.829937   392 net.cpp:151] Top shape: 20 64 20 20 (512000)
I0507 10:57:55.829939   392 net.cpp:159] Memory required for data: 4128080
I0507 10:57:55.829942   392 layer_factory.hpp:77] Creating layer conv2
I0507 10:57:55.829951   392 net.cpp:94] Creating Layer conv2
I0507 10:57:55.829953   392 net.cpp:435] conv2 <- conv1
I0507 10:57:55.829958   392 net.cpp:409] conv2 -> conv2
I0507 10:57:55.841266   392 net.cpp:144] Setting up conv2
I0507 10:57:55.841281   392 net.cpp:151] Top shape: 20 64 20 20 (512000)
I0507 10:57:55.841285   392 net.cpp:159] Memory required for data: 6176080
I0507 10:57:55.841294   392 layer_factory.hpp:77] Creating layer relu2
I0507 10:57:55.841300   392 net.cpp:94] Creating Layer relu2
I0507 10:57:55.841305   392 net.cpp:435] relu2 <- conv2
I0507 10:57:55.841308   392 net.cpp:396] relu2 -> conv2 (in-place)
I0507 10:57:55.841316   392 net.cpp:144] Setting up relu2
I0507 10:57:55.841320   392 net.cpp:151] Top shape: 20 64 20 20 (512000)
I0507 10:57:55.841323   392 net.cpp:159] Memory required for data: 8224080
I0507 10:57:55.841326   392 layer_factory.hpp:77] Creating layer pool2
I0507 10:57:55.841332   392 net.cpp:94] Creating Layer pool2
I0507 10:57:55.841336   392 net.cpp:435] pool2 <- conv2
I0507 10:57:55.841339   392 net.cpp:409] pool2 -> pool2
I0507 10:57:55.841389   392 net.cpp:144] Setting up pool2
I0507 10:57:55.841398   392 net.cpp:151] Top shape: 20 64 10 10 (128000)
I0507 10:57:55.841400   392 net.cpp:159] Memory required for data: 8736080
I0507 10:57:55.841403   392 layer_factory.hpp:77] Creating layer conv3
I0507 10:57:55.841411   392 net.cpp:94] Creating Layer conv3
I0507 10:57:55.841414   392 net.cpp:435] conv3 <- pool2
I0507 10:57:55.841426   392 net.cpp:409] conv3 -> conv3
I0507 10:57:55.846887   392 net.cpp:144] Setting up conv3
I0507 10:57:55.846900   392 net.cpp:151] Top shape: 20 64 10 10 (128000)
I0507 10:57:55.846904   392 net.cpp:159] Memory required for data: 9248080
I0507 10:57:55.846912   392 layer_factory.hpp:77] Creating layer relu3
I0507 10:57:55.846918   392 net.cpp:94] Creating Layer relu3
I0507 10:57:55.846922   392 net.cpp:435] relu3 <- conv3
I0507 10:57:55.846927   392 net.cpp:396] relu3 -> conv3 (in-place)
I0507 10:57:55.846935   392 net.cpp:144] Setting up relu3
I0507 10:57:55.846938   392 net.cpp:151] Top shape: 20 64 10 10 (128000)
I0507 10:57:55.846941   392 net.cpp:159] Memory required for data: 9760080
I0507 10:57:55.846945   392 layer_factory.hpp:77] Creating layer conv4
I0507 10:57:55.846952   392 net.cpp:94] Creating Layer conv4
I0507 10:57:55.846956   392 net.cpp:435] conv4 <- conv3
I0507 10:57:55.846961   392 net.cpp:409] conv4 -> conv4
I0507 10:57:55.852380   392 net.cpp:144] Setting up conv4
I0507 10:57:55.852394   392 net.cpp:151] Top shape: 20 64 10 10 (128000)
I0507 10:57:55.852398   392 net.cpp:159] Memory required for data: 10272080
I0507 10:57:55.852404   392 layer_factory.hpp:77] Creating layer relu4
I0507 10:57:55.852409   392 net.cpp:94] Creating Layer relu4
I0507 10:57:55.852413   392 net.cpp:435] relu4 <- conv4
I0507 10:57:55.852418   392 net.cpp:396] relu4 -> conv4 (in-place)
I0507 10:57:55.852425   392 net.cpp:144] Setting up relu4
I0507 10:57:55.852430   392 net.cpp:151] Top shape: 20 64 10 10 (128000)
I0507 10:57:55.852433   392 net.cpp:159] Memory required for data: 10784080
I0507 10:57:55.852437   392 layer_factory.hpp:77] Creating layer conv5
I0507 10:57:55.852443   392 net.cpp:94] Creating Layer conv5
I0507 10:57:55.852447   392 net.cpp:435] conv5 <- conv4
I0507 10:57:55.852452   392 net.cpp:409] conv5 -> conv5
I0507 10:57:55.858793   392 net.cpp:144] Setting up conv5
I0507 10:57:55.858808   392 net.cpp:151] Top shape: 20 64 10 10 (128000)
I0507 10:57:55.858810   392 net.cpp:159] Memory required for data: 11296080
I0507 10:57:55.858819   392 layer_factory.hpp:77] Creating layer relu5
I0507 10:57:55.858825   392 net.cpp:94] Creating Layer relu5
I0507 10:57:55.858829   392 net.cpp:435] relu5 <- conv5
I0507 10:57:55.858834   392 net.cpp:396] relu5 -> conv5 (in-place)
I0507 10:57:55.858840   392 net.cpp:144] Setting up relu5
I0507 10:57:55.858844   392 net.cpp:151] Top shape: 20 64 10 10 (128000)
I0507 10:57:55.858847   392 net.cpp:159] Memory required for data: 11808080
I0507 10:57:55.858850   392 layer_factory.hpp:77] Creating layer pool5
I0507 10:57:55.858855   392 net.cpp:94] Creating Layer pool5
I0507 10:57:55.858858   392 net.cpp:435] pool5 <- conv5
I0507 10:57:55.858863   392 net.cpp:409] pool5 -> pool5
I0507 10:57:55.858897   392 net.cpp:144] Setting up pool5
I0507 10:57:55.858904   392 net.cpp:151] Top shape: 20 64 5 5 (32000)
I0507 10:57:55.858907   392 net.cpp:159] Memory required for data: 11936080
I0507 10:57:55.858911   392 layer_factory.hpp:77] Creating layer ip1
I0507 10:57:55.858917   392 net.cpp:94] Creating Layer ip1
I0507 10:57:55.858922   392 net.cpp:435] ip1 <- pool5
I0507 10:57:55.858927   392 net.cpp:409] ip1 -> ip1
I0507 10:57:55.862360   392 net.cpp:144] Setting up ip1
I0507 10:57:55.862373   392 net.cpp:151] Top shape: 20 64 (1280)
I0507 10:57:55.862377   392 net.cpp:159] Memory required for data: 11941200
I0507 10:57:55.862382   392 layer_factory.hpp:77] Creating layer ip2
I0507 10:57:55.862390   392 net.cpp:94] Creating Layer ip2
I0507 10:57:55.862392   392 net.cpp:435] ip2 <- ip1
I0507 10:57:55.862398   392 net.cpp:409] ip2 -> ip2
I0507 10:57:55.862613   392 net.cpp:144] Setting up ip2
I0507 10:57:55.862622   392 net.cpp:151] Top shape: 20 64 (1280)
I0507 10:57:55.862624   392 net.cpp:159] Memory required for data: 11946320
I0507 10:57:55.862629   392 layer_factory.hpp:77] Creating layer ip3
I0507 10:57:55.862634   392 net.cpp:94] Creating Layer ip3
I0507 10:57:55.862638   392 net.cpp:435] ip3 <- ip2
I0507 10:57:55.862643   392 net.cpp:409] ip3 -> ip3
I0507 10:57:55.862833   392 net.cpp:144] Setting up ip3
I0507 10:57:55.862841   392 net.cpp:151] Top shape: 20 50 (1000)
I0507 10:57:55.862844   392 net.cpp:159] Memory required for data: 11950320
I0507 10:57:55.862849   392 layer_factory.hpp:77] Creating layer loss
I0507 10:57:55.862855   392 net.cpp:94] Creating Layer loss
I0507 10:57:55.862859   392 net.cpp:435] loss <- ip3
I0507 10:57:55.862862   392 net.cpp:435] loss <- label
I0507 10:57:55.862867   392 net.cpp:409] loss -> loss
I0507 10:57:55.862874   392 layer_factory.hpp:77] Creating layer loss
…
I0507 10:57:55.863368   392 solver.cpp:181] Creating test net (#0) specified by net file: ./protocol/dis_50_400_dimension.protocol_distribution
I0507 10:57:55.863394   392 net.cpp:323] The NetState phase (1) differed from the phase (0) specified by a rule in layer parameters
I0507 10:57:55.863486   392 net.cpp:52] Initializing net from parameters: 
state {
  phase: TEST
}
layer {
  name: "intercept"
  type: "HDF5Data"
  top: "data"
  top: "label"
  include {
    phase: TEST
  }
  hdf5_data_param {
    source: "/home/purduethu/scratch/radon/d/deng106/CNNStatisticalModel/distributions/input/50_distributions_400_sample_size_test-distributions-path.txt"
    batch_size: 20
  }
}
layer {
  name: "conv1"
  type: "Convolution"
  bottom: "data"
  top: "conv1"
  param {
    lr_mult: 1
  }
  param {
    lr_mult: 2
  }
  convolution_param {
    num_output: 64
    pad: 2
    kernel_size: 5
    stride: 1
    weight_filler {
      type: "gaussian"
      std: 0.0001
    }
    bias_filler {
      type: "constant"
    }
  }
}
layer {
  name: "relu1"
  type: "ReLU"
  bottom: "conv1"
  top: "conv1"
}
layer {
  name: "conv2"
  type: "Convolution"
  bottom: "conv1"
  top: "conv2"
  param {
    lr_mult: 1
  }
  param {
    lr_mult: 2
  }
  convolution_param {
    num_output: 64
    pad: 2
    kernel_size: 5
    stride: 1
    weight_filler {
      type: "gaussian"
      std: 0.01
    }
    bias_filler {
      type: "constant"
    }
  }
}
layer {
  name: "relu2"
  type: "ReLU"
  bottom: "conv2"
  top: "conv2"
}
layer {
  name: "pool2"
  type: "Pooling"
  bottom: "conv2"
  top: "pool2"
  pooling_param {
    pool: MAX
    kernel_size: 3
    stride: 2
  }
}
layer {
  name: "conv3"
  type: "Convolution"
  bottom: "pool2"
  top: "conv3"
  param {
    lr_mult: 1
  }
  param {
    lr_mult: 2
  }
  convolution_param {
    num_output: 64
    pad: 2
    kernel_size: 5
    stride: 1
    weight_filler {
      type: "gaussian"
      std: 0.01
    }
    bias_filler {
      type: "constant"
    }
  }
}
layer {
  name: "relu3"
  type: "ReLU"
  bottom: "conv3"
  top: "conv3"
}
layer {
  name: "conv4"
  type: "Convolution"
  bottom: "conv3"
  top: "conv4"
  param {
    lr_mult: 1
  }
  param {
    lr_mult: 2
  }
  convolution_param {
    num_output: 64
    pad: 2
    kernel_size: 5
    stride: 1
    weight_filler {
      type: "gaussian"
      std: 0.01
    }
    bias_filler {
      type: "constant"
    }
  }
}
layer {
  name: "relu4"
  type: "ReLU"
  bottom: "conv4"
  top: "conv4"
}
layer {
  name: "conv5"
  type: "Convolution"
  bottom: "conv4"
  top: "conv5"
  param {
    lr_mult: 1
  }
  param {
    lr_mult: 2
  }
  convolution_param {
    num_output: 64
    pad: 2
    kernel_size: 5
    stride: 1
    weight_filler {
      type: "gaussian"
      std: 0.01
    }
    bias_filler {
      type: "constant"
    }
  }
}
layer {
  name: "relu5"
  type: "ReLU"
  bottom: "conv5"
  top: "conv5"
}
layer {
  name: "pool5"
  type: "Pooling"
  bottom: "conv5"
  top: "pool5"
  pooling_param {
    pool: AVE
    kernel_size: 3
    stride: 2
  }
}
layer {
  name: "ip1"
  type: "InnerProduct"
  bottom: "pool5"
  top: "ip1"
  param {
    lr_mult: 1
  }
  param {
    lr_mult: 2
  }
  inner_product_param {
    num_output: 64
    weight_filler {
      type: "gaussian"
      std: 0.1
    }
    bias_filler {
      type: "constant"
    }
  }
}
layer {
  name: "ip2"
  type: "InnerProduct"
  bottom: "ip1"
  top: "ip2"
  param {
    lr_mult: 1
  }
  param {
    lr_mult: 2
  }
  inner_product_param {
    num_output: 64
    weight_filler {
      type: "gaussian"
      std: 0.1
    }
    bias_filler {
      type: "constant"
    }
  }
}
layer {
  name: "ip3"
  type: "InnerProduct"
  bottom: "ip2"
  top: "ip3"
  param {
    lr_mult: 1
  }
  param {
    lr_mult: 2
  }
  inner_product_param {
    num_output: 50
    weight_filler {
      type: "gaussian"
      std: 0.1
    }
    bias_filler {
      type: "constant"
    }
  }
}
layer {
  name: "accuracy"
  type: "Accuracy"
  bottom: "ip3"
  bottom: "label"
  top: "accuracy"
  include {
    phase: TEST
  }
}
layer {
  name: "loss"
  type: "SoftmaxWithLoss"
  bottom: "ip3"
  bottom: "label"
  top: "loss"
}
I0507 10:57:55.863548   392 layer_factory.hpp:77] Creating layer intercept
I0507 10:57:55.863556   392 net.cpp:94] Creating Layer intercept
I0507 10:57:55.863560   392 net.cpp:409] intercept -> data
I0507 10:57:55.863567   392 net.cpp:409] intercept -> label
I0507 10:57:55.863574   392 hdf5_data_layer.cpp:79] Loading list of HDF5 filenames from: /home/purduethu/scratch/radon/d/deng106/CNNStatisticalModel/distributions/input/50_distributions_400_sample_size_test-distributions-path.txt
I0507 10:57:55.863592   392 hdf5_data_layer.cpp:93] Number of HDF5 files: 1
I0507 10:57:56.026583   392 net.cpp:144] Setting up intercept
I0507 10:57:56.026620   392 net.cpp:151] Top shape: 20 1 20 20 (8000)
I0507 10:57:56.026626   392 net.cpp:151] Top shape: 20 (20)
I0507 10:57:56.026629   392 net.cpp:159] Memory required for data: 32080
I0507 10:57:56.026635   392 layer_factory.hpp:77] Creating layer label_intercept_1_split
I0507 10:57:56.026655   392 net.cpp:94] Creating Layer label_intercept_1_split
I0507 10:57:56.026659   392 net.cpp:435] label_intercept_1_split <- label
I0507 10:57:56.026665   392 net.cpp:409] label_intercept_1_split -> label_intercept_1_split_0
I0507 10:57:56.026675   392 net.cpp:409] label_intercept_1_split -> label_intercept_1_split_1
I0507 10:57:56.026715   392 net.cpp:144] Setting up label_intercept_1_split
I0507 10:57:56.026721   392 net.cpp:151] Top shape: 20 (20)
I0507 10:57:56.026724   392 net.cpp:151] Top shape: 20 (20)
I0507 10:57:56.026727   392 net.cpp:159] Memory required for data: 32240
I0507 10:57:56.026731   392 layer_factory.hpp:77] Creating layer conv1
I0507 10:57:56.026741   392 net.cpp:94] Creating Layer conv1
I0507 10:57:56.026744   392 net.cpp:435] conv1 <- data
I0507 10:57:56.026749   392 net.cpp:409] conv1 -> conv1
I0507 10:57:56.028122   392 net.cpp:144] Setting up conv1
I0507 10:57:56.028142   392 net.cpp:151] Top shape: 20 64 20 20 (512000)
I0507 10:57:56.028146   392 net.cpp:159] Memory required for data: 2080240
I0507 10:57:56.028156   392 layer_factory.hpp:77] Creating layer relu1
I0507 10:57:56.028163   392 net.cpp:94] Creating Layer relu1
I0507 10:57:56.028167   392 net.cpp:435] relu1 <- conv1
I0507 10:57:56.028172   392 net.cpp:396] relu1 -> conv1 (in-place)
I0507 10:57:56.028178   392 net.cpp:144] Setting up relu1
I0507 10:57:56.028183   392 net.cpp:151] Top shape: 20 64 20 20 (512000)
I0507 10:57:56.028187   392 net.cpp:159] Memory required for data: 4128240
I0507 10:57:56.028189   392 layer_factory.hpp:77] Creating layer conv2
I0507 10:57:56.028197   392 net.cpp:94] Creating Layer conv2
I0507 10:57:56.028200   392 net.cpp:435] conv2 <- conv1
I0507 10:57:56.028205   392 net.cpp:409] conv2 -> conv2
I0507 10:57:56.033215   392 net.cpp:144] Setting up conv2
I0507 10:57:56.033229   392 net.cpp:151] Top shape: 20 64 20 20 (512000)
I0507 10:57:56.033233   392 net.cpp:159] Memory required for data: 6176240
I0507 10:57:56.033241   392 layer_factory.hpp:77] Creating layer relu2
I0507 10:57:56.033247   392 net.cpp:94] Creating Layer relu2
I0507 10:57:56.033252   392 net.cpp:435] relu2 <- conv2
I0507 10:57:56.033255   392 net.cpp:396] relu2 -> conv2 (in-place)
I0507 10:57:56.033262   392 net.cpp:144] Setting up relu2
I0507 10:57:56.033267   392 net.cpp:151] Top shape: 20 64 20 20 (512000)
I0507 10:57:56.033269   392 net.cpp:159] Memory required for data: 8224240
I0507 10:57:56.033272   392 layer_factory.hpp:77] Creating layer pool2
I0507 10:57:56.033280   392 net.cpp:94] Creating Layer pool2
I0507 10:57:56.033283   392 net.cpp:435] pool2 <- conv2
I0507 10:57:56.033288   392 net.cpp:409] pool2 -> pool2
I0507 10:57:56.033344   392 net.cpp:144] Setting up pool2
I0507 10:57:56.033350   392 net.cpp:151] Top shape: 20 64 10 10 (128000)
I0507 10:57:56.033354   392 net.cpp:159] Memory required for data: 8736240
I0507 10:57:56.033356   392 layer_factory.hpp:77] Creating layer conv3
I0507 10:57:56.033365   392 net.cpp:94] Creating Layer conv3
I0507 10:57:56.033370   392 net.cpp:435] conv3 <- pool2
I0507 10:57:56.033375   392 net.cpp:409] conv3 -> conv3
I0507 10:57:56.037915   392 net.cpp:144] Setting up conv3
I0507 10:57:56.037931   392 net.cpp:151] Top shape: 20 64 10 10 (128000)
I0507 10:57:56.037935   392 net.cpp:159] Memory required for data: 9248240
I0507 10:57:56.037943   392 layer_factory.hpp:77] Creating layer relu3
I0507 10:57:56.037951   392 net.cpp:94] Creating Layer relu3
I0507 10:57:56.037955   392 net.cpp:435] relu3 <- conv3
I0507 10:57:56.037961   392 net.cpp:396] relu3 -> conv3 (in-place)
I0507 10:57:56.037967   392 net.cpp:144] Setting up relu3
I0507 10:57:56.037972   392 net.cpp:151] Top shape: 20 64 10 10 (128000)
I0507 10:57:56.037976   392 net.cpp:159] Memory required for data: 9760240
I0507 10:57:56.037978   392 layer_factory.hpp:77] Creating layer conv4
I0507 10:57:56.037986   392 net.cpp:94] Creating Layer conv4
I0507 10:57:56.037991   392 net.cpp:435] conv4 <- conv3
I0507 10:57:56.037997   392 net.cpp:409] conv4 -> conv4
I0507 10:57:56.041592   392 net.cpp:144] Setting up conv4
I0507 10:57:56.041605   392 net.cpp:151] Top shape: 20 64 10 10 (128000)
I0507 10:57:56.041610   392 net.cpp:159] Memory required for data: 10272240
I0507 10:57:56.041615   392 layer_factory.hpp:77] Creating layer relu4
I0507 10:57:56.041620   392 net.cpp:94] Creating Layer relu4
I0507 10:57:56.041625   392 net.cpp:435] relu4 <- conv4
I0507 10:57:56.041628   392 net.cpp:396] relu4 -> conv4 (in-place)
I0507 10:57:56.041635   392 net.cpp:144] Setting up relu4
I0507 10:57:56.041640   392 net.cpp:151] Top shape: 20 64 10 10 (128000)
I0507 10:57:56.041642   392 net.cpp:159] Memory required for data: 10784240
I0507 10:57:56.041646   392 layer_factory.hpp:77] Creating layer conv5
I0507 10:57:56.041654   392 net.cpp:94] Creating Layer conv5
I0507 10:57:56.041658   392 net.cpp:435] conv5 <- conv4
I0507 10:57:56.041664   392 net.cpp:409] conv5 -> conv5
I0507 10:57:56.046504   392 net.cpp:144] Setting up conv5
I0507 10:57:56.046521   392 net.cpp:151] Top shape: 20 64 10 10 (128000)
I0507 10:57:56.046525   392 net.cpp:159] Memory required for data: 11296240
I0507 10:57:56.046535   392 layer_factory.hpp:77] Creating layer relu5
I0507 10:57:56.046541   392 net.cpp:94] Creating Layer relu5
I0507 10:57:56.046545   392 net.cpp:435] relu5 <- conv5
I0507 10:57:56.046550   392 net.cpp:396] relu5 -> conv5 (in-place)
I0507 10:57:56.046557   392 net.cpp:144] Setting up relu5
I0507 10:57:56.046562   392 net.cpp:151] Top shape: 20 64 10 10 (128000)
I0507 10:57:56.046566   392 net.cpp:159] Memory required for data: 11808240
I0507 10:57:56.046568   392 layer_factory.hpp:77] Creating layer pool5
I0507 10:57:56.046573   392 net.cpp:94] Creating Layer pool5
I0507 10:57:56.046576   392 net.cpp:435] pool5 <- conv5
I0507 10:57:56.046581   392 net.cpp:409] pool5 -> pool5
I0507 10:57:56.046617   392 net.cpp:144] Setting up pool5
I0507 10:57:56.046625   392 net.cpp:151] Top shape: 20 64 5 5 (32000)
I0507 10:57:56.046628   392 net.cpp:159] Memory required for data: 11936240
I0507 10:57:56.046632   392 layer_factory.hpp:77] Creating layer ip1
I0507 10:57:56.046638   392 net.cpp:94] Creating Layer ip1
I0507 10:57:56.046641   392 net.cpp:435] ip1 <- pool5
I0507 10:57:56.046646   392 net.cpp:409] ip1 -> ip1
I0507 10:57:56.049319   392 net.cpp:144] Setting up ip1
I0507 10:57:56.049329   392 net.cpp:151] Top shape: 20 64 (1280)
I0507 10:57:56.049332   392 net.cpp:159] Memory required for data: 11941360
I0507 10:57:56.049337   392 layer_factory.hpp:77] Creating layer ip2
I0507 10:57:56.049343   392 net.cpp:94] Creating Layer ip2
I0507 10:57:56.049347   392 net.cpp:435] ip2 <- ip1
I0507 10:57:56.049352   392 net.cpp:409] ip2 -> ip2
I0507 10:57:56.049584   392 net.cpp:144] Setting up ip2
I0507 10:57:56.049592   392 net.cpp:151] Top shape: 20 64 (1280)
I0507 10:57:56.049594   392 net.cpp:159] Memory required for data: 11946480
I0507 10:57:56.049600   392 layer_factory.hpp:77] Creating layer ip3
I0507 10:57:56.049609   392 net.cpp:94] Creating Layer ip3
I0507 10:57:56.049613   392 net.cpp:435] ip3 <- ip2
I0507 10:57:56.049619   392 net.cpp:409] ip3 -> ip3
I0507 10:57:56.049820   392 net.cpp:144] Setting up ip3
I0507 10:57:56.049829   392 net.cpp:151] Top shape: 20 50 (1000)
I0507 10:57:56.049831   392 net.cpp:159] Memory required for data: 11950480
I0507 10:57:56.049835   392 layer_factory.hpp:77] Creating layer ip3_ip3_0_split
I0507 10:57:56.049840   392 net.cpp:94] Creating Layer ip3_ip3_0_split
I0507 10:57:56.049844   392 net.cpp:435] ip3_ip3_0_split <- ip3
I0507 10:57:56.049849   392 net.cpp:409] ip3_ip3_0_split -> ip3_ip3_0_split_0
I0507 10:57:56.049854   392 net.cpp:409] ip3_ip3_0_split -> ip3_ip3_0_split_1
I0507 10:57:56.049893   392 net.cpp:144] Setting up ip3_ip3_0_split
I0507 10:57:56.049901   392 net.cpp:151] Top shape: 20 50 (1000)
I0507 10:57:56.049903   392 net.cpp:151] Top shape: 20 50 (1000)
I0507 10:57:56.049906   392 net.cpp:159] Memory required for data: 11958480
I0507 10:57:56.049909   392 layer_factory.hpp:77] Creating layer accuracy
I0507 10:57:56.049916   392 net.cpp:94] Creating Layer accuracy
I0507 10:57:56.049918   392 net.cpp:435] accuracy <- ip3_ip3_0_split_0
I0507 10:57:56.049922   392 net.cpp:435] accuracy <- label_intercept_1_split_0
I0507 10:57:56.049926   392 net.cpp:409] accuracy -> accuracy
…
