…
I0505 15:44:49.937165  7967 net.cpp:323] The NetState phase (0) differed from the phase (1) specified by a rule in layer intercept
I0505 15:44:49.937180  7967 net.cpp:323] The NetState phase (0) differed from the phase (1) specified by a rule in layer loss
I0505 15:44:49.937244  7967 net.cpp:52] Initializing net from parameters: 
state {
  phase: TRAIN
}
layer {
  name: "parameters"
  type: "HDF5Data"
  top: "data"
  top: "label"
  include {
    phase: TRAIN
  }
  hdf5_data_param {
    source: "/home/purduethu/scratch/radon/d/deng106/CNNStatisticalModel/distributions/input/50_distributions_400_sample_size_train-parameters-path.txt"
    batch_size: 20
  }
}
layer {
  name: "conv1"
  type: "Convolution"
  bottom: "data"
  top: "conv1"
  param {
    lr_mult: 1
  }
  param {
    lr_mult: 2
  }
  convolution_param {
    num_output: 64
    pad: 2
    kernel_size: 5
    stride: 1
    weight_filler {
      type: "gaussian"
      std: 0.0001
    }
    bias_filler {
      type: "constant"
    }
  }
}
layer {
  name: "relu1"
  type: "ReLU"
  bottom: "conv1"
  top: "conv1"
}
layer {
  name: "pool1"
  type: "Pooling"
  bottom: "conv1"
  top: "pool1"
  pooling_param {
    pool: MAX
    kernel_size: 3
    stride: 2
  }
}
layer {
  name: "conv2"
  type: "Convolution"
  bottom: "pool1"
  top: "conv2"
  param {
    lr_mult: 1
  }
  param {
    lr_mult: 2
  }
  convolution_param {
    num_output: 128
    pad: 2
    kernel_size: 5
    stride: 1
    weight_filler {
      type: "gaussian"
      std: 0.01
    }
    bias_filler {
      type: "constant"
    }
  }
}
layer {
  name: "relu2"
  type: "ReLU"
  bottom: "conv2"
  top: "conv2"
}
layer {
  name: "conv3"
  type: "Convolution"
  bottom: "conv2"
  top: "conv3"
  param {
    lr_mult: 1
  }
  param {
    lr_mult: 2
  }
  convolution_param {
    num_output: 128
    pad: 2
    kernel_size: 5
    stride: 1
    weight_filler {
      type: "gaussian"
      std: 0.01
    }
    bias_filler {
      type: "constant"
    }
  }
}
layer {
  name: "relu3"
  type: "ReLU"
  bottom: "conv3"
  top: "conv3"
}
layer {
  name: "pool3"
  type: "Pooling"
  bottom: "conv3"
  top: "pool3"
  pooling_param {
    pool: AVE
    kernel_size: 3
    stride: 2
  }
}
layer {
  name: "ip1"
  type: "InnerProduct"
  bottom: "pool3"
  top: "ip1"
  param {
    lr_mult: 1
  }
  param {
    lr_mult: 2
  }
  inner_product_param {
    num_output: 512
    weight_filler {
      type: "gaussian"
      std: 0.1
    }
    bias_filler {
      type: "constant"
    }
  }
}
layer {
  name: "ip2"
  type: "InnerProduct"
  bottom: "ip1"
  top: "ip2"
  param {
    lr_mult: 1
  }
  param {
    lr_mult: 2
  }
  inner_product_param {
    num_output: 256
    weight_filler {
      type: "gaussian"
      std: 0.1
    }
    bias_filler {
      type: "constant"
    }
  }
}
layer {
  name: "ip3"
  type: "InnerProduct"
  bottom: "ip2"
  top: "ip3"
  param {
    lr_mult: 1
  }
  param {
    lr_mult: 2
  }
  inner_product_param {
    num_output: 1
    weight_filler {
      type: "gaussian"
      std: 0.1
    }
    bias_filler {
      type: "constant"
    }
  }
}
layer {
  name: "loss"
  type: "HuberLoss"
  bottom: "ip3"
  bottom: "label"
  top: "loss"
  include {
    phase: TRAIN
  }
}
I0505 15:44:49.937290  7967 layer_factory.hpp:77] Creating layer parameters
I0505 15:44:49.937307  7967 net.cpp:94] Creating Layer parameters
I0505 15:44:49.937312  7967 net.cpp:409] parameters -> data
I0505 15:44:49.937321  7967 net.cpp:409] parameters -> label
I0505 15:44:49.937328  7967 hdf5_data_layer.cpp:79] Loading list of HDF5 filenames from: /home/purduethu/scratch/radon/d/deng106/CNNStatisticalModel/distributions/input/50_distributions_400_sample_size_train-parameters-path.txt
I0505 15:44:49.937343  7967 hdf5_data_layer.cpp:93] Number of HDF5 files: 1
I0505 15:44:49.937778  7967 hdf5.cpp:32] Datatype class: H5T_FLOAT
I0505 15:44:50.579654  7967 net.cpp:144] Setting up parameters
I0505 15:44:50.579686  7967 net.cpp:151] Top shape: 20 1 20 20 (8000)
I0505 15:44:50.579691  7967 net.cpp:151] Top shape: 20 (20)
I0505 15:44:50.579694  7967 net.cpp:159] Memory required for data: 32080
I0505 15:44:50.579700  7967 layer_factory.hpp:77] Creating layer conv1
I0505 15:44:50.579717  7967 net.cpp:94] Creating Layer conv1
I0505 15:44:50.579721  7967 net.cpp:435] conv1 <- data
I0505 15:44:50.579727  7967 net.cpp:409] conv1 -> conv1
I0505 15:44:50.585259  7967 net.cpp:144] Setting up conv1
I0505 15:44:50.585278  7967 net.cpp:151] Top shape: 20 64 20 20 (512000)
I0505 15:44:50.585281  7967 net.cpp:159] Memory required for data: 2080080
I0505 15:44:50.585291  7967 layer_factory.hpp:77] Creating layer relu1
I0505 15:44:50.585300  7967 net.cpp:94] Creating Layer relu1
I0505 15:44:50.585304  7967 net.cpp:435] relu1 <- conv1
I0505 15:44:50.585309  7967 net.cpp:396] relu1 -> conv1 (in-place)
I0505 15:44:50.585316  7967 net.cpp:144] Setting up relu1
I0505 15:44:50.585321  7967 net.cpp:151] Top shape: 20 64 20 20 (512000)
I0505 15:44:50.585325  7967 net.cpp:159] Memory required for data: 4128080
I0505 15:44:50.585327  7967 layer_factory.hpp:77] Creating layer pool1
I0505 15:44:50.585332  7967 net.cpp:94] Creating Layer pool1
I0505 15:44:50.585335  7967 net.cpp:435] pool1 <- conv1
I0505 15:44:50.585340  7967 net.cpp:409] pool1 -> pool1
I0505 15:44:50.585396  7967 net.cpp:144] Setting up pool1
I0505 15:44:50.585402  7967 net.cpp:151] Top shape: 20 64 10 10 (128000)
I0505 15:44:50.585405  7967 net.cpp:159] Memory required for data: 4640080
I0505 15:44:50.585408  7967 layer_factory.hpp:77] Creating layer conv2
I0505 15:44:50.585417  7967 net.cpp:94] Creating Layer conv2
I0505 15:44:50.585420  7967 net.cpp:435] conv2 <- pool1
I0505 15:44:50.585425  7967 net.cpp:409] conv2 -> conv2
I0505 15:44:50.596161  7967 net.cpp:144] Setting up conv2
I0505 15:44:50.596175  7967 net.cpp:151] Top shape: 20 128 10 10 (256000)
I0505 15:44:50.596179  7967 net.cpp:159] Memory required for data: 5664080
I0505 15:44:50.596187  7967 layer_factory.hpp:77] Creating layer relu2
I0505 15:44:50.596194  7967 net.cpp:94] Creating Layer relu2
I0505 15:44:50.596197  7967 net.cpp:435] relu2 <- conv2
I0505 15:44:50.596201  7967 net.cpp:396] relu2 -> conv2 (in-place)
I0505 15:44:50.596209  7967 net.cpp:144] Setting up relu2
I0505 15:44:50.596212  7967 net.cpp:151] Top shape: 20 128 10 10 (256000)
I0505 15:44:50.596215  7967 net.cpp:159] Memory required for data: 6688080
I0505 15:44:50.596218  7967 layer_factory.hpp:77] Creating layer conv3
I0505 15:44:50.596226  7967 net.cpp:94] Creating Layer conv3
I0505 15:44:50.596230  7967 net.cpp:435] conv3 <- conv2
I0505 15:44:50.596235  7967 net.cpp:409] conv3 -> conv3
I0505 15:44:50.614413  7967 net.cpp:144] Setting up conv3
I0505 15:44:50.614428  7967 net.cpp:151] Top shape: 20 128 10 10 (256000)
I0505 15:44:50.614431  7967 net.cpp:159] Memory required for data: 7712080
I0505 15:44:50.614439  7967 layer_factory.hpp:77] Creating layer relu3
I0505 15:44:50.614451  7967 net.cpp:94] Creating Layer relu3
I0505 15:44:50.614455  7967 net.cpp:435] relu3 <- conv3
I0505 15:44:50.614460  7967 net.cpp:396] relu3 -> conv3 (in-place)
I0505 15:44:50.614467  7967 net.cpp:144] Setting up relu3
I0505 15:44:50.614472  7967 net.cpp:151] Top shape: 20 128 10 10 (256000)
I0505 15:44:50.614475  7967 net.cpp:159] Memory required for data: 8736080
I0505 15:44:50.614478  7967 layer_factory.hpp:77] Creating layer pool3
I0505 15:44:50.614483  7967 net.cpp:94] Creating Layer pool3
I0505 15:44:50.614486  7967 net.cpp:435] pool3 <- conv3
I0505 15:44:50.614490  7967 net.cpp:409] pool3 -> pool3
I0505 15:44:50.614531  7967 net.cpp:144] Setting up pool3
I0505 15:44:50.614538  7967 net.cpp:151] Top shape: 20 128 5 5 (64000)
I0505 15:44:50.614542  7967 net.cpp:159] Memory required for data: 8992080
I0505 15:44:50.614544  7967 layer_factory.hpp:77] Creating layer ip1
I0505 15:44:50.614554  7967 net.cpp:94] Creating Layer ip1
I0505 15:44:50.614558  7967 net.cpp:435] ip1 <- pool3
I0505 15:44:50.614562  7967 net.cpp:409] ip1 -> ip1
I0505 15:44:50.654222  7967 net.cpp:144] Setting up ip1
I0505 15:44:50.654238  7967 net.cpp:151] Top shape: 20 512 (10240)
I0505 15:44:50.654242  7967 net.cpp:159] Memory required for data: 9033040
I0505 15:44:50.654249  7967 layer_factory.hpp:77] Creating layer ip2
I0505 15:44:50.654258  7967 net.cpp:94] Creating Layer ip2
I0505 15:44:50.654263  7967 net.cpp:435] ip2 <- ip1
I0505 15:44:50.654268  7967 net.cpp:409] ip2 -> ip2
I0505 15:44:50.657408  7967 net.cpp:144] Setting up ip2
I0505 15:44:50.657418  7967 net.cpp:151] Top shape: 20 256 (5120)
I0505 15:44:50.657421  7967 net.cpp:159] Memory required for data: 9053520
I0505 15:44:50.657428  7967 layer_factory.hpp:77] Creating layer ip3
I0505 15:44:50.657434  7967 net.cpp:94] Creating Layer ip3
I0505 15:44:50.657438  7967 net.cpp:435] ip3 <- ip2
I0505 15:44:50.657443  7967 net.cpp:409] ip3 -> ip3
I0505 15:44:50.657543  7967 net.cpp:144] Setting up ip3
I0505 15:44:50.657551  7967 net.cpp:151] Top shape: 20 1 (20)
I0505 15:44:50.657553  7967 net.cpp:159] Memory required for data: 9053600
I0505 15:44:50.657558  7967 layer_factory.hpp:77] Creating layer loss
I0505 15:44:50.657570  7967 net.cpp:94] Creating Layer loss
I0505 15:44:50.657574  7967 net.cpp:435] loss <- ip3
I0505 15:44:50.657578  7967 net.cpp:435] loss <- label
I0505 15:44:50.657582  7967 net.cpp:409] loss -> loss
I0505 15:44:50.657631  7967 net.cpp:144] Setting up loss
…
I0505 15:44:50.881911  7967 net.cpp:323] The NetState phase (0) differed from the phase (1) specified by a rule in layer intercept
I0505 15:44:50.881923  7967 net.cpp:323] The NetState phase (0) differed from the phase (1) specified by a rule in layer accuracy
I0505 15:44:50.881991  7967 net.cpp:52] Initializing net from parameters: 
state {
  phase: TRAIN
}
layer {
  name: "parameters"
  type: "HDF5Data"
  top: "data"
  top: "label"
  include {
    phase: TRAIN
  }
  hdf5_data_param {
    source: "/home/purduethu/scratch/radon/d/deng106/CNNStatisticalModel/distributions/input/50_distributions_400_sample_size_train-distributions-path.txt"
    batch_size: 20
  }
}
layer {
  name: "conv1"
  type: "Convolution"
  bottom: "data"
  top: "conv1"
  param {
    lr_mult: 1
  }
  param {
    lr_mult: 2
  }
  convolution_param {
    num_output: 64
    pad: 2
    kernel_size: 5
    stride: 1
    weight_filler {
      type: "gaussian"
      std: 0.0001
    }
    bias_filler {
      type: "constant"
    }
  }
}
layer {
  name: "relu1"
  type: "ReLU"
  bottom: "conv1"
  top: "conv1"
}
layer {
  name: "pool1"
  type: "Pooling"
  bottom: "conv1"
  top: "pool1"
  pooling_param {
    pool: MAX
    kernel_size: 3
    stride: 2
  }
}
layer {
  name: "conv2"
  type: "Convolution"
  bottom: "pool1"
  top: "conv2"
  param {
    lr_mult: 1
  }
  param {
    lr_mult: 2
  }
  convolution_param {
    num_output: 128
    pad: 2
    kernel_size: 5
    stride: 1
    weight_filler {
      type: "gaussian"
      std: 0.01
    }
    bias_filler {
      type: "constant"
    }
  }
}
layer {
  name: "relu2"
  type: "ReLU"
  bottom: "conv2"
  top: "conv2"
}
layer {
  name: "conv3"
  type: "Convolution"
  bottom: "conv2"
  top: "conv3"
  param {
    lr_mult: 1
  }
  param {
    lr_mult: 2
  }
  convolution_param {
    num_output: 128
    pad: 2
    kernel_size: 5
    stride: 1
    weight_filler {
      type: "gaussian"
      std: 0.01
    }
    bias_filler {
      type: "constant"
    }
  }
}
layer {
  name: "relu3"
  type: "ReLU"
  bottom: "conv3"
  top: "conv3"
}
layer {
  name: "pool3"
  type: "Pooling"
  bottom: "conv3"
  top: "pool3"
  pooling_param {
    pool: AVE
    kernel_size: 3
    stride: 2
  }
}
layer {
  name: "ip1"
  type: "InnerProduct"
  bottom: "pool3"
  top: "ip1"
  param {
    lr_mult: 1
  }
  param {
    lr_mult: 2
  }
  inner_product_param {
    num_output: 512
    weight_filler {
      type: "gaussian"
      std: 0.1
    }
    bias_filler {
      type: "constant"
    }
  }
}
layer {
  name: "ip2"
  type: "InnerProduct"
  bottom: "ip1"
  top: "ip2"
  param {
    lr_mult: 1
  }
  param {
    lr_mult: 2
  }
  inner_product_param {
    num_output: 256
    weight_filler {
      type: "gaussian"
      std: 0.1
    }
    bias_filler {
      type: "constant"
    }
  }
}
layer {
  name: "ip3"
  type: "InnerProduct"
  bottom: "ip2"
  top: "ip3"
  param {
    lr_mult: 1
  }
  param {
    lr_mult: 2
  }
  inner_product_param {
    num_output: 50
    weight_filler {
      type: "gaussian"
      std: 0.1
    }
    bias_filler {
      type: "constant"
    }
  }
}
layer {
  name: "loss"
  type: "SoftmaxWithLoss"
  bottom: "ip3"
  bottom: "label"
  top: "loss"
}
I0505 15:44:50.882032  7967 layer_factory.hpp:77] Creating layer parameters
I0505 15:44:50.882040  7967 net.cpp:94] Creating Layer parameters
I0505 15:44:50.882043  7967 net.cpp:409] parameters -> data
I0505 15:44:50.882051  7967 net.cpp:409] parameters -> label
I0505 15:44:50.882057  7967 hdf5_data_layer.cpp:79] Loading list of HDF5 filenames from: /home/purduethu/scratch/radon/d/deng106/CNNStatisticalModel/distributions/input/50_distributions_400_sample_size_train-distributions-path.txt
I0505 15:44:50.882072  7967 hdf5_data_layer.cpp:93] Number of HDF5 files: 1
I0505 15:44:51.517837  7967 hdf5.cpp:35] Datatype class: H5T_INTEGER
I0505 15:44:51.520804  7967 net.cpp:144] Setting up parameters
I0505 15:44:51.520826  7967 net.cpp:151] Top shape: 20 1 20 20 (8000)
I0505 15:44:51.520831  7967 net.cpp:151] Top shape: 20 (20)
I0505 15:44:51.520834  7967 net.cpp:159] Memory required for data: 32080
I0505 15:44:51.520840  7967 layer_factory.hpp:77] Creating layer conv1
I0505 15:44:51.520867  7967 net.cpp:94] Creating Layer conv1
I0505 15:44:51.520871  7967 net.cpp:435] conv1 <- data
I0505 15:44:51.520879  7967 net.cpp:409] conv1 -> conv1
I0505 15:44:51.523246  7967 net.cpp:144] Setting up conv1
I0505 15:44:51.523259  7967 net.cpp:151] Top shape: 20 64 20 20 (512000)
I0505 15:44:51.523263  7967 net.cpp:159] Memory required for data: 2080080
I0505 15:44:51.523272  7967 layer_factory.hpp:77] Creating layer relu1
I0505 15:44:51.523280  7967 net.cpp:94] Creating Layer relu1
I0505 15:44:51.523283  7967 net.cpp:435] relu1 <- conv1
I0505 15:44:51.523288  7967 net.cpp:396] relu1 -> conv1 (in-place)
I0505 15:44:51.523295  7967 net.cpp:144] Setting up relu1
I0505 15:44:51.523299  7967 net.cpp:151] Top shape: 20 64 20 20 (512000)
I0505 15:44:51.523303  7967 net.cpp:159] Memory required for data: 4128080
I0505 15:44:51.523305  7967 layer_factory.hpp:77] Creating layer pool1
I0505 15:44:51.523310  7967 net.cpp:94] Creating Layer pool1
I0505 15:44:51.523313  7967 net.cpp:435] pool1 <- conv1
I0505 15:44:51.523324  7967 net.cpp:409] pool1 -> pool1
I0505 15:44:51.523377  7967 net.cpp:144] Setting up pool1
I0505 15:44:51.523385  7967 net.cpp:151] Top shape: 20 64 10 10 (128000)
I0505 15:44:51.523387  7967 net.cpp:159] Memory required for data: 4640080
I0505 15:44:51.523391  7967 layer_factory.hpp:77] Creating layer conv2
I0505 15:44:51.523399  7967 net.cpp:94] Creating Layer conv2
I0505 15:44:51.523403  7967 net.cpp:435] conv2 <- pool1
I0505 15:44:51.523408  7967 net.cpp:409] conv2 -> conv2
I0505 15:44:51.534461  7967 net.cpp:144] Setting up conv2
I0505 15:44:51.534477  7967 net.cpp:151] Top shape: 20 128 10 10 (256000)
I0505 15:44:51.534482  7967 net.cpp:159] Memory required for data: 5664080
I0505 15:44:51.534489  7967 layer_factory.hpp:77] Creating layer relu2
I0505 15:44:51.534497  7967 net.cpp:94] Creating Layer relu2
I0505 15:44:51.534499  7967 net.cpp:435] relu2 <- conv2
I0505 15:44:51.534504  7967 net.cpp:396] relu2 -> conv2 (in-place)
I0505 15:44:51.534512  7967 net.cpp:144] Setting up relu2
I0505 15:44:51.534515  7967 net.cpp:151] Top shape: 20 128 10 10 (256000)
I0505 15:44:51.534518  7967 net.cpp:159] Memory required for data: 6688080
I0505 15:44:51.534521  7967 layer_factory.hpp:77] Creating layer conv3
I0505 15:44:51.534530  7967 net.cpp:94] Creating Layer conv3
I0505 15:44:51.534534  7967 net.cpp:435] conv3 <- conv2
I0505 15:44:51.534538  7967 net.cpp:409] conv3 -> conv3
I0505 15:44:51.552732  7967 net.cpp:144] Setting up conv3
I0505 15:44:51.552748  7967 net.cpp:151] Top shape: 20 128 10 10 (256000)
I0505 15:44:51.552752  7967 net.cpp:159] Memory required for data: 7712080
I0505 15:44:51.552760  7967 layer_factory.hpp:77] Creating layer relu3
I0505 15:44:51.552767  7967 net.cpp:94] Creating Layer relu3
I0505 15:44:51.552769  7967 net.cpp:435] relu3 <- conv3
I0505 15:44:51.552774  7967 net.cpp:396] relu3 -> conv3 (in-place)
I0505 15:44:51.552780  7967 net.cpp:144] Setting up relu3
I0505 15:44:51.552785  7967 net.cpp:151] Top shape: 20 128 10 10 (256000)
I0505 15:44:51.552788  7967 net.cpp:159] Memory required for data: 8736080
I0505 15:44:51.552790  7967 layer_factory.hpp:77] Creating layer pool3
I0505 15:44:51.552798  7967 net.cpp:94] Creating Layer pool3
I0505 15:44:51.552801  7967 net.cpp:435] pool3 <- conv3
I0505 15:44:51.552805  7967 net.cpp:409] pool3 -> pool3
I0505 15:44:51.552847  7967 net.cpp:144] Setting up pool3
I0505 15:44:51.552855  7967 net.cpp:151] Top shape: 20 128 5 5 (64000)
I0505 15:44:51.552857  7967 net.cpp:159] Memory required for data: 8992080
I0505 15:44:51.552860  7967 layer_factory.hpp:77] Creating layer ip1
I0505 15:44:51.552868  7967 net.cpp:94] Creating Layer ip1
I0505 15:44:51.552871  7967 net.cpp:435] ip1 <- pool3
I0505 15:44:51.552877  7967 net.cpp:409] ip1 -> ip1
I0505 15:44:51.592612  7967 net.cpp:144] Setting up ip1
I0505 15:44:51.592635  7967 net.cpp:151] Top shape: 20 512 (10240)
I0505 15:44:51.592639  7967 net.cpp:159] Memory required for data: 9033040
I0505 15:44:51.592648  7967 layer_factory.hpp:77] Creating layer ip2
I0505 15:44:51.592656  7967 net.cpp:94] Creating Layer ip2
I0505 15:44:51.592660  7967 net.cpp:435] ip2 <- ip1
I0505 15:44:51.592666  7967 net.cpp:409] ip2 -> ip2
I0505 15:44:51.595830  7967 net.cpp:144] Setting up ip2
I0505 15:44:51.595839  7967 net.cpp:151] Top shape: 20 256 (5120)
I0505 15:44:51.595842  7967 net.cpp:159] Memory required for data: 9053520
I0505 15:44:51.595849  7967 layer_factory.hpp:77] Creating layer ip3
I0505 15:44:51.595859  7967 net.cpp:94] Creating Layer ip3
I0505 15:44:51.595861  7967 net.cpp:435] ip3 <- ip2
I0505 15:44:51.595867  7967 net.cpp:409] ip3 -> ip3
I0505 15:44:51.597229  7967 net.cpp:144] Setting up ip3
I0505 15:44:51.597244  7967 net.cpp:151] Top shape: 20 50 (1000)
I0505 15:44:51.597249  7967 net.cpp:159] Memory required for data: 9057520
I0505 15:44:51.597254  7967 layer_factory.hpp:77] Creating layer loss
I0505 15:44:51.597260  7967 net.cpp:94] Creating Layer loss
I0505 15:44:51.597264  7967 net.cpp:435] loss <- ip3
I0505 15:44:51.597268  7967 net.cpp:435] loss <- label
I0505 15:44:51.597280  7967 net.cpp:409] loss -> loss
I0505 15:44:51.597287  7967 layer_factory.hpp:77] Creating layer loss
…
I0505 15:44:51.597743  7967 solver.cpp:181] Creating test net (#0) specified by net file: ./protocol/dis_50_400_dimension.protocol_distribution
I0505 15:44:51.597766  7967 net.cpp:323] The NetState phase (1) differed from the phase (0) specified by a rule in layer parameters
I0505 15:44:51.597848  7967 net.cpp:52] Initializing net from parameters: 
state {
  phase: TEST
}
layer {
  name: "intercept"
  type: "HDF5Data"
  top: "data"
  top: "label"
  include {
    phase: TEST
  }
  hdf5_data_param {
    source: "/home/purduethu/scratch/radon/d/deng106/CNNStatisticalModel/distributions/input/50_distributions_400_sample_size_test-distributions-path.txt"
    batch_size: 20
  }
}
layer {
  name: "conv1"
  type: "Convolution"
  bottom: "data"
  top: "conv1"
  param {
    lr_mult: 1
  }
  param {
    lr_mult: 2
  }
  convolution_param {
    num_output: 64
    pad: 2
    kernel_size: 5
    stride: 1
    weight_filler {
      type: "gaussian"
      std: 0.0001
    }
    bias_filler {
      type: "constant"
    }
  }
}
layer {
  name: "relu1"
  type: "ReLU"
  bottom: "conv1"
  top: "conv1"
}
layer {
  name: "pool1"
  type: "Pooling"
  bottom: "conv1"
  top: "pool1"
  pooling_param {
    pool: MAX
    kernel_size: 3
    stride: 2
  }
}
layer {
  name: "conv2"
  type: "Convolution"
  bottom: "pool1"
  top: "conv2"
  param {
    lr_mult: 1
  }
  param {
    lr_mult: 2
  }
  convolution_param {
    num_output: 128
    pad: 2
    kernel_size: 5
    stride: 1
    weight_filler {
      type: "gaussian"
      std: 0.01
    }
    bias_filler {
      type: "constant"
    }
  }
}
layer {
  name: "relu2"
  type: "ReLU"
  bottom: "conv2"
  top: "conv2"
}
layer {
  name: "conv3"
  type: "Convolution"
  bottom: "conv2"
  top: "conv3"
  param {
    lr_mult: 1
  }
  param {
    lr_mult: 2
  }
  convolution_param {
    num_output: 128
    pad: 2
    kernel_size: 5
    stride: 1
    weight_filler {
      type: "gaussian"
      std: 0.01
    }
    bias_filler {
      type: "constant"
    }
  }
}
layer {
  name: "relu3"
  type: "ReLU"
  bottom: "conv3"
  top: "conv3"
}
layer {
  name: "pool3"
  type: "Pooling"
  bottom: "conv3"
  top: "pool3"
  pooling_param {
    pool: AVE
    kernel_size: 3
    stride: 2
  }
}
layer {
  name: "ip1"
  type: "InnerProduct"
  bottom: "pool3"
  top: "ip1"
  param {
    lr_mult: 1
  }
  param {
    lr_mult: 2
  }
  inner_product_param {
    num_output: 512
    weight_filler {
      type: "gaussian"
      std: 0.1
    }
    bias_filler {
      type: "constant"
    }
  }
}
layer {
  name: "ip2"
  type: "InnerProduct"
  bottom: "ip1"
  top: "ip2"
  param {
    lr_mult: 1
  }
  param {
    lr_mult: 2
  }
  inner_product_param {
    num_output: 256
    weight_filler {
      type: "gaussian"
      std: 0.1
    }
    bias_filler {
      type: "constant"
    }
  }
}
layer {
  name: "ip3"
  type: "InnerProduct"
  bottom: "ip2"
  top: "ip3"
  param {
    lr_mult: 1
  }
  param {
    lr_mult: 2
  }
  inner_product_param {
    num_output: 50
    weight_filler {
      type: "gaussian"
      std: 0.1
    }
    bias_filler {
      type: "constant"
    }
  }
}
layer {
  name: "accuracy"
  type: "Accuracy"
  bottom: "ip3"
  bottom: "label"
  top: "accuracy"
  include {
    phase: TEST
  }
}
layer {
  name: "loss"
  type: "SoftmaxWithLoss"
  bottom: "ip3"
  bottom: "label"
  top: "loss"
}
I0505 15:44:51.597906  7967 layer_factory.hpp:77] Creating layer intercept
I0505 15:44:51.597914  7967 net.cpp:94] Creating Layer intercept
I0505 15:44:51.597918  7967 net.cpp:409] intercept -> data
I0505 15:44:51.597925  7967 net.cpp:409] intercept -> label
I0505 15:44:51.597931  7967 hdf5_data_layer.cpp:79] Loading list of HDF5 filenames from: /home/purduethu/scratch/radon/d/deng106/CNNStatisticalModel/distributions/input/50_distributions_400_sample_size_test-distributions-path.txt
I0505 15:44:51.597954  7967 hdf5_data_layer.cpp:93] Number of HDF5 files: 1
I0505 15:44:51.759511  7967 net.cpp:144] Setting up intercept
I0505 15:44:51.759542  7967 net.cpp:151] Top shape: 20 1 20 20 (8000)
I0505 15:44:51.759548  7967 net.cpp:151] Top shape: 20 (20)
I0505 15:44:51.759552  7967 net.cpp:159] Memory required for data: 32080
I0505 15:44:51.759557  7967 layer_factory.hpp:77] Creating layer label_intercept_1_split
I0505 15:44:51.759575  7967 net.cpp:94] Creating Layer label_intercept_1_split
I0505 15:44:51.759579  7967 net.cpp:435] label_intercept_1_split <- label
I0505 15:44:51.759584  7967 net.cpp:409] label_intercept_1_split -> label_intercept_1_split_0
I0505 15:44:51.759593  7967 net.cpp:409] label_intercept_1_split -> label_intercept_1_split_1
I0505 15:44:51.759636  7967 net.cpp:144] Setting up label_intercept_1_split
I0505 15:44:51.759644  7967 net.cpp:151] Top shape: 20 (20)
I0505 15:44:51.759646  7967 net.cpp:151] Top shape: 20 (20)
I0505 15:44:51.759649  7967 net.cpp:159] Memory required for data: 32240
I0505 15:44:51.759652  7967 layer_factory.hpp:77] Creating layer conv1
I0505 15:44:51.759663  7967 net.cpp:94] Creating Layer conv1
I0505 15:44:51.759666  7967 net.cpp:435] conv1 <- data
I0505 15:44:51.759671  7967 net.cpp:409] conv1 -> conv1
I0505 15:44:51.760543  7967 net.cpp:144] Setting up conv1
I0505 15:44:51.760573  7967 net.cpp:151] Top shape: 20 64 20 20 (512000)
I0505 15:44:51.760578  7967 net.cpp:159] Memory required for data: 2080240
I0505 15:44:51.760587  7967 layer_factory.hpp:77] Creating layer relu1
I0505 15:44:51.760594  7967 net.cpp:94] Creating Layer relu1
I0505 15:44:51.760597  7967 net.cpp:435] relu1 <- conv1
I0505 15:44:51.760601  7967 net.cpp:396] relu1 -> conv1 (in-place)
I0505 15:44:51.760608  7967 net.cpp:144] Setting up relu1
I0505 15:44:51.760613  7967 net.cpp:151] Top shape: 20 64 20 20 (512000)
I0505 15:44:51.760617  7967 net.cpp:159] Memory required for data: 4128240
I0505 15:44:51.760618  7967 layer_factory.hpp:77] Creating layer pool1
I0505 15:44:51.760625  7967 net.cpp:94] Creating Layer pool1
I0505 15:44:51.760628  7967 net.cpp:435] pool1 <- conv1
I0505 15:44:51.760632  7967 net.cpp:409] pool1 -> pool1
I0505 15:44:51.760684  7967 net.cpp:144] Setting up pool1
I0505 15:44:51.760691  7967 net.cpp:151] Top shape: 20 64 10 10 (128000)
I0505 15:44:51.760694  7967 net.cpp:159] Memory required for data: 4640240
I0505 15:44:51.760697  7967 layer_factory.hpp:77] Creating layer conv2
I0505 15:44:51.760705  7967 net.cpp:94] Creating Layer conv2
I0505 15:44:51.760710  7967 net.cpp:435] conv2 <- pool1
I0505 15:44:51.760713  7967 net.cpp:409] conv2 -> conv2
I0505 15:44:51.768426  7967 net.cpp:144] Setting up conv2
I0505 15:44:51.768440  7967 net.cpp:151] Top shape: 20 128 10 10 (256000)
I0505 15:44:51.768445  7967 net.cpp:159] Memory required for data: 5664240
I0505 15:44:51.768452  7967 layer_factory.hpp:77] Creating layer relu2
I0505 15:44:51.768465  7967 net.cpp:94] Creating Layer relu2
I0505 15:44:51.768468  7967 net.cpp:435] relu2 <- conv2
I0505 15:44:51.768473  7967 net.cpp:396] relu2 -> conv2 (in-place)
I0505 15:44:51.768481  7967 net.cpp:144] Setting up relu2
I0505 15:44:51.768484  7967 net.cpp:151] Top shape: 20 128 10 10 (256000)
I0505 15:44:51.768487  7967 net.cpp:159] Memory required for data: 6688240
I0505 15:44:51.768491  7967 layer_factory.hpp:77] Creating layer conv3
I0505 15:44:51.768501  7967 net.cpp:94] Creating Layer conv3
I0505 15:44:51.768503  7967 net.cpp:435] conv3 <- conv2
I0505 15:44:51.768508  7967 net.cpp:409] conv3 -> conv3
I0505 15:44:51.782171  7967 net.cpp:144] Setting up conv3
I0505 15:44:51.782184  7967 net.cpp:151] Top shape: 20 128 10 10 (256000)
I0505 15:44:51.782188  7967 net.cpp:159] Memory required for data: 7712240
I0505 15:44:51.782196  7967 layer_factory.hpp:77] Creating layer relu3
I0505 15:44:51.782204  7967 net.cpp:94] Creating Layer relu3
I0505 15:44:51.782207  7967 net.cpp:435] relu3 <- conv3
I0505 15:44:51.782212  7967 net.cpp:396] relu3 -> conv3 (in-place)
I0505 15:44:51.782218  7967 net.cpp:144] Setting up relu3
I0505 15:44:51.782223  7967 net.cpp:151] Top shape: 20 128 10 10 (256000)
I0505 15:44:51.782225  7967 net.cpp:159] Memory required for data: 8736240
I0505 15:44:51.782228  7967 layer_factory.hpp:77] Creating layer pool3
I0505 15:44:51.782235  7967 net.cpp:94] Creating Layer pool3
I0505 15:44:51.782238  7967 net.cpp:435] pool3 <- conv3
I0505 15:44:51.782243  7967 net.cpp:409] pool3 -> pool3
I0505 15:44:51.782285  7967 net.cpp:144] Setting up pool3
I0505 15:44:51.782292  7967 net.cpp:151] Top shape: 20 128 5 5 (64000)
I0505 15:44:51.782295  7967 net.cpp:159] Memory required for data: 8992240
I0505 15:44:51.782299  7967 layer_factory.hpp:77] Creating layer ip1
I0505 15:44:51.782306  7967 net.cpp:94] Creating Layer ip1
I0505 15:44:51.782310  7967 net.cpp:435] ip1 <- pool3
I0505 15:44:51.782315  7967 net.cpp:409] ip1 -> ip1
I0505 15:44:51.822273  7967 net.cpp:144] Setting up ip1
I0505 15:44:51.822296  7967 net.cpp:151] Top shape: 20 512 (10240)
I0505 15:44:51.822300  7967 net.cpp:159] Memory required for data: 9033200
I0505 15:44:51.822307  7967 layer_factory.hpp:77] Creating layer ip2
I0505 15:44:51.822316  7967 net.cpp:94] Creating Layer ip2
I0505 15:44:51.822320  7967 net.cpp:435] ip2 <- ip1
I0505 15:44:51.822327  7967 net.cpp:409] ip2 -> ip2
I0505 15:44:51.825532  7967 net.cpp:144] Setting up ip2
I0505 15:44:51.825544  7967 net.cpp:151] Top shape: 20 256 (5120)
I0505 15:44:51.825547  7967 net.cpp:159] Memory required for data: 9053680
I0505 15:44:51.825556  7967 layer_factory.hpp:77] Creating layer ip3
I0505 15:44:51.825564  7967 net.cpp:94] Creating Layer ip3
I0505 15:44:51.825568  7967 net.cpp:435] ip3 <- ip2
I0505 15:44:51.825573  7967 net.cpp:409] ip3 -> ip3
I0505 15:44:51.826011  7967 net.cpp:144] Setting up ip3
I0505 15:44:51.826019  7967 net.cpp:151] Top shape: 20 50 (1000)
I0505 15:44:51.826021  7967 net.cpp:159] Memory required for data: 9057680
I0505 15:44:51.826026  7967 layer_factory.hpp:77] Creating layer ip3_ip3_0_split
I0505 15:44:51.826032  7967 net.cpp:94] Creating Layer ip3_ip3_0_split
I0505 15:44:51.826035  7967 net.cpp:435] ip3_ip3_0_split <- ip3
I0505 15:44:51.826040  7967 net.cpp:409] ip3_ip3_0_split -> ip3_ip3_0_split_0
I0505 15:44:51.826045  7967 net.cpp:409] ip3_ip3_0_split -> ip3_ip3_0_split_1
I0505 15:44:51.826086  7967 net.cpp:144] Setting up ip3_ip3_0_split
I0505 15:44:51.826092  7967 net.cpp:151] Top shape: 20 50 (1000)
I0505 15:44:51.826097  7967 net.cpp:151] Top shape: 20 50 (1000)
I0505 15:44:51.826098  7967 net.cpp:159] Memory required for data: 9065680
I0505 15:44:51.826102  7967 layer_factory.hpp:77] Creating layer accuracy
I0505 15:44:51.826107  7967 net.cpp:94] Creating Layer accuracy
I0505 15:44:51.826110  7967 net.cpp:435] accuracy <- ip3_ip3_0_split_0
I0505 15:44:51.826114  7967 net.cpp:435] accuracy <- label_intercept_1_split_0
I0505 15:44:51.826118  7967 net.cpp:409] accuracy -> accuracy
…
