…
I0506 07:36:25.481856 20556 net.cpp:323] The NetState phase (0) differed from the phase (1) specified by a rule in layer intercept
I0506 07:36:25.481873 20556 net.cpp:323] The NetState phase (0) differed from the phase (1) specified by a rule in layer loss
I0506 07:36:25.481951 20556 net.cpp:52] Initializing net from parameters: 
state {
  phase: TRAIN
}
layer {
  name: "parameters"
  type: "HDF5Data"
  top: "data"
  top: "label"
  include {
    phase: TRAIN
  }
  hdf5_data_param {
    source: "/home/purduethu/scratch/radon/d/deng106/CNNStatisticalModel/distributions/input/50_distributions_100_sample_size_train-parameters-path.txt"
    batch_size: 20
  }
}
layer {
  name: "conv1"
  type: "Convolution"
  bottom: "data"
  top: "conv1"
  param {
    lr_mult: 1
  }
  param {
    lr_mult: 2
  }
  convolution_param {
    num_output: 64
    pad: 2
    kernel_size: 5
    stride: 1
    weight_filler {
      type: "gaussian"
      std: 0.0001
    }
    bias_filler {
      type: "constant"
    }
  }
}
layer {
  name: "relu1"
  type: "ReLU"
  bottom: "conv1"
  top: "conv1"
}
layer {
  name: "conv2"
  type: "Convolution"
  bottom: "conv1"
  top: "conv2"
  param {
    lr_mult: 1
  }
  param {
    lr_mult: 2
  }
  convolution_param {
    num_output: 64
    pad: 2
    kernel_size: 5
    stride: 1
    weight_filler {
      type: "gaussian"
      std: 0.01
    }
    bias_filler {
      type: "constant"
    }
  }
}
layer {
  name: "relu2"
  type: "ReLU"
  bottom: "conv2"
  top: "conv2"
}
layer {
  name: "pool2"
  type: "Pooling"
  bottom: "conv2"
  top: "pool2"
  pooling_param {
    pool: MAX
    kernel_size: 3
    stride: 2
  }
}
layer {
  name: "conv3"
  type: "Convolution"
  bottom: "pool2"
  top: "conv3"
  param {
    lr_mult: 1
  }
  param {
    lr_mult: 2
  }
  convolution_param {
    num_output: 128
    pad: 2
    kernel_size: 5
    stride: 1
    weight_filler {
      type: "gaussian"
      std: 0.01
    }
    bias_filler {
      type: "constant"
    }
  }
}
layer {
  name: "relu3"
  type: "ReLU"
  bottom: "conv3"
  top: "conv3"
}
layer {
  name: "conv4"
  type: "Convolution"
  bottom: "conv3"
  top: "conv4"
  param {
    lr_mult: 1
  }
  param {
    lr_mult: 2
  }
  convolution_param {
    num_output: 128
    pad: 2
    kernel_size: 5
    stride: 1
    weight_filler {
      type: "gaussian"
      std: 0.01
    }
    bias_filler {
      type: "constant"
    }
  }
}
layer {
  name: "relu4"
  type: "ReLU"
  bottom: "conv4"
  top: "conv4"
}
layer {
  name: "conv5"
  type: "Convolution"
  bottom: "conv4"
  top: "conv5"
  param {
    lr_mult: 1
  }
  param {
    lr_mult: 2
  }
  convolution_param {
    num_output: 128
    pad: 2
    kernel_size: 5
    stride: 1
    weight_filler {
      type: "gaussian"
      std: 0.01
    }
    bias_filler {
      type: "constant"
    }
  }
}
layer {
  name: "relu5"
  type: "ReLU"
  bottom: "conv5"
  top: "conv5"
}
layer {
  name: "pool5"
  type: "Pooling"
  bottom: "conv5"
  top: "pool5"
  pooling_param {
    pool: AVE
    kernel_size: 3
    stride: 2
  }
}
layer {
  name: "ip1"
  type: "InnerProduct"
  bottom: "pool5"
  top: "ip1"
  param {
    lr_mult: 1
  }
  param {
    lr_mult: 2
  }
  inner_product_param {
    num_output: 1024
    weight_filler {
      type: "gaussian"
      std: 0.1
    }
    bias_filler {
      type: "constant"
    }
  }
}
layer {
  name: "ip2"
  type: "InnerProduct"
  bottom: "ip1"
  top: "ip2"
  param {
    lr_mult: 1
  }
  param {
    lr_mult: 2
  }
  inner_product_param {
    num_output: 512
    weight_filler {
      type: "gaussian"
      std: 0.1
    }
    bias_filler {
      type: "constant"
    }
  }
}
layer {
  name: "ip3"
  type: "InnerProduct"
  bottom: "ip2"
  top: "ip3"
  param {
    lr_mult: 1
  }
  param {
    lr_mult: 2
  }
  inner_product_param {
    num_output: 1
    weight_filler {
      type: "gaussian"
      std: 0.1
    }
    bias_filler {
      type: "constant"
    }
  }
}
layer {
  name: "loss"
  type: "HuberLoss"
  bottom: "ip3"
  bottom: "label"
  top: "loss"
  include {
    phase: TRAIN
  }
}
I0506 07:36:25.482003 20556 layer_factory.hpp:77] Creating layer parameters
I0506 07:36:25.482020 20556 net.cpp:94] Creating Layer parameters
I0506 07:36:25.482024 20556 net.cpp:409] parameters -> data
I0506 07:36:25.482033 20556 net.cpp:409] parameters -> label
I0506 07:36:25.482040 20556 hdf5_data_layer.cpp:79] Loading list of HDF5 filenames from: /home/purduethu/scratch/radon/d/deng106/CNNStatisticalModel/distributions/input/50_distributions_100_sample_size_train-parameters-path.txt
I0506 07:36:25.482055 20556 hdf5_data_layer.cpp:93] Number of HDF5 files: 1
I0506 07:36:25.482565 20556 hdf5.cpp:32] Datatype class: H5T_FLOAT
I0506 07:36:25.649798 20556 net.cpp:144] Setting up parameters
I0506 07:36:25.649828 20556 net.cpp:151] Top shape: 20 1 10 10 (2000)
I0506 07:36:25.649833 20556 net.cpp:151] Top shape: 20 (20)
I0506 07:36:25.649837 20556 net.cpp:159] Memory required for data: 8080
I0506 07:36:25.649844 20556 layer_factory.hpp:77] Creating layer conv1
I0506 07:36:25.649860 20556 net.cpp:94] Creating Layer conv1
I0506 07:36:25.649864 20556 net.cpp:435] conv1 <- data
I0506 07:36:25.649871 20556 net.cpp:409] conv1 -> conv1
I0506 07:36:25.653987 20556 net.cpp:144] Setting up conv1
I0506 07:36:25.654001 20556 net.cpp:151] Top shape: 20 64 10 10 (128000)
I0506 07:36:25.654006 20556 net.cpp:159] Memory required for data: 520080
I0506 07:36:25.654016 20556 layer_factory.hpp:77] Creating layer relu1
I0506 07:36:25.654022 20556 net.cpp:94] Creating Layer relu1
I0506 07:36:25.654026 20556 net.cpp:435] relu1 <- conv1
I0506 07:36:25.654031 20556 net.cpp:396] relu1 -> conv1 (in-place)
I0506 07:36:25.654038 20556 net.cpp:144] Setting up relu1
I0506 07:36:25.654042 20556 net.cpp:151] Top shape: 20 64 10 10 (128000)
I0506 07:36:25.654045 20556 net.cpp:159] Memory required for data: 1032080
I0506 07:36:25.654048 20556 layer_factory.hpp:77] Creating layer conv2
I0506 07:36:25.654057 20556 net.cpp:94] Creating Layer conv2
I0506 07:36:25.654059 20556 net.cpp:435] conv2 <- conv1
I0506 07:36:25.654064 20556 net.cpp:409] conv2 -> conv2
I0506 07:36:25.660060 20556 net.cpp:144] Setting up conv2
I0506 07:36:25.660074 20556 net.cpp:151] Top shape: 20 64 10 10 (128000)
I0506 07:36:25.660079 20556 net.cpp:159] Memory required for data: 1544080
I0506 07:36:25.660086 20556 layer_factory.hpp:77] Creating layer relu2
I0506 07:36:25.660094 20556 net.cpp:94] Creating Layer relu2
I0506 07:36:25.660096 20556 net.cpp:435] relu2 <- conv2
I0506 07:36:25.660101 20556 net.cpp:396] relu2 -> conv2 (in-place)
I0506 07:36:25.660107 20556 net.cpp:144] Setting up relu2
I0506 07:36:25.660112 20556 net.cpp:151] Top shape: 20 64 10 10 (128000)
I0506 07:36:25.660115 20556 net.cpp:159] Memory required for data: 2056080
I0506 07:36:25.660118 20556 layer_factory.hpp:77] Creating layer pool2
I0506 07:36:25.660123 20556 net.cpp:94] Creating Layer pool2
I0506 07:36:25.660126 20556 net.cpp:435] pool2 <- conv2
I0506 07:36:25.660131 20556 net.cpp:409] pool2 -> pool2
I0506 07:36:25.660187 20556 net.cpp:144] Setting up pool2
I0506 07:36:25.660194 20556 net.cpp:151] Top shape: 20 64 5 5 (32000)
I0506 07:36:25.660198 20556 net.cpp:159] Memory required for data: 2184080
I0506 07:36:25.660202 20556 layer_factory.hpp:77] Creating layer conv3
I0506 07:36:25.660209 20556 net.cpp:94] Creating Layer conv3
I0506 07:36:25.660218 20556 net.cpp:435] conv3 <- pool2
I0506 07:36:25.660224 20556 net.cpp:409] conv3 -> conv3
I0506 07:36:25.668262 20556 net.cpp:144] Setting up conv3
I0506 07:36:25.668275 20556 net.cpp:151] Top shape: 20 128 5 5 (64000)
I0506 07:36:25.668279 20556 net.cpp:159] Memory required for data: 2440080
I0506 07:36:25.668287 20556 layer_factory.hpp:77] Creating layer relu3
I0506 07:36:25.668293 20556 net.cpp:94] Creating Layer relu3
I0506 07:36:25.668296 20556 net.cpp:435] relu3 <- conv3
I0506 07:36:25.668301 20556 net.cpp:396] relu3 -> conv3 (in-place)
I0506 07:36:25.668308 20556 net.cpp:144] Setting up relu3
I0506 07:36:25.668313 20556 net.cpp:151] Top shape: 20 128 5 5 (64000)
I0506 07:36:25.668315 20556 net.cpp:159] Memory required for data: 2696080
I0506 07:36:25.668318 20556 layer_factory.hpp:77] Creating layer conv4
I0506 07:36:25.668326 20556 net.cpp:94] Creating Layer conv4
I0506 07:36:25.668329 20556 net.cpp:435] conv4 <- conv3
I0506 07:36:25.668334 20556 net.cpp:409] conv4 -> conv4
I0506 07:36:25.683238 20556 net.cpp:144] Setting up conv4
I0506 07:36:25.683251 20556 net.cpp:151] Top shape: 20 128 5 5 (64000)
I0506 07:36:25.683255 20556 net.cpp:159] Memory required for data: 2952080
I0506 07:36:25.683262 20556 layer_factory.hpp:77] Creating layer relu4
I0506 07:36:25.683267 20556 net.cpp:94] Creating Layer relu4
I0506 07:36:25.683271 20556 net.cpp:435] relu4 <- conv4
I0506 07:36:25.683276 20556 net.cpp:396] relu4 -> conv4 (in-place)
I0506 07:36:25.683284 20556 net.cpp:144] Setting up relu4
I0506 07:36:25.683287 20556 net.cpp:151] Top shape: 20 128 5 5 (64000)
I0506 07:36:25.683290 20556 net.cpp:159] Memory required for data: 3208080
I0506 07:36:25.683293 20556 layer_factory.hpp:77] Creating layer conv5
I0506 07:36:25.683300 20556 net.cpp:94] Creating Layer conv5
I0506 07:36:25.683305 20556 net.cpp:435] conv5 <- conv4
I0506 07:36:25.683310 20556 net.cpp:409] conv5 -> conv5
I0506 07:36:25.697597 20556 net.cpp:144] Setting up conv5
I0506 07:36:25.697610 20556 net.cpp:151] Top shape: 20 128 5 5 (64000)
I0506 07:36:25.697614 20556 net.cpp:159] Memory required for data: 3464080
I0506 07:36:25.697623 20556 layer_factory.hpp:77] Creating layer relu5
I0506 07:36:25.697629 20556 net.cpp:94] Creating Layer relu5
I0506 07:36:25.697633 20556 net.cpp:435] relu5 <- conv5
I0506 07:36:25.697638 20556 net.cpp:396] relu5 -> conv5 (in-place)
I0506 07:36:25.697644 20556 net.cpp:144] Setting up relu5
I0506 07:36:25.697649 20556 net.cpp:151] Top shape: 20 128 5 5 (64000)
I0506 07:36:25.697651 20556 net.cpp:159] Memory required for data: 3720080
I0506 07:36:25.697654 20556 layer_factory.hpp:77] Creating layer pool5
I0506 07:36:25.697659 20556 net.cpp:94] Creating Layer pool5
I0506 07:36:25.697662 20556 net.cpp:435] pool5 <- conv5
I0506 07:36:25.697667 20556 net.cpp:409] pool5 -> pool5
I0506 07:36:25.697706 20556 net.cpp:144] Setting up pool5
I0506 07:36:25.697715 20556 net.cpp:151] Top shape: 20 128 2 2 (10240)
I0506 07:36:25.697717 20556 net.cpp:159] Memory required for data: 3761040
I0506 07:36:25.697721 20556 layer_factory.hpp:77] Creating layer ip1
I0506 07:36:25.697729 20556 net.cpp:94] Creating Layer ip1
I0506 07:36:25.697733 20556 net.cpp:435] ip1 <- pool5
I0506 07:36:25.697738 20556 net.cpp:409] ip1 -> ip1
I0506 07:36:25.711567 20556 net.cpp:144] Setting up ip1
I0506 07:36:25.711581 20556 net.cpp:151] Top shape: 20 1024 (20480)
I0506 07:36:25.711585 20556 net.cpp:159] Memory required for data: 3842960
I0506 07:36:25.711592 20556 layer_factory.hpp:77] Creating layer ip2
I0506 07:36:25.711599 20556 net.cpp:94] Creating Layer ip2
I0506 07:36:25.711602 20556 net.cpp:435] ip2 <- ip1
I0506 07:36:25.711607 20556 net.cpp:409] ip2 -> ip2
I0506 07:36:25.724659 20556 net.cpp:144] Setting up ip2
I0506 07:36:25.724673 20556 net.cpp:151] Top shape: 20 512 (10240)
I0506 07:36:25.724676 20556 net.cpp:159] Memory required for data: 3883920
I0506 07:36:25.724683 20556 layer_factory.hpp:77] Creating layer ip3
I0506 07:36:25.724689 20556 net.cpp:94] Creating Layer ip3
I0506 07:36:25.724692 20556 net.cpp:435] ip3 <- ip2
I0506 07:36:25.724704 20556 net.cpp:409] ip3 -> ip3
I0506 07:36:25.724828 20556 net.cpp:144] Setting up ip3
I0506 07:36:25.724835 20556 net.cpp:151] Top shape: 20 1 (20)
I0506 07:36:25.724838 20556 net.cpp:159] Memory required for data: 3884000
I0506 07:36:25.724843 20556 layer_factory.hpp:77] Creating layer loss
I0506 07:36:25.724855 20556 net.cpp:94] Creating Layer loss
I0506 07:36:25.724858 20556 net.cpp:435] loss <- ip3
I0506 07:36:25.724862 20556 net.cpp:435] loss <- label
I0506 07:36:25.724877 20556 net.cpp:409] loss -> loss
I0506 07:36:25.724930 20556 net.cpp:144] Setting up loss
…
I0506 07:36:25.831356 20556 net.cpp:323] The NetState phase (0) differed from the phase (1) specified by a rule in layer intercept
I0506 07:36:25.831370 20556 net.cpp:323] The NetState phase (0) differed from the phase (1) specified by a rule in layer accuracy
I0506 07:36:25.831454 20556 net.cpp:52] Initializing net from parameters: 
state {
  phase: TRAIN
}
layer {
  name: "parameters"
  type: "HDF5Data"
  top: "data"
  top: "label"
  include {
    phase: TRAIN
  }
  hdf5_data_param {
    source: "/home/purduethu/scratch/radon/d/deng106/CNNStatisticalModel/distributions/input/50_distributions_100_sample_size_train-distributions-path.txt"
    batch_size: 20
  }
}
layer {
  name: "conv1"
  type: "Convolution"
  bottom: "data"
  top: "conv1"
  param {
    lr_mult: 1
  }
  param {
    lr_mult: 2
  }
  convolution_param {
    num_output: 64
    pad: 2
    kernel_size: 5
    stride: 1
    weight_filler {
      type: "gaussian"
      std: 0.0001
    }
    bias_filler {
      type: "constant"
    }
  }
}
layer {
  name: "relu1"
  type: "ReLU"
  bottom: "conv1"
  top: "conv1"
}
layer {
  name: "conv2"
  type: "Convolution"
  bottom: "conv1"
  top: "conv2"
  param {
    lr_mult: 1
  }
  param {
    lr_mult: 2
  }
  convolution_param {
    num_output: 64
    pad: 2
    kernel_size: 5
    stride: 1
    weight_filler {
      type: "gaussian"
      std: 0.01
    }
    bias_filler {
      type: "constant"
    }
  }
}
layer {
  name: "relu2"
  type: "ReLU"
  bottom: "conv2"
  top: "conv2"
}
layer {
  name: "pool2"
  type: "Pooling"
  bottom: "conv2"
  top: "pool2"
  pooling_param {
    pool: MAX
    kernel_size: 3
    stride: 2
  }
}
layer {
  name: "conv3"
  type: "Convolution"
  bottom: "pool2"
  top: "conv3"
  param {
    lr_mult: 1
  }
  param {
    lr_mult: 2
  }
  convolution_param {
    num_output: 128
    pad: 2
    kernel_size: 5
    stride: 1
    weight_filler {
      type: "gaussian"
      std: 0.01
    }
    bias_filler {
      type: "constant"
    }
  }
}
layer {
  name: "relu3"
  type: "ReLU"
  bottom: "conv3"
  top: "conv3"
}
layer {
  name: "conv4"
  type: "Convolution"
  bottom: "conv3"
  top: "conv4"
  param {
    lr_mult: 1
  }
  param {
    lr_mult: 2
  }
  convolution_param {
    num_output: 128
    pad: 2
    kernel_size: 5
    stride: 1
    weight_filler {
      type: "gaussian"
      std: 0.01
    }
    bias_filler {
      type: "constant"
    }
  }
}
layer {
  name: "relu4"
  type: "ReLU"
  bottom: "conv4"
  top: "conv4"
}
layer {
  name: "conv5"
  type: "Convolution"
  bottom: "conv4"
  top: "conv5"
  param {
    lr_mult: 1
  }
  param {
    lr_mult: 2
  }
  convolution_param {
    num_output: 128
    pad: 2
    kernel_size: 5
    stride: 1
    weight_filler {
      type: "gaussian"
      std: 0.01
    }
    bias_filler {
      type: "constant"
    }
  }
}
layer {
  name: "relu5"
  type: "ReLU"
  bottom: "conv5"
  top: "conv5"
}
layer {
  name: "pool5"
  type: "Pooling"
  bottom: "conv5"
  top: "pool5"
  pooling_param {
    pool: AVE
    kernel_size: 3
    stride: 2
  }
}
layer {
  name: "ip1"
  type: "InnerProduct"
  bottom: "pool5"
  top: "ip1"
  param {
    lr_mult: 1
  }
  param {
    lr_mult: 2
  }
  inner_product_param {
    num_output: 1024
    weight_filler {
      type: "gaussian"
      std: 0.1
    }
    bias_filler {
      type: "constant"
    }
  }
}
layer {
  name: "ip2"
  type: "InnerProduct"
  bottom: "ip1"
  top: "ip2"
  param {
    lr_mult: 1
  }
  param {
    lr_mult: 2
  }
  inner_product_param {
    num_output: 512
    weight_filler {
      type: "gaussian"
      std: 0.1
    }
    bias_filler {
      type: "constant"
    }
  }
}
layer {
  name: "ip3"
  type: "InnerProduct"
  bottom: "ip2"
  top: "ip3"
  param {
    lr_mult: 1
  }
  param {
    lr_mult: 2
  }
  inner_product_param {
    num_output: 50
    weight_filler {
      type: "gaussian"
      std: 0.1
    }
    bias_filler {
      type: "constant"
    }
  }
}
layer {
  name: "loss"
  type: "SoftmaxWithLoss"
  bottom: "ip3"
  bottom: "label"
  top: "loss"
}
I0506 07:36:25.831504 20556 layer_factory.hpp:77] Creating layer parameters
I0506 07:36:25.831512 20556 net.cpp:94] Creating Layer parameters
I0506 07:36:25.831516 20556 net.cpp:409] parameters -> data
I0506 07:36:25.831522 20556 net.cpp:409] parameters -> label
I0506 07:36:25.831528 20556 hdf5_data_layer.cpp:79] Loading list of HDF5 filenames from: /home/purduethu/scratch/radon/d/deng106/CNNStatisticalModel/distributions/input/50_distributions_100_sample_size_train-distributions-path.txt
I0506 07:36:25.831544 20556 hdf5_data_layer.cpp:93] Number of HDF5 files: 1
I0506 07:36:25.985826 20556 hdf5.cpp:35] Datatype class: H5T_INTEGER
I0506 07:36:25.988970 20556 net.cpp:144] Setting up parameters
I0506 07:36:25.988986 20556 net.cpp:151] Top shape: 20 1 10 10 (2000)
I0506 07:36:25.988991 20556 net.cpp:151] Top shape: 20 (20)
I0506 07:36:25.988996 20556 net.cpp:159] Memory required for data: 8080
I0506 07:36:25.989001 20556 layer_factory.hpp:77] Creating layer conv1
I0506 07:36:25.989017 20556 net.cpp:94] Creating Layer conv1
I0506 07:36:25.989022 20556 net.cpp:435] conv1 <- data
I0506 07:36:25.989027 20556 net.cpp:409] conv1 -> conv1
I0506 07:36:25.990785 20556 net.cpp:144] Setting up conv1
I0506 07:36:25.990798 20556 net.cpp:151] Top shape: 20 64 10 10 (128000)
I0506 07:36:25.990803 20556 net.cpp:159] Memory required for data: 520080
I0506 07:36:25.990813 20556 layer_factory.hpp:77] Creating layer relu1
I0506 07:36:25.990819 20556 net.cpp:94] Creating Layer relu1
I0506 07:36:25.990823 20556 net.cpp:435] relu1 <- conv1
I0506 07:36:25.990828 20556 net.cpp:396] relu1 -> conv1 (in-place)
I0506 07:36:25.990834 20556 net.cpp:144] Setting up relu1
I0506 07:36:25.990839 20556 net.cpp:151] Top shape: 20 64 10 10 (128000)
I0506 07:36:25.990841 20556 net.cpp:159] Memory required for data: 1032080
I0506 07:36:25.990844 20556 layer_factory.hpp:77] Creating layer conv2
I0506 07:36:25.990852 20556 net.cpp:94] Creating Layer conv2
I0506 07:36:25.990855 20556 net.cpp:435] conv2 <- conv1
I0506 07:36:25.990860 20556 net.cpp:409] conv2 -> conv2
I0506 07:36:25.996136 20556 net.cpp:144] Setting up conv2
I0506 07:36:25.996150 20556 net.cpp:151] Top shape: 20 64 10 10 (128000)
I0506 07:36:25.996153 20556 net.cpp:159] Memory required for data: 1544080
I0506 07:36:25.996161 20556 layer_factory.hpp:77] Creating layer relu2
I0506 07:36:25.996167 20556 net.cpp:94] Creating Layer relu2
I0506 07:36:25.996171 20556 net.cpp:435] relu2 <- conv2
I0506 07:36:25.996176 20556 net.cpp:396] relu2 -> conv2 (in-place)
I0506 07:36:25.996182 20556 net.cpp:144] Setting up relu2
I0506 07:36:25.996187 20556 net.cpp:151] Top shape: 20 64 10 10 (128000)
I0506 07:36:25.996191 20556 net.cpp:159] Memory required for data: 2056080
I0506 07:36:25.996193 20556 layer_factory.hpp:77] Creating layer pool2
I0506 07:36:25.996199 20556 net.cpp:94] Creating Layer pool2
I0506 07:36:25.996202 20556 net.cpp:435] pool2 <- conv2
I0506 07:36:25.996206 20556 net.cpp:409] pool2 -> pool2
I0506 07:36:25.996263 20556 net.cpp:144] Setting up pool2
I0506 07:36:25.996269 20556 net.cpp:151] Top shape: 20 64 5 5 (32000)
I0506 07:36:25.996273 20556 net.cpp:159] Memory required for data: 2184080
I0506 07:36:25.996276 20556 layer_factory.hpp:77] Creating layer conv3
I0506 07:36:25.996284 20556 net.cpp:94] Creating Layer conv3
I0506 07:36:25.996287 20556 net.cpp:435] conv3 <- pool2
I0506 07:36:25.996292 20556 net.cpp:409] conv3 -> conv3
I0506 07:36:26.004891 20556 net.cpp:144] Setting up conv3
I0506 07:36:26.004905 20556 net.cpp:151] Top shape: 20 128 5 5 (64000)
I0506 07:36:26.004909 20556 net.cpp:159] Memory required for data: 2440080
I0506 07:36:26.004917 20556 layer_factory.hpp:77] Creating layer relu3
I0506 07:36:26.004923 20556 net.cpp:94] Creating Layer relu3
I0506 07:36:26.004927 20556 net.cpp:435] relu3 <- conv3
I0506 07:36:26.004931 20556 net.cpp:396] relu3 -> conv3 (in-place)
I0506 07:36:26.004945 20556 net.cpp:144] Setting up relu3
I0506 07:36:26.004950 20556 net.cpp:151] Top shape: 20 128 5 5 (64000)
I0506 07:36:26.004952 20556 net.cpp:159] Memory required for data: 2696080
I0506 07:36:26.004956 20556 layer_factory.hpp:77] Creating layer conv4
I0506 07:36:26.004963 20556 net.cpp:94] Creating Layer conv4
I0506 07:36:26.004967 20556 net.cpp:435] conv4 <- conv3
I0506 07:36:26.004972 20556 net.cpp:409] conv4 -> conv4
I0506 07:36:26.019587 20556 net.cpp:144] Setting up conv4
I0506 07:36:26.019600 20556 net.cpp:151] Top shape: 20 128 5 5 (64000)
I0506 07:36:26.019604 20556 net.cpp:159] Memory required for data: 2952080
I0506 07:36:26.019610 20556 layer_factory.hpp:77] Creating layer relu4
I0506 07:36:26.019616 20556 net.cpp:94] Creating Layer relu4
I0506 07:36:26.019620 20556 net.cpp:435] relu4 <- conv4
I0506 07:36:26.019625 20556 net.cpp:396] relu4 -> conv4 (in-place)
I0506 07:36:26.019632 20556 net.cpp:144] Setting up relu4
I0506 07:36:26.019636 20556 net.cpp:151] Top shape: 20 128 5 5 (64000)
I0506 07:36:26.019639 20556 net.cpp:159] Memory required for data: 3208080
I0506 07:36:26.019642 20556 layer_factory.hpp:77] Creating layer conv5
I0506 07:36:26.019650 20556 net.cpp:94] Creating Layer conv5
I0506 07:36:26.019654 20556 net.cpp:435] conv5 <- conv4
I0506 07:36:26.019659 20556 net.cpp:409] conv5 -> conv5
I0506 07:36:26.034673 20556 net.cpp:144] Setting up conv5
I0506 07:36:26.034689 20556 net.cpp:151] Top shape: 20 128 5 5 (64000)
I0506 07:36:26.034693 20556 net.cpp:159] Memory required for data: 3464080
I0506 07:36:26.034701 20556 layer_factory.hpp:77] Creating layer relu5
I0506 07:36:26.034708 20556 net.cpp:94] Creating Layer relu5
I0506 07:36:26.034711 20556 net.cpp:435] relu5 <- conv5
I0506 07:36:26.034715 20556 net.cpp:396] relu5 -> conv5 (in-place)
I0506 07:36:26.034723 20556 net.cpp:144] Setting up relu5
I0506 07:36:26.034728 20556 net.cpp:151] Top shape: 20 128 5 5 (64000)
I0506 07:36:26.034730 20556 net.cpp:159] Memory required for data: 3720080
I0506 07:36:26.034734 20556 layer_factory.hpp:77] Creating layer pool5
I0506 07:36:26.034739 20556 net.cpp:94] Creating Layer pool5
I0506 07:36:26.034741 20556 net.cpp:435] pool5 <- conv5
I0506 07:36:26.034745 20556 net.cpp:409] pool5 -> pool5
I0506 07:36:26.034785 20556 net.cpp:144] Setting up pool5
I0506 07:36:26.034793 20556 net.cpp:151] Top shape: 20 128 2 2 (10240)
I0506 07:36:26.034796 20556 net.cpp:159] Memory required for data: 3761040
I0506 07:36:26.034799 20556 layer_factory.hpp:77] Creating layer ip1
I0506 07:36:26.034806 20556 net.cpp:94] Creating Layer ip1
I0506 07:36:26.034809 20556 net.cpp:435] ip1 <- pool5
I0506 07:36:26.034814 20556 net.cpp:409] ip1 -> ip1
I0506 07:36:26.047891 20556 net.cpp:144] Setting up ip1
I0506 07:36:26.047905 20556 net.cpp:151] Top shape: 20 1024 (20480)
I0506 07:36:26.047909 20556 net.cpp:159] Memory required for data: 3842960
I0506 07:36:26.047915 20556 layer_factory.hpp:77] Creating layer ip2
I0506 07:36:26.047922 20556 net.cpp:94] Creating Layer ip2
I0506 07:36:26.047925 20556 net.cpp:435] ip2 <- ip1
I0506 07:36:26.047931 20556 net.cpp:409] ip2 -> ip2
I0506 07:36:26.060987 20556 net.cpp:144] Setting up ip2
I0506 07:36:26.061000 20556 net.cpp:151] Top shape: 20 512 (10240)
I0506 07:36:26.061004 20556 net.cpp:159] Memory required for data: 3883920
I0506 07:36:26.061009 20556 layer_factory.hpp:77] Creating layer ip3
I0506 07:36:26.061017 20556 net.cpp:94] Creating Layer ip3
I0506 07:36:26.061019 20556 net.cpp:435] ip3 <- ip2
I0506 07:36:26.061024 20556 net.cpp:409] ip3 -> ip3
I0506 07:36:26.062539 20556 net.cpp:144] Setting up ip3
I0506 07:36:26.062552 20556 net.cpp:151] Top shape: 20 50 (1000)
I0506 07:36:26.062556 20556 net.cpp:159] Memory required for data: 3887920
I0506 07:36:26.062562 20556 layer_factory.hpp:77] Creating layer loss
I0506 07:36:26.062569 20556 net.cpp:94] Creating Layer loss
I0506 07:36:26.062573 20556 net.cpp:435] loss <- ip3
I0506 07:36:26.062577 20556 net.cpp:435] loss <- label
I0506 07:36:26.062582 20556 net.cpp:409] loss -> loss
I0506 07:36:26.062589 20556 layer_factory.hpp:77] Creating layer loss
…
I0506 07:36:26.063112 20556 solver.cpp:181] Creating test net (#0) specified by net file: ./protocol/dis_50_100_dimension.protocol_distribution
I0506 07:36:26.063138 20556 net.cpp:323] The NetState phase (1) differed from the phase (0) specified by a rule in layer parameters
I0506 07:36:26.063228 20556 net.cpp:52] Initializing net from parameters: 
state {
  phase: TEST
}
layer {
  name: "intercept"
  type: "HDF5Data"
  top: "data"
  top: "label"
  include {
    phase: TEST
  }
  hdf5_data_param {
    source: "/home/purduethu/scratch/radon/d/deng106/CNNStatisticalModel/distributions/input/50_distributions_100_sample_size_test-distributions-path.txt"
    batch_size: 20
  }
}
layer {
  name: "conv1"
  type: "Convolution"
  bottom: "data"
  top: "conv1"
  param {
    lr_mult: 1
  }
  param {
    lr_mult: 2
  }
  convolution_param {
    num_output: 64
    pad: 2
    kernel_size: 5
    stride: 1
    weight_filler {
      type: "gaussian"
      std: 0.0001
    }
    bias_filler {
      type: "constant"
    }
  }
}
layer {
  name: "relu1"
  type: "ReLU"
  bottom: "conv1"
  top: "conv1"
}
layer {
  name: "conv2"
  type: "Convolution"
  bottom: "conv1"
  top: "conv2"
  param {
    lr_mult: 1
  }
  param {
    lr_mult: 2
  }
  convolution_param {
    num_output: 64
    pad: 2
    kernel_size: 5
    stride: 1
    weight_filler {
      type: "gaussian"
      std: 0.01
    }
    bias_filler {
      type: "constant"
    }
  }
}
layer {
  name: "relu2"
  type: "ReLU"
  bottom: "conv2"
  top: "conv2"
}
layer {
  name: "pool2"
  type: "Pooling"
  bottom: "conv2"
  top: "pool2"
  pooling_param {
    pool: MAX
    kernel_size: 3
    stride: 2
  }
}
layer {
  name: "conv3"
  type: "Convolution"
  bottom: "pool2"
  top: "conv3"
  param {
    lr_mult: 1
  }
  param {
    lr_mult: 2
  }
  convolution_param {
    num_output: 128
    pad: 2
    kernel_size: 5
    stride: 1
    weight_filler {
      type: "gaussian"
      std: 0.01
    }
    bias_filler {
      type: "constant"
    }
  }
}
layer {
  name: "relu3"
  type: "ReLU"
  bottom: "conv3"
  top: "conv3"
}
layer {
  name: "conv4"
  type: "Convolution"
  bottom: "conv3"
  top: "conv4"
  param {
    lr_mult: 1
  }
  param {
    lr_mult: 2
  }
  convolution_param {
    num_output: 128
    pad: 2
    kernel_size: 5
    stride: 1
    weight_filler {
      type: "gaussian"
      std: 0.01
    }
    bias_filler {
      type: "constant"
    }
  }
}
layer {
  name: "relu4"
  type: "ReLU"
  bottom: "conv4"
  top: "conv4"
}
layer {
  name: "conv5"
  type: "Convolution"
  bottom: "conv4"
  top: "conv5"
  param {
    lr_mult: 1
  }
  param {
    lr_mult: 2
  }
  convolution_param {
    num_output: 128
    pad: 2
    kernel_size: 5
    stride: 1
    weight_filler {
      type: "gaussian"
      std: 0.01
    }
    bias_filler {
      type: "constant"
    }
  }
}
layer {
  name: "relu5"
  type: "ReLU"
  bottom: "conv5"
  top: "conv5"
}
layer {
  name: "pool5"
  type: "Pooling"
  bottom: "conv5"
  top: "pool5"
  pooling_param {
    pool: AVE
    kernel_size: 3
    stride: 2
  }
}
layer {
  name: "ip1"
  type: "InnerProduct"
  bottom: "pool5"
  top: "ip1"
  param {
    lr_mult: 1
  }
  param {
    lr_mult: 2
  }
  inner_product_param {
    num_output: 1024
    weight_filler {
      type: "gaussian"
      std: 0.1
    }
    bias_filler {
      type: "constant"
    }
  }
}
layer {
  name: "ip2"
  type: "InnerProduct"
  bottom: "ip1"
  top: "ip2"
  param {
    lr_mult: 1
  }
  param {
    lr_mult: 2
  }
  inner_product_param {
    num_output: 512
    weight_filler {
      type: "gaussian"
      std: 0.1
    }
    bias_filler {
      type: "constant"
    }
  }
}
layer {
  name: "ip3"
  type: "InnerProduct"
  bottom: "ip2"
  top: "ip3"
  param {
    lr_mult: 1
  }
  param {
    lr_mult: 2
  }
  inner_product_param {
    num_output: 50
    weight_filler {
      type: "gaussian"
      std: 0.1
    }
    bias_filler {
      type: "constant"
    }
  }
}
layer {
  name: "accuracy"
  type: "Accuracy"
  bottom: "ip3"
  bottom: "label"
  top: "accuracy"
  include {
    phase: TEST
  }
}
layer {
  name: "loss"
  type: "SoftmaxWithLoss"
  bottom: "ip3"
  bottom: "label"
  top: "loss"
}
I0506 07:36:26.063292 20556 layer_factory.hpp:77] Creating layer intercept
I0506 07:36:26.063300 20556 net.cpp:94] Creating Layer intercept
I0506 07:36:26.063304 20556 net.cpp:409] intercept -> data
I0506 07:36:26.063311 20556 net.cpp:409] intercept -> label
I0506 07:36:26.063318 20556 hdf5_data_layer.cpp:79] Loading list of HDF5 filenames from: /home/purduethu/scratch/radon/d/deng106/CNNStatisticalModel/distributions/input/50_distributions_100_sample_size_test-distributions-path.txt
I0506 07:36:26.063336 20556 hdf5_data_layer.cpp:93] Number of HDF5 files: 1
I0506 07:36:26.103839 20556 net.cpp:144] Setting up intercept
I0506 07:36:26.103873 20556 net.cpp:151] Top shape: 20 1 10 10 (2000)
I0506 07:36:26.103878 20556 net.cpp:151] Top shape: 20 (20)
I0506 07:36:26.103880 20556 net.cpp:159] Memory required for data: 8080
I0506 07:36:26.103886 20556 layer_factory.hpp:77] Creating layer label_intercept_1_split
I0506 07:36:26.103904 20556 net.cpp:94] Creating Layer label_intercept_1_split
I0506 07:36:26.103909 20556 net.cpp:435] label_intercept_1_split <- label
I0506 07:36:26.103915 20556 net.cpp:409] label_intercept_1_split -> label_intercept_1_split_0
I0506 07:36:26.103924 20556 net.cpp:409] label_intercept_1_split -> label_intercept_1_split_1
I0506 07:36:26.103967 20556 net.cpp:144] Setting up label_intercept_1_split
I0506 07:36:26.103973 20556 net.cpp:151] Top shape: 20 (20)
I0506 07:36:26.103977 20556 net.cpp:151] Top shape: 20 (20)
I0506 07:36:26.103981 20556 net.cpp:159] Memory required for data: 8240
I0506 07:36:26.103983 20556 layer_factory.hpp:77] Creating layer conv1
I0506 07:36:26.103994 20556 net.cpp:94] Creating Layer conv1
I0506 07:36:26.103997 20556 net.cpp:435] conv1 <- data
I0506 07:36:26.104002 20556 net.cpp:409] conv1 -> conv1
I0506 07:36:26.104869 20556 net.cpp:144] Setting up conv1
I0506 07:36:26.104882 20556 net.cpp:151] Top shape: 20 64 10 10 (128000)
I0506 07:36:26.104887 20556 net.cpp:159] Memory required for data: 520240
I0506 07:36:26.104897 20556 layer_factory.hpp:77] Creating layer relu1
I0506 07:36:26.104903 20556 net.cpp:94] Creating Layer relu1
I0506 07:36:26.104907 20556 net.cpp:435] relu1 <- conv1
I0506 07:36:26.104912 20556 net.cpp:396] relu1 -> conv1 (in-place)
I0506 07:36:26.104918 20556 net.cpp:144] Setting up relu1
I0506 07:36:26.104923 20556 net.cpp:151] Top shape: 20 64 10 10 (128000)
I0506 07:36:26.104933 20556 net.cpp:159] Memory required for data: 1032240
I0506 07:36:26.104936 20556 layer_factory.hpp:77] Creating layer conv2
I0506 07:36:26.104944 20556 net.cpp:94] Creating Layer conv2
I0506 07:36:26.104948 20556 net.cpp:435] conv2 <- conv1
I0506 07:36:26.104953 20556 net.cpp:409] conv2 -> conv2
I0506 07:36:26.109048 20556 net.cpp:144] Setting up conv2
I0506 07:36:26.109062 20556 net.cpp:151] Top shape: 20 64 10 10 (128000)
I0506 07:36:26.109066 20556 net.cpp:159] Memory required for data: 1544240
I0506 07:36:26.109073 20556 layer_factory.hpp:77] Creating layer relu2
I0506 07:36:26.109081 20556 net.cpp:94] Creating Layer relu2
I0506 07:36:26.109083 20556 net.cpp:435] relu2 <- conv2
I0506 07:36:26.109089 20556 net.cpp:396] relu2 -> conv2 (in-place)
I0506 07:36:26.109096 20556 net.cpp:144] Setting up relu2
I0506 07:36:26.109100 20556 net.cpp:151] Top shape: 20 64 10 10 (128000)
I0506 07:36:26.109103 20556 net.cpp:159] Memory required for data: 2056240
I0506 07:36:26.109107 20556 layer_factory.hpp:77] Creating layer pool2
I0506 07:36:26.109112 20556 net.cpp:94] Creating Layer pool2
I0506 07:36:26.109114 20556 net.cpp:435] pool2 <- conv2
I0506 07:36:26.109119 20556 net.cpp:409] pool2 -> pool2
I0506 07:36:26.109180 20556 net.cpp:144] Setting up pool2
I0506 07:36:26.109187 20556 net.cpp:151] Top shape: 20 64 5 5 (32000)
I0506 07:36:26.109190 20556 net.cpp:159] Memory required for data: 2184240
I0506 07:36:26.109194 20556 layer_factory.hpp:77] Creating layer conv3
I0506 07:36:26.109202 20556 net.cpp:94] Creating Layer conv3
I0506 07:36:26.109205 20556 net.cpp:435] conv3 <- pool2
I0506 07:36:26.109211 20556 net.cpp:409] conv3 -> conv3
I0506 07:36:26.115262 20556 net.cpp:144] Setting up conv3
I0506 07:36:26.115274 20556 net.cpp:151] Top shape: 20 128 5 5 (64000)
I0506 07:36:26.115278 20556 net.cpp:159] Memory required for data: 2440240
I0506 07:36:26.115286 20556 layer_factory.hpp:77] Creating layer relu3
I0506 07:36:26.115293 20556 net.cpp:94] Creating Layer relu3
I0506 07:36:26.115298 20556 net.cpp:435] relu3 <- conv3
I0506 07:36:26.115301 20556 net.cpp:396] relu3 -> conv3 (in-place)
I0506 07:36:26.115309 20556 net.cpp:144] Setting up relu3
I0506 07:36:26.115314 20556 net.cpp:151] Top shape: 20 128 5 5 (64000)
I0506 07:36:26.115316 20556 net.cpp:159] Memory required for data: 2696240
I0506 07:36:26.115319 20556 layer_factory.hpp:77] Creating layer conv4
I0506 07:36:26.115326 20556 net.cpp:94] Creating Layer conv4
I0506 07:36:26.115329 20556 net.cpp:435] conv4 <- conv3
I0506 07:36:26.115335 20556 net.cpp:409] conv4 -> conv4
I0506 07:36:26.128183 20556 net.cpp:144] Setting up conv4
I0506 07:36:26.128196 20556 net.cpp:151] Top shape: 20 128 5 5 (64000)
I0506 07:36:26.128201 20556 net.cpp:159] Memory required for data: 2952240
I0506 07:36:26.128207 20556 layer_factory.hpp:77] Creating layer relu4
I0506 07:36:26.128212 20556 net.cpp:94] Creating Layer relu4
I0506 07:36:26.128216 20556 net.cpp:435] relu4 <- conv4
I0506 07:36:26.128221 20556 net.cpp:396] relu4 -> conv4 (in-place)
I0506 07:36:26.128227 20556 net.cpp:144] Setting up relu4
I0506 07:36:26.128232 20556 net.cpp:151] Top shape: 20 128 5 5 (64000)
I0506 07:36:26.128234 20556 net.cpp:159] Memory required for data: 3208240
I0506 07:36:26.128237 20556 layer_factory.hpp:77] Creating layer conv5
I0506 07:36:26.128247 20556 net.cpp:94] Creating Layer conv5
I0506 07:36:26.128250 20556 net.cpp:435] conv5 <- conv4
I0506 07:36:26.128255 20556 net.cpp:409] conv5 -> conv5
I0506 07:36:26.140940 20556 net.cpp:144] Setting up conv5
I0506 07:36:26.140955 20556 net.cpp:151] Top shape: 20 128 5 5 (64000)
I0506 07:36:26.140959 20556 net.cpp:159] Memory required for data: 3464240
I0506 07:36:26.140967 20556 layer_factory.hpp:77] Creating layer relu5
I0506 07:36:26.140974 20556 net.cpp:94] Creating Layer relu5
I0506 07:36:26.140979 20556 net.cpp:435] relu5 <- conv5
I0506 07:36:26.140982 20556 net.cpp:396] relu5 -> conv5 (in-place)
I0506 07:36:26.140990 20556 net.cpp:144] Setting up relu5
I0506 07:36:26.140995 20556 net.cpp:151] Top shape: 20 128 5 5 (64000)
I0506 07:36:26.141000 20556 net.cpp:159] Memory required for data: 3720240
I0506 07:36:26.141005 20556 layer_factory.hpp:77] Creating layer pool5
I0506 07:36:26.141010 20556 net.cpp:94] Creating Layer pool5
I0506 07:36:26.141013 20556 net.cpp:435] pool5 <- conv5
I0506 07:36:26.141017 20556 net.cpp:409] pool5 -> pool5
I0506 07:36:26.141062 20556 net.cpp:144] Setting up pool5
I0506 07:36:26.141069 20556 net.cpp:151] Top shape: 20 128 2 2 (10240)
I0506 07:36:26.141072 20556 net.cpp:159] Memory required for data: 3761200
I0506 07:36:26.141075 20556 layer_factory.hpp:77] Creating layer ip1
I0506 07:36:26.141082 20556 net.cpp:94] Creating Layer ip1
I0506 07:36:26.141085 20556 net.cpp:435] ip1 <- pool5
I0506 07:36:26.141090 20556 net.cpp:409] ip1 -> ip1
I0506 07:36:26.154249 20556 net.cpp:144] Setting up ip1
I0506 07:36:26.154263 20556 net.cpp:151] Top shape: 20 1024 (20480)
I0506 07:36:26.154266 20556 net.cpp:159] Memory required for data: 3843120
I0506 07:36:26.154273 20556 layer_factory.hpp:77] Creating layer ip2
I0506 07:36:26.154278 20556 net.cpp:94] Creating Layer ip2
I0506 07:36:26.154283 20556 net.cpp:435] ip2 <- ip1
I0506 07:36:26.154287 20556 net.cpp:409] ip2 -> ip2
I0506 07:36:26.167338 20556 net.cpp:144] Setting up ip2
I0506 07:36:26.167351 20556 net.cpp:151] Top shape: 20 512 (10240)
I0506 07:36:26.167356 20556 net.cpp:159] Memory required for data: 3884080
I0506 07:36:26.167361 20556 layer_factory.hpp:77] Creating layer ip3
I0506 07:36:26.167368 20556 net.cpp:94] Creating Layer ip3
I0506 07:36:26.167372 20556 net.cpp:435] ip3 <- ip2
I0506 07:36:26.167377 20556 net.cpp:409] ip3 -> ip3
I0506 07:36:26.168123 20556 net.cpp:144] Setting up ip3
I0506 07:36:26.168130 20556 net.cpp:151] Top shape: 20 50 (1000)
I0506 07:36:26.168133 20556 net.cpp:159] Memory required for data: 3888080
I0506 07:36:26.168138 20556 layer_factory.hpp:77] Creating layer ip3_ip3_0_split
I0506 07:36:26.168143 20556 net.cpp:94] Creating Layer ip3_ip3_0_split
I0506 07:36:26.168146 20556 net.cpp:435] ip3_ip3_0_split <- ip3
I0506 07:36:26.168151 20556 net.cpp:409] ip3_ip3_0_split -> ip3_ip3_0_split_0
I0506 07:36:26.168157 20556 net.cpp:409] ip3_ip3_0_split -> ip3_ip3_0_split_1
I0506 07:36:26.168202 20556 net.cpp:144] Setting up ip3_ip3_0_split
I0506 07:36:26.168208 20556 net.cpp:151] Top shape: 20 50 (1000)
I0506 07:36:26.168212 20556 net.cpp:151] Top shape: 20 50 (1000)
I0506 07:36:26.168215 20556 net.cpp:159] Memory required for data: 3896080
I0506 07:36:26.168218 20556 layer_factory.hpp:77] Creating layer accuracy
I0506 07:36:26.168223 20556 net.cpp:94] Creating Layer accuracy
I0506 07:36:26.168226 20556 net.cpp:435] accuracy <- ip3_ip3_0_split_0
I0506 07:36:26.168231 20556 net.cpp:435] accuracy <- label_intercept_1_split_0
I0506 07:36:26.168236 20556 net.cpp:409] accuracy -> accuracy
…
