…
I0507 01:13:21.592458 30678 net.cpp:323] The NetState phase (0) differed from the phase (1) specified by a rule in layer intercept
I0507 01:13:21.592473 30678 net.cpp:323] The NetState phase (0) differed from the phase (1) specified by a rule in layer loss
I0507 01:13:21.592568 30678 net.cpp:52] Initializing net from parameters: 
state {
  phase: TRAIN
}
layer {
  name: "parameters"
  type: "HDF5Data"
  top: "data"
  top: "label"
  include {
    phase: TRAIN
  }
  hdf5_data_param {
    source: "/home/purduethu/scratch/radon/d/deng106/CNNStatisticalModel/distributions/input/50_distributions_100_sample_size_train-parameters-path.txt"
    batch_size: 20
  }
}
layer {
  name: "conv1"
  type: "Convolution"
  bottom: "data"
  top: "conv1"
  param {
    lr_mult: 1
  }
  param {
    lr_mult: 2
  }
  convolution_param {
    num_output: 64
    pad: 2
    kernel_size: 5
    stride: 1
    weight_filler {
      type: "gaussian"
      std: 0.0001
    }
    bias_filler {
      type: "constant"
    }
  }
}
layer {
  name: "relu1"
  type: "ReLU"
  bottom: "conv1"
  top: "conv1"
}
layer {
  name: "conv2"
  type: "Convolution"
  bottom: "conv1"
  top: "conv2"
  param {
    lr_mult: 1
  }
  param {
    lr_mult: 2
  }
  convolution_param {
    num_output: 64
    pad: 2
    kernel_size: 5
    stride: 1
    weight_filler {
      type: "gaussian"
      std: 0.01
    }
    bias_filler {
      type: "constant"
    }
  }
}
layer {
  name: "relu2"
  type: "ReLU"
  bottom: "conv2"
  top: "conv2"
}
layer {
  name: "pool2"
  type: "Pooling"
  bottom: "conv2"
  top: "pool2"
  pooling_param {
    pool: MAX
    kernel_size: 3
    stride: 2
  }
}
layer {
  name: "conv3"
  type: "Convolution"
  bottom: "pool2"
  top: "conv3"
  param {
    lr_mult: 1
  }
  param {
    lr_mult: 2
  }
  convolution_param {
    num_output: 64
    pad: 2
    kernel_size: 5
    stride: 1
    weight_filler {
      type: "gaussian"
      std: 0.01
    }
    bias_filler {
      type: "constant"
    }
  }
}
layer {
  name: "relu3"
  type: "ReLU"
  bottom: "conv3"
  top: "conv3"
}
layer {
  name: "conv4"
  type: "Convolution"
  bottom: "conv3"
  top: "conv4"
  param {
    lr_mult: 1
  }
  param {
    lr_mult: 2
  }
  convolution_param {
    num_output: 64
    pad: 2
    kernel_size: 5
    stride: 1
    weight_filler {
      type: "gaussian"
      std: 0.01
    }
    bias_filler {
      type: "constant"
    }
  }
}
layer {
  name: "relu4"
  type: "ReLU"
  bottom: "conv4"
  top: "conv4"
}
layer {
  name: "conv5"
  type: "Convolution"
  bottom: "conv4"
  top: "conv5"
  param {
    lr_mult: 1
  }
  param {
    lr_mult: 2
  }
  convolution_param {
    num_output: 64
    pad: 2
    kernel_size: 5
    stride: 1
    weight_filler {
      type: "gaussian"
      std: 0.01
    }
    bias_filler {
      type: "constant"
    }
  }
}
layer {
  name: "relu5"
  type: "ReLU"
  bottom: "conv5"
  top: "conv5"
}
layer {
  name: "pool5"
  type: "Pooling"
  bottom: "conv5"
  top: "pool5"
  pooling_param {
    pool: AVE
    kernel_size: 3
    stride: 2
  }
}
layer {
  name: "ip1"
  type: "InnerProduct"
  bottom: "pool5"
  top: "ip1"
  param {
    lr_mult: 1
  }
  param {
    lr_mult: 2
  }
  inner_product_param {
    num_output: 64
    weight_filler {
      type: "gaussian"
      std: 0.1
    }
    bias_filler {
      type: "constant"
    }
  }
}
layer {
  name: "ip2"
  type: "InnerProduct"
  bottom: "ip1"
  top: "ip2"
  param {
    lr_mult: 1
  }
  param {
    lr_mult: 2
  }
  inner_product_param {
    num_output: 64
    weight_filler {
      type: "gaussian"
      std: 0.1
    }
    bias_filler {
      type: "constant"
    }
  }
}
layer {
  name: "ip3"
  type: "InnerProduct"
  bottom: "ip2"
  top: "ip3"
  param {
    lr_mult: 1
  }
  param {
    lr_mult: 2
  }
  inner_product_param {
    num_output: 1
    weight_filler {
      type: "gaussian"
      std: 0.1
    }
    bias_filler {
      type: "constant"
    }
  }
}
layer {
  name: "loss"
  type: "HuberLoss"
  bottom: "ip3"
  bottom: "label"
  top: "loss"
  include {
    phase: TRAIN
  }
}
I0507 01:13:21.592624 30678 layer_factory.hpp:77] Creating layer parameters
I0507 01:13:21.592638 30678 net.cpp:94] Creating Layer parameters
I0507 01:13:21.592641 30678 net.cpp:409] parameters -> data
I0507 01:13:21.592650 30678 net.cpp:409] parameters -> label
I0507 01:13:21.592658 30678 hdf5_data_layer.cpp:79] Loading list of HDF5 filenames from: /home/purduethu/scratch/radon/d/deng106/CNNStatisticalModel/distributions/input/50_distributions_100_sample_size_train-parameters-path.txt
I0507 01:13:21.592674 30678 hdf5_data_layer.cpp:93] Number of HDF5 files: 1
I0507 01:13:21.593228 30678 hdf5.cpp:32] Datatype class: H5T_FLOAT
I0507 01:13:21.754508 30678 net.cpp:144] Setting up parameters
I0507 01:13:21.754541 30678 net.cpp:151] Top shape: 20 1 10 10 (2000)
I0507 01:13:21.754547 30678 net.cpp:151] Top shape: 20 (20)
I0507 01:13:21.754550 30678 net.cpp:159] Memory required for data: 8080
I0507 01:13:21.754556 30678 layer_factory.hpp:77] Creating layer conv1
I0507 01:13:21.754576 30678 net.cpp:94] Creating Layer conv1
I0507 01:13:21.754581 30678 net.cpp:435] conv1 <- data
I0507 01:13:21.754587 30678 net.cpp:409] conv1 -> conv1
I0507 01:13:21.758836 30678 net.cpp:144] Setting up conv1
I0507 01:13:21.758853 30678 net.cpp:151] Top shape: 20 64 10 10 (128000)
I0507 01:13:21.758857 30678 net.cpp:159] Memory required for data: 520080
I0507 01:13:21.758868 30678 layer_factory.hpp:77] Creating layer relu1
I0507 01:13:21.758877 30678 net.cpp:94] Creating Layer relu1
I0507 01:13:21.758880 30678 net.cpp:435] relu1 <- conv1
I0507 01:13:21.758885 30678 net.cpp:396] relu1 -> conv1 (in-place)
I0507 01:13:21.758899 30678 net.cpp:144] Setting up relu1
I0507 01:13:21.758904 30678 net.cpp:151] Top shape: 20 64 10 10 (128000)
I0507 01:13:21.758908 30678 net.cpp:159] Memory required for data: 1032080
I0507 01:13:21.758910 30678 layer_factory.hpp:77] Creating layer conv2
I0507 01:13:21.758919 30678 net.cpp:94] Creating Layer conv2
I0507 01:13:21.758922 30678 net.cpp:435] conv2 <- conv1
I0507 01:13:21.758927 30678 net.cpp:409] conv2 -> conv2
I0507 01:13:21.765012 30678 net.cpp:144] Setting up conv2
I0507 01:13:21.765025 30678 net.cpp:151] Top shape: 20 64 10 10 (128000)
I0507 01:13:21.765029 30678 net.cpp:159] Memory required for data: 1544080
I0507 01:13:21.765038 30678 layer_factory.hpp:77] Creating layer relu2
I0507 01:13:21.765045 30678 net.cpp:94] Creating Layer relu2
I0507 01:13:21.765049 30678 net.cpp:435] relu2 <- conv2
I0507 01:13:21.765053 30678 net.cpp:396] relu2 -> conv2 (in-place)
I0507 01:13:21.765061 30678 net.cpp:144] Setting up relu2
I0507 01:13:21.765065 30678 net.cpp:151] Top shape: 20 64 10 10 (128000)
I0507 01:13:21.765069 30678 net.cpp:159] Memory required for data: 2056080
I0507 01:13:21.765071 30678 layer_factory.hpp:77] Creating layer pool2
I0507 01:13:21.765077 30678 net.cpp:94] Creating Layer pool2
I0507 01:13:21.765080 30678 net.cpp:435] pool2 <- conv2
I0507 01:13:21.765085 30678 net.cpp:409] pool2 -> pool2
I0507 01:13:21.765143 30678 net.cpp:144] Setting up pool2
I0507 01:13:21.765151 30678 net.cpp:151] Top shape: 20 64 5 5 (32000)
I0507 01:13:21.765154 30678 net.cpp:159] Memory required for data: 2184080
I0507 01:13:21.765158 30678 layer_factory.hpp:77] Creating layer conv3
I0507 01:13:21.765166 30678 net.cpp:94] Creating Layer conv3
I0507 01:13:21.765168 30678 net.cpp:435] conv3 <- pool2
I0507 01:13:21.765179 30678 net.cpp:409] conv3 -> conv3
I0507 01:13:21.770105 30678 net.cpp:144] Setting up conv3
I0507 01:13:21.770119 30678 net.cpp:151] Top shape: 20 64 5 5 (32000)
I0507 01:13:21.770123 30678 net.cpp:159] Memory required for data: 2312080
I0507 01:13:21.770131 30678 layer_factory.hpp:77] Creating layer relu3
I0507 01:13:21.770136 30678 net.cpp:94] Creating Layer relu3
I0507 01:13:21.770140 30678 net.cpp:435] relu3 <- conv3
I0507 01:13:21.770144 30678 net.cpp:396] relu3 -> conv3 (in-place)
I0507 01:13:21.770151 30678 net.cpp:144] Setting up relu3
I0507 01:13:21.770156 30678 net.cpp:151] Top shape: 20 64 5 5 (32000)
I0507 01:13:21.770159 30678 net.cpp:159] Memory required for data: 2440080
I0507 01:13:21.770162 30678 layer_factory.hpp:77] Creating layer conv4
I0507 01:13:21.770170 30678 net.cpp:94] Creating Layer conv4
I0507 01:13:21.770174 30678 net.cpp:435] conv4 <- conv3
I0507 01:13:21.770179 30678 net.cpp:409] conv4 -> conv4
I0507 01:13:21.774616 30678 net.cpp:144] Setting up conv4
I0507 01:13:21.774629 30678 net.cpp:151] Top shape: 20 64 5 5 (32000)
I0507 01:13:21.774633 30678 net.cpp:159] Memory required for data: 2568080
I0507 01:13:21.774639 30678 layer_factory.hpp:77] Creating layer relu4
I0507 01:13:21.774646 30678 net.cpp:94] Creating Layer relu4
I0507 01:13:21.774649 30678 net.cpp:435] relu4 <- conv4
I0507 01:13:21.774653 30678 net.cpp:396] relu4 -> conv4 (in-place)
I0507 01:13:21.774660 30678 net.cpp:144] Setting up relu4
I0507 01:13:21.774664 30678 net.cpp:151] Top shape: 20 64 5 5 (32000)
I0507 01:13:21.774667 30678 net.cpp:159] Memory required for data: 2696080
I0507 01:13:21.774670 30678 layer_factory.hpp:77] Creating layer conv5
I0507 01:13:21.774677 30678 net.cpp:94] Creating Layer conv5
I0507 01:13:21.774682 30678 net.cpp:435] conv5 <- conv4
I0507 01:13:21.774685 30678 net.cpp:409] conv5 -> conv5
I0507 01:13:21.779557 30678 net.cpp:144] Setting up conv5
I0507 01:13:21.779572 30678 net.cpp:151] Top shape: 20 64 5 5 (32000)
I0507 01:13:21.779575 30678 net.cpp:159] Memory required for data: 2824080
I0507 01:13:21.779583 30678 layer_factory.hpp:77] Creating layer relu5
I0507 01:13:21.779589 30678 net.cpp:94] Creating Layer relu5
I0507 01:13:21.779592 30678 net.cpp:435] relu5 <- conv5
I0507 01:13:21.779597 30678 net.cpp:396] relu5 -> conv5 (in-place)
I0507 01:13:21.779604 30678 net.cpp:144] Setting up relu5
I0507 01:13:21.779608 30678 net.cpp:151] Top shape: 20 64 5 5 (32000)
I0507 01:13:21.779611 30678 net.cpp:159] Memory required for data: 2952080
I0507 01:13:21.779614 30678 layer_factory.hpp:77] Creating layer pool5
I0507 01:13:21.779619 30678 net.cpp:94] Creating Layer pool5
I0507 01:13:21.779623 30678 net.cpp:435] pool5 <- conv5
I0507 01:13:21.779626 30678 net.cpp:409] pool5 -> pool5
I0507 01:13:21.779666 30678 net.cpp:144] Setting up pool5
I0507 01:13:21.779673 30678 net.cpp:151] Top shape: 20 64 2 2 (5120)
I0507 01:13:21.779676 30678 net.cpp:159] Memory required for data: 2972560
I0507 01:13:21.779680 30678 layer_factory.hpp:77] Creating layer ip1
I0507 01:13:21.779690 30678 net.cpp:94] Creating Layer ip1
I0507 01:13:21.779693 30678 net.cpp:435] ip1 <- pool5
I0507 01:13:21.779697 30678 net.cpp:409] ip1 -> ip1
I0507 01:13:21.781023 30678 net.cpp:144] Setting up ip1
I0507 01:13:21.781038 30678 net.cpp:151] Top shape: 20 64 (1280)
I0507 01:13:21.781040 30678 net.cpp:159] Memory required for data: 2977680
I0507 01:13:21.781047 30678 layer_factory.hpp:77] Creating layer ip2
I0507 01:13:21.781054 30678 net.cpp:94] Creating Layer ip2
I0507 01:13:21.781059 30678 net.cpp:435] ip2 <- ip1
I0507 01:13:21.781062 30678 net.cpp:409] ip2 -> ip2
I0507 01:13:21.781280 30678 net.cpp:144] Setting up ip2
I0507 01:13:21.781287 30678 net.cpp:151] Top shape: 20 64 (1280)
I0507 01:13:21.781291 30678 net.cpp:159] Memory required for data: 2982800
I0507 01:13:21.781296 30678 layer_factory.hpp:77] Creating layer ip3
I0507 01:13:21.781302 30678 net.cpp:94] Creating Layer ip3
I0507 01:13:21.781306 30678 net.cpp:435] ip3 <- ip2
I0507 01:13:21.781311 30678 net.cpp:409] ip3 -> ip3
I0507 01:13:21.781436 30678 net.cpp:144] Setting up ip3
I0507 01:13:21.781445 30678 net.cpp:151] Top shape: 20 1 (20)
I0507 01:13:21.781448 30678 net.cpp:159] Memory required for data: 2982880
I0507 01:13:21.781455 30678 layer_factory.hpp:77] Creating layer loss
I0507 01:13:21.781461 30678 net.cpp:94] Creating Layer loss
I0507 01:13:21.781464 30678 net.cpp:435] loss <- ip3
I0507 01:13:21.781468 30678 net.cpp:435] loss <- label
I0507 01:13:21.781473 30678 net.cpp:409] loss -> loss
I0507 01:13:21.781530 30678 net.cpp:144] Setting up loss
…
I0507 01:13:21.842674 30678 net.cpp:323] The NetState phase (0) differed from the phase (1) specified by a rule in layer intercept
I0507 01:13:21.842689 30678 net.cpp:323] The NetState phase (0) differed from the phase (1) specified by a rule in layer accuracy
I0507 01:13:21.842777 30678 net.cpp:52] Initializing net from parameters: 
state {
  phase: TRAIN
}
layer {
  name: "parameters"
  type: "HDF5Data"
  top: "data"
  top: "label"
  include {
    phase: TRAIN
  }
  hdf5_data_param {
    source: "/home/purduethu/scratch/radon/d/deng106/CNNStatisticalModel/distributions/input/50_distributions_100_sample_size_train-distributions-path.txt"
    batch_size: 20
  }
}
layer {
  name: "conv1"
  type: "Convolution"
  bottom: "data"
  top: "conv1"
  param {
    lr_mult: 1
  }
  param {
    lr_mult: 2
  }
  convolution_param {
    num_output: 64
    pad: 2
    kernel_size: 5
    stride: 1
    weight_filler {
      type: "gaussian"
      std: 0.0001
    }
    bias_filler {
      type: "constant"
    }
  }
}
layer {
  name: "relu1"
  type: "ReLU"
  bottom: "conv1"
  top: "conv1"
}
layer {
  name: "conv2"
  type: "Convolution"
  bottom: "conv1"
  top: "conv2"
  param {
    lr_mult: 1
  }
  param {
    lr_mult: 2
  }
  convolution_param {
    num_output: 64
    pad: 2
    kernel_size: 5
    stride: 1
    weight_filler {
      type: "gaussian"
      std: 0.01
    }
    bias_filler {
      type: "constant"
    }
  }
}
layer {
  name: "relu2"
  type: "ReLU"
  bottom: "conv2"
  top: "conv2"
}
layer {
  name: "pool2"
  type: "Pooling"
  bottom: "conv2"
  top: "pool2"
  pooling_param {
    pool: MAX
    kernel_size: 3
    stride: 2
  }
}
layer {
  name: "conv3"
  type: "Convolution"
  bottom: "pool2"
  top: "conv3"
  param {
    lr_mult: 1
  }
  param {
    lr_mult: 2
  }
  convolution_param {
    num_output: 64
    pad: 2
    kernel_size: 5
    stride: 1
    weight_filler {
      type: "gaussian"
      std: 0.01
    }
    bias_filler {
      type: "constant"
    }
  }
}
layer {
  name: "relu3"
  type: "ReLU"
  bottom: "conv3"
  top: "conv3"
}
layer {
  name: "conv4"
  type: "Convolution"
  bottom: "conv3"
  top: "conv4"
  param {
    lr_mult: 1
  }
  param {
    lr_mult: 2
  }
  convolution_param {
    num_output: 64
    pad: 2
    kernel_size: 5
    stride: 1
    weight_filler {
      type: "gaussian"
      std: 0.01
    }
    bias_filler {
      type: "constant"
    }
  }
}
layer {
  name: "relu4"
  type: "ReLU"
  bottom: "conv4"
  top: "conv4"
}
layer {
  name: "conv5"
  type: "Convolution"
  bottom: "conv4"
  top: "conv5"
  param {
    lr_mult: 1
  }
  param {
    lr_mult: 2
  }
  convolution_param {
    num_output: 64
    pad: 2
    kernel_size: 5
    stride: 1
    weight_filler {
      type: "gaussian"
      std: 0.01
    }
    bias_filler {
      type: "constant"
    }
  }
}
layer {
  name: "relu5"
  type: "ReLU"
  bottom: "conv5"
  top: "conv5"
}
layer {
  name: "pool5"
  type: "Pooling"
  bottom: "conv5"
  top: "pool5"
  pooling_param {
    pool: AVE
    kernel_size: 3
    stride: 2
  }
}
layer {
  name: "ip1"
  type: "InnerProduct"
  bottom: "pool5"
  top: "ip1"
  param {
    lr_mult: 1
  }
  param {
    lr_mult: 2
  }
  inner_product_param {
    num_output: 64
    weight_filler {
      type: "gaussian"
      std: 0.1
    }
    bias_filler {
      type: "constant"
    }
  }
}
layer {
  name: "ip2"
  type: "InnerProduct"
  bottom: "ip1"
  top: "ip2"
  param {
    lr_mult: 1
  }
  param {
    lr_mult: 2
  }
  inner_product_param {
    num_output: 64
    weight_filler {
      type: "gaussian"
      std: 0.1
    }
    bias_filler {
      type: "constant"
    }
  }
}
layer {
  name: "ip3"
  type: "InnerProduct"
  bottom: "ip2"
  top: "ip3"
  param {
    lr_mult: 1
  }
  param {
    lr_mult: 2
  }
  inner_product_param {
    num_output: 50
    weight_filler {
      type: "gaussian"
      std: 0.1
    }
    bias_filler {
      type: "constant"
    }
  }
}
layer {
  name: "loss"
  type: "SoftmaxWithLoss"
  bottom: "ip3"
  bottom: "label"
  top: "loss"
}
I0507 01:13:21.842828 30678 layer_factory.hpp:77] Creating layer parameters
I0507 01:13:21.842836 30678 net.cpp:94] Creating Layer parameters
I0507 01:13:21.842840 30678 net.cpp:409] parameters -> data
I0507 01:13:21.842846 30678 net.cpp:409] parameters -> label
I0507 01:13:21.842852 30678 hdf5_data_layer.cpp:79] Loading list of HDF5 filenames from: /home/purduethu/scratch/radon/d/deng106/CNNStatisticalModel/distributions/input/50_distributions_100_sample_size_train-distributions-path.txt
I0507 01:13:21.842869 30678 hdf5_data_layer.cpp:93] Number of HDF5 files: 1
I0507 01:13:21.998886 30678 hdf5.cpp:35] Datatype class: H5T_INTEGER
I0507 01:13:22.002055 30678 net.cpp:144] Setting up parameters
I0507 01:13:22.002081 30678 net.cpp:151] Top shape: 20 1 10 10 (2000)
I0507 01:13:22.002086 30678 net.cpp:151] Top shape: 20 (20)
I0507 01:13:22.002089 30678 net.cpp:159] Memory required for data: 8080
I0507 01:13:22.002095 30678 layer_factory.hpp:77] Creating layer conv1
I0507 01:13:22.002111 30678 net.cpp:94] Creating Layer conv1
I0507 01:13:22.002115 30678 net.cpp:435] conv1 <- data
I0507 01:13:22.002122 30678 net.cpp:409] conv1 -> conv1
I0507 01:13:22.003870 30678 net.cpp:144] Setting up conv1
I0507 01:13:22.003883 30678 net.cpp:151] Top shape: 20 64 10 10 (128000)
I0507 01:13:22.003887 30678 net.cpp:159] Memory required for data: 520080
I0507 01:13:22.003896 30678 layer_factory.hpp:77] Creating layer relu1
I0507 01:13:22.003904 30678 net.cpp:94] Creating Layer relu1
I0507 01:13:22.003908 30678 net.cpp:435] relu1 <- conv1
I0507 01:13:22.003912 30678 net.cpp:396] relu1 -> conv1 (in-place)
I0507 01:13:22.003921 30678 net.cpp:144] Setting up relu1
I0507 01:13:22.003924 30678 net.cpp:151] Top shape: 20 64 10 10 (128000)
I0507 01:13:22.003927 30678 net.cpp:159] Memory required for data: 1032080
I0507 01:13:22.003931 30678 layer_factory.hpp:77] Creating layer conv2
I0507 01:13:22.003938 30678 net.cpp:94] Creating Layer conv2
I0507 01:13:22.003942 30678 net.cpp:435] conv2 <- conv1
I0507 01:13:22.003947 30678 net.cpp:409] conv2 -> conv2
I0507 01:13:22.009330 30678 net.cpp:144] Setting up conv2
I0507 01:13:22.009343 30678 net.cpp:151] Top shape: 20 64 10 10 (128000)
I0507 01:13:22.009347 30678 net.cpp:159] Memory required for data: 1544080
I0507 01:13:22.009356 30678 layer_factory.hpp:77] Creating layer relu2
I0507 01:13:22.009361 30678 net.cpp:94] Creating Layer relu2
I0507 01:13:22.009366 30678 net.cpp:435] relu2 <- conv2
I0507 01:13:22.009371 30678 net.cpp:396] relu2 -> conv2 (in-place)
I0507 01:13:22.009377 30678 net.cpp:144] Setting up relu2
I0507 01:13:22.009382 30678 net.cpp:151] Top shape: 20 64 10 10 (128000)
I0507 01:13:22.009384 30678 net.cpp:159] Memory required for data: 2056080
I0507 01:13:22.009387 30678 layer_factory.hpp:77] Creating layer pool2
I0507 01:13:22.009393 30678 net.cpp:94] Creating Layer pool2
I0507 01:13:22.009397 30678 net.cpp:435] pool2 <- conv2
I0507 01:13:22.009400 30678 net.cpp:409] pool2 -> pool2
I0507 01:13:22.009457 30678 net.cpp:144] Setting up pool2
I0507 01:13:22.009464 30678 net.cpp:151] Top shape: 20 64 5 5 (32000)
I0507 01:13:22.009469 30678 net.cpp:159] Memory required for data: 2184080
I0507 01:13:22.009471 30678 layer_factory.hpp:77] Creating layer conv3
I0507 01:13:22.009479 30678 net.cpp:94] Creating Layer conv3
I0507 01:13:22.009482 30678 net.cpp:435] conv3 <- pool2
I0507 01:13:22.009487 30678 net.cpp:409] conv3 -> conv3
I0507 01:13:22.015265 30678 net.cpp:144] Setting up conv3
I0507 01:13:22.015280 30678 net.cpp:151] Top shape: 20 64 5 5 (32000)
I0507 01:13:22.015283 30678 net.cpp:159] Memory required for data: 2312080
I0507 01:13:22.015291 30678 layer_factory.hpp:77] Creating layer relu3
I0507 01:13:22.015297 30678 net.cpp:94] Creating Layer relu3
I0507 01:13:22.015301 30678 net.cpp:435] relu3 <- conv3
I0507 01:13:22.015306 30678 net.cpp:396] relu3 -> conv3 (in-place)
I0507 01:13:22.015312 30678 net.cpp:144] Setting up relu3
I0507 01:13:22.015317 30678 net.cpp:151] Top shape: 20 64 5 5 (32000)
I0507 01:13:22.015326 30678 net.cpp:159] Memory required for data: 2440080
I0507 01:13:22.015329 30678 layer_factory.hpp:77] Creating layer conv4
I0507 01:13:22.015338 30678 net.cpp:94] Creating Layer conv4
I0507 01:13:22.015341 30678 net.cpp:435] conv4 <- conv3
I0507 01:13:22.015347 30678 net.cpp:409] conv4 -> conv4
I0507 01:13:22.020265 30678 net.cpp:144] Setting up conv4
I0507 01:13:22.020278 30678 net.cpp:151] Top shape: 20 64 5 5 (32000)
I0507 01:13:22.020282 30678 net.cpp:159] Memory required for data: 2568080
I0507 01:13:22.020289 30678 layer_factory.hpp:77] Creating layer relu4
I0507 01:13:22.020295 30678 net.cpp:94] Creating Layer relu4
I0507 01:13:22.020298 30678 net.cpp:435] relu4 <- conv4
I0507 01:13:22.020303 30678 net.cpp:396] relu4 -> conv4 (in-place)
I0507 01:13:22.020310 30678 net.cpp:144] Setting up relu4
I0507 01:13:22.020314 30678 net.cpp:151] Top shape: 20 64 5 5 (32000)
I0507 01:13:22.020318 30678 net.cpp:159] Memory required for data: 2696080
I0507 01:13:22.020320 30678 layer_factory.hpp:77] Creating layer conv5
I0507 01:13:22.020328 30678 net.cpp:94] Creating Layer conv5
I0507 01:13:22.020331 30678 net.cpp:435] conv5 <- conv4
I0507 01:13:22.020336 30678 net.cpp:409] conv5 -> conv5
I0507 01:13:22.024802 30678 net.cpp:144] Setting up conv5
I0507 01:13:22.024816 30678 net.cpp:151] Top shape: 20 64 5 5 (32000)
I0507 01:13:22.024819 30678 net.cpp:159] Memory required for data: 2824080
I0507 01:13:22.024828 30678 layer_factory.hpp:77] Creating layer relu5
I0507 01:13:22.024834 30678 net.cpp:94] Creating Layer relu5
I0507 01:13:22.024837 30678 net.cpp:435] relu5 <- conv5
I0507 01:13:22.024842 30678 net.cpp:396] relu5 -> conv5 (in-place)
I0507 01:13:22.024849 30678 net.cpp:144] Setting up relu5
I0507 01:13:22.024853 30678 net.cpp:151] Top shape: 20 64 5 5 (32000)
I0507 01:13:22.024857 30678 net.cpp:159] Memory required for data: 2952080
I0507 01:13:22.024859 30678 layer_factory.hpp:77] Creating layer pool5
I0507 01:13:22.024865 30678 net.cpp:94] Creating Layer pool5
I0507 01:13:22.024868 30678 net.cpp:435] pool5 <- conv5
I0507 01:13:22.024873 30678 net.cpp:409] pool5 -> pool5
I0507 01:13:22.024909 30678 net.cpp:144] Setting up pool5
I0507 01:13:22.024916 30678 net.cpp:151] Top shape: 20 64 2 2 (5120)
I0507 01:13:22.024919 30678 net.cpp:159] Memory required for data: 2972560
I0507 01:13:22.024922 30678 layer_factory.hpp:77] Creating layer ip1
I0507 01:13:22.024930 30678 net.cpp:94] Creating Layer ip1
I0507 01:13:22.024932 30678 net.cpp:435] ip1 <- pool5
I0507 01:13:22.024937 30678 net.cpp:409] ip1 -> ip1
I0507 01:13:22.025459 30678 net.cpp:144] Setting up ip1
I0507 01:13:22.025466 30678 net.cpp:151] Top shape: 20 64 (1280)
I0507 01:13:22.025470 30678 net.cpp:159] Memory required for data: 2977680
I0507 01:13:22.025475 30678 layer_factory.hpp:77] Creating layer ip2
I0507 01:13:22.025482 30678 net.cpp:94] Creating Layer ip2
I0507 01:13:22.025485 30678 net.cpp:435] ip2 <- ip1
I0507 01:13:22.025490 30678 net.cpp:409] ip2 -> ip2
I0507 01:13:22.025719 30678 net.cpp:144] Setting up ip2
I0507 01:13:22.025727 30678 net.cpp:151] Top shape: 20 64 (1280)
I0507 01:13:22.025730 30678 net.cpp:159] Memory required for data: 2982800
I0507 01:13:22.025735 30678 layer_factory.hpp:77] Creating layer ip3
I0507 01:13:22.025740 30678 net.cpp:94] Creating Layer ip3
I0507 01:13:22.025744 30678 net.cpp:435] ip3 <- ip2
I0507 01:13:22.025748 30678 net.cpp:409] ip3 -> ip3
I0507 01:13:22.025950 30678 net.cpp:144] Setting up ip3
I0507 01:13:22.025959 30678 net.cpp:151] Top shape: 20 50 (1000)
I0507 01:13:22.025961 30678 net.cpp:159] Memory required for data: 2986800
I0507 01:13:22.025966 30678 layer_factory.hpp:77] Creating layer loss
I0507 01:13:22.025974 30678 net.cpp:94] Creating Layer loss
I0507 01:13:22.025976 30678 net.cpp:435] loss <- ip3
I0507 01:13:22.025980 30678 net.cpp:435] loss <- label
I0507 01:13:22.025985 30678 net.cpp:409] loss -> loss
I0507 01:13:22.025991 30678 layer_factory.hpp:77] Creating layer loss
…
I0507 01:13:22.027345 30678 solver.cpp:181] Creating test net (#0) specified by net file: ./protocol/dis_50_100_dimension.protocol_distribution
I0507 01:13:22.027372 30678 net.cpp:323] The NetState phase (1) differed from the phase (0) specified by a rule in layer parameters
I0507 01:13:22.027468 30678 net.cpp:52] Initializing net from parameters: 
state {
  phase: TEST
}
layer {
  name: "intercept"
  type: "HDF5Data"
  top: "data"
  top: "label"
  include {
    phase: TEST
  }
  hdf5_data_param {
    source: "/home/purduethu/scratch/radon/d/deng106/CNNStatisticalModel/distributions/input/50_distributions_100_sample_size_test-distributions-path.txt"
    batch_size: 20
  }
}
layer {
  name: "conv1"
  type: "Convolution"
  bottom: "data"
  top: "conv1"
  param {
    lr_mult: 1
  }
  param {
    lr_mult: 2
  }
  convolution_param {
    num_output: 64
    pad: 2
    kernel_size: 5
    stride: 1
    weight_filler {
      type: "gaussian"
      std: 0.0001
    }
    bias_filler {
      type: "constant"
    }
  }
}
layer {
  name: "relu1"
  type: "ReLU"
  bottom: "conv1"
  top: "conv1"
}
layer {
  name: "conv2"
  type: "Convolution"
  bottom: "conv1"
  top: "conv2"
  param {
    lr_mult: 1
  }
  param {
    lr_mult: 2
  }
  convolution_param {
    num_output: 64
    pad: 2
    kernel_size: 5
    stride: 1
    weight_filler {
      type: "gaussian"
      std: 0.01
    }
    bias_filler {
      type: "constant"
    }
  }
}
layer {
  name: "relu2"
  type: "ReLU"
  bottom: "conv2"
  top: "conv2"
}
layer {
  name: "pool2"
  type: "Pooling"
  bottom: "conv2"
  top: "pool2"
  pooling_param {
    pool: MAX
    kernel_size: 3
    stride: 2
  }
}
layer {
  name: "conv3"
  type: "Convolution"
  bottom: "pool2"
  top: "conv3"
  param {
    lr_mult: 1
  }
  param {
    lr_mult: 2
  }
  convolution_param {
    num_output: 64
    pad: 2
    kernel_size: 5
    stride: 1
    weight_filler {
      type: "gaussian"
      std: 0.01
    }
    bias_filler {
      type: "constant"
    }
  }
}
layer {
  name: "relu3"
  type: "ReLU"
  bottom: "conv3"
  top: "conv3"
}
layer {
  name: "conv4"
  type: "Convolution"
  bottom: "conv3"
  top: "conv4"
  param {
    lr_mult: 1
  }
  param {
    lr_mult: 2
  }
  convolution_param {
    num_output: 64
    pad: 2
    kernel_size: 5
    stride: 1
    weight_filler {
      type: "gaussian"
      std: 0.01
    }
    bias_filler {
      type: "constant"
    }
  }
}
layer {
  name: "relu4"
  type: "ReLU"
  bottom: "conv4"
  top: "conv4"
}
layer {
  name: "conv5"
  type: "Convolution"
  bottom: "conv4"
  top: "conv5"
  param {
    lr_mult: 1
  }
  param {
    lr_mult: 2
  }
  convolution_param {
    num_output: 64
    pad: 2
    kernel_size: 5
    stride: 1
    weight_filler {
      type: "gaussian"
      std: 0.01
    }
    bias_filler {
      type: "constant"
    }
  }
}
layer {
  name: "relu5"
  type: "ReLU"
  bottom: "conv5"
  top: "conv5"
}
layer {
  name: "pool5"
  type: "Pooling"
  bottom: "conv5"
  top: "pool5"
  pooling_param {
    pool: AVE
    kernel_size: 3
    stride: 2
  }
}
layer {
  name: "ip1"
  type: "InnerProduct"
  bottom: "pool5"
  top: "ip1"
  param {
    lr_mult: 1
  }
  param {
    lr_mult: 2
  }
  inner_product_param {
    num_output: 64
    weight_filler {
      type: "gaussian"
      std: 0.1
    }
    bias_filler {
      type: "constant"
    }
  }
}
layer {
  name: "ip2"
  type: "InnerProduct"
  bottom: "ip1"
  top: "ip2"
  param {
    lr_mult: 1
  }
  param {
    lr_mult: 2
  }
  inner_product_param {
    num_output: 64
    weight_filler {
      type: "gaussian"
      std: 0.1
    }
    bias_filler {
      type: "constant"
    }
  }
}
layer {
  name: "ip3"
  type: "InnerProduct"
  bottom: "ip2"
  top: "ip3"
  param {
    lr_mult: 1
  }
  param {
    lr_mult: 2
  }
  inner_product_param {
    num_output: 50
    weight_filler {
      type: "gaussian"
      std: 0.1
    }
    bias_filler {
      type: "constant"
    }
  }
}
layer {
  name: "accuracy"
  type: "Accuracy"
  bottom: "ip3"
  bottom: "label"
  top: "accuracy"
  include {
    phase: TEST
  }
}
layer {
  name: "loss"
  type: "SoftmaxWithLoss"
  bottom: "ip3"
  bottom: "label"
  top: "loss"
}
I0507 01:13:22.027532 30678 layer_factory.hpp:77] Creating layer intercept
I0507 01:13:22.027541 30678 net.cpp:94] Creating Layer intercept
I0507 01:13:22.027545 30678 net.cpp:409] intercept -> data
I0507 01:13:22.027552 30678 net.cpp:409] intercept -> label
I0507 01:13:22.027559 30678 hdf5_data_layer.cpp:79] Loading list of HDF5 filenames from: /home/purduethu/scratch/radon/d/deng106/CNNStatisticalModel/distributions/input/50_distributions_100_sample_size_test-distributions-path.txt
I0507 01:13:22.027577 30678 hdf5_data_layer.cpp:93] Number of HDF5 files: 1
I0507 01:13:22.069037 30678 net.cpp:144] Setting up intercept
I0507 01:13:22.069072 30678 net.cpp:151] Top shape: 20 1 10 10 (2000)
I0507 01:13:22.069077 30678 net.cpp:151] Top shape: 20 (20)
I0507 01:13:22.069079 30678 net.cpp:159] Memory required for data: 8080
I0507 01:13:22.069085 30678 layer_factory.hpp:77] Creating layer label_intercept_1_split
I0507 01:13:22.069103 30678 net.cpp:94] Creating Layer label_intercept_1_split
I0507 01:13:22.069108 30678 net.cpp:435] label_intercept_1_split <- label
I0507 01:13:22.069114 30678 net.cpp:409] label_intercept_1_split -> label_intercept_1_split_0
I0507 01:13:22.069123 30678 net.cpp:409] label_intercept_1_split -> label_intercept_1_split_1
I0507 01:13:22.069167 30678 net.cpp:144] Setting up label_intercept_1_split
I0507 01:13:22.069175 30678 net.cpp:151] Top shape: 20 (20)
I0507 01:13:22.069178 30678 net.cpp:151] Top shape: 20 (20)
I0507 01:13:22.069181 30678 net.cpp:159] Memory required for data: 8240
I0507 01:13:22.069185 30678 layer_factory.hpp:77] Creating layer conv1
I0507 01:13:22.069195 30678 net.cpp:94] Creating Layer conv1
I0507 01:13:22.069200 30678 net.cpp:435] conv1 <- data
I0507 01:13:22.069203 30678 net.cpp:409] conv1 -> conv1
I0507 01:13:22.070020 30678 net.cpp:144] Setting up conv1
I0507 01:13:22.070034 30678 net.cpp:151] Top shape: 20 64 10 10 (128000)
I0507 01:13:22.070037 30678 net.cpp:159] Memory required for data: 520240
I0507 01:13:22.070046 30678 layer_factory.hpp:77] Creating layer relu1
I0507 01:13:22.070053 30678 net.cpp:94] Creating Layer relu1
I0507 01:13:22.070056 30678 net.cpp:435] relu1 <- conv1
I0507 01:13:22.070061 30678 net.cpp:396] relu1 -> conv1 (in-place)
I0507 01:13:22.070068 30678 net.cpp:144] Setting up relu1
I0507 01:13:22.070072 30678 net.cpp:151] Top shape: 20 64 10 10 (128000)
I0507 01:13:22.070075 30678 net.cpp:159] Memory required for data: 1032240
I0507 01:13:22.070086 30678 layer_factory.hpp:77] Creating layer conv2
I0507 01:13:22.070096 30678 net.cpp:94] Creating Layer conv2
I0507 01:13:22.070099 30678 net.cpp:435] conv2 <- conv1
I0507 01:13:22.070103 30678 net.cpp:409] conv2 -> conv2
I0507 01:13:22.074184 30678 net.cpp:144] Setting up conv2
I0507 01:13:22.074198 30678 net.cpp:151] Top shape: 20 64 10 10 (128000)
I0507 01:13:22.074203 30678 net.cpp:159] Memory required for data: 1544240
I0507 01:13:22.074211 30678 layer_factory.hpp:77] Creating layer relu2
I0507 01:13:22.074218 30678 net.cpp:94] Creating Layer relu2
I0507 01:13:22.074221 30678 net.cpp:435] relu2 <- conv2
I0507 01:13:22.074226 30678 net.cpp:396] relu2 -> conv2 (in-place)
I0507 01:13:22.074232 30678 net.cpp:144] Setting up relu2
I0507 01:13:22.074237 30678 net.cpp:151] Top shape: 20 64 10 10 (128000)
I0507 01:13:22.074240 30678 net.cpp:159] Memory required for data: 2056240
I0507 01:13:22.074244 30678 layer_factory.hpp:77] Creating layer pool2
I0507 01:13:22.074249 30678 net.cpp:94] Creating Layer pool2
I0507 01:13:22.074252 30678 net.cpp:435] pool2 <- conv2
I0507 01:13:22.074256 30678 net.cpp:409] pool2 -> pool2
I0507 01:13:22.074314 30678 net.cpp:144] Setting up pool2
I0507 01:13:22.074322 30678 net.cpp:151] Top shape: 20 64 5 5 (32000)
I0507 01:13:22.074326 30678 net.cpp:159] Memory required for data: 2184240
I0507 01:13:22.074329 30678 layer_factory.hpp:77] Creating layer conv3
I0507 01:13:22.074337 30678 net.cpp:94] Creating Layer conv3
I0507 01:13:22.074342 30678 net.cpp:435] conv3 <- pool2
I0507 01:13:22.074347 30678 net.cpp:409] conv3 -> conv3
I0507 01:13:22.078758 30678 net.cpp:144] Setting up conv3
I0507 01:13:22.078773 30678 net.cpp:151] Top shape: 20 64 5 5 (32000)
I0507 01:13:22.078776 30678 net.cpp:159] Memory required for data: 2312240
I0507 01:13:22.078784 30678 layer_factory.hpp:77] Creating layer relu3
I0507 01:13:22.078791 30678 net.cpp:94] Creating Layer relu3
I0507 01:13:22.078795 30678 net.cpp:435] relu3 <- conv3
I0507 01:13:22.078800 30678 net.cpp:396] relu3 -> conv3 (in-place)
I0507 01:13:22.078807 30678 net.cpp:144] Setting up relu3
I0507 01:13:22.078812 30678 net.cpp:151] Top shape: 20 64 5 5 (32000)
I0507 01:13:22.078815 30678 net.cpp:159] Memory required for data: 2440240
I0507 01:13:22.078819 30678 layer_factory.hpp:77] Creating layer conv4
I0507 01:13:22.078826 30678 net.cpp:94] Creating Layer conv4
I0507 01:13:22.078830 30678 net.cpp:435] conv4 <- conv3
I0507 01:13:22.078835 30678 net.cpp:409] conv4 -> conv4
I0507 01:13:22.082377 30678 net.cpp:144] Setting up conv4
I0507 01:13:22.082391 30678 net.cpp:151] Top shape: 20 64 5 5 (32000)
I0507 01:13:22.082394 30678 net.cpp:159] Memory required for data: 2568240
I0507 01:13:22.082401 30678 layer_factory.hpp:77] Creating layer relu4
I0507 01:13:22.082406 30678 net.cpp:94] Creating Layer relu4
I0507 01:13:22.082409 30678 net.cpp:435] relu4 <- conv4
I0507 01:13:22.082413 30678 net.cpp:396] relu4 -> conv4 (in-place)
I0507 01:13:22.082420 30678 net.cpp:144] Setting up relu4
I0507 01:13:22.082424 30678 net.cpp:151] Top shape: 20 64 5 5 (32000)
I0507 01:13:22.082427 30678 net.cpp:159] Memory required for data: 2696240
I0507 01:13:22.082430 30678 layer_factory.hpp:77] Creating layer conv5
I0507 01:13:22.082439 30678 net.cpp:94] Creating Layer conv5
I0507 01:13:22.082443 30678 net.cpp:435] conv5 <- conv4
I0507 01:13:22.082448 30678 net.cpp:409] conv5 -> conv5
I0507 01:13:22.086424 30678 net.cpp:144] Setting up conv5
I0507 01:13:22.086438 30678 net.cpp:151] Top shape: 20 64 5 5 (32000)
I0507 01:13:22.086442 30678 net.cpp:159] Memory required for data: 2824240
I0507 01:13:22.086450 30678 layer_factory.hpp:77] Creating layer relu5
I0507 01:13:22.086457 30678 net.cpp:94] Creating Layer relu5
I0507 01:13:22.086459 30678 net.cpp:435] relu5 <- conv5
I0507 01:13:22.086464 30678 net.cpp:396] relu5 -> conv5 (in-place)
I0507 01:13:22.086470 30678 net.cpp:144] Setting up relu5
I0507 01:13:22.086475 30678 net.cpp:151] Top shape: 20 64 5 5 (32000)
I0507 01:13:22.086478 30678 net.cpp:159] Memory required for data: 2952240
I0507 01:13:22.086485 30678 layer_factory.hpp:77] Creating layer pool5
I0507 01:13:22.086491 30678 net.cpp:94] Creating Layer pool5
I0507 01:13:22.086494 30678 net.cpp:435] pool5 <- conv5
I0507 01:13:22.086499 30678 net.cpp:409] pool5 -> pool5
I0507 01:13:22.086539 30678 net.cpp:144] Setting up pool5
I0507 01:13:22.086546 30678 net.cpp:151] Top shape: 20 64 2 2 (5120)
I0507 01:13:22.086549 30678 net.cpp:159] Memory required for data: 2972720
I0507 01:13:22.086552 30678 layer_factory.hpp:77] Creating layer ip1
I0507 01:13:22.086560 30678 net.cpp:94] Creating Layer ip1
I0507 01:13:22.086563 30678 net.cpp:435] ip1 <- pool5
I0507 01:13:22.086570 30678 net.cpp:409] ip1 -> ip1
I0507 01:13:22.087102 30678 net.cpp:144] Setting up ip1
I0507 01:13:22.087110 30678 net.cpp:151] Top shape: 20 64 (1280)
I0507 01:13:22.087113 30678 net.cpp:159] Memory required for data: 2977840
I0507 01:13:22.087118 30678 layer_factory.hpp:77] Creating layer ip2
I0507 01:13:22.087124 30678 net.cpp:94] Creating Layer ip2
I0507 01:13:22.087128 30678 net.cpp:435] ip2 <- ip1
I0507 01:13:22.087133 30678 net.cpp:409] ip2 -> ip2
I0507 01:13:22.087364 30678 net.cpp:144] Setting up ip2
I0507 01:13:22.087373 30678 net.cpp:151] Top shape: 20 64 (1280)
I0507 01:13:22.087375 30678 net.cpp:159] Memory required for data: 2982960
I0507 01:13:22.087380 30678 layer_factory.hpp:77] Creating layer ip3
I0507 01:13:22.087388 30678 net.cpp:94] Creating Layer ip3
I0507 01:13:22.087393 30678 net.cpp:435] ip3 <- ip2
I0507 01:13:22.087397 30678 net.cpp:409] ip3 -> ip3
I0507 01:13:22.087604 30678 net.cpp:144] Setting up ip3
I0507 01:13:22.087612 30678 net.cpp:151] Top shape: 20 50 (1000)
I0507 01:13:22.087615 30678 net.cpp:159] Memory required for data: 2986960
I0507 01:13:22.087620 30678 layer_factory.hpp:77] Creating layer ip3_ip3_0_split
I0507 01:13:22.087625 30678 net.cpp:94] Creating Layer ip3_ip3_0_split
I0507 01:13:22.087628 30678 net.cpp:435] ip3_ip3_0_split <- ip3
I0507 01:13:22.087633 30678 net.cpp:409] ip3_ip3_0_split -> ip3_ip3_0_split_0
I0507 01:13:22.087640 30678 net.cpp:409] ip3_ip3_0_split -> ip3_ip3_0_split_1
I0507 01:13:22.087682 30678 net.cpp:144] Setting up ip3_ip3_0_split
I0507 01:13:22.087688 30678 net.cpp:151] Top shape: 20 50 (1000)
I0507 01:13:22.087692 30678 net.cpp:151] Top shape: 20 50 (1000)
I0507 01:13:22.087695 30678 net.cpp:159] Memory required for data: 2994960
I0507 01:13:22.087698 30678 layer_factory.hpp:77] Creating layer accuracy
I0507 01:13:22.087703 30678 net.cpp:94] Creating Layer accuracy
I0507 01:13:22.087707 30678 net.cpp:435] accuracy <- ip3_ip3_0_split_0
I0507 01:13:22.087710 30678 net.cpp:435] accuracy <- label_intercept_1_split_0
I0507 01:13:22.087715 30678 net.cpp:409] accuracy -> accuracy
…
