…
I0505 02:43:33.321476  2512 net.cpp:323] The NetState phase (0) differed from the phase (1) specified by a rule in layer intercept
I0505 02:43:33.321491  2512 net.cpp:323] The NetState phase (0) differed from the phase (1) specified by a rule in layer loss
I0505 02:43:33.321571  2512 net.cpp:52] Initializing net from parameters: 
state {
  phase: TRAIN
}
layer {
  name: "parameters"
  type: "HDF5Data"
  top: "data"
  top: "label"
  include {
    phase: TRAIN
  }
  hdf5_data_param {
    source: "/home/purduethu/scratch/radon/d/deng106/CNNStatisticalModel/distributions/input/50_distributions_900_sample_size_train-parameters-path.txt"
    batch_size: 20
  }
}
layer {
  name: "conv1"
  type: "Convolution"
  bottom: "data"
  top: "conv1"
  param {
    lr_mult: 1
  }
  param {
    lr_mult: 2
  }
  convolution_param {
    num_output: 64
    pad: 2
    kernel_size: 5
    stride: 1
    weight_filler {
      type: "gaussian"
      std: 0.0001
    }
    bias_filler {
      type: "constant"
    }
  }
}
layer {
  name: "relu1"
  type: "ReLU"
  bottom: "conv1"
  top: "conv1"
}
layer {
  name: "pool1"
  type: "Pooling"
  bottom: "conv1"
  top: "pool1"
  pooling_param {
    pool: MAX
    kernel_size: 3
    stride: 2
  }
}
layer {
  name: "conv2"
  type: "Convolution"
  bottom: "pool1"
  top: "conv2"
  param {
    lr_mult: 1
  }
  param {
    lr_mult: 2
  }
  convolution_param {
    num_output: 128
    pad: 2
    kernel_size: 5
    stride: 1
    weight_filler {
      type: "gaussian"
      std: 0.01
    }
    bias_filler {
      type: "constant"
    }
  }
}
layer {
  name: "relu2"
  type: "ReLU"
  bottom: "conv2"
  top: "conv2"
}
layer {
  name: "conv3"
  type: "Convolution"
  bottom: "conv2"
  top: "conv3"
  param {
    lr_mult: 1
  }
  param {
    lr_mult: 2
  }
  convolution_param {
    num_output: 128
    pad: 2
    kernel_size: 5
    stride: 1
    weight_filler {
      type: "gaussian"
      std: 0.01
    }
    bias_filler {
      type: "constant"
    }
  }
}
layer {
  name: "relu3"
  type: "ReLU"
  bottom: "conv3"
  top: "conv3"
}
layer {
  name: "pool3"
  type: "Pooling"
  bottom: "conv3"
  top: "pool3"
  pooling_param {
    pool: AVE
    kernel_size: 3
    stride: 2
  }
}
layer {
  name: "ip1"
  type: "InnerProduct"
  bottom: "pool3"
  top: "ip1"
  param {
    lr_mult: 1
  }
  param {
    lr_mult: 2
  }
  inner_product_param {
    num_output: 512
    weight_filler {
      type: "gaussian"
      std: 0.1
    }
    bias_filler {
      type: "constant"
    }
  }
}
layer {
  name: "ip2"
  type: "InnerProduct"
  bottom: "ip1"
  top: "ip2"
  param {
    lr_mult: 1
  }
  param {
    lr_mult: 2
  }
  inner_product_param {
    num_output: 256
    weight_filler {
      type: "gaussian"
      std: 0.1
    }
    bias_filler {
      type: "constant"
    }
  }
}
layer {
  name: "ip3"
  type: "InnerProduct"
  bottom: "ip2"
  top: "ip3"
  param {
    lr_mult: 1
  }
  param {
    lr_mult: 2
  }
  inner_product_param {
    num_output: 1
    weight_filler {
      type: "gaussian"
      std: 0.1
    }
    bias_filler {
      type: "constant"
    }
  }
}
layer {
  name: "loss"
  type: "HuberLoss"
  bottom: "ip3"
  bottom: "label"
  top: "loss"
  include {
    phase: TRAIN
  }
}
I0505 02:43:33.321633  2512 layer_factory.hpp:77] Creating layer parameters
I0505 02:43:33.321647  2512 net.cpp:94] Creating Layer parameters
I0505 02:43:33.321662  2512 net.cpp:409] parameters -> data
I0505 02:43:33.321682  2512 net.cpp:409] parameters -> label
I0505 02:43:33.321692  2512 hdf5_data_layer.cpp:79] Loading list of HDF5 filenames from: /home/purduethu/scratch/radon/d/deng106/CNNStatisticalModel/distributions/input/50_distributions_900_sample_size_train-parameters-path.txt
I0505 02:43:33.321714  2512 hdf5_data_layer.cpp:93] Number of HDF5 files: 1
I0505 02:43:33.322283  2512 hdf5.cpp:32] Datatype class: H5T_FLOAT
I0505 02:43:34.764668  2512 net.cpp:144] Setting up parameters
I0505 02:43:34.764703  2512 net.cpp:151] Top shape: 20 1 30 30 (18000)
I0505 02:43:34.764709  2512 net.cpp:151] Top shape: 20 (20)
I0505 02:43:34.764714  2512 net.cpp:159] Memory required for data: 72080
I0505 02:43:34.764721  2512 layer_factory.hpp:77] Creating layer conv1
I0505 02:43:34.764745  2512 net.cpp:94] Creating Layer conv1
I0505 02:43:34.764751  2512 net.cpp:435] conv1 <- data
I0505 02:43:34.764762  2512 net.cpp:409] conv1 -> conv1
I0505 02:43:34.770741  2512 net.cpp:144] Setting up conv1
I0505 02:43:34.770757  2512 net.cpp:151] Top shape: 20 64 30 30 (1152000)
I0505 02:43:34.770761  2512 net.cpp:159] Memory required for data: 4680080
I0505 02:43:34.770773  2512 layer_factory.hpp:77] Creating layer relu1
I0505 02:43:34.770781  2512 net.cpp:94] Creating Layer relu1
I0505 02:43:34.770787  2512 net.cpp:435] relu1 <- conv1
I0505 02:43:34.770790  2512 net.cpp:396] relu1 -> conv1 (in-place)
I0505 02:43:34.770807  2512 net.cpp:144] Setting up relu1
I0505 02:43:34.770812  2512 net.cpp:151] Top shape: 20 64 30 30 (1152000)
I0505 02:43:34.770815  2512 net.cpp:159] Memory required for data: 9288080
I0505 02:43:34.770818  2512 layer_factory.hpp:77] Creating layer pool1
I0505 02:43:34.770825  2512 net.cpp:94] Creating Layer pool1
I0505 02:43:34.770829  2512 net.cpp:435] pool1 <- conv1
I0505 02:43:34.770833  2512 net.cpp:409] pool1 -> pool1
I0505 02:43:34.770874  2512 net.cpp:144] Setting up pool1
I0505 02:43:34.770882  2512 net.cpp:151] Top shape: 20 64 15 15 (288000)
I0505 02:43:34.770886  2512 net.cpp:159] Memory required for data: 10440080
I0505 02:43:34.770889  2512 layer_factory.hpp:77] Creating layer conv2
I0505 02:43:34.770898  2512 net.cpp:94] Creating Layer conv2
I0505 02:43:34.770902  2512 net.cpp:435] conv2 <- pool1
I0505 02:43:34.770907  2512 net.cpp:409] conv2 -> conv2
I0505 02:43:34.783828  2512 net.cpp:144] Setting up conv2
I0505 02:43:34.783843  2512 net.cpp:151] Top shape: 20 128 15 15 (576000)
I0505 02:43:34.783846  2512 net.cpp:159] Memory required for data: 12744080
I0505 02:43:34.783854  2512 layer_factory.hpp:77] Creating layer relu2
I0505 02:43:34.783860  2512 net.cpp:94] Creating Layer relu2
I0505 02:43:34.783864  2512 net.cpp:435] relu2 <- conv2
I0505 02:43:34.783869  2512 net.cpp:396] relu2 -> conv2 (in-place)
I0505 02:43:34.783876  2512 net.cpp:144] Setting up relu2
I0505 02:43:34.783880  2512 net.cpp:151] Top shape: 20 128 15 15 (576000)
I0505 02:43:34.783885  2512 net.cpp:159] Memory required for data: 15048080
I0505 02:43:34.783887  2512 layer_factory.hpp:77] Creating layer conv3
I0505 02:43:34.783895  2512 net.cpp:94] Creating Layer conv3
I0505 02:43:34.783898  2512 net.cpp:435] conv3 <- conv2
I0505 02:43:34.783903  2512 net.cpp:409] conv3 -> conv3
I0505 02:43:34.805474  2512 net.cpp:144] Setting up conv3
I0505 02:43:34.805512  2512 net.cpp:151] Top shape: 20 128 15 15 (576000)
I0505 02:43:34.805524  2512 net.cpp:159] Memory required for data: 17352080
I0505 02:43:34.805548  2512 layer_factory.hpp:77] Creating layer relu3
I0505 02:43:34.805577  2512 net.cpp:94] Creating Layer relu3
I0505 02:43:34.805588  2512 net.cpp:435] relu3 <- conv3
I0505 02:43:34.805601  2512 net.cpp:396] relu3 -> conv3 (in-place)
I0505 02:43:34.805622  2512 net.cpp:144] Setting up relu3
I0505 02:43:34.805635  2512 net.cpp:151] Top shape: 20 128 15 15 (576000)
I0505 02:43:34.805645  2512 net.cpp:159] Memory required for data: 19656080
I0505 02:43:34.805655  2512 layer_factory.hpp:77] Creating layer pool3
I0505 02:43:34.805670  2512 net.cpp:94] Creating Layer pool3
I0505 02:43:34.805680  2512 net.cpp:435] pool3 <- conv3
I0505 02:43:34.805706  2512 net.cpp:409] pool3 -> pool3
I0505 02:43:34.805790  2512 net.cpp:144] Setting up pool3
I0505 02:43:34.805819  2512 net.cpp:151] Top shape: 20 128 7 7 (125440)
I0505 02:43:34.805822  2512 net.cpp:159] Memory required for data: 20157840
I0505 02:43:34.805825  2512 layer_factory.hpp:77] Creating layer ip1
I0505 02:43:34.805836  2512 net.cpp:94] Creating Layer ip1
I0505 02:43:34.805840  2512 net.cpp:435] ip1 <- pool3
I0505 02:43:34.805845  2512 net.cpp:409] ip1 -> ip1
I0505 02:43:34.883780  2512 net.cpp:144] Setting up ip1
I0505 02:43:34.883810  2512 net.cpp:151] Top shape: 20 512 (10240)
I0505 02:43:34.883813  2512 net.cpp:159] Memory required for data: 20198800
I0505 02:43:34.883821  2512 layer_factory.hpp:77] Creating layer ip2
I0505 02:43:34.883831  2512 net.cpp:94] Creating Layer ip2
I0505 02:43:34.883836  2512 net.cpp:435] ip2 <- ip1
I0505 02:43:34.883842  2512 net.cpp:409] ip2 -> ip2
I0505 02:43:34.886950  2512 net.cpp:144] Setting up ip2
I0505 02:43:34.886960  2512 net.cpp:151] Top shape: 20 256 (5120)
I0505 02:43:34.886962  2512 net.cpp:159] Memory required for data: 20219280
I0505 02:43:34.886970  2512 layer_factory.hpp:77] Creating layer ip3
I0505 02:43:34.886976  2512 net.cpp:94] Creating Layer ip3
I0505 02:43:34.886981  2512 net.cpp:435] ip3 <- ip2
I0505 02:43:34.886986  2512 net.cpp:409] ip3 -> ip3
I0505 02:43:34.887049  2512 net.cpp:144] Setting up ip3
I0505 02:43:34.887055  2512 net.cpp:151] Top shape: 20 1 (20)
I0505 02:43:34.887059  2512 net.cpp:159] Memory required for data: 20219360
I0505 02:43:34.887063  2512 layer_factory.hpp:77] Creating layer loss
I0505 02:43:34.887069  2512 net.cpp:94] Creating Layer loss
I0505 02:43:34.887073  2512 net.cpp:435] loss <- ip3
I0505 02:43:34.887078  2512 net.cpp:435] loss <- label
I0505 02:43:34.887084  2512 net.cpp:409] loss -> loss
I0505 02:43:34.887116  2512 net.cpp:144] Setting up loss
…
