…
I0506 12:25:05.805347 21458 net.cpp:323] The NetState phase (0) differed from the phase (1) specified by a rule in layer intercept
I0506 12:25:05.805364 21458 net.cpp:323] The NetState phase (0) differed from the phase (1) specified by a rule in layer loss
I0506 12:25:05.805449 21458 net.cpp:52] Initializing net from parameters: 
state {
  phase: TRAIN
}
layer {
  name: "parameters"
  type: "HDF5Data"
  top: "data"
  top: "label"
  include {
    phase: TRAIN
  }
  hdf5_data_param {
    source: "/home/purduethu/scratch/radon/d/deng106/CNNStatisticalModel/distributions/input/50_distributions_100_sample_size_train-parameters-path.txt"
    batch_size: 20
  }
}
layer {
  name: "conv1"
  type: "Convolution"
  bottom: "data"
  top: "conv1"
  param {
    lr_mult: 1
  }
  param {
    lr_mult: 2
  }
  convolution_param {
    num_output: 64
    pad: 2
    kernel_size: 5
    stride: 1
    weight_filler {
      type: "gaussian"
      std: 0.0001
    }
    bias_filler {
      type: "constant"
    }
  }
}
layer {
  name: "relu1"
  type: "ReLU"
  bottom: "conv1"
  top: "conv1"
}
layer {
  name: "conv2"
  type: "Convolution"
  bottom: "conv1"
  top: "conv2"
  param {
    lr_mult: 1
  }
  param {
    lr_mult: 2
  }
  convolution_param {
    num_output: 64
    pad: 2
    kernel_size: 5
    stride: 1
    weight_filler {
      type: "gaussian"
      std: 0.01
    }
    bias_filler {
      type: "constant"
    }
  }
}
layer {
  name: "relu2"
  type: "ReLU"
  bottom: "conv2"
  top: "conv2"
}
layer {
  name: "pool2"
  type: "Pooling"
  bottom: "conv2"
  top: "pool2"
  pooling_param {
    pool: MAX
    kernel_size: 3
    stride: 2
  }
}
layer {
  name: "conv3"
  type: "Convolution"
  bottom: "pool2"
  top: "conv3"
  param {
    lr_mult: 1
  }
  param {
    lr_mult: 2
  }
  convolution_param {
    num_output: 128
    pad: 2
    kernel_size: 5
    stride: 1
    weight_filler {
      type: "gaussian"
      std: 0.01
    }
    bias_filler {
      type: "constant"
    }
  }
}
layer {
  name: "relu3"
  type: "ReLU"
  bottom: "conv3"
  top: "conv3"
}
layer {
  name: "conv4"
  type: "Convolution"
  bottom: "conv3"
  top: "conv4"
  param {
    lr_mult: 1
  }
  param {
    lr_mult: 2
  }
  convolution_param {
    num_output: 128
    pad: 2
    kernel_size: 5
    stride: 1
    weight_filler {
      type: "gaussian"
      std: 0.01
    }
    bias_filler {
      type: "constant"
    }
  }
}
layer {
  name: "relu4"
  type: "ReLU"
  bottom: "conv4"
  top: "conv4"
}
layer {
  name: "conv5"
  type: "Convolution"
  bottom: "conv4"
  top: "conv5"
  param {
    lr_mult: 1
  }
  param {
    lr_mult: 2
  }
  convolution_param {
    num_output: 128
    pad: 2
    kernel_size: 5
    stride: 1
    weight_filler {
      type: "gaussian"
      std: 0.01
    }
    bias_filler {
      type: "constant"
    }
  }
}
layer {
  name: "relu5"
  type: "ReLU"
  bottom: "conv5"
  top: "conv5"
}
layer {
  name: "pool5"
  type: "Pooling"
  bottom: "conv5"
  top: "pool5"
  pooling_param {
    pool: AVE
    kernel_size: 3
    stride: 2
  }
}
layer {
  name: "ip1"
  type: "InnerProduct"
  bottom: "pool5"
  top: "ip1"
  param {
    lr_mult: 1
  }
  param {
    lr_mult: 2
  }
  inner_product_param {
    num_output: 1024
    weight_filler {
      type: "gaussian"
      std: 0.1
    }
    bias_filler {
      type: "constant"
    }
  }
}
layer {
  name: "ip2"
  type: "InnerProduct"
  bottom: "ip1"
  top: "ip2"
  param {
    lr_mult: 1
  }
  param {
    lr_mult: 2
  }
  inner_product_param {
    num_output: 512
    weight_filler {
      type: "gaussian"
      std: 0.1
    }
    bias_filler {
      type: "constant"
    }
  }
}
layer {
  name: "ip3"
  type: "InnerProduct"
  bottom: "ip2"
  top: "ip3"
  param {
    lr_mult: 1
  }
  param {
    lr_mult: 2
  }
  inner_product_param {
    num_output: 1
    weight_filler {
      type: "gaussian"
      std: 0.1
    }
    bias_filler {
      type: "constant"
    }
  }
}
layer {
  name: "loss"
  type: "HuberLoss"
  bottom: "ip3"
  bottom: "label"
  top: "loss"
  include {
    phase: TRAIN
  }
}
I0506 12:25:05.805505 21458 layer_factory.hpp:77] Creating layer parameters
I0506 12:25:05.805521 21458 net.cpp:94] Creating Layer parameters
I0506 12:25:05.805526 21458 net.cpp:409] parameters -> data
I0506 12:25:05.805536 21458 net.cpp:409] parameters -> label
I0506 12:25:05.805543 21458 hdf5_data_layer.cpp:79] Loading list of HDF5 filenames from: /home/purduethu/scratch/radon/d/deng106/CNNStatisticalModel/distributions/input/50_distributions_100_sample_size_train-parameters-path.txt
I0506 12:25:05.805559 21458 hdf5_data_layer.cpp:93] Number of HDF5 files: 1
I0506 12:25:05.806121 21458 hdf5.cpp:32] Datatype class: H5T_FLOAT
I0506 12:25:05.972786 21458 net.cpp:144] Setting up parameters
I0506 12:25:05.972820 21458 net.cpp:151] Top shape: 20 1 10 10 (2000)
I0506 12:25:05.972826 21458 net.cpp:151] Top shape: 20 (20)
I0506 12:25:05.972828 21458 net.cpp:159] Memory required for data: 8080
I0506 12:25:05.972836 21458 layer_factory.hpp:77] Creating layer conv1
I0506 12:25:05.972858 21458 net.cpp:94] Creating Layer conv1
I0506 12:25:05.972862 21458 net.cpp:435] conv1 <- data
I0506 12:25:05.972869 21458 net.cpp:409] conv1 -> conv1
I0506 12:25:05.977115 21458 net.cpp:144] Setting up conv1
I0506 12:25:05.977133 21458 net.cpp:151] Top shape: 20 64 10 10 (128000)
I0506 12:25:05.977138 21458 net.cpp:159] Memory required for data: 520080
I0506 12:25:05.977147 21458 layer_factory.hpp:77] Creating layer relu1
I0506 12:25:05.977156 21458 net.cpp:94] Creating Layer relu1
I0506 12:25:05.977160 21458 net.cpp:435] relu1 <- conv1
I0506 12:25:05.977164 21458 net.cpp:396] relu1 -> conv1 (in-place)
I0506 12:25:05.977174 21458 net.cpp:144] Setting up relu1
I0506 12:25:05.977179 21458 net.cpp:151] Top shape: 20 64 10 10 (128000)
I0506 12:25:05.977181 21458 net.cpp:159] Memory required for data: 1032080
I0506 12:25:05.977185 21458 layer_factory.hpp:77] Creating layer conv2
I0506 12:25:05.977192 21458 net.cpp:94] Creating Layer conv2
I0506 12:25:05.977196 21458 net.cpp:435] conv2 <- conv1
I0506 12:25:05.977201 21458 net.cpp:409] conv2 -> conv2
I0506 12:25:05.983315 21458 net.cpp:144] Setting up conv2
I0506 12:25:05.983330 21458 net.cpp:151] Top shape: 20 64 10 10 (128000)
I0506 12:25:05.983335 21458 net.cpp:159] Memory required for data: 1544080
I0506 12:25:05.983343 21458 layer_factory.hpp:77] Creating layer relu2
I0506 12:25:05.983350 21458 net.cpp:94] Creating Layer relu2
I0506 12:25:05.983355 21458 net.cpp:435] relu2 <- conv2
I0506 12:25:05.983359 21458 net.cpp:396] relu2 -> conv2 (in-place)
I0506 12:25:05.983366 21458 net.cpp:144] Setting up relu2
I0506 12:25:05.983371 21458 net.cpp:151] Top shape: 20 64 10 10 (128000)
I0506 12:25:05.983374 21458 net.cpp:159] Memory required for data: 2056080
I0506 12:25:05.983377 21458 layer_factory.hpp:77] Creating layer pool2
I0506 12:25:05.983383 21458 net.cpp:94] Creating Layer pool2
I0506 12:25:05.983387 21458 net.cpp:435] pool2 <- conv2
I0506 12:25:05.983392 21458 net.cpp:409] pool2 -> pool2
I0506 12:25:05.983445 21458 net.cpp:144] Setting up pool2
I0506 12:25:05.983453 21458 net.cpp:151] Top shape: 20 64 5 5 (32000)
I0506 12:25:05.983455 21458 net.cpp:159] Memory required for data: 2184080
I0506 12:25:05.983459 21458 layer_factory.hpp:77] Creating layer conv3
I0506 12:25:05.983467 21458 net.cpp:94] Creating Layer conv3
I0506 12:25:05.983477 21458 net.cpp:435] conv3 <- pool2
I0506 12:25:05.983482 21458 net.cpp:409] conv3 -> conv3
I0506 12:25:05.991811 21458 net.cpp:144] Setting up conv3
I0506 12:25:05.991825 21458 net.cpp:151] Top shape: 20 128 5 5 (64000)
I0506 12:25:05.991829 21458 net.cpp:159] Memory required for data: 2440080
I0506 12:25:05.991837 21458 layer_factory.hpp:77] Creating layer relu3
I0506 12:25:05.991844 21458 net.cpp:94] Creating Layer relu3
I0506 12:25:05.991847 21458 net.cpp:435] relu3 <- conv3
I0506 12:25:05.991852 21458 net.cpp:396] relu3 -> conv3 (in-place)
I0506 12:25:05.991859 21458 net.cpp:144] Setting up relu3
I0506 12:25:05.991864 21458 net.cpp:151] Top shape: 20 128 5 5 (64000)
I0506 12:25:05.991868 21458 net.cpp:159] Memory required for data: 2696080
I0506 12:25:05.991870 21458 layer_factory.hpp:77] Creating layer conv4
I0506 12:25:05.991879 21458 net.cpp:94] Creating Layer conv4
I0506 12:25:05.991883 21458 net.cpp:435] conv4 <- conv3
I0506 12:25:05.991888 21458 net.cpp:409] conv4 -> conv4
I0506 12:25:06.007134 21458 net.cpp:144] Setting up conv4
I0506 12:25:06.007149 21458 net.cpp:151] Top shape: 20 128 5 5 (64000)
I0506 12:25:06.007153 21458 net.cpp:159] Memory required for data: 2952080
I0506 12:25:06.007160 21458 layer_factory.hpp:77] Creating layer relu4
I0506 12:25:06.007166 21458 net.cpp:94] Creating Layer relu4
I0506 12:25:06.007170 21458 net.cpp:435] relu4 <- conv4
I0506 12:25:06.007175 21458 net.cpp:396] relu4 -> conv4 (in-place)
I0506 12:25:06.007182 21458 net.cpp:144] Setting up relu4
I0506 12:25:06.007187 21458 net.cpp:151] Top shape: 20 128 5 5 (64000)
I0506 12:25:06.007190 21458 net.cpp:159] Memory required for data: 3208080
I0506 12:25:06.007194 21458 layer_factory.hpp:77] Creating layer conv5
I0506 12:25:06.007201 21458 net.cpp:94] Creating Layer conv5
I0506 12:25:06.007205 21458 net.cpp:435] conv5 <- conv4
I0506 12:25:06.007210 21458 net.cpp:409] conv5 -> conv5
I0506 12:25:06.022032 21458 net.cpp:144] Setting up conv5
I0506 12:25:06.022045 21458 net.cpp:151] Top shape: 20 128 5 5 (64000)
I0506 12:25:06.022049 21458 net.cpp:159] Memory required for data: 3464080
I0506 12:25:06.022058 21458 layer_factory.hpp:77] Creating layer relu5
I0506 12:25:06.022063 21458 net.cpp:94] Creating Layer relu5
I0506 12:25:06.022068 21458 net.cpp:435] relu5 <- conv5
I0506 12:25:06.022071 21458 net.cpp:396] relu5 -> conv5 (in-place)
I0506 12:25:06.022078 21458 net.cpp:144] Setting up relu5
I0506 12:25:06.022083 21458 net.cpp:151] Top shape: 20 128 5 5 (64000)
I0506 12:25:06.022086 21458 net.cpp:159] Memory required for data: 3720080
I0506 12:25:06.022089 21458 layer_factory.hpp:77] Creating layer pool5
I0506 12:25:06.022095 21458 net.cpp:94] Creating Layer pool5
I0506 12:25:06.022099 21458 net.cpp:435] pool5 <- conv5
I0506 12:25:06.022104 21458 net.cpp:409] pool5 -> pool5
I0506 12:25:06.022141 21458 net.cpp:144] Setting up pool5
I0506 12:25:06.022148 21458 net.cpp:151] Top shape: 20 128 2 2 (10240)
I0506 12:25:06.022151 21458 net.cpp:159] Memory required for data: 3761040
I0506 12:25:06.022156 21458 layer_factory.hpp:77] Creating layer ip1
I0506 12:25:06.022166 21458 net.cpp:94] Creating Layer ip1
I0506 12:25:06.022168 21458 net.cpp:435] ip1 <- pool5
I0506 12:25:06.022173 21458 net.cpp:409] ip1 -> ip1
I0506 12:25:06.036221 21458 net.cpp:144] Setting up ip1
I0506 12:25:06.036236 21458 net.cpp:151] Top shape: 20 1024 (20480)
I0506 12:25:06.036239 21458 net.cpp:159] Memory required for data: 3842960
I0506 12:25:06.036247 21458 layer_factory.hpp:77] Creating layer ip2
I0506 12:25:06.036253 21458 net.cpp:94] Creating Layer ip2
I0506 12:25:06.036257 21458 net.cpp:435] ip2 <- ip1
I0506 12:25:06.036263 21458 net.cpp:409] ip2 -> ip2
I0506 12:25:06.049376 21458 net.cpp:144] Setting up ip2
I0506 12:25:06.049389 21458 net.cpp:151] Top shape: 20 512 (10240)
I0506 12:25:06.049393 21458 net.cpp:159] Memory required for data: 3883920
I0506 12:25:06.049399 21458 layer_factory.hpp:77] Creating layer ip3
I0506 12:25:06.049407 21458 net.cpp:94] Creating Layer ip3
I0506 12:25:06.049409 21458 net.cpp:435] ip3 <- ip2
I0506 12:25:06.049423 21458 net.cpp:409] ip3 -> ip3
I0506 12:25:06.049535 21458 net.cpp:144] Setting up ip3
I0506 12:25:06.049543 21458 net.cpp:151] Top shape: 20 1 (20)
I0506 12:25:06.049546 21458 net.cpp:159] Memory required for data: 3884000
I0506 12:25:06.049551 21458 layer_factory.hpp:77] Creating layer loss
I0506 12:25:06.049564 21458 net.cpp:94] Creating Layer loss
I0506 12:25:06.049567 21458 net.cpp:435] loss <- ip3
I0506 12:25:06.049571 21458 net.cpp:435] loss <- label
I0506 12:25:06.049576 21458 net.cpp:409] loss -> loss
I0506 12:25:06.049624 21458 net.cpp:144] Setting up loss
…
I0506 12:25:06.155894 21458 net.cpp:323] The NetState phase (0) differed from the phase (1) specified by a rule in layer intercept
I0506 12:25:06.155910 21458 net.cpp:323] The NetState phase (0) differed from the phase (1) specified by a rule in layer accuracy
I0506 12:25:06.155998 21458 net.cpp:52] Initializing net from parameters: 
state {
  phase: TRAIN
}
layer {
  name: "parameters"
  type: "HDF5Data"
  top: "data"
  top: "label"
  include {
    phase: TRAIN
  }
  hdf5_data_param {
    source: "/home/purduethu/scratch/radon/d/deng106/CNNStatisticalModel/distributions/input/50_distributions_100_sample_size_train-distributions-path.txt"
    batch_size: 20
  }
}
layer {
  name: "conv1"
  type: "Convolution"
  bottom: "data"
  top: "conv1"
  param {
    lr_mult: 1
  }
  param {
    lr_mult: 2
  }
  convolution_param {
    num_output: 64
    pad: 2
    kernel_size: 5
    stride: 1
    weight_filler {
      type: "gaussian"
      std: 0.0001
    }
    bias_filler {
      type: "constant"
    }
  }
}
layer {
  name: "relu1"
  type: "ReLU"
  bottom: "conv1"
  top: "conv1"
}
layer {
  name: "conv2"
  type: "Convolution"
  bottom: "conv1"
  top: "conv2"
  param {
    lr_mult: 1
  }
  param {
    lr_mult: 2
  }
  convolution_param {
    num_output: 64
    pad: 2
    kernel_size: 5
    stride: 1
    weight_filler {
      type: "gaussian"
      std: 0.01
    }
    bias_filler {
      type: "constant"
    }
  }
}
layer {
  name: "relu2"
  type: "ReLU"
  bottom: "conv2"
  top: "conv2"
}
layer {
  name: "pool2"
  type: "Pooling"
  bottom: "conv2"
  top: "pool2"
  pooling_param {
    pool: MAX
    kernel_size: 3
    stride: 2
  }
}
layer {
  name: "conv3"
  type: "Convolution"
  bottom: "pool2"
  top: "conv3"
  param {
    lr_mult: 1
  }
  param {
    lr_mult: 2
  }
  convolution_param {
    num_output: 128
    pad: 2
    kernel_size: 5
    stride: 1
    weight_filler {
      type: "gaussian"
      std: 0.01
    }
    bias_filler {
      type: "constant"
    }
  }
}
layer {
  name: "relu3"
  type: "ReLU"
  bottom: "conv3"
  top: "conv3"
}
layer {
  name: "conv4"
  type: "Convolution"
  bottom: "conv3"
  top: "conv4"
  param {
    lr_mult: 1
  }
  param {
    lr_mult: 2
  }
  convolution_param {
    num_output: 128
    pad: 2
    kernel_size: 5
    stride: 1
    weight_filler {
      type: "gaussian"
      std: 0.01
    }
    bias_filler {
      type: "constant"
    }
  }
}
layer {
  name: "relu4"
  type: "ReLU"
  bottom: "conv4"
  top: "conv4"
}
layer {
  name: "conv5"
  type: "Convolution"
  bottom: "conv4"
  top: "conv5"
  param {
    lr_mult: 1
  }
  param {
    lr_mult: 2
  }
  convolution_param {
    num_output: 128
    pad: 2
    kernel_size: 5
    stride: 1
    weight_filler {
      type: "gaussian"
      std: 0.01
    }
    bias_filler {
      type: "constant"
    }
  }
}
layer {
  name: "relu5"
  type: "ReLU"
  bottom: "conv5"
  top: "conv5"
}
layer {
  name: "pool5"
  type: "Pooling"
  bottom: "conv5"
  top: "pool5"
  pooling_param {
    pool: AVE
    kernel_size: 3
    stride: 2
  }
}
layer {
  name: "ip1"
  type: "InnerProduct"
  bottom: "pool5"
  top: "ip1"
  param {
    lr_mult: 1
  }
  param {
    lr_mult: 2
  }
  inner_product_param {
    num_output: 1024
    weight_filler {
      type: "gaussian"
      std: 0.1
    }
    bias_filler {
      type: "constant"
    }
  }
}
layer {
  name: "ip2"
  type: "InnerProduct"
  bottom: "ip1"
  top: "ip2"
  param {
    lr_mult: 1
  }
  param {
    lr_mult: 2
  }
  inner_product_param {
    num_output: 512
    weight_filler {
      type: "gaussian"
      std: 0.1
    }
    bias_filler {
      type: "constant"
    }
  }
}
layer {
  name: "ip3"
  type: "InnerProduct"
  bottom: "ip2"
  top: "ip3"
  param {
    lr_mult: 1
  }
  param {
    lr_mult: 2
  }
  inner_product_param {
    num_output: 50
    weight_filler {
      type: "gaussian"
      std: 0.1
    }
    bias_filler {
      type: "constant"
    }
  }
}
layer {
  name: "loss"
  type: "SoftmaxWithLoss"
  bottom: "ip3"
  bottom: "label"
  top: "loss"
}
I0506 12:25:06.156049 21458 layer_factory.hpp:77] Creating layer parameters
I0506 12:25:06.156056 21458 net.cpp:94] Creating Layer parameters
I0506 12:25:06.156060 21458 net.cpp:409] parameters -> data
I0506 12:25:06.156067 21458 net.cpp:409] parameters -> label
I0506 12:25:06.156074 21458 hdf5_data_layer.cpp:79] Loading list of HDF5 filenames from: /home/purduethu/scratch/radon/d/deng106/CNNStatisticalModel/distributions/input/50_distributions_100_sample_size_train-distributions-path.txt
I0506 12:25:06.156090 21458 hdf5_data_layer.cpp:93] Number of HDF5 files: 1
I0506 12:25:06.311563 21458 hdf5.cpp:35] Datatype class: H5T_INTEGER
I0506 12:25:06.314565 21458 net.cpp:144] Setting up parameters
I0506 12:25:06.314584 21458 net.cpp:151] Top shape: 20 1 10 10 (2000)
I0506 12:25:06.314589 21458 net.cpp:151] Top shape: 20 (20)
I0506 12:25:06.314591 21458 net.cpp:159] Memory required for data: 8080
I0506 12:25:06.314597 21458 layer_factory.hpp:77] Creating layer conv1
I0506 12:25:06.314615 21458 net.cpp:94] Creating Layer conv1
I0506 12:25:06.314620 21458 net.cpp:435] conv1 <- data
I0506 12:25:06.314626 21458 net.cpp:409] conv1 -> conv1
I0506 12:25:06.316435 21458 net.cpp:144] Setting up conv1
I0506 12:25:06.316449 21458 net.cpp:151] Top shape: 20 64 10 10 (128000)
I0506 12:25:06.316453 21458 net.cpp:159] Memory required for data: 520080
I0506 12:25:06.316463 21458 layer_factory.hpp:77] Creating layer relu1
I0506 12:25:06.316470 21458 net.cpp:94] Creating Layer relu1
I0506 12:25:06.316474 21458 net.cpp:435] relu1 <- conv1
I0506 12:25:06.316478 21458 net.cpp:396] relu1 -> conv1 (in-place)
I0506 12:25:06.316486 21458 net.cpp:144] Setting up relu1
I0506 12:25:06.316491 21458 net.cpp:151] Top shape: 20 64 10 10 (128000)
I0506 12:25:06.316494 21458 net.cpp:159] Memory required for data: 1032080
I0506 12:25:06.316498 21458 layer_factory.hpp:77] Creating layer conv2
I0506 12:25:06.316504 21458 net.cpp:94] Creating Layer conv2
I0506 12:25:06.316509 21458 net.cpp:435] conv2 <- conv1
I0506 12:25:06.316514 21458 net.cpp:409] conv2 -> conv2
I0506 12:25:06.321882 21458 net.cpp:144] Setting up conv2
I0506 12:25:06.321897 21458 net.cpp:151] Top shape: 20 64 10 10 (128000)
I0506 12:25:06.321900 21458 net.cpp:159] Memory required for data: 1544080
I0506 12:25:06.321908 21458 layer_factory.hpp:77] Creating layer relu2
I0506 12:25:06.321914 21458 net.cpp:94] Creating Layer relu2
I0506 12:25:06.321918 21458 net.cpp:435] relu2 <- conv2
I0506 12:25:06.321923 21458 net.cpp:396] relu2 -> conv2 (in-place)
I0506 12:25:06.321930 21458 net.cpp:144] Setting up relu2
I0506 12:25:06.321934 21458 net.cpp:151] Top shape: 20 64 10 10 (128000)
I0506 12:25:06.321938 21458 net.cpp:159] Memory required for data: 2056080
I0506 12:25:06.321940 21458 layer_factory.hpp:77] Creating layer pool2
I0506 12:25:06.321948 21458 net.cpp:94] Creating Layer pool2
I0506 12:25:06.321950 21458 net.cpp:435] pool2 <- conv2
I0506 12:25:06.321954 21458 net.cpp:409] pool2 -> pool2
I0506 12:25:06.322005 21458 net.cpp:144] Setting up pool2
I0506 12:25:06.322012 21458 net.cpp:151] Top shape: 20 64 5 5 (32000)
I0506 12:25:06.322016 21458 net.cpp:159] Memory required for data: 2184080
I0506 12:25:06.322019 21458 layer_factory.hpp:77] Creating layer conv3
I0506 12:25:06.322027 21458 net.cpp:94] Creating Layer conv3
I0506 12:25:06.322031 21458 net.cpp:435] conv3 <- pool2
I0506 12:25:06.322036 21458 net.cpp:409] conv3 -> conv3
I0506 12:25:06.330574 21458 net.cpp:144] Setting up conv3
I0506 12:25:06.330587 21458 net.cpp:151] Top shape: 20 128 5 5 (64000)
I0506 12:25:06.330591 21458 net.cpp:159] Memory required for data: 2440080
I0506 12:25:06.330600 21458 layer_factory.hpp:77] Creating layer relu3
I0506 12:25:06.330606 21458 net.cpp:94] Creating Layer relu3
I0506 12:25:06.330610 21458 net.cpp:435] relu3 <- conv3
I0506 12:25:06.330615 21458 net.cpp:396] relu3 -> conv3 (in-place)
I0506 12:25:06.330628 21458 net.cpp:144] Setting up relu3
I0506 12:25:06.330633 21458 net.cpp:151] Top shape: 20 128 5 5 (64000)
I0506 12:25:06.330636 21458 net.cpp:159] Memory required for data: 2696080
I0506 12:25:06.330639 21458 layer_factory.hpp:77] Creating layer conv4
I0506 12:25:06.330648 21458 net.cpp:94] Creating Layer conv4
I0506 12:25:06.330651 21458 net.cpp:435] conv4 <- conv3
I0506 12:25:06.330657 21458 net.cpp:409] conv4 -> conv4
I0506 12:25:06.345309 21458 net.cpp:144] Setting up conv4
I0506 12:25:06.345324 21458 net.cpp:151] Top shape: 20 128 5 5 (64000)
I0506 12:25:06.345329 21458 net.cpp:159] Memory required for data: 2952080
I0506 12:25:06.345335 21458 layer_factory.hpp:77] Creating layer relu4
I0506 12:25:06.345340 21458 net.cpp:94] Creating Layer relu4
I0506 12:25:06.345345 21458 net.cpp:435] relu4 <- conv4
I0506 12:25:06.345348 21458 net.cpp:396] relu4 -> conv4 (in-place)
I0506 12:25:06.345355 21458 net.cpp:144] Setting up relu4
I0506 12:25:06.345360 21458 net.cpp:151] Top shape: 20 128 5 5 (64000)
I0506 12:25:06.345363 21458 net.cpp:159] Memory required for data: 3208080
I0506 12:25:06.345366 21458 layer_factory.hpp:77] Creating layer conv5
I0506 12:25:06.345374 21458 net.cpp:94] Creating Layer conv5
I0506 12:25:06.345377 21458 net.cpp:435] conv5 <- conv4
I0506 12:25:06.345382 21458 net.cpp:409] conv5 -> conv5
I0506 12:25:06.360492 21458 net.cpp:144] Setting up conv5
I0506 12:25:06.360529 21458 net.cpp:151] Top shape: 20 128 5 5 (64000)
I0506 12:25:06.360541 21458 net.cpp:159] Memory required for data: 3464080
I0506 12:25:06.360584 21458 layer_factory.hpp:77] Creating layer relu5
I0506 12:25:06.360602 21458 net.cpp:94] Creating Layer relu5
I0506 12:25:06.360613 21458 net.cpp:435] relu5 <- conv5
I0506 12:25:06.360626 21458 net.cpp:396] relu5 -> conv5 (in-place)
I0506 12:25:06.360646 21458 net.cpp:144] Setting up relu5
I0506 12:25:06.360658 21458 net.cpp:151] Top shape: 20 128 5 5 (64000)
I0506 12:25:06.360667 21458 net.cpp:159] Memory required for data: 3720080
I0506 12:25:06.360677 21458 layer_factory.hpp:77] Creating layer pool5
I0506 12:25:06.360689 21458 net.cpp:94] Creating Layer pool5
I0506 12:25:06.360698 21458 net.cpp:435] pool5 <- conv5
I0506 12:25:06.360710 21458 net.cpp:409] pool5 -> pool5
I0506 12:25:06.360805 21458 net.cpp:144] Setting up pool5
I0506 12:25:06.360823 21458 net.cpp:151] Top shape: 20 128 2 2 (10240)
I0506 12:25:06.360833 21458 net.cpp:159] Memory required for data: 3761040
I0506 12:25:06.360847 21458 layer_factory.hpp:77] Creating layer ip1
I0506 12:25:06.360863 21458 net.cpp:94] Creating Layer ip1
I0506 12:25:06.360873 21458 net.cpp:435] ip1 <- pool5
I0506 12:25:06.360887 21458 net.cpp:409] ip1 -> ip1
I0506 12:25:06.373988 21458 net.cpp:144] Setting up ip1
I0506 12:25:06.374002 21458 net.cpp:151] Top shape: 20 1024 (20480)
I0506 12:25:06.374006 21458 net.cpp:159] Memory required for data: 3842960
I0506 12:25:06.374013 21458 layer_factory.hpp:77] Creating layer ip2
I0506 12:25:06.374020 21458 net.cpp:94] Creating Layer ip2
I0506 12:25:06.374024 21458 net.cpp:435] ip2 <- ip1
I0506 12:25:06.374029 21458 net.cpp:409] ip2 -> ip2
I0506 12:25:06.387089 21458 net.cpp:144] Setting up ip2
I0506 12:25:06.387102 21458 net.cpp:151] Top shape: 20 512 (10240)
I0506 12:25:06.387106 21458 net.cpp:159] Memory required for data: 3883920
I0506 12:25:06.387112 21458 layer_factory.hpp:77] Creating layer ip3
I0506 12:25:06.387120 21458 net.cpp:94] Creating Layer ip3
I0506 12:25:06.387123 21458 net.cpp:435] ip3 <- ip2
I0506 12:25:06.387128 21458 net.cpp:409] ip3 -> ip3
I0506 12:25:06.388630 21458 net.cpp:144] Setting up ip3
I0506 12:25:06.388643 21458 net.cpp:151] Top shape: 20 50 (1000)
I0506 12:25:06.388648 21458 net.cpp:159] Memory required for data: 3887920
I0506 12:25:06.388653 21458 layer_factory.hpp:77] Creating layer loss
I0506 12:25:06.388661 21458 net.cpp:94] Creating Layer loss
I0506 12:25:06.388665 21458 net.cpp:435] loss <- ip3
I0506 12:25:06.388669 21458 net.cpp:435] loss <- label
I0506 12:25:06.388674 21458 net.cpp:409] loss -> loss
I0506 12:25:06.388682 21458 layer_factory.hpp:77] Creating layer loss
…
I0506 12:25:06.389211 21458 solver.cpp:181] Creating test net (#0) specified by net file: ./protocol/dis_50_100_dimension.protocol_distribution
I0506 12:25:06.389238 21458 net.cpp:323] The NetState phase (1) differed from the phase (0) specified by a rule in layer parameters
I0506 12:25:06.389333 21458 net.cpp:52] Initializing net from parameters: 
state {
  phase: TEST
}
layer {
  name: "intercept"
  type: "HDF5Data"
  top: "data"
  top: "label"
  include {
    phase: TEST
  }
  hdf5_data_param {
    source: "/home/purduethu/scratch/radon/d/deng106/CNNStatisticalModel/distributions/input/50_distributions_100_sample_size_test-distributions-path.txt"
    batch_size: 20
  }
}
layer {
  name: "conv1"
  type: "Convolution"
  bottom: "data"
  top: "conv1"
  param {
    lr_mult: 1
  }
  param {
    lr_mult: 2
  }
  convolution_param {
    num_output: 64
    pad: 2
    kernel_size: 5
    stride: 1
    weight_filler {
      type: "gaussian"
      std: 0.0001
    }
    bias_filler {
      type: "constant"
    }
  }
}
layer {
  name: "relu1"
  type: "ReLU"
  bottom: "conv1"
  top: "conv1"
}
layer {
  name: "conv2"
  type: "Convolution"
  bottom: "conv1"
  top: "conv2"
  param {
    lr_mult: 1
  }
  param {
    lr_mult: 2
  }
  convolution_param {
    num_output: 64
    pad: 2
    kernel_size: 5
    stride: 1
    weight_filler {
      type: "gaussian"
      std: 0.01
    }
    bias_filler {
      type: "constant"
    }
  }
}
layer {
  name: "relu2"
  type: "ReLU"
  bottom: "conv2"
  top: "conv2"
}
layer {
  name: "pool2"
  type: "Pooling"
  bottom: "conv2"
  top: "pool2"
  pooling_param {
    pool: MAX
    kernel_size: 3
    stride: 2
  }
}
layer {
  name: "conv3"
  type: "Convolution"
  bottom: "pool2"
  top: "conv3"
  param {
    lr_mult: 1
  }
  param {
    lr_mult: 2
  }
  convolution_param {
    num_output: 128
    pad: 2
    kernel_size: 5
    stride: 1
    weight_filler {
      type: "gaussian"
      std: 0.01
    }
    bias_filler {
      type: "constant"
    }
  }
}
layer {
  name: "relu3"
  type: "ReLU"
  bottom: "conv3"
  top: "conv3"
}
layer {
  name: "conv4"
  type: "Convolution"
  bottom: "conv3"
  top: "conv4"
  param {
    lr_mult: 1
  }
  param {
    lr_mult: 2
  }
  convolution_param {
    num_output: 128
    pad: 2
    kernel_size: 5
    stride: 1
    weight_filler {
      type: "gaussian"
      std: 0.01
    }
    bias_filler {
      type: "constant"
    }
  }
}
layer {
  name: "relu4"
  type: "ReLU"
  bottom: "conv4"
  top: "conv4"
}
layer {
  name: "conv5"
  type: "Convolution"
  bottom: "conv4"
  top: "conv5"
  param {
    lr_mult: 1
  }
  param {
    lr_mult: 2
  }
  convolution_param {
    num_output: 128
    pad: 2
    kernel_size: 5
    stride: 1
    weight_filler {
      type: "gaussian"
      std: 0.01
    }
    bias_filler {
      type: "constant"
    }
  }
}
layer {
  name: "relu5"
  type: "ReLU"
  bottom: "conv5"
  top: "conv5"
}
layer {
  name: "pool5"
  type: "Pooling"
  bottom: "conv5"
  top: "pool5"
  pooling_param {
    pool: AVE
    kernel_size: 3
    stride: 2
  }
}
layer {
  name: "ip1"
  type: "InnerProduct"
  bottom: "pool5"
  top: "ip1"
  param {
    lr_mult: 1
  }
  param {
    lr_mult: 2
  }
  inner_product_param {
    num_output: 1024
    weight_filler {
      type: "gaussian"
      std: 0.1
    }
    bias_filler {
      type: "constant"
    }
  }
}
layer {
  name: "ip2"
  type: "InnerProduct"
  bottom: "ip1"
  top: "ip2"
  param {
    lr_mult: 1
  }
  param {
    lr_mult: 2
  }
  inner_product_param {
    num_output: 512
    weight_filler {
      type: "gaussian"
      std: 0.1
    }
    bias_filler {
      type: "constant"
    }
  }
}
layer {
  name: "ip3"
  type: "InnerProduct"
  bottom: "ip2"
  top: "ip3"
  param {
    lr_mult: 1
  }
  param {
    lr_mult: 2
  }
  inner_product_param {
    num_output: 50
    weight_filler {
      type: "gaussian"
      std: 0.1
    }
    bias_filler {
      type: "constant"
    }
  }
}
layer {
  name: "accuracy"
  type: "Accuracy"
  bottom: "ip3"
  bottom: "label"
  top: "accuracy"
  include {
    phase: TEST
  }
}
layer {
  name: "loss"
  type: "SoftmaxWithLoss"
  bottom: "ip3"
  bottom: "label"
  top: "loss"
}
I0506 12:25:06.389396 21458 layer_factory.hpp:77] Creating layer intercept
I0506 12:25:06.389405 21458 net.cpp:94] Creating Layer intercept
I0506 12:25:06.389410 21458 net.cpp:409] intercept -> data
I0506 12:25:06.389416 21458 net.cpp:409] intercept -> label
I0506 12:25:06.389422 21458 hdf5_data_layer.cpp:79] Loading list of HDF5 filenames from: /home/purduethu/scratch/radon/d/deng106/CNNStatisticalModel/distributions/input/50_distributions_100_sample_size_test-distributions-path.txt
I0506 12:25:06.389441 21458 hdf5_data_layer.cpp:93] Number of HDF5 files: 1
I0506 12:25:06.430218 21458 net.cpp:144] Setting up intercept
I0506 12:25:06.430251 21458 net.cpp:151] Top shape: 20 1 10 10 (2000)
I0506 12:25:06.430256 21458 net.cpp:151] Top shape: 20 (20)
I0506 12:25:06.430259 21458 net.cpp:159] Memory required for data: 8080
I0506 12:25:06.430266 21458 layer_factory.hpp:77] Creating layer label_intercept_1_split
I0506 12:25:06.430285 21458 net.cpp:94] Creating Layer label_intercept_1_split
I0506 12:25:06.430289 21458 net.cpp:435] label_intercept_1_split <- label
I0506 12:25:06.430295 21458 net.cpp:409] label_intercept_1_split -> label_intercept_1_split_0
I0506 12:25:06.430305 21458 net.cpp:409] label_intercept_1_split -> label_intercept_1_split_1
I0506 12:25:06.430346 21458 net.cpp:144] Setting up label_intercept_1_split
I0506 12:25:06.430351 21458 net.cpp:151] Top shape: 20 (20)
I0506 12:25:06.430356 21458 net.cpp:151] Top shape: 20 (20)
I0506 12:25:06.430358 21458 net.cpp:159] Memory required for data: 8240
I0506 12:25:06.430361 21458 layer_factory.hpp:77] Creating layer conv1
I0506 12:25:06.430373 21458 net.cpp:94] Creating Layer conv1
I0506 12:25:06.430377 21458 net.cpp:435] conv1 <- data
I0506 12:25:06.430382 21458 net.cpp:409] conv1 -> conv1
I0506 12:25:06.431226 21458 net.cpp:144] Setting up conv1
I0506 12:25:06.431238 21458 net.cpp:151] Top shape: 20 64 10 10 (128000)
I0506 12:25:06.431242 21458 net.cpp:159] Memory required for data: 520240
I0506 12:25:06.431252 21458 layer_factory.hpp:77] Creating layer relu1
I0506 12:25:06.431258 21458 net.cpp:94] Creating Layer relu1
I0506 12:25:06.431262 21458 net.cpp:435] relu1 <- conv1
I0506 12:25:06.431267 21458 net.cpp:396] relu1 -> conv1 (in-place)
I0506 12:25:06.431273 21458 net.cpp:144] Setting up relu1
I0506 12:25:06.431277 21458 net.cpp:151] Top shape: 20 64 10 10 (128000)
I0506 12:25:06.431288 21458 net.cpp:159] Memory required for data: 1032240
I0506 12:25:06.431293 21458 layer_factory.hpp:77] Creating layer conv2
I0506 12:25:06.431300 21458 net.cpp:94] Creating Layer conv2
I0506 12:25:06.431304 21458 net.cpp:435] conv2 <- conv1
I0506 12:25:06.431309 21458 net.cpp:409] conv2 -> conv2
I0506 12:25:06.435411 21458 net.cpp:144] Setting up conv2
I0506 12:25:06.435425 21458 net.cpp:151] Top shape: 20 64 10 10 (128000)
I0506 12:25:06.435430 21458 net.cpp:159] Memory required for data: 1544240
I0506 12:25:06.435438 21458 layer_factory.hpp:77] Creating layer relu2
I0506 12:25:06.435444 21458 net.cpp:94] Creating Layer relu2
I0506 12:25:06.435448 21458 net.cpp:435] relu2 <- conv2
I0506 12:25:06.435453 21458 net.cpp:396] relu2 -> conv2 (in-place)
I0506 12:25:06.435461 21458 net.cpp:144] Setting up relu2
I0506 12:25:06.435466 21458 net.cpp:151] Top shape: 20 64 10 10 (128000)
I0506 12:25:06.435468 21458 net.cpp:159] Memory required for data: 2056240
I0506 12:25:06.435472 21458 layer_factory.hpp:77] Creating layer pool2
I0506 12:25:06.435477 21458 net.cpp:94] Creating Layer pool2
I0506 12:25:06.435480 21458 net.cpp:435] pool2 <- conv2
I0506 12:25:06.435484 21458 net.cpp:409] pool2 -> pool2
I0506 12:25:06.435539 21458 net.cpp:144] Setting up pool2
I0506 12:25:06.435547 21458 net.cpp:151] Top shape: 20 64 5 5 (32000)
I0506 12:25:06.435550 21458 net.cpp:159] Memory required for data: 2184240
I0506 12:25:06.435554 21458 layer_factory.hpp:77] Creating layer conv3
I0506 12:25:06.435562 21458 net.cpp:94] Creating Layer conv3
I0506 12:25:06.435566 21458 net.cpp:435] conv3 <- pool2
I0506 12:25:06.435571 21458 net.cpp:409] conv3 -> conv3
I0506 12:25:06.441630 21458 net.cpp:144] Setting up conv3
I0506 12:25:06.441643 21458 net.cpp:151] Top shape: 20 128 5 5 (64000)
I0506 12:25:06.441648 21458 net.cpp:159] Memory required for data: 2440240
I0506 12:25:06.441655 21458 layer_factory.hpp:77] Creating layer relu3
I0506 12:25:06.441661 21458 net.cpp:94] Creating Layer relu3
I0506 12:25:06.441665 21458 net.cpp:435] relu3 <- conv3
I0506 12:25:06.441670 21458 net.cpp:396] relu3 -> conv3 (in-place)
I0506 12:25:06.441676 21458 net.cpp:144] Setting up relu3
I0506 12:25:06.441680 21458 net.cpp:151] Top shape: 20 128 5 5 (64000)
I0506 12:25:06.441684 21458 net.cpp:159] Memory required for data: 2696240
I0506 12:25:06.441686 21458 layer_factory.hpp:77] Creating layer conv4
I0506 12:25:06.441697 21458 net.cpp:94] Creating Layer conv4
I0506 12:25:06.441700 21458 net.cpp:435] conv4 <- conv3
I0506 12:25:06.441706 21458 net.cpp:409] conv4 -> conv4
I0506 12:25:06.454260 21458 net.cpp:144] Setting up conv4
I0506 12:25:06.454274 21458 net.cpp:151] Top shape: 20 128 5 5 (64000)
I0506 12:25:06.454278 21458 net.cpp:159] Memory required for data: 2952240
I0506 12:25:06.454285 21458 layer_factory.hpp:77] Creating layer relu4
I0506 12:25:06.454290 21458 net.cpp:94] Creating Layer relu4
I0506 12:25:06.454294 21458 net.cpp:435] relu4 <- conv4
I0506 12:25:06.454301 21458 net.cpp:396] relu4 -> conv4 (in-place)
I0506 12:25:06.454308 21458 net.cpp:144] Setting up relu4
I0506 12:25:06.454313 21458 net.cpp:151] Top shape: 20 128 5 5 (64000)
I0506 12:25:06.454315 21458 net.cpp:159] Memory required for data: 3208240
I0506 12:25:06.454319 21458 layer_factory.hpp:77] Creating layer conv5
I0506 12:25:06.454327 21458 net.cpp:94] Creating Layer conv5
I0506 12:25:06.454330 21458 net.cpp:435] conv5 <- conv4
I0506 12:25:06.454336 21458 net.cpp:409] conv5 -> conv5
I0506 12:25:06.466904 21458 net.cpp:144] Setting up conv5
I0506 12:25:06.466940 21458 net.cpp:151] Top shape: 20 128 5 5 (64000)
I0506 12:25:06.466951 21458 net.cpp:159] Memory required for data: 3464240
I0506 12:25:06.466984 21458 layer_factory.hpp:77] Creating layer relu5
I0506 12:25:06.466990 21458 net.cpp:94] Creating Layer relu5
I0506 12:25:06.466995 21458 net.cpp:435] relu5 <- conv5
I0506 12:25:06.466998 21458 net.cpp:396] relu5 -> conv5 (in-place)
I0506 12:25:06.467005 21458 net.cpp:144] Setting up relu5
I0506 12:25:06.467010 21458 net.cpp:151] Top shape: 20 128 5 5 (64000)
I0506 12:25:06.467016 21458 net.cpp:159] Memory required for data: 3720240
I0506 12:25:06.467020 21458 layer_factory.hpp:77] Creating layer pool5
I0506 12:25:06.467025 21458 net.cpp:94] Creating Layer pool5
I0506 12:25:06.467028 21458 net.cpp:435] pool5 <- conv5
I0506 12:25:06.467033 21458 net.cpp:409] pool5 -> pool5
I0506 12:25:06.467072 21458 net.cpp:144] Setting up pool5
I0506 12:25:06.467078 21458 net.cpp:151] Top shape: 20 128 2 2 (10240)
I0506 12:25:06.467082 21458 net.cpp:159] Memory required for data: 3761200
I0506 12:25:06.467085 21458 layer_factory.hpp:77] Creating layer ip1
I0506 12:25:06.467092 21458 net.cpp:94] Creating Layer ip1
I0506 12:25:06.467095 21458 net.cpp:435] ip1 <- pool5
I0506 12:25:06.467102 21458 net.cpp:409] ip1 -> ip1
I0506 12:25:06.480273 21458 net.cpp:144] Setting up ip1
I0506 12:25:06.480288 21458 net.cpp:151] Top shape: 20 1024 (20480)
I0506 12:25:06.480291 21458 net.cpp:159] Memory required for data: 3843120
I0506 12:25:06.480298 21458 layer_factory.hpp:77] Creating layer ip2
I0506 12:25:06.480304 21458 net.cpp:94] Creating Layer ip2
I0506 12:25:06.480307 21458 net.cpp:435] ip2 <- ip1
I0506 12:25:06.480314 21458 net.cpp:409] ip2 -> ip2
I0506 12:25:06.493412 21458 net.cpp:144] Setting up ip2
I0506 12:25:06.493427 21458 net.cpp:151] Top shape: 20 512 (10240)
I0506 12:25:06.493430 21458 net.cpp:159] Memory required for data: 3884080
I0506 12:25:06.493436 21458 layer_factory.hpp:77] Creating layer ip3
I0506 12:25:06.493444 21458 net.cpp:94] Creating Layer ip3
I0506 12:25:06.493448 21458 net.cpp:435] ip3 <- ip2
I0506 12:25:06.493455 21458 net.cpp:409] ip3 -> ip3
I0506 12:25:06.494187 21458 net.cpp:144] Setting up ip3
I0506 12:25:06.494195 21458 net.cpp:151] Top shape: 20 50 (1000)
I0506 12:25:06.494199 21458 net.cpp:159] Memory required for data: 3888080
I0506 12:25:06.494204 21458 layer_factory.hpp:77] Creating layer ip3_ip3_0_split
I0506 12:25:06.494210 21458 net.cpp:94] Creating Layer ip3_ip3_0_split
I0506 12:25:06.494212 21458 net.cpp:435] ip3_ip3_0_split <- ip3
I0506 12:25:06.494217 21458 net.cpp:409] ip3_ip3_0_split -> ip3_ip3_0_split_0
I0506 12:25:06.494223 21458 net.cpp:409] ip3_ip3_0_split -> ip3_ip3_0_split_1
I0506 12:25:06.494266 21458 net.cpp:144] Setting up ip3_ip3_0_split
I0506 12:25:06.494272 21458 net.cpp:151] Top shape: 20 50 (1000)
I0506 12:25:06.494277 21458 net.cpp:151] Top shape: 20 50 (1000)
I0506 12:25:06.494279 21458 net.cpp:159] Memory required for data: 3896080
I0506 12:25:06.494282 21458 layer_factory.hpp:77] Creating layer accuracy
I0506 12:25:06.494289 21458 net.cpp:94] Creating Layer accuracy
I0506 12:25:06.494292 21458 net.cpp:435] accuracy <- ip3_ip3_0_split_0
I0506 12:25:06.494295 21458 net.cpp:435] accuracy <- label_intercept_1_split_0
I0506 12:25:06.494300 21458 net.cpp:409] accuracy -> accuracy
…
