…
I0505 19:26:38.281466  8808 net.cpp:323] The NetState phase (0) differed from the phase (1) specified by a rule in layer intercept
I0505 19:26:38.281481  8808 net.cpp:323] The NetState phase (0) differed from the phase (1) specified by a rule in layer loss
I0505 19:26:38.281548  8808 net.cpp:52] Initializing net from parameters: 
state {
  phase: TRAIN
}
layer {
  name: "parameters"
  type: "HDF5Data"
  top: "data"
  top: "label"
  include {
    phase: TRAIN
  }
  hdf5_data_param {
    source: "/home/purduethu/scratch/radon/d/deng106/CNNStatisticalModel/distributions/input/5_distributions_100_sample_size_train-parameters-path.txt"
    batch_size: 20
  }
}
layer {
  name: "conv1"
  type: "Convolution"
  bottom: "data"
  top: "conv1"
  param {
    lr_mult: 1
  }
  param {
    lr_mult: 2
  }
  convolution_param {
    num_output: 64
    pad: 2
    kernel_size: 5
    stride: 1
    weight_filler {
      type: "gaussian"
      std: 0.0001
    }
    bias_filler {
      type: "constant"
    }
  }
}
layer {
  name: "relu1"
  type: "ReLU"
  bottom: "conv1"
  top: "conv1"
}
layer {
  name: "pool1"
  type: "Pooling"
  bottom: "conv1"
  top: "pool1"
  pooling_param {
    pool: MAX
    kernel_size: 3
    stride: 2
  }
}
layer {
  name: "conv2"
  type: "Convolution"
  bottom: "pool1"
  top: "conv2"
  param {
    lr_mult: 1
  }
  param {
    lr_mult: 2
  }
  convolution_param {
    num_output: 128
    pad: 2
    kernel_size: 5
    stride: 1
    weight_filler {
      type: "gaussian"
      std: 0.01
    }
    bias_filler {
      type: "constant"
    }
  }
}
layer {
  name: "relu2"
  type: "ReLU"
  bottom: "conv2"
  top: "conv2"
}
layer {
  name: "conv3"
  type: "Convolution"
  bottom: "conv2"
  top: "conv3"
  param {
    lr_mult: 1
  }
  param {
    lr_mult: 2
  }
  convolution_param {
    num_output: 128
    pad: 2
    kernel_size: 5
    stride: 1
    weight_filler {
      type: "gaussian"
      std: 0.01
    }
    bias_filler {
      type: "constant"
    }
  }
}
layer {
  name: "relu3"
  type: "ReLU"
  bottom: "conv3"
  top: "conv3"
}
layer {
  name: "pool3"
  type: "Pooling"
  bottom: "conv3"
  top: "pool3"
  pooling_param {
    pool: AVE
    kernel_size: 3
    stride: 2
  }
}
layer {
  name: "ip1"
  type: "InnerProduct"
  bottom: "pool3"
  top: "ip1"
  param {
    lr_mult: 1
  }
  param {
    lr_mult: 2
  }
  inner_product_param {
    num_output: 512
    weight_filler {
      type: "gaussian"
      std: 0.1
    }
    bias_filler {
      type: "constant"
    }
  }
}
layer {
  name: "ip2"
  type: "InnerProduct"
  bottom: "ip1"
  top: "ip2"
  param {
    lr_mult: 1
  }
  param {
    lr_mult: 2
  }
  inner_product_param {
    num_output: 256
    weight_filler {
      type: "gaussian"
      std: 0.1
    }
    bias_filler {
      type: "constant"
    }
  }
}
layer {
  name: "ip3"
  type: "InnerProduct"
  bottom: "ip2"
  top: "ip3"
  param {
    lr_mult: 1
  }
  param {
    lr_mult: 2
  }
  inner_product_param {
    num_output: 1
    weight_filler {
      type: "gaussian"
      std: 0.1
    }
    bias_filler {
      type: "constant"
    }
  }
}
layer {
  name: "loss"
  type: "HuberLoss"
  bottom: "ip3"
  bottom: "label"
  top: "loss"
  include {
    phase: TRAIN
  }
}
I0505 19:26:38.281594  8808 layer_factory.hpp:77] Creating layer parameters
I0505 19:26:38.281607  8808 net.cpp:94] Creating Layer parameters
I0505 19:26:38.281612  8808 net.cpp:409] parameters -> data
I0505 19:26:38.281621  8808 net.cpp:409] parameters -> label
I0505 19:26:38.281632  8808 hdf5_data_layer.cpp:79] Loading list of HDF5 filenames from: /home/purduethu/scratch/radon/d/deng106/CNNStatisticalModel/distributions/input/5_distributions_100_sample_size_train-parameters-path.txt
I0505 19:26:38.281646  8808 hdf5_data_layer.cpp:93] Number of HDF5 files: 1
I0505 19:26:38.282066  8808 hdf5.cpp:32] Datatype class: H5T_FLOAT
I0505 19:26:38.300351  8808 net.cpp:144] Setting up parameters
I0505 19:26:38.300381  8808 net.cpp:151] Top shape: 20 1 10 10 (2000)
I0505 19:26:38.300386  8808 net.cpp:151] Top shape: 20 (20)
I0505 19:26:38.300390  8808 net.cpp:159] Memory required for data: 8080
I0505 19:26:38.300396  8808 layer_factory.hpp:77] Creating layer conv1
I0505 19:26:38.300412  8808 net.cpp:94] Creating Layer conv1
I0505 19:26:38.300417  8808 net.cpp:435] conv1 <- data
I0505 19:26:38.300423  8808 net.cpp:409] conv1 -> conv1
I0505 19:26:38.304605  8808 net.cpp:144] Setting up conv1
I0505 19:26:38.304620  8808 net.cpp:151] Top shape: 20 64 10 10 (128000)
I0505 19:26:38.304623  8808 net.cpp:159] Memory required for data: 520080
I0505 19:26:38.304633  8808 layer_factory.hpp:77] Creating layer relu1
I0505 19:26:38.304641  8808 net.cpp:94] Creating Layer relu1
I0505 19:26:38.304644  8808 net.cpp:435] relu1 <- conv1
I0505 19:26:38.304648  8808 net.cpp:396] relu1 -> conv1 (in-place)
I0505 19:26:38.304659  8808 net.cpp:144] Setting up relu1
I0505 19:26:38.304664  8808 net.cpp:151] Top shape: 20 64 10 10 (128000)
I0505 19:26:38.304667  8808 net.cpp:159] Memory required for data: 1032080
I0505 19:26:38.304671  8808 layer_factory.hpp:77] Creating layer pool1
I0505 19:26:38.304675  8808 net.cpp:94] Creating Layer pool1
I0505 19:26:38.304678  8808 net.cpp:435] pool1 <- conv1
I0505 19:26:38.304682  8808 net.cpp:409] pool1 -> pool1
I0505 19:26:38.304740  8808 net.cpp:144] Setting up pool1
I0505 19:26:38.304747  8808 net.cpp:151] Top shape: 20 64 5 5 (32000)
I0505 19:26:38.304750  8808 net.cpp:159] Memory required for data: 1160080
I0505 19:26:38.304754  8808 layer_factory.hpp:77] Creating layer conv2
I0505 19:26:38.304762  8808 net.cpp:94] Creating Layer conv2
I0505 19:26:38.304766  8808 net.cpp:435] conv2 <- pool1
I0505 19:26:38.304770  8808 net.cpp:409] conv2 -> conv2
I0505 19:26:38.313778  8808 net.cpp:144] Setting up conv2
I0505 19:26:38.313793  8808 net.cpp:151] Top shape: 20 128 5 5 (64000)
I0505 19:26:38.313797  8808 net.cpp:159] Memory required for data: 1416080
I0505 19:26:38.313805  8808 layer_factory.hpp:77] Creating layer relu2
I0505 19:26:38.313812  8808 net.cpp:94] Creating Layer relu2
I0505 19:26:38.313815  8808 net.cpp:435] relu2 <- conv2
I0505 19:26:38.313820  8808 net.cpp:396] relu2 -> conv2 (in-place)
I0505 19:26:38.313827  8808 net.cpp:144] Setting up relu2
I0505 19:26:38.313832  8808 net.cpp:151] Top shape: 20 128 5 5 (64000)
I0505 19:26:38.313834  8808 net.cpp:159] Memory required for data: 1672080
I0505 19:26:38.313838  8808 layer_factory.hpp:77] Creating layer conv3
I0505 19:26:38.313844  8808 net.cpp:94] Creating Layer conv3
I0505 19:26:38.313848  8808 net.cpp:435] conv3 <- conv2
I0505 19:26:38.313853  8808 net.cpp:409] conv3 -> conv3
I0505 19:26:38.328698  8808 net.cpp:144] Setting up conv3
I0505 19:26:38.328713  8808 net.cpp:151] Top shape: 20 128 5 5 (64000)
I0505 19:26:38.328717  8808 net.cpp:159] Memory required for data: 1928080
I0505 19:26:38.328727  8808 layer_factory.hpp:77] Creating layer relu3
I0505 19:26:38.328732  8808 net.cpp:94] Creating Layer relu3
I0505 19:26:38.328742  8808 net.cpp:435] relu3 <- conv3
I0505 19:26:38.328747  8808 net.cpp:396] relu3 -> conv3 (in-place)
I0505 19:26:38.328753  8808 net.cpp:144] Setting up relu3
I0505 19:26:38.328758  8808 net.cpp:151] Top shape: 20 128 5 5 (64000)
I0505 19:26:38.328760  8808 net.cpp:159] Memory required for data: 2184080
I0505 19:26:38.328763  8808 layer_factory.hpp:77] Creating layer pool3
I0505 19:26:38.328769  8808 net.cpp:94] Creating Layer pool3
I0505 19:26:38.328773  8808 net.cpp:435] pool3 <- conv3
I0505 19:26:38.328778  8808 net.cpp:409] pool3 -> pool3
I0505 19:26:38.328816  8808 net.cpp:144] Setting up pool3
I0505 19:26:38.328824  8808 net.cpp:151] Top shape: 20 128 2 2 (10240)
I0505 19:26:38.328826  8808 net.cpp:159] Memory required for data: 2225040
I0505 19:26:38.328830  8808 layer_factory.hpp:77] Creating layer ip1
I0505 19:26:38.328836  8808 net.cpp:94] Creating Layer ip1
I0505 19:26:38.328840  8808 net.cpp:435] ip1 <- pool3
I0505 19:26:38.328845  8808 net.cpp:409] ip1 -> ip1
I0505 19:26:38.336004  8808 net.cpp:144] Setting up ip1
I0505 19:26:38.336017  8808 net.cpp:151] Top shape: 20 512 (10240)
I0505 19:26:38.336021  8808 net.cpp:159] Memory required for data: 2266000
I0505 19:26:38.336028  8808 layer_factory.hpp:77] Creating layer ip2
I0505 19:26:38.336035  8808 net.cpp:94] Creating Layer ip2
I0505 19:26:38.336040  8808 net.cpp:435] ip2 <- ip1
I0505 19:26:38.336045  8808 net.cpp:409] ip2 -> ip2
I0505 19:26:38.340072  8808 net.cpp:144] Setting up ip2
I0505 19:26:38.340086  8808 net.cpp:151] Top shape: 20 256 (5120)
I0505 19:26:38.340090  8808 net.cpp:159] Memory required for data: 2286480
I0505 19:26:38.340098  8808 layer_factory.hpp:77] Creating layer ip3
I0505 19:26:38.340106  8808 net.cpp:94] Creating Layer ip3
I0505 19:26:38.340109  8808 net.cpp:435] ip3 <- ip2
I0505 19:26:38.340114  8808 net.cpp:409] ip3 -> ip3
I0505 19:26:38.340224  8808 net.cpp:144] Setting up ip3
I0505 19:26:38.340230  8808 net.cpp:151] Top shape: 20 1 (20)
I0505 19:26:38.340234  8808 net.cpp:159] Memory required for data: 2286560
I0505 19:26:38.340239  8808 layer_factory.hpp:77] Creating layer loss
I0505 19:26:38.340248  8808 net.cpp:94] Creating Layer loss
I0505 19:26:38.340251  8808 net.cpp:435] loss <- ip3
I0505 19:26:38.340255  8808 net.cpp:435] loss <- label
I0505 19:26:38.340260  8808 net.cpp:409] loss -> loss
I0505 19:26:38.340312  8808 net.cpp:144] Setting up loss
…
I0505 19:26:38.378402  8808 net.cpp:323] The NetState phase (0) differed from the phase (1) specified by a rule in layer intercept
I0505 19:26:38.378415  8808 net.cpp:323] The NetState phase (0) differed from the phase (1) specified by a rule in layer accuracy
I0505 19:26:38.378490  8808 net.cpp:52] Initializing net from parameters: 
state {
  phase: TRAIN
}
layer {
  name: "parameters"
  type: "HDF5Data"
  top: "data"
  top: "label"
  include {
    phase: TRAIN
  }
  hdf5_data_param {
    source: "/home/purduethu/scratch/radon/d/deng106/CNNStatisticalModel/distributions/input/5_distributions_100_sample_size_train-distributions-path.txt"
    batch_size: 20
  }
}
layer {
  name: "conv1"
  type: "Convolution"
  bottom: "data"
  top: "conv1"
  param {
    lr_mult: 1
  }
  param {
    lr_mult: 2
  }
  convolution_param {
    num_output: 64
    pad: 2
    kernel_size: 5
    stride: 1
    weight_filler {
      type: "gaussian"
      std: 0.0001
    }
    bias_filler {
      type: "constant"
    }
  }
}
layer {
  name: "relu1"
  type: "ReLU"
  bottom: "conv1"
  top: "conv1"
}
layer {
  name: "pool1"
  type: "Pooling"
  bottom: "conv1"
  top: "pool1"
  pooling_param {
    pool: MAX
    kernel_size: 3
    stride: 2
  }
}
layer {
  name: "conv2"
  type: "Convolution"
  bottom: "pool1"
  top: "conv2"
  param {
    lr_mult: 1
  }
  param {
    lr_mult: 2
  }
  convolution_param {
    num_output: 128
    pad: 2
    kernel_size: 5
    stride: 1
    weight_filler {
      type: "gaussian"
      std: 0.01
    }
    bias_filler {
      type: "constant"
    }
  }
}
layer {
  name: "relu2"
  type: "ReLU"
  bottom: "conv2"
  top: "conv2"
}
layer {
  name: "conv3"
  type: "Convolution"
  bottom: "conv2"
  top: "conv3"
  param {
    lr_mult: 1
  }
  param {
    lr_mult: 2
  }
  convolution_param {
    num_output: 128
    pad: 2
    kernel_size: 5
    stride: 1
    weight_filler {
      type: "gaussian"
      std: 0.01
    }
    bias_filler {
      type: "constant"
    }
  }
}
layer {
  name: "relu3"
  type: "ReLU"
  bottom: "conv3"
  top: "conv3"
}
layer {
  name: "pool3"
  type: "Pooling"
  bottom: "conv3"
  top: "pool3"
  pooling_param {
    pool: AVE
    kernel_size: 3
    stride: 2
  }
}
layer {
  name: "ip1"
  type: "InnerProduct"
  bottom: "pool3"
  top: "ip1"
  param {
    lr_mult: 1
  }
  param {
    lr_mult: 2
  }
  inner_product_param {
    num_output: 512
    weight_filler {
      type: "gaussian"
      std: 0.1
    }
    bias_filler {
      type: "constant"
    }
  }
}
layer {
  name: "ip2"
  type: "InnerProduct"
  bottom: "ip1"
  top: "ip2"
  param {
    lr_mult: 1
  }
  param {
    lr_mult: 2
  }
  inner_product_param {
    num_output: 256
    weight_filler {
      type: "gaussian"
      std: 0.1
    }
    bias_filler {
      type: "constant"
    }
  }
}
layer {
  name: "ip3"
  type: "InnerProduct"
  bottom: "ip2"
  top: "ip3"
  param {
    lr_mult: 1
  }
  param {
    lr_mult: 2
  }
  inner_product_param {
    num_output: 50
    weight_filler {
      type: "gaussian"
      std: 0.1
    }
    bias_filler {
      type: "constant"
    }
  }
}
layer {
  name: "loss"
  type: "SoftmaxWithLoss"
  bottom: "ip3"
  bottom: "label"
  top: "loss"
}
I0505 19:26:38.378533  8808 layer_factory.hpp:77] Creating layer parameters
I0505 19:26:38.378541  8808 net.cpp:94] Creating Layer parameters
I0505 19:26:38.378546  8808 net.cpp:409] parameters -> data
I0505 19:26:38.378553  8808 net.cpp:409] parameters -> label
I0505 19:26:38.378559  8808 hdf5_data_layer.cpp:79] Loading list of HDF5 filenames from: /home/purduethu/scratch/radon/d/deng106/CNNStatisticalModel/distributions/input/5_distributions_100_sample_size_train-distributions-path.txt
I0505 19:26:38.378574  8808 hdf5_data_layer.cpp:93] Number of HDF5 files: 1
I0505 19:26:38.394505  8808 hdf5.cpp:35] Datatype class: H5T_INTEGER
I0505 19:26:38.394929  8808 net.cpp:144] Setting up parameters
I0505 19:26:38.394943  8808 net.cpp:151] Top shape: 20 1 10 10 (2000)
I0505 19:26:38.394948  8808 net.cpp:151] Top shape: 20 (20)
I0505 19:26:38.394951  8808 net.cpp:159] Memory required for data: 8080
I0505 19:26:38.394956  8808 layer_factory.hpp:77] Creating layer conv1
I0505 19:26:38.394973  8808 net.cpp:94] Creating Layer conv1
I0505 19:26:38.394978  8808 net.cpp:435] conv1 <- data
I0505 19:26:38.394984  8808 net.cpp:409] conv1 -> conv1
I0505 19:26:38.396798  8808 net.cpp:144] Setting up conv1
I0505 19:26:38.396812  8808 net.cpp:151] Top shape: 20 64 10 10 (128000)
I0505 19:26:38.396816  8808 net.cpp:159] Memory required for data: 520080
I0505 19:26:38.396826  8808 layer_factory.hpp:77] Creating layer relu1
I0505 19:26:38.396833  8808 net.cpp:94] Creating Layer relu1
I0505 19:26:38.396836  8808 net.cpp:435] relu1 <- conv1
I0505 19:26:38.396842  8808 net.cpp:396] relu1 -> conv1 (in-place)
I0505 19:26:38.396848  8808 net.cpp:144] Setting up relu1
I0505 19:26:38.396852  8808 net.cpp:151] Top shape: 20 64 10 10 (128000)
I0505 19:26:38.396855  8808 net.cpp:159] Memory required for data: 1032080
I0505 19:26:38.396858  8808 layer_factory.hpp:77] Creating layer pool1
I0505 19:26:38.396864  8808 net.cpp:94] Creating Layer pool1
I0505 19:26:38.396867  8808 net.cpp:435] pool1 <- conv1
I0505 19:26:38.396872  8808 net.cpp:409] pool1 -> pool1
I0505 19:26:38.396939  8808 net.cpp:144] Setting up pool1
I0505 19:26:38.396946  8808 net.cpp:151] Top shape: 20 64 5 5 (32000)
I0505 19:26:38.396950  8808 net.cpp:159] Memory required for data: 1160080
I0505 19:26:38.396952  8808 layer_factory.hpp:77] Creating layer conv2
I0505 19:26:38.396960  8808 net.cpp:94] Creating Layer conv2
I0505 19:26:38.396965  8808 net.cpp:435] conv2 <- pool1
I0505 19:26:38.396968  8808 net.cpp:409] conv2 -> conv2
I0505 19:26:38.406198  8808 net.cpp:144] Setting up conv2
I0505 19:26:38.406216  8808 net.cpp:151] Top shape: 20 128 5 5 (64000)
I0505 19:26:38.406219  8808 net.cpp:159] Memory required for data: 1416080
I0505 19:26:38.406229  8808 layer_factory.hpp:77] Creating layer relu2
I0505 19:26:38.406235  8808 net.cpp:94] Creating Layer relu2
I0505 19:26:38.406239  8808 net.cpp:435] relu2 <- conv2
I0505 19:26:38.406244  8808 net.cpp:396] relu2 -> conv2 (in-place)
I0505 19:26:38.406250  8808 net.cpp:144] Setting up relu2
I0505 19:26:38.406255  8808 net.cpp:151] Top shape: 20 128 5 5 (64000)
I0505 19:26:38.406257  8808 net.cpp:159] Memory required for data: 1672080
I0505 19:26:38.406260  8808 layer_factory.hpp:77] Creating layer conv3
I0505 19:26:38.406267  8808 net.cpp:94] Creating Layer conv3
I0505 19:26:38.406270  8808 net.cpp:435] conv3 <- conv2
I0505 19:26:38.406275  8808 net.cpp:409] conv3 -> conv3
I0505 19:26:38.420898  8808 net.cpp:144] Setting up conv3
I0505 19:26:38.420915  8808 net.cpp:151] Top shape: 20 128 5 5 (64000)
I0505 19:26:38.420918  8808 net.cpp:159] Memory required for data: 1928080
I0505 19:26:38.420928  8808 layer_factory.hpp:77] Creating layer relu3
I0505 19:26:38.420933  8808 net.cpp:94] Creating Layer relu3
I0505 19:26:38.420938  8808 net.cpp:435] relu3 <- conv3
I0505 19:26:38.420943  8808 net.cpp:396] relu3 -> conv3 (in-place)
I0505 19:26:38.420949  8808 net.cpp:144] Setting up relu3
I0505 19:26:38.420953  8808 net.cpp:151] Top shape: 20 128 5 5 (64000)
I0505 19:26:38.420956  8808 net.cpp:159] Memory required for data: 2184080
I0505 19:26:38.420959  8808 layer_factory.hpp:77] Creating layer pool3
I0505 19:26:38.420965  8808 net.cpp:94] Creating Layer pool3
I0505 19:26:38.420969  8808 net.cpp:435] pool3 <- conv3
I0505 19:26:38.420972  8808 net.cpp:409] pool3 -> pool3
I0505 19:26:38.421011  8808 net.cpp:144] Setting up pool3
I0505 19:26:38.421017  8808 net.cpp:151] Top shape: 20 128 2 2 (10240)
I0505 19:26:38.421020  8808 net.cpp:159] Memory required for data: 2225040
I0505 19:26:38.421023  8808 layer_factory.hpp:77] Creating layer ip1
I0505 19:26:38.421030  8808 net.cpp:94] Creating Layer ip1
I0505 19:26:38.421033  8808 net.cpp:435] ip1 <- pool3
I0505 19:26:38.421038  8808 net.cpp:409] ip1 -> ip1
I0505 19:26:38.427376  8808 net.cpp:144] Setting up ip1
I0505 19:26:38.427387  8808 net.cpp:151] Top shape: 20 512 (10240)
I0505 19:26:38.427390  8808 net.cpp:159] Memory required for data: 2266000
I0505 19:26:38.427395  8808 layer_factory.hpp:77] Creating layer ip2
I0505 19:26:38.427402  8808 net.cpp:94] Creating Layer ip2
I0505 19:26:38.427405  8808 net.cpp:435] ip2 <- ip1
I0505 19:26:38.427410  8808 net.cpp:409] ip2 -> ip2
I0505 19:26:38.430645  8808 net.cpp:144] Setting up ip2
I0505 19:26:38.430655  8808 net.cpp:151] Top shape: 20 256 (5120)
I0505 19:26:38.430657  8808 net.cpp:159] Memory required for data: 2286480
I0505 19:26:38.430665  8808 layer_factory.hpp:77] Creating layer ip3
I0505 19:26:38.430670  8808 net.cpp:94] Creating Layer ip3
I0505 19:26:38.430673  8808 net.cpp:435] ip3 <- ip2
I0505 19:26:38.430678  8808 net.cpp:409] ip3 -> ip3
I0505 19:26:38.431118  8808 net.cpp:144] Setting up ip3
I0505 19:26:38.431125  8808 net.cpp:151] Top shape: 20 50 (1000)
I0505 19:26:38.431129  8808 net.cpp:159] Memory required for data: 2290480
I0505 19:26:38.431133  8808 layer_factory.hpp:77] Creating layer loss
I0505 19:26:38.431138  8808 net.cpp:94] Creating Layer loss
I0505 19:26:38.431143  8808 net.cpp:435] loss <- ip3
I0505 19:26:38.431145  8808 net.cpp:435] loss <- label
I0505 19:26:38.431150  8808 net.cpp:409] loss -> loss
I0505 19:26:38.431157  8808 layer_factory.hpp:77] Creating layer loss
…
I0505 19:26:38.431622  8808 solver.cpp:181] Creating test net (#0) specified by net file: ./protocol/dis_5_100_dimension.protocol_distribution
I0505 19:26:38.431645  8808 net.cpp:323] The NetState phase (1) differed from the phase (0) specified by a rule in layer parameters
I0505 19:26:38.431730  8808 net.cpp:52] Initializing net from parameters: 
state {
  phase: TEST
}
layer {
  name: "intercept"
  type: "HDF5Data"
  top: "data"
  top: "label"
  include {
    phase: TEST
  }
  hdf5_data_param {
    source: "/home/purduethu/scratch/radon/d/deng106/CNNStatisticalModel/distributions/input/5_distributions_100_sample_size_test-distributions-path.txt"
    batch_size: 20
  }
}
layer {
  name: "conv1"
  type: "Convolution"
  bottom: "data"
  top: "conv1"
  param {
    lr_mult: 1
  }
  param {
    lr_mult: 2
  }
  convolution_param {
    num_output: 64
    pad: 2
    kernel_size: 5
    stride: 1
    weight_filler {
      type: "gaussian"
      std: 0.0001
    }
    bias_filler {
      type: "constant"
    }
  }
}
layer {
  name: "relu1"
  type: "ReLU"
  bottom: "conv1"
  top: "conv1"
}
layer {
  name: "pool1"
  type: "Pooling"
  bottom: "conv1"
  top: "pool1"
  pooling_param {
    pool: MAX
    kernel_size: 3
    stride: 2
  }
}
layer {
  name: "conv2"
  type: "Convolution"
  bottom: "pool1"
  top: "conv2"
  param {
    lr_mult: 1
  }
  param {
    lr_mult: 2
  }
  convolution_param {
    num_output: 128
    pad: 2
    kernel_size: 5
    stride: 1
    weight_filler {
      type: "gaussian"
      std: 0.01
    }
    bias_filler {
      type: "constant"
    }
  }
}
layer {
  name: "relu2"
  type: "ReLU"
  bottom: "conv2"
  top: "conv2"
}
layer {
  name: "conv3"
  type: "Convolution"
  bottom: "conv2"
  top: "conv3"
  param {
    lr_mult: 1
  }
  param {
    lr_mult: 2
  }
  convolution_param {
    num_output: 128
    pad: 2
    kernel_size: 5
    stride: 1
    weight_filler {
      type: "gaussian"
      std: 0.01
    }
    bias_filler {
      type: "constant"
    }
  }
}
layer {
  name: "relu3"
  type: "ReLU"
  bottom: "conv3"
  top: "conv3"
}
layer {
  name: "pool3"
  type: "Pooling"
  bottom: "conv3"
  top: "pool3"
  pooling_param {
    pool: AVE
    kernel_size: 3
    stride: 2
  }
}
layer {
  name: "ip1"
  type: "InnerProduct"
  bottom: "pool3"
  top: "ip1"
  param {
    lr_mult: 1
  }
  param {
    lr_mult: 2
  }
  inner_product_param {
    num_output: 512
    weight_filler {
      type: "gaussian"
      std: 0.1
    }
    bias_filler {
      type: "constant"
    }
  }
}
layer {
  name: "ip2"
  type: "InnerProduct"
  bottom: "ip1"
  top: "ip2"
  param {
    lr_mult: 1
  }
  param {
    lr_mult: 2
  }
  inner_product_param {
    num_output: 256
    weight_filler {
      type: "gaussian"
      std: 0.1
    }
    bias_filler {
      type: "constant"
    }
  }
}
layer {
  name: "ip3"
  type: "InnerProduct"
  bottom: "ip2"
  top: "ip3"
  param {
    lr_mult: 1
  }
  param {
    lr_mult: 2
  }
  inner_product_param {
    num_output: 50
    weight_filler {
      type: "gaussian"
      std: 0.1
    }
    bias_filler {
      type: "constant"
    }
  }
}
layer {
  name: "accuracy"
  type: "Accuracy"
  bottom: "ip3"
  bottom: "label"
  top: "accuracy"
  include {
    phase: TEST
  }
}
layer {
  name: "loss"
  type: "SoftmaxWithLoss"
  bottom: "ip3"
  bottom: "label"
  top: "loss"
}
I0505 19:26:38.431787  8808 layer_factory.hpp:77] Creating layer intercept
I0505 19:26:38.431795  8808 net.cpp:94] Creating Layer intercept
I0505 19:26:38.431799  8808 net.cpp:409] intercept -> data
I0505 19:26:38.431807  8808 net.cpp:409] intercept -> label
I0505 19:26:38.431812  8808 hdf5_data_layer.cpp:79] Loading list of HDF5 filenames from: /home/purduethu/scratch/radon/d/deng106/CNNStatisticalModel/distributions/input/5_distributions_100_sample_size_test-distributions-path.txt
I0505 19:26:38.431830  8808 hdf5_data_layer.cpp:93] Number of HDF5 files: 1
I0505 19:26:38.436236  8808 net.cpp:144] Setting up intercept
I0505 19:26:38.436264  8808 net.cpp:151] Top shape: 20 1 10 10 (2000)
I0505 19:26:38.436270  8808 net.cpp:151] Top shape: 20 (20)
I0505 19:26:38.436273  8808 net.cpp:159] Memory required for data: 8080
I0505 19:26:38.436278  8808 layer_factory.hpp:77] Creating layer label_intercept_1_split
I0505 19:26:38.436293  8808 net.cpp:94] Creating Layer label_intercept_1_split
I0505 19:26:38.436298  8808 net.cpp:435] label_intercept_1_split <- label
I0505 19:26:38.436303  8808 net.cpp:409] label_intercept_1_split -> label_intercept_1_split_0
I0505 19:26:38.436312  8808 net.cpp:409] label_intercept_1_split -> label_intercept_1_split_1
I0505 19:26:38.436354  8808 net.cpp:144] Setting up label_intercept_1_split
I0505 19:26:38.436360  8808 net.cpp:151] Top shape: 20 (20)
I0505 19:26:38.436364  8808 net.cpp:151] Top shape: 20 (20)
I0505 19:26:38.436367  8808 net.cpp:159] Memory required for data: 8240
I0505 19:26:38.436370  8808 layer_factory.hpp:77] Creating layer conv1
I0505 19:26:38.436380  8808 net.cpp:94] Creating Layer conv1
I0505 19:26:38.436384  8808 net.cpp:435] conv1 <- data
I0505 19:26:38.436388  8808 net.cpp:409] conv1 -> conv1
I0505 19:26:38.437240  8808 net.cpp:144] Setting up conv1
I0505 19:26:38.437257  8808 net.cpp:151] Top shape: 20 64 10 10 (128000)
I0505 19:26:38.437260  8808 net.cpp:159] Memory required for data: 520240
I0505 19:26:38.437270  8808 layer_factory.hpp:77] Creating layer relu1
I0505 19:26:38.437278  8808 net.cpp:94] Creating Layer relu1
I0505 19:26:38.437281  8808 net.cpp:435] relu1 <- conv1
I0505 19:26:38.437285  8808 net.cpp:396] relu1 -> conv1 (in-place)
I0505 19:26:38.437292  8808 net.cpp:144] Setting up relu1
I0505 19:26:38.437296  8808 net.cpp:151] Top shape: 20 64 10 10 (128000)
I0505 19:26:38.437299  8808 net.cpp:159] Memory required for data: 1032240
I0505 19:26:38.437302  8808 layer_factory.hpp:77] Creating layer pool1
I0505 19:26:38.437309  8808 net.cpp:94] Creating Layer pool1
I0505 19:26:38.437312  8808 net.cpp:435] pool1 <- conv1
I0505 19:26:38.437316  8808 net.cpp:409] pool1 -> pool1
I0505 19:26:38.437378  8808 net.cpp:144] Setting up pool1
I0505 19:26:38.437386  8808 net.cpp:151] Top shape: 20 64 5 5 (32000)
I0505 19:26:38.437388  8808 net.cpp:159] Memory required for data: 1160240
I0505 19:26:38.437391  8808 layer_factory.hpp:77] Creating layer conv2
I0505 19:26:38.437399  8808 net.cpp:94] Creating Layer conv2
I0505 19:26:38.437402  8808 net.cpp:435] conv2 <- pool1
I0505 19:26:38.437407  8808 net.cpp:409] conv2 -> conv2
I0505 19:26:38.445118  8808 net.cpp:144] Setting up conv2
I0505 19:26:38.445133  8808 net.cpp:151] Top shape: 20 128 5 5 (64000)
I0505 19:26:38.445137  8808 net.cpp:159] Memory required for data: 1416240
I0505 19:26:38.445145  8808 layer_factory.hpp:77] Creating layer relu2
I0505 19:26:38.445152  8808 net.cpp:94] Creating Layer relu2
I0505 19:26:38.445161  8808 net.cpp:435] relu2 <- conv2
I0505 19:26:38.445166  8808 net.cpp:396] relu2 -> conv2 (in-place)
I0505 19:26:38.445173  8808 net.cpp:144] Setting up relu2
I0505 19:26:38.445178  8808 net.cpp:151] Top shape: 20 128 5 5 (64000)
I0505 19:26:38.445179  8808 net.cpp:159] Memory required for data: 1672240
I0505 19:26:38.445183  8808 layer_factory.hpp:77] Creating layer conv3
I0505 19:26:38.445190  8808 net.cpp:94] Creating Layer conv3
I0505 19:26:38.445194  8808 net.cpp:435] conv3 <- conv2
I0505 19:26:38.445199  8808 net.cpp:409] conv3 -> conv3
I0505 19:26:38.457801  8808 net.cpp:144] Setting up conv3
I0505 19:26:38.457816  8808 net.cpp:151] Top shape: 20 128 5 5 (64000)
I0505 19:26:38.457820  8808 net.cpp:159] Memory required for data: 1928240
I0505 19:26:38.457828  8808 layer_factory.hpp:77] Creating layer relu3
I0505 19:26:38.457835  8808 net.cpp:94] Creating Layer relu3
I0505 19:26:38.457839  8808 net.cpp:435] relu3 <- conv3
I0505 19:26:38.457844  8808 net.cpp:396] relu3 -> conv3 (in-place)
I0505 19:26:38.457850  8808 net.cpp:144] Setting up relu3
I0505 19:26:38.457854  8808 net.cpp:151] Top shape: 20 128 5 5 (64000)
I0505 19:26:38.457857  8808 net.cpp:159] Memory required for data: 2184240
I0505 19:26:38.457860  8808 layer_factory.hpp:77] Creating layer pool3
I0505 19:26:38.457865  8808 net.cpp:94] Creating Layer pool3
I0505 19:26:38.457868  8808 net.cpp:435] pool3 <- conv3
I0505 19:26:38.457872  8808 net.cpp:409] pool3 -> pool3
I0505 19:26:38.457911  8808 net.cpp:144] Setting up pool3
I0505 19:26:38.457918  8808 net.cpp:151] Top shape: 20 128 2 2 (10240)
I0505 19:26:38.457921  8808 net.cpp:159] Memory required for data: 2225200
I0505 19:26:38.457924  8808 layer_factory.hpp:77] Creating layer ip1
I0505 19:26:38.457931  8808 net.cpp:94] Creating Layer ip1
I0505 19:26:38.457936  8808 net.cpp:435] ip1 <- pool3
I0505 19:26:38.457939  8808 net.cpp:409] ip1 -> ip1
I0505 19:26:38.464277  8808 net.cpp:144] Setting up ip1
I0505 19:26:38.464287  8808 net.cpp:151] Top shape: 20 512 (10240)
I0505 19:26:38.464289  8808 net.cpp:159] Memory required for data: 2266160
I0505 19:26:38.464295  8808 layer_factory.hpp:77] Creating layer ip2
I0505 19:26:38.464301  8808 net.cpp:94] Creating Layer ip2
I0505 19:26:38.464305  8808 net.cpp:435] ip2 <- ip1
I0505 19:26:38.464310  8808 net.cpp:409] ip2 -> ip2
I0505 19:26:38.467551  8808 net.cpp:144] Setting up ip2
I0505 19:26:38.467559  8808 net.cpp:151] Top shape: 20 256 (5120)
I0505 19:26:38.467563  8808 net.cpp:159] Memory required for data: 2286640
I0505 19:26:38.467571  8808 layer_factory.hpp:77] Creating layer ip3
I0505 19:26:38.467576  8808 net.cpp:94] Creating Layer ip3
I0505 19:26:38.467579  8808 net.cpp:435] ip3 <- ip2
I0505 19:26:38.467584  8808 net.cpp:409] ip3 -> ip3
I0505 19:26:38.468027  8808 net.cpp:144] Setting up ip3
I0505 19:26:38.468034  8808 net.cpp:151] Top shape: 20 50 (1000)
I0505 19:26:38.468039  8808 net.cpp:159] Memory required for data: 2290640
I0505 19:26:38.468042  8808 layer_factory.hpp:77] Creating layer ip3_ip3_0_split
I0505 19:26:38.468049  8808 net.cpp:94] Creating Layer ip3_ip3_0_split
I0505 19:26:38.468051  8808 net.cpp:435] ip3_ip3_0_split <- ip3
I0505 19:26:38.468055  8808 net.cpp:409] ip3_ip3_0_split -> ip3_ip3_0_split_0
I0505 19:26:38.468061  8808 net.cpp:409] ip3_ip3_0_split -> ip3_ip3_0_split_1
I0505 19:26:38.468103  8808 net.cpp:144] Setting up ip3_ip3_0_split
I0505 19:26:38.468108  8808 net.cpp:151] Top shape: 20 50 (1000)
I0505 19:26:38.468112  8808 net.cpp:151] Top shape: 20 50 (1000)
I0505 19:26:38.468116  8808 net.cpp:159] Memory required for data: 2298640
I0505 19:26:38.468118  8808 layer_factory.hpp:77] Creating layer accuracy
I0505 19:26:38.468123  8808 net.cpp:94] Creating Layer accuracy
I0505 19:26:38.468127  8808 net.cpp:435] accuracy <- ip3_ip3_0_split_0
I0505 19:26:38.468130  8808 net.cpp:435] accuracy <- label_intercept_1_split_0
I0505 19:26:38.468135  8808 net.cpp:409] accuracy -> accuracy
…
