…
I0505 03:41:09.996466  3058 net.cpp:323] The NetState phase (0) differed from the phase (1) specified by a rule in layer intercept
I0505 03:41:09.996481  3058 net.cpp:323] The NetState phase (0) differed from the phase (1) specified by a rule in layer loss
I0505 03:41:09.996572  3058 net.cpp:52] Initializing net from parameters: 
state {
  phase: TRAIN
}
layer {
  name: "parameters"
  type: "HDF5Data"
  top: "data"
  top: "label"
  include {
    phase: TRAIN
  }
  hdf5_data_param {
    source: "/home/purduethu/scratch/radon/d/deng106/CNNStatisticalModel/distributions/input/20_distributions_400_sample_size_train-parameters-path.txt"
    batch_size: 20
  }
}
layer {
  name: "conv1"
  type: "Convolution"
  bottom: "data"
  top: "conv1"
  param {
    lr_mult: 1
  }
  param {
    lr_mult: 2
  }
  convolution_param {
    num_output: 64
    pad: 2
    kernel_size: 5
    stride: 1
    weight_filler {
      type: "gaussian"
      std: 0.0001
    }
    bias_filler {
      type: "constant"
    }
  }
}
layer {
  name: "relu1"
  type: "ReLU"
  bottom: "conv1"
  top: "conv1"
}
layer {
  name: "pool1"
  type: "Pooling"
  bottom: "conv1"
  top: "pool1"
  pooling_param {
    pool: MAX
    kernel_size: 3
    stride: 2
  }
}
layer {
  name: "conv2"
  type: "Convolution"
  bottom: "pool1"
  top: "conv2"
  param {
    lr_mult: 1
  }
  param {
    lr_mult: 2
  }
  convolution_param {
    num_output: 128
    pad: 2
    kernel_size: 5
    stride: 1
    weight_filler {
      type: "gaussian"
      std: 0.01
    }
    bias_filler {
      type: "constant"
    }
  }
}
layer {
  name: "relu2"
  type: "ReLU"
  bottom: "conv2"
  top: "conv2"
}
layer {
  name: "conv3"
  type: "Convolution"
  bottom: "conv2"
  top: "conv3"
  param {
    lr_mult: 1
  }
  param {
    lr_mult: 2
  }
  convolution_param {
    num_output: 128
    pad: 2
    kernel_size: 5
    stride: 1
    weight_filler {
      type: "gaussian"
      std: 0.01
    }
    bias_filler {
      type: "constant"
    }
  }
}
layer {
  name: "relu3"
  type: "ReLU"
  bottom: "conv3"
  top: "conv3"
}
layer {
  name: "pool3"
  type: "Pooling"
  bottom: "conv3"
  top: "pool3"
  pooling_param {
    pool: AVE
    kernel_size: 3
    stride: 2
  }
}
layer {
  name: "ip1"
  type: "InnerProduct"
  bottom: "pool3"
  top: "ip1"
  param {
    lr_mult: 1
  }
  param {
    lr_mult: 2
  }
  inner_product_param {
    num_output: 512
    weight_filler {
      type: "gaussian"
      std: 0.1
    }
    bias_filler {
      type: "constant"
    }
  }
}
layer {
  name: "ip2"
  type: "InnerProduct"
  bottom: "ip1"
  top: "ip2"
  param {
    lr_mult: 1
  }
  param {
    lr_mult: 2
  }
  inner_product_param {
    num_output: 256
    weight_filler {
      type: "gaussian"
      std: 0.1
    }
    bias_filler {
      type: "constant"
    }
  }
}
layer {
  name: "ip3"
  type: "InnerProduct"
  bottom: "ip2"
  top: "ip3"
  param {
    lr_mult: 1
  }
  param {
    lr_mult: 2
  }
  inner_product_param {
    num_output: 1
    weight_filler {
      type: "gaussian"
      std: 0.1
    }
    bias_filler {
      type: "constant"
    }
  }
}
layer {
  name: "loss"
  type: "HuberLoss"
  bottom: "ip3"
  bottom: "label"
  top: "loss"
  include {
    phase: TRAIN
  }
}
I0505 03:41:09.996636  3058 layer_factory.hpp:77] Creating layer parameters
I0505 03:41:09.996651  3058 net.cpp:94] Creating Layer parameters
I0505 03:41:09.996665  3058 net.cpp:409] parameters -> data
I0505 03:41:09.996683  3058 net.cpp:409] parameters -> label
I0505 03:41:09.996693  3058 hdf5_data_layer.cpp:79] Loading list of HDF5 filenames from: /home/purduethu/scratch/radon/d/deng106/CNNStatisticalModel/distributions/input/20_distributions_400_sample_size_train-parameters-path.txt
I0505 03:41:09.996716  3058 hdf5_data_layer.cpp:93] Number of HDF5 files: 1
I0505 03:41:09.997283  3058 hdf5.cpp:32] Datatype class: H5T_FLOAT
I0505 03:41:10.257566  3058 net.cpp:144] Setting up parameters
I0505 03:41:10.257601  3058 net.cpp:151] Top shape: 20 1 20 20 (8000)
I0505 03:41:10.257606  3058 net.cpp:151] Top shape: 20 (20)
I0505 03:41:10.257611  3058 net.cpp:159] Memory required for data: 32080
I0505 03:41:10.257618  3058 layer_factory.hpp:77] Creating layer conv1
I0505 03:41:10.257644  3058 net.cpp:94] Creating Layer conv1
I0505 03:41:10.257650  3058 net.cpp:435] conv1 <- data
I0505 03:41:10.257663  3058 net.cpp:409] conv1 -> conv1
I0505 03:41:10.262446  3058 net.cpp:144] Setting up conv1
I0505 03:41:10.262462  3058 net.cpp:151] Top shape: 20 64 20 20 (512000)
I0505 03:41:10.262466  3058 net.cpp:159] Memory required for data: 2080080
I0505 03:41:10.262478  3058 layer_factory.hpp:77] Creating layer relu1
I0505 03:41:10.262486  3058 net.cpp:94] Creating Layer relu1
I0505 03:41:10.262490  3058 net.cpp:435] relu1 <- conv1
I0505 03:41:10.262495  3058 net.cpp:396] relu1 -> conv1 (in-place)
I0505 03:41:10.262513  3058 net.cpp:144] Setting up relu1
I0505 03:41:10.262519  3058 net.cpp:151] Top shape: 20 64 20 20 (512000)
I0505 03:41:10.262522  3058 net.cpp:159] Memory required for data: 4128080
I0505 03:41:10.262526  3058 layer_factory.hpp:77] Creating layer pool1
I0505 03:41:10.262533  3058 net.cpp:94] Creating Layer pool1
I0505 03:41:10.262537  3058 net.cpp:435] pool1 <- conv1
I0505 03:41:10.262542  3058 net.cpp:409] pool1 -> pool1
I0505 03:41:10.262581  3058 net.cpp:144] Setting up pool1
I0505 03:41:10.262588  3058 net.cpp:151] Top shape: 20 64 10 10 (128000)
I0505 03:41:10.262593  3058 net.cpp:159] Memory required for data: 4640080
I0505 03:41:10.262595  3058 layer_factory.hpp:77] Creating layer conv2
I0505 03:41:10.262604  3058 net.cpp:94] Creating Layer conv2
I0505 03:41:10.262609  3058 net.cpp:435] conv2 <- pool1
I0505 03:41:10.262614  3058 net.cpp:409] conv2 -> conv2
I0505 03:41:10.272361  3058 net.cpp:144] Setting up conv2
I0505 03:41:10.272375  3058 net.cpp:151] Top shape: 20 128 10 10 (256000)
I0505 03:41:10.272380  3058 net.cpp:159] Memory required for data: 5664080
I0505 03:41:10.272388  3058 layer_factory.hpp:77] Creating layer relu2
I0505 03:41:10.272394  3058 net.cpp:94] Creating Layer relu2
I0505 03:41:10.272398  3058 net.cpp:435] relu2 <- conv2
I0505 03:41:10.272403  3058 net.cpp:396] relu2 -> conv2 (in-place)
I0505 03:41:10.272410  3058 net.cpp:144] Setting up relu2
I0505 03:41:10.272415  3058 net.cpp:151] Top shape: 20 128 10 10 (256000)
I0505 03:41:10.272418  3058 net.cpp:159] Memory required for data: 6688080
I0505 03:41:10.272421  3058 layer_factory.hpp:77] Creating layer conv3
I0505 03:41:10.272429  3058 net.cpp:94] Creating Layer conv3
I0505 03:41:10.272433  3058 net.cpp:435] conv3 <- conv2
I0505 03:41:10.272439  3058 net.cpp:409] conv3 -> conv3
I0505 03:41:10.290092  3058 net.cpp:144] Setting up conv3
I0505 03:41:10.290119  3058 net.cpp:151] Top shape: 20 128 10 10 (256000)
I0505 03:41:10.290127  3058 net.cpp:159] Memory required for data: 7712080
I0505 03:41:10.290143  3058 layer_factory.hpp:77] Creating layer relu3
I0505 03:41:10.290154  3058 net.cpp:94] Creating Layer relu3
I0505 03:41:10.290169  3058 net.cpp:435] relu3 <- conv3
I0505 03:41:10.290179  3058 net.cpp:396] relu3 -> conv3 (in-place)
I0505 03:41:10.290194  3058 net.cpp:144] Setting up relu3
I0505 03:41:10.290202  3058 net.cpp:151] Top shape: 20 128 10 10 (256000)
I0505 03:41:10.290208  3058 net.cpp:159] Memory required for data: 8736080
I0505 03:41:10.290215  3058 layer_factory.hpp:77] Creating layer pool3
I0505 03:41:10.290225  3058 net.cpp:94] Creating Layer pool3
I0505 03:41:10.290232  3058 net.cpp:435] pool3 <- conv3
I0505 03:41:10.290252  3058 net.cpp:409] pool3 -> pool3
I0505 03:41:10.290313  3058 net.cpp:144] Setting up pool3
I0505 03:41:10.290325  3058 net.cpp:151] Top shape: 20 128 5 5 (64000)
I0505 03:41:10.290331  3058 net.cpp:159] Memory required for data: 8992080
I0505 03:41:10.290338  3058 layer_factory.hpp:77] Creating layer ip1
I0505 03:41:10.290354  3058 net.cpp:94] Creating Layer ip1
I0505 03:41:10.290361  3058 net.cpp:435] ip1 <- pool3
I0505 03:41:10.290371  3058 net.cpp:409] ip1 -> ip1
I0505 03:41:10.331768  3058 net.cpp:144] Setting up ip1
I0505 03:41:10.331785  3058 net.cpp:151] Top shape: 20 512 (10240)
I0505 03:41:10.331789  3058 net.cpp:159] Memory required for data: 9033040
I0505 03:41:10.331795  3058 layer_factory.hpp:77] Creating layer ip2
I0505 03:41:10.331804  3058 net.cpp:94] Creating Layer ip2
I0505 03:41:10.331807  3058 net.cpp:435] ip2 <- ip1
I0505 03:41:10.331814  3058 net.cpp:409] ip2 -> ip2
I0505 03:41:10.335093  3058 net.cpp:144] Setting up ip2
I0505 03:41:10.335103  3058 net.cpp:151] Top shape: 20 256 (5120)
I0505 03:41:10.335106  3058 net.cpp:159] Memory required for data: 9053520
I0505 03:41:10.335114  3058 layer_factory.hpp:77] Creating layer ip3
I0505 03:41:10.335120  3058 net.cpp:94] Creating Layer ip3
I0505 03:41:10.335124  3058 net.cpp:435] ip3 <- ip2
I0505 03:41:10.335129  3058 net.cpp:409] ip3 -> ip3
I0505 03:41:10.335198  3058 net.cpp:144] Setting up ip3
I0505 03:41:10.335206  3058 net.cpp:151] Top shape: 20 1 (20)
I0505 03:41:10.335208  3058 net.cpp:159] Memory required for data: 9053600
I0505 03:41:10.335213  3058 layer_factory.hpp:77] Creating layer loss
I0505 03:41:10.335219  3058 net.cpp:94] Creating Layer loss
I0505 03:41:10.335223  3058 net.cpp:435] loss <- ip3
I0505 03:41:10.335227  3058 net.cpp:435] loss <- label
I0505 03:41:10.335233  3058 net.cpp:409] loss -> loss
I0505 03:41:10.335268  3058 net.cpp:144] Setting up loss
…
