…
I0503 01:58:29.256515 17114 net.cpp:323] The NetState phase (0) differed from the phase (1) specified by a rule in layer intercept
I0503 01:58:29.256532 17114 net.cpp:323] The NetState phase (0) differed from the phase (1) specified by a rule in layer loss
I0503 01:58:29.256620 17114 net.cpp:52] Initializing net from parameters: 
state {
  phase: TRAIN
}
layer {
  name: "parameters"
  type: "HDF5Data"
  top: "data"
  top: "label"
  include {
    phase: TRAIN
  }
  hdf5_data_param {
    source: "/home/purduethu/scratch/radon/d/deng106/CNNStatisticalModel/distributions/input/20_distributions_400_sample_size_train-parameters-path.txt"
    batch_size: 20
  }
}
layer {
  name: "conv1"
  type: "Convolution"
  bottom: "data"
  top: "conv1"
  param {
    lr_mult: 1
  }
  param {
    lr_mult: 2
  }
  convolution_param {
    num_output: 64
    pad: 2
    kernel_size: 5
    stride: 1
    weight_filler {
      type: "gaussian"
      std: 0.0001
    }
    bias_filler {
      type: "constant"
    }
  }
}
layer {
  name: "relu1"
  type: "ReLU"
  bottom: "conv1"
  top: "conv1"
}
layer {
  name: "conv2"
  type: "Convolution"
  bottom: "conv1"
  top: "conv2"
  param {
    lr_mult: 1
  }
  param {
    lr_mult: 2
  }
  convolution_param {
    num_output: 64
    pad: 2
    kernel_size: 5
    stride: 1
    weight_filler {
      type: "gaussian"
      std: 0.01
    }
    bias_filler {
      type: "constant"
    }
  }
}
layer {
  name: "relu2"
  type: "ReLU"
  bottom: "conv2"
  top: "conv2"
}
layer {
  name: "pool2"
  type: "Pooling"
  bottom: "conv2"
  top: "pool2"
  pooling_param {
    pool: MAX
    kernel_size: 3
    stride: 2
  }
}
layer {
  name: "conv3"
  type: "Convolution"
  bottom: "pool2"
  top: "conv3"
  param {
    lr_mult: 1
  }
  param {
    lr_mult: 2
  }
  convolution_param {
    num_output: 128
    pad: 2
    kernel_size: 5
    stride: 1
    weight_filler {
      type: "gaussian"
      std: 0.01
    }
    bias_filler {
      type: "constant"
    }
  }
}
layer {
  name: "relu3"
  type: "ReLU"
  bottom: "conv3"
  top: "conv3"
}
layer {
  name: "conv4"
  type: "Convolution"
  bottom: "conv3"
  top: "conv4"
  param {
    lr_mult: 1
  }
  param {
    lr_mult: 2
  }
  convolution_param {
    num_output: 128
    pad: 2
    kernel_size: 5
    stride: 1
    weight_filler {
      type: "gaussian"
      std: 0.01
    }
    bias_filler {
      type: "constant"
    }
  }
}
layer {
  name: "relu4"
  type: "ReLU"
  bottom: "conv4"
  top: "conv4"
}
layer {
  name: "conv5"
  type: "Convolution"
  bottom: "conv4"
  top: "conv5"
  param {
    lr_mult: 1
  }
  param {
    lr_mult: 2
  }
  convolution_param {
    num_output: 128
    pad: 2
    kernel_size: 5
    stride: 1
    weight_filler {
      type: "gaussian"
      std: 0.01
    }
    bias_filler {
      type: "constant"
    }
  }
}
layer {
  name: "relu5"
  type: "ReLU"
  bottom: "conv5"
  top: "conv5"
}
layer {
  name: "pool5"
  type: "Pooling"
  bottom: "conv5"
  top: "pool5"
  pooling_param {
    pool: AVE
    kernel_size: 3
    stride: 2
  }
}
layer {
  name: "ip1"
  type: "InnerProduct"
  bottom: "pool5"
  top: "ip1"
  param {
    lr_mult: 1
  }
  param {
    lr_mult: 2
  }
  inner_product_param {
    num_output: 1024
    weight_filler {
      type: "gaussian"
      std: 0.1
    }
    bias_filler {
      type: "constant"
    }
  }
}
layer {
  name: "ip2"
  type: "InnerProduct"
  bottom: "ip1"
  top: "ip2"
  param {
    lr_mult: 1
  }
  param {
    lr_mult: 2
  }
  inner_product_param {
    num_output: 512
    weight_filler {
      type: "gaussian"
      std: 0.1
    }
    bias_filler {
      type: "constant"
    }
  }
}
layer {
  name: "ip3"
  type: "InnerProduct"
  bottom: "ip2"
  top: "ip3"
  param {
    lr_mult: 1
  }
  param {
    lr_mult: 2
  }
  inner_product_param {
    num_output: 1
    weight_filler {
      type: "gaussian"
      std: 0.1
    }
    bias_filler {
      type: "constant"
    }
  }
}
layer {
  name: "loss"
  type: "HuberLoss"
  bottom: "ip3"
  bottom: "label"
  top: "loss"
  include {
    phase: TRAIN
  }
}
I0503 01:58:29.256678 17114 layer_factory.hpp:77] Creating layer parameters
I0503 01:58:29.256691 17114 net.cpp:94] Creating Layer parameters
I0503 01:58:29.256696 17114 net.cpp:409] parameters -> data
I0503 01:58:29.256705 17114 net.cpp:409] parameters -> label
I0503 01:58:29.256712 17114 hdf5_data_layer.cpp:79] Loading list of HDF5 filenames from: /home/purduethu/scratch/radon/d/deng106/CNNStatisticalModel/distributions/input/20_distributions_400_sample_size_train-parameters-path.txt
I0503 01:58:29.256733 17114 hdf5_data_layer.cpp:93] Number of HDF5 files: 1
I0503 01:58:29.257313 17114 hdf5.cpp:32] Datatype class: H5T_FLOAT
I0503 01:58:29.517411 17114 net.cpp:144] Setting up parameters
I0503 01:58:29.517443 17114 net.cpp:151] Top shape: 20 1 20 20 (8000)
I0503 01:58:29.517448 17114 net.cpp:151] Top shape: 20 (20)
I0503 01:58:29.517452 17114 net.cpp:159] Memory required for data: 32080
I0503 01:58:29.517458 17114 layer_factory.hpp:77] Creating layer conv1
I0503 01:58:29.517480 17114 net.cpp:94] Creating Layer conv1
I0503 01:58:29.517484 17114 net.cpp:435] conv1 <- data
I0503 01:58:29.517490 17114 net.cpp:409] conv1 -> conv1
I0503 01:58:29.522877 17114 net.cpp:144] Setting up conv1
I0503 01:58:29.522898 17114 net.cpp:151] Top shape: 20 64 20 20 (512000)
I0503 01:58:29.522902 17114 net.cpp:159] Memory required for data: 2080080
I0503 01:58:29.522912 17114 layer_factory.hpp:77] Creating layer relu1
I0503 01:58:29.522920 17114 net.cpp:94] Creating Layer relu1
I0503 01:58:29.522924 17114 net.cpp:435] relu1 <- conv1
I0503 01:58:29.522929 17114 net.cpp:396] relu1 -> conv1 (in-place)
I0503 01:58:29.522944 17114 net.cpp:144] Setting up relu1
I0503 01:58:29.522949 17114 net.cpp:151] Top shape: 20 64 20 20 (512000)
I0503 01:58:29.522953 17114 net.cpp:159] Memory required for data: 4128080
I0503 01:58:29.522955 17114 layer_factory.hpp:77] Creating layer conv2
I0503 01:58:29.522964 17114 net.cpp:94] Creating Layer conv2
I0503 01:58:29.522967 17114 net.cpp:435] conv2 <- conv1
I0503 01:58:29.522972 17114 net.cpp:409] conv2 -> conv2
I0503 01:58:29.533210 17114 net.cpp:144] Setting up conv2
I0503 01:58:29.533224 17114 net.cpp:151] Top shape: 20 64 20 20 (512000)
I0503 01:58:29.533228 17114 net.cpp:159] Memory required for data: 6176080
I0503 01:58:29.533236 17114 layer_factory.hpp:77] Creating layer relu2
I0503 01:58:29.533243 17114 net.cpp:94] Creating Layer relu2
I0503 01:58:29.533246 17114 net.cpp:435] relu2 <- conv2
I0503 01:58:29.533252 17114 net.cpp:396] relu2 -> conv2 (in-place)
I0503 01:58:29.533258 17114 net.cpp:144] Setting up relu2
I0503 01:58:29.533262 17114 net.cpp:151] Top shape: 20 64 20 20 (512000)
I0503 01:58:29.533265 17114 net.cpp:159] Memory required for data: 8224080
I0503 01:58:29.533268 17114 layer_factory.hpp:77] Creating layer pool2
I0503 01:58:29.533274 17114 net.cpp:94] Creating Layer pool2
I0503 01:58:29.533283 17114 net.cpp:435] pool2 <- conv2
I0503 01:58:29.533288 17114 net.cpp:409] pool2 -> pool2
I0503 01:58:29.533344 17114 net.cpp:144] Setting up pool2
I0503 01:58:29.533352 17114 net.cpp:151] Top shape: 20 64 10 10 (128000)
I0503 01:58:29.533355 17114 net.cpp:159] Memory required for data: 8736080
I0503 01:58:29.533359 17114 layer_factory.hpp:77] Creating layer conv3
I0503 01:58:29.533366 17114 net.cpp:94] Creating Layer conv3
I0503 01:58:29.533370 17114 net.cpp:435] conv3 <- pool2
I0503 01:58:29.533375 17114 net.cpp:409] conv3 -> conv3
I0503 01:58:29.543481 17114 net.cpp:144] Setting up conv3
I0503 01:58:29.543498 17114 net.cpp:151] Top shape: 20 128 10 10 (256000)
I0503 01:58:29.543501 17114 net.cpp:159] Memory required for data: 9760080
I0503 01:58:29.543509 17114 layer_factory.hpp:77] Creating layer relu3
I0503 01:58:29.543515 17114 net.cpp:94] Creating Layer relu3
I0503 01:58:29.543519 17114 net.cpp:435] relu3 <- conv3
I0503 01:58:29.543524 17114 net.cpp:396] relu3 -> conv3 (in-place)
I0503 01:58:29.543530 17114 net.cpp:144] Setting up relu3
I0503 01:58:29.543534 17114 net.cpp:151] Top shape: 20 128 10 10 (256000)
I0503 01:58:29.543537 17114 net.cpp:159] Memory required for data: 10784080
I0503 01:58:29.543540 17114 layer_factory.hpp:77] Creating layer conv4
I0503 01:58:29.543550 17114 net.cpp:94] Creating Layer conv4
I0503 01:58:29.543553 17114 net.cpp:435] conv4 <- conv3
I0503 01:58:29.543557 17114 net.cpp:409] conv4 -> conv4
I0503 01:58:29.561813 17114 net.cpp:144] Setting up conv4
I0503 01:58:29.561832 17114 net.cpp:151] Top shape: 20 128 10 10 (256000)
I0503 01:58:29.561836 17114 net.cpp:159] Memory required for data: 11808080
I0503 01:58:29.561843 17114 layer_factory.hpp:77] Creating layer relu4
I0503 01:58:29.561851 17114 net.cpp:94] Creating Layer relu4
I0503 01:58:29.561854 17114 net.cpp:435] relu4 <- conv4
I0503 01:58:29.561858 17114 net.cpp:396] relu4 -> conv4 (in-place)
I0503 01:58:29.561866 17114 net.cpp:144] Setting up relu4
I0503 01:58:29.561870 17114 net.cpp:151] Top shape: 20 128 10 10 (256000)
I0503 01:58:29.561873 17114 net.cpp:159] Memory required for data: 12832080
I0503 01:58:29.561877 17114 layer_factory.hpp:77] Creating layer conv5
I0503 01:58:29.561884 17114 net.cpp:94] Creating Layer conv5
I0503 01:58:29.561887 17114 net.cpp:435] conv5 <- conv4
I0503 01:58:29.561892 17114 net.cpp:409] conv5 -> conv5
I0503 01:58:29.579556 17114 net.cpp:144] Setting up conv5
I0503 01:58:29.579574 17114 net.cpp:151] Top shape: 20 128 10 10 (256000)
I0503 01:58:29.579578 17114 net.cpp:159] Memory required for data: 13856080
I0503 01:58:29.579587 17114 layer_factory.hpp:77] Creating layer relu5
I0503 01:58:29.579594 17114 net.cpp:94] Creating Layer relu5
I0503 01:58:29.579598 17114 net.cpp:435] relu5 <- conv5
I0503 01:58:29.579602 17114 net.cpp:396] relu5 -> conv5 (in-place)
I0503 01:58:29.579609 17114 net.cpp:144] Setting up relu5
I0503 01:58:29.579614 17114 net.cpp:151] Top shape: 20 128 10 10 (256000)
I0503 01:58:29.579617 17114 net.cpp:159] Memory required for data: 14880080
I0503 01:58:29.579620 17114 layer_factory.hpp:77] Creating layer pool5
I0503 01:58:29.579625 17114 net.cpp:94] Creating Layer pool5
I0503 01:58:29.579629 17114 net.cpp:435] pool5 <- conv5
I0503 01:58:29.579633 17114 net.cpp:409] pool5 -> pool5
I0503 01:58:29.579679 17114 net.cpp:144] Setting up pool5
I0503 01:58:29.579687 17114 net.cpp:151] Top shape: 20 128 5 5 (64000)
I0503 01:58:29.579690 17114 net.cpp:159] Memory required for data: 15136080
I0503 01:58:29.579694 17114 layer_factory.hpp:77] Creating layer ip1
I0503 01:58:29.579704 17114 net.cpp:94] Creating Layer ip1
I0503 01:58:29.579706 17114 net.cpp:435] ip1 <- pool5
I0503 01:58:29.579711 17114 net.cpp:409] ip1 -> ip1
I0503 01:58:29.659683 17114 net.cpp:144] Setting up ip1
I0503 01:58:29.659719 17114 net.cpp:151] Top shape: 20 1024 (20480)
I0503 01:58:29.659724 17114 net.cpp:159] Memory required for data: 15218000
I0503 01:58:29.659732 17114 layer_factory.hpp:77] Creating layer ip2
I0503 01:58:29.659744 17114 net.cpp:94] Creating Layer ip2
I0503 01:58:29.659756 17114 net.cpp:435] ip2 <- ip1
I0503 01:58:29.659764 17114 net.cpp:409] ip2 -> ip2
I0503 01:58:29.673072 17114 net.cpp:144] Setting up ip2
I0503 01:58:29.673092 17114 net.cpp:151] Top shape: 20 512 (10240)
I0503 01:58:29.673096 17114 net.cpp:159] Memory required for data: 15258960
I0503 01:58:29.673104 17114 layer_factory.hpp:77] Creating layer ip3
I0503 01:58:29.673112 17114 net.cpp:94] Creating Layer ip3
I0503 01:58:29.673115 17114 net.cpp:435] ip3 <- ip2
I0503 01:58:29.673121 17114 net.cpp:409] ip3 -> ip3
I0503 01:58:29.673241 17114 net.cpp:144] Setting up ip3
I0503 01:58:29.673249 17114 net.cpp:151] Top shape: 20 1 (20)
I0503 01:58:29.673251 17114 net.cpp:159] Memory required for data: 15259040
I0503 01:58:29.673256 17114 layer_factory.hpp:77] Creating layer loss
I0503 01:58:29.673265 17114 net.cpp:94] Creating Layer loss
I0503 01:58:29.673269 17114 net.cpp:435] loss <- ip3
I0503 01:58:29.673272 17114 net.cpp:435] loss <- label
I0503 01:58:29.673276 17114 net.cpp:409] loss -> loss
I0503 01:58:29.673327 17114 net.cpp:144] Setting up loss
…
I0503 01:58:29.876374 17114 net.cpp:323] The NetState phase (0) differed from the phase (1) specified by a rule in layer intercept
I0503 01:58:29.876389 17114 net.cpp:323] The NetState phase (0) differed from the phase (1) specified by a rule in layer accuracy
I0503 01:58:29.876473 17114 net.cpp:52] Initializing net from parameters: 
state {
  phase: TRAIN
}
layer {
  name: "parameters"
  type: "HDF5Data"
  top: "data"
  top: "label"
  include {
    phase: TRAIN
  }
  hdf5_data_param {
    source: "/home/purduethu/scratch/radon/d/deng106/CNNStatisticalModel/distributions/input/20_distributions_400_sample_size_train-distributions-path.txt"
    batch_size: 20
  }
}
layer {
  name: "conv1"
  type: "Convolution"
  bottom: "data"
  top: "conv1"
  param {
    lr_mult: 1
  }
  param {
    lr_mult: 2
  }
  convolution_param {
    num_output: 64
    pad: 2
    kernel_size: 5
    stride: 1
    weight_filler {
      type: "gaussian"
      std: 0.0001
    }
    bias_filler {
      type: "constant"
    }
  }
}
layer {
  name: "relu1"
  type: "ReLU"
  bottom: "conv1"
  top: "conv1"
}
layer {
  name: "conv2"
  type: "Convolution"
  bottom: "conv1"
  top: "conv2"
  param {
    lr_mult: 1
  }
  param {
    lr_mult: 2
  }
  convolution_param {
    num_output: 64
    pad: 2
    kernel_size: 5
    stride: 1
    weight_filler {
      type: "gaussian"
      std: 0.01
    }
    bias_filler {
      type: "constant"
    }
  }
}
layer {
  name: "relu2"
  type: "ReLU"
  bottom: "conv2"
  top: "conv2"
}
layer {
  name: "pool2"
  type: "Pooling"
  bottom: "conv2"
  top: "pool2"
  pooling_param {
    pool: MAX
    kernel_size: 3
    stride: 2
  }
}
layer {
  name: "conv3"
  type: "Convolution"
  bottom: "pool2"
  top: "conv3"
  param {
    lr_mult: 1
  }
  param {
    lr_mult: 2
  }
  convolution_param {
    num_output: 128
    pad: 2
    kernel_size: 5
    stride: 1
    weight_filler {
      type: "gaussian"
      std: 0.01
    }
    bias_filler {
      type: "constant"
    }
  }
}
layer {
  name: "relu3"
  type: "ReLU"
  bottom: "conv3"
  top: "conv3"
}
layer {
  name: "conv4"
  type: "Convolution"
  bottom: "conv3"
  top: "conv4"
  param {
    lr_mult: 1
  }
  param {
    lr_mult: 2
  }
  convolution_param {
    num_output: 128
    pad: 2
    kernel_size: 5
    stride: 1
    weight_filler {
      type: "gaussian"
      std: 0.01
    }
    bias_filler {
      type: "constant"
    }
  }
}
layer {
  name: "relu4"
  type: "ReLU"
  bottom: "conv4"
  top: "conv4"
}
layer {
  name: "conv5"
  type: "Convolution"
  bottom: "conv4"
  top: "conv5"
  param {
    lr_mult: 1
  }
  param {
    lr_mult: 2
  }
  convolution_param {
    num_output: 128
    pad: 2
    kernel_size: 5
    stride: 1
    weight_filler {
      type: "gaussian"
      std: 0.01
    }
    bias_filler {
      type: "constant"
    }
  }
}
layer {
  name: "relu5"
  type: "ReLU"
  bottom: "conv5"
  top: "conv5"
}
layer {
  name: "pool5"
  type: "Pooling"
  bottom: "conv5"
  top: "pool5"
  pooling_param {
    pool: AVE
    kernel_size: 3
    stride: 2
  }
}
layer {
  name: "ip1"
  type: "InnerProduct"
  bottom: "pool5"
  top: "ip1"
  param {
    lr_mult: 1
  }
  param {
    lr_mult: 2
  }
  inner_product_param {
    num_output: 1024
    weight_filler {
      type: "gaussian"
      std: 0.1
    }
    bias_filler {
      type: "constant"
    }
  }
}
layer {
  name: "ip2"
  type: "InnerProduct"
  bottom: "ip1"
  top: "ip2"
  param {
    lr_mult: 1
  }
  param {
    lr_mult: 2
  }
  inner_product_param {
    num_output: 512
    weight_filler {
      type: "gaussian"
      std: 0.1
    }
    bias_filler {
      type: "constant"
    }
  }
}
layer {
  name: "ip3"
  type: "InnerProduct"
  bottom: "ip2"
  top: "ip3"
  param {
    lr_mult: 1
  }
  param {
    lr_mult: 2
  }
  inner_product_param {
    num_output: 50
    weight_filler {
      type: "gaussian"
      std: 0.1
    }
    bias_filler {
      type: "constant"
    }
  }
}
layer {
  name: "loss"
  type: "SoftmaxWithLoss"
  bottom: "ip3"
  bottom: "label"
  top: "loss"
}
I0503 01:58:29.876528 17114 layer_factory.hpp:77] Creating layer parameters
I0503 01:58:29.876535 17114 net.cpp:94] Creating Layer parameters
I0503 01:58:29.876539 17114 net.cpp:409] parameters -> data
I0503 01:58:29.876546 17114 net.cpp:409] parameters -> label
I0503 01:58:29.876569 17114 hdf5_data_layer.cpp:79] Loading list of HDF5 filenames from: /home/purduethu/scratch/radon/d/deng106/CNNStatisticalModel/distributions/input/20_distributions_400_sample_size_train-distributions-path.txt
I0503 01:58:29.876586 17114 hdf5_data_layer.cpp:93] Number of HDF5 files: 1
I0503 01:58:30.132187 17114 hdf5.cpp:35] Datatype class: H5T_INTEGER
I0503 01:58:30.133257 17114 net.cpp:144] Setting up parameters
I0503 01:58:30.133272 17114 net.cpp:151] Top shape: 20 1 20 20 (8000)
I0503 01:58:30.133277 17114 net.cpp:151] Top shape: 20 (20)
I0503 01:58:30.133280 17114 net.cpp:159] Memory required for data: 32080
I0503 01:58:30.133287 17114 layer_factory.hpp:77] Creating layer conv1
I0503 01:58:30.133303 17114 net.cpp:94] Creating Layer conv1
I0503 01:58:30.133307 17114 net.cpp:435] conv1 <- data
I0503 01:58:30.133313 17114 net.cpp:409] conv1 -> conv1
I0503 01:58:30.135720 17114 net.cpp:144] Setting up conv1
I0503 01:58:30.135733 17114 net.cpp:151] Top shape: 20 64 20 20 (512000)
I0503 01:58:30.135736 17114 net.cpp:159] Memory required for data: 2080080
I0503 01:58:30.135746 17114 layer_factory.hpp:77] Creating layer relu1
I0503 01:58:30.135753 17114 net.cpp:94] Creating Layer relu1
I0503 01:58:30.135757 17114 net.cpp:435] relu1 <- conv1
I0503 01:58:30.135761 17114 net.cpp:396] relu1 -> conv1 (in-place)
I0503 01:58:30.135768 17114 net.cpp:144] Setting up relu1
I0503 01:58:30.135773 17114 net.cpp:151] Top shape: 20 64 20 20 (512000)
I0503 01:58:30.135776 17114 net.cpp:159] Memory required for data: 4128080
I0503 01:58:30.135779 17114 layer_factory.hpp:77] Creating layer conv2
I0503 01:58:30.135787 17114 net.cpp:94] Creating Layer conv2
I0503 01:58:30.135789 17114 net.cpp:435] conv2 <- conv1
I0503 01:58:30.135794 17114 net.cpp:409] conv2 -> conv2
I0503 01:58:30.146204 17114 net.cpp:144] Setting up conv2
I0503 01:58:30.146221 17114 net.cpp:151] Top shape: 20 64 20 20 (512000)
I0503 01:58:30.146225 17114 net.cpp:159] Memory required for data: 6176080
I0503 01:58:30.146234 17114 layer_factory.hpp:77] Creating layer relu2
I0503 01:58:30.146240 17114 net.cpp:94] Creating Layer relu2
I0503 01:58:30.146244 17114 net.cpp:435] relu2 <- conv2
I0503 01:58:30.146248 17114 net.cpp:396] relu2 -> conv2 (in-place)
I0503 01:58:30.146255 17114 net.cpp:144] Setting up relu2
I0503 01:58:30.146260 17114 net.cpp:151] Top shape: 20 64 20 20 (512000)
I0503 01:58:30.146262 17114 net.cpp:159] Memory required for data: 8224080
I0503 01:58:30.146265 17114 layer_factory.hpp:77] Creating layer pool2
I0503 01:58:30.146271 17114 net.cpp:94] Creating Layer pool2
I0503 01:58:30.146275 17114 net.cpp:435] pool2 <- conv2
I0503 01:58:30.146278 17114 net.cpp:409] pool2 -> pool2
I0503 01:58:30.146340 17114 net.cpp:144] Setting up pool2
I0503 01:58:30.146347 17114 net.cpp:151] Top shape: 20 64 10 10 (128000)
I0503 01:58:30.146350 17114 net.cpp:159] Memory required for data: 8736080
I0503 01:58:30.146353 17114 layer_factory.hpp:77] Creating layer conv3
I0503 01:58:30.146361 17114 net.cpp:94] Creating Layer conv3
I0503 01:58:30.146365 17114 net.cpp:435] conv3 <- pool2
I0503 01:58:30.146376 17114 net.cpp:409] conv3 -> conv3
I0503 01:58:30.156847 17114 net.cpp:144] Setting up conv3
I0503 01:58:30.156862 17114 net.cpp:151] Top shape: 20 128 10 10 (256000)
I0503 01:58:30.156865 17114 net.cpp:159] Memory required for data: 9760080
I0503 01:58:30.156874 17114 layer_factory.hpp:77] Creating layer relu3
I0503 01:58:30.156880 17114 net.cpp:94] Creating Layer relu3
I0503 01:58:30.156884 17114 net.cpp:435] relu3 <- conv3
I0503 01:58:30.156888 17114 net.cpp:396] relu3 -> conv3 (in-place)
I0503 01:58:30.156895 17114 net.cpp:144] Setting up relu3
I0503 01:58:30.156900 17114 net.cpp:151] Top shape: 20 128 10 10 (256000)
I0503 01:58:30.156903 17114 net.cpp:159] Memory required for data: 10784080
I0503 01:58:30.156906 17114 layer_factory.hpp:77] Creating layer conv4
I0503 01:58:30.156914 17114 net.cpp:94] Creating Layer conv4
I0503 01:58:30.156918 17114 net.cpp:435] conv4 <- conv3
I0503 01:58:30.156922 17114 net.cpp:409] conv4 -> conv4
I0503 01:58:30.174842 17114 net.cpp:144] Setting up conv4
I0503 01:58:30.174861 17114 net.cpp:151] Top shape: 20 128 10 10 (256000)
I0503 01:58:30.174865 17114 net.cpp:159] Memory required for data: 11808080
I0503 01:58:30.174872 17114 layer_factory.hpp:77] Creating layer relu4
I0503 01:58:30.174878 17114 net.cpp:94] Creating Layer relu4
I0503 01:58:30.174882 17114 net.cpp:435] relu4 <- conv4
I0503 01:58:30.174887 17114 net.cpp:396] relu4 -> conv4 (in-place)
I0503 01:58:30.174895 17114 net.cpp:144] Setting up relu4
I0503 01:58:30.174899 17114 net.cpp:151] Top shape: 20 128 10 10 (256000)
I0503 01:58:30.174901 17114 net.cpp:159] Memory required for data: 12832080
I0503 01:58:30.174904 17114 layer_factory.hpp:77] Creating layer conv5
I0503 01:58:30.174912 17114 net.cpp:94] Creating Layer conv5
I0503 01:58:30.174916 17114 net.cpp:435] conv5 <- conv4
I0503 01:58:30.174921 17114 net.cpp:409] conv5 -> conv5
I0503 01:58:30.192495 17114 net.cpp:144] Setting up conv5
I0503 01:58:30.192513 17114 net.cpp:151] Top shape: 20 128 10 10 (256000)
I0503 01:58:30.192517 17114 net.cpp:159] Memory required for data: 13856080
I0503 01:58:30.192526 17114 layer_factory.hpp:77] Creating layer relu5
I0503 01:58:30.192533 17114 net.cpp:94] Creating Layer relu5
I0503 01:58:30.192538 17114 net.cpp:435] relu5 <- conv5
I0503 01:58:30.192541 17114 net.cpp:396] relu5 -> conv5 (in-place)
I0503 01:58:30.192548 17114 net.cpp:144] Setting up relu5
I0503 01:58:30.192564 17114 net.cpp:151] Top shape: 20 128 10 10 (256000)
I0503 01:58:30.192567 17114 net.cpp:159] Memory required for data: 14880080
I0503 01:58:30.192570 17114 layer_factory.hpp:77] Creating layer pool5
I0503 01:58:30.192575 17114 net.cpp:94] Creating Layer pool5
I0503 01:58:30.192579 17114 net.cpp:435] pool5 <- conv5
I0503 01:58:30.192584 17114 net.cpp:409] pool5 -> pool5
I0503 01:58:30.192626 17114 net.cpp:144] Setting up pool5
I0503 01:58:30.192634 17114 net.cpp:151] Top shape: 20 128 5 5 (64000)
I0503 01:58:30.192637 17114 net.cpp:159] Memory required for data: 15136080
I0503 01:58:30.192641 17114 layer_factory.hpp:77] Creating layer ip1
I0503 01:58:30.192647 17114 net.cpp:94] Creating Layer ip1
I0503 01:58:30.192651 17114 net.cpp:435] ip1 <- pool5
I0503 01:58:30.192656 17114 net.cpp:409] ip1 -> ip1
I0503 01:58:30.272224 17114 net.cpp:144] Setting up ip1
I0503 01:58:30.272258 17114 net.cpp:151] Top shape: 20 1024 (20480)
I0503 01:58:30.272263 17114 net.cpp:159] Memory required for data: 15218000
I0503 01:58:30.272272 17114 layer_factory.hpp:77] Creating layer ip2
I0503 01:58:30.272281 17114 net.cpp:94] Creating Layer ip2
I0503 01:58:30.272286 17114 net.cpp:435] ip2 <- ip1
I0503 01:58:30.272292 17114 net.cpp:409] ip2 -> ip2
I0503 01:58:30.290099 17114 net.cpp:144] Setting up ip2
I0503 01:58:30.290135 17114 net.cpp:151] Top shape: 20 512 (10240)
I0503 01:58:30.290141 17114 net.cpp:159] Memory required for data: 15258960
I0503 01:58:30.290153 17114 layer_factory.hpp:77] Creating layer ip3
I0503 01:58:30.290169 17114 net.cpp:94] Creating Layer ip3
I0503 01:58:30.290174 17114 net.cpp:435] ip3 <- ip2
I0503 01:58:30.290184 17114 net.cpp:409] ip3 -> ip3
I0503 01:58:30.291353 17114 net.cpp:144] Setting up ip3
I0503 01:58:30.291369 17114 net.cpp:151] Top shape: 20 50 (1000)
I0503 01:58:30.291374 17114 net.cpp:159] Memory required for data: 15262960
I0503 01:58:30.291383 17114 layer_factory.hpp:77] Creating layer loss
I0503 01:58:30.291412 17114 net.cpp:94] Creating Layer loss
I0503 01:58:30.291420 17114 net.cpp:435] loss <- ip3
I0503 01:58:30.291426 17114 net.cpp:435] loss <- label
I0503 01:58:30.291434 17114 net.cpp:409] loss -> loss
I0503 01:58:30.291445 17114 layer_factory.hpp:77] Creating layer loss
…
I0503 01:58:30.292332 17114 solver.cpp:181] Creating test net (#0) specified by net file: ./protocol/dis_20_400_dimension.protocol_distribution
I0503 01:58:30.292389 17114 net.cpp:323] The NetState phase (1) differed from the phase (0) specified by a rule in layer parameters
I0503 01:58:30.292593 17114 net.cpp:52] Initializing net from parameters: 
state {
  phase: TEST
}
layer {
  name: "intercept"
  type: "HDF5Data"
  top: "data"
  top: "label"
  include {
    phase: TEST
  }
  hdf5_data_param {
    source: "/home/purduethu/scratch/radon/d/deng106/CNNStatisticalModel/distributions/input/20_distributions_400_sample_size_test-distributions-path.txt"
    batch_size: 20
  }
}
layer {
  name: "conv1"
  type: "Convolution"
  bottom: "data"
  top: "conv1"
  param {
    lr_mult: 1
  }
  param {
    lr_mult: 2
  }
  convolution_param {
    num_output: 64
    pad: 2
    kernel_size: 5
    stride: 1
    weight_filler {
      type: "gaussian"
      std: 0.0001
    }
    bias_filler {
      type: "constant"
    }
  }
}
layer {
  name: "relu1"
  type: "ReLU"
  bottom: "conv1"
  top: "conv1"
}
layer {
  name: "conv2"
  type: "Convolution"
  bottom: "conv1"
  top: "conv2"
  param {
    lr_mult: 1
  }
  param {
    lr_mult: 2
  }
  convolution_param {
    num_output: 64
    pad: 2
    kernel_size: 5
    stride: 1
    weight_filler {
      type: "gaussian"
      std: 0.01
    }
    bias_filler {
      type: "constant"
    }
  }
}
layer {
  name: "relu2"
  type: "ReLU"
  bottom: "conv2"
  top: "conv2"
}
layer {
  name: "pool2"
  type: "Pooling"
  bottom: "conv2"
  top: "pool2"
  pooling_param {
    pool: MAX
    kernel_size: 3
    stride: 2
  }
}
layer {
  name: "conv3"
  type: "Convolution"
  bottom: "pool2"
  top: "conv3"
  param {
    lr_mult: 1
  }
  param {
    lr_mult: 2
  }
  convolution_param {
    num_output: 128
    pad: 2
    kernel_size: 5
    stride: 1
    weight_filler {
      type: "gaussian"
      std: 0.01
    }
    bias_filler {
      type: "constant"
    }
  }
}
layer {
  name: "relu3"
  type: "ReLU"
  bottom: "conv3"
  top: "conv3"
}
layer {
  name: "conv4"
  type: "Convolution"
  bottom: "conv3"
  top: "conv4"
  param {
    lr_mult: 1
  }
  param {
    lr_mult: 2
  }
  convolution_param {
    num_output: 128
    pad: 2
    kernel_size: 5
    stride: 1
    weight_filler {
      type: "gaussian"
      std: 0.01
    }
    bias_filler {
      type: "constant"
    }
  }
}
layer {
  name: "relu4"
  type: "ReLU"
  bottom: "conv4"
  top: "conv4"
}
layer {
  name: "conv5"
  type: "Convolution"
  bottom: "conv4"
  top: "conv5"
  param {
    lr_mult: 1
  }
  param {
    lr_mult: 2
  }
  convolution_param {
    num_output: 128
    pad: 2
    kernel_size: 5
    stride: 1
    weight_filler {
      type: "gaussian"
      std: 0.01
    }
    bias_filler {
      type: "constant"
    }
  }
}
layer {
  name: "relu5"
  type: "ReLU"
  bottom: "conv5"
  top: "conv5"
}
layer {
  name: "pool5"
  type: "Pooling"
  bottom: "conv5"
  top: "pool5"
  pooling_param {
    pool: AVE
    kernel_size: 3
    stride: 2
  }
}
layer {
  name: "ip1"
  type: "InnerProduct"
  bottom: "pool5"
  top: "ip1"
  param {
    lr_mult: 1
  }
  param {
    lr_mult: 2
  }
  inner_product_param {
    num_output: 1024
    weight_filler {
      type: "gaussian"
      std: 0.1
    }
    bias_filler {
      type: "constant"
    }
  }
}
layer {
  name: "ip2"
  type: "InnerProduct"
  bottom: "ip1"
  top: "ip2"
  param {
    lr_mult: 1
  }
  param {
    lr_mult: 2
  }
  inner_product_param {
    num_output: 512
    weight_filler {
      type: "gaussian"
      std: 0.1
    }
    bias_filler {
      type: "constant"
    }
  }
}
layer {
  name: "ip3"
  type: "InnerProduct"
  bottom: "ip2"
  top: "ip3"
  param {
    lr_mult: 1
  }
  param {
    lr_mult: 2
  }
  inner_product_param {
    num_output: 50
    weight_filler {
      type: "gaussian"
      std: 0.1
    }
    bias_filler {
      type: "constant"
    }
  }
}
layer {
  name: "accuracy"
  type: "Accuracy"
  bottom: "ip3"
  bottom: "label"
  top: "accuracy"
  include {
    phase: TEST
  }
}
layer {
  name: "loss"
  type: "SoftmaxWithLoss"
  bottom: "ip3"
  bottom: "label"
  top: "loss"
}
I0503 01:58:30.292721 17114 layer_factory.hpp:77] Creating layer intercept
I0503 01:58:30.292737 17114 net.cpp:94] Creating Layer intercept
I0503 01:58:30.292743 17114 net.cpp:409] intercept -> data
I0503 01:58:30.292754 17114 net.cpp:409] intercept -> label
I0503 01:58:30.292776 17114 hdf5_data_layer.cpp:79] Loading list of HDF5 filenames from: /home/purduethu/scratch/radon/d/deng106/CNNStatisticalModel/distributions/input/20_distributions_400_sample_size_test-distributions-path.txt
I0503 01:58:30.292807 17114 hdf5_data_layer.cpp:93] Number of HDF5 files: 1
I0503 01:58:30.359271 17114 net.cpp:144] Setting up intercept
I0503 01:58:30.359308 17114 net.cpp:151] Top shape: 20 1 20 20 (8000)
I0503 01:58:30.359313 17114 net.cpp:151] Top shape: 20 (20)
I0503 01:58:30.359318 17114 net.cpp:159] Memory required for data: 32080
I0503 01:58:30.359324 17114 layer_factory.hpp:77] Creating layer label_intercept_1_split
I0503 01:58:30.359342 17114 net.cpp:94] Creating Layer label_intercept_1_split
I0503 01:58:30.359346 17114 net.cpp:435] label_intercept_1_split <- label
I0503 01:58:30.359352 17114 net.cpp:409] label_intercept_1_split -> label_intercept_1_split_0
I0503 01:58:30.359360 17114 net.cpp:409] label_intercept_1_split -> label_intercept_1_split_1
I0503 01:58:30.359406 17114 net.cpp:144] Setting up label_intercept_1_split
I0503 01:58:30.359412 17114 net.cpp:151] Top shape: 20 (20)
I0503 01:58:30.359416 17114 net.cpp:151] Top shape: 20 (20)
I0503 01:58:30.359419 17114 net.cpp:159] Memory required for data: 32240
I0503 01:58:30.359422 17114 layer_factory.hpp:77] Creating layer conv1
I0503 01:58:30.359433 17114 net.cpp:94] Creating Layer conv1
I0503 01:58:30.359437 17114 net.cpp:435] conv1 <- data
I0503 01:58:30.359441 17114 net.cpp:409] conv1 -> conv1
I0503 01:58:30.360321 17114 net.cpp:144] Setting up conv1
I0503 01:58:30.360334 17114 net.cpp:151] Top shape: 20 64 20 20 (512000)
I0503 01:58:30.360337 17114 net.cpp:159] Memory required for data: 2080240
I0503 01:58:30.360347 17114 layer_factory.hpp:77] Creating layer relu1
I0503 01:58:30.360354 17114 net.cpp:94] Creating Layer relu1
I0503 01:58:30.360357 17114 net.cpp:435] relu1 <- conv1
I0503 01:58:30.360363 17114 net.cpp:396] relu1 -> conv1 (in-place)
I0503 01:58:30.360369 17114 net.cpp:144] Setting up relu1
I0503 01:58:30.360373 17114 net.cpp:151] Top shape: 20 64 20 20 (512000)
I0503 01:58:30.360376 17114 net.cpp:159] Memory required for data: 4128240
I0503 01:58:30.360379 17114 layer_factory.hpp:77] Creating layer conv2
I0503 01:58:30.360388 17114 net.cpp:94] Creating Layer conv2
I0503 01:58:30.360390 17114 net.cpp:435] conv2 <- conv1
I0503 01:58:30.360395 17114 net.cpp:409] conv2 -> conv2
I0503 01:58:30.365689 17114 net.cpp:144] Setting up conv2
I0503 01:58:30.365703 17114 net.cpp:151] Top shape: 20 64 20 20 (512000)
I0503 01:58:30.365707 17114 net.cpp:159] Memory required for data: 6176240
I0503 01:58:30.365715 17114 layer_factory.hpp:77] Creating layer relu2
I0503 01:58:30.365720 17114 net.cpp:94] Creating Layer relu2
I0503 01:58:30.365725 17114 net.cpp:435] relu2 <- conv2
I0503 01:58:30.365728 17114 net.cpp:396] relu2 -> conv2 (in-place)
I0503 01:58:30.365736 17114 net.cpp:144] Setting up relu2
I0503 01:58:30.365739 17114 net.cpp:151] Top shape: 20 64 20 20 (512000)
I0503 01:58:30.365742 17114 net.cpp:159] Memory required for data: 8224240
I0503 01:58:30.365746 17114 layer_factory.hpp:77] Creating layer pool2
I0503 01:58:30.365751 17114 net.cpp:94] Creating Layer pool2
I0503 01:58:30.365754 17114 net.cpp:435] pool2 <- conv2
I0503 01:58:30.365758 17114 net.cpp:409] pool2 -> pool2
I0503 01:58:30.365818 17114 net.cpp:144] Setting up pool2
I0503 01:58:30.365825 17114 net.cpp:151] Top shape: 20 64 10 10 (128000)
I0503 01:58:30.365828 17114 net.cpp:159] Memory required for data: 8736240
I0503 01:58:30.365831 17114 layer_factory.hpp:77] Creating layer conv3
I0503 01:58:30.365839 17114 net.cpp:94] Creating Layer conv3
I0503 01:58:30.365842 17114 net.cpp:435] conv3 <- pool2
I0503 01:58:30.365847 17114 net.cpp:409] conv3 -> conv3
I0503 01:58:30.373206 17114 net.cpp:144] Setting up conv3
I0503 01:58:30.373222 17114 net.cpp:151] Top shape: 20 128 10 10 (256000)
I0503 01:58:30.373226 17114 net.cpp:159] Memory required for data: 9760240
I0503 01:58:30.373234 17114 layer_factory.hpp:77] Creating layer relu3
I0503 01:58:30.373242 17114 net.cpp:94] Creating Layer relu3
I0503 01:58:30.373245 17114 net.cpp:435] relu3 <- conv3
I0503 01:58:30.373250 17114 net.cpp:396] relu3 -> conv3 (in-place)
I0503 01:58:30.373257 17114 net.cpp:144] Setting up relu3
I0503 01:58:30.373261 17114 net.cpp:151] Top shape: 20 128 10 10 (256000)
I0503 01:58:30.373265 17114 net.cpp:159] Memory required for data: 10784240
I0503 01:58:30.373267 17114 layer_factory.hpp:77] Creating layer conv4
I0503 01:58:30.373275 17114 net.cpp:94] Creating Layer conv4
I0503 01:58:30.373278 17114 net.cpp:435] conv4 <- conv3
I0503 01:58:30.373283 17114 net.cpp:409] conv4 -> conv4
I0503 01:58:30.387269 17114 net.cpp:144] Setting up conv4
I0503 01:58:30.387286 17114 net.cpp:151] Top shape: 20 128 10 10 (256000)
I0503 01:58:30.387290 17114 net.cpp:159] Memory required for data: 11808240
I0503 01:58:30.387296 17114 layer_factory.hpp:77] Creating layer relu4
I0503 01:58:30.387303 17114 net.cpp:94] Creating Layer relu4
I0503 01:58:30.387307 17114 net.cpp:435] relu4 <- conv4
I0503 01:58:30.387311 17114 net.cpp:396] relu4 -> conv4 (in-place)
I0503 01:58:30.387320 17114 net.cpp:144] Setting up relu4
I0503 01:58:30.387323 17114 net.cpp:151] Top shape: 20 128 10 10 (256000)
I0503 01:58:30.387326 17114 net.cpp:159] Memory required for data: 12832240
I0503 01:58:30.387329 17114 layer_factory.hpp:77] Creating layer conv5
I0503 01:58:30.387337 17114 net.cpp:94] Creating Layer conv5
I0503 01:58:30.387341 17114 net.cpp:435] conv5 <- conv4
I0503 01:58:30.387346 17114 net.cpp:409] conv5 -> conv5
I0503 01:58:30.400828 17114 net.cpp:144] Setting up conv5
I0503 01:58:30.400847 17114 net.cpp:151] Top shape: 20 128 10 10 (256000)
I0503 01:58:30.400851 17114 net.cpp:159] Memory required for data: 13856240
I0503 01:58:30.400861 17114 layer_factory.hpp:77] Creating layer relu5
I0503 01:58:30.400866 17114 net.cpp:94] Creating Layer relu5
I0503 01:58:30.400871 17114 net.cpp:435] relu5 <- conv5
I0503 01:58:30.400876 17114 net.cpp:396] relu5 -> conv5 (in-place)
I0503 01:58:30.400882 17114 net.cpp:144] Setting up relu5
I0503 01:58:30.400887 17114 net.cpp:151] Top shape: 20 128 10 10 (256000)
I0503 01:58:30.400889 17114 net.cpp:159] Memory required for data: 14880240
I0503 01:58:30.400892 17114 layer_factory.hpp:77] Creating layer pool5
I0503 01:58:30.400897 17114 net.cpp:94] Creating Layer pool5
I0503 01:58:30.400900 17114 net.cpp:435] pool5 <- conv5
I0503 01:58:30.400904 17114 net.cpp:409] pool5 -> pool5
I0503 01:58:30.400946 17114 net.cpp:144] Setting up pool5
I0503 01:58:30.400954 17114 net.cpp:151] Top shape: 20 128 5 5 (64000)
I0503 01:58:30.400956 17114 net.cpp:159] Memory required for data: 15136240
I0503 01:58:30.400959 17114 layer_factory.hpp:77] Creating layer ip1
I0503 01:58:30.400967 17114 net.cpp:94] Creating Layer ip1
I0503 01:58:30.400972 17114 net.cpp:435] ip1 <- pool5
I0503 01:58:30.400979 17114 net.cpp:409] ip1 -> ip1
I0503 01:58:30.481314 17114 net.cpp:144] Setting up ip1
I0503 01:58:30.481348 17114 net.cpp:151] Top shape: 20 1024 (20480)
I0503 01:58:30.481353 17114 net.cpp:159] Memory required for data: 15218160
I0503 01:58:30.481361 17114 layer_factory.hpp:77] Creating layer ip2
I0503 01:58:30.481372 17114 net.cpp:94] Creating Layer ip2
I0503 01:58:30.481377 17114 net.cpp:435] ip2 <- ip1
I0503 01:58:30.481384 17114 net.cpp:409] ip2 -> ip2
I0503 01:58:30.494652 17114 net.cpp:144] Setting up ip2
I0503 01:58:30.494671 17114 net.cpp:151] Top shape: 20 512 (10240)
I0503 01:58:30.494674 17114 net.cpp:159] Memory required for data: 15259120
I0503 01:58:30.494681 17114 layer_factory.hpp:77] Creating layer ip3
I0503 01:58:30.494693 17114 net.cpp:94] Creating Layer ip3
I0503 01:58:30.494698 17114 net.cpp:435] ip3 <- ip2
I0503 01:58:30.494704 17114 net.cpp:409] ip3 -> ip3
I0503 01:58:30.495473 17114 net.cpp:144] Setting up ip3
I0503 01:58:30.495481 17114 net.cpp:151] Top shape: 20 50 (1000)
I0503 01:58:30.495483 17114 net.cpp:159] Memory required for data: 15263120
I0503 01:58:30.495489 17114 layer_factory.hpp:77] Creating layer ip3_ip3_0_split
I0503 01:58:30.495494 17114 net.cpp:94] Creating Layer ip3_ip3_0_split
I0503 01:58:30.495497 17114 net.cpp:435] ip3_ip3_0_split <- ip3
I0503 01:58:30.495502 17114 net.cpp:409] ip3_ip3_0_split -> ip3_ip3_0_split_0
I0503 01:58:30.495507 17114 net.cpp:409] ip3_ip3_0_split -> ip3_ip3_0_split_1
I0503 01:58:30.495556 17114 net.cpp:144] Setting up ip3_ip3_0_split
I0503 01:58:30.495563 17114 net.cpp:151] Top shape: 20 50 (1000)
I0503 01:58:30.495566 17114 net.cpp:151] Top shape: 20 50 (1000)
I0503 01:58:30.495569 17114 net.cpp:159] Memory required for data: 15271120
I0503 01:58:30.495573 17114 layer_factory.hpp:77] Creating layer accuracy
I0503 01:58:30.495579 17114 net.cpp:94] Creating Layer accuracy
I0503 01:58:30.495581 17114 net.cpp:435] accuracy <- ip3_ip3_0_split_0
I0503 01:58:30.495585 17114 net.cpp:435] accuracy <- label_intercept_1_split_0
I0503 01:58:30.495589 17114 net.cpp:409] accuracy -> accuracy
…
