…
I0507 00:49:51.507494 30552 net.cpp:323] The NetState phase (0) differed from the phase (1) specified by a rule in layer intercept
I0507 00:49:51.507510 30552 net.cpp:323] The NetState phase (0) differed from the phase (1) specified by a rule in layer loss
I0507 00:49:51.507587 30552 net.cpp:52] Initializing net from parameters: 
state {
  phase: TRAIN
}
layer {
  name: "parameters"
  type: "HDF5Data"
  top: "data"
  top: "label"
  include {
    phase: TRAIN
  }
  hdf5_data_param {
    source: "/home/purduethu/scratch/radon/d/deng106/CNNStatisticalModel/distributions/input/50_distributions_100_sample_size_train-parameters-path.txt"
    batch_size: 20
  }
}
layer {
  name: "conv1"
  type: "Convolution"
  bottom: "data"
  top: "conv1"
  param {
    lr_mult: 1
  }
  param {
    lr_mult: 2
  }
  convolution_param {
    num_output: 64
    pad: 2
    kernel_size: 5
    stride: 1
    weight_filler {
      type: "gaussian"
      std: 0.0001
    }
    bias_filler {
      type: "constant"
    }
  }
}
layer {
  name: "relu1"
  type: "ReLU"
  bottom: "conv1"
  top: "conv1"
}
layer {
  name: "conv2"
  type: "Convolution"
  bottom: "conv1"
  top: "conv2"
  param {
    lr_mult: 1
  }
  param {
    lr_mult: 2
  }
  convolution_param {
    num_output: 64
    pad: 2
    kernel_size: 5
    stride: 1
    weight_filler {
      type: "gaussian"
      std: 0.01
    }
    bias_filler {
      type: "constant"
    }
  }
}
layer {
  name: "relu2"
  type: "ReLU"
  bottom: "conv2"
  top: "conv2"
}
layer {
  name: "pool2"
  type: "Pooling"
  bottom: "conv2"
  top: "pool2"
  pooling_param {
    pool: MAX
    kernel_size: 3
    stride: 2
  }
}
layer {
  name: "conv3"
  type: "Convolution"
  bottom: "pool2"
  top: "conv3"
  param {
    lr_mult: 1
  }
  param {
    lr_mult: 2
  }
  convolution_param {
    num_output: 64
    pad: 2
    kernel_size: 5
    stride: 1
    weight_filler {
      type: "gaussian"
      std: 0.01
    }
    bias_filler {
      type: "constant"
    }
  }
}
layer {
  name: "relu3"
  type: "ReLU"
  bottom: "conv3"
  top: "conv3"
}
layer {
  name: "conv4"
  type: "Convolution"
  bottom: "conv3"
  top: "conv4"
  param {
    lr_mult: 1
  }
  param {
    lr_mult: 2
  }
  convolution_param {
    num_output: 64
    pad: 2
    kernel_size: 5
    stride: 1
    weight_filler {
      type: "gaussian"
      std: 0.01
    }
    bias_filler {
      type: "constant"
    }
  }
}
layer {
  name: "relu4"
  type: "ReLU"
  bottom: "conv4"
  top: "conv4"
}
layer {
  name: "conv5"
  type: "Convolution"
  bottom: "conv4"
  top: "conv5"
  param {
    lr_mult: 1
  }
  param {
    lr_mult: 2
  }
  convolution_param {
    num_output: 64
    pad: 2
    kernel_size: 5
    stride: 1
    weight_filler {
      type: "gaussian"
      std: 0.01
    }
    bias_filler {
      type: "constant"
    }
  }
}
layer {
  name: "relu5"
  type: "ReLU"
  bottom: "conv5"
  top: "conv5"
}
layer {
  name: "pool5"
  type: "Pooling"
  bottom: "conv5"
  top: "pool5"
  pooling_param {
    pool: AVE
    kernel_size: 3
    stride: 2
  }
}
layer {
  name: "ip1"
  type: "InnerProduct"
  bottom: "pool5"
  top: "ip1"
  param {
    lr_mult: 1
  }
  param {
    lr_mult: 2
  }
  inner_product_param {
    num_output: 64
    weight_filler {
      type: "gaussian"
      std: 0.1
    }
    bias_filler {
      type: "constant"
    }
  }
}
layer {
  name: "ip2"
  type: "InnerProduct"
  bottom: "ip1"
  top: "ip2"
  param {
    lr_mult: 1
  }
  param {
    lr_mult: 2
  }
  inner_product_param {
    num_output: 64
    weight_filler {
      type: "gaussian"
      std: 0.1
    }
    bias_filler {
      type: "constant"
    }
  }
}
layer {
  name: "ip3"
  type: "InnerProduct"
  bottom: "ip2"
  top: "ip3"
  param {
    lr_mult: 1
  }
  param {
    lr_mult: 2
  }
  inner_product_param {
    num_output: 1
    weight_filler {
      type: "gaussian"
      std: 0.1
    }
    bias_filler {
      type: "constant"
    }
  }
}
layer {
  name: "loss"
  type: "HuberLoss"
  bottom: "ip3"
  bottom: "label"
  top: "loss"
  include {
    phase: TRAIN
  }
}
I0507 00:49:51.507639 30552 layer_factory.hpp:77] Creating layer parameters
I0507 00:49:51.507657 30552 net.cpp:94] Creating Layer parameters
I0507 00:49:51.507660 30552 net.cpp:409] parameters -> data
I0507 00:49:51.507669 30552 net.cpp:409] parameters -> label
I0507 00:49:51.507675 30552 hdf5_data_layer.cpp:79] Loading list of HDF5 filenames from: /home/purduethu/scratch/radon/d/deng106/CNNStatisticalModel/distributions/input/50_distributions_100_sample_size_train-parameters-path.txt
I0507 00:49:51.507689 30552 hdf5_data_layer.cpp:93] Number of HDF5 files: 1
I0507 00:49:51.508234 30552 hdf5.cpp:32] Datatype class: H5T_FLOAT
I0507 00:49:51.669330 30552 net.cpp:144] Setting up parameters
I0507 00:49:51.669361 30552 net.cpp:151] Top shape: 20 1 10 10 (2000)
I0507 00:49:51.669365 30552 net.cpp:151] Top shape: 20 (20)
I0507 00:49:51.669369 30552 net.cpp:159] Memory required for data: 8080
I0507 00:49:51.669375 30552 layer_factory.hpp:77] Creating layer conv1
I0507 00:49:51.669390 30552 net.cpp:94] Creating Layer conv1
I0507 00:49:51.669394 30552 net.cpp:435] conv1 <- data
I0507 00:49:51.669400 30552 net.cpp:409] conv1 -> conv1
I0507 00:49:51.673507 30552 net.cpp:144] Setting up conv1
I0507 00:49:51.673521 30552 net.cpp:151] Top shape: 20 64 10 10 (128000)
I0507 00:49:51.673526 30552 net.cpp:159] Memory required for data: 520080
I0507 00:49:51.673534 30552 layer_factory.hpp:77] Creating layer relu1
I0507 00:49:51.673542 30552 net.cpp:94] Creating Layer relu1
I0507 00:49:51.673545 30552 net.cpp:435] relu1 <- conv1
I0507 00:49:51.673549 30552 net.cpp:396] relu1 -> conv1 (in-place)
I0507 00:49:51.673557 30552 net.cpp:144] Setting up relu1
I0507 00:49:51.673562 30552 net.cpp:151] Top shape: 20 64 10 10 (128000)
I0507 00:49:51.673564 30552 net.cpp:159] Memory required for data: 1032080
I0507 00:49:51.673568 30552 layer_factory.hpp:77] Creating layer conv2
I0507 00:49:51.673574 30552 net.cpp:94] Creating Layer conv2
I0507 00:49:51.673578 30552 net.cpp:435] conv2 <- conv1
I0507 00:49:51.673583 30552 net.cpp:409] conv2 -> conv2
I0507 00:49:51.679596 30552 net.cpp:144] Setting up conv2
I0507 00:49:51.679610 30552 net.cpp:151] Top shape: 20 64 10 10 (128000)
I0507 00:49:51.679615 30552 net.cpp:159] Memory required for data: 1544080
I0507 00:49:51.679621 30552 layer_factory.hpp:77] Creating layer relu2
I0507 00:49:51.679627 30552 net.cpp:94] Creating Layer relu2
I0507 00:49:51.679631 30552 net.cpp:435] relu2 <- conv2
I0507 00:49:51.679636 30552 net.cpp:396] relu2 -> conv2 (in-place)
I0507 00:49:51.679642 30552 net.cpp:144] Setting up relu2
I0507 00:49:51.679646 30552 net.cpp:151] Top shape: 20 64 10 10 (128000)
I0507 00:49:51.679649 30552 net.cpp:159] Memory required for data: 2056080
I0507 00:49:51.679652 30552 layer_factory.hpp:77] Creating layer pool2
I0507 00:49:51.679658 30552 net.cpp:94] Creating Layer pool2
I0507 00:49:51.679661 30552 net.cpp:435] pool2 <- conv2
I0507 00:49:51.679666 30552 net.cpp:409] pool2 -> pool2
I0507 00:49:51.679715 30552 net.cpp:144] Setting up pool2
I0507 00:49:51.679723 30552 net.cpp:151] Top shape: 20 64 5 5 (32000)
I0507 00:49:51.679725 30552 net.cpp:159] Memory required for data: 2184080
I0507 00:49:51.679729 30552 layer_factory.hpp:77] Creating layer conv3
I0507 00:49:51.679736 30552 net.cpp:94] Creating Layer conv3
I0507 00:49:51.679739 30552 net.cpp:435] conv3 <- pool2
I0507 00:49:51.679750 30552 net.cpp:409] conv3 -> conv3
I0507 00:49:51.684625 30552 net.cpp:144] Setting up conv3
I0507 00:49:51.684638 30552 net.cpp:151] Top shape: 20 64 5 5 (32000)
I0507 00:49:51.684643 30552 net.cpp:159] Memory required for data: 2312080
I0507 00:49:51.684649 30552 layer_factory.hpp:77] Creating layer relu3
I0507 00:49:51.684655 30552 net.cpp:94] Creating Layer relu3
I0507 00:49:51.684659 30552 net.cpp:435] relu3 <- conv3
I0507 00:49:51.684664 30552 net.cpp:396] relu3 -> conv3 (in-place)
I0507 00:49:51.684670 30552 net.cpp:144] Setting up relu3
I0507 00:49:51.684674 30552 net.cpp:151] Top shape: 20 64 5 5 (32000)
I0507 00:49:51.684677 30552 net.cpp:159] Memory required for data: 2440080
I0507 00:49:51.684679 30552 layer_factory.hpp:77] Creating layer conv4
I0507 00:49:51.684689 30552 net.cpp:94] Creating Layer conv4
I0507 00:49:51.684691 30552 net.cpp:435] conv4 <- conv3
I0507 00:49:51.684696 30552 net.cpp:409] conv4 -> conv4
I0507 00:49:51.689122 30552 net.cpp:144] Setting up conv4
I0507 00:49:51.689136 30552 net.cpp:151] Top shape: 20 64 5 5 (32000)
I0507 00:49:51.689138 30552 net.cpp:159] Memory required for data: 2568080
I0507 00:49:51.689144 30552 layer_factory.hpp:77] Creating layer relu4
I0507 00:49:51.689151 30552 net.cpp:94] Creating Layer relu4
I0507 00:49:51.689154 30552 net.cpp:435] relu4 <- conv4
I0507 00:49:51.689158 30552 net.cpp:396] relu4 -> conv4 (in-place)
I0507 00:49:51.689165 30552 net.cpp:144] Setting up relu4
I0507 00:49:51.689169 30552 net.cpp:151] Top shape: 20 64 5 5 (32000)
I0507 00:49:51.689172 30552 net.cpp:159] Memory required for data: 2696080
I0507 00:49:51.689175 30552 layer_factory.hpp:77] Creating layer conv5
I0507 00:49:51.689182 30552 net.cpp:94] Creating Layer conv5
I0507 00:49:51.689185 30552 net.cpp:435] conv5 <- conv4
I0507 00:49:51.689190 30552 net.cpp:409] conv5 -> conv5
I0507 00:49:51.694041 30552 net.cpp:144] Setting up conv5
I0507 00:49:51.694054 30552 net.cpp:151] Top shape: 20 64 5 5 (32000)
I0507 00:49:51.694058 30552 net.cpp:159] Memory required for data: 2824080
I0507 00:49:51.694067 30552 layer_factory.hpp:77] Creating layer relu5
I0507 00:49:51.694072 30552 net.cpp:94] Creating Layer relu5
I0507 00:49:51.694075 30552 net.cpp:435] relu5 <- conv5
I0507 00:49:51.694080 30552 net.cpp:396] relu5 -> conv5 (in-place)
I0507 00:49:51.694087 30552 net.cpp:144] Setting up relu5
I0507 00:49:51.694092 30552 net.cpp:151] Top shape: 20 64 5 5 (32000)
I0507 00:49:51.694094 30552 net.cpp:159] Memory required for data: 2952080
I0507 00:49:51.694097 30552 layer_factory.hpp:77] Creating layer pool5
I0507 00:49:51.694103 30552 net.cpp:94] Creating Layer pool5
I0507 00:49:51.694105 30552 net.cpp:435] pool5 <- conv5
I0507 00:49:51.694109 30552 net.cpp:409] pool5 -> pool5
I0507 00:49:51.694144 30552 net.cpp:144] Setting up pool5
I0507 00:49:51.694151 30552 net.cpp:151] Top shape: 20 64 2 2 (5120)
I0507 00:49:51.694154 30552 net.cpp:159] Memory required for data: 2972560
I0507 00:49:51.694157 30552 layer_factory.hpp:77] Creating layer ip1
I0507 00:49:51.694169 30552 net.cpp:94] Creating Layer ip1
I0507 00:49:51.694171 30552 net.cpp:435] ip1 <- pool5
I0507 00:49:51.694176 30552 net.cpp:409] ip1 -> ip1
I0507 00:49:51.695484 30552 net.cpp:144] Setting up ip1
I0507 00:49:51.695497 30552 net.cpp:151] Top shape: 20 64 (1280)
I0507 00:49:51.695502 30552 net.cpp:159] Memory required for data: 2977680
I0507 00:49:51.695508 30552 layer_factory.hpp:77] Creating layer ip2
I0507 00:49:51.695513 30552 net.cpp:94] Creating Layer ip2
I0507 00:49:51.695518 30552 net.cpp:435] ip2 <- ip1
I0507 00:49:51.695523 30552 net.cpp:409] ip2 -> ip2
I0507 00:49:51.695726 30552 net.cpp:144] Setting up ip2
I0507 00:49:51.695734 30552 net.cpp:151] Top shape: 20 64 (1280)
I0507 00:49:51.695736 30552 net.cpp:159] Memory required for data: 2982800
I0507 00:49:51.695741 30552 layer_factory.hpp:77] Creating layer ip3
I0507 00:49:51.695746 30552 net.cpp:94] Creating Layer ip3
I0507 00:49:51.695750 30552 net.cpp:435] ip3 <- ip2
I0507 00:49:51.695755 30552 net.cpp:409] ip3 -> ip3
I0507 00:49:51.695859 30552 net.cpp:144] Setting up ip3
I0507 00:49:51.695865 30552 net.cpp:151] Top shape: 20 1 (20)
I0507 00:49:51.695868 30552 net.cpp:159] Memory required for data: 2982880
I0507 00:49:51.695873 30552 layer_factory.hpp:77] Creating layer loss
I0507 00:49:51.695884 30552 net.cpp:94] Creating Layer loss
I0507 00:49:51.695888 30552 net.cpp:435] loss <- ip3
I0507 00:49:51.695891 30552 net.cpp:435] loss <- label
I0507 00:49:51.695896 30552 net.cpp:409] loss -> loss
I0507 00:49:51.695943 30552 net.cpp:144] Setting up loss
…
I0507 00:49:51.756798 30552 net.cpp:323] The NetState phase (0) differed from the phase (1) specified by a rule in layer intercept
I0507 00:49:51.756814 30552 net.cpp:323] The NetState phase (0) differed from the phase (1) specified by a rule in layer accuracy
I0507 00:49:51.756899 30552 net.cpp:52] Initializing net from parameters: 
state {
  phase: TRAIN
}
layer {
  name: "parameters"
  type: "HDF5Data"
  top: "data"
  top: "label"
  include {
    phase: TRAIN
  }
  hdf5_data_param {
    source: "/home/purduethu/scratch/radon/d/deng106/CNNStatisticalModel/distributions/input/50_distributions_100_sample_size_train-distributions-path.txt"
    batch_size: 20
  }
}
layer {
  name: "conv1"
  type: "Convolution"
  bottom: "data"
  top: "conv1"
  param {
    lr_mult: 1
  }
  param {
    lr_mult: 2
  }
  convolution_param {
    num_output: 64
    pad: 2
    kernel_size: 5
    stride: 1
    weight_filler {
      type: "gaussian"
      std: 0.0001
    }
    bias_filler {
      type: "constant"
    }
  }
}
layer {
  name: "relu1"
  type: "ReLU"
  bottom: "conv1"
  top: "conv1"
}
layer {
  name: "conv2"
  type: "Convolution"
  bottom: "conv1"
  top: "conv2"
  param {
    lr_mult: 1
  }
  param {
    lr_mult: 2
  }
  convolution_param {
    num_output: 64
    pad: 2
    kernel_size: 5
    stride: 1
    weight_filler {
      type: "gaussian"
      std: 0.01
    }
    bias_filler {
      type: "constant"
    }
  }
}
layer {
  name: "relu2"
  type: "ReLU"
  bottom: "conv2"
  top: "conv2"
}
layer {
  name: "pool2"
  type: "Pooling"
  bottom: "conv2"
  top: "pool2"
  pooling_param {
    pool: MAX
    kernel_size: 3
    stride: 2
  }
}
layer {
  name: "conv3"
  type: "Convolution"
  bottom: "pool2"
  top: "conv3"
  param {
    lr_mult: 1
  }
  param {
    lr_mult: 2
  }
  convolution_param {
    num_output: 64
    pad: 2
    kernel_size: 5
    stride: 1
    weight_filler {
      type: "gaussian"
      std: 0.01
    }
    bias_filler {
      type: "constant"
    }
  }
}
layer {
  name: "relu3"
  type: "ReLU"
  bottom: "conv3"
  top: "conv3"
}
layer {
  name: "conv4"
  type: "Convolution"
  bottom: "conv3"
  top: "conv4"
  param {
    lr_mult: 1
  }
  param {
    lr_mult: 2
  }
  convolution_param {
    num_output: 64
    pad: 2
    kernel_size: 5
    stride: 1
    weight_filler {
      type: "gaussian"
      std: 0.01
    }
    bias_filler {
      type: "constant"
    }
  }
}
layer {
  name: "relu4"
  type: "ReLU"
  bottom: "conv4"
  top: "conv4"
}
layer {
  name: "conv5"
  type: "Convolution"
  bottom: "conv4"
  top: "conv5"
  param {
    lr_mult: 1
  }
  param {
    lr_mult: 2
  }
  convolution_param {
    num_output: 64
    pad: 2
    kernel_size: 5
    stride: 1
    weight_filler {
      type: "gaussian"
      std: 0.01
    }
    bias_filler {
      type: "constant"
    }
  }
}
layer {
  name: "relu5"
  type: "ReLU"
  bottom: "conv5"
  top: "conv5"
}
layer {
  name: "pool5"
  type: "Pooling"
  bottom: "conv5"
  top: "pool5"
  pooling_param {
    pool: AVE
    kernel_size: 3
    stride: 2
  }
}
layer {
  name: "ip1"
  type: "InnerProduct"
  bottom: "pool5"
  top: "ip1"
  param {
    lr_mult: 1
  }
  param {
    lr_mult: 2
  }
  inner_product_param {
    num_output: 64
    weight_filler {
      type: "gaussian"
      std: 0.1
    }
    bias_filler {
      type: "constant"
    }
  }
}
layer {
  name: "ip2"
  type: "InnerProduct"
  bottom: "ip1"
  top: "ip2"
  param {
    lr_mult: 1
  }
  param {
    lr_mult: 2
  }
  inner_product_param {
    num_output: 64
    weight_filler {
      type: "gaussian"
      std: 0.1
    }
    bias_filler {
      type: "constant"
    }
  }
}
layer {
  name: "ip3"
  type: "InnerProduct"
  bottom: "ip2"
  top: "ip3"
  param {
    lr_mult: 1
  }
  param {
    lr_mult: 2
  }
  inner_product_param {
    num_output: 50
    weight_filler {
      type: "gaussian"
      std: 0.1
    }
    bias_filler {
      type: "constant"
    }
  }
}
layer {
  name: "loss"
  type: "SoftmaxWithLoss"
  bottom: "ip3"
  bottom: "label"
  top: "loss"
}
I0507 00:49:51.756948 30552 layer_factory.hpp:77] Creating layer parameters
I0507 00:49:51.756955 30552 net.cpp:94] Creating Layer parameters
I0507 00:49:51.756959 30552 net.cpp:409] parameters -> data
I0507 00:49:51.756965 30552 net.cpp:409] parameters -> label
I0507 00:49:51.756971 30552 hdf5_data_layer.cpp:79] Loading list of HDF5 filenames from: /home/purduethu/scratch/radon/d/deng106/CNNStatisticalModel/distributions/input/50_distributions_100_sample_size_train-distributions-path.txt
I0507 00:49:51.756988 30552 hdf5_data_layer.cpp:93] Number of HDF5 files: 1
I0507 00:49:51.912350 30552 hdf5.cpp:35] Datatype class: H5T_INTEGER
I0507 00:49:51.915318 30552 net.cpp:144] Setting up parameters
I0507 00:49:51.915338 30552 net.cpp:151] Top shape: 20 1 10 10 (2000)
I0507 00:49:51.915343 30552 net.cpp:151] Top shape: 20 (20)
I0507 00:49:51.915345 30552 net.cpp:159] Memory required for data: 8080
I0507 00:49:51.915351 30552 layer_factory.hpp:77] Creating layer conv1
I0507 00:49:51.915369 30552 net.cpp:94] Creating Layer conv1
I0507 00:49:51.915372 30552 net.cpp:435] conv1 <- data
I0507 00:49:51.915379 30552 net.cpp:409] conv1 -> conv1
I0507 00:49:51.917170 30552 net.cpp:144] Setting up conv1
I0507 00:49:51.917182 30552 net.cpp:151] Top shape: 20 64 10 10 (128000)
I0507 00:49:51.917186 30552 net.cpp:159] Memory required for data: 520080
I0507 00:49:51.917196 30552 layer_factory.hpp:77] Creating layer relu1
I0507 00:49:51.917202 30552 net.cpp:94] Creating Layer relu1
I0507 00:49:51.917206 30552 net.cpp:435] relu1 <- conv1
I0507 00:49:51.917210 30552 net.cpp:396] relu1 -> conv1 (in-place)
I0507 00:49:51.917217 30552 net.cpp:144] Setting up relu1
I0507 00:49:51.917222 30552 net.cpp:151] Top shape: 20 64 10 10 (128000)
I0507 00:49:51.917224 30552 net.cpp:159] Memory required for data: 1032080
I0507 00:49:51.917227 30552 layer_factory.hpp:77] Creating layer conv2
I0507 00:49:51.917234 30552 net.cpp:94] Creating Layer conv2
I0507 00:49:51.917237 30552 net.cpp:435] conv2 <- conv1
I0507 00:49:51.917243 30552 net.cpp:409] conv2 -> conv2
I0507 00:49:51.922562 30552 net.cpp:144] Setting up conv2
I0507 00:49:51.922576 30552 net.cpp:151] Top shape: 20 64 10 10 (128000)
I0507 00:49:51.922580 30552 net.cpp:159] Memory required for data: 1544080
I0507 00:49:51.922587 30552 layer_factory.hpp:77] Creating layer relu2
I0507 00:49:51.922593 30552 net.cpp:94] Creating Layer relu2
I0507 00:49:51.922596 30552 net.cpp:435] relu2 <- conv2
I0507 00:49:51.922601 30552 net.cpp:396] relu2 -> conv2 (in-place)
I0507 00:49:51.922607 30552 net.cpp:144] Setting up relu2
I0507 00:49:51.922612 30552 net.cpp:151] Top shape: 20 64 10 10 (128000)
I0507 00:49:51.922616 30552 net.cpp:159] Memory required for data: 2056080
I0507 00:49:51.922617 30552 layer_factory.hpp:77] Creating layer pool2
I0507 00:49:51.922624 30552 net.cpp:94] Creating Layer pool2
I0507 00:49:51.922627 30552 net.cpp:435] pool2 <- conv2
I0507 00:49:51.922631 30552 net.cpp:409] pool2 -> pool2
I0507 00:49:51.922679 30552 net.cpp:144] Setting up pool2
I0507 00:49:51.922686 30552 net.cpp:151] Top shape: 20 64 5 5 (32000)
I0507 00:49:51.922689 30552 net.cpp:159] Memory required for data: 2184080
I0507 00:49:51.922693 30552 layer_factory.hpp:77] Creating layer conv3
I0507 00:49:51.922700 30552 net.cpp:94] Creating Layer conv3
I0507 00:49:51.922703 30552 net.cpp:435] conv3 <- pool2
I0507 00:49:51.922708 30552 net.cpp:409] conv3 -> conv3
I0507 00:49:51.928429 30552 net.cpp:144] Setting up conv3
I0507 00:49:51.928443 30552 net.cpp:151] Top shape: 20 64 5 5 (32000)
I0507 00:49:51.928447 30552 net.cpp:159] Memory required for data: 2312080
I0507 00:49:51.928455 30552 layer_factory.hpp:77] Creating layer relu3
I0507 00:49:51.928462 30552 net.cpp:94] Creating Layer relu3
I0507 00:49:51.928464 30552 net.cpp:435] relu3 <- conv3
I0507 00:49:51.928468 30552 net.cpp:396] relu3 -> conv3 (in-place)
I0507 00:49:51.928475 30552 net.cpp:144] Setting up relu3
I0507 00:49:51.928479 30552 net.cpp:151] Top shape: 20 64 5 5 (32000)
I0507 00:49:51.928488 30552 net.cpp:159] Memory required for data: 2440080
I0507 00:49:51.928491 30552 layer_factory.hpp:77] Creating layer conv4
I0507 00:49:51.928499 30552 net.cpp:94] Creating Layer conv4
I0507 00:49:51.928503 30552 net.cpp:435] conv4 <- conv3
I0507 00:49:51.928508 30552 net.cpp:409] conv4 -> conv4
I0507 00:49:51.933408 30552 net.cpp:144] Setting up conv4
I0507 00:49:51.933420 30552 net.cpp:151] Top shape: 20 64 5 5 (32000)
I0507 00:49:51.933424 30552 net.cpp:159] Memory required for data: 2568080
I0507 00:49:51.933430 30552 layer_factory.hpp:77] Creating layer relu4
I0507 00:49:51.933435 30552 net.cpp:94] Creating Layer relu4
I0507 00:49:51.933439 30552 net.cpp:435] relu4 <- conv4
I0507 00:49:51.933444 30552 net.cpp:396] relu4 -> conv4 (in-place)
I0507 00:49:51.933450 30552 net.cpp:144] Setting up relu4
I0507 00:49:51.933454 30552 net.cpp:151] Top shape: 20 64 5 5 (32000)
I0507 00:49:51.933457 30552 net.cpp:159] Memory required for data: 2696080
I0507 00:49:51.933460 30552 layer_factory.hpp:77] Creating layer conv5
I0507 00:49:51.933467 30552 net.cpp:94] Creating Layer conv5
I0507 00:49:51.933470 30552 net.cpp:435] conv5 <- conv4
I0507 00:49:51.933475 30552 net.cpp:409] conv5 -> conv5
I0507 00:49:51.937896 30552 net.cpp:144] Setting up conv5
I0507 00:49:51.937909 30552 net.cpp:151] Top shape: 20 64 5 5 (32000)
I0507 00:49:51.937913 30552 net.cpp:159] Memory required for data: 2824080
I0507 00:49:51.937922 30552 layer_factory.hpp:77] Creating layer relu5
I0507 00:49:51.937927 30552 net.cpp:94] Creating Layer relu5
I0507 00:49:51.937930 30552 net.cpp:435] relu5 <- conv5
I0507 00:49:51.937934 30552 net.cpp:396] relu5 -> conv5 (in-place)
I0507 00:49:51.937942 30552 net.cpp:144] Setting up relu5
I0507 00:49:51.937945 30552 net.cpp:151] Top shape: 20 64 5 5 (32000)
I0507 00:49:51.937948 30552 net.cpp:159] Memory required for data: 2952080
I0507 00:49:51.937952 30552 layer_factory.hpp:77] Creating layer pool5
I0507 00:49:51.937957 30552 net.cpp:94] Creating Layer pool5
I0507 00:49:51.937959 30552 net.cpp:435] pool5 <- conv5
I0507 00:49:51.937963 30552 net.cpp:409] pool5 -> pool5
I0507 00:49:51.937997 30552 net.cpp:144] Setting up pool5
I0507 00:49:51.938004 30552 net.cpp:151] Top shape: 20 64 2 2 (5120)
I0507 00:49:51.938006 30552 net.cpp:159] Memory required for data: 2972560
I0507 00:49:51.938009 30552 layer_factory.hpp:77] Creating layer ip1
I0507 00:49:51.938016 30552 net.cpp:94] Creating Layer ip1
I0507 00:49:51.938019 30552 net.cpp:435] ip1 <- pool5
I0507 00:49:51.938024 30552 net.cpp:409] ip1 -> ip1
I0507 00:49:51.938529 30552 net.cpp:144] Setting up ip1
I0507 00:49:51.938536 30552 net.cpp:151] Top shape: 20 64 (1280)
I0507 00:49:51.938539 30552 net.cpp:159] Memory required for data: 2977680
I0507 00:49:51.938544 30552 layer_factory.hpp:77] Creating layer ip2
I0507 00:49:51.938549 30552 net.cpp:94] Creating Layer ip2
I0507 00:49:51.938554 30552 net.cpp:435] ip2 <- ip1
I0507 00:49:51.938557 30552 net.cpp:409] ip2 -> ip2
I0507 00:49:51.938768 30552 net.cpp:144] Setting up ip2
I0507 00:49:51.938776 30552 net.cpp:151] Top shape: 20 64 (1280)
I0507 00:49:51.938778 30552 net.cpp:159] Memory required for data: 2982800
I0507 00:49:51.938782 30552 layer_factory.hpp:77] Creating layer ip3
I0507 00:49:51.938788 30552 net.cpp:94] Creating Layer ip3
I0507 00:49:51.938791 30552 net.cpp:435] ip3 <- ip2
I0507 00:49:51.938796 30552 net.cpp:409] ip3 -> ip3
I0507 00:49:51.938980 30552 net.cpp:144] Setting up ip3
I0507 00:49:51.938987 30552 net.cpp:151] Top shape: 20 50 (1000)
I0507 00:49:51.938990 30552 net.cpp:159] Memory required for data: 2986800
I0507 00:49:51.938994 30552 layer_factory.hpp:77] Creating layer loss
I0507 00:49:51.939002 30552 net.cpp:94] Creating Layer loss
I0507 00:49:51.939004 30552 net.cpp:435] loss <- ip3
I0507 00:49:51.939007 30552 net.cpp:435] loss <- label
I0507 00:49:51.939013 30552 net.cpp:409] loss -> loss
I0507 00:49:51.939018 30552 layer_factory.hpp:77] Creating layer loss
…
I0507 00:49:51.940336 30552 solver.cpp:181] Creating test net (#0) specified by net file: ./protocol/dis_50_100_dimension.protocol_distribution
I0507 00:49:51.940362 30552 net.cpp:323] The NetState phase (1) differed from the phase (0) specified by a rule in layer parameters
I0507 00:49:51.940456 30552 net.cpp:52] Initializing net from parameters: 
state {
  phase: TEST
}
layer {
  name: "intercept"
  type: "HDF5Data"
  top: "data"
  top: "label"
  include {
    phase: TEST
  }
  hdf5_data_param {
    source: "/home/purduethu/scratch/radon/d/deng106/CNNStatisticalModel/distributions/input/50_distributions_100_sample_size_test-distributions-path.txt"
    batch_size: 20
  }
}
layer {
  name: "conv1"
  type: "Convolution"
  bottom: "data"
  top: "conv1"
  param {
    lr_mult: 1
  }
  param {
    lr_mult: 2
  }
  convolution_param {
    num_output: 64
    pad: 2
    kernel_size: 5
    stride: 1
    weight_filler {
      type: "gaussian"
      std: 0.0001
    }
    bias_filler {
      type: "constant"
    }
  }
}
layer {
  name: "relu1"
  type: "ReLU"
  bottom: "conv1"
  top: "conv1"
}
layer {
  name: "conv2"
  type: "Convolution"
  bottom: "conv1"
  top: "conv2"
  param {
    lr_mult: 1
  }
  param {
    lr_mult: 2
  }
  convolution_param {
    num_output: 64
    pad: 2
    kernel_size: 5
    stride: 1
    weight_filler {
      type: "gaussian"
      std: 0.01
    }
    bias_filler {
      type: "constant"
    }
  }
}
layer {
  name: "relu2"
  type: "ReLU"
  bottom: "conv2"
  top: "conv2"
}
layer {
  name: "pool2"
  type: "Pooling"
  bottom: "conv2"
  top: "pool2"
  pooling_param {
    pool: MAX
    kernel_size: 3
    stride: 2
  }
}
layer {
  name: "conv3"
  type: "Convolution"
  bottom: "pool2"
  top: "conv3"
  param {
    lr_mult: 1
  }
  param {
    lr_mult: 2
  }
  convolution_param {
    num_output: 64
    pad: 2
    kernel_size: 5
    stride: 1
    weight_filler {
      type: "gaussian"
      std: 0.01
    }
    bias_filler {
      type: "constant"
    }
  }
}
layer {
  name: "relu3"
  type: "ReLU"
  bottom: "conv3"
  top: "conv3"
}
layer {
  name: "conv4"
  type: "Convolution"
  bottom: "conv3"
  top: "conv4"
  param {
    lr_mult: 1
  }
  param {
    lr_mult: 2
  }
  convolution_param {
    num_output: 64
    pad: 2
    kernel_size: 5
    stride: 1
    weight_filler {
      type: "gaussian"
      std: 0.01
    }
    bias_filler {
      type: "constant"
    }
  }
}
layer {
  name: "relu4"
  type: "ReLU"
  bottom: "conv4"
  top: "conv4"
}
layer {
  name: "conv5"
  type: "Convolution"
  bottom: "conv4"
  top: "conv5"
  param {
    lr_mult: 1
  }
  param {
    lr_mult: 2
  }
  convolution_param {
    num_output: 64
    pad: 2
    kernel_size: 5
    stride: 1
    weight_filler {
      type: "gaussian"
      std: 0.01
    }
    bias_filler {
      type: "constant"
    }
  }
}
layer {
  name: "relu5"
  type: "ReLU"
  bottom: "conv5"
  top: "conv5"
}
layer {
  name: "pool5"
  type: "Pooling"
  bottom: "conv5"
  top: "pool5"
  pooling_param {
    pool: AVE
    kernel_size: 3
    stride: 2
  }
}
layer {
  name: "ip1"
  type: "InnerProduct"
  bottom: "pool5"
  top: "ip1"
  param {
    lr_mult: 1
  }
  param {
    lr_mult: 2
  }
  inner_product_param {
    num_output: 64
    weight_filler {
      type: "gaussian"
      std: 0.1
    }
    bias_filler {
      type: "constant"
    }
  }
}
layer {
  name: "ip2"
  type: "InnerProduct"
  bottom: "ip1"
  top: "ip2"
  param {
    lr_mult: 1
  }
  param {
    lr_mult: 2
  }
  inner_product_param {
    num_output: 64
    weight_filler {
      type: "gaussian"
      std: 0.1
    }
    bias_filler {
      type: "constant"
    }
  }
}
layer {
  name: "ip3"
  type: "InnerProduct"
  bottom: "ip2"
  top: "ip3"
  param {
    lr_mult: 1
  }
  param {
    lr_mult: 2
  }
  inner_product_param {
    num_output: 50
    weight_filler {
      type: "gaussian"
      std: 0.1
    }
    bias_filler {
      type: "constant"
    }
  }
}
layer {
  name: "accuracy"
  type: "Accuracy"
  bottom: "ip3"
  bottom: "label"
  top: "accuracy"
  include {
    phase: TEST
  }
}
layer {
  name: "loss"
  type: "SoftmaxWithLoss"
  bottom: "ip3"
  bottom: "label"
  top: "loss"
}
I0507 00:49:51.940520 30552 layer_factory.hpp:77] Creating layer intercept
I0507 00:49:51.940526 30552 net.cpp:94] Creating Layer intercept
I0507 00:49:51.940531 30552 net.cpp:409] intercept -> data
I0507 00:49:51.940537 30552 net.cpp:409] intercept -> label
I0507 00:49:51.940543 30552 hdf5_data_layer.cpp:79] Loading list of HDF5 filenames from: /home/purduethu/scratch/radon/d/deng106/CNNStatisticalModel/distributions/input/50_distributions_100_sample_size_test-distributions-path.txt
I0507 00:49:51.940572 30552 hdf5_data_layer.cpp:93] Number of HDF5 files: 1
I0507 00:49:51.981943 30552 net.cpp:144] Setting up intercept
I0507 00:49:51.981977 30552 net.cpp:151] Top shape: 20 1 10 10 (2000)
I0507 00:49:51.981982 30552 net.cpp:151] Top shape: 20 (20)
I0507 00:49:51.981986 30552 net.cpp:159] Memory required for data: 8080
I0507 00:49:51.981992 30552 layer_factory.hpp:77] Creating layer label_intercept_1_split
I0507 00:49:51.982012 30552 net.cpp:94] Creating Layer label_intercept_1_split
I0507 00:49:51.982015 30552 net.cpp:435] label_intercept_1_split <- label
I0507 00:49:51.982022 30552 net.cpp:409] label_intercept_1_split -> label_intercept_1_split_0
I0507 00:49:51.982030 30552 net.cpp:409] label_intercept_1_split -> label_intercept_1_split_1
I0507 00:49:51.982069 30552 net.cpp:144] Setting up label_intercept_1_split
I0507 00:49:51.982075 30552 net.cpp:151] Top shape: 20 (20)
I0507 00:49:51.982079 30552 net.cpp:151] Top shape: 20 (20)
I0507 00:49:51.982081 30552 net.cpp:159] Memory required for data: 8240
I0507 00:49:51.982084 30552 layer_factory.hpp:77] Creating layer conv1
I0507 00:49:51.982095 30552 net.cpp:94] Creating Layer conv1
I0507 00:49:51.982098 30552 net.cpp:435] conv1 <- data
I0507 00:49:51.982103 30552 net.cpp:409] conv1 -> conv1
I0507 00:49:51.982882 30552 net.cpp:144] Setting up conv1
I0507 00:49:51.982895 30552 net.cpp:151] Top shape: 20 64 10 10 (128000)
I0507 00:49:51.982898 30552 net.cpp:159] Memory required for data: 520240
I0507 00:49:51.982908 30552 layer_factory.hpp:77] Creating layer relu1
I0507 00:49:51.982914 30552 net.cpp:94] Creating Layer relu1
I0507 00:49:51.982918 30552 net.cpp:435] relu1 <- conv1
I0507 00:49:51.982921 30552 net.cpp:396] relu1 -> conv1 (in-place)
I0507 00:49:51.982928 30552 net.cpp:144] Setting up relu1
I0507 00:49:51.982933 30552 net.cpp:151] Top shape: 20 64 10 10 (128000)
I0507 00:49:51.982935 30552 net.cpp:159] Memory required for data: 1032240
I0507 00:49:51.982946 30552 layer_factory.hpp:77] Creating layer conv2
I0507 00:49:51.982954 30552 net.cpp:94] Creating Layer conv2
I0507 00:49:51.982957 30552 net.cpp:435] conv2 <- conv1
I0507 00:49:51.982962 30552 net.cpp:409] conv2 -> conv2
I0507 00:49:51.987025 30552 net.cpp:144] Setting up conv2
I0507 00:49:51.987038 30552 net.cpp:151] Top shape: 20 64 10 10 (128000)
I0507 00:49:51.987041 30552 net.cpp:159] Memory required for data: 1544240
I0507 00:49:51.987049 30552 layer_factory.hpp:77] Creating layer relu2
I0507 00:49:51.987056 30552 net.cpp:94] Creating Layer relu2
I0507 00:49:51.987058 30552 net.cpp:435] relu2 <- conv2
I0507 00:49:51.987062 30552 net.cpp:396] relu2 -> conv2 (in-place)
I0507 00:49:51.987069 30552 net.cpp:144] Setting up relu2
I0507 00:49:51.987073 30552 net.cpp:151] Top shape: 20 64 10 10 (128000)
I0507 00:49:51.987076 30552 net.cpp:159] Memory required for data: 2056240
I0507 00:49:51.987079 30552 layer_factory.hpp:77] Creating layer pool2
I0507 00:49:51.987087 30552 net.cpp:94] Creating Layer pool2
I0507 00:49:51.987089 30552 net.cpp:435] pool2 <- conv2
I0507 00:49:51.987093 30552 net.cpp:409] pool2 -> pool2
I0507 00:49:51.987144 30552 net.cpp:144] Setting up pool2
I0507 00:49:51.987151 30552 net.cpp:151] Top shape: 20 64 5 5 (32000)
I0507 00:49:51.987154 30552 net.cpp:159] Memory required for data: 2184240
I0507 00:49:51.987157 30552 layer_factory.hpp:77] Creating layer conv3
I0507 00:49:51.987166 30552 net.cpp:94] Creating Layer conv3
I0507 00:49:51.987169 30552 net.cpp:435] conv3 <- pool2
I0507 00:49:51.987174 30552 net.cpp:409] conv3 -> conv3
I0507 00:49:51.991502 30552 net.cpp:144] Setting up conv3
I0507 00:49:51.991515 30552 net.cpp:151] Top shape: 20 64 5 5 (32000)
I0507 00:49:51.991519 30552 net.cpp:159] Memory required for data: 2312240
I0507 00:49:51.991528 30552 layer_factory.hpp:77] Creating layer relu3
I0507 00:49:51.991534 30552 net.cpp:94] Creating Layer relu3
I0507 00:49:51.991538 30552 net.cpp:435] relu3 <- conv3
I0507 00:49:51.991542 30552 net.cpp:396] relu3 -> conv3 (in-place)
I0507 00:49:51.991549 30552 net.cpp:144] Setting up relu3
I0507 00:49:51.991554 30552 net.cpp:151] Top shape: 20 64 5 5 (32000)
I0507 00:49:51.991556 30552 net.cpp:159] Memory required for data: 2440240
I0507 00:49:51.991559 30552 layer_factory.hpp:77] Creating layer conv4
I0507 00:49:51.991567 30552 net.cpp:94] Creating Layer conv4
I0507 00:49:51.991570 30552 net.cpp:435] conv4 <- conv3
I0507 00:49:51.991575 30552 net.cpp:409] conv4 -> conv4
I0507 00:49:51.995051 30552 net.cpp:144] Setting up conv4
I0507 00:49:51.995064 30552 net.cpp:151] Top shape: 20 64 5 5 (32000)
I0507 00:49:51.995067 30552 net.cpp:159] Memory required for data: 2568240
I0507 00:49:51.995074 30552 layer_factory.hpp:77] Creating layer relu4
I0507 00:49:51.995080 30552 net.cpp:94] Creating Layer relu4
I0507 00:49:51.995084 30552 net.cpp:435] relu4 <- conv4
I0507 00:49:51.995088 30552 net.cpp:396] relu4 -> conv4 (in-place)
I0507 00:49:51.995095 30552 net.cpp:144] Setting up relu4
I0507 00:49:51.995098 30552 net.cpp:151] Top shape: 20 64 5 5 (32000)
I0507 00:49:51.995101 30552 net.cpp:159] Memory required for data: 2696240
I0507 00:49:51.995105 30552 layer_factory.hpp:77] Creating layer conv5
I0507 00:49:51.995113 30552 net.cpp:94] Creating Layer conv5
I0507 00:49:51.995116 30552 net.cpp:435] conv5 <- conv4
I0507 00:49:51.995122 30552 net.cpp:409] conv5 -> conv5
I0507 00:49:51.999048 30552 net.cpp:144] Setting up conv5
I0507 00:49:51.999061 30552 net.cpp:151] Top shape: 20 64 5 5 (32000)
I0507 00:49:51.999065 30552 net.cpp:159] Memory required for data: 2824240
I0507 00:49:51.999073 30552 layer_factory.hpp:77] Creating layer relu5
I0507 00:49:51.999078 30552 net.cpp:94] Creating Layer relu5
I0507 00:49:51.999083 30552 net.cpp:435] relu5 <- conv5
I0507 00:49:51.999088 30552 net.cpp:396] relu5 -> conv5 (in-place)
I0507 00:49:51.999094 30552 net.cpp:144] Setting up relu5
I0507 00:49:51.999099 30552 net.cpp:151] Top shape: 20 64 5 5 (32000)
I0507 00:49:51.999100 30552 net.cpp:159] Memory required for data: 2952240
I0507 00:49:51.999107 30552 layer_factory.hpp:77] Creating layer pool5
I0507 00:49:51.999112 30552 net.cpp:94] Creating Layer pool5
I0507 00:49:51.999115 30552 net.cpp:435] pool5 <- conv5
I0507 00:49:51.999120 30552 net.cpp:409] pool5 -> pool5
I0507 00:49:51.999155 30552 net.cpp:144] Setting up pool5
I0507 00:49:51.999162 30552 net.cpp:151] Top shape: 20 64 2 2 (5120)
I0507 00:49:51.999164 30552 net.cpp:159] Memory required for data: 2972720
I0507 00:49:51.999167 30552 layer_factory.hpp:77] Creating layer ip1
I0507 00:49:51.999174 30552 net.cpp:94] Creating Layer ip1
I0507 00:49:51.999178 30552 net.cpp:435] ip1 <- pool5
I0507 00:49:51.999182 30552 net.cpp:409] ip1 -> ip1
I0507 00:49:51.999697 30552 net.cpp:144] Setting up ip1
I0507 00:49:51.999704 30552 net.cpp:151] Top shape: 20 64 (1280)
I0507 00:49:51.999707 30552 net.cpp:159] Memory required for data: 2977840
I0507 00:49:51.999712 30552 layer_factory.hpp:77] Creating layer ip2
I0507 00:49:51.999718 30552 net.cpp:94] Creating Layer ip2
I0507 00:49:51.999722 30552 net.cpp:435] ip2 <- ip1
I0507 00:49:51.999727 30552 net.cpp:409] ip2 -> ip2
I0507 00:49:51.999943 30552 net.cpp:144] Setting up ip2
I0507 00:49:51.999949 30552 net.cpp:151] Top shape: 20 64 (1280)
I0507 00:49:51.999953 30552 net.cpp:159] Memory required for data: 2982960
I0507 00:49:51.999958 30552 layer_factory.hpp:77] Creating layer ip3
I0507 00:49:51.999965 30552 net.cpp:94] Creating Layer ip3
I0507 00:49:51.999969 30552 net.cpp:435] ip3 <- ip2
I0507 00:49:51.999974 30552 net.cpp:409] ip3 -> ip3
I0507 00:49:52.000162 30552 net.cpp:144] Setting up ip3
I0507 00:49:52.000169 30552 net.cpp:151] Top shape: 20 50 (1000)
I0507 00:49:52.000171 30552 net.cpp:159] Memory required for data: 2986960
I0507 00:49:52.000176 30552 layer_factory.hpp:77] Creating layer ip3_ip3_0_split
I0507 00:49:52.000180 30552 net.cpp:94] Creating Layer ip3_ip3_0_split
I0507 00:49:52.000183 30552 net.cpp:435] ip3_ip3_0_split <- ip3
I0507 00:49:52.000188 30552 net.cpp:409] ip3_ip3_0_split -> ip3_ip3_0_split_0
I0507 00:49:52.000193 30552 net.cpp:409] ip3_ip3_0_split -> ip3_ip3_0_split_1
I0507 00:49:52.000232 30552 net.cpp:144] Setting up ip3_ip3_0_split
I0507 00:49:52.000237 30552 net.cpp:151] Top shape: 20 50 (1000)
I0507 00:49:52.000241 30552 net.cpp:151] Top shape: 20 50 (1000)
I0507 00:49:52.000243 30552 net.cpp:159] Memory required for data: 2994960
I0507 00:49:52.000247 30552 layer_factory.hpp:77] Creating layer accuracy
I0507 00:49:52.000252 30552 net.cpp:94] Creating Layer accuracy
I0507 00:49:52.000254 30552 net.cpp:435] accuracy <- ip3_ip3_0_split_0
I0507 00:49:52.000258 30552 net.cpp:435] accuracy <- label_intercept_1_split_0
I0507 00:49:52.000262 30552 net.cpp:409] accuracy -> accuracy
…
