…
I0503 14:56:32.405622 21049 net.cpp:323] The NetState phase (0) differed from the phase (1) specified by a rule in layer intercept
I0503 14:56:32.405637 21049 net.cpp:323] The NetState phase (0) differed from the phase (1) specified by a rule in layer accuracy
I0503 14:56:32.405727 21049 net.cpp:52] Initializing net from parameters: 
state {
  phase: TRAIN
}
layer {
  name: "parameters"
  type: "HDF5Data"
  top: "data"
  top: "label"
  include {
    phase: TRAIN
  }
  hdf5_data_param {
    source: "/home/purduethu/scratch/radon/d/deng106/CNNStatisticalModel/distributions/input/50_distributions_100_sample_size_train-distributions-path.txt"
    batch_size: 20
  }
}
layer {
  name: "conv1"
  type: "Convolution"
  bottom: "data"
  top: "conv1"
  param {
    lr_mult: 1
  }
  param {
    lr_mult: 2
  }
  convolution_param {
    num_output: 64
    pad: 2
    kernel_size: 5
    stride: 1
    weight_filler {
      type: "gaussian"
      std: 0.0001
    }
    bias_filler {
      type: "constant"
    }
  }
}
layer {
  name: "relu1"
  type: "ReLU"
  bottom: "conv1"
  top: "conv1"
}
layer {
  name: "conv2"
  type: "Convolution"
  bottom: "conv1"
  top: "conv2"
  param {
    lr_mult: 1
  }
  param {
    lr_mult: 2
  }
  convolution_param {
    num_output: 64
    pad: 2
    kernel_size: 5
    stride: 1
    weight_filler {
      type: "gaussian"
      std: 0.01
    }
    bias_filler {
      type: "constant"
    }
  }
}
layer {
  name: "relu2"
  type: "ReLU"
  bottom: "conv2"
  top: "conv2"
}
layer {
  name: "pool2"
  type: "Pooling"
  bottom: "conv2"
  top: "pool2"
  pooling_param {
    pool: MAX
    kernel_size: 3
    stride: 2
  }
}
layer {
  name: "conv3"
  type: "Convolution"
  bottom: "pool2"
  top: "conv3"
  param {
    lr_mult: 1
  }
  param {
    lr_mult: 2
  }
  convolution_param {
    num_output: 128
    pad: 2
    kernel_size: 5
    stride: 1
    weight_filler {
      type: "gaussian"
      std: 0.01
    }
    bias_filler {
      type: "constant"
    }
  }
}
layer {
  name: "relu3"
  type: "ReLU"
  bottom: "conv3"
  top: "conv3"
}
layer {
  name: "conv4"
  type: "Convolution"
  bottom: "conv3"
  top: "conv4"
  param {
    lr_mult: 1
  }
  param {
    lr_mult: 2
  }
  convolution_param {
    num_output: 128
    pad: 2
    kernel_size: 5
    stride: 1
    weight_filler {
      type: "gaussian"
      std: 0.01
    }
    bias_filler {
      type: "constant"
    }
  }
}
layer {
  name: "relu4"
  type: "ReLU"
  bottom: "conv4"
  top: "conv4"
}
layer {
  name: "conv5"
  type: "Convolution"
  bottom: "conv4"
  top: "conv5"
  param {
    lr_mult: 1
  }
  param {
    lr_mult: 2
  }
  convolution_param {
    num_output: 128
    pad: 2
    kernel_size: 5
    stride: 1
    weight_filler {
      type: "gaussian"
      std: 0.01
    }
    bias_filler {
      type: "constant"
    }
  }
}
layer {
  name: "relu5"
  type: "ReLU"
  bottom: "conv5"
  top: "conv5"
}
layer {
  name: "pool5"
  type: "Pooling"
  bottom: "conv5"
  top: "pool5"
  pooling_param {
    pool: AVE
    kernel_size: 3
    stride: 2
  }
}
layer {
  name: "ip1"
  type: "InnerProduct"
  bottom: "pool5"
  top: "ip1"
  param {
    lr_mult: 1
  }
  param {
    lr_mult: 2
  }
  inner_product_param {
    num_output: 1024
    weight_filler {
      type: "gaussian"
      std: 0.1
    }
    bias_filler {
      type: "constant"
    }
  }
}
layer {
  name: "ip2"
  type: "InnerProduct"
  bottom: "ip1"
  top: "ip2"
  param {
    lr_mult: 1
  }
  param {
    lr_mult: 2
  }
  inner_product_param {
    num_output: 512
    weight_filler {
      type: "gaussian"
      std: 0.1
    }
    bias_filler {
      type: "constant"
    }
  }
}
layer {
  name: "ip3"
  type: "InnerProduct"
  bottom: "ip2"
  top: "ip3"
  param {
    lr_mult: 1
  }
  param {
    lr_mult: 2
  }
  inner_product_param {
    num_output: 50
    weight_filler {
      type: "gaussian"
      std: 0.1
    }
    bias_filler {
      type: "constant"
    }
  }
}
layer {
  name: "loss"
  type: "SoftmaxWithLoss"
  bottom: "ip3"
  bottom: "label"
  top: "loss"
}
I0503 14:56:32.405802 21049 layer_factory.hpp:77] Creating layer parameters
I0503 14:56:32.405818 21049 net.cpp:94] Creating Layer parameters
I0503 14:56:32.405824 21049 net.cpp:409] parameters -> data
I0503 14:56:32.405843 21049 net.cpp:409] parameters -> label
I0503 14:56:32.405853 21049 hdf5_data_layer.cpp:79] Loading list of HDF5 filenames from: /home/purduethu/scratch/radon/d/deng106/CNNStatisticalModel/distributions/input/50_distributions_100_sample_size_train-distributions-path.txt
I0503 14:56:32.405876 21049 hdf5_data_layer.cpp:93] Number of HDF5 files: 1
I0503 14:56:32.406342 21049 hdf5.cpp:32] Datatype class: H5T_FLOAT
I0503 14:56:32.566118 21049 hdf5.cpp:35] Datatype class: H5T_INTEGER
I0503 14:56:32.568982 21049 net.cpp:144] Setting up parameters
I0503 14:56:32.569002 21049 net.cpp:151] Top shape: 20 1 10 10 (2000)
I0503 14:56:32.569008 21049 net.cpp:151] Top shape: 20 (20)
I0503 14:56:32.569012 21049 net.cpp:159] Memory required for data: 8080
I0503 14:56:32.569020 21049 layer_factory.hpp:77] Creating layer conv1
I0503 14:56:32.569039 21049 net.cpp:94] Creating Layer conv1
I0503 14:56:32.569046 21049 net.cpp:435] conv1 <- data
I0503 14:56:32.569057 21049 net.cpp:409] conv1 -> conv1
I0503 14:56:32.572854 21049 net.cpp:144] Setting up conv1
I0503 14:56:32.572870 21049 net.cpp:151] Top shape: 20 64 10 10 (128000)
I0503 14:56:32.572873 21049 net.cpp:159] Memory required for data: 520080
I0503 14:56:32.572885 21049 layer_factory.hpp:77] Creating layer relu1
I0503 14:56:32.572893 21049 net.cpp:94] Creating Layer relu1
I0503 14:56:32.572897 21049 net.cpp:435] relu1 <- conv1
I0503 14:56:32.572902 21049 net.cpp:396] relu1 -> conv1 (in-place)
I0503 14:56:32.572917 21049 net.cpp:144] Setting up relu1
I0503 14:56:32.572923 21049 net.cpp:151] Top shape: 20 64 10 10 (128000)
I0503 14:56:32.572926 21049 net.cpp:159] Memory required for data: 1032080
I0503 14:56:32.572929 21049 layer_factory.hpp:77] Creating layer conv2
I0503 14:56:32.572938 21049 net.cpp:94] Creating Layer conv2
I0503 14:56:32.572942 21049 net.cpp:435] conv2 <- conv1
I0503 14:56:32.572947 21049 net.cpp:409] conv2 -> conv2
I0503 14:56:32.578680 21049 net.cpp:144] Setting up conv2
I0503 14:56:32.578694 21049 net.cpp:151] Top shape: 20 64 10 10 (128000)
I0503 14:56:32.578698 21049 net.cpp:159] Memory required for data: 1544080
I0503 14:56:32.578706 21049 layer_factory.hpp:77] Creating layer relu2
I0503 14:56:32.578713 21049 net.cpp:94] Creating Layer relu2
I0503 14:56:32.578717 21049 net.cpp:435] relu2 <- conv2
I0503 14:56:32.578722 21049 net.cpp:396] relu2 -> conv2 (in-place)
I0503 14:56:32.578729 21049 net.cpp:144] Setting up relu2
I0503 14:56:32.578734 21049 net.cpp:151] Top shape: 20 64 10 10 (128000)
I0503 14:56:32.578737 21049 net.cpp:159] Memory required for data: 2056080
I0503 14:56:32.578740 21049 layer_factory.hpp:77] Creating layer pool2
I0503 14:56:32.578754 21049 net.cpp:94] Creating Layer pool2
I0503 14:56:32.578759 21049 net.cpp:435] pool2 <- conv2
I0503 14:56:32.578764 21049 net.cpp:409] pool2 -> pool2
I0503 14:56:32.578809 21049 net.cpp:144] Setting up pool2
I0503 14:56:32.578817 21049 net.cpp:151] Top shape: 20 64 5 5 (32000)
I0503 14:56:32.578820 21049 net.cpp:159] Memory required for data: 2184080
I0503 14:56:32.578824 21049 layer_factory.hpp:77] Creating layer conv3
I0503 14:56:32.578832 21049 net.cpp:94] Creating Layer conv3
I0503 14:56:32.578836 21049 net.cpp:435] conv3 <- pool2
I0503 14:56:32.578850 21049 net.cpp:409] conv3 -> conv3
I0503 14:56:32.586899 21049 net.cpp:144] Setting up conv3
I0503 14:56:32.586913 21049 net.cpp:151] Top shape: 20 128 5 5 (64000)
I0503 14:56:32.586917 21049 net.cpp:159] Memory required for data: 2440080
I0503 14:56:32.586926 21049 layer_factory.hpp:77] Creating layer relu3
I0503 14:56:32.586932 21049 net.cpp:94] Creating Layer relu3
I0503 14:56:32.586936 21049 net.cpp:435] relu3 <- conv3
I0503 14:56:32.586941 21049 net.cpp:396] relu3 -> conv3 (in-place)
I0503 14:56:32.586947 21049 net.cpp:144] Setting up relu3
I0503 14:56:32.586952 21049 net.cpp:151] Top shape: 20 128 5 5 (64000)
I0503 14:56:32.586956 21049 net.cpp:159] Memory required for data: 2696080
I0503 14:56:32.586959 21049 layer_factory.hpp:77] Creating layer conv4
I0503 14:56:32.586967 21049 net.cpp:94] Creating Layer conv4
I0503 14:56:32.586971 21049 net.cpp:435] conv4 <- conv3
I0503 14:56:32.586977 21049 net.cpp:409] conv4 -> conv4
I0503 14:56:32.601656 21049 net.cpp:144] Setting up conv4
I0503 14:56:32.601670 21049 net.cpp:151] Top shape: 20 128 5 5 (64000)
I0503 14:56:32.601675 21049 net.cpp:159] Memory required for data: 2952080
I0503 14:56:32.601681 21049 layer_factory.hpp:77] Creating layer relu4
I0503 14:56:32.601687 21049 net.cpp:94] Creating Layer relu4
I0503 14:56:32.601691 21049 net.cpp:435] relu4 <- conv4
I0503 14:56:32.601696 21049 net.cpp:396] relu4 -> conv4 (in-place)
I0503 14:56:32.601703 21049 net.cpp:144] Setting up relu4
I0503 14:56:32.601708 21049 net.cpp:151] Top shape: 20 128 5 5 (64000)
I0503 14:56:32.601711 21049 net.cpp:159] Memory required for data: 3208080
I0503 14:56:32.601714 21049 layer_factory.hpp:77] Creating layer conv5
I0503 14:56:32.601722 21049 net.cpp:94] Creating Layer conv5
I0503 14:56:32.601725 21049 net.cpp:435] conv5 <- conv4
I0503 14:56:32.601730 21049 net.cpp:409] conv5 -> conv5
I0503 14:56:32.616009 21049 net.cpp:144] Setting up conv5
I0503 14:56:32.616024 21049 net.cpp:151] Top shape: 20 128 5 5 (64000)
I0503 14:56:32.616029 21049 net.cpp:159] Memory required for data: 3464080
I0503 14:56:32.616037 21049 layer_factory.hpp:77] Creating layer relu5
I0503 14:56:32.616044 21049 net.cpp:94] Creating Layer relu5
I0503 14:56:32.616047 21049 net.cpp:435] relu5 <- conv5
I0503 14:56:32.616051 21049 net.cpp:396] relu5 -> conv5 (in-place)
I0503 14:56:32.616060 21049 net.cpp:144] Setting up relu5
I0503 14:56:32.616063 21049 net.cpp:151] Top shape: 20 128 5 5 (64000)
I0503 14:56:32.616067 21049 net.cpp:159] Memory required for data: 3720080
I0503 14:56:32.616070 21049 layer_factory.hpp:77] Creating layer pool5
I0503 14:56:32.616075 21049 net.cpp:94] Creating Layer pool5
I0503 14:56:32.616080 21049 net.cpp:435] pool5 <- conv5
I0503 14:56:32.616083 21049 net.cpp:409] pool5 -> pool5
I0503 14:56:32.616117 21049 net.cpp:144] Setting up pool5
I0503 14:56:32.616123 21049 net.cpp:151] Top shape: 20 128 2 2 (10240)
I0503 14:56:32.616127 21049 net.cpp:159] Memory required for data: 3761040
I0503 14:56:32.616130 21049 layer_factory.hpp:77] Creating layer ip1
I0503 14:56:32.616139 21049 net.cpp:94] Creating Layer ip1
I0503 14:56:32.616143 21049 net.cpp:435] ip1 <- pool5
I0503 14:56:32.616148 21049 net.cpp:409] ip1 -> ip1
I0503 14:56:32.630244 21049 net.cpp:144] Setting up ip1
I0503 14:56:32.630259 21049 net.cpp:151] Top shape: 20 1024 (20480)
I0503 14:56:32.630264 21049 net.cpp:159] Memory required for data: 3842960
I0503 14:56:32.630270 21049 layer_factory.hpp:77] Creating layer ip2
I0503 14:56:32.630276 21049 net.cpp:94] Creating Layer ip2
I0503 14:56:32.630285 21049 net.cpp:435] ip2 <- ip1
I0503 14:56:32.630291 21049 net.cpp:409] ip2 -> ip2
I0503 14:56:32.643714 21049 net.cpp:144] Setting up ip2
I0503 14:56:32.643728 21049 net.cpp:151] Top shape: 20 512 (10240)
I0503 14:56:32.643733 21049 net.cpp:159] Memory required for data: 3883920
I0503 14:56:32.643738 21049 layer_factory.hpp:77] Creating layer ip3
I0503 14:56:32.643745 21049 net.cpp:94] Creating Layer ip3
I0503 14:56:32.643749 21049 net.cpp:435] ip3 <- ip2
I0503 14:56:32.643754 21049 net.cpp:409] ip3 -> ip3
I0503 14:56:32.645113 21049 net.cpp:144] Setting up ip3
I0503 14:56:32.645126 21049 net.cpp:151] Top shape: 20 50 (1000)
I0503 14:56:32.645130 21049 net.cpp:159] Memory required for data: 3887920
I0503 14:56:32.645136 21049 layer_factory.hpp:77] Creating layer loss
I0503 14:56:32.645144 21049 net.cpp:94] Creating Layer loss
I0503 14:56:32.645148 21049 net.cpp:435] loss <- ip3
I0503 14:56:32.645153 21049 net.cpp:435] loss <- label
I0503 14:56:32.645159 21049 net.cpp:409] loss -> loss
I0503 14:56:32.645169 21049 layer_factory.hpp:77] Creating layer loss
…
I0503 14:56:32.645683 21049 solver.cpp:181] Creating test net (#0) specified by net file: ./protocol/dis_50_100_dimension.protocol_distribution
I0503 14:56:32.645709 21049 net.cpp:323] The NetState phase (1) differed from the phase (0) specified by a rule in layer parameters
I0503 14:56:32.645807 21049 net.cpp:52] Initializing net from parameters: 
state {
  phase: TEST
}
layer {
  name: "intercept"
  type: "HDF5Data"
  top: "data"
  top: "label"
  include {
    phase: TEST
  }
  hdf5_data_param {
    source: "/home/purduethu/scratch/radon/d/deng106/CNNStatisticalModel/distributions/input/50_distributions_100_sample_size_test-distributions-path.txt"
    batch_size: 20
  }
}
layer {
  name: "conv1"
  type: "Convolution"
  bottom: "data"
  top: "conv1"
  param {
    lr_mult: 1
  }
  param {
    lr_mult: 2
  }
  convolution_param {
    num_output: 64
    pad: 2
    kernel_size: 5
    stride: 1
    weight_filler {
      type: "gaussian"
      std: 0.0001
    }
    bias_filler {
      type: "constant"
    }
  }
}
layer {
  name: "relu1"
  type: "ReLU"
  bottom: "conv1"
  top: "conv1"
}
layer {
  name: "conv2"
  type: "Convolution"
  bottom: "conv1"
  top: "conv2"
  param {
    lr_mult: 1
  }
  param {
    lr_mult: 2
  }
  convolution_param {
    num_output: 64
    pad: 2
    kernel_size: 5
    stride: 1
    weight_filler {
      type: "gaussian"
      std: 0.01
    }
    bias_filler {
      type: "constant"
    }
  }
}
layer {
  name: "relu2"
  type: "ReLU"
  bottom: "conv2"
  top: "conv2"
}
layer {
  name: "pool2"
  type: "Pooling"
  bottom: "conv2"
  top: "pool2"
  pooling_param {
    pool: MAX
    kernel_size: 3
    stride: 2
  }
}
layer {
  name: "conv3"
  type: "Convolution"
  bottom: "pool2"
  top: "conv3"
  param {
    lr_mult: 1
  }
  param {
    lr_mult: 2
  }
  convolution_param {
    num_output: 128
    pad: 2
    kernel_size: 5
    stride: 1
    weight_filler {
      type: "gaussian"
      std: 0.01
    }
    bias_filler {
      type: "constant"
    }
  }
}
layer {
  name: "relu3"
  type: "ReLU"
  bottom: "conv3"
  top: "conv3"
}
layer {
  name: "conv4"
  type: "Convolution"
  bottom: "conv3"
  top: "conv4"
  param {
    lr_mult: 1
  }
  param {
    lr_mult: 2
  }
  convolution_param {
    num_output: 128
    pad: 2
    kernel_size: 5
    stride: 1
    weight_filler {
      type: "gaussian"
      std: 0.01
    }
    bias_filler {
      type: "constant"
    }
  }
}
layer {
  name: "relu4"
  type: "ReLU"
  bottom: "conv4"
  top: "conv4"
}
layer {
  name: "conv5"
  type: "Convolution"
  bottom: "conv4"
  top: "conv5"
  param {
    lr_mult: 1
  }
  param {
    lr_mult: 2
  }
  convolution_param {
    num_output: 128
    pad: 2
    kernel_size: 5
    stride: 1
    weight_filler {
      type: "gaussian"
      std: 0.01
    }
    bias_filler {
      type: "constant"
    }
  }
}
layer {
  name: "relu5"
  type: "ReLU"
  bottom: "conv5"
  top: "conv5"
}
layer {
  name: "pool5"
  type: "Pooling"
  bottom: "conv5"
  top: "pool5"
  pooling_param {
    pool: AVE
    kernel_size: 3
    stride: 2
  }
}
layer {
  name: "ip1"
  type: "InnerProduct"
  bottom: "pool5"
  top: "ip1"
  param {
    lr_mult: 1
  }
  param {
    lr_mult: 2
  }
  inner_product_param {
    num_output: 1024
    weight_filler {
      type: "gaussian"
      std: 0.1
    }
    bias_filler {
      type: "constant"
    }
  }
}
layer {
  name: "ip2"
  type: "InnerProduct"
  bottom: "ip1"
  top: "ip2"
  param {
    lr_mult: 1
  }
  param {
    lr_mult: 2
  }
  inner_product_param {
    num_output: 512
    weight_filler {
      type: "gaussian"
      std: 0.1
    }
    bias_filler {
      type: "constant"
    }
  }
}
layer {
  name: "ip3"
  type: "InnerProduct"
  bottom: "ip2"
  top: "ip3"
  param {
    lr_mult: 1
  }
  param {
    lr_mult: 2
  }
  inner_product_param {
    num_output: 50
    weight_filler {
      type: "gaussian"
      std: 0.1
    }
    bias_filler {
      type: "constant"
    }
  }
}
layer {
  name: "accuracy"
  type: "Accuracy"
  bottom: "ip3"
  bottom: "label"
  top: "accuracy"
  include {
    phase: TEST
  }
}
layer {
  name: "loss"
  type: "SoftmaxWithLoss"
  bottom: "ip3"
  bottom: "label"
  top: "loss"
}
I0503 14:56:32.645880 21049 layer_factory.hpp:77] Creating layer intercept
I0503 14:56:32.645889 21049 net.cpp:94] Creating Layer intercept
I0503 14:56:32.645894 21049 net.cpp:409] intercept -> data
I0503 14:56:32.645900 21049 net.cpp:409] intercept -> label
I0503 14:56:32.645907 21049 hdf5_data_layer.cpp:79] Loading list of HDF5 filenames from: /home/purduethu/scratch/radon/d/deng106/CNNStatisticalModel/distributions/input/50_distributions_100_sample_size_test-distributions-path.txt
I0503 14:56:32.645926 21049 hdf5_data_layer.cpp:93] Number of HDF5 files: 1
I0503 14:56:32.687098 21049 net.cpp:144] Setting up intercept
I0503 14:56:32.687134 21049 net.cpp:151] Top shape: 20 1 10 10 (2000)
I0503 14:56:32.687139 21049 net.cpp:151] Top shape: 20 (20)
I0503 14:56:32.687142 21049 net.cpp:159] Memory required for data: 8080
I0503 14:56:32.687149 21049 layer_factory.hpp:77] Creating layer label_intercept_1_split
I0503 14:56:32.687170 21049 net.cpp:94] Creating Layer label_intercept_1_split
I0503 14:56:32.687175 21049 net.cpp:435] label_intercept_1_split <- label
I0503 14:56:32.687180 21049 net.cpp:409] label_intercept_1_split -> label_intercept_1_split_0
I0503 14:56:32.687189 21049 net.cpp:409] label_intercept_1_split -> label_intercept_1_split_1
I0503 14:56:32.687227 21049 net.cpp:144] Setting up label_intercept_1_split
I0503 14:56:32.687233 21049 net.cpp:151] Top shape: 20 (20)
I0503 14:56:32.687237 21049 net.cpp:151] Top shape: 20 (20)
I0503 14:56:32.687240 21049 net.cpp:159] Memory required for data: 8240
I0503 14:56:32.687243 21049 layer_factory.hpp:77] Creating layer conv1
I0503 14:56:32.687255 21049 net.cpp:94] Creating Layer conv1
I0503 14:56:32.687258 21049 net.cpp:435] conv1 <- data
I0503 14:56:32.687264 21049 net.cpp:409] conv1 -> conv1
I0503 14:56:32.687937 21049 net.cpp:144] Setting up conv1
I0503 14:56:32.687958 21049 net.cpp:151] Top shape: 20 64 10 10 (128000)
I0503 14:56:32.687963 21049 net.cpp:159] Memory required for data: 520240
I0503 14:56:32.687973 21049 layer_factory.hpp:77] Creating layer relu1
I0503 14:56:32.687979 21049 net.cpp:94] Creating Layer relu1
I0503 14:56:32.687983 21049 net.cpp:435] relu1 <- conv1
I0503 14:56:32.687988 21049 net.cpp:396] relu1 -> conv1 (in-place)
I0503 14:56:32.687995 21049 net.cpp:144] Setting up relu1
I0503 14:56:32.688000 21049 net.cpp:151] Top shape: 20 64 10 10 (128000)
I0503 14:56:32.688004 21049 net.cpp:159] Memory required for data: 1032240
I0503 14:56:32.688006 21049 layer_factory.hpp:77] Creating layer conv2
I0503 14:56:32.688015 21049 net.cpp:94] Creating Layer conv2
I0503 14:56:32.688019 21049 net.cpp:435] conv2 <- conv1
I0503 14:56:32.688024 21049 net.cpp:409] conv2 -> conv2
I0503 14:56:32.691964 21049 net.cpp:144] Setting up conv2
I0503 14:56:32.691978 21049 net.cpp:151] Top shape: 20 64 10 10 (128000)
I0503 14:56:32.691983 21049 net.cpp:159] Memory required for data: 1544240
I0503 14:56:32.691992 21049 layer_factory.hpp:77] Creating layer relu2
I0503 14:56:32.691998 21049 net.cpp:94] Creating Layer relu2
I0503 14:56:32.692001 21049 net.cpp:435] relu2 <- conv2
I0503 14:56:32.692005 21049 net.cpp:396] relu2 -> conv2 (in-place)
I0503 14:56:32.692013 21049 net.cpp:144] Setting up relu2
I0503 14:56:32.692018 21049 net.cpp:151] Top shape: 20 64 10 10 (128000)
I0503 14:56:32.692020 21049 net.cpp:159] Memory required for data: 2056240
I0503 14:56:32.692024 21049 layer_factory.hpp:77] Creating layer pool2
I0503 14:56:32.692030 21049 net.cpp:94] Creating Layer pool2
I0503 14:56:32.692034 21049 net.cpp:435] pool2 <- conv2
I0503 14:56:32.692039 21049 net.cpp:409] pool2 -> pool2
I0503 14:56:32.692072 21049 net.cpp:144] Setting up pool2
I0503 14:56:32.692080 21049 net.cpp:151] Top shape: 20 64 5 5 (32000)
I0503 14:56:32.692082 21049 net.cpp:159] Memory required for data: 2184240
I0503 14:56:32.692085 21049 layer_factory.hpp:77] Creating layer conv3
I0503 14:56:32.692093 21049 net.cpp:94] Creating Layer conv3
I0503 14:56:32.692097 21049 net.cpp:435] conv3 <- pool2
I0503 14:56:32.692102 21049 net.cpp:409] conv3 -> conv3
I0503 14:56:32.698551 21049 net.cpp:144] Setting up conv3
I0503 14:56:32.698565 21049 net.cpp:151] Top shape: 20 128 5 5 (64000)
I0503 14:56:32.698570 21049 net.cpp:159] Memory required for data: 2440240
I0503 14:56:32.698577 21049 layer_factory.hpp:77] Creating layer relu3
I0503 14:56:32.698585 21049 net.cpp:94] Creating Layer relu3
I0503 14:56:32.698588 21049 net.cpp:435] relu3 <- conv3
I0503 14:56:32.698593 21049 net.cpp:396] relu3 -> conv3 (in-place)
I0503 14:56:32.698601 21049 net.cpp:144] Setting up relu3
I0503 14:56:32.698606 21049 net.cpp:151] Top shape: 20 128 5 5 (64000)
I0503 14:56:32.698608 21049 net.cpp:159] Memory required for data: 2696240
I0503 14:56:32.698611 21049 layer_factory.hpp:77] Creating layer conv4
I0503 14:56:32.698619 21049 net.cpp:94] Creating Layer conv4
I0503 14:56:32.698623 21049 net.cpp:435] conv4 <- conv3
I0503 14:56:32.698628 21049 net.cpp:409] conv4 -> conv4
I0503 14:56:32.711168 21049 net.cpp:144] Setting up conv4
I0503 14:56:32.711182 21049 net.cpp:151] Top shape: 20 128 5 5 (64000)
I0503 14:56:32.711186 21049 net.cpp:159] Memory required for data: 2952240
I0503 14:56:32.711194 21049 layer_factory.hpp:77] Creating layer relu4
I0503 14:56:32.711199 21049 net.cpp:94] Creating Layer relu4
I0503 14:56:32.711203 21049 net.cpp:435] relu4 <- conv4
I0503 14:56:32.711211 21049 net.cpp:396] relu4 -> conv4 (in-place)
I0503 14:56:32.711220 21049 net.cpp:144] Setting up relu4
I0503 14:56:32.711225 21049 net.cpp:151] Top shape: 20 128 5 5 (64000)
I0503 14:56:32.711228 21049 net.cpp:159] Memory required for data: 3208240
I0503 14:56:32.711231 21049 layer_factory.hpp:77] Creating layer conv5
I0503 14:56:32.711239 21049 net.cpp:94] Creating Layer conv5
I0503 14:56:32.711242 21049 net.cpp:435] conv5 <- conv4
I0503 14:56:32.711247 21049 net.cpp:409] conv5 -> conv5
I0503 14:56:32.723762 21049 net.cpp:144] Setting up conv5
I0503 14:56:32.723798 21049 net.cpp:151] Top shape: 20 128 5 5 (64000)
I0503 14:56:32.723805 21049 net.cpp:159] Memory required for data: 3464240
I0503 14:56:32.723821 21049 layer_factory.hpp:77] Creating layer relu5
I0503 14:56:32.723832 21049 net.cpp:94] Creating Layer relu5
I0503 14:56:32.723839 21049 net.cpp:435] relu5 <- conv5
I0503 14:56:32.723848 21049 net.cpp:396] relu5 -> conv5 (in-place)
I0503 14:56:32.723861 21049 net.cpp:144] Setting up relu5
I0503 14:56:32.723870 21049 net.cpp:151] Top shape: 20 128 5 5 (64000)
I0503 14:56:32.723876 21049 net.cpp:159] Memory required for data: 3720240
I0503 14:56:32.723882 21049 layer_factory.hpp:77] Creating layer pool5
I0503 14:56:32.723891 21049 net.cpp:94] Creating Layer pool5
I0503 14:56:32.723897 21049 net.cpp:435] pool5 <- conv5
I0503 14:56:32.723906 21049 net.cpp:409] pool5 -> pool5
I0503 14:56:32.723951 21049 net.cpp:144] Setting up pool5
I0503 14:56:32.723958 21049 net.cpp:151] Top shape: 20 128 2 2 (10240)
I0503 14:56:32.723960 21049 net.cpp:159] Memory required for data: 3761200
I0503 14:56:32.723963 21049 layer_factory.hpp:77] Creating layer ip1
I0503 14:56:32.723970 21049 net.cpp:94] Creating Layer ip1
I0503 14:56:32.723974 21049 net.cpp:435] ip1 <- pool5
I0503 14:56:32.723978 21049 net.cpp:409] ip1 -> ip1
I0503 14:56:32.737481 21049 net.cpp:144] Setting up ip1
I0503 14:56:32.737495 21049 net.cpp:151] Top shape: 20 1024 (20480)
I0503 14:56:32.737499 21049 net.cpp:159] Memory required for data: 3843120
I0503 14:56:32.737505 21049 layer_factory.hpp:77] Creating layer ip2
I0503 14:56:32.737512 21049 net.cpp:94] Creating Layer ip2
I0503 14:56:32.737516 21049 net.cpp:435] ip2 <- ip1
I0503 14:56:32.737521 21049 net.cpp:409] ip2 -> ip2
I0503 14:56:32.750952 21049 net.cpp:144] Setting up ip2
I0503 14:56:32.750965 21049 net.cpp:151] Top shape: 20 512 (10240)
I0503 14:56:32.750969 21049 net.cpp:159] Memory required for data: 3884080
I0503 14:56:32.750975 21049 layer_factory.hpp:77] Creating layer ip3
I0503 14:56:32.750983 21049 net.cpp:94] Creating Layer ip3
I0503 14:56:32.750988 21049 net.cpp:435] ip3 <- ip2
I0503 14:56:32.750993 21049 net.cpp:409] ip3 -> ip3
I0503 14:56:32.751698 21049 net.cpp:144] Setting up ip3
I0503 14:56:32.751705 21049 net.cpp:151] Top shape: 20 50 (1000)
I0503 14:56:32.751709 21049 net.cpp:159] Memory required for data: 3888080
I0503 14:56:32.751714 21049 layer_factory.hpp:77] Creating layer ip3_ip3_0_split
I0503 14:56:32.751720 21049 net.cpp:94] Creating Layer ip3_ip3_0_split
I0503 14:56:32.751724 21049 net.cpp:435] ip3_ip3_0_split <- ip3
I0503 14:56:32.751729 21049 net.cpp:409] ip3_ip3_0_split -> ip3_ip3_0_split_0
I0503 14:56:32.751734 21049 net.cpp:409] ip3_ip3_0_split -> ip3_ip3_0_split_1
I0503 14:56:32.751760 21049 net.cpp:144] Setting up ip3_ip3_0_split
I0503 14:56:32.751765 21049 net.cpp:151] Top shape: 20 50 (1000)
I0503 14:56:32.751770 21049 net.cpp:151] Top shape: 20 50 (1000)
I0503 14:56:32.751772 21049 net.cpp:159] Memory required for data: 3896080
I0503 14:56:32.751775 21049 layer_factory.hpp:77] Creating layer accuracy
I0503 14:56:32.751781 21049 net.cpp:94] Creating Layer accuracy
I0503 14:56:32.751785 21049 net.cpp:435] accuracy <- ip3_ip3_0_split_0
I0503 14:56:32.751788 21049 net.cpp:435] accuracy <- label_intercept_1_split_0
I0503 14:56:32.751793 21049 net.cpp:409] accuracy -> accuracy
…
