…
I0505 02:47:20.760027  2811 net.cpp:323] The NetState phase (0) differed from the phase (1) specified by a rule in layer intercept
I0505 02:47:20.760041  2811 net.cpp:323] The NetState phase (0) differed from the phase (1) specified by a rule in layer loss
I0505 02:47:20.760118  2811 net.cpp:52] Initializing net from parameters: 
state {
  phase: TRAIN
}
layer {
  name: "parameters"
  type: "HDF5Data"
  top: "data"
  top: "label"
  include {
    phase: TRAIN
  }
  hdf5_data_param {
    source: "/home/purduethu/scratch/radon/d/deng106/CNNStatisticalModel/distributions/input/50_distributions_900_sample_size_train-parameters-path.txt"
    batch_size: 20
  }
}
layer {
  name: "conv1"
  type: "Convolution"
  bottom: "data"
  top: "conv1"
  param {
    lr_mult: 1
  }
  param {
    lr_mult: 2
  }
  convolution_param {
    num_output: 64
    pad: 2
    kernel_size: 5
    stride: 1
    weight_filler {
      type: "gaussian"
      std: 0.0001
    }
    bias_filler {
      type: "constant"
    }
  }
}
layer {
  name: "relu1"
  type: "ReLU"
  bottom: "conv1"
  top: "conv1"
}
layer {
  name: "pool1"
  type: "Pooling"
  bottom: "conv1"
  top: "pool1"
  pooling_param {
    pool: MAX
    kernel_size: 3
    stride: 2
  }
}
layer {
  name: "conv2"
  type: "Convolution"
  bottom: "pool1"
  top: "conv2"
  param {
    lr_mult: 1
  }
  param {
    lr_mult: 2
  }
  convolution_param {
    num_output: 128
    pad: 2
    kernel_size: 5
    stride: 1
    weight_filler {
      type: "gaussian"
      std: 0.01
    }
    bias_filler {
      type: "constant"
    }
  }
}
layer {
  name: "relu2"
  type: "ReLU"
  bottom: "conv2"
  top: "conv2"
}
layer {
  name: "conv3"
  type: "Convolution"
  bottom: "conv2"
  top: "conv3"
  param {
    lr_mult: 1
  }
  param {
    lr_mult: 2
  }
  convolution_param {
    num_output: 128
    pad: 2
    kernel_size: 5
    stride: 1
    weight_filler {
      type: "gaussian"
      std: 0.01
    }
    bias_filler {
      type: "constant"
    }
  }
}
layer {
  name: "relu3"
  type: "ReLU"
  bottom: "conv3"
  top: "conv3"
}
layer {
  name: "pool3"
  type: "Pooling"
  bottom: "conv3"
  top: "pool3"
  pooling_param {
    pool: AVE
    kernel_size: 3
    stride: 2
  }
}
layer {
  name: "ip1"
  type: "InnerProduct"
  bottom: "pool3"
  top: "ip1"
  param {
    lr_mult: 1
  }
  param {
    lr_mult: 2
  }
  inner_product_param {
    num_output: 512
    weight_filler {
      type: "gaussian"
      std: 0.1
    }
    bias_filler {
      type: "constant"
    }
  }
}
layer {
  name: "ip2"
  type: "InnerProduct"
  bottom: "ip1"
  top: "ip2"
  param {
    lr_mult: 1
  }
  param {
    lr_mult: 2
  }
  inner_product_param {
    num_output: 256
    weight_filler {
      type: "gaussian"
      std: 0.1
    }
    bias_filler {
      type: "constant"
    }
  }
}
layer {
  name: "ip3"
  type: "InnerProduct"
  bottom: "ip2"
  top: "ip3"
  param {
    lr_mult: 1
  }
  param {
    lr_mult: 2
  }
  inner_product_param {
    num_output: 1
    weight_filler {
      type: "gaussian"
      std: 0.1
    }
    bias_filler {
      type: "constant"
    }
  }
}
layer {
  name: "loss"
  type: "HuberLoss"
  bottom: "ip3"
  bottom: "label"
  top: "loss"
  include {
    phase: TRAIN
  }
}
I0505 02:47:20.760179  2811 layer_factory.hpp:77] Creating layer parameters
I0505 02:47:20.760193  2811 net.cpp:94] Creating Layer parameters
I0505 02:47:20.760207  2811 net.cpp:409] parameters -> data
I0505 02:47:20.760226  2811 net.cpp:409] parameters -> label
I0505 02:47:20.760236  2811 hdf5_data_layer.cpp:79] Loading list of HDF5 filenames from: /home/purduethu/scratch/radon/d/deng106/CNNStatisticalModel/distributions/input/50_distributions_900_sample_size_train-parameters-path.txt
I0505 02:47:20.760258  2811 hdf5_data_layer.cpp:93] Number of HDF5 files: 1
I0505 02:47:20.760746  2811 hdf5.cpp:32] Datatype class: H5T_FLOAT
I0505 02:47:22.184244  2811 net.cpp:144] Setting up parameters
I0505 02:47:22.184281  2811 net.cpp:151] Top shape: 20 1 30 30 (18000)
I0505 02:47:22.184288  2811 net.cpp:151] Top shape: 20 (20)
I0505 02:47:22.184291  2811 net.cpp:159] Memory required for data: 72080
I0505 02:47:22.184299  2811 layer_factory.hpp:77] Creating layer conv1
I0505 02:47:22.184319  2811 net.cpp:94] Creating Layer conv1
I0505 02:47:22.184325  2811 net.cpp:435] conv1 <- data
I0505 02:47:22.184336  2811 net.cpp:409] conv1 -> conv1
I0505 02:47:22.190243  2811 net.cpp:144] Setting up conv1
I0505 02:47:22.190260  2811 net.cpp:151] Top shape: 20 64 30 30 (1152000)
I0505 02:47:22.190265  2811 net.cpp:159] Memory required for data: 4680080
I0505 02:47:22.190277  2811 layer_factory.hpp:77] Creating layer relu1
I0505 02:47:22.190286  2811 net.cpp:94] Creating Layer relu1
I0505 02:47:22.190290  2811 net.cpp:435] relu1 <- conv1
I0505 02:47:22.190295  2811 net.cpp:396] relu1 -> conv1 (in-place)
I0505 02:47:22.190311  2811 net.cpp:144] Setting up relu1
I0505 02:47:22.190317  2811 net.cpp:151] Top shape: 20 64 30 30 (1152000)
I0505 02:47:22.190320  2811 net.cpp:159] Memory required for data: 9288080
I0505 02:47:22.190323  2811 layer_factory.hpp:77] Creating layer pool1
I0505 02:47:22.190331  2811 net.cpp:94] Creating Layer pool1
I0505 02:47:22.190335  2811 net.cpp:435] pool1 <- conv1
I0505 02:47:22.190340  2811 net.cpp:409] pool1 -> pool1
I0505 02:47:22.190382  2811 net.cpp:144] Setting up pool1
I0505 02:47:22.190389  2811 net.cpp:151] Top shape: 20 64 15 15 (288000)
I0505 02:47:22.190393  2811 net.cpp:159] Memory required for data: 10440080
I0505 02:47:22.190397  2811 layer_factory.hpp:77] Creating layer conv2
I0505 02:47:22.190405  2811 net.cpp:94] Creating Layer conv2
I0505 02:47:22.190409  2811 net.cpp:435] conv2 <- pool1
I0505 02:47:22.190414  2811 net.cpp:409] conv2 -> conv2
I0505 02:47:22.203306  2811 net.cpp:144] Setting up conv2
I0505 02:47:22.203323  2811 net.cpp:151] Top shape: 20 128 15 15 (576000)
I0505 02:47:22.203327  2811 net.cpp:159] Memory required for data: 12744080
I0505 02:47:22.203336  2811 layer_factory.hpp:77] Creating layer relu2
I0505 02:47:22.203342  2811 net.cpp:94] Creating Layer relu2
I0505 02:47:22.203346  2811 net.cpp:435] relu2 <- conv2
I0505 02:47:22.203351  2811 net.cpp:396] relu2 -> conv2 (in-place)
I0505 02:47:22.203358  2811 net.cpp:144] Setting up relu2
I0505 02:47:22.203363  2811 net.cpp:151] Top shape: 20 128 15 15 (576000)
I0505 02:47:22.203366  2811 net.cpp:159] Memory required for data: 15048080
I0505 02:47:22.203371  2811 layer_factory.hpp:77] Creating layer conv3
I0505 02:47:22.203378  2811 net.cpp:94] Creating Layer conv3
I0505 02:47:22.203382  2811 net.cpp:435] conv3 <- conv2
I0505 02:47:22.203387  2811 net.cpp:409] conv3 -> conv3
I0505 02:47:22.225019  2811 net.cpp:144] Setting up conv3
I0505 02:47:22.225035  2811 net.cpp:151] Top shape: 20 128 15 15 (576000)
I0505 02:47:22.225039  2811 net.cpp:159] Memory required for data: 17352080
I0505 02:47:22.225049  2811 layer_factory.hpp:77] Creating layer relu3
I0505 02:47:22.225062  2811 net.cpp:94] Creating Layer relu3
I0505 02:47:22.225067  2811 net.cpp:435] relu3 <- conv3
I0505 02:47:22.225072  2811 net.cpp:396] relu3 -> conv3 (in-place)
I0505 02:47:22.225080  2811 net.cpp:144] Setting up relu3
I0505 02:47:22.225085  2811 net.cpp:151] Top shape: 20 128 15 15 (576000)
I0505 02:47:22.225087  2811 net.cpp:159] Memory required for data: 19656080
I0505 02:47:22.225091  2811 layer_factory.hpp:77] Creating layer pool3
I0505 02:47:22.225097  2811 net.cpp:94] Creating Layer pool3
I0505 02:47:22.225100  2811 net.cpp:435] pool3 <- conv3
I0505 02:47:22.225112  2811 net.cpp:409] pool3 -> pool3
I0505 02:47:22.225147  2811 net.cpp:144] Setting up pool3
I0505 02:47:22.225154  2811 net.cpp:151] Top shape: 20 128 7 7 (125440)
I0505 02:47:22.225157  2811 net.cpp:159] Memory required for data: 20157840
I0505 02:47:22.225160  2811 layer_factory.hpp:77] Creating layer ip1
I0505 02:47:22.225172  2811 net.cpp:94] Creating Layer ip1
I0505 02:47:22.225174  2811 net.cpp:435] ip1 <- pool3
I0505 02:47:22.225179  2811 net.cpp:409] ip1 -> ip1
I0505 02:47:22.304060  2811 net.cpp:144] Setting up ip1
I0505 02:47:22.304095  2811 net.cpp:151] Top shape: 20 512 (10240)
I0505 02:47:22.304100  2811 net.cpp:159] Memory required for data: 20198800
I0505 02:47:22.304107  2811 layer_factory.hpp:77] Creating layer ip2
I0505 02:47:22.304117  2811 net.cpp:94] Creating Layer ip2
I0505 02:47:22.304122  2811 net.cpp:435] ip2 <- ip1
I0505 02:47:22.304128  2811 net.cpp:409] ip2 -> ip2
I0505 02:47:22.307330  2811 net.cpp:144] Setting up ip2
I0505 02:47:22.307340  2811 net.cpp:151] Top shape: 20 256 (5120)
I0505 02:47:22.307344  2811 net.cpp:159] Memory required for data: 20219280
I0505 02:47:22.307353  2811 layer_factory.hpp:77] Creating layer ip3
I0505 02:47:22.307358  2811 net.cpp:94] Creating Layer ip3
I0505 02:47:22.307363  2811 net.cpp:435] ip3 <- ip2
I0505 02:47:22.307368  2811 net.cpp:409] ip3 -> ip3
I0505 02:47:22.307432  2811 net.cpp:144] Setting up ip3
I0505 02:47:22.307440  2811 net.cpp:151] Top shape: 20 1 (20)
I0505 02:47:22.307442  2811 net.cpp:159] Memory required for data: 20219360
I0505 02:47:22.307447  2811 layer_factory.hpp:77] Creating layer loss
I0505 02:47:22.307461  2811 net.cpp:94] Creating Layer loss
I0505 02:47:22.307463  2811 net.cpp:435] loss <- ip3
I0505 02:47:22.307467  2811 net.cpp:435] loss <- label
I0505 02:47:22.307473  2811 net.cpp:409] loss -> loss
I0505 02:47:22.307508  2811 net.cpp:144] Setting up loss
…
