…
I0505 00:37:13.187038  1328 net.cpp:323] The NetState phase (0) differed from the phase (1) specified by a rule in layer intercept
I0505 00:37:13.187053  1328 net.cpp:323] The NetState phase (0) differed from the phase (1) specified by a rule in layer loss
I0505 00:37:13.187134  1328 net.cpp:52] Initializing net from parameters: 
state {
  phase: TRAIN
}
layer {
  name: "parameters"
  type: "HDF5Data"
  top: "data"
  top: "label"
  include {
    phase: TRAIN
  }
  hdf5_data_param {
    source: "/home/purduethu/scratch/radon/d/deng106/CNNStatisticalModel/distributions/input/5_distributions_400_sample_size_train-parameters-path.txt"
    batch_size: 20
  }
}
layer {
  name: "conv1"
  type: "Convolution"
  bottom: "data"
  top: "conv1"
  param {
    lr_mult: 1
  }
  param {
    lr_mult: 2
  }
  convolution_param {
    num_output: 64
    pad: 2
    kernel_size: 5
    stride: 1
    weight_filler {
      type: "gaussian"
      std: 0.0001
    }
    bias_filler {
      type: "constant"
    }
  }
}
layer {
  name: "relu1"
  type: "ReLU"
  bottom: "conv1"
  top: "conv1"
}
layer {
  name: "pool1"
  type: "Pooling"
  bottom: "conv1"
  top: "pool1"
  pooling_param {
    pool: MAX
    kernel_size: 3
    stride: 2
  }
}
layer {
  name: "conv2"
  type: "Convolution"
  bottom: "pool1"
  top: "conv2"
  param {
    lr_mult: 1
  }
  param {
    lr_mult: 2
  }
  convolution_param {
    num_output: 128
    pad: 2
    kernel_size: 5
    stride: 1
    weight_filler {
      type: "gaussian"
      std: 0.01
    }
    bias_filler {
      type: "constant"
    }
  }
}
layer {
  name: "relu2"
  type: "ReLU"
  bottom: "conv2"
  top: "conv2"
}
layer {
  name: "conv3"
  type: "Convolution"
  bottom: "conv2"
  top: "conv3"
  param {
    lr_mult: 1
  }
  param {
    lr_mult: 2
  }
  convolution_param {
    num_output: 128
    pad: 2
    kernel_size: 5
    stride: 1
    weight_filler {
      type: "gaussian"
      std: 0.01
    }
    bias_filler {
      type: "constant"
    }
  }
}
layer {
  name: "relu3"
  type: "ReLU"
  bottom: "conv3"
  top: "conv3"
}
layer {
  name: "pool3"
  type: "Pooling"
  bottom: "conv3"
  top: "pool3"
  pooling_param {
    pool: AVE
    kernel_size: 3
    stride: 2
  }
}
layer {
  name: "ip1"
  type: "InnerProduct"
  bottom: "pool3"
  top: "ip1"
  param {
    lr_mult: 1
  }
  param {
    lr_mult: 2
  }
  inner_product_param {
    num_output: 512
    weight_filler {
      type: "gaussian"
      std: 0.1
    }
    bias_filler {
      type: "constant"
    }
  }
}
layer {
  name: "ip2"
  type: "InnerProduct"
  bottom: "ip1"
  top: "ip2"
  param {
    lr_mult: 1
  }
  param {
    lr_mult: 2
  }
  inner_product_param {
    num_output: 256
    weight_filler {
      type: "gaussian"
      std: 0.1
    }
    bias_filler {
      type: "constant"
    }
  }
}
layer {
  name: "ip3"
  type: "InnerProduct"
  bottom: "ip2"
  top: "ip3"
  param {
    lr_mult: 1
  }
  param {
    lr_mult: 2
  }
  inner_product_param {
    num_output: 1
    weight_filler {
      type: "gaussian"
      std: 0.1
    }
    bias_filler {
      type: "constant"
    }
  }
}
layer {
  name: "loss"
  type: "HuberLoss"
  bottom: "ip3"
  bottom: "label"
  top: "loss"
  include {
    phase: TRAIN
  }
}
I0505 00:37:13.187199  1328 layer_factory.hpp:77] Creating layer parameters
I0505 00:37:13.187214  1328 net.cpp:94] Creating Layer parameters
I0505 00:37:13.187227  1328 net.cpp:409] parameters -> data
I0505 00:37:13.187247  1328 net.cpp:409] parameters -> label
I0505 00:37:13.187258  1328 hdf5_data_layer.cpp:79] Loading list of HDF5 filenames from: /home/purduethu/scratch/radon/d/deng106/CNNStatisticalModel/distributions/input/5_distributions_400_sample_size_train-parameters-path.txt
I0505 00:37:13.187281  1328 hdf5_data_layer.cpp:93] Number of HDF5 files: 1
I0505 00:37:13.187906  1328 hdf5.cpp:32] Datatype class: H5T_FLOAT
I0505 00:37:13.252732  1328 net.cpp:144] Setting up parameters
I0505 00:37:13.252765  1328 net.cpp:151] Top shape: 20 1 20 20 (8000)
I0505 00:37:13.252771  1328 net.cpp:151] Top shape: 20 (20)
I0505 00:37:13.252775  1328 net.cpp:159] Memory required for data: 32080
I0505 00:37:13.252784  1328 layer_factory.hpp:77] Creating layer conv1
I0505 00:37:13.252802  1328 net.cpp:94] Creating Layer conv1
I0505 00:37:13.252809  1328 net.cpp:435] conv1 <- data
I0505 00:37:13.252820  1328 net.cpp:409] conv1 -> conv1
I0505 00:37:13.257633  1328 net.cpp:144] Setting up conv1
I0505 00:37:13.257655  1328 net.cpp:151] Top shape: 20 64 20 20 (512000)
I0505 00:37:13.257660  1328 net.cpp:159] Memory required for data: 2080080
I0505 00:37:13.257673  1328 layer_factory.hpp:77] Creating layer relu1
I0505 00:37:13.257680  1328 net.cpp:94] Creating Layer relu1
I0505 00:37:13.257684  1328 net.cpp:435] relu1 <- conv1
I0505 00:37:13.257689  1328 net.cpp:396] relu1 -> conv1 (in-place)
I0505 00:37:13.257709  1328 net.cpp:144] Setting up relu1
I0505 00:37:13.257714  1328 net.cpp:151] Top shape: 20 64 20 20 (512000)
I0505 00:37:13.257717  1328 net.cpp:159] Memory required for data: 4128080
I0505 00:37:13.257720  1328 layer_factory.hpp:77] Creating layer pool1
I0505 00:37:13.257727  1328 net.cpp:94] Creating Layer pool1
I0505 00:37:13.257730  1328 net.cpp:435] pool1 <- conv1
I0505 00:37:13.257735  1328 net.cpp:409] pool1 -> pool1
I0505 00:37:13.257777  1328 net.cpp:144] Setting up pool1
I0505 00:37:13.257784  1328 net.cpp:151] Top shape: 20 64 10 10 (128000)
I0505 00:37:13.257788  1328 net.cpp:159] Memory required for data: 4640080
I0505 00:37:13.257791  1328 layer_factory.hpp:77] Creating layer conv2
I0505 00:37:13.257800  1328 net.cpp:94] Creating Layer conv2
I0505 00:37:13.257804  1328 net.cpp:435] conv2 <- pool1
I0505 00:37:13.257809  1328 net.cpp:409] conv2 -> conv2
I0505 00:37:13.268105  1328 net.cpp:144] Setting up conv2
I0505 00:37:13.268128  1328 net.cpp:151] Top shape: 20 128 10 10 (256000)
I0505 00:37:13.268133  1328 net.cpp:159] Memory required for data: 5664080
I0505 00:37:13.268142  1328 layer_factory.hpp:77] Creating layer relu2
I0505 00:37:13.268151  1328 net.cpp:94] Creating Layer relu2
I0505 00:37:13.268154  1328 net.cpp:435] relu2 <- conv2
I0505 00:37:13.268159  1328 net.cpp:396] relu2 -> conv2 (in-place)
I0505 00:37:13.268167  1328 net.cpp:144] Setting up relu2
I0505 00:37:13.268172  1328 net.cpp:151] Top shape: 20 128 10 10 (256000)
I0505 00:37:13.268175  1328 net.cpp:159] Memory required for data: 6688080
I0505 00:37:13.268178  1328 layer_factory.hpp:77] Creating layer conv3
I0505 00:37:13.268187  1328 net.cpp:94] Creating Layer conv3
I0505 00:37:13.268191  1328 net.cpp:435] conv3 <- conv2
I0505 00:37:13.268196  1328 net.cpp:409] conv3 -> conv3
I0505 00:37:13.286023  1328 net.cpp:144] Setting up conv3
I0505 00:37:13.286075  1328 net.cpp:151] Top shape: 20 128 10 10 (256000)
I0505 00:37:13.286088  1328 net.cpp:159] Memory required for data: 7712080
I0505 00:37:13.286113  1328 layer_factory.hpp:77] Creating layer relu3
I0505 00:37:13.286131  1328 net.cpp:94] Creating Layer relu3
I0505 00:37:13.286154  1328 net.cpp:435] relu3 <- conv3
I0505 00:37:13.286170  1328 net.cpp:396] relu3 -> conv3 (in-place)
I0505 00:37:13.286191  1328 net.cpp:144] Setting up relu3
I0505 00:37:13.286206  1328 net.cpp:151] Top shape: 20 128 10 10 (256000)
I0505 00:37:13.286214  1328 net.cpp:159] Memory required for data: 8736080
I0505 00:37:13.286223  1328 layer_factory.hpp:77] Creating layer pool3
I0505 00:37:13.286239  1328 net.cpp:94] Creating Layer pool3
I0505 00:37:13.286248  1328 net.cpp:435] pool3 <- conv3
I0505 00:37:13.286276  1328 net.cpp:409] pool3 -> pool3
I0505 00:37:13.286370  1328 net.cpp:144] Setting up pool3
I0505 00:37:13.286386  1328 net.cpp:151] Top shape: 20 128 5 5 (64000)
I0505 00:37:13.286396  1328 net.cpp:159] Memory required for data: 8992080
I0505 00:37:13.286406  1328 layer_factory.hpp:77] Creating layer ip1
I0505 00:37:13.286422  1328 net.cpp:94] Creating Layer ip1
I0505 00:37:13.286432  1328 net.cpp:435] ip1 <- pool3
I0505 00:37:13.286447  1328 net.cpp:409] ip1 -> ip1
I0505 00:37:13.327913  1328 net.cpp:144] Setting up ip1
I0505 00:37:13.327950  1328 net.cpp:151] Top shape: 20 512 (10240)
I0505 00:37:13.327955  1328 net.cpp:159] Memory required for data: 9033040
I0505 00:37:13.327965  1328 layer_factory.hpp:77] Creating layer ip2
I0505 00:37:13.327975  1328 net.cpp:94] Creating Layer ip2
I0505 00:37:13.327980  1328 net.cpp:435] ip2 <- ip1
I0505 00:37:13.327986  1328 net.cpp:409] ip2 -> ip2
I0505 00:37:13.331264  1328 net.cpp:144] Setting up ip2
I0505 00:37:13.331274  1328 net.cpp:151] Top shape: 20 256 (5120)
I0505 00:37:13.331277  1328 net.cpp:159] Memory required for data: 9053520
I0505 00:37:13.331284  1328 layer_factory.hpp:77] Creating layer ip3
I0505 00:37:13.331291  1328 net.cpp:94] Creating Layer ip3
I0505 00:37:13.331295  1328 net.cpp:435] ip3 <- ip2
I0505 00:37:13.331300  1328 net.cpp:409] ip3 -> ip3
I0505 00:37:13.331367  1328 net.cpp:144] Setting up ip3
I0505 00:37:13.331374  1328 net.cpp:151] Top shape: 20 1 (20)
I0505 00:37:13.331377  1328 net.cpp:159] Memory required for data: 9053600
I0505 00:37:13.331382  1328 layer_factory.hpp:77] Creating layer loss
I0505 00:37:13.331396  1328 net.cpp:94] Creating Layer loss
I0505 00:37:13.331400  1328 net.cpp:435] loss <- ip3
I0505 00:37:13.331404  1328 net.cpp:435] loss <- label
I0505 00:37:13.331410  1328 net.cpp:409] loss -> loss
I0505 00:37:13.331446  1328 net.cpp:144] Setting up loss
…
