…
I0502 13:29:53.599364  2843 net.cpp:323] The NetState phase (0) differed from the phase (1) specified by a rule in layer intercept
I0502 13:29:53.599380  2843 net.cpp:323] The NetState phase (0) differed from the phase (1) specified by a rule in layer loss
I0502 13:29:53.599457  2843 net.cpp:52] Initializing net from parameters: 
state {
  phase: TRAIN
}
layer {
  name: "parameters"
  type: "HDF5Data"
  top: "data"
  top: "label"
  include {
    phase: TRAIN
  }
  hdf5_data_param {
    source: "/home/purduethu/scratch/radon/d/deng106/CNNStatisticalModel/distributions/input/5_distributions_100_sample_size_train-parameters-path.txt"
    batch_size: 20
  }
}
layer {
  name: "conv1"
  type: "Convolution"
  bottom: "data"
  top: "conv1"
  param {
    lr_mult: 1
  }
  param {
    lr_mult: 2
  }
  convolution_param {
    num_output: 64
    pad: 2
    kernel_size: 5
    stride: 1
    weight_filler {
      type: "gaussian"
      std: 0.0001
    }
    bias_filler {
      type: "constant"
    }
  }
}
layer {
  name: "relu1"
  type: "ReLU"
  bottom: "conv1"
  top: "conv1"
}
layer {
  name: "conv2"
  type: "Convolution"
  bottom: "conv1"
  top: "conv2"
  param {
    lr_mult: 1
  }
  param {
    lr_mult: 2
  }
  convolution_param {
    num_output: 64
    pad: 2
    kernel_size: 5
    stride: 1
    weight_filler {
      type: "gaussian"
      std: 0.01
    }
    bias_filler {
      type: "constant"
    }
  }
}
layer {
  name: "relu2"
  type: "ReLU"
  bottom: "conv2"
  top: "conv2"
}
layer {
  name: "pool2"
  type: "Pooling"
  bottom: "conv2"
  top: "pool2"
  pooling_param {
    pool: MAX
    kernel_size: 3
    stride: 2
  }
}
layer {
  name: "conv3"
  type: "Convolution"
  bottom: "pool2"
  top: "conv3"
  param {
    lr_mult: 1
  }
  param {
    lr_mult: 2
  }
  convolution_param {
    num_output: 64
    pad: 2
    kernel_size: 5
    stride: 1
    weight_filler {
      type: "gaussian"
      std: 0.01
    }
    bias_filler {
      type: "constant"
    }
  }
}
layer {
  name: "relu3"
  type: "ReLU"
  bottom: "conv3"
  top: "conv3"
}
layer {
  name: "conv4"
  type: "Convolution"
  bottom: "conv3"
  top: "conv4"
  param {
    lr_mult: 1
  }
  param {
    lr_mult: 2
  }
  convolution_param {
    num_output: 64
    pad: 2
    kernel_size: 5
    stride: 1
    weight_filler {
      type: "gaussian"
      std: 0.01
    }
    bias_filler {
      type: "constant"
    }
  }
}
layer {
  name: "relu4"
  type: "ReLU"
  bottom: "conv4"
  top: "conv4"
}
layer {
  name: "conv5"
  type: "Convolution"
  bottom: "conv4"
  top: "conv5"
  param {
    lr_mult: 1
  }
  param {
    lr_mult: 2
  }
  convolution_param {
    num_output: 64
    pad: 2
    kernel_size: 5
    stride: 1
    weight_filler {
      type: "gaussian"
      std: 0.01
    }
    bias_filler {
      type: "constant"
    }
  }
}
layer {
  name: "relu5"
  type: "ReLU"
  bottom: "conv5"
  top: "conv5"
}
layer {
  name: "pool5"
  type: "Pooling"
  bottom: "conv5"
  top: "pool5"
  pooling_param {
    pool: AVE
    kernel_size: 3
    stride: 2
  }
}
layer {
  name: "ip1"
  type: "InnerProduct"
  bottom: "pool5"
  top: "ip1"
  param {
    lr_mult: 1
  }
  param {
    lr_mult: 2
  }
  inner_product_param {
    num_output: 64
    weight_filler {
      type: "gaussian"
      std: 0.1
    }
    bias_filler {
      type: "constant"
    }
  }
}
layer {
  name: "ip2"
  type: "InnerProduct"
  bottom: "ip1"
  top: "ip2"
  param {
    lr_mult: 1
  }
  param {
    lr_mult: 2
  }
  inner_product_param {
    num_output: 64
    weight_filler {
      type: "gaussian"
      std: 0.1
    }
    bias_filler {
      type: "constant"
    }
  }
}
layer {
  name: "ip3"
  type: "InnerProduct"
  bottom: "ip2"
  top: "ip3"
  param {
    lr_mult: 1
  }
  param {
    lr_mult: 2
  }
  inner_product_param {
    num_output: 1
    weight_filler {
      type: "gaussian"
      std: 0.1
    }
    bias_filler {
      type: "constant"
    }
  }
}
layer {
  name: "loss"
  type: "HuberLoss"
  bottom: "ip3"
  bottom: "label"
  top: "loss"
  include {
    phase: TRAIN
  }
}
I0502 13:29:53.599509  2843 layer_factory.hpp:77] Creating layer parameters
I0502 13:29:53.599526  2843 net.cpp:94] Creating Layer parameters
I0502 13:29:53.599530  2843 net.cpp:409] parameters -> data
I0502 13:29:53.599539  2843 net.cpp:409] parameters -> label
I0502 13:29:53.599545  2843 hdf5_data_layer.cpp:79] Loading list of HDF5 filenames from: /home/purduethu/scratch/radon/d/deng106/CNNStatisticalModel/distributions/input/5_distributions_100_sample_size_train-parameters-path.txt
I0502 13:29:53.599560  2843 hdf5_data_layer.cpp:93] Number of HDF5 files: 1
I0502 13:29:53.600118  2843 hdf5.cpp:32] Datatype class: H5T_FLOAT
I0502 13:29:53.618732  2843 net.cpp:144] Setting up parameters
I0502 13:29:53.618762  2843 net.cpp:151] Top shape: 20 1 10 10 (2000)
I0502 13:29:53.618767  2843 net.cpp:151] Top shape: 20 (20)
I0502 13:29:53.618770  2843 net.cpp:159] Memory required for data: 8080
I0502 13:29:53.618775  2843 layer_factory.hpp:77] Creating layer conv1
I0502 13:29:53.618798  2843 net.cpp:94] Creating Layer conv1
I0502 13:29:53.618803  2843 net.cpp:435] conv1 <- data
I0502 13:29:53.618808  2843 net.cpp:409] conv1 -> conv1
I0502 13:29:53.623009  2843 net.cpp:144] Setting up conv1
I0502 13:29:53.623024  2843 net.cpp:151] Top shape: 20 64 10 10 (128000)
I0502 13:29:53.623028  2843 net.cpp:159] Memory required for data: 520080
I0502 13:29:53.623039  2843 layer_factory.hpp:77] Creating layer relu1
I0502 13:29:53.623045  2843 net.cpp:94] Creating Layer relu1
I0502 13:29:53.623049  2843 net.cpp:435] relu1 <- conv1
I0502 13:29:53.623054  2843 net.cpp:396] relu1 -> conv1 (in-place)
I0502 13:29:53.623064  2843 net.cpp:144] Setting up relu1
I0502 13:29:53.623070  2843 net.cpp:151] Top shape: 20 64 10 10 (128000)
I0502 13:29:53.623072  2843 net.cpp:159] Memory required for data: 1032080
I0502 13:29:53.623075  2843 layer_factory.hpp:77] Creating layer conv2
I0502 13:29:53.623082  2843 net.cpp:94] Creating Layer conv2
I0502 13:29:53.623086  2843 net.cpp:435] conv2 <- conv1
I0502 13:29:53.623090  2843 net.cpp:409] conv2 -> conv2
I0502 13:29:53.629216  2843 net.cpp:144] Setting up conv2
I0502 13:29:53.629231  2843 net.cpp:151] Top shape: 20 64 10 10 (128000)
I0502 13:29:53.629235  2843 net.cpp:159] Memory required for data: 1544080
I0502 13:29:53.629242  2843 layer_factory.hpp:77] Creating layer relu2
I0502 13:29:53.629250  2843 net.cpp:94] Creating Layer relu2
I0502 13:29:53.629252  2843 net.cpp:435] relu2 <- conv2
I0502 13:29:53.629257  2843 net.cpp:396] relu2 -> conv2 (in-place)
I0502 13:29:53.629264  2843 net.cpp:144] Setting up relu2
I0502 13:29:53.629268  2843 net.cpp:151] Top shape: 20 64 10 10 (128000)
I0502 13:29:53.629271  2843 net.cpp:159] Memory required for data: 2056080
I0502 13:29:53.629274  2843 layer_factory.hpp:77] Creating layer pool2
I0502 13:29:53.629287  2843 net.cpp:94] Creating Layer pool2
I0502 13:29:53.629289  2843 net.cpp:435] pool2 <- conv2
I0502 13:29:53.629293  2843 net.cpp:409] pool2 -> pool2
I0502 13:29:53.629349  2843 net.cpp:144] Setting up pool2
I0502 13:29:53.629356  2843 net.cpp:151] Top shape: 20 64 5 5 (32000)
I0502 13:29:53.629360  2843 net.cpp:159] Memory required for data: 2184080
I0502 13:29:53.629364  2843 layer_factory.hpp:77] Creating layer conv3
I0502 13:29:53.629371  2843 net.cpp:94] Creating Layer conv3
I0502 13:29:53.629374  2843 net.cpp:435] conv3 <- pool2
I0502 13:29:53.629379  2843 net.cpp:409] conv3 -> conv3
I0502 13:29:53.634243  2843 net.cpp:144] Setting up conv3
I0502 13:29:53.634256  2843 net.cpp:151] Top shape: 20 64 5 5 (32000)
I0502 13:29:53.634260  2843 net.cpp:159] Memory required for data: 2312080
I0502 13:29:53.634268  2843 layer_factory.hpp:77] Creating layer relu3
I0502 13:29:53.634274  2843 net.cpp:94] Creating Layer relu3
I0502 13:29:53.634279  2843 net.cpp:435] relu3 <- conv3
I0502 13:29:53.634282  2843 net.cpp:396] relu3 -> conv3 (in-place)
I0502 13:29:53.634289  2843 net.cpp:144] Setting up relu3
I0502 13:29:53.634294  2843 net.cpp:151] Top shape: 20 64 5 5 (32000)
I0502 13:29:53.634296  2843 net.cpp:159] Memory required for data: 2440080
I0502 13:29:53.634299  2843 layer_factory.hpp:77] Creating layer conv4
I0502 13:29:53.634307  2843 net.cpp:94] Creating Layer conv4
I0502 13:29:53.634310  2843 net.cpp:435] conv4 <- conv3
I0502 13:29:53.634315  2843 net.cpp:409] conv4 -> conv4
I0502 13:29:53.638721  2843 net.cpp:144] Setting up conv4
I0502 13:29:53.638734  2843 net.cpp:151] Top shape: 20 64 5 5 (32000)
I0502 13:29:53.638738  2843 net.cpp:159] Memory required for data: 2568080
I0502 13:29:53.638744  2843 layer_factory.hpp:77] Creating layer relu4
I0502 13:29:53.638749  2843 net.cpp:94] Creating Layer relu4
I0502 13:29:53.638753  2843 net.cpp:435] relu4 <- conv4
I0502 13:29:53.638757  2843 net.cpp:396] relu4 -> conv4 (in-place)
I0502 13:29:53.638764  2843 net.cpp:144] Setting up relu4
I0502 13:29:53.638768  2843 net.cpp:151] Top shape: 20 64 5 5 (32000)
I0502 13:29:53.638772  2843 net.cpp:159] Memory required for data: 2696080
I0502 13:29:53.638774  2843 layer_factory.hpp:77] Creating layer conv5
I0502 13:29:53.638782  2843 net.cpp:94] Creating Layer conv5
I0502 13:29:53.638785  2843 net.cpp:435] conv5 <- conv4
I0502 13:29:53.638790  2843 net.cpp:409] conv5 -> conv5
I0502 13:29:53.643620  2843 net.cpp:144] Setting up conv5
I0502 13:29:53.643635  2843 net.cpp:151] Top shape: 20 64 5 5 (32000)
I0502 13:29:53.643637  2843 net.cpp:159] Memory required for data: 2824080
I0502 13:29:53.643646  2843 layer_factory.hpp:77] Creating layer relu5
I0502 13:29:53.643651  2843 net.cpp:94] Creating Layer relu5
I0502 13:29:53.643656  2843 net.cpp:435] relu5 <- conv5
I0502 13:29:53.643659  2843 net.cpp:396] relu5 -> conv5 (in-place)
I0502 13:29:53.643666  2843 net.cpp:144] Setting up relu5
I0502 13:29:53.643671  2843 net.cpp:151] Top shape: 20 64 5 5 (32000)
I0502 13:29:53.643673  2843 net.cpp:159] Memory required for data: 2952080
I0502 13:29:53.643676  2843 layer_factory.hpp:77] Creating layer pool5
I0502 13:29:53.643682  2843 net.cpp:94] Creating Layer pool5
I0502 13:29:53.643685  2843 net.cpp:435] pool5 <- conv5
I0502 13:29:53.643689  2843 net.cpp:409] pool5 -> pool5
I0502 13:29:53.643729  2843 net.cpp:144] Setting up pool5
I0502 13:29:53.643736  2843 net.cpp:151] Top shape: 20 64 2 2 (5120)
I0502 13:29:53.643739  2843 net.cpp:159] Memory required for data: 2972560
I0502 13:29:53.643743  2843 layer_factory.hpp:77] Creating layer ip1
I0502 13:29:53.643751  2843 net.cpp:94] Creating Layer ip1
I0502 13:29:53.643755  2843 net.cpp:435] ip1 <- pool5
I0502 13:29:53.643760  2843 net.cpp:409] ip1 -> ip1
I0502 13:29:53.645229  2843 net.cpp:144] Setting up ip1
I0502 13:29:53.645243  2843 net.cpp:151] Top shape: 20 64 (1280)
I0502 13:29:53.645247  2843 net.cpp:159] Memory required for data: 2977680
I0502 13:29:53.645253  2843 layer_factory.hpp:77] Creating layer ip2
I0502 13:29:53.645259  2843 net.cpp:94] Creating Layer ip2
I0502 13:29:53.645267  2843 net.cpp:435] ip2 <- ip1
I0502 13:29:53.645272  2843 net.cpp:409] ip2 -> ip2
I0502 13:29:53.645496  2843 net.cpp:144] Setting up ip2
I0502 13:29:53.645504  2843 net.cpp:151] Top shape: 20 64 (1280)
I0502 13:29:53.645509  2843 net.cpp:159] Memory required for data: 2982800
I0502 13:29:53.645514  2843 layer_factory.hpp:77] Creating layer ip3
I0502 13:29:53.645520  2843 net.cpp:94] Creating Layer ip3
I0502 13:29:53.645524  2843 net.cpp:435] ip3 <- ip2
I0502 13:29:53.645529  2843 net.cpp:409] ip3 -> ip3
I0502 13:29:53.645645  2843 net.cpp:144] Setting up ip3
I0502 13:29:53.645653  2843 net.cpp:151] Top shape: 20 1 (20)
I0502 13:29:53.645655  2843 net.cpp:159] Memory required for data: 2982880
I0502 13:29:53.645660  2843 layer_factory.hpp:77] Creating layer loss
I0502 13:29:53.645668  2843 net.cpp:94] Creating Layer loss
I0502 13:29:53.645671  2843 net.cpp:435] loss <- ip3
I0502 13:29:53.645675  2843 net.cpp:435] loss <- label
I0502 13:29:53.645679  2843 net.cpp:409] loss -> loss
I0502 13:29:53.645740  2843 net.cpp:144] Setting up loss
…
I0502 13:29:53.670001  2843 net.cpp:323] The NetState phase (0) differed from the phase (1) specified by a rule in layer intercept
I0502 13:29:53.670017  2843 net.cpp:323] The NetState phase (0) differed from the phase (1) specified by a rule in layer accuracy
I0502 13:29:53.670105  2843 net.cpp:52] Initializing net from parameters: 
state {
  phase: TRAIN
}
layer {
  name: "parameters"
  type: "HDF5Data"
  top: "data"
  top: "label"
  include {
    phase: TRAIN
  }
  hdf5_data_param {
    source: "/home/purduethu/scratch/radon/d/deng106/CNNStatisticalModel/distributions/input/5_distributions_100_sample_size_train-distributions-path.txt"
    batch_size: 20
  }
}
layer {
  name: "conv1"
  type: "Convolution"
  bottom: "data"
  top: "conv1"
  param {
    lr_mult: 1
  }
  param {
    lr_mult: 2
  }
  convolution_param {
    num_output: 64
    pad: 2
    kernel_size: 5
    stride: 1
    weight_filler {
      type: "gaussian"
      std: 0.0001
    }
    bias_filler {
      type: "constant"
    }
  }
}
layer {
  name: "relu1"
  type: "ReLU"
  bottom: "conv1"
  top: "conv1"
}
layer {
  name: "conv2"
  type: "Convolution"
  bottom: "conv1"
  top: "conv2"
  param {
    lr_mult: 1
  }
  param {
    lr_mult: 2
  }
  convolution_param {
    num_output: 64
    pad: 2
    kernel_size: 5
    stride: 1
    weight_filler {
      type: "gaussian"
      std: 0.01
    }
    bias_filler {
      type: "constant"
    }
  }
}
layer {
  name: "relu2"
  type: "ReLU"
  bottom: "conv2"
  top: "conv2"
}
layer {
  name: "pool2"
  type: "Pooling"
  bottom: "conv2"
  top: "pool2"
  pooling_param {
    pool: MAX
    kernel_size: 3
    stride: 2
  }
}
layer {
  name: "conv3"
  type: "Convolution"
  bottom: "pool2"
  top: "conv3"
  param {
    lr_mult: 1
  }
  param {
    lr_mult: 2
  }
  convolution_param {
    num_output: 64
    pad: 2
    kernel_size: 5
    stride: 1
    weight_filler {
      type: "gaussian"
      std: 0.01
    }
    bias_filler {
      type: "constant"
    }
  }
}
layer {
  name: "relu3"
  type: "ReLU"
  bottom: "conv3"
  top: "conv3"
}
layer {
  name: "conv4"
  type: "Convolution"
  bottom: "conv3"
  top: "conv4"
  param {
    lr_mult: 1
  }
  param {
    lr_mult: 2
  }
  convolution_param {
    num_output: 64
    pad: 2
    kernel_size: 5
    stride: 1
    weight_filler {
      type: "gaussian"
      std: 0.01
    }
    bias_filler {
      type: "constant"
    }
  }
}
layer {
  name: "relu4"
  type: "ReLU"
  bottom: "conv4"
  top: "conv4"
}
layer {
  name: "conv5"
  type: "Convolution"
  bottom: "conv4"
  top: "conv5"
  param {
    lr_mult: 1
  }
  param {
    lr_mult: 2
  }
  convolution_param {
    num_output: 64
    pad: 2
    kernel_size: 5
    stride: 1
    weight_filler {
      type: "gaussian"
      std: 0.01
    }
    bias_filler {
      type: "constant"
    }
  }
}
layer {
  name: "relu5"
  type: "ReLU"
  bottom: "conv5"
  top: "conv5"
}
layer {
  name: "pool5"
  type: "Pooling"
  bottom: "conv5"
  top: "pool5"
  pooling_param {
    pool: AVE
    kernel_size: 3
    stride: 2
  }
}
layer {
  name: "ip1"
  type: "InnerProduct"
  bottom: "pool5"
  top: "ip1"
  param {
    lr_mult: 1
  }
  param {
    lr_mult: 2
  }
  inner_product_param {
    num_output: 64
    weight_filler {
      type: "gaussian"
      std: 0.1
    }
    bias_filler {
      type: "constant"
    }
  }
}
layer {
  name: "ip2"
  type: "InnerProduct"
  bottom: "ip1"
  top: "ip2"
  param {
    lr_mult: 1
  }
  param {
    lr_mult: 2
  }
  inner_product_param {
    num_output: 64
    weight_filler {
      type: "gaussian"
      std: 0.1
    }
    bias_filler {
      type: "constant"
    }
  }
}
layer {
  name: "ip3"
  type: "InnerProduct"
  bottom: "ip2"
  top: "ip3"
  param {
    lr_mult: 1
  }
  param {
    lr_mult: 2
  }
  inner_product_param {
    num_output: 50
    weight_filler {
      type: "gaussian"
      std: 0.1
    }
    bias_filler {
      type: "constant"
    }
  }
}
layer {
  name: "loss"
  type: "SoftmaxWithLoss"
  bottom: "ip3"
  bottom: "label"
  top: "loss"
}
I0502 13:29:53.670156  2843 layer_factory.hpp:77] Creating layer parameters
I0502 13:29:53.670164  2843 net.cpp:94] Creating Layer parameters
I0502 13:29:53.670168  2843 net.cpp:409] parameters -> data
I0502 13:29:53.670176  2843 net.cpp:409] parameters -> label
I0502 13:29:53.670181  2843 hdf5_data_layer.cpp:79] Loading list of HDF5 filenames from: /home/purduethu/scratch/radon/d/deng106/CNNStatisticalModel/distributions/input/5_distributions_100_sample_size_train-distributions-path.txt
I0502 13:29:53.670197  2843 hdf5_data_layer.cpp:93] Number of HDF5 files: 1
I0502 13:29:53.686602  2843 hdf5.cpp:35] Datatype class: H5T_INTEGER
I0502 13:29:53.687042  2843 net.cpp:144] Setting up parameters
I0502 13:29:53.687057  2843 net.cpp:151] Top shape: 20 1 10 10 (2000)
I0502 13:29:53.687062  2843 net.cpp:151] Top shape: 20 (20)
I0502 13:29:53.687065  2843 net.cpp:159] Memory required for data: 8080
I0502 13:29:53.687072  2843 layer_factory.hpp:77] Creating layer conv1
I0502 13:29:53.687088  2843 net.cpp:94] Creating Layer conv1
I0502 13:29:53.687091  2843 net.cpp:435] conv1 <- data
I0502 13:29:53.687098  2843 net.cpp:409] conv1 -> conv1
I0502 13:29:53.688874  2843 net.cpp:144] Setting up conv1
I0502 13:29:53.688889  2843 net.cpp:151] Top shape: 20 64 10 10 (128000)
I0502 13:29:53.688892  2843 net.cpp:159] Memory required for data: 520080
I0502 13:29:53.688902  2843 layer_factory.hpp:77] Creating layer relu1
I0502 13:29:53.688910  2843 net.cpp:94] Creating Layer relu1
I0502 13:29:53.688915  2843 net.cpp:435] relu1 <- conv1
I0502 13:29:53.688918  2843 net.cpp:396] relu1 -> conv1 (in-place)
I0502 13:29:53.688925  2843 net.cpp:144] Setting up relu1
I0502 13:29:53.688930  2843 net.cpp:151] Top shape: 20 64 10 10 (128000)
I0502 13:29:53.688932  2843 net.cpp:159] Memory required for data: 1032080
I0502 13:29:53.688935  2843 layer_factory.hpp:77] Creating layer conv2
I0502 13:29:53.688943  2843 net.cpp:94] Creating Layer conv2
I0502 13:29:53.688946  2843 net.cpp:435] conv2 <- conv1
I0502 13:29:53.688951  2843 net.cpp:409] conv2 -> conv2
I0502 13:29:53.694344  2843 net.cpp:144] Setting up conv2
I0502 13:29:53.694358  2843 net.cpp:151] Top shape: 20 64 10 10 (128000)
I0502 13:29:53.694362  2843 net.cpp:159] Memory required for data: 1544080
I0502 13:29:53.694370  2843 layer_factory.hpp:77] Creating layer relu2
I0502 13:29:53.694376  2843 net.cpp:94] Creating Layer relu2
I0502 13:29:53.694380  2843 net.cpp:435] relu2 <- conv2
I0502 13:29:53.694386  2843 net.cpp:396] relu2 -> conv2 (in-place)
I0502 13:29:53.694392  2843 net.cpp:144] Setting up relu2
I0502 13:29:53.694396  2843 net.cpp:151] Top shape: 20 64 10 10 (128000)
I0502 13:29:53.694399  2843 net.cpp:159] Memory required for data: 2056080
I0502 13:29:53.694402  2843 layer_factory.hpp:77] Creating layer pool2
I0502 13:29:53.694407  2843 net.cpp:94] Creating Layer pool2
I0502 13:29:53.694411  2843 net.cpp:435] pool2 <- conv2
I0502 13:29:53.694416  2843 net.cpp:409] pool2 -> pool2
I0502 13:29:53.694469  2843 net.cpp:144] Setting up pool2
I0502 13:29:53.694476  2843 net.cpp:151] Top shape: 20 64 5 5 (32000)
I0502 13:29:53.694479  2843 net.cpp:159] Memory required for data: 2184080
I0502 13:29:53.694483  2843 layer_factory.hpp:77] Creating layer conv3
I0502 13:29:53.694490  2843 net.cpp:94] Creating Layer conv3
I0502 13:29:53.694494  2843 net.cpp:435] conv3 <- pool2
I0502 13:29:53.694499  2843 net.cpp:409] conv3 -> conv3
I0502 13:29:53.699448  2843 net.cpp:144] Setting up conv3
I0502 13:29:53.699470  2843 net.cpp:151] Top shape: 20 64 5 5 (32000)
I0502 13:29:53.699475  2843 net.cpp:159] Memory required for data: 2312080
I0502 13:29:53.699482  2843 layer_factory.hpp:77] Creating layer relu3
I0502 13:29:53.699488  2843 net.cpp:94] Creating Layer relu3
I0502 13:29:53.699491  2843 net.cpp:435] relu3 <- conv3
I0502 13:29:53.699496  2843 net.cpp:396] relu3 -> conv3 (in-place)
I0502 13:29:53.699502  2843 net.cpp:144] Setting up relu3
I0502 13:29:53.699506  2843 net.cpp:151] Top shape: 20 64 5 5 (32000)
I0502 13:29:53.699509  2843 net.cpp:159] Memory required for data: 2440080
I0502 13:29:53.699512  2843 layer_factory.hpp:77] Creating layer conv4
I0502 13:29:53.699520  2843 net.cpp:94] Creating Layer conv4
I0502 13:29:53.699524  2843 net.cpp:435] conv4 <- conv3
I0502 13:29:53.699528  2843 net.cpp:409] conv4 -> conv4
I0502 13:29:53.705356  2843 net.cpp:144] Setting up conv4
I0502 13:29:53.705370  2843 net.cpp:151] Top shape: 20 64 5 5 (32000)
I0502 13:29:53.705374  2843 net.cpp:159] Memory required for data: 2568080
I0502 13:29:53.705380  2843 layer_factory.hpp:77] Creating layer relu4
I0502 13:29:53.705387  2843 net.cpp:94] Creating Layer relu4
I0502 13:29:53.705390  2843 net.cpp:435] relu4 <- conv4
I0502 13:29:53.705395  2843 net.cpp:396] relu4 -> conv4 (in-place)
I0502 13:29:53.705401  2843 net.cpp:144] Setting up relu4
I0502 13:29:53.705406  2843 net.cpp:151] Top shape: 20 64 5 5 (32000)
I0502 13:29:53.705410  2843 net.cpp:159] Memory required for data: 2696080
I0502 13:29:53.705412  2843 layer_factory.hpp:77] Creating layer conv5
I0502 13:29:53.705420  2843 net.cpp:94] Creating Layer conv5
I0502 13:29:53.705422  2843 net.cpp:435] conv5 <- conv4
I0502 13:29:53.705427  2843 net.cpp:409] conv5 -> conv5
I0502 13:29:53.709842  2843 net.cpp:144] Setting up conv5
I0502 13:29:53.709856  2843 net.cpp:151] Top shape: 20 64 5 5 (32000)
I0502 13:29:53.709859  2843 net.cpp:159] Memory required for data: 2824080
I0502 13:29:53.709867  2843 layer_factory.hpp:77] Creating layer relu5
I0502 13:29:53.709873  2843 net.cpp:94] Creating Layer relu5
I0502 13:29:53.709877  2843 net.cpp:435] relu5 <- conv5
I0502 13:29:53.709880  2843 net.cpp:396] relu5 -> conv5 (in-place)
I0502 13:29:53.709887  2843 net.cpp:144] Setting up relu5
I0502 13:29:53.709892  2843 net.cpp:151] Top shape: 20 64 5 5 (32000)
I0502 13:29:53.709894  2843 net.cpp:159] Memory required for data: 2952080
I0502 13:29:53.709897  2843 layer_factory.hpp:77] Creating layer pool5
I0502 13:29:53.709903  2843 net.cpp:94] Creating Layer pool5
I0502 13:29:53.709905  2843 net.cpp:435] pool5 <- conv5
I0502 13:29:53.709909  2843 net.cpp:409] pool5 -> pool5
I0502 13:29:53.709945  2843 net.cpp:144] Setting up pool5
I0502 13:29:53.709952  2843 net.cpp:151] Top shape: 20 64 2 2 (5120)
I0502 13:29:53.709955  2843 net.cpp:159] Memory required for data: 2972560
I0502 13:29:53.709959  2843 layer_factory.hpp:77] Creating layer ip1
I0502 13:29:53.709964  2843 net.cpp:94] Creating Layer ip1
I0502 13:29:53.709969  2843 net.cpp:435] ip1 <- pool5
I0502 13:29:53.709972  2843 net.cpp:409] ip1 -> ip1
I0502 13:29:53.710499  2843 net.cpp:144] Setting up ip1
I0502 13:29:53.710507  2843 net.cpp:151] Top shape: 20 64 (1280)
I0502 13:29:53.710510  2843 net.cpp:159] Memory required for data: 2977680
I0502 13:29:53.710515  2843 layer_factory.hpp:77] Creating layer ip2
I0502 13:29:53.710521  2843 net.cpp:94] Creating Layer ip2
I0502 13:29:53.710525  2843 net.cpp:435] ip2 <- ip1
I0502 13:29:53.710530  2843 net.cpp:409] ip2 -> ip2
I0502 13:29:53.710763  2843 net.cpp:144] Setting up ip2
I0502 13:29:53.710772  2843 net.cpp:151] Top shape: 20 64 (1280)
I0502 13:29:53.710774  2843 net.cpp:159] Memory required for data: 2982800
I0502 13:29:53.710779  2843 layer_factory.hpp:77] Creating layer ip3
I0502 13:29:53.710785  2843 net.cpp:94] Creating Layer ip3
I0502 13:29:53.710789  2843 net.cpp:435] ip3 <- ip2
I0502 13:29:53.710793  2843 net.cpp:409] ip3 -> ip3
I0502 13:29:53.711004  2843 net.cpp:144] Setting up ip3
I0502 13:29:53.711012  2843 net.cpp:151] Top shape: 20 50 (1000)
I0502 13:29:53.711019  2843 net.cpp:159] Memory required for data: 2986800
I0502 13:29:53.711024  2843 layer_factory.hpp:77] Creating layer loss
I0502 13:29:53.711032  2843 net.cpp:94] Creating Layer loss
I0502 13:29:53.711035  2843 net.cpp:435] loss <- ip3
I0502 13:29:53.711040  2843 net.cpp:435] loss <- label
I0502 13:29:53.711043  2843 net.cpp:409] loss -> loss
I0502 13:29:53.711050  2843 layer_factory.hpp:77] Creating layer loss
…
I0502 13:29:53.712484  2843 solver.cpp:181] Creating test net (#0) specified by net file: ./protocol/dis_5_100_dimension.protocol_distribution
I0502 13:29:53.712510  2843 net.cpp:323] The NetState phase (1) differed from the phase (0) specified by a rule in layer parameters
I0502 13:29:53.712620  2843 net.cpp:52] Initializing net from parameters: 
state {
  phase: TEST
}
layer {
  name: "intercept"
  type: "HDF5Data"
  top: "data"
  top: "label"
  include {
    phase: TEST
  }
  hdf5_data_param {
    source: "/home/purduethu/scratch/radon/d/deng106/CNNStatisticalModel/distributions/input/5_distributions_100_sample_size_test-distributions-path.txt"
    batch_size: 20
  }
}
layer {
  name: "conv1"
  type: "Convolution"
  bottom: "data"
  top: "conv1"
  param {
    lr_mult: 1
  }
  param {
    lr_mult: 2
  }
  convolution_param {
    num_output: 64
    pad: 2
    kernel_size: 5
    stride: 1
    weight_filler {
      type: "gaussian"
      std: 0.0001
    }
    bias_filler {
      type: "constant"
    }
  }
}
layer {
  name: "relu1"
  type: "ReLU"
  bottom: "conv1"
  top: "conv1"
}
layer {
  name: "conv2"
  type: "Convolution"
  bottom: "conv1"
  top: "conv2"
  param {
    lr_mult: 1
  }
  param {
    lr_mult: 2
  }
  convolution_param {
    num_output: 64
    pad: 2
    kernel_size: 5
    stride: 1
    weight_filler {
      type: "gaussian"
      std: 0.01
    }
    bias_filler {
      type: "constant"
    }
  }
}
layer {
  name: "relu2"
  type: "ReLU"
  bottom: "conv2"
  top: "conv2"
}
layer {
  name: "pool2"
  type: "Pooling"
  bottom: "conv2"
  top: "pool2"
  pooling_param {
    pool: MAX
    kernel_size: 3
    stride: 2
  }
}
layer {
  name: "conv3"
  type: "Convolution"
  bottom: "pool2"
  top: "conv3"
  param {
    lr_mult: 1
  }
  param {
    lr_mult: 2
  }
  convolution_param {
    num_output: 64
    pad: 2
    kernel_size: 5
    stride: 1
    weight_filler {
      type: "gaussian"
      std: 0.01
    }
    bias_filler {
      type: "constant"
    }
  }
}
layer {
  name: "relu3"
  type: "ReLU"
  bottom: "conv3"
  top: "conv3"
}
layer {
  name: "conv4"
  type: "Convolution"
  bottom: "conv3"
  top: "conv4"
  param {
    lr_mult: 1
  }
  param {
    lr_mult: 2
  }
  convolution_param {
    num_output: 64
    pad: 2
    kernel_size: 5
    stride: 1
    weight_filler {
      type: "gaussian"
      std: 0.01
    }
    bias_filler {
      type: "constant"
    }
  }
}
layer {
  name: "relu4"
  type: "ReLU"
  bottom: "conv4"
  top: "conv4"
}
layer {
  name: "conv5"
  type: "Convolution"
  bottom: "conv4"
  top: "conv5"
  param {
    lr_mult: 1
  }
  param {
    lr_mult: 2
  }
  convolution_param {
    num_output: 64
    pad: 2
    kernel_size: 5
    stride: 1
    weight_filler {
      type: "gaussian"
      std: 0.01
    }
    bias_filler {
      type: "constant"
    }
  }
}
layer {
  name: "relu5"
  type: "ReLU"
  bottom: "conv5"
  top: "conv5"
}
layer {
  name: "pool5"
  type: "Pooling"
  bottom: "conv5"
  top: "pool5"
  pooling_param {
    pool: AVE
    kernel_size: 3
    stride: 2
  }
}
layer {
  name: "ip1"
  type: "InnerProduct"
  bottom: "pool5"
  top: "ip1"
  param {
    lr_mult: 1
  }
  param {
    lr_mult: 2
  }
  inner_product_param {
    num_output: 64
    weight_filler {
      type: "gaussian"
      std: 0.1
    }
    bias_filler {
      type: "constant"
    }
  }
}
layer {
  name: "ip2"
  type: "InnerProduct"
  bottom: "ip1"
  top: "ip2"
  param {
    lr_mult: 1
  }
  param {
    lr_mult: 2
  }
  inner_product_param {
    num_output: 64
    weight_filler {
      type: "gaussian"
      std: 0.1
    }
    bias_filler {
      type: "constant"
    }
  }
}
layer {
  name: "ip3"
  type: "InnerProduct"
  bottom: "ip2"
  top: "ip3"
  param {
    lr_mult: 1
  }
  param {
    lr_mult: 2
  }
  inner_product_param {
    num_output: 50
    weight_filler {
      type: "gaussian"
      std: 0.1
    }
    bias_filler {
      type: "constant"
    }
  }
}
layer {
  name: "accuracy"
  type: "Accuracy"
  bottom: "ip3"
  bottom: "label"
  top: "accuracy"
  include {
    phase: TEST
  }
}
layer {
  name: "loss"
  type: "SoftmaxWithLoss"
  bottom: "ip3"
  bottom: "label"
  top: "loss"
}
I0502 13:29:53.712694  2843 layer_factory.hpp:77] Creating layer intercept
I0502 13:29:53.712703  2843 net.cpp:94] Creating Layer intercept
I0502 13:29:53.712707  2843 net.cpp:409] intercept -> data
I0502 13:29:53.712713  2843 net.cpp:409] intercept -> label
I0502 13:29:53.712719  2843 hdf5_data_layer.cpp:79] Loading list of HDF5 filenames from: /home/purduethu/scratch/radon/d/deng106/CNNStatisticalModel/distributions/input/5_distributions_100_sample_size_test-distributions-path.txt
I0502 13:29:53.712738  2843 hdf5_data_layer.cpp:93] Number of HDF5 files: 1
I0502 13:29:53.717334  2843 net.cpp:144] Setting up intercept
I0502 13:29:53.717365  2843 net.cpp:151] Top shape: 20 1 10 10 (2000)
I0502 13:29:53.717370  2843 net.cpp:151] Top shape: 20 (20)
I0502 13:29:53.717373  2843 net.cpp:159] Memory required for data: 8080
I0502 13:29:53.717380  2843 layer_factory.hpp:77] Creating layer label_intercept_1_split
I0502 13:29:53.717396  2843 net.cpp:94] Creating Layer label_intercept_1_split
I0502 13:29:53.717401  2843 net.cpp:435] label_intercept_1_split <- label
I0502 13:29:53.717406  2843 net.cpp:409] label_intercept_1_split -> label_intercept_1_split_0
I0502 13:29:53.717413  2843 net.cpp:409] label_intercept_1_split -> label_intercept_1_split_1
I0502 13:29:53.717458  2843 net.cpp:144] Setting up label_intercept_1_split
I0502 13:29:53.717464  2843 net.cpp:151] Top shape: 20 (20)
I0502 13:29:53.717468  2843 net.cpp:151] Top shape: 20 (20)
I0502 13:29:53.717470  2843 net.cpp:159] Memory required for data: 8240
I0502 13:29:53.717473  2843 layer_factory.hpp:77] Creating layer conv1
I0502 13:29:53.717483  2843 net.cpp:94] Creating Layer conv1
I0502 13:29:53.717488  2843 net.cpp:435] conv1 <- data
I0502 13:29:53.717491  2843 net.cpp:409] conv1 -> conv1
I0502 13:29:53.718264  2843 net.cpp:144] Setting up conv1
I0502 13:29:53.718277  2843 net.cpp:151] Top shape: 20 64 10 10 (128000)
I0502 13:29:53.718281  2843 net.cpp:159] Memory required for data: 520240
I0502 13:29:53.718297  2843 layer_factory.hpp:77] Creating layer relu1
I0502 13:29:53.718304  2843 net.cpp:94] Creating Layer relu1
I0502 13:29:53.718307  2843 net.cpp:435] relu1 <- conv1
I0502 13:29:53.718312  2843 net.cpp:396] relu1 -> conv1 (in-place)
I0502 13:29:53.718319  2843 net.cpp:144] Setting up relu1
I0502 13:29:53.718323  2843 net.cpp:151] Top shape: 20 64 10 10 (128000)
I0502 13:29:53.718327  2843 net.cpp:159] Memory required for data: 1032240
I0502 13:29:53.718329  2843 layer_factory.hpp:77] Creating layer conv2
I0502 13:29:53.718336  2843 net.cpp:94] Creating Layer conv2
I0502 13:29:53.718340  2843 net.cpp:435] conv2 <- conv1
I0502 13:29:53.718344  2843 net.cpp:409] conv2 -> conv2
I0502 13:29:53.722376  2843 net.cpp:144] Setting up conv2
I0502 13:29:53.722390  2843 net.cpp:151] Top shape: 20 64 10 10 (128000)
I0502 13:29:53.722394  2843 net.cpp:159] Memory required for data: 1544240
I0502 13:29:53.722403  2843 layer_factory.hpp:77] Creating layer relu2
I0502 13:29:53.722409  2843 net.cpp:94] Creating Layer relu2
I0502 13:29:53.722412  2843 net.cpp:435] relu2 <- conv2
I0502 13:29:53.722416  2843 net.cpp:396] relu2 -> conv2 (in-place)
I0502 13:29:53.722424  2843 net.cpp:144] Setting up relu2
I0502 13:29:53.722427  2843 net.cpp:151] Top shape: 20 64 10 10 (128000)
I0502 13:29:53.722430  2843 net.cpp:159] Memory required for data: 2056240
I0502 13:29:53.722434  2843 layer_factory.hpp:77] Creating layer pool2
I0502 13:29:53.722439  2843 net.cpp:94] Creating Layer pool2
I0502 13:29:53.722441  2843 net.cpp:435] pool2 <- conv2
I0502 13:29:53.722445  2843 net.cpp:409] pool2 -> pool2
I0502 13:29:53.722499  2843 net.cpp:144] Setting up pool2
I0502 13:29:53.722506  2843 net.cpp:151] Top shape: 20 64 5 5 (32000)
I0502 13:29:53.722509  2843 net.cpp:159] Memory required for data: 2184240
I0502 13:29:53.722512  2843 layer_factory.hpp:77] Creating layer conv3
I0502 13:29:53.722520  2843 net.cpp:94] Creating Layer conv3
I0502 13:29:53.722523  2843 net.cpp:435] conv3 <- pool2
I0502 13:29:53.722528  2843 net.cpp:409] conv3 -> conv3
I0502 13:29:53.726064  2843 net.cpp:144] Setting up conv3
I0502 13:29:53.726078  2843 net.cpp:151] Top shape: 20 64 5 5 (32000)
I0502 13:29:53.726080  2843 net.cpp:159] Memory required for data: 2312240
I0502 13:29:53.726089  2843 layer_factory.hpp:77] Creating layer relu3
I0502 13:29:53.726095  2843 net.cpp:94] Creating Layer relu3
I0502 13:29:53.726099  2843 net.cpp:435] relu3 <- conv3
I0502 13:29:53.726104  2843 net.cpp:396] relu3 -> conv3 (in-place)
I0502 13:29:53.726109  2843 net.cpp:144] Setting up relu3
I0502 13:29:53.726114  2843 net.cpp:151] Top shape: 20 64 5 5 (32000)
I0502 13:29:53.726116  2843 net.cpp:159] Memory required for data: 2440240
I0502 13:29:53.726119  2843 layer_factory.hpp:77] Creating layer conv4
I0502 13:29:53.726127  2843 net.cpp:94] Creating Layer conv4
I0502 13:29:53.726130  2843 net.cpp:435] conv4 <- conv3
I0502 13:29:53.726135  2843 net.cpp:409] conv4 -> conv4
I0502 13:29:53.729667  2843 net.cpp:144] Setting up conv4
I0502 13:29:53.729681  2843 net.cpp:151] Top shape: 20 64 5 5 (32000)
I0502 13:29:53.729684  2843 net.cpp:159] Memory required for data: 2568240
I0502 13:29:53.729691  2843 layer_factory.hpp:77] Creating layer relu4
I0502 13:29:53.729696  2843 net.cpp:94] Creating Layer relu4
I0502 13:29:53.729699  2843 net.cpp:435] relu4 <- conv4
I0502 13:29:53.729703  2843 net.cpp:396] relu4 -> conv4 (in-place)
I0502 13:29:53.729709  2843 net.cpp:144] Setting up relu4
I0502 13:29:53.729714  2843 net.cpp:151] Top shape: 20 64 5 5 (32000)
I0502 13:29:53.729717  2843 net.cpp:159] Memory required for data: 2696240
I0502 13:29:53.729719  2843 layer_factory.hpp:77] Creating layer conv5
I0502 13:29:53.729727  2843 net.cpp:94] Creating Layer conv5
I0502 13:29:53.729730  2843 net.cpp:435] conv5 <- conv4
I0502 13:29:53.729734  2843 net.cpp:409] conv5 -> conv5
I0502 13:29:53.734638  2843 net.cpp:144] Setting up conv5
I0502 13:29:53.734652  2843 net.cpp:151] Top shape: 20 64 5 5 (32000)
I0502 13:29:53.734657  2843 net.cpp:159] Memory required for data: 2824240
I0502 13:29:53.734669  2843 layer_factory.hpp:77] Creating layer relu5
I0502 13:29:53.734676  2843 net.cpp:94] Creating Layer relu5
I0502 13:29:53.734679  2843 net.cpp:435] relu5 <- conv5
I0502 13:29:53.734684  2843 net.cpp:396] relu5 -> conv5 (in-place)
I0502 13:29:53.734691  2843 net.cpp:144] Setting up relu5
I0502 13:29:53.734695  2843 net.cpp:151] Top shape: 20 64 5 5 (32000)
I0502 13:29:53.734699  2843 net.cpp:159] Memory required for data: 2952240
I0502 13:29:53.734701  2843 layer_factory.hpp:77] Creating layer pool5
I0502 13:29:53.734706  2843 net.cpp:94] Creating Layer pool5
I0502 13:29:53.734709  2843 net.cpp:435] pool5 <- conv5
I0502 13:29:53.734714  2843 net.cpp:409] pool5 -> pool5
I0502 13:29:53.734750  2843 net.cpp:144] Setting up pool5
I0502 13:29:53.734756  2843 net.cpp:151] Top shape: 20 64 2 2 (5120)
I0502 13:29:53.734760  2843 net.cpp:159] Memory required for data: 2972720
I0502 13:29:53.734762  2843 layer_factory.hpp:77] Creating layer ip1
I0502 13:29:53.734769  2843 net.cpp:94] Creating Layer ip1
I0502 13:29:53.734773  2843 net.cpp:435] ip1 <- pool5
I0502 13:29:53.734777  2843 net.cpp:409] ip1 -> ip1
I0502 13:29:53.735308  2843 net.cpp:144] Setting up ip1
I0502 13:29:53.735316  2843 net.cpp:151] Top shape: 20 64 (1280)
I0502 13:29:53.735321  2843 net.cpp:159] Memory required for data: 2977840
I0502 13:29:53.735325  2843 layer_factory.hpp:77] Creating layer ip2
I0502 13:29:53.735332  2843 net.cpp:94] Creating Layer ip2
I0502 13:29:53.735334  2843 net.cpp:435] ip2 <- ip1
I0502 13:29:53.735338  2843 net.cpp:409] ip2 -> ip2
I0502 13:29:53.735568  2843 net.cpp:144] Setting up ip2
I0502 13:29:53.735575  2843 net.cpp:151] Top shape: 20 64 (1280)
I0502 13:29:53.735579  2843 net.cpp:159] Memory required for data: 2982960
I0502 13:29:53.735584  2843 layer_factory.hpp:77] Creating layer ip3
I0502 13:29:53.735589  2843 net.cpp:94] Creating Layer ip3
I0502 13:29:53.735594  2843 net.cpp:435] ip3 <- ip2
I0502 13:29:53.735597  2843 net.cpp:409] ip3 -> ip3
I0502 13:29:53.735800  2843 net.cpp:144] Setting up ip3
I0502 13:29:53.735806  2843 net.cpp:151] Top shape: 20 50 (1000)
I0502 13:29:53.735810  2843 net.cpp:159] Memory required for data: 2986960
I0502 13:29:53.735815  2843 layer_factory.hpp:77] Creating layer ip3_ip3_0_split
I0502 13:29:53.735819  2843 net.cpp:94] Creating Layer ip3_ip3_0_split
I0502 13:29:53.735822  2843 net.cpp:435] ip3_ip3_0_split <- ip3
I0502 13:29:53.735827  2843 net.cpp:409] ip3_ip3_0_split -> ip3_ip3_0_split_0
I0502 13:29:53.735832  2843 net.cpp:409] ip3_ip3_0_split -> ip3_ip3_0_split_1
I0502 13:29:53.735873  2843 net.cpp:144] Setting up ip3_ip3_0_split
I0502 13:29:53.735879  2843 net.cpp:151] Top shape: 20 50 (1000)
I0502 13:29:53.735882  2843 net.cpp:151] Top shape: 20 50 (1000)
I0502 13:29:53.735885  2843 net.cpp:159] Memory required for data: 2994960
I0502 13:29:53.735888  2843 layer_factory.hpp:77] Creating layer accuracy
I0502 13:29:53.735895  2843 net.cpp:94] Creating Layer accuracy
I0502 13:29:53.735898  2843 net.cpp:435] accuracy <- ip3_ip3_0_split_0
I0502 13:29:53.735903  2843 net.cpp:435] accuracy <- label_intercept_1_split_0
I0502 13:29:53.735906  2843 net.cpp:409] accuracy -> accuracy
…
