…
I0503 15:07:53.961829 21097 net.cpp:323] The NetState phase (0) differed from the phase (1) specified by a rule in layer intercept
I0503 15:07:53.961845 21097 net.cpp:323] The NetState phase (0) differed from the phase (1) specified by a rule in layer accuracy
I0503 15:07:53.961937 21097 net.cpp:52] Initializing net from parameters: 
state {
  phase: TRAIN
}
layer {
  name: "parameters"
  type: "HDF5Data"
  top: "data"
  top: "label"
  include {
    phase: TRAIN
  }
  hdf5_data_param {
    source: "/home/purduethu/scratch/radon/d/deng106/CNNStatisticalModel/distributions/input/20_distributions_900_sample_size_train-distributions-path.txt"
    batch_size: 20
  }
}
layer {
  name: "conv1"
  type: "Convolution"
  bottom: "data"
  top: "conv1"
  param {
    lr_mult: 1
  }
  param {
    lr_mult: 2
  }
  convolution_param {
    num_output: 64
    pad: 2
    kernel_size: 5
    stride: 1
    weight_filler {
      type: "gaussian"
      std: 0.0001
    }
    bias_filler {
      type: "constant"
    }
  }
}
layer {
  name: "relu1"
  type: "ReLU"
  bottom: "conv1"
  top: "conv1"
}
layer {
  name: "conv2"
  type: "Convolution"
  bottom: "conv1"
  top: "conv2"
  param {
    lr_mult: 1
  }
  param {
    lr_mult: 2
  }
  convolution_param {
    num_output: 64
    pad: 2
    kernel_size: 5
    stride: 1
    weight_filler {
      type: "gaussian"
      std: 0.01
    }
    bias_filler {
      type: "constant"
    }
  }
}
layer {
  name: "relu2"
  type: "ReLU"
  bottom: "conv2"
  top: "conv2"
}
layer {
  name: "pool2"
  type: "Pooling"
  bottom: "conv2"
  top: "pool2"
  pooling_param {
    pool: MAX
    kernel_size: 3
    stride: 2
  }
}
layer {
  name: "conv3"
  type: "Convolution"
  bottom: "pool2"
  top: "conv3"
  param {
    lr_mult: 1
  }
  param {
    lr_mult: 2
  }
  convolution_param {
    num_output: 128
    pad: 2
    kernel_size: 5
    stride: 1
    weight_filler {
      type: "gaussian"
      std: 0.01
    }
    bias_filler {
      type: "constant"
    }
  }
}
layer {
  name: "relu3"
  type: "ReLU"
  bottom: "conv3"
  top: "conv3"
}
layer {
  name: "conv4"
  type: "Convolution"
  bottom: "conv3"
  top: "conv4"
  param {
    lr_mult: 1
  }
  param {
    lr_mult: 2
  }
  convolution_param {
    num_output: 128
    pad: 2
    kernel_size: 5
    stride: 1
    weight_filler {
      type: "gaussian"
      std: 0.01
    }
    bias_filler {
      type: "constant"
    }
  }
}
layer {
  name: "relu4"
  type: "ReLU"
  bottom: "conv4"
  top: "conv4"
}
layer {
  name: "conv5"
  type: "Convolution"
  bottom: "conv4"
  top: "conv5"
  param {
    lr_mult: 1
  }
  param {
    lr_mult: 2
  }
  convolution_param {
    num_output: 128
    pad: 2
    kernel_size: 5
    stride: 1
    weight_filler {
      type: "gaussian"
      std: 0.01
    }
    bias_filler {
      type: "constant"
    }
  }
}
layer {
  name: "relu5"
  type: "ReLU"
  bottom: "conv5"
  top: "conv5"
}
layer {
  name: "pool5"
  type: "Pooling"
  bottom: "conv5"
  top: "pool5"
  pooling_param {
    pool: AVE
    kernel_size: 3
    stride: 2
  }
}
layer {
  name: "ip1"
  type: "InnerProduct"
  bottom: "pool5"
  top: "ip1"
  param {
    lr_mult: 1
  }
  param {
    lr_mult: 2
  }
  inner_product_param {
    num_output: 1024
    weight_filler {
      type: "gaussian"
      std: 0.1
    }
    bias_filler {
      type: "constant"
    }
  }
}
layer {
  name: "ip2"
  type: "InnerProduct"
  bottom: "ip1"
  top: "ip2"
  param {
    lr_mult: 1
  }
  param {
    lr_mult: 2
  }
  inner_product_param {
    num_output: 512
    weight_filler {
      type: "gaussian"
      std: 0.1
    }
    bias_filler {
      type: "constant"
    }
  }
}
layer {
  name: "ip3"
  type: "InnerProduct"
  bottom: "ip2"
  top: "ip3"
  param {
    lr_mult: 1
  }
  param {
    lr_mult: 2
  }
  inner_product_param {
    num_output: 50
    weight_filler {
      type: "gaussian"
      std: 0.1
    }
    bias_filler {
      type: "constant"
    }
  }
}
layer {
  name: "loss"
  type: "SoftmaxWithLoss"
  bottom: "ip3"
  bottom: "label"
  top: "loss"
}
I0503 15:07:53.962014 21097 layer_factory.hpp:77] Creating layer parameters
I0503 15:07:53.962028 21097 net.cpp:94] Creating Layer parameters
I0503 15:07:53.962034 21097 net.cpp:409] parameters -> data
I0503 15:07:53.962054 21097 net.cpp:409] parameters -> label
I0503 15:07:53.962065 21097 hdf5_data_layer.cpp:79] Loading list of HDF5 filenames from: /home/purduethu/scratch/radon/d/deng106/CNNStatisticalModel/distributions/input/20_distributions_900_sample_size_train-distributions-path.txt
I0503 15:07:53.962095 21097 hdf5_data_layer.cpp:93] Number of HDF5 files: 1
I0503 15:07:53.962553 21097 hdf5.cpp:32] Datatype class: H5T_FLOAT
I0503 15:07:54.537360 21097 hdf5.cpp:35] Datatype class: H5T_INTEGER
I0503 15:07:54.539036 21097 net.cpp:144] Setting up parameters
I0503 15:07:54.539057 21097 net.cpp:151] Top shape: 20 1 30 30 (18000)
I0503 15:07:54.539062 21097 net.cpp:151] Top shape: 20 (20)
I0503 15:07:54.539065 21097 net.cpp:159] Memory required for data: 72080
I0503 15:07:54.539072 21097 layer_factory.hpp:77] Creating layer conv1
I0503 15:07:54.539096 21097 net.cpp:94] Creating Layer conv1
I0503 15:07:54.539103 21097 net.cpp:435] conv1 <- data
I0503 15:07:54.539113 21097 net.cpp:409] conv1 -> conv1
I0503 15:07:54.544916 21097 net.cpp:144] Setting up conv1
I0503 15:07:54.544934 21097 net.cpp:151] Top shape: 20 64 30 30 (1152000)
I0503 15:07:54.544937 21097 net.cpp:159] Memory required for data: 4680080
I0503 15:07:54.544950 21097 layer_factory.hpp:77] Creating layer relu1
I0503 15:07:54.544957 21097 net.cpp:94] Creating Layer relu1
I0503 15:07:54.544961 21097 net.cpp:435] relu1 <- conv1
I0503 15:07:54.544966 21097 net.cpp:396] relu1 -> conv1 (in-place)
I0503 15:07:54.544982 21097 net.cpp:144] Setting up relu1
I0503 15:07:54.544988 21097 net.cpp:151] Top shape: 20 64 30 30 (1152000)
I0503 15:07:54.544991 21097 net.cpp:159] Memory required for data: 9288080
I0503 15:07:54.544994 21097 layer_factory.hpp:77] Creating layer conv2
I0503 15:07:54.545002 21097 net.cpp:94] Creating Layer conv2
I0503 15:07:54.545006 21097 net.cpp:435] conv2 <- conv1
I0503 15:07:54.545011 21097 net.cpp:409] conv2 -> conv2
I0503 15:07:54.559531 21097 net.cpp:144] Setting up conv2
I0503 15:07:54.559546 21097 net.cpp:151] Top shape: 20 64 30 30 (1152000)
I0503 15:07:54.559551 21097 net.cpp:159] Memory required for data: 13896080
I0503 15:07:54.559559 21097 layer_factory.hpp:77] Creating layer relu2
I0503 15:07:54.559566 21097 net.cpp:94] Creating Layer relu2
I0503 15:07:54.559569 21097 net.cpp:435] relu2 <- conv2
I0503 15:07:54.559574 21097 net.cpp:396] relu2 -> conv2 (in-place)
I0503 15:07:54.559581 21097 net.cpp:144] Setting up relu2
I0503 15:07:54.559587 21097 net.cpp:151] Top shape: 20 64 30 30 (1152000)
I0503 15:07:54.559589 21097 net.cpp:159] Memory required for data: 18504080
I0503 15:07:54.559593 21097 layer_factory.hpp:77] Creating layer pool2
I0503 15:07:54.559607 21097 net.cpp:94] Creating Layer pool2
I0503 15:07:54.559612 21097 net.cpp:435] pool2 <- conv2
I0503 15:07:54.559615 21097 net.cpp:409] pool2 -> pool2
I0503 15:07:54.559659 21097 net.cpp:144] Setting up pool2
I0503 15:07:54.559667 21097 net.cpp:151] Top shape: 20 64 15 15 (288000)
I0503 15:07:54.559670 21097 net.cpp:159] Memory required for data: 19656080
I0503 15:07:54.559674 21097 layer_factory.hpp:77] Creating layer conv3
I0503 15:07:54.559682 21097 net.cpp:94] Creating Layer conv3
I0503 15:07:54.559685 21097 net.cpp:435] conv3 <- pool2
I0503 15:07:54.559698 21097 net.cpp:409] conv3 -> conv3
I0503 15:07:54.572096 21097 net.cpp:144] Setting up conv3
I0503 15:07:54.572113 21097 net.cpp:151] Top shape: 20 128 15 15 (576000)
I0503 15:07:54.572116 21097 net.cpp:159] Memory required for data: 21960080
I0503 15:07:54.572124 21097 layer_factory.hpp:77] Creating layer relu3
I0503 15:07:54.572130 21097 net.cpp:94] Creating Layer relu3
I0503 15:07:54.572134 21097 net.cpp:435] relu3 <- conv3
I0503 15:07:54.572139 21097 net.cpp:396] relu3 -> conv3 (in-place)
I0503 15:07:54.572146 21097 net.cpp:144] Setting up relu3
I0503 15:07:54.572151 21097 net.cpp:151] Top shape: 20 128 15 15 (576000)
I0503 15:07:54.572154 21097 net.cpp:159] Memory required for data: 24264080
I0503 15:07:54.572158 21097 layer_factory.hpp:77] Creating layer conv4
I0503 15:07:54.572166 21097 net.cpp:94] Creating Layer conv4
I0503 15:07:54.572170 21097 net.cpp:435] conv4 <- conv3
I0503 15:07:54.572175 21097 net.cpp:409] conv4 -> conv4
I0503 15:07:54.593699 21097 net.cpp:144] Setting up conv4
I0503 15:07:54.593715 21097 net.cpp:151] Top shape: 20 128 15 15 (576000)
I0503 15:07:54.593719 21097 net.cpp:159] Memory required for data: 26568080
I0503 15:07:54.593725 21097 layer_factory.hpp:77] Creating layer relu4
I0503 15:07:54.593731 21097 net.cpp:94] Creating Layer relu4
I0503 15:07:54.593735 21097 net.cpp:435] relu4 <- conv4
I0503 15:07:54.593740 21097 net.cpp:396] relu4 -> conv4 (in-place)
I0503 15:07:54.593749 21097 net.cpp:144] Setting up relu4
I0503 15:07:54.593752 21097 net.cpp:151] Top shape: 20 128 15 15 (576000)
I0503 15:07:54.593755 21097 net.cpp:159] Memory required for data: 28872080
I0503 15:07:54.593760 21097 layer_factory.hpp:77] Creating layer conv5
I0503 15:07:54.593766 21097 net.cpp:94] Creating Layer conv5
I0503 15:07:54.593770 21097 net.cpp:435] conv5 <- conv4
I0503 15:07:54.593775 21097 net.cpp:409] conv5 -> conv5
I0503 15:07:54.614881 21097 net.cpp:144] Setting up conv5
I0503 15:07:54.614897 21097 net.cpp:151] Top shape: 20 128 15 15 (576000)
I0503 15:07:54.614902 21097 net.cpp:159] Memory required for data: 31176080
I0503 15:07:54.614910 21097 layer_factory.hpp:77] Creating layer relu5
I0503 15:07:54.614917 21097 net.cpp:94] Creating Layer relu5
I0503 15:07:54.614919 21097 net.cpp:435] relu5 <- conv5
I0503 15:07:54.614924 21097 net.cpp:396] relu5 -> conv5 (in-place)
I0503 15:07:54.614933 21097 net.cpp:144] Setting up relu5
I0503 15:07:54.614938 21097 net.cpp:151] Top shape: 20 128 15 15 (576000)
I0503 15:07:54.614940 21097 net.cpp:159] Memory required for data: 33480080
I0503 15:07:54.614943 21097 layer_factory.hpp:77] Creating layer pool5
I0503 15:07:54.614948 21097 net.cpp:94] Creating Layer pool5
I0503 15:07:54.614951 21097 net.cpp:435] pool5 <- conv5
I0503 15:07:54.614955 21097 net.cpp:409] pool5 -> pool5
I0503 15:07:54.614991 21097 net.cpp:144] Setting up pool5
I0503 15:07:54.614998 21097 net.cpp:151] Top shape: 20 128 7 7 (125440)
I0503 15:07:54.615002 21097 net.cpp:159] Memory required for data: 33981840
I0503 15:07:54.615005 21097 layer_factory.hpp:77] Creating layer ip1
I0503 15:07:54.615015 21097 net.cpp:94] Creating Layer ip1
I0503 15:07:54.615018 21097 net.cpp:435] ip1 <- pool5
I0503 15:07:54.615023 21097 net.cpp:409] ip1 -> ip1
I0503 15:07:54.769958 21097 net.cpp:144] Setting up ip1
I0503 15:07:54.769994 21097 net.cpp:151] Top shape: 20 1024 (20480)
I0503 15:07:54.769997 21097 net.cpp:159] Memory required for data: 34063760
I0503 15:07:54.770006 21097 layer_factory.hpp:77] Creating layer ip2
I0503 15:07:54.770026 21097 net.cpp:94] Creating Layer ip2
I0503 15:07:54.770031 21097 net.cpp:435] ip2 <- ip1
I0503 15:07:54.770038 21097 net.cpp:409] ip2 -> ip2
I0503 15:07:54.782974 21097 net.cpp:144] Setting up ip2
I0503 15:07:54.782986 21097 net.cpp:151] Top shape: 20 512 (10240)
I0503 15:07:54.782990 21097 net.cpp:159] Memory required for data: 34104720
I0503 15:07:54.782996 21097 layer_factory.hpp:77] Creating layer ip3
I0503 15:07:54.783004 21097 net.cpp:94] Creating Layer ip3
I0503 15:07:54.783006 21097 net.cpp:435] ip3 <- ip2
I0503 15:07:54.783011 21097 net.cpp:409] ip3 -> ip3
I0503 15:07:54.784301 21097 net.cpp:144] Setting up ip3
I0503 15:07:54.784313 21097 net.cpp:151] Top shape: 20 50 (1000)
I0503 15:07:54.784317 21097 net.cpp:159] Memory required for data: 34108720
I0503 15:07:54.784323 21097 layer_factory.hpp:77] Creating layer loss
I0503 15:07:54.784332 21097 net.cpp:94] Creating Layer loss
I0503 15:07:54.784335 21097 net.cpp:435] loss <- ip3
I0503 15:07:54.784339 21097 net.cpp:435] loss <- label
I0503 15:07:54.784345 21097 net.cpp:409] loss -> loss
I0503 15:07:54.784356 21097 layer_factory.hpp:77] Creating layer loss
…
I0503 15:07:54.784893 21097 solver.cpp:181] Creating test net (#0) specified by net file: ./protocol/dis_20_900_dimension.protocol_distribution
I0503 15:07:54.784921 21097 net.cpp:323] The NetState phase (1) differed from the phase (0) specified by a rule in layer parameters
I0503 15:07:54.785017 21097 net.cpp:52] Initializing net from parameters: 
state {
  phase: TEST
}
layer {
  name: "intercept"
  type: "HDF5Data"
  top: "data"
  top: "label"
  include {
    phase: TEST
  }
  hdf5_data_param {
    source: "/home/purduethu/scratch/radon/d/deng106/CNNStatisticalModel/distributions/input/20_distributions_900_sample_size_test-distributions-path.txt"
    batch_size: 20
  }
}
layer {
  name: "conv1"
  type: "Convolution"
  bottom: "data"
  top: "conv1"
  param {
    lr_mult: 1
  }
  param {
    lr_mult: 2
  }
  convolution_param {
    num_output: 64
    pad: 2
    kernel_size: 5
    stride: 1
    weight_filler {
      type: "gaussian"
      std: 0.0001
    }
    bias_filler {
      type: "constant"
    }
  }
}
layer {
  name: "relu1"
  type: "ReLU"
  bottom: "conv1"
  top: "conv1"
}
layer {
  name: "conv2"
  type: "Convolution"
  bottom: "conv1"
  top: "conv2"
  param {
    lr_mult: 1
  }
  param {
    lr_mult: 2
  }
  convolution_param {
    num_output: 64
    pad: 2
    kernel_size: 5
    stride: 1
    weight_filler {
      type: "gaussian"
      std: 0.01
    }
    bias_filler {
      type: "constant"
    }
  }
}
layer {
  name: "relu2"
  type: "ReLU"
  bottom: "conv2"
  top: "conv2"
}
layer {
  name: "pool2"
  type: "Pooling"
  bottom: "conv2"
  top: "pool2"
  pooling_param {
    pool: MAX
    kernel_size: 3
    stride: 2
  }
}
layer {
  name: "conv3"
  type: "Convolution"
  bottom: "pool2"
  top: "conv3"
  param {
    lr_mult: 1
  }
  param {
    lr_mult: 2
  }
  convolution_param {
    num_output: 128
    pad: 2
    kernel_size: 5
    stride: 1
    weight_filler {
      type: "gaussian"
      std: 0.01
    }
    bias_filler {
      type: "constant"
    }
  }
}
layer {
  name: "relu3"
  type: "ReLU"
  bottom: "conv3"
  top: "conv3"
}
layer {
  name: "conv4"
  type: "Convolution"
  bottom: "conv3"
  top: "conv4"
  param {
    lr_mult: 1
  }
  param {
    lr_mult: 2
  }
  convolution_param {
    num_output: 128
    pad: 2
    kernel_size: 5
    stride: 1
    weight_filler {
      type: "gaussian"
      std: 0.01
    }
    bias_filler {
      type: "constant"
    }
  }
}
layer {
  name: "relu4"
  type: "ReLU"
  bottom: "conv4"
  top: "conv4"
}
layer {
  name: "conv5"
  type: "Convolution"
  bottom: "conv4"
  top: "conv5"
  param {
    lr_mult: 1
  }
  param {
    lr_mult: 2
  }
  convolution_param {
    num_output: 128
    pad: 2
    kernel_size: 5
    stride: 1
    weight_filler {
      type: "gaussian"
      std: 0.01
    }
    bias_filler {
      type: "constant"
    }
  }
}
layer {
  name: "relu5"
  type: "ReLU"
  bottom: "conv5"
  top: "conv5"
}
layer {
  name: "pool5"
  type: "Pooling"
  bottom: "conv5"
  top: "pool5"
  pooling_param {
    pool: AVE
    kernel_size: 3
    stride: 2
  }
}
layer {
  name: "ip1"
  type: "InnerProduct"
  bottom: "pool5"
  top: "ip1"
  param {
    lr_mult: 1
  }
  param {
    lr_mult: 2
  }
  inner_product_param {
    num_output: 1024
    weight_filler {
      type: "gaussian"
      std: 0.1
    }
    bias_filler {
      type: "constant"
    }
  }
}
layer {
  name: "ip2"
  type: "InnerProduct"
  bottom: "ip1"
  top: "ip2"
  param {
    lr_mult: 1
  }
  param {
    lr_mult: 2
  }
  inner_product_param {
    num_output: 512
    weight_filler {
      type: "gaussian"
      std: 0.1
    }
    bias_filler {
      type: "constant"
    }
  }
}
layer {
  name: "ip3"
  type: "InnerProduct"
  bottom: "ip2"
  top: "ip3"
  param {
    lr_mult: 1
  }
  param {
    lr_mult: 2
  }
  inner_product_param {
    num_output: 50
    weight_filler {
      type: "gaussian"
      std: 0.1
    }
    bias_filler {
      type: "constant"
    }
  }
}
layer {
  name: "accuracy"
  type: "Accuracy"
  bottom: "ip3"
  bottom: "label"
  top: "accuracy"
  include {
    phase: TEST
  }
}
layer {
  name: "loss"
  type: "SoftmaxWithLoss"
  bottom: "ip3"
  bottom: "label"
  top: "loss"
}
I0503 15:07:54.785089 21097 layer_factory.hpp:77] Creating layer intercept
I0503 15:07:54.785097 21097 net.cpp:94] Creating Layer intercept
I0503 15:07:54.785101 21097 net.cpp:409] intercept -> data
I0503 15:07:54.785109 21097 net.cpp:409] intercept -> label
I0503 15:07:54.785115 21097 hdf5_data_layer.cpp:79] Loading list of HDF5 filenames from: /home/purduethu/scratch/radon/d/deng106/CNNStatisticalModel/distributions/input/20_distributions_900_sample_size_test-distributions-path.txt
I0503 15:07:54.785132 21097 hdf5_data_layer.cpp:93] Number of HDF5 files: 1
I0503 15:07:54.928321 21097 net.cpp:144] Setting up intercept
I0503 15:07:54.928355 21097 net.cpp:151] Top shape: 20 1 30 30 (18000)
I0503 15:07:54.928360 21097 net.cpp:151] Top shape: 20 (20)
I0503 15:07:54.928364 21097 net.cpp:159] Memory required for data: 72080
I0503 15:07:54.928370 21097 layer_factory.hpp:77] Creating layer label_intercept_1_split
I0503 15:07:54.928390 21097 net.cpp:94] Creating Layer label_intercept_1_split
I0503 15:07:54.928395 21097 net.cpp:435] label_intercept_1_split <- label
I0503 15:07:54.928400 21097 net.cpp:409] label_intercept_1_split -> label_intercept_1_split_0
I0503 15:07:54.928416 21097 net.cpp:409] label_intercept_1_split -> label_intercept_1_split_1
I0503 15:07:54.928443 21097 net.cpp:144] Setting up label_intercept_1_split
I0503 15:07:54.928449 21097 net.cpp:151] Top shape: 20 (20)
I0503 15:07:54.928453 21097 net.cpp:151] Top shape: 20 (20)
I0503 15:07:54.928457 21097 net.cpp:159] Memory required for data: 72240
I0503 15:07:54.928459 21097 layer_factory.hpp:77] Creating layer conv1
I0503 15:07:54.928470 21097 net.cpp:94] Creating Layer conv1
I0503 15:07:54.928474 21097 net.cpp:435] conv1 <- data
I0503 15:07:54.928479 21097 net.cpp:409] conv1 -> conv1
I0503 15:07:54.929823 21097 net.cpp:144] Setting up conv1
I0503 15:07:54.929837 21097 net.cpp:151] Top shape: 20 64 30 30 (1152000)
I0503 15:07:54.929841 21097 net.cpp:159] Memory required for data: 4680240
I0503 15:07:54.929850 21097 layer_factory.hpp:77] Creating layer relu1
I0503 15:07:54.929857 21097 net.cpp:94] Creating Layer relu1
I0503 15:07:54.929860 21097 net.cpp:435] relu1 <- conv1
I0503 15:07:54.929865 21097 net.cpp:396] relu1 -> conv1 (in-place)
I0503 15:07:54.929872 21097 net.cpp:144] Setting up relu1
I0503 15:07:54.929877 21097 net.cpp:151] Top shape: 20 64 30 30 (1152000)
I0503 15:07:54.929880 21097 net.cpp:159] Memory required for data: 9288240
I0503 15:07:54.929883 21097 layer_factory.hpp:77] Creating layer conv2
I0503 15:07:54.929893 21097 net.cpp:94] Creating Layer conv2
I0503 15:07:54.929896 21097 net.cpp:435] conv2 <- conv1
I0503 15:07:54.929901 21097 net.cpp:409] conv2 -> conv2
I0503 15:07:54.936034 21097 net.cpp:144] Setting up conv2
I0503 15:07:54.936050 21097 net.cpp:151] Top shape: 20 64 30 30 (1152000)
I0503 15:07:54.936054 21097 net.cpp:159] Memory required for data: 13896240
I0503 15:07:54.936063 21097 layer_factory.hpp:77] Creating layer relu2
I0503 15:07:54.936069 21097 net.cpp:94] Creating Layer relu2
I0503 15:07:54.936072 21097 net.cpp:435] relu2 <- conv2
I0503 15:07:54.936077 21097 net.cpp:396] relu2 -> conv2 (in-place)
I0503 15:07:54.936084 21097 net.cpp:144] Setting up relu2
I0503 15:07:54.936089 21097 net.cpp:151] Top shape: 20 64 30 30 (1152000)
I0503 15:07:54.936092 21097 net.cpp:159] Memory required for data: 18504240
I0503 15:07:54.936095 21097 layer_factory.hpp:77] Creating layer pool2
I0503 15:07:54.936101 21097 net.cpp:94] Creating Layer pool2
I0503 15:07:54.936105 21097 net.cpp:435] pool2 <- conv2
I0503 15:07:54.936110 21097 net.cpp:409] pool2 -> pool2
I0503 15:07:54.936146 21097 net.cpp:144] Setting up pool2
I0503 15:07:54.936152 21097 net.cpp:151] Top shape: 20 64 15 15 (288000)
I0503 15:07:54.936156 21097 net.cpp:159] Memory required for data: 19656240
I0503 15:07:54.936158 21097 layer_factory.hpp:77] Creating layer conv3
I0503 15:07:54.936167 21097 net.cpp:94] Creating Layer conv3
I0503 15:07:54.936170 21097 net.cpp:435] conv3 <- pool2
I0503 15:07:54.936175 21097 net.cpp:409] conv3 -> conv3
I0503 15:07:54.944005 21097 net.cpp:144] Setting up conv3
I0503 15:07:54.944020 21097 net.cpp:151] Top shape: 20 128 15 15 (576000)
I0503 15:07:54.944025 21097 net.cpp:159] Memory required for data: 21960240
I0503 15:07:54.944032 21097 layer_factory.hpp:77] Creating layer relu3
I0503 15:07:54.944039 21097 net.cpp:94] Creating Layer relu3
I0503 15:07:54.944043 21097 net.cpp:435] relu3 <- conv3
I0503 15:07:54.944047 21097 net.cpp:396] relu3 -> conv3 (in-place)
I0503 15:07:54.944056 21097 net.cpp:144] Setting up relu3
I0503 15:07:54.944061 21097 net.cpp:151] Top shape: 20 128 15 15 (576000)
I0503 15:07:54.944063 21097 net.cpp:159] Memory required for data: 24264240
I0503 15:07:54.944067 21097 layer_factory.hpp:77] Creating layer conv4
I0503 15:07:54.944073 21097 net.cpp:94] Creating Layer conv4
I0503 15:07:54.944077 21097 net.cpp:435] conv4 <- conv3
I0503 15:07:54.944082 21097 net.cpp:409] conv4 -> conv4
I0503 15:07:54.958757 21097 net.cpp:144] Setting up conv4
I0503 15:07:54.958772 21097 net.cpp:151] Top shape: 20 128 15 15 (576000)
I0503 15:07:54.958776 21097 net.cpp:159] Memory required for data: 26568240
I0503 15:07:54.958783 21097 layer_factory.hpp:77] Creating layer relu4
I0503 15:07:54.958789 21097 net.cpp:94] Creating Layer relu4
I0503 15:07:54.958796 21097 net.cpp:435] relu4 <- conv4
I0503 15:07:54.958802 21097 net.cpp:396] relu4 -> conv4 (in-place)
I0503 15:07:54.958809 21097 net.cpp:144] Setting up relu4
I0503 15:07:54.958814 21097 net.cpp:151] Top shape: 20 128 15 15 (576000)
I0503 15:07:54.958817 21097 net.cpp:159] Memory required for data: 28872240
I0503 15:07:54.958820 21097 layer_factory.hpp:77] Creating layer conv5
I0503 15:07:54.958828 21097 net.cpp:94] Creating Layer conv5
I0503 15:07:54.958832 21097 net.cpp:435] conv5 <- conv4
I0503 15:07:54.958837 21097 net.cpp:409] conv5 -> conv5
I0503 15:07:54.973132 21097 net.cpp:144] Setting up conv5
I0503 15:07:54.973147 21097 net.cpp:151] Top shape: 20 128 15 15 (576000)
I0503 15:07:54.973151 21097 net.cpp:159] Memory required for data: 31176240
I0503 15:07:54.973160 21097 layer_factory.hpp:77] Creating layer relu5
I0503 15:07:54.973166 21097 net.cpp:94] Creating Layer relu5
I0503 15:07:54.973170 21097 net.cpp:435] relu5 <- conv5
I0503 15:07:54.973175 21097 net.cpp:396] relu5 -> conv5 (in-place)
I0503 15:07:54.973181 21097 net.cpp:144] Setting up relu5
I0503 15:07:54.973186 21097 net.cpp:151] Top shape: 20 128 15 15 (576000)
I0503 15:07:54.973189 21097 net.cpp:159] Memory required for data: 33480240
I0503 15:07:54.973192 21097 layer_factory.hpp:77] Creating layer pool5
I0503 15:07:54.973197 21097 net.cpp:94] Creating Layer pool5
I0503 15:07:54.973201 21097 net.cpp:435] pool5 <- conv5
I0503 15:07:54.973206 21097 net.cpp:409] pool5 -> pool5
I0503 15:07:54.973232 21097 net.cpp:144] Setting up pool5
I0503 15:07:54.973238 21097 net.cpp:151] Top shape: 20 128 7 7 (125440)
I0503 15:07:54.973242 21097 net.cpp:159] Memory required for data: 33982000
I0503 15:07:54.973244 21097 layer_factory.hpp:77] Creating layer ip1
I0503 15:07:54.973251 21097 net.cpp:94] Creating Layer ip1
I0503 15:07:54.973255 21097 net.cpp:435] ip1 <- pool5
I0503 15:07:54.973259 21097 net.cpp:409] ip1 -> ip1
I0503 15:07:55.153662 21097 net.cpp:144] Setting up ip1
I0503 15:07:55.153697 21097 net.cpp:151] Top shape: 20 1024 (20480)
I0503 15:07:55.153702 21097 net.cpp:159] Memory required for data: 34063920
I0503 15:07:55.153710 21097 layer_factory.hpp:77] Creating layer ip2
I0503 15:07:55.153719 21097 net.cpp:94] Creating Layer ip2
I0503 15:07:55.153724 21097 net.cpp:435] ip2 <- ip1
I0503 15:07:55.153730 21097 net.cpp:409] ip2 -> ip2
I0503 15:07:55.168865 21097 net.cpp:144] Setting up ip2
I0503 15:07:55.168879 21097 net.cpp:151] Top shape: 20 512 (10240)
I0503 15:07:55.168884 21097 net.cpp:159] Memory required for data: 34104880
I0503 15:07:55.168889 21097 layer_factory.hpp:77] Creating layer ip3
I0503 15:07:55.168898 21097 net.cpp:94] Creating Layer ip3
I0503 15:07:55.168902 21097 net.cpp:435] ip3 <- ip2
I0503 15:07:55.168907 21097 net.cpp:409] ip3 -> ip3
I0503 15:07:55.169703 21097 net.cpp:144] Setting up ip3
I0503 15:07:55.169710 21097 net.cpp:151] Top shape: 20 50 (1000)
I0503 15:07:55.169713 21097 net.cpp:159] Memory required for data: 34108880
I0503 15:07:55.169718 21097 layer_factory.hpp:77] Creating layer ip3_ip3_0_split
I0503 15:07:55.169723 21097 net.cpp:94] Creating Layer ip3_ip3_0_split
I0503 15:07:55.169728 21097 net.cpp:435] ip3_ip3_0_split <- ip3
I0503 15:07:55.169731 21097 net.cpp:409] ip3_ip3_0_split -> ip3_ip3_0_split_0
I0503 15:07:55.169737 21097 net.cpp:409] ip3_ip3_0_split -> ip3_ip3_0_split_1
I0503 15:07:55.169761 21097 net.cpp:144] Setting up ip3_ip3_0_split
I0503 15:07:55.169766 21097 net.cpp:151] Top shape: 20 50 (1000)
I0503 15:07:55.169770 21097 net.cpp:151] Top shape: 20 50 (1000)
I0503 15:07:55.169773 21097 net.cpp:159] Memory required for data: 34116880
I0503 15:07:55.169776 21097 layer_factory.hpp:77] Creating layer accuracy
I0503 15:07:55.169782 21097 net.cpp:94] Creating Layer accuracy
I0503 15:07:55.169785 21097 net.cpp:435] accuracy <- ip3_ip3_0_split_0
I0503 15:07:55.169790 21097 net.cpp:435] accuracy <- label_intercept_1_split_0
I0503 15:07:55.169793 21097 net.cpp:409] accuracy -> accuracy
…
