…
I0506 03:59:52.332778 12761 net.cpp:323] The NetState phase (0) differed from the phase (1) specified by a rule in layer intercept
I0506 03:59:52.332825 12761 net.cpp:323] The NetState phase (0) differed from the phase (1) specified by a rule in layer loss
I0506 03:59:52.333060 12761 net.cpp:52] Initializing net from parameters: 
state {
  phase: TRAIN
}
layer {
  name: "parameters"
  type: "HDF5Data"
  top: "data"
  top: "label"
  include {
    phase: TRAIN
  }
  hdf5_data_param {
    source: "/home/purduethu/scratch/radon/d/deng106/CNNStatisticalModel/distributions/input/50_distributions_100_sample_size_train-parameters-path.txt"
    batch_size: 20
  }
}
layer {
  name: "conv1"
  type: "Convolution"
  bottom: "data"
  top: "conv1"
  param {
    lr_mult: 1
  }
  param {
    lr_mult: 2
  }
  convolution_param {
    num_output: 64
    pad: 2
    kernel_size: 5
    stride: 1
    weight_filler {
      type: "gaussian"
      std: 0.0001
    }
    bias_filler {
      type: "constant"
    }
  }
}
layer {
  name: "relu1"
  type: "ReLU"
  bottom: "conv1"
  top: "conv1"
}
layer {
  name: "conv2"
  type: "Convolution"
  bottom: "conv1"
  top: "conv2"
  param {
    lr_mult: 1
  }
  param {
    lr_mult: 2
  }
  convolution_param {
    num_output: 64
    pad: 2
    kernel_size: 5
    stride: 1
    weight_filler {
      type: "gaussian"
      std: 0.01
    }
    bias_filler {
      type: "constant"
    }
  }
}
layer {
  name: "relu2"
  type: "ReLU"
  bottom: "conv2"
  top: "conv2"
}
layer {
  name: "pool2"
  type: "Pooling"
  bottom: "conv2"
  top: "pool2"
  pooling_param {
    pool: MAX
    kernel_size: 3
    stride: 2
  }
}
layer {
  name: "conv3"
  type: "Convolution"
  bottom: "pool2"
  top: "conv3"
  param {
    lr_mult: 1
  }
  param {
    lr_mult: 2
  }
  convolution_param {
    num_output: 128
    pad: 2
    kernel_size: 5
    stride: 1
    weight_filler {
      type: "gaussian"
      std: 0.01
    }
    bias_filler {
      type: "constant"
    }
  }
}
layer {
  name: "relu3"
  type: "ReLU"
  bottom: "conv3"
  top: "conv3"
}
layer {
  name: "conv4"
  type: "Convolution"
  bottom: "conv3"
  top: "conv4"
  param {
    lr_mult: 1
  }
  param {
    lr_mult: 2
  }
  convolution_param {
    num_output: 128
    pad: 2
    kernel_size: 5
    stride: 1
    weight_filler {
      type: "gaussian"
      std: 0.01
    }
    bias_filler {
      type: "constant"
    }
  }
}
layer {
  name: "relu4"
  type: "ReLU"
  bottom: "conv4"
  top: "conv4"
}
layer {
  name: "conv5"
  type: "Convolution"
  bottom: "conv4"
  top: "conv5"
  param {
    lr_mult: 1
  }
  param {
    lr_mult: 2
  }
  convolution_param {
    num_output: 128
    pad: 2
    kernel_size: 5
    stride: 1
    weight_filler {
      type: "gaussian"
      std: 0.01
    }
    bias_filler {
      type: "constant"
    }
  }
}
layer {
  name: "relu5"
  type: "ReLU"
  bottom: "conv5"
  top: "conv5"
}
layer {
  name: "pool5"
  type: "Pooling"
  bottom: "conv5"
  top: "pool5"
  pooling_param {
    pool: AVE
    kernel_size: 3
    stride: 2
  }
}
layer {
  name: "ip1"
  type: "InnerProduct"
  bottom: "pool5"
  top: "ip1"
  param {
    lr_mult: 1
  }
  param {
    lr_mult: 2
  }
  inner_product_param {
    num_output: 1024
    weight_filler {
      type: "gaussian"
      std: 0.1
    }
    bias_filler {
      type: "constant"
    }
  }
}
layer {
  name: "ip2"
  type: "InnerProduct"
  bottom: "ip1"
  top: "ip2"
  param {
    lr_mult: 1
  }
  param {
    lr_mult: 2
  }
  inner_product_param {
    num_output: 512
    weight_filler {
      type: "gaussian"
      std: 0.1
    }
    bias_filler {
      type: "constant"
    }
  }
}
layer {
  name: "ip3"
  type: "InnerProduct"
  bottom: "ip2"
  top: "ip3"
  param {
    lr_mult: 1
  }
  param {
    lr_mult: 2
  }
  inner_product_param {
    num_output: 1
    weight_filler {
      type: "gaussian"
      std: 0.1
    }
    bias_filler {
      type: "constant"
    }
  }
}
layer {
  name: "loss"
  type: "HuberLoss"
  bottom: "ip3"
  bottom: "label"
  top: "loss"
  include {
    phase: TRAIN
  }
}
I0506 03:59:52.333201 12761 layer_factory.hpp:77] Creating layer parameters
I0506 03:59:52.333228 12761 net.cpp:94] Creating Layer parameters
I0506 03:59:52.333240 12761 net.cpp:409] parameters -> data
I0506 03:59:52.333261 12761 net.cpp:409] parameters -> label
I0506 03:59:52.333287 12761 hdf5_data_layer.cpp:79] Loading list of HDF5 filenames from: /home/purduethu/scratch/radon/d/deng106/CNNStatisticalModel/distributions/input/50_distributions_100_sample_size_train-parameters-path.txt
I0506 03:59:52.333322 12761 hdf5_data_layer.cpp:93] Number of HDF5 files: 1
I0506 03:59:52.334663 12761 hdf5.cpp:32] Datatype class: H5T_FLOAT
I0506 03:59:52.565297 12761 net.cpp:144] Setting up parameters
I0506 03:59:52.565330 12761 net.cpp:151] Top shape: 20 1 10 10 (2000)
I0506 03:59:52.565336 12761 net.cpp:151] Top shape: 20 (20)
I0506 03:59:52.565340 12761 net.cpp:159] Memory required for data: 8080
I0506 03:59:52.565347 12761 layer_factory.hpp:77] Creating layer conv1
I0506 03:59:52.565368 12761 net.cpp:94] Creating Layer conv1
I0506 03:59:52.565373 12761 net.cpp:435] conv1 <- data
I0506 03:59:52.565381 12761 net.cpp:409] conv1 -> conv1
I0506 03:59:52.570015 12761 net.cpp:144] Setting up conv1
I0506 03:59:52.570031 12761 net.cpp:151] Top shape: 20 64 10 10 (128000)
I0506 03:59:52.570035 12761 net.cpp:159] Memory required for data: 520080
I0506 03:59:52.570046 12761 layer_factory.hpp:77] Creating layer relu1
I0506 03:59:52.570055 12761 net.cpp:94] Creating Layer relu1
I0506 03:59:52.570057 12761 net.cpp:435] relu1 <- conv1
I0506 03:59:52.570062 12761 net.cpp:396] relu1 -> conv1 (in-place)
I0506 03:59:52.570073 12761 net.cpp:144] Setting up relu1
I0506 03:59:52.570078 12761 net.cpp:151] Top shape: 20 64 10 10 (128000)
I0506 03:59:52.570082 12761 net.cpp:159] Memory required for data: 1032080
I0506 03:59:52.570086 12761 layer_factory.hpp:77] Creating layer conv2
I0506 03:59:52.570093 12761 net.cpp:94] Creating Layer conv2
I0506 03:59:52.570097 12761 net.cpp:435] conv2 <- conv1
I0506 03:59:52.570102 12761 net.cpp:409] conv2 -> conv2
I0506 03:59:52.576622 12761 net.cpp:144] Setting up conv2
I0506 03:59:52.576637 12761 net.cpp:151] Top shape: 20 64 10 10 (128000)
I0506 03:59:52.576642 12761 net.cpp:159] Memory required for data: 1544080
I0506 03:59:52.576650 12761 layer_factory.hpp:77] Creating layer relu2
I0506 03:59:52.576658 12761 net.cpp:94] Creating Layer relu2
I0506 03:59:52.576661 12761 net.cpp:435] relu2 <- conv2
I0506 03:59:52.576666 12761 net.cpp:396] relu2 -> conv2 (in-place)
I0506 03:59:52.576674 12761 net.cpp:144] Setting up relu2
I0506 03:59:52.576678 12761 net.cpp:151] Top shape: 20 64 10 10 (128000)
I0506 03:59:52.576681 12761 net.cpp:159] Memory required for data: 2056080
I0506 03:59:52.576685 12761 layer_factory.hpp:77] Creating layer pool2
I0506 03:59:52.576691 12761 net.cpp:94] Creating Layer pool2
I0506 03:59:52.576694 12761 net.cpp:435] pool2 <- conv2
I0506 03:59:52.576699 12761 net.cpp:409] pool2 -> pool2
I0506 03:59:52.576761 12761 net.cpp:144] Setting up pool2
I0506 03:59:52.576768 12761 net.cpp:151] Top shape: 20 64 5 5 (32000)
I0506 03:59:52.576771 12761 net.cpp:159] Memory required for data: 2184080
I0506 03:59:52.576776 12761 layer_factory.hpp:77] Creating layer conv3
I0506 03:59:52.576783 12761 net.cpp:94] Creating Layer conv3
I0506 03:59:52.576793 12761 net.cpp:435] conv3 <- pool2
I0506 03:59:52.576799 12761 net.cpp:409] conv3 -> conv3
I0506 03:59:52.585692 12761 net.cpp:144] Setting up conv3
I0506 03:59:52.585706 12761 net.cpp:151] Top shape: 20 128 5 5 (64000)
I0506 03:59:52.585711 12761 net.cpp:159] Memory required for data: 2440080
I0506 03:59:52.585719 12761 layer_factory.hpp:77] Creating layer relu3
I0506 03:59:52.585726 12761 net.cpp:94] Creating Layer relu3
I0506 03:59:52.585729 12761 net.cpp:435] relu3 <- conv3
I0506 03:59:52.585734 12761 net.cpp:396] relu3 -> conv3 (in-place)
I0506 03:59:52.585741 12761 net.cpp:144] Setting up relu3
I0506 03:59:52.585747 12761 net.cpp:151] Top shape: 20 128 5 5 (64000)
I0506 03:59:52.585749 12761 net.cpp:159] Memory required for data: 2696080
I0506 03:59:52.585752 12761 layer_factory.hpp:77] Creating layer conv4
I0506 03:59:52.585760 12761 net.cpp:94] Creating Layer conv4
I0506 03:59:52.585764 12761 net.cpp:435] conv4 <- conv3
I0506 03:59:52.585769 12761 net.cpp:409] conv4 -> conv4
I0506 03:59:52.601600 12761 net.cpp:144] Setting up conv4
I0506 03:59:52.601616 12761 net.cpp:151] Top shape: 20 128 5 5 (64000)
I0506 03:59:52.601620 12761 net.cpp:159] Memory required for data: 2952080
I0506 03:59:52.601626 12761 layer_factory.hpp:77] Creating layer relu4
I0506 03:59:52.601632 12761 net.cpp:94] Creating Layer relu4
I0506 03:59:52.601636 12761 net.cpp:435] relu4 <- conv4
I0506 03:59:52.601641 12761 net.cpp:396] relu4 -> conv4 (in-place)
I0506 03:59:52.601649 12761 net.cpp:144] Setting up relu4
I0506 03:59:52.601652 12761 net.cpp:151] Top shape: 20 128 5 5 (64000)
I0506 03:59:52.601655 12761 net.cpp:159] Memory required for data: 3208080
I0506 03:59:52.601658 12761 layer_factory.hpp:77] Creating layer conv5
I0506 03:59:52.601666 12761 net.cpp:94] Creating Layer conv5
I0506 03:59:52.601670 12761 net.cpp:435] conv5 <- conv4
I0506 03:59:52.601675 12761 net.cpp:409] conv5 -> conv5
I0506 03:59:52.616832 12761 net.cpp:144] Setting up conv5
I0506 03:59:52.616845 12761 net.cpp:151] Top shape: 20 128 5 5 (64000)
I0506 03:59:52.616849 12761 net.cpp:159] Memory required for data: 3464080
I0506 03:59:52.616858 12761 layer_factory.hpp:77] Creating layer relu5
I0506 03:59:52.616864 12761 net.cpp:94] Creating Layer relu5
I0506 03:59:52.616868 12761 net.cpp:435] relu5 <- conv5
I0506 03:59:52.616873 12761 net.cpp:396] relu5 -> conv5 (in-place)
I0506 03:59:52.616879 12761 net.cpp:144] Setting up relu5
I0506 03:59:52.616883 12761 net.cpp:151] Top shape: 20 128 5 5 (64000)
I0506 03:59:52.616886 12761 net.cpp:159] Memory required for data: 3720080
I0506 03:59:52.616889 12761 layer_factory.hpp:77] Creating layer pool5
I0506 03:59:52.616894 12761 net.cpp:94] Creating Layer pool5
I0506 03:59:52.616897 12761 net.cpp:435] pool5 <- conv5
I0506 03:59:52.616902 12761 net.cpp:409] pool5 -> pool5
I0506 03:59:52.616943 12761 net.cpp:144] Setting up pool5
I0506 03:59:52.616950 12761 net.cpp:151] Top shape: 20 128 2 2 (10240)
I0506 03:59:52.616953 12761 net.cpp:159] Memory required for data: 3761040
I0506 03:59:52.616956 12761 layer_factory.hpp:77] Creating layer ip1
I0506 03:59:52.616966 12761 net.cpp:94] Creating Layer ip1
I0506 03:59:52.616969 12761 net.cpp:435] ip1 <- pool5
I0506 03:59:52.616973 12761 net.cpp:409] ip1 -> ip1
I0506 03:59:52.631453 12761 net.cpp:144] Setting up ip1
I0506 03:59:52.631469 12761 net.cpp:151] Top shape: 20 1024 (20480)
I0506 03:59:52.631472 12761 net.cpp:159] Memory required for data: 3842960
I0506 03:59:52.631479 12761 layer_factory.hpp:77] Creating layer ip2
I0506 03:59:52.631486 12761 net.cpp:94] Creating Layer ip2
I0506 03:59:52.631489 12761 net.cpp:435] ip2 <- ip1
I0506 03:59:52.631495 12761 net.cpp:409] ip2 -> ip2
I0506 03:59:52.645139 12761 net.cpp:144] Setting up ip2
I0506 03:59:52.645153 12761 net.cpp:151] Top shape: 20 512 (10240)
I0506 03:59:52.645157 12761 net.cpp:159] Memory required for data: 3883920
I0506 03:59:52.645164 12761 layer_factory.hpp:77] Creating layer ip3
I0506 03:59:52.645171 12761 net.cpp:94] Creating Layer ip3
I0506 03:59:52.645174 12761 net.cpp:435] ip3 <- ip2
I0506 03:59:52.645185 12761 net.cpp:409] ip3 -> ip3
I0506 03:59:52.645311 12761 net.cpp:144] Setting up ip3
I0506 03:59:52.645318 12761 net.cpp:151] Top shape: 20 1 (20)
I0506 03:59:52.645321 12761 net.cpp:159] Memory required for data: 3884000
I0506 03:59:52.645328 12761 layer_factory.hpp:77] Creating layer loss
I0506 03:59:52.645339 12761 net.cpp:94] Creating Layer loss
I0506 03:59:52.645341 12761 net.cpp:435] loss <- ip3
I0506 03:59:52.645345 12761 net.cpp:435] loss <- label
I0506 03:59:52.645349 12761 net.cpp:409] loss -> loss
I0506 03:59:52.645403 12761 net.cpp:144] Setting up loss
…
I0506 03:59:52.755172 12761 net.cpp:323] The NetState phase (0) differed from the phase (1) specified by a rule in layer intercept
I0506 03:59:52.755189 12761 net.cpp:323] The NetState phase (0) differed from the phase (1) specified by a rule in layer accuracy
I0506 03:59:52.755276 12761 net.cpp:52] Initializing net from parameters: 
state {
  phase: TRAIN
}
layer {
  name: "parameters"
  type: "HDF5Data"
  top: "data"
  top: "label"
  include {
    phase: TRAIN
  }
  hdf5_data_param {
    source: "/home/purduethu/scratch/radon/d/deng106/CNNStatisticalModel/distributions/input/50_distributions_100_sample_size_train-distributions-path.txt"
    batch_size: 20
  }
}
layer {
  name: "conv1"
  type: "Convolution"
  bottom: "data"
  top: "conv1"
  param {
    lr_mult: 1
  }
  param {
    lr_mult: 2
  }
  convolution_param {
    num_output: 64
    pad: 2
    kernel_size: 5
    stride: 1
    weight_filler {
      type: "gaussian"
      std: 0.0001
    }
    bias_filler {
      type: "constant"
    }
  }
}
layer {
  name: "relu1"
  type: "ReLU"
  bottom: "conv1"
  top: "conv1"
}
layer {
  name: "conv2"
  type: "Convolution"
  bottom: "conv1"
  top: "conv2"
  param {
    lr_mult: 1
  }
  param {
    lr_mult: 2
  }
  convolution_param {
    num_output: 64
    pad: 2
    kernel_size: 5
    stride: 1
    weight_filler {
      type: "gaussian"
      std: 0.01
    }
    bias_filler {
      type: "constant"
    }
  }
}
layer {
  name: "relu2"
  type: "ReLU"
  bottom: "conv2"
  top: "conv2"
}
layer {
  name: "pool2"
  type: "Pooling"
  bottom: "conv2"
  top: "pool2"
  pooling_param {
    pool: MAX
    kernel_size: 3
    stride: 2
  }
}
layer {
  name: "conv3"
  type: "Convolution"
  bottom: "pool2"
  top: "conv3"
  param {
    lr_mult: 1
  }
  param {
    lr_mult: 2
  }
  convolution_param {
    num_output: 128
    pad: 2
    kernel_size: 5
    stride: 1
    weight_filler {
      type: "gaussian"
      std: 0.01
    }
    bias_filler {
      type: "constant"
    }
  }
}
layer {
  name: "relu3"
  type: "ReLU"
  bottom: "conv3"
  top: "conv3"
}
layer {
  name: "conv4"
  type: "Convolution"
  bottom: "conv3"
  top: "conv4"
  param {
    lr_mult: 1
  }
  param {
    lr_mult: 2
  }
  convolution_param {
    num_output: 128
    pad: 2
    kernel_size: 5
    stride: 1
    weight_filler {
      type: "gaussian"
      std: 0.01
    }
    bias_filler {
      type: "constant"
    }
  }
}
layer {
  name: "relu4"
  type: "ReLU"
  bottom: "conv4"
  top: "conv4"
}
layer {
  name: "conv5"
  type: "Convolution"
  bottom: "conv4"
  top: "conv5"
  param {
    lr_mult: 1
  }
  param {
    lr_mult: 2
  }
  convolution_param {
    num_output: 128
    pad: 2
    kernel_size: 5
    stride: 1
    weight_filler {
      type: "gaussian"
      std: 0.01
    }
    bias_filler {
      type: "constant"
    }
  }
}
layer {
  name: "relu5"
  type: "ReLU"
  bottom: "conv5"
  top: "conv5"
}
layer {
  name: "pool5"
  type: "Pooling"
  bottom: "conv5"
  top: "pool5"
  pooling_param {
    pool: AVE
    kernel_size: 3
    stride: 2
  }
}
layer {
  name: "ip1"
  type: "InnerProduct"
  bottom: "pool5"
  top: "ip1"
  param {
    lr_mult: 1
  }
  param {
    lr_mult: 2
  }
  inner_product_param {
    num_output: 1024
    weight_filler {
      type: "gaussian"
      std: 0.1
    }
    bias_filler {
      type: "constant"
    }
  }
}
layer {
  name: "ip2"
  type: "InnerProduct"
  bottom: "ip1"
  top: "ip2"
  param {
    lr_mult: 1
  }
  param {
    lr_mult: 2
  }
  inner_product_param {
    num_output: 512
    weight_filler {
      type: "gaussian"
      std: 0.1
    }
    bias_filler {
      type: "constant"
    }
  }
}
layer {
  name: "ip3"
  type: "InnerProduct"
  bottom: "ip2"
  top: "ip3"
  param {
    lr_mult: 1
  }
  param {
    lr_mult: 2
  }
  inner_product_param {
    num_output: 50
    weight_filler {
      type: "gaussian"
      std: 0.1
    }
    bias_filler {
      type: "constant"
    }
  }
}
layer {
  name: "loss"
  type: "SoftmaxWithLoss"
  bottom: "ip3"
  bottom: "label"
  top: "loss"
}
I0506 03:59:52.755329 12761 layer_factory.hpp:77] Creating layer parameters
I0506 03:59:52.755336 12761 net.cpp:94] Creating Layer parameters
I0506 03:59:52.755340 12761 net.cpp:409] parameters -> data
I0506 03:59:52.755347 12761 net.cpp:409] parameters -> label
I0506 03:59:52.755353 12761 hdf5_data_layer.cpp:79] Loading list of HDF5 filenames from: /home/purduethu/scratch/radon/d/deng106/CNNStatisticalModel/distributions/input/50_distributions_100_sample_size_train-distributions-path.txt
I0506 03:59:52.755369 12761 hdf5_data_layer.cpp:93] Number of HDF5 files: 1
I0506 03:59:52.914579 12761 hdf5.cpp:35] Datatype class: H5T_INTEGER
I0506 03:59:52.917712 12761 net.cpp:144] Setting up parameters
I0506 03:59:52.917729 12761 net.cpp:151] Top shape: 20 1 10 10 (2000)
I0506 03:59:52.917735 12761 net.cpp:151] Top shape: 20 (20)
I0506 03:59:52.917738 12761 net.cpp:159] Memory required for data: 8080
I0506 03:59:52.917744 12761 layer_factory.hpp:77] Creating layer conv1
I0506 03:59:52.917760 12761 net.cpp:94] Creating Layer conv1
I0506 03:59:52.917765 12761 net.cpp:435] conv1 <- data
I0506 03:59:52.917771 12761 net.cpp:409] conv1 -> conv1
I0506 03:59:52.919683 12761 net.cpp:144] Setting up conv1
I0506 03:59:52.919697 12761 net.cpp:151] Top shape: 20 64 10 10 (128000)
I0506 03:59:52.919701 12761 net.cpp:159] Memory required for data: 520080
I0506 03:59:52.919711 12761 layer_factory.hpp:77] Creating layer relu1
I0506 03:59:52.919718 12761 net.cpp:94] Creating Layer relu1
I0506 03:59:52.919721 12761 net.cpp:435] relu1 <- conv1
I0506 03:59:52.919726 12761 net.cpp:396] relu1 -> conv1 (in-place)
I0506 03:59:52.919734 12761 net.cpp:144] Setting up relu1
I0506 03:59:52.919737 12761 net.cpp:151] Top shape: 20 64 10 10 (128000)
I0506 03:59:52.919740 12761 net.cpp:159] Memory required for data: 1032080
I0506 03:59:52.919744 12761 layer_factory.hpp:77] Creating layer conv2
I0506 03:59:52.919750 12761 net.cpp:94] Creating Layer conv2
I0506 03:59:52.919754 12761 net.cpp:435] conv2 <- conv1
I0506 03:59:52.919759 12761 net.cpp:409] conv2 -> conv2
I0506 03:59:52.925356 12761 net.cpp:144] Setting up conv2
I0506 03:59:52.925369 12761 net.cpp:151] Top shape: 20 64 10 10 (128000)
I0506 03:59:52.925374 12761 net.cpp:159] Memory required for data: 1544080
I0506 03:59:52.925381 12761 layer_factory.hpp:77] Creating layer relu2
I0506 03:59:52.925387 12761 net.cpp:94] Creating Layer relu2
I0506 03:59:52.925391 12761 net.cpp:435] relu2 <- conv2
I0506 03:59:52.925395 12761 net.cpp:396] relu2 -> conv2 (in-place)
I0506 03:59:52.925402 12761 net.cpp:144] Setting up relu2
I0506 03:59:52.925406 12761 net.cpp:151] Top shape: 20 64 10 10 (128000)
I0506 03:59:52.925410 12761 net.cpp:159] Memory required for data: 2056080
I0506 03:59:52.925412 12761 layer_factory.hpp:77] Creating layer pool2
I0506 03:59:52.925418 12761 net.cpp:94] Creating Layer pool2
I0506 03:59:52.925421 12761 net.cpp:435] pool2 <- conv2
I0506 03:59:52.925426 12761 net.cpp:409] pool2 -> pool2
I0506 03:59:52.925482 12761 net.cpp:144] Setting up pool2
I0506 03:59:52.925489 12761 net.cpp:151] Top shape: 20 64 5 5 (32000)
I0506 03:59:52.925493 12761 net.cpp:159] Memory required for data: 2184080
I0506 03:59:52.925495 12761 layer_factory.hpp:77] Creating layer conv3
I0506 03:59:52.925503 12761 net.cpp:94] Creating Layer conv3
I0506 03:59:52.925506 12761 net.cpp:435] conv3 <- pool2
I0506 03:59:52.925510 12761 net.cpp:409] conv3 -> conv3
I0506 03:59:52.934515 12761 net.cpp:144] Setting up conv3
I0506 03:59:52.934530 12761 net.cpp:151] Top shape: 20 128 5 5 (64000)
I0506 03:59:52.934533 12761 net.cpp:159] Memory required for data: 2440080
I0506 03:59:52.934541 12761 layer_factory.hpp:77] Creating layer relu3
I0506 03:59:52.934547 12761 net.cpp:94] Creating Layer relu3
I0506 03:59:52.934551 12761 net.cpp:435] relu3 <- conv3
I0506 03:59:52.934556 12761 net.cpp:396] relu3 -> conv3 (in-place)
I0506 03:59:52.934568 12761 net.cpp:144] Setting up relu3
I0506 03:59:52.934573 12761 net.cpp:151] Top shape: 20 128 5 5 (64000)
I0506 03:59:52.934576 12761 net.cpp:159] Memory required for data: 2696080
I0506 03:59:52.934579 12761 layer_factory.hpp:77] Creating layer conv4
I0506 03:59:52.934587 12761 net.cpp:94] Creating Layer conv4
I0506 03:59:52.934592 12761 net.cpp:435] conv4 <- conv3
I0506 03:59:52.934595 12761 net.cpp:409] conv4 -> conv4
I0506 03:59:52.949877 12761 net.cpp:144] Setting up conv4
I0506 03:59:52.949892 12761 net.cpp:151] Top shape: 20 128 5 5 (64000)
I0506 03:59:52.949895 12761 net.cpp:159] Memory required for data: 2952080
I0506 03:59:52.949903 12761 layer_factory.hpp:77] Creating layer relu4
I0506 03:59:52.949908 12761 net.cpp:94] Creating Layer relu4
I0506 03:59:52.949911 12761 net.cpp:435] relu4 <- conv4
I0506 03:59:52.949916 12761 net.cpp:396] relu4 -> conv4 (in-place)
I0506 03:59:52.949923 12761 net.cpp:144] Setting up relu4
I0506 03:59:52.949928 12761 net.cpp:151] Top shape: 20 128 5 5 (64000)
I0506 03:59:52.949930 12761 net.cpp:159] Memory required for data: 3208080
I0506 03:59:52.949934 12761 layer_factory.hpp:77] Creating layer conv5
I0506 03:59:52.949940 12761 net.cpp:94] Creating Layer conv5
I0506 03:59:52.949944 12761 net.cpp:435] conv5 <- conv4
I0506 03:59:52.949949 12761 net.cpp:409] conv5 -> conv5
I0506 03:59:52.965606 12761 net.cpp:144] Setting up conv5
I0506 03:59:52.965621 12761 net.cpp:151] Top shape: 20 128 5 5 (64000)
I0506 03:59:52.965626 12761 net.cpp:159] Memory required for data: 3464080
I0506 03:59:52.965633 12761 layer_factory.hpp:77] Creating layer relu5
I0506 03:59:52.965639 12761 net.cpp:94] Creating Layer relu5
I0506 03:59:52.965643 12761 net.cpp:435] relu5 <- conv5
I0506 03:59:52.965647 12761 net.cpp:396] relu5 -> conv5 (in-place)
I0506 03:59:52.965654 12761 net.cpp:144] Setting up relu5
I0506 03:59:52.965658 12761 net.cpp:151] Top shape: 20 128 5 5 (64000)
I0506 03:59:52.965662 12761 net.cpp:159] Memory required for data: 3720080
I0506 03:59:52.965664 12761 layer_factory.hpp:77] Creating layer pool5
I0506 03:59:52.965669 12761 net.cpp:94] Creating Layer pool5
I0506 03:59:52.965672 12761 net.cpp:435] pool5 <- conv5
I0506 03:59:52.965677 12761 net.cpp:409] pool5 -> pool5
I0506 03:59:52.965715 12761 net.cpp:144] Setting up pool5
I0506 03:59:52.965723 12761 net.cpp:151] Top shape: 20 128 2 2 (10240)
I0506 03:59:52.965726 12761 net.cpp:159] Memory required for data: 3761040
I0506 03:59:52.965729 12761 layer_factory.hpp:77] Creating layer ip1
I0506 03:59:52.965735 12761 net.cpp:94] Creating Layer ip1
I0506 03:59:52.965739 12761 net.cpp:435] ip1 <- pool5
I0506 03:59:52.965744 12761 net.cpp:409] ip1 -> ip1
I0506 03:59:52.979421 12761 net.cpp:144] Setting up ip1
I0506 03:59:52.979435 12761 net.cpp:151] Top shape: 20 1024 (20480)
I0506 03:59:52.979439 12761 net.cpp:159] Memory required for data: 3842960
I0506 03:59:52.979446 12761 layer_factory.hpp:77] Creating layer ip2
I0506 03:59:52.979452 12761 net.cpp:94] Creating Layer ip2
I0506 03:59:52.979456 12761 net.cpp:435] ip2 <- ip1
I0506 03:59:52.979461 12761 net.cpp:409] ip2 -> ip2
I0506 03:59:52.993170 12761 net.cpp:144] Setting up ip2
I0506 03:59:52.993185 12761 net.cpp:151] Top shape: 20 512 (10240)
I0506 03:59:52.993188 12761 net.cpp:159] Memory required for data: 3883920
I0506 03:59:52.993194 12761 layer_factory.hpp:77] Creating layer ip3
I0506 03:59:52.993201 12761 net.cpp:94] Creating Layer ip3
I0506 03:59:52.993206 12761 net.cpp:435] ip3 <- ip2
I0506 03:59:52.993211 12761 net.cpp:409] ip3 -> ip3
I0506 03:59:52.994781 12761 net.cpp:144] Setting up ip3
I0506 03:59:52.994794 12761 net.cpp:151] Top shape: 20 50 (1000)
I0506 03:59:52.994798 12761 net.cpp:159] Memory required for data: 3887920
I0506 03:59:52.994804 12761 layer_factory.hpp:77] Creating layer loss
I0506 03:59:52.994812 12761 net.cpp:94] Creating Layer loss
I0506 03:59:52.994815 12761 net.cpp:435] loss <- ip3
I0506 03:59:52.994819 12761 net.cpp:435] loss <- label
I0506 03:59:52.994823 12761 net.cpp:409] loss -> loss
I0506 03:59:52.994832 12761 layer_factory.hpp:77] Creating layer loss
…
I0506 03:59:52.995375 12761 solver.cpp:181] Creating test net (#0) specified by net file: ./protocol/dis_50_100_dimension.protocol_distribution
I0506 03:59:52.995403 12761 net.cpp:323] The NetState phase (1) differed from the phase (0) specified by a rule in layer parameters
I0506 03:59:52.995499 12761 net.cpp:52] Initializing net from parameters: 
state {
  phase: TEST
}
layer {
  name: "intercept"
  type: "HDF5Data"
  top: "data"
  top: "label"
  include {
    phase: TEST
  }
  hdf5_data_param {
    source: "/home/purduethu/scratch/radon/d/deng106/CNNStatisticalModel/distributions/input/50_distributions_100_sample_size_test-distributions-path.txt"
    batch_size: 20
  }
}
layer {
  name: "conv1"
  type: "Convolution"
  bottom: "data"
  top: "conv1"
  param {
    lr_mult: 1
  }
  param {
    lr_mult: 2
  }
  convolution_param {
    num_output: 64
    pad: 2
    kernel_size: 5
    stride: 1
    weight_filler {
      type: "gaussian"
      std: 0.0001
    }
    bias_filler {
      type: "constant"
    }
  }
}
layer {
  name: "relu1"
  type: "ReLU"
  bottom: "conv1"
  top: "conv1"
}
layer {
  name: "conv2"
  type: "Convolution"
  bottom: "conv1"
  top: "conv2"
  param {
    lr_mult: 1
  }
  param {
    lr_mult: 2
  }
  convolution_param {
    num_output: 64
    pad: 2
    kernel_size: 5
    stride: 1
    weight_filler {
      type: "gaussian"
      std: 0.01
    }
    bias_filler {
      type: "constant"
    }
  }
}
layer {
  name: "relu2"
  type: "ReLU"
  bottom: "conv2"
  top: "conv2"
}
layer {
  name: "pool2"
  type: "Pooling"
  bottom: "conv2"
  top: "pool2"
  pooling_param {
    pool: MAX
    kernel_size: 3
    stride: 2
  }
}
layer {
  name: "conv3"
  type: "Convolution"
  bottom: "pool2"
  top: "conv3"
  param {
    lr_mult: 1
  }
  param {
    lr_mult: 2
  }
  convolution_param {
    num_output: 128
    pad: 2
    kernel_size: 5
    stride: 1
    weight_filler {
      type: "gaussian"
      std: 0.01
    }
    bias_filler {
      type: "constant"
    }
  }
}
layer {
  name: "relu3"
  type: "ReLU"
  bottom: "conv3"
  top: "conv3"
}
layer {
  name: "conv4"
  type: "Convolution"
  bottom: "conv3"
  top: "conv4"
  param {
    lr_mult: 1
  }
  param {
    lr_mult: 2
  }
  convolution_param {
    num_output: 128
    pad: 2
    kernel_size: 5
    stride: 1
    weight_filler {
      type: "gaussian"
      std: 0.01
    }
    bias_filler {
      type: "constant"
    }
  }
}
layer {
  name: "relu4"
  type: "ReLU"
  bottom: "conv4"
  top: "conv4"
}
layer {
  name: "conv5"
  type: "Convolution"
  bottom: "conv4"
  top: "conv5"
  param {
    lr_mult: 1
  }
  param {
    lr_mult: 2
  }
  convolution_param {
    num_output: 128
    pad: 2
    kernel_size: 5
    stride: 1
    weight_filler {
      type: "gaussian"
      std: 0.01
    }
    bias_filler {
      type: "constant"
    }
  }
}
layer {
  name: "relu5"
  type: "ReLU"
  bottom: "conv5"
  top: "conv5"
}
layer {
  name: "pool5"
  type: "Pooling"
  bottom: "conv5"
  top: "pool5"
  pooling_param {
    pool: AVE
    kernel_size: 3
    stride: 2
  }
}
layer {
  name: "ip1"
  type: "InnerProduct"
  bottom: "pool5"
  top: "ip1"
  param {
    lr_mult: 1
  }
  param {
    lr_mult: 2
  }
  inner_product_param {
    num_output: 1024
    weight_filler {
      type: "gaussian"
      std: 0.1
    }
    bias_filler {
      type: "constant"
    }
  }
}
layer {
  name: "ip2"
  type: "InnerProduct"
  bottom: "ip1"
  top: "ip2"
  param {
    lr_mult: 1
  }
  param {
    lr_mult: 2
  }
  inner_product_param {
    num_output: 512
    weight_filler {
      type: "gaussian"
      std: 0.1
    }
    bias_filler {
      type: "constant"
    }
  }
}
layer {
  name: "ip3"
  type: "InnerProduct"
  bottom: "ip2"
  top: "ip3"
  param {
    lr_mult: 1
  }
  param {
    lr_mult: 2
  }
  inner_product_param {
    num_output: 50
    weight_filler {
      type: "gaussian"
      std: 0.1
    }
    bias_filler {
      type: "constant"
    }
  }
}
layer {
  name: "accuracy"
  type: "Accuracy"
  bottom: "ip3"
  bottom: "label"
  top: "accuracy"
  include {
    phase: TEST
  }
}
layer {
  name: "loss"
  type: "SoftmaxWithLoss"
  bottom: "ip3"
  bottom: "label"
  top: "loss"
}
I0506 03:59:52.995563 12761 layer_factory.hpp:77] Creating layer intercept
I0506 03:59:52.995571 12761 net.cpp:94] Creating Layer intercept
I0506 03:59:52.995576 12761 net.cpp:409] intercept -> data
I0506 03:59:52.995582 12761 net.cpp:409] intercept -> label
I0506 03:59:52.995589 12761 hdf5_data_layer.cpp:79] Loading list of HDF5 filenames from: /home/purduethu/scratch/radon/d/deng106/CNNStatisticalModel/distributions/input/50_distributions_100_sample_size_test-distributions-path.txt
I0506 03:59:52.995607 12761 hdf5_data_layer.cpp:93] Number of HDF5 files: 1
I0506 03:59:53.037216 12761 net.cpp:144] Setting up intercept
I0506 03:59:53.037250 12761 net.cpp:151] Top shape: 20 1 10 10 (2000)
I0506 03:59:53.037256 12761 net.cpp:151] Top shape: 20 (20)
I0506 03:59:53.037259 12761 net.cpp:159] Memory required for data: 8080
I0506 03:59:53.037264 12761 layer_factory.hpp:77] Creating layer label_intercept_1_split
I0506 03:59:53.037283 12761 net.cpp:94] Creating Layer label_intercept_1_split
I0506 03:59:53.037288 12761 net.cpp:435] label_intercept_1_split <- label
I0506 03:59:53.037294 12761 net.cpp:409] label_intercept_1_split -> label_intercept_1_split_0
I0506 03:59:53.037302 12761 net.cpp:409] label_intercept_1_split -> label_intercept_1_split_1
I0506 03:59:53.037348 12761 net.cpp:144] Setting up label_intercept_1_split
I0506 03:59:53.037354 12761 net.cpp:151] Top shape: 20 (20)
I0506 03:59:53.037358 12761 net.cpp:151] Top shape: 20 (20)
I0506 03:59:53.037360 12761 net.cpp:159] Memory required for data: 8240
I0506 03:59:53.037364 12761 layer_factory.hpp:77] Creating layer conv1
I0506 03:59:53.037374 12761 net.cpp:94] Creating Layer conv1
I0506 03:59:53.037377 12761 net.cpp:435] conv1 <- data
I0506 03:59:53.037382 12761 net.cpp:409] conv1 -> conv1
I0506 03:59:53.038291 12761 net.cpp:144] Setting up conv1
I0506 03:59:53.038305 12761 net.cpp:151] Top shape: 20 64 10 10 (128000)
I0506 03:59:53.038308 12761 net.cpp:159] Memory required for data: 520240
I0506 03:59:53.038317 12761 layer_factory.hpp:77] Creating layer relu1
I0506 03:59:53.038324 12761 net.cpp:94] Creating Layer relu1
I0506 03:59:53.038328 12761 net.cpp:435] relu1 <- conv1
I0506 03:59:53.038332 12761 net.cpp:396] relu1 -> conv1 (in-place)
I0506 03:59:53.038339 12761 net.cpp:144] Setting up relu1
I0506 03:59:53.038343 12761 net.cpp:151] Top shape: 20 64 10 10 (128000)
I0506 03:59:53.038353 12761 net.cpp:159] Memory required for data: 1032240
I0506 03:59:53.038357 12761 layer_factory.hpp:77] Creating layer conv2
I0506 03:59:53.038364 12761 net.cpp:94] Creating Layer conv2
I0506 03:59:53.038368 12761 net.cpp:435] conv2 <- conv1
I0506 03:59:53.038372 12761 net.cpp:409] conv2 -> conv2
I0506 03:59:53.042614 12761 net.cpp:144] Setting up conv2
I0506 03:59:53.042629 12761 net.cpp:151] Top shape: 20 64 10 10 (128000)
I0506 03:59:53.042632 12761 net.cpp:159] Memory required for data: 1544240
I0506 03:59:53.042640 12761 layer_factory.hpp:77] Creating layer relu2
I0506 03:59:53.042647 12761 net.cpp:94] Creating Layer relu2
I0506 03:59:53.042651 12761 net.cpp:435] relu2 <- conv2
I0506 03:59:53.042655 12761 net.cpp:396] relu2 -> conv2 (in-place)
I0506 03:59:53.042661 12761 net.cpp:144] Setting up relu2
I0506 03:59:53.042667 12761 net.cpp:151] Top shape: 20 64 10 10 (128000)
I0506 03:59:53.042670 12761 net.cpp:159] Memory required for data: 2056240
I0506 03:59:53.042673 12761 layer_factory.hpp:77] Creating layer pool2
I0506 03:59:53.042678 12761 net.cpp:94] Creating Layer pool2
I0506 03:59:53.042681 12761 net.cpp:435] pool2 <- conv2
I0506 03:59:53.042685 12761 net.cpp:409] pool2 -> pool2
I0506 03:59:53.042745 12761 net.cpp:144] Setting up pool2
I0506 03:59:53.042752 12761 net.cpp:151] Top shape: 20 64 5 5 (32000)
I0506 03:59:53.042755 12761 net.cpp:159] Memory required for data: 2184240
I0506 03:59:53.042758 12761 layer_factory.hpp:77] Creating layer conv3
I0506 03:59:53.042767 12761 net.cpp:94] Creating Layer conv3
I0506 03:59:53.042770 12761 net.cpp:435] conv3 <- pool2
I0506 03:59:53.042775 12761 net.cpp:409] conv3 -> conv3
I0506 03:59:53.049103 12761 net.cpp:144] Setting up conv3
I0506 03:59:53.049116 12761 net.cpp:151] Top shape: 20 128 5 5 (64000)
I0506 03:59:53.049120 12761 net.cpp:159] Memory required for data: 2440240
I0506 03:59:53.049129 12761 layer_factory.hpp:77] Creating layer relu3
I0506 03:59:53.049135 12761 net.cpp:94] Creating Layer relu3
I0506 03:59:53.049139 12761 net.cpp:435] relu3 <- conv3
I0506 03:59:53.049144 12761 net.cpp:396] relu3 -> conv3 (in-place)
I0506 03:59:53.049151 12761 net.cpp:144] Setting up relu3
I0506 03:59:53.049155 12761 net.cpp:151] Top shape: 20 128 5 5 (64000)
I0506 03:59:53.049159 12761 net.cpp:159] Memory required for data: 2696240
I0506 03:59:53.049161 12761 layer_factory.hpp:77] Creating layer conv4
I0506 03:59:53.049170 12761 net.cpp:94] Creating Layer conv4
I0506 03:59:53.049172 12761 net.cpp:435] conv4 <- conv3
I0506 03:59:53.049177 12761 net.cpp:409] conv4 -> conv4
I0506 03:59:53.062424 12761 net.cpp:144] Setting up conv4
I0506 03:59:53.062460 12761 net.cpp:151] Top shape: 20 128 5 5 (64000)
I0506 03:59:53.062470 12761 net.cpp:159] Memory required for data: 2952240
I0506 03:59:53.062487 12761 layer_factory.hpp:77] Creating layer relu4
I0506 03:59:53.062502 12761 net.cpp:94] Creating Layer relu4
I0506 03:59:53.062511 12761 net.cpp:435] relu4 <- conv4
I0506 03:59:53.062527 12761 net.cpp:396] relu4 -> conv4 (in-place)
I0506 03:59:53.062546 12761 net.cpp:144] Setting up relu4
I0506 03:59:53.062557 12761 net.cpp:151] Top shape: 20 128 5 5 (64000)
I0506 03:59:53.062566 12761 net.cpp:159] Memory required for data: 3208240
I0506 03:59:53.062582 12761 layer_factory.hpp:77] Creating layer conv5
I0506 03:59:53.062590 12761 net.cpp:94] Creating Layer conv5
I0506 03:59:53.062593 12761 net.cpp:435] conv5 <- conv4
I0506 03:59:53.062598 12761 net.cpp:409] conv5 -> conv5
I0506 03:59:53.075691 12761 net.cpp:144] Setting up conv5
I0506 03:59:53.075706 12761 net.cpp:151] Top shape: 20 128 5 5 (64000)
I0506 03:59:53.075709 12761 net.cpp:159] Memory required for data: 3464240
I0506 03:59:53.075719 12761 layer_factory.hpp:77] Creating layer relu5
I0506 03:59:53.075726 12761 net.cpp:94] Creating Layer relu5
I0506 03:59:53.075728 12761 net.cpp:435] relu5 <- conv5
I0506 03:59:53.075734 12761 net.cpp:396] relu5 -> conv5 (in-place)
I0506 03:59:53.075740 12761 net.cpp:144] Setting up relu5
I0506 03:59:53.075744 12761 net.cpp:151] Top shape: 20 128 5 5 (64000)
I0506 03:59:53.075752 12761 net.cpp:159] Memory required for data: 3720240
I0506 03:59:53.075754 12761 layer_factory.hpp:77] Creating layer pool5
I0506 03:59:53.075759 12761 net.cpp:94] Creating Layer pool5
I0506 03:59:53.075762 12761 net.cpp:435] pool5 <- conv5
I0506 03:59:53.075767 12761 net.cpp:409] pool5 -> pool5
I0506 03:59:53.075809 12761 net.cpp:144] Setting up pool5
I0506 03:59:53.075815 12761 net.cpp:151] Top shape: 20 128 2 2 (10240)
I0506 03:59:53.075819 12761 net.cpp:159] Memory required for data: 3761200
I0506 03:59:53.075821 12761 layer_factory.hpp:77] Creating layer ip1
I0506 03:59:53.075829 12761 net.cpp:94] Creating Layer ip1
I0506 03:59:53.075832 12761 net.cpp:435] ip1 <- pool5
I0506 03:59:53.075836 12761 net.cpp:409] ip1 -> ip1
I0506 03:59:53.089576 12761 net.cpp:144] Setting up ip1
I0506 03:59:53.089589 12761 net.cpp:151] Top shape: 20 1024 (20480)
I0506 03:59:53.089593 12761 net.cpp:159] Memory required for data: 3843120
I0506 03:59:53.089599 12761 layer_factory.hpp:77] Creating layer ip2
I0506 03:59:53.089607 12761 net.cpp:94] Creating Layer ip2
I0506 03:59:53.089609 12761 net.cpp:435] ip2 <- ip1
I0506 03:59:53.089614 12761 net.cpp:409] ip2 -> ip2
I0506 03:59:53.103309 12761 net.cpp:144] Setting up ip2
I0506 03:59:53.103322 12761 net.cpp:151] Top shape: 20 512 (10240)
I0506 03:59:53.103327 12761 net.cpp:159] Memory required for data: 3884080
I0506 03:59:53.103332 12761 layer_factory.hpp:77] Creating layer ip3
I0506 03:59:53.103341 12761 net.cpp:94] Creating Layer ip3
I0506 03:59:53.103345 12761 net.cpp:435] ip3 <- ip2
I0506 03:59:53.103351 12761 net.cpp:409] ip3 -> ip3
I0506 03:59:53.104135 12761 net.cpp:144] Setting up ip3
I0506 03:59:53.104142 12761 net.cpp:151] Top shape: 20 50 (1000)
I0506 03:59:53.104146 12761 net.cpp:159] Memory required for data: 3888080
I0506 03:59:53.104151 12761 layer_factory.hpp:77] Creating layer ip3_ip3_0_split
I0506 03:59:53.104157 12761 net.cpp:94] Creating Layer ip3_ip3_0_split
I0506 03:59:53.104161 12761 net.cpp:435] ip3_ip3_0_split <- ip3
I0506 03:59:53.104164 12761 net.cpp:409] ip3_ip3_0_split -> ip3_ip3_0_split_0
I0506 03:59:53.104171 12761 net.cpp:409] ip3_ip3_0_split -> ip3_ip3_0_split_1
I0506 03:59:53.104218 12761 net.cpp:144] Setting up ip3_ip3_0_split
I0506 03:59:53.104223 12761 net.cpp:151] Top shape: 20 50 (1000)
I0506 03:59:53.104228 12761 net.cpp:151] Top shape: 20 50 (1000)
I0506 03:59:53.104230 12761 net.cpp:159] Memory required for data: 3896080
I0506 03:59:53.104233 12761 layer_factory.hpp:77] Creating layer accuracy
I0506 03:59:53.104240 12761 net.cpp:94] Creating Layer accuracy
I0506 03:59:53.104243 12761 net.cpp:435] accuracy <- ip3_ip3_0_split_0
I0506 03:59:53.104248 12761 net.cpp:435] accuracy <- label_intercept_1_split_0
I0506 03:59:53.104251 12761 net.cpp:409] accuracy -> accuracy
…
