…
I0506 00:13:08.901329 10810 net.cpp:323] The NetState phase (0) differed from the phase (1) specified by a rule in layer intercept
I0506 00:13:08.901370 10810 net.cpp:323] The NetState phase (0) differed from the phase (1) specified by a rule in layer loss
I0506 00:13:08.901566 10810 net.cpp:52] Initializing net from parameters: 
state {
  phase: TRAIN
}
layer {
  name: "parameters"
  type: "HDF5Data"
  top: "data"
  top: "label"
  include {
    phase: TRAIN
  }
  hdf5_data_param {
    source: "/home/purduethu/scratch/radon/d/deng106/CNNStatisticalModel/distributions/input/5_distributions_100_sample_size_train-parameters-path.txt"
    batch_size: 20
  }
}
layer {
  name: "conv1"
  type: "Convolution"
  bottom: "data"
  top: "conv1"
  param {
    lr_mult: 1
  }
  param {
    lr_mult: 2
  }
  convolution_param {
    num_output: 64
    pad: 2
    kernel_size: 5
    stride: 1
    weight_filler {
      type: "gaussian"
      std: 0.0001
    }
    bias_filler {
      type: "constant"
    }
  }
}
layer {
  name: "relu1"
  type: "ReLU"
  bottom: "conv1"
  top: "conv1"
}
layer {
  name: "pool1"
  type: "Pooling"
  bottom: "conv1"
  top: "pool1"
  pooling_param {
    pool: MAX
    kernel_size: 3
    stride: 2
  }
}
layer {
  name: "conv2"
  type: "Convolution"
  bottom: "pool1"
  top: "conv2"
  param {
    lr_mult: 1
  }
  param {
    lr_mult: 2
  }
  convolution_param {
    num_output: 128
    pad: 2
    kernel_size: 5
    stride: 1
    weight_filler {
      type: "gaussian"
      std: 0.01
    }
    bias_filler {
      type: "constant"
    }
  }
}
layer {
  name: "relu2"
  type: "ReLU"
  bottom: "conv2"
  top: "conv2"
}
layer {
  name: "conv3"
  type: "Convolution"
  bottom: "conv2"
  top: "conv3"
  param {
    lr_mult: 1
  }
  param {
    lr_mult: 2
  }
  convolution_param {
    num_output: 128
    pad: 2
    kernel_size: 5
    stride: 1
    weight_filler {
      type: "gaussian"
      std: 0.01
    }
    bias_filler {
      type: "constant"
    }
  }
}
layer {
  name: "relu3"
  type: "ReLU"
  bottom: "conv3"
  top: "conv3"
}
layer {
  name: "pool3"
  type: "Pooling"
  bottom: "conv3"
  top: "pool3"
  pooling_param {
    pool: AVE
    kernel_size: 3
    stride: 2
  }
}
layer {
  name: "ip1"
  type: "InnerProduct"
  bottom: "pool3"
  top: "ip1"
  param {
    lr_mult: 1
  }
  param {
    lr_mult: 2
  }
  inner_product_param {
    num_output: 512
    weight_filler {
      type: "gaussian"
      std: 0.1
    }
    bias_filler {
      type: "constant"
    }
  }
}
layer {
  name: "ip2"
  type: "InnerProduct"
  bottom: "ip1"
  top: "ip2"
  param {
    lr_mult: 1
  }
  param {
    lr_mult: 2
  }
  inner_product_param {
    num_output: 256
    weight_filler {
      type: "gaussian"
      std: 0.1
    }
    bias_filler {
      type: "constant"
    }
  }
}
layer {
  name: "ip3"
  type: "InnerProduct"
  bottom: "ip2"
  top: "ip3"
  param {
    lr_mult: 1
  }
  param {
    lr_mult: 2
  }
  inner_product_param {
    num_output: 1
    weight_filler {
      type: "gaussian"
      std: 0.1
    }
    bias_filler {
      type: "constant"
    }
  }
}
layer {
  name: "loss"
  type: "HuberLoss"
  bottom: "ip3"
  bottom: "label"
  top: "loss"
  include {
    phase: TRAIN
  }
}
I0506 00:13:08.901685 10810 layer_factory.hpp:77] Creating layer parameters
I0506 00:13:08.901722 10810 net.cpp:94] Creating Layer parameters
I0506 00:13:08.901736 10810 net.cpp:409] parameters -> data
I0506 00:13:08.901757 10810 net.cpp:409] parameters -> label
I0506 00:13:08.901775 10810 hdf5_data_layer.cpp:79] Loading list of HDF5 filenames from: /home/purduethu/scratch/radon/d/deng106/CNNStatisticalModel/distributions/input/5_distributions_100_sample_size_train-parameters-path.txt
I0506 00:13:08.901811 10810 hdf5_data_layer.cpp:93] Number of HDF5 files: 1
I0506 00:13:08.903074 10810 hdf5.cpp:32] Datatype class: H5T_FLOAT
I0506 00:13:08.940239 10810 net.cpp:144] Setting up parameters
I0506 00:13:08.940284 10810 net.cpp:151] Top shape: 20 1 10 10 (2000)
I0506 00:13:08.940296 10810 net.cpp:151] Top shape: 20 (20)
I0506 00:13:08.940304 10810 net.cpp:159] Memory required for data: 8080
I0506 00:13:08.940315 10810 layer_factory.hpp:77] Creating layer conv1
I0506 00:13:08.940342 10810 net.cpp:94] Creating Layer conv1
I0506 00:13:08.940352 10810 net.cpp:435] conv1 <- data
I0506 00:13:08.940366 10810 net.cpp:409] conv1 -> conv1
I0506 00:13:08.948127 10810 net.cpp:144] Setting up conv1
I0506 00:13:08.948158 10810 net.cpp:151] Top shape: 20 64 10 10 (128000)
I0506 00:13:08.948168 10810 net.cpp:159] Memory required for data: 520080
I0506 00:13:08.948187 10810 layer_factory.hpp:77] Creating layer relu1
I0506 00:13:08.948204 10810 net.cpp:94] Creating Layer relu1
I0506 00:13:08.948211 10810 net.cpp:435] relu1 <- conv1
I0506 00:13:08.948221 10810 net.cpp:396] relu1 -> conv1 (in-place)
I0506 00:13:08.948237 10810 net.cpp:144] Setting up relu1
I0506 00:13:08.948248 10810 net.cpp:151] Top shape: 20 64 10 10 (128000)
I0506 00:13:08.948256 10810 net.cpp:159] Memory required for data: 1032080
I0506 00:13:08.948262 10810 layer_factory.hpp:77] Creating layer pool1
I0506 00:13:08.948274 10810 net.cpp:94] Creating Layer pool1
I0506 00:13:08.948282 10810 net.cpp:435] pool1 <- conv1
I0506 00:13:08.948292 10810 net.cpp:409] pool1 -> pool1
I0506 00:13:08.948415 10810 net.cpp:144] Setting up pool1
I0506 00:13:08.948429 10810 net.cpp:151] Top shape: 20 64 5 5 (32000)
I0506 00:13:08.948436 10810 net.cpp:159] Memory required for data: 1160080
I0506 00:13:08.948444 10810 layer_factory.hpp:77] Creating layer conv2
I0506 00:13:08.948462 10810 net.cpp:94] Creating Layer conv2
I0506 00:13:08.948470 10810 net.cpp:435] conv2 <- pool1
I0506 00:13:08.948482 10810 net.cpp:409] conv2 -> conv2
I0506 00:13:08.965728 10810 net.cpp:144] Setting up conv2
I0506 00:13:08.965754 10810 net.cpp:151] Top shape: 20 128 5 5 (64000)
I0506 00:13:08.965762 10810 net.cpp:159] Memory required for data: 1416080
I0506 00:13:08.965778 10810 layer_factory.hpp:77] Creating layer relu2
I0506 00:13:08.965790 10810 net.cpp:94] Creating Layer relu2
I0506 00:13:08.965797 10810 net.cpp:435] relu2 <- conv2
I0506 00:13:08.965807 10810 net.cpp:396] relu2 -> conv2 (in-place)
I0506 00:13:08.965821 10810 net.cpp:144] Setting up relu2
I0506 00:13:08.965831 10810 net.cpp:151] Top shape: 20 128 5 5 (64000)
I0506 00:13:08.965837 10810 net.cpp:159] Memory required for data: 1672080
I0506 00:13:08.965842 10810 layer_factory.hpp:77] Creating layer conv3
I0506 00:13:08.965857 10810 net.cpp:94] Creating Layer conv3
I0506 00:13:08.965864 10810 net.cpp:435] conv3 <- conv2
I0506 00:13:08.965873 10810 net.cpp:409] conv3 -> conv3
I0506 00:13:08.992337 10810 net.cpp:144] Setting up conv3
I0506 00:13:08.992362 10810 net.cpp:151] Top shape: 20 128 5 5 (64000)
I0506 00:13:08.992369 10810 net.cpp:159] Memory required for data: 1928080
I0506 00:13:08.992385 10810 layer_factory.hpp:77] Creating layer relu3
I0506 00:13:08.992396 10810 net.cpp:94] Creating Layer relu3
I0506 00:13:08.992411 10810 net.cpp:435] relu3 <- conv3
I0506 00:13:08.992420 10810 net.cpp:396] relu3 -> conv3 (in-place)
I0506 00:13:08.992434 10810 net.cpp:144] Setting up relu3
I0506 00:13:08.992441 10810 net.cpp:151] Top shape: 20 128 5 5 (64000)
I0506 00:13:08.992446 10810 net.cpp:159] Memory required for data: 2184080
I0506 00:13:08.992452 10810 layer_factory.hpp:77] Creating layer pool3
I0506 00:13:08.992462 10810 net.cpp:94] Creating Layer pool3
I0506 00:13:08.992467 10810 net.cpp:435] pool3 <- conv3
I0506 00:13:08.992475 10810 net.cpp:409] pool3 -> pool3
I0506 00:13:08.992543 10810 net.cpp:144] Setting up pool3
I0506 00:13:08.992569 10810 net.cpp:151] Top shape: 20 128 2 2 (10240)
I0506 00:13:08.992576 10810 net.cpp:159] Memory required for data: 2225040
I0506 00:13:08.992583 10810 layer_factory.hpp:77] Creating layer ip1
I0506 00:13:08.992599 10810 net.cpp:94] Creating Layer ip1
I0506 00:13:08.992604 10810 net.cpp:435] ip1 <- pool3
I0506 00:13:08.992614 10810 net.cpp:409] ip1 -> ip1
I0506 00:13:09.005379 10810 net.cpp:144] Setting up ip1
I0506 00:13:09.005403 10810 net.cpp:151] Top shape: 20 512 (10240)
I0506 00:13:09.005409 10810 net.cpp:159] Memory required for data: 2266000
I0506 00:13:09.005420 10810 layer_factory.hpp:77] Creating layer ip2
I0506 00:13:09.005431 10810 net.cpp:94] Creating Layer ip2
I0506 00:13:09.005439 10810 net.cpp:435] ip2 <- ip1
I0506 00:13:09.005447 10810 net.cpp:409] ip2 -> ip2
I0506 00:13:09.012275 10810 net.cpp:144] Setting up ip2
I0506 00:13:09.012296 10810 net.cpp:151] Top shape: 20 256 (5120)
I0506 00:13:09.012303 10810 net.cpp:159] Memory required for data: 2286480
I0506 00:13:09.012316 10810 layer_factory.hpp:77] Creating layer ip3
I0506 00:13:09.012327 10810 net.cpp:94] Creating Layer ip3
I0506 00:13:09.012333 10810 net.cpp:435] ip3 <- ip2
I0506 00:13:09.012341 10810 net.cpp:409] ip3 -> ip3
I0506 00:13:09.012521 10810 net.cpp:144] Setting up ip3
I0506 00:13:09.012532 10810 net.cpp:151] Top shape: 20 1 (20)
I0506 00:13:09.012537 10810 net.cpp:159] Memory required for data: 2286560
I0506 00:13:09.012547 10810 layer_factory.hpp:77] Creating layer loss
I0506 00:13:09.012565 10810 net.cpp:94] Creating Layer loss
I0506 00:13:09.012573 10810 net.cpp:435] loss <- ip3
I0506 00:13:09.012579 10810 net.cpp:435] loss <- label
I0506 00:13:09.012586 10810 net.cpp:409] loss -> loss
I0506 00:13:09.012670 10810 net.cpp:144] Setting up loss
…
I0506 00:13:09.068243 10810 net.cpp:323] The NetState phase (0) differed from the phase (1) specified by a rule in layer intercept
I0506 00:13:09.068259 10810 net.cpp:323] The NetState phase (0) differed from the phase (1) specified by a rule in layer accuracy
I0506 00:13:09.068356 10810 net.cpp:52] Initializing net from parameters: 
state {
  phase: TRAIN
}
layer {
  name: "parameters"
  type: "HDF5Data"
  top: "data"
  top: "label"
  include {
    phase: TRAIN
  }
  hdf5_data_param {
    source: "/home/purduethu/scratch/radon/d/deng106/CNNStatisticalModel/distributions/input/5_distributions_100_sample_size_train-distributions-path.txt"
    batch_size: 20
  }
}
layer {
  name: "conv1"
  type: "Convolution"
  bottom: "data"
  top: "conv1"
  param {
    lr_mult: 1
  }
  param {
    lr_mult: 2
  }
  convolution_param {
    num_output: 64
    pad: 2
    kernel_size: 5
    stride: 1
    weight_filler {
      type: "gaussian"
      std: 0.0001
    }
    bias_filler {
      type: "constant"
    }
  }
}
layer {
  name: "relu1"
  type: "ReLU"
  bottom: "conv1"
  top: "conv1"
}
layer {
  name: "pool1"
  type: "Pooling"
  bottom: "conv1"
  top: "pool1"
  pooling_param {
    pool: MAX
    kernel_size: 3
    stride: 2
  }
}
layer {
  name: "conv2"
  type: "Convolution"
  bottom: "pool1"
  top: "conv2"
  param {
    lr_mult: 1
  }
  param {
    lr_mult: 2
  }
  convolution_param {
    num_output: 128
    pad: 2
    kernel_size: 5
    stride: 1
    weight_filler {
      type: "gaussian"
      std: 0.01
    }
    bias_filler {
      type: "constant"
    }
  }
}
layer {
  name: "relu2"
  type: "ReLU"
  bottom: "conv2"
  top: "conv2"
}
layer {
  name: "conv3"
  type: "Convolution"
  bottom: "conv2"
  top: "conv3"
  param {
    lr_mult: 1
  }
  param {
    lr_mult: 2
  }
  convolution_param {
    num_output: 128
    pad: 2
    kernel_size: 5
    stride: 1
    weight_filler {
      type: "gaussian"
      std: 0.01
    }
    bias_filler {
      type: "constant"
    }
  }
}
layer {
  name: "relu3"
  type: "ReLU"
  bottom: "conv3"
  top: "conv3"
}
layer {
  name: "pool3"
  type: "Pooling"
  bottom: "conv3"
  top: "pool3"
  pooling_param {
    pool: AVE
    kernel_size: 3
    stride: 2
  }
}
layer {
  name: "ip1"
  type: "InnerProduct"
  bottom: "pool3"
  top: "ip1"
  param {
    lr_mult: 1
  }
  param {
    lr_mult: 2
  }
  inner_product_param {
    num_output: 512
    weight_filler {
      type: "gaussian"
      std: 0.1
    }
    bias_filler {
      type: "constant"
    }
  }
}
layer {
  name: "ip2"
  type: "InnerProduct"
  bottom: "ip1"
  top: "ip2"
  param {
    lr_mult: 1
  }
  param {
    lr_mult: 2
  }
  inner_product_param {
    num_output: 256
    weight_filler {
      type: "gaussian"
      std: 0.1
    }
    bias_filler {
      type: "constant"
    }
  }
}
layer {
  name: "ip3"
  type: "InnerProduct"
  bottom: "ip2"
  top: "ip3"
  param {
    lr_mult: 1
  }
  param {
    lr_mult: 2
  }
  inner_product_param {
    num_output: 50
    weight_filler {
      type: "gaussian"
      std: 0.1
    }
    bias_filler {
      type: "constant"
    }
  }
}
layer {
  name: "loss"
  type: "SoftmaxWithLoss"
  bottom: "ip3"
  bottom: "label"
  top: "loss"
}
I0506 00:13:09.068411 10810 layer_factory.hpp:77] Creating layer parameters
I0506 00:13:09.068423 10810 net.cpp:94] Creating Layer parameters
I0506 00:13:09.068428 10810 net.cpp:409] parameters -> data
I0506 00:13:09.068436 10810 net.cpp:409] parameters -> label
I0506 00:13:09.068445 10810 hdf5_data_layer.cpp:79] Loading list of HDF5 filenames from: /home/purduethu/scratch/radon/d/deng106/CNNStatisticalModel/distributions/input/5_distributions_100_sample_size_train-distributions-path.txt
I0506 00:13:09.068467 10810 hdf5_data_layer.cpp:93] Number of HDF5 files: 1
I0506 00:13:09.087630 10810 hdf5.cpp:35] Datatype class: H5T_INTEGER
I0506 00:13:09.088150 10810 net.cpp:144] Setting up parameters
I0506 00:13:09.088166 10810 net.cpp:151] Top shape: 20 1 10 10 (2000)
I0506 00:13:09.088172 10810 net.cpp:151] Top shape: 20 (20)
I0506 00:13:09.088177 10810 net.cpp:159] Memory required for data: 8080
I0506 00:13:09.088184 10810 layer_factory.hpp:77] Creating layer conv1
I0506 00:13:09.088202 10810 net.cpp:94] Creating Layer conv1
I0506 00:13:09.088208 10810 net.cpp:435] conv1 <- data
I0506 00:13:09.088217 10810 net.cpp:409] conv1 -> conv1
I0506 00:13:09.090385 10810 net.cpp:144] Setting up conv1
I0506 00:13:09.090405 10810 net.cpp:151] Top shape: 20 64 10 10 (128000)
I0506 00:13:09.090410 10810 net.cpp:159] Memory required for data: 520080
I0506 00:13:09.090423 10810 layer_factory.hpp:77] Creating layer relu1
I0506 00:13:09.090433 10810 net.cpp:94] Creating Layer relu1
I0506 00:13:09.090437 10810 net.cpp:435] relu1 <- conv1
I0506 00:13:09.090443 10810 net.cpp:396] relu1 -> conv1 (in-place)
I0506 00:13:09.090452 10810 net.cpp:144] Setting up relu1
I0506 00:13:09.090458 10810 net.cpp:151] Top shape: 20 64 10 10 (128000)
I0506 00:13:09.090462 10810 net.cpp:159] Memory required for data: 1032080
I0506 00:13:09.090466 10810 layer_factory.hpp:77] Creating layer pool1
I0506 00:13:09.090473 10810 net.cpp:94] Creating Layer pool1
I0506 00:13:09.090477 10810 net.cpp:435] pool1 <- conv1
I0506 00:13:09.090483 10810 net.cpp:409] pool1 -> pool1
I0506 00:13:09.090569 10810 net.cpp:144] Setting up pool1
I0506 00:13:09.090579 10810 net.cpp:151] Top shape: 20 64 5 5 (32000)
I0506 00:13:09.090584 10810 net.cpp:159] Memory required for data: 1160080
I0506 00:13:09.090587 10810 layer_factory.hpp:77] Creating layer conv2
I0506 00:13:09.090598 10810 net.cpp:94] Creating Layer conv2
I0506 00:13:09.090603 10810 net.cpp:435] conv2 <- pool1
I0506 00:13:09.090610 10810 net.cpp:409] conv2 -> conv2
I0506 00:13:09.101814 10810 net.cpp:144] Setting up conv2
I0506 00:13:09.101831 10810 net.cpp:151] Top shape: 20 128 5 5 (64000)
I0506 00:13:09.101836 10810 net.cpp:159] Memory required for data: 1416080
I0506 00:13:09.101846 10810 layer_factory.hpp:77] Creating layer relu2
I0506 00:13:09.101855 10810 net.cpp:94] Creating Layer relu2
I0506 00:13:09.101858 10810 net.cpp:435] relu2 <- conv2
I0506 00:13:09.101864 10810 net.cpp:396] relu2 -> conv2 (in-place)
I0506 00:13:09.101872 10810 net.cpp:144] Setting up relu2
I0506 00:13:09.101878 10810 net.cpp:151] Top shape: 20 128 5 5 (64000)
I0506 00:13:09.101881 10810 net.cpp:159] Memory required for data: 1672080
I0506 00:13:09.101886 10810 layer_factory.hpp:77] Creating layer conv3
I0506 00:13:09.101896 10810 net.cpp:94] Creating Layer conv3
I0506 00:13:09.101899 10810 net.cpp:435] conv3 <- conv2
I0506 00:13:09.101905 10810 net.cpp:409] conv3 -> conv3
I0506 00:13:09.119087 10810 net.cpp:144] Setting up conv3
I0506 00:13:09.119103 10810 net.cpp:151] Top shape: 20 128 5 5 (64000)
I0506 00:13:09.119107 10810 net.cpp:159] Memory required for data: 1928080
I0506 00:13:09.119117 10810 layer_factory.hpp:77] Creating layer relu3
I0506 00:13:09.119124 10810 net.cpp:94] Creating Layer relu3
I0506 00:13:09.119128 10810 net.cpp:435] relu3 <- conv3
I0506 00:13:09.119134 10810 net.cpp:396] relu3 -> conv3 (in-place)
I0506 00:13:09.119143 10810 net.cpp:144] Setting up relu3
I0506 00:13:09.119148 10810 net.cpp:151] Top shape: 20 128 5 5 (64000)
I0506 00:13:09.119151 10810 net.cpp:159] Memory required for data: 2184080
I0506 00:13:09.119154 10810 layer_factory.hpp:77] Creating layer pool3
I0506 00:13:09.119161 10810 net.cpp:94] Creating Layer pool3
I0506 00:13:09.119164 10810 net.cpp:435] pool3 <- conv3
I0506 00:13:09.119169 10810 net.cpp:409] pool3 -> pool3
I0506 00:13:09.119212 10810 net.cpp:144] Setting up pool3
I0506 00:13:09.119220 10810 net.cpp:151] Top shape: 20 128 2 2 (10240)
I0506 00:13:09.119223 10810 net.cpp:159] Memory required for data: 2225040
I0506 00:13:09.119227 10810 layer_factory.hpp:77] Creating layer ip1
I0506 00:13:09.119235 10810 net.cpp:94] Creating Layer ip1
I0506 00:13:09.119238 10810 net.cpp:435] ip1 <- pool3
I0506 00:13:09.119243 10810 net.cpp:409] ip1 -> ip1
I0506 00:13:09.126850 10810 net.cpp:144] Setting up ip1
I0506 00:13:09.126863 10810 net.cpp:151] Top shape: 20 512 (10240)
I0506 00:13:09.126868 10810 net.cpp:159] Memory required for data: 2266000
I0506 00:13:09.126874 10810 layer_factory.hpp:77] Creating layer ip2
I0506 00:13:09.126881 10810 net.cpp:94] Creating Layer ip2
I0506 00:13:09.126885 10810 net.cpp:435] ip2 <- ip1
I0506 00:13:09.126891 10810 net.cpp:409] ip2 -> ip2
I0506 00:13:09.130718 10810 net.cpp:144] Setting up ip2
I0506 00:13:09.130728 10810 net.cpp:151] Top shape: 20 256 (5120)
I0506 00:13:09.130733 10810 net.cpp:159] Memory required for data: 2286480
I0506 00:13:09.130740 10810 layer_factory.hpp:77] Creating layer ip3
I0506 00:13:09.130748 10810 net.cpp:94] Creating Layer ip3
I0506 00:13:09.130751 10810 net.cpp:435] ip3 <- ip2
I0506 00:13:09.130756 10810 net.cpp:409] ip3 -> ip3
I0506 00:13:09.131260 10810 net.cpp:144] Setting up ip3
I0506 00:13:09.131268 10810 net.cpp:151] Top shape: 20 50 (1000)
I0506 00:13:09.131273 10810 net.cpp:159] Memory required for data: 2290480
I0506 00:13:09.131278 10810 layer_factory.hpp:77] Creating layer loss
I0506 00:13:09.131284 10810 net.cpp:94] Creating Layer loss
I0506 00:13:09.131287 10810 net.cpp:435] loss <- ip3
I0506 00:13:09.131292 10810 net.cpp:435] loss <- label
I0506 00:13:09.131296 10810 net.cpp:409] loss -> loss
I0506 00:13:09.131304 10810 layer_factory.hpp:77] Creating layer loss
…
I0506 00:13:09.131810 10810 solver.cpp:181] Creating test net (#0) specified by net file: ./protocol/dis_5_100_dimension.protocol_distribution
I0506 00:13:09.131836 10810 net.cpp:323] The NetState phase (1) differed from the phase (0) specified by a rule in layer parameters
I0506 00:13:09.131927 10810 net.cpp:52] Initializing net from parameters: 
state {
  phase: TEST
}
layer {
  name: "intercept"
  type: "HDF5Data"
  top: "data"
  top: "label"
  include {
    phase: TEST
  }
  hdf5_data_param {
    source: "/home/purduethu/scratch/radon/d/deng106/CNNStatisticalModel/distributions/input/5_distributions_100_sample_size_test-distributions-path.txt"
    batch_size: 20
  }
}
layer {
  name: "conv1"
  type: "Convolution"
  bottom: "data"
  top: "conv1"
  param {
    lr_mult: 1
  }
  param {
    lr_mult: 2
  }
  convolution_param {
    num_output: 64
    pad: 2
    kernel_size: 5
    stride: 1
    weight_filler {
      type: "gaussian"
      std: 0.0001
    }
    bias_filler {
      type: "constant"
    }
  }
}
layer {
  name: "relu1"
  type: "ReLU"
  bottom: "conv1"
  top: "conv1"
}
layer {
  name: "pool1"
  type: "Pooling"
  bottom: "conv1"
  top: "pool1"
  pooling_param {
    pool: MAX
    kernel_size: 3
    stride: 2
  }
}
layer {
  name: "conv2"
  type: "Convolution"
  bottom: "pool1"
  top: "conv2"
  param {
    lr_mult: 1
  }
  param {
    lr_mult: 2
  }
  convolution_param {
    num_output: 128
    pad: 2
    kernel_size: 5
    stride: 1
    weight_filler {
      type: "gaussian"
      std: 0.01
    }
    bias_filler {
      type: "constant"
    }
  }
}
layer {
  name: "relu2"
  type: "ReLU"
  bottom: "conv2"
  top: "conv2"
}
layer {
  name: "conv3"
  type: "Convolution"
  bottom: "conv2"
  top: "conv3"
  param {
    lr_mult: 1
  }
  param {
    lr_mult: 2
  }
  convolution_param {
    num_output: 128
    pad: 2
    kernel_size: 5
    stride: 1
    weight_filler {
      type: "gaussian"
      std: 0.01
    }
    bias_filler {
      type: "constant"
    }
  }
}
layer {
  name: "relu3"
  type: "ReLU"
  bottom: "conv3"
  top: "conv3"
}
layer {
  name: "pool3"
  type: "Pooling"
  bottom: "conv3"
  top: "pool3"
  pooling_param {
    pool: AVE
    kernel_size: 3
    stride: 2
  }
}
layer {
  name: "ip1"
  type: "InnerProduct"
  bottom: "pool3"
  top: "ip1"
  param {
    lr_mult: 1
  }
  param {
    lr_mult: 2
  }
  inner_product_param {
    num_output: 512
    weight_filler {
      type: "gaussian"
      std: 0.1
    }
    bias_filler {
      type: "constant"
    }
  }
}
layer {
  name: "ip2"
  type: "InnerProduct"
  bottom: "ip1"
  top: "ip2"
  param {
    lr_mult: 1
  }
  param {
    lr_mult: 2
  }
  inner_product_param {
    num_output: 256
    weight_filler {
      type: "gaussian"
      std: 0.1
    }
    bias_filler {
      type: "constant"
    }
  }
}
layer {
  name: "ip3"
  type: "InnerProduct"
  bottom: "ip2"
  top: "ip3"
  param {
    lr_mult: 1
  }
  param {
    lr_mult: 2
  }
  inner_product_param {
    num_output: 50
    weight_filler {
      type: "gaussian"
      std: 0.1
    }
    bias_filler {
      type: "constant"
    }
  }
}
layer {
  name: "accuracy"
  type: "Accuracy"
  bottom: "ip3"
  bottom: "label"
  top: "accuracy"
  include {
    phase: TEST
  }
}
layer {
  name: "loss"
  type: "SoftmaxWithLoss"
  bottom: "ip3"
  bottom: "label"
  top: "loss"
}
I0506 00:13:09.131994 10810 layer_factory.hpp:77] Creating layer intercept
I0506 00:13:09.132004 10810 net.cpp:94] Creating Layer intercept
I0506 00:13:09.132009 10810 net.cpp:409] intercept -> data
I0506 00:13:09.132016 10810 net.cpp:409] intercept -> label
I0506 00:13:09.132022 10810 hdf5_data_layer.cpp:79] Loading list of HDF5 filenames from: /home/purduethu/scratch/radon/d/deng106/CNNStatisticalModel/distributions/input/5_distributions_100_sample_size_test-distributions-path.txt
I0506 00:13:09.132045 10810 hdf5_data_layer.cpp:93] Number of HDF5 files: 1
I0506 00:13:09.136976 10810 net.cpp:144] Setting up intercept
I0506 00:13:09.137008 10810 net.cpp:151] Top shape: 20 1 10 10 (2000)
I0506 00:13:09.137014 10810 net.cpp:151] Top shape: 20 (20)
I0506 00:13:09.137018 10810 net.cpp:159] Memory required for data: 8080
I0506 00:13:09.137024 10810 layer_factory.hpp:77] Creating layer label_intercept_1_split
I0506 00:13:09.137044 10810 net.cpp:94] Creating Layer label_intercept_1_split
I0506 00:13:09.137049 10810 net.cpp:435] label_intercept_1_split <- label
I0506 00:13:09.137056 10810 net.cpp:409] label_intercept_1_split -> label_intercept_1_split_0
I0506 00:13:09.137065 10810 net.cpp:409] label_intercept_1_split -> label_intercept_1_split_1
I0506 00:13:09.137115 10810 net.cpp:144] Setting up label_intercept_1_split
I0506 00:13:09.137121 10810 net.cpp:151] Top shape: 20 (20)
I0506 00:13:09.137126 10810 net.cpp:151] Top shape: 20 (20)
I0506 00:13:09.137130 10810 net.cpp:159] Memory required for data: 8240
I0506 00:13:09.137132 10810 layer_factory.hpp:77] Creating layer conv1
I0506 00:13:09.137145 10810 net.cpp:94] Creating Layer conv1
I0506 00:13:09.137148 10810 net.cpp:435] conv1 <- data
I0506 00:13:09.137154 10810 net.cpp:409] conv1 -> conv1
I0506 00:13:09.138103 10810 net.cpp:144] Setting up conv1
I0506 00:13:09.138118 10810 net.cpp:151] Top shape: 20 64 10 10 (128000)
I0506 00:13:09.138121 10810 net.cpp:159] Memory required for data: 520240
I0506 00:13:09.138131 10810 layer_factory.hpp:77] Creating layer relu1
I0506 00:13:09.138139 10810 net.cpp:94] Creating Layer relu1
I0506 00:13:09.138144 10810 net.cpp:435] relu1 <- conv1
I0506 00:13:09.138147 10810 net.cpp:396] relu1 -> conv1 (in-place)
I0506 00:13:09.138155 10810 net.cpp:144] Setting up relu1
I0506 00:13:09.138160 10810 net.cpp:151] Top shape: 20 64 10 10 (128000)
I0506 00:13:09.138164 10810 net.cpp:159] Memory required for data: 1032240
I0506 00:13:09.138167 10810 layer_factory.hpp:77] Creating layer pool1
I0506 00:13:09.138175 10810 net.cpp:94] Creating Layer pool1
I0506 00:13:09.138177 10810 net.cpp:435] pool1 <- conv1
I0506 00:13:09.138182 10810 net.cpp:409] pool1 -> pool1
I0506 00:13:09.138247 10810 net.cpp:144] Setting up pool1
I0506 00:13:09.138253 10810 net.cpp:151] Top shape: 20 64 5 5 (32000)
I0506 00:13:09.138257 10810 net.cpp:159] Memory required for data: 1160240
I0506 00:13:09.138260 10810 layer_factory.hpp:77] Creating layer conv2
I0506 00:13:09.138269 10810 net.cpp:94] Creating Layer conv2
I0506 00:13:09.138273 10810 net.cpp:435] conv2 <- pool1
I0506 00:13:09.138278 10810 net.cpp:409] conv2 -> conv2
I0506 00:13:09.146592 10810 net.cpp:144] Setting up conv2
I0506 00:13:09.146610 10810 net.cpp:151] Top shape: 20 128 5 5 (64000)
I0506 00:13:09.146613 10810 net.cpp:159] Memory required for data: 1416240
I0506 00:13:09.146622 10810 layer_factory.hpp:77] Creating layer relu2
I0506 00:13:09.146630 10810 net.cpp:94] Creating Layer relu2
I0506 00:13:09.146639 10810 net.cpp:435] relu2 <- conv2
I0506 00:13:09.146646 10810 net.cpp:396] relu2 -> conv2 (in-place)
I0506 00:13:09.146652 10810 net.cpp:144] Setting up relu2
I0506 00:13:09.146657 10810 net.cpp:151] Top shape: 20 128 5 5 (64000)
I0506 00:13:09.146661 10810 net.cpp:159] Memory required for data: 1672240
I0506 00:13:09.146664 10810 layer_factory.hpp:77] Creating layer conv3
I0506 00:13:09.146672 10810 net.cpp:94] Creating Layer conv3
I0506 00:13:09.146675 10810 net.cpp:435] conv3 <- conv2
I0506 00:13:09.146682 10810 net.cpp:409] conv3 -> conv3
I0506 00:13:09.160399 10810 net.cpp:144] Setting up conv3
I0506 00:13:09.160415 10810 net.cpp:151] Top shape: 20 128 5 5 (64000)
I0506 00:13:09.160419 10810 net.cpp:159] Memory required for data: 1928240
I0506 00:13:09.160429 10810 layer_factory.hpp:77] Creating layer relu3
I0506 00:13:09.160436 10810 net.cpp:94] Creating Layer relu3
I0506 00:13:09.160440 10810 net.cpp:435] relu3 <- conv3
I0506 00:13:09.160445 10810 net.cpp:396] relu3 -> conv3 (in-place)
I0506 00:13:09.160452 10810 net.cpp:144] Setting up relu3
I0506 00:13:09.160457 10810 net.cpp:151] Top shape: 20 128 5 5 (64000)
I0506 00:13:09.160460 10810 net.cpp:159] Memory required for data: 2184240
I0506 00:13:09.160464 10810 layer_factory.hpp:77] Creating layer pool3
I0506 00:13:09.160468 10810 net.cpp:94] Creating Layer pool3
I0506 00:13:09.160471 10810 net.cpp:435] pool3 <- conv3
I0506 00:13:09.160476 10810 net.cpp:409] pool3 -> pool3
I0506 00:13:09.160518 10810 net.cpp:144] Setting up pool3
I0506 00:13:09.160526 10810 net.cpp:151] Top shape: 20 128 2 2 (10240)
I0506 00:13:09.160528 10810 net.cpp:159] Memory required for data: 2225200
I0506 00:13:09.160532 10810 layer_factory.hpp:77] Creating layer ip1
I0506 00:13:09.160539 10810 net.cpp:94] Creating Layer ip1
I0506 00:13:09.160542 10810 net.cpp:435] ip1 <- pool3
I0506 00:13:09.160547 10810 net.cpp:409] ip1 -> ip1
I0506 00:13:09.167409 10810 net.cpp:144] Setting up ip1
I0506 00:13:09.167419 10810 net.cpp:151] Top shape: 20 512 (10240)
I0506 00:13:09.167423 10810 net.cpp:159] Memory required for data: 2266160
I0506 00:13:09.167428 10810 layer_factory.hpp:77] Creating layer ip2
I0506 00:13:09.167434 10810 net.cpp:94] Creating Layer ip2
I0506 00:13:09.167438 10810 net.cpp:435] ip2 <- ip1
I0506 00:13:09.167443 10810 net.cpp:409] ip2 -> ip2
I0506 00:13:09.170876 10810 net.cpp:144] Setting up ip2
I0506 00:13:09.170883 10810 net.cpp:151] Top shape: 20 256 (5120)
I0506 00:13:09.170886 10810 net.cpp:159] Memory required for data: 2286640
I0506 00:13:09.170894 10810 layer_factory.hpp:77] Creating layer ip3
I0506 00:13:09.170900 10810 net.cpp:94] Creating Layer ip3
I0506 00:13:09.170904 10810 net.cpp:435] ip3 <- ip2
I0506 00:13:09.170909 10810 net.cpp:409] ip3 -> ip3
I0506 00:13:09.171378 10810 net.cpp:144] Setting up ip3
I0506 00:13:09.171386 10810 net.cpp:151] Top shape: 20 50 (1000)
I0506 00:13:09.171389 10810 net.cpp:159] Memory required for data: 2290640
I0506 00:13:09.171394 10810 layer_factory.hpp:77] Creating layer ip3_ip3_0_split
I0506 00:13:09.171401 10810 net.cpp:94] Creating Layer ip3_ip3_0_split
I0506 00:13:09.171403 10810 net.cpp:435] ip3_ip3_0_split <- ip3
I0506 00:13:09.171407 10810 net.cpp:409] ip3_ip3_0_split -> ip3_ip3_0_split_0
I0506 00:13:09.171413 10810 net.cpp:409] ip3_ip3_0_split -> ip3_ip3_0_split_1
I0506 00:13:09.171456 10810 net.cpp:144] Setting up ip3_ip3_0_split
I0506 00:13:09.171463 10810 net.cpp:151] Top shape: 20 50 (1000)
I0506 00:13:09.171466 10810 net.cpp:151] Top shape: 20 50 (1000)
I0506 00:13:09.171469 10810 net.cpp:159] Memory required for data: 2298640
I0506 00:13:09.171473 10810 layer_factory.hpp:77] Creating layer accuracy
I0506 00:13:09.171479 10810 net.cpp:94] Creating Layer accuracy
I0506 00:13:09.171483 10810 net.cpp:435] accuracy <- ip3_ip3_0_split_0
I0506 00:13:09.171486 10810 net.cpp:435] accuracy <- label_intercept_1_split_0
I0506 00:13:09.171490 10810 net.cpp:409] accuracy -> accuracy
…
