…
I0507 00:05:23.644366 29369 net.cpp:323] The NetState phase (0) differed from the phase (1) specified by a rule in layer intercept
I0507 00:05:23.644382 29369 net.cpp:323] The NetState phase (0) differed from the phase (1) specified by a rule in layer loss
I0507 00:05:23.644464 29369 net.cpp:52] Initializing net from parameters: 
state {
  phase: TRAIN
}
layer {
  name: "parameters"
  type: "HDF5Data"
  top: "data"
  top: "label"
  include {
    phase: TRAIN
  }
  hdf5_data_param {
    source: "/home/purduethu/scratch/radon/d/deng106/CNNStatisticalModel/distributions/input/50_distributions_100_sample_size_train-parameters-path.txt"
    batch_size: 20
  }
}
layer {
  name: "conv1"
  type: "Convolution"
  bottom: "data"
  top: "conv1"
  param {
    lr_mult: 1
  }
  param {
    lr_mult: 2
  }
  convolution_param {
    num_output: 64
    pad: 2
    kernel_size: 5
    stride: 1
    weight_filler {
      type: "gaussian"
      std: 0.0001
    }
    bias_filler {
      type: "constant"
    }
  }
}
layer {
  name: "relu1"
  type: "ReLU"
  bottom: "conv1"
  top: "conv1"
}
layer {
  name: "conv2"
  type: "Convolution"
  bottom: "conv1"
  top: "conv2"
  param {
    lr_mult: 1
  }
  param {
    lr_mult: 2
  }
  convolution_param {
    num_output: 64
    pad: 2
    kernel_size: 5
    stride: 1
    weight_filler {
      type: "gaussian"
      std: 0.01
    }
    bias_filler {
      type: "constant"
    }
  }
}
layer {
  name: "relu2"
  type: "ReLU"
  bottom: "conv2"
  top: "conv2"
}
layer {
  name: "pool2"
  type: "Pooling"
  bottom: "conv2"
  top: "pool2"
  pooling_param {
    pool: MAX
    kernel_size: 3
    stride: 2
  }
}
layer {
  name: "conv3"
  type: "Convolution"
  bottom: "pool2"
  top: "conv3"
  param {
    lr_mult: 1
  }
  param {
    lr_mult: 2
  }
  convolution_param {
    num_output: 64
    pad: 2
    kernel_size: 5
    stride: 1
    weight_filler {
      type: "gaussian"
      std: 0.01
    }
    bias_filler {
      type: "constant"
    }
  }
}
layer {
  name: "relu3"
  type: "ReLU"
  bottom: "conv3"
  top: "conv3"
}
layer {
  name: "conv4"
  type: "Convolution"
  bottom: "conv3"
  top: "conv4"
  param {
    lr_mult: 1
  }
  param {
    lr_mult: 2
  }
  convolution_param {
    num_output: 64
    pad: 2
    kernel_size: 5
    stride: 1
    weight_filler {
      type: "gaussian"
      std: 0.01
    }
    bias_filler {
      type: "constant"
    }
  }
}
layer {
  name: "relu4"
  type: "ReLU"
  bottom: "conv4"
  top: "conv4"
}
layer {
  name: "conv5"
  type: "Convolution"
  bottom: "conv4"
  top: "conv5"
  param {
    lr_mult: 1
  }
  param {
    lr_mult: 2
  }
  convolution_param {
    num_output: 64
    pad: 2
    kernel_size: 5
    stride: 1
    weight_filler {
      type: "gaussian"
      std: 0.01
    }
    bias_filler {
      type: "constant"
    }
  }
}
layer {
  name: "relu5"
  type: "ReLU"
  bottom: "conv5"
  top: "conv5"
}
layer {
  name: "pool5"
  type: "Pooling"
  bottom: "conv5"
  top: "pool5"
  pooling_param {
    pool: AVE
    kernel_size: 3
    stride: 2
  }
}
layer {
  name: "ip1"
  type: "InnerProduct"
  bottom: "pool5"
  top: "ip1"
  param {
    lr_mult: 1
  }
  param {
    lr_mult: 2
  }
  inner_product_param {
    num_output: 64
    weight_filler {
      type: "gaussian"
      std: 0.1
    }
    bias_filler {
      type: "constant"
    }
  }
}
layer {
  name: "ip2"
  type: "InnerProduct"
  bottom: "ip1"
  top: "ip2"
  param {
    lr_mult: 1
  }
  param {
    lr_mult: 2
  }
  inner_product_param {
    num_output: 64
    weight_filler {
      type: "gaussian"
      std: 0.1
    }
    bias_filler {
      type: "constant"
    }
  }
}
layer {
  name: "ip3"
  type: "InnerProduct"
  bottom: "ip2"
  top: "ip3"
  param {
    lr_mult: 1
  }
  param {
    lr_mult: 2
  }
  inner_product_param {
    num_output: 1
    weight_filler {
      type: "gaussian"
      std: 0.1
    }
    bias_filler {
      type: "constant"
    }
  }
}
layer {
  name: "loss"
  type: "HuberLoss"
  bottom: "ip3"
  bottom: "label"
  top: "loss"
  include {
    phase: TRAIN
  }
}
I0507 00:05:23.644520 29369 layer_factory.hpp:77] Creating layer parameters
I0507 00:05:23.644538 29369 net.cpp:94] Creating Layer parameters
I0507 00:05:23.644543 29369 net.cpp:409] parameters -> data
I0507 00:05:23.644557 29369 net.cpp:409] parameters -> label
I0507 00:05:23.644565 29369 hdf5_data_layer.cpp:79] Loading list of HDF5 filenames from: /home/purduethu/scratch/radon/d/deng106/CNNStatisticalModel/distributions/input/50_distributions_100_sample_size_train-parameters-path.txt
I0507 00:05:23.644582 29369 hdf5_data_layer.cpp:93] Number of HDF5 files: 1
I0507 00:05:23.645143 29369 hdf5.cpp:32] Datatype class: H5T_FLOAT
I0507 00:05:23.808866 29369 net.cpp:144] Setting up parameters
I0507 00:05:23.808899 29369 net.cpp:151] Top shape: 20 1 10 10 (2000)
I0507 00:05:23.808905 29369 net.cpp:151] Top shape: 20 (20)
I0507 00:05:23.808908 29369 net.cpp:159] Memory required for data: 8080
I0507 00:05:23.808915 29369 layer_factory.hpp:77] Creating layer conv1
I0507 00:05:23.808931 29369 net.cpp:94] Creating Layer conv1
I0507 00:05:23.808936 29369 net.cpp:435] conv1 <- data
I0507 00:05:23.808943 29369 net.cpp:409] conv1 -> conv1
I0507 00:05:23.813096 29369 net.cpp:144] Setting up conv1
I0507 00:05:23.813112 29369 net.cpp:151] Top shape: 20 64 10 10 (128000)
I0507 00:05:23.813115 29369 net.cpp:159] Memory required for data: 520080
I0507 00:05:23.813127 29369 layer_factory.hpp:77] Creating layer relu1
I0507 00:05:23.813134 29369 net.cpp:94] Creating Layer relu1
I0507 00:05:23.813139 29369 net.cpp:435] relu1 <- conv1
I0507 00:05:23.813143 29369 net.cpp:396] relu1 -> conv1 (in-place)
I0507 00:05:23.813151 29369 net.cpp:144] Setting up relu1
I0507 00:05:23.813156 29369 net.cpp:151] Top shape: 20 64 10 10 (128000)
I0507 00:05:23.813160 29369 net.cpp:159] Memory required for data: 1032080
I0507 00:05:23.813163 29369 layer_factory.hpp:77] Creating layer conv2
I0507 00:05:23.813171 29369 net.cpp:94] Creating Layer conv2
I0507 00:05:23.813175 29369 net.cpp:435] conv2 <- conv1
I0507 00:05:23.813180 29369 net.cpp:409] conv2 -> conv2
I0507 00:05:23.819216 29369 net.cpp:144] Setting up conv2
I0507 00:05:23.819231 29369 net.cpp:151] Top shape: 20 64 10 10 (128000)
I0507 00:05:23.819234 29369 net.cpp:159] Memory required for data: 1544080
I0507 00:05:23.819243 29369 layer_factory.hpp:77] Creating layer relu2
I0507 00:05:23.819250 29369 net.cpp:94] Creating Layer relu2
I0507 00:05:23.819254 29369 net.cpp:435] relu2 <- conv2
I0507 00:05:23.819259 29369 net.cpp:396] relu2 -> conv2 (in-place)
I0507 00:05:23.819267 29369 net.cpp:144] Setting up relu2
I0507 00:05:23.819272 29369 net.cpp:151] Top shape: 20 64 10 10 (128000)
I0507 00:05:23.819274 29369 net.cpp:159] Memory required for data: 2056080
I0507 00:05:23.819278 29369 layer_factory.hpp:77] Creating layer pool2
I0507 00:05:23.819284 29369 net.cpp:94] Creating Layer pool2
I0507 00:05:23.819288 29369 net.cpp:435] pool2 <- conv2
I0507 00:05:23.819293 29369 net.cpp:409] pool2 -> pool2
I0507 00:05:23.819344 29369 net.cpp:144] Setting up pool2
I0507 00:05:23.819352 29369 net.cpp:151] Top shape: 20 64 5 5 (32000)
I0507 00:05:23.819355 29369 net.cpp:159] Memory required for data: 2184080
I0507 00:05:23.819360 29369 layer_factory.hpp:77] Creating layer conv3
I0507 00:05:23.819367 29369 net.cpp:94] Creating Layer conv3
I0507 00:05:23.819371 29369 net.cpp:435] conv3 <- pool2
I0507 00:05:23.819382 29369 net.cpp:409] conv3 -> conv3
I0507 00:05:23.824257 29369 net.cpp:144] Setting up conv3
I0507 00:05:23.824270 29369 net.cpp:151] Top shape: 20 64 5 5 (32000)
I0507 00:05:23.824275 29369 net.cpp:159] Memory required for data: 2312080
I0507 00:05:23.824283 29369 layer_factory.hpp:77] Creating layer relu3
I0507 00:05:23.824290 29369 net.cpp:94] Creating Layer relu3
I0507 00:05:23.824295 29369 net.cpp:435] relu3 <- conv3
I0507 00:05:23.824300 29369 net.cpp:396] relu3 -> conv3 (in-place)
I0507 00:05:23.824306 29369 net.cpp:144] Setting up relu3
I0507 00:05:23.824311 29369 net.cpp:151] Top shape: 20 64 5 5 (32000)
I0507 00:05:23.824314 29369 net.cpp:159] Memory required for data: 2440080
I0507 00:05:23.824317 29369 layer_factory.hpp:77] Creating layer conv4
I0507 00:05:23.824326 29369 net.cpp:94] Creating Layer conv4
I0507 00:05:23.824331 29369 net.cpp:435] conv4 <- conv3
I0507 00:05:23.824335 29369 net.cpp:409] conv4 -> conv4
I0507 00:05:23.828760 29369 net.cpp:144] Setting up conv4
I0507 00:05:23.828773 29369 net.cpp:151] Top shape: 20 64 5 5 (32000)
I0507 00:05:23.828778 29369 net.cpp:159] Memory required for data: 2568080
I0507 00:05:23.828784 29369 layer_factory.hpp:77] Creating layer relu4
I0507 00:05:23.828790 29369 net.cpp:94] Creating Layer relu4
I0507 00:05:23.828794 29369 net.cpp:435] relu4 <- conv4
I0507 00:05:23.828799 29369 net.cpp:396] relu4 -> conv4 (in-place)
I0507 00:05:23.828805 29369 net.cpp:144] Setting up relu4
I0507 00:05:23.828810 29369 net.cpp:151] Top shape: 20 64 5 5 (32000)
I0507 00:05:23.828814 29369 net.cpp:159] Memory required for data: 2696080
I0507 00:05:23.828816 29369 layer_factory.hpp:77] Creating layer conv5
I0507 00:05:23.828825 29369 net.cpp:94] Creating Layer conv5
I0507 00:05:23.828829 29369 net.cpp:435] conv5 <- conv4
I0507 00:05:23.828833 29369 net.cpp:409] conv5 -> conv5
I0507 00:05:23.833698 29369 net.cpp:144] Setting up conv5
I0507 00:05:23.833710 29369 net.cpp:151] Top shape: 20 64 5 5 (32000)
I0507 00:05:23.833714 29369 net.cpp:159] Memory required for data: 2824080
I0507 00:05:23.833724 29369 layer_factory.hpp:77] Creating layer relu5
I0507 00:05:23.833729 29369 net.cpp:94] Creating Layer relu5
I0507 00:05:23.833734 29369 net.cpp:435] relu5 <- conv5
I0507 00:05:23.833739 29369 net.cpp:396] relu5 -> conv5 (in-place)
I0507 00:05:23.833745 29369 net.cpp:144] Setting up relu5
I0507 00:05:23.833750 29369 net.cpp:151] Top shape: 20 64 5 5 (32000)
I0507 00:05:23.833753 29369 net.cpp:159] Memory required for data: 2952080
I0507 00:05:23.833756 29369 layer_factory.hpp:77] Creating layer pool5
I0507 00:05:23.833762 29369 net.cpp:94] Creating Layer pool5
I0507 00:05:23.833765 29369 net.cpp:435] pool5 <- conv5
I0507 00:05:23.833770 29369 net.cpp:409] pool5 -> pool5
I0507 00:05:23.833807 29369 net.cpp:144] Setting up pool5
I0507 00:05:23.833816 29369 net.cpp:151] Top shape: 20 64 2 2 (5120)
I0507 00:05:23.833818 29369 net.cpp:159] Memory required for data: 2972560
I0507 00:05:23.833822 29369 layer_factory.hpp:77] Creating layer ip1
I0507 00:05:23.833832 29369 net.cpp:94] Creating Layer ip1
I0507 00:05:23.833835 29369 net.cpp:435] ip1 <- pool5
I0507 00:05:23.833840 29369 net.cpp:409] ip1 -> ip1
I0507 00:05:23.835134 29369 net.cpp:144] Setting up ip1
I0507 00:05:23.835147 29369 net.cpp:151] Top shape: 20 64 (1280)
I0507 00:05:23.835152 29369 net.cpp:159] Memory required for data: 2977680
I0507 00:05:23.835158 29369 layer_factory.hpp:77] Creating layer ip2
I0507 00:05:23.835166 29369 net.cpp:94] Creating Layer ip2
I0507 00:05:23.835170 29369 net.cpp:435] ip2 <- ip1
I0507 00:05:23.835176 29369 net.cpp:409] ip2 -> ip2
I0507 00:05:23.835381 29369 net.cpp:144] Setting up ip2
I0507 00:05:23.835389 29369 net.cpp:151] Top shape: 20 64 (1280)
I0507 00:05:23.835392 29369 net.cpp:159] Memory required for data: 2982800
I0507 00:05:23.835398 29369 layer_factory.hpp:77] Creating layer ip3
I0507 00:05:23.835404 29369 net.cpp:94] Creating Layer ip3
I0507 00:05:23.835408 29369 net.cpp:435] ip3 <- ip2
I0507 00:05:23.835413 29369 net.cpp:409] ip3 -> ip3
I0507 00:05:23.835520 29369 net.cpp:144] Setting up ip3
I0507 00:05:23.835527 29369 net.cpp:151] Top shape: 20 1 (20)
I0507 00:05:23.835530 29369 net.cpp:159] Memory required for data: 2982880
I0507 00:05:23.835536 29369 layer_factory.hpp:77] Creating layer loss
I0507 00:05:23.835547 29369 net.cpp:94] Creating Layer loss
I0507 00:05:23.835551 29369 net.cpp:435] loss <- ip3
I0507 00:05:23.835556 29369 net.cpp:435] loss <- label
I0507 00:05:23.835561 29369 net.cpp:409] loss -> loss
I0507 00:05:23.835609 29369 net.cpp:144] Setting up loss
…
I0507 00:05:23.896669 29369 net.cpp:323] The NetState phase (0) differed from the phase (1) specified by a rule in layer intercept
I0507 00:05:23.896687 29369 net.cpp:323] The NetState phase (0) differed from the phase (1) specified by a rule in layer accuracy
I0507 00:05:23.896773 29369 net.cpp:52] Initializing net from parameters: 
state {
  phase: TRAIN
}
layer {
  name: "parameters"
  type: "HDF5Data"
  top: "data"
  top: "label"
  include {
    phase: TRAIN
  }
  hdf5_data_param {
    source: "/home/purduethu/scratch/radon/d/deng106/CNNStatisticalModel/distributions/input/50_distributions_100_sample_size_train-distributions-path.txt"
    batch_size: 20
  }
}
layer {
  name: "conv1"
  type: "Convolution"
  bottom: "data"
  top: "conv1"
  param {
    lr_mult: 1
  }
  param {
    lr_mult: 2
  }
  convolution_param {
    num_output: 64
    pad: 2
    kernel_size: 5
    stride: 1
    weight_filler {
      type: "gaussian"
      std: 0.0001
    }
    bias_filler {
      type: "constant"
    }
  }
}
layer {
  name: "relu1"
  type: "ReLU"
  bottom: "conv1"
  top: "conv1"
}
layer {
  name: "conv2"
  type: "Convolution"
  bottom: "conv1"
  top: "conv2"
  param {
    lr_mult: 1
  }
  param {
    lr_mult: 2
  }
  convolution_param {
    num_output: 64
    pad: 2
    kernel_size: 5
    stride: 1
    weight_filler {
      type: "gaussian"
      std: 0.01
    }
    bias_filler {
      type: "constant"
    }
  }
}
layer {
  name: "relu2"
  type: "ReLU"
  bottom: "conv2"
  top: "conv2"
}
layer {
  name: "pool2"
  type: "Pooling"
  bottom: "conv2"
  top: "pool2"
  pooling_param {
    pool: MAX
    kernel_size: 3
    stride: 2
  }
}
layer {
  name: "conv3"
  type: "Convolution"
  bottom: "pool2"
  top: "conv3"
  param {
    lr_mult: 1
  }
  param {
    lr_mult: 2
  }
  convolution_param {
    num_output: 64
    pad: 2
    kernel_size: 5
    stride: 1
    weight_filler {
      type: "gaussian"
      std: 0.01
    }
    bias_filler {
      type: "constant"
    }
  }
}
layer {
  name: "relu3"
  type: "ReLU"
  bottom: "conv3"
  top: "conv3"
}
layer {
  name: "conv4"
  type: "Convolution"
  bottom: "conv3"
  top: "conv4"
  param {
    lr_mult: 1
  }
  param {
    lr_mult: 2
  }
  convolution_param {
    num_output: 64
    pad: 2
    kernel_size: 5
    stride: 1
    weight_filler {
      type: "gaussian"
      std: 0.01
    }
    bias_filler {
      type: "constant"
    }
  }
}
layer {
  name: "relu4"
  type: "ReLU"
  bottom: "conv4"
  top: "conv4"
}
layer {
  name: "conv5"
  type: "Convolution"
  bottom: "conv4"
  top: "conv5"
  param {
    lr_mult: 1
  }
  param {
    lr_mult: 2
  }
  convolution_param {
    num_output: 64
    pad: 2
    kernel_size: 5
    stride: 1
    weight_filler {
      type: "gaussian"
      std: 0.01
    }
    bias_filler {
      type: "constant"
    }
  }
}
layer {
  name: "relu5"
  type: "ReLU"
  bottom: "conv5"
  top: "conv5"
}
layer {
  name: "pool5"
  type: "Pooling"
  bottom: "conv5"
  top: "pool5"
  pooling_param {
    pool: AVE
    kernel_size: 3
    stride: 2
  }
}
layer {
  name: "ip1"
  type: "InnerProduct"
  bottom: "pool5"
  top: "ip1"
  param {
    lr_mult: 1
  }
  param {
    lr_mult: 2
  }
  inner_product_param {
    num_output: 64
    weight_filler {
      type: "gaussian"
      std: 0.1
    }
    bias_filler {
      type: "constant"
    }
  }
}
layer {
  name: "ip2"
  type: "InnerProduct"
  bottom: "ip1"
  top: "ip2"
  param {
    lr_mult: 1
  }
  param {
    lr_mult: 2
  }
  inner_product_param {
    num_output: 64
    weight_filler {
      type: "gaussian"
      std: 0.1
    }
    bias_filler {
      type: "constant"
    }
  }
}
layer {
  name: "ip3"
  type: "InnerProduct"
  bottom: "ip2"
  top: "ip3"
  param {
    lr_mult: 1
  }
  param {
    lr_mult: 2
  }
  inner_product_param {
    num_output: 50
    weight_filler {
      type: "gaussian"
      std: 0.1
    }
    bias_filler {
      type: "constant"
    }
  }
}
layer {
  name: "loss"
  type: "SoftmaxWithLoss"
  bottom: "ip3"
  bottom: "label"
  top: "loss"
}
I0507 00:05:23.896826 29369 layer_factory.hpp:77] Creating layer parameters
I0507 00:05:23.896834 29369 net.cpp:94] Creating Layer parameters
I0507 00:05:23.896838 29369 net.cpp:409] parameters -> data
I0507 00:05:23.896845 29369 net.cpp:409] parameters -> label
I0507 00:05:23.896852 29369 hdf5_data_layer.cpp:79] Loading list of HDF5 filenames from: /home/purduethu/scratch/radon/d/deng106/CNNStatisticalModel/distributions/input/50_distributions_100_sample_size_train-distributions-path.txt
I0507 00:05:23.896869 29369 hdf5_data_layer.cpp:93] Number of HDF5 files: 1
I0507 00:05:24.053020 29369 hdf5.cpp:35] Datatype class: H5T_INTEGER
I0507 00:05:24.056099 29369 net.cpp:144] Setting up parameters
I0507 00:05:24.056123 29369 net.cpp:151] Top shape: 20 1 10 10 (2000)
I0507 00:05:24.056128 29369 net.cpp:151] Top shape: 20 (20)
I0507 00:05:24.056131 29369 net.cpp:159] Memory required for data: 8080
I0507 00:05:24.056138 29369 layer_factory.hpp:77] Creating layer conv1
I0507 00:05:24.056154 29369 net.cpp:94] Creating Layer conv1
I0507 00:05:24.056159 29369 net.cpp:435] conv1 <- data
I0507 00:05:24.056164 29369 net.cpp:409] conv1 -> conv1
I0507 00:05:24.057888 29369 net.cpp:144] Setting up conv1
I0507 00:05:24.057903 29369 net.cpp:151] Top shape: 20 64 10 10 (128000)
I0507 00:05:24.057906 29369 net.cpp:159] Memory required for data: 520080
I0507 00:05:24.057917 29369 layer_factory.hpp:77] Creating layer relu1
I0507 00:05:24.057925 29369 net.cpp:94] Creating Layer relu1
I0507 00:05:24.057929 29369 net.cpp:435] relu1 <- conv1
I0507 00:05:24.057934 29369 net.cpp:396] relu1 -> conv1 (in-place)
I0507 00:05:24.057941 29369 net.cpp:144] Setting up relu1
I0507 00:05:24.057946 29369 net.cpp:151] Top shape: 20 64 10 10 (128000)
I0507 00:05:24.057950 29369 net.cpp:159] Memory required for data: 1032080
I0507 00:05:24.057952 29369 layer_factory.hpp:77] Creating layer conv2
I0507 00:05:24.057960 29369 net.cpp:94] Creating Layer conv2
I0507 00:05:24.057965 29369 net.cpp:435] conv2 <- conv1
I0507 00:05:24.057970 29369 net.cpp:409] conv2 -> conv2
I0507 00:05:24.063300 29369 net.cpp:144] Setting up conv2
I0507 00:05:24.063314 29369 net.cpp:151] Top shape: 20 64 10 10 (128000)
I0507 00:05:24.063318 29369 net.cpp:159] Memory required for data: 1544080
I0507 00:05:24.063326 29369 layer_factory.hpp:77] Creating layer relu2
I0507 00:05:24.063333 29369 net.cpp:94] Creating Layer relu2
I0507 00:05:24.063338 29369 net.cpp:435] relu2 <- conv2
I0507 00:05:24.063343 29369 net.cpp:396] relu2 -> conv2 (in-place)
I0507 00:05:24.063349 29369 net.cpp:144] Setting up relu2
I0507 00:05:24.063354 29369 net.cpp:151] Top shape: 20 64 10 10 (128000)
I0507 00:05:24.063356 29369 net.cpp:159] Memory required for data: 2056080
I0507 00:05:24.063360 29369 layer_factory.hpp:77] Creating layer pool2
I0507 00:05:24.063366 29369 net.cpp:94] Creating Layer pool2
I0507 00:05:24.063369 29369 net.cpp:435] pool2 <- conv2
I0507 00:05:24.063374 29369 net.cpp:409] pool2 -> pool2
I0507 00:05:24.063423 29369 net.cpp:144] Setting up pool2
I0507 00:05:24.063431 29369 net.cpp:151] Top shape: 20 64 5 5 (32000)
I0507 00:05:24.063436 29369 net.cpp:159] Memory required for data: 2184080
I0507 00:05:24.063438 29369 layer_factory.hpp:77] Creating layer conv3
I0507 00:05:24.063446 29369 net.cpp:94] Creating Layer conv3
I0507 00:05:24.063450 29369 net.cpp:435] conv3 <- pool2
I0507 00:05:24.063455 29369 net.cpp:409] conv3 -> conv3
I0507 00:05:24.069169 29369 net.cpp:144] Setting up conv3
I0507 00:05:24.069182 29369 net.cpp:151] Top shape: 20 64 5 5 (32000)
I0507 00:05:24.069186 29369 net.cpp:159] Memory required for data: 2312080
I0507 00:05:24.069195 29369 layer_factory.hpp:77] Creating layer relu3
I0507 00:05:24.069201 29369 net.cpp:94] Creating Layer relu3
I0507 00:05:24.069205 29369 net.cpp:435] relu3 <- conv3
I0507 00:05:24.069209 29369 net.cpp:396] relu3 -> conv3 (in-place)
I0507 00:05:24.069216 29369 net.cpp:144] Setting up relu3
I0507 00:05:24.069221 29369 net.cpp:151] Top shape: 20 64 5 5 (32000)
I0507 00:05:24.069231 29369 net.cpp:159] Memory required for data: 2440080
I0507 00:05:24.069234 29369 layer_factory.hpp:77] Creating layer conv4
I0507 00:05:24.069243 29369 net.cpp:94] Creating Layer conv4
I0507 00:05:24.069247 29369 net.cpp:435] conv4 <- conv3
I0507 00:05:24.069252 29369 net.cpp:409] conv4 -> conv4
I0507 00:05:24.074134 29369 net.cpp:144] Setting up conv4
I0507 00:05:24.074147 29369 net.cpp:151] Top shape: 20 64 5 5 (32000)
I0507 00:05:24.074151 29369 net.cpp:159] Memory required for data: 2568080
I0507 00:05:24.074158 29369 layer_factory.hpp:77] Creating layer relu4
I0507 00:05:24.074164 29369 net.cpp:94] Creating Layer relu4
I0507 00:05:24.074168 29369 net.cpp:435] relu4 <- conv4
I0507 00:05:24.074173 29369 net.cpp:396] relu4 -> conv4 (in-place)
I0507 00:05:24.074180 29369 net.cpp:144] Setting up relu4
I0507 00:05:24.074185 29369 net.cpp:151] Top shape: 20 64 5 5 (32000)
I0507 00:05:24.074188 29369 net.cpp:159] Memory required for data: 2696080
I0507 00:05:24.074192 29369 layer_factory.hpp:77] Creating layer conv5
I0507 00:05:24.074199 29369 net.cpp:94] Creating Layer conv5
I0507 00:05:24.074203 29369 net.cpp:435] conv5 <- conv4
I0507 00:05:24.074208 29369 net.cpp:409] conv5 -> conv5
I0507 00:05:24.078640 29369 net.cpp:144] Setting up conv5
I0507 00:05:24.078654 29369 net.cpp:151] Top shape: 20 64 5 5 (32000)
I0507 00:05:24.078657 29369 net.cpp:159] Memory required for data: 2824080
I0507 00:05:24.078666 29369 layer_factory.hpp:77] Creating layer relu5
I0507 00:05:24.078672 29369 net.cpp:94] Creating Layer relu5
I0507 00:05:24.078676 29369 net.cpp:435] relu5 <- conv5
I0507 00:05:24.078681 29369 net.cpp:396] relu5 -> conv5 (in-place)
I0507 00:05:24.078688 29369 net.cpp:144] Setting up relu5
I0507 00:05:24.078692 29369 net.cpp:151] Top shape: 20 64 5 5 (32000)
I0507 00:05:24.078696 29369 net.cpp:159] Memory required for data: 2952080
I0507 00:05:24.078699 29369 layer_factory.hpp:77] Creating layer pool5
I0507 00:05:24.078704 29369 net.cpp:94] Creating Layer pool5
I0507 00:05:24.078707 29369 net.cpp:435] pool5 <- conv5
I0507 00:05:24.078712 29369 net.cpp:409] pool5 -> pool5
I0507 00:05:24.078745 29369 net.cpp:144] Setting up pool5
I0507 00:05:24.078753 29369 net.cpp:151] Top shape: 20 64 2 2 (5120)
I0507 00:05:24.078758 29369 net.cpp:159] Memory required for data: 2972560
I0507 00:05:24.078760 29369 layer_factory.hpp:77] Creating layer ip1
I0507 00:05:24.078768 29369 net.cpp:94] Creating Layer ip1
I0507 00:05:24.078770 29369 net.cpp:435] ip1 <- pool5
I0507 00:05:24.078775 29369 net.cpp:409] ip1 -> ip1
I0507 00:05:24.079284 29369 net.cpp:144] Setting up ip1
I0507 00:05:24.079293 29369 net.cpp:151] Top shape: 20 64 (1280)
I0507 00:05:24.079296 29369 net.cpp:159] Memory required for data: 2977680
I0507 00:05:24.079301 29369 layer_factory.hpp:77] Creating layer ip2
I0507 00:05:24.079308 29369 net.cpp:94] Creating Layer ip2
I0507 00:05:24.079311 29369 net.cpp:435] ip2 <- ip1
I0507 00:05:24.079316 29369 net.cpp:409] ip2 -> ip2
I0507 00:05:24.079529 29369 net.cpp:144] Setting up ip2
I0507 00:05:24.079536 29369 net.cpp:151] Top shape: 20 64 (1280)
I0507 00:05:24.079540 29369 net.cpp:159] Memory required for data: 2982800
I0507 00:05:24.079545 29369 layer_factory.hpp:77] Creating layer ip3
I0507 00:05:24.079551 29369 net.cpp:94] Creating Layer ip3
I0507 00:05:24.079555 29369 net.cpp:435] ip3 <- ip2
I0507 00:05:24.079560 29369 net.cpp:409] ip3 -> ip3
I0507 00:05:24.079746 29369 net.cpp:144] Setting up ip3
I0507 00:05:24.079752 29369 net.cpp:151] Top shape: 20 50 (1000)
I0507 00:05:24.079756 29369 net.cpp:159] Memory required for data: 2986800
I0507 00:05:24.079761 29369 layer_factory.hpp:77] Creating layer loss
I0507 00:05:24.079768 29369 net.cpp:94] Creating Layer loss
I0507 00:05:24.079771 29369 net.cpp:435] loss <- ip3
I0507 00:05:24.079777 29369 net.cpp:435] loss <- label
I0507 00:05:24.079780 29369 net.cpp:409] loss -> loss
I0507 00:05:24.079787 29369 layer_factory.hpp:77] Creating layer loss
…
I0507 00:05:24.081149 29369 solver.cpp:181] Creating test net (#0) specified by net file: ./protocol/dis_50_100_dimension.protocol_distribution
I0507 00:05:24.081176 29369 net.cpp:323] The NetState phase (1) differed from the phase (0) specified by a rule in layer parameters
I0507 00:05:24.081269 29369 net.cpp:52] Initializing net from parameters: 
state {
  phase: TEST
}
layer {
  name: "intercept"
  type: "HDF5Data"
  top: "data"
  top: "label"
  include {
    phase: TEST
  }
  hdf5_data_param {
    source: "/home/purduethu/scratch/radon/d/deng106/CNNStatisticalModel/distributions/input/50_distributions_100_sample_size_test-distributions-path.txt"
    batch_size: 20
  }
}
layer {
  name: "conv1"
  type: "Convolution"
  bottom: "data"
  top: "conv1"
  param {
    lr_mult: 1
  }
  param {
    lr_mult: 2
  }
  convolution_param {
    num_output: 64
    pad: 2
    kernel_size: 5
    stride: 1
    weight_filler {
      type: "gaussian"
      std: 0.0001
    }
    bias_filler {
      type: "constant"
    }
  }
}
layer {
  name: "relu1"
  type: "ReLU"
  bottom: "conv1"
  top: "conv1"
}
layer {
  name: "conv2"
  type: "Convolution"
  bottom: "conv1"
  top: "conv2"
  param {
    lr_mult: 1
  }
  param {
    lr_mult: 2
  }
  convolution_param {
    num_output: 64
    pad: 2
    kernel_size: 5
    stride: 1
    weight_filler {
      type: "gaussian"
      std: 0.01
    }
    bias_filler {
      type: "constant"
    }
  }
}
layer {
  name: "relu2"
  type: "ReLU"
  bottom: "conv2"
  top: "conv2"
}
layer {
  name: "pool2"
  type: "Pooling"
  bottom: "conv2"
  top: "pool2"
  pooling_param {
    pool: MAX
    kernel_size: 3
    stride: 2
  }
}
layer {
  name: "conv3"
  type: "Convolution"
  bottom: "pool2"
  top: "conv3"
  param {
    lr_mult: 1
  }
  param {
    lr_mult: 2
  }
  convolution_param {
    num_output: 64
    pad: 2
    kernel_size: 5
    stride: 1
    weight_filler {
      type: "gaussian"
      std: 0.01
    }
    bias_filler {
      type: "constant"
    }
  }
}
layer {
  name: "relu3"
  type: "ReLU"
  bottom: "conv3"
  top: "conv3"
}
layer {
  name: "conv4"
  type: "Convolution"
  bottom: "conv3"
  top: "conv4"
  param {
    lr_mult: 1
  }
  param {
    lr_mult: 2
  }
  convolution_param {
    num_output: 64
    pad: 2
    kernel_size: 5
    stride: 1
    weight_filler {
      type: "gaussian"
      std: 0.01
    }
    bias_filler {
      type: "constant"
    }
  }
}
layer {
  name: "relu4"
  type: "ReLU"
  bottom: "conv4"
  top: "conv4"
}
layer {
  name: "conv5"
  type: "Convolution"
  bottom: "conv4"
  top: "conv5"
  param {
    lr_mult: 1
  }
  param {
    lr_mult: 2
  }
  convolution_param {
    num_output: 64
    pad: 2
    kernel_size: 5
    stride: 1
    weight_filler {
      type: "gaussian"
      std: 0.01
    }
    bias_filler {
      type: "constant"
    }
  }
}
layer {
  name: "relu5"
  type: "ReLU"
  bottom: "conv5"
  top: "conv5"
}
layer {
  name: "pool5"
  type: "Pooling"
  bottom: "conv5"
  top: "pool5"
  pooling_param {
    pool: AVE
    kernel_size: 3
    stride: 2
  }
}
layer {
  name: "ip1"
  type: "InnerProduct"
  bottom: "pool5"
  top: "ip1"
  param {
    lr_mult: 1
  }
  param {
    lr_mult: 2
  }
  inner_product_param {
    num_output: 64
    weight_filler {
      type: "gaussian"
      std: 0.1
    }
    bias_filler {
      type: "constant"
    }
  }
}
layer {
  name: "ip2"
  type: "InnerProduct"
  bottom: "ip1"
  top: "ip2"
  param {
    lr_mult: 1
  }
  param {
    lr_mult: 2
  }
  inner_product_param {
    num_output: 64
    weight_filler {
      type: "gaussian"
      std: 0.1
    }
    bias_filler {
      type: "constant"
    }
  }
}
layer {
  name: "ip3"
  type: "InnerProduct"
  bottom: "ip2"
  top: "ip3"
  param {
    lr_mult: 1
  }
  param {
    lr_mult: 2
  }
  inner_product_param {
    num_output: 50
    weight_filler {
      type: "gaussian"
      std: 0.1
    }
    bias_filler {
      type: "constant"
    }
  }
}
layer {
  name: "accuracy"
  type: "Accuracy"
  bottom: "ip3"
  bottom: "label"
  top: "accuracy"
  include {
    phase: TEST
  }
}
layer {
  name: "loss"
  type: "SoftmaxWithLoss"
  bottom: "ip3"
  bottom: "label"
  top: "loss"
}
I0507 00:05:24.081336 29369 layer_factory.hpp:77] Creating layer intercept
I0507 00:05:24.081344 29369 net.cpp:94] Creating Layer intercept
I0507 00:05:24.081348 29369 net.cpp:409] intercept -> data
I0507 00:05:24.081356 29369 net.cpp:409] intercept -> label
I0507 00:05:24.081362 29369 hdf5_data_layer.cpp:79] Loading list of HDF5 filenames from: /home/purduethu/scratch/radon/d/deng106/CNNStatisticalModel/distributions/input/50_distributions_100_sample_size_test-distributions-path.txt
I0507 00:05:24.081382 29369 hdf5_data_layer.cpp:93] Number of HDF5 files: 1
I0507 00:05:24.122555 29369 net.cpp:144] Setting up intercept
I0507 00:05:24.122589 29369 net.cpp:151] Top shape: 20 1 10 10 (2000)
I0507 00:05:24.122596 29369 net.cpp:151] Top shape: 20 (20)
I0507 00:05:24.122599 29369 net.cpp:159] Memory required for data: 8080
I0507 00:05:24.122606 29369 layer_factory.hpp:77] Creating layer label_intercept_1_split
I0507 00:05:24.122625 29369 net.cpp:94] Creating Layer label_intercept_1_split
I0507 00:05:24.122629 29369 net.cpp:435] label_intercept_1_split <- label
I0507 00:05:24.122637 29369 net.cpp:409] label_intercept_1_split -> label_intercept_1_split_0
I0507 00:05:24.122645 29369 net.cpp:409] label_intercept_1_split -> label_intercept_1_split_1
I0507 00:05:24.122685 29369 net.cpp:144] Setting up label_intercept_1_split
I0507 00:05:24.122692 29369 net.cpp:151] Top shape: 20 (20)
I0507 00:05:24.122696 29369 net.cpp:151] Top shape: 20 (20)
I0507 00:05:24.122700 29369 net.cpp:159] Memory required for data: 8240
I0507 00:05:24.122704 29369 layer_factory.hpp:77] Creating layer conv1
I0507 00:05:24.122715 29369 net.cpp:94] Creating Layer conv1
I0507 00:05:24.122720 29369 net.cpp:435] conv1 <- data
I0507 00:05:24.122725 29369 net.cpp:409] conv1 -> conv1
I0507 00:05:24.123491 29369 net.cpp:144] Setting up conv1
I0507 00:05:24.123502 29369 net.cpp:151] Top shape: 20 64 10 10 (128000)
I0507 00:05:24.123507 29369 net.cpp:159] Memory required for data: 520240
I0507 00:05:24.123517 29369 layer_factory.hpp:77] Creating layer relu1
I0507 00:05:24.123524 29369 net.cpp:94] Creating Layer relu1
I0507 00:05:24.123528 29369 net.cpp:435] relu1 <- conv1
I0507 00:05:24.123533 29369 net.cpp:396] relu1 -> conv1 (in-place)
I0507 00:05:24.123540 29369 net.cpp:144] Setting up relu1
I0507 00:05:24.123545 29369 net.cpp:151] Top shape: 20 64 10 10 (128000)
I0507 00:05:24.123548 29369 net.cpp:159] Memory required for data: 1032240
I0507 00:05:24.123559 29369 layer_factory.hpp:77] Creating layer conv2
I0507 00:05:24.123569 29369 net.cpp:94] Creating Layer conv2
I0507 00:05:24.123572 29369 net.cpp:435] conv2 <- conv1
I0507 00:05:24.123577 29369 net.cpp:409] conv2 -> conv2
I0507 00:05:24.127653 29369 net.cpp:144] Setting up conv2
I0507 00:05:24.127666 29369 net.cpp:151] Top shape: 20 64 10 10 (128000)
I0507 00:05:24.127671 29369 net.cpp:159] Memory required for data: 1544240
I0507 00:05:24.127681 29369 layer_factory.hpp:77] Creating layer relu2
I0507 00:05:24.127687 29369 net.cpp:94] Creating Layer relu2
I0507 00:05:24.127691 29369 net.cpp:435] relu2 <- conv2
I0507 00:05:24.127696 29369 net.cpp:396] relu2 -> conv2 (in-place)
I0507 00:05:24.127702 29369 net.cpp:144] Setting up relu2
I0507 00:05:24.127707 29369 net.cpp:151] Top shape: 20 64 10 10 (128000)
I0507 00:05:24.127710 29369 net.cpp:159] Memory required for data: 2056240
I0507 00:05:24.127713 29369 layer_factory.hpp:77] Creating layer pool2
I0507 00:05:24.127720 29369 net.cpp:94] Creating Layer pool2
I0507 00:05:24.127723 29369 net.cpp:435] pool2 <- conv2
I0507 00:05:24.127728 29369 net.cpp:409] pool2 -> pool2
I0507 00:05:24.127780 29369 net.cpp:144] Setting up pool2
I0507 00:05:24.127789 29369 net.cpp:151] Top shape: 20 64 5 5 (32000)
I0507 00:05:24.127792 29369 net.cpp:159] Memory required for data: 2184240
I0507 00:05:24.127796 29369 layer_factory.hpp:77] Creating layer conv3
I0507 00:05:24.127805 29369 net.cpp:94] Creating Layer conv3
I0507 00:05:24.127809 29369 net.cpp:435] conv3 <- pool2
I0507 00:05:24.127815 29369 net.cpp:409] conv3 -> conv3
I0507 00:05:24.132225 29369 net.cpp:144] Setting up conv3
I0507 00:05:24.132238 29369 net.cpp:151] Top shape: 20 64 5 5 (32000)
I0507 00:05:24.132243 29369 net.cpp:159] Memory required for data: 2312240
I0507 00:05:24.132251 29369 layer_factory.hpp:77] Creating layer relu3
I0507 00:05:24.132258 29369 net.cpp:94] Creating Layer relu3
I0507 00:05:24.132262 29369 net.cpp:435] relu3 <- conv3
I0507 00:05:24.132267 29369 net.cpp:396] relu3 -> conv3 (in-place)
I0507 00:05:24.132273 29369 net.cpp:144] Setting up relu3
I0507 00:05:24.132278 29369 net.cpp:151] Top shape: 20 64 5 5 (32000)
I0507 00:05:24.132282 29369 net.cpp:159] Memory required for data: 2440240
I0507 00:05:24.132285 29369 layer_factory.hpp:77] Creating layer conv4
I0507 00:05:24.132295 29369 net.cpp:94] Creating Layer conv4
I0507 00:05:24.132299 29369 net.cpp:435] conv4 <- conv3
I0507 00:05:24.132304 29369 net.cpp:409] conv4 -> conv4
I0507 00:05:24.135849 29369 net.cpp:144] Setting up conv4
I0507 00:05:24.135862 29369 net.cpp:151] Top shape: 20 64 5 5 (32000)
I0507 00:05:24.135866 29369 net.cpp:159] Memory required for data: 2568240
I0507 00:05:24.135874 29369 layer_factory.hpp:77] Creating layer relu4
I0507 00:05:24.135879 29369 net.cpp:94] Creating Layer relu4
I0507 00:05:24.135884 29369 net.cpp:435] relu4 <- conv4
I0507 00:05:24.135887 29369 net.cpp:396] relu4 -> conv4 (in-place)
I0507 00:05:24.135895 29369 net.cpp:144] Setting up relu4
I0507 00:05:24.135900 29369 net.cpp:151] Top shape: 20 64 5 5 (32000)
I0507 00:05:24.135902 29369 net.cpp:159] Memory required for data: 2696240
I0507 00:05:24.135905 29369 layer_factory.hpp:77] Creating layer conv5
I0507 00:05:24.135915 29369 net.cpp:94] Creating Layer conv5
I0507 00:05:24.135920 29369 net.cpp:435] conv5 <- conv4
I0507 00:05:24.135924 29369 net.cpp:409] conv5 -> conv5
I0507 00:05:24.139919 29369 net.cpp:144] Setting up conv5
I0507 00:05:24.139931 29369 net.cpp:151] Top shape: 20 64 5 5 (32000)
I0507 00:05:24.139935 29369 net.cpp:159] Memory required for data: 2824240
I0507 00:05:24.139945 29369 layer_factory.hpp:77] Creating layer relu5
I0507 00:05:24.139950 29369 net.cpp:94] Creating Layer relu5
I0507 00:05:24.139955 29369 net.cpp:435] relu5 <- conv5
I0507 00:05:24.139960 29369 net.cpp:396] relu5 -> conv5 (in-place)
I0507 00:05:24.139966 29369 net.cpp:144] Setting up relu5
I0507 00:05:24.139971 29369 net.cpp:151] Top shape: 20 64 5 5 (32000)
I0507 00:05:24.139973 29369 net.cpp:159] Memory required for data: 2952240
I0507 00:05:24.139981 29369 layer_factory.hpp:77] Creating layer pool5
I0507 00:05:24.139987 29369 net.cpp:94] Creating Layer pool5
I0507 00:05:24.139991 29369 net.cpp:435] pool5 <- conv5
I0507 00:05:24.139997 29369 net.cpp:409] pool5 -> pool5
I0507 00:05:24.140033 29369 net.cpp:144] Setting up pool5
I0507 00:05:24.140041 29369 net.cpp:151] Top shape: 20 64 2 2 (5120)
I0507 00:05:24.140044 29369 net.cpp:159] Memory required for data: 2972720
I0507 00:05:24.140048 29369 layer_factory.hpp:77] Creating layer ip1
I0507 00:05:24.140056 29369 net.cpp:94] Creating Layer ip1
I0507 00:05:24.140060 29369 net.cpp:435] ip1 <- pool5
I0507 00:05:24.140066 29369 net.cpp:409] ip1 -> ip1
I0507 00:05:24.140599 29369 net.cpp:144] Setting up ip1
I0507 00:05:24.140609 29369 net.cpp:151] Top shape: 20 64 (1280)
I0507 00:05:24.140614 29369 net.cpp:159] Memory required for data: 2977840
I0507 00:05:24.140619 29369 layer_factory.hpp:77] Creating layer ip2
I0507 00:05:24.140625 29369 net.cpp:94] Creating Layer ip2
I0507 00:05:24.140630 29369 net.cpp:435] ip2 <- ip1
I0507 00:05:24.140635 29369 net.cpp:409] ip2 -> ip2
I0507 00:05:24.140859 29369 net.cpp:144] Setting up ip2
I0507 00:05:24.140867 29369 net.cpp:151] Top shape: 20 64 (1280)
I0507 00:05:24.140871 29369 net.cpp:159] Memory required for data: 2982960
I0507 00:05:24.140877 29369 layer_factory.hpp:77] Creating layer ip3
I0507 00:05:24.140885 29369 net.cpp:94] Creating Layer ip3
I0507 00:05:24.140889 29369 net.cpp:435] ip3 <- ip2
I0507 00:05:24.140894 29369 net.cpp:409] ip3 -> ip3
I0507 00:05:24.141090 29369 net.cpp:144] Setting up ip3
I0507 00:05:24.141098 29369 net.cpp:151] Top shape: 20 50 (1000)
I0507 00:05:24.141103 29369 net.cpp:159] Memory required for data: 2986960
I0507 00:05:24.141108 29369 layer_factory.hpp:77] Creating layer ip3_ip3_0_split
I0507 00:05:24.141113 29369 net.cpp:94] Creating Layer ip3_ip3_0_split
I0507 00:05:24.141118 29369 net.cpp:435] ip3_ip3_0_split <- ip3
I0507 00:05:24.141124 29369 net.cpp:409] ip3_ip3_0_split -> ip3_ip3_0_split_0
I0507 00:05:24.141129 29369 net.cpp:409] ip3_ip3_0_split -> ip3_ip3_0_split_1
I0507 00:05:24.141170 29369 net.cpp:144] Setting up ip3_ip3_0_split
I0507 00:05:24.141177 29369 net.cpp:151] Top shape: 20 50 (1000)
I0507 00:05:24.141181 29369 net.cpp:151] Top shape: 20 50 (1000)
I0507 00:05:24.141185 29369 net.cpp:159] Memory required for data: 2994960
I0507 00:05:24.141188 29369 layer_factory.hpp:77] Creating layer accuracy
I0507 00:05:24.141194 29369 net.cpp:94] Creating Layer accuracy
I0507 00:05:24.141198 29369 net.cpp:435] accuracy <- ip3_ip3_0_split_0
I0507 00:05:24.141202 29369 net.cpp:435] accuracy <- label_intercept_1_split_0
I0507 00:05:24.141208 29369 net.cpp:409] accuracy -> accuracy
…
