…
I0502 05:23:17.922085 18762 net.cpp:323] The NetState phase (0) differed from the phase (1) specified by a rule in layer intercept
I0502 05:23:17.922101 18762 net.cpp:323] The NetState phase (0) differed from the phase (1) specified by a rule in layer loss
I0502 05:23:17.922189 18762 net.cpp:52] Initializing net from parameters: 
state {
  phase: TRAIN
}
layer {
  name: "parameters"
  type: "HDF5Data"
  top: "data"
  top: "label"
  include {
    phase: TRAIN
  }
  hdf5_data_param {
    source: "/home/purduethu/scratch/radon/d/deng106/CNNStatisticalModel/distributions/input/5_distributions_100_sample_size_train-parameters-path.txt"
    batch_size: 20
  }
}
layer {
  name: "conv1"
  type: "Convolution"
  bottom: "data"
  top: "conv1"
  param {
    lr_mult: 1
  }
  param {
    lr_mult: 2
  }
  convolution_param {
    num_output: 64
    pad: 2
    kernel_size: 5
    stride: 1
    weight_filler {
      type: "gaussian"
      std: 0.0001
    }
    bias_filler {
      type: "constant"
    }
  }
}
layer {
  name: "relu1"
  type: "ReLU"
  bottom: "conv1"
  top: "conv1"
}
layer {
  name: "conv2"
  type: "Convolution"
  bottom: "conv1"
  top: "conv2"
  param {
    lr_mult: 1
  }
  param {
    lr_mult: 2
  }
  convolution_param {
    num_output: 64
    pad: 2
    kernel_size: 5
    stride: 1
    weight_filler {
      type: "gaussian"
      std: 0.01
    }
    bias_filler {
      type: "constant"
    }
  }
}
layer {
  name: "relu2"
  type: "ReLU"
  bottom: "conv2"
  top: "conv2"
}
layer {
  name: "pool2"
  type: "Pooling"
  bottom: "conv2"
  top: "pool2"
  pooling_param {
    pool: MAX
    kernel_size: 3
    stride: 2
  }
}
layer {
  name: "conv3"
  type: "Convolution"
  bottom: "pool2"
  top: "conv3"
  param {
    lr_mult: 1
  }
  param {
    lr_mult: 2
  }
  convolution_param {
    num_output: 64
    pad: 2
    kernel_size: 5
    stride: 1
    weight_filler {
      type: "gaussian"
      std: 0.01
    }
    bias_filler {
      type: "constant"
    }
  }
}
layer {
  name: "relu3"
  type: "ReLU"
  bottom: "conv3"
  top: "conv3"
}
layer {
  name: "conv4"
  type: "Convolution"
  bottom: "conv3"
  top: "conv4"
  param {
    lr_mult: 1
  }
  param {
    lr_mult: 2
  }
  convolution_param {
    num_output: 64
    pad: 2
    kernel_size: 5
    stride: 1
    weight_filler {
      type: "gaussian"
      std: 0.01
    }
    bias_filler {
      type: "constant"
    }
  }
}
layer {
  name: "relu4"
  type: "ReLU"
  bottom: "conv4"
  top: "conv4"
}
layer {
  name: "conv5"
  type: "Convolution"
  bottom: "conv4"
  top: "conv5"
  param {
    lr_mult: 1
  }
  param {
    lr_mult: 2
  }
  convolution_param {
    num_output: 64
    pad: 2
    kernel_size: 5
    stride: 1
    weight_filler {
      type: "gaussian"
      std: 0.01
    }
    bias_filler {
      type: "constant"
    }
  }
}
layer {
  name: "relu5"
  type: "ReLU"
  bottom: "conv5"
  top: "conv5"
}
layer {
  name: "pool5"
  type: "Pooling"
  bottom: "conv5"
  top: "pool5"
  pooling_param {
    pool: AVE
    kernel_size: 3
    stride: 2
  }
}
layer {
  name: "ip1"
  type: "InnerProduct"
  bottom: "pool5"
  top: "ip1"
  param {
    lr_mult: 1
  }
  param {
    lr_mult: 2
  }
  inner_product_param {
    num_output: 64
    weight_filler {
      type: "gaussian"
      std: 0.1
    }
    bias_filler {
      type: "constant"
    }
  }
}
layer {
  name: "ip2"
  type: "InnerProduct"
  bottom: "ip1"
  top: "ip2"
  param {
    lr_mult: 1
  }
  param {
    lr_mult: 2
  }
  inner_product_param {
    num_output: 64
    weight_filler {
      type: "gaussian"
      std: 0.1
    }
    bias_filler {
      type: "constant"
    }
  }
}
layer {
  name: "ip3"
  type: "InnerProduct"
  bottom: "ip2"
  top: "ip3"
  param {
    lr_mult: 1
  }
  param {
    lr_mult: 2
  }
  inner_product_param {
    num_output: 1
    weight_filler {
      type: "gaussian"
      std: 0.1
    }
    bias_filler {
      type: "constant"
    }
  }
}
layer {
  name: "loss"
  type: "HuberLoss"
  bottom: "ip3"
  bottom: "label"
  top: "loss"
  include {
    phase: TRAIN
  }
}
I0502 05:23:17.922262 18762 layer_factory.hpp:77] Creating layer parameters
I0502 05:23:17.922276 18762 net.cpp:94] Creating Layer parameters
I0502 05:23:17.922282 18762 net.cpp:409] parameters -> data
I0502 05:23:17.922300 18762 net.cpp:409] parameters -> label
I0502 05:23:17.922312 18762 hdf5_data_layer.cpp:79] Loading list of HDF5 filenames from: /home/purduethu/scratch/radon/d/deng106/CNNStatisticalModel/distributions/input/5_distributions_100_sample_size_train-parameters-path.txt
I0502 05:23:17.922333 18762 hdf5_data_layer.cpp:93] Number of HDF5 files: 1
I0502 05:23:17.922788 18762 hdf5.cpp:32] Datatype class: H5T_FLOAT
I0502 05:23:17.939596 18762 net.cpp:144] Setting up parameters
I0502 05:23:17.939627 18762 net.cpp:151] Top shape: 20 1 10 10 (2000)
I0502 05:23:17.939633 18762 net.cpp:151] Top shape: 20 (20)
I0502 05:23:17.939636 18762 net.cpp:159] Memory required for data: 8080
I0502 05:23:17.939644 18762 layer_factory.hpp:77] Creating layer conv1
I0502 05:23:17.939663 18762 net.cpp:94] Creating Layer conv1
I0502 05:23:17.939669 18762 net.cpp:435] conv1 <- data
I0502 05:23:17.939679 18762 net.cpp:409] conv1 -> conv1
I0502 05:23:17.943435 18762 net.cpp:144] Setting up conv1
I0502 05:23:17.943450 18762 net.cpp:151] Top shape: 20 64 10 10 (128000)
I0502 05:23:17.943454 18762 net.cpp:159] Memory required for data: 520080
I0502 05:23:17.943466 18762 layer_factory.hpp:77] Creating layer relu1
I0502 05:23:17.943475 18762 net.cpp:94] Creating Layer relu1
I0502 05:23:17.943478 18762 net.cpp:435] relu1 <- conv1
I0502 05:23:17.943483 18762 net.cpp:396] relu1 -> conv1 (in-place)
I0502 05:23:17.943498 18762 net.cpp:144] Setting up relu1
I0502 05:23:17.943503 18762 net.cpp:151] Top shape: 20 64 10 10 (128000)
I0502 05:23:17.943506 18762 net.cpp:159] Memory required for data: 1032080
I0502 05:23:17.943509 18762 layer_factory.hpp:77] Creating layer conv2
I0502 05:23:17.943517 18762 net.cpp:94] Creating Layer conv2
I0502 05:23:17.943521 18762 net.cpp:435] conv2 <- conv1
I0502 05:23:17.943526 18762 net.cpp:409] conv2 -> conv2
I0502 05:23:17.949280 18762 net.cpp:144] Setting up conv2
I0502 05:23:17.949293 18762 net.cpp:151] Top shape: 20 64 10 10 (128000)
I0502 05:23:17.949297 18762 net.cpp:159] Memory required for data: 1544080
I0502 05:23:17.949306 18762 layer_factory.hpp:77] Creating layer relu2
I0502 05:23:17.949312 18762 net.cpp:94] Creating Layer relu2
I0502 05:23:17.949316 18762 net.cpp:435] relu2 <- conv2
I0502 05:23:17.949321 18762 net.cpp:396] relu2 -> conv2 (in-place)
I0502 05:23:17.949328 18762 net.cpp:144] Setting up relu2
I0502 05:23:17.949333 18762 net.cpp:151] Top shape: 20 64 10 10 (128000)
I0502 05:23:17.949337 18762 net.cpp:159] Memory required for data: 2056080
I0502 05:23:17.949339 18762 layer_factory.hpp:77] Creating layer pool2
I0502 05:23:17.949347 18762 net.cpp:94] Creating Layer pool2
I0502 05:23:17.949357 18762 net.cpp:435] pool2 <- conv2
I0502 05:23:17.949362 18762 net.cpp:409] pool2 -> pool2
I0502 05:23:17.949404 18762 net.cpp:144] Setting up pool2
I0502 05:23:17.949412 18762 net.cpp:151] Top shape: 20 64 5 5 (32000)
I0502 05:23:17.949416 18762 net.cpp:159] Memory required for data: 2184080
I0502 05:23:17.949419 18762 layer_factory.hpp:77] Creating layer conv3
I0502 05:23:17.949426 18762 net.cpp:94] Creating Layer conv3
I0502 05:23:17.949430 18762 net.cpp:435] conv3 <- pool2
I0502 05:23:17.949435 18762 net.cpp:409] conv3 -> conv3
I0502 05:23:17.954147 18762 net.cpp:144] Setting up conv3
I0502 05:23:17.954161 18762 net.cpp:151] Top shape: 20 64 5 5 (32000)
I0502 05:23:17.954165 18762 net.cpp:159] Memory required for data: 2312080
I0502 05:23:17.954174 18762 layer_factory.hpp:77] Creating layer relu3
I0502 05:23:17.954180 18762 net.cpp:94] Creating Layer relu3
I0502 05:23:17.954183 18762 net.cpp:435] relu3 <- conv3
I0502 05:23:17.954188 18762 net.cpp:396] relu3 -> conv3 (in-place)
I0502 05:23:17.954195 18762 net.cpp:144] Setting up relu3
I0502 05:23:17.954200 18762 net.cpp:151] Top shape: 20 64 5 5 (32000)
I0502 05:23:17.954202 18762 net.cpp:159] Memory required for data: 2440080
I0502 05:23:17.954206 18762 layer_factory.hpp:77] Creating layer conv4
I0502 05:23:17.954216 18762 net.cpp:94] Creating Layer conv4
I0502 05:23:17.954218 18762 net.cpp:435] conv4 <- conv3
I0502 05:23:17.954223 18762 net.cpp:409] conv4 -> conv4
I0502 05:23:17.958488 18762 net.cpp:144] Setting up conv4
I0502 05:23:17.958501 18762 net.cpp:151] Top shape: 20 64 5 5 (32000)
I0502 05:23:17.958505 18762 net.cpp:159] Memory required for data: 2568080
I0502 05:23:17.958511 18762 layer_factory.hpp:77] Creating layer relu4
I0502 05:23:17.958518 18762 net.cpp:94] Creating Layer relu4
I0502 05:23:17.958521 18762 net.cpp:435] relu4 <- conv4
I0502 05:23:17.958525 18762 net.cpp:396] relu4 -> conv4 (in-place)
I0502 05:23:17.958533 18762 net.cpp:144] Setting up relu4
I0502 05:23:17.958537 18762 net.cpp:151] Top shape: 20 64 5 5 (32000)
I0502 05:23:17.958540 18762 net.cpp:159] Memory required for data: 2696080
I0502 05:23:17.958544 18762 layer_factory.hpp:77] Creating layer conv5
I0502 05:23:17.958551 18762 net.cpp:94] Creating Layer conv5
I0502 05:23:17.958554 18762 net.cpp:435] conv5 <- conv4
I0502 05:23:17.958559 18762 net.cpp:409] conv5 -> conv5
I0502 05:23:17.963228 18762 net.cpp:144] Setting up conv5
I0502 05:23:17.963243 18762 net.cpp:151] Top shape: 20 64 5 5 (32000)
I0502 05:23:17.963246 18762 net.cpp:159] Memory required for data: 2824080
I0502 05:23:17.963254 18762 layer_factory.hpp:77] Creating layer relu5
I0502 05:23:17.963260 18762 net.cpp:94] Creating Layer relu5
I0502 05:23:17.963264 18762 net.cpp:435] relu5 <- conv5
I0502 05:23:17.963268 18762 net.cpp:396] relu5 -> conv5 (in-place)
I0502 05:23:17.963275 18762 net.cpp:144] Setting up relu5
I0502 05:23:17.963280 18762 net.cpp:151] Top shape: 20 64 5 5 (32000)
I0502 05:23:17.963284 18762 net.cpp:159] Memory required for data: 2952080
I0502 05:23:17.963286 18762 layer_factory.hpp:77] Creating layer pool5
I0502 05:23:17.963291 18762 net.cpp:94] Creating Layer pool5
I0502 05:23:17.963295 18762 net.cpp:435] pool5 <- conv5
I0502 05:23:17.963299 18762 net.cpp:409] pool5 -> pool5
I0502 05:23:17.963331 18762 net.cpp:144] Setting up pool5
I0502 05:23:17.963338 18762 net.cpp:151] Top shape: 20 64 2 2 (5120)
I0502 05:23:17.963341 18762 net.cpp:159] Memory required for data: 2972560
I0502 05:23:17.963345 18762 layer_factory.hpp:77] Creating layer ip1
I0502 05:23:17.963354 18762 net.cpp:94] Creating Layer ip1
I0502 05:23:17.963358 18762 net.cpp:435] ip1 <- pool5
I0502 05:23:17.963363 18762 net.cpp:409] ip1 -> ip1
I0502 05:23:17.964473 18762 net.cpp:144] Setting up ip1
I0502 05:23:17.964485 18762 net.cpp:151] Top shape: 20 64 (1280)
I0502 05:23:17.964489 18762 net.cpp:159] Memory required for data: 2977680
I0502 05:23:17.964495 18762 layer_factory.hpp:77] Creating layer ip2
I0502 05:23:17.964501 18762 net.cpp:94] Creating Layer ip2
I0502 05:23:17.964505 18762 net.cpp:435] ip2 <- ip1
I0502 05:23:17.964514 18762 net.cpp:409] ip2 -> ip2
I0502 05:23:17.964689 18762 net.cpp:144] Setting up ip2
I0502 05:23:17.964697 18762 net.cpp:151] Top shape: 20 64 (1280)
I0502 05:23:17.964701 18762 net.cpp:159] Memory required for data: 2982800
I0502 05:23:17.964706 18762 layer_factory.hpp:77] Creating layer ip3
I0502 05:23:17.964712 18762 net.cpp:94] Creating Layer ip3
I0502 05:23:17.964716 18762 net.cpp:435] ip3 <- ip2
I0502 05:23:17.964720 18762 net.cpp:409] ip3 -> ip3
I0502 05:23:17.964782 18762 net.cpp:144] Setting up ip3
I0502 05:23:17.964789 18762 net.cpp:151] Top shape: 20 1 (20)
I0502 05:23:17.964797 18762 net.cpp:159] Memory required for data: 2982880
I0502 05:23:17.964803 18762 layer_factory.hpp:77] Creating layer loss
I0502 05:23:17.964813 18762 net.cpp:94] Creating Layer loss
I0502 05:23:17.964818 18762 net.cpp:435] loss <- ip3
I0502 05:23:17.964821 18762 net.cpp:435] loss <- label
I0502 05:23:17.964826 18762 net.cpp:409] loss -> loss
I0502 05:23:17.964861 18762 net.cpp:144] Setting up loss
…
