…
I0505 03:47:46.163592  3081 net.cpp:323] The NetState phase (0) differed from the phase (1) specified by a rule in layer intercept
I0505 03:47:46.163609  3081 net.cpp:323] The NetState phase (0) differed from the phase (1) specified by a rule in layer loss
I0505 03:47:46.163694  3081 net.cpp:52] Initializing net from parameters: 
state {
  phase: TRAIN
}
layer {
  name: "parameters"
  type: "HDF5Data"
  top: "data"
  top: "label"
  include {
    phase: TRAIN
  }
  hdf5_data_param {
    source: "/home/purduethu/scratch/radon/d/deng106/CNNStatisticalModel/distributions/input/20_distributions_100_sample_size_train-parameters-path.txt"
    batch_size: 20
  }
}
layer {
  name: "conv1"
  type: "Convolution"
  bottom: "data"
  top: "conv1"
  param {
    lr_mult: 1
  }
  param {
    lr_mult: 2
  }
  convolution_param {
    num_output: 64
    pad: 2
    kernel_size: 5
    stride: 1
    weight_filler {
      type: "gaussian"
      std: 0.0001
    }
    bias_filler {
      type: "constant"
    }
  }
}
layer {
  name: "relu1"
  type: "ReLU"
  bottom: "conv1"
  top: "conv1"
}
layer {
  name: "pool1"
  type: "Pooling"
  bottom: "conv1"
  top: "pool1"
  pooling_param {
    pool: MAX
    kernel_size: 3
    stride: 2
  }
}
layer {
  name: "conv2"
  type: "Convolution"
  bottom: "pool1"
  top: "conv2"
  param {
    lr_mult: 1
  }
  param {
    lr_mult: 2
  }
  convolution_param {
    num_output: 128
    pad: 2
    kernel_size: 5
    stride: 1
    weight_filler {
      type: "gaussian"
      std: 0.01
    }
    bias_filler {
      type: "constant"
    }
  }
}
layer {
  name: "relu2"
  type: "ReLU"
  bottom: "conv2"
  top: "conv2"
}
layer {
  name: "conv3"
  type: "Convolution"
  bottom: "conv2"
  top: "conv3"
  param {
    lr_mult: 1
  }
  param {
    lr_mult: 2
  }
  convolution_param {
    num_output: 128
    pad: 2
    kernel_size: 5
    stride: 1
    weight_filler {
      type: "gaussian"
      std: 0.01
    }
    bias_filler {
      type: "constant"
    }
  }
}
layer {
  name: "relu3"
  type: "ReLU"
  bottom: "conv3"
  top: "conv3"
}
layer {
  name: "pool3"
  type: "Pooling"
  bottom: "conv3"
  top: "pool3"
  pooling_param {
    pool: AVE
    kernel_size: 3
    stride: 2
  }
}
layer {
  name: "ip1"
  type: "InnerProduct"
  bottom: "pool3"
  top: "ip1"
  param {
    lr_mult: 1
  }
  param {
    lr_mult: 2
  }
  inner_product_param {
    num_output: 512
    weight_filler {
      type: "gaussian"
      std: 0.1
    }
    bias_filler {
      type: "constant"
    }
  }
}
layer {
  name: "ip2"
  type: "InnerProduct"
  bottom: "ip1"
  top: "ip2"
  param {
    lr_mult: 1
  }
  param {
    lr_mult: 2
  }
  inner_product_param {
    num_output: 256
    weight_filler {
      type: "gaussian"
      std: 0.1
    }
    bias_filler {
      type: "constant"
    }
  }
}
layer {
  name: "ip3"
  type: "InnerProduct"
  bottom: "ip2"
  top: "ip3"
  param {
    lr_mult: 1
  }
  param {
    lr_mult: 2
  }
  inner_product_param {
    num_output: 1
    weight_filler {
      type: "gaussian"
      std: 0.1
    }
    bias_filler {
      type: "constant"
    }
  }
}
layer {
  name: "loss"
  type: "HuberLoss"
  bottom: "ip3"
  bottom: "label"
  top: "loss"
  include {
    phase: TRAIN
  }
}
I0505 03:47:46.163761  3081 layer_factory.hpp:77] Creating layer parameters
I0505 03:47:46.163776  3081 net.cpp:94] Creating Layer parameters
I0505 03:47:46.163789  3081 net.cpp:409] parameters -> data
I0505 03:47:46.163808  3081 net.cpp:409] parameters -> label
I0505 03:47:46.163820  3081 hdf5_data_layer.cpp:79] Loading list of HDF5 filenames from: /home/purduethu/scratch/radon/d/deng106/CNNStatisticalModel/distributions/input/20_distributions_100_sample_size_train-parameters-path.txt
I0505 03:47:46.163841  3081 hdf5_data_layer.cpp:93] Number of HDF5 files: 1
I0505 03:47:46.164347  3081 hdf5.cpp:32] Datatype class: H5T_FLOAT
I0505 03:47:46.233369  3081 net.cpp:144] Setting up parameters
I0505 03:47:46.233402  3081 net.cpp:151] Top shape: 20 1 10 10 (2000)
I0505 03:47:46.233407  3081 net.cpp:151] Top shape: 20 (20)
I0505 03:47:46.233412  3081 net.cpp:159] Memory required for data: 8080
I0505 03:47:46.233418  3081 layer_factory.hpp:77] Creating layer conv1
I0505 03:47:46.233444  3081 net.cpp:94] Creating Layer conv1
I0505 03:47:46.233450  3081 net.cpp:435] conv1 <- data
I0505 03:47:46.233461  3081 net.cpp:409] conv1 -> conv1
I0505 03:47:46.237309  3081 net.cpp:144] Setting up conv1
I0505 03:47:46.237324  3081 net.cpp:151] Top shape: 20 64 10 10 (128000)
I0505 03:47:46.237329  3081 net.cpp:159] Memory required for data: 520080
I0505 03:47:46.237341  3081 layer_factory.hpp:77] Creating layer relu1
I0505 03:47:46.237349  3081 net.cpp:94] Creating Layer relu1
I0505 03:47:46.237354  3081 net.cpp:435] relu1 <- conv1
I0505 03:47:46.237357  3081 net.cpp:396] relu1 -> conv1 (in-place)
I0505 03:47:46.237376  3081 net.cpp:144] Setting up relu1
I0505 03:47:46.237382  3081 net.cpp:151] Top shape: 20 64 10 10 (128000)
I0505 03:47:46.237385  3081 net.cpp:159] Memory required for data: 1032080
I0505 03:47:46.237388  3081 layer_factory.hpp:77] Creating layer pool1
I0505 03:47:46.237396  3081 net.cpp:94] Creating Layer pool1
I0505 03:47:46.237401  3081 net.cpp:435] pool1 <- conv1
I0505 03:47:46.237404  3081 net.cpp:409] pool1 -> pool1
I0505 03:47:46.237448  3081 net.cpp:144] Setting up pool1
I0505 03:47:46.237455  3081 net.cpp:151] Top shape: 20 64 5 5 (32000)
I0505 03:47:46.237459  3081 net.cpp:159] Memory required for data: 1160080
I0505 03:47:46.237462  3081 layer_factory.hpp:77] Creating layer conv2
I0505 03:47:46.237471  3081 net.cpp:94] Creating Layer conv2
I0505 03:47:46.237475  3081 net.cpp:435] conv2 <- pool1
I0505 03:47:46.237480  3081 net.cpp:409] conv2 -> conv2
I0505 03:47:46.245620  3081 net.cpp:144] Setting up conv2
I0505 03:47:46.245635  3081 net.cpp:151] Top shape: 20 128 5 5 (64000)
I0505 03:47:46.245640  3081 net.cpp:159] Memory required for data: 1416080
I0505 03:47:46.245647  3081 layer_factory.hpp:77] Creating layer relu2
I0505 03:47:46.245653  3081 net.cpp:94] Creating Layer relu2
I0505 03:47:46.245657  3081 net.cpp:435] relu2 <- conv2
I0505 03:47:46.245661  3081 net.cpp:396] relu2 -> conv2 (in-place)
I0505 03:47:46.245668  3081 net.cpp:144] Setting up relu2
I0505 03:47:46.245673  3081 net.cpp:151] Top shape: 20 128 5 5 (64000)
I0505 03:47:46.245676  3081 net.cpp:159] Memory required for data: 1672080
I0505 03:47:46.245679  3081 layer_factory.hpp:77] Creating layer conv3
I0505 03:47:46.245687  3081 net.cpp:94] Creating Layer conv3
I0505 03:47:46.245692  3081 net.cpp:435] conv3 <- conv2
I0505 03:47:46.245697  3081 net.cpp:409] conv3 -> conv3
I0505 03:47:46.260771  3081 net.cpp:144] Setting up conv3
I0505 03:47:46.260784  3081 net.cpp:151] Top shape: 20 128 5 5 (64000)
I0505 03:47:46.260789  3081 net.cpp:159] Memory required for data: 1928080
I0505 03:47:46.260797  3081 layer_factory.hpp:77] Creating layer relu3
I0505 03:47:46.260803  3081 net.cpp:94] Creating Layer relu3
I0505 03:47:46.260813  3081 net.cpp:435] relu3 <- conv3
I0505 03:47:46.260819  3081 net.cpp:396] relu3 -> conv3 (in-place)
I0505 03:47:46.260826  3081 net.cpp:144] Setting up relu3
I0505 03:47:46.260831  3081 net.cpp:151] Top shape: 20 128 5 5 (64000)
I0505 03:47:46.260834  3081 net.cpp:159] Memory required for data: 2184080
I0505 03:47:46.260838  3081 layer_factory.hpp:77] Creating layer pool3
I0505 03:47:46.260843  3081 net.cpp:94] Creating Layer pool3
I0505 03:47:46.260848  3081 net.cpp:435] pool3 <- conv3
I0505 03:47:46.260859  3081 net.cpp:409] pool3 -> pool3
I0505 03:47:46.260891  3081 net.cpp:144] Setting up pool3
I0505 03:47:46.260898  3081 net.cpp:151] Top shape: 20 128 2 2 (10240)
I0505 03:47:46.260901  3081 net.cpp:159] Memory required for data: 2225040
I0505 03:47:46.260905  3081 layer_factory.hpp:77] Creating layer ip1
I0505 03:47:46.260915  3081 net.cpp:94] Creating Layer ip1
I0505 03:47:46.260920  3081 net.cpp:435] ip1 <- pool3
I0505 03:47:46.260924  3081 net.cpp:409] ip1 -> ip1
I0505 03:47:46.268653  3081 net.cpp:144] Setting up ip1
I0505 03:47:46.268667  3081 net.cpp:151] Top shape: 20 512 (10240)
I0505 03:47:46.268672  3081 net.cpp:159] Memory required for data: 2266000
I0505 03:47:46.268678  3081 layer_factory.hpp:77] Creating layer ip2
I0505 03:47:46.268684  3081 net.cpp:94] Creating Layer ip2
I0505 03:47:46.268688  3081 net.cpp:435] ip2 <- ip1
I0505 03:47:46.268694  3081 net.cpp:409] ip2 -> ip2
I0505 03:47:46.271939  3081 net.cpp:144] Setting up ip2
I0505 03:47:46.271946  3081 net.cpp:151] Top shape: 20 256 (5120)
I0505 03:47:46.271950  3081 net.cpp:159] Memory required for data: 2286480
I0505 03:47:46.271957  3081 layer_factory.hpp:77] Creating layer ip3
I0505 03:47:46.271963  3081 net.cpp:94] Creating Layer ip3
I0505 03:47:46.271966  3081 net.cpp:435] ip3 <- ip2
I0505 03:47:46.271971  3081 net.cpp:409] ip3 -> ip3
I0505 03:47:46.272038  3081 net.cpp:144] Setting up ip3
I0505 03:47:46.272044  3081 net.cpp:151] Top shape: 20 1 (20)
I0505 03:47:46.272047  3081 net.cpp:159] Memory required for data: 2286560
I0505 03:47:46.272053  3081 layer_factory.hpp:77] Creating layer loss
I0505 03:47:46.272058  3081 net.cpp:94] Creating Layer loss
I0505 03:47:46.272061  3081 net.cpp:435] loss <- ip3
I0505 03:47:46.272065  3081 net.cpp:435] loss <- label
I0505 03:47:46.272071  3081 net.cpp:409] loss -> loss
I0505 03:47:46.272109  3081 net.cpp:144] Setting up loss
…
