…
I0501 22:07:38.166589 15138 net.cpp:323] The NetState phase (0) differed from the phase (1) specified by a rule in layer intercept
I0501 22:07:38.166606 15138 net.cpp:323] The NetState phase (0) differed from the phase (1) specified by a rule in layer accuracy
I0501 22:07:38.166697 15138 net.cpp:52] Initializing net from parameters: 
state {
  phase: TRAIN
}
layer {
  name: "parameters"
  type: "HDF5Data"
  top: "data"
  top: "label"
  include {
    phase: TRAIN
  }
  hdf5_data_param {
    source: "/home/purduethu/scratch/radon/d/deng106/CNNStatisticalModel/distributions/input/5_distributions_100_sample_size_train-distributions-path.txt"
    batch_size: 20
  }
}
layer {
  name: "conv1"
  type: "Convolution"
  bottom: "data"
  top: "conv1"
  param {
    lr_mult: 1
  }
  param {
    lr_mult: 2
  }
  convolution_param {
    num_output: 64
    pad: 2
    kernel_size: 5
    stride: 1
    weight_filler {
      type: "gaussian"
      std: 0.0001
    }
    bias_filler {
      type: "constant"
    }
  }
}
layer {
  name: "relu1"
  type: "ReLU"
  bottom: "conv1"
  top: "conv1"
}
layer {
  name: "conv2"
  type: "Convolution"
  bottom: "conv1"
  top: "conv2"
  param {
    lr_mult: 1
  }
  param {
    lr_mult: 2
  }
  convolution_param {
    num_output: 64
    pad: 2
    kernel_size: 5
    stride: 1
    weight_filler {
      type: "gaussian"
      std: 0.01
    }
    bias_filler {
      type: "constant"
    }
  }
}
layer {
  name: "relu2"
  type: "ReLU"
  bottom: "conv2"
  top: "conv2"
}
layer {
  name: "pool2"
  type: "Pooling"
  bottom: "conv2"
  top: "pool2"
  pooling_param {
    pool: MAX
    kernel_size: 3
    stride: 2
  }
}
layer {
  name: "conv3"
  type: "Convolution"
  bottom: "pool2"
  top: "conv3"
  param {
    lr_mult: 1
  }
  param {
    lr_mult: 2
  }
  convolution_param {
    num_output: 64
    pad: 2
    kernel_size: 5
    stride: 1
    weight_filler {
      type: "gaussian"
      std: 0.01
    }
    bias_filler {
      type: "constant"
    }
  }
}
layer {
  name: "relu3"
  type: "ReLU"
  bottom: "conv3"
  top: "conv3"
}
layer {
  name: "conv4"
  type: "Convolution"
  bottom: "conv3"
  top: "conv4"
  param {
    lr_mult: 1
  }
  param {
    lr_mult: 2
  }
  convolution_param {
    num_output: 64
    pad: 2
    kernel_size: 5
    stride: 1
    weight_filler {
      type: "gaussian"
      std: 0.01
    }
    bias_filler {
      type: "constant"
    }
  }
}
layer {
  name: "relu4"
  type: "ReLU"
  bottom: "conv4"
  top: "conv4"
}
layer {
  name: "conv5"
  type: "Convolution"
  bottom: "conv4"
  top: "conv5"
  param {
    lr_mult: 1
  }
  param {
    lr_mult: 2
  }
  convolution_param {
    num_output: 64
    pad: 2
    kernel_size: 5
    stride: 1
    weight_filler {
      type: "gaussian"
      std: 0.01
    }
    bias_filler {
      type: "constant"
    }
  }
}
layer {
  name: "relu5"
  type: "ReLU"
  bottom: "conv5"
  top: "conv5"
}
layer {
  name: "pool5"
  type: "Pooling"
  bottom: "conv5"
  top: "pool5"
  pooling_param {
    pool: AVE
    kernel_size: 3
    stride: 2
  }
}
layer {
  name: "ip1"
  type: "InnerProduct"
  bottom: "pool5"
  top: "ip1"
  param {
    lr_mult: 1
  }
  param {
    lr_mult: 2
  }
  inner_product_param {
    num_output: 64
    weight_filler {
      type: "gaussian"
      std: 0.1
    }
    bias_filler {
      type: "constant"
    }
  }
}
layer {
  name: "ip2"
  type: "InnerProduct"
  bottom: "ip1"
  top: "ip2"
  param {
    lr_mult: 1
  }
  param {
    lr_mult: 2
  }
  inner_product_param {
    num_output: 64
    weight_filler {
      type: "gaussian"
      std: 0.1
    }
    bias_filler {
      type: "constant"
    }
  }
}
layer {
  name: "ip3"
  type: "InnerProduct"
  bottom: "ip2"
  top: "ip3"
  param {
    lr_mult: 1
  }
  param {
    lr_mult: 2
  }
  inner_product_param {
    num_output: 50
    weight_filler {
      type: "gaussian"
      std: 0.1
    }
    bias_filler {
      type: "constant"
    }
  }
}
layer {
  name: "loss"
  type: "SoftmaxWithLoss"
  bottom: "ip3"
  bottom: "label"
  top: "loss"
}
I0501 22:07:38.166772 15138 layer_factory.hpp:77] Creating layer parameters
I0501 22:07:38.166787 15138 net.cpp:94] Creating Layer parameters
I0501 22:07:38.166793 15138 net.cpp:409] parameters -> data
I0501 22:07:38.166813 15138 net.cpp:409] parameters -> label
I0501 22:07:38.166823 15138 hdf5_data_layer.cpp:79] Loading list of HDF5 filenames from: /home/purduethu/scratch/radon/d/deng106/CNNStatisticalModel/distributions/input/5_distributions_100_sample_size_train-distributions-path.txt
I0501 22:07:38.166846 15138 hdf5_data_layer.cpp:93] Number of HDF5 files: 1
I0501 22:07:38.167417 15138 hdf5.cpp:32] Datatype class: H5T_FLOAT
I0501 22:07:38.183388 15138 hdf5.cpp:35] Datatype class: H5T_INTEGER
I0501 22:07:38.184526 15138 net.cpp:144] Setting up parameters
I0501 22:07:38.184545 15138 net.cpp:151] Top shape: 20 1 10 10 (2000)
I0501 22:07:38.184567 15138 net.cpp:151] Top shape: 20 (20)
I0501 22:07:38.184573 15138 net.cpp:159] Memory required for data: 8080
I0501 22:07:38.184581 15138 layer_factory.hpp:77] Creating layer conv1
I0501 22:07:38.184600 15138 net.cpp:94] Creating Layer conv1
I0501 22:07:38.184607 15138 net.cpp:435] conv1 <- data
I0501 22:07:38.184618 15138 net.cpp:409] conv1 -> conv1
I0501 22:07:38.188412 15138 net.cpp:144] Setting up conv1
I0501 22:07:38.188427 15138 net.cpp:151] Top shape: 20 64 10 10 (128000)
I0501 22:07:38.188431 15138 net.cpp:159] Memory required for data: 520080
I0501 22:07:38.188443 15138 layer_factory.hpp:77] Creating layer relu1
I0501 22:07:38.188452 15138 net.cpp:94] Creating Layer relu1
I0501 22:07:38.188455 15138 net.cpp:435] relu1 <- conv1
I0501 22:07:38.188460 15138 net.cpp:396] relu1 -> conv1 (in-place)
I0501 22:07:38.188477 15138 net.cpp:144] Setting up relu1
I0501 22:07:38.188483 15138 net.cpp:151] Top shape: 20 64 10 10 (128000)
I0501 22:07:38.188486 15138 net.cpp:159] Memory required for data: 1032080
I0501 22:07:38.188490 15138 layer_factory.hpp:77] Creating layer conv2
I0501 22:07:38.188498 15138 net.cpp:94] Creating Layer conv2
I0501 22:07:38.188503 15138 net.cpp:435] conv2 <- conv1
I0501 22:07:38.188508 15138 net.cpp:409] conv2 -> conv2
I0501 22:07:38.194375 15138 net.cpp:144] Setting up conv2
I0501 22:07:38.194391 15138 net.cpp:151] Top shape: 20 64 10 10 (128000)
I0501 22:07:38.194394 15138 net.cpp:159] Memory required for data: 1544080
I0501 22:07:38.194402 15138 layer_factory.hpp:77] Creating layer relu2
I0501 22:07:38.194411 15138 net.cpp:94] Creating Layer relu2
I0501 22:07:38.194414 15138 net.cpp:435] relu2 <- conv2
I0501 22:07:38.194419 15138 net.cpp:396] relu2 -> conv2 (in-place)
I0501 22:07:38.194427 15138 net.cpp:144] Setting up relu2
I0501 22:07:38.194432 15138 net.cpp:151] Top shape: 20 64 10 10 (128000)
I0501 22:07:38.194434 15138 net.cpp:159] Memory required for data: 2056080
I0501 22:07:38.194438 15138 layer_factory.hpp:77] Creating layer pool2
I0501 22:07:38.194453 15138 net.cpp:94] Creating Layer pool2
I0501 22:07:38.194456 15138 net.cpp:435] pool2 <- conv2
I0501 22:07:38.194461 15138 net.cpp:409] pool2 -> pool2
I0501 22:07:38.194506 15138 net.cpp:144] Setting up pool2
I0501 22:07:38.194514 15138 net.cpp:151] Top shape: 20 64 5 5 (32000)
I0501 22:07:38.194519 15138 net.cpp:159] Memory required for data: 2184080
I0501 22:07:38.194522 15138 layer_factory.hpp:77] Creating layer conv3
I0501 22:07:38.194530 15138 net.cpp:94] Creating Layer conv3
I0501 22:07:38.194535 15138 net.cpp:435] conv3 <- pool2
I0501 22:07:38.194548 15138 net.cpp:409] conv3 -> conv3
I0501 22:07:38.199373 15138 net.cpp:144] Setting up conv3
I0501 22:07:38.199388 15138 net.cpp:151] Top shape: 20 64 5 5 (32000)
I0501 22:07:38.199393 15138 net.cpp:159] Memory required for data: 2312080
I0501 22:07:38.199401 15138 layer_factory.hpp:77] Creating layer relu3
I0501 22:07:38.199407 15138 net.cpp:94] Creating Layer relu3
I0501 22:07:38.199411 15138 net.cpp:435] relu3 <- conv3
I0501 22:07:38.199416 15138 net.cpp:396] relu3 -> conv3 (in-place)
I0501 22:07:38.199424 15138 net.cpp:144] Setting up relu3
I0501 22:07:38.199429 15138 net.cpp:151] Top shape: 20 64 5 5 (32000)
I0501 22:07:38.199432 15138 net.cpp:159] Memory required for data: 2440080
I0501 22:07:38.199435 15138 layer_factory.hpp:77] Creating layer conv4
I0501 22:07:38.199443 15138 net.cpp:94] Creating Layer conv4
I0501 22:07:38.199447 15138 net.cpp:435] conv4 <- conv3
I0501 22:07:38.199453 15138 net.cpp:409] conv4 -> conv4
I0501 22:07:38.203842 15138 net.cpp:144] Setting up conv4
I0501 22:07:38.203855 15138 net.cpp:151] Top shape: 20 64 5 5 (32000)
I0501 22:07:38.203860 15138 net.cpp:159] Memory required for data: 2568080
I0501 22:07:38.203866 15138 layer_factory.hpp:77] Creating layer relu4
I0501 22:07:38.203872 15138 net.cpp:94] Creating Layer relu4
I0501 22:07:38.203876 15138 net.cpp:435] relu4 <- conv4
I0501 22:07:38.203881 15138 net.cpp:396] relu4 -> conv4 (in-place)
I0501 22:07:38.203889 15138 net.cpp:144] Setting up relu4
I0501 22:07:38.203894 15138 net.cpp:151] Top shape: 20 64 5 5 (32000)
I0501 22:07:38.203897 15138 net.cpp:159] Memory required for data: 2696080
I0501 22:07:38.203900 15138 layer_factory.hpp:77] Creating layer conv5
I0501 22:07:38.203908 15138 net.cpp:94] Creating Layer conv5
I0501 22:07:38.203912 15138 net.cpp:435] conv5 <- conv4
I0501 22:07:38.203918 15138 net.cpp:409] conv5 -> conv5
I0501 22:07:38.208750 15138 net.cpp:144] Setting up conv5
I0501 22:07:38.208765 15138 net.cpp:151] Top shape: 20 64 5 5 (32000)
I0501 22:07:38.208768 15138 net.cpp:159] Memory required for data: 2824080
I0501 22:07:38.208777 15138 layer_factory.hpp:77] Creating layer relu5
I0501 22:07:38.208783 15138 net.cpp:94] Creating Layer relu5
I0501 22:07:38.208787 15138 net.cpp:435] relu5 <- conv5
I0501 22:07:38.208792 15138 net.cpp:396] relu5 -> conv5 (in-place)
I0501 22:07:38.208801 15138 net.cpp:144] Setting up relu5
I0501 22:07:38.208806 15138 net.cpp:151] Top shape: 20 64 5 5 (32000)
I0501 22:07:38.208808 15138 net.cpp:159] Memory required for data: 2952080
I0501 22:07:38.208812 15138 layer_factory.hpp:77] Creating layer pool5
I0501 22:07:38.208817 15138 net.cpp:94] Creating Layer pool5
I0501 22:07:38.208822 15138 net.cpp:435] pool5 <- conv5
I0501 22:07:38.208825 15138 net.cpp:409] pool5 -> pool5
I0501 22:07:38.208858 15138 net.cpp:144] Setting up pool5
I0501 22:07:38.208866 15138 net.cpp:151] Top shape: 20 64 2 2 (5120)
I0501 22:07:38.208870 15138 net.cpp:159] Memory required for data: 2972560
I0501 22:07:38.208873 15138 layer_factory.hpp:77] Creating layer ip1
I0501 22:07:38.208881 15138 net.cpp:94] Creating Layer ip1
I0501 22:07:38.208884 15138 net.cpp:435] ip1 <- pool5
I0501 22:07:38.208889 15138 net.cpp:409] ip1 -> ip1
I0501 22:07:38.210021 15138 net.cpp:144] Setting up ip1
I0501 22:07:38.210033 15138 net.cpp:151] Top shape: 20 64 (1280)
I0501 22:07:38.210037 15138 net.cpp:159] Memory required for data: 2977680
I0501 22:07:38.210044 15138 layer_factory.hpp:77] Creating layer ip2
I0501 22:07:38.210052 15138 net.cpp:94] Creating Layer ip2
I0501 22:07:38.210059 15138 net.cpp:435] ip2 <- ip1
I0501 22:07:38.210065 15138 net.cpp:409] ip2 -> ip2
I0501 22:07:38.210237 15138 net.cpp:144] Setting up ip2
I0501 22:07:38.210244 15138 net.cpp:151] Top shape: 20 64 (1280)
I0501 22:07:38.210248 15138 net.cpp:159] Memory required for data: 2982800
I0501 22:07:38.210254 15138 layer_factory.hpp:77] Creating layer ip3
I0501 22:07:38.210260 15138 net.cpp:94] Creating Layer ip3
I0501 22:07:38.210264 15138 net.cpp:435] ip3 <- ip2
I0501 22:07:38.210269 15138 net.cpp:409] ip3 -> ip3
I0501 22:07:38.210415 15138 net.cpp:144] Setting up ip3
I0501 22:07:38.210427 15138 net.cpp:151] Top shape: 20 50 (1000)
I0501 22:07:38.210431 15138 net.cpp:159] Memory required for data: 2986800
I0501 22:07:38.210436 15138 layer_factory.hpp:77] Creating layer loss
I0501 22:07:38.210443 15138 net.cpp:94] Creating Layer loss
I0501 22:07:38.210448 15138 net.cpp:435] loss <- ip3
I0501 22:07:38.210451 15138 net.cpp:435] loss <- label
I0501 22:07:38.210458 15138 net.cpp:409] loss -> loss
I0501 22:07:38.210467 15138 layer_factory.hpp:77] Creating layer loss
…
I0501 22:07:38.211624 15138 solver.cpp:181] Creating test net (#0) specified by net file: ./protocol/dis_5_100_dimension.protocol_distribution
I0501 22:07:38.211652 15138 net.cpp:323] The NetState phase (1) differed from the phase (0) specified by a rule in layer parameters
I0501 22:07:38.211750 15138 net.cpp:52] Initializing net from parameters: 
state {
  phase: TEST
}
layer {
  name: "intercept"
  type: "HDF5Data"
  top: "data"
  top: "label"
  include {
    phase: TEST
  }
  hdf5_data_param {
    source: "/home/purduethu/scratch/radon/d/deng106/CNNStatisticalModel/distributions/input/5_distributions_100_sample_size_test-distributions-path.txt"
    batch_size: 20
  }
}
layer {
  name: "conv1"
  type: "Convolution"
  bottom: "data"
  top: "conv1"
  param {
    lr_mult: 1
  }
  param {
    lr_mult: 2
  }
  convolution_param {
    num_output: 64
    pad: 2
    kernel_size: 5
    stride: 1
    weight_filler {
      type: "gaussian"
      std: 0.0001
    }
    bias_filler {
      type: "constant"
    }
  }
}
layer {
  name: "relu1"
  type: "ReLU"
  bottom: "conv1"
  top: "conv1"
}
layer {
  name: "conv2"
  type: "Convolution"
  bottom: "conv1"
  top: "conv2"
  param {
    lr_mult: 1
  }
  param {
    lr_mult: 2
  }
  convolution_param {
    num_output: 64
    pad: 2
    kernel_size: 5
    stride: 1
    weight_filler {
      type: "gaussian"
      std: 0.01
    }
    bias_filler {
      type: "constant"
    }
  }
}
layer {
  name: "relu2"
  type: "ReLU"
  bottom: "conv2"
  top: "conv2"
}
layer {
  name: "pool2"
  type: "Pooling"
  bottom: "conv2"
  top: "pool2"
  pooling_param {
    pool: MAX
    kernel_size: 3
    stride: 2
  }
}
layer {
  name: "conv3"
  type: "Convolution"
  bottom: "pool2"
  top: "conv3"
  param {
    lr_mult: 1
  }
  param {
    lr_mult: 2
  }
  convolution_param {
    num_output: 64
    pad: 2
    kernel_size: 5
    stride: 1
    weight_filler {
      type: "gaussian"
      std: 0.01
    }
    bias_filler {
      type: "constant"
    }
  }
}
layer {
  name: "relu3"
  type: "ReLU"
  bottom: "conv3"
  top: "conv3"
}
layer {
  name: "conv4"
  type: "Convolution"
  bottom: "conv3"
  top: "conv4"
  param {
    lr_mult: 1
  }
  param {
    lr_mult: 2
  }
  convolution_param {
    num_output: 64
    pad: 2
    kernel_size: 5
    stride: 1
    weight_filler {
      type: "gaussian"
      std: 0.01
    }
    bias_filler {
      type: "constant"
    }
  }
}
layer {
  name: "relu4"
  type: "ReLU"
  bottom: "conv4"
  top: "conv4"
}
layer {
  name: "conv5"
  type: "Convolution"
  bottom: "conv4"
  top: "conv5"
  param {
    lr_mult: 1
  }
  param {
    lr_mult: 2
  }
  convolution_param {
    num_output: 64
    pad: 2
    kernel_size: 5
    stride: 1
    weight_filler {
      type: "gaussian"
      std: 0.01
    }
    bias_filler {
      type: "constant"
    }
  }
}
layer {
  name: "relu5"
  type: "ReLU"
  bottom: "conv5"
  top: "conv5"
}
layer {
  name: "pool5"
  type: "Pooling"
  bottom: "conv5"
  top: "pool5"
  pooling_param {
    pool: AVE
    kernel_size: 3
    stride: 2
  }
}
layer {
  name: "ip1"
  type: "InnerProduct"
  bottom: "pool5"
  top: "ip1"
  param {
    lr_mult: 1
  }
  param {
    lr_mult: 2
  }
  inner_product_param {
    num_output: 64
    weight_filler {
      type: "gaussian"
      std: 0.1
    }
    bias_filler {
      type: "constant"
    }
  }
}
layer {
  name: "ip2"
  type: "InnerProduct"
  bottom: "ip1"
  top: "ip2"
  param {
    lr_mult: 1
  }
  param {
    lr_mult: 2
  }
  inner_product_param {
    num_output: 64
    weight_filler {
      type: "gaussian"
      std: 0.1
    }
    bias_filler {
      type: "constant"
    }
  }
}
layer {
  name: "ip3"
  type: "InnerProduct"
  bottom: "ip2"
  top: "ip3"
  param {
    lr_mult: 1
  }
  param {
    lr_mult: 2
  }
  inner_product_param {
    num_output: 50
    weight_filler {
      type: "gaussian"
      std: 0.1
    }
    bias_filler {
      type: "constant"
    }
  }
}
layer {
  name: "accuracy"
  type: "Accuracy"
  bottom: "ip3"
  bottom: "label"
  top: "accuracy"
  include {
    phase: TEST
  }
}
layer {
  name: "loss"
  type: "SoftmaxWithLoss"
  bottom: "ip3"
  bottom: "label"
  top: "loss"
}
I0501 22:07:38.211824 15138 layer_factory.hpp:77] Creating layer intercept
I0501 22:07:38.211833 15138 net.cpp:94] Creating Layer intercept
I0501 22:07:38.211838 15138 net.cpp:409] intercept -> data
I0501 22:07:38.211845 15138 net.cpp:409] intercept -> label
I0501 22:07:38.211851 15138 hdf5_data_layer.cpp:79] Loading list of HDF5 filenames from: /home/purduethu/scratch/radon/d/deng106/CNNStatisticalModel/distributions/input/5_distributions_100_sample_size_test-distributions-path.txt
I0501 22:07:38.211871 15138 hdf5_data_layer.cpp:93] Number of HDF5 files: 1
I0501 22:07:38.215983 15138 net.cpp:144] Setting up intercept
I0501 22:07:38.216012 15138 net.cpp:151] Top shape: 20 1 10 10 (2000)
I0501 22:07:38.216017 15138 net.cpp:151] Top shape: 20 (20)
I0501 22:07:38.216022 15138 net.cpp:159] Memory required for data: 8080
I0501 22:07:38.216027 15138 layer_factory.hpp:77] Creating layer label_intercept_1_split
I0501 22:07:38.216037 15138 net.cpp:94] Creating Layer label_intercept_1_split
I0501 22:07:38.216040 15138 net.cpp:435] label_intercept_1_split <- label
I0501 22:07:38.216047 15138 net.cpp:409] label_intercept_1_split -> label_intercept_1_split_0
I0501 22:07:38.216055 15138 net.cpp:409] label_intercept_1_split -> label_intercept_1_split_1
I0501 22:07:38.216096 15138 net.cpp:144] Setting up label_intercept_1_split
I0501 22:07:38.216104 15138 net.cpp:151] Top shape: 20 (20)
I0501 22:07:38.216109 15138 net.cpp:151] Top shape: 20 (20)
I0501 22:07:38.216111 15138 net.cpp:159] Memory required for data: 8240
I0501 22:07:38.216115 15138 layer_factory.hpp:77] Creating layer conv1
I0501 22:07:38.216125 15138 net.cpp:94] Creating Layer conv1
I0501 22:07:38.216128 15138 net.cpp:435] conv1 <- data
I0501 22:07:38.216135 15138 net.cpp:409] conv1 -> conv1
I0501 22:07:38.216841 15138 net.cpp:144] Setting up conv1
I0501 22:07:38.216863 15138 net.cpp:151] Top shape: 20 64 10 10 (128000)
I0501 22:07:38.216867 15138 net.cpp:159] Memory required for data: 520240
I0501 22:07:38.216877 15138 layer_factory.hpp:77] Creating layer relu1
I0501 22:07:38.216884 15138 net.cpp:94] Creating Layer relu1
I0501 22:07:38.216888 15138 net.cpp:435] relu1 <- conv1
I0501 22:07:38.216893 15138 net.cpp:396] relu1 -> conv1 (in-place)
I0501 22:07:38.216900 15138 net.cpp:144] Setting up relu1
I0501 22:07:38.216905 15138 net.cpp:151] Top shape: 20 64 10 10 (128000)
I0501 22:07:38.216908 15138 net.cpp:159] Memory required for data: 1032240
I0501 22:07:38.216912 15138 layer_factory.hpp:77] Creating layer conv2
I0501 22:07:38.216920 15138 net.cpp:94] Creating Layer conv2
I0501 22:07:38.216924 15138 net.cpp:435] conv2 <- conv1
I0501 22:07:38.216929 15138 net.cpp:409] conv2 -> conv2
I0501 22:07:38.220376 15138 net.cpp:144] Setting up conv2
I0501 22:07:38.220387 15138 net.cpp:151] Top shape: 20 64 10 10 (128000)
I0501 22:07:38.220391 15138 net.cpp:159] Memory required for data: 1544240
I0501 22:07:38.220399 15138 layer_factory.hpp:77] Creating layer relu2
I0501 22:07:38.220405 15138 net.cpp:94] Creating Layer relu2
I0501 22:07:38.220409 15138 net.cpp:435] relu2 <- conv2
I0501 22:07:38.220414 15138 net.cpp:396] relu2 -> conv2 (in-place)
I0501 22:07:38.220422 15138 net.cpp:144] Setting up relu2
I0501 22:07:38.220427 15138 net.cpp:151] Top shape: 20 64 10 10 (128000)
I0501 22:07:38.220429 15138 net.cpp:159] Memory required for data: 2056240
I0501 22:07:38.220432 15138 layer_factory.hpp:77] Creating layer pool2
I0501 22:07:38.220438 15138 net.cpp:94] Creating Layer pool2
I0501 22:07:38.220441 15138 net.cpp:435] pool2 <- conv2
I0501 22:07:38.220446 15138 net.cpp:409] pool2 -> pool2
I0501 22:07:38.220479 15138 net.cpp:144] Setting up pool2
I0501 22:07:38.220485 15138 net.cpp:151] Top shape: 20 64 5 5 (32000)
I0501 22:07:38.220489 15138 net.cpp:159] Memory required for data: 2184240
I0501 22:07:38.220492 15138 layer_factory.hpp:77] Creating layer conv3
I0501 22:07:38.220500 15138 net.cpp:94] Creating Layer conv3
I0501 22:07:38.220504 15138 net.cpp:435] conv3 <- pool2
I0501 22:07:38.220510 15138 net.cpp:409] conv3 -> conv3
I0501 22:07:38.225134 15138 net.cpp:144] Setting up conv3
I0501 22:07:38.225148 15138 net.cpp:151] Top shape: 20 64 5 5 (32000)
I0501 22:07:38.225153 15138 net.cpp:159] Memory required for data: 2312240
I0501 22:07:38.225162 15138 layer_factory.hpp:77] Creating layer relu3
I0501 22:07:38.225168 15138 net.cpp:94] Creating Layer relu3
I0501 22:07:38.225172 15138 net.cpp:435] relu3 <- conv3
I0501 22:07:38.225178 15138 net.cpp:396] relu3 -> conv3 (in-place)
I0501 22:07:38.225184 15138 net.cpp:144] Setting up relu3
I0501 22:07:38.225189 15138 net.cpp:151] Top shape: 20 64 5 5 (32000)
I0501 22:07:38.225193 15138 net.cpp:159] Memory required for data: 2440240
I0501 22:07:38.225196 15138 layer_factory.hpp:77] Creating layer conv4
I0501 22:07:38.225204 15138 net.cpp:94] Creating Layer conv4
I0501 22:07:38.225208 15138 net.cpp:435] conv4 <- conv3
I0501 22:07:38.225214 15138 net.cpp:409] conv4 -> conv4
I0501 22:07:38.228690 15138 net.cpp:144] Setting up conv4
I0501 22:07:38.228703 15138 net.cpp:151] Top shape: 20 64 5 5 (32000)
I0501 22:07:38.228708 15138 net.cpp:159] Memory required for data: 2568240
I0501 22:07:38.228714 15138 layer_factory.hpp:77] Creating layer relu4
I0501 22:07:38.228720 15138 net.cpp:94] Creating Layer relu4
I0501 22:07:38.228724 15138 net.cpp:435] relu4 <- conv4
I0501 22:07:38.228732 15138 net.cpp:396] relu4 -> conv4 (in-place)
I0501 22:07:38.228740 15138 net.cpp:144] Setting up relu4
I0501 22:07:38.228745 15138 net.cpp:151] Top shape: 20 64 5 5 (32000)
I0501 22:07:38.228749 15138 net.cpp:159] Memory required for data: 2696240
I0501 22:07:38.228752 15138 layer_factory.hpp:77] Creating layer conv5
I0501 22:07:38.228760 15138 net.cpp:94] Creating Layer conv5
I0501 22:07:38.228763 15138 net.cpp:435] conv5 <- conv4
I0501 22:07:38.228768 15138 net.cpp:409] conv5 -> conv5
I0501 22:07:38.232230 15138 net.cpp:144] Setting up conv5
I0501 22:07:38.232244 15138 net.cpp:151] Top shape: 20 64 5 5 (32000)
I0501 22:07:38.232252 15138 net.cpp:159] Memory required for data: 2824240
I0501 22:07:38.232261 15138 layer_factory.hpp:77] Creating layer relu5
I0501 22:07:38.232267 15138 net.cpp:94] Creating Layer relu5
I0501 22:07:38.232271 15138 net.cpp:435] relu5 <- conv5
I0501 22:07:38.232276 15138 net.cpp:396] relu5 -> conv5 (in-place)
I0501 22:07:38.232283 15138 net.cpp:144] Setting up relu5
I0501 22:07:38.232288 15138 net.cpp:151] Top shape: 20 64 5 5 (32000)
I0501 22:07:38.232291 15138 net.cpp:159] Memory required for data: 2952240
I0501 22:07:38.232295 15138 layer_factory.hpp:77] Creating layer pool5
I0501 22:07:38.232300 15138 net.cpp:94] Creating Layer pool5
I0501 22:07:38.232303 15138 net.cpp:435] pool5 <- conv5
I0501 22:07:38.232308 15138 net.cpp:409] pool5 -> pool5
I0501 22:07:38.232332 15138 net.cpp:144] Setting up pool5
I0501 22:07:38.232339 15138 net.cpp:151] Top shape: 20 64 2 2 (5120)
I0501 22:07:38.232342 15138 net.cpp:159] Memory required for data: 2972720
I0501 22:07:38.232345 15138 layer_factory.hpp:77] Creating layer ip1
I0501 22:07:38.232352 15138 net.cpp:94] Creating Layer ip1
I0501 22:07:38.232355 15138 net.cpp:435] ip1 <- pool5
I0501 22:07:38.232360 15138 net.cpp:409] ip1 -> ip1
I0501 22:07:38.232846 15138 net.cpp:144] Setting up ip1
I0501 22:07:38.232856 15138 net.cpp:151] Top shape: 20 64 (1280)
I0501 22:07:38.232861 15138 net.cpp:159] Memory required for data: 2977840
I0501 22:07:38.232866 15138 layer_factory.hpp:77] Creating layer ip2
I0501 22:07:38.232872 15138 net.cpp:94] Creating Layer ip2
I0501 22:07:38.232875 15138 net.cpp:435] ip2 <- ip1
I0501 22:07:38.232882 15138 net.cpp:409] ip2 -> ip2
I0501 22:07:38.233052 15138 net.cpp:144] Setting up ip2
I0501 22:07:38.233058 15138 net.cpp:151] Top shape: 20 64 (1280)
I0501 22:07:38.233062 15138 net.cpp:159] Memory required for data: 2982960
I0501 22:07:38.233067 15138 layer_factory.hpp:77] Creating layer ip3
I0501 22:07:38.233074 15138 net.cpp:94] Creating Layer ip3
I0501 22:07:38.233078 15138 net.cpp:435] ip3 <- ip2
I0501 22:07:38.233083 15138 net.cpp:409] ip3 -> ip3
I0501 22:07:38.233229 15138 net.cpp:144] Setting up ip3
I0501 22:07:38.233237 15138 net.cpp:151] Top shape: 20 50 (1000)
I0501 22:07:38.233239 15138 net.cpp:159] Memory required for data: 2986960
I0501 22:07:38.233245 15138 layer_factory.hpp:77] Creating layer ip3_ip3_0_split
I0501 22:07:38.233250 15138 net.cpp:94] Creating Layer ip3_ip3_0_split
I0501 22:07:38.233254 15138 net.cpp:435] ip3_ip3_0_split <- ip3
I0501 22:07:38.233258 15138 net.cpp:409] ip3_ip3_0_split -> ip3_ip3_0_split_0
I0501 22:07:38.233264 15138 net.cpp:409] ip3_ip3_0_split -> ip3_ip3_0_split_1
I0501 22:07:38.233289 15138 net.cpp:144] Setting up ip3_ip3_0_split
I0501 22:07:38.233294 15138 net.cpp:151] Top shape: 20 50 (1000)
I0501 22:07:38.233299 15138 net.cpp:151] Top shape: 20 50 (1000)
I0501 22:07:38.233301 15138 net.cpp:159] Memory required for data: 2994960
I0501 22:07:38.233304 15138 layer_factory.hpp:77] Creating layer accuracy
I0501 22:07:38.233314 15138 net.cpp:94] Creating Layer accuracy
I0501 22:07:38.233319 15138 net.cpp:435] accuracy <- ip3_ip3_0_split_0
I0501 22:07:38.233324 15138 net.cpp:435] accuracy <- label_intercept_1_split_0
I0501 22:07:38.233327 15138 net.cpp:409] accuracy -> accuracy
…
