…
I0501 14:22:10.397547 13161 net.cpp:323] The NetState phase (0) differed from the phase (1) specified by a rule in layer intercept
I0501 14:22:10.397563 13161 net.cpp:323] The NetState phase (0) differed from the phase (1) specified by a rule in layer loss
I0501 14:22:10.397650 13161 net.cpp:52] Initializing net from parameters: 
state {
  phase: TRAIN
}
layer {
  name: "parameters"
  type: "HDF5Data"
  top: "data"
  top: "label"
  include {
    phase: TRAIN
  }
  hdf5_data_param {
    source: "/home/purduethu/scratch/radon/d/deng106/CNNStatisticalModel/distributions/input/50_distributions_100_sample_size_train-parameters-path.txt"
    batch_size: 20
  }
}
layer {
  name: "conv1"
  type: "Convolution"
  bottom: "data"
  top: "conv1"
  param {
    lr_mult: 1
  }
  param {
    lr_mult: 2
  }
  convolution_param {
    num_output: 64
    pad: 2
    kernel_size: 5
    stride: 1
    weight_filler {
      type: "gaussian"
      std: 0.0001
    }
    bias_filler {
      type: "constant"
    }
  }
}
layer {
  name: "relu1"
  type: "ReLU"
  bottom: "conv1"
  top: "conv1"
}
layer {
  name: "conv2"
  type: "Convolution"
  bottom: "conv1"
  top: "conv2"
  param {
    lr_mult: 1
  }
  param {
    lr_mult: 2
  }
  convolution_param {
    num_output: 64
    pad: 2
    kernel_size: 5
    stride: 1
    weight_filler {
      type: "gaussian"
      std: 0.01
    }
    bias_filler {
      type: "constant"
    }
  }
}
layer {
  name: "relu2"
  type: "ReLU"
  bottom: "conv2"
  top: "conv2"
}
layer {
  name: "pool2"
  type: "Pooling"
  bottom: "conv2"
  top: "pool2"
  pooling_param {
    pool: MAX
    kernel_size: 3
    stride: 2
  }
}
layer {
  name: "conv3"
  type: "Convolution"
  bottom: "pool2"
  top: "conv3"
  param {
    lr_mult: 1
  }
  param {
    lr_mult: 2
  }
  convolution_param {
    num_output: 64
    pad: 2
    kernel_size: 5
    stride: 1
    weight_filler {
      type: "gaussian"
      std: 0.01
    }
    bias_filler {
      type: "constant"
    }
  }
}
layer {
  name: "relu3"
  type: "ReLU"
  bottom: "conv3"
  top: "conv3"
}
layer {
  name: "conv4"
  type: "Convolution"
  bottom: "conv3"
  top: "conv4"
  param {
    lr_mult: 1
  }
  param {
    lr_mult: 2
  }
  convolution_param {
    num_output: 64
    pad: 2
    kernel_size: 5
    stride: 1
    weight_filler {
      type: "gaussian"
      std: 0.01
    }
    bias_filler {
      type: "constant"
    }
  }
}
layer {
  name: "relu4"
  type: "ReLU"
  bottom: "conv4"
  top: "conv4"
}
layer {
  name: "conv5"
  type: "Convolution"
  bottom: "conv4"
  top: "conv5"
  param {
    lr_mult: 1
  }
  param {
    lr_mult: 2
  }
  convolution_param {
    num_output: 64
    pad: 2
    kernel_size: 5
    stride: 1
    weight_filler {
      type: "gaussian"
      std: 0.01
    }
    bias_filler {
      type: "constant"
    }
  }
}
layer {
  name: "relu5"
  type: "ReLU"
  bottom: "conv5"
  top: "conv5"
}
layer {
  name: "pool5"
  type: "Pooling"
  bottom: "conv5"
  top: "pool5"
  pooling_param {
    pool: AVE
    kernel_size: 3
    stride: 2
  }
}
layer {
  name: "ip1"
  type: "InnerProduct"
  bottom: "pool5"
  top: "ip1"
  param {
    lr_mult: 1
  }
  param {
    lr_mult: 2
  }
  inner_product_param {
    num_output: 64
    weight_filler {
      type: "gaussian"
      std: 0.1
    }
    bias_filler {
      type: "constant"
    }
  }
}
layer {
  name: "ip2"
  type: "InnerProduct"
  bottom: "ip1"
  top: "ip2"
  param {
    lr_mult: 1
  }
  param {
    lr_mult: 2
  }
  inner_product_param {
    num_output: 64
    weight_filler {
      type: "gaussian"
      std: 0.1
    }
    bias_filler {
      type: "constant"
    }
  }
}
layer {
  name: "ip3"
  type: "InnerProduct"
  bottom: "ip2"
  top: "ip3"
  param {
    lr_mult: 1
  }
  param {
    lr_mult: 2
  }
  inner_product_param {
    num_output: 1
    weight_filler {
      type: "gaussian"
      std: 0.1
    }
    bias_filler {
      type: "constant"
    }
  }
}
layer {
  name: "loss"
  type: "HuberLoss"
  bottom: "ip3"
  bottom: "label"
  top: "loss"
  include {
    phase: TRAIN
  }
}
I0501 14:22:10.397703 13161 layer_factory.hpp:77] Creating layer parameters
I0501 14:22:10.397716 13161 net.cpp:94] Creating Layer parameters
I0501 14:22:10.397722 13161 net.cpp:409] parameters -> data
I0501 14:22:10.397730 13161 net.cpp:409] parameters -> label
I0501 14:22:10.397742 13161 hdf5_data_layer.cpp:79] Loading list of HDF5 filenames from: /home/purduethu/scratch/radon/d/deng106/CNNStatisticalModel/distributions/input/50_distributions_100_sample_size_train-parameters-path.txt
I0501 14:22:10.397756 13161 hdf5_data_layer.cpp:93] Number of HDF5 files: 1
I0501 14:22:10.398175 13161 hdf5.cpp:32] Datatype class: H5T_FLOAT
I0501 14:22:10.561012 13161 net.cpp:144] Setting up parameters
I0501 14:22:10.561040 13161 net.cpp:151] Top shape: 20 1 10 10 (2000)
I0501 14:22:10.561045 13161 net.cpp:151] Top shape: 20 (20)
I0501 14:22:10.561048 13161 net.cpp:159] Memory required for data: 8080
I0501 14:22:10.561054 13161 layer_factory.hpp:77] Creating layer conv1
I0501 14:22:10.561071 13161 net.cpp:94] Creating Layer conv1
I0501 14:22:10.561075 13161 net.cpp:435] conv1 <- data
I0501 14:22:10.561081 13161 net.cpp:409] conv1 -> conv1
I0501 14:22:10.565417 13161 net.cpp:144] Setting up conv1
I0501 14:22:10.565430 13161 net.cpp:151] Top shape: 20 64 10 10 (128000)
I0501 14:22:10.565434 13161 net.cpp:159] Memory required for data: 520080
I0501 14:22:10.565444 13161 layer_factory.hpp:77] Creating layer relu1
I0501 14:22:10.565451 13161 net.cpp:94] Creating Layer relu1
I0501 14:22:10.565455 13161 net.cpp:435] relu1 <- conv1
I0501 14:22:10.565459 13161 net.cpp:396] relu1 -> conv1 (in-place)
I0501 14:22:10.565471 13161 net.cpp:144] Setting up relu1
I0501 14:22:10.565475 13161 net.cpp:151] Top shape: 20 64 10 10 (128000)
I0501 14:22:10.565479 13161 net.cpp:159] Memory required for data: 1032080
I0501 14:22:10.565481 13161 layer_factory.hpp:77] Creating layer conv2
I0501 14:22:10.565490 13161 net.cpp:94] Creating Layer conv2
I0501 14:22:10.565493 13161 net.cpp:435] conv2 <- conv1
I0501 14:22:10.565497 13161 net.cpp:409] conv2 -> conv2
I0501 14:22:10.571594 13161 net.cpp:144] Setting up conv2
I0501 14:22:10.571609 13161 net.cpp:151] Top shape: 20 64 10 10 (128000)
I0501 14:22:10.571614 13161 net.cpp:159] Memory required for data: 1544080
I0501 14:22:10.571620 13161 layer_factory.hpp:77] Creating layer relu2
I0501 14:22:10.571627 13161 net.cpp:94] Creating Layer relu2
I0501 14:22:10.571630 13161 net.cpp:435] relu2 <- conv2
I0501 14:22:10.571635 13161 net.cpp:396] relu2 -> conv2 (in-place)
I0501 14:22:10.571641 13161 net.cpp:144] Setting up relu2
I0501 14:22:10.571646 13161 net.cpp:151] Top shape: 20 64 10 10 (128000)
I0501 14:22:10.571650 13161 net.cpp:159] Memory required for data: 2056080
I0501 14:22:10.571652 13161 layer_factory.hpp:77] Creating layer pool2
I0501 14:22:10.571665 13161 net.cpp:94] Creating Layer pool2
I0501 14:22:10.571667 13161 net.cpp:435] pool2 <- conv2
I0501 14:22:10.571672 13161 net.cpp:409] pool2 -> pool2
I0501 14:22:10.571727 13161 net.cpp:144] Setting up pool2
I0501 14:22:10.571735 13161 net.cpp:151] Top shape: 20 64 5 5 (32000)
I0501 14:22:10.571738 13161 net.cpp:159] Memory required for data: 2184080
I0501 14:22:10.571741 13161 layer_factory.hpp:77] Creating layer conv3
I0501 14:22:10.571750 13161 net.cpp:94] Creating Layer conv3
I0501 14:22:10.571753 13161 net.cpp:435] conv3 <- pool2
I0501 14:22:10.571758 13161 net.cpp:409] conv3 -> conv3
I0501 14:22:10.576639 13161 net.cpp:144] Setting up conv3
I0501 14:22:10.576653 13161 net.cpp:151] Top shape: 20 64 5 5 (32000)
I0501 14:22:10.576656 13161 net.cpp:159] Memory required for data: 2312080
I0501 14:22:10.576664 13161 layer_factory.hpp:77] Creating layer relu3
I0501 14:22:10.576670 13161 net.cpp:94] Creating Layer relu3
I0501 14:22:10.576673 13161 net.cpp:435] relu3 <- conv3
I0501 14:22:10.576678 13161 net.cpp:396] relu3 -> conv3 (in-place)
I0501 14:22:10.576684 13161 net.cpp:144] Setting up relu3
I0501 14:22:10.576689 13161 net.cpp:151] Top shape: 20 64 5 5 (32000)
I0501 14:22:10.576691 13161 net.cpp:159] Memory required for data: 2440080
I0501 14:22:10.576694 13161 layer_factory.hpp:77] Creating layer conv4
I0501 14:22:10.576704 13161 net.cpp:94] Creating Layer conv4
I0501 14:22:10.576707 13161 net.cpp:435] conv4 <- conv3
I0501 14:22:10.576712 13161 net.cpp:409] conv4 -> conv4
I0501 14:22:10.581118 13161 net.cpp:144] Setting up conv4
I0501 14:22:10.581131 13161 net.cpp:151] Top shape: 20 64 5 5 (32000)
I0501 14:22:10.581135 13161 net.cpp:159] Memory required for data: 2568080
I0501 14:22:10.581141 13161 layer_factory.hpp:77] Creating layer relu4
I0501 14:22:10.581146 13161 net.cpp:94] Creating Layer relu4
I0501 14:22:10.581151 13161 net.cpp:435] relu4 <- conv4
I0501 14:22:10.581154 13161 net.cpp:396] relu4 -> conv4 (in-place)
I0501 14:22:10.581161 13161 net.cpp:144] Setting up relu4
I0501 14:22:10.581166 13161 net.cpp:151] Top shape: 20 64 5 5 (32000)
I0501 14:22:10.581168 13161 net.cpp:159] Memory required for data: 2696080
I0501 14:22:10.581171 13161 layer_factory.hpp:77] Creating layer conv5
I0501 14:22:10.581179 13161 net.cpp:94] Creating Layer conv5
I0501 14:22:10.581182 13161 net.cpp:435] conv5 <- conv4
I0501 14:22:10.581187 13161 net.cpp:409] conv5 -> conv5
I0501 14:22:10.586048 13161 net.cpp:144] Setting up conv5
I0501 14:22:10.586061 13161 net.cpp:151] Top shape: 20 64 5 5 (32000)
I0501 14:22:10.586066 13161 net.cpp:159] Memory required for data: 2824080
I0501 14:22:10.586073 13161 layer_factory.hpp:77] Creating layer relu5
I0501 14:22:10.586079 13161 net.cpp:94] Creating Layer relu5
I0501 14:22:10.586083 13161 net.cpp:435] relu5 <- conv5
I0501 14:22:10.586087 13161 net.cpp:396] relu5 -> conv5 (in-place)
I0501 14:22:10.586094 13161 net.cpp:144] Setting up relu5
I0501 14:22:10.586098 13161 net.cpp:151] Top shape: 20 64 5 5 (32000)
I0501 14:22:10.586102 13161 net.cpp:159] Memory required for data: 2952080
I0501 14:22:10.586104 13161 layer_factory.hpp:77] Creating layer pool5
I0501 14:22:10.586109 13161 net.cpp:94] Creating Layer pool5
I0501 14:22:10.586112 13161 net.cpp:435] pool5 <- conv5
I0501 14:22:10.586117 13161 net.cpp:409] pool5 -> pool5
I0501 14:22:10.586155 13161 net.cpp:144] Setting up pool5
I0501 14:22:10.586163 13161 net.cpp:151] Top shape: 20 64 2 2 (5120)
I0501 14:22:10.586165 13161 net.cpp:159] Memory required for data: 2972560
I0501 14:22:10.586169 13161 layer_factory.hpp:77] Creating layer ip1
I0501 14:22:10.586175 13161 net.cpp:94] Creating Layer ip1
I0501 14:22:10.586179 13161 net.cpp:435] ip1 <- pool5
I0501 14:22:10.586184 13161 net.cpp:409] ip1 -> ip1
I0501 14:22:10.587544 13161 net.cpp:144] Setting up ip1
I0501 14:22:10.587558 13161 net.cpp:151] Top shape: 20 64 (1280)
I0501 14:22:10.587561 13161 net.cpp:159] Memory required for data: 2977680
I0501 14:22:10.587568 13161 layer_factory.hpp:77] Creating layer ip2
I0501 14:22:10.587574 13161 net.cpp:94] Creating Layer ip2
I0501 14:22:10.587581 13161 net.cpp:435] ip2 <- ip1
I0501 14:22:10.587587 13161 net.cpp:409] ip2 -> ip2
I0501 14:22:10.587805 13161 net.cpp:144] Setting up ip2
I0501 14:22:10.587811 13161 net.cpp:151] Top shape: 20 64 (1280)
I0501 14:22:10.587815 13161 net.cpp:159] Memory required for data: 2982800
I0501 14:22:10.587819 13161 layer_factory.hpp:77] Creating layer ip3
I0501 14:22:10.587826 13161 net.cpp:94] Creating Layer ip3
I0501 14:22:10.587829 13161 net.cpp:435] ip3 <- ip2
I0501 14:22:10.587833 13161 net.cpp:409] ip3 -> ip3
I0501 14:22:10.587942 13161 net.cpp:144] Setting up ip3
I0501 14:22:10.587949 13161 net.cpp:151] Top shape: 20 1 (20)
I0501 14:22:10.587952 13161 net.cpp:159] Memory required for data: 2982880
I0501 14:22:10.587957 13161 layer_factory.hpp:77] Creating layer loss
I0501 14:22:10.587967 13161 net.cpp:94] Creating Layer loss
I0501 14:22:10.587971 13161 net.cpp:435] loss <- ip3
I0501 14:22:10.587975 13161 net.cpp:435] loss <- label
I0501 14:22:10.587980 13161 net.cpp:409] loss -> loss
I0501 14:22:10.588032 13161 net.cpp:144] Setting up loss
…
I0501 14:22:10.649775 13161 net.cpp:323] The NetState phase (0) differed from the phase (1) specified by a rule in layer intercept
I0501 14:22:10.649792 13161 net.cpp:323] The NetState phase (0) differed from the phase (1) specified by a rule in layer accuracy
I0501 14:22:10.649883 13161 net.cpp:52] Initializing net from parameters: 
state {
  phase: TRAIN
}
layer {
  name: "parameters"
  type: "HDF5Data"
  top: "data"
  top: "label"
  include {
    phase: TRAIN
  }
  hdf5_data_param {
    source: "/home/purduethu/scratch/radon/d/deng106/CNNStatisticalModel/distributions/input/50_distributions_100_sample_size_train-distributions-path.txt"
    batch_size: 20
  }
}
layer {
  name: "conv1"
  type: "Convolution"
  bottom: "data"
  top: "conv1"
  param {
    lr_mult: 1
  }
  param {
    lr_mult: 2
  }
  convolution_param {
    num_output: 64
    pad: 2
    kernel_size: 5
    stride: 1
    weight_filler {
      type: "gaussian"
      std: 0.0001
    }
    bias_filler {
      type: "constant"
    }
  }
}
layer {
  name: "relu1"
  type: "ReLU"
  bottom: "conv1"
  top: "conv1"
}
layer {
  name: "conv2"
  type: "Convolution"
  bottom: "conv1"
  top: "conv2"
  param {
    lr_mult: 1
  }
  param {
    lr_mult: 2
  }
  convolution_param {
    num_output: 64
    pad: 2
    kernel_size: 5
    stride: 1
    weight_filler {
      type: "gaussian"
      std: 0.01
    }
    bias_filler {
      type: "constant"
    }
  }
}
layer {
  name: "relu2"
  type: "ReLU"
  bottom: "conv2"
  top: "conv2"
}
layer {
  name: "pool2"
  type: "Pooling"
  bottom: "conv2"
  top: "pool2"
  pooling_param {
    pool: MAX
    kernel_size: 3
    stride: 2
  }
}
layer {
  name: "conv3"
  type: "Convolution"
  bottom: "pool2"
  top: "conv3"
  param {
    lr_mult: 1
  }
  param {
    lr_mult: 2
  }
  convolution_param {
    num_output: 64
    pad: 2
    kernel_size: 5
    stride: 1
    weight_filler {
      type: "gaussian"
      std: 0.01
    }
    bias_filler {
      type: "constant"
    }
  }
}
layer {
  name: "relu3"
  type: "ReLU"
  bottom: "conv3"
  top: "conv3"
}
layer {
  name: "conv4"
  type: "Convolution"
  bottom: "conv3"
  top: "conv4"
  param {
    lr_mult: 1
  }
  param {
    lr_mult: 2
  }
  convolution_param {
    num_output: 64
    pad: 2
    kernel_size: 5
    stride: 1
    weight_filler {
      type: "gaussian"
      std: 0.01
    }
    bias_filler {
      type: "constant"
    }
  }
}
layer {
  name: "relu4"
  type: "ReLU"
  bottom: "conv4"
  top: "conv4"
}
layer {
  name: "conv5"
  type: "Convolution"
  bottom: "conv4"
  top: "conv5"
  param {
    lr_mult: 1
  }
  param {
    lr_mult: 2
  }
  convolution_param {
    num_output: 64
    pad: 2
    kernel_size: 5
    stride: 1
    weight_filler {
      type: "gaussian"
      std: 0.01
    }
    bias_filler {
      type: "constant"
    }
  }
}
layer {
  name: "relu5"
  type: "ReLU"
  bottom: "conv5"
  top: "conv5"
}
layer {
  name: "pool5"
  type: "Pooling"
  bottom: "conv5"
  top: "pool5"
  pooling_param {
    pool: AVE
    kernel_size: 3
    stride: 2
  }
}
layer {
  name: "ip1"
  type: "InnerProduct"
  bottom: "pool5"
  top: "ip1"
  param {
    lr_mult: 1
  }
  param {
    lr_mult: 2
  }
  inner_product_param {
    num_output: 64
    weight_filler {
      type: "gaussian"
      std: 0.1
    }
    bias_filler {
      type: "constant"
    }
  }
}
layer {
  name: "ip2"
  type: "InnerProduct"
  bottom: "ip1"
  top: "ip2"
  param {
    lr_mult: 1
  }
  param {
    lr_mult: 2
  }
  inner_product_param {
    num_output: 64
    weight_filler {
      type: "gaussian"
      std: 0.1
    }
    bias_filler {
      type: "constant"
    }
  }
}
layer {
  name: "ip3"
  type: "InnerProduct"
  bottom: "ip2"
  top: "ip3"
  param {
    lr_mult: 1
  }
  param {
    lr_mult: 2
  }
  inner_product_param {
    num_output: 50
    weight_filler {
      type: "gaussian"
      std: 0.1
    }
    bias_filler {
      type: "constant"
    }
  }
}
layer {
  name: "loss"
  type: "SoftmaxWithLoss"
  bottom: "ip3"
  bottom: "label"
  top: "loss"
}
I0501 14:22:10.649932 13161 layer_factory.hpp:77] Creating layer parameters
I0501 14:22:10.649941 13161 net.cpp:94] Creating Layer parameters
I0501 14:22:10.649945 13161 net.cpp:409] parameters -> data
I0501 14:22:10.649951 13161 net.cpp:409] parameters -> label
I0501 14:22:10.649956 13161 hdf5_data_layer.cpp:79] Loading list of HDF5 filenames from: /home/purduethu/scratch/radon/d/deng106/CNNStatisticalModel/distributions/input/50_distributions_100_sample_size_train-distributions-path.txt
I0501 14:22:10.649976 13161 hdf5_data_layer.cpp:93] Number of HDF5 files: 1
I0501 14:22:10.807268 13161 hdf5.cpp:35] Datatype class: H5T_INTEGER
I0501 14:22:10.810341 13161 net.cpp:144] Setting up parameters
I0501 14:22:10.810360 13161 net.cpp:151] Top shape: 20 1 10 10 (2000)
I0501 14:22:10.810365 13161 net.cpp:151] Top shape: 20 (20)
I0501 14:22:10.810369 13161 net.cpp:159] Memory required for data: 8080
I0501 14:22:10.810374 13161 layer_factory.hpp:77] Creating layer conv1
I0501 14:22:10.810390 13161 net.cpp:94] Creating Layer conv1
I0501 14:22:10.810395 13161 net.cpp:435] conv1 <- data
I0501 14:22:10.810400 13161 net.cpp:409] conv1 -> conv1
I0501 14:22:10.812180 13161 net.cpp:144] Setting up conv1
I0501 14:22:10.812193 13161 net.cpp:151] Top shape: 20 64 10 10 (128000)
I0501 14:22:10.812197 13161 net.cpp:159] Memory required for data: 520080
I0501 14:22:10.812206 13161 layer_factory.hpp:77] Creating layer relu1
I0501 14:22:10.812213 13161 net.cpp:94] Creating Layer relu1
I0501 14:22:10.812217 13161 net.cpp:435] relu1 <- conv1
I0501 14:22:10.812222 13161 net.cpp:396] relu1 -> conv1 (in-place)
I0501 14:22:10.812228 13161 net.cpp:144] Setting up relu1
I0501 14:22:10.812233 13161 net.cpp:151] Top shape: 20 64 10 10 (128000)
I0501 14:22:10.812237 13161 net.cpp:159] Memory required for data: 1032080
I0501 14:22:10.812239 13161 layer_factory.hpp:77] Creating layer conv2
I0501 14:22:10.812247 13161 net.cpp:94] Creating Layer conv2
I0501 14:22:10.812249 13161 net.cpp:435] conv2 <- conv1
I0501 14:22:10.812254 13161 net.cpp:409] conv2 -> conv2
I0501 14:22:10.817597 13161 net.cpp:144] Setting up conv2
I0501 14:22:10.817611 13161 net.cpp:151] Top shape: 20 64 10 10 (128000)
I0501 14:22:10.817615 13161 net.cpp:159] Memory required for data: 1544080
I0501 14:22:10.817622 13161 layer_factory.hpp:77] Creating layer relu2
I0501 14:22:10.817628 13161 net.cpp:94] Creating Layer relu2
I0501 14:22:10.817632 13161 net.cpp:435] relu2 <- conv2
I0501 14:22:10.817637 13161 net.cpp:396] relu2 -> conv2 (in-place)
I0501 14:22:10.817643 13161 net.cpp:144] Setting up relu2
I0501 14:22:10.817647 13161 net.cpp:151] Top shape: 20 64 10 10 (128000)
I0501 14:22:10.817651 13161 net.cpp:159] Memory required for data: 2056080
I0501 14:22:10.817653 13161 layer_factory.hpp:77] Creating layer pool2
I0501 14:22:10.817659 13161 net.cpp:94] Creating Layer pool2
I0501 14:22:10.817662 13161 net.cpp:435] pool2 <- conv2
I0501 14:22:10.817667 13161 net.cpp:409] pool2 -> pool2
I0501 14:22:10.817723 13161 net.cpp:144] Setting up pool2
I0501 14:22:10.817729 13161 net.cpp:151] Top shape: 20 64 5 5 (32000)
I0501 14:22:10.817734 13161 net.cpp:159] Memory required for data: 2184080
I0501 14:22:10.817736 13161 layer_factory.hpp:77] Creating layer conv3
I0501 14:22:10.817744 13161 net.cpp:94] Creating Layer conv3
I0501 14:22:10.817749 13161 net.cpp:435] conv3 <- pool2
I0501 14:22:10.817754 13161 net.cpp:409] conv3 -> conv3
I0501 14:22:10.823519 13161 net.cpp:144] Setting up conv3
I0501 14:22:10.823534 13161 net.cpp:151] Top shape: 20 64 5 5 (32000)
I0501 14:22:10.823537 13161 net.cpp:159] Memory required for data: 2312080
I0501 14:22:10.823545 13161 layer_factory.hpp:77] Creating layer relu3
I0501 14:22:10.823550 13161 net.cpp:94] Creating Layer relu3
I0501 14:22:10.823554 13161 net.cpp:435] relu3 <- conv3
I0501 14:22:10.823559 13161 net.cpp:396] relu3 -> conv3 (in-place)
I0501 14:22:10.823565 13161 net.cpp:144] Setting up relu3
I0501 14:22:10.823570 13161 net.cpp:151] Top shape: 20 64 5 5 (32000)
I0501 14:22:10.823572 13161 net.cpp:159] Memory required for data: 2440080
I0501 14:22:10.823575 13161 layer_factory.hpp:77] Creating layer conv4
I0501 14:22:10.823583 13161 net.cpp:94] Creating Layer conv4
I0501 14:22:10.823587 13161 net.cpp:435] conv4 <- conv3
I0501 14:22:10.823591 13161 net.cpp:409] conv4 -> conv4
I0501 14:22:10.828476 13161 net.cpp:144] Setting up conv4
I0501 14:22:10.828490 13161 net.cpp:151] Top shape: 20 64 5 5 (32000)
I0501 14:22:10.828493 13161 net.cpp:159] Memory required for data: 2568080
I0501 14:22:10.828500 13161 layer_factory.hpp:77] Creating layer relu4
I0501 14:22:10.828505 13161 net.cpp:94] Creating Layer relu4
I0501 14:22:10.828508 13161 net.cpp:435] relu4 <- conv4
I0501 14:22:10.828513 13161 net.cpp:396] relu4 -> conv4 (in-place)
I0501 14:22:10.828521 13161 net.cpp:144] Setting up relu4
I0501 14:22:10.828524 13161 net.cpp:151] Top shape: 20 64 5 5 (32000)
I0501 14:22:10.828527 13161 net.cpp:159] Memory required for data: 2696080
I0501 14:22:10.828531 13161 layer_factory.hpp:77] Creating layer conv5
I0501 14:22:10.828538 13161 net.cpp:94] Creating Layer conv5
I0501 14:22:10.828541 13161 net.cpp:435] conv5 <- conv4
I0501 14:22:10.828547 13161 net.cpp:409] conv5 -> conv5
I0501 14:22:10.832980 13161 net.cpp:144] Setting up conv5
I0501 14:22:10.832993 13161 net.cpp:151] Top shape: 20 64 5 5 (32000)
I0501 14:22:10.832998 13161 net.cpp:159] Memory required for data: 2824080
I0501 14:22:10.833005 13161 layer_factory.hpp:77] Creating layer relu5
I0501 14:22:10.833011 13161 net.cpp:94] Creating Layer relu5
I0501 14:22:10.833014 13161 net.cpp:435] relu5 <- conv5
I0501 14:22:10.833019 13161 net.cpp:396] relu5 -> conv5 (in-place)
I0501 14:22:10.833025 13161 net.cpp:144] Setting up relu5
I0501 14:22:10.833030 13161 net.cpp:151] Top shape: 20 64 5 5 (32000)
I0501 14:22:10.833034 13161 net.cpp:159] Memory required for data: 2952080
I0501 14:22:10.833036 13161 layer_factory.hpp:77] Creating layer pool5
I0501 14:22:10.833041 13161 net.cpp:94] Creating Layer pool5
I0501 14:22:10.833045 13161 net.cpp:435] pool5 <- conv5
I0501 14:22:10.833048 13161 net.cpp:409] pool5 -> pool5
I0501 14:22:10.833086 13161 net.cpp:144] Setting up pool5
I0501 14:22:10.833092 13161 net.cpp:151] Top shape: 20 64 2 2 (5120)
I0501 14:22:10.833096 13161 net.cpp:159] Memory required for data: 2972560
I0501 14:22:10.833098 13161 layer_factory.hpp:77] Creating layer ip1
I0501 14:22:10.833106 13161 net.cpp:94] Creating Layer ip1
I0501 14:22:10.833108 13161 net.cpp:435] ip1 <- pool5
I0501 14:22:10.833113 13161 net.cpp:409] ip1 -> ip1
I0501 14:22:10.833632 13161 net.cpp:144] Setting up ip1
I0501 14:22:10.833640 13161 net.cpp:151] Top shape: 20 64 (1280)
I0501 14:22:10.833644 13161 net.cpp:159] Memory required for data: 2977680
I0501 14:22:10.833649 13161 layer_factory.hpp:77] Creating layer ip2
I0501 14:22:10.833655 13161 net.cpp:94] Creating Layer ip2
I0501 14:22:10.833658 13161 net.cpp:435] ip2 <- ip1
I0501 14:22:10.833663 13161 net.cpp:409] ip2 -> ip2
I0501 14:22:10.833889 13161 net.cpp:144] Setting up ip2
I0501 14:22:10.833897 13161 net.cpp:151] Top shape: 20 64 (1280)
I0501 14:22:10.833900 13161 net.cpp:159] Memory required for data: 2982800
I0501 14:22:10.833905 13161 layer_factory.hpp:77] Creating layer ip3
I0501 14:22:10.833910 13161 net.cpp:94] Creating Layer ip3
I0501 14:22:10.833914 13161 net.cpp:435] ip3 <- ip2
I0501 14:22:10.833919 13161 net.cpp:409] ip3 -> ip3
I0501 14:22:10.834118 13161 net.cpp:144] Setting up ip3
I0501 14:22:10.834125 13161 net.cpp:151] Top shape: 20 50 (1000)
I0501 14:22:10.834133 13161 net.cpp:159] Memory required for data: 2986800
I0501 14:22:10.834138 13161 layer_factory.hpp:77] Creating layer loss
I0501 14:22:10.834144 13161 net.cpp:94] Creating Layer loss
I0501 14:22:10.834148 13161 net.cpp:435] loss <- ip3
I0501 14:22:10.834152 13161 net.cpp:435] loss <- label
I0501 14:22:10.834156 13161 net.cpp:409] loss -> loss
I0501 14:22:10.834163 13161 layer_factory.hpp:77] Creating layer loss
…
I0501 14:22:10.835574 13161 solver.cpp:181] Creating test net (#0) specified by net file: ./protocol/dis_50_100_dimension.protocol_distribution
I0501 14:22:10.835602 13161 net.cpp:323] The NetState phase (1) differed from the phase (0) specified by a rule in layer parameters
I0501 14:22:10.835703 13161 net.cpp:52] Initializing net from parameters: 
state {
  phase: TEST
}
layer {
  name: "intercept"
  type: "HDF5Data"
  top: "data"
  top: "label"
  include {
    phase: TEST
  }
  hdf5_data_param {
    source: "/home/purduethu/scratch/radon/d/deng106/CNNStatisticalModel/distributions/input/50_distributions_100_sample_size_test-distributions-path.txt"
    batch_size: 20
  }
}
layer {
  name: "conv1"
  type: "Convolution"
  bottom: "data"
  top: "conv1"
  param {
    lr_mult: 1
  }
  param {
    lr_mult: 2
  }
  convolution_param {
    num_output: 64
    pad: 2
    kernel_size: 5
    stride: 1
    weight_filler {
      type: "gaussian"
      std: 0.0001
    }
    bias_filler {
      type: "constant"
    }
  }
}
layer {
  name: "relu1"
  type: "ReLU"
  bottom: "conv1"
  top: "conv1"
}
layer {
  name: "conv2"
  type: "Convolution"
  bottom: "conv1"
  top: "conv2"
  param {
    lr_mult: 1
  }
  param {
    lr_mult: 2
  }
  convolution_param {
    num_output: 64
    pad: 2
    kernel_size: 5
    stride: 1
    weight_filler {
      type: "gaussian"
      std: 0.01
    }
    bias_filler {
      type: "constant"
    }
  }
}
layer {
  name: "relu2"
  type: "ReLU"
  bottom: "conv2"
  top: "conv2"
}
layer {
  name: "pool2"
  type: "Pooling"
  bottom: "conv2"
  top: "pool2"
  pooling_param {
    pool: MAX
    kernel_size: 3
    stride: 2
  }
}
layer {
  name: "conv3"
  type: "Convolution"
  bottom: "pool2"
  top: "conv3"
  param {
    lr_mult: 1
  }
  param {
    lr_mult: 2
  }
  convolution_param {
    num_output: 64
    pad: 2
    kernel_size: 5
    stride: 1
    weight_filler {
      type: "gaussian"
      std: 0.01
    }
    bias_filler {
      type: "constant"
    }
  }
}
layer {
  name: "relu3"
  type: "ReLU"
  bottom: "conv3"
  top: "conv3"
}
layer {
  name: "conv4"
  type: "Convolution"
  bottom: "conv3"
  top: "conv4"
  param {
    lr_mult: 1
  }
  param {
    lr_mult: 2
  }
  convolution_param {
    num_output: 64
    pad: 2
    kernel_size: 5
    stride: 1
    weight_filler {
      type: "gaussian"
      std: 0.01
    }
    bias_filler {
      type: "constant"
    }
  }
}
layer {
  name: "relu4"
  type: "ReLU"
  bottom: "conv4"
  top: "conv4"
}
layer {
  name: "conv5"
  type: "Convolution"
  bottom: "conv4"
  top: "conv5"
  param {
    lr_mult: 1
  }
  param {
    lr_mult: 2
  }
  convolution_param {
    num_output: 64
    pad: 2
    kernel_size: 5
    stride: 1
    weight_filler {
      type: "gaussian"
      std: 0.01
    }
    bias_filler {
      type: "constant"
    }
  }
}
layer {
  name: "relu5"
  type: "ReLU"
  bottom: "conv5"
  top: "conv5"
}
layer {
  name: "pool5"
  type: "Pooling"
  bottom: "conv5"
  top: "pool5"
  pooling_param {
    pool: AVE
    kernel_size: 3
    stride: 2
  }
}
layer {
  name: "ip1"
  type: "InnerProduct"
  bottom: "pool5"
  top: "ip1"
  param {
    lr_mult: 1
  }
  param {
    lr_mult: 2
  }
  inner_product_param {
    num_output: 64
    weight_filler {
      type: "gaussian"
      std: 0.1
    }
    bias_filler {
      type: "constant"
    }
  }
}
layer {
  name: "ip2"
  type: "InnerProduct"
  bottom: "ip1"
  top: "ip2"
  param {
    lr_mult: 1
  }
  param {
    lr_mult: 2
  }
  inner_product_param {
    num_output: 64
    weight_filler {
      type: "gaussian"
      std: 0.1
    }
    bias_filler {
      type: "constant"
    }
  }
}
layer {
  name: "ip3"
  type: "InnerProduct"
  bottom: "ip2"
  top: "ip3"
  param {
    lr_mult: 1
  }
  param {
    lr_mult: 2
  }
  inner_product_param {
    num_output: 50
    weight_filler {
      type: "gaussian"
      std: 0.1
    }
    bias_filler {
      type: "constant"
    }
  }
}
layer {
  name: "accuracy"
  type: "Accuracy"
  bottom: "ip3"
  bottom: "label"
  top: "accuracy"
  include {
    phase: TEST
  }
}
layer {
  name: "loss"
  type: "SoftmaxWithLoss"
  bottom: "ip3"
  bottom: "label"
  top: "loss"
}
I0501 14:22:10.835769 13161 layer_factory.hpp:77] Creating layer intercept
I0501 14:22:10.835778 13161 net.cpp:94] Creating Layer intercept
I0501 14:22:10.835783 13161 net.cpp:409] intercept -> data
I0501 14:22:10.835789 13161 net.cpp:409] intercept -> label
I0501 14:22:10.835795 13161 hdf5_data_layer.cpp:79] Loading list of HDF5 filenames from: /home/purduethu/scratch/radon/d/deng106/CNNStatisticalModel/distributions/input/50_distributions_100_sample_size_test-distributions-path.txt
I0501 14:22:10.835816 13161 hdf5_data_layer.cpp:93] Number of HDF5 files: 1
I0501 14:22:10.877410 13161 net.cpp:144] Setting up intercept
I0501 14:22:10.877445 13161 net.cpp:151] Top shape: 20 1 10 10 (2000)
I0501 14:22:10.877450 13161 net.cpp:151] Top shape: 20 (20)
I0501 14:22:10.877454 13161 net.cpp:159] Memory required for data: 8080
I0501 14:22:10.877460 13161 layer_factory.hpp:77] Creating layer label_intercept_1_split
I0501 14:22:10.877471 13161 net.cpp:94] Creating Layer label_intercept_1_split
I0501 14:22:10.877475 13161 net.cpp:435] label_intercept_1_split <- label
I0501 14:22:10.877481 13161 net.cpp:409] label_intercept_1_split -> label_intercept_1_split_0
I0501 14:22:10.877490 13161 net.cpp:409] label_intercept_1_split -> label_intercept_1_split_1
I0501 14:22:10.877542 13161 net.cpp:144] Setting up label_intercept_1_split
I0501 14:22:10.877549 13161 net.cpp:151] Top shape: 20 (20)
I0501 14:22:10.877553 13161 net.cpp:151] Top shape: 20 (20)
I0501 14:22:10.877557 13161 net.cpp:159] Memory required for data: 8240
I0501 14:22:10.877559 13161 layer_factory.hpp:77] Creating layer conv1
I0501 14:22:10.877571 13161 net.cpp:94] Creating Layer conv1
I0501 14:22:10.877574 13161 net.cpp:435] conv1 <- data
I0501 14:22:10.877579 13161 net.cpp:409] conv1 -> conv1
I0501 14:22:10.878374 13161 net.cpp:144] Setting up conv1
I0501 14:22:10.878387 13161 net.cpp:151] Top shape: 20 64 10 10 (128000)
I0501 14:22:10.878399 13161 net.cpp:159] Memory required for data: 520240
I0501 14:22:10.878409 13161 layer_factory.hpp:77] Creating layer relu1
I0501 14:22:10.878417 13161 net.cpp:94] Creating Layer relu1
I0501 14:22:10.878420 13161 net.cpp:435] relu1 <- conv1
I0501 14:22:10.878424 13161 net.cpp:396] relu1 -> conv1 (in-place)
I0501 14:22:10.878432 13161 net.cpp:144] Setting up relu1
I0501 14:22:10.878435 13161 net.cpp:151] Top shape: 20 64 10 10 (128000)
I0501 14:22:10.878438 13161 net.cpp:159] Memory required for data: 1032240
I0501 14:22:10.878442 13161 layer_factory.hpp:77] Creating layer conv2
I0501 14:22:10.878448 13161 net.cpp:94] Creating Layer conv2
I0501 14:22:10.878453 13161 net.cpp:435] conv2 <- conv1
I0501 14:22:10.878456 13161 net.cpp:409] conv2 -> conv2
I0501 14:22:10.882531 13161 net.cpp:144] Setting up conv2
I0501 14:22:10.882544 13161 net.cpp:151] Top shape: 20 64 10 10 (128000)
I0501 14:22:10.882549 13161 net.cpp:159] Memory required for data: 1544240
I0501 14:22:10.882556 13161 layer_factory.hpp:77] Creating layer relu2
I0501 14:22:10.882561 13161 net.cpp:94] Creating Layer relu2
I0501 14:22:10.882565 13161 net.cpp:435] relu2 <- conv2
I0501 14:22:10.882570 13161 net.cpp:396] relu2 -> conv2 (in-place)
I0501 14:22:10.882575 13161 net.cpp:144] Setting up relu2
I0501 14:22:10.882580 13161 net.cpp:151] Top shape: 20 64 10 10 (128000)
I0501 14:22:10.882583 13161 net.cpp:159] Memory required for data: 2056240
I0501 14:22:10.882586 13161 layer_factory.hpp:77] Creating layer pool2
I0501 14:22:10.882591 13161 net.cpp:94] Creating Layer pool2
I0501 14:22:10.882594 13161 net.cpp:435] pool2 <- conv2
I0501 14:22:10.882599 13161 net.cpp:409] pool2 -> pool2
I0501 14:22:10.882658 13161 net.cpp:144] Setting up pool2
I0501 14:22:10.882664 13161 net.cpp:151] Top shape: 20 64 5 5 (32000)
I0501 14:22:10.882668 13161 net.cpp:159] Memory required for data: 2184240
I0501 14:22:10.882670 13161 layer_factory.hpp:77] Creating layer conv3
I0501 14:22:10.882678 13161 net.cpp:94] Creating Layer conv3
I0501 14:22:10.882683 13161 net.cpp:435] conv3 <- pool2
I0501 14:22:10.882688 13161 net.cpp:409] conv3 -> conv3
I0501 14:22:10.887068 13161 net.cpp:144] Setting up conv3
I0501 14:22:10.887080 13161 net.cpp:151] Top shape: 20 64 5 5 (32000)
I0501 14:22:10.887084 13161 net.cpp:159] Memory required for data: 2312240
I0501 14:22:10.887092 13161 layer_factory.hpp:77] Creating layer relu3
I0501 14:22:10.887100 13161 net.cpp:94] Creating Layer relu3
I0501 14:22:10.887104 13161 net.cpp:435] relu3 <- conv3
I0501 14:22:10.887109 13161 net.cpp:396] relu3 -> conv3 (in-place)
I0501 14:22:10.887115 13161 net.cpp:144] Setting up relu3
I0501 14:22:10.887120 13161 net.cpp:151] Top shape: 20 64 5 5 (32000)
I0501 14:22:10.887121 13161 net.cpp:159] Memory required for data: 2440240
I0501 14:22:10.887125 13161 layer_factory.hpp:77] Creating layer conv4
I0501 14:22:10.887133 13161 net.cpp:94] Creating Layer conv4
I0501 14:22:10.887137 13161 net.cpp:435] conv4 <- conv3
I0501 14:22:10.887142 13161 net.cpp:409] conv4 -> conv4
I0501 14:22:10.890656 13161 net.cpp:144] Setting up conv4
I0501 14:22:10.890669 13161 net.cpp:151] Top shape: 20 64 5 5 (32000)
I0501 14:22:10.890672 13161 net.cpp:159] Memory required for data: 2568240
I0501 14:22:10.890678 13161 layer_factory.hpp:77] Creating layer relu4
I0501 14:22:10.890684 13161 net.cpp:94] Creating Layer relu4
I0501 14:22:10.890687 13161 net.cpp:435] relu4 <- conv4
I0501 14:22:10.890693 13161 net.cpp:396] relu4 -> conv4 (in-place)
I0501 14:22:10.890699 13161 net.cpp:144] Setting up relu4
I0501 14:22:10.890703 13161 net.cpp:151] Top shape: 20 64 5 5 (32000)
I0501 14:22:10.890707 13161 net.cpp:159] Memory required for data: 2696240
I0501 14:22:10.890709 13161 layer_factory.hpp:77] Creating layer conv5
I0501 14:22:10.890717 13161 net.cpp:94] Creating Layer conv5
I0501 14:22:10.890722 13161 net.cpp:435] conv5 <- conv4
I0501 14:22:10.890727 13161 net.cpp:409] conv5 -> conv5
I0501 14:22:10.894677 13161 net.cpp:144] Setting up conv5
I0501 14:22:10.894690 13161 net.cpp:151] Top shape: 20 64 5 5 (32000)
I0501 14:22:10.894693 13161 net.cpp:159] Memory required for data: 2824240
I0501 14:22:10.894706 13161 layer_factory.hpp:77] Creating layer relu5
I0501 14:22:10.894712 13161 net.cpp:94] Creating Layer relu5
I0501 14:22:10.894716 13161 net.cpp:435] relu5 <- conv5
I0501 14:22:10.894719 13161 net.cpp:396] relu5 -> conv5 (in-place)
I0501 14:22:10.894726 13161 net.cpp:144] Setting up relu5
I0501 14:22:10.894731 13161 net.cpp:151] Top shape: 20 64 5 5 (32000)
I0501 14:22:10.894733 13161 net.cpp:159] Memory required for data: 2952240
I0501 14:22:10.894737 13161 layer_factory.hpp:77] Creating layer pool5
I0501 14:22:10.894742 13161 net.cpp:94] Creating Layer pool5
I0501 14:22:10.894745 13161 net.cpp:435] pool5 <- conv5
I0501 14:22:10.894749 13161 net.cpp:409] pool5 -> pool5
I0501 14:22:10.894791 13161 net.cpp:144] Setting up pool5
I0501 14:22:10.894798 13161 net.cpp:151] Top shape: 20 64 2 2 (5120)
I0501 14:22:10.894800 13161 net.cpp:159] Memory required for data: 2972720
I0501 14:22:10.894804 13161 layer_factory.hpp:77] Creating layer ip1
I0501 14:22:10.894811 13161 net.cpp:94] Creating Layer ip1
I0501 14:22:10.894814 13161 net.cpp:435] ip1 <- pool5
I0501 14:22:10.894819 13161 net.cpp:409] ip1 -> ip1
I0501 14:22:10.895364 13161 net.cpp:144] Setting up ip1
I0501 14:22:10.895371 13161 net.cpp:151] Top shape: 20 64 (1280)
I0501 14:22:10.895375 13161 net.cpp:159] Memory required for data: 2977840
I0501 14:22:10.895380 13161 layer_factory.hpp:77] Creating layer ip2
I0501 14:22:10.895385 13161 net.cpp:94] Creating Layer ip2
I0501 14:22:10.895388 13161 net.cpp:435] ip2 <- ip1
I0501 14:22:10.895395 13161 net.cpp:409] ip2 -> ip2
I0501 14:22:10.895627 13161 net.cpp:144] Setting up ip2
I0501 14:22:10.895635 13161 net.cpp:151] Top shape: 20 64 (1280)
I0501 14:22:10.895638 13161 net.cpp:159] Memory required for data: 2982960
I0501 14:22:10.895643 13161 layer_factory.hpp:77] Creating layer ip3
I0501 14:22:10.895649 13161 net.cpp:94] Creating Layer ip3
I0501 14:22:10.895653 13161 net.cpp:435] ip3 <- ip2
I0501 14:22:10.895658 13161 net.cpp:409] ip3 -> ip3
I0501 14:22:10.895866 13161 net.cpp:144] Setting up ip3
I0501 14:22:10.895874 13161 net.cpp:151] Top shape: 20 50 (1000)
I0501 14:22:10.895876 13161 net.cpp:159] Memory required for data: 2986960
I0501 14:22:10.895881 13161 layer_factory.hpp:77] Creating layer ip3_ip3_0_split
I0501 14:22:10.895887 13161 net.cpp:94] Creating Layer ip3_ip3_0_split
I0501 14:22:10.895890 13161 net.cpp:435] ip3_ip3_0_split <- ip3
I0501 14:22:10.895895 13161 net.cpp:409] ip3_ip3_0_split -> ip3_ip3_0_split_0
I0501 14:22:10.895901 13161 net.cpp:409] ip3_ip3_0_split -> ip3_ip3_0_split_1
I0501 14:22:10.895943 13161 net.cpp:144] Setting up ip3_ip3_0_split
I0501 14:22:10.895949 13161 net.cpp:151] Top shape: 20 50 (1000)
I0501 14:22:10.895952 13161 net.cpp:151] Top shape: 20 50 (1000)
I0501 14:22:10.895956 13161 net.cpp:159] Memory required for data: 2994960
I0501 14:22:10.895958 13161 layer_factory.hpp:77] Creating layer accuracy
I0501 14:22:10.895965 13161 net.cpp:94] Creating Layer accuracy
I0501 14:22:10.895968 13161 net.cpp:435] accuracy <- ip3_ip3_0_split_0
I0501 14:22:10.895972 13161 net.cpp:435] accuracy <- label_intercept_1_split_0
I0501 14:22:10.895975 13161 net.cpp:409] accuracy -> accuracy
…
