…
I0501 13:48:37.285986 13065 net.cpp:323] The NetState phase (0) differed from the phase (1) specified by a rule in layer intercept
I0501 13:48:37.286029 13065 net.cpp:323] The NetState phase (0) differed from the phase (1) specified by a rule in layer loss
I0501 13:48:37.286258 13065 net.cpp:52] Initializing net from parameters: 
state {
  phase: TRAIN
}
layer {
  name: "parameters"
  type: "HDF5Data"
  top: "data"
  top: "label"
  include {
    phase: TRAIN
  }
  hdf5_data_param {
    source: "/home/purduethu/scratch/radon/d/deng106/CNNStatisticalModel/distributions/input/50_distributions_400_sample_size_train-parameters-path.txt"
    batch_size: 20
  }
}
layer {
  name: "conv1"
  type: "Convolution"
  bottom: "data"
  top: "conv1"
  param {
    lr_mult: 1
  }
  param {
    lr_mult: 2
  }
  convolution_param {
    num_output: 64
    pad: 2
    kernel_size: 5
    stride: 1
    weight_filler {
      type: "gaussian"
      std: 0.0001
    }
    bias_filler {
      type: "constant"
    }
  }
}
layer {
  name: "relu1"
  type: "ReLU"
  bottom: "conv1"
  top: "conv1"
}
layer {
  name: "conv2"
  type: "Convolution"
  bottom: "conv1"
  top: "conv2"
  param {
    lr_mult: 1
  }
  param {
    lr_mult: 2
  }
  convolution_param {
    num_output: 64
    pad: 2
    kernel_size: 5
    stride: 1
    weight_filler {
      type: "gaussian"
      std: 0.01
    }
    bias_filler {
      type: "constant"
    }
  }
}
layer {
  name: "relu2"
  type: "ReLU"
  bottom: "conv2"
  top: "conv2"
}
layer {
  name: "pool2"
  type: "Pooling"
  bottom: "conv2"
  top: "pool2"
  pooling_param {
    pool: MAX
    kernel_size: 3
    stride: 2
  }
}
layer {
  name: "conv3"
  type: "Convolution"
  bottom: "pool2"
  top: "conv3"
  param {
    lr_mult: 1
  }
  param {
    lr_mult: 2
  }
  convolution_param {
    num_output: 64
    pad: 2
    kernel_size: 5
    stride: 1
    weight_filler {
      type: "gaussian"
      std: 0.01
    }
    bias_filler {
      type: "constant"
    }
  }
}
layer {
  name: "relu3"
  type: "ReLU"
  bottom: "conv3"
  top: "conv3"
}
layer {
  name: "conv4"
  type: "Convolution"
  bottom: "conv3"
  top: "conv4"
  param {
    lr_mult: 1
  }
  param {
    lr_mult: 2
  }
  convolution_param {
    num_output: 64
    pad: 2
    kernel_size: 5
    stride: 1
    weight_filler {
      type: "gaussian"
      std: 0.01
    }
    bias_filler {
      type: "constant"
    }
  }
}
layer {
  name: "relu4"
  type: "ReLU"
  bottom: "conv4"
  top: "conv4"
}
layer {
  name: "conv5"
  type: "Convolution"
  bottom: "conv4"
  top: "conv5"
  param {
    lr_mult: 1
  }
  param {
    lr_mult: 2
  }
  convolution_param {
    num_output: 64
    pad: 2
    kernel_size: 5
    stride: 1
    weight_filler {
      type: "gaussian"
      std: 0.01
    }
    bias_filler {
      type: "constant"
    }
  }
}
layer {
  name: "relu5"
  type: "ReLU"
  bottom: "conv5"
  top: "conv5"
}
layer {
  name: "pool5"
  type: "Pooling"
  bottom: "conv5"
  top: "pool5"
  pooling_param {
    pool: AVE
    kernel_size: 3
    stride: 2
  }
}
layer {
  name: "ip1"
  type: "InnerProduct"
  bottom: "pool5"
  top: "ip1"
  param {
    lr_mult: 1
  }
  param {
    lr_mult: 2
  }
  inner_product_param {
    num_output: 64
    weight_filler {
      type: "gaussian"
      std: 0.1
    }
    bias_filler {
      type: "constant"
    }
  }
}
layer {
  name: "ip2"
  type: "InnerProduct"
  bottom: "ip1"
  top: "ip2"
  param {
    lr_mult: 1
  }
  param {
    lr_mult: 2
  }
  inner_product_param {
    num_output: 64
    weight_filler {
      type: "gaussian"
      std: 0.1
    }
    bias_filler {
      type: "constant"
    }
  }
}
layer {
  name: "ip3"
  type: "InnerProduct"
  bottom: "ip2"
  top: "ip3"
  param {
    lr_mult: 1
  }
  param {
    lr_mult: 2
  }
  inner_product_param {
    num_output: 1
    weight_filler {
      type: "gaussian"
      std: 0.1
    }
    bias_filler {
      type: "constant"
    }
  }
}
layer {
  name: "loss"
  type: "HuberLoss"
  bottom: "ip3"
  bottom: "label"
  top: "loss"
  include {
    phase: TRAIN
  }
}
I0501 13:48:37.286401 13065 layer_factory.hpp:77] Creating layer parameters
I0501 13:48:37.286429 13065 net.cpp:94] Creating Layer parameters
I0501 13:48:37.286442 13065 net.cpp:409] parameters -> data
I0501 13:48:37.286470 13065 net.cpp:409] parameters -> label
I0501 13:48:37.286489 13065 hdf5_data_layer.cpp:79] Loading list of HDF5 filenames from: /home/purduethu/scratch/radon/d/deng106/CNNStatisticalModel/distributions/input/50_distributions_400_sample_size_train-parameters-path.txt
I0501 13:48:37.286530 13065 hdf5_data_layer.cpp:93] Number of HDF5 files: 1
I0501 13:48:37.287884 13065 hdf5.cpp:32] Datatype class: H5T_FLOAT
I0501 13:48:37.974467 13065 net.cpp:144] Setting up parameters
I0501 13:48:37.974498 13065 net.cpp:151] Top shape: 20 1 20 20 (8000)
I0501 13:48:37.974504 13065 net.cpp:151] Top shape: 20 (20)
I0501 13:48:37.974508 13065 net.cpp:159] Memory required for data: 32080
I0501 13:48:37.974514 13065 layer_factory.hpp:77] Creating layer conv1
I0501 13:48:37.974530 13065 net.cpp:94] Creating Layer conv1
I0501 13:48:37.974534 13065 net.cpp:435] conv1 <- data
I0501 13:48:37.974540 13065 net.cpp:409] conv1 -> conv1
I0501 13:48:37.980159 13065 net.cpp:144] Setting up conv1
I0501 13:48:37.980180 13065 net.cpp:151] Top shape: 20 64 20 20 (512000)
I0501 13:48:37.980185 13065 net.cpp:159] Memory required for data: 2080080
I0501 13:48:37.980195 13065 layer_factory.hpp:77] Creating layer relu1
I0501 13:48:37.980203 13065 net.cpp:94] Creating Layer relu1
I0501 13:48:37.980207 13065 net.cpp:435] relu1 <- conv1
I0501 13:48:37.980211 13065 net.cpp:396] relu1 -> conv1 (in-place)
I0501 13:48:37.980221 13065 net.cpp:144] Setting up relu1
I0501 13:48:37.980224 13065 net.cpp:151] Top shape: 20 64 20 20 (512000)
I0501 13:48:37.980227 13065 net.cpp:159] Memory required for data: 4128080
I0501 13:48:37.980231 13065 layer_factory.hpp:77] Creating layer conv2
I0501 13:48:37.980239 13065 net.cpp:94] Creating Layer conv2
I0501 13:48:37.980242 13065 net.cpp:435] conv2 <- conv1
I0501 13:48:37.980247 13065 net.cpp:409] conv2 -> conv2
I0501 13:48:37.991941 13065 net.cpp:144] Setting up conv2
I0501 13:48:37.991957 13065 net.cpp:151] Top shape: 20 64 20 20 (512000)
I0501 13:48:37.991961 13065 net.cpp:159] Memory required for data: 6176080
I0501 13:48:37.991968 13065 layer_factory.hpp:77] Creating layer relu2
I0501 13:48:37.991976 13065 net.cpp:94] Creating Layer relu2
I0501 13:48:37.991979 13065 net.cpp:435] relu2 <- conv2
I0501 13:48:37.991983 13065 net.cpp:396] relu2 -> conv2 (in-place)
I0501 13:48:37.991991 13065 net.cpp:144] Setting up relu2
I0501 13:48:37.991994 13065 net.cpp:151] Top shape: 20 64 20 20 (512000)
I0501 13:48:37.991997 13065 net.cpp:159] Memory required for data: 8224080
I0501 13:48:37.992000 13065 layer_factory.hpp:77] Creating layer pool2
I0501 13:48:37.992013 13065 net.cpp:94] Creating Layer pool2
I0501 13:48:37.992017 13065 net.cpp:435] pool2 <- conv2
I0501 13:48:37.992022 13065 net.cpp:409] pool2 -> pool2
I0501 13:48:37.992081 13065 net.cpp:144] Setting up pool2
I0501 13:48:37.992089 13065 net.cpp:151] Top shape: 20 64 10 10 (128000)
I0501 13:48:37.992092 13065 net.cpp:159] Memory required for data: 8736080
I0501 13:48:37.992095 13065 layer_factory.hpp:77] Creating layer conv3
I0501 13:48:37.992103 13065 net.cpp:94] Creating Layer conv3
I0501 13:48:37.992106 13065 net.cpp:435] conv3 <- pool2
I0501 13:48:37.992111 13065 net.cpp:409] conv3 -> conv3
I0501 13:48:37.997604 13065 net.cpp:144] Setting up conv3
I0501 13:48:37.997618 13065 net.cpp:151] Top shape: 20 64 10 10 (128000)
I0501 13:48:37.997622 13065 net.cpp:159] Memory required for data: 9248080
I0501 13:48:37.997629 13065 layer_factory.hpp:77] Creating layer relu3
I0501 13:48:37.997635 13065 net.cpp:94] Creating Layer relu3
I0501 13:48:37.997639 13065 net.cpp:435] relu3 <- conv3
I0501 13:48:37.997643 13065 net.cpp:396] relu3 -> conv3 (in-place)
I0501 13:48:37.997650 13065 net.cpp:144] Setting up relu3
I0501 13:48:37.997654 13065 net.cpp:151] Top shape: 20 64 10 10 (128000)
I0501 13:48:37.997658 13065 net.cpp:159] Memory required for data: 9760080
I0501 13:48:37.997660 13065 layer_factory.hpp:77] Creating layer conv4
I0501 13:48:37.997669 13065 net.cpp:94] Creating Layer conv4
I0501 13:48:37.997673 13065 net.cpp:435] conv4 <- conv3
I0501 13:48:37.997678 13065 net.cpp:409] conv4 -> conv4
I0501 13:48:38.003144 13065 net.cpp:144] Setting up conv4
I0501 13:48:38.003159 13065 net.cpp:151] Top shape: 20 64 10 10 (128000)
I0501 13:48:38.003162 13065 net.cpp:159] Memory required for data: 10272080
I0501 13:48:38.003168 13065 layer_factory.hpp:77] Creating layer relu4
I0501 13:48:38.003173 13065 net.cpp:94] Creating Layer relu4
I0501 13:48:38.003177 13065 net.cpp:435] relu4 <- conv4
I0501 13:48:38.003181 13065 net.cpp:396] relu4 -> conv4 (in-place)
I0501 13:48:38.003188 13065 net.cpp:144] Setting up relu4
I0501 13:48:38.003192 13065 net.cpp:151] Top shape: 20 64 10 10 (128000)
I0501 13:48:38.003196 13065 net.cpp:159] Memory required for data: 10784080
I0501 13:48:38.003198 13065 layer_factory.hpp:77] Creating layer conv5
I0501 13:48:38.003206 13065 net.cpp:94] Creating Layer conv5
I0501 13:48:38.003209 13065 net.cpp:435] conv5 <- conv4
I0501 13:48:38.003214 13065 net.cpp:409] conv5 -> conv5
I0501 13:48:38.008664 13065 net.cpp:144] Setting up conv5
I0501 13:48:38.008678 13065 net.cpp:151] Top shape: 20 64 10 10 (128000)
I0501 13:48:38.008682 13065 net.cpp:159] Memory required for data: 11296080
I0501 13:48:38.008690 13065 layer_factory.hpp:77] Creating layer relu5
I0501 13:48:38.008697 13065 net.cpp:94] Creating Layer relu5
I0501 13:48:38.008699 13065 net.cpp:435] relu5 <- conv5
I0501 13:48:38.008704 13065 net.cpp:396] relu5 -> conv5 (in-place)
I0501 13:48:38.008710 13065 net.cpp:144] Setting up relu5
I0501 13:48:38.008715 13065 net.cpp:151] Top shape: 20 64 10 10 (128000)
I0501 13:48:38.008718 13065 net.cpp:159] Memory required for data: 11808080
I0501 13:48:38.008720 13065 layer_factory.hpp:77] Creating layer pool5
I0501 13:48:38.008725 13065 net.cpp:94] Creating Layer pool5
I0501 13:48:38.008728 13065 net.cpp:435] pool5 <- conv5
I0501 13:48:38.008733 13065 net.cpp:409] pool5 -> pool5
I0501 13:48:38.008774 13065 net.cpp:144] Setting up pool5
I0501 13:48:38.008781 13065 net.cpp:151] Top shape: 20 64 5 5 (32000)
I0501 13:48:38.008785 13065 net.cpp:159] Memory required for data: 11936080
I0501 13:48:38.008787 13065 layer_factory.hpp:77] Creating layer ip1
I0501 13:48:38.008797 13065 net.cpp:94] Creating Layer ip1
I0501 13:48:38.008800 13065 net.cpp:435] ip1 <- pool5
I0501 13:48:38.008805 13065 net.cpp:409] ip1 -> ip1
I0501 13:48:38.011415 13065 net.cpp:144] Setting up ip1
I0501 13:48:38.011422 13065 net.cpp:151] Top shape: 20 64 (1280)
I0501 13:48:38.011425 13065 net.cpp:159] Memory required for data: 11941200
I0501 13:48:38.011430 13065 layer_factory.hpp:77] Creating layer ip2
I0501 13:48:38.011436 13065 net.cpp:94] Creating Layer ip2
I0501 13:48:38.011443 13065 net.cpp:435] ip2 <- ip1
I0501 13:48:38.011448 13065 net.cpp:409] ip2 -> ip2
I0501 13:48:38.011672 13065 net.cpp:144] Setting up ip2
I0501 13:48:38.011680 13065 net.cpp:151] Top shape: 20 64 (1280)
I0501 13:48:38.011683 13065 net.cpp:159] Memory required for data: 11946320
I0501 13:48:38.011688 13065 layer_factory.hpp:77] Creating layer ip3
I0501 13:48:38.011694 13065 net.cpp:94] Creating Layer ip3
I0501 13:48:38.011698 13065 net.cpp:435] ip3 <- ip2
I0501 13:48:38.011703 13065 net.cpp:409] ip3 -> ip3
I0501 13:48:38.011813 13065 net.cpp:144] Setting up ip3
I0501 13:48:38.011821 13065 net.cpp:151] Top shape: 20 1 (20)
I0501 13:48:38.011823 13065 net.cpp:159] Memory required for data: 11946400
I0501 13:48:38.011827 13065 layer_factory.hpp:77] Creating layer loss
I0501 13:48:38.011838 13065 net.cpp:94] Creating Layer loss
I0501 13:48:38.011842 13065 net.cpp:435] loss <- ip3
I0501 13:48:38.011847 13065 net.cpp:435] loss <- label
I0501 13:48:38.011850 13065 net.cpp:409] loss -> loss
I0501 13:48:38.011904 13065 net.cpp:144] Setting up loss
…
I0501 13:48:38.200462 13065 net.cpp:323] The NetState phase (0) differed from the phase (1) specified by a rule in layer intercept
I0501 13:48:38.200480 13065 net.cpp:323] The NetState phase (0) differed from the phase (1) specified by a rule in layer accuracy
I0501 13:48:38.200577 13065 net.cpp:52] Initializing net from parameters: 
state {
  phase: TRAIN
}
layer {
  name: "parameters"
  type: "HDF5Data"
  top: "data"
  top: "label"
  include {
    phase: TRAIN
  }
  hdf5_data_param {
    source: "/home/purduethu/scratch/radon/d/deng106/CNNStatisticalModel/distributions/input/50_distributions_400_sample_size_train-distributions-path.txt"
    batch_size: 20
  }
}
layer {
  name: "conv1"
  type: "Convolution"
  bottom: "data"
  top: "conv1"
  param {
    lr_mult: 1
  }
  param {
    lr_mult: 2
  }
  convolution_param {
    num_output: 64
    pad: 2
    kernel_size: 5
    stride: 1
    weight_filler {
      type: "gaussian"
      std: 0.0001
    }
    bias_filler {
      type: "constant"
    }
  }
}
layer {
  name: "relu1"
  type: "ReLU"
  bottom: "conv1"
  top: "conv1"
}
layer {
  name: "conv2"
  type: "Convolution"
  bottom: "conv1"
  top: "conv2"
  param {
    lr_mult: 1
  }
  param {
    lr_mult: 2
  }
  convolution_param {
    num_output: 64
    pad: 2
    kernel_size: 5
    stride: 1
    weight_filler {
      type: "gaussian"
      std: 0.01
    }
    bias_filler {
      type: "constant"
    }
  }
}
layer {
  name: "relu2"
  type: "ReLU"
  bottom: "conv2"
  top: "conv2"
}
layer {
  name: "pool2"
  type: "Pooling"
  bottom: "conv2"
  top: "pool2"
  pooling_param {
    pool: MAX
    kernel_size: 3
    stride: 2
  }
}
layer {
  name: "conv3"
  type: "Convolution"
  bottom: "pool2"
  top: "conv3"
  param {
    lr_mult: 1
  }
  param {
    lr_mult: 2
  }
  convolution_param {
    num_output: 64
    pad: 2
    kernel_size: 5
    stride: 1
    weight_filler {
      type: "gaussian"
      std: 0.01
    }
    bias_filler {
      type: "constant"
    }
  }
}
layer {
  name: "relu3"
  type: "ReLU"
  bottom: "conv3"
  top: "conv3"
}
layer {
  name: "conv4"
  type: "Convolution"
  bottom: "conv3"
  top: "conv4"
  param {
    lr_mult: 1
  }
  param {
    lr_mult: 2
  }
  convolution_param {
    num_output: 64
    pad: 2
    kernel_size: 5
    stride: 1
    weight_filler {
      type: "gaussian"
      std: 0.01
    }
    bias_filler {
      type: "constant"
    }
  }
}
layer {
  name: "relu4"
  type: "ReLU"
  bottom: "conv4"
  top: "conv4"
}
layer {
  name: "conv5"
  type: "Convolution"
  bottom: "conv4"
  top: "conv5"
  param {
    lr_mult: 1
  }
  param {
    lr_mult: 2
  }
  convolution_param {
    num_output: 64
    pad: 2
    kernel_size: 5
    stride: 1
    weight_filler {
      type: "gaussian"
      std: 0.01
    }
    bias_filler {
      type: "constant"
    }
  }
}
layer {
  name: "relu5"
  type: "ReLU"
  bottom: "conv5"
  top: "conv5"
}
layer {
  name: "pool5"
  type: "Pooling"
  bottom: "conv5"
  top: "pool5"
  pooling_param {
    pool: AVE
    kernel_size: 3
    stride: 2
  }
}
layer {
  name: "ip1"
  type: "InnerProduct"
  bottom: "pool5"
  top: "ip1"
  param {
    lr_mult: 1
  }
  param {
    lr_mult: 2
  }
  inner_product_param {
    num_output: 64
    weight_filler {
      type: "gaussian"
      std: 0.1
    }
    bias_filler {
      type: "constant"
    }
  }
}
layer {
  name: "ip2"
  type: "InnerProduct"
  bottom: "ip1"
  top: "ip2"
  param {
    lr_mult: 1
  }
  param {
    lr_mult: 2
  }
  inner_product_param {
    num_output: 64
    weight_filler {
      type: "gaussian"
      std: 0.1
    }
    bias_filler {
      type: "constant"
    }
  }
}
layer {
  name: "ip3"
  type: "InnerProduct"
  bottom: "ip2"
  top: "ip3"
  param {
    lr_mult: 1
  }
  param {
    lr_mult: 2
  }
  inner_product_param {
    num_output: 50
    weight_filler {
      type: "gaussian"
      std: 0.1
    }
    bias_filler {
      type: "constant"
    }
  }
}
layer {
  name: "loss"
  type: "SoftmaxWithLoss"
  bottom: "ip3"
  bottom: "label"
  top: "loss"
}
I0501 13:48:38.200634 13065 layer_factory.hpp:77] Creating layer parameters
I0501 13:48:38.200644 13065 net.cpp:94] Creating Layer parameters
I0501 13:48:38.200647 13065 net.cpp:409] parameters -> data
I0501 13:48:38.200654 13065 net.cpp:409] parameters -> label
I0501 13:48:38.200659 13065 hdf5_data_layer.cpp:79] Loading list of HDF5 filenames from: /home/purduethu/scratch/radon/d/deng106/CNNStatisticalModel/distributions/input/50_distributions_400_sample_size_train-distributions-path.txt
I0501 13:48:38.200680 13065 hdf5_data_layer.cpp:93] Number of HDF5 files: 1
I0501 13:48:38.841398 13065 hdf5.cpp:35] Datatype class: H5T_INTEGER
I0501 13:48:38.844525 13065 net.cpp:144] Setting up parameters
I0501 13:48:38.844545 13065 net.cpp:151] Top shape: 20 1 20 20 (8000)
I0501 13:48:38.844559 13065 net.cpp:151] Top shape: 20 (20)
I0501 13:48:38.844575 13065 net.cpp:159] Memory required for data: 32080
I0501 13:48:38.844583 13065 layer_factory.hpp:77] Creating layer conv1
I0501 13:48:38.844599 13065 net.cpp:94] Creating Layer conv1
I0501 13:48:38.844602 13065 net.cpp:435] conv1 <- data
I0501 13:48:38.844609 13065 net.cpp:409] conv1 -> conv1
I0501 13:48:38.847313 13065 net.cpp:144] Setting up conv1
I0501 13:48:38.847328 13065 net.cpp:151] Top shape: 20 64 20 20 (512000)
I0501 13:48:38.847332 13065 net.cpp:159] Memory required for data: 2080080
I0501 13:48:38.847342 13065 layer_factory.hpp:77] Creating layer relu1
I0501 13:48:38.847349 13065 net.cpp:94] Creating Layer relu1
I0501 13:48:38.847352 13065 net.cpp:435] relu1 <- conv1
I0501 13:48:38.847357 13065 net.cpp:396] relu1 -> conv1 (in-place)
I0501 13:48:38.847364 13065 net.cpp:144] Setting up relu1
I0501 13:48:38.847368 13065 net.cpp:151] Top shape: 20 64 20 20 (512000)
I0501 13:48:38.847371 13065 net.cpp:159] Memory required for data: 4128080
I0501 13:48:38.847374 13065 layer_factory.hpp:77] Creating layer conv2
I0501 13:48:38.847381 13065 net.cpp:94] Creating Layer conv2
I0501 13:48:38.847384 13065 net.cpp:435] conv2 <- conv1
I0501 13:48:38.847389 13065 net.cpp:409] conv2 -> conv2
I0501 13:48:38.858023 13065 net.cpp:144] Setting up conv2
I0501 13:48:38.858039 13065 net.cpp:151] Top shape: 20 64 20 20 (512000)
I0501 13:48:38.858042 13065 net.cpp:159] Memory required for data: 6176080
I0501 13:48:38.858050 13065 layer_factory.hpp:77] Creating layer relu2
I0501 13:48:38.858057 13065 net.cpp:94] Creating Layer relu2
I0501 13:48:38.858060 13065 net.cpp:435] relu2 <- conv2
I0501 13:48:38.858065 13065 net.cpp:396] relu2 -> conv2 (in-place)
I0501 13:48:38.858072 13065 net.cpp:144] Setting up relu2
I0501 13:48:38.858075 13065 net.cpp:151] Top shape: 20 64 20 20 (512000)
I0501 13:48:38.858078 13065 net.cpp:159] Memory required for data: 8224080
I0501 13:48:38.858081 13065 layer_factory.hpp:77] Creating layer pool2
I0501 13:48:38.858086 13065 net.cpp:94] Creating Layer pool2
I0501 13:48:38.858089 13065 net.cpp:435] pool2 <- conv2
I0501 13:48:38.858093 13065 net.cpp:409] pool2 -> pool2
I0501 13:48:38.858150 13065 net.cpp:144] Setting up pool2
I0501 13:48:38.858158 13065 net.cpp:151] Top shape: 20 64 10 10 (128000)
I0501 13:48:38.858160 13065 net.cpp:159] Memory required for data: 8736080
I0501 13:48:38.858165 13065 layer_factory.hpp:77] Creating layer conv3
I0501 13:48:38.858171 13065 net.cpp:94] Creating Layer conv3
I0501 13:48:38.858175 13065 net.cpp:435] conv3 <- pool2
I0501 13:48:38.858186 13065 net.cpp:409] conv3 -> conv3
I0501 13:48:38.863615 13065 net.cpp:144] Setting up conv3
I0501 13:48:38.863629 13065 net.cpp:151] Top shape: 20 64 10 10 (128000)
I0501 13:48:38.863632 13065 net.cpp:159] Memory required for data: 9248080
I0501 13:48:38.863641 13065 layer_factory.hpp:77] Creating layer relu3
I0501 13:48:38.863646 13065 net.cpp:94] Creating Layer relu3
I0501 13:48:38.863649 13065 net.cpp:435] relu3 <- conv3
I0501 13:48:38.863653 13065 net.cpp:396] relu3 -> conv3 (in-place)
I0501 13:48:38.863661 13065 net.cpp:144] Setting up relu3
I0501 13:48:38.863664 13065 net.cpp:151] Top shape: 20 64 10 10 (128000)
I0501 13:48:38.863667 13065 net.cpp:159] Memory required for data: 9760080
I0501 13:48:38.863669 13065 layer_factory.hpp:77] Creating layer conv4
I0501 13:48:38.863678 13065 net.cpp:94] Creating Layer conv4
I0501 13:48:38.863682 13065 net.cpp:435] conv4 <- conv3
I0501 13:48:38.863687 13065 net.cpp:409] conv4 -> conv4
I0501 13:48:38.869103 13065 net.cpp:144] Setting up conv4
I0501 13:48:38.869117 13065 net.cpp:151] Top shape: 20 64 10 10 (128000)
I0501 13:48:38.869120 13065 net.cpp:159] Memory required for data: 10272080
I0501 13:48:38.869127 13065 layer_factory.hpp:77] Creating layer relu4
I0501 13:48:38.869132 13065 net.cpp:94] Creating Layer relu4
I0501 13:48:38.869135 13065 net.cpp:435] relu4 <- conv4
I0501 13:48:38.869139 13065 net.cpp:396] relu4 -> conv4 (in-place)
I0501 13:48:38.869146 13065 net.cpp:144] Setting up relu4
I0501 13:48:38.869150 13065 net.cpp:151] Top shape: 20 64 10 10 (128000)
I0501 13:48:38.869153 13065 net.cpp:159] Memory required for data: 10784080
I0501 13:48:38.869155 13065 layer_factory.hpp:77] Creating layer conv5
I0501 13:48:38.869163 13065 net.cpp:94] Creating Layer conv5
I0501 13:48:38.869166 13065 net.cpp:435] conv5 <- conv4
I0501 13:48:38.869170 13065 net.cpp:409] conv5 -> conv5
I0501 13:48:38.874565 13065 net.cpp:144] Setting up conv5
I0501 13:48:38.874579 13065 net.cpp:151] Top shape: 20 64 10 10 (128000)
I0501 13:48:38.874583 13065 net.cpp:159] Memory required for data: 11296080
I0501 13:48:38.874590 13065 layer_factory.hpp:77] Creating layer relu5
I0501 13:48:38.874596 13065 net.cpp:94] Creating Layer relu5
I0501 13:48:38.874600 13065 net.cpp:435] relu5 <- conv5
I0501 13:48:38.874604 13065 net.cpp:396] relu5 -> conv5 (in-place)
I0501 13:48:38.874610 13065 net.cpp:144] Setting up relu5
I0501 13:48:38.874615 13065 net.cpp:151] Top shape: 20 64 10 10 (128000)
I0501 13:48:38.874617 13065 net.cpp:159] Memory required for data: 11808080
I0501 13:48:38.874620 13065 layer_factory.hpp:77] Creating layer pool5
I0501 13:48:38.874625 13065 net.cpp:94] Creating Layer pool5
I0501 13:48:38.874629 13065 net.cpp:435] pool5 <- conv5
I0501 13:48:38.874632 13065 net.cpp:409] pool5 -> pool5
I0501 13:48:38.874670 13065 net.cpp:144] Setting up pool5
I0501 13:48:38.874677 13065 net.cpp:151] Top shape: 20 64 5 5 (32000)
I0501 13:48:38.874680 13065 net.cpp:159] Memory required for data: 11936080
I0501 13:48:38.874683 13065 layer_factory.hpp:77] Creating layer ip1
I0501 13:48:38.874691 13065 net.cpp:94] Creating Layer ip1
I0501 13:48:38.874693 13065 net.cpp:435] ip1 <- pool5
I0501 13:48:38.874698 13065 net.cpp:409] ip1 -> ip1
I0501 13:48:38.878103 13065 net.cpp:144] Setting up ip1
I0501 13:48:38.878118 13065 net.cpp:151] Top shape: 20 64 (1280)
I0501 13:48:38.878121 13065 net.cpp:159] Memory required for data: 11941200
I0501 13:48:38.878127 13065 layer_factory.hpp:77] Creating layer ip2
I0501 13:48:38.878134 13065 net.cpp:94] Creating Layer ip2
I0501 13:48:38.878137 13065 net.cpp:435] ip2 <- ip1
I0501 13:48:38.878142 13065 net.cpp:409] ip2 -> ip2
I0501 13:48:38.878372 13065 net.cpp:144] Setting up ip2
I0501 13:48:38.878379 13065 net.cpp:151] Top shape: 20 64 (1280)
I0501 13:48:38.878383 13065 net.cpp:159] Memory required for data: 11946320
I0501 13:48:38.878388 13065 layer_factory.hpp:77] Creating layer ip3
I0501 13:48:38.878393 13065 net.cpp:94] Creating Layer ip3
I0501 13:48:38.878397 13065 net.cpp:435] ip3 <- ip2
I0501 13:48:38.878401 13065 net.cpp:409] ip3 -> ip3
I0501 13:48:38.878608 13065 net.cpp:144] Setting up ip3
I0501 13:48:38.878617 13065 net.cpp:151] Top shape: 20 50 (1000)
I0501 13:48:38.878619 13065 net.cpp:159] Memory required for data: 11950320
I0501 13:48:38.878624 13065 layer_factory.hpp:77] Creating layer loss
I0501 13:48:38.878630 13065 net.cpp:94] Creating Layer loss
I0501 13:48:38.878633 13065 net.cpp:435] loss <- ip3
I0501 13:48:38.878638 13065 net.cpp:435] loss <- label
I0501 13:48:38.878641 13065 net.cpp:409] loss -> loss
I0501 13:48:38.878648 13065 layer_factory.hpp:77] Creating layer loss
…
I0501 13:48:38.879168 13065 solver.cpp:181] Creating test net (#0) specified by net file: ./protocol/dis_50_400_dimension.protocol_distribution
I0501 13:48:38.879194 13065 net.cpp:323] The NetState phase (1) differed from the phase (0) specified by a rule in layer parameters
I0501 13:48:38.879289 13065 net.cpp:52] Initializing net from parameters: 
state {
  phase: TEST
}
layer {
  name: "intercept"
  type: "HDF5Data"
  top: "data"
  top: "label"
  include {
    phase: TEST
  }
  hdf5_data_param {
    source: "/home/purduethu/scratch/radon/d/deng106/CNNStatisticalModel/distributions/input/50_distributions_400_sample_size_test-distributions-path.txt"
    batch_size: 20
  }
}
layer {
  name: "conv1"
  type: "Convolution"
  bottom: "data"
  top: "conv1"
  param {
    lr_mult: 1
  }
  param {
    lr_mult: 2
  }
  convolution_param {
    num_output: 64
    pad: 2
    kernel_size: 5
    stride: 1
    weight_filler {
      type: "gaussian"
      std: 0.0001
    }
    bias_filler {
      type: "constant"
    }
  }
}
layer {
  name: "relu1"
  type: "ReLU"
  bottom: "conv1"
  top: "conv1"
}
layer {
  name: "conv2"
  type: "Convolution"
  bottom: "conv1"
  top: "conv2"
  param {
    lr_mult: 1
  }
  param {
    lr_mult: 2
  }
  convolution_param {
    num_output: 64
    pad: 2
    kernel_size: 5
    stride: 1
    weight_filler {
      type: "gaussian"
      std: 0.01
    }
    bias_filler {
      type: "constant"
    }
  }
}
layer {
  name: "relu2"
  type: "ReLU"
  bottom: "conv2"
  top: "conv2"
}
layer {
  name: "pool2"
  type: "Pooling"
  bottom: "conv2"
  top: "pool2"
  pooling_param {
    pool: MAX
    kernel_size: 3
    stride: 2
  }
}
layer {
  name: "conv3"
  type: "Convolution"
  bottom: "pool2"
  top: "conv3"
  param {
    lr_mult: 1
  }
  param {
    lr_mult: 2
  }
  convolution_param {
    num_output: 64
    pad: 2
    kernel_size: 5
    stride: 1
    weight_filler {
      type: "gaussian"
      std: 0.01
    }
    bias_filler {
      type: "constant"
    }
  }
}
layer {
  name: "relu3"
  type: "ReLU"
  bottom: "conv3"
  top: "conv3"
}
layer {
  name: "conv4"
  type: "Convolution"
  bottom: "conv3"
  top: "conv4"
  param {
    lr_mult: 1
  }
  param {
    lr_mult: 2
  }
  convolution_param {
    num_output: 64
    pad: 2
    kernel_size: 5
    stride: 1
    weight_filler {
      type: "gaussian"
      std: 0.01
    }
    bias_filler {
      type: "constant"
    }
  }
}
layer {
  name: "relu4"
  type: "ReLU"
  bottom: "conv4"
  top: "conv4"
}
layer {
  name: "conv5"
  type: "Convolution"
  bottom: "conv4"
  top: "conv5"
  param {
    lr_mult: 1
  }
  param {
    lr_mult: 2
  }
  convolution_param {
    num_output: 64
    pad: 2
    kernel_size: 5
    stride: 1
    weight_filler {
      type: "gaussian"
      std: 0.01
    }
    bias_filler {
      type: "constant"
    }
  }
}
layer {
  name: "relu5"
  type: "ReLU"
  bottom: "conv5"
  top: "conv5"
}
layer {
  name: "pool5"
  type: "Pooling"
  bottom: "conv5"
  top: "pool5"
  pooling_param {
    pool: AVE
    kernel_size: 3
    stride: 2
  }
}
layer {
  name: "ip1"
  type: "InnerProduct"
  bottom: "pool5"
  top: "ip1"
  param {
    lr_mult: 1
  }
  param {
    lr_mult: 2
  }
  inner_product_param {
    num_output: 64
    weight_filler {
      type: "gaussian"
      std: 0.1
    }
    bias_filler {
      type: "constant"
    }
  }
}
layer {
  name: "ip2"
  type: "InnerProduct"
  bottom: "ip1"
  top: "ip2"
  param {
    lr_mult: 1
  }
  param {
    lr_mult: 2
  }
  inner_product_param {
    num_output: 64
    weight_filler {
      type: "gaussian"
      std: 0.1
    }
    bias_filler {
      type: "constant"
    }
  }
}
layer {
  name: "ip3"
  type: "InnerProduct"
  bottom: "ip2"
  top: "ip3"
  param {
    lr_mult: 1
  }
  param {
    lr_mult: 2
  }
  inner_product_param {
    num_output: 50
    weight_filler {
      type: "gaussian"
      std: 0.1
    }
    bias_filler {
      type: "constant"
    }
  }
}
layer {
  name: "accuracy"
  type: "Accuracy"
  bottom: "ip3"
  bottom: "label"
  top: "accuracy"
  include {
    phase: TEST
  }
}
layer {
  name: "loss"
  type: "SoftmaxWithLoss"
  bottom: "ip3"
  bottom: "label"
  top: "loss"
}
I0501 13:48:38.879354 13065 layer_factory.hpp:77] Creating layer intercept
I0501 13:48:38.879361 13065 net.cpp:94] Creating Layer intercept
I0501 13:48:38.879365 13065 net.cpp:409] intercept -> data
I0501 13:48:38.879371 13065 net.cpp:409] intercept -> label
I0501 13:48:38.879377 13065 hdf5_data_layer.cpp:79] Loading list of HDF5 filenames from: /home/purduethu/scratch/radon/d/deng106/CNNStatisticalModel/distributions/input/50_distributions_400_sample_size_test-distributions-path.txt
I0501 13:48:38.879398 13065 hdf5_data_layer.cpp:93] Number of HDF5 files: 1
I0501 13:48:39.046528 13065 net.cpp:144] Setting up intercept
I0501 13:48:39.046562 13065 net.cpp:151] Top shape: 20 1 20 20 (8000)
I0501 13:48:39.046567 13065 net.cpp:151] Top shape: 20 (20)
I0501 13:48:39.046571 13065 net.cpp:159] Memory required for data: 32080
I0501 13:48:39.046576 13065 layer_factory.hpp:77] Creating layer label_intercept_1_split
I0501 13:48:39.046594 13065 net.cpp:94] Creating Layer label_intercept_1_split
I0501 13:48:39.046599 13065 net.cpp:435] label_intercept_1_split <- label
I0501 13:48:39.046605 13065 net.cpp:409] label_intercept_1_split -> label_intercept_1_split_0
I0501 13:48:39.046614 13065 net.cpp:409] label_intercept_1_split -> label_intercept_1_split_1
I0501 13:48:39.046658 13065 net.cpp:144] Setting up label_intercept_1_split
I0501 13:48:39.046664 13065 net.cpp:151] Top shape: 20 (20)
I0501 13:48:39.046669 13065 net.cpp:151] Top shape: 20 (20)
I0501 13:48:39.046670 13065 net.cpp:159] Memory required for data: 32240
I0501 13:48:39.046674 13065 layer_factory.hpp:77] Creating layer conv1
I0501 13:48:39.046684 13065 net.cpp:94] Creating Layer conv1
I0501 13:48:39.046687 13065 net.cpp:435] conv1 <- data
I0501 13:48:39.046691 13065 net.cpp:409] conv1 -> conv1
I0501 13:48:39.048050 13065 net.cpp:144] Setting up conv1
I0501 13:48:39.048069 13065 net.cpp:151] Top shape: 20 64 20 20 (512000)
I0501 13:48:39.048074 13065 net.cpp:159] Memory required for data: 2080240
I0501 13:48:39.048084 13065 layer_factory.hpp:77] Creating layer relu1
I0501 13:48:39.048089 13065 net.cpp:94] Creating Layer relu1
I0501 13:48:39.048094 13065 net.cpp:435] relu1 <- conv1
I0501 13:48:39.048096 13065 net.cpp:396] relu1 -> conv1 (in-place)
I0501 13:48:39.048104 13065 net.cpp:144] Setting up relu1
I0501 13:48:39.048107 13065 net.cpp:151] Top shape: 20 64 20 20 (512000)
I0501 13:48:39.048110 13065 net.cpp:159] Memory required for data: 4128240
I0501 13:48:39.048113 13065 layer_factory.hpp:77] Creating layer conv2
I0501 13:48:39.048121 13065 net.cpp:94] Creating Layer conv2
I0501 13:48:39.048125 13065 net.cpp:435] conv2 <- conv1
I0501 13:48:39.048128 13065 net.cpp:409] conv2 -> conv2
I0501 13:48:39.053243 13065 net.cpp:144] Setting up conv2
I0501 13:48:39.053258 13065 net.cpp:151] Top shape: 20 64 20 20 (512000)
I0501 13:48:39.053262 13065 net.cpp:159] Memory required for data: 6176240
I0501 13:48:39.053270 13065 layer_factory.hpp:77] Creating layer relu2
I0501 13:48:39.053275 13065 net.cpp:94] Creating Layer relu2
I0501 13:48:39.053279 13065 net.cpp:435] relu2 <- conv2
I0501 13:48:39.053283 13065 net.cpp:396] relu2 -> conv2 (in-place)
I0501 13:48:39.053289 13065 net.cpp:144] Setting up relu2
I0501 13:48:39.053293 13065 net.cpp:151] Top shape: 20 64 20 20 (512000)
I0501 13:48:39.053297 13065 net.cpp:159] Memory required for data: 8224240
I0501 13:48:39.053299 13065 layer_factory.hpp:77] Creating layer pool2
I0501 13:48:39.053306 13065 net.cpp:94] Creating Layer pool2
I0501 13:48:39.053310 13065 net.cpp:435] pool2 <- conv2
I0501 13:48:39.053314 13065 net.cpp:409] pool2 -> pool2
I0501 13:48:39.053375 13065 net.cpp:144] Setting up pool2
I0501 13:48:39.053382 13065 net.cpp:151] Top shape: 20 64 10 10 (128000)
I0501 13:48:39.053385 13065 net.cpp:159] Memory required for data: 8736240
I0501 13:48:39.053388 13065 layer_factory.hpp:77] Creating layer conv3
I0501 13:48:39.053397 13065 net.cpp:94] Creating Layer conv3
I0501 13:48:39.053401 13065 net.cpp:435] conv3 <- pool2
I0501 13:48:39.053407 13065 net.cpp:409] conv3 -> conv3
I0501 13:48:39.057379 13065 net.cpp:144] Setting up conv3
I0501 13:48:39.057392 13065 net.cpp:151] Top shape: 20 64 10 10 (128000)
I0501 13:48:39.057395 13065 net.cpp:159] Memory required for data: 9248240
I0501 13:48:39.057404 13065 layer_factory.hpp:77] Creating layer relu3
I0501 13:48:39.057411 13065 net.cpp:94] Creating Layer relu3
I0501 13:48:39.057415 13065 net.cpp:435] relu3 <- conv3
I0501 13:48:39.057420 13065 net.cpp:396] relu3 -> conv3 (in-place)
I0501 13:48:39.057426 13065 net.cpp:144] Setting up relu3
I0501 13:48:39.057430 13065 net.cpp:151] Top shape: 20 64 10 10 (128000)
I0501 13:48:39.057432 13065 net.cpp:159] Memory required for data: 9760240
I0501 13:48:39.057435 13065 layer_factory.hpp:77] Creating layer conv4
I0501 13:48:39.057445 13065 net.cpp:94] Creating Layer conv4
I0501 13:48:39.057447 13065 net.cpp:435] conv4 <- conv3
I0501 13:48:39.057452 13065 net.cpp:409] conv4 -> conv4
I0501 13:48:39.061033 13065 net.cpp:144] Setting up conv4
I0501 13:48:39.061046 13065 net.cpp:151] Top shape: 20 64 10 10 (128000)
I0501 13:48:39.061049 13065 net.cpp:159] Memory required for data: 10272240
I0501 13:48:39.061055 13065 layer_factory.hpp:77] Creating layer relu4
I0501 13:48:39.061060 13065 net.cpp:94] Creating Layer relu4
I0501 13:48:39.061064 13065 net.cpp:435] relu4 <- conv4
I0501 13:48:39.061069 13065 net.cpp:396] relu4 -> conv4 (in-place)
I0501 13:48:39.061074 13065 net.cpp:144] Setting up relu4
I0501 13:48:39.061079 13065 net.cpp:151] Top shape: 20 64 10 10 (128000)
I0501 13:48:39.061080 13065 net.cpp:159] Memory required for data: 10784240
I0501 13:48:39.061084 13065 layer_factory.hpp:77] Creating layer conv5
I0501 13:48:39.061092 13065 net.cpp:94] Creating Layer conv5
I0501 13:48:39.061095 13065 net.cpp:435] conv5 <- conv4
I0501 13:48:39.061101 13065 net.cpp:409] conv5 -> conv5
I0501 13:48:39.066007 13065 net.cpp:144] Setting up conv5
I0501 13:48:39.066025 13065 net.cpp:151] Top shape: 20 64 10 10 (128000)
I0501 13:48:39.066028 13065 net.cpp:159] Memory required for data: 11296240
I0501 13:48:39.066037 13065 layer_factory.hpp:77] Creating layer relu5
I0501 13:48:39.066045 13065 net.cpp:94] Creating Layer relu5
I0501 13:48:39.066047 13065 net.cpp:435] relu5 <- conv5
I0501 13:48:39.066051 13065 net.cpp:396] relu5 -> conv5 (in-place)
I0501 13:48:39.066059 13065 net.cpp:144] Setting up relu5
I0501 13:48:39.066063 13065 net.cpp:151] Top shape: 20 64 10 10 (128000)
I0501 13:48:39.066066 13065 net.cpp:159] Memory required for data: 11808240
I0501 13:48:39.066069 13065 layer_factory.hpp:77] Creating layer pool5
I0501 13:48:39.066073 13065 net.cpp:94] Creating Layer pool5
I0501 13:48:39.066076 13065 net.cpp:435] pool5 <- conv5
I0501 13:48:39.066081 13065 net.cpp:409] pool5 -> pool5
I0501 13:48:39.066123 13065 net.cpp:144] Setting up pool5
I0501 13:48:39.066128 13065 net.cpp:151] Top shape: 20 64 5 5 (32000)
I0501 13:48:39.066131 13065 net.cpp:159] Memory required for data: 11936240
I0501 13:48:39.066134 13065 layer_factory.hpp:77] Creating layer ip1
I0501 13:48:39.066141 13065 net.cpp:94] Creating Layer ip1
I0501 13:48:39.066144 13065 net.cpp:435] ip1 <- pool5
I0501 13:48:39.066149 13065 net.cpp:409] ip1 -> ip1
I0501 13:48:39.068717 13065 net.cpp:144] Setting up ip1
I0501 13:48:39.068725 13065 net.cpp:151] Top shape: 20 64 (1280)
I0501 13:48:39.068728 13065 net.cpp:159] Memory required for data: 11941360
I0501 13:48:39.068734 13065 layer_factory.hpp:77] Creating layer ip2
I0501 13:48:39.068740 13065 net.cpp:94] Creating Layer ip2
I0501 13:48:39.068743 13065 net.cpp:435] ip2 <- ip1
I0501 13:48:39.068748 13065 net.cpp:409] ip2 -> ip2
I0501 13:48:39.068992 13065 net.cpp:144] Setting up ip2
I0501 13:48:39.069000 13065 net.cpp:151] Top shape: 20 64 (1280)
I0501 13:48:39.069003 13065 net.cpp:159] Memory required for data: 11946480
I0501 13:48:39.069008 13065 layer_factory.hpp:77] Creating layer ip3
I0501 13:48:39.069016 13065 net.cpp:94] Creating Layer ip3
I0501 13:48:39.069020 13065 net.cpp:435] ip3 <- ip2
I0501 13:48:39.069025 13065 net.cpp:409] ip3 -> ip3
I0501 13:48:39.069239 13065 net.cpp:144] Setting up ip3
I0501 13:48:39.069247 13065 net.cpp:151] Top shape: 20 50 (1000)
I0501 13:48:39.069249 13065 net.cpp:159] Memory required for data: 11950480
I0501 13:48:39.069253 13065 layer_factory.hpp:77] Creating layer ip3_ip3_0_split
I0501 13:48:39.069258 13065 net.cpp:94] Creating Layer ip3_ip3_0_split
I0501 13:48:39.069262 13065 net.cpp:435] ip3_ip3_0_split <- ip3
I0501 13:48:39.069265 13065 net.cpp:409] ip3_ip3_0_split -> ip3_ip3_0_split_0
I0501 13:48:39.069272 13065 net.cpp:409] ip3_ip3_0_split -> ip3_ip3_0_split_1
I0501 13:48:39.069314 13065 net.cpp:144] Setting up ip3_ip3_0_split
I0501 13:48:39.069320 13065 net.cpp:151] Top shape: 20 50 (1000)
I0501 13:48:39.069324 13065 net.cpp:151] Top shape: 20 50 (1000)
I0501 13:48:39.069326 13065 net.cpp:159] Memory required for data: 11958480
I0501 13:48:39.069329 13065 layer_factory.hpp:77] Creating layer accuracy
I0501 13:48:39.069335 13065 net.cpp:94] Creating Layer accuracy
I0501 13:48:39.069339 13065 net.cpp:435] accuracy <- ip3_ip3_0_split_0
I0501 13:48:39.069342 13065 net.cpp:435] accuracy <- label_intercept_1_split_0
I0501 13:48:39.069346 13065 net.cpp:409] accuracy -> accuracy
…
