…
I0504 08:20:10.892524 25740 net.cpp:323] The NetState phase (0) differed from the phase (1) specified by a rule in layer intercept
I0504 08:20:10.892590 25740 net.cpp:323] The NetState phase (0) differed from the phase (1) specified by a rule in layer loss
I0504 08:20:10.892808 25740 net.cpp:52] Initializing net from parameters: 
state {
  phase: TRAIN
}
layer {
  name: "parameters"
  type: "HDF5Data"
  top: "data"
  top: "label"
  include {
    phase: TRAIN
  }
  hdf5_data_param {
    source: "/home/purduethu/scratch/radon/d/deng106/CNNStatisticalModel/distributions/input/20_distributions_100_sample_size_train-parameters-path.txt"
    batch_size: 20
  }
}
layer {
  name: "conv1"
  type: "Convolution"
  bottom: "data"
  top: "conv1"
  param {
    lr_mult: 1
  }
  param {
    lr_mult: 2
  }
  convolution_param {
    num_output: 64
    pad: 2
    kernel_size: 5
    stride: 1
    weight_filler {
      type: "gaussian"
      std: 0.0001
    }
    bias_filler {
      type: "constant"
    }
  }
}
layer {
  name: "relu1"
  type: "ReLU"
  bottom: "conv1"
  top: "conv1"
}
layer {
  name: "conv2"
  type: "Convolution"
  bottom: "conv1"
  top: "conv2"
  param {
    lr_mult: 1
  }
  param {
    lr_mult: 2
  }
  convolution_param {
    num_output: 64
    pad: 2
    kernel_size: 5
    stride: 1
    weight_filler {
      type: "gaussian"
      std: 0.01
    }
    bias_filler {
      type: "constant"
    }
  }
}
layer {
  name: "relu2"
  type: "ReLU"
  bottom: "conv2"
  top: "conv2"
}
layer {
  name: "pool2"
  type: "Pooling"
  bottom: "conv2"
  top: "pool2"
  pooling_param {
    pool: MAX
    kernel_size: 3
    stride: 2
  }
}
layer {
  name: "conv3"
  type: "Convolution"
  bottom: "pool2"
  top: "conv3"
  param {
    lr_mult: 1
  }
  param {
    lr_mult: 2
  }
  convolution_param {
    num_output: 128
    pad: 2
    kernel_size: 5
    stride: 1
    weight_filler {
      type: "gaussian"
      std: 0.01
    }
    bias_filler {
      type: "constant"
    }
  }
}
layer {
  name: "relu3"
  type: "ReLU"
  bottom: "conv3"
  top: "conv3"
}
layer {
  name: "conv4"
  type: "Convolution"
  bottom: "conv3"
  top: "conv4"
  param {
    lr_mult: 1
  }
  param {
    lr_mult: 2
  }
  convolution_param {
    num_output: 128
    pad: 2
    kernel_size: 5
    stride: 1
    weight_filler {
      type: "gaussian"
      std: 0.01
    }
    bias_filler {
      type: "constant"
    }
  }
}
layer {
  name: "relu4"
  type: "ReLU"
  bottom: "conv4"
  top: "conv4"
}
layer {
  name: "conv5"
  type: "Convolution"
  bottom: "conv4"
  top: "conv5"
  param {
    lr_mult: 1
  }
  param {
    lr_mult: 2
  }
  convolution_param {
    num_output: 128
    pad: 2
    kernel_size: 5
    stride: 1
    weight_filler {
      type: "gaussian"
      std: 0.01
    }
    bias_filler {
      type: "constant"
    }
  }
}
layer {
  name: "relu5"
  type: "ReLU"
  bottom: "conv5"
  top: "conv5"
}
layer {
  name: "pool5"
  type: "Pooling"
  bottom: "conv5"
  top: "pool5"
  pooling_param {
    pool: AVE
    kernel_size: 3
    stride: 2
  }
}
layer {
  name: "ip1"
  type: "InnerProduct"
  bottom: "pool5"
  top: "ip1"
  param {
    lr_mult: 1
  }
  param {
    lr_mult: 2
  }
  inner_product_param {
    num_output: 1024
    weight_filler {
      type: "gaussian"
      std: 0.1
    }
    bias_filler {
      type: "constant"
    }
  }
}
layer {
  name: "ip2"
  type: "InnerProduct"
  bottom: "ip1"
  top: "ip2"
  param {
    lr_mult: 1
  }
  param {
    lr_mult: 2
  }
  inner_product_param {
    num_output: 512
    weight_filler {
      type: "gaussian"
      std: 0.1
    }
    bias_filler {
      type: "constant"
    }
  }
}
layer {
  name: "ip3"
  type: "InnerProduct"
  bottom: "ip2"
  top: "ip3"
  param {
    lr_mult: 1
  }
  param {
    lr_mult: 2
  }
  inner_product_param {
    num_output: 1
    weight_filler {
      type: "gaussian"
      std: 0.1
    }
    bias_filler {
      type: "constant"
    }
  }
}
layer {
  name: "loss"
  type: "HuberLoss"
  bottom: "ip3"
  bottom: "label"
  top: "loss"
  include {
    phase: TRAIN
  }
}
I0504 08:20:10.892940 25740 layer_factory.hpp:77] Creating layer parameters
I0504 08:20:10.892968 25740 net.cpp:94] Creating Layer parameters
I0504 08:20:10.892979 25740 net.cpp:409] parameters -> data
I0504 08:20:10.893000 25740 net.cpp:409] parameters -> label
I0504 08:20:10.893024 25740 hdf5_data_layer.cpp:79] Loading list of HDF5 filenames from: /home/purduethu/scratch/radon/d/deng106/CNNStatisticalModel/distributions/input/20_distributions_100_sample_size_train-parameters-path.txt
I0504 08:20:10.893069 25740 hdf5_data_layer.cpp:93] Number of HDF5 files: 1
I0504 08:20:10.894419 25740 hdf5.cpp:32] Datatype class: H5T_FLOAT
I0504 08:20:11.011564 25740 net.cpp:144] Setting up parameters
I0504 08:20:11.011600 25740 net.cpp:151] Top shape: 20 1 10 10 (2000)
I0504 08:20:11.011610 25740 net.cpp:151] Top shape: 20 (20)
I0504 08:20:11.011615 25740 net.cpp:159] Memory required for data: 8080
I0504 08:20:11.011623 25740 layer_factory.hpp:77] Creating layer conv1
I0504 08:20:11.011644 25740 net.cpp:94] Creating Layer conv1
I0504 08:20:11.011651 25740 net.cpp:435] conv1 <- data
I0504 08:20:11.011660 25740 net.cpp:409] conv1 -> conv1
I0504 08:20:11.017683 25740 net.cpp:144] Setting up conv1
I0504 08:20:11.017731 25740 net.cpp:151] Top shape: 20 64 10 10 (128000)
I0504 08:20:11.017742 25740 net.cpp:159] Memory required for data: 520080
I0504 08:20:11.017768 25740 layer_factory.hpp:77] Creating layer relu1
I0504 08:20:11.017787 25740 net.cpp:94] Creating Layer relu1
I0504 08:20:11.017798 25740 net.cpp:435] relu1 <- conv1
I0504 08:20:11.017812 25740 net.cpp:396] relu1 -> conv1 (in-place)
I0504 08:20:11.017839 25740 net.cpp:144] Setting up relu1
I0504 08:20:11.017853 25740 net.cpp:151] Top shape: 20 64 10 10 (128000)
I0504 08:20:11.017863 25740 net.cpp:159] Memory required for data: 1032080
I0504 08:20:11.017871 25740 layer_factory.hpp:77] Creating layer conv2
I0504 08:20:11.017891 25740 net.cpp:94] Creating Layer conv2
I0504 08:20:11.017901 25740 net.cpp:435] conv2 <- conv1
I0504 08:20:11.017915 25740 net.cpp:409] conv2 -> conv2
I0504 08:20:11.029561 25740 net.cpp:144] Setting up conv2
I0504 08:20:11.029594 25740 net.cpp:151] Top shape: 20 64 10 10 (128000)
I0504 08:20:11.029605 25740 net.cpp:159] Memory required for data: 1544080
I0504 08:20:11.029624 25740 layer_factory.hpp:77] Creating layer relu2
I0504 08:20:11.029640 25740 net.cpp:94] Creating Layer relu2
I0504 08:20:11.029649 25740 net.cpp:435] relu2 <- conv2
I0504 08:20:11.029661 25740 net.cpp:396] relu2 -> conv2 (in-place)
I0504 08:20:11.029680 25740 net.cpp:144] Setting up relu2
I0504 08:20:11.029690 25740 net.cpp:151] Top shape: 20 64 10 10 (128000)
I0504 08:20:11.029698 25740 net.cpp:159] Memory required for data: 2056080
I0504 08:20:11.029706 25740 layer_factory.hpp:77] Creating layer pool2
I0504 08:20:11.029719 25740 net.cpp:94] Creating Layer pool2
I0504 08:20:11.029738 25740 net.cpp:435] pool2 <- conv2
I0504 08:20:11.029752 25740 net.cpp:409] pool2 -> pool2
I0504 08:20:11.029889 25740 net.cpp:144] Setting up pool2
I0504 08:20:11.029907 25740 net.cpp:151] Top shape: 20 64 5 5 (32000)
I0504 08:20:11.029917 25740 net.cpp:159] Memory required for data: 2184080
I0504 08:20:11.029924 25740 layer_factory.hpp:77] Creating layer conv3
I0504 08:20:11.029943 25740 net.cpp:94] Creating Layer conv3
I0504 08:20:11.029953 25740 net.cpp:435] conv3 <- pool2
I0504 08:20:11.029964 25740 net.cpp:409] conv3 -> conv3
I0504 08:20:11.048323 25740 net.cpp:144] Setting up conv3
I0504 08:20:11.048357 25740 net.cpp:151] Top shape: 20 128 5 5 (64000)
I0504 08:20:11.048367 25740 net.cpp:159] Memory required for data: 2440080
I0504 08:20:11.048385 25740 layer_factory.hpp:77] Creating layer relu3
I0504 08:20:11.048399 25740 net.cpp:94] Creating Layer relu3
I0504 08:20:11.048408 25740 net.cpp:435] relu3 <- conv3
I0504 08:20:11.048419 25740 net.cpp:396] relu3 -> conv3 (in-place)
I0504 08:20:11.048436 25740 net.cpp:144] Setting up relu3
I0504 08:20:11.048447 25740 net.cpp:151] Top shape: 20 128 5 5 (64000)
I0504 08:20:11.048454 25740 net.cpp:159] Memory required for data: 2696080
I0504 08:20:11.048462 25740 layer_factory.hpp:77] Creating layer conv4
I0504 08:20:11.048480 25740 net.cpp:94] Creating Layer conv4
I0504 08:20:11.048490 25740 net.cpp:435] conv4 <- conv3
I0504 08:20:11.048501 25740 net.cpp:409] conv4 -> conv4
I0504 08:20:11.078842 25740 net.cpp:144] Setting up conv4
I0504 08:20:11.078873 25740 net.cpp:151] Top shape: 20 128 5 5 (64000)
I0504 08:20:11.078881 25740 net.cpp:159] Memory required for data: 2952080
I0504 08:20:11.078894 25740 layer_factory.hpp:77] Creating layer relu4
I0504 08:20:11.078907 25740 net.cpp:94] Creating Layer relu4
I0504 08:20:11.078914 25740 net.cpp:435] relu4 <- conv4
I0504 08:20:11.078924 25740 net.cpp:396] relu4 -> conv4 (in-place)
I0504 08:20:11.078938 25740 net.cpp:144] Setting up relu4
I0504 08:20:11.078948 25740 net.cpp:151] Top shape: 20 128 5 5 (64000)
I0504 08:20:11.078954 25740 net.cpp:159] Memory required for data: 3208080
I0504 08:20:11.078960 25740 layer_factory.hpp:77] Creating layer conv5
I0504 08:20:11.078974 25740 net.cpp:94] Creating Layer conv5
I0504 08:20:11.078981 25740 net.cpp:435] conv5 <- conv4
I0504 08:20:11.078991 25740 net.cpp:409] conv5 -> conv5
I0504 08:20:11.104830 25740 net.cpp:144] Setting up conv5
I0504 08:20:11.104857 25740 net.cpp:151] Top shape: 20 128 5 5 (64000)
I0504 08:20:11.104866 25740 net.cpp:159] Memory required for data: 3464080
I0504 08:20:11.104882 25740 layer_factory.hpp:77] Creating layer relu5
I0504 08:20:11.104892 25740 net.cpp:94] Creating Layer relu5
I0504 08:20:11.104898 25740 net.cpp:435] relu5 <- conv5
I0504 08:20:11.104907 25740 net.cpp:396] relu5 -> conv5 (in-place)
I0504 08:20:11.104919 25740 net.cpp:144] Setting up relu5
I0504 08:20:11.104928 25740 net.cpp:151] Top shape: 20 128 5 5 (64000)
I0504 08:20:11.104933 25740 net.cpp:159] Memory required for data: 3720080
I0504 08:20:11.104938 25740 layer_factory.hpp:77] Creating layer pool5
I0504 08:20:11.104948 25740 net.cpp:94] Creating Layer pool5
I0504 08:20:11.104953 25740 net.cpp:435] pool5 <- conv5
I0504 08:20:11.104960 25740 net.cpp:409] pool5 -> pool5
I0504 08:20:11.105031 25740 net.cpp:144] Setting up pool5
I0504 08:20:11.105042 25740 net.cpp:151] Top shape: 20 128 2 2 (10240)
I0504 08:20:11.105048 25740 net.cpp:159] Memory required for data: 3761040
I0504 08:20:11.105054 25740 layer_factory.hpp:77] Creating layer ip1
I0504 08:20:11.105065 25740 net.cpp:94] Creating Layer ip1
I0504 08:20:11.105072 25740 net.cpp:435] ip1 <- pool5
I0504 08:20:11.105079 25740 net.cpp:409] ip1 -> ip1
I0504 08:20:11.130066 25740 net.cpp:144] Setting up ip1
I0504 08:20:11.130094 25740 net.cpp:151] Top shape: 20 1024 (20480)
I0504 08:20:11.130100 25740 net.cpp:159] Memory required for data: 3842960
I0504 08:20:11.130111 25740 layer_factory.hpp:77] Creating layer ip2
I0504 08:20:11.130123 25740 net.cpp:94] Creating Layer ip2
I0504 08:20:11.130137 25740 net.cpp:435] ip2 <- ip1
I0504 08:20:11.130147 25740 net.cpp:409] ip2 -> ip2
I0504 08:20:11.151830 25740 net.cpp:144] Setting up ip2
I0504 08:20:11.151854 25740 net.cpp:151] Top shape: 20 512 (10240)
I0504 08:20:11.151859 25740 net.cpp:159] Memory required for data: 3883920
I0504 08:20:11.151868 25740 layer_factory.hpp:77] Creating layer ip3
I0504 08:20:11.151880 25740 net.cpp:94] Creating Layer ip3
I0504 08:20:11.151885 25740 net.cpp:435] ip3 <- ip2
I0504 08:20:11.151892 25740 net.cpp:409] ip3 -> ip3
I0504 08:20:11.152079 25740 net.cpp:144] Setting up ip3
I0504 08:20:11.152091 25740 net.cpp:151] Top shape: 20 1 (20)
I0504 08:20:11.152096 25740 net.cpp:159] Memory required for data: 3884000
I0504 08:20:11.152103 25740 layer_factory.hpp:77] Creating layer loss
I0504 08:20:11.152120 25740 net.cpp:94] Creating Layer loss
I0504 08:20:11.152127 25740 net.cpp:435] loss <- ip3
I0504 08:20:11.152132 25740 net.cpp:435] loss <- label
I0504 08:20:11.152139 25740 net.cpp:409] loss -> loss
I0504 08:20:11.152220 25740 net.cpp:144] Setting up loss
…
I0504 08:20:11.260108 25740 net.cpp:323] The NetState phase (0) differed from the phase (1) specified by a rule in layer intercept
I0504 08:20:11.260128 25740 net.cpp:323] The NetState phase (0) differed from the phase (1) specified by a rule in layer accuracy
I0504 08:20:11.260226 25740 net.cpp:52] Initializing net from parameters: 
state {
  phase: TRAIN
}
layer {
  name: "parameters"
  type: "HDF5Data"
  top: "data"
  top: "label"
  include {
    phase: TRAIN
  }
  hdf5_data_param {
    source: "/home/purduethu/scratch/radon/d/deng106/CNNStatisticalModel/distributions/input/20_distributions_100_sample_size_train-distributions-path.txt"
    batch_size: 20
  }
}
layer {
  name: "conv1"
  type: "Convolution"
  bottom: "data"
  top: "conv1"
  param {
    lr_mult: 1
  }
  param {
    lr_mult: 2
  }
  convolution_param {
    num_output: 64
    pad: 2
    kernel_size: 5
    stride: 1
    weight_filler {
      type: "gaussian"
      std: 0.0001
    }
    bias_filler {
      type: "constant"
    }
  }
}
layer {
  name: "relu1"
  type: "ReLU"
  bottom: "conv1"
  top: "conv1"
}
layer {
  name: "conv2"
  type: "Convolution"
  bottom: "conv1"
  top: "conv2"
  param {
    lr_mult: 1
  }
  param {
    lr_mult: 2
  }
  convolution_param {
    num_output: 64
    pad: 2
    kernel_size: 5
    stride: 1
    weight_filler {
      type: "gaussian"
      std: 0.01
    }
    bias_filler {
      type: "constant"
    }
  }
}
layer {
  name: "relu2"
  type: "ReLU"
  bottom: "conv2"
  top: "conv2"
}
layer {
  name: "pool2"
  type: "Pooling"
  bottom: "conv2"
  top: "pool2"
  pooling_param {
    pool: MAX
    kernel_size: 3
    stride: 2
  }
}
layer {
  name: "conv3"
  type: "Convolution"
  bottom: "pool2"
  top: "conv3"
  param {
    lr_mult: 1
  }
  param {
    lr_mult: 2
  }
  convolution_param {
    num_output: 128
    pad: 2
    kernel_size: 5
    stride: 1
    weight_filler {
      type: "gaussian"
      std: 0.01
    }
    bias_filler {
      type: "constant"
    }
  }
}
layer {
  name: "relu3"
  type: "ReLU"
  bottom: "conv3"
  top: "conv3"
}
layer {
  name: "conv4"
  type: "Convolution"
  bottom: "conv3"
  top: "conv4"
  param {
    lr_mult: 1
  }
  param {
    lr_mult: 2
  }
  convolution_param {
    num_output: 128
    pad: 2
    kernel_size: 5
    stride: 1
    weight_filler {
      type: "gaussian"
      std: 0.01
    }
    bias_filler {
      type: "constant"
    }
  }
}
layer {
  name: "relu4"
  type: "ReLU"
  bottom: "conv4"
  top: "conv4"
}
layer {
  name: "conv5"
  type: "Convolution"
  bottom: "conv4"
  top: "conv5"
  param {
    lr_mult: 1
  }
  param {
    lr_mult: 2
  }
  convolution_param {
    num_output: 128
    pad: 2
    kernel_size: 5
    stride: 1
    weight_filler {
      type: "gaussian"
      std: 0.01
    }
    bias_filler {
      type: "constant"
    }
  }
}
layer {
  name: "relu5"
  type: "ReLU"
  bottom: "conv5"
  top: "conv5"
}
layer {
  name: "pool5"
  type: "Pooling"
  bottom: "conv5"
  top: "pool5"
  pooling_param {
    pool: AVE
    kernel_size: 3
    stride: 2
  }
}
layer {
  name: "ip1"
  type: "InnerProduct"
  bottom: "pool5"
  top: "ip1"
  param {
    lr_mult: 1
  }
  param {
    lr_mult: 2
  }
  inner_product_param {
    num_output: 1024
    weight_filler {
      type: "gaussian"
      std: 0.1
    }
    bias_filler {
      type: "constant"
    }
  }
}
layer {
  name: "ip2"
  type: "InnerProduct"
  bottom: "ip1"
  top: "ip2"
  param {
    lr_mult: 1
  }
  param {
    lr_mult: 2
  }
  inner_product_param {
    num_output: 512
    weight_filler {
      type: "gaussian"
      std: 0.1
    }
    bias_filler {
      type: "constant"
    }
  }
}
layer {
  name: "ip3"
  type: "InnerProduct"
  bottom: "ip2"
  top: "ip3"
  param {
    lr_mult: 1
  }
  param {
    lr_mult: 2
  }
  inner_product_param {
    num_output: 50
    weight_filler {
      type: "gaussian"
      std: 0.1
    }
    bias_filler {
      type: "constant"
    }
  }
}
layer {
  name: "loss"
  type: "SoftmaxWithLoss"
  bottom: "ip3"
  bottom: "label"
  top: "loss"
}
I0504 08:20:11.260287 25740 layer_factory.hpp:77] Creating layer parameters
I0504 08:20:11.260295 25740 net.cpp:94] Creating Layer parameters
I0504 08:20:11.260300 25740 net.cpp:409] parameters -> data
I0504 08:20:11.260308 25740 net.cpp:409] parameters -> label
I0504 08:20:11.260314 25740 hdf5_data_layer.cpp:79] Loading list of HDF5 filenames from: /home/purduethu/scratch/radon/d/deng106/CNNStatisticalModel/distributions/input/20_distributions_100_sample_size_train-distributions-path.txt
I0504 08:20:11.260332 25740 hdf5_data_layer.cpp:93] Number of HDF5 files: 1
I0504 08:20:11.328167 25740 hdf5.cpp:35] Datatype class: H5T_INTEGER
I0504 08:20:11.329274 25740 net.cpp:144] Setting up parameters
I0504 08:20:11.329290 25740 net.cpp:151] Top shape: 20 1 10 10 (2000)
I0504 08:20:11.329295 25740 net.cpp:151] Top shape: 20 (20)
I0504 08:20:11.329299 25740 net.cpp:159] Memory required for data: 8080
I0504 08:20:11.329305 25740 layer_factory.hpp:77] Creating layer conv1
I0504 08:20:11.329321 25740 net.cpp:94] Creating Layer conv1
I0504 08:20:11.329326 25740 net.cpp:435] conv1 <- data
I0504 08:20:11.329332 25740 net.cpp:409] conv1 -> conv1
I0504 08:20:11.331074 25740 net.cpp:144] Setting up conv1
I0504 08:20:11.331087 25740 net.cpp:151] Top shape: 20 64 10 10 (128000)
I0504 08:20:11.331091 25740 net.cpp:159] Memory required for data: 520080
I0504 08:20:11.331100 25740 layer_factory.hpp:77] Creating layer relu1
I0504 08:20:11.331107 25740 net.cpp:94] Creating Layer relu1
I0504 08:20:11.331111 25740 net.cpp:435] relu1 <- conv1
I0504 08:20:11.331116 25740 net.cpp:396] relu1 -> conv1 (in-place)
I0504 08:20:11.331123 25740 net.cpp:144] Setting up relu1
I0504 08:20:11.331127 25740 net.cpp:151] Top shape: 20 64 10 10 (128000)
I0504 08:20:11.331131 25740 net.cpp:159] Memory required for data: 1032080
I0504 08:20:11.331135 25740 layer_factory.hpp:77] Creating layer conv2
I0504 08:20:11.331141 25740 net.cpp:94] Creating Layer conv2
I0504 08:20:11.331145 25740 net.cpp:435] conv2 <- conv1
I0504 08:20:11.331149 25740 net.cpp:409] conv2 -> conv2
I0504 08:20:11.336591 25740 net.cpp:144] Setting up conv2
I0504 08:20:11.336606 25740 net.cpp:151] Top shape: 20 64 10 10 (128000)
I0504 08:20:11.336611 25740 net.cpp:159] Memory required for data: 1544080
I0504 08:20:11.336618 25740 layer_factory.hpp:77] Creating layer relu2
I0504 08:20:11.336625 25740 net.cpp:94] Creating Layer relu2
I0504 08:20:11.336629 25740 net.cpp:435] relu2 <- conv2
I0504 08:20:11.336633 25740 net.cpp:396] relu2 -> conv2 (in-place)
I0504 08:20:11.336642 25740 net.cpp:144] Setting up relu2
I0504 08:20:11.336645 25740 net.cpp:151] Top shape: 20 64 10 10 (128000)
I0504 08:20:11.336648 25740 net.cpp:159] Memory required for data: 2056080
I0504 08:20:11.336652 25740 layer_factory.hpp:77] Creating layer pool2
I0504 08:20:11.336658 25740 net.cpp:94] Creating Layer pool2
I0504 08:20:11.336660 25740 net.cpp:435] pool2 <- conv2
I0504 08:20:11.336665 25740 net.cpp:409] pool2 -> pool2
I0504 08:20:11.336724 25740 net.cpp:144] Setting up pool2
I0504 08:20:11.336731 25740 net.cpp:151] Top shape: 20 64 5 5 (32000)
I0504 08:20:11.336735 25740 net.cpp:159] Memory required for data: 2184080
I0504 08:20:11.336737 25740 layer_factory.hpp:77] Creating layer conv3
I0504 08:20:11.336745 25740 net.cpp:94] Creating Layer conv3
I0504 08:20:11.336748 25740 net.cpp:435] conv3 <- pool2
I0504 08:20:11.336753 25740 net.cpp:409] conv3 -> conv3
I0504 08:20:11.345675 25740 net.cpp:144] Setting up conv3
I0504 08:20:11.345691 25740 net.cpp:151] Top shape: 20 128 5 5 (64000)
I0504 08:20:11.345695 25740 net.cpp:159] Memory required for data: 2440080
I0504 08:20:11.345705 25740 layer_factory.hpp:77] Creating layer relu3
I0504 08:20:11.345710 25740 net.cpp:94] Creating Layer relu3
I0504 08:20:11.345715 25740 net.cpp:435] relu3 <- conv3
I0504 08:20:11.345719 25740 net.cpp:396] relu3 -> conv3 (in-place)
I0504 08:20:11.345726 25740 net.cpp:144] Setting up relu3
I0504 08:20:11.345731 25740 net.cpp:151] Top shape: 20 128 5 5 (64000)
I0504 08:20:11.345734 25740 net.cpp:159] Memory required for data: 2696080
I0504 08:20:11.345737 25740 layer_factory.hpp:77] Creating layer conv4
I0504 08:20:11.345746 25740 net.cpp:94] Creating Layer conv4
I0504 08:20:11.345751 25740 net.cpp:435] conv4 <- conv3
I0504 08:20:11.345755 25740 net.cpp:409] conv4 -> conv4
I0504 08:20:11.360918 25740 net.cpp:144] Setting up conv4
I0504 08:20:11.360935 25740 net.cpp:151] Top shape: 20 128 5 5 (64000)
I0504 08:20:11.360939 25740 net.cpp:159] Memory required for data: 2952080
I0504 08:20:11.360946 25740 layer_factory.hpp:77] Creating layer relu4
I0504 08:20:11.360952 25740 net.cpp:94] Creating Layer relu4
I0504 08:20:11.360956 25740 net.cpp:435] relu4 <- conv4
I0504 08:20:11.360961 25740 net.cpp:396] relu4 -> conv4 (in-place)
I0504 08:20:11.360968 25740 net.cpp:144] Setting up relu4
I0504 08:20:11.360973 25740 net.cpp:151] Top shape: 20 128 5 5 (64000)
I0504 08:20:11.360976 25740 net.cpp:159] Memory required for data: 3208080
I0504 08:20:11.360980 25740 layer_factory.hpp:77] Creating layer conv5
I0504 08:20:11.360986 25740 net.cpp:94] Creating Layer conv5
I0504 08:20:11.360991 25740 net.cpp:435] conv5 <- conv4
I0504 08:20:11.360994 25740 net.cpp:409] conv5 -> conv5
I0504 08:20:11.376389 25740 net.cpp:144] Setting up conv5
I0504 08:20:11.376408 25740 net.cpp:151] Top shape: 20 128 5 5 (64000)
I0504 08:20:11.376412 25740 net.cpp:159] Memory required for data: 3464080
I0504 08:20:11.376421 25740 layer_factory.hpp:77] Creating layer relu5
I0504 08:20:11.376428 25740 net.cpp:94] Creating Layer relu5
I0504 08:20:11.376432 25740 net.cpp:435] relu5 <- conv5
I0504 08:20:11.376436 25740 net.cpp:396] relu5 -> conv5 (in-place)
I0504 08:20:11.376444 25740 net.cpp:144] Setting up relu5
I0504 08:20:11.376448 25740 net.cpp:151] Top shape: 20 128 5 5 (64000)
I0504 08:20:11.376451 25740 net.cpp:159] Memory required for data: 3720080
I0504 08:20:11.376454 25740 layer_factory.hpp:77] Creating layer pool5
I0504 08:20:11.376461 25740 net.cpp:94] Creating Layer pool5
I0504 08:20:11.376463 25740 net.cpp:435] pool5 <- conv5
I0504 08:20:11.376467 25740 net.cpp:409] pool5 -> pool5
I0504 08:20:11.376508 25740 net.cpp:144] Setting up pool5
I0504 08:20:11.376516 25740 net.cpp:151] Top shape: 20 128 2 2 (10240)
I0504 08:20:11.376519 25740 net.cpp:159] Memory required for data: 3761040
I0504 08:20:11.376523 25740 layer_factory.hpp:77] Creating layer ip1
I0504 08:20:11.376530 25740 net.cpp:94] Creating Layer ip1
I0504 08:20:11.376533 25740 net.cpp:435] ip1 <- pool5
I0504 08:20:11.376538 25740 net.cpp:409] ip1 -> ip1
I0504 08:20:11.390281 25740 net.cpp:144] Setting up ip1
I0504 08:20:11.390298 25740 net.cpp:151] Top shape: 20 1024 (20480)
I0504 08:20:11.390302 25740 net.cpp:159] Memory required for data: 3842960
I0504 08:20:11.390310 25740 layer_factory.hpp:77] Creating layer ip2
I0504 08:20:11.390317 25740 net.cpp:94] Creating Layer ip2
I0504 08:20:11.390321 25740 net.cpp:435] ip2 <- ip1
I0504 08:20:11.390326 25740 net.cpp:409] ip2 -> ip2
I0504 08:20:11.404045 25740 net.cpp:144] Setting up ip2
I0504 08:20:11.404062 25740 net.cpp:151] Top shape: 20 512 (10240)
I0504 08:20:11.404067 25740 net.cpp:159] Memory required for data: 3883920
I0504 08:20:11.404073 25740 layer_factory.hpp:77] Creating layer ip3
I0504 08:20:11.404080 25740 net.cpp:94] Creating Layer ip3
I0504 08:20:11.404084 25740 net.cpp:435] ip3 <- ip2
I0504 08:20:11.404090 25740 net.cpp:409] ip3 -> ip3
I0504 08:20:11.404886 25740 net.cpp:144] Setting up ip3
I0504 08:20:11.404894 25740 net.cpp:151] Top shape: 20 50 (1000)
I0504 08:20:11.404906 25740 net.cpp:159] Memory required for data: 3887920
I0504 08:20:11.404911 25740 layer_factory.hpp:77] Creating layer loss
I0504 08:20:11.404919 25740 net.cpp:94] Creating Layer loss
I0504 08:20:11.404922 25740 net.cpp:435] loss <- ip3
I0504 08:20:11.404927 25740 net.cpp:435] loss <- label
I0504 08:20:11.404932 25740 net.cpp:409] loss -> loss
I0504 08:20:11.404938 25740 layer_factory.hpp:77] Creating layer loss
…
I0504 08:20:11.405491 25740 solver.cpp:181] Creating test net (#0) specified by net file: ./protocol/dis_20_100_dimension.protocol_distribution
I0504 08:20:11.405519 25740 net.cpp:323] The NetState phase (1) differed from the phase (0) specified by a rule in layer parameters
I0504 08:20:11.405618 25740 net.cpp:52] Initializing net from parameters: 
state {
  phase: TEST
}
layer {
  name: "intercept"
  type: "HDF5Data"
  top: "data"
  top: "label"
  include {
    phase: TEST
  }
  hdf5_data_param {
    source: "/home/purduethu/scratch/radon/d/deng106/CNNStatisticalModel/distributions/input/20_distributions_100_sample_size_test-distributions-path.txt"
    batch_size: 20
  }
}
layer {
  name: "conv1"
  type: "Convolution"
  bottom: "data"
  top: "conv1"
  param {
    lr_mult: 1
  }
  param {
    lr_mult: 2
  }
  convolution_param {
    num_output: 64
    pad: 2
    kernel_size: 5
    stride: 1
    weight_filler {
      type: "gaussian"
      std: 0.0001
    }
    bias_filler {
      type: "constant"
    }
  }
}
layer {
  name: "relu1"
  type: "ReLU"
  bottom: "conv1"
  top: "conv1"
}
layer {
  name: "conv2"
  type: "Convolution"
  bottom: "conv1"
  top: "conv2"
  param {
    lr_mult: 1
  }
  param {
    lr_mult: 2
  }
  convolution_param {
    num_output: 64
    pad: 2
    kernel_size: 5
    stride: 1
    weight_filler {
      type: "gaussian"
      std: 0.01
    }
    bias_filler {
      type: "constant"
    }
  }
}
layer {
  name: "relu2"
  type: "ReLU"
  bottom: "conv2"
  top: "conv2"
}
layer {
  name: "pool2"
  type: "Pooling"
  bottom: "conv2"
  top: "pool2"
  pooling_param {
    pool: MAX
    kernel_size: 3
    stride: 2
  }
}
layer {
  name: "conv3"
  type: "Convolution"
  bottom: "pool2"
  top: "conv3"
  param {
    lr_mult: 1
  }
  param {
    lr_mult: 2
  }
  convolution_param {
    num_output: 128
    pad: 2
    kernel_size: 5
    stride: 1
    weight_filler {
      type: "gaussian"
      std: 0.01
    }
    bias_filler {
      type: "constant"
    }
  }
}
layer {
  name: "relu3"
  type: "ReLU"
  bottom: "conv3"
  top: "conv3"
}
layer {
  name: "conv4"
  type: "Convolution"
  bottom: "conv3"
  top: "conv4"
  param {
    lr_mult: 1
  }
  param {
    lr_mult: 2
  }
  convolution_param {
    num_output: 128
    pad: 2
    kernel_size: 5
    stride: 1
    weight_filler {
      type: "gaussian"
      std: 0.01
    }
    bias_filler {
      type: "constant"
    }
  }
}
layer {
  name: "relu4"
  type: "ReLU"
  bottom: "conv4"
  top: "conv4"
}
layer {
  name: "conv5"
  type: "Convolution"
  bottom: "conv4"
  top: "conv5"
  param {
    lr_mult: 1
  }
  param {
    lr_mult: 2
  }
  convolution_param {
    num_output: 128
    pad: 2
    kernel_size: 5
    stride: 1
    weight_filler {
      type: "gaussian"
      std: 0.01
    }
    bias_filler {
      type: "constant"
    }
  }
}
layer {
  name: "relu5"
  type: "ReLU"
  bottom: "conv5"
  top: "conv5"
}
layer {
  name: "pool5"
  type: "Pooling"
  bottom: "conv5"
  top: "pool5"
  pooling_param {
    pool: AVE
    kernel_size: 3
    stride: 2
  }
}
layer {
  name: "ip1"
  type: "InnerProduct"
  bottom: "pool5"
  top: "ip1"
  param {
    lr_mult: 1
  }
  param {
    lr_mult: 2
  }
  inner_product_param {
    num_output: 1024
    weight_filler {
      type: "gaussian"
      std: 0.1
    }
    bias_filler {
      type: "constant"
    }
  }
}
layer {
  name: "ip2"
  type: "InnerProduct"
  bottom: "ip1"
  top: "ip2"
  param {
    lr_mult: 1
  }
  param {
    lr_mult: 2
  }
  inner_product_param {
    num_output: 512
    weight_filler {
      type: "gaussian"
      std: 0.1
    }
    bias_filler {
      type: "constant"
    }
  }
}
layer {
  name: "ip3"
  type: "InnerProduct"
  bottom: "ip2"
  top: "ip3"
  param {
    lr_mult: 1
  }
  param {
    lr_mult: 2
  }
  inner_product_param {
    num_output: 50
    weight_filler {
      type: "gaussian"
      std: 0.1
    }
    bias_filler {
      type: "constant"
    }
  }
}
layer {
  name: "accuracy"
  type: "Accuracy"
  bottom: "ip3"
  bottom: "label"
  top: "accuracy"
  include {
    phase: TEST
  }
}
layer {
  name: "loss"
  type: "SoftmaxWithLoss"
  bottom: "ip3"
  bottom: "label"
  top: "loss"
}
I0504 08:20:11.405684 25740 layer_factory.hpp:77] Creating layer intercept
I0504 08:20:11.405694 25740 net.cpp:94] Creating Layer intercept
I0504 08:20:11.405697 25740 net.cpp:409] intercept -> data
I0504 08:20:11.405704 25740 net.cpp:409] intercept -> label
I0504 08:20:11.405710 25740 hdf5_data_layer.cpp:79] Loading list of HDF5 filenames from: /home/purduethu/scratch/radon/d/deng106/CNNStatisticalModel/distributions/input/20_distributions_100_sample_size_test-distributions-path.txt
I0504 08:20:11.405731 25740 hdf5_data_layer.cpp:93] Number of HDF5 files: 1
I0504 08:20:11.423285 25740 net.cpp:144] Setting up intercept
I0504 08:20:11.423319 25740 net.cpp:151] Top shape: 20 1 10 10 (2000)
I0504 08:20:11.423326 25740 net.cpp:151] Top shape: 20 (20)
I0504 08:20:11.423329 25740 net.cpp:159] Memory required for data: 8080
I0504 08:20:11.423336 25740 layer_factory.hpp:77] Creating layer label_intercept_1_split
I0504 08:20:11.423355 25740 net.cpp:94] Creating Layer label_intercept_1_split
I0504 08:20:11.423360 25740 net.cpp:435] label_intercept_1_split <- label
I0504 08:20:11.423367 25740 net.cpp:409] label_intercept_1_split -> label_intercept_1_split_0
I0504 08:20:11.423374 25740 net.cpp:409] label_intercept_1_split -> label_intercept_1_split_1
I0504 08:20:11.423421 25740 net.cpp:144] Setting up label_intercept_1_split
I0504 08:20:11.423427 25740 net.cpp:151] Top shape: 20 (20)
I0504 08:20:11.423431 25740 net.cpp:151] Top shape: 20 (20)
I0504 08:20:11.423434 25740 net.cpp:159] Memory required for data: 8240
I0504 08:20:11.423437 25740 layer_factory.hpp:77] Creating layer conv1
I0504 08:20:11.423449 25740 net.cpp:94] Creating Layer conv1
I0504 08:20:11.423454 25740 net.cpp:435] conv1 <- data
I0504 08:20:11.423458 25740 net.cpp:409] conv1 -> conv1
I0504 08:20:11.424293 25740 net.cpp:144] Setting up conv1
I0504 08:20:11.424307 25740 net.cpp:151] Top shape: 20 64 10 10 (128000)
I0504 08:20:11.424319 25740 net.cpp:159] Memory required for data: 520240
I0504 08:20:11.424329 25740 layer_factory.hpp:77] Creating layer relu1
I0504 08:20:11.424336 25740 net.cpp:94] Creating Layer relu1
I0504 08:20:11.424340 25740 net.cpp:435] relu1 <- conv1
I0504 08:20:11.424345 25740 net.cpp:396] relu1 -> conv1 (in-place)
I0504 08:20:11.424351 25740 net.cpp:144] Setting up relu1
I0504 08:20:11.424356 25740 net.cpp:151] Top shape: 20 64 10 10 (128000)
I0504 08:20:11.424360 25740 net.cpp:159] Memory required for data: 1032240
I0504 08:20:11.424362 25740 layer_factory.hpp:77] Creating layer conv2
I0504 08:20:11.424371 25740 net.cpp:94] Creating Layer conv2
I0504 08:20:11.424374 25740 net.cpp:435] conv2 <- conv1
I0504 08:20:11.424379 25740 net.cpp:409] conv2 -> conv2
I0504 08:20:11.428603 25740 net.cpp:144] Setting up conv2
I0504 08:20:11.428617 25740 net.cpp:151] Top shape: 20 64 10 10 (128000)
I0504 08:20:11.428622 25740 net.cpp:159] Memory required for data: 1544240
I0504 08:20:11.428629 25740 layer_factory.hpp:77] Creating layer relu2
I0504 08:20:11.428635 25740 net.cpp:94] Creating Layer relu2
I0504 08:20:11.428639 25740 net.cpp:435] relu2 <- conv2
I0504 08:20:11.428643 25740 net.cpp:396] relu2 -> conv2 (in-place)
I0504 08:20:11.428650 25740 net.cpp:144] Setting up relu2
I0504 08:20:11.428654 25740 net.cpp:151] Top shape: 20 64 10 10 (128000)
I0504 08:20:11.428658 25740 net.cpp:159] Memory required for data: 2056240
I0504 08:20:11.428661 25740 layer_factory.hpp:77] Creating layer pool2
I0504 08:20:11.428666 25740 net.cpp:94] Creating Layer pool2
I0504 08:20:11.428669 25740 net.cpp:435] pool2 <- conv2
I0504 08:20:11.428674 25740 net.cpp:409] pool2 -> pool2
I0504 08:20:11.428731 25740 net.cpp:144] Setting up pool2
I0504 08:20:11.428738 25740 net.cpp:151] Top shape: 20 64 5 5 (32000)
I0504 08:20:11.428741 25740 net.cpp:159] Memory required for data: 2184240
I0504 08:20:11.428745 25740 layer_factory.hpp:77] Creating layer conv3
I0504 08:20:11.428752 25740 net.cpp:94] Creating Layer conv3
I0504 08:20:11.428756 25740 net.cpp:435] conv3 <- pool2
I0504 08:20:11.428761 25740 net.cpp:409] conv3 -> conv3
I0504 08:20:11.435036 25740 net.cpp:144] Setting up conv3
I0504 08:20:11.435050 25740 net.cpp:151] Top shape: 20 128 5 5 (64000)
I0504 08:20:11.435055 25740 net.cpp:159] Memory required for data: 2440240
I0504 08:20:11.435062 25740 layer_factory.hpp:77] Creating layer relu3
I0504 08:20:11.435070 25740 net.cpp:94] Creating Layer relu3
I0504 08:20:11.435073 25740 net.cpp:435] relu3 <- conv3
I0504 08:20:11.435077 25740 net.cpp:396] relu3 -> conv3 (in-place)
I0504 08:20:11.435084 25740 net.cpp:144] Setting up relu3
I0504 08:20:11.435089 25740 net.cpp:151] Top shape: 20 128 5 5 (64000)
I0504 08:20:11.435092 25740 net.cpp:159] Memory required for data: 2696240
I0504 08:20:11.435096 25740 layer_factory.hpp:77] Creating layer conv4
I0504 08:20:11.435103 25740 net.cpp:94] Creating Layer conv4
I0504 08:20:11.435106 25740 net.cpp:435] conv4 <- conv3
I0504 08:20:11.435111 25740 net.cpp:409] conv4 -> conv4
I0504 08:20:11.452452 25740 net.cpp:144] Setting up conv4
I0504 08:20:11.452472 25740 net.cpp:151] Top shape: 20 128 5 5 (64000)
I0504 08:20:11.452476 25740 net.cpp:159] Memory required for data: 2952240
I0504 08:20:11.452483 25740 layer_factory.hpp:77] Creating layer relu4
I0504 08:20:11.452491 25740 net.cpp:94] Creating Layer relu4
I0504 08:20:11.452494 25740 net.cpp:435] relu4 <- conv4
I0504 08:20:11.452499 25740 net.cpp:396] relu4 -> conv4 (in-place)
I0504 08:20:11.452507 25740 net.cpp:144] Setting up relu4
I0504 08:20:11.452512 25740 net.cpp:151] Top shape: 20 128 5 5 (64000)
I0504 08:20:11.452514 25740 net.cpp:159] Memory required for data: 3208240
I0504 08:20:11.452517 25740 layer_factory.hpp:77] Creating layer conv5
I0504 08:20:11.452525 25740 net.cpp:94] Creating Layer conv5
I0504 08:20:11.452529 25740 net.cpp:435] conv5 <- conv4
I0504 08:20:11.452534 25740 net.cpp:409] conv5 -> conv5
I0504 08:20:11.465631 25740 net.cpp:144] Setting up conv5
I0504 08:20:11.465651 25740 net.cpp:151] Top shape: 20 128 5 5 (64000)
I0504 08:20:11.465659 25740 net.cpp:159] Memory required for data: 3464240
I0504 08:20:11.465670 25740 layer_factory.hpp:77] Creating layer relu5
I0504 08:20:11.465677 25740 net.cpp:94] Creating Layer relu5
I0504 08:20:11.465680 25740 net.cpp:435] relu5 <- conv5
I0504 08:20:11.465685 25740 net.cpp:396] relu5 -> conv5 (in-place)
I0504 08:20:11.465692 25740 net.cpp:144] Setting up relu5
I0504 08:20:11.465698 25740 net.cpp:151] Top shape: 20 128 5 5 (64000)
I0504 08:20:11.465700 25740 net.cpp:159] Memory required for data: 3720240
I0504 08:20:11.465703 25740 layer_factory.hpp:77] Creating layer pool5
I0504 08:20:11.465709 25740 net.cpp:94] Creating Layer pool5
I0504 08:20:11.465713 25740 net.cpp:435] pool5 <- conv5
I0504 08:20:11.465716 25740 net.cpp:409] pool5 -> pool5
I0504 08:20:11.465759 25740 net.cpp:144] Setting up pool5
I0504 08:20:11.465765 25740 net.cpp:151] Top shape: 20 128 2 2 (10240)
I0504 08:20:11.465768 25740 net.cpp:159] Memory required for data: 3761200
I0504 08:20:11.465771 25740 layer_factory.hpp:77] Creating layer ip1
I0504 08:20:11.465778 25740 net.cpp:94] Creating Layer ip1
I0504 08:20:11.465781 25740 net.cpp:435] ip1 <- pool5
I0504 08:20:11.465786 25740 net.cpp:409] ip1 -> ip1
I0504 08:20:11.479599 25740 net.cpp:144] Setting up ip1
I0504 08:20:11.479615 25740 net.cpp:151] Top shape: 20 1024 (20480)
I0504 08:20:11.479619 25740 net.cpp:159] Memory required for data: 3843120
I0504 08:20:11.479626 25740 layer_factory.hpp:77] Creating layer ip2
I0504 08:20:11.479635 25740 net.cpp:94] Creating Layer ip2
I0504 08:20:11.479638 25740 net.cpp:435] ip2 <- ip1
I0504 08:20:11.479643 25740 net.cpp:409] ip2 -> ip2
I0504 08:20:11.493403 25740 net.cpp:144] Setting up ip2
I0504 08:20:11.493419 25740 net.cpp:151] Top shape: 20 512 (10240)
I0504 08:20:11.493423 25740 net.cpp:159] Memory required for data: 3884080
I0504 08:20:11.493430 25740 layer_factory.hpp:77] Creating layer ip3
I0504 08:20:11.493441 25740 net.cpp:94] Creating Layer ip3
I0504 08:20:11.493445 25740 net.cpp:435] ip3 <- ip2
I0504 08:20:11.493451 25740 net.cpp:409] ip3 -> ip3
I0504 08:20:11.494249 25740 net.cpp:144] Setting up ip3
I0504 08:20:11.494258 25740 net.cpp:151] Top shape: 20 50 (1000)
I0504 08:20:11.494261 25740 net.cpp:159] Memory required for data: 3888080
I0504 08:20:11.494267 25740 layer_factory.hpp:77] Creating layer ip3_ip3_0_split
I0504 08:20:11.494273 25740 net.cpp:94] Creating Layer ip3_ip3_0_split
I0504 08:20:11.494277 25740 net.cpp:435] ip3_ip3_0_split <- ip3
I0504 08:20:11.494280 25740 net.cpp:409] ip3_ip3_0_split -> ip3_ip3_0_split_0
I0504 08:20:11.494287 25740 net.cpp:409] ip3_ip3_0_split -> ip3_ip3_0_split_1
I0504 08:20:11.494333 25740 net.cpp:144] Setting up ip3_ip3_0_split
I0504 08:20:11.494339 25740 net.cpp:151] Top shape: 20 50 (1000)
I0504 08:20:11.494343 25740 net.cpp:151] Top shape: 20 50 (1000)
I0504 08:20:11.494346 25740 net.cpp:159] Memory required for data: 3896080
I0504 08:20:11.494349 25740 layer_factory.hpp:77] Creating layer accuracy
I0504 08:20:11.494355 25740 net.cpp:94] Creating Layer accuracy
I0504 08:20:11.494359 25740 net.cpp:435] accuracy <- ip3_ip3_0_split_0
I0504 08:20:11.494362 25740 net.cpp:435] accuracy <- label_intercept_1_split_0
I0504 08:20:11.494367 25740 net.cpp:409] accuracy -> accuracy
…
