…
I0503 14:00:13.339493 20902 net.cpp:323] The NetState phase (0) differed from the phase (1) specified by a rule in layer intercept
I0503 14:00:13.339509 20902 net.cpp:323] The NetState phase (0) differed from the phase (1) specified by a rule in layer accuracy
I0503 14:00:13.339598 20902 net.cpp:52] Initializing net from parameters: 
state {
  phase: TRAIN
}
layer {
  name: "parameters"
  type: "HDF5Data"
  top: "data"
  top: "label"
  include {
    phase: TRAIN
  }
  hdf5_data_param {
    source: "/home/purduethu/scratch/radon/d/deng106/CNNStatisticalModel/distributions/input/50_distributions_900_sample_size_train-distributions-path.txt"
    batch_size: 20
  }
}
layer {
  name: "conv1"
  type: "Convolution"
  bottom: "data"
  top: "conv1"
  param {
    lr_mult: 1
  }
  param {
    lr_mult: 2
  }
  convolution_param {
    num_output: 64
    pad: 2
    kernel_size: 5
    stride: 1
    weight_filler {
      type: "gaussian"
      std: 0.0001
    }
    bias_filler {
      type: "constant"
    }
  }
}
layer {
  name: "relu1"
  type: "ReLU"
  bottom: "conv1"
  top: "conv1"
}
layer {
  name: "conv2"
  type: "Convolution"
  bottom: "conv1"
  top: "conv2"
  param {
    lr_mult: 1
  }
  param {
    lr_mult: 2
  }
  convolution_param {
    num_output: 64
    pad: 2
    kernel_size: 5
    stride: 1
    weight_filler {
      type: "gaussian"
      std: 0.01
    }
    bias_filler {
      type: "constant"
    }
  }
}
layer {
  name: "relu2"
  type: "ReLU"
  bottom: "conv2"
  top: "conv2"
}
layer {
  name: "pool2"
  type: "Pooling"
  bottom: "conv2"
  top: "pool2"
  pooling_param {
    pool: MAX
    kernel_size: 3
    stride: 2
  }
}
layer {
  name: "conv3"
  type: "Convolution"
  bottom: "pool2"
  top: "conv3"
  param {
    lr_mult: 1
  }
  param {
    lr_mult: 2
  }
  convolution_param {
    num_output: 128
    pad: 2
    kernel_size: 5
    stride: 1
    weight_filler {
      type: "gaussian"
      std: 0.01
    }
    bias_filler {
      type: "constant"
    }
  }
}
layer {
  name: "relu3"
  type: "ReLU"
  bottom: "conv3"
  top: "conv3"
}
layer {
  name: "conv4"
  type: "Convolution"
  bottom: "conv3"
  top: "conv4"
  param {
    lr_mult: 1
  }
  param {
    lr_mult: 2
  }
  convolution_param {
    num_output: 128
    pad: 2
    kernel_size: 5
    stride: 1
    weight_filler {
      type: "gaussian"
      std: 0.01
    }
    bias_filler {
      type: "constant"
    }
  }
}
layer {
  name: "relu4"
  type: "ReLU"
  bottom: "conv4"
  top: "conv4"
}
layer {
  name: "conv5"
  type: "Convolution"
  bottom: "conv4"
  top: "conv5"
  param {
    lr_mult: 1
  }
  param {
    lr_mult: 2
  }
  convolution_param {
    num_output: 128
    pad: 2
    kernel_size: 5
    stride: 1
    weight_filler {
      type: "gaussian"
      std: 0.01
    }
    bias_filler {
      type: "constant"
    }
  }
}
layer {
  name: "relu5"
  type: "ReLU"
  bottom: "conv5"
  top: "conv5"
}
layer {
  name: "pool5"
  type: "Pooling"
  bottom: "conv5"
  top: "pool5"
  pooling_param {
    pool: AVE
    kernel_size: 3
    stride: 2
  }
}
layer {
  name: "ip1"
  type: "InnerProduct"
  bottom: "pool5"
  top: "ip1"
  param {
    lr_mult: 1
  }
  param {
    lr_mult: 2
  }
  inner_product_param {
    num_output: 1024
    weight_filler {
      type: "gaussian"
      std: 0.1
    }
    bias_filler {
      type: "constant"
    }
  }
}
layer {
  name: "ip2"
  type: "InnerProduct"
  bottom: "ip1"
  top: "ip2"
  param {
    lr_mult: 1
  }
  param {
    lr_mult: 2
  }
  inner_product_param {
    num_output: 512
    weight_filler {
      type: "gaussian"
      std: 0.1
    }
    bias_filler {
      type: "constant"
    }
  }
}
layer {
  name: "ip3"
  type: "InnerProduct"
  bottom: "ip2"
  top: "ip3"
  param {
    lr_mult: 1
  }
  param {
    lr_mult: 2
  }
  inner_product_param {
    num_output: 50
    weight_filler {
      type: "gaussian"
      std: 0.1
    }
    bias_filler {
      type: "constant"
    }
  }
}
layer {
  name: "loss"
  type: "SoftmaxWithLoss"
  bottom: "ip3"
  bottom: "label"
  top: "loss"
}
I0503 14:00:13.339674 20902 layer_factory.hpp:77] Creating layer parameters
I0503 14:00:13.339689 20902 net.cpp:94] Creating Layer parameters
I0503 14:00:13.339696 20902 net.cpp:409] parameters -> data
I0503 14:00:13.339715 20902 net.cpp:409] parameters -> label
I0503 14:00:13.339726 20902 hdf5_data_layer.cpp:79] Loading list of HDF5 filenames from: /home/purduethu/scratch/radon/d/deng106/CNNStatisticalModel/distributions/input/50_distributions_900_sample_size_train-distributions-path.txt
I0503 14:00:13.339748 20902 hdf5_data_layer.cpp:93] Number of HDF5 files: 1
I0503 14:00:13.340315 20902 hdf5.cpp:32] Datatype class: H5T_FLOAT
I0503 14:00:14.773061 20902 hdf5.cpp:35] Datatype class: H5T_INTEGER
I0503 14:00:14.775794 20902 net.cpp:144] Setting up parameters
I0503 14:00:14.775817 20902 net.cpp:151] Top shape: 20 1 30 30 (18000)
I0503 14:00:14.775822 20902 net.cpp:151] Top shape: 20 (20)
I0503 14:00:14.775826 20902 net.cpp:159] Memory required for data: 72080
I0503 14:00:14.775833 20902 layer_factory.hpp:77] Creating layer conv1
I0503 14:00:14.775857 20902 net.cpp:94] Creating Layer conv1
I0503 14:00:14.775863 20902 net.cpp:435] conv1 <- data
I0503 14:00:14.775874 20902 net.cpp:409] conv1 -> conv1
I0503 14:00:14.781963 20902 net.cpp:144] Setting up conv1
I0503 14:00:14.782003 20902 net.cpp:151] Top shape: 20 64 30 30 (1152000)
I0503 14:00:14.782016 20902 net.cpp:159] Memory required for data: 4680080
I0503 14:00:14.782045 20902 layer_factory.hpp:77] Creating layer relu1
I0503 14:00:14.782066 20902 net.cpp:94] Creating Layer relu1
I0503 14:00:14.782078 20902 net.cpp:435] relu1 <- conv1
I0503 14:00:14.782090 20902 net.cpp:396] relu1 -> conv1 (in-place)
I0503 14:00:14.782132 20902 net.cpp:144] Setting up relu1
I0503 14:00:14.782147 20902 net.cpp:151] Top shape: 20 64 30 30 (1152000)
I0503 14:00:14.782157 20902 net.cpp:159] Memory required for data: 9288080
I0503 14:00:14.782166 20902 layer_factory.hpp:77] Creating layer conv2
I0503 14:00:14.782187 20902 net.cpp:94] Creating Layer conv2
I0503 14:00:14.782207 20902 net.cpp:435] conv2 <- conv1
I0503 14:00:14.782212 20902 net.cpp:409] conv2 -> conv2
I0503 14:00:14.798912 20902 net.cpp:144] Setting up conv2
I0503 14:00:14.798928 20902 net.cpp:151] Top shape: 20 64 30 30 (1152000)
I0503 14:00:14.798931 20902 net.cpp:159] Memory required for data: 13896080
I0503 14:00:14.798940 20902 layer_factory.hpp:77] Creating layer relu2
I0503 14:00:14.798948 20902 net.cpp:94] Creating Layer relu2
I0503 14:00:14.798951 20902 net.cpp:435] relu2 <- conv2
I0503 14:00:14.798956 20902 net.cpp:396] relu2 -> conv2 (in-place)
I0503 14:00:14.798964 20902 net.cpp:144] Setting up relu2
I0503 14:00:14.798969 20902 net.cpp:151] Top shape: 20 64 30 30 (1152000)
I0503 14:00:14.798971 20902 net.cpp:159] Memory required for data: 18504080
I0503 14:00:14.798975 20902 layer_factory.hpp:77] Creating layer pool2
I0503 14:00:14.798990 20902 net.cpp:94] Creating Layer pool2
I0503 14:00:14.798995 20902 net.cpp:435] pool2 <- conv2
I0503 14:00:14.799000 20902 net.cpp:409] pool2 -> pool2
I0503 14:00:14.799043 20902 net.cpp:144] Setting up pool2
I0503 14:00:14.799052 20902 net.cpp:151] Top shape: 20 64 15 15 (288000)
I0503 14:00:14.799054 20902 net.cpp:159] Memory required for data: 19656080
I0503 14:00:14.799058 20902 layer_factory.hpp:77] Creating layer conv3
I0503 14:00:14.799067 20902 net.cpp:94] Creating Layer conv3
I0503 14:00:14.799070 20902 net.cpp:435] conv3 <- pool2
I0503 14:00:14.799083 20902 net.cpp:409] conv3 -> conv3
I0503 14:00:14.812263 20902 net.cpp:144] Setting up conv3
I0503 14:00:14.812278 20902 net.cpp:151] Top shape: 20 128 15 15 (576000)
I0503 14:00:14.812283 20902 net.cpp:159] Memory required for data: 21960080
I0503 14:00:14.812291 20902 layer_factory.hpp:77] Creating layer relu3
I0503 14:00:14.812297 20902 net.cpp:94] Creating Layer relu3
I0503 14:00:14.812301 20902 net.cpp:435] relu3 <- conv3
I0503 14:00:14.812306 20902 net.cpp:396] relu3 -> conv3 (in-place)
I0503 14:00:14.812314 20902 net.cpp:144] Setting up relu3
I0503 14:00:14.812319 20902 net.cpp:151] Top shape: 20 128 15 15 (576000)
I0503 14:00:14.812321 20902 net.cpp:159] Memory required for data: 24264080
I0503 14:00:14.812325 20902 layer_factory.hpp:77] Creating layer conv4
I0503 14:00:14.812333 20902 net.cpp:94] Creating Layer conv4
I0503 14:00:14.812337 20902 net.cpp:435] conv4 <- conv3
I0503 14:00:14.812342 20902 net.cpp:409] conv4 -> conv4
I0503 14:00:14.835593 20902 net.cpp:144] Setting up conv4
I0503 14:00:14.835609 20902 net.cpp:151] Top shape: 20 128 15 15 (576000)
I0503 14:00:14.835613 20902 net.cpp:159] Memory required for data: 26568080
I0503 14:00:14.835620 20902 layer_factory.hpp:77] Creating layer relu4
I0503 14:00:14.835626 20902 net.cpp:94] Creating Layer relu4
I0503 14:00:14.835629 20902 net.cpp:435] relu4 <- conv4
I0503 14:00:14.835634 20902 net.cpp:396] relu4 -> conv4 (in-place)
I0503 14:00:14.835641 20902 net.cpp:144] Setting up relu4
I0503 14:00:14.835646 20902 net.cpp:151] Top shape: 20 128 15 15 (576000)
I0503 14:00:14.835649 20902 net.cpp:159] Memory required for data: 28872080
I0503 14:00:14.835652 20902 layer_factory.hpp:77] Creating layer conv5
I0503 14:00:14.835660 20902 net.cpp:94] Creating Layer conv5
I0503 14:00:14.835664 20902 net.cpp:435] conv5 <- conv4
I0503 14:00:14.835669 20902 net.cpp:409] conv5 -> conv5
I0503 14:00:14.857877 20902 net.cpp:144] Setting up conv5
I0503 14:00:14.857916 20902 net.cpp:151] Top shape: 20 128 15 15 (576000)
I0503 14:00:14.857934 20902 net.cpp:159] Memory required for data: 31176080
I0503 14:00:14.857944 20902 layer_factory.hpp:77] Creating layer relu5
I0503 14:00:14.857949 20902 net.cpp:94] Creating Layer relu5
I0503 14:00:14.857954 20902 net.cpp:435] relu5 <- conv5
I0503 14:00:14.857957 20902 net.cpp:396] relu5 -> conv5 (in-place)
I0503 14:00:14.857964 20902 net.cpp:144] Setting up relu5
I0503 14:00:14.857969 20902 net.cpp:151] Top shape: 20 128 15 15 (576000)
I0503 14:00:14.857972 20902 net.cpp:159] Memory required for data: 33480080
I0503 14:00:14.857975 20902 layer_factory.hpp:77] Creating layer pool5
I0503 14:00:14.857980 20902 net.cpp:94] Creating Layer pool5
I0503 14:00:14.857985 20902 net.cpp:435] pool5 <- conv5
I0503 14:00:14.857988 20902 net.cpp:409] pool5 -> pool5
I0503 14:00:14.858023 20902 net.cpp:144] Setting up pool5
I0503 14:00:14.858031 20902 net.cpp:151] Top shape: 20 128 7 7 (125440)
I0503 14:00:14.858033 20902 net.cpp:159] Memory required for data: 33981840
I0503 14:00:14.858037 20902 layer_factory.hpp:77] Creating layer ip1
I0503 14:00:14.858057 20902 net.cpp:94] Creating Layer ip1
I0503 14:00:14.858060 20902 net.cpp:435] ip1 <- pool5
I0503 14:00:14.858064 20902 net.cpp:409] ip1 -> ip1
I0503 14:00:15.012456 20902 net.cpp:144] Setting up ip1
I0503 14:00:15.012488 20902 net.cpp:151] Top shape: 20 1024 (20480)
I0503 14:00:15.012492 20902 net.cpp:159] Memory required for data: 34063760
I0503 14:00:15.012501 20902 layer_factory.hpp:77] Creating layer ip2
I0503 14:00:15.012521 20902 net.cpp:94] Creating Layer ip2
I0503 14:00:15.012526 20902 net.cpp:435] ip2 <- ip1
I0503 14:00:15.012533 20902 net.cpp:409] ip2 -> ip2
I0503 14:00:15.025494 20902 net.cpp:144] Setting up ip2
I0503 14:00:15.025507 20902 net.cpp:151] Top shape: 20 512 (10240)
I0503 14:00:15.025511 20902 net.cpp:159] Memory required for data: 34104720
I0503 14:00:15.025517 20902 layer_factory.hpp:77] Creating layer ip3
I0503 14:00:15.025524 20902 net.cpp:94] Creating Layer ip3
I0503 14:00:15.025528 20902 net.cpp:435] ip3 <- ip2
I0503 14:00:15.025533 20902 net.cpp:409] ip3 -> ip3
I0503 14:00:15.026837 20902 net.cpp:144] Setting up ip3
I0503 14:00:15.026849 20902 net.cpp:151] Top shape: 20 50 (1000)
I0503 14:00:15.026854 20902 net.cpp:159] Memory required for data: 34108720
I0503 14:00:15.026859 20902 layer_factory.hpp:77] Creating layer loss
I0503 14:00:15.026867 20902 net.cpp:94] Creating Layer loss
I0503 14:00:15.026871 20902 net.cpp:435] loss <- ip3
I0503 14:00:15.026875 20902 net.cpp:435] loss <- label
I0503 14:00:15.026881 20902 net.cpp:409] loss -> loss
I0503 14:00:15.026892 20902 layer_factory.hpp:77] Creating layer loss
…
I0503 14:00:15.027384 20902 solver.cpp:181] Creating test net (#0) specified by net file: ./protocol/dis_50_900_dimension.protocol_distribution
I0503 14:00:15.027412 20902 net.cpp:323] The NetState phase (1) differed from the phase (0) specified by a rule in layer parameters
I0503 14:00:15.027508 20902 net.cpp:52] Initializing net from parameters: 
state {
  phase: TEST
}
layer {
  name: "intercept"
  type: "HDF5Data"
  top: "data"
  top: "label"
  include {
    phase: TEST
  }
  hdf5_data_param {
    source: "/home/purduethu/scratch/radon/d/deng106/CNNStatisticalModel/distributions/input/50_distributions_900_sample_size_test-distributions-path.txt"
    batch_size: 20
  }
}
layer {
  name: "conv1"
  type: "Convolution"
  bottom: "data"
  top: "conv1"
  param {
    lr_mult: 1
  }
  param {
    lr_mult: 2
  }
  convolution_param {
    num_output: 64
    pad: 2
    kernel_size: 5
    stride: 1
    weight_filler {
      type: "gaussian"
      std: 0.0001
    }
    bias_filler {
      type: "constant"
    }
  }
}
layer {
  name: "relu1"
  type: "ReLU"
  bottom: "conv1"
  top: "conv1"
}
layer {
  name: "conv2"
  type: "Convolution"
  bottom: "conv1"
  top: "conv2"
  param {
    lr_mult: 1
  }
  param {
    lr_mult: 2
  }
  convolution_param {
    num_output: 64
    pad: 2
    kernel_size: 5
    stride: 1
    weight_filler {
      type: "gaussian"
      std: 0.01
    }
    bias_filler {
      type: "constant"
    }
  }
}
layer {
  name: "relu2"
  type: "ReLU"
  bottom: "conv2"
  top: "conv2"
}
layer {
  name: "pool2"
  type: "Pooling"
  bottom: "conv2"
  top: "pool2"
  pooling_param {
    pool: MAX
    kernel_size: 3
    stride: 2
  }
}
layer {
  name: "conv3"
  type: "Convolution"
  bottom: "pool2"
  top: "conv3"
  param {
    lr_mult: 1
  }
  param {
    lr_mult: 2
  }
  convolution_param {
    num_output: 128
    pad: 2
    kernel_size: 5
    stride: 1
    weight_filler {
      type: "gaussian"
      std: 0.01
    }
    bias_filler {
      type: "constant"
    }
  }
}
layer {
  name: "relu3"
  type: "ReLU"
  bottom: "conv3"
  top: "conv3"
}
layer {
  name: "conv4"
  type: "Convolution"
  bottom: "conv3"
  top: "conv4"
  param {
    lr_mult: 1
  }
  param {
    lr_mult: 2
  }
  convolution_param {
    num_output: 128
    pad: 2
    kernel_size: 5
    stride: 1
    weight_filler {
      type: "gaussian"
      std: 0.01
    }
    bias_filler {
      type: "constant"
    }
  }
}
layer {
  name: "relu4"
  type: "ReLU"
  bottom: "conv4"
  top: "conv4"
}
layer {
  name: "conv5"
  type: "Convolution"
  bottom: "conv4"
  top: "conv5"
  param {
    lr_mult: 1
  }
  param {
    lr_mult: 2
  }
  convolution_param {
    num_output: 128
    pad: 2
    kernel_size: 5
    stride: 1
    weight_filler {
      type: "gaussian"
      std: 0.01
    }
    bias_filler {
      type: "constant"
    }
  }
}
layer {
  name: "relu5"
  type: "ReLU"
  bottom: "conv5"
  top: "conv5"
}
layer {
  name: "pool5"
  type: "Pooling"
  bottom: "conv5"
  top: "pool5"
  pooling_param {
    pool: AVE
    kernel_size: 3
    stride: 2
  }
}
layer {
  name: "ip1"
  type: "InnerProduct"
  bottom: "pool5"
  top: "ip1"
  param {
    lr_mult: 1
  }
  param {
    lr_mult: 2
  }
  inner_product_param {
    num_output: 1024
    weight_filler {
      type: "gaussian"
      std: 0.1
    }
    bias_filler {
      type: "constant"
    }
  }
}
layer {
  name: "ip2"
  type: "InnerProduct"
  bottom: "ip1"
  top: "ip2"
  param {
    lr_mult: 1
  }
  param {
    lr_mult: 2
  }
  inner_product_param {
    num_output: 512
    weight_filler {
      type: "gaussian"
      std: 0.1
    }
    bias_filler {
      type: "constant"
    }
  }
}
layer {
  name: "ip3"
  type: "InnerProduct"
  bottom: "ip2"
  top: "ip3"
  param {
    lr_mult: 1
  }
  param {
    lr_mult: 2
  }
  inner_product_param {
    num_output: 50
    weight_filler {
      type: "gaussian"
      std: 0.1
    }
    bias_filler {
      type: "constant"
    }
  }
}
layer {
  name: "accuracy"
  type: "Accuracy"
  bottom: "ip3"
  bottom: "label"
  top: "accuracy"
  include {
    phase: TEST
  }
}
layer {
  name: "loss"
  type: "SoftmaxWithLoss"
  bottom: "ip3"
  bottom: "label"
  top: "loss"
}
I0503 14:00:15.027580 20902 layer_factory.hpp:77] Creating layer intercept
I0503 14:00:15.027588 20902 net.cpp:94] Creating Layer intercept
I0503 14:00:15.027592 20902 net.cpp:409] intercept -> data
I0503 14:00:15.027600 20902 net.cpp:409] intercept -> label
I0503 14:00:15.027606 20902 hdf5_data_layer.cpp:79] Loading list of HDF5 filenames from: /home/purduethu/scratch/radon/d/deng106/CNNStatisticalModel/distributions/input/50_distributions_900_sample_size_test-distributions-path.txt
I0503 14:00:15.027624 20902 hdf5_data_layer.cpp:93] Number of HDF5 files: 1
I0503 14:00:15.387408 20902 net.cpp:144] Setting up intercept
I0503 14:00:15.387446 20902 net.cpp:151] Top shape: 20 1 30 30 (18000)
I0503 14:00:15.387452 20902 net.cpp:151] Top shape: 20 (20)
I0503 14:00:15.387456 20902 net.cpp:159] Memory required for data: 72080
I0503 14:00:15.387461 20902 layer_factory.hpp:77] Creating layer label_intercept_1_split
I0503 14:00:15.387482 20902 net.cpp:94] Creating Layer label_intercept_1_split
I0503 14:00:15.387487 20902 net.cpp:435] label_intercept_1_split <- label
I0503 14:00:15.387493 20902 net.cpp:409] label_intercept_1_split -> label_intercept_1_split_0
I0503 14:00:15.387511 20902 net.cpp:409] label_intercept_1_split -> label_intercept_1_split_1
I0503 14:00:15.387538 20902 net.cpp:144] Setting up label_intercept_1_split
I0503 14:00:15.387545 20902 net.cpp:151] Top shape: 20 (20)
I0503 14:00:15.387549 20902 net.cpp:151] Top shape: 20 (20)
I0503 14:00:15.387552 20902 net.cpp:159] Memory required for data: 72240
I0503 14:00:15.387555 20902 layer_factory.hpp:77] Creating layer conv1
I0503 14:00:15.387567 20902 net.cpp:94] Creating Layer conv1
I0503 14:00:15.387570 20902 net.cpp:435] conv1 <- data
I0503 14:00:15.387575 20902 net.cpp:409] conv1 -> conv1
I0503 14:00:15.388944 20902 net.cpp:144] Setting up conv1
I0503 14:00:15.388958 20902 net.cpp:151] Top shape: 20 64 30 30 (1152000)
I0503 14:00:15.388962 20902 net.cpp:159] Memory required for data: 4680240
I0503 14:00:15.388972 20902 layer_factory.hpp:77] Creating layer relu1
I0503 14:00:15.388980 20902 net.cpp:94] Creating Layer relu1
I0503 14:00:15.388984 20902 net.cpp:435] relu1 <- conv1
I0503 14:00:15.388988 20902 net.cpp:396] relu1 -> conv1 (in-place)
I0503 14:00:15.388996 20902 net.cpp:144] Setting up relu1
I0503 14:00:15.389000 20902 net.cpp:151] Top shape: 20 64 30 30 (1152000)
I0503 14:00:15.389003 20902 net.cpp:159] Memory required for data: 9288240
I0503 14:00:15.389008 20902 layer_factory.hpp:77] Creating layer conv2
I0503 14:00:15.389015 20902 net.cpp:94] Creating Layer conv2
I0503 14:00:15.389019 20902 net.cpp:435] conv2 <- conv1
I0503 14:00:15.389024 20902 net.cpp:409] conv2 -> conv2
I0503 14:00:15.395560 20902 net.cpp:144] Setting up conv2
I0503 14:00:15.395599 20902 net.cpp:151] Top shape: 20 64 30 30 (1152000)
I0503 14:00:15.395612 20902 net.cpp:159] Memory required for data: 13896240
I0503 14:00:15.395635 20902 layer_factory.hpp:77] Creating layer relu2
I0503 14:00:15.395653 20902 net.cpp:94] Creating Layer relu2
I0503 14:00:15.395663 20902 net.cpp:435] relu2 <- conv2
I0503 14:00:15.395676 20902 net.cpp:396] relu2 -> conv2 (in-place)
I0503 14:00:15.395696 20902 net.cpp:144] Setting up relu2
I0503 14:00:15.395710 20902 net.cpp:151] Top shape: 20 64 30 30 (1152000)
I0503 14:00:15.395720 20902 net.cpp:159] Memory required for data: 18504240
I0503 14:00:15.395730 20902 layer_factory.hpp:77] Creating layer pool2
I0503 14:00:15.395743 20902 net.cpp:94] Creating Layer pool2
I0503 14:00:15.395753 20902 net.cpp:435] pool2 <- conv2
I0503 14:00:15.395766 20902 net.cpp:409] pool2 -> pool2
I0503 14:00:15.395859 20902 net.cpp:144] Setting up pool2
I0503 14:00:15.395885 20902 net.cpp:151] Top shape: 20 64 15 15 (288000)
I0503 14:00:15.395889 20902 net.cpp:159] Memory required for data: 19656240
I0503 14:00:15.395891 20902 layer_factory.hpp:77] Creating layer conv3
I0503 14:00:15.395900 20902 net.cpp:94] Creating Layer conv3
I0503 14:00:15.395903 20902 net.cpp:435] conv3 <- pool2
I0503 14:00:15.395908 20902 net.cpp:409] conv3 -> conv3
I0503 14:00:15.403479 20902 net.cpp:144] Setting up conv3
I0503 14:00:15.403496 20902 net.cpp:151] Top shape: 20 128 15 15 (576000)
I0503 14:00:15.403499 20902 net.cpp:159] Memory required for data: 21960240
I0503 14:00:15.403507 20902 layer_factory.hpp:77] Creating layer relu3
I0503 14:00:15.403514 20902 net.cpp:94] Creating Layer relu3
I0503 14:00:15.403518 20902 net.cpp:435] relu3 <- conv3
I0503 14:00:15.403523 20902 net.cpp:396] relu3 -> conv3 (in-place)
I0503 14:00:15.403532 20902 net.cpp:144] Setting up relu3
I0503 14:00:15.403535 20902 net.cpp:151] Top shape: 20 128 15 15 (576000)
I0503 14:00:15.403538 20902 net.cpp:159] Memory required for data: 24264240
I0503 14:00:15.403542 20902 layer_factory.hpp:77] Creating layer conv4
I0503 14:00:15.403549 20902 net.cpp:94] Creating Layer conv4
I0503 14:00:15.403553 20902 net.cpp:435] conv4 <- conv3
I0503 14:00:15.403558 20902 net.cpp:409] conv4 -> conv4
I0503 14:00:15.418707 20902 net.cpp:144] Setting up conv4
I0503 14:00:15.418723 20902 net.cpp:151] Top shape: 20 128 15 15 (576000)
I0503 14:00:15.418727 20902 net.cpp:159] Memory required for data: 26568240
I0503 14:00:15.418733 20902 layer_factory.hpp:77] Creating layer relu4
I0503 14:00:15.418740 20902 net.cpp:94] Creating Layer relu4
I0503 14:00:15.418747 20902 net.cpp:435] relu4 <- conv4
I0503 14:00:15.418753 20902 net.cpp:396] relu4 -> conv4 (in-place)
I0503 14:00:15.418761 20902 net.cpp:144] Setting up relu4
I0503 14:00:15.418766 20902 net.cpp:151] Top shape: 20 128 15 15 (576000)
I0503 14:00:15.418768 20902 net.cpp:159] Memory required for data: 28872240
I0503 14:00:15.418772 20902 layer_factory.hpp:77] Creating layer conv5
I0503 14:00:15.418779 20902 net.cpp:94] Creating Layer conv5
I0503 14:00:15.418783 20902 net.cpp:435] conv5 <- conv4
I0503 14:00:15.418788 20902 net.cpp:409] conv5 -> conv5
I0503 14:00:15.433630 20902 net.cpp:144] Setting up conv5
I0503 14:00:15.433646 20902 net.cpp:151] Top shape: 20 128 15 15 (576000)
I0503 14:00:15.433650 20902 net.cpp:159] Memory required for data: 31176240
I0503 14:00:15.433660 20902 layer_factory.hpp:77] Creating layer relu5
I0503 14:00:15.433665 20902 net.cpp:94] Creating Layer relu5
I0503 14:00:15.433670 20902 net.cpp:435] relu5 <- conv5
I0503 14:00:15.433673 20902 net.cpp:396] relu5 -> conv5 (in-place)
I0503 14:00:15.433681 20902 net.cpp:144] Setting up relu5
I0503 14:00:15.433686 20902 net.cpp:151] Top shape: 20 128 15 15 (576000)
I0503 14:00:15.433688 20902 net.cpp:159] Memory required for data: 33480240
I0503 14:00:15.433691 20902 layer_factory.hpp:77] Creating layer pool5
I0503 14:00:15.433696 20902 net.cpp:94] Creating Layer pool5
I0503 14:00:15.433699 20902 net.cpp:435] pool5 <- conv5
I0503 14:00:15.433703 20902 net.cpp:409] pool5 -> pool5
I0503 14:00:15.433729 20902 net.cpp:144] Setting up pool5
I0503 14:00:15.433737 20902 net.cpp:151] Top shape: 20 128 7 7 (125440)
I0503 14:00:15.433739 20902 net.cpp:159] Memory required for data: 33982000
I0503 14:00:15.433743 20902 layer_factory.hpp:77] Creating layer ip1
I0503 14:00:15.433749 20902 net.cpp:94] Creating Layer ip1
I0503 14:00:15.433753 20902 net.cpp:435] ip1 <- pool5
I0503 14:00:15.433758 20902 net.cpp:409] ip1 -> ip1
I0503 14:00:15.588320 20902 net.cpp:144] Setting up ip1
I0503 14:00:15.588356 20902 net.cpp:151] Top shape: 20 1024 (20480)
I0503 14:00:15.588359 20902 net.cpp:159] Memory required for data: 34063920
I0503 14:00:15.588367 20902 layer_factory.hpp:77] Creating layer ip2
I0503 14:00:15.588378 20902 net.cpp:94] Creating Layer ip2
I0503 14:00:15.588382 20902 net.cpp:435] ip2 <- ip1
I0503 14:00:15.588389 20902 net.cpp:409] ip2 -> ip2
I0503 14:00:15.601351 20902 net.cpp:144] Setting up ip2
I0503 14:00:15.601363 20902 net.cpp:151] Top shape: 20 512 (10240)
I0503 14:00:15.601367 20902 net.cpp:159] Memory required for data: 34104880
I0503 14:00:15.601373 20902 layer_factory.hpp:77] Creating layer ip3
I0503 14:00:15.601382 20902 net.cpp:94] Creating Layer ip3
I0503 14:00:15.601385 20902 net.cpp:435] ip3 <- ip2
I0503 14:00:15.601390 20902 net.cpp:409] ip3 -> ip3
I0503 14:00:15.602062 20902 net.cpp:144] Setting up ip3
I0503 14:00:15.602069 20902 net.cpp:151] Top shape: 20 50 (1000)
I0503 14:00:15.602073 20902 net.cpp:159] Memory required for data: 34108880
I0503 14:00:15.602077 20902 layer_factory.hpp:77] Creating layer ip3_ip3_0_split
I0503 14:00:15.602087 20902 net.cpp:94] Creating Layer ip3_ip3_0_split
I0503 14:00:15.602089 20902 net.cpp:435] ip3_ip3_0_split <- ip3
I0503 14:00:15.602093 20902 net.cpp:409] ip3_ip3_0_split -> ip3_ip3_0_split_0
I0503 14:00:15.602099 20902 net.cpp:409] ip3_ip3_0_split -> ip3_ip3_0_split_1
I0503 14:00:15.602126 20902 net.cpp:144] Setting up ip3_ip3_0_split
I0503 14:00:15.602133 20902 net.cpp:151] Top shape: 20 50 (1000)
I0503 14:00:15.602135 20902 net.cpp:151] Top shape: 20 50 (1000)
I0503 14:00:15.602138 20902 net.cpp:159] Memory required for data: 34116880
I0503 14:00:15.602141 20902 layer_factory.hpp:77] Creating layer accuracy
I0503 14:00:15.602147 20902 net.cpp:94] Creating Layer accuracy
I0503 14:00:15.602150 20902 net.cpp:435] accuracy <- ip3_ip3_0_split_0
I0503 14:00:15.602154 20902 net.cpp:435] accuracy <- label_intercept_1_split_0
I0503 14:00:15.602159 20902 net.cpp:409] accuracy -> accuracy
…
