…
I0501 20:36:25.675914 14554 net.cpp:323] The NetState phase (0) differed from the phase (1) specified by a rule in layer intercept
I0501 20:36:25.675930 14554 net.cpp:323] The NetState phase (0) differed from the phase (1) specified by a rule in layer accuracy
I0501 20:36:25.676023 14554 net.cpp:52] Initializing net from parameters: 
state {
  phase: TRAIN
}
layer {
  name: "parameters"
  type: "HDF5Data"
  top: "data"
  top: "label"
  include {
    phase: TRAIN
  }
  hdf5_data_param {
    source: "/home/purduethu/scratch/radon/d/deng106/CNNStatisticalModel/distributions/input/50_distributions_400_sample_size_train-distributions-path.txt"
    batch_size: 20
  }
}
layer {
  name: "conv1"
  type: "Convolution"
  bottom: "data"
  top: "conv1"
  param {
    lr_mult: 1
  }
  param {
    lr_mult: 2
  }
  convolution_param {
    num_output: 64
    pad: 2
    kernel_size: 5
    stride: 1
    weight_filler {
      type: "gaussian"
      std: 0.0001
    }
    bias_filler {
      type: "constant"
    }
  }
}
layer {
  name: "relu1"
  type: "ReLU"
  bottom: "conv1"
  top: "conv1"
}
layer {
  name: "conv2"
  type: "Convolution"
  bottom: "conv1"
  top: "conv2"
  param {
    lr_mult: 1
  }
  param {
    lr_mult: 2
  }
  convolution_param {
    num_output: 64
    pad: 2
    kernel_size: 5
    stride: 1
    weight_filler {
      type: "gaussian"
      std: 0.01
    }
    bias_filler {
      type: "constant"
    }
  }
}
layer {
  name: "relu2"
  type: "ReLU"
  bottom: "conv2"
  top: "conv2"
}
layer {
  name: "pool2"
  type: "Pooling"
  bottom: "conv2"
  top: "pool2"
  pooling_param {
    pool: MAX
    kernel_size: 3
    stride: 2
  }
}
layer {
  name: "conv3"
  type: "Convolution"
  bottom: "pool2"
  top: "conv3"
  param {
    lr_mult: 1
  }
  param {
    lr_mult: 2
  }
  convolution_param {
    num_output: 64
    pad: 2
    kernel_size: 5
    stride: 1
    weight_filler {
      type: "gaussian"
      std: 0.01
    }
    bias_filler {
      type: "constant"
    }
  }
}
layer {
  name: "relu3"
  type: "ReLU"
  bottom: "conv3"
  top: "conv3"
}
layer {
  name: "conv4"
  type: "Convolution"
  bottom: "conv3"
  top: "conv4"
  param {
    lr_mult: 1
  }
  param {
    lr_mult: 2
  }
  convolution_param {
    num_output: 64
    pad: 2
    kernel_size: 5
    stride: 1
    weight_filler {
      type: "gaussian"
      std: 0.01
    }
    bias_filler {
      type: "constant"
    }
  }
}
layer {
  name: "relu4"
  type: "ReLU"
  bottom: "conv4"
  top: "conv4"
}
layer {
  name: "conv5"
  type: "Convolution"
  bottom: "conv4"
  top: "conv5"
  param {
    lr_mult: 1
  }
  param {
    lr_mult: 2
  }
  convolution_param {
    num_output: 64
    pad: 2
    kernel_size: 5
    stride: 1
    weight_filler {
      type: "gaussian"
      std: 0.01
    }
    bias_filler {
      type: "constant"
    }
  }
}
layer {
  name: "relu5"
  type: "ReLU"
  bottom: "conv5"
  top: "conv5"
}
layer {
  name: "pool5"
  type: "Pooling"
  bottom: "conv5"
  top: "pool5"
  pooling_param {
    pool: AVE
    kernel_size: 3
    stride: 2
  }
}
layer {
  name: "ip1"
  type: "InnerProduct"
  bottom: "pool5"
  top: "ip1"
  param {
    lr_mult: 1
  }
  param {
    lr_mult: 2
  }
  inner_product_param {
    num_output: 64
    weight_filler {
      type: "gaussian"
      std: 0.1
    }
    bias_filler {
      type: "constant"
    }
  }
}
layer {
  name: "ip2"
  type: "InnerProduct"
  bottom: "ip1"
  top: "ip2"
  param {
    lr_mult: 1
  }
  param {
    lr_mult: 2
  }
  inner_product_param {
    num_output: 64
    weight_filler {
      type: "gaussian"
      std: 0.1
    }
    bias_filler {
      type: "constant"
    }
  }
}
layer {
  name: "ip3"
  type: "InnerProduct"
  bottom: "ip2"
  top: "ip3"
  param {
    lr_mult: 1
  }
  param {
    lr_mult: 2
  }
  inner_product_param {
    num_output: 50
    weight_filler {
      type: "gaussian"
      std: 0.1
    }
    bias_filler {
      type: "constant"
    }
  }
}
layer {
  name: "loss"
  type: "SoftmaxWithLoss"
  bottom: "ip3"
  bottom: "label"
  top: "loss"
}
I0501 20:36:25.676103 14554 layer_factory.hpp:77] Creating layer parameters
I0501 20:36:25.676118 14554 net.cpp:94] Creating Layer parameters
I0501 20:36:25.676125 14554 net.cpp:409] parameters -> data
I0501 20:36:25.676146 14554 net.cpp:409] parameters -> label
I0501 20:36:25.676161 14554 hdf5_data_layer.cpp:79] Loading list of HDF5 filenames from: /home/purduethu/scratch/radon/d/deng106/CNNStatisticalModel/distributions/input/50_distributions_400_sample_size_train-distributions-path.txt
I0501 20:36:25.676184 14554 hdf5_data_layer.cpp:93] Number of HDF5 files: 1
I0501 20:36:25.676803 14554 hdf5.cpp:32] Datatype class: H5T_FLOAT
I0501 20:36:26.331120 14554 hdf5.cpp:35] Datatype class: H5T_INTEGER
I0501 20:36:26.333873 14554 net.cpp:144] Setting up parameters
I0501 20:36:26.333891 14554 net.cpp:151] Top shape: 20 1 20 20 (8000)
I0501 20:36:26.333897 14554 net.cpp:151] Top shape: 20 (20)
I0501 20:36:26.333900 14554 net.cpp:159] Memory required for data: 32080
I0501 20:36:26.333909 14554 layer_factory.hpp:77] Creating layer conv1
I0501 20:36:26.333932 14554 net.cpp:94] Creating Layer conv1
I0501 20:36:26.333938 14554 net.cpp:435] conv1 <- data
I0501 20:36:26.333950 14554 net.cpp:409] conv1 -> conv1
I0501 20:36:26.338744 14554 net.cpp:144] Setting up conv1
I0501 20:36:26.338759 14554 net.cpp:151] Top shape: 20 64 20 20 (512000)
I0501 20:36:26.338764 14554 net.cpp:159] Memory required for data: 2080080
I0501 20:36:26.338775 14554 layer_factory.hpp:77] Creating layer relu1
I0501 20:36:26.338783 14554 net.cpp:94] Creating Layer relu1
I0501 20:36:26.338788 14554 net.cpp:435] relu1 <- conv1
I0501 20:36:26.338793 14554 net.cpp:396] relu1 -> conv1 (in-place)
I0501 20:36:26.338807 14554 net.cpp:144] Setting up relu1
I0501 20:36:26.338812 14554 net.cpp:151] Top shape: 20 64 20 20 (512000)
I0501 20:36:26.338815 14554 net.cpp:159] Memory required for data: 4128080
I0501 20:36:26.338819 14554 layer_factory.hpp:77] Creating layer conv2
I0501 20:36:26.338826 14554 net.cpp:94] Creating Layer conv2
I0501 20:36:26.338830 14554 net.cpp:435] conv2 <- conv1
I0501 20:36:26.338835 14554 net.cpp:409] conv2 -> conv2
I0501 20:36:26.349900 14554 net.cpp:144] Setting up conv2
I0501 20:36:26.349915 14554 net.cpp:151] Top shape: 20 64 20 20 (512000)
I0501 20:36:26.349920 14554 net.cpp:159] Memory required for data: 6176080
I0501 20:36:26.349927 14554 layer_factory.hpp:77] Creating layer relu2
I0501 20:36:26.349933 14554 net.cpp:94] Creating Layer relu2
I0501 20:36:26.349937 14554 net.cpp:435] relu2 <- conv2
I0501 20:36:26.349942 14554 net.cpp:396] relu2 -> conv2 (in-place)
I0501 20:36:26.349949 14554 net.cpp:144] Setting up relu2
I0501 20:36:26.349953 14554 net.cpp:151] Top shape: 20 64 20 20 (512000)
I0501 20:36:26.349956 14554 net.cpp:159] Memory required for data: 8224080
I0501 20:36:26.349959 14554 layer_factory.hpp:77] Creating layer pool2
I0501 20:36:26.349973 14554 net.cpp:94] Creating Layer pool2
I0501 20:36:26.349977 14554 net.cpp:435] pool2 <- conv2
I0501 20:36:26.349982 14554 net.cpp:409] pool2 -> pool2
I0501 20:36:26.350024 14554 net.cpp:144] Setting up pool2
I0501 20:36:26.350033 14554 net.cpp:151] Top shape: 20 64 10 10 (128000)
I0501 20:36:26.350035 14554 net.cpp:159] Memory required for data: 8736080
I0501 20:36:26.350039 14554 layer_factory.hpp:77] Creating layer conv3
I0501 20:36:26.350046 14554 net.cpp:94] Creating Layer conv3
I0501 20:36:26.350049 14554 net.cpp:435] conv3 <- pool2
I0501 20:36:26.350062 14554 net.cpp:409] conv3 -> conv3
I0501 20:36:26.355289 14554 net.cpp:144] Setting up conv3
I0501 20:36:26.355304 14554 net.cpp:151] Top shape: 20 64 10 10 (128000)
I0501 20:36:26.355307 14554 net.cpp:159] Memory required for data: 9248080
I0501 20:36:26.355315 14554 layer_factory.hpp:77] Creating layer relu3
I0501 20:36:26.355320 14554 net.cpp:94] Creating Layer relu3
I0501 20:36:26.355324 14554 net.cpp:435] relu3 <- conv3
I0501 20:36:26.355329 14554 net.cpp:396] relu3 -> conv3 (in-place)
I0501 20:36:26.355335 14554 net.cpp:144] Setting up relu3
I0501 20:36:26.355340 14554 net.cpp:151] Top shape: 20 64 10 10 (128000)
I0501 20:36:26.355343 14554 net.cpp:159] Memory required for data: 9760080
I0501 20:36:26.355346 14554 layer_factory.hpp:77] Creating layer conv4
I0501 20:36:26.355355 14554 net.cpp:94] Creating Layer conv4
I0501 20:36:26.355358 14554 net.cpp:435] conv4 <- conv3
I0501 20:36:26.355362 14554 net.cpp:409] conv4 -> conv4
I0501 20:36:26.360590 14554 net.cpp:144] Setting up conv4
I0501 20:36:26.360605 14554 net.cpp:151] Top shape: 20 64 10 10 (128000)
I0501 20:36:26.360608 14554 net.cpp:159] Memory required for data: 10272080
I0501 20:36:26.360615 14554 layer_factory.hpp:77] Creating layer relu4
I0501 20:36:26.360620 14554 net.cpp:94] Creating Layer relu4
I0501 20:36:26.360625 14554 net.cpp:435] relu4 <- conv4
I0501 20:36:26.360628 14554 net.cpp:396] relu4 -> conv4 (in-place)
I0501 20:36:26.360635 14554 net.cpp:144] Setting up relu4
I0501 20:36:26.360640 14554 net.cpp:151] Top shape: 20 64 10 10 (128000)
I0501 20:36:26.360642 14554 net.cpp:159] Memory required for data: 10784080
I0501 20:36:26.360646 14554 layer_factory.hpp:77] Creating layer conv5
I0501 20:36:26.360653 14554 net.cpp:94] Creating Layer conv5
I0501 20:36:26.360656 14554 net.cpp:435] conv5 <- conv4
I0501 20:36:26.360661 14554 net.cpp:409] conv5 -> conv5
I0501 20:36:26.365838 14554 net.cpp:144] Setting up conv5
I0501 20:36:26.365851 14554 net.cpp:151] Top shape: 20 64 10 10 (128000)
I0501 20:36:26.365855 14554 net.cpp:159] Memory required for data: 11296080
I0501 20:36:26.365864 14554 layer_factory.hpp:77] Creating layer relu5
I0501 20:36:26.365869 14554 net.cpp:94] Creating Layer relu5
I0501 20:36:26.365873 14554 net.cpp:435] relu5 <- conv5
I0501 20:36:26.365878 14554 net.cpp:396] relu5 -> conv5 (in-place)
I0501 20:36:26.365885 14554 net.cpp:144] Setting up relu5
I0501 20:36:26.365890 14554 net.cpp:151] Top shape: 20 64 10 10 (128000)
I0501 20:36:26.365892 14554 net.cpp:159] Memory required for data: 11808080
I0501 20:36:26.365895 14554 layer_factory.hpp:77] Creating layer pool5
I0501 20:36:26.365900 14554 net.cpp:94] Creating Layer pool5
I0501 20:36:26.365903 14554 net.cpp:435] pool5 <- conv5
I0501 20:36:26.365907 14554 net.cpp:409] pool5 -> pool5
I0501 20:36:26.365942 14554 net.cpp:144] Setting up pool5
I0501 20:36:26.365948 14554 net.cpp:151] Top shape: 20 64 5 5 (32000)
I0501 20:36:26.365952 14554 net.cpp:159] Memory required for data: 11936080
I0501 20:36:26.365954 14554 layer_factory.hpp:77] Creating layer ip1
I0501 20:36:26.365963 14554 net.cpp:94] Creating Layer ip1
I0501 20:36:26.365967 14554 net.cpp:435] ip1 <- pool5
I0501 20:36:26.365972 14554 net.cpp:409] ip1 -> ip1
I0501 20:36:26.368432 14554 net.cpp:144] Setting up ip1
I0501 20:36:26.368439 14554 net.cpp:151] Top shape: 20 64 (1280)
I0501 20:36:26.368443 14554 net.cpp:159] Memory required for data: 11941200
I0501 20:36:26.368448 14554 layer_factory.hpp:77] Creating layer ip2
I0501 20:36:26.368458 14554 net.cpp:94] Creating Layer ip2
I0501 20:36:26.368461 14554 net.cpp:435] ip2 <- ip1
I0501 20:36:26.368466 14554 net.cpp:409] ip2 -> ip2
I0501 20:36:26.368649 14554 net.cpp:144] Setting up ip2
I0501 20:36:26.368656 14554 net.cpp:151] Top shape: 20 64 (1280)
I0501 20:36:26.368659 14554 net.cpp:159] Memory required for data: 11946320
I0501 20:36:26.368664 14554 layer_factory.hpp:77] Creating layer ip3
I0501 20:36:26.368670 14554 net.cpp:94] Creating Layer ip3
I0501 20:36:26.368674 14554 net.cpp:435] ip3 <- ip2
I0501 20:36:26.368679 14554 net.cpp:409] ip3 -> ip3
I0501 20:36:26.368826 14554 net.cpp:144] Setting up ip3
I0501 20:36:26.368832 14554 net.cpp:151] Top shape: 20 50 (1000)
I0501 20:36:26.368835 14554 net.cpp:159] Memory required for data: 11950320
I0501 20:36:26.368840 14554 layer_factory.hpp:77] Creating layer loss
I0501 20:36:26.368846 14554 net.cpp:94] Creating Layer loss
I0501 20:36:26.368850 14554 net.cpp:435] loss <- ip3
I0501 20:36:26.368854 14554 net.cpp:435] loss <- label
I0501 20:36:26.368860 14554 net.cpp:409] loss -> loss
I0501 20:36:26.368868 14554 layer_factory.hpp:77] Creating layer loss
…
I0501 20:36:26.369357 14554 solver.cpp:181] Creating test net (#0) specified by net file: ./protocol/dis_50_400_dimension.protocol_distribution
I0501 20:36:26.369382 14554 net.cpp:323] The NetState phase (1) differed from the phase (0) specified by a rule in layer parameters
I0501 20:36:26.369474 14554 net.cpp:52] Initializing net from parameters: 
state {
  phase: TEST
}
layer {
  name: "intercept"
  type: "HDF5Data"
  top: "data"
  top: "label"
  include {
    phase: TEST
  }
  hdf5_data_param {
    source: "/home/purduethu/scratch/radon/d/deng106/CNNStatisticalModel/distributions/input/50_distributions_400_sample_size_test-distributions-path.txt"
    batch_size: 20
  }
}
layer {
  name: "conv1"
  type: "Convolution"
  bottom: "data"
  top: "conv1"
  param {
    lr_mult: 1
  }
  param {
    lr_mult: 2
  }
  convolution_param {
    num_output: 64
    pad: 2
    kernel_size: 5
    stride: 1
    weight_filler {
      type: "gaussian"
      std: 0.0001
    }
    bias_filler {
      type: "constant"
    }
  }
}
layer {
  name: "relu1"
  type: "ReLU"
  bottom: "conv1"
  top: "conv1"
}
layer {
  name: "conv2"
  type: "Convolution"
  bottom: "conv1"
  top: "conv2"
  param {
    lr_mult: 1
  }
  param {
    lr_mult: 2
  }
  convolution_param {
    num_output: 64
    pad: 2
    kernel_size: 5
    stride: 1
    weight_filler {
      type: "gaussian"
      std: 0.01
    }
    bias_filler {
      type: "constant"
    }
  }
}
layer {
  name: "relu2"
  type: "ReLU"
  bottom: "conv2"
  top: "conv2"
}
layer {
  name: "pool2"
  type: "Pooling"
  bottom: "conv2"
  top: "pool2"
  pooling_param {
    pool: MAX
    kernel_size: 3
    stride: 2
  }
}
layer {
  name: "conv3"
  type: "Convolution"
  bottom: "pool2"
  top: "conv3"
  param {
    lr_mult: 1
  }
  param {
    lr_mult: 2
  }
  convolution_param {
    num_output: 64
    pad: 2
    kernel_size: 5
    stride: 1
    weight_filler {
      type: "gaussian"
      std: 0.01
    }
    bias_filler {
      type: "constant"
    }
  }
}
layer {
  name: "relu3"
  type: "ReLU"
  bottom: "conv3"
  top: "conv3"
}
layer {
  name: "conv4"
  type: "Convolution"
  bottom: "conv3"
  top: "conv4"
  param {
    lr_mult: 1
  }
  param {
    lr_mult: 2
  }
  convolution_param {
    num_output: 64
    pad: 2
    kernel_size: 5
    stride: 1
    weight_filler {
      type: "gaussian"
      std: 0.01
    }
    bias_filler {
      type: "constant"
    }
  }
}
layer {
  name: "relu4"
  type: "ReLU"
  bottom: "conv4"
  top: "conv4"
}
layer {
  name: "conv5"
  type: "Convolution"
  bottom: "conv4"
  top: "conv5"
  param {
    lr_mult: 1
  }
  param {
    lr_mult: 2
  }
  convolution_param {
    num_output: 64
    pad: 2
    kernel_size: 5
    stride: 1
    weight_filler {
      type: "gaussian"
      std: 0.01
    }
    bias_filler {
      type: "constant"
    }
  }
}
layer {
  name: "relu5"
  type: "ReLU"
  bottom: "conv5"
  top: "conv5"
}
layer {
  name: "pool5"
  type: "Pooling"
  bottom: "conv5"
  top: "pool5"
  pooling_param {
    pool: AVE
    kernel_size: 3
    stride: 2
  }
}
layer {
  name: "ip1"
  type: "InnerProduct"
  bottom: "pool5"
  top: "ip1"
  param {
    lr_mult: 1
  }
  param {
    lr_mult: 2
  }
  inner_product_param {
    num_output: 64
    weight_filler {
      type: "gaussian"
      std: 0.1
    }
    bias_filler {
      type: "constant"
    }
  }
}
layer {
  name: "ip2"
  type: "InnerProduct"
  bottom: "ip1"
  top: "ip2"
  param {
    lr_mult: 1
  }
  param {
    lr_mult: 2
  }
  inner_product_param {
    num_output: 64
    weight_filler {
      type: "gaussian"
      std: 0.1
    }
    bias_filler {
      type: "constant"
    }
  }
}
layer {
  name: "ip3"
  type: "InnerProduct"
  bottom: "ip2"
  top: "ip3"
  param {
    lr_mult: 1
  }
  param {
    lr_mult: 2
  }
  inner_product_param {
    num_output: 50
    weight_filler {
      type: "gaussian"
      std: 0.1
    }
    bias_filler {
      type: "constant"
    }
  }
}
layer {
  name: "accuracy"
  type: "Accuracy"
  bottom: "ip3"
  bottom: "label"
  top: "accuracy"
  include {
    phase: TEST
  }
}
layer {
  name: "loss"
  type: "SoftmaxWithLoss"
  bottom: "ip3"
  bottom: "label"
  top: "loss"
}
I0501 20:36:26.369545 14554 layer_factory.hpp:77] Creating layer intercept
I0501 20:36:26.369554 14554 net.cpp:94] Creating Layer intercept
I0501 20:36:26.369557 14554 net.cpp:409] intercept -> data
I0501 20:36:26.369563 14554 net.cpp:409] intercept -> label
I0501 20:36:26.369570 14554 hdf5_data_layer.cpp:79] Loading list of HDF5 filenames from: /home/purduethu/scratch/radon/d/deng106/CNNStatisticalModel/distributions/input/50_distributions_400_sample_size_test-distributions-path.txt
I0501 20:36:26.369587 14554 hdf5_data_layer.cpp:93] Number of HDF5 files: 1
I0501 20:36:26.528308 14554 net.cpp:144] Setting up intercept
I0501 20:36:26.528339 14554 net.cpp:151] Top shape: 20 1 20 20 (8000)
I0501 20:36:26.528344 14554 net.cpp:151] Top shape: 20 (20)
I0501 20:36:26.528348 14554 net.cpp:159] Memory required for data: 32080
I0501 20:36:26.528353 14554 layer_factory.hpp:77] Creating layer label_intercept_1_split
I0501 20:36:26.528369 14554 net.cpp:94] Creating Layer label_intercept_1_split
I0501 20:36:26.528374 14554 net.cpp:435] label_intercept_1_split <- label
I0501 20:36:26.528380 14554 net.cpp:409] label_intercept_1_split -> label_intercept_1_split_0
I0501 20:36:26.528388 14554 net.cpp:409] label_intercept_1_split -> label_intercept_1_split_1
I0501 20:36:26.528421 14554 net.cpp:144] Setting up label_intercept_1_split
I0501 20:36:26.528429 14554 net.cpp:151] Top shape: 20 (20)
I0501 20:36:26.528432 14554 net.cpp:151] Top shape: 20 (20)
I0501 20:36:26.528435 14554 net.cpp:159] Memory required for data: 32240
I0501 20:36:26.528439 14554 layer_factory.hpp:77] Creating layer conv1
I0501 20:36:26.528450 14554 net.cpp:94] Creating Layer conv1
I0501 20:36:26.528453 14554 net.cpp:435] conv1 <- data
I0501 20:36:26.528458 14554 net.cpp:409] conv1 -> conv1
I0501 20:36:26.529568 14554 net.cpp:144] Setting up conv1
I0501 20:36:26.529589 14554 net.cpp:151] Top shape: 20 64 20 20 (512000)
I0501 20:36:26.529594 14554 net.cpp:159] Memory required for data: 2080240
I0501 20:36:26.529603 14554 layer_factory.hpp:77] Creating layer relu1
I0501 20:36:26.529610 14554 net.cpp:94] Creating Layer relu1
I0501 20:36:26.529614 14554 net.cpp:435] relu1 <- conv1
I0501 20:36:26.529618 14554 net.cpp:396] relu1 -> conv1 (in-place)
I0501 20:36:26.529626 14554 net.cpp:144] Setting up relu1
I0501 20:36:26.529630 14554 net.cpp:151] Top shape: 20 64 20 20 (512000)
I0501 20:36:26.529633 14554 net.cpp:159] Memory required for data: 4128240
I0501 20:36:26.529636 14554 layer_factory.hpp:77] Creating layer conv2
I0501 20:36:26.529645 14554 net.cpp:94] Creating Layer conv2
I0501 20:36:26.529649 14554 net.cpp:435] conv2 <- conv1
I0501 20:36:26.529654 14554 net.cpp:409] conv2 -> conv2
I0501 20:36:26.534513 14554 net.cpp:144] Setting up conv2
I0501 20:36:26.534528 14554 net.cpp:151] Top shape: 20 64 20 20 (512000)
I0501 20:36:26.534533 14554 net.cpp:159] Memory required for data: 6176240
I0501 20:36:26.534540 14554 layer_factory.hpp:77] Creating layer relu2
I0501 20:36:26.534545 14554 net.cpp:94] Creating Layer relu2
I0501 20:36:26.534549 14554 net.cpp:435] relu2 <- conv2
I0501 20:36:26.534554 14554 net.cpp:396] relu2 -> conv2 (in-place)
I0501 20:36:26.534560 14554 net.cpp:144] Setting up relu2
I0501 20:36:26.534565 14554 net.cpp:151] Top shape: 20 64 20 20 (512000)
I0501 20:36:26.534569 14554 net.cpp:159] Memory required for data: 8224240
I0501 20:36:26.534571 14554 layer_factory.hpp:77] Creating layer pool2
I0501 20:36:26.534577 14554 net.cpp:94] Creating Layer pool2
I0501 20:36:26.534580 14554 net.cpp:435] pool2 <- conv2
I0501 20:36:26.534584 14554 net.cpp:409] pool2 -> pool2
I0501 20:36:26.534617 14554 net.cpp:144] Setting up pool2
I0501 20:36:26.534623 14554 net.cpp:151] Top shape: 20 64 10 10 (128000)
I0501 20:36:26.534626 14554 net.cpp:159] Memory required for data: 8736240
I0501 20:36:26.534631 14554 layer_factory.hpp:77] Creating layer conv3
I0501 20:36:26.534637 14554 net.cpp:94] Creating Layer conv3
I0501 20:36:26.534641 14554 net.cpp:435] conv3 <- pool2
I0501 20:36:26.534646 14554 net.cpp:409] conv3 -> conv3
I0501 20:36:26.538455 14554 net.cpp:144] Setting up conv3
I0501 20:36:26.538467 14554 net.cpp:151] Top shape: 20 64 10 10 (128000)
I0501 20:36:26.538471 14554 net.cpp:159] Memory required for data: 9248240
I0501 20:36:26.538480 14554 layer_factory.hpp:77] Creating layer relu3
I0501 20:36:26.538486 14554 net.cpp:94] Creating Layer relu3
I0501 20:36:26.538491 14554 net.cpp:435] relu3 <- conv3
I0501 20:36:26.538496 14554 net.cpp:396] relu3 -> conv3 (in-place)
I0501 20:36:26.538501 14554 net.cpp:144] Setting up relu3
I0501 20:36:26.538506 14554 net.cpp:151] Top shape: 20 64 10 10 (128000)
I0501 20:36:26.538509 14554 net.cpp:159] Memory required for data: 9760240
I0501 20:36:26.538512 14554 layer_factory.hpp:77] Creating layer conv4
I0501 20:36:26.538521 14554 net.cpp:94] Creating Layer conv4
I0501 20:36:26.538524 14554 net.cpp:435] conv4 <- conv3
I0501 20:36:26.538528 14554 net.cpp:409] conv4 -> conv4
I0501 20:36:26.541934 14554 net.cpp:144] Setting up conv4
I0501 20:36:26.541946 14554 net.cpp:151] Top shape: 20 64 10 10 (128000)
I0501 20:36:26.541950 14554 net.cpp:159] Memory required for data: 10272240
I0501 20:36:26.541956 14554 layer_factory.hpp:77] Creating layer relu4
I0501 20:36:26.541962 14554 net.cpp:94] Creating Layer relu4
I0501 20:36:26.541970 14554 net.cpp:435] relu4 <- conv4
I0501 20:36:26.541975 14554 net.cpp:396] relu4 -> conv4 (in-place)
I0501 20:36:26.541982 14554 net.cpp:144] Setting up relu4
I0501 20:36:26.541986 14554 net.cpp:151] Top shape: 20 64 10 10 (128000)
I0501 20:36:26.541990 14554 net.cpp:159] Memory required for data: 10784240
I0501 20:36:26.541992 14554 layer_factory.hpp:77] Creating layer conv5
I0501 20:36:26.542001 14554 net.cpp:94] Creating Layer conv5
I0501 20:36:26.542003 14554 net.cpp:435] conv5 <- conv4
I0501 20:36:26.542008 14554 net.cpp:409] conv5 -> conv5
I0501 20:36:26.545827 14554 net.cpp:144] Setting up conv5
I0501 20:36:26.545846 14554 net.cpp:151] Top shape: 20 64 10 10 (128000)
I0501 20:36:26.545850 14554 net.cpp:159] Memory required for data: 11296240
I0501 20:36:26.545859 14554 layer_factory.hpp:77] Creating layer relu5
I0501 20:36:26.545866 14554 net.cpp:94] Creating Layer relu5
I0501 20:36:26.545868 14554 net.cpp:435] relu5 <- conv5
I0501 20:36:26.545873 14554 net.cpp:396] relu5 -> conv5 (in-place)
I0501 20:36:26.545879 14554 net.cpp:144] Setting up relu5
I0501 20:36:26.545884 14554 net.cpp:151] Top shape: 20 64 10 10 (128000)
I0501 20:36:26.545886 14554 net.cpp:159] Memory required for data: 11808240
I0501 20:36:26.545891 14554 layer_factory.hpp:77] Creating layer pool5
I0501 20:36:26.545897 14554 net.cpp:94] Creating Layer pool5
I0501 20:36:26.545899 14554 net.cpp:435] pool5 <- conv5
I0501 20:36:26.545904 14554 net.cpp:409] pool5 -> pool5
I0501 20:36:26.545930 14554 net.cpp:144] Setting up pool5
I0501 20:36:26.545938 14554 net.cpp:151] Top shape: 20 64 5 5 (32000)
I0501 20:36:26.545940 14554 net.cpp:159] Memory required for data: 11936240
I0501 20:36:26.545943 14554 layer_factory.hpp:77] Creating layer ip1
I0501 20:36:26.545951 14554 net.cpp:94] Creating Layer ip1
I0501 20:36:26.545954 14554 net.cpp:435] ip1 <- pool5
I0501 20:36:26.545959 14554 net.cpp:409] ip1 -> ip1
I0501 20:36:26.549113 14554 net.cpp:144] Setting up ip1
I0501 20:36:26.549126 14554 net.cpp:151] Top shape: 20 64 (1280)
I0501 20:36:26.549129 14554 net.cpp:159] Memory required for data: 11941360
I0501 20:36:26.549135 14554 layer_factory.hpp:77] Creating layer ip2
I0501 20:36:26.549144 14554 net.cpp:94] Creating Layer ip2
I0501 20:36:26.549147 14554 net.cpp:435] ip2 <- ip1
I0501 20:36:26.549152 14554 net.cpp:409] ip2 -> ip2
I0501 20:36:26.549324 14554 net.cpp:144] Setting up ip2
I0501 20:36:26.549331 14554 net.cpp:151] Top shape: 20 64 (1280)
I0501 20:36:26.549335 14554 net.cpp:159] Memory required for data: 11946480
I0501 20:36:26.549340 14554 layer_factory.hpp:77] Creating layer ip3
I0501 20:36:26.549346 14554 net.cpp:94] Creating Layer ip3
I0501 20:36:26.549350 14554 net.cpp:435] ip3 <- ip2
I0501 20:36:26.549356 14554 net.cpp:409] ip3 -> ip3
I0501 20:36:26.549504 14554 net.cpp:144] Setting up ip3
I0501 20:36:26.549511 14554 net.cpp:151] Top shape: 20 50 (1000)
I0501 20:36:26.549515 14554 net.cpp:159] Memory required for data: 11950480
I0501 20:36:26.549520 14554 layer_factory.hpp:77] Creating layer ip3_ip3_0_split
I0501 20:36:26.549525 14554 net.cpp:94] Creating Layer ip3_ip3_0_split
I0501 20:36:26.549528 14554 net.cpp:435] ip3_ip3_0_split <- ip3
I0501 20:36:26.549532 14554 net.cpp:409] ip3_ip3_0_split -> ip3_ip3_0_split_0
I0501 20:36:26.549537 14554 net.cpp:409] ip3_ip3_0_split -> ip3_ip3_0_split_1
I0501 20:36:26.549562 14554 net.cpp:144] Setting up ip3_ip3_0_split
I0501 20:36:26.549568 14554 net.cpp:151] Top shape: 20 50 (1000)
I0501 20:36:26.549572 14554 net.cpp:151] Top shape: 20 50 (1000)
I0501 20:36:26.549574 14554 net.cpp:159] Memory required for data: 11958480
I0501 20:36:26.549578 14554 layer_factory.hpp:77] Creating layer accuracy
I0501 20:36:26.549583 14554 net.cpp:94] Creating Layer accuracy
I0501 20:36:26.549587 14554 net.cpp:435] accuracy <- ip3_ip3_0_split_0
I0501 20:36:26.549590 14554 net.cpp:435] accuracy <- label_intercept_1_split_0
I0501 20:36:26.549595 14554 net.cpp:409] accuracy -> accuracy
…
