…
I0502 01:24:18.375385 16860 net.cpp:323] The NetState phase (0) differed from the phase (1) specified by a rule in layer intercept
I0502 01:24:18.375401 16860 net.cpp:323] The NetState phase (0) differed from the phase (1) specified by a rule in layer loss
I0502 01:24:18.375481 16860 net.cpp:52] Initializing net from parameters: 
state {
  phase: TRAIN
}
layer {
  name: "parameters"
  type: "HDF5Data"
  top: "data"
  top: "label"
  include {
    phase: TRAIN
  }
  hdf5_data_param {
    source: "/home/purduethu/scratch/radon/d/deng106/CNNStatisticalModel/distributions/input/20_distributions_100_sample_size_train-parameters-path.txt"
    batch_size: 20
  }
}
layer {
  name: "conv1"
  type: "Convolution"
  bottom: "data"
  top: "conv1"
  param {
    lr_mult: 1
  }
  param {
    lr_mult: 2
  }
  convolution_param {
    num_output: 64
    pad: 2
    kernel_size: 5
    stride: 1
    weight_filler {
      type: "gaussian"
      std: 0.0001
    }
    bias_filler {
      type: "constant"
    }
  }
}
layer {
  name: "relu1"
  type: "ReLU"
  bottom: "conv1"
  top: "conv1"
}
layer {
  name: "conv2"
  type: "Convolution"
  bottom: "conv1"
  top: "conv2"
  param {
    lr_mult: 1
  }
  param {
    lr_mult: 2
  }
  convolution_param {
    num_output: 64
    pad: 2
    kernel_size: 5
    stride: 1
    weight_filler {
      type: "gaussian"
      std: 0.01
    }
    bias_filler {
      type: "constant"
    }
  }
}
layer {
  name: "relu2"
  type: "ReLU"
  bottom: "conv2"
  top: "conv2"
}
layer {
  name: "pool2"
  type: "Pooling"
  bottom: "conv2"
  top: "pool2"
  pooling_param {
    pool: MAX
    kernel_size: 3
    stride: 2
  }
}
layer {
  name: "conv3"
  type: "Convolution"
  bottom: "pool2"
  top: "conv3"
  param {
    lr_mult: 1
  }
  param {
    lr_mult: 2
  }
  convolution_param {
    num_output: 64
    pad: 2
    kernel_size: 5
    stride: 1
    weight_filler {
      type: "gaussian"
      std: 0.01
    }
    bias_filler {
      type: "constant"
    }
  }
}
layer {
  name: "relu3"
  type: "ReLU"
  bottom: "conv3"
  top: "conv3"
}
layer {
  name: "conv4"
  type: "Convolution"
  bottom: "conv3"
  top: "conv4"
  param {
    lr_mult: 1
  }
  param {
    lr_mult: 2
  }
  convolution_param {
    num_output: 64
    pad: 2
    kernel_size: 5
    stride: 1
    weight_filler {
      type: "gaussian"
      std: 0.01
    }
    bias_filler {
      type: "constant"
    }
  }
}
layer {
  name: "relu4"
  type: "ReLU"
  bottom: "conv4"
  top: "conv4"
}
layer {
  name: "conv5"
  type: "Convolution"
  bottom: "conv4"
  top: "conv5"
  param {
    lr_mult: 1
  }
  param {
    lr_mult: 2
  }
  convolution_param {
    num_output: 64
    pad: 2
    kernel_size: 5
    stride: 1
    weight_filler {
      type: "gaussian"
      std: 0.01
    }
    bias_filler {
      type: "constant"
    }
  }
}
layer {
  name: "relu5"
  type: "ReLU"
  bottom: "conv5"
  top: "conv5"
}
layer {
  name: "pool5"
  type: "Pooling"
  bottom: "conv5"
  top: "pool5"
  pooling_param {
    pool: AVE
    kernel_size: 3
    stride: 2
  }
}
layer {
  name: "ip1"
  type: "InnerProduct"
  bottom: "pool5"
  top: "ip1"
  param {
    lr_mult: 1
  }
  param {
    lr_mult: 2
  }
  inner_product_param {
    num_output: 64
    weight_filler {
      type: "gaussian"
      std: 0.1
    }
    bias_filler {
      type: "constant"
    }
  }
}
layer {
  name: "ip2"
  type: "InnerProduct"
  bottom: "ip1"
  top: "ip2"
  param {
    lr_mult: 1
  }
  param {
    lr_mult: 2
  }
  inner_product_param {
    num_output: 64
    weight_filler {
      type: "gaussian"
      std: 0.1
    }
    bias_filler {
      type: "constant"
    }
  }
}
layer {
  name: "ip3"
  type: "InnerProduct"
  bottom: "ip2"
  top: "ip3"
  param {
    lr_mult: 1
  }
  param {
    lr_mult: 2
  }
  inner_product_param {
    num_output: 1
    weight_filler {
      type: "gaussian"
      std: 0.1
    }
    bias_filler {
      type: "constant"
    }
  }
}
layer {
  name: "loss"
  type: "HuberLoss"
  bottom: "ip3"
  bottom: "label"
  top: "loss"
  include {
    phase: TRAIN
  }
}
I0502 01:24:18.375535 16860 layer_factory.hpp:77] Creating layer parameters
I0502 01:24:18.375550 16860 net.cpp:94] Creating Layer parameters
I0502 01:24:18.375555 16860 net.cpp:409] parameters -> data
I0502 01:24:18.375566 16860 net.cpp:409] parameters -> label
I0502 01:24:18.375573 16860 hdf5_data_layer.cpp:79] Loading list of HDF5 filenames from: /home/purduethu/scratch/radon/d/deng106/CNNStatisticalModel/distributions/input/20_distributions_100_sample_size_train-parameters-path.txt
I0502 01:24:18.375588 16860 hdf5_data_layer.cpp:93] Number of HDF5 files: 1
I0502 01:24:18.376142 16860 hdf5.cpp:32] Datatype class: H5T_FLOAT
I0502 01:24:18.443583 16860 net.cpp:144] Setting up parameters
I0502 01:24:18.443614 16860 net.cpp:151] Top shape: 20 1 10 10 (2000)
I0502 01:24:18.443619 16860 net.cpp:151] Top shape: 20 (20)
I0502 01:24:18.443622 16860 net.cpp:159] Memory required for data: 8080
I0502 01:24:18.443629 16860 layer_factory.hpp:77] Creating layer conv1
I0502 01:24:18.443644 16860 net.cpp:94] Creating Layer conv1
I0502 01:24:18.443647 16860 net.cpp:435] conv1 <- data
I0502 01:24:18.443653 16860 net.cpp:409] conv1 -> conv1
I0502 01:24:18.447746 16860 net.cpp:144] Setting up conv1
I0502 01:24:18.447762 16860 net.cpp:151] Top shape: 20 64 10 10 (128000)
I0502 01:24:18.447765 16860 net.cpp:159] Memory required for data: 520080
I0502 01:24:18.447774 16860 layer_factory.hpp:77] Creating layer relu1
I0502 01:24:18.447782 16860 net.cpp:94] Creating Layer relu1
I0502 01:24:18.447785 16860 net.cpp:435] relu1 <- conv1
I0502 01:24:18.447790 16860 net.cpp:396] relu1 -> conv1 (in-place)
I0502 01:24:18.447798 16860 net.cpp:144] Setting up relu1
I0502 01:24:18.447801 16860 net.cpp:151] Top shape: 20 64 10 10 (128000)
I0502 01:24:18.447804 16860 net.cpp:159] Memory required for data: 1032080
I0502 01:24:18.447808 16860 layer_factory.hpp:77] Creating layer conv2
I0502 01:24:18.447814 16860 net.cpp:94] Creating Layer conv2
I0502 01:24:18.447818 16860 net.cpp:435] conv2 <- conv1
I0502 01:24:18.447823 16860 net.cpp:409] conv2 -> conv2
I0502 01:24:18.453105 16860 net.cpp:144] Setting up conv2
I0502 01:24:18.453119 16860 net.cpp:151] Top shape: 20 64 10 10 (128000)
I0502 01:24:18.453122 16860 net.cpp:159] Memory required for data: 1544080
I0502 01:24:18.453130 16860 layer_factory.hpp:77] Creating layer relu2
I0502 01:24:18.453137 16860 net.cpp:94] Creating Layer relu2
I0502 01:24:18.453140 16860 net.cpp:435] relu2 <- conv2
I0502 01:24:18.453145 16860 net.cpp:396] relu2 -> conv2 (in-place)
I0502 01:24:18.453151 16860 net.cpp:144] Setting up relu2
I0502 01:24:18.453155 16860 net.cpp:151] Top shape: 20 64 10 10 (128000)
I0502 01:24:18.453158 16860 net.cpp:159] Memory required for data: 2056080
I0502 01:24:18.453161 16860 layer_factory.hpp:77] Creating layer pool2
I0502 01:24:18.453173 16860 net.cpp:94] Creating Layer pool2
I0502 01:24:18.453177 16860 net.cpp:435] pool2 <- conv2
I0502 01:24:18.453181 16860 net.cpp:409] pool2 -> pool2
I0502 01:24:18.453238 16860 net.cpp:144] Setting up pool2
I0502 01:24:18.453244 16860 net.cpp:151] Top shape: 20 64 5 5 (32000)
I0502 01:24:18.453248 16860 net.cpp:159] Memory required for data: 2184080
I0502 01:24:18.453250 16860 layer_factory.hpp:77] Creating layer conv3
I0502 01:24:18.453258 16860 net.cpp:94] Creating Layer conv3
I0502 01:24:18.453261 16860 net.cpp:435] conv3 <- pool2
I0502 01:24:18.453266 16860 net.cpp:409] conv3 -> conv3
I0502 01:24:18.458199 16860 net.cpp:144] Setting up conv3
I0502 01:24:18.458212 16860 net.cpp:151] Top shape: 20 64 5 5 (32000)
I0502 01:24:18.458216 16860 net.cpp:159] Memory required for data: 2312080
I0502 01:24:18.458225 16860 layer_factory.hpp:77] Creating layer relu3
I0502 01:24:18.458230 16860 net.cpp:94] Creating Layer relu3
I0502 01:24:18.458233 16860 net.cpp:435] relu3 <- conv3
I0502 01:24:18.458237 16860 net.cpp:396] relu3 -> conv3 (in-place)
I0502 01:24:18.458245 16860 net.cpp:144] Setting up relu3
I0502 01:24:18.458248 16860 net.cpp:151] Top shape: 20 64 5 5 (32000)
I0502 01:24:18.458251 16860 net.cpp:159] Memory required for data: 2440080
I0502 01:24:18.458254 16860 layer_factory.hpp:77] Creating layer conv4
I0502 01:24:18.458262 16860 net.cpp:94] Creating Layer conv4
I0502 01:24:18.458266 16860 net.cpp:435] conv4 <- conv3
I0502 01:24:18.458271 16860 net.cpp:409] conv4 -> conv4
I0502 01:24:18.462713 16860 net.cpp:144] Setting up conv4
I0502 01:24:18.462726 16860 net.cpp:151] Top shape: 20 64 5 5 (32000)
I0502 01:24:18.462730 16860 net.cpp:159] Memory required for data: 2568080
I0502 01:24:18.462736 16860 layer_factory.hpp:77] Creating layer relu4
I0502 01:24:18.462741 16860 net.cpp:94] Creating Layer relu4
I0502 01:24:18.462745 16860 net.cpp:435] relu4 <- conv4
I0502 01:24:18.462749 16860 net.cpp:396] relu4 -> conv4 (in-place)
I0502 01:24:18.462756 16860 net.cpp:144] Setting up relu4
I0502 01:24:18.462760 16860 net.cpp:151] Top shape: 20 64 5 5 (32000)
I0502 01:24:18.462764 16860 net.cpp:159] Memory required for data: 2696080
I0502 01:24:18.462766 16860 layer_factory.hpp:77] Creating layer conv5
I0502 01:24:18.462774 16860 net.cpp:94] Creating Layer conv5
I0502 01:24:18.462776 16860 net.cpp:435] conv5 <- conv4
I0502 01:24:18.462780 16860 net.cpp:409] conv5 -> conv5
I0502 01:24:18.468502 16860 net.cpp:144] Setting up conv5
I0502 01:24:18.468515 16860 net.cpp:151] Top shape: 20 64 5 5 (32000)
I0502 01:24:18.468518 16860 net.cpp:159] Memory required for data: 2824080
I0502 01:24:18.468528 16860 layer_factory.hpp:77] Creating layer relu5
I0502 01:24:18.468533 16860 net.cpp:94] Creating Layer relu5
I0502 01:24:18.468536 16860 net.cpp:435] relu5 <- conv5
I0502 01:24:18.468541 16860 net.cpp:396] relu5 -> conv5 (in-place)
I0502 01:24:18.468547 16860 net.cpp:144] Setting up relu5
I0502 01:24:18.468559 16860 net.cpp:151] Top shape: 20 64 5 5 (32000)
I0502 01:24:18.468564 16860 net.cpp:159] Memory required for data: 2952080
I0502 01:24:18.468567 16860 layer_factory.hpp:77] Creating layer pool5
I0502 01:24:18.468572 16860 net.cpp:94] Creating Layer pool5
I0502 01:24:18.468575 16860 net.cpp:435] pool5 <- conv5
I0502 01:24:18.468580 16860 net.cpp:409] pool5 -> pool5
I0502 01:24:18.468618 16860 net.cpp:144] Setting up pool5
I0502 01:24:18.468626 16860 net.cpp:151] Top shape: 20 64 2 2 (5120)
I0502 01:24:18.468628 16860 net.cpp:159] Memory required for data: 2972560
I0502 01:24:18.468631 16860 layer_factory.hpp:77] Creating layer ip1
I0502 01:24:18.468641 16860 net.cpp:94] Creating Layer ip1
I0502 01:24:18.468644 16860 net.cpp:435] ip1 <- pool5
I0502 01:24:18.468649 16860 net.cpp:409] ip1 -> ip1
I0502 01:24:18.469982 16860 net.cpp:144] Setting up ip1
I0502 01:24:18.469995 16860 net.cpp:151] Top shape: 20 64 (1280)
I0502 01:24:18.469998 16860 net.cpp:159] Memory required for data: 2977680
I0502 01:24:18.470005 16860 layer_factory.hpp:77] Creating layer ip2
I0502 01:24:18.470011 16860 net.cpp:94] Creating Layer ip2
I0502 01:24:18.470019 16860 net.cpp:435] ip2 <- ip1
I0502 01:24:18.470026 16860 net.cpp:409] ip2 -> ip2
I0502 01:24:18.470242 16860 net.cpp:144] Setting up ip2
I0502 01:24:18.470248 16860 net.cpp:151] Top shape: 20 64 (1280)
I0502 01:24:18.470252 16860 net.cpp:159] Memory required for data: 2982800
I0502 01:24:18.470257 16860 layer_factory.hpp:77] Creating layer ip3
I0502 01:24:18.470263 16860 net.cpp:94] Creating Layer ip3
I0502 01:24:18.470266 16860 net.cpp:435] ip3 <- ip2
I0502 01:24:18.470271 16860 net.cpp:409] ip3 -> ip3
I0502 01:24:18.470381 16860 net.cpp:144] Setting up ip3
I0502 01:24:18.470386 16860 net.cpp:151] Top shape: 20 1 (20)
I0502 01:24:18.470389 16860 net.cpp:159] Memory required for data: 2982880
I0502 01:24:18.470394 16860 layer_factory.hpp:77] Creating layer loss
I0502 01:24:18.470405 16860 net.cpp:94] Creating Layer loss
I0502 01:24:18.470408 16860 net.cpp:435] loss <- ip3
I0502 01:24:18.470412 16860 net.cpp:435] loss <- label
I0502 01:24:18.470417 16860 net.cpp:409] loss -> loss
I0502 01:24:18.470468 16860 net.cpp:144] Setting up loss
…
I0502 01:24:18.511373 16860 net.cpp:323] The NetState phase (0) differed from the phase (1) specified by a rule in layer intercept
I0502 01:24:18.511409 16860 net.cpp:323] The NetState phase (0) differed from the phase (1) specified by a rule in layer accuracy
I0502 01:24:18.511625 16860 net.cpp:52] Initializing net from parameters: 
state {
  phase: TRAIN
}
layer {
  name: "parameters"
  type: "HDF5Data"
  top: "data"
  top: "label"
  include {
    phase: TRAIN
  }
  hdf5_data_param {
    source: "/home/purduethu/scratch/radon/d/deng106/CNNStatisticalModel/distributions/input/20_distributions_100_sample_size_train-distributions-path.txt"
    batch_size: 20
  }
}
layer {
  name: "conv1"
  type: "Convolution"
  bottom: "data"
  top: "conv1"
  param {
    lr_mult: 1
  }
  param {
    lr_mult: 2
  }
  convolution_param {
    num_output: 64
    pad: 2
    kernel_size: 5
    stride: 1
    weight_filler {
      type: "gaussian"
      std: 0.0001
    }
    bias_filler {
      type: "constant"
    }
  }
}
layer {
  name: "relu1"
  type: "ReLU"
  bottom: "conv1"
  top: "conv1"
}
layer {
  name: "conv2"
  type: "Convolution"
  bottom: "conv1"
  top: "conv2"
  param {
    lr_mult: 1
  }
  param {
    lr_mult: 2
  }
  convolution_param {
    num_output: 64
    pad: 2
    kernel_size: 5
    stride: 1
    weight_filler {
      type: "gaussian"
      std: 0.01
    }
    bias_filler {
      type: "constant"
    }
  }
}
layer {
  name: "relu2"
  type: "ReLU"
  bottom: "conv2"
  top: "conv2"
}
layer {
  name: "pool2"
  type: "Pooling"
  bottom: "conv2"
  top: "pool2"
  pooling_param {
    pool: MAX
    kernel_size: 3
    stride: 2
  }
}
layer {
  name: "conv3"
  type: "Convolution"
  bottom: "pool2"
  top: "conv3"
  param {
    lr_mult: 1
  }
  param {
    lr_mult: 2
  }
  convolution_param {
    num_output: 64
    pad: 2
    kernel_size: 5
    stride: 1
    weight_filler {
      type: "gaussian"
      std: 0.01
    }
    bias_filler {
      type: "constant"
    }
  }
}
layer {
  name: "relu3"
  type: "ReLU"
  bottom: "conv3"
  top: "conv3"
}
layer {
  name: "conv4"
  type: "Convolution"
  bottom: "conv3"
  top: "conv4"
  param {
    lr_mult: 1
  }
  param {
    lr_mult: 2
  }
  convolution_param {
    num_output: 64
    pad: 2
    kernel_size: 5
    stride: 1
    weight_filler {
      type: "gaussian"
      std: 0.01
    }
    bias_filler {
      type: "constant"
    }
  }
}
layer {
  name: "relu4"
  type: "ReLU"
  bottom: "conv4"
  top: "conv4"
}
layer {
  name: "conv5"
  type: "Convolution"
  bottom: "conv4"
  top: "conv5"
  param {
    lr_mult: 1
  }
  param {
    lr_mult: 2
  }
  convolution_param {
    num_output: 64
    pad: 2
    kernel_size: 5
    stride: 1
    weight_filler {
      type: "gaussian"
      std: 0.01
    }
    bias_filler {
      type: "constant"
    }
  }
}
layer {
  name: "relu5"
  type: "ReLU"
  bottom: "conv5"
  top: "conv5"
}
layer {
  name: "pool5"
  type: "Pooling"
  bottom: "conv5"
  top: "pool5"
  pooling_param {
    pool: AVE
    kernel_size: 3
    stride: 2
  }
}
layer {
  name: "ip1"
  type: "InnerProduct"
  bottom: "pool5"
  top: "ip1"
  param {
    lr_mult: 1
  }
  param {
    lr_mult: 2
  }
  inner_product_param {
    num_output: 64
    weight_filler {
      type: "gaussian"
      std: 0.1
    }
    bias_filler {
      type: "constant"
    }
  }
}
layer {
  name: "ip2"
  type: "InnerProduct"
  bottom: "ip1"
  top: "ip2"
  param {
    lr_mult: 1
  }
  param {
    lr_mult: 2
  }
  inner_product_param {
    num_output: 64
    weight_filler {
      type: "gaussian"
      std: 0.1
    }
    bias_filler {
      type: "constant"
    }
  }
}
layer {
  name: "ip3"
  type: "InnerProduct"
  bottom: "ip2"
  top: "ip3"
  param {
    lr_mult: 1
  }
  param {
    lr_mult: 2
  }
  inner_product_param {
    num_output: 50
    weight_filler {
      type: "gaussian"
      std: 0.1
    }
    bias_filler {
      type: "constant"
    }
  }
}
layer {
  name: "loss"
  type: "SoftmaxWithLoss"
  bottom: "ip3"
  bottom: "label"
  top: "loss"
}
I0502 01:24:18.511742 16860 layer_factory.hpp:77] Creating layer parameters
I0502 01:24:18.511760 16860 net.cpp:94] Creating Layer parameters
I0502 01:24:18.511770 16860 net.cpp:409] parameters -> data
I0502 01:24:18.511785 16860 net.cpp:409] parameters -> label
I0502 01:24:18.511798 16860 hdf5_data_layer.cpp:79] Loading list of HDF5 filenames from: /home/purduethu/scratch/radon/d/deng106/CNNStatisticalModel/distributions/input/20_distributions_100_sample_size_train-distributions-path.txt
I0502 01:24:18.511831 16860 hdf5_data_layer.cpp:93] Number of HDF5 files: 1
I0502 01:24:18.617482 16860 hdf5.cpp:35] Datatype class: H5T_INTEGER
I0502 01:24:18.620199 16860 net.cpp:144] Setting up parameters
I0502 01:24:18.620223 16860 net.cpp:151] Top shape: 20 1 10 10 (2000)
I0502 01:24:18.620230 16860 net.cpp:151] Top shape: 20 (20)
I0502 01:24:18.620235 16860 net.cpp:159] Memory required for data: 8080
I0502 01:24:18.620244 16860 layer_factory.hpp:77] Creating layer conv1
I0502 01:24:18.620263 16860 net.cpp:94] Creating Layer conv1
I0502 01:24:18.620270 16860 net.cpp:435] conv1 <- data
I0502 01:24:18.620280 16860 net.cpp:409] conv1 -> conv1
I0502 01:24:18.622354 16860 net.cpp:144] Setting up conv1
I0502 01:24:18.622372 16860 net.cpp:151] Top shape: 20 64 10 10 (128000)
I0502 01:24:18.622378 16860 net.cpp:159] Memory required for data: 520080
I0502 01:24:18.622392 16860 layer_factory.hpp:77] Creating layer relu1
I0502 01:24:18.622402 16860 net.cpp:94] Creating Layer relu1
I0502 01:24:18.622408 16860 net.cpp:435] relu1 <- conv1
I0502 01:24:18.622414 16860 net.cpp:396] relu1 -> conv1 (in-place)
I0502 01:24:18.622426 16860 net.cpp:144] Setting up relu1
I0502 01:24:18.622431 16860 net.cpp:151] Top shape: 20 64 10 10 (128000)
I0502 01:24:18.622436 16860 net.cpp:159] Memory required for data: 1032080
I0502 01:24:18.622440 16860 layer_factory.hpp:77] Creating layer conv2
I0502 01:24:18.622450 16860 net.cpp:94] Creating Layer conv2
I0502 01:24:18.622455 16860 net.cpp:435] conv2 <- conv1
I0502 01:24:18.622462 16860 net.cpp:409] conv2 -> conv2
I0502 01:24:18.629642 16860 net.cpp:144] Setting up conv2
I0502 01:24:18.629662 16860 net.cpp:151] Top shape: 20 64 10 10 (128000)
I0502 01:24:18.629667 16860 net.cpp:159] Memory required for data: 1544080
I0502 01:24:18.629678 16860 layer_factory.hpp:77] Creating layer relu2
I0502 01:24:18.629686 16860 net.cpp:94] Creating Layer relu2
I0502 01:24:18.629691 16860 net.cpp:435] relu2 <- conv2
I0502 01:24:18.629698 16860 net.cpp:396] relu2 -> conv2 (in-place)
I0502 01:24:18.629707 16860 net.cpp:144] Setting up relu2
I0502 01:24:18.629714 16860 net.cpp:151] Top shape: 20 64 10 10 (128000)
I0502 01:24:18.629719 16860 net.cpp:159] Memory required for data: 2056080
I0502 01:24:18.629722 16860 layer_factory.hpp:77] Creating layer pool2
I0502 01:24:18.629730 16860 net.cpp:94] Creating Layer pool2
I0502 01:24:18.629734 16860 net.cpp:435] pool2 <- conv2
I0502 01:24:18.629740 16860 net.cpp:409] pool2 -> pool2
I0502 01:24:18.629815 16860 net.cpp:144] Setting up pool2
I0502 01:24:18.629824 16860 net.cpp:151] Top shape: 20 64 5 5 (32000)
I0502 01:24:18.629829 16860 net.cpp:159] Memory required for data: 2184080
I0502 01:24:18.629833 16860 layer_factory.hpp:77] Creating layer conv3
I0502 01:24:18.629843 16860 net.cpp:94] Creating Layer conv3
I0502 01:24:18.629848 16860 net.cpp:435] conv3 <- pool2
I0502 01:24:18.629855 16860 net.cpp:409] conv3 -> conv3
I0502 01:24:18.636440 16860 net.cpp:144] Setting up conv3
I0502 01:24:18.636458 16860 net.cpp:151] Top shape: 20 64 5 5 (32000)
I0502 01:24:18.636463 16860 net.cpp:159] Memory required for data: 2312080
I0502 01:24:18.636476 16860 layer_factory.hpp:77] Creating layer relu3
I0502 01:24:18.636483 16860 net.cpp:94] Creating Layer relu3
I0502 01:24:18.636488 16860 net.cpp:435] relu3 <- conv3
I0502 01:24:18.636495 16860 net.cpp:396] relu3 -> conv3 (in-place)
I0502 01:24:18.636504 16860 net.cpp:144] Setting up relu3
I0502 01:24:18.636510 16860 net.cpp:151] Top shape: 20 64 5 5 (32000)
I0502 01:24:18.636514 16860 net.cpp:159] Memory required for data: 2440080
I0502 01:24:18.636519 16860 layer_factory.hpp:77] Creating layer conv4
I0502 01:24:18.636530 16860 net.cpp:94] Creating Layer conv4
I0502 01:24:18.636535 16860 net.cpp:435] conv4 <- conv3
I0502 01:24:18.636541 16860 net.cpp:409] conv4 -> conv4
I0502 01:24:18.643076 16860 net.cpp:144] Setting up conv4
I0502 01:24:18.643095 16860 net.cpp:151] Top shape: 20 64 5 5 (32000)
I0502 01:24:18.643100 16860 net.cpp:159] Memory required for data: 2568080
I0502 01:24:18.643108 16860 layer_factory.hpp:77] Creating layer relu4
I0502 01:24:18.643115 16860 net.cpp:94] Creating Layer relu4
I0502 01:24:18.643121 16860 net.cpp:435] relu4 <- conv4
I0502 01:24:18.643126 16860 net.cpp:396] relu4 -> conv4 (in-place)
I0502 01:24:18.643136 16860 net.cpp:144] Setting up relu4
I0502 01:24:18.643141 16860 net.cpp:151] Top shape: 20 64 5 5 (32000)
I0502 01:24:18.643146 16860 net.cpp:159] Memory required for data: 2696080
I0502 01:24:18.643149 16860 layer_factory.hpp:77] Creating layer conv5
I0502 01:24:18.643159 16860 net.cpp:94] Creating Layer conv5
I0502 01:24:18.643164 16860 net.cpp:435] conv5 <- conv4
I0502 01:24:18.643170 16860 net.cpp:409] conv5 -> conv5
I0502 01:24:18.650017 16860 net.cpp:144] Setting up conv5
I0502 01:24:18.650035 16860 net.cpp:151] Top shape: 20 64 5 5 (32000)
I0502 01:24:18.650041 16860 net.cpp:159] Memory required for data: 2824080
I0502 01:24:18.650053 16860 layer_factory.hpp:77] Creating layer relu5
I0502 01:24:18.650059 16860 net.cpp:94] Creating Layer relu5
I0502 01:24:18.650065 16860 net.cpp:435] relu5 <- conv5
I0502 01:24:18.650071 16860 net.cpp:396] relu5 -> conv5 (in-place)
I0502 01:24:18.650080 16860 net.cpp:144] Setting up relu5
I0502 01:24:18.650086 16860 net.cpp:151] Top shape: 20 64 5 5 (32000)
I0502 01:24:18.650090 16860 net.cpp:159] Memory required for data: 2952080
I0502 01:24:18.650094 16860 layer_factory.hpp:77] Creating layer pool5
I0502 01:24:18.650101 16860 net.cpp:94] Creating Layer pool5
I0502 01:24:18.650105 16860 net.cpp:435] pool5 <- conv5
I0502 01:24:18.650111 16860 net.cpp:409] pool5 -> pool5
I0502 01:24:18.650159 16860 net.cpp:144] Setting up pool5
I0502 01:24:18.650168 16860 net.cpp:151] Top shape: 20 64 2 2 (5120)
I0502 01:24:18.650172 16860 net.cpp:159] Memory required for data: 2972560
I0502 01:24:18.650177 16860 layer_factory.hpp:77] Creating layer ip1
I0502 01:24:18.650185 16860 net.cpp:94] Creating Layer ip1
I0502 01:24:18.650189 16860 net.cpp:435] ip1 <- pool5
I0502 01:24:18.650195 16860 net.cpp:409] ip1 -> ip1
I0502 01:24:18.650933 16860 net.cpp:144] Setting up ip1
I0502 01:24:18.650943 16860 net.cpp:151] Top shape: 20 64 (1280)
I0502 01:24:18.650946 16860 net.cpp:159] Memory required for data: 2977680
I0502 01:24:18.650954 16860 layer_factory.hpp:77] Creating layer ip2
I0502 01:24:18.650961 16860 net.cpp:94] Creating Layer ip2
I0502 01:24:18.650965 16860 net.cpp:435] ip2 <- ip1
I0502 01:24:18.650972 16860 net.cpp:409] ip2 -> ip2
I0502 01:24:18.651288 16860 net.cpp:144] Setting up ip2
I0502 01:24:18.651296 16860 net.cpp:151] Top shape: 20 64 (1280)
I0502 01:24:18.651301 16860 net.cpp:159] Memory required for data: 2982800
I0502 01:24:18.651307 16860 layer_factory.hpp:77] Creating layer ip3
I0502 01:24:18.651315 16860 net.cpp:94] Creating Layer ip3
I0502 01:24:18.651319 16860 net.cpp:435] ip3 <- ip2
I0502 01:24:18.651326 16860 net.cpp:409] ip3 -> ip3
I0502 01:24:18.651600 16860 net.cpp:144] Setting up ip3
I0502 01:24:18.651609 16860 net.cpp:151] Top shape: 20 50 (1000)
I0502 01:24:18.651619 16860 net.cpp:159] Memory required for data: 2986800
I0502 01:24:18.651626 16860 layer_factory.hpp:77] Creating layer loss
I0502 01:24:18.651635 16860 net.cpp:94] Creating Layer loss
I0502 01:24:18.651639 16860 net.cpp:435] loss <- ip3
I0502 01:24:18.651644 16860 net.cpp:435] loss <- label
I0502 01:24:18.651650 16860 net.cpp:409] loss -> loss
I0502 01:24:18.651659 16860 layer_factory.hpp:77] Creating layer loss
…
I0502 01:24:18.653439 16860 solver.cpp:181] Creating test net (#0) specified by net file: ./protocol/dis_20_100_dimension.protocol_distribution
I0502 01:24:18.653472 16860 net.cpp:323] The NetState phase (1) differed from the phase (0) specified by a rule in layer parameters
I0502 01:24:18.653599 16860 net.cpp:52] Initializing net from parameters: 
state {
  phase: TEST
}
layer {
  name: "intercept"
  type: "HDF5Data"
  top: "data"
  top: "label"
  include {
    phase: TEST
  }
  hdf5_data_param {
    source: "/home/purduethu/scratch/radon/d/deng106/CNNStatisticalModel/distributions/input/20_distributions_100_sample_size_test-distributions-path.txt"
    batch_size: 20
  }
}
layer {
  name: "conv1"
  type: "Convolution"
  bottom: "data"
  top: "conv1"
  param {
    lr_mult: 1
  }
  param {
    lr_mult: 2
  }
  convolution_param {
    num_output: 64
    pad: 2
    kernel_size: 5
    stride: 1
    weight_filler {
      type: "gaussian"
      std: 0.0001
    }
    bias_filler {
      type: "constant"
    }
  }
}
layer {
  name: "relu1"
  type: "ReLU"
  bottom: "conv1"
  top: "conv1"
}
layer {
  name: "conv2"
  type: "Convolution"
  bottom: "conv1"
  top: "conv2"
  param {
    lr_mult: 1
  }
  param {
    lr_mult: 2
  }
  convolution_param {
    num_output: 64
    pad: 2
    kernel_size: 5
    stride: 1
    weight_filler {
      type: "gaussian"
      std: 0.01
    }
    bias_filler {
      type: "constant"
    }
  }
}
layer {
  name: "relu2"
  type: "ReLU"
  bottom: "conv2"
  top: "conv2"
}
layer {
  name: "pool2"
  type: "Pooling"
  bottom: "conv2"
  top: "pool2"
  pooling_param {
    pool: MAX
    kernel_size: 3
    stride: 2
  }
}
layer {
  name: "conv3"
  type: "Convolution"
  bottom: "pool2"
  top: "conv3"
  param {
    lr_mult: 1
  }
  param {
    lr_mult: 2
  }
  convolution_param {
    num_output: 64
    pad: 2
    kernel_size: 5
    stride: 1
    weight_filler {
      type: "gaussian"
      std: 0.01
    }
    bias_filler {
      type: "constant"
    }
  }
}
layer {
  name: "relu3"
  type: "ReLU"
  bottom: "conv3"
  top: "conv3"
}
layer {
  name: "conv4"
  type: "Convolution"
  bottom: "conv3"
  top: "conv4"
  param {
    lr_mult: 1
  }
  param {
    lr_mult: 2
  }
  convolution_param {
    num_output: 64
    pad: 2
    kernel_size: 5
    stride: 1
    weight_filler {
      type: "gaussian"
      std: 0.01
    }
    bias_filler {
      type: "constant"
    }
  }
}
layer {
  name: "relu4"
  type: "ReLU"
  bottom: "conv4"
  top: "conv4"
}
layer {
  name: "conv5"
  type: "Convolution"
  bottom: "conv4"
  top: "conv5"
  param {
    lr_mult: 1
  }
  param {
    lr_mult: 2
  }
  convolution_param {
    num_output: 64
    pad: 2
    kernel_size: 5
    stride: 1
    weight_filler {
      type: "gaussian"
      std: 0.01
    }
    bias_filler {
      type: "constant"
    }
  }
}
layer {
  name: "relu5"
  type: "ReLU"
  bottom: "conv5"
  top: "conv5"
}
layer {
  name: "pool5"
  type: "Pooling"
  bottom: "conv5"
  top: "pool5"
  pooling_param {
    pool: AVE
    kernel_size: 3
    stride: 2
  }
}
layer {
  name: "ip1"
  type: "InnerProduct"
  bottom: "pool5"
  top: "ip1"
  param {
    lr_mult: 1
  }
  param {
    lr_mult: 2
  }
  inner_product_param {
    num_output: 64
    weight_filler {
      type: "gaussian"
      std: 0.1
    }
    bias_filler {
      type: "constant"
    }
  }
}
layer {
  name: "ip2"
  type: "InnerProduct"
  bottom: "ip1"
  top: "ip2"
  param {
    lr_mult: 1
  }
  param {
    lr_mult: 2
  }
  inner_product_param {
    num_output: 64
    weight_filler {
      type: "gaussian"
      std: 0.1
    }
    bias_filler {
      type: "constant"
    }
  }
}
layer {
  name: "ip3"
  type: "InnerProduct"
  bottom: "ip2"
  top: "ip3"
  param {
    lr_mult: 1
  }
  param {
    lr_mult: 2
  }
  inner_product_param {
    num_output: 50
    weight_filler {
      type: "gaussian"
      std: 0.1
    }
    bias_filler {
      type: "constant"
    }
  }
}
layer {
  name: "accuracy"
  type: "Accuracy"
  bottom: "ip3"
  bottom: "label"
  top: "accuracy"
  include {
    phase: TEST
  }
}
layer {
  name: "loss"
  type: "SoftmaxWithLoss"
  bottom: "ip3"
  bottom: "label"
  top: "loss"
}
I0502 01:24:18.653683 16860 layer_factory.hpp:77] Creating layer intercept
I0502 01:24:18.653694 16860 net.cpp:94] Creating Layer intercept
I0502 01:24:18.653699 16860 net.cpp:409] intercept -> data
I0502 01:24:18.653708 16860 net.cpp:409] intercept -> label
I0502 01:24:18.653717 16860 hdf5_data_layer.cpp:79] Loading list of HDF5 filenames from: /home/purduethu/scratch/radon/d/deng106/CNNStatisticalModel/distributions/input/20_distributions_100_sample_size_test-distributions-path.txt
I0502 01:24:18.653738 16860 hdf5_data_layer.cpp:93] Number of HDF5 files: 1
I0502 01:24:18.674621 16860 net.cpp:144] Setting up intercept
I0502 01:24:18.674659 16860 net.cpp:151] Top shape: 20 1 10 10 (2000)
I0502 01:24:18.674665 16860 net.cpp:151] Top shape: 20 (20)
I0502 01:24:18.674669 16860 net.cpp:159] Memory required for data: 8080
I0502 01:24:18.674676 16860 layer_factory.hpp:77] Creating layer label_intercept_1_split
I0502 01:24:18.674698 16860 net.cpp:94] Creating Layer label_intercept_1_split
I0502 01:24:18.674705 16860 net.cpp:435] label_intercept_1_split <- label
I0502 01:24:18.674711 16860 net.cpp:409] label_intercept_1_split -> label_intercept_1_split_0
I0502 01:24:18.674721 16860 net.cpp:409] label_intercept_1_split -> label_intercept_1_split_1
I0502 01:24:18.674775 16860 net.cpp:144] Setting up label_intercept_1_split
I0502 01:24:18.674783 16860 net.cpp:151] Top shape: 20 (20)
I0502 01:24:18.674787 16860 net.cpp:151] Top shape: 20 (20)
I0502 01:24:18.674792 16860 net.cpp:159] Memory required for data: 8240
I0502 01:24:18.674795 16860 layer_factory.hpp:77] Creating layer conv1
I0502 01:24:18.674808 16860 net.cpp:94] Creating Layer conv1
I0502 01:24:18.674813 16860 net.cpp:435] conv1 <- data
I0502 01:24:18.674818 16860 net.cpp:409] conv1 -> conv1
I0502 01:24:18.675756 16860 net.cpp:144] Setting up conv1
I0502 01:24:18.675772 16860 net.cpp:151] Top shape: 20 64 10 10 (128000)
I0502 01:24:18.675786 16860 net.cpp:159] Memory required for data: 520240
I0502 01:24:18.675799 16860 layer_factory.hpp:77] Creating layer relu1
I0502 01:24:18.675807 16860 net.cpp:94] Creating Layer relu1
I0502 01:24:18.675812 16860 net.cpp:435] relu1 <- conv1
I0502 01:24:18.675817 16860 net.cpp:396] relu1 -> conv1 (in-place)
I0502 01:24:18.675827 16860 net.cpp:144] Setting up relu1
I0502 01:24:18.675832 16860 net.cpp:151] Top shape: 20 64 10 10 (128000)
I0502 01:24:18.675835 16860 net.cpp:159] Memory required for data: 1032240
I0502 01:24:18.675839 16860 layer_factory.hpp:77] Creating layer conv2
I0502 01:24:18.675848 16860 net.cpp:94] Creating Layer conv2
I0502 01:24:18.675853 16860 net.cpp:435] conv2 <- conv1
I0502 01:24:18.675858 16860 net.cpp:409] conv2 -> conv2
I0502 01:24:18.680860 16860 net.cpp:144] Setting up conv2
I0502 01:24:18.680876 16860 net.cpp:151] Top shape: 20 64 10 10 (128000)
I0502 01:24:18.680881 16860 net.cpp:159] Memory required for data: 1544240
I0502 01:24:18.680891 16860 layer_factory.hpp:77] Creating layer relu2
I0502 01:24:18.680897 16860 net.cpp:94] Creating Layer relu2
I0502 01:24:18.680902 16860 net.cpp:435] relu2 <- conv2
I0502 01:24:18.680907 16860 net.cpp:396] relu2 -> conv2 (in-place)
I0502 01:24:18.680914 16860 net.cpp:144] Setting up relu2
I0502 01:24:18.680920 16860 net.cpp:151] Top shape: 20 64 10 10 (128000)
I0502 01:24:18.680923 16860 net.cpp:159] Memory required for data: 2056240
I0502 01:24:18.680927 16860 layer_factory.hpp:77] Creating layer pool2
I0502 01:24:18.680934 16860 net.cpp:94] Creating Layer pool2
I0502 01:24:18.680938 16860 net.cpp:435] pool2 <- conv2
I0502 01:24:18.680943 16860 net.cpp:409] pool2 -> pool2
I0502 01:24:18.681010 16860 net.cpp:144] Setting up pool2
I0502 01:24:18.681017 16860 net.cpp:151] Top shape: 20 64 5 5 (32000)
I0502 01:24:18.681021 16860 net.cpp:159] Memory required for data: 2184240
I0502 01:24:18.681025 16860 layer_factory.hpp:77] Creating layer conv3
I0502 01:24:18.681035 16860 net.cpp:94] Creating Layer conv3
I0502 01:24:18.681038 16860 net.cpp:435] conv3 <- pool2
I0502 01:24:18.681044 16860 net.cpp:409] conv3 -> conv3
I0502 01:24:18.685407 16860 net.cpp:144] Setting up conv3
I0502 01:24:18.685422 16860 net.cpp:151] Top shape: 20 64 5 5 (32000)
I0502 01:24:18.685426 16860 net.cpp:159] Memory required for data: 2312240
I0502 01:24:18.685436 16860 layer_factory.hpp:77] Creating layer relu3
I0502 01:24:18.685444 16860 net.cpp:94] Creating Layer relu3
I0502 01:24:18.685448 16860 net.cpp:435] relu3 <- conv3
I0502 01:24:18.685453 16860 net.cpp:396] relu3 -> conv3 (in-place)
I0502 01:24:18.685461 16860 net.cpp:144] Setting up relu3
I0502 01:24:18.685467 16860 net.cpp:151] Top shape: 20 64 5 5 (32000)
I0502 01:24:18.685470 16860 net.cpp:159] Memory required for data: 2440240
I0502 01:24:18.685473 16860 layer_factory.hpp:77] Creating layer conv4
I0502 01:24:18.685482 16860 net.cpp:94] Creating Layer conv4
I0502 01:24:18.685487 16860 net.cpp:435] conv4 <- conv3
I0502 01:24:18.685492 16860 net.cpp:409] conv4 -> conv4
I0502 01:24:18.689867 16860 net.cpp:144] Setting up conv4
I0502 01:24:18.689882 16860 net.cpp:151] Top shape: 20 64 5 5 (32000)
I0502 01:24:18.689887 16860 net.cpp:159] Memory required for data: 2568240
I0502 01:24:18.689893 16860 layer_factory.hpp:77] Creating layer relu4
I0502 01:24:18.689899 16860 net.cpp:94] Creating Layer relu4
I0502 01:24:18.689903 16860 net.cpp:435] relu4 <- conv4
I0502 01:24:18.689908 16860 net.cpp:396] relu4 -> conv4 (in-place)
I0502 01:24:18.689916 16860 net.cpp:144] Setting up relu4
I0502 01:24:18.689921 16860 net.cpp:151] Top shape: 20 64 5 5 (32000)
I0502 01:24:18.689924 16860 net.cpp:159] Memory required for data: 2696240
I0502 01:24:18.689929 16860 layer_factory.hpp:77] Creating layer conv5
I0502 01:24:18.689936 16860 net.cpp:94] Creating Layer conv5
I0502 01:24:18.689940 16860 net.cpp:435] conv5 <- conv4
I0502 01:24:18.689946 16860 net.cpp:409] conv5 -> conv5
I0502 01:24:18.694723 16860 net.cpp:144] Setting up conv5
I0502 01:24:18.694739 16860 net.cpp:151] Top shape: 20 64 5 5 (32000)
I0502 01:24:18.694744 16860 net.cpp:159] Memory required for data: 2824240
I0502 01:24:18.694758 16860 layer_factory.hpp:77] Creating layer relu5
I0502 01:24:18.694766 16860 net.cpp:94] Creating Layer relu5
I0502 01:24:18.694769 16860 net.cpp:435] relu5 <- conv5
I0502 01:24:18.694778 16860 net.cpp:396] relu5 -> conv5 (in-place)
I0502 01:24:18.694787 16860 net.cpp:144] Setting up relu5
I0502 01:24:18.694792 16860 net.cpp:151] Top shape: 20 64 5 5 (32000)
I0502 01:24:18.694794 16860 net.cpp:159] Memory required for data: 2952240
I0502 01:24:18.694798 16860 layer_factory.hpp:77] Creating layer pool5
I0502 01:24:18.694803 16860 net.cpp:94] Creating Layer pool5
I0502 01:24:18.694808 16860 net.cpp:435] pool5 <- conv5
I0502 01:24:18.694813 16860 net.cpp:409] pool5 -> pool5
I0502 01:24:18.694857 16860 net.cpp:144] Setting up pool5
I0502 01:24:18.694865 16860 net.cpp:151] Top shape: 20 64 2 2 (5120)
I0502 01:24:18.694869 16860 net.cpp:159] Memory required for data: 2972720
I0502 01:24:18.694872 16860 layer_factory.hpp:77] Creating layer ip1
I0502 01:24:18.694880 16860 net.cpp:94] Creating Layer ip1
I0502 01:24:18.694885 16860 net.cpp:435] ip1 <- pool5
I0502 01:24:18.694890 16860 net.cpp:409] ip1 -> ip1
I0502 01:24:18.695619 16860 net.cpp:144] Setting up ip1
I0502 01:24:18.695628 16860 net.cpp:151] Top shape: 20 64 (1280)
I0502 01:24:18.695631 16860 net.cpp:159] Memory required for data: 2977840
I0502 01:24:18.695638 16860 layer_factory.hpp:77] Creating layer ip2
I0502 01:24:18.695647 16860 net.cpp:94] Creating Layer ip2
I0502 01:24:18.695650 16860 net.cpp:435] ip2 <- ip1
I0502 01:24:18.695657 16860 net.cpp:409] ip2 -> ip2
I0502 01:24:18.695964 16860 net.cpp:144] Setting up ip2
I0502 01:24:18.695972 16860 net.cpp:151] Top shape: 20 64 (1280)
I0502 01:24:18.695976 16860 net.cpp:159] Memory required for data: 2982960
I0502 01:24:18.695981 16860 layer_factory.hpp:77] Creating layer ip3
I0502 01:24:18.695991 16860 net.cpp:94] Creating Layer ip3
I0502 01:24:18.695994 16860 net.cpp:435] ip3 <- ip2
I0502 01:24:18.696000 16860 net.cpp:409] ip3 -> ip3
I0502 01:24:18.696265 16860 net.cpp:144] Setting up ip3
I0502 01:24:18.696274 16860 net.cpp:151] Top shape: 20 50 (1000)
I0502 01:24:18.696277 16860 net.cpp:159] Memory required for data: 2986960
I0502 01:24:18.696282 16860 layer_factory.hpp:77] Creating layer ip3_ip3_0_split
I0502 01:24:18.696288 16860 net.cpp:94] Creating Layer ip3_ip3_0_split
I0502 01:24:18.696292 16860 net.cpp:435] ip3_ip3_0_split <- ip3
I0502 01:24:18.696298 16860 net.cpp:409] ip3_ip3_0_split -> ip3_ip3_0_split_0
I0502 01:24:18.696305 16860 net.cpp:409] ip3_ip3_0_split -> ip3_ip3_0_split_1
I0502 01:24:18.696354 16860 net.cpp:144] Setting up ip3_ip3_0_split
I0502 01:24:18.696362 16860 net.cpp:151] Top shape: 20 50 (1000)
I0502 01:24:18.696367 16860 net.cpp:151] Top shape: 20 50 (1000)
I0502 01:24:18.696369 16860 net.cpp:159] Memory required for data: 2994960
I0502 01:24:18.696373 16860 layer_factory.hpp:77] Creating layer accuracy
I0502 01:24:18.696379 16860 net.cpp:94] Creating Layer accuracy
I0502 01:24:18.696382 16860 net.cpp:435] accuracy <- ip3_ip3_0_split_0
I0502 01:24:18.696388 16860 net.cpp:435] accuracy <- label_intercept_1_split_0
I0502 01:24:18.696393 16860 net.cpp:409] accuracy -> accuracy
…
