…
I0505 00:48:32.482647  1411 net.cpp:323] The NetState phase (0) differed from the phase (1) specified by a rule in layer intercept
I0505 00:48:32.482662  1411 net.cpp:323] The NetState phase (0) differed from the phase (1) specified by a rule in layer loss
I0505 00:48:32.482741  1411 net.cpp:52] Initializing net from parameters: 
state {
  phase: TRAIN
}
layer {
  name: "parameters"
  type: "HDF5Data"
  top: "data"
  top: "label"
  include {
    phase: TRAIN
  }
  hdf5_data_param {
    source: "/home/purduethu/scratch/radon/d/deng106/CNNStatisticalModel/distributions/input/5_distributions_100_sample_size_train-parameters-path.txt"
    batch_size: 20
  }
}
layer {
  name: "conv1"
  type: "Convolution"
  bottom: "data"
  top: "conv1"
  param {
    lr_mult: 1
  }
  param {
    lr_mult: 2
  }
  convolution_param {
    num_output: 64
    pad: 2
    kernel_size: 5
    stride: 1
    weight_filler {
      type: "gaussian"
      std: 0.0001
    }
    bias_filler {
      type: "constant"
    }
  }
}
layer {
  name: "relu1"
  type: "ReLU"
  bottom: "conv1"
  top: "conv1"
}
layer {
  name: "pool1"
  type: "Pooling"
  bottom: "conv1"
  top: "pool1"
  pooling_param {
    pool: MAX
    kernel_size: 3
    stride: 2
  }
}
layer {
  name: "conv2"
  type: "Convolution"
  bottom: "pool1"
  top: "conv2"
  param {
    lr_mult: 1
  }
  param {
    lr_mult: 2
  }
  convolution_param {
    num_output: 128
    pad: 2
    kernel_size: 5
    stride: 1
    weight_filler {
      type: "gaussian"
      std: 0.01
    }
    bias_filler {
      type: "constant"
    }
  }
}
layer {
  name: "relu2"
  type: "ReLU"
  bottom: "conv2"
  top: "conv2"
}
layer {
  name: "conv3"
  type: "Convolution"
  bottom: "conv2"
  top: "conv3"
  param {
    lr_mult: 1
  }
  param {
    lr_mult: 2
  }
  convolution_param {
    num_output: 128
    pad: 2
    kernel_size: 5
    stride: 1
    weight_filler {
      type: "gaussian"
      std: 0.01
    }
    bias_filler {
      type: "constant"
    }
  }
}
layer {
  name: "relu3"
  type: "ReLU"
  bottom: "conv3"
  top: "conv3"
}
layer {
  name: "pool3"
  type: "Pooling"
  bottom: "conv3"
  top: "pool3"
  pooling_param {
    pool: AVE
    kernel_size: 3
    stride: 2
  }
}
layer {
  name: "ip1"
  type: "InnerProduct"
  bottom: "pool3"
  top: "ip1"
  param {
    lr_mult: 1
  }
  param {
    lr_mult: 2
  }
  inner_product_param {
    num_output: 512
    weight_filler {
      type: "gaussian"
      std: 0.1
    }
    bias_filler {
      type: "constant"
    }
  }
}
layer {
  name: "ip2"
  type: "InnerProduct"
  bottom: "ip1"
  top: "ip2"
  param {
    lr_mult: 1
  }
  param {
    lr_mult: 2
  }
  inner_product_param {
    num_output: 256
    weight_filler {
      type: "gaussian"
      std: 0.1
    }
    bias_filler {
      type: "constant"
    }
  }
}
layer {
  name: "ip3"
  type: "InnerProduct"
  bottom: "ip2"
  top: "ip3"
  param {
    lr_mult: 1
  }
  param {
    lr_mult: 2
  }
  inner_product_param {
    num_output: 1
    weight_filler {
      type: "gaussian"
      std: 0.1
    }
    bias_filler {
      type: "constant"
    }
  }
}
layer {
  name: "loss"
  type: "HuberLoss"
  bottom: "ip3"
  bottom: "label"
  top: "loss"
  include {
    phase: TRAIN
  }
}
I0505 00:48:32.482805  1411 layer_factory.hpp:77] Creating layer parameters
I0505 00:48:32.482820  1411 net.cpp:94] Creating Layer parameters
I0505 00:48:32.482831  1411 net.cpp:409] parameters -> data
I0505 00:48:32.482851  1411 net.cpp:409] parameters -> label
I0505 00:48:32.482861  1411 hdf5_data_layer.cpp:79] Loading list of HDF5 filenames from: /home/purduethu/scratch/radon/d/deng106/CNNStatisticalModel/distributions/input/5_distributions_100_sample_size_train-parameters-path.txt
I0505 00:48:32.482883  1411 hdf5_data_layer.cpp:93] Number of HDF5 files: 1
I0505 00:48:32.483469  1411 hdf5.cpp:32] Datatype class: H5T_FLOAT
I0505 00:48:32.500986  1411 net.cpp:144] Setting up parameters
I0505 00:48:32.501020  1411 net.cpp:151] Top shape: 20 1 10 10 (2000)
I0505 00:48:32.501026  1411 net.cpp:151] Top shape: 20 (20)
I0505 00:48:32.501030  1411 net.cpp:159] Memory required for data: 8080
I0505 00:48:32.501039  1411 layer_factory.hpp:77] Creating layer conv1
I0505 00:48:32.501057  1411 net.cpp:94] Creating Layer conv1
I0505 00:48:32.501062  1411 net.cpp:435] conv1 <- data
I0505 00:48:32.501073  1411 net.cpp:409] conv1 -> conv1
I0505 00:48:32.504909  1411 net.cpp:144] Setting up conv1
I0505 00:48:32.504928  1411 net.cpp:151] Top shape: 20 64 10 10 (128000)
I0505 00:48:32.504932  1411 net.cpp:159] Memory required for data: 520080
I0505 00:48:32.504945  1411 layer_factory.hpp:77] Creating layer relu1
I0505 00:48:32.504953  1411 net.cpp:94] Creating Layer relu1
I0505 00:48:32.504957  1411 net.cpp:435] relu1 <- conv1
I0505 00:48:32.504962  1411 net.cpp:396] relu1 -> conv1 (in-place)
I0505 00:48:32.504981  1411 net.cpp:144] Setting up relu1
I0505 00:48:32.504986  1411 net.cpp:151] Top shape: 20 64 10 10 (128000)
I0505 00:48:32.504989  1411 net.cpp:159] Memory required for data: 1032080
I0505 00:48:32.504992  1411 layer_factory.hpp:77] Creating layer pool1
I0505 00:48:32.504999  1411 net.cpp:94] Creating Layer pool1
I0505 00:48:32.505003  1411 net.cpp:435] pool1 <- conv1
I0505 00:48:32.505008  1411 net.cpp:409] pool1 -> pool1
I0505 00:48:32.505053  1411 net.cpp:144] Setting up pool1
I0505 00:48:32.505060  1411 net.cpp:151] Top shape: 20 64 5 5 (32000)
I0505 00:48:32.505064  1411 net.cpp:159] Memory required for data: 1160080
I0505 00:48:32.505067  1411 layer_factory.hpp:77] Creating layer conv2
I0505 00:48:32.505076  1411 net.cpp:94] Creating Layer conv2
I0505 00:48:32.505080  1411 net.cpp:435] conv2 <- pool1
I0505 00:48:32.505085  1411 net.cpp:409] conv2 -> conv2
I0505 00:48:32.513875  1411 net.cpp:144] Setting up conv2
I0505 00:48:32.513898  1411 net.cpp:151] Top shape: 20 128 5 5 (64000)
I0505 00:48:32.513903  1411 net.cpp:159] Memory required for data: 1416080
I0505 00:48:32.513913  1411 layer_factory.hpp:77] Creating layer relu2
I0505 00:48:32.513921  1411 net.cpp:94] Creating Layer relu2
I0505 00:48:32.513924  1411 net.cpp:435] relu2 <- conv2
I0505 00:48:32.513929  1411 net.cpp:396] relu2 -> conv2 (in-place)
I0505 00:48:32.513937  1411 net.cpp:144] Setting up relu2
I0505 00:48:32.513942  1411 net.cpp:151] Top shape: 20 128 5 5 (64000)
I0505 00:48:32.513947  1411 net.cpp:159] Memory required for data: 1672080
I0505 00:48:32.513949  1411 layer_factory.hpp:77] Creating layer conv3
I0505 00:48:32.513958  1411 net.cpp:94] Creating Layer conv3
I0505 00:48:32.513962  1411 net.cpp:435] conv3 <- conv2
I0505 00:48:32.513967  1411 net.cpp:409] conv3 -> conv3
I0505 00:48:32.529072  1411 net.cpp:144] Setting up conv3
I0505 00:48:32.529103  1411 net.cpp:151] Top shape: 20 128 5 5 (64000)
I0505 00:48:32.529109  1411 net.cpp:159] Memory required for data: 1928080
I0505 00:48:32.529119  1411 layer_factory.hpp:77] Creating layer relu3
I0505 00:48:32.529129  1411 net.cpp:94] Creating Layer relu3
I0505 00:48:32.529140  1411 net.cpp:435] relu3 <- conv3
I0505 00:48:32.529145  1411 net.cpp:396] relu3 -> conv3 (in-place)
I0505 00:48:32.529155  1411 net.cpp:144] Setting up relu3
I0505 00:48:32.529160  1411 net.cpp:151] Top shape: 20 128 5 5 (64000)
I0505 00:48:32.529163  1411 net.cpp:159] Memory required for data: 2184080
I0505 00:48:32.529167  1411 layer_factory.hpp:77] Creating layer pool3
I0505 00:48:32.529175  1411 net.cpp:94] Creating Layer pool3
I0505 00:48:32.529177  1411 net.cpp:435] pool3 <- conv3
I0505 00:48:32.529189  1411 net.cpp:409] pool3 -> pool3
I0505 00:48:32.529233  1411 net.cpp:144] Setting up pool3
I0505 00:48:32.529240  1411 net.cpp:151] Top shape: 20 128 2 2 (10240)
I0505 00:48:32.529243  1411 net.cpp:159] Memory required for data: 2225040
I0505 00:48:32.529247  1411 layer_factory.hpp:77] Creating layer ip1
I0505 00:48:32.529254  1411 net.cpp:94] Creating Layer ip1
I0505 00:48:32.529258  1411 net.cpp:435] ip1 <- pool3
I0505 00:48:32.529263  1411 net.cpp:409] ip1 -> ip1
I0505 00:48:32.536751  1411 net.cpp:144] Setting up ip1
I0505 00:48:32.536773  1411 net.cpp:151] Top shape: 20 512 (10240)
I0505 00:48:32.536778  1411 net.cpp:159] Memory required for data: 2266000
I0505 00:48:32.536785  1411 layer_factory.hpp:77] Creating layer ip2
I0505 00:48:32.536793  1411 net.cpp:94] Creating Layer ip2
I0505 00:48:32.536798  1411 net.cpp:435] ip2 <- ip1
I0505 00:48:32.536804  1411 net.cpp:409] ip2 -> ip2
I0505 00:48:32.540721  1411 net.cpp:144] Setting up ip2
I0505 00:48:32.540738  1411 net.cpp:151] Top shape: 20 256 (5120)
I0505 00:48:32.540742  1411 net.cpp:159] Memory required for data: 2286480
I0505 00:48:32.540752  1411 layer_factory.hpp:77] Creating layer ip3
I0505 00:48:32.540760  1411 net.cpp:94] Creating Layer ip3
I0505 00:48:32.540765  1411 net.cpp:435] ip3 <- ip2
I0505 00:48:32.540771  1411 net.cpp:409] ip3 -> ip3
I0505 00:48:32.540843  1411 net.cpp:144] Setting up ip3
I0505 00:48:32.540849  1411 net.cpp:151] Top shape: 20 1 (20)
I0505 00:48:32.540853  1411 net.cpp:159] Memory required for data: 2286560
I0505 00:48:32.540858  1411 layer_factory.hpp:77] Creating layer loss
I0505 00:48:32.540869  1411 net.cpp:94] Creating Layer loss
I0505 00:48:32.540873  1411 net.cpp:435] loss <- ip3
I0505 00:48:32.540877  1411 net.cpp:435] loss <- label
I0505 00:48:32.540884  1411 net.cpp:409] loss -> loss
I0505 00:48:32.540920  1411 net.cpp:144] Setting up loss
…
