…
I0503 15:58:45.293282 21199 net.cpp:323] The NetState phase (0) differed from the phase (1) specified by a rule in layer intercept
I0503 15:58:45.293328 21199 net.cpp:323] The NetState phase (0) differed from the phase (1) specified by a rule in layer accuracy
I0503 15:58:45.293573 21199 net.cpp:52] Initializing net from parameters: 
state {
  phase: TRAIN
}
layer {
  name: "parameters"
  type: "HDF5Data"
  top: "data"
  top: "label"
  include {
    phase: TRAIN
  }
  hdf5_data_param {
    source: "/home/purduethu/scratch/radon/d/deng106/CNNStatisticalModel/distributions/input/20_distributions_100_sample_size_train-distributions-path.txt"
    batch_size: 20
  }
}
layer {
  name: "conv1"
  type: "Convolution"
  bottom: "data"
  top: "conv1"
  param {
    lr_mult: 1
  }
  param {
    lr_mult: 2
  }
  convolution_param {
    num_output: 64
    pad: 2
    kernel_size: 5
    stride: 1
    weight_filler {
      type: "gaussian"
      std: 0.0001
    }
    bias_filler {
      type: "constant"
    }
  }
}
layer {
  name: "relu1"
  type: "ReLU"
  bottom: "conv1"
  top: "conv1"
}
layer {
  name: "conv2"
  type: "Convolution"
  bottom: "conv1"
  top: "conv2"
  param {
    lr_mult: 1
  }
  param {
    lr_mult: 2
  }
  convolution_param {
    num_output: 64
    pad: 2
    kernel_size: 5
    stride: 1
    weight_filler {
      type: "gaussian"
      std: 0.01
    }
    bias_filler {
      type: "constant"
    }
  }
}
layer {
  name: "relu2"
  type: "ReLU"
  bottom: "conv2"
  top: "conv2"
}
layer {
  name: "pool2"
  type: "Pooling"
  bottom: "conv2"
  top: "pool2"
  pooling_param {
    pool: MAX
    kernel_size: 3
    stride: 2
  }
}
layer {
  name: "conv3"
  type: "Convolution"
  bottom: "pool2"
  top: "conv3"
  param {
    lr_mult: 1
  }
  param {
    lr_mult: 2
  }
  convolution_param {
    num_output: 128
    pad: 2
    kernel_size: 5
    stride: 1
    weight_filler {
      type: "gaussian"
      std: 0.01
    }
    bias_filler {
      type: "constant"
    }
  }
}
layer {
  name: "relu3"
  type: "ReLU"
  bottom: "conv3"
  top: "conv3"
}
layer {
  name: "conv4"
  type: "Convolution"
  bottom: "conv3"
  top: "conv4"
  param {
    lr_mult: 1
  }
  param {
    lr_mult: 2
  }
  convolution_param {
    num_output: 128
    pad: 2
    kernel_size: 5
    stride: 1
    weight_filler {
      type: "gaussian"
      std: 0.01
    }
    bias_filler {
      type: "constant"
    }
  }
}
layer {
  name: "relu4"
  type: "ReLU"
  bottom: "conv4"
  top: "conv4"
}
layer {
  name: "conv5"
  type: "Convolution"
  bottom: "conv4"
  top: "conv5"
  param {
    lr_mult: 1
  }
  param {
    lr_mult: 2
  }
  convolution_param {
    num_output: 128
    pad: 2
    kernel_size: 5
    stride: 1
    weight_filler {
      type: "gaussian"
      std: 0.01
    }
    bias_filler {
      type: "constant"
    }
  }
}
layer {
  name: "relu5"
  type: "ReLU"
  bottom: "conv5"
  top: "conv5"
}
layer {
  name: "pool5"
  type: "Pooling"
  bottom: "conv5"
  top: "pool5"
  pooling_param {
    pool: AVE
    kernel_size: 3
    stride: 2
  }
}
layer {
  name: "ip1"
  type: "InnerProduct"
  bottom: "pool5"
  top: "ip1"
  param {
    lr_mult: 1
  }
  param {
    lr_mult: 2
  }
  inner_product_param {
    num_output: 1024
    weight_filler {
      type: "gaussian"
      std: 0.1
    }
    bias_filler {
      type: "constant"
    }
  }
}
layer {
  name: "ip2"
  type: "InnerProduct"
  bottom: "ip1"
  top: "ip2"
  param {
    lr_mult: 1
  }
  param {
    lr_mult: 2
  }
  inner_product_param {
    num_output: 512
    weight_filler {
      type: "gaussian"
      std: 0.1
    }
    bias_filler {
      type: "constant"
    }
  }
}
layer {
  name: "ip3"
  type: "InnerProduct"
  bottom: "ip2"
  top: "ip3"
  param {
    lr_mult: 1
  }
  param {
    lr_mult: 2
  }
  inner_product_param {
    num_output: 50
    weight_filler {
      type: "gaussian"
      std: 0.1
    }
    bias_filler {
      type: "constant"
    }
  }
}
layer {
  name: "loss"
  type: "SoftmaxWithLoss"
  bottom: "ip3"
  bottom: "label"
  top: "loss"
}
I0503 15:58:45.293751 21199 layer_factory.hpp:77] Creating layer parameters
I0503 15:58:45.293783 21199 net.cpp:94] Creating Layer parameters
I0503 15:58:45.293798 21199 net.cpp:409] parameters -> data
I0503 15:58:45.293838 21199 net.cpp:409] parameters -> label
I0503 15:58:45.293862 21199 hdf5_data_layer.cpp:79] Loading list of HDF5 filenames from: /home/purduethu/scratch/radon/d/deng106/CNNStatisticalModel/distributions/input/20_distributions_100_sample_size_train-distributions-path.txt
I0503 15:58:45.293910 21199 hdf5_data_layer.cpp:93] Number of HDF5 files: 1
I0503 15:58:45.295230 21199 hdf5.cpp:32] Datatype class: H5T_FLOAT
I0503 15:58:45.407902 21199 hdf5.cpp:35] Datatype class: H5T_INTEGER
I0503 15:58:45.410446 21199 net.cpp:144] Setting up parameters
I0503 15:58:45.410472 21199 net.cpp:151] Top shape: 20 1 10 10 (2000)
I0503 15:58:45.410482 21199 net.cpp:151] Top shape: 20 (20)
I0503 15:58:45.410488 21199 net.cpp:159] Memory required for data: 8080
I0503 15:58:45.410498 21199 layer_factory.hpp:77] Creating layer conv1
I0503 15:58:45.410522 21199 net.cpp:94] Creating Layer conv1
I0503 15:58:45.410531 21199 net.cpp:435] conv1 <- data
I0503 15:58:45.410547 21199 net.cpp:409] conv1 -> conv1
I0503 15:58:45.415603 21199 net.cpp:144] Setting up conv1
I0503 15:58:45.415626 21199 net.cpp:151] Top shape: 20 64 10 10 (128000)
I0503 15:58:45.415632 21199 net.cpp:159] Memory required for data: 520080
I0503 15:58:45.415648 21199 layer_factory.hpp:77] Creating layer relu1
I0503 15:58:45.415660 21199 net.cpp:94] Creating Layer relu1
I0503 15:58:45.415666 21199 net.cpp:435] relu1 <- conv1
I0503 15:58:45.415673 21199 net.cpp:396] relu1 -> conv1 (in-place)
I0503 15:58:45.415698 21199 net.cpp:144] Setting up relu1
I0503 15:58:45.415705 21199 net.cpp:151] Top shape: 20 64 10 10 (128000)
I0503 15:58:45.415710 21199 net.cpp:159] Memory required for data: 1032080
I0503 15:58:45.415715 21199 layer_factory.hpp:77] Creating layer conv2
I0503 15:58:45.415727 21199 net.cpp:94] Creating Layer conv2
I0503 15:58:45.415733 21199 net.cpp:435] conv2 <- conv1
I0503 15:58:45.415740 21199 net.cpp:409] conv2 -> conv2
I0503 15:58:45.422749 21199 net.cpp:144] Setting up conv2
I0503 15:58:45.422770 21199 net.cpp:151] Top shape: 20 64 10 10 (128000)
I0503 15:58:45.422776 21199 net.cpp:159] Memory required for data: 1544080
I0503 15:58:45.422788 21199 layer_factory.hpp:77] Creating layer relu2
I0503 15:58:45.422798 21199 net.cpp:94] Creating Layer relu2
I0503 15:58:45.422804 21199 net.cpp:435] relu2 <- conv2
I0503 15:58:45.422812 21199 net.cpp:396] relu2 -> conv2 (in-place)
I0503 15:58:45.422823 21199 net.cpp:144] Setting up relu2
I0503 15:58:45.422830 21199 net.cpp:151] Top shape: 20 64 10 10 (128000)
I0503 15:58:45.422835 21199 net.cpp:159] Memory required for data: 2056080
I0503 15:58:45.422842 21199 layer_factory.hpp:77] Creating layer pool2
I0503 15:58:45.422860 21199 net.cpp:94] Creating Layer pool2
I0503 15:58:45.422866 21199 net.cpp:435] pool2 <- conv2
I0503 15:58:45.422874 21199 net.cpp:409] pool2 -> pool2
I0503 15:58:45.422936 21199 net.cpp:144] Setting up pool2
I0503 15:58:45.422947 21199 net.cpp:151] Top shape: 20 64 5 5 (32000)
I0503 15:58:45.422953 21199 net.cpp:159] Memory required for data: 2184080
I0503 15:58:45.422958 21199 layer_factory.hpp:77] Creating layer conv3
I0503 15:58:45.422971 21199 net.cpp:94] Creating Layer conv3
I0503 15:58:45.422976 21199 net.cpp:435] conv3 <- pool2
I0503 15:58:45.422996 21199 net.cpp:409] conv3 -> conv3
I0503 15:58:45.434348 21199 net.cpp:144] Setting up conv3
I0503 15:58:45.434368 21199 net.cpp:151] Top shape: 20 128 5 5 (64000)
I0503 15:58:45.434375 21199 net.cpp:159] Memory required for data: 2440080
I0503 15:58:45.434386 21199 layer_factory.hpp:77] Creating layer relu3
I0503 15:58:45.434396 21199 net.cpp:94] Creating Layer relu3
I0503 15:58:45.434401 21199 net.cpp:435] relu3 <- conv3
I0503 15:58:45.434408 21199 net.cpp:396] relu3 -> conv3 (in-place)
I0503 15:58:45.434419 21199 net.cpp:144] Setting up relu3
I0503 15:58:45.434427 21199 net.cpp:151] Top shape: 20 128 5 5 (64000)
I0503 15:58:45.434432 21199 net.cpp:159] Memory required for data: 2696080
I0503 15:58:45.434435 21199 layer_factory.hpp:77] Creating layer conv4
I0503 15:58:45.434448 21199 net.cpp:94] Creating Layer conv4
I0503 15:58:45.434453 21199 net.cpp:435] conv4 <- conv3
I0503 15:58:45.434461 21199 net.cpp:409] conv4 -> conv4
I0503 15:58:45.454577 21199 net.cpp:144] Setting up conv4
I0503 15:58:45.454597 21199 net.cpp:151] Top shape: 20 128 5 5 (64000)
I0503 15:58:45.454603 21199 net.cpp:159] Memory required for data: 2952080
I0503 15:58:45.454613 21199 layer_factory.hpp:77] Creating layer relu4
I0503 15:58:45.454622 21199 net.cpp:94] Creating Layer relu4
I0503 15:58:45.454627 21199 net.cpp:435] relu4 <- conv4
I0503 15:58:45.454633 21199 net.cpp:396] relu4 -> conv4 (in-place)
I0503 15:58:45.454644 21199 net.cpp:144] Setting up relu4
I0503 15:58:45.454651 21199 net.cpp:151] Top shape: 20 128 5 5 (64000)
I0503 15:58:45.454655 21199 net.cpp:159] Memory required for data: 3208080
I0503 15:58:45.454660 21199 layer_factory.hpp:77] Creating layer conv5
I0503 15:58:45.454670 21199 net.cpp:94] Creating Layer conv5
I0503 15:58:45.454676 21199 net.cpp:435] conv5 <- conv4
I0503 15:58:45.454682 21199 net.cpp:409] conv5 -> conv5
I0503 15:58:45.473299 21199 net.cpp:144] Setting up conv5
I0503 15:58:45.473318 21199 net.cpp:151] Top shape: 20 128 5 5 (64000)
I0503 15:58:45.473323 21199 net.cpp:159] Memory required for data: 3464080
I0503 15:58:45.473335 21199 layer_factory.hpp:77] Creating layer relu5
I0503 15:58:45.473343 21199 net.cpp:94] Creating Layer relu5
I0503 15:58:45.473348 21199 net.cpp:435] relu5 <- conv5
I0503 15:58:45.473354 21199 net.cpp:396] relu5 -> conv5 (in-place)
I0503 15:58:45.473363 21199 net.cpp:144] Setting up relu5
I0503 15:58:45.473371 21199 net.cpp:151] Top shape: 20 128 5 5 (64000)
I0503 15:58:45.473374 21199 net.cpp:159] Memory required for data: 3720080
I0503 15:58:45.473378 21199 layer_factory.hpp:77] Creating layer pool5
I0503 15:58:45.473386 21199 net.cpp:94] Creating Layer pool5
I0503 15:58:45.473389 21199 net.cpp:435] pool5 <- conv5
I0503 15:58:45.473395 21199 net.cpp:409] pool5 -> pool5
I0503 15:58:45.473438 21199 net.cpp:144] Setting up pool5
I0503 15:58:45.473446 21199 net.cpp:151] Top shape: 20 128 2 2 (10240)
I0503 15:58:45.473451 21199 net.cpp:159] Memory required for data: 3761040
I0503 15:58:45.473455 21199 layer_factory.hpp:77] Creating layer ip1
I0503 15:58:45.473464 21199 net.cpp:94] Creating Layer ip1
I0503 15:58:45.473469 21199 net.cpp:435] ip1 <- pool5
I0503 15:58:45.473474 21199 net.cpp:409] ip1 -> ip1
I0503 15:58:45.491369 21199 net.cpp:144] Setting up ip1
I0503 15:58:45.491385 21199 net.cpp:151] Top shape: 20 1024 (20480)
I0503 15:58:45.491390 21199 net.cpp:159] Memory required for data: 3842960
I0503 15:58:45.491400 21199 layer_factory.hpp:77] Creating layer ip2
I0503 15:58:45.491407 21199 net.cpp:94] Creating Layer ip2
I0503 15:58:45.491417 21199 net.cpp:435] ip2 <- ip1
I0503 15:58:45.491425 21199 net.cpp:409] ip2 -> ip2
I0503 15:58:45.507756 21199 net.cpp:144] Setting up ip2
I0503 15:58:45.507772 21199 net.cpp:151] Top shape: 20 512 (10240)
I0503 15:58:45.507777 21199 net.cpp:159] Memory required for data: 3883920
I0503 15:58:45.507784 21199 layer_factory.hpp:77] Creating layer ip3
I0503 15:58:45.507792 21199 net.cpp:94] Creating Layer ip3
I0503 15:58:45.507797 21199 net.cpp:435] ip3 <- ip2
I0503 15:58:45.507803 21199 net.cpp:409] ip3 -> ip3
I0503 15:58:45.509383 21199 net.cpp:144] Setting up ip3
I0503 15:58:45.509398 21199 net.cpp:151] Top shape: 20 50 (1000)
I0503 15:58:45.509403 21199 net.cpp:159] Memory required for data: 3887920
I0503 15:58:45.509410 21199 layer_factory.hpp:77] Creating layer loss
I0503 15:58:45.509419 21199 net.cpp:94] Creating Layer loss
I0503 15:58:45.509423 21199 net.cpp:435] loss <- ip3
I0503 15:58:45.509428 21199 net.cpp:435] loss <- label
I0503 15:58:45.509435 21199 net.cpp:409] loss -> loss
I0503 15:58:45.509449 21199 layer_factory.hpp:77] Creating layer loss
…
I0503 15:58:45.510030 21199 solver.cpp:181] Creating test net (#0) specified by net file: ./protocol/dis_20_100_dimension.protocol_distribution
I0503 15:58:45.510061 21199 net.cpp:323] The NetState phase (1) differed from the phase (0) specified by a rule in layer parameters
I0503 15:58:45.510174 21199 net.cpp:52] Initializing net from parameters: 
state {
  phase: TEST
}
layer {
  name: "intercept"
  type: "HDF5Data"
  top: "data"
  top: "label"
  include {
    phase: TEST
  }
  hdf5_data_param {
    source: "/home/purduethu/scratch/radon/d/deng106/CNNStatisticalModel/distributions/input/20_distributions_100_sample_size_test-distributions-path.txt"
    batch_size: 20
  }
}
layer {
  name: "conv1"
  type: "Convolution"
  bottom: "data"
  top: "conv1"
  param {
    lr_mult: 1
  }
  param {
    lr_mult: 2
  }
  convolution_param {
    num_output: 64
    pad: 2
    kernel_size: 5
    stride: 1
    weight_filler {
      type: "gaussian"
      std: 0.0001
    }
    bias_filler {
      type: "constant"
    }
  }
}
layer {
  name: "relu1"
  type: "ReLU"
  bottom: "conv1"
  top: "conv1"
}
layer {
  name: "conv2"
  type: "Convolution"
  bottom: "conv1"
  top: "conv2"
  param {
    lr_mult: 1
  }
  param {
    lr_mult: 2
  }
  convolution_param {
    num_output: 64
    pad: 2
    kernel_size: 5
    stride: 1
    weight_filler {
      type: "gaussian"
      std: 0.01
    }
    bias_filler {
      type: "constant"
    }
  }
}
layer {
  name: "relu2"
  type: "ReLU"
  bottom: "conv2"
  top: "conv2"
}
layer {
  name: "pool2"
  type: "Pooling"
  bottom: "conv2"
  top: "pool2"
  pooling_param {
    pool: MAX
    kernel_size: 3
    stride: 2
  }
}
layer {
  name: "conv3"
  type: "Convolution"
  bottom: "pool2"
  top: "conv3"
  param {
    lr_mult: 1
  }
  param {
    lr_mult: 2
  }
  convolution_param {
    num_output: 128
    pad: 2
    kernel_size: 5
    stride: 1
    weight_filler {
      type: "gaussian"
      std: 0.01
    }
    bias_filler {
      type: "constant"
    }
  }
}
layer {
  name: "relu3"
  type: "ReLU"
  bottom: "conv3"
  top: "conv3"
}
layer {
  name: "conv4"
  type: "Convolution"
  bottom: "conv3"
  top: "conv4"
  param {
    lr_mult: 1
  }
  param {
    lr_mult: 2
  }
  convolution_param {
    num_output: 128
    pad: 2
    kernel_size: 5
    stride: 1
    weight_filler {
      type: "gaussian"
      std: 0.01
    }
    bias_filler {
      type: "constant"
    }
  }
}
layer {
  name: "relu4"
  type: "ReLU"
  bottom: "conv4"
  top: "conv4"
}
layer {
  name: "conv5"
  type: "Convolution"
  bottom: "conv4"
  top: "conv5"
  param {
    lr_mult: 1
  }
  param {
    lr_mult: 2
  }
  convolution_param {
    num_output: 128
    pad: 2
    kernel_size: 5
    stride: 1
    weight_filler {
      type: "gaussian"
      std: 0.01
    }
    bias_filler {
      type: "constant"
    }
  }
}
layer {
  name: "relu5"
  type: "ReLU"
  bottom: "conv5"
  top: "conv5"
}
layer {
  name: "pool5"
  type: "Pooling"
  bottom: "conv5"
  top: "pool5"
  pooling_param {
    pool: AVE
    kernel_size: 3
    stride: 2
  }
}
layer {
  name: "ip1"
  type: "InnerProduct"
  bottom: "pool5"
  top: "ip1"
  param {
    lr_mult: 1
  }
  param {
    lr_mult: 2
  }
  inner_product_param {
    num_output: 1024
    weight_filler {
      type: "gaussian"
      std: 0.1
    }
    bias_filler {
      type: "constant"
    }
  }
}
layer {
  name: "ip2"
  type: "InnerProduct"
  bottom: "ip1"
  top: "ip2"
  param {
    lr_mult: 1
  }
  param {
    lr_mult: 2
  }
  inner_product_param {
    num_output: 512
    weight_filler {
      type: "gaussian"
      std: 0.1
    }
    bias_filler {
      type: "constant"
    }
  }
}
layer {
  name: "ip3"
  type: "InnerProduct"
  bottom: "ip2"
  top: "ip3"
  param {
    lr_mult: 1
  }
  param {
    lr_mult: 2
  }
  inner_product_param {
    num_output: 50
    weight_filler {
      type: "gaussian"
      std: 0.1
    }
    bias_filler {
      type: "constant"
    }
  }
}
layer {
  name: "accuracy"
  type: "Accuracy"
  bottom: "ip3"
  bottom: "label"
  top: "accuracy"
  include {
    phase: TEST
  }
}
layer {
  name: "loss"
  type: "SoftmaxWithLoss"
  bottom: "ip3"
  bottom: "label"
  top: "loss"
}
I0503 15:58:45.510257 21199 layer_factory.hpp:77] Creating layer intercept
I0503 15:58:45.510267 21199 net.cpp:94] Creating Layer intercept
I0503 15:58:45.510272 21199 net.cpp:409] intercept -> data
I0503 15:58:45.510280 21199 net.cpp:409] intercept -> label
I0503 15:58:45.510288 21199 hdf5_data_layer.cpp:79] Loading list of HDF5 filenames from: /home/purduethu/scratch/radon/d/deng106/CNNStatisticalModel/distributions/input/20_distributions_100_sample_size_test-distributions-path.txt
I0503 15:58:45.510309 21199 hdf5_data_layer.cpp:93] Number of HDF5 files: 1
I0503 15:58:45.528810 21199 net.cpp:144] Setting up intercept
I0503 15:58:45.528846 21199 net.cpp:151] Top shape: 20 1 10 10 (2000)
I0503 15:58:45.528851 21199 net.cpp:151] Top shape: 20 (20)
I0503 15:58:45.528856 21199 net.cpp:159] Memory required for data: 8080
I0503 15:58:45.528862 21199 layer_factory.hpp:77] Creating layer label_intercept_1_split
I0503 15:58:45.528884 21199 net.cpp:94] Creating Layer label_intercept_1_split
I0503 15:58:45.528889 21199 net.cpp:435] label_intercept_1_split <- label
I0503 15:58:45.528897 21199 net.cpp:409] label_intercept_1_split -> label_intercept_1_split_0
I0503 15:58:45.528905 21199 net.cpp:409] label_intercept_1_split -> label_intercept_1_split_1
I0503 15:58:45.528944 21199 net.cpp:144] Setting up label_intercept_1_split
I0503 15:58:45.528952 21199 net.cpp:151] Top shape: 20 (20)
I0503 15:58:45.528957 21199 net.cpp:151] Top shape: 20 (20)
I0503 15:58:45.528960 21199 net.cpp:159] Memory required for data: 8240
I0503 15:58:45.528964 21199 layer_factory.hpp:77] Creating layer conv1
I0503 15:58:45.528976 21199 net.cpp:94] Creating Layer conv1
I0503 15:58:45.528980 21199 net.cpp:435] conv1 <- data
I0503 15:58:45.528985 21199 net.cpp:409] conv1 -> conv1
I0503 15:58:45.529717 21199 net.cpp:144] Setting up conv1
I0503 15:58:45.529742 21199 net.cpp:151] Top shape: 20 64 10 10 (128000)
I0503 15:58:45.529747 21199 net.cpp:159] Memory required for data: 520240
I0503 15:58:45.529757 21199 layer_factory.hpp:77] Creating layer relu1
I0503 15:58:45.529764 21199 net.cpp:94] Creating Layer relu1
I0503 15:58:45.529768 21199 net.cpp:435] relu1 <- conv1
I0503 15:58:45.529773 21199 net.cpp:396] relu1 -> conv1 (in-place)
I0503 15:58:45.529781 21199 net.cpp:144] Setting up relu1
I0503 15:58:45.529786 21199 net.cpp:151] Top shape: 20 64 10 10 (128000)
I0503 15:58:45.529790 21199 net.cpp:159] Memory required for data: 1032240
I0503 15:58:45.529793 21199 layer_factory.hpp:77] Creating layer conv2
I0503 15:58:45.529803 21199 net.cpp:94] Creating Layer conv2
I0503 15:58:45.529806 21199 net.cpp:435] conv2 <- conv1
I0503 15:58:45.529813 21199 net.cpp:409] conv2 -> conv2
I0503 15:58:45.534176 21199 net.cpp:144] Setting up conv2
I0503 15:58:45.534191 21199 net.cpp:151] Top shape: 20 64 10 10 (128000)
I0503 15:58:45.534195 21199 net.cpp:159] Memory required for data: 1544240
I0503 15:58:45.534204 21199 layer_factory.hpp:77] Creating layer relu2
I0503 15:58:45.534211 21199 net.cpp:94] Creating Layer relu2
I0503 15:58:45.534215 21199 net.cpp:435] relu2 <- conv2
I0503 15:58:45.534220 21199 net.cpp:396] relu2 -> conv2 (in-place)
I0503 15:58:45.534229 21199 net.cpp:144] Setting up relu2
I0503 15:58:45.534234 21199 net.cpp:151] Top shape: 20 64 10 10 (128000)
I0503 15:58:45.534236 21199 net.cpp:159] Memory required for data: 2056240
I0503 15:58:45.534240 21199 layer_factory.hpp:77] Creating layer pool2
I0503 15:58:45.534246 21199 net.cpp:94] Creating Layer pool2
I0503 15:58:45.534250 21199 net.cpp:435] pool2 <- conv2
I0503 15:58:45.534255 21199 net.cpp:409] pool2 -> pool2
I0503 15:58:45.534291 21199 net.cpp:144] Setting up pool2
I0503 15:58:45.534297 21199 net.cpp:151] Top shape: 20 64 5 5 (32000)
I0503 15:58:45.534301 21199 net.cpp:159] Memory required for data: 2184240
I0503 15:58:45.534304 21199 layer_factory.hpp:77] Creating layer conv3
I0503 15:58:45.534312 21199 net.cpp:94] Creating Layer conv3
I0503 15:58:45.534317 21199 net.cpp:435] conv3 <- pool2
I0503 15:58:45.534322 21199 net.cpp:409] conv3 -> conv3
I0503 15:58:45.542078 21199 net.cpp:144] Setting up conv3
I0503 15:58:45.542093 21199 net.cpp:151] Top shape: 20 128 5 5 (64000)
I0503 15:58:45.542098 21199 net.cpp:159] Memory required for data: 2440240
I0503 15:58:45.542106 21199 layer_factory.hpp:77] Creating layer relu3
I0503 15:58:45.542114 21199 net.cpp:94] Creating Layer relu3
I0503 15:58:45.542119 21199 net.cpp:435] relu3 <- conv3
I0503 15:58:45.542124 21199 net.cpp:396] relu3 -> conv3 (in-place)
I0503 15:58:45.542130 21199 net.cpp:144] Setting up relu3
I0503 15:58:45.542136 21199 net.cpp:151] Top shape: 20 128 5 5 (64000)
I0503 15:58:45.542140 21199 net.cpp:159] Memory required for data: 2696240
I0503 15:58:45.542143 21199 layer_factory.hpp:77] Creating layer conv4
I0503 15:58:45.542151 21199 net.cpp:94] Creating Layer conv4
I0503 15:58:45.542155 21199 net.cpp:435] conv4 <- conv3
I0503 15:58:45.542160 21199 net.cpp:409] conv4 -> conv4
I0503 15:58:45.555518 21199 net.cpp:144] Setting up conv4
I0503 15:58:45.555533 21199 net.cpp:151] Top shape: 20 128 5 5 (64000)
I0503 15:58:45.555538 21199 net.cpp:159] Memory required for data: 2952240
I0503 15:58:45.555544 21199 layer_factory.hpp:77] Creating layer relu4
I0503 15:58:45.555552 21199 net.cpp:94] Creating Layer relu4
I0503 15:58:45.555555 21199 net.cpp:435] relu4 <- conv4
I0503 15:58:45.555564 21199 net.cpp:396] relu4 -> conv4 (in-place)
I0503 15:58:45.555572 21199 net.cpp:144] Setting up relu4
I0503 15:58:45.555578 21199 net.cpp:151] Top shape: 20 128 5 5 (64000)
I0503 15:58:45.555582 21199 net.cpp:159] Memory required for data: 3208240
I0503 15:58:45.555584 21199 layer_factory.hpp:77] Creating layer conv5
I0503 15:58:45.555593 21199 net.cpp:94] Creating Layer conv5
I0503 15:58:45.555598 21199 net.cpp:435] conv5 <- conv4
I0503 15:58:45.555603 21199 net.cpp:409] conv5 -> conv5
I0503 15:58:45.568590 21199 net.cpp:144] Setting up conv5
I0503 15:58:45.568614 21199 net.cpp:151] Top shape: 20 128 5 5 (64000)
I0503 15:58:45.568619 21199 net.cpp:159] Memory required for data: 3464240
I0503 15:58:45.568629 21199 layer_factory.hpp:77] Creating layer relu5
I0503 15:58:45.568634 21199 net.cpp:94] Creating Layer relu5
I0503 15:58:45.568639 21199 net.cpp:435] relu5 <- conv5
I0503 15:58:45.568644 21199 net.cpp:396] relu5 -> conv5 (in-place)
I0503 15:58:45.568650 21199 net.cpp:144] Setting up relu5
I0503 15:58:45.568655 21199 net.cpp:151] Top shape: 20 128 5 5 (64000)
I0503 15:58:45.568660 21199 net.cpp:159] Memory required for data: 3720240
I0503 15:58:45.568662 21199 layer_factory.hpp:77] Creating layer pool5
I0503 15:58:45.568668 21199 net.cpp:94] Creating Layer pool5
I0503 15:58:45.568671 21199 net.cpp:435] pool5 <- conv5
I0503 15:58:45.568676 21199 net.cpp:409] pool5 -> pool5
I0503 15:58:45.568703 21199 net.cpp:144] Setting up pool5
I0503 15:58:45.568709 21199 net.cpp:151] Top shape: 20 128 2 2 (10240)
I0503 15:58:45.568713 21199 net.cpp:159] Memory required for data: 3761200
I0503 15:58:45.568717 21199 layer_factory.hpp:77] Creating layer ip1
I0503 15:58:45.568723 21199 net.cpp:94] Creating Layer ip1
I0503 15:58:45.568727 21199 net.cpp:435] ip1 <- pool5
I0503 15:58:45.568732 21199 net.cpp:409] ip1 -> ip1
I0503 15:58:45.582247 21199 net.cpp:144] Setting up ip1
I0503 15:58:45.582260 21199 net.cpp:151] Top shape: 20 1024 (20480)
I0503 15:58:45.582264 21199 net.cpp:159] Memory required for data: 3843120
I0503 15:58:45.582270 21199 layer_factory.hpp:77] Creating layer ip2
I0503 15:58:45.582278 21199 net.cpp:94] Creating Layer ip2
I0503 15:58:45.582281 21199 net.cpp:435] ip2 <- ip1
I0503 15:58:45.582286 21199 net.cpp:409] ip2 -> ip2
I0503 15:58:45.595744 21199 net.cpp:144] Setting up ip2
I0503 15:58:45.595757 21199 net.cpp:151] Top shape: 20 512 (10240)
I0503 15:58:45.595762 21199 net.cpp:159] Memory required for data: 3884080
I0503 15:58:45.595767 21199 layer_factory.hpp:77] Creating layer ip3
I0503 15:58:45.595775 21199 net.cpp:94] Creating Layer ip3
I0503 15:58:45.595779 21199 net.cpp:435] ip3 <- ip2
I0503 15:58:45.595785 21199 net.cpp:409] ip3 -> ip3
I0503 15:58:45.596495 21199 net.cpp:144] Setting up ip3
I0503 15:58:45.596503 21199 net.cpp:151] Top shape: 20 50 (1000)
I0503 15:58:45.596506 21199 net.cpp:159] Memory required for data: 3888080
I0503 15:58:45.596511 21199 layer_factory.hpp:77] Creating layer ip3_ip3_0_split
I0503 15:58:45.596518 21199 net.cpp:94] Creating Layer ip3_ip3_0_split
I0503 15:58:45.596520 21199 net.cpp:435] ip3_ip3_0_split <- ip3
I0503 15:58:45.596524 21199 net.cpp:409] ip3_ip3_0_split -> ip3_ip3_0_split_0
I0503 15:58:45.596530 21199 net.cpp:409] ip3_ip3_0_split -> ip3_ip3_0_split_1
I0503 15:58:45.596561 21199 net.cpp:144] Setting up ip3_ip3_0_split
I0503 15:58:45.596570 21199 net.cpp:151] Top shape: 20 50 (1000)
I0503 15:58:45.596573 21199 net.cpp:151] Top shape: 20 50 (1000)
I0503 15:58:45.596576 21199 net.cpp:159] Memory required for data: 3896080
I0503 15:58:45.596580 21199 layer_factory.hpp:77] Creating layer accuracy
I0503 15:58:45.596591 21199 net.cpp:94] Creating Layer accuracy
I0503 15:58:45.596596 21199 net.cpp:435] accuracy <- ip3_ip3_0_split_0
I0503 15:58:45.596599 21199 net.cpp:435] accuracy <- label_intercept_1_split_0
I0503 15:58:45.596604 21199 net.cpp:409] accuracy -> accuracy
…
