…
I0505 00:56:55.358875  1481 net.cpp:323] The NetState phase (0) differed from the phase (1) specified by a rule in layer intercept
I0505 00:56:55.358889  1481 net.cpp:323] The NetState phase (0) differed from the phase (1) specified by a rule in layer accuracy
I0505 00:56:55.358971  1481 net.cpp:52] Initializing net from parameters: 
state {
  phase: TRAIN
}
layer {
  name: "parameters"
  type: "HDF5Data"
  top: "data"
  top: "label"
  include {
    phase: TRAIN
  }
  hdf5_data_param {
    source: "/home/purduethu/scratch/radon/d/deng106/CNNStatisticalModel/distributions/input/50_distributions_900_sample_size_train-distributions-path.txt"
    batch_size: 20
  }
}
layer {
  name: "conv1"
  type: "Convolution"
  bottom: "data"
  top: "conv1"
  param {
    lr_mult: 1
  }
  param {
    lr_mult: 2
  }
  convolution_param {
    num_output: 64
    pad: 2
    kernel_size: 5
    stride: 1
    weight_filler {
      type: "gaussian"
      std: 0.0001
    }
    bias_filler {
      type: "constant"
    }
  }
}
layer {
  name: "relu1"
  type: "ReLU"
  bottom: "conv1"
  top: "conv1"
}
layer {
  name: "pool1"
  type: "Pooling"
  bottom: "conv1"
  top: "pool1"
  pooling_param {
    pool: MAX
    kernel_size: 3
    stride: 2
  }
}
layer {
  name: "conv2"
  type: "Convolution"
  bottom: "pool1"
  top: "conv2"
  param {
    lr_mult: 1
  }
  param {
    lr_mult: 2
  }
  convolution_param {
    num_output: 128
    pad: 2
    kernel_size: 5
    stride: 1
    weight_filler {
      type: "gaussian"
      std: 0.01
    }
    bias_filler {
      type: "constant"
    }
  }
}
layer {
  name: "relu2"
  type: "ReLU"
  bottom: "conv2"
  top: "conv2"
}
layer {
  name: "conv3"
  type: "Convolution"
  bottom: "conv2"
  top: "conv3"
  param {
    lr_mult: 1
  }
  param {
    lr_mult: 2
  }
  convolution_param {
    num_output: 128
    pad: 2
    kernel_size: 5
    stride: 1
    weight_filler {
      type: "gaussian"
      std: 0.01
    }
    bias_filler {
      type: "constant"
    }
  }
}
layer {
  name: "relu3"
  type: "ReLU"
  bottom: "conv3"
  top: "conv3"
}
layer {
  name: "pool3"
  type: "Pooling"
  bottom: "conv3"
  top: "pool3"
  pooling_param {
    pool: AVE
    kernel_size: 3
    stride: 2
  }
}
layer {
  name: "ip1"
  type: "InnerProduct"
  bottom: "pool3"
  top: "ip1"
  param {
    lr_mult: 1
  }
  param {
    lr_mult: 2
  }
  inner_product_param {
    num_output: 512
    weight_filler {
      type: "gaussian"
      std: 0.1
    }
    bias_filler {
      type: "constant"
    }
  }
}
layer {
  name: "ip2"
  type: "InnerProduct"
  bottom: "ip1"
  top: "ip2"
  param {
    lr_mult: 1
  }
  param {
    lr_mult: 2
  }
  inner_product_param {
    num_output: 256
    weight_filler {
      type: "gaussian"
      std: 0.1
    }
    bias_filler {
      type: "constant"
    }
  }
}
layer {
  name: "ip3"
  type: "InnerProduct"
  bottom: "ip2"
  top: "ip3"
  param {
    lr_mult: 1
  }
  param {
    lr_mult: 2
  }
  inner_product_param {
    num_output: 50
    weight_filler {
      type: "gaussian"
      std: 0.1
    }
    bias_filler {
      type: "constant"
    }
  }
}
layer {
  name: "loss"
  type: "SoftmaxWithLoss"
  bottom: "ip3"
  bottom: "label"
  top: "loss"
}
I0505 00:56:55.359035  1481 layer_factory.hpp:77] Creating layer parameters
I0505 00:56:55.359050  1481 net.cpp:94] Creating Layer parameters
I0505 00:56:55.359061  1481 net.cpp:409] parameters -> data
I0505 00:56:55.359081  1481 net.cpp:409] parameters -> label
I0505 00:56:55.359091  1481 hdf5_data_layer.cpp:79] Loading list of HDF5 filenames from: /home/purduethu/scratch/radon/d/deng106/CNNStatisticalModel/distributions/input/50_distributions_900_sample_size_train-distributions-path.txt
I0505 00:56:55.359113  1481 hdf5_data_layer.cpp:93] Number of HDF5 files: 1
I0505 00:56:55.359680  1481 hdf5.cpp:32] Datatype class: H5T_FLOAT
I0505 00:56:56.811974  1481 hdf5.cpp:35] Datatype class: H5T_INTEGER
I0505 00:56:56.814798  1481 net.cpp:144] Setting up parameters
I0505 00:56:56.814829  1481 net.cpp:151] Top shape: 20 1 30 30 (18000)
I0505 00:56:56.814836  1481 net.cpp:151] Top shape: 20 (20)
I0505 00:56:56.814841  1481 net.cpp:159] Memory required for data: 72080
I0505 00:56:56.814847  1481 layer_factory.hpp:77] Creating layer conv1
I0505 00:56:56.814867  1481 net.cpp:94] Creating Layer conv1
I0505 00:56:56.814873  1481 net.cpp:435] conv1 <- data
I0505 00:56:56.814885  1481 net.cpp:409] conv1 -> conv1
I0505 00:56:56.820785  1481 net.cpp:144] Setting up conv1
I0505 00:56:56.820811  1481 net.cpp:151] Top shape: 20 64 30 30 (1152000)
I0505 00:56:56.820816  1481 net.cpp:159] Memory required for data: 4680080
I0505 00:56:56.820827  1481 layer_factory.hpp:77] Creating layer relu1
I0505 00:56:56.820838  1481 net.cpp:94] Creating Layer relu1
I0505 00:56:56.820842  1481 net.cpp:435] relu1 <- conv1
I0505 00:56:56.820847  1481 net.cpp:396] relu1 -> conv1 (in-place)
I0505 00:56:56.820868  1481 net.cpp:144] Setting up relu1
I0505 00:56:56.820873  1481 net.cpp:151] Top shape: 20 64 30 30 (1152000)
I0505 00:56:56.820876  1481 net.cpp:159] Memory required for data: 9288080
I0505 00:56:56.820879  1481 layer_factory.hpp:77] Creating layer pool1
I0505 00:56:56.820888  1481 net.cpp:94] Creating Layer pool1
I0505 00:56:56.820891  1481 net.cpp:435] pool1 <- conv1
I0505 00:56:56.820895  1481 net.cpp:409] pool1 -> pool1
I0505 00:56:56.820940  1481 net.cpp:144] Setting up pool1
I0505 00:56:56.820946  1481 net.cpp:151] Top shape: 20 64 15 15 (288000)
I0505 00:56:56.820950  1481 net.cpp:159] Memory required for data: 10440080
I0505 00:56:56.820955  1481 layer_factory.hpp:77] Creating layer conv2
I0505 00:56:56.820964  1481 net.cpp:94] Creating Layer conv2
I0505 00:56:56.820968  1481 net.cpp:435] conv2 <- pool1
I0505 00:56:56.820973  1481 net.cpp:409] conv2 -> conv2
I0505 00:56:56.833809  1481 net.cpp:144] Setting up conv2
I0505 00:56:56.833837  1481 net.cpp:151] Top shape: 20 128 15 15 (576000)
I0505 00:56:56.833842  1481 net.cpp:159] Memory required for data: 12744080
I0505 00:56:56.833854  1481 layer_factory.hpp:77] Creating layer relu2
I0505 00:56:56.833863  1481 net.cpp:94] Creating Layer relu2
I0505 00:56:56.833868  1481 net.cpp:435] relu2 <- conv2
I0505 00:56:56.833873  1481 net.cpp:396] relu2 -> conv2 (in-place)
I0505 00:56:56.833883  1481 net.cpp:144] Setting up relu2
I0505 00:56:56.833887  1481 net.cpp:151] Top shape: 20 128 15 15 (576000)
I0505 00:56:56.833890  1481 net.cpp:159] Memory required for data: 15048080
I0505 00:56:56.833894  1481 layer_factory.hpp:77] Creating layer conv3
I0505 00:56:56.833904  1481 net.cpp:94] Creating Layer conv3
I0505 00:56:56.833906  1481 net.cpp:435] conv3 <- conv2
I0505 00:56:56.833911  1481 net.cpp:409] conv3 -> conv3
I0505 00:56:56.855530  1481 net.cpp:144] Setting up conv3
I0505 00:56:56.855562  1481 net.cpp:151] Top shape: 20 128 15 15 (576000)
I0505 00:56:56.855567  1481 net.cpp:159] Memory required for data: 17352080
I0505 00:56:56.855588  1481 layer_factory.hpp:77] Creating layer relu3
I0505 00:56:56.855599  1481 net.cpp:94] Creating Layer relu3
I0505 00:56:56.855604  1481 net.cpp:435] relu3 <- conv3
I0505 00:56:56.855609  1481 net.cpp:396] relu3 -> conv3 (in-place)
I0505 00:56:56.855619  1481 net.cpp:144] Setting up relu3
I0505 00:56:56.855624  1481 net.cpp:151] Top shape: 20 128 15 15 (576000)
I0505 00:56:56.855628  1481 net.cpp:159] Memory required for data: 19656080
I0505 00:56:56.855630  1481 layer_factory.hpp:77] Creating layer pool3
I0505 00:56:56.855646  1481 net.cpp:94] Creating Layer pool3
I0505 00:56:56.855650  1481 net.cpp:435] pool3 <- conv3
I0505 00:56:56.855654  1481 net.cpp:409] pool3 -> pool3
I0505 00:56:56.855705  1481 net.cpp:144] Setting up pool3
I0505 00:56:56.855713  1481 net.cpp:151] Top shape: 20 128 7 7 (125440)
I0505 00:56:56.855716  1481 net.cpp:159] Memory required for data: 20157840
I0505 00:56:56.855720  1481 layer_factory.hpp:77] Creating layer ip1
I0505 00:56:56.855727  1481 net.cpp:94] Creating Layer ip1
I0505 00:56:56.855731  1481 net.cpp:435] ip1 <- pool3
I0505 00:56:56.855736  1481 net.cpp:409] ip1 -> ip1
I0505 00:56:56.934929  1481 net.cpp:144] Setting up ip1
I0505 00:56:56.934967  1481 net.cpp:151] Top shape: 20 512 (10240)
I0505 00:56:56.934970  1481 net.cpp:159] Memory required for data: 20198800
I0505 00:56:56.934979  1481 layer_factory.hpp:77] Creating layer ip2
I0505 00:56:56.934989  1481 net.cpp:94] Creating Layer ip2
I0505 00:56:56.934993  1481 net.cpp:435] ip2 <- ip1
I0505 00:56:56.935000  1481 net.cpp:409] ip2 -> ip2
I0505 00:56:56.938200  1481 net.cpp:144] Setting up ip2
I0505 00:56:56.938210  1481 net.cpp:151] Top shape: 20 256 (5120)
I0505 00:56:56.938215  1481 net.cpp:159] Memory required for data: 20219280
I0505 00:56:56.938222  1481 layer_factory.hpp:77] Creating layer ip3
I0505 00:56:56.938230  1481 net.cpp:94] Creating Layer ip3
I0505 00:56:56.938233  1481 net.cpp:435] ip3 <- ip2
I0505 00:56:56.938237  1481 net.cpp:409] ip3 -> ip3
I0505 00:56:56.939376  1481 net.cpp:144] Setting up ip3
I0505 00:56:56.939390  1481 net.cpp:151] Top shape: 20 50 (1000)
I0505 00:56:56.939394  1481 net.cpp:159] Memory required for data: 20223280
I0505 00:56:56.939400  1481 layer_factory.hpp:77] Creating layer loss
I0505 00:56:56.939406  1481 net.cpp:94] Creating Layer loss
I0505 00:56:56.939410  1481 net.cpp:435] loss <- ip3
I0505 00:56:56.939414  1481 net.cpp:435] loss <- label
I0505 00:56:56.939420  1481 net.cpp:409] loss -> loss
I0505 00:56:56.939432  1481 layer_factory.hpp:77] Creating layer loss
…
I0505 00:56:56.939867  1481 solver.cpp:181] Creating test net (#0) specified by net file: ./protocol/dis_50_900_dimension.protocol_distribution
I0505 00:56:56.939898  1481 net.cpp:323] The NetState phase (1) differed from the phase (0) specified by a rule in layer parameters
I0505 00:56:56.939983  1481 net.cpp:52] Initializing net from parameters: 
state {
  phase: TEST
}
layer {
  name: "intercept"
  type: "HDF5Data"
  top: "data"
  top: "label"
  include {
    phase: TEST
  }
  hdf5_data_param {
    source: "/home/purduethu/scratch/radon/d/deng106/CNNStatisticalModel/distributions/input/50_distributions_900_sample_size_test-distributions-path.txt"
    batch_size: 20
  }
}
layer {
  name: "conv1"
  type: "Convolution"
  bottom: "data"
  top: "conv1"
  param {
    lr_mult: 1
  }
  param {
    lr_mult: 2
  }
  convolution_param {
    num_output: 64
    pad: 2
    kernel_size: 5
    stride: 1
    weight_filler {
      type: "gaussian"
      std: 0.0001
    }
    bias_filler {
      type: "constant"
    }
  }
}
layer {
  name: "relu1"
  type: "ReLU"
  bottom: "conv1"
  top: "conv1"
}
layer {
  name: "pool1"
  type: "Pooling"
  bottom: "conv1"
  top: "pool1"
  pooling_param {
    pool: MAX
    kernel_size: 3
    stride: 2
  }
}
layer {
  name: "conv2"
  type: "Convolution"
  bottom: "pool1"
  top: "conv2"
  param {
    lr_mult: 1
  }
  param {
    lr_mult: 2
  }
  convolution_param {
    num_output: 128
    pad: 2
    kernel_size: 5
    stride: 1
    weight_filler {
      type: "gaussian"
      std: 0.01
    }
    bias_filler {
      type: "constant"
    }
  }
}
layer {
  name: "relu2"
  type: "ReLU"
  bottom: "conv2"
  top: "conv2"
}
layer {
  name: "conv3"
  type: "Convolution"
  bottom: "conv2"
  top: "conv3"
  param {
    lr_mult: 1
  }
  param {
    lr_mult: 2
  }
  convolution_param {
    num_output: 128
    pad: 2
    kernel_size: 5
    stride: 1
    weight_filler {
      type: "gaussian"
      std: 0.01
    }
    bias_filler {
      type: "constant"
    }
  }
}
layer {
  name: "relu3"
  type: "ReLU"
  bottom: "conv3"
  top: "conv3"
}
layer {
  name: "pool3"
  type: "Pooling"
  bottom: "conv3"
  top: "pool3"
  pooling_param {
    pool: AVE
    kernel_size: 3
    stride: 2
  }
}
layer {
  name: "ip1"
  type: "InnerProduct"
  bottom: "pool3"
  top: "ip1"
  param {
    lr_mult: 1
  }
  param {
    lr_mult: 2
  }
  inner_product_param {
    num_output: 512
    weight_filler {
      type: "gaussian"
      std: 0.1
    }
    bias_filler {
      type: "constant"
    }
  }
}
layer {
  name: "ip2"
  type: "InnerProduct"
  bottom: "ip1"
  top: "ip2"
  param {
    lr_mult: 1
  }
  param {
    lr_mult: 2
  }
  inner_product_param {
    num_output: 256
    weight_filler {
      type: "gaussian"
      std: 0.1
    }
    bias_filler {
      type: "constant"
    }
  }
}
layer {
  name: "ip3"
  type: "InnerProduct"
  bottom: "ip2"
  top: "ip3"
  param {
    lr_mult: 1
  }
  param {
    lr_mult: 2
  }
  inner_product_param {
    num_output: 50
    weight_filler {
      type: "gaussian"
      std: 0.1
    }
    bias_filler {
      type: "constant"
    }
  }
}
layer {
  name: "accuracy"
  type: "Accuracy"
  bottom: "ip3"
  bottom: "label"
  top: "accuracy"
  include {
    phase: TEST
  }
}
layer {
  name: "loss"
  type: "SoftmaxWithLoss"
  bottom: "ip3"
  bottom: "label"
  top: "loss"
}
I0505 00:56:56.940048  1481 layer_factory.hpp:77] Creating layer intercept
I0505 00:56:56.940057  1481 net.cpp:94] Creating Layer intercept
I0505 00:56:56.940060  1481 net.cpp:409] intercept -> data
I0505 00:56:56.940068  1481 net.cpp:409] intercept -> label
I0505 00:56:56.940073  1481 hdf5_data_layer.cpp:79] Loading list of HDF5 filenames from: /home/purduethu/scratch/radon/d/deng106/CNNStatisticalModel/distributions/input/50_distributions_900_sample_size_test-distributions-path.txt
I0505 00:56:56.940093  1481 hdf5_data_layer.cpp:93] Number of HDF5 files: 1
I0505 00:56:57.298141  1481 net.cpp:144] Setting up intercept
I0505 00:56:57.298177  1481 net.cpp:151] Top shape: 20 1 30 30 (18000)
I0505 00:56:57.298182  1481 net.cpp:151] Top shape: 20 (20)
I0505 00:56:57.298185  1481 net.cpp:159] Memory required for data: 72080
I0505 00:56:57.298192  1481 layer_factory.hpp:77] Creating layer label_intercept_1_split
I0505 00:56:57.298223  1481 net.cpp:94] Creating Layer label_intercept_1_split
I0505 00:56:57.298228  1481 net.cpp:435] label_intercept_1_split <- label
I0505 00:56:57.298234  1481 net.cpp:409] label_intercept_1_split -> label_intercept_1_split_0
I0505 00:56:57.298243  1481 net.cpp:409] label_intercept_1_split -> label_intercept_1_split_1
I0505 00:56:57.298269  1481 net.cpp:144] Setting up label_intercept_1_split
I0505 00:56:57.298276  1481 net.cpp:151] Top shape: 20 (20)
I0505 00:56:57.298280  1481 net.cpp:151] Top shape: 20 (20)
I0505 00:56:57.298290  1481 net.cpp:159] Memory required for data: 72240
I0505 00:56:57.298293  1481 layer_factory.hpp:77] Creating layer conv1
I0505 00:56:57.298305  1481 net.cpp:94] Creating Layer conv1
I0505 00:56:57.298307  1481 net.cpp:435] conv1 <- data
I0505 00:56:57.298313  1481 net.cpp:409] conv1 -> conv1
I0505 00:56:57.299631  1481 net.cpp:144] Setting up conv1
I0505 00:56:57.299645  1481 net.cpp:151] Top shape: 20 64 30 30 (1152000)
I0505 00:56:57.299649  1481 net.cpp:159] Memory required for data: 4680240
I0505 00:56:57.299659  1481 layer_factory.hpp:77] Creating layer relu1
I0505 00:56:57.299665  1481 net.cpp:94] Creating Layer relu1
I0505 00:56:57.299669  1481 net.cpp:435] relu1 <- conv1
I0505 00:56:57.299674  1481 net.cpp:396] relu1 -> conv1 (in-place)
I0505 00:56:57.299681  1481 net.cpp:144] Setting up relu1
I0505 00:56:57.299686  1481 net.cpp:151] Top shape: 20 64 30 30 (1152000)
I0505 00:56:57.299690  1481 net.cpp:159] Memory required for data: 9288240
I0505 00:56:57.299692  1481 layer_factory.hpp:77] Creating layer pool1
I0505 00:56:57.299700  1481 net.cpp:94] Creating Layer pool1
I0505 00:56:57.299702  1481 net.cpp:435] pool1 <- conv1
I0505 00:56:57.299707  1481 net.cpp:409] pool1 -> pool1
I0505 00:56:57.299739  1481 net.cpp:144] Setting up pool1
I0505 00:56:57.299746  1481 net.cpp:151] Top shape: 20 64 15 15 (288000)
I0505 00:56:57.299749  1481 net.cpp:159] Memory required for data: 10440240
I0505 00:56:57.299752  1481 layer_factory.hpp:77] Creating layer conv2
I0505 00:56:57.299760  1481 net.cpp:94] Creating Layer conv2
I0505 00:56:57.299764  1481 net.cpp:435] conv2 <- pool1
I0505 00:56:57.299768  1481 net.cpp:409] conv2 -> conv2
I0505 00:56:57.307818  1481 net.cpp:144] Setting up conv2
I0505 00:56:57.307838  1481 net.cpp:151] Top shape: 20 128 15 15 (576000)
I0505 00:56:57.307842  1481 net.cpp:159] Memory required for data: 12744240
I0505 00:56:57.307852  1481 layer_factory.hpp:77] Creating layer relu2
I0505 00:56:57.307858  1481 net.cpp:94] Creating Layer relu2
I0505 00:56:57.307862  1481 net.cpp:435] relu2 <- conv2
I0505 00:56:57.307868  1481 net.cpp:396] relu2 -> conv2 (in-place)
I0505 00:56:57.307875  1481 net.cpp:144] Setting up relu2
I0505 00:56:57.307879  1481 net.cpp:151] Top shape: 20 128 15 15 (576000)
I0505 00:56:57.307883  1481 net.cpp:159] Memory required for data: 15048240
I0505 00:56:57.307885  1481 layer_factory.hpp:77] Creating layer conv3
I0505 00:56:57.307893  1481 net.cpp:94] Creating Layer conv3
I0505 00:56:57.307898  1481 net.cpp:435] conv3 <- conv2
I0505 00:56:57.307903  1481 net.cpp:409] conv3 -> conv3
I0505 00:56:57.323189  1481 net.cpp:144] Setting up conv3
I0505 00:56:57.323221  1481 net.cpp:151] Top shape: 20 128 15 15 (576000)
I0505 00:56:57.323226  1481 net.cpp:159] Memory required for data: 17352240
I0505 00:56:57.323237  1481 layer_factory.hpp:77] Creating layer relu3
I0505 00:56:57.323248  1481 net.cpp:94] Creating Layer relu3
I0505 00:56:57.323253  1481 net.cpp:435] relu3 <- conv3
I0505 00:56:57.323258  1481 net.cpp:396] relu3 -> conv3 (in-place)
I0505 00:56:57.323267  1481 net.cpp:144] Setting up relu3
I0505 00:56:57.323272  1481 net.cpp:151] Top shape: 20 128 15 15 (576000)
I0505 00:56:57.323276  1481 net.cpp:159] Memory required for data: 19656240
I0505 00:56:57.323278  1481 layer_factory.hpp:77] Creating layer pool3
I0505 00:56:57.323284  1481 net.cpp:94] Creating Layer pool3
I0505 00:56:57.323287  1481 net.cpp:435] pool3 <- conv3
I0505 00:56:57.323292  1481 net.cpp:409] pool3 -> pool3
I0505 00:56:57.323325  1481 net.cpp:144] Setting up pool3
I0505 00:56:57.323339  1481 net.cpp:151] Top shape: 20 128 7 7 (125440)
I0505 00:56:57.323343  1481 net.cpp:159] Memory required for data: 20158000
I0505 00:56:57.323346  1481 layer_factory.hpp:77] Creating layer ip1
I0505 00:56:57.323354  1481 net.cpp:94] Creating Layer ip1
I0505 00:56:57.323356  1481 net.cpp:435] ip1 <- pool3
I0505 00:56:57.323361  1481 net.cpp:409] ip1 -> ip1
I0505 00:56:57.402530  1481 net.cpp:144] Setting up ip1
I0505 00:56:57.402567  1481 net.cpp:151] Top shape: 20 512 (10240)
I0505 00:56:57.402572  1481 net.cpp:159] Memory required for data: 20198960
I0505 00:56:57.402595  1481 layer_factory.hpp:77] Creating layer ip2
I0505 00:56:57.402606  1481 net.cpp:94] Creating Layer ip2
I0505 00:56:57.402611  1481 net.cpp:435] ip2 <- ip1
I0505 00:56:57.402616  1481 net.cpp:409] ip2 -> ip2
I0505 00:56:57.405822  1481 net.cpp:144] Setting up ip2
I0505 00:56:57.405831  1481 net.cpp:151] Top shape: 20 256 (5120)
I0505 00:56:57.405834  1481 net.cpp:159] Memory required for data: 20219440
I0505 00:56:57.405843  1481 layer_factory.hpp:77] Creating layer ip3
I0505 00:56:57.405849  1481 net.cpp:94] Creating Layer ip3
I0505 00:56:57.405853  1481 net.cpp:435] ip3 <- ip2
I0505 00:56:57.405858  1481 net.cpp:409] ip3 -> ip3
I0505 00:56:57.406239  1481 net.cpp:144] Setting up ip3
I0505 00:56:57.406246  1481 net.cpp:151] Top shape: 20 50 (1000)
I0505 00:56:57.406250  1481 net.cpp:159] Memory required for data: 20223440
I0505 00:56:57.406255  1481 layer_factory.hpp:77] Creating layer ip3_ip3_0_split
I0505 00:56:57.406260  1481 net.cpp:94] Creating Layer ip3_ip3_0_split
I0505 00:56:57.406263  1481 net.cpp:435] ip3_ip3_0_split <- ip3
I0505 00:56:57.406267  1481 net.cpp:409] ip3_ip3_0_split -> ip3_ip3_0_split_0
I0505 00:56:57.406273  1481 net.cpp:409] ip3_ip3_0_split -> ip3_ip3_0_split_1
I0505 00:56:57.406297  1481 net.cpp:144] Setting up ip3_ip3_0_split
I0505 00:56:57.406303  1481 net.cpp:151] Top shape: 20 50 (1000)
I0505 00:56:57.406307  1481 net.cpp:151] Top shape: 20 50 (1000)
I0505 00:56:57.406309  1481 net.cpp:159] Memory required for data: 20231440
I0505 00:56:57.406312  1481 layer_factory.hpp:77] Creating layer accuracy
I0505 00:56:57.406327  1481 net.cpp:94] Creating Layer accuracy
I0505 00:56:57.406330  1481 net.cpp:435] accuracy <- ip3_ip3_0_split_0
I0505 00:56:57.406334  1481 net.cpp:435] accuracy <- label_intercept_1_split_0
I0505 00:56:57.406339  1481 net.cpp:409] accuracy -> accuracy
…
