…
I0504 06:06:04.441830 24409 net.cpp:323] The NetState phase (0) differed from the phase (1) specified by a rule in layer intercept
I0504 06:06:04.441848 24409 net.cpp:323] The NetState phase (0) differed from the phase (1) specified by a rule in layer loss
I0504 06:06:04.441941 24409 net.cpp:52] Initializing net from parameters: 
state {
  phase: TRAIN
}
layer {
  name: "parameters"
  type: "HDF5Data"
  top: "data"
  top: "label"
  include {
    phase: TRAIN
  }
  hdf5_data_param {
    source: "/home/purduethu/scratch/radon/d/deng106/CNNStatisticalModel/distributions/input/5_distributions_100_sample_size_train-parameters-path.txt"
    batch_size: 20
  }
}
layer {
  name: "conv1"
  type: "Convolution"
  bottom: "data"
  top: "conv1"
  param {
    lr_mult: 1
  }
  param {
    lr_mult: 2
  }
  convolution_param {
    num_output: 64
    pad: 2
    kernel_size: 5
    stride: 1
    weight_filler {
      type: "gaussian"
      std: 0.0001
    }
    bias_filler {
      type: "constant"
    }
  }
}
layer {
  name: "relu1"
  type: "ReLU"
  bottom: "conv1"
  top: "conv1"
}
layer {
  name: "conv2"
  type: "Convolution"
  bottom: "conv1"
  top: "conv2"
  param {
    lr_mult: 1
  }
  param {
    lr_mult: 2
  }
  convolution_param {
    num_output: 64
    pad: 2
    kernel_size: 5
    stride: 1
    weight_filler {
      type: "gaussian"
      std: 0.01
    }
    bias_filler {
      type: "constant"
    }
  }
}
layer {
  name: "relu2"
  type: "ReLU"
  bottom: "conv2"
  top: "conv2"
}
layer {
  name: "pool2"
  type: "Pooling"
  bottom: "conv2"
  top: "pool2"
  pooling_param {
    pool: MAX
    kernel_size: 3
    stride: 2
  }
}
layer {
  name: "conv3"
  type: "Convolution"
  bottom: "pool2"
  top: "conv3"
  param {
    lr_mult: 1
  }
  param {
    lr_mult: 2
  }
  convolution_param {
    num_output: 128
    pad: 2
    kernel_size: 5
    stride: 1
    weight_filler {
      type: "gaussian"
      std: 0.01
    }
    bias_filler {
      type: "constant"
    }
  }
}
layer {
  name: "relu3"
  type: "ReLU"
  bottom: "conv3"
  top: "conv3"
}
layer {
  name: "conv4"
  type: "Convolution"
  bottom: "conv3"
  top: "conv4"
  param {
    lr_mult: 1
  }
  param {
    lr_mult: 2
  }
  convolution_param {
    num_output: 128
    pad: 2
    kernel_size: 5
    stride: 1
    weight_filler {
      type: "gaussian"
      std: 0.01
    }
    bias_filler {
      type: "constant"
    }
  }
}
layer {
  name: "relu4"
  type: "ReLU"
  bottom: "conv4"
  top: "conv4"
}
layer {
  name: "conv5"
  type: "Convolution"
  bottom: "conv4"
  top: "conv5"
  param {
    lr_mult: 1
  }
  param {
    lr_mult: 2
  }
  convolution_param {
    num_output: 128
    pad: 2
    kernel_size: 5
    stride: 1
    weight_filler {
      type: "gaussian"
      std: 0.01
    }
    bias_filler {
      type: "constant"
    }
  }
}
layer {
  name: "relu5"
  type: "ReLU"
  bottom: "conv5"
  top: "conv5"
}
layer {
  name: "pool5"
  type: "Pooling"
  bottom: "conv5"
  top: "pool5"
  pooling_param {
    pool: AVE
    kernel_size: 3
    stride: 2
  }
}
layer {
  name: "ip1"
  type: "InnerProduct"
  bottom: "pool5"
  top: "ip1"
  param {
    lr_mult: 1
  }
  param {
    lr_mult: 2
  }
  inner_product_param {
    num_output: 1024
    weight_filler {
      type: "gaussian"
      std: 0.1
    }
    bias_filler {
      type: "constant"
    }
  }
}
layer {
  name: "ip2"
  type: "InnerProduct"
  bottom: "ip1"
  top: "ip2"
  param {
    lr_mult: 1
  }
  param {
    lr_mult: 2
  }
  inner_product_param {
    num_output: 512
    weight_filler {
      type: "gaussian"
      std: 0.1
    }
    bias_filler {
      type: "constant"
    }
  }
}
layer {
  name: "ip3"
  type: "InnerProduct"
  bottom: "ip2"
  top: "ip3"
  param {
    lr_mult: 1
  }
  param {
    lr_mult: 2
  }
  inner_product_param {
    num_output: 1
    weight_filler {
      type: "gaussian"
      std: 0.1
    }
    bias_filler {
      type: "constant"
    }
  }
}
layer {
  name: "loss"
  type: "HuberLoss"
  bottom: "ip3"
  bottom: "label"
  top: "loss"
  include {
    phase: TRAIN
  }
}
I0504 06:06:04.442015 24409 layer_factory.hpp:77] Creating layer parameters
I0504 06:06:04.442029 24409 net.cpp:94] Creating Layer parameters
I0504 06:06:04.442035 24409 net.cpp:409] parameters -> data
I0504 06:06:04.442055 24409 net.cpp:409] parameters -> label
I0504 06:06:04.442065 24409 hdf5_data_layer.cpp:79] Loading list of HDF5 filenames from: /home/purduethu/scratch/radon/d/deng106/CNNStatisticalModel/distributions/input/5_distributions_100_sample_size_train-parameters-path.txt
I0504 06:06:04.442090 24409 hdf5_data_layer.cpp:93] Number of HDF5 files: 1
I0504 06:06:04.442553 24409 hdf5.cpp:32] Datatype class: H5T_FLOAT
I0504 06:06:04.460134 24409 net.cpp:144] Setting up parameters
I0504 06:06:04.460166 24409 net.cpp:151] Top shape: 20 1 10 10 (2000)
I0504 06:06:04.460172 24409 net.cpp:151] Top shape: 20 (20)
I0504 06:06:04.460176 24409 net.cpp:159] Memory required for data: 8080
I0504 06:06:04.460185 24409 layer_factory.hpp:77] Creating layer conv1
I0504 06:06:04.460203 24409 net.cpp:94] Creating Layer conv1
I0504 06:06:04.460209 24409 net.cpp:435] conv1 <- data
I0504 06:06:04.460220 24409 net.cpp:409] conv1 -> conv1
I0504 06:06:04.464200 24409 net.cpp:144] Setting up conv1
I0504 06:06:04.464215 24409 net.cpp:151] Top shape: 20 64 10 10 (128000)
I0504 06:06:04.464220 24409 net.cpp:159] Memory required for data: 520080
I0504 06:06:04.464231 24409 layer_factory.hpp:77] Creating layer relu1
I0504 06:06:04.464238 24409 net.cpp:94] Creating Layer relu1
I0504 06:06:04.464242 24409 net.cpp:435] relu1 <- conv1
I0504 06:06:04.464247 24409 net.cpp:396] relu1 -> conv1 (in-place)
I0504 06:06:04.464259 24409 net.cpp:144] Setting up relu1
I0504 06:06:04.464264 24409 net.cpp:151] Top shape: 20 64 10 10 (128000)
I0504 06:06:04.464267 24409 net.cpp:159] Memory required for data: 1032080
I0504 06:06:04.464270 24409 layer_factory.hpp:77] Creating layer conv2
I0504 06:06:04.464278 24409 net.cpp:94] Creating Layer conv2
I0504 06:06:04.464282 24409 net.cpp:435] conv2 <- conv1
I0504 06:06:04.464287 24409 net.cpp:409] conv2 -> conv2
I0504 06:06:04.470168 24409 net.cpp:144] Setting up conv2
I0504 06:06:04.470186 24409 net.cpp:151] Top shape: 20 64 10 10 (128000)
I0504 06:06:04.470191 24409 net.cpp:159] Memory required for data: 1544080
I0504 06:06:04.470199 24409 layer_factory.hpp:77] Creating layer relu2
I0504 06:06:04.470207 24409 net.cpp:94] Creating Layer relu2
I0504 06:06:04.470211 24409 net.cpp:435] relu2 <- conv2
I0504 06:06:04.470216 24409 net.cpp:396] relu2 -> conv2 (in-place)
I0504 06:06:04.470224 24409 net.cpp:144] Setting up relu2
I0504 06:06:04.470228 24409 net.cpp:151] Top shape: 20 64 10 10 (128000)
I0504 06:06:04.470232 24409 net.cpp:159] Memory required for data: 2056080
I0504 06:06:04.470235 24409 layer_factory.hpp:77] Creating layer pool2
I0504 06:06:04.470243 24409 net.cpp:94] Creating Layer pool2
I0504 06:06:04.470253 24409 net.cpp:435] pool2 <- conv2
I0504 06:06:04.470258 24409 net.cpp:409] pool2 -> pool2
I0504 06:06:04.470306 24409 net.cpp:144] Setting up pool2
I0504 06:06:04.470314 24409 net.cpp:151] Top shape: 20 64 5 5 (32000)
I0504 06:06:04.470317 24409 net.cpp:159] Memory required for data: 2184080
I0504 06:06:04.470321 24409 layer_factory.hpp:77] Creating layer conv3
I0504 06:06:04.470329 24409 net.cpp:94] Creating Layer conv3
I0504 06:06:04.470333 24409 net.cpp:435] conv3 <- pool2
I0504 06:06:04.470338 24409 net.cpp:409] conv3 -> conv3
I0504 06:06:04.478602 24409 net.cpp:144] Setting up conv3
I0504 06:06:04.478617 24409 net.cpp:151] Top shape: 20 128 5 5 (64000)
I0504 06:06:04.478621 24409 net.cpp:159] Memory required for data: 2440080
I0504 06:06:04.478631 24409 layer_factory.hpp:77] Creating layer relu3
I0504 06:06:04.478636 24409 net.cpp:94] Creating Layer relu3
I0504 06:06:04.478641 24409 net.cpp:435] relu3 <- conv3
I0504 06:06:04.478646 24409 net.cpp:396] relu3 -> conv3 (in-place)
I0504 06:06:04.478652 24409 net.cpp:144] Setting up relu3
I0504 06:06:04.478657 24409 net.cpp:151] Top shape: 20 128 5 5 (64000)
I0504 06:06:04.478662 24409 net.cpp:159] Memory required for data: 2696080
I0504 06:06:04.478664 24409 layer_factory.hpp:77] Creating layer conv4
I0504 06:06:04.478672 24409 net.cpp:94] Creating Layer conv4
I0504 06:06:04.478677 24409 net.cpp:435] conv4 <- conv3
I0504 06:06:04.478682 24409 net.cpp:409] conv4 -> conv4
I0504 06:06:04.493722 24409 net.cpp:144] Setting up conv4
I0504 06:06:04.493741 24409 net.cpp:151] Top shape: 20 128 5 5 (64000)
I0504 06:06:04.493746 24409 net.cpp:159] Memory required for data: 2952080
I0504 06:06:04.493753 24409 layer_factory.hpp:77] Creating layer relu4
I0504 06:06:04.493760 24409 net.cpp:94] Creating Layer relu4
I0504 06:06:04.493764 24409 net.cpp:435] relu4 <- conv4
I0504 06:06:04.493769 24409 net.cpp:396] relu4 -> conv4 (in-place)
I0504 06:06:04.493777 24409 net.cpp:144] Setting up relu4
I0504 06:06:04.493782 24409 net.cpp:151] Top shape: 20 128 5 5 (64000)
I0504 06:06:04.493785 24409 net.cpp:159] Memory required for data: 3208080
I0504 06:06:04.493788 24409 layer_factory.hpp:77] Creating layer conv5
I0504 06:06:04.493798 24409 net.cpp:94] Creating Layer conv5
I0504 06:06:04.493800 24409 net.cpp:435] conv5 <- conv4
I0504 06:06:04.493806 24409 net.cpp:409] conv5 -> conv5
I0504 06:06:04.508486 24409 net.cpp:144] Setting up conv5
I0504 06:06:04.508504 24409 net.cpp:151] Top shape: 20 128 5 5 (64000)
I0504 06:06:04.508508 24409 net.cpp:159] Memory required for data: 3464080
I0504 06:06:04.508517 24409 layer_factory.hpp:77] Creating layer relu5
I0504 06:06:04.508524 24409 net.cpp:94] Creating Layer relu5
I0504 06:06:04.508528 24409 net.cpp:435] relu5 <- conv5
I0504 06:06:04.508533 24409 net.cpp:396] relu5 -> conv5 (in-place)
I0504 06:06:04.508541 24409 net.cpp:144] Setting up relu5
I0504 06:06:04.508546 24409 net.cpp:151] Top shape: 20 128 5 5 (64000)
I0504 06:06:04.508549 24409 net.cpp:159] Memory required for data: 3720080
I0504 06:06:04.508564 24409 layer_factory.hpp:77] Creating layer pool5
I0504 06:06:04.508570 24409 net.cpp:94] Creating Layer pool5
I0504 06:06:04.508574 24409 net.cpp:435] pool5 <- conv5
I0504 06:06:04.508579 24409 net.cpp:409] pool5 -> pool5
I0504 06:06:04.508616 24409 net.cpp:144] Setting up pool5
I0504 06:06:04.508625 24409 net.cpp:151] Top shape: 20 128 2 2 (10240)
I0504 06:06:04.508627 24409 net.cpp:159] Memory required for data: 3761040
I0504 06:06:04.508631 24409 layer_factory.hpp:77] Creating layer ip1
I0504 06:06:04.508641 24409 net.cpp:94] Creating Layer ip1
I0504 06:06:04.508644 24409 net.cpp:435] ip1 <- pool5
I0504 06:06:04.508649 24409 net.cpp:409] ip1 -> ip1
I0504 06:06:04.526947 24409 net.cpp:144] Setting up ip1
I0504 06:06:04.526968 24409 net.cpp:151] Top shape: 20 1024 (20480)
I0504 06:06:04.526973 24409 net.cpp:159] Memory required for data: 3842960
I0504 06:06:04.526979 24409 layer_factory.hpp:77] Creating layer ip2
I0504 06:06:04.526988 24409 net.cpp:94] Creating Layer ip2
I0504 06:06:04.526993 24409 net.cpp:435] ip2 <- ip1
I0504 06:06:04.527004 24409 net.cpp:409] ip2 -> ip2
I0504 06:06:04.540487 24409 net.cpp:144] Setting up ip2
I0504 06:06:04.540503 24409 net.cpp:151] Top shape: 20 512 (10240)
I0504 06:06:04.540508 24409 net.cpp:159] Memory required for data: 3883920
I0504 06:06:04.540514 24409 layer_factory.hpp:77] Creating layer ip3
I0504 06:06:04.540521 24409 net.cpp:94] Creating Layer ip3
I0504 06:06:04.540525 24409 net.cpp:435] ip3 <- ip2
I0504 06:06:04.540531 24409 net.cpp:409] ip3 -> ip3
I0504 06:06:04.540621 24409 net.cpp:144] Setting up ip3
I0504 06:06:04.540629 24409 net.cpp:151] Top shape: 20 1 (20)
I0504 06:06:04.540642 24409 net.cpp:159] Memory required for data: 3884000
I0504 06:06:04.540647 24409 layer_factory.hpp:77] Creating layer loss
I0504 06:06:04.540662 24409 net.cpp:94] Creating Layer loss
I0504 06:06:04.540665 24409 net.cpp:435] loss <- ip3
I0504 06:06:04.540670 24409 net.cpp:435] loss <- label
I0504 06:06:04.540676 24409 net.cpp:409] loss -> loss
I0504 06:06:04.540714 24409 net.cpp:144] Setting up loss
…
