…
I0505 01:48:49.794152  1826 net.cpp:323] The NetState phase (0) differed from the phase (1) specified by a rule in layer intercept
I0505 01:48:49.794167  1826 net.cpp:323] The NetState phase (0) differed from the phase (1) specified by a rule in layer accuracy
I0505 01:48:49.794245  1826 net.cpp:52] Initializing net from parameters: 
state {
  phase: TRAIN
}
layer {
  name: "parameters"
  type: "HDF5Data"
  top: "data"
  top: "label"
  include {
    phase: TRAIN
  }
  hdf5_data_param {
    source: "/home/purduethu/scratch/radon/d/deng106/CNNStatisticalModel/distributions/input/20_distributions_400_sample_size_train-distributions-path.txt"
    batch_size: 20
  }
}
layer {
  name: "conv1"
  type: "Convolution"
  bottom: "data"
  top: "conv1"
  param {
    lr_mult: 1
  }
  param {
    lr_mult: 2
  }
  convolution_param {
    num_output: 64
    pad: 2
    kernel_size: 5
    stride: 1
    weight_filler {
      type: "gaussian"
      std: 0.0001
    }
    bias_filler {
      type: "constant"
    }
  }
}
layer {
  name: "relu1"
  type: "ReLU"
  bottom: "conv1"
  top: "conv1"
}
layer {
  name: "pool1"
  type: "Pooling"
  bottom: "conv1"
  top: "pool1"
  pooling_param {
    pool: MAX
    kernel_size: 3
    stride: 2
  }
}
layer {
  name: "conv2"
  type: "Convolution"
  bottom: "pool1"
  top: "conv2"
  param {
    lr_mult: 1
  }
  param {
    lr_mult: 2
  }
  convolution_param {
    num_output: 128
    pad: 2
    kernel_size: 5
    stride: 1
    weight_filler {
      type: "gaussian"
      std: 0.01
    }
    bias_filler {
      type: "constant"
    }
  }
}
layer {
  name: "relu2"
  type: "ReLU"
  bottom: "conv2"
  top: "conv2"
}
layer {
  name: "conv3"
  type: "Convolution"
  bottom: "conv2"
  top: "conv3"
  param {
    lr_mult: 1
  }
  param {
    lr_mult: 2
  }
  convolution_param {
    num_output: 128
    pad: 2
    kernel_size: 5
    stride: 1
    weight_filler {
      type: "gaussian"
      std: 0.01
    }
    bias_filler {
      type: "constant"
    }
  }
}
layer {
  name: "relu3"
  type: "ReLU"
  bottom: "conv3"
  top: "conv3"
}
layer {
  name: "pool3"
  type: "Pooling"
  bottom: "conv3"
  top: "pool3"
  pooling_param {
    pool: AVE
    kernel_size: 3
    stride: 2
  }
}
layer {
  name: "ip1"
  type: "InnerProduct"
  bottom: "pool3"
  top: "ip1"
  param {
    lr_mult: 1
  }
  param {
    lr_mult: 2
  }
  inner_product_param {
    num_output: 512
    weight_filler {
      type: "gaussian"
      std: 0.1
    }
    bias_filler {
      type: "constant"
    }
  }
}
layer {
  name: "ip2"
  type: "InnerProduct"
  bottom: "ip1"
  top: "ip2"
  param {
    lr_mult: 1
  }
  param {
    lr_mult: 2
  }
  inner_product_param {
    num_output: 256
    weight_filler {
      type: "gaussian"
      std: 0.1
    }
    bias_filler {
      type: "constant"
    }
  }
}
layer {
  name: "ip3"
  type: "InnerProduct"
  bottom: "ip2"
  top: "ip3"
  param {
    lr_mult: 1
  }
  param {
    lr_mult: 2
  }
  inner_product_param {
    num_output: 50
    weight_filler {
      type: "gaussian"
      std: 0.1
    }
    bias_filler {
      type: "constant"
    }
  }
}
layer {
  name: "loss"
  type: "SoftmaxWithLoss"
  bottom: "ip3"
  bottom: "label"
  top: "loss"
}
I0505 01:48:49.794309  1826 layer_factory.hpp:77] Creating layer parameters
I0505 01:48:49.794323  1826 net.cpp:94] Creating Layer parameters
I0505 01:48:49.794337  1826 net.cpp:409] parameters -> data
I0505 01:48:49.794358  1826 net.cpp:409] parameters -> label
I0505 01:48:49.794368  1826 hdf5_data_layer.cpp:79] Loading list of HDF5 filenames from: /home/purduethu/scratch/radon/d/deng106/CNNStatisticalModel/distributions/input/20_distributions_400_sample_size_train-distributions-path.txt
I0505 01:48:49.794391  1826 hdf5_data_layer.cpp:93] Number of HDF5 files: 1
I0505 01:48:49.794986  1826 hdf5.cpp:32] Datatype class: H5T_FLOAT
I0505 01:48:50.055814  1826 hdf5.cpp:35] Datatype class: H5T_INTEGER
I0505 01:48:50.057551  1826 net.cpp:144] Setting up parameters
I0505 01:48:50.057570  1826 net.cpp:151] Top shape: 20 1 20 20 (8000)
I0505 01:48:50.057577  1826 net.cpp:151] Top shape: 20 (20)
I0505 01:48:50.057580  1826 net.cpp:159] Memory required for data: 32080
I0505 01:48:50.057588  1826 layer_factory.hpp:77] Creating layer conv1
I0505 01:48:50.057608  1826 net.cpp:94] Creating Layer conv1
I0505 01:48:50.057615  1826 net.cpp:435] conv1 <- data
I0505 01:48:50.057626  1826 net.cpp:409] conv1 -> conv1
I0505 01:48:50.062410  1826 net.cpp:144] Setting up conv1
I0505 01:48:50.062428  1826 net.cpp:151] Top shape: 20 64 20 20 (512000)
I0505 01:48:50.062433  1826 net.cpp:159] Memory required for data: 2080080
I0505 01:48:50.062444  1826 layer_factory.hpp:77] Creating layer relu1
I0505 01:48:50.062453  1826 net.cpp:94] Creating Layer relu1
I0505 01:48:50.062458  1826 net.cpp:435] relu1 <- conv1
I0505 01:48:50.062463  1826 net.cpp:396] relu1 -> conv1 (in-place)
I0505 01:48:50.062479  1826 net.cpp:144] Setting up relu1
I0505 01:48:50.062485  1826 net.cpp:151] Top shape: 20 64 20 20 (512000)
I0505 01:48:50.062489  1826 net.cpp:159] Memory required for data: 4128080
I0505 01:48:50.062491  1826 layer_factory.hpp:77] Creating layer pool1
I0505 01:48:50.062500  1826 net.cpp:94] Creating Layer pool1
I0505 01:48:50.062502  1826 net.cpp:435] pool1 <- conv1
I0505 01:48:50.062507  1826 net.cpp:409] pool1 -> pool1
I0505 01:48:50.062552  1826 net.cpp:144] Setting up pool1
I0505 01:48:50.062559  1826 net.cpp:151] Top shape: 20 64 10 10 (128000)
I0505 01:48:50.062563  1826 net.cpp:159] Memory required for data: 4640080
I0505 01:48:50.062566  1826 layer_factory.hpp:77] Creating layer conv2
I0505 01:48:50.062575  1826 net.cpp:94] Creating Layer conv2
I0505 01:48:50.062579  1826 net.cpp:435] conv2 <- pool1
I0505 01:48:50.062584  1826 net.cpp:409] conv2 -> conv2
I0505 01:48:50.072240  1826 net.cpp:144] Setting up conv2
I0505 01:48:50.072263  1826 net.cpp:151] Top shape: 20 128 10 10 (256000)
I0505 01:48:50.072268  1826 net.cpp:159] Memory required for data: 5664080
I0505 01:48:50.072276  1826 layer_factory.hpp:77] Creating layer relu2
I0505 01:48:50.072284  1826 net.cpp:94] Creating Layer relu2
I0505 01:48:50.072289  1826 net.cpp:435] relu2 <- conv2
I0505 01:48:50.072294  1826 net.cpp:396] relu2 -> conv2 (in-place)
I0505 01:48:50.072302  1826 net.cpp:144] Setting up relu2
I0505 01:48:50.072307  1826 net.cpp:151] Top shape: 20 128 10 10 (256000)
I0505 01:48:50.072310  1826 net.cpp:159] Memory required for data: 6688080
I0505 01:48:50.072314  1826 layer_factory.hpp:77] Creating layer conv3
I0505 01:48:50.072322  1826 net.cpp:94] Creating Layer conv3
I0505 01:48:50.072325  1826 net.cpp:435] conv3 <- conv2
I0505 01:48:50.072330  1826 net.cpp:409] conv3 -> conv3
I0505 01:48:50.090070  1826 net.cpp:144] Setting up conv3
I0505 01:48:50.090103  1826 net.cpp:151] Top shape: 20 128 10 10 (256000)
I0505 01:48:50.090108  1826 net.cpp:159] Memory required for data: 7712080
I0505 01:48:50.090127  1826 layer_factory.hpp:77] Creating layer relu3
I0505 01:48:50.090138  1826 net.cpp:94] Creating Layer relu3
I0505 01:48:50.090142  1826 net.cpp:435] relu3 <- conv3
I0505 01:48:50.090148  1826 net.cpp:396] relu3 -> conv3 (in-place)
I0505 01:48:50.090158  1826 net.cpp:144] Setting up relu3
I0505 01:48:50.090163  1826 net.cpp:151] Top shape: 20 128 10 10 (256000)
I0505 01:48:50.090167  1826 net.cpp:159] Memory required for data: 8736080
I0505 01:48:50.090169  1826 layer_factory.hpp:77] Creating layer pool3
I0505 01:48:50.090176  1826 net.cpp:94] Creating Layer pool3
I0505 01:48:50.090188  1826 net.cpp:435] pool3 <- conv3
I0505 01:48:50.090193  1826 net.cpp:409] pool3 -> pool3
I0505 01:48:50.090239  1826 net.cpp:144] Setting up pool3
I0505 01:48:50.090246  1826 net.cpp:151] Top shape: 20 128 5 5 (64000)
I0505 01:48:50.090250  1826 net.cpp:159] Memory required for data: 8992080
I0505 01:48:50.090252  1826 layer_factory.hpp:77] Creating layer ip1
I0505 01:48:50.090263  1826 net.cpp:94] Creating Layer ip1
I0505 01:48:50.090266  1826 net.cpp:435] ip1 <- pool3
I0505 01:48:50.090271  1826 net.cpp:409] ip1 -> ip1
I0505 01:48:50.131702  1826 net.cpp:144] Setting up ip1
I0505 01:48:50.131743  1826 net.cpp:151] Top shape: 20 512 (10240)
I0505 01:48:50.131747  1826 net.cpp:159] Memory required for data: 9033040
I0505 01:48:50.131757  1826 layer_factory.hpp:77] Creating layer ip2
I0505 01:48:50.131767  1826 net.cpp:94] Creating Layer ip2
I0505 01:48:50.131772  1826 net.cpp:435] ip2 <- ip1
I0505 01:48:50.131778  1826 net.cpp:409] ip2 -> ip2
I0505 01:48:50.135061  1826 net.cpp:144] Setting up ip2
I0505 01:48:50.135069  1826 net.cpp:151] Top shape: 20 256 (5120)
I0505 01:48:50.135073  1826 net.cpp:159] Memory required for data: 9053520
I0505 01:48:50.135082  1826 layer_factory.hpp:77] Creating layer ip3
I0505 01:48:50.135087  1826 net.cpp:94] Creating Layer ip3
I0505 01:48:50.135092  1826 net.cpp:435] ip3 <- ip2
I0505 01:48:50.135097  1826 net.cpp:409] ip3 -> ip3
I0505 01:48:50.136255  1826 net.cpp:144] Setting up ip3
I0505 01:48:50.136267  1826 net.cpp:151] Top shape: 20 50 (1000)
I0505 01:48:50.136272  1826 net.cpp:159] Memory required for data: 9057520
I0505 01:48:50.136278  1826 layer_factory.hpp:77] Creating layer loss
I0505 01:48:50.136284  1826 net.cpp:94] Creating Layer loss
I0505 01:48:50.136288  1826 net.cpp:435] loss <- ip3
I0505 01:48:50.136292  1826 net.cpp:435] loss <- label
I0505 01:48:50.136298  1826 net.cpp:409] loss -> loss
I0505 01:48:50.136310  1826 layer_factory.hpp:77] Creating layer loss
…
I0505 01:48:50.136762  1826 solver.cpp:181] Creating test net (#0) specified by net file: ./protocol/dis_20_400_dimension.protocol_distribution
I0505 01:48:50.136788  1826 net.cpp:323] The NetState phase (1) differed from the phase (0) specified by a rule in layer parameters
I0505 01:48:50.136880  1826 net.cpp:52] Initializing net from parameters: 
state {
  phase: TEST
}
layer {
  name: "intercept"
  type: "HDF5Data"
  top: "data"
  top: "label"
  include {
    phase: TEST
  }
  hdf5_data_param {
    source: "/home/purduethu/scratch/radon/d/deng106/CNNStatisticalModel/distributions/input/20_distributions_400_sample_size_test-distributions-path.txt"
    batch_size: 20
  }
}
layer {
  name: "conv1"
  type: "Convolution"
  bottom: "data"
  top: "conv1"
  param {
    lr_mult: 1
  }
  param {
    lr_mult: 2
  }
  convolution_param {
    num_output: 64
    pad: 2
    kernel_size: 5
    stride: 1
    weight_filler {
      type: "gaussian"
      std: 0.0001
    }
    bias_filler {
      type: "constant"
    }
  }
}
layer {
  name: "relu1"
  type: "ReLU"
  bottom: "conv1"
  top: "conv1"
}
layer {
  name: "pool1"
  type: "Pooling"
  bottom: "conv1"
  top: "pool1"
  pooling_param {
    pool: MAX
    kernel_size: 3
    stride: 2
  }
}
layer {
  name: "conv2"
  type: "Convolution"
  bottom: "pool1"
  top: "conv2"
  param {
    lr_mult: 1
  }
  param {
    lr_mult: 2
  }
  convolution_param {
    num_output: 128
    pad: 2
    kernel_size: 5
    stride: 1
    weight_filler {
      type: "gaussian"
      std: 0.01
    }
    bias_filler {
      type: "constant"
    }
  }
}
layer {
  name: "relu2"
  type: "ReLU"
  bottom: "conv2"
  top: "conv2"
}
layer {
  name: "conv3"
  type: "Convolution"
  bottom: "conv2"
  top: "conv3"
  param {
    lr_mult: 1
  }
  param {
    lr_mult: 2
  }
  convolution_param {
    num_output: 128
    pad: 2
    kernel_size: 5
    stride: 1
    weight_filler {
      type: "gaussian"
      std: 0.01
    }
    bias_filler {
      type: "constant"
    }
  }
}
layer {
  name: "relu3"
  type: "ReLU"
  bottom: "conv3"
  top: "conv3"
}
layer {
  name: "pool3"
  type: "Pooling"
  bottom: "conv3"
  top: "pool3"
  pooling_param {
    pool: AVE
    kernel_size: 3
    stride: 2
  }
}
layer {
  name: "ip1"
  type: "InnerProduct"
  bottom: "pool3"
  top: "ip1"
  param {
    lr_mult: 1
  }
  param {
    lr_mult: 2
  }
  inner_product_param {
    num_output: 512
    weight_filler {
      type: "gaussian"
      std: 0.1
    }
    bias_filler {
      type: "constant"
    }
  }
}
layer {
  name: "ip2"
  type: "InnerProduct"
  bottom: "ip1"
  top: "ip2"
  param {
    lr_mult: 1
  }
  param {
    lr_mult: 2
  }
  inner_product_param {
    num_output: 256
    weight_filler {
      type: "gaussian"
      std: 0.1
    }
    bias_filler {
      type: "constant"
    }
  }
}
layer {
  name: "ip3"
  type: "InnerProduct"
  bottom: "ip2"
  top: "ip3"
  param {
    lr_mult: 1
  }
  param {
    lr_mult: 2
  }
  inner_product_param {
    num_output: 50
    weight_filler {
      type: "gaussian"
      std: 0.1
    }
    bias_filler {
      type: "constant"
    }
  }
}
layer {
  name: "accuracy"
  type: "Accuracy"
  bottom: "ip3"
  bottom: "label"
  top: "accuracy"
  include {
    phase: TEST
  }
}
layer {
  name: "loss"
  type: "SoftmaxWithLoss"
  bottom: "ip3"
  bottom: "label"
  top: "loss"
}
I0505 01:48:50.136947  1826 layer_factory.hpp:77] Creating layer intercept
I0505 01:48:50.136955  1826 net.cpp:94] Creating Layer intercept
I0505 01:48:50.136960  1826 net.cpp:409] intercept -> data
I0505 01:48:50.136966  1826 net.cpp:409] intercept -> label
I0505 01:48:50.136973  1826 hdf5_data_layer.cpp:79] Loading list of HDF5 filenames from: /home/purduethu/scratch/radon/d/deng106/CNNStatisticalModel/distributions/input/20_distributions_400_sample_size_test-distributions-path.txt
I0505 01:48:50.136994  1826 hdf5_data_layer.cpp:93] Number of HDF5 files: 1
I0505 01:48:50.203483  1826 net.cpp:144] Setting up intercept
I0505 01:48:50.203514  1826 net.cpp:151] Top shape: 20 1 20 20 (8000)
I0505 01:48:50.203521  1826 net.cpp:151] Top shape: 20 (20)
I0505 01:48:50.203523  1826 net.cpp:159] Memory required for data: 32080
I0505 01:48:50.203529  1826 layer_factory.hpp:77] Creating layer label_intercept_1_split
I0505 01:48:50.203552  1826 net.cpp:94] Creating Layer label_intercept_1_split
I0505 01:48:50.203557  1826 net.cpp:435] label_intercept_1_split <- label
I0505 01:48:50.203563  1826 net.cpp:409] label_intercept_1_split -> label_intercept_1_split_0
I0505 01:48:50.203572  1826 net.cpp:409] label_intercept_1_split -> label_intercept_1_split_1
I0505 01:48:50.203599  1826 net.cpp:144] Setting up label_intercept_1_split
I0505 01:48:50.203605  1826 net.cpp:151] Top shape: 20 (20)
I0505 01:48:50.203609  1826 net.cpp:151] Top shape: 20 (20)
I0505 01:48:50.203613  1826 net.cpp:159] Memory required for data: 32240
I0505 01:48:50.203624  1826 layer_factory.hpp:77] Creating layer conv1
I0505 01:48:50.203634  1826 net.cpp:94] Creating Layer conv1
I0505 01:48:50.203639  1826 net.cpp:435] conv1 <- data
I0505 01:48:50.203644  1826 net.cpp:409] conv1 -> conv1
I0505 01:48:50.204288  1826 net.cpp:144] Setting up conv1
I0505 01:48:50.204300  1826 net.cpp:151] Top shape: 20 64 20 20 (512000)
I0505 01:48:50.204304  1826 net.cpp:159] Memory required for data: 2080240
I0505 01:48:50.204313  1826 layer_factory.hpp:77] Creating layer relu1
I0505 01:48:50.204320  1826 net.cpp:94] Creating Layer relu1
I0505 01:48:50.204324  1826 net.cpp:435] relu1 <- conv1
I0505 01:48:50.204329  1826 net.cpp:396] relu1 -> conv1 (in-place)
I0505 01:48:50.204335  1826 net.cpp:144] Setting up relu1
I0505 01:48:50.204340  1826 net.cpp:151] Top shape: 20 64 20 20 (512000)
I0505 01:48:50.204344  1826 net.cpp:159] Memory required for data: 4128240
I0505 01:48:50.204346  1826 layer_factory.hpp:77] Creating layer pool1
I0505 01:48:50.204354  1826 net.cpp:94] Creating Layer pool1
I0505 01:48:50.204356  1826 net.cpp:435] pool1 <- conv1
I0505 01:48:50.204360  1826 net.cpp:409] pool1 -> pool1
I0505 01:48:50.204391  1826 net.cpp:144] Setting up pool1
I0505 01:48:50.204398  1826 net.cpp:151] Top shape: 20 64 10 10 (128000)
I0505 01:48:50.204401  1826 net.cpp:159] Memory required for data: 4640240
I0505 01:48:50.204404  1826 layer_factory.hpp:77] Creating layer conv2
I0505 01:48:50.204411  1826 net.cpp:94] Creating Layer conv2
I0505 01:48:50.204416  1826 net.cpp:435] conv2 <- pool1
I0505 01:48:50.204421  1826 net.cpp:409] conv2 -> conv2
I0505 01:48:50.211601  1826 net.cpp:144] Setting up conv2
I0505 01:48:50.211621  1826 net.cpp:151] Top shape: 20 128 10 10 (256000)
I0505 01:48:50.211625  1826 net.cpp:159] Memory required for data: 5664240
I0505 01:48:50.211634  1826 layer_factory.hpp:77] Creating layer relu2
I0505 01:48:50.211640  1826 net.cpp:94] Creating Layer relu2
I0505 01:48:50.211644  1826 net.cpp:435] relu2 <- conv2
I0505 01:48:50.211649  1826 net.cpp:396] relu2 -> conv2 (in-place)
I0505 01:48:50.211657  1826 net.cpp:144] Setting up relu2
I0505 01:48:50.211661  1826 net.cpp:151] Top shape: 20 128 10 10 (256000)
I0505 01:48:50.211664  1826 net.cpp:159] Memory required for data: 6688240
I0505 01:48:50.211668  1826 layer_factory.hpp:77] Creating layer conv3
I0505 01:48:50.211675  1826 net.cpp:94] Creating Layer conv3
I0505 01:48:50.211678  1826 net.cpp:435] conv3 <- conv2
I0505 01:48:50.211683  1826 net.cpp:409] conv3 -> conv3
I0505 01:48:50.225091  1826 net.cpp:144] Setting up conv3
I0505 01:48:50.225122  1826 net.cpp:151] Top shape: 20 128 10 10 (256000)
I0505 01:48:50.225127  1826 net.cpp:159] Memory required for data: 7712240
I0505 01:48:50.225137  1826 layer_factory.hpp:77] Creating layer relu3
I0505 01:48:50.225147  1826 net.cpp:94] Creating Layer relu3
I0505 01:48:50.225152  1826 net.cpp:435] relu3 <- conv3
I0505 01:48:50.225157  1826 net.cpp:396] relu3 -> conv3 (in-place)
I0505 01:48:50.225167  1826 net.cpp:144] Setting up relu3
I0505 01:48:50.225172  1826 net.cpp:151] Top shape: 20 128 10 10 (256000)
I0505 01:48:50.225174  1826 net.cpp:159] Memory required for data: 8736240
I0505 01:48:50.225178  1826 layer_factory.hpp:77] Creating layer pool3
I0505 01:48:50.225183  1826 net.cpp:94] Creating Layer pool3
I0505 01:48:50.225186  1826 net.cpp:435] pool3 <- conv3
I0505 01:48:50.225191  1826 net.cpp:409] pool3 -> pool3
I0505 01:48:50.225222  1826 net.cpp:144] Setting up pool3
I0505 01:48:50.225236  1826 net.cpp:151] Top shape: 20 128 5 5 (64000)
I0505 01:48:50.225239  1826 net.cpp:159] Memory required for data: 8992240
I0505 01:48:50.225244  1826 layer_factory.hpp:77] Creating layer ip1
I0505 01:48:50.225250  1826 net.cpp:94] Creating Layer ip1
I0505 01:48:50.225253  1826 net.cpp:435] ip1 <- pool3
I0505 01:48:50.225258  1826 net.cpp:409] ip1 -> ip1
I0505 01:48:50.265578  1826 net.cpp:144] Setting up ip1
I0505 01:48:50.265615  1826 net.cpp:151] Top shape: 20 512 (10240)
I0505 01:48:50.265620  1826 net.cpp:159] Memory required for data: 9033200
I0505 01:48:50.265643  1826 layer_factory.hpp:77] Creating layer ip2
I0505 01:48:50.265655  1826 net.cpp:94] Creating Layer ip2
I0505 01:48:50.265658  1826 net.cpp:435] ip2 <- ip1
I0505 01:48:50.265666  1826 net.cpp:409] ip2 -> ip2
I0505 01:48:50.268864  1826 net.cpp:144] Setting up ip2
I0505 01:48:50.268872  1826 net.cpp:151] Top shape: 20 256 (5120)
I0505 01:48:50.268875  1826 net.cpp:159] Memory required for data: 9053680
I0505 01:48:50.268884  1826 layer_factory.hpp:77] Creating layer ip3
I0505 01:48:50.268892  1826 net.cpp:94] Creating Layer ip3
I0505 01:48:50.268894  1826 net.cpp:435] ip3 <- ip2
I0505 01:48:50.268899  1826 net.cpp:409] ip3 -> ip3
I0505 01:48:50.269279  1826 net.cpp:144] Setting up ip3
I0505 01:48:50.269286  1826 net.cpp:151] Top shape: 20 50 (1000)
I0505 01:48:50.269289  1826 net.cpp:159] Memory required for data: 9057680
I0505 01:48:50.269294  1826 layer_factory.hpp:77] Creating layer ip3_ip3_0_split
I0505 01:48:50.269300  1826 net.cpp:94] Creating Layer ip3_ip3_0_split
I0505 01:48:50.269304  1826 net.cpp:435] ip3_ip3_0_split <- ip3
I0505 01:48:50.269307  1826 net.cpp:409] ip3_ip3_0_split -> ip3_ip3_0_split_0
I0505 01:48:50.269312  1826 net.cpp:409] ip3_ip3_0_split -> ip3_ip3_0_split_1
I0505 01:48:50.269337  1826 net.cpp:144] Setting up ip3_ip3_0_split
I0505 01:48:50.269343  1826 net.cpp:151] Top shape: 20 50 (1000)
I0505 01:48:50.269347  1826 net.cpp:151] Top shape: 20 50 (1000)
I0505 01:48:50.269351  1826 net.cpp:159] Memory required for data: 9065680
I0505 01:48:50.269353  1826 layer_factory.hpp:77] Creating layer accuracy
I0505 01:48:50.269359  1826 net.cpp:94] Creating Layer accuracy
I0505 01:48:50.269362  1826 net.cpp:435] accuracy <- ip3_ip3_0_split_0
I0505 01:48:50.269366  1826 net.cpp:435] accuracy <- label_intercept_1_split_0
I0505 01:48:50.269371  1826 net.cpp:409] accuracy -> accuracy
…
