…
I0503 09:40:01.571882 19781 net.cpp:323] The NetState phase (0) differed from the phase (1) specified by a rule in layer intercept
I0503 09:40:01.571898 19781 net.cpp:323] The NetState phase (0) differed from the phase (1) specified by a rule in layer loss
I0503 09:40:01.571991 19781 net.cpp:52] Initializing net from parameters: 
state {
  phase: TRAIN
}
layer {
  name: "parameters"
  type: "HDF5Data"
  top: "data"
  top: "label"
  include {
    phase: TRAIN
  }
  hdf5_data_param {
    source: "/home/purduethu/scratch/radon/d/deng106/CNNStatisticalModel/distributions/input/5_distributions_100_sample_size_train-parameters-path.txt"
    batch_size: 20
  }
}
layer {
  name: "conv1"
  type: "Convolution"
  bottom: "data"
  top: "conv1"
  param {
    lr_mult: 1
  }
  param {
    lr_mult: 2
  }
  convolution_param {
    num_output: 64
    pad: 2
    kernel_size: 5
    stride: 1
    weight_filler {
      type: "gaussian"
      std: 0.0001
    }
    bias_filler {
      type: "constant"
    }
  }
}
layer {
  name: "relu1"
  type: "ReLU"
  bottom: "conv1"
  top: "conv1"
}
layer {
  name: "conv2"
  type: "Convolution"
  bottom: "conv1"
  top: "conv2"
  param {
    lr_mult: 1
  }
  param {
    lr_mult: 2
  }
  convolution_param {
    num_output: 64
    pad: 2
    kernel_size: 5
    stride: 1
    weight_filler {
      type: "gaussian"
      std: 0.01
    }
    bias_filler {
      type: "constant"
    }
  }
}
layer {
  name: "relu2"
  type: "ReLU"
  bottom: "conv2"
  top: "conv2"
}
layer {
  name: "pool2"
  type: "Pooling"
  bottom: "conv2"
  top: "pool2"
  pooling_param {
    pool: MAX
    kernel_size: 3
    stride: 2
  }
}
layer {
  name: "conv3"
  type: "Convolution"
  bottom: "pool2"
  top: "conv3"
  param {
    lr_mult: 1
  }
  param {
    lr_mult: 2
  }
  convolution_param {
    num_output: 128
    pad: 2
    kernel_size: 5
    stride: 1
    weight_filler {
      type: "gaussian"
      std: 0.01
    }
    bias_filler {
      type: "constant"
    }
  }
}
layer {
  name: "relu3"
  type: "ReLU"
  bottom: "conv3"
  top: "conv3"
}
layer {
  name: "conv4"
  type: "Convolution"
  bottom: "conv3"
  top: "conv4"
  param {
    lr_mult: 1
  }
  param {
    lr_mult: 2
  }
  convolution_param {
    num_output: 128
    pad: 2
    kernel_size: 5
    stride: 1
    weight_filler {
      type: "gaussian"
      std: 0.01
    }
    bias_filler {
      type: "constant"
    }
  }
}
layer {
  name: "relu4"
  type: "ReLU"
  bottom: "conv4"
  top: "conv4"
}
layer {
  name: "conv5"
  type: "Convolution"
  bottom: "conv4"
  top: "conv5"
  param {
    lr_mult: 1
  }
  param {
    lr_mult: 2
  }
  convolution_param {
    num_output: 128
    pad: 2
    kernel_size: 5
    stride: 1
    weight_filler {
      type: "gaussian"
      std: 0.01
    }
    bias_filler {
      type: "constant"
    }
  }
}
layer {
  name: "relu5"
  type: "ReLU"
  bottom: "conv5"
  top: "conv5"
}
layer {
  name: "pool5"
  type: "Pooling"
  bottom: "conv5"
  top: "pool5"
  pooling_param {
    pool: AVE
    kernel_size: 3
    stride: 2
  }
}
layer {
  name: "ip1"
  type: "InnerProduct"
  bottom: "pool5"
  top: "ip1"
  param {
    lr_mult: 1
  }
  param {
    lr_mult: 2
  }
  inner_product_param {
    num_output: 1024
    weight_filler {
      type: "gaussian"
      std: 0.1
    }
    bias_filler {
      type: "constant"
    }
  }
}
layer {
  name: "ip2"
  type: "InnerProduct"
  bottom: "ip1"
  top: "ip2"
  param {
    lr_mult: 1
  }
  param {
    lr_mult: 2
  }
  inner_product_param {
    num_output: 512
    weight_filler {
      type: "gaussian"
      std: 0.1
    }
    bias_filler {
      type: "constant"
    }
  }
}
layer {
  name: "ip3"
  type: "InnerProduct"
  bottom: "ip2"
  top: "ip3"
  param {
    lr_mult: 1
  }
  param {
    lr_mult: 2
  }
  inner_product_param {
    num_output: 1
    weight_filler {
      type: "gaussian"
      std: 0.1
    }
    bias_filler {
      type: "constant"
    }
  }
}
layer {
  name: "loss"
  type: "HuberLoss"
  bottom: "ip3"
  bottom: "label"
  top: "loss"
  include {
    phase: TRAIN
  }
}
I0503 09:40:01.572070 19781 layer_factory.hpp:77] Creating layer parameters
I0503 09:40:01.572084 19781 net.cpp:94] Creating Layer parameters
I0503 09:40:01.572091 19781 net.cpp:409] parameters -> data
I0503 09:40:01.572110 19781 net.cpp:409] parameters -> label
I0503 09:40:01.572120 19781 hdf5_data_layer.cpp:79] Loading list of HDF5 filenames from: /home/purduethu/scratch/radon/d/deng106/CNNStatisticalModel/distributions/input/5_distributions_100_sample_size_train-parameters-path.txt
I0503 09:40:01.572142 19781 hdf5_data_layer.cpp:93] Number of HDF5 files: 1
I0503 09:40:01.572731 19781 hdf5.cpp:32] Datatype class: H5T_FLOAT
I0503 09:40:01.590011 19781 net.cpp:144] Setting up parameters
I0503 09:40:01.590044 19781 net.cpp:151] Top shape: 20 1 10 10 (2000)
I0503 09:40:01.590049 19781 net.cpp:151] Top shape: 20 (20)
I0503 09:40:01.590052 19781 net.cpp:159] Memory required for data: 8080
I0503 09:40:01.590060 19781 layer_factory.hpp:77] Creating layer conv1
I0503 09:40:01.590080 19781 net.cpp:94] Creating Layer conv1
I0503 09:40:01.590085 19781 net.cpp:435] conv1 <- data
I0503 09:40:01.590095 19781 net.cpp:409] conv1 -> conv1
I0503 09:40:01.593964 19781 net.cpp:144] Setting up conv1
I0503 09:40:01.593979 19781 net.cpp:151] Top shape: 20 64 10 10 (128000)
I0503 09:40:01.593984 19781 net.cpp:159] Memory required for data: 520080
I0503 09:40:01.593996 19781 layer_factory.hpp:77] Creating layer relu1
I0503 09:40:01.594003 19781 net.cpp:94] Creating Layer relu1
I0503 09:40:01.594007 19781 net.cpp:435] relu1 <- conv1
I0503 09:40:01.594012 19781 net.cpp:396] relu1 -> conv1 (in-place)
I0503 09:40:01.594025 19781 net.cpp:144] Setting up relu1
I0503 09:40:01.594030 19781 net.cpp:151] Top shape: 20 64 10 10 (128000)
I0503 09:40:01.594034 19781 net.cpp:159] Memory required for data: 1032080
I0503 09:40:01.594038 19781 layer_factory.hpp:77] Creating layer conv2
I0503 09:40:01.594045 19781 net.cpp:94] Creating Layer conv2
I0503 09:40:01.594048 19781 net.cpp:435] conv2 <- conv1
I0503 09:40:01.594053 19781 net.cpp:409] conv2 -> conv2
I0503 09:40:01.599922 19781 net.cpp:144] Setting up conv2
I0503 09:40:01.599937 19781 net.cpp:151] Top shape: 20 64 10 10 (128000)
I0503 09:40:01.599941 19781 net.cpp:159] Memory required for data: 1544080
I0503 09:40:01.599949 19781 layer_factory.hpp:77] Creating layer relu2
I0503 09:40:01.599956 19781 net.cpp:94] Creating Layer relu2
I0503 09:40:01.599959 19781 net.cpp:435] relu2 <- conv2
I0503 09:40:01.599964 19781 net.cpp:396] relu2 -> conv2 (in-place)
I0503 09:40:01.599972 19781 net.cpp:144] Setting up relu2
I0503 09:40:01.599975 19781 net.cpp:151] Top shape: 20 64 10 10 (128000)
I0503 09:40:01.599979 19781 net.cpp:159] Memory required for data: 2056080
I0503 09:40:01.599982 19781 layer_factory.hpp:77] Creating layer pool2
I0503 09:40:01.599989 19781 net.cpp:94] Creating Layer pool2
I0503 09:40:01.599999 19781 net.cpp:435] pool2 <- conv2
I0503 09:40:01.600004 19781 net.cpp:409] pool2 -> pool2
I0503 09:40:01.600049 19781 net.cpp:144] Setting up pool2
I0503 09:40:01.600056 19781 net.cpp:151] Top shape: 20 64 5 5 (32000)
I0503 09:40:01.600059 19781 net.cpp:159] Memory required for data: 2184080
I0503 09:40:01.600062 19781 layer_factory.hpp:77] Creating layer conv3
I0503 09:40:01.600070 19781 net.cpp:94] Creating Layer conv3
I0503 09:40:01.600075 19781 net.cpp:435] conv3 <- pool2
I0503 09:40:01.600080 19781 net.cpp:409] conv3 -> conv3
I0503 09:40:01.608234 19781 net.cpp:144] Setting up conv3
I0503 09:40:01.608248 19781 net.cpp:151] Top shape: 20 128 5 5 (64000)
I0503 09:40:01.608253 19781 net.cpp:159] Memory required for data: 2440080
I0503 09:40:01.608261 19781 layer_factory.hpp:77] Creating layer relu3
I0503 09:40:01.608268 19781 net.cpp:94] Creating Layer relu3
I0503 09:40:01.608271 19781 net.cpp:435] relu3 <- conv3
I0503 09:40:01.608275 19781 net.cpp:396] relu3 -> conv3 (in-place)
I0503 09:40:01.608283 19781 net.cpp:144] Setting up relu3
I0503 09:40:01.608288 19781 net.cpp:151] Top shape: 20 128 5 5 (64000)
I0503 09:40:01.608290 19781 net.cpp:159] Memory required for data: 2696080
I0503 09:40:01.608294 19781 layer_factory.hpp:77] Creating layer conv4
I0503 09:40:01.608301 19781 net.cpp:94] Creating Layer conv4
I0503 09:40:01.608305 19781 net.cpp:435] conv4 <- conv3
I0503 09:40:01.608310 19781 net.cpp:409] conv4 -> conv4
I0503 09:40:01.623020 19781 net.cpp:144] Setting up conv4
I0503 09:40:01.623035 19781 net.cpp:151] Top shape: 20 128 5 5 (64000)
I0503 09:40:01.623040 19781 net.cpp:159] Memory required for data: 2952080
I0503 09:40:01.623046 19781 layer_factory.hpp:77] Creating layer relu4
I0503 09:40:01.623052 19781 net.cpp:94] Creating Layer relu4
I0503 09:40:01.623056 19781 net.cpp:435] relu4 <- conv4
I0503 09:40:01.623061 19781 net.cpp:396] relu4 -> conv4 (in-place)
I0503 09:40:01.623069 19781 net.cpp:144] Setting up relu4
I0503 09:40:01.623073 19781 net.cpp:151] Top shape: 20 128 5 5 (64000)
I0503 09:40:01.623076 19781 net.cpp:159] Memory required for data: 3208080
I0503 09:40:01.623080 19781 layer_factory.hpp:77] Creating layer conv5
I0503 09:40:01.623087 19781 net.cpp:94] Creating Layer conv5
I0503 09:40:01.623090 19781 net.cpp:435] conv5 <- conv4
I0503 09:40:01.623096 19781 net.cpp:409] conv5 -> conv5
I0503 09:40:01.637372 19781 net.cpp:144] Setting up conv5
I0503 09:40:01.637387 19781 net.cpp:151] Top shape: 20 128 5 5 (64000)
I0503 09:40:01.637392 19781 net.cpp:159] Memory required for data: 3464080
I0503 09:40:01.637400 19781 layer_factory.hpp:77] Creating layer relu5
I0503 09:40:01.637408 19781 net.cpp:94] Creating Layer relu5
I0503 09:40:01.637410 19781 net.cpp:435] relu5 <- conv5
I0503 09:40:01.637415 19781 net.cpp:396] relu5 -> conv5 (in-place)
I0503 09:40:01.637423 19781 net.cpp:144] Setting up relu5
I0503 09:40:01.637428 19781 net.cpp:151] Top shape: 20 128 5 5 (64000)
I0503 09:40:01.637430 19781 net.cpp:159] Memory required for data: 3720080
I0503 09:40:01.637434 19781 layer_factory.hpp:77] Creating layer pool5
I0503 09:40:01.637439 19781 net.cpp:94] Creating Layer pool5
I0503 09:40:01.637442 19781 net.cpp:435] pool5 <- conv5
I0503 09:40:01.637447 19781 net.cpp:409] pool5 -> pool5
I0503 09:40:01.637480 19781 net.cpp:144] Setting up pool5
I0503 09:40:01.637487 19781 net.cpp:151] Top shape: 20 128 2 2 (10240)
I0503 09:40:01.637491 19781 net.cpp:159] Memory required for data: 3761040
I0503 09:40:01.637495 19781 layer_factory.hpp:77] Creating layer ip1
I0503 09:40:01.637504 19781 net.cpp:94] Creating Layer ip1
I0503 09:40:01.637507 19781 net.cpp:435] ip1 <- pool5
I0503 09:40:01.637512 19781 net.cpp:409] ip1 -> ip1
I0503 09:40:01.650984 19781 net.cpp:144] Setting up ip1
I0503 09:40:01.651001 19781 net.cpp:151] Top shape: 20 1024 (20480)
I0503 09:40:01.651012 19781 net.cpp:159] Memory required for data: 3842960
I0503 09:40:01.651021 19781 layer_factory.hpp:77] Creating layer ip2
I0503 09:40:01.651031 19781 net.cpp:94] Creating Layer ip2
I0503 09:40:01.651036 19781 net.cpp:435] ip2 <- ip1
I0503 09:40:01.651049 19781 net.cpp:409] ip2 -> ip2
I0503 09:40:01.664023 19781 net.cpp:144] Setting up ip2
I0503 09:40:01.664037 19781 net.cpp:151] Top shape: 20 512 (10240)
I0503 09:40:01.664041 19781 net.cpp:159] Memory required for data: 3883920
I0503 09:40:01.664047 19781 layer_factory.hpp:77] Creating layer ip3
I0503 09:40:01.664054 19781 net.cpp:94] Creating Layer ip3
I0503 09:40:01.664057 19781 net.cpp:435] ip3 <- ip2
I0503 09:40:01.664062 19781 net.cpp:409] ip3 -> ip3
I0503 09:40:01.664137 19781 net.cpp:144] Setting up ip3
I0503 09:40:01.664144 19781 net.cpp:151] Top shape: 20 1 (20)
I0503 09:40:01.664155 19781 net.cpp:159] Memory required for data: 3884000
I0503 09:40:01.664160 19781 layer_factory.hpp:77] Creating layer loss
I0503 09:40:01.664171 19781 net.cpp:94] Creating Layer loss
I0503 09:40:01.664175 19781 net.cpp:435] loss <- ip3
I0503 09:40:01.664178 19781 net.cpp:435] loss <- label
I0503 09:40:01.664185 19781 net.cpp:409] loss -> loss
I0503 09:40:01.664219 19781 net.cpp:144] Setting up loss
…
