…
I0503 03:32:32.117261 17924 net.cpp:323] The NetState phase (0) differed from the phase (1) specified by a rule in layer intercept
I0503 03:32:32.117276 17924 net.cpp:323] The NetState phase (0) differed from the phase (1) specified by a rule in layer loss
I0503 03:32:32.117352 17924 net.cpp:52] Initializing net from parameters: 
state {
  phase: TRAIN
}
layer {
  name: "parameters"
  type: "HDF5Data"
  top: "data"
  top: "label"
  include {
    phase: TRAIN
  }
  hdf5_data_param {
    source: "/home/purduethu/scratch/radon/d/deng106/CNNStatisticalModel/distributions/input/5_distributions_900_sample_size_train-parameters-path.txt"
    batch_size: 20
  }
}
layer {
  name: "conv1"
  type: "Convolution"
  bottom: "data"
  top: "conv1"
  param {
    lr_mult: 1
  }
  param {
    lr_mult: 2
  }
  convolution_param {
    num_output: 64
    pad: 2
    kernel_size: 5
    stride: 1
    weight_filler {
      type: "gaussian"
      std: 0.0001
    }
    bias_filler {
      type: "constant"
    }
  }
}
layer {
  name: "relu1"
  type: "ReLU"
  bottom: "conv1"
  top: "conv1"
}
layer {
  name: "conv2"
  type: "Convolution"
  bottom: "conv1"
  top: "conv2"
  param {
    lr_mult: 1
  }
  param {
    lr_mult: 2
  }
  convolution_param {
    num_output: 64
    pad: 2
    kernel_size: 5
    stride: 1
    weight_filler {
      type: "gaussian"
      std: 0.01
    }
    bias_filler {
      type: "constant"
    }
  }
}
layer {
  name: "relu2"
  type: "ReLU"
  bottom: "conv2"
  top: "conv2"
}
layer {
  name: "pool2"
  type: "Pooling"
  bottom: "conv2"
  top: "pool2"
  pooling_param {
    pool: MAX
    kernel_size: 3
    stride: 2
  }
}
layer {
  name: "conv3"
  type: "Convolution"
  bottom: "pool2"
  top: "conv3"
  param {
    lr_mult: 1
  }
  param {
    lr_mult: 2
  }
  convolution_param {
    num_output: 128
    pad: 2
    kernel_size: 5
    stride: 1
    weight_filler {
      type: "gaussian"
      std: 0.01
    }
    bias_filler {
      type: "constant"
    }
  }
}
layer {
  name: "relu3"
  type: "ReLU"
  bottom: "conv3"
  top: "conv3"
}
layer {
  name: "conv4"
  type: "Convolution"
  bottom: "conv3"
  top: "conv4"
  param {
    lr_mult: 1
  }
  param {
    lr_mult: 2
  }
  convolution_param {
    num_output: 128
    pad: 2
    kernel_size: 5
    stride: 1
    weight_filler {
      type: "gaussian"
      std: 0.01
    }
    bias_filler {
      type: "constant"
    }
  }
}
layer {
  name: "relu4"
  type: "ReLU"
  bottom: "conv4"
  top: "conv4"
}
layer {
  name: "conv5"
  type: "Convolution"
  bottom: "conv4"
  top: "conv5"
  param {
    lr_mult: 1
  }
  param {
    lr_mult: 2
  }
  convolution_param {
    num_output: 128
    pad: 2
    kernel_size: 5
    stride: 1
    weight_filler {
      type: "gaussian"
      std: 0.01
    }
    bias_filler {
      type: "constant"
    }
  }
}
layer {
  name: "relu5"
  type: "ReLU"
  bottom: "conv5"
  top: "conv5"
}
layer {
  name: "pool5"
  type: "Pooling"
  bottom: "conv5"
  top: "pool5"
  pooling_param {
    pool: AVE
    kernel_size: 3
    stride: 2
  }
}
layer {
  name: "ip1"
  type: "InnerProduct"
  bottom: "pool5"
  top: "ip1"
  param {
    lr_mult: 1
  }
  param {
    lr_mult: 2
  }
  inner_product_param {
    num_output: 1024
    weight_filler {
      type: "gaussian"
      std: 0.1
    }
    bias_filler {
      type: "constant"
    }
  }
}
layer {
  name: "ip2"
  type: "InnerProduct"
  bottom: "ip1"
  top: "ip2"
  param {
    lr_mult: 1
  }
  param {
    lr_mult: 2
  }
  inner_product_param {
    num_output: 512
    weight_filler {
      type: "gaussian"
      std: 0.1
    }
    bias_filler {
      type: "constant"
    }
  }
}
layer {
  name: "ip3"
  type: "InnerProduct"
  bottom: "ip2"
  top: "ip3"
  param {
    lr_mult: 1
  }
  param {
    lr_mult: 2
  }
  inner_product_param {
    num_output: 1
    weight_filler {
      type: "gaussian"
      std: 0.1
    }
    bias_filler {
      type: "constant"
    }
  }
}
layer {
  name: "loss"
  type: "HuberLoss"
  bottom: "ip3"
  bottom: "label"
  top: "loss"
  include {
    phase: TRAIN
  }
}
I0503 03:32:32.117405 17924 layer_factory.hpp:77] Creating layer parameters
I0503 03:32:32.117418 17924 net.cpp:94] Creating Layer parameters
I0503 03:32:32.117421 17924 net.cpp:409] parameters -> data
I0503 03:32:32.117430 17924 net.cpp:409] parameters -> label
I0503 03:32:32.117436 17924 hdf5_data_layer.cpp:79] Loading list of HDF5 filenames from: /home/purduethu/scratch/radon/d/deng106/CNNStatisticalModel/distributions/input/5_distributions_900_sample_size_train-parameters-path.txt
I0503 03:32:32.117455 17924 hdf5_data_layer.cpp:93] Number of HDF5 files: 1
I0503 03:32:32.118003 17924 hdf5.cpp:32] Datatype class: H5T_FLOAT
I0503 03:32:32.257380 17924 net.cpp:144] Setting up parameters
I0503 03:32:32.257411 17924 net.cpp:151] Top shape: 20 1 30 30 (18000)
I0503 03:32:32.257416 17924 net.cpp:151] Top shape: 20 (20)
I0503 03:32:32.257419 17924 net.cpp:159] Memory required for data: 72080
I0503 03:32:32.257426 17924 layer_factory.hpp:77] Creating layer conv1
I0503 03:32:32.257447 17924 net.cpp:94] Creating Layer conv1
I0503 03:32:32.257452 17924 net.cpp:435] conv1 <- data
I0503 03:32:32.257458 17924 net.cpp:409] conv1 -> conv1
I0503 03:32:32.263985 17924 net.cpp:144] Setting up conv1
I0503 03:32:32.264005 17924 net.cpp:151] Top shape: 20 64 30 30 (1152000)
I0503 03:32:32.264009 17924 net.cpp:159] Memory required for data: 4680080
I0503 03:32:32.264020 17924 layer_factory.hpp:77] Creating layer relu1
I0503 03:32:32.264029 17924 net.cpp:94] Creating Layer relu1
I0503 03:32:32.264032 17924 net.cpp:435] relu1 <- conv1
I0503 03:32:32.264036 17924 net.cpp:396] relu1 -> conv1 (in-place)
I0503 03:32:32.264052 17924 net.cpp:144] Setting up relu1
I0503 03:32:32.264057 17924 net.cpp:151] Top shape: 20 64 30 30 (1152000)
I0503 03:32:32.264060 17924 net.cpp:159] Memory required for data: 9288080
I0503 03:32:32.264063 17924 layer_factory.hpp:77] Creating layer conv2
I0503 03:32:32.264071 17924 net.cpp:94] Creating Layer conv2
I0503 03:32:32.264075 17924 net.cpp:435] conv2 <- conv1
I0503 03:32:32.264080 17924 net.cpp:409] conv2 -> conv2
I0503 03:32:32.279657 17924 net.cpp:144] Setting up conv2
I0503 03:32:32.279675 17924 net.cpp:151] Top shape: 20 64 30 30 (1152000)
I0503 03:32:32.279680 17924 net.cpp:159] Memory required for data: 13896080
I0503 03:32:32.279688 17924 layer_factory.hpp:77] Creating layer relu2
I0503 03:32:32.279695 17924 net.cpp:94] Creating Layer relu2
I0503 03:32:32.279698 17924 net.cpp:435] relu2 <- conv2
I0503 03:32:32.279703 17924 net.cpp:396] relu2 -> conv2 (in-place)
I0503 03:32:32.279711 17924 net.cpp:144] Setting up relu2
I0503 03:32:32.279716 17924 net.cpp:151] Top shape: 20 64 30 30 (1152000)
I0503 03:32:32.279718 17924 net.cpp:159] Memory required for data: 18504080
I0503 03:32:32.279721 17924 layer_factory.hpp:77] Creating layer pool2
I0503 03:32:32.279727 17924 net.cpp:94] Creating Layer pool2
I0503 03:32:32.279737 17924 net.cpp:435] pool2 <- conv2
I0503 03:32:32.279742 17924 net.cpp:409] pool2 -> pool2
I0503 03:32:32.279799 17924 net.cpp:144] Setting up pool2
I0503 03:32:32.279808 17924 net.cpp:151] Top shape: 20 64 15 15 (288000)
I0503 03:32:32.279810 17924 net.cpp:159] Memory required for data: 19656080
I0503 03:32:32.279814 17924 layer_factory.hpp:77] Creating layer conv3
I0503 03:32:32.279822 17924 net.cpp:94] Creating Layer conv3
I0503 03:32:32.279825 17924 net.cpp:435] conv3 <- pool2
I0503 03:32:32.279830 17924 net.cpp:409] conv3 -> conv3
I0503 03:32:32.292490 17924 net.cpp:144] Setting up conv3
I0503 03:32:32.292506 17924 net.cpp:151] Top shape: 20 128 15 15 (576000)
I0503 03:32:32.292510 17924 net.cpp:159] Memory required for data: 21960080
I0503 03:32:32.292520 17924 layer_factory.hpp:77] Creating layer relu3
I0503 03:32:32.292526 17924 net.cpp:94] Creating Layer relu3
I0503 03:32:32.292529 17924 net.cpp:435] relu3 <- conv3
I0503 03:32:32.292533 17924 net.cpp:396] relu3 -> conv3 (in-place)
I0503 03:32:32.292541 17924 net.cpp:144] Setting up relu3
I0503 03:32:32.292546 17924 net.cpp:151] Top shape: 20 128 15 15 (576000)
I0503 03:32:32.292548 17924 net.cpp:159] Memory required for data: 24264080
I0503 03:32:32.292568 17924 layer_factory.hpp:77] Creating layer conv4
I0503 03:32:32.292578 17924 net.cpp:94] Creating Layer conv4
I0503 03:32:32.292582 17924 net.cpp:435] conv4 <- conv3
I0503 03:32:32.292587 17924 net.cpp:409] conv4 -> conv4
I0503 03:32:32.314796 17924 net.cpp:144] Setting up conv4
I0503 03:32:32.314815 17924 net.cpp:151] Top shape: 20 128 15 15 (576000)
I0503 03:32:32.314820 17924 net.cpp:159] Memory required for data: 26568080
I0503 03:32:32.314826 17924 layer_factory.hpp:77] Creating layer relu4
I0503 03:32:32.314832 17924 net.cpp:94] Creating Layer relu4
I0503 03:32:32.314836 17924 net.cpp:435] relu4 <- conv4
I0503 03:32:32.314841 17924 net.cpp:396] relu4 -> conv4 (in-place)
I0503 03:32:32.314848 17924 net.cpp:144] Setting up relu4
I0503 03:32:32.314853 17924 net.cpp:151] Top shape: 20 128 15 15 (576000)
I0503 03:32:32.314857 17924 net.cpp:159] Memory required for data: 28872080
I0503 03:32:32.314859 17924 layer_factory.hpp:77] Creating layer conv5
I0503 03:32:32.314867 17924 net.cpp:94] Creating Layer conv5
I0503 03:32:32.314872 17924 net.cpp:435] conv5 <- conv4
I0503 03:32:32.314875 17924 net.cpp:409] conv5 -> conv5
I0503 03:32:32.336601 17924 net.cpp:144] Setting up conv5
I0503 03:32:32.336621 17924 net.cpp:151] Top shape: 20 128 15 15 (576000)
I0503 03:32:32.336624 17924 net.cpp:159] Memory required for data: 31176080
I0503 03:32:32.336633 17924 layer_factory.hpp:77] Creating layer relu5
I0503 03:32:32.336640 17924 net.cpp:94] Creating Layer relu5
I0503 03:32:32.336644 17924 net.cpp:435] relu5 <- conv5
I0503 03:32:32.336650 17924 net.cpp:396] relu5 -> conv5 (in-place)
I0503 03:32:32.336658 17924 net.cpp:144] Setting up relu5
I0503 03:32:32.336663 17924 net.cpp:151] Top shape: 20 128 15 15 (576000)
I0503 03:32:32.336665 17924 net.cpp:159] Memory required for data: 33480080
I0503 03:32:32.336668 17924 layer_factory.hpp:77] Creating layer pool5
I0503 03:32:32.336673 17924 net.cpp:94] Creating Layer pool5
I0503 03:32:32.336678 17924 net.cpp:435] pool5 <- conv5
I0503 03:32:32.336683 17924 net.cpp:409] pool5 -> pool5
I0503 03:32:32.336731 17924 net.cpp:144] Setting up pool5
I0503 03:32:32.336740 17924 net.cpp:151] Top shape: 20 128 7 7 (125440)
I0503 03:32:32.336742 17924 net.cpp:159] Memory required for data: 33981840
I0503 03:32:32.336745 17924 layer_factory.hpp:77] Creating layer ip1
I0503 03:32:32.336755 17924 net.cpp:94] Creating Layer ip1
I0503 03:32:32.336758 17924 net.cpp:435] ip1 <- pool5
I0503 03:32:32.336763 17924 net.cpp:409] ip1 -> ip1
I0503 03:32:32.492188 17924 net.cpp:144] Setting up ip1
I0503 03:32:32.492223 17924 net.cpp:151] Top shape: 20 1024 (20480)
I0503 03:32:32.492228 17924 net.cpp:159] Memory required for data: 34063760
I0503 03:32:32.492236 17924 layer_factory.hpp:77] Creating layer ip2
I0503 03:32:32.492247 17924 net.cpp:94] Creating Layer ip2
I0503 03:32:32.492259 17924 net.cpp:435] ip2 <- ip1
I0503 03:32:32.492265 17924 net.cpp:409] ip2 -> ip2
I0503 03:32:32.505542 17924 net.cpp:144] Setting up ip2
I0503 03:32:32.505560 17924 net.cpp:151] Top shape: 20 512 (10240)
I0503 03:32:32.505564 17924 net.cpp:159] Memory required for data: 34104720
I0503 03:32:32.505570 17924 layer_factory.hpp:77] Creating layer ip3
I0503 03:32:32.505578 17924 net.cpp:94] Creating Layer ip3
I0503 03:32:32.505581 17924 net.cpp:435] ip3 <- ip2
I0503 03:32:32.505587 17924 net.cpp:409] ip3 -> ip3
I0503 03:32:32.505719 17924 net.cpp:144] Setting up ip3
I0503 03:32:32.505728 17924 net.cpp:151] Top shape: 20 1 (20)
I0503 03:32:32.505730 17924 net.cpp:159] Memory required for data: 34104800
I0503 03:32:32.505734 17924 layer_factory.hpp:77] Creating layer loss
I0503 03:32:32.505743 17924 net.cpp:94] Creating Layer loss
I0503 03:32:32.505748 17924 net.cpp:435] loss <- ip3
I0503 03:32:32.505750 17924 net.cpp:435] loss <- label
I0503 03:32:32.505755 17924 net.cpp:409] loss -> loss
I0503 03:32:32.505816 17924 net.cpp:144] Setting up loss
…
I0503 03:32:32.759732 17924 net.cpp:323] The NetState phase (0) differed from the phase (1) specified by a rule in layer intercept
I0503 03:32:32.759747 17924 net.cpp:323] The NetState phase (0) differed from the phase (1) specified by a rule in layer accuracy
I0503 03:32:32.759832 17924 net.cpp:52] Initializing net from parameters: 
state {
  phase: TRAIN
}
layer {
  name: "parameters"
  type: "HDF5Data"
  top: "data"
  top: "label"
  include {
    phase: TRAIN
  }
  hdf5_data_param {
    source: "/home/purduethu/scratch/radon/d/deng106/CNNStatisticalModel/distributions/input/5_distributions_900_sample_size_train-distributions-path.txt"
    batch_size: 20
  }
}
layer {
  name: "conv1"
  type: "Convolution"
  bottom: "data"
  top: "conv1"
  param {
    lr_mult: 1
  }
  param {
    lr_mult: 2
  }
  convolution_param {
    num_output: 64
    pad: 2
    kernel_size: 5
    stride: 1
    weight_filler {
      type: "gaussian"
      std: 0.0001
    }
    bias_filler {
      type: "constant"
    }
  }
}
layer {
  name: "relu1"
  type: "ReLU"
  bottom: "conv1"
  top: "conv1"
}
layer {
  name: "conv2"
  type: "Convolution"
  bottom: "conv1"
  top: "conv2"
  param {
    lr_mult: 1
  }
  param {
    lr_mult: 2
  }
  convolution_param {
    num_output: 64
    pad: 2
    kernel_size: 5
    stride: 1
    weight_filler {
      type: "gaussian"
      std: 0.01
    }
    bias_filler {
      type: "constant"
    }
  }
}
layer {
  name: "relu2"
  type: "ReLU"
  bottom: "conv2"
  top: "conv2"
}
layer {
  name: "pool2"
  type: "Pooling"
  bottom: "conv2"
  top: "pool2"
  pooling_param {
    pool: MAX
    kernel_size: 3
    stride: 2
  }
}
layer {
  name: "conv3"
  type: "Convolution"
  bottom: "pool2"
  top: "conv3"
  param {
    lr_mult: 1
  }
  param {
    lr_mult: 2
  }
  convolution_param {
    num_output: 128
    pad: 2
    kernel_size: 5
    stride: 1
    weight_filler {
      type: "gaussian"
      std: 0.01
    }
    bias_filler {
      type: "constant"
    }
  }
}
layer {
  name: "relu3"
  type: "ReLU"
  bottom: "conv3"
  top: "conv3"
}
layer {
  name: "conv4"
  type: "Convolution"
  bottom: "conv3"
  top: "conv4"
  param {
    lr_mult: 1
  }
  param {
    lr_mult: 2
  }
  convolution_param {
    num_output: 128
    pad: 2
    kernel_size: 5
    stride: 1
    weight_filler {
      type: "gaussian"
      std: 0.01
    }
    bias_filler {
      type: "constant"
    }
  }
}
layer {
  name: "relu4"
  type: "ReLU"
  bottom: "conv4"
  top: "conv4"
}
layer {
  name: "conv5"
  type: "Convolution"
  bottom: "conv4"
  top: "conv5"
  param {
    lr_mult: 1
  }
  param {
    lr_mult: 2
  }
  convolution_param {
    num_output: 128
    pad: 2
    kernel_size: 5
    stride: 1
    weight_filler {
      type: "gaussian"
      std: 0.01
    }
    bias_filler {
      type: "constant"
    }
  }
}
layer {
  name: "relu5"
  type: "ReLU"
  bottom: "conv5"
  top: "conv5"
}
layer {
  name: "pool5"
  type: "Pooling"
  bottom: "conv5"
  top: "pool5"
  pooling_param {
    pool: AVE
    kernel_size: 3
    stride: 2
  }
}
layer {
  name: "ip1"
  type: "InnerProduct"
  bottom: "pool5"
  top: "ip1"
  param {
    lr_mult: 1
  }
  param {
    lr_mult: 2
  }
  inner_product_param {
    num_output: 1024
    weight_filler {
      type: "gaussian"
      std: 0.1
    }
    bias_filler {
      type: "constant"
    }
  }
}
layer {
  name: "ip2"
  type: "InnerProduct"
  bottom: "ip1"
  top: "ip2"
  param {
    lr_mult: 1
  }
  param {
    lr_mult: 2
  }
  inner_product_param {
    num_output: 512
    weight_filler {
      type: "gaussian"
      std: 0.1
    }
    bias_filler {
      type: "constant"
    }
  }
}
layer {
  name: "ip3"
  type: "InnerProduct"
  bottom: "ip2"
  top: "ip3"
  param {
    lr_mult: 1
  }
  param {
    lr_mult: 2
  }
  inner_product_param {
    num_output: 50
    weight_filler {
      type: "gaussian"
      std: 0.1
    }
    bias_filler {
      type: "constant"
    }
  }
}
layer {
  name: "loss"
  type: "SoftmaxWithLoss"
  bottom: "ip3"
  bottom: "label"
  top: "loss"
}
I0503 03:32:32.759883 17924 layer_factory.hpp:77] Creating layer parameters
I0503 03:32:32.759891 17924 net.cpp:94] Creating Layer parameters
I0503 03:32:32.759896 17924 net.cpp:409] parameters -> data
I0503 03:32:32.759902 17924 net.cpp:409] parameters -> label
I0503 03:32:32.759907 17924 hdf5_data_layer.cpp:79] Loading list of HDF5 filenames from: /home/purduethu/scratch/radon/d/deng106/CNNStatisticalModel/distributions/input/5_distributions_900_sample_size_train-distributions-path.txt
I0503 03:32:32.759923 17924 hdf5_data_layer.cpp:93] Number of HDF5 files: 1
I0503 03:32:32.896049 17924 hdf5.cpp:35] Datatype class: H5T_INTEGER
I0503 03:32:32.896507 17924 net.cpp:144] Setting up parameters
I0503 03:32:32.896522 17924 net.cpp:151] Top shape: 20 1 30 30 (18000)
I0503 03:32:32.896525 17924 net.cpp:151] Top shape: 20 (20)
I0503 03:32:32.896529 17924 net.cpp:159] Memory required for data: 72080
I0503 03:32:32.896534 17924 layer_factory.hpp:77] Creating layer conv1
I0503 03:32:32.896564 17924 net.cpp:94] Creating Layer conv1
I0503 03:32:32.896580 17924 net.cpp:435] conv1 <- data
I0503 03:32:32.896589 17924 net.cpp:409] conv1 -> conv1
I0503 03:32:32.900223 17924 net.cpp:144] Setting up conv1
I0503 03:32:32.900235 17924 net.cpp:151] Top shape: 20 64 30 30 (1152000)
I0503 03:32:32.900239 17924 net.cpp:159] Memory required for data: 4680080
I0503 03:32:32.900249 17924 layer_factory.hpp:77] Creating layer relu1
I0503 03:32:32.900257 17924 net.cpp:94] Creating Layer relu1
I0503 03:32:32.900260 17924 net.cpp:435] relu1 <- conv1
I0503 03:32:32.900265 17924 net.cpp:396] relu1 -> conv1 (in-place)
I0503 03:32:32.900272 17924 net.cpp:144] Setting up relu1
I0503 03:32:32.900276 17924 net.cpp:151] Top shape: 20 64 30 30 (1152000)
I0503 03:32:32.900279 17924 net.cpp:159] Memory required for data: 9288080
I0503 03:32:32.900282 17924 layer_factory.hpp:77] Creating layer conv2
I0503 03:32:32.900290 17924 net.cpp:94] Creating Layer conv2
I0503 03:32:32.900293 17924 net.cpp:435] conv2 <- conv1
I0503 03:32:32.900298 17924 net.cpp:409] conv2 -> conv2
I0503 03:32:32.916529 17924 net.cpp:144] Setting up conv2
I0503 03:32:32.916548 17924 net.cpp:151] Top shape: 20 64 30 30 (1152000)
I0503 03:32:32.916563 17924 net.cpp:159] Memory required for data: 13896080
I0503 03:32:32.916573 17924 layer_factory.hpp:77] Creating layer relu2
I0503 03:32:32.916579 17924 net.cpp:94] Creating Layer relu2
I0503 03:32:32.916582 17924 net.cpp:435] relu2 <- conv2
I0503 03:32:32.916587 17924 net.cpp:396] relu2 -> conv2 (in-place)
I0503 03:32:32.916594 17924 net.cpp:144] Setting up relu2
I0503 03:32:32.916599 17924 net.cpp:151] Top shape: 20 64 30 30 (1152000)
I0503 03:32:32.916601 17924 net.cpp:159] Memory required for data: 18504080
I0503 03:32:32.916604 17924 layer_factory.hpp:77] Creating layer pool2
I0503 03:32:32.916610 17924 net.cpp:94] Creating Layer pool2
I0503 03:32:32.916613 17924 net.cpp:435] pool2 <- conv2
I0503 03:32:32.916617 17924 net.cpp:409] pool2 -> pool2
I0503 03:32:32.916677 17924 net.cpp:144] Setting up pool2
I0503 03:32:32.916685 17924 net.cpp:151] Top shape: 20 64 15 15 (288000)
I0503 03:32:32.916688 17924 net.cpp:159] Memory required for data: 19656080
I0503 03:32:32.916692 17924 layer_factory.hpp:77] Creating layer conv3
I0503 03:32:32.916699 17924 net.cpp:94] Creating Layer conv3
I0503 03:32:32.916702 17924 net.cpp:435] conv3 <- pool2
I0503 03:32:32.916714 17924 net.cpp:409] conv3 -> conv3
I0503 03:32:32.930390 17924 net.cpp:144] Setting up conv3
I0503 03:32:32.930419 17924 net.cpp:151] Top shape: 20 128 15 15 (576000)
I0503 03:32:32.930428 17924 net.cpp:159] Memory required for data: 21960080
I0503 03:32:32.930444 17924 layer_factory.hpp:77] Creating layer relu3
I0503 03:32:32.930455 17924 net.cpp:94] Creating Layer relu3
I0503 03:32:32.930462 17924 net.cpp:435] relu3 <- conv3
I0503 03:32:32.930470 17924 net.cpp:396] relu3 -> conv3 (in-place)
I0503 03:32:32.930485 17924 net.cpp:144] Setting up relu3
I0503 03:32:32.930492 17924 net.cpp:151] Top shape: 20 128 15 15 (576000)
I0503 03:32:32.930498 17924 net.cpp:159] Memory required for data: 24264080
I0503 03:32:32.930505 17924 layer_factory.hpp:77] Creating layer conv4
I0503 03:32:32.930521 17924 net.cpp:94] Creating Layer conv4
I0503 03:32:32.930526 17924 net.cpp:435] conv4 <- conv3
I0503 03:32:32.930536 17924 net.cpp:409] conv4 -> conv4
I0503 03:32:32.953632 17924 net.cpp:144] Setting up conv4
I0503 03:32:32.953651 17924 net.cpp:151] Top shape: 20 128 15 15 (576000)
I0503 03:32:32.953655 17924 net.cpp:159] Memory required for data: 26568080
I0503 03:32:32.953662 17924 layer_factory.hpp:77] Creating layer relu4
I0503 03:32:32.953670 17924 net.cpp:94] Creating Layer relu4
I0503 03:32:32.953673 17924 net.cpp:435] relu4 <- conv4
I0503 03:32:32.953678 17924 net.cpp:396] relu4 -> conv4 (in-place)
I0503 03:32:32.953686 17924 net.cpp:144] Setting up relu4
I0503 03:32:32.953691 17924 net.cpp:151] Top shape: 20 128 15 15 (576000)
I0503 03:32:32.953693 17924 net.cpp:159] Memory required for data: 28872080
I0503 03:32:32.953696 17924 layer_factory.hpp:77] Creating layer conv5
I0503 03:32:32.953704 17924 net.cpp:94] Creating Layer conv5
I0503 03:32:32.953708 17924 net.cpp:435] conv5 <- conv4
I0503 03:32:32.953712 17924 net.cpp:409] conv5 -> conv5
I0503 03:32:32.976357 17924 net.cpp:144] Setting up conv5
I0503 03:32:32.976388 17924 net.cpp:151] Top shape: 20 128 15 15 (576000)
I0503 03:32:32.976397 17924 net.cpp:159] Memory required for data: 31176080
I0503 03:32:32.976413 17924 layer_factory.hpp:77] Creating layer relu5
I0503 03:32:32.976425 17924 net.cpp:94] Creating Layer relu5
I0503 03:32:32.976431 17924 net.cpp:435] relu5 <- conv5
I0503 03:32:32.976442 17924 net.cpp:396] relu5 -> conv5 (in-place)
I0503 03:32:32.976456 17924 net.cpp:144] Setting up relu5
I0503 03:32:32.976464 17924 net.cpp:151] Top shape: 20 128 15 15 (576000)
I0503 03:32:32.976470 17924 net.cpp:159] Memory required for data: 33480080
I0503 03:32:32.976475 17924 layer_factory.hpp:77] Creating layer pool5
I0503 03:32:32.976486 17924 net.cpp:94] Creating Layer pool5
I0503 03:32:32.976493 17924 net.cpp:435] pool5 <- conv5
I0503 03:32:32.976500 17924 net.cpp:409] pool5 -> pool5
I0503 03:32:32.976577 17924 net.cpp:144] Setting up pool5
I0503 03:32:32.976584 17924 net.cpp:151] Top shape: 20 128 7 7 (125440)
I0503 03:32:32.976588 17924 net.cpp:159] Memory required for data: 33981840
I0503 03:32:32.976590 17924 layer_factory.hpp:77] Creating layer ip1
I0503 03:32:32.976598 17924 net.cpp:94] Creating Layer ip1
I0503 03:32:32.976601 17924 net.cpp:435] ip1 <- pool5
I0503 03:32:32.976606 17924 net.cpp:409] ip1 -> ip1
I0503 03:32:33.132491 17924 net.cpp:144] Setting up ip1
I0503 03:32:33.132527 17924 net.cpp:151] Top shape: 20 1024 (20480)
I0503 03:32:33.132530 17924 net.cpp:159] Memory required for data: 34063760
I0503 03:32:33.132539 17924 layer_factory.hpp:77] Creating layer ip2
I0503 03:32:33.132553 17924 net.cpp:94] Creating Layer ip2
I0503 03:32:33.132558 17924 net.cpp:435] ip2 <- ip1
I0503 03:32:33.132565 17924 net.cpp:409] ip2 -> ip2
I0503 03:32:33.145974 17924 net.cpp:144] Setting up ip2
I0503 03:32:33.145993 17924 net.cpp:151] Top shape: 20 512 (10240)
I0503 03:32:33.145998 17924 net.cpp:159] Memory required for data: 34104720
I0503 03:32:33.146003 17924 layer_factory.hpp:77] Creating layer ip3
I0503 03:32:33.146011 17924 net.cpp:94] Creating Layer ip3
I0503 03:32:33.146014 17924 net.cpp:435] ip3 <- ip2
I0503 03:32:33.146019 17924 net.cpp:409] ip3 -> ip3
I0503 03:32:33.146787 17924 net.cpp:144] Setting up ip3
I0503 03:32:33.146795 17924 net.cpp:151] Top shape: 20 50 (1000)
I0503 03:32:33.146798 17924 net.cpp:159] Memory required for data: 34108720
I0503 03:32:33.146803 17924 layer_factory.hpp:77] Creating layer loss
I0503 03:32:33.146811 17924 net.cpp:94] Creating Layer loss
I0503 03:32:33.146814 17924 net.cpp:435] loss <- ip3
I0503 03:32:33.146818 17924 net.cpp:435] loss <- label
I0503 03:32:33.146824 17924 net.cpp:409] loss -> loss
I0503 03:32:33.146831 17924 layer_factory.hpp:77] Creating layer loss
…
I0503 03:32:33.147353 17924 solver.cpp:181] Creating test net (#0) specified by net file: ./protocol/dis_5_900_dimension.protocol_distribution
I0503 03:32:33.147380 17924 net.cpp:323] The NetState phase (1) differed from the phase (0) specified by a rule in layer parameters
I0503 03:32:33.147474 17924 net.cpp:52] Initializing net from parameters: 
state {
  phase: TEST
}
layer {
  name: "intercept"
  type: "HDF5Data"
  top: "data"
  top: "label"
  include {
    phase: TEST
  }
  hdf5_data_param {
    source: "/home/purduethu/scratch/radon/d/deng106/CNNStatisticalModel/distributions/input/5_distributions_900_sample_size_test-distributions-path.txt"
    batch_size: 20
  }
}
layer {
  name: "conv1"
  type: "Convolution"
  bottom: "data"
  top: "conv1"
  param {
    lr_mult: 1
  }
  param {
    lr_mult: 2
  }
  convolution_param {
    num_output: 64
    pad: 2
    kernel_size: 5
    stride: 1
    weight_filler {
      type: "gaussian"
      std: 0.0001
    }
    bias_filler {
      type: "constant"
    }
  }
}
layer {
  name: "relu1"
  type: "ReLU"
  bottom: "conv1"
  top: "conv1"
}
layer {
  name: "conv2"
  type: "Convolution"
  bottom: "conv1"
  top: "conv2"
  param {
    lr_mult: 1
  }
  param {
    lr_mult: 2
  }
  convolution_param {
    num_output: 64
    pad: 2
    kernel_size: 5
    stride: 1
    weight_filler {
      type: "gaussian"
      std: 0.01
    }
    bias_filler {
      type: "constant"
    }
  }
}
layer {
  name: "relu2"
  type: "ReLU"
  bottom: "conv2"
  top: "conv2"
}
layer {
  name: "pool2"
  type: "Pooling"
  bottom: "conv2"
  top: "pool2"
  pooling_param {
    pool: MAX
    kernel_size: 3
    stride: 2
  }
}
layer {
  name: "conv3"
  type: "Convolution"
  bottom: "pool2"
  top: "conv3"
  param {
    lr_mult: 1
  }
  param {
    lr_mult: 2
  }
  convolution_param {
    num_output: 128
    pad: 2
    kernel_size: 5
    stride: 1
    weight_filler {
      type: "gaussian"
      std: 0.01
    }
    bias_filler {
      type: "constant"
    }
  }
}
layer {
  name: "relu3"
  type: "ReLU"
  bottom: "conv3"
  top: "conv3"
}
layer {
  name: "conv4"
  type: "Convolution"
  bottom: "conv3"
  top: "conv4"
  param {
    lr_mult: 1
  }
  param {
    lr_mult: 2
  }
  convolution_param {
    num_output: 128
    pad: 2
    kernel_size: 5
    stride: 1
    weight_filler {
      type: "gaussian"
      std: 0.01
    }
    bias_filler {
      type: "constant"
    }
  }
}
layer {
  name: "relu4"
  type: "ReLU"
  bottom: "conv4"
  top: "conv4"
}
layer {
  name: "conv5"
  type: "Convolution"
  bottom: "conv4"
  top: "conv5"
  param {
    lr_mult: 1
  }
  param {
    lr_mult: 2
  }
  convolution_param {
    num_output: 128
    pad: 2
    kernel_size: 5
    stride: 1
    weight_filler {
      type: "gaussian"
      std: 0.01
    }
    bias_filler {
      type: "constant"
    }
  }
}
layer {
  name: "relu5"
  type: "ReLU"
  bottom: "conv5"
  top: "conv5"
}
layer {
  name: "pool5"
  type: "Pooling"
  bottom: "conv5"
  top: "pool5"
  pooling_param {
    pool: AVE
    kernel_size: 3
    stride: 2
  }
}
layer {
  name: "ip1"
  type: "InnerProduct"
  bottom: "pool5"
  top: "ip1"
  param {
    lr_mult: 1
  }
  param {
    lr_mult: 2
  }
  inner_product_param {
    num_output: 1024
    weight_filler {
      type: "gaussian"
      std: 0.1
    }
    bias_filler {
      type: "constant"
    }
  }
}
layer {
  name: "ip2"
  type: "InnerProduct"
  bottom: "ip1"
  top: "ip2"
  param {
    lr_mult: 1
  }
  param {
    lr_mult: 2
  }
  inner_product_param {
    num_output: 512
    weight_filler {
      type: "gaussian"
      std: 0.1
    }
    bias_filler {
      type: "constant"
    }
  }
}
layer {
  name: "ip3"
  type: "InnerProduct"
  bottom: "ip2"
  top: "ip3"
  param {
    lr_mult: 1
  }
  param {
    lr_mult: 2
  }
  inner_product_param {
    num_output: 50
    weight_filler {
      type: "gaussian"
      std: 0.1
    }
    bias_filler {
      type: "constant"
    }
  }
}
layer {
  name: "accuracy"
  type: "Accuracy"
  bottom: "ip3"
  bottom: "label"
  top: "accuracy"
  include {
    phase: TEST
  }
}
layer {
  name: "loss"
  type: "SoftmaxWithLoss"
  bottom: "ip3"
  bottom: "label"
  top: "loss"
}
I0503 03:32:33.147541 17924 layer_factory.hpp:77] Creating layer intercept
I0503 03:32:33.147549 17924 net.cpp:94] Creating Layer intercept
I0503 03:32:33.147553 17924 net.cpp:409] intercept -> data
I0503 03:32:33.147560 17924 net.cpp:409] intercept -> label
I0503 03:32:33.147565 17924 hdf5_data_layer.cpp:79] Loading list of HDF5 filenames from: /home/purduethu/scratch/radon/d/deng106/CNNStatisticalModel/distributions/input/5_distributions_900_sample_size_test-distributions-path.txt
I0503 03:32:33.147585 17924 hdf5_data_layer.cpp:93] Number of HDF5 files: 1
I0503 03:32:33.183145 17924 net.cpp:144] Setting up intercept
I0503 03:32:33.183181 17924 net.cpp:151] Top shape: 20 1 30 30 (18000)
I0503 03:32:33.183185 17924 net.cpp:151] Top shape: 20 (20)
I0503 03:32:33.183188 17924 net.cpp:159] Memory required for data: 72080
I0503 03:32:33.183194 17924 layer_factory.hpp:77] Creating layer label_intercept_1_split
I0503 03:32:33.183212 17924 net.cpp:94] Creating Layer label_intercept_1_split
I0503 03:32:33.183217 17924 net.cpp:435] label_intercept_1_split <- label
I0503 03:32:33.183223 17924 net.cpp:409] label_intercept_1_split -> label_intercept_1_split_0
I0503 03:32:33.183230 17924 net.cpp:409] label_intercept_1_split -> label_intercept_1_split_1
I0503 03:32:33.183276 17924 net.cpp:144] Setting up label_intercept_1_split
I0503 03:32:33.183282 17924 net.cpp:151] Top shape: 20 (20)
I0503 03:32:33.183286 17924 net.cpp:151] Top shape: 20 (20)
I0503 03:32:33.183290 17924 net.cpp:159] Memory required for data: 72240
I0503 03:32:33.183292 17924 layer_factory.hpp:77] Creating layer conv1
I0503 03:32:33.183302 17924 net.cpp:94] Creating Layer conv1
I0503 03:32:33.183306 17924 net.cpp:435] conv1 <- data
I0503 03:32:33.183310 17924 net.cpp:409] conv1 -> conv1
I0503 03:32:33.184835 17924 net.cpp:144] Setting up conv1
I0503 03:32:33.184849 17924 net.cpp:151] Top shape: 20 64 30 30 (1152000)
I0503 03:32:33.184854 17924 net.cpp:159] Memory required for data: 4680240
I0503 03:32:33.184864 17924 layer_factory.hpp:77] Creating layer relu1
I0503 03:32:33.184870 17924 net.cpp:94] Creating Layer relu1
I0503 03:32:33.184873 17924 net.cpp:435] relu1 <- conv1
I0503 03:32:33.184877 17924 net.cpp:396] relu1 -> conv1 (in-place)
I0503 03:32:33.184885 17924 net.cpp:144] Setting up relu1
I0503 03:32:33.184890 17924 net.cpp:151] Top shape: 20 64 30 30 (1152000)
I0503 03:32:33.184892 17924 net.cpp:159] Memory required for data: 9288240
I0503 03:32:33.184895 17924 layer_factory.hpp:77] Creating layer conv2
I0503 03:32:33.184903 17924 net.cpp:94] Creating Layer conv2
I0503 03:32:33.184906 17924 net.cpp:435] conv2 <- conv1
I0503 03:32:33.184911 17924 net.cpp:409] conv2 -> conv2
I0503 03:32:33.191720 17924 net.cpp:144] Setting up conv2
I0503 03:32:33.191735 17924 net.cpp:151] Top shape: 20 64 30 30 (1152000)
I0503 03:32:33.191740 17924 net.cpp:159] Memory required for data: 13896240
I0503 03:32:33.191747 17924 layer_factory.hpp:77] Creating layer relu2
I0503 03:32:33.191754 17924 net.cpp:94] Creating Layer relu2
I0503 03:32:33.191757 17924 net.cpp:435] relu2 <- conv2
I0503 03:32:33.191762 17924 net.cpp:396] relu2 -> conv2 (in-place)
I0503 03:32:33.191769 17924 net.cpp:144] Setting up relu2
I0503 03:32:33.191774 17924 net.cpp:151] Top shape: 20 64 30 30 (1152000)
I0503 03:32:33.191777 17924 net.cpp:159] Memory required for data: 18504240
I0503 03:32:33.191781 17924 layer_factory.hpp:77] Creating layer pool2
I0503 03:32:33.191786 17924 net.cpp:94] Creating Layer pool2
I0503 03:32:33.191788 17924 net.cpp:435] pool2 <- conv2
I0503 03:32:33.191792 17924 net.cpp:409] pool2 -> pool2
I0503 03:32:33.191853 17924 net.cpp:144] Setting up pool2
I0503 03:32:33.191859 17924 net.cpp:151] Top shape: 20 64 15 15 (288000)
I0503 03:32:33.191862 17924 net.cpp:159] Memory required for data: 19656240
I0503 03:32:33.191865 17924 layer_factory.hpp:77] Creating layer conv3
I0503 03:32:33.191874 17924 net.cpp:94] Creating Layer conv3
I0503 03:32:33.191877 17924 net.cpp:435] conv3 <- pool2
I0503 03:32:33.191881 17924 net.cpp:409] conv3 -> conv3
I0503 03:32:33.199589 17924 net.cpp:144] Setting up conv3
I0503 03:32:33.199604 17924 net.cpp:151] Top shape: 20 128 15 15 (576000)
I0503 03:32:33.199607 17924 net.cpp:159] Memory required for data: 21960240
I0503 03:32:33.199616 17924 layer_factory.hpp:77] Creating layer relu3
I0503 03:32:33.199623 17924 net.cpp:94] Creating Layer relu3
I0503 03:32:33.199627 17924 net.cpp:435] relu3 <- conv3
I0503 03:32:33.199631 17924 net.cpp:396] relu3 -> conv3 (in-place)
I0503 03:32:33.199638 17924 net.cpp:144] Setting up relu3
I0503 03:32:33.199643 17924 net.cpp:151] Top shape: 20 128 15 15 (576000)
I0503 03:32:33.199646 17924 net.cpp:159] Memory required for data: 24264240
I0503 03:32:33.199650 17924 layer_factory.hpp:77] Creating layer conv4
I0503 03:32:33.199656 17924 net.cpp:94] Creating Layer conv4
I0503 03:32:33.199659 17924 net.cpp:435] conv4 <- conv3
I0503 03:32:33.199664 17924 net.cpp:409] conv4 -> conv4
I0503 03:32:33.215394 17924 net.cpp:144] Setting up conv4
I0503 03:32:33.215414 17924 net.cpp:151] Top shape: 20 128 15 15 (576000)
I0503 03:32:33.215417 17924 net.cpp:159] Memory required for data: 26568240
I0503 03:32:33.215425 17924 layer_factory.hpp:77] Creating layer relu4
I0503 03:32:33.215431 17924 net.cpp:94] Creating Layer relu4
I0503 03:32:33.215435 17924 net.cpp:435] relu4 <- conv4
I0503 03:32:33.215440 17924 net.cpp:396] relu4 -> conv4 (in-place)
I0503 03:32:33.215447 17924 net.cpp:144] Setting up relu4
I0503 03:32:33.215452 17924 net.cpp:151] Top shape: 20 128 15 15 (576000)
I0503 03:32:33.215454 17924 net.cpp:159] Memory required for data: 28872240
I0503 03:32:33.215457 17924 layer_factory.hpp:77] Creating layer conv5
I0503 03:32:33.215466 17924 net.cpp:94] Creating Layer conv5
I0503 03:32:33.215469 17924 net.cpp:435] conv5 <- conv4
I0503 03:32:33.215473 17924 net.cpp:409] conv5 -> conv5
I0503 03:32:33.230715 17924 net.cpp:144] Setting up conv5
I0503 03:32:33.230734 17924 net.cpp:151] Top shape: 20 128 15 15 (576000)
I0503 03:32:33.230738 17924 net.cpp:159] Memory required for data: 31176240
I0503 03:32:33.230749 17924 layer_factory.hpp:77] Creating layer relu5
I0503 03:32:33.230756 17924 net.cpp:94] Creating Layer relu5
I0503 03:32:33.230761 17924 net.cpp:435] relu5 <- conv5
I0503 03:32:33.230764 17924 net.cpp:396] relu5 -> conv5 (in-place)
I0503 03:32:33.230772 17924 net.cpp:144] Setting up relu5
I0503 03:32:33.230777 17924 net.cpp:151] Top shape: 20 128 15 15 (576000)
I0503 03:32:33.230779 17924 net.cpp:159] Memory required for data: 33480240
I0503 03:32:33.230782 17924 layer_factory.hpp:77] Creating layer pool5
I0503 03:32:33.230787 17924 net.cpp:94] Creating Layer pool5
I0503 03:32:33.230792 17924 net.cpp:435] pool5 <- conv5
I0503 03:32:33.230795 17924 net.cpp:409] pool5 -> pool5
I0503 03:32:33.230841 17924 net.cpp:144] Setting up pool5
I0503 03:32:33.230849 17924 net.cpp:151] Top shape: 20 128 7 7 (125440)
I0503 03:32:33.230850 17924 net.cpp:159] Memory required for data: 33982000
I0503 03:32:33.230854 17924 layer_factory.hpp:77] Creating layer ip1
I0503 03:32:33.230861 17924 net.cpp:94] Creating Layer ip1
I0503 03:32:33.230865 17924 net.cpp:435] ip1 <- pool5
I0503 03:32:33.230868 17924 net.cpp:409] ip1 -> ip1
I0503 03:32:33.386592 17924 net.cpp:144] Setting up ip1
I0503 03:32:33.386628 17924 net.cpp:151] Top shape: 20 1024 (20480)
I0503 03:32:33.386632 17924 net.cpp:159] Memory required for data: 34063920
I0503 03:32:33.386641 17924 layer_factory.hpp:77] Creating layer ip2
I0503 03:32:33.386651 17924 net.cpp:94] Creating Layer ip2
I0503 03:32:33.386656 17924 net.cpp:435] ip2 <- ip1
I0503 03:32:33.386662 17924 net.cpp:409] ip2 -> ip2
I0503 03:32:33.400094 17924 net.cpp:144] Setting up ip2
I0503 03:32:33.400113 17924 net.cpp:151] Top shape: 20 512 (10240)
I0503 03:32:33.400116 17924 net.cpp:159] Memory required for data: 34104880
I0503 03:32:33.400123 17924 layer_factory.hpp:77] Creating layer ip3
I0503 03:32:33.400133 17924 net.cpp:94] Creating Layer ip3
I0503 03:32:33.400137 17924 net.cpp:435] ip3 <- ip2
I0503 03:32:33.400142 17924 net.cpp:409] ip3 -> ip3
I0503 03:32:33.400943 17924 net.cpp:144] Setting up ip3
I0503 03:32:33.400954 17924 net.cpp:151] Top shape: 20 50 (1000)
I0503 03:32:33.400956 17924 net.cpp:159] Memory required for data: 34108880
I0503 03:32:33.400961 17924 layer_factory.hpp:77] Creating layer ip3_ip3_0_split
I0503 03:32:33.400967 17924 net.cpp:94] Creating Layer ip3_ip3_0_split
I0503 03:32:33.400970 17924 net.cpp:435] ip3_ip3_0_split <- ip3
I0503 03:32:33.400975 17924 net.cpp:409] ip3_ip3_0_split -> ip3_ip3_0_split_0
I0503 03:32:33.400980 17924 net.cpp:409] ip3_ip3_0_split -> ip3_ip3_0_split_1
I0503 03:32:33.401028 17924 net.cpp:144] Setting up ip3_ip3_0_split
I0503 03:32:33.401034 17924 net.cpp:151] Top shape: 20 50 (1000)
I0503 03:32:33.401038 17924 net.cpp:151] Top shape: 20 50 (1000)
I0503 03:32:33.401041 17924 net.cpp:159] Memory required for data: 34116880
I0503 03:32:33.401044 17924 layer_factory.hpp:77] Creating layer accuracy
I0503 03:32:33.401051 17924 net.cpp:94] Creating Layer accuracy
I0503 03:32:33.401053 17924 net.cpp:435] accuracy <- ip3_ip3_0_split_0
I0503 03:32:33.401058 17924 net.cpp:435] accuracy <- label_intercept_1_split_0
I0503 03:32:33.401062 17924 net.cpp:409] accuracy -> accuracy
…
