…
I0505 04:28:42.074048  3299 net.cpp:323] The NetState phase (0) differed from the phase (1) specified by a rule in layer intercept
I0505 04:28:42.074064  3299 net.cpp:323] The NetState phase (0) differed from the phase (1) specified by a rule in layer loss
I0505 04:28:42.074138  3299 net.cpp:52] Initializing net from parameters: 
state {
  phase: TRAIN
}
layer {
  name: "parameters"
  type: "HDF5Data"
  top: "data"
  top: "label"
  include {
    phase: TRAIN
  }
  hdf5_data_param {
    source: "/home/purduethu/scratch/radon/d/deng106/CNNStatisticalModel/distributions/input/5_distributions_100_sample_size_train-parameters-path.txt"
    batch_size: 20
  }
}
layer {
  name: "conv1"
  type: "Convolution"
  bottom: "data"
  top: "conv1"
  param {
    lr_mult: 1
  }
  param {
    lr_mult: 2
  }
  convolution_param {
    num_output: 64
    pad: 2
    kernel_size: 5
    stride: 1
    weight_filler {
      type: "gaussian"
      std: 0.0001
    }
    bias_filler {
      type: "constant"
    }
  }
}
layer {
  name: "relu1"
  type: "ReLU"
  bottom: "conv1"
  top: "conv1"
}
layer {
  name: "pool1"
  type: "Pooling"
  bottom: "conv1"
  top: "pool1"
  pooling_param {
    pool: MAX
    kernel_size: 3
    stride: 2
  }
}
layer {
  name: "conv2"
  type: "Convolution"
  bottom: "pool1"
  top: "conv2"
  param {
    lr_mult: 1
  }
  param {
    lr_mult: 2
  }
  convolution_param {
    num_output: 128
    pad: 2
    kernel_size: 5
    stride: 1
    weight_filler {
      type: "gaussian"
      std: 0.01
    }
    bias_filler {
      type: "constant"
    }
  }
}
layer {
  name: "relu2"
  type: "ReLU"
  bottom: "conv2"
  top: "conv2"
}
layer {
  name: "conv3"
  type: "Convolution"
  bottom: "conv2"
  top: "conv3"
  param {
    lr_mult: 1
  }
  param {
    lr_mult: 2
  }
  convolution_param {
    num_output: 128
    pad: 2
    kernel_size: 5
    stride: 1
    weight_filler {
      type: "gaussian"
      std: 0.01
    }
    bias_filler {
      type: "constant"
    }
  }
}
layer {
  name: "relu3"
  type: "ReLU"
  bottom: "conv3"
  top: "conv3"
}
layer {
  name: "pool3"
  type: "Pooling"
  bottom: "conv3"
  top: "pool3"
  pooling_param {
    pool: AVE
    kernel_size: 3
    stride: 2
  }
}
layer {
  name: "ip1"
  type: "InnerProduct"
  bottom: "pool3"
  top: "ip1"
  param {
    lr_mult: 1
  }
  param {
    lr_mult: 2
  }
  inner_product_param {
    num_output: 512
    weight_filler {
      type: "gaussian"
      std: 0.1
    }
    bias_filler {
      type: "constant"
    }
  }
}
layer {
  name: "ip2"
  type: "InnerProduct"
  bottom: "ip1"
  top: "ip2"
  param {
    lr_mult: 1
  }
  param {
    lr_mult: 2
  }
  inner_product_param {
    num_output: 256
    weight_filler {
      type: "gaussian"
      std: 0.1
    }
    bias_filler {
      type: "constant"
    }
  }
}
layer {
  name: "ip3"
  type: "InnerProduct"
  bottom: "ip2"
  top: "ip3"
  param {
    lr_mult: 1
  }
  param {
    lr_mult: 2
  }
  inner_product_param {
    num_output: 1
    weight_filler {
      type: "gaussian"
      std: 0.1
    }
    bias_filler {
      type: "constant"
    }
  }
}
layer {
  name: "loss"
  type: "HuberLoss"
  bottom: "ip3"
  bottom: "label"
  top: "loss"
  include {
    phase: TRAIN
  }
}
I0505 04:28:42.074198  3299 layer_factory.hpp:77] Creating layer parameters
I0505 04:28:42.074213  3299 net.cpp:94] Creating Layer parameters
I0505 04:28:42.074226  3299 net.cpp:409] parameters -> data
I0505 04:28:42.074246  3299 net.cpp:409] parameters -> label
I0505 04:28:42.074257  3299 hdf5_data_layer.cpp:79] Loading list of HDF5 filenames from: /home/purduethu/scratch/radon/d/deng106/CNNStatisticalModel/distributions/input/5_distributions_100_sample_size_train-parameters-path.txt
I0505 04:28:42.074278  3299 hdf5_data_layer.cpp:93] Number of HDF5 files: 1
I0505 04:28:42.074841  3299 hdf5.cpp:32] Datatype class: H5T_FLOAT
I0505 04:28:42.091730  3299 net.cpp:144] Setting up parameters
I0505 04:28:42.091763  3299 net.cpp:151] Top shape: 20 1 10 10 (2000)
I0505 04:28:42.091769  3299 net.cpp:151] Top shape: 20 (20)
I0505 04:28:42.091773  3299 net.cpp:159] Memory required for data: 8080
I0505 04:28:42.091780  3299 layer_factory.hpp:77] Creating layer conv1
I0505 04:28:42.091799  3299 net.cpp:94] Creating Layer conv1
I0505 04:28:42.091804  3299 net.cpp:435] conv1 <- data
I0505 04:28:42.091815  3299 net.cpp:409] conv1 -> conv1
I0505 04:28:42.095505  3299 net.cpp:144] Setting up conv1
I0505 04:28:42.095520  3299 net.cpp:151] Top shape: 20 64 10 10 (128000)
I0505 04:28:42.095525  3299 net.cpp:159] Memory required for data: 520080
I0505 04:28:42.095536  3299 layer_factory.hpp:77] Creating layer relu1
I0505 04:28:42.095544  3299 net.cpp:94] Creating Layer relu1
I0505 04:28:42.095548  3299 net.cpp:435] relu1 <- conv1
I0505 04:28:42.095552  3299 net.cpp:396] relu1 -> conv1 (in-place)
I0505 04:28:42.095571  3299 net.cpp:144] Setting up relu1
I0505 04:28:42.095577  3299 net.cpp:151] Top shape: 20 64 10 10 (128000)
I0505 04:28:42.095579  3299 net.cpp:159] Memory required for data: 1032080
I0505 04:28:42.095583  3299 layer_factory.hpp:77] Creating layer pool1
I0505 04:28:42.095590  3299 net.cpp:94] Creating Layer pool1
I0505 04:28:42.095593  3299 net.cpp:435] pool1 <- conv1
I0505 04:28:42.095598  3299 net.cpp:409] pool1 -> pool1
I0505 04:28:42.095640  3299 net.cpp:144] Setting up pool1
I0505 04:28:42.095649  3299 net.cpp:151] Top shape: 20 64 5 5 (32000)
I0505 04:28:42.095651  3299 net.cpp:159] Memory required for data: 1160080
I0505 04:28:42.095655  3299 layer_factory.hpp:77] Creating layer conv2
I0505 04:28:42.095664  3299 net.cpp:94] Creating Layer conv2
I0505 04:28:42.095667  3299 net.cpp:435] conv2 <- pool1
I0505 04:28:42.095674  3299 net.cpp:409] conv2 -> conv2
I0505 04:28:42.104262  3299 net.cpp:144] Setting up conv2
I0505 04:28:42.104276  3299 net.cpp:151] Top shape: 20 128 5 5 (64000)
I0505 04:28:42.104280  3299 net.cpp:159] Memory required for data: 1416080
I0505 04:28:42.104288  3299 layer_factory.hpp:77] Creating layer relu2
I0505 04:28:42.104295  3299 net.cpp:94] Creating Layer relu2
I0505 04:28:42.104298  3299 net.cpp:435] relu2 <- conv2
I0505 04:28:42.104303  3299 net.cpp:396] relu2 -> conv2 (in-place)
I0505 04:28:42.104310  3299 net.cpp:144] Setting up relu2
I0505 04:28:42.104315  3299 net.cpp:151] Top shape: 20 128 5 5 (64000)
I0505 04:28:42.104320  3299 net.cpp:159] Memory required for data: 1672080
I0505 04:28:42.104322  3299 layer_factory.hpp:77] Creating layer conv3
I0505 04:28:42.104331  3299 net.cpp:94] Creating Layer conv3
I0505 04:28:42.104333  3299 net.cpp:435] conv3 <- conv2
I0505 04:28:42.104339  3299 net.cpp:409] conv3 -> conv3
I0505 04:28:42.118816  3299 net.cpp:144] Setting up conv3
I0505 04:28:42.118831  3299 net.cpp:151] Top shape: 20 128 5 5 (64000)
I0505 04:28:42.118835  3299 net.cpp:159] Memory required for data: 1928080
I0505 04:28:42.118844  3299 layer_factory.hpp:77] Creating layer relu3
I0505 04:28:42.118850  3299 net.cpp:94] Creating Layer relu3
I0505 04:28:42.118860  3299 net.cpp:435] relu3 <- conv3
I0505 04:28:42.118865  3299 net.cpp:396] relu3 -> conv3 (in-place)
I0505 04:28:42.118873  3299 net.cpp:144] Setting up relu3
I0505 04:28:42.118878  3299 net.cpp:151] Top shape: 20 128 5 5 (64000)
I0505 04:28:42.118881  3299 net.cpp:159] Memory required for data: 2184080
I0505 04:28:42.118885  3299 layer_factory.hpp:77] Creating layer pool3
I0505 04:28:42.118891  3299 net.cpp:94] Creating Layer pool3
I0505 04:28:42.118894  3299 net.cpp:435] pool3 <- conv3
I0505 04:28:42.118906  3299 net.cpp:409] pool3 -> pool3
I0505 04:28:42.118938  3299 net.cpp:144] Setting up pool3
I0505 04:28:42.118947  3299 net.cpp:151] Top shape: 20 128 2 2 (10240)
I0505 04:28:42.118949  3299 net.cpp:159] Memory required for data: 2225040
I0505 04:28:42.118953  3299 layer_factory.hpp:77] Creating layer ip1
I0505 04:28:42.118960  3299 net.cpp:94] Creating Layer ip1
I0505 04:28:42.118963  3299 net.cpp:435] ip1 <- pool3
I0505 04:28:42.118968  3299 net.cpp:409] ip1 -> ip1
I0505 04:28:42.125782  3299 net.cpp:144] Setting up ip1
I0505 04:28:42.125794  3299 net.cpp:151] Top shape: 20 512 (10240)
I0505 04:28:42.125798  3299 net.cpp:159] Memory required for data: 2266000
I0505 04:28:42.125804  3299 layer_factory.hpp:77] Creating layer ip2
I0505 04:28:42.125811  3299 net.cpp:94] Creating Layer ip2
I0505 04:28:42.125815  3299 net.cpp:435] ip2 <- ip1
I0505 04:28:42.125820  3299 net.cpp:409] ip2 -> ip2
I0505 04:28:42.129549  3299 net.cpp:144] Setting up ip2
I0505 04:28:42.129561  3299 net.cpp:151] Top shape: 20 256 (5120)
I0505 04:28:42.129565  3299 net.cpp:159] Memory required for data: 2286480
I0505 04:28:42.129573  3299 layer_factory.hpp:77] Creating layer ip3
I0505 04:28:42.129580  3299 net.cpp:94] Creating Layer ip3
I0505 04:28:42.129583  3299 net.cpp:435] ip3 <- ip2
I0505 04:28:42.129590  3299 net.cpp:409] ip3 -> ip3
I0505 04:28:42.129653  3299 net.cpp:144] Setting up ip3
I0505 04:28:42.129660  3299 net.cpp:151] Top shape: 20 1 (20)
I0505 04:28:42.129664  3299 net.cpp:159] Memory required for data: 2286560
I0505 04:28:42.129669  3299 layer_factory.hpp:77] Creating layer loss
I0505 04:28:42.129678  3299 net.cpp:94] Creating Layer loss
I0505 04:28:42.129683  3299 net.cpp:435] loss <- ip3
I0505 04:28:42.129686  3299 net.cpp:435] loss <- label
I0505 04:28:42.129693  3299 net.cpp:409] loss -> loss
I0505 04:28:42.129725  3299 net.cpp:144] Setting up loss
…
