…
I0507 10:58:54.663384   459 net.cpp:323] The NetState phase (0) differed from the phase (1) specified by a rule in layer intercept
I0507 10:58:54.663399   459 net.cpp:323] The NetState phase (0) differed from the phase (1) specified by a rule in layer loss
I0507 10:58:54.663482   459 net.cpp:52] Initializing net from parameters: 
state {
  phase: TRAIN
}
layer {
  name: "parameters"
  type: "HDF5Data"
  top: "data"
  top: "label"
  include {
    phase: TRAIN
  }
  hdf5_data_param {
    source: "/home/purduethu/scratch/radon/d/deng106/CNNStatisticalModel/distributions/input/50_distributions_400_sample_size_train-parameters-path.txt"
    batch_size: 20
  }
}
layer {
  name: "conv1"
  type: "Convolution"
  bottom: "data"
  top: "conv1"
  param {
    lr_mult: 1
  }
  param {
    lr_mult: 2
  }
  convolution_param {
    num_output: 64
    pad: 2
    kernel_size: 5
    stride: 1
    weight_filler {
      type: "gaussian"
      std: 0.0001
    }
    bias_filler {
      type: "constant"
    }
  }
}
layer {
  name: "relu1"
  type: "ReLU"
  bottom: "conv1"
  top: "conv1"
}
layer {
  name: "conv2"
  type: "Convolution"
  bottom: "conv1"
  top: "conv2"
  param {
    lr_mult: 1
  }
  param {
    lr_mult: 2
  }
  convolution_param {
    num_output: 64
    pad: 2
    kernel_size: 5
    stride: 1
    weight_filler {
      type: "gaussian"
      std: 0.01
    }
    bias_filler {
      type: "constant"
    }
  }
}
layer {
  name: "relu2"
  type: "ReLU"
  bottom: "conv2"
  top: "conv2"
}
layer {
  name: "pool2"
  type: "Pooling"
  bottom: "conv2"
  top: "pool2"
  pooling_param {
    pool: MAX
    kernel_size: 3
    stride: 2
  }
}
layer {
  name: "conv3"
  type: "Convolution"
  bottom: "pool2"
  top: "conv3"
  param {
    lr_mult: 1
  }
  param {
    lr_mult: 2
  }
  convolution_param {
    num_output: 64
    pad: 2
    kernel_size: 5
    stride: 1
    weight_filler {
      type: "gaussian"
      std: 0.01
    }
    bias_filler {
      type: "constant"
    }
  }
}
layer {
  name: "relu3"
  type: "ReLU"
  bottom: "conv3"
  top: "conv3"
}
layer {
  name: "conv4"
  type: "Convolution"
  bottom: "conv3"
  top: "conv4"
  param {
    lr_mult: 1
  }
  param {
    lr_mult: 2
  }
  convolution_param {
    num_output: 64
    pad: 2
    kernel_size: 5
    stride: 1
    weight_filler {
      type: "gaussian"
      std: 0.01
    }
    bias_filler {
      type: "constant"
    }
  }
}
layer {
  name: "relu4"
  type: "ReLU"
  bottom: "conv4"
  top: "conv4"
}
layer {
  name: "conv5"
  type: "Convolution"
  bottom: "conv4"
  top: "conv5"
  param {
    lr_mult: 1
  }
  param {
    lr_mult: 2
  }
  convolution_param {
    num_output: 64
    pad: 2
    kernel_size: 5
    stride: 1
    weight_filler {
      type: "gaussian"
      std: 0.01
    }
    bias_filler {
      type: "constant"
    }
  }
}
layer {
  name: "relu5"
  type: "ReLU"
  bottom: "conv5"
  top: "conv5"
}
layer {
  name: "pool5"
  type: "Pooling"
  bottom: "conv5"
  top: "pool5"
  pooling_param {
    pool: AVE
    kernel_size: 3
    stride: 2
  }
}
layer {
  name: "ip1"
  type: "InnerProduct"
  bottom: "pool5"
  top: "ip1"
  param {
    lr_mult: 1
  }
  param {
    lr_mult: 2
  }
  inner_product_param {
    num_output: 64
    weight_filler {
      type: "gaussian"
      std: 0.1
    }
    bias_filler {
      type: "constant"
    }
  }
}
layer {
  name: "ip2"
  type: "InnerProduct"
  bottom: "ip1"
  top: "ip2"
  param {
    lr_mult: 1
  }
  param {
    lr_mult: 2
  }
  inner_product_param {
    num_output: 64
    weight_filler {
      type: "gaussian"
      std: 0.1
    }
    bias_filler {
      type: "constant"
    }
  }
}
layer {
  name: "ip3"
  type: "InnerProduct"
  bottom: "ip2"
  top: "ip3"
  param {
    lr_mult: 1
  }
  param {
    lr_mult: 2
  }
  inner_product_param {
    num_output: 1
    weight_filler {
      type: "gaussian"
      std: 0.1
    }
    bias_filler {
      type: "constant"
    }
  }
}
layer {
  name: "loss"
  type: "HuberLoss"
  bottom: "ip3"
  bottom: "label"
  top: "loss"
  include {
    phase: TRAIN
  }
}
I0507 10:58:54.663534   459 layer_factory.hpp:77] Creating layer parameters
I0507 10:58:54.663547   459 net.cpp:94] Creating Layer parameters
I0507 10:58:54.663552   459 net.cpp:409] parameters -> data
I0507 10:58:54.663561   459 net.cpp:409] parameters -> label
I0507 10:58:54.663568   459 hdf5_data_layer.cpp:79] Loading list of HDF5 filenames from: /home/purduethu/scratch/radon/d/deng106/CNNStatisticalModel/distributions/input/50_distributions_400_sample_size_train-parameters-path.txt
I0507 10:58:54.663583   459 hdf5_data_layer.cpp:93] Number of HDF5 files: 1
I0507 10:58:54.663990   459 hdf5.cpp:32] Datatype class: H5T_FLOAT
I0507 10:58:55.301568   459 net.cpp:144] Setting up parameters
I0507 10:58:55.301600   459 net.cpp:151] Top shape: 20 1 20 20 (8000)
I0507 10:58:55.301604   459 net.cpp:151] Top shape: 20 (20)
I0507 10:58:55.301609   459 net.cpp:159] Memory required for data: 32080
I0507 10:58:55.301614   459 layer_factory.hpp:77] Creating layer conv1
I0507 10:58:55.301635   459 net.cpp:94] Creating Layer conv1
I0507 10:58:55.301640   459 net.cpp:435] conv1 <- data
I0507 10:58:55.301645   459 net.cpp:409] conv1 -> conv1
I0507 10:58:55.307104   459 net.cpp:144] Setting up conv1
I0507 10:58:55.307122   459 net.cpp:151] Top shape: 20 64 20 20 (512000)
I0507 10:58:55.307126   459 net.cpp:159] Memory required for data: 2080080
I0507 10:58:55.307137   459 layer_factory.hpp:77] Creating layer relu1
I0507 10:58:55.307147   459 net.cpp:94] Creating Layer relu1
I0507 10:58:55.307149   459 net.cpp:435] relu1 <- conv1
I0507 10:58:55.307154   459 net.cpp:396] relu1 -> conv1 (in-place)
I0507 10:58:55.307165   459 net.cpp:144] Setting up relu1
I0507 10:58:55.307170   459 net.cpp:151] Top shape: 20 64 20 20 (512000)
I0507 10:58:55.307173   459 net.cpp:159] Memory required for data: 4128080
I0507 10:58:55.307175   459 layer_factory.hpp:77] Creating layer conv2
I0507 10:58:55.307184   459 net.cpp:94] Creating Layer conv2
I0507 10:58:55.307188   459 net.cpp:435] conv2 <- conv1
I0507 10:58:55.307193   459 net.cpp:409] conv2 -> conv2
I0507 10:58:55.318351   459 net.cpp:144] Setting up conv2
I0507 10:58:55.318367   459 net.cpp:151] Top shape: 20 64 20 20 (512000)
I0507 10:58:55.318370   459 net.cpp:159] Memory required for data: 6176080
I0507 10:58:55.318378   459 layer_factory.hpp:77] Creating layer relu2
I0507 10:58:55.318385   459 net.cpp:94] Creating Layer relu2
I0507 10:58:55.318388   459 net.cpp:435] relu2 <- conv2
I0507 10:58:55.318393   459 net.cpp:396] relu2 -> conv2 (in-place)
I0507 10:58:55.318400   459 net.cpp:144] Setting up relu2
I0507 10:58:55.318404   459 net.cpp:151] Top shape: 20 64 20 20 (512000)
I0507 10:58:55.318408   459 net.cpp:159] Memory required for data: 8224080
I0507 10:58:55.318410   459 layer_factory.hpp:77] Creating layer pool2
I0507 10:58:55.318423   459 net.cpp:94] Creating Layer pool2
I0507 10:58:55.318426   459 net.cpp:435] pool2 <- conv2
I0507 10:58:55.318430   459 net.cpp:409] pool2 -> pool2
I0507 10:58:55.318488   459 net.cpp:144] Setting up pool2
I0507 10:58:55.318495   459 net.cpp:151] Top shape: 20 64 10 10 (128000)
I0507 10:58:55.318500   459 net.cpp:159] Memory required for data: 8736080
I0507 10:58:55.318502   459 layer_factory.hpp:77] Creating layer conv3
I0507 10:58:55.318509   459 net.cpp:94] Creating Layer conv3
I0507 10:58:55.318513   459 net.cpp:435] conv3 <- pool2
I0507 10:58:55.318517   459 net.cpp:409] conv3 -> conv3
I0507 10:58:55.323926   459 net.cpp:144] Setting up conv3
I0507 10:58:55.323940   459 net.cpp:151] Top shape: 20 64 10 10 (128000)
I0507 10:58:55.323945   459 net.cpp:159] Memory required for data: 9248080
I0507 10:58:55.323951   459 layer_factory.hpp:77] Creating layer relu3
I0507 10:58:55.323957   459 net.cpp:94] Creating Layer relu3
I0507 10:58:55.323961   459 net.cpp:435] relu3 <- conv3
I0507 10:58:55.323966   459 net.cpp:396] relu3 -> conv3 (in-place)
I0507 10:58:55.323972   459 net.cpp:144] Setting up relu3
I0507 10:58:55.323976   459 net.cpp:151] Top shape: 20 64 10 10 (128000)
I0507 10:58:55.323979   459 net.cpp:159] Memory required for data: 9760080
I0507 10:58:55.323982   459 layer_factory.hpp:77] Creating layer conv4
I0507 10:58:55.323990   459 net.cpp:94] Creating Layer conv4
I0507 10:58:55.323994   459 net.cpp:435] conv4 <- conv3
I0507 10:58:55.323999   459 net.cpp:409] conv4 -> conv4
I0507 10:58:55.329401   459 net.cpp:144] Setting up conv4
I0507 10:58:55.329414   459 net.cpp:151] Top shape: 20 64 10 10 (128000)
I0507 10:58:55.329417   459 net.cpp:159] Memory required for data: 10272080
I0507 10:58:55.329423   459 layer_factory.hpp:77] Creating layer relu4
I0507 10:58:55.329429   459 net.cpp:94] Creating Layer relu4
I0507 10:58:55.329432   459 net.cpp:435] relu4 <- conv4
I0507 10:58:55.329437   459 net.cpp:396] relu4 -> conv4 (in-place)
I0507 10:58:55.329443   459 net.cpp:144] Setting up relu4
I0507 10:58:55.329447   459 net.cpp:151] Top shape: 20 64 10 10 (128000)
I0507 10:58:55.329450   459 net.cpp:159] Memory required for data: 10784080
I0507 10:58:55.329453   459 layer_factory.hpp:77] Creating layer conv5
I0507 10:58:55.329460   459 net.cpp:94] Creating Layer conv5
I0507 10:58:55.329464   459 net.cpp:435] conv5 <- conv4
I0507 10:58:55.329468   459 net.cpp:409] conv5 -> conv5
I0507 10:58:55.334931   459 net.cpp:144] Setting up conv5
I0507 10:58:55.334945   459 net.cpp:151] Top shape: 20 64 10 10 (128000)
I0507 10:58:55.334949   459 net.cpp:159] Memory required for data: 11296080
I0507 10:58:55.334957   459 layer_factory.hpp:77] Creating layer relu5
I0507 10:58:55.334964   459 net.cpp:94] Creating Layer relu5
I0507 10:58:55.334966   459 net.cpp:435] relu5 <- conv5
I0507 10:58:55.334970   459 net.cpp:396] relu5 -> conv5 (in-place)
I0507 10:58:55.334977   459 net.cpp:144] Setting up relu5
I0507 10:58:55.334981   459 net.cpp:151] Top shape: 20 64 10 10 (128000)
I0507 10:58:55.334985   459 net.cpp:159] Memory required for data: 11808080
I0507 10:58:55.334987   459 layer_factory.hpp:77] Creating layer pool5
I0507 10:58:55.334992   459 net.cpp:94] Creating Layer pool5
I0507 10:58:55.334995   459 net.cpp:435] pool5 <- conv5
I0507 10:58:55.335000   459 net.cpp:409] pool5 -> pool5
I0507 10:58:55.335039   459 net.cpp:144] Setting up pool5
I0507 10:58:55.335047   459 net.cpp:151] Top shape: 20 64 5 5 (32000)
I0507 10:58:55.335050   459 net.cpp:159] Memory required for data: 11936080
I0507 10:58:55.335053   459 layer_factory.hpp:77] Creating layer ip1
I0507 10:58:55.335062   459 net.cpp:94] Creating Layer ip1
I0507 10:58:55.335067   459 net.cpp:435] ip1 <- pool5
I0507 10:58:55.335072   459 net.cpp:409] ip1 -> ip1
I0507 10:58:55.337595   459 net.cpp:144] Setting up ip1
I0507 10:58:55.337604   459 net.cpp:151] Top shape: 20 64 (1280)
I0507 10:58:55.337606   459 net.cpp:159] Memory required for data: 11941200
I0507 10:58:55.337611   459 layer_factory.hpp:77] Creating layer ip2
I0507 10:58:55.337617   459 net.cpp:94] Creating Layer ip2
I0507 10:58:55.337625   459 net.cpp:435] ip2 <- ip1
I0507 10:58:55.337630   459 net.cpp:409] ip2 -> ip2
I0507 10:58:55.337844   459 net.cpp:144] Setting up ip2
I0507 10:58:55.337852   459 net.cpp:151] Top shape: 20 64 (1280)
I0507 10:58:55.337854   459 net.cpp:159] Memory required for data: 11946320
I0507 10:58:55.337859   459 layer_factory.hpp:77] Creating layer ip3
I0507 10:58:55.337865   459 net.cpp:94] Creating Layer ip3
I0507 10:58:55.337868   459 net.cpp:435] ip3 <- ip2
I0507 10:58:55.337872   459 net.cpp:409] ip3 -> ip3
I0507 10:58:55.337980   459 net.cpp:144] Setting up ip3
I0507 10:58:55.337985   459 net.cpp:151] Top shape: 20 1 (20)
I0507 10:58:55.337988   459 net.cpp:159] Memory required for data: 11946400
I0507 10:58:55.337993   459 layer_factory.hpp:77] Creating layer loss
I0507 10:58:55.338001   459 net.cpp:94] Creating Layer loss
I0507 10:58:55.338003   459 net.cpp:435] loss <- ip3
I0507 10:58:55.338006   459 net.cpp:435] loss <- label
I0507 10:58:55.338011   459 net.cpp:409] loss -> loss
I0507 10:58:55.338065   459 net.cpp:144] Setting up loss
…
I0507 10:58:55.521355   459 net.cpp:323] The NetState phase (0) differed from the phase (1) specified by a rule in layer intercept
I0507 10:58:55.521370   459 net.cpp:323] The NetState phase (0) differed from the phase (1) specified by a rule in layer accuracy
I0507 10:58:55.521457   459 net.cpp:52] Initializing net from parameters: 
state {
  phase: TRAIN
}
layer {
  name: "parameters"
  type: "HDF5Data"
  top: "data"
  top: "label"
  include {
    phase: TRAIN
  }
  hdf5_data_param {
    source: "/home/purduethu/scratch/radon/d/deng106/CNNStatisticalModel/distributions/input/50_distributions_400_sample_size_train-distributions-path.txt"
    batch_size: 20
  }
}
layer {
  name: "conv1"
  type: "Convolution"
  bottom: "data"
  top: "conv1"
  param {
    lr_mult: 1
  }
  param {
    lr_mult: 2
  }
  convolution_param {
    num_output: 64
    pad: 2
    kernel_size: 5
    stride: 1
    weight_filler {
      type: "gaussian"
      std: 0.0001
    }
    bias_filler {
      type: "constant"
    }
  }
}
layer {
  name: "relu1"
  type: "ReLU"
  bottom: "conv1"
  top: "conv1"
}
layer {
  name: "conv2"
  type: "Convolution"
  bottom: "conv1"
  top: "conv2"
  param {
    lr_mult: 1
  }
  param {
    lr_mult: 2
  }
  convolution_param {
    num_output: 64
    pad: 2
    kernel_size: 5
    stride: 1
    weight_filler {
      type: "gaussian"
      std: 0.01
    }
    bias_filler {
      type: "constant"
    }
  }
}
layer {
  name: "relu2"
  type: "ReLU"
  bottom: "conv2"
  top: "conv2"
}
layer {
  name: "pool2"
  type: "Pooling"
  bottom: "conv2"
  top: "pool2"
  pooling_param {
    pool: MAX
    kernel_size: 3
    stride: 2
  }
}
layer {
  name: "conv3"
  type: "Convolution"
  bottom: "pool2"
  top: "conv3"
  param {
    lr_mult: 1
  }
  param {
    lr_mult: 2
  }
  convolution_param {
    num_output: 64
    pad: 2
    kernel_size: 5
    stride: 1
    weight_filler {
      type: "gaussian"
      std: 0.01
    }
    bias_filler {
      type: "constant"
    }
  }
}
layer {
  name: "relu3"
  type: "ReLU"
  bottom: "conv3"
  top: "conv3"
}
layer {
  name: "conv4"
  type: "Convolution"
  bottom: "conv3"
  top: "conv4"
  param {
    lr_mult: 1
  }
  param {
    lr_mult: 2
  }
  convolution_param {
    num_output: 64
    pad: 2
    kernel_size: 5
    stride: 1
    weight_filler {
      type: "gaussian"
      std: 0.01
    }
    bias_filler {
      type: "constant"
    }
  }
}
layer {
  name: "relu4"
  type: "ReLU"
  bottom: "conv4"
  top: "conv4"
}
layer {
  name: "conv5"
  type: "Convolution"
  bottom: "conv4"
  top: "conv5"
  param {
    lr_mult: 1
  }
  param {
    lr_mult: 2
  }
  convolution_param {
    num_output: 64
    pad: 2
    kernel_size: 5
    stride: 1
    weight_filler {
      type: "gaussian"
      std: 0.01
    }
    bias_filler {
      type: "constant"
    }
  }
}
layer {
  name: "relu5"
  type: "ReLU"
  bottom: "conv5"
  top: "conv5"
}
layer {
  name: "pool5"
  type: "Pooling"
  bottom: "conv5"
  top: "pool5"
  pooling_param {
    pool: AVE
    kernel_size: 3
    stride: 2
  }
}
layer {
  name: "ip1"
  type: "InnerProduct"
  bottom: "pool5"
  top: "ip1"
  param {
    lr_mult: 1
  }
  param {
    lr_mult: 2
  }
  inner_product_param {
    num_output: 64
    weight_filler {
      type: "gaussian"
      std: 0.1
    }
    bias_filler {
      type: "constant"
    }
  }
}
layer {
  name: "ip2"
  type: "InnerProduct"
  bottom: "ip1"
  top: "ip2"
  param {
    lr_mult: 1
  }
  param {
    lr_mult: 2
  }
  inner_product_param {
    num_output: 64
    weight_filler {
      type: "gaussian"
      std: 0.1
    }
    bias_filler {
      type: "constant"
    }
  }
}
layer {
  name: "ip3"
  type: "InnerProduct"
  bottom: "ip2"
  top: "ip3"
  param {
    lr_mult: 1
  }
  param {
    lr_mult: 2
  }
  inner_product_param {
    num_output: 50
    weight_filler {
      type: "gaussian"
      std: 0.1
    }
    bias_filler {
      type: "constant"
    }
  }
}
layer {
  name: "loss"
  type: "SoftmaxWithLoss"
  bottom: "ip3"
  bottom: "label"
  top: "loss"
}
I0507 10:58:55.521504   459 layer_factory.hpp:77] Creating layer parameters
I0507 10:58:55.521512   459 net.cpp:94] Creating Layer parameters
I0507 10:58:55.521517   459 net.cpp:409] parameters -> data
I0507 10:58:55.521523   459 net.cpp:409] parameters -> label
I0507 10:58:55.521529   459 hdf5_data_layer.cpp:79] Loading list of HDF5 filenames from: /home/purduethu/scratch/radon/d/deng106/CNNStatisticalModel/distributions/input/50_distributions_400_sample_size_train-distributions-path.txt
I0507 10:58:55.521543   459 hdf5_data_layer.cpp:93] Number of HDF5 files: 1
I0507 10:58:56.161793   459 hdf5.cpp:35] Datatype class: H5T_INTEGER
I0507 10:58:56.164705   459 net.cpp:144] Setting up parameters
I0507 10:58:56.164721   459 net.cpp:151] Top shape: 20 1 20 20 (8000)
I0507 10:58:56.164726   459 net.cpp:151] Top shape: 20 (20)
I0507 10:58:56.164729   459 net.cpp:159] Memory required for data: 32080
I0507 10:58:56.164736   459 layer_factory.hpp:77] Creating layer conv1
I0507 10:58:56.164750   459 net.cpp:94] Creating Layer conv1
I0507 10:58:56.164755   459 net.cpp:435] conv1 <- data
I0507 10:58:56.164762   459 net.cpp:409] conv1 -> conv1
I0507 10:58:56.167486   459 net.cpp:144] Setting up conv1
I0507 10:58:56.167500   459 net.cpp:151] Top shape: 20 64 20 20 (512000)
I0507 10:58:56.167503   459 net.cpp:159] Memory required for data: 2080080
I0507 10:58:56.167515   459 layer_factory.hpp:77] Creating layer relu1
I0507 10:58:56.167521   459 net.cpp:94] Creating Layer relu1
I0507 10:58:56.167526   459 net.cpp:435] relu1 <- conv1
I0507 10:58:56.167531   459 net.cpp:396] relu1 -> conv1 (in-place)
I0507 10:58:56.167538   459 net.cpp:144] Setting up relu1
I0507 10:58:56.167542   459 net.cpp:151] Top shape: 20 64 20 20 (512000)
I0507 10:58:56.167546   459 net.cpp:159] Memory required for data: 4128080
I0507 10:58:56.167548   459 layer_factory.hpp:77] Creating layer conv2
I0507 10:58:56.167557   459 net.cpp:94] Creating Layer conv2
I0507 10:58:56.167559   459 net.cpp:435] conv2 <- conv1
I0507 10:58:56.167564   459 net.cpp:409] conv2 -> conv2
I0507 10:58:56.178740   459 net.cpp:144] Setting up conv2
I0507 10:58:56.178779   459 net.cpp:151] Top shape: 20 64 20 20 (512000)
I0507 10:58:56.178789   459 net.cpp:159] Memory required for data: 6176080
I0507 10:58:56.178812   459 layer_factory.hpp:77] Creating layer relu2
I0507 10:58:56.178829   459 net.cpp:94] Creating Layer relu2
I0507 10:58:56.178839   459 net.cpp:435] relu2 <- conv2
I0507 10:58:56.178853   459 net.cpp:396] relu2 -> conv2 (in-place)
I0507 10:58:56.178872   459 net.cpp:144] Setting up relu2
I0507 10:58:56.178884   459 net.cpp:151] Top shape: 20 64 20 20 (512000)
I0507 10:58:56.178892   459 net.cpp:159] Memory required for data: 8224080
I0507 10:58:56.178900   459 layer_factory.hpp:77] Creating layer pool2
I0507 10:58:56.178917   459 net.cpp:94] Creating Layer pool2
I0507 10:58:56.178926   459 net.cpp:435] pool2 <- conv2
I0507 10:58:56.178937   459 net.cpp:409] pool2 -> pool2
I0507 10:58:56.179093   459 net.cpp:144] Setting up pool2
I0507 10:58:56.179111   459 net.cpp:151] Top shape: 20 64 10 10 (128000)
I0507 10:58:56.179119   459 net.cpp:159] Memory required for data: 8736080
I0507 10:58:56.179127   459 layer_factory.hpp:77] Creating layer conv3
I0507 10:58:56.179149   459 net.cpp:94] Creating Layer conv3
I0507 10:58:56.179158   459 net.cpp:435] conv3 <- pool2
I0507 10:58:56.179185   459 net.cpp:409] conv3 -> conv3
I0507 10:58:56.191227   459 net.cpp:144] Setting up conv3
I0507 10:58:56.191263   459 net.cpp:151] Top shape: 20 64 10 10 (128000)
I0507 10:58:56.191272   459 net.cpp:159] Memory required for data: 9248080
I0507 10:58:56.191305   459 layer_factory.hpp:77] Creating layer relu3
I0507 10:58:56.191320   459 net.cpp:94] Creating Layer relu3
I0507 10:58:56.191329   459 net.cpp:435] relu3 <- conv3
I0507 10:58:56.191344   459 net.cpp:396] relu3 -> conv3 (in-place)
I0507 10:58:56.191361   459 net.cpp:144] Setting up relu3
I0507 10:58:56.191373   459 net.cpp:151] Top shape: 20 64 10 10 (128000)
I0507 10:58:56.191381   459 net.cpp:159] Memory required for data: 9760080
I0507 10:58:56.191388   459 layer_factory.hpp:77] Creating layer conv4
I0507 10:58:56.191411   459 net.cpp:94] Creating Layer conv4
I0507 10:58:56.191419   459 net.cpp:435] conv4 <- conv3
I0507 10:58:56.191434   459 net.cpp:409] conv4 -> conv4
I0507 10:58:56.202738   459 net.cpp:144] Setting up conv4
I0507 10:58:56.202767   459 net.cpp:151] Top shape: 20 64 10 10 (128000)
I0507 10:58:56.202775   459 net.cpp:159] Memory required for data: 10272080
I0507 10:58:56.202790   459 layer_factory.hpp:77] Creating layer relu4
I0507 10:58:56.202801   459 net.cpp:94] Creating Layer relu4
I0507 10:58:56.202810   459 net.cpp:435] relu4 <- conv4
I0507 10:58:56.202821   459 net.cpp:396] relu4 -> conv4 (in-place)
I0507 10:58:56.202836   459 net.cpp:144] Setting up relu4
I0507 10:58:56.202847   459 net.cpp:151] Top shape: 20 64 10 10 (128000)
I0507 10:58:56.202853   459 net.cpp:159] Memory required for data: 10784080
I0507 10:58:56.202860   459 layer_factory.hpp:77] Creating layer conv5
I0507 10:58:56.202882   459 net.cpp:94] Creating Layer conv5
I0507 10:58:56.202889   459 net.cpp:435] conv5 <- conv4
I0507 10:58:56.202901   459 net.cpp:409] conv5 -> conv5
I0507 10:58:56.213557   459 net.cpp:144] Setting up conv5
I0507 10:58:56.213584   459 net.cpp:151] Top shape: 20 64 10 10 (128000)
I0507 10:58:56.213593   459 net.cpp:159] Memory required for data: 11296080
I0507 10:58:56.213609   459 layer_factory.hpp:77] Creating layer relu5
I0507 10:58:56.213623   459 net.cpp:94] Creating Layer relu5
I0507 10:58:56.213629   459 net.cpp:435] relu5 <- conv5
I0507 10:58:56.213639   459 net.cpp:396] relu5 -> conv5 (in-place)
I0507 10:58:56.213654   459 net.cpp:144] Setting up relu5
I0507 10:58:56.213662   459 net.cpp:151] Top shape: 20 64 10 10 (128000)
I0507 10:58:56.213670   459 net.cpp:159] Memory required for data: 11808080
I0507 10:58:56.213675   459 layer_factory.hpp:77] Creating layer pool5
I0507 10:58:56.213688   459 net.cpp:94] Creating Layer pool5
I0507 10:58:56.213696   459 net.cpp:435] pool5 <- conv5
I0507 10:58:56.213706   459 net.cpp:409] pool5 -> pool5
I0507 10:58:56.213788   459 net.cpp:144] Setting up pool5
I0507 10:58:56.213801   459 net.cpp:151] Top shape: 20 64 5 5 (32000)
I0507 10:58:56.213809   459 net.cpp:159] Memory required for data: 11936080
I0507 10:58:56.213814   459 layer_factory.hpp:77] Creating layer ip1
I0507 10:58:56.213829   459 net.cpp:94] Creating Layer ip1
I0507 10:58:56.213837   459 net.cpp:435] ip1 <- pool5
I0507 10:58:56.213847   459 net.cpp:409] ip1 -> ip1
I0507 10:58:56.221516   459 net.cpp:144] Setting up ip1
I0507 10:58:56.221544   459 net.cpp:151] Top shape: 20 64 (1280)
I0507 10:58:56.221551   459 net.cpp:159] Memory required for data: 11941200
I0507 10:58:56.221563   459 layer_factory.hpp:77] Creating layer ip2
I0507 10:58:56.221580   459 net.cpp:94] Creating Layer ip2
I0507 10:58:56.221587   459 net.cpp:435] ip2 <- ip1
I0507 10:58:56.221598   459 net.cpp:409] ip2 -> ip2
I0507 10:58:56.222132   459 net.cpp:144] Setting up ip2
I0507 10:58:56.222146   459 net.cpp:151] Top shape: 20 64 (1280)
I0507 10:58:56.222152   459 net.cpp:159] Memory required for data: 11946320
I0507 10:58:56.222163   459 layer_factory.hpp:77] Creating layer ip3
I0507 10:58:56.222175   459 net.cpp:94] Creating Layer ip3
I0507 10:58:56.222182   459 net.cpp:435] ip3 <- ip2
I0507 10:58:56.222194   459 net.cpp:409] ip3 -> ip3
I0507 10:58:56.222661   459 net.cpp:144] Setting up ip3
I0507 10:58:56.222676   459 net.cpp:151] Top shape: 20 50 (1000)
I0507 10:58:56.222682   459 net.cpp:159] Memory required for data: 11950320
I0507 10:58:56.222693   459 layer_factory.hpp:77] Creating layer loss
I0507 10:58:56.222707   459 net.cpp:94] Creating Layer loss
I0507 10:58:56.222714   459 net.cpp:435] loss <- ip3
I0507 10:58:56.222723   459 net.cpp:435] loss <- label
I0507 10:58:56.222734   459 net.cpp:409] loss -> loss
I0507 10:58:56.222748   459 layer_factory.hpp:77] Creating layer loss
…
I0507 10:58:56.223907   459 solver.cpp:181] Creating test net (#0) specified by net file: ./protocol/dis_50_400_dimension.protocol_distribution
I0507 10:58:56.223963   459 net.cpp:323] The NetState phase (1) differed from the phase (0) specified by a rule in layer parameters
I0507 10:58:56.224185   459 net.cpp:52] Initializing net from parameters: 
state {
  phase: TEST
}
layer {
  name: "intercept"
  type: "HDF5Data"
  top: "data"
  top: "label"
  include {
    phase: TEST
  }
  hdf5_data_param {
    source: "/home/purduethu/scratch/radon/d/deng106/CNNStatisticalModel/distributions/input/50_distributions_400_sample_size_test-distributions-path.txt"
    batch_size: 20
  }
}
layer {
  name: "conv1"
  type: "Convolution"
  bottom: "data"
  top: "conv1"
  param {
    lr_mult: 1
  }
  param {
    lr_mult: 2
  }
  convolution_param {
    num_output: 64
    pad: 2
    kernel_size: 5
    stride: 1
    weight_filler {
      type: "gaussian"
      std: 0.0001
    }
    bias_filler {
      type: "constant"
    }
  }
}
layer {
  name: "relu1"
  type: "ReLU"
  bottom: "conv1"
  top: "conv1"
}
layer {
  name: "conv2"
  type: "Convolution"
  bottom: "conv1"
  top: "conv2"
  param {
    lr_mult: 1
  }
  param {
    lr_mult: 2
  }
  convolution_param {
    num_output: 64
    pad: 2
    kernel_size: 5
    stride: 1
    weight_filler {
      type: "gaussian"
      std: 0.01
    }
    bias_filler {
      type: "constant"
    }
  }
}
layer {
  name: "relu2"
  type: "ReLU"
  bottom: "conv2"
  top: "conv2"
}
layer {
  name: "pool2"
  type: "Pooling"
  bottom: "conv2"
  top: "pool2"
  pooling_param {
    pool: MAX
    kernel_size: 3
    stride: 2
  }
}
layer {
  name: "conv3"
  type: "Convolution"
  bottom: "pool2"
  top: "conv3"
  param {
    lr_mult: 1
  }
  param {
    lr_mult: 2
  }
  convolution_param {
    num_output: 64
    pad: 2
    kernel_size: 5
    stride: 1
    weight_filler {
      type: "gaussian"
      std: 0.01
    }
    bias_filler {
      type: "constant"
    }
  }
}
layer {
  name: "relu3"
  type: "ReLU"
  bottom: "conv3"
  top: "conv3"
}
layer {
  name: "conv4"
  type: "Convolution"
  bottom: "conv3"
  top: "conv4"
  param {
    lr_mult: 1
  }
  param {
    lr_mult: 2
  }
  convolution_param {
    num_output: 64
    pad: 2
    kernel_size: 5
    stride: 1
    weight_filler {
      type: "gaussian"
      std: 0.01
    }
    bias_filler {
      type: "constant"
    }
  }
}
layer {
  name: "relu4"
  type: "ReLU"
  bottom: "conv4"
  top: "conv4"
}
layer {
  name: "conv5"
  type: "Convolution"
  bottom: "conv4"
  top: "conv5"
  param {
    lr_mult: 1
  }
  param {
    lr_mult: 2
  }
  convolution_param {
    num_output: 64
    pad: 2
    kernel_size: 5
    stride: 1
    weight_filler {
      type: "gaussian"
      std: 0.01
    }
    bias_filler {
      type: "constant"
    }
  }
}
layer {
  name: "relu5"
  type: "ReLU"
  bottom: "conv5"
  top: "conv5"
}
layer {
  name: "pool5"
  type: "Pooling"
  bottom: "conv5"
  top: "pool5"
  pooling_param {
    pool: AVE
    kernel_size: 3
    stride: 2
  }
}
layer {
  name: "ip1"
  type: "InnerProduct"
  bottom: "pool5"
  top: "ip1"
  param {
    lr_mult: 1
  }
  param {
    lr_mult: 2
  }
  inner_product_param {
    num_output: 64
    weight_filler {
      type: "gaussian"
      std: 0.1
    }
    bias_filler {
      type: "constant"
    }
  }
}
layer {
  name: "ip2"
  type: "InnerProduct"
  bottom: "ip1"
  top: "ip2"
  param {
    lr_mult: 1
  }
  param {
    lr_mult: 2
  }
  inner_product_param {
    num_output: 64
    weight_filler {
      type: "gaussian"
      std: 0.1
    }
    bias_filler {
      type: "constant"
    }
  }
}
layer {
  name: "ip3"
  type: "InnerProduct"
  bottom: "ip2"
  top: "ip3"
  param {
    lr_mult: 1
  }
  param {
    lr_mult: 2
  }
  inner_product_param {
    num_output: 50
    weight_filler {
      type: "gaussian"
      std: 0.1
    }
    bias_filler {
      type: "constant"
    }
  }
}
layer {
  name: "accuracy"
  type: "Accuracy"
  bottom: "ip3"
  bottom: "label"
  top: "accuracy"
  include {
    phase: TEST
  }
}
layer {
  name: "loss"
  type: "SoftmaxWithLoss"
  bottom: "ip3"
  bottom: "label"
  top: "loss"
}
I0507 10:58:56.224336   459 layer_factory.hpp:77] Creating layer intercept
I0507 10:58:56.224354   459 net.cpp:94] Creating Layer intercept
I0507 10:58:56.224362   459 net.cpp:409] intercept -> data
I0507 10:58:56.224377   459 net.cpp:409] intercept -> label
I0507 10:58:56.224390   459 hdf5_data_layer.cpp:79] Loading list of HDF5 filenames from: /home/purduethu/scratch/radon/d/deng106/CNNStatisticalModel/distributions/input/50_distributions_400_sample_size_test-distributions-path.txt
I0507 10:58:56.224423   459 hdf5_data_layer.cpp:93] Number of HDF5 files: 1
I0507 10:58:56.436705   459 net.cpp:144] Setting up intercept
I0507 10:58:56.436738   459 net.cpp:151] Top shape: 20 1 20 20 (8000)
I0507 10:58:56.436743   459 net.cpp:151] Top shape: 20 (20)
I0507 10:58:56.436748   459 net.cpp:159] Memory required for data: 32080
I0507 10:58:56.436753   459 layer_factory.hpp:77] Creating layer label_intercept_1_split
I0507 10:58:56.436770   459 net.cpp:94] Creating Layer label_intercept_1_split
I0507 10:58:56.436775   459 net.cpp:435] label_intercept_1_split <- label
I0507 10:58:56.436781   459 net.cpp:409] label_intercept_1_split -> label_intercept_1_split_0
I0507 10:58:56.436790   459 net.cpp:409] label_intercept_1_split -> label_intercept_1_split_1
I0507 10:58:56.436838   459 net.cpp:144] Setting up label_intercept_1_split
I0507 10:58:56.436844   459 net.cpp:151] Top shape: 20 (20)
I0507 10:58:56.436848   459 net.cpp:151] Top shape: 20 (20)
I0507 10:58:56.436851   459 net.cpp:159] Memory required for data: 32240
I0507 10:58:56.436856   459 layer_factory.hpp:77] Creating layer conv1
I0507 10:58:56.436866   459 net.cpp:94] Creating Layer conv1
I0507 10:58:56.436870   459 net.cpp:435] conv1 <- data
I0507 10:58:56.436875   459 net.cpp:409] conv1 -> conv1
I0507 10:58:56.438328   459 net.cpp:144] Setting up conv1
I0507 10:58:56.438349   459 net.cpp:151] Top shape: 20 64 20 20 (512000)
I0507 10:58:56.438354   459 net.cpp:159] Memory required for data: 2080240
I0507 10:58:56.438364   459 layer_factory.hpp:77] Creating layer relu1
I0507 10:58:56.438370   459 net.cpp:94] Creating Layer relu1
I0507 10:58:56.438374   459 net.cpp:435] relu1 <- conv1
I0507 10:58:56.438379   459 net.cpp:396] relu1 -> conv1 (in-place)
I0507 10:58:56.438386   459 net.cpp:144] Setting up relu1
I0507 10:58:56.438391   459 net.cpp:151] Top shape: 20 64 20 20 (512000)
I0507 10:58:56.438395   459 net.cpp:159] Memory required for data: 4128240
I0507 10:58:56.438397   459 layer_factory.hpp:77] Creating layer conv2
I0507 10:58:56.438406   459 net.cpp:94] Creating Layer conv2
I0507 10:58:56.438410   459 net.cpp:435] conv2 <- conv1
I0507 10:58:56.438415   459 net.cpp:409] conv2 -> conv2
I0507 10:58:56.443857   459 net.cpp:144] Setting up conv2
I0507 10:58:56.443892   459 net.cpp:151] Top shape: 20 64 20 20 (512000)
I0507 10:58:56.443903   459 net.cpp:159] Memory required for data: 6176240
I0507 10:58:56.443924   459 layer_factory.hpp:77] Creating layer relu2
I0507 10:58:56.443939   459 net.cpp:94] Creating Layer relu2
I0507 10:58:56.443948   459 net.cpp:435] relu2 <- conv2
I0507 10:58:56.443964   459 net.cpp:396] relu2 -> conv2 (in-place)
I0507 10:58:56.443982   459 net.cpp:144] Setting up relu2
I0507 10:58:56.443994   459 net.cpp:151] Top shape: 20 64 20 20 (512000)
I0507 10:58:56.444003   459 net.cpp:159] Memory required for data: 8224240
I0507 10:58:56.444011   459 layer_factory.hpp:77] Creating layer pool2
I0507 10:58:56.444025   459 net.cpp:94] Creating Layer pool2
I0507 10:58:56.444033   459 net.cpp:435] pool2 <- conv2
I0507 10:58:56.444047   459 net.cpp:409] pool2 -> pool2
I0507 10:58:56.444201   459 net.cpp:144] Setting up pool2
I0507 10:58:56.444218   459 net.cpp:151] Top shape: 20 64 10 10 (128000)
I0507 10:58:56.444226   459 net.cpp:159] Memory required for data: 8736240
I0507 10:58:56.444234   459 layer_factory.hpp:77] Creating layer conv3
I0507 10:58:56.444262   459 net.cpp:94] Creating Layer conv3
I0507 10:58:56.444267   459 net.cpp:435] conv3 <- pool2
I0507 10:58:56.444272   459 net.cpp:409] conv3 -> conv3
I0507 10:58:56.448504   459 net.cpp:144] Setting up conv3
I0507 10:58:56.448518   459 net.cpp:151] Top shape: 20 64 10 10 (128000)
I0507 10:58:56.448521   459 net.cpp:159] Memory required for data: 9248240
I0507 10:58:56.448530   459 layer_factory.hpp:77] Creating layer relu3
I0507 10:58:56.448536   459 net.cpp:94] Creating Layer relu3
I0507 10:58:56.448540   459 net.cpp:435] relu3 <- conv3
I0507 10:58:56.448544   459 net.cpp:396] relu3 -> conv3 (in-place)
I0507 10:58:56.448561   459 net.cpp:144] Setting up relu3
I0507 10:58:56.448567   459 net.cpp:151] Top shape: 20 64 10 10 (128000)
I0507 10:58:56.448570   459 net.cpp:159] Memory required for data: 9760240
I0507 10:58:56.448573   459 layer_factory.hpp:77] Creating layer conv4
I0507 10:58:56.448585   459 net.cpp:94] Creating Layer conv4
I0507 10:58:56.448587   459 net.cpp:435] conv4 <- conv3
I0507 10:58:56.448592   459 net.cpp:409] conv4 -> conv4
I0507 10:58:56.452339   459 net.cpp:144] Setting up conv4
I0507 10:58:56.452353   459 net.cpp:151] Top shape: 20 64 10 10 (128000)
I0507 10:58:56.452355   459 net.cpp:159] Memory required for data: 10272240
I0507 10:58:56.452361   459 layer_factory.hpp:77] Creating layer relu4
I0507 10:58:56.452368   459 net.cpp:94] Creating Layer relu4
I0507 10:58:56.452370   459 net.cpp:435] relu4 <- conv4
I0507 10:58:56.452375   459 net.cpp:396] relu4 -> conv4 (in-place)
I0507 10:58:56.452381   459 net.cpp:144] Setting up relu4
I0507 10:58:56.452385   459 net.cpp:151] Top shape: 20 64 10 10 (128000)
I0507 10:58:56.452389   459 net.cpp:159] Memory required for data: 10784240
I0507 10:58:56.452391   459 layer_factory.hpp:77] Creating layer conv5
I0507 10:58:56.452401   459 net.cpp:94] Creating Layer conv5
I0507 10:58:56.452404   459 net.cpp:435] conv5 <- conv4
I0507 10:58:56.452409   459 net.cpp:409] conv5 -> conv5
I0507 10:58:56.457530   459 net.cpp:144] Setting up conv5
I0507 10:58:56.457547   459 net.cpp:151] Top shape: 20 64 10 10 (128000)
I0507 10:58:56.457551   459 net.cpp:159] Memory required for data: 11296240
I0507 10:58:56.457559   459 layer_factory.hpp:77] Creating layer relu5
I0507 10:58:56.457566   459 net.cpp:94] Creating Layer relu5
I0507 10:58:56.457569   459 net.cpp:435] relu5 <- conv5
I0507 10:58:56.457573   459 net.cpp:396] relu5 -> conv5 (in-place)
I0507 10:58:56.457581   459 net.cpp:144] Setting up relu5
I0507 10:58:56.457584   459 net.cpp:151] Top shape: 20 64 10 10 (128000)
I0507 10:58:56.457587   459 net.cpp:159] Memory required for data: 11808240
I0507 10:58:56.457590   459 layer_factory.hpp:77] Creating layer pool5
I0507 10:58:56.457595   459 net.cpp:94] Creating Layer pool5
I0507 10:58:56.457598   459 net.cpp:435] pool5 <- conv5
I0507 10:58:56.457607   459 net.cpp:409] pool5 -> pool5
I0507 10:58:56.457648   459 net.cpp:144] Setting up pool5
I0507 10:58:56.457654   459 net.cpp:151] Top shape: 20 64 5 5 (32000)
I0507 10:58:56.457657   459 net.cpp:159] Memory required for data: 11936240
I0507 10:58:56.457660   459 layer_factory.hpp:77] Creating layer ip1
I0507 10:58:56.457669   459 net.cpp:94] Creating Layer ip1
I0507 10:58:56.457672   459 net.cpp:435] ip1 <- pool5
I0507 10:58:56.457677   459 net.cpp:409] ip1 -> ip1
I0507 10:58:56.460384   459 net.cpp:144] Setting up ip1
I0507 10:58:56.460392   459 net.cpp:151] Top shape: 20 64 (1280)
I0507 10:58:56.460396   459 net.cpp:159] Memory required for data: 11941360
I0507 10:58:56.460402   459 layer_factory.hpp:77] Creating layer ip2
I0507 10:58:56.460407   459 net.cpp:94] Creating Layer ip2
I0507 10:58:56.460410   459 net.cpp:435] ip2 <- ip1
I0507 10:58:56.460417   459 net.cpp:409] ip2 -> ip2
I0507 10:58:56.460677   459 net.cpp:144] Setting up ip2
I0507 10:58:56.460685   459 net.cpp:151] Top shape: 20 64 (1280)
I0507 10:58:56.460688   459 net.cpp:159] Memory required for data: 11946480
I0507 10:58:56.460695   459 layer_factory.hpp:77] Creating layer ip3
I0507 10:58:56.460702   459 net.cpp:94] Creating Layer ip3
I0507 10:58:56.460705   459 net.cpp:435] ip3 <- ip2
I0507 10:58:56.460711   459 net.cpp:409] ip3 -> ip3
I0507 10:58:56.460928   459 net.cpp:144] Setting up ip3
I0507 10:58:56.460935   459 net.cpp:151] Top shape: 20 50 (1000)
I0507 10:58:56.460938   459 net.cpp:159] Memory required for data: 11950480
I0507 10:58:56.460943   459 layer_factory.hpp:77] Creating layer ip3_ip3_0_split
I0507 10:58:56.460948   459 net.cpp:94] Creating Layer ip3_ip3_0_split
I0507 10:58:56.460952   459 net.cpp:435] ip3_ip3_0_split <- ip3
I0507 10:58:56.460957   459 net.cpp:409] ip3_ip3_0_split -> ip3_ip3_0_split_0
I0507 10:58:56.460963   459 net.cpp:409] ip3_ip3_0_split -> ip3_ip3_0_split_1
I0507 10:58:56.461007   459 net.cpp:144] Setting up ip3_ip3_0_split
I0507 10:58:56.461014   459 net.cpp:151] Top shape: 20 50 (1000)
I0507 10:58:56.461017   459 net.cpp:151] Top shape: 20 50 (1000)
I0507 10:58:56.461020   459 net.cpp:159] Memory required for data: 11958480
I0507 10:58:56.461024   459 layer_factory.hpp:77] Creating layer accuracy
I0507 10:58:56.461028   459 net.cpp:94] Creating Layer accuracy
I0507 10:58:56.461032   459 net.cpp:435] accuracy <- ip3_ip3_0_split_0
I0507 10:58:56.461035   459 net.cpp:435] accuracy <- label_intercept_1_split_0
I0507 10:58:56.461041   459 net.cpp:409] accuracy -> accuracy
…
