…
I0501 19:39:19.999246 14323 net.cpp:323] The NetState phase (0) differed from the phase (1) specified by a rule in layer intercept
I0501 19:39:19.999264 14323 net.cpp:323] The NetState phase (0) differed from the phase (1) specified by a rule in layer loss
I0501 19:39:19.999361 14323 net.cpp:52] Initializing net from parameters: 
state {
  phase: TRAIN
}
layer {
  name: "parameters"
  type: "HDF5Data"
  top: "data"
  top: "label"
  include {
    phase: TRAIN
  }
  hdf5_data_param {
    source: "/home/purduethu/scratch/radon/d/deng106/CNNStatisticalModel/distributions/input/20_distributions_100_sample_size_train-parameters-path.txt"
    batch_size: 20
  }
}
layer {
  name: "conv1"
  type: "Convolution"
  bottom: "data"
  top: "conv1"
  param {
    lr_mult: 1
  }
  param {
    lr_mult: 2
  }
  convolution_param {
    num_output: 64
    pad: 2
    kernel_size: 5
    stride: 1
    weight_filler {
      type: "gaussian"
      std: 0.0001
    }
    bias_filler {
      type: "constant"
    }
  }
}
layer {
  name: "relu1"
  type: "ReLU"
  bottom: "conv1"
  top: "conv1"
}
layer {
  name: "conv2"
  type: "Convolution"
  bottom: "conv1"
  top: "conv2"
  param {
    lr_mult: 1
  }
  param {
    lr_mult: 2
  }
  convolution_param {
    num_output: 64
    pad: 2
    kernel_size: 5
    stride: 1
    weight_filler {
      type: "gaussian"
      std: 0.01
    }
    bias_filler {
      type: "constant"
    }
  }
}
layer {
  name: "relu2"
  type: "ReLU"
  bottom: "conv2"
  top: "conv2"
}
layer {
  name: "pool2"
  type: "Pooling"
  bottom: "conv2"
  top: "pool2"
  pooling_param {
    pool: MAX
    kernel_size: 3
    stride: 2
  }
}
layer {
  name: "conv3"
  type: "Convolution"
  bottom: "pool2"
  top: "conv3"
  param {
    lr_mult: 1
  }
  param {
    lr_mult: 2
  }
  convolution_param {
    num_output: 64
    pad: 2
    kernel_size: 5
    stride: 1
    weight_filler {
      type: "gaussian"
      std: 0.01
    }
    bias_filler {
      type: "constant"
    }
  }
}
layer {
  name: "relu3"
  type: "ReLU"
  bottom: "conv3"
  top: "conv3"
}
layer {
  name: "conv4"
  type: "Convolution"
  bottom: "conv3"
  top: "conv4"
  param {
    lr_mult: 1
  }
  param {
    lr_mult: 2
  }
  convolution_param {
    num_output: 64
    pad: 2
    kernel_size: 5
    stride: 1
    weight_filler {
      type: "gaussian"
      std: 0.01
    }
    bias_filler {
      type: "constant"
    }
  }
}
layer {
  name: "relu4"
  type: "ReLU"
  bottom: "conv4"
  top: "conv4"
}
layer {
  name: "conv5"
  type: "Convolution"
  bottom: "conv4"
  top: "conv5"
  param {
    lr_mult: 1
  }
  param {
    lr_mult: 2
  }
  convolution_param {
    num_output: 64
    pad: 2
    kernel_size: 5
    stride: 1
    weight_filler {
      type: "gaussian"
      std: 0.01
    }
    bias_filler {
      type: "constant"
    }
  }
}
layer {
  name: "relu5"
  type: "ReLU"
  bottom: "conv5"
  top: "conv5"
}
layer {
  name: "pool5"
  type: "Pooling"
  bottom: "conv5"
  top: "pool5"
  pooling_param {
    pool: AVE
    kernel_size: 3
    stride: 2
  }
}
layer {
  name: "ip1"
  type: "InnerProduct"
  bottom: "pool5"
  top: "ip1"
  param {
    lr_mult: 1
  }
  param {
    lr_mult: 2
  }
  inner_product_param {
    num_output: 64
    weight_filler {
      type: "gaussian"
      std: 0.1
    }
    bias_filler {
      type: "constant"
    }
  }
}
layer {
  name: "ip2"
  type: "InnerProduct"
  bottom: "ip1"
  top: "ip2"
  param {
    lr_mult: 1
  }
  param {
    lr_mult: 2
  }
  inner_product_param {
    num_output: 64
    weight_filler {
      type: "gaussian"
      std: 0.1
    }
    bias_filler {
      type: "constant"
    }
  }
}
layer {
  name: "ip3"
  type: "InnerProduct"
  bottom: "ip2"
  top: "ip3"
  param {
    lr_mult: 1
  }
  param {
    lr_mult: 2
  }
  inner_product_param {
    num_output: 1
    weight_filler {
      type: "gaussian"
      std: 0.1
    }
    bias_filler {
      type: "constant"
    }
  }
}
layer {
  name: "loss"
  type: "HuberLoss"
  bottom: "ip3"
  bottom: "label"
  top: "loss"
  include {
    phase: TRAIN
  }
}
I0501 19:39:19.999439 14323 layer_factory.hpp:77] Creating layer parameters
I0501 19:39:19.999454 14323 net.cpp:94] Creating Layer parameters
I0501 19:39:19.999459 14323 net.cpp:409] parameters -> data
I0501 19:39:19.999480 14323 net.cpp:409] parameters -> label
I0501 19:39:19.999490 14323 hdf5_data_layer.cpp:79] Loading list of HDF5 filenames from: /home/purduethu/scratch/radon/d/deng106/CNNStatisticalModel/distributions/input/20_distributions_100_sample_size_train-parameters-path.txt
I0501 19:39:19.999512 14323 hdf5_data_layer.cpp:93] Number of HDF5 files: 1
I0501 19:39:20.000015 14323 hdf5.cpp:32] Datatype class: H5T_FLOAT
I0501 19:39:20.069851 14323 net.cpp:144] Setting up parameters
I0501 19:39:20.069885 14323 net.cpp:151] Top shape: 20 1 10 10 (2000)
I0501 19:39:20.069891 14323 net.cpp:151] Top shape: 20 (20)
I0501 19:39:20.069895 14323 net.cpp:159] Memory required for data: 8080
I0501 19:39:20.069902 14323 layer_factory.hpp:77] Creating layer conv1
I0501 19:39:20.069926 14323 net.cpp:94] Creating Layer conv1
I0501 19:39:20.069932 14323 net.cpp:435] conv1 <- data
I0501 19:39:20.069944 14323 net.cpp:409] conv1 -> conv1
I0501 19:39:20.073748 14323 net.cpp:144] Setting up conv1
I0501 19:39:20.073763 14323 net.cpp:151] Top shape: 20 64 10 10 (128000)
I0501 19:39:20.073767 14323 net.cpp:159] Memory required for data: 520080
I0501 19:39:20.073779 14323 layer_factory.hpp:77] Creating layer relu1
I0501 19:39:20.073788 14323 net.cpp:94] Creating Layer relu1
I0501 19:39:20.073792 14323 net.cpp:435] relu1 <- conv1
I0501 19:39:20.073797 14323 net.cpp:396] relu1 -> conv1 (in-place)
I0501 19:39:20.073812 14323 net.cpp:144] Setting up relu1
I0501 19:39:20.073818 14323 net.cpp:151] Top shape: 20 64 10 10 (128000)
I0501 19:39:20.073822 14323 net.cpp:159] Memory required for data: 1032080
I0501 19:39:20.073825 14323 layer_factory.hpp:77] Creating layer conv2
I0501 19:39:20.073833 14323 net.cpp:94] Creating Layer conv2
I0501 19:39:20.073837 14323 net.cpp:435] conv2 <- conv1
I0501 19:39:20.073842 14323 net.cpp:409] conv2 -> conv2
I0501 19:39:20.082195 14323 net.cpp:144] Setting up conv2
I0501 19:39:20.082211 14323 net.cpp:151] Top shape: 20 64 10 10 (128000)
I0501 19:39:20.082214 14323 net.cpp:159] Memory required for data: 1544080
I0501 19:39:20.082223 14323 layer_factory.hpp:77] Creating layer relu2
I0501 19:39:20.082231 14323 net.cpp:94] Creating Layer relu2
I0501 19:39:20.082234 14323 net.cpp:435] relu2 <- conv2
I0501 19:39:20.082238 14323 net.cpp:396] relu2 -> conv2 (in-place)
I0501 19:39:20.082247 14323 net.cpp:144] Setting up relu2
I0501 19:39:20.082250 14323 net.cpp:151] Top shape: 20 64 10 10 (128000)
I0501 19:39:20.082254 14323 net.cpp:159] Memory required for data: 2056080
I0501 19:39:20.082257 14323 layer_factory.hpp:77] Creating layer pool2
I0501 19:39:20.082264 14323 net.cpp:94] Creating Layer pool2
I0501 19:39:20.082274 14323 net.cpp:435] pool2 <- conv2
I0501 19:39:20.082279 14323 net.cpp:409] pool2 -> pool2
I0501 19:39:20.082324 14323 net.cpp:144] Setting up pool2
I0501 19:39:20.082331 14323 net.cpp:151] Top shape: 20 64 5 5 (32000)
I0501 19:39:20.082334 14323 net.cpp:159] Memory required for data: 2184080
I0501 19:39:20.082339 14323 layer_factory.hpp:77] Creating layer conv3
I0501 19:39:20.082346 14323 net.cpp:94] Creating Layer conv3
I0501 19:39:20.082350 14323 net.cpp:435] conv3 <- pool2
I0501 19:39:20.082355 14323 net.cpp:409] conv3 -> conv3
I0501 19:39:20.087214 14323 net.cpp:144] Setting up conv3
I0501 19:39:20.087229 14323 net.cpp:151] Top shape: 20 64 5 5 (32000)
I0501 19:39:20.087234 14323 net.cpp:159] Memory required for data: 2312080
I0501 19:39:20.087242 14323 layer_factory.hpp:77] Creating layer relu3
I0501 19:39:20.087249 14323 net.cpp:94] Creating Layer relu3
I0501 19:39:20.087252 14323 net.cpp:435] relu3 <- conv3
I0501 19:39:20.087257 14323 net.cpp:396] relu3 -> conv3 (in-place)
I0501 19:39:20.087265 14323 net.cpp:144] Setting up relu3
I0501 19:39:20.087270 14323 net.cpp:151] Top shape: 20 64 5 5 (32000)
I0501 19:39:20.087272 14323 net.cpp:159] Memory required for data: 2440080
I0501 19:39:20.087276 14323 layer_factory.hpp:77] Creating layer conv4
I0501 19:39:20.087285 14323 net.cpp:94] Creating Layer conv4
I0501 19:39:20.087288 14323 net.cpp:435] conv4 <- conv3
I0501 19:39:20.087293 14323 net.cpp:409] conv4 -> conv4
I0501 19:39:20.091698 14323 net.cpp:144] Setting up conv4
I0501 19:39:20.091712 14323 net.cpp:151] Top shape: 20 64 5 5 (32000)
I0501 19:39:20.091717 14323 net.cpp:159] Memory required for data: 2568080
I0501 19:39:20.091722 14323 layer_factory.hpp:77] Creating layer relu4
I0501 19:39:20.091728 14323 net.cpp:94] Creating Layer relu4
I0501 19:39:20.091732 14323 net.cpp:435] relu4 <- conv4
I0501 19:39:20.091737 14323 net.cpp:396] relu4 -> conv4 (in-place)
I0501 19:39:20.091744 14323 net.cpp:144] Setting up relu4
I0501 19:39:20.091749 14323 net.cpp:151] Top shape: 20 64 5 5 (32000)
I0501 19:39:20.091753 14323 net.cpp:159] Memory required for data: 2696080
I0501 19:39:20.091755 14323 layer_factory.hpp:77] Creating layer conv5
I0501 19:39:20.091763 14323 net.cpp:94] Creating Layer conv5
I0501 19:39:20.091768 14323 net.cpp:435] conv5 <- conv4
I0501 19:39:20.091771 14323 net.cpp:409] conv5 -> conv5
I0501 19:39:20.097257 14323 net.cpp:144] Setting up conv5
I0501 19:39:20.097272 14323 net.cpp:151] Top shape: 20 64 5 5 (32000)
I0501 19:39:20.097276 14323 net.cpp:159] Memory required for data: 2824080
I0501 19:39:20.097285 14323 layer_factory.hpp:77] Creating layer relu5
I0501 19:39:20.097291 14323 net.cpp:94] Creating Layer relu5
I0501 19:39:20.097295 14323 net.cpp:435] relu5 <- conv5
I0501 19:39:20.097301 14323 net.cpp:396] relu5 -> conv5 (in-place)
I0501 19:39:20.097307 14323 net.cpp:144] Setting up relu5
I0501 19:39:20.097312 14323 net.cpp:151] Top shape: 20 64 5 5 (32000)
I0501 19:39:20.097316 14323 net.cpp:159] Memory required for data: 2952080
I0501 19:39:20.097319 14323 layer_factory.hpp:77] Creating layer pool5
I0501 19:39:20.097324 14323 net.cpp:94] Creating Layer pool5
I0501 19:39:20.097328 14323 net.cpp:435] pool5 <- conv5
I0501 19:39:20.097332 14323 net.cpp:409] pool5 -> pool5
I0501 19:39:20.097365 14323 net.cpp:144] Setting up pool5
I0501 19:39:20.097373 14323 net.cpp:151] Top shape: 20 64 2 2 (5120)
I0501 19:39:20.097378 14323 net.cpp:159] Memory required for data: 2972560
I0501 19:39:20.097380 14323 layer_factory.hpp:77] Creating layer ip1
I0501 19:39:20.097390 14323 net.cpp:94] Creating Layer ip1
I0501 19:39:20.097394 14323 net.cpp:435] ip1 <- pool5
I0501 19:39:20.097399 14323 net.cpp:409] ip1 -> ip1
I0501 19:39:20.098526 14323 net.cpp:144] Setting up ip1
I0501 19:39:20.098539 14323 net.cpp:151] Top shape: 20 64 (1280)
I0501 19:39:20.098543 14323 net.cpp:159] Memory required for data: 2977680
I0501 19:39:20.098549 14323 layer_factory.hpp:77] Creating layer ip2
I0501 19:39:20.098556 14323 net.cpp:94] Creating Layer ip2
I0501 19:39:20.098561 14323 net.cpp:435] ip2 <- ip1
I0501 19:39:20.098570 14323 net.cpp:409] ip2 -> ip2
I0501 19:39:20.098742 14323 net.cpp:144] Setting up ip2
I0501 19:39:20.098749 14323 net.cpp:151] Top shape: 20 64 (1280)
I0501 19:39:20.098752 14323 net.cpp:159] Memory required for data: 2982800
I0501 19:39:20.098757 14323 layer_factory.hpp:77] Creating layer ip3
I0501 19:39:20.098764 14323 net.cpp:94] Creating Layer ip3
I0501 19:39:20.098767 14323 net.cpp:435] ip3 <- ip2
I0501 19:39:20.098773 14323 net.cpp:409] ip3 -> ip3
I0501 19:39:20.098834 14323 net.cpp:144] Setting up ip3
I0501 19:39:20.098841 14323 net.cpp:151] Top shape: 20 1 (20)
I0501 19:39:20.098850 14323 net.cpp:159] Memory required for data: 2982880
I0501 19:39:20.098855 14323 layer_factory.hpp:77] Creating layer loss
I0501 19:39:20.098866 14323 net.cpp:94] Creating Layer loss
I0501 19:39:20.098870 14323 net.cpp:435] loss <- ip3
I0501 19:39:20.098875 14323 net.cpp:435] loss <- label
I0501 19:39:20.098879 14323 net.cpp:409] loss -> loss
I0501 19:39:20.098915 14323 net.cpp:144] Setting up loss
…
