…
I0502 23:04:26.409085 14876 net.cpp:323] The NetState phase (0) differed from the phase (1) specified by a rule in layer intercept
I0502 23:04:26.409101 14876 net.cpp:323] The NetState phase (0) differed from the phase (1) specified by a rule in layer loss
I0502 23:04:26.409181 14876 net.cpp:52] Initializing net from parameters: 
state {
  phase: TRAIN
}
layer {
  name: "parameters"
  type: "HDF5Data"
  top: "data"
  top: "label"
  include {
    phase: TRAIN
  }
  hdf5_data_param {
    source: "/home/purduethu/scratch/radon/d/deng106/CNNStatisticalModel/distributions/input/50_distributions_400_sample_size_train-parameters-path.txt"
    batch_size: 20
  }
}
layer {
  name: "conv1"
  type: "Convolution"
  bottom: "data"
  top: "conv1"
  param {
    lr_mult: 1
  }
  param {
    lr_mult: 2
  }
  convolution_param {
    num_output: 64
    pad: 2
    kernel_size: 5
    stride: 1
    weight_filler {
      type: "gaussian"
      std: 0.0001
    }
    bias_filler {
      type: "constant"
    }
  }
}
layer {
  name: "relu1"
  type: "ReLU"
  bottom: "conv1"
  top: "conv1"
}
layer {
  name: "conv2"
  type: "Convolution"
  bottom: "conv1"
  top: "conv2"
  param {
    lr_mult: 1
  }
  param {
    lr_mult: 2
  }
  convolution_param {
    num_output: 64
    pad: 2
    kernel_size: 5
    stride: 1
    weight_filler {
      type: "gaussian"
      std: 0.01
    }
    bias_filler {
      type: "constant"
    }
  }
}
layer {
  name: "relu2"
  type: "ReLU"
  bottom: "conv2"
  top: "conv2"
}
layer {
  name: "pool2"
  type: "Pooling"
  bottom: "conv2"
  top: "pool2"
  pooling_param {
    pool: MAX
    kernel_size: 3
    stride: 2
  }
}
layer {
  name: "conv3"
  type: "Convolution"
  bottom: "pool2"
  top: "conv3"
  param {
    lr_mult: 1
  }
  param {
    lr_mult: 2
  }
  convolution_param {
    num_output: 128
    pad: 2
    kernel_size: 5
    stride: 1
    weight_filler {
      type: "gaussian"
      std: 0.01
    }
    bias_filler {
      type: "constant"
    }
  }
}
layer {
  name: "relu3"
  type: "ReLU"
  bottom: "conv3"
  top: "conv3"
}
layer {
  name: "conv4"
  type: "Convolution"
  bottom: "conv3"
  top: "conv4"
  param {
    lr_mult: 1
  }
  param {
    lr_mult: 2
  }
  convolution_param {
    num_output: 128
    pad: 2
    kernel_size: 5
    stride: 1
    weight_filler {
      type: "gaussian"
      std: 0.01
    }
    bias_filler {
      type: "constant"
    }
  }
}
layer {
  name: "relu4"
  type: "ReLU"
  bottom: "conv4"
  top: "conv4"
}
layer {
  name: "conv5"
  type: "Convolution"
  bottom: "conv4"
  top: "conv5"
  param {
    lr_mult: 1
  }
  param {
    lr_mult: 2
  }
  convolution_param {
    num_output: 128
    pad: 2
    kernel_size: 5
    stride: 1
    weight_filler {
      type: "gaussian"
      std: 0.01
    }
    bias_filler {
      type: "constant"
    }
  }
}
layer {
  name: "relu5"
  type: "ReLU"
  bottom: "conv5"
  top: "conv5"
}
layer {
  name: "pool5"
  type: "Pooling"
  bottom: "conv5"
  top: "pool5"
  pooling_param {
    pool: AVE
    kernel_size: 3
    stride: 2
  }
}
layer {
  name: "ip1"
  type: "InnerProduct"
  bottom: "pool5"
  top: "ip1"
  param {
    lr_mult: 1
  }
  param {
    lr_mult: 2
  }
  inner_product_param {
    num_output: 1024
    weight_filler {
      type: "gaussian"
      std: 0.1
    }
    bias_filler {
      type: "constant"
    }
  }
}
layer {
  name: "ip2"
  type: "InnerProduct"
  bottom: "ip1"
  top: "ip2"
  param {
    lr_mult: 1
  }
  param {
    lr_mult: 2
  }
  inner_product_param {
    num_output: 512
    weight_filler {
      type: "gaussian"
      std: 0.1
    }
    bias_filler {
      type: "constant"
    }
  }
}
layer {
  name: "ip3"
  type: "InnerProduct"
  bottom: "ip2"
  top: "ip3"
  param {
    lr_mult: 1
  }
  param {
    lr_mult: 2
  }
  inner_product_param {
    num_output: 1
    weight_filler {
      type: "gaussian"
      std: 0.1
    }
    bias_filler {
      type: "constant"
    }
  }
}
layer {
  name: "loss"
  type: "HuberLoss"
  bottom: "ip3"
  bottom: "label"
  top: "loss"
  include {
    phase: TRAIN
  }
}
I0502 23:04:26.409236 14876 layer_factory.hpp:77] Creating layer parameters
I0502 23:04:26.409250 14876 net.cpp:94] Creating Layer parameters
I0502 23:04:26.409253 14876 net.cpp:409] parameters -> data
I0502 23:04:26.409262 14876 net.cpp:409] parameters -> label
I0502 23:04:26.409273 14876 hdf5_data_layer.cpp:79] Loading list of HDF5 filenames from: /home/purduethu/scratch/radon/d/deng106/CNNStatisticalModel/distributions/input/50_distributions_400_sample_size_train-parameters-path.txt
I0502 23:04:26.409288 14876 hdf5_data_layer.cpp:93] Number of HDF5 files: 1
I0502 23:04:26.409832 14876 hdf5.cpp:32] Datatype class: H5T_FLOAT
I0502 23:04:27.054378 14876 net.cpp:144] Setting up parameters
I0502 23:04:27.054425 14876 net.cpp:151] Top shape: 20 1 20 20 (8000)
I0502 23:04:27.054443 14876 net.cpp:151] Top shape: 20 (20)
I0502 23:04:27.054447 14876 net.cpp:159] Memory required for data: 32080
I0502 23:04:27.054453 14876 layer_factory.hpp:77] Creating layer conv1
I0502 23:04:27.054474 14876 net.cpp:94] Creating Layer conv1
I0502 23:04:27.054479 14876 net.cpp:435] conv1 <- data
I0502 23:04:27.054486 14876 net.cpp:409] conv1 -> conv1
I0502 23:04:27.060031 14876 net.cpp:144] Setting up conv1
I0502 23:04:27.060055 14876 net.cpp:151] Top shape: 20 64 20 20 (512000)
I0502 23:04:27.060058 14876 net.cpp:159] Memory required for data: 2080080
I0502 23:04:27.060070 14876 layer_factory.hpp:77] Creating layer relu1
I0502 23:04:27.060081 14876 net.cpp:94] Creating Layer relu1
I0502 23:04:27.060084 14876 net.cpp:435] relu1 <- conv1
I0502 23:04:27.060091 14876 net.cpp:396] relu1 -> conv1 (in-place)
I0502 23:04:27.060102 14876 net.cpp:144] Setting up relu1
I0502 23:04:27.060107 14876 net.cpp:151] Top shape: 20 64 20 20 (512000)
I0502 23:04:27.060111 14876 net.cpp:159] Memory required for data: 4128080
I0502 23:04:27.060114 14876 layer_factory.hpp:77] Creating layer conv2
I0502 23:04:27.060122 14876 net.cpp:94] Creating Layer conv2
I0502 23:04:27.060127 14876 net.cpp:435] conv2 <- conv1
I0502 23:04:27.060132 14876 net.cpp:409] conv2 -> conv2
I0502 23:04:27.071229 14876 net.cpp:144] Setting up conv2
I0502 23:04:27.071264 14876 net.cpp:151] Top shape: 20 64 20 20 (512000)
I0502 23:04:27.071274 14876 net.cpp:159] Memory required for data: 6176080
I0502 23:04:27.071292 14876 layer_factory.hpp:77] Creating layer relu2
I0502 23:04:27.071308 14876 net.cpp:94] Creating Layer relu2
I0502 23:04:27.071317 14876 net.cpp:435] relu2 <- conv2
I0502 23:04:27.071328 14876 net.cpp:396] relu2 -> conv2 (in-place)
I0502 23:04:27.071346 14876 net.cpp:144] Setting up relu2
I0502 23:04:27.071355 14876 net.cpp:151] Top shape: 20 64 20 20 (512000)
I0502 23:04:27.071363 14876 net.cpp:159] Memory required for data: 8224080
I0502 23:04:27.071370 14876 layer_factory.hpp:77] Creating layer pool2
I0502 23:04:27.071383 14876 net.cpp:94] Creating Layer pool2
I0502 23:04:27.071400 14876 net.cpp:435] pool2 <- conv2
I0502 23:04:27.071413 14876 net.cpp:409] pool2 -> pool2
I0502 23:04:27.071522 14876 net.cpp:144] Setting up pool2
I0502 23:04:27.071538 14876 net.cpp:151] Top shape: 20 64 10 10 (128000)
I0502 23:04:27.071547 14876 net.cpp:159] Memory required for data: 8736080
I0502 23:04:27.071554 14876 layer_factory.hpp:77] Creating layer conv3
I0502 23:04:27.071573 14876 net.cpp:94] Creating Layer conv3
I0502 23:04:27.071580 14876 net.cpp:435] conv3 <- pool2
I0502 23:04:27.071593 14876 net.cpp:409] conv3 -> conv3
I0502 23:04:27.090131 14876 net.cpp:144] Setting up conv3
I0502 23:04:27.090147 14876 net.cpp:151] Top shape: 20 128 10 10 (256000)
I0502 23:04:27.090152 14876 net.cpp:159] Memory required for data: 9760080
I0502 23:04:27.090162 14876 layer_factory.hpp:77] Creating layer relu3
I0502 23:04:27.090167 14876 net.cpp:94] Creating Layer relu3
I0502 23:04:27.090171 14876 net.cpp:435] relu3 <- conv3
I0502 23:04:27.090176 14876 net.cpp:396] relu3 -> conv3 (in-place)
I0502 23:04:27.090183 14876 net.cpp:144] Setting up relu3
I0502 23:04:27.090188 14876 net.cpp:151] Top shape: 20 128 10 10 (256000)
I0502 23:04:27.090191 14876 net.cpp:159] Memory required for data: 10784080
I0502 23:04:27.090194 14876 layer_factory.hpp:77] Creating layer conv4
I0502 23:04:27.090204 14876 net.cpp:94] Creating Layer conv4
I0502 23:04:27.090207 14876 net.cpp:435] conv4 <- conv3
I0502 23:04:27.090212 14876 net.cpp:409] conv4 -> conv4
I0502 23:04:27.108649 14876 net.cpp:144] Setting up conv4
I0502 23:04:27.108669 14876 net.cpp:151] Top shape: 20 128 10 10 (256000)
I0502 23:04:27.108674 14876 net.cpp:159] Memory required for data: 11808080
I0502 23:04:27.108681 14876 layer_factory.hpp:77] Creating layer relu4
I0502 23:04:27.108687 14876 net.cpp:94] Creating Layer relu4
I0502 23:04:27.108691 14876 net.cpp:435] relu4 <- conv4
I0502 23:04:27.108696 14876 net.cpp:396] relu4 -> conv4 (in-place)
I0502 23:04:27.108705 14876 net.cpp:144] Setting up relu4
I0502 23:04:27.108708 14876 net.cpp:151] Top shape: 20 128 10 10 (256000)
I0502 23:04:27.108712 14876 net.cpp:159] Memory required for data: 12832080
I0502 23:04:27.108716 14876 layer_factory.hpp:77] Creating layer conv5
I0502 23:04:27.108723 14876 net.cpp:94] Creating Layer conv5
I0502 23:04:27.108726 14876 net.cpp:435] conv5 <- conv4
I0502 23:04:27.108732 14876 net.cpp:409] conv5 -> conv5
I0502 23:04:27.130070 14876 net.cpp:144] Setting up conv5
I0502 23:04:27.130090 14876 net.cpp:151] Top shape: 20 128 10 10 (256000)
I0502 23:04:27.130095 14876 net.cpp:159] Memory required for data: 13856080
I0502 23:04:27.130105 14876 layer_factory.hpp:77] Creating layer relu5
I0502 23:04:27.130112 14876 net.cpp:94] Creating Layer relu5
I0502 23:04:27.130116 14876 net.cpp:435] relu5 <- conv5
I0502 23:04:27.130121 14876 net.cpp:396] relu5 -> conv5 (in-place)
I0502 23:04:27.130129 14876 net.cpp:144] Setting up relu5
I0502 23:04:27.130134 14876 net.cpp:151] Top shape: 20 128 10 10 (256000)
I0502 23:04:27.130137 14876 net.cpp:159] Memory required for data: 14880080
I0502 23:04:27.130141 14876 layer_factory.hpp:77] Creating layer pool5
I0502 23:04:27.130146 14876 net.cpp:94] Creating Layer pool5
I0502 23:04:27.130149 14876 net.cpp:435] pool5 <- conv5
I0502 23:04:27.130154 14876 net.cpp:409] pool5 -> pool5
I0502 23:04:27.130198 14876 net.cpp:144] Setting up pool5
I0502 23:04:27.130205 14876 net.cpp:151] Top shape: 20 128 5 5 (64000)
I0502 23:04:27.130208 14876 net.cpp:159] Memory required for data: 15136080
I0502 23:04:27.130213 14876 layer_factory.hpp:77] Creating layer ip1
I0502 23:04:27.130223 14876 net.cpp:94] Creating Layer ip1
I0502 23:04:27.130226 14876 net.cpp:435] ip1 <- pool5
I0502 23:04:27.130230 14876 net.cpp:409] ip1 -> ip1
I0502 23:04:27.211426 14876 net.cpp:144] Setting up ip1
I0502 23:04:27.211462 14876 net.cpp:151] Top shape: 20 1024 (20480)
I0502 23:04:27.211467 14876 net.cpp:159] Memory required for data: 15218000
I0502 23:04:27.211475 14876 layer_factory.hpp:77] Creating layer ip2
I0502 23:04:27.211486 14876 net.cpp:94] Creating Layer ip2
I0502 23:04:27.211498 14876 net.cpp:435] ip2 <- ip1
I0502 23:04:27.211506 14876 net.cpp:409] ip2 -> ip2
I0502 23:04:27.225008 14876 net.cpp:144] Setting up ip2
I0502 23:04:27.225026 14876 net.cpp:151] Top shape: 20 512 (10240)
I0502 23:04:27.225031 14876 net.cpp:159] Memory required for data: 15258960
I0502 23:04:27.225039 14876 layer_factory.hpp:77] Creating layer ip3
I0502 23:04:27.225046 14876 net.cpp:94] Creating Layer ip3
I0502 23:04:27.225051 14876 net.cpp:435] ip3 <- ip2
I0502 23:04:27.225056 14876 net.cpp:409] ip3 -> ip3
I0502 23:04:27.225167 14876 net.cpp:144] Setting up ip3
I0502 23:04:27.225175 14876 net.cpp:151] Top shape: 20 1 (20)
I0502 23:04:27.225178 14876 net.cpp:159] Memory required for data: 15259040
I0502 23:04:27.225184 14876 layer_factory.hpp:77] Creating layer loss
I0502 23:04:27.225193 14876 net.cpp:94] Creating Layer loss
I0502 23:04:27.225196 14876 net.cpp:435] loss <- ip3
I0502 23:04:27.225200 14876 net.cpp:435] loss <- label
I0502 23:04:27.225204 14876 net.cpp:409] loss -> loss
I0502 23:04:27.225255 14876 net.cpp:144] Setting up loss
…
I0502 23:04:27.534932 14876 net.cpp:323] The NetState phase (0) differed from the phase (1) specified by a rule in layer intercept
I0502 23:04:27.534950 14876 net.cpp:323] The NetState phase (0) differed from the phase (1) specified by a rule in layer accuracy
I0502 23:04:27.535038 14876 net.cpp:52] Initializing net from parameters: 
state {
  phase: TRAIN
}
layer {
  name: "parameters"
  type: "HDF5Data"
  top: "data"
  top: "label"
  include {
    phase: TRAIN
  }
  hdf5_data_param {
    source: "/home/purduethu/scratch/radon/d/deng106/CNNStatisticalModel/distributions/input/50_distributions_400_sample_size_train-distributions-path.txt"
    batch_size: 20
  }
}
layer {
  name: "conv1"
  type: "Convolution"
  bottom: "data"
  top: "conv1"
  param {
    lr_mult: 1
  }
  param {
    lr_mult: 2
  }
  convolution_param {
    num_output: 64
    pad: 2
    kernel_size: 5
    stride: 1
    weight_filler {
      type: "gaussian"
      std: 0.0001
    }
    bias_filler {
      type: "constant"
    }
  }
}
layer {
  name: "relu1"
  type: "ReLU"
  bottom: "conv1"
  top: "conv1"
}
layer {
  name: "conv2"
  type: "Convolution"
  bottom: "conv1"
  top: "conv2"
  param {
    lr_mult: 1
  }
  param {
    lr_mult: 2
  }
  convolution_param {
    num_output: 64
    pad: 2
    kernel_size: 5
    stride: 1
    weight_filler {
      type: "gaussian"
      std: 0.01
    }
    bias_filler {
      type: "constant"
    }
  }
}
layer {
  name: "relu2"
  type: "ReLU"
  bottom: "conv2"
  top: "conv2"
}
layer {
  name: "pool2"
  type: "Pooling"
  bottom: "conv2"
  top: "pool2"
  pooling_param {
    pool: MAX
    kernel_size: 3
    stride: 2
  }
}
layer {
  name: "conv3"
  type: "Convolution"
  bottom: "pool2"
  top: "conv3"
  param {
    lr_mult: 1
  }
  param {
    lr_mult: 2
  }
  convolution_param {
    num_output: 128
    pad: 2
    kernel_size: 5
    stride: 1
    weight_filler {
      type: "gaussian"
      std: 0.01
    }
    bias_filler {
      type: "constant"
    }
  }
}
layer {
  name: "relu3"
  type: "ReLU"
  bottom: "conv3"
  top: "conv3"
}
layer {
  name: "conv4"
  type: "Convolution"
  bottom: "conv3"
  top: "conv4"
  param {
    lr_mult: 1
  }
  param {
    lr_mult: 2
  }
  convolution_param {
    num_output: 128
    pad: 2
    kernel_size: 5
    stride: 1
    weight_filler {
      type: "gaussian"
      std: 0.01
    }
    bias_filler {
      type: "constant"
    }
  }
}
layer {
  name: "relu4"
  type: "ReLU"
  bottom: "conv4"
  top: "conv4"
}
layer {
  name: "conv5"
  type: "Convolution"
  bottom: "conv4"
  top: "conv5"
  param {
    lr_mult: 1
  }
  param {
    lr_mult: 2
  }
  convolution_param {
    num_output: 128
    pad: 2
    kernel_size: 5
    stride: 1
    weight_filler {
      type: "gaussian"
      std: 0.01
    }
    bias_filler {
      type: "constant"
    }
  }
}
layer {
  name: "relu5"
  type: "ReLU"
  bottom: "conv5"
  top: "conv5"
}
layer {
  name: "pool5"
  type: "Pooling"
  bottom: "conv5"
  top: "pool5"
  pooling_param {
    pool: AVE
    kernel_size: 3
    stride: 2
  }
}
layer {
  name: "ip1"
  type: "InnerProduct"
  bottom: "pool5"
  top: "ip1"
  param {
    lr_mult: 1
  }
  param {
    lr_mult: 2
  }
  inner_product_param {
    num_output: 1024
    weight_filler {
      type: "gaussian"
      std: 0.1
    }
    bias_filler {
      type: "constant"
    }
  }
}
layer {
  name: "ip2"
  type: "InnerProduct"
  bottom: "ip1"
  top: "ip2"
  param {
    lr_mult: 1
  }
  param {
    lr_mult: 2
  }
  inner_product_param {
    num_output: 512
    weight_filler {
      type: "gaussian"
      std: 0.1
    }
    bias_filler {
      type: "constant"
    }
  }
}
layer {
  name: "ip3"
  type: "InnerProduct"
  bottom: "ip2"
  top: "ip3"
  param {
    lr_mult: 1
  }
  param {
    lr_mult: 2
  }
  inner_product_param {
    num_output: 50
    weight_filler {
      type: "gaussian"
      std: 0.1
    }
    bias_filler {
      type: "constant"
    }
  }
}
layer {
  name: "loss"
  type: "SoftmaxWithLoss"
  bottom: "ip3"
  bottom: "label"
  top: "loss"
}
I0502 23:04:27.535094 14876 layer_factory.hpp:77] Creating layer parameters
I0502 23:04:27.535104 14876 net.cpp:94] Creating Layer parameters
I0502 23:04:27.535107 14876 net.cpp:409] parameters -> data
I0502 23:04:27.535115 14876 net.cpp:409] parameters -> label
I0502 23:04:27.535120 14876 hdf5_data_layer.cpp:79] Loading list of HDF5 filenames from: /home/purduethu/scratch/radon/d/deng106/CNNStatisticalModel/distributions/input/50_distributions_400_sample_size_train-distributions-path.txt
I0502 23:04:27.535136 14876 hdf5_data_layer.cpp:93] Number of HDF5 files: 1
I0502 23:04:28.203521 14876 hdf5.cpp:35] Datatype class: H5T_INTEGER
I0502 23:04:28.206637 14876 net.cpp:144] Setting up parameters
I0502 23:04:28.206655 14876 net.cpp:151] Top shape: 20 1 20 20 (8000)
I0502 23:04:28.206660 14876 net.cpp:151] Top shape: 20 (20)
I0502 23:04:28.206663 14876 net.cpp:159] Memory required for data: 32080
I0502 23:04:28.206670 14876 layer_factory.hpp:77] Creating layer conv1
I0502 23:04:28.206686 14876 net.cpp:94] Creating Layer conv1
I0502 23:04:28.206691 14876 net.cpp:435] conv1 <- data
I0502 23:04:28.206697 14876 net.cpp:409] conv1 -> conv1
I0502 23:04:28.209026 14876 net.cpp:144] Setting up conv1
I0502 23:04:28.209041 14876 net.cpp:151] Top shape: 20 64 20 20 (512000)
I0502 23:04:28.209045 14876 net.cpp:159] Memory required for data: 2080080
I0502 23:04:28.209055 14876 layer_factory.hpp:77] Creating layer relu1
I0502 23:04:28.209064 14876 net.cpp:94] Creating Layer relu1
I0502 23:04:28.209067 14876 net.cpp:435] relu1 <- conv1
I0502 23:04:28.209072 14876 net.cpp:396] relu1 -> conv1 (in-place)
I0502 23:04:28.209079 14876 net.cpp:144] Setting up relu1
I0502 23:04:28.209084 14876 net.cpp:151] Top shape: 20 64 20 20 (512000)
I0502 23:04:28.209087 14876 net.cpp:159] Memory required for data: 4128080
I0502 23:04:28.209090 14876 layer_factory.hpp:77] Creating layer conv2
I0502 23:04:28.209100 14876 net.cpp:94] Creating Layer conv2
I0502 23:04:28.209102 14876 net.cpp:435] conv2 <- conv1
I0502 23:04:28.209107 14876 net.cpp:409] conv2 -> conv2
I0502 23:04:28.220157 14876 net.cpp:144] Setting up conv2
I0502 23:04:28.220198 14876 net.cpp:151] Top shape: 20 64 20 20 (512000)
I0502 23:04:28.220209 14876 net.cpp:159] Memory required for data: 6176080
I0502 23:04:28.220232 14876 layer_factory.hpp:77] Creating layer relu2
I0502 23:04:28.220252 14876 net.cpp:94] Creating Layer relu2
I0502 23:04:28.220263 14876 net.cpp:435] relu2 <- conv2
I0502 23:04:28.220276 14876 net.cpp:396] relu2 -> conv2 (in-place)
I0502 23:04:28.220296 14876 net.cpp:144] Setting up relu2
I0502 23:04:28.220309 14876 net.cpp:151] Top shape: 20 64 20 20 (512000)
I0502 23:04:28.220317 14876 net.cpp:159] Memory required for data: 8224080
I0502 23:04:28.220327 14876 layer_factory.hpp:77] Creating layer pool2
I0502 23:04:28.220341 14876 net.cpp:94] Creating Layer pool2
I0502 23:04:28.220351 14876 net.cpp:435] pool2 <- conv2
I0502 23:04:28.220365 14876 net.cpp:409] pool2 -> pool2
I0502 23:04:28.220502 14876 net.cpp:144] Setting up pool2
I0502 23:04:28.220521 14876 net.cpp:151] Top shape: 20 64 10 10 (128000)
I0502 23:04:28.220530 14876 net.cpp:159] Memory required for data: 8736080
I0502 23:04:28.220541 14876 layer_factory.hpp:77] Creating layer conv3
I0502 23:04:28.220592 14876 net.cpp:94] Creating Layer conv3
I0502 23:04:28.220598 14876 net.cpp:435] conv3 <- pool2
I0502 23:04:28.220610 14876 net.cpp:409] conv3 -> conv3
I0502 23:04:28.232056 14876 net.cpp:144] Setting up conv3
I0502 23:04:28.232074 14876 net.cpp:151] Top shape: 20 128 10 10 (256000)
I0502 23:04:28.232077 14876 net.cpp:159] Memory required for data: 9760080
I0502 23:04:28.232085 14876 layer_factory.hpp:77] Creating layer relu3
I0502 23:04:28.232092 14876 net.cpp:94] Creating Layer relu3
I0502 23:04:28.232096 14876 net.cpp:435] relu3 <- conv3
I0502 23:04:28.232101 14876 net.cpp:396] relu3 -> conv3 (in-place)
I0502 23:04:28.232108 14876 net.cpp:144] Setting up relu3
I0502 23:04:28.232112 14876 net.cpp:151] Top shape: 20 128 10 10 (256000)
I0502 23:04:28.232115 14876 net.cpp:159] Memory required for data: 10784080
I0502 23:04:28.232120 14876 layer_factory.hpp:77] Creating layer conv4
I0502 23:04:28.232128 14876 net.cpp:94] Creating Layer conv4
I0502 23:04:28.232131 14876 net.cpp:435] conv4 <- conv3
I0502 23:04:28.232136 14876 net.cpp:409] conv4 -> conv4
I0502 23:04:28.250880 14876 net.cpp:144] Setting up conv4
I0502 23:04:28.250923 14876 net.cpp:151] Top shape: 20 128 10 10 (256000)
I0502 23:04:28.250936 14876 net.cpp:159] Memory required for data: 11808080
I0502 23:04:28.250955 14876 layer_factory.hpp:77] Creating layer relu4
I0502 23:04:28.250972 14876 net.cpp:94] Creating Layer relu4
I0502 23:04:28.250983 14876 net.cpp:435] relu4 <- conv4
I0502 23:04:28.250998 14876 net.cpp:396] relu4 -> conv4 (in-place)
I0502 23:04:28.251019 14876 net.cpp:144] Setting up relu4
I0502 23:04:28.251031 14876 net.cpp:151] Top shape: 20 128 10 10 (256000)
I0502 23:04:28.251040 14876 net.cpp:159] Memory required for data: 12832080
I0502 23:04:28.251050 14876 layer_factory.hpp:77] Creating layer conv5
I0502 23:04:28.251070 14876 net.cpp:94] Creating Layer conv5
I0502 23:04:28.251081 14876 net.cpp:435] conv5 <- conv4
I0502 23:04:28.251096 14876 net.cpp:409] conv5 -> conv5
I0502 23:04:28.270107 14876 net.cpp:144] Setting up conv5
I0502 23:04:28.270126 14876 net.cpp:151] Top shape: 20 128 10 10 (256000)
I0502 23:04:28.270130 14876 net.cpp:159] Memory required for data: 13856080
I0502 23:04:28.270140 14876 layer_factory.hpp:77] Creating layer relu5
I0502 23:04:28.270148 14876 net.cpp:94] Creating Layer relu5
I0502 23:04:28.270151 14876 net.cpp:435] relu5 <- conv5
I0502 23:04:28.270156 14876 net.cpp:396] relu5 -> conv5 (in-place)
I0502 23:04:28.270164 14876 net.cpp:144] Setting up relu5
I0502 23:04:28.270169 14876 net.cpp:151] Top shape: 20 128 10 10 (256000)
I0502 23:04:28.270171 14876 net.cpp:159] Memory required for data: 14880080
I0502 23:04:28.270175 14876 layer_factory.hpp:77] Creating layer pool5
I0502 23:04:28.270180 14876 net.cpp:94] Creating Layer pool5
I0502 23:04:28.270184 14876 net.cpp:435] pool5 <- conv5
I0502 23:04:28.270189 14876 net.cpp:409] pool5 -> pool5
I0502 23:04:28.270229 14876 net.cpp:144] Setting up pool5
I0502 23:04:28.270237 14876 net.cpp:151] Top shape: 20 128 5 5 (64000)
I0502 23:04:28.270241 14876 net.cpp:159] Memory required for data: 15136080
I0502 23:04:28.270243 14876 layer_factory.hpp:77] Creating layer ip1
I0502 23:04:28.270251 14876 net.cpp:94] Creating Layer ip1
I0502 23:04:28.270254 14876 net.cpp:435] ip1 <- pool5
I0502 23:04:28.270259 14876 net.cpp:409] ip1 -> ip1
I0502 23:04:28.350352 14876 net.cpp:144] Setting up ip1
I0502 23:04:28.350388 14876 net.cpp:151] Top shape: 20 1024 (20480)
I0502 23:04:28.350392 14876 net.cpp:159] Memory required for data: 15218000
I0502 23:04:28.350400 14876 layer_factory.hpp:77] Creating layer ip2
I0502 23:04:28.350411 14876 net.cpp:94] Creating Layer ip2
I0502 23:04:28.350416 14876 net.cpp:435] ip2 <- ip1
I0502 23:04:28.350424 14876 net.cpp:409] ip2 -> ip2
I0502 23:04:28.363729 14876 net.cpp:144] Setting up ip2
I0502 23:04:28.363746 14876 net.cpp:151] Top shape: 20 512 (10240)
I0502 23:04:28.363750 14876 net.cpp:159] Memory required for data: 15258960
I0502 23:04:28.363757 14876 layer_factory.hpp:77] Creating layer ip3
I0502 23:04:28.363765 14876 net.cpp:94] Creating Layer ip3
I0502 23:04:28.363770 14876 net.cpp:435] ip3 <- ip2
I0502 23:04:28.363775 14876 net.cpp:409] ip3 -> ip3
I0502 23:04:28.365394 14876 net.cpp:144] Setting up ip3
I0502 23:04:28.365409 14876 net.cpp:151] Top shape: 20 50 (1000)
I0502 23:04:28.365413 14876 net.cpp:159] Memory required for data: 15262960
I0502 23:04:28.365419 14876 layer_factory.hpp:77] Creating layer loss
I0502 23:04:28.365428 14876 net.cpp:94] Creating Layer loss
I0502 23:04:28.365432 14876 net.cpp:435] loss <- ip3
I0502 23:04:28.365437 14876 net.cpp:435] loss <- label
I0502 23:04:28.365442 14876 net.cpp:409] loss -> loss
I0502 23:04:28.365449 14876 layer_factory.hpp:77] Creating layer loss
…
I0502 23:04:28.365983 14876 solver.cpp:181] Creating test net (#0) specified by net file: ./protocol/dis_50_400_dimension.protocol_distribution
I0502 23:04:28.366010 14876 net.cpp:323] The NetState phase (1) differed from the phase (0) specified by a rule in layer parameters
I0502 23:04:28.366106 14876 net.cpp:52] Initializing net from parameters: 
state {
  phase: TEST
}
layer {
  name: "intercept"
  type: "HDF5Data"
  top: "data"
  top: "label"
  include {
    phase: TEST
  }
  hdf5_data_param {
    source: "/home/purduethu/scratch/radon/d/deng106/CNNStatisticalModel/distributions/input/50_distributions_400_sample_size_test-distributions-path.txt"
    batch_size: 20
  }
}
layer {
  name: "conv1"
  type: "Convolution"
  bottom: "data"
  top: "conv1"
  param {
    lr_mult: 1
  }
  param {
    lr_mult: 2
  }
  convolution_param {
    num_output: 64
    pad: 2
    kernel_size: 5
    stride: 1
    weight_filler {
      type: "gaussian"
      std: 0.0001
    }
    bias_filler {
      type: "constant"
    }
  }
}
layer {
  name: "relu1"
  type: "ReLU"
  bottom: "conv1"
  top: "conv1"
}
layer {
  name: "conv2"
  type: "Convolution"
  bottom: "conv1"
  top: "conv2"
  param {
    lr_mult: 1
  }
  param {
    lr_mult: 2
  }
  convolution_param {
    num_output: 64
    pad: 2
    kernel_size: 5
    stride: 1
    weight_filler {
      type: "gaussian"
      std: 0.01
    }
    bias_filler {
      type: "constant"
    }
  }
}
layer {
  name: "relu2"
  type: "ReLU"
  bottom: "conv2"
  top: "conv2"
}
layer {
  name: "pool2"
  type: "Pooling"
  bottom: "conv2"
  top: "pool2"
  pooling_param {
    pool: MAX
    kernel_size: 3
    stride: 2
  }
}
layer {
  name: "conv3"
  type: "Convolution"
  bottom: "pool2"
  top: "conv3"
  param {
    lr_mult: 1
  }
  param {
    lr_mult: 2
  }
  convolution_param {
    num_output: 128
    pad: 2
    kernel_size: 5
    stride: 1
    weight_filler {
      type: "gaussian"
      std: 0.01
    }
    bias_filler {
      type: "constant"
    }
  }
}
layer {
  name: "relu3"
  type: "ReLU"
  bottom: "conv3"
  top: "conv3"
}
layer {
  name: "conv4"
  type: "Convolution"
  bottom: "conv3"
  top: "conv4"
  param {
    lr_mult: 1
  }
  param {
    lr_mult: 2
  }
  convolution_param {
    num_output: 128
    pad: 2
    kernel_size: 5
    stride: 1
    weight_filler {
      type: "gaussian"
      std: 0.01
    }
    bias_filler {
      type: "constant"
    }
  }
}
layer {
  name: "relu4"
  type: "ReLU"
  bottom: "conv4"
  top: "conv4"
}
layer {
  name: "conv5"
  type: "Convolution"
  bottom: "conv4"
  top: "conv5"
  param {
    lr_mult: 1
  }
  param {
    lr_mult: 2
  }
  convolution_param {
    num_output: 128
    pad: 2
    kernel_size: 5
    stride: 1
    weight_filler {
      type: "gaussian"
      std: 0.01
    }
    bias_filler {
      type: "constant"
    }
  }
}
layer {
  name: "relu5"
  type: "ReLU"
  bottom: "conv5"
  top: "conv5"
}
layer {
  name: "pool5"
  type: "Pooling"
  bottom: "conv5"
  top: "pool5"
  pooling_param {
    pool: AVE
    kernel_size: 3
    stride: 2
  }
}
layer {
  name: "ip1"
  type: "InnerProduct"
  bottom: "pool5"
  top: "ip1"
  param {
    lr_mult: 1
  }
  param {
    lr_mult: 2
  }
  inner_product_param {
    num_output: 1024
    weight_filler {
      type: "gaussian"
      std: 0.1
    }
    bias_filler {
      type: "constant"
    }
  }
}
layer {
  name: "ip2"
  type: "InnerProduct"
  bottom: "ip1"
  top: "ip2"
  param {
    lr_mult: 1
  }
  param {
    lr_mult: 2
  }
  inner_product_param {
    num_output: 512
    weight_filler {
      type: "gaussian"
      std: 0.1
    }
    bias_filler {
      type: "constant"
    }
  }
}
layer {
  name: "ip3"
  type: "InnerProduct"
  bottom: "ip2"
  top: "ip3"
  param {
    lr_mult: 1
  }
  param {
    lr_mult: 2
  }
  inner_product_param {
    num_output: 50
    weight_filler {
      type: "gaussian"
      std: 0.1
    }
    bias_filler {
      type: "constant"
    }
  }
}
layer {
  name: "accuracy"
  type: "Accuracy"
  bottom: "ip3"
  bottom: "label"
  top: "accuracy"
  include {
    phase: TEST
  }
}
layer {
  name: "loss"
  type: "SoftmaxWithLoss"
  bottom: "ip3"
  bottom: "label"
  top: "loss"
}
I0502 23:04:28.366174 14876 layer_factory.hpp:77] Creating layer intercept
I0502 23:04:28.366183 14876 net.cpp:94] Creating Layer intercept
I0502 23:04:28.366188 14876 net.cpp:409] intercept -> data
I0502 23:04:28.366194 14876 net.cpp:409] intercept -> label
I0502 23:04:28.366200 14876 hdf5_data_layer.cpp:79] Loading list of HDF5 filenames from: /home/purduethu/scratch/radon/d/deng106/CNNStatisticalModel/distributions/input/50_distributions_400_sample_size_test-distributions-path.txt
I0502 23:04:28.366219 14876 hdf5_data_layer.cpp:93] Number of HDF5 files: 1
I0502 23:04:28.536819 14876 net.cpp:144] Setting up intercept
I0502 23:04:28.536854 14876 net.cpp:151] Top shape: 20 1 20 20 (8000)
I0502 23:04:28.536859 14876 net.cpp:151] Top shape: 20 (20)
I0502 23:04:28.536862 14876 net.cpp:159] Memory required for data: 32080
I0502 23:04:28.536870 14876 layer_factory.hpp:77] Creating layer label_intercept_1_split
I0502 23:04:28.536898 14876 net.cpp:94] Creating Layer label_intercept_1_split
I0502 23:04:28.536902 14876 net.cpp:435] label_intercept_1_split <- label
I0502 23:04:28.536908 14876 net.cpp:409] label_intercept_1_split -> label_intercept_1_split_0
I0502 23:04:28.536917 14876 net.cpp:409] label_intercept_1_split -> label_intercept_1_split_1
I0502 23:04:28.536960 14876 net.cpp:144] Setting up label_intercept_1_split
I0502 23:04:28.536967 14876 net.cpp:151] Top shape: 20 (20)
I0502 23:04:28.536970 14876 net.cpp:151] Top shape: 20 (20)
I0502 23:04:28.536973 14876 net.cpp:159] Memory required for data: 32240
I0502 23:04:28.536976 14876 layer_factory.hpp:77] Creating layer conv1
I0502 23:04:28.536988 14876 net.cpp:94] Creating Layer conv1
I0502 23:04:28.536991 14876 net.cpp:435] conv1 <- data
I0502 23:04:28.536996 14876 net.cpp:409] conv1 -> conv1
I0502 23:04:28.537814 14876 net.cpp:144] Setting up conv1
I0502 23:04:28.537827 14876 net.cpp:151] Top shape: 20 64 20 20 (512000)
I0502 23:04:28.537832 14876 net.cpp:159] Memory required for data: 2080240
I0502 23:04:28.537842 14876 layer_factory.hpp:77] Creating layer relu1
I0502 23:04:28.537848 14876 net.cpp:94] Creating Layer relu1
I0502 23:04:28.537852 14876 net.cpp:435] relu1 <- conv1
I0502 23:04:28.537856 14876 net.cpp:396] relu1 -> conv1 (in-place)
I0502 23:04:28.537863 14876 net.cpp:144] Setting up relu1
I0502 23:04:28.537868 14876 net.cpp:151] Top shape: 20 64 20 20 (512000)
I0502 23:04:28.537871 14876 net.cpp:159] Memory required for data: 4128240
I0502 23:04:28.537874 14876 layer_factory.hpp:77] Creating layer conv2
I0502 23:04:28.537883 14876 net.cpp:94] Creating Layer conv2
I0502 23:04:28.537886 14876 net.cpp:435] conv2 <- conv1
I0502 23:04:28.537891 14876 net.cpp:409] conv2 -> conv2
I0502 23:04:28.544267 14876 net.cpp:144] Setting up conv2
I0502 23:04:28.544283 14876 net.cpp:151] Top shape: 20 64 20 20 (512000)
I0502 23:04:28.544287 14876 net.cpp:159] Memory required for data: 6176240
I0502 23:04:28.544296 14876 layer_factory.hpp:77] Creating layer relu2
I0502 23:04:28.544303 14876 net.cpp:94] Creating Layer relu2
I0502 23:04:28.544307 14876 net.cpp:435] relu2 <- conv2
I0502 23:04:28.544312 14876 net.cpp:396] relu2 -> conv2 (in-place)
I0502 23:04:28.544319 14876 net.cpp:144] Setting up relu2
I0502 23:04:28.544323 14876 net.cpp:151] Top shape: 20 64 20 20 (512000)
I0502 23:04:28.544327 14876 net.cpp:159] Memory required for data: 8224240
I0502 23:04:28.544330 14876 layer_factory.hpp:77] Creating layer pool2
I0502 23:04:28.544337 14876 net.cpp:94] Creating Layer pool2
I0502 23:04:28.544340 14876 net.cpp:435] pool2 <- conv2
I0502 23:04:28.544344 14876 net.cpp:409] pool2 -> pool2
I0502 23:04:28.544405 14876 net.cpp:144] Setting up pool2
I0502 23:04:28.544412 14876 net.cpp:151] Top shape: 20 64 10 10 (128000)
I0502 23:04:28.544415 14876 net.cpp:159] Memory required for data: 8736240
I0502 23:04:28.544420 14876 layer_factory.hpp:77] Creating layer conv3
I0502 23:04:28.544427 14876 net.cpp:94] Creating Layer conv3
I0502 23:04:28.544431 14876 net.cpp:435] conv3 <- pool2
I0502 23:04:28.544437 14876 net.cpp:409] conv3 -> conv3
I0502 23:04:28.551887 14876 net.cpp:144] Setting up conv3
I0502 23:04:28.551921 14876 net.cpp:151] Top shape: 20 128 10 10 (256000)
I0502 23:04:28.551933 14876 net.cpp:159] Memory required for data: 9760240
I0502 23:04:28.551954 14876 layer_factory.hpp:77] Creating layer relu3
I0502 23:04:28.551975 14876 net.cpp:94] Creating Layer relu3
I0502 23:04:28.551987 14876 net.cpp:435] relu3 <- conv3
I0502 23:04:28.552001 14876 net.cpp:396] relu3 -> conv3 (in-place)
I0502 23:04:28.552021 14876 net.cpp:144] Setting up relu3
I0502 23:04:28.552037 14876 net.cpp:151] Top shape: 20 128 10 10 (256000)
I0502 23:04:28.552054 14876 net.cpp:159] Memory required for data: 10784240
I0502 23:04:28.552057 14876 layer_factory.hpp:77] Creating layer conv4
I0502 23:04:28.552065 14876 net.cpp:94] Creating Layer conv4
I0502 23:04:28.552069 14876 net.cpp:435] conv4 <- conv3
I0502 23:04:28.552075 14876 net.cpp:409] conv4 -> conv4
I0502 23:04:28.566035 14876 net.cpp:144] Setting up conv4
I0502 23:04:28.566052 14876 net.cpp:151] Top shape: 20 128 10 10 (256000)
I0502 23:04:28.566057 14876 net.cpp:159] Memory required for data: 11808240
I0502 23:04:28.566064 14876 layer_factory.hpp:77] Creating layer relu4
I0502 23:04:28.566071 14876 net.cpp:94] Creating Layer relu4
I0502 23:04:28.566076 14876 net.cpp:435] relu4 <- conv4
I0502 23:04:28.566082 14876 net.cpp:396] relu4 -> conv4 (in-place)
I0502 23:04:28.566088 14876 net.cpp:144] Setting up relu4
I0502 23:04:28.566093 14876 net.cpp:151] Top shape: 20 128 10 10 (256000)
I0502 23:04:28.566097 14876 net.cpp:159] Memory required for data: 12832240
I0502 23:04:28.566100 14876 layer_factory.hpp:77] Creating layer conv5
I0502 23:04:28.566107 14876 net.cpp:94] Creating Layer conv5
I0502 23:04:28.566112 14876 net.cpp:435] conv5 <- conv4
I0502 23:04:28.566118 14876 net.cpp:409] conv5 -> conv5
I0502 23:04:28.579696 14876 net.cpp:144] Setting up conv5
I0502 23:04:28.579740 14876 net.cpp:151] Top shape: 20 128 10 10 (256000)
I0502 23:04:28.579751 14876 net.cpp:159] Memory required for data: 13856240
I0502 23:04:28.579777 14876 layer_factory.hpp:77] Creating layer relu5
I0502 23:04:28.579793 14876 net.cpp:94] Creating Layer relu5
I0502 23:04:28.579805 14876 net.cpp:435] relu5 <- conv5
I0502 23:04:28.579818 14876 net.cpp:396] relu5 -> conv5 (in-place)
I0502 23:04:28.579839 14876 net.cpp:144] Setting up relu5
I0502 23:04:28.579852 14876 net.cpp:151] Top shape: 20 128 10 10 (256000)
I0502 23:04:28.579861 14876 net.cpp:159] Memory required for data: 14880240
I0502 23:04:28.579870 14876 layer_factory.hpp:77] Creating layer pool5
I0502 23:04:28.579885 14876 net.cpp:94] Creating Layer pool5
I0502 23:04:28.579895 14876 net.cpp:435] pool5 <- conv5
I0502 23:04:28.579911 14876 net.cpp:409] pool5 -> pool5
I0502 23:04:28.580015 14876 net.cpp:144] Setting up pool5
I0502 23:04:28.580034 14876 net.cpp:151] Top shape: 20 128 5 5 (64000)
I0502 23:04:28.580042 14876 net.cpp:159] Memory required for data: 15136240
I0502 23:04:28.580052 14876 layer_factory.hpp:77] Creating layer ip1
I0502 23:04:28.580077 14876 net.cpp:94] Creating Layer ip1
I0502 23:04:28.580088 14876 net.cpp:435] ip1 <- pool5
I0502 23:04:28.580104 14876 net.cpp:409] ip1 -> ip1
I0502 23:04:28.660086 14876 net.cpp:144] Setting up ip1
I0502 23:04:28.660120 14876 net.cpp:151] Top shape: 20 1024 (20480)
I0502 23:04:28.660125 14876 net.cpp:159] Memory required for data: 15218160
I0502 23:04:28.660133 14876 layer_factory.hpp:77] Creating layer ip2
I0502 23:04:28.660145 14876 net.cpp:94] Creating Layer ip2
I0502 23:04:28.660148 14876 net.cpp:435] ip2 <- ip1
I0502 23:04:28.660156 14876 net.cpp:409] ip2 -> ip2
I0502 23:04:28.673444 14876 net.cpp:144] Setting up ip2
I0502 23:04:28.673460 14876 net.cpp:151] Top shape: 20 512 (10240)
I0502 23:04:28.673463 14876 net.cpp:159] Memory required for data: 15259120
I0502 23:04:28.673470 14876 layer_factory.hpp:77] Creating layer ip3
I0502 23:04:28.673482 14876 net.cpp:94] Creating Layer ip3
I0502 23:04:28.673486 14876 net.cpp:435] ip3 <- ip2
I0502 23:04:28.673492 14876 net.cpp:409] ip3 -> ip3
I0502 23:04:28.674233 14876 net.cpp:144] Setting up ip3
I0502 23:04:28.674243 14876 net.cpp:151] Top shape: 20 50 (1000)
I0502 23:04:28.674247 14876 net.cpp:159] Memory required for data: 15263120
I0502 23:04:28.674252 14876 layer_factory.hpp:77] Creating layer ip3_ip3_0_split
I0502 23:04:28.674257 14876 net.cpp:94] Creating Layer ip3_ip3_0_split
I0502 23:04:28.674262 14876 net.cpp:435] ip3_ip3_0_split <- ip3
I0502 23:04:28.674265 14876 net.cpp:409] ip3_ip3_0_split -> ip3_ip3_0_split_0
I0502 23:04:28.674271 14876 net.cpp:409] ip3_ip3_0_split -> ip3_ip3_0_split_1
I0502 23:04:28.674314 14876 net.cpp:144] Setting up ip3_ip3_0_split
I0502 23:04:28.674319 14876 net.cpp:151] Top shape: 20 50 (1000)
I0502 23:04:28.674324 14876 net.cpp:151] Top shape: 20 50 (1000)
I0502 23:04:28.674326 14876 net.cpp:159] Memory required for data: 15271120
I0502 23:04:28.674329 14876 layer_factory.hpp:77] Creating layer accuracy
I0502 23:04:28.674335 14876 net.cpp:94] Creating Layer accuracy
I0502 23:04:28.674338 14876 net.cpp:435] accuracy <- ip3_ip3_0_split_0
I0502 23:04:28.674342 14876 net.cpp:435] accuracy <- label_intercept_1_split_0
I0502 23:04:28.674347 14876 net.cpp:409] accuracy -> accuracy
…
