…
I0507 21:20:42.988224  7554 net.cpp:323] The NetState phase (0) differed from the phase (1) specified by a rule in layer intercept
I0507 21:20:42.988240  7554 net.cpp:323] The NetState phase (0) differed from the phase (1) specified by a rule in layer loss
I0507 21:20:42.988318  7554 net.cpp:52] Initializing net from parameters: 
state {
  phase: TRAIN
}
layer {
  name: "parameters"
  type: "HDF5Data"
  top: "data"
  top: "label"
  include {
    phase: TRAIN
  }
  hdf5_data_param {
    source: "/home/purduethu/scratch/radon/d/deng106/CNNStatisticalModel/distributions/input/20_distributions_400_sample_size_train-parameters-path.txt"
    batch_size: 20
  }
}
layer {
  name: "conv1"
  type: "Convolution"
  bottom: "data"
  top: "conv1"
  param {
    lr_mult: 1
  }
  param {
    lr_mult: 2
  }
  convolution_param {
    num_output: 64
    pad: 2
    kernel_size: 5
    stride: 1
    weight_filler {
      type: "gaussian"
      std: 0.0001
    }
    bias_filler {
      type: "constant"
    }
  }
}
layer {
  name: "relu1"
  type: "ReLU"
  bottom: "conv1"
  top: "conv1"
}
layer {
  name: "conv2"
  type: "Convolution"
  bottom: "conv1"
  top: "conv2"
  param {
    lr_mult: 1
  }
  param {
    lr_mult: 2
  }
  convolution_param {
    num_output: 64
    pad: 2
    kernel_size: 5
    stride: 1
    weight_filler {
      type: "gaussian"
      std: 0.01
    }
    bias_filler {
      type: "constant"
    }
  }
}
layer {
  name: "relu2"
  type: "ReLU"
  bottom: "conv2"
  top: "conv2"
}
layer {
  name: "pool2"
  type: "Pooling"
  bottom: "conv2"
  top: "pool2"
  pooling_param {
    pool: MAX
    kernel_size: 3
    stride: 2
  }
}
layer {
  name: "conv3"
  type: "Convolution"
  bottom: "pool2"
  top: "conv3"
  param {
    lr_mult: 1
  }
  param {
    lr_mult: 2
  }
  convolution_param {
    num_output: 64
    pad: 2
    kernel_size: 5
    stride: 1
    weight_filler {
      type: "gaussian"
      std: 0.01
    }
    bias_filler {
      type: "constant"
    }
  }
}
layer {
  name: "relu3"
  type: "ReLU"
  bottom: "conv3"
  top: "conv3"
}
layer {
  name: "conv4"
  type: "Convolution"
  bottom: "conv3"
  top: "conv4"
  param {
    lr_mult: 1
  }
  param {
    lr_mult: 2
  }
  convolution_param {
    num_output: 64
    pad: 2
    kernel_size: 5
    stride: 1
    weight_filler {
      type: "gaussian"
      std: 0.01
    }
    bias_filler {
      type: "constant"
    }
  }
}
layer {
  name: "relu4"
  type: "ReLU"
  bottom: "conv4"
  top: "conv4"
}
layer {
  name: "conv5"
  type: "Convolution"
  bottom: "conv4"
  top: "conv5"
  param {
    lr_mult: 1
  }
  param {
    lr_mult: 2
  }
  convolution_param {
    num_output: 64
    pad: 2
    kernel_size: 5
    stride: 1
    weight_filler {
      type: "gaussian"
      std: 0.01
    }
    bias_filler {
      type: "constant"
    }
  }
}
layer {
  name: "relu5"
  type: "ReLU"
  bottom: "conv5"
  top: "conv5"
}
layer {
  name: "pool5"
  type: "Pooling"
  bottom: "conv5"
  top: "pool5"
  pooling_param {
    pool: AVE
    kernel_size: 3
    stride: 2
  }
}
layer {
  name: "ip1"
  type: "InnerProduct"
  bottom: "pool5"
  top: "ip1"
  param {
    lr_mult: 1
  }
  param {
    lr_mult: 2
  }
  inner_product_param {
    num_output: 64
    weight_filler {
      type: "gaussian"
      std: 0.1
    }
    bias_filler {
      type: "constant"
    }
  }
}
layer {
  name: "ip2"
  type: "InnerProduct"
  bottom: "ip1"
  top: "ip2"
  param {
    lr_mult: 1
  }
  param {
    lr_mult: 2
  }
  inner_product_param {
    num_output: 64
    weight_filler {
      type: "gaussian"
      std: 0.1
    }
    bias_filler {
      type: "constant"
    }
  }
}
layer {
  name: "ip3"
  type: "InnerProduct"
  bottom: "ip2"
  top: "ip3"
  param {
    lr_mult: 1
  }
  param {
    lr_mult: 2
  }
  inner_product_param {
    num_output: 1
    weight_filler {
      type: "gaussian"
      std: 0.1
    }
    bias_filler {
      type: "constant"
    }
  }
}
layer {
  name: "loss"
  type: "HuberLoss"
  bottom: "ip3"
  bottom: "label"
  top: "loss"
  include {
    phase: TRAIN
  }
}
I0507 21:20:42.988370  7554 layer_factory.hpp:77] Creating layer parameters
I0507 21:20:42.988384  7554 net.cpp:94] Creating Layer parameters
I0507 21:20:42.988389  7554 net.cpp:409] parameters -> data
I0507 21:20:42.988397  7554 net.cpp:409] parameters -> label
I0507 21:20:42.988404  7554 hdf5_data_layer.cpp:79] Loading list of HDF5 filenames from: /home/purduethu/scratch/radon/d/deng106/CNNStatisticalModel/distributions/input/20_distributions_400_sample_size_train-parameters-path.txt
I0507 21:20:42.988420  7554 hdf5_data_layer.cpp:93] Number of HDF5 files: 1
I0507 21:20:42.988991  7554 hdf5.cpp:32] Datatype class: H5T_FLOAT
I0507 21:20:43.246659  7554 net.cpp:144] Setting up parameters
I0507 21:20:43.246688  7554 net.cpp:151] Top shape: 20 1 20 20 (8000)
I0507 21:20:43.246693  7554 net.cpp:151] Top shape: 20 (20)
I0507 21:20:43.246696  7554 net.cpp:159] Memory required for data: 32080
I0507 21:20:43.246703  7554 layer_factory.hpp:77] Creating layer conv1
I0507 21:20:43.246723  7554 net.cpp:94] Creating Layer conv1
I0507 21:20:43.246728  7554 net.cpp:435] conv1 <- data
I0507 21:20:43.246734  7554 net.cpp:409] conv1 -> conv1
I0507 21:20:43.252018  7554 net.cpp:144] Setting up conv1
I0507 21:20:43.252034  7554 net.cpp:151] Top shape: 20 64 20 20 (512000)
I0507 21:20:43.252038  7554 net.cpp:159] Memory required for data: 2080080
I0507 21:20:43.252048  7554 layer_factory.hpp:77] Creating layer relu1
I0507 21:20:43.252056  7554 net.cpp:94] Creating Layer relu1
I0507 21:20:43.252059  7554 net.cpp:435] relu1 <- conv1
I0507 21:20:43.252064  7554 net.cpp:396] relu1 -> conv1 (in-place)
I0507 21:20:43.252079  7554 net.cpp:144] Setting up relu1
I0507 21:20:43.252082  7554 net.cpp:151] Top shape: 20 64 20 20 (512000)
I0507 21:20:43.252086  7554 net.cpp:159] Memory required for data: 4128080
I0507 21:20:43.252089  7554 layer_factory.hpp:77] Creating layer conv2
I0507 21:20:43.252097  7554 net.cpp:94] Creating Layer conv2
I0507 21:20:43.252100  7554 net.cpp:435] conv2 <- conv1
I0507 21:20:43.252105  7554 net.cpp:409] conv2 -> conv2
I0507 21:20:43.261947  7554 net.cpp:144] Setting up conv2
I0507 21:20:43.261962  7554 net.cpp:151] Top shape: 20 64 20 20 (512000)
I0507 21:20:43.261966  7554 net.cpp:159] Memory required for data: 6176080
I0507 21:20:43.261975  7554 layer_factory.hpp:77] Creating layer relu2
I0507 21:20:43.261981  7554 net.cpp:94] Creating Layer relu2
I0507 21:20:43.261984  7554 net.cpp:435] relu2 <- conv2
I0507 21:20:43.261989  7554 net.cpp:396] relu2 -> conv2 (in-place)
I0507 21:20:43.261996  7554 net.cpp:144] Setting up relu2
I0507 21:20:43.262001  7554 net.cpp:151] Top shape: 20 64 20 20 (512000)
I0507 21:20:43.262003  7554 net.cpp:159] Memory required for data: 8224080
I0507 21:20:43.262007  7554 layer_factory.hpp:77] Creating layer pool2
I0507 21:20:43.262019  7554 net.cpp:94] Creating Layer pool2
I0507 21:20:43.262023  7554 net.cpp:435] pool2 <- conv2
I0507 21:20:43.262028  7554 net.cpp:409] pool2 -> pool2
I0507 21:20:43.262084  7554 net.cpp:144] Setting up pool2
I0507 21:20:43.262091  7554 net.cpp:151] Top shape: 20 64 10 10 (128000)
I0507 21:20:43.262094  7554 net.cpp:159] Memory required for data: 8736080
I0507 21:20:43.262099  7554 layer_factory.hpp:77] Creating layer conv3
I0507 21:20:43.262106  7554 net.cpp:94] Creating Layer conv3
I0507 21:20:43.262109  7554 net.cpp:435] conv3 <- pool2
I0507 21:20:43.262115  7554 net.cpp:409] conv3 -> conv3
I0507 21:20:43.267416  7554 net.cpp:144] Setting up conv3
I0507 21:20:43.267428  7554 net.cpp:151] Top shape: 20 64 10 10 (128000)
I0507 21:20:43.267432  7554 net.cpp:159] Memory required for data: 9248080
I0507 21:20:43.267441  7554 layer_factory.hpp:77] Creating layer relu3
I0507 21:20:43.267447  7554 net.cpp:94] Creating Layer relu3
I0507 21:20:43.267451  7554 net.cpp:435] relu3 <- conv3
I0507 21:20:43.267455  7554 net.cpp:396] relu3 -> conv3 (in-place)
I0507 21:20:43.267462  7554 net.cpp:144] Setting up relu3
I0507 21:20:43.267467  7554 net.cpp:151] Top shape: 20 64 10 10 (128000)
I0507 21:20:43.267469  7554 net.cpp:159] Memory required for data: 9760080
I0507 21:20:43.267472  7554 layer_factory.hpp:77] Creating layer conv4
I0507 21:20:43.267482  7554 net.cpp:94] Creating Layer conv4
I0507 21:20:43.267484  7554 net.cpp:435] conv4 <- conv3
I0507 21:20:43.267489  7554 net.cpp:409] conv4 -> conv4
I0507 21:20:43.272802  7554 net.cpp:144] Setting up conv4
I0507 21:20:43.272816  7554 net.cpp:151] Top shape: 20 64 10 10 (128000)
I0507 21:20:43.272820  7554 net.cpp:159] Memory required for data: 10272080
I0507 21:20:43.272826  7554 layer_factory.hpp:77] Creating layer relu4
I0507 21:20:43.272832  7554 net.cpp:94] Creating Layer relu4
I0507 21:20:43.272836  7554 net.cpp:435] relu4 <- conv4
I0507 21:20:43.272840  7554 net.cpp:396] relu4 -> conv4 (in-place)
I0507 21:20:43.272847  7554 net.cpp:144] Setting up relu4
I0507 21:20:43.272852  7554 net.cpp:151] Top shape: 20 64 10 10 (128000)
I0507 21:20:43.272855  7554 net.cpp:159] Memory required for data: 10784080
I0507 21:20:43.272858  7554 layer_factory.hpp:77] Creating layer conv5
I0507 21:20:43.272866  7554 net.cpp:94] Creating Layer conv5
I0507 21:20:43.272869  7554 net.cpp:435] conv5 <- conv4
I0507 21:20:43.272874  7554 net.cpp:409] conv5 -> conv5
I0507 21:20:43.278944  7554 net.cpp:144] Setting up conv5
I0507 21:20:43.278959  7554 net.cpp:151] Top shape: 20 64 10 10 (128000)
I0507 21:20:43.278962  7554 net.cpp:159] Memory required for data: 11296080
I0507 21:20:43.278970  7554 layer_factory.hpp:77] Creating layer relu5
I0507 21:20:43.278976  7554 net.cpp:94] Creating Layer relu5
I0507 21:20:43.278980  7554 net.cpp:435] relu5 <- conv5
I0507 21:20:43.278985  7554 net.cpp:396] relu5 -> conv5 (in-place)
I0507 21:20:43.278992  7554 net.cpp:144] Setting up relu5
I0507 21:20:43.278996  7554 net.cpp:151] Top shape: 20 64 10 10 (128000)
I0507 21:20:43.279000  7554 net.cpp:159] Memory required for data: 11808080
I0507 21:20:43.279002  7554 layer_factory.hpp:77] Creating layer pool5
I0507 21:20:43.279007  7554 net.cpp:94] Creating Layer pool5
I0507 21:20:43.279011  7554 net.cpp:435] pool5 <- conv5
I0507 21:20:43.279014  7554 net.cpp:409] pool5 -> pool5
I0507 21:20:43.279055  7554 net.cpp:144] Setting up pool5
I0507 21:20:43.279063  7554 net.cpp:151] Top shape: 20 64 5 5 (32000)
I0507 21:20:43.279067  7554 net.cpp:159] Memory required for data: 11936080
I0507 21:20:43.279069  7554 layer_factory.hpp:77] Creating layer ip1
I0507 21:20:43.279079  7554 net.cpp:94] Creating Layer ip1
I0507 21:20:43.279083  7554 net.cpp:435] ip1 <- pool5
I0507 21:20:43.279088  7554 net.cpp:409] ip1 -> ip1
I0507 21:20:43.281633  7554 net.cpp:144] Setting up ip1
I0507 21:20:43.281642  7554 net.cpp:151] Top shape: 20 64 (1280)
I0507 21:20:43.281646  7554 net.cpp:159] Memory required for data: 11941200
I0507 21:20:43.281651  7554 layer_factory.hpp:77] Creating layer ip2
I0507 21:20:43.281658  7554 net.cpp:94] Creating Layer ip2
I0507 21:20:43.281666  7554 net.cpp:435] ip2 <- ip1
I0507 21:20:43.281672  7554 net.cpp:409] ip2 -> ip2
I0507 21:20:43.281886  7554 net.cpp:144] Setting up ip2
I0507 21:20:43.281893  7554 net.cpp:151] Top shape: 20 64 (1280)
I0507 21:20:43.281896  7554 net.cpp:159] Memory required for data: 11946320
I0507 21:20:43.281903  7554 layer_factory.hpp:77] Creating layer ip3
I0507 21:20:43.281908  7554 net.cpp:94] Creating Layer ip3
I0507 21:20:43.281911  7554 net.cpp:435] ip3 <- ip2
I0507 21:20:43.281916  7554 net.cpp:409] ip3 -> ip3
I0507 21:20:43.282025  7554 net.cpp:144] Setting up ip3
I0507 21:20:43.282032  7554 net.cpp:151] Top shape: 20 1 (20)
I0507 21:20:43.282034  7554 net.cpp:159] Memory required for data: 11946400
I0507 21:20:43.282039  7554 layer_factory.hpp:77] Creating layer loss
I0507 21:20:43.282047  7554 net.cpp:94] Creating Layer loss
I0507 21:20:43.282049  7554 net.cpp:435] loss <- ip3
I0507 21:20:43.282053  7554 net.cpp:435] loss <- label
I0507 21:20:43.282058  7554 net.cpp:409] loss -> loss
I0507 21:20:43.282114  7554 net.cpp:144] Setting up loss
…
I0507 21:20:43.373975  7554 net.cpp:323] The NetState phase (0) differed from the phase (1) specified by a rule in layer intercept
I0507 21:20:43.373991  7554 net.cpp:323] The NetState phase (0) differed from the phase (1) specified by a rule in layer accuracy
I0507 21:20:43.374076  7554 net.cpp:52] Initializing net from parameters: 
state {
  phase: TRAIN
}
layer {
  name: "parameters"
  type: "HDF5Data"
  top: "data"
  top: "label"
  include {
    phase: TRAIN
  }
  hdf5_data_param {
    source: "/home/purduethu/scratch/radon/d/deng106/CNNStatisticalModel/distributions/input/20_distributions_400_sample_size_train-distributions-path.txt"
    batch_size: 20
  }
}
layer {
  name: "conv1"
  type: "Convolution"
  bottom: "data"
  top: "conv1"
  param {
    lr_mult: 1
  }
  param {
    lr_mult: 2
  }
  convolution_param {
    num_output: 64
    pad: 2
    kernel_size: 5
    stride: 1
    weight_filler {
      type: "gaussian"
      std: 0.0001
    }
    bias_filler {
      type: "constant"
    }
  }
}
layer {
  name: "relu1"
  type: "ReLU"
  bottom: "conv1"
  top: "conv1"
}
layer {
  name: "conv2"
  type: "Convolution"
  bottom: "conv1"
  top: "conv2"
  param {
    lr_mult: 1
  }
  param {
    lr_mult: 2
  }
  convolution_param {
    num_output: 64
    pad: 2
    kernel_size: 5
    stride: 1
    weight_filler {
      type: "gaussian"
      std: 0.01
    }
    bias_filler {
      type: "constant"
    }
  }
}
layer {
  name: "relu2"
  type: "ReLU"
  bottom: "conv2"
  top: "conv2"
}
layer {
  name: "pool2"
  type: "Pooling"
  bottom: "conv2"
  top: "pool2"
  pooling_param {
    pool: MAX
    kernel_size: 3
    stride: 2
  }
}
layer {
  name: "conv3"
  type: "Convolution"
  bottom: "pool2"
  top: "conv3"
  param {
    lr_mult: 1
  }
  param {
    lr_mult: 2
  }
  convolution_param {
    num_output: 64
    pad: 2
    kernel_size: 5
    stride: 1
    weight_filler {
      type: "gaussian"
      std: 0.01
    }
    bias_filler {
      type: "constant"
    }
  }
}
layer {
  name: "relu3"
  type: "ReLU"
  bottom: "conv3"
  top: "conv3"
}
layer {
  name: "conv4"
  type: "Convolution"
  bottom: "conv3"
  top: "conv4"
  param {
    lr_mult: 1
  }
  param {
    lr_mult: 2
  }
  convolution_param {
    num_output: 64
    pad: 2
    kernel_size: 5
    stride: 1
    weight_filler {
      type: "gaussian"
      std: 0.01
    }
    bias_filler {
      type: "constant"
    }
  }
}
layer {
  name: "relu4"
  type: "ReLU"
  bottom: "conv4"
  top: "conv4"
}
layer {
  name: "conv5"
  type: "Convolution"
  bottom: "conv4"
  top: "conv5"
  param {
    lr_mult: 1
  }
  param {
    lr_mult: 2
  }
  convolution_param {
    num_output: 64
    pad: 2
    kernel_size: 5
    stride: 1
    weight_filler {
      type: "gaussian"
      std: 0.01
    }
    bias_filler {
      type: "constant"
    }
  }
}
layer {
  name: "relu5"
  type: "ReLU"
  bottom: "conv5"
  top: "conv5"
}
layer {
  name: "pool5"
  type: "Pooling"
  bottom: "conv5"
  top: "pool5"
  pooling_param {
    pool: AVE
    kernel_size: 3
    stride: 2
  }
}
layer {
  name: "ip1"
  type: "InnerProduct"
  bottom: "pool5"
  top: "ip1"
  param {
    lr_mult: 1
  }
  param {
    lr_mult: 2
  }
  inner_product_param {
    num_output: 64
    weight_filler {
      type: "gaussian"
      std: 0.1
    }
    bias_filler {
      type: "constant"
    }
  }
}
layer {
  name: "ip2"
  type: "InnerProduct"
  bottom: "ip1"
  top: "ip2"
  param {
    lr_mult: 1
  }
  param {
    lr_mult: 2
  }
  inner_product_param {
    num_output: 64
    weight_filler {
      type: "gaussian"
      std: 0.1
    }
    bias_filler {
      type: "constant"
    }
  }
}
layer {
  name: "ip3"
  type: "InnerProduct"
  bottom: "ip2"
  top: "ip3"
  param {
    lr_mult: 1
  }
  param {
    lr_mult: 2
  }
  inner_product_param {
    num_output: 50
    weight_filler {
      type: "gaussian"
      std: 0.1
    }
    bias_filler {
      type: "constant"
    }
  }
}
layer {
  name: "loss"
  type: "SoftmaxWithLoss"
  bottom: "ip3"
  bottom: "label"
  top: "loss"
}
I0507 21:20:43.374125  7554 layer_factory.hpp:77] Creating layer parameters
I0507 21:20:43.374133  7554 net.cpp:94] Creating Layer parameters
I0507 21:20:43.374137  7554 net.cpp:409] parameters -> data
I0507 21:20:43.374145  7554 net.cpp:409] parameters -> label
I0507 21:20:43.374150  7554 hdf5_data_layer.cpp:79] Loading list of HDF5 filenames from: /home/purduethu/scratch/radon/d/deng106/CNNStatisticalModel/distributions/input/20_distributions_400_sample_size_train-distributions-path.txt
I0507 21:20:43.374166  7554 hdf5_data_layer.cpp:93] Number of HDF5 files: 1
I0507 21:20:43.635731  7554 hdf5.cpp:35] Datatype class: H5T_INTEGER
I0507 21:20:43.636812  7554 net.cpp:144] Setting up parameters
I0507 21:20:43.636827  7554 net.cpp:151] Top shape: 20 1 20 20 (8000)
I0507 21:20:43.636832  7554 net.cpp:151] Top shape: 20 (20)
I0507 21:20:43.636837  7554 net.cpp:159] Memory required for data: 32080
I0507 21:20:43.636842  7554 layer_factory.hpp:77] Creating layer conv1
I0507 21:20:43.636868  7554 net.cpp:94] Creating Layer conv1
I0507 21:20:43.636873  7554 net.cpp:435] conv1 <- data
I0507 21:20:43.636879  7554 net.cpp:409] conv1 -> conv1
I0507 21:20:43.639621  7554 net.cpp:144] Setting up conv1
I0507 21:20:43.639634  7554 net.cpp:151] Top shape: 20 64 20 20 (512000)
I0507 21:20:43.639638  7554 net.cpp:159] Memory required for data: 2080080
I0507 21:20:43.639647  7554 layer_factory.hpp:77] Creating layer relu1
I0507 21:20:43.639655  7554 net.cpp:94] Creating Layer relu1
I0507 21:20:43.639659  7554 net.cpp:435] relu1 <- conv1
I0507 21:20:43.639663  7554 net.cpp:396] relu1 -> conv1 (in-place)
I0507 21:20:43.639670  7554 net.cpp:144] Setting up relu1
I0507 21:20:43.639675  7554 net.cpp:151] Top shape: 20 64 20 20 (512000)
I0507 21:20:43.639678  7554 net.cpp:159] Memory required for data: 4128080
I0507 21:20:43.639681  7554 layer_factory.hpp:77] Creating layer conv2
I0507 21:20:43.639689  7554 net.cpp:94] Creating Layer conv2
I0507 21:20:43.639693  7554 net.cpp:435] conv2 <- conv1
I0507 21:20:43.639698  7554 net.cpp:409] conv2 -> conv2
I0507 21:20:43.649307  7554 net.cpp:144] Setting up conv2
I0507 21:20:43.649322  7554 net.cpp:151] Top shape: 20 64 20 20 (512000)
I0507 21:20:43.649327  7554 net.cpp:159] Memory required for data: 6176080
I0507 21:20:43.649334  7554 layer_factory.hpp:77] Creating layer relu2
I0507 21:20:43.649341  7554 net.cpp:94] Creating Layer relu2
I0507 21:20:43.649344  7554 net.cpp:435] relu2 <- conv2
I0507 21:20:43.649349  7554 net.cpp:396] relu2 -> conv2 (in-place)
I0507 21:20:43.649356  7554 net.cpp:144] Setting up relu2
I0507 21:20:43.649360  7554 net.cpp:151] Top shape: 20 64 20 20 (512000)
I0507 21:20:43.649363  7554 net.cpp:159] Memory required for data: 8224080
I0507 21:20:43.649366  7554 layer_factory.hpp:77] Creating layer pool2
I0507 21:20:43.649374  7554 net.cpp:94] Creating Layer pool2
I0507 21:20:43.649376  7554 net.cpp:435] pool2 <- conv2
I0507 21:20:43.649380  7554 net.cpp:409] pool2 -> pool2
I0507 21:20:43.649436  7554 net.cpp:144] Setting up pool2
I0507 21:20:43.649444  7554 net.cpp:151] Top shape: 20 64 10 10 (128000)
I0507 21:20:43.649447  7554 net.cpp:159] Memory required for data: 8736080
I0507 21:20:43.649451  7554 layer_factory.hpp:77] Creating layer conv3
I0507 21:20:43.649458  7554 net.cpp:94] Creating Layer conv3
I0507 21:20:43.649462  7554 net.cpp:435] conv3 <- pool2
I0507 21:20:43.649474  7554 net.cpp:409] conv3 -> conv3
I0507 21:20:43.655653  7554 net.cpp:144] Setting up conv3
I0507 21:20:43.655668  7554 net.cpp:151] Top shape: 20 64 10 10 (128000)
I0507 21:20:43.655671  7554 net.cpp:159] Memory required for data: 9248080
I0507 21:20:43.655679  7554 layer_factory.hpp:77] Creating layer relu3
I0507 21:20:43.655685  7554 net.cpp:94] Creating Layer relu3
I0507 21:20:43.655689  7554 net.cpp:435] relu3 <- conv3
I0507 21:20:43.655694  7554 net.cpp:396] relu3 -> conv3 (in-place)
I0507 21:20:43.655700  7554 net.cpp:144] Setting up relu3
I0507 21:20:43.655704  7554 net.cpp:151] Top shape: 20 64 10 10 (128000)
I0507 21:20:43.655709  7554 net.cpp:159] Memory required for data: 9760080
I0507 21:20:43.655711  7554 layer_factory.hpp:77] Creating layer conv4
I0507 21:20:43.655719  7554 net.cpp:94] Creating Layer conv4
I0507 21:20:43.655724  7554 net.cpp:435] conv4 <- conv3
I0507 21:20:43.655728  7554 net.cpp:409] conv4 -> conv4
I0507 21:20:43.661029  7554 net.cpp:144] Setting up conv4
I0507 21:20:43.661042  7554 net.cpp:151] Top shape: 20 64 10 10 (128000)
I0507 21:20:43.661046  7554 net.cpp:159] Memory required for data: 10272080
I0507 21:20:43.661053  7554 layer_factory.hpp:77] Creating layer relu4
I0507 21:20:43.661059  7554 net.cpp:94] Creating Layer relu4
I0507 21:20:43.661062  7554 net.cpp:435] relu4 <- conv4
I0507 21:20:43.661067  7554 net.cpp:396] relu4 -> conv4 (in-place)
I0507 21:20:43.661074  7554 net.cpp:144] Setting up relu4
I0507 21:20:43.661078  7554 net.cpp:151] Top shape: 20 64 10 10 (128000)
I0507 21:20:43.661082  7554 net.cpp:159] Memory required for data: 10784080
I0507 21:20:43.661085  7554 layer_factory.hpp:77] Creating layer conv5
I0507 21:20:43.661092  7554 net.cpp:94] Creating Layer conv5
I0507 21:20:43.661097  7554 net.cpp:435] conv5 <- conv4
I0507 21:20:43.661101  7554 net.cpp:409] conv5 -> conv5
I0507 21:20:43.666440  7554 net.cpp:144] Setting up conv5
I0507 21:20:43.666453  7554 net.cpp:151] Top shape: 20 64 10 10 (128000)
I0507 21:20:43.666457  7554 net.cpp:159] Memory required for data: 11296080
I0507 21:20:43.666465  7554 layer_factory.hpp:77] Creating layer relu5
I0507 21:20:43.666471  7554 net.cpp:94] Creating Layer relu5
I0507 21:20:43.666476  7554 net.cpp:435] relu5 <- conv5
I0507 21:20:43.666481  7554 net.cpp:396] relu5 -> conv5 (in-place)
I0507 21:20:43.666486  7554 net.cpp:144] Setting up relu5
I0507 21:20:43.666491  7554 net.cpp:151] Top shape: 20 64 10 10 (128000)
I0507 21:20:43.666494  7554 net.cpp:159] Memory required for data: 11808080
I0507 21:20:43.666497  7554 layer_factory.hpp:77] Creating layer pool5
I0507 21:20:43.666502  7554 net.cpp:94] Creating Layer pool5
I0507 21:20:43.666505  7554 net.cpp:435] pool5 <- conv5
I0507 21:20:43.666510  7554 net.cpp:409] pool5 -> pool5
I0507 21:20:43.666548  7554 net.cpp:144] Setting up pool5
I0507 21:20:43.666555  7554 net.cpp:151] Top shape: 20 64 5 5 (32000)
I0507 21:20:43.666559  7554 net.cpp:159] Memory required for data: 11936080
I0507 21:20:43.666563  7554 layer_factory.hpp:77] Creating layer ip1
I0507 21:20:43.666569  7554 net.cpp:94] Creating Layer ip1
I0507 21:20:43.666573  7554 net.cpp:435] ip1 <- pool5
I0507 21:20:43.666577  7554 net.cpp:409] ip1 -> ip1
I0507 21:20:43.669133  7554 net.cpp:144] Setting up ip1
I0507 21:20:43.669142  7554 net.cpp:151] Top shape: 20 64 (1280)
I0507 21:20:43.669147  7554 net.cpp:159] Memory required for data: 11941200
I0507 21:20:43.669152  7554 layer_factory.hpp:77] Creating layer ip2
I0507 21:20:43.669157  7554 net.cpp:94] Creating Layer ip2
I0507 21:20:43.669162  7554 net.cpp:435] ip2 <- ip1
I0507 21:20:43.669167  7554 net.cpp:409] ip2 -> ip2
I0507 21:20:43.669385  7554 net.cpp:144] Setting up ip2
I0507 21:20:43.669392  7554 net.cpp:151] Top shape: 20 64 (1280)
I0507 21:20:43.669396  7554 net.cpp:159] Memory required for data: 11946320
I0507 21:20:43.669401  7554 layer_factory.hpp:77] Creating layer ip3
I0507 21:20:43.669407  7554 net.cpp:94] Creating Layer ip3
I0507 21:20:43.669410  7554 net.cpp:435] ip3 <- ip2
I0507 21:20:43.669415  7554 net.cpp:409] ip3 -> ip3
I0507 21:20:43.669615  7554 net.cpp:144] Setting up ip3
I0507 21:20:43.669622  7554 net.cpp:151] Top shape: 20 50 (1000)
I0507 21:20:43.669625  7554 net.cpp:159] Memory required for data: 11950320
I0507 21:20:43.669631  7554 layer_factory.hpp:77] Creating layer loss
I0507 21:20:43.669637  7554 net.cpp:94] Creating Layer loss
I0507 21:20:43.669641  7554 net.cpp:435] loss <- ip3
I0507 21:20:43.669644  7554 net.cpp:435] loss <- label
I0507 21:20:43.669648  7554 net.cpp:409] loss -> loss
I0507 21:20:43.669656  7554 layer_factory.hpp:77] Creating layer loss
…
I0507 21:20:43.670197  7554 solver.cpp:181] Creating test net (#0) specified by net file: ./protocol/dis_20_400_dimension.protocol_distribution
I0507 21:20:43.670222  7554 net.cpp:323] The NetState phase (1) differed from the phase (0) specified by a rule in layer parameters
I0507 21:20:43.670315  7554 net.cpp:52] Initializing net from parameters: 
state {
  phase: TEST
}
layer {
  name: "intercept"
  type: "HDF5Data"
  top: "data"
  top: "label"
  include {
    phase: TEST
  }
  hdf5_data_param {
    source: "/home/purduethu/scratch/radon/d/deng106/CNNStatisticalModel/distributions/input/20_distributions_400_sample_size_test-distributions-path.txt"
    batch_size: 20
  }
}
layer {
  name: "conv1"
  type: "Convolution"
  bottom: "data"
  top: "conv1"
  param {
    lr_mult: 1
  }
  param {
    lr_mult: 2
  }
  convolution_param {
    num_output: 64
    pad: 2
    kernel_size: 5
    stride: 1
    weight_filler {
      type: "gaussian"
      std: 0.0001
    }
    bias_filler {
      type: "constant"
    }
  }
}
layer {
  name: "relu1"
  type: "ReLU"
  bottom: "conv1"
  top: "conv1"
}
layer {
  name: "conv2"
  type: "Convolution"
  bottom: "conv1"
  top: "conv2"
  param {
    lr_mult: 1
  }
  param {
    lr_mult: 2
  }
  convolution_param {
    num_output: 64
    pad: 2
    kernel_size: 5
    stride: 1
    weight_filler {
      type: "gaussian"
      std: 0.01
    }
    bias_filler {
      type: "constant"
    }
  }
}
layer {
  name: "relu2"
  type: "ReLU"
  bottom: "conv2"
  top: "conv2"
}
layer {
  name: "pool2"
  type: "Pooling"
  bottom: "conv2"
  top: "pool2"
  pooling_param {
    pool: MAX
    kernel_size: 3
    stride: 2
  }
}
layer {
  name: "conv3"
  type: "Convolution"
  bottom: "pool2"
  top: "conv3"
  param {
    lr_mult: 1
  }
  param {
    lr_mult: 2
  }
  convolution_param {
    num_output: 64
    pad: 2
    kernel_size: 5
    stride: 1
    weight_filler {
      type: "gaussian"
      std: 0.01
    }
    bias_filler {
      type: "constant"
    }
  }
}
layer {
  name: "relu3"
  type: "ReLU"
  bottom: "conv3"
  top: "conv3"
}
layer {
  name: "conv4"
  type: "Convolution"
  bottom: "conv3"
  top: "conv4"
  param {
    lr_mult: 1
  }
  param {
    lr_mult: 2
  }
  convolution_param {
    num_output: 64
    pad: 2
    kernel_size: 5
    stride: 1
    weight_filler {
      type: "gaussian"
      std: 0.01
    }
    bias_filler {
      type: "constant"
    }
  }
}
layer {
  name: "relu4"
  type: "ReLU"
  bottom: "conv4"
  top: "conv4"
}
layer {
  name: "conv5"
  type: "Convolution"
  bottom: "conv4"
  top: "conv5"
  param {
    lr_mult: 1
  }
  param {
    lr_mult: 2
  }
  convolution_param {
    num_output: 64
    pad: 2
    kernel_size: 5
    stride: 1
    weight_filler {
      type: "gaussian"
      std: 0.01
    }
    bias_filler {
      type: "constant"
    }
  }
}
layer {
  name: "relu5"
  type: "ReLU"
  bottom: "conv5"
  top: "conv5"
}
layer {
  name: "pool5"
  type: "Pooling"
  bottom: "conv5"
  top: "pool5"
  pooling_param {
    pool: AVE
    kernel_size: 3
    stride: 2
  }
}
layer {
  name: "ip1"
  type: "InnerProduct"
  bottom: "pool5"
  top: "ip1"
  param {
    lr_mult: 1
  }
  param {
    lr_mult: 2
  }
  inner_product_param {
    num_output: 64
    weight_filler {
      type: "gaussian"
      std: 0.1
    }
    bias_filler {
      type: "constant"
    }
  }
}
layer {
  name: "ip2"
  type: "InnerProduct"
  bottom: "ip1"
  top: "ip2"
  param {
    lr_mult: 1
  }
  param {
    lr_mult: 2
  }
  inner_product_param {
    num_output: 64
    weight_filler {
      type: "gaussian"
      std: 0.1
    }
    bias_filler {
      type: "constant"
    }
  }
}
layer {
  name: "ip3"
  type: "InnerProduct"
  bottom: "ip2"
  top: "ip3"
  param {
    lr_mult: 1
  }
  param {
    lr_mult: 2
  }
  inner_product_param {
    num_output: 50
    weight_filler {
      type: "gaussian"
      std: 0.1
    }
    bias_filler {
      type: "constant"
    }
  }
}
layer {
  name: "accuracy"
  type: "Accuracy"
  bottom: "ip3"
  bottom: "label"
  top: "accuracy"
  include {
    phase: TEST
  }
}
layer {
  name: "loss"
  type: "SoftmaxWithLoss"
  bottom: "ip3"
  bottom: "label"
  top: "loss"
}
I0507 21:20:43.670377  7554 layer_factory.hpp:77] Creating layer intercept
I0507 21:20:43.670385  7554 net.cpp:94] Creating Layer intercept
I0507 21:20:43.670389  7554 net.cpp:409] intercept -> data
I0507 21:20:43.670397  7554 net.cpp:409] intercept -> label
I0507 21:20:43.670403  7554 hdf5_data_layer.cpp:79] Loading list of HDF5 filenames from: /home/purduethu/scratch/radon/d/deng106/CNNStatisticalModel/distributions/input/20_distributions_400_sample_size_test-distributions-path.txt
I0507 21:20:43.670419  7554 hdf5_data_layer.cpp:93] Number of HDF5 files: 1
I0507 21:20:43.736955  7554 net.cpp:144] Setting up intercept
I0507 21:20:43.736989  7554 net.cpp:151] Top shape: 20 1 20 20 (8000)
I0507 21:20:43.736994  7554 net.cpp:151] Top shape: 20 (20)
I0507 21:20:43.736997  7554 net.cpp:159] Memory required for data: 32080
I0507 21:20:43.737004  7554 layer_factory.hpp:77] Creating layer label_intercept_1_split
I0507 21:20:43.737022  7554 net.cpp:94] Creating Layer label_intercept_1_split
I0507 21:20:43.737027  7554 net.cpp:435] label_intercept_1_split <- label
I0507 21:20:43.737033  7554 net.cpp:409] label_intercept_1_split -> label_intercept_1_split_0
I0507 21:20:43.737042  7554 net.cpp:409] label_intercept_1_split -> label_intercept_1_split_1
I0507 21:20:43.737085  7554 net.cpp:144] Setting up label_intercept_1_split
I0507 21:20:43.737092  7554 net.cpp:151] Top shape: 20 (20)
I0507 21:20:43.737095  7554 net.cpp:151] Top shape: 20 (20)
I0507 21:20:43.737098  7554 net.cpp:159] Memory required for data: 32240
I0507 21:20:43.737102  7554 layer_factory.hpp:77] Creating layer conv1
I0507 21:20:43.737112  7554 net.cpp:94] Creating Layer conv1
I0507 21:20:43.737116  7554 net.cpp:435] conv1 <- data
I0507 21:20:43.737120  7554 net.cpp:409] conv1 -> conv1
I0507 21:20:43.738456  7554 net.cpp:144] Setting up conv1
I0507 21:20:43.738481  7554 net.cpp:151] Top shape: 20 64 20 20 (512000)
I0507 21:20:43.738486  7554 net.cpp:159] Memory required for data: 2080240
I0507 21:20:43.738494  7554 layer_factory.hpp:77] Creating layer relu1
I0507 21:20:43.738502  7554 net.cpp:94] Creating Layer relu1
I0507 21:20:43.738505  7554 net.cpp:435] relu1 <- conv1
I0507 21:20:43.738510  7554 net.cpp:396] relu1 -> conv1 (in-place)
I0507 21:20:43.738517  7554 net.cpp:144] Setting up relu1
I0507 21:20:43.738521  7554 net.cpp:151] Top shape: 20 64 20 20 (512000)
I0507 21:20:43.738524  7554 net.cpp:159] Memory required for data: 4128240
I0507 21:20:43.738528  7554 layer_factory.hpp:77] Creating layer conv2
I0507 21:20:43.738535  7554 net.cpp:94] Creating Layer conv2
I0507 21:20:43.738539  7554 net.cpp:435] conv2 <- conv1
I0507 21:20:43.738544  7554 net.cpp:409] conv2 -> conv2
I0507 21:20:43.743649  7554 net.cpp:144] Setting up conv2
I0507 21:20:43.743662  7554 net.cpp:151] Top shape: 20 64 20 20 (512000)
I0507 21:20:43.743666  7554 net.cpp:159] Memory required for data: 6176240
I0507 21:20:43.743674  7554 layer_factory.hpp:77] Creating layer relu2
I0507 21:20:43.743680  7554 net.cpp:94] Creating Layer relu2
I0507 21:20:43.743683  7554 net.cpp:435] relu2 <- conv2
I0507 21:20:43.743688  7554 net.cpp:396] relu2 -> conv2 (in-place)
I0507 21:20:43.743695  7554 net.cpp:144] Setting up relu2
I0507 21:20:43.743700  7554 net.cpp:151] Top shape: 20 64 20 20 (512000)
I0507 21:20:43.743702  7554 net.cpp:159] Memory required for data: 8224240
I0507 21:20:43.743705  7554 layer_factory.hpp:77] Creating layer pool2
I0507 21:20:43.743711  7554 net.cpp:94] Creating Layer pool2
I0507 21:20:43.743715  7554 net.cpp:435] pool2 <- conv2
I0507 21:20:43.743719  7554 net.cpp:409] pool2 -> pool2
I0507 21:20:43.743773  7554 net.cpp:144] Setting up pool2
I0507 21:20:43.743780  7554 net.cpp:151] Top shape: 20 64 10 10 (128000)
I0507 21:20:43.743783  7554 net.cpp:159] Memory required for data: 8736240
I0507 21:20:43.743787  7554 layer_factory.hpp:77] Creating layer conv3
I0507 21:20:43.743794  7554 net.cpp:94] Creating Layer conv3
I0507 21:20:43.743798  7554 net.cpp:435] conv3 <- pool2
I0507 21:20:43.743803  7554 net.cpp:409] conv3 -> conv3
I0507 21:20:43.748695  7554 net.cpp:144] Setting up conv3
I0507 21:20:43.748708  7554 net.cpp:151] Top shape: 20 64 10 10 (128000)
I0507 21:20:43.748713  7554 net.cpp:159] Memory required for data: 9248240
I0507 21:20:43.748721  7554 layer_factory.hpp:77] Creating layer relu3
I0507 21:20:43.748728  7554 net.cpp:94] Creating Layer relu3
I0507 21:20:43.748731  7554 net.cpp:435] relu3 <- conv3
I0507 21:20:43.748736  7554 net.cpp:396] relu3 -> conv3 (in-place)
I0507 21:20:43.748744  7554 net.cpp:144] Setting up relu3
I0507 21:20:43.748747  7554 net.cpp:151] Top shape: 20 64 10 10 (128000)
I0507 21:20:43.748750  7554 net.cpp:159] Memory required for data: 9760240
I0507 21:20:43.748754  7554 layer_factory.hpp:77] Creating layer conv4
I0507 21:20:43.748761  7554 net.cpp:94] Creating Layer conv4
I0507 21:20:43.748765  7554 net.cpp:435] conv4 <- conv3
I0507 21:20:43.748770  7554 net.cpp:409] conv4 -> conv4
I0507 21:20:43.752303  7554 net.cpp:144] Setting up conv4
I0507 21:20:43.752316  7554 net.cpp:151] Top shape: 20 64 10 10 (128000)
I0507 21:20:43.752321  7554 net.cpp:159] Memory required for data: 10272240
I0507 21:20:43.752326  7554 layer_factory.hpp:77] Creating layer relu4
I0507 21:20:43.752332  7554 net.cpp:94] Creating Layer relu4
I0507 21:20:43.752336  7554 net.cpp:435] relu4 <- conv4
I0507 21:20:43.752341  7554 net.cpp:396] relu4 -> conv4 (in-place)
I0507 21:20:43.752347  7554 net.cpp:144] Setting up relu4
I0507 21:20:43.752351  7554 net.cpp:151] Top shape: 20 64 10 10 (128000)
I0507 21:20:43.752354  7554 net.cpp:159] Memory required for data: 10784240
I0507 21:20:43.752357  7554 layer_factory.hpp:77] Creating layer conv5
I0507 21:20:43.752365  7554 net.cpp:94] Creating Layer conv5
I0507 21:20:43.752368  7554 net.cpp:435] conv5 <- conv4
I0507 21:20:43.752373  7554 net.cpp:409] conv5 -> conv5
I0507 21:20:43.756363  7554 net.cpp:144] Setting up conv5
I0507 21:20:43.756381  7554 net.cpp:151] Top shape: 20 64 10 10 (128000)
I0507 21:20:43.756384  7554 net.cpp:159] Memory required for data: 11296240
I0507 21:20:43.756392  7554 layer_factory.hpp:77] Creating layer relu5
I0507 21:20:43.756398  7554 net.cpp:94] Creating Layer relu5
I0507 21:20:43.756402  7554 net.cpp:435] relu5 <- conv5
I0507 21:20:43.756407  7554 net.cpp:396] relu5 -> conv5 (in-place)
I0507 21:20:43.756413  7554 net.cpp:144] Setting up relu5
I0507 21:20:43.756418  7554 net.cpp:151] Top shape: 20 64 10 10 (128000)
I0507 21:20:43.756422  7554 net.cpp:159] Memory required for data: 11808240
I0507 21:20:43.756424  7554 layer_factory.hpp:77] Creating layer pool5
I0507 21:20:43.756429  7554 net.cpp:94] Creating Layer pool5
I0507 21:20:43.756433  7554 net.cpp:435] pool5 <- conv5
I0507 21:20:43.756436  7554 net.cpp:409] pool5 -> pool5
I0507 21:20:43.756475  7554 net.cpp:144] Setting up pool5
I0507 21:20:43.756482  7554 net.cpp:151] Top shape: 20 64 5 5 (32000)
I0507 21:20:43.756485  7554 net.cpp:159] Memory required for data: 11936240
I0507 21:20:43.756489  7554 layer_factory.hpp:77] Creating layer ip1
I0507 21:20:43.756495  7554 net.cpp:94] Creating Layer ip1
I0507 21:20:43.756498  7554 net.cpp:435] ip1 <- pool5
I0507 21:20:43.756503  7554 net.cpp:409] ip1 -> ip1
I0507 21:20:43.759063  7554 net.cpp:144] Setting up ip1
I0507 21:20:43.759073  7554 net.cpp:151] Top shape: 20 64 (1280)
I0507 21:20:43.759076  7554 net.cpp:159] Memory required for data: 11941360
I0507 21:20:43.759083  7554 layer_factory.hpp:77] Creating layer ip2
I0507 21:20:43.759089  7554 net.cpp:94] Creating Layer ip2
I0507 21:20:43.759093  7554 net.cpp:435] ip2 <- ip1
I0507 21:20:43.759097  7554 net.cpp:409] ip2 -> ip2
I0507 21:20:43.759332  7554 net.cpp:144] Setting up ip2
I0507 21:20:43.759341  7554 net.cpp:151] Top shape: 20 64 (1280)
I0507 21:20:43.759343  7554 net.cpp:159] Memory required for data: 11946480
I0507 21:20:43.759348  7554 layer_factory.hpp:77] Creating layer ip3
I0507 21:20:43.759356  7554 net.cpp:94] Creating Layer ip3
I0507 21:20:43.759359  7554 net.cpp:435] ip3 <- ip2
I0507 21:20:43.759366  7554 net.cpp:409] ip3 -> ip3
I0507 21:20:43.759580  7554 net.cpp:144] Setting up ip3
I0507 21:20:43.759588  7554 net.cpp:151] Top shape: 20 50 (1000)
I0507 21:20:43.759590  7554 net.cpp:159] Memory required for data: 11950480
I0507 21:20:43.759595  7554 layer_factory.hpp:77] Creating layer ip3_ip3_0_split
I0507 21:20:43.759600  7554 net.cpp:94] Creating Layer ip3_ip3_0_split
I0507 21:20:43.759603  7554 net.cpp:435] ip3_ip3_0_split <- ip3
I0507 21:20:43.759608  7554 net.cpp:409] ip3_ip3_0_split -> ip3_ip3_0_split_0
I0507 21:20:43.759613  7554 net.cpp:409] ip3_ip3_0_split -> ip3_ip3_0_split_1
I0507 21:20:43.759655  7554 net.cpp:144] Setting up ip3_ip3_0_split
I0507 21:20:43.759661  7554 net.cpp:151] Top shape: 20 50 (1000)
I0507 21:20:43.759665  7554 net.cpp:151] Top shape: 20 50 (1000)
I0507 21:20:43.759668  7554 net.cpp:159] Memory required for data: 11958480
I0507 21:20:43.759671  7554 layer_factory.hpp:77] Creating layer accuracy
I0507 21:20:43.759677  7554 net.cpp:94] Creating Layer accuracy
I0507 21:20:43.759681  7554 net.cpp:435] accuracy <- ip3_ip3_0_split_0
I0507 21:20:43.759685  7554 net.cpp:435] accuracy <- label_intercept_1_split_0
I0507 21:20:43.759690  7554 net.cpp:409] accuracy -> accuracy
…
