…
I0502 15:55:18.907519 11487 net.cpp:323] The NetState phase (0) differed from the phase (1) specified by a rule in layer intercept
I0502 15:55:18.907536 11487 net.cpp:323] The NetState phase (0) differed from the phase (1) specified by a rule in layer accuracy
I0502 15:55:18.907626 11487 net.cpp:52] Initializing net from parameters: 
state {
  phase: TRAIN
}
layer {
  name: "parameters"
  type: "HDF5Data"
  top: "data"
  top: "label"
  include {
    phase: TRAIN
  }
  hdf5_data_param {
    source: "/home/purduethu/scratch/radon/d/deng106/CNNStatisticalModel/distributions/input/50_distributions_400_sample_size_train-distributions-path.txt"
    batch_size: 20
  }
}
layer {
  name: "conv1"
  type: "Convolution"
  bottom: "data"
  top: "conv1"
  param {
    lr_mult: 1
  }
  param {
    lr_mult: 2
  }
  convolution_param {
    num_output: 64
    pad: 2
    kernel_size: 5
    stride: 1
    weight_filler {
      type: "gaussian"
      std: 0.0001
    }
    bias_filler {
      type: "constant"
    }
  }
}
layer {
  name: "relu1"
  type: "ReLU"
  bottom: "conv1"
  top: "conv1"
}
layer {
  name: "conv2"
  type: "Convolution"
  bottom: "conv1"
  top: "conv2"
  param {
    lr_mult: 1
  }
  param {
    lr_mult: 2
  }
  convolution_param {
    num_output: 64
    pad: 2
    kernel_size: 5
    stride: 1
    weight_filler {
      type: "gaussian"
      std: 0.01
    }
    bias_filler {
      type: "constant"
    }
  }
}
layer {
  name: "relu2"
  type: "ReLU"
  bottom: "conv2"
  top: "conv2"
}
layer {
  name: "pool2"
  type: "Pooling"
  bottom: "conv2"
  top: "pool2"
  pooling_param {
    pool: MAX
    kernel_size: 3
    stride: 2
  }
}
layer {
  name: "conv3"
  type: "Convolution"
  bottom: "pool2"
  top: "conv3"
  param {
    lr_mult: 1
  }
  param {
    lr_mult: 2
  }
  convolution_param {
    num_output: 64
    pad: 2
    kernel_size: 5
    stride: 1
    weight_filler {
      type: "gaussian"
      std: 0.01
    }
    bias_filler {
      type: "constant"
    }
  }
}
layer {
  name: "relu3"
  type: "ReLU"
  bottom: "conv3"
  top: "conv3"
}
layer {
  name: "conv4"
  type: "Convolution"
  bottom: "conv3"
  top: "conv4"
  param {
    lr_mult: 1
  }
  param {
    lr_mult: 2
  }
  convolution_param {
    num_output: 64
    pad: 2
    kernel_size: 5
    stride: 1
    weight_filler {
      type: "gaussian"
      std: 0.01
    }
    bias_filler {
      type: "constant"
    }
  }
}
layer {
  name: "relu4"
  type: "ReLU"
  bottom: "conv4"
  top: "conv4"
}
layer {
  name: "conv5"
  type: "Convolution"
  bottom: "conv4"
  top: "conv5"
  param {
    lr_mult: 1
  }
  param {
    lr_mult: 2
  }
  convolution_param {
    num_output: 64
    pad: 2
    kernel_size: 5
    stride: 1
    weight_filler {
      type: "gaussian"
      std: 0.01
    }
    bias_filler {
      type: "constant"
    }
  }
}
layer {
  name: "relu5"
  type: "ReLU"
  bottom: "conv5"
  top: "conv5"
}
layer {
  name: "pool5"
  type: "Pooling"
  bottom: "conv5"
  top: "pool5"
  pooling_param {
    pool: AVE
    kernel_size: 3
    stride: 2
  }
}
layer {
  name: "ip1"
  type: "InnerProduct"
  bottom: "pool5"
  top: "ip1"
  param {
    lr_mult: 1
  }
  param {
    lr_mult: 2
  }
  inner_product_param {
    num_output: 64
    weight_filler {
      type: "gaussian"
      std: 0.1
    }
    bias_filler {
      type: "constant"
    }
  }
}
layer {
  name: "ip2"
  type: "InnerProduct"
  bottom: "ip1"
  top: "ip2"
  param {
    lr_mult: 1
  }
  param {
    lr_mult: 2
  }
  inner_product_param {
    num_output: 64
    weight_filler {
      type: "gaussian"
      std: 0.1
    }
    bias_filler {
      type: "constant"
    }
  }
}
layer {
  name: "ip3"
  type: "InnerProduct"
  bottom: "ip2"
  top: "ip3"
  param {
    lr_mult: 1
  }
  param {
    lr_mult: 2
  }
  inner_product_param {
    num_output: 50
    weight_filler {
      type: "gaussian"
      std: 0.1
    }
    bias_filler {
      type: "constant"
    }
  }
}
layer {
  name: "loss"
  type: "SoftmaxWithLoss"
  bottom: "ip3"
  bottom: "label"
  top: "loss"
}
I0502 15:55:18.907701 11487 layer_factory.hpp:77] Creating layer parameters
I0502 15:55:18.907718 11487 net.cpp:94] Creating Layer parameters
I0502 15:55:18.907724 11487 net.cpp:409] parameters -> data
I0502 15:55:18.907744 11487 net.cpp:409] parameters -> label
I0502 15:55:18.907754 11487 hdf5_data_layer.cpp:79] Loading list of HDF5 filenames from: /home/purduethu/scratch/radon/d/deng106/CNNStatisticalModel/distributions/input/50_distributions_400_sample_size_train-distributions-path.txt
I0502 15:55:18.907780 11487 hdf5_data_layer.cpp:93] Number of HDF5 files: 1
I0502 15:55:18.908295 11487 hdf5.cpp:32] Datatype class: H5T_FLOAT
I0502 15:55:19.577183 11487 hdf5.cpp:35] Datatype class: H5T_INTEGER
I0502 15:55:19.580217 11487 net.cpp:144] Setting up parameters
I0502 15:55:19.580256 11487 net.cpp:151] Top shape: 20 1 20 20 (8000)
I0502 15:55:19.580262 11487 net.cpp:151] Top shape: 20 (20)
I0502 15:55:19.580266 11487 net.cpp:159] Memory required for data: 32080
I0502 15:55:19.580274 11487 layer_factory.hpp:77] Creating layer conv1
I0502 15:55:19.580293 11487 net.cpp:94] Creating Layer conv1
I0502 15:55:19.580298 11487 net.cpp:435] conv1 <- data
I0502 15:55:19.580309 11487 net.cpp:409] conv1 -> conv1
I0502 15:55:19.586937 11487 net.cpp:144] Setting up conv1
I0502 15:55:19.586974 11487 net.cpp:151] Top shape: 20 64 20 20 (512000)
I0502 15:55:19.586978 11487 net.cpp:159] Memory required for data: 2080080
I0502 15:55:19.586993 11487 layer_factory.hpp:77] Creating layer relu1
I0502 15:55:19.587004 11487 net.cpp:94] Creating Layer relu1
I0502 15:55:19.587009 11487 net.cpp:435] relu1 <- conv1
I0502 15:55:19.587014 11487 net.cpp:396] relu1 -> conv1 (in-place)
I0502 15:55:19.587036 11487 net.cpp:144] Setting up relu1
I0502 15:55:19.587043 11487 net.cpp:151] Top shape: 20 64 20 20 (512000)
I0502 15:55:19.587045 11487 net.cpp:159] Memory required for data: 4128080
I0502 15:55:19.587049 11487 layer_factory.hpp:77] Creating layer conv2
I0502 15:55:19.587059 11487 net.cpp:94] Creating Layer conv2
I0502 15:55:19.587062 11487 net.cpp:435] conv2 <- conv1
I0502 15:55:19.587069 11487 net.cpp:409] conv2 -> conv2
I0502 15:55:19.601670 11487 net.cpp:144] Setting up conv2
I0502 15:55:19.601707 11487 net.cpp:151] Top shape: 20 64 20 20 (512000)
I0502 15:55:19.601712 11487 net.cpp:159] Memory required for data: 6176080
I0502 15:55:19.601727 11487 layer_factory.hpp:77] Creating layer relu2
I0502 15:55:19.601737 11487 net.cpp:94] Creating Layer relu2
I0502 15:55:19.601742 11487 net.cpp:435] relu2 <- conv2
I0502 15:55:19.601747 11487 net.cpp:396] relu2 -> conv2 (in-place)
I0502 15:55:19.601758 11487 net.cpp:144] Setting up relu2
I0502 15:55:19.601763 11487 net.cpp:151] Top shape: 20 64 20 20 (512000)
I0502 15:55:19.601766 11487 net.cpp:159] Memory required for data: 8224080
I0502 15:55:19.601769 11487 layer_factory.hpp:77] Creating layer pool2
I0502 15:55:19.601788 11487 net.cpp:94] Creating Layer pool2
I0502 15:55:19.601791 11487 net.cpp:435] pool2 <- conv2
I0502 15:55:19.601796 11487 net.cpp:409] pool2 -> pool2
I0502 15:55:19.601876 11487 net.cpp:144] Setting up pool2
I0502 15:55:19.601883 11487 net.cpp:151] Top shape: 20 64 10 10 (128000)
I0502 15:55:19.601886 11487 net.cpp:159] Memory required for data: 8736080
I0502 15:55:19.601889 11487 layer_factory.hpp:77] Creating layer conv3
I0502 15:55:19.601899 11487 net.cpp:94] Creating Layer conv3
I0502 15:55:19.601903 11487 net.cpp:435] conv3 <- pool2
I0502 15:55:19.601917 11487 net.cpp:409] conv3 -> conv3
I0502 15:55:19.609555 11487 net.cpp:144] Setting up conv3
I0502 15:55:19.609592 11487 net.cpp:151] Top shape: 20 64 10 10 (128000)
I0502 15:55:19.609596 11487 net.cpp:159] Memory required for data: 9248080
I0502 15:55:19.609609 11487 layer_factory.hpp:77] Creating layer relu3
I0502 15:55:19.609619 11487 net.cpp:94] Creating Layer relu3
I0502 15:55:19.609624 11487 net.cpp:435] relu3 <- conv3
I0502 15:55:19.609629 11487 net.cpp:396] relu3 -> conv3 (in-place)
I0502 15:55:19.609639 11487 net.cpp:144] Setting up relu3
I0502 15:55:19.609644 11487 net.cpp:151] Top shape: 20 64 10 10 (128000)
I0502 15:55:19.609647 11487 net.cpp:159] Memory required for data: 9760080
I0502 15:55:19.609650 11487 layer_factory.hpp:77] Creating layer conv4
I0502 15:55:19.609661 11487 net.cpp:94] Creating Layer conv4
I0502 15:55:19.609665 11487 net.cpp:435] conv4 <- conv3
I0502 15:55:19.609670 11487 net.cpp:409] conv4 -> conv4
I0502 15:55:19.617533 11487 net.cpp:144] Setting up conv4
I0502 15:55:19.617570 11487 net.cpp:151] Top shape: 20 64 10 10 (128000)
I0502 15:55:19.617574 11487 net.cpp:159] Memory required for data: 10272080
I0502 15:55:19.617584 11487 layer_factory.hpp:77] Creating layer relu4
I0502 15:55:19.617594 11487 net.cpp:94] Creating Layer relu4
I0502 15:55:19.617599 11487 net.cpp:435] relu4 <- conv4
I0502 15:55:19.617605 11487 net.cpp:396] relu4 -> conv4 (in-place)
I0502 15:55:19.617615 11487 net.cpp:144] Setting up relu4
I0502 15:55:19.617620 11487 net.cpp:151] Top shape: 20 64 10 10 (128000)
I0502 15:55:19.617624 11487 net.cpp:159] Memory required for data: 10784080
I0502 15:55:19.617626 11487 layer_factory.hpp:77] Creating layer conv5
I0502 15:55:19.617637 11487 net.cpp:94] Creating Layer conv5
I0502 15:55:19.617641 11487 net.cpp:435] conv5 <- conv4
I0502 15:55:19.617646 11487 net.cpp:409] conv5 -> conv5
I0502 15:55:19.625468 11487 net.cpp:144] Setting up conv5
I0502 15:55:19.625504 11487 net.cpp:151] Top shape: 20 64 10 10 (128000)
I0502 15:55:19.625507 11487 net.cpp:159] Memory required for data: 11296080
I0502 15:55:19.625521 11487 layer_factory.hpp:77] Creating layer relu5
I0502 15:55:19.625531 11487 net.cpp:94] Creating Layer relu5
I0502 15:55:19.625536 11487 net.cpp:435] relu5 <- conv5
I0502 15:55:19.625541 11487 net.cpp:396] relu5 -> conv5 (in-place)
I0502 15:55:19.625551 11487 net.cpp:144] Setting up relu5
I0502 15:55:19.625556 11487 net.cpp:151] Top shape: 20 64 10 10 (128000)
I0502 15:55:19.625560 11487 net.cpp:159] Memory required for data: 11808080
I0502 15:55:19.625562 11487 layer_factory.hpp:77] Creating layer pool5
I0502 15:55:19.625568 11487 net.cpp:94] Creating Layer pool5
I0502 15:55:19.625572 11487 net.cpp:435] pool5 <- conv5
I0502 15:55:19.625576 11487 net.cpp:409] pool5 -> pool5
I0502 15:55:19.625640 11487 net.cpp:144] Setting up pool5
I0502 15:55:19.625648 11487 net.cpp:151] Top shape: 20 64 5 5 (32000)
I0502 15:55:19.625651 11487 net.cpp:159] Memory required for data: 11936080
I0502 15:55:19.625654 11487 layer_factory.hpp:77] Creating layer ip1
I0502 15:55:19.625665 11487 net.cpp:94] Creating Layer ip1
I0502 15:55:19.625669 11487 net.cpp:435] ip1 <- pool5
I0502 15:55:19.625674 11487 net.cpp:409] ip1 -> ip1
I0502 15:55:19.628221 11487 net.cpp:144] Setting up ip1
I0502 15:55:19.628237 11487 net.cpp:151] Top shape: 20 64 (1280)
I0502 15:55:19.628240 11487 net.cpp:159] Memory required for data: 11941200
I0502 15:55:19.628247 11487 layer_factory.hpp:77] Creating layer ip2
I0502 15:55:19.628262 11487 net.cpp:94] Creating Layer ip2
I0502 15:55:19.628267 11487 net.cpp:435] ip2 <- ip1
I0502 15:55:19.628271 11487 net.cpp:409] ip2 -> ip2
I0502 15:55:19.628443 11487 net.cpp:144] Setting up ip2
I0502 15:55:19.628449 11487 net.cpp:151] Top shape: 20 64 (1280)
I0502 15:55:19.628453 11487 net.cpp:159] Memory required for data: 11946320
I0502 15:55:19.628458 11487 layer_factory.hpp:77] Creating layer ip3
I0502 15:55:19.628463 11487 net.cpp:94] Creating Layer ip3
I0502 15:55:19.628466 11487 net.cpp:435] ip3 <- ip2
I0502 15:55:19.628470 11487 net.cpp:409] ip3 -> ip3
I0502 15:55:19.628643 11487 net.cpp:144] Setting up ip3
I0502 15:55:19.628651 11487 net.cpp:151] Top shape: 20 50 (1000)
I0502 15:55:19.628655 11487 net.cpp:159] Memory required for data: 11950320
I0502 15:55:19.628660 11487 layer_factory.hpp:77] Creating layer loss
I0502 15:55:19.628667 11487 net.cpp:94] Creating Layer loss
I0502 15:55:19.628670 11487 net.cpp:435] loss <- ip3
I0502 15:55:19.628674 11487 net.cpp:435] loss <- label
I0502 15:55:19.628680 11487 net.cpp:409] loss -> loss
I0502 15:55:19.628690 11487 layer_factory.hpp:77] Creating layer loss
…
I0502 15:55:19.629204 11487 solver.cpp:181] Creating test net (#0) specified by net file: ./protocol/dis_50_400_dimension.protocol_distribution
I0502 15:55:19.629231 11487 net.cpp:323] The NetState phase (1) differed from the phase (0) specified by a rule in layer parameters
I0502 15:55:19.629328 11487 net.cpp:52] Initializing net from parameters: 
state {
  phase: TEST
}
layer {
  name: "intercept"
  type: "HDF5Data"
  top: "data"
  top: "label"
  include {
    phase: TEST
  }
  hdf5_data_param {
    source: "/home/purduethu/scratch/radon/d/deng106/CNNStatisticalModel/distributions/input/50_distributions_400_sample_size_test-distributions-path.txt"
    batch_size: 20
  }
}
layer {
  name: "conv1"
  type: "Convolution"
  bottom: "data"
  top: "conv1"
  param {
    lr_mult: 1
  }
  param {
    lr_mult: 2
  }
  convolution_param {
    num_output: 64
    pad: 2
    kernel_size: 5
    stride: 1
    weight_filler {
      type: "gaussian"
      std: 0.0001
    }
    bias_filler {
      type: "constant"
    }
  }
}
layer {
  name: "relu1"
  type: "ReLU"
  bottom: "conv1"
  top: "conv1"
}
layer {
  name: "conv2"
  type: "Convolution"
  bottom: "conv1"
  top: "conv2"
  param {
    lr_mult: 1
  }
  param {
    lr_mult: 2
  }
  convolution_param {
    num_output: 64
    pad: 2
    kernel_size: 5
    stride: 1
    weight_filler {
      type: "gaussian"
      std: 0.01
    }
    bias_filler {
      type: "constant"
    }
  }
}
layer {
  name: "relu2"
  type: "ReLU"
  bottom: "conv2"
  top: "conv2"
}
layer {
  name: "pool2"
  type: "Pooling"
  bottom: "conv2"
  top: "pool2"
  pooling_param {
    pool: MAX
    kernel_size: 3
    stride: 2
  }
}
layer {
  name: "conv3"
  type: "Convolution"
  bottom: "pool2"
  top: "conv3"
  param {
    lr_mult: 1
  }
  param {
    lr_mult: 2
  }
  convolution_param {
    num_output: 64
    pad: 2
    kernel_size: 5
    stride: 1
    weight_filler {
      type: "gaussian"
      std: 0.01
    }
    bias_filler {
      type: "constant"
    }
  }
}
layer {
  name: "relu3"
  type: "ReLU"
  bottom: "conv3"
  top: "conv3"
}
layer {
  name: "conv4"
  type: "Convolution"
  bottom: "conv3"
  top: "conv4"
  param {
    lr_mult: 1
  }
  param {
    lr_mult: 2
  }
  convolution_param {
    num_output: 64
    pad: 2
    kernel_size: 5
    stride: 1
    weight_filler {
      type: "gaussian"
      std: 0.01
    }
    bias_filler {
      type: "constant"
    }
  }
}
layer {
  name: "relu4"
  type: "ReLU"
  bottom: "conv4"
  top: "conv4"
}
layer {
  name: "conv5"
  type: "Convolution"
  bottom: "conv4"
  top: "conv5"
  param {
    lr_mult: 1
  }
  param {
    lr_mult: 2
  }
  convolution_param {
    num_output: 64
    pad: 2
    kernel_size: 5
    stride: 1
    weight_filler {
      type: "gaussian"
      std: 0.01
    }
    bias_filler {
      type: "constant"
    }
  }
}
layer {
  name: "relu5"
  type: "ReLU"
  bottom: "conv5"
  top: "conv5"
}
layer {
  name: "pool5"
  type: "Pooling"
  bottom: "conv5"
  top: "pool5"
  pooling_param {
    pool: AVE
    kernel_size: 3
    stride: 2
  }
}
layer {
  name: "ip1"
  type: "InnerProduct"
  bottom: "pool5"
  top: "ip1"
  param {
    lr_mult: 1
  }
  param {
    lr_mult: 2
  }
  inner_product_param {
    num_output: 64
    weight_filler {
      type: "gaussian"
      std: 0.1
    }
    bias_filler {
      type: "constant"
    }
  }
}
layer {
  name: "ip2"
  type: "InnerProduct"
  bottom: "ip1"
  top: "ip2"
  param {
    lr_mult: 1
  }
  param {
    lr_mult: 2
  }
  inner_product_param {
    num_output: 64
    weight_filler {
      type: "gaussian"
      std: 0.1
    }
    bias_filler {
      type: "constant"
    }
  }
}
layer {
  name: "ip3"
  type: "InnerProduct"
  bottom: "ip2"
  top: "ip3"
  param {
    lr_mult: 1
  }
  param {
    lr_mult: 2
  }
  inner_product_param {
    num_output: 50
    weight_filler {
      type: "gaussian"
      std: 0.1
    }
    bias_filler {
      type: "constant"
    }
  }
}
layer {
  name: "accuracy"
  type: "Accuracy"
  bottom: "ip3"
  bottom: "label"
  top: "accuracy"
  include {
    phase: TEST
  }
}
layer {
  name: "loss"
  type: "SoftmaxWithLoss"
  bottom: "ip3"
  bottom: "label"
  top: "loss"
}
I0502 15:55:19.629401 11487 layer_factory.hpp:77] Creating layer intercept
I0502 15:55:19.629410 11487 net.cpp:94] Creating Layer intercept
I0502 15:55:19.629413 11487 net.cpp:409] intercept -> data
I0502 15:55:19.629420 11487 net.cpp:409] intercept -> label
I0502 15:55:19.629426 11487 hdf5_data_layer.cpp:79] Loading list of HDF5 filenames from: /home/purduethu/scratch/radon/d/deng106/CNNStatisticalModel/distributions/input/50_distributions_400_sample_size_test-distributions-path.txt
I0502 15:55:19.629451 11487 hdf5_data_layer.cpp:93] Number of HDF5 files: 1
I0502 15:55:19.797420 11487 net.cpp:144] Setting up intercept
I0502 15:55:19.797452 11487 net.cpp:151] Top shape: 20 1 20 20 (8000)
I0502 15:55:19.797457 11487 net.cpp:151] Top shape: 20 (20)
I0502 15:55:19.797461 11487 net.cpp:159] Memory required for data: 32080
I0502 15:55:19.797467 11487 layer_factory.hpp:77] Creating layer label_intercept_1_split
I0502 15:55:19.797483 11487 net.cpp:94] Creating Layer label_intercept_1_split
I0502 15:55:19.797488 11487 net.cpp:435] label_intercept_1_split <- label
I0502 15:55:19.797493 11487 net.cpp:409] label_intercept_1_split -> label_intercept_1_split_0
I0502 15:55:19.797502 11487 net.cpp:409] label_intercept_1_split -> label_intercept_1_split_1
I0502 15:55:19.797535 11487 net.cpp:144] Setting up label_intercept_1_split
I0502 15:55:19.797543 11487 net.cpp:151] Top shape: 20 (20)
I0502 15:55:19.797545 11487 net.cpp:151] Top shape: 20 (20)
I0502 15:55:19.797549 11487 net.cpp:159] Memory required for data: 32240
I0502 15:55:19.797552 11487 layer_factory.hpp:77] Creating layer conv1
I0502 15:55:19.797564 11487 net.cpp:94] Creating Layer conv1
I0502 15:55:19.797566 11487 net.cpp:435] conv1 <- data
I0502 15:55:19.797571 11487 net.cpp:409] conv1 -> conv1
I0502 15:55:19.800285 11487 net.cpp:144] Setting up conv1
I0502 15:55:19.800307 11487 net.cpp:151] Top shape: 20 64 20 20 (512000)
I0502 15:55:19.800312 11487 net.cpp:159] Memory required for data: 2080240
I0502 15:55:19.800320 11487 layer_factory.hpp:77] Creating layer relu1
I0502 15:55:19.800328 11487 net.cpp:94] Creating Layer relu1
I0502 15:55:19.800331 11487 net.cpp:435] relu1 <- conv1
I0502 15:55:19.800335 11487 net.cpp:396] relu1 -> conv1 (in-place)
I0502 15:55:19.800343 11487 net.cpp:144] Setting up relu1
I0502 15:55:19.800348 11487 net.cpp:151] Top shape: 20 64 20 20 (512000)
I0502 15:55:19.800350 11487 net.cpp:159] Memory required for data: 4128240
I0502 15:55:19.800354 11487 layer_factory.hpp:77] Creating layer conv2
I0502 15:55:19.800362 11487 net.cpp:94] Creating Layer conv2
I0502 15:55:19.800366 11487 net.cpp:435] conv2 <- conv1
I0502 15:55:19.800371 11487 net.cpp:409] conv2 -> conv2
I0502 15:55:19.805945 11487 net.cpp:144] Setting up conv2
I0502 15:55:19.805972 11487 net.cpp:151] Top shape: 20 64 20 20 (512000)
I0502 15:55:19.805980 11487 net.cpp:159] Memory required for data: 6176240
I0502 15:55:19.805995 11487 layer_factory.hpp:77] Creating layer relu2
I0502 15:55:19.806006 11487 net.cpp:94] Creating Layer relu2
I0502 15:55:19.806013 11487 net.cpp:435] relu2 <- conv2
I0502 15:55:19.806022 11487 net.cpp:396] relu2 -> conv2 (in-place)
I0502 15:55:19.806036 11487 net.cpp:144] Setting up relu2
I0502 15:55:19.806046 11487 net.cpp:151] Top shape: 20 64 20 20 (512000)
I0502 15:55:19.806051 11487 net.cpp:159] Memory required for data: 8224240
I0502 15:55:19.806057 11487 layer_factory.hpp:77] Creating layer pool2
I0502 15:55:19.806067 11487 net.cpp:94] Creating Layer pool2
I0502 15:55:19.806073 11487 net.cpp:435] pool2 <- conv2
I0502 15:55:19.806082 11487 net.cpp:409] pool2 -> pool2
I0502 15:55:19.806143 11487 net.cpp:144] Setting up pool2
I0502 15:55:19.806155 11487 net.cpp:151] Top shape: 20 64 10 10 (128000)
I0502 15:55:19.806161 11487 net.cpp:159] Memory required for data: 8736240
I0502 15:55:19.806167 11487 layer_factory.hpp:77] Creating layer conv3
I0502 15:55:19.806181 11487 net.cpp:94] Creating Layer conv3
I0502 15:55:19.806188 11487 net.cpp:435] conv3 <- pool2
I0502 15:55:19.806197 11487 net.cpp:409] conv3 -> conv3
I0502 15:55:19.810549 11487 net.cpp:144] Setting up conv3
I0502 15:55:19.810562 11487 net.cpp:151] Top shape: 20 64 10 10 (128000)
I0502 15:55:19.810566 11487 net.cpp:159] Memory required for data: 9248240
I0502 15:55:19.810575 11487 layer_factory.hpp:77] Creating layer relu3
I0502 15:55:19.810581 11487 net.cpp:94] Creating Layer relu3
I0502 15:55:19.810585 11487 net.cpp:435] relu3 <- conv3
I0502 15:55:19.810590 11487 net.cpp:396] relu3 -> conv3 (in-place)
I0502 15:55:19.810596 11487 net.cpp:144] Setting up relu3
I0502 15:55:19.810601 11487 net.cpp:151] Top shape: 20 64 10 10 (128000)
I0502 15:55:19.810605 11487 net.cpp:159] Memory required for data: 9760240
I0502 15:55:19.810607 11487 layer_factory.hpp:77] Creating layer conv4
I0502 15:55:19.810616 11487 net.cpp:94] Creating Layer conv4
I0502 15:55:19.810619 11487 net.cpp:435] conv4 <- conv3
I0502 15:55:19.810624 11487 net.cpp:409] conv4 -> conv4
I0502 15:55:19.814852 11487 net.cpp:144] Setting up conv4
I0502 15:55:19.814867 11487 net.cpp:151] Top shape: 20 64 10 10 (128000)
I0502 15:55:19.814872 11487 net.cpp:159] Memory required for data: 10272240
I0502 15:55:19.814878 11487 layer_factory.hpp:77] Creating layer relu4
I0502 15:55:19.814884 11487 net.cpp:94] Creating Layer relu4
I0502 15:55:19.814893 11487 net.cpp:435] relu4 <- conv4
I0502 15:55:19.814898 11487 net.cpp:396] relu4 -> conv4 (in-place)
I0502 15:55:19.814904 11487 net.cpp:144] Setting up relu4
I0502 15:55:19.814909 11487 net.cpp:151] Top shape: 20 64 10 10 (128000)
I0502 15:55:19.814913 11487 net.cpp:159] Memory required for data: 10784240
I0502 15:55:19.814916 11487 layer_factory.hpp:77] Creating layer conv5
I0502 15:55:19.814924 11487 net.cpp:94] Creating Layer conv5
I0502 15:55:19.814927 11487 net.cpp:435] conv5 <- conv4
I0502 15:55:19.814932 11487 net.cpp:409] conv5 -> conv5
I0502 15:55:19.819663 11487 net.cpp:144] Setting up conv5
I0502 15:55:19.819682 11487 net.cpp:151] Top shape: 20 64 10 10 (128000)
I0502 15:55:19.819686 11487 net.cpp:159] Memory required for data: 11296240
I0502 15:55:19.819695 11487 layer_factory.hpp:77] Creating layer relu5
I0502 15:55:19.819701 11487 net.cpp:94] Creating Layer relu5
I0502 15:55:19.819705 11487 net.cpp:435] relu5 <- conv5
I0502 15:55:19.819710 11487 net.cpp:396] relu5 -> conv5 (in-place)
I0502 15:55:19.819716 11487 net.cpp:144] Setting up relu5
I0502 15:55:19.819720 11487 net.cpp:151] Top shape: 20 64 10 10 (128000)
I0502 15:55:19.819725 11487 net.cpp:159] Memory required for data: 11808240
I0502 15:55:19.819727 11487 layer_factory.hpp:77] Creating layer pool5
I0502 15:55:19.819732 11487 net.cpp:94] Creating Layer pool5
I0502 15:55:19.819736 11487 net.cpp:435] pool5 <- conv5
I0502 15:55:19.819739 11487 net.cpp:409] pool5 -> pool5
I0502 15:55:19.819766 11487 net.cpp:144] Setting up pool5
I0502 15:55:19.819772 11487 net.cpp:151] Top shape: 20 64 5 5 (32000)
I0502 15:55:19.819774 11487 net.cpp:159] Memory required for data: 11936240
I0502 15:55:19.819777 11487 layer_factory.hpp:77] Creating layer ip1
I0502 15:55:19.819784 11487 net.cpp:94] Creating Layer ip1
I0502 15:55:19.819788 11487 net.cpp:435] ip1 <- pool5
I0502 15:55:19.819792 11487 net.cpp:409] ip1 -> ip1
I0502 15:55:19.822949 11487 net.cpp:144] Setting up ip1
I0502 15:55:19.822963 11487 net.cpp:151] Top shape: 20 64 (1280)
I0502 15:55:19.822968 11487 net.cpp:159] Memory required for data: 11941360
I0502 15:55:19.822973 11487 layer_factory.hpp:77] Creating layer ip2
I0502 15:55:19.822980 11487 net.cpp:94] Creating Layer ip2
I0502 15:55:19.822983 11487 net.cpp:435] ip2 <- ip1
I0502 15:55:19.822989 11487 net.cpp:409] ip2 -> ip2
I0502 15:55:19.823158 11487 net.cpp:144] Setting up ip2
I0502 15:55:19.823165 11487 net.cpp:151] Top shape: 20 64 (1280)
I0502 15:55:19.823168 11487 net.cpp:159] Memory required for data: 11946480
I0502 15:55:19.823173 11487 layer_factory.hpp:77] Creating layer ip3
I0502 15:55:19.823180 11487 net.cpp:94] Creating Layer ip3
I0502 15:55:19.823184 11487 net.cpp:435] ip3 <- ip2
I0502 15:55:19.823189 11487 net.cpp:409] ip3 -> ip3
I0502 15:55:19.823333 11487 net.cpp:144] Setting up ip3
I0502 15:55:19.823339 11487 net.cpp:151] Top shape: 20 50 (1000)
I0502 15:55:19.823343 11487 net.cpp:159] Memory required for data: 11950480
I0502 15:55:19.823348 11487 layer_factory.hpp:77] Creating layer ip3_ip3_0_split
I0502 15:55:19.823352 11487 net.cpp:94] Creating Layer ip3_ip3_0_split
I0502 15:55:19.823355 11487 net.cpp:435] ip3_ip3_0_split <- ip3
I0502 15:55:19.823360 11487 net.cpp:409] ip3_ip3_0_split -> ip3_ip3_0_split_0
I0502 15:55:19.823365 11487 net.cpp:409] ip3_ip3_0_split -> ip3_ip3_0_split_1
I0502 15:55:19.823390 11487 net.cpp:144] Setting up ip3_ip3_0_split
I0502 15:55:19.823395 11487 net.cpp:151] Top shape: 20 50 (1000)
I0502 15:55:19.823398 11487 net.cpp:151] Top shape: 20 50 (1000)
I0502 15:55:19.823401 11487 net.cpp:159] Memory required for data: 11958480
I0502 15:55:19.823405 11487 layer_factory.hpp:77] Creating layer accuracy
I0502 15:55:19.823415 11487 net.cpp:94] Creating Layer accuracy
I0502 15:55:19.823417 11487 net.cpp:435] accuracy <- ip3_ip3_0_split_0
I0502 15:55:19.823422 11487 net.cpp:435] accuracy <- label_intercept_1_split_0
I0502 15:55:19.823426 11487 net.cpp:409] accuracy -> accuracy
…
