…
I0505 00:02:41.361644  1051 net.cpp:323] The NetState phase (0) differed from the phase (1) specified by a rule in layer intercept
I0505 00:02:41.361660  1051 net.cpp:323] The NetState phase (0) differed from the phase (1) specified by a rule in layer loss
I0505 00:02:41.361742  1051 net.cpp:52] Initializing net from parameters: 
state {
  phase: TRAIN
}
layer {
  name: "parameters"
  type: "HDF5Data"
  top: "data"
  top: "label"
  include {
    phase: TRAIN
  }
  hdf5_data_param {
    source: "/home/purduethu/scratch/radon/d/deng106/CNNStatisticalModel/distributions/input/20_distributions_400_sample_size_train-parameters-path.txt"
    batch_size: 20
  }
}
layer {
  name: "conv1"
  type: "Convolution"
  bottom: "data"
  top: "conv1"
  param {
    lr_mult: 1
  }
  param {
    lr_mult: 2
  }
  convolution_param {
    num_output: 64
    pad: 2
    kernel_size: 5
    stride: 1
    weight_filler {
      type: "gaussian"
      std: 0.0001
    }
    bias_filler {
      type: "constant"
    }
  }
}
layer {
  name: "relu1"
  type: "ReLU"
  bottom: "conv1"
  top: "conv1"
}
layer {
  name: "pool1"
  type: "Pooling"
  bottom: "conv1"
  top: "pool1"
  pooling_param {
    pool: MAX
    kernel_size: 3
    stride: 2
  }
}
layer {
  name: "conv2"
  type: "Convolution"
  bottom: "pool1"
  top: "conv2"
  param {
    lr_mult: 1
  }
  param {
    lr_mult: 2
  }
  convolution_param {
    num_output: 128
    pad: 2
    kernel_size: 5
    stride: 1
    weight_filler {
      type: "gaussian"
      std: 0.01
    }
    bias_filler {
      type: "constant"
    }
  }
}
layer {
  name: "relu2"
  type: "ReLU"
  bottom: "conv2"
  top: "conv2"
}
layer {
  name: "conv3"
  type: "Convolution"
  bottom: "conv2"
  top: "conv3"
  param {
    lr_mult: 1
  }
  param {
    lr_mult: 2
  }
  convolution_param {
    num_output: 128
    pad: 2
    kernel_size: 5
    stride: 1
    weight_filler {
      type: "gaussian"
      std: 0.01
    }
    bias_filler {
      type: "constant"
    }
  }
}
layer {
  name: "relu3"
  type: "ReLU"
  bottom: "conv3"
  top: "conv3"
}
layer {
  name: "pool3"
  type: "Pooling"
  bottom: "conv3"
  top: "pool3"
  pooling_param {
    pool: AVE
    kernel_size: 3
    stride: 2
  }
}
layer {
  name: "ip1"
  type: "InnerProduct"
  bottom: "pool3"
  top: "ip1"
  param {
    lr_mult: 1
  }
  param {
    lr_mult: 2
  }
  inner_product_param {
    num_output: 512
    weight_filler {
      type: "gaussian"
      std: 0.1
    }
    bias_filler {
      type: "constant"
    }
  }
}
layer {
  name: "ip2"
  type: "InnerProduct"
  bottom: "ip1"
  top: "ip2"
  param {
    lr_mult: 1
  }
  param {
    lr_mult: 2
  }
  inner_product_param {
    num_output: 256
    weight_filler {
      type: "gaussian"
      std: 0.1
    }
    bias_filler {
      type: "constant"
    }
  }
}
layer {
  name: "ip3"
  type: "InnerProduct"
  bottom: "ip2"
  top: "ip3"
  param {
    lr_mult: 1
  }
  param {
    lr_mult: 2
  }
  inner_product_param {
    num_output: 1
    weight_filler {
      type: "gaussian"
      std: 0.1
    }
    bias_filler {
      type: "constant"
    }
  }
}
layer {
  name: "loss"
  type: "HuberLoss"
  bottom: "ip3"
  bottom: "label"
  top: "loss"
  include {
    phase: TRAIN
  }
}
I0505 00:02:41.361804  1051 layer_factory.hpp:77] Creating layer parameters
I0505 00:02:41.361819  1051 net.cpp:94] Creating Layer parameters
I0505 00:02:41.361832  1051 net.cpp:409] parameters -> data
I0505 00:02:41.361851  1051 net.cpp:409] parameters -> label
I0505 00:02:41.361862  1051 hdf5_data_layer.cpp:79] Loading list of HDF5 filenames from: /home/purduethu/scratch/radon/d/deng106/CNNStatisticalModel/distributions/input/20_distributions_400_sample_size_train-parameters-path.txt
I0505 00:02:41.361884  1051 hdf5_data_layer.cpp:93] Number of HDF5 files: 1
I0505 00:02:41.362455  1051 hdf5.cpp:32] Datatype class: H5T_FLOAT
I0505 00:02:41.624068  1051 net.cpp:144] Setting up parameters
I0505 00:02:41.624105  1051 net.cpp:151] Top shape: 20 1 20 20 (8000)
I0505 00:02:41.624111  1051 net.cpp:151] Top shape: 20 (20)
I0505 00:02:41.624114  1051 net.cpp:159] Memory required for data: 32080
I0505 00:02:41.624122  1051 layer_factory.hpp:77] Creating layer conv1
I0505 00:02:41.624146  1051 net.cpp:94] Creating Layer conv1
I0505 00:02:41.624151  1051 net.cpp:435] conv1 <- data
I0505 00:02:41.624163  1051 net.cpp:409] conv1 -> conv1
I0505 00:02:41.629173  1051 net.cpp:144] Setting up conv1
I0505 00:02:41.629197  1051 net.cpp:151] Top shape: 20 64 20 20 (512000)
I0505 00:02:41.629202  1051 net.cpp:159] Memory required for data: 2080080
I0505 00:02:41.629215  1051 layer_factory.hpp:77] Creating layer relu1
I0505 00:02:41.629225  1051 net.cpp:94] Creating Layer relu1
I0505 00:02:41.629230  1051 net.cpp:435] relu1 <- conv1
I0505 00:02:41.629235  1051 net.cpp:396] relu1 -> conv1 (in-place)
I0505 00:02:41.629256  1051 net.cpp:144] Setting up relu1
I0505 00:02:41.629261  1051 net.cpp:151] Top shape: 20 64 20 20 (512000)
I0505 00:02:41.629264  1051 net.cpp:159] Memory required for data: 4128080
I0505 00:02:41.629268  1051 layer_factory.hpp:77] Creating layer pool1
I0505 00:02:41.629276  1051 net.cpp:94] Creating Layer pool1
I0505 00:02:41.629279  1051 net.cpp:435] pool1 <- conv1
I0505 00:02:41.629283  1051 net.cpp:409] pool1 -> pool1
I0505 00:02:41.629328  1051 net.cpp:144] Setting up pool1
I0505 00:02:41.629334  1051 net.cpp:151] Top shape: 20 64 10 10 (128000)
I0505 00:02:41.629338  1051 net.cpp:159] Memory required for data: 4640080
I0505 00:02:41.629341  1051 layer_factory.hpp:77] Creating layer conv2
I0505 00:02:41.629351  1051 net.cpp:94] Creating Layer conv2
I0505 00:02:41.629354  1051 net.cpp:435] conv2 <- pool1
I0505 00:02:41.629360  1051 net.cpp:409] conv2 -> conv2
I0505 00:02:41.639185  1051 net.cpp:144] Setting up conv2
I0505 00:02:41.639207  1051 net.cpp:151] Top shape: 20 128 10 10 (256000)
I0505 00:02:41.639211  1051 net.cpp:159] Memory required for data: 5664080
I0505 00:02:41.639221  1051 layer_factory.hpp:77] Creating layer relu2
I0505 00:02:41.639228  1051 net.cpp:94] Creating Layer relu2
I0505 00:02:41.639232  1051 net.cpp:435] relu2 <- conv2
I0505 00:02:41.639237  1051 net.cpp:396] relu2 -> conv2 (in-place)
I0505 00:02:41.639245  1051 net.cpp:144] Setting up relu2
I0505 00:02:41.639250  1051 net.cpp:151] Top shape: 20 128 10 10 (256000)
I0505 00:02:41.639253  1051 net.cpp:159] Memory required for data: 6688080
I0505 00:02:41.639256  1051 layer_factory.hpp:77] Creating layer conv3
I0505 00:02:41.639266  1051 net.cpp:94] Creating Layer conv3
I0505 00:02:41.639269  1051 net.cpp:435] conv3 <- conv2
I0505 00:02:41.639274  1051 net.cpp:409] conv3 -> conv3
I0505 00:02:41.657214  1051 net.cpp:144] Setting up conv3
I0505 00:02:41.657245  1051 net.cpp:151] Top shape: 20 128 10 10 (256000)
I0505 00:02:41.657250  1051 net.cpp:159] Memory required for data: 7712080
I0505 00:02:41.657261  1051 layer_factory.hpp:77] Creating layer relu3
I0505 00:02:41.657271  1051 net.cpp:94] Creating Layer relu3
I0505 00:02:41.657282  1051 net.cpp:435] relu3 <- conv3
I0505 00:02:41.657289  1051 net.cpp:396] relu3 -> conv3 (in-place)
I0505 00:02:41.657297  1051 net.cpp:144] Setting up relu3
I0505 00:02:41.657302  1051 net.cpp:151] Top shape: 20 128 10 10 (256000)
I0505 00:02:41.657305  1051 net.cpp:159] Memory required for data: 8736080
I0505 00:02:41.657310  1051 layer_factory.hpp:77] Creating layer pool3
I0505 00:02:41.657316  1051 net.cpp:94] Creating Layer pool3
I0505 00:02:41.657320  1051 net.cpp:435] pool3 <- conv3
I0505 00:02:41.657331  1051 net.cpp:409] pool3 -> pool3
I0505 00:02:41.657377  1051 net.cpp:144] Setting up pool3
I0505 00:02:41.657383  1051 net.cpp:151] Top shape: 20 128 5 5 (64000)
I0505 00:02:41.657387  1051 net.cpp:159] Memory required for data: 8992080
I0505 00:02:41.657390  1051 layer_factory.hpp:77] Creating layer ip1
I0505 00:02:41.657402  1051 net.cpp:94] Creating Layer ip1
I0505 00:02:41.657405  1051 net.cpp:435] ip1 <- pool3
I0505 00:02:41.657410  1051 net.cpp:409] ip1 -> ip1
I0505 00:02:41.698851  1051 net.cpp:144] Setting up ip1
I0505 00:02:41.698890  1051 net.cpp:151] Top shape: 20 512 (10240)
I0505 00:02:41.698895  1051 net.cpp:159] Memory required for data: 9033040
I0505 00:02:41.698904  1051 layer_factory.hpp:77] Creating layer ip2
I0505 00:02:41.698915  1051 net.cpp:94] Creating Layer ip2
I0505 00:02:41.698918  1051 net.cpp:435] ip2 <- ip1
I0505 00:02:41.698925  1051 net.cpp:409] ip2 -> ip2
I0505 00:02:41.702210  1051 net.cpp:144] Setting up ip2
I0505 00:02:41.702219  1051 net.cpp:151] Top shape: 20 256 (5120)
I0505 00:02:41.702224  1051 net.cpp:159] Memory required for data: 9053520
I0505 00:02:41.702231  1051 layer_factory.hpp:77] Creating layer ip3
I0505 00:02:41.702237  1051 net.cpp:94] Creating Layer ip3
I0505 00:02:41.702241  1051 net.cpp:435] ip3 <- ip2
I0505 00:02:41.702246  1051 net.cpp:409] ip3 -> ip3
I0505 00:02:41.702312  1051 net.cpp:144] Setting up ip3
I0505 00:02:41.702318  1051 net.cpp:151] Top shape: 20 1 (20)
I0505 00:02:41.702322  1051 net.cpp:159] Memory required for data: 9053600
I0505 00:02:41.702327  1051 layer_factory.hpp:77] Creating layer loss
I0505 00:02:41.702332  1051 net.cpp:94] Creating Layer loss
I0505 00:02:41.702337  1051 net.cpp:435] loss <- ip3
I0505 00:02:41.702340  1051 net.cpp:435] loss <- label
I0505 00:02:41.702345  1051 net.cpp:409] loss -> loss
I0505 00:02:41.702380  1051 net.cpp:144] Setting up loss
…
