…
I0502 19:41:21.990305 12786 net.cpp:323] The NetState phase (0) differed from the phase (1) specified by a rule in layer intercept
I0502 19:41:21.990321 12786 net.cpp:323] The NetState phase (0) differed from the phase (1) specified by a rule in layer accuracy
I0502 19:41:21.990409 12786 net.cpp:52] Initializing net from parameters: 
state {
  phase: TRAIN
}
layer {
  name: "parameters"
  type: "HDF5Data"
  top: "data"
  top: "label"
  include {
    phase: TRAIN
  }
  hdf5_data_param {
    source: "/home/purduethu/scratch/radon/d/deng106/CNNStatisticalModel/distributions/input/5_distributions_400_sample_size_train-distributions-path.txt"
    batch_size: 20
  }
}
layer {
  name: "conv1"
  type: "Convolution"
  bottom: "data"
  top: "conv1"
  param {
    lr_mult: 1
  }
  param {
    lr_mult: 2
  }
  convolution_param {
    num_output: 64
    pad: 2
    kernel_size: 5
    stride: 1
    weight_filler {
      type: "gaussian"
      std: 0.0001
    }
    bias_filler {
      type: "constant"
    }
  }
}
layer {
  name: "relu1"
  type: "ReLU"
  bottom: "conv1"
  top: "conv1"
}
layer {
  name: "conv2"
  type: "Convolution"
  bottom: "conv1"
  top: "conv2"
  param {
    lr_mult: 1
  }
  param {
    lr_mult: 2
  }
  convolution_param {
    num_output: 64
    pad: 2
    kernel_size: 5
    stride: 1
    weight_filler {
      type: "gaussian"
      std: 0.01
    }
    bias_filler {
      type: "constant"
    }
  }
}
layer {
  name: "relu2"
  type: "ReLU"
  bottom: "conv2"
  top: "conv2"
}
layer {
  name: "pool2"
  type: "Pooling"
  bottom: "conv2"
  top: "pool2"
  pooling_param {
    pool: MAX
    kernel_size: 3
    stride: 2
  }
}
layer {
  name: "conv3"
  type: "Convolution"
  bottom: "pool2"
  top: "conv3"
  param {
    lr_mult: 1
  }
  param {
    lr_mult: 2
  }
  convolution_param {
    num_output: 64
    pad: 2
    kernel_size: 5
    stride: 1
    weight_filler {
      type: "gaussian"
      std: 0.01
    }
    bias_filler {
      type: "constant"
    }
  }
}
layer {
  name: "relu3"
  type: "ReLU"
  bottom: "conv3"
  top: "conv3"
}
layer {
  name: "conv4"
  type: "Convolution"
  bottom: "conv3"
  top: "conv4"
  param {
    lr_mult: 1
  }
  param {
    lr_mult: 2
  }
  convolution_param {
    num_output: 64
    pad: 2
    kernel_size: 5
    stride: 1
    weight_filler {
      type: "gaussian"
      std: 0.01
    }
    bias_filler {
      type: "constant"
    }
  }
}
layer {
  name: "relu4"
  type: "ReLU"
  bottom: "conv4"
  top: "conv4"
}
layer {
  name: "conv5"
  type: "Convolution"
  bottom: "conv4"
  top: "conv5"
  param {
    lr_mult: 1
  }
  param {
    lr_mult: 2
  }
  convolution_param {
    num_output: 64
    pad: 2
    kernel_size: 5
    stride: 1
    weight_filler {
      type: "gaussian"
      std: 0.01
    }
    bias_filler {
      type: "constant"
    }
  }
}
layer {
  name: "relu5"
  type: "ReLU"
  bottom: "conv5"
  top: "conv5"
}
layer {
  name: "pool5"
  type: "Pooling"
  bottom: "conv5"
  top: "pool5"
  pooling_param {
    pool: AVE
    kernel_size: 3
    stride: 2
  }
}
layer {
  name: "ip1"
  type: "InnerProduct"
  bottom: "pool5"
  top: "ip1"
  param {
    lr_mult: 1
  }
  param {
    lr_mult: 2
  }
  inner_product_param {
    num_output: 64
    weight_filler {
      type: "gaussian"
      std: 0.1
    }
    bias_filler {
      type: "constant"
    }
  }
}
layer {
  name: "ip2"
  type: "InnerProduct"
  bottom: "ip1"
  top: "ip2"
  param {
    lr_mult: 1
  }
  param {
    lr_mult: 2
  }
  inner_product_param {
    num_output: 64
    weight_filler {
      type: "gaussian"
      std: 0.1
    }
    bias_filler {
      type: "constant"
    }
  }
}
layer {
  name: "ip3"
  type: "InnerProduct"
  bottom: "ip2"
  top: "ip3"
  param {
    lr_mult: 1
  }
  param {
    lr_mult: 2
  }
  inner_product_param {
    num_output: 50
    weight_filler {
      type: "gaussian"
      std: 0.1
    }
    bias_filler {
      type: "constant"
    }
  }
}
layer {
  name: "loss"
  type: "SoftmaxWithLoss"
  bottom: "ip3"
  bottom: "label"
  top: "loss"
}
I0502 19:41:21.990483 12786 layer_factory.hpp:77] Creating layer parameters
I0502 19:41:21.990499 12786 net.cpp:94] Creating Layer parameters
I0502 19:41:21.990505 12786 net.cpp:409] parameters -> data
I0502 19:41:21.990525 12786 net.cpp:409] parameters -> label
I0502 19:41:21.990535 12786 hdf5_data_layer.cpp:79] Loading list of HDF5 filenames from: /home/purduethu/scratch/radon/d/deng106/CNNStatisticalModel/distributions/input/5_distributions_400_sample_size_train-distributions-path.txt
I0502 19:41:21.990557 12786 hdf5_data_layer.cpp:93] Number of HDF5 files: 1
I0502 19:41:21.991034 12786 hdf5.cpp:32] Datatype class: H5T_FLOAT
I0502 19:41:22.053593 12786 hdf5.cpp:35] Datatype class: H5T_INTEGER
I0502 19:41:22.054714 12786 net.cpp:144] Setting up parameters
I0502 19:41:22.054734 12786 net.cpp:151] Top shape: 20 1 20 20 (8000)
I0502 19:41:22.054740 12786 net.cpp:151] Top shape: 20 (20)
I0502 19:41:22.054744 12786 net.cpp:159] Memory required for data: 32080
I0502 19:41:22.054751 12786 layer_factory.hpp:77] Creating layer conv1
I0502 19:41:22.054770 12786 net.cpp:94] Creating Layer conv1
I0502 19:41:22.054776 12786 net.cpp:435] conv1 <- data
I0502 19:41:22.054786 12786 net.cpp:409] conv1 -> conv1
I0502 19:41:22.068238 12786 net.cpp:144] Setting up conv1
I0502 19:41:22.068255 12786 net.cpp:151] Top shape: 20 64 20 20 (512000)
I0502 19:41:22.068259 12786 net.cpp:159] Memory required for data: 2080080
I0502 19:41:22.068271 12786 layer_factory.hpp:77] Creating layer relu1
I0502 19:41:22.068280 12786 net.cpp:94] Creating Layer relu1
I0502 19:41:22.068284 12786 net.cpp:435] relu1 <- conv1
I0502 19:41:22.068289 12786 net.cpp:396] relu1 -> conv1 (in-place)
I0502 19:41:22.068305 12786 net.cpp:144] Setting up relu1
I0502 19:41:22.068311 12786 net.cpp:151] Top shape: 20 64 20 20 (512000)
I0502 19:41:22.068315 12786 net.cpp:159] Memory required for data: 4128080
I0502 19:41:22.068318 12786 layer_factory.hpp:77] Creating layer conv2
I0502 19:41:22.068326 12786 net.cpp:94] Creating Layer conv2
I0502 19:41:22.068331 12786 net.cpp:435] conv2 <- conv1
I0502 19:41:22.068336 12786 net.cpp:409] conv2 -> conv2
I0502 19:41:22.084911 12786 net.cpp:144] Setting up conv2
I0502 19:41:22.084928 12786 net.cpp:151] Top shape: 20 64 20 20 (512000)
I0502 19:41:22.084931 12786 net.cpp:159] Memory required for data: 6176080
I0502 19:41:22.084939 12786 layer_factory.hpp:77] Creating layer relu2
I0502 19:41:22.084946 12786 net.cpp:94] Creating Layer relu2
I0502 19:41:22.084951 12786 net.cpp:435] relu2 <- conv2
I0502 19:41:22.084955 12786 net.cpp:396] relu2 -> conv2 (in-place)
I0502 19:41:22.084964 12786 net.cpp:144] Setting up relu2
I0502 19:41:22.084969 12786 net.cpp:151] Top shape: 20 64 20 20 (512000)
I0502 19:41:22.084971 12786 net.cpp:159] Memory required for data: 8224080
I0502 19:41:22.084975 12786 layer_factory.hpp:77] Creating layer pool2
I0502 19:41:22.084990 12786 net.cpp:94] Creating Layer pool2
I0502 19:41:22.084993 12786 net.cpp:435] pool2 <- conv2
I0502 19:41:22.084998 12786 net.cpp:409] pool2 -> pool2
I0502 19:41:22.085044 12786 net.cpp:144] Setting up pool2
I0502 19:41:22.085052 12786 net.cpp:151] Top shape: 20 64 10 10 (128000)
I0502 19:41:22.085057 12786 net.cpp:159] Memory required for data: 8736080
I0502 19:41:22.085059 12786 layer_factory.hpp:77] Creating layer conv3
I0502 19:41:22.085068 12786 net.cpp:94] Creating Layer conv3
I0502 19:41:22.085072 12786 net.cpp:435] conv3 <- pool2
I0502 19:41:22.085085 12786 net.cpp:409] conv3 -> conv3
I0502 19:41:22.093257 12786 net.cpp:144] Setting up conv3
I0502 19:41:22.093273 12786 net.cpp:151] Top shape: 20 64 10 10 (128000)
I0502 19:41:22.093277 12786 net.cpp:159] Memory required for data: 9248080
I0502 19:41:22.093286 12786 layer_factory.hpp:77] Creating layer relu3
I0502 19:41:22.093292 12786 net.cpp:94] Creating Layer relu3
I0502 19:41:22.093297 12786 net.cpp:435] relu3 <- conv3
I0502 19:41:22.093302 12786 net.cpp:396] relu3 -> conv3 (in-place)
I0502 19:41:22.093309 12786 net.cpp:144] Setting up relu3
I0502 19:41:22.093314 12786 net.cpp:151] Top shape: 20 64 10 10 (128000)
I0502 19:41:22.093317 12786 net.cpp:159] Memory required for data: 9760080
I0502 19:41:22.093320 12786 layer_factory.hpp:77] Creating layer conv4
I0502 19:41:22.093329 12786 net.cpp:94] Creating Layer conv4
I0502 19:41:22.093333 12786 net.cpp:435] conv4 <- conv3
I0502 19:41:22.093338 12786 net.cpp:409] conv4 -> conv4
I0502 19:41:22.103376 12786 net.cpp:144] Setting up conv4
I0502 19:41:22.103391 12786 net.cpp:151] Top shape: 20 64 10 10 (128000)
I0502 19:41:22.103395 12786 net.cpp:159] Memory required for data: 10272080
I0502 19:41:22.103402 12786 layer_factory.hpp:77] Creating layer relu4
I0502 19:41:22.103408 12786 net.cpp:94] Creating Layer relu4
I0502 19:41:22.103412 12786 net.cpp:435] relu4 <- conv4
I0502 19:41:22.103417 12786 net.cpp:396] relu4 -> conv4 (in-place)
I0502 19:41:22.103425 12786 net.cpp:144] Setting up relu4
I0502 19:41:22.103430 12786 net.cpp:151] Top shape: 20 64 10 10 (128000)
I0502 19:41:22.103433 12786 net.cpp:159] Memory required for data: 10784080
I0502 19:41:22.103436 12786 layer_factory.hpp:77] Creating layer conv5
I0502 19:41:22.103444 12786 net.cpp:94] Creating Layer conv5
I0502 19:41:22.103448 12786 net.cpp:435] conv5 <- conv4
I0502 19:41:22.103453 12786 net.cpp:409] conv5 -> conv5
I0502 19:41:22.110878 12786 net.cpp:144] Setting up conv5
I0502 19:41:22.110893 12786 net.cpp:151] Top shape: 20 64 10 10 (128000)
I0502 19:41:22.110898 12786 net.cpp:159] Memory required for data: 11296080
I0502 19:41:22.110906 12786 layer_factory.hpp:77] Creating layer relu5
I0502 19:41:22.110913 12786 net.cpp:94] Creating Layer relu5
I0502 19:41:22.110916 12786 net.cpp:435] relu5 <- conv5
I0502 19:41:22.110921 12786 net.cpp:396] relu5 -> conv5 (in-place)
I0502 19:41:22.110929 12786 net.cpp:144] Setting up relu5
I0502 19:41:22.110934 12786 net.cpp:151] Top shape: 20 64 10 10 (128000)
I0502 19:41:22.110937 12786 net.cpp:159] Memory required for data: 11808080
I0502 19:41:22.110940 12786 layer_factory.hpp:77] Creating layer pool5
I0502 19:41:22.110945 12786 net.cpp:94] Creating Layer pool5
I0502 19:41:22.110949 12786 net.cpp:435] pool5 <- conv5
I0502 19:41:22.110954 12786 net.cpp:409] pool5 -> pool5
I0502 19:41:22.110987 12786 net.cpp:144] Setting up pool5
I0502 19:41:22.110996 12786 net.cpp:151] Top shape: 20 64 5 5 (32000)
I0502 19:41:22.110998 12786 net.cpp:159] Memory required for data: 11936080
I0502 19:41:22.111002 12786 layer_factory.hpp:77] Creating layer ip1
I0502 19:41:22.111012 12786 net.cpp:94] Creating Layer ip1
I0502 19:41:22.111016 12786 net.cpp:435] ip1 <- pool5
I0502 19:41:22.111021 12786 net.cpp:409] ip1 -> ip1
I0502 19:41:22.113520 12786 net.cpp:144] Setting up ip1
I0502 19:41:22.113529 12786 net.cpp:151] Top shape: 20 64 (1280)
I0502 19:41:22.113533 12786 net.cpp:159] Memory required for data: 11941200
I0502 19:41:22.113538 12786 layer_factory.hpp:77] Creating layer ip2
I0502 19:41:22.113549 12786 net.cpp:94] Creating Layer ip2
I0502 19:41:22.113554 12786 net.cpp:435] ip2 <- ip1
I0502 19:41:22.113559 12786 net.cpp:409] ip2 -> ip2
I0502 19:41:22.113723 12786 net.cpp:144] Setting up ip2
I0502 19:41:22.113729 12786 net.cpp:151] Top shape: 20 64 (1280)
I0502 19:41:22.113734 12786 net.cpp:159] Memory required for data: 11946320
I0502 19:41:22.113739 12786 layer_factory.hpp:77] Creating layer ip3
I0502 19:41:22.113744 12786 net.cpp:94] Creating Layer ip3
I0502 19:41:22.113747 12786 net.cpp:435] ip3 <- ip2
I0502 19:41:22.113752 12786 net.cpp:409] ip3 -> ip3
I0502 19:41:22.113900 12786 net.cpp:144] Setting up ip3
I0502 19:41:22.113907 12786 net.cpp:151] Top shape: 20 50 (1000)
I0502 19:41:22.113910 12786 net.cpp:159] Memory required for data: 11950320
I0502 19:41:22.113915 12786 layer_factory.hpp:77] Creating layer loss
I0502 19:41:22.113922 12786 net.cpp:94] Creating Layer loss
I0502 19:41:22.113926 12786 net.cpp:435] loss <- ip3
I0502 19:41:22.113930 12786 net.cpp:435] loss <- label
I0502 19:41:22.113935 12786 net.cpp:409] loss -> loss
I0502 19:41:22.113945 12786 layer_factory.hpp:77] Creating layer loss
…
I0502 19:41:22.114437 12786 solver.cpp:181] Creating test net (#0) specified by net file: ./protocol/dis_5_400_dimension.protocol_distribution
I0502 19:41:22.114464 12786 net.cpp:323] The NetState phase (1) differed from the phase (0) specified by a rule in layer parameters
I0502 19:41:22.114560 12786 net.cpp:52] Initializing net from parameters: 
state {
  phase: TEST
}
layer {
  name: "intercept"
  type: "HDF5Data"
  top: "data"
  top: "label"
  include {
    phase: TEST
  }
  hdf5_data_param {
    source: "/home/purduethu/scratch/radon/d/deng106/CNNStatisticalModel/distributions/input/5_distributions_400_sample_size_test-distributions-path.txt"
    batch_size: 20
  }
}
layer {
  name: "conv1"
  type: "Convolution"
  bottom: "data"
  top: "conv1"
  param {
    lr_mult: 1
  }
  param {
    lr_mult: 2
  }
  convolution_param {
    num_output: 64
    pad: 2
    kernel_size: 5
    stride: 1
    weight_filler {
      type: "gaussian"
      std: 0.0001
    }
    bias_filler {
      type: "constant"
    }
  }
}
layer {
  name: "relu1"
  type: "ReLU"
  bottom: "conv1"
  top: "conv1"
}
layer {
  name: "conv2"
  type: "Convolution"
  bottom: "conv1"
  top: "conv2"
  param {
    lr_mult: 1
  }
  param {
    lr_mult: 2
  }
  convolution_param {
    num_output: 64
    pad: 2
    kernel_size: 5
    stride: 1
    weight_filler {
      type: "gaussian"
      std: 0.01
    }
    bias_filler {
      type: "constant"
    }
  }
}
layer {
  name: "relu2"
  type: "ReLU"
  bottom: "conv2"
  top: "conv2"
}
layer {
  name: "pool2"
  type: "Pooling"
  bottom: "conv2"
  top: "pool2"
  pooling_param {
    pool: MAX
    kernel_size: 3
    stride: 2
  }
}
layer {
  name: "conv3"
  type: "Convolution"
  bottom: "pool2"
  top: "conv3"
  param {
    lr_mult: 1
  }
  param {
    lr_mult: 2
  }
  convolution_param {
    num_output: 64
    pad: 2
    kernel_size: 5
    stride: 1
    weight_filler {
      type: "gaussian"
      std: 0.01
    }
    bias_filler {
      type: "constant"
    }
  }
}
layer {
  name: "relu3"
  type: "ReLU"
  bottom: "conv3"
  top: "conv3"
}
layer {
  name: "conv4"
  type: "Convolution"
  bottom: "conv3"
  top: "conv4"
  param {
    lr_mult: 1
  }
  param {
    lr_mult: 2
  }
  convolution_param {
    num_output: 64
    pad: 2
    kernel_size: 5
    stride: 1
    weight_filler {
      type: "gaussian"
      std: 0.01
    }
    bias_filler {
      type: "constant"
    }
  }
}
layer {
  name: "relu4"
  type: "ReLU"
  bottom: "conv4"
  top: "conv4"
}
layer {
  name: "conv5"
  type: "Convolution"
  bottom: "conv4"
  top: "conv5"
  param {
    lr_mult: 1
  }
  param {
    lr_mult: 2
  }
  convolution_param {
    num_output: 64
    pad: 2
    kernel_size: 5
    stride: 1
    weight_filler {
      type: "gaussian"
      std: 0.01
    }
    bias_filler {
      type: "constant"
    }
  }
}
layer {
  name: "relu5"
  type: "ReLU"
  bottom: "conv5"
  top: "conv5"
}
layer {
  name: "pool5"
  type: "Pooling"
  bottom: "conv5"
  top: "pool5"
  pooling_param {
    pool: AVE
    kernel_size: 3
    stride: 2
  }
}
layer {
  name: "ip1"
  type: "InnerProduct"
  bottom: "pool5"
  top: "ip1"
  param {
    lr_mult: 1
  }
  param {
    lr_mult: 2
  }
  inner_product_param {
    num_output: 64
    weight_filler {
      type: "gaussian"
      std: 0.1
    }
    bias_filler {
      type: "constant"
    }
  }
}
layer {
  name: "ip2"
  type: "InnerProduct"
  bottom: "ip1"
  top: "ip2"
  param {
    lr_mult: 1
  }
  param {
    lr_mult: 2
  }
  inner_product_param {
    num_output: 64
    weight_filler {
      type: "gaussian"
      std: 0.1
    }
    bias_filler {
      type: "constant"
    }
  }
}
layer {
  name: "ip3"
  type: "InnerProduct"
  bottom: "ip2"
  top: "ip3"
  param {
    lr_mult: 1
  }
  param {
    lr_mult: 2
  }
  inner_product_param {
    num_output: 50
    weight_filler {
      type: "gaussian"
      std: 0.1
    }
    bias_filler {
      type: "constant"
    }
  }
}
layer {
  name: "accuracy"
  type: "Accuracy"
  bottom: "ip3"
  bottom: "label"
  top: "accuracy"
  include {
    phase: TEST
  }
}
layer {
  name: "loss"
  type: "SoftmaxWithLoss"
  bottom: "ip3"
  bottom: "label"
  top: "loss"
}
I0502 19:41:22.114632 12786 layer_factory.hpp:77] Creating layer intercept
I0502 19:41:22.114641 12786 net.cpp:94] Creating Layer intercept
I0502 19:41:22.114645 12786 net.cpp:409] intercept -> data
I0502 19:41:22.114652 12786 net.cpp:409] intercept -> label
I0502 19:41:22.114658 12786 hdf5_data_layer.cpp:79] Loading list of HDF5 filenames from: /home/purduethu/scratch/radon/d/deng106/CNNStatisticalModel/distributions/input/5_distributions_400_sample_size_test-distributions-path.txt
I0502 19:41:22.114677 12786 hdf5_data_layer.cpp:93] Number of HDF5 files: 1
I0502 19:41:22.131220 12786 net.cpp:144] Setting up intercept
I0502 19:41:22.131252 12786 net.cpp:151] Top shape: 20 1 20 20 (8000)
I0502 19:41:22.131256 12786 net.cpp:151] Top shape: 20 (20)
I0502 19:41:22.131260 12786 net.cpp:159] Memory required for data: 32080
I0502 19:41:22.131266 12786 layer_factory.hpp:77] Creating layer label_intercept_1_split
I0502 19:41:22.131283 12786 net.cpp:94] Creating Layer label_intercept_1_split
I0502 19:41:22.131288 12786 net.cpp:435] label_intercept_1_split <- label
I0502 19:41:22.131294 12786 net.cpp:409] label_intercept_1_split -> label_intercept_1_split_0
I0502 19:41:22.131302 12786 net.cpp:409] label_intercept_1_split -> label_intercept_1_split_1
I0502 19:41:22.131336 12786 net.cpp:144] Setting up label_intercept_1_split
I0502 19:41:22.131343 12786 net.cpp:151] Top shape: 20 (20)
I0502 19:41:22.131347 12786 net.cpp:151] Top shape: 20 (20)
I0502 19:41:22.131351 12786 net.cpp:159] Memory required for data: 32240
I0502 19:41:22.131355 12786 layer_factory.hpp:77] Creating layer conv1
I0502 19:41:22.131366 12786 net.cpp:94] Creating Layer conv1
I0502 19:41:22.131369 12786 net.cpp:435] conv1 <- data
I0502 19:41:22.131374 12786 net.cpp:409] conv1 -> conv1
I0502 19:41:22.133831 12786 net.cpp:144] Setting up conv1
I0502 19:41:22.133854 12786 net.cpp:151] Top shape: 20 64 20 20 (512000)
I0502 19:41:22.133859 12786 net.cpp:159] Memory required for data: 2080240
I0502 19:41:22.133869 12786 layer_factory.hpp:77] Creating layer relu1
I0502 19:41:22.133877 12786 net.cpp:94] Creating Layer relu1
I0502 19:41:22.133882 12786 net.cpp:435] relu1 <- conv1
I0502 19:41:22.133885 12786 net.cpp:396] relu1 -> conv1 (in-place)
I0502 19:41:22.133894 12786 net.cpp:144] Setting up relu1
I0502 19:41:22.133899 12786 net.cpp:151] Top shape: 20 64 20 20 (512000)
I0502 19:41:22.133903 12786 net.cpp:159] Memory required for data: 4128240
I0502 19:41:22.133906 12786 layer_factory.hpp:77] Creating layer conv2
I0502 19:41:22.133915 12786 net.cpp:94] Creating Layer conv2
I0502 19:41:22.133919 12786 net.cpp:435] conv2 <- conv1
I0502 19:41:22.133924 12786 net.cpp:409] conv2 -> conv2
I0502 19:41:22.141049 12786 net.cpp:144] Setting up conv2
I0502 19:41:22.141064 12786 net.cpp:151] Top shape: 20 64 20 20 (512000)
I0502 19:41:22.141069 12786 net.cpp:159] Memory required for data: 6176240
I0502 19:41:22.141077 12786 layer_factory.hpp:77] Creating layer relu2
I0502 19:41:22.141084 12786 net.cpp:94] Creating Layer relu2
I0502 19:41:22.141088 12786 net.cpp:435] relu2 <- conv2
I0502 19:41:22.141093 12786 net.cpp:396] relu2 -> conv2 (in-place)
I0502 19:41:22.141100 12786 net.cpp:144] Setting up relu2
I0502 19:41:22.141105 12786 net.cpp:151] Top shape: 20 64 20 20 (512000)
I0502 19:41:22.141108 12786 net.cpp:159] Memory required for data: 8224240
I0502 19:41:22.141111 12786 layer_factory.hpp:77] Creating layer pool2
I0502 19:41:22.141119 12786 net.cpp:94] Creating Layer pool2
I0502 19:41:22.141121 12786 net.cpp:435] pool2 <- conv2
I0502 19:41:22.141126 12786 net.cpp:409] pool2 -> pool2
I0502 19:41:22.141160 12786 net.cpp:144] Setting up pool2
I0502 19:41:22.141167 12786 net.cpp:151] Top shape: 20 64 10 10 (128000)
I0502 19:41:22.141170 12786 net.cpp:159] Memory required for data: 8736240
I0502 19:41:22.141175 12786 layer_factory.hpp:77] Creating layer conv3
I0502 19:41:22.141182 12786 net.cpp:94] Creating Layer conv3
I0502 19:41:22.141185 12786 net.cpp:435] conv3 <- pool2
I0502 19:41:22.141191 12786 net.cpp:409] conv3 -> conv3
I0502 19:41:22.145624 12786 net.cpp:144] Setting up conv3
I0502 19:41:22.145639 12786 net.cpp:151] Top shape: 20 64 10 10 (128000)
I0502 19:41:22.145643 12786 net.cpp:159] Memory required for data: 9248240
I0502 19:41:22.145653 12786 layer_factory.hpp:77] Creating layer relu3
I0502 19:41:22.145659 12786 net.cpp:94] Creating Layer relu3
I0502 19:41:22.145663 12786 net.cpp:435] relu3 <- conv3
I0502 19:41:22.145668 12786 net.cpp:396] relu3 -> conv3 (in-place)
I0502 19:41:22.145676 12786 net.cpp:144] Setting up relu3
I0502 19:41:22.145680 12786 net.cpp:151] Top shape: 20 64 10 10 (128000)
I0502 19:41:22.145684 12786 net.cpp:159] Memory required for data: 9760240
I0502 19:41:22.145687 12786 layer_factory.hpp:77] Creating layer conv4
I0502 19:41:22.145695 12786 net.cpp:94] Creating Layer conv4
I0502 19:41:22.145699 12786 net.cpp:435] conv4 <- conv3
I0502 19:41:22.145704 12786 net.cpp:409] conv4 -> conv4
I0502 19:41:22.150223 12786 net.cpp:144] Setting up conv4
I0502 19:41:22.150236 12786 net.cpp:151] Top shape: 20 64 10 10 (128000)
I0502 19:41:22.150240 12786 net.cpp:159] Memory required for data: 10272240
I0502 19:41:22.150246 12786 layer_factory.hpp:77] Creating layer relu4
I0502 19:41:22.150252 12786 net.cpp:94] Creating Layer relu4
I0502 19:41:22.150260 12786 net.cpp:435] relu4 <- conv4
I0502 19:41:22.150266 12786 net.cpp:396] relu4 -> conv4 (in-place)
I0502 19:41:22.150274 12786 net.cpp:144] Setting up relu4
I0502 19:41:22.150279 12786 net.cpp:151] Top shape: 20 64 10 10 (128000)
I0502 19:41:22.150282 12786 net.cpp:159] Memory required for data: 10784240
I0502 19:41:22.150285 12786 layer_factory.hpp:77] Creating layer conv5
I0502 19:41:22.150293 12786 net.cpp:94] Creating Layer conv5
I0502 19:41:22.150297 12786 net.cpp:435] conv5 <- conv4
I0502 19:41:22.150302 12786 net.cpp:409] conv5 -> conv5
I0502 19:41:22.154748 12786 net.cpp:144] Setting up conv5
I0502 19:41:22.154770 12786 net.cpp:151] Top shape: 20 64 10 10 (128000)
I0502 19:41:22.154775 12786 net.cpp:159] Memory required for data: 11296240
I0502 19:41:22.154784 12786 layer_factory.hpp:77] Creating layer relu5
I0502 19:41:22.154791 12786 net.cpp:94] Creating Layer relu5
I0502 19:41:22.154795 12786 net.cpp:435] relu5 <- conv5
I0502 19:41:22.154801 12786 net.cpp:396] relu5 -> conv5 (in-place)
I0502 19:41:22.154808 12786 net.cpp:144] Setting up relu5
I0502 19:41:22.154814 12786 net.cpp:151] Top shape: 20 64 10 10 (128000)
I0502 19:41:22.154817 12786 net.cpp:159] Memory required for data: 11808240
I0502 19:41:22.154821 12786 layer_factory.hpp:77] Creating layer pool5
I0502 19:41:22.154826 12786 net.cpp:94] Creating Layer pool5
I0502 19:41:22.154830 12786 net.cpp:435] pool5 <- conv5
I0502 19:41:22.154835 12786 net.cpp:409] pool5 -> pool5
I0502 19:41:22.154862 12786 net.cpp:144] Setting up pool5
I0502 19:41:22.154870 12786 net.cpp:151] Top shape: 20 64 5 5 (32000)
I0502 19:41:22.154873 12786 net.cpp:159] Memory required for data: 11936240
I0502 19:41:22.154877 12786 layer_factory.hpp:77] Creating layer ip1
I0502 19:41:22.154884 12786 net.cpp:94] Creating Layer ip1
I0502 19:41:22.154888 12786 net.cpp:435] ip1 <- pool5
I0502 19:41:22.154893 12786 net.cpp:409] ip1 -> ip1
I0502 19:41:22.157418 12786 net.cpp:144] Setting up ip1
I0502 19:41:22.157426 12786 net.cpp:151] Top shape: 20 64 (1280)
I0502 19:41:22.157430 12786 net.cpp:159] Memory required for data: 11941360
I0502 19:41:22.157435 12786 layer_factory.hpp:77] Creating layer ip2
I0502 19:41:22.157441 12786 net.cpp:94] Creating Layer ip2
I0502 19:41:22.157445 12786 net.cpp:435] ip2 <- ip1
I0502 19:41:22.157451 12786 net.cpp:409] ip2 -> ip2
I0502 19:41:22.157615 12786 net.cpp:144] Setting up ip2
I0502 19:41:22.157622 12786 net.cpp:151] Top shape: 20 64 (1280)
I0502 19:41:22.157625 12786 net.cpp:159] Memory required for data: 11946480
I0502 19:41:22.157631 12786 layer_factory.hpp:77] Creating layer ip3
I0502 19:41:22.157639 12786 net.cpp:94] Creating Layer ip3
I0502 19:41:22.157641 12786 net.cpp:435] ip3 <- ip2
I0502 19:41:22.157647 12786 net.cpp:409] ip3 -> ip3
I0502 19:41:22.157789 12786 net.cpp:144] Setting up ip3
I0502 19:41:22.157795 12786 net.cpp:151] Top shape: 20 50 (1000)
I0502 19:41:22.157799 12786 net.cpp:159] Memory required for data: 11950480
I0502 19:41:22.157804 12786 layer_factory.hpp:77] Creating layer ip3_ip3_0_split
I0502 19:41:22.157809 12786 net.cpp:94] Creating Layer ip3_ip3_0_split
I0502 19:41:22.157814 12786 net.cpp:435] ip3_ip3_0_split <- ip3
I0502 19:41:22.157819 12786 net.cpp:409] ip3_ip3_0_split -> ip3_ip3_0_split_0
I0502 19:41:22.157824 12786 net.cpp:409] ip3_ip3_0_split -> ip3_ip3_0_split_1
I0502 19:41:22.157847 12786 net.cpp:144] Setting up ip3_ip3_0_split
I0502 19:41:22.157853 12786 net.cpp:151] Top shape: 20 50 (1000)
I0502 19:41:22.157857 12786 net.cpp:151] Top shape: 20 50 (1000)
I0502 19:41:22.157860 12786 net.cpp:159] Memory required for data: 11958480
I0502 19:41:22.157865 12786 layer_factory.hpp:77] Creating layer accuracy
I0502 19:41:22.157871 12786 net.cpp:94] Creating Layer accuracy
I0502 19:41:22.157873 12786 net.cpp:435] accuracy <- ip3_ip3_0_split_0
I0502 19:41:22.157878 12786 net.cpp:435] accuracy <- label_intercept_1_split_0
I0502 19:41:22.157882 12786 net.cpp:409] accuracy -> accuracy
…
