…
I0430 23:30:59.830207 28185 net.cpp:323] The NetState phase (0) differed from the phase (1) specified by a rule in layer intercept
I0430 23:30:59.830224 28185 net.cpp:323] The NetState phase (0) differed from the phase (1) specified by a rule in layer loss
I0430 23:30:59.830309 28185 net.cpp:52] Initializing net from parameters: 
state {
  phase: TRAIN
}
layer {
  name: "parameters"
  type: "HDF5Data"
  top: "data"
  top: "label"
  include {
    phase: TRAIN
  }
  hdf5_data_param {
    source: "/home/purduethu/scratch/radon/d/deng106/CNNStatisticalModel/distributions/input/50_distributions_400_sample_size_train-parameters-path.txt"
    batch_size: 20
  }
}
layer {
  name: "conv1"
  type: "Convolution"
  bottom: "data"
  top: "conv1"
  param {
    lr_mult: 1
  }
  param {
    lr_mult: 2
  }
  convolution_param {
    num_output: 64
    pad: 2
    kernel_size: 5
    stride: 1
    weight_filler {
      type: "gaussian"
      std: 0.0001
    }
    bias_filler {
      type: "constant"
    }
  }
}
layer {
  name: "relu1"
  type: "ReLU"
  bottom: "conv1"
  top: "conv1"
}
layer {
  name: "conv2"
  type: "Convolution"
  bottom: "conv1"
  top: "conv2"
  param {
    lr_mult: 1
  }
  param {
    lr_mult: 2
  }
  convolution_param {
    num_output: 64
    pad: 2
    kernel_size: 5
    stride: 1
    weight_filler {
      type: "gaussian"
      std: 0.01
    }
    bias_filler {
      type: "constant"
    }
  }
}
layer {
  name: "relu2"
  type: "ReLU"
  bottom: "conv2"
  top: "conv2"
}
layer {
  name: "pool2"
  type: "Pooling"
  bottom: "conv2"
  top: "pool2"
  pooling_param {
    pool: MAX
    kernel_size: 3
    stride: 2
  }
}
layer {
  name: "conv3"
  type: "Convolution"
  bottom: "pool2"
  top: "conv3"
  param {
    lr_mult: 1
  }
  param {
    lr_mult: 2
  }
  convolution_param {
    num_output: 128
    pad: 2
    kernel_size: 5
    stride: 1
    weight_filler {
      type: "gaussian"
      std: 0.01
    }
    bias_filler {
      type: "constant"
    }
  }
}
layer {
  name: "relu3"
  type: "ReLU"
  bottom: "conv3"
  top: "conv3"
}
layer {
  name: "conv4"
  type: "Convolution"
  bottom: "conv3"
  top: "conv4"
  param {
    lr_mult: 1
  }
  param {
    lr_mult: 2
  }
  convolution_param {
    num_output: 128
    pad: 2
    kernel_size: 5
    stride: 1
    weight_filler {
      type: "gaussian"
      std: 0.01
    }
    bias_filler {
      type: "constant"
    }
  }
}
layer {
  name: "relu4"
  type: "ReLU"
  bottom: "conv4"
  top: "conv4"
}
layer {
  name: "conv5"
  type: "Convolution"
  bottom: "conv4"
  top: "conv5"
  param {
    lr_mult: 1
  }
  param {
    lr_mult: 2
  }
  convolution_param {
    num_output: 128
    pad: 2
    kernel_size: 5
    stride: 1
    weight_filler {
      type: "gaussian"
      std: 0.01
    }
    bias_filler {
      type: "constant"
    }
  }
}
layer {
  name: "relu5"
  type: "ReLU"
  bottom: "conv5"
  top: "conv5"
}
layer {
  name: "pool5"
  type: "Pooling"
  bottom: "conv5"
  top: "pool5"
  pooling_param {
    pool: AVE
    kernel_size: 3
    stride: 2
  }
}
layer {
  name: "ip1"
  type: "InnerProduct"
  bottom: "pool5"
  top: "ip1"
  param {
    lr_mult: 1
  }
  param {
    lr_mult: 2
  }
  inner_product_param {
    num_output: 1024
    weight_filler {
      type: "gaussian"
      std: 0.1
    }
    bias_filler {
      type: "constant"
    }
  }
}
layer {
  name: "ip2"
  type: "InnerProduct"
  bottom: "ip1"
  top: "ip2"
  param {
    lr_mult: 1
  }
  param {
    lr_mult: 2
  }
  inner_product_param {
    num_output: 512
    weight_filler {
      type: "gaussian"
      std: 0.1
    }
    bias_filler {
      type: "constant"
    }
  }
}
layer {
  name: "ip3"
  type: "InnerProduct"
  bottom: "ip2"
  top: "ip3"
  param {
    lr_mult: 1
  }
  param {
    lr_mult: 2
  }
  inner_product_param {
    num_output: 1
    weight_filler {
      type: "gaussian"
      std: 0.1
    }
    bias_filler {
      type: "constant"
    }
  }
}
layer {
  name: "loss"
  type: "HuberLoss"
  bottom: "ip3"
  bottom: "label"
  top: "loss"
  include {
    phase: TRAIN
  }
}
I0430 23:30:59.830364 28185 layer_factory.hpp:77] Creating layer parameters
I0430 23:30:59.830380 28185 net.cpp:94] Creating Layer parameters
I0430 23:30:59.830384 28185 net.cpp:409] parameters -> data
I0430 23:30:59.830394 28185 net.cpp:409] parameters -> label
I0430 23:30:59.830400 28185 hdf5_data_layer.cpp:79] Loading list of HDF5 filenames from: /home/purduethu/scratch/radon/d/deng106/CNNStatisticalModel/distributions/input/50_distributions_400_sample_size_train-parameters-path.txt
I0430 23:30:59.830415 28185 hdf5_data_layer.cpp:93] Number of HDF5 files: 1
I0430 23:30:59.830862 28185 hdf5.cpp:32] Datatype class: H5T_FLOAT
I0430 23:31:00.503824 28185 net.cpp:144] Setting up parameters
I0430 23:31:00.503864 28185 net.cpp:151] Top shape: 20 1 20 20 (8000)
I0430 23:31:00.503868 28185 net.cpp:151] Top shape: 20 (20)
I0430 23:31:00.503872 28185 net.cpp:159] Memory required for data: 32080
I0430 23:31:00.503878 28185 layer_factory.hpp:77] Creating layer conv1
I0430 23:31:00.503901 28185 net.cpp:94] Creating Layer conv1
I0430 23:31:00.503906 28185 net.cpp:435] conv1 <- data
I0430 23:31:00.503912 28185 net.cpp:409] conv1 -> conv1
I0430 23:31:00.509371 28185 net.cpp:144] Setting up conv1
I0430 23:31:00.509388 28185 net.cpp:151] Top shape: 20 64 20 20 (512000)
I0430 23:31:00.509392 28185 net.cpp:159] Memory required for data: 2080080
I0430 23:31:00.509402 28185 layer_factory.hpp:77] Creating layer relu1
I0430 23:31:00.509410 28185 net.cpp:94] Creating Layer relu1
I0430 23:31:00.509414 28185 net.cpp:435] relu1 <- conv1
I0430 23:31:00.509419 28185 net.cpp:396] relu1 -> conv1 (in-place)
I0430 23:31:00.509431 28185 net.cpp:144] Setting up relu1
I0430 23:31:00.509435 28185 net.cpp:151] Top shape: 20 64 20 20 (512000)
I0430 23:31:00.509439 28185 net.cpp:159] Memory required for data: 4128080
I0430 23:31:00.509443 28185 layer_factory.hpp:77] Creating layer conv2
I0430 23:31:00.509450 28185 net.cpp:94] Creating Layer conv2
I0430 23:31:00.509454 28185 net.cpp:435] conv2 <- conv1
I0430 23:31:00.509459 28185 net.cpp:409] conv2 -> conv2
I0430 23:31:00.520797 28185 net.cpp:144] Setting up conv2
I0430 23:31:00.520817 28185 net.cpp:151] Top shape: 20 64 20 20 (512000)
I0430 23:31:00.520820 28185 net.cpp:159] Memory required for data: 6176080
I0430 23:31:00.520829 28185 layer_factory.hpp:77] Creating layer relu2
I0430 23:31:00.520836 28185 net.cpp:94] Creating Layer relu2
I0430 23:31:00.520840 28185 net.cpp:435] relu2 <- conv2
I0430 23:31:00.520845 28185 net.cpp:396] relu2 -> conv2 (in-place)
I0430 23:31:00.520853 28185 net.cpp:144] Setting up relu2
I0430 23:31:00.520858 28185 net.cpp:151] Top shape: 20 64 20 20 (512000)
I0430 23:31:00.520860 28185 net.cpp:159] Memory required for data: 8224080
I0430 23:31:00.520864 28185 layer_factory.hpp:77] Creating layer pool2
I0430 23:31:00.520869 28185 net.cpp:94] Creating Layer pool2
I0430 23:31:00.520879 28185 net.cpp:435] pool2 <- conv2
I0430 23:31:00.520884 28185 net.cpp:409] pool2 -> pool2
I0430 23:31:00.520942 28185 net.cpp:144] Setting up pool2
I0430 23:31:00.520951 28185 net.cpp:151] Top shape: 20 64 10 10 (128000)
I0430 23:31:00.520953 28185 net.cpp:159] Memory required for data: 8736080
I0430 23:31:00.520956 28185 layer_factory.hpp:77] Creating layer conv3
I0430 23:31:00.520964 28185 net.cpp:94] Creating Layer conv3
I0430 23:31:00.520967 28185 net.cpp:435] conv3 <- pool2
I0430 23:31:00.520972 28185 net.cpp:409] conv3 -> conv3
I0430 23:31:00.530895 28185 net.cpp:144] Setting up conv3
I0430 23:31:00.530910 28185 net.cpp:151] Top shape: 20 128 10 10 (256000)
I0430 23:31:00.530915 28185 net.cpp:159] Memory required for data: 9760080
I0430 23:31:00.530923 28185 layer_factory.hpp:77] Creating layer relu3
I0430 23:31:00.530930 28185 net.cpp:94] Creating Layer relu3
I0430 23:31:00.530932 28185 net.cpp:435] relu3 <- conv3
I0430 23:31:00.530937 28185 net.cpp:396] relu3 -> conv3 (in-place)
I0430 23:31:00.530944 28185 net.cpp:144] Setting up relu3
I0430 23:31:00.530948 28185 net.cpp:151] Top shape: 20 128 10 10 (256000)
I0430 23:31:00.530951 28185 net.cpp:159] Memory required for data: 10784080
I0430 23:31:00.530954 28185 layer_factory.hpp:77] Creating layer conv4
I0430 23:31:00.530963 28185 net.cpp:94] Creating Layer conv4
I0430 23:31:00.530966 28185 net.cpp:435] conv4 <- conv3
I0430 23:31:00.530972 28185 net.cpp:409] conv4 -> conv4
I0430 23:31:00.549271 28185 net.cpp:144] Setting up conv4
I0430 23:31:00.549290 28185 net.cpp:151] Top shape: 20 128 10 10 (256000)
I0430 23:31:00.549294 28185 net.cpp:159] Memory required for data: 11808080
I0430 23:31:00.549300 28185 layer_factory.hpp:77] Creating layer relu4
I0430 23:31:00.549307 28185 net.cpp:94] Creating Layer relu4
I0430 23:31:00.549311 28185 net.cpp:435] relu4 <- conv4
I0430 23:31:00.549315 28185 net.cpp:396] relu4 -> conv4 (in-place)
I0430 23:31:00.549322 28185 net.cpp:144] Setting up relu4
I0430 23:31:00.549327 28185 net.cpp:151] Top shape: 20 128 10 10 (256000)
I0430 23:31:00.549329 28185 net.cpp:159] Memory required for data: 12832080
I0430 23:31:00.549332 28185 layer_factory.hpp:77] Creating layer conv5
I0430 23:31:00.549340 28185 net.cpp:94] Creating Layer conv5
I0430 23:31:00.549343 28185 net.cpp:435] conv5 <- conv4
I0430 23:31:00.549348 28185 net.cpp:409] conv5 -> conv5
I0430 23:31:00.567435 28185 net.cpp:144] Setting up conv5
I0430 23:31:00.567454 28185 net.cpp:151] Top shape: 20 128 10 10 (256000)
I0430 23:31:00.567458 28185 net.cpp:159] Memory required for data: 13856080
I0430 23:31:00.567467 28185 layer_factory.hpp:77] Creating layer relu5
I0430 23:31:00.567473 28185 net.cpp:94] Creating Layer relu5
I0430 23:31:00.567477 28185 net.cpp:435] relu5 <- conv5
I0430 23:31:00.567482 28185 net.cpp:396] relu5 -> conv5 (in-place)
I0430 23:31:00.567489 28185 net.cpp:144] Setting up relu5
I0430 23:31:00.567493 28185 net.cpp:151] Top shape: 20 128 10 10 (256000)
I0430 23:31:00.567497 28185 net.cpp:159] Memory required for data: 14880080
I0430 23:31:00.567499 28185 layer_factory.hpp:77] Creating layer pool5
I0430 23:31:00.567504 28185 net.cpp:94] Creating Layer pool5
I0430 23:31:00.567507 28185 net.cpp:435] pool5 <- conv5
I0430 23:31:00.567512 28185 net.cpp:409] pool5 -> pool5
I0430 23:31:00.567556 28185 net.cpp:144] Setting up pool5
I0430 23:31:00.567564 28185 net.cpp:151] Top shape: 20 128 5 5 (64000)
I0430 23:31:00.567566 28185 net.cpp:159] Memory required for data: 15136080
I0430 23:31:00.567569 28185 layer_factory.hpp:77] Creating layer ip1
I0430 23:31:00.567579 28185 net.cpp:94] Creating Layer ip1
I0430 23:31:00.567582 28185 net.cpp:435] ip1 <- pool5
I0430 23:31:00.567587 28185 net.cpp:409] ip1 -> ip1
I0430 23:31:00.646757 28185 net.cpp:144] Setting up ip1
I0430 23:31:00.646792 28185 net.cpp:151] Top shape: 20 1024 (20480)
I0430 23:31:00.646797 28185 net.cpp:159] Memory required for data: 15218000
I0430 23:31:00.646806 28185 layer_factory.hpp:77] Creating layer ip2
I0430 23:31:00.646816 28185 net.cpp:94] Creating Layer ip2
I0430 23:31:00.646829 28185 net.cpp:435] ip2 <- ip1
I0430 23:31:00.646836 28185 net.cpp:409] ip2 -> ip2
I0430 23:31:00.660116 28185 net.cpp:144] Setting up ip2
I0430 23:31:00.660135 28185 net.cpp:151] Top shape: 20 512 (10240)
I0430 23:31:00.660138 28185 net.cpp:159] Memory required for data: 15258960
I0430 23:31:00.660145 28185 layer_factory.hpp:77] Creating layer ip3
I0430 23:31:00.660151 28185 net.cpp:94] Creating Layer ip3
I0430 23:31:00.660156 28185 net.cpp:435] ip3 <- ip2
I0430 23:31:00.660161 28185 net.cpp:409] ip3 -> ip3
I0430 23:31:00.660275 28185 net.cpp:144] Setting up ip3
I0430 23:31:00.660282 28185 net.cpp:151] Top shape: 20 1 (20)
I0430 23:31:00.660285 28185 net.cpp:159] Memory required for data: 15259040
I0430 23:31:00.660290 28185 layer_factory.hpp:77] Creating layer loss
I0430 23:31:00.660298 28185 net.cpp:94] Creating Layer loss
I0430 23:31:00.660301 28185 net.cpp:435] loss <- ip3
I0430 23:31:00.660305 28185 net.cpp:435] loss <- label
I0430 23:31:00.660310 28185 net.cpp:409] loss -> loss
I0430 23:31:00.660359 28185 net.cpp:144] Setting up loss
…
I0430 23:31:00.954105 28185 net.cpp:323] The NetState phase (0) differed from the phase (1) specified by a rule in layer intercept
I0430 23:31:00.954123 28185 net.cpp:323] The NetState phase (0) differed from the phase (1) specified by a rule in layer accuracy
I0430 23:31:00.954210 28185 net.cpp:52] Initializing net from parameters: 
state {
  phase: TRAIN
}
layer {
  name: "parameters"
  type: "HDF5Data"
  top: "data"
  top: "label"
  include {
    phase: TRAIN
  }
  hdf5_data_param {
    source: "/home/purduethu/scratch/radon/d/deng106/CNNStatisticalModel/distributions/input/50_distributions_400_sample_size_train-distributions-path.txt"
    batch_size: 20
  }
}
layer {
  name: "conv1"
  type: "Convolution"
  bottom: "data"
  top: "conv1"
  param {
    lr_mult: 1
  }
  param {
    lr_mult: 2
  }
  convolution_param {
    num_output: 64
    pad: 2
    kernel_size: 5
    stride: 1
    weight_filler {
      type: "gaussian"
      std: 0.0001
    }
    bias_filler {
      type: "constant"
    }
  }
}
layer {
  name: "relu1"
  type: "ReLU"
  bottom: "conv1"
  top: "conv1"
}
layer {
  name: "conv2"
  type: "Convolution"
  bottom: "conv1"
  top: "conv2"
  param {
    lr_mult: 1
  }
  param {
    lr_mult: 2
  }
  convolution_param {
    num_output: 64
    pad: 2
    kernel_size: 5
    stride: 1
    weight_filler {
      type: "gaussian"
      std: 0.01
    }
    bias_filler {
      type: "constant"
    }
  }
}
layer {
  name: "relu2"
  type: "ReLU"
  bottom: "conv2"
  top: "conv2"
}
layer {
  name: "pool2"
  type: "Pooling"
  bottom: "conv2"
  top: "pool2"
  pooling_param {
    pool: MAX
    kernel_size: 3
    stride: 2
  }
}
layer {
  name: "conv3"
  type: "Convolution"
  bottom: "pool2"
  top: "conv3"
  param {
    lr_mult: 1
  }
  param {
    lr_mult: 2
  }
  convolution_param {
    num_output: 128
    pad: 2
    kernel_size: 5
    stride: 1
    weight_filler {
      type: "gaussian"
      std: 0.01
    }
    bias_filler {
      type: "constant"
    }
  }
}
layer {
  name: "relu3"
  type: "ReLU"
  bottom: "conv3"
  top: "conv3"
}
layer {
  name: "conv4"
  type: "Convolution"
  bottom: "conv3"
  top: "conv4"
  param {
    lr_mult: 1
  }
  param {
    lr_mult: 2
  }
  convolution_param {
    num_output: 128
    pad: 2
    kernel_size: 5
    stride: 1
    weight_filler {
      type: "gaussian"
      std: 0.01
    }
    bias_filler {
      type: "constant"
    }
  }
}
layer {
  name: "relu4"
  type: "ReLU"
  bottom: "conv4"
  top: "conv4"
}
layer {
  name: "conv5"
  type: "Convolution"
  bottom: "conv4"
  top: "conv5"
  param {
    lr_mult: 1
  }
  param {
    lr_mult: 2
  }
  convolution_param {
    num_output: 128
    pad: 2
    kernel_size: 5
    stride: 1
    weight_filler {
      type: "gaussian"
      std: 0.01
    }
    bias_filler {
      type: "constant"
    }
  }
}
layer {
  name: "relu5"
  type: "ReLU"
  bottom: "conv5"
  top: "conv5"
}
layer {
  name: "pool5"
  type: "Pooling"
  bottom: "conv5"
  top: "pool5"
  pooling_param {
    pool: AVE
    kernel_size: 3
    stride: 2
  }
}
layer {
  name: "ip1"
  type: "InnerProduct"
  bottom: "pool5"
  top: "ip1"
  param {
    lr_mult: 1
  }
  param {
    lr_mult: 2
  }
  inner_product_param {
    num_output: 1024
    weight_filler {
      type: "gaussian"
      std: 0.1
    }
    bias_filler {
      type: "constant"
    }
  }
}
layer {
  name: "ip2"
  type: "InnerProduct"
  bottom: "ip1"
  top: "ip2"
  param {
    lr_mult: 1
  }
  param {
    lr_mult: 2
  }
  inner_product_param {
    num_output: 512
    weight_filler {
      type: "gaussian"
      std: 0.1
    }
    bias_filler {
      type: "constant"
    }
  }
}
layer {
  name: "ip3"
  type: "InnerProduct"
  bottom: "ip2"
  top: "ip3"
  param {
    lr_mult: 1
  }
  param {
    lr_mult: 2
  }
  inner_product_param {
    num_output: 50
    weight_filler {
      type: "gaussian"
      std: 0.1
    }
    bias_filler {
      type: "constant"
    }
  }
}
layer {
  name: "loss"
  type: "SoftmaxWithLoss"
  bottom: "ip3"
  bottom: "label"
  top: "loss"
}
I0430 23:31:00.954259 28185 layer_factory.hpp:77] Creating layer parameters
I0430 23:31:00.954267 28185 net.cpp:94] Creating Layer parameters
I0430 23:31:00.954270 28185 net.cpp:409] parameters -> data
I0430 23:31:00.954277 28185 net.cpp:409] parameters -> label
I0430 23:31:00.954282 28185 hdf5_data_layer.cpp:79] Loading list of HDF5 filenames from: /home/purduethu/scratch/radon/d/deng106/CNNStatisticalModel/distributions/input/50_distributions_400_sample_size_train-distributions-path.txt
I0430 23:31:00.954298 28185 hdf5_data_layer.cpp:93] Number of HDF5 files: 1
I0430 23:31:01.591233 28185 hdf5.cpp:35] Datatype class: H5T_INTEGER
I0430 23:31:01.594364 28185 net.cpp:144] Setting up parameters
I0430 23:31:01.594390 28185 net.cpp:151] Top shape: 20 1 20 20 (8000)
I0430 23:31:01.594395 28185 net.cpp:151] Top shape: 20 (20)
I0430 23:31:01.594398 28185 net.cpp:159] Memory required for data: 32080
I0430 23:31:01.594404 28185 layer_factory.hpp:77] Creating layer conv1
I0430 23:31:01.594419 28185 net.cpp:94] Creating Layer conv1
I0430 23:31:01.594424 28185 net.cpp:435] conv1 <- data
I0430 23:31:01.594429 28185 net.cpp:409] conv1 -> conv1
I0430 23:31:01.596810 28185 net.cpp:144] Setting up conv1
I0430 23:31:01.596824 28185 net.cpp:151] Top shape: 20 64 20 20 (512000)
I0430 23:31:01.596828 28185 net.cpp:159] Memory required for data: 2080080
I0430 23:31:01.596837 28185 layer_factory.hpp:77] Creating layer relu1
I0430 23:31:01.596845 28185 net.cpp:94] Creating Layer relu1
I0430 23:31:01.596849 28185 net.cpp:435] relu1 <- conv1
I0430 23:31:01.596853 28185 net.cpp:396] relu1 -> conv1 (in-place)
I0430 23:31:01.596860 28185 net.cpp:144] Setting up relu1
I0430 23:31:01.596864 28185 net.cpp:151] Top shape: 20 64 20 20 (512000)
I0430 23:31:01.596868 28185 net.cpp:159] Memory required for data: 4128080
I0430 23:31:01.596870 28185 layer_factory.hpp:77] Creating layer conv2
I0430 23:31:01.596877 28185 net.cpp:94] Creating Layer conv2
I0430 23:31:01.596880 28185 net.cpp:435] conv2 <- conv1
I0430 23:31:01.596885 28185 net.cpp:409] conv2 -> conv2
I0430 23:31:01.607776 28185 net.cpp:144] Setting up conv2
I0430 23:31:01.607792 28185 net.cpp:151] Top shape: 20 64 20 20 (512000)
I0430 23:31:01.607796 28185 net.cpp:159] Memory required for data: 6176080
I0430 23:31:01.607805 28185 layer_factory.hpp:77] Creating layer relu2
I0430 23:31:01.607812 28185 net.cpp:94] Creating Layer relu2
I0430 23:31:01.607815 28185 net.cpp:435] relu2 <- conv2
I0430 23:31:01.607820 28185 net.cpp:396] relu2 -> conv2 (in-place)
I0430 23:31:01.607827 28185 net.cpp:144] Setting up relu2
I0430 23:31:01.607832 28185 net.cpp:151] Top shape: 20 64 20 20 (512000)
I0430 23:31:01.607834 28185 net.cpp:159] Memory required for data: 8224080
I0430 23:31:01.607837 28185 layer_factory.hpp:77] Creating layer pool2
I0430 23:31:01.607843 28185 net.cpp:94] Creating Layer pool2
I0430 23:31:01.607846 28185 net.cpp:435] pool2 <- conv2
I0430 23:31:01.607851 28185 net.cpp:409] pool2 -> pool2
I0430 23:31:01.607908 28185 net.cpp:144] Setting up pool2
I0430 23:31:01.607915 28185 net.cpp:151] Top shape: 20 64 10 10 (128000)
I0430 23:31:01.607918 28185 net.cpp:159] Memory required for data: 8736080
I0430 23:31:01.607921 28185 layer_factory.hpp:77] Creating layer conv3
I0430 23:31:01.607928 28185 net.cpp:94] Creating Layer conv3
I0430 23:31:01.607933 28185 net.cpp:435] conv3 <- pool2
I0430 23:31:01.607944 28185 net.cpp:409] conv3 -> conv3
I0430 23:31:01.618954 28185 net.cpp:144] Setting up conv3
I0430 23:31:01.618970 28185 net.cpp:151] Top shape: 20 128 10 10 (256000)
I0430 23:31:01.618974 28185 net.cpp:159] Memory required for data: 9760080
I0430 23:31:01.618983 28185 layer_factory.hpp:77] Creating layer relu3
I0430 23:31:01.618989 28185 net.cpp:94] Creating Layer relu3
I0430 23:31:01.618993 28185 net.cpp:435] relu3 <- conv3
I0430 23:31:01.618998 28185 net.cpp:396] relu3 -> conv3 (in-place)
I0430 23:31:01.619004 28185 net.cpp:144] Setting up relu3
I0430 23:31:01.619009 28185 net.cpp:151] Top shape: 20 128 10 10 (256000)
I0430 23:31:01.619011 28185 net.cpp:159] Memory required for data: 10784080
I0430 23:31:01.619014 28185 layer_factory.hpp:77] Creating layer conv4
I0430 23:31:01.619022 28185 net.cpp:94] Creating Layer conv4
I0430 23:31:01.619026 28185 net.cpp:435] conv4 <- conv3
I0430 23:31:01.619030 28185 net.cpp:409] conv4 -> conv4
I0430 23:31:01.637413 28185 net.cpp:144] Setting up conv4
I0430 23:31:01.637429 28185 net.cpp:151] Top shape: 20 128 10 10 (256000)
I0430 23:31:01.637434 28185 net.cpp:159] Memory required for data: 11808080
I0430 23:31:01.637439 28185 layer_factory.hpp:77] Creating layer relu4
I0430 23:31:01.637446 28185 net.cpp:94] Creating Layer relu4
I0430 23:31:01.637449 28185 net.cpp:435] relu4 <- conv4
I0430 23:31:01.637454 28185 net.cpp:396] relu4 -> conv4 (in-place)
I0430 23:31:01.637461 28185 net.cpp:144] Setting up relu4
I0430 23:31:01.637465 28185 net.cpp:151] Top shape: 20 128 10 10 (256000)
I0430 23:31:01.637468 28185 net.cpp:159] Memory required for data: 12832080
I0430 23:31:01.637471 28185 layer_factory.hpp:77] Creating layer conv5
I0430 23:31:01.637480 28185 net.cpp:94] Creating Layer conv5
I0430 23:31:01.637482 28185 net.cpp:435] conv5 <- conv4
I0430 23:31:01.637487 28185 net.cpp:409] conv5 -> conv5
I0430 23:31:01.655553 28185 net.cpp:144] Setting up conv5
I0430 23:31:01.655571 28185 net.cpp:151] Top shape: 20 128 10 10 (256000)
I0430 23:31:01.655575 28185 net.cpp:159] Memory required for data: 13856080
I0430 23:31:01.655586 28185 layer_factory.hpp:77] Creating layer relu5
I0430 23:31:01.655592 28185 net.cpp:94] Creating Layer relu5
I0430 23:31:01.655596 28185 net.cpp:435] relu5 <- conv5
I0430 23:31:01.655601 28185 net.cpp:396] relu5 -> conv5 (in-place)
I0430 23:31:01.655608 28185 net.cpp:144] Setting up relu5
I0430 23:31:01.655612 28185 net.cpp:151] Top shape: 20 128 10 10 (256000)
I0430 23:31:01.655616 28185 net.cpp:159] Memory required for data: 14880080
I0430 23:31:01.655618 28185 layer_factory.hpp:77] Creating layer pool5
I0430 23:31:01.655623 28185 net.cpp:94] Creating Layer pool5
I0430 23:31:01.655627 28185 net.cpp:435] pool5 <- conv5
I0430 23:31:01.655632 28185 net.cpp:409] pool5 -> pool5
I0430 23:31:01.655675 28185 net.cpp:144] Setting up pool5
I0430 23:31:01.655683 28185 net.cpp:151] Top shape: 20 128 5 5 (64000)
I0430 23:31:01.655685 28185 net.cpp:159] Memory required for data: 15136080
I0430 23:31:01.655689 28185 layer_factory.hpp:77] Creating layer ip1
I0430 23:31:01.655695 28185 net.cpp:94] Creating Layer ip1
I0430 23:31:01.655699 28185 net.cpp:435] ip1 <- pool5
I0430 23:31:01.655704 28185 net.cpp:409] ip1 -> ip1
I0430 23:31:01.735445 28185 net.cpp:144] Setting up ip1
I0430 23:31:01.735477 28185 net.cpp:151] Top shape: 20 1024 (20480)
I0430 23:31:01.735481 28185 net.cpp:159] Memory required for data: 15218000
I0430 23:31:01.735491 28185 layer_factory.hpp:77] Creating layer ip2
I0430 23:31:01.735501 28185 net.cpp:94] Creating Layer ip2
I0430 23:31:01.735504 28185 net.cpp:435] ip2 <- ip1
I0430 23:31:01.735512 28185 net.cpp:409] ip2 -> ip2
I0430 23:31:01.748800 28185 net.cpp:144] Setting up ip2
I0430 23:31:01.748819 28185 net.cpp:151] Top shape: 20 512 (10240)
I0430 23:31:01.748823 28185 net.cpp:159] Memory required for data: 15258960
I0430 23:31:01.748831 28185 layer_factory.hpp:77] Creating layer ip3
I0430 23:31:01.748838 28185 net.cpp:94] Creating Layer ip3
I0430 23:31:01.748842 28185 net.cpp:435] ip3 <- ip2
I0430 23:31:01.748848 28185 net.cpp:409] ip3 -> ip3
I0430 23:31:01.750460 28185 net.cpp:144] Setting up ip3
I0430 23:31:01.750474 28185 net.cpp:151] Top shape: 20 50 (1000)
I0430 23:31:01.750478 28185 net.cpp:159] Memory required for data: 15262960
I0430 23:31:01.750484 28185 layer_factory.hpp:77] Creating layer loss
I0430 23:31:01.750493 28185 net.cpp:94] Creating Layer loss
I0430 23:31:01.750496 28185 net.cpp:435] loss <- ip3
I0430 23:31:01.750500 28185 net.cpp:435] loss <- label
I0430 23:31:01.750504 28185 net.cpp:409] loss -> loss
I0430 23:31:01.750512 28185 layer_factory.hpp:77] Creating layer loss
…
I0430 23:31:01.751032 28185 solver.cpp:181] Creating test net (#0) specified by net file: ./protocol/dis_50_400_dimension.protocol_distribution
I0430 23:31:01.751058 28185 net.cpp:323] The NetState phase (1) differed from the phase (0) specified by a rule in layer parameters
I0430 23:31:01.751154 28185 net.cpp:52] Initializing net from parameters: 
state {
  phase: TEST
}
layer {
  name: "intercept"
  type: "HDF5Data"
  top: "data"
  top: "label"
  include {
    phase: TEST
  }
  hdf5_data_param {
    source: "/home/purduethu/scratch/radon/d/deng106/CNNStatisticalModel/distributions/input/50_distributions_400_sample_size_test-distributions-path.txt"
    batch_size: 20
  }
}
layer {
  name: "conv1"
  type: "Convolution"
  bottom: "data"
  top: "conv1"
  param {
    lr_mult: 1
  }
  param {
    lr_mult: 2
  }
  convolution_param {
    num_output: 64
    pad: 2
    kernel_size: 5
    stride: 1
    weight_filler {
      type: "gaussian"
      std: 0.0001
    }
    bias_filler {
      type: "constant"
    }
  }
}
layer {
  name: "relu1"
  type: "ReLU"
  bottom: "conv1"
  top: "conv1"
}
layer {
  name: "conv2"
  type: "Convolution"
  bottom: "conv1"
  top: "conv2"
  param {
    lr_mult: 1
  }
  param {
    lr_mult: 2
  }
  convolution_param {
    num_output: 64
    pad: 2
    kernel_size: 5
    stride: 1
    weight_filler {
      type: "gaussian"
      std: 0.01
    }
    bias_filler {
      type: "constant"
    }
  }
}
layer {
  name: "relu2"
  type: "ReLU"
  bottom: "conv2"
  top: "conv2"
}
layer {
  name: "pool2"
  type: "Pooling"
  bottom: "conv2"
  top: "pool2"
  pooling_param {
    pool: MAX
    kernel_size: 3
    stride: 2
  }
}
layer {
  name: "conv3"
  type: "Convolution"
  bottom: "pool2"
  top: "conv3"
  param {
    lr_mult: 1
  }
  param {
    lr_mult: 2
  }
  convolution_param {
    num_output: 128
    pad: 2
    kernel_size: 5
    stride: 1
    weight_filler {
      type: "gaussian"
      std: 0.01
    }
    bias_filler {
      type: "constant"
    }
  }
}
layer {
  name: "relu3"
  type: "ReLU"
  bottom: "conv3"
  top: "conv3"
}
layer {
  name: "conv4"
  type: "Convolution"
  bottom: "conv3"
  top: "conv4"
  param {
    lr_mult: 1
  }
  param {
    lr_mult: 2
  }
  convolution_param {
    num_output: 128
    pad: 2
    kernel_size: 5
    stride: 1
    weight_filler {
      type: "gaussian"
      std: 0.01
    }
    bias_filler {
      type: "constant"
    }
  }
}
layer {
  name: "relu4"
  type: "ReLU"
  bottom: "conv4"
  top: "conv4"
}
layer {
  name: "conv5"
  type: "Convolution"
  bottom: "conv4"
  top: "conv5"
  param {
    lr_mult: 1
  }
  param {
    lr_mult: 2
  }
  convolution_param {
    num_output: 128
    pad: 2
    kernel_size: 5
    stride: 1
    weight_filler {
      type: "gaussian"
      std: 0.01
    }
    bias_filler {
      type: "constant"
    }
  }
}
layer {
  name: "relu5"
  type: "ReLU"
  bottom: "conv5"
  top: "conv5"
}
layer {
  name: "pool5"
  type: "Pooling"
  bottom: "conv5"
  top: "pool5"
  pooling_param {
    pool: AVE
    kernel_size: 3
    stride: 2
  }
}
layer {
  name: "ip1"
  type: "InnerProduct"
  bottom: "pool5"
  top: "ip1"
  param {
    lr_mult: 1
  }
  param {
    lr_mult: 2
  }
  inner_product_param {
    num_output: 1024
    weight_filler {
      type: "gaussian"
      std: 0.1
    }
    bias_filler {
      type: "constant"
    }
  }
}
layer {
  name: "ip2"
  type: "InnerProduct"
  bottom: "ip1"
  top: "ip2"
  param {
    lr_mult: 1
  }
  param {
    lr_mult: 2
  }
  inner_product_param {
    num_output: 512
    weight_filler {
      type: "gaussian"
      std: 0.1
    }
    bias_filler {
      type: "constant"
    }
  }
}
layer {
  name: "ip3"
  type: "InnerProduct"
  bottom: "ip2"
  top: "ip3"
  param {
    lr_mult: 1
  }
  param {
    lr_mult: 2
  }
  inner_product_param {
    num_output: 50
    weight_filler {
      type: "gaussian"
      std: 0.1
    }
    bias_filler {
      type: "constant"
    }
  }
}
layer {
  name: "accuracy"
  type: "Accuracy"
  bottom: "ip3"
  bottom: "label"
  top: "accuracy"
  include {
    phase: TEST
  }
}
layer {
  name: "loss"
  type: "SoftmaxWithLoss"
  bottom: "ip3"
  bottom: "label"
  top: "loss"
}
I0430 23:31:01.751221 28185 layer_factory.hpp:77] Creating layer intercept
I0430 23:31:01.751230 28185 net.cpp:94] Creating Layer intercept
I0430 23:31:01.751233 28185 net.cpp:409] intercept -> data
I0430 23:31:01.751240 28185 net.cpp:409] intercept -> label
I0430 23:31:01.751245 28185 hdf5_data_layer.cpp:79] Loading list of HDF5 filenames from: /home/purduethu/scratch/radon/d/deng106/CNNStatisticalModel/distributions/input/50_distributions_400_sample_size_test-distributions-path.txt
I0430 23:31:01.751266 28185 hdf5_data_layer.cpp:93] Number of HDF5 files: 1
I0430 23:31:01.913357 28185 net.cpp:144] Setting up intercept
I0430 23:31:01.913390 28185 net.cpp:151] Top shape: 20 1 20 20 (8000)
I0430 23:31:01.913395 28185 net.cpp:151] Top shape: 20 (20)
I0430 23:31:01.913398 28185 net.cpp:159] Memory required for data: 32080
I0430 23:31:01.913405 28185 layer_factory.hpp:77] Creating layer label_intercept_1_split
I0430 23:31:01.913424 28185 net.cpp:94] Creating Layer label_intercept_1_split
I0430 23:31:01.913429 28185 net.cpp:435] label_intercept_1_split <- label
I0430 23:31:01.913434 28185 net.cpp:409] label_intercept_1_split -> label_intercept_1_split_0
I0430 23:31:01.913444 28185 net.cpp:409] label_intercept_1_split -> label_intercept_1_split_1
I0430 23:31:01.913487 28185 net.cpp:144] Setting up label_intercept_1_split
I0430 23:31:01.913493 28185 net.cpp:151] Top shape: 20 (20)
I0430 23:31:01.913497 28185 net.cpp:151] Top shape: 20 (20)
I0430 23:31:01.913501 28185 net.cpp:159] Memory required for data: 32240
I0430 23:31:01.913503 28185 layer_factory.hpp:77] Creating layer conv1
I0430 23:31:01.913514 28185 net.cpp:94] Creating Layer conv1
I0430 23:31:01.913517 28185 net.cpp:435] conv1 <- data
I0430 23:31:01.913522 28185 net.cpp:409] conv1 -> conv1
I0430 23:31:01.914338 28185 net.cpp:144] Setting up conv1
I0430 23:31:01.914350 28185 net.cpp:151] Top shape: 20 64 20 20 (512000)
I0430 23:31:01.914355 28185 net.cpp:159] Memory required for data: 2080240
I0430 23:31:01.914363 28185 layer_factory.hpp:77] Creating layer relu1
I0430 23:31:01.914371 28185 net.cpp:94] Creating Layer relu1
I0430 23:31:01.914373 28185 net.cpp:435] relu1 <- conv1
I0430 23:31:01.914377 28185 net.cpp:396] relu1 -> conv1 (in-place)
I0430 23:31:01.914384 28185 net.cpp:144] Setting up relu1
I0430 23:31:01.914388 28185 net.cpp:151] Top shape: 20 64 20 20 (512000)
I0430 23:31:01.914391 28185 net.cpp:159] Memory required for data: 4128240
I0430 23:31:01.914394 28185 layer_factory.hpp:77] Creating layer conv2
I0430 23:31:01.914402 28185 net.cpp:94] Creating Layer conv2
I0430 23:31:01.914405 28185 net.cpp:435] conv2 <- conv1
I0430 23:31:01.914409 28185 net.cpp:409] conv2 -> conv2
I0430 23:31:01.919731 28185 net.cpp:144] Setting up conv2
I0430 23:31:01.919760 28185 net.cpp:151] Top shape: 20 64 20 20 (512000)
I0430 23:31:01.919769 28185 net.cpp:159] Memory required for data: 6176240
I0430 23:31:01.919785 28185 layer_factory.hpp:77] Creating layer relu2
I0430 23:31:01.919797 28185 net.cpp:94] Creating Layer relu2
I0430 23:31:01.919805 28185 net.cpp:435] relu2 <- conv2
I0430 23:31:01.919813 28185 net.cpp:396] relu2 -> conv2 (in-place)
I0430 23:31:01.919826 28185 net.cpp:144] Setting up relu2
I0430 23:31:01.919836 28185 net.cpp:151] Top shape: 20 64 20 20 (512000)
I0430 23:31:01.919842 28185 net.cpp:159] Memory required for data: 8224240
I0430 23:31:01.919848 28185 layer_factory.hpp:77] Creating layer pool2
I0430 23:31:01.919859 28185 net.cpp:94] Creating Layer pool2
I0430 23:31:01.919865 28185 net.cpp:435] pool2 <- conv2
I0430 23:31:01.919876 28185 net.cpp:409] pool2 -> pool2
I0430 23:31:01.920002 28185 net.cpp:144] Setting up pool2
I0430 23:31:01.920023 28185 net.cpp:151] Top shape: 20 64 10 10 (128000)
I0430 23:31:01.920027 28185 net.cpp:159] Memory required for data: 8736240
I0430 23:31:01.920029 28185 layer_factory.hpp:77] Creating layer conv3
I0430 23:31:01.920038 28185 net.cpp:94] Creating Layer conv3
I0430 23:31:01.920042 28185 net.cpp:435] conv3 <- pool2
I0430 23:31:01.920047 28185 net.cpp:409] conv3 -> conv3
I0430 23:31:01.927453 28185 net.cpp:144] Setting up conv3
I0430 23:31:01.927480 28185 net.cpp:151] Top shape: 20 128 10 10 (256000)
I0430 23:31:01.927496 28185 net.cpp:159] Memory required for data: 9760240
I0430 23:31:01.927503 28185 layer_factory.hpp:77] Creating layer relu3
I0430 23:31:01.927510 28185 net.cpp:94] Creating Layer relu3
I0430 23:31:01.927515 28185 net.cpp:435] relu3 <- conv3
I0430 23:31:01.927518 28185 net.cpp:396] relu3 -> conv3 (in-place)
I0430 23:31:01.927525 28185 net.cpp:144] Setting up relu3
I0430 23:31:01.927530 28185 net.cpp:151] Top shape: 20 128 10 10 (256000)
I0430 23:31:01.927532 28185 net.cpp:159] Memory required for data: 10784240
I0430 23:31:01.927536 28185 layer_factory.hpp:77] Creating layer conv4
I0430 23:31:01.927544 28185 net.cpp:94] Creating Layer conv4
I0430 23:31:01.927547 28185 net.cpp:435] conv4 <- conv3
I0430 23:31:01.927553 28185 net.cpp:409] conv4 -> conv4
I0430 23:31:01.941521 28185 net.cpp:144] Setting up conv4
I0430 23:31:01.941539 28185 net.cpp:151] Top shape: 20 128 10 10 (256000)
I0430 23:31:01.941541 28185 net.cpp:159] Memory required for data: 11808240
I0430 23:31:01.941548 28185 layer_factory.hpp:77] Creating layer relu4
I0430 23:31:01.941555 28185 net.cpp:94] Creating Layer relu4
I0430 23:31:01.941560 28185 net.cpp:435] relu4 <- conv4
I0430 23:31:01.941565 28185 net.cpp:396] relu4 -> conv4 (in-place)
I0430 23:31:01.941571 28185 net.cpp:144] Setting up relu4
I0430 23:31:01.941576 28185 net.cpp:151] Top shape: 20 128 10 10 (256000)
I0430 23:31:01.941578 28185 net.cpp:159] Memory required for data: 12832240
I0430 23:31:01.941581 28185 layer_factory.hpp:77] Creating layer conv5
I0430 23:31:01.941591 28185 net.cpp:94] Creating Layer conv5
I0430 23:31:01.941593 28185 net.cpp:435] conv5 <- conv4
I0430 23:31:01.941599 28185 net.cpp:409] conv5 -> conv5
I0430 23:31:01.955080 28185 net.cpp:144] Setting up conv5
I0430 23:31:01.955111 28185 net.cpp:151] Top shape: 20 128 10 10 (256000)
I0430 23:31:01.955119 28185 net.cpp:159] Memory required for data: 13856240
I0430 23:31:01.955138 28185 layer_factory.hpp:77] Creating layer relu5
I0430 23:31:01.955150 28185 net.cpp:94] Creating Layer relu5
I0430 23:31:01.955158 28185 net.cpp:435] relu5 <- conv5
I0430 23:31:01.955170 28185 net.cpp:396] relu5 -> conv5 (in-place)
I0430 23:31:01.955184 28185 net.cpp:144] Setting up relu5
I0430 23:31:01.955193 28185 net.cpp:151] Top shape: 20 128 10 10 (256000)
I0430 23:31:01.955200 28185 net.cpp:159] Memory required for data: 14880240
I0430 23:31:01.955206 28185 layer_factory.hpp:77] Creating layer pool5
I0430 23:31:01.955216 28185 net.cpp:94] Creating Layer pool5
I0430 23:31:01.955222 28185 net.cpp:435] pool5 <- conv5
I0430 23:31:01.955234 28185 net.cpp:409] pool5 -> pool5
I0430 23:31:01.955328 28185 net.cpp:144] Setting up pool5
I0430 23:31:01.955343 28185 net.cpp:151] Top shape: 20 128 5 5 (64000)
I0430 23:31:01.955348 28185 net.cpp:159] Memory required for data: 15136240
I0430 23:31:01.955355 28185 layer_factory.hpp:77] Creating layer ip1
I0430 23:31:01.955369 28185 net.cpp:94] Creating Layer ip1
I0430 23:31:01.955376 28185 net.cpp:435] ip1 <- pool5
I0430 23:31:01.955386 28185 net.cpp:409] ip1 -> ip1
I0430 23:31:02.034629 28185 net.cpp:144] Setting up ip1
I0430 23:31:02.034663 28185 net.cpp:151] Top shape: 20 1024 (20480)
I0430 23:31:02.034667 28185 net.cpp:159] Memory required for data: 15218160
I0430 23:31:02.034677 28185 layer_factory.hpp:77] Creating layer ip2
I0430 23:31:02.034687 28185 net.cpp:94] Creating Layer ip2
I0430 23:31:02.034692 28185 net.cpp:435] ip2 <- ip1
I0430 23:31:02.034698 28185 net.cpp:409] ip2 -> ip2
I0430 23:31:02.047984 28185 net.cpp:144] Setting up ip2
I0430 23:31:02.048002 28185 net.cpp:151] Top shape: 20 512 (10240)
I0430 23:31:02.048007 28185 net.cpp:159] Memory required for data: 15259120
I0430 23:31:02.048012 28185 layer_factory.hpp:77] Creating layer ip3
I0430 23:31:02.048020 28185 net.cpp:94] Creating Layer ip3
I0430 23:31:02.048024 28185 net.cpp:435] ip3 <- ip2
I0430 23:31:02.048028 28185 net.cpp:409] ip3 -> ip3
I0430 23:31:02.048792 28185 net.cpp:144] Setting up ip3
I0430 23:31:02.048800 28185 net.cpp:151] Top shape: 20 50 (1000)
I0430 23:31:02.048804 28185 net.cpp:159] Memory required for data: 15263120
I0430 23:31:02.048809 28185 layer_factory.hpp:77] Creating layer ip3_ip3_0_split
I0430 23:31:02.048815 28185 net.cpp:94] Creating Layer ip3_ip3_0_split
I0430 23:31:02.048817 28185 net.cpp:435] ip3_ip3_0_split <- ip3
I0430 23:31:02.048822 28185 net.cpp:409] ip3_ip3_0_split -> ip3_ip3_0_split_0
I0430 23:31:02.048828 28185 net.cpp:409] ip3_ip3_0_split -> ip3_ip3_0_split_1
I0430 23:31:02.048883 28185 net.cpp:144] Setting up ip3_ip3_0_split
I0430 23:31:02.048889 28185 net.cpp:151] Top shape: 20 50 (1000)
I0430 23:31:02.048892 28185 net.cpp:151] Top shape: 20 50 (1000)
I0430 23:31:02.048895 28185 net.cpp:159] Memory required for data: 15271120
I0430 23:31:02.048898 28185 layer_factory.hpp:77] Creating layer accuracy
I0430 23:31:02.048903 28185 net.cpp:94] Creating Layer accuracy
I0430 23:31:02.048907 28185 net.cpp:435] accuracy <- ip3_ip3_0_split_0
I0430 23:31:02.048910 28185 net.cpp:435] accuracy <- label_intercept_1_split_0
I0430 23:31:02.048915 28185 net.cpp:409] accuracy -> accuracy
…
