…
I0507 19:41:15.595046  6605 net.cpp:323] The NetState phase (0) differed from the phase (1) specified by a rule in layer intercept
I0507 19:41:15.595062  6605 net.cpp:323] The NetState phase (0) differed from the phase (1) specified by a rule in layer loss
I0507 19:41:15.595139  6605 net.cpp:52] Initializing net from parameters: 
state {
  phase: TRAIN
}
layer {
  name: "parameters"
  type: "HDF5Data"
  top: "data"
  top: "label"
  include {
    phase: TRAIN
  }
  hdf5_data_param {
    source: "/home/purduethu/scratch/radon/d/deng106/CNNStatisticalModel/distributions/input/50_distributions_400_sample_size_train-parameters-path.txt"
    batch_size: 20
  }
}
layer {
  name: "conv1"
  type: "Convolution"
  bottom: "data"
  top: "conv1"
  param {
    lr_mult: 1
  }
  param {
    lr_mult: 2
  }
  convolution_param {
    num_output: 64
    pad: 2
    kernel_size: 5
    stride: 1
    weight_filler {
      type: "gaussian"
      std: 0.0001
    }
    bias_filler {
      type: "constant"
    }
  }
}
layer {
  name: "relu1"
  type: "ReLU"
  bottom: "conv1"
  top: "conv1"
}
layer {
  name: "conv2"
  type: "Convolution"
  bottom: "conv1"
  top: "conv2"
  param {
    lr_mult: 1
  }
  param {
    lr_mult: 2
  }
  convolution_param {
    num_output: 64
    pad: 2
    kernel_size: 5
    stride: 1
    weight_filler {
      type: "gaussian"
      std: 0.01
    }
    bias_filler {
      type: "constant"
    }
  }
}
layer {
  name: "relu2"
  type: "ReLU"
  bottom: "conv2"
  top: "conv2"
}
layer {
  name: "pool2"
  type: "Pooling"
  bottom: "conv2"
  top: "pool2"
  pooling_param {
    pool: MAX
    kernel_size: 3
    stride: 2
  }
}
layer {
  name: "conv3"
  type: "Convolution"
  bottom: "pool2"
  top: "conv3"
  param {
    lr_mult: 1
  }
  param {
    lr_mult: 2
  }
  convolution_param {
    num_output: 64
    pad: 2
    kernel_size: 5
    stride: 1
    weight_filler {
      type: "gaussian"
      std: 0.01
    }
    bias_filler {
      type: "constant"
    }
  }
}
layer {
  name: "relu3"
  type: "ReLU"
  bottom: "conv3"
  top: "conv3"
}
layer {
  name: "conv4"
  type: "Convolution"
  bottom: "conv3"
  top: "conv4"
  param {
    lr_mult: 1
  }
  param {
    lr_mult: 2
  }
  convolution_param {
    num_output: 64
    pad: 2
    kernel_size: 5
    stride: 1
    weight_filler {
      type: "gaussian"
      std: 0.01
    }
    bias_filler {
      type: "constant"
    }
  }
}
layer {
  name: "relu4"
  type: "ReLU"
  bottom: "conv4"
  top: "conv4"
}
layer {
  name: "conv5"
  type: "Convolution"
  bottom: "conv4"
  top: "conv5"
  param {
    lr_mult: 1
  }
  param {
    lr_mult: 2
  }
  convolution_param {
    num_output: 64
    pad: 2
    kernel_size: 5
    stride: 1
    weight_filler {
      type: "gaussian"
      std: 0.01
    }
    bias_filler {
      type: "constant"
    }
  }
}
layer {
  name: "relu5"
  type: "ReLU"
  bottom: "conv5"
  top: "conv5"
}
layer {
  name: "pool5"
  type: "Pooling"
  bottom: "conv5"
  top: "pool5"
  pooling_param {
    pool: AVE
    kernel_size: 3
    stride: 2
  }
}
layer {
  name: "ip1"
  type: "InnerProduct"
  bottom: "pool5"
  top: "ip1"
  param {
    lr_mult: 1
  }
  param {
    lr_mult: 2
  }
  inner_product_param {
    num_output: 64
    weight_filler {
      type: "gaussian"
      std: 0.1
    }
    bias_filler {
      type: "constant"
    }
  }
}
layer {
  name: "ip2"
  type: "InnerProduct"
  bottom: "ip1"
  top: "ip2"
  param {
    lr_mult: 1
  }
  param {
    lr_mult: 2
  }
  inner_product_param {
    num_output: 64
    weight_filler {
      type: "gaussian"
      std: 0.1
    }
    bias_filler {
      type: "constant"
    }
  }
}
layer {
  name: "ip3"
  type: "InnerProduct"
  bottom: "ip2"
  top: "ip3"
  param {
    lr_mult: 1
  }
  param {
    lr_mult: 2
  }
  inner_product_param {
    num_output: 1
    weight_filler {
      type: "gaussian"
      std: 0.1
    }
    bias_filler {
      type: "constant"
    }
  }
}
layer {
  name: "loss"
  type: "HuberLoss"
  bottom: "ip3"
  bottom: "label"
  top: "loss"
  include {
    phase: TRAIN
  }
}
I0507 19:41:15.595190  6605 layer_factory.hpp:77] Creating layer parameters
I0507 19:41:15.595202  6605 net.cpp:94] Creating Layer parameters
I0507 19:41:15.595207  6605 net.cpp:409] parameters -> data
I0507 19:41:15.595217  6605 net.cpp:409] parameters -> label
I0507 19:41:15.595228  6605 hdf5_data_layer.cpp:79] Loading list of HDF5 filenames from: /home/purduethu/scratch/radon/d/deng106/CNNStatisticalModel/distributions/input/50_distributions_400_sample_size_train-parameters-path.txt
I0507 19:41:15.595243  6605 hdf5_data_layer.cpp:93] Number of HDF5 files: 1
I0507 19:41:15.595752  6605 hdf5.cpp:32] Datatype class: H5T_FLOAT
I0507 19:41:16.231359  6605 net.cpp:144] Setting up parameters
I0507 19:41:16.231390  6605 net.cpp:151] Top shape: 20 1 20 20 (8000)
I0507 19:41:16.231396  6605 net.cpp:151] Top shape: 20 (20)
I0507 19:41:16.231400  6605 net.cpp:159] Memory required for data: 32080
I0507 19:41:16.231406  6605 layer_factory.hpp:77] Creating layer conv1
I0507 19:41:16.231423  6605 net.cpp:94] Creating Layer conv1
I0507 19:41:16.231428  6605 net.cpp:435] conv1 <- data
I0507 19:41:16.231434  6605 net.cpp:409] conv1 -> conv1
I0507 19:41:16.236735  6605 net.cpp:144] Setting up conv1
I0507 19:41:16.236752  6605 net.cpp:151] Top shape: 20 64 20 20 (512000)
I0507 19:41:16.236757  6605 net.cpp:159] Memory required for data: 2080080
I0507 19:41:16.236768  6605 layer_factory.hpp:77] Creating layer relu1
I0507 19:41:16.236774  6605 net.cpp:94] Creating Layer relu1
I0507 19:41:16.236778  6605 net.cpp:435] relu1 <- conv1
I0507 19:41:16.236783  6605 net.cpp:396] relu1 -> conv1 (in-place)
I0507 19:41:16.236795  6605 net.cpp:144] Setting up relu1
I0507 19:41:16.236800  6605 net.cpp:151] Top shape: 20 64 20 20 (512000)
I0507 19:41:16.236804  6605 net.cpp:159] Memory required for data: 4128080
I0507 19:41:16.236807  6605 layer_factory.hpp:77] Creating layer conv2
I0507 19:41:16.236815  6605 net.cpp:94] Creating Layer conv2
I0507 19:41:16.236819  6605 net.cpp:435] conv2 <- conv1
I0507 19:41:16.236824  6605 net.cpp:409] conv2 -> conv2
I0507 19:41:16.247823  6605 net.cpp:144] Setting up conv2
I0507 19:41:16.247862  6605 net.cpp:151] Top shape: 20 64 20 20 (512000)
I0507 19:41:16.247875  6605 net.cpp:159] Memory required for data: 6176080
I0507 19:41:16.247898  6605 layer_factory.hpp:77] Creating layer relu2
I0507 19:41:16.247917  6605 net.cpp:94] Creating Layer relu2
I0507 19:41:16.247928  6605 net.cpp:435] relu2 <- conv2
I0507 19:41:16.247943  6605 net.cpp:396] relu2 -> conv2 (in-place)
I0507 19:41:16.247963  6605 net.cpp:144] Setting up relu2
I0507 19:41:16.247977  6605 net.cpp:151] Top shape: 20 64 20 20 (512000)
I0507 19:41:16.247987  6605 net.cpp:159] Memory required for data: 8224080
I0507 19:41:16.247997  6605 layer_factory.hpp:77] Creating layer pool2
I0507 19:41:16.248023  6605 net.cpp:94] Creating Layer pool2
I0507 19:41:16.248035  6605 net.cpp:435] pool2 <- conv2
I0507 19:41:16.248049  6605 net.cpp:409] pool2 -> pool2
I0507 19:41:16.248189  6605 net.cpp:144] Setting up pool2
I0507 19:41:16.248209  6605 net.cpp:151] Top shape: 20 64 10 10 (128000)
I0507 19:41:16.248214  6605 net.cpp:159] Memory required for data: 8736080
I0507 19:41:16.248216  6605 layer_factory.hpp:77] Creating layer conv3
I0507 19:41:16.248224  6605 net.cpp:94] Creating Layer conv3
I0507 19:41:16.248229  6605 net.cpp:435] conv3 <- pool2
I0507 19:41:16.248234  6605 net.cpp:409] conv3 -> conv3
I0507 19:41:16.253496  6605 net.cpp:144] Setting up conv3
I0507 19:41:16.253510  6605 net.cpp:151] Top shape: 20 64 10 10 (128000)
I0507 19:41:16.253515  6605 net.cpp:159] Memory required for data: 9248080
I0507 19:41:16.253523  6605 layer_factory.hpp:77] Creating layer relu3
I0507 19:41:16.253530  6605 net.cpp:94] Creating Layer relu3
I0507 19:41:16.253533  6605 net.cpp:435] relu3 <- conv3
I0507 19:41:16.253538  6605 net.cpp:396] relu3 -> conv3 (in-place)
I0507 19:41:16.253545  6605 net.cpp:144] Setting up relu3
I0507 19:41:16.253551  6605 net.cpp:151] Top shape: 20 64 10 10 (128000)
I0507 19:41:16.253554  6605 net.cpp:159] Memory required for data: 9760080
I0507 19:41:16.253557  6605 layer_factory.hpp:77] Creating layer conv4
I0507 19:41:16.253566  6605 net.cpp:94] Creating Layer conv4
I0507 19:41:16.253569  6605 net.cpp:435] conv4 <- conv3
I0507 19:41:16.253576  6605 net.cpp:409] conv4 -> conv4
I0507 19:41:16.258800  6605 net.cpp:144] Setting up conv4
I0507 19:41:16.258813  6605 net.cpp:151] Top shape: 20 64 10 10 (128000)
I0507 19:41:16.258818  6605 net.cpp:159] Memory required for data: 10272080
I0507 19:41:16.258824  6605 layer_factory.hpp:77] Creating layer relu4
I0507 19:41:16.258831  6605 net.cpp:94] Creating Layer relu4
I0507 19:41:16.258836  6605 net.cpp:435] relu4 <- conv4
I0507 19:41:16.258839  6605 net.cpp:396] relu4 -> conv4 (in-place)
I0507 19:41:16.258846  6605 net.cpp:144] Setting up relu4
I0507 19:41:16.258852  6605 net.cpp:151] Top shape: 20 64 10 10 (128000)
I0507 19:41:16.258854  6605 net.cpp:159] Memory required for data: 10784080
I0507 19:41:16.258858  6605 layer_factory.hpp:77] Creating layer conv5
I0507 19:41:16.258867  6605 net.cpp:94] Creating Layer conv5
I0507 19:41:16.258869  6605 net.cpp:435] conv5 <- conv4
I0507 19:41:16.258874  6605 net.cpp:409] conv5 -> conv5
I0507 19:41:16.264117  6605 net.cpp:144] Setting up conv5
I0507 19:41:16.264130  6605 net.cpp:151] Top shape: 20 64 10 10 (128000)
I0507 19:41:16.264134  6605 net.cpp:159] Memory required for data: 11296080
I0507 19:41:16.264143  6605 layer_factory.hpp:77] Creating layer relu5
I0507 19:41:16.264150  6605 net.cpp:94] Creating Layer relu5
I0507 19:41:16.264153  6605 net.cpp:435] relu5 <- conv5
I0507 19:41:16.264158  6605 net.cpp:396] relu5 -> conv5 (in-place)
I0507 19:41:16.264165  6605 net.cpp:144] Setting up relu5
I0507 19:41:16.264170  6605 net.cpp:151] Top shape: 20 64 10 10 (128000)
I0507 19:41:16.264174  6605 net.cpp:159] Memory required for data: 11808080
I0507 19:41:16.264178  6605 layer_factory.hpp:77] Creating layer pool5
I0507 19:41:16.264183  6605 net.cpp:94] Creating Layer pool5
I0507 19:41:16.264186  6605 net.cpp:435] pool5 <- conv5
I0507 19:41:16.264190  6605 net.cpp:409] pool5 -> pool5
I0507 19:41:16.264227  6605 net.cpp:144] Setting up pool5
I0507 19:41:16.264235  6605 net.cpp:151] Top shape: 20 64 5 5 (32000)
I0507 19:41:16.264238  6605 net.cpp:159] Memory required for data: 11936080
I0507 19:41:16.264242  6605 layer_factory.hpp:77] Creating layer ip1
I0507 19:41:16.264250  6605 net.cpp:94] Creating Layer ip1
I0507 19:41:16.264253  6605 net.cpp:435] ip1 <- pool5
I0507 19:41:16.264258  6605 net.cpp:409] ip1 -> ip1
I0507 19:41:16.266796  6605 net.cpp:144] Setting up ip1
I0507 19:41:16.266806  6605 net.cpp:151] Top shape: 20 64 (1280)
I0507 19:41:16.266809  6605 net.cpp:159] Memory required for data: 11941200
I0507 19:41:16.266815  6605 layer_factory.hpp:77] Creating layer ip2
I0507 19:41:16.266822  6605 net.cpp:94] Creating Layer ip2
I0507 19:41:16.266830  6605 net.cpp:435] ip2 <- ip1
I0507 19:41:16.266835  6605 net.cpp:409] ip2 -> ip2
I0507 19:41:16.267040  6605 net.cpp:144] Setting up ip2
I0507 19:41:16.267047  6605 net.cpp:151] Top shape: 20 64 (1280)
I0507 19:41:16.267050  6605 net.cpp:159] Memory required for data: 11946320
I0507 19:41:16.267056  6605 layer_factory.hpp:77] Creating layer ip3
I0507 19:41:16.267062  6605 net.cpp:94] Creating Layer ip3
I0507 19:41:16.267066  6605 net.cpp:435] ip3 <- ip2
I0507 19:41:16.267071  6605 net.cpp:409] ip3 -> ip3
I0507 19:41:16.267168  6605 net.cpp:144] Setting up ip3
I0507 19:41:16.267174  6605 net.cpp:151] Top shape: 20 1 (20)
I0507 19:41:16.267179  6605 net.cpp:159] Memory required for data: 11946400
I0507 19:41:16.267184  6605 layer_factory.hpp:77] Creating layer loss
I0507 19:41:16.267194  6605 net.cpp:94] Creating Layer loss
I0507 19:41:16.267197  6605 net.cpp:435] loss <- ip3
I0507 19:41:16.267201  6605 net.cpp:435] loss <- label
I0507 19:41:16.267206  6605 net.cpp:409] loss -> loss
I0507 19:41:16.267256  6605 net.cpp:144] Setting up loss
…
I0507 19:41:16.450542  6605 net.cpp:323] The NetState phase (0) differed from the phase (1) specified by a rule in layer intercept
I0507 19:41:16.450558  6605 net.cpp:323] The NetState phase (0) differed from the phase (1) specified by a rule in layer accuracy
I0507 19:41:16.450645  6605 net.cpp:52] Initializing net from parameters: 
state {
  phase: TRAIN
}
layer {
  name: "parameters"
  type: "HDF5Data"
  top: "data"
  top: "label"
  include {
    phase: TRAIN
  }
  hdf5_data_param {
    source: "/home/purduethu/scratch/radon/d/deng106/CNNStatisticalModel/distributions/input/50_distributions_400_sample_size_train-distributions-path.txt"
    batch_size: 20
  }
}
layer {
  name: "conv1"
  type: "Convolution"
  bottom: "data"
  top: "conv1"
  param {
    lr_mult: 1
  }
  param {
    lr_mult: 2
  }
  convolution_param {
    num_output: 64
    pad: 2
    kernel_size: 5
    stride: 1
    weight_filler {
      type: "gaussian"
      std: 0.0001
    }
    bias_filler {
      type: "constant"
    }
  }
}
layer {
  name: "relu1"
  type: "ReLU"
  bottom: "conv1"
  top: "conv1"
}
layer {
  name: "conv2"
  type: "Convolution"
  bottom: "conv1"
  top: "conv2"
  param {
    lr_mult: 1
  }
  param {
    lr_mult: 2
  }
  convolution_param {
    num_output: 64
    pad: 2
    kernel_size: 5
    stride: 1
    weight_filler {
      type: "gaussian"
      std: 0.01
    }
    bias_filler {
      type: "constant"
    }
  }
}
layer {
  name: "relu2"
  type: "ReLU"
  bottom: "conv2"
  top: "conv2"
}
layer {
  name: "pool2"
  type: "Pooling"
  bottom: "conv2"
  top: "pool2"
  pooling_param {
    pool: MAX
    kernel_size: 3
    stride: 2
  }
}
layer {
  name: "conv3"
  type: "Convolution"
  bottom: "pool2"
  top: "conv3"
  param {
    lr_mult: 1
  }
  param {
    lr_mult: 2
  }
  convolution_param {
    num_output: 64
    pad: 2
    kernel_size: 5
    stride: 1
    weight_filler {
      type: "gaussian"
      std: 0.01
    }
    bias_filler {
      type: "constant"
    }
  }
}
layer {
  name: "relu3"
  type: "ReLU"
  bottom: "conv3"
  top: "conv3"
}
layer {
  name: "conv4"
  type: "Convolution"
  bottom: "conv3"
  top: "conv4"
  param {
    lr_mult: 1
  }
  param {
    lr_mult: 2
  }
  convolution_param {
    num_output: 64
    pad: 2
    kernel_size: 5
    stride: 1
    weight_filler {
      type: "gaussian"
      std: 0.01
    }
    bias_filler {
      type: "constant"
    }
  }
}
layer {
  name: "relu4"
  type: "ReLU"
  bottom: "conv4"
  top: "conv4"
}
layer {
  name: "conv5"
  type: "Convolution"
  bottom: "conv4"
  top: "conv5"
  param {
    lr_mult: 1
  }
  param {
    lr_mult: 2
  }
  convolution_param {
    num_output: 64
    pad: 2
    kernel_size: 5
    stride: 1
    weight_filler {
      type: "gaussian"
      std: 0.01
    }
    bias_filler {
      type: "constant"
    }
  }
}
layer {
  name: "relu5"
  type: "ReLU"
  bottom: "conv5"
  top: "conv5"
}
layer {
  name: "pool5"
  type: "Pooling"
  bottom: "conv5"
  top: "pool5"
  pooling_param {
    pool: AVE
    kernel_size: 3
    stride: 2
  }
}
layer {
  name: "ip1"
  type: "InnerProduct"
  bottom: "pool5"
  top: "ip1"
  param {
    lr_mult: 1
  }
  param {
    lr_mult: 2
  }
  inner_product_param {
    num_output: 64
    weight_filler {
      type: "gaussian"
      std: 0.1
    }
    bias_filler {
      type: "constant"
    }
  }
}
layer {
  name: "ip2"
  type: "InnerProduct"
  bottom: "ip1"
  top: "ip2"
  param {
    lr_mult: 1
  }
  param {
    lr_mult: 2
  }
  inner_product_param {
    num_output: 64
    weight_filler {
      type: "gaussian"
      std: 0.1
    }
    bias_filler {
      type: "constant"
    }
  }
}
layer {
  name: "ip3"
  type: "InnerProduct"
  bottom: "ip2"
  top: "ip3"
  param {
    lr_mult: 1
  }
  param {
    lr_mult: 2
  }
  inner_product_param {
    num_output: 50
    weight_filler {
      type: "gaussian"
      std: 0.1
    }
    bias_filler {
      type: "constant"
    }
  }
}
layer {
  name: "loss"
  type: "SoftmaxWithLoss"
  bottom: "ip3"
  bottom: "label"
  top: "loss"
}
I0507 19:41:16.450696  6605 layer_factory.hpp:77] Creating layer parameters
I0507 19:41:16.450705  6605 net.cpp:94] Creating Layer parameters
I0507 19:41:16.450709  6605 net.cpp:409] parameters -> data
I0507 19:41:16.450716  6605 net.cpp:409] parameters -> label
I0507 19:41:16.450722  6605 hdf5_data_layer.cpp:79] Loading list of HDF5 filenames from: /home/purduethu/scratch/radon/d/deng106/CNNStatisticalModel/distributions/input/50_distributions_400_sample_size_train-distributions-path.txt
I0507 19:41:16.450740  6605 hdf5_data_layer.cpp:93] Number of HDF5 files: 1
I0507 19:41:17.088811  6605 hdf5.cpp:35] Datatype class: H5T_INTEGER
I0507 19:41:17.091835  6605 net.cpp:144] Setting up parameters
I0507 19:41:17.091852  6605 net.cpp:151] Top shape: 20 1 20 20 (8000)
I0507 19:41:17.091857  6605 net.cpp:151] Top shape: 20 (20)
I0507 19:41:17.091861  6605 net.cpp:159] Memory required for data: 32080
I0507 19:41:17.091868  6605 layer_factory.hpp:77] Creating layer conv1
I0507 19:41:17.091884  6605 net.cpp:94] Creating Layer conv1
I0507 19:41:17.091888  6605 net.cpp:435] conv1 <- data
I0507 19:41:17.091895  6605 net.cpp:409] conv1 -> conv1
I0507 19:41:17.094640  6605 net.cpp:144] Setting up conv1
I0507 19:41:17.094655  6605 net.cpp:151] Top shape: 20 64 20 20 (512000)
I0507 19:41:17.094660  6605 net.cpp:159] Memory required for data: 2080080
I0507 19:41:17.094669  6605 layer_factory.hpp:77] Creating layer relu1
I0507 19:41:17.094677  6605 net.cpp:94] Creating Layer relu1
I0507 19:41:17.094681  6605 net.cpp:435] relu1 <- conv1
I0507 19:41:17.094686  6605 net.cpp:396] relu1 -> conv1 (in-place)
I0507 19:41:17.094694  6605 net.cpp:144] Setting up relu1
I0507 19:41:17.094698  6605 net.cpp:151] Top shape: 20 64 20 20 (512000)
I0507 19:41:17.094702  6605 net.cpp:159] Memory required for data: 4128080
I0507 19:41:17.094705  6605 layer_factory.hpp:77] Creating layer conv2
I0507 19:41:17.094713  6605 net.cpp:94] Creating Layer conv2
I0507 19:41:17.094717  6605 net.cpp:435] conv2 <- conv1
I0507 19:41:17.094722  6605 net.cpp:409] conv2 -> conv2
I0507 19:41:17.105089  6605 net.cpp:144] Setting up conv2
I0507 19:41:17.105104  6605 net.cpp:151] Top shape: 20 64 20 20 (512000)
I0507 19:41:17.105109  6605 net.cpp:159] Memory required for data: 6176080
I0507 19:41:17.105118  6605 layer_factory.hpp:77] Creating layer relu2
I0507 19:41:17.105124  6605 net.cpp:94] Creating Layer relu2
I0507 19:41:17.105129  6605 net.cpp:435] relu2 <- conv2
I0507 19:41:17.105134  6605 net.cpp:396] relu2 -> conv2 (in-place)
I0507 19:41:17.105141  6605 net.cpp:144] Setting up relu2
I0507 19:41:17.105145  6605 net.cpp:151] Top shape: 20 64 20 20 (512000)
I0507 19:41:17.105149  6605 net.cpp:159] Memory required for data: 8224080
I0507 19:41:17.105152  6605 layer_factory.hpp:77] Creating layer pool2
I0507 19:41:17.105159  6605 net.cpp:94] Creating Layer pool2
I0507 19:41:17.105161  6605 net.cpp:435] pool2 <- conv2
I0507 19:41:17.105166  6605 net.cpp:409] pool2 -> pool2
I0507 19:41:17.105216  6605 net.cpp:144] Setting up pool2
I0507 19:41:17.105224  6605 net.cpp:151] Top shape: 20 64 10 10 (128000)
I0507 19:41:17.105227  6605 net.cpp:159] Memory required for data: 8736080
I0507 19:41:17.105232  6605 layer_factory.hpp:77] Creating layer conv3
I0507 19:41:17.105239  6605 net.cpp:94] Creating Layer conv3
I0507 19:41:17.105242  6605 net.cpp:435] conv3 <- pool2
I0507 19:41:17.105254  6605 net.cpp:409] conv3 -> conv3
I0507 19:41:17.110756  6605 net.cpp:144] Setting up conv3
I0507 19:41:17.110770  6605 net.cpp:151] Top shape: 20 64 10 10 (128000)
I0507 19:41:17.110774  6605 net.cpp:159] Memory required for data: 9248080
I0507 19:41:17.110783  6605 layer_factory.hpp:77] Creating layer relu3
I0507 19:41:17.110790  6605 net.cpp:94] Creating Layer relu3
I0507 19:41:17.110793  6605 net.cpp:435] relu3 <- conv3
I0507 19:41:17.110798  6605 net.cpp:396] relu3 -> conv3 (in-place)
I0507 19:41:17.110805  6605 net.cpp:144] Setting up relu3
I0507 19:41:17.110810  6605 net.cpp:151] Top shape: 20 64 10 10 (128000)
I0507 19:41:17.110813  6605 net.cpp:159] Memory required for data: 9760080
I0507 19:41:17.110817  6605 layer_factory.hpp:77] Creating layer conv4
I0507 19:41:17.110826  6605 net.cpp:94] Creating Layer conv4
I0507 19:41:17.110829  6605 net.cpp:435] conv4 <- conv3
I0507 19:41:17.110834  6605 net.cpp:409] conv4 -> conv4
I0507 19:41:17.116302  6605 net.cpp:144] Setting up conv4
I0507 19:41:17.116315  6605 net.cpp:151] Top shape: 20 64 10 10 (128000)
I0507 19:41:17.116319  6605 net.cpp:159] Memory required for data: 10272080
I0507 19:41:17.116327  6605 layer_factory.hpp:77] Creating layer relu4
I0507 19:41:17.116333  6605 net.cpp:94] Creating Layer relu4
I0507 19:41:17.116336  6605 net.cpp:435] relu4 <- conv4
I0507 19:41:17.116341  6605 net.cpp:396] relu4 -> conv4 (in-place)
I0507 19:41:17.116348  6605 net.cpp:144] Setting up relu4
I0507 19:41:17.116353  6605 net.cpp:151] Top shape: 20 64 10 10 (128000)
I0507 19:41:17.116358  6605 net.cpp:159] Memory required for data: 10784080
I0507 19:41:17.116360  6605 layer_factory.hpp:77] Creating layer conv5
I0507 19:41:17.116369  6605 net.cpp:94] Creating Layer conv5
I0507 19:41:17.116372  6605 net.cpp:435] conv5 <- conv4
I0507 19:41:17.116377  6605 net.cpp:409] conv5 -> conv5
I0507 19:41:17.121834  6605 net.cpp:144] Setting up conv5
I0507 19:41:17.121848  6605 net.cpp:151] Top shape: 20 64 10 10 (128000)
I0507 19:41:17.121852  6605 net.cpp:159] Memory required for data: 11296080
I0507 19:41:17.121861  6605 layer_factory.hpp:77] Creating layer relu5
I0507 19:41:17.121867  6605 net.cpp:94] Creating Layer relu5
I0507 19:41:17.121871  6605 net.cpp:435] relu5 <- conv5
I0507 19:41:17.121876  6605 net.cpp:396] relu5 -> conv5 (in-place)
I0507 19:41:17.121883  6605 net.cpp:144] Setting up relu5
I0507 19:41:17.121888  6605 net.cpp:151] Top shape: 20 64 10 10 (128000)
I0507 19:41:17.121892  6605 net.cpp:159] Memory required for data: 11808080
I0507 19:41:17.121896  6605 layer_factory.hpp:77] Creating layer pool5
I0507 19:41:17.121901  6605 net.cpp:94] Creating Layer pool5
I0507 19:41:17.121904  6605 net.cpp:435] pool5 <- conv5
I0507 19:41:17.121908  6605 net.cpp:409] pool5 -> pool5
I0507 19:41:17.121943  6605 net.cpp:144] Setting up pool5
I0507 19:41:17.121950  6605 net.cpp:151] Top shape: 20 64 5 5 (32000)
I0507 19:41:17.121954  6605 net.cpp:159] Memory required for data: 11936080
I0507 19:41:17.121958  6605 layer_factory.hpp:77] Creating layer ip1
I0507 19:41:17.121964  6605 net.cpp:94] Creating Layer ip1
I0507 19:41:17.121968  6605 net.cpp:435] ip1 <- pool5
I0507 19:41:17.121973  6605 net.cpp:409] ip1 -> ip1
I0507 19:41:17.125351  6605 net.cpp:144] Setting up ip1
I0507 19:41:17.125366  6605 net.cpp:151] Top shape: 20 64 (1280)
I0507 19:41:17.125370  6605 net.cpp:159] Memory required for data: 11941200
I0507 19:41:17.125377  6605 layer_factory.hpp:77] Creating layer ip2
I0507 19:41:17.125385  6605 net.cpp:94] Creating Layer ip2
I0507 19:41:17.125388  6605 net.cpp:435] ip2 <- ip1
I0507 19:41:17.125393  6605 net.cpp:409] ip2 -> ip2
I0507 19:41:17.125610  6605 net.cpp:144] Setting up ip2
I0507 19:41:17.125618  6605 net.cpp:151] Top shape: 20 64 (1280)
I0507 19:41:17.125622  6605 net.cpp:159] Memory required for data: 11946320
I0507 19:41:17.125627  6605 layer_factory.hpp:77] Creating layer ip3
I0507 19:41:17.125633  6605 net.cpp:94] Creating Layer ip3
I0507 19:41:17.125638  6605 net.cpp:435] ip3 <- ip2
I0507 19:41:17.125643  6605 net.cpp:409] ip3 -> ip3
I0507 19:41:17.125834  6605 net.cpp:144] Setting up ip3
I0507 19:41:17.125843  6605 net.cpp:151] Top shape: 20 50 (1000)
I0507 19:41:17.125846  6605 net.cpp:159] Memory required for data: 11950320
I0507 19:41:17.125851  6605 layer_factory.hpp:77] Creating layer loss
I0507 19:41:17.125859  6605 net.cpp:94] Creating Layer loss
I0507 19:41:17.125862  6605 net.cpp:435] loss <- ip3
I0507 19:41:17.125866  6605 net.cpp:435] loss <- label
I0507 19:41:17.125871  6605 net.cpp:409] loss -> loss
I0507 19:41:17.125879  6605 layer_factory.hpp:77] Creating layer loss
…
I0507 19:41:17.126402  6605 solver.cpp:181] Creating test net (#0) specified by net file: ./protocol/dis_50_400_dimension.protocol_distribution
I0507 19:41:17.126430  6605 net.cpp:323] The NetState phase (1) differed from the phase (0) specified by a rule in layer parameters
I0507 19:41:17.126523  6605 net.cpp:52] Initializing net from parameters: 
state {
  phase: TEST
}
layer {
  name: "intercept"
  type: "HDF5Data"
  top: "data"
  top: "label"
  include {
    phase: TEST
  }
  hdf5_data_param {
    source: "/home/purduethu/scratch/radon/d/deng106/CNNStatisticalModel/distributions/input/50_distributions_400_sample_size_test-distributions-path.txt"
    batch_size: 20
  }
}
layer {
  name: "conv1"
  type: "Convolution"
  bottom: "data"
  top: "conv1"
  param {
    lr_mult: 1
  }
  param {
    lr_mult: 2
  }
  convolution_param {
    num_output: 64
    pad: 2
    kernel_size: 5
    stride: 1
    weight_filler {
      type: "gaussian"
      std: 0.0001
    }
    bias_filler {
      type: "constant"
    }
  }
}
layer {
  name: "relu1"
  type: "ReLU"
  bottom: "conv1"
  top: "conv1"
}
layer {
  name: "conv2"
  type: "Convolution"
  bottom: "conv1"
  top: "conv2"
  param {
    lr_mult: 1
  }
  param {
    lr_mult: 2
  }
  convolution_param {
    num_output: 64
    pad: 2
    kernel_size: 5
    stride: 1
    weight_filler {
      type: "gaussian"
      std: 0.01
    }
    bias_filler {
      type: "constant"
    }
  }
}
layer {
  name: "relu2"
  type: "ReLU"
  bottom: "conv2"
  top: "conv2"
}
layer {
  name: "pool2"
  type: "Pooling"
  bottom: "conv2"
  top: "pool2"
  pooling_param {
    pool: MAX
    kernel_size: 3
    stride: 2
  }
}
layer {
  name: "conv3"
  type: "Convolution"
  bottom: "pool2"
  top: "conv3"
  param {
    lr_mult: 1
  }
  param {
    lr_mult: 2
  }
  convolution_param {
    num_output: 64
    pad: 2
    kernel_size: 5
    stride: 1
    weight_filler {
      type: "gaussian"
      std: 0.01
    }
    bias_filler {
      type: "constant"
    }
  }
}
layer {
  name: "relu3"
  type: "ReLU"
  bottom: "conv3"
  top: "conv3"
}
layer {
  name: "conv4"
  type: "Convolution"
  bottom: "conv3"
  top: "conv4"
  param {
    lr_mult: 1
  }
  param {
    lr_mult: 2
  }
  convolution_param {
    num_output: 64
    pad: 2
    kernel_size: 5
    stride: 1
    weight_filler {
      type: "gaussian"
      std: 0.01
    }
    bias_filler {
      type: "constant"
    }
  }
}
layer {
  name: "relu4"
  type: "ReLU"
  bottom: "conv4"
  top: "conv4"
}
layer {
  name: "conv5"
  type: "Convolution"
  bottom: "conv4"
  top: "conv5"
  param {
    lr_mult: 1
  }
  param {
    lr_mult: 2
  }
  convolution_param {
    num_output: 64
    pad: 2
    kernel_size: 5
    stride: 1
    weight_filler {
      type: "gaussian"
      std: 0.01
    }
    bias_filler {
      type: "constant"
    }
  }
}
layer {
  name: "relu5"
  type: "ReLU"
  bottom: "conv5"
  top: "conv5"
}
layer {
  name: "pool5"
  type: "Pooling"
  bottom: "conv5"
  top: "pool5"
  pooling_param {
    pool: AVE
    kernel_size: 3
    stride: 2
  }
}
layer {
  name: "ip1"
  type: "InnerProduct"
  bottom: "pool5"
  top: "ip1"
  param {
    lr_mult: 1
  }
  param {
    lr_mult: 2
  }
  inner_product_param {
    num_output: 64
    weight_filler {
      type: "gaussian"
      std: 0.1
    }
    bias_filler {
      type: "constant"
    }
  }
}
layer {
  name: "ip2"
  type: "InnerProduct"
  bottom: "ip1"
  top: "ip2"
  param {
    lr_mult: 1
  }
  param {
    lr_mult: 2
  }
  inner_product_param {
    num_output: 64
    weight_filler {
      type: "gaussian"
      std: 0.1
    }
    bias_filler {
      type: "constant"
    }
  }
}
layer {
  name: "ip3"
  type: "InnerProduct"
  bottom: "ip2"
  top: "ip3"
  param {
    lr_mult: 1
  }
  param {
    lr_mult: 2
  }
  inner_product_param {
    num_output: 50
    weight_filler {
      type: "gaussian"
      std: 0.1
    }
    bias_filler {
      type: "constant"
    }
  }
}
layer {
  name: "accuracy"
  type: "Accuracy"
  bottom: "ip3"
  bottom: "label"
  top: "accuracy"
  include {
    phase: TEST
  }
}
layer {
  name: "loss"
  type: "SoftmaxWithLoss"
  bottom: "ip3"
  bottom: "label"
  top: "loss"
}
I0507 19:41:17.126587  6605 layer_factory.hpp:77] Creating layer intercept
I0507 19:41:17.126596  6605 net.cpp:94] Creating Layer intercept
I0507 19:41:17.126600  6605 net.cpp:409] intercept -> data
I0507 19:41:17.126607  6605 net.cpp:409] intercept -> label
I0507 19:41:17.126613  6605 hdf5_data_layer.cpp:79] Loading list of HDF5 filenames from: /home/purduethu/scratch/radon/d/deng106/CNNStatisticalModel/distributions/input/50_distributions_400_sample_size_test-distributions-path.txt
I0507 19:41:17.126632  6605 hdf5_data_layer.cpp:93] Number of HDF5 files: 1
I0507 19:41:17.289026  6605 net.cpp:144] Setting up intercept
I0507 19:41:17.289060  6605 net.cpp:151] Top shape: 20 1 20 20 (8000)
I0507 19:41:17.289067  6605 net.cpp:151] Top shape: 20 (20)
I0507 19:41:17.289070  6605 net.cpp:159] Memory required for data: 32080
I0507 19:41:17.289077  6605 layer_factory.hpp:77] Creating layer label_intercept_1_split
I0507 19:41:17.289095  6605 net.cpp:94] Creating Layer label_intercept_1_split
I0507 19:41:17.289100  6605 net.cpp:435] label_intercept_1_split <- label
I0507 19:41:17.289106  6605 net.cpp:409] label_intercept_1_split -> label_intercept_1_split_0
I0507 19:41:17.289114  6605 net.cpp:409] label_intercept_1_split -> label_intercept_1_split_1
I0507 19:41:17.289153  6605 net.cpp:144] Setting up label_intercept_1_split
I0507 19:41:17.289160  6605 net.cpp:151] Top shape: 20 (20)
I0507 19:41:17.289165  6605 net.cpp:151] Top shape: 20 (20)
I0507 19:41:17.289167  6605 net.cpp:159] Memory required for data: 32240
I0507 19:41:17.289171  6605 layer_factory.hpp:77] Creating layer conv1
I0507 19:41:17.289182  6605 net.cpp:94] Creating Layer conv1
I0507 19:41:17.289186  6605 net.cpp:435] conv1 <- data
I0507 19:41:17.289191  6605 net.cpp:409] conv1 -> conv1
I0507 19:41:17.290522  6605 net.cpp:144] Setting up conv1
I0507 19:41:17.290541  6605 net.cpp:151] Top shape: 20 64 20 20 (512000)
I0507 19:41:17.290546  6605 net.cpp:159] Memory required for data: 2080240
I0507 19:41:17.290556  6605 layer_factory.hpp:77] Creating layer relu1
I0507 19:41:17.290563  6605 net.cpp:94] Creating Layer relu1
I0507 19:41:17.290567  6605 net.cpp:435] relu1 <- conv1
I0507 19:41:17.290572  6605 net.cpp:396] relu1 -> conv1 (in-place)
I0507 19:41:17.290580  6605 net.cpp:144] Setting up relu1
I0507 19:41:17.290585  6605 net.cpp:151] Top shape: 20 64 20 20 (512000)
I0507 19:41:17.290587  6605 net.cpp:159] Memory required for data: 4128240
I0507 19:41:17.290591  6605 layer_factory.hpp:77] Creating layer conv2
I0507 19:41:17.290598  6605 net.cpp:94] Creating Layer conv2
I0507 19:41:17.290602  6605 net.cpp:435] conv2 <- conv1
I0507 19:41:17.290607  6605 net.cpp:409] conv2 -> conv2
I0507 19:41:17.295876  6605 net.cpp:144] Setting up conv2
I0507 19:41:17.295910  6605 net.cpp:151] Top shape: 20 64 20 20 (512000)
I0507 19:41:17.295922  6605 net.cpp:159] Memory required for data: 6176240
I0507 19:41:17.295946  6605 layer_factory.hpp:77] Creating layer relu2
I0507 19:41:17.295964  6605 net.cpp:94] Creating Layer relu2
I0507 19:41:17.295974  6605 net.cpp:435] relu2 <- conv2
I0507 19:41:17.295987  6605 net.cpp:396] relu2 -> conv2 (in-place)
I0507 19:41:17.296006  6605 net.cpp:144] Setting up relu2
I0507 19:41:17.296020  6605 net.cpp:151] Top shape: 20 64 20 20 (512000)
I0507 19:41:17.296030  6605 net.cpp:159] Memory required for data: 8224240
I0507 19:41:17.296038  6605 layer_factory.hpp:77] Creating layer pool2
I0507 19:41:17.296057  6605 net.cpp:94] Creating Layer pool2
I0507 19:41:17.296067  6605 net.cpp:435] pool2 <- conv2
I0507 19:41:17.296080  6605 net.cpp:409] pool2 -> pool2
I0507 19:41:17.296221  6605 net.cpp:144] Setting up pool2
I0507 19:41:17.296241  6605 net.cpp:151] Top shape: 20 64 10 10 (128000)
I0507 19:41:17.296244  6605 net.cpp:159] Memory required for data: 8736240
I0507 19:41:17.296248  6605 layer_factory.hpp:77] Creating layer conv3
I0507 19:41:17.296257  6605 net.cpp:94] Creating Layer conv3
I0507 19:41:17.296260  6605 net.cpp:435] conv3 <- pool2
I0507 19:41:17.296267  6605 net.cpp:409] conv3 -> conv3
I0507 19:41:17.300302  6605 net.cpp:144] Setting up conv3
I0507 19:41:17.300315  6605 net.cpp:151] Top shape: 20 64 10 10 (128000)
I0507 19:41:17.300319  6605 net.cpp:159] Memory required for data: 9248240
I0507 19:41:17.300329  6605 layer_factory.hpp:77] Creating layer relu3
I0507 19:41:17.300336  6605 net.cpp:94] Creating Layer relu3
I0507 19:41:17.300340  6605 net.cpp:435] relu3 <- conv3
I0507 19:41:17.300345  6605 net.cpp:396] relu3 -> conv3 (in-place)
I0507 19:41:17.300353  6605 net.cpp:144] Setting up relu3
I0507 19:41:17.300357  6605 net.cpp:151] Top shape: 20 64 10 10 (128000)
I0507 19:41:17.300361  6605 net.cpp:159] Memory required for data: 9760240
I0507 19:41:17.300364  6605 layer_factory.hpp:77] Creating layer conv4
I0507 19:41:17.300374  6605 net.cpp:94] Creating Layer conv4
I0507 19:41:17.300377  6605 net.cpp:435] conv4 <- conv3
I0507 19:41:17.300382  6605 net.cpp:409] conv4 -> conv4
I0507 19:41:17.303966  6605 net.cpp:144] Setting up conv4
I0507 19:41:17.303978  6605 net.cpp:151] Top shape: 20 64 10 10 (128000)
I0507 19:41:17.303982  6605 net.cpp:159] Memory required for data: 10272240
I0507 19:41:17.303988  6605 layer_factory.hpp:77] Creating layer relu4
I0507 19:41:17.303994  6605 net.cpp:94] Creating Layer relu4
I0507 19:41:17.303998  6605 net.cpp:435] relu4 <- conv4
I0507 19:41:17.304003  6605 net.cpp:396] relu4 -> conv4 (in-place)
I0507 19:41:17.304009  6605 net.cpp:144] Setting up relu4
I0507 19:41:17.304014  6605 net.cpp:151] Top shape: 20 64 10 10 (128000)
I0507 19:41:17.304018  6605 net.cpp:159] Memory required for data: 10784240
I0507 19:41:17.304020  6605 layer_factory.hpp:77] Creating layer conv5
I0507 19:41:17.304029  6605 net.cpp:94] Creating Layer conv5
I0507 19:41:17.304033  6605 net.cpp:435] conv5 <- conv4
I0507 19:41:17.304039  6605 net.cpp:409] conv5 -> conv5
I0507 19:41:17.308907  6605 net.cpp:144] Setting up conv5
I0507 19:41:17.308925  6605 net.cpp:151] Top shape: 20 64 10 10 (128000)
I0507 19:41:17.308930  6605 net.cpp:159] Memory required for data: 11296240
I0507 19:41:17.308939  6605 layer_factory.hpp:77] Creating layer relu5
I0507 19:41:17.308948  6605 net.cpp:94] Creating Layer relu5
I0507 19:41:17.308951  6605 net.cpp:435] relu5 <- conv5
I0507 19:41:17.308955  6605 net.cpp:396] relu5 -> conv5 (in-place)
I0507 19:41:17.308962  6605 net.cpp:144] Setting up relu5
I0507 19:41:17.308967  6605 net.cpp:151] Top shape: 20 64 10 10 (128000)
I0507 19:41:17.308970  6605 net.cpp:159] Memory required for data: 11808240
I0507 19:41:17.308974  6605 layer_factory.hpp:77] Creating layer pool5
I0507 19:41:17.308980  6605 net.cpp:94] Creating Layer pool5
I0507 19:41:17.308984  6605 net.cpp:435] pool5 <- conv5
I0507 19:41:17.308989  6605 net.cpp:409] pool5 -> pool5
I0507 19:41:17.309026  6605 net.cpp:144] Setting up pool5
I0507 19:41:17.309033  6605 net.cpp:151] Top shape: 20 64 5 5 (32000)
I0507 19:41:17.309036  6605 net.cpp:159] Memory required for data: 11936240
I0507 19:41:17.309041  6605 layer_factory.hpp:77] Creating layer ip1
I0507 19:41:17.309047  6605 net.cpp:94] Creating Layer ip1
I0507 19:41:17.309051  6605 net.cpp:435] ip1 <- pool5
I0507 19:41:17.309056  6605 net.cpp:409] ip1 -> ip1
I0507 19:41:17.311601  6605 net.cpp:144] Setting up ip1
I0507 19:41:17.311609  6605 net.cpp:151] Top shape: 20 64 (1280)
I0507 19:41:17.311614  6605 net.cpp:159] Memory required for data: 11941360
I0507 19:41:17.311619  6605 layer_factory.hpp:77] Creating layer ip2
I0507 19:41:17.311625  6605 net.cpp:94] Creating Layer ip2
I0507 19:41:17.311628  6605 net.cpp:435] ip2 <- ip1
I0507 19:41:17.311633  6605 net.cpp:409] ip2 -> ip2
I0507 19:41:17.311862  6605 net.cpp:144] Setting up ip2
I0507 19:41:17.311870  6605 net.cpp:151] Top shape: 20 64 (1280)
I0507 19:41:17.311873  6605 net.cpp:159] Memory required for data: 11946480
I0507 19:41:17.311879  6605 layer_factory.hpp:77] Creating layer ip3
I0507 19:41:17.311887  6605 net.cpp:94] Creating Layer ip3
I0507 19:41:17.311892  6605 net.cpp:435] ip3 <- ip2
I0507 19:41:17.311897  6605 net.cpp:409] ip3 -> ip3
I0507 19:41:17.312100  6605 net.cpp:144] Setting up ip3
I0507 19:41:17.312108  6605 net.cpp:151] Top shape: 20 50 (1000)
I0507 19:41:17.312113  6605 net.cpp:159] Memory required for data: 11950480
I0507 19:41:17.312117  6605 layer_factory.hpp:77] Creating layer ip3_ip3_0_split
I0507 19:41:17.312122  6605 net.cpp:94] Creating Layer ip3_ip3_0_split
I0507 19:41:17.312125  6605 net.cpp:435] ip3_ip3_0_split <- ip3
I0507 19:41:17.312130  6605 net.cpp:409] ip3_ip3_0_split -> ip3_ip3_0_split_0
I0507 19:41:17.312135  6605 net.cpp:409] ip3_ip3_0_split -> ip3_ip3_0_split_1
I0507 19:41:17.312175  6605 net.cpp:144] Setting up ip3_ip3_0_split
I0507 19:41:17.312181  6605 net.cpp:151] Top shape: 20 50 (1000)
I0507 19:41:17.312186  6605 net.cpp:151] Top shape: 20 50 (1000)
I0507 19:41:17.312189  6605 net.cpp:159] Memory required for data: 11958480
I0507 19:41:17.312192  6605 layer_factory.hpp:77] Creating layer accuracy
I0507 19:41:17.312197  6605 net.cpp:94] Creating Layer accuracy
I0507 19:41:17.312201  6605 net.cpp:435] accuracy <- ip3_ip3_0_split_0
I0507 19:41:17.312206  6605 net.cpp:435] accuracy <- label_intercept_1_split_0
I0507 19:41:17.312209  6605 net.cpp:409] accuracy -> accuracy
…
