…
I0507 10:15:28.359402 32427 net.cpp:323] The NetState phase (0) differed from the phase (1) specified by a rule in layer intercept
I0507 10:15:28.359419 32427 net.cpp:323] The NetState phase (0) differed from the phase (1) specified by a rule in layer loss
I0507 10:15:28.359498 32427 net.cpp:52] Initializing net from parameters: 
state {
  phase: TRAIN
}
layer {
  name: "parameters"
  type: "HDF5Data"
  top: "data"
  top: "label"
  include {
    phase: TRAIN
  }
  hdf5_data_param {
    source: "/home/purduethu/scratch/radon/d/deng106/CNNStatisticalModel/distributions/input/50_distributions_900_sample_size_train-parameters-path.txt"
    batch_size: 20
  }
}
layer {
  name: "conv1"
  type: "Convolution"
  bottom: "data"
  top: "conv1"
  param {
    lr_mult: 1
  }
  param {
    lr_mult: 2
  }
  convolution_param {
    num_output: 64
    pad: 2
    kernel_size: 5
    stride: 1
    weight_filler {
      type: "gaussian"
      std: 0.0001
    }
    bias_filler {
      type: "constant"
    }
  }
}
layer {
  name: "relu1"
  type: "ReLU"
  bottom: "conv1"
  top: "conv1"
}
layer {
  name: "conv2"
  type: "Convolution"
  bottom: "conv1"
  top: "conv2"
  param {
    lr_mult: 1
  }
  param {
    lr_mult: 2
  }
  convolution_param {
    num_output: 64
    pad: 2
    kernel_size: 5
    stride: 1
    weight_filler {
      type: "gaussian"
      std: 0.01
    }
    bias_filler {
      type: "constant"
    }
  }
}
layer {
  name: "relu2"
  type: "ReLU"
  bottom: "conv2"
  top: "conv2"
}
layer {
  name: "pool2"
  type: "Pooling"
  bottom: "conv2"
  top: "pool2"
  pooling_param {
    pool: MAX
    kernel_size: 3
    stride: 2
  }
}
layer {
  name: "conv3"
  type: "Convolution"
  bottom: "pool2"
  top: "conv3"
  param {
    lr_mult: 1
  }
  param {
    lr_mult: 2
  }
  convolution_param {
    num_output: 64
    pad: 2
    kernel_size: 5
    stride: 1
    weight_filler {
      type: "gaussian"
      std: 0.01
    }
    bias_filler {
      type: "constant"
    }
  }
}
layer {
  name: "relu3"
  type: "ReLU"
  bottom: "conv3"
  top: "conv3"
}
layer {
  name: "conv4"
  type: "Convolution"
  bottom: "conv3"
  top: "conv4"
  param {
    lr_mult: 1
  }
  param {
    lr_mult: 2
  }
  convolution_param {
    num_output: 64
    pad: 2
    kernel_size: 5
    stride: 1
    weight_filler {
      type: "gaussian"
      std: 0.01
    }
    bias_filler {
      type: "constant"
    }
  }
}
layer {
  name: "relu4"
  type: "ReLU"
  bottom: "conv4"
  top: "conv4"
}
layer {
  name: "conv5"
  type: "Convolution"
  bottom: "conv4"
  top: "conv5"
  param {
    lr_mult: 1
  }
  param {
    lr_mult: 2
  }
  convolution_param {
    num_output: 64
    pad: 2
    kernel_size: 5
    stride: 1
    weight_filler {
      type: "gaussian"
      std: 0.01
    }
    bias_filler {
      type: "constant"
    }
  }
}
layer {
  name: "relu5"
  type: "ReLU"
  bottom: "conv5"
  top: "conv5"
}
layer {
  name: "pool5"
  type: "Pooling"
  bottom: "conv5"
  top: "pool5"
  pooling_param {
    pool: AVE
    kernel_size: 3
    stride: 2
  }
}
layer {
  name: "ip1"
  type: "InnerProduct"
  bottom: "pool5"
  top: "ip1"
  param {
    lr_mult: 1
  }
  param {
    lr_mult: 2
  }
  inner_product_param {
    num_output: 64
    weight_filler {
      type: "gaussian"
      std: 0.1
    }
    bias_filler {
      type: "constant"
    }
  }
}
layer {
  name: "ip2"
  type: "InnerProduct"
  bottom: "ip1"
  top: "ip2"
  param {
    lr_mult: 1
  }
  param {
    lr_mult: 2
  }
  inner_product_param {
    num_output: 64
    weight_filler {
      type: "gaussian"
      std: 0.1
    }
    bias_filler {
      type: "constant"
    }
  }
}
layer {
  name: "ip3"
  type: "InnerProduct"
  bottom: "ip2"
  top: "ip3"
  param {
    lr_mult: 1
  }
  param {
    lr_mult: 2
  }
  inner_product_param {
    num_output: 1
    weight_filler {
      type: "gaussian"
      std: 0.1
    }
    bias_filler {
      type: "constant"
    }
  }
}
layer {
  name: "loss"
  type: "HuberLoss"
  bottom: "ip3"
  bottom: "label"
  top: "loss"
  include {
    phase: TRAIN
  }
}
I0507 10:15:28.359549 32427 layer_factory.hpp:77] Creating layer parameters
I0507 10:15:28.359566 32427 net.cpp:94] Creating Layer parameters
I0507 10:15:28.359571 32427 net.cpp:409] parameters -> data
I0507 10:15:28.359580 32427 net.cpp:409] parameters -> label
I0507 10:15:28.359587 32427 hdf5_data_layer.cpp:79] Loading list of HDF5 filenames from: /home/purduethu/scratch/radon/d/deng106/CNNStatisticalModel/distributions/input/50_distributions_900_sample_size_train-parameters-path.txt
I0507 10:15:28.359606 32427 hdf5_data_layer.cpp:93] Number of HDF5 files: 1
I0507 10:15:28.360021 32427 hdf5.cpp:32] Datatype class: H5T_FLOAT
I0507 10:15:29.785446 32427 net.cpp:144] Setting up parameters
I0507 10:15:29.785481 32427 net.cpp:151] Top shape: 20 1 30 30 (18000)
I0507 10:15:29.785487 32427 net.cpp:151] Top shape: 20 (20)
I0507 10:15:29.785490 32427 net.cpp:159] Memory required for data: 72080
I0507 10:15:29.785496 32427 layer_factory.hpp:77] Creating layer conv1
I0507 10:15:29.785513 32427 net.cpp:94] Creating Layer conv1
I0507 10:15:29.785517 32427 net.cpp:435] conv1 <- data
I0507 10:15:29.785524 32427 net.cpp:409] conv1 -> conv1
I0507 10:15:29.792158 32427 net.cpp:144] Setting up conv1
I0507 10:15:29.792176 32427 net.cpp:151] Top shape: 20 64 30 30 (1152000)
I0507 10:15:29.792179 32427 net.cpp:159] Memory required for data: 4680080
I0507 10:15:29.792191 32427 layer_factory.hpp:77] Creating layer relu1
I0507 10:15:29.792198 32427 net.cpp:94] Creating Layer relu1
I0507 10:15:29.792201 32427 net.cpp:435] relu1 <- conv1
I0507 10:15:29.792207 32427 net.cpp:396] relu1 -> conv1 (in-place)
I0507 10:15:29.792214 32427 net.cpp:144] Setting up relu1
I0507 10:15:29.792218 32427 net.cpp:151] Top shape: 20 64 30 30 (1152000)
I0507 10:15:29.792222 32427 net.cpp:159] Memory required for data: 9288080
I0507 10:15:29.792224 32427 layer_factory.hpp:77] Creating layer conv2
I0507 10:15:29.792232 32427 net.cpp:94] Creating Layer conv2
I0507 10:15:29.792237 32427 net.cpp:435] conv2 <- conv1
I0507 10:15:29.792240 32427 net.cpp:409] conv2 -> conv2
I0507 10:15:29.809540 32427 net.cpp:144] Setting up conv2
I0507 10:15:29.809578 32427 net.cpp:151] Top shape: 20 64 30 30 (1152000)
I0507 10:15:29.809589 32427 net.cpp:159] Memory required for data: 13896080
I0507 10:15:29.809612 32427 layer_factory.hpp:77] Creating layer relu2
I0507 10:15:29.809628 32427 net.cpp:94] Creating Layer relu2
I0507 10:15:29.809638 32427 net.cpp:435] relu2 <- conv2
I0507 10:15:29.809651 32427 net.cpp:396] relu2 -> conv2 (in-place)
I0507 10:15:29.809670 32427 net.cpp:144] Setting up relu2
I0507 10:15:29.809682 32427 net.cpp:151] Top shape: 20 64 30 30 (1152000)
I0507 10:15:29.809691 32427 net.cpp:159] Memory required for data: 18504080
I0507 10:15:29.809700 32427 layer_factory.hpp:77] Creating layer pool2
I0507 10:15:29.809728 32427 net.cpp:94] Creating Layer pool2
I0507 10:15:29.809738 32427 net.cpp:435] pool2 <- conv2
I0507 10:15:29.809751 32427 net.cpp:409] pool2 -> pool2
I0507 10:15:29.809904 32427 net.cpp:144] Setting up pool2
I0507 10:15:29.809923 32427 net.cpp:151] Top shape: 20 64 15 15 (288000)
I0507 10:15:29.809932 32427 net.cpp:159] Memory required for data: 19656080
I0507 10:15:29.809950 32427 layer_factory.hpp:77] Creating layer conv3
I0507 10:15:29.809958 32427 net.cpp:94] Creating Layer conv3
I0507 10:15:29.809962 32427 net.cpp:435] conv3 <- pool2
I0507 10:15:29.809967 32427 net.cpp:409] conv3 -> conv3
I0507 10:15:29.819808 32427 net.cpp:144] Setting up conv3
I0507 10:15:29.819846 32427 net.cpp:151] Top shape: 20 64 15 15 (288000)
I0507 10:15:29.819857 32427 net.cpp:159] Memory required for data: 20808080
I0507 10:15:29.819880 32427 layer_factory.hpp:77] Creating layer relu3
I0507 10:15:29.819895 32427 net.cpp:94] Creating Layer relu3
I0507 10:15:29.819905 32427 net.cpp:435] relu3 <- conv3
I0507 10:15:29.819917 32427 net.cpp:396] relu3 -> conv3 (in-place)
I0507 10:15:29.819937 32427 net.cpp:144] Setting up relu3
I0507 10:15:29.819949 32427 net.cpp:151] Top shape: 20 64 15 15 (288000)
I0507 10:15:29.819957 32427 net.cpp:159] Memory required for data: 21960080
I0507 10:15:29.819967 32427 layer_factory.hpp:77] Creating layer conv4
I0507 10:15:29.819988 32427 net.cpp:94] Creating Layer conv4
I0507 10:15:29.819998 32427 net.cpp:435] conv4 <- conv3
I0507 10:15:29.820011 32427 net.cpp:409] conv4 -> conv4
I0507 10:15:29.828676 32427 net.cpp:144] Setting up conv4
I0507 10:15:29.828713 32427 net.cpp:151] Top shape: 20 64 15 15 (288000)
I0507 10:15:29.828725 32427 net.cpp:159] Memory required for data: 23112080
I0507 10:15:29.828742 32427 layer_factory.hpp:77] Creating layer relu4
I0507 10:15:29.828758 32427 net.cpp:94] Creating Layer relu4
I0507 10:15:29.828768 32427 net.cpp:435] relu4 <- conv4
I0507 10:15:29.828780 32427 net.cpp:396] relu4 -> conv4 (in-place)
I0507 10:15:29.828800 32427 net.cpp:144] Setting up relu4
I0507 10:15:29.828812 32427 net.cpp:151] Top shape: 20 64 15 15 (288000)
I0507 10:15:29.828821 32427 net.cpp:159] Memory required for data: 24264080
I0507 10:15:29.828830 32427 layer_factory.hpp:77] Creating layer conv5
I0507 10:15:29.828850 32427 net.cpp:94] Creating Layer conv5
I0507 10:15:29.828860 32427 net.cpp:435] conv5 <- conv4
I0507 10:15:29.828873 32427 net.cpp:409] conv5 -> conv5
I0507 10:15:29.838037 32427 net.cpp:144] Setting up conv5
I0507 10:15:29.838074 32427 net.cpp:151] Top shape: 20 64 15 15 (288000)
I0507 10:15:29.838085 32427 net.cpp:159] Memory required for data: 25416080
I0507 10:15:29.838109 32427 layer_factory.hpp:77] Creating layer relu5
I0507 10:15:29.838124 32427 net.cpp:94] Creating Layer relu5
I0507 10:15:29.838145 32427 net.cpp:435] relu5 <- conv5
I0507 10:15:29.838150 32427 net.cpp:396] relu5 -> conv5 (in-place)
I0507 10:15:29.838157 32427 net.cpp:144] Setting up relu5
I0507 10:15:29.838163 32427 net.cpp:151] Top shape: 20 64 15 15 (288000)
I0507 10:15:29.838166 32427 net.cpp:159] Memory required for data: 26568080
I0507 10:15:29.838171 32427 layer_factory.hpp:77] Creating layer pool5
I0507 10:15:29.838176 32427 net.cpp:94] Creating Layer pool5
I0507 10:15:29.838179 32427 net.cpp:435] pool5 <- conv5
I0507 10:15:29.838184 32427 net.cpp:409] pool5 -> pool5
I0507 10:15:29.838233 32427 net.cpp:144] Setting up pool5
I0507 10:15:29.838241 32427 net.cpp:151] Top shape: 20 64 7 7 (62720)
I0507 10:15:29.838245 32427 net.cpp:159] Memory required for data: 26818960
I0507 10:15:29.838249 32427 layer_factory.hpp:77] Creating layer ip1
I0507 10:15:29.838260 32427 net.cpp:94] Creating Layer ip1
I0507 10:15:29.838264 32427 net.cpp:435] ip1 <- pool5
I0507 10:15:29.838269 32427 net.cpp:409] ip1 -> ip1
I0507 10:15:29.845162 32427 net.cpp:144] Setting up ip1
I0507 10:15:29.845178 32427 net.cpp:151] Top shape: 20 64 (1280)
I0507 10:15:29.845183 32427 net.cpp:159] Memory required for data: 26824080
I0507 10:15:29.845191 32427 layer_factory.hpp:77] Creating layer ip2
I0507 10:15:29.845198 32427 net.cpp:94] Creating Layer ip2
I0507 10:15:29.845208 32427 net.cpp:435] ip2 <- ip1
I0507 10:15:29.845216 32427 net.cpp:409] ip2 -> ip2
I0507 10:15:29.845486 32427 net.cpp:144] Setting up ip2
I0507 10:15:29.845495 32427 net.cpp:151] Top shape: 20 64 (1280)
I0507 10:15:29.845499 32427 net.cpp:159] Memory required for data: 26829200
I0507 10:15:29.845506 32427 layer_factory.hpp:77] Creating layer ip3
I0507 10:15:29.845513 32427 net.cpp:94] Creating Layer ip3
I0507 10:15:29.845517 32427 net.cpp:435] ip3 <- ip2
I0507 10:15:29.845523 32427 net.cpp:409] ip3 -> ip3
I0507 10:15:29.845659 32427 net.cpp:144] Setting up ip3
I0507 10:15:29.845666 32427 net.cpp:151] Top shape: 20 1 (20)
I0507 10:15:29.845670 32427 net.cpp:159] Memory required for data: 26829280
I0507 10:15:29.845676 32427 layer_factory.hpp:77] Creating layer loss
I0507 10:15:29.845690 32427 net.cpp:94] Creating Layer loss
I0507 10:15:29.845693 32427 net.cpp:435] loss <- ip3
I0507 10:15:29.845697 32427 net.cpp:435] loss <- label
I0507 10:15:29.845703 32427 net.cpp:409] loss -> loss
I0507 10:15:29.845767 32427 net.cpp:144] Setting up loss
…
I0507 10:15:30.254380 32427 net.cpp:323] The NetState phase (0) differed from the phase (1) specified by a rule in layer intercept
I0507 10:15:30.254396 32427 net.cpp:323] The NetState phase (0) differed from the phase (1) specified by a rule in layer accuracy
I0507 10:15:30.254483 32427 net.cpp:52] Initializing net from parameters: 
state {
  phase: TRAIN
}
layer {
  name: "parameters"
  type: "HDF5Data"
  top: "data"
  top: "label"
  include {
    phase: TRAIN
  }
  hdf5_data_param {
    source: "/home/purduethu/scratch/radon/d/deng106/CNNStatisticalModel/distributions/input/50_distributions_900_sample_size_train-distributions-path.txt"
    batch_size: 20
  }
}
layer {
  name: "conv1"
  type: "Convolution"
  bottom: "data"
  top: "conv1"
  param {
    lr_mult: 1
  }
  param {
    lr_mult: 2
  }
  convolution_param {
    num_output: 64
    pad: 2
    kernel_size: 5
    stride: 1
    weight_filler {
      type: "gaussian"
      std: 0.0001
    }
    bias_filler {
      type: "constant"
    }
  }
}
layer {
  name: "relu1"
  type: "ReLU"
  bottom: "conv1"
  top: "conv1"
}
layer {
  name: "conv2"
  type: "Convolution"
  bottom: "conv1"
  top: "conv2"
  param {
    lr_mult: 1
  }
  param {
    lr_mult: 2
  }
  convolution_param {
    num_output: 64
    pad: 2
    kernel_size: 5
    stride: 1
    weight_filler {
      type: "gaussian"
      std: 0.01
    }
    bias_filler {
      type: "constant"
    }
  }
}
layer {
  name: "relu2"
  type: "ReLU"
  bottom: "conv2"
  top: "conv2"
}
layer {
  name: "pool2"
  type: "Pooling"
  bottom: "conv2"
  top: "pool2"
  pooling_param {
    pool: MAX
    kernel_size: 3
    stride: 2
  }
}
layer {
  name: "conv3"
  type: "Convolution"
  bottom: "pool2"
  top: "conv3"
  param {
    lr_mult: 1
  }
  param {
    lr_mult: 2
  }
  convolution_param {
    num_output: 64
    pad: 2
    kernel_size: 5
    stride: 1
    weight_filler {
      type: "gaussian"
      std: 0.01
    }
    bias_filler {
      type: "constant"
    }
  }
}
layer {
  name: "relu3"
  type: "ReLU"
  bottom: "conv3"
  top: "conv3"
}
layer {
  name: "conv4"
  type: "Convolution"
  bottom: "conv3"
  top: "conv4"
  param {
    lr_mult: 1
  }
  param {
    lr_mult: 2
  }
  convolution_param {
    num_output: 64
    pad: 2
    kernel_size: 5
    stride: 1
    weight_filler {
      type: "gaussian"
      std: 0.01
    }
    bias_filler {
      type: "constant"
    }
  }
}
layer {
  name: "relu4"
  type: "ReLU"
  bottom: "conv4"
  top: "conv4"
}
layer {
  name: "conv5"
  type: "Convolution"
  bottom: "conv4"
  top: "conv5"
  param {
    lr_mult: 1
  }
  param {
    lr_mult: 2
  }
  convolution_param {
    num_output: 64
    pad: 2
    kernel_size: 5
    stride: 1
    weight_filler {
      type: "gaussian"
      std: 0.01
    }
    bias_filler {
      type: "constant"
    }
  }
}
layer {
  name: "relu5"
  type: "ReLU"
  bottom: "conv5"
  top: "conv5"
}
layer {
  name: "pool5"
  type: "Pooling"
  bottom: "conv5"
  top: "pool5"
  pooling_param {
    pool: AVE
    kernel_size: 3
    stride: 2
  }
}
layer {
  name: "ip1"
  type: "InnerProduct"
  bottom: "pool5"
  top: "ip1"
  param {
    lr_mult: 1
  }
  param {
    lr_mult: 2
  }
  inner_product_param {
    num_output: 64
    weight_filler {
      type: "gaussian"
      std: 0.1
    }
    bias_filler {
      type: "constant"
    }
  }
}
layer {
  name: "ip2"
  type: "InnerProduct"
  bottom: "ip1"
  top: "ip2"
  param {
    lr_mult: 1
  }
  param {
    lr_mult: 2
  }
  inner_product_param {
    num_output: 64
    weight_filler {
      type: "gaussian"
      std: 0.1
    }
    bias_filler {
      type: "constant"
    }
  }
}
layer {
  name: "ip3"
  type: "InnerProduct"
  bottom: "ip2"
  top: "ip3"
  param {
    lr_mult: 1
  }
  param {
    lr_mult: 2
  }
  inner_product_param {
    num_output: 50
    weight_filler {
      type: "gaussian"
      std: 0.1
    }
    bias_filler {
      type: "constant"
    }
  }
}
layer {
  name: "loss"
  type: "SoftmaxWithLoss"
  bottom: "ip3"
  bottom: "label"
  top: "loss"
}
I0507 10:15:30.254534 32427 layer_factory.hpp:77] Creating layer parameters
I0507 10:15:30.254544 32427 net.cpp:94] Creating Layer parameters
I0507 10:15:30.254547 32427 net.cpp:409] parameters -> data
I0507 10:15:30.254554 32427 net.cpp:409] parameters -> label
I0507 10:15:30.254559 32427 hdf5_data_layer.cpp:79] Loading list of HDF5 filenames from: /home/purduethu/scratch/radon/d/deng106/CNNStatisticalModel/distributions/input/50_distributions_900_sample_size_train-distributions-path.txt
I0507 10:15:30.254576 32427 hdf5_data_layer.cpp:93] Number of HDF5 files: 1
I0507 10:15:31.682832 32427 hdf5.cpp:35] Datatype class: H5T_INTEGER
I0507 10:15:31.685869 32427 net.cpp:144] Setting up parameters
I0507 10:15:31.685890 32427 net.cpp:151] Top shape: 20 1 30 30 (18000)
I0507 10:15:31.685895 32427 net.cpp:151] Top shape: 20 (20)
I0507 10:15:31.685899 32427 net.cpp:159] Memory required for data: 72080
I0507 10:15:31.685905 32427 layer_factory.hpp:77] Creating layer conv1
I0507 10:15:31.685922 32427 net.cpp:94] Creating Layer conv1
I0507 10:15:31.685926 32427 net.cpp:435] conv1 <- data
I0507 10:15:31.685932 32427 net.cpp:409] conv1 -> conv1
I0507 10:15:31.689493 32427 net.cpp:144] Setting up conv1
I0507 10:15:31.689507 32427 net.cpp:151] Top shape: 20 64 30 30 (1152000)
I0507 10:15:31.689512 32427 net.cpp:159] Memory required for data: 4680080
I0507 10:15:31.689520 32427 layer_factory.hpp:77] Creating layer relu1
I0507 10:15:31.689528 32427 net.cpp:94] Creating Layer relu1
I0507 10:15:31.689532 32427 net.cpp:435] relu1 <- conv1
I0507 10:15:31.689535 32427 net.cpp:396] relu1 -> conv1 (in-place)
I0507 10:15:31.689543 32427 net.cpp:144] Setting up relu1
I0507 10:15:31.689548 32427 net.cpp:151] Top shape: 20 64 30 30 (1152000)
I0507 10:15:31.689550 32427 net.cpp:159] Memory required for data: 9288080
I0507 10:15:31.689553 32427 layer_factory.hpp:77] Creating layer conv2
I0507 10:15:31.689560 32427 net.cpp:94] Creating Layer conv2
I0507 10:15:31.689564 32427 net.cpp:435] conv2 <- conv1
I0507 10:15:31.689568 32427 net.cpp:409] conv2 -> conv2
I0507 10:15:31.705943 32427 net.cpp:144] Setting up conv2
I0507 10:15:31.705981 32427 net.cpp:151] Top shape: 20 64 30 30 (1152000)
I0507 10:15:31.705992 32427 net.cpp:159] Memory required for data: 13896080
I0507 10:15:31.706013 32427 layer_factory.hpp:77] Creating layer relu2
I0507 10:15:31.706032 32427 net.cpp:94] Creating Layer relu2
I0507 10:15:31.706042 32427 net.cpp:435] relu2 <- conv2
I0507 10:15:31.706053 32427 net.cpp:396] relu2 -> conv2 (in-place)
I0507 10:15:31.706073 32427 net.cpp:144] Setting up relu2
I0507 10:15:31.706085 32427 net.cpp:151] Top shape: 20 64 30 30 (1152000)
I0507 10:15:31.706094 32427 net.cpp:159] Memory required for data: 18504080
I0507 10:15:31.706101 32427 layer_factory.hpp:77] Creating layer pool2
I0507 10:15:31.706115 32427 net.cpp:94] Creating Layer pool2
I0507 10:15:31.706125 32427 net.cpp:435] pool2 <- conv2
I0507 10:15:31.706136 32427 net.cpp:409] pool2 -> pool2
I0507 10:15:31.706286 32427 net.cpp:144] Setting up pool2
I0507 10:15:31.706305 32427 net.cpp:151] Top shape: 20 64 15 15 (288000)
I0507 10:15:31.706313 32427 net.cpp:159] Memory required for data: 19656080
I0507 10:15:31.706332 32427 layer_factory.hpp:77] Creating layer conv3
I0507 10:15:31.706341 32427 net.cpp:94] Creating Layer conv3
I0507 10:15:31.706343 32427 net.cpp:435] conv3 <- pool2
I0507 10:15:31.706354 32427 net.cpp:409] conv3 -> conv3
I0507 10:15:31.715844 32427 net.cpp:144] Setting up conv3
I0507 10:15:31.715881 32427 net.cpp:151] Top shape: 20 64 15 15 (288000)
I0507 10:15:31.715893 32427 net.cpp:159] Memory required for data: 20808080
I0507 10:15:31.715915 32427 layer_factory.hpp:77] Creating layer relu3
I0507 10:15:31.715931 32427 net.cpp:94] Creating Layer relu3
I0507 10:15:31.715941 32427 net.cpp:435] relu3 <- conv3
I0507 10:15:31.715955 32427 net.cpp:396] relu3 -> conv3 (in-place)
I0507 10:15:31.715973 32427 net.cpp:144] Setting up relu3
I0507 10:15:31.715986 32427 net.cpp:151] Top shape: 20 64 15 15 (288000)
I0507 10:15:31.715994 32427 net.cpp:159] Memory required for data: 21960080
I0507 10:15:31.716003 32427 layer_factory.hpp:77] Creating layer conv4
I0507 10:15:31.716025 32427 net.cpp:94] Creating Layer conv4
I0507 10:15:31.716035 32427 net.cpp:435] conv4 <- conv3
I0507 10:15:31.716049 32427 net.cpp:409] conv4 -> conv4
I0507 10:15:31.725709 32427 net.cpp:144] Setting up conv4
I0507 10:15:31.725725 32427 net.cpp:151] Top shape: 20 64 15 15 (288000)
I0507 10:15:31.725729 32427 net.cpp:159] Memory required for data: 23112080
I0507 10:15:31.725736 32427 layer_factory.hpp:77] Creating layer relu4
I0507 10:15:31.725744 32427 net.cpp:94] Creating Layer relu4
I0507 10:15:31.725747 32427 net.cpp:435] relu4 <- conv4
I0507 10:15:31.725752 32427 net.cpp:396] relu4 -> conv4 (in-place)
I0507 10:15:31.725759 32427 net.cpp:144] Setting up relu4
I0507 10:15:31.725764 32427 net.cpp:151] Top shape: 20 64 15 15 (288000)
I0507 10:15:31.725767 32427 net.cpp:159] Memory required for data: 24264080
I0507 10:15:31.725771 32427 layer_factory.hpp:77] Creating layer conv5
I0507 10:15:31.725780 32427 net.cpp:94] Creating Layer conv5
I0507 10:15:31.725783 32427 net.cpp:435] conv5 <- conv4
I0507 10:15:31.725788 32427 net.cpp:409] conv5 -> conv5
I0507 10:15:31.734669 32427 net.cpp:144] Setting up conv5
I0507 10:15:31.734707 32427 net.cpp:151] Top shape: 20 64 15 15 (288000)
I0507 10:15:31.734719 32427 net.cpp:159] Memory required for data: 25416080
I0507 10:15:31.734742 32427 layer_factory.hpp:77] Creating layer relu5
I0507 10:15:31.734757 32427 net.cpp:94] Creating Layer relu5
I0507 10:15:31.734767 32427 net.cpp:435] relu5 <- conv5
I0507 10:15:31.734781 32427 net.cpp:396] relu5 -> conv5 (in-place)
I0507 10:15:31.734799 32427 net.cpp:144] Setting up relu5
I0507 10:15:31.734812 32427 net.cpp:151] Top shape: 20 64 15 15 (288000)
I0507 10:15:31.734822 32427 net.cpp:159] Memory required for data: 26568080
I0507 10:15:31.734829 32427 layer_factory.hpp:77] Creating layer pool5
I0507 10:15:31.734843 32427 net.cpp:94] Creating Layer pool5
I0507 10:15:31.734851 32427 net.cpp:435] pool5 <- conv5
I0507 10:15:31.734863 32427 net.cpp:409] pool5 -> pool5
I0507 10:15:31.734966 32427 net.cpp:144] Setting up pool5
I0507 10:15:31.734993 32427 net.cpp:151] Top shape: 20 64 7 7 (62720)
I0507 10:15:31.734997 32427 net.cpp:159] Memory required for data: 26818960
I0507 10:15:31.735002 32427 layer_factory.hpp:77] Creating layer ip1
I0507 10:15:31.735008 32427 net.cpp:94] Creating Layer ip1
I0507 10:15:31.735011 32427 net.cpp:435] ip1 <- pool5
I0507 10:15:31.735018 32427 net.cpp:409] ip1 -> ip1
I0507 10:15:31.740618 32427 net.cpp:144] Setting up ip1
I0507 10:15:31.740630 32427 net.cpp:151] Top shape: 20 64 (1280)
I0507 10:15:31.740634 32427 net.cpp:159] Memory required for data: 26824080
I0507 10:15:31.740640 32427 layer_factory.hpp:77] Creating layer ip2
I0507 10:15:31.740648 32427 net.cpp:94] Creating Layer ip2
I0507 10:15:31.740651 32427 net.cpp:435] ip2 <- ip1
I0507 10:15:31.740658 32427 net.cpp:409] ip2 -> ip2
I0507 10:15:31.740921 32427 net.cpp:144] Setting up ip2
I0507 10:15:31.740928 32427 net.cpp:151] Top shape: 20 64 (1280)
I0507 10:15:31.740932 32427 net.cpp:159] Memory required for data: 26829200
I0507 10:15:31.740938 32427 layer_factory.hpp:77] Creating layer ip3
I0507 10:15:31.740944 32427 net.cpp:94] Creating Layer ip3
I0507 10:15:31.740948 32427 net.cpp:435] ip3 <- ip2
I0507 10:15:31.740953 32427 net.cpp:409] ip3 -> ip3
I0507 10:15:31.741189 32427 net.cpp:144] Setting up ip3
I0507 10:15:31.741197 32427 net.cpp:151] Top shape: 20 50 (1000)
I0507 10:15:31.741200 32427 net.cpp:159] Memory required for data: 26833200
I0507 10:15:31.741206 32427 layer_factory.hpp:77] Creating layer loss
I0507 10:15:31.741214 32427 net.cpp:94] Creating Layer loss
I0507 10:15:31.741217 32427 net.cpp:435] loss <- ip3
I0507 10:15:31.741221 32427 net.cpp:435] loss <- label
I0507 10:15:31.741226 32427 net.cpp:409] loss -> loss
I0507 10:15:31.741235 32427 layer_factory.hpp:77] Creating layer loss
…
I0507 10:15:31.741823 32427 solver.cpp:181] Creating test net (#0) specified by net file: ./protocol/dis_50_900_dimension.protocol_distribution
I0507 10:15:31.741853 32427 net.cpp:323] The NetState phase (1) differed from the phase (0) specified by a rule in layer parameters
I0507 10:15:31.741961 32427 net.cpp:52] Initializing net from parameters: 
state {
  phase: TEST
}
layer {
  name: "intercept"
  type: "HDF5Data"
  top: "data"
  top: "label"
  include {
    phase: TEST
  }
  hdf5_data_param {
    source: "/home/purduethu/scratch/radon/d/deng106/CNNStatisticalModel/distributions/input/50_distributions_900_sample_size_test-distributions-path.txt"
    batch_size: 20
  }
}
layer {
  name: "conv1"
  type: "Convolution"
  bottom: "data"
  top: "conv1"
  param {
    lr_mult: 1
  }
  param {
    lr_mult: 2
  }
  convolution_param {
    num_output: 64
    pad: 2
    kernel_size: 5
    stride: 1
    weight_filler {
      type: "gaussian"
      std: 0.0001
    }
    bias_filler {
      type: "constant"
    }
  }
}
layer {
  name: "relu1"
  type: "ReLU"
  bottom: "conv1"
  top: "conv1"
}
layer {
  name: "conv2"
  type: "Convolution"
  bottom: "conv1"
  top: "conv2"
  param {
    lr_mult: 1
  }
  param {
    lr_mult: 2
  }
  convolution_param {
    num_output: 64
    pad: 2
    kernel_size: 5
    stride: 1
    weight_filler {
      type: "gaussian"
      std: 0.01
    }
    bias_filler {
      type: "constant"
    }
  }
}
layer {
  name: "relu2"
  type: "ReLU"
  bottom: "conv2"
  top: "conv2"
}
layer {
  name: "pool2"
  type: "Pooling"
  bottom: "conv2"
  top: "pool2"
  pooling_param {
    pool: MAX
    kernel_size: 3
    stride: 2
  }
}
layer {
  name: "conv3"
  type: "Convolution"
  bottom: "pool2"
  top: "conv3"
  param {
    lr_mult: 1
  }
  param {
    lr_mult: 2
  }
  convolution_param {
    num_output: 64
    pad: 2
    kernel_size: 5
    stride: 1
    weight_filler {
      type: "gaussian"
      std: 0.01
    }
    bias_filler {
      type: "constant"
    }
  }
}
layer {
  name: "relu3"
  type: "ReLU"
  bottom: "conv3"
  top: "conv3"
}
layer {
  name: "conv4"
  type: "Convolution"
  bottom: "conv3"
  top: "conv4"
  param {
    lr_mult: 1
  }
  param {
    lr_mult: 2
  }
  convolution_param {
    num_output: 64
    pad: 2
    kernel_size: 5
    stride: 1
    weight_filler {
      type: "gaussian"
      std: 0.01
    }
    bias_filler {
      type: "constant"
    }
  }
}
layer {
  name: "relu4"
  type: "ReLU"
  bottom: "conv4"
  top: "conv4"
}
layer {
  name: "conv5"
  type: "Convolution"
  bottom: "conv4"
  top: "conv5"
  param {
    lr_mult: 1
  }
  param {
    lr_mult: 2
  }
  convolution_param {
    num_output: 64
    pad: 2
    kernel_size: 5
    stride: 1
    weight_filler {
      type: "gaussian"
      std: 0.01
    }
    bias_filler {
      type: "constant"
    }
  }
}
layer {
  name: "relu5"
  type: "ReLU"
  bottom: "conv5"
  top: "conv5"
}
layer {
  name: "pool5"
  type: "Pooling"
  bottom: "conv5"
  top: "pool5"
  pooling_param {
    pool: AVE
    kernel_size: 3
    stride: 2
  }
}
layer {
  name: "ip1"
  type: "InnerProduct"
  bottom: "pool5"
  top: "ip1"
  param {
    lr_mult: 1
  }
  param {
    lr_mult: 2
  }
  inner_product_param {
    num_output: 64
    weight_filler {
      type: "gaussian"
      std: 0.1
    }
    bias_filler {
      type: "constant"
    }
  }
}
layer {
  name: "ip2"
  type: "InnerProduct"
  bottom: "ip1"
  top: "ip2"
  param {
    lr_mult: 1
  }
  param {
    lr_mult: 2
  }
  inner_product_param {
    num_output: 64
    weight_filler {
      type: "gaussian"
      std: 0.1
    }
    bias_filler {
      type: "constant"
    }
  }
}
layer {
  name: "ip3"
  type: "InnerProduct"
  bottom: "ip2"
  top: "ip3"
  param {
    lr_mult: 1
  }
  param {
    lr_mult: 2
  }
  inner_product_param {
    num_output: 50
    weight_filler {
      type: "gaussian"
      std: 0.1
    }
    bias_filler {
      type: "constant"
    }
  }
}
layer {
  name: "accuracy"
  type: "Accuracy"
  bottom: "ip3"
  bottom: "label"
  top: "accuracy"
  include {
    phase: TEST
  }
}
layer {
  name: "loss"
  type: "SoftmaxWithLoss"
  bottom: "ip3"
  bottom: "label"
  top: "loss"
}
I0507 10:15:31.742033 32427 layer_factory.hpp:77] Creating layer intercept
I0507 10:15:31.742043 32427 net.cpp:94] Creating Layer intercept
I0507 10:15:31.742048 32427 net.cpp:409] intercept -> data
I0507 10:15:31.742055 32427 net.cpp:409] intercept -> label
I0507 10:15:31.742061 32427 hdf5_data_layer.cpp:79] Loading list of HDF5 filenames from: /home/purduethu/scratch/radon/d/deng106/CNNStatisticalModel/distributions/input/50_distributions_900_sample_size_test-distributions-path.txt
I0507 10:15:31.742085 32427 hdf5_data_layer.cpp:93] Number of HDF5 files: 1
I0507 10:15:32.105185 32427 net.cpp:144] Setting up intercept
I0507 10:15:32.105221 32427 net.cpp:151] Top shape: 20 1 30 30 (18000)
I0507 10:15:32.105226 32427 net.cpp:151] Top shape: 20 (20)
I0507 10:15:32.105229 32427 net.cpp:159] Memory required for data: 72080
I0507 10:15:32.105235 32427 layer_factory.hpp:77] Creating layer label_intercept_1_split
I0507 10:15:32.105255 32427 net.cpp:94] Creating Layer label_intercept_1_split
I0507 10:15:32.105259 32427 net.cpp:435] label_intercept_1_split <- label
I0507 10:15:32.105265 32427 net.cpp:409] label_intercept_1_split -> label_intercept_1_split_0
I0507 10:15:32.105274 32427 net.cpp:409] label_intercept_1_split -> label_intercept_1_split_1
I0507 10:15:32.105319 32427 net.cpp:144] Setting up label_intercept_1_split
I0507 10:15:32.105325 32427 net.cpp:151] Top shape: 20 (20)
I0507 10:15:32.105329 32427 net.cpp:151] Top shape: 20 (20)
I0507 10:15:32.105332 32427 net.cpp:159] Memory required for data: 72240
I0507 10:15:32.105335 32427 layer_factory.hpp:77] Creating layer conv1
I0507 10:15:32.105346 32427 net.cpp:94] Creating Layer conv1
I0507 10:15:32.105350 32427 net.cpp:435] conv1 <- data
I0507 10:15:32.105355 32427 net.cpp:409] conv1 -> conv1
I0507 10:15:32.106887 32427 net.cpp:144] Setting up conv1
I0507 10:15:32.106900 32427 net.cpp:151] Top shape: 20 64 30 30 (1152000)
I0507 10:15:32.106904 32427 net.cpp:159] Memory required for data: 4680240
I0507 10:15:32.106914 32427 layer_factory.hpp:77] Creating layer relu1
I0507 10:15:32.106920 32427 net.cpp:94] Creating Layer relu1
I0507 10:15:32.106925 32427 net.cpp:435] relu1 <- conv1
I0507 10:15:32.106928 32427 net.cpp:396] relu1 -> conv1 (in-place)
I0507 10:15:32.106935 32427 net.cpp:144] Setting up relu1
I0507 10:15:32.106940 32427 net.cpp:151] Top shape: 20 64 30 30 (1152000)
I0507 10:15:32.106942 32427 net.cpp:159] Memory required for data: 9288240
I0507 10:15:32.106945 32427 layer_factory.hpp:77] Creating layer conv2
I0507 10:15:32.106952 32427 net.cpp:94] Creating Layer conv2
I0507 10:15:32.106956 32427 net.cpp:435] conv2 <- conv1
I0507 10:15:32.106961 32427 net.cpp:409] conv2 -> conv2
I0507 10:15:32.114584 32427 net.cpp:144] Setting up conv2
I0507 10:15:32.114621 32427 net.cpp:151] Top shape: 20 64 30 30 (1152000)
I0507 10:15:32.114632 32427 net.cpp:159] Memory required for data: 13896240
I0507 10:15:32.114655 32427 layer_factory.hpp:77] Creating layer relu2
I0507 10:15:32.114670 32427 net.cpp:94] Creating Layer relu2
I0507 10:15:32.114679 32427 net.cpp:435] relu2 <- conv2
I0507 10:15:32.114696 32427 net.cpp:396] relu2 -> conv2 (in-place)
I0507 10:15:32.114714 32427 net.cpp:144] Setting up relu2
I0507 10:15:32.114727 32427 net.cpp:151] Top shape: 20 64 30 30 (1152000)
I0507 10:15:32.114735 32427 net.cpp:159] Memory required for data: 18504240
I0507 10:15:32.114743 32427 layer_factory.hpp:77] Creating layer pool2
I0507 10:15:32.114759 32427 net.cpp:94] Creating Layer pool2
I0507 10:15:32.114768 32427 net.cpp:435] pool2 <- conv2
I0507 10:15:32.114779 32427 net.cpp:409] pool2 -> pool2
I0507 10:15:32.114912 32427 net.cpp:144] Setting up pool2
I0507 10:15:32.114918 32427 net.cpp:151] Top shape: 20 64 15 15 (288000)
I0507 10:15:32.114922 32427 net.cpp:159] Memory required for data: 19656240
I0507 10:15:32.114924 32427 layer_factory.hpp:77] Creating layer conv3
I0507 10:15:32.114933 32427 net.cpp:94] Creating Layer conv3
I0507 10:15:32.114936 32427 net.cpp:435] conv3 <- pool2
I0507 10:15:32.114943 32427 net.cpp:409] conv3 -> conv3
I0507 10:15:32.120085 32427 net.cpp:144] Setting up conv3
I0507 10:15:32.120118 32427 net.cpp:151] Top shape: 20 64 15 15 (288000)
I0507 10:15:32.120128 32427 net.cpp:159] Memory required for data: 20808240
I0507 10:15:32.120149 32427 layer_factory.hpp:77] Creating layer relu3
I0507 10:15:32.120169 32427 net.cpp:94] Creating Layer relu3
I0507 10:15:32.120179 32427 net.cpp:435] relu3 <- conv3
I0507 10:15:32.120193 32427 net.cpp:396] relu3 -> conv3 (in-place)
I0507 10:15:32.120211 32427 net.cpp:144] Setting up relu3
I0507 10:15:32.120223 32427 net.cpp:151] Top shape: 20 64 15 15 (288000)
I0507 10:15:32.120231 32427 net.cpp:159] Memory required for data: 21960240
I0507 10:15:32.120240 32427 layer_factory.hpp:77] Creating layer conv4
I0507 10:15:32.120261 32427 net.cpp:94] Creating Layer conv4
I0507 10:15:32.120271 32427 net.cpp:435] conv4 <- conv3
I0507 10:15:32.120286 32427 net.cpp:409] conv4 -> conv4
I0507 10:15:32.125139 32427 net.cpp:144] Setting up conv4
I0507 10:15:32.125154 32427 net.cpp:151] Top shape: 20 64 15 15 (288000)
I0507 10:15:32.125157 32427 net.cpp:159] Memory required for data: 23112240
I0507 10:15:32.125164 32427 layer_factory.hpp:77] Creating layer relu4
I0507 10:15:32.125169 32427 net.cpp:94] Creating Layer relu4
I0507 10:15:32.125174 32427 net.cpp:435] relu4 <- conv4
I0507 10:15:32.125178 32427 net.cpp:396] relu4 -> conv4 (in-place)
I0507 10:15:32.125185 32427 net.cpp:144] Setting up relu4
I0507 10:15:32.125190 32427 net.cpp:151] Top shape: 20 64 15 15 (288000)
I0507 10:15:32.125192 32427 net.cpp:159] Memory required for data: 24264240
I0507 10:15:32.125195 32427 layer_factory.hpp:77] Creating layer conv5
I0507 10:15:32.125205 32427 net.cpp:94] Creating Layer conv5
I0507 10:15:32.125207 32427 net.cpp:435] conv5 <- conv4
I0507 10:15:32.125213 32427 net.cpp:409] conv5 -> conv5
I0507 10:15:32.130136 32427 net.cpp:144] Setting up conv5
I0507 10:15:32.130151 32427 net.cpp:151] Top shape: 20 64 15 15 (288000)
I0507 10:15:32.130153 32427 net.cpp:159] Memory required for data: 25416240
I0507 10:15:32.130162 32427 layer_factory.hpp:77] Creating layer relu5
I0507 10:15:32.130168 32427 net.cpp:94] Creating Layer relu5
I0507 10:15:32.130172 32427 net.cpp:435] relu5 <- conv5
I0507 10:15:32.130175 32427 net.cpp:396] relu5 -> conv5 (in-place)
I0507 10:15:32.130182 32427 net.cpp:144] Setting up relu5
I0507 10:15:32.130187 32427 net.cpp:151] Top shape: 20 64 15 15 (288000)
I0507 10:15:32.130190 32427 net.cpp:159] Memory required for data: 26568240
I0507 10:15:32.130193 32427 layer_factory.hpp:77] Creating layer pool5
I0507 10:15:32.130198 32427 net.cpp:94] Creating Layer pool5
I0507 10:15:32.130201 32427 net.cpp:435] pool5 <- conv5
I0507 10:15:32.130206 32427 net.cpp:409] pool5 -> pool5
I0507 10:15:32.130249 32427 net.cpp:144] Setting up pool5
I0507 10:15:32.130256 32427 net.cpp:151] Top shape: 20 64 7 7 (62720)
I0507 10:15:32.130259 32427 net.cpp:159] Memory required for data: 26819120
I0507 10:15:32.130262 32427 layer_factory.hpp:77] Creating layer ip1
I0507 10:15:32.130270 32427 net.cpp:94] Creating Layer ip1
I0507 10:15:32.130273 32427 net.cpp:435] ip1 <- pool5
I0507 10:15:32.130280 32427 net.cpp:409] ip1 -> ip1
I0507 10:15:32.136139 32427 net.cpp:144] Setting up ip1
I0507 10:15:32.136152 32427 net.cpp:151] Top shape: 20 64 (1280)
I0507 10:15:32.136157 32427 net.cpp:159] Memory required for data: 26824240
I0507 10:15:32.136162 32427 layer_factory.hpp:77] Creating layer ip2
I0507 10:15:32.136168 32427 net.cpp:94] Creating Layer ip2
I0507 10:15:32.136173 32427 net.cpp:435] ip2 <- ip1
I0507 10:15:32.136178 32427 net.cpp:409] ip2 -> ip2
I0507 10:15:32.136435 32427 net.cpp:144] Setting up ip2
I0507 10:15:32.136442 32427 net.cpp:151] Top shape: 20 64 (1280)
I0507 10:15:32.136445 32427 net.cpp:159] Memory required for data: 26829360
I0507 10:15:32.136451 32427 layer_factory.hpp:77] Creating layer ip3
I0507 10:15:32.136458 32427 net.cpp:94] Creating Layer ip3
I0507 10:15:32.136462 32427 net.cpp:435] ip3 <- ip2
I0507 10:15:32.136467 32427 net.cpp:409] ip3 -> ip3
I0507 10:15:32.136692 32427 net.cpp:144] Setting up ip3
I0507 10:15:32.136699 32427 net.cpp:151] Top shape: 20 50 (1000)
I0507 10:15:32.136703 32427 net.cpp:159] Memory required for data: 26833360
I0507 10:15:32.136708 32427 layer_factory.hpp:77] Creating layer ip3_ip3_0_split
I0507 10:15:32.136714 32427 net.cpp:94] Creating Layer ip3_ip3_0_split
I0507 10:15:32.136718 32427 net.cpp:435] ip3_ip3_0_split <- ip3
I0507 10:15:32.136723 32427 net.cpp:409] ip3_ip3_0_split -> ip3_ip3_0_split_0
I0507 10:15:32.136729 32427 net.cpp:409] ip3_ip3_0_split -> ip3_ip3_0_split_1
I0507 10:15:32.136775 32427 net.cpp:144] Setting up ip3_ip3_0_split
I0507 10:15:32.136780 32427 net.cpp:151] Top shape: 20 50 (1000)
I0507 10:15:32.136785 32427 net.cpp:151] Top shape: 20 50 (1000)
I0507 10:15:32.136787 32427 net.cpp:159] Memory required for data: 26841360
I0507 10:15:32.136790 32427 layer_factory.hpp:77] Creating layer accuracy
I0507 10:15:32.136796 32427 net.cpp:94] Creating Layer accuracy
I0507 10:15:32.136800 32427 net.cpp:435] accuracy <- ip3_ip3_0_split_0
I0507 10:15:32.136804 32427 net.cpp:435] accuracy <- label_intercept_1_split_0
I0507 10:15:32.136808 32427 net.cpp:409] accuracy -> accuracy
…
