…
I0502 19:38:31.205549 12742 net.cpp:323] The NetState phase (0) differed from the phase (1) specified by a rule in layer intercept
I0502 19:38:31.205565 12742 net.cpp:323] The NetState phase (0) differed from the phase (1) specified by a rule in layer accuracy
I0502 19:38:31.205662 12742 net.cpp:52] Initializing net from parameters: 
state {
  phase: TRAIN
}
layer {
  name: "parameters"
  type: "HDF5Data"
  top: "data"
  top: "label"
  include {
    phase: TRAIN
  }
  hdf5_data_param {
    source: "/home/purduethu/scratch/radon/d/deng106/CNNStatisticalModel/distributions/input/5_distributions_400_sample_size_train-distributions-path.txt"
    batch_size: 20
  }
}
layer {
  name: "conv1"
  type: "Convolution"
  bottom: "data"
  top: "conv1"
  param {
    lr_mult: 1
  }
  param {
    lr_mult: 2
  }
  convolution_param {
    num_output: 64
    pad: 2
    kernel_size: 5
    stride: 1
    weight_filler {
      type: "gaussian"
      std: 0.0001
    }
    bias_filler {
      type: "constant"
    }
  }
}
layer {
  name: "relu1"
  type: "ReLU"
  bottom: "conv1"
  top: "conv1"
}
layer {
  name: "conv2"
  type: "Convolution"
  bottom: "conv1"
  top: "conv2"
  param {
    lr_mult: 1
  }
  param {
    lr_mult: 2
  }
  convolution_param {
    num_output: 64
    pad: 2
    kernel_size: 5
    stride: 1
    weight_filler {
      type: "gaussian"
      std: 0.01
    }
    bias_filler {
      type: "constant"
    }
  }
}
layer {
  name: "relu2"
  type: "ReLU"
  bottom: "conv2"
  top: "conv2"
}
layer {
  name: "pool2"
  type: "Pooling"
  bottom: "conv2"
  top: "pool2"
  pooling_param {
    pool: MAX
    kernel_size: 3
    stride: 2
  }
}
layer {
  name: "conv3"
  type: "Convolution"
  bottom: "pool2"
  top: "conv3"
  param {
    lr_mult: 1
  }
  param {
    lr_mult: 2
  }
  convolution_param {
    num_output: 64
    pad: 2
    kernel_size: 5
    stride: 1
    weight_filler {
      type: "gaussian"
      std: 0.01
    }
    bias_filler {
      type: "constant"
    }
  }
}
layer {
  name: "relu3"
  type: "ReLU"
  bottom: "conv3"
  top: "conv3"
}
layer {
  name: "conv4"
  type: "Convolution"
  bottom: "conv3"
  top: "conv4"
  param {
    lr_mult: 1
  }
  param {
    lr_mult: 2
  }
  convolution_param {
    num_output: 64
    pad: 2
    kernel_size: 5
    stride: 1
    weight_filler {
      type: "gaussian"
      std: 0.01
    }
    bias_filler {
      type: "constant"
    }
  }
}
layer {
  name: "relu4"
  type: "ReLU"
  bottom: "conv4"
  top: "conv4"
}
layer {
  name: "conv5"
  type: "Convolution"
  bottom: "conv4"
  top: "conv5"
  param {
    lr_mult: 1
  }
  param {
    lr_mult: 2
  }
  convolution_param {
    num_output: 64
    pad: 2
    kernel_size: 5
    stride: 1
    weight_filler {
      type: "gaussian"
      std: 0.01
    }
    bias_filler {
      type: "constant"
    }
  }
}
layer {
  name: "relu5"
  type: "ReLU"
  bottom: "conv5"
  top: "conv5"
}
layer {
  name: "pool5"
  type: "Pooling"
  bottom: "conv5"
  top: "pool5"
  pooling_param {
    pool: AVE
    kernel_size: 3
    stride: 2
  }
}
layer {
  name: "ip1"
  type: "InnerProduct"
  bottom: "pool5"
  top: "ip1"
  param {
    lr_mult: 1
  }
  param {
    lr_mult: 2
  }
  inner_product_param {
    num_output: 64
    weight_filler {
      type: "gaussian"
      std: 0.1
    }
    bias_filler {
      type: "constant"
    }
  }
}
layer {
  name: "ip2"
  type: "InnerProduct"
  bottom: "ip1"
  top: "ip2"
  param {
    lr_mult: 1
  }
  param {
    lr_mult: 2
  }
  inner_product_param {
    num_output: 64
    weight_filler {
      type: "gaussian"
      std: 0.1
    }
    bias_filler {
      type: "constant"
    }
  }
}
layer {
  name: "ip3"
  type: "InnerProduct"
  bottom: "ip2"
  top: "ip3"
  param {
    lr_mult: 1
  }
  param {
    lr_mult: 2
  }
  inner_product_param {
    num_output: 50
    weight_filler {
      type: "gaussian"
      std: 0.1
    }
    bias_filler {
      type: "constant"
    }
  }
}
layer {
  name: "loss"
  type: "SoftmaxWithLoss"
  bottom: "ip3"
  bottom: "label"
  top: "loss"
}
I0502 19:38:31.205737 12742 layer_factory.hpp:77] Creating layer parameters
I0502 19:38:31.205751 12742 net.cpp:94] Creating Layer parameters
I0502 19:38:31.205759 12742 net.cpp:409] parameters -> data
I0502 19:38:31.205777 12742 net.cpp:409] parameters -> label
I0502 19:38:31.205787 12742 hdf5_data_layer.cpp:79] Loading list of HDF5 filenames from: /home/purduethu/scratch/radon/d/deng106/CNNStatisticalModel/distributions/input/5_distributions_400_sample_size_train-distributions-path.txt
I0502 19:38:31.205813 12742 hdf5_data_layer.cpp:93] Number of HDF5 files: 1
I0502 19:38:31.206380 12742 hdf5.cpp:32] Datatype class: H5T_FLOAT
I0502 19:38:31.268090 12742 hdf5.cpp:35] Datatype class: H5T_INTEGER
I0502 19:38:31.269253 12742 net.cpp:144] Setting up parameters
I0502 19:38:31.269273 12742 net.cpp:151] Top shape: 20 1 20 20 (8000)
I0502 19:38:31.269279 12742 net.cpp:151] Top shape: 20 (20)
I0502 19:38:31.269282 12742 net.cpp:159] Memory required for data: 32080
I0502 19:38:31.269290 12742 layer_factory.hpp:77] Creating layer conv1
I0502 19:38:31.269315 12742 net.cpp:94] Creating Layer conv1
I0502 19:38:31.269320 12742 net.cpp:435] conv1 <- data
I0502 19:38:31.269331 12742 net.cpp:409] conv1 -> conv1
I0502 19:38:31.274754 12742 net.cpp:144] Setting up conv1
I0502 19:38:31.274770 12742 net.cpp:151] Top shape: 20 64 20 20 (512000)
I0502 19:38:31.274773 12742 net.cpp:159] Memory required for data: 2080080
I0502 19:38:31.274785 12742 layer_factory.hpp:77] Creating layer relu1
I0502 19:38:31.274794 12742 net.cpp:94] Creating Layer relu1
I0502 19:38:31.274798 12742 net.cpp:435] relu1 <- conv1
I0502 19:38:31.274803 12742 net.cpp:396] relu1 -> conv1 (in-place)
I0502 19:38:31.274819 12742 net.cpp:144] Setting up relu1
I0502 19:38:31.274826 12742 net.cpp:151] Top shape: 20 64 20 20 (512000)
I0502 19:38:31.274828 12742 net.cpp:159] Memory required for data: 4128080
I0502 19:38:31.274832 12742 layer_factory.hpp:77] Creating layer conv2
I0502 19:38:31.274842 12742 net.cpp:94] Creating Layer conv2
I0502 19:38:31.274844 12742 net.cpp:435] conv2 <- conv1
I0502 19:38:31.274849 12742 net.cpp:409] conv2 -> conv2
I0502 19:38:31.286303 12742 net.cpp:144] Setting up conv2
I0502 19:38:31.286329 12742 net.cpp:151] Top shape: 20 64 20 20 (512000)
I0502 19:38:31.286339 12742 net.cpp:159] Memory required for data: 6176080
I0502 19:38:31.286353 12742 layer_factory.hpp:77] Creating layer relu2
I0502 19:38:31.286366 12742 net.cpp:94] Creating Layer relu2
I0502 19:38:31.286375 12742 net.cpp:435] relu2 <- conv2
I0502 19:38:31.286384 12742 net.cpp:396] relu2 -> conv2 (in-place)
I0502 19:38:31.286398 12742 net.cpp:144] Setting up relu2
I0502 19:38:31.286407 12742 net.cpp:151] Top shape: 20 64 20 20 (512000)
I0502 19:38:31.286414 12742 net.cpp:159] Memory required for data: 8224080
I0502 19:38:31.286420 12742 layer_factory.hpp:77] Creating layer pool2
I0502 19:38:31.286443 12742 net.cpp:94] Creating Layer pool2
I0502 19:38:31.286451 12742 net.cpp:435] pool2 <- conv2
I0502 19:38:31.286461 12742 net.cpp:409] pool2 -> pool2
I0502 19:38:31.286535 12742 net.cpp:144] Setting up pool2
I0502 19:38:31.286550 12742 net.cpp:151] Top shape: 20 64 10 10 (128000)
I0502 19:38:31.286556 12742 net.cpp:159] Memory required for data: 8736080
I0502 19:38:31.286563 12742 layer_factory.hpp:77] Creating layer conv3
I0502 19:38:31.286577 12742 net.cpp:94] Creating Layer conv3
I0502 19:38:31.286584 12742 net.cpp:435] conv3 <- pool2
I0502 19:38:31.286612 12742 net.cpp:409] conv3 -> conv3
I0502 19:38:31.292608 12742 net.cpp:144] Setting up conv3
I0502 19:38:31.292623 12742 net.cpp:151] Top shape: 20 64 10 10 (128000)
I0502 19:38:31.292626 12742 net.cpp:159] Memory required for data: 9248080
I0502 19:38:31.292635 12742 layer_factory.hpp:77] Creating layer relu3
I0502 19:38:31.292642 12742 net.cpp:94] Creating Layer relu3
I0502 19:38:31.292646 12742 net.cpp:435] relu3 <- conv3
I0502 19:38:31.292651 12742 net.cpp:396] relu3 -> conv3 (in-place)
I0502 19:38:31.292659 12742 net.cpp:144] Setting up relu3
I0502 19:38:31.292664 12742 net.cpp:151] Top shape: 20 64 10 10 (128000)
I0502 19:38:31.292667 12742 net.cpp:159] Memory required for data: 9760080
I0502 19:38:31.292670 12742 layer_factory.hpp:77] Creating layer conv4
I0502 19:38:31.292680 12742 net.cpp:94] Creating Layer conv4
I0502 19:38:31.292683 12742 net.cpp:435] conv4 <- conv3
I0502 19:38:31.292688 12742 net.cpp:409] conv4 -> conv4
I0502 19:38:31.299351 12742 net.cpp:144] Setting up conv4
I0502 19:38:31.299365 12742 net.cpp:151] Top shape: 20 64 10 10 (128000)
I0502 19:38:31.299371 12742 net.cpp:159] Memory required for data: 10272080
I0502 19:38:31.299376 12742 layer_factory.hpp:77] Creating layer relu4
I0502 19:38:31.299383 12742 net.cpp:94] Creating Layer relu4
I0502 19:38:31.299387 12742 net.cpp:435] relu4 <- conv4
I0502 19:38:31.299392 12742 net.cpp:396] relu4 -> conv4 (in-place)
I0502 19:38:31.299401 12742 net.cpp:144] Setting up relu4
I0502 19:38:31.299405 12742 net.cpp:151] Top shape: 20 64 10 10 (128000)
I0502 19:38:31.299408 12742 net.cpp:159] Memory required for data: 10784080
I0502 19:38:31.299412 12742 layer_factory.hpp:77] Creating layer conv5
I0502 19:38:31.299420 12742 net.cpp:94] Creating Layer conv5
I0502 19:38:31.299424 12742 net.cpp:435] conv5 <- conv4
I0502 19:38:31.299430 12742 net.cpp:409] conv5 -> conv5
I0502 19:38:31.305809 12742 net.cpp:144] Setting up conv5
I0502 19:38:31.305825 12742 net.cpp:151] Top shape: 20 64 10 10 (128000)
I0502 19:38:31.305830 12742 net.cpp:159] Memory required for data: 11296080
I0502 19:38:31.305840 12742 layer_factory.hpp:77] Creating layer relu5
I0502 19:38:31.305845 12742 net.cpp:94] Creating Layer relu5
I0502 19:38:31.305850 12742 net.cpp:435] relu5 <- conv5
I0502 19:38:31.305855 12742 net.cpp:396] relu5 -> conv5 (in-place)
I0502 19:38:31.305862 12742 net.cpp:144] Setting up relu5
I0502 19:38:31.305867 12742 net.cpp:151] Top shape: 20 64 10 10 (128000)
I0502 19:38:31.305871 12742 net.cpp:159] Memory required for data: 11808080
I0502 19:38:31.305874 12742 layer_factory.hpp:77] Creating layer pool5
I0502 19:38:31.305881 12742 net.cpp:94] Creating Layer pool5
I0502 19:38:31.305884 12742 net.cpp:435] pool5 <- conv5
I0502 19:38:31.305889 12742 net.cpp:409] pool5 -> pool5
I0502 19:38:31.305923 12742 net.cpp:144] Setting up pool5
I0502 19:38:31.305932 12742 net.cpp:151] Top shape: 20 64 5 5 (32000)
I0502 19:38:31.305935 12742 net.cpp:159] Memory required for data: 11936080
I0502 19:38:31.305938 12742 layer_factory.hpp:77] Creating layer ip1
I0502 19:38:31.305949 12742 net.cpp:94] Creating Layer ip1
I0502 19:38:31.305953 12742 net.cpp:435] ip1 <- pool5
I0502 19:38:31.305959 12742 net.cpp:409] ip1 -> ip1
I0502 19:38:31.308580 12742 net.cpp:144] Setting up ip1
I0502 19:38:31.308589 12742 net.cpp:151] Top shape: 20 64 (1280)
I0502 19:38:31.308593 12742 net.cpp:159] Memory required for data: 11941200
I0502 19:38:31.308599 12742 layer_factory.hpp:77] Creating layer ip2
I0502 19:38:31.308610 12742 net.cpp:94] Creating Layer ip2
I0502 19:38:31.308615 12742 net.cpp:435] ip2 <- ip1
I0502 19:38:31.308620 12742 net.cpp:409] ip2 -> ip2
I0502 19:38:31.308794 12742 net.cpp:144] Setting up ip2
I0502 19:38:31.308800 12742 net.cpp:151] Top shape: 20 64 (1280)
I0502 19:38:31.308804 12742 net.cpp:159] Memory required for data: 11946320
I0502 19:38:31.308810 12742 layer_factory.hpp:77] Creating layer ip3
I0502 19:38:31.308816 12742 net.cpp:94] Creating Layer ip3
I0502 19:38:31.308820 12742 net.cpp:435] ip3 <- ip2
I0502 19:38:31.308825 12742 net.cpp:409] ip3 -> ip3
I0502 19:38:31.308979 12742 net.cpp:144] Setting up ip3
I0502 19:38:31.308986 12742 net.cpp:151] Top shape: 20 50 (1000)
I0502 19:38:31.308990 12742 net.cpp:159] Memory required for data: 11950320
I0502 19:38:31.308995 12742 layer_factory.hpp:77] Creating layer loss
I0502 19:38:31.309002 12742 net.cpp:94] Creating Layer loss
I0502 19:38:31.309006 12742 net.cpp:435] loss <- ip3
I0502 19:38:31.309010 12742 net.cpp:435] loss <- label
I0502 19:38:31.309016 12742 net.cpp:409] loss -> loss
I0502 19:38:31.309031 12742 layer_factory.hpp:77] Creating layer loss
…
I0502 19:38:31.309537 12742 solver.cpp:181] Creating test net (#0) specified by net file: ./protocol/dis_5_400_dimension.protocol_distribution
I0502 19:38:31.309564 12742 net.cpp:323] The NetState phase (1) differed from the phase (0) specified by a rule in layer parameters
I0502 19:38:31.309670 12742 net.cpp:52] Initializing net from parameters: 
state {
  phase: TEST
}
layer {
  name: "intercept"
  type: "HDF5Data"
  top: "data"
  top: "label"
  include {
    phase: TEST
  }
  hdf5_data_param {
    source: "/home/purduethu/scratch/radon/d/deng106/CNNStatisticalModel/distributions/input/5_distributions_400_sample_size_test-distributions-path.txt"
    batch_size: 20
  }
}
layer {
  name: "conv1"
  type: "Convolution"
  bottom: "data"
  top: "conv1"
  param {
    lr_mult: 1
  }
  param {
    lr_mult: 2
  }
  convolution_param {
    num_output: 64
    pad: 2
    kernel_size: 5
    stride: 1
    weight_filler {
      type: "gaussian"
      std: 0.0001
    }
    bias_filler {
      type: "constant"
    }
  }
}
layer {
  name: "relu1"
  type: "ReLU"
  bottom: "conv1"
  top: "conv1"
}
layer {
  name: "conv2"
  type: "Convolution"
  bottom: "conv1"
  top: "conv2"
  param {
    lr_mult: 1
  }
  param {
    lr_mult: 2
  }
  convolution_param {
    num_output: 64
    pad: 2
    kernel_size: 5
    stride: 1
    weight_filler {
      type: "gaussian"
      std: 0.01
    }
    bias_filler {
      type: "constant"
    }
  }
}
layer {
  name: "relu2"
  type: "ReLU"
  bottom: "conv2"
  top: "conv2"
}
layer {
  name: "pool2"
  type: "Pooling"
  bottom: "conv2"
  top: "pool2"
  pooling_param {
    pool: MAX
    kernel_size: 3
    stride: 2
  }
}
layer {
  name: "conv3"
  type: "Convolution"
  bottom: "pool2"
  top: "conv3"
  param {
    lr_mult: 1
  }
  param {
    lr_mult: 2
  }
  convolution_param {
    num_output: 64
    pad: 2
    kernel_size: 5
    stride: 1
    weight_filler {
      type: "gaussian"
      std: 0.01
    }
    bias_filler {
      type: "constant"
    }
  }
}
layer {
  name: "relu3"
  type: "ReLU"
  bottom: "conv3"
  top: "conv3"
}
layer {
  name: "conv4"
  type: "Convolution"
  bottom: "conv3"
  top: "conv4"
  param {
    lr_mult: 1
  }
  param {
    lr_mult: 2
  }
  convolution_param {
    num_output: 64
    pad: 2
    kernel_size: 5
    stride: 1
    weight_filler {
      type: "gaussian"
      std: 0.01
    }
    bias_filler {
      type: "constant"
    }
  }
}
layer {
  name: "relu4"
  type: "ReLU"
  bottom: "conv4"
  top: "conv4"
}
layer {
  name: "conv5"
  type: "Convolution"
  bottom: "conv4"
  top: "conv5"
  param {
    lr_mult: 1
  }
  param {
    lr_mult: 2
  }
  convolution_param {
    num_output: 64
    pad: 2
    kernel_size: 5
    stride: 1
    weight_filler {
      type: "gaussian"
      std: 0.01
    }
    bias_filler {
      type: "constant"
    }
  }
}
layer {
  name: "relu5"
  type: "ReLU"
  bottom: "conv5"
  top: "conv5"
}
layer {
  name: "pool5"
  type: "Pooling"
  bottom: "conv5"
  top: "pool5"
  pooling_param {
    pool: AVE
    kernel_size: 3
    stride: 2
  }
}
layer {
  name: "ip1"
  type: "InnerProduct"
  bottom: "pool5"
  top: "ip1"
  param {
    lr_mult: 1
  }
  param {
    lr_mult: 2
  }
  inner_product_param {
    num_output: 64
    weight_filler {
      type: "gaussian"
      std: 0.1
    }
    bias_filler {
      type: "constant"
    }
  }
}
layer {
  name: "ip2"
  type: "InnerProduct"
  bottom: "ip1"
  top: "ip2"
  param {
    lr_mult: 1
  }
  param {
    lr_mult: 2
  }
  inner_product_param {
    num_output: 64
    weight_filler {
      type: "gaussian"
      std: 0.1
    }
    bias_filler {
      type: "constant"
    }
  }
}
layer {
  name: "ip3"
  type: "InnerProduct"
  bottom: "ip2"
  top: "ip3"
  param {
    lr_mult: 1
  }
  param {
    lr_mult: 2
  }
  inner_product_param {
    num_output: 50
    weight_filler {
      type: "gaussian"
      std: 0.1
    }
    bias_filler {
      type: "constant"
    }
  }
}
layer {
  name: "accuracy"
  type: "Accuracy"
  bottom: "ip3"
  bottom: "label"
  top: "accuracy"
  include {
    phase: TEST
  }
}
layer {
  name: "loss"
  type: "SoftmaxWithLoss"
  bottom: "ip3"
  bottom: "label"
  top: "loss"
}
I0502 19:38:31.309744 12742 layer_factory.hpp:77] Creating layer intercept
I0502 19:38:31.309753 12742 net.cpp:94] Creating Layer intercept
I0502 19:38:31.309758 12742 net.cpp:409] intercept -> data
I0502 19:38:31.309765 12742 net.cpp:409] intercept -> label
I0502 19:38:31.309772 12742 hdf5_data_layer.cpp:79] Loading list of HDF5 filenames from: /home/purduethu/scratch/radon/d/deng106/CNNStatisticalModel/distributions/input/5_distributions_400_sample_size_test-distributions-path.txt
I0502 19:38:31.309794 12742 hdf5_data_layer.cpp:93] Number of HDF5 files: 1
I0502 19:38:31.326640 12742 net.cpp:144] Setting up intercept
I0502 19:38:31.326670 12742 net.cpp:151] Top shape: 20 1 20 20 (8000)
I0502 19:38:31.326676 12742 net.cpp:151] Top shape: 20 (20)
I0502 19:38:31.326680 12742 net.cpp:159] Memory required for data: 32080
I0502 19:38:31.326686 12742 layer_factory.hpp:77] Creating layer label_intercept_1_split
I0502 19:38:31.326704 12742 net.cpp:94] Creating Layer label_intercept_1_split
I0502 19:38:31.326709 12742 net.cpp:435] label_intercept_1_split <- label
I0502 19:38:31.326715 12742 net.cpp:409] label_intercept_1_split -> label_intercept_1_split_0
I0502 19:38:31.326723 12742 net.cpp:409] label_intercept_1_split -> label_intercept_1_split_1
I0502 19:38:31.326757 12742 net.cpp:144] Setting up label_intercept_1_split
I0502 19:38:31.326764 12742 net.cpp:151] Top shape: 20 (20)
I0502 19:38:31.326768 12742 net.cpp:151] Top shape: 20 (20)
I0502 19:38:31.326771 12742 net.cpp:159] Memory required for data: 32240
I0502 19:38:31.326776 12742 layer_factory.hpp:77] Creating layer conv1
I0502 19:38:31.326787 12742 net.cpp:94] Creating Layer conv1
I0502 19:38:31.326792 12742 net.cpp:435] conv1 <- data
I0502 19:38:31.326797 12742 net.cpp:409] conv1 -> conv1
I0502 19:38:31.328161 12742 net.cpp:144] Setting up conv1
I0502 19:38:31.328182 12742 net.cpp:151] Top shape: 20 64 20 20 (512000)
I0502 19:38:31.328187 12742 net.cpp:159] Memory required for data: 2080240
I0502 19:38:31.328197 12742 layer_factory.hpp:77] Creating layer relu1
I0502 19:38:31.328204 12742 net.cpp:94] Creating Layer relu1
I0502 19:38:31.328208 12742 net.cpp:435] relu1 <- conv1
I0502 19:38:31.328213 12742 net.cpp:396] relu1 -> conv1 (in-place)
I0502 19:38:31.328222 12742 net.cpp:144] Setting up relu1
I0502 19:38:31.328227 12742 net.cpp:151] Top shape: 20 64 20 20 (512000)
I0502 19:38:31.328230 12742 net.cpp:159] Memory required for data: 4128240
I0502 19:38:31.328233 12742 layer_factory.hpp:77] Creating layer conv2
I0502 19:38:31.328243 12742 net.cpp:94] Creating Layer conv2
I0502 19:38:31.328245 12742 net.cpp:435] conv2 <- conv1
I0502 19:38:31.328251 12742 net.cpp:409] conv2 -> conv2
I0502 19:38:31.333812 12742 net.cpp:144] Setting up conv2
I0502 19:38:31.333838 12742 net.cpp:151] Top shape: 20 64 20 20 (512000)
I0502 19:38:31.333847 12742 net.cpp:159] Memory required for data: 6176240
I0502 19:38:31.333863 12742 layer_factory.hpp:77] Creating layer relu2
I0502 19:38:31.333874 12742 net.cpp:94] Creating Layer relu2
I0502 19:38:31.333881 12742 net.cpp:435] relu2 <- conv2
I0502 19:38:31.333891 12742 net.cpp:396] relu2 -> conv2 (in-place)
I0502 19:38:31.333904 12742 net.cpp:144] Setting up relu2
I0502 19:38:31.333914 12742 net.cpp:151] Top shape: 20 64 20 20 (512000)
I0502 19:38:31.333920 12742 net.cpp:159] Memory required for data: 8224240
I0502 19:38:31.333927 12742 layer_factory.hpp:77] Creating layer pool2
I0502 19:38:31.333937 12742 net.cpp:94] Creating Layer pool2
I0502 19:38:31.333945 12742 net.cpp:435] pool2 <- conv2
I0502 19:38:31.333953 12742 net.cpp:409] pool2 -> pool2
I0502 19:38:31.334013 12742 net.cpp:144] Setting up pool2
I0502 19:38:31.334025 12742 net.cpp:151] Top shape: 20 64 10 10 (128000)
I0502 19:38:31.334033 12742 net.cpp:159] Memory required for data: 8736240
I0502 19:38:31.334038 12742 layer_factory.hpp:77] Creating layer conv3
I0502 19:38:31.334053 12742 net.cpp:94] Creating Layer conv3
I0502 19:38:31.334060 12742 net.cpp:435] conv3 <- pool2
I0502 19:38:31.334070 12742 net.cpp:409] conv3 -> conv3
I0502 19:38:31.338328 12742 net.cpp:144] Setting up conv3
I0502 19:38:31.338343 12742 net.cpp:151] Top shape: 20 64 10 10 (128000)
I0502 19:38:31.338347 12742 net.cpp:159] Memory required for data: 9248240
I0502 19:38:31.338356 12742 layer_factory.hpp:77] Creating layer relu3
I0502 19:38:31.338362 12742 net.cpp:94] Creating Layer relu3
I0502 19:38:31.338366 12742 net.cpp:435] relu3 <- conv3
I0502 19:38:31.338371 12742 net.cpp:396] relu3 -> conv3 (in-place)
I0502 19:38:31.338379 12742 net.cpp:144] Setting up relu3
I0502 19:38:31.338384 12742 net.cpp:151] Top shape: 20 64 10 10 (128000)
I0502 19:38:31.338387 12742 net.cpp:159] Memory required for data: 9760240
I0502 19:38:31.338390 12742 layer_factory.hpp:77] Creating layer conv4
I0502 19:38:31.338398 12742 net.cpp:94] Creating Layer conv4
I0502 19:38:31.338402 12742 net.cpp:435] conv4 <- conv3
I0502 19:38:31.338407 12742 net.cpp:409] conv4 -> conv4
I0502 19:38:31.342241 12742 net.cpp:144] Setting up conv4
I0502 19:38:31.342254 12742 net.cpp:151] Top shape: 20 64 10 10 (128000)
I0502 19:38:31.342258 12742 net.cpp:159] Memory required for data: 10272240
I0502 19:38:31.342264 12742 layer_factory.hpp:77] Creating layer relu4
I0502 19:38:31.342270 12742 net.cpp:94] Creating Layer relu4
I0502 19:38:31.342278 12742 net.cpp:435] relu4 <- conv4
I0502 19:38:31.342283 12742 net.cpp:396] relu4 -> conv4 (in-place)
I0502 19:38:31.342290 12742 net.cpp:144] Setting up relu4
I0502 19:38:31.342295 12742 net.cpp:151] Top shape: 20 64 10 10 (128000)
I0502 19:38:31.342299 12742 net.cpp:159] Memory required for data: 10784240
I0502 19:38:31.342303 12742 layer_factory.hpp:77] Creating layer conv5
I0502 19:38:31.342310 12742 net.cpp:94] Creating Layer conv5
I0502 19:38:31.342314 12742 net.cpp:435] conv5 <- conv4
I0502 19:38:31.342319 12742 net.cpp:409] conv5 -> conv5
I0502 19:38:31.346228 12742 net.cpp:144] Setting up conv5
I0502 19:38:31.346248 12742 net.cpp:151] Top shape: 20 64 10 10 (128000)
I0502 19:38:31.346253 12742 net.cpp:159] Memory required for data: 11296240
I0502 19:38:31.346262 12742 layer_factory.hpp:77] Creating layer relu5
I0502 19:38:31.346268 12742 net.cpp:94] Creating Layer relu5
I0502 19:38:31.346272 12742 net.cpp:435] relu5 <- conv5
I0502 19:38:31.346277 12742 net.cpp:396] relu5 -> conv5 (in-place)
I0502 19:38:31.346284 12742 net.cpp:144] Setting up relu5
I0502 19:38:31.346289 12742 net.cpp:151] Top shape: 20 64 10 10 (128000)
I0502 19:38:31.346292 12742 net.cpp:159] Memory required for data: 11808240
I0502 19:38:31.346297 12742 layer_factory.hpp:77] Creating layer pool5
I0502 19:38:31.346302 12742 net.cpp:94] Creating Layer pool5
I0502 19:38:31.346304 12742 net.cpp:435] pool5 <- conv5
I0502 19:38:31.346309 12742 net.cpp:409] pool5 -> pool5
I0502 19:38:31.346334 12742 net.cpp:144] Setting up pool5
I0502 19:38:31.346340 12742 net.cpp:151] Top shape: 20 64 5 5 (32000)
I0502 19:38:31.346344 12742 net.cpp:159] Memory required for data: 11936240
I0502 19:38:31.346348 12742 layer_factory.hpp:77] Creating layer ip1
I0502 19:38:31.346355 12742 net.cpp:94] Creating Layer ip1
I0502 19:38:31.346359 12742 net.cpp:435] ip1 <- pool5
I0502 19:38:31.346364 12742 net.cpp:409] ip1 -> ip1
I0502 19:38:31.348881 12742 net.cpp:144] Setting up ip1
I0502 19:38:31.348888 12742 net.cpp:151] Top shape: 20 64 (1280)
I0502 19:38:31.348892 12742 net.cpp:159] Memory required for data: 11941360
I0502 19:38:31.348898 12742 layer_factory.hpp:77] Creating layer ip2
I0502 19:38:31.348904 12742 net.cpp:94] Creating Layer ip2
I0502 19:38:31.348908 12742 net.cpp:435] ip2 <- ip1
I0502 19:38:31.348913 12742 net.cpp:409] ip2 -> ip2
I0502 19:38:31.349082 12742 net.cpp:144] Setting up ip2
I0502 19:38:31.349088 12742 net.cpp:151] Top shape: 20 64 (1280)
I0502 19:38:31.349092 12742 net.cpp:159] Memory required for data: 11946480
I0502 19:38:31.349097 12742 layer_factory.hpp:77] Creating layer ip3
I0502 19:38:31.349104 12742 net.cpp:94] Creating Layer ip3
I0502 19:38:31.349108 12742 net.cpp:435] ip3 <- ip2
I0502 19:38:31.349113 12742 net.cpp:409] ip3 -> ip3
I0502 19:38:31.349259 12742 net.cpp:144] Setting up ip3
I0502 19:38:31.349265 12742 net.cpp:151] Top shape: 20 50 (1000)
I0502 19:38:31.349269 12742 net.cpp:159] Memory required for data: 11950480
I0502 19:38:31.349274 12742 layer_factory.hpp:77] Creating layer ip3_ip3_0_split
I0502 19:38:31.349279 12742 net.cpp:94] Creating Layer ip3_ip3_0_split
I0502 19:38:31.349283 12742 net.cpp:435] ip3_ip3_0_split <- ip3
I0502 19:38:31.349287 12742 net.cpp:409] ip3_ip3_0_split -> ip3_ip3_0_split_0
I0502 19:38:31.349293 12742 net.cpp:409] ip3_ip3_0_split -> ip3_ip3_0_split_1
I0502 19:38:31.349318 12742 net.cpp:144] Setting up ip3_ip3_0_split
I0502 19:38:31.349323 12742 net.cpp:151] Top shape: 20 50 (1000)
I0502 19:38:31.349326 12742 net.cpp:151] Top shape: 20 50 (1000)
I0502 19:38:31.349329 12742 net.cpp:159] Memory required for data: 11958480
I0502 19:38:31.349334 12742 layer_factory.hpp:77] Creating layer accuracy
I0502 19:38:31.349339 12742 net.cpp:94] Creating Layer accuracy
I0502 19:38:31.349342 12742 net.cpp:435] accuracy <- ip3_ip3_0_split_0
I0502 19:38:31.349347 12742 net.cpp:435] accuracy <- label_intercept_1_split_0
I0502 19:38:31.349351 12742 net.cpp:409] accuracy -> accuracy
…
