…
I0502 09:58:35.570911 22125 net.cpp:323] The NetState phase (0) differed from the phase (1) specified by a rule in layer intercept
I0502 09:58:35.570927 22125 net.cpp:323] The NetState phase (0) differed from the phase (1) specified by a rule in layer loss
I0502 09:58:35.571007 22125 net.cpp:52] Initializing net from parameters: 
state {
  phase: TRAIN
}
layer {
  name: "parameters"
  type: "HDF5Data"
  top: "data"
  top: "label"
  include {
    phase: TRAIN
  }
  hdf5_data_param {
    source: "/home/purduethu/scratch/radon/d/deng106/CNNStatisticalModel/distributions/input/50_distributions_100_sample_size_train-parameters-path.txt"
    batch_size: 20
  }
}
layer {
  name: "conv1"
  type: "Convolution"
  bottom: "data"
  top: "conv1"
  param {
    lr_mult: 1
  }
  param {
    lr_mult: 2
  }
  convolution_param {
    num_output: 64
    pad: 2
    kernel_size: 5
    stride: 1
    weight_filler {
      type: "gaussian"
      std: 0.0001
    }
    bias_filler {
      type: "constant"
    }
  }
}
layer {
  name: "relu1"
  type: "ReLU"
  bottom: "conv1"
  top: "conv1"
}
layer {
  name: "conv2"
  type: "Convolution"
  bottom: "conv1"
  top: "conv2"
  param {
    lr_mult: 1
  }
  param {
    lr_mult: 2
  }
  convolution_param {
    num_output: 64
    pad: 2
    kernel_size: 5
    stride: 1
    weight_filler {
      type: "gaussian"
      std: 0.01
    }
    bias_filler {
      type: "constant"
    }
  }
}
layer {
  name: "relu2"
  type: "ReLU"
  bottom: "conv2"
  top: "conv2"
}
layer {
  name: "pool2"
  type: "Pooling"
  bottom: "conv2"
  top: "pool2"
  pooling_param {
    pool: MAX
    kernel_size: 3
    stride: 2
  }
}
layer {
  name: "conv3"
  type: "Convolution"
  bottom: "pool2"
  top: "conv3"
  param {
    lr_mult: 1
  }
  param {
    lr_mult: 2
  }
  convolution_param {
    num_output: 64
    pad: 2
    kernel_size: 5
    stride: 1
    weight_filler {
      type: "gaussian"
      std: 0.01
    }
    bias_filler {
      type: "constant"
    }
  }
}
layer {
  name: "relu3"
  type: "ReLU"
  bottom: "conv3"
  top: "conv3"
}
layer {
  name: "conv4"
  type: "Convolution"
  bottom: "conv3"
  top: "conv4"
  param {
    lr_mult: 1
  }
  param {
    lr_mult: 2
  }
  convolution_param {
    num_output: 64
    pad: 2
    kernel_size: 5
    stride: 1
    weight_filler {
      type: "gaussian"
      std: 0.01
    }
    bias_filler {
      type: "constant"
    }
  }
}
layer {
  name: "relu4"
  type: "ReLU"
  bottom: "conv4"
  top: "conv4"
}
layer {
  name: "conv5"
  type: "Convolution"
  bottom: "conv4"
  top: "conv5"
  param {
    lr_mult: 1
  }
  param {
    lr_mult: 2
  }
  convolution_param {
    num_output: 64
    pad: 2
    kernel_size: 5
    stride: 1
    weight_filler {
      type: "gaussian"
      std: 0.01
    }
    bias_filler {
      type: "constant"
    }
  }
}
layer {
  name: "relu5"
  type: "ReLU"
  bottom: "conv5"
  top: "conv5"
}
layer {
  name: "pool5"
  type: "Pooling"
  bottom: "conv5"
  top: "pool5"
  pooling_param {
    pool: AVE
    kernel_size: 3
    stride: 2
  }
}
layer {
  name: "ip1"
  type: "InnerProduct"
  bottom: "pool5"
  top: "ip1"
  param {
    lr_mult: 1
  }
  param {
    lr_mult: 2
  }
  inner_product_param {
    num_output: 64
    weight_filler {
      type: "gaussian"
      std: 0.1
    }
    bias_filler {
      type: "constant"
    }
  }
}
layer {
  name: "ip2"
  type: "InnerProduct"
  bottom: "ip1"
  top: "ip2"
  param {
    lr_mult: 1
  }
  param {
    lr_mult: 2
  }
  inner_product_param {
    num_output: 64
    weight_filler {
      type: "gaussian"
      std: 0.1
    }
    bias_filler {
      type: "constant"
    }
  }
}
layer {
  name: "ip3"
  type: "InnerProduct"
  bottom: "ip2"
  top: "ip3"
  param {
    lr_mult: 1
  }
  param {
    lr_mult: 2
  }
  inner_product_param {
    num_output: 1
    weight_filler {
      type: "gaussian"
      std: 0.1
    }
    bias_filler {
      type: "constant"
    }
  }
}
layer {
  name: "loss"
  type: "HuberLoss"
  bottom: "ip3"
  bottom: "label"
  top: "loss"
  include {
    phase: TRAIN
  }
}
I0502 09:58:35.571063 22125 layer_factory.hpp:77] Creating layer parameters
I0502 09:58:35.571075 22125 net.cpp:94] Creating Layer parameters
I0502 09:58:35.571080 22125 net.cpp:409] parameters -> data
I0502 09:58:35.571089 22125 net.cpp:409] parameters -> label
I0502 09:58:35.571096 22125 hdf5_data_layer.cpp:79] Loading list of HDF5 filenames from: /home/purduethu/scratch/radon/d/deng106/CNNStatisticalModel/distributions/input/50_distributions_100_sample_size_train-parameters-path.txt
I0502 09:58:35.571112 22125 hdf5_data_layer.cpp:93] Number of HDF5 files: 1
I0502 09:58:35.571686 22125 hdf5.cpp:32] Datatype class: H5T_FLOAT
I0502 09:58:35.739044 22125 net.cpp:144] Setting up parameters
I0502 09:58:35.739078 22125 net.cpp:151] Top shape: 20 1 10 10 (2000)
I0502 09:58:35.739082 22125 net.cpp:151] Top shape: 20 (20)
I0502 09:58:35.739085 22125 net.cpp:159] Memory required for data: 8080
I0502 09:58:35.739091 22125 layer_factory.hpp:77] Creating layer conv1
I0502 09:58:35.739114 22125 net.cpp:94] Creating Layer conv1
I0502 09:58:35.739118 22125 net.cpp:435] conv1 <- data
I0502 09:58:35.739125 22125 net.cpp:409] conv1 -> conv1
I0502 09:58:35.743796 22125 net.cpp:144] Setting up conv1
I0502 09:58:35.743839 22125 net.cpp:151] Top shape: 20 64 10 10 (128000)
I0502 09:58:35.743849 22125 net.cpp:159] Memory required for data: 520080
I0502 09:58:35.743873 22125 layer_factory.hpp:77] Creating layer relu1
I0502 09:58:35.743891 22125 net.cpp:94] Creating Layer relu1
I0502 09:58:35.743901 22125 net.cpp:435] relu1 <- conv1
I0502 09:58:35.743913 22125 net.cpp:396] relu1 -> conv1 (in-place)
I0502 09:58:35.743939 22125 net.cpp:144] Setting up relu1
I0502 09:58:35.743952 22125 net.cpp:151] Top shape: 20 64 10 10 (128000)
I0502 09:58:35.743960 22125 net.cpp:159] Memory required for data: 1032080
I0502 09:58:35.743968 22125 layer_factory.hpp:77] Creating layer conv2
I0502 09:58:35.743988 22125 net.cpp:94] Creating Layer conv2
I0502 09:58:35.743998 22125 net.cpp:435] conv2 <- conv1
I0502 09:58:35.744010 22125 net.cpp:409] conv2 -> conv2
I0502 09:58:35.756664 22125 net.cpp:144] Setting up conv2
I0502 09:58:35.756697 22125 net.cpp:151] Top shape: 20 64 10 10 (128000)
I0502 09:58:35.756707 22125 net.cpp:159] Memory required for data: 1544080
I0502 09:58:35.756726 22125 layer_factory.hpp:77] Creating layer relu2
I0502 09:58:35.756743 22125 net.cpp:94] Creating Layer relu2
I0502 09:58:35.756752 22125 net.cpp:435] relu2 <- conv2
I0502 09:58:35.756764 22125 net.cpp:396] relu2 -> conv2 (in-place)
I0502 09:58:35.756783 22125 net.cpp:144] Setting up relu2
I0502 09:58:35.756794 22125 net.cpp:151] Top shape: 20 64 10 10 (128000)
I0502 09:58:35.756803 22125 net.cpp:159] Memory required for data: 2056080
I0502 09:58:35.756809 22125 layer_factory.hpp:77] Creating layer pool2
I0502 09:58:35.756834 22125 net.cpp:94] Creating Layer pool2
I0502 09:58:35.756844 22125 net.cpp:435] pool2 <- conv2
I0502 09:58:35.756855 22125 net.cpp:409] pool2 -> pool2
I0502 09:58:35.756978 22125 net.cpp:144] Setting up pool2
I0502 09:58:35.756994 22125 net.cpp:151] Top shape: 20 64 5 5 (32000)
I0502 09:58:35.757004 22125 net.cpp:159] Memory required for data: 2184080
I0502 09:58:35.757011 22125 layer_factory.hpp:77] Creating layer conv3
I0502 09:58:35.757040 22125 net.cpp:94] Creating Layer conv3
I0502 09:58:35.757050 22125 net.cpp:435] conv3 <- pool2
I0502 09:58:35.757061 22125 net.cpp:409] conv3 -> conv3
I0502 09:58:35.767014 22125 net.cpp:144] Setting up conv3
I0502 09:58:35.767045 22125 net.cpp:151] Top shape: 20 64 5 5 (32000)
I0502 09:58:35.767055 22125 net.cpp:159] Memory required for data: 2312080
I0502 09:58:35.767072 22125 layer_factory.hpp:77] Creating layer relu3
I0502 09:58:35.767086 22125 net.cpp:94] Creating Layer relu3
I0502 09:58:35.767094 22125 net.cpp:435] relu3 <- conv3
I0502 09:58:35.767105 22125 net.cpp:396] relu3 -> conv3 (in-place)
I0502 09:58:35.767122 22125 net.cpp:144] Setting up relu3
I0502 09:58:35.767132 22125 net.cpp:151] Top shape: 20 64 5 5 (32000)
I0502 09:58:35.767139 22125 net.cpp:159] Memory required for data: 2440080
I0502 09:58:35.767146 22125 layer_factory.hpp:77] Creating layer conv4
I0502 09:58:35.767165 22125 net.cpp:94] Creating Layer conv4
I0502 09:58:35.767174 22125 net.cpp:435] conv4 <- conv3
I0502 09:58:35.767185 22125 net.cpp:409] conv4 -> conv4
I0502 09:58:35.775719 22125 net.cpp:144] Setting up conv4
I0502 09:58:35.775746 22125 net.cpp:151] Top shape: 20 64 5 5 (32000)
I0502 09:58:35.775754 22125 net.cpp:159] Memory required for data: 2568080
I0502 09:58:35.775768 22125 layer_factory.hpp:77] Creating layer relu4
I0502 09:58:35.775780 22125 net.cpp:94] Creating Layer relu4
I0502 09:58:35.775789 22125 net.cpp:435] relu4 <- conv4
I0502 09:58:35.775799 22125 net.cpp:396] relu4 -> conv4 (in-place)
I0502 09:58:35.775813 22125 net.cpp:144] Setting up relu4
I0502 09:58:35.775823 22125 net.cpp:151] Top shape: 20 64 5 5 (32000)
I0502 09:58:35.775830 22125 net.cpp:159] Memory required for data: 2696080
I0502 09:58:35.775836 22125 layer_factory.hpp:77] Creating layer conv5
I0502 09:58:35.775852 22125 net.cpp:94] Creating Layer conv5
I0502 09:58:35.775861 22125 net.cpp:435] conv5 <- conv4
I0502 09:58:35.775871 22125 net.cpp:409] conv5 -> conv5
I0502 09:58:35.785061 22125 net.cpp:144] Setting up conv5
I0502 09:58:35.785087 22125 net.cpp:151] Top shape: 20 64 5 5 (32000)
I0502 09:58:35.785095 22125 net.cpp:159] Memory required for data: 2824080
I0502 09:58:35.785114 22125 layer_factory.hpp:77] Creating layer relu5
I0502 09:58:35.785125 22125 net.cpp:94] Creating Layer relu5
I0502 09:58:35.785133 22125 net.cpp:435] relu5 <- conv5
I0502 09:58:35.785142 22125 net.cpp:396] relu5 -> conv5 (in-place)
I0502 09:58:35.785156 22125 net.cpp:144] Setting up relu5
I0502 09:58:35.785166 22125 net.cpp:151] Top shape: 20 64 5 5 (32000)
I0502 09:58:35.785172 22125 net.cpp:159] Memory required for data: 2952080
I0502 09:58:35.785178 22125 layer_factory.hpp:77] Creating layer pool5
I0502 09:58:35.785188 22125 net.cpp:94] Creating Layer pool5
I0502 09:58:35.785195 22125 net.cpp:435] pool5 <- conv5
I0502 09:58:35.785204 22125 net.cpp:409] pool5 -> pool5
I0502 09:58:35.785275 22125 net.cpp:144] Setting up pool5
I0502 09:58:35.785290 22125 net.cpp:151] Top shape: 20 64 2 2 (5120)
I0502 09:58:35.785296 22125 net.cpp:159] Memory required for data: 2972560
I0502 09:58:35.785303 22125 layer_factory.hpp:77] Creating layer ip1
I0502 09:58:35.785321 22125 net.cpp:94] Creating Layer ip1
I0502 09:58:35.785328 22125 net.cpp:435] ip1 <- pool5
I0502 09:58:35.785338 22125 net.cpp:409] ip1 -> ip1
I0502 09:58:35.787902 22125 net.cpp:144] Setting up ip1
I0502 09:58:35.787927 22125 net.cpp:151] Top shape: 20 64 (1280)
I0502 09:58:35.787935 22125 net.cpp:159] Memory required for data: 2977680
I0502 09:58:35.787948 22125 layer_factory.hpp:77] Creating layer ip2
I0502 09:58:35.787961 22125 net.cpp:94] Creating Layer ip2
I0502 09:58:35.787977 22125 net.cpp:435] ip2 <- ip1
I0502 09:58:35.787989 22125 net.cpp:409] ip2 -> ip2
I0502 09:58:35.788439 22125 net.cpp:144] Setting up ip2
I0502 09:58:35.788455 22125 net.cpp:151] Top shape: 20 64 (1280)
I0502 09:58:35.788461 22125 net.cpp:159] Memory required for data: 2982800
I0502 09:58:35.788472 22125 layer_factory.hpp:77] Creating layer ip3
I0502 09:58:35.788483 22125 net.cpp:94] Creating Layer ip3
I0502 09:58:35.788491 22125 net.cpp:435] ip3 <- ip2
I0502 09:58:35.788501 22125 net.cpp:409] ip3 -> ip3
I0502 09:58:35.788730 22125 net.cpp:144] Setting up ip3
I0502 09:58:35.788745 22125 net.cpp:151] Top shape: 20 1 (20)
I0502 09:58:35.788751 22125 net.cpp:159] Memory required for data: 2982880
I0502 09:58:35.788763 22125 layer_factory.hpp:77] Creating layer loss
I0502 09:58:35.788776 22125 net.cpp:94] Creating Layer loss
I0502 09:58:35.788784 22125 net.cpp:435] loss <- ip3
I0502 09:58:35.788791 22125 net.cpp:435] loss <- label
I0502 09:58:35.788801 22125 net.cpp:409] loss -> loss
I0502 09:58:35.788907 22125 net.cpp:144] Setting up loss
…
I0502 09:58:35.882489 22125 net.cpp:323] The NetState phase (0) differed from the phase (1) specified by a rule in layer intercept
I0502 09:58:35.882513 22125 net.cpp:323] The NetState phase (0) differed from the phase (1) specified by a rule in layer accuracy
I0502 09:58:35.882638 22125 net.cpp:52] Initializing net from parameters: 
state {
  phase: TRAIN
}
layer {
  name: "parameters"
  type: "HDF5Data"
  top: "data"
  top: "label"
  include {
    phase: TRAIN
  }
  hdf5_data_param {
    source: "/home/purduethu/scratch/radon/d/deng106/CNNStatisticalModel/distributions/input/50_distributions_100_sample_size_train-distributions-path.txt"
    batch_size: 20
  }
}
layer {
  name: "conv1"
  type: "Convolution"
  bottom: "data"
  top: "conv1"
  param {
    lr_mult: 1
  }
  param {
    lr_mult: 2
  }
  convolution_param {
    num_output: 64
    pad: 2
    kernel_size: 5
    stride: 1
    weight_filler {
      type: "gaussian"
      std: 0.0001
    }
    bias_filler {
      type: "constant"
    }
  }
}
layer {
  name: "relu1"
  type: "ReLU"
  bottom: "conv1"
  top: "conv1"
}
layer {
  name: "conv2"
  type: "Convolution"
  bottom: "conv1"
  top: "conv2"
  param {
    lr_mult: 1
  }
  param {
    lr_mult: 2
  }
  convolution_param {
    num_output: 64
    pad: 2
    kernel_size: 5
    stride: 1
    weight_filler {
      type: "gaussian"
      std: 0.01
    }
    bias_filler {
      type: "constant"
    }
  }
}
layer {
  name: "relu2"
  type: "ReLU"
  bottom: "conv2"
  top: "conv2"
}
layer {
  name: "pool2"
  type: "Pooling"
  bottom: "conv2"
  top: "pool2"
  pooling_param {
    pool: MAX
    kernel_size: 3
    stride: 2
  }
}
layer {
  name: "conv3"
  type: "Convolution"
  bottom: "pool2"
  top: "conv3"
  param {
    lr_mult: 1
  }
  param {
    lr_mult: 2
  }
  convolution_param {
    num_output: 64
    pad: 2
    kernel_size: 5
    stride: 1
    weight_filler {
      type: "gaussian"
      std: 0.01
    }
    bias_filler {
      type: "constant"
    }
  }
}
layer {
  name: "relu3"
  type: "ReLU"
  bottom: "conv3"
  top: "conv3"
}
layer {
  name: "conv4"
  type: "Convolution"
  bottom: "conv3"
  top: "conv4"
  param {
    lr_mult: 1
  }
  param {
    lr_mult: 2
  }
  convolution_param {
    num_output: 64
    pad: 2
    kernel_size: 5
    stride: 1
    weight_filler {
      type: "gaussian"
      std: 0.01
    }
    bias_filler {
      type: "constant"
    }
  }
}
layer {
  name: "relu4"
  type: "ReLU"
  bottom: "conv4"
  top: "conv4"
}
layer {
  name: "conv5"
  type: "Convolution"
  bottom: "conv4"
  top: "conv5"
  param {
    lr_mult: 1
  }
  param {
    lr_mult: 2
  }
  convolution_param {
    num_output: 64
    pad: 2
    kernel_size: 5
    stride: 1
    weight_filler {
      type: "gaussian"
      std: 0.01
    }
    bias_filler {
      type: "constant"
    }
  }
}
layer {
  name: "relu5"
  type: "ReLU"
  bottom: "conv5"
  top: "conv5"
}
layer {
  name: "pool5"
  type: "Pooling"
  bottom: "conv5"
  top: "pool5"
  pooling_param {
    pool: AVE
    kernel_size: 3
    stride: 2
  }
}
layer {
  name: "ip1"
  type: "InnerProduct"
  bottom: "pool5"
  top: "ip1"
  param {
    lr_mult: 1
  }
  param {
    lr_mult: 2
  }
  inner_product_param {
    num_output: 64
    weight_filler {
      type: "gaussian"
      std: 0.1
    }
    bias_filler {
      type: "constant"
    }
  }
}
layer {
  name: "ip2"
  type: "InnerProduct"
  bottom: "ip1"
  top: "ip2"
  param {
    lr_mult: 1
  }
  param {
    lr_mult: 2
  }
  inner_product_param {
    num_output: 64
    weight_filler {
      type: "gaussian"
      std: 0.1
    }
    bias_filler {
      type: "constant"
    }
  }
}
layer {
  name: "ip3"
  type: "InnerProduct"
  bottom: "ip2"
  top: "ip3"
  param {
    lr_mult: 1
  }
  param {
    lr_mult: 2
  }
  inner_product_param {
    num_output: 50
    weight_filler {
      type: "gaussian"
      std: 0.1
    }
    bias_filler {
      type: "constant"
    }
  }
}
layer {
  name: "loss"
  type: "SoftmaxWithLoss"
  bottom: "ip3"
  bottom: "label"
  top: "loss"
}
I0502 09:58:35.882716 22125 layer_factory.hpp:77] Creating layer parameters
I0502 09:58:35.882728 22125 net.cpp:94] Creating Layer parameters
I0502 09:58:35.882735 22125 net.cpp:409] parameters -> data
I0502 09:58:35.882743 22125 net.cpp:409] parameters -> label
I0502 09:58:35.882752 22125 hdf5_data_layer.cpp:79] Loading list of HDF5 filenames from: /home/purduethu/scratch/radon/d/deng106/CNNStatisticalModel/distributions/input/50_distributions_100_sample_size_train-distributions-path.txt
I0502 09:58:35.882774 22125 hdf5_data_layer.cpp:93] Number of HDF5 files: 1
I0502 09:58:36.059545 22125 hdf5.cpp:35] Datatype class: H5T_INTEGER
I0502 09:58:36.062829 22125 net.cpp:144] Setting up parameters
I0502 09:58:36.062855 22125 net.cpp:151] Top shape: 20 1 10 10 (2000)
I0502 09:58:36.062860 22125 net.cpp:151] Top shape: 20 (20)
I0502 09:58:36.062862 22125 net.cpp:159] Memory required for data: 8080
I0502 09:58:36.062870 22125 layer_factory.hpp:77] Creating layer conv1
I0502 09:58:36.062885 22125 net.cpp:94] Creating Layer conv1
I0502 09:58:36.062891 22125 net.cpp:435] conv1 <- data
I0502 09:58:36.062896 22125 net.cpp:409] conv1 -> conv1
I0502 09:58:36.064743 22125 net.cpp:144] Setting up conv1
I0502 09:58:36.064757 22125 net.cpp:151] Top shape: 20 64 10 10 (128000)
I0502 09:58:36.064761 22125 net.cpp:159] Memory required for data: 520080
I0502 09:58:36.064771 22125 layer_factory.hpp:77] Creating layer relu1
I0502 09:58:36.064779 22125 net.cpp:94] Creating Layer relu1
I0502 09:58:36.064782 22125 net.cpp:435] relu1 <- conv1
I0502 09:58:36.064786 22125 net.cpp:396] relu1 -> conv1 (in-place)
I0502 09:58:36.064795 22125 net.cpp:144] Setting up relu1
I0502 09:58:36.064798 22125 net.cpp:151] Top shape: 20 64 10 10 (128000)
I0502 09:58:36.064801 22125 net.cpp:159] Memory required for data: 1032080
I0502 09:58:36.064805 22125 layer_factory.hpp:77] Creating layer conv2
I0502 09:58:36.064811 22125 net.cpp:94] Creating Layer conv2
I0502 09:58:36.064815 22125 net.cpp:435] conv2 <- conv1
I0502 09:58:36.064821 22125 net.cpp:409] conv2 -> conv2
I0502 09:58:36.070266 22125 net.cpp:144] Setting up conv2
I0502 09:58:36.070281 22125 net.cpp:151] Top shape: 20 64 10 10 (128000)
I0502 09:58:36.070284 22125 net.cpp:159] Memory required for data: 1544080
I0502 09:58:36.070292 22125 layer_factory.hpp:77] Creating layer relu2
I0502 09:58:36.070298 22125 net.cpp:94] Creating Layer relu2
I0502 09:58:36.070302 22125 net.cpp:435] relu2 <- conv2
I0502 09:58:36.070307 22125 net.cpp:396] relu2 -> conv2 (in-place)
I0502 09:58:36.070313 22125 net.cpp:144] Setting up relu2
I0502 09:58:36.070317 22125 net.cpp:151] Top shape: 20 64 10 10 (128000)
I0502 09:58:36.070320 22125 net.cpp:159] Memory required for data: 2056080
I0502 09:58:36.070323 22125 layer_factory.hpp:77] Creating layer pool2
I0502 09:58:36.070329 22125 net.cpp:94] Creating Layer pool2
I0502 09:58:36.070333 22125 net.cpp:435] pool2 <- conv2
I0502 09:58:36.070336 22125 net.cpp:409] pool2 -> pool2
I0502 09:58:36.070386 22125 net.cpp:144] Setting up pool2
I0502 09:58:36.070394 22125 net.cpp:151] Top shape: 20 64 5 5 (32000)
I0502 09:58:36.070397 22125 net.cpp:159] Memory required for data: 2184080
I0502 09:58:36.070400 22125 layer_factory.hpp:77] Creating layer conv3
I0502 09:58:36.070408 22125 net.cpp:94] Creating Layer conv3
I0502 09:58:36.070411 22125 net.cpp:435] conv3 <- pool2
I0502 09:58:36.070416 22125 net.cpp:409] conv3 -> conv3
I0502 09:58:36.076305 22125 net.cpp:144] Setting up conv3
I0502 09:58:36.076319 22125 net.cpp:151] Top shape: 20 64 5 5 (32000)
I0502 09:58:36.076323 22125 net.cpp:159] Memory required for data: 2312080
I0502 09:58:36.076331 22125 layer_factory.hpp:77] Creating layer relu3
I0502 09:58:36.076337 22125 net.cpp:94] Creating Layer relu3
I0502 09:58:36.076340 22125 net.cpp:435] relu3 <- conv3
I0502 09:58:36.076345 22125 net.cpp:396] relu3 -> conv3 (in-place)
I0502 09:58:36.076352 22125 net.cpp:144] Setting up relu3
I0502 09:58:36.076356 22125 net.cpp:151] Top shape: 20 64 5 5 (32000)
I0502 09:58:36.076359 22125 net.cpp:159] Memory required for data: 2440080
I0502 09:58:36.076362 22125 layer_factory.hpp:77] Creating layer conv4
I0502 09:58:36.076371 22125 net.cpp:94] Creating Layer conv4
I0502 09:58:36.076375 22125 net.cpp:435] conv4 <- conv3
I0502 09:58:36.076380 22125 net.cpp:409] conv4 -> conv4
I0502 09:58:36.081367 22125 net.cpp:144] Setting up conv4
I0502 09:58:36.081382 22125 net.cpp:151] Top shape: 20 64 5 5 (32000)
I0502 09:58:36.081385 22125 net.cpp:159] Memory required for data: 2568080
I0502 09:58:36.081392 22125 layer_factory.hpp:77] Creating layer relu4
I0502 09:58:36.081398 22125 net.cpp:94] Creating Layer relu4
I0502 09:58:36.081401 22125 net.cpp:435] relu4 <- conv4
I0502 09:58:36.081405 22125 net.cpp:396] relu4 -> conv4 (in-place)
I0502 09:58:36.081413 22125 net.cpp:144] Setting up relu4
I0502 09:58:36.081418 22125 net.cpp:151] Top shape: 20 64 5 5 (32000)
I0502 09:58:36.081420 22125 net.cpp:159] Memory required for data: 2696080
I0502 09:58:36.081423 22125 layer_factory.hpp:77] Creating layer conv5
I0502 09:58:36.081430 22125 net.cpp:94] Creating Layer conv5
I0502 09:58:36.081434 22125 net.cpp:435] conv5 <- conv4
I0502 09:58:36.081439 22125 net.cpp:409] conv5 -> conv5
I0502 09:58:36.085939 22125 net.cpp:144] Setting up conv5
I0502 09:58:36.085953 22125 net.cpp:151] Top shape: 20 64 5 5 (32000)
I0502 09:58:36.085958 22125 net.cpp:159] Memory required for data: 2824080
I0502 09:58:36.085965 22125 layer_factory.hpp:77] Creating layer relu5
I0502 09:58:36.085971 22125 net.cpp:94] Creating Layer relu5
I0502 09:58:36.085974 22125 net.cpp:435] relu5 <- conv5
I0502 09:58:36.085979 22125 net.cpp:396] relu5 -> conv5 (in-place)
I0502 09:58:36.085985 22125 net.cpp:144] Setting up relu5
I0502 09:58:36.085990 22125 net.cpp:151] Top shape: 20 64 5 5 (32000)
I0502 09:58:36.085994 22125 net.cpp:159] Memory required for data: 2952080
I0502 09:58:36.085996 22125 layer_factory.hpp:77] Creating layer pool5
I0502 09:58:36.086001 22125 net.cpp:94] Creating Layer pool5
I0502 09:58:36.086005 22125 net.cpp:435] pool5 <- conv5
I0502 09:58:36.086009 22125 net.cpp:409] pool5 -> pool5
I0502 09:58:36.086043 22125 net.cpp:144] Setting up pool5
I0502 09:58:36.086051 22125 net.cpp:151] Top shape: 20 64 2 2 (5120)
I0502 09:58:36.086055 22125 net.cpp:159] Memory required for data: 2972560
I0502 09:58:36.086057 22125 layer_factory.hpp:77] Creating layer ip1
I0502 09:58:36.086064 22125 net.cpp:94] Creating Layer ip1
I0502 09:58:36.086067 22125 net.cpp:435] ip1 <- pool5
I0502 09:58:36.086072 22125 net.cpp:409] ip1 -> ip1
I0502 09:58:36.086601 22125 net.cpp:144] Setting up ip1
I0502 09:58:36.086609 22125 net.cpp:151] Top shape: 20 64 (1280)
I0502 09:58:36.086612 22125 net.cpp:159] Memory required for data: 2977680
I0502 09:58:36.086617 22125 layer_factory.hpp:77] Creating layer ip2
I0502 09:58:36.086624 22125 net.cpp:94] Creating Layer ip2
I0502 09:58:36.086627 22125 net.cpp:435] ip2 <- ip1
I0502 09:58:36.086632 22125 net.cpp:409] ip2 -> ip2
I0502 09:58:36.086853 22125 net.cpp:144] Setting up ip2
I0502 09:58:36.086860 22125 net.cpp:151] Top shape: 20 64 (1280)
I0502 09:58:36.086863 22125 net.cpp:159] Memory required for data: 2982800
I0502 09:58:36.086869 22125 layer_factory.hpp:77] Creating layer ip3
I0502 09:58:36.086874 22125 net.cpp:94] Creating Layer ip3
I0502 09:58:36.086877 22125 net.cpp:435] ip3 <- ip2
I0502 09:58:36.086881 22125 net.cpp:409] ip3 -> ip3
I0502 09:58:36.087074 22125 net.cpp:144] Setting up ip3
I0502 09:58:36.087081 22125 net.cpp:151] Top shape: 20 50 (1000)
I0502 09:58:36.087090 22125 net.cpp:159] Memory required for data: 2986800
I0502 09:58:36.087095 22125 layer_factory.hpp:77] Creating layer loss
I0502 09:58:36.087101 22125 net.cpp:94] Creating Layer loss
I0502 09:58:36.087105 22125 net.cpp:435] loss <- ip3
I0502 09:58:36.087108 22125 net.cpp:435] loss <- label
I0502 09:58:36.087112 22125 net.cpp:409] loss -> loss
I0502 09:58:36.087121 22125 layer_factory.hpp:77] Creating layer loss
…
I0502 09:58:36.088502 22125 solver.cpp:181] Creating test net (#0) specified by net file: ./protocol/dis_50_100_dimension.protocol_distribution
I0502 09:58:36.088528 22125 net.cpp:323] The NetState phase (1) differed from the phase (0) specified by a rule in layer parameters
I0502 09:58:36.088634 22125 net.cpp:52] Initializing net from parameters: 
state {
  phase: TEST
}
layer {
  name: "intercept"
  type: "HDF5Data"
  top: "data"
  top: "label"
  include {
    phase: TEST
  }
  hdf5_data_param {
    source: "/home/purduethu/scratch/radon/d/deng106/CNNStatisticalModel/distributions/input/50_distributions_100_sample_size_test-distributions-path.txt"
    batch_size: 20
  }
}
layer {
  name: "conv1"
  type: "Convolution"
  bottom: "data"
  top: "conv1"
  param {
    lr_mult: 1
  }
  param {
    lr_mult: 2
  }
  convolution_param {
    num_output: 64
    pad: 2
    kernel_size: 5
    stride: 1
    weight_filler {
      type: "gaussian"
      std: 0.0001
    }
    bias_filler {
      type: "constant"
    }
  }
}
layer {
  name: "relu1"
  type: "ReLU"
  bottom: "conv1"
  top: "conv1"
}
layer {
  name: "conv2"
  type: "Convolution"
  bottom: "conv1"
  top: "conv2"
  param {
    lr_mult: 1
  }
  param {
    lr_mult: 2
  }
  convolution_param {
    num_output: 64
    pad: 2
    kernel_size: 5
    stride: 1
    weight_filler {
      type: "gaussian"
      std: 0.01
    }
    bias_filler {
      type: "constant"
    }
  }
}
layer {
  name: "relu2"
  type: "ReLU"
  bottom: "conv2"
  top: "conv2"
}
layer {
  name: "pool2"
  type: "Pooling"
  bottom: "conv2"
  top: "pool2"
  pooling_param {
    pool: MAX
    kernel_size: 3
    stride: 2
  }
}
layer {
  name: "conv3"
  type: "Convolution"
  bottom: "pool2"
  top: "conv3"
  param {
    lr_mult: 1
  }
  param {
    lr_mult: 2
  }
  convolution_param {
    num_output: 64
    pad: 2
    kernel_size: 5
    stride: 1
    weight_filler {
      type: "gaussian"
      std: 0.01
    }
    bias_filler {
      type: "constant"
    }
  }
}
layer {
  name: "relu3"
  type: "ReLU"
  bottom: "conv3"
  top: "conv3"
}
layer {
  name: "conv4"
  type: "Convolution"
  bottom: "conv3"
  top: "conv4"
  param {
    lr_mult: 1
  }
  param {
    lr_mult: 2
  }
  convolution_param {
    num_output: 64
    pad: 2
    kernel_size: 5
    stride: 1
    weight_filler {
      type: "gaussian"
      std: 0.01
    }
    bias_filler {
      type: "constant"
    }
  }
}
layer {
  name: "relu4"
  type: "ReLU"
  bottom: "conv4"
  top: "conv4"
}
layer {
  name: "conv5"
  type: "Convolution"
  bottom: "conv4"
  top: "conv5"
  param {
    lr_mult: 1
  }
  param {
    lr_mult: 2
  }
  convolution_param {
    num_output: 64
    pad: 2
    kernel_size: 5
    stride: 1
    weight_filler {
      type: "gaussian"
      std: 0.01
    }
    bias_filler {
      type: "constant"
    }
  }
}
layer {
  name: "relu5"
  type: "ReLU"
  bottom: "conv5"
  top: "conv5"
}
layer {
  name: "pool5"
  type: "Pooling"
  bottom: "conv5"
  top: "pool5"
  pooling_param {
    pool: AVE
    kernel_size: 3
    stride: 2
  }
}
layer {
  name: "ip1"
  type: "InnerProduct"
  bottom: "pool5"
  top: "ip1"
  param {
    lr_mult: 1
  }
  param {
    lr_mult: 2
  }
  inner_product_param {
    num_output: 64
    weight_filler {
      type: "gaussian"
      std: 0.1
    }
    bias_filler {
      type: "constant"
    }
  }
}
layer {
  name: "ip2"
  type: "InnerProduct"
  bottom: "ip1"
  top: "ip2"
  param {
    lr_mult: 1
  }
  param {
    lr_mult: 2
  }
  inner_product_param {
    num_output: 64
    weight_filler {
      type: "gaussian"
      std: 0.1
    }
    bias_filler {
      type: "constant"
    }
  }
}
layer {
  name: "ip3"
  type: "InnerProduct"
  bottom: "ip2"
  top: "ip3"
  param {
    lr_mult: 1
  }
  param {
    lr_mult: 2
  }
  inner_product_param {
    num_output: 50
    weight_filler {
      type: "gaussian"
      std: 0.1
    }
    bias_filler {
      type: "constant"
    }
  }
}
layer {
  name: "accuracy"
  type: "Accuracy"
  bottom: "ip3"
  bottom: "label"
  top: "accuracy"
  include {
    phase: TEST
  }
}
layer {
  name: "loss"
  type: "SoftmaxWithLoss"
  bottom: "ip3"
  bottom: "label"
  top: "loss"
}
I0502 09:58:36.088702 22125 layer_factory.hpp:77] Creating layer intercept
I0502 09:58:36.088711 22125 net.cpp:94] Creating Layer intercept
I0502 09:58:36.088714 22125 net.cpp:409] intercept -> data
I0502 09:58:36.088721 22125 net.cpp:409] intercept -> label
I0502 09:58:36.088728 22125 hdf5_data_layer.cpp:79] Loading list of HDF5 filenames from: /home/purduethu/scratch/radon/d/deng106/CNNStatisticalModel/distributions/input/50_distributions_100_sample_size_test-distributions-path.txt
I0502 09:58:36.088747 22125 hdf5_data_layer.cpp:93] Number of HDF5 files: 1
I0502 09:58:36.131134 22125 net.cpp:144] Setting up intercept
I0502 09:58:36.131168 22125 net.cpp:151] Top shape: 20 1 10 10 (2000)
I0502 09:58:36.131175 22125 net.cpp:151] Top shape: 20 (20)
I0502 09:58:36.131177 22125 net.cpp:159] Memory required for data: 8080
I0502 09:58:36.131183 22125 layer_factory.hpp:77] Creating layer label_intercept_1_split
I0502 09:58:36.131203 22125 net.cpp:94] Creating Layer label_intercept_1_split
I0502 09:58:36.131208 22125 net.cpp:435] label_intercept_1_split <- label
I0502 09:58:36.131216 22125 net.cpp:409] label_intercept_1_split -> label_intercept_1_split_0
I0502 09:58:36.131224 22125 net.cpp:409] label_intercept_1_split -> label_intercept_1_split_1
I0502 09:58:36.131265 22125 net.cpp:144] Setting up label_intercept_1_split
I0502 09:58:36.131273 22125 net.cpp:151] Top shape: 20 (20)
I0502 09:58:36.131276 22125 net.cpp:151] Top shape: 20 (20)
I0502 09:58:36.131279 22125 net.cpp:159] Memory required for data: 8240
I0502 09:58:36.131283 22125 layer_factory.hpp:77] Creating layer conv1
I0502 09:58:36.131294 22125 net.cpp:94] Creating Layer conv1
I0502 09:58:36.131299 22125 net.cpp:435] conv1 <- data
I0502 09:58:36.131304 22125 net.cpp:409] conv1 -> conv1
I0502 09:58:36.132084 22125 net.cpp:144] Setting up conv1
I0502 09:58:36.132097 22125 net.cpp:151] Top shape: 20 64 10 10 (128000)
I0502 09:58:36.132108 22125 net.cpp:159] Memory required for data: 520240
I0502 09:58:36.132118 22125 layer_factory.hpp:77] Creating layer relu1
I0502 09:58:36.132125 22125 net.cpp:94] Creating Layer relu1
I0502 09:58:36.132129 22125 net.cpp:435] relu1 <- conv1
I0502 09:58:36.132133 22125 net.cpp:396] relu1 -> conv1 (in-place)
I0502 09:58:36.132140 22125 net.cpp:144] Setting up relu1
I0502 09:58:36.132145 22125 net.cpp:151] Top shape: 20 64 10 10 (128000)
I0502 09:58:36.132148 22125 net.cpp:159] Memory required for data: 1032240
I0502 09:58:36.132151 22125 layer_factory.hpp:77] Creating layer conv2
I0502 09:58:36.132158 22125 net.cpp:94] Creating Layer conv2
I0502 09:58:36.132163 22125 net.cpp:435] conv2 <- conv1
I0502 09:58:36.132166 22125 net.cpp:409] conv2 -> conv2
I0502 09:58:36.136333 22125 net.cpp:144] Setting up conv2
I0502 09:58:36.136348 22125 net.cpp:151] Top shape: 20 64 10 10 (128000)
I0502 09:58:36.136351 22125 net.cpp:159] Memory required for data: 1544240
I0502 09:58:36.136359 22125 layer_factory.hpp:77] Creating layer relu2
I0502 09:58:36.136365 22125 net.cpp:94] Creating Layer relu2
I0502 09:58:36.136369 22125 net.cpp:435] relu2 <- conv2
I0502 09:58:36.136373 22125 net.cpp:396] relu2 -> conv2 (in-place)
I0502 09:58:36.136380 22125 net.cpp:144] Setting up relu2
I0502 09:58:36.136384 22125 net.cpp:151] Top shape: 20 64 10 10 (128000)
I0502 09:58:36.136387 22125 net.cpp:159] Memory required for data: 2056240
I0502 09:58:36.136390 22125 layer_factory.hpp:77] Creating layer pool2
I0502 09:58:36.136396 22125 net.cpp:94] Creating Layer pool2
I0502 09:58:36.136399 22125 net.cpp:435] pool2 <- conv2
I0502 09:58:36.136404 22125 net.cpp:409] pool2 -> pool2
I0502 09:58:36.136456 22125 net.cpp:144] Setting up pool2
I0502 09:58:36.136464 22125 net.cpp:151] Top shape: 20 64 5 5 (32000)
I0502 09:58:36.136468 22125 net.cpp:159] Memory required for data: 2184240
I0502 09:58:36.136471 22125 layer_factory.hpp:77] Creating layer conv3
I0502 09:58:36.136479 22125 net.cpp:94] Creating Layer conv3
I0502 09:58:36.136483 22125 net.cpp:435] conv3 <- pool2
I0502 09:58:36.136488 22125 net.cpp:409] conv3 -> conv3
I0502 09:58:36.141005 22125 net.cpp:144] Setting up conv3
I0502 09:58:36.141018 22125 net.cpp:151] Top shape: 20 64 5 5 (32000)
I0502 09:58:36.141022 22125 net.cpp:159] Memory required for data: 2312240
I0502 09:58:36.141031 22125 layer_factory.hpp:77] Creating layer relu3
I0502 09:58:36.141036 22125 net.cpp:94] Creating Layer relu3
I0502 09:58:36.141041 22125 net.cpp:435] relu3 <- conv3
I0502 09:58:36.141047 22125 net.cpp:396] relu3 -> conv3 (in-place)
I0502 09:58:36.141053 22125 net.cpp:144] Setting up relu3
I0502 09:58:36.141057 22125 net.cpp:151] Top shape: 20 64 5 5 (32000)
I0502 09:58:36.141060 22125 net.cpp:159] Memory required for data: 2440240
I0502 09:58:36.141064 22125 layer_factory.hpp:77] Creating layer conv4
I0502 09:58:36.141072 22125 net.cpp:94] Creating Layer conv4
I0502 09:58:36.141077 22125 net.cpp:435] conv4 <- conv3
I0502 09:58:36.141080 22125 net.cpp:409] conv4 -> conv4
I0502 09:58:36.144687 22125 net.cpp:144] Setting up conv4
I0502 09:58:36.144701 22125 net.cpp:151] Top shape: 20 64 5 5 (32000)
I0502 09:58:36.144704 22125 net.cpp:159] Memory required for data: 2568240
I0502 09:58:36.144711 22125 layer_factory.hpp:77] Creating layer relu4
I0502 09:58:36.144716 22125 net.cpp:94] Creating Layer relu4
I0502 09:58:36.144721 22125 net.cpp:435] relu4 <- conv4
I0502 09:58:36.144724 22125 net.cpp:396] relu4 -> conv4 (in-place)
I0502 09:58:36.144731 22125 net.cpp:144] Setting up relu4
I0502 09:58:36.144736 22125 net.cpp:151] Top shape: 20 64 5 5 (32000)
I0502 09:58:36.144738 22125 net.cpp:159] Memory required for data: 2696240
I0502 09:58:36.144742 22125 layer_factory.hpp:77] Creating layer conv5
I0502 09:58:36.144750 22125 net.cpp:94] Creating Layer conv5
I0502 09:58:36.144753 22125 net.cpp:435] conv5 <- conv4
I0502 09:58:36.144758 22125 net.cpp:409] conv5 -> conv5
I0502 09:58:36.148856 22125 net.cpp:144] Setting up conv5
I0502 09:58:36.148869 22125 net.cpp:151] Top shape: 20 64 5 5 (32000)
I0502 09:58:36.148874 22125 net.cpp:159] Memory required for data: 2824240
I0502 09:58:36.148885 22125 layer_factory.hpp:77] Creating layer relu5
I0502 09:58:36.148891 22125 net.cpp:94] Creating Layer relu5
I0502 09:58:36.148895 22125 net.cpp:435] relu5 <- conv5
I0502 09:58:36.148900 22125 net.cpp:396] relu5 -> conv5 (in-place)
I0502 09:58:36.148905 22125 net.cpp:144] Setting up relu5
I0502 09:58:36.148910 22125 net.cpp:151] Top shape: 20 64 5 5 (32000)
I0502 09:58:36.148913 22125 net.cpp:159] Memory required for data: 2952240
I0502 09:58:36.148916 22125 layer_factory.hpp:77] Creating layer pool5
I0502 09:58:36.148921 22125 net.cpp:94] Creating Layer pool5
I0502 09:58:36.148923 22125 net.cpp:435] pool5 <- conv5
I0502 09:58:36.148929 22125 net.cpp:409] pool5 -> pool5
I0502 09:58:36.148967 22125 net.cpp:144] Setting up pool5
I0502 09:58:36.148974 22125 net.cpp:151] Top shape: 20 64 2 2 (5120)
I0502 09:58:36.148977 22125 net.cpp:159] Memory required for data: 2972720
I0502 09:58:36.148980 22125 layer_factory.hpp:77] Creating layer ip1
I0502 09:58:36.148988 22125 net.cpp:94] Creating Layer ip1
I0502 09:58:36.148991 22125 net.cpp:435] ip1 <- pool5
I0502 09:58:36.148998 22125 net.cpp:409] ip1 -> ip1
I0502 09:58:36.149526 22125 net.cpp:144] Setting up ip1
I0502 09:58:36.149534 22125 net.cpp:151] Top shape: 20 64 (1280)
I0502 09:58:36.149538 22125 net.cpp:159] Memory required for data: 2977840
I0502 09:58:36.149543 22125 layer_factory.hpp:77] Creating layer ip2
I0502 09:58:36.149549 22125 net.cpp:94] Creating Layer ip2
I0502 09:58:36.149552 22125 net.cpp:435] ip2 <- ip1
I0502 09:58:36.149557 22125 net.cpp:409] ip2 -> ip2
I0502 09:58:36.149786 22125 net.cpp:144] Setting up ip2
I0502 09:58:36.149794 22125 net.cpp:151] Top shape: 20 64 (1280)
I0502 09:58:36.149797 22125 net.cpp:159] Memory required for data: 2982960
I0502 09:58:36.149802 22125 layer_factory.hpp:77] Creating layer ip3
I0502 09:58:36.149811 22125 net.cpp:94] Creating Layer ip3
I0502 09:58:36.149814 22125 net.cpp:435] ip3 <- ip2
I0502 09:58:36.149818 22125 net.cpp:409] ip3 -> ip3
I0502 09:58:36.150017 22125 net.cpp:144] Setting up ip3
I0502 09:58:36.150025 22125 net.cpp:151] Top shape: 20 50 (1000)
I0502 09:58:36.150028 22125 net.cpp:159] Memory required for data: 2986960
I0502 09:58:36.150033 22125 layer_factory.hpp:77] Creating layer ip3_ip3_0_split
I0502 09:58:36.150038 22125 net.cpp:94] Creating Layer ip3_ip3_0_split
I0502 09:58:36.150041 22125 net.cpp:435] ip3_ip3_0_split <- ip3
I0502 09:58:36.150048 22125 net.cpp:409] ip3_ip3_0_split -> ip3_ip3_0_split_0
I0502 09:58:36.150053 22125 net.cpp:409] ip3_ip3_0_split -> ip3_ip3_0_split_1
I0502 09:58:36.150094 22125 net.cpp:144] Setting up ip3_ip3_0_split
I0502 09:58:36.150100 22125 net.cpp:151] Top shape: 20 50 (1000)
I0502 09:58:36.150104 22125 net.cpp:151] Top shape: 20 50 (1000)
I0502 09:58:36.150107 22125 net.cpp:159] Memory required for data: 2994960
I0502 09:58:36.150110 22125 layer_factory.hpp:77] Creating layer accuracy
I0502 09:58:36.150115 22125 net.cpp:94] Creating Layer accuracy
I0502 09:58:36.150120 22125 net.cpp:435] accuracy <- ip3_ip3_0_split_0
I0502 09:58:36.150122 22125 net.cpp:435] accuracy <- label_intercept_1_split_0
I0502 09:58:36.150128 22125 net.cpp:409] accuracy -> accuracy
…
