…
I0507 01:47:35.047978 30763 net.cpp:323] The NetState phase (0) differed from the phase (1) specified by a rule in layer intercept
I0507 01:47:35.047996 30763 net.cpp:323] The NetState phase (0) differed from the phase (1) specified by a rule in layer loss
I0507 01:47:35.048084 30763 net.cpp:52] Initializing net from parameters: 
state {
  phase: TRAIN
}
layer {
  name: "parameters"
  type: "HDF5Data"
  top: "data"
  top: "label"
  include {
    phase: TRAIN
  }
  hdf5_data_param {
    source: "/home/purduethu/scratch/radon/d/deng106/CNNStatisticalModel/distributions/input/50_distributions_100_sample_size_train-parameters-path.txt"
    batch_size: 20
  }
}
layer {
  name: "conv1"
  type: "Convolution"
  bottom: "data"
  top: "conv1"
  param {
    lr_mult: 1
  }
  param {
    lr_mult: 2
  }
  convolution_param {
    num_output: 64
    pad: 2
    kernel_size: 5
    stride: 1
    weight_filler {
      type: "gaussian"
      std: 0.0001
    }
    bias_filler {
      type: "constant"
    }
  }
}
layer {
  name: "relu1"
  type: "ReLU"
  bottom: "conv1"
  top: "conv1"
}
layer {
  name: "conv2"
  type: "Convolution"
  bottom: "conv1"
  top: "conv2"
  param {
    lr_mult: 1
  }
  param {
    lr_mult: 2
  }
  convolution_param {
    num_output: 64
    pad: 2
    kernel_size: 5
    stride: 1
    weight_filler {
      type: "gaussian"
      std: 0.01
    }
    bias_filler {
      type: "constant"
    }
  }
}
layer {
  name: "relu2"
  type: "ReLU"
  bottom: "conv2"
  top: "conv2"
}
layer {
  name: "pool2"
  type: "Pooling"
  bottom: "conv2"
  top: "pool2"
  pooling_param {
    pool: MAX
    kernel_size: 3
    stride: 2
  }
}
layer {
  name: "conv3"
  type: "Convolution"
  bottom: "pool2"
  top: "conv3"
  param {
    lr_mult: 1
  }
  param {
    lr_mult: 2
  }
  convolution_param {
    num_output: 64
    pad: 2
    kernel_size: 5
    stride: 1
    weight_filler {
      type: "gaussian"
      std: 0.01
    }
    bias_filler {
      type: "constant"
    }
  }
}
layer {
  name: "relu3"
  type: "ReLU"
  bottom: "conv3"
  top: "conv3"
}
layer {
  name: "conv4"
  type: "Convolution"
  bottom: "conv3"
  top: "conv4"
  param {
    lr_mult: 1
  }
  param {
    lr_mult: 2
  }
  convolution_param {
    num_output: 64
    pad: 2
    kernel_size: 5
    stride: 1
    weight_filler {
      type: "gaussian"
      std: 0.01
    }
    bias_filler {
      type: "constant"
    }
  }
}
layer {
  name: "relu4"
  type: "ReLU"
  bottom: "conv4"
  top: "conv4"
}
layer {
  name: "conv5"
  type: "Convolution"
  bottom: "conv4"
  top: "conv5"
  param {
    lr_mult: 1
  }
  param {
    lr_mult: 2
  }
  convolution_param {
    num_output: 64
    pad: 2
    kernel_size: 5
    stride: 1
    weight_filler {
      type: "gaussian"
      std: 0.01
    }
    bias_filler {
      type: "constant"
    }
  }
}
layer {
  name: "relu5"
  type: "ReLU"
  bottom: "conv5"
  top: "conv5"
}
layer {
  name: "pool5"
  type: "Pooling"
  bottom: "conv5"
  top: "pool5"
  pooling_param {
    pool: AVE
    kernel_size: 3
    stride: 2
  }
}
layer {
  name: "ip1"
  type: "InnerProduct"
  bottom: "pool5"
  top: "ip1"
  param {
    lr_mult: 1
  }
  param {
    lr_mult: 2
  }
  inner_product_param {
    num_output: 64
    weight_filler {
      type: "gaussian"
      std: 0.1
    }
    bias_filler {
      type: "constant"
    }
  }
}
layer {
  name: "ip2"
  type: "InnerProduct"
  bottom: "ip1"
  top: "ip2"
  param {
    lr_mult: 1
  }
  param {
    lr_mult: 2
  }
  inner_product_param {
    num_output: 64
    weight_filler {
      type: "gaussian"
      std: 0.1
    }
    bias_filler {
      type: "constant"
    }
  }
}
layer {
  name: "ip3"
  type: "InnerProduct"
  bottom: "ip2"
  top: "ip3"
  param {
    lr_mult: 1
  }
  param {
    lr_mult: 2
  }
  inner_product_param {
    num_output: 1
    weight_filler {
      type: "gaussian"
      std: 0.1
    }
    bias_filler {
      type: "constant"
    }
  }
}
layer {
  name: "loss"
  type: "HuberLoss"
  bottom: "ip3"
  bottom: "label"
  top: "loss"
  include {
    phase: TRAIN
  }
}
I0507 01:47:35.048141 30763 layer_factory.hpp:77] Creating layer parameters
I0507 01:47:35.048156 30763 net.cpp:94] Creating Layer parameters
I0507 01:47:35.048161 30763 net.cpp:409] parameters -> data
I0507 01:47:35.048171 30763 net.cpp:409] parameters -> label
I0507 01:47:35.048178 30763 hdf5_data_layer.cpp:79] Loading list of HDF5 filenames from: /home/purduethu/scratch/radon/d/deng106/CNNStatisticalModel/distributions/input/50_distributions_100_sample_size_train-parameters-path.txt
I0507 01:47:35.048194 30763 hdf5_data_layer.cpp:93] Number of HDF5 files: 1
I0507 01:47:35.048770 30763 hdf5.cpp:32] Datatype class: H5T_FLOAT
I0507 01:47:35.210909 30763 net.cpp:144] Setting up parameters
I0507 01:47:35.210938 30763 net.cpp:151] Top shape: 20 1 10 10 (2000)
I0507 01:47:35.210943 30763 net.cpp:151] Top shape: 20 (20)
I0507 01:47:35.210947 30763 net.cpp:159] Memory required for data: 8080
I0507 01:47:35.210952 30763 layer_factory.hpp:77] Creating layer conv1
I0507 01:47:35.210969 30763 net.cpp:94] Creating Layer conv1
I0507 01:47:35.210973 30763 net.cpp:435] conv1 <- data
I0507 01:47:35.210979 30763 net.cpp:409] conv1 -> conv1
I0507 01:47:35.215029 30763 net.cpp:144] Setting up conv1
I0507 01:47:35.215042 30763 net.cpp:151] Top shape: 20 64 10 10 (128000)
I0507 01:47:35.215046 30763 net.cpp:159] Memory required for data: 520080
I0507 01:47:35.215056 30763 layer_factory.hpp:77] Creating layer relu1
I0507 01:47:35.215064 30763 net.cpp:94] Creating Layer relu1
I0507 01:47:35.215067 30763 net.cpp:435] relu1 <- conv1
I0507 01:47:35.215072 30763 net.cpp:396] relu1 -> conv1 (in-place)
I0507 01:47:35.215080 30763 net.cpp:144] Setting up relu1
I0507 01:47:35.215085 30763 net.cpp:151] Top shape: 20 64 10 10 (128000)
I0507 01:47:35.215087 30763 net.cpp:159] Memory required for data: 1032080
I0507 01:47:35.215090 30763 layer_factory.hpp:77] Creating layer conv2
I0507 01:47:35.215097 30763 net.cpp:94] Creating Layer conv2
I0507 01:47:35.215101 30763 net.cpp:435] conv2 <- conv1
I0507 01:47:35.215106 30763 net.cpp:409] conv2 -> conv2
I0507 01:47:35.221105 30763 net.cpp:144] Setting up conv2
I0507 01:47:35.221119 30763 net.cpp:151] Top shape: 20 64 10 10 (128000)
I0507 01:47:35.221122 30763 net.cpp:159] Memory required for data: 1544080
I0507 01:47:35.221130 30763 layer_factory.hpp:77] Creating layer relu2
I0507 01:47:35.221138 30763 net.cpp:94] Creating Layer relu2
I0507 01:47:35.221140 30763 net.cpp:435] relu2 <- conv2
I0507 01:47:35.221145 30763 net.cpp:396] relu2 -> conv2 (in-place)
I0507 01:47:35.221153 30763 net.cpp:144] Setting up relu2
I0507 01:47:35.221158 30763 net.cpp:151] Top shape: 20 64 10 10 (128000)
I0507 01:47:35.221159 30763 net.cpp:159] Memory required for data: 2056080
I0507 01:47:35.221163 30763 layer_factory.hpp:77] Creating layer pool2
I0507 01:47:35.221168 30763 net.cpp:94] Creating Layer pool2
I0507 01:47:35.221173 30763 net.cpp:435] pool2 <- conv2
I0507 01:47:35.221176 30763 net.cpp:409] pool2 -> pool2
I0507 01:47:35.221230 30763 net.cpp:144] Setting up pool2
I0507 01:47:35.221236 30763 net.cpp:151] Top shape: 20 64 5 5 (32000)
I0507 01:47:35.221240 30763 net.cpp:159] Memory required for data: 2184080
I0507 01:47:35.221243 30763 layer_factory.hpp:77] Creating layer conv3
I0507 01:47:35.221251 30763 net.cpp:94] Creating Layer conv3
I0507 01:47:35.221254 30763 net.cpp:435] conv3 <- pool2
I0507 01:47:35.221266 30763 net.cpp:409] conv3 -> conv3
I0507 01:47:35.226074 30763 net.cpp:144] Setting up conv3
I0507 01:47:35.226089 30763 net.cpp:151] Top shape: 20 64 5 5 (32000)
I0507 01:47:35.226092 30763 net.cpp:159] Memory required for data: 2312080
I0507 01:47:35.226100 30763 layer_factory.hpp:77] Creating layer relu3
I0507 01:47:35.226106 30763 net.cpp:94] Creating Layer relu3
I0507 01:47:35.226109 30763 net.cpp:435] relu3 <- conv3
I0507 01:47:35.226114 30763 net.cpp:396] relu3 -> conv3 (in-place)
I0507 01:47:35.226121 30763 net.cpp:144] Setting up relu3
I0507 01:47:35.226125 30763 net.cpp:151] Top shape: 20 64 5 5 (32000)
I0507 01:47:35.226128 30763 net.cpp:159] Memory required for data: 2440080
I0507 01:47:35.226131 30763 layer_factory.hpp:77] Creating layer conv4
I0507 01:47:35.226140 30763 net.cpp:94] Creating Layer conv4
I0507 01:47:35.226145 30763 net.cpp:435] conv4 <- conv3
I0507 01:47:35.226148 30763 net.cpp:409] conv4 -> conv4
I0507 01:47:35.230479 30763 net.cpp:144] Setting up conv4
I0507 01:47:35.230492 30763 net.cpp:151] Top shape: 20 64 5 5 (32000)
I0507 01:47:35.230495 30763 net.cpp:159] Memory required for data: 2568080
I0507 01:47:35.230501 30763 layer_factory.hpp:77] Creating layer relu4
I0507 01:47:35.230507 30763 net.cpp:94] Creating Layer relu4
I0507 01:47:35.230511 30763 net.cpp:435] relu4 <- conv4
I0507 01:47:35.230516 30763 net.cpp:396] relu4 -> conv4 (in-place)
I0507 01:47:35.230522 30763 net.cpp:144] Setting up relu4
I0507 01:47:35.230527 30763 net.cpp:151] Top shape: 20 64 5 5 (32000)
I0507 01:47:35.230530 30763 net.cpp:159] Memory required for data: 2696080
I0507 01:47:35.230533 30763 layer_factory.hpp:77] Creating layer conv5
I0507 01:47:35.230540 30763 net.cpp:94] Creating Layer conv5
I0507 01:47:35.230543 30763 net.cpp:435] conv5 <- conv4
I0507 01:47:35.230548 30763 net.cpp:409] conv5 -> conv5
I0507 01:47:35.235337 30763 net.cpp:144] Setting up conv5
I0507 01:47:35.235349 30763 net.cpp:151] Top shape: 20 64 5 5 (32000)
I0507 01:47:35.235353 30763 net.cpp:159] Memory required for data: 2824080
I0507 01:47:35.235361 30763 layer_factory.hpp:77] Creating layer relu5
I0507 01:47:35.235368 30763 net.cpp:94] Creating Layer relu5
I0507 01:47:35.235370 30763 net.cpp:435] relu5 <- conv5
I0507 01:47:35.235375 30763 net.cpp:396] relu5 -> conv5 (in-place)
I0507 01:47:35.235383 30763 net.cpp:144] Setting up relu5
I0507 01:47:35.235386 30763 net.cpp:151] Top shape: 20 64 5 5 (32000)
I0507 01:47:35.235389 30763 net.cpp:159] Memory required for data: 2952080
I0507 01:47:35.235393 30763 layer_factory.hpp:77] Creating layer pool5
I0507 01:47:35.235397 30763 net.cpp:94] Creating Layer pool5
I0507 01:47:35.235400 30763 net.cpp:435] pool5 <- conv5
I0507 01:47:35.235404 30763 net.cpp:409] pool5 -> pool5
I0507 01:47:35.235441 30763 net.cpp:144] Setting up pool5
I0507 01:47:35.235450 30763 net.cpp:151] Top shape: 20 64 2 2 (5120)
I0507 01:47:35.235452 30763 net.cpp:159] Memory required for data: 2972560
I0507 01:47:35.235455 30763 layer_factory.hpp:77] Creating layer ip1
I0507 01:47:35.235466 30763 net.cpp:94] Creating Layer ip1
I0507 01:47:35.235468 30763 net.cpp:435] ip1 <- pool5
I0507 01:47:35.235473 30763 net.cpp:409] ip1 -> ip1
I0507 01:47:35.236778 30763 net.cpp:144] Setting up ip1
I0507 01:47:35.236791 30763 net.cpp:151] Top shape: 20 64 (1280)
I0507 01:47:35.236795 30763 net.cpp:159] Memory required for data: 2977680
I0507 01:47:35.236801 30763 layer_factory.hpp:77] Creating layer ip2
I0507 01:47:35.236809 30763 net.cpp:94] Creating Layer ip2
I0507 01:47:35.236812 30763 net.cpp:435] ip2 <- ip1
I0507 01:47:35.236817 30763 net.cpp:409] ip2 -> ip2
I0507 01:47:35.237023 30763 net.cpp:144] Setting up ip2
I0507 01:47:35.237031 30763 net.cpp:151] Top shape: 20 64 (1280)
I0507 01:47:35.237035 30763 net.cpp:159] Memory required for data: 2982800
I0507 01:47:35.237040 30763 layer_factory.hpp:77] Creating layer ip3
I0507 01:47:35.237045 30763 net.cpp:94] Creating Layer ip3
I0507 01:47:35.237048 30763 net.cpp:435] ip3 <- ip2
I0507 01:47:35.237053 30763 net.cpp:409] ip3 -> ip3
I0507 01:47:35.237159 30763 net.cpp:144] Setting up ip3
I0507 01:47:35.237165 30763 net.cpp:151] Top shape: 20 1 (20)
I0507 01:47:35.237169 30763 net.cpp:159] Memory required for data: 2982880
I0507 01:47:35.237174 30763 layer_factory.hpp:77] Creating layer loss
I0507 01:47:35.237185 30763 net.cpp:94] Creating Layer loss
I0507 01:47:35.237188 30763 net.cpp:435] loss <- ip3
I0507 01:47:35.237192 30763 net.cpp:435] loss <- label
I0507 01:47:35.237196 30763 net.cpp:409] loss -> loss
I0507 01:47:35.237246 30763 net.cpp:144] Setting up loss
…
I0507 01:47:35.297788 30763 net.cpp:323] The NetState phase (0) differed from the phase (1) specified by a rule in layer intercept
I0507 01:47:35.297804 30763 net.cpp:323] The NetState phase (0) differed from the phase (1) specified by a rule in layer accuracy
I0507 01:47:35.297894 30763 net.cpp:52] Initializing net from parameters: 
state {
  phase: TRAIN
}
layer {
  name: "parameters"
  type: "HDF5Data"
  top: "data"
  top: "label"
  include {
    phase: TRAIN
  }
  hdf5_data_param {
    source: "/home/purduethu/scratch/radon/d/deng106/CNNStatisticalModel/distributions/input/50_distributions_100_sample_size_train-distributions-path.txt"
    batch_size: 20
  }
}
layer {
  name: "conv1"
  type: "Convolution"
  bottom: "data"
  top: "conv1"
  param {
    lr_mult: 1
  }
  param {
    lr_mult: 2
  }
  convolution_param {
    num_output: 64
    pad: 2
    kernel_size: 5
    stride: 1
    weight_filler {
      type: "gaussian"
      std: 0.0001
    }
    bias_filler {
      type: "constant"
    }
  }
}
layer {
  name: "relu1"
  type: "ReLU"
  bottom: "conv1"
  top: "conv1"
}
layer {
  name: "conv2"
  type: "Convolution"
  bottom: "conv1"
  top: "conv2"
  param {
    lr_mult: 1
  }
  param {
    lr_mult: 2
  }
  convolution_param {
    num_output: 64
    pad: 2
    kernel_size: 5
    stride: 1
    weight_filler {
      type: "gaussian"
      std: 0.01
    }
    bias_filler {
      type: "constant"
    }
  }
}
layer {
  name: "relu2"
  type: "ReLU"
  bottom: "conv2"
  top: "conv2"
}
layer {
  name: "pool2"
  type: "Pooling"
  bottom: "conv2"
  top: "pool2"
  pooling_param {
    pool: MAX
    kernel_size: 3
    stride: 2
  }
}
layer {
  name: "conv3"
  type: "Convolution"
  bottom: "pool2"
  top: "conv3"
  param {
    lr_mult: 1
  }
  param {
    lr_mult: 2
  }
  convolution_param {
    num_output: 64
    pad: 2
    kernel_size: 5
    stride: 1
    weight_filler {
      type: "gaussian"
      std: 0.01
    }
    bias_filler {
      type: "constant"
    }
  }
}
layer {
  name: "relu3"
  type: "ReLU"
  bottom: "conv3"
  top: "conv3"
}
layer {
  name: "conv4"
  type: "Convolution"
  bottom: "conv3"
  top: "conv4"
  param {
    lr_mult: 1
  }
  param {
    lr_mult: 2
  }
  convolution_param {
    num_output: 64
    pad: 2
    kernel_size: 5
    stride: 1
    weight_filler {
      type: "gaussian"
      std: 0.01
    }
    bias_filler {
      type: "constant"
    }
  }
}
layer {
  name: "relu4"
  type: "ReLU"
  bottom: "conv4"
  top: "conv4"
}
layer {
  name: "conv5"
  type: "Convolution"
  bottom: "conv4"
  top: "conv5"
  param {
    lr_mult: 1
  }
  param {
    lr_mult: 2
  }
  convolution_param {
    num_output: 64
    pad: 2
    kernel_size: 5
    stride: 1
    weight_filler {
      type: "gaussian"
      std: 0.01
    }
    bias_filler {
      type: "constant"
    }
  }
}
layer {
  name: "relu5"
  type: "ReLU"
  bottom: "conv5"
  top: "conv5"
}
layer {
  name: "pool5"
  type: "Pooling"
  bottom: "conv5"
  top: "pool5"
  pooling_param {
    pool: AVE
    kernel_size: 3
    stride: 2
  }
}
layer {
  name: "ip1"
  type: "InnerProduct"
  bottom: "pool5"
  top: "ip1"
  param {
    lr_mult: 1
  }
  param {
    lr_mult: 2
  }
  inner_product_param {
    num_output: 64
    weight_filler {
      type: "gaussian"
      std: 0.1
    }
    bias_filler {
      type: "constant"
    }
  }
}
layer {
  name: "ip2"
  type: "InnerProduct"
  bottom: "ip1"
  top: "ip2"
  param {
    lr_mult: 1
  }
  param {
    lr_mult: 2
  }
  inner_product_param {
    num_output: 64
    weight_filler {
      type: "gaussian"
      std: 0.1
    }
    bias_filler {
      type: "constant"
    }
  }
}
layer {
  name: "ip3"
  type: "InnerProduct"
  bottom: "ip2"
  top: "ip3"
  param {
    lr_mult: 1
  }
  param {
    lr_mult: 2
  }
  inner_product_param {
    num_output: 50
    weight_filler {
      type: "gaussian"
      std: 0.1
    }
    bias_filler {
      type: "constant"
    }
  }
}
layer {
  name: "loss"
  type: "SoftmaxWithLoss"
  bottom: "ip3"
  bottom: "label"
  top: "loss"
}
I0507 01:47:35.297945 30763 layer_factory.hpp:77] Creating layer parameters
I0507 01:47:35.297952 30763 net.cpp:94] Creating Layer parameters
I0507 01:47:35.297956 30763 net.cpp:409] parameters -> data
I0507 01:47:35.297962 30763 net.cpp:409] parameters -> label
I0507 01:47:35.297968 30763 hdf5_data_layer.cpp:79] Loading list of HDF5 filenames from: /home/purduethu/scratch/radon/d/deng106/CNNStatisticalModel/distributions/input/50_distributions_100_sample_size_train-distributions-path.txt
I0507 01:47:35.297984 30763 hdf5_data_layer.cpp:93] Number of HDF5 files: 1
I0507 01:47:35.452438 30763 hdf5.cpp:35] Datatype class: H5T_INTEGER
I0507 01:47:35.455399 30763 net.cpp:144] Setting up parameters
I0507 01:47:35.455416 30763 net.cpp:151] Top shape: 20 1 10 10 (2000)
I0507 01:47:35.455421 30763 net.cpp:151] Top shape: 20 (20)
I0507 01:47:35.455425 30763 net.cpp:159] Memory required for data: 8080
I0507 01:47:35.455431 30763 layer_factory.hpp:77] Creating layer conv1
I0507 01:47:35.455449 30763 net.cpp:94] Creating Layer conv1
I0507 01:47:35.455453 30763 net.cpp:435] conv1 <- data
I0507 01:47:35.455459 30763 net.cpp:409] conv1 -> conv1
I0507 01:47:35.457218 30763 net.cpp:144] Setting up conv1
I0507 01:47:35.457232 30763 net.cpp:151] Top shape: 20 64 10 10 (128000)
I0507 01:47:35.457237 30763 net.cpp:159] Memory required for data: 520080
I0507 01:47:35.457247 30763 layer_factory.hpp:77] Creating layer relu1
I0507 01:47:35.457253 30763 net.cpp:94] Creating Layer relu1
I0507 01:47:35.457257 30763 net.cpp:435] relu1 <- conv1
I0507 01:47:35.457262 30763 net.cpp:396] relu1 -> conv1 (in-place)
I0507 01:47:35.457269 30763 net.cpp:144] Setting up relu1
I0507 01:47:35.457274 30763 net.cpp:151] Top shape: 20 64 10 10 (128000)
I0507 01:47:35.457278 30763 net.cpp:159] Memory required for data: 1032080
I0507 01:47:35.457279 30763 layer_factory.hpp:77] Creating layer conv2
I0507 01:47:35.457288 30763 net.cpp:94] Creating Layer conv2
I0507 01:47:35.457290 30763 net.cpp:435] conv2 <- conv1
I0507 01:47:35.457295 30763 net.cpp:409] conv2 -> conv2
I0507 01:47:35.462554 30763 net.cpp:144] Setting up conv2
I0507 01:47:35.462568 30763 net.cpp:151] Top shape: 20 64 10 10 (128000)
I0507 01:47:35.462571 30763 net.cpp:159] Memory required for data: 1544080
I0507 01:47:35.462579 30763 layer_factory.hpp:77] Creating layer relu2
I0507 01:47:35.462586 30763 net.cpp:94] Creating Layer relu2
I0507 01:47:35.462589 30763 net.cpp:435] relu2 <- conv2
I0507 01:47:35.462594 30763 net.cpp:396] relu2 -> conv2 (in-place)
I0507 01:47:35.462601 30763 net.cpp:144] Setting up relu2
I0507 01:47:35.462605 30763 net.cpp:151] Top shape: 20 64 10 10 (128000)
I0507 01:47:35.462608 30763 net.cpp:159] Memory required for data: 2056080
I0507 01:47:35.462611 30763 layer_factory.hpp:77] Creating layer pool2
I0507 01:47:35.462617 30763 net.cpp:94] Creating Layer pool2
I0507 01:47:35.462620 30763 net.cpp:435] pool2 <- conv2
I0507 01:47:35.462625 30763 net.cpp:409] pool2 -> pool2
I0507 01:47:35.462673 30763 net.cpp:144] Setting up pool2
I0507 01:47:35.462680 30763 net.cpp:151] Top shape: 20 64 5 5 (32000)
I0507 01:47:35.462684 30763 net.cpp:159] Memory required for data: 2184080
I0507 01:47:35.462687 30763 layer_factory.hpp:77] Creating layer conv3
I0507 01:47:35.462694 30763 net.cpp:94] Creating Layer conv3
I0507 01:47:35.462698 30763 net.cpp:435] conv3 <- pool2
I0507 01:47:35.462703 30763 net.cpp:409] conv3 -> conv3
I0507 01:47:35.468327 30763 net.cpp:144] Setting up conv3
I0507 01:47:35.468341 30763 net.cpp:151] Top shape: 20 64 5 5 (32000)
I0507 01:47:35.468344 30763 net.cpp:159] Memory required for data: 2312080
I0507 01:47:35.468353 30763 layer_factory.hpp:77] Creating layer relu3
I0507 01:47:35.468358 30763 net.cpp:94] Creating Layer relu3
I0507 01:47:35.468361 30763 net.cpp:435] relu3 <- conv3
I0507 01:47:35.468366 30763 net.cpp:396] relu3 -> conv3 (in-place)
I0507 01:47:35.468374 30763 net.cpp:144] Setting up relu3
I0507 01:47:35.468377 30763 net.cpp:151] Top shape: 20 64 5 5 (32000)
I0507 01:47:35.468386 30763 net.cpp:159] Memory required for data: 2440080
I0507 01:47:35.468390 30763 layer_factory.hpp:77] Creating layer conv4
I0507 01:47:35.468399 30763 net.cpp:94] Creating Layer conv4
I0507 01:47:35.468402 30763 net.cpp:435] conv4 <- conv3
I0507 01:47:35.468407 30763 net.cpp:409] conv4 -> conv4
I0507 01:47:35.473263 30763 net.cpp:144] Setting up conv4
I0507 01:47:35.473278 30763 net.cpp:151] Top shape: 20 64 5 5 (32000)
I0507 01:47:35.473281 30763 net.cpp:159] Memory required for data: 2568080
I0507 01:47:35.473287 30763 layer_factory.hpp:77] Creating layer relu4
I0507 01:47:35.473294 30763 net.cpp:94] Creating Layer relu4
I0507 01:47:35.473297 30763 net.cpp:435] relu4 <- conv4
I0507 01:47:35.473301 30763 net.cpp:396] relu4 -> conv4 (in-place)
I0507 01:47:35.473309 30763 net.cpp:144] Setting up relu4
I0507 01:47:35.473312 30763 net.cpp:151] Top shape: 20 64 5 5 (32000)
I0507 01:47:35.473315 30763 net.cpp:159] Memory required for data: 2696080
I0507 01:47:35.473318 30763 layer_factory.hpp:77] Creating layer conv5
I0507 01:47:35.473326 30763 net.cpp:94] Creating Layer conv5
I0507 01:47:35.473330 30763 net.cpp:435] conv5 <- conv4
I0507 01:47:35.473335 30763 net.cpp:409] conv5 -> conv5
I0507 01:47:35.477726 30763 net.cpp:144] Setting up conv5
I0507 01:47:35.477740 30763 net.cpp:151] Top shape: 20 64 5 5 (32000)
I0507 01:47:35.477743 30763 net.cpp:159] Memory required for data: 2824080
I0507 01:47:35.477751 30763 layer_factory.hpp:77] Creating layer relu5
I0507 01:47:35.477757 30763 net.cpp:94] Creating Layer relu5
I0507 01:47:35.477761 30763 net.cpp:435] relu5 <- conv5
I0507 01:47:35.477766 30763 net.cpp:396] relu5 -> conv5 (in-place)
I0507 01:47:35.477772 30763 net.cpp:144] Setting up relu5
I0507 01:47:35.477777 30763 net.cpp:151] Top shape: 20 64 5 5 (32000)
I0507 01:47:35.477779 30763 net.cpp:159] Memory required for data: 2952080
I0507 01:47:35.477782 30763 layer_factory.hpp:77] Creating layer pool5
I0507 01:47:35.477787 30763 net.cpp:94] Creating Layer pool5
I0507 01:47:35.477790 30763 net.cpp:435] pool5 <- conv5
I0507 01:47:35.477794 30763 net.cpp:409] pool5 -> pool5
I0507 01:47:35.477828 30763 net.cpp:144] Setting up pool5
I0507 01:47:35.477835 30763 net.cpp:151] Top shape: 20 64 2 2 (5120)
I0507 01:47:35.477838 30763 net.cpp:159] Memory required for data: 2972560
I0507 01:47:35.477841 30763 layer_factory.hpp:77] Creating layer ip1
I0507 01:47:35.477849 30763 net.cpp:94] Creating Layer ip1
I0507 01:47:35.477851 30763 net.cpp:435] ip1 <- pool5
I0507 01:47:35.477856 30763 net.cpp:409] ip1 -> ip1
I0507 01:47:35.478363 30763 net.cpp:144] Setting up ip1
I0507 01:47:35.478370 30763 net.cpp:151] Top shape: 20 64 (1280)
I0507 01:47:35.478374 30763 net.cpp:159] Memory required for data: 2977680
I0507 01:47:35.478379 30763 layer_factory.hpp:77] Creating layer ip2
I0507 01:47:35.478385 30763 net.cpp:94] Creating Layer ip2
I0507 01:47:35.478389 30763 net.cpp:435] ip2 <- ip1
I0507 01:47:35.478394 30763 net.cpp:409] ip2 -> ip2
I0507 01:47:35.478606 30763 net.cpp:144] Setting up ip2
I0507 01:47:35.478613 30763 net.cpp:151] Top shape: 20 64 (1280)
I0507 01:47:35.478616 30763 net.cpp:159] Memory required for data: 2982800
I0507 01:47:35.478621 30763 layer_factory.hpp:77] Creating layer ip3
I0507 01:47:35.478627 30763 net.cpp:94] Creating Layer ip3
I0507 01:47:35.478631 30763 net.cpp:435] ip3 <- ip2
I0507 01:47:35.478636 30763 net.cpp:409] ip3 -> ip3
I0507 01:47:35.478821 30763 net.cpp:144] Setting up ip3
I0507 01:47:35.478827 30763 net.cpp:151] Top shape: 20 50 (1000)
I0507 01:47:35.478830 30763 net.cpp:159] Memory required for data: 2986800
I0507 01:47:35.478835 30763 layer_factory.hpp:77] Creating layer loss
I0507 01:47:35.478842 30763 net.cpp:94] Creating Layer loss
I0507 01:47:35.478845 30763 net.cpp:435] loss <- ip3
I0507 01:47:35.478849 30763 net.cpp:435] loss <- label
I0507 01:47:35.478853 30763 net.cpp:409] loss -> loss
I0507 01:47:35.478860 30763 layer_factory.hpp:77] Creating layer loss
…
I0507 01:47:35.480172 30763 solver.cpp:181] Creating test net (#0) specified by net file: ./protocol/dis_50_100_dimension.protocol_distribution
I0507 01:47:35.480198 30763 net.cpp:323] The NetState phase (1) differed from the phase (0) specified by a rule in layer parameters
I0507 01:47:35.480298 30763 net.cpp:52] Initializing net from parameters: 
state {
  phase: TEST
}
layer {
  name: "intercept"
  type: "HDF5Data"
  top: "data"
  top: "label"
  include {
    phase: TEST
  }
  hdf5_data_param {
    source: "/home/purduethu/scratch/radon/d/deng106/CNNStatisticalModel/distributions/input/50_distributions_100_sample_size_test-distributions-path.txt"
    batch_size: 20
  }
}
layer {
  name: "conv1"
  type: "Convolution"
  bottom: "data"
  top: "conv1"
  param {
    lr_mult: 1
  }
  param {
    lr_mult: 2
  }
  convolution_param {
    num_output: 64
    pad: 2
    kernel_size: 5
    stride: 1
    weight_filler {
      type: "gaussian"
      std: 0.0001
    }
    bias_filler {
      type: "constant"
    }
  }
}
layer {
  name: "relu1"
  type: "ReLU"
  bottom: "conv1"
  top: "conv1"
}
layer {
  name: "conv2"
  type: "Convolution"
  bottom: "conv1"
  top: "conv2"
  param {
    lr_mult: 1
  }
  param {
    lr_mult: 2
  }
  convolution_param {
    num_output: 64
    pad: 2
    kernel_size: 5
    stride: 1
    weight_filler {
      type: "gaussian"
      std: 0.01
    }
    bias_filler {
      type: "constant"
    }
  }
}
layer {
  name: "relu2"
  type: "ReLU"
  bottom: "conv2"
  top: "conv2"
}
layer {
  name: "pool2"
  type: "Pooling"
  bottom: "conv2"
  top: "pool2"
  pooling_param {
    pool: MAX
    kernel_size: 3
    stride: 2
  }
}
layer {
  name: "conv3"
  type: "Convolution"
  bottom: "pool2"
  top: "conv3"
  param {
    lr_mult: 1
  }
  param {
    lr_mult: 2
  }
  convolution_param {
    num_output: 64
    pad: 2
    kernel_size: 5
    stride: 1
    weight_filler {
      type: "gaussian"
      std: 0.01
    }
    bias_filler {
      type: "constant"
    }
  }
}
layer {
  name: "relu3"
  type: "ReLU"
  bottom: "conv3"
  top: "conv3"
}
layer {
  name: "conv4"
  type: "Convolution"
  bottom: "conv3"
  top: "conv4"
  param {
    lr_mult: 1
  }
  param {
    lr_mult: 2
  }
  convolution_param {
    num_output: 64
    pad: 2
    kernel_size: 5
    stride: 1
    weight_filler {
      type: "gaussian"
      std: 0.01
    }
    bias_filler {
      type: "constant"
    }
  }
}
layer {
  name: "relu4"
  type: "ReLU"
  bottom: "conv4"
  top: "conv4"
}
layer {
  name: "conv5"
  type: "Convolution"
  bottom: "conv4"
  top: "conv5"
  param {
    lr_mult: 1
  }
  param {
    lr_mult: 2
  }
  convolution_param {
    num_output: 64
    pad: 2
    kernel_size: 5
    stride: 1
    weight_filler {
      type: "gaussian"
      std: 0.01
    }
    bias_filler {
      type: "constant"
    }
  }
}
layer {
  name: "relu5"
  type: "ReLU"
  bottom: "conv5"
  top: "conv5"
}
layer {
  name: "pool5"
  type: "Pooling"
  bottom: "conv5"
  top: "pool5"
  pooling_param {
    pool: AVE
    kernel_size: 3
    stride: 2
  }
}
layer {
  name: "ip1"
  type: "InnerProduct"
  bottom: "pool5"
  top: "ip1"
  param {
    lr_mult: 1
  }
  param {
    lr_mult: 2
  }
  inner_product_param {
    num_output: 64
    weight_filler {
      type: "gaussian"
      std: 0.1
    }
    bias_filler {
      type: "constant"
    }
  }
}
layer {
  name: "ip2"
  type: "InnerProduct"
  bottom: "ip1"
  top: "ip2"
  param {
    lr_mult: 1
  }
  param {
    lr_mult: 2
  }
  inner_product_param {
    num_output: 64
    weight_filler {
      type: "gaussian"
      std: 0.1
    }
    bias_filler {
      type: "constant"
    }
  }
}
layer {
  name: "ip3"
  type: "InnerProduct"
  bottom: "ip2"
  top: "ip3"
  param {
    lr_mult: 1
  }
  param {
    lr_mult: 2
  }
  inner_product_param {
    num_output: 50
    weight_filler {
      type: "gaussian"
      std: 0.1
    }
    bias_filler {
      type: "constant"
    }
  }
}
layer {
  name: "accuracy"
  type: "Accuracy"
  bottom: "ip3"
  bottom: "label"
  top: "accuracy"
  include {
    phase: TEST
  }
}
layer {
  name: "loss"
  type: "SoftmaxWithLoss"
  bottom: "ip3"
  bottom: "label"
  top: "loss"
}
I0507 01:47:35.480360 30763 layer_factory.hpp:77] Creating layer intercept
I0507 01:47:35.480368 30763 net.cpp:94] Creating Layer intercept
I0507 01:47:35.480373 30763 net.cpp:409] intercept -> data
I0507 01:47:35.480379 30763 net.cpp:409] intercept -> label
I0507 01:47:35.480386 30763 hdf5_data_layer.cpp:79] Loading list of HDF5 filenames from: /home/purduethu/scratch/radon/d/deng106/CNNStatisticalModel/distributions/input/50_distributions_100_sample_size_test-distributions-path.txt
I0507 01:47:35.480404 30763 hdf5_data_layer.cpp:93] Number of HDF5 files: 1
I0507 01:47:35.521420 30763 net.cpp:144] Setting up intercept
I0507 01:47:35.521451 30763 net.cpp:151] Top shape: 20 1 10 10 (2000)
I0507 01:47:35.521457 30763 net.cpp:151] Top shape: 20 (20)
I0507 01:47:35.521461 30763 net.cpp:159] Memory required for data: 8080
I0507 01:47:35.521466 30763 layer_factory.hpp:77] Creating layer label_intercept_1_split
I0507 01:47:35.521486 30763 net.cpp:94] Creating Layer label_intercept_1_split
I0507 01:47:35.521491 30763 net.cpp:435] label_intercept_1_split <- label
I0507 01:47:35.521497 30763 net.cpp:409] label_intercept_1_split -> label_intercept_1_split_0
I0507 01:47:35.521505 30763 net.cpp:409] label_intercept_1_split -> label_intercept_1_split_1
I0507 01:47:35.521546 30763 net.cpp:144] Setting up label_intercept_1_split
I0507 01:47:35.521553 30763 net.cpp:151] Top shape: 20 (20)
I0507 01:47:35.521556 30763 net.cpp:151] Top shape: 20 (20)
I0507 01:47:35.521559 30763 net.cpp:159] Memory required for data: 8240
I0507 01:47:35.521562 30763 layer_factory.hpp:77] Creating layer conv1
I0507 01:47:35.521574 30763 net.cpp:94] Creating Layer conv1
I0507 01:47:35.521579 30763 net.cpp:435] conv1 <- data
I0507 01:47:35.521582 30763 net.cpp:409] conv1 -> conv1
I0507 01:47:35.522384 30763 net.cpp:144] Setting up conv1
I0507 01:47:35.522397 30763 net.cpp:151] Top shape: 20 64 10 10 (128000)
I0507 01:47:35.522400 30763 net.cpp:159] Memory required for data: 520240
I0507 01:47:35.522409 30763 layer_factory.hpp:77] Creating layer relu1
I0507 01:47:35.522416 30763 net.cpp:94] Creating Layer relu1
I0507 01:47:35.522420 30763 net.cpp:435] relu1 <- conv1
I0507 01:47:35.522424 30763 net.cpp:396] relu1 -> conv1 (in-place)
I0507 01:47:35.522431 30763 net.cpp:144] Setting up relu1
I0507 01:47:35.522435 30763 net.cpp:151] Top shape: 20 64 10 10 (128000)
I0507 01:47:35.522439 30763 net.cpp:159] Memory required for data: 1032240
I0507 01:47:35.522449 30763 layer_factory.hpp:77] Creating layer conv2
I0507 01:47:35.522457 30763 net.cpp:94] Creating Layer conv2
I0507 01:47:35.522461 30763 net.cpp:435] conv2 <- conv1
I0507 01:47:35.522465 30763 net.cpp:409] conv2 -> conv2
I0507 01:47:35.526526 30763 net.cpp:144] Setting up conv2
I0507 01:47:35.526540 30763 net.cpp:151] Top shape: 20 64 10 10 (128000)
I0507 01:47:35.526543 30763 net.cpp:159] Memory required for data: 1544240
I0507 01:47:35.526551 30763 layer_factory.hpp:77] Creating layer relu2
I0507 01:47:35.526557 30763 net.cpp:94] Creating Layer relu2
I0507 01:47:35.526561 30763 net.cpp:435] relu2 <- conv2
I0507 01:47:35.526566 30763 net.cpp:396] relu2 -> conv2 (in-place)
I0507 01:47:35.526571 30763 net.cpp:144] Setting up relu2
I0507 01:47:35.526576 30763 net.cpp:151] Top shape: 20 64 10 10 (128000)
I0507 01:47:35.526578 30763 net.cpp:159] Memory required for data: 2056240
I0507 01:47:35.526582 30763 layer_factory.hpp:77] Creating layer pool2
I0507 01:47:35.526589 30763 net.cpp:94] Creating Layer pool2
I0507 01:47:35.526592 30763 net.cpp:435] pool2 <- conv2
I0507 01:47:35.526597 30763 net.cpp:409] pool2 -> pool2
I0507 01:47:35.526650 30763 net.cpp:144] Setting up pool2
I0507 01:47:35.526657 30763 net.cpp:151] Top shape: 20 64 5 5 (32000)
I0507 01:47:35.526660 30763 net.cpp:159] Memory required for data: 2184240
I0507 01:47:35.526664 30763 layer_factory.hpp:77] Creating layer conv3
I0507 01:47:35.526674 30763 net.cpp:94] Creating Layer conv3
I0507 01:47:35.526676 30763 net.cpp:435] conv3 <- pool2
I0507 01:47:35.526681 30763 net.cpp:409] conv3 -> conv3
I0507 01:47:35.531038 30763 net.cpp:144] Setting up conv3
I0507 01:47:35.531051 30763 net.cpp:151] Top shape: 20 64 5 5 (32000)
I0507 01:47:35.531055 30763 net.cpp:159] Memory required for data: 2312240
I0507 01:47:35.531064 30763 layer_factory.hpp:77] Creating layer relu3
I0507 01:47:35.531072 30763 net.cpp:94] Creating Layer relu3
I0507 01:47:35.531076 30763 net.cpp:435] relu3 <- conv3
I0507 01:47:35.531081 30763 net.cpp:396] relu3 -> conv3 (in-place)
I0507 01:47:35.531088 30763 net.cpp:144] Setting up relu3
I0507 01:47:35.531093 30763 net.cpp:151] Top shape: 20 64 5 5 (32000)
I0507 01:47:35.531096 30763 net.cpp:159] Memory required for data: 2440240
I0507 01:47:35.531098 30763 layer_factory.hpp:77] Creating layer conv4
I0507 01:47:35.531107 30763 net.cpp:94] Creating Layer conv4
I0507 01:47:35.531111 30763 net.cpp:435] conv4 <- conv3
I0507 01:47:35.531116 30763 net.cpp:409] conv4 -> conv4
I0507 01:47:35.534626 30763 net.cpp:144] Setting up conv4
I0507 01:47:35.534638 30763 net.cpp:151] Top shape: 20 64 5 5 (32000)
I0507 01:47:35.534642 30763 net.cpp:159] Memory required for data: 2568240
I0507 01:47:35.534648 30763 layer_factory.hpp:77] Creating layer relu4
I0507 01:47:35.534654 30763 net.cpp:94] Creating Layer relu4
I0507 01:47:35.534658 30763 net.cpp:435] relu4 <- conv4
I0507 01:47:35.534662 30763 net.cpp:396] relu4 -> conv4 (in-place)
I0507 01:47:35.534669 30763 net.cpp:144] Setting up relu4
I0507 01:47:35.534673 30763 net.cpp:151] Top shape: 20 64 5 5 (32000)
I0507 01:47:35.534677 30763 net.cpp:159] Memory required for data: 2696240
I0507 01:47:35.534679 30763 layer_factory.hpp:77] Creating layer conv5
I0507 01:47:35.534687 30763 net.cpp:94] Creating Layer conv5
I0507 01:47:35.534690 30763 net.cpp:435] conv5 <- conv4
I0507 01:47:35.534696 30763 net.cpp:409] conv5 -> conv5
I0507 01:47:35.538648 30763 net.cpp:144] Setting up conv5
I0507 01:47:35.538661 30763 net.cpp:151] Top shape: 20 64 5 5 (32000)
I0507 01:47:35.538666 30763 net.cpp:159] Memory required for data: 2824240
I0507 01:47:35.538673 30763 layer_factory.hpp:77] Creating layer relu5
I0507 01:47:35.538679 30763 net.cpp:94] Creating Layer relu5
I0507 01:47:35.538682 30763 net.cpp:435] relu5 <- conv5
I0507 01:47:35.538689 30763 net.cpp:396] relu5 -> conv5 (in-place)
I0507 01:47:35.538696 30763 net.cpp:144] Setting up relu5
I0507 01:47:35.538700 30763 net.cpp:151] Top shape: 20 64 5 5 (32000)
I0507 01:47:35.538703 30763 net.cpp:159] Memory required for data: 2952240
I0507 01:47:35.538709 30763 layer_factory.hpp:77] Creating layer pool5
I0507 01:47:35.538715 30763 net.cpp:94] Creating Layer pool5
I0507 01:47:35.538718 30763 net.cpp:435] pool5 <- conv5
I0507 01:47:35.538724 30763 net.cpp:409] pool5 -> pool5
I0507 01:47:35.538760 30763 net.cpp:144] Setting up pool5
I0507 01:47:35.538767 30763 net.cpp:151] Top shape: 20 64 2 2 (5120)
I0507 01:47:35.538770 30763 net.cpp:159] Memory required for data: 2972720
I0507 01:47:35.538774 30763 layer_factory.hpp:77] Creating layer ip1
I0507 01:47:35.538780 30763 net.cpp:94] Creating Layer ip1
I0507 01:47:35.538784 30763 net.cpp:435] ip1 <- pool5
I0507 01:47:35.538789 30763 net.cpp:409] ip1 -> ip1
I0507 01:47:35.539316 30763 net.cpp:144] Setting up ip1
I0507 01:47:35.539324 30763 net.cpp:151] Top shape: 20 64 (1280)
I0507 01:47:35.539327 30763 net.cpp:159] Memory required for data: 2977840
I0507 01:47:35.539332 30763 layer_factory.hpp:77] Creating layer ip2
I0507 01:47:35.539340 30763 net.cpp:94] Creating Layer ip2
I0507 01:47:35.539342 30763 net.cpp:435] ip2 <- ip1
I0507 01:47:35.539347 30763 net.cpp:409] ip2 -> ip2
I0507 01:47:35.539567 30763 net.cpp:144] Setting up ip2
I0507 01:47:35.539574 30763 net.cpp:151] Top shape: 20 64 (1280)
I0507 01:47:35.539577 30763 net.cpp:159] Memory required for data: 2982960
I0507 01:47:35.539582 30763 layer_factory.hpp:77] Creating layer ip3
I0507 01:47:35.539590 30763 net.cpp:94] Creating Layer ip3
I0507 01:47:35.539593 30763 net.cpp:435] ip3 <- ip2
I0507 01:47:35.539598 30763 net.cpp:409] ip3 -> ip3
I0507 01:47:35.539790 30763 net.cpp:144] Setting up ip3
I0507 01:47:35.539798 30763 net.cpp:151] Top shape: 20 50 (1000)
I0507 01:47:35.539801 30763 net.cpp:159] Memory required for data: 2986960
I0507 01:47:35.539806 30763 layer_factory.hpp:77] Creating layer ip3_ip3_0_split
I0507 01:47:35.539810 30763 net.cpp:94] Creating Layer ip3_ip3_0_split
I0507 01:47:35.539813 30763 net.cpp:435] ip3_ip3_0_split <- ip3
I0507 01:47:35.539819 30763 net.cpp:409] ip3_ip3_0_split -> ip3_ip3_0_split_0
I0507 01:47:35.539824 30763 net.cpp:409] ip3_ip3_0_split -> ip3_ip3_0_split_1
I0507 01:47:35.539863 30763 net.cpp:144] Setting up ip3_ip3_0_split
I0507 01:47:35.539868 30763 net.cpp:151] Top shape: 20 50 (1000)
I0507 01:47:35.539872 30763 net.cpp:151] Top shape: 20 50 (1000)
I0507 01:47:35.539875 30763 net.cpp:159] Memory required for data: 2994960
I0507 01:47:35.539878 30763 layer_factory.hpp:77] Creating layer accuracy
I0507 01:47:35.539885 30763 net.cpp:94] Creating Layer accuracy
I0507 01:47:35.539887 30763 net.cpp:435] accuracy <- ip3_ip3_0_split_0
I0507 01:47:35.539891 30763 net.cpp:435] accuracy <- label_intercept_1_split_0
I0507 01:47:35.539896 30763 net.cpp:409] accuracy -> accuracy
…
