…
I0505 05:59:13.874130  3701 net.cpp:323] The NetState phase (0) differed from the phase (1) specified by a rule in layer intercept
I0505 05:59:13.874145  3701 net.cpp:323] The NetState phase (0) differed from the phase (1) specified by a rule in layer accuracy
I0505 05:59:13.874224  3701 net.cpp:52] Initializing net from parameters: 
state {
  phase: TRAIN
}
layer {
  name: "parameters"
  type: "HDF5Data"
  top: "data"
  top: "label"
  include {
    phase: TRAIN
  }
  hdf5_data_param {
    source: "/home/purduethu/scratch/radon/d/deng106/CNNStatisticalModel/distributions/input/5_distributions_400_sample_size_train-distributions-path.txt"
    batch_size: 20
  }
}
layer {
  name: "conv1"
  type: "Convolution"
  bottom: "data"
  top: "conv1"
  param {
    lr_mult: 1
  }
  param {
    lr_mult: 2
  }
  convolution_param {
    num_output: 64
    pad: 2
    kernel_size: 5
    stride: 1
    weight_filler {
      type: "gaussian"
      std: 0.0001
    }
    bias_filler {
      type: "constant"
    }
  }
}
layer {
  name: "relu1"
  type: "ReLU"
  bottom: "conv1"
  top: "conv1"
}
layer {
  name: "pool1"
  type: "Pooling"
  bottom: "conv1"
  top: "pool1"
  pooling_param {
    pool: MAX
    kernel_size: 3
    stride: 2
  }
}
layer {
  name: "conv2"
  type: "Convolution"
  bottom: "pool1"
  top: "conv2"
  param {
    lr_mult: 1
  }
  param {
    lr_mult: 2
  }
  convolution_param {
    num_output: 128
    pad: 2
    kernel_size: 5
    stride: 1
    weight_filler {
      type: "gaussian"
      std: 0.01
    }
    bias_filler {
      type: "constant"
    }
  }
}
layer {
  name: "relu2"
  type: "ReLU"
  bottom: "conv2"
  top: "conv2"
}
layer {
  name: "conv3"
  type: "Convolution"
  bottom: "conv2"
  top: "conv3"
  param {
    lr_mult: 1
  }
  param {
    lr_mult: 2
  }
  convolution_param {
    num_output: 128
    pad: 2
    kernel_size: 5
    stride: 1
    weight_filler {
      type: "gaussian"
      std: 0.01
    }
    bias_filler {
      type: "constant"
    }
  }
}
layer {
  name: "relu3"
  type: "ReLU"
  bottom: "conv3"
  top: "conv3"
}
layer {
  name: "pool3"
  type: "Pooling"
  bottom: "conv3"
  top: "pool3"
  pooling_param {
    pool: AVE
    kernel_size: 3
    stride: 2
  }
}
layer {
  name: "ip1"
  type: "InnerProduct"
  bottom: "pool3"
  top: "ip1"
  param {
    lr_mult: 1
  }
  param {
    lr_mult: 2
  }
  inner_product_param {
    num_output: 512
    weight_filler {
      type: "gaussian"
      std: 0.1
    }
    bias_filler {
      type: "constant"
    }
  }
}
layer {
  name: "ip2"
  type: "InnerProduct"
  bottom: "ip1"
  top: "ip2"
  param {
    lr_mult: 1
  }
  param {
    lr_mult: 2
  }
  inner_product_param {
    num_output: 256
    weight_filler {
      type: "gaussian"
      std: 0.1
    }
    bias_filler {
      type: "constant"
    }
  }
}
layer {
  name: "ip3"
  type: "InnerProduct"
  bottom: "ip2"
  top: "ip3"
  param {
    lr_mult: 1
  }
  param {
    lr_mult: 2
  }
  inner_product_param {
    num_output: 50
    weight_filler {
      type: "gaussian"
      std: 0.1
    }
    bias_filler {
      type: "constant"
    }
  }
}
layer {
  name: "loss"
  type: "SoftmaxWithLoss"
  bottom: "ip3"
  bottom: "label"
  top: "loss"
}
I0505 05:59:13.874291  3701 layer_factory.hpp:77] Creating layer parameters
I0505 05:59:13.874306  3701 net.cpp:94] Creating Layer parameters
I0505 05:59:13.874313  3701 net.cpp:409] parameters -> data
I0505 05:59:13.874341  3701 net.cpp:409] parameters -> label
I0505 05:59:13.874352  3701 hdf5_data_layer.cpp:79] Loading list of HDF5 filenames from: /home/purduethu/scratch/radon/d/deng106/CNNStatisticalModel/distributions/input/5_distributions_400_sample_size_train-distributions-path.txt
I0505 05:59:13.874375  3701 hdf5_data_layer.cpp:93] Number of HDF5 files: 1
I0505 05:59:13.874883  3701 hdf5.cpp:32] Datatype class: H5T_FLOAT
I0505 05:59:13.938448  3701 hdf5.cpp:35] Datatype class: H5T_INTEGER
I0505 05:59:13.939579  3701 net.cpp:144] Setting up parameters
I0505 05:59:13.939596  3701 net.cpp:151] Top shape: 20 1 20 20 (8000)
I0505 05:59:13.939602  3701 net.cpp:151] Top shape: 20 (20)
I0505 05:59:13.939605  3701 net.cpp:159] Memory required for data: 32080
I0505 05:59:13.939613  3701 layer_factory.hpp:77] Creating layer conv1
I0505 05:59:13.939633  3701 net.cpp:94] Creating Layer conv1
I0505 05:59:13.939638  3701 net.cpp:435] conv1 <- data
I0505 05:59:13.939651  3701 net.cpp:409] conv1 -> conv1
I0505 05:59:13.944432  3701 net.cpp:144] Setting up conv1
I0505 05:59:13.944447  3701 net.cpp:151] Top shape: 20 64 20 20 (512000)
I0505 05:59:13.944452  3701 net.cpp:159] Memory required for data: 2080080
I0505 05:59:13.944463  3701 layer_factory.hpp:77] Creating layer relu1
I0505 05:59:13.944471  3701 net.cpp:94] Creating Layer relu1
I0505 05:59:13.944475  3701 net.cpp:435] relu1 <- conv1
I0505 05:59:13.944480  3701 net.cpp:396] relu1 -> conv1 (in-place)
I0505 05:59:13.944495  3701 net.cpp:144] Setting up relu1
I0505 05:59:13.944501  3701 net.cpp:151] Top shape: 20 64 20 20 (512000)
I0505 05:59:13.944505  3701 net.cpp:159] Memory required for data: 4128080
I0505 05:59:13.944509  3701 layer_factory.hpp:77] Creating layer pool1
I0505 05:59:13.944516  3701 net.cpp:94] Creating Layer pool1
I0505 05:59:13.944519  3701 net.cpp:435] pool1 <- conv1
I0505 05:59:13.944525  3701 net.cpp:409] pool1 -> pool1
I0505 05:59:13.944574  3701 net.cpp:144] Setting up pool1
I0505 05:59:13.944583  3701 net.cpp:151] Top shape: 20 64 10 10 (128000)
I0505 05:59:13.944586  3701 net.cpp:159] Memory required for data: 4640080
I0505 05:59:13.944591  3701 layer_factory.hpp:77] Creating layer conv2
I0505 05:59:13.944599  3701 net.cpp:94] Creating Layer conv2
I0505 05:59:13.944603  3701 net.cpp:435] conv2 <- pool1
I0505 05:59:13.944608  3701 net.cpp:409] conv2 -> conv2
I0505 05:59:13.954824  3701 net.cpp:144] Setting up conv2
I0505 05:59:13.954839  3701 net.cpp:151] Top shape: 20 128 10 10 (256000)
I0505 05:59:13.954844  3701 net.cpp:159] Memory required for data: 5664080
I0505 05:59:13.954852  3701 layer_factory.hpp:77] Creating layer relu2
I0505 05:59:13.954859  3701 net.cpp:94] Creating Layer relu2
I0505 05:59:13.954862  3701 net.cpp:435] relu2 <- conv2
I0505 05:59:13.954866  3701 net.cpp:396] relu2 -> conv2 (in-place)
I0505 05:59:13.954874  3701 net.cpp:144] Setting up relu2
I0505 05:59:13.954879  3701 net.cpp:151] Top shape: 20 128 10 10 (256000)
I0505 05:59:13.954882  3701 net.cpp:159] Memory required for data: 6688080
I0505 05:59:13.954885  3701 layer_factory.hpp:77] Creating layer conv3
I0505 05:59:13.954893  3701 net.cpp:94] Creating Layer conv3
I0505 05:59:13.954897  3701 net.cpp:435] conv3 <- conv2
I0505 05:59:13.954901  3701 net.cpp:409] conv3 -> conv3
I0505 05:59:13.972203  3701 net.cpp:144] Setting up conv3
I0505 05:59:13.972218  3701 net.cpp:151] Top shape: 20 128 10 10 (256000)
I0505 05:59:13.972223  3701 net.cpp:159] Memory required for data: 7712080
I0505 05:59:13.972231  3701 layer_factory.hpp:77] Creating layer relu3
I0505 05:59:13.972244  3701 net.cpp:94] Creating Layer relu3
I0505 05:59:13.972249  3701 net.cpp:435] relu3 <- conv3
I0505 05:59:13.972254  3701 net.cpp:396] relu3 -> conv3 (in-place)
I0505 05:59:13.972260  3701 net.cpp:144] Setting up relu3
I0505 05:59:13.972265  3701 net.cpp:151] Top shape: 20 128 10 10 (256000)
I0505 05:59:13.972270  3701 net.cpp:159] Memory required for data: 8736080
I0505 05:59:13.972272  3701 layer_factory.hpp:77] Creating layer pool3
I0505 05:59:13.972278  3701 net.cpp:94] Creating Layer pool3
I0505 05:59:13.972290  3701 net.cpp:435] pool3 <- conv3
I0505 05:59:13.972295  3701 net.cpp:409] pool3 -> pool3
I0505 05:59:13.972328  3701 net.cpp:144] Setting up pool3
I0505 05:59:13.972335  3701 net.cpp:151] Top shape: 20 128 5 5 (64000)
I0505 05:59:13.972339  3701 net.cpp:159] Memory required for data: 8992080
I0505 05:59:13.972342  3701 layer_factory.hpp:77] Creating layer ip1
I0505 05:59:13.972352  3701 net.cpp:94] Creating Layer ip1
I0505 05:59:13.972357  3701 net.cpp:435] ip1 <- pool3
I0505 05:59:13.972360  3701 net.cpp:409] ip1 -> ip1
I0505 05:59:14.013725  3701 net.cpp:144] Setting up ip1
I0505 05:59:14.013743  3701 net.cpp:151] Top shape: 20 512 (10240)
I0505 05:59:14.013747  3701 net.cpp:159] Memory required for data: 9033040
I0505 05:59:14.013754  3701 layer_factory.hpp:77] Creating layer ip2
I0505 05:59:14.013761  3701 net.cpp:94] Creating Layer ip2
I0505 05:59:14.013766  3701 net.cpp:435] ip2 <- ip1
I0505 05:59:14.013770  3701 net.cpp:409] ip2 -> ip2
I0505 05:59:14.017031  3701 net.cpp:144] Setting up ip2
I0505 05:59:14.017040  3701 net.cpp:151] Top shape: 20 256 (5120)
I0505 05:59:14.017043  3701 net.cpp:159] Memory required for data: 9053520
I0505 05:59:14.017051  3701 layer_factory.hpp:77] Creating layer ip3
I0505 05:59:14.017057  3701 net.cpp:94] Creating Layer ip3
I0505 05:59:14.017061  3701 net.cpp:435] ip3 <- ip2
I0505 05:59:14.017066  3701 net.cpp:409] ip3 -> ip3
I0505 05:59:14.018100  3701 net.cpp:144] Setting up ip3
I0505 05:59:14.018112  3701 net.cpp:151] Top shape: 20 50 (1000)
I0505 05:59:14.018116  3701 net.cpp:159] Memory required for data: 9057520
I0505 05:59:14.018122  3701 layer_factory.hpp:77] Creating layer loss
I0505 05:59:14.018128  3701 net.cpp:94] Creating Layer loss
I0505 05:59:14.018132  3701 net.cpp:435] loss <- ip3
I0505 05:59:14.018136  3701 net.cpp:435] loss <- label
I0505 05:59:14.018142  3701 net.cpp:409] loss -> loss
I0505 05:59:14.018153  3701 layer_factory.hpp:77] Creating layer loss
…
I0505 05:59:14.018585  3701 solver.cpp:181] Creating test net (#0) specified by net file: ./protocol/dis_5_400_dimension.protocol_distribution
I0505 05:59:14.018610  3701 net.cpp:323] The NetState phase (1) differed from the phase (0) specified by a rule in layer parameters
I0505 05:59:14.018698  3701 net.cpp:52] Initializing net from parameters: 
state {
  phase: TEST
}
layer {
  name: "intercept"
  type: "HDF5Data"
  top: "data"
  top: "label"
  include {
    phase: TEST
  }
  hdf5_data_param {
    source: "/home/purduethu/scratch/radon/d/deng106/CNNStatisticalModel/distributions/input/5_distributions_400_sample_size_test-distributions-path.txt"
    batch_size: 20
  }
}
layer {
  name: "conv1"
  type: "Convolution"
  bottom: "data"
  top: "conv1"
  param {
    lr_mult: 1
  }
  param {
    lr_mult: 2
  }
  convolution_param {
    num_output: 64
    pad: 2
    kernel_size: 5
    stride: 1
    weight_filler {
      type: "gaussian"
      std: 0.0001
    }
    bias_filler {
      type: "constant"
    }
  }
}
layer {
  name: "relu1"
  type: "ReLU"
  bottom: "conv1"
  top: "conv1"
}
layer {
  name: "pool1"
  type: "Pooling"
  bottom: "conv1"
  top: "pool1"
  pooling_param {
    pool: MAX
    kernel_size: 3
    stride: 2
  }
}
layer {
  name: "conv2"
  type: "Convolution"
  bottom: "pool1"
  top: "conv2"
  param {
    lr_mult: 1
  }
  param {
    lr_mult: 2
  }
  convolution_param {
    num_output: 128
    pad: 2
    kernel_size: 5
    stride: 1
    weight_filler {
      type: "gaussian"
      std: 0.01
    }
    bias_filler {
      type: "constant"
    }
  }
}
layer {
  name: "relu2"
  type: "ReLU"
  bottom: "conv2"
  top: "conv2"
}
layer {
  name: "conv3"
  type: "Convolution"
  bottom: "conv2"
  top: "conv3"
  param {
    lr_mult: 1
  }
  param {
    lr_mult: 2
  }
  convolution_param {
    num_output: 128
    pad: 2
    kernel_size: 5
    stride: 1
    weight_filler {
      type: "gaussian"
      std: 0.01
    }
    bias_filler {
      type: "constant"
    }
  }
}
layer {
  name: "relu3"
  type: "ReLU"
  bottom: "conv3"
  top: "conv3"
}
layer {
  name: "pool3"
  type: "Pooling"
  bottom: "conv3"
  top: "pool3"
  pooling_param {
    pool: AVE
    kernel_size: 3
    stride: 2
  }
}
layer {
  name: "ip1"
  type: "InnerProduct"
  bottom: "pool3"
  top: "ip1"
  param {
    lr_mult: 1
  }
  param {
    lr_mult: 2
  }
  inner_product_param {
    num_output: 512
    weight_filler {
      type: "gaussian"
      std: 0.1
    }
    bias_filler {
      type: "constant"
    }
  }
}
layer {
  name: "ip2"
  type: "InnerProduct"
  bottom: "ip1"
  top: "ip2"
  param {
    lr_mult: 1
  }
  param {
    lr_mult: 2
  }
  inner_product_param {
    num_output: 256
    weight_filler {
      type: "gaussian"
      std: 0.1
    }
    bias_filler {
      type: "constant"
    }
  }
}
layer {
  name: "ip3"
  type: "InnerProduct"
  bottom: "ip2"
  top: "ip3"
  param {
    lr_mult: 1
  }
  param {
    lr_mult: 2
  }
  inner_product_param {
    num_output: 50
    weight_filler {
      type: "gaussian"
      std: 0.1
    }
    bias_filler {
      type: "constant"
    }
  }
}
layer {
  name: "accuracy"
  type: "Accuracy"
  bottom: "ip3"
  bottom: "label"
  top: "accuracy"
  include {
    phase: TEST
  }
}
layer {
  name: "loss"
  type: "SoftmaxWithLoss"
  bottom: "ip3"
  bottom: "label"
  top: "loss"
}
I0505 05:59:14.018762  3701 layer_factory.hpp:77] Creating layer intercept
I0505 05:59:14.018771  3701 net.cpp:94] Creating Layer intercept
I0505 05:59:14.018775  3701 net.cpp:409] intercept -> data
I0505 05:59:14.018782  3701 net.cpp:409] intercept -> label
I0505 05:59:14.018790  3701 hdf5_data_layer.cpp:79] Loading list of HDF5 filenames from: /home/purduethu/scratch/radon/d/deng106/CNNStatisticalModel/distributions/input/5_distributions_400_sample_size_test-distributions-path.txt
I0505 05:59:14.018810  3701 hdf5_data_layer.cpp:93] Number of HDF5 files: 1
I0505 05:59:14.034554  3701 net.cpp:144] Setting up intercept
I0505 05:59:14.034588  3701 net.cpp:151] Top shape: 20 1 20 20 (8000)
I0505 05:59:14.034595  3701 net.cpp:151] Top shape: 20 (20)
I0505 05:59:14.034597  3701 net.cpp:159] Memory required for data: 32080
I0505 05:59:14.034603  3701 layer_factory.hpp:77] Creating layer label_intercept_1_split
I0505 05:59:14.034622  3701 net.cpp:94] Creating Layer label_intercept_1_split
I0505 05:59:14.034636  3701 net.cpp:435] label_intercept_1_split <- label
I0505 05:59:14.034642  3701 net.cpp:409] label_intercept_1_split -> label_intercept_1_split_0
I0505 05:59:14.034651  3701 net.cpp:409] label_intercept_1_split -> label_intercept_1_split_1
I0505 05:59:14.034679  3701 net.cpp:144] Setting up label_intercept_1_split
I0505 05:59:14.034685  3701 net.cpp:151] Top shape: 20 (20)
I0505 05:59:14.034689  3701 net.cpp:151] Top shape: 20 (20)
I0505 05:59:14.034693  3701 net.cpp:159] Memory required for data: 32240
I0505 05:59:14.034704  3701 layer_factory.hpp:77] Creating layer conv1
I0505 05:59:14.034715  3701 net.cpp:94] Creating Layer conv1
I0505 05:59:14.034719  3701 net.cpp:435] conv1 <- data
I0505 05:59:14.034724  3701 net.cpp:409] conv1 -> conv1
I0505 05:59:14.035362  3701 net.cpp:144] Setting up conv1
I0505 05:59:14.035375  3701 net.cpp:151] Top shape: 20 64 20 20 (512000)
I0505 05:59:14.035380  3701 net.cpp:159] Memory required for data: 2080240
I0505 05:59:14.035389  3701 layer_factory.hpp:77] Creating layer relu1
I0505 05:59:14.035396  3701 net.cpp:94] Creating Layer relu1
I0505 05:59:14.035400  3701 net.cpp:435] relu1 <- conv1
I0505 05:59:14.035405  3701 net.cpp:396] relu1 -> conv1 (in-place)
I0505 05:59:14.035413  3701 net.cpp:144] Setting up relu1
I0505 05:59:14.035418  3701 net.cpp:151] Top shape: 20 64 20 20 (512000)
I0505 05:59:14.035420  3701 net.cpp:159] Memory required for data: 4128240
I0505 05:59:14.035424  3701 layer_factory.hpp:77] Creating layer pool1
I0505 05:59:14.035430  3701 net.cpp:94] Creating Layer pool1
I0505 05:59:14.035434  3701 net.cpp:435] pool1 <- conv1
I0505 05:59:14.035439  3701 net.cpp:409] pool1 -> pool1
I0505 05:59:14.035471  3701 net.cpp:144] Setting up pool1
I0505 05:59:14.035478  3701 net.cpp:151] Top shape: 20 64 10 10 (128000)
I0505 05:59:14.035481  3701 net.cpp:159] Memory required for data: 4640240
I0505 05:59:14.035485  3701 layer_factory.hpp:77] Creating layer conv2
I0505 05:59:14.035492  3701 net.cpp:94] Creating Layer conv2
I0505 05:59:14.035496  3701 net.cpp:435] conv2 <- pool1
I0505 05:59:14.035501  3701 net.cpp:409] conv2 -> conv2
I0505 05:59:14.042935  3701 net.cpp:144] Setting up conv2
I0505 05:59:14.042949  3701 net.cpp:151] Top shape: 20 128 10 10 (256000)
I0505 05:59:14.042954  3701 net.cpp:159] Memory required for data: 5664240
I0505 05:59:14.042963  3701 layer_factory.hpp:77] Creating layer relu2
I0505 05:59:14.042968  3701 net.cpp:94] Creating Layer relu2
I0505 05:59:14.042973  3701 net.cpp:435] relu2 <- conv2
I0505 05:59:14.042978  3701 net.cpp:396] relu2 -> conv2 (in-place)
I0505 05:59:14.042984  3701 net.cpp:144] Setting up relu2
I0505 05:59:14.042989  3701 net.cpp:151] Top shape: 20 128 10 10 (256000)
I0505 05:59:14.042992  3701 net.cpp:159] Memory required for data: 6688240
I0505 05:59:14.042995  3701 layer_factory.hpp:77] Creating layer conv3
I0505 05:59:14.043004  3701 net.cpp:94] Creating Layer conv3
I0505 05:59:14.043007  3701 net.cpp:435] conv3 <- conv2
I0505 05:59:14.043011  3701 net.cpp:409] conv3 -> conv3
I0505 05:59:14.056576  3701 net.cpp:144] Setting up conv3
I0505 05:59:14.056591  3701 net.cpp:151] Top shape: 20 128 10 10 (256000)
I0505 05:59:14.056594  3701 net.cpp:159] Memory required for data: 7712240
I0505 05:59:14.056602  3701 layer_factory.hpp:77] Creating layer relu3
I0505 05:59:14.056609  3701 net.cpp:94] Creating Layer relu3
I0505 05:59:14.056613  3701 net.cpp:435] relu3 <- conv3
I0505 05:59:14.056618  3701 net.cpp:396] relu3 -> conv3 (in-place)
I0505 05:59:14.056625  3701 net.cpp:144] Setting up relu3
I0505 05:59:14.056630  3701 net.cpp:151] Top shape: 20 128 10 10 (256000)
I0505 05:59:14.056633  3701 net.cpp:159] Memory required for data: 8736240
I0505 05:59:14.056637  3701 layer_factory.hpp:77] Creating layer pool3
I0505 05:59:14.056641  3701 net.cpp:94] Creating Layer pool3
I0505 05:59:14.056644  3701 net.cpp:435] pool3 <- conv3
I0505 05:59:14.056649  3701 net.cpp:409] pool3 -> pool3
I0505 05:59:14.056675  3701 net.cpp:144] Setting up pool3
I0505 05:59:14.056682  3701 net.cpp:151] Top shape: 20 128 5 5 (64000)
I0505 05:59:14.056689  3701 net.cpp:159] Memory required for data: 8992240
I0505 05:59:14.056694  3701 layer_factory.hpp:77] Creating layer ip1
I0505 05:59:14.056700  3701 net.cpp:94] Creating Layer ip1
I0505 05:59:14.056704  3701 net.cpp:435] ip1 <- pool3
I0505 05:59:14.056709  3701 net.cpp:409] ip1 -> ip1
I0505 05:59:14.098032  3701 net.cpp:144] Setting up ip1
I0505 05:59:14.098049  3701 net.cpp:151] Top shape: 20 512 (10240)
I0505 05:59:14.098053  3701 net.cpp:159] Memory required for data: 9033200
I0505 05:59:14.098067  3701 layer_factory.hpp:77] Creating layer ip2
I0505 05:59:14.098075  3701 net.cpp:94] Creating Layer ip2
I0505 05:59:14.098079  3701 net.cpp:435] ip2 <- ip1
I0505 05:59:14.098085  3701 net.cpp:409] ip2 -> ip2
I0505 05:59:14.101352  3701 net.cpp:144] Setting up ip2
I0505 05:59:14.101361  3701 net.cpp:151] Top shape: 20 256 (5120)
I0505 05:59:14.101364  3701 net.cpp:159] Memory required for data: 9053680
I0505 05:59:14.101372  3701 layer_factory.hpp:77] Creating layer ip3
I0505 05:59:14.101378  3701 net.cpp:94] Creating Layer ip3
I0505 05:59:14.101382  3701 net.cpp:435] ip3 <- ip2
I0505 05:59:14.101387  3701 net.cpp:409] ip3 -> ip3
I0505 05:59:14.101776  3701 net.cpp:144] Setting up ip3
I0505 05:59:14.101783  3701 net.cpp:151] Top shape: 20 50 (1000)
I0505 05:59:14.101786  3701 net.cpp:159] Memory required for data: 9057680
I0505 05:59:14.101791  3701 layer_factory.hpp:77] Creating layer ip3_ip3_0_split
I0505 05:59:14.101796  3701 net.cpp:94] Creating Layer ip3_ip3_0_split
I0505 05:59:14.101800  3701 net.cpp:435] ip3_ip3_0_split <- ip3
I0505 05:59:14.101804  3701 net.cpp:409] ip3_ip3_0_split -> ip3_ip3_0_split_0
I0505 05:59:14.101810  3701 net.cpp:409] ip3_ip3_0_split -> ip3_ip3_0_split_1
I0505 05:59:14.101835  3701 net.cpp:144] Setting up ip3_ip3_0_split
I0505 05:59:14.101840  3701 net.cpp:151] Top shape: 20 50 (1000)
I0505 05:59:14.101845  3701 net.cpp:151] Top shape: 20 50 (1000)
I0505 05:59:14.101847  3701 net.cpp:159] Memory required for data: 9065680
I0505 05:59:14.101850  3701 layer_factory.hpp:77] Creating layer accuracy
I0505 05:59:14.101861  3701 net.cpp:94] Creating Layer accuracy
I0505 05:59:14.101866  3701 net.cpp:435] accuracy <- ip3_ip3_0_split_0
I0505 05:59:14.101869  3701 net.cpp:435] accuracy <- label_intercept_1_split_0
I0505 05:59:14.101873  3701 net.cpp:409] accuracy -> accuracy
…
