…
I0504 13:25:59.979652 26802 net.cpp:323] The NetState phase (0) differed from the phase (1) specified by a rule in layer intercept
I0504 13:25:59.979670 26802 net.cpp:323] The NetState phase (0) differed from the phase (1) specified by a rule in layer loss
I0504 13:25:59.979761 26802 net.cpp:52] Initializing net from parameters: 
state {
  phase: TRAIN
}
layer {
  name: "parameters"
  type: "HDF5Data"
  top: "data"
  top: "label"
  include {
    phase: TRAIN
  }
  hdf5_data_param {
    source: "/home/purduethu/scratch/radon/d/deng106/CNNStatisticalModel/distributions/input/20_distributions_100_sample_size_train-parameters-path.txt"
    batch_size: 20
  }
}
layer {
  name: "conv1"
  type: "Convolution"
  bottom: "data"
  top: "conv1"
  param {
    lr_mult: 1
  }
  param {
    lr_mult: 2
  }
  convolution_param {
    num_output: 64
    pad: 2
    kernel_size: 5
    stride: 1
    weight_filler {
      type: "gaussian"
      std: 0.0001
    }
    bias_filler {
      type: "constant"
    }
  }
}
layer {
  name: "relu1"
  type: "ReLU"
  bottom: "conv1"
  top: "conv1"
}
layer {
  name: "conv2"
  type: "Convolution"
  bottom: "conv1"
  top: "conv2"
  param {
    lr_mult: 1
  }
  param {
    lr_mult: 2
  }
  convolution_param {
    num_output: 64
    pad: 2
    kernel_size: 5
    stride: 1
    weight_filler {
      type: "gaussian"
      std: 0.01
    }
    bias_filler {
      type: "constant"
    }
  }
}
layer {
  name: "relu2"
  type: "ReLU"
  bottom: "conv2"
  top: "conv2"
}
layer {
  name: "pool2"
  type: "Pooling"
  bottom: "conv2"
  top: "pool2"
  pooling_param {
    pool: MAX
    kernel_size: 3
    stride: 2
  }
}
layer {
  name: "conv3"
  type: "Convolution"
  bottom: "pool2"
  top: "conv3"
  param {
    lr_mult: 1
  }
  param {
    lr_mult: 2
  }
  convolution_param {
    num_output: 128
    pad: 2
    kernel_size: 5
    stride: 1
    weight_filler {
      type: "gaussian"
      std: 0.01
    }
    bias_filler {
      type: "constant"
    }
  }
}
layer {
  name: "relu3"
  type: "ReLU"
  bottom: "conv3"
  top: "conv3"
}
layer {
  name: "conv4"
  type: "Convolution"
  bottom: "conv3"
  top: "conv4"
  param {
    lr_mult: 1
  }
  param {
    lr_mult: 2
  }
  convolution_param {
    num_output: 128
    pad: 2
    kernel_size: 5
    stride: 1
    weight_filler {
      type: "gaussian"
      std: 0.01
    }
    bias_filler {
      type: "constant"
    }
  }
}
layer {
  name: "relu4"
  type: "ReLU"
  bottom: "conv4"
  top: "conv4"
}
layer {
  name: "conv5"
  type: "Convolution"
  bottom: "conv4"
  top: "conv5"
  param {
    lr_mult: 1
  }
  param {
    lr_mult: 2
  }
  convolution_param {
    num_output: 128
    pad: 2
    kernel_size: 5
    stride: 1
    weight_filler {
      type: "gaussian"
      std: 0.01
    }
    bias_filler {
      type: "constant"
    }
  }
}
layer {
  name: "relu5"
  type: "ReLU"
  bottom: "conv5"
  top: "conv5"
}
layer {
  name: "pool5"
  type: "Pooling"
  bottom: "conv5"
  top: "pool5"
  pooling_param {
    pool: AVE
    kernel_size: 3
    stride: 2
  }
}
layer {
  name: "ip1"
  type: "InnerProduct"
  bottom: "pool5"
  top: "ip1"
  param {
    lr_mult: 1
  }
  param {
    lr_mult: 2
  }
  inner_product_param {
    num_output: 1024
    weight_filler {
      type: "gaussian"
      std: 0.1
    }
    bias_filler {
      type: "constant"
    }
  }
}
layer {
  name: "ip2"
  type: "InnerProduct"
  bottom: "ip1"
  top: "ip2"
  param {
    lr_mult: 1
  }
  param {
    lr_mult: 2
  }
  inner_product_param {
    num_output: 512
    weight_filler {
      type: "gaussian"
      std: 0.1
    }
    bias_filler {
      type: "constant"
    }
  }
}
layer {
  name: "ip3"
  type: "InnerProduct"
  bottom: "ip2"
  top: "ip3"
  param {
    lr_mult: 1
  }
  param {
    lr_mult: 2
  }
  inner_product_param {
    num_output: 1
    weight_filler {
      type: "gaussian"
      std: 0.1
    }
    bias_filler {
      type: "constant"
    }
  }
}
layer {
  name: "loss"
  type: "HuberLoss"
  bottom: "ip3"
  bottom: "label"
  top: "loss"
  include {
    phase: TRAIN
  }
}
I0504 13:25:59.979836 26802 layer_factory.hpp:77] Creating layer parameters
I0504 13:25:59.979851 26802 net.cpp:94] Creating Layer parameters
I0504 13:25:59.979857 26802 net.cpp:409] parameters -> data
I0504 13:25:59.979877 26802 net.cpp:409] parameters -> label
I0504 13:25:59.979887 26802 hdf5_data_layer.cpp:79] Loading list of HDF5 filenames from: /home/purduethu/scratch/radon/d/deng106/CNNStatisticalModel/distributions/input/20_distributions_100_sample_size_train-parameters-path.txt
I0504 13:25:59.979910 26802 hdf5_data_layer.cpp:93] Number of HDF5 files: 1
I0504 13:25:59.980379 26802 hdf5.cpp:32] Datatype class: H5T_FLOAT
I0504 13:26:00.048048 26802 net.cpp:144] Setting up parameters
I0504 13:26:00.048082 26802 net.cpp:151] Top shape: 20 1 10 10 (2000)
I0504 13:26:00.048089 26802 net.cpp:151] Top shape: 20 (20)
I0504 13:26:00.048092 26802 net.cpp:159] Memory required for data: 8080
I0504 13:26:00.048100 26802 layer_factory.hpp:77] Creating layer conv1
I0504 13:26:00.048125 26802 net.cpp:94] Creating Layer conv1
I0504 13:26:00.048130 26802 net.cpp:435] conv1 <- data
I0504 13:26:00.048142 26802 net.cpp:409] conv1 -> conv1
I0504 13:26:00.051883 26802 net.cpp:144] Setting up conv1
I0504 13:26:00.051899 26802 net.cpp:151] Top shape: 20 64 10 10 (128000)
I0504 13:26:00.051903 26802 net.cpp:159] Memory required for data: 520080
I0504 13:26:00.051915 26802 layer_factory.hpp:77] Creating layer relu1
I0504 13:26:00.051924 26802 net.cpp:94] Creating Layer relu1
I0504 13:26:00.051928 26802 net.cpp:435] relu1 <- conv1
I0504 13:26:00.051934 26802 net.cpp:396] relu1 -> conv1 (in-place)
I0504 13:26:00.051949 26802 net.cpp:144] Setting up relu1
I0504 13:26:00.051954 26802 net.cpp:151] Top shape: 20 64 10 10 (128000)
I0504 13:26:00.051957 26802 net.cpp:159] Memory required for data: 1032080
I0504 13:26:00.051960 26802 layer_factory.hpp:77] Creating layer conv2
I0504 13:26:00.051969 26802 net.cpp:94] Creating Layer conv2
I0504 13:26:00.051972 26802 net.cpp:435] conv2 <- conv1
I0504 13:26:00.051977 26802 net.cpp:409] conv2 -> conv2
I0504 13:26:00.057067 26802 net.cpp:144] Setting up conv2
I0504 13:26:00.057082 26802 net.cpp:151] Top shape: 20 64 10 10 (128000)
I0504 13:26:00.057086 26802 net.cpp:159] Memory required for data: 1544080
I0504 13:26:00.057095 26802 layer_factory.hpp:77] Creating layer relu2
I0504 13:26:00.057101 26802 net.cpp:94] Creating Layer relu2
I0504 13:26:00.057104 26802 net.cpp:435] relu2 <- conv2
I0504 13:26:00.057109 26802 net.cpp:396] relu2 -> conv2 (in-place)
I0504 13:26:00.057116 26802 net.cpp:144] Setting up relu2
I0504 13:26:00.057121 26802 net.cpp:151] Top shape: 20 64 10 10 (128000)
I0504 13:26:00.057124 26802 net.cpp:159] Memory required for data: 2056080
I0504 13:26:00.057127 26802 layer_factory.hpp:77] Creating layer pool2
I0504 13:26:00.057135 26802 net.cpp:94] Creating Layer pool2
I0504 13:26:00.057145 26802 net.cpp:435] pool2 <- conv2
I0504 13:26:00.057150 26802 net.cpp:409] pool2 -> pool2
I0504 13:26:00.057194 26802 net.cpp:144] Setting up pool2
I0504 13:26:00.057201 26802 net.cpp:151] Top shape: 20 64 5 5 (32000)
I0504 13:26:00.057205 26802 net.cpp:159] Memory required for data: 2184080
I0504 13:26:00.057209 26802 layer_factory.hpp:77] Creating layer conv3
I0504 13:26:00.057216 26802 net.cpp:94] Creating Layer conv3
I0504 13:26:00.057220 26802 net.cpp:435] conv3 <- pool2
I0504 13:26:00.057226 26802 net.cpp:409] conv3 -> conv3
I0504 13:26:00.065390 26802 net.cpp:144] Setting up conv3
I0504 13:26:00.065404 26802 net.cpp:151] Top shape: 20 128 5 5 (64000)
I0504 13:26:00.065409 26802 net.cpp:159] Memory required for data: 2440080
I0504 13:26:00.065418 26802 layer_factory.hpp:77] Creating layer relu3
I0504 13:26:00.065423 26802 net.cpp:94] Creating Layer relu3
I0504 13:26:00.065428 26802 net.cpp:435] relu3 <- conv3
I0504 13:26:00.065433 26802 net.cpp:396] relu3 -> conv3 (in-place)
I0504 13:26:00.065439 26802 net.cpp:144] Setting up relu3
I0504 13:26:00.065443 26802 net.cpp:151] Top shape: 20 128 5 5 (64000)
I0504 13:26:00.065446 26802 net.cpp:159] Memory required for data: 2696080
I0504 13:26:00.065450 26802 layer_factory.hpp:77] Creating layer conv4
I0504 13:26:00.065459 26802 net.cpp:94] Creating Layer conv4
I0504 13:26:00.065462 26802 net.cpp:435] conv4 <- conv3
I0504 13:26:00.065467 26802 net.cpp:409] conv4 -> conv4
I0504 13:26:00.080281 26802 net.cpp:144] Setting up conv4
I0504 13:26:00.080305 26802 net.cpp:151] Top shape: 20 128 5 5 (64000)
I0504 13:26:00.080312 26802 net.cpp:159] Memory required for data: 2952080
I0504 13:26:00.080323 26802 layer_factory.hpp:77] Creating layer relu4
I0504 13:26:00.080333 26802 net.cpp:94] Creating Layer relu4
I0504 13:26:00.080339 26802 net.cpp:435] relu4 <- conv4
I0504 13:26:00.080348 26802 net.cpp:396] relu4 -> conv4 (in-place)
I0504 13:26:00.080360 26802 net.cpp:144] Setting up relu4
I0504 13:26:00.080368 26802 net.cpp:151] Top shape: 20 128 5 5 (64000)
I0504 13:26:00.080374 26802 net.cpp:159] Memory required for data: 3208080
I0504 13:26:00.080380 26802 layer_factory.hpp:77] Creating layer conv5
I0504 13:26:00.080392 26802 net.cpp:94] Creating Layer conv5
I0504 13:26:00.080399 26802 net.cpp:435] conv5 <- conv4
I0504 13:26:00.080407 26802 net.cpp:409] conv5 -> conv5
I0504 13:26:00.094904 26802 net.cpp:144] Setting up conv5
I0504 13:26:00.094918 26802 net.cpp:151] Top shape: 20 128 5 5 (64000)
I0504 13:26:00.094923 26802 net.cpp:159] Memory required for data: 3464080
I0504 13:26:00.094931 26802 layer_factory.hpp:77] Creating layer relu5
I0504 13:26:00.094938 26802 net.cpp:94] Creating Layer relu5
I0504 13:26:00.094941 26802 net.cpp:435] relu5 <- conv5
I0504 13:26:00.094946 26802 net.cpp:396] relu5 -> conv5 (in-place)
I0504 13:26:00.094954 26802 net.cpp:144] Setting up relu5
I0504 13:26:00.094959 26802 net.cpp:151] Top shape: 20 128 5 5 (64000)
I0504 13:26:00.094961 26802 net.cpp:159] Memory required for data: 3720080
I0504 13:26:00.094965 26802 layer_factory.hpp:77] Creating layer pool5
I0504 13:26:00.094970 26802 net.cpp:94] Creating Layer pool5
I0504 13:26:00.094974 26802 net.cpp:435] pool5 <- conv5
I0504 13:26:00.094979 26802 net.cpp:409] pool5 -> pool5
I0504 13:26:00.095012 26802 net.cpp:144] Setting up pool5
I0504 13:26:00.095019 26802 net.cpp:151] Top shape: 20 128 2 2 (10240)
I0504 13:26:00.095022 26802 net.cpp:159] Memory required for data: 3761040
I0504 13:26:00.095026 26802 layer_factory.hpp:77] Creating layer ip1
I0504 13:26:00.095036 26802 net.cpp:94] Creating Layer ip1
I0504 13:26:00.095039 26802 net.cpp:435] ip1 <- pool5
I0504 13:26:00.095044 26802 net.cpp:409] ip1 -> ip1
I0504 13:26:00.109136 26802 net.cpp:144] Setting up ip1
I0504 13:26:00.109150 26802 net.cpp:151] Top shape: 20 1024 (20480)
I0504 13:26:00.109154 26802 net.cpp:159] Memory required for data: 3842960
I0504 13:26:00.109160 26802 layer_factory.hpp:77] Creating layer ip2
I0504 13:26:00.109169 26802 net.cpp:94] Creating Layer ip2
I0504 13:26:00.109172 26802 net.cpp:435] ip2 <- ip1
I0504 13:26:00.109182 26802 net.cpp:409] ip2 -> ip2
I0504 13:26:00.122609 26802 net.cpp:144] Setting up ip2
I0504 13:26:00.122622 26802 net.cpp:151] Top shape: 20 512 (10240)
I0504 13:26:00.122627 26802 net.cpp:159] Memory required for data: 3883920
I0504 13:26:00.122632 26802 layer_factory.hpp:77] Creating layer ip3
I0504 13:26:00.122639 26802 net.cpp:94] Creating Layer ip3
I0504 13:26:00.122643 26802 net.cpp:435] ip3 <- ip2
I0504 13:26:00.122648 26802 net.cpp:409] ip3 -> ip3
I0504 13:26:00.122725 26802 net.cpp:144] Setting up ip3
I0504 13:26:00.122731 26802 net.cpp:151] Top shape: 20 1 (20)
I0504 13:26:00.122742 26802 net.cpp:159] Memory required for data: 3884000
I0504 13:26:00.122748 26802 layer_factory.hpp:77] Creating layer loss
I0504 13:26:00.122757 26802 net.cpp:94] Creating Layer loss
I0504 13:26:00.122761 26802 net.cpp:435] loss <- ip3
I0504 13:26:00.122764 26802 net.cpp:435] loss <- label
I0504 13:26:00.122771 26802 net.cpp:409] loss -> loss
I0504 13:26:00.122807 26802 net.cpp:144] Setting up loss
…
