…
I0504 23:26:30.498417   645 net.cpp:323] The NetState phase (0) differed from the phase (1) specified by a rule in layer intercept
I0504 23:26:30.498433   645 net.cpp:323] The NetState phase (0) differed from the phase (1) specified by a rule in layer loss
I0504 23:26:30.498512   645 net.cpp:52] Initializing net from parameters: 
state {
  phase: TRAIN
}
layer {
  name: "parameters"
  type: "HDF5Data"
  top: "data"
  top: "label"
  include {
    phase: TRAIN
  }
  hdf5_data_param {
    source: "/home/purduethu/scratch/radon/d/deng106/CNNStatisticalModel/distributions/input/50_distributions_400_sample_size_train-parameters-path.txt"
    batch_size: 20
  }
}
layer {
  name: "conv1"
  type: "Convolution"
  bottom: "data"
  top: "conv1"
  param {
    lr_mult: 1
  }
  param {
    lr_mult: 2
  }
  convolution_param {
    num_output: 64
    pad: 2
    kernel_size: 5
    stride: 1
    weight_filler {
      type: "gaussian"
      std: 0.0001
    }
    bias_filler {
      type: "constant"
    }
  }
}
layer {
  name: "relu1"
  type: "ReLU"
  bottom: "conv1"
  top: "conv1"
}
layer {
  name: "pool1"
  type: "Pooling"
  bottom: "conv1"
  top: "pool1"
  pooling_param {
    pool: MAX
    kernel_size: 3
    stride: 2
  }
}
layer {
  name: "conv2"
  type: "Convolution"
  bottom: "pool1"
  top: "conv2"
  param {
    lr_mult: 1
  }
  param {
    lr_mult: 2
  }
  convolution_param {
    num_output: 128
    pad: 2
    kernel_size: 5
    stride: 1
    weight_filler {
      type: "gaussian"
      std: 0.01
    }
    bias_filler {
      type: "constant"
    }
  }
}
layer {
  name: "relu2"
  type: "ReLU"
  bottom: "conv2"
  top: "conv2"
}
layer {
  name: "conv3"
  type: "Convolution"
  bottom: "conv2"
  top: "conv3"
  param {
    lr_mult: 1
  }
  param {
    lr_mult: 2
  }
  convolution_param {
    num_output: 128
    pad: 2
    kernel_size: 5
    stride: 1
    weight_filler {
      type: "gaussian"
      std: 0.01
    }
    bias_filler {
      type: "constant"
    }
  }
}
layer {
  name: "relu3"
  type: "ReLU"
  bottom: "conv3"
  top: "conv3"
}
layer {
  name: "pool3"
  type: "Pooling"
  bottom: "conv3"
  top: "pool3"
  pooling_param {
    pool: AVE
    kernel_size: 3
    stride: 2
  }
}
layer {
  name: "ip1"
  type: "InnerProduct"
  bottom: "pool3"
  top: "ip1"
  param {
    lr_mult: 1
  }
  param {
    lr_mult: 2
  }
  inner_product_param {
    num_output: 512
    weight_filler {
      type: "gaussian"
      std: 0.1
    }
    bias_filler {
      type: "constant"
    }
  }
}
layer {
  name: "ip2"
  type: "InnerProduct"
  bottom: "ip1"
  top: "ip2"
  param {
    lr_mult: 1
  }
  param {
    lr_mult: 2
  }
  inner_product_param {
    num_output: 256
    weight_filler {
      type: "gaussian"
      std: 0.1
    }
    bias_filler {
      type: "constant"
    }
  }
}
layer {
  name: "ip3"
  type: "InnerProduct"
  bottom: "ip2"
  top: "ip3"
  param {
    lr_mult: 1
  }
  param {
    lr_mult: 2
  }
  inner_product_param {
    num_output: 1
    weight_filler {
      type: "gaussian"
      std: 0.1
    }
    bias_filler {
      type: "constant"
    }
  }
}
layer {
  name: "loss"
  type: "HuberLoss"
  bottom: "ip3"
  bottom: "label"
  top: "loss"
  include {
    phase: TRAIN
  }
}
I0504 23:26:30.498575   645 layer_factory.hpp:77] Creating layer parameters
I0504 23:26:30.498589   645 net.cpp:94] Creating Layer parameters
I0504 23:26:30.498605   645 net.cpp:409] parameters -> data
I0504 23:26:30.498623   645 net.cpp:409] parameters -> label
I0504 23:26:30.498634   645 hdf5_data_layer.cpp:79] Loading list of HDF5 filenames from: /home/purduethu/scratch/radon/d/deng106/CNNStatisticalModel/distributions/input/50_distributions_400_sample_size_train-parameters-path.txt
I0504 23:26:30.498656   645 hdf5_data_layer.cpp:93] Number of HDF5 files: 1
I0504 23:26:30.499124   645 hdf5.cpp:32] Datatype class: H5T_FLOAT
I0504 23:26:31.152998   645 net.cpp:144] Setting up parameters
I0504 23:26:31.153035   645 net.cpp:151] Top shape: 20 1 20 20 (8000)
I0504 23:26:31.153041   645 net.cpp:151] Top shape: 20 (20)
I0504 23:26:31.153044   645 net.cpp:159] Memory required for data: 32080
I0504 23:26:31.153053   645 layer_factory.hpp:77] Creating layer conv1
I0504 23:26:31.153072   645 net.cpp:94] Creating Layer conv1
I0504 23:26:31.153079   645 net.cpp:435] conv1 <- data
I0504 23:26:31.153090   645 net.cpp:409] conv1 -> conv1
I0504 23:26:31.157918   645 net.cpp:144] Setting up conv1
I0504 23:26:31.157943   645 net.cpp:151] Top shape: 20 64 20 20 (512000)
I0504 23:26:31.157948   645 net.cpp:159] Memory required for data: 2080080
I0504 23:26:31.157960   645 layer_factory.hpp:77] Creating layer relu1
I0504 23:26:31.157970   645 net.cpp:94] Creating Layer relu1
I0504 23:26:31.157974   645 net.cpp:435] relu1 <- conv1
I0504 23:26:31.157979   645 net.cpp:396] relu1 -> conv1 (in-place)
I0504 23:26:31.157996   645 net.cpp:144] Setting up relu1
I0504 23:26:31.158001   645 net.cpp:151] Top shape: 20 64 20 20 (512000)
I0504 23:26:31.158004   645 net.cpp:159] Memory required for data: 4128080
I0504 23:26:31.158008   645 layer_factory.hpp:77] Creating layer pool1
I0504 23:26:31.158015   645 net.cpp:94] Creating Layer pool1
I0504 23:26:31.158018   645 net.cpp:435] pool1 <- conv1
I0504 23:26:31.158023   645 net.cpp:409] pool1 -> pool1
I0504 23:26:31.158066   645 net.cpp:144] Setting up pool1
I0504 23:26:31.158072   645 net.cpp:151] Top shape: 20 64 10 10 (128000)
I0504 23:26:31.158077   645 net.cpp:159] Memory required for data: 4640080
I0504 23:26:31.158079   645 layer_factory.hpp:77] Creating layer conv2
I0504 23:26:31.158089   645 net.cpp:94] Creating Layer conv2
I0504 23:26:31.158093   645 net.cpp:435] conv2 <- pool1
I0504 23:26:31.158098   645 net.cpp:409] conv2 -> conv2
I0504 23:26:31.168707   645 net.cpp:144] Setting up conv2
I0504 23:26:31.168735   645 net.cpp:151] Top shape: 20 128 10 10 (256000)
I0504 23:26:31.168738   645 net.cpp:159] Memory required for data: 5664080
I0504 23:26:31.168748   645 layer_factory.hpp:77] Creating layer relu2
I0504 23:26:31.168757   645 net.cpp:94] Creating Layer relu2
I0504 23:26:31.168761   645 net.cpp:435] relu2 <- conv2
I0504 23:26:31.168766   645 net.cpp:396] relu2 -> conv2 (in-place)
I0504 23:26:31.168776   645 net.cpp:144] Setting up relu2
I0504 23:26:31.168779   645 net.cpp:151] Top shape: 20 128 10 10 (256000)
I0504 23:26:31.168782   645 net.cpp:159] Memory required for data: 6688080
I0504 23:26:31.168786   645 layer_factory.hpp:77] Creating layer conv3
I0504 23:26:31.168794   645 net.cpp:94] Creating Layer conv3
I0504 23:26:31.168798   645 net.cpp:435] conv3 <- conv2
I0504 23:26:31.168803   645 net.cpp:409] conv3 -> conv3
I0504 23:26:31.187297   645 net.cpp:144] Setting up conv3
I0504 23:26:31.187327   645 net.cpp:151] Top shape: 20 128 10 10 (256000)
I0504 23:26:31.187332   645 net.cpp:159] Memory required for data: 7712080
I0504 23:26:31.187345   645 layer_factory.hpp:77] Creating layer relu3
I0504 23:26:31.187353   645 net.cpp:94] Creating Layer relu3
I0504 23:26:31.187364   645 net.cpp:435] relu3 <- conv3
I0504 23:26:31.187371   645 net.cpp:396] relu3 -> conv3 (in-place)
I0504 23:26:31.187379   645 net.cpp:144] Setting up relu3
I0504 23:26:31.187384   645 net.cpp:151] Top shape: 20 128 10 10 (256000)
I0504 23:26:31.187387   645 net.cpp:159] Memory required for data: 8736080
I0504 23:26:31.187391   645 layer_factory.hpp:77] Creating layer pool3
I0504 23:26:31.187397   645 net.cpp:94] Creating Layer pool3
I0504 23:26:31.187400   645 net.cpp:435] pool3 <- conv3
I0504 23:26:31.187412   645 net.cpp:409] pool3 -> pool3
I0504 23:26:31.187458   645 net.cpp:144] Setting up pool3
I0504 23:26:31.187465   645 net.cpp:151] Top shape: 20 128 5 5 (64000)
I0504 23:26:31.187469   645 net.cpp:159] Memory required for data: 8992080
I0504 23:26:31.187472   645 layer_factory.hpp:77] Creating layer ip1
I0504 23:26:31.187482   645 net.cpp:94] Creating Layer ip1
I0504 23:26:31.187486   645 net.cpp:435] ip1 <- pool3
I0504 23:26:31.187491   645 net.cpp:409] ip1 -> ip1
I0504 23:26:31.228865   645 net.cpp:144] Setting up ip1
I0504 23:26:31.228902   645 net.cpp:151] Top shape: 20 512 (10240)
I0504 23:26:31.228907   645 net.cpp:159] Memory required for data: 9033040
I0504 23:26:31.228915   645 layer_factory.hpp:77] Creating layer ip2
I0504 23:26:31.228924   645 net.cpp:94] Creating Layer ip2
I0504 23:26:31.228929   645 net.cpp:435] ip2 <- ip1
I0504 23:26:31.228935   645 net.cpp:409] ip2 -> ip2
I0504 23:26:31.232125   645 net.cpp:144] Setting up ip2
I0504 23:26:31.232133   645 net.cpp:151] Top shape: 20 256 (5120)
I0504 23:26:31.232136   645 net.cpp:159] Memory required for data: 9053520
I0504 23:26:31.232144   645 layer_factory.hpp:77] Creating layer ip3
I0504 23:26:31.232151   645 net.cpp:94] Creating Layer ip3
I0504 23:26:31.232154   645 net.cpp:435] ip3 <- ip2
I0504 23:26:31.232159   645 net.cpp:409] ip3 -> ip3
I0504 23:26:31.232223   645 net.cpp:144] Setting up ip3
I0504 23:26:31.232229   645 net.cpp:151] Top shape: 20 1 (20)
I0504 23:26:31.232234   645 net.cpp:159] Memory required for data: 9053600
I0504 23:26:31.232237   645 layer_factory.hpp:77] Creating layer loss
I0504 23:26:31.232254   645 net.cpp:94] Creating Layer loss
I0504 23:26:31.232256   645 net.cpp:435] loss <- ip3
I0504 23:26:31.232260   645 net.cpp:435] loss <- label
I0504 23:26:31.232266   645 net.cpp:409] loss -> loss
I0504 23:26:31.232300   645 net.cpp:144] Setting up loss
…
