…
I0501 19:28:04.141297 14258 net.cpp:323] The NetState phase (0) differed from the phase (1) specified by a rule in layer intercept
I0501 19:28:04.141314 14258 net.cpp:323] The NetState phase (0) differed from the phase (1) specified by a rule in layer loss
I0501 19:28:04.141399 14258 net.cpp:52] Initializing net from parameters: 
state {
  phase: TRAIN
}
layer {
  name: "parameters"
  type: "HDF5Data"
  top: "data"
  top: "label"
  include {
    phase: TRAIN
  }
  hdf5_data_param {
    source: "/home/purduethu/scratch/radon/d/deng106/CNNStatisticalModel/distributions/input/20_distributions_400_sample_size_train-parameters-path.txt"
    batch_size: 20
  }
}
layer {
  name: "conv1"
  type: "Convolution"
  bottom: "data"
  top: "conv1"
  param {
    lr_mult: 1
  }
  param {
    lr_mult: 2
  }
  convolution_param {
    num_output: 64
    pad: 2
    kernel_size: 5
    stride: 1
    weight_filler {
      type: "gaussian"
      std: 0.0001
    }
    bias_filler {
      type: "constant"
    }
  }
}
layer {
  name: "relu1"
  type: "ReLU"
  bottom: "conv1"
  top: "conv1"
}
layer {
  name: "conv2"
  type: "Convolution"
  bottom: "conv1"
  top: "conv2"
  param {
    lr_mult: 1
  }
  param {
    lr_mult: 2
  }
  convolution_param {
    num_output: 64
    pad: 2
    kernel_size: 5
    stride: 1
    weight_filler {
      type: "gaussian"
      std: 0.01
    }
    bias_filler {
      type: "constant"
    }
  }
}
layer {
  name: "relu2"
  type: "ReLU"
  bottom: "conv2"
  top: "conv2"
}
layer {
  name: "pool2"
  type: "Pooling"
  bottom: "conv2"
  top: "pool2"
  pooling_param {
    pool: MAX
    kernel_size: 3
    stride: 2
  }
}
layer {
  name: "conv3"
  type: "Convolution"
  bottom: "pool2"
  top: "conv3"
  param {
    lr_mult: 1
  }
  param {
    lr_mult: 2
  }
  convolution_param {
    num_output: 64
    pad: 2
    kernel_size: 5
    stride: 1
    weight_filler {
      type: "gaussian"
      std: 0.01
    }
    bias_filler {
      type: "constant"
    }
  }
}
layer {
  name: "relu3"
  type: "ReLU"
  bottom: "conv3"
  top: "conv3"
}
layer {
  name: "conv4"
  type: "Convolution"
  bottom: "conv3"
  top: "conv4"
  param {
    lr_mult: 1
  }
  param {
    lr_mult: 2
  }
  convolution_param {
    num_output: 64
    pad: 2
    kernel_size: 5
    stride: 1
    weight_filler {
      type: "gaussian"
      std: 0.01
    }
    bias_filler {
      type: "constant"
    }
  }
}
layer {
  name: "relu4"
  type: "ReLU"
  bottom: "conv4"
  top: "conv4"
}
layer {
  name: "conv5"
  type: "Convolution"
  bottom: "conv4"
  top: "conv5"
  param {
    lr_mult: 1
  }
  param {
    lr_mult: 2
  }
  convolution_param {
    num_output: 64
    pad: 2
    kernel_size: 5
    stride: 1
    weight_filler {
      type: "gaussian"
      std: 0.01
    }
    bias_filler {
      type: "constant"
    }
  }
}
layer {
  name: "relu5"
  type: "ReLU"
  bottom: "conv5"
  top: "conv5"
}
layer {
  name: "pool5"
  type: "Pooling"
  bottom: "conv5"
  top: "pool5"
  pooling_param {
    pool: AVE
    kernel_size: 3
    stride: 2
  }
}
layer {
  name: "ip1"
  type: "InnerProduct"
  bottom: "pool5"
  top: "ip1"
  param {
    lr_mult: 1
  }
  param {
    lr_mult: 2
  }
  inner_product_param {
    num_output: 64
    weight_filler {
      type: "gaussian"
      std: 0.1
    }
    bias_filler {
      type: "constant"
    }
  }
}
layer {
  name: "ip2"
  type: "InnerProduct"
  bottom: "ip1"
  top: "ip2"
  param {
    lr_mult: 1
  }
  param {
    lr_mult: 2
  }
  inner_product_param {
    num_output: 64
    weight_filler {
      type: "gaussian"
      std: 0.1
    }
    bias_filler {
      type: "constant"
    }
  }
}
layer {
  name: "ip3"
  type: "InnerProduct"
  bottom: "ip2"
  top: "ip3"
  param {
    lr_mult: 1
  }
  param {
    lr_mult: 2
  }
  inner_product_param {
    num_output: 1
    weight_filler {
      type: "gaussian"
      std: 0.1
    }
    bias_filler {
      type: "constant"
    }
  }
}
layer {
  name: "loss"
  type: "HuberLoss"
  bottom: "ip3"
  bottom: "label"
  top: "loss"
  include {
    phase: TRAIN
  }
}
I0501 19:28:04.141472 14258 layer_factory.hpp:77] Creating layer parameters
I0501 19:28:04.141487 14258 net.cpp:94] Creating Layer parameters
I0501 19:28:04.141494 14258 net.cpp:409] parameters -> data
I0501 19:28:04.141513 14258 net.cpp:409] parameters -> label
I0501 19:28:04.141525 14258 hdf5_data_layer.cpp:79] Loading list of HDF5 filenames from: /home/purduethu/scratch/radon/d/deng106/CNNStatisticalModel/distributions/input/20_distributions_400_sample_size_train-parameters-path.txt
I0501 19:28:04.141546 14258 hdf5_data_layer.cpp:93] Number of HDF5 files: 1
I0501 19:28:04.142000 14258 hdf5.cpp:32] Datatype class: H5T_FLOAT
I0501 19:28:04.395126 14258 net.cpp:144] Setting up parameters
I0501 19:28:04.395160 14258 net.cpp:151] Top shape: 20 1 20 20 (8000)
I0501 19:28:04.395166 14258 net.cpp:151] Top shape: 20 (20)
I0501 19:28:04.395170 14258 net.cpp:159] Memory required for data: 32080
I0501 19:28:04.395177 14258 layer_factory.hpp:77] Creating layer conv1
I0501 19:28:04.395195 14258 net.cpp:94] Creating Layer conv1
I0501 19:28:04.395201 14258 net.cpp:435] conv1 <- data
I0501 19:28:04.395213 14258 net.cpp:409] conv1 -> conv1
I0501 19:28:04.399924 14258 net.cpp:144] Setting up conv1
I0501 19:28:04.399940 14258 net.cpp:151] Top shape: 20 64 20 20 (512000)
I0501 19:28:04.399945 14258 net.cpp:159] Memory required for data: 2080080
I0501 19:28:04.399957 14258 layer_factory.hpp:77] Creating layer relu1
I0501 19:28:04.399966 14258 net.cpp:94] Creating Layer relu1
I0501 19:28:04.399969 14258 net.cpp:435] relu1 <- conv1
I0501 19:28:04.399974 14258 net.cpp:396] relu1 -> conv1 (in-place)
I0501 19:28:04.399991 14258 net.cpp:144] Setting up relu1
I0501 19:28:04.399997 14258 net.cpp:151] Top shape: 20 64 20 20 (512000)
I0501 19:28:04.400001 14258 net.cpp:159] Memory required for data: 4128080
I0501 19:28:04.400003 14258 layer_factory.hpp:77] Creating layer conv2
I0501 19:28:04.400012 14258 net.cpp:94] Creating Layer conv2
I0501 19:28:04.400017 14258 net.cpp:435] conv2 <- conv1
I0501 19:28:04.400022 14258 net.cpp:409] conv2 -> conv2
I0501 19:28:04.410027 14258 net.cpp:144] Setting up conv2
I0501 19:28:04.410043 14258 net.cpp:151] Top shape: 20 64 20 20 (512000)
I0501 19:28:04.410048 14258 net.cpp:159] Memory required for data: 6176080
I0501 19:28:04.410055 14258 layer_factory.hpp:77] Creating layer relu2
I0501 19:28:04.410063 14258 net.cpp:94] Creating Layer relu2
I0501 19:28:04.410066 14258 net.cpp:435] relu2 <- conv2
I0501 19:28:04.410071 14258 net.cpp:396] relu2 -> conv2 (in-place)
I0501 19:28:04.410079 14258 net.cpp:144] Setting up relu2
I0501 19:28:04.410084 14258 net.cpp:151] Top shape: 20 64 20 20 (512000)
I0501 19:28:04.410087 14258 net.cpp:159] Memory required for data: 8224080
I0501 19:28:04.410090 14258 layer_factory.hpp:77] Creating layer pool2
I0501 19:28:04.410099 14258 net.cpp:94] Creating Layer pool2
I0501 19:28:04.410109 14258 net.cpp:435] pool2 <- conv2
I0501 19:28:04.410115 14258 net.cpp:409] pool2 -> pool2
I0501 19:28:04.410159 14258 net.cpp:144] Setting up pool2
I0501 19:28:04.410166 14258 net.cpp:151] Top shape: 20 64 10 10 (128000)
I0501 19:28:04.410171 14258 net.cpp:159] Memory required for data: 8736080
I0501 19:28:04.410173 14258 layer_factory.hpp:77] Creating layer conv3
I0501 19:28:04.410181 14258 net.cpp:94] Creating Layer conv3
I0501 19:28:04.410185 14258 net.cpp:435] conv3 <- pool2
I0501 19:28:04.410190 14258 net.cpp:409] conv3 -> conv3
I0501 19:28:04.415277 14258 net.cpp:144] Setting up conv3
I0501 19:28:04.415292 14258 net.cpp:151] Top shape: 20 64 10 10 (128000)
I0501 19:28:04.415295 14258 net.cpp:159] Memory required for data: 9248080
I0501 19:28:04.415303 14258 layer_factory.hpp:77] Creating layer relu3
I0501 19:28:04.415309 14258 net.cpp:94] Creating Layer relu3
I0501 19:28:04.415313 14258 net.cpp:435] relu3 <- conv3
I0501 19:28:04.415318 14258 net.cpp:396] relu3 -> conv3 (in-place)
I0501 19:28:04.415325 14258 net.cpp:144] Setting up relu3
I0501 19:28:04.415330 14258 net.cpp:151] Top shape: 20 64 10 10 (128000)
I0501 19:28:04.415334 14258 net.cpp:159] Memory required for data: 9760080
I0501 19:28:04.415338 14258 layer_factory.hpp:77] Creating layer conv4
I0501 19:28:04.415346 14258 net.cpp:94] Creating Layer conv4
I0501 19:28:04.415350 14258 net.cpp:435] conv4 <- conv3
I0501 19:28:04.415355 14258 net.cpp:409] conv4 -> conv4
I0501 19:28:04.420498 14258 net.cpp:144] Setting up conv4
I0501 19:28:04.420512 14258 net.cpp:151] Top shape: 20 64 10 10 (128000)
I0501 19:28:04.420516 14258 net.cpp:159] Memory required for data: 10272080
I0501 19:28:04.420522 14258 layer_factory.hpp:77] Creating layer relu4
I0501 19:28:04.420528 14258 net.cpp:94] Creating Layer relu4
I0501 19:28:04.420532 14258 net.cpp:435] relu4 <- conv4
I0501 19:28:04.420537 14258 net.cpp:396] relu4 -> conv4 (in-place)
I0501 19:28:04.420545 14258 net.cpp:144] Setting up relu4
I0501 19:28:04.420559 14258 net.cpp:151] Top shape: 20 64 10 10 (128000)
I0501 19:28:04.420567 14258 net.cpp:159] Memory required for data: 10784080
I0501 19:28:04.420572 14258 layer_factory.hpp:77] Creating layer conv5
I0501 19:28:04.420579 14258 net.cpp:94] Creating Layer conv5
I0501 19:28:04.420583 14258 net.cpp:435] conv5 <- conv4
I0501 19:28:04.420588 14258 net.cpp:409] conv5 -> conv5
I0501 19:28:04.426283 14258 net.cpp:144] Setting up conv5
I0501 19:28:04.426297 14258 net.cpp:151] Top shape: 20 64 10 10 (128000)
I0501 19:28:04.426301 14258 net.cpp:159] Memory required for data: 11296080
I0501 19:28:04.426311 14258 layer_factory.hpp:77] Creating layer relu5
I0501 19:28:04.426316 14258 net.cpp:94] Creating Layer relu5
I0501 19:28:04.426321 14258 net.cpp:435] relu5 <- conv5
I0501 19:28:04.426326 14258 net.cpp:396] relu5 -> conv5 (in-place)
I0501 19:28:04.426333 14258 net.cpp:144] Setting up relu5
I0501 19:28:04.426338 14258 net.cpp:151] Top shape: 20 64 10 10 (128000)
I0501 19:28:04.426342 14258 net.cpp:159] Memory required for data: 11808080
I0501 19:28:04.426344 14258 layer_factory.hpp:77] Creating layer pool5
I0501 19:28:04.426349 14258 net.cpp:94] Creating Layer pool5
I0501 19:28:04.426353 14258 net.cpp:435] pool5 <- conv5
I0501 19:28:04.426358 14258 net.cpp:409] pool5 -> pool5
I0501 19:28:04.426391 14258 net.cpp:144] Setting up pool5
I0501 19:28:04.426398 14258 net.cpp:151] Top shape: 20 64 5 5 (32000)
I0501 19:28:04.426403 14258 net.cpp:159] Memory required for data: 11936080
I0501 19:28:04.426405 14258 layer_factory.hpp:77] Creating layer ip1
I0501 19:28:04.426415 14258 net.cpp:94] Creating Layer ip1
I0501 19:28:04.426419 14258 net.cpp:435] ip1 <- pool5
I0501 19:28:04.426424 14258 net.cpp:409] ip1 -> ip1
I0501 19:28:04.428867 14258 net.cpp:144] Setting up ip1
I0501 19:28:04.428877 14258 net.cpp:151] Top shape: 20 64 (1280)
I0501 19:28:04.428880 14258 net.cpp:159] Memory required for data: 11941200
I0501 19:28:04.428886 14258 layer_factory.hpp:77] Creating layer ip2
I0501 19:28:04.428894 14258 net.cpp:94] Creating Layer ip2
I0501 19:28:04.428901 14258 net.cpp:435] ip2 <- ip1
I0501 19:28:04.428907 14258 net.cpp:409] ip2 -> ip2
I0501 19:28:04.429067 14258 net.cpp:144] Setting up ip2
I0501 19:28:04.429074 14258 net.cpp:151] Top shape: 20 64 (1280)
I0501 19:28:04.429077 14258 net.cpp:159] Memory required for data: 11946320
I0501 19:28:04.429082 14258 layer_factory.hpp:77] Creating layer ip3
I0501 19:28:04.429088 14258 net.cpp:94] Creating Layer ip3
I0501 19:28:04.429092 14258 net.cpp:435] ip3 <- ip2
I0501 19:28:04.429097 14258 net.cpp:409] ip3 -> ip3
I0501 19:28:04.429158 14258 net.cpp:144] Setting up ip3
I0501 19:28:04.429169 14258 net.cpp:151] Top shape: 20 1 (20)
I0501 19:28:04.429173 14258 net.cpp:159] Memory required for data: 11946400
I0501 19:28:04.429178 14258 layer_factory.hpp:77] Creating layer loss
I0501 19:28:04.429189 14258 net.cpp:94] Creating Layer loss
I0501 19:28:04.429193 14258 net.cpp:435] loss <- ip3
I0501 19:28:04.429198 14258 net.cpp:435] loss <- label
I0501 19:28:04.429203 14258 net.cpp:409] loss -> loss
I0501 19:28:04.429236 14258 net.cpp:144] Setting up loss
…
