…
I0507 23:14:56.664106  8813 net.cpp:323] The NetState phase (0) differed from the phase (1) specified by a rule in layer intercept
I0507 23:14:56.664122  8813 net.cpp:323] The NetState phase (0) differed from the phase (1) specified by a rule in layer loss
I0507 23:14:56.664201  8813 net.cpp:52] Initializing net from parameters: 
state {
  phase: TRAIN
}
layer {
  name: "parameters"
  type: "HDF5Data"
  top: "data"
  top: "label"
  include {
    phase: TRAIN
  }
  hdf5_data_param {
    source: "/home/purduethu/scratch/radon/d/deng106/CNNStatisticalModel/distributions/input/5_distributions_100_sample_size_train-parameters-path.txt"
    batch_size: 20
  }
}
layer {
  name: "conv1"
  type: "Convolution"
  bottom: "data"
  top: "conv1"
  param {
    lr_mult: 1
  }
  param {
    lr_mult: 2
  }
  convolution_param {
    num_output: 64
    pad: 2
    kernel_size: 5
    stride: 1
    weight_filler {
      type: "gaussian"
      std: 0.0001
    }
    bias_filler {
      type: "constant"
    }
  }
}
layer {
  name: "relu1"
  type: "ReLU"
  bottom: "conv1"
  top: "conv1"
}
layer {
  name: "conv2"
  type: "Convolution"
  bottom: "conv1"
  top: "conv2"
  param {
    lr_mult: 1
  }
  param {
    lr_mult: 2
  }
  convolution_param {
    num_output: 64
    pad: 2
    kernel_size: 5
    stride: 1
    weight_filler {
      type: "gaussian"
      std: 0.01
    }
    bias_filler {
      type: "constant"
    }
  }
}
layer {
  name: "relu2"
  type: "ReLU"
  bottom: "conv2"
  top: "conv2"
}
layer {
  name: "pool2"
  type: "Pooling"
  bottom: "conv2"
  top: "pool2"
  pooling_param {
    pool: MAX
    kernel_size: 3
    stride: 2
  }
}
layer {
  name: "conv3"
  type: "Convolution"
  bottom: "pool2"
  top: "conv3"
  param {
    lr_mult: 1
  }
  param {
    lr_mult: 2
  }
  convolution_param {
    num_output: 64
    pad: 2
    kernel_size: 5
    stride: 1
    weight_filler {
      type: "gaussian"
      std: 0.01
    }
    bias_filler {
      type: "constant"
    }
  }
}
layer {
  name: "relu3"
  type: "ReLU"
  bottom: "conv3"
  top: "conv3"
}
layer {
  name: "conv4"
  type: "Convolution"
  bottom: "conv3"
  top: "conv4"
  param {
    lr_mult: 1
  }
  param {
    lr_mult: 2
  }
  convolution_param {
    num_output: 64
    pad: 2
    kernel_size: 5
    stride: 1
    weight_filler {
      type: "gaussian"
      std: 0.01
    }
    bias_filler {
      type: "constant"
    }
  }
}
layer {
  name: "relu4"
  type: "ReLU"
  bottom: "conv4"
  top: "conv4"
}
layer {
  name: "conv5"
  type: "Convolution"
  bottom: "conv4"
  top: "conv5"
  param {
    lr_mult: 1
  }
  param {
    lr_mult: 2
  }
  convolution_param {
    num_output: 64
    pad: 2
    kernel_size: 5
    stride: 1
    weight_filler {
      type: "gaussian"
      std: 0.01
    }
    bias_filler {
      type: "constant"
    }
  }
}
layer {
  name: "relu5"
  type: "ReLU"
  bottom: "conv5"
  top: "conv5"
}
layer {
  name: "pool5"
  type: "Pooling"
  bottom: "conv5"
  top: "pool5"
  pooling_param {
    pool: AVE
    kernel_size: 3
    stride: 2
  }
}
layer {
  name: "ip1"
  type: "InnerProduct"
  bottom: "pool5"
  top: "ip1"
  param {
    lr_mult: 1
  }
  param {
    lr_mult: 2
  }
  inner_product_param {
    num_output: 64
    weight_filler {
      type: "gaussian"
      std: 0.1
    }
    bias_filler {
      type: "constant"
    }
  }
}
layer {
  name: "ip2"
  type: "InnerProduct"
  bottom: "ip1"
  top: "ip2"
  param {
    lr_mult: 1
  }
  param {
    lr_mult: 2
  }
  inner_product_param {
    num_output: 64
    weight_filler {
      type: "gaussian"
      std: 0.1
    }
    bias_filler {
      type: "constant"
    }
  }
}
layer {
  name: "ip3"
  type: "InnerProduct"
  bottom: "ip2"
  top: "ip3"
  param {
    lr_mult: 1
  }
  param {
    lr_mult: 2
  }
  inner_product_param {
    num_output: 1
    weight_filler {
      type: "gaussian"
      std: 0.1
    }
    bias_filler {
      type: "constant"
    }
  }
}
layer {
  name: "loss"
  type: "HuberLoss"
  bottom: "ip3"
  bottom: "label"
  top: "loss"
  include {
    phase: TRAIN
  }
}
I0507 23:14:56.664252  8813 layer_factory.hpp:77] Creating layer parameters
I0507 23:14:56.664268  8813 net.cpp:94] Creating Layer parameters
I0507 23:14:56.664273  8813 net.cpp:409] parameters -> data
I0507 23:14:56.664281  8813 net.cpp:409] parameters -> label
I0507 23:14:56.664288  8813 hdf5_data_layer.cpp:79] Loading list of HDF5 filenames from: /home/purduethu/scratch/radon/d/deng106/CNNStatisticalModel/distributions/input/5_distributions_100_sample_size_train-parameters-path.txt
I0507 23:14:56.664301  8813 hdf5_data_layer.cpp:93] Number of HDF5 files: 1
I0507 23:14:56.664737  8813 hdf5.cpp:32] Datatype class: H5T_FLOAT
I0507 23:14:56.682457  8813 net.cpp:144] Setting up parameters
I0507 23:14:56.682487  8813 net.cpp:151] Top shape: 20 1 10 10 (2000)
I0507 23:14:56.682492  8813 net.cpp:151] Top shape: 20 (20)
I0507 23:14:56.682497  8813 net.cpp:159] Memory required for data: 8080
I0507 23:14:56.682502  8813 layer_factory.hpp:77] Creating layer conv1
I0507 23:14:56.682518  8813 net.cpp:94] Creating Layer conv1
I0507 23:14:56.682523  8813 net.cpp:435] conv1 <- data
I0507 23:14:56.682528  8813 net.cpp:409] conv1 -> conv1
I0507 23:14:56.686805  8813 net.cpp:144] Setting up conv1
I0507 23:14:56.686820  8813 net.cpp:151] Top shape: 20 64 10 10 (128000)
I0507 23:14:56.686825  8813 net.cpp:159] Memory required for data: 520080
I0507 23:14:56.686833  8813 layer_factory.hpp:77] Creating layer relu1
I0507 23:14:56.686841  8813 net.cpp:94] Creating Layer relu1
I0507 23:14:56.686846  8813 net.cpp:435] relu1 <- conv1
I0507 23:14:56.686849  8813 net.cpp:396] relu1 -> conv1 (in-place)
I0507 23:14:56.686856  8813 net.cpp:144] Setting up relu1
I0507 23:14:56.686861  8813 net.cpp:151] Top shape: 20 64 10 10 (128000)
I0507 23:14:56.686864  8813 net.cpp:159] Memory required for data: 1032080
I0507 23:14:56.686867  8813 layer_factory.hpp:77] Creating layer conv2
I0507 23:14:56.686874  8813 net.cpp:94] Creating Layer conv2
I0507 23:14:56.686878  8813 net.cpp:435] conv2 <- conv1
I0507 23:14:56.686882  8813 net.cpp:409] conv2 -> conv2
I0507 23:14:56.693037  8813 net.cpp:144] Setting up conv2
I0507 23:14:56.693050  8813 net.cpp:151] Top shape: 20 64 10 10 (128000)
I0507 23:14:56.693054  8813 net.cpp:159] Memory required for data: 1544080
I0507 23:14:56.693063  8813 layer_factory.hpp:77] Creating layer relu2
I0507 23:14:56.693069  8813 net.cpp:94] Creating Layer relu2
I0507 23:14:56.693073  8813 net.cpp:435] relu2 <- conv2
I0507 23:14:56.693078  8813 net.cpp:396] relu2 -> conv2 (in-place)
I0507 23:14:56.693084  8813 net.cpp:144] Setting up relu2
I0507 23:14:56.693089  8813 net.cpp:151] Top shape: 20 64 10 10 (128000)
I0507 23:14:56.693091  8813 net.cpp:159] Memory required for data: 2056080
I0507 23:14:56.693094  8813 layer_factory.hpp:77] Creating layer pool2
I0507 23:14:56.693105  8813 net.cpp:94] Creating Layer pool2
I0507 23:14:56.693109  8813 net.cpp:435] pool2 <- conv2
I0507 23:14:56.693114  8813 net.cpp:409] pool2 -> pool2
I0507 23:14:56.693172  8813 net.cpp:144] Setting up pool2
I0507 23:14:56.693181  8813 net.cpp:151] Top shape: 20 64 5 5 (32000)
I0507 23:14:56.693183  8813 net.cpp:159] Memory required for data: 2184080
I0507 23:14:56.693186  8813 layer_factory.hpp:77] Creating layer conv3
I0507 23:14:56.693194  8813 net.cpp:94] Creating Layer conv3
I0507 23:14:56.693198  8813 net.cpp:435] conv3 <- pool2
I0507 23:14:56.693203  8813 net.cpp:409] conv3 -> conv3
I0507 23:14:56.698146  8813 net.cpp:144] Setting up conv3
I0507 23:14:56.698160  8813 net.cpp:151] Top shape: 20 64 5 5 (32000)
I0507 23:14:56.698163  8813 net.cpp:159] Memory required for data: 2312080
I0507 23:14:56.698173  8813 layer_factory.hpp:77] Creating layer relu3
I0507 23:14:56.698179  8813 net.cpp:94] Creating Layer relu3
I0507 23:14:56.698182  8813 net.cpp:435] relu3 <- conv3
I0507 23:14:56.698186  8813 net.cpp:396] relu3 -> conv3 (in-place)
I0507 23:14:56.698194  8813 net.cpp:144] Setting up relu3
I0507 23:14:56.698197  8813 net.cpp:151] Top shape: 20 64 5 5 (32000)
I0507 23:14:56.698200  8813 net.cpp:159] Memory required for data: 2440080
I0507 23:14:56.698204  8813 layer_factory.hpp:77] Creating layer conv4
I0507 23:14:56.698211  8813 net.cpp:94] Creating Layer conv4
I0507 23:14:56.698215  8813 net.cpp:435] conv4 <- conv3
I0507 23:14:56.698220  8813 net.cpp:409] conv4 -> conv4
I0507 23:14:56.702673  8813 net.cpp:144] Setting up conv4
I0507 23:14:56.702687  8813 net.cpp:151] Top shape: 20 64 5 5 (32000)
I0507 23:14:56.702690  8813 net.cpp:159] Memory required for data: 2568080
I0507 23:14:56.702697  8813 layer_factory.hpp:77] Creating layer relu4
I0507 23:14:56.702702  8813 net.cpp:94] Creating Layer relu4
I0507 23:14:56.702705  8813 net.cpp:435] relu4 <- conv4
I0507 23:14:56.702710  8813 net.cpp:396] relu4 -> conv4 (in-place)
I0507 23:14:56.702716  8813 net.cpp:144] Setting up relu4
I0507 23:14:56.702720  8813 net.cpp:151] Top shape: 20 64 5 5 (32000)
I0507 23:14:56.702723  8813 net.cpp:159] Memory required for data: 2696080
I0507 23:14:56.702726  8813 layer_factory.hpp:77] Creating layer conv5
I0507 23:14:56.702734  8813 net.cpp:94] Creating Layer conv5
I0507 23:14:56.702738  8813 net.cpp:435] conv5 <- conv4
I0507 23:14:56.702742  8813 net.cpp:409] conv5 -> conv5
I0507 23:14:56.707641  8813 net.cpp:144] Setting up conv5
I0507 23:14:56.707654  8813 net.cpp:151] Top shape: 20 64 5 5 (32000)
I0507 23:14:56.707659  8813 net.cpp:159] Memory required for data: 2824080
I0507 23:14:56.707667  8813 layer_factory.hpp:77] Creating layer relu5
I0507 23:14:56.707674  8813 net.cpp:94] Creating Layer relu5
I0507 23:14:56.707677  8813 net.cpp:435] relu5 <- conv5
I0507 23:14:56.707681  8813 net.cpp:396] relu5 -> conv5 (in-place)
I0507 23:14:56.707689  8813 net.cpp:144] Setting up relu5
I0507 23:14:56.707692  8813 net.cpp:151] Top shape: 20 64 5 5 (32000)
I0507 23:14:56.707695  8813 net.cpp:159] Memory required for data: 2952080
I0507 23:14:56.707698  8813 layer_factory.hpp:77] Creating layer pool5
I0507 23:14:56.707703  8813 net.cpp:94] Creating Layer pool5
I0507 23:14:56.707706  8813 net.cpp:435] pool5 <- conv5
I0507 23:14:56.707710  8813 net.cpp:409] pool5 -> pool5
I0507 23:14:56.707748  8813 net.cpp:144] Setting up pool5
I0507 23:14:56.707756  8813 net.cpp:151] Top shape: 20 64 2 2 (5120)
I0507 23:14:56.707759  8813 net.cpp:159] Memory required for data: 2972560
I0507 23:14:56.707762  8813 layer_factory.hpp:77] Creating layer ip1
I0507 23:14:56.707772  8813 net.cpp:94] Creating Layer ip1
I0507 23:14:56.707775  8813 net.cpp:435] ip1 <- pool5
I0507 23:14:56.707779  8813 net.cpp:409] ip1 -> ip1
I0507 23:14:56.709105  8813 net.cpp:144] Setting up ip1
I0507 23:14:56.709117  8813 net.cpp:151] Top shape: 20 64 (1280)
I0507 23:14:56.709120  8813 net.cpp:159] Memory required for data: 2977680
I0507 23:14:56.709127  8813 layer_factory.hpp:77] Creating layer ip2
I0507 23:14:56.709133  8813 net.cpp:94] Creating Layer ip2
I0507 23:14:56.709141  8813 net.cpp:435] ip2 <- ip1
I0507 23:14:56.709147  8813 net.cpp:409] ip2 -> ip2
I0507 23:14:56.709360  8813 net.cpp:144] Setting up ip2
I0507 23:14:56.709368  8813 net.cpp:151] Top shape: 20 64 (1280)
I0507 23:14:56.709372  8813 net.cpp:159] Memory required for data: 2982800
I0507 23:14:56.709377  8813 layer_factory.hpp:77] Creating layer ip3
I0507 23:14:56.709383  8813 net.cpp:94] Creating Layer ip3
I0507 23:14:56.709385  8813 net.cpp:435] ip3 <- ip2
I0507 23:14:56.709390  8813 net.cpp:409] ip3 -> ip3
I0507 23:14:56.709494  8813 net.cpp:144] Setting up ip3
I0507 23:14:56.709501  8813 net.cpp:151] Top shape: 20 1 (20)
I0507 23:14:56.709504  8813 net.cpp:159] Memory required for data: 2982880
I0507 23:14:56.709508  8813 layer_factory.hpp:77] Creating layer loss
I0507 23:14:56.709519  8813 net.cpp:94] Creating Layer loss
I0507 23:14:56.709523  8813 net.cpp:435] loss <- ip3
I0507 23:14:56.709527  8813 net.cpp:435] loss <- label
I0507 23:14:56.709532  8813 net.cpp:409] loss -> loss
I0507 23:14:56.709583  8813 net.cpp:144] Setting up loss
…
I0507 23:14:56.758625  8813 net.cpp:323] The NetState phase (0) differed from the phase (1) specified by a rule in layer intercept
I0507 23:14:56.758656  8813 net.cpp:323] The NetState phase (0) differed from the phase (1) specified by a rule in layer accuracy
I0507 23:14:56.758841  8813 net.cpp:52] Initializing net from parameters: 
state {
  phase: TRAIN
}
layer {
  name: "parameters"
  type: "HDF5Data"
  top: "data"
  top: "label"
  include {
    phase: TRAIN
  }
  hdf5_data_param {
    source: "/home/purduethu/scratch/radon/d/deng106/CNNStatisticalModel/distributions/input/5_distributions_100_sample_size_train-distributions-path.txt"
    batch_size: 20
  }
}
layer {
  name: "conv1"
  type: "Convolution"
  bottom: "data"
  top: "conv1"
  param {
    lr_mult: 1
  }
  param {
    lr_mult: 2
  }
  convolution_param {
    num_output: 64
    pad: 2
    kernel_size: 5
    stride: 1
    weight_filler {
      type: "gaussian"
      std: 0.0001
    }
    bias_filler {
      type: "constant"
    }
  }
}
layer {
  name: "relu1"
  type: "ReLU"
  bottom: "conv1"
  top: "conv1"
}
layer {
  name: "conv2"
  type: "Convolution"
  bottom: "conv1"
  top: "conv2"
  param {
    lr_mult: 1
  }
  param {
    lr_mult: 2
  }
  convolution_param {
    num_output: 64
    pad: 2
    kernel_size: 5
    stride: 1
    weight_filler {
      type: "gaussian"
      std: 0.01
    }
    bias_filler {
      type: "constant"
    }
  }
}
layer {
  name: "relu2"
  type: "ReLU"
  bottom: "conv2"
  top: "conv2"
}
layer {
  name: "pool2"
  type: "Pooling"
  bottom: "conv2"
  top: "pool2"
  pooling_param {
    pool: MAX
    kernel_size: 3
    stride: 2
  }
}
layer {
  name: "conv3"
  type: "Convolution"
  bottom: "pool2"
  top: "conv3"
  param {
    lr_mult: 1
  }
  param {
    lr_mult: 2
  }
  convolution_param {
    num_output: 64
    pad: 2
    kernel_size: 5
    stride: 1
    weight_filler {
      type: "gaussian"
      std: 0.01
    }
    bias_filler {
      type: "constant"
    }
  }
}
layer {
  name: "relu3"
  type: "ReLU"
  bottom: "conv3"
  top: "conv3"
}
layer {
  name: "conv4"
  type: "Convolution"
  bottom: "conv3"
  top: "conv4"
  param {
    lr_mult: 1
  }
  param {
    lr_mult: 2
  }
  convolution_param {
    num_output: 64
    pad: 2
    kernel_size: 5
    stride: 1
    weight_filler {
      type: "gaussian"
      std: 0.01
    }
    bias_filler {
      type: "constant"
    }
  }
}
layer {
  name: "relu4"
  type: "ReLU"
  bottom: "conv4"
  top: "conv4"
}
layer {
  name: "conv5"
  type: "Convolution"
  bottom: "conv4"
  top: "conv5"
  param {
    lr_mult: 1
  }
  param {
    lr_mult: 2
  }
  convolution_param {
    num_output: 64
    pad: 2
    kernel_size: 5
    stride: 1
    weight_filler {
      type: "gaussian"
      std: 0.01
    }
    bias_filler {
      type: "constant"
    }
  }
}
layer {
  name: "relu5"
  type: "ReLU"
  bottom: "conv5"
  top: "conv5"
}
layer {
  name: "pool5"
  type: "Pooling"
  bottom: "conv5"
  top: "pool5"
  pooling_param {
    pool: AVE
    kernel_size: 3
    stride: 2
  }
}
layer {
  name: "ip1"
  type: "InnerProduct"
  bottom: "pool5"
  top: "ip1"
  param {
    lr_mult: 1
  }
  param {
    lr_mult: 2
  }
  inner_product_param {
    num_output: 64
    weight_filler {
      type: "gaussian"
      std: 0.1
    }
    bias_filler {
      type: "constant"
    }
  }
}
layer {
  name: "ip2"
  type: "InnerProduct"
  bottom: "ip1"
  top: "ip2"
  param {
    lr_mult: 1
  }
  param {
    lr_mult: 2
  }
  inner_product_param {
    num_output: 64
    weight_filler {
      type: "gaussian"
      std: 0.1
    }
    bias_filler {
      type: "constant"
    }
  }
}
layer {
  name: "ip3"
  type: "InnerProduct"
  bottom: "ip2"
  top: "ip3"
  param {
    lr_mult: 1
  }
  param {
    lr_mult: 2
  }
  inner_product_param {
    num_output: 50
    weight_filler {
      type: "gaussian"
      std: 0.1
    }
    bias_filler {
      type: "constant"
    }
  }
}
layer {
  name: "loss"
  type: "SoftmaxWithLoss"
  bottom: "ip3"
  bottom: "label"
  top: "loss"
}
I0507 23:14:56.758941  8813 layer_factory.hpp:77] Creating layer parameters
I0507 23:14:56.758957  8813 net.cpp:94] Creating Layer parameters
I0507 23:14:56.758967  8813 net.cpp:409] parameters -> data
I0507 23:14:56.758982  8813 net.cpp:409] parameters -> label
I0507 23:14:56.758996  8813 hdf5_data_layer.cpp:79] Loading list of HDF5 filenames from: /home/purduethu/scratch/radon/d/deng106/CNNStatisticalModel/distributions/input/5_distributions_100_sample_size_train-distributions-path.txt
I0507 23:14:56.759023  8813 hdf5_data_layer.cpp:93] Number of HDF5 files: 1
I0507 23:14:56.786757  8813 hdf5.cpp:35] Datatype class: H5T_INTEGER
I0507 23:14:56.787493  8813 net.cpp:144] Setting up parameters
I0507 23:14:56.787514  8813 net.cpp:151] Top shape: 20 1 10 10 (2000)
I0507 23:14:56.787524  8813 net.cpp:151] Top shape: 20 (20)
I0507 23:14:56.787530  8813 net.cpp:159] Memory required for data: 8080
I0507 23:14:56.787540  8813 layer_factory.hpp:77] Creating layer conv1
I0507 23:14:56.787564  8813 net.cpp:94] Creating Layer conv1
I0507 23:14:56.787571  8813 net.cpp:435] conv1 <- data
I0507 23:14:56.787582  8813 net.cpp:409] conv1 -> conv1
I0507 23:14:56.790115  8813 net.cpp:144] Setting up conv1
I0507 23:14:56.790140  8813 net.cpp:151] Top shape: 20 64 10 10 (128000)
I0507 23:14:56.790148  8813 net.cpp:159] Memory required for data: 520080
I0507 23:14:56.790166  8813 layer_factory.hpp:77] Creating layer relu1
I0507 23:14:56.790179  8813 net.cpp:94] Creating Layer relu1
I0507 23:14:56.790187  8813 net.cpp:435] relu1 <- conv1
I0507 23:14:56.790196  8813 net.cpp:396] relu1 -> conv1 (in-place)
I0507 23:14:56.790210  8813 net.cpp:144] Setting up relu1
I0507 23:14:56.790218  8813 net.cpp:151] Top shape: 20 64 10 10 (128000)
I0507 23:14:56.790225  8813 net.cpp:159] Memory required for data: 1032080
I0507 23:14:56.790230  8813 layer_factory.hpp:77] Creating layer conv2
I0507 23:14:56.790244  8813 net.cpp:94] Creating Layer conv2
I0507 23:14:56.790251  8813 net.cpp:435] conv2 <- conv1
I0507 23:14:56.790261  8813 net.cpp:409] conv2 -> conv2
I0507 23:14:56.799113  8813 net.cpp:144] Setting up conv2
I0507 23:14:56.799136  8813 net.cpp:151] Top shape: 20 64 10 10 (128000)
I0507 23:14:56.799144  8813 net.cpp:159] Memory required for data: 1544080
I0507 23:14:56.799159  8813 layer_factory.hpp:77] Creating layer relu2
I0507 23:14:56.799170  8813 net.cpp:94] Creating Layer relu2
I0507 23:14:56.799177  8813 net.cpp:435] relu2 <- conv2
I0507 23:14:56.799186  8813 net.cpp:396] relu2 -> conv2 (in-place)
I0507 23:14:56.799198  8813 net.cpp:144] Setting up relu2
I0507 23:14:56.799206  8813 net.cpp:151] Top shape: 20 64 10 10 (128000)
I0507 23:14:56.799211  8813 net.cpp:159] Memory required for data: 2056080
I0507 23:14:56.799217  8813 layer_factory.hpp:77] Creating layer pool2
I0507 23:14:56.799227  8813 net.cpp:94] Creating Layer pool2
I0507 23:14:56.799233  8813 net.cpp:435] pool2 <- conv2
I0507 23:14:56.799242  8813 net.cpp:409] pool2 -> pool2
I0507 23:14:56.799338  8813 net.cpp:144] Setting up pool2
I0507 23:14:56.799351  8813 net.cpp:151] Top shape: 20 64 5 5 (32000)
I0507 23:14:56.799357  8813 net.cpp:159] Memory required for data: 2184080
I0507 23:14:56.799363  8813 layer_factory.hpp:77] Creating layer conv3
I0507 23:14:56.799376  8813 net.cpp:94] Creating Layer conv3
I0507 23:14:56.799383  8813 net.cpp:435] conv3 <- pool2
I0507 23:14:56.799392  8813 net.cpp:409] conv3 -> conv3
I0507 23:14:56.807595  8813 net.cpp:144] Setting up conv3
I0507 23:14:56.807626  8813 net.cpp:151] Top shape: 20 64 5 5 (32000)
I0507 23:14:56.807634  8813 net.cpp:159] Memory required for data: 2312080
I0507 23:14:56.807648  8813 layer_factory.hpp:77] Creating layer relu3
I0507 23:14:56.807659  8813 net.cpp:94] Creating Layer relu3
I0507 23:14:56.807667  8813 net.cpp:435] relu3 <- conv3
I0507 23:14:56.807674  8813 net.cpp:396] relu3 -> conv3 (in-place)
I0507 23:14:56.807685  8813 net.cpp:144] Setting up relu3
I0507 23:14:56.807693  8813 net.cpp:151] Top shape: 20 64 5 5 (32000)
I0507 23:14:56.807698  8813 net.cpp:159] Memory required for data: 2440080
I0507 23:14:56.807704  8813 layer_factory.hpp:77] Creating layer conv4
I0507 23:14:56.807718  8813 net.cpp:94] Creating Layer conv4
I0507 23:14:56.807724  8813 net.cpp:435] conv4 <- conv3
I0507 23:14:56.807732  8813 net.cpp:409] conv4 -> conv4
I0507 23:14:56.816943  8813 net.cpp:144] Setting up conv4
I0507 23:14:56.816965  8813 net.cpp:151] Top shape: 20 64 5 5 (32000)
I0507 23:14:56.816972  8813 net.cpp:159] Memory required for data: 2568080
I0507 23:14:56.816982  8813 layer_factory.hpp:77] Creating layer relu4
I0507 23:14:56.816992  8813 net.cpp:94] Creating Layer relu4
I0507 23:14:56.816998  8813 net.cpp:435] relu4 <- conv4
I0507 23:14:56.817006  8813 net.cpp:396] relu4 -> conv4 (in-place)
I0507 23:14:56.817018  8813 net.cpp:144] Setting up relu4
I0507 23:14:56.817024  8813 net.cpp:151] Top shape: 20 64 5 5 (32000)
I0507 23:14:56.817030  8813 net.cpp:159] Memory required for data: 2696080
I0507 23:14:56.817035  8813 layer_factory.hpp:77] Creating layer conv5
I0507 23:14:56.817046  8813 net.cpp:94] Creating Layer conv5
I0507 23:14:56.817054  8813 net.cpp:435] conv5 <- conv4
I0507 23:14:56.817060  8813 net.cpp:409] conv5 -> conv5
I0507 23:14:56.823849  8813 net.cpp:144] Setting up conv5
I0507 23:14:56.823869  8813 net.cpp:151] Top shape: 20 64 5 5 (32000)
I0507 23:14:56.823876  8813 net.cpp:159] Memory required for data: 2824080
I0507 23:14:56.823890  8813 layer_factory.hpp:77] Creating layer relu5
I0507 23:14:56.823899  8813 net.cpp:94] Creating Layer relu5
I0507 23:14:56.823906  8813 net.cpp:435] relu5 <- conv5
I0507 23:14:56.823914  8813 net.cpp:396] relu5 -> conv5 (in-place)
I0507 23:14:56.823925  8813 net.cpp:144] Setting up relu5
I0507 23:14:56.823931  8813 net.cpp:151] Top shape: 20 64 5 5 (32000)
I0507 23:14:56.823937  8813 net.cpp:159] Memory required for data: 2952080
I0507 23:14:56.823942  8813 layer_factory.hpp:77] Creating layer pool5
I0507 23:14:56.823949  8813 net.cpp:94] Creating Layer pool5
I0507 23:14:56.823956  8813 net.cpp:435] pool5 <- conv5
I0507 23:14:56.823962  8813 net.cpp:409] pool5 -> pool5
I0507 23:14:56.824017  8813 net.cpp:144] Setting up pool5
I0507 23:14:56.824028  8813 net.cpp:151] Top shape: 20 64 2 2 (5120)
I0507 23:14:56.824033  8813 net.cpp:159] Memory required for data: 2972560
I0507 23:14:56.824038  8813 layer_factory.hpp:77] Creating layer ip1
I0507 23:14:56.824048  8813 net.cpp:94] Creating Layer ip1
I0507 23:14:56.824054  8813 net.cpp:435] ip1 <- pool5
I0507 23:14:56.824061  8813 net.cpp:409] ip1 -> ip1
I0507 23:14:56.824985  8813 net.cpp:144] Setting up ip1
I0507 23:14:56.825001  8813 net.cpp:151] Top shape: 20 64 (1280)
I0507 23:14:56.825006  8813 net.cpp:159] Memory required for data: 2977680
I0507 23:14:56.825016  8813 layer_factory.hpp:77] Creating layer ip2
I0507 23:14:56.825024  8813 net.cpp:94] Creating Layer ip2
I0507 23:14:56.825031  8813 net.cpp:435] ip2 <- ip1
I0507 23:14:56.825038  8813 net.cpp:409] ip2 -> ip2
I0507 23:14:56.825422  8813 net.cpp:144] Setting up ip2
I0507 23:14:56.825433  8813 net.cpp:151] Top shape: 20 64 (1280)
I0507 23:14:56.825438  8813 net.cpp:159] Memory required for data: 2982800
I0507 23:14:56.825445  8813 layer_factory.hpp:77] Creating layer ip3
I0507 23:14:56.825454  8813 net.cpp:94] Creating Layer ip3
I0507 23:14:56.825460  8813 net.cpp:435] ip3 <- ip2
I0507 23:14:56.825469  8813 net.cpp:409] ip3 -> ip3
I0507 23:14:56.825799  8813 net.cpp:144] Setting up ip3
I0507 23:14:56.825809  8813 net.cpp:151] Top shape: 20 50 (1000)
I0507 23:14:56.825821  8813 net.cpp:159] Memory required for data: 2986800
I0507 23:14:56.825830  8813 layer_factory.hpp:77] Creating layer loss
I0507 23:14:56.825840  8813 net.cpp:94] Creating Layer loss
I0507 23:14:56.825846  8813 net.cpp:435] loss <- ip3
I0507 23:14:56.825852  8813 net.cpp:435] loss <- label
I0507 23:14:56.825860  8813 net.cpp:409] loss -> loss
I0507 23:14:56.825870  8813 layer_factory.hpp:77] Creating layer loss
…
I0507 23:14:56.827965  8813 solver.cpp:181] Creating test net (#0) specified by net file: ./protocol/dis_5_100_dimension.protocol_distribution
I0507 23:14:56.828007  8813 net.cpp:323] The NetState phase (1) differed from the phase (0) specified by a rule in layer parameters
I0507 23:14:56.828171  8813 net.cpp:52] Initializing net from parameters: 
state {
  phase: TEST
}
layer {
  name: "intercept"
  type: "HDF5Data"
  top: "data"
  top: "label"
  include {
    phase: TEST
  }
  hdf5_data_param {
    source: "/home/purduethu/scratch/radon/d/deng106/CNNStatisticalModel/distributions/input/5_distributions_100_sample_size_test-distributions-path.txt"
    batch_size: 20
  }
}
layer {
  name: "conv1"
  type: "Convolution"
  bottom: "data"
  top: "conv1"
  param {
    lr_mult: 1
  }
  param {
    lr_mult: 2
  }
  convolution_param {
    num_output: 64
    pad: 2
    kernel_size: 5
    stride: 1
    weight_filler {
      type: "gaussian"
      std: 0.0001
    }
    bias_filler {
      type: "constant"
    }
  }
}
layer {
  name: "relu1"
  type: "ReLU"
  bottom: "conv1"
  top: "conv1"
}
layer {
  name: "conv2"
  type: "Convolution"
  bottom: "conv1"
  top: "conv2"
  param {
    lr_mult: 1
  }
  param {
    lr_mult: 2
  }
  convolution_param {
    num_output: 64
    pad: 2
    kernel_size: 5
    stride: 1
    weight_filler {
      type: "gaussian"
      std: 0.01
    }
    bias_filler {
      type: "constant"
    }
  }
}
layer {
  name: "relu2"
  type: "ReLU"
  bottom: "conv2"
  top: "conv2"
}
layer {
  name: "pool2"
  type: "Pooling"
  bottom: "conv2"
  top: "pool2"
  pooling_param {
    pool: MAX
    kernel_size: 3
    stride: 2
  }
}
layer {
  name: "conv3"
  type: "Convolution"
  bottom: "pool2"
  top: "conv3"
  param {
    lr_mult: 1
  }
  param {
    lr_mult: 2
  }
  convolution_param {
    num_output: 64
    pad: 2
    kernel_size: 5
    stride: 1
    weight_filler {
      type: "gaussian"
      std: 0.01
    }
    bias_filler {
      type: "constant"
    }
  }
}
layer {
  name: "relu3"
  type: "ReLU"
  bottom: "conv3"
  top: "conv3"
}
layer {
  name: "conv4"
  type: "Convolution"
  bottom: "conv3"
  top: "conv4"
  param {
    lr_mult: 1
  }
  param {
    lr_mult: 2
  }
  convolution_param {
    num_output: 64
    pad: 2
    kernel_size: 5
    stride: 1
    weight_filler {
      type: "gaussian"
      std: 0.01
    }
    bias_filler {
      type: "constant"
    }
  }
}
layer {
  name: "relu4"
  type: "ReLU"
  bottom: "conv4"
  top: "conv4"
}
layer {
  name: "conv5"
  type: "Convolution"
  bottom: "conv4"
  top: "conv5"
  param {
    lr_mult: 1
  }
  param {
    lr_mult: 2
  }
  convolution_param {
    num_output: 64
    pad: 2
    kernel_size: 5
    stride: 1
    weight_filler {
      type: "gaussian"
      std: 0.01
    }
    bias_filler {
      type: "constant"
    }
  }
}
layer {
  name: "relu5"
  type: "ReLU"
  bottom: "conv5"
  top: "conv5"
}
layer {
  name: "pool5"
  type: "Pooling"
  bottom: "conv5"
  top: "pool5"
  pooling_param {
    pool: AVE
    kernel_size: 3
    stride: 2
  }
}
layer {
  name: "ip1"
  type: "InnerProduct"
  bottom: "pool5"
  top: "ip1"
  param {
    lr_mult: 1
  }
  param {
    lr_mult: 2
  }
  inner_product_param {
    num_output: 64
    weight_filler {
      type: "gaussian"
      std: 0.1
    }
    bias_filler {
      type: "constant"
    }
  }
}
layer {
  name: "ip2"
  type: "InnerProduct"
  bottom: "ip1"
  top: "ip2"
  param {
    lr_mult: 1
  }
  param {
    lr_mult: 2
  }
  inner_product_param {
    num_output: 64
    weight_filler {
      type: "gaussian"
      std: 0.1
    }
    bias_filler {
      type: "constant"
    }
  }
}
layer {
  name: "ip3"
  type: "InnerProduct"
  bottom: "ip2"
  top: "ip3"
  param {
    lr_mult: 1
  }
  param {
    lr_mult: 2
  }
  inner_product_param {
    num_output: 50
    weight_filler {
      type: "gaussian"
      std: 0.1
    }
    bias_filler {
      type: "constant"
    }
  }
}
layer {
  name: "accuracy"
  type: "Accuracy"
  bottom: "ip3"
  bottom: "label"
  top: "accuracy"
  include {
    phase: TEST
  }
}
layer {
  name: "loss"
  type: "SoftmaxWithLoss"
  bottom: "ip3"
  bottom: "label"
  top: "loss"
}
I0507 23:14:56.828277  8813 layer_factory.hpp:77] Creating layer intercept
I0507 23:14:56.828290  8813 net.cpp:94] Creating Layer intercept
I0507 23:14:56.828297  8813 net.cpp:409] intercept -> data
I0507 23:14:56.828310  8813 net.cpp:409] intercept -> label
I0507 23:14:56.828320  8813 hdf5_data_layer.cpp:79] Loading list of HDF5 filenames from: /home/purduethu/scratch/radon/d/deng106/CNNStatisticalModel/distributions/input/5_distributions_100_sample_size_test-distributions-path.txt
I0507 23:14:56.828346  8813 hdf5_data_layer.cpp:93] Number of HDF5 files: 1
I0507 23:14:56.834759  8813 net.cpp:144] Setting up intercept
I0507 23:14:56.834795  8813 net.cpp:151] Top shape: 20 1 10 10 (2000)
I0507 23:14:56.834803  8813 net.cpp:151] Top shape: 20 (20)
I0507 23:14:56.834810  8813 net.cpp:159] Memory required for data: 8080
I0507 23:14:56.834816  8813 layer_factory.hpp:77] Creating layer label_intercept_1_split
I0507 23:14:56.834839  8813 net.cpp:94] Creating Layer label_intercept_1_split
I0507 23:14:56.834846  8813 net.cpp:435] label_intercept_1_split <- label
I0507 23:14:56.834854  8813 net.cpp:409] label_intercept_1_split -> label_intercept_1_split_0
I0507 23:14:56.834866  8813 net.cpp:409] label_intercept_1_split -> label_intercept_1_split_1
I0507 23:14:56.834931  8813 net.cpp:144] Setting up label_intercept_1_split
I0507 23:14:56.834940  8813 net.cpp:151] Top shape: 20 (20)
I0507 23:14:56.834946  8813 net.cpp:151] Top shape: 20 (20)
I0507 23:14:56.834950  8813 net.cpp:159] Memory required for data: 8240
I0507 23:14:56.834956  8813 layer_factory.hpp:77] Creating layer conv1
I0507 23:14:56.834970  8813 net.cpp:94] Creating Layer conv1
I0507 23:14:56.834976  8813 net.cpp:435] conv1 <- data
I0507 23:14:56.834983  8813 net.cpp:409] conv1 -> conv1
I0507 23:14:56.836093  8813 net.cpp:144] Setting up conv1
I0507 23:14:56.836113  8813 net.cpp:151] Top shape: 20 64 10 10 (128000)
I0507 23:14:56.836119  8813 net.cpp:159] Memory required for data: 520240
I0507 23:14:56.836144  8813 layer_factory.hpp:77] Creating layer relu1
I0507 23:14:56.836156  8813 net.cpp:94] Creating Layer relu1
I0507 23:14:56.836163  8813 net.cpp:435] relu1 <- conv1
I0507 23:14:56.836169  8813 net.cpp:396] relu1 -> conv1 (in-place)
I0507 23:14:56.836180  8813 net.cpp:144] Setting up relu1
I0507 23:14:56.836187  8813 net.cpp:151] Top shape: 20 64 10 10 (128000)
I0507 23:14:56.836192  8813 net.cpp:159] Memory required for data: 1032240
I0507 23:14:56.836197  8813 layer_factory.hpp:77] Creating layer conv2
I0507 23:14:56.836210  8813 net.cpp:94] Creating Layer conv2
I0507 23:14:56.836216  8813 net.cpp:435] conv2 <- conv1
I0507 23:14:56.836223  8813 net.cpp:409] conv2 -> conv2
I0507 23:14:56.842453  8813 net.cpp:144] Setting up conv2
I0507 23:14:56.842473  8813 net.cpp:151] Top shape: 20 64 10 10 (128000)
I0507 23:14:56.842478  8813 net.cpp:159] Memory required for data: 1544240
I0507 23:14:56.842490  8813 layer_factory.hpp:77] Creating layer relu2
I0507 23:14:56.842499  8813 net.cpp:94] Creating Layer relu2
I0507 23:14:56.842505  8813 net.cpp:435] relu2 <- conv2
I0507 23:14:56.842512  8813 net.cpp:396] relu2 -> conv2 (in-place)
I0507 23:14:56.842522  8813 net.cpp:144] Setting up relu2
I0507 23:14:56.842530  8813 net.cpp:151] Top shape: 20 64 10 10 (128000)
I0507 23:14:56.842533  8813 net.cpp:159] Memory required for data: 2056240
I0507 23:14:56.842538  8813 layer_factory.hpp:77] Creating layer pool2
I0507 23:14:56.842546  8813 net.cpp:94] Creating Layer pool2
I0507 23:14:56.842551  8813 net.cpp:435] pool2 <- conv2
I0507 23:14:56.842558  8813 net.cpp:409] pool2 -> pool2
I0507 23:14:56.842638  8813 net.cpp:144] Setting up pool2
I0507 23:14:56.842648  8813 net.cpp:151] Top shape: 20 64 5 5 (32000)
I0507 23:14:56.842653  8813 net.cpp:159] Memory required for data: 2184240
I0507 23:14:56.842658  8813 layer_factory.hpp:77] Creating layer conv3
I0507 23:14:56.842669  8813 net.cpp:94] Creating Layer conv3
I0507 23:14:56.842674  8813 net.cpp:435] conv3 <- pool2
I0507 23:14:56.842681  8813 net.cpp:409] conv3 -> conv3
I0507 23:14:56.847997  8813 net.cpp:144] Setting up conv3
I0507 23:14:56.848016  8813 net.cpp:151] Top shape: 20 64 5 5 (32000)
I0507 23:14:56.848021  8813 net.cpp:159] Memory required for data: 2312240
I0507 23:14:56.848033  8813 layer_factory.hpp:77] Creating layer relu3
I0507 23:14:56.848043  8813 net.cpp:94] Creating Layer relu3
I0507 23:14:56.848049  8813 net.cpp:435] relu3 <- conv3
I0507 23:14:56.848055  8813 net.cpp:396] relu3 -> conv3 (in-place)
I0507 23:14:56.848065  8813 net.cpp:144] Setting up relu3
I0507 23:14:56.848073  8813 net.cpp:151] Top shape: 20 64 5 5 (32000)
I0507 23:14:56.848076  8813 net.cpp:159] Memory required for data: 2440240
I0507 23:14:56.848081  8813 layer_factory.hpp:77] Creating layer conv4
I0507 23:14:56.848093  8813 net.cpp:94] Creating Layer conv4
I0507 23:14:56.848098  8813 net.cpp:435] conv4 <- conv3
I0507 23:14:56.848105  8813 net.cpp:409] conv4 -> conv4
I0507 23:14:56.853425  8813 net.cpp:144] Setting up conv4
I0507 23:14:56.853443  8813 net.cpp:151] Top shape: 20 64 5 5 (32000)
I0507 23:14:56.853449  8813 net.cpp:159] Memory required for data: 2568240
I0507 23:14:56.853457  8813 layer_factory.hpp:77] Creating layer relu4
I0507 23:14:56.853466  8813 net.cpp:94] Creating Layer relu4
I0507 23:14:56.853471  8813 net.cpp:435] relu4 <- conv4
I0507 23:14:56.853477  8813 net.cpp:396] relu4 -> conv4 (in-place)
I0507 23:14:56.853487  8813 net.cpp:144] Setting up relu4
I0507 23:14:56.853492  8813 net.cpp:151] Top shape: 20 64 5 5 (32000)
I0507 23:14:56.853497  8813 net.cpp:159] Memory required for data: 2696240
I0507 23:14:56.853502  8813 layer_factory.hpp:77] Creating layer conv5
I0507 23:14:56.853512  8813 net.cpp:94] Creating Layer conv5
I0507 23:14:56.853516  8813 net.cpp:435] conv5 <- conv4
I0507 23:14:56.853523  8813 net.cpp:409] conv5 -> conv5
I0507 23:14:56.860404  8813 net.cpp:144] Setting up conv5
I0507 23:14:56.860424  8813 net.cpp:151] Top shape: 20 64 5 5 (32000)
I0507 23:14:56.860430  8813 net.cpp:159] Memory required for data: 2824240
I0507 23:14:56.860448  8813 layer_factory.hpp:77] Creating layer relu5
I0507 23:14:56.860457  8813 net.cpp:94] Creating Layer relu5
I0507 23:14:56.860463  8813 net.cpp:435] relu5 <- conv5
I0507 23:14:56.860469  8813 net.cpp:396] relu5 -> conv5 (in-place)
I0507 23:14:56.860479  8813 net.cpp:144] Setting up relu5
I0507 23:14:56.860486  8813 net.cpp:151] Top shape: 20 64 5 5 (32000)
I0507 23:14:56.860489  8813 net.cpp:159] Memory required for data: 2952240
I0507 23:14:56.860493  8813 layer_factory.hpp:77] Creating layer pool5
I0507 23:14:56.860502  8813 net.cpp:94] Creating Layer pool5
I0507 23:14:56.860507  8813 net.cpp:435] pool5 <- conv5
I0507 23:14:56.860512  8813 net.cpp:409] pool5 -> pool5
I0507 23:14:56.860575  8813 net.cpp:144] Setting up pool5
I0507 23:14:56.860587  8813 net.cpp:151] Top shape: 20 64 2 2 (5120)
I0507 23:14:56.860591  8813 net.cpp:159] Memory required for data: 2972720
I0507 23:14:56.860596  8813 layer_factory.hpp:77] Creating layer ip1
I0507 23:14:56.860605  8813 net.cpp:94] Creating Layer ip1
I0507 23:14:56.860610  8813 net.cpp:435] ip1 <- pool5
I0507 23:14:56.860617  8813 net.cpp:409] ip1 -> ip1
I0507 23:14:56.861428  8813 net.cpp:144] Setting up ip1
I0507 23:14:56.861438  8813 net.cpp:151] Top shape: 20 64 (1280)
I0507 23:14:56.861443  8813 net.cpp:159] Memory required for data: 2977840
I0507 23:14:56.861451  8813 layer_factory.hpp:77] Creating layer ip2
I0507 23:14:56.861459  8813 net.cpp:94] Creating Layer ip2
I0507 23:14:56.861464  8813 net.cpp:435] ip2 <- ip1
I0507 23:14:56.861471  8813 net.cpp:409] ip2 -> ip2
I0507 23:14:56.861812  8813 net.cpp:144] Setting up ip2
I0507 23:14:56.861821  8813 net.cpp:151] Top shape: 20 64 (1280)
I0507 23:14:56.861825  8813 net.cpp:159] Memory required for data: 2982960
I0507 23:14:56.861834  8813 layer_factory.hpp:77] Creating layer ip3
I0507 23:14:56.861842  8813 net.cpp:94] Creating Layer ip3
I0507 23:14:56.861848  8813 net.cpp:435] ip3 <- ip2
I0507 23:14:56.861855  8813 net.cpp:409] ip3 -> ip3
I0507 23:14:56.862154  8813 net.cpp:144] Setting up ip3
I0507 23:14:56.862162  8813 net.cpp:151] Top shape: 20 50 (1000)
I0507 23:14:56.862166  8813 net.cpp:159] Memory required for data: 2986960
I0507 23:14:56.862174  8813 layer_factory.hpp:77] Creating layer ip3_ip3_0_split
I0507 23:14:56.862181  8813 net.cpp:94] Creating Layer ip3_ip3_0_split
I0507 23:14:56.862185  8813 net.cpp:435] ip3_ip3_0_split <- ip3
I0507 23:14:56.862192  8813 net.cpp:409] ip3_ip3_0_split -> ip3_ip3_0_split_0
I0507 23:14:56.862200  8813 net.cpp:409] ip3_ip3_0_split -> ip3_ip3_0_split_1
I0507 23:14:56.862257  8813 net.cpp:144] Setting up ip3_ip3_0_split
I0507 23:14:56.862265  8813 net.cpp:151] Top shape: 20 50 (1000)
I0507 23:14:56.862272  8813 net.cpp:151] Top shape: 20 50 (1000)
I0507 23:14:56.862275  8813 net.cpp:159] Memory required for data: 2994960
I0507 23:14:56.862279  8813 layer_factory.hpp:77] Creating layer accuracy
I0507 23:14:56.862287  8813 net.cpp:94] Creating Layer accuracy
I0507 23:14:56.862293  8813 net.cpp:435] accuracy <- ip3_ip3_0_split_0
I0507 23:14:56.862298  8813 net.cpp:435] accuracy <- label_intercept_1_split_0
I0507 23:14:56.862304  8813 net.cpp:409] accuracy -> accuracy
…
