…
I0505 09:19:09.803788  5788 net.cpp:323] The NetState phase (0) differed from the phase (1) specified by a rule in layer intercept
I0505 09:19:09.803803  5788 net.cpp:323] The NetState phase (0) differed from the phase (1) specified by a rule in layer accuracy
I0505 09:19:09.803882  5788 net.cpp:52] Initializing net from parameters: 
state {
  phase: TRAIN
}
layer {
  name: "parameters"
  type: "HDF5Data"
  top: "data"
  top: "label"
  include {
    phase: TRAIN
  }
  hdf5_data_param {
    source: "/home/purduethu/scratch/radon/d/deng106/CNNStatisticalModel/distributions/input/20_distributions_100_sample_size_train-distributions-path.txt"
    batch_size: 20
  }
}
layer {
  name: "conv1"
  type: "Convolution"
  bottom: "data"
  top: "conv1"
  param {
    lr_mult: 1
  }
  param {
    lr_mult: 2
  }
  convolution_param {
    num_output: 64
    pad: 2
    kernel_size: 5
    stride: 1
    weight_filler {
      type: "gaussian"
      std: 0.0001
    }
    bias_filler {
      type: "constant"
    }
  }
}
layer {
  name: "relu1"
  type: "ReLU"
  bottom: "conv1"
  top: "conv1"
}
layer {
  name: "pool1"
  type: "Pooling"
  bottom: "conv1"
  top: "pool1"
  pooling_param {
    pool: MAX
    kernel_size: 3
    stride: 2
  }
}
layer {
  name: "conv2"
  type: "Convolution"
  bottom: "pool1"
  top: "conv2"
  param {
    lr_mult: 1
  }
  param {
    lr_mult: 2
  }
  convolution_param {
    num_output: 128
    pad: 2
    kernel_size: 5
    stride: 1
    weight_filler {
      type: "gaussian"
      std: 0.01
    }
    bias_filler {
      type: "constant"
    }
  }
}
layer {
  name: "relu2"
  type: "ReLU"
  bottom: "conv2"
  top: "conv2"
}
layer {
  name: "conv3"
  type: "Convolution"
  bottom: "conv2"
  top: "conv3"
  param {
    lr_mult: 1
  }
  param {
    lr_mult: 2
  }
  convolution_param {
    num_output: 128
    pad: 2
    kernel_size: 5
    stride: 1
    weight_filler {
      type: "gaussian"
      std: 0.01
    }
    bias_filler {
      type: "constant"
    }
  }
}
layer {
  name: "relu3"
  type: "ReLU"
  bottom: "conv3"
  top: "conv3"
}
layer {
  name: "pool3"
  type: "Pooling"
  bottom: "conv3"
  top: "pool3"
  pooling_param {
    pool: AVE
    kernel_size: 3
    stride: 2
  }
}
layer {
  name: "ip1"
  type: "InnerProduct"
  bottom: "pool3"
  top: "ip1"
  param {
    lr_mult: 1
  }
  param {
    lr_mult: 2
  }
  inner_product_param {
    num_output: 512
    weight_filler {
      type: "gaussian"
      std: 0.1
    }
    bias_filler {
      type: "constant"
    }
  }
}
layer {
  name: "ip2"
  type: "InnerProduct"
  bottom: "ip1"
  top: "ip2"
  param {
    lr_mult: 1
  }
  param {
    lr_mult: 2
  }
  inner_product_param {
    num_output: 256
    weight_filler {
      type: "gaussian"
      std: 0.1
    }
    bias_filler {
      type: "constant"
    }
  }
}
layer {
  name: "ip3"
  type: "InnerProduct"
  bottom: "ip2"
  top: "ip3"
  param {
    lr_mult: 1
  }
  param {
    lr_mult: 2
  }
  inner_product_param {
    num_output: 50
    weight_filler {
      type: "gaussian"
      std: 0.1
    }
    bias_filler {
      type: "constant"
    }
  }
}
layer {
  name: "loss"
  type: "SoftmaxWithLoss"
  bottom: "ip3"
  bottom: "label"
  top: "loss"
}
I0505 09:19:09.803944  5788 layer_factory.hpp:77] Creating layer parameters
I0505 09:19:09.803959  5788 net.cpp:94] Creating Layer parameters
I0505 09:19:09.803973  5788 net.cpp:409] parameters -> data
I0505 09:19:09.803993  5788 net.cpp:409] parameters -> label
I0505 09:19:09.804003  5788 hdf5_data_layer.cpp:79] Loading list of HDF5 filenames from: /home/purduethu/scratch/radon/d/deng106/CNNStatisticalModel/distributions/input/20_distributions_100_sample_size_train-distributions-path.txt
I0505 09:19:09.804025  5788 hdf5_data_layer.cpp:93] Number of HDF5 files: 1
I0505 09:19:09.804500  5788 hdf5.cpp:32] Datatype class: H5T_FLOAT
I0505 09:19:09.869560  5788 hdf5.cpp:35] Datatype class: H5T_INTEGER
I0505 09:19:09.871321  5788 net.cpp:144] Setting up parameters
I0505 09:19:09.871340  5788 net.cpp:151] Top shape: 20 1 10 10 (2000)
I0505 09:19:09.871345  5788 net.cpp:151] Top shape: 20 (20)
I0505 09:19:09.871350  5788 net.cpp:159] Memory required for data: 8080
I0505 09:19:09.871356  5788 layer_factory.hpp:77] Creating layer conv1
I0505 09:19:09.871381  5788 net.cpp:94] Creating Layer conv1
I0505 09:19:09.871387  5788 net.cpp:435] conv1 <- data
I0505 09:19:09.871397  5788 net.cpp:409] conv1 -> conv1
I0505 09:19:09.875177  5788 net.cpp:144] Setting up conv1
I0505 09:19:09.875192  5788 net.cpp:151] Top shape: 20 64 10 10 (128000)
I0505 09:19:09.875196  5788 net.cpp:159] Memory required for data: 520080
I0505 09:19:09.875208  5788 layer_factory.hpp:77] Creating layer relu1
I0505 09:19:09.875216  5788 net.cpp:94] Creating Layer relu1
I0505 09:19:09.875221  5788 net.cpp:435] relu1 <- conv1
I0505 09:19:09.875226  5788 net.cpp:396] relu1 -> conv1 (in-place)
I0505 09:19:09.875241  5788 net.cpp:144] Setting up relu1
I0505 09:19:09.875247  5788 net.cpp:151] Top shape: 20 64 10 10 (128000)
I0505 09:19:09.875249  5788 net.cpp:159] Memory required for data: 1032080
I0505 09:19:09.875253  5788 layer_factory.hpp:77] Creating layer pool1
I0505 09:19:09.875260  5788 net.cpp:94] Creating Layer pool1
I0505 09:19:09.875263  5788 net.cpp:435] pool1 <- conv1
I0505 09:19:09.875268  5788 net.cpp:409] pool1 -> pool1
I0505 09:19:09.875313  5788 net.cpp:144] Setting up pool1
I0505 09:19:09.875319  5788 net.cpp:151] Top shape: 20 64 5 5 (32000)
I0505 09:19:09.875322  5788 net.cpp:159] Memory required for data: 1160080
I0505 09:19:09.875326  5788 layer_factory.hpp:77] Creating layer conv2
I0505 09:19:09.875334  5788 net.cpp:94] Creating Layer conv2
I0505 09:19:09.875339  5788 net.cpp:435] conv2 <- pool1
I0505 09:19:09.875344  5788 net.cpp:409] conv2 -> conv2
I0505 09:19:09.883431  5788 net.cpp:144] Setting up conv2
I0505 09:19:09.883446  5788 net.cpp:151] Top shape: 20 128 5 5 (64000)
I0505 09:19:09.883450  5788 net.cpp:159] Memory required for data: 1416080
I0505 09:19:09.883458  5788 layer_factory.hpp:77] Creating layer relu2
I0505 09:19:09.883464  5788 net.cpp:94] Creating Layer relu2
I0505 09:19:09.883468  5788 net.cpp:435] relu2 <- conv2
I0505 09:19:09.883473  5788 net.cpp:396] relu2 -> conv2 (in-place)
I0505 09:19:09.883481  5788 net.cpp:144] Setting up relu2
I0505 09:19:09.883486  5788 net.cpp:151] Top shape: 20 128 5 5 (64000)
I0505 09:19:09.883489  5788 net.cpp:159] Memory required for data: 1672080
I0505 09:19:09.883492  5788 layer_factory.hpp:77] Creating layer conv3
I0505 09:19:09.883502  5788 net.cpp:94] Creating Layer conv3
I0505 09:19:09.883504  5788 net.cpp:435] conv3 <- conv2
I0505 09:19:09.883509  5788 net.cpp:409] conv3 -> conv3
I0505 09:19:09.898515  5788 net.cpp:144] Setting up conv3
I0505 09:19:09.898531  5788 net.cpp:151] Top shape: 20 128 5 5 (64000)
I0505 09:19:09.898536  5788 net.cpp:159] Memory required for data: 1928080
I0505 09:19:09.898545  5788 layer_factory.hpp:77] Creating layer relu3
I0505 09:19:09.898557  5788 net.cpp:94] Creating Layer relu3
I0505 09:19:09.898562  5788 net.cpp:435] relu3 <- conv3
I0505 09:19:09.898567  5788 net.cpp:396] relu3 -> conv3 (in-place)
I0505 09:19:09.898576  5788 net.cpp:144] Setting up relu3
I0505 09:19:09.898581  5788 net.cpp:151] Top shape: 20 128 5 5 (64000)
I0505 09:19:09.898583  5788 net.cpp:159] Memory required for data: 2184080
I0505 09:19:09.898586  5788 layer_factory.hpp:77] Creating layer pool3
I0505 09:19:09.898592  5788 net.cpp:94] Creating Layer pool3
I0505 09:19:09.898602  5788 net.cpp:435] pool3 <- conv3
I0505 09:19:09.898607  5788 net.cpp:409] pool3 -> pool3
I0505 09:19:09.898641  5788 net.cpp:144] Setting up pool3
I0505 09:19:09.898649  5788 net.cpp:151] Top shape: 20 128 2 2 (10240)
I0505 09:19:09.898653  5788 net.cpp:159] Memory required for data: 2225040
I0505 09:19:09.898655  5788 layer_factory.hpp:77] Creating layer ip1
I0505 09:19:09.898665  5788 net.cpp:94] Creating Layer ip1
I0505 09:19:09.898669  5788 net.cpp:435] ip1 <- pool3
I0505 09:19:09.898674  5788 net.cpp:409] ip1 -> ip1
I0505 09:19:09.906420  5788 net.cpp:144] Setting up ip1
I0505 09:19:09.906435  5788 net.cpp:151] Top shape: 20 512 (10240)
I0505 09:19:09.906440  5788 net.cpp:159] Memory required for data: 2266000
I0505 09:19:09.906446  5788 layer_factory.hpp:77] Creating layer ip2
I0505 09:19:09.906453  5788 net.cpp:94] Creating Layer ip2
I0505 09:19:09.906457  5788 net.cpp:435] ip2 <- ip1
I0505 09:19:09.906462  5788 net.cpp:409] ip2 -> ip2
I0505 09:19:09.909716  5788 net.cpp:144] Setting up ip2
I0505 09:19:09.909725  5788 net.cpp:151] Top shape: 20 256 (5120)
I0505 09:19:09.909729  5788 net.cpp:159] Memory required for data: 2286480
I0505 09:19:09.909736  5788 layer_factory.hpp:77] Creating layer ip3
I0505 09:19:09.909744  5788 net.cpp:94] Creating Layer ip3
I0505 09:19:09.909746  5788 net.cpp:435] ip3 <- ip2
I0505 09:19:09.909751  5788 net.cpp:409] ip3 -> ip3
I0505 09:19:09.910774  5788 net.cpp:144] Setting up ip3
I0505 09:19:09.910787  5788 net.cpp:151] Top shape: 20 50 (1000)
I0505 09:19:09.910791  5788 net.cpp:159] Memory required for data: 2290480
I0505 09:19:09.910797  5788 layer_factory.hpp:77] Creating layer loss
I0505 09:19:09.910804  5788 net.cpp:94] Creating Layer loss
I0505 09:19:09.910807  5788 net.cpp:435] loss <- ip3
I0505 09:19:09.910811  5788 net.cpp:435] loss <- label
I0505 09:19:09.910817  5788 net.cpp:409] loss -> loss
I0505 09:19:09.910828  5788 layer_factory.hpp:77] Creating layer loss
…
I0505 09:19:09.911265  5788 solver.cpp:181] Creating test net (#0) specified by net file: ./protocol/dis_20_100_dimension.protocol_distribution
I0505 09:19:09.911290  5788 net.cpp:323] The NetState phase (1) differed from the phase (0) specified by a rule in layer parameters
I0505 09:19:09.911384  5788 net.cpp:52] Initializing net from parameters: 
state {
  phase: TEST
}
layer {
  name: "intercept"
  type: "HDF5Data"
  top: "data"
  top: "label"
  include {
    phase: TEST
  }
  hdf5_data_param {
    source: "/home/purduethu/scratch/radon/d/deng106/CNNStatisticalModel/distributions/input/20_distributions_100_sample_size_test-distributions-path.txt"
    batch_size: 20
  }
}
layer {
  name: "conv1"
  type: "Convolution"
  bottom: "data"
  top: "conv1"
  param {
    lr_mult: 1
  }
  param {
    lr_mult: 2
  }
  convolution_param {
    num_output: 64
    pad: 2
    kernel_size: 5
    stride: 1
    weight_filler {
      type: "gaussian"
      std: 0.0001
    }
    bias_filler {
      type: "constant"
    }
  }
}
layer {
  name: "relu1"
  type: "ReLU"
  bottom: "conv1"
  top: "conv1"
}
layer {
  name: "pool1"
  type: "Pooling"
  bottom: "conv1"
  top: "pool1"
  pooling_param {
    pool: MAX
    kernel_size: 3
    stride: 2
  }
}
layer {
  name: "conv2"
  type: "Convolution"
  bottom: "pool1"
  top: "conv2"
  param {
    lr_mult: 1
  }
  param {
    lr_mult: 2
  }
  convolution_param {
    num_output: 128
    pad: 2
    kernel_size: 5
    stride: 1
    weight_filler {
      type: "gaussian"
      std: 0.01
    }
    bias_filler {
      type: "constant"
    }
  }
}
layer {
  name: "relu2"
  type: "ReLU"
  bottom: "conv2"
  top: "conv2"
}
layer {
  name: "conv3"
  type: "Convolution"
  bottom: "conv2"
  top: "conv3"
  param {
    lr_mult: 1
  }
  param {
    lr_mult: 2
  }
  convolution_param {
    num_output: 128
    pad: 2
    kernel_size: 5
    stride: 1
    weight_filler {
      type: "gaussian"
      std: 0.01
    }
    bias_filler {
      type: "constant"
    }
  }
}
layer {
  name: "relu3"
  type: "ReLU"
  bottom: "conv3"
  top: "conv3"
}
layer {
  name: "pool3"
  type: "Pooling"
  bottom: "conv3"
  top: "pool3"
  pooling_param {
    pool: AVE
    kernel_size: 3
    stride: 2
  }
}
layer {
  name: "ip1"
  type: "InnerProduct"
  bottom: "pool3"
  top: "ip1"
  param {
    lr_mult: 1
  }
  param {
    lr_mult: 2
  }
  inner_product_param {
    num_output: 512
    weight_filler {
      type: "gaussian"
      std: 0.1
    }
    bias_filler {
      type: "constant"
    }
  }
}
layer {
  name: "ip2"
  type: "InnerProduct"
  bottom: "ip1"
  top: "ip2"
  param {
    lr_mult: 1
  }
  param {
    lr_mult: 2
  }
  inner_product_param {
    num_output: 256
    weight_filler {
      type: "gaussian"
      std: 0.1
    }
    bias_filler {
      type: "constant"
    }
  }
}
layer {
  name: "ip3"
  type: "InnerProduct"
  bottom: "ip2"
  top: "ip3"
  param {
    lr_mult: 1
  }
  param {
    lr_mult: 2
  }
  inner_product_param {
    num_output: 50
    weight_filler {
      type: "gaussian"
      std: 0.1
    }
    bias_filler {
      type: "constant"
    }
  }
}
layer {
  name: "accuracy"
  type: "Accuracy"
  bottom: "ip3"
  bottom: "label"
  top: "accuracy"
  include {
    phase: TEST
  }
}
layer {
  name: "loss"
  type: "SoftmaxWithLoss"
  bottom: "ip3"
  bottom: "label"
  top: "loss"
}
I0505 09:19:09.911448  5788 layer_factory.hpp:77] Creating layer intercept
I0505 09:19:09.911458  5788 net.cpp:94] Creating Layer intercept
I0505 09:19:09.911463  5788 net.cpp:409] intercept -> data
I0505 09:19:09.911469  5788 net.cpp:409] intercept -> label
I0505 09:19:09.911476  5788 hdf5_data_layer.cpp:79] Loading list of HDF5 filenames from: /home/purduethu/scratch/radon/d/deng106/CNNStatisticalModel/distributions/input/20_distributions_100_sample_size_test-distributions-path.txt
I0505 09:19:09.911496  5788 hdf5_data_layer.cpp:93] Number of HDF5 files: 1
I0505 09:19:09.929185  5788 net.cpp:144] Setting up intercept
I0505 09:19:09.929215  5788 net.cpp:151] Top shape: 20 1 10 10 (2000)
I0505 09:19:09.929221  5788 net.cpp:151] Top shape: 20 (20)
I0505 09:19:09.929224  5788 net.cpp:159] Memory required for data: 8080
I0505 09:19:09.929230  5788 layer_factory.hpp:77] Creating layer label_intercept_1_split
I0505 09:19:09.929247  5788 net.cpp:94] Creating Layer label_intercept_1_split
I0505 09:19:09.929260  5788 net.cpp:435] label_intercept_1_split <- label
I0505 09:19:09.929266  5788 net.cpp:409] label_intercept_1_split -> label_intercept_1_split_0
I0505 09:19:09.929275  5788 net.cpp:409] label_intercept_1_split -> label_intercept_1_split_1
I0505 09:19:09.929303  5788 net.cpp:144] Setting up label_intercept_1_split
I0505 09:19:09.929309  5788 net.cpp:151] Top shape: 20 (20)
I0505 09:19:09.929313  5788 net.cpp:151] Top shape: 20 (20)
I0505 09:19:09.929316  5788 net.cpp:159] Memory required for data: 8240
I0505 09:19:09.929327  5788 layer_factory.hpp:77] Creating layer conv1
I0505 09:19:09.929339  5788 net.cpp:94] Creating Layer conv1
I0505 09:19:09.929343  5788 net.cpp:435] conv1 <- data
I0505 09:19:09.929348  5788 net.cpp:409] conv1 -> conv1
I0505 09:19:09.930027  5788 net.cpp:144] Setting up conv1
I0505 09:19:09.930039  5788 net.cpp:151] Top shape: 20 64 10 10 (128000)
I0505 09:19:09.930044  5788 net.cpp:159] Memory required for data: 520240
I0505 09:19:09.930054  5788 layer_factory.hpp:77] Creating layer relu1
I0505 09:19:09.930061  5788 net.cpp:94] Creating Layer relu1
I0505 09:19:09.930064  5788 net.cpp:435] relu1 <- conv1
I0505 09:19:09.930069  5788 net.cpp:396] relu1 -> conv1 (in-place)
I0505 09:19:09.930078  5788 net.cpp:144] Setting up relu1
I0505 09:19:09.930081  5788 net.cpp:151] Top shape: 20 64 10 10 (128000)
I0505 09:19:09.930085  5788 net.cpp:159] Memory required for data: 1032240
I0505 09:19:09.930088  5788 layer_factory.hpp:77] Creating layer pool1
I0505 09:19:09.930095  5788 net.cpp:94] Creating Layer pool1
I0505 09:19:09.930099  5788 net.cpp:435] pool1 <- conv1
I0505 09:19:09.930102  5788 net.cpp:409] pool1 -> pool1
I0505 09:19:09.930140  5788 net.cpp:144] Setting up pool1
I0505 09:19:09.930146  5788 net.cpp:151] Top shape: 20 64 5 5 (32000)
I0505 09:19:09.930150  5788 net.cpp:159] Memory required for data: 1160240
I0505 09:19:09.930153  5788 layer_factory.hpp:77] Creating layer conv2
I0505 09:19:09.930160  5788 net.cpp:94] Creating Layer conv2
I0505 09:19:09.930164  5788 net.cpp:435] conv2 <- pool1
I0505 09:19:09.930169  5788 net.cpp:409] conv2 -> conv2
I0505 09:19:09.937469  5788 net.cpp:144] Setting up conv2
I0505 09:19:09.937482  5788 net.cpp:151] Top shape: 20 128 5 5 (64000)
I0505 09:19:09.937486  5788 net.cpp:159] Memory required for data: 1416240
I0505 09:19:09.937494  5788 layer_factory.hpp:77] Creating layer relu2
I0505 09:19:09.937501  5788 net.cpp:94] Creating Layer relu2
I0505 09:19:09.937505  5788 net.cpp:435] relu2 <- conv2
I0505 09:19:09.937510  5788 net.cpp:396] relu2 -> conv2 (in-place)
I0505 09:19:09.937516  5788 net.cpp:144] Setting up relu2
I0505 09:19:09.937521  5788 net.cpp:151] Top shape: 20 128 5 5 (64000)
I0505 09:19:09.937525  5788 net.cpp:159] Memory required for data: 1672240
I0505 09:19:09.937527  5788 layer_factory.hpp:77] Creating layer conv3
I0505 09:19:09.937536  5788 net.cpp:94] Creating Layer conv3
I0505 09:19:09.937538  5788 net.cpp:435] conv3 <- conv2
I0505 09:19:09.937543  5788 net.cpp:409] conv3 -> conv3
I0505 09:19:09.950430  5788 net.cpp:144] Setting up conv3
I0505 09:19:09.950444  5788 net.cpp:151] Top shape: 20 128 5 5 (64000)
I0505 09:19:09.950448  5788 net.cpp:159] Memory required for data: 1928240
I0505 09:19:09.950458  5788 layer_factory.hpp:77] Creating layer relu3
I0505 09:19:09.950464  5788 net.cpp:94] Creating Layer relu3
I0505 09:19:09.950467  5788 net.cpp:435] relu3 <- conv3
I0505 09:19:09.950472  5788 net.cpp:396] relu3 -> conv3 (in-place)
I0505 09:19:09.950479  5788 net.cpp:144] Setting up relu3
I0505 09:19:09.950484  5788 net.cpp:151] Top shape: 20 128 5 5 (64000)
I0505 09:19:09.950487  5788 net.cpp:159] Memory required for data: 2184240
I0505 09:19:09.950491  5788 layer_factory.hpp:77] Creating layer pool3
I0505 09:19:09.950496  5788 net.cpp:94] Creating Layer pool3
I0505 09:19:09.950500  5788 net.cpp:435] pool3 <- conv3
I0505 09:19:09.950505  5788 net.cpp:409] pool3 -> pool3
I0505 09:19:09.950528  5788 net.cpp:144] Setting up pool3
I0505 09:19:09.950536  5788 net.cpp:151] Top shape: 20 128 2 2 (10240)
I0505 09:19:09.950542  5788 net.cpp:159] Memory required for data: 2225200
I0505 09:19:09.950546  5788 layer_factory.hpp:77] Creating layer ip1
I0505 09:19:09.950554  5788 net.cpp:94] Creating Layer ip1
I0505 09:19:09.950557  5788 net.cpp:435] ip1 <- pool3
I0505 09:19:09.950562  5788 net.cpp:409] ip1 -> ip1
I0505 09:19:09.957016  5788 net.cpp:144] Setting up ip1
I0505 09:19:09.957026  5788 net.cpp:151] Top shape: 20 512 (10240)
I0505 09:19:09.957029  5788 net.cpp:159] Memory required for data: 2266160
I0505 09:19:09.957041  5788 layer_factory.hpp:77] Creating layer ip2
I0505 09:19:09.957047  5788 net.cpp:94] Creating Layer ip2
I0505 09:19:09.957051  5788 net.cpp:435] ip2 <- ip1
I0505 09:19:09.957056  5788 net.cpp:409] ip2 -> ip2
I0505 09:19:09.960322  5788 net.cpp:144] Setting up ip2
I0505 09:19:09.960330  5788 net.cpp:151] Top shape: 20 256 (5120)
I0505 09:19:09.960332  5788 net.cpp:159] Memory required for data: 2286640
I0505 09:19:09.960340  5788 layer_factory.hpp:77] Creating layer ip3
I0505 09:19:09.960345  5788 net.cpp:94] Creating Layer ip3
I0505 09:19:09.960348  5788 net.cpp:435] ip3 <- ip2
I0505 09:19:09.960353  5788 net.cpp:409] ip3 -> ip3
I0505 09:19:09.960743  5788 net.cpp:144] Setting up ip3
I0505 09:19:09.960752  5788 net.cpp:151] Top shape: 20 50 (1000)
I0505 09:19:09.960754  5788 net.cpp:159] Memory required for data: 2290640
I0505 09:19:09.960759  5788 layer_factory.hpp:77] Creating layer ip3_ip3_0_split
I0505 09:19:09.960764  5788 net.cpp:94] Creating Layer ip3_ip3_0_split
I0505 09:19:09.960768  5788 net.cpp:435] ip3_ip3_0_split <- ip3
I0505 09:19:09.960772  5788 net.cpp:409] ip3_ip3_0_split -> ip3_ip3_0_split_0
I0505 09:19:09.960778  5788 net.cpp:409] ip3_ip3_0_split -> ip3_ip3_0_split_1
I0505 09:19:09.960803  5788 net.cpp:144] Setting up ip3_ip3_0_split
I0505 09:19:09.960808  5788 net.cpp:151] Top shape: 20 50 (1000)
I0505 09:19:09.960813  5788 net.cpp:151] Top shape: 20 50 (1000)
I0505 09:19:09.960815  5788 net.cpp:159] Memory required for data: 2298640
I0505 09:19:09.960819  5788 layer_factory.hpp:77] Creating layer accuracy
I0505 09:19:09.960824  5788 net.cpp:94] Creating Layer accuracy
I0505 09:19:09.960827  5788 net.cpp:435] accuracy <- ip3_ip3_0_split_0
I0505 09:19:09.960831  5788 net.cpp:435] accuracy <- label_intercept_1_split_0
I0505 09:19:09.960835  5788 net.cpp:409] accuracy -> accuracy
…
