…
I0505 18:25:16.734135  8543 net.cpp:323] The NetState phase (0) differed from the phase (1) specified by a rule in layer intercept
I0505 18:25:16.734149  8543 net.cpp:323] The NetState phase (0) differed from the phase (1) specified by a rule in layer loss
I0505 18:25:16.734216  8543 net.cpp:52] Initializing net from parameters: 
state {
  phase: TRAIN
}
layer {
  name: "parameters"
  type: "HDF5Data"
  top: "data"
  top: "label"
  include {
    phase: TRAIN
  }
  hdf5_data_param {
    source: "/home/purduethu/scratch/radon/d/deng106/CNNStatisticalModel/distributions/input/20_distributions_100_sample_size_train-parameters-path.txt"
    batch_size: 20
  }
}
layer {
  name: "conv1"
  type: "Convolution"
  bottom: "data"
  top: "conv1"
  param {
    lr_mult: 1
  }
  param {
    lr_mult: 2
  }
  convolution_param {
    num_output: 64
    pad: 2
    kernel_size: 5
    stride: 1
    weight_filler {
      type: "gaussian"
      std: 0.0001
    }
    bias_filler {
      type: "constant"
    }
  }
}
layer {
  name: "relu1"
  type: "ReLU"
  bottom: "conv1"
  top: "conv1"
}
layer {
  name: "pool1"
  type: "Pooling"
  bottom: "conv1"
  top: "pool1"
  pooling_param {
    pool: MAX
    kernel_size: 3
    stride: 2
  }
}
layer {
  name: "conv2"
  type: "Convolution"
  bottom: "pool1"
  top: "conv2"
  param {
    lr_mult: 1
  }
  param {
    lr_mult: 2
  }
  convolution_param {
    num_output: 128
    pad: 2
    kernel_size: 5
    stride: 1
    weight_filler {
      type: "gaussian"
      std: 0.01
    }
    bias_filler {
      type: "constant"
    }
  }
}
layer {
  name: "relu2"
  type: "ReLU"
  bottom: "conv2"
  top: "conv2"
}
layer {
  name: "conv3"
  type: "Convolution"
  bottom: "conv2"
  top: "conv3"
  param {
    lr_mult: 1
  }
  param {
    lr_mult: 2
  }
  convolution_param {
    num_output: 128
    pad: 2
    kernel_size: 5
    stride: 1
    weight_filler {
      type: "gaussian"
      std: 0.01
    }
    bias_filler {
      type: "constant"
    }
  }
}
layer {
  name: "relu3"
  type: "ReLU"
  bottom: "conv3"
  top: "conv3"
}
layer {
  name: "pool3"
  type: "Pooling"
  bottom: "conv3"
  top: "pool3"
  pooling_param {
    pool: AVE
    kernel_size: 3
    stride: 2
  }
}
layer {
  name: "ip1"
  type: "InnerProduct"
  bottom: "pool3"
  top: "ip1"
  param {
    lr_mult: 1
  }
  param {
    lr_mult: 2
  }
  inner_product_param {
    num_output: 512
    weight_filler {
      type: "gaussian"
      std: 0.1
    }
    bias_filler {
      type: "constant"
    }
  }
}
layer {
  name: "ip2"
  type: "InnerProduct"
  bottom: "ip1"
  top: "ip2"
  param {
    lr_mult: 1
  }
  param {
    lr_mult: 2
  }
  inner_product_param {
    num_output: 256
    weight_filler {
      type: "gaussian"
      std: 0.1
    }
    bias_filler {
      type: "constant"
    }
  }
}
layer {
  name: "ip3"
  type: "InnerProduct"
  bottom: "ip2"
  top: "ip3"
  param {
    lr_mult: 1
  }
  param {
    lr_mult: 2
  }
  inner_product_param {
    num_output: 1
    weight_filler {
      type: "gaussian"
      std: 0.1
    }
    bias_filler {
      type: "constant"
    }
  }
}
layer {
  name: "loss"
  type: "HuberLoss"
  bottom: "ip3"
  bottom: "label"
  top: "loss"
  include {
    phase: TRAIN
  }
}
I0505 18:25:16.734264  8543 layer_factory.hpp:77] Creating layer parameters
I0505 18:25:16.734282  8543 net.cpp:94] Creating Layer parameters
I0505 18:25:16.734287  8543 net.cpp:409] parameters -> data
I0505 18:25:16.734295  8543 net.cpp:409] parameters -> label
I0505 18:25:16.734302  8543 hdf5_data_layer.cpp:79] Loading list of HDF5 filenames from: /home/purduethu/scratch/radon/d/deng106/CNNStatisticalModel/distributions/input/20_distributions_100_sample_size_train-parameters-path.txt
I0505 18:25:16.734318  8543 hdf5_data_layer.cpp:93] Number of HDF5 files: 1
I0505 18:25:16.734879  8543 hdf5.cpp:32] Datatype class: H5T_FLOAT
I0505 18:25:16.803372  8543 net.cpp:144] Setting up parameters
I0505 18:25:16.803406  8543 net.cpp:151] Top shape: 20 1 10 10 (2000)
I0505 18:25:16.803411  8543 net.cpp:151] Top shape: 20 (20)
I0505 18:25:16.803416  8543 net.cpp:159] Memory required for data: 8080
I0505 18:25:16.803421  8543 layer_factory.hpp:77] Creating layer conv1
I0505 18:25:16.803442  8543 net.cpp:94] Creating Layer conv1
I0505 18:25:16.803447  8543 net.cpp:435] conv1 <- data
I0505 18:25:16.803453  8543 net.cpp:409] conv1 -> conv1
I0505 18:25:16.807576  8543 net.cpp:144] Setting up conv1
I0505 18:25:16.807592  8543 net.cpp:151] Top shape: 20 64 10 10 (128000)
I0505 18:25:16.807596  8543 net.cpp:159] Memory required for data: 520080
I0505 18:25:16.807607  8543 layer_factory.hpp:77] Creating layer relu1
I0505 18:25:16.807615  8543 net.cpp:94] Creating Layer relu1
I0505 18:25:16.807620  8543 net.cpp:435] relu1 <- conv1
I0505 18:25:16.807624  8543 net.cpp:396] relu1 -> conv1 (in-place)
I0505 18:25:16.807636  8543 net.cpp:144] Setting up relu1
I0505 18:25:16.807641  8543 net.cpp:151] Top shape: 20 64 10 10 (128000)
I0505 18:25:16.807643  8543 net.cpp:159] Memory required for data: 1032080
I0505 18:25:16.807647  8543 layer_factory.hpp:77] Creating layer pool1
I0505 18:25:16.807653  8543 net.cpp:94] Creating Layer pool1
I0505 18:25:16.807657  8543 net.cpp:435] pool1 <- conv1
I0505 18:25:16.807662  8543 net.cpp:409] pool1 -> pool1
I0505 18:25:16.807713  8543 net.cpp:144] Setting up pool1
I0505 18:25:16.807721  8543 net.cpp:151] Top shape: 20 64 5 5 (32000)
I0505 18:25:16.807724  8543 net.cpp:159] Memory required for data: 1160080
I0505 18:25:16.807727  8543 layer_factory.hpp:77] Creating layer conv2
I0505 18:25:16.807736  8543 net.cpp:94] Creating Layer conv2
I0505 18:25:16.807740  8543 net.cpp:435] conv2 <- pool1
I0505 18:25:16.807745  8543 net.cpp:409] conv2 -> conv2
I0505 18:25:16.815994  8543 net.cpp:144] Setting up conv2
I0505 18:25:16.816009  8543 net.cpp:151] Top shape: 20 128 5 5 (64000)
I0505 18:25:16.816014  8543 net.cpp:159] Memory required for data: 1416080
I0505 18:25:16.816022  8543 layer_factory.hpp:77] Creating layer relu2
I0505 18:25:16.816028  8543 net.cpp:94] Creating Layer relu2
I0505 18:25:16.816032  8543 net.cpp:435] relu2 <- conv2
I0505 18:25:16.816037  8543 net.cpp:396] relu2 -> conv2 (in-place)
I0505 18:25:16.816045  8543 net.cpp:144] Setting up relu2
I0505 18:25:16.816049  8543 net.cpp:151] Top shape: 20 128 5 5 (64000)
I0505 18:25:16.816052  8543 net.cpp:159] Memory required for data: 1672080
I0505 18:25:16.816056  8543 layer_factory.hpp:77] Creating layer conv3
I0505 18:25:16.816063  8543 net.cpp:94] Creating Layer conv3
I0505 18:25:16.816067  8543 net.cpp:435] conv3 <- conv2
I0505 18:25:16.816072  8543 net.cpp:409] conv3 -> conv3
I0505 18:25:16.833712  8543 net.cpp:144] Setting up conv3
I0505 18:25:16.833732  8543 net.cpp:151] Top shape: 20 128 5 5 (64000)
I0505 18:25:16.833736  8543 net.cpp:159] Memory required for data: 1928080
I0505 18:25:16.833747  8543 layer_factory.hpp:77] Creating layer relu3
I0505 18:25:16.833760  8543 net.cpp:94] Creating Layer relu3
I0505 18:25:16.833765  8543 net.cpp:435] relu3 <- conv3
I0505 18:25:16.833770  8543 net.cpp:396] relu3 -> conv3 (in-place)
I0505 18:25:16.833777  8543 net.cpp:144] Setting up relu3
I0505 18:25:16.833782  8543 net.cpp:151] Top shape: 20 128 5 5 (64000)
I0505 18:25:16.833786  8543 net.cpp:159] Memory required for data: 2184080
I0505 18:25:16.833789  8543 layer_factory.hpp:77] Creating layer pool3
I0505 18:25:16.833796  8543 net.cpp:94] Creating Layer pool3
I0505 18:25:16.833798  8543 net.cpp:435] pool3 <- conv3
I0505 18:25:16.833803  8543 net.cpp:409] pool3 -> pool3
I0505 18:25:16.833842  8543 net.cpp:144] Setting up pool3
I0505 18:25:16.833848  8543 net.cpp:151] Top shape: 20 128 2 2 (10240)
I0505 18:25:16.833853  8543 net.cpp:159] Memory required for data: 2225040
I0505 18:25:16.833855  8543 layer_factory.hpp:77] Creating layer ip1
I0505 18:25:16.833864  8543 net.cpp:94] Creating Layer ip1
I0505 18:25:16.833868  8543 net.cpp:435] ip1 <- pool3
I0505 18:25:16.833873  8543 net.cpp:409] ip1 -> ip1
I0505 18:25:16.841823  8543 net.cpp:144] Setting up ip1
I0505 18:25:16.841840  8543 net.cpp:151] Top shape: 20 512 (10240)
I0505 18:25:16.841845  8543 net.cpp:159] Memory required for data: 2266000
I0505 18:25:16.841851  8543 layer_factory.hpp:77] Creating layer ip2
I0505 18:25:16.841859  8543 net.cpp:94] Creating Layer ip2
I0505 18:25:16.841863  8543 net.cpp:435] ip2 <- ip1
I0505 18:25:16.841869  8543 net.cpp:409] ip2 -> ip2
I0505 18:25:16.845044  8543 net.cpp:144] Setting up ip2
I0505 18:25:16.845054  8543 net.cpp:151] Top shape: 20 256 (5120)
I0505 18:25:16.845058  8543 net.cpp:159] Memory required for data: 2286480
I0505 18:25:16.845065  8543 layer_factory.hpp:77] Creating layer ip3
I0505 18:25:16.845072  8543 net.cpp:94] Creating Layer ip3
I0505 18:25:16.845075  8543 net.cpp:435] ip3 <- ip2
I0505 18:25:16.845080  8543 net.cpp:409] ip3 -> ip3
I0505 18:25:16.845182  8543 net.cpp:144] Setting up ip3
I0505 18:25:16.845191  8543 net.cpp:151] Top shape: 20 1 (20)
I0505 18:25:16.845193  8543 net.cpp:159] Memory required for data: 2286560
I0505 18:25:16.845198  8543 layer_factory.hpp:77] Creating layer loss
I0505 18:25:16.845204  8543 net.cpp:94] Creating Layer loss
I0505 18:25:16.845207  8543 net.cpp:435] loss <- ip3
I0505 18:25:16.845211  8543 net.cpp:435] loss <- label
I0505 18:25:16.845216  8543 net.cpp:409] loss -> loss
I0505 18:25:16.845264  8543 net.cpp:144] Setting up loss
…
I0505 18:25:16.901901  8543 net.cpp:323] The NetState phase (0) differed from the phase (1) specified by a rule in layer intercept
I0505 18:25:16.901913  8543 net.cpp:323] The NetState phase (0) differed from the phase (1) specified by a rule in layer accuracy
I0505 18:25:16.901981  8543 net.cpp:52] Initializing net from parameters: 
state {
  phase: TRAIN
}
layer {
  name: "parameters"
  type: "HDF5Data"
  top: "data"
  top: "label"
  include {
    phase: TRAIN
  }
  hdf5_data_param {
    source: "/home/purduethu/scratch/radon/d/deng106/CNNStatisticalModel/distributions/input/20_distributions_100_sample_size_train-distributions-path.txt"
    batch_size: 20
  }
}
layer {
  name: "conv1"
  type: "Convolution"
  bottom: "data"
  top: "conv1"
  param {
    lr_mult: 1
  }
  param {
    lr_mult: 2
  }
  convolution_param {
    num_output: 64
    pad: 2
    kernel_size: 5
    stride: 1
    weight_filler {
      type: "gaussian"
      std: 0.0001
    }
    bias_filler {
      type: "constant"
    }
  }
}
layer {
  name: "relu1"
  type: "ReLU"
  bottom: "conv1"
  top: "conv1"
}
layer {
  name: "pool1"
  type: "Pooling"
  bottom: "conv1"
  top: "pool1"
  pooling_param {
    pool: MAX
    kernel_size: 3
    stride: 2
  }
}
layer {
  name: "conv2"
  type: "Convolution"
  bottom: "pool1"
  top: "conv2"
  param {
    lr_mult: 1
  }
  param {
    lr_mult: 2
  }
  convolution_param {
    num_output: 128
    pad: 2
    kernel_size: 5
    stride: 1
    weight_filler {
      type: "gaussian"
      std: 0.01
    }
    bias_filler {
      type: "constant"
    }
  }
}
layer {
  name: "relu2"
  type: "ReLU"
  bottom: "conv2"
  top: "conv2"
}
layer {
  name: "conv3"
  type: "Convolution"
  bottom: "conv2"
  top: "conv3"
  param {
    lr_mult: 1
  }
  param {
    lr_mult: 2
  }
  convolution_param {
    num_output: 128
    pad: 2
    kernel_size: 5
    stride: 1
    weight_filler {
      type: "gaussian"
      std: 0.01
    }
    bias_filler {
      type: "constant"
    }
  }
}
layer {
  name: "relu3"
  type: "ReLU"
  bottom: "conv3"
  top: "conv3"
}
layer {
  name: "pool3"
  type: "Pooling"
  bottom: "conv3"
  top: "pool3"
  pooling_param {
    pool: AVE
    kernel_size: 3
    stride: 2
  }
}
layer {
  name: "ip1"
  type: "InnerProduct"
  bottom: "pool3"
  top: "ip1"
  param {
    lr_mult: 1
  }
  param {
    lr_mult: 2
  }
  inner_product_param {
    num_output: 512
    weight_filler {
      type: "gaussian"
      std: 0.1
    }
    bias_filler {
      type: "constant"
    }
  }
}
layer {
  name: "ip2"
  type: "InnerProduct"
  bottom: "ip1"
  top: "ip2"
  param {
    lr_mult: 1
  }
  param {
    lr_mult: 2
  }
  inner_product_param {
    num_output: 256
    weight_filler {
      type: "gaussian"
      std: 0.1
    }
    bias_filler {
      type: "constant"
    }
  }
}
layer {
  name: "ip3"
  type: "InnerProduct"
  bottom: "ip2"
  top: "ip3"
  param {
    lr_mult: 1
  }
  param {
    lr_mult: 2
  }
  inner_product_param {
    num_output: 50
    weight_filler {
      type: "gaussian"
      std: 0.1
    }
    bias_filler {
      type: "constant"
    }
  }
}
layer {
  name: "loss"
  type: "SoftmaxWithLoss"
  bottom: "ip3"
  bottom: "label"
  top: "loss"
}
I0505 18:25:16.902024  8543 layer_factory.hpp:77] Creating layer parameters
I0505 18:25:16.902032  8543 net.cpp:94] Creating Layer parameters
I0505 18:25:16.902036  8543 net.cpp:409] parameters -> data
I0505 18:25:16.902043  8543 net.cpp:409] parameters -> label
I0505 18:25:16.902050  8543 hdf5_data_layer.cpp:79] Loading list of HDF5 filenames from: /home/purduethu/scratch/radon/d/deng106/CNNStatisticalModel/distributions/input/20_distributions_100_sample_size_train-distributions-path.txt
I0505 18:25:16.902065  8543 hdf5_data_layer.cpp:93] Number of HDF5 files: 1
I0505 18:25:16.966784  8543 hdf5.cpp:35] Datatype class: H5T_INTEGER
I0505 18:25:16.968770  8543 net.cpp:144] Setting up parameters
I0505 18:25:16.968789  8543 net.cpp:151] Top shape: 20 1 10 10 (2000)
I0505 18:25:16.968794  8543 net.cpp:151] Top shape: 20 (20)
I0505 18:25:16.968798  8543 net.cpp:159] Memory required for data: 8080
I0505 18:25:16.968804  8543 layer_factory.hpp:77] Creating layer conv1
I0505 18:25:16.968821  8543 net.cpp:94] Creating Layer conv1
I0505 18:25:16.968825  8543 net.cpp:435] conv1 <- data
I0505 18:25:16.968832  8543 net.cpp:409] conv1 -> conv1
I0505 18:25:16.970527  8543 net.cpp:144] Setting up conv1
I0505 18:25:16.970541  8543 net.cpp:151] Top shape: 20 64 10 10 (128000)
I0505 18:25:16.970544  8543 net.cpp:159] Memory required for data: 520080
I0505 18:25:16.970554  8543 layer_factory.hpp:77] Creating layer relu1
I0505 18:25:16.970561  8543 net.cpp:94] Creating Layer relu1
I0505 18:25:16.970566  8543 net.cpp:435] relu1 <- conv1
I0505 18:25:16.970571  8543 net.cpp:396] relu1 -> conv1 (in-place)
I0505 18:25:16.970577  8543 net.cpp:144] Setting up relu1
I0505 18:25:16.970582  8543 net.cpp:151] Top shape: 20 64 10 10 (128000)
I0505 18:25:16.970585  8543 net.cpp:159] Memory required for data: 1032080
I0505 18:25:16.970588  8543 layer_factory.hpp:77] Creating layer pool1
I0505 18:25:16.970594  8543 net.cpp:94] Creating Layer pool1
I0505 18:25:16.970597  8543 net.cpp:435] pool1 <- conv1
I0505 18:25:16.970609  8543 net.cpp:409] pool1 -> pool1
I0505 18:25:16.970662  8543 net.cpp:144] Setting up pool1
I0505 18:25:16.970670  8543 net.cpp:151] Top shape: 20 64 5 5 (32000)
I0505 18:25:16.970674  8543 net.cpp:159] Memory required for data: 1160080
I0505 18:25:16.970676  8543 layer_factory.hpp:77] Creating layer conv2
I0505 18:25:16.970685  8543 net.cpp:94] Creating Layer conv2
I0505 18:25:16.970690  8543 net.cpp:435] conv2 <- pool1
I0505 18:25:16.970695  8543 net.cpp:409] conv2 -> conv2
I0505 18:25:16.978994  8543 net.cpp:144] Setting up conv2
I0505 18:25:16.979010  8543 net.cpp:151] Top shape: 20 128 5 5 (64000)
I0505 18:25:16.979014  8543 net.cpp:159] Memory required for data: 1416080
I0505 18:25:16.979023  8543 layer_factory.hpp:77] Creating layer relu2
I0505 18:25:16.979029  8543 net.cpp:94] Creating Layer relu2
I0505 18:25:16.979032  8543 net.cpp:435] relu2 <- conv2
I0505 18:25:16.979038  8543 net.cpp:396] relu2 -> conv2 (in-place)
I0505 18:25:16.979044  8543 net.cpp:144] Setting up relu2
I0505 18:25:16.979049  8543 net.cpp:151] Top shape: 20 128 5 5 (64000)
I0505 18:25:16.979053  8543 net.cpp:159] Memory required for data: 1672080
I0505 18:25:16.979055  8543 layer_factory.hpp:77] Creating layer conv3
I0505 18:25:16.979063  8543 net.cpp:94] Creating Layer conv3
I0505 18:25:16.979066  8543 net.cpp:435] conv3 <- conv2
I0505 18:25:16.979071  8543 net.cpp:409] conv3 -> conv3
I0505 18:25:16.993719  8543 net.cpp:144] Setting up conv3
I0505 18:25:16.993736  8543 net.cpp:151] Top shape: 20 128 5 5 (64000)
I0505 18:25:16.993739  8543 net.cpp:159] Memory required for data: 1928080
I0505 18:25:16.993748  8543 layer_factory.hpp:77] Creating layer relu3
I0505 18:25:16.993755  8543 net.cpp:94] Creating Layer relu3
I0505 18:25:16.993759  8543 net.cpp:435] relu3 <- conv3
I0505 18:25:16.993764  8543 net.cpp:396] relu3 -> conv3 (in-place)
I0505 18:25:16.993772  8543 net.cpp:144] Setting up relu3
I0505 18:25:16.993775  8543 net.cpp:151] Top shape: 20 128 5 5 (64000)
I0505 18:25:16.993778  8543 net.cpp:159] Memory required for data: 2184080
I0505 18:25:16.993782  8543 layer_factory.hpp:77] Creating layer pool3
I0505 18:25:16.993788  8543 net.cpp:94] Creating Layer pool3
I0505 18:25:16.993791  8543 net.cpp:435] pool3 <- conv3
I0505 18:25:16.993795  8543 net.cpp:409] pool3 -> pool3
I0505 18:25:16.993830  8543 net.cpp:144] Setting up pool3
I0505 18:25:16.993837  8543 net.cpp:151] Top shape: 20 128 2 2 (10240)
I0505 18:25:16.993840  8543 net.cpp:159] Memory required for data: 2225040
I0505 18:25:16.993844  8543 layer_factory.hpp:77] Creating layer ip1
I0505 18:25:16.993850  8543 net.cpp:94] Creating Layer ip1
I0505 18:25:16.993854  8543 net.cpp:435] ip1 <- pool3
I0505 18:25:16.993858  8543 net.cpp:409] ip1 -> ip1
I0505 18:25:17.000906  8543 net.cpp:144] Setting up ip1
I0505 18:25:17.000921  8543 net.cpp:151] Top shape: 20 512 (10240)
I0505 18:25:17.000926  8543 net.cpp:159] Memory required for data: 2266000
I0505 18:25:17.000932  8543 layer_factory.hpp:77] Creating layer ip2
I0505 18:25:17.000939  8543 net.cpp:94] Creating Layer ip2
I0505 18:25:17.000942  8543 net.cpp:435] ip2 <- ip1
I0505 18:25:17.000948  8543 net.cpp:409] ip2 -> ip2
I0505 18:25:17.004151  8543 net.cpp:144] Setting up ip2
I0505 18:25:17.004160  8543 net.cpp:151] Top shape: 20 256 (5120)
I0505 18:25:17.004164  8543 net.cpp:159] Memory required for data: 2286480
I0505 18:25:17.004171  8543 layer_factory.hpp:77] Creating layer ip3
I0505 18:25:17.004178  8543 net.cpp:94] Creating Layer ip3
I0505 18:25:17.004181  8543 net.cpp:435] ip3 <- ip2
I0505 18:25:17.004186  8543 net.cpp:409] ip3 -> ip3
I0505 18:25:17.006350  8543 net.cpp:144] Setting up ip3
I0505 18:25:17.006362  8543 net.cpp:151] Top shape: 20 50 (1000)
I0505 18:25:17.006366  8543 net.cpp:159] Memory required for data: 2290480
I0505 18:25:17.006372  8543 layer_factory.hpp:77] Creating layer loss
I0505 18:25:17.006379  8543 net.cpp:94] Creating Layer loss
I0505 18:25:17.006382  8543 net.cpp:435] loss <- ip3
I0505 18:25:17.006387  8543 net.cpp:435] loss <- label
I0505 18:25:17.006392  8543 net.cpp:409] loss -> loss
I0505 18:25:17.006405  8543 layer_factory.hpp:77] Creating layer loss
…
I0505 18:25:17.006837  8543 solver.cpp:181] Creating test net (#0) specified by net file: ./protocol/dis_20_100_dimension.protocol_distribution
I0505 18:25:17.006860  8543 net.cpp:323] The NetState phase (1) differed from the phase (0) specified by a rule in layer parameters
I0505 18:25:17.006940  8543 net.cpp:52] Initializing net from parameters: 
state {
  phase: TEST
}
layer {
  name: "intercept"
  type: "HDF5Data"
  top: "data"
  top: "label"
  include {
    phase: TEST
  }
  hdf5_data_param {
    source: "/home/purduethu/scratch/radon/d/deng106/CNNStatisticalModel/distributions/input/20_distributions_100_sample_size_test-distributions-path.txt"
    batch_size: 20
  }
}
layer {
  name: "conv1"
  type: "Convolution"
  bottom: "data"
  top: "conv1"
  param {
    lr_mult: 1
  }
  param {
    lr_mult: 2
  }
  convolution_param {
    num_output: 64
    pad: 2
    kernel_size: 5
    stride: 1
    weight_filler {
      type: "gaussian"
      std: 0.0001
    }
    bias_filler {
      type: "constant"
    }
  }
}
layer {
  name: "relu1"
  type: "ReLU"
  bottom: "conv1"
  top: "conv1"
}
layer {
  name: "pool1"
  type: "Pooling"
  bottom: "conv1"
  top: "pool1"
  pooling_param {
    pool: MAX
    kernel_size: 3
    stride: 2
  }
}
layer {
  name: "conv2"
  type: "Convolution"
  bottom: "pool1"
  top: "conv2"
  param {
    lr_mult: 1
  }
  param {
    lr_mult: 2
  }
  convolution_param {
    num_output: 128
    pad: 2
    kernel_size: 5
    stride: 1
    weight_filler {
      type: "gaussian"
      std: 0.01
    }
    bias_filler {
      type: "constant"
    }
  }
}
layer {
  name: "relu2"
  type: "ReLU"
  bottom: "conv2"
  top: "conv2"
}
layer {
  name: "conv3"
  type: "Convolution"
  bottom: "conv2"
  top: "conv3"
  param {
    lr_mult: 1
  }
  param {
    lr_mult: 2
  }
  convolution_param {
    num_output: 128
    pad: 2
    kernel_size: 5
    stride: 1
    weight_filler {
      type: "gaussian"
      std: 0.01
    }
    bias_filler {
      type: "constant"
    }
  }
}
layer {
  name: "relu3"
  type: "ReLU"
  bottom: "conv3"
  top: "conv3"
}
layer {
  name: "pool3"
  type: "Pooling"
  bottom: "conv3"
  top: "pool3"
  pooling_param {
    pool: AVE
    kernel_size: 3
    stride: 2
  }
}
layer {
  name: "ip1"
  type: "InnerProduct"
  bottom: "pool3"
  top: "ip1"
  param {
    lr_mult: 1
  }
  param {
    lr_mult: 2
  }
  inner_product_param {
    num_output: 512
    weight_filler {
      type: "gaussian"
      std: 0.1
    }
    bias_filler {
      type: "constant"
    }
  }
}
layer {
  name: "ip2"
  type: "InnerProduct"
  bottom: "ip1"
  top: "ip2"
  param {
    lr_mult: 1
  }
  param {
    lr_mult: 2
  }
  inner_product_param {
    num_output: 256
    weight_filler {
      type: "gaussian"
      std: 0.1
    }
    bias_filler {
      type: "constant"
    }
  }
}
layer {
  name: "ip3"
  type: "InnerProduct"
  bottom: "ip2"
  top: "ip3"
  param {
    lr_mult: 1
  }
  param {
    lr_mult: 2
  }
  inner_product_param {
    num_output: 50
    weight_filler {
      type: "gaussian"
      std: 0.1
    }
    bias_filler {
      type: "constant"
    }
  }
}
layer {
  name: "accuracy"
  type: "Accuracy"
  bottom: "ip3"
  bottom: "label"
  top: "accuracy"
  include {
    phase: TEST
  }
}
layer {
  name: "loss"
  type: "SoftmaxWithLoss"
  bottom: "ip3"
  bottom: "label"
  top: "loss"
}
I0505 18:25:17.006996  8543 layer_factory.hpp:77] Creating layer intercept
I0505 18:25:17.007005  8543 net.cpp:94] Creating Layer intercept
I0505 18:25:17.007009  8543 net.cpp:409] intercept -> data
I0505 18:25:17.007016  8543 net.cpp:409] intercept -> label
I0505 18:25:17.007022  8543 hdf5_data_layer.cpp:79] Loading list of HDF5 filenames from: /home/purduethu/scratch/radon/d/deng106/CNNStatisticalModel/distributions/input/20_distributions_100_sample_size_test-distributions-path.txt
I0505 18:25:17.007041  8543 hdf5_data_layer.cpp:93] Number of HDF5 files: 1
I0505 18:25:17.024336  8543 net.cpp:144] Setting up intercept
I0505 18:25:17.024371  8543 net.cpp:151] Top shape: 20 1 10 10 (2000)
I0505 18:25:17.024377  8543 net.cpp:151] Top shape: 20 (20)
I0505 18:25:17.024380  8543 net.cpp:159] Memory required for data: 8080
I0505 18:25:17.024386  8543 layer_factory.hpp:77] Creating layer label_intercept_1_split
I0505 18:25:17.024406  8543 net.cpp:94] Creating Layer label_intercept_1_split
I0505 18:25:17.024410  8543 net.cpp:435] label_intercept_1_split <- label
I0505 18:25:17.024416  8543 net.cpp:409] label_intercept_1_split -> label_intercept_1_split_0
I0505 18:25:17.024425  8543 net.cpp:409] label_intercept_1_split -> label_intercept_1_split_1
I0505 18:25:17.024463  8543 net.cpp:144] Setting up label_intercept_1_split
I0505 18:25:17.024471  8543 net.cpp:151] Top shape: 20 (20)
I0505 18:25:17.024473  8543 net.cpp:151] Top shape: 20 (20)
I0505 18:25:17.024477  8543 net.cpp:159] Memory required for data: 8240
I0505 18:25:17.024480  8543 layer_factory.hpp:77] Creating layer conv1
I0505 18:25:17.024490  8543 net.cpp:94] Creating Layer conv1
I0505 18:25:17.024494  8543 net.cpp:435] conv1 <- data
I0505 18:25:17.024499  8543 net.cpp:409] conv1 -> conv1
I0505 18:25:17.025315  8543 net.cpp:144] Setting up conv1
I0505 18:25:17.025328  8543 net.cpp:151] Top shape: 20 64 10 10 (128000)
I0505 18:25:17.025332  8543 net.cpp:159] Memory required for data: 520240
I0505 18:25:17.025342  8543 layer_factory.hpp:77] Creating layer relu1
I0505 18:25:17.025349  8543 net.cpp:94] Creating Layer relu1
I0505 18:25:17.025353  8543 net.cpp:435] relu1 <- conv1
I0505 18:25:17.025357  8543 net.cpp:396] relu1 -> conv1 (in-place)
I0505 18:25:17.025364  8543 net.cpp:144] Setting up relu1
I0505 18:25:17.025369  8543 net.cpp:151] Top shape: 20 64 10 10 (128000)
I0505 18:25:17.025372  8543 net.cpp:159] Memory required for data: 1032240
I0505 18:25:17.025375  8543 layer_factory.hpp:77] Creating layer pool1
I0505 18:25:17.025382  8543 net.cpp:94] Creating Layer pool1
I0505 18:25:17.025385  8543 net.cpp:435] pool1 <- conv1
I0505 18:25:17.025389  8543 net.cpp:409] pool1 -> pool1
I0505 18:25:17.025441  8543 net.cpp:144] Setting up pool1
I0505 18:25:17.025449  8543 net.cpp:151] Top shape: 20 64 5 5 (32000)
I0505 18:25:17.025452  8543 net.cpp:159] Memory required for data: 1160240
I0505 18:25:17.025456  8543 layer_factory.hpp:77] Creating layer conv2
I0505 18:25:17.025463  8543 net.cpp:94] Creating Layer conv2
I0505 18:25:17.025467  8543 net.cpp:435] conv2 <- pool1
I0505 18:25:17.025472  8543 net.cpp:409] conv2 -> conv2
I0505 18:25:17.033020  8543 net.cpp:144] Setting up conv2
I0505 18:25:17.033035  8543 net.cpp:151] Top shape: 20 128 5 5 (64000)
I0505 18:25:17.033040  8543 net.cpp:159] Memory required for data: 1416240
I0505 18:25:17.033047  8543 layer_factory.hpp:77] Creating layer relu2
I0505 18:25:17.033061  8543 net.cpp:94] Creating Layer relu2
I0505 18:25:17.033064  8543 net.cpp:435] relu2 <- conv2
I0505 18:25:17.033069  8543 net.cpp:396] relu2 -> conv2 (in-place)
I0505 18:25:17.033077  8543 net.cpp:144] Setting up relu2
I0505 18:25:17.033082  8543 net.cpp:151] Top shape: 20 128 5 5 (64000)
I0505 18:25:17.033084  8543 net.cpp:159] Memory required for data: 1672240
I0505 18:25:17.033087  8543 layer_factory.hpp:77] Creating layer conv3
I0505 18:25:17.033095  8543 net.cpp:94] Creating Layer conv3
I0505 18:25:17.033099  8543 net.cpp:435] conv3 <- conv2
I0505 18:25:17.033104  8543 net.cpp:409] conv3 -> conv3
I0505 18:25:17.045550  8543 net.cpp:144] Setting up conv3
I0505 18:25:17.045565  8543 net.cpp:151] Top shape: 20 128 5 5 (64000)
I0505 18:25:17.045569  8543 net.cpp:159] Memory required for data: 1928240
I0505 18:25:17.045578  8543 layer_factory.hpp:77] Creating layer relu3
I0505 18:25:17.045585  8543 net.cpp:94] Creating Layer relu3
I0505 18:25:17.045589  8543 net.cpp:435] relu3 <- conv3
I0505 18:25:17.045594  8543 net.cpp:396] relu3 -> conv3 (in-place)
I0505 18:25:17.045601  8543 net.cpp:144] Setting up relu3
I0505 18:25:17.045605  8543 net.cpp:151] Top shape: 20 128 5 5 (64000)
I0505 18:25:17.045608  8543 net.cpp:159] Memory required for data: 2184240
I0505 18:25:17.045611  8543 layer_factory.hpp:77] Creating layer pool3
I0505 18:25:17.045617  8543 net.cpp:94] Creating Layer pool3
I0505 18:25:17.045620  8543 net.cpp:435] pool3 <- conv3
I0505 18:25:17.045624  8543 net.cpp:409] pool3 -> pool3
I0505 18:25:17.045660  8543 net.cpp:144] Setting up pool3
I0505 18:25:17.045667  8543 net.cpp:151] Top shape: 20 128 2 2 (10240)
I0505 18:25:17.045670  8543 net.cpp:159] Memory required for data: 2225200
I0505 18:25:17.045673  8543 layer_factory.hpp:77] Creating layer ip1
I0505 18:25:17.045680  8543 net.cpp:94] Creating Layer ip1
I0505 18:25:17.045684  8543 net.cpp:435] ip1 <- pool3
I0505 18:25:17.045689  8543 net.cpp:409] ip1 -> ip1
I0505 18:25:17.051983  8543 net.cpp:144] Setting up ip1
I0505 18:25:17.051993  8543 net.cpp:151] Top shape: 20 512 (10240)
I0505 18:25:17.051996  8543 net.cpp:159] Memory required for data: 2266160
I0505 18:25:17.052002  8543 layer_factory.hpp:77] Creating layer ip2
I0505 18:25:17.052008  8543 net.cpp:94] Creating Layer ip2
I0505 18:25:17.052011  8543 net.cpp:435] ip2 <- ip1
I0505 18:25:17.052016  8543 net.cpp:409] ip2 -> ip2
I0505 18:25:17.055189  8543 net.cpp:144] Setting up ip2
I0505 18:25:17.055198  8543 net.cpp:151] Top shape: 20 256 (5120)
I0505 18:25:17.055202  8543 net.cpp:159] Memory required for data: 2286640
I0505 18:25:17.055208  8543 layer_factory.hpp:77] Creating layer ip3
I0505 18:25:17.055214  8543 net.cpp:94] Creating Layer ip3
I0505 18:25:17.055217  8543 net.cpp:435] ip3 <- ip2
I0505 18:25:17.055222  8543 net.cpp:409] ip3 -> ip3
I0505 18:25:17.055639  8543 net.cpp:144] Setting up ip3
I0505 18:25:17.055646  8543 net.cpp:151] Top shape: 20 50 (1000)
I0505 18:25:17.055649  8543 net.cpp:159] Memory required for data: 2290640
I0505 18:25:17.055655  8543 layer_factory.hpp:77] Creating layer ip3_ip3_0_split
I0505 18:25:17.055660  8543 net.cpp:94] Creating Layer ip3_ip3_0_split
I0505 18:25:17.055663  8543 net.cpp:435] ip3_ip3_0_split <- ip3
I0505 18:25:17.055667  8543 net.cpp:409] ip3_ip3_0_split -> ip3_ip3_0_split_0
I0505 18:25:17.055672  8543 net.cpp:409] ip3_ip3_0_split -> ip3_ip3_0_split_1
I0505 18:25:17.055711  8543 net.cpp:144] Setting up ip3_ip3_0_split
I0505 18:25:17.055716  8543 net.cpp:151] Top shape: 20 50 (1000)
I0505 18:25:17.055721  8543 net.cpp:151] Top shape: 20 50 (1000)
I0505 18:25:17.055723  8543 net.cpp:159] Memory required for data: 2298640
I0505 18:25:17.055727  8543 layer_factory.hpp:77] Creating layer accuracy
I0505 18:25:17.055732  8543 net.cpp:94] Creating Layer accuracy
I0505 18:25:17.055734  8543 net.cpp:435] accuracy <- ip3_ip3_0_split_0
I0505 18:25:17.055738  8543 net.cpp:435] accuracy <- label_intercept_1_split_0
I0505 18:25:17.055743  8543 net.cpp:409] accuracy -> accuracy
…
