…
I0505 03:23:16.207366  3002 net.cpp:323] The NetState phase (0) differed from the phase (1) specified by a rule in layer intercept
I0505 03:23:16.207381  3002 net.cpp:323] The NetState phase (0) differed from the phase (1) specified by a rule in layer loss
I0505 03:23:16.207458  3002 net.cpp:52] Initializing net from parameters: 
state {
  phase: TRAIN
}
layer {
  name: "parameters"
  type: "HDF5Data"
  top: "data"
  top: "label"
  include {
    phase: TRAIN
  }
  hdf5_data_param {
    source: "/home/purduethu/scratch/radon/d/deng106/CNNStatisticalModel/distributions/input/20_distributions_900_sample_size_train-parameters-path.txt"
    batch_size: 20
  }
}
layer {
  name: "conv1"
  type: "Convolution"
  bottom: "data"
  top: "conv1"
  param {
    lr_mult: 1
  }
  param {
    lr_mult: 2
  }
  convolution_param {
    num_output: 64
    pad: 2
    kernel_size: 5
    stride: 1
    weight_filler {
      type: "gaussian"
      std: 0.0001
    }
    bias_filler {
      type: "constant"
    }
  }
}
layer {
  name: "relu1"
  type: "ReLU"
  bottom: "conv1"
  top: "conv1"
}
layer {
  name: "pool1"
  type: "Pooling"
  bottom: "conv1"
  top: "pool1"
  pooling_param {
    pool: MAX
    kernel_size: 3
    stride: 2
  }
}
layer {
  name: "conv2"
  type: "Convolution"
  bottom: "pool1"
  top: "conv2"
  param {
    lr_mult: 1
  }
  param {
    lr_mult: 2
  }
  convolution_param {
    num_output: 128
    pad: 2
    kernel_size: 5
    stride: 1
    weight_filler {
      type: "gaussian"
      std: 0.01
    }
    bias_filler {
      type: "constant"
    }
  }
}
layer {
  name: "relu2"
  type: "ReLU"
  bottom: "conv2"
  top: "conv2"
}
layer {
  name: "conv3"
  type: "Convolution"
  bottom: "conv2"
  top: "conv3"
  param {
    lr_mult: 1
  }
  param {
    lr_mult: 2
  }
  convolution_param {
    num_output: 128
    pad: 2
    kernel_size: 5
    stride: 1
    weight_filler {
      type: "gaussian"
      std: 0.01
    }
    bias_filler {
      type: "constant"
    }
  }
}
layer {
  name: "relu3"
  type: "ReLU"
  bottom: "conv3"
  top: "conv3"
}
layer {
  name: "pool3"
  type: "Pooling"
  bottom: "conv3"
  top: "pool3"
  pooling_param {
    pool: AVE
    kernel_size: 3
    stride: 2
  }
}
layer {
  name: "ip1"
  type: "InnerProduct"
  bottom: "pool3"
  top: "ip1"
  param {
    lr_mult: 1
  }
  param {
    lr_mult: 2
  }
  inner_product_param {
    num_output: 512
    weight_filler {
      type: "gaussian"
      std: 0.1
    }
    bias_filler {
      type: "constant"
    }
  }
}
layer {
  name: "ip2"
  type: "InnerProduct"
  bottom: "ip1"
  top: "ip2"
  param {
    lr_mult: 1
  }
  param {
    lr_mult: 2
  }
  inner_product_param {
    num_output: 256
    weight_filler {
      type: "gaussian"
      std: 0.1
    }
    bias_filler {
      type: "constant"
    }
  }
}
layer {
  name: "ip3"
  type: "InnerProduct"
  bottom: "ip2"
  top: "ip3"
  param {
    lr_mult: 1
  }
  param {
    lr_mult: 2
  }
  inner_product_param {
    num_output: 1
    weight_filler {
      type: "gaussian"
      std: 0.1
    }
    bias_filler {
      type: "constant"
    }
  }
}
layer {
  name: "loss"
  type: "HuberLoss"
  bottom: "ip3"
  bottom: "label"
  top: "loss"
  include {
    phase: TRAIN
  }
}
I0505 03:23:16.207520  3002 layer_factory.hpp:77] Creating layer parameters
I0505 03:23:16.207535  3002 net.cpp:94] Creating Layer parameters
I0505 03:23:16.207548  3002 net.cpp:409] parameters -> data
I0505 03:23:16.207567  3002 net.cpp:409] parameters -> label
I0505 03:23:16.207578  3002 hdf5_data_layer.cpp:79] Loading list of HDF5 filenames from: /home/purduethu/scratch/radon/d/deng106/CNNStatisticalModel/distributions/input/20_distributions_900_sample_size_train-parameters-path.txt
I0505 03:23:16.207602  3002 hdf5_data_layer.cpp:93] Number of HDF5 files: 1
I0505 03:23:16.208081  3002 hdf5.cpp:32] Datatype class: H5T_FLOAT
I0505 03:23:16.785656  3002 net.cpp:144] Setting up parameters
I0505 03:23:16.785687  3002 net.cpp:151] Top shape: 20 1 30 30 (18000)
I0505 03:23:16.785693  3002 net.cpp:151] Top shape: 20 (20)
I0505 03:23:16.785697  3002 net.cpp:159] Memory required for data: 72080
I0505 03:23:16.785704  3002 layer_factory.hpp:77] Creating layer conv1
I0505 03:23:16.785722  3002 net.cpp:94] Creating Layer conv1
I0505 03:23:16.785727  3002 net.cpp:435] conv1 <- data
I0505 03:23:16.785737  3002 net.cpp:409] conv1 -> conv1
I0505 03:23:16.791548  3002 net.cpp:144] Setting up conv1
I0505 03:23:16.791563  3002 net.cpp:151] Top shape: 20 64 30 30 (1152000)
I0505 03:23:16.791566  3002 net.cpp:159] Memory required for data: 4680080
I0505 03:23:16.791579  3002 layer_factory.hpp:77] Creating layer relu1
I0505 03:23:16.791586  3002 net.cpp:94] Creating Layer relu1
I0505 03:23:16.791590  3002 net.cpp:435] relu1 <- conv1
I0505 03:23:16.791595  3002 net.cpp:396] relu1 -> conv1 (in-place)
I0505 03:23:16.791612  3002 net.cpp:144] Setting up relu1
I0505 03:23:16.791618  3002 net.cpp:151] Top shape: 20 64 30 30 (1152000)
I0505 03:23:16.791621  3002 net.cpp:159] Memory required for data: 9288080
I0505 03:23:16.791625  3002 layer_factory.hpp:77] Creating layer pool1
I0505 03:23:16.791631  3002 net.cpp:94] Creating Layer pool1
I0505 03:23:16.791635  3002 net.cpp:435] pool1 <- conv1
I0505 03:23:16.791640  3002 net.cpp:409] pool1 -> pool1
I0505 03:23:16.791679  3002 net.cpp:144] Setting up pool1
I0505 03:23:16.791687  3002 net.cpp:151] Top shape: 20 64 15 15 (288000)
I0505 03:23:16.791689  3002 net.cpp:159] Memory required for data: 10440080
I0505 03:23:16.791693  3002 layer_factory.hpp:77] Creating layer conv2
I0505 03:23:16.791702  3002 net.cpp:94] Creating Layer conv2
I0505 03:23:16.791705  3002 net.cpp:435] conv2 <- pool1
I0505 03:23:16.791710  3002 net.cpp:409] conv2 -> conv2
I0505 03:23:16.804008  3002 net.cpp:144] Setting up conv2
I0505 03:23:16.804024  3002 net.cpp:151] Top shape: 20 128 15 15 (576000)
I0505 03:23:16.804029  3002 net.cpp:159] Memory required for data: 12744080
I0505 03:23:16.804038  3002 layer_factory.hpp:77] Creating layer relu2
I0505 03:23:16.804044  3002 net.cpp:94] Creating Layer relu2
I0505 03:23:16.804047  3002 net.cpp:435] relu2 <- conv2
I0505 03:23:16.804052  3002 net.cpp:396] relu2 -> conv2 (in-place)
I0505 03:23:16.804059  3002 net.cpp:144] Setting up relu2
I0505 03:23:16.804064  3002 net.cpp:151] Top shape: 20 128 15 15 (576000)
I0505 03:23:16.804067  3002 net.cpp:159] Memory required for data: 15048080
I0505 03:23:16.804070  3002 layer_factory.hpp:77] Creating layer conv3
I0505 03:23:16.804078  3002 net.cpp:94] Creating Layer conv3
I0505 03:23:16.804082  3002 net.cpp:435] conv3 <- conv2
I0505 03:23:16.804087  3002 net.cpp:409] conv3 -> conv3
I0505 03:23:16.825304  3002 net.cpp:144] Setting up conv3
I0505 03:23:16.825318  3002 net.cpp:151] Top shape: 20 128 15 15 (576000)
I0505 03:23:16.825323  3002 net.cpp:159] Memory required for data: 17352080
I0505 03:23:16.825331  3002 layer_factory.hpp:77] Creating layer relu3
I0505 03:23:16.825345  3002 net.cpp:94] Creating Layer relu3
I0505 03:23:16.825348  3002 net.cpp:435] relu3 <- conv3
I0505 03:23:16.825353  3002 net.cpp:396] relu3 -> conv3 (in-place)
I0505 03:23:16.825361  3002 net.cpp:144] Setting up relu3
I0505 03:23:16.825366  3002 net.cpp:151] Top shape: 20 128 15 15 (576000)
I0505 03:23:16.825369  3002 net.cpp:159] Memory required for data: 19656080
I0505 03:23:16.825372  3002 layer_factory.hpp:77] Creating layer pool3
I0505 03:23:16.825378  3002 net.cpp:94] Creating Layer pool3
I0505 03:23:16.825381  3002 net.cpp:435] pool3 <- conv3
I0505 03:23:16.825393  3002 net.cpp:409] pool3 -> pool3
I0505 03:23:16.825428  3002 net.cpp:144] Setting up pool3
I0505 03:23:16.825435  3002 net.cpp:151] Top shape: 20 128 7 7 (125440)
I0505 03:23:16.825438  3002 net.cpp:159] Memory required for data: 20157840
I0505 03:23:16.825441  3002 layer_factory.hpp:77] Creating layer ip1
I0505 03:23:16.825448  3002 net.cpp:94] Creating Layer ip1
I0505 03:23:16.825453  3002 net.cpp:435] ip1 <- pool3
I0505 03:23:16.825458  3002 net.cpp:409] ip1 -> ip1
I0505 03:23:16.902456  3002 net.cpp:144] Setting up ip1
I0505 03:23:16.902487  3002 net.cpp:151] Top shape: 20 512 (10240)
I0505 03:23:16.902492  3002 net.cpp:159] Memory required for data: 20198800
I0505 03:23:16.902499  3002 layer_factory.hpp:77] Creating layer ip2
I0505 03:23:16.902509  3002 net.cpp:94] Creating Layer ip2
I0505 03:23:16.902513  3002 net.cpp:435] ip2 <- ip1
I0505 03:23:16.902520  3002 net.cpp:409] ip2 -> ip2
I0505 03:23:16.905629  3002 net.cpp:144] Setting up ip2
I0505 03:23:16.905638  3002 net.cpp:151] Top shape: 20 256 (5120)
I0505 03:23:16.905642  3002 net.cpp:159] Memory required for data: 20219280
I0505 03:23:16.905649  3002 layer_factory.hpp:77] Creating layer ip3
I0505 03:23:16.905655  3002 net.cpp:94] Creating Layer ip3
I0505 03:23:16.905658  3002 net.cpp:435] ip3 <- ip2
I0505 03:23:16.905663  3002 net.cpp:409] ip3 -> ip3
I0505 03:23:16.905727  3002 net.cpp:144] Setting up ip3
I0505 03:23:16.905735  3002 net.cpp:151] Top shape: 20 1 (20)
I0505 03:23:16.905737  3002 net.cpp:159] Memory required for data: 20219360
I0505 03:23:16.905742  3002 layer_factory.hpp:77] Creating layer loss
I0505 03:23:16.905755  3002 net.cpp:94] Creating Layer loss
I0505 03:23:16.905760  3002 net.cpp:435] loss <- ip3
I0505 03:23:16.905763  3002 net.cpp:435] loss <- label
I0505 03:23:16.905769  3002 net.cpp:409] loss -> loss
I0505 03:23:16.905803  3002 net.cpp:144] Setting up loss
…
