…
I0507 04:06:40.217950 31326 net.cpp:323] The NetState phase (0) differed from the phase (1) specified by a rule in layer intercept
I0507 04:06:40.217967 31326 net.cpp:323] The NetState phase (0) differed from the phase (1) specified by a rule in layer loss
I0507 04:06:40.218044 31326 net.cpp:52] Initializing net from parameters: 
state {
  phase: TRAIN
}
layer {
  name: "parameters"
  type: "HDF5Data"
  top: "data"
  top: "label"
  include {
    phase: TRAIN
  }
  hdf5_data_param {
    source: "/home/purduethu/scratch/radon/d/deng106/CNNStatisticalModel/distributions/input/50_distributions_100_sample_size_train-parameters-path.txt"
    batch_size: 20
  }
}
layer {
  name: "conv1"
  type: "Convolution"
  bottom: "data"
  top: "conv1"
  param {
    lr_mult: 1
  }
  param {
    lr_mult: 2
  }
  convolution_param {
    num_output: 64
    pad: 2
    kernel_size: 5
    stride: 1
    weight_filler {
      type: "gaussian"
      std: 0.0001
    }
    bias_filler {
      type: "constant"
    }
  }
}
layer {
  name: "relu1"
  type: "ReLU"
  bottom: "conv1"
  top: "conv1"
}
layer {
  name: "conv2"
  type: "Convolution"
  bottom: "conv1"
  top: "conv2"
  param {
    lr_mult: 1
  }
  param {
    lr_mult: 2
  }
  convolution_param {
    num_output: 64
    pad: 2
    kernel_size: 5
    stride: 1
    weight_filler {
      type: "gaussian"
      std: 0.01
    }
    bias_filler {
      type: "constant"
    }
  }
}
layer {
  name: "relu2"
  type: "ReLU"
  bottom: "conv2"
  top: "conv2"
}
layer {
  name: "pool2"
  type: "Pooling"
  bottom: "conv2"
  top: "pool2"
  pooling_param {
    pool: MAX
    kernel_size: 3
    stride: 2
  }
}
layer {
  name: "conv3"
  type: "Convolution"
  bottom: "pool2"
  top: "conv3"
  param {
    lr_mult: 1
  }
  param {
    lr_mult: 2
  }
  convolution_param {
    num_output: 64
    pad: 2
    kernel_size: 5
    stride: 1
    weight_filler {
      type: "gaussian"
      std: 0.01
    }
    bias_filler {
      type: "constant"
    }
  }
}
layer {
  name: "relu3"
  type: "ReLU"
  bottom: "conv3"
  top: "conv3"
}
layer {
  name: "conv4"
  type: "Convolution"
  bottom: "conv3"
  top: "conv4"
  param {
    lr_mult: 1
  }
  param {
    lr_mult: 2
  }
  convolution_param {
    num_output: 64
    pad: 2
    kernel_size: 5
    stride: 1
    weight_filler {
      type: "gaussian"
      std: 0.01
    }
    bias_filler {
      type: "constant"
    }
  }
}
layer {
  name: "relu4"
  type: "ReLU"
  bottom: "conv4"
  top: "conv4"
}
layer {
  name: "conv5"
  type: "Convolution"
  bottom: "conv4"
  top: "conv5"
  param {
    lr_mult: 1
  }
  param {
    lr_mult: 2
  }
  convolution_param {
    num_output: 64
    pad: 2
    kernel_size: 5
    stride: 1
    weight_filler {
      type: "gaussian"
      std: 0.01
    }
    bias_filler {
      type: "constant"
    }
  }
}
layer {
  name: "relu5"
  type: "ReLU"
  bottom: "conv5"
  top: "conv5"
}
layer {
  name: "pool5"
  type: "Pooling"
  bottom: "conv5"
  top: "pool5"
  pooling_param {
    pool: AVE
    kernel_size: 3
    stride: 2
  }
}
layer {
  name: "ip1"
  type: "InnerProduct"
  bottom: "pool5"
  top: "ip1"
  param {
    lr_mult: 1
  }
  param {
    lr_mult: 2
  }
  inner_product_param {
    num_output: 64
    weight_filler {
      type: "gaussian"
      std: 0.1
    }
    bias_filler {
      type: "constant"
    }
  }
}
layer {
  name: "ip2"
  type: "InnerProduct"
  bottom: "ip1"
  top: "ip2"
  param {
    lr_mult: 1
  }
  param {
    lr_mult: 2
  }
  inner_product_param {
    num_output: 64
    weight_filler {
      type: "gaussian"
      std: 0.1
    }
    bias_filler {
      type: "constant"
    }
  }
}
layer {
  name: "ip3"
  type: "InnerProduct"
  bottom: "ip2"
  top: "ip3"
  param {
    lr_mult: 1
  }
  param {
    lr_mult: 2
  }
  inner_product_param {
    num_output: 1
    weight_filler {
      type: "gaussian"
      std: 0.1
    }
    bias_filler {
      type: "constant"
    }
  }
}
layer {
  name: "loss"
  type: "HuberLoss"
  bottom: "ip3"
  bottom: "label"
  top: "loss"
  include {
    phase: TRAIN
  }
}
I0507 04:06:40.218098 31326 layer_factory.hpp:77] Creating layer parameters
I0507 04:06:40.218112 31326 net.cpp:94] Creating Layer parameters
I0507 04:06:40.218116 31326 net.cpp:409] parameters -> data
I0507 04:06:40.218125 31326 net.cpp:409] parameters -> label
I0507 04:06:40.218132 31326 hdf5_data_layer.cpp:79] Loading list of HDF5 filenames from: /home/purduethu/scratch/radon/d/deng106/CNNStatisticalModel/distributions/input/50_distributions_100_sample_size_train-parameters-path.txt
I0507 04:06:40.218147 31326 hdf5_data_layer.cpp:93] Number of HDF5 files: 1
I0507 04:06:40.218688 31326 hdf5.cpp:32] Datatype class: H5T_FLOAT
I0507 04:06:40.379019 31326 net.cpp:144] Setting up parameters
I0507 04:06:40.379051 31326 net.cpp:151] Top shape: 20 1 10 10 (2000)
I0507 04:06:40.379056 31326 net.cpp:151] Top shape: 20 (20)
I0507 04:06:40.379060 31326 net.cpp:159] Memory required for data: 8080
I0507 04:06:40.379066 31326 layer_factory.hpp:77] Creating layer conv1
I0507 04:06:40.379088 31326 net.cpp:94] Creating Layer conv1
I0507 04:06:40.379094 31326 net.cpp:435] conv1 <- data
I0507 04:06:40.379101 31326 net.cpp:409] conv1 -> conv1
I0507 04:06:40.383327 31326 net.cpp:144] Setting up conv1
I0507 04:06:40.383342 31326 net.cpp:151] Top shape: 20 64 10 10 (128000)
I0507 04:06:40.383347 31326 net.cpp:159] Memory required for data: 520080
I0507 04:06:40.383357 31326 layer_factory.hpp:77] Creating layer relu1
I0507 04:06:40.383363 31326 net.cpp:94] Creating Layer relu1
I0507 04:06:40.383368 31326 net.cpp:435] relu1 <- conv1
I0507 04:06:40.383373 31326 net.cpp:396] relu1 -> conv1 (in-place)
I0507 04:06:40.383386 31326 net.cpp:144] Setting up relu1
I0507 04:06:40.383391 31326 net.cpp:151] Top shape: 20 64 10 10 (128000)
I0507 04:06:40.383394 31326 net.cpp:159] Memory required for data: 1032080
I0507 04:06:40.383399 31326 layer_factory.hpp:77] Creating layer conv2
I0507 04:06:40.383405 31326 net.cpp:94] Creating Layer conv2
I0507 04:06:40.383409 31326 net.cpp:435] conv2 <- conv1
I0507 04:06:40.383414 31326 net.cpp:409] conv2 -> conv2
I0507 04:06:40.389475 31326 net.cpp:144] Setting up conv2
I0507 04:06:40.389490 31326 net.cpp:151] Top shape: 20 64 10 10 (128000)
I0507 04:06:40.389494 31326 net.cpp:159] Memory required for data: 1544080
I0507 04:06:40.389503 31326 layer_factory.hpp:77] Creating layer relu2
I0507 04:06:40.389509 31326 net.cpp:94] Creating Layer relu2
I0507 04:06:40.389513 31326 net.cpp:435] relu2 <- conv2
I0507 04:06:40.389518 31326 net.cpp:396] relu2 -> conv2 (in-place)
I0507 04:06:40.389524 31326 net.cpp:144] Setting up relu2
I0507 04:06:40.389529 31326 net.cpp:151] Top shape: 20 64 10 10 (128000)
I0507 04:06:40.389533 31326 net.cpp:159] Memory required for data: 2056080
I0507 04:06:40.389535 31326 layer_factory.hpp:77] Creating layer pool2
I0507 04:06:40.389542 31326 net.cpp:94] Creating Layer pool2
I0507 04:06:40.389545 31326 net.cpp:435] pool2 <- conv2
I0507 04:06:40.389549 31326 net.cpp:409] pool2 -> pool2
I0507 04:06:40.389605 31326 net.cpp:144] Setting up pool2
I0507 04:06:40.389613 31326 net.cpp:151] Top shape: 20 64 5 5 (32000)
I0507 04:06:40.389617 31326 net.cpp:159] Memory required for data: 2184080
I0507 04:06:40.389621 31326 layer_factory.hpp:77] Creating layer conv3
I0507 04:06:40.389628 31326 net.cpp:94] Creating Layer conv3
I0507 04:06:40.389632 31326 net.cpp:435] conv3 <- pool2
I0507 04:06:40.389644 31326 net.cpp:409] conv3 -> conv3
I0507 04:06:40.394454 31326 net.cpp:144] Setting up conv3
I0507 04:06:40.394467 31326 net.cpp:151] Top shape: 20 64 5 5 (32000)
I0507 04:06:40.394472 31326 net.cpp:159] Memory required for data: 2312080
I0507 04:06:40.394480 31326 layer_factory.hpp:77] Creating layer relu3
I0507 04:06:40.394486 31326 net.cpp:94] Creating Layer relu3
I0507 04:06:40.394490 31326 net.cpp:435] relu3 <- conv3
I0507 04:06:40.394495 31326 net.cpp:396] relu3 -> conv3 (in-place)
I0507 04:06:40.394502 31326 net.cpp:144] Setting up relu3
I0507 04:06:40.394506 31326 net.cpp:151] Top shape: 20 64 5 5 (32000)
I0507 04:06:40.394510 31326 net.cpp:159] Memory required for data: 2440080
I0507 04:06:40.394513 31326 layer_factory.hpp:77] Creating layer conv4
I0507 04:06:40.394522 31326 net.cpp:94] Creating Layer conv4
I0507 04:06:40.394526 31326 net.cpp:435] conv4 <- conv3
I0507 04:06:40.394531 31326 net.cpp:409] conv4 -> conv4
I0507 04:06:40.398912 31326 net.cpp:144] Setting up conv4
I0507 04:06:40.398926 31326 net.cpp:151] Top shape: 20 64 5 5 (32000)
I0507 04:06:40.398931 31326 net.cpp:159] Memory required for data: 2568080
I0507 04:06:40.398936 31326 layer_factory.hpp:77] Creating layer relu4
I0507 04:06:40.398942 31326 net.cpp:94] Creating Layer relu4
I0507 04:06:40.398947 31326 net.cpp:435] relu4 <- conv4
I0507 04:06:40.398950 31326 net.cpp:396] relu4 -> conv4 (in-place)
I0507 04:06:40.398957 31326 net.cpp:144] Setting up relu4
I0507 04:06:40.398962 31326 net.cpp:151] Top shape: 20 64 5 5 (32000)
I0507 04:06:40.398965 31326 net.cpp:159] Memory required for data: 2696080
I0507 04:06:40.398968 31326 layer_factory.hpp:77] Creating layer conv5
I0507 04:06:40.398977 31326 net.cpp:94] Creating Layer conv5
I0507 04:06:40.398979 31326 net.cpp:435] conv5 <- conv4
I0507 04:06:40.398984 31326 net.cpp:409] conv5 -> conv5
I0507 04:06:40.403817 31326 net.cpp:144] Setting up conv5
I0507 04:06:40.403831 31326 net.cpp:151] Top shape: 20 64 5 5 (32000)
I0507 04:06:40.403836 31326 net.cpp:159] Memory required for data: 2824080
I0507 04:06:40.403843 31326 layer_factory.hpp:77] Creating layer relu5
I0507 04:06:40.403849 31326 net.cpp:94] Creating Layer relu5
I0507 04:06:40.403853 31326 net.cpp:435] relu5 <- conv5
I0507 04:06:40.403857 31326 net.cpp:396] relu5 -> conv5 (in-place)
I0507 04:06:40.403864 31326 net.cpp:144] Setting up relu5
I0507 04:06:40.403869 31326 net.cpp:151] Top shape: 20 64 5 5 (32000)
I0507 04:06:40.403872 31326 net.cpp:159] Memory required for data: 2952080
I0507 04:06:40.403875 31326 layer_factory.hpp:77] Creating layer pool5
I0507 04:06:40.403880 31326 net.cpp:94] Creating Layer pool5
I0507 04:06:40.403883 31326 net.cpp:435] pool5 <- conv5
I0507 04:06:40.403887 31326 net.cpp:409] pool5 -> pool5
I0507 04:06:40.403928 31326 net.cpp:144] Setting up pool5
I0507 04:06:40.403936 31326 net.cpp:151] Top shape: 20 64 2 2 (5120)
I0507 04:06:40.403939 31326 net.cpp:159] Memory required for data: 2972560
I0507 04:06:40.403942 31326 layer_factory.hpp:77] Creating layer ip1
I0507 04:06:40.403952 31326 net.cpp:94] Creating Layer ip1
I0507 04:06:40.403956 31326 net.cpp:435] ip1 <- pool5
I0507 04:06:40.403961 31326 net.cpp:409] ip1 -> ip1
I0507 04:06:40.405285 31326 net.cpp:144] Setting up ip1
I0507 04:06:40.405299 31326 net.cpp:151] Top shape: 20 64 (1280)
I0507 04:06:40.405303 31326 net.cpp:159] Memory required for data: 2977680
I0507 04:06:40.405309 31326 layer_factory.hpp:77] Creating layer ip2
I0507 04:06:40.405316 31326 net.cpp:94] Creating Layer ip2
I0507 04:06:40.405320 31326 net.cpp:435] ip2 <- ip1
I0507 04:06:40.405325 31326 net.cpp:409] ip2 -> ip2
I0507 04:06:40.405544 31326 net.cpp:144] Setting up ip2
I0507 04:06:40.405551 31326 net.cpp:151] Top shape: 20 64 (1280)
I0507 04:06:40.405555 31326 net.cpp:159] Memory required for data: 2982800
I0507 04:06:40.405560 31326 layer_factory.hpp:77] Creating layer ip3
I0507 04:06:40.405566 31326 net.cpp:94] Creating Layer ip3
I0507 04:06:40.405570 31326 net.cpp:435] ip3 <- ip2
I0507 04:06:40.405575 31326 net.cpp:409] ip3 -> ip3
I0507 04:06:40.405691 31326 net.cpp:144] Setting up ip3
I0507 04:06:40.405699 31326 net.cpp:151] Top shape: 20 1 (20)
I0507 04:06:40.405704 31326 net.cpp:159] Memory required for data: 2982880
I0507 04:06:40.405709 31326 layer_factory.hpp:77] Creating layer loss
I0507 04:06:40.405715 31326 net.cpp:94] Creating Layer loss
I0507 04:06:40.405719 31326 net.cpp:435] loss <- ip3
I0507 04:06:40.405722 31326 net.cpp:435] loss <- label
I0507 04:06:40.405727 31326 net.cpp:409] loss -> loss
I0507 04:06:40.405786 31326 net.cpp:144] Setting up loss
…
I0507 04:06:40.466558 31326 net.cpp:323] The NetState phase (0) differed from the phase (1) specified by a rule in layer intercept
I0507 04:06:40.466575 31326 net.cpp:323] The NetState phase (0) differed from the phase (1) specified by a rule in layer accuracy
I0507 04:06:40.466660 31326 net.cpp:52] Initializing net from parameters: 
state {
  phase: TRAIN
}
layer {
  name: "parameters"
  type: "HDF5Data"
  top: "data"
  top: "label"
  include {
    phase: TRAIN
  }
  hdf5_data_param {
    source: "/home/purduethu/scratch/radon/d/deng106/CNNStatisticalModel/distributions/input/50_distributions_100_sample_size_train-distributions-path.txt"
    batch_size: 20
  }
}
layer {
  name: "conv1"
  type: "Convolution"
  bottom: "data"
  top: "conv1"
  param {
    lr_mult: 1
  }
  param {
    lr_mult: 2
  }
  convolution_param {
    num_output: 64
    pad: 2
    kernel_size: 5
    stride: 1
    weight_filler {
      type: "gaussian"
      std: 0.0001
    }
    bias_filler {
      type: "constant"
    }
  }
}
layer {
  name: "relu1"
  type: "ReLU"
  bottom: "conv1"
  top: "conv1"
}
layer {
  name: "conv2"
  type: "Convolution"
  bottom: "conv1"
  top: "conv2"
  param {
    lr_mult: 1
  }
  param {
    lr_mult: 2
  }
  convolution_param {
    num_output: 64
    pad: 2
    kernel_size: 5
    stride: 1
    weight_filler {
      type: "gaussian"
      std: 0.01
    }
    bias_filler {
      type: "constant"
    }
  }
}
layer {
  name: "relu2"
  type: "ReLU"
  bottom: "conv2"
  top: "conv2"
}
layer {
  name: "pool2"
  type: "Pooling"
  bottom: "conv2"
  top: "pool2"
  pooling_param {
    pool: MAX
    kernel_size: 3
    stride: 2
  }
}
layer {
  name: "conv3"
  type: "Convolution"
  bottom: "pool2"
  top: "conv3"
  param {
    lr_mult: 1
  }
  param {
    lr_mult: 2
  }
  convolution_param {
    num_output: 64
    pad: 2
    kernel_size: 5
    stride: 1
    weight_filler {
      type: "gaussian"
      std: 0.01
    }
    bias_filler {
      type: "constant"
    }
  }
}
layer {
  name: "relu3"
  type: "ReLU"
  bottom: "conv3"
  top: "conv3"
}
layer {
  name: "conv4"
  type: "Convolution"
  bottom: "conv3"
  top: "conv4"
  param {
    lr_mult: 1
  }
  param {
    lr_mult: 2
  }
  convolution_param {
    num_output: 64
    pad: 2
    kernel_size: 5
    stride: 1
    weight_filler {
      type: "gaussian"
      std: 0.01
    }
    bias_filler {
      type: "constant"
    }
  }
}
layer {
  name: "relu4"
  type: "ReLU"
  bottom: "conv4"
  top: "conv4"
}
layer {
  name: "conv5"
  type: "Convolution"
  bottom: "conv4"
  top: "conv5"
  param {
    lr_mult: 1
  }
  param {
    lr_mult: 2
  }
  convolution_param {
    num_output: 64
    pad: 2
    kernel_size: 5
    stride: 1
    weight_filler {
      type: "gaussian"
      std: 0.01
    }
    bias_filler {
      type: "constant"
    }
  }
}
layer {
  name: "relu5"
  type: "ReLU"
  bottom: "conv5"
  top: "conv5"
}
layer {
  name: "pool5"
  type: "Pooling"
  bottom: "conv5"
  top: "pool5"
  pooling_param {
    pool: AVE
    kernel_size: 3
    stride: 2
  }
}
layer {
  name: "ip1"
  type: "InnerProduct"
  bottom: "pool5"
  top: "ip1"
  param {
    lr_mult: 1
  }
  param {
    lr_mult: 2
  }
  inner_product_param {
    num_output: 64
    weight_filler {
      type: "gaussian"
      std: 0.1
    }
    bias_filler {
      type: "constant"
    }
  }
}
layer {
  name: "ip2"
  type: "InnerProduct"
  bottom: "ip1"
  top: "ip2"
  param {
    lr_mult: 1
  }
  param {
    lr_mult: 2
  }
  inner_product_param {
    num_output: 64
    weight_filler {
      type: "gaussian"
      std: 0.1
    }
    bias_filler {
      type: "constant"
    }
  }
}
layer {
  name: "ip3"
  type: "InnerProduct"
  bottom: "ip2"
  top: "ip3"
  param {
    lr_mult: 1
  }
  param {
    lr_mult: 2
  }
  inner_product_param {
    num_output: 50
    weight_filler {
      type: "gaussian"
      std: 0.1
    }
    bias_filler {
      type: "constant"
    }
  }
}
layer {
  name: "loss"
  type: "SoftmaxWithLoss"
  bottom: "ip3"
  bottom: "label"
  top: "loss"
}
I0507 04:06:40.466709 31326 layer_factory.hpp:77] Creating layer parameters
I0507 04:06:40.466718 31326 net.cpp:94] Creating Layer parameters
I0507 04:06:40.466722 31326 net.cpp:409] parameters -> data
I0507 04:06:40.466729 31326 net.cpp:409] parameters -> label
I0507 04:06:40.466735 31326 hdf5_data_layer.cpp:79] Loading list of HDF5 filenames from: /home/purduethu/scratch/radon/d/deng106/CNNStatisticalModel/distributions/input/50_distributions_100_sample_size_train-distributions-path.txt
I0507 04:06:40.466751 31326 hdf5_data_layer.cpp:93] Number of HDF5 files: 1
I0507 04:06:40.620491 31326 hdf5.cpp:35] Datatype class: H5T_INTEGER
I0507 04:06:40.623474 31326 net.cpp:144] Setting up parameters
I0507 04:06:40.623492 31326 net.cpp:151] Top shape: 20 1 10 10 (2000)
I0507 04:06:40.623497 31326 net.cpp:151] Top shape: 20 (20)
I0507 04:06:40.623499 31326 net.cpp:159] Memory required for data: 8080
I0507 04:06:40.623505 31326 layer_factory.hpp:77] Creating layer conv1
I0507 04:06:40.623522 31326 net.cpp:94] Creating Layer conv1
I0507 04:06:40.623527 31326 net.cpp:435] conv1 <- data
I0507 04:06:40.623533 31326 net.cpp:409] conv1 -> conv1
I0507 04:06:40.625363 31326 net.cpp:144] Setting up conv1
I0507 04:06:40.625377 31326 net.cpp:151] Top shape: 20 64 10 10 (128000)
I0507 04:06:40.625381 31326 net.cpp:159] Memory required for data: 520080
I0507 04:06:40.625391 31326 layer_factory.hpp:77] Creating layer relu1
I0507 04:06:40.625399 31326 net.cpp:94] Creating Layer relu1
I0507 04:06:40.625402 31326 net.cpp:435] relu1 <- conv1
I0507 04:06:40.625407 31326 net.cpp:396] relu1 -> conv1 (in-place)
I0507 04:06:40.625414 31326 net.cpp:144] Setting up relu1
I0507 04:06:40.625419 31326 net.cpp:151] Top shape: 20 64 10 10 (128000)
I0507 04:06:40.625422 31326 net.cpp:159] Memory required for data: 1032080
I0507 04:06:40.625425 31326 layer_factory.hpp:77] Creating layer conv2
I0507 04:06:40.625432 31326 net.cpp:94] Creating Layer conv2
I0507 04:06:40.625435 31326 net.cpp:435] conv2 <- conv1
I0507 04:06:40.625440 31326 net.cpp:409] conv2 -> conv2
I0507 04:06:40.630748 31326 net.cpp:144] Setting up conv2
I0507 04:06:40.630762 31326 net.cpp:151] Top shape: 20 64 10 10 (128000)
I0507 04:06:40.630766 31326 net.cpp:159] Memory required for data: 1544080
I0507 04:06:40.630774 31326 layer_factory.hpp:77] Creating layer relu2
I0507 04:06:40.630780 31326 net.cpp:94] Creating Layer relu2
I0507 04:06:40.630784 31326 net.cpp:435] relu2 <- conv2
I0507 04:06:40.630789 31326 net.cpp:396] relu2 -> conv2 (in-place)
I0507 04:06:40.630796 31326 net.cpp:144] Setting up relu2
I0507 04:06:40.630800 31326 net.cpp:151] Top shape: 20 64 10 10 (128000)
I0507 04:06:40.630803 31326 net.cpp:159] Memory required for data: 2056080
I0507 04:06:40.630806 31326 layer_factory.hpp:77] Creating layer pool2
I0507 04:06:40.630813 31326 net.cpp:94] Creating Layer pool2
I0507 04:06:40.630816 31326 net.cpp:435] pool2 <- conv2
I0507 04:06:40.630820 31326 net.cpp:409] pool2 -> pool2
I0507 04:06:40.630875 31326 net.cpp:144] Setting up pool2
I0507 04:06:40.630883 31326 net.cpp:151] Top shape: 20 64 5 5 (32000)
I0507 04:06:40.630887 31326 net.cpp:159] Memory required for data: 2184080
I0507 04:06:40.630890 31326 layer_factory.hpp:77] Creating layer conv3
I0507 04:06:40.630898 31326 net.cpp:94] Creating Layer conv3
I0507 04:06:40.630901 31326 net.cpp:435] conv3 <- pool2
I0507 04:06:40.630906 31326 net.cpp:409] conv3 -> conv3
I0507 04:06:40.636625 31326 net.cpp:144] Setting up conv3
I0507 04:06:40.636638 31326 net.cpp:151] Top shape: 20 64 5 5 (32000)
I0507 04:06:40.636642 31326 net.cpp:159] Memory required for data: 2312080
I0507 04:06:40.636651 31326 layer_factory.hpp:77] Creating layer relu3
I0507 04:06:40.636656 31326 net.cpp:94] Creating Layer relu3
I0507 04:06:40.636660 31326 net.cpp:435] relu3 <- conv3
I0507 04:06:40.636664 31326 net.cpp:396] relu3 -> conv3 (in-place)
I0507 04:06:40.636672 31326 net.cpp:144] Setting up relu3
I0507 04:06:40.636677 31326 net.cpp:151] Top shape: 20 64 5 5 (32000)
I0507 04:06:40.636683 31326 net.cpp:159] Memory required for data: 2440080
I0507 04:06:40.636687 31326 layer_factory.hpp:77] Creating layer conv4
I0507 04:06:40.636695 31326 net.cpp:94] Creating Layer conv4
I0507 04:06:40.636699 31326 net.cpp:435] conv4 <- conv3
I0507 04:06:40.636703 31326 net.cpp:409] conv4 -> conv4
I0507 04:06:40.641599 31326 net.cpp:144] Setting up conv4
I0507 04:06:40.641613 31326 net.cpp:151] Top shape: 20 64 5 5 (32000)
I0507 04:06:40.641618 31326 net.cpp:159] Memory required for data: 2568080
I0507 04:06:40.641624 31326 layer_factory.hpp:77] Creating layer relu4
I0507 04:06:40.641630 31326 net.cpp:94] Creating Layer relu4
I0507 04:06:40.641633 31326 net.cpp:435] relu4 <- conv4
I0507 04:06:40.641638 31326 net.cpp:396] relu4 -> conv4 (in-place)
I0507 04:06:40.641645 31326 net.cpp:144] Setting up relu4
I0507 04:06:40.641649 31326 net.cpp:151] Top shape: 20 64 5 5 (32000)
I0507 04:06:40.641652 31326 net.cpp:159] Memory required for data: 2696080
I0507 04:06:40.641656 31326 layer_factory.hpp:77] Creating layer conv5
I0507 04:06:40.641664 31326 net.cpp:94] Creating Layer conv5
I0507 04:06:40.641667 31326 net.cpp:435] conv5 <- conv4
I0507 04:06:40.641672 31326 net.cpp:409] conv5 -> conv5
I0507 04:06:40.646078 31326 net.cpp:144] Setting up conv5
I0507 04:06:40.646092 31326 net.cpp:151] Top shape: 20 64 5 5 (32000)
I0507 04:06:40.646096 31326 net.cpp:159] Memory required for data: 2824080
I0507 04:06:40.646105 31326 layer_factory.hpp:77] Creating layer relu5
I0507 04:06:40.646111 31326 net.cpp:94] Creating Layer relu5
I0507 04:06:40.646114 31326 net.cpp:435] relu5 <- conv5
I0507 04:06:40.646118 31326 net.cpp:396] relu5 -> conv5 (in-place)
I0507 04:06:40.646126 31326 net.cpp:144] Setting up relu5
I0507 04:06:40.646129 31326 net.cpp:151] Top shape: 20 64 5 5 (32000)
I0507 04:06:40.646132 31326 net.cpp:159] Memory required for data: 2952080
I0507 04:06:40.646136 31326 layer_factory.hpp:77] Creating layer pool5
I0507 04:06:40.646142 31326 net.cpp:94] Creating Layer pool5
I0507 04:06:40.646144 31326 net.cpp:435] pool5 <- conv5
I0507 04:06:40.646148 31326 net.cpp:409] pool5 -> pool5
I0507 04:06:40.646186 31326 net.cpp:144] Setting up pool5
I0507 04:06:40.646193 31326 net.cpp:151] Top shape: 20 64 2 2 (5120)
I0507 04:06:40.646198 31326 net.cpp:159] Memory required for data: 2972560
I0507 04:06:40.646200 31326 layer_factory.hpp:77] Creating layer ip1
I0507 04:06:40.646208 31326 net.cpp:94] Creating Layer ip1
I0507 04:06:40.646210 31326 net.cpp:435] ip1 <- pool5
I0507 04:06:40.646215 31326 net.cpp:409] ip1 -> ip1
I0507 04:06:40.646736 31326 net.cpp:144] Setting up ip1
I0507 04:06:40.646744 31326 net.cpp:151] Top shape: 20 64 (1280)
I0507 04:06:40.646749 31326 net.cpp:159] Memory required for data: 2977680
I0507 04:06:40.646754 31326 layer_factory.hpp:77] Creating layer ip2
I0507 04:06:40.646759 31326 net.cpp:94] Creating Layer ip2
I0507 04:06:40.646764 31326 net.cpp:435] ip2 <- ip1
I0507 04:06:40.646767 31326 net.cpp:409] ip2 -> ip2
I0507 04:06:40.646996 31326 net.cpp:144] Setting up ip2
I0507 04:06:40.647003 31326 net.cpp:151] Top shape: 20 64 (1280)
I0507 04:06:40.647006 31326 net.cpp:159] Memory required for data: 2982800
I0507 04:06:40.647011 31326 layer_factory.hpp:77] Creating layer ip3
I0507 04:06:40.647017 31326 net.cpp:94] Creating Layer ip3
I0507 04:06:40.647020 31326 net.cpp:435] ip3 <- ip2
I0507 04:06:40.647025 31326 net.cpp:409] ip3 -> ip3
I0507 04:06:40.647227 31326 net.cpp:144] Setting up ip3
I0507 04:06:40.647234 31326 net.cpp:151] Top shape: 20 50 (1000)
I0507 04:06:40.647238 31326 net.cpp:159] Memory required for data: 2986800
I0507 04:06:40.647243 31326 layer_factory.hpp:77] Creating layer loss
I0507 04:06:40.647249 31326 net.cpp:94] Creating Layer loss
I0507 04:06:40.647253 31326 net.cpp:435] loss <- ip3
I0507 04:06:40.647258 31326 net.cpp:435] loss <- label
I0507 04:06:40.647261 31326 net.cpp:409] loss -> loss
I0507 04:06:40.647269 31326 layer_factory.hpp:77] Creating layer loss
…
I0507 04:06:40.648617 31326 solver.cpp:181] Creating test net (#0) specified by net file: ./protocol/dis_50_100_dimension.protocol_distribution
I0507 04:06:40.648644 31326 net.cpp:323] The NetState phase (1) differed from the phase (0) specified by a rule in layer parameters
I0507 04:06:40.648738 31326 net.cpp:52] Initializing net from parameters: 
state {
  phase: TEST
}
layer {
  name: "intercept"
  type: "HDF5Data"
  top: "data"
  top: "label"
  include {
    phase: TEST
  }
  hdf5_data_param {
    source: "/home/purduethu/scratch/radon/d/deng106/CNNStatisticalModel/distributions/input/50_distributions_100_sample_size_test-distributions-path.txt"
    batch_size: 20
  }
}
layer {
  name: "conv1"
  type: "Convolution"
  bottom: "data"
  top: "conv1"
  param {
    lr_mult: 1
  }
  param {
    lr_mult: 2
  }
  convolution_param {
    num_output: 64
    pad: 2
    kernel_size: 5
    stride: 1
    weight_filler {
      type: "gaussian"
      std: 0.0001
    }
    bias_filler {
      type: "constant"
    }
  }
}
layer {
  name: "relu1"
  type: "ReLU"
  bottom: "conv1"
  top: "conv1"
}
layer {
  name: "conv2"
  type: "Convolution"
  bottom: "conv1"
  top: "conv2"
  param {
    lr_mult: 1
  }
  param {
    lr_mult: 2
  }
  convolution_param {
    num_output: 64
    pad: 2
    kernel_size: 5
    stride: 1
    weight_filler {
      type: "gaussian"
      std: 0.01
    }
    bias_filler {
      type: "constant"
    }
  }
}
layer {
  name: "relu2"
  type: "ReLU"
  bottom: "conv2"
  top: "conv2"
}
layer {
  name: "pool2"
  type: "Pooling"
  bottom: "conv2"
  top: "pool2"
  pooling_param {
    pool: MAX
    kernel_size: 3
    stride: 2
  }
}
layer {
  name: "conv3"
  type: "Convolution"
  bottom: "pool2"
  top: "conv3"
  param {
    lr_mult: 1
  }
  param {
    lr_mult: 2
  }
  convolution_param {
    num_output: 64
    pad: 2
    kernel_size: 5
    stride: 1
    weight_filler {
      type: "gaussian"
      std: 0.01
    }
    bias_filler {
      type: "constant"
    }
  }
}
layer {
  name: "relu3"
  type: "ReLU"
  bottom: "conv3"
  top: "conv3"
}
layer {
  name: "conv4"
  type: "Convolution"
  bottom: "conv3"
  top: "conv4"
  param {
    lr_mult: 1
  }
  param {
    lr_mult: 2
  }
  convolution_param {
    num_output: 64
    pad: 2
    kernel_size: 5
    stride: 1
    weight_filler {
      type: "gaussian"
      std: 0.01
    }
    bias_filler {
      type: "constant"
    }
  }
}
layer {
  name: "relu4"
  type: "ReLU"
  bottom: "conv4"
  top: "conv4"
}
layer {
  name: "conv5"
  type: "Convolution"
  bottom: "conv4"
  top: "conv5"
  param {
    lr_mult: 1
  }
  param {
    lr_mult: 2
  }
  convolution_param {
    num_output: 64
    pad: 2
    kernel_size: 5
    stride: 1
    weight_filler {
      type: "gaussian"
      std: 0.01
    }
    bias_filler {
      type: "constant"
    }
  }
}
layer {
  name: "relu5"
  type: "ReLU"
  bottom: "conv5"
  top: "conv5"
}
layer {
  name: "pool5"
  type: "Pooling"
  bottom: "conv5"
  top: "pool5"
  pooling_param {
    pool: AVE
    kernel_size: 3
    stride: 2
  }
}
layer {
  name: "ip1"
  type: "InnerProduct"
  bottom: "pool5"
  top: "ip1"
  param {
    lr_mult: 1
  }
  param {
    lr_mult: 2
  }
  inner_product_param {
    num_output: 64
    weight_filler {
      type: "gaussian"
      std: 0.1
    }
    bias_filler {
      type: "constant"
    }
  }
}
layer {
  name: "ip2"
  type: "InnerProduct"
  bottom: "ip1"
  top: "ip2"
  param {
    lr_mult: 1
  }
  param {
    lr_mult: 2
  }
  inner_product_param {
    num_output: 64
    weight_filler {
      type: "gaussian"
      std: 0.1
    }
    bias_filler {
      type: "constant"
    }
  }
}
layer {
  name: "ip3"
  type: "InnerProduct"
  bottom: "ip2"
  top: "ip3"
  param {
    lr_mult: 1
  }
  param {
    lr_mult: 2
  }
  inner_product_param {
    num_output: 50
    weight_filler {
      type: "gaussian"
      std: 0.1
    }
    bias_filler {
      type: "constant"
    }
  }
}
layer {
  name: "accuracy"
  type: "Accuracy"
  bottom: "ip3"
  bottom: "label"
  top: "accuracy"
  include {
    phase: TEST
  }
}
layer {
  name: "loss"
  type: "SoftmaxWithLoss"
  bottom: "ip3"
  bottom: "label"
  top: "loss"
}
I0507 04:06:40.648803 31326 layer_factory.hpp:77] Creating layer intercept
I0507 04:06:40.648811 31326 net.cpp:94] Creating Layer intercept
I0507 04:06:40.648816 31326 net.cpp:409] intercept -> data
I0507 04:06:40.648823 31326 net.cpp:409] intercept -> label
I0507 04:06:40.648829 31326 hdf5_data_layer.cpp:79] Loading list of HDF5 filenames from: /home/purduethu/scratch/radon/d/deng106/CNNStatisticalModel/distributions/input/50_distributions_100_sample_size_test-distributions-path.txt
I0507 04:06:40.648847 31326 hdf5_data_layer.cpp:93] Number of HDF5 files: 1
I0507 04:06:40.689535 31326 net.cpp:144] Setting up intercept
I0507 04:06:40.689569 31326 net.cpp:151] Top shape: 20 1 10 10 (2000)
I0507 04:06:40.689575 31326 net.cpp:151] Top shape: 20 (20)
I0507 04:06:40.689579 31326 net.cpp:159] Memory required for data: 8080
I0507 04:06:40.689585 31326 layer_factory.hpp:77] Creating layer label_intercept_1_split
I0507 04:06:40.689604 31326 net.cpp:94] Creating Layer label_intercept_1_split
I0507 04:06:40.689610 31326 net.cpp:435] label_intercept_1_split <- label
I0507 04:06:40.689615 31326 net.cpp:409] label_intercept_1_split -> label_intercept_1_split_0
I0507 04:06:40.689625 31326 net.cpp:409] label_intercept_1_split -> label_intercept_1_split_1
I0507 04:06:40.689669 31326 net.cpp:144] Setting up label_intercept_1_split
I0507 04:06:40.689677 31326 net.cpp:151] Top shape: 20 (20)
I0507 04:06:40.689680 31326 net.cpp:151] Top shape: 20 (20)
I0507 04:06:40.689683 31326 net.cpp:159] Memory required for data: 8240
I0507 04:06:40.689687 31326 layer_factory.hpp:77] Creating layer conv1
I0507 04:06:40.689698 31326 net.cpp:94] Creating Layer conv1
I0507 04:06:40.689702 31326 net.cpp:435] conv1 <- data
I0507 04:06:40.689707 31326 net.cpp:409] conv1 -> conv1
I0507 04:06:40.690528 31326 net.cpp:144] Setting up conv1
I0507 04:06:40.690542 31326 net.cpp:151] Top shape: 20 64 10 10 (128000)
I0507 04:06:40.690546 31326 net.cpp:159] Memory required for data: 520240
I0507 04:06:40.690556 31326 layer_factory.hpp:77] Creating layer relu1
I0507 04:06:40.690562 31326 net.cpp:94] Creating Layer relu1
I0507 04:06:40.690565 31326 net.cpp:435] relu1 <- conv1
I0507 04:06:40.690570 31326 net.cpp:396] relu1 -> conv1 (in-place)
I0507 04:06:40.690577 31326 net.cpp:144] Setting up relu1
I0507 04:06:40.690582 31326 net.cpp:151] Top shape: 20 64 10 10 (128000)
I0507 04:06:40.690585 31326 net.cpp:159] Memory required for data: 1032240
I0507 04:06:40.690596 31326 layer_factory.hpp:77] Creating layer conv2
I0507 04:06:40.690604 31326 net.cpp:94] Creating Layer conv2
I0507 04:06:40.690608 31326 net.cpp:435] conv2 <- conv1
I0507 04:06:40.690613 31326 net.cpp:409] conv2 -> conv2
I0507 04:06:40.694671 31326 net.cpp:144] Setting up conv2
I0507 04:06:40.694685 31326 net.cpp:151] Top shape: 20 64 10 10 (128000)
I0507 04:06:40.694689 31326 net.cpp:159] Memory required for data: 1544240
I0507 04:06:40.694697 31326 layer_factory.hpp:77] Creating layer relu2
I0507 04:06:40.694702 31326 net.cpp:94] Creating Layer relu2
I0507 04:06:40.694706 31326 net.cpp:435] relu2 <- conv2
I0507 04:06:40.694712 31326 net.cpp:396] relu2 -> conv2 (in-place)
I0507 04:06:40.694720 31326 net.cpp:144] Setting up relu2
I0507 04:06:40.694725 31326 net.cpp:151] Top shape: 20 64 10 10 (128000)
I0507 04:06:40.694727 31326 net.cpp:159] Memory required for data: 2056240
I0507 04:06:40.694730 31326 layer_factory.hpp:77] Creating layer pool2
I0507 04:06:40.694736 31326 net.cpp:94] Creating Layer pool2
I0507 04:06:40.694738 31326 net.cpp:435] pool2 <- conv2
I0507 04:06:40.694743 31326 net.cpp:409] pool2 -> pool2
I0507 04:06:40.694802 31326 net.cpp:144] Setting up pool2
I0507 04:06:40.694809 31326 net.cpp:151] Top shape: 20 64 5 5 (32000)
I0507 04:06:40.694813 31326 net.cpp:159] Memory required for data: 2184240
I0507 04:06:40.694816 31326 layer_factory.hpp:77] Creating layer conv3
I0507 04:06:40.694825 31326 net.cpp:94] Creating Layer conv3
I0507 04:06:40.694829 31326 net.cpp:435] conv3 <- pool2
I0507 04:06:40.694833 31326 net.cpp:409] conv3 -> conv3
I0507 04:06:40.699190 31326 net.cpp:144] Setting up conv3
I0507 04:06:40.699203 31326 net.cpp:151] Top shape: 20 64 5 5 (32000)
I0507 04:06:40.699208 31326 net.cpp:159] Memory required for data: 2312240
I0507 04:06:40.699215 31326 layer_factory.hpp:77] Creating layer relu3
I0507 04:06:40.699223 31326 net.cpp:94] Creating Layer relu3
I0507 04:06:40.699228 31326 net.cpp:435] relu3 <- conv3
I0507 04:06:40.699232 31326 net.cpp:396] relu3 -> conv3 (in-place)
I0507 04:06:40.699239 31326 net.cpp:144] Setting up relu3
I0507 04:06:40.699244 31326 net.cpp:151] Top shape: 20 64 5 5 (32000)
I0507 04:06:40.699246 31326 net.cpp:159] Memory required for data: 2440240
I0507 04:06:40.699249 31326 layer_factory.hpp:77] Creating layer conv4
I0507 04:06:40.699257 31326 net.cpp:94] Creating Layer conv4
I0507 04:06:40.699261 31326 net.cpp:435] conv4 <- conv3
I0507 04:06:40.699267 31326 net.cpp:409] conv4 -> conv4
I0507 04:06:40.702783 31326 net.cpp:144] Setting up conv4
I0507 04:06:40.702796 31326 net.cpp:151] Top shape: 20 64 5 5 (32000)
I0507 04:06:40.702800 31326 net.cpp:159] Memory required for data: 2568240
I0507 04:06:40.702806 31326 layer_factory.hpp:77] Creating layer relu4
I0507 04:06:40.702812 31326 net.cpp:94] Creating Layer relu4
I0507 04:06:40.702816 31326 net.cpp:435] relu4 <- conv4
I0507 04:06:40.702821 31326 net.cpp:396] relu4 -> conv4 (in-place)
I0507 04:06:40.702826 31326 net.cpp:144] Setting up relu4
I0507 04:06:40.702831 31326 net.cpp:151] Top shape: 20 64 5 5 (32000)
I0507 04:06:40.702834 31326 net.cpp:159] Memory required for data: 2696240
I0507 04:06:40.702837 31326 layer_factory.hpp:77] Creating layer conv5
I0507 04:06:40.702846 31326 net.cpp:94] Creating Layer conv5
I0507 04:06:40.702849 31326 net.cpp:435] conv5 <- conv4
I0507 04:06:40.702854 31326 net.cpp:409] conv5 -> conv5
I0507 04:06:40.706809 31326 net.cpp:144] Setting up conv5
I0507 04:06:40.706823 31326 net.cpp:151] Top shape: 20 64 5 5 (32000)
I0507 04:06:40.706827 31326 net.cpp:159] Memory required for data: 2824240
I0507 04:06:40.706835 31326 layer_factory.hpp:77] Creating layer relu5
I0507 04:06:40.706843 31326 net.cpp:94] Creating Layer relu5
I0507 04:06:40.706846 31326 net.cpp:435] relu5 <- conv5
I0507 04:06:40.706851 31326 net.cpp:396] relu5 -> conv5 (in-place)
I0507 04:06:40.706858 31326 net.cpp:144] Setting up relu5
I0507 04:06:40.706862 31326 net.cpp:151] Top shape: 20 64 5 5 (32000)
I0507 04:06:40.706866 31326 net.cpp:159] Memory required for data: 2952240
I0507 04:06:40.706872 31326 layer_factory.hpp:77] Creating layer pool5
I0507 04:06:40.706878 31326 net.cpp:94] Creating Layer pool5
I0507 04:06:40.706882 31326 net.cpp:435] pool5 <- conv5
I0507 04:06:40.706887 31326 net.cpp:409] pool5 -> pool5
I0507 04:06:40.706928 31326 net.cpp:144] Setting up pool5
I0507 04:06:40.706934 31326 net.cpp:151] Top shape: 20 64 2 2 (5120)
I0507 04:06:40.706938 31326 net.cpp:159] Memory required for data: 2972720
I0507 04:06:40.706941 31326 layer_factory.hpp:77] Creating layer ip1
I0507 04:06:40.706948 31326 net.cpp:94] Creating Layer ip1
I0507 04:06:40.706951 31326 net.cpp:435] ip1 <- pool5
I0507 04:06:40.706956 31326 net.cpp:409] ip1 -> ip1
I0507 04:06:40.707490 31326 net.cpp:144] Setting up ip1
I0507 04:06:40.707499 31326 net.cpp:151] Top shape: 20 64 (1280)
I0507 04:06:40.707501 31326 net.cpp:159] Memory required for data: 2977840
I0507 04:06:40.707507 31326 layer_factory.hpp:77] Creating layer ip2
I0507 04:06:40.707512 31326 net.cpp:94] Creating Layer ip2
I0507 04:06:40.707516 31326 net.cpp:435] ip2 <- ip1
I0507 04:06:40.707520 31326 net.cpp:409] ip2 -> ip2
I0507 04:06:40.707752 31326 net.cpp:144] Setting up ip2
I0507 04:06:40.707761 31326 net.cpp:151] Top shape: 20 64 (1280)
I0507 04:06:40.707763 31326 net.cpp:159] Memory required for data: 2982960
I0507 04:06:40.707769 31326 layer_factory.hpp:77] Creating layer ip3
I0507 04:06:40.707777 31326 net.cpp:94] Creating Layer ip3
I0507 04:06:40.707780 31326 net.cpp:435] ip3 <- ip2
I0507 04:06:40.707785 31326 net.cpp:409] ip3 -> ip3
I0507 04:06:40.707990 31326 net.cpp:144] Setting up ip3
I0507 04:06:40.707998 31326 net.cpp:151] Top shape: 20 50 (1000)
I0507 04:06:40.708001 31326 net.cpp:159] Memory required for data: 2986960
I0507 04:06:40.708006 31326 layer_factory.hpp:77] Creating layer ip3_ip3_0_split
I0507 04:06:40.708012 31326 net.cpp:94] Creating Layer ip3_ip3_0_split
I0507 04:06:40.708015 31326 net.cpp:435] ip3_ip3_0_split <- ip3
I0507 04:06:40.708020 31326 net.cpp:409] ip3_ip3_0_split -> ip3_ip3_0_split_0
I0507 04:06:40.708025 31326 net.cpp:409] ip3_ip3_0_split -> ip3_ip3_0_split_1
I0507 04:06:40.708067 31326 net.cpp:144] Setting up ip3_ip3_0_split
I0507 04:06:40.708073 31326 net.cpp:151] Top shape: 20 50 (1000)
I0507 04:06:40.708077 31326 net.cpp:151] Top shape: 20 50 (1000)
I0507 04:06:40.708081 31326 net.cpp:159] Memory required for data: 2994960
I0507 04:06:40.708083 31326 layer_factory.hpp:77] Creating layer accuracy
I0507 04:06:40.708089 31326 net.cpp:94] Creating Layer accuracy
I0507 04:06:40.708092 31326 net.cpp:435] accuracy <- ip3_ip3_0_split_0
I0507 04:06:40.708096 31326 net.cpp:435] accuracy <- label_intercept_1_split_0
I0507 04:06:40.708101 31326 net.cpp:409] accuracy -> accuracy
…
