…
I0503 10:48:08.138368 20203 net.cpp:323] The NetState phase (0) differed from the phase (1) specified by a rule in layer intercept
I0503 10:48:08.138384 20203 net.cpp:323] The NetState phase (0) differed from the phase (1) specified by a rule in layer accuracy
I0503 10:48:08.138471 20203 net.cpp:52] Initializing net from parameters: 
state {
  phase: TRAIN
}
layer {
  name: "parameters"
  type: "HDF5Data"
  top: "data"
  top: "label"
  include {
    phase: TRAIN
  }
  hdf5_data_param {
    source: "/home/purduethu/scratch/radon/d/deng106/CNNStatisticalModel/distributions/input/50_distributions_100_sample_size_train-distributions-path.txt"
    batch_size: 20
  }
}
layer {
  name: "conv1"
  type: "Convolution"
  bottom: "data"
  top: "conv1"
  param {
    lr_mult: 1
  }
  param {
    lr_mult: 2
  }
  convolution_param {
    num_output: 64
    pad: 2
    kernel_size: 5
    stride: 1
    weight_filler {
      type: "gaussian"
      std: 0.0001
    }
    bias_filler {
      type: "constant"
    }
  }
}
layer {
  name: "relu1"
  type: "ReLU"
  bottom: "conv1"
  top: "conv1"
}
layer {
  name: "conv2"
  type: "Convolution"
  bottom: "conv1"
  top: "conv2"
  param {
    lr_mult: 1
  }
  param {
    lr_mult: 2
  }
  convolution_param {
    num_output: 64
    pad: 2
    kernel_size: 5
    stride: 1
    weight_filler {
      type: "gaussian"
      std: 0.01
    }
    bias_filler {
      type: "constant"
    }
  }
}
layer {
  name: "relu2"
  type: "ReLU"
  bottom: "conv2"
  top: "conv2"
}
layer {
  name: "pool2"
  type: "Pooling"
  bottom: "conv2"
  top: "pool2"
  pooling_param {
    pool: MAX
    kernel_size: 3
    stride: 2
  }
}
layer {
  name: "conv3"
  type: "Convolution"
  bottom: "pool2"
  top: "conv3"
  param {
    lr_mult: 1
  }
  param {
    lr_mult: 2
  }
  convolution_param {
    num_output: 128
    pad: 2
    kernel_size: 5
    stride: 1
    weight_filler {
      type: "gaussian"
      std: 0.01
    }
    bias_filler {
      type: "constant"
    }
  }
}
layer {
  name: "relu3"
  type: "ReLU"
  bottom: "conv3"
  top: "conv3"
}
layer {
  name: "conv4"
  type: "Convolution"
  bottom: "conv3"
  top: "conv4"
  param {
    lr_mult: 1
  }
  param {
    lr_mult: 2
  }
  convolution_param {
    num_output: 128
    pad: 2
    kernel_size: 5
    stride: 1
    weight_filler {
      type: "gaussian"
      std: 0.01
    }
    bias_filler {
      type: "constant"
    }
  }
}
layer {
  name: "relu4"
  type: "ReLU"
  bottom: "conv4"
  top: "conv4"
}
layer {
  name: "conv5"
  type: "Convolution"
  bottom: "conv4"
  top: "conv5"
  param {
    lr_mult: 1
  }
  param {
    lr_mult: 2
  }
  convolution_param {
    num_output: 128
    pad: 2
    kernel_size: 5
    stride: 1
    weight_filler {
      type: "gaussian"
      std: 0.01
    }
    bias_filler {
      type: "constant"
    }
  }
}
layer {
  name: "relu5"
  type: "ReLU"
  bottom: "conv5"
  top: "conv5"
}
layer {
  name: "pool5"
  type: "Pooling"
  bottom: "conv5"
  top: "pool5"
  pooling_param {
    pool: AVE
    kernel_size: 3
    stride: 2
  }
}
layer {
  name: "ip1"
  type: "InnerProduct"
  bottom: "pool5"
  top: "ip1"
  param {
    lr_mult: 1
  }
  param {
    lr_mult: 2
  }
  inner_product_param {
    num_output: 1024
    weight_filler {
      type: "gaussian"
      std: 0.1
    }
    bias_filler {
      type: "constant"
    }
  }
}
layer {
  name: "ip2"
  type: "InnerProduct"
  bottom: "ip1"
  top: "ip2"
  param {
    lr_mult: 1
  }
  param {
    lr_mult: 2
  }
  inner_product_param {
    num_output: 512
    weight_filler {
      type: "gaussian"
      std: 0.1
    }
    bias_filler {
      type: "constant"
    }
  }
}
layer {
  name: "ip3"
  type: "InnerProduct"
  bottom: "ip2"
  top: "ip3"
  param {
    lr_mult: 1
  }
  param {
    lr_mult: 2
  }
  inner_product_param {
    num_output: 50
    weight_filler {
      type: "gaussian"
      std: 0.1
    }
    bias_filler {
      type: "constant"
    }
  }
}
layer {
  name: "loss"
  type: "SoftmaxWithLoss"
  bottom: "ip3"
  bottom: "label"
  top: "loss"
}
I0503 10:48:08.138543 20203 layer_factory.hpp:77] Creating layer parameters
I0503 10:48:08.138558 20203 net.cpp:94] Creating Layer parameters
I0503 10:48:08.138564 20203 net.cpp:409] parameters -> data
I0503 10:48:08.138583 20203 net.cpp:409] parameters -> label
I0503 10:48:08.138593 20203 hdf5_data_layer.cpp:79] Loading list of HDF5 filenames from: /home/purduethu/scratch/radon/d/deng106/CNNStatisticalModel/distributions/input/50_distributions_100_sample_size_train-distributions-path.txt
I0503 10:48:08.138615 20203 hdf5_data_layer.cpp:93] Number of HDF5 files: 1
I0503 10:48:08.139168 20203 hdf5.cpp:32] Datatype class: H5T_FLOAT
I0503 10:48:08.294338 20203 hdf5.cpp:35] Datatype class: H5T_INTEGER
I0503 10:48:08.297128 20203 net.cpp:144] Setting up parameters
I0503 10:48:08.297149 20203 net.cpp:151] Top shape: 20 1 10 10 (2000)
I0503 10:48:08.297157 20203 net.cpp:151] Top shape: 20 (20)
I0503 10:48:08.297159 20203 net.cpp:159] Memory required for data: 8080
I0503 10:48:08.297168 20203 layer_factory.hpp:77] Creating layer conv1
I0503 10:48:08.297186 20203 net.cpp:94] Creating Layer conv1
I0503 10:48:08.297193 20203 net.cpp:435] conv1 <- data
I0503 10:48:08.297202 20203 net.cpp:409] conv1 -> conv1
I0503 10:48:08.300954 20203 net.cpp:144] Setting up conv1
I0503 10:48:08.300971 20203 net.cpp:151] Top shape: 20 64 10 10 (128000)
I0503 10:48:08.300974 20203 net.cpp:159] Memory required for data: 520080
I0503 10:48:08.300987 20203 layer_factory.hpp:77] Creating layer relu1
I0503 10:48:08.300994 20203 net.cpp:94] Creating Layer relu1
I0503 10:48:08.300998 20203 net.cpp:435] relu1 <- conv1
I0503 10:48:08.301003 20203 net.cpp:396] relu1 -> conv1 (in-place)
I0503 10:48:08.301020 20203 net.cpp:144] Setting up relu1
I0503 10:48:08.301026 20203 net.cpp:151] Top shape: 20 64 10 10 (128000)
I0503 10:48:08.301029 20203 net.cpp:159] Memory required for data: 1032080
I0503 10:48:08.301033 20203 layer_factory.hpp:77] Creating layer conv2
I0503 10:48:08.301041 20203 net.cpp:94] Creating Layer conv2
I0503 10:48:08.301045 20203 net.cpp:435] conv2 <- conv1
I0503 10:48:08.301051 20203 net.cpp:409] conv2 -> conv2
I0503 10:48:08.306793 20203 net.cpp:144] Setting up conv2
I0503 10:48:08.306807 20203 net.cpp:151] Top shape: 20 64 10 10 (128000)
I0503 10:48:08.306812 20203 net.cpp:159] Memory required for data: 1544080
I0503 10:48:08.306819 20203 layer_factory.hpp:77] Creating layer relu2
I0503 10:48:08.306828 20203 net.cpp:94] Creating Layer relu2
I0503 10:48:08.306831 20203 net.cpp:435] relu2 <- conv2
I0503 10:48:08.306835 20203 net.cpp:396] relu2 -> conv2 (in-place)
I0503 10:48:08.306843 20203 net.cpp:144] Setting up relu2
I0503 10:48:08.306848 20203 net.cpp:151] Top shape: 20 64 10 10 (128000)
I0503 10:48:08.306850 20203 net.cpp:159] Memory required for data: 2056080
I0503 10:48:08.306854 20203 layer_factory.hpp:77] Creating layer pool2
I0503 10:48:08.306867 20203 net.cpp:94] Creating Layer pool2
I0503 10:48:08.306872 20203 net.cpp:435] pool2 <- conv2
I0503 10:48:08.306877 20203 net.cpp:409] pool2 -> pool2
I0503 10:48:08.306921 20203 net.cpp:144] Setting up pool2
I0503 10:48:08.306928 20203 net.cpp:151] Top shape: 20 64 5 5 (32000)
I0503 10:48:08.306931 20203 net.cpp:159] Memory required for data: 2184080
I0503 10:48:08.306936 20203 layer_factory.hpp:77] Creating layer conv3
I0503 10:48:08.306943 20203 net.cpp:94] Creating Layer conv3
I0503 10:48:08.306947 20203 net.cpp:435] conv3 <- pool2
I0503 10:48:08.306959 20203 net.cpp:409] conv3 -> conv3
I0503 10:48:08.314981 20203 net.cpp:144] Setting up conv3
I0503 10:48:08.314996 20203 net.cpp:151] Top shape: 20 128 5 5 (64000)
I0503 10:48:08.315001 20203 net.cpp:159] Memory required for data: 2440080
I0503 10:48:08.315008 20203 layer_factory.hpp:77] Creating layer relu3
I0503 10:48:08.315016 20203 net.cpp:94] Creating Layer relu3
I0503 10:48:08.315019 20203 net.cpp:435] relu3 <- conv3
I0503 10:48:08.315023 20203 net.cpp:396] relu3 -> conv3 (in-place)
I0503 10:48:08.315030 20203 net.cpp:144] Setting up relu3
I0503 10:48:08.315035 20203 net.cpp:151] Top shape: 20 128 5 5 (64000)
I0503 10:48:08.315038 20203 net.cpp:159] Memory required for data: 2696080
I0503 10:48:08.315042 20203 layer_factory.hpp:77] Creating layer conv4
I0503 10:48:08.315050 20203 net.cpp:94] Creating Layer conv4
I0503 10:48:08.315054 20203 net.cpp:435] conv4 <- conv3
I0503 10:48:08.315059 20203 net.cpp:409] conv4 -> conv4
I0503 10:48:08.329576 20203 net.cpp:144] Setting up conv4
I0503 10:48:08.329591 20203 net.cpp:151] Top shape: 20 128 5 5 (64000)
I0503 10:48:08.329596 20203 net.cpp:159] Memory required for data: 2952080
I0503 10:48:08.329602 20203 layer_factory.hpp:77] Creating layer relu4
I0503 10:48:08.329608 20203 net.cpp:94] Creating Layer relu4
I0503 10:48:08.329612 20203 net.cpp:435] relu4 <- conv4
I0503 10:48:08.329617 20203 net.cpp:396] relu4 -> conv4 (in-place)
I0503 10:48:08.329624 20203 net.cpp:144] Setting up relu4
I0503 10:48:08.329629 20203 net.cpp:151] Top shape: 20 128 5 5 (64000)
I0503 10:48:08.329632 20203 net.cpp:159] Memory required for data: 3208080
I0503 10:48:08.329635 20203 layer_factory.hpp:77] Creating layer conv5
I0503 10:48:08.329643 20203 net.cpp:94] Creating Layer conv5
I0503 10:48:08.329648 20203 net.cpp:435] conv5 <- conv4
I0503 10:48:08.329653 20203 net.cpp:409] conv5 -> conv5
I0503 10:48:08.343804 20203 net.cpp:144] Setting up conv5
I0503 10:48:08.343819 20203 net.cpp:151] Top shape: 20 128 5 5 (64000)
I0503 10:48:08.343823 20203 net.cpp:159] Memory required for data: 3464080
I0503 10:48:08.343832 20203 layer_factory.hpp:77] Creating layer relu5
I0503 10:48:08.343838 20203 net.cpp:94] Creating Layer relu5
I0503 10:48:08.343842 20203 net.cpp:435] relu5 <- conv5
I0503 10:48:08.343847 20203 net.cpp:396] relu5 -> conv5 (in-place)
I0503 10:48:08.343853 20203 net.cpp:144] Setting up relu5
I0503 10:48:08.343858 20203 net.cpp:151] Top shape: 20 128 5 5 (64000)
I0503 10:48:08.343861 20203 net.cpp:159] Memory required for data: 3720080
I0503 10:48:08.343865 20203 layer_factory.hpp:77] Creating layer pool5
I0503 10:48:08.343870 20203 net.cpp:94] Creating Layer pool5
I0503 10:48:08.343873 20203 net.cpp:435] pool5 <- conv5
I0503 10:48:08.343878 20203 net.cpp:409] pool5 -> pool5
I0503 10:48:08.343911 20203 net.cpp:144] Setting up pool5
I0503 10:48:08.343919 20203 net.cpp:151] Top shape: 20 128 2 2 (10240)
I0503 10:48:08.343922 20203 net.cpp:159] Memory required for data: 3761040
I0503 10:48:08.343925 20203 layer_factory.hpp:77] Creating layer ip1
I0503 10:48:08.343932 20203 net.cpp:94] Creating Layer ip1
I0503 10:48:08.343936 20203 net.cpp:435] ip1 <- pool5
I0503 10:48:08.343941 20203 net.cpp:409] ip1 -> ip1
I0503 10:48:08.357445 20203 net.cpp:144] Setting up ip1
I0503 10:48:08.357460 20203 net.cpp:151] Top shape: 20 1024 (20480)
I0503 10:48:08.357463 20203 net.cpp:159] Memory required for data: 3842960
I0503 10:48:08.357470 20203 layer_factory.hpp:77] Creating layer ip2
I0503 10:48:08.357476 20203 net.cpp:94] Creating Layer ip2
I0503 10:48:08.357484 20203 net.cpp:435] ip2 <- ip1
I0503 10:48:08.357491 20203 net.cpp:409] ip2 -> ip2
I0503 10:48:08.370296 20203 net.cpp:144] Setting up ip2
I0503 10:48:08.370308 20203 net.cpp:151] Top shape: 20 512 (10240)
I0503 10:48:08.370312 20203 net.cpp:159] Memory required for data: 3883920
I0503 10:48:08.370318 20203 layer_factory.hpp:77] Creating layer ip3
I0503 10:48:08.370324 20203 net.cpp:94] Creating Layer ip3
I0503 10:48:08.370328 20203 net.cpp:435] ip3 <- ip2
I0503 10:48:08.370334 20203 net.cpp:409] ip3 -> ip3
I0503 10:48:08.371634 20203 net.cpp:144] Setting up ip3
I0503 10:48:08.371647 20203 net.cpp:151] Top shape: 20 50 (1000)
I0503 10:48:08.371651 20203 net.cpp:159] Memory required for data: 3887920
I0503 10:48:08.371656 20203 layer_factory.hpp:77] Creating layer loss
I0503 10:48:08.371665 20203 net.cpp:94] Creating Layer loss
I0503 10:48:08.371668 20203 net.cpp:435] loss <- ip3
I0503 10:48:08.371673 20203 net.cpp:435] loss <- label
I0503 10:48:08.371678 20203 net.cpp:409] loss -> loss
I0503 10:48:08.371690 20203 layer_factory.hpp:77] Creating layer loss
…
I0503 10:48:08.372179 20203 solver.cpp:181] Creating test net (#0) specified by net file: ./protocol/dis_50_100_dimension.protocol_distribution
I0503 10:48:08.372205 20203 net.cpp:323] The NetState phase (1) differed from the phase (0) specified by a rule in layer parameters
I0503 10:48:08.372300 20203 net.cpp:52] Initializing net from parameters: 
state {
  phase: TEST
}
layer {
  name: "intercept"
  type: "HDF5Data"
  top: "data"
  top: "label"
  include {
    phase: TEST
  }
  hdf5_data_param {
    source: "/home/purduethu/scratch/radon/d/deng106/CNNStatisticalModel/distributions/input/50_distributions_100_sample_size_test-distributions-path.txt"
    batch_size: 20
  }
}
layer {
  name: "conv1"
  type: "Convolution"
  bottom: "data"
  top: "conv1"
  param {
    lr_mult: 1
  }
  param {
    lr_mult: 2
  }
  convolution_param {
    num_output: 64
    pad: 2
    kernel_size: 5
    stride: 1
    weight_filler {
      type: "gaussian"
      std: 0.0001
    }
    bias_filler {
      type: "constant"
    }
  }
}
layer {
  name: "relu1"
  type: "ReLU"
  bottom: "conv1"
  top: "conv1"
}
layer {
  name: "conv2"
  type: "Convolution"
  bottom: "conv1"
  top: "conv2"
  param {
    lr_mult: 1
  }
  param {
    lr_mult: 2
  }
  convolution_param {
    num_output: 64
    pad: 2
    kernel_size: 5
    stride: 1
    weight_filler {
      type: "gaussian"
      std: 0.01
    }
    bias_filler {
      type: "constant"
    }
  }
}
layer {
  name: "relu2"
  type: "ReLU"
  bottom: "conv2"
  top: "conv2"
}
layer {
  name: "pool2"
  type: "Pooling"
  bottom: "conv2"
  top: "pool2"
  pooling_param {
    pool: MAX
    kernel_size: 3
    stride: 2
  }
}
layer {
  name: "conv3"
  type: "Convolution"
  bottom: "pool2"
  top: "conv3"
  param {
    lr_mult: 1
  }
  param {
    lr_mult: 2
  }
  convolution_param {
    num_output: 128
    pad: 2
    kernel_size: 5
    stride: 1
    weight_filler {
      type: "gaussian"
      std: 0.01
    }
    bias_filler {
      type: "constant"
    }
  }
}
layer {
  name: "relu3"
  type: "ReLU"
  bottom: "conv3"
  top: "conv3"
}
layer {
  name: "conv4"
  type: "Convolution"
  bottom: "conv3"
  top: "conv4"
  param {
    lr_mult: 1
  }
  param {
    lr_mult: 2
  }
  convolution_param {
    num_output: 128
    pad: 2
    kernel_size: 5
    stride: 1
    weight_filler {
      type: "gaussian"
      std: 0.01
    }
    bias_filler {
      type: "constant"
    }
  }
}
layer {
  name: "relu4"
  type: "ReLU"
  bottom: "conv4"
  top: "conv4"
}
layer {
  name: "conv5"
  type: "Convolution"
  bottom: "conv4"
  top: "conv5"
  param {
    lr_mult: 1
  }
  param {
    lr_mult: 2
  }
  convolution_param {
    num_output: 128
    pad: 2
    kernel_size: 5
    stride: 1
    weight_filler {
      type: "gaussian"
      std: 0.01
    }
    bias_filler {
      type: "constant"
    }
  }
}
layer {
  name: "relu5"
  type: "ReLU"
  bottom: "conv5"
  top: "conv5"
}
layer {
  name: "pool5"
  type: "Pooling"
  bottom: "conv5"
  top: "pool5"
  pooling_param {
    pool: AVE
    kernel_size: 3
    stride: 2
  }
}
layer {
  name: "ip1"
  type: "InnerProduct"
  bottom: "pool5"
  top: "ip1"
  param {
    lr_mult: 1
  }
  param {
    lr_mult: 2
  }
  inner_product_param {
    num_output: 1024
    weight_filler {
      type: "gaussian"
      std: 0.1
    }
    bias_filler {
      type: "constant"
    }
  }
}
layer {
  name: "ip2"
  type: "InnerProduct"
  bottom: "ip1"
  top: "ip2"
  param {
    lr_mult: 1
  }
  param {
    lr_mult: 2
  }
  inner_product_param {
    num_output: 512
    weight_filler {
      type: "gaussian"
      std: 0.1
    }
    bias_filler {
      type: "constant"
    }
  }
}
layer {
  name: "ip3"
  type: "InnerProduct"
  bottom: "ip2"
  top: "ip3"
  param {
    lr_mult: 1
  }
  param {
    lr_mult: 2
  }
  inner_product_param {
    num_output: 50
    weight_filler {
      type: "gaussian"
      std: 0.1
    }
    bias_filler {
      type: "constant"
    }
  }
}
layer {
  name: "accuracy"
  type: "Accuracy"
  bottom: "ip3"
  bottom: "label"
  top: "accuracy"
  include {
    phase: TEST
  }
}
layer {
  name: "loss"
  type: "SoftmaxWithLoss"
  bottom: "ip3"
  bottom: "label"
  top: "loss"
}
I0503 10:48:08.372370 20203 layer_factory.hpp:77] Creating layer intercept
I0503 10:48:08.372380 20203 net.cpp:94] Creating Layer intercept
I0503 10:48:08.372383 20203 net.cpp:409] intercept -> data
I0503 10:48:08.372390 20203 net.cpp:409] intercept -> label
I0503 10:48:08.372396 20203 hdf5_data_layer.cpp:79] Loading list of HDF5 filenames from: /home/purduethu/scratch/radon/d/deng106/CNNStatisticalModel/distributions/input/50_distributions_100_sample_size_test-distributions-path.txt
I0503 10:48:08.372414 20203 hdf5_data_layer.cpp:93] Number of HDF5 files: 1
I0503 10:48:08.412778 20203 net.cpp:144] Setting up intercept
I0503 10:48:08.412813 20203 net.cpp:151] Top shape: 20 1 10 10 (2000)
I0503 10:48:08.412819 20203 net.cpp:151] Top shape: 20 (20)
I0503 10:48:08.412823 20203 net.cpp:159] Memory required for data: 8080
I0503 10:48:08.412829 20203 layer_factory.hpp:77] Creating layer label_intercept_1_split
I0503 10:48:08.412842 20203 net.cpp:94] Creating Layer label_intercept_1_split
I0503 10:48:08.412845 20203 net.cpp:435] label_intercept_1_split <- label
I0503 10:48:08.412852 20203 net.cpp:409] label_intercept_1_split -> label_intercept_1_split_0
I0503 10:48:08.412860 20203 net.cpp:409] label_intercept_1_split -> label_intercept_1_split_1
I0503 10:48:08.412915 20203 net.cpp:144] Setting up label_intercept_1_split
I0503 10:48:08.412922 20203 net.cpp:151] Top shape: 20 (20)
I0503 10:48:08.412926 20203 net.cpp:151] Top shape: 20 (20)
I0503 10:48:08.412930 20203 net.cpp:159] Memory required for data: 8240
I0503 10:48:08.412933 20203 layer_factory.hpp:77] Creating layer conv1
I0503 10:48:08.412945 20203 net.cpp:94] Creating Layer conv1
I0503 10:48:08.412948 20203 net.cpp:435] conv1 <- data
I0503 10:48:08.412955 20203 net.cpp:409] conv1 -> conv1
I0503 10:48:08.413653 20203 net.cpp:144] Setting up conv1
I0503 10:48:08.413674 20203 net.cpp:151] Top shape: 20 64 10 10 (128000)
I0503 10:48:08.413679 20203 net.cpp:159] Memory required for data: 520240
I0503 10:48:08.413688 20203 layer_factory.hpp:77] Creating layer relu1
I0503 10:48:08.413697 20203 net.cpp:94] Creating Layer relu1
I0503 10:48:08.413700 20203 net.cpp:435] relu1 <- conv1
I0503 10:48:08.413704 20203 net.cpp:396] relu1 -> conv1 (in-place)
I0503 10:48:08.413712 20203 net.cpp:144] Setting up relu1
I0503 10:48:08.413717 20203 net.cpp:151] Top shape: 20 64 10 10 (128000)
I0503 10:48:08.413720 20203 net.cpp:159] Memory required for data: 1032240
I0503 10:48:08.413724 20203 layer_factory.hpp:77] Creating layer conv2
I0503 10:48:08.413733 20203 net.cpp:94] Creating Layer conv2
I0503 10:48:08.413736 20203 net.cpp:435] conv2 <- conv1
I0503 10:48:08.413741 20203 net.cpp:409] conv2 -> conv2
I0503 10:48:08.417639 20203 net.cpp:144] Setting up conv2
I0503 10:48:08.417652 20203 net.cpp:151] Top shape: 20 64 10 10 (128000)
I0503 10:48:08.417656 20203 net.cpp:159] Memory required for data: 1544240
I0503 10:48:08.417665 20203 layer_factory.hpp:77] Creating layer relu2
I0503 10:48:08.417670 20203 net.cpp:94] Creating Layer relu2
I0503 10:48:08.417675 20203 net.cpp:435] relu2 <- conv2
I0503 10:48:08.417680 20203 net.cpp:396] relu2 -> conv2 (in-place)
I0503 10:48:08.417686 20203 net.cpp:144] Setting up relu2
I0503 10:48:08.417691 20203 net.cpp:151] Top shape: 20 64 10 10 (128000)
I0503 10:48:08.417695 20203 net.cpp:159] Memory required for data: 2056240
I0503 10:48:08.417697 20203 layer_factory.hpp:77] Creating layer pool2
I0503 10:48:08.417703 20203 net.cpp:94] Creating Layer pool2
I0503 10:48:08.417707 20203 net.cpp:435] pool2 <- conv2
I0503 10:48:08.417711 20203 net.cpp:409] pool2 -> pool2
I0503 10:48:08.417745 20203 net.cpp:144] Setting up pool2
I0503 10:48:08.417752 20203 net.cpp:151] Top shape: 20 64 5 5 (32000)
I0503 10:48:08.417755 20203 net.cpp:159] Memory required for data: 2184240
I0503 10:48:08.417759 20203 layer_factory.hpp:77] Creating layer conv3
I0503 10:48:08.417767 20203 net.cpp:94] Creating Layer conv3
I0503 10:48:08.417770 20203 net.cpp:435] conv3 <- pool2
I0503 10:48:08.417775 20203 net.cpp:409] conv3 -> conv3
I0503 10:48:08.424134 20203 net.cpp:144] Setting up conv3
I0503 10:48:08.424147 20203 net.cpp:151] Top shape: 20 128 5 5 (64000)
I0503 10:48:08.424151 20203 net.cpp:159] Memory required for data: 2440240
I0503 10:48:08.424160 20203 layer_factory.hpp:77] Creating layer relu3
I0503 10:48:08.424166 20203 net.cpp:94] Creating Layer relu3
I0503 10:48:08.424170 20203 net.cpp:435] relu3 <- conv3
I0503 10:48:08.424175 20203 net.cpp:396] relu3 -> conv3 (in-place)
I0503 10:48:08.424182 20203 net.cpp:144] Setting up relu3
I0503 10:48:08.424187 20203 net.cpp:151] Top shape: 20 128 5 5 (64000)
I0503 10:48:08.424190 20203 net.cpp:159] Memory required for data: 2696240
I0503 10:48:08.424193 20203 layer_factory.hpp:77] Creating layer conv4
I0503 10:48:08.424201 20203 net.cpp:94] Creating Layer conv4
I0503 10:48:08.424206 20203 net.cpp:435] conv4 <- conv3
I0503 10:48:08.424211 20203 net.cpp:409] conv4 -> conv4
I0503 10:48:08.436337 20203 net.cpp:144] Setting up conv4
I0503 10:48:08.436352 20203 net.cpp:151] Top shape: 20 128 5 5 (64000)
I0503 10:48:08.436357 20203 net.cpp:159] Memory required for data: 2952240
I0503 10:48:08.436362 20203 layer_factory.hpp:77] Creating layer relu4
I0503 10:48:08.436368 20203 net.cpp:94] Creating Layer relu4
I0503 10:48:08.436372 20203 net.cpp:435] relu4 <- conv4
I0503 10:48:08.436381 20203 net.cpp:396] relu4 -> conv4 (in-place)
I0503 10:48:08.436389 20203 net.cpp:144] Setting up relu4
I0503 10:48:08.436394 20203 net.cpp:151] Top shape: 20 128 5 5 (64000)
I0503 10:48:08.436398 20203 net.cpp:159] Memory required for data: 3208240
I0503 10:48:08.436401 20203 layer_factory.hpp:77] Creating layer conv5
I0503 10:48:08.436409 20203 net.cpp:94] Creating Layer conv5
I0503 10:48:08.436414 20203 net.cpp:435] conv5 <- conv4
I0503 10:48:08.436419 20203 net.cpp:409] conv5 -> conv5
I0503 10:48:08.448501 20203 net.cpp:144] Setting up conv5
I0503 10:48:08.448521 20203 net.cpp:151] Top shape: 20 128 5 5 (64000)
I0503 10:48:08.448525 20203 net.cpp:159] Memory required for data: 3464240
I0503 10:48:08.448534 20203 layer_factory.hpp:77] Creating layer relu5
I0503 10:48:08.448540 20203 net.cpp:94] Creating Layer relu5
I0503 10:48:08.448544 20203 net.cpp:435] relu5 <- conv5
I0503 10:48:08.448549 20203 net.cpp:396] relu5 -> conv5 (in-place)
I0503 10:48:08.448566 20203 net.cpp:144] Setting up relu5
I0503 10:48:08.448571 20203 net.cpp:151] Top shape: 20 128 5 5 (64000)
I0503 10:48:08.448575 20203 net.cpp:159] Memory required for data: 3720240
I0503 10:48:08.448578 20203 layer_factory.hpp:77] Creating layer pool5
I0503 10:48:08.448583 20203 net.cpp:94] Creating Layer pool5
I0503 10:48:08.448587 20203 net.cpp:435] pool5 <- conv5
I0503 10:48:08.448591 20203 net.cpp:409] pool5 -> pool5
I0503 10:48:08.448617 20203 net.cpp:144] Setting up pool5
I0503 10:48:08.448623 20203 net.cpp:151] Top shape: 20 128 2 2 (10240)
I0503 10:48:08.448626 20203 net.cpp:159] Memory required for data: 3761200
I0503 10:48:08.448631 20203 layer_factory.hpp:77] Creating layer ip1
I0503 10:48:08.448637 20203 net.cpp:94] Creating Layer ip1
I0503 10:48:08.448640 20203 net.cpp:435] ip1 <- pool5
I0503 10:48:08.448645 20203 net.cpp:409] ip1 -> ip1
I0503 10:48:08.461746 20203 net.cpp:144] Setting up ip1
I0503 10:48:08.461760 20203 net.cpp:151] Top shape: 20 1024 (20480)
I0503 10:48:08.461765 20203 net.cpp:159] Memory required for data: 3843120
I0503 10:48:08.461771 20203 layer_factory.hpp:77] Creating layer ip2
I0503 10:48:08.461777 20203 net.cpp:94] Creating Layer ip2
I0503 10:48:08.461781 20203 net.cpp:435] ip2 <- ip1
I0503 10:48:08.461787 20203 net.cpp:409] ip2 -> ip2
I0503 10:48:08.474854 20203 net.cpp:144] Setting up ip2
I0503 10:48:08.474867 20203 net.cpp:151] Top shape: 20 512 (10240)
I0503 10:48:08.474871 20203 net.cpp:159] Memory required for data: 3884080
I0503 10:48:08.474877 20203 layer_factory.hpp:77] Creating layer ip3
I0503 10:48:08.474886 20203 net.cpp:94] Creating Layer ip3
I0503 10:48:08.474890 20203 net.cpp:435] ip3 <- ip2
I0503 10:48:08.474895 20203 net.cpp:409] ip3 -> ip3
I0503 10:48:08.475584 20203 net.cpp:144] Setting up ip3
I0503 10:48:08.475590 20203 net.cpp:151] Top shape: 20 50 (1000)
I0503 10:48:08.475594 20203 net.cpp:159] Memory required for data: 3888080
I0503 10:48:08.475600 20203 layer_factory.hpp:77] Creating layer ip3_ip3_0_split
I0503 10:48:08.475605 20203 net.cpp:94] Creating Layer ip3_ip3_0_split
I0503 10:48:08.475608 20203 net.cpp:435] ip3_ip3_0_split <- ip3
I0503 10:48:08.475613 20203 net.cpp:409] ip3_ip3_0_split -> ip3_ip3_0_split_0
I0503 10:48:08.475618 20203 net.cpp:409] ip3_ip3_0_split -> ip3_ip3_0_split_1
I0503 10:48:08.475644 20203 net.cpp:144] Setting up ip3_ip3_0_split
I0503 10:48:08.475649 20203 net.cpp:151] Top shape: 20 50 (1000)
I0503 10:48:08.475653 20203 net.cpp:151] Top shape: 20 50 (1000)
I0503 10:48:08.475656 20203 net.cpp:159] Memory required for data: 3896080
I0503 10:48:08.475661 20203 layer_factory.hpp:77] Creating layer accuracy
I0503 10:48:08.475670 20203 net.cpp:94] Creating Layer accuracy
I0503 10:48:08.475674 20203 net.cpp:435] accuracy <- ip3_ip3_0_split_0
I0503 10:48:08.475678 20203 net.cpp:435] accuracy <- label_intercept_1_split_0
I0503 10:48:08.475683 20203 net.cpp:409] accuracy -> accuracy
…
