…
I0503 08:10:58.947217 19367 net.cpp:323] The NetState phase (0) differed from the phase (1) specified by a rule in layer intercept
I0503 08:10:58.947232 19367 net.cpp:323] The NetState phase (0) differed from the phase (1) specified by a rule in layer loss
I0503 08:10:58.947322 19367 net.cpp:52] Initializing net from parameters: 
state {
  phase: TRAIN
}
layer {
  name: "parameters"
  type: "HDF5Data"
  top: "data"
  top: "label"
  include {
    phase: TRAIN
  }
  hdf5_data_param {
    source: "/home/purduethu/scratch/radon/d/deng106/CNNStatisticalModel/distributions/input/20_distributions_400_sample_size_train-parameters-path.txt"
    batch_size: 20
  }
}
layer {
  name: "conv1"
  type: "Convolution"
  bottom: "data"
  top: "conv1"
  param {
    lr_mult: 1
  }
  param {
    lr_mult: 2
  }
  convolution_param {
    num_output: 64
    pad: 2
    kernel_size: 5
    stride: 1
    weight_filler {
      type: "gaussian"
      std: 0.0001
    }
    bias_filler {
      type: "constant"
    }
  }
}
layer {
  name: "relu1"
  type: "ReLU"
  bottom: "conv1"
  top: "conv1"
}
layer {
  name: "conv2"
  type: "Convolution"
  bottom: "conv1"
  top: "conv2"
  param {
    lr_mult: 1
  }
  param {
    lr_mult: 2
  }
  convolution_param {
    num_output: 64
    pad: 2
    kernel_size: 5
    stride: 1
    weight_filler {
      type: "gaussian"
      std: 0.01
    }
    bias_filler {
      type: "constant"
    }
  }
}
layer {
  name: "relu2"
  type: "ReLU"
  bottom: "conv2"
  top: "conv2"
}
layer {
  name: "pool2"
  type: "Pooling"
  bottom: "conv2"
  top: "pool2"
  pooling_param {
    pool: MAX
    kernel_size: 3
    stride: 2
  }
}
layer {
  name: "conv3"
  type: "Convolution"
  bottom: "pool2"
  top: "conv3"
  param {
    lr_mult: 1
  }
  param {
    lr_mult: 2
  }
  convolution_param {
    num_output: 128
    pad: 2
    kernel_size: 5
    stride: 1
    weight_filler {
      type: "gaussian"
      std: 0.01
    }
    bias_filler {
      type: "constant"
    }
  }
}
layer {
  name: "relu3"
  type: "ReLU"
  bottom: "conv3"
  top: "conv3"
}
layer {
  name: "conv4"
  type: "Convolution"
  bottom: "conv3"
  top: "conv4"
  param {
    lr_mult: 1
  }
  param {
    lr_mult: 2
  }
  convolution_param {
    num_output: 128
    pad: 2
    kernel_size: 5
    stride: 1
    weight_filler {
      type: "gaussian"
      std: 0.01
    }
    bias_filler {
      type: "constant"
    }
  }
}
layer {
  name: "relu4"
  type: "ReLU"
  bottom: "conv4"
  top: "conv4"
}
layer {
  name: "conv5"
  type: "Convolution"
  bottom: "conv4"
  top: "conv5"
  param {
    lr_mult: 1
  }
  param {
    lr_mult: 2
  }
  convolution_param {
    num_output: 128
    pad: 2
    kernel_size: 5
    stride: 1
    weight_filler {
      type: "gaussian"
      std: 0.01
    }
    bias_filler {
      type: "constant"
    }
  }
}
layer {
  name: "relu5"
  type: "ReLU"
  bottom: "conv5"
  top: "conv5"
}
layer {
  name: "pool5"
  type: "Pooling"
  bottom: "conv5"
  top: "pool5"
  pooling_param {
    pool: AVE
    kernel_size: 3
    stride: 2
  }
}
layer {
  name: "ip1"
  type: "InnerProduct"
  bottom: "pool5"
  top: "ip1"
  param {
    lr_mult: 1
  }
  param {
    lr_mult: 2
  }
  inner_product_param {
    num_output: 1024
    weight_filler {
      type: "gaussian"
      std: 0.1
    }
    bias_filler {
      type: "constant"
    }
  }
}
layer {
  name: "ip2"
  type: "InnerProduct"
  bottom: "ip1"
  top: "ip2"
  param {
    lr_mult: 1
  }
  param {
    lr_mult: 2
  }
  inner_product_param {
    num_output: 512
    weight_filler {
      type: "gaussian"
      std: 0.1
    }
    bias_filler {
      type: "constant"
    }
  }
}
layer {
  name: "ip3"
  type: "InnerProduct"
  bottom: "ip2"
  top: "ip3"
  param {
    lr_mult: 1
  }
  param {
    lr_mult: 2
  }
  inner_product_param {
    num_output: 1
    weight_filler {
      type: "gaussian"
      std: 0.1
    }
    bias_filler {
      type: "constant"
    }
  }
}
layer {
  name: "loss"
  type: "HuberLoss"
  bottom: "ip3"
  bottom: "label"
  top: "loss"
  include {
    phase: TRAIN
  }
}
I0503 08:10:58.947398 19367 layer_factory.hpp:77] Creating layer parameters
I0503 08:10:58.947413 19367 net.cpp:94] Creating Layer parameters
I0503 08:10:58.947419 19367 net.cpp:409] parameters -> data
I0503 08:10:58.947438 19367 net.cpp:409] parameters -> label
I0503 08:10:58.947448 19367 hdf5_data_layer.cpp:79] Loading list of HDF5 filenames from: /home/purduethu/scratch/radon/d/deng106/CNNStatisticalModel/distributions/input/20_distributions_400_sample_size_train-parameters-path.txt
I0503 08:10:58.947469 19367 hdf5_data_layer.cpp:93] Number of HDF5 files: 1
I0503 08:10:58.948068 19367 hdf5.cpp:32] Datatype class: H5T_FLOAT
I0503 08:10:59.202610 19367 net.cpp:144] Setting up parameters
I0503 08:10:59.202642 19367 net.cpp:151] Top shape: 20 1 20 20 (8000)
I0503 08:10:59.202648 19367 net.cpp:151] Top shape: 20 (20)
I0503 08:10:59.202651 19367 net.cpp:159] Memory required for data: 32080
I0503 08:10:59.202658 19367 layer_factory.hpp:77] Creating layer conv1
I0503 08:10:59.202683 19367 net.cpp:94] Creating Layer conv1
I0503 08:10:59.202688 19367 net.cpp:435] conv1 <- data
I0503 08:10:59.202699 19367 net.cpp:409] conv1 -> conv1
I0503 08:10:59.207500 19367 net.cpp:144] Setting up conv1
I0503 08:10:59.207517 19367 net.cpp:151] Top shape: 20 64 20 20 (512000)
I0503 08:10:59.207521 19367 net.cpp:159] Memory required for data: 2080080
I0503 08:10:59.207532 19367 layer_factory.hpp:77] Creating layer relu1
I0503 08:10:59.207540 19367 net.cpp:94] Creating Layer relu1
I0503 08:10:59.207545 19367 net.cpp:435] relu1 <- conv1
I0503 08:10:59.207550 19367 net.cpp:396] relu1 -> conv1 (in-place)
I0503 08:10:59.207566 19367 net.cpp:144] Setting up relu1
I0503 08:10:59.207571 19367 net.cpp:151] Top shape: 20 64 20 20 (512000)
I0503 08:10:59.207573 19367 net.cpp:159] Memory required for data: 4128080
I0503 08:10:59.207577 19367 layer_factory.hpp:77] Creating layer conv2
I0503 08:10:59.207584 19367 net.cpp:94] Creating Layer conv2
I0503 08:10:59.207588 19367 net.cpp:435] conv2 <- conv1
I0503 08:10:59.207593 19367 net.cpp:409] conv2 -> conv2
I0503 08:10:59.217695 19367 net.cpp:144] Setting up conv2
I0503 08:10:59.217711 19367 net.cpp:151] Top shape: 20 64 20 20 (512000)
I0503 08:10:59.217715 19367 net.cpp:159] Memory required for data: 6176080
I0503 08:10:59.217723 19367 layer_factory.hpp:77] Creating layer relu2
I0503 08:10:59.217730 19367 net.cpp:94] Creating Layer relu2
I0503 08:10:59.217733 19367 net.cpp:435] relu2 <- conv2
I0503 08:10:59.217738 19367 net.cpp:396] relu2 -> conv2 (in-place)
I0503 08:10:59.217746 19367 net.cpp:144] Setting up relu2
I0503 08:10:59.217751 19367 net.cpp:151] Top shape: 20 64 20 20 (512000)
I0503 08:10:59.217753 19367 net.cpp:159] Memory required for data: 8224080
I0503 08:10:59.217756 19367 layer_factory.hpp:77] Creating layer pool2
I0503 08:10:59.217763 19367 net.cpp:94] Creating Layer pool2
I0503 08:10:59.217773 19367 net.cpp:435] pool2 <- conv2
I0503 08:10:59.217778 19367 net.cpp:409] pool2 -> pool2
I0503 08:10:59.217821 19367 net.cpp:144] Setting up pool2
I0503 08:10:59.217828 19367 net.cpp:151] Top shape: 20 64 10 10 (128000)
I0503 08:10:59.217831 19367 net.cpp:159] Memory required for data: 8736080
I0503 08:10:59.217835 19367 layer_factory.hpp:77] Creating layer conv3
I0503 08:10:59.217842 19367 net.cpp:94] Creating Layer conv3
I0503 08:10:59.217846 19367 net.cpp:435] conv3 <- pool2
I0503 08:10:59.217851 19367 net.cpp:409] conv3 -> conv3
I0503 08:10:59.227409 19367 net.cpp:144] Setting up conv3
I0503 08:10:59.227424 19367 net.cpp:151] Top shape: 20 128 10 10 (256000)
I0503 08:10:59.227428 19367 net.cpp:159] Memory required for data: 9760080
I0503 08:10:59.227437 19367 layer_factory.hpp:77] Creating layer relu3
I0503 08:10:59.227443 19367 net.cpp:94] Creating Layer relu3
I0503 08:10:59.227447 19367 net.cpp:435] relu3 <- conv3
I0503 08:10:59.227452 19367 net.cpp:396] relu3 -> conv3 (in-place)
I0503 08:10:59.227459 19367 net.cpp:144] Setting up relu3
I0503 08:10:59.227463 19367 net.cpp:151] Top shape: 20 128 10 10 (256000)
I0503 08:10:59.227466 19367 net.cpp:159] Memory required for data: 10784080
I0503 08:10:59.227470 19367 layer_factory.hpp:77] Creating layer conv4
I0503 08:10:59.227478 19367 net.cpp:94] Creating Layer conv4
I0503 08:10:59.227483 19367 net.cpp:435] conv4 <- conv3
I0503 08:10:59.227488 19367 net.cpp:409] conv4 -> conv4
I0503 08:10:59.245276 19367 net.cpp:144] Setting up conv4
I0503 08:10:59.245306 19367 net.cpp:151] Top shape: 20 128 10 10 (256000)
I0503 08:10:59.245316 19367 net.cpp:159] Memory required for data: 11808080
I0503 08:10:59.245329 19367 layer_factory.hpp:77] Creating layer relu4
I0503 08:10:59.245342 19367 net.cpp:94] Creating Layer relu4
I0503 08:10:59.245350 19367 net.cpp:435] relu4 <- conv4
I0503 08:10:59.245360 19367 net.cpp:396] relu4 -> conv4 (in-place)
I0503 08:10:59.245375 19367 net.cpp:144] Setting up relu4
I0503 08:10:59.245384 19367 net.cpp:151] Top shape: 20 128 10 10 (256000)
I0503 08:10:59.245391 19367 net.cpp:159] Memory required for data: 12832080
I0503 08:10:59.245398 19367 layer_factory.hpp:77] Creating layer conv5
I0503 08:10:59.245414 19367 net.cpp:94] Creating Layer conv5
I0503 08:10:59.245421 19367 net.cpp:435] conv5 <- conv4
I0503 08:10:59.245431 19367 net.cpp:409] conv5 -> conv5
I0503 08:10:59.262895 19367 net.cpp:144] Setting up conv5
I0503 08:10:59.262912 19367 net.cpp:151] Top shape: 20 128 10 10 (256000)
I0503 08:10:59.262917 19367 net.cpp:159] Memory required for data: 13856080
I0503 08:10:59.262924 19367 layer_factory.hpp:77] Creating layer relu5
I0503 08:10:59.262931 19367 net.cpp:94] Creating Layer relu5
I0503 08:10:59.262935 19367 net.cpp:435] relu5 <- conv5
I0503 08:10:59.262939 19367 net.cpp:396] relu5 -> conv5 (in-place)
I0503 08:10:59.262946 19367 net.cpp:144] Setting up relu5
I0503 08:10:59.262951 19367 net.cpp:151] Top shape: 20 128 10 10 (256000)
I0503 08:10:59.262954 19367 net.cpp:159] Memory required for data: 14880080
I0503 08:10:59.262958 19367 layer_factory.hpp:77] Creating layer pool5
I0503 08:10:59.262964 19367 net.cpp:94] Creating Layer pool5
I0503 08:10:59.262966 19367 net.cpp:435] pool5 <- conv5
I0503 08:10:59.262970 19367 net.cpp:409] pool5 -> pool5
I0503 08:10:59.263005 19367 net.cpp:144] Setting up pool5
I0503 08:10:59.263012 19367 net.cpp:151] Top shape: 20 128 5 5 (64000)
I0503 08:10:59.263016 19367 net.cpp:159] Memory required for data: 15136080
I0503 08:10:59.263020 19367 layer_factory.hpp:77] Creating layer ip1
I0503 08:10:59.263028 19367 net.cpp:94] Creating Layer ip1
I0503 08:10:59.263032 19367 net.cpp:435] ip1 <- pool5
I0503 08:10:59.263037 19367 net.cpp:409] ip1 -> ip1
I0503 08:10:59.342110 19367 net.cpp:144] Setting up ip1
I0503 08:10:59.342142 19367 net.cpp:151] Top shape: 20 1024 (20480)
I0503 08:10:59.342147 19367 net.cpp:159] Memory required for data: 15218000
I0503 08:10:59.342154 19367 layer_factory.hpp:77] Creating layer ip2
I0503 08:10:59.342164 19367 net.cpp:94] Creating Layer ip2
I0503 08:10:59.342175 19367 net.cpp:435] ip2 <- ip1
I0503 08:10:59.342181 19367 net.cpp:409] ip2 -> ip2
I0503 08:10:59.355109 19367 net.cpp:144] Setting up ip2
I0503 08:10:59.355123 19367 net.cpp:151] Top shape: 20 512 (10240)
I0503 08:10:59.355126 19367 net.cpp:159] Memory required for data: 15258960
I0503 08:10:59.355132 19367 layer_factory.hpp:77] Creating layer ip3
I0503 08:10:59.355140 19367 net.cpp:94] Creating Layer ip3
I0503 08:10:59.355144 19367 net.cpp:435] ip3 <- ip2
I0503 08:10:59.355149 19367 net.cpp:409] ip3 -> ip3
I0503 08:10:59.355224 19367 net.cpp:144] Setting up ip3
I0503 08:10:59.355239 19367 net.cpp:151] Top shape: 20 1 (20)
I0503 08:10:59.355243 19367 net.cpp:159] Memory required for data: 15259040
I0503 08:10:59.355248 19367 layer_factory.hpp:77] Creating layer loss
I0503 08:10:59.355257 19367 net.cpp:94] Creating Layer loss
I0503 08:10:59.355260 19367 net.cpp:435] loss <- ip3
I0503 08:10:59.355264 19367 net.cpp:435] loss <- label
I0503 08:10:59.355269 19367 net.cpp:409] loss -> loss
I0503 08:10:59.355309 19367 net.cpp:144] Setting up loss
…
