…
I0504 05:13:02.908115 24136 net.cpp:323] The NetState phase (0) differed from the phase (1) specified by a rule in layer intercept
I0504 05:13:02.908131 24136 net.cpp:323] The NetState phase (0) differed from the phase (1) specified by a rule in layer loss
I0504 05:13:02.908231 24136 net.cpp:52] Initializing net from parameters: 
state {
  phase: TRAIN
}
layer {
  name: "parameters"
  type: "HDF5Data"
  top: "data"
  top: "label"
  include {
    phase: TRAIN
  }
  hdf5_data_param {
    source: "/home/purduethu/scratch/radon/d/deng106/CNNStatisticalModel/distributions/input/5_distributions_900_sample_size_train-parameters-path.txt"
    batch_size: 20
  }
}
layer {
  name: "conv1"
  type: "Convolution"
  bottom: "data"
  top: "conv1"
  param {
    lr_mult: 1
  }
  param {
    lr_mult: 2
  }
  convolution_param {
    num_output: 64
    pad: 2
    kernel_size: 5
    stride: 1
    weight_filler {
      type: "gaussian"
      std: 0.0001
    }
    bias_filler {
      type: "constant"
    }
  }
}
layer {
  name: "relu1"
  type: "ReLU"
  bottom: "conv1"
  top: "conv1"
}
layer {
  name: "conv2"
  type: "Convolution"
  bottom: "conv1"
  top: "conv2"
  param {
    lr_mult: 1
  }
  param {
    lr_mult: 2
  }
  convolution_param {
    num_output: 64
    pad: 2
    kernel_size: 5
    stride: 1
    weight_filler {
      type: "gaussian"
      std: 0.01
    }
    bias_filler {
      type: "constant"
    }
  }
}
layer {
  name: "relu2"
  type: "ReLU"
  bottom: "conv2"
  top: "conv2"
}
layer {
  name: "pool2"
  type: "Pooling"
  bottom: "conv2"
  top: "pool2"
  pooling_param {
    pool: MAX
    kernel_size: 3
    stride: 2
  }
}
layer {
  name: "conv3"
  type: "Convolution"
  bottom: "pool2"
  top: "conv3"
  param {
    lr_mult: 1
  }
  param {
    lr_mult: 2
  }
  convolution_param {
    num_output: 128
    pad: 2
    kernel_size: 5
    stride: 1
    weight_filler {
      type: "gaussian"
      std: 0.01
    }
    bias_filler {
      type: "constant"
    }
  }
}
layer {
  name: "relu3"
  type: "ReLU"
  bottom: "conv3"
  top: "conv3"
}
layer {
  name: "conv4"
  type: "Convolution"
  bottom: "conv3"
  top: "conv4"
  param {
    lr_mult: 1
  }
  param {
    lr_mult: 2
  }
  convolution_param {
    num_output: 128
    pad: 2
    kernel_size: 5
    stride: 1
    weight_filler {
      type: "gaussian"
      std: 0.01
    }
    bias_filler {
      type: "constant"
    }
  }
}
layer {
  name: "relu4"
  type: "ReLU"
  bottom: "conv4"
  top: "conv4"
}
layer {
  name: "conv5"
  type: "Convolution"
  bottom: "conv4"
  top: "conv5"
  param {
    lr_mult: 1
  }
  param {
    lr_mult: 2
  }
  convolution_param {
    num_output: 128
    pad: 2
    kernel_size: 5
    stride: 1
    weight_filler {
      type: "gaussian"
      std: 0.01
    }
    bias_filler {
      type: "constant"
    }
  }
}
layer {
  name: "relu5"
  type: "ReLU"
  bottom: "conv5"
  top: "conv5"
}
layer {
  name: "pool5"
  type: "Pooling"
  bottom: "conv5"
  top: "pool5"
  pooling_param {
    pool: AVE
    kernel_size: 3
    stride: 2
  }
}
layer {
  name: "ip1"
  type: "InnerProduct"
  bottom: "pool5"
  top: "ip1"
  param {
    lr_mult: 1
  }
  param {
    lr_mult: 2
  }
  inner_product_param {
    num_output: 1024
    weight_filler {
      type: "gaussian"
      std: 0.1
    }
    bias_filler {
      type: "constant"
    }
  }
}
layer {
  name: "ip2"
  type: "InnerProduct"
  bottom: "ip1"
  top: "ip2"
  param {
    lr_mult: 1
  }
  param {
    lr_mult: 2
  }
  inner_product_param {
    num_output: 512
    weight_filler {
      type: "gaussian"
      std: 0.1
    }
    bias_filler {
      type: "constant"
    }
  }
}
layer {
  name: "ip3"
  type: "InnerProduct"
  bottom: "ip2"
  top: "ip3"
  param {
    lr_mult: 1
  }
  param {
    lr_mult: 2
  }
  inner_product_param {
    num_output: 1
    weight_filler {
      type: "gaussian"
      std: 0.1
    }
    bias_filler {
      type: "constant"
    }
  }
}
layer {
  name: "loss"
  type: "HuberLoss"
  bottom: "ip3"
  bottom: "label"
  top: "loss"
  include {
    phase: TRAIN
  }
}
I0504 05:13:02.908303 24136 layer_factory.hpp:77] Creating layer parameters
I0504 05:13:02.908318 24136 net.cpp:94] Creating Layer parameters
I0504 05:13:02.908324 24136 net.cpp:409] parameters -> data
I0504 05:13:02.908342 24136 net.cpp:409] parameters -> label
I0504 05:13:02.908352 24136 hdf5_data_layer.cpp:79] Loading list of HDF5 filenames from: /home/purduethu/scratch/radon/d/deng106/CNNStatisticalModel/distributions/input/5_distributions_900_sample_size_train-parameters-path.txt
I0504 05:13:02.908375 24136 hdf5_data_layer.cpp:93] Number of HDF5 files: 1
I0504 05:13:02.908841 24136 hdf5.cpp:32] Datatype class: H5T_FLOAT
I0504 05:13:03.047051 24136 net.cpp:144] Setting up parameters
I0504 05:13:03.047076 24136 net.cpp:151] Top shape: 20 1 30 30 (18000)
I0504 05:13:03.047082 24136 net.cpp:151] Top shape: 20 (20)
I0504 05:13:03.047086 24136 net.cpp:159] Memory required for data: 72080
I0504 05:13:03.047093 24136 layer_factory.hpp:77] Creating layer conv1
I0504 05:13:03.047117 24136 net.cpp:94] Creating Layer conv1
I0504 05:13:03.047123 24136 net.cpp:435] conv1 <- data
I0504 05:13:03.047134 24136 net.cpp:409] conv1 -> conv1
I0504 05:13:03.053818 24136 net.cpp:144] Setting up conv1
I0504 05:13:03.053834 24136 net.cpp:151] Top shape: 20 64 30 30 (1152000)
I0504 05:13:03.053838 24136 net.cpp:159] Memory required for data: 4680080
I0504 05:13:03.053849 24136 layer_factory.hpp:77] Creating layer relu1
I0504 05:13:03.053858 24136 net.cpp:94] Creating Layer relu1
I0504 05:13:03.053861 24136 net.cpp:435] relu1 <- conv1
I0504 05:13:03.053866 24136 net.cpp:396] relu1 -> conv1 (in-place)
I0504 05:13:03.053884 24136 net.cpp:144] Setting up relu1
I0504 05:13:03.053890 24136 net.cpp:151] Top shape: 20 64 30 30 (1152000)
I0504 05:13:03.053894 24136 net.cpp:159] Memory required for data: 9288080
I0504 05:13:03.053897 24136 layer_factory.hpp:77] Creating layer conv2
I0504 05:13:03.053905 24136 net.cpp:94] Creating Layer conv2
I0504 05:13:03.053910 24136 net.cpp:435] conv2 <- conv1
I0504 05:13:03.053915 24136 net.cpp:409] conv2 -> conv2
I0504 05:13:03.068789 24136 net.cpp:144] Setting up conv2
I0504 05:13:03.068804 24136 net.cpp:151] Top shape: 20 64 30 30 (1152000)
I0504 05:13:03.068809 24136 net.cpp:159] Memory required for data: 13896080
I0504 05:13:03.068817 24136 layer_factory.hpp:77] Creating layer relu2
I0504 05:13:03.068825 24136 net.cpp:94] Creating Layer relu2
I0504 05:13:03.068828 24136 net.cpp:435] relu2 <- conv2
I0504 05:13:03.068832 24136 net.cpp:396] relu2 -> conv2 (in-place)
I0504 05:13:03.068840 24136 net.cpp:144] Setting up relu2
I0504 05:13:03.068845 24136 net.cpp:151] Top shape: 20 64 30 30 (1152000)
I0504 05:13:03.068848 24136 net.cpp:159] Memory required for data: 18504080
I0504 05:13:03.068851 24136 layer_factory.hpp:77] Creating layer pool2
I0504 05:13:03.068859 24136 net.cpp:94] Creating Layer pool2
I0504 05:13:03.068869 24136 net.cpp:435] pool2 <- conv2
I0504 05:13:03.068874 24136 net.cpp:409] pool2 -> pool2
I0504 05:13:03.068917 24136 net.cpp:144] Setting up pool2
I0504 05:13:03.068925 24136 net.cpp:151] Top shape: 20 64 15 15 (288000)
I0504 05:13:03.068928 24136 net.cpp:159] Memory required for data: 19656080
I0504 05:13:03.068931 24136 layer_factory.hpp:77] Creating layer conv3
I0504 05:13:03.068939 24136 net.cpp:94] Creating Layer conv3
I0504 05:13:03.068943 24136 net.cpp:435] conv3 <- pool2
I0504 05:13:03.068948 24136 net.cpp:409] conv3 -> conv3
I0504 05:13:03.080976 24136 net.cpp:144] Setting up conv3
I0504 05:13:03.080991 24136 net.cpp:151] Top shape: 20 128 15 15 (576000)
I0504 05:13:03.080996 24136 net.cpp:159] Memory required for data: 21960080
I0504 05:13:03.081004 24136 layer_factory.hpp:77] Creating layer relu3
I0504 05:13:03.081010 24136 net.cpp:94] Creating Layer relu3
I0504 05:13:03.081014 24136 net.cpp:435] relu3 <- conv3
I0504 05:13:03.081019 24136 net.cpp:396] relu3 -> conv3 (in-place)
I0504 05:13:03.081027 24136 net.cpp:144] Setting up relu3
I0504 05:13:03.081032 24136 net.cpp:151] Top shape: 20 128 15 15 (576000)
I0504 05:13:03.081034 24136 net.cpp:159] Memory required for data: 24264080
I0504 05:13:03.081037 24136 layer_factory.hpp:77] Creating layer conv4
I0504 05:13:03.081046 24136 net.cpp:94] Creating Layer conv4
I0504 05:13:03.081050 24136 net.cpp:435] conv4 <- conv3
I0504 05:13:03.081055 24136 net.cpp:409] conv4 -> conv4
I0504 05:13:03.102228 24136 net.cpp:144] Setting up conv4
I0504 05:13:03.102243 24136 net.cpp:151] Top shape: 20 128 15 15 (576000)
I0504 05:13:03.102247 24136 net.cpp:159] Memory required for data: 26568080
I0504 05:13:03.102254 24136 layer_factory.hpp:77] Creating layer relu4
I0504 05:13:03.102260 24136 net.cpp:94] Creating Layer relu4
I0504 05:13:03.102264 24136 net.cpp:435] relu4 <- conv4
I0504 05:13:03.102269 24136 net.cpp:396] relu4 -> conv4 (in-place)
I0504 05:13:03.102277 24136 net.cpp:144] Setting up relu4
I0504 05:13:03.102282 24136 net.cpp:151] Top shape: 20 128 15 15 (576000)
I0504 05:13:03.102284 24136 net.cpp:159] Memory required for data: 28872080
I0504 05:13:03.102288 24136 layer_factory.hpp:77] Creating layer conv5
I0504 05:13:03.102295 24136 net.cpp:94] Creating Layer conv5
I0504 05:13:03.102299 24136 net.cpp:435] conv5 <- conv4
I0504 05:13:03.102304 24136 net.cpp:409] conv5 -> conv5
I0504 05:13:03.123222 24136 net.cpp:144] Setting up conv5
I0504 05:13:03.123253 24136 net.cpp:151] Top shape: 20 128 15 15 (576000)
I0504 05:13:03.123262 24136 net.cpp:159] Memory required for data: 31176080
I0504 05:13:03.123281 24136 layer_factory.hpp:77] Creating layer relu5
I0504 05:13:03.123293 24136 net.cpp:94] Creating Layer relu5
I0504 05:13:03.123301 24136 net.cpp:435] relu5 <- conv5
I0504 05:13:03.123311 24136 net.cpp:396] relu5 -> conv5 (in-place)
I0504 05:13:03.123327 24136 net.cpp:144] Setting up relu5
I0504 05:13:03.123337 24136 net.cpp:151] Top shape: 20 128 15 15 (576000)
I0504 05:13:03.123344 24136 net.cpp:159] Memory required for data: 33480080
I0504 05:13:03.123352 24136 layer_factory.hpp:77] Creating layer pool5
I0504 05:13:03.123361 24136 net.cpp:94] Creating Layer pool5
I0504 05:13:03.123368 24136 net.cpp:435] pool5 <- conv5
I0504 05:13:03.123378 24136 net.cpp:409] pool5 -> pool5
I0504 05:13:03.123455 24136 net.cpp:144] Setting up pool5
I0504 05:13:03.123469 24136 net.cpp:151] Top shape: 20 128 7 7 (125440)
I0504 05:13:03.123476 24136 net.cpp:159] Memory required for data: 33981840
I0504 05:13:03.123483 24136 layer_factory.hpp:77] Creating layer ip1
I0504 05:13:03.123502 24136 net.cpp:94] Creating Layer ip1
I0504 05:13:03.123508 24136 net.cpp:435] ip1 <- pool5
I0504 05:13:03.123519 24136 net.cpp:409] ip1 -> ip1
I0504 05:13:03.278908 24136 net.cpp:144] Setting up ip1
I0504 05:13:03.278942 24136 net.cpp:151] Top shape: 20 1024 (20480)
I0504 05:13:03.278947 24136 net.cpp:159] Memory required for data: 34063760
I0504 05:13:03.278956 24136 layer_factory.hpp:77] Creating layer ip2
I0504 05:13:03.278966 24136 net.cpp:94] Creating Layer ip2
I0504 05:13:03.278980 24136 net.cpp:435] ip2 <- ip1
I0504 05:13:03.278987 24136 net.cpp:409] ip2 -> ip2
I0504 05:13:03.291971 24136 net.cpp:144] Setting up ip2
I0504 05:13:03.291985 24136 net.cpp:151] Top shape: 20 512 (10240)
I0504 05:13:03.291990 24136 net.cpp:159] Memory required for data: 34104720
I0504 05:13:03.291996 24136 layer_factory.hpp:77] Creating layer ip3
I0504 05:13:03.292001 24136 net.cpp:94] Creating Layer ip3
I0504 05:13:03.292006 24136 net.cpp:435] ip3 <- ip2
I0504 05:13:03.292011 24136 net.cpp:409] ip3 -> ip3
I0504 05:13:03.292088 24136 net.cpp:144] Setting up ip3
I0504 05:13:03.292104 24136 net.cpp:151] Top shape: 20 1 (20)
I0504 05:13:03.292107 24136 net.cpp:159] Memory required for data: 34104800
I0504 05:13:03.292112 24136 layer_factory.hpp:77] Creating layer loss
I0504 05:13:03.292120 24136 net.cpp:94] Creating Layer loss
I0504 05:13:03.292124 24136 net.cpp:435] loss <- ip3
I0504 05:13:03.292129 24136 net.cpp:435] loss <- label
I0504 05:13:03.292134 24136 net.cpp:409] loss -> loss
I0504 05:13:03.292171 24136 net.cpp:144] Setting up loss
…
