…
I0502 17:46:51.397930 11869 net.cpp:323] The NetState phase (0) differed from the phase (1) specified by a rule in layer intercept
I0502 17:46:51.397946 11869 net.cpp:323] The NetState phase (0) differed from the phase (1) specified by a rule in layer accuracy
I0502 17:46:51.398036 11869 net.cpp:52] Initializing net from parameters: 
state {
  phase: TRAIN
}
layer {
  name: "parameters"
  type: "HDF5Data"
  top: "data"
  top: "label"
  include {
    phase: TRAIN
  }
  hdf5_data_param {
    source: "/home/purduethu/scratch/radon/d/deng106/CNNStatisticalModel/distributions/input/20_distributions_400_sample_size_train-distributions-path.txt"
    batch_size: 20
  }
}
layer {
  name: "conv1"
  type: "Convolution"
  bottom: "data"
  top: "conv1"
  param {
    lr_mult: 1
  }
  param {
    lr_mult: 2
  }
  convolution_param {
    num_output: 64
    pad: 2
    kernel_size: 5
    stride: 1
    weight_filler {
      type: "gaussian"
      std: 0.0001
    }
    bias_filler {
      type: "constant"
    }
  }
}
layer {
  name: "relu1"
  type: "ReLU"
  bottom: "conv1"
  top: "conv1"
}
layer {
  name: "conv2"
  type: "Convolution"
  bottom: "conv1"
  top: "conv2"
  param {
    lr_mult: 1
  }
  param {
    lr_mult: 2
  }
  convolution_param {
    num_output: 64
    pad: 2
    kernel_size: 5
    stride: 1
    weight_filler {
      type: "gaussian"
      std: 0.01
    }
    bias_filler {
      type: "constant"
    }
  }
}
layer {
  name: "relu2"
  type: "ReLU"
  bottom: "conv2"
  top: "conv2"
}
layer {
  name: "pool2"
  type: "Pooling"
  bottom: "conv2"
  top: "pool2"
  pooling_param {
    pool: MAX
    kernel_size: 3
    stride: 2
  }
}
layer {
  name: "conv3"
  type: "Convolution"
  bottom: "pool2"
  top: "conv3"
  param {
    lr_mult: 1
  }
  param {
    lr_mult: 2
  }
  convolution_param {
    num_output: 64
    pad: 2
    kernel_size: 5
    stride: 1
    weight_filler {
      type: "gaussian"
      std: 0.01
    }
    bias_filler {
      type: "constant"
    }
  }
}
layer {
  name: "relu3"
  type: "ReLU"
  bottom: "conv3"
  top: "conv3"
}
layer {
  name: "conv4"
  type: "Convolution"
  bottom: "conv3"
  top: "conv4"
  param {
    lr_mult: 1
  }
  param {
    lr_mult: 2
  }
  convolution_param {
    num_output: 64
    pad: 2
    kernel_size: 5
    stride: 1
    weight_filler {
      type: "gaussian"
      std: 0.01
    }
    bias_filler {
      type: "constant"
    }
  }
}
layer {
  name: "relu4"
  type: "ReLU"
  bottom: "conv4"
  top: "conv4"
}
layer {
  name: "conv5"
  type: "Convolution"
  bottom: "conv4"
  top: "conv5"
  param {
    lr_mult: 1
  }
  param {
    lr_mult: 2
  }
  convolution_param {
    num_output: 64
    pad: 2
    kernel_size: 5
    stride: 1
    weight_filler {
      type: "gaussian"
      std: 0.01
    }
    bias_filler {
      type: "constant"
    }
  }
}
layer {
  name: "relu5"
  type: "ReLU"
  bottom: "conv5"
  top: "conv5"
}
layer {
  name: "pool5"
  type: "Pooling"
  bottom: "conv5"
  top: "pool5"
  pooling_param {
    pool: AVE
    kernel_size: 3
    stride: 2
  }
}
layer {
  name: "ip1"
  type: "InnerProduct"
  bottom: "pool5"
  top: "ip1"
  param {
    lr_mult: 1
  }
  param {
    lr_mult: 2
  }
  inner_product_param {
    num_output: 64
    weight_filler {
      type: "gaussian"
      std: 0.1
    }
    bias_filler {
      type: "constant"
    }
  }
}
layer {
  name: "ip2"
  type: "InnerProduct"
  bottom: "ip1"
  top: "ip2"
  param {
    lr_mult: 1
  }
  param {
    lr_mult: 2
  }
  inner_product_param {
    num_output: 64
    weight_filler {
      type: "gaussian"
      std: 0.1
    }
    bias_filler {
      type: "constant"
    }
  }
}
layer {
  name: "ip3"
  type: "InnerProduct"
  bottom: "ip2"
  top: "ip3"
  param {
    lr_mult: 1
  }
  param {
    lr_mult: 2
  }
  inner_product_param {
    num_output: 50
    weight_filler {
      type: "gaussian"
      std: 0.1
    }
    bias_filler {
      type: "constant"
    }
  }
}
layer {
  name: "loss"
  type: "SoftmaxWithLoss"
  bottom: "ip3"
  bottom: "label"
  top: "loss"
}
I0502 17:46:51.398111 11869 layer_factory.hpp:77] Creating layer parameters
I0502 17:46:51.398128 11869 net.cpp:94] Creating Layer parameters
I0502 17:46:51.398133 11869 net.cpp:409] parameters -> data
I0502 17:46:51.398152 11869 net.cpp:409] parameters -> label
I0502 17:46:51.398162 11869 hdf5_data_layer.cpp:79] Loading list of HDF5 filenames from: /home/purduethu/scratch/radon/d/deng106/CNNStatisticalModel/distributions/input/20_distributions_400_sample_size_train-distributions-path.txt
I0502 17:46:51.398187 11869 hdf5_data_layer.cpp:93] Number of HDF5 files: 1
I0502 17:46:51.398762 11869 hdf5.cpp:32] Datatype class: H5T_FLOAT
I0502 17:46:51.655052 11869 hdf5.cpp:35] Datatype class: H5T_INTEGER
I0502 17:46:51.656785 11869 net.cpp:144] Setting up parameters
I0502 17:46:51.656803 11869 net.cpp:151] Top shape: 20 1 20 20 (8000)
I0502 17:46:51.656810 11869 net.cpp:151] Top shape: 20 (20)
I0502 17:46:51.656813 11869 net.cpp:159] Memory required for data: 32080
I0502 17:46:51.656821 11869 layer_factory.hpp:77] Creating layer conv1
I0502 17:46:51.656839 11869 net.cpp:94] Creating Layer conv1
I0502 17:46:51.656846 11869 net.cpp:435] conv1 <- data
I0502 17:46:51.656857 11869 net.cpp:409] conv1 -> conv1
I0502 17:46:51.663882 11869 net.cpp:144] Setting up conv1
I0502 17:46:51.663897 11869 net.cpp:151] Top shape: 20 64 20 20 (512000)
I0502 17:46:51.663902 11869 net.cpp:159] Memory required for data: 2080080
I0502 17:46:51.663913 11869 layer_factory.hpp:77] Creating layer relu1
I0502 17:46:51.663921 11869 net.cpp:94] Creating Layer relu1
I0502 17:46:51.663925 11869 net.cpp:435] relu1 <- conv1
I0502 17:46:51.663929 11869 net.cpp:396] relu1 -> conv1 (in-place)
I0502 17:46:51.663944 11869 net.cpp:144] Setting up relu1
I0502 17:46:51.663950 11869 net.cpp:151] Top shape: 20 64 20 20 (512000)
I0502 17:46:51.663954 11869 net.cpp:159] Memory required for data: 4128080
I0502 17:46:51.663956 11869 layer_factory.hpp:77] Creating layer conv2
I0502 17:46:51.663964 11869 net.cpp:94] Creating Layer conv2
I0502 17:46:51.663967 11869 net.cpp:435] conv2 <- conv1
I0502 17:46:51.663972 11869 net.cpp:409] conv2 -> conv2
I0502 17:46:51.674434 11869 net.cpp:144] Setting up conv2
I0502 17:46:51.674450 11869 net.cpp:151] Top shape: 20 64 20 20 (512000)
I0502 17:46:51.674454 11869 net.cpp:159] Memory required for data: 6176080
I0502 17:46:51.674463 11869 layer_factory.hpp:77] Creating layer relu2
I0502 17:46:51.674469 11869 net.cpp:94] Creating Layer relu2
I0502 17:46:51.674474 11869 net.cpp:435] relu2 <- conv2
I0502 17:46:51.674477 11869 net.cpp:396] relu2 -> conv2 (in-place)
I0502 17:46:51.674485 11869 net.cpp:144] Setting up relu2
I0502 17:46:51.674489 11869 net.cpp:151] Top shape: 20 64 20 20 (512000)
I0502 17:46:51.674492 11869 net.cpp:159] Memory required for data: 8224080
I0502 17:46:51.674496 11869 layer_factory.hpp:77] Creating layer pool2
I0502 17:46:51.674510 11869 net.cpp:94] Creating Layer pool2
I0502 17:46:51.674513 11869 net.cpp:435] pool2 <- conv2
I0502 17:46:51.674518 11869 net.cpp:409] pool2 -> pool2
I0502 17:46:51.674562 11869 net.cpp:144] Setting up pool2
I0502 17:46:51.674571 11869 net.cpp:151] Top shape: 20 64 10 10 (128000)
I0502 17:46:51.674573 11869 net.cpp:159] Memory required for data: 8736080
I0502 17:46:51.674576 11869 layer_factory.hpp:77] Creating layer conv3
I0502 17:46:51.674584 11869 net.cpp:94] Creating Layer conv3
I0502 17:46:51.674587 11869 net.cpp:435] conv3 <- pool2
I0502 17:46:51.674600 11869 net.cpp:409] conv3 -> conv3
I0502 17:46:51.680640 11869 net.cpp:144] Setting up conv3
I0502 17:46:51.680655 11869 net.cpp:151] Top shape: 20 64 10 10 (128000)
I0502 17:46:51.680660 11869 net.cpp:159] Memory required for data: 9248080
I0502 17:46:51.680668 11869 layer_factory.hpp:77] Creating layer relu3
I0502 17:46:51.680675 11869 net.cpp:94] Creating Layer relu3
I0502 17:46:51.680678 11869 net.cpp:435] relu3 <- conv3
I0502 17:46:51.680683 11869 net.cpp:396] relu3 -> conv3 (in-place)
I0502 17:46:51.680691 11869 net.cpp:144] Setting up relu3
I0502 17:46:51.680694 11869 net.cpp:151] Top shape: 20 64 10 10 (128000)
I0502 17:46:51.680698 11869 net.cpp:159] Memory required for data: 9760080
I0502 17:46:51.680701 11869 layer_factory.hpp:77] Creating layer conv4
I0502 17:46:51.680709 11869 net.cpp:94] Creating Layer conv4
I0502 17:46:51.680713 11869 net.cpp:435] conv4 <- conv3
I0502 17:46:51.680718 11869 net.cpp:409] conv4 -> conv4
I0502 17:46:51.686525 11869 net.cpp:144] Setting up conv4
I0502 17:46:51.686540 11869 net.cpp:151] Top shape: 20 64 10 10 (128000)
I0502 17:46:51.686544 11869 net.cpp:159] Memory required for data: 10272080
I0502 17:46:51.686552 11869 layer_factory.hpp:77] Creating layer relu4
I0502 17:46:51.686558 11869 net.cpp:94] Creating Layer relu4
I0502 17:46:51.686561 11869 net.cpp:435] relu4 <- conv4
I0502 17:46:51.686566 11869 net.cpp:396] relu4 -> conv4 (in-place)
I0502 17:46:51.686573 11869 net.cpp:144] Setting up relu4
I0502 17:46:51.686578 11869 net.cpp:151] Top shape: 20 64 10 10 (128000)
I0502 17:46:51.686581 11869 net.cpp:159] Memory required for data: 10784080
I0502 17:46:51.686584 11869 layer_factory.hpp:77] Creating layer conv5
I0502 17:46:51.686592 11869 net.cpp:94] Creating Layer conv5
I0502 17:46:51.686595 11869 net.cpp:435] conv5 <- conv4
I0502 17:46:51.686600 11869 net.cpp:409] conv5 -> conv5
I0502 17:46:51.693712 11869 net.cpp:144] Setting up conv5
I0502 17:46:51.693727 11869 net.cpp:151] Top shape: 20 64 10 10 (128000)
I0502 17:46:51.693730 11869 net.cpp:159] Memory required for data: 11296080
I0502 17:46:51.693739 11869 layer_factory.hpp:77] Creating layer relu5
I0502 17:46:51.693747 11869 net.cpp:94] Creating Layer relu5
I0502 17:46:51.693749 11869 net.cpp:435] relu5 <- conv5
I0502 17:46:51.693754 11869 net.cpp:396] relu5 -> conv5 (in-place)
I0502 17:46:51.693761 11869 net.cpp:144] Setting up relu5
I0502 17:46:51.693766 11869 net.cpp:151] Top shape: 20 64 10 10 (128000)
I0502 17:46:51.693769 11869 net.cpp:159] Memory required for data: 11808080
I0502 17:46:51.693773 11869 layer_factory.hpp:77] Creating layer pool5
I0502 17:46:51.693778 11869 net.cpp:94] Creating Layer pool5
I0502 17:46:51.693781 11869 net.cpp:435] pool5 <- conv5
I0502 17:46:51.693785 11869 net.cpp:409] pool5 -> pool5
I0502 17:46:51.693819 11869 net.cpp:144] Setting up pool5
I0502 17:46:51.693825 11869 net.cpp:151] Top shape: 20 64 5 5 (32000)
I0502 17:46:51.693828 11869 net.cpp:159] Memory required for data: 11936080
I0502 17:46:51.693832 11869 layer_factory.hpp:77] Creating layer ip1
I0502 17:46:51.693841 11869 net.cpp:94] Creating Layer ip1
I0502 17:46:51.693845 11869 net.cpp:435] ip1 <- pool5
I0502 17:46:51.693850 11869 net.cpp:409] ip1 -> ip1
I0502 17:46:51.696357 11869 net.cpp:144] Setting up ip1
I0502 17:46:51.696365 11869 net.cpp:151] Top shape: 20 64 (1280)
I0502 17:46:51.696369 11869 net.cpp:159] Memory required for data: 11941200
I0502 17:46:51.696374 11869 layer_factory.hpp:77] Creating layer ip2
I0502 17:46:51.696384 11869 net.cpp:94] Creating Layer ip2
I0502 17:46:51.696389 11869 net.cpp:435] ip2 <- ip1
I0502 17:46:51.696394 11869 net.cpp:409] ip2 -> ip2
I0502 17:46:51.696566 11869 net.cpp:144] Setting up ip2
I0502 17:46:51.696575 11869 net.cpp:151] Top shape: 20 64 (1280)
I0502 17:46:51.696578 11869 net.cpp:159] Memory required for data: 11946320
I0502 17:46:51.696583 11869 layer_factory.hpp:77] Creating layer ip3
I0502 17:46:51.696589 11869 net.cpp:94] Creating Layer ip3
I0502 17:46:51.696593 11869 net.cpp:435] ip3 <- ip2
I0502 17:46:51.696597 11869 net.cpp:409] ip3 -> ip3
I0502 17:46:51.696746 11869 net.cpp:144] Setting up ip3
I0502 17:46:51.696753 11869 net.cpp:151] Top shape: 20 50 (1000)
I0502 17:46:51.696756 11869 net.cpp:159] Memory required for data: 11950320
I0502 17:46:51.696761 11869 layer_factory.hpp:77] Creating layer loss
I0502 17:46:51.696768 11869 net.cpp:94] Creating Layer loss
I0502 17:46:51.696771 11869 net.cpp:435] loss <- ip3
I0502 17:46:51.696775 11869 net.cpp:435] loss <- label
I0502 17:46:51.696780 11869 net.cpp:409] loss -> loss
I0502 17:46:51.696790 11869 layer_factory.hpp:77] Creating layer loss
…
I0502 17:46:51.697279 11869 solver.cpp:181] Creating test net (#0) specified by net file: ./protocol/dis_20_400_dimension.protocol_distribution
I0502 17:46:51.697306 11869 net.cpp:323] The NetState phase (1) differed from the phase (0) specified by a rule in layer parameters
I0502 17:46:51.697402 11869 net.cpp:52] Initializing net from parameters: 
state {
  phase: TEST
}
layer {
  name: "intercept"
  type: "HDF5Data"
  top: "data"
  top: "label"
  include {
    phase: TEST
  }
  hdf5_data_param {
    source: "/home/purduethu/scratch/radon/d/deng106/CNNStatisticalModel/distributions/input/20_distributions_400_sample_size_test-distributions-path.txt"
    batch_size: 20
  }
}
layer {
  name: "conv1"
  type: "Convolution"
  bottom: "data"
  top: "conv1"
  param {
    lr_mult: 1
  }
  param {
    lr_mult: 2
  }
  convolution_param {
    num_output: 64
    pad: 2
    kernel_size: 5
    stride: 1
    weight_filler {
      type: "gaussian"
      std: 0.0001
    }
    bias_filler {
      type: "constant"
    }
  }
}
layer {
  name: "relu1"
  type: "ReLU"
  bottom: "conv1"
  top: "conv1"
}
layer {
  name: "conv2"
  type: "Convolution"
  bottom: "conv1"
  top: "conv2"
  param {
    lr_mult: 1
  }
  param {
    lr_mult: 2
  }
  convolution_param {
    num_output: 64
    pad: 2
    kernel_size: 5
    stride: 1
    weight_filler {
      type: "gaussian"
      std: 0.01
    }
    bias_filler {
      type: "constant"
    }
  }
}
layer {
  name: "relu2"
  type: "ReLU"
  bottom: "conv2"
  top: "conv2"
}
layer {
  name: "pool2"
  type: "Pooling"
  bottom: "conv2"
  top: "pool2"
  pooling_param {
    pool: MAX
    kernel_size: 3
    stride: 2
  }
}
layer {
  name: "conv3"
  type: "Convolution"
  bottom: "pool2"
  top: "conv3"
  param {
    lr_mult: 1
  }
  param {
    lr_mult: 2
  }
  convolution_param {
    num_output: 64
    pad: 2
    kernel_size: 5
    stride: 1
    weight_filler {
      type: "gaussian"
      std: 0.01
    }
    bias_filler {
      type: "constant"
    }
  }
}
layer {
  name: "relu3"
  type: "ReLU"
  bottom: "conv3"
  top: "conv3"
}
layer {
  name: "conv4"
  type: "Convolution"
  bottom: "conv3"
  top: "conv4"
  param {
    lr_mult: 1
  }
  param {
    lr_mult: 2
  }
  convolution_param {
    num_output: 64
    pad: 2
    kernel_size: 5
    stride: 1
    weight_filler {
      type: "gaussian"
      std: 0.01
    }
    bias_filler {
      type: "constant"
    }
  }
}
layer {
  name: "relu4"
  type: "ReLU"
  bottom: "conv4"
  top: "conv4"
}
layer {
  name: "conv5"
  type: "Convolution"
  bottom: "conv4"
  top: "conv5"
  param {
    lr_mult: 1
  }
  param {
    lr_mult: 2
  }
  convolution_param {
    num_output: 64
    pad: 2
    kernel_size: 5
    stride: 1
    weight_filler {
      type: "gaussian"
      std: 0.01
    }
    bias_filler {
      type: "constant"
    }
  }
}
layer {
  name: "relu5"
  type: "ReLU"
  bottom: "conv5"
  top: "conv5"
}
layer {
  name: "pool5"
  type: "Pooling"
  bottom: "conv5"
  top: "pool5"
  pooling_param {
    pool: AVE
    kernel_size: 3
    stride: 2
  }
}
layer {
  name: "ip1"
  type: "InnerProduct"
  bottom: "pool5"
  top: "ip1"
  param {
    lr_mult: 1
  }
  param {
    lr_mult: 2
  }
  inner_product_param {
    num_output: 64
    weight_filler {
      type: "gaussian"
      std: 0.1
    }
    bias_filler {
      type: "constant"
    }
  }
}
layer {
  name: "ip2"
  type: "InnerProduct"
  bottom: "ip1"
  top: "ip2"
  param {
    lr_mult: 1
  }
  param {
    lr_mult: 2
  }
  inner_product_param {
    num_output: 64
    weight_filler {
      type: "gaussian"
      std: 0.1
    }
    bias_filler {
      type: "constant"
    }
  }
}
layer {
  name: "ip3"
  type: "InnerProduct"
  bottom: "ip2"
  top: "ip3"
  param {
    lr_mult: 1
  }
  param {
    lr_mult: 2
  }
  inner_product_param {
    num_output: 50
    weight_filler {
      type: "gaussian"
      std: 0.1
    }
    bias_filler {
      type: "constant"
    }
  }
}
layer {
  name: "accuracy"
  type: "Accuracy"
  bottom: "ip3"
  bottom: "label"
  top: "accuracy"
  include {
    phase: TEST
  }
}
layer {
  name: "loss"
  type: "SoftmaxWithLoss"
  bottom: "ip3"
  bottom: "label"
  top: "loss"
}
I0502 17:46:51.697474 11869 layer_factory.hpp:77] Creating layer intercept
I0502 17:46:51.697484 11869 net.cpp:94] Creating Layer intercept
I0502 17:46:51.697487 11869 net.cpp:409] intercept -> data
I0502 17:46:51.697494 11869 net.cpp:409] intercept -> label
I0502 17:46:51.697500 11869 hdf5_data_layer.cpp:79] Loading list of HDF5 filenames from: /home/purduethu/scratch/radon/d/deng106/CNNStatisticalModel/distributions/input/20_distributions_400_sample_size_test-distributions-path.txt
I0502 17:46:51.697520 11869 hdf5_data_layer.cpp:93] Number of HDF5 files: 1
I0502 17:46:51.762516 11869 net.cpp:144] Setting up intercept
I0502 17:46:51.762545 11869 net.cpp:151] Top shape: 20 1 20 20 (8000)
I0502 17:46:51.762550 11869 net.cpp:151] Top shape: 20 (20)
I0502 17:46:51.762554 11869 net.cpp:159] Memory required for data: 32080
I0502 17:46:51.762560 11869 layer_factory.hpp:77] Creating layer label_intercept_1_split
I0502 17:46:51.762576 11869 net.cpp:94] Creating Layer label_intercept_1_split
I0502 17:46:51.762581 11869 net.cpp:435] label_intercept_1_split <- label
I0502 17:46:51.762586 11869 net.cpp:409] label_intercept_1_split -> label_intercept_1_split_0
I0502 17:46:51.762595 11869 net.cpp:409] label_intercept_1_split -> label_intercept_1_split_1
I0502 17:46:51.762629 11869 net.cpp:144] Setting up label_intercept_1_split
I0502 17:46:51.762635 11869 net.cpp:151] Top shape: 20 (20)
I0502 17:46:51.762639 11869 net.cpp:151] Top shape: 20 (20)
I0502 17:46:51.762642 11869 net.cpp:159] Memory required for data: 32240
I0502 17:46:51.762645 11869 layer_factory.hpp:77] Creating layer conv1
I0502 17:46:51.762656 11869 net.cpp:94] Creating Layer conv1
I0502 17:46:51.762660 11869 net.cpp:435] conv1 <- data
I0502 17:46:51.762665 11869 net.cpp:409] conv1 -> conv1
I0502 17:46:51.764278 11869 net.cpp:144] Setting up conv1
I0502 17:46:51.764299 11869 net.cpp:151] Top shape: 20 64 20 20 (512000)
I0502 17:46:51.764304 11869 net.cpp:159] Memory required for data: 2080240
I0502 17:46:51.764313 11869 layer_factory.hpp:77] Creating layer relu1
I0502 17:46:51.764319 11869 net.cpp:94] Creating Layer relu1
I0502 17:46:51.764323 11869 net.cpp:435] relu1 <- conv1
I0502 17:46:51.764328 11869 net.cpp:396] relu1 -> conv1 (in-place)
I0502 17:46:51.764335 11869 net.cpp:144] Setting up relu1
I0502 17:46:51.764340 11869 net.cpp:151] Top shape: 20 64 20 20 (512000)
I0502 17:46:51.764343 11869 net.cpp:159] Memory required for data: 4128240
I0502 17:46:51.764346 11869 layer_factory.hpp:77] Creating layer conv2
I0502 17:46:51.764354 11869 net.cpp:94] Creating Layer conv2
I0502 17:46:51.764358 11869 net.cpp:435] conv2 <- conv1
I0502 17:46:51.764363 11869 net.cpp:409] conv2 -> conv2
I0502 17:46:51.769143 11869 net.cpp:144] Setting up conv2
I0502 17:46:51.769160 11869 net.cpp:151] Top shape: 20 64 20 20 (512000)
I0502 17:46:51.769163 11869 net.cpp:159] Memory required for data: 6176240
I0502 17:46:51.769171 11869 layer_factory.hpp:77] Creating layer relu2
I0502 17:46:51.769177 11869 net.cpp:94] Creating Layer relu2
I0502 17:46:51.769181 11869 net.cpp:435] relu2 <- conv2
I0502 17:46:51.769186 11869 net.cpp:396] relu2 -> conv2 (in-place)
I0502 17:46:51.769192 11869 net.cpp:144] Setting up relu2
I0502 17:46:51.769197 11869 net.cpp:151] Top shape: 20 64 20 20 (512000)
I0502 17:46:51.769201 11869 net.cpp:159] Memory required for data: 8224240
I0502 17:46:51.769203 11869 layer_factory.hpp:77] Creating layer pool2
I0502 17:46:51.769209 11869 net.cpp:94] Creating Layer pool2
I0502 17:46:51.769212 11869 net.cpp:435] pool2 <- conv2
I0502 17:46:51.769217 11869 net.cpp:409] pool2 -> pool2
I0502 17:46:51.769251 11869 net.cpp:144] Setting up pool2
I0502 17:46:51.769258 11869 net.cpp:151] Top shape: 20 64 10 10 (128000)
I0502 17:46:51.769260 11869 net.cpp:159] Memory required for data: 8736240
I0502 17:46:51.769263 11869 layer_factory.hpp:77] Creating layer conv3
I0502 17:46:51.769271 11869 net.cpp:94] Creating Layer conv3
I0502 17:46:51.769274 11869 net.cpp:435] conv3 <- pool2
I0502 17:46:51.769279 11869 net.cpp:409] conv3 -> conv3
I0502 17:46:51.773486 11869 net.cpp:144] Setting up conv3
I0502 17:46:51.773501 11869 net.cpp:151] Top shape: 20 64 10 10 (128000)
I0502 17:46:51.773505 11869 net.cpp:159] Memory required for data: 9248240
I0502 17:46:51.773514 11869 layer_factory.hpp:77] Creating layer relu3
I0502 17:46:51.773521 11869 net.cpp:94] Creating Layer relu3
I0502 17:46:51.773524 11869 net.cpp:435] relu3 <- conv3
I0502 17:46:51.773530 11869 net.cpp:396] relu3 -> conv3 (in-place)
I0502 17:46:51.773536 11869 net.cpp:144] Setting up relu3
I0502 17:46:51.773541 11869 net.cpp:151] Top shape: 20 64 10 10 (128000)
I0502 17:46:51.773545 11869 net.cpp:159] Memory required for data: 9760240
I0502 17:46:51.773547 11869 layer_factory.hpp:77] Creating layer conv4
I0502 17:46:51.773555 11869 net.cpp:94] Creating Layer conv4
I0502 17:46:51.773558 11869 net.cpp:435] conv4 <- conv3
I0502 17:46:51.773563 11869 net.cpp:409] conv4 -> conv4
I0502 17:46:51.777340 11869 net.cpp:144] Setting up conv4
I0502 17:46:51.777354 11869 net.cpp:151] Top shape: 20 64 10 10 (128000)
I0502 17:46:51.777357 11869 net.cpp:159] Memory required for data: 10272240
I0502 17:46:51.777364 11869 layer_factory.hpp:77] Creating layer relu4
I0502 17:46:51.777369 11869 net.cpp:94] Creating Layer relu4
I0502 17:46:51.777376 11869 net.cpp:435] relu4 <- conv4
I0502 17:46:51.777381 11869 net.cpp:396] relu4 -> conv4 (in-place)
I0502 17:46:51.777389 11869 net.cpp:144] Setting up relu4
I0502 17:46:51.777393 11869 net.cpp:151] Top shape: 20 64 10 10 (128000)
I0502 17:46:51.777396 11869 net.cpp:159] Memory required for data: 10784240
I0502 17:46:51.777400 11869 layer_factory.hpp:77] Creating layer conv5
I0502 17:46:51.777406 11869 net.cpp:94] Creating Layer conv5
I0502 17:46:51.777410 11869 net.cpp:435] conv5 <- conv4
I0502 17:46:51.777415 11869 net.cpp:409] conv5 -> conv5
I0502 17:46:51.782178 11869 net.cpp:144] Setting up conv5
I0502 17:46:51.782198 11869 net.cpp:151] Top shape: 20 64 10 10 (128000)
I0502 17:46:51.782202 11869 net.cpp:159] Memory required for data: 11296240
I0502 17:46:51.782210 11869 layer_factory.hpp:77] Creating layer relu5
I0502 17:46:51.782217 11869 net.cpp:94] Creating Layer relu5
I0502 17:46:51.782220 11869 net.cpp:435] relu5 <- conv5
I0502 17:46:51.782224 11869 net.cpp:396] relu5 -> conv5 (in-place)
I0502 17:46:51.782232 11869 net.cpp:144] Setting up relu5
I0502 17:46:51.782236 11869 net.cpp:151] Top shape: 20 64 10 10 (128000)
I0502 17:46:51.782239 11869 net.cpp:159] Memory required for data: 11808240
I0502 17:46:51.782243 11869 layer_factory.hpp:77] Creating layer pool5
I0502 17:46:51.782248 11869 net.cpp:94] Creating Layer pool5
I0502 17:46:51.782250 11869 net.cpp:435] pool5 <- conv5
I0502 17:46:51.782254 11869 net.cpp:409] pool5 -> pool5
I0502 17:46:51.782279 11869 net.cpp:144] Setting up pool5
I0502 17:46:51.782285 11869 net.cpp:151] Top shape: 20 64 5 5 (32000)
I0502 17:46:51.782289 11869 net.cpp:159] Memory required for data: 11936240
I0502 17:46:51.782291 11869 layer_factory.hpp:77] Creating layer ip1
I0502 17:46:51.782299 11869 net.cpp:94] Creating Layer ip1
I0502 17:46:51.782301 11869 net.cpp:435] ip1 <- pool5
I0502 17:46:51.782306 11869 net.cpp:409] ip1 -> ip1
I0502 17:46:51.784802 11869 net.cpp:144] Setting up ip1
I0502 17:46:51.784811 11869 net.cpp:151] Top shape: 20 64 (1280)
I0502 17:46:51.784814 11869 net.cpp:159] Memory required for data: 11941360
I0502 17:46:51.784819 11869 layer_factory.hpp:77] Creating layer ip2
I0502 17:46:51.784826 11869 net.cpp:94] Creating Layer ip2
I0502 17:46:51.784829 11869 net.cpp:435] ip2 <- ip1
I0502 17:46:51.784833 11869 net.cpp:409] ip2 -> ip2
I0502 17:46:51.785001 11869 net.cpp:144] Setting up ip2
I0502 17:46:51.785006 11869 net.cpp:151] Top shape: 20 64 (1280)
I0502 17:46:51.785009 11869 net.cpp:159] Memory required for data: 11946480
I0502 17:46:51.785014 11869 layer_factory.hpp:77] Creating layer ip3
I0502 17:46:51.785022 11869 net.cpp:94] Creating Layer ip3
I0502 17:46:51.785024 11869 net.cpp:435] ip3 <- ip2
I0502 17:46:51.785028 11869 net.cpp:409] ip3 -> ip3
I0502 17:46:51.785173 11869 net.cpp:144] Setting up ip3
I0502 17:46:51.785181 11869 net.cpp:151] Top shape: 20 50 (1000)
I0502 17:46:51.785183 11869 net.cpp:159] Memory required for data: 11950480
I0502 17:46:51.785187 11869 layer_factory.hpp:77] Creating layer ip3_ip3_0_split
I0502 17:46:51.785192 11869 net.cpp:94] Creating Layer ip3_ip3_0_split
I0502 17:46:51.785195 11869 net.cpp:435] ip3_ip3_0_split <- ip3
I0502 17:46:51.785200 11869 net.cpp:409] ip3_ip3_0_split -> ip3_ip3_0_split_0
I0502 17:46:51.785205 11869 net.cpp:409] ip3_ip3_0_split -> ip3_ip3_0_split_1
I0502 17:46:51.785228 11869 net.cpp:144] Setting up ip3_ip3_0_split
I0502 17:46:51.785234 11869 net.cpp:151] Top shape: 20 50 (1000)
I0502 17:46:51.785238 11869 net.cpp:151] Top shape: 20 50 (1000)
I0502 17:46:51.785241 11869 net.cpp:159] Memory required for data: 11958480
I0502 17:46:51.785244 11869 layer_factory.hpp:77] Creating layer accuracy
I0502 17:46:51.785254 11869 net.cpp:94] Creating Layer accuracy
I0502 17:46:51.785259 11869 net.cpp:435] accuracy <- ip3_ip3_0_split_0
I0502 17:46:51.785262 11869 net.cpp:435] accuracy <- label_intercept_1_split_0
I0502 17:46:51.785266 11869 net.cpp:409] accuracy -> accuracy
…
