…
I0502 15:30:30.157078 11195 net.cpp:323] The NetState phase (0) differed from the phase (1) specified by a rule in layer intercept
I0502 15:30:30.157094 11195 net.cpp:323] The NetState phase (0) differed from the phase (1) specified by a rule in layer loss
I0502 15:30:30.157191 11195 net.cpp:52] Initializing net from parameters: 
state {
  phase: TRAIN
}
layer {
  name: "parameters"
  type: "HDF5Data"
  top: "data"
  top: "label"
  include {
    phase: TRAIN
  }
  hdf5_data_param {
    source: "/home/purduethu/scratch/radon/d/deng106/CNNStatisticalModel/distributions/input/5_distributions_400_sample_size_train-parameters-path.txt"
    batch_size: 20
  }
}
layer {
  name: "conv1"
  type: "Convolution"
  bottom: "data"
  top: "conv1"
  param {
    lr_mult: 1
  }
  param {
    lr_mult: 2
  }
  convolution_param {
    num_output: 64
    pad: 2
    kernel_size: 5
    stride: 1
    weight_filler {
      type: "gaussian"
      std: 0.0001
    }
    bias_filler {
      type: "constant"
    }
  }
}
layer {
  name: "relu1"
  type: "ReLU"
  bottom: "conv1"
  top: "conv1"
}
layer {
  name: "conv2"
  type: "Convolution"
  bottom: "conv1"
  top: "conv2"
  param {
    lr_mult: 1
  }
  param {
    lr_mult: 2
  }
  convolution_param {
    num_output: 64
    pad: 2
    kernel_size: 5
    stride: 1
    weight_filler {
      type: "gaussian"
      std: 0.01
    }
    bias_filler {
      type: "constant"
    }
  }
}
layer {
  name: "relu2"
  type: "ReLU"
  bottom: "conv2"
  top: "conv2"
}
layer {
  name: "pool2"
  type: "Pooling"
  bottom: "conv2"
  top: "pool2"
  pooling_param {
    pool: MAX
    kernel_size: 3
    stride: 2
  }
}
layer {
  name: "conv3"
  type: "Convolution"
  bottom: "pool2"
  top: "conv3"
  param {
    lr_mult: 1
  }
  param {
    lr_mult: 2
  }
  convolution_param {
    num_output: 64
    pad: 2
    kernel_size: 5
    stride: 1
    weight_filler {
      type: "gaussian"
      std: 0.01
    }
    bias_filler {
      type: "constant"
    }
  }
}
layer {
  name: "relu3"
  type: "ReLU"
  bottom: "conv3"
  top: "conv3"
}
layer {
  name: "conv4"
  type: "Convolution"
  bottom: "conv3"
  top: "conv4"
  param {
    lr_mult: 1
  }
  param {
    lr_mult: 2
  }
  convolution_param {
    num_output: 64
    pad: 2
    kernel_size: 5
    stride: 1
    weight_filler {
      type: "gaussian"
      std: 0.01
    }
    bias_filler {
      type: "constant"
    }
  }
}
layer {
  name: "relu4"
  type: "ReLU"
  bottom: "conv4"
  top: "conv4"
}
layer {
  name: "conv5"
  type: "Convolution"
  bottom: "conv4"
  top: "conv5"
  param {
    lr_mult: 1
  }
  param {
    lr_mult: 2
  }
  convolution_param {
    num_output: 64
    pad: 2
    kernel_size: 5
    stride: 1
    weight_filler {
      type: "gaussian"
      std: 0.01
    }
    bias_filler {
      type: "constant"
    }
  }
}
layer {
  name: "relu5"
  type: "ReLU"
  bottom: "conv5"
  top: "conv5"
}
layer {
  name: "pool5"
  type: "Pooling"
  bottom: "conv5"
  top: "pool5"
  pooling_param {
    pool: AVE
    kernel_size: 3
    stride: 2
  }
}
layer {
  name: "ip1"
  type: "InnerProduct"
  bottom: "pool5"
  top: "ip1"
  param {
    lr_mult: 1
  }
  param {
    lr_mult: 2
  }
  inner_product_param {
    num_output: 64
    weight_filler {
      type: "gaussian"
      std: 0.1
    }
    bias_filler {
      type: "constant"
    }
  }
}
layer {
  name: "ip2"
  type: "InnerProduct"
  bottom: "ip1"
  top: "ip2"
  param {
    lr_mult: 1
  }
  param {
    lr_mult: 2
  }
  inner_product_param {
    num_output: 64
    weight_filler {
      type: "gaussian"
      std: 0.1
    }
    bias_filler {
      type: "constant"
    }
  }
}
layer {
  name: "ip3"
  type: "InnerProduct"
  bottom: "ip2"
  top: "ip3"
  param {
    lr_mult: 1
  }
  param {
    lr_mult: 2
  }
  inner_product_param {
    num_output: 1
    weight_filler {
      type: "gaussian"
      std: 0.1
    }
    bias_filler {
      type: "constant"
    }
  }
}
layer {
  name: "loss"
  type: "HuberLoss"
  bottom: "ip3"
  bottom: "label"
  top: "loss"
  include {
    phase: TRAIN
  }
}
I0502 15:30:30.157268 11195 layer_factory.hpp:77] Creating layer parameters
I0502 15:30:30.157284 11195 net.cpp:94] Creating Layer parameters
I0502 15:30:30.157289 11195 net.cpp:409] parameters -> data
I0502 15:30:30.157308 11195 net.cpp:409] parameters -> label
I0502 15:30:30.157320 11195 hdf5_data_layer.cpp:79] Loading list of HDF5 filenames from: /home/purduethu/scratch/radon/d/deng106/CNNStatisticalModel/distributions/input/5_distributions_400_sample_size_train-parameters-path.txt
I0502 15:30:30.157341 11195 hdf5_data_layer.cpp:93] Number of HDF5 files: 1
I0502 15:30:30.157923 11195 hdf5.cpp:32] Datatype class: H5T_FLOAT
I0502 15:30:30.221827 11195 net.cpp:144] Setting up parameters
I0502 15:30:30.221860 11195 net.cpp:151] Top shape: 20 1 20 20 (8000)
I0502 15:30:30.221866 11195 net.cpp:151] Top shape: 20 (20)
I0502 15:30:30.221870 11195 net.cpp:159] Memory required for data: 32080
I0502 15:30:30.221879 11195 layer_factory.hpp:77] Creating layer conv1
I0502 15:30:30.221904 11195 net.cpp:94] Creating Layer conv1
I0502 15:30:30.221910 11195 net.cpp:435] conv1 <- data
I0502 15:30:30.221922 11195 net.cpp:409] conv1 -> conv1
I0502 15:30:30.226861 11195 net.cpp:144] Setting up conv1
I0502 15:30:30.226886 11195 net.cpp:151] Top shape: 20 64 20 20 (512000)
I0502 15:30:30.226891 11195 net.cpp:159] Memory required for data: 2080080
I0502 15:30:30.226904 11195 layer_factory.hpp:77] Creating layer relu1
I0502 15:30:30.226914 11195 net.cpp:94] Creating Layer relu1
I0502 15:30:30.226919 11195 net.cpp:435] relu1 <- conv1
I0502 15:30:30.226924 11195 net.cpp:396] relu1 -> conv1 (in-place)
I0502 15:30:30.226943 11195 net.cpp:144] Setting up relu1
I0502 15:30:30.226949 11195 net.cpp:151] Top shape: 20 64 20 20 (512000)
I0502 15:30:30.226953 11195 net.cpp:159] Memory required for data: 4128080
I0502 15:30:30.226956 11195 layer_factory.hpp:77] Creating layer conv2
I0502 15:30:30.226965 11195 net.cpp:94] Creating Layer conv2
I0502 15:30:30.226969 11195 net.cpp:435] conv2 <- conv1
I0502 15:30:30.226974 11195 net.cpp:409] conv2 -> conv2
I0502 15:30:30.238020 11195 net.cpp:144] Setting up conv2
I0502 15:30:30.238047 11195 net.cpp:151] Top shape: 20 64 20 20 (512000)
I0502 15:30:30.238052 11195 net.cpp:159] Memory required for data: 6176080
I0502 15:30:30.238064 11195 layer_factory.hpp:77] Creating layer relu2
I0502 15:30:30.238073 11195 net.cpp:94] Creating Layer relu2
I0502 15:30:30.238078 11195 net.cpp:435] relu2 <- conv2
I0502 15:30:30.238083 11195 net.cpp:396] relu2 -> conv2 (in-place)
I0502 15:30:30.238092 11195 net.cpp:144] Setting up relu2
I0502 15:30:30.238097 11195 net.cpp:151] Top shape: 20 64 20 20 (512000)
I0502 15:30:30.238101 11195 net.cpp:159] Memory required for data: 8224080
I0502 15:30:30.238104 11195 layer_factory.hpp:77] Creating layer pool2
I0502 15:30:30.238112 11195 net.cpp:94] Creating Layer pool2
I0502 15:30:30.238123 11195 net.cpp:435] pool2 <- conv2
I0502 15:30:30.238128 11195 net.cpp:409] pool2 -> pool2
I0502 15:30:30.238181 11195 net.cpp:144] Setting up pool2
I0502 15:30:30.238189 11195 net.cpp:151] Top shape: 20 64 10 10 (128000)
I0502 15:30:30.238193 11195 net.cpp:159] Memory required for data: 8736080
I0502 15:30:30.238196 11195 layer_factory.hpp:77] Creating layer conv3
I0502 15:30:30.238205 11195 net.cpp:94] Creating Layer conv3
I0502 15:30:30.238209 11195 net.cpp:435] conv3 <- pool2
I0502 15:30:30.238214 11195 net.cpp:409] conv3 -> conv3
I0502 15:30:30.243530 11195 net.cpp:144] Setting up conv3
I0502 15:30:30.243546 11195 net.cpp:151] Top shape: 20 64 10 10 (128000)
I0502 15:30:30.243551 11195 net.cpp:159] Memory required for data: 9248080
I0502 15:30:30.243559 11195 layer_factory.hpp:77] Creating layer relu3
I0502 15:30:30.243566 11195 net.cpp:94] Creating Layer relu3
I0502 15:30:30.243571 11195 net.cpp:435] relu3 <- conv3
I0502 15:30:30.243576 11195 net.cpp:396] relu3 -> conv3 (in-place)
I0502 15:30:30.243583 11195 net.cpp:144] Setting up relu3
I0502 15:30:30.243588 11195 net.cpp:151] Top shape: 20 64 10 10 (128000)
I0502 15:30:30.243592 11195 net.cpp:159] Memory required for data: 9760080
I0502 15:30:30.243594 11195 layer_factory.hpp:77] Creating layer conv4
I0502 15:30:30.243604 11195 net.cpp:94] Creating Layer conv4
I0502 15:30:30.243608 11195 net.cpp:435] conv4 <- conv3
I0502 15:30:30.243613 11195 net.cpp:409] conv4 -> conv4
I0502 15:30:30.248878 11195 net.cpp:144] Setting up conv4
I0502 15:30:30.248895 11195 net.cpp:151] Top shape: 20 64 10 10 (128000)
I0502 15:30:30.248899 11195 net.cpp:159] Memory required for data: 10272080
I0502 15:30:30.248906 11195 layer_factory.hpp:77] Creating layer relu4
I0502 15:30:30.248913 11195 net.cpp:94] Creating Layer relu4
I0502 15:30:30.248916 11195 net.cpp:435] relu4 <- conv4
I0502 15:30:30.248921 11195 net.cpp:396] relu4 -> conv4 (in-place)
I0502 15:30:30.248929 11195 net.cpp:144] Setting up relu4
I0502 15:30:30.248934 11195 net.cpp:151] Top shape: 20 64 10 10 (128000)
I0502 15:30:30.248937 11195 net.cpp:159] Memory required for data: 10784080
I0502 15:30:30.248941 11195 layer_factory.hpp:77] Creating layer conv5
I0502 15:30:30.248950 11195 net.cpp:94] Creating Layer conv5
I0502 15:30:30.248952 11195 net.cpp:435] conv5 <- conv4
I0502 15:30:30.248958 11195 net.cpp:409] conv5 -> conv5
I0502 15:30:30.254233 11195 net.cpp:144] Setting up conv5
I0502 15:30:30.254247 11195 net.cpp:151] Top shape: 20 64 10 10 (128000)
I0502 15:30:30.254252 11195 net.cpp:159] Memory required for data: 11296080
I0502 15:30:30.254261 11195 layer_factory.hpp:77] Creating layer relu5
I0502 15:30:30.254267 11195 net.cpp:94] Creating Layer relu5
I0502 15:30:30.254271 11195 net.cpp:435] relu5 <- conv5
I0502 15:30:30.254276 11195 net.cpp:396] relu5 -> conv5 (in-place)
I0502 15:30:30.254284 11195 net.cpp:144] Setting up relu5
I0502 15:30:30.254288 11195 net.cpp:151] Top shape: 20 64 10 10 (128000)
I0502 15:30:30.254292 11195 net.cpp:159] Memory required for data: 11808080
I0502 15:30:30.254295 11195 layer_factory.hpp:77] Creating layer pool5
I0502 15:30:30.254302 11195 net.cpp:94] Creating Layer pool5
I0502 15:30:30.254307 11195 net.cpp:435] pool5 <- conv5
I0502 15:30:30.254310 11195 net.cpp:409] pool5 -> pool5
I0502 15:30:30.254351 11195 net.cpp:144] Setting up pool5
I0502 15:30:30.254359 11195 net.cpp:151] Top shape: 20 64 5 5 (32000)
I0502 15:30:30.254362 11195 net.cpp:159] Memory required for data: 11936080
I0502 15:30:30.254366 11195 layer_factory.hpp:77] Creating layer ip1
I0502 15:30:30.254376 11195 net.cpp:94] Creating Layer ip1
I0502 15:30:30.254380 11195 net.cpp:435] ip1 <- pool5
I0502 15:30:30.254385 11195 net.cpp:409] ip1 -> ip1
I0502 15:30:30.256984 11195 net.cpp:144] Setting up ip1
I0502 15:30:30.256994 11195 net.cpp:151] Top shape: 20 64 (1280)
I0502 15:30:30.256999 11195 net.cpp:159] Memory required for data: 11941200
I0502 15:30:30.257004 11195 layer_factory.hpp:77] Creating layer ip2
I0502 15:30:30.257011 11195 net.cpp:94] Creating Layer ip2
I0502 15:30:30.257015 11195 net.cpp:435] ip2 <- ip1
I0502 15:30:30.257027 11195 net.cpp:409] ip2 -> ip2
I0502 15:30:30.257201 11195 net.cpp:144] Setting up ip2
I0502 15:30:30.257208 11195 net.cpp:151] Top shape: 20 64 (1280)
I0502 15:30:30.257211 11195 net.cpp:159] Memory required for data: 11946320
I0502 15:30:30.257217 11195 layer_factory.hpp:77] Creating layer ip3
I0502 15:30:30.257223 11195 net.cpp:94] Creating Layer ip3
I0502 15:30:30.257227 11195 net.cpp:435] ip3 <- ip2
I0502 15:30:30.257232 11195 net.cpp:409] ip3 -> ip3
I0502 15:30:30.257297 11195 net.cpp:144] Setting up ip3
I0502 15:30:30.257311 11195 net.cpp:151] Top shape: 20 1 (20)
I0502 15:30:30.257314 11195 net.cpp:159] Memory required for data: 11946400
I0502 15:30:30.257320 11195 layer_factory.hpp:77] Creating layer loss
I0502 15:30:30.257328 11195 net.cpp:94] Creating Layer loss
I0502 15:30:30.257333 11195 net.cpp:435] loss <- ip3
I0502 15:30:30.257336 11195 net.cpp:435] loss <- label
I0502 15:30:30.257342 11195 net.cpp:409] loss -> loss
I0502 15:30:30.257380 11195 net.cpp:144] Setting up loss
…
