…
I0505 08:30:57.254721  5296 net.cpp:323] The NetState phase (0) differed from the phase (1) specified by a rule in layer intercept
I0505 08:30:57.254737  5296 net.cpp:323] The NetState phase (0) differed from the phase (1) specified by a rule in layer accuracy
I0505 08:30:57.254817  5296 net.cpp:52] Initializing net from parameters: 
state {
  phase: TRAIN
}
layer {
  name: "parameters"
  type: "HDF5Data"
  top: "data"
  top: "label"
  include {
    phase: TRAIN
  }
  hdf5_data_param {
    source: "/home/purduethu/scratch/radon/d/deng106/CNNStatisticalModel/distributions/input/50_distributions_400_sample_size_train-distributions-path.txt"
    batch_size: 20
  }
}
layer {
  name: "conv1"
  type: "Convolution"
  bottom: "data"
  top: "conv1"
  param {
    lr_mult: 1
  }
  param {
    lr_mult: 2
  }
  convolution_param {
    num_output: 64
    pad: 2
    kernel_size: 5
    stride: 1
    weight_filler {
      type: "gaussian"
      std: 0.0001
    }
    bias_filler {
      type: "constant"
    }
  }
}
layer {
  name: "relu1"
  type: "ReLU"
  bottom: "conv1"
  top: "conv1"
}
layer {
  name: "pool1"
  type: "Pooling"
  bottom: "conv1"
  top: "pool1"
  pooling_param {
    pool: MAX
    kernel_size: 3
    stride: 2
  }
}
layer {
  name: "conv2"
  type: "Convolution"
  bottom: "pool1"
  top: "conv2"
  param {
    lr_mult: 1
  }
  param {
    lr_mult: 2
  }
  convolution_param {
    num_output: 128
    pad: 2
    kernel_size: 5
    stride: 1
    weight_filler {
      type: "gaussian"
      std: 0.01
    }
    bias_filler {
      type: "constant"
    }
  }
}
layer {
  name: "relu2"
  type: "ReLU"
  bottom: "conv2"
  top: "conv2"
}
layer {
  name: "conv3"
  type: "Convolution"
  bottom: "conv2"
  top: "conv3"
  param {
    lr_mult: 1
  }
  param {
    lr_mult: 2
  }
  convolution_param {
    num_output: 128
    pad: 2
    kernel_size: 5
    stride: 1
    weight_filler {
      type: "gaussian"
      std: 0.01
    }
    bias_filler {
      type: "constant"
    }
  }
}
layer {
  name: "relu3"
  type: "ReLU"
  bottom: "conv3"
  top: "conv3"
}
layer {
  name: "pool3"
  type: "Pooling"
  bottom: "conv3"
  top: "pool3"
  pooling_param {
    pool: AVE
    kernel_size: 3
    stride: 2
  }
}
layer {
  name: "ip1"
  type: "InnerProduct"
  bottom: "pool3"
  top: "ip1"
  param {
    lr_mult: 1
  }
  param {
    lr_mult: 2
  }
  inner_product_param {
    num_output: 512
    weight_filler {
      type: "gaussian"
      std: 0.1
    }
    bias_filler {
      type: "constant"
    }
  }
}
layer {
  name: "ip2"
  type: "InnerProduct"
  bottom: "ip1"
  top: "ip2"
  param {
    lr_mult: 1
  }
  param {
    lr_mult: 2
  }
  inner_product_param {
    num_output: 256
    weight_filler {
      type: "gaussian"
      std: 0.1
    }
    bias_filler {
      type: "constant"
    }
  }
}
layer {
  name: "ip3"
  type: "InnerProduct"
  bottom: "ip2"
  top: "ip3"
  param {
    lr_mult: 1
  }
  param {
    lr_mult: 2
  }
  inner_product_param {
    num_output: 50
    weight_filler {
      type: "gaussian"
      std: 0.1
    }
    bias_filler {
      type: "constant"
    }
  }
}
layer {
  name: "loss"
  type: "SoftmaxWithLoss"
  bottom: "ip3"
  bottom: "label"
  top: "loss"
}
I0505 08:30:57.254880  5296 layer_factory.hpp:77] Creating layer parameters
I0505 08:30:57.254895  5296 net.cpp:94] Creating Layer parameters
I0505 08:30:57.254909  5296 net.cpp:409] parameters -> data
I0505 08:30:57.254930  5296 net.cpp:409] parameters -> label
I0505 08:30:57.254940  5296 hdf5_data_layer.cpp:79] Loading list of HDF5 filenames from: /home/purduethu/scratch/radon/d/deng106/CNNStatisticalModel/distributions/input/50_distributions_400_sample_size_train-distributions-path.txt
I0505 08:30:57.254962  5296 hdf5_data_layer.cpp:93] Number of HDF5 files: 1
I0505 08:30:57.255439  5296 hdf5.cpp:32] Datatype class: H5T_FLOAT
I0505 08:30:57.891448  5296 hdf5.cpp:35] Datatype class: H5T_INTEGER
I0505 08:30:57.894198  5296 net.cpp:144] Setting up parameters
I0505 08:30:57.894220  5296 net.cpp:151] Top shape: 20 1 20 20 (8000)
I0505 08:30:57.894225  5296 net.cpp:151] Top shape: 20 (20)
I0505 08:30:57.894229  5296 net.cpp:159] Memory required for data: 32080
I0505 08:30:57.894237  5296 layer_factory.hpp:77] Creating layer conv1
I0505 08:30:57.894259  5296 net.cpp:94] Creating Layer conv1
I0505 08:30:57.894265  5296 net.cpp:435] conv1 <- data
I0505 08:30:57.894275  5296 net.cpp:409] conv1 -> conv1
I0505 08:30:57.899031  5296 net.cpp:144] Setting up conv1
I0505 08:30:57.899049  5296 net.cpp:151] Top shape: 20 64 20 20 (512000)
I0505 08:30:57.899052  5296 net.cpp:159] Memory required for data: 2080080
I0505 08:30:57.899065  5296 layer_factory.hpp:77] Creating layer relu1
I0505 08:30:57.899072  5296 net.cpp:94] Creating Layer relu1
I0505 08:30:57.899076  5296 net.cpp:435] relu1 <- conv1
I0505 08:30:57.899081  5296 net.cpp:396] relu1 -> conv1 (in-place)
I0505 08:30:57.899097  5296 net.cpp:144] Setting up relu1
I0505 08:30:57.899102  5296 net.cpp:151] Top shape: 20 64 20 20 (512000)
I0505 08:30:57.899106  5296 net.cpp:159] Memory required for data: 4128080
I0505 08:30:57.899109  5296 layer_factory.hpp:77] Creating layer pool1
I0505 08:30:57.899116  5296 net.cpp:94] Creating Layer pool1
I0505 08:30:57.899121  5296 net.cpp:435] pool1 <- conv1
I0505 08:30:57.899124  5296 net.cpp:409] pool1 -> pool1
I0505 08:30:57.899166  5296 net.cpp:144] Setting up pool1
I0505 08:30:57.899173  5296 net.cpp:151] Top shape: 20 64 10 10 (128000)
I0505 08:30:57.899176  5296 net.cpp:159] Memory required for data: 4640080
I0505 08:30:57.899179  5296 layer_factory.hpp:77] Creating layer conv2
I0505 08:30:57.899188  5296 net.cpp:94] Creating Layer conv2
I0505 08:30:57.899193  5296 net.cpp:435] conv2 <- pool1
I0505 08:30:57.899197  5296 net.cpp:409] conv2 -> conv2
I0505 08:30:57.909315  5296 net.cpp:144] Setting up conv2
I0505 08:30:57.909332  5296 net.cpp:151] Top shape: 20 128 10 10 (256000)
I0505 08:30:57.909335  5296 net.cpp:159] Memory required for data: 5664080
I0505 08:30:57.909343  5296 layer_factory.hpp:77] Creating layer relu2
I0505 08:30:57.909349  5296 net.cpp:94] Creating Layer relu2
I0505 08:30:57.909353  5296 net.cpp:435] relu2 <- conv2
I0505 08:30:57.909358  5296 net.cpp:396] relu2 -> conv2 (in-place)
I0505 08:30:57.909364  5296 net.cpp:144] Setting up relu2
I0505 08:30:57.909369  5296 net.cpp:151] Top shape: 20 128 10 10 (256000)
I0505 08:30:57.909373  5296 net.cpp:159] Memory required for data: 6688080
I0505 08:30:57.909375  5296 layer_factory.hpp:77] Creating layer conv3
I0505 08:30:57.909384  5296 net.cpp:94] Creating Layer conv3
I0505 08:30:57.909386  5296 net.cpp:435] conv3 <- conv2
I0505 08:30:57.909391  5296 net.cpp:409] conv3 -> conv3
I0505 08:30:57.926409  5296 net.cpp:144] Setting up conv3
I0505 08:30:57.926422  5296 net.cpp:151] Top shape: 20 128 10 10 (256000)
I0505 08:30:57.926427  5296 net.cpp:159] Memory required for data: 7712080
I0505 08:30:57.926441  5296 layer_factory.hpp:77] Creating layer relu3
I0505 08:30:57.926447  5296 net.cpp:94] Creating Layer relu3
I0505 08:30:57.926451  5296 net.cpp:435] relu3 <- conv3
I0505 08:30:57.926456  5296 net.cpp:396] relu3 -> conv3 (in-place)
I0505 08:30:57.926465  5296 net.cpp:144] Setting up relu3
I0505 08:30:57.926470  5296 net.cpp:151] Top shape: 20 128 10 10 (256000)
I0505 08:30:57.926473  5296 net.cpp:159] Memory required for data: 8736080
I0505 08:30:57.926476  5296 layer_factory.hpp:77] Creating layer pool3
I0505 08:30:57.926482  5296 net.cpp:94] Creating Layer pool3
I0505 08:30:57.926492  5296 net.cpp:435] pool3 <- conv3
I0505 08:30:57.926497  5296 net.cpp:409] pool3 -> pool3
I0505 08:30:57.926532  5296 net.cpp:144] Setting up pool3
I0505 08:30:57.926539  5296 net.cpp:151] Top shape: 20 128 5 5 (64000)
I0505 08:30:57.926542  5296 net.cpp:159] Memory required for data: 8992080
I0505 08:30:57.926547  5296 layer_factory.hpp:77] Creating layer ip1
I0505 08:30:57.926555  5296 net.cpp:94] Creating Layer ip1
I0505 08:30:57.926559  5296 net.cpp:435] ip1 <- pool3
I0505 08:30:57.926564  5296 net.cpp:409] ip1 -> ip1
I0505 08:30:57.965883  5296 net.cpp:144] Setting up ip1
I0505 08:30:57.965899  5296 net.cpp:151] Top shape: 20 512 (10240)
I0505 08:30:57.965903  5296 net.cpp:159] Memory required for data: 9033040
I0505 08:30:57.965909  5296 layer_factory.hpp:77] Creating layer ip2
I0505 08:30:57.965916  5296 net.cpp:94] Creating Layer ip2
I0505 08:30:57.965920  5296 net.cpp:435] ip2 <- ip1
I0505 08:30:57.965925  5296 net.cpp:409] ip2 -> ip2
I0505 08:30:57.969039  5296 net.cpp:144] Setting up ip2
I0505 08:30:57.969048  5296 net.cpp:151] Top shape: 20 256 (5120)
I0505 08:30:57.969051  5296 net.cpp:159] Memory required for data: 9053520
I0505 08:30:57.969058  5296 layer_factory.hpp:77] Creating layer ip3
I0505 08:30:57.969064  5296 net.cpp:94] Creating Layer ip3
I0505 08:30:57.969068  5296 net.cpp:435] ip3 <- ip2
I0505 08:30:57.969072  5296 net.cpp:409] ip3 -> ip3
I0505 08:30:57.970062  5296 net.cpp:144] Setting up ip3
I0505 08:30:57.970074  5296 net.cpp:151] Top shape: 20 50 (1000)
I0505 08:30:57.970078  5296 net.cpp:159] Memory required for data: 9057520
I0505 08:30:57.970084  5296 layer_factory.hpp:77] Creating layer loss
I0505 08:30:57.970090  5296 net.cpp:94] Creating Layer loss
I0505 08:30:57.970094  5296 net.cpp:435] loss <- ip3
I0505 08:30:57.970098  5296 net.cpp:435] loss <- label
I0505 08:30:57.970103  5296 net.cpp:409] loss -> loss
I0505 08:30:57.970115  5296 layer_factory.hpp:77] Creating layer loss
…
I0505 08:30:57.970547  5296 solver.cpp:181] Creating test net (#0) specified by net file: ./protocol/dis_50_400_dimension.protocol_distribution
I0505 08:30:57.970572  5296 net.cpp:323] The NetState phase (1) differed from the phase (0) specified by a rule in layer parameters
I0505 08:30:57.970659  5296 net.cpp:52] Initializing net from parameters: 
state {
  phase: TEST
}
layer {
  name: "intercept"
  type: "HDF5Data"
  top: "data"
  top: "label"
  include {
    phase: TEST
  }
  hdf5_data_param {
    source: "/home/purduethu/scratch/radon/d/deng106/CNNStatisticalModel/distributions/input/50_distributions_400_sample_size_test-distributions-path.txt"
    batch_size: 20
  }
}
layer {
  name: "conv1"
  type: "Convolution"
  bottom: "data"
  top: "conv1"
  param {
    lr_mult: 1
  }
  param {
    lr_mult: 2
  }
  convolution_param {
    num_output: 64
    pad: 2
    kernel_size: 5
    stride: 1
    weight_filler {
      type: "gaussian"
      std: 0.0001
    }
    bias_filler {
      type: "constant"
    }
  }
}
layer {
  name: "relu1"
  type: "ReLU"
  bottom: "conv1"
  top: "conv1"
}
layer {
  name: "pool1"
  type: "Pooling"
  bottom: "conv1"
  top: "pool1"
  pooling_param {
    pool: MAX
    kernel_size: 3
    stride: 2
  }
}
layer {
  name: "conv2"
  type: "Convolution"
  bottom: "pool1"
  top: "conv2"
  param {
    lr_mult: 1
  }
  param {
    lr_mult: 2
  }
  convolution_param {
    num_output: 128
    pad: 2
    kernel_size: 5
    stride: 1
    weight_filler {
      type: "gaussian"
      std: 0.01
    }
    bias_filler {
      type: "constant"
    }
  }
}
layer {
  name: "relu2"
  type: "ReLU"
  bottom: "conv2"
  top: "conv2"
}
layer {
  name: "conv3"
  type: "Convolution"
  bottom: "conv2"
  top: "conv3"
  param {
    lr_mult: 1
  }
  param {
    lr_mult: 2
  }
  convolution_param {
    num_output: 128
    pad: 2
    kernel_size: 5
    stride: 1
    weight_filler {
      type: "gaussian"
      std: 0.01
    }
    bias_filler {
      type: "constant"
    }
  }
}
layer {
  name: "relu3"
  type: "ReLU"
  bottom: "conv3"
  top: "conv3"
}
layer {
  name: "pool3"
  type: "Pooling"
  bottom: "conv3"
  top: "pool3"
  pooling_param {
    pool: AVE
    kernel_size: 3
    stride: 2
  }
}
layer {
  name: "ip1"
  type: "InnerProduct"
  bottom: "pool3"
  top: "ip1"
  param {
    lr_mult: 1
  }
  param {
    lr_mult: 2
  }
  inner_product_param {
    num_output: 512
    weight_filler {
      type: "gaussian"
      std: 0.1
    }
    bias_filler {
      type: "constant"
    }
  }
}
layer {
  name: "ip2"
  type: "InnerProduct"
  bottom: "ip1"
  top: "ip2"
  param {
    lr_mult: 1
  }
  param {
    lr_mult: 2
  }
  inner_product_param {
    num_output: 256
    weight_filler {
      type: "gaussian"
      std: 0.1
    }
    bias_filler {
      type: "constant"
    }
  }
}
layer {
  name: "ip3"
  type: "InnerProduct"
  bottom: "ip2"
  top: "ip3"
  param {
    lr_mult: 1
  }
  param {
    lr_mult: 2
  }
  inner_product_param {
    num_output: 50
    weight_filler {
      type: "gaussian"
      std: 0.1
    }
    bias_filler {
      type: "constant"
    }
  }
}
layer {
  name: "accuracy"
  type: "Accuracy"
  bottom: "ip3"
  bottom: "label"
  top: "accuracy"
  include {
    phase: TEST
  }
}
layer {
  name: "loss"
  type: "SoftmaxWithLoss"
  bottom: "ip3"
  bottom: "label"
  top: "loss"
}
I0505 08:30:57.970723  5296 layer_factory.hpp:77] Creating layer intercept
I0505 08:30:57.970731  5296 net.cpp:94] Creating Layer intercept
I0505 08:30:57.970736  5296 net.cpp:409] intercept -> data
I0505 08:30:57.970742  5296 net.cpp:409] intercept -> label
I0505 08:30:57.970749  5296 hdf5_data_layer.cpp:79] Loading list of HDF5 filenames from: /home/purduethu/scratch/radon/d/deng106/CNNStatisticalModel/distributions/input/50_distributions_400_sample_size_test-distributions-path.txt
I0505 08:30:57.970768  5296 hdf5_data_layer.cpp:93] Number of HDF5 files: 1
I0505 08:30:58.129739  5296 net.cpp:144] Setting up intercept
I0505 08:30:58.129775  5296 net.cpp:151] Top shape: 20 1 20 20 (8000)
I0505 08:30:58.129781  5296 net.cpp:151] Top shape: 20 (20)
I0505 08:30:58.129783  5296 net.cpp:159] Memory required for data: 32080
I0505 08:30:58.129789  5296 layer_factory.hpp:77] Creating layer label_intercept_1_split
I0505 08:30:58.129817  5296 net.cpp:94] Creating Layer label_intercept_1_split
I0505 08:30:58.129822  5296 net.cpp:435] label_intercept_1_split <- label
I0505 08:30:58.129828  5296 net.cpp:409] label_intercept_1_split -> label_intercept_1_split_0
I0505 08:30:58.129837  5296 net.cpp:409] label_intercept_1_split -> label_intercept_1_split_1
I0505 08:30:58.129863  5296 net.cpp:144] Setting up label_intercept_1_split
I0505 08:30:58.129869  5296 net.cpp:151] Top shape: 20 (20)
I0505 08:30:58.129873  5296 net.cpp:151] Top shape: 20 (20)
I0505 08:30:58.129875  5296 net.cpp:159] Memory required for data: 32240
I0505 08:30:58.129886  5296 layer_factory.hpp:77] Creating layer conv1
I0505 08:30:58.129896  5296 net.cpp:94] Creating Layer conv1
I0505 08:30:58.129900  5296 net.cpp:435] conv1 <- data
I0505 08:30:58.129905  5296 net.cpp:409] conv1 -> conv1
I0505 08:30:58.130602  5296 net.cpp:144] Setting up conv1
I0505 08:30:58.130615  5296 net.cpp:151] Top shape: 20 64 20 20 (512000)
I0505 08:30:58.130620  5296 net.cpp:159] Memory required for data: 2080240
I0505 08:30:58.130630  5296 layer_factory.hpp:77] Creating layer relu1
I0505 08:30:58.130635  5296 net.cpp:94] Creating Layer relu1
I0505 08:30:58.130640  5296 net.cpp:435] relu1 <- conv1
I0505 08:30:58.130643  5296 net.cpp:396] relu1 -> conv1 (in-place)
I0505 08:30:58.130650  5296 net.cpp:144] Setting up relu1
I0505 08:30:58.130656  5296 net.cpp:151] Top shape: 20 64 20 20 (512000)
I0505 08:30:58.130658  5296 net.cpp:159] Memory required for data: 4128240
I0505 08:30:58.130661  5296 layer_factory.hpp:77] Creating layer pool1
I0505 08:30:58.130668  5296 net.cpp:94] Creating Layer pool1
I0505 08:30:58.130672  5296 net.cpp:435] pool1 <- conv1
I0505 08:30:58.130676  5296 net.cpp:409] pool1 -> pool1
I0505 08:30:58.130709  5296 net.cpp:144] Setting up pool1
I0505 08:30:58.130715  5296 net.cpp:151] Top shape: 20 64 10 10 (128000)
I0505 08:30:58.130718  5296 net.cpp:159] Memory required for data: 4640240
I0505 08:30:58.130722  5296 layer_factory.hpp:77] Creating layer conv2
I0505 08:30:58.130729  5296 net.cpp:94] Creating Layer conv2
I0505 08:30:58.130733  5296 net.cpp:435] conv2 <- pool1
I0505 08:30:58.130738  5296 net.cpp:409] conv2 -> conv2
I0505 08:30:58.137958  5296 net.cpp:144] Setting up conv2
I0505 08:30:58.137971  5296 net.cpp:151] Top shape: 20 128 10 10 (256000)
I0505 08:30:58.137975  5296 net.cpp:159] Memory required for data: 5664240
I0505 08:30:58.137984  5296 layer_factory.hpp:77] Creating layer relu2
I0505 08:30:58.137989  5296 net.cpp:94] Creating Layer relu2
I0505 08:30:58.137992  5296 net.cpp:435] relu2 <- conv2
I0505 08:30:58.137997  5296 net.cpp:396] relu2 -> conv2 (in-place)
I0505 08:30:58.138005  5296 net.cpp:144] Setting up relu2
I0505 08:30:58.138008  5296 net.cpp:151] Top shape: 20 128 10 10 (256000)
I0505 08:30:58.138011  5296 net.cpp:159] Memory required for data: 6688240
I0505 08:30:58.138015  5296 layer_factory.hpp:77] Creating layer conv3
I0505 08:30:58.138022  5296 net.cpp:94] Creating Layer conv3
I0505 08:30:58.138025  5296 net.cpp:435] conv3 <- conv2
I0505 08:30:58.138031  5296 net.cpp:409] conv3 -> conv3
I0505 08:30:58.151129  5296 net.cpp:144] Setting up conv3
I0505 08:30:58.151142  5296 net.cpp:151] Top shape: 20 128 10 10 (256000)
I0505 08:30:58.151146  5296 net.cpp:159] Memory required for data: 7712240
I0505 08:30:58.151154  5296 layer_factory.hpp:77] Creating layer relu3
I0505 08:30:58.151161  5296 net.cpp:94] Creating Layer relu3
I0505 08:30:58.151165  5296 net.cpp:435] relu3 <- conv3
I0505 08:30:58.151170  5296 net.cpp:396] relu3 -> conv3 (in-place)
I0505 08:30:58.151176  5296 net.cpp:144] Setting up relu3
I0505 08:30:58.151181  5296 net.cpp:151] Top shape: 20 128 10 10 (256000)
I0505 08:30:58.151185  5296 net.cpp:159] Memory required for data: 8736240
I0505 08:30:58.151187  5296 layer_factory.hpp:77] Creating layer pool3
I0505 08:30:58.151192  5296 net.cpp:94] Creating Layer pool3
I0505 08:30:58.151196  5296 net.cpp:435] pool3 <- conv3
I0505 08:30:58.151199  5296 net.cpp:409] pool3 -> pool3
I0505 08:30:58.151226  5296 net.cpp:144] Setting up pool3
I0505 08:30:58.151237  5296 net.cpp:151] Top shape: 20 128 5 5 (64000)
I0505 08:30:58.151240  5296 net.cpp:159] Memory required for data: 8992240
I0505 08:30:58.151243  5296 layer_factory.hpp:77] Creating layer ip1
I0505 08:30:58.151250  5296 net.cpp:94] Creating Layer ip1
I0505 08:30:58.151253  5296 net.cpp:435] ip1 <- pool3
I0505 08:30:58.151258  5296 net.cpp:409] ip1 -> ip1
I0505 08:30:58.190632  5296 net.cpp:144] Setting up ip1
I0505 08:30:58.190646  5296 net.cpp:151] Top shape: 20 512 (10240)
I0505 08:30:58.190649  5296 net.cpp:159] Memory required for data: 9033200
I0505 08:30:58.190663  5296 layer_factory.hpp:77] Creating layer ip2
I0505 08:30:58.190671  5296 net.cpp:94] Creating Layer ip2
I0505 08:30:58.190675  5296 net.cpp:435] ip2 <- ip1
I0505 08:30:58.190680  5296 net.cpp:409] ip2 -> ip2
I0505 08:30:58.193778  5296 net.cpp:144] Setting up ip2
I0505 08:30:58.193788  5296 net.cpp:151] Top shape: 20 256 (5120)
I0505 08:30:58.193790  5296 net.cpp:159] Memory required for data: 9053680
I0505 08:30:58.193797  5296 layer_factory.hpp:77] Creating layer ip3
I0505 08:30:58.193804  5296 net.cpp:94] Creating Layer ip3
I0505 08:30:58.193807  5296 net.cpp:435] ip3 <- ip2
I0505 08:30:58.193811  5296 net.cpp:409] ip3 -> ip3
I0505 08:30:58.194178  5296 net.cpp:144] Setting up ip3
I0505 08:30:58.194185  5296 net.cpp:151] Top shape: 20 50 (1000)
I0505 08:30:58.194188  5296 net.cpp:159] Memory required for data: 9057680
I0505 08:30:58.194193  5296 layer_factory.hpp:77] Creating layer ip3_ip3_0_split
I0505 08:30:58.194198  5296 net.cpp:94] Creating Layer ip3_ip3_0_split
I0505 08:30:58.194202  5296 net.cpp:435] ip3_ip3_0_split <- ip3
I0505 08:30:58.194206  5296 net.cpp:409] ip3_ip3_0_split -> ip3_ip3_0_split_0
I0505 08:30:58.194211  5296 net.cpp:409] ip3_ip3_0_split -> ip3_ip3_0_split_1
I0505 08:30:58.194236  5296 net.cpp:144] Setting up ip3_ip3_0_split
I0505 08:30:58.194241  5296 net.cpp:151] Top shape: 20 50 (1000)
I0505 08:30:58.194244  5296 net.cpp:151] Top shape: 20 50 (1000)
I0505 08:30:58.194247  5296 net.cpp:159] Memory required for data: 9065680
I0505 08:30:58.194250  5296 layer_factory.hpp:77] Creating layer accuracy
I0505 08:30:58.194260  5296 net.cpp:94] Creating Layer accuracy
I0505 08:30:58.194264  5296 net.cpp:435] accuracy <- ip3_ip3_0_split_0
I0505 08:30:58.194267  5296 net.cpp:435] accuracy <- label_intercept_1_split_0
I0505 08:30:58.194272  5296 net.cpp:409] accuracy -> accuracy
…
