…
I0506 01:15:33.445518 11051 net.cpp:323] The NetState phase (0) differed from the phase (1) specified by a rule in layer intercept
I0506 01:15:33.445535 11051 net.cpp:323] The NetState phase (0) differed from the phase (1) specified by a rule in layer loss
I0506 01:15:33.445605 11051 net.cpp:52] Initializing net from parameters: 
state {
  phase: TRAIN
}
layer {
  name: "parameters"
  type: "HDF5Data"
  top: "data"
  top: "label"
  include {
    phase: TRAIN
  }
  hdf5_data_param {
    source: "/home/purduethu/scratch/radon/d/deng106/CNNStatisticalModel/distributions/input/5_distributions_100_sample_size_train-parameters-path.txt"
    batch_size: 20
  }
}
layer {
  name: "conv1"
  type: "Convolution"
  bottom: "data"
  top: "conv1"
  param {
    lr_mult: 1
  }
  param {
    lr_mult: 2
  }
  convolution_param {
    num_output: 64
    pad: 2
    kernel_size: 5
    stride: 1
    weight_filler {
      type: "gaussian"
      std: 0.0001
    }
    bias_filler {
      type: "constant"
    }
  }
}
layer {
  name: "relu1"
  type: "ReLU"
  bottom: "conv1"
  top: "conv1"
}
layer {
  name: "pool1"
  type: "Pooling"
  bottom: "conv1"
  top: "pool1"
  pooling_param {
    pool: MAX
    kernel_size: 3
    stride: 2
  }
}
layer {
  name: "conv2"
  type: "Convolution"
  bottom: "pool1"
  top: "conv2"
  param {
    lr_mult: 1
  }
  param {
    lr_mult: 2
  }
  convolution_param {
    num_output: 128
    pad: 2
    kernel_size: 5
    stride: 1
    weight_filler {
      type: "gaussian"
      std: 0.01
    }
    bias_filler {
      type: "constant"
    }
  }
}
layer {
  name: "relu2"
  type: "ReLU"
  bottom: "conv2"
  top: "conv2"
}
layer {
  name: "conv3"
  type: "Convolution"
  bottom: "conv2"
  top: "conv3"
  param {
    lr_mult: 1
  }
  param {
    lr_mult: 2
  }
  convolution_param {
    num_output: 128
    pad: 2
    kernel_size: 5
    stride: 1
    weight_filler {
      type: "gaussian"
      std: 0.01
    }
    bias_filler {
      type: "constant"
    }
  }
}
layer {
  name: "relu3"
  type: "ReLU"
  bottom: "conv3"
  top: "conv3"
}
layer {
  name: "pool3"
  type: "Pooling"
  bottom: "conv3"
  top: "pool3"
  pooling_param {
    pool: AVE
    kernel_size: 3
    stride: 2
  }
}
layer {
  name: "ip1"
  type: "InnerProduct"
  bottom: "pool3"
  top: "ip1"
  param {
    lr_mult: 1
  }
  param {
    lr_mult: 2
  }
  inner_product_param {
    num_output: 512
    weight_filler {
      type: "gaussian"
      std: 0.1
    }
    bias_filler {
      type: "constant"
    }
  }
}
layer {
  name: "ip2"
  type: "InnerProduct"
  bottom: "ip1"
  top: "ip2"
  param {
    lr_mult: 1
  }
  param {
    lr_mult: 2
  }
  inner_product_param {
    num_output: 256
    weight_filler {
      type: "gaussian"
      std: 0.1
    }
    bias_filler {
      type: "constant"
    }
  }
}
layer {
  name: "ip3"
  type: "InnerProduct"
  bottom: "ip2"
  top: "ip3"
  param {
    lr_mult: 1
  }
  param {
    lr_mult: 2
  }
  inner_product_param {
    num_output: 1
    weight_filler {
      type: "gaussian"
      std: 0.1
    }
    bias_filler {
      type: "constant"
    }
  }
}
layer {
  name: "loss"
  type: "HuberLoss"
  bottom: "ip3"
  bottom: "label"
  top: "loss"
  include {
    phase: TRAIN
  }
}
I0506 01:15:33.445660 11051 layer_factory.hpp:77] Creating layer parameters
I0506 01:15:33.445675 11051 net.cpp:94] Creating Layer parameters
I0506 01:15:33.445680 11051 net.cpp:409] parameters -> data
I0506 01:15:33.445690 11051 net.cpp:409] parameters -> label
I0506 01:15:33.445698 11051 hdf5_data_layer.cpp:79] Loading list of HDF5 filenames from: /home/purduethu/scratch/radon/d/deng106/CNNStatisticalModel/distributions/input/5_distributions_100_sample_size_train-parameters-path.txt
I0506 01:15:33.445714 11051 hdf5_data_layer.cpp:93] Number of HDF5 files: 1
I0506 01:15:33.446316 11051 hdf5.cpp:32] Datatype class: H5T_FLOAT
I0506 01:15:33.465872 11051 net.cpp:144] Setting up parameters
I0506 01:15:33.465909 11051 net.cpp:151] Top shape: 20 1 10 10 (2000)
I0506 01:15:33.465914 11051 net.cpp:151] Top shape: 20 (20)
I0506 01:15:33.465919 11051 net.cpp:159] Memory required for data: 8080
I0506 01:15:33.465926 11051 layer_factory.hpp:77] Creating layer conv1
I0506 01:15:33.465951 11051 net.cpp:94] Creating Layer conv1
I0506 01:15:33.465956 11051 net.cpp:435] conv1 <- data
I0506 01:15:33.465963 11051 net.cpp:409] conv1 -> conv1
I0506 01:15:33.470340 11051 net.cpp:144] Setting up conv1
I0506 01:15:33.470357 11051 net.cpp:151] Top shape: 20 64 10 10 (128000)
I0506 01:15:33.470362 11051 net.cpp:159] Memory required for data: 520080
I0506 01:15:33.470373 11051 layer_factory.hpp:77] Creating layer relu1
I0506 01:15:33.470382 11051 net.cpp:94] Creating Layer relu1
I0506 01:15:33.470386 11051 net.cpp:435] relu1 <- conv1
I0506 01:15:33.470391 11051 net.cpp:396] relu1 -> conv1 (in-place)
I0506 01:15:33.470407 11051 net.cpp:144] Setting up relu1
I0506 01:15:33.470412 11051 net.cpp:151] Top shape: 20 64 10 10 (128000)
I0506 01:15:33.470417 11051 net.cpp:159] Memory required for data: 1032080
I0506 01:15:33.470419 11051 layer_factory.hpp:77] Creating layer pool1
I0506 01:15:33.470425 11051 net.cpp:94] Creating Layer pool1
I0506 01:15:33.470429 11051 net.cpp:435] pool1 <- conv1
I0506 01:15:33.470433 11051 net.cpp:409] pool1 -> pool1
I0506 01:15:33.470490 11051 net.cpp:144] Setting up pool1
I0506 01:15:33.470499 11051 net.cpp:151] Top shape: 20 64 5 5 (32000)
I0506 01:15:33.470502 11051 net.cpp:159] Memory required for data: 1160080
I0506 01:15:33.470505 11051 layer_factory.hpp:77] Creating layer conv2
I0506 01:15:33.470515 11051 net.cpp:94] Creating Layer conv2
I0506 01:15:33.470518 11051 net.cpp:435] conv2 <- pool1
I0506 01:15:33.470525 11051 net.cpp:409] conv2 -> conv2
I0506 01:15:33.480057 11051 net.cpp:144] Setting up conv2
I0506 01:15:33.480072 11051 net.cpp:151] Top shape: 20 128 5 5 (64000)
I0506 01:15:33.480077 11051 net.cpp:159] Memory required for data: 1416080
I0506 01:15:33.480085 11051 layer_factory.hpp:77] Creating layer relu2
I0506 01:15:33.480093 11051 net.cpp:94] Creating Layer relu2
I0506 01:15:33.480096 11051 net.cpp:435] relu2 <- conv2
I0506 01:15:33.480101 11051 net.cpp:396] relu2 -> conv2 (in-place)
I0506 01:15:33.480109 11051 net.cpp:144] Setting up relu2
I0506 01:15:33.480113 11051 net.cpp:151] Top shape: 20 128 5 5 (64000)
I0506 01:15:33.480118 11051 net.cpp:159] Memory required for data: 1672080
I0506 01:15:33.480120 11051 layer_factory.hpp:77] Creating layer conv3
I0506 01:15:33.480129 11051 net.cpp:94] Creating Layer conv3
I0506 01:15:33.480132 11051 net.cpp:435] conv3 <- conv2
I0506 01:15:33.480137 11051 net.cpp:409] conv3 -> conv3
I0506 01:15:33.495867 11051 net.cpp:144] Setting up conv3
I0506 01:15:33.495904 11051 net.cpp:151] Top shape: 20 128 5 5 (64000)
I0506 01:15:33.495915 11051 net.cpp:159] Memory required for data: 1928080
I0506 01:15:33.495939 11051 layer_factory.hpp:77] Creating layer relu3
I0506 01:15:33.495955 11051 net.cpp:94] Creating Layer relu3
I0506 01:15:33.495977 11051 net.cpp:435] relu3 <- conv3
I0506 01:15:33.495992 11051 net.cpp:396] relu3 -> conv3 (in-place)
I0506 01:15:33.496012 11051 net.cpp:144] Setting up relu3
I0506 01:15:33.496026 11051 net.cpp:151] Top shape: 20 128 5 5 (64000)
I0506 01:15:33.496035 11051 net.cpp:159] Memory required for data: 2184080
I0506 01:15:33.496044 11051 layer_factory.hpp:77] Creating layer pool3
I0506 01:15:33.496059 11051 net.cpp:94] Creating Layer pool3
I0506 01:15:33.496069 11051 net.cpp:435] pool3 <- conv3
I0506 01:15:33.496083 11051 net.cpp:409] pool3 -> pool3
I0506 01:15:33.496186 11051 net.cpp:144] Setting up pool3
I0506 01:15:33.496194 11051 net.cpp:151] Top shape: 20 128 2 2 (10240)
I0506 01:15:33.496197 11051 net.cpp:159] Memory required for data: 2225040
I0506 01:15:33.496201 11051 layer_factory.hpp:77] Creating layer ip1
I0506 01:15:33.496212 11051 net.cpp:94] Creating Layer ip1
I0506 01:15:33.496215 11051 net.cpp:435] ip1 <- pool3
I0506 01:15:33.496220 11051 net.cpp:409] ip1 -> ip1
I0506 01:15:33.503590 11051 net.cpp:144] Setting up ip1
I0506 01:15:33.503605 11051 net.cpp:151] Top shape: 20 512 (10240)
I0506 01:15:33.503610 11051 net.cpp:159] Memory required for data: 2266000
I0506 01:15:33.503617 11051 layer_factory.hpp:77] Creating layer ip2
I0506 01:15:33.503624 11051 net.cpp:94] Creating Layer ip2
I0506 01:15:33.503628 11051 net.cpp:435] ip2 <- ip1
I0506 01:15:33.503634 11051 net.cpp:409] ip2 -> ip2
I0506 01:15:33.507794 11051 net.cpp:144] Setting up ip2
I0506 01:15:33.507810 11051 net.cpp:151] Top shape: 20 256 (5120)
I0506 01:15:33.507814 11051 net.cpp:159] Memory required for data: 2286480
I0506 01:15:33.507823 11051 layer_factory.hpp:77] Creating layer ip3
I0506 01:15:33.507832 11051 net.cpp:94] Creating Layer ip3
I0506 01:15:33.507835 11051 net.cpp:435] ip3 <- ip2
I0506 01:15:33.507841 11051 net.cpp:409] ip3 -> ip3
I0506 01:15:33.507952 11051 net.cpp:144] Setting up ip3
I0506 01:15:33.507961 11051 net.cpp:151] Top shape: 20 1 (20)
I0506 01:15:33.507964 11051 net.cpp:159] Memory required for data: 2286560
I0506 01:15:33.507971 11051 layer_factory.hpp:77] Creating layer loss
I0506 01:15:33.507977 11051 net.cpp:94] Creating Layer loss
I0506 01:15:33.507980 11051 net.cpp:435] loss <- ip3
I0506 01:15:33.507985 11051 net.cpp:435] loss <- label
I0506 01:15:33.507989 11051 net.cpp:409] loss -> loss
I0506 01:15:33.508044 11051 net.cpp:144] Setting up loss
…
I0506 01:15:33.547861 11051 net.cpp:323] The NetState phase (0) differed from the phase (1) specified by a rule in layer intercept
I0506 01:15:33.547875 11051 net.cpp:323] The NetState phase (0) differed from the phase (1) specified by a rule in layer accuracy
I0506 01:15:33.547947 11051 net.cpp:52] Initializing net from parameters: 
state {
  phase: TRAIN
}
layer {
  name: "parameters"
  type: "HDF5Data"
  top: "data"
  top: "label"
  include {
    phase: TRAIN
  }
  hdf5_data_param {
    source: "/home/purduethu/scratch/radon/d/deng106/CNNStatisticalModel/distributions/input/5_distributions_100_sample_size_train-distributions-path.txt"
    batch_size: 20
  }
}
layer {
  name: "conv1"
  type: "Convolution"
  bottom: "data"
  top: "conv1"
  param {
    lr_mult: 1
  }
  param {
    lr_mult: 2
  }
  convolution_param {
    num_output: 64
    pad: 2
    kernel_size: 5
    stride: 1
    weight_filler {
      type: "gaussian"
      std: 0.0001
    }
    bias_filler {
      type: "constant"
    }
  }
}
layer {
  name: "relu1"
  type: "ReLU"
  bottom: "conv1"
  top: "conv1"
}
layer {
  name: "pool1"
  type: "Pooling"
  bottom: "conv1"
  top: "pool1"
  pooling_param {
    pool: MAX
    kernel_size: 3
    stride: 2
  }
}
layer {
  name: "conv2"
  type: "Convolution"
  bottom: "pool1"
  top: "conv2"
  param {
    lr_mult: 1
  }
  param {
    lr_mult: 2
  }
  convolution_param {
    num_output: 128
    pad: 2
    kernel_size: 5
    stride: 1
    weight_filler {
      type: "gaussian"
      std: 0.01
    }
    bias_filler {
      type: "constant"
    }
  }
}
layer {
  name: "relu2"
  type: "ReLU"
  bottom: "conv2"
  top: "conv2"
}
layer {
  name: "conv3"
  type: "Convolution"
  bottom: "conv2"
  top: "conv3"
  param {
    lr_mult: 1
  }
  param {
    lr_mult: 2
  }
  convolution_param {
    num_output: 128
    pad: 2
    kernel_size: 5
    stride: 1
    weight_filler {
      type: "gaussian"
      std: 0.01
    }
    bias_filler {
      type: "constant"
    }
  }
}
layer {
  name: "relu3"
  type: "ReLU"
  bottom: "conv3"
  top: "conv3"
}
layer {
  name: "pool3"
  type: "Pooling"
  bottom: "conv3"
  top: "pool3"
  pooling_param {
    pool: AVE
    kernel_size: 3
    stride: 2
  }
}
layer {
  name: "ip1"
  type: "InnerProduct"
  bottom: "pool3"
  top: "ip1"
  param {
    lr_mult: 1
  }
  param {
    lr_mult: 2
  }
  inner_product_param {
    num_output: 512
    weight_filler {
      type: "gaussian"
      std: 0.1
    }
    bias_filler {
      type: "constant"
    }
  }
}
layer {
  name: "ip2"
  type: "InnerProduct"
  bottom: "ip1"
  top: "ip2"
  param {
    lr_mult: 1
  }
  param {
    lr_mult: 2
  }
  inner_product_param {
    num_output: 256
    weight_filler {
      type: "gaussian"
      std: 0.1
    }
    bias_filler {
      type: "constant"
    }
  }
}
layer {
  name: "ip3"
  type: "InnerProduct"
  bottom: "ip2"
  top: "ip3"
  param {
    lr_mult: 1
  }
  param {
    lr_mult: 2
  }
  inner_product_param {
    num_output: 50
    weight_filler {
      type: "gaussian"
      std: 0.1
    }
    bias_filler {
      type: "constant"
    }
  }
}
layer {
  name: "loss"
  type: "SoftmaxWithLoss"
  bottom: "ip3"
  bottom: "label"
  top: "loss"
}
I0506 01:15:33.547992 11051 layer_factory.hpp:77] Creating layer parameters
I0506 01:15:33.548002 11051 net.cpp:94] Creating Layer parameters
I0506 01:15:33.548005 11051 net.cpp:409] parameters -> data
I0506 01:15:33.548013 11051 net.cpp:409] parameters -> label
I0506 01:15:33.548020 11051 hdf5_data_layer.cpp:79] Loading list of HDF5 filenames from: /home/purduethu/scratch/radon/d/deng106/CNNStatisticalModel/distributions/input/5_distributions_100_sample_size_train-distributions-path.txt
I0506 01:15:33.548035 11051 hdf5_data_layer.cpp:93] Number of HDF5 files: 1
I0506 01:15:33.565179 11051 hdf5.cpp:35] Datatype class: H5T_INTEGER
I0506 01:15:33.565639 11051 net.cpp:144] Setting up parameters
I0506 01:15:33.565655 11051 net.cpp:151] Top shape: 20 1 10 10 (2000)
I0506 01:15:33.565660 11051 net.cpp:151] Top shape: 20 (20)
I0506 01:15:33.565665 11051 net.cpp:159] Memory required for data: 8080
I0506 01:15:33.565670 11051 layer_factory.hpp:77] Creating layer conv1
I0506 01:15:33.565690 11051 net.cpp:94] Creating Layer conv1
I0506 01:15:33.565693 11051 net.cpp:435] conv1 <- data
I0506 01:15:33.565701 11051 net.cpp:409] conv1 -> conv1
I0506 01:15:33.567777 11051 net.cpp:144] Setting up conv1
I0506 01:15:33.567795 11051 net.cpp:151] Top shape: 20 64 10 10 (128000)
I0506 01:15:33.567800 11051 net.cpp:159] Memory required for data: 520080
I0506 01:15:33.567809 11051 layer_factory.hpp:77] Creating layer relu1
I0506 01:15:33.567818 11051 net.cpp:94] Creating Layer relu1
I0506 01:15:33.567822 11051 net.cpp:435] relu1 <- conv1
I0506 01:15:33.567827 11051 net.cpp:396] relu1 -> conv1 (in-place)
I0506 01:15:33.567836 11051 net.cpp:144] Setting up relu1
I0506 01:15:33.567840 11051 net.cpp:151] Top shape: 20 64 10 10 (128000)
I0506 01:15:33.567843 11051 net.cpp:159] Memory required for data: 1032080
I0506 01:15:33.567847 11051 layer_factory.hpp:77] Creating layer pool1
I0506 01:15:33.567854 11051 net.cpp:94] Creating Layer pool1
I0506 01:15:33.567857 11051 net.cpp:435] pool1 <- conv1
I0506 01:15:33.567862 11051 net.cpp:409] pool1 -> pool1
I0506 01:15:33.567932 11051 net.cpp:144] Setting up pool1
I0506 01:15:33.567941 11051 net.cpp:151] Top shape: 20 64 5 5 (32000)
I0506 01:15:33.567945 11051 net.cpp:159] Memory required for data: 1160080
I0506 01:15:33.567948 11051 layer_factory.hpp:77] Creating layer conv2
I0506 01:15:33.567957 11051 net.cpp:94] Creating Layer conv2
I0506 01:15:33.567961 11051 net.cpp:435] conv2 <- pool1
I0506 01:15:33.567966 11051 net.cpp:409] conv2 -> conv2
I0506 01:15:33.577841 11051 net.cpp:144] Setting up conv2
I0506 01:15:33.577878 11051 net.cpp:151] Top shape: 20 128 5 5 (64000)
I0506 01:15:33.577889 11051 net.cpp:159] Memory required for data: 1416080
I0506 01:15:33.577913 11051 layer_factory.hpp:77] Creating layer relu2
I0506 01:15:33.577929 11051 net.cpp:94] Creating Layer relu2
I0506 01:15:33.577939 11051 net.cpp:435] relu2 <- conv2
I0506 01:15:33.577953 11051 net.cpp:396] relu2 -> conv2 (in-place)
I0506 01:15:33.577972 11051 net.cpp:144] Setting up relu2
I0506 01:15:33.577986 11051 net.cpp:151] Top shape: 20 128 5 5 (64000)
I0506 01:15:33.577994 11051 net.cpp:159] Memory required for data: 1672080
I0506 01:15:33.578003 11051 layer_factory.hpp:77] Creating layer conv3
I0506 01:15:33.578023 11051 net.cpp:94] Creating Layer conv3
I0506 01:15:33.578033 11051 net.cpp:435] conv3 <- conv2
I0506 01:15:33.578047 11051 net.cpp:409] conv3 -> conv3
I0506 01:15:33.593412 11051 net.cpp:144] Setting up conv3
I0506 01:15:33.593427 11051 net.cpp:151] Top shape: 20 128 5 5 (64000)
I0506 01:15:33.593432 11051 net.cpp:159] Memory required for data: 1928080
I0506 01:15:33.593441 11051 layer_factory.hpp:77] Creating layer relu3
I0506 01:15:33.593447 11051 net.cpp:94] Creating Layer relu3
I0506 01:15:33.593451 11051 net.cpp:435] relu3 <- conv3
I0506 01:15:33.593456 11051 net.cpp:396] relu3 -> conv3 (in-place)
I0506 01:15:33.593464 11051 net.cpp:144] Setting up relu3
I0506 01:15:33.593469 11051 net.cpp:151] Top shape: 20 128 5 5 (64000)
I0506 01:15:33.593472 11051 net.cpp:159] Memory required for data: 2184080
I0506 01:15:33.593475 11051 layer_factory.hpp:77] Creating layer pool3
I0506 01:15:33.593482 11051 net.cpp:94] Creating Layer pool3
I0506 01:15:33.593485 11051 net.cpp:435] pool3 <- conv3
I0506 01:15:33.593489 11051 net.cpp:409] pool3 -> pool3
I0506 01:15:33.593528 11051 net.cpp:144] Setting up pool3
I0506 01:15:33.593534 11051 net.cpp:151] Top shape: 20 128 2 2 (10240)
I0506 01:15:33.593538 11051 net.cpp:159] Memory required for data: 2225040
I0506 01:15:33.593541 11051 layer_factory.hpp:77] Creating layer ip1
I0506 01:15:33.593549 11051 net.cpp:94] Creating Layer ip1
I0506 01:15:33.593552 11051 net.cpp:435] ip1 <- pool3
I0506 01:15:33.593557 11051 net.cpp:409] ip1 -> ip1
I0506 01:15:33.600059 11051 net.cpp:144] Setting up ip1
I0506 01:15:33.600069 11051 net.cpp:151] Top shape: 20 512 (10240)
I0506 01:15:33.600072 11051 net.cpp:159] Memory required for data: 2266000
I0506 01:15:33.600078 11051 layer_factory.hpp:77] Creating layer ip2
I0506 01:15:33.600085 11051 net.cpp:94] Creating Layer ip2
I0506 01:15:33.600088 11051 net.cpp:435] ip2 <- ip1
I0506 01:15:33.600093 11051 net.cpp:409] ip2 -> ip2
I0506 01:15:33.603421 11051 net.cpp:144] Setting up ip2
I0506 01:15:33.603431 11051 net.cpp:151] Top shape: 20 256 (5120)
I0506 01:15:33.603435 11051 net.cpp:159] Memory required for data: 2286480
I0506 01:15:33.603442 11051 layer_factory.hpp:77] Creating layer ip3
I0506 01:15:33.603448 11051 net.cpp:94] Creating Layer ip3
I0506 01:15:33.603452 11051 net.cpp:435] ip3 <- ip2
I0506 01:15:33.603457 11051 net.cpp:409] ip3 -> ip3
I0506 01:15:33.603902 11051 net.cpp:144] Setting up ip3
I0506 01:15:33.603910 11051 net.cpp:151] Top shape: 20 50 (1000)
I0506 01:15:33.603914 11051 net.cpp:159] Memory required for data: 2290480
I0506 01:15:33.603919 11051 layer_factory.hpp:77] Creating layer loss
I0506 01:15:33.603925 11051 net.cpp:94] Creating Layer loss
I0506 01:15:33.603929 11051 net.cpp:435] loss <- ip3
I0506 01:15:33.603932 11051 net.cpp:435] loss <- label
I0506 01:15:33.603937 11051 net.cpp:409] loss -> loss
I0506 01:15:33.603945 11051 layer_factory.hpp:77] Creating layer loss
…
I0506 01:15:33.604423 11051 solver.cpp:181] Creating test net (#0) specified by net file: ./protocol/dis_5_100_dimension.protocol_distribution
I0506 01:15:33.604449 11051 net.cpp:323] The NetState phase (1) differed from the phase (0) specified by a rule in layer parameters
I0506 01:15:33.604540 11051 net.cpp:52] Initializing net from parameters: 
state {
  phase: TEST
}
layer {
  name: "intercept"
  type: "HDF5Data"
  top: "data"
  top: "label"
  include {
    phase: TEST
  }
  hdf5_data_param {
    source: "/home/purduethu/scratch/radon/d/deng106/CNNStatisticalModel/distributions/input/5_distributions_100_sample_size_test-distributions-path.txt"
    batch_size: 20
  }
}
layer {
  name: "conv1"
  type: "Convolution"
  bottom: "data"
  top: "conv1"
  param {
    lr_mult: 1
  }
  param {
    lr_mult: 2
  }
  convolution_param {
    num_output: 64
    pad: 2
    kernel_size: 5
    stride: 1
    weight_filler {
      type: "gaussian"
      std: 0.0001
    }
    bias_filler {
      type: "constant"
    }
  }
}
layer {
  name: "relu1"
  type: "ReLU"
  bottom: "conv1"
  top: "conv1"
}
layer {
  name: "pool1"
  type: "Pooling"
  bottom: "conv1"
  top: "pool1"
  pooling_param {
    pool: MAX
    kernel_size: 3
    stride: 2
  }
}
layer {
  name: "conv2"
  type: "Convolution"
  bottom: "pool1"
  top: "conv2"
  param {
    lr_mult: 1
  }
  param {
    lr_mult: 2
  }
  convolution_param {
    num_output: 128
    pad: 2
    kernel_size: 5
    stride: 1
    weight_filler {
      type: "gaussian"
      std: 0.01
    }
    bias_filler {
      type: "constant"
    }
  }
}
layer {
  name: "relu2"
  type: "ReLU"
  bottom: "conv2"
  top: "conv2"
}
layer {
  name: "conv3"
  type: "Convolution"
  bottom: "conv2"
  top: "conv3"
  param {
    lr_mult: 1
  }
  param {
    lr_mult: 2
  }
  convolution_param {
    num_output: 128
    pad: 2
    kernel_size: 5
    stride: 1
    weight_filler {
      type: "gaussian"
      std: 0.01
    }
    bias_filler {
      type: "constant"
    }
  }
}
layer {
  name: "relu3"
  type: "ReLU"
  bottom: "conv3"
  top: "conv3"
}
layer {
  name: "pool3"
  type: "Pooling"
  bottom: "conv3"
  top: "pool3"
  pooling_param {
    pool: AVE
    kernel_size: 3
    stride: 2
  }
}
layer {
  name: "ip1"
  type: "InnerProduct"
  bottom: "pool3"
  top: "ip1"
  param {
    lr_mult: 1
  }
  param {
    lr_mult: 2
  }
  inner_product_param {
    num_output: 512
    weight_filler {
      type: "gaussian"
      std: 0.1
    }
    bias_filler {
      type: "constant"
    }
  }
}
layer {
  name: "ip2"
  type: "InnerProduct"
  bottom: "ip1"
  top: "ip2"
  param {
    lr_mult: 1
  }
  param {
    lr_mult: 2
  }
  inner_product_param {
    num_output: 256
    weight_filler {
      type: "gaussian"
      std: 0.1
    }
    bias_filler {
      type: "constant"
    }
  }
}
layer {
  name: "ip3"
  type: "InnerProduct"
  bottom: "ip2"
  top: "ip3"
  param {
    lr_mult: 1
  }
  param {
    lr_mult: 2
  }
  inner_product_param {
    num_output: 50
    weight_filler {
      type: "gaussian"
      std: 0.1
    }
    bias_filler {
      type: "constant"
    }
  }
}
layer {
  name: "accuracy"
  type: "Accuracy"
  bottom: "ip3"
  bottom: "label"
  top: "accuracy"
  include {
    phase: TEST
  }
}
layer {
  name: "loss"
  type: "SoftmaxWithLoss"
  bottom: "ip3"
  bottom: "label"
  top: "loss"
}
I0506 01:15:33.604607 11051 layer_factory.hpp:77] Creating layer intercept
I0506 01:15:33.604617 11051 net.cpp:94] Creating Layer intercept
I0506 01:15:33.604622 11051 net.cpp:409] intercept -> data
I0506 01:15:33.604629 11051 net.cpp:409] intercept -> label
I0506 01:15:33.604636 11051 hdf5_data_layer.cpp:79] Loading list of HDF5 filenames from: /home/purduethu/scratch/radon/d/deng106/CNNStatisticalModel/distributions/input/5_distributions_100_sample_size_test-distributions-path.txt
I0506 01:15:33.604658 11051 hdf5_data_layer.cpp:93] Number of HDF5 files: 1
I0506 01:15:33.609391 11051 net.cpp:144] Setting up intercept
I0506 01:15:33.609419 11051 net.cpp:151] Top shape: 20 1 10 10 (2000)
I0506 01:15:33.609426 11051 net.cpp:151] Top shape: 20 (20)
I0506 01:15:33.609429 11051 net.cpp:159] Memory required for data: 8080
I0506 01:15:33.609434 11051 layer_factory.hpp:77] Creating layer label_intercept_1_split
I0506 01:15:33.609452 11051 net.cpp:94] Creating Layer label_intercept_1_split
I0506 01:15:33.609457 11051 net.cpp:435] label_intercept_1_split <- label
I0506 01:15:33.609462 11051 net.cpp:409] label_intercept_1_split -> label_intercept_1_split_0
I0506 01:15:33.609470 11051 net.cpp:409] label_intercept_1_split -> label_intercept_1_split_1
I0506 01:15:33.609514 11051 net.cpp:144] Setting up label_intercept_1_split
I0506 01:15:33.609521 11051 net.cpp:151] Top shape: 20 (20)
I0506 01:15:33.609525 11051 net.cpp:151] Top shape: 20 (20)
I0506 01:15:33.609529 11051 net.cpp:159] Memory required for data: 8240
I0506 01:15:33.609532 11051 layer_factory.hpp:77] Creating layer conv1
I0506 01:15:33.609544 11051 net.cpp:94] Creating Layer conv1
I0506 01:15:33.609546 11051 net.cpp:435] conv1 <- data
I0506 01:15:33.609551 11051 net.cpp:409] conv1 -> conv1
I0506 01:15:33.610394 11051 net.cpp:144] Setting up conv1
I0506 01:15:33.610409 11051 net.cpp:151] Top shape: 20 64 10 10 (128000)
I0506 01:15:33.610412 11051 net.cpp:159] Memory required for data: 520240
I0506 01:15:33.610422 11051 layer_factory.hpp:77] Creating layer relu1
I0506 01:15:33.610430 11051 net.cpp:94] Creating Layer relu1
I0506 01:15:33.610433 11051 net.cpp:435] relu1 <- conv1
I0506 01:15:33.610438 11051 net.cpp:396] relu1 -> conv1 (in-place)
I0506 01:15:33.610445 11051 net.cpp:144] Setting up relu1
I0506 01:15:33.610450 11051 net.cpp:151] Top shape: 20 64 10 10 (128000)
I0506 01:15:33.610453 11051 net.cpp:159] Memory required for data: 1032240
I0506 01:15:33.610457 11051 layer_factory.hpp:77] Creating layer pool1
I0506 01:15:33.610463 11051 net.cpp:94] Creating Layer pool1
I0506 01:15:33.610467 11051 net.cpp:435] pool1 <- conv1
I0506 01:15:33.610471 11051 net.cpp:409] pool1 -> pool1
I0506 01:15:33.610528 11051 net.cpp:144] Setting up pool1
I0506 01:15:33.610536 11051 net.cpp:151] Top shape: 20 64 5 5 (32000)
I0506 01:15:33.610540 11051 net.cpp:159] Memory required for data: 1160240
I0506 01:15:33.610544 11051 layer_factory.hpp:77] Creating layer conv2
I0506 01:15:33.610553 11051 net.cpp:94] Creating Layer conv2
I0506 01:15:33.610555 11051 net.cpp:435] conv2 <- pool1
I0506 01:15:33.610561 11051 net.cpp:409] conv2 -> conv2
I0506 01:15:33.618265 11051 net.cpp:144] Setting up conv2
I0506 01:15:33.618281 11051 net.cpp:151] Top shape: 20 128 5 5 (64000)
I0506 01:15:33.618285 11051 net.cpp:159] Memory required for data: 1416240
I0506 01:15:33.618294 11051 layer_factory.hpp:77] Creating layer relu2
I0506 01:15:33.618301 11051 net.cpp:94] Creating Layer relu2
I0506 01:15:33.618311 11051 net.cpp:435] relu2 <- conv2
I0506 01:15:33.618317 11051 net.cpp:396] relu2 -> conv2 (in-place)
I0506 01:15:33.618324 11051 net.cpp:144] Setting up relu2
I0506 01:15:33.618330 11051 net.cpp:151] Top shape: 20 128 5 5 (64000)
I0506 01:15:33.618332 11051 net.cpp:159] Memory required for data: 1672240
I0506 01:15:33.618335 11051 layer_factory.hpp:77] Creating layer conv3
I0506 01:15:33.618343 11051 net.cpp:94] Creating Layer conv3
I0506 01:15:33.618347 11051 net.cpp:435] conv3 <- conv2
I0506 01:15:33.618352 11051 net.cpp:409] conv3 -> conv3
I0506 01:15:33.631564 11051 net.cpp:144] Setting up conv3
I0506 01:15:33.631600 11051 net.cpp:151] Top shape: 20 128 5 5 (64000)
I0506 01:15:33.631613 11051 net.cpp:159] Memory required for data: 1928240
I0506 01:15:33.631636 11051 layer_factory.hpp:77] Creating layer relu3
I0506 01:15:33.631654 11051 net.cpp:94] Creating Layer relu3
I0506 01:15:33.631665 11051 net.cpp:435] relu3 <- conv3
I0506 01:15:33.631680 11051 net.cpp:396] relu3 -> conv3 (in-place)
I0506 01:15:33.631698 11051 net.cpp:144] Setting up relu3
I0506 01:15:33.631711 11051 net.cpp:151] Top shape: 20 128 5 5 (64000)
I0506 01:15:33.631721 11051 net.cpp:159] Memory required for data: 2184240
I0506 01:15:33.631728 11051 layer_factory.hpp:77] Creating layer pool3
I0506 01:15:33.631742 11051 net.cpp:94] Creating Layer pool3
I0506 01:15:33.631752 11051 net.cpp:435] pool3 <- conv3
I0506 01:15:33.631763 11051 net.cpp:409] pool3 -> pool3
I0506 01:15:33.631855 11051 net.cpp:144] Setting up pool3
I0506 01:15:33.631887 11051 net.cpp:151] Top shape: 20 128 2 2 (10240)
I0506 01:15:33.631891 11051 net.cpp:159] Memory required for data: 2225200
I0506 01:15:33.631894 11051 layer_factory.hpp:77] Creating layer ip1
I0506 01:15:33.631902 11051 net.cpp:94] Creating Layer ip1
I0506 01:15:33.631906 11051 net.cpp:435] ip1 <- pool3
I0506 01:15:33.631911 11051 net.cpp:409] ip1 -> ip1
I0506 01:15:33.638422 11051 net.cpp:144] Setting up ip1
I0506 01:15:33.638433 11051 net.cpp:151] Top shape: 20 512 (10240)
I0506 01:15:33.638437 11051 net.cpp:159] Memory required for data: 2266160
I0506 01:15:33.638443 11051 layer_factory.hpp:77] Creating layer ip2
I0506 01:15:33.638450 11051 net.cpp:94] Creating Layer ip2
I0506 01:15:33.638453 11051 net.cpp:435] ip2 <- ip1
I0506 01:15:33.638459 11051 net.cpp:409] ip2 -> ip2
I0506 01:15:33.641796 11051 net.cpp:144] Setting up ip2
I0506 01:15:33.641806 11051 net.cpp:151] Top shape: 20 256 (5120)
I0506 01:15:33.641810 11051 net.cpp:159] Memory required for data: 2286640
I0506 01:15:33.641819 11051 layer_factory.hpp:77] Creating layer ip3
I0506 01:15:33.641824 11051 net.cpp:94] Creating Layer ip3
I0506 01:15:33.641829 11051 net.cpp:435] ip3 <- ip2
I0506 01:15:33.641834 11051 net.cpp:409] ip3 -> ip3
I0506 01:15:33.642280 11051 net.cpp:144] Setting up ip3
I0506 01:15:33.642289 11051 net.cpp:151] Top shape: 20 50 (1000)
I0506 01:15:33.642292 11051 net.cpp:159] Memory required for data: 2290640
I0506 01:15:33.642298 11051 layer_factory.hpp:77] Creating layer ip3_ip3_0_split
I0506 01:15:33.642304 11051 net.cpp:94] Creating Layer ip3_ip3_0_split
I0506 01:15:33.642307 11051 net.cpp:435] ip3_ip3_0_split <- ip3
I0506 01:15:33.642313 11051 net.cpp:409] ip3_ip3_0_split -> ip3_ip3_0_split_0
I0506 01:15:33.642318 11051 net.cpp:409] ip3_ip3_0_split -> ip3_ip3_0_split_1
I0506 01:15:33.642360 11051 net.cpp:144] Setting up ip3_ip3_0_split
I0506 01:15:33.642369 11051 net.cpp:151] Top shape: 20 50 (1000)
I0506 01:15:33.642372 11051 net.cpp:151] Top shape: 20 50 (1000)
I0506 01:15:33.642375 11051 net.cpp:159] Memory required for data: 2298640
I0506 01:15:33.642379 11051 layer_factory.hpp:77] Creating layer accuracy
I0506 01:15:33.642385 11051 net.cpp:94] Creating Layer accuracy
I0506 01:15:33.642388 11051 net.cpp:435] accuracy <- ip3_ip3_0_split_0
I0506 01:15:33.642392 11051 net.cpp:435] accuracy <- label_intercept_1_split_0
I0506 01:15:33.642396 11051 net.cpp:409] accuracy -> accuracy
…
