…
I0505 19:48:02.447438  8940 net.cpp:323] The NetState phase (0) differed from the phase (1) specified by a rule in layer intercept
I0505 19:48:02.447451  8940 net.cpp:323] The NetState phase (0) differed from the phase (1) specified by a rule in layer loss
I0505 19:48:02.447520  8940 net.cpp:52] Initializing net from parameters: 
state {
  phase: TRAIN
}
layer {
  name: "parameters"
  type: "HDF5Data"
  top: "data"
  top: "label"
  include {
    phase: TRAIN
  }
  hdf5_data_param {
    source: "/home/purduethu/scratch/radon/d/deng106/CNNStatisticalModel/distributions/input/50_distributions_900_sample_size_train-parameters-path.txt"
    batch_size: 20
  }
}
layer {
  name: "conv1"
  type: "Convolution"
  bottom: "data"
  top: "conv1"
  param {
    lr_mult: 1
  }
  param {
    lr_mult: 2
  }
  convolution_param {
    num_output: 64
    pad: 2
    kernel_size: 5
    stride: 1
    weight_filler {
      type: "gaussian"
      std: 0.0001
    }
    bias_filler {
      type: "constant"
    }
  }
}
layer {
  name: "relu1"
  type: "ReLU"
  bottom: "conv1"
  top: "conv1"
}
layer {
  name: "pool1"
  type: "Pooling"
  bottom: "conv1"
  top: "pool1"
  pooling_param {
    pool: MAX
    kernel_size: 3
    stride: 2
  }
}
layer {
  name: "conv2"
  type: "Convolution"
  bottom: "pool1"
  top: "conv2"
  param {
    lr_mult: 1
  }
  param {
    lr_mult: 2
  }
  convolution_param {
    num_output: 128
    pad: 2
    kernel_size: 5
    stride: 1
    weight_filler {
      type: "gaussian"
      std: 0.01
    }
    bias_filler {
      type: "constant"
    }
  }
}
layer {
  name: "relu2"
  type: "ReLU"
  bottom: "conv2"
  top: "conv2"
}
layer {
  name: "conv3"
  type: "Convolution"
  bottom: "conv2"
  top: "conv3"
  param {
    lr_mult: 1
  }
  param {
    lr_mult: 2
  }
  convolution_param {
    num_output: 128
    pad: 2
    kernel_size: 5
    stride: 1
    weight_filler {
      type: "gaussian"
      std: 0.01
    }
    bias_filler {
      type: "constant"
    }
  }
}
layer {
  name: "relu3"
  type: "ReLU"
  bottom: "conv3"
  top: "conv3"
}
layer {
  name: "pool3"
  type: "Pooling"
  bottom: "conv3"
  top: "pool3"
  pooling_param {
    pool: AVE
    kernel_size: 3
    stride: 2
  }
}
layer {
  name: "ip1"
  type: "InnerProduct"
  bottom: "pool3"
  top: "ip1"
  param {
    lr_mult: 1
  }
  param {
    lr_mult: 2
  }
  inner_product_param {
    num_output: 512
    weight_filler {
      type: "gaussian"
      std: 0.1
    }
    bias_filler {
      type: "constant"
    }
  }
}
layer {
  name: "ip2"
  type: "InnerProduct"
  bottom: "ip1"
  top: "ip2"
  param {
    lr_mult: 1
  }
  param {
    lr_mult: 2
  }
  inner_product_param {
    num_output: 256
    weight_filler {
      type: "gaussian"
      std: 0.1
    }
    bias_filler {
      type: "constant"
    }
  }
}
layer {
  name: "ip3"
  type: "InnerProduct"
  bottom: "ip2"
  top: "ip3"
  param {
    lr_mult: 1
  }
  param {
    lr_mult: 2
  }
  inner_product_param {
    num_output: 1
    weight_filler {
      type: "gaussian"
      std: 0.1
    }
    bias_filler {
      type: "constant"
    }
  }
}
layer {
  name: "loss"
  type: "HuberLoss"
  bottom: "ip3"
  bottom: "label"
  top: "loss"
  include {
    phase: TRAIN
  }
}
I0505 19:48:02.447564  8940 layer_factory.hpp:77] Creating layer parameters
I0505 19:48:02.447576  8940 net.cpp:94] Creating Layer parameters
I0505 19:48:02.447580  8940 net.cpp:409] parameters -> data
I0505 19:48:02.447589  8940 net.cpp:409] parameters -> label
I0505 19:48:02.447595  8940 hdf5_data_layer.cpp:79] Loading list of HDF5 filenames from: /home/purduethu/scratch/radon/d/deng106/CNNStatisticalModel/distributions/input/50_distributions_900_sample_size_train-parameters-path.txt
I0505 19:48:02.447612  8940 hdf5_data_layer.cpp:93] Number of HDF5 files: 1
I0505 19:48:02.448158  8940 hdf5.cpp:32] Datatype class: H5T_FLOAT
I0505 19:48:03.912014  8940 net.cpp:144] Setting up parameters
I0505 19:48:03.912046  8940 net.cpp:151] Top shape: 20 1 30 30 (18000)
I0505 19:48:03.912051  8940 net.cpp:151] Top shape: 20 (20)
I0505 19:48:03.912055  8940 net.cpp:159] Memory required for data: 72080
I0505 19:48:03.912060  8940 layer_factory.hpp:77] Creating layer conv1
I0505 19:48:03.912082  8940 net.cpp:94] Creating Layer conv1
I0505 19:48:03.912086  8940 net.cpp:435] conv1 <- data
I0505 19:48:03.912093  8940 net.cpp:409] conv1 -> conv1
I0505 19:48:03.918740  8940 net.cpp:144] Setting up conv1
I0505 19:48:03.918757  8940 net.cpp:151] Top shape: 20 64 30 30 (1152000)
I0505 19:48:03.918761  8940 net.cpp:159] Memory required for data: 4680080
I0505 19:48:03.918771  8940 layer_factory.hpp:77] Creating layer relu1
I0505 19:48:03.918779  8940 net.cpp:94] Creating Layer relu1
I0505 19:48:03.918783  8940 net.cpp:435] relu1 <- conv1
I0505 19:48:03.918787  8940 net.cpp:396] relu1 -> conv1 (in-place)
I0505 19:48:03.918802  8940 net.cpp:144] Setting up relu1
I0505 19:48:03.918807  8940 net.cpp:151] Top shape: 20 64 30 30 (1152000)
I0505 19:48:03.918809  8940 net.cpp:159] Memory required for data: 9288080
I0505 19:48:03.918812  8940 layer_factory.hpp:77] Creating layer pool1
I0505 19:48:03.918818  8940 net.cpp:94] Creating Layer pool1
I0505 19:48:03.918822  8940 net.cpp:435] pool1 <- conv1
I0505 19:48:03.918825  8940 net.cpp:409] pool1 -> pool1
I0505 19:48:03.918879  8940 net.cpp:144] Setting up pool1
I0505 19:48:03.918885  8940 net.cpp:151] Top shape: 20 64 15 15 (288000)
I0505 19:48:03.918889  8940 net.cpp:159] Memory required for data: 10440080
I0505 19:48:03.918891  8940 layer_factory.hpp:77] Creating layer conv2
I0505 19:48:03.918900  8940 net.cpp:94] Creating Layer conv2
I0505 19:48:03.918903  8940 net.cpp:435] conv2 <- pool1
I0505 19:48:03.918907  8940 net.cpp:409] conv2 -> conv2
I0505 19:48:03.932723  8940 net.cpp:144] Setting up conv2
I0505 19:48:03.932739  8940 net.cpp:151] Top shape: 20 128 15 15 (576000)
I0505 19:48:03.932742  8940 net.cpp:159] Memory required for data: 12744080
I0505 19:48:03.932750  8940 layer_factory.hpp:77] Creating layer relu2
I0505 19:48:03.932756  8940 net.cpp:94] Creating Layer relu2
I0505 19:48:03.932760  8940 net.cpp:435] relu2 <- conv2
I0505 19:48:03.932765  8940 net.cpp:396] relu2 -> conv2 (in-place)
I0505 19:48:03.932771  8940 net.cpp:144] Setting up relu2
I0505 19:48:03.932776  8940 net.cpp:151] Top shape: 20 128 15 15 (576000)
I0505 19:48:03.932778  8940 net.cpp:159] Memory required for data: 15048080
I0505 19:48:03.932781  8940 layer_factory.hpp:77] Creating layer conv3
I0505 19:48:03.932790  8940 net.cpp:94] Creating Layer conv3
I0505 19:48:03.932792  8940 net.cpp:435] conv3 <- conv2
I0505 19:48:03.932797  8940 net.cpp:409] conv3 -> conv3
I0505 19:48:03.955854  8940 net.cpp:144] Setting up conv3
I0505 19:48:03.955894  8940 net.cpp:151] Top shape: 20 128 15 15 (576000)
I0505 19:48:03.955906  8940 net.cpp:159] Memory required for data: 17352080
I0505 19:48:03.955929  8940 layer_factory.hpp:77] Creating layer relu3
I0505 19:48:03.955957  8940 net.cpp:94] Creating Layer relu3
I0505 19:48:03.955968  8940 net.cpp:435] relu3 <- conv3
I0505 19:48:03.955981  8940 net.cpp:396] relu3 -> conv3 (in-place)
I0505 19:48:03.956001  8940 net.cpp:144] Setting up relu3
I0505 19:48:03.956014  8940 net.cpp:151] Top shape: 20 128 15 15 (576000)
I0505 19:48:03.956022  8940 net.cpp:159] Memory required for data: 19656080
I0505 19:48:03.956032  8940 layer_factory.hpp:77] Creating layer pool3
I0505 19:48:03.956046  8940 net.cpp:94] Creating Layer pool3
I0505 19:48:03.956054  8940 net.cpp:435] pool3 <- conv3
I0505 19:48:03.956068  8940 net.cpp:409] pool3 -> pool3
I0505 19:48:03.956174  8940 net.cpp:144] Setting up pool3
I0505 19:48:03.956197  8940 net.cpp:151] Top shape: 20 128 7 7 (125440)
I0505 19:48:03.956199  8940 net.cpp:159] Memory required for data: 20157840
I0505 19:48:03.956202  8940 layer_factory.hpp:77] Creating layer ip1
I0505 19:48:03.956212  8940 net.cpp:94] Creating Layer ip1
I0505 19:48:03.956215  8940 net.cpp:435] ip1 <- pool3
I0505 19:48:03.956220  8940 net.cpp:409] ip1 -> ip1
I0505 19:48:04.035181  8940 net.cpp:144] Setting up ip1
I0505 19:48:04.035214  8940 net.cpp:151] Top shape: 20 512 (10240)
I0505 19:48:04.035219  8940 net.cpp:159] Memory required for data: 20198800
I0505 19:48:04.035228  8940 layer_factory.hpp:77] Creating layer ip2
I0505 19:48:04.035238  8940 net.cpp:94] Creating Layer ip2
I0505 19:48:04.035243  8940 net.cpp:435] ip2 <- ip1
I0505 19:48:04.035249  8940 net.cpp:409] ip2 -> ip2
I0505 19:48:04.038439  8940 net.cpp:144] Setting up ip2
I0505 19:48:04.038449  8940 net.cpp:151] Top shape: 20 256 (5120)
I0505 19:48:04.038451  8940 net.cpp:159] Memory required for data: 20219280
I0505 19:48:04.038460  8940 layer_factory.hpp:77] Creating layer ip3
I0505 19:48:04.038465  8940 net.cpp:94] Creating Layer ip3
I0505 19:48:04.038468  8940 net.cpp:435] ip3 <- ip2
I0505 19:48:04.038472  8940 net.cpp:409] ip3 -> ip3
I0505 19:48:04.038578  8940 net.cpp:144] Setting up ip3
I0505 19:48:04.038583  8940 net.cpp:151] Top shape: 20 1 (20)
I0505 19:48:04.038586  8940 net.cpp:159] Memory required for data: 20219360
I0505 19:48:04.038591  8940 layer_factory.hpp:77] Creating layer loss
I0505 19:48:04.038597  8940 net.cpp:94] Creating Layer loss
I0505 19:48:04.038600  8940 net.cpp:435] loss <- ip3
I0505 19:48:04.038604  8940 net.cpp:435] loss <- label
I0505 19:48:04.038609  8940 net.cpp:409] loss -> loss
I0505 19:48:04.038666  8940 net.cpp:144] Setting up loss
…
I0505 19:48:04.511330  8940 net.cpp:323] The NetState phase (0) differed from the phase (1) specified by a rule in layer intercept
I0505 19:48:04.511344  8940 net.cpp:323] The NetState phase (0) differed from the phase (1) specified by a rule in layer accuracy
I0505 19:48:04.511420  8940 net.cpp:52] Initializing net from parameters: 
state {
  phase: TRAIN
}
layer {
  name: "parameters"
  type: "HDF5Data"
  top: "data"
  top: "label"
  include {
    phase: TRAIN
  }
  hdf5_data_param {
    source: "/home/purduethu/scratch/radon/d/deng106/CNNStatisticalModel/distributions/input/50_distributions_900_sample_size_train-distributions-path.txt"
    batch_size: 20
  }
}
layer {
  name: "conv1"
  type: "Convolution"
  bottom: "data"
  top: "conv1"
  param {
    lr_mult: 1
  }
  param {
    lr_mult: 2
  }
  convolution_param {
    num_output: 64
    pad: 2
    kernel_size: 5
    stride: 1
    weight_filler {
      type: "gaussian"
      std: 0.0001
    }
    bias_filler {
      type: "constant"
    }
  }
}
layer {
  name: "relu1"
  type: "ReLU"
  bottom: "conv1"
  top: "conv1"
}
layer {
  name: "pool1"
  type: "Pooling"
  bottom: "conv1"
  top: "pool1"
  pooling_param {
    pool: MAX
    kernel_size: 3
    stride: 2
  }
}
layer {
  name: "conv2"
  type: "Convolution"
  bottom: "pool1"
  top: "conv2"
  param {
    lr_mult: 1
  }
  param {
    lr_mult: 2
  }
  convolution_param {
    num_output: 128
    pad: 2
    kernel_size: 5
    stride: 1
    weight_filler {
      type: "gaussian"
      std: 0.01
    }
    bias_filler {
      type: "constant"
    }
  }
}
layer {
  name: "relu2"
  type: "ReLU"
  bottom: "conv2"
  top: "conv2"
}
layer {
  name: "conv3"
  type: "Convolution"
  bottom: "conv2"
  top: "conv3"
  param {
    lr_mult: 1
  }
  param {
    lr_mult: 2
  }
  convolution_param {
    num_output: 128
    pad: 2
    kernel_size: 5
    stride: 1
    weight_filler {
      type: "gaussian"
      std: 0.01
    }
    bias_filler {
      type: "constant"
    }
  }
}
layer {
  name: "relu3"
  type: "ReLU"
  bottom: "conv3"
  top: "conv3"
}
layer {
  name: "pool3"
  type: "Pooling"
  bottom: "conv3"
  top: "pool3"
  pooling_param {
    pool: AVE
    kernel_size: 3
    stride: 2
  }
}
layer {
  name: "ip1"
  type: "InnerProduct"
  bottom: "pool3"
  top: "ip1"
  param {
    lr_mult: 1
  }
  param {
    lr_mult: 2
  }
  inner_product_param {
    num_output: 512
    weight_filler {
      type: "gaussian"
      std: 0.1
    }
    bias_filler {
      type: "constant"
    }
  }
}
layer {
  name: "ip2"
  type: "InnerProduct"
  bottom: "ip1"
  top: "ip2"
  param {
    lr_mult: 1
  }
  param {
    lr_mult: 2
  }
  inner_product_param {
    num_output: 256
    weight_filler {
      type: "gaussian"
      std: 0.1
    }
    bias_filler {
      type: "constant"
    }
  }
}
layer {
  name: "ip3"
  type: "InnerProduct"
  bottom: "ip2"
  top: "ip3"
  param {
    lr_mult: 1
  }
  param {
    lr_mult: 2
  }
  inner_product_param {
    num_output: 50
    weight_filler {
      type: "gaussian"
      std: 0.1
    }
    bias_filler {
      type: "constant"
    }
  }
}
layer {
  name: "loss"
  type: "SoftmaxWithLoss"
  bottom: "ip3"
  bottom: "label"
  top: "loss"
}
I0505 19:48:04.511464  8940 layer_factory.hpp:77] Creating layer parameters
I0505 19:48:04.511472  8940 net.cpp:94] Creating Layer parameters
I0505 19:48:04.511476  8940 net.cpp:409] parameters -> data
I0505 19:48:04.511482  8940 net.cpp:409] parameters -> label
I0505 19:48:04.511488  8940 hdf5_data_layer.cpp:79] Loading list of HDF5 filenames from: /home/purduethu/scratch/radon/d/deng106/CNNStatisticalModel/distributions/input/50_distributions_900_sample_size_train-distributions-path.txt
I0505 19:48:04.511502  8940 hdf5_data_layer.cpp:93] Number of HDF5 files: 1
I0505 19:48:05.944181  8940 hdf5.cpp:35] Datatype class: H5T_INTEGER
I0505 19:48:05.947465  8940 net.cpp:144] Setting up parameters
I0505 19:48:05.947484  8940 net.cpp:151] Top shape: 20 1 30 30 (18000)
I0505 19:48:05.947489  8940 net.cpp:151] Top shape: 20 (20)
I0505 19:48:05.947492  8940 net.cpp:159] Memory required for data: 72080
I0505 19:48:05.947499  8940 layer_factory.hpp:77] Creating layer conv1
I0505 19:48:05.947513  8940 net.cpp:94] Creating Layer conv1
I0505 19:48:05.947518  8940 net.cpp:435] conv1 <- data
I0505 19:48:05.947525  8940 net.cpp:409] conv1 -> conv1
I0505 19:48:05.951025  8940 net.cpp:144] Setting up conv1
I0505 19:48:05.951041  8940 net.cpp:151] Top shape: 20 64 30 30 (1152000)
I0505 19:48:05.951045  8940 net.cpp:159] Memory required for data: 4680080
I0505 19:48:05.951056  8940 layer_factory.hpp:77] Creating layer relu1
I0505 19:48:05.951062  8940 net.cpp:94] Creating Layer relu1
I0505 19:48:05.951066  8940 net.cpp:435] relu1 <- conv1
I0505 19:48:05.951071  8940 net.cpp:396] relu1 -> conv1 (in-place)
I0505 19:48:05.951077  8940 net.cpp:144] Setting up relu1
I0505 19:48:05.951082  8940 net.cpp:151] Top shape: 20 64 30 30 (1152000)
I0505 19:48:05.951086  8940 net.cpp:159] Memory required for data: 9288080
I0505 19:48:05.951087  8940 layer_factory.hpp:77] Creating layer pool1
I0505 19:48:05.951093  8940 net.cpp:94] Creating Layer pool1
I0505 19:48:05.951102  8940 net.cpp:435] pool1 <- conv1
I0505 19:48:05.951107  8940 net.cpp:409] pool1 -> pool1
I0505 19:48:05.951164  8940 net.cpp:144] Setting up pool1
I0505 19:48:05.951171  8940 net.cpp:151] Top shape: 20 64 15 15 (288000)
I0505 19:48:05.951174  8940 net.cpp:159] Memory required for data: 10440080
I0505 19:48:05.951177  8940 layer_factory.hpp:77] Creating layer conv2
I0505 19:48:05.951185  8940 net.cpp:94] Creating Layer conv2
I0505 19:48:05.951189  8940 net.cpp:435] conv2 <- pool1
I0505 19:48:05.951194  8940 net.cpp:409] conv2 -> conv2
I0505 19:48:05.965240  8940 net.cpp:144] Setting up conv2
I0505 19:48:05.965282  8940 net.cpp:151] Top shape: 20 128 15 15 (576000)
I0505 19:48:05.965293  8940 net.cpp:159] Memory required for data: 12744080
I0505 19:48:05.965315  8940 layer_factory.hpp:77] Creating layer relu2
I0505 19:48:05.965332  8940 net.cpp:94] Creating Layer relu2
I0505 19:48:05.965342  8940 net.cpp:435] relu2 <- conv2
I0505 19:48:05.965354  8940 net.cpp:396] relu2 -> conv2 (in-place)
I0505 19:48:05.965373  8940 net.cpp:144] Setting up relu2
I0505 19:48:05.965385  8940 net.cpp:151] Top shape: 20 128 15 15 (576000)
I0505 19:48:05.965394  8940 net.cpp:159] Memory required for data: 15048080
I0505 19:48:05.965402  8940 layer_factory.hpp:77] Creating layer conv3
I0505 19:48:05.965421  8940 net.cpp:94] Creating Layer conv3
I0505 19:48:05.965430  8940 net.cpp:435] conv3 <- conv2
I0505 19:48:05.965443  8940 net.cpp:409] conv3 -> conv3
I0505 19:48:05.988726  8940 net.cpp:144] Setting up conv3
I0505 19:48:05.988744  8940 net.cpp:151] Top shape: 20 128 15 15 (576000)
I0505 19:48:05.988749  8940 net.cpp:159] Memory required for data: 17352080
I0505 19:48:05.988756  8940 layer_factory.hpp:77] Creating layer relu3
I0505 19:48:05.988771  8940 net.cpp:94] Creating Layer relu3
I0505 19:48:05.988775  8940 net.cpp:435] relu3 <- conv3
I0505 19:48:05.988780  8940 net.cpp:396] relu3 -> conv3 (in-place)
I0505 19:48:05.988788  8940 net.cpp:144] Setting up relu3
I0505 19:48:05.988792  8940 net.cpp:151] Top shape: 20 128 15 15 (576000)
I0505 19:48:05.988795  8940 net.cpp:159] Memory required for data: 19656080
I0505 19:48:05.988798  8940 layer_factory.hpp:77] Creating layer pool3
I0505 19:48:05.988806  8940 net.cpp:94] Creating Layer pool3
I0505 19:48:05.988808  8940 net.cpp:435] pool3 <- conv3
I0505 19:48:05.988812  8940 net.cpp:409] pool3 -> pool3
I0505 19:48:05.988857  8940 net.cpp:144] Setting up pool3
I0505 19:48:05.988864  8940 net.cpp:151] Top shape: 20 128 7 7 (125440)
I0505 19:48:05.988867  8940 net.cpp:159] Memory required for data: 20157840
I0505 19:48:05.988870  8940 layer_factory.hpp:77] Creating layer ip1
I0505 19:48:05.988878  8940 net.cpp:94] Creating Layer ip1
I0505 19:48:05.988880  8940 net.cpp:435] ip1 <- pool3
I0505 19:48:05.988885  8940 net.cpp:409] ip1 -> ip1
I0505 19:48:06.068473  8940 net.cpp:144] Setting up ip1
I0505 19:48:06.068498  8940 net.cpp:151] Top shape: 20 512 (10240)
I0505 19:48:06.068502  8940 net.cpp:159] Memory required for data: 20198800
I0505 19:48:06.068511  8940 layer_factory.hpp:77] Creating layer ip2
I0505 19:48:06.068521  8940 net.cpp:94] Creating Layer ip2
I0505 19:48:06.068526  8940 net.cpp:435] ip2 <- ip1
I0505 19:48:06.068531  8940 net.cpp:409] ip2 -> ip2
I0505 19:48:06.071737  8940 net.cpp:144] Setting up ip2
I0505 19:48:06.071746  8940 net.cpp:151] Top shape: 20 256 (5120)
I0505 19:48:06.071749  8940 net.cpp:159] Memory required for data: 20219280
I0505 19:48:06.071758  8940 layer_factory.hpp:77] Creating layer ip3
I0505 19:48:06.071764  8940 net.cpp:94] Creating Layer ip3
I0505 19:48:06.071768  8940 net.cpp:435] ip3 <- ip2
I0505 19:48:06.071772  8940 net.cpp:409] ip3 -> ip3
I0505 19:48:06.073194  8940 net.cpp:144] Setting up ip3
I0505 19:48:06.073209  8940 net.cpp:151] Top shape: 20 50 (1000)
I0505 19:48:06.073212  8940 net.cpp:159] Memory required for data: 20223280
I0505 19:48:06.073218  8940 layer_factory.hpp:77] Creating layer loss
I0505 19:48:06.073225  8940 net.cpp:94] Creating Layer loss
I0505 19:48:06.073228  8940 net.cpp:435] loss <- ip3
I0505 19:48:06.073232  8940 net.cpp:435] loss <- label
I0505 19:48:06.073243  8940 net.cpp:409] loss -> loss
I0505 19:48:06.073252  8940 layer_factory.hpp:77] Creating layer loss
…
I0505 19:48:06.073706  8940 solver.cpp:181] Creating test net (#0) specified by net file: ./protocol/dis_50_900_dimension.protocol_distribution
I0505 19:48:06.073729  8940 net.cpp:323] The NetState phase (1) differed from the phase (0) specified by a rule in layer parameters
I0505 19:48:06.073810  8940 net.cpp:52] Initializing net from parameters: 
state {
  phase: TEST
}
layer {
  name: "intercept"
  type: "HDF5Data"
  top: "data"
  top: "label"
  include {
    phase: TEST
  }
  hdf5_data_param {
    source: "/home/purduethu/scratch/radon/d/deng106/CNNStatisticalModel/distributions/input/50_distributions_900_sample_size_test-distributions-path.txt"
    batch_size: 20
  }
}
layer {
  name: "conv1"
  type: "Convolution"
  bottom: "data"
  top: "conv1"
  param {
    lr_mult: 1
  }
  param {
    lr_mult: 2
  }
  convolution_param {
    num_output: 64
    pad: 2
    kernel_size: 5
    stride: 1
    weight_filler {
      type: "gaussian"
      std: 0.0001
    }
    bias_filler {
      type: "constant"
    }
  }
}
layer {
  name: "relu1"
  type: "ReLU"
  bottom: "conv1"
  top: "conv1"
}
layer {
  name: "pool1"
  type: "Pooling"
  bottom: "conv1"
  top: "pool1"
  pooling_param {
    pool: MAX
    kernel_size: 3
    stride: 2
  }
}
layer {
  name: "conv2"
  type: "Convolution"
  bottom: "pool1"
  top: "conv2"
  param {
    lr_mult: 1
  }
  param {
    lr_mult: 2
  }
  convolution_param {
    num_output: 128
    pad: 2
    kernel_size: 5
    stride: 1
    weight_filler {
      type: "gaussian"
      std: 0.01
    }
    bias_filler {
      type: "constant"
    }
  }
}
layer {
  name: "relu2"
  type: "ReLU"
  bottom: "conv2"
  top: "conv2"
}
layer {
  name: "conv3"
  type: "Convolution"
  bottom: "conv2"
  top: "conv3"
  param {
    lr_mult: 1
  }
  param {
    lr_mult: 2
  }
  convolution_param {
    num_output: 128
    pad: 2
    kernel_size: 5
    stride: 1
    weight_filler {
      type: "gaussian"
      std: 0.01
    }
    bias_filler {
      type: "constant"
    }
  }
}
layer {
  name: "relu3"
  type: "ReLU"
  bottom: "conv3"
  top: "conv3"
}
layer {
  name: "pool3"
  type: "Pooling"
  bottom: "conv3"
  top: "pool3"
  pooling_param {
    pool: AVE
    kernel_size: 3
    stride: 2
  }
}
layer {
  name: "ip1"
  type: "InnerProduct"
  bottom: "pool3"
  top: "ip1"
  param {
    lr_mult: 1
  }
  param {
    lr_mult: 2
  }
  inner_product_param {
    num_output: 512
    weight_filler {
      type: "gaussian"
      std: 0.1
    }
    bias_filler {
      type: "constant"
    }
  }
}
layer {
  name: "ip2"
  type: "InnerProduct"
  bottom: "ip1"
  top: "ip2"
  param {
    lr_mult: 1
  }
  param {
    lr_mult: 2
  }
  inner_product_param {
    num_output: 256
    weight_filler {
      type: "gaussian"
      std: 0.1
    }
    bias_filler {
      type: "constant"
    }
  }
}
layer {
  name: "ip3"
  type: "InnerProduct"
  bottom: "ip2"
  top: "ip3"
  param {
    lr_mult: 1
  }
  param {
    lr_mult: 2
  }
  inner_product_param {
    num_output: 50
    weight_filler {
      type: "gaussian"
      std: 0.1
    }
    bias_filler {
      type: "constant"
    }
  }
}
layer {
  name: "accuracy"
  type: "Accuracy"
  bottom: "ip3"
  bottom: "label"
  top: "accuracy"
  include {
    phase: TEST
  }
}
layer {
  name: "loss"
  type: "SoftmaxWithLoss"
  bottom: "ip3"
  bottom: "label"
  top: "loss"
}
I0505 19:48:06.073866  8940 layer_factory.hpp:77] Creating layer intercept
I0505 19:48:06.073874  8940 net.cpp:94] Creating Layer intercept
I0505 19:48:06.073879  8940 net.cpp:409] intercept -> data
I0505 19:48:06.073884  8940 net.cpp:409] intercept -> label
I0505 19:48:06.073890  8940 hdf5_data_layer.cpp:79] Loading list of HDF5 filenames from: /home/purduethu/scratch/radon/d/deng106/CNNStatisticalModel/distributions/input/50_distributions_900_sample_size_test-distributions-path.txt
I0505 19:48:06.073910  8940 hdf5_data_layer.cpp:93] Number of HDF5 files: 1
I0505 19:48:06.427631  8940 net.cpp:144] Setting up intercept
I0505 19:48:06.427680  8940 net.cpp:151] Top shape: 20 1 30 30 (18000)
I0505 19:48:06.427686  8940 net.cpp:151] Top shape: 20 (20)
I0505 19:48:06.427690  8940 net.cpp:159] Memory required for data: 72080
I0505 19:48:06.427695  8940 layer_factory.hpp:77] Creating layer label_intercept_1_split
I0505 19:48:06.427726  8940 net.cpp:94] Creating Layer label_intercept_1_split
I0505 19:48:06.427731  8940 net.cpp:435] label_intercept_1_split <- label
I0505 19:48:06.427737  8940 net.cpp:409] label_intercept_1_split -> label_intercept_1_split_0
I0505 19:48:06.427747  8940 net.cpp:409] label_intercept_1_split -> label_intercept_1_split_1
I0505 19:48:06.427793  8940 net.cpp:144] Setting up label_intercept_1_split
I0505 19:48:06.427799  8940 net.cpp:151] Top shape: 20 (20)
I0505 19:48:06.427803  8940 net.cpp:151] Top shape: 20 (20)
I0505 19:48:06.427805  8940 net.cpp:159] Memory required for data: 72240
I0505 19:48:06.427809  8940 layer_factory.hpp:77] Creating layer conv1
I0505 19:48:06.427819  8940 net.cpp:94] Creating Layer conv1
I0505 19:48:06.427824  8940 net.cpp:435] conv1 <- data
I0505 19:48:06.427829  8940 net.cpp:409] conv1 -> conv1
I0505 19:48:06.429412  8940 net.cpp:144] Setting up conv1
I0505 19:48:06.429428  8940 net.cpp:151] Top shape: 20 64 30 30 (1152000)
I0505 19:48:06.429432  8940 net.cpp:159] Memory required for data: 4680240
I0505 19:48:06.429443  8940 layer_factory.hpp:77] Creating layer relu1
I0505 19:48:06.429450  8940 net.cpp:94] Creating Layer relu1
I0505 19:48:06.429453  8940 net.cpp:435] relu1 <- conv1
I0505 19:48:06.429458  8940 net.cpp:396] relu1 -> conv1 (in-place)
I0505 19:48:06.429466  8940 net.cpp:144] Setting up relu1
I0505 19:48:06.429471  8940 net.cpp:151] Top shape: 20 64 30 30 (1152000)
I0505 19:48:06.429472  8940 net.cpp:159] Memory required for data: 9288240
I0505 19:48:06.429476  8940 layer_factory.hpp:77] Creating layer pool1
I0505 19:48:06.429482  8940 net.cpp:94] Creating Layer pool1
I0505 19:48:06.429486  8940 net.cpp:435] pool1 <- conv1
I0505 19:48:06.429489  8940 net.cpp:409] pool1 -> pool1
I0505 19:48:06.429548  8940 net.cpp:144] Setting up pool1
I0505 19:48:06.429555  8940 net.cpp:151] Top shape: 20 64 15 15 (288000)
I0505 19:48:06.429559  8940 net.cpp:159] Memory required for data: 10440240
I0505 19:48:06.429563  8940 layer_factory.hpp:77] Creating layer conv2
I0505 19:48:06.429570  8940 net.cpp:94] Creating Layer conv2
I0505 19:48:06.429574  8940 net.cpp:435] conv2 <- pool1
I0505 19:48:06.429579  8940 net.cpp:409] conv2 -> conv2
I0505 19:48:06.438163  8940 net.cpp:144] Setting up conv2
I0505 19:48:06.438180  8940 net.cpp:151] Top shape: 20 128 15 15 (576000)
I0505 19:48:06.438184  8940 net.cpp:159] Memory required for data: 12744240
I0505 19:48:06.438197  8940 layer_factory.hpp:77] Creating layer relu2
I0505 19:48:06.438205  8940 net.cpp:94] Creating Layer relu2
I0505 19:48:06.438207  8940 net.cpp:435] relu2 <- conv2
I0505 19:48:06.438212  8940 net.cpp:396] relu2 -> conv2 (in-place)
I0505 19:48:06.438220  8940 net.cpp:144] Setting up relu2
I0505 19:48:06.438223  8940 net.cpp:151] Top shape: 20 128 15 15 (576000)
I0505 19:48:06.438226  8940 net.cpp:159] Memory required for data: 15048240
I0505 19:48:06.438230  8940 layer_factory.hpp:77] Creating layer conv3
I0505 19:48:06.438236  8940 net.cpp:94] Creating Layer conv3
I0505 19:48:06.438240  8940 net.cpp:435] conv3 <- conv2
I0505 19:48:06.438244  8940 net.cpp:409] conv3 -> conv3
I0505 19:48:06.453935  8940 net.cpp:144] Setting up conv3
I0505 19:48:06.453974  8940 net.cpp:151] Top shape: 20 128 15 15 (576000)
I0505 19:48:06.453985  8940 net.cpp:159] Memory required for data: 17352240
I0505 19:48:06.454008  8940 layer_factory.hpp:77] Creating layer relu3
I0505 19:48:06.454025  8940 net.cpp:94] Creating Layer relu3
I0505 19:48:06.454035  8940 net.cpp:435] relu3 <- conv3
I0505 19:48:06.454047  8940 net.cpp:396] relu3 -> conv3 (in-place)
I0505 19:48:06.454066  8940 net.cpp:144] Setting up relu3
I0505 19:48:06.454088  8940 net.cpp:151] Top shape: 20 128 15 15 (576000)
I0505 19:48:06.454092  8940 net.cpp:159] Memory required for data: 19656240
I0505 19:48:06.454094  8940 layer_factory.hpp:77] Creating layer pool3
I0505 19:48:06.454099  8940 net.cpp:94] Creating Layer pool3
I0505 19:48:06.454102  8940 net.cpp:435] pool3 <- conv3
I0505 19:48:06.454107  8940 net.cpp:409] pool3 -> pool3
I0505 19:48:06.454161  8940 net.cpp:144] Setting up pool3
I0505 19:48:06.454169  8940 net.cpp:151] Top shape: 20 128 7 7 (125440)
I0505 19:48:06.454171  8940 net.cpp:159] Memory required for data: 20158000
I0505 19:48:06.454174  8940 layer_factory.hpp:77] Creating layer ip1
I0505 19:48:06.454181  8940 net.cpp:94] Creating Layer ip1
I0505 19:48:06.454185  8940 net.cpp:435] ip1 <- pool3
I0505 19:48:06.454190  8940 net.cpp:409] ip1 -> ip1
I0505 19:48:06.531993  8940 net.cpp:144] Setting up ip1
I0505 19:48:06.532027  8940 net.cpp:151] Top shape: 20 512 (10240)
I0505 19:48:06.532029  8940 net.cpp:159] Memory required for data: 20198960
I0505 19:48:06.532037  8940 layer_factory.hpp:77] Creating layer ip2
I0505 19:48:06.532049  8940 net.cpp:94] Creating Layer ip2
I0505 19:48:06.532054  8940 net.cpp:435] ip2 <- ip1
I0505 19:48:06.532060  8940 net.cpp:409] ip2 -> ip2
I0505 19:48:06.535291  8940 net.cpp:144] Setting up ip2
I0505 19:48:06.535303  8940 net.cpp:151] Top shape: 20 256 (5120)
I0505 19:48:06.535307  8940 net.cpp:159] Memory required for data: 20219440
I0505 19:48:06.535317  8940 layer_factory.hpp:77] Creating layer ip3
I0505 19:48:06.535323  8940 net.cpp:94] Creating Layer ip3
I0505 19:48:06.535327  8940 net.cpp:435] ip3 <- ip2
I0505 19:48:06.535331  8940 net.cpp:409] ip3 -> ip3
I0505 19:48:06.535776  8940 net.cpp:144] Setting up ip3
I0505 19:48:06.535784  8940 net.cpp:151] Top shape: 20 50 (1000)
I0505 19:48:06.535786  8940 net.cpp:159] Memory required for data: 20223440
I0505 19:48:06.535791  8940 layer_factory.hpp:77] Creating layer ip3_ip3_0_split
I0505 19:48:06.535799  8940 net.cpp:94] Creating Layer ip3_ip3_0_split
I0505 19:48:06.535802  8940 net.cpp:435] ip3_ip3_0_split <- ip3
I0505 19:48:06.535806  8940 net.cpp:409] ip3_ip3_0_split -> ip3_ip3_0_split_0
I0505 19:48:06.535811  8940 net.cpp:409] ip3_ip3_0_split -> ip3_ip3_0_split_1
I0505 19:48:06.535857  8940 net.cpp:144] Setting up ip3_ip3_0_split
I0505 19:48:06.535863  8940 net.cpp:151] Top shape: 20 50 (1000)
I0505 19:48:06.535866  8940 net.cpp:151] Top shape: 20 50 (1000)
I0505 19:48:06.535869  8940 net.cpp:159] Memory required for data: 20231440
I0505 19:48:06.535872  8940 layer_factory.hpp:77] Creating layer accuracy
I0505 19:48:06.535879  8940 net.cpp:94] Creating Layer accuracy
I0505 19:48:06.535882  8940 net.cpp:435] accuracy <- ip3_ip3_0_split_0
I0505 19:48:06.535887  8940 net.cpp:435] accuracy <- label_intercept_1_split_0
I0505 19:48:06.535890  8940 net.cpp:409] accuracy -> accuracy
…
