…
I0505 06:54:56.185796  4519 net.cpp:323] The NetState phase (0) differed from the phase (1) specified by a rule in layer intercept
I0505 06:54:56.185811  4519 net.cpp:323] The NetState phase (0) differed from the phase (1) specified by a rule in layer loss
I0505 06:54:56.185885  4519 net.cpp:52] Initializing net from parameters: 
state {
  phase: TRAIN
}
layer {
  name: "parameters"
  type: "HDF5Data"
  top: "data"
  top: "label"
  include {
    phase: TRAIN
  }
  hdf5_data_param {
    source: "/home/purduethu/scratch/radon/d/deng106/CNNStatisticalModel/distributions/input/50_distributions_100_sample_size_train-parameters-path.txt"
    batch_size: 20
  }
}
layer {
  name: "conv1"
  type: "Convolution"
  bottom: "data"
  top: "conv1"
  param {
    lr_mult: 1
  }
  param {
    lr_mult: 2
  }
  convolution_param {
    num_output: 64
    pad: 2
    kernel_size: 5
    stride: 1
    weight_filler {
      type: "gaussian"
      std: 0.0001
    }
    bias_filler {
      type: "constant"
    }
  }
}
layer {
  name: "relu1"
  type: "ReLU"
  bottom: "conv1"
  top: "conv1"
}
layer {
  name: "pool1"
  type: "Pooling"
  bottom: "conv1"
  top: "pool1"
  pooling_param {
    pool: MAX
    kernel_size: 3
    stride: 2
  }
}
layer {
  name: "conv2"
  type: "Convolution"
  bottom: "pool1"
  top: "conv2"
  param {
    lr_mult: 1
  }
  param {
    lr_mult: 2
  }
  convolution_param {
    num_output: 128
    pad: 2
    kernel_size: 5
    stride: 1
    weight_filler {
      type: "gaussian"
      std: 0.01
    }
    bias_filler {
      type: "constant"
    }
  }
}
layer {
  name: "relu2"
  type: "ReLU"
  bottom: "conv2"
  top: "conv2"
}
layer {
  name: "conv3"
  type: "Convolution"
  bottom: "conv2"
  top: "conv3"
  param {
    lr_mult: 1
  }
  param {
    lr_mult: 2
  }
  convolution_param {
    num_output: 128
    pad: 2
    kernel_size: 5
    stride: 1
    weight_filler {
      type: "gaussian"
      std: 0.01
    }
    bias_filler {
      type: "constant"
    }
  }
}
layer {
  name: "relu3"
  type: "ReLU"
  bottom: "conv3"
  top: "conv3"
}
layer {
  name: "pool3"
  type: "Pooling"
  bottom: "conv3"
  top: "pool3"
  pooling_param {
    pool: AVE
    kernel_size: 3
    stride: 2
  }
}
layer {
  name: "ip1"
  type: "InnerProduct"
  bottom: "pool3"
  top: "ip1"
  param {
    lr_mult: 1
  }
  param {
    lr_mult: 2
  }
  inner_product_param {
    num_output: 512
    weight_filler {
      type: "gaussian"
      std: 0.1
    }
    bias_filler {
      type: "constant"
    }
  }
}
layer {
  name: "ip2"
  type: "InnerProduct"
  bottom: "ip1"
  top: "ip2"
  param {
    lr_mult: 1
  }
  param {
    lr_mult: 2
  }
  inner_product_param {
    num_output: 256
    weight_filler {
      type: "gaussian"
      std: 0.1
    }
    bias_filler {
      type: "constant"
    }
  }
}
layer {
  name: "ip3"
  type: "InnerProduct"
  bottom: "ip2"
  top: "ip3"
  param {
    lr_mult: 1
  }
  param {
    lr_mult: 2
  }
  inner_product_param {
    num_output: 1
    weight_filler {
      type: "gaussian"
      std: 0.1
    }
    bias_filler {
      type: "constant"
    }
  }
}
layer {
  name: "loss"
  type: "HuberLoss"
  bottom: "ip3"
  bottom: "label"
  top: "loss"
  include {
    phase: TRAIN
  }
}
I0505 06:54:56.185945  4519 layer_factory.hpp:77] Creating layer parameters
I0505 06:54:56.185959  4519 net.cpp:94] Creating Layer parameters
I0505 06:54:56.185972  4519 net.cpp:409] parameters -> data
I0505 06:54:56.185992  4519 net.cpp:409] parameters -> label
I0505 06:54:56.186002  4519 hdf5_data_layer.cpp:79] Loading list of HDF5 filenames from: /home/purduethu/scratch/radon/d/deng106/CNNStatisticalModel/distributions/input/50_distributions_100_sample_size_train-parameters-path.txt
I0505 06:54:56.186022  4519 hdf5_data_layer.cpp:93] Number of HDF5 files: 1
I0505 06:54:56.186473  4519 hdf5.cpp:32] Datatype class: H5T_FLOAT
I0505 06:54:56.346366  4519 net.cpp:144] Setting up parameters
I0505 06:54:56.346398  4519 net.cpp:151] Top shape: 20 1 10 10 (2000)
I0505 06:54:56.346405  4519 net.cpp:151] Top shape: 20 (20)
I0505 06:54:56.346407  4519 net.cpp:159] Memory required for data: 8080
I0505 06:54:56.346415  4519 layer_factory.hpp:77] Creating layer conv1
I0505 06:54:56.346439  4519 net.cpp:94] Creating Layer conv1
I0505 06:54:56.346446  4519 net.cpp:435] conv1 <- data
I0505 06:54:56.346457  4519 net.cpp:409] conv1 -> conv1
I0505 06:54:56.350150  4519 net.cpp:144] Setting up conv1
I0505 06:54:56.350165  4519 net.cpp:151] Top shape: 20 64 10 10 (128000)
I0505 06:54:56.350169  4519 net.cpp:159] Memory required for data: 520080
I0505 06:54:56.350180  4519 layer_factory.hpp:77] Creating layer relu1
I0505 06:54:56.350188  4519 net.cpp:94] Creating Layer relu1
I0505 06:54:56.350193  4519 net.cpp:435] relu1 <- conv1
I0505 06:54:56.350196  4519 net.cpp:396] relu1 -> conv1 (in-place)
I0505 06:54:56.350210  4519 net.cpp:144] Setting up relu1
I0505 06:54:56.350216  4519 net.cpp:151] Top shape: 20 64 10 10 (128000)
I0505 06:54:56.350219  4519 net.cpp:159] Memory required for data: 1032080
I0505 06:54:56.350222  4519 layer_factory.hpp:77] Creating layer pool1
I0505 06:54:56.350229  4519 net.cpp:94] Creating Layer pool1
I0505 06:54:56.350232  4519 net.cpp:435] pool1 <- conv1
I0505 06:54:56.350236  4519 net.cpp:409] pool1 -> pool1
I0505 06:54:56.350281  4519 net.cpp:144] Setting up pool1
I0505 06:54:56.350286  4519 net.cpp:151] Top shape: 20 64 5 5 (32000)
I0505 06:54:56.350291  4519 net.cpp:159] Memory required for data: 1160080
I0505 06:54:56.350293  4519 layer_factory.hpp:77] Creating layer conv2
I0505 06:54:56.350301  4519 net.cpp:94] Creating Layer conv2
I0505 06:54:56.350306  4519 net.cpp:435] conv2 <- pool1
I0505 06:54:56.350311  4519 net.cpp:409] conv2 -> conv2
I0505 06:54:56.358918  4519 net.cpp:144] Setting up conv2
I0505 06:54:56.358933  4519 net.cpp:151] Top shape: 20 128 5 5 (64000)
I0505 06:54:56.358937  4519 net.cpp:159] Memory required for data: 1416080
I0505 06:54:56.358945  4519 layer_factory.hpp:77] Creating layer relu2
I0505 06:54:56.358952  4519 net.cpp:94] Creating Layer relu2
I0505 06:54:56.358955  4519 net.cpp:435] relu2 <- conv2
I0505 06:54:56.358959  4519 net.cpp:396] relu2 -> conv2 (in-place)
I0505 06:54:56.358966  4519 net.cpp:144] Setting up relu2
I0505 06:54:56.358970  4519 net.cpp:151] Top shape: 20 128 5 5 (64000)
I0505 06:54:56.358973  4519 net.cpp:159] Memory required for data: 1672080
I0505 06:54:56.358978  4519 layer_factory.hpp:77] Creating layer conv3
I0505 06:54:56.358985  4519 net.cpp:94] Creating Layer conv3
I0505 06:54:56.358989  4519 net.cpp:435] conv3 <- conv2
I0505 06:54:56.358994  4519 net.cpp:409] conv3 -> conv3
I0505 06:54:56.373590  4519 net.cpp:144] Setting up conv3
I0505 06:54:56.373606  4519 net.cpp:151] Top shape: 20 128 5 5 (64000)
I0505 06:54:56.373610  4519 net.cpp:159] Memory required for data: 1928080
I0505 06:54:56.373620  4519 layer_factory.hpp:77] Creating layer relu3
I0505 06:54:56.373625  4519 net.cpp:94] Creating Layer relu3
I0505 06:54:56.373636  4519 net.cpp:435] relu3 <- conv3
I0505 06:54:56.373641  4519 net.cpp:396] relu3 -> conv3 (in-place)
I0505 06:54:56.373648  4519 net.cpp:144] Setting up relu3
I0505 06:54:56.373653  4519 net.cpp:151] Top shape: 20 128 5 5 (64000)
I0505 06:54:56.373656  4519 net.cpp:159] Memory required for data: 2184080
I0505 06:54:56.373659  4519 layer_factory.hpp:77] Creating layer pool3
I0505 06:54:56.373666  4519 net.cpp:94] Creating Layer pool3
I0505 06:54:56.373669  4519 net.cpp:435] pool3 <- conv3
I0505 06:54:56.373680  4519 net.cpp:409] pool3 -> pool3
I0505 06:54:56.373714  4519 net.cpp:144] Setting up pool3
I0505 06:54:56.373721  4519 net.cpp:151] Top shape: 20 128 2 2 (10240)
I0505 06:54:56.373724  4519 net.cpp:159] Memory required for data: 2225040
I0505 06:54:56.373728  4519 layer_factory.hpp:77] Creating layer ip1
I0505 06:54:56.373738  4519 net.cpp:94] Creating Layer ip1
I0505 06:54:56.373741  4519 net.cpp:435] ip1 <- pool3
I0505 06:54:56.373746  4519 net.cpp:409] ip1 -> ip1
I0505 06:54:56.380527  4519 net.cpp:144] Setting up ip1
I0505 06:54:56.380540  4519 net.cpp:151] Top shape: 20 512 (10240)
I0505 06:54:56.380544  4519 net.cpp:159] Memory required for data: 2266000
I0505 06:54:56.380554  4519 layer_factory.hpp:77] Creating layer ip2
I0505 06:54:56.380566  4519 net.cpp:94] Creating Layer ip2
I0505 06:54:56.380570  4519 net.cpp:435] ip2 <- ip1
I0505 06:54:56.380576  4519 net.cpp:409] ip2 -> ip2
I0505 06:54:56.384284  4519 net.cpp:144] Setting up ip2
I0505 06:54:56.384297  4519 net.cpp:151] Top shape: 20 256 (5120)
I0505 06:54:56.384301  4519 net.cpp:159] Memory required for data: 2286480
I0505 06:54:56.384310  4519 layer_factory.hpp:77] Creating layer ip3
I0505 06:54:56.384316  4519 net.cpp:94] Creating Layer ip3
I0505 06:54:56.384320  4519 net.cpp:435] ip3 <- ip2
I0505 06:54:56.384325  4519 net.cpp:409] ip3 -> ip3
I0505 06:54:56.384390  4519 net.cpp:144] Setting up ip3
I0505 06:54:56.384397  4519 net.cpp:151] Top shape: 20 1 (20)
I0505 06:54:56.384400  4519 net.cpp:159] Memory required for data: 2286560
I0505 06:54:56.384405  4519 layer_factory.hpp:77] Creating layer loss
I0505 06:54:56.384410  4519 net.cpp:94] Creating Layer loss
I0505 06:54:56.384414  4519 net.cpp:435] loss <- ip3
I0505 06:54:56.384418  4519 net.cpp:435] loss <- label
I0505 06:54:56.384423  4519 net.cpp:409] loss -> loss
I0505 06:54:56.384461  4519 net.cpp:144] Setting up loss
…
