…
I0507 11:24:57.375697  1198 net.cpp:323] The NetState phase (0) differed from the phase (1) specified by a rule in layer intercept
I0507 11:24:57.375713  1198 net.cpp:323] The NetState phase (0) differed from the phase (1) specified by a rule in layer loss
I0507 11:24:57.375792  1198 net.cpp:52] Initializing net from parameters: 
state {
  phase: TRAIN
}
layer {
  name: "parameters"
  type: "HDF5Data"
  top: "data"
  top: "label"
  include {
    phase: TRAIN
  }
  hdf5_data_param {
    source: "/home/purduethu/scratch/radon/d/deng106/CNNStatisticalModel/distributions/input/50_distributions_100_sample_size_train-parameters-path.txt"
    batch_size: 20
  }
}
layer {
  name: "conv1"
  type: "Convolution"
  bottom: "data"
  top: "conv1"
  param {
    lr_mult: 1
  }
  param {
    lr_mult: 2
  }
  convolution_param {
    num_output: 64
    pad: 2
    kernel_size: 5
    stride: 1
    weight_filler {
      type: "gaussian"
      std: 0.0001
    }
    bias_filler {
      type: "constant"
    }
  }
}
layer {
  name: "relu1"
  type: "ReLU"
  bottom: "conv1"
  top: "conv1"
}
layer {
  name: "conv2"
  type: "Convolution"
  bottom: "conv1"
  top: "conv2"
  param {
    lr_mult: 1
  }
  param {
    lr_mult: 2
  }
  convolution_param {
    num_output: 64
    pad: 2
    kernel_size: 5
    stride: 1
    weight_filler {
      type: "gaussian"
      std: 0.01
    }
    bias_filler {
      type: "constant"
    }
  }
}
layer {
  name: "relu2"
  type: "ReLU"
  bottom: "conv2"
  top: "conv2"
}
layer {
  name: "pool2"
  type: "Pooling"
  bottom: "conv2"
  top: "pool2"
  pooling_param {
    pool: MAX
    kernel_size: 3
    stride: 2
  }
}
layer {
  name: "conv3"
  type: "Convolution"
  bottom: "pool2"
  top: "conv3"
  param {
    lr_mult: 1
  }
  param {
    lr_mult: 2
  }
  convolution_param {
    num_output: 64
    pad: 2
    kernel_size: 5
    stride: 1
    weight_filler {
      type: "gaussian"
      std: 0.01
    }
    bias_filler {
      type: "constant"
    }
  }
}
layer {
  name: "relu3"
  type: "ReLU"
  bottom: "conv3"
  top: "conv3"
}
layer {
  name: "conv4"
  type: "Convolution"
  bottom: "conv3"
  top: "conv4"
  param {
    lr_mult: 1
  }
  param {
    lr_mult: 2
  }
  convolution_param {
    num_output: 64
    pad: 2
    kernel_size: 5
    stride: 1
    weight_filler {
      type: "gaussian"
      std: 0.01
    }
    bias_filler {
      type: "constant"
    }
  }
}
layer {
  name: "relu4"
  type: "ReLU"
  bottom: "conv4"
  top: "conv4"
}
layer {
  name: "conv5"
  type: "Convolution"
  bottom: "conv4"
  top: "conv5"
  param {
    lr_mult: 1
  }
  param {
    lr_mult: 2
  }
  convolution_param {
    num_output: 64
    pad: 2
    kernel_size: 5
    stride: 1
    weight_filler {
      type: "gaussian"
      std: 0.01
    }
    bias_filler {
      type: "constant"
    }
  }
}
layer {
  name: "relu5"
  type: "ReLU"
  bottom: "conv5"
  top: "conv5"
}
layer {
  name: "pool5"
  type: "Pooling"
  bottom: "conv5"
  top: "pool5"
  pooling_param {
    pool: AVE
    kernel_size: 3
    stride: 2
  }
}
layer {
  name: "ip1"
  type: "InnerProduct"
  bottom: "pool5"
  top: "ip1"
  param {
    lr_mult: 1
  }
  param {
    lr_mult: 2
  }
  inner_product_param {
    num_output: 64
    weight_filler {
      type: "gaussian"
      std: 0.1
    }
    bias_filler {
      type: "constant"
    }
  }
}
layer {
  name: "ip2"
  type: "InnerProduct"
  bottom: "ip1"
  top: "ip2"
  param {
    lr_mult: 1
  }
  param {
    lr_mult: 2
  }
  inner_product_param {
    num_output: 64
    weight_filler {
      type: "gaussian"
      std: 0.1
    }
    bias_filler {
      type: "constant"
    }
  }
}
layer {
  name: "ip3"
  type: "InnerProduct"
  bottom: "ip2"
  top: "ip3"
  param {
    lr_mult: 1
  }
  param {
    lr_mult: 2
  }
  inner_product_param {
    num_output: 1
    weight_filler {
      type: "gaussian"
      std: 0.1
    }
    bias_filler {
      type: "constant"
    }
  }
}
layer {
  name: "loss"
  type: "HuberLoss"
  bottom: "ip3"
  bottom: "label"
  top: "loss"
  include {
    phase: TRAIN
  }
}
I0507 11:24:57.375845  1198 layer_factory.hpp:77] Creating layer parameters
I0507 11:24:57.375859  1198 net.cpp:94] Creating Layer parameters
I0507 11:24:57.375864  1198 net.cpp:409] parameters -> data
I0507 11:24:57.375871  1198 net.cpp:409] parameters -> label
I0507 11:24:57.375879  1198 hdf5_data_layer.cpp:79] Loading list of HDF5 filenames from: /home/purduethu/scratch/radon/d/deng106/CNNStatisticalModel/distributions/input/50_distributions_100_sample_size_train-parameters-path.txt
I0507 11:24:57.375893  1198 hdf5_data_layer.cpp:93] Number of HDF5 files: 1
I0507 11:24:57.376447  1198 hdf5.cpp:32] Datatype class: H5T_FLOAT
I0507 11:24:57.541426  1198 net.cpp:144] Setting up parameters
I0507 11:24:57.541458  1198 net.cpp:151] Top shape: 20 1 10 10 (2000)
I0507 11:24:57.541463  1198 net.cpp:151] Top shape: 20 (20)
I0507 11:24:57.541466  1198 net.cpp:159] Memory required for data: 8080
I0507 11:24:57.541472  1198 layer_factory.hpp:77] Creating layer conv1
I0507 11:24:57.541494  1198 net.cpp:94] Creating Layer conv1
I0507 11:24:57.541499  1198 net.cpp:435] conv1 <- data
I0507 11:24:57.541505  1198 net.cpp:409] conv1 -> conv1
I0507 11:24:57.545578  1198 net.cpp:144] Setting up conv1
I0507 11:24:57.545594  1198 net.cpp:151] Top shape: 20 64 10 10 (128000)
I0507 11:24:57.545599  1198 net.cpp:159] Memory required for data: 520080
I0507 11:24:57.545609  1198 layer_factory.hpp:77] Creating layer relu1
I0507 11:24:57.545619  1198 net.cpp:94] Creating Layer relu1
I0507 11:24:57.545621  1198 net.cpp:435] relu1 <- conv1
I0507 11:24:57.545626  1198 net.cpp:396] relu1 -> conv1 (in-place)
I0507 11:24:57.545641  1198 net.cpp:144] Setting up relu1
I0507 11:24:57.545645  1198 net.cpp:151] Top shape: 20 64 10 10 (128000)
I0507 11:24:57.545648  1198 net.cpp:159] Memory required for data: 1032080
I0507 11:24:57.545651  1198 layer_factory.hpp:77] Creating layer conv2
I0507 11:24:57.545660  1198 net.cpp:94] Creating Layer conv2
I0507 11:24:57.545663  1198 net.cpp:435] conv2 <- conv1
I0507 11:24:57.545668  1198 net.cpp:409] conv2 -> conv2
I0507 11:24:57.556038  1198 net.cpp:144] Setting up conv2
I0507 11:24:57.556053  1198 net.cpp:151] Top shape: 20 64 10 10 (128000)
I0507 11:24:57.556057  1198 net.cpp:159] Memory required for data: 1544080
I0507 11:24:57.556066  1198 layer_factory.hpp:77] Creating layer relu2
I0507 11:24:57.556072  1198 net.cpp:94] Creating Layer relu2
I0507 11:24:57.556077  1198 net.cpp:435] relu2 <- conv2
I0507 11:24:57.556082  1198 net.cpp:396] relu2 -> conv2 (in-place)
I0507 11:24:57.556088  1198 net.cpp:144] Setting up relu2
I0507 11:24:57.556092  1198 net.cpp:151] Top shape: 20 64 10 10 (128000)
I0507 11:24:57.556095  1198 net.cpp:159] Memory required for data: 2056080
I0507 11:24:57.556098  1198 layer_factory.hpp:77] Creating layer pool2
I0507 11:24:57.556110  1198 net.cpp:94] Creating Layer pool2
I0507 11:24:57.556114  1198 net.cpp:435] pool2 <- conv2
I0507 11:24:57.556119  1198 net.cpp:409] pool2 -> pool2
I0507 11:24:57.556170  1198 net.cpp:144] Setting up pool2
I0507 11:24:57.556177  1198 net.cpp:151] Top shape: 20 64 5 5 (32000)
I0507 11:24:57.556180  1198 net.cpp:159] Memory required for data: 2184080
I0507 11:24:57.556185  1198 layer_factory.hpp:77] Creating layer conv3
I0507 11:24:57.556192  1198 net.cpp:94] Creating Layer conv3
I0507 11:24:57.556195  1198 net.cpp:435] conv3 <- pool2
I0507 11:24:57.556200  1198 net.cpp:409] conv3 -> conv3
I0507 11:24:57.561023  1198 net.cpp:144] Setting up conv3
I0507 11:24:57.561038  1198 net.cpp:151] Top shape: 20 64 5 5 (32000)
I0507 11:24:57.561041  1198 net.cpp:159] Memory required for data: 2312080
I0507 11:24:57.561049  1198 layer_factory.hpp:77] Creating layer relu3
I0507 11:24:57.561055  1198 net.cpp:94] Creating Layer relu3
I0507 11:24:57.561059  1198 net.cpp:435] relu3 <- conv3
I0507 11:24:57.561064  1198 net.cpp:396] relu3 -> conv3 (in-place)
I0507 11:24:57.561070  1198 net.cpp:144] Setting up relu3
I0507 11:24:57.561075  1198 net.cpp:151] Top shape: 20 64 5 5 (32000)
I0507 11:24:57.561079  1198 net.cpp:159] Memory required for data: 2440080
I0507 11:24:57.561080  1198 layer_factory.hpp:77] Creating layer conv4
I0507 11:24:57.561089  1198 net.cpp:94] Creating Layer conv4
I0507 11:24:57.561092  1198 net.cpp:435] conv4 <- conv3
I0507 11:24:57.561097  1198 net.cpp:409] conv4 -> conv4
I0507 11:24:57.565429  1198 net.cpp:144] Setting up conv4
I0507 11:24:57.565443  1198 net.cpp:151] Top shape: 20 64 5 5 (32000)
I0507 11:24:57.565446  1198 net.cpp:159] Memory required for data: 2568080
I0507 11:24:57.565452  1198 layer_factory.hpp:77] Creating layer relu4
I0507 11:24:57.565457  1198 net.cpp:94] Creating Layer relu4
I0507 11:24:57.565461  1198 net.cpp:435] relu4 <- conv4
I0507 11:24:57.565465  1198 net.cpp:396] relu4 -> conv4 (in-place)
I0507 11:24:57.565472  1198 net.cpp:144] Setting up relu4
I0507 11:24:57.565477  1198 net.cpp:151] Top shape: 20 64 5 5 (32000)
I0507 11:24:57.565480  1198 net.cpp:159] Memory required for data: 2696080
I0507 11:24:57.565484  1198 layer_factory.hpp:77] Creating layer conv5
I0507 11:24:57.565490  1198 net.cpp:94] Creating Layer conv5
I0507 11:24:57.565495  1198 net.cpp:435] conv5 <- conv4
I0507 11:24:57.565498  1198 net.cpp:409] conv5 -> conv5
I0507 11:24:57.570274  1198 net.cpp:144] Setting up conv5
I0507 11:24:57.570287  1198 net.cpp:151] Top shape: 20 64 5 5 (32000)
I0507 11:24:57.570291  1198 net.cpp:159] Memory required for data: 2824080
I0507 11:24:57.570300  1198 layer_factory.hpp:77] Creating layer relu5
I0507 11:24:57.570305  1198 net.cpp:94] Creating Layer relu5
I0507 11:24:57.570309  1198 net.cpp:435] relu5 <- conv5
I0507 11:24:57.570314  1198 net.cpp:396] relu5 -> conv5 (in-place)
I0507 11:24:57.570322  1198 net.cpp:144] Setting up relu5
I0507 11:24:57.570325  1198 net.cpp:151] Top shape: 20 64 5 5 (32000)
I0507 11:24:57.570328  1198 net.cpp:159] Memory required for data: 2952080
I0507 11:24:57.570332  1198 layer_factory.hpp:77] Creating layer pool5
I0507 11:24:57.570336  1198 net.cpp:94] Creating Layer pool5
I0507 11:24:57.570339  1198 net.cpp:435] pool5 <- conv5
I0507 11:24:57.570343  1198 net.cpp:409] pool5 -> pool5
I0507 11:24:57.570381  1198 net.cpp:144] Setting up pool5
I0507 11:24:57.570387  1198 net.cpp:151] Top shape: 20 64 2 2 (5120)
I0507 11:24:57.570391  1198 net.cpp:159] Memory required for data: 2972560
I0507 11:24:57.570394  1198 layer_factory.hpp:77] Creating layer ip1
I0507 11:24:57.570403  1198 net.cpp:94] Creating Layer ip1
I0507 11:24:57.570407  1198 net.cpp:435] ip1 <- pool5
I0507 11:24:57.570412  1198 net.cpp:409] ip1 -> ip1
I0507 11:24:57.571727  1198 net.cpp:144] Setting up ip1
I0507 11:24:57.571740  1198 net.cpp:151] Top shape: 20 64 (1280)
I0507 11:24:57.571744  1198 net.cpp:159] Memory required for data: 2977680
I0507 11:24:57.571750  1198 layer_factory.hpp:77] Creating layer ip2
I0507 11:24:57.571756  1198 net.cpp:94] Creating Layer ip2
I0507 11:24:57.571764  1198 net.cpp:435] ip2 <- ip1
I0507 11:24:57.571770  1198 net.cpp:409] ip2 -> ip2
I0507 11:24:57.571975  1198 net.cpp:144] Setting up ip2
I0507 11:24:57.571983  1198 net.cpp:151] Top shape: 20 64 (1280)
I0507 11:24:57.571986  1198 net.cpp:159] Memory required for data: 2982800
I0507 11:24:57.571991  1198 layer_factory.hpp:77] Creating layer ip3
I0507 11:24:57.571997  1198 net.cpp:94] Creating Layer ip3
I0507 11:24:57.572000  1198 net.cpp:435] ip3 <- ip2
I0507 11:24:57.572005  1198 net.cpp:409] ip3 -> ip3
I0507 11:24:57.572104  1198 net.cpp:144] Setting up ip3
I0507 11:24:57.572110  1198 net.cpp:151] Top shape: 20 1 (20)
I0507 11:24:57.572113  1198 net.cpp:159] Memory required for data: 2982880
I0507 11:24:57.572118  1198 layer_factory.hpp:77] Creating layer loss
I0507 11:24:57.572125  1198 net.cpp:94] Creating Layer loss
I0507 11:24:57.572129  1198 net.cpp:435] loss <- ip3
I0507 11:24:57.572132  1198 net.cpp:435] loss <- label
I0507 11:24:57.572137  1198 net.cpp:409] loss -> loss
I0507 11:24:57.572190  1198 net.cpp:144] Setting up loss
…
I0507 11:24:57.634466  1198 net.cpp:323] The NetState phase (0) differed from the phase (1) specified by a rule in layer intercept
I0507 11:24:57.634482  1198 net.cpp:323] The NetState phase (0) differed from the phase (1) specified by a rule in layer accuracy
I0507 11:24:57.634572  1198 net.cpp:52] Initializing net from parameters: 
state {
  phase: TRAIN
}
layer {
  name: "parameters"
  type: "HDF5Data"
  top: "data"
  top: "label"
  include {
    phase: TRAIN
  }
  hdf5_data_param {
    source: "/home/purduethu/scratch/radon/d/deng106/CNNStatisticalModel/distributions/input/50_distributions_100_sample_size_train-distributions-path.txt"
    batch_size: 20
  }
}
layer {
  name: "conv1"
  type: "Convolution"
  bottom: "data"
  top: "conv1"
  param {
    lr_mult: 1
  }
  param {
    lr_mult: 2
  }
  convolution_param {
    num_output: 64
    pad: 2
    kernel_size: 5
    stride: 1
    weight_filler {
      type: "gaussian"
      std: 0.0001
    }
    bias_filler {
      type: "constant"
    }
  }
}
layer {
  name: "relu1"
  type: "ReLU"
  bottom: "conv1"
  top: "conv1"
}
layer {
  name: "conv2"
  type: "Convolution"
  bottom: "conv1"
  top: "conv2"
  param {
    lr_mult: 1
  }
  param {
    lr_mult: 2
  }
  convolution_param {
    num_output: 64
    pad: 2
    kernel_size: 5
    stride: 1
    weight_filler {
      type: "gaussian"
      std: 0.01
    }
    bias_filler {
      type: "constant"
    }
  }
}
layer {
  name: "relu2"
  type: "ReLU"
  bottom: "conv2"
  top: "conv2"
}
layer {
  name: "pool2"
  type: "Pooling"
  bottom: "conv2"
  top: "pool2"
  pooling_param {
    pool: MAX
    kernel_size: 3
    stride: 2
  }
}
layer {
  name: "conv3"
  type: "Convolution"
  bottom: "pool2"
  top: "conv3"
  param {
    lr_mult: 1
  }
  param {
    lr_mult: 2
  }
  convolution_param {
    num_output: 64
    pad: 2
    kernel_size: 5
    stride: 1
    weight_filler {
      type: "gaussian"
      std: 0.01
    }
    bias_filler {
      type: "constant"
    }
  }
}
layer {
  name: "relu3"
  type: "ReLU"
  bottom: "conv3"
  top: "conv3"
}
layer {
  name: "conv4"
  type: "Convolution"
  bottom: "conv3"
  top: "conv4"
  param {
    lr_mult: 1
  }
  param {
    lr_mult: 2
  }
  convolution_param {
    num_output: 64
    pad: 2
    kernel_size: 5
    stride: 1
    weight_filler {
      type: "gaussian"
      std: 0.01
    }
    bias_filler {
      type: "constant"
    }
  }
}
layer {
  name: "relu4"
  type: "ReLU"
  bottom: "conv4"
  top: "conv4"
}
layer {
  name: "conv5"
  type: "Convolution"
  bottom: "conv4"
  top: "conv5"
  param {
    lr_mult: 1
  }
  param {
    lr_mult: 2
  }
  convolution_param {
    num_output: 64
    pad: 2
    kernel_size: 5
    stride: 1
    weight_filler {
      type: "gaussian"
      std: 0.01
    }
    bias_filler {
      type: "constant"
    }
  }
}
layer {
  name: "relu5"
  type: "ReLU"
  bottom: "conv5"
  top: "conv5"
}
layer {
  name: "pool5"
  type: "Pooling"
  bottom: "conv5"
  top: "pool5"
  pooling_param {
    pool: AVE
    kernel_size: 3
    stride: 2
  }
}
layer {
  name: "ip1"
  type: "InnerProduct"
  bottom: "pool5"
  top: "ip1"
  param {
    lr_mult: 1
  }
  param {
    lr_mult: 2
  }
  inner_product_param {
    num_output: 64
    weight_filler {
      type: "gaussian"
      std: 0.1
    }
    bias_filler {
      type: "constant"
    }
  }
}
layer {
  name: "ip2"
  type: "InnerProduct"
  bottom: "ip1"
  top: "ip2"
  param {
    lr_mult: 1
  }
  param {
    lr_mult: 2
  }
  inner_product_param {
    num_output: 64
    weight_filler {
      type: "gaussian"
      std: 0.1
    }
    bias_filler {
      type: "constant"
    }
  }
}
layer {
  name: "ip3"
  type: "InnerProduct"
  bottom: "ip2"
  top: "ip3"
  param {
    lr_mult: 1
  }
  param {
    lr_mult: 2
  }
  inner_product_param {
    num_output: 50
    weight_filler {
      type: "gaussian"
      std: 0.1
    }
    bias_filler {
      type: "constant"
    }
  }
}
layer {
  name: "loss"
  type: "SoftmaxWithLoss"
  bottom: "ip3"
  bottom: "label"
  top: "loss"
}
I0507 11:24:57.634624  1198 layer_factory.hpp:77] Creating layer parameters
I0507 11:24:57.634634  1198 net.cpp:94] Creating Layer parameters
I0507 11:24:57.634637  1198 net.cpp:409] parameters -> data
I0507 11:24:57.634644  1198 net.cpp:409] parameters -> label
I0507 11:24:57.634649  1198 hdf5_data_layer.cpp:79] Loading list of HDF5 filenames from: /home/purduethu/scratch/radon/d/deng106/CNNStatisticalModel/distributions/input/50_distributions_100_sample_size_train-distributions-path.txt
I0507 11:24:57.634665  1198 hdf5_data_layer.cpp:93] Number of HDF5 files: 1
I0507 11:24:57.792326  1198 hdf5.cpp:35] Datatype class: H5T_INTEGER
I0507 11:24:57.795446  1198 net.cpp:144] Setting up parameters
I0507 11:24:57.795469  1198 net.cpp:151] Top shape: 20 1 10 10 (2000)
I0507 11:24:57.795473  1198 net.cpp:151] Top shape: 20 (20)
I0507 11:24:57.795477  1198 net.cpp:159] Memory required for data: 8080
I0507 11:24:57.795483  1198 layer_factory.hpp:77] Creating layer conv1
I0507 11:24:57.795498  1198 net.cpp:94] Creating Layer conv1
I0507 11:24:57.795503  1198 net.cpp:435] conv1 <- data
I0507 11:24:57.795509  1198 net.cpp:409] conv1 -> conv1
I0507 11:24:57.797220  1198 net.cpp:144] Setting up conv1
I0507 11:24:57.797235  1198 net.cpp:151] Top shape: 20 64 10 10 (128000)
I0507 11:24:57.797238  1198 net.cpp:159] Memory required for data: 520080
I0507 11:24:57.797247  1198 layer_factory.hpp:77] Creating layer relu1
I0507 11:24:57.797255  1198 net.cpp:94] Creating Layer relu1
I0507 11:24:57.797260  1198 net.cpp:435] relu1 <- conv1
I0507 11:24:57.797263  1198 net.cpp:396] relu1 -> conv1 (in-place)
I0507 11:24:57.797271  1198 net.cpp:144] Setting up relu1
I0507 11:24:57.797276  1198 net.cpp:151] Top shape: 20 64 10 10 (128000)
I0507 11:24:57.797278  1198 net.cpp:159] Memory required for data: 1032080
I0507 11:24:57.797281  1198 layer_factory.hpp:77] Creating layer conv2
I0507 11:24:57.797288  1198 net.cpp:94] Creating Layer conv2
I0507 11:24:57.797292  1198 net.cpp:435] conv2 <- conv1
I0507 11:24:57.797297  1198 net.cpp:409] conv2 -> conv2
I0507 11:24:57.802569  1198 net.cpp:144] Setting up conv2
I0507 11:24:57.802583  1198 net.cpp:151] Top shape: 20 64 10 10 (128000)
I0507 11:24:57.802587  1198 net.cpp:159] Memory required for data: 1544080
I0507 11:24:57.802595  1198 layer_factory.hpp:77] Creating layer relu2
I0507 11:24:57.802601  1198 net.cpp:94] Creating Layer relu2
I0507 11:24:57.802605  1198 net.cpp:435] relu2 <- conv2
I0507 11:24:57.802610  1198 net.cpp:396] relu2 -> conv2 (in-place)
I0507 11:24:57.802616  1198 net.cpp:144] Setting up relu2
I0507 11:24:57.802621  1198 net.cpp:151] Top shape: 20 64 10 10 (128000)
I0507 11:24:57.802624  1198 net.cpp:159] Memory required for data: 2056080
I0507 11:24:57.802628  1198 layer_factory.hpp:77] Creating layer pool2
I0507 11:24:57.802634  1198 net.cpp:94] Creating Layer pool2
I0507 11:24:57.802636  1198 net.cpp:435] pool2 <- conv2
I0507 11:24:57.802640  1198 net.cpp:409] pool2 -> pool2
I0507 11:24:57.802690  1198 net.cpp:144] Setting up pool2
I0507 11:24:57.802696  1198 net.cpp:151] Top shape: 20 64 5 5 (32000)
I0507 11:24:57.802700  1198 net.cpp:159] Memory required for data: 2184080
I0507 11:24:57.802703  1198 layer_factory.hpp:77] Creating layer conv3
I0507 11:24:57.802711  1198 net.cpp:94] Creating Layer conv3
I0507 11:24:57.802714  1198 net.cpp:435] conv3 <- pool2
I0507 11:24:57.802719  1198 net.cpp:409] conv3 -> conv3
I0507 11:24:57.809655  1198 net.cpp:144] Setting up conv3
I0507 11:24:57.809669  1198 net.cpp:151] Top shape: 20 64 5 5 (32000)
I0507 11:24:57.809674  1198 net.cpp:159] Memory required for data: 2312080
I0507 11:24:57.809682  1198 layer_factory.hpp:77] Creating layer relu3
I0507 11:24:57.809687  1198 net.cpp:94] Creating Layer relu3
I0507 11:24:57.809691  1198 net.cpp:435] relu3 <- conv3
I0507 11:24:57.809696  1198 net.cpp:396] relu3 -> conv3 (in-place)
I0507 11:24:57.809702  1198 net.cpp:144] Setting up relu3
I0507 11:24:57.809707  1198 net.cpp:151] Top shape: 20 64 5 5 (32000)
I0507 11:24:57.809710  1198 net.cpp:159] Memory required for data: 2440080
I0507 11:24:57.809713  1198 layer_factory.hpp:77] Creating layer conv4
I0507 11:24:57.809721  1198 net.cpp:94] Creating Layer conv4
I0507 11:24:57.809725  1198 net.cpp:435] conv4 <- conv3
I0507 11:24:57.809729  1198 net.cpp:409] conv4 -> conv4
I0507 11:24:57.814576  1198 net.cpp:144] Setting up conv4
I0507 11:24:57.814590  1198 net.cpp:151] Top shape: 20 64 5 5 (32000)
I0507 11:24:57.814594  1198 net.cpp:159] Memory required for data: 2568080
I0507 11:24:57.814600  1198 layer_factory.hpp:77] Creating layer relu4
I0507 11:24:57.814605  1198 net.cpp:94] Creating Layer relu4
I0507 11:24:57.814610  1198 net.cpp:435] relu4 <- conv4
I0507 11:24:57.814615  1198 net.cpp:396] relu4 -> conv4 (in-place)
I0507 11:24:57.814620  1198 net.cpp:144] Setting up relu4
I0507 11:24:57.814625  1198 net.cpp:151] Top shape: 20 64 5 5 (32000)
I0507 11:24:57.814628  1198 net.cpp:159] Memory required for data: 2696080
I0507 11:24:57.814631  1198 layer_factory.hpp:77] Creating layer conv5
I0507 11:24:57.814638  1198 net.cpp:94] Creating Layer conv5
I0507 11:24:57.814641  1198 net.cpp:435] conv5 <- conv4
I0507 11:24:57.814646  1198 net.cpp:409] conv5 -> conv5
I0507 11:24:57.819020  1198 net.cpp:144] Setting up conv5
I0507 11:24:57.819033  1198 net.cpp:151] Top shape: 20 64 5 5 (32000)
I0507 11:24:57.819037  1198 net.cpp:159] Memory required for data: 2824080
I0507 11:24:57.819046  1198 layer_factory.hpp:77] Creating layer relu5
I0507 11:24:57.819051  1198 net.cpp:94] Creating Layer relu5
I0507 11:24:57.819056  1198 net.cpp:435] relu5 <- conv5
I0507 11:24:57.819059  1198 net.cpp:396] relu5 -> conv5 (in-place)
I0507 11:24:57.819067  1198 net.cpp:144] Setting up relu5
I0507 11:24:57.819070  1198 net.cpp:151] Top shape: 20 64 5 5 (32000)
I0507 11:24:57.819073  1198 net.cpp:159] Memory required for data: 2952080
I0507 11:24:57.819077  1198 layer_factory.hpp:77] Creating layer pool5
I0507 11:24:57.819082  1198 net.cpp:94] Creating Layer pool5
I0507 11:24:57.819085  1198 net.cpp:435] pool5 <- conv5
I0507 11:24:57.819089  1198 net.cpp:409] pool5 -> pool5
I0507 11:24:57.819123  1198 net.cpp:144] Setting up pool5
I0507 11:24:57.819128  1198 net.cpp:151] Top shape: 20 64 2 2 (5120)
I0507 11:24:57.819133  1198 net.cpp:159] Memory required for data: 2972560
I0507 11:24:57.819135  1198 layer_factory.hpp:77] Creating layer ip1
I0507 11:24:57.819141  1198 net.cpp:94] Creating Layer ip1
I0507 11:24:57.819145  1198 net.cpp:435] ip1 <- pool5
I0507 11:24:57.819149  1198 net.cpp:409] ip1 -> ip1
I0507 11:24:57.819658  1198 net.cpp:144] Setting up ip1
I0507 11:24:57.819665  1198 net.cpp:151] Top shape: 20 64 (1280)
I0507 11:24:57.819669  1198 net.cpp:159] Memory required for data: 2977680
I0507 11:24:57.819674  1198 layer_factory.hpp:77] Creating layer ip2
I0507 11:24:57.819679  1198 net.cpp:94] Creating Layer ip2
I0507 11:24:57.819684  1198 net.cpp:435] ip2 <- ip1
I0507 11:24:57.819687  1198 net.cpp:409] ip2 -> ip2
I0507 11:24:57.819898  1198 net.cpp:144] Setting up ip2
I0507 11:24:57.819905  1198 net.cpp:151] Top shape: 20 64 (1280)
I0507 11:24:57.819908  1198 net.cpp:159] Memory required for data: 2982800
I0507 11:24:57.819913  1198 layer_factory.hpp:77] Creating layer ip3
I0507 11:24:57.819918  1198 net.cpp:94] Creating Layer ip3
I0507 11:24:57.819922  1198 net.cpp:435] ip3 <- ip2
I0507 11:24:57.819926  1198 net.cpp:409] ip3 -> ip3
I0507 11:24:57.820113  1198 net.cpp:144] Setting up ip3
I0507 11:24:57.820121  1198 net.cpp:151] Top shape: 20 50 (1000)
I0507 11:24:57.820129  1198 net.cpp:159] Memory required for data: 2986800
I0507 11:24:57.820134  1198 layer_factory.hpp:77] Creating layer loss
I0507 11:24:57.820142  1198 net.cpp:94] Creating Layer loss
I0507 11:24:57.820144  1198 net.cpp:435] loss <- ip3
I0507 11:24:57.820148  1198 net.cpp:435] loss <- label
I0507 11:24:57.820152  1198 net.cpp:409] loss -> loss
I0507 11:24:57.820159  1198 layer_factory.hpp:77] Creating layer loss
…
I0507 11:24:57.821503  1198 solver.cpp:181] Creating test net (#0) specified by net file: ./protocol/dis_50_100_dimension.protocol_distribution
I0507 11:24:57.821529  1198 net.cpp:323] The NetState phase (1) differed from the phase (0) specified by a rule in layer parameters
I0507 11:24:57.821625  1198 net.cpp:52] Initializing net from parameters: 
state {
  phase: TEST
}
layer {
  name: "intercept"
  type: "HDF5Data"
  top: "data"
  top: "label"
  include {
    phase: TEST
  }
  hdf5_data_param {
    source: "/home/purduethu/scratch/radon/d/deng106/CNNStatisticalModel/distributions/input/50_distributions_100_sample_size_test-distributions-path.txt"
    batch_size: 20
  }
}
layer {
  name: "conv1"
  type: "Convolution"
  bottom: "data"
  top: "conv1"
  param {
    lr_mult: 1
  }
  param {
    lr_mult: 2
  }
  convolution_param {
    num_output: 64
    pad: 2
    kernel_size: 5
    stride: 1
    weight_filler {
      type: "gaussian"
      std: 0.0001
    }
    bias_filler {
      type: "constant"
    }
  }
}
layer {
  name: "relu1"
  type: "ReLU"
  bottom: "conv1"
  top: "conv1"
}
layer {
  name: "conv2"
  type: "Convolution"
  bottom: "conv1"
  top: "conv2"
  param {
    lr_mult: 1
  }
  param {
    lr_mult: 2
  }
  convolution_param {
    num_output: 64
    pad: 2
    kernel_size: 5
    stride: 1
    weight_filler {
      type: "gaussian"
      std: 0.01
    }
    bias_filler {
      type: "constant"
    }
  }
}
layer {
  name: "relu2"
  type: "ReLU"
  bottom: "conv2"
  top: "conv2"
}
layer {
  name: "pool2"
  type: "Pooling"
  bottom: "conv2"
  top: "pool2"
  pooling_param {
    pool: MAX
    kernel_size: 3
    stride: 2
  }
}
layer {
  name: "conv3"
  type: "Convolution"
  bottom: "pool2"
  top: "conv3"
  param {
    lr_mult: 1
  }
  param {
    lr_mult: 2
  }
  convolution_param {
    num_output: 64
    pad: 2
    kernel_size: 5
    stride: 1
    weight_filler {
      type: "gaussian"
      std: 0.01
    }
    bias_filler {
      type: "constant"
    }
  }
}
layer {
  name: "relu3"
  type: "ReLU"
  bottom: "conv3"
  top: "conv3"
}
layer {
  name: "conv4"
  type: "Convolution"
  bottom: "conv3"
  top: "conv4"
  param {
    lr_mult: 1
  }
  param {
    lr_mult: 2
  }
  convolution_param {
    num_output: 64
    pad: 2
    kernel_size: 5
    stride: 1
    weight_filler {
      type: "gaussian"
      std: 0.01
    }
    bias_filler {
      type: "constant"
    }
  }
}
layer {
  name: "relu4"
  type: "ReLU"
  bottom: "conv4"
  top: "conv4"
}
layer {
  name: "conv5"
  type: "Convolution"
  bottom: "conv4"
  top: "conv5"
  param {
    lr_mult: 1
  }
  param {
    lr_mult: 2
  }
  convolution_param {
    num_output: 64
    pad: 2
    kernel_size: 5
    stride: 1
    weight_filler {
      type: "gaussian"
      std: 0.01
    }
    bias_filler {
      type: "constant"
    }
  }
}
layer {
  name: "relu5"
  type: "ReLU"
  bottom: "conv5"
  top: "conv5"
}
layer {
  name: "pool5"
  type: "Pooling"
  bottom: "conv5"
  top: "pool5"
  pooling_param {
    pool: AVE
    kernel_size: 3
    stride: 2
  }
}
layer {
  name: "ip1"
  type: "InnerProduct"
  bottom: "pool5"
  top: "ip1"
  param {
    lr_mult: 1
  }
  param {
    lr_mult: 2
  }
  inner_product_param {
    num_output: 64
    weight_filler {
      type: "gaussian"
      std: 0.1
    }
    bias_filler {
      type: "constant"
    }
  }
}
layer {
  name: "ip2"
  type: "InnerProduct"
  bottom: "ip1"
  top: "ip2"
  param {
    lr_mult: 1
  }
  param {
    lr_mult: 2
  }
  inner_product_param {
    num_output: 64
    weight_filler {
      type: "gaussian"
      std: 0.1
    }
    bias_filler {
      type: "constant"
    }
  }
}
layer {
  name: "ip3"
  type: "InnerProduct"
  bottom: "ip2"
  top: "ip3"
  param {
    lr_mult: 1
  }
  param {
    lr_mult: 2
  }
  inner_product_param {
    num_output: 50
    weight_filler {
      type: "gaussian"
      std: 0.1
    }
    bias_filler {
      type: "constant"
    }
  }
}
layer {
  name: "accuracy"
  type: "Accuracy"
  bottom: "ip3"
  bottom: "label"
  top: "accuracy"
  include {
    phase: TEST
  }
}
layer {
  name: "loss"
  type: "SoftmaxWithLoss"
  bottom: "ip3"
  bottom: "label"
  top: "loss"
}
I0507 11:24:57.821689  1198 layer_factory.hpp:77] Creating layer intercept
I0507 11:24:57.821698  1198 net.cpp:94] Creating Layer intercept
I0507 11:24:57.821702  1198 net.cpp:409] intercept -> data
I0507 11:24:57.821709  1198 net.cpp:409] intercept -> label
I0507 11:24:57.821715  1198 hdf5_data_layer.cpp:79] Loading list of HDF5 filenames from: /home/purduethu/scratch/radon/d/deng106/CNNStatisticalModel/distributions/input/50_distributions_100_sample_size_test-distributions-path.txt
I0507 11:24:57.821734  1198 hdf5_data_layer.cpp:93] Number of HDF5 files: 1
I0507 11:24:57.863039  1198 net.cpp:144] Setting up intercept
I0507 11:24:57.863073  1198 net.cpp:151] Top shape: 20 1 10 10 (2000)
I0507 11:24:57.863078  1198 net.cpp:151] Top shape: 20 (20)
I0507 11:24:57.863081  1198 net.cpp:159] Memory required for data: 8080
I0507 11:24:57.863087  1198 layer_factory.hpp:77] Creating layer label_intercept_1_split
I0507 11:24:57.863106  1198 net.cpp:94] Creating Layer label_intercept_1_split
I0507 11:24:57.863111  1198 net.cpp:435] label_intercept_1_split <- label
I0507 11:24:57.863117  1198 net.cpp:409] label_intercept_1_split -> label_intercept_1_split_0
I0507 11:24:57.863126  1198 net.cpp:409] label_intercept_1_split -> label_intercept_1_split_1
I0507 11:24:57.863164  1198 net.cpp:144] Setting up label_intercept_1_split
I0507 11:24:57.863170  1198 net.cpp:151] Top shape: 20 (20)
I0507 11:24:57.863174  1198 net.cpp:151] Top shape: 20 (20)
I0507 11:24:57.863178  1198 net.cpp:159] Memory required for data: 8240
I0507 11:24:57.863180  1198 layer_factory.hpp:77] Creating layer conv1
I0507 11:24:57.863191  1198 net.cpp:94] Creating Layer conv1
I0507 11:24:57.863195  1198 net.cpp:435] conv1 <- data
I0507 11:24:57.863199  1198 net.cpp:409] conv1 -> conv1
I0507 11:24:57.863978  1198 net.cpp:144] Setting up conv1
I0507 11:24:57.863991  1198 net.cpp:151] Top shape: 20 64 10 10 (128000)
I0507 11:24:57.864002  1198 net.cpp:159] Memory required for data: 520240
I0507 11:24:57.864012  1198 layer_factory.hpp:77] Creating layer relu1
I0507 11:24:57.864019  1198 net.cpp:94] Creating Layer relu1
I0507 11:24:57.864023  1198 net.cpp:435] relu1 <- conv1
I0507 11:24:57.864027  1198 net.cpp:396] relu1 -> conv1 (in-place)
I0507 11:24:57.864034  1198 net.cpp:144] Setting up relu1
I0507 11:24:57.864039  1198 net.cpp:151] Top shape: 20 64 10 10 (128000)
I0507 11:24:57.864042  1198 net.cpp:159] Memory required for data: 1032240
I0507 11:24:57.864045  1198 layer_factory.hpp:77] Creating layer conv2
I0507 11:24:57.864053  1198 net.cpp:94] Creating Layer conv2
I0507 11:24:57.864056  1198 net.cpp:435] conv2 <- conv1
I0507 11:24:57.864061  1198 net.cpp:409] conv2 -> conv2
I0507 11:24:57.868788  1198 net.cpp:144] Setting up conv2
I0507 11:24:57.868800  1198 net.cpp:151] Top shape: 20 64 10 10 (128000)
I0507 11:24:57.868804  1198 net.cpp:159] Memory required for data: 1544240
I0507 11:24:57.868813  1198 layer_factory.hpp:77] Creating layer relu2
I0507 11:24:57.868818  1198 net.cpp:94] Creating Layer relu2
I0507 11:24:57.868821  1198 net.cpp:435] relu2 <- conv2
I0507 11:24:57.868825  1198 net.cpp:396] relu2 -> conv2 (in-place)
I0507 11:24:57.868832  1198 net.cpp:144] Setting up relu2
I0507 11:24:57.868836  1198 net.cpp:151] Top shape: 20 64 10 10 (128000)
I0507 11:24:57.868839  1198 net.cpp:159] Memory required for data: 2056240
I0507 11:24:57.868842  1198 layer_factory.hpp:77] Creating layer pool2
I0507 11:24:57.868849  1198 net.cpp:94] Creating Layer pool2
I0507 11:24:57.868851  1198 net.cpp:435] pool2 <- conv2
I0507 11:24:57.868855  1198 net.cpp:409] pool2 -> pool2
I0507 11:24:57.868907  1198 net.cpp:144] Setting up pool2
I0507 11:24:57.868916  1198 net.cpp:151] Top shape: 20 64 5 5 (32000)
I0507 11:24:57.868919  1198 net.cpp:159] Memory required for data: 2184240
I0507 11:24:57.868922  1198 layer_factory.hpp:77] Creating layer conv3
I0507 11:24:57.868930  1198 net.cpp:94] Creating Layer conv3
I0507 11:24:57.868934  1198 net.cpp:435] conv3 <- pool2
I0507 11:24:57.868939  1198 net.cpp:409] conv3 -> conv3
I0507 11:24:57.873281  1198 net.cpp:144] Setting up conv3
I0507 11:24:57.873296  1198 net.cpp:151] Top shape: 20 64 5 5 (32000)
I0507 11:24:57.873299  1198 net.cpp:159] Memory required for data: 2312240
I0507 11:24:57.873307  1198 layer_factory.hpp:77] Creating layer relu3
I0507 11:24:57.873313  1198 net.cpp:94] Creating Layer relu3
I0507 11:24:57.873317  1198 net.cpp:435] relu3 <- conv3
I0507 11:24:57.873323  1198 net.cpp:396] relu3 -> conv3 (in-place)
I0507 11:24:57.873330  1198 net.cpp:144] Setting up relu3
I0507 11:24:57.873334  1198 net.cpp:151] Top shape: 20 64 5 5 (32000)
I0507 11:24:57.873337  1198 net.cpp:159] Memory required for data: 2440240
I0507 11:24:57.873340  1198 layer_factory.hpp:77] Creating layer conv4
I0507 11:24:57.873348  1198 net.cpp:94] Creating Layer conv4
I0507 11:24:57.873353  1198 net.cpp:435] conv4 <- conv3
I0507 11:24:57.873358  1198 net.cpp:409] conv4 -> conv4
I0507 11:24:57.876823  1198 net.cpp:144] Setting up conv4
I0507 11:24:57.876837  1198 net.cpp:151] Top shape: 20 64 5 5 (32000)
I0507 11:24:57.876840  1198 net.cpp:159] Memory required for data: 2568240
I0507 11:24:57.876847  1198 layer_factory.hpp:77] Creating layer relu4
I0507 11:24:57.876852  1198 net.cpp:94] Creating Layer relu4
I0507 11:24:57.876855  1198 net.cpp:435] relu4 <- conv4
I0507 11:24:57.876860  1198 net.cpp:396] relu4 -> conv4 (in-place)
I0507 11:24:57.876868  1198 net.cpp:144] Setting up relu4
I0507 11:24:57.876871  1198 net.cpp:151] Top shape: 20 64 5 5 (32000)
I0507 11:24:57.876874  1198 net.cpp:159] Memory required for data: 2696240
I0507 11:24:57.876878  1198 layer_factory.hpp:77] Creating layer conv5
I0507 11:24:57.876886  1198 net.cpp:94] Creating Layer conv5
I0507 11:24:57.876889  1198 net.cpp:435] conv5 <- conv4
I0507 11:24:57.876894  1198 net.cpp:409] conv5 -> conv5
I0507 11:24:57.880805  1198 net.cpp:144] Setting up conv5
I0507 11:24:57.880817  1198 net.cpp:151] Top shape: 20 64 5 5 (32000)
I0507 11:24:57.880821  1198 net.cpp:159] Memory required for data: 2824240
I0507 11:24:57.880834  1198 layer_factory.hpp:77] Creating layer relu5
I0507 11:24:57.880841  1198 net.cpp:94] Creating Layer relu5
I0507 11:24:57.880844  1198 net.cpp:435] relu5 <- conv5
I0507 11:24:57.880849  1198 net.cpp:396] relu5 -> conv5 (in-place)
I0507 11:24:57.880856  1198 net.cpp:144] Setting up relu5
I0507 11:24:57.880859  1198 net.cpp:151] Top shape: 20 64 5 5 (32000)
I0507 11:24:57.880862  1198 net.cpp:159] Memory required for data: 2952240
I0507 11:24:57.880866  1198 layer_factory.hpp:77] Creating layer pool5
I0507 11:24:57.880870  1198 net.cpp:94] Creating Layer pool5
I0507 11:24:57.880873  1198 net.cpp:435] pool5 <- conv5
I0507 11:24:57.880879  1198 net.cpp:409] pool5 -> pool5
I0507 11:24:57.880915  1198 net.cpp:144] Setting up pool5
I0507 11:24:57.880921  1198 net.cpp:151] Top shape: 20 64 2 2 (5120)
I0507 11:24:57.880924  1198 net.cpp:159] Memory required for data: 2972720
I0507 11:24:57.880928  1198 layer_factory.hpp:77] Creating layer ip1
I0507 11:24:57.880935  1198 net.cpp:94] Creating Layer ip1
I0507 11:24:57.880939  1198 net.cpp:435] ip1 <- pool5
I0507 11:24:57.880944  1198 net.cpp:409] ip1 -> ip1
I0507 11:24:57.881461  1198 net.cpp:144] Setting up ip1
I0507 11:24:57.881469  1198 net.cpp:151] Top shape: 20 64 (1280)
I0507 11:24:57.881472  1198 net.cpp:159] Memory required for data: 2977840
I0507 11:24:57.881477  1198 layer_factory.hpp:77] Creating layer ip2
I0507 11:24:57.881484  1198 net.cpp:94] Creating Layer ip2
I0507 11:24:57.881486  1198 net.cpp:435] ip2 <- ip1
I0507 11:24:57.881492  1198 net.cpp:409] ip2 -> ip2
I0507 11:24:57.881708  1198 net.cpp:144] Setting up ip2
I0507 11:24:57.881716  1198 net.cpp:151] Top shape: 20 64 (1280)
I0507 11:24:57.881718  1198 net.cpp:159] Memory required for data: 2982960
I0507 11:24:57.881722  1198 layer_factory.hpp:77] Creating layer ip3
I0507 11:24:57.881731  1198 net.cpp:94] Creating Layer ip3
I0507 11:24:57.881733  1198 net.cpp:435] ip3 <- ip2
I0507 11:24:57.881738  1198 net.cpp:409] ip3 -> ip3
I0507 11:24:57.881932  1198 net.cpp:144] Setting up ip3
I0507 11:24:57.881938  1198 net.cpp:151] Top shape: 20 50 (1000)
I0507 11:24:57.881942  1198 net.cpp:159] Memory required for data: 2986960
I0507 11:24:57.881947  1198 layer_factory.hpp:77] Creating layer ip3_ip3_0_split
I0507 11:24:57.881952  1198 net.cpp:94] Creating Layer ip3_ip3_0_split
I0507 11:24:57.881954  1198 net.cpp:435] ip3_ip3_0_split <- ip3
I0507 11:24:57.881960  1198 net.cpp:409] ip3_ip3_0_split -> ip3_ip3_0_split_0
I0507 11:24:57.881965  1198 net.cpp:409] ip3_ip3_0_split -> ip3_ip3_0_split_1
I0507 11:24:57.882004  1198 net.cpp:144] Setting up ip3_ip3_0_split
I0507 11:24:57.882010  1198 net.cpp:151] Top shape: 20 50 (1000)
I0507 11:24:57.882014  1198 net.cpp:151] Top shape: 20 50 (1000)
I0507 11:24:57.882016  1198 net.cpp:159] Memory required for data: 2994960
I0507 11:24:57.882020  1198 layer_factory.hpp:77] Creating layer accuracy
I0507 11:24:57.882025  1198 net.cpp:94] Creating Layer accuracy
I0507 11:24:57.882028  1198 net.cpp:435] accuracy <- ip3_ip3_0_split_0
I0507 11:24:57.882031  1198 net.cpp:435] accuracy <- label_intercept_1_split_0
I0507 11:24:57.882037  1198 net.cpp:409] accuracy -> accuracy
…
