…
I0502 17:19:18.429025 11789 net.cpp:323] The NetState phase (0) differed from the phase (1) specified by a rule in layer intercept
I0502 17:19:18.429042 11789 net.cpp:323] The NetState phase (0) differed from the phase (1) specified by a rule in layer accuracy
I0502 17:19:18.429136 11789 net.cpp:52] Initializing net from parameters: 
state {
  phase: TRAIN
}
layer {
  name: "parameters"
  type: "HDF5Data"
  top: "data"
  top: "label"
  include {
    phase: TRAIN
  }
  hdf5_data_param {
    source: "/home/purduethu/scratch/radon/d/deng106/CNNStatisticalModel/distributions/input/50_distributions_100_sample_size_train-distributions-path.txt"
    batch_size: 20
  }
}
layer {
  name: "conv1"
  type: "Convolution"
  bottom: "data"
  top: "conv1"
  param {
    lr_mult: 1
  }
  param {
    lr_mult: 2
  }
  convolution_param {
    num_output: 64
    pad: 2
    kernel_size: 5
    stride: 1
    weight_filler {
      type: "gaussian"
      std: 0.0001
    }
    bias_filler {
      type: "constant"
    }
  }
}
layer {
  name: "relu1"
  type: "ReLU"
  bottom: "conv1"
  top: "conv1"
}
layer {
  name: "conv2"
  type: "Convolution"
  bottom: "conv1"
  top: "conv2"
  param {
    lr_mult: 1
  }
  param {
    lr_mult: 2
  }
  convolution_param {
    num_output: 64
    pad: 2
    kernel_size: 5
    stride: 1
    weight_filler {
      type: "gaussian"
      std: 0.01
    }
    bias_filler {
      type: "constant"
    }
  }
}
layer {
  name: "relu2"
  type: "ReLU"
  bottom: "conv2"
  top: "conv2"
}
layer {
  name: "pool2"
  type: "Pooling"
  bottom: "conv2"
  top: "pool2"
  pooling_param {
    pool: MAX
    kernel_size: 3
    stride: 2
  }
}
layer {
  name: "conv3"
  type: "Convolution"
  bottom: "pool2"
  top: "conv3"
  param {
    lr_mult: 1
  }
  param {
    lr_mult: 2
  }
  convolution_param {
    num_output: 64
    pad: 2
    kernel_size: 5
    stride: 1
    weight_filler {
      type: "gaussian"
      std: 0.01
    }
    bias_filler {
      type: "constant"
    }
  }
}
layer {
  name: "relu3"
  type: "ReLU"
  bottom: "conv3"
  top: "conv3"
}
layer {
  name: "conv4"
  type: "Convolution"
  bottom: "conv3"
  top: "conv4"
  param {
    lr_mult: 1
  }
  param {
    lr_mult: 2
  }
  convolution_param {
    num_output: 64
    pad: 2
    kernel_size: 5
    stride: 1
    weight_filler {
      type: "gaussian"
      std: 0.01
    }
    bias_filler {
      type: "constant"
    }
  }
}
layer {
  name: "relu4"
  type: "ReLU"
  bottom: "conv4"
  top: "conv4"
}
layer {
  name: "conv5"
  type: "Convolution"
  bottom: "conv4"
  top: "conv5"
  param {
    lr_mult: 1
  }
  param {
    lr_mult: 2
  }
  convolution_param {
    num_output: 64
    pad: 2
    kernel_size: 5
    stride: 1
    weight_filler {
      type: "gaussian"
      std: 0.01
    }
    bias_filler {
      type: "constant"
    }
  }
}
layer {
  name: "relu5"
  type: "ReLU"
  bottom: "conv5"
  top: "conv5"
}
layer {
  name: "pool5"
  type: "Pooling"
  bottom: "conv5"
  top: "pool5"
  pooling_param {
    pool: AVE
    kernel_size: 3
    stride: 2
  }
}
layer {
  name: "ip1"
  type: "InnerProduct"
  bottom: "pool5"
  top: "ip1"
  param {
    lr_mult: 1
  }
  param {
    lr_mult: 2
  }
  inner_product_param {
    num_output: 64
    weight_filler {
      type: "gaussian"
      std: 0.1
    }
    bias_filler {
      type: "constant"
    }
  }
}
layer {
  name: "ip2"
  type: "InnerProduct"
  bottom: "ip1"
  top: "ip2"
  param {
    lr_mult: 1
  }
  param {
    lr_mult: 2
  }
  inner_product_param {
    num_output: 64
    weight_filler {
      type: "gaussian"
      std: 0.1
    }
    bias_filler {
      type: "constant"
    }
  }
}
layer {
  name: "ip3"
  type: "InnerProduct"
  bottom: "ip2"
  top: "ip3"
  param {
    lr_mult: 1
  }
  param {
    lr_mult: 2
  }
  inner_product_param {
    num_output: 50
    weight_filler {
      type: "gaussian"
      std: 0.1
    }
    bias_filler {
      type: "constant"
    }
  }
}
layer {
  name: "loss"
  type: "SoftmaxWithLoss"
  bottom: "ip3"
  bottom: "label"
  top: "loss"
}
I0502 17:19:18.429213 11789 layer_factory.hpp:77] Creating layer parameters
I0502 17:19:18.429227 11789 net.cpp:94] Creating Layer parameters
I0502 17:19:18.429234 11789 net.cpp:409] parameters -> data
I0502 17:19:18.429253 11789 net.cpp:409] parameters -> label
I0502 17:19:18.429263 11789 hdf5_data_layer.cpp:79] Loading list of HDF5 filenames from: /home/purduethu/scratch/radon/d/deng106/CNNStatisticalModel/distributions/input/50_distributions_100_sample_size_train-distributions-path.txt
I0502 17:19:18.429285 11789 hdf5_data_layer.cpp:93] Number of HDF5 files: 1
I0502 17:19:18.429859 11789 hdf5.cpp:32] Datatype class: H5T_FLOAT
I0502 17:19:18.592804 11789 hdf5.cpp:35] Datatype class: H5T_INTEGER
I0502 17:19:18.595650 11789 net.cpp:144] Setting up parameters
I0502 17:19:18.595674 11789 net.cpp:151] Top shape: 20 1 10 10 (2000)
I0502 17:19:18.595679 11789 net.cpp:151] Top shape: 20 (20)
I0502 17:19:18.595684 11789 net.cpp:159] Memory required for data: 8080
I0502 17:19:18.595690 11789 layer_factory.hpp:77] Creating layer conv1
I0502 17:19:18.595715 11789 net.cpp:94] Creating Layer conv1
I0502 17:19:18.595721 11789 net.cpp:435] conv1 <- data
I0502 17:19:18.595732 11789 net.cpp:409] conv1 -> conv1
I0502 17:19:18.602186 11789 net.cpp:144] Setting up conv1
I0502 17:19:18.602202 11789 net.cpp:151] Top shape: 20 64 10 10 (128000)
I0502 17:19:18.602207 11789 net.cpp:159] Memory required for data: 520080
I0502 17:19:18.602219 11789 layer_factory.hpp:77] Creating layer relu1
I0502 17:19:18.602227 11789 net.cpp:94] Creating Layer relu1
I0502 17:19:18.602231 11789 net.cpp:435] relu1 <- conv1
I0502 17:19:18.602236 11789 net.cpp:396] relu1 -> conv1 (in-place)
I0502 17:19:18.602254 11789 net.cpp:144] Setting up relu1
I0502 17:19:18.602260 11789 net.cpp:151] Top shape: 20 64 10 10 (128000)
I0502 17:19:18.602263 11789 net.cpp:159] Memory required for data: 1032080
I0502 17:19:18.602267 11789 layer_factory.hpp:77] Creating layer conv2
I0502 17:19:18.602275 11789 net.cpp:94] Creating Layer conv2
I0502 17:19:18.602279 11789 net.cpp:435] conv2 <- conv1
I0502 17:19:18.602284 11789 net.cpp:409] conv2 -> conv2
I0502 17:19:18.609781 11789 net.cpp:144] Setting up conv2
I0502 17:19:18.609797 11789 net.cpp:151] Top shape: 20 64 10 10 (128000)
I0502 17:19:18.609802 11789 net.cpp:159] Memory required for data: 1544080
I0502 17:19:18.609809 11789 layer_factory.hpp:77] Creating layer relu2
I0502 17:19:18.609817 11789 net.cpp:94] Creating Layer relu2
I0502 17:19:18.609819 11789 net.cpp:435] relu2 <- conv2
I0502 17:19:18.609824 11789 net.cpp:396] relu2 -> conv2 (in-place)
I0502 17:19:18.609832 11789 net.cpp:144] Setting up relu2
I0502 17:19:18.609836 11789 net.cpp:151] Top shape: 20 64 10 10 (128000)
I0502 17:19:18.609839 11789 net.cpp:159] Memory required for data: 2056080
I0502 17:19:18.609843 11789 layer_factory.hpp:77] Creating layer pool2
I0502 17:19:18.609856 11789 net.cpp:94] Creating Layer pool2
I0502 17:19:18.609860 11789 net.cpp:435] pool2 <- conv2
I0502 17:19:18.609865 11789 net.cpp:409] pool2 -> pool2
I0502 17:19:18.609910 11789 net.cpp:144] Setting up pool2
I0502 17:19:18.609917 11789 net.cpp:151] Top shape: 20 64 5 5 (32000)
I0502 17:19:18.609920 11789 net.cpp:159] Memory required for data: 2184080
I0502 17:19:18.609925 11789 layer_factory.hpp:77] Creating layer conv3
I0502 17:19:18.609932 11789 net.cpp:94] Creating Layer conv3
I0502 17:19:18.609936 11789 net.cpp:435] conv3 <- pool2
I0502 17:19:18.609949 11789 net.cpp:409] conv3 -> conv3
I0502 17:19:18.617216 11789 net.cpp:144] Setting up conv3
I0502 17:19:18.617230 11789 net.cpp:151] Top shape: 20 64 5 5 (32000)
I0502 17:19:18.617234 11789 net.cpp:159] Memory required for data: 2312080
I0502 17:19:18.617244 11789 layer_factory.hpp:77] Creating layer relu3
I0502 17:19:18.617249 11789 net.cpp:94] Creating Layer relu3
I0502 17:19:18.617254 11789 net.cpp:435] relu3 <- conv3
I0502 17:19:18.617259 11789 net.cpp:396] relu3 -> conv3 (in-place)
I0502 17:19:18.617265 11789 net.cpp:144] Setting up relu3
I0502 17:19:18.617269 11789 net.cpp:151] Top shape: 20 64 5 5 (32000)
I0502 17:19:18.617272 11789 net.cpp:159] Memory required for data: 2440080
I0502 17:19:18.617275 11789 layer_factory.hpp:77] Creating layer conv4
I0502 17:19:18.617285 11789 net.cpp:94] Creating Layer conv4
I0502 17:19:18.617288 11789 net.cpp:435] conv4 <- conv3
I0502 17:19:18.617292 11789 net.cpp:409] conv4 -> conv4
I0502 17:19:18.624585 11789 net.cpp:144] Setting up conv4
I0502 17:19:18.624598 11789 net.cpp:151] Top shape: 20 64 5 5 (32000)
I0502 17:19:18.624603 11789 net.cpp:159] Memory required for data: 2568080
I0502 17:19:18.624608 11789 layer_factory.hpp:77] Creating layer relu4
I0502 17:19:18.624614 11789 net.cpp:94] Creating Layer relu4
I0502 17:19:18.624619 11789 net.cpp:435] relu4 <- conv4
I0502 17:19:18.624622 11789 net.cpp:396] relu4 -> conv4 (in-place)
I0502 17:19:18.624629 11789 net.cpp:144] Setting up relu4
I0502 17:19:18.624634 11789 net.cpp:151] Top shape: 20 64 5 5 (32000)
I0502 17:19:18.624637 11789 net.cpp:159] Memory required for data: 2696080
I0502 17:19:18.624640 11789 layer_factory.hpp:77] Creating layer conv5
I0502 17:19:18.624649 11789 net.cpp:94] Creating Layer conv5
I0502 17:19:18.624651 11789 net.cpp:435] conv5 <- conv4
I0502 17:19:18.624656 11789 net.cpp:409] conv5 -> conv5
I0502 17:19:18.631981 11789 net.cpp:144] Setting up conv5
I0502 17:19:18.631996 11789 net.cpp:151] Top shape: 20 64 5 5 (32000)
I0502 17:19:18.632000 11789 net.cpp:159] Memory required for data: 2824080
I0502 17:19:18.632009 11789 layer_factory.hpp:77] Creating layer relu5
I0502 17:19:18.632015 11789 net.cpp:94] Creating Layer relu5
I0502 17:19:18.632019 11789 net.cpp:435] relu5 <- conv5
I0502 17:19:18.632025 11789 net.cpp:396] relu5 -> conv5 (in-place)
I0502 17:19:18.632031 11789 net.cpp:144] Setting up relu5
I0502 17:19:18.632036 11789 net.cpp:151] Top shape: 20 64 5 5 (32000)
I0502 17:19:18.632040 11789 net.cpp:159] Memory required for data: 2952080
I0502 17:19:18.632042 11789 layer_factory.hpp:77] Creating layer pool5
I0502 17:19:18.632047 11789 net.cpp:94] Creating Layer pool5
I0502 17:19:18.632050 11789 net.cpp:435] pool5 <- conv5
I0502 17:19:18.632055 11789 net.cpp:409] pool5 -> pool5
I0502 17:19:18.632092 11789 net.cpp:144] Setting up pool5
I0502 17:19:18.632100 11789 net.cpp:151] Top shape: 20 64 2 2 (5120)
I0502 17:19:18.632103 11789 net.cpp:159] Memory required for data: 2972560
I0502 17:19:18.632107 11789 layer_factory.hpp:77] Creating layer ip1
I0502 17:19:18.632117 11789 net.cpp:94] Creating Layer ip1
I0502 17:19:18.632119 11789 net.cpp:435] ip1 <- pool5
I0502 17:19:18.632124 11789 net.cpp:409] ip1 -> ip1
I0502 17:19:18.633263 11789 net.cpp:144] Setting up ip1
I0502 17:19:18.633277 11789 net.cpp:151] Top shape: 20 64 (1280)
I0502 17:19:18.633281 11789 net.cpp:159] Memory required for data: 2977680
I0502 17:19:18.633287 11789 layer_factory.hpp:77] Creating layer ip2
I0502 17:19:18.633294 11789 net.cpp:94] Creating Layer ip2
I0502 17:19:18.633302 11789 net.cpp:435] ip2 <- ip1
I0502 17:19:18.633307 11789 net.cpp:409] ip2 -> ip2
I0502 17:19:18.633474 11789 net.cpp:144] Setting up ip2
I0502 17:19:18.633481 11789 net.cpp:151] Top shape: 20 64 (1280)
I0502 17:19:18.633484 11789 net.cpp:159] Memory required for data: 2982800
I0502 17:19:18.633491 11789 layer_factory.hpp:77] Creating layer ip3
I0502 17:19:18.633496 11789 net.cpp:94] Creating Layer ip3
I0502 17:19:18.633499 11789 net.cpp:435] ip3 <- ip2
I0502 17:19:18.633504 11789 net.cpp:409] ip3 -> ip3
I0502 17:19:18.633644 11789 net.cpp:144] Setting up ip3
I0502 17:19:18.633656 11789 net.cpp:151] Top shape: 20 50 (1000)
I0502 17:19:18.633659 11789 net.cpp:159] Memory required for data: 2986800
I0502 17:19:18.633666 11789 layer_factory.hpp:77] Creating layer loss
I0502 17:19:18.633671 11789 net.cpp:94] Creating Layer loss
I0502 17:19:18.633675 11789 net.cpp:435] loss <- ip3
I0502 17:19:18.633679 11789 net.cpp:435] loss <- label
I0502 17:19:18.633684 11789 net.cpp:409] loss -> loss
I0502 17:19:18.633693 11789 layer_factory.hpp:77] Creating layer loss
…
I0502 17:19:18.634858 11789 solver.cpp:181] Creating test net (#0) specified by net file: ./protocol/dis_50_100_dimension.protocol_distribution
I0502 17:19:18.634886 11789 net.cpp:323] The NetState phase (1) differed from the phase (0) specified by a rule in layer parameters
I0502 17:19:18.634986 11789 net.cpp:52] Initializing net from parameters: 
state {
  phase: TEST
}
layer {
  name: "intercept"
  type: "HDF5Data"
  top: "data"
  top: "label"
  include {
    phase: TEST
  }
  hdf5_data_param {
    source: "/home/purduethu/scratch/radon/d/deng106/CNNStatisticalModel/distributions/input/50_distributions_100_sample_size_test-distributions-path.txt"
    batch_size: 20
  }
}
layer {
  name: "conv1"
  type: "Convolution"
  bottom: "data"
  top: "conv1"
  param {
    lr_mult: 1
  }
  param {
    lr_mult: 2
  }
  convolution_param {
    num_output: 64
    pad: 2
    kernel_size: 5
    stride: 1
    weight_filler {
      type: "gaussian"
      std: 0.0001
    }
    bias_filler {
      type: "constant"
    }
  }
}
layer {
  name: "relu1"
  type: "ReLU"
  bottom: "conv1"
  top: "conv1"
}
layer {
  name: "conv2"
  type: "Convolution"
  bottom: "conv1"
  top: "conv2"
  param {
    lr_mult: 1
  }
  param {
    lr_mult: 2
  }
  convolution_param {
    num_output: 64
    pad: 2
    kernel_size: 5
    stride: 1
    weight_filler {
      type: "gaussian"
      std: 0.01
    }
    bias_filler {
      type: "constant"
    }
  }
}
layer {
  name: "relu2"
  type: "ReLU"
  bottom: "conv2"
  top: "conv2"
}
layer {
  name: "pool2"
  type: "Pooling"
  bottom: "conv2"
  top: "pool2"
  pooling_param {
    pool: MAX
    kernel_size: 3
    stride: 2
  }
}
layer {
  name: "conv3"
  type: "Convolution"
  bottom: "pool2"
  top: "conv3"
  param {
    lr_mult: 1
  }
  param {
    lr_mult: 2
  }
  convolution_param {
    num_output: 64
    pad: 2
    kernel_size: 5
    stride: 1
    weight_filler {
      type: "gaussian"
      std: 0.01
    }
    bias_filler {
      type: "constant"
    }
  }
}
layer {
  name: "relu3"
  type: "ReLU"
  bottom: "conv3"
  top: "conv3"
}
layer {
  name: "conv4"
  type: "Convolution"
  bottom: "conv3"
  top: "conv4"
  param {
    lr_mult: 1
  }
  param {
    lr_mult: 2
  }
  convolution_param {
    num_output: 64
    pad: 2
    kernel_size: 5
    stride: 1
    weight_filler {
      type: "gaussian"
      std: 0.01
    }
    bias_filler {
      type: "constant"
    }
  }
}
layer {
  name: "relu4"
  type: "ReLU"
  bottom: "conv4"
  top: "conv4"
}
layer {
  name: "conv5"
  type: "Convolution"
  bottom: "conv4"
  top: "conv5"
  param {
    lr_mult: 1
  }
  param {
    lr_mult: 2
  }
  convolution_param {
    num_output: 64
    pad: 2
    kernel_size: 5
    stride: 1
    weight_filler {
      type: "gaussian"
      std: 0.01
    }
    bias_filler {
      type: "constant"
    }
  }
}
layer {
  name: "relu5"
  type: "ReLU"
  bottom: "conv5"
  top: "conv5"
}
layer {
  name: "pool5"
  type: "Pooling"
  bottom: "conv5"
  top: "pool5"
  pooling_param {
    pool: AVE
    kernel_size: 3
    stride: 2
  }
}
layer {
  name: "ip1"
  type: "InnerProduct"
  bottom: "pool5"
  top: "ip1"
  param {
    lr_mult: 1
  }
  param {
    lr_mult: 2
  }
  inner_product_param {
    num_output: 64
    weight_filler {
      type: "gaussian"
      std: 0.1
    }
    bias_filler {
      type: "constant"
    }
  }
}
layer {
  name: "ip2"
  type: "InnerProduct"
  bottom: "ip1"
  top: "ip2"
  param {
    lr_mult: 1
  }
  param {
    lr_mult: 2
  }
  inner_product_param {
    num_output: 64
    weight_filler {
      type: "gaussian"
      std: 0.1
    }
    bias_filler {
      type: "constant"
    }
  }
}
layer {
  name: "ip3"
  type: "InnerProduct"
  bottom: "ip2"
  top: "ip3"
  param {
    lr_mult: 1
  }
  param {
    lr_mult: 2
  }
  inner_product_param {
    num_output: 50
    weight_filler {
      type: "gaussian"
      std: 0.1
    }
    bias_filler {
      type: "constant"
    }
  }
}
layer {
  name: "accuracy"
  type: "Accuracy"
  bottom: "ip3"
  bottom: "label"
  top: "accuracy"
  include {
    phase: TEST
  }
}
layer {
  name: "loss"
  type: "SoftmaxWithLoss"
  bottom: "ip3"
  bottom: "label"
  top: "loss"
}
I0502 17:19:18.635058 11789 layer_factory.hpp:77] Creating layer intercept
I0502 17:19:18.635066 11789 net.cpp:94] Creating Layer intercept
I0502 17:19:18.635071 11789 net.cpp:409] intercept -> data
I0502 17:19:18.635078 11789 net.cpp:409] intercept -> label
I0502 17:19:18.635084 11789 hdf5_data_layer.cpp:79] Loading list of HDF5 filenames from: /home/purduethu/scratch/radon/d/deng106/CNNStatisticalModel/distributions/input/50_distributions_100_sample_size_test-distributions-path.txt
I0502 17:19:18.635103 11789 hdf5_data_layer.cpp:93] Number of HDF5 files: 1
I0502 17:19:18.675940 11789 net.cpp:144] Setting up intercept
I0502 17:19:18.675973 11789 net.cpp:151] Top shape: 20 1 10 10 (2000)
I0502 17:19:18.675978 11789 net.cpp:151] Top shape: 20 (20)
I0502 17:19:18.675982 11789 net.cpp:159] Memory required for data: 8080
I0502 17:19:18.675988 11789 layer_factory.hpp:77] Creating layer label_intercept_1_split
I0502 17:19:18.676008 11789 net.cpp:94] Creating Layer label_intercept_1_split
I0502 17:19:18.676013 11789 net.cpp:435] label_intercept_1_split <- label
I0502 17:19:18.676019 11789 net.cpp:409] label_intercept_1_split -> label_intercept_1_split_0
I0502 17:19:18.676028 11789 net.cpp:409] label_intercept_1_split -> label_intercept_1_split_1
I0502 17:19:18.676061 11789 net.cpp:144] Setting up label_intercept_1_split
I0502 17:19:18.676069 11789 net.cpp:151] Top shape: 20 (20)
I0502 17:19:18.676071 11789 net.cpp:151] Top shape: 20 (20)
I0502 17:19:18.676075 11789 net.cpp:159] Memory required for data: 8240
I0502 17:19:18.676079 11789 layer_factory.hpp:77] Creating layer conv1
I0502 17:19:18.676090 11789 net.cpp:94] Creating Layer conv1
I0502 17:19:18.676093 11789 net.cpp:435] conv1 <- data
I0502 17:19:18.676098 11789 net.cpp:409] conv1 -> conv1
I0502 17:19:18.677114 11789 net.cpp:144] Setting up conv1
I0502 17:19:18.677135 11789 net.cpp:151] Top shape: 20 64 10 10 (128000)
I0502 17:19:18.677139 11789 net.cpp:159] Memory required for data: 520240
I0502 17:19:18.677148 11789 layer_factory.hpp:77] Creating layer relu1
I0502 17:19:18.677155 11789 net.cpp:94] Creating Layer relu1
I0502 17:19:18.677160 11789 net.cpp:435] relu1 <- conv1
I0502 17:19:18.677165 11789 net.cpp:396] relu1 -> conv1 (in-place)
I0502 17:19:18.677171 11789 net.cpp:144] Setting up relu1
I0502 17:19:18.677175 11789 net.cpp:151] Top shape: 20 64 10 10 (128000)
I0502 17:19:18.677178 11789 net.cpp:159] Memory required for data: 1032240
I0502 17:19:18.677182 11789 layer_factory.hpp:77] Creating layer conv2
I0502 17:19:18.677191 11789 net.cpp:94] Creating Layer conv2
I0502 17:19:18.677193 11789 net.cpp:435] conv2 <- conv1
I0502 17:19:18.677198 11789 net.cpp:409] conv2 -> conv2
I0502 17:19:18.682178 11789 net.cpp:144] Setting up conv2
I0502 17:19:18.682191 11789 net.cpp:151] Top shape: 20 64 10 10 (128000)
I0502 17:19:18.682195 11789 net.cpp:159] Memory required for data: 1544240
I0502 17:19:18.682204 11789 layer_factory.hpp:77] Creating layer relu2
I0502 17:19:18.682209 11789 net.cpp:94] Creating Layer relu2
I0502 17:19:18.682212 11789 net.cpp:435] relu2 <- conv2
I0502 17:19:18.682217 11789 net.cpp:396] relu2 -> conv2 (in-place)
I0502 17:19:18.682224 11789 net.cpp:144] Setting up relu2
I0502 17:19:18.682229 11789 net.cpp:151] Top shape: 20 64 10 10 (128000)
I0502 17:19:18.682231 11789 net.cpp:159] Memory required for data: 2056240
I0502 17:19:18.682235 11789 layer_factory.hpp:77] Creating layer pool2
I0502 17:19:18.682240 11789 net.cpp:94] Creating Layer pool2
I0502 17:19:18.682243 11789 net.cpp:435] pool2 <- conv2
I0502 17:19:18.682247 11789 net.cpp:409] pool2 -> pool2
I0502 17:19:18.682279 11789 net.cpp:144] Setting up pool2
I0502 17:19:18.682286 11789 net.cpp:151] Top shape: 20 64 5 5 (32000)
I0502 17:19:18.682288 11789 net.cpp:159] Memory required for data: 2184240
I0502 17:19:18.682292 11789 layer_factory.hpp:77] Creating layer conv3
I0502 17:19:18.682299 11789 net.cpp:94] Creating Layer conv3
I0502 17:19:18.682303 11789 net.cpp:435] conv3 <- pool2
I0502 17:19:18.682308 11789 net.cpp:409] conv3 -> conv3
I0502 17:19:18.687472 11789 net.cpp:144] Setting up conv3
I0502 17:19:18.687486 11789 net.cpp:151] Top shape: 20 64 5 5 (32000)
I0502 17:19:18.687490 11789 net.cpp:159] Memory required for data: 2312240
I0502 17:19:18.687499 11789 layer_factory.hpp:77] Creating layer relu3
I0502 17:19:18.687505 11789 net.cpp:94] Creating Layer relu3
I0502 17:19:18.687510 11789 net.cpp:435] relu3 <- conv3
I0502 17:19:18.687515 11789 net.cpp:396] relu3 -> conv3 (in-place)
I0502 17:19:18.687520 11789 net.cpp:144] Setting up relu3
I0502 17:19:18.687525 11789 net.cpp:151] Top shape: 20 64 5 5 (32000)
I0502 17:19:18.687528 11789 net.cpp:159] Memory required for data: 2440240
I0502 17:19:18.687531 11789 layer_factory.hpp:77] Creating layer conv4
I0502 17:19:18.687539 11789 net.cpp:94] Creating Layer conv4
I0502 17:19:18.687542 11789 net.cpp:435] conv4 <- conv3
I0502 17:19:18.687547 11789 net.cpp:409] conv4 -> conv4
I0502 17:19:18.693836 11789 net.cpp:144] Setting up conv4
I0502 17:19:18.693852 11789 net.cpp:151] Top shape: 20 64 5 5 (32000)
I0502 17:19:18.693857 11789 net.cpp:159] Memory required for data: 2568240
I0502 17:19:18.693863 11789 layer_factory.hpp:77] Creating layer relu4
I0502 17:19:18.693869 11789 net.cpp:94] Creating Layer relu4
I0502 17:19:18.693872 11789 net.cpp:435] relu4 <- conv4
I0502 17:19:18.693881 11789 net.cpp:396] relu4 -> conv4 (in-place)
I0502 17:19:18.693889 11789 net.cpp:144] Setting up relu4
I0502 17:19:18.693894 11789 net.cpp:151] Top shape: 20 64 5 5 (32000)
I0502 17:19:18.693897 11789 net.cpp:159] Memory required for data: 2696240
I0502 17:19:18.693900 11789 layer_factory.hpp:77] Creating layer conv5
I0502 17:19:18.693907 11789 net.cpp:94] Creating Layer conv5
I0502 17:19:18.693910 11789 net.cpp:435] conv5 <- conv4
I0502 17:19:18.693915 11789 net.cpp:409] conv5 -> conv5
I0502 17:19:18.700187 11789 net.cpp:144] Setting up conv5
I0502 17:19:18.700208 11789 net.cpp:151] Top shape: 20 64 5 5 (32000)
I0502 17:19:18.700212 11789 net.cpp:159] Memory required for data: 2824240
I0502 17:19:18.700222 11789 layer_factory.hpp:77] Creating layer relu5
I0502 17:19:18.700227 11789 net.cpp:94] Creating Layer relu5
I0502 17:19:18.700232 11789 net.cpp:435] relu5 <- conv5
I0502 17:19:18.700237 11789 net.cpp:396] relu5 -> conv5 (in-place)
I0502 17:19:18.700243 11789 net.cpp:144] Setting up relu5
I0502 17:19:18.700248 11789 net.cpp:151] Top shape: 20 64 5 5 (32000)
I0502 17:19:18.700251 11789 net.cpp:159] Memory required for data: 2952240
I0502 17:19:18.700254 11789 layer_factory.hpp:77] Creating layer pool5
I0502 17:19:18.700259 11789 net.cpp:94] Creating Layer pool5
I0502 17:19:18.700263 11789 net.cpp:435] pool5 <- conv5
I0502 17:19:18.700268 11789 net.cpp:409] pool5 -> pool5
I0502 17:19:18.700292 11789 net.cpp:144] Setting up pool5
I0502 17:19:18.700299 11789 net.cpp:151] Top shape: 20 64 2 2 (5120)
I0502 17:19:18.700301 11789 net.cpp:159] Memory required for data: 2972720
I0502 17:19:18.700304 11789 layer_factory.hpp:77] Creating layer ip1
I0502 17:19:18.700311 11789 net.cpp:94] Creating Layer ip1
I0502 17:19:18.700314 11789 net.cpp:435] ip1 <- pool5
I0502 17:19:18.700320 11789 net.cpp:409] ip1 -> ip1
I0502 17:19:18.700796 11789 net.cpp:144] Setting up ip1
I0502 17:19:18.700804 11789 net.cpp:151] Top shape: 20 64 (1280)
I0502 17:19:18.700808 11789 net.cpp:159] Memory required for data: 2977840
I0502 17:19:18.700814 11789 layer_factory.hpp:77] Creating layer ip2
I0502 17:19:18.700819 11789 net.cpp:94] Creating Layer ip2
I0502 17:19:18.700822 11789 net.cpp:435] ip2 <- ip1
I0502 17:19:18.700827 11789 net.cpp:409] ip2 -> ip2
I0502 17:19:18.700994 11789 net.cpp:144] Setting up ip2
I0502 17:19:18.700999 11789 net.cpp:151] Top shape: 20 64 (1280)
I0502 17:19:18.701002 11789 net.cpp:159] Memory required for data: 2982960
I0502 17:19:18.701006 11789 layer_factory.hpp:77] Creating layer ip3
I0502 17:19:18.701014 11789 net.cpp:94] Creating Layer ip3
I0502 17:19:18.701017 11789 net.cpp:435] ip3 <- ip2
I0502 17:19:18.701021 11789 net.cpp:409] ip3 -> ip3
I0502 17:19:18.701164 11789 net.cpp:144] Setting up ip3
I0502 17:19:18.701170 11789 net.cpp:151] Top shape: 20 50 (1000)
I0502 17:19:18.701174 11789 net.cpp:159] Memory required for data: 2986960
I0502 17:19:18.701177 11789 layer_factory.hpp:77] Creating layer ip3_ip3_0_split
I0502 17:19:18.701182 11789 net.cpp:94] Creating Layer ip3_ip3_0_split
I0502 17:19:18.701185 11789 net.cpp:435] ip3_ip3_0_split <- ip3
I0502 17:19:18.701189 11789 net.cpp:409] ip3_ip3_0_split -> ip3_ip3_0_split_0
I0502 17:19:18.701195 11789 net.cpp:409] ip3_ip3_0_split -> ip3_ip3_0_split_1
I0502 17:19:18.701217 11789 net.cpp:144] Setting up ip3_ip3_0_split
I0502 17:19:18.701223 11789 net.cpp:151] Top shape: 20 50 (1000)
I0502 17:19:18.701226 11789 net.cpp:151] Top shape: 20 50 (1000)
I0502 17:19:18.701230 11789 net.cpp:159] Memory required for data: 2994960
I0502 17:19:18.701232 11789 layer_factory.hpp:77] Creating layer accuracy
I0502 17:19:18.701238 11789 net.cpp:94] Creating Layer accuracy
I0502 17:19:18.701241 11789 net.cpp:435] accuracy <- ip3_ip3_0_split_0
I0502 17:19:18.701246 11789 net.cpp:435] accuracy <- label_intercept_1_split_0
I0502 17:19:18.701249 11789 net.cpp:409] accuracy -> accuracy
…
