…
I0501 21:19:03.545470 14818 net.cpp:323] The NetState phase (0) differed from the phase (1) specified by a rule in layer intercept
I0501 21:19:03.545486 14818 net.cpp:323] The NetState phase (0) differed from the phase (1) specified by a rule in layer accuracy
I0501 21:19:03.545578 14818 net.cpp:52] Initializing net from parameters: 
state {
  phase: TRAIN
}
layer {
  name: "parameters"
  type: "HDF5Data"
  top: "data"
  top: "label"
  include {
    phase: TRAIN
  }
  hdf5_data_param {
    source: "/home/purduethu/scratch/radon/d/deng106/CNNStatisticalModel/distributions/input/20_distributions_400_sample_size_train-distributions-path.txt"
    batch_size: 20
  }
}
layer {
  name: "conv1"
  type: "Convolution"
  bottom: "data"
  top: "conv1"
  param {
    lr_mult: 1
  }
  param {
    lr_mult: 2
  }
  convolution_param {
    num_output: 64
    pad: 2
    kernel_size: 5
    stride: 1
    weight_filler {
      type: "gaussian"
      std: 0.0001
    }
    bias_filler {
      type: "constant"
    }
  }
}
layer {
  name: "relu1"
  type: "ReLU"
  bottom: "conv1"
  top: "conv1"
}
layer {
  name: "conv2"
  type: "Convolution"
  bottom: "conv1"
  top: "conv2"
  param {
    lr_mult: 1
  }
  param {
    lr_mult: 2
  }
  convolution_param {
    num_output: 64
    pad: 2
    kernel_size: 5
    stride: 1
    weight_filler {
      type: "gaussian"
      std: 0.01
    }
    bias_filler {
      type: "constant"
    }
  }
}
layer {
  name: "relu2"
  type: "ReLU"
  bottom: "conv2"
  top: "conv2"
}
layer {
  name: "pool2"
  type: "Pooling"
  bottom: "conv2"
  top: "pool2"
  pooling_param {
    pool: MAX
    kernel_size: 3
    stride: 2
  }
}
layer {
  name: "conv3"
  type: "Convolution"
  bottom: "pool2"
  top: "conv3"
  param {
    lr_mult: 1
  }
  param {
    lr_mult: 2
  }
  convolution_param {
    num_output: 64
    pad: 2
    kernel_size: 5
    stride: 1
    weight_filler {
      type: "gaussian"
      std: 0.01
    }
    bias_filler {
      type: "constant"
    }
  }
}
layer {
  name: "relu3"
  type: "ReLU"
  bottom: "conv3"
  top: "conv3"
}
layer {
  name: "conv4"
  type: "Convolution"
  bottom: "conv3"
  top: "conv4"
  param {
    lr_mult: 1
  }
  param {
    lr_mult: 2
  }
  convolution_param {
    num_output: 64
    pad: 2
    kernel_size: 5
    stride: 1
    weight_filler {
      type: "gaussian"
      std: 0.01
    }
    bias_filler {
      type: "constant"
    }
  }
}
layer {
  name: "relu4"
  type: "ReLU"
  bottom: "conv4"
  top: "conv4"
}
layer {
  name: "conv5"
  type: "Convolution"
  bottom: "conv4"
  top: "conv5"
  param {
    lr_mult: 1
  }
  param {
    lr_mult: 2
  }
  convolution_param {
    num_output: 64
    pad: 2
    kernel_size: 5
    stride: 1
    weight_filler {
      type: "gaussian"
      std: 0.01
    }
    bias_filler {
      type: "constant"
    }
  }
}
layer {
  name: "relu5"
  type: "ReLU"
  bottom: "conv5"
  top: "conv5"
}
layer {
  name: "pool5"
  type: "Pooling"
  bottom: "conv5"
  top: "pool5"
  pooling_param {
    pool: AVE
    kernel_size: 3
    stride: 2
  }
}
layer {
  name: "ip1"
  type: "InnerProduct"
  bottom: "pool5"
  top: "ip1"
  param {
    lr_mult: 1
  }
  param {
    lr_mult: 2
  }
  inner_product_param {
    num_output: 64
    weight_filler {
      type: "gaussian"
      std: 0.1
    }
    bias_filler {
      type: "constant"
    }
  }
}
layer {
  name: "ip2"
  type: "InnerProduct"
  bottom: "ip1"
  top: "ip2"
  param {
    lr_mult: 1
  }
  param {
    lr_mult: 2
  }
  inner_product_param {
    num_output: 64
    weight_filler {
      type: "gaussian"
      std: 0.1
    }
    bias_filler {
      type: "constant"
    }
  }
}
layer {
  name: "ip3"
  type: "InnerProduct"
  bottom: "ip2"
  top: "ip3"
  param {
    lr_mult: 1
  }
  param {
    lr_mult: 2
  }
  inner_product_param {
    num_output: 50
    weight_filler {
      type: "gaussian"
      std: 0.1
    }
    bias_filler {
      type: "constant"
    }
  }
}
layer {
  name: "loss"
  type: "SoftmaxWithLoss"
  bottom: "ip3"
  bottom: "label"
  top: "loss"
}
I0501 21:19:03.545653 14818 layer_factory.hpp:77] Creating layer parameters
I0501 21:19:03.545668 14818 net.cpp:94] Creating Layer parameters
I0501 21:19:03.545673 14818 net.cpp:409] parameters -> data
I0501 21:19:03.545694 14818 net.cpp:409] parameters -> label
I0501 21:19:03.545704 14818 hdf5_data_layer.cpp:79] Loading list of HDF5 filenames from: /home/purduethu/scratch/radon/d/deng106/CNNStatisticalModel/distributions/input/20_distributions_400_sample_size_train-distributions-path.txt
I0501 21:19:03.545727 14818 hdf5_data_layer.cpp:93] Number of HDF5 files: 1
I0501 21:19:03.546195 14818 hdf5.cpp:32] Datatype class: H5T_FLOAT
I0501 21:19:03.801744 14818 hdf5.cpp:35] Datatype class: H5T_INTEGER
I0501 21:19:03.803339 14818 net.cpp:144] Setting up parameters
I0501 21:19:03.803356 14818 net.cpp:151] Top shape: 20 1 20 20 (8000)
I0501 21:19:03.803362 14818 net.cpp:151] Top shape: 20 (20)
I0501 21:19:03.803366 14818 net.cpp:159] Memory required for data: 32080
I0501 21:19:03.803375 14818 layer_factory.hpp:77] Creating layer conv1
I0501 21:19:03.803398 14818 net.cpp:94] Creating Layer conv1
I0501 21:19:03.803406 14818 net.cpp:435] conv1 <- data
I0501 21:19:03.803416 14818 net.cpp:409] conv1 -> conv1
I0501 21:19:03.808279 14818 net.cpp:144] Setting up conv1
I0501 21:19:03.808296 14818 net.cpp:151] Top shape: 20 64 20 20 (512000)
I0501 21:19:03.808300 14818 net.cpp:159] Memory required for data: 2080080
I0501 21:19:03.808312 14818 layer_factory.hpp:77] Creating layer relu1
I0501 21:19:03.808320 14818 net.cpp:94] Creating Layer relu1
I0501 21:19:03.808324 14818 net.cpp:435] relu1 <- conv1
I0501 21:19:03.808329 14818 net.cpp:396] relu1 -> conv1 (in-place)
I0501 21:19:03.808346 14818 net.cpp:144] Setting up relu1
I0501 21:19:03.808352 14818 net.cpp:151] Top shape: 20 64 20 20 (512000)
I0501 21:19:03.808356 14818 net.cpp:159] Memory required for data: 4128080
I0501 21:19:03.808359 14818 layer_factory.hpp:77] Creating layer conv2
I0501 21:19:03.808367 14818 net.cpp:94] Creating Layer conv2
I0501 21:19:03.808372 14818 net.cpp:435] conv2 <- conv1
I0501 21:19:03.808377 14818 net.cpp:409] conv2 -> conv2
I0501 21:19:03.817817 14818 net.cpp:144] Setting up conv2
I0501 21:19:03.817833 14818 net.cpp:151] Top shape: 20 64 20 20 (512000)
I0501 21:19:03.817837 14818 net.cpp:159] Memory required for data: 6176080
I0501 21:19:03.817847 14818 layer_factory.hpp:77] Creating layer relu2
I0501 21:19:03.817853 14818 net.cpp:94] Creating Layer relu2
I0501 21:19:03.817857 14818 net.cpp:435] relu2 <- conv2
I0501 21:19:03.817862 14818 net.cpp:396] relu2 -> conv2 (in-place)
I0501 21:19:03.817870 14818 net.cpp:144] Setting up relu2
I0501 21:19:03.817875 14818 net.cpp:151] Top shape: 20 64 20 20 (512000)
I0501 21:19:03.817878 14818 net.cpp:159] Memory required for data: 8224080
I0501 21:19:03.817883 14818 layer_factory.hpp:77] Creating layer pool2
I0501 21:19:03.817901 14818 net.cpp:94] Creating Layer pool2
I0501 21:19:03.817905 14818 net.cpp:435] pool2 <- conv2
I0501 21:19:03.817910 14818 net.cpp:409] pool2 -> pool2
I0501 21:19:03.817952 14818 net.cpp:144] Setting up pool2
I0501 21:19:03.817960 14818 net.cpp:151] Top shape: 20 64 10 10 (128000)
I0501 21:19:03.817965 14818 net.cpp:159] Memory required for data: 8736080
I0501 21:19:03.817967 14818 layer_factory.hpp:77] Creating layer conv3
I0501 21:19:03.817975 14818 net.cpp:94] Creating Layer conv3
I0501 21:19:03.817978 14818 net.cpp:435] conv3 <- pool2
I0501 21:19:03.817991 14818 net.cpp:409] conv3 -> conv3
I0501 21:19:03.823217 14818 net.cpp:144] Setting up conv3
I0501 21:19:03.823231 14818 net.cpp:151] Top shape: 20 64 10 10 (128000)
I0501 21:19:03.823236 14818 net.cpp:159] Memory required for data: 9248080
I0501 21:19:03.823245 14818 layer_factory.hpp:77] Creating layer relu3
I0501 21:19:03.823251 14818 net.cpp:94] Creating Layer relu3
I0501 21:19:03.823254 14818 net.cpp:435] relu3 <- conv3
I0501 21:19:03.823259 14818 net.cpp:396] relu3 -> conv3 (in-place)
I0501 21:19:03.823266 14818 net.cpp:144] Setting up relu3
I0501 21:19:03.823271 14818 net.cpp:151] Top shape: 20 64 10 10 (128000)
I0501 21:19:03.823274 14818 net.cpp:159] Memory required for data: 9760080
I0501 21:19:03.823278 14818 layer_factory.hpp:77] Creating layer conv4
I0501 21:19:03.823287 14818 net.cpp:94] Creating Layer conv4
I0501 21:19:03.823290 14818 net.cpp:435] conv4 <- conv3
I0501 21:19:03.823295 14818 net.cpp:409] conv4 -> conv4
I0501 21:19:03.828485 14818 net.cpp:144] Setting up conv4
I0501 21:19:03.828500 14818 net.cpp:151] Top shape: 20 64 10 10 (128000)
I0501 21:19:03.828505 14818 net.cpp:159] Memory required for data: 10272080
I0501 21:19:03.828510 14818 layer_factory.hpp:77] Creating layer relu4
I0501 21:19:03.828516 14818 net.cpp:94] Creating Layer relu4
I0501 21:19:03.828521 14818 net.cpp:435] relu4 <- conv4
I0501 21:19:03.828526 14818 net.cpp:396] relu4 -> conv4 (in-place)
I0501 21:19:03.828532 14818 net.cpp:144] Setting up relu4
I0501 21:19:03.828537 14818 net.cpp:151] Top shape: 20 64 10 10 (128000)
I0501 21:19:03.828541 14818 net.cpp:159] Memory required for data: 10784080
I0501 21:19:03.828544 14818 layer_factory.hpp:77] Creating layer conv5
I0501 21:19:03.828562 14818 net.cpp:94] Creating Layer conv5
I0501 21:19:03.828567 14818 net.cpp:435] conv5 <- conv4
I0501 21:19:03.828572 14818 net.cpp:409] conv5 -> conv5
I0501 21:19:03.834655 14818 net.cpp:144] Setting up conv5
I0501 21:19:03.834668 14818 net.cpp:151] Top shape: 20 64 10 10 (128000)
I0501 21:19:03.834673 14818 net.cpp:159] Memory required for data: 11296080
I0501 21:19:03.834682 14818 layer_factory.hpp:77] Creating layer relu5
I0501 21:19:03.834688 14818 net.cpp:94] Creating Layer relu5
I0501 21:19:03.834692 14818 net.cpp:435] relu5 <- conv5
I0501 21:19:03.834697 14818 net.cpp:396] relu5 -> conv5 (in-place)
I0501 21:19:03.834704 14818 net.cpp:144] Setting up relu5
I0501 21:19:03.834709 14818 net.cpp:151] Top shape: 20 64 10 10 (128000)
I0501 21:19:03.834712 14818 net.cpp:159] Memory required for data: 11808080
I0501 21:19:03.834717 14818 layer_factory.hpp:77] Creating layer pool5
I0501 21:19:03.834722 14818 net.cpp:94] Creating Layer pool5
I0501 21:19:03.834724 14818 net.cpp:435] pool5 <- conv5
I0501 21:19:03.834729 14818 net.cpp:409] pool5 -> pool5
I0501 21:19:03.834761 14818 net.cpp:144] Setting up pool5
I0501 21:19:03.834769 14818 net.cpp:151] Top shape: 20 64 5 5 (32000)
I0501 21:19:03.834772 14818 net.cpp:159] Memory required for data: 11936080
I0501 21:19:03.834776 14818 layer_factory.hpp:77] Creating layer ip1
I0501 21:19:03.834785 14818 net.cpp:94] Creating Layer ip1
I0501 21:19:03.834789 14818 net.cpp:435] ip1 <- pool5
I0501 21:19:03.834794 14818 net.cpp:409] ip1 -> ip1
I0501 21:19:03.837368 14818 net.cpp:144] Setting up ip1
I0501 21:19:03.837378 14818 net.cpp:151] Top shape: 20 64 (1280)
I0501 21:19:03.837381 14818 net.cpp:159] Memory required for data: 11941200
I0501 21:19:03.837386 14818 layer_factory.hpp:77] Creating layer ip2
I0501 21:19:03.837396 14818 net.cpp:94] Creating Layer ip2
I0501 21:19:03.837401 14818 net.cpp:435] ip2 <- ip1
I0501 21:19:03.837406 14818 net.cpp:409] ip2 -> ip2
I0501 21:19:03.837573 14818 net.cpp:144] Setting up ip2
I0501 21:19:03.837579 14818 net.cpp:151] Top shape: 20 64 (1280)
I0501 21:19:03.837582 14818 net.cpp:159] Memory required for data: 11946320
I0501 21:19:03.837587 14818 layer_factory.hpp:77] Creating layer ip3
I0501 21:19:03.837594 14818 net.cpp:94] Creating Layer ip3
I0501 21:19:03.837597 14818 net.cpp:435] ip3 <- ip2
I0501 21:19:03.837601 14818 net.cpp:409] ip3 -> ip3
I0501 21:19:03.837751 14818 net.cpp:144] Setting up ip3
I0501 21:19:03.837759 14818 net.cpp:151] Top shape: 20 50 (1000)
I0501 21:19:03.837761 14818 net.cpp:159] Memory required for data: 11950320
I0501 21:19:03.837766 14818 layer_factory.hpp:77] Creating layer loss
I0501 21:19:03.837774 14818 net.cpp:94] Creating Layer loss
I0501 21:19:03.837776 14818 net.cpp:435] loss <- ip3
I0501 21:19:03.837781 14818 net.cpp:435] loss <- label
I0501 21:19:03.837786 14818 net.cpp:409] loss -> loss
I0501 21:19:03.837795 14818 layer_factory.hpp:77] Creating layer loss
…
I0501 21:19:03.838295 14818 solver.cpp:181] Creating test net (#0) specified by net file: ./protocol/dis_20_400_dimension.protocol_distribution
I0501 21:19:03.838322 14818 net.cpp:323] The NetState phase (1) differed from the phase (0) specified by a rule in layer parameters
I0501 21:19:03.838418 14818 net.cpp:52] Initializing net from parameters: 
state {
  phase: TEST
}
layer {
  name: "intercept"
  type: "HDF5Data"
  top: "data"
  top: "label"
  include {
    phase: TEST
  }
  hdf5_data_param {
    source: "/home/purduethu/scratch/radon/d/deng106/CNNStatisticalModel/distributions/input/20_distributions_400_sample_size_test-distributions-path.txt"
    batch_size: 20
  }
}
layer {
  name: "conv1"
  type: "Convolution"
  bottom: "data"
  top: "conv1"
  param {
    lr_mult: 1
  }
  param {
    lr_mult: 2
  }
  convolution_param {
    num_output: 64
    pad: 2
    kernel_size: 5
    stride: 1
    weight_filler {
      type: "gaussian"
      std: 0.0001
    }
    bias_filler {
      type: "constant"
    }
  }
}
layer {
  name: "relu1"
  type: "ReLU"
  bottom: "conv1"
  top: "conv1"
}
layer {
  name: "conv2"
  type: "Convolution"
  bottom: "conv1"
  top: "conv2"
  param {
    lr_mult: 1
  }
  param {
    lr_mult: 2
  }
  convolution_param {
    num_output: 64
    pad: 2
    kernel_size: 5
    stride: 1
    weight_filler {
      type: "gaussian"
      std: 0.01
    }
    bias_filler {
      type: "constant"
    }
  }
}
layer {
  name: "relu2"
  type: "ReLU"
  bottom: "conv2"
  top: "conv2"
}
layer {
  name: "pool2"
  type: "Pooling"
  bottom: "conv2"
  top: "pool2"
  pooling_param {
    pool: MAX
    kernel_size: 3
    stride: 2
  }
}
layer {
  name: "conv3"
  type: "Convolution"
  bottom: "pool2"
  top: "conv3"
  param {
    lr_mult: 1
  }
  param {
    lr_mult: 2
  }
  convolution_param {
    num_output: 64
    pad: 2
    kernel_size: 5
    stride: 1
    weight_filler {
      type: "gaussian"
      std: 0.01
    }
    bias_filler {
      type: "constant"
    }
  }
}
layer {
  name: "relu3"
  type: "ReLU"
  bottom: "conv3"
  top: "conv3"
}
layer {
  name: "conv4"
  type: "Convolution"
  bottom: "conv3"
  top: "conv4"
  param {
    lr_mult: 1
  }
  param {
    lr_mult: 2
  }
  convolution_param {
    num_output: 64
    pad: 2
    kernel_size: 5
    stride: 1
    weight_filler {
      type: "gaussian"
      std: 0.01
    }
    bias_filler {
      type: "constant"
    }
  }
}
layer {
  name: "relu4"
  type: "ReLU"
  bottom: "conv4"
  top: "conv4"
}
layer {
  name: "conv5"
  type: "Convolution"
  bottom: "conv4"
  top: "conv5"
  param {
    lr_mult: 1
  }
  param {
    lr_mult: 2
  }
  convolution_param {
    num_output: 64
    pad: 2
    kernel_size: 5
    stride: 1
    weight_filler {
      type: "gaussian"
      std: 0.01
    }
    bias_filler {
      type: "constant"
    }
  }
}
layer {
  name: "relu5"
  type: "ReLU"
  bottom: "conv5"
  top: "conv5"
}
layer {
  name: "pool5"
  type: "Pooling"
  bottom: "conv5"
  top: "pool5"
  pooling_param {
    pool: AVE
    kernel_size: 3
    stride: 2
  }
}
layer {
  name: "ip1"
  type: "InnerProduct"
  bottom: "pool5"
  top: "ip1"
  param {
    lr_mult: 1
  }
  param {
    lr_mult: 2
  }
  inner_product_param {
    num_output: 64
    weight_filler {
      type: "gaussian"
      std: 0.1
    }
    bias_filler {
      type: "constant"
    }
  }
}
layer {
  name: "ip2"
  type: "InnerProduct"
  bottom: "ip1"
  top: "ip2"
  param {
    lr_mult: 1
  }
  param {
    lr_mult: 2
  }
  inner_product_param {
    num_output: 64
    weight_filler {
      type: "gaussian"
      std: 0.1
    }
    bias_filler {
      type: "constant"
    }
  }
}
layer {
  name: "ip3"
  type: "InnerProduct"
  bottom: "ip2"
  top: "ip3"
  param {
    lr_mult: 1
  }
  param {
    lr_mult: 2
  }
  inner_product_param {
    num_output: 50
    weight_filler {
      type: "gaussian"
      std: 0.1
    }
    bias_filler {
      type: "constant"
    }
  }
}
layer {
  name: "accuracy"
  type: "Accuracy"
  bottom: "ip3"
  bottom: "label"
  top: "accuracy"
  include {
    phase: TEST
  }
}
layer {
  name: "loss"
  type: "SoftmaxWithLoss"
  bottom: "ip3"
  bottom: "label"
  top: "loss"
}
I0501 21:19:03.838490 14818 layer_factory.hpp:77] Creating layer intercept
I0501 21:19:03.838498 14818 net.cpp:94] Creating Layer intercept
I0501 21:19:03.838502 14818 net.cpp:409] intercept -> data
I0501 21:19:03.838510 14818 net.cpp:409] intercept -> label
I0501 21:19:03.838516 14818 hdf5_data_layer.cpp:79] Loading list of HDF5 filenames from: /home/purduethu/scratch/radon/d/deng106/CNNStatisticalModel/distributions/input/20_distributions_400_sample_size_test-distributions-path.txt
I0501 21:19:03.838536 14818 hdf5_data_layer.cpp:93] Number of HDF5 files: 1
I0501 21:19:03.902371 14818 net.cpp:144] Setting up intercept
I0501 21:19:03.902401 14818 net.cpp:151] Top shape: 20 1 20 20 (8000)
I0501 21:19:03.902406 14818 net.cpp:151] Top shape: 20 (20)
I0501 21:19:03.902410 14818 net.cpp:159] Memory required for data: 32080
I0501 21:19:03.902415 14818 layer_factory.hpp:77] Creating layer label_intercept_1_split
I0501 21:19:03.902431 14818 net.cpp:94] Creating Layer label_intercept_1_split
I0501 21:19:03.902436 14818 net.cpp:435] label_intercept_1_split <- label
I0501 21:19:03.902442 14818 net.cpp:409] label_intercept_1_split -> label_intercept_1_split_0
I0501 21:19:03.902451 14818 net.cpp:409] label_intercept_1_split -> label_intercept_1_split_1
I0501 21:19:03.902484 14818 net.cpp:144] Setting up label_intercept_1_split
I0501 21:19:03.902492 14818 net.cpp:151] Top shape: 20 (20)
I0501 21:19:03.902495 14818 net.cpp:151] Top shape: 20 (20)
I0501 21:19:03.902498 14818 net.cpp:159] Memory required for data: 32240
I0501 21:19:03.902501 14818 layer_factory.hpp:77] Creating layer conv1
I0501 21:19:03.902513 14818 net.cpp:94] Creating Layer conv1
I0501 21:19:03.902516 14818 net.cpp:435] conv1 <- data
I0501 21:19:03.902521 14818 net.cpp:409] conv1 -> conv1
I0501 21:19:03.908525 14818 net.cpp:144] Setting up conv1
I0501 21:19:03.908548 14818 net.cpp:151] Top shape: 20 64 20 20 (512000)
I0501 21:19:03.908562 14818 net.cpp:159] Memory required for data: 2080240
I0501 21:19:03.908571 14818 layer_factory.hpp:77] Creating layer relu1
I0501 21:19:03.908578 14818 net.cpp:94] Creating Layer relu1
I0501 21:19:03.908582 14818 net.cpp:435] relu1 <- conv1
I0501 21:19:03.908586 14818 net.cpp:396] relu1 -> conv1 (in-place)
I0501 21:19:03.908594 14818 net.cpp:144] Setting up relu1
I0501 21:19:03.908599 14818 net.cpp:151] Top shape: 20 64 20 20 (512000)
I0501 21:19:03.908602 14818 net.cpp:159] Memory required for data: 4128240
I0501 21:19:03.908605 14818 layer_factory.hpp:77] Creating layer conv2
I0501 21:19:03.908613 14818 net.cpp:94] Creating Layer conv2
I0501 21:19:03.908617 14818 net.cpp:435] conv2 <- conv1
I0501 21:19:03.908622 14818 net.cpp:409] conv2 -> conv2
I0501 21:19:03.913360 14818 net.cpp:144] Setting up conv2
I0501 21:19:03.913375 14818 net.cpp:151] Top shape: 20 64 20 20 (512000)
I0501 21:19:03.913380 14818 net.cpp:159] Memory required for data: 6176240
I0501 21:19:03.913388 14818 layer_factory.hpp:77] Creating layer relu2
I0501 21:19:03.913394 14818 net.cpp:94] Creating Layer relu2
I0501 21:19:03.913398 14818 net.cpp:435] relu2 <- conv2
I0501 21:19:03.913403 14818 net.cpp:396] relu2 -> conv2 (in-place)
I0501 21:19:03.913410 14818 net.cpp:144] Setting up relu2
I0501 21:19:03.913414 14818 net.cpp:151] Top shape: 20 64 20 20 (512000)
I0501 21:19:03.913419 14818 net.cpp:159] Memory required for data: 8224240
I0501 21:19:03.913421 14818 layer_factory.hpp:77] Creating layer pool2
I0501 21:19:03.913426 14818 net.cpp:94] Creating Layer pool2
I0501 21:19:03.913430 14818 net.cpp:435] pool2 <- conv2
I0501 21:19:03.913434 14818 net.cpp:409] pool2 -> pool2
I0501 21:19:03.913468 14818 net.cpp:144] Setting up pool2
I0501 21:19:03.913475 14818 net.cpp:151] Top shape: 20 64 10 10 (128000)
I0501 21:19:03.913477 14818 net.cpp:159] Memory required for data: 8736240
I0501 21:19:03.913480 14818 layer_factory.hpp:77] Creating layer conv3
I0501 21:19:03.913488 14818 net.cpp:94] Creating Layer conv3
I0501 21:19:03.913492 14818 net.cpp:435] conv3 <- pool2
I0501 21:19:03.913497 14818 net.cpp:409] conv3 -> conv3
I0501 21:19:03.917320 14818 net.cpp:144] Setting up conv3
I0501 21:19:03.917335 14818 net.cpp:151] Top shape: 20 64 10 10 (128000)
I0501 21:19:03.917338 14818 net.cpp:159] Memory required for data: 9248240
I0501 21:19:03.917346 14818 layer_factory.hpp:77] Creating layer relu3
I0501 21:19:03.917353 14818 net.cpp:94] Creating Layer relu3
I0501 21:19:03.917357 14818 net.cpp:435] relu3 <- conv3
I0501 21:19:03.917362 14818 net.cpp:396] relu3 -> conv3 (in-place)
I0501 21:19:03.917369 14818 net.cpp:144] Setting up relu3
I0501 21:19:03.917373 14818 net.cpp:151] Top shape: 20 64 10 10 (128000)
I0501 21:19:03.917377 14818 net.cpp:159] Memory required for data: 9760240
I0501 21:19:03.917381 14818 layer_factory.hpp:77] Creating layer conv4
I0501 21:19:03.917387 14818 net.cpp:94] Creating Layer conv4
I0501 21:19:03.917392 14818 net.cpp:435] conv4 <- conv3
I0501 21:19:03.917397 14818 net.cpp:409] conv4 -> conv4
I0501 21:19:03.920819 14818 net.cpp:144] Setting up conv4
I0501 21:19:03.920831 14818 net.cpp:151] Top shape: 20 64 10 10 (128000)
I0501 21:19:03.920835 14818 net.cpp:159] Memory required for data: 10272240
I0501 21:19:03.920841 14818 layer_factory.hpp:77] Creating layer relu4
I0501 21:19:03.920847 14818 net.cpp:94] Creating Layer relu4
I0501 21:19:03.920855 14818 net.cpp:435] relu4 <- conv4
I0501 21:19:03.920859 14818 net.cpp:396] relu4 -> conv4 (in-place)
I0501 21:19:03.920866 14818 net.cpp:144] Setting up relu4
I0501 21:19:03.920871 14818 net.cpp:151] Top shape: 20 64 10 10 (128000)
I0501 21:19:03.920874 14818 net.cpp:159] Memory required for data: 10784240
I0501 21:19:03.920877 14818 layer_factory.hpp:77] Creating layer conv5
I0501 21:19:03.920884 14818 net.cpp:94] Creating Layer conv5
I0501 21:19:03.920887 14818 net.cpp:435] conv5 <- conv4
I0501 21:19:03.920892 14818 net.cpp:409] conv5 -> conv5
I0501 21:19:03.925284 14818 net.cpp:144] Setting up conv5
I0501 21:19:03.925304 14818 net.cpp:151] Top shape: 20 64 10 10 (128000)
I0501 21:19:03.925309 14818 net.cpp:159] Memory required for data: 11296240
I0501 21:19:03.925318 14818 layer_factory.hpp:77] Creating layer relu5
I0501 21:19:03.925323 14818 net.cpp:94] Creating Layer relu5
I0501 21:19:03.925328 14818 net.cpp:435] relu5 <- conv5
I0501 21:19:03.925331 14818 net.cpp:396] relu5 -> conv5 (in-place)
I0501 21:19:03.925338 14818 net.cpp:144] Setting up relu5
I0501 21:19:03.925343 14818 net.cpp:151] Top shape: 20 64 10 10 (128000)
I0501 21:19:03.925346 14818 net.cpp:159] Memory required for data: 11808240
I0501 21:19:03.925349 14818 layer_factory.hpp:77] Creating layer pool5
I0501 21:19:03.925354 14818 net.cpp:94] Creating Layer pool5
I0501 21:19:03.925357 14818 net.cpp:435] pool5 <- conv5
I0501 21:19:03.925362 14818 net.cpp:409] pool5 -> pool5
I0501 21:19:03.925386 14818 net.cpp:144] Setting up pool5
I0501 21:19:03.925392 14818 net.cpp:151] Top shape: 20 64 5 5 (32000)
I0501 21:19:03.925395 14818 net.cpp:159] Memory required for data: 11936240
I0501 21:19:03.925398 14818 layer_factory.hpp:77] Creating layer ip1
I0501 21:19:03.925405 14818 net.cpp:94] Creating Layer ip1
I0501 21:19:03.925410 14818 net.cpp:435] ip1 <- pool5
I0501 21:19:03.925413 14818 net.cpp:409] ip1 -> ip1
I0501 21:19:03.927845 14818 net.cpp:144] Setting up ip1
I0501 21:19:03.927852 14818 net.cpp:151] Top shape: 20 64 (1280)
I0501 21:19:03.927855 14818 net.cpp:159] Memory required for data: 11941360
I0501 21:19:03.927861 14818 layer_factory.hpp:77] Creating layer ip2
I0501 21:19:03.927867 14818 net.cpp:94] Creating Layer ip2
I0501 21:19:03.927870 14818 net.cpp:435] ip2 <- ip1
I0501 21:19:03.927875 14818 net.cpp:409] ip2 -> ip2
I0501 21:19:03.928033 14818 net.cpp:144] Setting up ip2
I0501 21:19:03.928040 14818 net.cpp:151] Top shape: 20 64 (1280)
I0501 21:19:03.928042 14818 net.cpp:159] Memory required for data: 11946480
I0501 21:19:03.928047 14818 layer_factory.hpp:77] Creating layer ip3
I0501 21:19:03.928055 14818 net.cpp:94] Creating Layer ip3
I0501 21:19:03.928057 14818 net.cpp:435] ip3 <- ip2
I0501 21:19:03.928062 14818 net.cpp:409] ip3 -> ip3
I0501 21:19:03.928200 14818 net.cpp:144] Setting up ip3
I0501 21:19:03.928206 14818 net.cpp:151] Top shape: 20 50 (1000)
I0501 21:19:03.928210 14818 net.cpp:159] Memory required for data: 11950480
I0501 21:19:03.928213 14818 layer_factory.hpp:77] Creating layer ip3_ip3_0_split
I0501 21:19:03.928218 14818 net.cpp:94] Creating Layer ip3_ip3_0_split
I0501 21:19:03.928221 14818 net.cpp:435] ip3_ip3_0_split <- ip3
I0501 21:19:03.928225 14818 net.cpp:409] ip3_ip3_0_split -> ip3_ip3_0_split_0
I0501 21:19:03.928231 14818 net.cpp:409] ip3_ip3_0_split -> ip3_ip3_0_split_1
I0501 21:19:03.928252 14818 net.cpp:144] Setting up ip3_ip3_0_split
I0501 21:19:03.928257 14818 net.cpp:151] Top shape: 20 50 (1000)
I0501 21:19:03.928261 14818 net.cpp:151] Top shape: 20 50 (1000)
I0501 21:19:03.928264 14818 net.cpp:159] Memory required for data: 11958480
I0501 21:19:03.928267 14818 layer_factory.hpp:77] Creating layer accuracy
I0501 21:19:03.928272 14818 net.cpp:94] Creating Layer accuracy
I0501 21:19:03.928275 14818 net.cpp:435] accuracy <- ip3_ip3_0_split_0
I0501 21:19:03.928279 14818 net.cpp:435] accuracy <- label_intercept_1_split_0
I0501 21:19:03.928284 14818 net.cpp:409] accuracy -> accuracy
…
