…
I0507 02:34:57.600071 30977 net.cpp:323] The NetState phase (0) differed from the phase (1) specified by a rule in layer intercept
I0507 02:34:57.600087 30977 net.cpp:323] The NetState phase (0) differed from the phase (1) specified by a rule in layer loss
I0507 02:34:57.600165 30977 net.cpp:52] Initializing net from parameters: 
state {
  phase: TRAIN
}
layer {
  name: "parameters"
  type: "HDF5Data"
  top: "data"
  top: "label"
  include {
    phase: TRAIN
  }
  hdf5_data_param {
    source: "/home/purduethu/scratch/radon/d/deng106/CNNStatisticalModel/distributions/input/50_distributions_100_sample_size_train-parameters-path.txt"
    batch_size: 20
  }
}
layer {
  name: "conv1"
  type: "Convolution"
  bottom: "data"
  top: "conv1"
  param {
    lr_mult: 1
  }
  param {
    lr_mult: 2
  }
  convolution_param {
    num_output: 64
    pad: 2
    kernel_size: 5
    stride: 1
    weight_filler {
      type: "gaussian"
      std: 0.0001
    }
    bias_filler {
      type: "constant"
    }
  }
}
layer {
  name: "relu1"
  type: "ReLU"
  bottom: "conv1"
  top: "conv1"
}
layer {
  name: "conv2"
  type: "Convolution"
  bottom: "conv1"
  top: "conv2"
  param {
    lr_mult: 1
  }
  param {
    lr_mult: 2
  }
  convolution_param {
    num_output: 64
    pad: 2
    kernel_size: 5
    stride: 1
    weight_filler {
      type: "gaussian"
      std: 0.01
    }
    bias_filler {
      type: "constant"
    }
  }
}
layer {
  name: "relu2"
  type: "ReLU"
  bottom: "conv2"
  top: "conv2"
}
layer {
  name: "pool2"
  type: "Pooling"
  bottom: "conv2"
  top: "pool2"
  pooling_param {
    pool: MAX
    kernel_size: 3
    stride: 2
  }
}
layer {
  name: "conv3"
  type: "Convolution"
  bottom: "pool2"
  top: "conv3"
  param {
    lr_mult: 1
  }
  param {
    lr_mult: 2
  }
  convolution_param {
    num_output: 64
    pad: 2
    kernel_size: 5
    stride: 1
    weight_filler {
      type: "gaussian"
      std: 0.01
    }
    bias_filler {
      type: "constant"
    }
  }
}
layer {
  name: "relu3"
  type: "ReLU"
  bottom: "conv3"
  top: "conv3"
}
layer {
  name: "conv4"
  type: "Convolution"
  bottom: "conv3"
  top: "conv4"
  param {
    lr_mult: 1
  }
  param {
    lr_mult: 2
  }
  convolution_param {
    num_output: 64
    pad: 2
    kernel_size: 5
    stride: 1
    weight_filler {
      type: "gaussian"
      std: 0.01
    }
    bias_filler {
      type: "constant"
    }
  }
}
layer {
  name: "relu4"
  type: "ReLU"
  bottom: "conv4"
  top: "conv4"
}
layer {
  name: "conv5"
  type: "Convolution"
  bottom: "conv4"
  top: "conv5"
  param {
    lr_mult: 1
  }
  param {
    lr_mult: 2
  }
  convolution_param {
    num_output: 64
    pad: 2
    kernel_size: 5
    stride: 1
    weight_filler {
      type: "gaussian"
      std: 0.01
    }
    bias_filler {
      type: "constant"
    }
  }
}
layer {
  name: "relu5"
  type: "ReLU"
  bottom: "conv5"
  top: "conv5"
}
layer {
  name: "pool5"
  type: "Pooling"
  bottom: "conv5"
  top: "pool5"
  pooling_param {
    pool: AVE
    kernel_size: 3
    stride: 2
  }
}
layer {
  name: "ip1"
  type: "InnerProduct"
  bottom: "pool5"
  top: "ip1"
  param {
    lr_mult: 1
  }
  param {
    lr_mult: 2
  }
  inner_product_param {
    num_output: 64
    weight_filler {
      type: "gaussian"
      std: 0.1
    }
    bias_filler {
      type: "constant"
    }
  }
}
layer {
  name: "ip2"
  type: "InnerProduct"
  bottom: "ip1"
  top: "ip2"
  param {
    lr_mult: 1
  }
  param {
    lr_mult: 2
  }
  inner_product_param {
    num_output: 64
    weight_filler {
      type: "gaussian"
      std: 0.1
    }
    bias_filler {
      type: "constant"
    }
  }
}
layer {
  name: "ip3"
  type: "InnerProduct"
  bottom: "ip2"
  top: "ip3"
  param {
    lr_mult: 1
  }
  param {
    lr_mult: 2
  }
  inner_product_param {
    num_output: 1
    weight_filler {
      type: "gaussian"
      std: 0.1
    }
    bias_filler {
      type: "constant"
    }
  }
}
layer {
  name: "loss"
  type: "HuberLoss"
  bottom: "ip3"
  bottom: "label"
  top: "loss"
  include {
    phase: TRAIN
  }
}
I0507 02:34:57.600219 30977 layer_factory.hpp:77] Creating layer parameters
I0507 02:34:57.600231 30977 net.cpp:94] Creating Layer parameters
I0507 02:34:57.600235 30977 net.cpp:409] parameters -> data
I0507 02:34:57.600248 30977 net.cpp:409] parameters -> label
I0507 02:34:57.600255 30977 hdf5_data_layer.cpp:79] Loading list of HDF5 filenames from: /home/purduethu/scratch/radon/d/deng106/CNNStatisticalModel/distributions/input/50_distributions_100_sample_size_train-parameters-path.txt
I0507 02:34:57.600270 30977 hdf5_data_layer.cpp:93] Number of HDF5 files: 1
I0507 02:34:57.600695 30977 hdf5.cpp:32] Datatype class: H5T_FLOAT
I0507 02:34:57.761528 30977 net.cpp:144] Setting up parameters
I0507 02:34:57.761562 30977 net.cpp:151] Top shape: 20 1 10 10 (2000)
I0507 02:34:57.761659 30977 net.cpp:151] Top shape: 20 (20)
I0507 02:34:57.761672 30977 net.cpp:159] Memory required for data: 8080
I0507 02:34:57.761682 30977 layer_factory.hpp:77] Creating layer conv1
I0507 02:34:57.761703 30977 net.cpp:94] Creating Layer conv1
I0507 02:34:57.761709 30977 net.cpp:435] conv1 <- data
I0507 02:34:57.761718 30977 net.cpp:409] conv1 -> conv1
I0507 02:34:57.765872 30977 net.cpp:144] Setting up conv1
I0507 02:34:57.765885 30977 net.cpp:151] Top shape: 20 64 10 10 (128000)
I0507 02:34:57.765889 30977 net.cpp:159] Memory required for data: 520080
I0507 02:34:57.765899 30977 layer_factory.hpp:77] Creating layer relu1
I0507 02:34:57.765907 30977 net.cpp:94] Creating Layer relu1
I0507 02:34:57.765910 30977 net.cpp:435] relu1 <- conv1
I0507 02:34:57.765915 30977 net.cpp:396] relu1 -> conv1 (in-place)
I0507 02:34:57.765923 30977 net.cpp:144] Setting up relu1
I0507 02:34:57.765926 30977 net.cpp:151] Top shape: 20 64 10 10 (128000)
I0507 02:34:57.765929 30977 net.cpp:159] Memory required for data: 1032080
I0507 02:34:57.765933 30977 layer_factory.hpp:77] Creating layer conv2
I0507 02:34:57.765939 30977 net.cpp:94] Creating Layer conv2
I0507 02:34:57.765944 30977 net.cpp:435] conv2 <- conv1
I0507 02:34:57.765947 30977 net.cpp:409] conv2 -> conv2
I0507 02:34:57.771893 30977 net.cpp:144] Setting up conv2
I0507 02:34:57.771908 30977 net.cpp:151] Top shape: 20 64 10 10 (128000)
I0507 02:34:57.771911 30977 net.cpp:159] Memory required for data: 1544080
I0507 02:34:57.771919 30977 layer_factory.hpp:77] Creating layer relu2
I0507 02:34:57.771925 30977 net.cpp:94] Creating Layer relu2
I0507 02:34:57.771929 30977 net.cpp:435] relu2 <- conv2
I0507 02:34:57.771934 30977 net.cpp:396] relu2 -> conv2 (in-place)
I0507 02:34:57.771940 30977 net.cpp:144] Setting up relu2
I0507 02:34:57.771944 30977 net.cpp:151] Top shape: 20 64 10 10 (128000)
I0507 02:34:57.771947 30977 net.cpp:159] Memory required for data: 2056080
I0507 02:34:57.771950 30977 layer_factory.hpp:77] Creating layer pool2
I0507 02:34:57.771955 30977 net.cpp:94] Creating Layer pool2
I0507 02:34:57.771958 30977 net.cpp:435] pool2 <- conv2
I0507 02:34:57.771963 30977 net.cpp:409] pool2 -> pool2
I0507 02:34:57.772019 30977 net.cpp:144] Setting up pool2
I0507 02:34:57.772027 30977 net.cpp:151] Top shape: 20 64 5 5 (32000)
I0507 02:34:57.772029 30977 net.cpp:159] Memory required for data: 2184080
I0507 02:34:57.772033 30977 layer_factory.hpp:77] Creating layer conv3
I0507 02:34:57.772040 30977 net.cpp:94] Creating Layer conv3
I0507 02:34:57.772044 30977 net.cpp:435] conv3 <- pool2
I0507 02:34:57.772054 30977 net.cpp:409] conv3 -> conv3
I0507 02:34:57.776911 30977 net.cpp:144] Setting up conv3
I0507 02:34:57.776923 30977 net.cpp:151] Top shape: 20 64 5 5 (32000)
I0507 02:34:57.776927 30977 net.cpp:159] Memory required for data: 2312080
I0507 02:34:57.776935 30977 layer_factory.hpp:77] Creating layer relu3
I0507 02:34:57.776940 30977 net.cpp:94] Creating Layer relu3
I0507 02:34:57.776944 30977 net.cpp:435] relu3 <- conv3
I0507 02:34:57.776948 30977 net.cpp:396] relu3 -> conv3 (in-place)
I0507 02:34:57.776955 30977 net.cpp:144] Setting up relu3
I0507 02:34:57.776959 30977 net.cpp:151] Top shape: 20 64 5 5 (32000)
I0507 02:34:57.776962 30977 net.cpp:159] Memory required for data: 2440080
I0507 02:34:57.776964 30977 layer_factory.hpp:77] Creating layer conv4
I0507 02:34:57.776973 30977 net.cpp:94] Creating Layer conv4
I0507 02:34:57.776976 30977 net.cpp:435] conv4 <- conv3
I0507 02:34:57.776981 30977 net.cpp:409] conv4 -> conv4
I0507 02:34:57.781314 30977 net.cpp:144] Setting up conv4
I0507 02:34:57.781327 30977 net.cpp:151] Top shape: 20 64 5 5 (32000)
I0507 02:34:57.781332 30977 net.cpp:159] Memory required for data: 2568080
I0507 02:34:57.781337 30977 layer_factory.hpp:77] Creating layer relu4
I0507 02:34:57.781342 30977 net.cpp:94] Creating Layer relu4
I0507 02:34:57.781345 30977 net.cpp:435] relu4 <- conv4
I0507 02:34:57.781350 30977 net.cpp:396] relu4 -> conv4 (in-place)
I0507 02:34:57.781357 30977 net.cpp:144] Setting up relu4
I0507 02:34:57.781360 30977 net.cpp:151] Top shape: 20 64 5 5 (32000)
I0507 02:34:57.781363 30977 net.cpp:159] Memory required for data: 2696080
I0507 02:34:57.781366 30977 layer_factory.hpp:77] Creating layer conv5
I0507 02:34:57.781373 30977 net.cpp:94] Creating Layer conv5
I0507 02:34:57.781378 30977 net.cpp:435] conv5 <- conv4
I0507 02:34:57.781381 30977 net.cpp:409] conv5 -> conv5
I0507 02:34:57.786120 30977 net.cpp:144] Setting up conv5
I0507 02:34:57.786134 30977 net.cpp:151] Top shape: 20 64 5 5 (32000)
I0507 02:34:57.786137 30977 net.cpp:159] Memory required for data: 2824080
I0507 02:34:57.786145 30977 layer_factory.hpp:77] Creating layer relu5
I0507 02:34:57.786151 30977 net.cpp:94] Creating Layer relu5
I0507 02:34:57.786154 30977 net.cpp:435] relu5 <- conv5
I0507 02:34:57.786159 30977 net.cpp:396] relu5 -> conv5 (in-place)
I0507 02:34:57.786165 30977 net.cpp:144] Setting up relu5
I0507 02:34:57.786170 30977 net.cpp:151] Top shape: 20 64 5 5 (32000)
I0507 02:34:57.786172 30977 net.cpp:159] Memory required for data: 2952080
I0507 02:34:57.786175 30977 layer_factory.hpp:77] Creating layer pool5
I0507 02:34:57.786180 30977 net.cpp:94] Creating Layer pool5
I0507 02:34:57.786183 30977 net.cpp:435] pool5 <- conv5
I0507 02:34:57.786187 30977 net.cpp:409] pool5 -> pool5
I0507 02:34:57.786226 30977 net.cpp:144] Setting up pool5
I0507 02:34:57.786233 30977 net.cpp:151] Top shape: 20 64 2 2 (5120)
I0507 02:34:57.786237 30977 net.cpp:159] Memory required for data: 2972560
I0507 02:34:57.786239 30977 layer_factory.hpp:77] Creating layer ip1
I0507 02:34:57.786248 30977 net.cpp:94] Creating Layer ip1
I0507 02:34:57.786252 30977 net.cpp:435] ip1 <- pool5
I0507 02:34:57.786257 30977 net.cpp:409] ip1 -> ip1
I0507 02:34:57.787559 30977 net.cpp:144] Setting up ip1
I0507 02:34:57.787572 30977 net.cpp:151] Top shape: 20 64 (1280)
I0507 02:34:57.787576 30977 net.cpp:159] Memory required for data: 2977680
I0507 02:34:57.787582 30977 layer_factory.hpp:77] Creating layer ip2
I0507 02:34:57.787588 30977 net.cpp:94] Creating Layer ip2
I0507 02:34:57.787592 30977 net.cpp:435] ip2 <- ip1
I0507 02:34:57.787597 30977 net.cpp:409] ip2 -> ip2
I0507 02:34:57.787811 30977 net.cpp:144] Setting up ip2
I0507 02:34:57.787817 30977 net.cpp:151] Top shape: 20 64 (1280)
I0507 02:34:57.787822 30977 net.cpp:159] Memory required for data: 2982800
I0507 02:34:57.787827 30977 layer_factory.hpp:77] Creating layer ip3
I0507 02:34:57.787832 30977 net.cpp:94] Creating Layer ip3
I0507 02:34:57.787835 30977 net.cpp:435] ip3 <- ip2
I0507 02:34:57.787839 30977 net.cpp:409] ip3 -> ip3
I0507 02:34:57.787951 30977 net.cpp:144] Setting up ip3
I0507 02:34:57.787958 30977 net.cpp:151] Top shape: 20 1 (20)
I0507 02:34:57.787961 30977 net.cpp:159] Memory required for data: 2982880
I0507 02:34:57.787966 30977 layer_factory.hpp:77] Creating layer loss
I0507 02:34:57.787976 30977 net.cpp:94] Creating Layer loss
I0507 02:34:57.787981 30977 net.cpp:435] loss <- ip3
I0507 02:34:57.787984 30977 net.cpp:435] loss <- label
I0507 02:34:57.787988 30977 net.cpp:409] loss -> loss
I0507 02:34:57.788039 30977 net.cpp:144] Setting up loss
…
I0507 02:34:57.848368 30977 net.cpp:323] The NetState phase (0) differed from the phase (1) specified by a rule in layer intercept
I0507 02:34:57.848381 30977 net.cpp:323] The NetState phase (0) differed from the phase (1) specified by a rule in layer accuracy
I0507 02:34:57.848462 30977 net.cpp:52] Initializing net from parameters: 
state {
  phase: TRAIN
}
layer {
  name: "parameters"
  type: "HDF5Data"
  top: "data"
  top: "label"
  include {
    phase: TRAIN
  }
  hdf5_data_param {
    source: "/home/purduethu/scratch/radon/d/deng106/CNNStatisticalModel/distributions/input/50_distributions_100_sample_size_train-distributions-path.txt"
    batch_size: 20
  }
}
layer {
  name: "conv1"
  type: "Convolution"
  bottom: "data"
  top: "conv1"
  param {
    lr_mult: 1
  }
  param {
    lr_mult: 2
  }
  convolution_param {
    num_output: 64
    pad: 2
    kernel_size: 5
    stride: 1
    weight_filler {
      type: "gaussian"
      std: 0.0001
    }
    bias_filler {
      type: "constant"
    }
  }
}
layer {
  name: "relu1"
  type: "ReLU"
  bottom: "conv1"
  top: "conv1"
}
layer {
  name: "conv2"
  type: "Convolution"
  bottom: "conv1"
  top: "conv2"
  param {
    lr_mult: 1
  }
  param {
    lr_mult: 2
  }
  convolution_param {
    num_output: 64
    pad: 2
    kernel_size: 5
    stride: 1
    weight_filler {
      type: "gaussian"
      std: 0.01
    }
    bias_filler {
      type: "constant"
    }
  }
}
layer {
  name: "relu2"
  type: "ReLU"
  bottom: "conv2"
  top: "conv2"
}
layer {
  name: "pool2"
  type: "Pooling"
  bottom: "conv2"
  top: "pool2"
  pooling_param {
    pool: MAX
    kernel_size: 3
    stride: 2
  }
}
layer {
  name: "conv3"
  type: "Convolution"
  bottom: "pool2"
  top: "conv3"
  param {
    lr_mult: 1
  }
  param {
    lr_mult: 2
  }
  convolution_param {
    num_output: 64
    pad: 2
    kernel_size: 5
    stride: 1
    weight_filler {
      type: "gaussian"
      std: 0.01
    }
    bias_filler {
      type: "constant"
    }
  }
}
layer {
  name: "relu3"
  type: "ReLU"
  bottom: "conv3"
  top: "conv3"
}
layer {
  name: "conv4"
  type: "Convolution"
  bottom: "conv3"
  top: "conv4"
  param {
    lr_mult: 1
  }
  param {
    lr_mult: 2
  }
  convolution_param {
    num_output: 64
    pad: 2
    kernel_size: 5
    stride: 1
    weight_filler {
      type: "gaussian"
      std: 0.01
    }
    bias_filler {
      type: "constant"
    }
  }
}
layer {
  name: "relu4"
  type: "ReLU"
  bottom: "conv4"
  top: "conv4"
}
layer {
  name: "conv5"
  type: "Convolution"
  bottom: "conv4"
  top: "conv5"
  param {
    lr_mult: 1
  }
  param {
    lr_mult: 2
  }
  convolution_param {
    num_output: 64
    pad: 2
    kernel_size: 5
    stride: 1
    weight_filler {
      type: "gaussian"
      std: 0.01
    }
    bias_filler {
      type: "constant"
    }
  }
}
layer {
  name: "relu5"
  type: "ReLU"
  bottom: "conv5"
  top: "conv5"
}
layer {
  name: "pool5"
  type: "Pooling"
  bottom: "conv5"
  top: "pool5"
  pooling_param {
    pool: AVE
    kernel_size: 3
    stride: 2
  }
}
layer {
  name: "ip1"
  type: "InnerProduct"
  bottom: "pool5"
  top: "ip1"
  param {
    lr_mult: 1
  }
  param {
    lr_mult: 2
  }
  inner_product_param {
    num_output: 64
    weight_filler {
      type: "gaussian"
      std: 0.1
    }
    bias_filler {
      type: "constant"
    }
  }
}
layer {
  name: "ip2"
  type: "InnerProduct"
  bottom: "ip1"
  top: "ip2"
  param {
    lr_mult: 1
  }
  param {
    lr_mult: 2
  }
  inner_product_param {
    num_output: 64
    weight_filler {
      type: "gaussian"
      std: 0.1
    }
    bias_filler {
      type: "constant"
    }
  }
}
layer {
  name: "ip3"
  type: "InnerProduct"
  bottom: "ip2"
  top: "ip3"
  param {
    lr_mult: 1
  }
  param {
    lr_mult: 2
  }
  inner_product_param {
    num_output: 50
    weight_filler {
      type: "gaussian"
      std: 0.1
    }
    bias_filler {
      type: "constant"
    }
  }
}
layer {
  name: "loss"
  type: "SoftmaxWithLoss"
  bottom: "ip3"
  bottom: "label"
  top: "loss"
}
I0507 02:34:57.848508 30977 layer_factory.hpp:77] Creating layer parameters
I0507 02:34:57.848516 30977 net.cpp:94] Creating Layer parameters
I0507 02:34:57.848520 30977 net.cpp:409] parameters -> data
I0507 02:34:57.848526 30977 net.cpp:409] parameters -> label
I0507 02:34:57.848532 30977 hdf5_data_layer.cpp:79] Loading list of HDF5 filenames from: /home/purduethu/scratch/radon/d/deng106/CNNStatisticalModel/distributions/input/50_distributions_100_sample_size_train-distributions-path.txt
I0507 02:34:57.848546 30977 hdf5_data_layer.cpp:93] Number of HDF5 files: 1
I0507 02:34:58.003098 30977 hdf5.cpp:35] Datatype class: H5T_INTEGER
I0507 02:34:58.005918 30977 net.cpp:144] Setting up parameters
I0507 02:34:58.005934 30977 net.cpp:151] Top shape: 20 1 10 10 (2000)
I0507 02:34:58.005939 30977 net.cpp:151] Top shape: 20 (20)
I0507 02:34:58.005941 30977 net.cpp:159] Memory required for data: 8080
I0507 02:34:58.005947 30977 layer_factory.hpp:77] Creating layer conv1
I0507 02:34:58.005962 30977 net.cpp:94] Creating Layer conv1
I0507 02:34:58.005966 30977 net.cpp:435] conv1 <- data
I0507 02:34:58.005972 30977 net.cpp:409] conv1 -> conv1
I0507 02:34:58.007704 30977 net.cpp:144] Setting up conv1
I0507 02:34:58.007717 30977 net.cpp:151] Top shape: 20 64 10 10 (128000)
I0507 02:34:58.007721 30977 net.cpp:159] Memory required for data: 520080
I0507 02:34:58.007730 30977 layer_factory.hpp:77] Creating layer relu1
I0507 02:34:58.007738 30977 net.cpp:94] Creating Layer relu1
I0507 02:34:58.007741 30977 net.cpp:435] relu1 <- conv1
I0507 02:34:58.007745 30977 net.cpp:396] relu1 -> conv1 (in-place)
I0507 02:34:58.007752 30977 net.cpp:144] Setting up relu1
I0507 02:34:58.007757 30977 net.cpp:151] Top shape: 20 64 10 10 (128000)
I0507 02:34:58.007761 30977 net.cpp:159] Memory required for data: 1032080
I0507 02:34:58.007762 30977 layer_factory.hpp:77] Creating layer conv2
I0507 02:34:58.007771 30977 net.cpp:94] Creating Layer conv2
I0507 02:34:58.007773 30977 net.cpp:435] conv2 <- conv1
I0507 02:34:58.007777 30977 net.cpp:409] conv2 -> conv2
I0507 02:34:58.013026 30977 net.cpp:144] Setting up conv2
I0507 02:34:58.013041 30977 net.cpp:151] Top shape: 20 64 10 10 (128000)
I0507 02:34:58.013043 30977 net.cpp:159] Memory required for data: 1544080
I0507 02:34:58.013051 30977 layer_factory.hpp:77] Creating layer relu2
I0507 02:34:58.013057 30977 net.cpp:94] Creating Layer relu2
I0507 02:34:58.013062 30977 net.cpp:435] relu2 <- conv2
I0507 02:34:58.013065 30977 net.cpp:396] relu2 -> conv2 (in-place)
I0507 02:34:58.013072 30977 net.cpp:144] Setting up relu2
I0507 02:34:58.013077 30977 net.cpp:151] Top shape: 20 64 10 10 (128000)
I0507 02:34:58.013079 30977 net.cpp:159] Memory required for data: 2056080
I0507 02:34:58.013082 30977 layer_factory.hpp:77] Creating layer pool2
I0507 02:34:58.013087 30977 net.cpp:94] Creating Layer pool2
I0507 02:34:58.013090 30977 net.cpp:435] pool2 <- conv2
I0507 02:34:58.013094 30977 net.cpp:409] pool2 -> pool2
I0507 02:34:58.013147 30977 net.cpp:144] Setting up pool2
I0507 02:34:58.013154 30977 net.cpp:151] Top shape: 20 64 5 5 (32000)
I0507 02:34:58.013157 30977 net.cpp:159] Memory required for data: 2184080
I0507 02:34:58.013160 30977 layer_factory.hpp:77] Creating layer conv3
I0507 02:34:58.013169 30977 net.cpp:94] Creating Layer conv3
I0507 02:34:58.013171 30977 net.cpp:435] conv3 <- pool2
I0507 02:34:58.013176 30977 net.cpp:409] conv3 -> conv3
I0507 02:34:58.018813 30977 net.cpp:144] Setting up conv3
I0507 02:34:58.018827 30977 net.cpp:151] Top shape: 20 64 5 5 (32000)
I0507 02:34:58.018831 30977 net.cpp:159] Memory required for data: 2312080
I0507 02:34:58.018838 30977 layer_factory.hpp:77] Creating layer relu3
I0507 02:34:58.018844 30977 net.cpp:94] Creating Layer relu3
I0507 02:34:58.018847 30977 net.cpp:435] relu3 <- conv3
I0507 02:34:58.018852 30977 net.cpp:396] relu3 -> conv3 (in-place)
I0507 02:34:58.018858 30977 net.cpp:144] Setting up relu3
I0507 02:34:58.018863 30977 net.cpp:151] Top shape: 20 64 5 5 (32000)
I0507 02:34:58.018872 30977 net.cpp:159] Memory required for data: 2440080
I0507 02:34:58.018875 30977 layer_factory.hpp:77] Creating layer conv4
I0507 02:34:58.018883 30977 net.cpp:94] Creating Layer conv4
I0507 02:34:58.018887 30977 net.cpp:435] conv4 <- conv3
I0507 02:34:58.018892 30977 net.cpp:409] conv4 -> conv4
I0507 02:34:58.023835 30977 net.cpp:144] Setting up conv4
I0507 02:34:58.023849 30977 net.cpp:151] Top shape: 20 64 5 5 (32000)
I0507 02:34:58.023852 30977 net.cpp:159] Memory required for data: 2568080
I0507 02:34:58.023859 30977 layer_factory.hpp:77] Creating layer relu4
I0507 02:34:58.023864 30977 net.cpp:94] Creating Layer relu4
I0507 02:34:58.023867 30977 net.cpp:435] relu4 <- conv4
I0507 02:34:58.023871 30977 net.cpp:396] relu4 -> conv4 (in-place)
I0507 02:34:58.023879 30977 net.cpp:144] Setting up relu4
I0507 02:34:58.023882 30977 net.cpp:151] Top shape: 20 64 5 5 (32000)
I0507 02:34:58.023885 30977 net.cpp:159] Memory required for data: 2696080
I0507 02:34:58.023888 30977 layer_factory.hpp:77] Creating layer conv5
I0507 02:34:58.023895 30977 net.cpp:94] Creating Layer conv5
I0507 02:34:58.023898 30977 net.cpp:435] conv5 <- conv4
I0507 02:34:58.023902 30977 net.cpp:409] conv5 -> conv5
I0507 02:34:58.028256 30977 net.cpp:144] Setting up conv5
I0507 02:34:58.028270 30977 net.cpp:151] Top shape: 20 64 5 5 (32000)
I0507 02:34:58.028273 30977 net.cpp:159] Memory required for data: 2824080
I0507 02:34:58.028280 30977 layer_factory.hpp:77] Creating layer relu5
I0507 02:34:58.028286 30977 net.cpp:94] Creating Layer relu5
I0507 02:34:58.028290 30977 net.cpp:435] relu5 <- conv5
I0507 02:34:58.028295 30977 net.cpp:396] relu5 -> conv5 (in-place)
I0507 02:34:58.028301 30977 net.cpp:144] Setting up relu5
I0507 02:34:58.028304 30977 net.cpp:151] Top shape: 20 64 5 5 (32000)
I0507 02:34:58.028307 30977 net.cpp:159] Memory required for data: 2952080
I0507 02:34:58.028311 30977 layer_factory.hpp:77] Creating layer pool5
I0507 02:34:58.028316 30977 net.cpp:94] Creating Layer pool5
I0507 02:34:58.028318 30977 net.cpp:435] pool5 <- conv5
I0507 02:34:58.028322 30977 net.cpp:409] pool5 -> pool5
I0507 02:34:58.028357 30977 net.cpp:144] Setting up pool5
I0507 02:34:58.028364 30977 net.cpp:151] Top shape: 20 64 2 2 (5120)
I0507 02:34:58.028367 30977 net.cpp:159] Memory required for data: 2972560
I0507 02:34:58.028370 30977 layer_factory.hpp:77] Creating layer ip1
I0507 02:34:58.028378 30977 net.cpp:94] Creating Layer ip1
I0507 02:34:58.028380 30977 net.cpp:435] ip1 <- pool5
I0507 02:34:58.028384 30977 net.cpp:409] ip1 -> ip1
I0507 02:34:58.028909 30977 net.cpp:144] Setting up ip1
I0507 02:34:58.028918 30977 net.cpp:151] Top shape: 20 64 (1280)
I0507 02:34:58.028921 30977 net.cpp:159] Memory required for data: 2977680
I0507 02:34:58.028926 30977 layer_factory.hpp:77] Creating layer ip2
I0507 02:34:58.028933 30977 net.cpp:94] Creating Layer ip2
I0507 02:34:58.028935 30977 net.cpp:435] ip2 <- ip1
I0507 02:34:58.028939 30977 net.cpp:409] ip2 -> ip2
I0507 02:34:58.029157 30977 net.cpp:144] Setting up ip2
I0507 02:34:58.029165 30977 net.cpp:151] Top shape: 20 64 (1280)
I0507 02:34:58.029167 30977 net.cpp:159] Memory required for data: 2982800
I0507 02:34:58.029171 30977 layer_factory.hpp:77] Creating layer ip3
I0507 02:34:58.029177 30977 net.cpp:94] Creating Layer ip3
I0507 02:34:58.029181 30977 net.cpp:435] ip3 <- ip2
I0507 02:34:58.029184 30977 net.cpp:409] ip3 -> ip3
I0507 02:34:58.029376 30977 net.cpp:144] Setting up ip3
I0507 02:34:58.029382 30977 net.cpp:151] Top shape: 20 50 (1000)
I0507 02:34:58.029386 30977 net.cpp:159] Memory required for data: 2986800
I0507 02:34:58.029391 30977 layer_factory.hpp:77] Creating layer loss
I0507 02:34:58.029397 30977 net.cpp:94] Creating Layer loss
I0507 02:34:58.029399 30977 net.cpp:435] loss <- ip3
I0507 02:34:58.029403 30977 net.cpp:435] loss <- label
I0507 02:34:58.029407 30977 net.cpp:409] loss -> loss
I0507 02:34:58.029414 30977 layer_factory.hpp:77] Creating layer loss
…
I0507 02:34:58.030740 30977 solver.cpp:181] Creating test net (#0) specified by net file: ./protocol/dis_50_100_dimension.protocol_distribution
I0507 02:34:58.030764 30977 net.cpp:323] The NetState phase (1) differed from the phase (0) specified by a rule in layer parameters
I0507 02:34:58.030858 30977 net.cpp:52] Initializing net from parameters: 
state {
  phase: TEST
}
layer {
  name: "intercept"
  type: "HDF5Data"
  top: "data"
  top: "label"
  include {
    phase: TEST
  }
  hdf5_data_param {
    source: "/home/purduethu/scratch/radon/d/deng106/CNNStatisticalModel/distributions/input/50_distributions_100_sample_size_test-distributions-path.txt"
    batch_size: 20
  }
}
layer {
  name: "conv1"
  type: "Convolution"
  bottom: "data"
  top: "conv1"
  param {
    lr_mult: 1
  }
  param {
    lr_mult: 2
  }
  convolution_param {
    num_output: 64
    pad: 2
    kernel_size: 5
    stride: 1
    weight_filler {
      type: "gaussian"
      std: 0.0001
    }
    bias_filler {
      type: "constant"
    }
  }
}
layer {
  name: "relu1"
  type: "ReLU"
  bottom: "conv1"
  top: "conv1"
}
layer {
  name: "conv2"
  type: "Convolution"
  bottom: "conv1"
  top: "conv2"
  param {
    lr_mult: 1
  }
  param {
    lr_mult: 2
  }
  convolution_param {
    num_output: 64
    pad: 2
    kernel_size: 5
    stride: 1
    weight_filler {
      type: "gaussian"
      std: 0.01
    }
    bias_filler {
      type: "constant"
    }
  }
}
layer {
  name: "relu2"
  type: "ReLU"
  bottom: "conv2"
  top: "conv2"
}
layer {
  name: "pool2"
  type: "Pooling"
  bottom: "conv2"
  top: "pool2"
  pooling_param {
    pool: MAX
    kernel_size: 3
    stride: 2
  }
}
layer {
  name: "conv3"
  type: "Convolution"
  bottom: "pool2"
  top: "conv3"
  param {
    lr_mult: 1
  }
  param {
    lr_mult: 2
  }
  convolution_param {
    num_output: 64
    pad: 2
    kernel_size: 5
    stride: 1
    weight_filler {
      type: "gaussian"
      std: 0.01
    }
    bias_filler {
      type: "constant"
    }
  }
}
layer {
  name: "relu3"
  type: "ReLU"
  bottom: "conv3"
  top: "conv3"
}
layer {
  name: "conv4"
  type: "Convolution"
  bottom: "conv3"
  top: "conv4"
  param {
    lr_mult: 1
  }
  param {
    lr_mult: 2
  }
  convolution_param {
    num_output: 64
    pad: 2
    kernel_size: 5
    stride: 1
    weight_filler {
      type: "gaussian"
      std: 0.01
    }
    bias_filler {
      type: "constant"
    }
  }
}
layer {
  name: "relu4"
  type: "ReLU"
  bottom: "conv4"
  top: "conv4"
}
layer {
  name: "conv5"
  type: "Convolution"
  bottom: "conv4"
  top: "conv5"
  param {
    lr_mult: 1
  }
  param {
    lr_mult: 2
  }
  convolution_param {
    num_output: 64
    pad: 2
    kernel_size: 5
    stride: 1
    weight_filler {
      type: "gaussian"
      std: 0.01
    }
    bias_filler {
      type: "constant"
    }
  }
}
layer {
  name: "relu5"
  type: "ReLU"
  bottom: "conv5"
  top: "conv5"
}
layer {
  name: "pool5"
  type: "Pooling"
  bottom: "conv5"
  top: "pool5"
  pooling_param {
    pool: AVE
    kernel_size: 3
    stride: 2
  }
}
layer {
  name: "ip1"
  type: "InnerProduct"
  bottom: "pool5"
  top: "ip1"
  param {
    lr_mult: 1
  }
  param {
    lr_mult: 2
  }
  inner_product_param {
    num_output: 64
    weight_filler {
      type: "gaussian"
      std: 0.1
    }
    bias_filler {
      type: "constant"
    }
  }
}
layer {
  name: "ip2"
  type: "InnerProduct"
  bottom: "ip1"
  top: "ip2"
  param {
    lr_mult: 1
  }
  param {
    lr_mult: 2
  }
  inner_product_param {
    num_output: 64
    weight_filler {
      type: "gaussian"
      std: 0.1
    }
    bias_filler {
      type: "constant"
    }
  }
}
layer {
  name: "ip3"
  type: "InnerProduct"
  bottom: "ip2"
  top: "ip3"
  param {
    lr_mult: 1
  }
  param {
    lr_mult: 2
  }
  inner_product_param {
    num_output: 50
    weight_filler {
      type: "gaussian"
      std: 0.1
    }
    bias_filler {
      type: "constant"
    }
  }
}
layer {
  name: "accuracy"
  type: "Accuracy"
  bottom: "ip3"
  bottom: "label"
  top: "accuracy"
  include {
    phase: TEST
  }
}
layer {
  name: "loss"
  type: "SoftmaxWithLoss"
  bottom: "ip3"
  bottom: "label"
  top: "loss"
}
I0507 02:34:58.030922 30977 layer_factory.hpp:77] Creating layer intercept
I0507 02:34:58.030930 30977 net.cpp:94] Creating Layer intercept
I0507 02:34:58.030936 30977 net.cpp:409] intercept -> data
I0507 02:34:58.030941 30977 net.cpp:409] intercept -> label
I0507 02:34:58.030947 30977 hdf5_data_layer.cpp:79] Loading list of HDF5 filenames from: /home/purduethu/scratch/radon/d/deng106/CNNStatisticalModel/distributions/input/50_distributions_100_sample_size_test-distributions-path.txt
I0507 02:34:58.030966 30977 hdf5_data_layer.cpp:93] Number of HDF5 files: 1
I0507 02:34:58.071848 30977 net.cpp:144] Setting up intercept
I0507 02:34:58.071882 30977 net.cpp:151] Top shape: 20 1 10 10 (2000)
I0507 02:34:58.071887 30977 net.cpp:151] Top shape: 20 (20)
I0507 02:34:58.071889 30977 net.cpp:159] Memory required for data: 8080
I0507 02:34:58.071895 30977 layer_factory.hpp:77] Creating layer label_intercept_1_split
I0507 02:34:58.071914 30977 net.cpp:94] Creating Layer label_intercept_1_split
I0507 02:34:58.071918 30977 net.cpp:435] label_intercept_1_split <- label
I0507 02:34:58.071924 30977 net.cpp:409] label_intercept_1_split -> label_intercept_1_split_0
I0507 02:34:58.071933 30977 net.cpp:409] label_intercept_1_split -> label_intercept_1_split_1
I0507 02:34:58.071974 30977 net.cpp:144] Setting up label_intercept_1_split
I0507 02:34:58.071980 30977 net.cpp:151] Top shape: 20 (20)
I0507 02:34:58.071985 30977 net.cpp:151] Top shape: 20 (20)
I0507 02:34:58.071987 30977 net.cpp:159] Memory required for data: 8240
I0507 02:34:58.071990 30977 layer_factory.hpp:77] Creating layer conv1
I0507 02:34:58.072002 30977 net.cpp:94] Creating Layer conv1
I0507 02:34:58.072006 30977 net.cpp:435] conv1 <- data
I0507 02:34:58.072010 30977 net.cpp:409] conv1 -> conv1
I0507 02:34:58.072774 30977 net.cpp:144] Setting up conv1
I0507 02:34:58.072788 30977 net.cpp:151] Top shape: 20 64 10 10 (128000)
I0507 02:34:58.072791 30977 net.cpp:159] Memory required for data: 520240
I0507 02:34:58.072801 30977 layer_factory.hpp:77] Creating layer relu1
I0507 02:34:58.072808 30977 net.cpp:94] Creating Layer relu1
I0507 02:34:58.072811 30977 net.cpp:435] relu1 <- conv1
I0507 02:34:58.072815 30977 net.cpp:396] relu1 -> conv1 (in-place)
I0507 02:34:58.072823 30977 net.cpp:144] Setting up relu1
I0507 02:34:58.072826 30977 net.cpp:151] Top shape: 20 64 10 10 (128000)
I0507 02:34:58.072829 30977 net.cpp:159] Memory required for data: 1032240
I0507 02:34:58.072839 30977 layer_factory.hpp:77] Creating layer conv2
I0507 02:34:58.072849 30977 net.cpp:94] Creating Layer conv2
I0507 02:34:58.072851 30977 net.cpp:435] conv2 <- conv1
I0507 02:34:58.072856 30977 net.cpp:409] conv2 -> conv2
I0507 02:34:58.076879 30977 net.cpp:144] Setting up conv2
I0507 02:34:58.076892 30977 net.cpp:151] Top shape: 20 64 10 10 (128000)
I0507 02:34:58.076896 30977 net.cpp:159] Memory required for data: 1544240
I0507 02:34:58.076903 30977 layer_factory.hpp:77] Creating layer relu2
I0507 02:34:58.076910 30977 net.cpp:94] Creating Layer relu2
I0507 02:34:58.076912 30977 net.cpp:435] relu2 <- conv2
I0507 02:34:58.076917 30977 net.cpp:396] relu2 -> conv2 (in-place)
I0507 02:34:58.076923 30977 net.cpp:144] Setting up relu2
I0507 02:34:58.076927 30977 net.cpp:151] Top shape: 20 64 10 10 (128000)
I0507 02:34:58.076930 30977 net.cpp:159] Memory required for data: 2056240
I0507 02:34:58.076933 30977 layer_factory.hpp:77] Creating layer pool2
I0507 02:34:58.076939 30977 net.cpp:94] Creating Layer pool2
I0507 02:34:58.076942 30977 net.cpp:435] pool2 <- conv2
I0507 02:34:58.076946 30977 net.cpp:409] pool2 -> pool2
I0507 02:34:58.076998 30977 net.cpp:144] Setting up pool2
I0507 02:34:58.077005 30977 net.cpp:151] Top shape: 20 64 5 5 (32000)
I0507 02:34:58.077008 30977 net.cpp:159] Memory required for data: 2184240
I0507 02:34:58.077011 30977 layer_factory.hpp:77] Creating layer conv3
I0507 02:34:58.077019 30977 net.cpp:94] Creating Layer conv3
I0507 02:34:58.077023 30977 net.cpp:435] conv3 <- pool2
I0507 02:34:58.077028 30977 net.cpp:409] conv3 -> conv3
I0507 02:34:58.081310 30977 net.cpp:144] Setting up conv3
I0507 02:34:58.081322 30977 net.cpp:151] Top shape: 20 64 5 5 (32000)
I0507 02:34:58.081326 30977 net.cpp:159] Memory required for data: 2312240
I0507 02:34:58.081334 30977 layer_factory.hpp:77] Creating layer relu3
I0507 02:34:58.081341 30977 net.cpp:94] Creating Layer relu3
I0507 02:34:58.081344 30977 net.cpp:435] relu3 <- conv3
I0507 02:34:58.081348 30977 net.cpp:396] relu3 -> conv3 (in-place)
I0507 02:34:58.081356 30977 net.cpp:144] Setting up relu3
I0507 02:34:58.081359 30977 net.cpp:151] Top shape: 20 64 5 5 (32000)
I0507 02:34:58.081362 30977 net.cpp:159] Memory required for data: 2440240
I0507 02:34:58.081364 30977 layer_factory.hpp:77] Creating layer conv4
I0507 02:34:58.081372 30977 net.cpp:94] Creating Layer conv4
I0507 02:34:58.081375 30977 net.cpp:435] conv4 <- conv3
I0507 02:34:58.081380 30977 net.cpp:409] conv4 -> conv4
I0507 02:34:58.084797 30977 net.cpp:144] Setting up conv4
I0507 02:34:58.084810 30977 net.cpp:151] Top shape: 20 64 5 5 (32000)
I0507 02:34:58.084813 30977 net.cpp:159] Memory required for data: 2568240
I0507 02:34:58.084820 30977 layer_factory.hpp:77] Creating layer relu4
I0507 02:34:58.084825 30977 net.cpp:94] Creating Layer relu4
I0507 02:34:58.084828 30977 net.cpp:435] relu4 <- conv4
I0507 02:34:58.084833 30977 net.cpp:396] relu4 -> conv4 (in-place)
I0507 02:34:58.084839 30977 net.cpp:144] Setting up relu4
I0507 02:34:58.084843 30977 net.cpp:151] Top shape: 20 64 5 5 (32000)
I0507 02:34:58.084846 30977 net.cpp:159] Memory required for data: 2696240
I0507 02:34:58.084849 30977 layer_factory.hpp:77] Creating layer conv5
I0507 02:34:58.084856 30977 net.cpp:94] Creating Layer conv5
I0507 02:34:58.084859 30977 net.cpp:435] conv5 <- conv4
I0507 02:34:58.084864 30977 net.cpp:409] conv5 -> conv5
I0507 02:34:58.088726 30977 net.cpp:144] Setting up conv5
I0507 02:34:58.088738 30977 net.cpp:151] Top shape: 20 64 5 5 (32000)
I0507 02:34:58.088742 30977 net.cpp:159] Memory required for data: 2824240
I0507 02:34:58.088750 30977 layer_factory.hpp:77] Creating layer relu5
I0507 02:34:58.088755 30977 net.cpp:94] Creating Layer relu5
I0507 02:34:58.088759 30977 net.cpp:435] relu5 <- conv5
I0507 02:34:58.088763 30977 net.cpp:396] relu5 -> conv5 (in-place)
I0507 02:34:58.088769 30977 net.cpp:144] Setting up relu5
I0507 02:34:58.088774 30977 net.cpp:151] Top shape: 20 64 5 5 (32000)
I0507 02:34:58.088778 30977 net.cpp:159] Memory required for data: 2952240
I0507 02:34:58.088783 30977 layer_factory.hpp:77] Creating layer pool5
I0507 02:34:58.088788 30977 net.cpp:94] Creating Layer pool5
I0507 02:34:58.088793 30977 net.cpp:435] pool5 <- conv5
I0507 02:34:58.088796 30977 net.cpp:409] pool5 -> pool5
I0507 02:34:58.088832 30977 net.cpp:144] Setting up pool5
I0507 02:34:58.088840 30977 net.cpp:151] Top shape: 20 64 2 2 (5120)
I0507 02:34:58.088842 30977 net.cpp:159] Memory required for data: 2972720
I0507 02:34:58.088845 30977 layer_factory.hpp:77] Creating layer ip1
I0507 02:34:58.088851 30977 net.cpp:94] Creating Layer ip1
I0507 02:34:58.088855 30977 net.cpp:435] ip1 <- pool5
I0507 02:34:58.088860 30977 net.cpp:409] ip1 -> ip1
I0507 02:34:58.089378 30977 net.cpp:144] Setting up ip1
I0507 02:34:58.089386 30977 net.cpp:151] Top shape: 20 64 (1280)
I0507 02:34:58.089390 30977 net.cpp:159] Memory required for data: 2977840
I0507 02:34:58.089395 30977 layer_factory.hpp:77] Creating layer ip2
I0507 02:34:58.089401 30977 net.cpp:94] Creating Layer ip2
I0507 02:34:58.089403 30977 net.cpp:435] ip2 <- ip1
I0507 02:34:58.089408 30977 net.cpp:409] ip2 -> ip2
I0507 02:34:58.089624 30977 net.cpp:144] Setting up ip2
I0507 02:34:58.089630 30977 net.cpp:151] Top shape: 20 64 (1280)
I0507 02:34:58.089633 30977 net.cpp:159] Memory required for data: 2982960
I0507 02:34:58.089638 30977 layer_factory.hpp:77] Creating layer ip3
I0507 02:34:58.089645 30977 net.cpp:94] Creating Layer ip3
I0507 02:34:58.089648 30977 net.cpp:435] ip3 <- ip2
I0507 02:34:58.089653 30977 net.cpp:409] ip3 -> ip3
I0507 02:34:58.089845 30977 net.cpp:144] Setting up ip3
I0507 02:34:58.089851 30977 net.cpp:151] Top shape: 20 50 (1000)
I0507 02:34:58.089854 30977 net.cpp:159] Memory required for data: 2986960
I0507 02:34:58.089859 30977 layer_factory.hpp:77] Creating layer ip3_ip3_0_split
I0507 02:34:58.089864 30977 net.cpp:94] Creating Layer ip3_ip3_0_split
I0507 02:34:58.089866 30977 net.cpp:435] ip3_ip3_0_split <- ip3
I0507 02:34:58.089871 30977 net.cpp:409] ip3_ip3_0_split -> ip3_ip3_0_split_0
I0507 02:34:58.089875 30977 net.cpp:409] ip3_ip3_0_split -> ip3_ip3_0_split_1
I0507 02:34:58.089915 30977 net.cpp:144] Setting up ip3_ip3_0_split
I0507 02:34:58.089920 30977 net.cpp:151] Top shape: 20 50 (1000)
I0507 02:34:58.089923 30977 net.cpp:151] Top shape: 20 50 (1000)
I0507 02:34:58.089926 30977 net.cpp:159] Memory required for data: 2994960
I0507 02:34:58.089928 30977 layer_factory.hpp:77] Creating layer accuracy
I0507 02:34:58.089933 30977 net.cpp:94] Creating Layer accuracy
I0507 02:34:58.089936 30977 net.cpp:435] accuracy <- ip3_ip3_0_split_0
I0507 02:34:58.089941 30977 net.cpp:435] accuracy <- label_intercept_1_split_0
I0507 02:34:58.089944 30977 net.cpp:409] accuracy -> accuracy
…
