…
I0507 01:17:50.621734 30702 net.cpp:323] The NetState phase (0) differed from the phase (1) specified by a rule in layer intercept
I0507 01:17:50.621752 30702 net.cpp:323] The NetState phase (0) differed from the phase (1) specified by a rule in layer loss
I0507 01:17:50.621832 30702 net.cpp:52] Initializing net from parameters: 
state {
  phase: TRAIN
}
layer {
  name: "parameters"
  type: "HDF5Data"
  top: "data"
  top: "label"
  include {
    phase: TRAIN
  }
  hdf5_data_param {
    source: "/home/purduethu/scratch/radon/d/deng106/CNNStatisticalModel/distributions/input/50_distributions_100_sample_size_train-parameters-path.txt"
    batch_size: 20
  }
}
layer {
  name: "conv1"
  type: "Convolution"
  bottom: "data"
  top: "conv1"
  param {
    lr_mult: 1
  }
  param {
    lr_mult: 2
  }
  convolution_param {
    num_output: 64
    pad: 2
    kernel_size: 5
    stride: 1
    weight_filler {
      type: "gaussian"
      std: 0.0001
    }
    bias_filler {
      type: "constant"
    }
  }
}
layer {
  name: "relu1"
  type: "ReLU"
  bottom: "conv1"
  top: "conv1"
}
layer {
  name: "conv2"
  type: "Convolution"
  bottom: "conv1"
  top: "conv2"
  param {
    lr_mult: 1
  }
  param {
    lr_mult: 2
  }
  convolution_param {
    num_output: 64
    pad: 2
    kernel_size: 5
    stride: 1
    weight_filler {
      type: "gaussian"
      std: 0.01
    }
    bias_filler {
      type: "constant"
    }
  }
}
layer {
  name: "relu2"
  type: "ReLU"
  bottom: "conv2"
  top: "conv2"
}
layer {
  name: "pool2"
  type: "Pooling"
  bottom: "conv2"
  top: "pool2"
  pooling_param {
    pool: MAX
    kernel_size: 3
    stride: 2
  }
}
layer {
  name: "conv3"
  type: "Convolution"
  bottom: "pool2"
  top: "conv3"
  param {
    lr_mult: 1
  }
  param {
    lr_mult: 2
  }
  convolution_param {
    num_output: 64
    pad: 2
    kernel_size: 5
    stride: 1
    weight_filler {
      type: "gaussian"
      std: 0.01
    }
    bias_filler {
      type: "constant"
    }
  }
}
layer {
  name: "relu3"
  type: "ReLU"
  bottom: "conv3"
  top: "conv3"
}
layer {
  name: "conv4"
  type: "Convolution"
  bottom: "conv3"
  top: "conv4"
  param {
    lr_mult: 1
  }
  param {
    lr_mult: 2
  }
  convolution_param {
    num_output: 64
    pad: 2
    kernel_size: 5
    stride: 1
    weight_filler {
      type: "gaussian"
      std: 0.01
    }
    bias_filler {
      type: "constant"
    }
  }
}
layer {
  name: "relu4"
  type: "ReLU"
  bottom: "conv4"
  top: "conv4"
}
layer {
  name: "conv5"
  type: "Convolution"
  bottom: "conv4"
  top: "conv5"
  param {
    lr_mult: 1
  }
  param {
    lr_mult: 2
  }
  convolution_param {
    num_output: 64
    pad: 2
    kernel_size: 5
    stride: 1
    weight_filler {
      type: "gaussian"
      std: 0.01
    }
    bias_filler {
      type: "constant"
    }
  }
}
layer {
  name: "relu5"
  type: "ReLU"
  bottom: "conv5"
  top: "conv5"
}
layer {
  name: "pool5"
  type: "Pooling"
  bottom: "conv5"
  top: "pool5"
  pooling_param {
    pool: AVE
    kernel_size: 3
    stride: 2
  }
}
layer {
  name: "ip1"
  type: "InnerProduct"
  bottom: "pool5"
  top: "ip1"
  param {
    lr_mult: 1
  }
  param {
    lr_mult: 2
  }
  inner_product_param {
    num_output: 64
    weight_filler {
      type: "gaussian"
      std: 0.1
    }
    bias_filler {
      type: "constant"
    }
  }
}
layer {
  name: "ip2"
  type: "InnerProduct"
  bottom: "ip1"
  top: "ip2"
  param {
    lr_mult: 1
  }
  param {
    lr_mult: 2
  }
  inner_product_param {
    num_output: 64
    weight_filler {
      type: "gaussian"
      std: 0.1
    }
    bias_filler {
      type: "constant"
    }
  }
}
layer {
  name: "ip3"
  type: "InnerProduct"
  bottom: "ip2"
  top: "ip3"
  param {
    lr_mult: 1
  }
  param {
    lr_mult: 2
  }
  inner_product_param {
    num_output: 1
    weight_filler {
      type: "gaussian"
      std: 0.1
    }
    bias_filler {
      type: "constant"
    }
  }
}
layer {
  name: "loss"
  type: "HuberLoss"
  bottom: "ip3"
  bottom: "label"
  top: "loss"
  include {
    phase: TRAIN
  }
}
I0507 01:17:50.621888 30702 layer_factory.hpp:77] Creating layer parameters
I0507 01:17:50.621901 30702 net.cpp:94] Creating Layer parameters
I0507 01:17:50.621906 30702 net.cpp:409] parameters -> data
I0507 01:17:50.621917 30702 net.cpp:409] parameters -> label
I0507 01:17:50.621922 30702 hdf5_data_layer.cpp:79] Loading list of HDF5 filenames from: /home/purduethu/scratch/radon/d/deng106/CNNStatisticalModel/distributions/input/50_distributions_100_sample_size_train-parameters-path.txt
I0507 01:17:50.621937 30702 hdf5_data_layer.cpp:93] Number of HDF5 files: 1
I0507 01:17:50.622498 30702 hdf5.cpp:32] Datatype class: H5T_FLOAT
I0507 01:17:50.785405 30702 net.cpp:144] Setting up parameters
I0507 01:17:50.785435 30702 net.cpp:151] Top shape: 20 1 10 10 (2000)
I0507 01:17:50.785440 30702 net.cpp:151] Top shape: 20 (20)
I0507 01:17:50.785444 30702 net.cpp:159] Memory required for data: 8080
I0507 01:17:50.785450 30702 layer_factory.hpp:77] Creating layer conv1
I0507 01:17:50.785472 30702 net.cpp:94] Creating Layer conv1
I0507 01:17:50.785476 30702 net.cpp:435] conv1 <- data
I0507 01:17:50.785482 30702 net.cpp:409] conv1 -> conv1
I0507 01:17:50.789584 30702 net.cpp:144] Setting up conv1
I0507 01:17:50.789599 30702 net.cpp:151] Top shape: 20 64 10 10 (128000)
I0507 01:17:50.789603 30702 net.cpp:159] Memory required for data: 520080
I0507 01:17:50.789613 30702 layer_factory.hpp:77] Creating layer relu1
I0507 01:17:50.789620 30702 net.cpp:94] Creating Layer relu1
I0507 01:17:50.789623 30702 net.cpp:435] relu1 <- conv1
I0507 01:17:50.789628 30702 net.cpp:396] relu1 -> conv1 (in-place)
I0507 01:17:50.789643 30702 net.cpp:144] Setting up relu1
I0507 01:17:50.789646 30702 net.cpp:151] Top shape: 20 64 10 10 (128000)
I0507 01:17:50.789649 30702 net.cpp:159] Memory required for data: 1032080
I0507 01:17:50.789652 30702 layer_factory.hpp:77] Creating layer conv2
I0507 01:17:50.789659 30702 net.cpp:94] Creating Layer conv2
I0507 01:17:50.789664 30702 net.cpp:435] conv2 <- conv1
I0507 01:17:50.789667 30702 net.cpp:409] conv2 -> conv2
I0507 01:17:50.795692 30702 net.cpp:144] Setting up conv2
I0507 01:17:50.795706 30702 net.cpp:151] Top shape: 20 64 10 10 (128000)
I0507 01:17:50.795711 30702 net.cpp:159] Memory required for data: 1544080
I0507 01:17:50.795717 30702 layer_factory.hpp:77] Creating layer relu2
I0507 01:17:50.795723 30702 net.cpp:94] Creating Layer relu2
I0507 01:17:50.795727 30702 net.cpp:435] relu2 <- conv2
I0507 01:17:50.795732 30702 net.cpp:396] relu2 -> conv2 (in-place)
I0507 01:17:50.795738 30702 net.cpp:144] Setting up relu2
I0507 01:17:50.795742 30702 net.cpp:151] Top shape: 20 64 10 10 (128000)
I0507 01:17:50.795745 30702 net.cpp:159] Memory required for data: 2056080
I0507 01:17:50.795748 30702 layer_factory.hpp:77] Creating layer pool2
I0507 01:17:50.795754 30702 net.cpp:94] Creating Layer pool2
I0507 01:17:50.795756 30702 net.cpp:435] pool2 <- conv2
I0507 01:17:50.795761 30702 net.cpp:409] pool2 -> pool2
I0507 01:17:50.795810 30702 net.cpp:144] Setting up pool2
I0507 01:17:50.795819 30702 net.cpp:151] Top shape: 20 64 5 5 (32000)
I0507 01:17:50.795821 30702 net.cpp:159] Memory required for data: 2184080
I0507 01:17:50.795825 30702 layer_factory.hpp:77] Creating layer conv3
I0507 01:17:50.795831 30702 net.cpp:94] Creating Layer conv3
I0507 01:17:50.795835 30702 net.cpp:435] conv3 <- pool2
I0507 01:17:50.795846 30702 net.cpp:409] conv3 -> conv3
I0507 01:17:50.800724 30702 net.cpp:144] Setting up conv3
I0507 01:17:50.800742 30702 net.cpp:151] Top shape: 20 64 5 5 (32000)
I0507 01:17:50.800746 30702 net.cpp:159] Memory required for data: 2312080
I0507 01:17:50.800755 30702 layer_factory.hpp:77] Creating layer relu3
I0507 01:17:50.800760 30702 net.cpp:94] Creating Layer relu3
I0507 01:17:50.800763 30702 net.cpp:435] relu3 <- conv3
I0507 01:17:50.800767 30702 net.cpp:396] relu3 -> conv3 (in-place)
I0507 01:17:50.800775 30702 net.cpp:144] Setting up relu3
I0507 01:17:50.800778 30702 net.cpp:151] Top shape: 20 64 5 5 (32000)
I0507 01:17:50.800781 30702 net.cpp:159] Memory required for data: 2440080
I0507 01:17:50.800784 30702 layer_factory.hpp:77] Creating layer conv4
I0507 01:17:50.800792 30702 net.cpp:94] Creating Layer conv4
I0507 01:17:50.800796 30702 net.cpp:435] conv4 <- conv3
I0507 01:17:50.800799 30702 net.cpp:409] conv4 -> conv4
I0507 01:17:50.805219 30702 net.cpp:144] Setting up conv4
I0507 01:17:50.805233 30702 net.cpp:151] Top shape: 20 64 5 5 (32000)
I0507 01:17:50.805235 30702 net.cpp:159] Memory required for data: 2568080
I0507 01:17:50.805241 30702 layer_factory.hpp:77] Creating layer relu4
I0507 01:17:50.805248 30702 net.cpp:94] Creating Layer relu4
I0507 01:17:50.805250 30702 net.cpp:435] relu4 <- conv4
I0507 01:17:50.805255 30702 net.cpp:396] relu4 -> conv4 (in-place)
I0507 01:17:50.805261 30702 net.cpp:144] Setting up relu4
I0507 01:17:50.805265 30702 net.cpp:151] Top shape: 20 64 5 5 (32000)
I0507 01:17:50.805269 30702 net.cpp:159] Memory required for data: 2696080
I0507 01:17:50.805271 30702 layer_factory.hpp:77] Creating layer conv5
I0507 01:17:50.805279 30702 net.cpp:94] Creating Layer conv5
I0507 01:17:50.805282 30702 net.cpp:435] conv5 <- conv4
I0507 01:17:50.805286 30702 net.cpp:409] conv5 -> conv5
I0507 01:17:50.810125 30702 net.cpp:144] Setting up conv5
I0507 01:17:50.810139 30702 net.cpp:151] Top shape: 20 64 5 5 (32000)
I0507 01:17:50.810142 30702 net.cpp:159] Memory required for data: 2824080
I0507 01:17:50.810151 30702 layer_factory.hpp:77] Creating layer relu5
I0507 01:17:50.810158 30702 net.cpp:94] Creating Layer relu5
I0507 01:17:50.810160 30702 net.cpp:435] relu5 <- conv5
I0507 01:17:50.810164 30702 net.cpp:396] relu5 -> conv5 (in-place)
I0507 01:17:50.810171 30702 net.cpp:144] Setting up relu5
I0507 01:17:50.810175 30702 net.cpp:151] Top shape: 20 64 5 5 (32000)
I0507 01:17:50.810178 30702 net.cpp:159] Memory required for data: 2952080
I0507 01:17:50.810181 30702 layer_factory.hpp:77] Creating layer pool5
I0507 01:17:50.810185 30702 net.cpp:94] Creating Layer pool5
I0507 01:17:50.810189 30702 net.cpp:435] pool5 <- conv5
I0507 01:17:50.810192 30702 net.cpp:409] pool5 -> pool5
I0507 01:17:50.810230 30702 net.cpp:144] Setting up pool5
I0507 01:17:50.810236 30702 net.cpp:151] Top shape: 20 64 2 2 (5120)
I0507 01:17:50.810240 30702 net.cpp:159] Memory required for data: 2972560
I0507 01:17:50.810242 30702 layer_factory.hpp:77] Creating layer ip1
I0507 01:17:50.810251 30702 net.cpp:94] Creating Layer ip1
I0507 01:17:50.810256 30702 net.cpp:435] ip1 <- pool5
I0507 01:17:50.810259 30702 net.cpp:409] ip1 -> ip1
I0507 01:17:50.811561 30702 net.cpp:144] Setting up ip1
I0507 01:17:50.811573 30702 net.cpp:151] Top shape: 20 64 (1280)
I0507 01:17:50.811578 30702 net.cpp:159] Memory required for data: 2977680
I0507 01:17:50.811583 30702 layer_factory.hpp:77] Creating layer ip2
I0507 01:17:50.811589 30702 net.cpp:94] Creating Layer ip2
I0507 01:17:50.811594 30702 net.cpp:435] ip2 <- ip1
I0507 01:17:50.811599 30702 net.cpp:409] ip2 -> ip2
I0507 01:17:50.811802 30702 net.cpp:144] Setting up ip2
I0507 01:17:50.811810 30702 net.cpp:151] Top shape: 20 64 (1280)
I0507 01:17:50.811812 30702 net.cpp:159] Memory required for data: 2982800
I0507 01:17:50.811817 30702 layer_factory.hpp:77] Creating layer ip3
I0507 01:17:50.811823 30702 net.cpp:94] Creating Layer ip3
I0507 01:17:50.811826 30702 net.cpp:435] ip3 <- ip2
I0507 01:17:50.811831 30702 net.cpp:409] ip3 -> ip3
I0507 01:17:50.811936 30702 net.cpp:144] Setting up ip3
I0507 01:17:50.811944 30702 net.cpp:151] Top shape: 20 1 (20)
I0507 01:17:50.811946 30702 net.cpp:159] Memory required for data: 2982880
I0507 01:17:50.811951 30702 layer_factory.hpp:77] Creating layer loss
I0507 01:17:50.811959 30702 net.cpp:94] Creating Layer loss
I0507 01:17:50.811961 30702 net.cpp:435] loss <- ip3
I0507 01:17:50.811965 30702 net.cpp:435] loss <- label
I0507 01:17:50.811969 30702 net.cpp:409] loss -> loss
I0507 01:17:50.812017 30702 net.cpp:144] Setting up loss
…
I0507 01:17:50.872895 30702 net.cpp:323] The NetState phase (0) differed from the phase (1) specified by a rule in layer intercept
I0507 01:17:50.872910 30702 net.cpp:323] The NetState phase (0) differed from the phase (1) specified by a rule in layer accuracy
I0507 01:17:50.872997 30702 net.cpp:52] Initializing net from parameters: 
state {
  phase: TRAIN
}
layer {
  name: "parameters"
  type: "HDF5Data"
  top: "data"
  top: "label"
  include {
    phase: TRAIN
  }
  hdf5_data_param {
    source: "/home/purduethu/scratch/radon/d/deng106/CNNStatisticalModel/distributions/input/50_distributions_100_sample_size_train-distributions-path.txt"
    batch_size: 20
  }
}
layer {
  name: "conv1"
  type: "Convolution"
  bottom: "data"
  top: "conv1"
  param {
    lr_mult: 1
  }
  param {
    lr_mult: 2
  }
  convolution_param {
    num_output: 64
    pad: 2
    kernel_size: 5
    stride: 1
    weight_filler {
      type: "gaussian"
      std: 0.0001
    }
    bias_filler {
      type: "constant"
    }
  }
}
layer {
  name: "relu1"
  type: "ReLU"
  bottom: "conv1"
  top: "conv1"
}
layer {
  name: "conv2"
  type: "Convolution"
  bottom: "conv1"
  top: "conv2"
  param {
    lr_mult: 1
  }
  param {
    lr_mult: 2
  }
  convolution_param {
    num_output: 64
    pad: 2
    kernel_size: 5
    stride: 1
    weight_filler {
      type: "gaussian"
      std: 0.01
    }
    bias_filler {
      type: "constant"
    }
  }
}
layer {
  name: "relu2"
  type: "ReLU"
  bottom: "conv2"
  top: "conv2"
}
layer {
  name: "pool2"
  type: "Pooling"
  bottom: "conv2"
  top: "pool2"
  pooling_param {
    pool: MAX
    kernel_size: 3
    stride: 2
  }
}
layer {
  name: "conv3"
  type: "Convolution"
  bottom: "pool2"
  top: "conv3"
  param {
    lr_mult: 1
  }
  param {
    lr_mult: 2
  }
  convolution_param {
    num_output: 64
    pad: 2
    kernel_size: 5
    stride: 1
    weight_filler {
      type: "gaussian"
      std: 0.01
    }
    bias_filler {
      type: "constant"
    }
  }
}
layer {
  name: "relu3"
  type: "ReLU"
  bottom: "conv3"
  top: "conv3"
}
layer {
  name: "conv4"
  type: "Convolution"
  bottom: "conv3"
  top: "conv4"
  param {
    lr_mult: 1
  }
  param {
    lr_mult: 2
  }
  convolution_param {
    num_output: 64
    pad: 2
    kernel_size: 5
    stride: 1
    weight_filler {
      type: "gaussian"
      std: 0.01
    }
    bias_filler {
      type: "constant"
    }
  }
}
layer {
  name: "relu4"
  type: "ReLU"
  bottom: "conv4"
  top: "conv4"
}
layer {
  name: "conv5"
  type: "Convolution"
  bottom: "conv4"
  top: "conv5"
  param {
    lr_mult: 1
  }
  param {
    lr_mult: 2
  }
  convolution_param {
    num_output: 64
    pad: 2
    kernel_size: 5
    stride: 1
    weight_filler {
      type: "gaussian"
      std: 0.01
    }
    bias_filler {
      type: "constant"
    }
  }
}
layer {
  name: "relu5"
  type: "ReLU"
  bottom: "conv5"
  top: "conv5"
}
layer {
  name: "pool5"
  type: "Pooling"
  bottom: "conv5"
  top: "pool5"
  pooling_param {
    pool: AVE
    kernel_size: 3
    stride: 2
  }
}
layer {
  name: "ip1"
  type: "InnerProduct"
  bottom: "pool5"
  top: "ip1"
  param {
    lr_mult: 1
  }
  param {
    lr_mult: 2
  }
  inner_product_param {
    num_output: 64
    weight_filler {
      type: "gaussian"
      std: 0.1
    }
    bias_filler {
      type: "constant"
    }
  }
}
layer {
  name: "ip2"
  type: "InnerProduct"
  bottom: "ip1"
  top: "ip2"
  param {
    lr_mult: 1
  }
  param {
    lr_mult: 2
  }
  inner_product_param {
    num_output: 64
    weight_filler {
      type: "gaussian"
      std: 0.1
    }
    bias_filler {
      type: "constant"
    }
  }
}
layer {
  name: "ip3"
  type: "InnerProduct"
  bottom: "ip2"
  top: "ip3"
  param {
    lr_mult: 1
  }
  param {
    lr_mult: 2
  }
  inner_product_param {
    num_output: 50
    weight_filler {
      type: "gaussian"
      std: 0.1
    }
    bias_filler {
      type: "constant"
    }
  }
}
layer {
  name: "loss"
  type: "SoftmaxWithLoss"
  bottom: "ip3"
  bottom: "label"
  top: "loss"
}
I0507 01:17:50.873047 30702 layer_factory.hpp:77] Creating layer parameters
I0507 01:17:50.873055 30702 net.cpp:94] Creating Layer parameters
I0507 01:17:50.873059 30702 net.cpp:409] parameters -> data
I0507 01:17:50.873064 30702 net.cpp:409] parameters -> label
I0507 01:17:50.873070 30702 hdf5_data_layer.cpp:79] Loading list of HDF5 filenames from: /home/purduethu/scratch/radon/d/deng106/CNNStatisticalModel/distributions/input/50_distributions_100_sample_size_train-distributions-path.txt
I0507 01:17:50.873086 30702 hdf5_data_layer.cpp:93] Number of HDF5 files: 1
I0507 01:17:51.028301 30702 hdf5.cpp:35] Datatype class: H5T_INTEGER
I0507 01:17:51.031317 30702 net.cpp:144] Setting up parameters
I0507 01:17:51.031335 30702 net.cpp:151] Top shape: 20 1 10 10 (2000)
I0507 01:17:51.031340 30702 net.cpp:151] Top shape: 20 (20)
I0507 01:17:51.031343 30702 net.cpp:159] Memory required for data: 8080
I0507 01:17:51.031349 30702 layer_factory.hpp:77] Creating layer conv1
I0507 01:17:51.031365 30702 net.cpp:94] Creating Layer conv1
I0507 01:17:51.031369 30702 net.cpp:435] conv1 <- data
I0507 01:17:51.031375 30702 net.cpp:409] conv1 -> conv1
I0507 01:17:51.033188 30702 net.cpp:144] Setting up conv1
I0507 01:17:51.033202 30702 net.cpp:151] Top shape: 20 64 10 10 (128000)
I0507 01:17:51.033206 30702 net.cpp:159] Memory required for data: 520080
I0507 01:17:51.033216 30702 layer_factory.hpp:77] Creating layer relu1
I0507 01:17:51.033223 30702 net.cpp:94] Creating Layer relu1
I0507 01:17:51.033226 30702 net.cpp:435] relu1 <- conv1
I0507 01:17:51.033231 30702 net.cpp:396] relu1 -> conv1 (in-place)
I0507 01:17:51.033238 30702 net.cpp:144] Setting up relu1
I0507 01:17:51.033242 30702 net.cpp:151] Top shape: 20 64 10 10 (128000)
I0507 01:17:51.033244 30702 net.cpp:159] Memory required for data: 1032080
I0507 01:17:51.033247 30702 layer_factory.hpp:77] Creating layer conv2
I0507 01:17:51.033254 30702 net.cpp:94] Creating Layer conv2
I0507 01:17:51.033257 30702 net.cpp:435] conv2 <- conv1
I0507 01:17:51.033262 30702 net.cpp:409] conv2 -> conv2
I0507 01:17:51.038569 30702 net.cpp:144] Setting up conv2
I0507 01:17:51.038583 30702 net.cpp:151] Top shape: 20 64 10 10 (128000)
I0507 01:17:51.038586 30702 net.cpp:159] Memory required for data: 1544080
I0507 01:17:51.038594 30702 layer_factory.hpp:77] Creating layer relu2
I0507 01:17:51.038601 30702 net.cpp:94] Creating Layer relu2
I0507 01:17:51.038604 30702 net.cpp:435] relu2 <- conv2
I0507 01:17:51.038609 30702 net.cpp:396] relu2 -> conv2 (in-place)
I0507 01:17:51.038615 30702 net.cpp:144] Setting up relu2
I0507 01:17:51.038619 30702 net.cpp:151] Top shape: 20 64 10 10 (128000)
I0507 01:17:51.038622 30702 net.cpp:159] Memory required for data: 2056080
I0507 01:17:51.038625 30702 layer_factory.hpp:77] Creating layer pool2
I0507 01:17:51.038630 30702 net.cpp:94] Creating Layer pool2
I0507 01:17:51.038633 30702 net.cpp:435] pool2 <- conv2
I0507 01:17:51.038637 30702 net.cpp:409] pool2 -> pool2
I0507 01:17:51.038687 30702 net.cpp:144] Setting up pool2
I0507 01:17:51.038694 30702 net.cpp:151] Top shape: 20 64 5 5 (32000)
I0507 01:17:51.038697 30702 net.cpp:159] Memory required for data: 2184080
I0507 01:17:51.038700 30702 layer_factory.hpp:77] Creating layer conv3
I0507 01:17:51.038708 30702 net.cpp:94] Creating Layer conv3
I0507 01:17:51.038712 30702 net.cpp:435] conv3 <- pool2
I0507 01:17:51.038715 30702 net.cpp:409] conv3 -> conv3
I0507 01:17:51.044409 30702 net.cpp:144] Setting up conv3
I0507 01:17:51.044421 30702 net.cpp:151] Top shape: 20 64 5 5 (32000)
I0507 01:17:51.044425 30702 net.cpp:159] Memory required for data: 2312080
I0507 01:17:51.044433 30702 layer_factory.hpp:77] Creating layer relu3
I0507 01:17:51.044440 30702 net.cpp:94] Creating Layer relu3
I0507 01:17:51.044442 30702 net.cpp:435] relu3 <- conv3
I0507 01:17:51.044447 30702 net.cpp:396] relu3 -> conv3 (in-place)
I0507 01:17:51.044453 30702 net.cpp:144] Setting up relu3
I0507 01:17:51.044457 30702 net.cpp:151] Top shape: 20 64 5 5 (32000)
I0507 01:17:51.044466 30702 net.cpp:159] Memory required for data: 2440080
I0507 01:17:51.044469 30702 layer_factory.hpp:77] Creating layer conv4
I0507 01:17:51.044477 30702 net.cpp:94] Creating Layer conv4
I0507 01:17:51.044481 30702 net.cpp:435] conv4 <- conv3
I0507 01:17:51.044486 30702 net.cpp:409] conv4 -> conv4
I0507 01:17:51.049382 30702 net.cpp:144] Setting up conv4
I0507 01:17:51.049396 30702 net.cpp:151] Top shape: 20 64 5 5 (32000)
I0507 01:17:51.049399 30702 net.cpp:159] Memory required for data: 2568080
I0507 01:17:51.049407 30702 layer_factory.hpp:77] Creating layer relu4
I0507 01:17:51.049412 30702 net.cpp:94] Creating Layer relu4
I0507 01:17:51.049414 30702 net.cpp:435] relu4 <- conv4
I0507 01:17:51.049419 30702 net.cpp:396] relu4 -> conv4 (in-place)
I0507 01:17:51.049425 30702 net.cpp:144] Setting up relu4
I0507 01:17:51.049429 30702 net.cpp:151] Top shape: 20 64 5 5 (32000)
I0507 01:17:51.049432 30702 net.cpp:159] Memory required for data: 2696080
I0507 01:17:51.049435 30702 layer_factory.hpp:77] Creating layer conv5
I0507 01:17:51.049443 30702 net.cpp:94] Creating Layer conv5
I0507 01:17:51.049445 30702 net.cpp:435] conv5 <- conv4
I0507 01:17:51.049450 30702 net.cpp:409] conv5 -> conv5
I0507 01:17:51.053879 30702 net.cpp:144] Setting up conv5
I0507 01:17:51.053892 30702 net.cpp:151] Top shape: 20 64 5 5 (32000)
I0507 01:17:51.053896 30702 net.cpp:159] Memory required for data: 2824080
I0507 01:17:51.053905 30702 layer_factory.hpp:77] Creating layer relu5
I0507 01:17:51.053910 30702 net.cpp:94] Creating Layer relu5
I0507 01:17:51.053913 30702 net.cpp:435] relu5 <- conv5
I0507 01:17:51.053917 30702 net.cpp:396] relu5 -> conv5 (in-place)
I0507 01:17:51.053925 30702 net.cpp:144] Setting up relu5
I0507 01:17:51.053928 30702 net.cpp:151] Top shape: 20 64 5 5 (32000)
I0507 01:17:51.053931 30702 net.cpp:159] Memory required for data: 2952080
I0507 01:17:51.053935 30702 layer_factory.hpp:77] Creating layer pool5
I0507 01:17:51.053939 30702 net.cpp:94] Creating Layer pool5
I0507 01:17:51.053942 30702 net.cpp:435] pool5 <- conv5
I0507 01:17:51.053946 30702 net.cpp:409] pool5 -> pool5
I0507 01:17:51.053980 30702 net.cpp:144] Setting up pool5
I0507 01:17:51.053987 30702 net.cpp:151] Top shape: 20 64 2 2 (5120)
I0507 01:17:51.053990 30702 net.cpp:159] Memory required for data: 2972560
I0507 01:17:51.053993 30702 layer_factory.hpp:77] Creating layer ip1
I0507 01:17:51.053999 30702 net.cpp:94] Creating Layer ip1
I0507 01:17:51.054003 30702 net.cpp:435] ip1 <- pool5
I0507 01:17:51.054008 30702 net.cpp:409] ip1 -> ip1
I0507 01:17:51.054515 30702 net.cpp:144] Setting up ip1
I0507 01:17:51.054523 30702 net.cpp:151] Top shape: 20 64 (1280)
I0507 01:17:51.054527 30702 net.cpp:159] Memory required for data: 2977680
I0507 01:17:51.054532 30702 layer_factory.hpp:77] Creating layer ip2
I0507 01:17:51.054538 30702 net.cpp:94] Creating Layer ip2
I0507 01:17:51.054540 30702 net.cpp:435] ip2 <- ip1
I0507 01:17:51.054544 30702 net.cpp:409] ip2 -> ip2
I0507 01:17:51.054757 30702 net.cpp:144] Setting up ip2
I0507 01:17:51.054764 30702 net.cpp:151] Top shape: 20 64 (1280)
I0507 01:17:51.054767 30702 net.cpp:159] Memory required for data: 2982800
I0507 01:17:51.054772 30702 layer_factory.hpp:77] Creating layer ip3
I0507 01:17:51.054777 30702 net.cpp:94] Creating Layer ip3
I0507 01:17:51.054780 30702 net.cpp:435] ip3 <- ip2
I0507 01:17:51.054785 30702 net.cpp:409] ip3 -> ip3
I0507 01:17:51.054972 30702 net.cpp:144] Setting up ip3
I0507 01:17:51.054980 30702 net.cpp:151] Top shape: 20 50 (1000)
I0507 01:17:51.054982 30702 net.cpp:159] Memory required for data: 2986800
I0507 01:17:51.054987 30702 layer_factory.hpp:77] Creating layer loss
I0507 01:17:51.054993 30702 net.cpp:94] Creating Layer loss
I0507 01:17:51.054996 30702 net.cpp:435] loss <- ip3
I0507 01:17:51.055001 30702 net.cpp:435] loss <- label
I0507 01:17:51.055004 30702 net.cpp:409] loss -> loss
I0507 01:17:51.055011 30702 layer_factory.hpp:77] Creating layer loss
…
I0507 01:17:51.056329 30702 solver.cpp:181] Creating test net (#0) specified by net file: ./protocol/dis_50_100_dimension.protocol_distribution
I0507 01:17:51.056354 30702 net.cpp:323] The NetState phase (1) differed from the phase (0) specified by a rule in layer parameters
I0507 01:17:51.056447 30702 net.cpp:52] Initializing net from parameters: 
state {
  phase: TEST
}
layer {
  name: "intercept"
  type: "HDF5Data"
  top: "data"
  top: "label"
  include {
    phase: TEST
  }
  hdf5_data_param {
    source: "/home/purduethu/scratch/radon/d/deng106/CNNStatisticalModel/distributions/input/50_distributions_100_sample_size_test-distributions-path.txt"
    batch_size: 20
  }
}
layer {
  name: "conv1"
  type: "Convolution"
  bottom: "data"
  top: "conv1"
  param {
    lr_mult: 1
  }
  param {
    lr_mult: 2
  }
  convolution_param {
    num_output: 64
    pad: 2
    kernel_size: 5
    stride: 1
    weight_filler {
      type: "gaussian"
      std: 0.0001
    }
    bias_filler {
      type: "constant"
    }
  }
}
layer {
  name: "relu1"
  type: "ReLU"
  bottom: "conv1"
  top: "conv1"
}
layer {
  name: "conv2"
  type: "Convolution"
  bottom: "conv1"
  top: "conv2"
  param {
    lr_mult: 1
  }
  param {
    lr_mult: 2
  }
  convolution_param {
    num_output: 64
    pad: 2
    kernel_size: 5
    stride: 1
    weight_filler {
      type: "gaussian"
      std: 0.01
    }
    bias_filler {
      type: "constant"
    }
  }
}
layer {
  name: "relu2"
  type: "ReLU"
  bottom: "conv2"
  top: "conv2"
}
layer {
  name: "pool2"
  type: "Pooling"
  bottom: "conv2"
  top: "pool2"
  pooling_param {
    pool: MAX
    kernel_size: 3
    stride: 2
  }
}
layer {
  name: "conv3"
  type: "Convolution"
  bottom: "pool2"
  top: "conv3"
  param {
    lr_mult: 1
  }
  param {
    lr_mult: 2
  }
  convolution_param {
    num_output: 64
    pad: 2
    kernel_size: 5
    stride: 1
    weight_filler {
      type: "gaussian"
      std: 0.01
    }
    bias_filler {
      type: "constant"
    }
  }
}
layer {
  name: "relu3"
  type: "ReLU"
  bottom: "conv3"
  top: "conv3"
}
layer {
  name: "conv4"
  type: "Convolution"
  bottom: "conv3"
  top: "conv4"
  param {
    lr_mult: 1
  }
  param {
    lr_mult: 2
  }
  convolution_param {
    num_output: 64
    pad: 2
    kernel_size: 5
    stride: 1
    weight_filler {
      type: "gaussian"
      std: 0.01
    }
    bias_filler {
      type: "constant"
    }
  }
}
layer {
  name: "relu4"
  type: "ReLU"
  bottom: "conv4"
  top: "conv4"
}
layer {
  name: "conv5"
  type: "Convolution"
  bottom: "conv4"
  top: "conv5"
  param {
    lr_mult: 1
  }
  param {
    lr_mult: 2
  }
  convolution_param {
    num_output: 64
    pad: 2
    kernel_size: 5
    stride: 1
    weight_filler {
      type: "gaussian"
      std: 0.01
    }
    bias_filler {
      type: "constant"
    }
  }
}
layer {
  name: "relu5"
  type: "ReLU"
  bottom: "conv5"
  top: "conv5"
}
layer {
  name: "pool5"
  type: "Pooling"
  bottom: "conv5"
  top: "pool5"
  pooling_param {
    pool: AVE
    kernel_size: 3
    stride: 2
  }
}
layer {
  name: "ip1"
  type: "InnerProduct"
  bottom: "pool5"
  top: "ip1"
  param {
    lr_mult: 1
  }
  param {
    lr_mult: 2
  }
  inner_product_param {
    num_output: 64
    weight_filler {
      type: "gaussian"
      std: 0.1
    }
    bias_filler {
      type: "constant"
    }
  }
}
layer {
  name: "ip2"
  type: "InnerProduct"
  bottom: "ip1"
  top: "ip2"
  param {
    lr_mult: 1
  }
  param {
    lr_mult: 2
  }
  inner_product_param {
    num_output: 64
    weight_filler {
      type: "gaussian"
      std: 0.1
    }
    bias_filler {
      type: "constant"
    }
  }
}
layer {
  name: "ip3"
  type: "InnerProduct"
  bottom: "ip2"
  top: "ip3"
  param {
    lr_mult: 1
  }
  param {
    lr_mult: 2
  }
  inner_product_param {
    num_output: 50
    weight_filler {
      type: "gaussian"
      std: 0.1
    }
    bias_filler {
      type: "constant"
    }
  }
}
layer {
  name: "accuracy"
  type: "Accuracy"
  bottom: "ip3"
  bottom: "label"
  top: "accuracy"
  include {
    phase: TEST
  }
}
layer {
  name: "loss"
  type: "SoftmaxWithLoss"
  bottom: "ip3"
  bottom: "label"
  top: "loss"
}
I0507 01:17:51.056512 30702 layer_factory.hpp:77] Creating layer intercept
I0507 01:17:51.056521 30702 net.cpp:94] Creating Layer intercept
I0507 01:17:51.056525 30702 net.cpp:409] intercept -> data
I0507 01:17:51.056531 30702 net.cpp:409] intercept -> label
I0507 01:17:51.056537 30702 hdf5_data_layer.cpp:79] Loading list of HDF5 filenames from: /home/purduethu/scratch/radon/d/deng106/CNNStatisticalModel/distributions/input/50_distributions_100_sample_size_test-distributions-path.txt
I0507 01:17:51.056565 30702 hdf5_data_layer.cpp:93] Number of HDF5 files: 1
I0507 01:17:51.097818 30702 net.cpp:144] Setting up intercept
I0507 01:17:51.097853 30702 net.cpp:151] Top shape: 20 1 10 10 (2000)
I0507 01:17:51.097858 30702 net.cpp:151] Top shape: 20 (20)
I0507 01:17:51.097862 30702 net.cpp:159] Memory required for data: 8080
I0507 01:17:51.097867 30702 layer_factory.hpp:77] Creating layer label_intercept_1_split
I0507 01:17:51.097887 30702 net.cpp:94] Creating Layer label_intercept_1_split
I0507 01:17:51.097890 30702 net.cpp:435] label_intercept_1_split <- label
I0507 01:17:51.097896 30702 net.cpp:409] label_intercept_1_split -> label_intercept_1_split_0
I0507 01:17:51.097904 30702 net.cpp:409] label_intercept_1_split -> label_intercept_1_split_1
I0507 01:17:51.097945 30702 net.cpp:144] Setting up label_intercept_1_split
I0507 01:17:51.097951 30702 net.cpp:151] Top shape: 20 (20)
I0507 01:17:51.097955 30702 net.cpp:151] Top shape: 20 (20)
I0507 01:17:51.097959 30702 net.cpp:159] Memory required for data: 8240
I0507 01:17:51.097961 30702 layer_factory.hpp:77] Creating layer conv1
I0507 01:17:51.097972 30702 net.cpp:94] Creating Layer conv1
I0507 01:17:51.097976 30702 net.cpp:435] conv1 <- data
I0507 01:17:51.097980 30702 net.cpp:409] conv1 -> conv1
I0507 01:17:51.098762 30702 net.cpp:144] Setting up conv1
I0507 01:17:51.098776 30702 net.cpp:151] Top shape: 20 64 10 10 (128000)
I0507 01:17:51.098779 30702 net.cpp:159] Memory required for data: 520240
I0507 01:17:51.098789 30702 layer_factory.hpp:77] Creating layer relu1
I0507 01:17:51.098795 30702 net.cpp:94] Creating Layer relu1
I0507 01:17:51.098798 30702 net.cpp:435] relu1 <- conv1
I0507 01:17:51.098803 30702 net.cpp:396] relu1 -> conv1 (in-place)
I0507 01:17:51.098809 30702 net.cpp:144] Setting up relu1
I0507 01:17:51.098814 30702 net.cpp:151] Top shape: 20 64 10 10 (128000)
I0507 01:17:51.098816 30702 net.cpp:159] Memory required for data: 1032240
I0507 01:17:51.098826 30702 layer_factory.hpp:77] Creating layer conv2
I0507 01:17:51.098834 30702 net.cpp:94] Creating Layer conv2
I0507 01:17:51.098839 30702 net.cpp:435] conv2 <- conv1
I0507 01:17:51.098842 30702 net.cpp:409] conv2 -> conv2
I0507 01:17:51.102905 30702 net.cpp:144] Setting up conv2
I0507 01:17:51.102917 30702 net.cpp:151] Top shape: 20 64 10 10 (128000)
I0507 01:17:51.102921 30702 net.cpp:159] Memory required for data: 1544240
I0507 01:17:51.102929 30702 layer_factory.hpp:77] Creating layer relu2
I0507 01:17:51.102934 30702 net.cpp:94] Creating Layer relu2
I0507 01:17:51.102938 30702 net.cpp:435] relu2 <- conv2
I0507 01:17:51.102944 30702 net.cpp:396] relu2 -> conv2 (in-place)
I0507 01:17:51.102951 30702 net.cpp:144] Setting up relu2
I0507 01:17:51.102954 30702 net.cpp:151] Top shape: 20 64 10 10 (128000)
I0507 01:17:51.102957 30702 net.cpp:159] Memory required for data: 2056240
I0507 01:17:51.102960 30702 layer_factory.hpp:77] Creating layer pool2
I0507 01:17:51.102967 30702 net.cpp:94] Creating Layer pool2
I0507 01:17:51.102968 30702 net.cpp:435] pool2 <- conv2
I0507 01:17:51.102972 30702 net.cpp:409] pool2 -> pool2
I0507 01:17:51.103025 30702 net.cpp:144] Setting up pool2
I0507 01:17:51.103031 30702 net.cpp:151] Top shape: 20 64 5 5 (32000)
I0507 01:17:51.103034 30702 net.cpp:159] Memory required for data: 2184240
I0507 01:17:51.103037 30702 layer_factory.hpp:77] Creating layer conv3
I0507 01:17:51.103046 30702 net.cpp:94] Creating Layer conv3
I0507 01:17:51.103049 30702 net.cpp:435] conv3 <- pool2
I0507 01:17:51.103055 30702 net.cpp:409] conv3 -> conv3
I0507 01:17:51.107450 30702 net.cpp:144] Setting up conv3
I0507 01:17:51.107463 30702 net.cpp:151] Top shape: 20 64 5 5 (32000)
I0507 01:17:51.107466 30702 net.cpp:159] Memory required for data: 2312240
I0507 01:17:51.107475 30702 layer_factory.hpp:77] Creating layer relu3
I0507 01:17:51.107482 30702 net.cpp:94] Creating Layer relu3
I0507 01:17:51.107486 30702 net.cpp:435] relu3 <- conv3
I0507 01:17:51.107491 30702 net.cpp:396] relu3 -> conv3 (in-place)
I0507 01:17:51.107497 30702 net.cpp:144] Setting up relu3
I0507 01:17:51.107502 30702 net.cpp:151] Top shape: 20 64 5 5 (32000)
I0507 01:17:51.107504 30702 net.cpp:159] Memory required for data: 2440240
I0507 01:17:51.107507 30702 layer_factory.hpp:77] Creating layer conv4
I0507 01:17:51.107516 30702 net.cpp:94] Creating Layer conv4
I0507 01:17:51.107518 30702 net.cpp:435] conv4 <- conv3
I0507 01:17:51.107524 30702 net.cpp:409] conv4 -> conv4
I0507 01:17:51.111076 30702 net.cpp:144] Setting up conv4
I0507 01:17:51.111089 30702 net.cpp:151] Top shape: 20 64 5 5 (32000)
I0507 01:17:51.111093 30702 net.cpp:159] Memory required for data: 2568240
I0507 01:17:51.111099 30702 layer_factory.hpp:77] Creating layer relu4
I0507 01:17:51.111104 30702 net.cpp:94] Creating Layer relu4
I0507 01:17:51.111107 30702 net.cpp:435] relu4 <- conv4
I0507 01:17:51.111112 30702 net.cpp:396] relu4 -> conv4 (in-place)
I0507 01:17:51.111119 30702 net.cpp:144] Setting up relu4
I0507 01:17:51.111124 30702 net.cpp:151] Top shape: 20 64 5 5 (32000)
I0507 01:17:51.111126 30702 net.cpp:159] Memory required for data: 2696240
I0507 01:17:51.111129 30702 layer_factory.hpp:77] Creating layer conv5
I0507 01:17:51.111137 30702 net.cpp:94] Creating Layer conv5
I0507 01:17:51.111140 30702 net.cpp:435] conv5 <- conv4
I0507 01:17:51.111145 30702 net.cpp:409] conv5 -> conv5
I0507 01:17:51.115118 30702 net.cpp:144] Setting up conv5
I0507 01:17:51.115131 30702 net.cpp:151] Top shape: 20 64 5 5 (32000)
I0507 01:17:51.115135 30702 net.cpp:159] Memory required for data: 2824240
I0507 01:17:51.115144 30702 layer_factory.hpp:77] Creating layer relu5
I0507 01:17:51.115149 30702 net.cpp:94] Creating Layer relu5
I0507 01:17:51.115152 30702 net.cpp:435] relu5 <- conv5
I0507 01:17:51.115157 30702 net.cpp:396] relu5 -> conv5 (in-place)
I0507 01:17:51.115164 30702 net.cpp:144] Setting up relu5
I0507 01:17:51.115169 30702 net.cpp:151] Top shape: 20 64 5 5 (32000)
I0507 01:17:51.115170 30702 net.cpp:159] Memory required for data: 2952240
I0507 01:17:51.115176 30702 layer_factory.hpp:77] Creating layer pool5
I0507 01:17:51.115183 30702 net.cpp:94] Creating Layer pool5
I0507 01:17:51.115186 30702 net.cpp:435] pool5 <- conv5
I0507 01:17:51.115190 30702 net.cpp:409] pool5 -> pool5
I0507 01:17:51.115226 30702 net.cpp:144] Setting up pool5
I0507 01:17:51.115234 30702 net.cpp:151] Top shape: 20 64 2 2 (5120)
I0507 01:17:51.115236 30702 net.cpp:159] Memory required for data: 2972720
I0507 01:17:51.115239 30702 layer_factory.hpp:77] Creating layer ip1
I0507 01:17:51.115247 30702 net.cpp:94] Creating Layer ip1
I0507 01:17:51.115249 30702 net.cpp:435] ip1 <- pool5
I0507 01:17:51.115255 30702 net.cpp:409] ip1 -> ip1
I0507 01:17:51.115774 30702 net.cpp:144] Setting up ip1
I0507 01:17:51.115782 30702 net.cpp:151] Top shape: 20 64 (1280)
I0507 01:17:51.115785 30702 net.cpp:159] Memory required for data: 2977840
I0507 01:17:51.115790 30702 layer_factory.hpp:77] Creating layer ip2
I0507 01:17:51.115797 30702 net.cpp:94] Creating Layer ip2
I0507 01:17:51.115800 30702 net.cpp:435] ip2 <- ip1
I0507 01:17:51.115804 30702 net.cpp:409] ip2 -> ip2
I0507 01:17:51.116024 30702 net.cpp:144] Setting up ip2
I0507 01:17:51.116030 30702 net.cpp:151] Top shape: 20 64 (1280)
I0507 01:17:51.116032 30702 net.cpp:159] Memory required for data: 2982960
I0507 01:17:51.116037 30702 layer_factory.hpp:77] Creating layer ip3
I0507 01:17:51.116045 30702 net.cpp:94] Creating Layer ip3
I0507 01:17:51.116049 30702 net.cpp:435] ip3 <- ip2
I0507 01:17:51.116052 30702 net.cpp:409] ip3 -> ip3
I0507 01:17:51.116245 30702 net.cpp:144] Setting up ip3
I0507 01:17:51.116252 30702 net.cpp:151] Top shape: 20 50 (1000)
I0507 01:17:51.116255 30702 net.cpp:159] Memory required for data: 2986960
I0507 01:17:51.116261 30702 layer_factory.hpp:77] Creating layer ip3_ip3_0_split
I0507 01:17:51.116266 30702 net.cpp:94] Creating Layer ip3_ip3_0_split
I0507 01:17:51.116268 30702 net.cpp:435] ip3_ip3_0_split <- ip3
I0507 01:17:51.116272 30702 net.cpp:409] ip3_ip3_0_split -> ip3_ip3_0_split_0
I0507 01:17:51.116277 30702 net.cpp:409] ip3_ip3_0_split -> ip3_ip3_0_split_1
I0507 01:17:51.116317 30702 net.cpp:144] Setting up ip3_ip3_0_split
I0507 01:17:51.116322 30702 net.cpp:151] Top shape: 20 50 (1000)
I0507 01:17:51.116325 30702 net.cpp:151] Top shape: 20 50 (1000)
I0507 01:17:51.116328 30702 net.cpp:159] Memory required for data: 2994960
I0507 01:17:51.116331 30702 layer_factory.hpp:77] Creating layer accuracy
I0507 01:17:51.116336 30702 net.cpp:94] Creating Layer accuracy
I0507 01:17:51.116338 30702 net.cpp:435] accuracy <- ip3_ip3_0_split_0
I0507 01:17:51.116343 30702 net.cpp:435] accuracy <- label_intercept_1_split_0
I0507 01:17:51.116346 30702 net.cpp:409] accuracy -> accuracy
…
