…
I0502 20:28:48.318178 13221 net.cpp:323] The NetState phase (0) differed from the phase (1) specified by a rule in layer intercept
I0502 20:28:48.318193 13221 net.cpp:323] The NetState phase (0) differed from the phase (1) specified by a rule in layer accuracy
I0502 20:28:48.318290 13221 net.cpp:52] Initializing net from parameters: 
state {
  phase: TRAIN
}
layer {
  name: "parameters"
  type: "HDF5Data"
  top: "data"
  top: "label"
  include {
    phase: TRAIN
  }
  hdf5_data_param {
    source: "/home/purduethu/scratch/radon/d/deng106/CNNStatisticalModel/distributions/input/5_distributions_400_sample_size_train-distributions-path.txt"
    batch_size: 20
  }
}
layer {
  name: "conv1"
  type: "Convolution"
  bottom: "data"
  top: "conv1"
  param {
    lr_mult: 1
  }
  param {
    lr_mult: 2
  }
  convolution_param {
    num_output: 64
    pad: 2
    kernel_size: 5
    stride: 1
    weight_filler {
      type: "gaussian"
      std: 0.0001
    }
    bias_filler {
      type: "constant"
    }
  }
}
layer {
  name: "relu1"
  type: "ReLU"
  bottom: "conv1"
  top: "conv1"
}
layer {
  name: "conv2"
  type: "Convolution"
  bottom: "conv1"
  top: "conv2"
  param {
    lr_mult: 1
  }
  param {
    lr_mult: 2
  }
  convolution_param {
    num_output: 64
    pad: 2
    kernel_size: 5
    stride: 1
    weight_filler {
      type: "gaussian"
      std: 0.01
    }
    bias_filler {
      type: "constant"
    }
  }
}
layer {
  name: "relu2"
  type: "ReLU"
  bottom: "conv2"
  top: "conv2"
}
layer {
  name: "pool2"
  type: "Pooling"
  bottom: "conv2"
  top: "pool2"
  pooling_param {
    pool: MAX
    kernel_size: 3
    stride: 2
  }
}
layer {
  name: "conv3"
  type: "Convolution"
  bottom: "pool2"
  top: "conv3"
  param {
    lr_mult: 1
  }
  param {
    lr_mult: 2
  }
  convolution_param {
    num_output: 64
    pad: 2
    kernel_size: 5
    stride: 1
    weight_filler {
      type: "gaussian"
      std: 0.01
    }
    bias_filler {
      type: "constant"
    }
  }
}
layer {
  name: "relu3"
  type: "ReLU"
  bottom: "conv3"
  top: "conv3"
}
layer {
  name: "conv4"
  type: "Convolution"
  bottom: "conv3"
  top: "conv4"
  param {
    lr_mult: 1
  }
  param {
    lr_mult: 2
  }
  convolution_param {
    num_output: 64
    pad: 2
    kernel_size: 5
    stride: 1
    weight_filler {
      type: "gaussian"
      std: 0.01
    }
    bias_filler {
      type: "constant"
    }
  }
}
layer {
  name: "relu4"
  type: "ReLU"
  bottom: "conv4"
  top: "conv4"
}
layer {
  name: "conv5"
  type: "Convolution"
  bottom: "conv4"
  top: "conv5"
  param {
    lr_mult: 1
  }
  param {
    lr_mult: 2
  }
  convolution_param {
    num_output: 64
    pad: 2
    kernel_size: 5
    stride: 1
    weight_filler {
      type: "gaussian"
      std: 0.01
    }
    bias_filler {
      type: "constant"
    }
  }
}
layer {
  name: "relu5"
  type: "ReLU"
  bottom: "conv5"
  top: "conv5"
}
layer {
  name: "pool5"
  type: "Pooling"
  bottom: "conv5"
  top: "pool5"
  pooling_param {
    pool: AVE
    kernel_size: 3
    stride: 2
  }
}
layer {
  name: "ip1"
  type: "InnerProduct"
  bottom: "pool5"
  top: "ip1"
  param {
    lr_mult: 1
  }
  param {
    lr_mult: 2
  }
  inner_product_param {
    num_output: 64
    weight_filler {
      type: "gaussian"
      std: 0.1
    }
    bias_filler {
      type: "constant"
    }
  }
}
layer {
  name: "ip2"
  type: "InnerProduct"
  bottom: "ip1"
  top: "ip2"
  param {
    lr_mult: 1
  }
  param {
    lr_mult: 2
  }
  inner_product_param {
    num_output: 64
    weight_filler {
      type: "gaussian"
      std: 0.1
    }
    bias_filler {
      type: "constant"
    }
  }
}
layer {
  name: "ip3"
  type: "InnerProduct"
  bottom: "ip2"
  top: "ip3"
  param {
    lr_mult: 1
  }
  param {
    lr_mult: 2
  }
  inner_product_param {
    num_output: 50
    weight_filler {
      type: "gaussian"
      std: 0.1
    }
    bias_filler {
      type: "constant"
    }
  }
}
layer {
  name: "loss"
  type: "SoftmaxWithLoss"
  bottom: "ip3"
  bottom: "label"
  top: "loss"
}
I0502 20:28:48.318368 13221 layer_factory.hpp:77] Creating layer parameters
I0502 20:28:48.318383 13221 net.cpp:94] Creating Layer parameters
I0502 20:28:48.318390 13221 net.cpp:409] parameters -> data
I0502 20:28:48.318408 13221 net.cpp:409] parameters -> label
I0502 20:28:48.318419 13221 hdf5_data_layer.cpp:79] Loading list of HDF5 filenames from: /home/purduethu/scratch/radon/d/deng106/CNNStatisticalModel/distributions/input/5_distributions_400_sample_size_train-distributions-path.txt
I0502 20:28:48.318444 13221 hdf5_data_layer.cpp:93] Number of HDF5 files: 1
I0502 20:28:48.319075 13221 hdf5.cpp:32] Datatype class: H5T_FLOAT
I0502 20:28:48.381935 13221 hdf5.cpp:35] Datatype class: H5T_INTEGER
I0502 20:28:48.383101 13221 net.cpp:144] Setting up parameters
I0502 20:28:48.383119 13221 net.cpp:151] Top shape: 20 1 20 20 (8000)
I0502 20:28:48.383126 13221 net.cpp:151] Top shape: 20 (20)
I0502 20:28:48.383129 13221 net.cpp:159] Memory required for data: 32080
I0502 20:28:48.383137 13221 layer_factory.hpp:77] Creating layer conv1
I0502 20:28:48.383162 13221 net.cpp:94] Creating Layer conv1
I0502 20:28:48.383168 13221 net.cpp:435] conv1 <- data
I0502 20:28:48.383179 13221 net.cpp:409] conv1 -> conv1
I0502 20:28:48.389236 13221 net.cpp:144] Setting up conv1
I0502 20:28:48.389252 13221 net.cpp:151] Top shape: 20 64 20 20 (512000)
I0502 20:28:48.389256 13221 net.cpp:159] Memory required for data: 2080080
I0502 20:28:48.389268 13221 layer_factory.hpp:77] Creating layer relu1
I0502 20:28:48.389276 13221 net.cpp:94] Creating Layer relu1
I0502 20:28:48.389281 13221 net.cpp:435] relu1 <- conv1
I0502 20:28:48.389286 13221 net.cpp:396] relu1 -> conv1 (in-place)
I0502 20:28:48.389300 13221 net.cpp:144] Setting up relu1
I0502 20:28:48.389307 13221 net.cpp:151] Top shape: 20 64 20 20 (512000)
I0502 20:28:48.389309 13221 net.cpp:159] Memory required for data: 4128080
I0502 20:28:48.389312 13221 layer_factory.hpp:77] Creating layer conv2
I0502 20:28:48.389320 13221 net.cpp:94] Creating Layer conv2
I0502 20:28:48.389324 13221 net.cpp:435] conv2 <- conv1
I0502 20:28:48.389329 13221 net.cpp:409] conv2 -> conv2
I0502 20:28:48.400768 13221 net.cpp:144] Setting up conv2
I0502 20:28:48.400782 13221 net.cpp:151] Top shape: 20 64 20 20 (512000)
I0502 20:28:48.400786 13221 net.cpp:159] Memory required for data: 6176080
I0502 20:28:48.400794 13221 layer_factory.hpp:77] Creating layer relu2
I0502 20:28:48.400801 13221 net.cpp:94] Creating Layer relu2
I0502 20:28:48.400805 13221 net.cpp:435] relu2 <- conv2
I0502 20:28:48.400810 13221 net.cpp:396] relu2 -> conv2 (in-place)
I0502 20:28:48.400817 13221 net.cpp:144] Setting up relu2
I0502 20:28:48.400822 13221 net.cpp:151] Top shape: 20 64 20 20 (512000)
I0502 20:28:48.400825 13221 net.cpp:159] Memory required for data: 8224080
I0502 20:28:48.400828 13221 layer_factory.hpp:77] Creating layer pool2
I0502 20:28:48.400842 13221 net.cpp:94] Creating Layer pool2
I0502 20:28:48.400846 13221 net.cpp:435] pool2 <- conv2
I0502 20:28:48.400851 13221 net.cpp:409] pool2 -> pool2
I0502 20:28:48.400897 13221 net.cpp:144] Setting up pool2
I0502 20:28:48.400903 13221 net.cpp:151] Top shape: 20 64 10 10 (128000)
I0502 20:28:48.400907 13221 net.cpp:159] Memory required for data: 8736080
I0502 20:28:48.400909 13221 layer_factory.hpp:77] Creating layer conv3
I0502 20:28:48.400918 13221 net.cpp:94] Creating Layer conv3
I0502 20:28:48.400923 13221 net.cpp:435] conv3 <- pool2
I0502 20:28:48.400934 13221 net.cpp:409] conv3 -> conv3
I0502 20:28:48.407071 13221 net.cpp:144] Setting up conv3
I0502 20:28:48.407094 13221 net.cpp:151] Top shape: 20 64 10 10 (128000)
I0502 20:28:48.407101 13221 net.cpp:159] Memory required for data: 9248080
I0502 20:28:48.407114 13221 layer_factory.hpp:77] Creating layer relu3
I0502 20:28:48.407124 13221 net.cpp:94] Creating Layer relu3
I0502 20:28:48.407130 13221 net.cpp:435] relu3 <- conv3
I0502 20:28:48.407136 13221 net.cpp:396] relu3 -> conv3 (in-place)
I0502 20:28:48.407148 13221 net.cpp:144] Setting up relu3
I0502 20:28:48.407155 13221 net.cpp:151] Top shape: 20 64 10 10 (128000)
I0502 20:28:48.407160 13221 net.cpp:159] Memory required for data: 9760080
I0502 20:28:48.407166 13221 layer_factory.hpp:77] Creating layer conv4
I0502 20:28:48.407178 13221 net.cpp:94] Creating Layer conv4
I0502 20:28:48.407184 13221 net.cpp:435] conv4 <- conv3
I0502 20:28:48.407192 13221 net.cpp:409] conv4 -> conv4
I0502 20:28:48.413414 13221 net.cpp:144] Setting up conv4
I0502 20:28:48.413435 13221 net.cpp:151] Top shape: 20 64 10 10 (128000)
I0502 20:28:48.413442 13221 net.cpp:159] Memory required for data: 10272080
I0502 20:28:48.413452 13221 layer_factory.hpp:77] Creating layer relu4
I0502 20:28:48.413461 13221 net.cpp:94] Creating Layer relu4
I0502 20:28:48.413467 13221 net.cpp:435] relu4 <- conv4
I0502 20:28:48.413475 13221 net.cpp:396] relu4 -> conv4 (in-place)
I0502 20:28:48.413486 13221 net.cpp:144] Setting up relu4
I0502 20:28:48.413493 13221 net.cpp:151] Top shape: 20 64 10 10 (128000)
I0502 20:28:48.413508 13221 net.cpp:159] Memory required for data: 10784080
I0502 20:28:48.413511 13221 layer_factory.hpp:77] Creating layer conv5
I0502 20:28:48.413519 13221 net.cpp:94] Creating Layer conv5
I0502 20:28:48.413523 13221 net.cpp:435] conv5 <- conv4
I0502 20:28:48.413528 13221 net.cpp:409] conv5 -> conv5
I0502 20:28:48.419345 13221 net.cpp:144] Setting up conv5
I0502 20:28:48.419359 13221 net.cpp:151] Top shape: 20 64 10 10 (128000)
I0502 20:28:48.419363 13221 net.cpp:159] Memory required for data: 11296080
I0502 20:28:48.419373 13221 layer_factory.hpp:77] Creating layer relu5
I0502 20:28:48.419378 13221 net.cpp:94] Creating Layer relu5
I0502 20:28:48.419383 13221 net.cpp:435] relu5 <- conv5
I0502 20:28:48.419387 13221 net.cpp:396] relu5 -> conv5 (in-place)
I0502 20:28:48.419394 13221 net.cpp:144] Setting up relu5
I0502 20:28:48.419399 13221 net.cpp:151] Top shape: 20 64 10 10 (128000)
I0502 20:28:48.419402 13221 net.cpp:159] Memory required for data: 11808080
I0502 20:28:48.419405 13221 layer_factory.hpp:77] Creating layer pool5
I0502 20:28:48.419410 13221 net.cpp:94] Creating Layer pool5
I0502 20:28:48.419414 13221 net.cpp:435] pool5 <- conv5
I0502 20:28:48.419419 13221 net.cpp:409] pool5 -> pool5
I0502 20:28:48.419453 13221 net.cpp:144] Setting up pool5
I0502 20:28:48.419461 13221 net.cpp:151] Top shape: 20 64 5 5 (32000)
I0502 20:28:48.419464 13221 net.cpp:159] Memory required for data: 11936080
I0502 20:28:48.419467 13221 layer_factory.hpp:77] Creating layer ip1
I0502 20:28:48.419477 13221 net.cpp:94] Creating Layer ip1
I0502 20:28:48.419481 13221 net.cpp:435] ip1 <- pool5
I0502 20:28:48.419486 13221 net.cpp:409] ip1 -> ip1
I0502 20:28:48.422053 13221 net.cpp:144] Setting up ip1
I0502 20:28:48.422062 13221 net.cpp:151] Top shape: 20 64 (1280)
I0502 20:28:48.422066 13221 net.cpp:159] Memory required for data: 11941200
I0502 20:28:48.422071 13221 layer_factory.hpp:77] Creating layer ip2
I0502 20:28:48.422081 13221 net.cpp:94] Creating Layer ip2
I0502 20:28:48.422086 13221 net.cpp:435] ip2 <- ip1
I0502 20:28:48.422091 13221 net.cpp:409] ip2 -> ip2
I0502 20:28:48.422260 13221 net.cpp:144] Setting up ip2
I0502 20:28:48.422267 13221 net.cpp:151] Top shape: 20 64 (1280)
I0502 20:28:48.422271 13221 net.cpp:159] Memory required for data: 11946320
I0502 20:28:48.422276 13221 layer_factory.hpp:77] Creating layer ip3
I0502 20:28:48.422281 13221 net.cpp:94] Creating Layer ip3
I0502 20:28:48.422284 13221 net.cpp:435] ip3 <- ip2
I0502 20:28:48.422289 13221 net.cpp:409] ip3 -> ip3
I0502 20:28:48.422439 13221 net.cpp:144] Setting up ip3
I0502 20:28:48.422446 13221 net.cpp:151] Top shape: 20 50 (1000)
I0502 20:28:48.422449 13221 net.cpp:159] Memory required for data: 11950320
I0502 20:28:48.422454 13221 layer_factory.hpp:77] Creating layer loss
I0502 20:28:48.422461 13221 net.cpp:94] Creating Layer loss
I0502 20:28:48.422464 13221 net.cpp:435] loss <- ip3
I0502 20:28:48.422468 13221 net.cpp:435] loss <- label
I0502 20:28:48.422473 13221 net.cpp:409] loss -> loss
I0502 20:28:48.422487 13221 layer_factory.hpp:77] Creating layer loss
…
I0502 20:28:48.423002 13221 solver.cpp:181] Creating test net (#0) specified by net file: ./protocol/dis_5_400_dimension.protocol_distribution
I0502 20:28:48.423028 13221 net.cpp:323] The NetState phase (1) differed from the phase (0) specified by a rule in layer parameters
I0502 20:28:48.423140 13221 net.cpp:52] Initializing net from parameters: 
state {
  phase: TEST
}
layer {
  name: "intercept"
  type: "HDF5Data"
  top: "data"
  top: "label"
  include {
    phase: TEST
  }
  hdf5_data_param {
    source: "/home/purduethu/scratch/radon/d/deng106/CNNStatisticalModel/distributions/input/5_distributions_400_sample_size_test-distributions-path.txt"
    batch_size: 20
  }
}
layer {
  name: "conv1"
  type: "Convolution"
  bottom: "data"
  top: "conv1"
  param {
    lr_mult: 1
  }
  param {
    lr_mult: 2
  }
  convolution_param {
    num_output: 64
    pad: 2
    kernel_size: 5
    stride: 1
    weight_filler {
      type: "gaussian"
      std: 0.0001
    }
    bias_filler {
      type: "constant"
    }
  }
}
layer {
  name: "relu1"
  type: "ReLU"
  bottom: "conv1"
  top: "conv1"
}
layer {
  name: "conv2"
  type: "Convolution"
  bottom: "conv1"
  top: "conv2"
  param {
    lr_mult: 1
  }
  param {
    lr_mult: 2
  }
  convolution_param {
    num_output: 64
    pad: 2
    kernel_size: 5
    stride: 1
    weight_filler {
      type: "gaussian"
      std: 0.01
    }
    bias_filler {
      type: "constant"
    }
  }
}
layer {
  name: "relu2"
  type: "ReLU"
  bottom: "conv2"
  top: "conv2"
}
layer {
  name: "pool2"
  type: "Pooling"
  bottom: "conv2"
  top: "pool2"
  pooling_param {
    pool: MAX
    kernel_size: 3
    stride: 2
  }
}
layer {
  name: "conv3"
  type: "Convolution"
  bottom: "pool2"
  top: "conv3"
  param {
    lr_mult: 1
  }
  param {
    lr_mult: 2
  }
  convolution_param {
    num_output: 64
    pad: 2
    kernel_size: 5
    stride: 1
    weight_filler {
      type: "gaussian"
      std: 0.01
    }
    bias_filler {
      type: "constant"
    }
  }
}
layer {
  name: "relu3"
  type: "ReLU"
  bottom: "conv3"
  top: "conv3"
}
layer {
  name: "conv4"
  type: "Convolution"
  bottom: "conv3"
  top: "conv4"
  param {
    lr_mult: 1
  }
  param {
    lr_mult: 2
  }
  convolution_param {
    num_output: 64
    pad: 2
    kernel_size: 5
    stride: 1
    weight_filler {
      type: "gaussian"
      std: 0.01
    }
    bias_filler {
      type: "constant"
    }
  }
}
layer {
  name: "relu4"
  type: "ReLU"
  bottom: "conv4"
  top: "conv4"
}
layer {
  name: "conv5"
  type: "Convolution"
  bottom: "conv4"
  top: "conv5"
  param {
    lr_mult: 1
  }
  param {
    lr_mult: 2
  }
  convolution_param {
    num_output: 64
    pad: 2
    kernel_size: 5
    stride: 1
    weight_filler {
      type: "gaussian"
      std: 0.01
    }
    bias_filler {
      type: "constant"
    }
  }
}
layer {
  name: "relu5"
  type: "ReLU"
  bottom: "conv5"
  top: "conv5"
}
layer {
  name: "pool5"
  type: "Pooling"
  bottom: "conv5"
  top: "pool5"
  pooling_param {
    pool: AVE
    kernel_size: 3
    stride: 2
  }
}
layer {
  name: "ip1"
  type: "InnerProduct"
  bottom: "pool5"
  top: "ip1"
  param {
    lr_mult: 1
  }
  param {
    lr_mult: 2
  }
  inner_product_param {
    num_output: 64
    weight_filler {
      type: "gaussian"
      std: 0.1
    }
    bias_filler {
      type: "constant"
    }
  }
}
layer {
  name: "ip2"
  type: "InnerProduct"
  bottom: "ip1"
  top: "ip2"
  param {
    lr_mult: 1
  }
  param {
    lr_mult: 2
  }
  inner_product_param {
    num_output: 64
    weight_filler {
      type: "gaussian"
      std: 0.1
    }
    bias_filler {
      type: "constant"
    }
  }
}
layer {
  name: "ip3"
  type: "InnerProduct"
  bottom: "ip2"
  top: "ip3"
  param {
    lr_mult: 1
  }
  param {
    lr_mult: 2
  }
  inner_product_param {
    num_output: 50
    weight_filler {
      type: "gaussian"
      std: 0.1
    }
    bias_filler {
      type: "constant"
    }
  }
}
layer {
  name: "accuracy"
  type: "Accuracy"
  bottom: "ip3"
  bottom: "label"
  top: "accuracy"
  include {
    phase: TEST
  }
}
layer {
  name: "loss"
  type: "SoftmaxWithLoss"
  bottom: "ip3"
  bottom: "label"
  top: "loss"
}
I0502 20:28:48.423216 13221 layer_factory.hpp:77] Creating layer intercept
I0502 20:28:48.423225 13221 net.cpp:94] Creating Layer intercept
I0502 20:28:48.423230 13221 net.cpp:409] intercept -> data
I0502 20:28:48.423238 13221 net.cpp:409] intercept -> label
I0502 20:28:48.423243 13221 hdf5_data_layer.cpp:79] Loading list of HDF5 filenames from: /home/purduethu/scratch/radon/d/deng106/CNNStatisticalModel/distributions/input/5_distributions_400_sample_size_test-distributions-path.txt
I0502 20:28:48.423262 13221 hdf5_data_layer.cpp:93] Number of HDF5 files: 1
I0502 20:28:48.440068 13221 net.cpp:144] Setting up intercept
I0502 20:28:48.440098 13221 net.cpp:151] Top shape: 20 1 20 20 (8000)
I0502 20:28:48.440102 13221 net.cpp:151] Top shape: 20 (20)
I0502 20:28:48.440106 13221 net.cpp:159] Memory required for data: 32080
I0502 20:28:48.440112 13221 layer_factory.hpp:77] Creating layer label_intercept_1_split
I0502 20:28:48.440129 13221 net.cpp:94] Creating Layer label_intercept_1_split
I0502 20:28:48.440134 13221 net.cpp:435] label_intercept_1_split <- label
I0502 20:28:48.440140 13221 net.cpp:409] label_intercept_1_split -> label_intercept_1_split_0
I0502 20:28:48.440148 13221 net.cpp:409] label_intercept_1_split -> label_intercept_1_split_1
I0502 20:28:48.440181 13221 net.cpp:144] Setting up label_intercept_1_split
I0502 20:28:48.440188 13221 net.cpp:151] Top shape: 20 (20)
I0502 20:28:48.440192 13221 net.cpp:151] Top shape: 20 (20)
I0502 20:28:48.440196 13221 net.cpp:159] Memory required for data: 32240
I0502 20:28:48.440199 13221 layer_factory.hpp:77] Creating layer conv1
I0502 20:28:48.440212 13221 net.cpp:94] Creating Layer conv1
I0502 20:28:48.440214 13221 net.cpp:435] conv1 <- data
I0502 20:28:48.440219 13221 net.cpp:409] conv1 -> conv1
I0502 20:28:48.441812 13221 net.cpp:144] Setting up conv1
I0502 20:28:48.441834 13221 net.cpp:151] Top shape: 20 64 20 20 (512000)
I0502 20:28:48.441838 13221 net.cpp:159] Memory required for data: 2080240
I0502 20:28:48.441848 13221 layer_factory.hpp:77] Creating layer relu1
I0502 20:28:48.441854 13221 net.cpp:94] Creating Layer relu1
I0502 20:28:48.441859 13221 net.cpp:435] relu1 <- conv1
I0502 20:28:48.441862 13221 net.cpp:396] relu1 -> conv1 (in-place)
I0502 20:28:48.441870 13221 net.cpp:144] Setting up relu1
I0502 20:28:48.441874 13221 net.cpp:151] Top shape: 20 64 20 20 (512000)
I0502 20:28:48.441877 13221 net.cpp:159] Memory required for data: 4128240
I0502 20:28:48.441881 13221 layer_factory.hpp:77] Creating layer conv2
I0502 20:28:48.441890 13221 net.cpp:94] Creating Layer conv2
I0502 20:28:48.441893 13221 net.cpp:435] conv2 <- conv1
I0502 20:28:48.441898 13221 net.cpp:409] conv2 -> conv2
I0502 20:28:48.447713 13221 net.cpp:144] Setting up conv2
I0502 20:28:48.447727 13221 net.cpp:151] Top shape: 20 64 20 20 (512000)
I0502 20:28:48.447731 13221 net.cpp:159] Memory required for data: 6176240
I0502 20:28:48.447739 13221 layer_factory.hpp:77] Creating layer relu2
I0502 20:28:48.447746 13221 net.cpp:94] Creating Layer relu2
I0502 20:28:48.447749 13221 net.cpp:435] relu2 <- conv2
I0502 20:28:48.447754 13221 net.cpp:396] relu2 -> conv2 (in-place)
I0502 20:28:48.447760 13221 net.cpp:144] Setting up relu2
I0502 20:28:48.447765 13221 net.cpp:151] Top shape: 20 64 20 20 (512000)
I0502 20:28:48.447768 13221 net.cpp:159] Memory required for data: 8224240
I0502 20:28:48.447772 13221 layer_factory.hpp:77] Creating layer pool2
I0502 20:28:48.447778 13221 net.cpp:94] Creating Layer pool2
I0502 20:28:48.447782 13221 net.cpp:435] pool2 <- conv2
I0502 20:28:48.447785 13221 net.cpp:409] pool2 -> pool2
I0502 20:28:48.447819 13221 net.cpp:144] Setting up pool2
I0502 20:28:48.447825 13221 net.cpp:151] Top shape: 20 64 10 10 (128000)
I0502 20:28:48.447829 13221 net.cpp:159] Memory required for data: 8736240
I0502 20:28:48.447831 13221 layer_factory.hpp:77] Creating layer conv3
I0502 20:28:48.447839 13221 net.cpp:94] Creating Layer conv3
I0502 20:28:48.447842 13221 net.cpp:435] conv3 <- pool2
I0502 20:28:48.447847 13221 net.cpp:409] conv3 -> conv3
I0502 20:28:48.452308 13221 net.cpp:144] Setting up conv3
I0502 20:28:48.452323 13221 net.cpp:151] Top shape: 20 64 10 10 (128000)
I0502 20:28:48.452327 13221 net.cpp:159] Memory required for data: 9248240
I0502 20:28:48.452335 13221 layer_factory.hpp:77] Creating layer relu3
I0502 20:28:48.452342 13221 net.cpp:94] Creating Layer relu3
I0502 20:28:48.452345 13221 net.cpp:435] relu3 <- conv3
I0502 20:28:48.452350 13221 net.cpp:396] relu3 -> conv3 (in-place)
I0502 20:28:48.452358 13221 net.cpp:144] Setting up relu3
I0502 20:28:48.452363 13221 net.cpp:151] Top shape: 20 64 10 10 (128000)
I0502 20:28:48.452365 13221 net.cpp:159] Memory required for data: 9760240
I0502 20:28:48.452368 13221 layer_factory.hpp:77] Creating layer conv4
I0502 20:28:48.452376 13221 net.cpp:94] Creating Layer conv4
I0502 20:28:48.452380 13221 net.cpp:435] conv4 <- conv3
I0502 20:28:48.452384 13221 net.cpp:409] conv4 -> conv4
I0502 20:28:48.456483 13221 net.cpp:144] Setting up conv4
I0502 20:28:48.456498 13221 net.cpp:151] Top shape: 20 64 10 10 (128000)
I0502 20:28:48.456503 13221 net.cpp:159] Memory required for data: 10272240
I0502 20:28:48.456509 13221 layer_factory.hpp:77] Creating layer relu4
I0502 20:28:48.456516 13221 net.cpp:94] Creating Layer relu4
I0502 20:28:48.456522 13221 net.cpp:435] relu4 <- conv4
I0502 20:28:48.456528 13221 net.cpp:396] relu4 -> conv4 (in-place)
I0502 20:28:48.456535 13221 net.cpp:144] Setting up relu4
I0502 20:28:48.456540 13221 net.cpp:151] Top shape: 20 64 10 10 (128000)
I0502 20:28:48.456543 13221 net.cpp:159] Memory required for data: 10784240
I0502 20:28:48.456547 13221 layer_factory.hpp:77] Creating layer conv5
I0502 20:28:48.456564 13221 net.cpp:94] Creating Layer conv5
I0502 20:28:48.456569 13221 net.cpp:435] conv5 <- conv4
I0502 20:28:48.456574 13221 net.cpp:409] conv5 -> conv5
I0502 20:28:48.460813 13221 net.cpp:144] Setting up conv5
I0502 20:28:48.460835 13221 net.cpp:151] Top shape: 20 64 10 10 (128000)
I0502 20:28:48.460839 13221 net.cpp:159] Memory required for data: 11296240
I0502 20:28:48.460849 13221 layer_factory.hpp:77] Creating layer relu5
I0502 20:28:48.460855 13221 net.cpp:94] Creating Layer relu5
I0502 20:28:48.460858 13221 net.cpp:435] relu5 <- conv5
I0502 20:28:48.460863 13221 net.cpp:396] relu5 -> conv5 (in-place)
I0502 20:28:48.460870 13221 net.cpp:144] Setting up relu5
I0502 20:28:48.460875 13221 net.cpp:151] Top shape: 20 64 10 10 (128000)
I0502 20:28:48.460878 13221 net.cpp:159] Memory required for data: 11808240
I0502 20:28:48.460881 13221 layer_factory.hpp:77] Creating layer pool5
I0502 20:28:48.460886 13221 net.cpp:94] Creating Layer pool5
I0502 20:28:48.460889 13221 net.cpp:435] pool5 <- conv5
I0502 20:28:48.460894 13221 net.cpp:409] pool5 -> pool5
I0502 20:28:48.460921 13221 net.cpp:144] Setting up pool5
I0502 20:28:48.460927 13221 net.cpp:151] Top shape: 20 64 5 5 (32000)
I0502 20:28:48.460930 13221 net.cpp:159] Memory required for data: 11936240
I0502 20:28:48.460933 13221 layer_factory.hpp:77] Creating layer ip1
I0502 20:28:48.460940 13221 net.cpp:94] Creating Layer ip1
I0502 20:28:48.460943 13221 net.cpp:435] ip1 <- pool5
I0502 20:28:48.460948 13221 net.cpp:409] ip1 -> ip1
I0502 20:28:48.463503 13221 net.cpp:144] Setting up ip1
I0502 20:28:48.463511 13221 net.cpp:151] Top shape: 20 64 (1280)
I0502 20:28:48.463515 13221 net.cpp:159] Memory required for data: 11941360
I0502 20:28:48.463520 13221 layer_factory.hpp:77] Creating layer ip2
I0502 20:28:48.463526 13221 net.cpp:94] Creating Layer ip2
I0502 20:28:48.463529 13221 net.cpp:435] ip2 <- ip1
I0502 20:28:48.463534 13221 net.cpp:409] ip2 -> ip2
I0502 20:28:48.463706 13221 net.cpp:144] Setting up ip2
I0502 20:28:48.463711 13221 net.cpp:151] Top shape: 20 64 (1280)
I0502 20:28:48.463714 13221 net.cpp:159] Memory required for data: 11946480
I0502 20:28:48.463719 13221 layer_factory.hpp:77] Creating layer ip3
I0502 20:28:48.463726 13221 net.cpp:94] Creating Layer ip3
I0502 20:28:48.463729 13221 net.cpp:435] ip3 <- ip2
I0502 20:28:48.463734 13221 net.cpp:409] ip3 -> ip3
I0502 20:28:48.463881 13221 net.cpp:144] Setting up ip3
I0502 20:28:48.463887 13221 net.cpp:151] Top shape: 20 50 (1000)
I0502 20:28:48.463891 13221 net.cpp:159] Memory required for data: 11950480
I0502 20:28:48.463896 13221 layer_factory.hpp:77] Creating layer ip3_ip3_0_split
I0502 20:28:48.463901 13221 net.cpp:94] Creating Layer ip3_ip3_0_split
I0502 20:28:48.463903 13221 net.cpp:435] ip3_ip3_0_split <- ip3
I0502 20:28:48.463907 13221 net.cpp:409] ip3_ip3_0_split -> ip3_ip3_0_split_0
I0502 20:28:48.463912 13221 net.cpp:409] ip3_ip3_0_split -> ip3_ip3_0_split_1
I0502 20:28:48.463937 13221 net.cpp:144] Setting up ip3_ip3_0_split
I0502 20:28:48.463943 13221 net.cpp:151] Top shape: 20 50 (1000)
I0502 20:28:48.463946 13221 net.cpp:151] Top shape: 20 50 (1000)
I0502 20:28:48.463949 13221 net.cpp:159] Memory required for data: 11958480
I0502 20:28:48.463953 13221 layer_factory.hpp:77] Creating layer accuracy
I0502 20:28:48.463958 13221 net.cpp:94] Creating Layer accuracy
I0502 20:28:48.463960 13221 net.cpp:435] accuracy <- ip3_ip3_0_split_0
I0502 20:28:48.463964 13221 net.cpp:435] accuracy <- label_intercept_1_split_0
I0502 20:28:48.463969 13221 net.cpp:409] accuracy -> accuracy
…
