…
I0505 14:38:39.506525  7393 net.cpp:323] The NetState phase (0) differed from the phase (1) specified by a rule in layer intercept
I0505 14:38:39.506538  7393 net.cpp:323] The NetState phase (0) differed from the phase (1) specified by a rule in layer loss
I0505 14:38:39.506604  7393 net.cpp:52] Initializing net from parameters: 
state {
  phase: TRAIN
}
layer {
  name: "parameters"
  type: "HDF5Data"
  top: "data"
  top: "label"
  include {
    phase: TRAIN
  }
  hdf5_data_param {
    source: "/home/purduethu/scratch/radon/d/deng106/CNNStatisticalModel/distributions/input/5_distributions_100_sample_size_train-parameters-path.txt"
    batch_size: 20
  }
}
layer {
  name: "conv1"
  type: "Convolution"
  bottom: "data"
  top: "conv1"
  param {
    lr_mult: 1
  }
  param {
    lr_mult: 2
  }
  convolution_param {
    num_output: 64
    pad: 2
    kernel_size: 5
    stride: 1
    weight_filler {
      type: "gaussian"
      std: 0.0001
    }
    bias_filler {
      type: "constant"
    }
  }
}
layer {
  name: "relu1"
  type: "ReLU"
  bottom: "conv1"
  top: "conv1"
}
layer {
  name: "pool1"
  type: "Pooling"
  bottom: "conv1"
  top: "pool1"
  pooling_param {
    pool: MAX
    kernel_size: 3
    stride: 2
  }
}
layer {
  name: "conv2"
  type: "Convolution"
  bottom: "pool1"
  top: "conv2"
  param {
    lr_mult: 1
  }
  param {
    lr_mult: 2
  }
  convolution_param {
    num_output: 128
    pad: 2
    kernel_size: 5
    stride: 1
    weight_filler {
      type: "gaussian"
      std: 0.01
    }
    bias_filler {
      type: "constant"
    }
  }
}
layer {
  name: "relu2"
  type: "ReLU"
  bottom: "conv2"
  top: "conv2"
}
layer {
  name: "conv3"
  type: "Convolution"
  bottom: "conv2"
  top: "conv3"
  param {
    lr_mult: 1
  }
  param {
    lr_mult: 2
  }
  convolution_param {
    num_output: 128
    pad: 2
    kernel_size: 5
    stride: 1
    weight_filler {
      type: "gaussian"
      std: 0.01
    }
    bias_filler {
      type: "constant"
    }
  }
}
layer {
  name: "relu3"
  type: "ReLU"
  bottom: "conv3"
  top: "conv3"
}
layer {
  name: "pool3"
  type: "Pooling"
  bottom: "conv3"
  top: "pool3"
  pooling_param {
    pool: AVE
    kernel_size: 3
    stride: 2
  }
}
layer {
  name: "ip1"
  type: "InnerProduct"
  bottom: "pool3"
  top: "ip1"
  param {
    lr_mult: 1
  }
  param {
    lr_mult: 2
  }
  inner_product_param {
    num_output: 512
    weight_filler {
      type: "gaussian"
      std: 0.1
    }
    bias_filler {
      type: "constant"
    }
  }
}
layer {
  name: "ip2"
  type: "InnerProduct"
  bottom: "ip1"
  top: "ip2"
  param {
    lr_mult: 1
  }
  param {
    lr_mult: 2
  }
  inner_product_param {
    num_output: 256
    weight_filler {
      type: "gaussian"
      std: 0.1
    }
    bias_filler {
      type: "constant"
    }
  }
}
layer {
  name: "ip3"
  type: "InnerProduct"
  bottom: "ip2"
  top: "ip3"
  param {
    lr_mult: 1
  }
  param {
    lr_mult: 2
  }
  inner_product_param {
    num_output: 1
    weight_filler {
      type: "gaussian"
      std: 0.1
    }
    bias_filler {
      type: "constant"
    }
  }
}
layer {
  name: "loss"
  type: "HuberLoss"
  bottom: "ip3"
  bottom: "label"
  top: "loss"
  include {
    phase: TRAIN
  }
}
I0505 14:38:39.506650  7393 layer_factory.hpp:77] Creating layer parameters
I0505 14:38:39.506666  7393 net.cpp:94] Creating Layer parameters
I0505 14:38:39.506671  7393 net.cpp:409] parameters -> data
I0505 14:38:39.506680  7393 net.cpp:409] parameters -> label
I0505 14:38:39.506686  7393 hdf5_data_layer.cpp:79] Loading list of HDF5 filenames from: /home/purduethu/scratch/radon/d/deng106/CNNStatisticalModel/distributions/input/5_distributions_100_sample_size_train-parameters-path.txt
I0505 14:38:39.506701  7393 hdf5_data_layer.cpp:93] Number of HDF5 files: 1
I0505 14:38:39.507220  7393 hdf5.cpp:32] Datatype class: H5T_FLOAT
I0505 14:38:39.525432  7393 net.cpp:144] Setting up parameters
I0505 14:38:39.525460  7393 net.cpp:151] Top shape: 20 1 10 10 (2000)
I0505 14:38:39.525465  7393 net.cpp:151] Top shape: 20 (20)
I0505 14:38:39.525470  7393 net.cpp:159] Memory required for data: 8080
I0505 14:38:39.525475  7393 layer_factory.hpp:77] Creating layer conv1
I0505 14:38:39.525490  7393 net.cpp:94] Creating Layer conv1
I0505 14:38:39.525494  7393 net.cpp:435] conv1 <- data
I0505 14:38:39.525501  7393 net.cpp:409] conv1 -> conv1
I0505 14:38:39.529709  7393 net.cpp:144] Setting up conv1
I0505 14:38:39.529726  7393 net.cpp:151] Top shape: 20 64 10 10 (128000)
I0505 14:38:39.529729  7393 net.cpp:159] Memory required for data: 520080
I0505 14:38:39.529741  7393 layer_factory.hpp:77] Creating layer relu1
I0505 14:38:39.529747  7393 net.cpp:94] Creating Layer relu1
I0505 14:38:39.529750  7393 net.cpp:435] relu1 <- conv1
I0505 14:38:39.529755  7393 net.cpp:396] relu1 -> conv1 (in-place)
I0505 14:38:39.529762  7393 net.cpp:144] Setting up relu1
I0505 14:38:39.529767  7393 net.cpp:151] Top shape: 20 64 10 10 (128000)
I0505 14:38:39.529770  7393 net.cpp:159] Memory required for data: 1032080
I0505 14:38:39.529773  7393 layer_factory.hpp:77] Creating layer pool1
I0505 14:38:39.529778  7393 net.cpp:94] Creating Layer pool1
I0505 14:38:39.529781  7393 net.cpp:435] pool1 <- conv1
I0505 14:38:39.529785  7393 net.cpp:409] pool1 -> pool1
I0505 14:38:39.529847  7393 net.cpp:144] Setting up pool1
I0505 14:38:39.529855  7393 net.cpp:151] Top shape: 20 64 5 5 (32000)
I0505 14:38:39.529857  7393 net.cpp:159] Memory required for data: 1160080
I0505 14:38:39.529860  7393 layer_factory.hpp:77] Creating layer conv2
I0505 14:38:39.529868  7393 net.cpp:94] Creating Layer conv2
I0505 14:38:39.529872  7393 net.cpp:435] conv2 <- pool1
I0505 14:38:39.529877  7393 net.cpp:409] conv2 -> conv2
I0505 14:38:39.538854  7393 net.cpp:144] Setting up conv2
I0505 14:38:39.538871  7393 net.cpp:151] Top shape: 20 128 5 5 (64000)
I0505 14:38:39.538874  7393 net.cpp:159] Memory required for data: 1416080
I0505 14:38:39.538882  7393 layer_factory.hpp:77] Creating layer relu2
I0505 14:38:39.538888  7393 net.cpp:94] Creating Layer relu2
I0505 14:38:39.538892  7393 net.cpp:435] relu2 <- conv2
I0505 14:38:39.538897  7393 net.cpp:396] relu2 -> conv2 (in-place)
I0505 14:38:39.538903  7393 net.cpp:144] Setting up relu2
I0505 14:38:39.538908  7393 net.cpp:151] Top shape: 20 128 5 5 (64000)
I0505 14:38:39.538911  7393 net.cpp:159] Memory required for data: 1672080
I0505 14:38:39.538914  7393 layer_factory.hpp:77] Creating layer conv3
I0505 14:38:39.538921  7393 net.cpp:94] Creating Layer conv3
I0505 14:38:39.538924  7393 net.cpp:435] conv3 <- conv2
I0505 14:38:39.538929  7393 net.cpp:409] conv3 -> conv3
I0505 14:38:39.553848  7393 net.cpp:144] Setting up conv3
I0505 14:38:39.553864  7393 net.cpp:151] Top shape: 20 128 5 5 (64000)
I0505 14:38:39.553867  7393 net.cpp:159] Memory required for data: 1928080
I0505 14:38:39.553876  7393 layer_factory.hpp:77] Creating layer relu3
I0505 14:38:39.553882  7393 net.cpp:94] Creating Layer relu3
I0505 14:38:39.553891  7393 net.cpp:435] relu3 <- conv3
I0505 14:38:39.553896  7393 net.cpp:396] relu3 -> conv3 (in-place)
I0505 14:38:39.553910  7393 net.cpp:144] Setting up relu3
I0505 14:38:39.553915  7393 net.cpp:151] Top shape: 20 128 5 5 (64000)
I0505 14:38:39.553918  7393 net.cpp:159] Memory required for data: 2184080
I0505 14:38:39.553921  7393 layer_factory.hpp:77] Creating layer pool3
I0505 14:38:39.553927  7393 net.cpp:94] Creating Layer pool3
I0505 14:38:39.553930  7393 net.cpp:435] pool3 <- conv3
I0505 14:38:39.553935  7393 net.cpp:409] pool3 -> pool3
I0505 14:38:39.553974  7393 net.cpp:144] Setting up pool3
I0505 14:38:39.553982  7393 net.cpp:151] Top shape: 20 128 2 2 (10240)
I0505 14:38:39.553984  7393 net.cpp:159] Memory required for data: 2225040
I0505 14:38:39.553988  7393 layer_factory.hpp:77] Creating layer ip1
I0505 14:38:39.553998  7393 net.cpp:94] Creating Layer ip1
I0505 14:38:39.554002  7393 net.cpp:435] ip1 <- pool3
I0505 14:38:39.554006  7393 net.cpp:409] ip1 -> ip1
I0505 14:38:39.561045  7393 net.cpp:144] Setting up ip1
I0505 14:38:39.561060  7393 net.cpp:151] Top shape: 20 512 (10240)
I0505 14:38:39.561064  7393 net.cpp:159] Memory required for data: 2266000
I0505 14:38:39.561070  7393 layer_factory.hpp:77] Creating layer ip2
I0505 14:38:39.561077  7393 net.cpp:94] Creating Layer ip2
I0505 14:38:39.561081  7393 net.cpp:435] ip2 <- ip1
I0505 14:38:39.561086  7393 net.cpp:409] ip2 -> ip2
I0505 14:38:39.565160  7393 net.cpp:144] Setting up ip2
I0505 14:38:39.565174  7393 net.cpp:151] Top shape: 20 256 (5120)
I0505 14:38:39.565178  7393 net.cpp:159] Memory required for data: 2286480
I0505 14:38:39.565186  7393 layer_factory.hpp:77] Creating layer ip3
I0505 14:38:39.565193  7393 net.cpp:94] Creating Layer ip3
I0505 14:38:39.565196  7393 net.cpp:435] ip3 <- ip2
I0505 14:38:39.565201  7393 net.cpp:409] ip3 -> ip3
I0505 14:38:39.565309  7393 net.cpp:144] Setting up ip3
I0505 14:38:39.565315  7393 net.cpp:151] Top shape: 20 1 (20)
I0505 14:38:39.565318  7393 net.cpp:159] Memory required for data: 2286560
I0505 14:38:39.565323  7393 layer_factory.hpp:77] Creating layer loss
I0505 14:38:39.565333  7393 net.cpp:94] Creating Layer loss
I0505 14:38:39.565337  7393 net.cpp:435] loss <- ip3
I0505 14:38:39.565340  7393 net.cpp:435] loss <- label
I0505 14:38:39.565346  7393 net.cpp:409] loss -> loss
I0505 14:38:39.565397  7393 net.cpp:144] Setting up loss
…
I0505 14:38:39.603199  7393 net.cpp:323] The NetState phase (0) differed from the phase (1) specified by a rule in layer intercept
I0505 14:38:39.603211  7393 net.cpp:323] The NetState phase (0) differed from the phase (1) specified by a rule in layer accuracy
I0505 14:38:39.603281  7393 net.cpp:52] Initializing net from parameters: 
state {
  phase: TRAIN
}
layer {
  name: "parameters"
  type: "HDF5Data"
  top: "data"
  top: "label"
  include {
    phase: TRAIN
  }
  hdf5_data_param {
    source: "/home/purduethu/scratch/radon/d/deng106/CNNStatisticalModel/distributions/input/5_distributions_100_sample_size_train-distributions-path.txt"
    batch_size: 20
  }
}
layer {
  name: "conv1"
  type: "Convolution"
  bottom: "data"
  top: "conv1"
  param {
    lr_mult: 1
  }
  param {
    lr_mult: 2
  }
  convolution_param {
    num_output: 64
    pad: 2
    kernel_size: 5
    stride: 1
    weight_filler {
      type: "gaussian"
      std: 0.0001
    }
    bias_filler {
      type: "constant"
    }
  }
}
layer {
  name: "relu1"
  type: "ReLU"
  bottom: "conv1"
  top: "conv1"
}
layer {
  name: "pool1"
  type: "Pooling"
  bottom: "conv1"
  top: "pool1"
  pooling_param {
    pool: MAX
    kernel_size: 3
    stride: 2
  }
}
layer {
  name: "conv2"
  type: "Convolution"
  bottom: "pool1"
  top: "conv2"
  param {
    lr_mult: 1
  }
  param {
    lr_mult: 2
  }
  convolution_param {
    num_output: 128
    pad: 2
    kernel_size: 5
    stride: 1
    weight_filler {
      type: "gaussian"
      std: 0.01
    }
    bias_filler {
      type: "constant"
    }
  }
}
layer {
  name: "relu2"
  type: "ReLU"
  bottom: "conv2"
  top: "conv2"
}
layer {
  name: "conv3"
  type: "Convolution"
  bottom: "conv2"
  top: "conv3"
  param {
    lr_mult: 1
  }
  param {
    lr_mult: 2
  }
  convolution_param {
    num_output: 128
    pad: 2
    kernel_size: 5
    stride: 1
    weight_filler {
      type: "gaussian"
      std: 0.01
    }
    bias_filler {
      type: "constant"
    }
  }
}
layer {
  name: "relu3"
  type: "ReLU"
  bottom: "conv3"
  top: "conv3"
}
layer {
  name: "pool3"
  type: "Pooling"
  bottom: "conv3"
  top: "pool3"
  pooling_param {
    pool: AVE
    kernel_size: 3
    stride: 2
  }
}
layer {
  name: "ip1"
  type: "InnerProduct"
  bottom: "pool3"
  top: "ip1"
  param {
    lr_mult: 1
  }
  param {
    lr_mult: 2
  }
  inner_product_param {
    num_output: 512
    weight_filler {
      type: "gaussian"
      std: 0.1
    }
    bias_filler {
      type: "constant"
    }
  }
}
layer {
  name: "ip2"
  type: "InnerProduct"
  bottom: "ip1"
  top: "ip2"
  param {
    lr_mult: 1
  }
  param {
    lr_mult: 2
  }
  inner_product_param {
    num_output: 256
    weight_filler {
      type: "gaussian"
      std: 0.1
    }
    bias_filler {
      type: "constant"
    }
  }
}
layer {
  name: "ip3"
  type: "InnerProduct"
  bottom: "ip2"
  top: "ip3"
  param {
    lr_mult: 1
  }
  param {
    lr_mult: 2
  }
  inner_product_param {
    num_output: 50
    weight_filler {
      type: "gaussian"
      std: 0.1
    }
    bias_filler {
      type: "constant"
    }
  }
}
layer {
  name: "loss"
  type: "SoftmaxWithLoss"
  bottom: "ip3"
  bottom: "label"
  top: "loss"
}
I0505 14:38:39.603320  7393 layer_factory.hpp:77] Creating layer parameters
I0505 14:38:39.603328  7393 net.cpp:94] Creating Layer parameters
I0505 14:38:39.603332  7393 net.cpp:409] parameters -> data
I0505 14:38:39.603338  7393 net.cpp:409] parameters -> label
I0505 14:38:39.603344  7393 hdf5_data_layer.cpp:79] Loading list of HDF5 filenames from: /home/purduethu/scratch/radon/d/deng106/CNNStatisticalModel/distributions/input/5_distributions_100_sample_size_train-distributions-path.txt
I0505 14:38:39.603358  7393 hdf5_data_layer.cpp:93] Number of HDF5 files: 1
I0505 14:38:39.619230  7393 hdf5.cpp:35] Datatype class: H5T_INTEGER
I0505 14:38:39.619660  7393 net.cpp:144] Setting up parameters
I0505 14:38:39.619675  7393 net.cpp:151] Top shape: 20 1 10 10 (2000)
I0505 14:38:39.619680  7393 net.cpp:151] Top shape: 20 (20)
I0505 14:38:39.619683  7393 net.cpp:159] Memory required for data: 8080
I0505 14:38:39.619689  7393 layer_factory.hpp:77] Creating layer conv1
I0505 14:38:39.619704  7393 net.cpp:94] Creating Layer conv1
I0505 14:38:39.619709  7393 net.cpp:435] conv1 <- data
I0505 14:38:39.619715  7393 net.cpp:409] conv1 -> conv1
I0505 14:38:39.621526  7393 net.cpp:144] Setting up conv1
I0505 14:38:39.621539  7393 net.cpp:151] Top shape: 20 64 10 10 (128000)
I0505 14:38:39.621543  7393 net.cpp:159] Memory required for data: 520080
I0505 14:38:39.621552  7393 layer_factory.hpp:77] Creating layer relu1
I0505 14:38:39.621559  7393 net.cpp:94] Creating Layer relu1
I0505 14:38:39.621563  7393 net.cpp:435] relu1 <- conv1
I0505 14:38:39.621567  7393 net.cpp:396] relu1 -> conv1 (in-place)
I0505 14:38:39.621574  7393 net.cpp:144] Setting up relu1
I0505 14:38:39.621579  7393 net.cpp:151] Top shape: 20 64 10 10 (128000)
I0505 14:38:39.621582  7393 net.cpp:159] Memory required for data: 1032080
I0505 14:38:39.621585  7393 layer_factory.hpp:77] Creating layer pool1
I0505 14:38:39.621590  7393 net.cpp:94] Creating Layer pool1
I0505 14:38:39.621593  7393 net.cpp:435] pool1 <- conv1
I0505 14:38:39.621598  7393 net.cpp:409] pool1 -> pool1
I0505 14:38:39.621665  7393 net.cpp:144] Setting up pool1
I0505 14:38:39.621672  7393 net.cpp:151] Top shape: 20 64 5 5 (32000)
I0505 14:38:39.621675  7393 net.cpp:159] Memory required for data: 1160080
I0505 14:38:39.621678  7393 layer_factory.hpp:77] Creating layer conv2
I0505 14:38:39.621686  7393 net.cpp:94] Creating Layer conv2
I0505 14:38:39.621690  7393 net.cpp:435] conv2 <- pool1
I0505 14:38:39.621695  7393 net.cpp:409] conv2 -> conv2
I0505 14:38:39.630880  7393 net.cpp:144] Setting up conv2
I0505 14:38:39.630897  7393 net.cpp:151] Top shape: 20 128 5 5 (64000)
I0505 14:38:39.630901  7393 net.cpp:159] Memory required for data: 1416080
I0505 14:38:39.630909  7393 layer_factory.hpp:77] Creating layer relu2
I0505 14:38:39.630915  7393 net.cpp:94] Creating Layer relu2
I0505 14:38:39.630919  7393 net.cpp:435] relu2 <- conv2
I0505 14:38:39.630923  7393 net.cpp:396] relu2 -> conv2 (in-place)
I0505 14:38:39.630930  7393 net.cpp:144] Setting up relu2
I0505 14:38:39.630935  7393 net.cpp:151] Top shape: 20 128 5 5 (64000)
I0505 14:38:39.630937  7393 net.cpp:159] Memory required for data: 1672080
I0505 14:38:39.630940  7393 layer_factory.hpp:77] Creating layer conv3
I0505 14:38:39.630949  7393 net.cpp:94] Creating Layer conv3
I0505 14:38:39.630952  7393 net.cpp:435] conv3 <- conv2
I0505 14:38:39.630956  7393 net.cpp:409] conv3 -> conv3
I0505 14:38:39.645687  7393 net.cpp:144] Setting up conv3
I0505 14:38:39.645725  7393 net.cpp:151] Top shape: 20 128 5 5 (64000)
I0505 14:38:39.645736  7393 net.cpp:159] Memory required for data: 1928080
I0505 14:38:39.645759  7393 layer_factory.hpp:77] Creating layer relu3
I0505 14:38:39.645776  7393 net.cpp:94] Creating Layer relu3
I0505 14:38:39.645786  7393 net.cpp:435] relu3 <- conv3
I0505 14:38:39.645798  7393 net.cpp:396] relu3 -> conv3 (in-place)
I0505 14:38:39.645817  7393 net.cpp:144] Setting up relu3
I0505 14:38:39.645828  7393 net.cpp:151] Top shape: 20 128 5 5 (64000)
I0505 14:38:39.645838  7393 net.cpp:159] Memory required for data: 2184080
I0505 14:38:39.645845  7393 layer_factory.hpp:77] Creating layer pool3
I0505 14:38:39.645860  7393 net.cpp:94] Creating Layer pool3
I0505 14:38:39.645869  7393 net.cpp:435] pool3 <- conv3
I0505 14:38:39.645881  7393 net.cpp:409] pool3 -> pool3
I0505 14:38:39.645980  7393 net.cpp:144] Setting up pool3
I0505 14:38:39.645998  7393 net.cpp:151] Top shape: 20 128 2 2 (10240)
I0505 14:38:39.646008  7393 net.cpp:159] Memory required for data: 2225040
I0505 14:38:39.646015  7393 layer_factory.hpp:77] Creating layer ip1
I0505 14:38:39.646031  7393 net.cpp:94] Creating Layer ip1
I0505 14:38:39.646040  7393 net.cpp:435] ip1 <- pool3
I0505 14:38:39.646054  7393 net.cpp:409] ip1 -> ip1
I0505 14:38:39.652420  7393 net.cpp:144] Setting up ip1
I0505 14:38:39.652429  7393 net.cpp:151] Top shape: 20 512 (10240)
I0505 14:38:39.652433  7393 net.cpp:159] Memory required for data: 2266000
I0505 14:38:39.652438  7393 layer_factory.hpp:77] Creating layer ip2
I0505 14:38:39.652444  7393 net.cpp:94] Creating Layer ip2
I0505 14:38:39.652447  7393 net.cpp:435] ip2 <- ip1
I0505 14:38:39.652452  7393 net.cpp:409] ip2 -> ip2
I0505 14:38:39.655689  7393 net.cpp:144] Setting up ip2
I0505 14:38:39.655699  7393 net.cpp:151] Top shape: 20 256 (5120)
I0505 14:38:39.655701  7393 net.cpp:159] Memory required for data: 2286480
I0505 14:38:39.655709  7393 layer_factory.hpp:77] Creating layer ip3
I0505 14:38:39.655714  7393 net.cpp:94] Creating Layer ip3
I0505 14:38:39.655717  7393 net.cpp:435] ip3 <- ip2
I0505 14:38:39.655722  7393 net.cpp:409] ip3 -> ip3
I0505 14:38:39.656160  7393 net.cpp:144] Setting up ip3
I0505 14:38:39.656168  7393 net.cpp:151] Top shape: 20 50 (1000)
I0505 14:38:39.656172  7393 net.cpp:159] Memory required for data: 2290480
I0505 14:38:39.656177  7393 layer_factory.hpp:77] Creating layer loss
I0505 14:38:39.656183  7393 net.cpp:94] Creating Layer loss
I0505 14:38:39.656185  7393 net.cpp:435] loss <- ip3
I0505 14:38:39.656189  7393 net.cpp:435] loss <- label
I0505 14:38:39.656193  7393 net.cpp:409] loss -> loss
I0505 14:38:39.656200  7393 layer_factory.hpp:77] Creating layer loss
…
I0505 14:38:39.656651  7393 solver.cpp:181] Creating test net (#0) specified by net file: ./protocol/dis_5_100_dimension.protocol_distribution
I0505 14:38:39.656677  7393 net.cpp:323] The NetState phase (1) differed from the phase (0) specified by a rule in layer parameters
I0505 14:38:39.656757  7393 net.cpp:52] Initializing net from parameters: 
state {
  phase: TEST
}
layer {
  name: "intercept"
  type: "HDF5Data"
  top: "data"
  top: "label"
  include {
    phase: TEST
  }
  hdf5_data_param {
    source: "/home/purduethu/scratch/radon/d/deng106/CNNStatisticalModel/distributions/input/5_distributions_100_sample_size_test-distributions-path.txt"
    batch_size: 20
  }
}
layer {
  name: "conv1"
  type: "Convolution"
  bottom: "data"
  top: "conv1"
  param {
    lr_mult: 1
  }
  param {
    lr_mult: 2
  }
  convolution_param {
    num_output: 64
    pad: 2
    kernel_size: 5
    stride: 1
    weight_filler {
      type: "gaussian"
      std: 0.0001
    }
    bias_filler {
      type: "constant"
    }
  }
}
layer {
  name: "relu1"
  type: "ReLU"
  bottom: "conv1"
  top: "conv1"
}
layer {
  name: "pool1"
  type: "Pooling"
  bottom: "conv1"
  top: "pool1"
  pooling_param {
    pool: MAX
    kernel_size: 3
    stride: 2
  }
}
layer {
  name: "conv2"
  type: "Convolution"
  bottom: "pool1"
  top: "conv2"
  param {
    lr_mult: 1
  }
  param {
    lr_mult: 2
  }
  convolution_param {
    num_output: 128
    pad: 2
    kernel_size: 5
    stride: 1
    weight_filler {
      type: "gaussian"
      std: 0.01
    }
    bias_filler {
      type: "constant"
    }
  }
}
layer {
  name: "relu2"
  type: "ReLU"
  bottom: "conv2"
  top: "conv2"
}
layer {
  name: "conv3"
  type: "Convolution"
  bottom: "conv2"
  top: "conv3"
  param {
    lr_mult: 1
  }
  param {
    lr_mult: 2
  }
  convolution_param {
    num_output: 128
    pad: 2
    kernel_size: 5
    stride: 1
    weight_filler {
      type: "gaussian"
      std: 0.01
    }
    bias_filler {
      type: "constant"
    }
  }
}
layer {
  name: "relu3"
  type: "ReLU"
  bottom: "conv3"
  top: "conv3"
}
layer {
  name: "pool3"
  type: "Pooling"
  bottom: "conv3"
  top: "pool3"
  pooling_param {
    pool: AVE
    kernel_size: 3
    stride: 2
  }
}
layer {
  name: "ip1"
  type: "InnerProduct"
  bottom: "pool3"
  top: "ip1"
  param {
    lr_mult: 1
  }
  param {
    lr_mult: 2
  }
  inner_product_param {
    num_output: 512
    weight_filler {
      type: "gaussian"
      std: 0.1
    }
    bias_filler {
      type: "constant"
    }
  }
}
layer {
  name: "ip2"
  type: "InnerProduct"
  bottom: "ip1"
  top: "ip2"
  param {
    lr_mult: 1
  }
  param {
    lr_mult: 2
  }
  inner_product_param {
    num_output: 256
    weight_filler {
      type: "gaussian"
      std: 0.1
    }
    bias_filler {
      type: "constant"
    }
  }
}
layer {
  name: "ip3"
  type: "InnerProduct"
  bottom: "ip2"
  top: "ip3"
  param {
    lr_mult: 1
  }
  param {
    lr_mult: 2
  }
  inner_product_param {
    num_output: 50
    weight_filler {
      type: "gaussian"
      std: 0.1
    }
    bias_filler {
      type: "constant"
    }
  }
}
layer {
  name: "accuracy"
  type: "Accuracy"
  bottom: "ip3"
  bottom: "label"
  top: "accuracy"
  include {
    phase: TEST
  }
}
layer {
  name: "loss"
  type: "SoftmaxWithLoss"
  bottom: "ip3"
  bottom: "label"
  top: "loss"
}
I0505 14:38:39.656817  7393 layer_factory.hpp:77] Creating layer intercept
I0505 14:38:39.656826  7393 net.cpp:94] Creating Layer intercept
I0505 14:38:39.656831  7393 net.cpp:409] intercept -> data
I0505 14:38:39.656837  7393 net.cpp:409] intercept -> label
I0505 14:38:39.656842  7393 hdf5_data_layer.cpp:79] Loading list of HDF5 filenames from: /home/purduethu/scratch/radon/d/deng106/CNNStatisticalModel/distributions/input/5_distributions_100_sample_size_test-distributions-path.txt
I0505 14:38:39.656868  7393 hdf5_data_layer.cpp:93] Number of HDF5 files: 1
I0505 14:38:39.661598  7393 net.cpp:144] Setting up intercept
I0505 14:38:39.661629  7393 net.cpp:151] Top shape: 20 1 10 10 (2000)
I0505 14:38:39.661633  7393 net.cpp:151] Top shape: 20 (20)
I0505 14:38:39.661636  7393 net.cpp:159] Memory required for data: 8080
I0505 14:38:39.661643  7393 layer_factory.hpp:77] Creating layer label_intercept_1_split
I0505 14:38:39.661660  7393 net.cpp:94] Creating Layer label_intercept_1_split
I0505 14:38:39.661664  7393 net.cpp:435] label_intercept_1_split <- label
I0505 14:38:39.661670  7393 net.cpp:409] label_intercept_1_split -> label_intercept_1_split_0
I0505 14:38:39.661679  7393 net.cpp:409] label_intercept_1_split -> label_intercept_1_split_1
I0505 14:38:39.661720  7393 net.cpp:144] Setting up label_intercept_1_split
I0505 14:38:39.661726  7393 net.cpp:151] Top shape: 20 (20)
I0505 14:38:39.661731  7393 net.cpp:151] Top shape: 20 (20)
I0505 14:38:39.661732  7393 net.cpp:159] Memory required for data: 8240
I0505 14:38:39.661736  7393 layer_factory.hpp:77] Creating layer conv1
I0505 14:38:39.661746  7393 net.cpp:94] Creating Layer conv1
I0505 14:38:39.661748  7393 net.cpp:435] conv1 <- data
I0505 14:38:39.661753  7393 net.cpp:409] conv1 -> conv1
I0505 14:38:39.662590  7393 net.cpp:144] Setting up conv1
I0505 14:38:39.662605  7393 net.cpp:151] Top shape: 20 64 10 10 (128000)
I0505 14:38:39.662608  7393 net.cpp:159] Memory required for data: 520240
I0505 14:38:39.662617  7393 layer_factory.hpp:77] Creating layer relu1
I0505 14:38:39.662624  7393 net.cpp:94] Creating Layer relu1
I0505 14:38:39.662627  7393 net.cpp:435] relu1 <- conv1
I0505 14:38:39.662631  7393 net.cpp:396] relu1 -> conv1 (in-place)
I0505 14:38:39.662638  7393 net.cpp:144] Setting up relu1
I0505 14:38:39.662642  7393 net.cpp:151] Top shape: 20 64 10 10 (128000)
I0505 14:38:39.662645  7393 net.cpp:159] Memory required for data: 1032240
I0505 14:38:39.662648  7393 layer_factory.hpp:77] Creating layer pool1
I0505 14:38:39.662654  7393 net.cpp:94] Creating Layer pool1
I0505 14:38:39.662657  7393 net.cpp:435] pool1 <- conv1
I0505 14:38:39.662662  7393 net.cpp:409] pool1 -> pool1
I0505 14:38:39.662719  7393 net.cpp:144] Setting up pool1
I0505 14:38:39.662726  7393 net.cpp:151] Top shape: 20 64 5 5 (32000)
I0505 14:38:39.662729  7393 net.cpp:159] Memory required for data: 1160240
I0505 14:38:39.662732  7393 layer_factory.hpp:77] Creating layer conv2
I0505 14:38:39.662739  7393 net.cpp:94] Creating Layer conv2
I0505 14:38:39.662744  7393 net.cpp:435] conv2 <- pool1
I0505 14:38:39.662748  7393 net.cpp:409] conv2 -> conv2
I0505 14:38:39.670224  7393 net.cpp:144] Setting up conv2
I0505 14:38:39.670239  7393 net.cpp:151] Top shape: 20 128 5 5 (64000)
I0505 14:38:39.670243  7393 net.cpp:159] Memory required for data: 1416240
I0505 14:38:39.670251  7393 layer_factory.hpp:77] Creating layer relu2
I0505 14:38:39.670258  7393 net.cpp:94] Creating Layer relu2
I0505 14:38:39.670267  7393 net.cpp:435] relu2 <- conv2
I0505 14:38:39.670272  7393 net.cpp:396] relu2 -> conv2 (in-place)
I0505 14:38:39.670279  7393 net.cpp:144] Setting up relu2
I0505 14:38:39.670284  7393 net.cpp:151] Top shape: 20 128 5 5 (64000)
I0505 14:38:39.670286  7393 net.cpp:159] Memory required for data: 1672240
I0505 14:38:39.670289  7393 layer_factory.hpp:77] Creating layer conv3
I0505 14:38:39.670297  7393 net.cpp:94] Creating Layer conv3
I0505 14:38:39.670300  7393 net.cpp:435] conv3 <- conv2
I0505 14:38:39.670305  7393 net.cpp:409] conv3 -> conv3
I0505 14:38:39.682983  7393 net.cpp:144] Setting up conv3
I0505 14:38:39.683020  7393 net.cpp:151] Top shape: 20 128 5 5 (64000)
I0505 14:38:39.683032  7393 net.cpp:159] Memory required for data: 1928240
I0505 14:38:39.683054  7393 layer_factory.hpp:77] Creating layer relu3
I0505 14:38:39.683073  7393 net.cpp:94] Creating Layer relu3
I0505 14:38:39.683082  7393 net.cpp:435] relu3 <- conv3
I0505 14:38:39.683094  7393 net.cpp:396] relu3 -> conv3 (in-place)
I0505 14:38:39.683113  7393 net.cpp:144] Setting up relu3
I0505 14:38:39.683130  7393 net.cpp:151] Top shape: 20 128 5 5 (64000)
I0505 14:38:39.683133  7393 net.cpp:159] Memory required for data: 2184240
I0505 14:38:39.683136  7393 layer_factory.hpp:77] Creating layer pool3
I0505 14:38:39.683141  7393 net.cpp:94] Creating Layer pool3
I0505 14:38:39.683145  7393 net.cpp:435] pool3 <- conv3
I0505 14:38:39.683148  7393 net.cpp:409] pool3 -> pool3
I0505 14:38:39.683189  7393 net.cpp:144] Setting up pool3
I0505 14:38:39.683197  7393 net.cpp:151] Top shape: 20 128 2 2 (10240)
I0505 14:38:39.683199  7393 net.cpp:159] Memory required for data: 2225200
I0505 14:38:39.683202  7393 layer_factory.hpp:77] Creating layer ip1
I0505 14:38:39.683208  7393 net.cpp:94] Creating Layer ip1
I0505 14:38:39.683212  7393 net.cpp:435] ip1 <- pool3
I0505 14:38:39.683217  7393 net.cpp:409] ip1 -> ip1
I0505 14:38:39.689466  7393 net.cpp:144] Setting up ip1
I0505 14:38:39.689476  7393 net.cpp:151] Top shape: 20 512 (10240)
I0505 14:38:39.689479  7393 net.cpp:159] Memory required for data: 2266160
I0505 14:38:39.689484  7393 layer_factory.hpp:77] Creating layer ip2
I0505 14:38:39.689491  7393 net.cpp:94] Creating Layer ip2
I0505 14:38:39.689494  7393 net.cpp:435] ip2 <- ip1
I0505 14:38:39.689498  7393 net.cpp:409] ip2 -> ip2
I0505 14:38:39.692703  7393 net.cpp:144] Setting up ip2
I0505 14:38:39.692713  7393 net.cpp:151] Top shape: 20 256 (5120)
I0505 14:38:39.692715  7393 net.cpp:159] Memory required for data: 2286640
I0505 14:38:39.692723  7393 layer_factory.hpp:77] Creating layer ip3
I0505 14:38:39.692728  7393 net.cpp:94] Creating Layer ip3
I0505 14:38:39.692731  7393 net.cpp:435] ip3 <- ip2
I0505 14:38:39.692735  7393 net.cpp:409] ip3 -> ip3
I0505 14:38:39.693184  7393 net.cpp:144] Setting up ip3
I0505 14:38:39.693192  7393 net.cpp:151] Top shape: 20 50 (1000)
I0505 14:38:39.693194  7393 net.cpp:159] Memory required for data: 2290640
I0505 14:38:39.693198  7393 layer_factory.hpp:77] Creating layer ip3_ip3_0_split
I0505 14:38:39.693204  7393 net.cpp:94] Creating Layer ip3_ip3_0_split
I0505 14:38:39.693207  7393 net.cpp:435] ip3_ip3_0_split <- ip3
I0505 14:38:39.693210  7393 net.cpp:409] ip3_ip3_0_split -> ip3_ip3_0_split_0
I0505 14:38:39.693215  7393 net.cpp:409] ip3_ip3_0_split -> ip3_ip3_0_split_1
I0505 14:38:39.693256  7393 net.cpp:144] Setting up ip3_ip3_0_split
I0505 14:38:39.693262  7393 net.cpp:151] Top shape: 20 50 (1000)
I0505 14:38:39.693265  7393 net.cpp:151] Top shape: 20 50 (1000)
I0505 14:38:39.693269  7393 net.cpp:159] Memory required for data: 2298640
I0505 14:38:39.693271  7393 layer_factory.hpp:77] Creating layer accuracy
I0505 14:38:39.693276  7393 net.cpp:94] Creating Layer accuracy
I0505 14:38:39.693279  7393 net.cpp:435] accuracy <- ip3_ip3_0_split_0
I0505 14:38:39.693282  7393 net.cpp:435] accuracy <- label_intercept_1_split_0
I0505 14:38:39.693287  7393 net.cpp:409] accuracy -> accuracy
…
