…
I0507 20:08:10.600805  6855 net.cpp:323] The NetState phase (0) differed from the phase (1) specified by a rule in layer intercept
I0507 20:08:10.600823  6855 net.cpp:323] The NetState phase (0) differed from the phase (1) specified by a rule in layer loss
I0507 20:08:10.600914  6855 net.cpp:52] Initializing net from parameters: 
state {
  phase: TRAIN
}
layer {
  name: "parameters"
  type: "HDF5Data"
  top: "data"
  top: "label"
  include {
    phase: TRAIN
  }
  hdf5_data_param {
    source: "/home/purduethu/scratch/radon/d/deng106/CNNStatisticalModel/distributions/input/50_distributions_100_sample_size_train-parameters-path.txt"
    batch_size: 20
  }
}
layer {
  name: "conv1"
  type: "Convolution"
  bottom: "data"
  top: "conv1"
  param {
    lr_mult: 1
  }
  param {
    lr_mult: 2
  }
  convolution_param {
    num_output: 64
    pad: 2
    kernel_size: 5
    stride: 1
    weight_filler {
      type: "gaussian"
      std: 0.0001
    }
    bias_filler {
      type: "constant"
    }
  }
}
layer {
  name: "relu1"
  type: "ReLU"
  bottom: "conv1"
  top: "conv1"
}
layer {
  name: "conv2"
  type: "Convolution"
  bottom: "conv1"
  top: "conv2"
  param {
    lr_mult: 1
  }
  param {
    lr_mult: 2
  }
  convolution_param {
    num_output: 64
    pad: 2
    kernel_size: 5
    stride: 1
    weight_filler {
      type: "gaussian"
      std: 0.01
    }
    bias_filler {
      type: "constant"
    }
  }
}
layer {
  name: "relu2"
  type: "ReLU"
  bottom: "conv2"
  top: "conv2"
}
layer {
  name: "pool2"
  type: "Pooling"
  bottom: "conv2"
  top: "pool2"
  pooling_param {
    pool: MAX
    kernel_size: 3
    stride: 2
  }
}
layer {
  name: "conv3"
  type: "Convolution"
  bottom: "pool2"
  top: "conv3"
  param {
    lr_mult: 1
  }
  param {
    lr_mult: 2
  }
  convolution_param {
    num_output: 64
    pad: 2
    kernel_size: 5
    stride: 1
    weight_filler {
      type: "gaussian"
      std: 0.01
    }
    bias_filler {
      type: "constant"
    }
  }
}
layer {
  name: "relu3"
  type: "ReLU"
  bottom: "conv3"
  top: "conv3"
}
layer {
  name: "conv4"
  type: "Convolution"
  bottom: "conv3"
  top: "conv4"
  param {
    lr_mult: 1
  }
  param {
    lr_mult: 2
  }
  convolution_param {
    num_output: 64
    pad: 2
    kernel_size: 5
    stride: 1
    weight_filler {
      type: "gaussian"
      std: 0.01
    }
    bias_filler {
      type: "constant"
    }
  }
}
layer {
  name: "relu4"
  type: "ReLU"
  bottom: "conv4"
  top: "conv4"
}
layer {
  name: "conv5"
  type: "Convolution"
  bottom: "conv4"
  top: "conv5"
  param {
    lr_mult: 1
  }
  param {
    lr_mult: 2
  }
  convolution_param {
    num_output: 64
    pad: 2
    kernel_size: 5
    stride: 1
    weight_filler {
      type: "gaussian"
      std: 0.01
    }
    bias_filler {
      type: "constant"
    }
  }
}
layer {
  name: "relu5"
  type: "ReLU"
  bottom: "conv5"
  top: "conv5"
}
layer {
  name: "pool5"
  type: "Pooling"
  bottom: "conv5"
  top: "pool5"
  pooling_param {
    pool: AVE
    kernel_size: 3
    stride: 2
  }
}
layer {
  name: "ip1"
  type: "InnerProduct"
  bottom: "pool5"
  top: "ip1"
  param {
    lr_mult: 1
  }
  param {
    lr_mult: 2
  }
  inner_product_param {
    num_output: 64
    weight_filler {
      type: "gaussian"
      std: 0.1
    }
    bias_filler {
      type: "constant"
    }
  }
}
layer {
  name: "ip2"
  type: "InnerProduct"
  bottom: "ip1"
  top: "ip2"
  param {
    lr_mult: 1
  }
  param {
    lr_mult: 2
  }
  inner_product_param {
    num_output: 64
    weight_filler {
      type: "gaussian"
      std: 0.1
    }
    bias_filler {
      type: "constant"
    }
  }
}
layer {
  name: "ip3"
  type: "InnerProduct"
  bottom: "ip2"
  top: "ip3"
  param {
    lr_mult: 1
  }
  param {
    lr_mult: 2
  }
  inner_product_param {
    num_output: 1
    weight_filler {
      type: "gaussian"
      std: 0.1
    }
    bias_filler {
      type: "constant"
    }
  }
}
layer {
  name: "loss"
  type: "HuberLoss"
  bottom: "ip3"
  bottom: "label"
  top: "loss"
  include {
    phase: TRAIN
  }
}
I0507 20:08:10.600970  6855 layer_factory.hpp:77] Creating layer parameters
I0507 20:08:10.600987  6855 net.cpp:94] Creating Layer parameters
I0507 20:08:10.600993  6855 net.cpp:409] parameters -> data
I0507 20:08:10.601002  6855 net.cpp:409] parameters -> label
I0507 20:08:10.601009  6855 hdf5_data_layer.cpp:79] Loading list of HDF5 filenames from: /home/purduethu/scratch/radon/d/deng106/CNNStatisticalModel/distributions/input/50_distributions_100_sample_size_train-parameters-path.txt
I0507 20:08:10.601025  6855 hdf5_data_layer.cpp:93] Number of HDF5 files: 1
I0507 20:08:10.601577  6855 hdf5.cpp:32] Datatype class: H5T_FLOAT
I0507 20:08:10.768978  6855 net.cpp:144] Setting up parameters
I0507 20:08:10.769011  6855 net.cpp:151] Top shape: 20 1 10 10 (2000)
I0507 20:08:10.769017  6855 net.cpp:151] Top shape: 20 (20)
I0507 20:08:10.769021  6855 net.cpp:159] Memory required for data: 8080
I0507 20:08:10.769027  6855 layer_factory.hpp:77] Creating layer conv1
I0507 20:08:10.769050  6855 net.cpp:94] Creating Layer conv1
I0507 20:08:10.769055  6855 net.cpp:435] conv1 <- data
I0507 20:08:10.769062  6855 net.cpp:409] conv1 -> conv1
I0507 20:08:10.773183  6855 net.cpp:144] Setting up conv1
I0507 20:08:10.773200  6855 net.cpp:151] Top shape: 20 64 10 10 (128000)
I0507 20:08:10.773205  6855 net.cpp:159] Memory required for data: 520080
I0507 20:08:10.773214  6855 layer_factory.hpp:77] Creating layer relu1
I0507 20:08:10.773223  6855 net.cpp:94] Creating Layer relu1
I0507 20:08:10.773227  6855 net.cpp:435] relu1 <- conv1
I0507 20:08:10.773232  6855 net.cpp:396] relu1 -> conv1 (in-place)
I0507 20:08:10.773244  6855 net.cpp:144] Setting up relu1
I0507 20:08:10.773249  6855 net.cpp:151] Top shape: 20 64 10 10 (128000)
I0507 20:08:10.773253  6855 net.cpp:159] Memory required for data: 1032080
I0507 20:08:10.773257  6855 layer_factory.hpp:77] Creating layer conv2
I0507 20:08:10.773265  6855 net.cpp:94] Creating Layer conv2
I0507 20:08:10.773269  6855 net.cpp:435] conv2 <- conv1
I0507 20:08:10.773275  6855 net.cpp:409] conv2 -> conv2
I0507 20:08:10.780633  6855 net.cpp:144] Setting up conv2
I0507 20:08:10.780648  6855 net.cpp:151] Top shape: 20 64 10 10 (128000)
I0507 20:08:10.780652  6855 net.cpp:159] Memory required for data: 1544080
I0507 20:08:10.780660  6855 layer_factory.hpp:77] Creating layer relu2
I0507 20:08:10.780668  6855 net.cpp:94] Creating Layer relu2
I0507 20:08:10.780673  6855 net.cpp:435] relu2 <- conv2
I0507 20:08:10.780678  6855 net.cpp:396] relu2 -> conv2 (in-place)
I0507 20:08:10.780684  6855 net.cpp:144] Setting up relu2
I0507 20:08:10.780689  6855 net.cpp:151] Top shape: 20 64 10 10 (128000)
I0507 20:08:10.780694  6855 net.cpp:159] Memory required for data: 2056080
I0507 20:08:10.780697  6855 layer_factory.hpp:77] Creating layer pool2
I0507 20:08:10.780710  6855 net.cpp:94] Creating Layer pool2
I0507 20:08:10.780714  6855 net.cpp:435] pool2 <- conv2
I0507 20:08:10.780719  6855 net.cpp:409] pool2 -> pool2
I0507 20:08:10.780771  6855 net.cpp:144] Setting up pool2
I0507 20:08:10.780778  6855 net.cpp:151] Top shape: 20 64 5 5 (32000)
I0507 20:08:10.780782  6855 net.cpp:159] Memory required for data: 2184080
I0507 20:08:10.780786  6855 layer_factory.hpp:77] Creating layer conv3
I0507 20:08:10.780794  6855 net.cpp:94] Creating Layer conv3
I0507 20:08:10.780799  6855 net.cpp:435] conv3 <- pool2
I0507 20:08:10.780804  6855 net.cpp:409] conv3 -> conv3
I0507 20:08:10.785632  6855 net.cpp:144] Setting up conv3
I0507 20:08:10.785646  6855 net.cpp:151] Top shape: 20 64 5 5 (32000)
I0507 20:08:10.785651  6855 net.cpp:159] Memory required for data: 2312080
I0507 20:08:10.785660  6855 layer_factory.hpp:77] Creating layer relu3
I0507 20:08:10.785666  6855 net.cpp:94] Creating Layer relu3
I0507 20:08:10.785670  6855 net.cpp:435] relu3 <- conv3
I0507 20:08:10.785676  6855 net.cpp:396] relu3 -> conv3 (in-place)
I0507 20:08:10.785683  6855 net.cpp:144] Setting up relu3
I0507 20:08:10.785688  6855 net.cpp:151] Top shape: 20 64 5 5 (32000)
I0507 20:08:10.785691  6855 net.cpp:159] Memory required for data: 2440080
I0507 20:08:10.785696  6855 layer_factory.hpp:77] Creating layer conv4
I0507 20:08:10.785704  6855 net.cpp:94] Creating Layer conv4
I0507 20:08:10.785708  6855 net.cpp:435] conv4 <- conv3
I0507 20:08:10.785713  6855 net.cpp:409] conv4 -> conv4
I0507 20:08:10.790050  6855 net.cpp:144] Setting up conv4
I0507 20:08:10.790065  6855 net.cpp:151] Top shape: 20 64 5 5 (32000)
I0507 20:08:10.790068  6855 net.cpp:159] Memory required for data: 2568080
I0507 20:08:10.790076  6855 layer_factory.hpp:77] Creating layer relu4
I0507 20:08:10.790081  6855 net.cpp:94] Creating Layer relu4
I0507 20:08:10.790086  6855 net.cpp:435] relu4 <- conv4
I0507 20:08:10.790091  6855 net.cpp:396] relu4 -> conv4 (in-place)
I0507 20:08:10.790098  6855 net.cpp:144] Setting up relu4
I0507 20:08:10.790103  6855 net.cpp:151] Top shape: 20 64 5 5 (32000)
I0507 20:08:10.790107  6855 net.cpp:159] Memory required for data: 2696080
I0507 20:08:10.790110  6855 layer_factory.hpp:77] Creating layer conv5
I0507 20:08:10.790119  6855 net.cpp:94] Creating Layer conv5
I0507 20:08:10.790122  6855 net.cpp:435] conv5 <- conv4
I0507 20:08:10.790128  6855 net.cpp:409] conv5 -> conv5
I0507 20:08:10.794905  6855 net.cpp:144] Setting up conv5
I0507 20:08:10.794919  6855 net.cpp:151] Top shape: 20 64 5 5 (32000)
I0507 20:08:10.794924  6855 net.cpp:159] Memory required for data: 2824080
I0507 20:08:10.794932  6855 layer_factory.hpp:77] Creating layer relu5
I0507 20:08:10.794939  6855 net.cpp:94] Creating Layer relu5
I0507 20:08:10.794944  6855 net.cpp:435] relu5 <- conv5
I0507 20:08:10.794948  6855 net.cpp:396] relu5 -> conv5 (in-place)
I0507 20:08:10.794955  6855 net.cpp:144] Setting up relu5
I0507 20:08:10.794960  6855 net.cpp:151] Top shape: 20 64 5 5 (32000)
I0507 20:08:10.794963  6855 net.cpp:159] Memory required for data: 2952080
I0507 20:08:10.794967  6855 layer_factory.hpp:77] Creating layer pool5
I0507 20:08:10.794972  6855 net.cpp:94] Creating Layer pool5
I0507 20:08:10.794976  6855 net.cpp:435] pool5 <- conv5
I0507 20:08:10.794981  6855 net.cpp:409] pool5 -> pool5
I0507 20:08:10.795017  6855 net.cpp:144] Setting up pool5
I0507 20:08:10.795025  6855 net.cpp:151] Top shape: 20 64 2 2 (5120)
I0507 20:08:10.795028  6855 net.cpp:159] Memory required for data: 2972560
I0507 20:08:10.795032  6855 layer_factory.hpp:77] Creating layer ip1
I0507 20:08:10.795042  6855 net.cpp:94] Creating Layer ip1
I0507 20:08:10.795047  6855 net.cpp:435] ip1 <- pool5
I0507 20:08:10.795053  6855 net.cpp:409] ip1 -> ip1
I0507 20:08:10.796370  6855 net.cpp:144] Setting up ip1
I0507 20:08:10.796383  6855 net.cpp:151] Top shape: 20 64 (1280)
I0507 20:08:10.796388  6855 net.cpp:159] Memory required for data: 2977680
I0507 20:08:10.796396  6855 layer_factory.hpp:77] Creating layer ip2
I0507 20:08:10.796402  6855 net.cpp:94] Creating Layer ip2
I0507 20:08:10.796411  6855 net.cpp:435] ip2 <- ip1
I0507 20:08:10.796418  6855 net.cpp:409] ip2 -> ip2
I0507 20:08:10.796634  6855 net.cpp:144] Setting up ip2
I0507 20:08:10.796644  6855 net.cpp:151] Top shape: 20 64 (1280)
I0507 20:08:10.796648  6855 net.cpp:159] Memory required for data: 2982800
I0507 20:08:10.796654  6855 layer_factory.hpp:77] Creating layer ip3
I0507 20:08:10.796661  6855 net.cpp:94] Creating Layer ip3
I0507 20:08:10.796665  6855 net.cpp:435] ip3 <- ip2
I0507 20:08:10.796670  6855 net.cpp:409] ip3 -> ip3
I0507 20:08:10.796772  6855 net.cpp:144] Setting up ip3
I0507 20:08:10.796778  6855 net.cpp:151] Top shape: 20 1 (20)
I0507 20:08:10.796782  6855 net.cpp:159] Memory required for data: 2982880
I0507 20:08:10.796787  6855 layer_factory.hpp:77] Creating layer loss
I0507 20:08:10.796795  6855 net.cpp:94] Creating Layer loss
I0507 20:08:10.796799  6855 net.cpp:435] loss <- ip3
I0507 20:08:10.796803  6855 net.cpp:435] loss <- label
I0507 20:08:10.796808  6855 net.cpp:409] loss -> loss
I0507 20:08:10.796855  6855 net.cpp:144] Setting up loss
…
I0507 20:08:10.858129  6855 net.cpp:323] The NetState phase (0) differed from the phase (1) specified by a rule in layer intercept
I0507 20:08:10.858145  6855 net.cpp:323] The NetState phase (0) differed from the phase (1) specified by a rule in layer accuracy
I0507 20:08:10.858233  6855 net.cpp:52] Initializing net from parameters: 
state {
  phase: TRAIN
}
layer {
  name: "parameters"
  type: "HDF5Data"
  top: "data"
  top: "label"
  include {
    phase: TRAIN
  }
  hdf5_data_param {
    source: "/home/purduethu/scratch/radon/d/deng106/CNNStatisticalModel/distributions/input/50_distributions_100_sample_size_train-distributions-path.txt"
    batch_size: 20
  }
}
layer {
  name: "conv1"
  type: "Convolution"
  bottom: "data"
  top: "conv1"
  param {
    lr_mult: 1
  }
  param {
    lr_mult: 2
  }
  convolution_param {
    num_output: 64
    pad: 2
    kernel_size: 5
    stride: 1
    weight_filler {
      type: "gaussian"
      std: 0.0001
    }
    bias_filler {
      type: "constant"
    }
  }
}
layer {
  name: "relu1"
  type: "ReLU"
  bottom: "conv1"
  top: "conv1"
}
layer {
  name: "conv2"
  type: "Convolution"
  bottom: "conv1"
  top: "conv2"
  param {
    lr_mult: 1
  }
  param {
    lr_mult: 2
  }
  convolution_param {
    num_output: 64
    pad: 2
    kernel_size: 5
    stride: 1
    weight_filler {
      type: "gaussian"
      std: 0.01
    }
    bias_filler {
      type: "constant"
    }
  }
}
layer {
  name: "relu2"
  type: "ReLU"
  bottom: "conv2"
  top: "conv2"
}
layer {
  name: "pool2"
  type: "Pooling"
  bottom: "conv2"
  top: "pool2"
  pooling_param {
    pool: MAX
    kernel_size: 3
    stride: 2
  }
}
layer {
  name: "conv3"
  type: "Convolution"
  bottom: "pool2"
  top: "conv3"
  param {
    lr_mult: 1
  }
  param {
    lr_mult: 2
  }
  convolution_param {
    num_output: 64
    pad: 2
    kernel_size: 5
    stride: 1
    weight_filler {
      type: "gaussian"
      std: 0.01
    }
    bias_filler {
      type: "constant"
    }
  }
}
layer {
  name: "relu3"
  type: "ReLU"
  bottom: "conv3"
  top: "conv3"
}
layer {
  name: "conv4"
  type: "Convolution"
  bottom: "conv3"
  top: "conv4"
  param {
    lr_mult: 1
  }
  param {
    lr_mult: 2
  }
  convolution_param {
    num_output: 64
    pad: 2
    kernel_size: 5
    stride: 1
    weight_filler {
      type: "gaussian"
      std: 0.01
    }
    bias_filler {
      type: "constant"
    }
  }
}
layer {
  name: "relu4"
  type: "ReLU"
  bottom: "conv4"
  top: "conv4"
}
layer {
  name: "conv5"
  type: "Convolution"
  bottom: "conv4"
  top: "conv5"
  param {
    lr_mult: 1
  }
  param {
    lr_mult: 2
  }
  convolution_param {
    num_output: 64
    pad: 2
    kernel_size: 5
    stride: 1
    weight_filler {
      type: "gaussian"
      std: 0.01
    }
    bias_filler {
      type: "constant"
    }
  }
}
layer {
  name: "relu5"
  type: "ReLU"
  bottom: "conv5"
  top: "conv5"
}
layer {
  name: "pool5"
  type: "Pooling"
  bottom: "conv5"
  top: "pool5"
  pooling_param {
    pool: AVE
    kernel_size: 3
    stride: 2
  }
}
layer {
  name: "ip1"
  type: "InnerProduct"
  bottom: "pool5"
  top: "ip1"
  param {
    lr_mult: 1
  }
  param {
    lr_mult: 2
  }
  inner_product_param {
    num_output: 64
    weight_filler {
      type: "gaussian"
      std: 0.1
    }
    bias_filler {
      type: "constant"
    }
  }
}
layer {
  name: "ip2"
  type: "InnerProduct"
  bottom: "ip1"
  top: "ip2"
  param {
    lr_mult: 1
  }
  param {
    lr_mult: 2
  }
  inner_product_param {
    num_output: 64
    weight_filler {
      type: "gaussian"
      std: 0.1
    }
    bias_filler {
      type: "constant"
    }
  }
}
layer {
  name: "ip3"
  type: "InnerProduct"
  bottom: "ip2"
  top: "ip3"
  param {
    lr_mult: 1
  }
  param {
    lr_mult: 2
  }
  inner_product_param {
    num_output: 50
    weight_filler {
      type: "gaussian"
      std: 0.1
    }
    bias_filler {
      type: "constant"
    }
  }
}
layer {
  name: "loss"
  type: "SoftmaxWithLoss"
  bottom: "ip3"
  bottom: "label"
  top: "loss"
}
I0507 20:08:10.858288  6855 layer_factory.hpp:77] Creating layer parameters
I0507 20:08:10.858297  6855 net.cpp:94] Creating Layer parameters
I0507 20:08:10.858301  6855 net.cpp:409] parameters -> data
I0507 20:08:10.858309  6855 net.cpp:409] parameters -> label
I0507 20:08:10.858315  6855 hdf5_data_layer.cpp:79] Loading list of HDF5 filenames from: /home/purduethu/scratch/radon/d/deng106/CNNStatisticalModel/distributions/input/50_distributions_100_sample_size_train-distributions-path.txt
I0507 20:08:10.858332  6855 hdf5_data_layer.cpp:93] Number of HDF5 files: 1
I0507 20:08:11.017061  6855 hdf5.cpp:35] Datatype class: H5T_INTEGER
I0507 20:08:11.020179  6855 net.cpp:144] Setting up parameters
I0507 20:08:11.020200  6855 net.cpp:151] Top shape: 20 1 10 10 (2000)
I0507 20:08:11.020206  6855 net.cpp:151] Top shape: 20 (20)
I0507 20:08:11.020210  6855 net.cpp:159] Memory required for data: 8080
I0507 20:08:11.020216  6855 layer_factory.hpp:77] Creating layer conv1
I0507 20:08:11.020233  6855 net.cpp:94] Creating Layer conv1
I0507 20:08:11.020237  6855 net.cpp:435] conv1 <- data
I0507 20:08:11.020246  6855 net.cpp:409] conv1 -> conv1
I0507 20:08:11.021986  6855 net.cpp:144] Setting up conv1
I0507 20:08:11.022001  6855 net.cpp:151] Top shape: 20 64 10 10 (128000)
I0507 20:08:11.022004  6855 net.cpp:159] Memory required for data: 520080
I0507 20:08:11.022014  6855 layer_factory.hpp:77] Creating layer relu1
I0507 20:08:11.022023  6855 net.cpp:94] Creating Layer relu1
I0507 20:08:11.022027  6855 net.cpp:435] relu1 <- conv1
I0507 20:08:11.022032  6855 net.cpp:396] relu1 -> conv1 (in-place)
I0507 20:08:11.022040  6855 net.cpp:144] Setting up relu1
I0507 20:08:11.022045  6855 net.cpp:151] Top shape: 20 64 10 10 (128000)
I0507 20:08:11.022049  6855 net.cpp:159] Memory required for data: 1032080
I0507 20:08:11.022053  6855 layer_factory.hpp:77] Creating layer conv2
I0507 20:08:11.022060  6855 net.cpp:94] Creating Layer conv2
I0507 20:08:11.022064  6855 net.cpp:435] conv2 <- conv1
I0507 20:08:11.022069  6855 net.cpp:409] conv2 -> conv2
I0507 20:08:11.027392  6855 net.cpp:144] Setting up conv2
I0507 20:08:11.027406  6855 net.cpp:151] Top shape: 20 64 10 10 (128000)
I0507 20:08:11.027411  6855 net.cpp:159] Memory required for data: 1544080
I0507 20:08:11.027420  6855 layer_factory.hpp:77] Creating layer relu2
I0507 20:08:11.027427  6855 net.cpp:94] Creating Layer relu2
I0507 20:08:11.027431  6855 net.cpp:435] relu2 <- conv2
I0507 20:08:11.027436  6855 net.cpp:396] relu2 -> conv2 (in-place)
I0507 20:08:11.027443  6855 net.cpp:144] Setting up relu2
I0507 20:08:11.027448  6855 net.cpp:151] Top shape: 20 64 10 10 (128000)
I0507 20:08:11.027452  6855 net.cpp:159] Memory required for data: 2056080
I0507 20:08:11.027456  6855 layer_factory.hpp:77] Creating layer pool2
I0507 20:08:11.027462  6855 net.cpp:94] Creating Layer pool2
I0507 20:08:11.027465  6855 net.cpp:435] pool2 <- conv2
I0507 20:08:11.027470  6855 net.cpp:409] pool2 -> pool2
I0507 20:08:11.027520  6855 net.cpp:144] Setting up pool2
I0507 20:08:11.027528  6855 net.cpp:151] Top shape: 20 64 5 5 (32000)
I0507 20:08:11.027531  6855 net.cpp:159] Memory required for data: 2184080
I0507 20:08:11.027535  6855 layer_factory.hpp:77] Creating layer conv3
I0507 20:08:11.027544  6855 net.cpp:94] Creating Layer conv3
I0507 20:08:11.027547  6855 net.cpp:435] conv3 <- pool2
I0507 20:08:11.027554  6855 net.cpp:409] conv3 -> conv3
I0507 20:08:11.033289  6855 net.cpp:144] Setting up conv3
I0507 20:08:11.033303  6855 net.cpp:151] Top shape: 20 64 5 5 (32000)
I0507 20:08:11.033308  6855 net.cpp:159] Memory required for data: 2312080
I0507 20:08:11.033318  6855 layer_factory.hpp:77] Creating layer relu3
I0507 20:08:11.033324  6855 net.cpp:94] Creating Layer relu3
I0507 20:08:11.033329  6855 net.cpp:435] relu3 <- conv3
I0507 20:08:11.033334  6855 net.cpp:396] relu3 -> conv3 (in-place)
I0507 20:08:11.033340  6855 net.cpp:144] Setting up relu3
I0507 20:08:11.033345  6855 net.cpp:151] Top shape: 20 64 5 5 (32000)
I0507 20:08:11.033349  6855 net.cpp:159] Memory required for data: 2440080
I0507 20:08:11.033352  6855 layer_factory.hpp:77] Creating layer conv4
I0507 20:08:11.033361  6855 net.cpp:94] Creating Layer conv4
I0507 20:08:11.033365  6855 net.cpp:435] conv4 <- conv3
I0507 20:08:11.033370  6855 net.cpp:409] conv4 -> conv4
I0507 20:08:11.038208  6855 net.cpp:144] Setting up conv4
I0507 20:08:11.038221  6855 net.cpp:151] Top shape: 20 64 5 5 (32000)
I0507 20:08:11.038225  6855 net.cpp:159] Memory required for data: 2568080
I0507 20:08:11.038233  6855 layer_factory.hpp:77] Creating layer relu4
I0507 20:08:11.038239  6855 net.cpp:94] Creating Layer relu4
I0507 20:08:11.038244  6855 net.cpp:435] relu4 <- conv4
I0507 20:08:11.038249  6855 net.cpp:396] relu4 -> conv4 (in-place)
I0507 20:08:11.038256  6855 net.cpp:144] Setting up relu4
I0507 20:08:11.038261  6855 net.cpp:151] Top shape: 20 64 5 5 (32000)
I0507 20:08:11.038264  6855 net.cpp:159] Memory required for data: 2696080
I0507 20:08:11.038269  6855 layer_factory.hpp:77] Creating layer conv5
I0507 20:08:11.038276  6855 net.cpp:94] Creating Layer conv5
I0507 20:08:11.038280  6855 net.cpp:435] conv5 <- conv4
I0507 20:08:11.038286  6855 net.cpp:409] conv5 -> conv5
I0507 20:08:11.042675  6855 net.cpp:144] Setting up conv5
I0507 20:08:11.042688  6855 net.cpp:151] Top shape: 20 64 5 5 (32000)
I0507 20:08:11.042693  6855 net.cpp:159] Memory required for data: 2824080
I0507 20:08:11.042702  6855 layer_factory.hpp:77] Creating layer relu5
I0507 20:08:11.042708  6855 net.cpp:94] Creating Layer relu5
I0507 20:08:11.042712  6855 net.cpp:435] relu5 <- conv5
I0507 20:08:11.042717  6855 net.cpp:396] relu5 -> conv5 (in-place)
I0507 20:08:11.042724  6855 net.cpp:144] Setting up relu5
I0507 20:08:11.042729  6855 net.cpp:151] Top shape: 20 64 5 5 (32000)
I0507 20:08:11.042733  6855 net.cpp:159] Memory required for data: 2952080
I0507 20:08:11.042737  6855 layer_factory.hpp:77] Creating layer pool5
I0507 20:08:11.042742  6855 net.cpp:94] Creating Layer pool5
I0507 20:08:11.042747  6855 net.cpp:435] pool5 <- conv5
I0507 20:08:11.042752  6855 net.cpp:409] pool5 -> pool5
I0507 20:08:11.042784  6855 net.cpp:144] Setting up pool5
I0507 20:08:11.042793  6855 net.cpp:151] Top shape: 20 64 2 2 (5120)
I0507 20:08:11.042796  6855 net.cpp:159] Memory required for data: 2972560
I0507 20:08:11.042799  6855 layer_factory.hpp:77] Creating layer ip1
I0507 20:08:11.042806  6855 net.cpp:94] Creating Layer ip1
I0507 20:08:11.042810  6855 net.cpp:435] ip1 <- pool5
I0507 20:08:11.042815  6855 net.cpp:409] ip1 -> ip1
I0507 20:08:11.043323  6855 net.cpp:144] Setting up ip1
I0507 20:08:11.043331  6855 net.cpp:151] Top shape: 20 64 (1280)
I0507 20:08:11.043335  6855 net.cpp:159] Memory required for data: 2977680
I0507 20:08:11.043341  6855 layer_factory.hpp:77] Creating layer ip2
I0507 20:08:11.043349  6855 net.cpp:94] Creating Layer ip2
I0507 20:08:11.043352  6855 net.cpp:435] ip2 <- ip1
I0507 20:08:11.043357  6855 net.cpp:409] ip2 -> ip2
I0507 20:08:11.043570  6855 net.cpp:144] Setting up ip2
I0507 20:08:11.043577  6855 net.cpp:151] Top shape: 20 64 (1280)
I0507 20:08:11.043581  6855 net.cpp:159] Memory required for data: 2982800
I0507 20:08:11.043587  6855 layer_factory.hpp:77] Creating layer ip3
I0507 20:08:11.043593  6855 net.cpp:94] Creating Layer ip3
I0507 20:08:11.043597  6855 net.cpp:435] ip3 <- ip2
I0507 20:08:11.043602  6855 net.cpp:409] ip3 -> ip3
I0507 20:08:11.043790  6855 net.cpp:144] Setting up ip3
I0507 20:08:11.043797  6855 net.cpp:151] Top shape: 20 50 (1000)
I0507 20:08:11.043805  6855 net.cpp:159] Memory required for data: 2986800
I0507 20:08:11.043812  6855 layer_factory.hpp:77] Creating layer loss
I0507 20:08:11.043819  6855 net.cpp:94] Creating Layer loss
I0507 20:08:11.043823  6855 net.cpp:435] loss <- ip3
I0507 20:08:11.043828  6855 net.cpp:435] loss <- label
I0507 20:08:11.043833  6855 net.cpp:409] loss -> loss
I0507 20:08:11.043840  6855 layer_factory.hpp:77] Creating layer loss
…
I0507 20:08:11.045199  6855 solver.cpp:181] Creating test net (#0) specified by net file: ./protocol/dis_50_100_dimension.protocol_distribution
I0507 20:08:11.045225  6855 net.cpp:323] The NetState phase (1) differed from the phase (0) specified by a rule in layer parameters
I0507 20:08:11.045320  6855 net.cpp:52] Initializing net from parameters: 
state {
  phase: TEST
}
layer {
  name: "intercept"
  type: "HDF5Data"
  top: "data"
  top: "label"
  include {
    phase: TEST
  }
  hdf5_data_param {
    source: "/home/purduethu/scratch/radon/d/deng106/CNNStatisticalModel/distributions/input/50_distributions_100_sample_size_test-distributions-path.txt"
    batch_size: 20
  }
}
layer {
  name: "conv1"
  type: "Convolution"
  bottom: "data"
  top: "conv1"
  param {
    lr_mult: 1
  }
  param {
    lr_mult: 2
  }
  convolution_param {
    num_output: 64
    pad: 2
    kernel_size: 5
    stride: 1
    weight_filler {
      type: "gaussian"
      std: 0.0001
    }
    bias_filler {
      type: "constant"
    }
  }
}
layer {
  name: "relu1"
  type: "ReLU"
  bottom: "conv1"
  top: "conv1"
}
layer {
  name: "conv2"
  type: "Convolution"
  bottom: "conv1"
  top: "conv2"
  param {
    lr_mult: 1
  }
  param {
    lr_mult: 2
  }
  convolution_param {
    num_output: 64
    pad: 2
    kernel_size: 5
    stride: 1
    weight_filler {
      type: "gaussian"
      std: 0.01
    }
    bias_filler {
      type: "constant"
    }
  }
}
layer {
  name: "relu2"
  type: "ReLU"
  bottom: "conv2"
  top: "conv2"
}
layer {
  name: "pool2"
  type: "Pooling"
  bottom: "conv2"
  top: "pool2"
  pooling_param {
    pool: MAX
    kernel_size: 3
    stride: 2
  }
}
layer {
  name: "conv3"
  type: "Convolution"
  bottom: "pool2"
  top: "conv3"
  param {
    lr_mult: 1
  }
  param {
    lr_mult: 2
  }
  convolution_param {
    num_output: 64
    pad: 2
    kernel_size: 5
    stride: 1
    weight_filler {
      type: "gaussian"
      std: 0.01
    }
    bias_filler {
      type: "constant"
    }
  }
}
layer {
  name: "relu3"
  type: "ReLU"
  bottom: "conv3"
  top: "conv3"
}
layer {
  name: "conv4"
  type: "Convolution"
  bottom: "conv3"
  top: "conv4"
  param {
    lr_mult: 1
  }
  param {
    lr_mult: 2
  }
  convolution_param {
    num_output: 64
    pad: 2
    kernel_size: 5
    stride: 1
    weight_filler {
      type: "gaussian"
      std: 0.01
    }
    bias_filler {
      type: "constant"
    }
  }
}
layer {
  name: "relu4"
  type: "ReLU"
  bottom: "conv4"
  top: "conv4"
}
layer {
  name: "conv5"
  type: "Convolution"
  bottom: "conv4"
  top: "conv5"
  param {
    lr_mult: 1
  }
  param {
    lr_mult: 2
  }
  convolution_param {
    num_output: 64
    pad: 2
    kernel_size: 5
    stride: 1
    weight_filler {
      type: "gaussian"
      std: 0.01
    }
    bias_filler {
      type: "constant"
    }
  }
}
layer {
  name: "relu5"
  type: "ReLU"
  bottom: "conv5"
  top: "conv5"
}
layer {
  name: "pool5"
  type: "Pooling"
  bottom: "conv5"
  top: "pool5"
  pooling_param {
    pool: AVE
    kernel_size: 3
    stride: 2
  }
}
layer {
  name: "ip1"
  type: "InnerProduct"
  bottom: "pool5"
  top: "ip1"
  param {
    lr_mult: 1
  }
  param {
    lr_mult: 2
  }
  inner_product_param {
    num_output: 64
    weight_filler {
      type: "gaussian"
      std: 0.1
    }
    bias_filler {
      type: "constant"
    }
  }
}
layer {
  name: "ip2"
  type: "InnerProduct"
  bottom: "ip1"
  top: "ip2"
  param {
    lr_mult: 1
  }
  param {
    lr_mult: 2
  }
  inner_product_param {
    num_output: 64
    weight_filler {
      type: "gaussian"
      std: 0.1
    }
    bias_filler {
      type: "constant"
    }
  }
}
layer {
  name: "ip3"
  type: "InnerProduct"
  bottom: "ip2"
  top: "ip3"
  param {
    lr_mult: 1
  }
  param {
    lr_mult: 2
  }
  inner_product_param {
    num_output: 50
    weight_filler {
      type: "gaussian"
      std: 0.1
    }
    bias_filler {
      type: "constant"
    }
  }
}
layer {
  name: "accuracy"
  type: "Accuracy"
  bottom: "ip3"
  bottom: "label"
  top: "accuracy"
  include {
    phase: TEST
  }
}
layer {
  name: "loss"
  type: "SoftmaxWithLoss"
  bottom: "ip3"
  bottom: "label"
  top: "loss"
}
I0507 20:08:11.045385  6855 layer_factory.hpp:77] Creating layer intercept
I0507 20:08:11.045394  6855 net.cpp:94] Creating Layer intercept
I0507 20:08:11.045399  6855 net.cpp:409] intercept -> data
I0507 20:08:11.045408  6855 net.cpp:409] intercept -> label
I0507 20:08:11.045413  6855 hdf5_data_layer.cpp:79] Loading list of HDF5 filenames from: /home/purduethu/scratch/radon/d/deng106/CNNStatisticalModel/distributions/input/50_distributions_100_sample_size_test-distributions-path.txt
I0507 20:08:11.045435  6855 hdf5_data_layer.cpp:93] Number of HDF5 files: 1
I0507 20:08:11.086987  6855 net.cpp:144] Setting up intercept
I0507 20:08:11.087023  6855 net.cpp:151] Top shape: 20 1 10 10 (2000)
I0507 20:08:11.087028  6855 net.cpp:151] Top shape: 20 (20)
I0507 20:08:11.087033  6855 net.cpp:159] Memory required for data: 8080
I0507 20:08:11.087038  6855 layer_factory.hpp:77] Creating layer label_intercept_1_split
I0507 20:08:11.087059  6855 net.cpp:94] Creating Layer label_intercept_1_split
I0507 20:08:11.087064  6855 net.cpp:435] label_intercept_1_split <- label
I0507 20:08:11.087072  6855 net.cpp:409] label_intercept_1_split -> label_intercept_1_split_0
I0507 20:08:11.087081  6855 net.cpp:409] label_intercept_1_split -> label_intercept_1_split_1
I0507 20:08:11.087121  6855 net.cpp:144] Setting up label_intercept_1_split
I0507 20:08:11.087128  6855 net.cpp:151] Top shape: 20 (20)
I0507 20:08:11.087132  6855 net.cpp:151] Top shape: 20 (20)
I0507 20:08:11.087136  6855 net.cpp:159] Memory required for data: 8240
I0507 20:08:11.087141  6855 layer_factory.hpp:77] Creating layer conv1
I0507 20:08:11.087152  6855 net.cpp:94] Creating Layer conv1
I0507 20:08:11.087157  6855 net.cpp:435] conv1 <- data
I0507 20:08:11.087162  6855 net.cpp:409] conv1 -> conv1
I0507 20:08:11.087977  6855 net.cpp:144] Setting up conv1
I0507 20:08:11.087990  6855 net.cpp:151] Top shape: 20 64 10 10 (128000)
I0507 20:08:11.088007  6855 net.cpp:159] Memory required for data: 520240
I0507 20:08:11.088018  6855 layer_factory.hpp:77] Creating layer relu1
I0507 20:08:11.088026  6855 net.cpp:94] Creating Layer relu1
I0507 20:08:11.088029  6855 net.cpp:435] relu1 <- conv1
I0507 20:08:11.088034  6855 net.cpp:396] relu1 -> conv1 (in-place)
I0507 20:08:11.088042  6855 net.cpp:144] Setting up relu1
I0507 20:08:11.088047  6855 net.cpp:151] Top shape: 20 64 10 10 (128000)
I0507 20:08:11.088050  6855 net.cpp:159] Memory required for data: 1032240
I0507 20:08:11.088053  6855 layer_factory.hpp:77] Creating layer conv2
I0507 20:08:11.088062  6855 net.cpp:94] Creating Layer conv2
I0507 20:08:11.088065  6855 net.cpp:435] conv2 <- conv1
I0507 20:08:11.088071  6855 net.cpp:409] conv2 -> conv2
I0507 20:08:11.092134  6855 net.cpp:144] Setting up conv2
I0507 20:08:11.092149  6855 net.cpp:151] Top shape: 20 64 10 10 (128000)
I0507 20:08:11.092152  6855 net.cpp:159] Memory required for data: 1544240
I0507 20:08:11.092162  6855 layer_factory.hpp:77] Creating layer relu2
I0507 20:08:11.092170  6855 net.cpp:94] Creating Layer relu2
I0507 20:08:11.092173  6855 net.cpp:435] relu2 <- conv2
I0507 20:08:11.092177  6855 net.cpp:396] relu2 -> conv2 (in-place)
I0507 20:08:11.092185  6855 net.cpp:144] Setting up relu2
I0507 20:08:11.092190  6855 net.cpp:151] Top shape: 20 64 10 10 (128000)
I0507 20:08:11.092192  6855 net.cpp:159] Memory required for data: 2056240
I0507 20:08:11.092196  6855 layer_factory.hpp:77] Creating layer pool2
I0507 20:08:11.092202  6855 net.cpp:94] Creating Layer pool2
I0507 20:08:11.092206  6855 net.cpp:435] pool2 <- conv2
I0507 20:08:11.092209  6855 net.cpp:409] pool2 -> pool2
I0507 20:08:11.092262  6855 net.cpp:144] Setting up pool2
I0507 20:08:11.092269  6855 net.cpp:151] Top shape: 20 64 5 5 (32000)
I0507 20:08:11.092272  6855 net.cpp:159] Memory required for data: 2184240
I0507 20:08:11.092277  6855 layer_factory.hpp:77] Creating layer conv3
I0507 20:08:11.092285  6855 net.cpp:94] Creating Layer conv3
I0507 20:08:11.092289  6855 net.cpp:435] conv3 <- pool2
I0507 20:08:11.092295  6855 net.cpp:409] conv3 -> conv3
I0507 20:08:11.096657  6855 net.cpp:144] Setting up conv3
I0507 20:08:11.096670  6855 net.cpp:151] Top shape: 20 64 5 5 (32000)
I0507 20:08:11.096674  6855 net.cpp:159] Memory required for data: 2312240
I0507 20:08:11.096683  6855 layer_factory.hpp:77] Creating layer relu3
I0507 20:08:11.096690  6855 net.cpp:94] Creating Layer relu3
I0507 20:08:11.096694  6855 net.cpp:435] relu3 <- conv3
I0507 20:08:11.096699  6855 net.cpp:396] relu3 -> conv3 (in-place)
I0507 20:08:11.096706  6855 net.cpp:144] Setting up relu3
I0507 20:08:11.096711  6855 net.cpp:151] Top shape: 20 64 5 5 (32000)
I0507 20:08:11.096715  6855 net.cpp:159] Memory required for data: 2440240
I0507 20:08:11.096719  6855 layer_factory.hpp:77] Creating layer conv4
I0507 20:08:11.096729  6855 net.cpp:94] Creating Layer conv4
I0507 20:08:11.096732  6855 net.cpp:435] conv4 <- conv3
I0507 20:08:11.096738  6855 net.cpp:409] conv4 -> conv4
I0507 20:08:11.100209  6855 net.cpp:144] Setting up conv4
I0507 20:08:11.100222  6855 net.cpp:151] Top shape: 20 64 5 5 (32000)
I0507 20:08:11.100226  6855 net.cpp:159] Memory required for data: 2568240
I0507 20:08:11.100234  6855 layer_factory.hpp:77] Creating layer relu4
I0507 20:08:11.100239  6855 net.cpp:94] Creating Layer relu4
I0507 20:08:11.100244  6855 net.cpp:435] relu4 <- conv4
I0507 20:08:11.100247  6855 net.cpp:396] relu4 -> conv4 (in-place)
I0507 20:08:11.100255  6855 net.cpp:144] Setting up relu4
I0507 20:08:11.100260  6855 net.cpp:151] Top shape: 20 64 5 5 (32000)
I0507 20:08:11.100262  6855 net.cpp:159] Memory required for data: 2696240
I0507 20:08:11.100266  6855 layer_factory.hpp:77] Creating layer conv5
I0507 20:08:11.100275  6855 net.cpp:94] Creating Layer conv5
I0507 20:08:11.100280  6855 net.cpp:435] conv5 <- conv4
I0507 20:08:11.100286  6855 net.cpp:409] conv5 -> conv5
I0507 20:08:11.104241  6855 net.cpp:144] Setting up conv5
I0507 20:08:11.104255  6855 net.cpp:151] Top shape: 20 64 5 5 (32000)
I0507 20:08:11.104259  6855 net.cpp:159] Memory required for data: 2824240
I0507 20:08:11.104272  6855 layer_factory.hpp:77] Creating layer relu5
I0507 20:08:11.104279  6855 net.cpp:94] Creating Layer relu5
I0507 20:08:11.104282  6855 net.cpp:435] relu5 <- conv5
I0507 20:08:11.104287  6855 net.cpp:396] relu5 -> conv5 (in-place)
I0507 20:08:11.104293  6855 net.cpp:144] Setting up relu5
I0507 20:08:11.104298  6855 net.cpp:151] Top shape: 20 64 5 5 (32000)
I0507 20:08:11.104302  6855 net.cpp:159] Memory required for data: 2952240
I0507 20:08:11.104305  6855 layer_factory.hpp:77] Creating layer pool5
I0507 20:08:11.104310  6855 net.cpp:94] Creating Layer pool5
I0507 20:08:11.104315  6855 net.cpp:435] pool5 <- conv5
I0507 20:08:11.104321  6855 net.cpp:409] pool5 -> pool5
I0507 20:08:11.104357  6855 net.cpp:144] Setting up pool5
I0507 20:08:11.104363  6855 net.cpp:151] Top shape: 20 64 2 2 (5120)
I0507 20:08:11.104367  6855 net.cpp:159] Memory required for data: 2972720
I0507 20:08:11.104370  6855 layer_factory.hpp:77] Creating layer ip1
I0507 20:08:11.104378  6855 net.cpp:94] Creating Layer ip1
I0507 20:08:11.104382  6855 net.cpp:435] ip1 <- pool5
I0507 20:08:11.104388  6855 net.cpp:409] ip1 -> ip1
I0507 20:08:11.104943  6855 net.cpp:144] Setting up ip1
I0507 20:08:11.104953  6855 net.cpp:151] Top shape: 20 64 (1280)
I0507 20:08:11.104955  6855 net.cpp:159] Memory required for data: 2977840
I0507 20:08:11.104961  6855 layer_factory.hpp:77] Creating layer ip2
I0507 20:08:11.104969  6855 net.cpp:94] Creating Layer ip2
I0507 20:08:11.104971  6855 net.cpp:435] ip2 <- ip1
I0507 20:08:11.104977  6855 net.cpp:409] ip2 -> ip2
I0507 20:08:11.105195  6855 net.cpp:144] Setting up ip2
I0507 20:08:11.105202  6855 net.cpp:151] Top shape: 20 64 (1280)
I0507 20:08:11.105206  6855 net.cpp:159] Memory required for data: 2982960
I0507 20:08:11.105211  6855 layer_factory.hpp:77] Creating layer ip3
I0507 20:08:11.105219  6855 net.cpp:94] Creating Layer ip3
I0507 20:08:11.105222  6855 net.cpp:435] ip3 <- ip2
I0507 20:08:11.105227  6855 net.cpp:409] ip3 -> ip3
I0507 20:08:11.105418  6855 net.cpp:144] Setting up ip3
I0507 20:08:11.105427  6855 net.cpp:151] Top shape: 20 50 (1000)
I0507 20:08:11.105429  6855 net.cpp:159] Memory required for data: 2986960
I0507 20:08:11.105435  6855 layer_factory.hpp:77] Creating layer ip3_ip3_0_split
I0507 20:08:11.105440  6855 net.cpp:94] Creating Layer ip3_ip3_0_split
I0507 20:08:11.105444  6855 net.cpp:435] ip3_ip3_0_split <- ip3
I0507 20:08:11.105450  6855 net.cpp:409] ip3_ip3_0_split -> ip3_ip3_0_split_0
I0507 20:08:11.105455  6855 net.cpp:409] ip3_ip3_0_split -> ip3_ip3_0_split_1
I0507 20:08:11.105495  6855 net.cpp:144] Setting up ip3_ip3_0_split
I0507 20:08:11.105501  6855 net.cpp:151] Top shape: 20 50 (1000)
I0507 20:08:11.105506  6855 net.cpp:151] Top shape: 20 50 (1000)
I0507 20:08:11.105509  6855 net.cpp:159] Memory required for data: 2994960
I0507 20:08:11.105512  6855 layer_factory.hpp:77] Creating layer accuracy
I0507 20:08:11.105518  6855 net.cpp:94] Creating Layer accuracy
I0507 20:08:11.105521  6855 net.cpp:435] accuracy <- ip3_ip3_0_split_0
I0507 20:08:11.105525  6855 net.cpp:435] accuracy <- label_intercept_1_split_0
I0507 20:08:11.105531  6855 net.cpp:409] accuracy -> accuracy
…
