…
I0505 15:22:39.885390  7572 net.cpp:323] The NetState phase (0) differed from the phase (1) specified by a rule in layer intercept
I0505 15:22:39.885406  7572 net.cpp:323] The NetState phase (0) differed from the phase (1) specified by a rule in layer loss
I0505 15:22:39.885473  7572 net.cpp:52] Initializing net from parameters: 
state {
  phase: TRAIN
}
layer {
  name: "parameters"
  type: "HDF5Data"
  top: "data"
  top: "label"
  include {
    phase: TRAIN
  }
  hdf5_data_param {
    source: "/home/purduethu/scratch/radon/d/deng106/CNNStatisticalModel/distributions/input/50_distributions_900_sample_size_train-parameters-path.txt"
    batch_size: 20
  }
}
layer {
  name: "conv1"
  type: "Convolution"
  bottom: "data"
  top: "conv1"
  param {
    lr_mult: 1
  }
  param {
    lr_mult: 2
  }
  convolution_param {
    num_output: 64
    pad: 2
    kernel_size: 5
    stride: 1
    weight_filler {
      type: "gaussian"
      std: 0.0001
    }
    bias_filler {
      type: "constant"
    }
  }
}
layer {
  name: "relu1"
  type: "ReLU"
  bottom: "conv1"
  top: "conv1"
}
layer {
  name: "pool1"
  type: "Pooling"
  bottom: "conv1"
  top: "pool1"
  pooling_param {
    pool: MAX
    kernel_size: 3
    stride: 2
  }
}
layer {
  name: "conv2"
  type: "Convolution"
  bottom: "pool1"
  top: "conv2"
  param {
    lr_mult: 1
  }
  param {
    lr_mult: 2
  }
  convolution_param {
    num_output: 128
    pad: 2
    kernel_size: 5
    stride: 1
    weight_filler {
      type: "gaussian"
      std: 0.01
    }
    bias_filler {
      type: "constant"
    }
  }
}
layer {
  name: "relu2"
  type: "ReLU"
  bottom: "conv2"
  top: "conv2"
}
layer {
  name: "conv3"
  type: "Convolution"
  bottom: "conv2"
  top: "conv3"
  param {
    lr_mult: 1
  }
  param {
    lr_mult: 2
  }
  convolution_param {
    num_output: 128
    pad: 2
    kernel_size: 5
    stride: 1
    weight_filler {
      type: "gaussian"
      std: 0.01
    }
    bias_filler {
      type: "constant"
    }
  }
}
layer {
  name: "relu3"
  type: "ReLU"
  bottom: "conv3"
  top: "conv3"
}
layer {
  name: "pool3"
  type: "Pooling"
  bottom: "conv3"
  top: "pool3"
  pooling_param {
    pool: AVE
    kernel_size: 3
    stride: 2
  }
}
layer {
  name: "ip1"
  type: "InnerProduct"
  bottom: "pool3"
  top: "ip1"
  param {
    lr_mult: 1
  }
  param {
    lr_mult: 2
  }
  inner_product_param {
    num_output: 512
    weight_filler {
      type: "gaussian"
      std: 0.1
    }
    bias_filler {
      type: "constant"
    }
  }
}
layer {
  name: "ip2"
  type: "InnerProduct"
  bottom: "ip1"
  top: "ip2"
  param {
    lr_mult: 1
  }
  param {
    lr_mult: 2
  }
  inner_product_param {
    num_output: 256
    weight_filler {
      type: "gaussian"
      std: 0.1
    }
    bias_filler {
      type: "constant"
    }
  }
}
layer {
  name: "ip3"
  type: "InnerProduct"
  bottom: "ip2"
  top: "ip3"
  param {
    lr_mult: 1
  }
  param {
    lr_mult: 2
  }
  inner_product_param {
    num_output: 1
    weight_filler {
      type: "gaussian"
      std: 0.1
    }
    bias_filler {
      type: "constant"
    }
  }
}
layer {
  name: "loss"
  type: "HuberLoss"
  bottom: "ip3"
  bottom: "label"
  top: "loss"
  include {
    phase: TRAIN
  }
}
I0505 15:22:39.885522  7572 layer_factory.hpp:77] Creating layer parameters
I0505 15:22:39.885537  7572 net.cpp:94] Creating Layer parameters
I0505 15:22:39.885541  7572 net.cpp:409] parameters -> data
I0505 15:22:39.885555  7572 net.cpp:409] parameters -> label
I0505 15:22:39.885561  7572 hdf5_data_layer.cpp:79] Loading list of HDF5 filenames from: /home/purduethu/scratch/radon/d/deng106/CNNStatisticalModel/distributions/input/50_distributions_900_sample_size_train-parameters-path.txt
I0505 15:22:39.885576  7572 hdf5_data_layer.cpp:93] Number of HDF5 files: 1
I0505 15:22:39.886127  7572 hdf5.cpp:32] Datatype class: H5T_FLOAT
I0505 15:22:41.427942  7572 net.cpp:144] Setting up parameters
I0505 15:22:41.427975  7572 net.cpp:151] Top shape: 20 1 30 30 (18000)
I0505 15:22:41.427980  7572 net.cpp:151] Top shape: 20 (20)
I0505 15:22:41.427984  7572 net.cpp:159] Memory required for data: 72080
I0505 15:22:41.427990  7572 layer_factory.hpp:77] Creating layer conv1
I0505 15:22:41.428007  7572 net.cpp:94] Creating Layer conv1
I0505 15:22:41.428011  7572 net.cpp:435] conv1 <- data
I0505 15:22:41.428019  7572 net.cpp:409] conv1 -> conv1
I0505 15:22:41.434593  7572 net.cpp:144] Setting up conv1
I0505 15:22:41.434615  7572 net.cpp:151] Top shape: 20 64 30 30 (1152000)
I0505 15:22:41.434618  7572 net.cpp:159] Memory required for data: 4680080
I0505 15:22:41.434630  7572 layer_factory.hpp:77] Creating layer relu1
I0505 15:22:41.434638  7572 net.cpp:94] Creating Layer relu1
I0505 15:22:41.434643  7572 net.cpp:435] relu1 <- conv1
I0505 15:22:41.434646  7572 net.cpp:396] relu1 -> conv1 (in-place)
I0505 15:22:41.434655  7572 net.cpp:144] Setting up relu1
I0505 15:22:41.434659  7572 net.cpp:151] Top shape: 20 64 30 30 (1152000)
I0505 15:22:41.434662  7572 net.cpp:159] Memory required for data: 9288080
I0505 15:22:41.434665  7572 layer_factory.hpp:77] Creating layer pool1
I0505 15:22:41.434671  7572 net.cpp:94] Creating Layer pool1
I0505 15:22:41.434674  7572 net.cpp:435] pool1 <- conv1
I0505 15:22:41.434679  7572 net.cpp:409] pool1 -> pool1
I0505 15:22:41.434732  7572 net.cpp:144] Setting up pool1
I0505 15:22:41.434739  7572 net.cpp:151] Top shape: 20 64 15 15 (288000)
I0505 15:22:41.434742  7572 net.cpp:159] Memory required for data: 10440080
I0505 15:22:41.434746  7572 layer_factory.hpp:77] Creating layer conv2
I0505 15:22:41.434756  7572 net.cpp:94] Creating Layer conv2
I0505 15:22:41.434758  7572 net.cpp:435] conv2 <- pool1
I0505 15:22:41.434763  7572 net.cpp:409] conv2 -> conv2
I0505 15:22:41.448415  7572 net.cpp:144] Setting up conv2
I0505 15:22:41.448432  7572 net.cpp:151] Top shape: 20 128 15 15 (576000)
I0505 15:22:41.448436  7572 net.cpp:159] Memory required for data: 12744080
I0505 15:22:41.448444  7572 layer_factory.hpp:77] Creating layer relu2
I0505 15:22:41.448451  7572 net.cpp:94] Creating Layer relu2
I0505 15:22:41.448454  7572 net.cpp:435] relu2 <- conv2
I0505 15:22:41.448459  7572 net.cpp:396] relu2 -> conv2 (in-place)
I0505 15:22:41.448467  7572 net.cpp:144] Setting up relu2
I0505 15:22:41.448470  7572 net.cpp:151] Top shape: 20 128 15 15 (576000)
I0505 15:22:41.448473  7572 net.cpp:159] Memory required for data: 15048080
I0505 15:22:41.448477  7572 layer_factory.hpp:77] Creating layer conv3
I0505 15:22:41.448484  7572 net.cpp:94] Creating Layer conv3
I0505 15:22:41.448488  7572 net.cpp:435] conv3 <- conv2
I0505 15:22:41.448493  7572 net.cpp:409] conv3 -> conv3
I0505 15:22:41.471384  7572 net.cpp:144] Setting up conv3
I0505 15:22:41.471400  7572 net.cpp:151] Top shape: 20 128 15 15 (576000)
I0505 15:22:41.471403  7572 net.cpp:159] Memory required for data: 17352080
I0505 15:22:41.471412  7572 layer_factory.hpp:77] Creating layer relu3
I0505 15:22:41.471426  7572 net.cpp:94] Creating Layer relu3
I0505 15:22:41.471429  7572 net.cpp:435] relu3 <- conv3
I0505 15:22:41.471434  7572 net.cpp:396] relu3 -> conv3 (in-place)
I0505 15:22:41.471441  7572 net.cpp:144] Setting up relu3
I0505 15:22:41.471446  7572 net.cpp:151] Top shape: 20 128 15 15 (576000)
I0505 15:22:41.471449  7572 net.cpp:159] Memory required for data: 19656080
I0505 15:22:41.471452  7572 layer_factory.hpp:77] Creating layer pool3
I0505 15:22:41.471458  7572 net.cpp:94] Creating Layer pool3
I0505 15:22:41.471462  7572 net.cpp:435] pool3 <- conv3
I0505 15:22:41.471465  7572 net.cpp:409] pool3 -> pool3
I0505 15:22:41.471508  7572 net.cpp:144] Setting up pool3
I0505 15:22:41.471514  7572 net.cpp:151] Top shape: 20 128 7 7 (125440)
I0505 15:22:41.471518  7572 net.cpp:159] Memory required for data: 20157840
I0505 15:22:41.471520  7572 layer_factory.hpp:77] Creating layer ip1
I0505 15:22:41.471530  7572 net.cpp:94] Creating Layer ip1
I0505 15:22:41.471534  7572 net.cpp:435] ip1 <- pool3
I0505 15:22:41.471539  7572 net.cpp:409] ip1 -> ip1
I0505 15:22:41.553505  7572 net.cpp:144] Setting up ip1
I0505 15:22:41.553539  7572 net.cpp:151] Top shape: 20 512 (10240)
I0505 15:22:41.553544  7572 net.cpp:159] Memory required for data: 20198800
I0505 15:22:41.553552  7572 layer_factory.hpp:77] Creating layer ip2
I0505 15:22:41.553563  7572 net.cpp:94] Creating Layer ip2
I0505 15:22:41.553568  7572 net.cpp:435] ip2 <- ip1
I0505 15:22:41.553575  7572 net.cpp:409] ip2 -> ip2
I0505 15:22:41.556903  7572 net.cpp:144] Setting up ip2
I0505 15:22:41.556916  7572 net.cpp:151] Top shape: 20 256 (5120)
I0505 15:22:41.556921  7572 net.cpp:159] Memory required for data: 20219280
I0505 15:22:41.556928  7572 layer_factory.hpp:77] Creating layer ip3
I0505 15:22:41.556936  7572 net.cpp:94] Creating Layer ip3
I0505 15:22:41.556939  7572 net.cpp:435] ip3 <- ip2
I0505 15:22:41.556944  7572 net.cpp:409] ip3 -> ip3
I0505 15:22:41.557047  7572 net.cpp:144] Setting up ip3
I0505 15:22:41.557054  7572 net.cpp:151] Top shape: 20 1 (20)
I0505 15:22:41.557057  7572 net.cpp:159] Memory required for data: 20219360
I0505 15:22:41.557063  7572 layer_factory.hpp:77] Creating layer loss
I0505 15:22:41.557077  7572 net.cpp:94] Creating Layer loss
I0505 15:22:41.557081  7572 net.cpp:435] loss <- ip3
I0505 15:22:41.557085  7572 net.cpp:435] loss <- label
I0505 15:22:41.557090  7572 net.cpp:409] loss -> loss
I0505 15:22:41.557140  7572 net.cpp:144] Setting up loss
…
I0505 15:22:42.055778  7572 net.cpp:323] The NetState phase (0) differed from the phase (1) specified by a rule in layer intercept
I0505 15:22:42.055791  7572 net.cpp:323] The NetState phase (0) differed from the phase (1) specified by a rule in layer accuracy
I0505 15:22:42.055865  7572 net.cpp:52] Initializing net from parameters: 
state {
  phase: TRAIN
}
layer {
  name: "parameters"
  type: "HDF5Data"
  top: "data"
  top: "label"
  include {
    phase: TRAIN
  }
  hdf5_data_param {
    source: "/home/purduethu/scratch/radon/d/deng106/CNNStatisticalModel/distributions/input/50_distributions_900_sample_size_train-distributions-path.txt"
    batch_size: 20
  }
}
layer {
  name: "conv1"
  type: "Convolution"
  bottom: "data"
  top: "conv1"
  param {
    lr_mult: 1
  }
  param {
    lr_mult: 2
  }
  convolution_param {
    num_output: 64
    pad: 2
    kernel_size: 5
    stride: 1
    weight_filler {
      type: "gaussian"
      std: 0.0001
    }
    bias_filler {
      type: "constant"
    }
  }
}
layer {
  name: "relu1"
  type: "ReLU"
  bottom: "conv1"
  top: "conv1"
}
layer {
  name: "pool1"
  type: "Pooling"
  bottom: "conv1"
  top: "pool1"
  pooling_param {
    pool: MAX
    kernel_size: 3
    stride: 2
  }
}
layer {
  name: "conv2"
  type: "Convolution"
  bottom: "pool1"
  top: "conv2"
  param {
    lr_mult: 1
  }
  param {
    lr_mult: 2
  }
  convolution_param {
    num_output: 128
    pad: 2
    kernel_size: 5
    stride: 1
    weight_filler {
      type: "gaussian"
      std: 0.01
    }
    bias_filler {
      type: "constant"
    }
  }
}
layer {
  name: "relu2"
  type: "ReLU"
  bottom: "conv2"
  top: "conv2"
}
layer {
  name: "conv3"
  type: "Convolution"
  bottom: "conv2"
  top: "conv3"
  param {
    lr_mult: 1
  }
  param {
    lr_mult: 2
  }
  convolution_param {
    num_output: 128
    pad: 2
    kernel_size: 5
    stride: 1
    weight_filler {
      type: "gaussian"
      std: 0.01
    }
    bias_filler {
      type: "constant"
    }
  }
}
layer {
  name: "relu3"
  type: "ReLU"
  bottom: "conv3"
  top: "conv3"
}
layer {
  name: "pool3"
  type: "Pooling"
  bottom: "conv3"
  top: "pool3"
  pooling_param {
    pool: AVE
    kernel_size: 3
    stride: 2
  }
}
layer {
  name: "ip1"
  type: "InnerProduct"
  bottom: "pool3"
  top: "ip1"
  param {
    lr_mult: 1
  }
  param {
    lr_mult: 2
  }
  inner_product_param {
    num_output: 512
    weight_filler {
      type: "gaussian"
      std: 0.1
    }
    bias_filler {
      type: "constant"
    }
  }
}
layer {
  name: "ip2"
  type: "InnerProduct"
  bottom: "ip1"
  top: "ip2"
  param {
    lr_mult: 1
  }
  param {
    lr_mult: 2
  }
  inner_product_param {
    num_output: 256
    weight_filler {
      type: "gaussian"
      std: 0.1
    }
    bias_filler {
      type: "constant"
    }
  }
}
layer {
  name: "ip3"
  type: "InnerProduct"
  bottom: "ip2"
  top: "ip3"
  param {
    lr_mult: 1
  }
  param {
    lr_mult: 2
  }
  inner_product_param {
    num_output: 50
    weight_filler {
      type: "gaussian"
      std: 0.1
    }
    bias_filler {
      type: "constant"
    }
  }
}
layer {
  name: "loss"
  type: "SoftmaxWithLoss"
  bottom: "ip3"
  bottom: "label"
  top: "loss"
}
I0505 15:22:42.055908  7572 layer_factory.hpp:77] Creating layer parameters
I0505 15:22:42.055917  7572 net.cpp:94] Creating Layer parameters
I0505 15:22:42.055920  7572 net.cpp:409] parameters -> data
I0505 15:22:42.055927  7572 net.cpp:409] parameters -> label
I0505 15:22:42.055932  7572 hdf5_data_layer.cpp:79] Loading list of HDF5 filenames from: /home/purduethu/scratch/radon/d/deng106/CNNStatisticalModel/distributions/input/50_distributions_900_sample_size_train-distributions-path.txt
I0505 15:22:42.055948  7572 hdf5_data_layer.cpp:93] Number of HDF5 files: 1
I0505 15:22:43.549685  7572 hdf5.cpp:35] Datatype class: H5T_INTEGER
I0505 15:22:43.552918  7572 net.cpp:144] Setting up parameters
I0505 15:22:43.552944  7572 net.cpp:151] Top shape: 20 1 30 30 (18000)
I0505 15:22:43.552948  7572 net.cpp:151] Top shape: 20 (20)
I0505 15:22:43.552952  7572 net.cpp:159] Memory required for data: 72080
I0505 15:22:43.552958  7572 layer_factory.hpp:77] Creating layer conv1
I0505 15:22:43.552974  7572 net.cpp:94] Creating Layer conv1
I0505 15:22:43.552978  7572 net.cpp:435] conv1 <- data
I0505 15:22:43.552984  7572 net.cpp:409] conv1 -> conv1
I0505 15:22:43.556509  7572 net.cpp:144] Setting up conv1
I0505 15:22:43.556524  7572 net.cpp:151] Top shape: 20 64 30 30 (1152000)
I0505 15:22:43.556527  7572 net.cpp:159] Memory required for data: 4680080
I0505 15:22:43.556537  7572 layer_factory.hpp:77] Creating layer relu1
I0505 15:22:43.556545  7572 net.cpp:94] Creating Layer relu1
I0505 15:22:43.556548  7572 net.cpp:435] relu1 <- conv1
I0505 15:22:43.556571  7572 net.cpp:396] relu1 -> conv1 (in-place)
I0505 15:22:43.556581  7572 net.cpp:144] Setting up relu1
I0505 15:22:43.556584  7572 net.cpp:151] Top shape: 20 64 30 30 (1152000)
I0505 15:22:43.556587  7572 net.cpp:159] Memory required for data: 9288080
I0505 15:22:43.556591  7572 layer_factory.hpp:77] Creating layer pool1
I0505 15:22:43.556596  7572 net.cpp:94] Creating Layer pool1
I0505 15:22:43.556605  7572 net.cpp:435] pool1 <- conv1
I0505 15:22:43.556610  7572 net.cpp:409] pool1 -> pool1
I0505 15:22:43.556661  7572 net.cpp:144] Setting up pool1
I0505 15:22:43.556668  7572 net.cpp:151] Top shape: 20 64 15 15 (288000)
I0505 15:22:43.556671  7572 net.cpp:159] Memory required for data: 10440080
I0505 15:22:43.556674  7572 layer_factory.hpp:77] Creating layer conv2
I0505 15:22:43.556682  7572 net.cpp:94] Creating Layer conv2
I0505 15:22:43.556686  7572 net.cpp:435] conv2 <- pool1
I0505 15:22:43.556690  7572 net.cpp:409] conv2 -> conv2
I0505 15:22:43.570441  7572 net.cpp:144] Setting up conv2
I0505 15:22:43.570458  7572 net.cpp:151] Top shape: 20 128 15 15 (576000)
I0505 15:22:43.570462  7572 net.cpp:159] Memory required for data: 12744080
I0505 15:22:43.570471  7572 layer_factory.hpp:77] Creating layer relu2
I0505 15:22:43.570477  7572 net.cpp:94] Creating Layer relu2
I0505 15:22:43.570480  7572 net.cpp:435] relu2 <- conv2
I0505 15:22:43.570484  7572 net.cpp:396] relu2 -> conv2 (in-place)
I0505 15:22:43.570492  7572 net.cpp:144] Setting up relu2
I0505 15:22:43.570497  7572 net.cpp:151] Top shape: 20 128 15 15 (576000)
I0505 15:22:43.570498  7572 net.cpp:159] Memory required for data: 15048080
I0505 15:22:43.570502  7572 layer_factory.hpp:77] Creating layer conv3
I0505 15:22:43.570509  7572 net.cpp:94] Creating Layer conv3
I0505 15:22:43.570513  7572 net.cpp:435] conv3 <- conv2
I0505 15:22:43.570516  7572 net.cpp:409] conv3 -> conv3
I0505 15:22:43.593413  7572 net.cpp:144] Setting up conv3
I0505 15:22:43.593430  7572 net.cpp:151] Top shape: 20 128 15 15 (576000)
I0505 15:22:43.593433  7572 net.cpp:159] Memory required for data: 17352080
I0505 15:22:43.593442  7572 layer_factory.hpp:77] Creating layer relu3
I0505 15:22:43.593448  7572 net.cpp:94] Creating Layer relu3
I0505 15:22:43.593451  7572 net.cpp:435] relu3 <- conv3
I0505 15:22:43.593456  7572 net.cpp:396] relu3 -> conv3 (in-place)
I0505 15:22:43.593463  7572 net.cpp:144] Setting up relu3
I0505 15:22:43.593467  7572 net.cpp:151] Top shape: 20 128 15 15 (576000)
I0505 15:22:43.593471  7572 net.cpp:159] Memory required for data: 19656080
I0505 15:22:43.593473  7572 layer_factory.hpp:77] Creating layer pool3
I0505 15:22:43.593479  7572 net.cpp:94] Creating Layer pool3
I0505 15:22:43.593482  7572 net.cpp:435] pool3 <- conv3
I0505 15:22:43.593487  7572 net.cpp:409] pool3 -> pool3
I0505 15:22:43.593523  7572 net.cpp:144] Setting up pool3
I0505 15:22:43.593530  7572 net.cpp:151] Top shape: 20 128 7 7 (125440)
I0505 15:22:43.593533  7572 net.cpp:159] Memory required for data: 20157840
I0505 15:22:43.593536  7572 layer_factory.hpp:77] Creating layer ip1
I0505 15:22:43.593542  7572 net.cpp:94] Creating Layer ip1
I0505 15:22:43.593545  7572 net.cpp:435] ip1 <- pool3
I0505 15:22:43.593550  7572 net.cpp:409] ip1 -> ip1
I0505 15:22:43.671525  7572 net.cpp:144] Setting up ip1
I0505 15:22:43.671573  7572 net.cpp:151] Top shape: 20 512 (10240)
I0505 15:22:43.671577  7572 net.cpp:159] Memory required for data: 20198800
I0505 15:22:43.671586  7572 layer_factory.hpp:77] Creating layer ip2
I0505 15:22:43.671605  7572 net.cpp:94] Creating Layer ip2
I0505 15:22:43.671610  7572 net.cpp:435] ip2 <- ip1
I0505 15:22:43.671617  7572 net.cpp:409] ip2 -> ip2
I0505 15:22:43.674890  7572 net.cpp:144] Setting up ip2
I0505 15:22:43.674904  7572 net.cpp:151] Top shape: 20 256 (5120)
I0505 15:22:43.674907  7572 net.cpp:159] Memory required for data: 20219280
I0505 15:22:43.674916  7572 layer_factory.hpp:77] Creating layer ip3
I0505 15:22:43.674924  7572 net.cpp:94] Creating Layer ip3
I0505 15:22:43.674927  7572 net.cpp:435] ip3 <- ip2
I0505 15:22:43.674932  7572 net.cpp:409] ip3 -> ip3
I0505 15:22:43.676360  7572 net.cpp:144] Setting up ip3
I0505 15:22:43.676373  7572 net.cpp:151] Top shape: 20 50 (1000)
I0505 15:22:43.676376  7572 net.cpp:159] Memory required for data: 20223280
I0505 15:22:43.676383  7572 layer_factory.hpp:77] Creating layer loss
I0505 15:22:43.676389  7572 net.cpp:94] Creating Layer loss
I0505 15:22:43.676393  7572 net.cpp:435] loss <- ip3
I0505 15:22:43.676396  7572 net.cpp:435] loss <- label
I0505 15:22:43.676407  7572 net.cpp:409] loss -> loss
I0505 15:22:43.676415  7572 layer_factory.hpp:77] Creating layer loss
…
I0505 15:22:43.676875  7572 solver.cpp:181] Creating test net (#0) specified by net file: ./protocol/dis_50_900_dimension.protocol_distribution
I0505 15:22:43.676899  7572 net.cpp:323] The NetState phase (1) differed from the phase (0) specified by a rule in layer parameters
I0505 15:22:43.676980  7572 net.cpp:52] Initializing net from parameters: 
state {
  phase: TEST
}
layer {
  name: "intercept"
  type: "HDF5Data"
  top: "data"
  top: "label"
  include {
    phase: TEST
  }
  hdf5_data_param {
    source: "/home/purduethu/scratch/radon/d/deng106/CNNStatisticalModel/distributions/input/50_distributions_900_sample_size_test-distributions-path.txt"
    batch_size: 20
  }
}
layer {
  name: "conv1"
  type: "Convolution"
  bottom: "data"
  top: "conv1"
  param {
    lr_mult: 1
  }
  param {
    lr_mult: 2
  }
  convolution_param {
    num_output: 64
    pad: 2
    kernel_size: 5
    stride: 1
    weight_filler {
      type: "gaussian"
      std: 0.0001
    }
    bias_filler {
      type: "constant"
    }
  }
}
layer {
  name: "relu1"
  type: "ReLU"
  bottom: "conv1"
  top: "conv1"
}
layer {
  name: "pool1"
  type: "Pooling"
  bottom: "conv1"
  top: "pool1"
  pooling_param {
    pool: MAX
    kernel_size: 3
    stride: 2
  }
}
layer {
  name: "conv2"
  type: "Convolution"
  bottom: "pool1"
  top: "conv2"
  param {
    lr_mult: 1
  }
  param {
    lr_mult: 2
  }
  convolution_param {
    num_output: 128
    pad: 2
    kernel_size: 5
    stride: 1
    weight_filler {
      type: "gaussian"
      std: 0.01
    }
    bias_filler {
      type: "constant"
    }
  }
}
layer {
  name: "relu2"
  type: "ReLU"
  bottom: "conv2"
  top: "conv2"
}
layer {
  name: "conv3"
  type: "Convolution"
  bottom: "conv2"
  top: "conv3"
  param {
    lr_mult: 1
  }
  param {
    lr_mult: 2
  }
  convolution_param {
    num_output: 128
    pad: 2
    kernel_size: 5
    stride: 1
    weight_filler {
      type: "gaussian"
      std: 0.01
    }
    bias_filler {
      type: "constant"
    }
  }
}
layer {
  name: "relu3"
  type: "ReLU"
  bottom: "conv3"
  top: "conv3"
}
layer {
  name: "pool3"
  type: "Pooling"
  bottom: "conv3"
  top: "pool3"
  pooling_param {
    pool: AVE
    kernel_size: 3
    stride: 2
  }
}
layer {
  name: "ip1"
  type: "InnerProduct"
  bottom: "pool3"
  top: "ip1"
  param {
    lr_mult: 1
  }
  param {
    lr_mult: 2
  }
  inner_product_param {
    num_output: 512
    weight_filler {
      type: "gaussian"
      std: 0.1
    }
    bias_filler {
      type: "constant"
    }
  }
}
layer {
  name: "ip2"
  type: "InnerProduct"
  bottom: "ip1"
  top: "ip2"
  param {
    lr_mult: 1
  }
  param {
    lr_mult: 2
  }
  inner_product_param {
    num_output: 256
    weight_filler {
      type: "gaussian"
      std: 0.1
    }
    bias_filler {
      type: "constant"
    }
  }
}
layer {
  name: "ip3"
  type: "InnerProduct"
  bottom: "ip2"
  top: "ip3"
  param {
    lr_mult: 1
  }
  param {
    lr_mult: 2
  }
  inner_product_param {
    num_output: 50
    weight_filler {
      type: "gaussian"
      std: 0.1
    }
    bias_filler {
      type: "constant"
    }
  }
}
layer {
  name: "accuracy"
  type: "Accuracy"
  bottom: "ip3"
  bottom: "label"
  top: "accuracy"
  include {
    phase: TEST
  }
}
layer {
  name: "loss"
  type: "SoftmaxWithLoss"
  bottom: "ip3"
  bottom: "label"
  top: "loss"
}
I0505 15:22:43.677039  7572 layer_factory.hpp:77] Creating layer intercept
I0505 15:22:43.677047  7572 net.cpp:94] Creating Layer intercept
I0505 15:22:43.677052  7572 net.cpp:409] intercept -> data
I0505 15:22:43.677057  7572 net.cpp:409] intercept -> label
I0505 15:22:43.677064  7572 hdf5_data_layer.cpp:79] Loading list of HDF5 filenames from: /home/purduethu/scratch/radon/d/deng106/CNNStatisticalModel/distributions/input/50_distributions_900_sample_size_test-distributions-path.txt
I0505 15:22:43.677083  7572 hdf5_data_layer.cpp:93] Number of HDF5 files: 1
I0505 15:22:44.038985  7572 net.cpp:144] Setting up intercept
I0505 15:22:44.039019  7572 net.cpp:151] Top shape: 20 1 30 30 (18000)
I0505 15:22:44.039026  7572 net.cpp:151] Top shape: 20 (20)
I0505 15:22:44.039028  7572 net.cpp:159] Memory required for data: 72080
I0505 15:22:44.039034  7572 layer_factory.hpp:77] Creating layer label_intercept_1_split
I0505 15:22:44.039054  7572 net.cpp:94] Creating Layer label_intercept_1_split
I0505 15:22:44.039058  7572 net.cpp:435] label_intercept_1_split <- label
I0505 15:22:44.039064  7572 net.cpp:409] label_intercept_1_split -> label_intercept_1_split_0
I0505 15:22:44.039072  7572 net.cpp:409] label_intercept_1_split -> label_intercept_1_split_1
I0505 15:22:44.039113  7572 net.cpp:144] Setting up label_intercept_1_split
I0505 15:22:44.039119  7572 net.cpp:151] Top shape: 20 (20)
I0505 15:22:44.039122  7572 net.cpp:151] Top shape: 20 (20)
I0505 15:22:44.039125  7572 net.cpp:159] Memory required for data: 72240
I0505 15:22:44.039129  7572 layer_factory.hpp:77] Creating layer conv1
I0505 15:22:44.039139  7572 net.cpp:94] Creating Layer conv1
I0505 15:22:44.039144  7572 net.cpp:435] conv1 <- data
I0505 15:22:44.039147  7572 net.cpp:409] conv1 -> conv1
I0505 15:22:44.040627  7572 net.cpp:144] Setting up conv1
I0505 15:22:44.040642  7572 net.cpp:151] Top shape: 20 64 30 30 (1152000)
I0505 15:22:44.040645  7572 net.cpp:159] Memory required for data: 4680240
I0505 15:22:44.040654  7572 layer_factory.hpp:77] Creating layer relu1
I0505 15:22:44.040662  7572 net.cpp:94] Creating Layer relu1
I0505 15:22:44.040664  7572 net.cpp:435] relu1 <- conv1
I0505 15:22:44.040668  7572 net.cpp:396] relu1 -> conv1 (in-place)
I0505 15:22:44.040676  7572 net.cpp:144] Setting up relu1
I0505 15:22:44.040680  7572 net.cpp:151] Top shape: 20 64 30 30 (1152000)
I0505 15:22:44.040683  7572 net.cpp:159] Memory required for data: 9288240
I0505 15:22:44.040686  7572 layer_factory.hpp:77] Creating layer pool1
I0505 15:22:44.040693  7572 net.cpp:94] Creating Layer pool1
I0505 15:22:44.040695  7572 net.cpp:435] pool1 <- conv1
I0505 15:22:44.040699  7572 net.cpp:409] pool1 -> pool1
I0505 15:22:44.040752  7572 net.cpp:144] Setting up pool1
I0505 15:22:44.040760  7572 net.cpp:151] Top shape: 20 64 15 15 (288000)
I0505 15:22:44.040762  7572 net.cpp:159] Memory required for data: 10440240
I0505 15:22:44.040766  7572 layer_factory.hpp:77] Creating layer conv2
I0505 15:22:44.040773  7572 net.cpp:94] Creating Layer conv2
I0505 15:22:44.040776  7572 net.cpp:435] conv2 <- pool1
I0505 15:22:44.040781  7572 net.cpp:409] conv2 -> conv2
I0505 15:22:44.049078  7572 net.cpp:144] Setting up conv2
I0505 15:22:44.049091  7572 net.cpp:151] Top shape: 20 128 15 15 (576000)
I0505 15:22:44.049095  7572 net.cpp:159] Memory required for data: 12744240
I0505 15:22:44.049109  7572 layer_factory.hpp:77] Creating layer relu2
I0505 15:22:44.049115  7572 net.cpp:94] Creating Layer relu2
I0505 15:22:44.049119  7572 net.cpp:435] relu2 <- conv2
I0505 15:22:44.049124  7572 net.cpp:396] relu2 -> conv2 (in-place)
I0505 15:22:44.049130  7572 net.cpp:144] Setting up relu2
I0505 15:22:44.049134  7572 net.cpp:151] Top shape: 20 128 15 15 (576000)
I0505 15:22:44.049137  7572 net.cpp:159] Memory required for data: 15048240
I0505 15:22:44.049140  7572 layer_factory.hpp:77] Creating layer conv3
I0505 15:22:44.049147  7572 net.cpp:94] Creating Layer conv3
I0505 15:22:44.049151  7572 net.cpp:435] conv3 <- conv2
I0505 15:22:44.049155  7572 net.cpp:409] conv3 -> conv3
I0505 15:22:44.064745  7572 net.cpp:144] Setting up conv3
I0505 15:22:44.064760  7572 net.cpp:151] Top shape: 20 128 15 15 (576000)
I0505 15:22:44.064764  7572 net.cpp:159] Memory required for data: 17352240
I0505 15:22:44.064772  7572 layer_factory.hpp:77] Creating layer relu3
I0505 15:22:44.064779  7572 net.cpp:94] Creating Layer relu3
I0505 15:22:44.064782  7572 net.cpp:435] relu3 <- conv3
I0505 15:22:44.064787  7572 net.cpp:396] relu3 -> conv3 (in-place)
I0505 15:22:44.064795  7572 net.cpp:144] Setting up relu3
I0505 15:22:44.064798  7572 net.cpp:151] Top shape: 20 128 15 15 (576000)
I0505 15:22:44.064801  7572 net.cpp:159] Memory required for data: 19656240
I0505 15:22:44.064805  7572 layer_factory.hpp:77] Creating layer pool3
I0505 15:22:44.064808  7572 net.cpp:94] Creating Layer pool3
I0505 15:22:44.064811  7572 net.cpp:435] pool3 <- conv3
I0505 15:22:44.064818  7572 net.cpp:409] pool3 -> pool3
I0505 15:22:44.064858  7572 net.cpp:144] Setting up pool3
I0505 15:22:44.064867  7572 net.cpp:151] Top shape: 20 128 7 7 (125440)
I0505 15:22:44.064868  7572 net.cpp:159] Memory required for data: 20158000
I0505 15:22:44.064872  7572 layer_factory.hpp:77] Creating layer ip1
I0505 15:22:44.064878  7572 net.cpp:94] Creating Layer ip1
I0505 15:22:44.064882  7572 net.cpp:435] ip1 <- pool3
I0505 15:22:44.064887  7572 net.cpp:409] ip1 -> ip1
I0505 15:22:44.142554  7572 net.cpp:144] Setting up ip1
I0505 15:22:44.142588  7572 net.cpp:151] Top shape: 20 512 (10240)
I0505 15:22:44.142591  7572 net.cpp:159] Memory required for data: 20198960
I0505 15:22:44.142601  7572 layer_factory.hpp:77] Creating layer ip2
I0505 15:22:44.142611  7572 net.cpp:94] Creating Layer ip2
I0505 15:22:44.142614  7572 net.cpp:435] ip2 <- ip1
I0505 15:22:44.142622  7572 net.cpp:409] ip2 -> ip2
I0505 15:22:44.145833  7572 net.cpp:144] Setting up ip2
I0505 15:22:44.145841  7572 net.cpp:151] Top shape: 20 256 (5120)
I0505 15:22:44.145844  7572 net.cpp:159] Memory required for data: 20219440
I0505 15:22:44.145853  7572 layer_factory.hpp:77] Creating layer ip3
I0505 15:22:44.145859  7572 net.cpp:94] Creating Layer ip3
I0505 15:22:44.145864  7572 net.cpp:435] ip3 <- ip2
I0505 15:22:44.145869  7572 net.cpp:409] ip3 -> ip3
I0505 15:22:44.146296  7572 net.cpp:144] Setting up ip3
I0505 15:22:44.146304  7572 net.cpp:151] Top shape: 20 50 (1000)
I0505 15:22:44.146307  7572 net.cpp:159] Memory required for data: 20223440
I0505 15:22:44.146312  7572 layer_factory.hpp:77] Creating layer ip3_ip3_0_split
I0505 15:22:44.146318  7572 net.cpp:94] Creating Layer ip3_ip3_0_split
I0505 15:22:44.146320  7572 net.cpp:435] ip3_ip3_0_split <- ip3
I0505 15:22:44.146325  7572 net.cpp:409] ip3_ip3_0_split -> ip3_ip3_0_split_0
I0505 15:22:44.146330  7572 net.cpp:409] ip3_ip3_0_split -> ip3_ip3_0_split_1
I0505 15:22:44.146371  7572 net.cpp:144] Setting up ip3_ip3_0_split
I0505 15:22:44.146378  7572 net.cpp:151] Top shape: 20 50 (1000)
I0505 15:22:44.146380  7572 net.cpp:151] Top shape: 20 50 (1000)
I0505 15:22:44.146384  7572 net.cpp:159] Memory required for data: 20231440
I0505 15:22:44.146386  7572 layer_factory.hpp:77] Creating layer accuracy
I0505 15:22:44.146391  7572 net.cpp:94] Creating Layer accuracy
I0505 15:22:44.146394  7572 net.cpp:435] accuracy <- ip3_ip3_0_split_0
I0505 15:22:44.146399  7572 net.cpp:435] accuracy <- label_intercept_1_split_0
I0505 15:22:44.146402  7572 net.cpp:409] accuracy -> accuracy
…
