…
I0507 05:49:33.128664 31692 net.cpp:323] The NetState phase (0) differed from the phase (1) specified by a rule in layer intercept
I0507 05:49:33.128681 31692 net.cpp:323] The NetState phase (0) differed from the phase (1) specified by a rule in layer loss
I0507 05:49:33.128777 31692 net.cpp:52] Initializing net from parameters: 
state {
  phase: TRAIN
}
layer {
  name: "parameters"
  type: "HDF5Data"
  top: "data"
  top: "label"
  include {
    phase: TRAIN
  }
  hdf5_data_param {
    source: "/home/purduethu/scratch/radon/d/deng106/CNNStatisticalModel/distributions/input/50_distributions_100_sample_size_train-parameters-path.txt"
    batch_size: 20
  }
}
layer {
  name: "conv1"
  type: "Convolution"
  bottom: "data"
  top: "conv1"
  param {
    lr_mult: 1
  }
  param {
    lr_mult: 2
  }
  convolution_param {
    num_output: 64
    pad: 2
    kernel_size: 5
    stride: 1
    weight_filler {
      type: "gaussian"
      std: 0.0001
    }
    bias_filler {
      type: "constant"
    }
  }
}
layer {
  name: "relu1"
  type: "ReLU"
  bottom: "conv1"
  top: "conv1"
}
layer {
  name: "conv2"
  type: "Convolution"
  bottom: "conv1"
  top: "conv2"
  param {
    lr_mult: 1
  }
  param {
    lr_mult: 2
  }
  convolution_param {
    num_output: 64
    pad: 2
    kernel_size: 5
    stride: 1
    weight_filler {
      type: "gaussian"
      std: 0.01
    }
    bias_filler {
      type: "constant"
    }
  }
}
layer {
  name: "relu2"
  type: "ReLU"
  bottom: "conv2"
  top: "conv2"
}
layer {
  name: "pool2"
  type: "Pooling"
  bottom: "conv2"
  top: "pool2"
  pooling_param {
    pool: MAX
    kernel_size: 3
    stride: 2
  }
}
layer {
  name: "conv3"
  type: "Convolution"
  bottom: "pool2"
  top: "conv3"
  param {
    lr_mult: 1
  }
  param {
    lr_mult: 2
  }
  convolution_param {
    num_output: 64
    pad: 2
    kernel_size: 5
    stride: 1
    weight_filler {
      type: "gaussian"
      std: 0.01
    }
    bias_filler {
      type: "constant"
    }
  }
}
layer {
  name: "relu3"
  type: "ReLU"
  bottom: "conv3"
  top: "conv3"
}
layer {
  name: "conv4"
  type: "Convolution"
  bottom: "conv3"
  top: "conv4"
  param {
    lr_mult: 1
  }
  param {
    lr_mult: 2
  }
  convolution_param {
    num_output: 64
    pad: 2
    kernel_size: 5
    stride: 1
    weight_filler {
      type: "gaussian"
      std: 0.01
    }
    bias_filler {
      type: "constant"
    }
  }
}
layer {
  name: "relu4"
  type: "ReLU"
  bottom: "conv4"
  top: "conv4"
}
layer {
  name: "conv5"
  type: "Convolution"
  bottom: "conv4"
  top: "conv5"
  param {
    lr_mult: 1
  }
  param {
    lr_mult: 2
  }
  convolution_param {
    num_output: 64
    pad: 2
    kernel_size: 5
    stride: 1
    weight_filler {
      type: "gaussian"
      std: 0.01
    }
    bias_filler {
      type: "constant"
    }
  }
}
layer {
  name: "relu5"
  type: "ReLU"
  bottom: "conv5"
  top: "conv5"
}
layer {
  name: "pool5"
  type: "Pooling"
  bottom: "conv5"
  top: "pool5"
  pooling_param {
    pool: AVE
    kernel_size: 3
    stride: 2
  }
}
layer {
  name: "ip1"
  type: "InnerProduct"
  bottom: "pool5"
  top: "ip1"
  param {
    lr_mult: 1
  }
  param {
    lr_mult: 2
  }
  inner_product_param {
    num_output: 64
    weight_filler {
      type: "gaussian"
      std: 0.1
    }
    bias_filler {
      type: "constant"
    }
  }
}
layer {
  name: "ip2"
  type: "InnerProduct"
  bottom: "ip1"
  top: "ip2"
  param {
    lr_mult: 1
  }
  param {
    lr_mult: 2
  }
  inner_product_param {
    num_output: 64
    weight_filler {
      type: "gaussian"
      std: 0.1
    }
    bias_filler {
      type: "constant"
    }
  }
}
layer {
  name: "ip3"
  type: "InnerProduct"
  bottom: "ip2"
  top: "ip3"
  param {
    lr_mult: 1
  }
  param {
    lr_mult: 2
  }
  inner_product_param {
    num_output: 1
    weight_filler {
      type: "gaussian"
      std: 0.1
    }
    bias_filler {
      type: "constant"
    }
  }
}
layer {
  name: "loss"
  type: "HuberLoss"
  bottom: "ip3"
  bottom: "label"
  top: "loss"
  include {
    phase: TRAIN
  }
}
I0507 05:49:33.128831 31692 layer_factory.hpp:77] Creating layer parameters
I0507 05:49:33.128851 31692 net.cpp:94] Creating Layer parameters
I0507 05:49:33.128855 31692 net.cpp:409] parameters -> data
I0507 05:49:33.128865 31692 net.cpp:409] parameters -> label
I0507 05:49:33.128871 31692 hdf5_data_layer.cpp:79] Loading list of HDF5 filenames from: /home/purduethu/scratch/radon/d/deng106/CNNStatisticalModel/distributions/input/50_distributions_100_sample_size_train-parameters-path.txt
I0507 05:49:33.128888 31692 hdf5_data_layer.cpp:93] Number of HDF5 files: 1
I0507 05:49:33.129451 31692 hdf5.cpp:32] Datatype class: H5T_FLOAT
I0507 05:49:33.295996 31692 net.cpp:144] Setting up parameters
I0507 05:49:33.296028 31692 net.cpp:151] Top shape: 20 1 10 10 (2000)
I0507 05:49:33.296033 31692 net.cpp:151] Top shape: 20 (20)
I0507 05:49:33.296037 31692 net.cpp:159] Memory required for data: 8080
I0507 05:49:33.296043 31692 layer_factory.hpp:77] Creating layer conv1
I0507 05:49:33.296067 31692 net.cpp:94] Creating Layer conv1
I0507 05:49:33.296072 31692 net.cpp:435] conv1 <- data
I0507 05:49:33.296078 31692 net.cpp:409] conv1 -> conv1
I0507 05:49:33.300247 31692 net.cpp:144] Setting up conv1
I0507 05:49:33.300264 31692 net.cpp:151] Top shape: 20 64 10 10 (128000)
I0507 05:49:33.300268 31692 net.cpp:159] Memory required for data: 520080
I0507 05:49:33.300279 31692 layer_factory.hpp:77] Creating layer relu1
I0507 05:49:33.300288 31692 net.cpp:94] Creating Layer relu1
I0507 05:49:33.300292 31692 net.cpp:435] relu1 <- conv1
I0507 05:49:33.300297 31692 net.cpp:396] relu1 -> conv1 (in-place)
I0507 05:49:33.300312 31692 net.cpp:144] Setting up relu1
I0507 05:49:33.300318 31692 net.cpp:151] Top shape: 20 64 10 10 (128000)
I0507 05:49:33.300320 31692 net.cpp:159] Memory required for data: 1032080
I0507 05:49:33.300324 31692 layer_factory.hpp:77] Creating layer conv2
I0507 05:49:33.300333 31692 net.cpp:94] Creating Layer conv2
I0507 05:49:33.300336 31692 net.cpp:435] conv2 <- conv1
I0507 05:49:33.300341 31692 net.cpp:409] conv2 -> conv2
I0507 05:49:33.306417 31692 net.cpp:144] Setting up conv2
I0507 05:49:33.306432 31692 net.cpp:151] Top shape: 20 64 10 10 (128000)
I0507 05:49:33.306437 31692 net.cpp:159] Memory required for data: 1544080
I0507 05:49:33.306444 31692 layer_factory.hpp:77] Creating layer relu2
I0507 05:49:33.306452 31692 net.cpp:94] Creating Layer relu2
I0507 05:49:33.306455 31692 net.cpp:435] relu2 <- conv2
I0507 05:49:33.306460 31692 net.cpp:396] relu2 -> conv2 (in-place)
I0507 05:49:33.306468 31692 net.cpp:144] Setting up relu2
I0507 05:49:33.306471 31692 net.cpp:151] Top shape: 20 64 10 10 (128000)
I0507 05:49:33.306474 31692 net.cpp:159] Memory required for data: 2056080
I0507 05:49:33.306478 31692 layer_factory.hpp:77] Creating layer pool2
I0507 05:49:33.306483 31692 net.cpp:94] Creating Layer pool2
I0507 05:49:33.306486 31692 net.cpp:435] pool2 <- conv2
I0507 05:49:33.306491 31692 net.cpp:409] pool2 -> pool2
I0507 05:49:33.306542 31692 net.cpp:144] Setting up pool2
I0507 05:49:33.306550 31692 net.cpp:151] Top shape: 20 64 5 5 (32000)
I0507 05:49:33.306553 31692 net.cpp:159] Memory required for data: 2184080
I0507 05:49:33.306556 31692 layer_factory.hpp:77] Creating layer conv3
I0507 05:49:33.306565 31692 net.cpp:94] Creating Layer conv3
I0507 05:49:33.306568 31692 net.cpp:435] conv3 <- pool2
I0507 05:49:33.306579 31692 net.cpp:409] conv3 -> conv3
I0507 05:49:33.311452 31692 net.cpp:144] Setting up conv3
I0507 05:49:33.311466 31692 net.cpp:151] Top shape: 20 64 5 5 (32000)
I0507 05:49:33.311470 31692 net.cpp:159] Memory required for data: 2312080
I0507 05:49:33.311478 31692 layer_factory.hpp:77] Creating layer relu3
I0507 05:49:33.311486 31692 net.cpp:94] Creating Layer relu3
I0507 05:49:33.311488 31692 net.cpp:435] relu3 <- conv3
I0507 05:49:33.311493 31692 net.cpp:396] relu3 -> conv3 (in-place)
I0507 05:49:33.311501 31692 net.cpp:144] Setting up relu3
I0507 05:49:33.311504 31692 net.cpp:151] Top shape: 20 64 5 5 (32000)
I0507 05:49:33.311507 31692 net.cpp:159] Memory required for data: 2440080
I0507 05:49:33.311511 31692 layer_factory.hpp:77] Creating layer conv4
I0507 05:49:33.311519 31692 net.cpp:94] Creating Layer conv4
I0507 05:49:33.311523 31692 net.cpp:435] conv4 <- conv3
I0507 05:49:33.311528 31692 net.cpp:409] conv4 -> conv4
I0507 05:49:33.315922 31692 net.cpp:144] Setting up conv4
I0507 05:49:33.315934 31692 net.cpp:151] Top shape: 20 64 5 5 (32000)
I0507 05:49:33.315938 31692 net.cpp:159] Memory required for data: 2568080
I0507 05:49:33.315945 31692 layer_factory.hpp:77] Creating layer relu4
I0507 05:49:33.315951 31692 net.cpp:94] Creating Layer relu4
I0507 05:49:33.315954 31692 net.cpp:435] relu4 <- conv4
I0507 05:49:33.315959 31692 net.cpp:396] relu4 -> conv4 (in-place)
I0507 05:49:33.315966 31692 net.cpp:144] Setting up relu4
I0507 05:49:33.315970 31692 net.cpp:151] Top shape: 20 64 5 5 (32000)
I0507 05:49:33.315973 31692 net.cpp:159] Memory required for data: 2696080
I0507 05:49:33.315976 31692 layer_factory.hpp:77] Creating layer conv5
I0507 05:49:33.315984 31692 net.cpp:94] Creating Layer conv5
I0507 05:49:33.315987 31692 net.cpp:435] conv5 <- conv4
I0507 05:49:33.315992 31692 net.cpp:409] conv5 -> conv5
I0507 05:49:33.320863 31692 net.cpp:144] Setting up conv5
I0507 05:49:33.320876 31692 net.cpp:151] Top shape: 20 64 5 5 (32000)
I0507 05:49:33.320880 31692 net.cpp:159] Memory required for data: 2824080
I0507 05:49:33.320888 31692 layer_factory.hpp:77] Creating layer relu5
I0507 05:49:33.320894 31692 net.cpp:94] Creating Layer relu5
I0507 05:49:33.320899 31692 net.cpp:435] relu5 <- conv5
I0507 05:49:33.320904 31692 net.cpp:396] relu5 -> conv5 (in-place)
I0507 05:49:33.320910 31692 net.cpp:144] Setting up relu5
I0507 05:49:33.320914 31692 net.cpp:151] Top shape: 20 64 5 5 (32000)
I0507 05:49:33.320919 31692 net.cpp:159] Memory required for data: 2952080
I0507 05:49:33.320921 31692 layer_factory.hpp:77] Creating layer pool5
I0507 05:49:33.320926 31692 net.cpp:94] Creating Layer pool5
I0507 05:49:33.320930 31692 net.cpp:435] pool5 <- conv5
I0507 05:49:33.320933 31692 net.cpp:409] pool5 -> pool5
I0507 05:49:33.320971 31692 net.cpp:144] Setting up pool5
I0507 05:49:33.320979 31692 net.cpp:151] Top shape: 20 64 2 2 (5120)
I0507 05:49:33.320982 31692 net.cpp:159] Memory required for data: 2972560
I0507 05:49:33.320986 31692 layer_factory.hpp:77] Creating layer ip1
I0507 05:49:33.320996 31692 net.cpp:94] Creating Layer ip1
I0507 05:49:33.320999 31692 net.cpp:435] ip1 <- pool5
I0507 05:49:33.321004 31692 net.cpp:409] ip1 -> ip1
I0507 05:49:33.322340 31692 net.cpp:144] Setting up ip1
I0507 05:49:33.322353 31692 net.cpp:151] Top shape: 20 64 (1280)
I0507 05:49:33.322357 31692 net.cpp:159] Memory required for data: 2977680
I0507 05:49:33.322363 31692 layer_factory.hpp:77] Creating layer ip2
I0507 05:49:33.322371 31692 net.cpp:94] Creating Layer ip2
I0507 05:49:33.322374 31692 net.cpp:435] ip2 <- ip1
I0507 05:49:33.322381 31692 net.cpp:409] ip2 -> ip2
I0507 05:49:33.322590 31692 net.cpp:144] Setting up ip2
I0507 05:49:33.322598 31692 net.cpp:151] Top shape: 20 64 (1280)
I0507 05:49:33.322602 31692 net.cpp:159] Memory required for data: 2982800
I0507 05:49:33.322607 31692 layer_factory.hpp:77] Creating layer ip3
I0507 05:49:33.322613 31692 net.cpp:94] Creating Layer ip3
I0507 05:49:33.322616 31692 net.cpp:435] ip3 <- ip2
I0507 05:49:33.322621 31692 net.cpp:409] ip3 -> ip3
I0507 05:49:33.322731 31692 net.cpp:144] Setting up ip3
I0507 05:49:33.322737 31692 net.cpp:151] Top shape: 20 1 (20)
I0507 05:49:33.322741 31692 net.cpp:159] Memory required for data: 2982880
I0507 05:49:33.322746 31692 layer_factory.hpp:77] Creating layer loss
I0507 05:49:33.322753 31692 net.cpp:94] Creating Layer loss
I0507 05:49:33.322757 31692 net.cpp:435] loss <- ip3
I0507 05:49:33.322762 31692 net.cpp:435] loss <- label
I0507 05:49:33.322765 31692 net.cpp:409] loss -> loss
I0507 05:49:33.322813 31692 net.cpp:144] Setting up loss
…
I0507 05:49:33.384992 31692 net.cpp:323] The NetState phase (0) differed from the phase (1) specified by a rule in layer intercept
I0507 05:49:33.385009 31692 net.cpp:323] The NetState phase (0) differed from the phase (1) specified by a rule in layer accuracy
I0507 05:49:33.385110 31692 net.cpp:52] Initializing net from parameters: 
state {
  phase: TRAIN
}
layer {
  name: "parameters"
  type: "HDF5Data"
  top: "data"
  top: "label"
  include {
    phase: TRAIN
  }
  hdf5_data_param {
    source: "/home/purduethu/scratch/radon/d/deng106/CNNStatisticalModel/distributions/input/50_distributions_100_sample_size_train-distributions-path.txt"
    batch_size: 20
  }
}
layer {
  name: "conv1"
  type: "Convolution"
  bottom: "data"
  top: "conv1"
  param {
    lr_mult: 1
  }
  param {
    lr_mult: 2
  }
  convolution_param {
    num_output: 64
    pad: 2
    kernel_size: 5
    stride: 1
    weight_filler {
      type: "gaussian"
      std: 0.0001
    }
    bias_filler {
      type: "constant"
    }
  }
}
layer {
  name: "relu1"
  type: "ReLU"
  bottom: "conv1"
  top: "conv1"
}
layer {
  name: "conv2"
  type: "Convolution"
  bottom: "conv1"
  top: "conv2"
  param {
    lr_mult: 1
  }
  param {
    lr_mult: 2
  }
  convolution_param {
    num_output: 64
    pad: 2
    kernel_size: 5
    stride: 1
    weight_filler {
      type: "gaussian"
      std: 0.01
    }
    bias_filler {
      type: "constant"
    }
  }
}
layer {
  name: "relu2"
  type: "ReLU"
  bottom: "conv2"
  top: "conv2"
}
layer {
  name: "pool2"
  type: "Pooling"
  bottom: "conv2"
  top: "pool2"
  pooling_param {
    pool: MAX
    kernel_size: 3
    stride: 2
  }
}
layer {
  name: "conv3"
  type: "Convolution"
  bottom: "pool2"
  top: "conv3"
  param {
    lr_mult: 1
  }
  param {
    lr_mult: 2
  }
  convolution_param {
    num_output: 64
    pad: 2
    kernel_size: 5
    stride: 1
    weight_filler {
      type: "gaussian"
      std: 0.01
    }
    bias_filler {
      type: "constant"
    }
  }
}
layer {
  name: "relu3"
  type: "ReLU"
  bottom: "conv3"
  top: "conv3"
}
layer {
  name: "conv4"
  type: "Convolution"
  bottom: "conv3"
  top: "conv4"
  param {
    lr_mult: 1
  }
  param {
    lr_mult: 2
  }
  convolution_param {
    num_output: 64
    pad: 2
    kernel_size: 5
    stride: 1
    weight_filler {
      type: "gaussian"
      std: 0.01
    }
    bias_filler {
      type: "constant"
    }
  }
}
layer {
  name: "relu4"
  type: "ReLU"
  bottom: "conv4"
  top: "conv4"
}
layer {
  name: "conv5"
  type: "Convolution"
  bottom: "conv4"
  top: "conv5"
  param {
    lr_mult: 1
  }
  param {
    lr_mult: 2
  }
  convolution_param {
    num_output: 64
    pad: 2
    kernel_size: 5
    stride: 1
    weight_filler {
      type: "gaussian"
      std: 0.01
    }
    bias_filler {
      type: "constant"
    }
  }
}
layer {
  name: "relu5"
  type: "ReLU"
  bottom: "conv5"
  top: "conv5"
}
layer {
  name: "pool5"
  type: "Pooling"
  bottom: "conv5"
  top: "pool5"
  pooling_param {
    pool: AVE
    kernel_size: 3
    stride: 2
  }
}
layer {
  name: "ip1"
  type: "InnerProduct"
  bottom: "pool5"
  top: "ip1"
  param {
    lr_mult: 1
  }
  param {
    lr_mult: 2
  }
  inner_product_param {
    num_output: 64
    weight_filler {
      type: "gaussian"
      std: 0.1
    }
    bias_filler {
      type: "constant"
    }
  }
}
layer {
  name: "ip2"
  type: "InnerProduct"
  bottom: "ip1"
  top: "ip2"
  param {
    lr_mult: 1
  }
  param {
    lr_mult: 2
  }
  inner_product_param {
    num_output: 64
    weight_filler {
      type: "gaussian"
      std: 0.1
    }
    bias_filler {
      type: "constant"
    }
  }
}
layer {
  name: "ip3"
  type: "InnerProduct"
  bottom: "ip2"
  top: "ip3"
  param {
    lr_mult: 1
  }
  param {
    lr_mult: 2
  }
  inner_product_param {
    num_output: 50
    weight_filler {
      type: "gaussian"
      std: 0.1
    }
    bias_filler {
      type: "constant"
    }
  }
}
layer {
  name: "loss"
  type: "SoftmaxWithLoss"
  bottom: "ip3"
  bottom: "label"
  top: "loss"
}
I0507 05:49:33.385165 31692 layer_factory.hpp:77] Creating layer parameters
I0507 05:49:33.385174 31692 net.cpp:94] Creating Layer parameters
I0507 05:49:33.385179 31692 net.cpp:409] parameters -> data
I0507 05:49:33.385185 31692 net.cpp:409] parameters -> label
I0507 05:49:33.385191 31692 hdf5_data_layer.cpp:79] Loading list of HDF5 filenames from: /home/purduethu/scratch/radon/d/deng106/CNNStatisticalModel/distributions/input/50_distributions_100_sample_size_train-distributions-path.txt
I0507 05:49:33.385208 31692 hdf5_data_layer.cpp:93] Number of HDF5 files: 1
I0507 05:49:33.543351 31692 hdf5.cpp:35] Datatype class: H5T_INTEGER
I0507 05:49:33.546362 31692 net.cpp:144] Setting up parameters
I0507 05:49:33.546386 31692 net.cpp:151] Top shape: 20 1 10 10 (2000)
I0507 05:49:33.546391 31692 net.cpp:151] Top shape: 20 (20)
I0507 05:49:33.546394 31692 net.cpp:159] Memory required for data: 8080
I0507 05:49:33.546401 31692 layer_factory.hpp:77] Creating layer conv1
I0507 05:49:33.546417 31692 net.cpp:94] Creating Layer conv1
I0507 05:49:33.546422 31692 net.cpp:435] conv1 <- data
I0507 05:49:33.546428 31692 net.cpp:409] conv1 -> conv1
I0507 05:49:33.548063 31692 net.cpp:144] Setting up conv1
I0507 05:49:33.548077 31692 net.cpp:151] Top shape: 20 64 10 10 (128000)
I0507 05:49:33.548080 31692 net.cpp:159] Memory required for data: 520080
I0507 05:49:33.548090 31692 layer_factory.hpp:77] Creating layer relu1
I0507 05:49:33.548097 31692 net.cpp:94] Creating Layer relu1
I0507 05:49:33.548101 31692 net.cpp:435] relu1 <- conv1
I0507 05:49:33.548106 31692 net.cpp:396] relu1 -> conv1 (in-place)
I0507 05:49:33.548113 31692 net.cpp:144] Setting up relu1
I0507 05:49:33.548118 31692 net.cpp:151] Top shape: 20 64 10 10 (128000)
I0507 05:49:33.548121 31692 net.cpp:159] Memory required for data: 1032080
I0507 05:49:33.548125 31692 layer_factory.hpp:77] Creating layer conv2
I0507 05:49:33.548131 31692 net.cpp:94] Creating Layer conv2
I0507 05:49:33.548135 31692 net.cpp:435] conv2 <- conv1
I0507 05:49:33.548140 31692 net.cpp:409] conv2 -> conv2
I0507 05:49:33.553382 31692 net.cpp:144] Setting up conv2
I0507 05:49:33.553396 31692 net.cpp:151] Top shape: 20 64 10 10 (128000)
I0507 05:49:33.553400 31692 net.cpp:159] Memory required for data: 1544080
I0507 05:49:33.553407 31692 layer_factory.hpp:77] Creating layer relu2
I0507 05:49:33.553414 31692 net.cpp:94] Creating Layer relu2
I0507 05:49:33.553418 31692 net.cpp:435] relu2 <- conv2
I0507 05:49:33.553422 31692 net.cpp:396] relu2 -> conv2 (in-place)
I0507 05:49:33.553429 31692 net.cpp:144] Setting up relu2
I0507 05:49:33.553433 31692 net.cpp:151] Top shape: 20 64 10 10 (128000)
I0507 05:49:33.553436 31692 net.cpp:159] Memory required for data: 2056080
I0507 05:49:33.553439 31692 layer_factory.hpp:77] Creating layer pool2
I0507 05:49:33.553445 31692 net.cpp:94] Creating Layer pool2
I0507 05:49:33.553448 31692 net.cpp:435] pool2 <- conv2
I0507 05:49:33.553452 31692 net.cpp:409] pool2 -> pool2
I0507 05:49:33.553503 31692 net.cpp:144] Setting up pool2
I0507 05:49:33.553510 31692 net.cpp:151] Top shape: 20 64 5 5 (32000)
I0507 05:49:33.553514 31692 net.cpp:159] Memory required for data: 2184080
I0507 05:49:33.553516 31692 layer_factory.hpp:77] Creating layer conv3
I0507 05:49:33.553524 31692 net.cpp:94] Creating Layer conv3
I0507 05:49:33.553527 31692 net.cpp:435] conv3 <- pool2
I0507 05:49:33.553532 31692 net.cpp:409] conv3 -> conv3
I0507 05:49:33.559108 31692 net.cpp:144] Setting up conv3
I0507 05:49:33.559121 31692 net.cpp:151] Top shape: 20 64 5 5 (32000)
I0507 05:49:33.559125 31692 net.cpp:159] Memory required for data: 2312080
I0507 05:49:33.559134 31692 layer_factory.hpp:77] Creating layer relu3
I0507 05:49:33.559140 31692 net.cpp:94] Creating Layer relu3
I0507 05:49:33.559144 31692 net.cpp:435] relu3 <- conv3
I0507 05:49:33.559149 31692 net.cpp:396] relu3 -> conv3 (in-place)
I0507 05:49:33.559154 31692 net.cpp:144] Setting up relu3
I0507 05:49:33.559159 31692 net.cpp:151] Top shape: 20 64 5 5 (32000)
I0507 05:49:33.559167 31692 net.cpp:159] Memory required for data: 2440080
I0507 05:49:33.559171 31692 layer_factory.hpp:77] Creating layer conv4
I0507 05:49:33.559180 31692 net.cpp:94] Creating Layer conv4
I0507 05:49:33.559183 31692 net.cpp:435] conv4 <- conv3
I0507 05:49:33.559188 31692 net.cpp:409] conv4 -> conv4
I0507 05:49:33.564000 31692 net.cpp:144] Setting up conv4
I0507 05:49:33.564014 31692 net.cpp:151] Top shape: 20 64 5 5 (32000)
I0507 05:49:33.564018 31692 net.cpp:159] Memory required for data: 2568080
I0507 05:49:33.564024 31692 layer_factory.hpp:77] Creating layer relu4
I0507 05:49:33.564030 31692 net.cpp:94] Creating Layer relu4
I0507 05:49:33.564033 31692 net.cpp:435] relu4 <- conv4
I0507 05:49:33.564038 31692 net.cpp:396] relu4 -> conv4 (in-place)
I0507 05:49:33.564045 31692 net.cpp:144] Setting up relu4
I0507 05:49:33.564049 31692 net.cpp:151] Top shape: 20 64 5 5 (32000)
I0507 05:49:33.564052 31692 net.cpp:159] Memory required for data: 2696080
I0507 05:49:33.564055 31692 layer_factory.hpp:77] Creating layer conv5
I0507 05:49:33.564064 31692 net.cpp:94] Creating Layer conv5
I0507 05:49:33.564066 31692 net.cpp:435] conv5 <- conv4
I0507 05:49:33.564071 31692 net.cpp:409] conv5 -> conv5
I0507 05:49:33.568428 31692 net.cpp:144] Setting up conv5
I0507 05:49:33.568441 31692 net.cpp:151] Top shape: 20 64 5 5 (32000)
I0507 05:49:33.568445 31692 net.cpp:159] Memory required for data: 2824080
I0507 05:49:33.568454 31692 layer_factory.hpp:77] Creating layer relu5
I0507 05:49:33.568459 31692 net.cpp:94] Creating Layer relu5
I0507 05:49:33.568464 31692 net.cpp:435] relu5 <- conv5
I0507 05:49:33.568467 31692 net.cpp:396] relu5 -> conv5 (in-place)
I0507 05:49:33.568475 31692 net.cpp:144] Setting up relu5
I0507 05:49:33.568478 31692 net.cpp:151] Top shape: 20 64 5 5 (32000)
I0507 05:49:33.568481 31692 net.cpp:159] Memory required for data: 2952080
I0507 05:49:33.568485 31692 layer_factory.hpp:77] Creating layer pool5
I0507 05:49:33.568490 31692 net.cpp:94] Creating Layer pool5
I0507 05:49:33.568493 31692 net.cpp:435] pool5 <- conv5
I0507 05:49:33.568497 31692 net.cpp:409] pool5 -> pool5
I0507 05:49:33.568531 31692 net.cpp:144] Setting up pool5
I0507 05:49:33.568538 31692 net.cpp:151] Top shape: 20 64 2 2 (5120)
I0507 05:49:33.568542 31692 net.cpp:159] Memory required for data: 2972560
I0507 05:49:33.568544 31692 layer_factory.hpp:77] Creating layer ip1
I0507 05:49:33.568559 31692 net.cpp:94] Creating Layer ip1
I0507 05:49:33.568563 31692 net.cpp:435] ip1 <- pool5
I0507 05:49:33.568568 31692 net.cpp:409] ip1 -> ip1
I0507 05:49:33.569082 31692 net.cpp:144] Setting up ip1
I0507 05:49:33.569090 31692 net.cpp:151] Top shape: 20 64 (1280)
I0507 05:49:33.569093 31692 net.cpp:159] Memory required for data: 2977680
I0507 05:49:33.569099 31692 layer_factory.hpp:77] Creating layer ip2
I0507 05:49:33.569105 31692 net.cpp:94] Creating Layer ip2
I0507 05:49:33.569108 31692 net.cpp:435] ip2 <- ip1
I0507 05:49:33.569113 31692 net.cpp:409] ip2 -> ip2
I0507 05:49:33.569326 31692 net.cpp:144] Setting up ip2
I0507 05:49:33.569334 31692 net.cpp:151] Top shape: 20 64 (1280)
I0507 05:49:33.569337 31692 net.cpp:159] Memory required for data: 2982800
I0507 05:49:33.569342 31692 layer_factory.hpp:77] Creating layer ip3
I0507 05:49:33.569349 31692 net.cpp:94] Creating Layer ip3
I0507 05:49:33.569351 31692 net.cpp:435] ip3 <- ip2
I0507 05:49:33.569356 31692 net.cpp:409] ip3 -> ip3
I0507 05:49:33.569545 31692 net.cpp:144] Setting up ip3
I0507 05:49:33.569552 31692 net.cpp:151] Top shape: 20 50 (1000)
I0507 05:49:33.569555 31692 net.cpp:159] Memory required for data: 2986800
I0507 05:49:33.569561 31692 layer_factory.hpp:77] Creating layer loss
I0507 05:49:33.569567 31692 net.cpp:94] Creating Layer loss
I0507 05:49:33.569571 31692 net.cpp:435] loss <- ip3
I0507 05:49:33.569574 31692 net.cpp:435] loss <- label
I0507 05:49:33.569578 31692 net.cpp:409] loss -> loss
I0507 05:49:33.569586 31692 layer_factory.hpp:77] Creating layer loss
…
I0507 05:49:33.570931 31692 solver.cpp:181] Creating test net (#0) specified by net file: ./protocol/dis_50_100_dimension.protocol_distribution
I0507 05:49:33.570957 31692 net.cpp:323] The NetState phase (1) differed from the phase (0) specified by a rule in layer parameters
I0507 05:49:33.571063 31692 net.cpp:52] Initializing net from parameters: 
state {
  phase: TEST
}
layer {
  name: "intercept"
  type: "HDF5Data"
  top: "data"
  top: "label"
  include {
    phase: TEST
  }
  hdf5_data_param {
    source: "/home/purduethu/scratch/radon/d/deng106/CNNStatisticalModel/distributions/input/50_distributions_100_sample_size_test-distributions-path.txt"
    batch_size: 20
  }
}
layer {
  name: "conv1"
  type: "Convolution"
  bottom: "data"
  top: "conv1"
  param {
    lr_mult: 1
  }
  param {
    lr_mult: 2
  }
  convolution_param {
    num_output: 64
    pad: 2
    kernel_size: 5
    stride: 1
    weight_filler {
      type: "gaussian"
      std: 0.0001
    }
    bias_filler {
      type: "constant"
    }
  }
}
layer {
  name: "relu1"
  type: "ReLU"
  bottom: "conv1"
  top: "conv1"
}
layer {
  name: "conv2"
  type: "Convolution"
  bottom: "conv1"
  top: "conv2"
  param {
    lr_mult: 1
  }
  param {
    lr_mult: 2
  }
  convolution_param {
    num_output: 64
    pad: 2
    kernel_size: 5
    stride: 1
    weight_filler {
      type: "gaussian"
      std: 0.01
    }
    bias_filler {
      type: "constant"
    }
  }
}
layer {
  name: "relu2"
  type: "ReLU"
  bottom: "conv2"
  top: "conv2"
}
layer {
  name: "pool2"
  type: "Pooling"
  bottom: "conv2"
  top: "pool2"
  pooling_param {
    pool: MAX
    kernel_size: 3
    stride: 2
  }
}
layer {
  name: "conv3"
  type: "Convolution"
  bottom: "pool2"
  top: "conv3"
  param {
    lr_mult: 1
  }
  param {
    lr_mult: 2
  }
  convolution_param {
    num_output: 64
    pad: 2
    kernel_size: 5
    stride: 1
    weight_filler {
      type: "gaussian"
      std: 0.01
    }
    bias_filler {
      type: "constant"
    }
  }
}
layer {
  name: "relu3"
  type: "ReLU"
  bottom: "conv3"
  top: "conv3"
}
layer {
  name: "conv4"
  type: "Convolution"
  bottom: "conv3"
  top: "conv4"
  param {
    lr_mult: 1
  }
  param {
    lr_mult: 2
  }
  convolution_param {
    num_output: 64
    pad: 2
    kernel_size: 5
    stride: 1
    weight_filler {
      type: "gaussian"
      std: 0.01
    }
    bias_filler {
      type: "constant"
    }
  }
}
layer {
  name: "relu4"
  type: "ReLU"
  bottom: "conv4"
  top: "conv4"
}
layer {
  name: "conv5"
  type: "Convolution"
  bottom: "conv4"
  top: "conv5"
  param {
    lr_mult: 1
  }
  param {
    lr_mult: 2
  }
  convolution_param {
    num_output: 64
    pad: 2
    kernel_size: 5
    stride: 1
    weight_filler {
      type: "gaussian"
      std: 0.01
    }
    bias_filler {
      type: "constant"
    }
  }
}
layer {
  name: "relu5"
  type: "ReLU"
  bottom: "conv5"
  top: "conv5"
}
layer {
  name: "pool5"
  type: "Pooling"
  bottom: "conv5"
  top: "pool5"
  pooling_param {
    pool: AVE
    kernel_size: 3
    stride: 2
  }
}
layer {
  name: "ip1"
  type: "InnerProduct"
  bottom: "pool5"
  top: "ip1"
  param {
    lr_mult: 1
  }
  param {
    lr_mult: 2
  }
  inner_product_param {
    num_output: 64
    weight_filler {
      type: "gaussian"
      std: 0.1
    }
    bias_filler {
      type: "constant"
    }
  }
}
layer {
  name: "ip2"
  type: "InnerProduct"
  bottom: "ip1"
  top: "ip2"
  param {
    lr_mult: 1
  }
  param {
    lr_mult: 2
  }
  inner_product_param {
    num_output: 64
    weight_filler {
      type: "gaussian"
      std: 0.1
    }
    bias_filler {
      type: "constant"
    }
  }
}
layer {
  name: "ip3"
  type: "InnerProduct"
  bottom: "ip2"
  top: "ip3"
  param {
    lr_mult: 1
  }
  param {
    lr_mult: 2
  }
  inner_product_param {
    num_output: 50
    weight_filler {
      type: "gaussian"
      std: 0.1
    }
    bias_filler {
      type: "constant"
    }
  }
}
layer {
  name: "accuracy"
  type: "Accuracy"
  bottom: "ip3"
  bottom: "label"
  top: "accuracy"
  include {
    phase: TEST
  }
}
layer {
  name: "loss"
  type: "SoftmaxWithLoss"
  bottom: "ip3"
  bottom: "label"
  top: "loss"
}
I0507 05:49:33.571130 31692 layer_factory.hpp:77] Creating layer intercept
I0507 05:49:33.571137 31692 net.cpp:94] Creating Layer intercept
I0507 05:49:33.571142 31692 net.cpp:409] intercept -> data
I0507 05:49:33.571149 31692 net.cpp:409] intercept -> label
I0507 05:49:33.571156 31692 hdf5_data_layer.cpp:79] Loading list of HDF5 filenames from: /home/purduethu/scratch/radon/d/deng106/CNNStatisticalModel/distributions/input/50_distributions_100_sample_size_test-distributions-path.txt
I0507 05:49:33.571175 31692 hdf5_data_layer.cpp:93] Number of HDF5 files: 1
I0507 05:49:33.612529 31692 net.cpp:144] Setting up intercept
I0507 05:49:33.612574 31692 net.cpp:151] Top shape: 20 1 10 10 (2000)
I0507 05:49:33.612581 31692 net.cpp:151] Top shape: 20 (20)
I0507 05:49:33.612584 31692 net.cpp:159] Memory required for data: 8080
I0507 05:49:33.612591 31692 layer_factory.hpp:77] Creating layer label_intercept_1_split
I0507 05:49:33.612610 31692 net.cpp:94] Creating Layer label_intercept_1_split
I0507 05:49:33.612615 31692 net.cpp:435] label_intercept_1_split <- label
I0507 05:49:33.612622 31692 net.cpp:409] label_intercept_1_split -> label_intercept_1_split_0
I0507 05:49:33.612630 31692 net.cpp:409] label_intercept_1_split -> label_intercept_1_split_1
I0507 05:49:33.612670 31692 net.cpp:144] Setting up label_intercept_1_split
I0507 05:49:33.612678 31692 net.cpp:151] Top shape: 20 (20)
I0507 05:49:33.612681 31692 net.cpp:151] Top shape: 20 (20)
I0507 05:49:33.612684 31692 net.cpp:159] Memory required for data: 8240
I0507 05:49:33.612687 31692 layer_factory.hpp:77] Creating layer conv1
I0507 05:49:33.612699 31692 net.cpp:94] Creating Layer conv1
I0507 05:49:33.612702 31692 net.cpp:435] conv1 <- data
I0507 05:49:33.612707 31692 net.cpp:409] conv1 -> conv1
I0507 05:49:33.613472 31692 net.cpp:144] Setting up conv1
I0507 05:49:33.613486 31692 net.cpp:151] Top shape: 20 64 10 10 (128000)
I0507 05:49:33.613488 31692 net.cpp:159] Memory required for data: 520240
I0507 05:49:33.613498 31692 layer_factory.hpp:77] Creating layer relu1
I0507 05:49:33.613505 31692 net.cpp:94] Creating Layer relu1
I0507 05:49:33.613508 31692 net.cpp:435] relu1 <- conv1
I0507 05:49:33.613512 31692 net.cpp:396] relu1 -> conv1 (in-place)
I0507 05:49:33.613520 31692 net.cpp:144] Setting up relu1
I0507 05:49:33.613524 31692 net.cpp:151] Top shape: 20 64 10 10 (128000)
I0507 05:49:33.613528 31692 net.cpp:159] Memory required for data: 1032240
I0507 05:49:33.613538 31692 layer_factory.hpp:77] Creating layer conv2
I0507 05:49:33.613546 31692 net.cpp:94] Creating Layer conv2
I0507 05:49:33.613549 31692 net.cpp:435] conv2 <- conv1
I0507 05:49:33.613554 31692 net.cpp:409] conv2 -> conv2
I0507 05:49:33.617616 31692 net.cpp:144] Setting up conv2
I0507 05:49:33.617630 31692 net.cpp:151] Top shape: 20 64 10 10 (128000)
I0507 05:49:33.617635 31692 net.cpp:159] Memory required for data: 1544240
I0507 05:49:33.617642 31692 layer_factory.hpp:77] Creating layer relu2
I0507 05:49:33.617650 31692 net.cpp:94] Creating Layer relu2
I0507 05:49:33.617653 31692 net.cpp:435] relu2 <- conv2
I0507 05:49:33.617657 31692 net.cpp:396] relu2 -> conv2 (in-place)
I0507 05:49:33.617664 31692 net.cpp:144] Setting up relu2
I0507 05:49:33.617668 31692 net.cpp:151] Top shape: 20 64 10 10 (128000)
I0507 05:49:33.617671 31692 net.cpp:159] Memory required for data: 2056240
I0507 05:49:33.617674 31692 layer_factory.hpp:77] Creating layer pool2
I0507 05:49:33.617681 31692 net.cpp:94] Creating Layer pool2
I0507 05:49:33.617683 31692 net.cpp:435] pool2 <- conv2
I0507 05:49:33.617687 31692 net.cpp:409] pool2 -> pool2
I0507 05:49:33.617740 31692 net.cpp:144] Setting up pool2
I0507 05:49:33.617748 31692 net.cpp:151] Top shape: 20 64 5 5 (32000)
I0507 05:49:33.617750 31692 net.cpp:159] Memory required for data: 2184240
I0507 05:49:33.617753 31692 layer_factory.hpp:77] Creating layer conv3
I0507 05:49:33.617763 31692 net.cpp:94] Creating Layer conv3
I0507 05:49:33.617765 31692 net.cpp:435] conv3 <- pool2
I0507 05:49:33.617771 31692 net.cpp:409] conv3 -> conv3
I0507 05:49:33.622134 31692 net.cpp:144] Setting up conv3
I0507 05:49:33.622148 31692 net.cpp:151] Top shape: 20 64 5 5 (32000)
I0507 05:49:33.622153 31692 net.cpp:159] Memory required for data: 2312240
I0507 05:49:33.622160 31692 layer_factory.hpp:77] Creating layer relu3
I0507 05:49:33.622167 31692 net.cpp:94] Creating Layer relu3
I0507 05:49:33.622170 31692 net.cpp:435] relu3 <- conv3
I0507 05:49:33.622175 31692 net.cpp:396] relu3 -> conv3 (in-place)
I0507 05:49:33.622181 31692 net.cpp:144] Setting up relu3
I0507 05:49:33.622186 31692 net.cpp:151] Top shape: 20 64 5 5 (32000)
I0507 05:49:33.622189 31692 net.cpp:159] Memory required for data: 2440240
I0507 05:49:33.622191 31692 layer_factory.hpp:77] Creating layer conv4
I0507 05:49:33.622200 31692 net.cpp:94] Creating Layer conv4
I0507 05:49:33.622205 31692 net.cpp:435] conv4 <- conv3
I0507 05:49:33.622210 31692 net.cpp:409] conv4 -> conv4
I0507 05:49:33.625735 31692 net.cpp:144] Setting up conv4
I0507 05:49:33.625748 31692 net.cpp:151] Top shape: 20 64 5 5 (32000)
I0507 05:49:33.625752 31692 net.cpp:159] Memory required for data: 2568240
I0507 05:49:33.625758 31692 layer_factory.hpp:77] Creating layer relu4
I0507 05:49:33.625764 31692 net.cpp:94] Creating Layer relu4
I0507 05:49:33.625767 31692 net.cpp:435] relu4 <- conv4
I0507 05:49:33.625771 31692 net.cpp:396] relu4 -> conv4 (in-place)
I0507 05:49:33.625777 31692 net.cpp:144] Setting up relu4
I0507 05:49:33.625782 31692 net.cpp:151] Top shape: 20 64 5 5 (32000)
I0507 05:49:33.625785 31692 net.cpp:159] Memory required for data: 2696240
I0507 05:49:33.625788 31692 layer_factory.hpp:77] Creating layer conv5
I0507 05:49:33.625797 31692 net.cpp:94] Creating Layer conv5
I0507 05:49:33.625800 31692 net.cpp:435] conv5 <- conv4
I0507 05:49:33.625805 31692 net.cpp:409] conv5 -> conv5
I0507 05:49:33.629787 31692 net.cpp:144] Setting up conv5
I0507 05:49:33.629801 31692 net.cpp:151] Top shape: 20 64 5 5 (32000)
I0507 05:49:33.629804 31692 net.cpp:159] Memory required for data: 2824240
I0507 05:49:33.629814 31692 layer_factory.hpp:77] Creating layer relu5
I0507 05:49:33.629820 31692 net.cpp:94] Creating Layer relu5
I0507 05:49:33.629824 31692 net.cpp:435] relu5 <- conv5
I0507 05:49:33.629829 31692 net.cpp:396] relu5 -> conv5 (in-place)
I0507 05:49:33.629835 31692 net.cpp:144] Setting up relu5
I0507 05:49:33.629840 31692 net.cpp:151] Top shape: 20 64 5 5 (32000)
I0507 05:49:33.629842 31692 net.cpp:159] Memory required for data: 2952240
I0507 05:49:33.629850 31692 layer_factory.hpp:77] Creating layer pool5
I0507 05:49:33.629856 31692 net.cpp:94] Creating Layer pool5
I0507 05:49:33.629859 31692 net.cpp:435] pool5 <- conv5
I0507 05:49:33.629863 31692 net.cpp:409] pool5 -> pool5
I0507 05:49:33.629901 31692 net.cpp:144] Setting up pool5
I0507 05:49:33.629909 31692 net.cpp:151] Top shape: 20 64 2 2 (5120)
I0507 05:49:33.629911 31692 net.cpp:159] Memory required for data: 2972720
I0507 05:49:33.629914 31692 layer_factory.hpp:77] Creating layer ip1
I0507 05:49:33.629921 31692 net.cpp:94] Creating Layer ip1
I0507 05:49:33.629925 31692 net.cpp:435] ip1 <- pool5
I0507 05:49:33.629930 31692 net.cpp:409] ip1 -> ip1
I0507 05:49:33.630448 31692 net.cpp:144] Setting up ip1
I0507 05:49:33.630456 31692 net.cpp:151] Top shape: 20 64 (1280)
I0507 05:49:33.630460 31692 net.cpp:159] Memory required for data: 2977840
I0507 05:49:33.630465 31692 layer_factory.hpp:77] Creating layer ip2
I0507 05:49:33.630470 31692 net.cpp:94] Creating Layer ip2
I0507 05:49:33.630475 31692 net.cpp:435] ip2 <- ip1
I0507 05:49:33.630478 31692 net.cpp:409] ip2 -> ip2
I0507 05:49:33.630700 31692 net.cpp:144] Setting up ip2
I0507 05:49:33.630708 31692 net.cpp:151] Top shape: 20 64 (1280)
I0507 05:49:33.630712 31692 net.cpp:159] Memory required for data: 2982960
I0507 05:49:33.630717 31692 layer_factory.hpp:77] Creating layer ip3
I0507 05:49:33.630724 31692 net.cpp:94] Creating Layer ip3
I0507 05:49:33.630728 31692 net.cpp:435] ip3 <- ip2
I0507 05:49:33.630733 31692 net.cpp:409] ip3 -> ip3
I0507 05:49:33.630926 31692 net.cpp:144] Setting up ip3
I0507 05:49:33.630934 31692 net.cpp:151] Top shape: 20 50 (1000)
I0507 05:49:33.630936 31692 net.cpp:159] Memory required for data: 2986960
I0507 05:49:33.630941 31692 layer_factory.hpp:77] Creating layer ip3_ip3_0_split
I0507 05:49:33.630946 31692 net.cpp:94] Creating Layer ip3_ip3_0_split
I0507 05:49:33.630949 31692 net.cpp:435] ip3_ip3_0_split <- ip3
I0507 05:49:33.630954 31692 net.cpp:409] ip3_ip3_0_split -> ip3_ip3_0_split_0
I0507 05:49:33.630959 31692 net.cpp:409] ip3_ip3_0_split -> ip3_ip3_0_split_1
I0507 05:49:33.630997 31692 net.cpp:144] Setting up ip3_ip3_0_split
I0507 05:49:33.631003 31692 net.cpp:151] Top shape: 20 50 (1000)
I0507 05:49:33.631006 31692 net.cpp:151] Top shape: 20 50 (1000)
I0507 05:49:33.631009 31692 net.cpp:159] Memory required for data: 2994960
I0507 05:49:33.631012 31692 layer_factory.hpp:77] Creating layer accuracy
I0507 05:49:33.631018 31692 net.cpp:94] Creating Layer accuracy
I0507 05:49:33.631021 31692 net.cpp:435] accuracy <- ip3_ip3_0_split_0
I0507 05:49:33.631024 31692 net.cpp:435] accuracy <- label_intercept_1_split_0
I0507 05:49:33.631028 31692 net.cpp:409] accuracy -> accuracy
…
