…
I0502 16:45:00.113512 11669 net.cpp:323] The NetState phase (0) differed from the phase (1) specified by a rule in layer intercept
I0502 16:45:00.113528 11669 net.cpp:323] The NetState phase (0) differed from the phase (1) specified by a rule in layer accuracy
I0502 16:45:00.113620 11669 net.cpp:52] Initializing net from parameters: 
state {
  phase: TRAIN
}
layer {
  name: "parameters"
  type: "HDF5Data"
  top: "data"
  top: "label"
  include {
    phase: TRAIN
  }
  hdf5_data_param {
    source: "/home/purduethu/scratch/radon/d/deng106/CNNStatisticalModel/distributions/input/50_distributions_400_sample_size_train-distributions-path.txt"
    batch_size: 20
  }
}
layer {
  name: "conv1"
  type: "Convolution"
  bottom: "data"
  top: "conv1"
  param {
    lr_mult: 1
  }
  param {
    lr_mult: 2
  }
  convolution_param {
    num_output: 64
    pad: 2
    kernel_size: 5
    stride: 1
    weight_filler {
      type: "gaussian"
      std: 0.0001
    }
    bias_filler {
      type: "constant"
    }
  }
}
layer {
  name: "relu1"
  type: "ReLU"
  bottom: "conv1"
  top: "conv1"
}
layer {
  name: "conv2"
  type: "Convolution"
  bottom: "conv1"
  top: "conv2"
  param {
    lr_mult: 1
  }
  param {
    lr_mult: 2
  }
  convolution_param {
    num_output: 64
    pad: 2
    kernel_size: 5
    stride: 1
    weight_filler {
      type: "gaussian"
      std: 0.01
    }
    bias_filler {
      type: "constant"
    }
  }
}
layer {
  name: "relu2"
  type: "ReLU"
  bottom: "conv2"
  top: "conv2"
}
layer {
  name: "pool2"
  type: "Pooling"
  bottom: "conv2"
  top: "pool2"
  pooling_param {
    pool: MAX
    kernel_size: 3
    stride: 2
  }
}
layer {
  name: "conv3"
  type: "Convolution"
  bottom: "pool2"
  top: "conv3"
  param {
    lr_mult: 1
  }
  param {
    lr_mult: 2
  }
  convolution_param {
    num_output: 64
    pad: 2
    kernel_size: 5
    stride: 1
    weight_filler {
      type: "gaussian"
      std: 0.01
    }
    bias_filler {
      type: "constant"
    }
  }
}
layer {
  name: "relu3"
  type: "ReLU"
  bottom: "conv3"
  top: "conv3"
}
layer {
  name: "conv4"
  type: "Convolution"
  bottom: "conv3"
  top: "conv4"
  param {
    lr_mult: 1
  }
  param {
    lr_mult: 2
  }
  convolution_param {
    num_output: 64
    pad: 2
    kernel_size: 5
    stride: 1
    weight_filler {
      type: "gaussian"
      std: 0.01
    }
    bias_filler {
      type: "constant"
    }
  }
}
layer {
  name: "relu4"
  type: "ReLU"
  bottom: "conv4"
  top: "conv4"
}
layer {
  name: "conv5"
  type: "Convolution"
  bottom: "conv4"
  top: "conv5"
  param {
    lr_mult: 1
  }
  param {
    lr_mult: 2
  }
  convolution_param {
    num_output: 64
    pad: 2
    kernel_size: 5
    stride: 1
    weight_filler {
      type: "gaussian"
      std: 0.01
    }
    bias_filler {
      type: "constant"
    }
  }
}
layer {
  name: "relu5"
  type: "ReLU"
  bottom: "conv5"
  top: "conv5"
}
layer {
  name: "pool5"
  type: "Pooling"
  bottom: "conv5"
  top: "pool5"
  pooling_param {
    pool: AVE
    kernel_size: 3
    stride: 2
  }
}
layer {
  name: "ip1"
  type: "InnerProduct"
  bottom: "pool5"
  top: "ip1"
  param {
    lr_mult: 1
  }
  param {
    lr_mult: 2
  }
  inner_product_param {
    num_output: 64
    weight_filler {
      type: "gaussian"
      std: 0.1
    }
    bias_filler {
      type: "constant"
    }
  }
}
layer {
  name: "ip2"
  type: "InnerProduct"
  bottom: "ip1"
  top: "ip2"
  param {
    lr_mult: 1
  }
  param {
    lr_mult: 2
  }
  inner_product_param {
    num_output: 64
    weight_filler {
      type: "gaussian"
      std: 0.1
    }
    bias_filler {
      type: "constant"
    }
  }
}
layer {
  name: "ip3"
  type: "InnerProduct"
  bottom: "ip2"
  top: "ip3"
  param {
    lr_mult: 1
  }
  param {
    lr_mult: 2
  }
  inner_product_param {
    num_output: 50
    weight_filler {
      type: "gaussian"
      std: 0.1
    }
    bias_filler {
      type: "constant"
    }
  }
}
layer {
  name: "loss"
  type: "SoftmaxWithLoss"
  bottom: "ip3"
  bottom: "label"
  top: "loss"
}
I0502 16:45:00.113695 11669 layer_factory.hpp:77] Creating layer parameters
I0502 16:45:00.113709 11669 net.cpp:94] Creating Layer parameters
I0502 16:45:00.113716 11669 net.cpp:409] parameters -> data
I0502 16:45:00.113735 11669 net.cpp:409] parameters -> label
I0502 16:45:00.113745 11669 hdf5_data_layer.cpp:79] Loading list of HDF5 filenames from: /home/purduethu/scratch/radon/d/deng106/CNNStatisticalModel/distributions/input/50_distributions_400_sample_size_train-distributions-path.txt
I0502 16:45:00.113767 11669 hdf5_data_layer.cpp:93] Number of HDF5 files: 1
I0502 16:45:00.114329 11669 hdf5.cpp:32] Datatype class: H5T_FLOAT
I0502 16:45:00.777088 11669 hdf5.cpp:35] Datatype class: H5T_INTEGER
I0502 16:45:00.779922 11669 net.cpp:144] Setting up parameters
I0502 16:45:00.779945 11669 net.cpp:151] Top shape: 20 1 20 20 (8000)
I0502 16:45:00.779950 11669 net.cpp:151] Top shape: 20 (20)
I0502 16:45:00.779954 11669 net.cpp:159] Memory required for data: 32080
I0502 16:45:00.779963 11669 layer_factory.hpp:77] Creating layer conv1
I0502 16:45:00.779980 11669 net.cpp:94] Creating Layer conv1
I0502 16:45:00.779986 11669 net.cpp:435] conv1 <- data
I0502 16:45:00.779999 11669 net.cpp:409] conv1 -> conv1
I0502 16:45:00.785796 11669 net.cpp:144] Setting up conv1
I0502 16:45:00.785814 11669 net.cpp:151] Top shape: 20 64 20 20 (512000)
I0502 16:45:00.785817 11669 net.cpp:159] Memory required for data: 2080080
I0502 16:45:00.785830 11669 layer_factory.hpp:77] Creating layer relu1
I0502 16:45:00.785838 11669 net.cpp:94] Creating Layer relu1
I0502 16:45:00.785842 11669 net.cpp:435] relu1 <- conv1
I0502 16:45:00.785847 11669 net.cpp:396] relu1 -> conv1 (in-place)
I0502 16:45:00.785863 11669 net.cpp:144] Setting up relu1
I0502 16:45:00.785868 11669 net.cpp:151] Top shape: 20 64 20 20 (512000)
I0502 16:45:00.785872 11669 net.cpp:159] Memory required for data: 4128080
I0502 16:45:00.785876 11669 layer_factory.hpp:77] Creating layer conv2
I0502 16:45:00.785883 11669 net.cpp:94] Creating Layer conv2
I0502 16:45:00.785887 11669 net.cpp:435] conv2 <- conv1
I0502 16:45:00.785892 11669 net.cpp:409] conv2 -> conv2
I0502 16:45:00.795970 11669 net.cpp:144] Setting up conv2
I0502 16:45:00.795984 11669 net.cpp:151] Top shape: 20 64 20 20 (512000)
I0502 16:45:00.795989 11669 net.cpp:159] Memory required for data: 6176080
I0502 16:45:00.795996 11669 layer_factory.hpp:77] Creating layer relu2
I0502 16:45:00.796003 11669 net.cpp:94] Creating Layer relu2
I0502 16:45:00.796007 11669 net.cpp:435] relu2 <- conv2
I0502 16:45:00.796012 11669 net.cpp:396] relu2 -> conv2 (in-place)
I0502 16:45:00.796020 11669 net.cpp:144] Setting up relu2
I0502 16:45:00.796025 11669 net.cpp:151] Top shape: 20 64 20 20 (512000)
I0502 16:45:00.796027 11669 net.cpp:159] Memory required for data: 8224080
I0502 16:45:00.796030 11669 layer_factory.hpp:77] Creating layer pool2
I0502 16:45:00.796044 11669 net.cpp:94] Creating Layer pool2
I0502 16:45:00.796048 11669 net.cpp:435] pool2 <- conv2
I0502 16:45:00.796053 11669 net.cpp:409] pool2 -> pool2
I0502 16:45:00.796097 11669 net.cpp:144] Setting up pool2
I0502 16:45:00.796103 11669 net.cpp:151] Top shape: 20 64 10 10 (128000)
I0502 16:45:00.796106 11669 net.cpp:159] Memory required for data: 8736080
I0502 16:45:00.796110 11669 layer_factory.hpp:77] Creating layer conv3
I0502 16:45:00.796118 11669 net.cpp:94] Creating Layer conv3
I0502 16:45:00.796123 11669 net.cpp:435] conv3 <- pool2
I0502 16:45:00.796134 11669 net.cpp:409] conv3 -> conv3
I0502 16:45:00.801439 11669 net.cpp:144] Setting up conv3
I0502 16:45:00.801452 11669 net.cpp:151] Top shape: 20 64 10 10 (128000)
I0502 16:45:00.801456 11669 net.cpp:159] Memory required for data: 9248080
I0502 16:45:00.801465 11669 layer_factory.hpp:77] Creating layer relu3
I0502 16:45:00.801471 11669 net.cpp:94] Creating Layer relu3
I0502 16:45:00.801475 11669 net.cpp:435] relu3 <- conv3
I0502 16:45:00.801479 11669 net.cpp:396] relu3 -> conv3 (in-place)
I0502 16:45:00.801486 11669 net.cpp:144] Setting up relu3
I0502 16:45:00.801491 11669 net.cpp:151] Top shape: 20 64 10 10 (128000)
I0502 16:45:00.801494 11669 net.cpp:159] Memory required for data: 9760080
I0502 16:45:00.801497 11669 layer_factory.hpp:77] Creating layer conv4
I0502 16:45:00.801506 11669 net.cpp:94] Creating Layer conv4
I0502 16:45:00.801509 11669 net.cpp:435] conv4 <- conv3
I0502 16:45:00.801514 11669 net.cpp:409] conv4 -> conv4
I0502 16:45:00.807662 11669 net.cpp:144] Setting up conv4
I0502 16:45:00.807677 11669 net.cpp:151] Top shape: 20 64 10 10 (128000)
I0502 16:45:00.807680 11669 net.cpp:159] Memory required for data: 10272080
I0502 16:45:00.807687 11669 layer_factory.hpp:77] Creating layer relu4
I0502 16:45:00.807693 11669 net.cpp:94] Creating Layer relu4
I0502 16:45:00.807696 11669 net.cpp:435] relu4 <- conv4
I0502 16:45:00.807701 11669 net.cpp:396] relu4 -> conv4 (in-place)
I0502 16:45:00.807708 11669 net.cpp:144] Setting up relu4
I0502 16:45:00.807713 11669 net.cpp:151] Top shape: 20 64 10 10 (128000)
I0502 16:45:00.807716 11669 net.cpp:159] Memory required for data: 10784080
I0502 16:45:00.807719 11669 layer_factory.hpp:77] Creating layer conv5
I0502 16:45:00.807727 11669 net.cpp:94] Creating Layer conv5
I0502 16:45:00.807730 11669 net.cpp:435] conv5 <- conv4
I0502 16:45:00.807735 11669 net.cpp:409] conv5 -> conv5
I0502 16:45:00.813951 11669 net.cpp:144] Setting up conv5
I0502 16:45:00.813966 11669 net.cpp:151] Top shape: 20 64 10 10 (128000)
I0502 16:45:00.813971 11669 net.cpp:159] Memory required for data: 11296080
I0502 16:45:00.813978 11669 layer_factory.hpp:77] Creating layer relu5
I0502 16:45:00.813984 11669 net.cpp:94] Creating Layer relu5
I0502 16:45:00.813988 11669 net.cpp:435] relu5 <- conv5
I0502 16:45:00.813993 11669 net.cpp:396] relu5 -> conv5 (in-place)
I0502 16:45:00.814000 11669 net.cpp:144] Setting up relu5
I0502 16:45:00.814005 11669 net.cpp:151] Top shape: 20 64 10 10 (128000)
I0502 16:45:00.814008 11669 net.cpp:159] Memory required for data: 11808080
I0502 16:45:00.814012 11669 layer_factory.hpp:77] Creating layer pool5
I0502 16:45:00.814018 11669 net.cpp:94] Creating Layer pool5
I0502 16:45:00.814020 11669 net.cpp:435] pool5 <- conv5
I0502 16:45:00.814024 11669 net.cpp:409] pool5 -> pool5
I0502 16:45:00.814059 11669 net.cpp:144] Setting up pool5
I0502 16:45:00.814066 11669 net.cpp:151] Top shape: 20 64 5 5 (32000)
I0502 16:45:00.814069 11669 net.cpp:159] Memory required for data: 11936080
I0502 16:45:00.814072 11669 layer_factory.hpp:77] Creating layer ip1
I0502 16:45:00.814082 11669 net.cpp:94] Creating Layer ip1
I0502 16:45:00.814086 11669 net.cpp:435] ip1 <- pool5
I0502 16:45:00.814091 11669 net.cpp:409] ip1 -> ip1
I0502 16:45:00.816591 11669 net.cpp:144] Setting up ip1
I0502 16:45:00.816599 11669 net.cpp:151] Top shape: 20 64 (1280)
I0502 16:45:00.816602 11669 net.cpp:159] Memory required for data: 11941200
I0502 16:45:00.816608 11669 layer_factory.hpp:77] Creating layer ip2
I0502 16:45:00.816618 11669 net.cpp:94] Creating Layer ip2
I0502 16:45:00.816622 11669 net.cpp:435] ip2 <- ip1
I0502 16:45:00.816627 11669 net.cpp:409] ip2 -> ip2
I0502 16:45:00.816792 11669 net.cpp:144] Setting up ip2
I0502 16:45:00.816798 11669 net.cpp:151] Top shape: 20 64 (1280)
I0502 16:45:00.816802 11669 net.cpp:159] Memory required for data: 11946320
I0502 16:45:00.816807 11669 layer_factory.hpp:77] Creating layer ip3
I0502 16:45:00.816812 11669 net.cpp:94] Creating Layer ip3
I0502 16:45:00.816815 11669 net.cpp:435] ip3 <- ip2
I0502 16:45:00.816820 11669 net.cpp:409] ip3 -> ip3
I0502 16:45:00.816968 11669 net.cpp:144] Setting up ip3
I0502 16:45:00.816975 11669 net.cpp:151] Top shape: 20 50 (1000)
I0502 16:45:00.816978 11669 net.cpp:159] Memory required for data: 11950320
I0502 16:45:00.816983 11669 layer_factory.hpp:77] Creating layer loss
I0502 16:45:00.816990 11669 net.cpp:94] Creating Layer loss
I0502 16:45:00.816993 11669 net.cpp:435] loss <- ip3
I0502 16:45:00.816998 11669 net.cpp:435] loss <- label
I0502 16:45:00.817003 11669 net.cpp:409] loss -> loss
I0502 16:45:00.817013 11669 layer_factory.hpp:77] Creating layer loss
…
I0502 16:45:00.817505 11669 solver.cpp:181] Creating test net (#0) specified by net file: ./protocol/dis_50_400_dimension.protocol_distribution
I0502 16:45:00.817533 11669 net.cpp:323] The NetState phase (1) differed from the phase (0) specified by a rule in layer parameters
I0502 16:45:00.817633 11669 net.cpp:52] Initializing net from parameters: 
state {
  phase: TEST
}
layer {
  name: "intercept"
  type: "HDF5Data"
  top: "data"
  top: "label"
  include {
    phase: TEST
  }
  hdf5_data_param {
    source: "/home/purduethu/scratch/radon/d/deng106/CNNStatisticalModel/distributions/input/50_distributions_400_sample_size_test-distributions-path.txt"
    batch_size: 20
  }
}
layer {
  name: "conv1"
  type: "Convolution"
  bottom: "data"
  top: "conv1"
  param {
    lr_mult: 1
  }
  param {
    lr_mult: 2
  }
  convolution_param {
    num_output: 64
    pad: 2
    kernel_size: 5
    stride: 1
    weight_filler {
      type: "gaussian"
      std: 0.0001
    }
    bias_filler {
      type: "constant"
    }
  }
}
layer {
  name: "relu1"
  type: "ReLU"
  bottom: "conv1"
  top: "conv1"
}
layer {
  name: "conv2"
  type: "Convolution"
  bottom: "conv1"
  top: "conv2"
  param {
    lr_mult: 1
  }
  param {
    lr_mult: 2
  }
  convolution_param {
    num_output: 64
    pad: 2
    kernel_size: 5
    stride: 1
    weight_filler {
      type: "gaussian"
      std: 0.01
    }
    bias_filler {
      type: "constant"
    }
  }
}
layer {
  name: "relu2"
  type: "ReLU"
  bottom: "conv2"
  top: "conv2"
}
layer {
  name: "pool2"
  type: "Pooling"
  bottom: "conv2"
  top: "pool2"
  pooling_param {
    pool: MAX
    kernel_size: 3
    stride: 2
  }
}
layer {
  name: "conv3"
  type: "Convolution"
  bottom: "pool2"
  top: "conv3"
  param {
    lr_mult: 1
  }
  param {
    lr_mult: 2
  }
  convolution_param {
    num_output: 64
    pad: 2
    kernel_size: 5
    stride: 1
    weight_filler {
      type: "gaussian"
      std: 0.01
    }
    bias_filler {
      type: "constant"
    }
  }
}
layer {
  name: "relu3"
  type: "ReLU"
  bottom: "conv3"
  top: "conv3"
}
layer {
  name: "conv4"
  type: "Convolution"
  bottom: "conv3"
  top: "conv4"
  param {
    lr_mult: 1
  }
  param {
    lr_mult: 2
  }
  convolution_param {
    num_output: 64
    pad: 2
    kernel_size: 5
    stride: 1
    weight_filler {
      type: "gaussian"
      std: 0.01
    }
    bias_filler {
      type: "constant"
    }
  }
}
layer {
  name: "relu4"
  type: "ReLU"
  bottom: "conv4"
  top: "conv4"
}
layer {
  name: "conv5"
  type: "Convolution"
  bottom: "conv4"
  top: "conv5"
  param {
    lr_mult: 1
  }
  param {
    lr_mult: 2
  }
  convolution_param {
    num_output: 64
    pad: 2
    kernel_size: 5
    stride: 1
    weight_filler {
      type: "gaussian"
      std: 0.01
    }
    bias_filler {
      type: "constant"
    }
  }
}
layer {
  name: "relu5"
  type: "ReLU"
  bottom: "conv5"
  top: "conv5"
}
layer {
  name: "pool5"
  type: "Pooling"
  bottom: "conv5"
  top: "pool5"
  pooling_param {
    pool: AVE
    kernel_size: 3
    stride: 2
  }
}
layer {
  name: "ip1"
  type: "InnerProduct"
  bottom: "pool5"
  top: "ip1"
  param {
    lr_mult: 1
  }
  param {
    lr_mult: 2
  }
  inner_product_param {
    num_output: 64
    weight_filler {
      type: "gaussian"
      std: 0.1
    }
    bias_filler {
      type: "constant"
    }
  }
}
layer {
  name: "ip2"
  type: "InnerProduct"
  bottom: "ip1"
  top: "ip2"
  param {
    lr_mult: 1
  }
  param {
    lr_mult: 2
  }
  inner_product_param {
    num_output: 64
    weight_filler {
      type: "gaussian"
      std: 0.1
    }
    bias_filler {
      type: "constant"
    }
  }
}
layer {
  name: "ip3"
  type: "InnerProduct"
  bottom: "ip2"
  top: "ip3"
  param {
    lr_mult: 1
  }
  param {
    lr_mult: 2
  }
  inner_product_param {
    num_output: 50
    weight_filler {
      type: "gaussian"
      std: 0.1
    }
    bias_filler {
      type: "constant"
    }
  }
}
layer {
  name: "accuracy"
  type: "Accuracy"
  bottom: "ip3"
  bottom: "label"
  top: "accuracy"
  include {
    phase: TEST
  }
}
layer {
  name: "loss"
  type: "SoftmaxWithLoss"
  bottom: "ip3"
  bottom: "label"
  top: "loss"
}
I0502 16:45:00.817704 11669 layer_factory.hpp:77] Creating layer intercept
I0502 16:45:00.817713 11669 net.cpp:94] Creating Layer intercept
I0502 16:45:00.817718 11669 net.cpp:409] intercept -> data
I0502 16:45:00.817724 11669 net.cpp:409] intercept -> label
I0502 16:45:00.817730 11669 hdf5_data_layer.cpp:79] Loading list of HDF5 filenames from: /home/purduethu/scratch/radon/d/deng106/CNNStatisticalModel/distributions/input/50_distributions_400_sample_size_test-distributions-path.txt
I0502 16:45:00.817749 11669 hdf5_data_layer.cpp:93] Number of HDF5 files: 1
I0502 16:45:00.982151 11669 net.cpp:144] Setting up intercept
I0502 16:45:00.982182 11669 net.cpp:151] Top shape: 20 1 20 20 (8000)
I0502 16:45:00.982187 11669 net.cpp:151] Top shape: 20 (20)
I0502 16:45:00.982192 11669 net.cpp:159] Memory required for data: 32080
I0502 16:45:00.982197 11669 layer_factory.hpp:77] Creating layer label_intercept_1_split
I0502 16:45:00.982213 11669 net.cpp:94] Creating Layer label_intercept_1_split
I0502 16:45:00.982218 11669 net.cpp:435] label_intercept_1_split <- label
I0502 16:45:00.982223 11669 net.cpp:409] label_intercept_1_split -> label_intercept_1_split_0
I0502 16:45:00.982233 11669 net.cpp:409] label_intercept_1_split -> label_intercept_1_split_1
I0502 16:45:00.982265 11669 net.cpp:144] Setting up label_intercept_1_split
I0502 16:45:00.982272 11669 net.cpp:151] Top shape: 20 (20)
I0502 16:45:00.982276 11669 net.cpp:151] Top shape: 20 (20)
I0502 16:45:00.982280 11669 net.cpp:159] Memory required for data: 32240
I0502 16:45:00.982282 11669 layer_factory.hpp:77] Creating layer conv1
I0502 16:45:00.982293 11669 net.cpp:94] Creating Layer conv1
I0502 16:45:00.982297 11669 net.cpp:435] conv1 <- data
I0502 16:45:00.982302 11669 net.cpp:409] conv1 -> conv1
I0502 16:45:00.983940 11669 net.cpp:144] Setting up conv1
I0502 16:45:00.983963 11669 net.cpp:151] Top shape: 20 64 20 20 (512000)
I0502 16:45:00.983966 11669 net.cpp:159] Memory required for data: 2080240
I0502 16:45:00.983976 11669 layer_factory.hpp:77] Creating layer relu1
I0502 16:45:00.983983 11669 net.cpp:94] Creating Layer relu1
I0502 16:45:00.983988 11669 net.cpp:435] relu1 <- conv1
I0502 16:45:00.983992 11669 net.cpp:396] relu1 -> conv1 (in-place)
I0502 16:45:00.984000 11669 net.cpp:144] Setting up relu1
I0502 16:45:00.984005 11669 net.cpp:151] Top shape: 20 64 20 20 (512000)
I0502 16:45:00.984009 11669 net.cpp:159] Memory required for data: 4128240
I0502 16:45:00.984011 11669 layer_factory.hpp:77] Creating layer conv2
I0502 16:45:00.984019 11669 net.cpp:94] Creating Layer conv2
I0502 16:45:00.984024 11669 net.cpp:435] conv2 <- conv1
I0502 16:45:00.984028 11669 net.cpp:409] conv2 -> conv2
I0502 16:45:00.988636 11669 net.cpp:144] Setting up conv2
I0502 16:45:00.988651 11669 net.cpp:151] Top shape: 20 64 20 20 (512000)
I0502 16:45:00.988656 11669 net.cpp:159] Memory required for data: 6176240
I0502 16:45:00.988663 11669 layer_factory.hpp:77] Creating layer relu2
I0502 16:45:00.988670 11669 net.cpp:94] Creating Layer relu2
I0502 16:45:00.988673 11669 net.cpp:435] relu2 <- conv2
I0502 16:45:00.988678 11669 net.cpp:396] relu2 -> conv2 (in-place)
I0502 16:45:00.988685 11669 net.cpp:144] Setting up relu2
I0502 16:45:00.988690 11669 net.cpp:151] Top shape: 20 64 20 20 (512000)
I0502 16:45:00.988693 11669 net.cpp:159] Memory required for data: 8224240
I0502 16:45:00.988696 11669 layer_factory.hpp:77] Creating layer pool2
I0502 16:45:00.988703 11669 net.cpp:94] Creating Layer pool2
I0502 16:45:00.988706 11669 net.cpp:435] pool2 <- conv2
I0502 16:45:00.988710 11669 net.cpp:409] pool2 -> pool2
I0502 16:45:00.988744 11669 net.cpp:144] Setting up pool2
I0502 16:45:00.988750 11669 net.cpp:151] Top shape: 20 64 10 10 (128000)
I0502 16:45:00.988754 11669 net.cpp:159] Memory required for data: 8736240
I0502 16:45:00.988756 11669 layer_factory.hpp:77] Creating layer conv3
I0502 16:45:00.988765 11669 net.cpp:94] Creating Layer conv3
I0502 16:45:00.988767 11669 net.cpp:435] conv3 <- pool2
I0502 16:45:00.988772 11669 net.cpp:409] conv3 -> conv3
I0502 16:45:00.992478 11669 net.cpp:144] Setting up conv3
I0502 16:45:00.992491 11669 net.cpp:151] Top shape: 20 64 10 10 (128000)
I0502 16:45:00.992496 11669 net.cpp:159] Memory required for data: 9248240
I0502 16:45:00.992503 11669 layer_factory.hpp:77] Creating layer relu3
I0502 16:45:00.992511 11669 net.cpp:94] Creating Layer relu3
I0502 16:45:00.992513 11669 net.cpp:435] relu3 <- conv3
I0502 16:45:00.992518 11669 net.cpp:396] relu3 -> conv3 (in-place)
I0502 16:45:00.992525 11669 net.cpp:144] Setting up relu3
I0502 16:45:00.992530 11669 net.cpp:151] Top shape: 20 64 10 10 (128000)
I0502 16:45:00.992533 11669 net.cpp:159] Memory required for data: 9760240
I0502 16:45:00.992537 11669 layer_factory.hpp:77] Creating layer conv4
I0502 16:45:00.992544 11669 net.cpp:94] Creating Layer conv4
I0502 16:45:00.992547 11669 net.cpp:435] conv4 <- conv3
I0502 16:45:00.992560 11669 net.cpp:409] conv4 -> conv4
I0502 16:45:00.996145 11669 net.cpp:144] Setting up conv4
I0502 16:45:00.996156 11669 net.cpp:151] Top shape: 20 64 10 10 (128000)
I0502 16:45:00.996160 11669 net.cpp:159] Memory required for data: 10272240
I0502 16:45:00.996166 11669 layer_factory.hpp:77] Creating layer relu4
I0502 16:45:00.996172 11669 net.cpp:94] Creating Layer relu4
I0502 16:45:00.996179 11669 net.cpp:435] relu4 <- conv4
I0502 16:45:00.996184 11669 net.cpp:396] relu4 -> conv4 (in-place)
I0502 16:45:00.996191 11669 net.cpp:144] Setting up relu4
I0502 16:45:00.996196 11669 net.cpp:151] Top shape: 20 64 10 10 (128000)
I0502 16:45:00.996199 11669 net.cpp:159] Memory required for data: 10784240
I0502 16:45:00.996203 11669 layer_factory.hpp:77] Creating layer conv5
I0502 16:45:00.996210 11669 net.cpp:94] Creating Layer conv5
I0502 16:45:00.996213 11669 net.cpp:435] conv5 <- conv4
I0502 16:45:00.996218 11669 net.cpp:409] conv5 -> conv5
I0502 16:45:01.000129 11669 net.cpp:144] Setting up conv5
I0502 16:45:01.000149 11669 net.cpp:151] Top shape: 20 64 10 10 (128000)
I0502 16:45:01.000152 11669 net.cpp:159] Memory required for data: 11296240
I0502 16:45:01.000161 11669 layer_factory.hpp:77] Creating layer relu5
I0502 16:45:01.000166 11669 net.cpp:94] Creating Layer relu5
I0502 16:45:01.000170 11669 net.cpp:435] relu5 <- conv5
I0502 16:45:01.000175 11669 net.cpp:396] relu5 -> conv5 (in-place)
I0502 16:45:01.000181 11669 net.cpp:144] Setting up relu5
I0502 16:45:01.000186 11669 net.cpp:151] Top shape: 20 64 10 10 (128000)
I0502 16:45:01.000190 11669 net.cpp:159] Memory required for data: 11808240
I0502 16:45:01.000192 11669 layer_factory.hpp:77] Creating layer pool5
I0502 16:45:01.000198 11669 net.cpp:94] Creating Layer pool5
I0502 16:45:01.000201 11669 net.cpp:435] pool5 <- conv5
I0502 16:45:01.000206 11669 net.cpp:409] pool5 -> pool5
I0502 16:45:01.000233 11669 net.cpp:144] Setting up pool5
I0502 16:45:01.000239 11669 net.cpp:151] Top shape: 20 64 5 5 (32000)
I0502 16:45:01.000242 11669 net.cpp:159] Memory required for data: 11936240
I0502 16:45:01.000246 11669 layer_factory.hpp:77] Creating layer ip1
I0502 16:45:01.000252 11669 net.cpp:94] Creating Layer ip1
I0502 16:45:01.000255 11669 net.cpp:435] ip1 <- pool5
I0502 16:45:01.000262 11669 net.cpp:409] ip1 -> ip1
I0502 16:45:01.003443 11669 net.cpp:144] Setting up ip1
I0502 16:45:01.003456 11669 net.cpp:151] Top shape: 20 64 (1280)
I0502 16:45:01.003460 11669 net.cpp:159] Memory required for data: 11941360
I0502 16:45:01.003466 11669 layer_factory.hpp:77] Creating layer ip2
I0502 16:45:01.003473 11669 net.cpp:94] Creating Layer ip2
I0502 16:45:01.003476 11669 net.cpp:435] ip2 <- ip1
I0502 16:45:01.003482 11669 net.cpp:409] ip2 -> ip2
I0502 16:45:01.003654 11669 net.cpp:144] Setting up ip2
I0502 16:45:01.003660 11669 net.cpp:151] Top shape: 20 64 (1280)
I0502 16:45:01.003664 11669 net.cpp:159] Memory required for data: 11946480
I0502 16:45:01.003669 11669 layer_factory.hpp:77] Creating layer ip3
I0502 16:45:01.003676 11669 net.cpp:94] Creating Layer ip3
I0502 16:45:01.003679 11669 net.cpp:435] ip3 <- ip2
I0502 16:45:01.003684 11669 net.cpp:409] ip3 -> ip3
I0502 16:45:01.003834 11669 net.cpp:144] Setting up ip3
I0502 16:45:01.003840 11669 net.cpp:151] Top shape: 20 50 (1000)
I0502 16:45:01.003844 11669 net.cpp:159] Memory required for data: 11950480
I0502 16:45:01.003849 11669 layer_factory.hpp:77] Creating layer ip3_ip3_0_split
I0502 16:45:01.003854 11669 net.cpp:94] Creating Layer ip3_ip3_0_split
I0502 16:45:01.003856 11669 net.cpp:435] ip3_ip3_0_split <- ip3
I0502 16:45:01.003862 11669 net.cpp:409] ip3_ip3_0_split -> ip3_ip3_0_split_0
I0502 16:45:01.003868 11669 net.cpp:409] ip3_ip3_0_split -> ip3_ip3_0_split_1
I0502 16:45:01.003891 11669 net.cpp:144] Setting up ip3_ip3_0_split
I0502 16:45:01.003897 11669 net.cpp:151] Top shape: 20 50 (1000)
I0502 16:45:01.003901 11669 net.cpp:151] Top shape: 20 50 (1000)
I0502 16:45:01.003904 11669 net.cpp:159] Memory required for data: 11958480
I0502 16:45:01.003907 11669 layer_factory.hpp:77] Creating layer accuracy
I0502 16:45:01.003918 11669 net.cpp:94] Creating Layer accuracy
I0502 16:45:01.003921 11669 net.cpp:435] accuracy <- ip3_ip3_0_split_0
I0502 16:45:01.003926 11669 net.cpp:435] accuracy <- label_intercept_1_split_0
I0502 16:45:01.003931 11669 net.cpp:409] accuracy -> accuracy
…
