…
I0502 15:10:42.534708  9593 net.cpp:323] The NetState phase (0) differed from the phase (1) specified by a rule in layer intercept
I0502 15:10:42.534724  9593 net.cpp:323] The NetState phase (0) differed from the phase (1) specified by a rule in layer loss
I0502 15:10:42.534818  9593 net.cpp:52] Initializing net from parameters: 
state {
  phase: TRAIN
}
layer {
  name: "parameters"
  type: "HDF5Data"
  top: "data"
  top: "label"
  include {
    phase: TRAIN
  }
  hdf5_data_param {
    source: "/home/purduethu/scratch/radon/d/deng106/CNNStatisticalModel/distributions/input/5_distributions_900_sample_size_train-parameters-path.txt"
    batch_size: 20
  }
}
layer {
  name: "conv1"
  type: "Convolution"
  bottom: "data"
  top: "conv1"
  param {
    lr_mult: 1
  }
  param {
    lr_mult: 2
  }
  convolution_param {
    num_output: 64
    pad: 2
    kernel_size: 5
    stride: 1
    weight_filler {
      type: "gaussian"
      std: 0.0001
    }
    bias_filler {
      type: "constant"
    }
  }
}
layer {
  name: "relu1"
  type: "ReLU"
  bottom: "conv1"
  top: "conv1"
}
layer {
  name: "conv2"
  type: "Convolution"
  bottom: "conv1"
  top: "conv2"
  param {
    lr_mult: 1
  }
  param {
    lr_mult: 2
  }
  convolution_param {
    num_output: 64
    pad: 2
    kernel_size: 5
    stride: 1
    weight_filler {
      type: "gaussian"
      std: 0.01
    }
    bias_filler {
      type: "constant"
    }
  }
}
layer {
  name: "relu2"
  type: "ReLU"
  bottom: "conv2"
  top: "conv2"
}
layer {
  name: "pool2"
  type: "Pooling"
  bottom: "conv2"
  top: "pool2"
  pooling_param {
    pool: MAX
    kernel_size: 3
    stride: 2
  }
}
layer {
  name: "conv3"
  type: "Convolution"
  bottom: "pool2"
  top: "conv3"
  param {
    lr_mult: 1
  }
  param {
    lr_mult: 2
  }
  convolution_param {
    num_output: 64
    pad: 2
    kernel_size: 5
    stride: 1
    weight_filler {
      type: "gaussian"
      std: 0.01
    }
    bias_filler {
      type: "constant"
    }
  }
}
layer {
  name: "relu3"
  type: "ReLU"
  bottom: "conv3"
  top: "conv3"
}
layer {
  name: "conv4"
  type: "Convolution"
  bottom: "conv3"
  top: "conv4"
  param {
    lr_mult: 1
  }
  param {
    lr_mult: 2
  }
  convolution_param {
    num_output: 64
    pad: 2
    kernel_size: 5
    stride: 1
    weight_filler {
      type: "gaussian"
      std: 0.01
    }
    bias_filler {
      type: "constant"
    }
  }
}
layer {
  name: "relu4"
  type: "ReLU"
  bottom: "conv4"
  top: "conv4"
}
layer {
  name: "conv5"
  type: "Convolution"
  bottom: "conv4"
  top: "conv5"
  param {
    lr_mult: 1
  }
  param {
    lr_mult: 2
  }
  convolution_param {
    num_output: 64
    pad: 2
    kernel_size: 5
    stride: 1
    weight_filler {
      type: "gaussian"
      std: 0.01
    }
    bias_filler {
      type: "constant"
    }
  }
}
layer {
  name: "relu5"
  type: "ReLU"
  bottom: "conv5"
  top: "conv5"
}
layer {
  name: "pool5"
  type: "Pooling"
  bottom: "conv5"
  top: "pool5"
  pooling_param {
    pool: AVE
    kernel_size: 3
    stride: 2
  }
}
layer {
  name: "ip1"
  type: "InnerProduct"
  bottom: "pool5"
  top: "ip1"
  param {
    lr_mult: 1
  }
  param {
    lr_mult: 2
  }
  inner_product_param {
    num_output: 64
    weight_filler {
      type: "gaussian"
      std: 0.1
    }
    bias_filler {
      type: "constant"
    }
  }
}
layer {
  name: "ip2"
  type: "InnerProduct"
  bottom: "ip1"
  top: "ip2"
  param {
    lr_mult: 1
  }
  param {
    lr_mult: 2
  }
  inner_product_param {
    num_output: 64
    weight_filler {
      type: "gaussian"
      std: 0.1
    }
    bias_filler {
      type: "constant"
    }
  }
}
layer {
  name: "ip3"
  type: "InnerProduct"
  bottom: "ip2"
  top: "ip3"
  param {
    lr_mult: 1
  }
  param {
    lr_mult: 2
  }
  inner_product_param {
    num_output: 1
    weight_filler {
      type: "gaussian"
      std: 0.1
    }
    bias_filler {
      type: "constant"
    }
  }
}
layer {
  name: "loss"
  type: "HuberLoss"
  bottom: "ip3"
  bottom: "label"
  top: "loss"
  include {
    phase: TRAIN
  }
}
I0502 15:10:42.534896  9593 layer_factory.hpp:77] Creating layer parameters
I0502 15:10:42.534910  9593 net.cpp:94] Creating Layer parameters
I0502 15:10:42.534916  9593 net.cpp:409] parameters -> data
I0502 15:10:42.534936  9593 net.cpp:409] parameters -> label
I0502 15:10:42.534947  9593 hdf5_data_layer.cpp:79] Loading list of HDF5 filenames from: /home/purduethu/scratch/radon/d/deng106/CNNStatisticalModel/distributions/input/5_distributions_900_sample_size_train-parameters-path.txt
I0502 15:10:42.534968  9593 hdf5_data_layer.cpp:93] Number of HDF5 files: 1
I0502 15:10:42.535605  9593 hdf5.cpp:32] Datatype class: H5T_FLOAT
I0502 15:10:42.678124  9593 net.cpp:144] Setting up parameters
I0502 15:10:42.678158  9593 net.cpp:151] Top shape: 20 1 30 30 (18000)
I0502 15:10:42.678164  9593 net.cpp:151] Top shape: 20 (20)
I0502 15:10:42.678169  9593 net.cpp:159] Memory required for data: 72080
I0502 15:10:42.678176  9593 layer_factory.hpp:77] Creating layer conv1
I0502 15:10:42.678200  9593 net.cpp:94] Creating Layer conv1
I0502 15:10:42.678206  9593 net.cpp:435] conv1 <- data
I0502 15:10:42.678218  9593 net.cpp:409] conv1 -> conv1
I0502 15:10:42.684254  9593 net.cpp:144] Setting up conv1
I0502 15:10:42.684273  9593 net.cpp:151] Top shape: 20 64 30 30 (1152000)
I0502 15:10:42.684276  9593 net.cpp:159] Memory required for data: 4680080
I0502 15:10:42.684289  9593 layer_factory.hpp:77] Creating layer relu1
I0502 15:10:42.684298  9593 net.cpp:94] Creating Layer relu1
I0502 15:10:42.684303  9593 net.cpp:435] relu1 <- conv1
I0502 15:10:42.684307  9593 net.cpp:396] relu1 -> conv1 (in-place)
I0502 15:10:42.684324  9593 net.cpp:144] Setting up relu1
I0502 15:10:42.684329  9593 net.cpp:151] Top shape: 20 64 30 30 (1152000)
I0502 15:10:42.684332  9593 net.cpp:159] Memory required for data: 9288080
I0502 15:10:42.684335  9593 layer_factory.hpp:77] Creating layer conv2
I0502 15:10:42.684345  9593 net.cpp:94] Creating Layer conv2
I0502 15:10:42.684347  9593 net.cpp:435] conv2 <- conv1
I0502 15:10:42.684352  9593 net.cpp:409] conv2 -> conv2
I0502 15:10:42.700247  9593 net.cpp:144] Setting up conv2
I0502 15:10:42.700263  9593 net.cpp:151] Top shape: 20 64 30 30 (1152000)
I0502 15:10:42.700268  9593 net.cpp:159] Memory required for data: 13896080
I0502 15:10:42.700275  9593 layer_factory.hpp:77] Creating layer relu2
I0502 15:10:42.700283  9593 net.cpp:94] Creating Layer relu2
I0502 15:10:42.700286  9593 net.cpp:435] relu2 <- conv2
I0502 15:10:42.700291  9593 net.cpp:396] relu2 -> conv2 (in-place)
I0502 15:10:42.700299  9593 net.cpp:144] Setting up relu2
I0502 15:10:42.700304  9593 net.cpp:151] Top shape: 20 64 30 30 (1152000)
I0502 15:10:42.700307  9593 net.cpp:159] Memory required for data: 18504080
I0502 15:10:42.700310  9593 layer_factory.hpp:77] Creating layer pool2
I0502 15:10:42.700318  9593 net.cpp:94] Creating Layer pool2
I0502 15:10:42.700328  9593 net.cpp:435] pool2 <- conv2
I0502 15:10:42.700333  9593 net.cpp:409] pool2 -> pool2
I0502 15:10:42.700377  9593 net.cpp:144] Setting up pool2
I0502 15:10:42.700386  9593 net.cpp:151] Top shape: 20 64 15 15 (288000)
I0502 15:10:42.700388  9593 net.cpp:159] Memory required for data: 19656080
I0502 15:10:42.700392  9593 layer_factory.hpp:77] Creating layer conv3
I0502 15:10:42.700400  9593 net.cpp:94] Creating Layer conv3
I0502 15:10:42.700403  9593 net.cpp:435] conv3 <- pool2
I0502 15:10:42.700408  9593 net.cpp:409] conv3 -> conv3
I0502 15:10:42.708894  9593 net.cpp:144] Setting up conv3
I0502 15:10:42.708933  9593 net.cpp:151] Top shape: 20 64 15 15 (288000)
I0502 15:10:42.708945  9593 net.cpp:159] Memory required for data: 20808080
I0502 15:10:42.708969  9593 layer_factory.hpp:77] Creating layer relu3
I0502 15:10:42.708986  9593 net.cpp:94] Creating Layer relu3
I0502 15:10:42.708997  9593 net.cpp:435] relu3 <- conv3
I0502 15:10:42.709009  9593 net.cpp:396] relu3 -> conv3 (in-place)
I0502 15:10:42.709029  9593 net.cpp:144] Setting up relu3
I0502 15:10:42.709034  9593 net.cpp:151] Top shape: 20 64 15 15 (288000)
I0502 15:10:42.709038  9593 net.cpp:159] Memory required for data: 21960080
I0502 15:10:42.709040  9593 layer_factory.hpp:77] Creating layer conv4
I0502 15:10:42.709049  9593 net.cpp:94] Creating Layer conv4
I0502 15:10:42.709053  9593 net.cpp:435] conv4 <- conv3
I0502 15:10:42.709059  9593 net.cpp:409] conv4 -> conv4
I0502 15:10:42.716363  9593 net.cpp:144] Setting up conv4
I0502 15:10:42.716378  9593 net.cpp:151] Top shape: 20 64 15 15 (288000)
I0502 15:10:42.716382  9593 net.cpp:159] Memory required for data: 23112080
I0502 15:10:42.716389  9593 layer_factory.hpp:77] Creating layer relu4
I0502 15:10:42.716395  9593 net.cpp:94] Creating Layer relu4
I0502 15:10:42.716399  9593 net.cpp:435] relu4 <- conv4
I0502 15:10:42.716404  9593 net.cpp:396] relu4 -> conv4 (in-place)
I0502 15:10:42.716411  9593 net.cpp:144] Setting up relu4
I0502 15:10:42.716416  9593 net.cpp:151] Top shape: 20 64 15 15 (288000)
I0502 15:10:42.716419  9593 net.cpp:159] Memory required for data: 24264080
I0502 15:10:42.716423  9593 layer_factory.hpp:77] Creating layer conv5
I0502 15:10:42.716430  9593 net.cpp:94] Creating Layer conv5
I0502 15:10:42.716434  9593 net.cpp:435] conv5 <- conv4
I0502 15:10:42.716439  9593 net.cpp:409] conv5 -> conv5
I0502 15:10:42.723894  9593 net.cpp:144] Setting up conv5
I0502 15:10:42.723933  9593 net.cpp:151] Top shape: 20 64 15 15 (288000)
I0502 15:10:42.723953  9593 net.cpp:159] Memory required for data: 25416080
I0502 15:10:42.723961  9593 layer_factory.hpp:77] Creating layer relu5
I0502 15:10:42.723968  9593 net.cpp:94] Creating Layer relu5
I0502 15:10:42.723971  9593 net.cpp:435] relu5 <- conv5
I0502 15:10:42.723976  9593 net.cpp:396] relu5 -> conv5 (in-place)
I0502 15:10:42.723984  9593 net.cpp:144] Setting up relu5
I0502 15:10:42.723989  9593 net.cpp:151] Top shape: 20 64 15 15 (288000)
I0502 15:10:42.723991  9593 net.cpp:159] Memory required for data: 26568080
I0502 15:10:42.723995  9593 layer_factory.hpp:77] Creating layer pool5
I0502 15:10:42.724000  9593 net.cpp:94] Creating Layer pool5
I0502 15:10:42.724004  9593 net.cpp:435] pool5 <- conv5
I0502 15:10:42.724009  9593 net.cpp:409] pool5 -> pool5
I0502 15:10:42.724043  9593 net.cpp:144] Setting up pool5
I0502 15:10:42.724050  9593 net.cpp:151] Top shape: 20 64 7 7 (62720)
I0502 15:10:42.724054  9593 net.cpp:159] Memory required for data: 26818960
I0502 15:10:42.724057  9593 layer_factory.hpp:77] Creating layer ip1
I0502 15:10:42.724066  9593 net.cpp:94] Creating Layer ip1
I0502 15:10:42.724071  9593 net.cpp:435] ip1 <- pool5
I0502 15:10:42.724076  9593 net.cpp:409] ip1 -> ip1
I0502 15:10:42.729758  9593 net.cpp:144] Setting up ip1
I0502 15:10:42.729771  9593 net.cpp:151] Top shape: 20 64 (1280)
I0502 15:10:42.729775  9593 net.cpp:159] Memory required for data: 26824080
I0502 15:10:42.729781  9593 layer_factory.hpp:77] Creating layer ip2
I0502 15:10:42.729789  9593 net.cpp:94] Creating Layer ip2
I0502 15:10:42.729796  9593 net.cpp:435] ip2 <- ip1
I0502 15:10:42.729802  9593 net.cpp:409] ip2 -> ip2
I0502 15:10:42.729975  9593 net.cpp:144] Setting up ip2
I0502 15:10:42.729982  9593 net.cpp:151] Top shape: 20 64 (1280)
I0502 15:10:42.729986  9593 net.cpp:159] Memory required for data: 26829200
I0502 15:10:42.729991  9593 layer_factory.hpp:77] Creating layer ip3
I0502 15:10:42.729997  9593 net.cpp:94] Creating Layer ip3
I0502 15:10:42.730000  9593 net.cpp:435] ip3 <- ip2
I0502 15:10:42.730005  9593 net.cpp:409] ip3 -> ip3
I0502 15:10:42.730070  9593 net.cpp:144] Setting up ip3
I0502 15:10:42.730082  9593 net.cpp:151] Top shape: 20 1 (20)
I0502 15:10:42.730085  9593 net.cpp:159] Memory required for data: 26829280
I0502 15:10:42.730090  9593 layer_factory.hpp:77] Creating layer loss
I0502 15:10:42.730098  9593 net.cpp:94] Creating Layer loss
I0502 15:10:42.730101  9593 net.cpp:435] loss <- ip3
I0502 15:10:42.730105  9593 net.cpp:435] loss <- label
I0502 15:10:42.730111  9593 net.cpp:409] loss -> loss
I0502 15:10:42.730150  9593 net.cpp:144] Setting up loss
…
