…
I0502 05:01:08.676453 18683 net.cpp:323] The NetState phase (0) differed from the phase (1) specified by a rule in layer intercept
I0502 05:01:08.676472 18683 net.cpp:323] The NetState phase (0) differed from the phase (1) specified by a rule in layer loss
I0502 05:01:08.676580 18683 net.cpp:52] Initializing net from parameters: 
state {
  phase: TRAIN
}
layer {
  name: "parameters"
  type: "HDF5Data"
  top: "data"
  top: "label"
  include {
    phase: TRAIN
  }
  hdf5_data_param {
    source: "/home/purduethu/scratch/radon/d/deng106/CNNStatisticalModel/distributions/input/5_distributions_900_sample_size_train-parameters-path.txt"
    batch_size: 20
  }
}
layer {
  name: "conv1"
  type: "Convolution"
  bottom: "data"
  top: "conv1"
  param {
    lr_mult: 1
  }
  param {
    lr_mult: 2
  }
  convolution_param {
    num_output: 64
    pad: 2
    kernel_size: 5
    stride: 1
    weight_filler {
      type: "gaussian"
      std: 0.0001
    }
    bias_filler {
      type: "constant"
    }
  }
}
layer {
  name: "relu1"
  type: "ReLU"
  bottom: "conv1"
  top: "conv1"
}
layer {
  name: "conv2"
  type: "Convolution"
  bottom: "conv1"
  top: "conv2"
  param {
    lr_mult: 1
  }
  param {
    lr_mult: 2
  }
  convolution_param {
    num_output: 64
    pad: 2
    kernel_size: 5
    stride: 1
    weight_filler {
      type: "gaussian"
      std: 0.01
    }
    bias_filler {
      type: "constant"
    }
  }
}
layer {
  name: "relu2"
  type: "ReLU"
  bottom: "conv2"
  top: "conv2"
}
layer {
  name: "pool2"
  type: "Pooling"
  bottom: "conv2"
  top: "pool2"
  pooling_param {
    pool: MAX
    kernel_size: 3
    stride: 2
  }
}
layer {
  name: "conv3"
  type: "Convolution"
  bottom: "pool2"
  top: "conv3"
  param {
    lr_mult: 1
  }
  param {
    lr_mult: 2
  }
  convolution_param {
    num_output: 64
    pad: 2
    kernel_size: 5
    stride: 1
    weight_filler {
      type: "gaussian"
      std: 0.01
    }
    bias_filler {
      type: "constant"
    }
  }
}
layer {
  name: "relu3"
  type: "ReLU"
  bottom: "conv3"
  top: "conv3"
}
layer {
  name: "conv4"
  type: "Convolution"
  bottom: "conv3"
  top: "conv4"
  param {
    lr_mult: 1
  }
  param {
    lr_mult: 2
  }
  convolution_param {
    num_output: 64
    pad: 2
    kernel_size: 5
    stride: 1
    weight_filler {
      type: "gaussian"
      std: 0.01
    }
    bias_filler {
      type: "constant"
    }
  }
}
layer {
  name: "relu4"
  type: "ReLU"
  bottom: "conv4"
  top: "conv4"
}
layer {
  name: "conv5"
  type: "Convolution"
  bottom: "conv4"
  top: "conv5"
  param {
    lr_mult: 1
  }
  param {
    lr_mult: 2
  }
  convolution_param {
    num_output: 64
    pad: 2
    kernel_size: 5
    stride: 1
    weight_filler {
      type: "gaussian"
      std: 0.01
    }
    bias_filler {
      type: "constant"
    }
  }
}
layer {
  name: "relu5"
  type: "ReLU"
  bottom: "conv5"
  top: "conv5"
}
layer {
  name: "pool5"
  type: "Pooling"
  bottom: "conv5"
  top: "pool5"
  pooling_param {
    pool: AVE
    kernel_size: 3
    stride: 2
  }
}
layer {
  name: "ip1"
  type: "InnerProduct"
  bottom: "pool5"
  top: "ip1"
  param {
    lr_mult: 1
  }
  param {
    lr_mult: 2
  }
  inner_product_param {
    num_output: 64
    weight_filler {
      type: "gaussian"
      std: 0.1
    }
    bias_filler {
      type: "constant"
    }
  }
}
layer {
  name: "ip2"
  type: "InnerProduct"
  bottom: "ip1"
  top: "ip2"
  param {
    lr_mult: 1
  }
  param {
    lr_mult: 2
  }
  inner_product_param {
    num_output: 64
    weight_filler {
      type: "gaussian"
      std: 0.1
    }
    bias_filler {
      type: "constant"
    }
  }
}
layer {
  name: "ip3"
  type: "InnerProduct"
  bottom: "ip2"
  top: "ip3"
  param {
    lr_mult: 1
  }
  param {
    lr_mult: 2
  }
  inner_product_param {
    num_output: 1
    weight_filler {
      type: "gaussian"
      std: 0.1
    }
    bias_filler {
      type: "constant"
    }
  }
}
layer {
  name: "loss"
  type: "HuberLoss"
  bottom: "ip3"
  bottom: "label"
  top: "loss"
  include {
    phase: TRAIN
  }
}
I0502 05:01:08.676661 18683 layer_factory.hpp:77] Creating layer parameters
I0502 05:01:08.676678 18683 net.cpp:94] Creating Layer parameters
I0502 05:01:08.676684 18683 net.cpp:409] parameters -> data
I0502 05:01:08.676705 18683 net.cpp:409] parameters -> label
I0502 05:01:08.676715 18683 hdf5_data_layer.cpp:79] Loading list of HDF5 filenames from: /home/purduethu/scratch/radon/d/deng106/CNNStatisticalModel/distributions/input/5_distributions_900_sample_size_train-parameters-path.txt
I0502 05:01:08.676738 18683 hdf5_data_layer.cpp:93] Number of HDF5 files: 1
I0502 05:01:08.677326 18683 hdf5.cpp:32] Datatype class: H5T_FLOAT
I0502 05:01:08.818980 18683 net.cpp:144] Setting up parameters
I0502 05:01:08.819023 18683 net.cpp:151] Top shape: 20 1 30 30 (18000)
I0502 05:01:08.819030 18683 net.cpp:151] Top shape: 20 (20)
I0502 05:01:08.819038 18683 net.cpp:159] Memory required for data: 72080
I0502 05:01:08.819046 18683 layer_factory.hpp:77] Creating layer conv1
I0502 05:01:08.819067 18683 net.cpp:94] Creating Layer conv1
I0502 05:01:08.819073 18683 net.cpp:435] conv1 <- data
I0502 05:01:08.819085 18683 net.cpp:409] conv1 -> conv1
I0502 05:01:08.825037 18683 net.cpp:144] Setting up conv1
I0502 05:01:08.825053 18683 net.cpp:151] Top shape: 20 64 30 30 (1152000)
I0502 05:01:08.825058 18683 net.cpp:159] Memory required for data: 4680080
I0502 05:01:08.825072 18683 layer_factory.hpp:77] Creating layer relu1
I0502 05:01:08.825079 18683 net.cpp:94] Creating Layer relu1
I0502 05:01:08.825083 18683 net.cpp:435] relu1 <- conv1
I0502 05:01:08.825088 18683 net.cpp:396] relu1 -> conv1 (in-place)
I0502 05:01:08.825105 18683 net.cpp:144] Setting up relu1
I0502 05:01:08.825111 18683 net.cpp:151] Top shape: 20 64 30 30 (1152000)
I0502 05:01:08.825114 18683 net.cpp:159] Memory required for data: 9288080
I0502 05:01:08.825119 18683 layer_factory.hpp:77] Creating layer conv2
I0502 05:01:08.825126 18683 net.cpp:94] Creating Layer conv2
I0502 05:01:08.825131 18683 net.cpp:435] conv2 <- conv1
I0502 05:01:08.825136 18683 net.cpp:409] conv2 -> conv2
I0502 05:01:08.840945 18683 net.cpp:144] Setting up conv2
I0502 05:01:08.840961 18683 net.cpp:151] Top shape: 20 64 30 30 (1152000)
I0502 05:01:08.840966 18683 net.cpp:159] Memory required for data: 13896080
I0502 05:01:08.840975 18683 layer_factory.hpp:77] Creating layer relu2
I0502 05:01:08.840981 18683 net.cpp:94] Creating Layer relu2
I0502 05:01:08.840986 18683 net.cpp:435] relu2 <- conv2
I0502 05:01:08.840991 18683 net.cpp:396] relu2 -> conv2 (in-place)
I0502 05:01:08.840999 18683 net.cpp:144] Setting up relu2
I0502 05:01:08.841004 18683 net.cpp:151] Top shape: 20 64 30 30 (1152000)
I0502 05:01:08.841008 18683 net.cpp:159] Memory required for data: 18504080
I0502 05:01:08.841012 18683 layer_factory.hpp:77] Creating layer pool2
I0502 05:01:08.841020 18683 net.cpp:94] Creating Layer pool2
I0502 05:01:08.841029 18683 net.cpp:435] pool2 <- conv2
I0502 05:01:08.841035 18683 net.cpp:409] pool2 -> pool2
I0502 05:01:08.841081 18683 net.cpp:144] Setting up pool2
I0502 05:01:08.841090 18683 net.cpp:151] Top shape: 20 64 15 15 (288000)
I0502 05:01:08.841094 18683 net.cpp:159] Memory required for data: 19656080
I0502 05:01:08.841097 18683 layer_factory.hpp:77] Creating layer conv3
I0502 05:01:08.841106 18683 net.cpp:94] Creating Layer conv3
I0502 05:01:08.841110 18683 net.cpp:435] conv3 <- pool2
I0502 05:01:08.841115 18683 net.cpp:409] conv3 -> conv3
I0502 05:01:08.850818 18683 net.cpp:144] Setting up conv3
I0502 05:01:08.850833 18683 net.cpp:151] Top shape: 20 64 15 15 (288000)
I0502 05:01:08.850838 18683 net.cpp:159] Memory required for data: 20808080
I0502 05:01:08.850847 18683 layer_factory.hpp:77] Creating layer relu3
I0502 05:01:08.850853 18683 net.cpp:94] Creating Layer relu3
I0502 05:01:08.850858 18683 net.cpp:435] relu3 <- conv3
I0502 05:01:08.850863 18683 net.cpp:396] relu3 -> conv3 (in-place)
I0502 05:01:08.850872 18683 net.cpp:144] Setting up relu3
I0502 05:01:08.850877 18683 net.cpp:151] Top shape: 20 64 15 15 (288000)
I0502 05:01:08.850880 18683 net.cpp:159] Memory required for data: 21960080
I0502 05:01:08.850883 18683 layer_factory.hpp:77] Creating layer conv4
I0502 05:01:08.850893 18683 net.cpp:94] Creating Layer conv4
I0502 05:01:08.850898 18683 net.cpp:435] conv4 <- conv3
I0502 05:01:08.850903 18683 net.cpp:409] conv4 -> conv4
I0502 05:01:08.858265 18683 net.cpp:144] Setting up conv4
I0502 05:01:08.858292 18683 net.cpp:151] Top shape: 20 64 15 15 (288000)
I0502 05:01:08.858302 18683 net.cpp:159] Memory required for data: 23112080
I0502 05:01:08.858314 18683 layer_factory.hpp:77] Creating layer relu4
I0502 05:01:08.858325 18683 net.cpp:94] Creating Layer relu4
I0502 05:01:08.858333 18683 net.cpp:435] relu4 <- conv4
I0502 05:01:08.858350 18683 net.cpp:396] relu4 -> conv4 (in-place)
I0502 05:01:08.858358 18683 net.cpp:144] Setting up relu4
I0502 05:01:08.858364 18683 net.cpp:151] Top shape: 20 64 15 15 (288000)
I0502 05:01:08.858368 18683 net.cpp:159] Memory required for data: 24264080
I0502 05:01:08.858371 18683 layer_factory.hpp:77] Creating layer conv5
I0502 05:01:08.858381 18683 net.cpp:94] Creating Layer conv5
I0502 05:01:08.858384 18683 net.cpp:435] conv5 <- conv4
I0502 05:01:08.858389 18683 net.cpp:409] conv5 -> conv5
I0502 05:01:08.865607 18683 net.cpp:144] Setting up conv5
I0502 05:01:08.865622 18683 net.cpp:151] Top shape: 20 64 15 15 (288000)
I0502 05:01:08.865628 18683 net.cpp:159] Memory required for data: 25416080
I0502 05:01:08.865636 18683 layer_factory.hpp:77] Creating layer relu5
I0502 05:01:08.865643 18683 net.cpp:94] Creating Layer relu5
I0502 05:01:08.865648 18683 net.cpp:435] relu5 <- conv5
I0502 05:01:08.865653 18683 net.cpp:396] relu5 -> conv5 (in-place)
I0502 05:01:08.865660 18683 net.cpp:144] Setting up relu5
I0502 05:01:08.865665 18683 net.cpp:151] Top shape: 20 64 15 15 (288000)
I0502 05:01:08.865669 18683 net.cpp:159] Memory required for data: 26568080
I0502 05:01:08.865672 18683 layer_factory.hpp:77] Creating layer pool5
I0502 05:01:08.865677 18683 net.cpp:94] Creating Layer pool5
I0502 05:01:08.865681 18683 net.cpp:435] pool5 <- conv5
I0502 05:01:08.865686 18683 net.cpp:409] pool5 -> pool5
I0502 05:01:08.865722 18683 net.cpp:144] Setting up pool5
I0502 05:01:08.865731 18683 net.cpp:151] Top shape: 20 64 7 7 (62720)
I0502 05:01:08.865734 18683 net.cpp:159] Memory required for data: 26818960
I0502 05:01:08.865737 18683 layer_factory.hpp:77] Creating layer ip1
I0502 05:01:08.865748 18683 net.cpp:94] Creating Layer ip1
I0502 05:01:08.865752 18683 net.cpp:435] ip1 <- pool5
I0502 05:01:08.865757 18683 net.cpp:409] ip1 -> ip1
I0502 05:01:08.871363 18683 net.cpp:144] Setting up ip1
I0502 05:01:08.871377 18683 net.cpp:151] Top shape: 20 64 (1280)
I0502 05:01:08.871381 18683 net.cpp:159] Memory required for data: 26824080
I0502 05:01:08.871387 18683 layer_factory.hpp:77] Creating layer ip2
I0502 05:01:08.871395 18683 net.cpp:94] Creating Layer ip2
I0502 05:01:08.871404 18683 net.cpp:435] ip2 <- ip1
I0502 05:01:08.871410 18683 net.cpp:409] ip2 -> ip2
I0502 05:01:08.871587 18683 net.cpp:144] Setting up ip2
I0502 05:01:08.871594 18683 net.cpp:151] Top shape: 20 64 (1280)
I0502 05:01:08.871598 18683 net.cpp:159] Memory required for data: 26829200
I0502 05:01:08.871603 18683 layer_factory.hpp:77] Creating layer ip3
I0502 05:01:08.871609 18683 net.cpp:94] Creating Layer ip3
I0502 05:01:08.871613 18683 net.cpp:435] ip3 <- ip2
I0502 05:01:08.871618 18683 net.cpp:409] ip3 -> ip3
I0502 05:01:08.871683 18683 net.cpp:144] Setting up ip3
I0502 05:01:08.871695 18683 net.cpp:151] Top shape: 20 1 (20)
I0502 05:01:08.871700 18683 net.cpp:159] Memory required for data: 26829280
I0502 05:01:08.871706 18683 layer_factory.hpp:77] Creating layer loss
I0502 05:01:08.871716 18683 net.cpp:94] Creating Layer loss
I0502 05:01:08.871721 18683 net.cpp:435] loss <- ip3
I0502 05:01:08.871726 18683 net.cpp:435] loss <- label
I0502 05:01:08.871731 18683 net.cpp:409] loss -> loss
I0502 05:01:08.871768 18683 net.cpp:144] Setting up loss
…
