…
I0501 23:03:43.826599 16334 net.cpp:323] The NetState phase (0) differed from the phase (1) specified by a rule in layer intercept
I0501 23:03:43.826614 16334 net.cpp:323] The NetState phase (0) differed from the phase (1) specified by a rule in layer loss
I0501 23:03:43.826690 16334 net.cpp:52] Initializing net from parameters: 
state {
  phase: TRAIN
}
layer {
  name: "parameters"
  type: "HDF5Data"
  top: "data"
  top: "label"
  include {
    phase: TRAIN
  }
  hdf5_data_param {
    source: "/home/purduethu/scratch/radon/d/deng106/CNNStatisticalModel/distributions/input/50_distributions_400_sample_size_train-parameters-path.txt"
    batch_size: 20
  }
}
layer {
  name: "conv1"
  type: "Convolution"
  bottom: "data"
  top: "conv1"
  param {
    lr_mult: 1
  }
  param {
    lr_mult: 2
  }
  convolution_param {
    num_output: 64
    pad: 2
    kernel_size: 5
    stride: 1
    weight_filler {
      type: "gaussian"
      std: 0.0001
    }
    bias_filler {
      type: "constant"
    }
  }
}
layer {
  name: "relu1"
  type: "ReLU"
  bottom: "conv1"
  top: "conv1"
}
layer {
  name: "conv2"
  type: "Convolution"
  bottom: "conv1"
  top: "conv2"
  param {
    lr_mult: 1
  }
  param {
    lr_mult: 2
  }
  convolution_param {
    num_output: 64
    pad: 2
    kernel_size: 5
    stride: 1
    weight_filler {
      type: "gaussian"
      std: 0.01
    }
    bias_filler {
      type: "constant"
    }
  }
}
layer {
  name: "relu2"
  type: "ReLU"
  bottom: "conv2"
  top: "conv2"
}
layer {
  name: "pool2"
  type: "Pooling"
  bottom: "conv2"
  top: "pool2"
  pooling_param {
    pool: MAX
    kernel_size: 3
    stride: 2
  }
}
layer {
  name: "conv3"
  type: "Convolution"
  bottom: "pool2"
  top: "conv3"
  param {
    lr_mult: 1
  }
  param {
    lr_mult: 2
  }
  convolution_param {
    num_output: 64
    pad: 2
    kernel_size: 5
    stride: 1
    weight_filler {
      type: "gaussian"
      std: 0.01
    }
    bias_filler {
      type: "constant"
    }
  }
}
layer {
  name: "relu3"
  type: "ReLU"
  bottom: "conv3"
  top: "conv3"
}
layer {
  name: "conv4"
  type: "Convolution"
  bottom: "conv3"
  top: "conv4"
  param {
    lr_mult: 1
  }
  param {
    lr_mult: 2
  }
  convolution_param {
    num_output: 64
    pad: 2
    kernel_size: 5
    stride: 1
    weight_filler {
      type: "gaussian"
      std: 0.01
    }
    bias_filler {
      type: "constant"
    }
  }
}
layer {
  name: "relu4"
  type: "ReLU"
  bottom: "conv4"
  top: "conv4"
}
layer {
  name: "conv5"
  type: "Convolution"
  bottom: "conv4"
  top: "conv5"
  param {
    lr_mult: 1
  }
  param {
    lr_mult: 2
  }
  convolution_param {
    num_output: 64
    pad: 2
    kernel_size: 5
    stride: 1
    weight_filler {
      type: "gaussian"
      std: 0.01
    }
    bias_filler {
      type: "constant"
    }
  }
}
layer {
  name: "relu5"
  type: "ReLU"
  bottom: "conv5"
  top: "conv5"
}
layer {
  name: "pool5"
  type: "Pooling"
  bottom: "conv5"
  top: "pool5"
  pooling_param {
    pool: AVE
    kernel_size: 3
    stride: 2
  }
}
layer {
  name: "ip1"
  type: "InnerProduct"
  bottom: "pool5"
  top: "ip1"
  param {
    lr_mult: 1
  }
  param {
    lr_mult: 2
  }
  inner_product_param {
    num_output: 64
    weight_filler {
      type: "gaussian"
      std: 0.1
    }
    bias_filler {
      type: "constant"
    }
  }
}
layer {
  name: "ip2"
  type: "InnerProduct"
  bottom: "ip1"
  top: "ip2"
  param {
    lr_mult: 1
  }
  param {
    lr_mult: 2
  }
  inner_product_param {
    num_output: 64
    weight_filler {
      type: "gaussian"
      std: 0.1
    }
    bias_filler {
      type: "constant"
    }
  }
}
layer {
  name: "ip3"
  type: "InnerProduct"
  bottom: "ip2"
  top: "ip3"
  param {
    lr_mult: 1
  }
  param {
    lr_mult: 2
  }
  inner_product_param {
    num_output: 1
    weight_filler {
      type: "gaussian"
      std: 0.1
    }
    bias_filler {
      type: "constant"
    }
  }
}
layer {
  name: "loss"
  type: "HuberLoss"
  bottom: "ip3"
  bottom: "label"
  top: "loss"
  include {
    phase: TRAIN
  }
}
I0501 23:03:43.826746 16334 layer_factory.hpp:77] Creating layer parameters
I0501 23:03:43.826762 16334 net.cpp:94] Creating Layer parameters
I0501 23:03:43.826767 16334 net.cpp:409] parameters -> data
I0501 23:03:43.826776 16334 net.cpp:409] parameters -> label
I0501 23:03:43.826782 16334 hdf5_data_layer.cpp:79] Loading list of HDF5 filenames from: /home/purduethu/scratch/radon/d/deng106/CNNStatisticalModel/distributions/input/50_distributions_400_sample_size_train-parameters-path.txt
I0501 23:03:43.826797 16334 hdf5_data_layer.cpp:93] Number of HDF5 files: 1
I0501 23:03:43.827348 16334 hdf5.cpp:32] Datatype class: H5T_FLOAT
I0501 23:03:44.466075 16334 net.cpp:144] Setting up parameters
I0501 23:03:44.466106 16334 net.cpp:151] Top shape: 20 1 20 20 (8000)
I0501 23:03:44.466111 16334 net.cpp:151] Top shape: 20 (20)
I0501 23:03:44.466114 16334 net.cpp:159] Memory required for data: 32080
I0501 23:03:44.466121 16334 layer_factory.hpp:77] Creating layer conv1
I0501 23:03:44.466137 16334 net.cpp:94] Creating Layer conv1
I0501 23:03:44.466141 16334 net.cpp:435] conv1 <- data
I0501 23:03:44.466148 16334 net.cpp:409] conv1 -> conv1
I0501 23:03:44.471674 16334 net.cpp:144] Setting up conv1
I0501 23:03:44.471691 16334 net.cpp:151] Top shape: 20 64 20 20 (512000)
I0501 23:03:44.471695 16334 net.cpp:159] Memory required for data: 2080080
I0501 23:03:44.471706 16334 layer_factory.hpp:77] Creating layer relu1
I0501 23:03:44.471714 16334 net.cpp:94] Creating Layer relu1
I0501 23:03:44.471719 16334 net.cpp:435] relu1 <- conv1
I0501 23:03:44.471722 16334 net.cpp:396] relu1 -> conv1 (in-place)
I0501 23:03:44.471730 16334 net.cpp:144] Setting up relu1
I0501 23:03:44.471735 16334 net.cpp:151] Top shape: 20 64 20 20 (512000)
I0501 23:03:44.471738 16334 net.cpp:159] Memory required for data: 4128080
I0501 23:03:44.471741 16334 layer_factory.hpp:77] Creating layer conv2
I0501 23:03:44.471750 16334 net.cpp:94] Creating Layer conv2
I0501 23:03:44.471753 16334 net.cpp:435] conv2 <- conv1
I0501 23:03:44.471757 16334 net.cpp:409] conv2 -> conv2
I0501 23:03:44.483103 16334 net.cpp:144] Setting up conv2
I0501 23:03:44.483119 16334 net.cpp:151] Top shape: 20 64 20 20 (512000)
I0501 23:03:44.483122 16334 net.cpp:159] Memory required for data: 6176080
I0501 23:03:44.483130 16334 layer_factory.hpp:77] Creating layer relu2
I0501 23:03:44.483137 16334 net.cpp:94] Creating Layer relu2
I0501 23:03:44.483141 16334 net.cpp:435] relu2 <- conv2
I0501 23:03:44.483146 16334 net.cpp:396] relu2 -> conv2 (in-place)
I0501 23:03:44.483153 16334 net.cpp:144] Setting up relu2
I0501 23:03:44.483158 16334 net.cpp:151] Top shape: 20 64 20 20 (512000)
I0501 23:03:44.483161 16334 net.cpp:159] Memory required for data: 8224080
I0501 23:03:44.483165 16334 layer_factory.hpp:77] Creating layer pool2
I0501 23:03:44.483176 16334 net.cpp:94] Creating Layer pool2
I0501 23:03:44.483180 16334 net.cpp:435] pool2 <- conv2
I0501 23:03:44.483186 16334 net.cpp:409] pool2 -> pool2
I0501 23:03:44.483247 16334 net.cpp:144] Setting up pool2
I0501 23:03:44.483254 16334 net.cpp:151] Top shape: 20 64 10 10 (128000)
I0501 23:03:44.483258 16334 net.cpp:159] Memory required for data: 8736080
I0501 23:03:44.483261 16334 layer_factory.hpp:77] Creating layer conv3
I0501 23:03:44.483269 16334 net.cpp:94] Creating Layer conv3
I0501 23:03:44.483273 16334 net.cpp:435] conv3 <- pool2
I0501 23:03:44.483278 16334 net.cpp:409] conv3 -> conv3
I0501 23:03:44.488683 16334 net.cpp:144] Setting up conv3
I0501 23:03:44.488698 16334 net.cpp:151] Top shape: 20 64 10 10 (128000)
I0501 23:03:44.488701 16334 net.cpp:159] Memory required for data: 9248080
I0501 23:03:44.488710 16334 layer_factory.hpp:77] Creating layer relu3
I0501 23:03:44.488716 16334 net.cpp:94] Creating Layer relu3
I0501 23:03:44.488720 16334 net.cpp:435] relu3 <- conv3
I0501 23:03:44.488724 16334 net.cpp:396] relu3 -> conv3 (in-place)
I0501 23:03:44.488731 16334 net.cpp:144] Setting up relu3
I0501 23:03:44.488736 16334 net.cpp:151] Top shape: 20 64 10 10 (128000)
I0501 23:03:44.488739 16334 net.cpp:159] Memory required for data: 9760080
I0501 23:03:44.488742 16334 layer_factory.hpp:77] Creating layer conv4
I0501 23:03:44.488750 16334 net.cpp:94] Creating Layer conv4
I0501 23:03:44.488754 16334 net.cpp:435] conv4 <- conv3
I0501 23:03:44.488759 16334 net.cpp:409] conv4 -> conv4
I0501 23:03:44.494192 16334 net.cpp:144] Setting up conv4
I0501 23:03:44.494205 16334 net.cpp:151] Top shape: 20 64 10 10 (128000)
I0501 23:03:44.494210 16334 net.cpp:159] Memory required for data: 10272080
I0501 23:03:44.494216 16334 layer_factory.hpp:77] Creating layer relu4
I0501 23:03:44.494222 16334 net.cpp:94] Creating Layer relu4
I0501 23:03:44.494226 16334 net.cpp:435] relu4 <- conv4
I0501 23:03:44.494231 16334 net.cpp:396] relu4 -> conv4 (in-place)
I0501 23:03:44.494238 16334 net.cpp:144] Setting up relu4
I0501 23:03:44.494242 16334 net.cpp:151] Top shape: 20 64 10 10 (128000)
I0501 23:03:44.494246 16334 net.cpp:159] Memory required for data: 10784080
I0501 23:03:44.494248 16334 layer_factory.hpp:77] Creating layer conv5
I0501 23:03:44.494256 16334 net.cpp:94] Creating Layer conv5
I0501 23:03:44.494259 16334 net.cpp:435] conv5 <- conv4
I0501 23:03:44.494264 16334 net.cpp:409] conv5 -> conv5
I0501 23:03:44.499724 16334 net.cpp:144] Setting up conv5
I0501 23:03:44.499738 16334 net.cpp:151] Top shape: 20 64 10 10 (128000)
I0501 23:03:44.499742 16334 net.cpp:159] Memory required for data: 11296080
I0501 23:03:44.499752 16334 layer_factory.hpp:77] Creating layer relu5
I0501 23:03:44.499758 16334 net.cpp:94] Creating Layer relu5
I0501 23:03:44.499761 16334 net.cpp:435] relu5 <- conv5
I0501 23:03:44.499765 16334 net.cpp:396] relu5 -> conv5 (in-place)
I0501 23:03:44.499773 16334 net.cpp:144] Setting up relu5
I0501 23:03:44.499778 16334 net.cpp:151] Top shape: 20 64 10 10 (128000)
I0501 23:03:44.499780 16334 net.cpp:159] Memory required for data: 11808080
I0501 23:03:44.499783 16334 layer_factory.hpp:77] Creating layer pool5
I0501 23:03:44.499788 16334 net.cpp:94] Creating Layer pool5
I0501 23:03:44.499791 16334 net.cpp:435] pool5 <- conv5
I0501 23:03:44.499795 16334 net.cpp:409] pool5 -> pool5
I0501 23:03:44.499837 16334 net.cpp:144] Setting up pool5
I0501 23:03:44.499845 16334 net.cpp:151] Top shape: 20 64 5 5 (32000)
I0501 23:03:44.499848 16334 net.cpp:159] Memory required for data: 11936080
I0501 23:03:44.499851 16334 layer_factory.hpp:77] Creating layer ip1
I0501 23:03:44.499861 16334 net.cpp:94] Creating Layer ip1
I0501 23:03:44.499866 16334 net.cpp:435] ip1 <- pool5
I0501 23:03:44.499871 16334 net.cpp:409] ip1 -> ip1
I0501 23:03:44.502424 16334 net.cpp:144] Setting up ip1
I0501 23:03:44.502435 16334 net.cpp:151] Top shape: 20 64 (1280)
I0501 23:03:44.502439 16334 net.cpp:159] Memory required for data: 11941200
I0501 23:03:44.502445 16334 layer_factory.hpp:77] Creating layer ip2
I0501 23:03:44.502452 16334 net.cpp:94] Creating Layer ip2
I0501 23:03:44.502460 16334 net.cpp:435] ip2 <- ip1
I0501 23:03:44.502465 16334 net.cpp:409] ip2 -> ip2
I0501 23:03:44.502686 16334 net.cpp:144] Setting up ip2
I0501 23:03:44.502694 16334 net.cpp:151] Top shape: 20 64 (1280)
I0501 23:03:44.502697 16334 net.cpp:159] Memory required for data: 11946320
I0501 23:03:44.502702 16334 layer_factory.hpp:77] Creating layer ip3
I0501 23:03:44.502708 16334 net.cpp:94] Creating Layer ip3
I0501 23:03:44.502712 16334 net.cpp:435] ip3 <- ip2
I0501 23:03:44.502717 16334 net.cpp:409] ip3 -> ip3
I0501 23:03:44.502828 16334 net.cpp:144] Setting up ip3
I0501 23:03:44.502835 16334 net.cpp:151] Top shape: 20 1 (20)
I0501 23:03:44.502838 16334 net.cpp:159] Memory required for data: 11946400
I0501 23:03:44.502843 16334 layer_factory.hpp:77] Creating layer loss
I0501 23:03:44.502854 16334 net.cpp:94] Creating Layer loss
I0501 23:03:44.502858 16334 net.cpp:435] loss <- ip3
I0501 23:03:44.502862 16334 net.cpp:435] loss <- label
I0501 23:03:44.502866 16334 net.cpp:409] loss -> loss
I0501 23:03:44.502920 16334 net.cpp:144] Setting up loss
…
I0501 23:03:44.687731 16334 net.cpp:323] The NetState phase (0) differed from the phase (1) specified by a rule in layer intercept
I0501 23:03:44.687744 16334 net.cpp:323] The NetState phase (0) differed from the phase (1) specified by a rule in layer accuracy
I0501 23:03:44.687830 16334 net.cpp:52] Initializing net from parameters: 
state {
  phase: TRAIN
}
layer {
  name: "parameters"
  type: "HDF5Data"
  top: "data"
  top: "label"
  include {
    phase: TRAIN
  }
  hdf5_data_param {
    source: "/home/purduethu/scratch/radon/d/deng106/CNNStatisticalModel/distributions/input/50_distributions_400_sample_size_train-distributions-path.txt"
    batch_size: 20
  }
}
layer {
  name: "conv1"
  type: "Convolution"
  bottom: "data"
  top: "conv1"
  param {
    lr_mult: 1
  }
  param {
    lr_mult: 2
  }
  convolution_param {
    num_output: 64
    pad: 2
    kernel_size: 5
    stride: 1
    weight_filler {
      type: "gaussian"
      std: 0.0001
    }
    bias_filler {
      type: "constant"
    }
  }
}
layer {
  name: "relu1"
  type: "ReLU"
  bottom: "conv1"
  top: "conv1"
}
layer {
  name: "conv2"
  type: "Convolution"
  bottom: "conv1"
  top: "conv2"
  param {
    lr_mult: 1
  }
  param {
    lr_mult: 2
  }
  convolution_param {
    num_output: 64
    pad: 2
    kernel_size: 5
    stride: 1
    weight_filler {
      type: "gaussian"
      std: 0.01
    }
    bias_filler {
      type: "constant"
    }
  }
}
layer {
  name: "relu2"
  type: "ReLU"
  bottom: "conv2"
  top: "conv2"
}
layer {
  name: "pool2"
  type: "Pooling"
  bottom: "conv2"
  top: "pool2"
  pooling_param {
    pool: MAX
    kernel_size: 3
    stride: 2
  }
}
layer {
  name: "conv3"
  type: "Convolution"
  bottom: "pool2"
  top: "conv3"
  param {
    lr_mult: 1
  }
  param {
    lr_mult: 2
  }
  convolution_param {
    num_output: 64
    pad: 2
    kernel_size: 5
    stride: 1
    weight_filler {
      type: "gaussian"
      std: 0.01
    }
    bias_filler {
      type: "constant"
    }
  }
}
layer {
  name: "relu3"
  type: "ReLU"
  bottom: "conv3"
  top: "conv3"
}
layer {
  name: "conv4"
  type: "Convolution"
  bottom: "conv3"
  top: "conv4"
  param {
    lr_mult: 1
  }
  param {
    lr_mult: 2
  }
  convolution_param {
    num_output: 64
    pad: 2
    kernel_size: 5
    stride: 1
    weight_filler {
      type: "gaussian"
      std: 0.01
    }
    bias_filler {
      type: "constant"
    }
  }
}
layer {
  name: "relu4"
  type: "ReLU"
  bottom: "conv4"
  top: "conv4"
}
layer {
  name: "conv5"
  type: "Convolution"
  bottom: "conv4"
  top: "conv5"
  param {
    lr_mult: 1
  }
  param {
    lr_mult: 2
  }
  convolution_param {
    num_output: 64
    pad: 2
    kernel_size: 5
    stride: 1
    weight_filler {
      type: "gaussian"
      std: 0.01
    }
    bias_filler {
      type: "constant"
    }
  }
}
layer {
  name: "relu5"
  type: "ReLU"
  bottom: "conv5"
  top: "conv5"
}
layer {
  name: "pool5"
  type: "Pooling"
  bottom: "conv5"
  top: "pool5"
  pooling_param {
    pool: AVE
    kernel_size: 3
    stride: 2
  }
}
layer {
  name: "ip1"
  type: "InnerProduct"
  bottom: "pool5"
  top: "ip1"
  param {
    lr_mult: 1
  }
  param {
    lr_mult: 2
  }
  inner_product_param {
    num_output: 64
    weight_filler {
      type: "gaussian"
      std: 0.1
    }
    bias_filler {
      type: "constant"
    }
  }
}
layer {
  name: "ip2"
  type: "InnerProduct"
  bottom: "ip1"
  top: "ip2"
  param {
    lr_mult: 1
  }
  param {
    lr_mult: 2
  }
  inner_product_param {
    num_output: 64
    weight_filler {
      type: "gaussian"
      std: 0.1
    }
    bias_filler {
      type: "constant"
    }
  }
}
layer {
  name: "ip3"
  type: "InnerProduct"
  bottom: "ip2"
  top: "ip3"
  param {
    lr_mult: 1
  }
  param {
    lr_mult: 2
  }
  inner_product_param {
    num_output: 50
    weight_filler {
      type: "gaussian"
      std: 0.1
    }
    bias_filler {
      type: "constant"
    }
  }
}
layer {
  name: "loss"
  type: "SoftmaxWithLoss"
  bottom: "ip3"
  bottom: "label"
  top: "loss"
}
I0501 23:03:44.687881 16334 layer_factory.hpp:77] Creating layer parameters
I0501 23:03:44.687889 16334 net.cpp:94] Creating Layer parameters
I0501 23:03:44.687893 16334 net.cpp:409] parameters -> data
I0501 23:03:44.687901 16334 net.cpp:409] parameters -> label
I0501 23:03:44.687906 16334 hdf5_data_layer.cpp:79] Loading list of HDF5 filenames from: /home/purduethu/scratch/radon/d/deng106/CNNStatisticalModel/distributions/input/50_distributions_400_sample_size_train-distributions-path.txt
I0501 23:03:44.687922 16334 hdf5_data_layer.cpp:93] Number of HDF5 files: 1
I0501 23:03:45.329269 16334 hdf5.cpp:35] Datatype class: H5T_INTEGER
I0501 23:03:45.332300 16334 net.cpp:144] Setting up parameters
I0501 23:03:45.332320 16334 net.cpp:151] Top shape: 20 1 20 20 (8000)
I0501 23:03:45.332325 16334 net.cpp:151] Top shape: 20 (20)
I0501 23:03:45.332329 16334 net.cpp:159] Memory required for data: 32080
I0501 23:03:45.332335 16334 layer_factory.hpp:77] Creating layer conv1
I0501 23:03:45.332351 16334 net.cpp:94] Creating Layer conv1
I0501 23:03:45.332355 16334 net.cpp:435] conv1 <- data
I0501 23:03:45.332361 16334 net.cpp:409] conv1 -> conv1
I0501 23:03:45.335165 16334 net.cpp:144] Setting up conv1
I0501 23:03:45.335180 16334 net.cpp:151] Top shape: 20 64 20 20 (512000)
I0501 23:03:45.335183 16334 net.cpp:159] Memory required for data: 2080080
I0501 23:03:45.335192 16334 layer_factory.hpp:77] Creating layer relu1
I0501 23:03:45.335201 16334 net.cpp:94] Creating Layer relu1
I0501 23:03:45.335204 16334 net.cpp:435] relu1 <- conv1
I0501 23:03:45.335208 16334 net.cpp:396] relu1 -> conv1 (in-place)
I0501 23:03:45.335216 16334 net.cpp:144] Setting up relu1
I0501 23:03:45.335220 16334 net.cpp:151] Top shape: 20 64 20 20 (512000)
I0501 23:03:45.335223 16334 net.cpp:159] Memory required for data: 4128080
I0501 23:03:45.335227 16334 layer_factory.hpp:77] Creating layer conv2
I0501 23:03:45.335234 16334 net.cpp:94] Creating Layer conv2
I0501 23:03:45.335238 16334 net.cpp:435] conv2 <- conv1
I0501 23:03:45.335242 16334 net.cpp:409] conv2 -> conv2
I0501 23:03:45.345294 16334 net.cpp:144] Setting up conv2
I0501 23:03:45.345309 16334 net.cpp:151] Top shape: 20 64 20 20 (512000)
I0501 23:03:45.345314 16334 net.cpp:159] Memory required for data: 6176080
I0501 23:03:45.345322 16334 layer_factory.hpp:77] Creating layer relu2
I0501 23:03:45.345329 16334 net.cpp:94] Creating Layer relu2
I0501 23:03:45.345333 16334 net.cpp:435] relu2 <- conv2
I0501 23:03:45.345338 16334 net.cpp:396] relu2 -> conv2 (in-place)
I0501 23:03:45.345345 16334 net.cpp:144] Setting up relu2
I0501 23:03:45.345350 16334 net.cpp:151] Top shape: 20 64 20 20 (512000)
I0501 23:03:45.345352 16334 net.cpp:159] Memory required for data: 8224080
I0501 23:03:45.345355 16334 layer_factory.hpp:77] Creating layer pool2
I0501 23:03:45.345361 16334 net.cpp:94] Creating Layer pool2
I0501 23:03:45.345365 16334 net.cpp:435] pool2 <- conv2
I0501 23:03:45.345369 16334 net.cpp:409] pool2 -> pool2
I0501 23:03:45.345425 16334 net.cpp:144] Setting up pool2
I0501 23:03:45.345433 16334 net.cpp:151] Top shape: 20 64 10 10 (128000)
I0501 23:03:45.345437 16334 net.cpp:159] Memory required for data: 8736080
I0501 23:03:45.345440 16334 layer_factory.hpp:77] Creating layer conv3
I0501 23:03:45.345448 16334 net.cpp:94] Creating Layer conv3
I0501 23:03:45.345451 16334 net.cpp:435] conv3 <- pool2
I0501 23:03:45.345463 16334 net.cpp:409] conv3 -> conv3
I0501 23:03:45.350910 16334 net.cpp:144] Setting up conv3
I0501 23:03:45.350924 16334 net.cpp:151] Top shape: 20 64 10 10 (128000)
I0501 23:03:45.350929 16334 net.cpp:159] Memory required for data: 9248080
I0501 23:03:45.350936 16334 layer_factory.hpp:77] Creating layer relu3
I0501 23:03:45.350942 16334 net.cpp:94] Creating Layer relu3
I0501 23:03:45.350946 16334 net.cpp:435] relu3 <- conv3
I0501 23:03:45.350951 16334 net.cpp:396] relu3 -> conv3 (in-place)
I0501 23:03:45.350957 16334 net.cpp:144] Setting up relu3
I0501 23:03:45.350962 16334 net.cpp:151] Top shape: 20 64 10 10 (128000)
I0501 23:03:45.350965 16334 net.cpp:159] Memory required for data: 9760080
I0501 23:03:45.350968 16334 layer_factory.hpp:77] Creating layer conv4
I0501 23:03:45.350976 16334 net.cpp:94] Creating Layer conv4
I0501 23:03:45.350980 16334 net.cpp:435] conv4 <- conv3
I0501 23:03:45.350986 16334 net.cpp:409] conv4 -> conv4
I0501 23:03:45.356458 16334 net.cpp:144] Setting up conv4
I0501 23:03:45.356472 16334 net.cpp:151] Top shape: 20 64 10 10 (128000)
I0501 23:03:45.356477 16334 net.cpp:159] Memory required for data: 10272080
I0501 23:03:45.356482 16334 layer_factory.hpp:77] Creating layer relu4
I0501 23:03:45.356488 16334 net.cpp:94] Creating Layer relu4
I0501 23:03:45.356492 16334 net.cpp:435] relu4 <- conv4
I0501 23:03:45.356498 16334 net.cpp:396] relu4 -> conv4 (in-place)
I0501 23:03:45.356504 16334 net.cpp:144] Setting up relu4
I0501 23:03:45.356508 16334 net.cpp:151] Top shape: 20 64 10 10 (128000)
I0501 23:03:45.356511 16334 net.cpp:159] Memory required for data: 10784080
I0501 23:03:45.356515 16334 layer_factory.hpp:77] Creating layer conv5
I0501 23:03:45.356523 16334 net.cpp:94] Creating Layer conv5
I0501 23:03:45.356525 16334 net.cpp:435] conv5 <- conv4
I0501 23:03:45.356530 16334 net.cpp:409] conv5 -> conv5
I0501 23:03:45.362020 16334 net.cpp:144] Setting up conv5
I0501 23:03:45.362035 16334 net.cpp:151] Top shape: 20 64 10 10 (128000)
I0501 23:03:45.362038 16334 net.cpp:159] Memory required for data: 11296080
I0501 23:03:45.362047 16334 layer_factory.hpp:77] Creating layer relu5
I0501 23:03:45.362053 16334 net.cpp:94] Creating Layer relu5
I0501 23:03:45.362056 16334 net.cpp:435] relu5 <- conv5
I0501 23:03:45.362061 16334 net.cpp:396] relu5 -> conv5 (in-place)
I0501 23:03:45.362068 16334 net.cpp:144] Setting up relu5
I0501 23:03:45.362072 16334 net.cpp:151] Top shape: 20 64 10 10 (128000)
I0501 23:03:45.362076 16334 net.cpp:159] Memory required for data: 11808080
I0501 23:03:45.362079 16334 layer_factory.hpp:77] Creating layer pool5
I0501 23:03:45.362084 16334 net.cpp:94] Creating Layer pool5
I0501 23:03:45.362087 16334 net.cpp:435] pool5 <- conv5
I0501 23:03:45.362092 16334 net.cpp:409] pool5 -> pool5
I0501 23:03:45.362131 16334 net.cpp:144] Setting up pool5
I0501 23:03:45.362138 16334 net.cpp:151] Top shape: 20 64 5 5 (32000)
I0501 23:03:45.362141 16334 net.cpp:159] Memory required for data: 11936080
I0501 23:03:45.362145 16334 layer_factory.hpp:77] Creating layer ip1
I0501 23:03:45.362151 16334 net.cpp:94] Creating Layer ip1
I0501 23:03:45.362155 16334 net.cpp:435] ip1 <- pool5
I0501 23:03:45.362160 16334 net.cpp:409] ip1 -> ip1
I0501 23:03:45.365492 16334 net.cpp:144] Setting up ip1
I0501 23:03:45.365506 16334 net.cpp:151] Top shape: 20 64 (1280)
I0501 23:03:45.365510 16334 net.cpp:159] Memory required for data: 11941200
I0501 23:03:45.365516 16334 layer_factory.hpp:77] Creating layer ip2
I0501 23:03:45.365523 16334 net.cpp:94] Creating Layer ip2
I0501 23:03:45.365527 16334 net.cpp:435] ip2 <- ip1
I0501 23:03:45.365532 16334 net.cpp:409] ip2 -> ip2
I0501 23:03:45.365757 16334 net.cpp:144] Setting up ip2
I0501 23:03:45.365766 16334 net.cpp:151] Top shape: 20 64 (1280)
I0501 23:03:45.365768 16334 net.cpp:159] Memory required for data: 11946320
I0501 23:03:45.365773 16334 layer_factory.hpp:77] Creating layer ip3
I0501 23:03:45.365779 16334 net.cpp:94] Creating Layer ip3
I0501 23:03:45.365783 16334 net.cpp:435] ip3 <- ip2
I0501 23:03:45.365787 16334 net.cpp:409] ip3 -> ip3
I0501 23:03:45.365990 16334 net.cpp:144] Setting up ip3
I0501 23:03:45.365998 16334 net.cpp:151] Top shape: 20 50 (1000)
I0501 23:03:45.366001 16334 net.cpp:159] Memory required for data: 11950320
I0501 23:03:45.366006 16334 layer_factory.hpp:77] Creating layer loss
I0501 23:03:45.366013 16334 net.cpp:94] Creating Layer loss
I0501 23:03:45.366016 16334 net.cpp:435] loss <- ip3
I0501 23:03:45.366020 16334 net.cpp:435] loss <- label
I0501 23:03:45.366024 16334 net.cpp:409] loss -> loss
I0501 23:03:45.366031 16334 layer_factory.hpp:77] Creating layer loss
…
I0501 23:03:45.366545 16334 solver.cpp:181] Creating test net (#0) specified by net file: ./protocol/dis_50_400_dimension.protocol_distribution
I0501 23:03:45.366571 16334 net.cpp:323] The NetState phase (1) differed from the phase (0) specified by a rule in layer parameters
I0501 23:03:45.366662 16334 net.cpp:52] Initializing net from parameters: 
state {
  phase: TEST
}
layer {
  name: "intercept"
  type: "HDF5Data"
  top: "data"
  top: "label"
  include {
    phase: TEST
  }
  hdf5_data_param {
    source: "/home/purduethu/scratch/radon/d/deng106/CNNStatisticalModel/distributions/input/50_distributions_400_sample_size_test-distributions-path.txt"
    batch_size: 20
  }
}
layer {
  name: "conv1"
  type: "Convolution"
  bottom: "data"
  top: "conv1"
  param {
    lr_mult: 1
  }
  param {
    lr_mult: 2
  }
  convolution_param {
    num_output: 64
    pad: 2
    kernel_size: 5
    stride: 1
    weight_filler {
      type: "gaussian"
      std: 0.0001
    }
    bias_filler {
      type: "constant"
    }
  }
}
layer {
  name: "relu1"
  type: "ReLU"
  bottom: "conv1"
  top: "conv1"
}
layer {
  name: "conv2"
  type: "Convolution"
  bottom: "conv1"
  top: "conv2"
  param {
    lr_mult: 1
  }
  param {
    lr_mult: 2
  }
  convolution_param {
    num_output: 64
    pad: 2
    kernel_size: 5
    stride: 1
    weight_filler {
      type: "gaussian"
      std: 0.01
    }
    bias_filler {
      type: "constant"
    }
  }
}
layer {
  name: "relu2"
  type: "ReLU"
  bottom: "conv2"
  top: "conv2"
}
layer {
  name: "pool2"
  type: "Pooling"
  bottom: "conv2"
  top: "pool2"
  pooling_param {
    pool: MAX
    kernel_size: 3
    stride: 2
  }
}
layer {
  name: "conv3"
  type: "Convolution"
  bottom: "pool2"
  top: "conv3"
  param {
    lr_mult: 1
  }
  param {
    lr_mult: 2
  }
  convolution_param {
    num_output: 64
    pad: 2
    kernel_size: 5
    stride: 1
    weight_filler {
      type: "gaussian"
      std: 0.01
    }
    bias_filler {
      type: "constant"
    }
  }
}
layer {
  name: "relu3"
  type: "ReLU"
  bottom: "conv3"
  top: "conv3"
}
layer {
  name: "conv4"
  type: "Convolution"
  bottom: "conv3"
  top: "conv4"
  param {
    lr_mult: 1
  }
  param {
    lr_mult: 2
  }
  convolution_param {
    num_output: 64
    pad: 2
    kernel_size: 5
    stride: 1
    weight_filler {
      type: "gaussian"
      std: 0.01
    }
    bias_filler {
      type: "constant"
    }
  }
}
layer {
  name: "relu4"
  type: "ReLU"
  bottom: "conv4"
  top: "conv4"
}
layer {
  name: "conv5"
  type: "Convolution"
  bottom: "conv4"
  top: "conv5"
  param {
    lr_mult: 1
  }
  param {
    lr_mult: 2
  }
  convolution_param {
    num_output: 64
    pad: 2
    kernel_size: 5
    stride: 1
    weight_filler {
      type: "gaussian"
      std: 0.01
    }
    bias_filler {
      type: "constant"
    }
  }
}
layer {
  name: "relu5"
  type: "ReLU"
  bottom: "conv5"
  top: "conv5"
}
layer {
  name: "pool5"
  type: "Pooling"
  bottom: "conv5"
  top: "pool5"
  pooling_param {
    pool: AVE
    kernel_size: 3
    stride: 2
  }
}
layer {
  name: "ip1"
  type: "InnerProduct"
  bottom: "pool5"
  top: "ip1"
  param {
    lr_mult: 1
  }
  param {
    lr_mult: 2
  }
  inner_product_param {
    num_output: 64
    weight_filler {
      type: "gaussian"
      std: 0.1
    }
    bias_filler {
      type: "constant"
    }
  }
}
layer {
  name: "ip2"
  type: "InnerProduct"
  bottom: "ip1"
  top: "ip2"
  param {
    lr_mult: 1
  }
  param {
    lr_mult: 2
  }
  inner_product_param {
    num_output: 64
    weight_filler {
      type: "gaussian"
      std: 0.1
    }
    bias_filler {
      type: "constant"
    }
  }
}
layer {
  name: "ip3"
  type: "InnerProduct"
  bottom: "ip2"
  top: "ip3"
  param {
    lr_mult: 1
  }
  param {
    lr_mult: 2
  }
  inner_product_param {
    num_output: 50
    weight_filler {
      type: "gaussian"
      std: 0.1
    }
    bias_filler {
      type: "constant"
    }
  }
}
layer {
  name: "accuracy"
  type: "Accuracy"
  bottom: "ip3"
  bottom: "label"
  top: "accuracy"
  include {
    phase: TEST
  }
}
layer {
  name: "loss"
  type: "SoftmaxWithLoss"
  bottom: "ip3"
  bottom: "label"
  top: "loss"
}
I0501 23:03:45.366725 16334 layer_factory.hpp:77] Creating layer intercept
I0501 23:03:45.366734 16334 net.cpp:94] Creating Layer intercept
I0501 23:03:45.366737 16334 net.cpp:409] intercept -> data
I0501 23:03:45.366744 16334 net.cpp:409] intercept -> label
I0501 23:03:45.366750 16334 hdf5_data_layer.cpp:79] Loading list of HDF5 filenames from: /home/purduethu/scratch/radon/d/deng106/CNNStatisticalModel/distributions/input/50_distributions_400_sample_size_test-distributions-path.txt
I0501 23:03:45.366768 16334 hdf5_data_layer.cpp:93] Number of HDF5 files: 1
I0501 23:03:45.528064 16334 net.cpp:144] Setting up intercept
I0501 23:03:45.528097 16334 net.cpp:151] Top shape: 20 1 20 20 (8000)
I0501 23:03:45.528103 16334 net.cpp:151] Top shape: 20 (20)
I0501 23:03:45.528106 16334 net.cpp:159] Memory required for data: 32080
I0501 23:03:45.528112 16334 layer_factory.hpp:77] Creating layer label_intercept_1_split
I0501 23:03:45.528132 16334 net.cpp:94] Creating Layer label_intercept_1_split
I0501 23:03:45.528137 16334 net.cpp:435] label_intercept_1_split <- label
I0501 23:03:45.528143 16334 net.cpp:409] label_intercept_1_split -> label_intercept_1_split_0
I0501 23:03:45.528151 16334 net.cpp:409] label_intercept_1_split -> label_intercept_1_split_1
I0501 23:03:45.528197 16334 net.cpp:144] Setting up label_intercept_1_split
I0501 23:03:45.528203 16334 net.cpp:151] Top shape: 20 (20)
I0501 23:03:45.528206 16334 net.cpp:151] Top shape: 20 (20)
I0501 23:03:45.528209 16334 net.cpp:159] Memory required for data: 32240
I0501 23:03:45.528213 16334 layer_factory.hpp:77] Creating layer conv1
I0501 23:03:45.528223 16334 net.cpp:94] Creating Layer conv1
I0501 23:03:45.528228 16334 net.cpp:435] conv1 <- data
I0501 23:03:45.528231 16334 net.cpp:409] conv1 -> conv1
I0501 23:03:45.529654 16334 net.cpp:144] Setting up conv1
I0501 23:03:45.529676 16334 net.cpp:151] Top shape: 20 64 20 20 (512000)
I0501 23:03:45.529680 16334 net.cpp:159] Memory required for data: 2080240
I0501 23:03:45.529690 16334 layer_factory.hpp:77] Creating layer relu1
I0501 23:03:45.529697 16334 net.cpp:94] Creating Layer relu1
I0501 23:03:45.529700 16334 net.cpp:435] relu1 <- conv1
I0501 23:03:45.529705 16334 net.cpp:396] relu1 -> conv1 (in-place)
I0501 23:03:45.529712 16334 net.cpp:144] Setting up relu1
I0501 23:03:45.529716 16334 net.cpp:151] Top shape: 20 64 20 20 (512000)
I0501 23:03:45.529719 16334 net.cpp:159] Memory required for data: 4128240
I0501 23:03:45.529722 16334 layer_factory.hpp:77] Creating layer conv2
I0501 23:03:45.529731 16334 net.cpp:94] Creating Layer conv2
I0501 23:03:45.529733 16334 net.cpp:435] conv2 <- conv1
I0501 23:03:45.529738 16334 net.cpp:409] conv2 -> conv2
I0501 23:03:45.534802 16334 net.cpp:144] Setting up conv2
I0501 23:03:45.534816 16334 net.cpp:151] Top shape: 20 64 20 20 (512000)
I0501 23:03:45.534821 16334 net.cpp:159] Memory required for data: 6176240
I0501 23:03:45.534828 16334 layer_factory.hpp:77] Creating layer relu2
I0501 23:03:45.534834 16334 net.cpp:94] Creating Layer relu2
I0501 23:03:45.534837 16334 net.cpp:435] relu2 <- conv2
I0501 23:03:45.534842 16334 net.cpp:396] relu2 -> conv2 (in-place)
I0501 23:03:45.534848 16334 net.cpp:144] Setting up relu2
I0501 23:03:45.534853 16334 net.cpp:151] Top shape: 20 64 20 20 (512000)
I0501 23:03:45.534857 16334 net.cpp:159] Memory required for data: 8224240
I0501 23:03:45.534859 16334 layer_factory.hpp:77] Creating layer pool2
I0501 23:03:45.534864 16334 net.cpp:94] Creating Layer pool2
I0501 23:03:45.534868 16334 net.cpp:435] pool2 <- conv2
I0501 23:03:45.534873 16334 net.cpp:409] pool2 -> pool2
I0501 23:03:45.534934 16334 net.cpp:144] Setting up pool2
I0501 23:03:45.534940 16334 net.cpp:151] Top shape: 20 64 10 10 (128000)
I0501 23:03:45.534942 16334 net.cpp:159] Memory required for data: 8736240
I0501 23:03:45.534946 16334 layer_factory.hpp:77] Creating layer conv3
I0501 23:03:45.534955 16334 net.cpp:94] Creating Layer conv3
I0501 23:03:45.534957 16334 net.cpp:435] conv3 <- pool2
I0501 23:03:45.534963 16334 net.cpp:409] conv3 -> conv3
I0501 23:03:45.538964 16334 net.cpp:144] Setting up conv3
I0501 23:03:45.538977 16334 net.cpp:151] Top shape: 20 64 10 10 (128000)
I0501 23:03:45.538981 16334 net.cpp:159] Memory required for data: 9248240
I0501 23:03:45.538990 16334 layer_factory.hpp:77] Creating layer relu3
I0501 23:03:45.538996 16334 net.cpp:94] Creating Layer relu3
I0501 23:03:45.539000 16334 net.cpp:435] relu3 <- conv3
I0501 23:03:45.539005 16334 net.cpp:396] relu3 -> conv3 (in-place)
I0501 23:03:45.539011 16334 net.cpp:144] Setting up relu3
I0501 23:03:45.539017 16334 net.cpp:151] Top shape: 20 64 10 10 (128000)
I0501 23:03:45.539021 16334 net.cpp:159] Memory required for data: 9760240
I0501 23:03:45.539023 16334 layer_factory.hpp:77] Creating layer conv4
I0501 23:03:45.539031 16334 net.cpp:94] Creating Layer conv4
I0501 23:03:45.539034 16334 net.cpp:435] conv4 <- conv3
I0501 23:03:45.539039 16334 net.cpp:409] conv4 -> conv4
I0501 23:03:45.542644 16334 net.cpp:144] Setting up conv4
I0501 23:03:45.542656 16334 net.cpp:151] Top shape: 20 64 10 10 (128000)
I0501 23:03:45.542660 16334 net.cpp:159] Memory required for data: 10272240
I0501 23:03:45.542666 16334 layer_factory.hpp:77] Creating layer relu4
I0501 23:03:45.542671 16334 net.cpp:94] Creating Layer relu4
I0501 23:03:45.542675 16334 net.cpp:435] relu4 <- conv4
I0501 23:03:45.542680 16334 net.cpp:396] relu4 -> conv4 (in-place)
I0501 23:03:45.542687 16334 net.cpp:144] Setting up relu4
I0501 23:03:45.542691 16334 net.cpp:151] Top shape: 20 64 10 10 (128000)
I0501 23:03:45.542695 16334 net.cpp:159] Memory required for data: 10784240
I0501 23:03:45.542697 16334 layer_factory.hpp:77] Creating layer conv5
I0501 23:03:45.542706 16334 net.cpp:94] Creating Layer conv5
I0501 23:03:45.542708 16334 net.cpp:435] conv5 <- conv4
I0501 23:03:45.542713 16334 net.cpp:409] conv5 -> conv5
I0501 23:03:45.547653 16334 net.cpp:144] Setting up conv5
I0501 23:03:45.547670 16334 net.cpp:151] Top shape: 20 64 10 10 (128000)
I0501 23:03:45.547675 16334 net.cpp:159] Memory required for data: 11296240
I0501 23:03:45.547683 16334 layer_factory.hpp:77] Creating layer relu5
I0501 23:03:45.547689 16334 net.cpp:94] Creating Layer relu5
I0501 23:03:45.547693 16334 net.cpp:435] relu5 <- conv5
I0501 23:03:45.547698 16334 net.cpp:396] relu5 -> conv5 (in-place)
I0501 23:03:45.547705 16334 net.cpp:144] Setting up relu5
I0501 23:03:45.547709 16334 net.cpp:151] Top shape: 20 64 10 10 (128000)
I0501 23:03:45.547713 16334 net.cpp:159] Memory required for data: 11808240
I0501 23:03:45.547715 16334 layer_factory.hpp:77] Creating layer pool5
I0501 23:03:45.547722 16334 net.cpp:94] Creating Layer pool5
I0501 23:03:45.547725 16334 net.cpp:435] pool5 <- conv5
I0501 23:03:45.547729 16334 net.cpp:409] pool5 -> pool5
I0501 23:03:45.547770 16334 net.cpp:144] Setting up pool5
I0501 23:03:45.547777 16334 net.cpp:151] Top shape: 20 64 5 5 (32000)
I0501 23:03:45.547780 16334 net.cpp:159] Memory required for data: 11936240
I0501 23:03:45.547785 16334 layer_factory.hpp:77] Creating layer ip1
I0501 23:03:45.547791 16334 net.cpp:94] Creating Layer ip1
I0501 23:03:45.547794 16334 net.cpp:435] ip1 <- pool5
I0501 23:03:45.547799 16334 net.cpp:409] ip1 -> ip1
I0501 23:03:45.550366 16334 net.cpp:144] Setting up ip1
I0501 23:03:45.550377 16334 net.cpp:151] Top shape: 20 64 (1280)
I0501 23:03:45.550380 16334 net.cpp:159] Memory required for data: 11941360
I0501 23:03:45.550385 16334 layer_factory.hpp:77] Creating layer ip2
I0501 23:03:45.550393 16334 net.cpp:94] Creating Layer ip2
I0501 23:03:45.550397 16334 net.cpp:435] ip2 <- ip1
I0501 23:03:45.550401 16334 net.cpp:409] ip2 -> ip2
I0501 23:03:45.550643 16334 net.cpp:144] Setting up ip2
I0501 23:03:45.550652 16334 net.cpp:151] Top shape: 20 64 (1280)
I0501 23:03:45.550654 16334 net.cpp:159] Memory required for data: 11946480
I0501 23:03:45.550660 16334 layer_factory.hpp:77] Creating layer ip3
I0501 23:03:45.550668 16334 net.cpp:94] Creating Layer ip3
I0501 23:03:45.550671 16334 net.cpp:435] ip3 <- ip2
I0501 23:03:45.550676 16334 net.cpp:409] ip3 -> ip3
I0501 23:03:45.550886 16334 net.cpp:144] Setting up ip3
I0501 23:03:45.550894 16334 net.cpp:151] Top shape: 20 50 (1000)
I0501 23:03:45.550896 16334 net.cpp:159] Memory required for data: 11950480
I0501 23:03:45.550901 16334 layer_factory.hpp:77] Creating layer ip3_ip3_0_split
I0501 23:03:45.550909 16334 net.cpp:94] Creating Layer ip3_ip3_0_split
I0501 23:03:45.550911 16334 net.cpp:435] ip3_ip3_0_split <- ip3
I0501 23:03:45.550915 16334 net.cpp:409] ip3_ip3_0_split -> ip3_ip3_0_split_0
I0501 23:03:45.550920 16334 net.cpp:409] ip3_ip3_0_split -> ip3_ip3_0_split_1
I0501 23:03:45.550963 16334 net.cpp:144] Setting up ip3_ip3_0_split
I0501 23:03:45.550969 16334 net.cpp:151] Top shape: 20 50 (1000)
I0501 23:03:45.550973 16334 net.cpp:151] Top shape: 20 50 (1000)
I0501 23:03:45.550976 16334 net.cpp:159] Memory required for data: 11958480
I0501 23:03:45.550979 16334 layer_factory.hpp:77] Creating layer accuracy
I0501 23:03:45.550984 16334 net.cpp:94] Creating Layer accuracy
I0501 23:03:45.550987 16334 net.cpp:435] accuracy <- ip3_ip3_0_split_0
I0501 23:03:45.550992 16334 net.cpp:435] accuracy <- label_intercept_1_split_0
I0501 23:03:45.550997 16334 net.cpp:409] accuracy -> accuracy
…
