…
I0503 19:58:14.481448 22086 net.cpp:323] The NetState phase (0) differed from the phase (1) specified by a rule in layer intercept
I0503 19:58:14.481464 22086 net.cpp:323] The NetState phase (0) differed from the phase (1) specified by a rule in layer accuracy
I0503 19:58:14.481555 22086 net.cpp:52] Initializing net from parameters: 
state {
  phase: TRAIN
}
layer {
  name: "parameters"
  type: "HDF5Data"
  top: "data"
  top: "label"
  include {
    phase: TRAIN
  }
  hdf5_data_param {
    source: "/home/purduethu/scratch/radon/d/deng106/CNNStatisticalModel/distributions/input/5_distributions_400_sample_size_train-distributions-path.txt"
    batch_size: 20
  }
}
layer {
  name: "conv1"
  type: "Convolution"
  bottom: "data"
  top: "conv1"
  param {
    lr_mult: 1
  }
  param {
    lr_mult: 2
  }
  convolution_param {
    num_output: 64
    pad: 2
    kernel_size: 5
    stride: 1
    weight_filler {
      type: "gaussian"
      std: 0.0001
    }
    bias_filler {
      type: "constant"
    }
  }
}
layer {
  name: "relu1"
  type: "ReLU"
  bottom: "conv1"
  top: "conv1"
}
layer {
  name: "conv2"
  type: "Convolution"
  bottom: "conv1"
  top: "conv2"
  param {
    lr_mult: 1
  }
  param {
    lr_mult: 2
  }
  convolution_param {
    num_output: 64
    pad: 2
    kernel_size: 5
    stride: 1
    weight_filler {
      type: "gaussian"
      std: 0.01
    }
    bias_filler {
      type: "constant"
    }
  }
}
layer {
  name: "relu2"
  type: "ReLU"
  bottom: "conv2"
  top: "conv2"
}
layer {
  name: "pool2"
  type: "Pooling"
  bottom: "conv2"
  top: "pool2"
  pooling_param {
    pool: MAX
    kernel_size: 3
    stride: 2
  }
}
layer {
  name: "conv3"
  type: "Convolution"
  bottom: "pool2"
  top: "conv3"
  param {
    lr_mult: 1
  }
  param {
    lr_mult: 2
  }
  convolution_param {
    num_output: 128
    pad: 2
    kernel_size: 5
    stride: 1
    weight_filler {
      type: "gaussian"
      std: 0.01
    }
    bias_filler {
      type: "constant"
    }
  }
}
layer {
  name: "relu3"
  type: "ReLU"
  bottom: "conv3"
  top: "conv3"
}
layer {
  name: "conv4"
  type: "Convolution"
  bottom: "conv3"
  top: "conv4"
  param {
    lr_mult: 1
  }
  param {
    lr_mult: 2
  }
  convolution_param {
    num_output: 128
    pad: 2
    kernel_size: 5
    stride: 1
    weight_filler {
      type: "gaussian"
      std: 0.01
    }
    bias_filler {
      type: "constant"
    }
  }
}
layer {
  name: "relu4"
  type: "ReLU"
  bottom: "conv4"
  top: "conv4"
}
layer {
  name: "conv5"
  type: "Convolution"
  bottom: "conv4"
  top: "conv5"
  param {
    lr_mult: 1
  }
  param {
    lr_mult: 2
  }
  convolution_param {
    num_output: 128
    pad: 2
    kernel_size: 5
    stride: 1
    weight_filler {
      type: "gaussian"
      std: 0.01
    }
    bias_filler {
      type: "constant"
    }
  }
}
layer {
  name: "relu5"
  type: "ReLU"
  bottom: "conv5"
  top: "conv5"
}
layer {
  name: "pool5"
  type: "Pooling"
  bottom: "conv5"
  top: "pool5"
  pooling_param {
    pool: AVE
    kernel_size: 3
    stride: 2
  }
}
layer {
  name: "ip1"
  type: "InnerProduct"
  bottom: "pool5"
  top: "ip1"
  param {
    lr_mult: 1
  }
  param {
    lr_mult: 2
  }
  inner_product_param {
    num_output: 1024
    weight_filler {
      type: "gaussian"
      std: 0.1
    }
    bias_filler {
      type: "constant"
    }
  }
}
layer {
  name: "ip2"
  type: "InnerProduct"
  bottom: "ip1"
  top: "ip2"
  param {
    lr_mult: 1
  }
  param {
    lr_mult: 2
  }
  inner_product_param {
    num_output: 512
    weight_filler {
      type: "gaussian"
      std: 0.1
    }
    bias_filler {
      type: "constant"
    }
  }
}
layer {
  name: "ip3"
  type: "InnerProduct"
  bottom: "ip2"
  top: "ip3"
  param {
    lr_mult: 1
  }
  param {
    lr_mult: 2
  }
  inner_product_param {
    num_output: 50
    weight_filler {
      type: "gaussian"
      std: 0.1
    }
    bias_filler {
      type: "constant"
    }
  }
}
layer {
  name: "loss"
  type: "SoftmaxWithLoss"
  bottom: "ip3"
  bottom: "label"
  top: "loss"
}
I0503 19:58:14.481631 22086 layer_factory.hpp:77] Creating layer parameters
I0503 19:58:14.481644 22086 net.cpp:94] Creating Layer parameters
I0503 19:58:14.481650 22086 net.cpp:409] parameters -> data
I0503 19:58:14.481668 22086 net.cpp:409] parameters -> label
I0503 19:58:14.481678 22086 hdf5_data_layer.cpp:79] Loading list of HDF5 filenames from: /home/purduethu/scratch/radon/d/deng106/CNNStatisticalModel/distributions/input/5_distributions_400_sample_size_train-distributions-path.txt
I0503 19:58:14.481704 22086 hdf5_data_layer.cpp:93] Number of HDF5 files: 1
I0503 19:58:14.482177 22086 hdf5.cpp:32] Datatype class: H5T_FLOAT
I0503 19:58:14.544375 22086 hdf5.cpp:35] Datatype class: H5T_INTEGER
I0503 19:58:14.545533 22086 net.cpp:144] Setting up parameters
I0503 19:58:14.545552 22086 net.cpp:151] Top shape: 20 1 20 20 (8000)
I0503 19:58:14.545558 22086 net.cpp:151] Top shape: 20 (20)
I0503 19:58:14.545562 22086 net.cpp:159] Memory required for data: 32080
I0503 19:58:14.545569 22086 layer_factory.hpp:77] Creating layer conv1
I0503 19:58:14.545588 22086 net.cpp:94] Creating Layer conv1
I0503 19:58:14.545593 22086 net.cpp:435] conv1 <- data
I0503 19:58:14.545604 22086 net.cpp:409] conv1 -> conv1
I0503 19:58:14.550364 22086 net.cpp:144] Setting up conv1
I0503 19:58:14.550379 22086 net.cpp:151] Top shape: 20 64 20 20 (512000)
I0503 19:58:14.550384 22086 net.cpp:159] Memory required for data: 2080080
I0503 19:58:14.550395 22086 layer_factory.hpp:77] Creating layer relu1
I0503 19:58:14.550402 22086 net.cpp:94] Creating Layer relu1
I0503 19:58:14.550406 22086 net.cpp:435] relu1 <- conv1
I0503 19:58:14.550411 22086 net.cpp:396] relu1 -> conv1 (in-place)
I0503 19:58:14.550422 22086 net.cpp:144] Setting up relu1
I0503 19:58:14.550428 22086 net.cpp:151] Top shape: 20 64 20 20 (512000)
I0503 19:58:14.550431 22086 net.cpp:159] Memory required for data: 4128080
I0503 19:58:14.550434 22086 layer_factory.hpp:77] Creating layer conv2
I0503 19:58:14.550442 22086 net.cpp:94] Creating Layer conv2
I0503 19:58:14.550446 22086 net.cpp:435] conv2 <- conv1
I0503 19:58:14.550451 22086 net.cpp:409] conv2 -> conv2
I0503 19:58:14.560919 22086 net.cpp:144] Setting up conv2
I0503 19:58:14.560933 22086 net.cpp:151] Top shape: 20 64 20 20 (512000)
I0503 19:58:14.560938 22086 net.cpp:159] Memory required for data: 6176080
I0503 19:58:14.560946 22086 layer_factory.hpp:77] Creating layer relu2
I0503 19:58:14.560953 22086 net.cpp:94] Creating Layer relu2
I0503 19:58:14.560957 22086 net.cpp:435] relu2 <- conv2
I0503 19:58:14.560961 22086 net.cpp:396] relu2 -> conv2 (in-place)
I0503 19:58:14.560969 22086 net.cpp:144] Setting up relu2
I0503 19:58:14.560973 22086 net.cpp:151] Top shape: 20 64 20 20 (512000)
I0503 19:58:14.560977 22086 net.cpp:159] Memory required for data: 8224080
I0503 19:58:14.560981 22086 layer_factory.hpp:77] Creating layer pool2
I0503 19:58:14.560993 22086 net.cpp:94] Creating Layer pool2
I0503 19:58:14.560998 22086 net.cpp:435] pool2 <- conv2
I0503 19:58:14.561002 22086 net.cpp:409] pool2 -> pool2
I0503 19:58:14.561046 22086 net.cpp:144] Setting up pool2
I0503 19:58:14.561054 22086 net.cpp:151] Top shape: 20 64 10 10 (128000)
I0503 19:58:14.561058 22086 net.cpp:159] Memory required for data: 8736080
I0503 19:58:14.561060 22086 layer_factory.hpp:77] Creating layer conv3
I0503 19:58:14.561069 22086 net.cpp:94] Creating Layer conv3
I0503 19:58:14.561072 22086 net.cpp:435] conv3 <- pool2
I0503 19:58:14.561085 22086 net.cpp:409] conv3 -> conv3
I0503 19:58:14.570272 22086 net.cpp:144] Setting up conv3
I0503 19:58:14.570286 22086 net.cpp:151] Top shape: 20 128 10 10 (256000)
I0503 19:58:14.570291 22086 net.cpp:159] Memory required for data: 9760080
I0503 19:58:14.570299 22086 layer_factory.hpp:77] Creating layer relu3
I0503 19:58:14.570305 22086 net.cpp:94] Creating Layer relu3
I0503 19:58:14.570309 22086 net.cpp:435] relu3 <- conv3
I0503 19:58:14.570313 22086 net.cpp:396] relu3 -> conv3 (in-place)
I0503 19:58:14.570322 22086 net.cpp:144] Setting up relu3
I0503 19:58:14.570325 22086 net.cpp:151] Top shape: 20 128 10 10 (256000)
I0503 19:58:14.570328 22086 net.cpp:159] Memory required for data: 10784080
I0503 19:58:14.570333 22086 layer_factory.hpp:77] Creating layer conv4
I0503 19:58:14.570340 22086 net.cpp:94] Creating Layer conv4
I0503 19:58:14.570344 22086 net.cpp:435] conv4 <- conv3
I0503 19:58:14.570349 22086 net.cpp:409] conv4 -> conv4
I0503 19:58:14.587950 22086 net.cpp:144] Setting up conv4
I0503 19:58:14.587966 22086 net.cpp:151] Top shape: 20 128 10 10 (256000)
I0503 19:58:14.587970 22086 net.cpp:159] Memory required for data: 11808080
I0503 19:58:14.587977 22086 layer_factory.hpp:77] Creating layer relu4
I0503 19:58:14.587983 22086 net.cpp:94] Creating Layer relu4
I0503 19:58:14.587987 22086 net.cpp:435] relu4 <- conv4
I0503 19:58:14.587992 22086 net.cpp:396] relu4 -> conv4 (in-place)
I0503 19:58:14.587999 22086 net.cpp:144] Setting up relu4
I0503 19:58:14.588004 22086 net.cpp:151] Top shape: 20 128 10 10 (256000)
I0503 19:58:14.588007 22086 net.cpp:159] Memory required for data: 12832080
I0503 19:58:14.588011 22086 layer_factory.hpp:77] Creating layer conv5
I0503 19:58:14.588018 22086 net.cpp:94] Creating Layer conv5
I0503 19:58:14.588021 22086 net.cpp:435] conv5 <- conv4
I0503 19:58:14.588027 22086 net.cpp:409] conv5 -> conv5
I0503 19:58:14.605195 22086 net.cpp:144] Setting up conv5
I0503 19:58:14.605234 22086 net.cpp:151] Top shape: 20 128 10 10 (256000)
I0503 19:58:14.605247 22086 net.cpp:159] Memory required for data: 13856080
I0503 19:58:14.605270 22086 layer_factory.hpp:77] Creating layer relu5
I0503 19:58:14.605286 22086 net.cpp:94] Creating Layer relu5
I0503 19:58:14.605298 22086 net.cpp:435] relu5 <- conv5
I0503 19:58:14.605310 22086 net.cpp:396] relu5 -> conv5 (in-place)
I0503 19:58:14.605329 22086 net.cpp:144] Setting up relu5
I0503 19:58:14.605342 22086 net.cpp:151] Top shape: 20 128 10 10 (256000)
I0503 19:58:14.605351 22086 net.cpp:159] Memory required for data: 14880080
I0503 19:58:14.605360 22086 layer_factory.hpp:77] Creating layer pool5
I0503 19:58:14.605372 22086 net.cpp:94] Creating Layer pool5
I0503 19:58:14.605382 22086 net.cpp:435] pool5 <- conv5
I0503 19:58:14.605398 22086 net.cpp:409] pool5 -> pool5
I0503 19:58:14.605484 22086 net.cpp:144] Setting up pool5
I0503 19:58:14.605504 22086 net.cpp:151] Top shape: 20 128 5 5 (64000)
I0503 19:58:14.605512 22086 net.cpp:159] Memory required for data: 15136080
I0503 19:58:14.605522 22086 layer_factory.hpp:77] Creating layer ip1
I0503 19:58:14.605545 22086 net.cpp:94] Creating Layer ip1
I0503 19:58:14.605554 22086 net.cpp:435] ip1 <- pool5
I0503 19:58:14.605567 22086 net.cpp:409] ip1 -> ip1
I0503 19:58:14.688407 22086 net.cpp:144] Setting up ip1
I0503 19:58:14.688439 22086 net.cpp:151] Top shape: 20 1024 (20480)
I0503 19:58:14.688443 22086 net.cpp:159] Memory required for data: 15218000
I0503 19:58:14.688450 22086 layer_factory.hpp:77] Creating layer ip2
I0503 19:58:14.688467 22086 net.cpp:94] Creating Layer ip2
I0503 19:58:14.688472 22086 net.cpp:435] ip2 <- ip1
I0503 19:58:14.688479 22086 net.cpp:409] ip2 -> ip2
I0503 19:58:14.701999 22086 net.cpp:144] Setting up ip2
I0503 19:58:14.702013 22086 net.cpp:151] Top shape: 20 512 (10240)
I0503 19:58:14.702016 22086 net.cpp:159] Memory required for data: 15258960
I0503 19:58:14.702023 22086 layer_factory.hpp:77] Creating layer ip3
I0503 19:58:14.702029 22086 net.cpp:94] Creating Layer ip3
I0503 19:58:14.702033 22086 net.cpp:435] ip3 <- ip2
I0503 19:58:14.702039 22086 net.cpp:409] ip3 -> ip3
I0503 19:58:14.702759 22086 net.cpp:144] Setting up ip3
I0503 19:58:14.702765 22086 net.cpp:151] Top shape: 20 50 (1000)
I0503 19:58:14.702769 22086 net.cpp:159] Memory required for data: 15262960
I0503 19:58:14.702775 22086 layer_factory.hpp:77] Creating layer loss
I0503 19:58:14.702782 22086 net.cpp:94] Creating Layer loss
I0503 19:58:14.702785 22086 net.cpp:435] loss <- ip3
I0503 19:58:14.702790 22086 net.cpp:435] loss <- label
I0503 19:58:14.702795 22086 net.cpp:409] loss -> loss
I0503 19:58:14.702806 22086 layer_factory.hpp:77] Creating layer loss
…
I0503 19:58:14.703315 22086 solver.cpp:181] Creating test net (#0) specified by net file: ./protocol/dis_5_400_dimension.protocol_distribution
I0503 19:58:14.703342 22086 net.cpp:323] The NetState phase (1) differed from the phase (0) specified by a rule in layer parameters
I0503 19:58:14.703441 22086 net.cpp:52] Initializing net from parameters: 
state {
  phase: TEST
}
layer {
  name: "intercept"
  type: "HDF5Data"
  top: "data"
  top: "label"
  include {
    phase: TEST
  }
  hdf5_data_param {
    source: "/home/purduethu/scratch/radon/d/deng106/CNNStatisticalModel/distributions/input/5_distributions_400_sample_size_test-distributions-path.txt"
    batch_size: 20
  }
}
layer {
  name: "conv1"
  type: "Convolution"
  bottom: "data"
  top: "conv1"
  param {
    lr_mult: 1
  }
  param {
    lr_mult: 2
  }
  convolution_param {
    num_output: 64
    pad: 2
    kernel_size: 5
    stride: 1
    weight_filler {
      type: "gaussian"
      std: 0.0001
    }
    bias_filler {
      type: "constant"
    }
  }
}
layer {
  name: "relu1"
  type: "ReLU"
  bottom: "conv1"
  top: "conv1"
}
layer {
  name: "conv2"
  type: "Convolution"
  bottom: "conv1"
  top: "conv2"
  param {
    lr_mult: 1
  }
  param {
    lr_mult: 2
  }
  convolution_param {
    num_output: 64
    pad: 2
    kernel_size: 5
    stride: 1
    weight_filler {
      type: "gaussian"
      std: 0.01
    }
    bias_filler {
      type: "constant"
    }
  }
}
layer {
  name: "relu2"
  type: "ReLU"
  bottom: "conv2"
  top: "conv2"
}
layer {
  name: "pool2"
  type: "Pooling"
  bottom: "conv2"
  top: "pool2"
  pooling_param {
    pool: MAX
    kernel_size: 3
    stride: 2
  }
}
layer {
  name: "conv3"
  type: "Convolution"
  bottom: "pool2"
  top: "conv3"
  param {
    lr_mult: 1
  }
  param {
    lr_mult: 2
  }
  convolution_param {
    num_output: 128
    pad: 2
    kernel_size: 5
    stride: 1
    weight_filler {
      type: "gaussian"
      std: 0.01
    }
    bias_filler {
      type: "constant"
    }
  }
}
layer {
  name: "relu3"
  type: "ReLU"
  bottom: "conv3"
  top: "conv3"
}
layer {
  name: "conv4"
  type: "Convolution"
  bottom: "conv3"
  top: "conv4"
  param {
    lr_mult: 1
  }
  param {
    lr_mult: 2
  }
  convolution_param {
    num_output: 128
    pad: 2
    kernel_size: 5
    stride: 1
    weight_filler {
      type: "gaussian"
      std: 0.01
    }
    bias_filler {
      type: "constant"
    }
  }
}
layer {
  name: "relu4"
  type: "ReLU"
  bottom: "conv4"
  top: "conv4"
}
layer {
  name: "conv5"
  type: "Convolution"
  bottom: "conv4"
  top: "conv5"
  param {
    lr_mult: 1
  }
  param {
    lr_mult: 2
  }
  convolution_param {
    num_output: 128
    pad: 2
    kernel_size: 5
    stride: 1
    weight_filler {
      type: "gaussian"
      std: 0.01
    }
    bias_filler {
      type: "constant"
    }
  }
}
layer {
  name: "relu5"
  type: "ReLU"
  bottom: "conv5"
  top: "conv5"
}
layer {
  name: "pool5"
  type: "Pooling"
  bottom: "conv5"
  top: "pool5"
  pooling_param {
    pool: AVE
    kernel_size: 3
    stride: 2
  }
}
layer {
  name: "ip1"
  type: "InnerProduct"
  bottom: "pool5"
  top: "ip1"
  param {
    lr_mult: 1
  }
  param {
    lr_mult: 2
  }
  inner_product_param {
    num_output: 1024
    weight_filler {
      type: "gaussian"
      std: 0.1
    }
    bias_filler {
      type: "constant"
    }
  }
}
layer {
  name: "ip2"
  type: "InnerProduct"
  bottom: "ip1"
  top: "ip2"
  param {
    lr_mult: 1
  }
  param {
    lr_mult: 2
  }
  inner_product_param {
    num_output: 512
    weight_filler {
      type: "gaussian"
      std: 0.1
    }
    bias_filler {
      type: "constant"
    }
  }
}
layer {
  name: "ip3"
  type: "InnerProduct"
  bottom: "ip2"
  top: "ip3"
  param {
    lr_mult: 1
  }
  param {
    lr_mult: 2
  }
  inner_product_param {
    num_output: 50
    weight_filler {
      type: "gaussian"
      std: 0.1
    }
    bias_filler {
      type: "constant"
    }
  }
}
layer {
  name: "accuracy"
  type: "Accuracy"
  bottom: "ip3"
  bottom: "label"
  top: "accuracy"
  include {
    phase: TEST
  }
}
layer {
  name: "loss"
  type: "SoftmaxWithLoss"
  bottom: "ip3"
  bottom: "label"
  top: "loss"
}
I0503 19:58:14.703514 22086 layer_factory.hpp:77] Creating layer intercept
I0503 19:58:14.703523 22086 net.cpp:94] Creating Layer intercept
I0503 19:58:14.703527 22086 net.cpp:409] intercept -> data
I0503 19:58:14.703534 22086 net.cpp:409] intercept -> label
I0503 19:58:14.703541 22086 hdf5_data_layer.cpp:79] Loading list of HDF5 filenames from: /home/purduethu/scratch/radon/d/deng106/CNNStatisticalModel/distributions/input/5_distributions_400_sample_size_test-distributions-path.txt
I0503 19:58:14.703562 22086 hdf5_data_layer.cpp:93] Number of HDF5 files: 1
I0503 19:58:14.720150 22086 net.cpp:144] Setting up intercept
I0503 19:58:14.720180 22086 net.cpp:151] Top shape: 20 1 20 20 (8000)
I0503 19:58:14.720185 22086 net.cpp:151] Top shape: 20 (20)
I0503 19:58:14.720188 22086 net.cpp:159] Memory required for data: 32080
I0503 19:58:14.720196 22086 layer_factory.hpp:77] Creating layer label_intercept_1_split
I0503 19:58:14.720211 22086 net.cpp:94] Creating Layer label_intercept_1_split
I0503 19:58:14.720216 22086 net.cpp:435] label_intercept_1_split <- label
I0503 19:58:14.720222 22086 net.cpp:409] label_intercept_1_split -> label_intercept_1_split_0
I0503 19:58:14.720232 22086 net.cpp:409] label_intercept_1_split -> label_intercept_1_split_1
I0503 19:58:14.720268 22086 net.cpp:144] Setting up label_intercept_1_split
I0503 19:58:14.720274 22086 net.cpp:151] Top shape: 20 (20)
I0503 19:58:14.720278 22086 net.cpp:151] Top shape: 20 (20)
I0503 19:58:14.720281 22086 net.cpp:159] Memory required for data: 32240
I0503 19:58:14.720284 22086 layer_factory.hpp:77] Creating layer conv1
I0503 19:58:14.720295 22086 net.cpp:94] Creating Layer conv1
I0503 19:58:14.720299 22086 net.cpp:435] conv1 <- data
I0503 19:58:14.720304 22086 net.cpp:409] conv1 -> conv1
I0503 19:58:14.720973 22086 net.cpp:144] Setting up conv1
I0503 19:58:14.720986 22086 net.cpp:151] Top shape: 20 64 20 20 (512000)
I0503 19:58:14.720990 22086 net.cpp:159] Memory required for data: 2080240
I0503 19:58:14.721000 22086 layer_factory.hpp:77] Creating layer relu1
I0503 19:58:14.721007 22086 net.cpp:94] Creating Layer relu1
I0503 19:58:14.721011 22086 net.cpp:435] relu1 <- conv1
I0503 19:58:14.721015 22086 net.cpp:396] relu1 -> conv1 (in-place)
I0503 19:58:14.721024 22086 net.cpp:144] Setting up relu1
I0503 19:58:14.721029 22086 net.cpp:151] Top shape: 20 64 20 20 (512000)
I0503 19:58:14.721031 22086 net.cpp:159] Memory required for data: 4128240
I0503 19:58:14.721035 22086 layer_factory.hpp:77] Creating layer conv2
I0503 19:58:14.721042 22086 net.cpp:94] Creating Layer conv2
I0503 19:58:14.721046 22086 net.cpp:435] conv2 <- conv1
I0503 19:58:14.721051 22086 net.cpp:409] conv2 -> conv2
I0503 19:58:14.725853 22086 net.cpp:144] Setting up conv2
I0503 19:58:14.725868 22086 net.cpp:151] Top shape: 20 64 20 20 (512000)
I0503 19:58:14.725872 22086 net.cpp:159] Memory required for data: 6176240
I0503 19:58:14.725880 22086 layer_factory.hpp:77] Creating layer relu2
I0503 19:58:14.725885 22086 net.cpp:94] Creating Layer relu2
I0503 19:58:14.725889 22086 net.cpp:435] relu2 <- conv2
I0503 19:58:14.725894 22086 net.cpp:396] relu2 -> conv2 (in-place)
I0503 19:58:14.725901 22086 net.cpp:144] Setting up relu2
I0503 19:58:14.725906 22086 net.cpp:151] Top shape: 20 64 20 20 (512000)
I0503 19:58:14.725909 22086 net.cpp:159] Memory required for data: 8224240
I0503 19:58:14.725913 22086 layer_factory.hpp:77] Creating layer pool2
I0503 19:58:14.725919 22086 net.cpp:94] Creating Layer pool2
I0503 19:58:14.725922 22086 net.cpp:435] pool2 <- conv2
I0503 19:58:14.725926 22086 net.cpp:409] pool2 -> pool2
I0503 19:58:14.725961 22086 net.cpp:144] Setting up pool2
I0503 19:58:14.725967 22086 net.cpp:151] Top shape: 20 64 10 10 (128000)
I0503 19:58:14.725970 22086 net.cpp:159] Memory required for data: 8736240
I0503 19:58:14.725973 22086 layer_factory.hpp:77] Creating layer conv3
I0503 19:58:14.725981 22086 net.cpp:94] Creating Layer conv3
I0503 19:58:14.725986 22086 net.cpp:435] conv3 <- pool2
I0503 19:58:14.725991 22086 net.cpp:409] conv3 -> conv3
I0503 19:58:14.733096 22086 net.cpp:144] Setting up conv3
I0503 19:58:14.733110 22086 net.cpp:151] Top shape: 20 128 10 10 (256000)
I0503 19:58:14.733114 22086 net.cpp:159] Memory required for data: 9760240
I0503 19:58:14.733122 22086 layer_factory.hpp:77] Creating layer relu3
I0503 19:58:14.733129 22086 net.cpp:94] Creating Layer relu3
I0503 19:58:14.733134 22086 net.cpp:435] relu3 <- conv3
I0503 19:58:14.733139 22086 net.cpp:396] relu3 -> conv3 (in-place)
I0503 19:58:14.733145 22086 net.cpp:144] Setting up relu3
I0503 19:58:14.733150 22086 net.cpp:151] Top shape: 20 128 10 10 (256000)
I0503 19:58:14.733153 22086 net.cpp:159] Memory required for data: 10784240
I0503 19:58:14.733156 22086 layer_factory.hpp:77] Creating layer conv4
I0503 19:58:14.733165 22086 net.cpp:94] Creating Layer conv4
I0503 19:58:14.733167 22086 net.cpp:435] conv4 <- conv3
I0503 19:58:14.733172 22086 net.cpp:409] conv4 -> conv4
I0503 19:58:14.746834 22086 net.cpp:144] Setting up conv4
I0503 19:58:14.746848 22086 net.cpp:151] Top shape: 20 128 10 10 (256000)
I0503 19:58:14.746852 22086 net.cpp:159] Memory required for data: 11808240
I0503 19:58:14.746858 22086 layer_factory.hpp:77] Creating layer relu4
I0503 19:58:14.746865 22086 net.cpp:94] Creating Layer relu4
I0503 19:58:14.746872 22086 net.cpp:435] relu4 <- conv4
I0503 19:58:14.746877 22086 net.cpp:396] relu4 -> conv4 (in-place)
I0503 19:58:14.746886 22086 net.cpp:144] Setting up relu4
I0503 19:58:14.746891 22086 net.cpp:151] Top shape: 20 128 10 10 (256000)
I0503 19:58:14.746893 22086 net.cpp:159] Memory required for data: 12832240
I0503 19:58:14.746896 22086 layer_factory.hpp:77] Creating layer conv5
I0503 19:58:14.746904 22086 net.cpp:94] Creating Layer conv5
I0503 19:58:14.746908 22086 net.cpp:435] conv5 <- conv4
I0503 19:58:14.746913 22086 net.cpp:409] conv5 -> conv5
I0503 19:58:14.760174 22086 net.cpp:144] Setting up conv5
I0503 19:58:14.760190 22086 net.cpp:151] Top shape: 20 128 10 10 (256000)
I0503 19:58:14.760195 22086 net.cpp:159] Memory required for data: 13856240
I0503 19:58:14.760202 22086 layer_factory.hpp:77] Creating layer relu5
I0503 19:58:14.760210 22086 net.cpp:94] Creating Layer relu5
I0503 19:58:14.760213 22086 net.cpp:435] relu5 <- conv5
I0503 19:58:14.760217 22086 net.cpp:396] relu5 -> conv5 (in-place)
I0503 19:58:14.760226 22086 net.cpp:144] Setting up relu5
I0503 19:58:14.760229 22086 net.cpp:151] Top shape: 20 128 10 10 (256000)
I0503 19:58:14.760233 22086 net.cpp:159] Memory required for data: 14880240
I0503 19:58:14.760236 22086 layer_factory.hpp:77] Creating layer pool5
I0503 19:58:14.760241 22086 net.cpp:94] Creating Layer pool5
I0503 19:58:14.760244 22086 net.cpp:435] pool5 <- conv5
I0503 19:58:14.760249 22086 net.cpp:409] pool5 -> pool5
I0503 19:58:14.760277 22086 net.cpp:144] Setting up pool5
I0503 19:58:14.760283 22086 net.cpp:151] Top shape: 20 128 5 5 (64000)
I0503 19:58:14.760287 22086 net.cpp:159] Memory required for data: 15136240
I0503 19:58:14.760289 22086 layer_factory.hpp:77] Creating layer ip1
I0503 19:58:14.760296 22086 net.cpp:94] Creating Layer ip1
I0503 19:58:14.760300 22086 net.cpp:435] ip1 <- pool5
I0503 19:58:14.760304 22086 net.cpp:409] ip1 -> ip1
I0503 19:58:14.843077 22086 net.cpp:144] Setting up ip1
I0503 19:58:14.843108 22086 net.cpp:151] Top shape: 20 1024 (20480)
I0503 19:58:14.843113 22086 net.cpp:159] Memory required for data: 15218160
I0503 19:58:14.843120 22086 layer_factory.hpp:77] Creating layer ip2
I0503 19:58:14.843130 22086 net.cpp:94] Creating Layer ip2
I0503 19:58:14.843134 22086 net.cpp:435] ip2 <- ip1
I0503 19:58:14.843142 22086 net.cpp:409] ip2 -> ip2
I0503 19:58:14.856679 22086 net.cpp:144] Setting up ip2
I0503 19:58:14.856693 22086 net.cpp:151] Top shape: 20 512 (10240)
I0503 19:58:14.856698 22086 net.cpp:159] Memory required for data: 15259120
I0503 19:58:14.856703 22086 layer_factory.hpp:77] Creating layer ip3
I0503 19:58:14.856712 22086 net.cpp:94] Creating Layer ip3
I0503 19:58:14.856716 22086 net.cpp:435] ip3 <- ip2
I0503 19:58:14.856721 22086 net.cpp:409] ip3 -> ip3
I0503 19:58:14.857432 22086 net.cpp:144] Setting up ip3
I0503 19:58:14.857440 22086 net.cpp:151] Top shape: 20 50 (1000)
I0503 19:58:14.857444 22086 net.cpp:159] Memory required for data: 15263120
I0503 19:58:14.857448 22086 layer_factory.hpp:77] Creating layer ip3_ip3_0_split
I0503 19:58:14.857455 22086 net.cpp:94] Creating Layer ip3_ip3_0_split
I0503 19:58:14.857458 22086 net.cpp:435] ip3_ip3_0_split <- ip3
I0503 19:58:14.857462 22086 net.cpp:409] ip3_ip3_0_split -> ip3_ip3_0_split_0
I0503 19:58:14.857468 22086 net.cpp:409] ip3_ip3_0_split -> ip3_ip3_0_split_1
I0503 19:58:14.857494 22086 net.cpp:144] Setting up ip3_ip3_0_split
I0503 19:58:14.857499 22086 net.cpp:151] Top shape: 20 50 (1000)
I0503 19:58:14.857503 22086 net.cpp:151] Top shape: 20 50 (1000)
I0503 19:58:14.857506 22086 net.cpp:159] Memory required for data: 15271120
I0503 19:58:14.857511 22086 layer_factory.hpp:77] Creating layer accuracy
I0503 19:58:14.857516 22086 net.cpp:94] Creating Layer accuracy
I0503 19:58:14.857519 22086 net.cpp:435] accuracy <- ip3_ip3_0_split_0
I0503 19:58:14.857523 22086 net.cpp:435] accuracy <- label_intercept_1_split_0
I0503 19:58:14.857528 22086 net.cpp:409] accuracy -> accuracy
…
