…
I0504 04:20:23.737692 23966 net.cpp:323] The NetState phase (0) differed from the phase (1) specified by a rule in layer intercept
I0504 04:20:23.737709 23966 net.cpp:323] The NetState phase (0) differed from the phase (1) specified by a rule in layer loss
I0504 04:20:23.737799 23966 net.cpp:52] Initializing net from parameters: 
state {
  phase: TRAIN
}
layer {
  name: "parameters"
  type: "HDF5Data"
  top: "data"
  top: "label"
  include {
    phase: TRAIN
  }
  hdf5_data_param {
    source: "/home/purduethu/scratch/radon/d/deng106/CNNStatisticalModel/distributions/input/20_distributions_400_sample_size_train-parameters-path.txt"
    batch_size: 20
  }
}
layer {
  name: "conv1"
  type: "Convolution"
  bottom: "data"
  top: "conv1"
  param {
    lr_mult: 1
  }
  param {
    lr_mult: 2
  }
  convolution_param {
    num_output: 64
    pad: 2
    kernel_size: 5
    stride: 1
    weight_filler {
      type: "gaussian"
      std: 0.0001
    }
    bias_filler {
      type: "constant"
    }
  }
}
layer {
  name: "relu1"
  type: "ReLU"
  bottom: "conv1"
  top: "conv1"
}
layer {
  name: "conv2"
  type: "Convolution"
  bottom: "conv1"
  top: "conv2"
  param {
    lr_mult: 1
  }
  param {
    lr_mult: 2
  }
  convolution_param {
    num_output: 64
    pad: 2
    kernel_size: 5
    stride: 1
    weight_filler {
      type: "gaussian"
      std: 0.01
    }
    bias_filler {
      type: "constant"
    }
  }
}
layer {
  name: "relu2"
  type: "ReLU"
  bottom: "conv2"
  top: "conv2"
}
layer {
  name: "pool2"
  type: "Pooling"
  bottom: "conv2"
  top: "pool2"
  pooling_param {
    pool: MAX
    kernel_size: 3
    stride: 2
  }
}
layer {
  name: "conv3"
  type: "Convolution"
  bottom: "pool2"
  top: "conv3"
  param {
    lr_mult: 1
  }
  param {
    lr_mult: 2
  }
  convolution_param {
    num_output: 128
    pad: 2
    kernel_size: 5
    stride: 1
    weight_filler {
      type: "gaussian"
      std: 0.01
    }
    bias_filler {
      type: "constant"
    }
  }
}
layer {
  name: "relu3"
  type: "ReLU"
  bottom: "conv3"
  top: "conv3"
}
layer {
  name: "conv4"
  type: "Convolution"
  bottom: "conv3"
  top: "conv4"
  param {
    lr_mult: 1
  }
  param {
    lr_mult: 2
  }
  convolution_param {
    num_output: 128
    pad: 2
    kernel_size: 5
    stride: 1
    weight_filler {
      type: "gaussian"
      std: 0.01
    }
    bias_filler {
      type: "constant"
    }
  }
}
layer {
  name: "relu4"
  type: "ReLU"
  bottom: "conv4"
  top: "conv4"
}
layer {
  name: "conv5"
  type: "Convolution"
  bottom: "conv4"
  top: "conv5"
  param {
    lr_mult: 1
  }
  param {
    lr_mult: 2
  }
  convolution_param {
    num_output: 128
    pad: 2
    kernel_size: 5
    stride: 1
    weight_filler {
      type: "gaussian"
      std: 0.01
    }
    bias_filler {
      type: "constant"
    }
  }
}
layer {
  name: "relu5"
  type: "ReLU"
  bottom: "conv5"
  top: "conv5"
}
layer {
  name: "pool5"
  type: "Pooling"
  bottom: "conv5"
  top: "pool5"
  pooling_param {
    pool: AVE
    kernel_size: 3
    stride: 2
  }
}
layer {
  name: "ip1"
  type: "InnerProduct"
  bottom: "pool5"
  top: "ip1"
  param {
    lr_mult: 1
  }
  param {
    lr_mult: 2
  }
  inner_product_param {
    num_output: 1024
    weight_filler {
      type: "gaussian"
      std: 0.1
    }
    bias_filler {
      type: "constant"
    }
  }
}
layer {
  name: "ip2"
  type: "InnerProduct"
  bottom: "ip1"
  top: "ip2"
  param {
    lr_mult: 1
  }
  param {
    lr_mult: 2
  }
  inner_product_param {
    num_output: 512
    weight_filler {
      type: "gaussian"
      std: 0.1
    }
    bias_filler {
      type: "constant"
    }
  }
}
layer {
  name: "ip3"
  type: "InnerProduct"
  bottom: "ip2"
  top: "ip3"
  param {
    lr_mult: 1
  }
  param {
    lr_mult: 2
  }
  inner_product_param {
    num_output: 1
    weight_filler {
      type: "gaussian"
      std: 0.1
    }
    bias_filler {
      type: "constant"
    }
  }
}
layer {
  name: "loss"
  type: "HuberLoss"
  bottom: "ip3"
  bottom: "label"
  top: "loss"
  include {
    phase: TRAIN
  }
}
I0504 04:20:23.737874 23966 layer_factory.hpp:77] Creating layer parameters
I0504 04:20:23.737889 23966 net.cpp:94] Creating Layer parameters
I0504 04:20:23.737895 23966 net.cpp:409] parameters -> data
I0504 04:20:23.737913 23966 net.cpp:409] parameters -> label
I0504 04:20:23.737923 23966 hdf5_data_layer.cpp:79] Loading list of HDF5 filenames from: /home/purduethu/scratch/radon/d/deng106/CNNStatisticalModel/distributions/input/20_distributions_400_sample_size_train-parameters-path.txt
I0504 04:20:23.737951 23966 hdf5_data_layer.cpp:93] Number of HDF5 files: 1
I0504 04:20:23.738519 23966 hdf5.cpp:32] Datatype class: H5T_FLOAT
I0504 04:20:23.998147 23966 net.cpp:144] Setting up parameters
I0504 04:20:23.998180 23966 net.cpp:151] Top shape: 20 1 20 20 (8000)
I0504 04:20:23.998186 23966 net.cpp:151] Top shape: 20 (20)
I0504 04:20:23.998190 23966 net.cpp:159] Memory required for data: 32080
I0504 04:20:23.998198 23966 layer_factory.hpp:77] Creating layer conv1
I0504 04:20:23.998215 23966 net.cpp:94] Creating Layer conv1
I0504 04:20:23.998221 23966 net.cpp:435] conv1 <- data
I0504 04:20:23.998234 23966 net.cpp:409] conv1 -> conv1
I0504 04:20:24.003067 23966 net.cpp:144] Setting up conv1
I0504 04:20:24.003082 23966 net.cpp:151] Top shape: 20 64 20 20 (512000)
I0504 04:20:24.003087 23966 net.cpp:159] Memory required for data: 2080080
I0504 04:20:24.003098 23966 layer_factory.hpp:77] Creating layer relu1
I0504 04:20:24.003105 23966 net.cpp:94] Creating Layer relu1
I0504 04:20:24.003109 23966 net.cpp:435] relu1 <- conv1
I0504 04:20:24.003113 23966 net.cpp:396] relu1 -> conv1 (in-place)
I0504 04:20:24.003129 23966 net.cpp:144] Setting up relu1
I0504 04:20:24.003134 23966 net.cpp:151] Top shape: 20 64 20 20 (512000)
I0504 04:20:24.003137 23966 net.cpp:159] Memory required for data: 4128080
I0504 04:20:24.003140 23966 layer_factory.hpp:77] Creating layer conv2
I0504 04:20:24.003149 23966 net.cpp:94] Creating Layer conv2
I0504 04:20:24.003151 23966 net.cpp:435] conv2 <- conv1
I0504 04:20:24.003156 23966 net.cpp:409] conv2 -> conv2
I0504 04:20:24.013605 23966 net.cpp:144] Setting up conv2
I0504 04:20:24.013622 23966 net.cpp:151] Top shape: 20 64 20 20 (512000)
I0504 04:20:24.013625 23966 net.cpp:159] Memory required for data: 6176080
I0504 04:20:24.013633 23966 layer_factory.hpp:77] Creating layer relu2
I0504 04:20:24.013640 23966 net.cpp:94] Creating Layer relu2
I0504 04:20:24.013643 23966 net.cpp:435] relu2 <- conv2
I0504 04:20:24.013648 23966 net.cpp:396] relu2 -> conv2 (in-place)
I0504 04:20:24.013655 23966 net.cpp:144] Setting up relu2
I0504 04:20:24.013659 23966 net.cpp:151] Top shape: 20 64 20 20 (512000)
I0504 04:20:24.013664 23966 net.cpp:159] Memory required for data: 8224080
I0504 04:20:24.013666 23966 layer_factory.hpp:77] Creating layer pool2
I0504 04:20:24.013674 23966 net.cpp:94] Creating Layer pool2
I0504 04:20:24.013682 23966 net.cpp:435] pool2 <- conv2
I0504 04:20:24.013689 23966 net.cpp:409] pool2 -> pool2
I0504 04:20:24.013732 23966 net.cpp:144] Setting up pool2
I0504 04:20:24.013741 23966 net.cpp:151] Top shape: 20 64 10 10 (128000)
I0504 04:20:24.013743 23966 net.cpp:159] Memory required for data: 8736080
I0504 04:20:24.013747 23966 layer_factory.hpp:77] Creating layer conv3
I0504 04:20:24.013756 23966 net.cpp:94] Creating Layer conv3
I0504 04:20:24.013758 23966 net.cpp:435] conv3 <- pool2
I0504 04:20:24.013763 23966 net.cpp:409] conv3 -> conv3
I0504 04:20:24.023277 23966 net.cpp:144] Setting up conv3
I0504 04:20:24.023293 23966 net.cpp:151] Top shape: 20 128 10 10 (256000)
I0504 04:20:24.023296 23966 net.cpp:159] Memory required for data: 9760080
I0504 04:20:24.023304 23966 layer_factory.hpp:77] Creating layer relu3
I0504 04:20:24.023311 23966 net.cpp:94] Creating Layer relu3
I0504 04:20:24.023314 23966 net.cpp:435] relu3 <- conv3
I0504 04:20:24.023319 23966 net.cpp:396] relu3 -> conv3 (in-place)
I0504 04:20:24.023326 23966 net.cpp:144] Setting up relu3
I0504 04:20:24.023331 23966 net.cpp:151] Top shape: 20 128 10 10 (256000)
I0504 04:20:24.023334 23966 net.cpp:159] Memory required for data: 10784080
I0504 04:20:24.023337 23966 layer_factory.hpp:77] Creating layer conv4
I0504 04:20:24.023345 23966 net.cpp:94] Creating Layer conv4
I0504 04:20:24.023350 23966 net.cpp:435] conv4 <- conv3
I0504 04:20:24.023355 23966 net.cpp:409] conv4 -> conv4
I0504 04:20:24.042752 23966 net.cpp:144] Setting up conv4
I0504 04:20:24.042786 23966 net.cpp:151] Top shape: 20 128 10 10 (256000)
I0504 04:20:24.042796 23966 net.cpp:159] Memory required for data: 11808080
I0504 04:20:24.042811 23966 layer_factory.hpp:77] Creating layer relu4
I0504 04:20:24.042825 23966 net.cpp:94] Creating Layer relu4
I0504 04:20:24.042835 23966 net.cpp:435] relu4 <- conv4
I0504 04:20:24.042846 23966 net.cpp:396] relu4 -> conv4 (in-place)
I0504 04:20:24.042863 23966 net.cpp:144] Setting up relu4
I0504 04:20:24.042875 23966 net.cpp:151] Top shape: 20 128 10 10 (256000)
I0504 04:20:24.042882 23966 net.cpp:159] Memory required for data: 12832080
I0504 04:20:24.042889 23966 layer_factory.hpp:77] Creating layer conv5
I0504 04:20:24.042907 23966 net.cpp:94] Creating Layer conv5
I0504 04:20:24.042917 23966 net.cpp:435] conv5 <- conv4
I0504 04:20:24.042928 23966 net.cpp:409] conv5 -> conv5
I0504 04:20:24.062209 23966 net.cpp:144] Setting up conv5
I0504 04:20:24.062224 23966 net.cpp:151] Top shape: 20 128 10 10 (256000)
I0504 04:20:24.062228 23966 net.cpp:159] Memory required for data: 13856080
I0504 04:20:24.062237 23966 layer_factory.hpp:77] Creating layer relu5
I0504 04:20:24.062243 23966 net.cpp:94] Creating Layer relu5
I0504 04:20:24.062247 23966 net.cpp:435] relu5 <- conv5
I0504 04:20:24.062252 23966 net.cpp:396] relu5 -> conv5 (in-place)
I0504 04:20:24.062258 23966 net.cpp:144] Setting up relu5
I0504 04:20:24.062263 23966 net.cpp:151] Top shape: 20 128 10 10 (256000)
I0504 04:20:24.062266 23966 net.cpp:159] Memory required for data: 14880080
I0504 04:20:24.062269 23966 layer_factory.hpp:77] Creating layer pool5
I0504 04:20:24.062274 23966 net.cpp:94] Creating Layer pool5
I0504 04:20:24.062278 23966 net.cpp:435] pool5 <- conv5
I0504 04:20:24.062281 23966 net.cpp:409] pool5 -> pool5
I0504 04:20:24.062316 23966 net.cpp:144] Setting up pool5
I0504 04:20:24.062325 23966 net.cpp:151] Top shape: 20 128 5 5 (64000)
I0504 04:20:24.062327 23966 net.cpp:159] Memory required for data: 15136080
I0504 04:20:24.062330 23966 layer_factory.hpp:77] Creating layer ip1
I0504 04:20:24.062340 23966 net.cpp:94] Creating Layer ip1
I0504 04:20:24.062345 23966 net.cpp:435] ip1 <- pool5
I0504 04:20:24.062350 23966 net.cpp:409] ip1 -> ip1
I0504 04:20:24.142855 23966 net.cpp:144] Setting up ip1
I0504 04:20:24.142885 23966 net.cpp:151] Top shape: 20 1024 (20480)
I0504 04:20:24.142890 23966 net.cpp:159] Memory required for data: 15218000
I0504 04:20:24.142897 23966 layer_factory.hpp:77] Creating layer ip2
I0504 04:20:24.142907 23966 net.cpp:94] Creating Layer ip2
I0504 04:20:24.142918 23966 net.cpp:435] ip2 <- ip1
I0504 04:20:24.142925 23966 net.cpp:409] ip2 -> ip2
I0504 04:20:24.155843 23966 net.cpp:144] Setting up ip2
I0504 04:20:24.155858 23966 net.cpp:151] Top shape: 20 512 (10240)
I0504 04:20:24.155863 23966 net.cpp:159] Memory required for data: 15258960
I0504 04:20:24.155869 23966 layer_factory.hpp:77] Creating layer ip3
I0504 04:20:24.155875 23966 net.cpp:94] Creating Layer ip3
I0504 04:20:24.155879 23966 net.cpp:435] ip3 <- ip2
I0504 04:20:24.155884 23966 net.cpp:409] ip3 -> ip3
I0504 04:20:24.155962 23966 net.cpp:144] Setting up ip3
I0504 04:20:24.155977 23966 net.cpp:151] Top shape: 20 1 (20)
I0504 04:20:24.155982 23966 net.cpp:159] Memory required for data: 15259040
I0504 04:20:24.155987 23966 layer_factory.hpp:77] Creating layer loss
I0504 04:20:24.156000 23966 net.cpp:94] Creating Layer loss
I0504 04:20:24.156004 23966 net.cpp:435] loss <- ip3
I0504 04:20:24.156008 23966 net.cpp:435] loss <- label
I0504 04:20:24.156014 23966 net.cpp:409] loss -> loss
I0504 04:20:24.156052 23966 net.cpp:144] Setting up loss
…
