…
I0505 20:08:12.228420  8998 net.cpp:323] The NetState phase (0) differed from the phase (1) specified by a rule in layer intercept
I0505 20:08:12.228433  8998 net.cpp:323] The NetState phase (0) differed from the phase (1) specified by a rule in layer loss
I0505 20:08:12.228499  8998 net.cpp:52] Initializing net from parameters: 
state {
  phase: TRAIN
}
layer {
  name: "parameters"
  type: "HDF5Data"
  top: "data"
  top: "label"
  include {
    phase: TRAIN
  }
  hdf5_data_param {
    source: "/home/purduethu/scratch/radon/d/deng106/CNNStatisticalModel/distributions/input/5_distributions_100_sample_size_train-parameters-path.txt"
    batch_size: 20
  }
}
layer {
  name: "conv1"
  type: "Convolution"
  bottom: "data"
  top: "conv1"
  param {
    lr_mult: 1
  }
  param {
    lr_mult: 2
  }
  convolution_param {
    num_output: 64
    pad: 2
    kernel_size: 5
    stride: 1
    weight_filler {
      type: "gaussian"
      std: 0.0001
    }
    bias_filler {
      type: "constant"
    }
  }
}
layer {
  name: "relu1"
  type: "ReLU"
  bottom: "conv1"
  top: "conv1"
}
layer {
  name: "pool1"
  type: "Pooling"
  bottom: "conv1"
  top: "pool1"
  pooling_param {
    pool: MAX
    kernel_size: 3
    stride: 2
  }
}
layer {
  name: "conv2"
  type: "Convolution"
  bottom: "pool1"
  top: "conv2"
  param {
    lr_mult: 1
  }
  param {
    lr_mult: 2
  }
  convolution_param {
    num_output: 128
    pad: 2
    kernel_size: 5
    stride: 1
    weight_filler {
      type: "gaussian"
      std: 0.01
    }
    bias_filler {
      type: "constant"
    }
  }
}
layer {
  name: "relu2"
  type: "ReLU"
  bottom: "conv2"
  top: "conv2"
}
layer {
  name: "conv3"
  type: "Convolution"
  bottom: "conv2"
  top: "conv3"
  param {
    lr_mult: 1
  }
  param {
    lr_mult: 2
  }
  convolution_param {
    num_output: 128
    pad: 2
    kernel_size: 5
    stride: 1
    weight_filler {
      type: "gaussian"
      std: 0.01
    }
    bias_filler {
      type: "constant"
    }
  }
}
layer {
  name: "relu3"
  type: "ReLU"
  bottom: "conv3"
  top: "conv3"
}
layer {
  name: "pool3"
  type: "Pooling"
  bottom: "conv3"
  top: "pool3"
  pooling_param {
    pool: AVE
    kernel_size: 3
    stride: 2
  }
}
layer {
  name: "ip1"
  type: "InnerProduct"
  bottom: "pool3"
  top: "ip1"
  param {
    lr_mult: 1
  }
  param {
    lr_mult: 2
  }
  inner_product_param {
    num_output: 512
    weight_filler {
      type: "gaussian"
      std: 0.1
    }
    bias_filler {
      type: "constant"
    }
  }
}
layer {
  name: "ip2"
  type: "InnerProduct"
  bottom: "ip1"
  top: "ip2"
  param {
    lr_mult: 1
  }
  param {
    lr_mult: 2
  }
  inner_product_param {
    num_output: 256
    weight_filler {
      type: "gaussian"
      std: 0.1
    }
    bias_filler {
      type: "constant"
    }
  }
}
layer {
  name: "ip3"
  type: "InnerProduct"
  bottom: "ip2"
  top: "ip3"
  param {
    lr_mult: 1
  }
  param {
    lr_mult: 2
  }
  inner_product_param {
    num_output: 1
    weight_filler {
      type: "gaussian"
      std: 0.1
    }
    bias_filler {
      type: "constant"
    }
  }
}
layer {
  name: "loss"
  type: "HuberLoss"
  bottom: "ip3"
  bottom: "label"
  top: "loss"
  include {
    phase: TRAIN
  }
}
I0505 20:08:12.228548  8998 layer_factory.hpp:77] Creating layer parameters
I0505 20:08:12.228569  8998 net.cpp:94] Creating Layer parameters
I0505 20:08:12.228575  8998 net.cpp:409] parameters -> data
I0505 20:08:12.228584  8998 net.cpp:409] parameters -> label
I0505 20:08:12.228590  8998 hdf5_data_layer.cpp:79] Loading list of HDF5 filenames from: /home/purduethu/scratch/radon/d/deng106/CNNStatisticalModel/distributions/input/5_distributions_100_sample_size_train-parameters-path.txt
I0505 20:08:12.228605  8998 hdf5_data_layer.cpp:93] Number of HDF5 files: 1
I0505 20:08:12.229143  8998 hdf5.cpp:32] Datatype class: H5T_FLOAT
I0505 20:08:12.247092  8998 net.cpp:144] Setting up parameters
I0505 20:08:12.247123  8998 net.cpp:151] Top shape: 20 1 10 10 (2000)
I0505 20:08:12.247128  8998 net.cpp:151] Top shape: 20 (20)
I0505 20:08:12.247130  8998 net.cpp:159] Memory required for data: 8080
I0505 20:08:12.247138  8998 layer_factory.hpp:77] Creating layer conv1
I0505 20:08:12.247158  8998 net.cpp:94] Creating Layer conv1
I0505 20:08:12.247161  8998 net.cpp:435] conv1 <- data
I0505 20:08:12.247167  8998 net.cpp:409] conv1 -> conv1
I0505 20:08:12.251201  8998 net.cpp:144] Setting up conv1
I0505 20:08:12.251217  8998 net.cpp:151] Top shape: 20 64 10 10 (128000)
I0505 20:08:12.251221  8998 net.cpp:159] Memory required for data: 520080
I0505 20:08:12.251231  8998 layer_factory.hpp:77] Creating layer relu1
I0505 20:08:12.251240  8998 net.cpp:94] Creating Layer relu1
I0505 20:08:12.251242  8998 net.cpp:435] relu1 <- conv1
I0505 20:08:12.251246  8998 net.cpp:396] relu1 -> conv1 (in-place)
I0505 20:08:12.251258  8998 net.cpp:144] Setting up relu1
I0505 20:08:12.251262  8998 net.cpp:151] Top shape: 20 64 10 10 (128000)
I0505 20:08:12.251266  8998 net.cpp:159] Memory required for data: 1032080
I0505 20:08:12.251268  8998 layer_factory.hpp:77] Creating layer pool1
I0505 20:08:12.251274  8998 net.cpp:94] Creating Layer pool1
I0505 20:08:12.251277  8998 net.cpp:435] pool1 <- conv1
I0505 20:08:12.251281  8998 net.cpp:409] pool1 -> pool1
I0505 20:08:12.251334  8998 net.cpp:144] Setting up pool1
I0505 20:08:12.251340  8998 net.cpp:151] Top shape: 20 64 5 5 (32000)
I0505 20:08:12.251343  8998 net.cpp:159] Memory required for data: 1160080
I0505 20:08:12.251348  8998 layer_factory.hpp:77] Creating layer conv2
I0505 20:08:12.251355  8998 net.cpp:94] Creating Layer conv2
I0505 20:08:12.251359  8998 net.cpp:435] conv2 <- pool1
I0505 20:08:12.251363  8998 net.cpp:409] conv2 -> conv2
I0505 20:08:12.260385  8998 net.cpp:144] Setting up conv2
I0505 20:08:12.260399  8998 net.cpp:151] Top shape: 20 128 5 5 (64000)
I0505 20:08:12.260403  8998 net.cpp:159] Memory required for data: 1416080
I0505 20:08:12.260411  8998 layer_factory.hpp:77] Creating layer relu2
I0505 20:08:12.260417  8998 net.cpp:94] Creating Layer relu2
I0505 20:08:12.260421  8998 net.cpp:435] relu2 <- conv2
I0505 20:08:12.260426  8998 net.cpp:396] relu2 -> conv2 (in-place)
I0505 20:08:12.260432  8998 net.cpp:144] Setting up relu2
I0505 20:08:12.260437  8998 net.cpp:151] Top shape: 20 128 5 5 (64000)
I0505 20:08:12.260439  8998 net.cpp:159] Memory required for data: 1672080
I0505 20:08:12.260442  8998 layer_factory.hpp:77] Creating layer conv3
I0505 20:08:12.260450  8998 net.cpp:94] Creating Layer conv3
I0505 20:08:12.260453  8998 net.cpp:435] conv3 <- conv2
I0505 20:08:12.260458  8998 net.cpp:409] conv3 -> conv3
I0505 20:08:12.275682  8998 net.cpp:144] Setting up conv3
I0505 20:08:12.275697  8998 net.cpp:151] Top shape: 20 128 5 5 (64000)
I0505 20:08:12.275701  8998 net.cpp:159] Memory required for data: 1928080
I0505 20:08:12.275709  8998 layer_factory.hpp:77] Creating layer relu3
I0505 20:08:12.275715  8998 net.cpp:94] Creating Layer relu3
I0505 20:08:12.275724  8998 net.cpp:435] relu3 <- conv3
I0505 20:08:12.275729  8998 net.cpp:396] relu3 -> conv3 (in-place)
I0505 20:08:12.275737  8998 net.cpp:144] Setting up relu3
I0505 20:08:12.275740  8998 net.cpp:151] Top shape: 20 128 5 5 (64000)
I0505 20:08:12.275743  8998 net.cpp:159] Memory required for data: 2184080
I0505 20:08:12.275746  8998 layer_factory.hpp:77] Creating layer pool3
I0505 20:08:12.275753  8998 net.cpp:94] Creating Layer pool3
I0505 20:08:12.275755  8998 net.cpp:435] pool3 <- conv3
I0505 20:08:12.275759  8998 net.cpp:409] pool3 -> pool3
I0505 20:08:12.275796  8998 net.cpp:144] Setting up pool3
I0505 20:08:12.275804  8998 net.cpp:151] Top shape: 20 128 2 2 (10240)
I0505 20:08:12.275805  8998 net.cpp:159] Memory required for data: 2225040
I0505 20:08:12.275809  8998 layer_factory.hpp:77] Creating layer ip1
I0505 20:08:12.275817  8998 net.cpp:94] Creating Layer ip1
I0505 20:08:12.275821  8998 net.cpp:435] ip1 <- pool3
I0505 20:08:12.275825  8998 net.cpp:409] ip1 -> ip1
I0505 20:08:12.282841  8998 net.cpp:144] Setting up ip1
I0505 20:08:12.282856  8998 net.cpp:151] Top shape: 20 512 (10240)
I0505 20:08:12.282860  8998 net.cpp:159] Memory required for data: 2266000
I0505 20:08:12.282866  8998 layer_factory.hpp:77] Creating layer ip2
I0505 20:08:12.282872  8998 net.cpp:94] Creating Layer ip2
I0505 20:08:12.282876  8998 net.cpp:435] ip2 <- ip1
I0505 20:08:12.282881  8998 net.cpp:409] ip2 -> ip2
I0505 20:08:12.286831  8998 net.cpp:144] Setting up ip2
I0505 20:08:12.286845  8998 net.cpp:151] Top shape: 20 256 (5120)
I0505 20:08:12.286849  8998 net.cpp:159] Memory required for data: 2286480
I0505 20:08:12.286856  8998 layer_factory.hpp:77] Creating layer ip3
I0505 20:08:12.286864  8998 net.cpp:94] Creating Layer ip3
I0505 20:08:12.286866  8998 net.cpp:435] ip3 <- ip2
I0505 20:08:12.286871  8998 net.cpp:409] ip3 -> ip3
I0505 20:08:12.286972  8998 net.cpp:144] Setting up ip3
I0505 20:08:12.286978  8998 net.cpp:151] Top shape: 20 1 (20)
I0505 20:08:12.286981  8998 net.cpp:159] Memory required for data: 2286560
I0505 20:08:12.286986  8998 layer_factory.hpp:77] Creating layer loss
I0505 20:08:12.286993  8998 net.cpp:94] Creating Layer loss
I0505 20:08:12.286996  8998 net.cpp:435] loss <- ip3
I0505 20:08:12.286999  8998 net.cpp:435] loss <- label
I0505 20:08:12.287004  8998 net.cpp:409] loss -> loss
I0505 20:08:12.287058  8998 net.cpp:144] Setting up loss
…
I0505 20:08:12.324779  8998 net.cpp:323] The NetState phase (0) differed from the phase (1) specified by a rule in layer intercept
I0505 20:08:12.324792  8998 net.cpp:323] The NetState phase (0) differed from the phase (1) specified by a rule in layer accuracy
I0505 20:08:12.324862  8998 net.cpp:52] Initializing net from parameters: 
state {
  phase: TRAIN
}
layer {
  name: "parameters"
  type: "HDF5Data"
  top: "data"
  top: "label"
  include {
    phase: TRAIN
  }
  hdf5_data_param {
    source: "/home/purduethu/scratch/radon/d/deng106/CNNStatisticalModel/distributions/input/5_distributions_100_sample_size_train-distributions-path.txt"
    batch_size: 20
  }
}
layer {
  name: "conv1"
  type: "Convolution"
  bottom: "data"
  top: "conv1"
  param {
    lr_mult: 1
  }
  param {
    lr_mult: 2
  }
  convolution_param {
    num_output: 64
    pad: 2
    kernel_size: 5
    stride: 1
    weight_filler {
      type: "gaussian"
      std: 0.0001
    }
    bias_filler {
      type: "constant"
    }
  }
}
layer {
  name: "relu1"
  type: "ReLU"
  bottom: "conv1"
  top: "conv1"
}
layer {
  name: "pool1"
  type: "Pooling"
  bottom: "conv1"
  top: "pool1"
  pooling_param {
    pool: MAX
    kernel_size: 3
    stride: 2
  }
}
layer {
  name: "conv2"
  type: "Convolution"
  bottom: "pool1"
  top: "conv2"
  param {
    lr_mult: 1
  }
  param {
    lr_mult: 2
  }
  convolution_param {
    num_output: 128
    pad: 2
    kernel_size: 5
    stride: 1
    weight_filler {
      type: "gaussian"
      std: 0.01
    }
    bias_filler {
      type: "constant"
    }
  }
}
layer {
  name: "relu2"
  type: "ReLU"
  bottom: "conv2"
  top: "conv2"
}
layer {
  name: "conv3"
  type: "Convolution"
  bottom: "conv2"
  top: "conv3"
  param {
    lr_mult: 1
  }
  param {
    lr_mult: 2
  }
  convolution_param {
    num_output: 128
    pad: 2
    kernel_size: 5
    stride: 1
    weight_filler {
      type: "gaussian"
      std: 0.01
    }
    bias_filler {
      type: "constant"
    }
  }
}
layer {
  name: "relu3"
  type: "ReLU"
  bottom: "conv3"
  top: "conv3"
}
layer {
  name: "pool3"
  type: "Pooling"
  bottom: "conv3"
  top: "pool3"
  pooling_param {
    pool: AVE
    kernel_size: 3
    stride: 2
  }
}
layer {
  name: "ip1"
  type: "InnerProduct"
  bottom: "pool3"
  top: "ip1"
  param {
    lr_mult: 1
  }
  param {
    lr_mult: 2
  }
  inner_product_param {
    num_output: 512
    weight_filler {
      type: "gaussian"
      std: 0.1
    }
    bias_filler {
      type: "constant"
    }
  }
}
layer {
  name: "ip2"
  type: "InnerProduct"
  bottom: "ip1"
  top: "ip2"
  param {
    lr_mult: 1
  }
  param {
    lr_mult: 2
  }
  inner_product_param {
    num_output: 256
    weight_filler {
      type: "gaussian"
      std: 0.1
    }
    bias_filler {
      type: "constant"
    }
  }
}
layer {
  name: "ip3"
  type: "InnerProduct"
  bottom: "ip2"
  top: "ip3"
  param {
    lr_mult: 1
  }
  param {
    lr_mult: 2
  }
  inner_product_param {
    num_output: 50
    weight_filler {
      type: "gaussian"
      std: 0.1
    }
    bias_filler {
      type: "constant"
    }
  }
}
layer {
  name: "loss"
  type: "SoftmaxWithLoss"
  bottom: "ip3"
  bottom: "label"
  top: "loss"
}
I0505 20:08:12.324903  8998 layer_factory.hpp:77] Creating layer parameters
I0505 20:08:12.324909  8998 net.cpp:94] Creating Layer parameters
I0505 20:08:12.324913  8998 net.cpp:409] parameters -> data
I0505 20:08:12.324919  8998 net.cpp:409] parameters -> label
I0505 20:08:12.324925  8998 hdf5_data_layer.cpp:79] Loading list of HDF5 filenames from: /home/purduethu/scratch/radon/d/deng106/CNNStatisticalModel/distributions/input/5_distributions_100_sample_size_train-distributions-path.txt
I0505 20:08:12.324939  8998 hdf5_data_layer.cpp:93] Number of HDF5 files: 1
I0505 20:08:12.340726  8998 hdf5.cpp:35] Datatype class: H5T_INTEGER
I0505 20:08:12.341140  8998 net.cpp:144] Setting up parameters
I0505 20:08:12.341153  8998 net.cpp:151] Top shape: 20 1 10 10 (2000)
I0505 20:08:12.341158  8998 net.cpp:151] Top shape: 20 (20)
I0505 20:08:12.341161  8998 net.cpp:159] Memory required for data: 8080
I0505 20:08:12.341167  8998 layer_factory.hpp:77] Creating layer conv1
I0505 20:08:12.341183  8998 net.cpp:94] Creating Layer conv1
I0505 20:08:12.341187  8998 net.cpp:435] conv1 <- data
I0505 20:08:12.341193  8998 net.cpp:409] conv1 -> conv1
I0505 20:08:12.342957  8998 net.cpp:144] Setting up conv1
I0505 20:08:12.342972  8998 net.cpp:151] Top shape: 20 64 10 10 (128000)
I0505 20:08:12.342975  8998 net.cpp:159] Memory required for data: 520080
I0505 20:08:12.342984  8998 layer_factory.hpp:77] Creating layer relu1
I0505 20:08:12.342991  8998 net.cpp:94] Creating Layer relu1
I0505 20:08:12.342995  8998 net.cpp:435] relu1 <- conv1
I0505 20:08:12.342999  8998 net.cpp:396] relu1 -> conv1 (in-place)
I0505 20:08:12.343006  8998 net.cpp:144] Setting up relu1
I0505 20:08:12.343010  8998 net.cpp:151] Top shape: 20 64 10 10 (128000)
I0505 20:08:12.343014  8998 net.cpp:159] Memory required for data: 1032080
I0505 20:08:12.343016  8998 layer_factory.hpp:77] Creating layer pool1
I0505 20:08:12.343021  8998 net.cpp:94] Creating Layer pool1
I0505 20:08:12.343024  8998 net.cpp:435] pool1 <- conv1
I0505 20:08:12.343029  8998 net.cpp:409] pool1 -> pool1
I0505 20:08:12.343093  8998 net.cpp:144] Setting up pool1
I0505 20:08:12.343101  8998 net.cpp:151] Top shape: 20 64 5 5 (32000)
I0505 20:08:12.343103  8998 net.cpp:159] Memory required for data: 1160080
I0505 20:08:12.343106  8998 layer_factory.hpp:77] Creating layer conv2
I0505 20:08:12.343116  8998 net.cpp:94] Creating Layer conv2
I0505 20:08:12.343118  8998 net.cpp:435] conv2 <- pool1
I0505 20:08:12.343123  8998 net.cpp:409] conv2 -> conv2
I0505 20:08:12.352375  8998 net.cpp:144] Setting up conv2
I0505 20:08:12.352391  8998 net.cpp:151] Top shape: 20 128 5 5 (64000)
I0505 20:08:12.352393  8998 net.cpp:159] Memory required for data: 1416080
I0505 20:08:12.352402  8998 layer_factory.hpp:77] Creating layer relu2
I0505 20:08:12.352408  8998 net.cpp:94] Creating Layer relu2
I0505 20:08:12.352411  8998 net.cpp:435] relu2 <- conv2
I0505 20:08:12.352416  8998 net.cpp:396] relu2 -> conv2 (in-place)
I0505 20:08:12.352423  8998 net.cpp:144] Setting up relu2
I0505 20:08:12.352427  8998 net.cpp:151] Top shape: 20 128 5 5 (64000)
I0505 20:08:12.352430  8998 net.cpp:159] Memory required for data: 1672080
I0505 20:08:12.352432  8998 layer_factory.hpp:77] Creating layer conv3
I0505 20:08:12.352439  8998 net.cpp:94] Creating Layer conv3
I0505 20:08:12.352443  8998 net.cpp:435] conv3 <- conv2
I0505 20:08:12.352447  8998 net.cpp:409] conv3 -> conv3
I0505 20:08:12.367393  8998 net.cpp:144] Setting up conv3
I0505 20:08:12.367408  8998 net.cpp:151] Top shape: 20 128 5 5 (64000)
I0505 20:08:12.367411  8998 net.cpp:159] Memory required for data: 1928080
I0505 20:08:12.367420  8998 layer_factory.hpp:77] Creating layer relu3
I0505 20:08:12.367426  8998 net.cpp:94] Creating Layer relu3
I0505 20:08:12.367429  8998 net.cpp:435] relu3 <- conv3
I0505 20:08:12.367434  8998 net.cpp:396] relu3 -> conv3 (in-place)
I0505 20:08:12.367440  8998 net.cpp:144] Setting up relu3
I0505 20:08:12.367444  8998 net.cpp:151] Top shape: 20 128 5 5 (64000)
I0505 20:08:12.367447  8998 net.cpp:159] Memory required for data: 2184080
I0505 20:08:12.367450  8998 layer_factory.hpp:77] Creating layer pool3
I0505 20:08:12.367456  8998 net.cpp:94] Creating Layer pool3
I0505 20:08:12.367460  8998 net.cpp:435] pool3 <- conv3
I0505 20:08:12.367463  8998 net.cpp:409] pool3 -> pool3
I0505 20:08:12.367497  8998 net.cpp:144] Setting up pool3
I0505 20:08:12.367503  8998 net.cpp:151] Top shape: 20 128 2 2 (10240)
I0505 20:08:12.367506  8998 net.cpp:159] Memory required for data: 2225040
I0505 20:08:12.367508  8998 layer_factory.hpp:77] Creating layer ip1
I0505 20:08:12.367516  8998 net.cpp:94] Creating Layer ip1
I0505 20:08:12.367518  8998 net.cpp:435] ip1 <- pool3
I0505 20:08:12.367522  8998 net.cpp:409] ip1 -> ip1
I0505 20:08:12.373697  8998 net.cpp:144] Setting up ip1
I0505 20:08:12.373708  8998 net.cpp:151] Top shape: 20 512 (10240)
I0505 20:08:12.373710  8998 net.cpp:159] Memory required for data: 2266000
I0505 20:08:12.373716  8998 layer_factory.hpp:77] Creating layer ip2
I0505 20:08:12.373723  8998 net.cpp:94] Creating Layer ip2
I0505 20:08:12.373725  8998 net.cpp:435] ip2 <- ip1
I0505 20:08:12.373729  8998 net.cpp:409] ip2 -> ip2
I0505 20:08:12.376905  8998 net.cpp:144] Setting up ip2
I0505 20:08:12.376914  8998 net.cpp:151] Top shape: 20 256 (5120)
I0505 20:08:12.376917  8998 net.cpp:159] Memory required for data: 2286480
I0505 20:08:12.376924  8998 layer_factory.hpp:77] Creating layer ip3
I0505 20:08:12.376929  8998 net.cpp:94] Creating Layer ip3
I0505 20:08:12.376932  8998 net.cpp:435] ip3 <- ip2
I0505 20:08:12.376937  8998 net.cpp:409] ip3 -> ip3
I0505 20:08:12.377355  8998 net.cpp:144] Setting up ip3
I0505 20:08:12.377363  8998 net.cpp:151] Top shape: 20 50 (1000)
I0505 20:08:12.377365  8998 net.cpp:159] Memory required for data: 2290480
I0505 20:08:12.377370  8998 layer_factory.hpp:77] Creating layer loss
I0505 20:08:12.377377  8998 net.cpp:94] Creating Layer loss
I0505 20:08:12.377379  8998 net.cpp:435] loss <- ip3
I0505 20:08:12.377382  8998 net.cpp:435] loss <- label
I0505 20:08:12.377387  8998 net.cpp:409] loss -> loss
I0505 20:08:12.377393  8998 layer_factory.hpp:77] Creating layer loss
…
I0505 20:08:12.377826  8998 solver.cpp:181] Creating test net (#0) specified by net file: ./protocol/dis_5_100_dimension.protocol_distribution
I0505 20:08:12.377848  8998 net.cpp:323] The NetState phase (1) differed from the phase (0) specified by a rule in layer parameters
I0505 20:08:12.377928  8998 net.cpp:52] Initializing net from parameters: 
state {
  phase: TEST
}
layer {
  name: "intercept"
  type: "HDF5Data"
  top: "data"
  top: "label"
  include {
    phase: TEST
  }
  hdf5_data_param {
    source: "/home/purduethu/scratch/radon/d/deng106/CNNStatisticalModel/distributions/input/5_distributions_100_sample_size_test-distributions-path.txt"
    batch_size: 20
  }
}
layer {
  name: "conv1"
  type: "Convolution"
  bottom: "data"
  top: "conv1"
  param {
    lr_mult: 1
  }
  param {
    lr_mult: 2
  }
  convolution_param {
    num_output: 64
    pad: 2
    kernel_size: 5
    stride: 1
    weight_filler {
      type: "gaussian"
      std: 0.0001
    }
    bias_filler {
      type: "constant"
    }
  }
}
layer {
  name: "relu1"
  type: "ReLU"
  bottom: "conv1"
  top: "conv1"
}
layer {
  name: "pool1"
  type: "Pooling"
  bottom: "conv1"
  top: "pool1"
  pooling_param {
    pool: MAX
    kernel_size: 3
    stride: 2
  }
}
layer {
  name: "conv2"
  type: "Convolution"
  bottom: "pool1"
  top: "conv2"
  param {
    lr_mult: 1
  }
  param {
    lr_mult: 2
  }
  convolution_param {
    num_output: 128
    pad: 2
    kernel_size: 5
    stride: 1
    weight_filler {
      type: "gaussian"
      std: 0.01
    }
    bias_filler {
      type: "constant"
    }
  }
}
layer {
  name: "relu2"
  type: "ReLU"
  bottom: "conv2"
  top: "conv2"
}
layer {
  name: "conv3"
  type: "Convolution"
  bottom: "conv2"
  top: "conv3"
  param {
    lr_mult: 1
  }
  param {
    lr_mult: 2
  }
  convolution_param {
    num_output: 128
    pad: 2
    kernel_size: 5
    stride: 1
    weight_filler {
      type: "gaussian"
      std: 0.01
    }
    bias_filler {
      type: "constant"
    }
  }
}
layer {
  name: "relu3"
  type: "ReLU"
  bottom: "conv3"
  top: "conv3"
}
layer {
  name: "pool3"
  type: "Pooling"
  bottom: "conv3"
  top: "pool3"
  pooling_param {
    pool: AVE
    kernel_size: 3
    stride: 2
  }
}
layer {
  name: "ip1"
  type: "InnerProduct"
  bottom: "pool3"
  top: "ip1"
  param {
    lr_mult: 1
  }
  param {
    lr_mult: 2
  }
  inner_product_param {
    num_output: 512
    weight_filler {
      type: "gaussian"
      std: 0.1
    }
    bias_filler {
      type: "constant"
    }
  }
}
layer {
  name: "ip2"
  type: "InnerProduct"
  bottom: "ip1"
  top: "ip2"
  param {
    lr_mult: 1
  }
  param {
    lr_mult: 2
  }
  inner_product_param {
    num_output: 256
    weight_filler {
      type: "gaussian"
      std: 0.1
    }
    bias_filler {
      type: "constant"
    }
  }
}
layer {
  name: "ip3"
  type: "InnerProduct"
  bottom: "ip2"
  top: "ip3"
  param {
    lr_mult: 1
  }
  param {
    lr_mult: 2
  }
  inner_product_param {
    num_output: 50
    weight_filler {
      type: "gaussian"
      std: 0.1
    }
    bias_filler {
      type: "constant"
    }
  }
}
layer {
  name: "accuracy"
  type: "Accuracy"
  bottom: "ip3"
  bottom: "label"
  top: "accuracy"
  include {
    phase: TEST
  }
}
layer {
  name: "loss"
  type: "SoftmaxWithLoss"
  bottom: "ip3"
  bottom: "label"
  top: "loss"
}
I0505 20:08:12.377984  8998 layer_factory.hpp:77] Creating layer intercept
I0505 20:08:12.377990  8998 net.cpp:94] Creating Layer intercept
I0505 20:08:12.377995  8998 net.cpp:409] intercept -> data
I0505 20:08:12.378000  8998 net.cpp:409] intercept -> label
I0505 20:08:12.378006  8998 hdf5_data_layer.cpp:79] Loading list of HDF5 filenames from: /home/purduethu/scratch/radon/d/deng106/CNNStatisticalModel/distributions/input/5_distributions_100_sample_size_test-distributions-path.txt
I0505 20:08:12.378026  8998 hdf5_data_layer.cpp:93] Number of HDF5 files: 1
I0505 20:08:12.382475  8998 net.cpp:144] Setting up intercept
I0505 20:08:12.382505  8998 net.cpp:151] Top shape: 20 1 10 10 (2000)
I0505 20:08:12.382510  8998 net.cpp:151] Top shape: 20 (20)
I0505 20:08:12.382513  8998 net.cpp:159] Memory required for data: 8080
I0505 20:08:12.382519  8998 layer_factory.hpp:77] Creating layer label_intercept_1_split
I0505 20:08:12.382534  8998 net.cpp:94] Creating Layer label_intercept_1_split
I0505 20:08:12.382539  8998 net.cpp:435] label_intercept_1_split <- label
I0505 20:08:12.382544  8998 net.cpp:409] label_intercept_1_split -> label_intercept_1_split_0
I0505 20:08:12.382551  8998 net.cpp:409] label_intercept_1_split -> label_intercept_1_split_1
I0505 20:08:12.382591  8998 net.cpp:144] Setting up label_intercept_1_split
I0505 20:08:12.382596  8998 net.cpp:151] Top shape: 20 (20)
I0505 20:08:12.382599  8998 net.cpp:151] Top shape: 20 (20)
I0505 20:08:12.382602  8998 net.cpp:159] Memory required for data: 8240
I0505 20:08:12.382606  8998 layer_factory.hpp:77] Creating layer conv1
I0505 20:08:12.382616  8998 net.cpp:94] Creating Layer conv1
I0505 20:08:12.382618  8998 net.cpp:435] conv1 <- data
I0505 20:08:12.382622  8998 net.cpp:409] conv1 -> conv1
I0505 20:08:12.383419  8998 net.cpp:144] Setting up conv1
I0505 20:08:12.383432  8998 net.cpp:151] Top shape: 20 64 10 10 (128000)
I0505 20:08:12.383436  8998 net.cpp:159] Memory required for data: 520240
I0505 20:08:12.383445  8998 layer_factory.hpp:77] Creating layer relu1
I0505 20:08:12.383451  8998 net.cpp:94] Creating Layer relu1
I0505 20:08:12.383455  8998 net.cpp:435] relu1 <- conv1
I0505 20:08:12.383458  8998 net.cpp:396] relu1 -> conv1 (in-place)
I0505 20:08:12.383466  8998 net.cpp:144] Setting up relu1
I0505 20:08:12.383469  8998 net.cpp:151] Top shape: 20 64 10 10 (128000)
I0505 20:08:12.383472  8998 net.cpp:159] Memory required for data: 1032240
I0505 20:08:12.383476  8998 layer_factory.hpp:77] Creating layer pool1
I0505 20:08:12.383481  8998 net.cpp:94] Creating Layer pool1
I0505 20:08:12.383484  8998 net.cpp:435] pool1 <- conv1
I0505 20:08:12.383488  8998 net.cpp:409] pool1 -> pool1
I0505 20:08:12.383540  8998 net.cpp:144] Setting up pool1
I0505 20:08:12.383548  8998 net.cpp:151] Top shape: 20 64 5 5 (32000)
I0505 20:08:12.383550  8998 net.cpp:159] Memory required for data: 1160240
I0505 20:08:12.383553  8998 layer_factory.hpp:77] Creating layer conv2
I0505 20:08:12.383560  8998 net.cpp:94] Creating Layer conv2
I0505 20:08:12.383563  8998 net.cpp:435] conv2 <- pool1
I0505 20:08:12.383569  8998 net.cpp:409] conv2 -> conv2
I0505 20:08:12.391094  8998 net.cpp:144] Setting up conv2
I0505 20:08:12.391109  8998 net.cpp:151] Top shape: 20 128 5 5 (64000)
I0505 20:08:12.391113  8998 net.cpp:159] Memory required for data: 1416240
I0505 20:08:12.391120  8998 layer_factory.hpp:77] Creating layer relu2
I0505 20:08:12.391126  8998 net.cpp:94] Creating Layer relu2
I0505 20:08:12.391136  8998 net.cpp:435] relu2 <- conv2
I0505 20:08:12.391141  8998 net.cpp:396] relu2 -> conv2 (in-place)
I0505 20:08:12.391149  8998 net.cpp:144] Setting up relu2
I0505 20:08:12.391152  8998 net.cpp:151] Top shape: 20 128 5 5 (64000)
I0505 20:08:12.391155  8998 net.cpp:159] Memory required for data: 1672240
I0505 20:08:12.391158  8998 layer_factory.hpp:77] Creating layer conv3
I0505 20:08:12.391165  8998 net.cpp:94] Creating Layer conv3
I0505 20:08:12.391170  8998 net.cpp:435] conv3 <- conv2
I0505 20:08:12.391173  8998 net.cpp:409] conv3 -> conv3
I0505 20:08:12.403628  8998 net.cpp:144] Setting up conv3
I0505 20:08:12.403643  8998 net.cpp:151] Top shape: 20 128 5 5 (64000)
I0505 20:08:12.403647  8998 net.cpp:159] Memory required for data: 1928240
I0505 20:08:12.403656  8998 layer_factory.hpp:77] Creating layer relu3
I0505 20:08:12.403662  8998 net.cpp:94] Creating Layer relu3
I0505 20:08:12.403666  8998 net.cpp:435] relu3 <- conv3
I0505 20:08:12.403671  8998 net.cpp:396] relu3 -> conv3 (in-place)
I0505 20:08:12.403676  8998 net.cpp:144] Setting up relu3
I0505 20:08:12.403681  8998 net.cpp:151] Top shape: 20 128 5 5 (64000)
I0505 20:08:12.403683  8998 net.cpp:159] Memory required for data: 2184240
I0505 20:08:12.403687  8998 layer_factory.hpp:77] Creating layer pool3
I0505 20:08:12.403690  8998 net.cpp:94] Creating Layer pool3
I0505 20:08:12.403693  8998 net.cpp:435] pool3 <- conv3
I0505 20:08:12.403698  8998 net.cpp:409] pool3 -> pool3
I0505 20:08:12.403734  8998 net.cpp:144] Setting up pool3
I0505 20:08:12.403741  8998 net.cpp:151] Top shape: 20 128 2 2 (10240)
I0505 20:08:12.403743  8998 net.cpp:159] Memory required for data: 2225200
I0505 20:08:12.403748  8998 layer_factory.hpp:77] Creating layer ip1
I0505 20:08:12.403754  8998 net.cpp:94] Creating Layer ip1
I0505 20:08:12.403758  8998 net.cpp:435] ip1 <- pool3
I0505 20:08:12.403761  8998 net.cpp:409] ip1 -> ip1
I0505 20:08:12.409950  8998 net.cpp:144] Setting up ip1
I0505 20:08:12.409960  8998 net.cpp:151] Top shape: 20 512 (10240)
I0505 20:08:12.409965  8998 net.cpp:159] Memory required for data: 2266160
I0505 20:08:12.409970  8998 layer_factory.hpp:77] Creating layer ip2
I0505 20:08:12.409976  8998 net.cpp:94] Creating Layer ip2
I0505 20:08:12.409979  8998 net.cpp:435] ip2 <- ip1
I0505 20:08:12.409983  8998 net.cpp:409] ip2 -> ip2
I0505 20:08:12.413149  8998 net.cpp:144] Setting up ip2
I0505 20:08:12.413159  8998 net.cpp:151] Top shape: 20 256 (5120)
I0505 20:08:12.413162  8998 net.cpp:159] Memory required for data: 2286640
I0505 20:08:12.413169  8998 layer_factory.hpp:77] Creating layer ip3
I0505 20:08:12.413177  8998 net.cpp:94] Creating Layer ip3
I0505 20:08:12.413179  8998 net.cpp:435] ip3 <- ip2
I0505 20:08:12.413183  8998 net.cpp:409] ip3 -> ip3
I0505 20:08:12.413617  8998 net.cpp:144] Setting up ip3
I0505 20:08:12.413625  8998 net.cpp:151] Top shape: 20 50 (1000)
I0505 20:08:12.413627  8998 net.cpp:159] Memory required for data: 2290640
I0505 20:08:12.413632  8998 layer_factory.hpp:77] Creating layer ip3_ip3_0_split
I0505 20:08:12.413637  8998 net.cpp:94] Creating Layer ip3_ip3_0_split
I0505 20:08:12.413640  8998 net.cpp:435] ip3_ip3_0_split <- ip3
I0505 20:08:12.413645  8998 net.cpp:409] ip3_ip3_0_split -> ip3_ip3_0_split_0
I0505 20:08:12.413650  8998 net.cpp:409] ip3_ip3_0_split -> ip3_ip3_0_split_1
I0505 20:08:12.413687  8998 net.cpp:144] Setting up ip3_ip3_0_split
I0505 20:08:12.413692  8998 net.cpp:151] Top shape: 20 50 (1000)
I0505 20:08:12.413697  8998 net.cpp:151] Top shape: 20 50 (1000)
I0505 20:08:12.413698  8998 net.cpp:159] Memory required for data: 2298640
I0505 20:08:12.413702  8998 layer_factory.hpp:77] Creating layer accuracy
I0505 20:08:12.413707  8998 net.cpp:94] Creating Layer accuracy
I0505 20:08:12.413709  8998 net.cpp:435] accuracy <- ip3_ip3_0_split_0
I0505 20:08:12.413713  8998 net.cpp:435] accuracy <- label_intercept_1_split_0
I0505 20:08:12.413717  8998 net.cpp:409] accuracy -> accuracy
…
