…
I0501 22:14:38.070013 15210 net.cpp:323] The NetState phase (0) differed from the phase (1) specified by a rule in layer intercept
I0501 22:14:38.070029 15210 net.cpp:323] The NetState phase (0) differed from the phase (1) specified by a rule in layer loss
I0501 22:14:38.070107 15210 net.cpp:52] Initializing net from parameters: 
state {
  phase: TRAIN
}
layer {
  name: "parameters"
  type: "HDF5Data"
  top: "data"
  top: "label"
  include {
    phase: TRAIN
  }
  hdf5_data_param {
    source: "/home/purduethu/scratch/radon/d/deng106/CNNStatisticalModel/distributions/input/50_distributions_900_sample_size_train-parameters-path.txt"
    batch_size: 20
  }
}
layer {
  name: "conv1"
  type: "Convolution"
  bottom: "data"
  top: "conv1"
  param {
    lr_mult: 1
  }
  param {
    lr_mult: 2
  }
  convolution_param {
    num_output: 64
    pad: 2
    kernel_size: 5
    stride: 1
    weight_filler {
      type: "gaussian"
      std: 0.0001
    }
    bias_filler {
      type: "constant"
    }
  }
}
layer {
  name: "relu1"
  type: "ReLU"
  bottom: "conv1"
  top: "conv1"
}
layer {
  name: "conv2"
  type: "Convolution"
  bottom: "conv1"
  top: "conv2"
  param {
    lr_mult: 1
  }
  param {
    lr_mult: 2
  }
  convolution_param {
    num_output: 64
    pad: 2
    kernel_size: 5
    stride: 1
    weight_filler {
      type: "gaussian"
      std: 0.01
    }
    bias_filler {
      type: "constant"
    }
  }
}
layer {
  name: "relu2"
  type: "ReLU"
  bottom: "conv2"
  top: "conv2"
}
layer {
  name: "pool2"
  type: "Pooling"
  bottom: "conv2"
  top: "pool2"
  pooling_param {
    pool: MAX
    kernel_size: 3
    stride: 2
  }
}
layer {
  name: "conv3"
  type: "Convolution"
  bottom: "pool2"
  top: "conv3"
  param {
    lr_mult: 1
  }
  param {
    lr_mult: 2
  }
  convolution_param {
    num_output: 64
    pad: 2
    kernel_size: 5
    stride: 1
    weight_filler {
      type: "gaussian"
      std: 0.01
    }
    bias_filler {
      type: "constant"
    }
  }
}
layer {
  name: "relu3"
  type: "ReLU"
  bottom: "conv3"
  top: "conv3"
}
layer {
  name: "conv4"
  type: "Convolution"
  bottom: "conv3"
  top: "conv4"
  param {
    lr_mult: 1
  }
  param {
    lr_mult: 2
  }
  convolution_param {
    num_output: 64
    pad: 2
    kernel_size: 5
    stride: 1
    weight_filler {
      type: "gaussian"
      std: 0.01
    }
    bias_filler {
      type: "constant"
    }
  }
}
layer {
  name: "relu4"
  type: "ReLU"
  bottom: "conv4"
  top: "conv4"
}
layer {
  name: "conv5"
  type: "Convolution"
  bottom: "conv4"
  top: "conv5"
  param {
    lr_mult: 1
  }
  param {
    lr_mult: 2
  }
  convolution_param {
    num_output: 64
    pad: 2
    kernel_size: 5
    stride: 1
    weight_filler {
      type: "gaussian"
      std: 0.01
    }
    bias_filler {
      type: "constant"
    }
  }
}
layer {
  name: "relu5"
  type: "ReLU"
  bottom: "conv5"
  top: "conv5"
}
layer {
  name: "pool5"
  type: "Pooling"
  bottom: "conv5"
  top: "pool5"
  pooling_param {
    pool: AVE
    kernel_size: 3
    stride: 2
  }
}
layer {
  name: "ip1"
  type: "InnerProduct"
  bottom: "pool5"
  top: "ip1"
  param {
    lr_mult: 1
  }
  param {
    lr_mult: 2
  }
  inner_product_param {
    num_output: 64
    weight_filler {
      type: "gaussian"
      std: 0.1
    }
    bias_filler {
      type: "constant"
    }
  }
}
layer {
  name: "ip2"
  type: "InnerProduct"
  bottom: "ip1"
  top: "ip2"
  param {
    lr_mult: 1
  }
  param {
    lr_mult: 2
  }
  inner_product_param {
    num_output: 64
    weight_filler {
      type: "gaussian"
      std: 0.1
    }
    bias_filler {
      type: "constant"
    }
  }
}
layer {
  name: "ip3"
  type: "InnerProduct"
  bottom: "ip2"
  top: "ip3"
  param {
    lr_mult: 1
  }
  param {
    lr_mult: 2
  }
  inner_product_param {
    num_output: 1
    weight_filler {
      type: "gaussian"
      std: 0.1
    }
    bias_filler {
      type: "constant"
    }
  }
}
layer {
  name: "loss"
  type: "HuberLoss"
  bottom: "ip3"
  bottom: "label"
  top: "loss"
  include {
    phase: TRAIN
  }
}
I0501 22:14:38.070159 15210 layer_factory.hpp:77] Creating layer parameters
I0501 22:14:38.070173 15210 net.cpp:94] Creating Layer parameters
I0501 22:14:38.070178 15210 net.cpp:409] parameters -> data
I0501 22:14:38.070186 15210 net.cpp:409] parameters -> label
I0501 22:14:38.070199 15210 hdf5_data_layer.cpp:79] Loading list of HDF5 filenames from: /home/purduethu/scratch/radon/d/deng106/CNNStatisticalModel/distributions/input/50_distributions_900_sample_size_train-parameters-path.txt
I0501 22:14:38.070214 15210 hdf5_data_layer.cpp:93] Number of HDF5 files: 1
I0501 22:14:38.070780 15210 hdf5.cpp:32] Datatype class: H5T_FLOAT
I0501 22:14:39.543694 15210 net.cpp:144] Setting up parameters
I0501 22:14:39.543726 15210 net.cpp:151] Top shape: 20 1 30 30 (18000)
I0501 22:14:39.543731 15210 net.cpp:151] Top shape: 20 (20)
I0501 22:14:39.543735 15210 net.cpp:159] Memory required for data: 72080
I0501 22:14:39.543741 15210 layer_factory.hpp:77] Creating layer conv1
I0501 22:14:39.543758 15210 net.cpp:94] Creating Layer conv1
I0501 22:14:39.543762 15210 net.cpp:435] conv1 <- data
I0501 22:14:39.543769 15210 net.cpp:409] conv1 -> conv1
I0501 22:14:39.550504 15210 net.cpp:144] Setting up conv1
I0501 22:14:39.550547 15210 net.cpp:151] Top shape: 20 64 30 30 (1152000)
I0501 22:14:39.550559 15210 net.cpp:159] Memory required for data: 4680080
I0501 22:14:39.550586 15210 layer_factory.hpp:77] Creating layer relu1
I0501 22:14:39.550607 15210 net.cpp:94] Creating Layer relu1
I0501 22:14:39.550618 15210 net.cpp:435] relu1 <- conv1
I0501 22:14:39.550632 15210 net.cpp:396] relu1 -> conv1 (in-place)
I0501 22:14:39.550662 15210 net.cpp:144] Setting up relu1
I0501 22:14:39.550675 15210 net.cpp:151] Top shape: 20 64 30 30 (1152000)
I0501 22:14:39.550684 15210 net.cpp:159] Memory required for data: 9288080
I0501 22:14:39.550693 15210 layer_factory.hpp:77] Creating layer conv2
I0501 22:14:39.550714 15210 net.cpp:94] Creating Layer conv2
I0501 22:14:39.550724 15210 net.cpp:435] conv2 <- conv1
I0501 22:14:39.550739 15210 net.cpp:409] conv2 -> conv2
I0501 22:14:39.567623 15210 net.cpp:144] Setting up conv2
I0501 22:14:39.567662 15210 net.cpp:151] Top shape: 20 64 30 30 (1152000)
I0501 22:14:39.567674 15210 net.cpp:159] Memory required for data: 13896080
I0501 22:14:39.567698 15210 layer_factory.hpp:77] Creating layer relu2
I0501 22:14:39.567714 15210 net.cpp:94] Creating Layer relu2
I0501 22:14:39.567725 15210 net.cpp:435] relu2 <- conv2
I0501 22:14:39.567739 15210 net.cpp:396] relu2 -> conv2 (in-place)
I0501 22:14:39.567759 15210 net.cpp:144] Setting up relu2
I0501 22:14:39.567771 15210 net.cpp:151] Top shape: 20 64 30 30 (1152000)
I0501 22:14:39.567780 15210 net.cpp:159] Memory required for data: 18504080
I0501 22:14:39.567790 15210 layer_factory.hpp:77] Creating layer pool2
I0501 22:14:39.567814 15210 net.cpp:94] Creating Layer pool2
I0501 22:14:39.567826 15210 net.cpp:435] pool2 <- conv2
I0501 22:14:39.567838 15210 net.cpp:409] pool2 -> pool2
I0501 22:14:39.567984 15210 net.cpp:144] Setting up pool2
I0501 22:14:39.567992 15210 net.cpp:151] Top shape: 20 64 15 15 (288000)
I0501 22:14:39.567996 15210 net.cpp:159] Memory required for data: 19656080
I0501 22:14:39.567999 15210 layer_factory.hpp:77] Creating layer conv3
I0501 22:14:39.568007 15210 net.cpp:94] Creating Layer conv3
I0501 22:14:39.568011 15210 net.cpp:435] conv3 <- pool2
I0501 22:14:39.568015 15210 net.cpp:409] conv3 -> conv3
I0501 22:14:39.576678 15210 net.cpp:144] Setting up conv3
I0501 22:14:39.576694 15210 net.cpp:151] Top shape: 20 64 15 15 (288000)
I0501 22:14:39.576699 15210 net.cpp:159] Memory required for data: 20808080
I0501 22:14:39.576707 15210 layer_factory.hpp:77] Creating layer relu3
I0501 22:14:39.576714 15210 net.cpp:94] Creating Layer relu3
I0501 22:14:39.576719 15210 net.cpp:435] relu3 <- conv3
I0501 22:14:39.576723 15210 net.cpp:396] relu3 -> conv3 (in-place)
I0501 22:14:39.576731 15210 net.cpp:144] Setting up relu3
I0501 22:14:39.576735 15210 net.cpp:151] Top shape: 20 64 15 15 (288000)
I0501 22:14:39.576738 15210 net.cpp:159] Memory required for data: 21960080
I0501 22:14:39.576742 15210 layer_factory.hpp:77] Creating layer conv4
I0501 22:14:39.576750 15210 net.cpp:94] Creating Layer conv4
I0501 22:14:39.576755 15210 net.cpp:435] conv4 <- conv3
I0501 22:14:39.576761 15210 net.cpp:409] conv4 -> conv4
I0501 22:14:39.584692 15210 net.cpp:144] Setting up conv4
I0501 22:14:39.584729 15210 net.cpp:151] Top shape: 20 64 15 15 (288000)
I0501 22:14:39.584741 15210 net.cpp:159] Memory required for data: 23112080
I0501 22:14:39.584759 15210 layer_factory.hpp:77] Creating layer relu4
I0501 22:14:39.584774 15210 net.cpp:94] Creating Layer relu4
I0501 22:14:39.584784 15210 net.cpp:435] relu4 <- conv4
I0501 22:14:39.584805 15210 net.cpp:396] relu4 -> conv4 (in-place)
I0501 22:14:39.584813 15210 net.cpp:144] Setting up relu4
I0501 22:14:39.584817 15210 net.cpp:151] Top shape: 20 64 15 15 (288000)
I0501 22:14:39.584821 15210 net.cpp:159] Memory required for data: 24264080
I0501 22:14:39.584825 15210 layer_factory.hpp:77] Creating layer conv5
I0501 22:14:39.584832 15210 net.cpp:94] Creating Layer conv5
I0501 22:14:39.584836 15210 net.cpp:435] conv5 <- conv4
I0501 22:14:39.584841 15210 net.cpp:409] conv5 -> conv5
I0501 22:14:39.592600 15210 net.cpp:144] Setting up conv5
I0501 22:14:39.592617 15210 net.cpp:151] Top shape: 20 64 15 15 (288000)
I0501 22:14:39.592620 15210 net.cpp:159] Memory required for data: 25416080
I0501 22:14:39.592629 15210 layer_factory.hpp:77] Creating layer relu5
I0501 22:14:39.592636 15210 net.cpp:94] Creating Layer relu5
I0501 22:14:39.592640 15210 net.cpp:435] relu5 <- conv5
I0501 22:14:39.592645 15210 net.cpp:396] relu5 -> conv5 (in-place)
I0501 22:14:39.592653 15210 net.cpp:144] Setting up relu5
I0501 22:14:39.592658 15210 net.cpp:151] Top shape: 20 64 15 15 (288000)
I0501 22:14:39.592660 15210 net.cpp:159] Memory required for data: 26568080
I0501 22:14:39.592664 15210 layer_factory.hpp:77] Creating layer pool5
I0501 22:14:39.592669 15210 net.cpp:94] Creating Layer pool5
I0501 22:14:39.592672 15210 net.cpp:435] pool5 <- conv5
I0501 22:14:39.592677 15210 net.cpp:409] pool5 -> pool5
I0501 22:14:39.592717 15210 net.cpp:144] Setting up pool5
I0501 22:14:39.592725 15210 net.cpp:151] Top shape: 20 64 7 7 (62720)
I0501 22:14:39.592728 15210 net.cpp:159] Memory required for data: 26818960
I0501 22:14:39.592732 15210 layer_factory.hpp:77] Creating layer ip1
I0501 22:14:39.592739 15210 net.cpp:94] Creating Layer ip1
I0501 22:14:39.592742 15210 net.cpp:435] ip1 <- pool5
I0501 22:14:39.592747 15210 net.cpp:409] ip1 -> ip1
I0501 22:14:39.598768 15210 net.cpp:144] Setting up ip1
I0501 22:14:39.598783 15210 net.cpp:151] Top shape: 20 64 (1280)
I0501 22:14:39.598788 15210 net.cpp:159] Memory required for data: 26824080
I0501 22:14:39.598793 15210 layer_factory.hpp:77] Creating layer ip2
I0501 22:14:39.598801 15210 net.cpp:94] Creating Layer ip2
I0501 22:14:39.598810 15210 net.cpp:435] ip2 <- ip1
I0501 22:14:39.598816 15210 net.cpp:409] ip2 -> ip2
I0501 22:14:39.599038 15210 net.cpp:144] Setting up ip2
I0501 22:14:39.599046 15210 net.cpp:151] Top shape: 20 64 (1280)
I0501 22:14:39.599050 15210 net.cpp:159] Memory required for data: 26829200
I0501 22:14:39.599056 15210 layer_factory.hpp:77] Creating layer ip3
I0501 22:14:39.599061 15210 net.cpp:94] Creating Layer ip3
I0501 22:14:39.599066 15210 net.cpp:435] ip3 <- ip2
I0501 22:14:39.599071 15210 net.cpp:409] ip3 -> ip3
I0501 22:14:39.599175 15210 net.cpp:144] Setting up ip3
I0501 22:14:39.599182 15210 net.cpp:151] Top shape: 20 1 (20)
I0501 22:14:39.599185 15210 net.cpp:159] Memory required for data: 26829280
I0501 22:14:39.599191 15210 layer_factory.hpp:77] Creating layer loss
I0501 22:14:39.599202 15210 net.cpp:94] Creating Layer loss
I0501 22:14:39.599206 15210 net.cpp:435] loss <- ip3
I0501 22:14:39.599210 15210 net.cpp:435] loss <- label
I0501 22:14:39.599215 15210 net.cpp:409] loss -> loss
I0501 22:14:39.599267 15210 net.cpp:144] Setting up loss
…
I0501 22:14:40.012089 15210 net.cpp:323] The NetState phase (0) differed from the phase (1) specified by a rule in layer intercept
I0501 22:14:40.012104 15210 net.cpp:323] The NetState phase (0) differed from the phase (1) specified by a rule in layer accuracy
I0501 22:14:40.012192 15210 net.cpp:52] Initializing net from parameters: 
state {
  phase: TRAIN
}
layer {
  name: "parameters"
  type: "HDF5Data"
  top: "data"
  top: "label"
  include {
    phase: TRAIN
  }
  hdf5_data_param {
    source: "/home/purduethu/scratch/radon/d/deng106/CNNStatisticalModel/distributions/input/50_distributions_900_sample_size_train-distributions-path.txt"
    batch_size: 20
  }
}
layer {
  name: "conv1"
  type: "Convolution"
  bottom: "data"
  top: "conv1"
  param {
    lr_mult: 1
  }
  param {
    lr_mult: 2
  }
  convolution_param {
    num_output: 64
    pad: 2
    kernel_size: 5
    stride: 1
    weight_filler {
      type: "gaussian"
      std: 0.0001
    }
    bias_filler {
      type: "constant"
    }
  }
}
layer {
  name: "relu1"
  type: "ReLU"
  bottom: "conv1"
  top: "conv1"
}
layer {
  name: "conv2"
  type: "Convolution"
  bottom: "conv1"
  top: "conv2"
  param {
    lr_mult: 1
  }
  param {
    lr_mult: 2
  }
  convolution_param {
    num_output: 64
    pad: 2
    kernel_size: 5
    stride: 1
    weight_filler {
      type: "gaussian"
      std: 0.01
    }
    bias_filler {
      type: "constant"
    }
  }
}
layer {
  name: "relu2"
  type: "ReLU"
  bottom: "conv2"
  top: "conv2"
}
layer {
  name: "pool2"
  type: "Pooling"
  bottom: "conv2"
  top: "pool2"
  pooling_param {
    pool: MAX
    kernel_size: 3
    stride: 2
  }
}
layer {
  name: "conv3"
  type: "Convolution"
  bottom: "pool2"
  top: "conv3"
  param {
    lr_mult: 1
  }
  param {
    lr_mult: 2
  }
  convolution_param {
    num_output: 64
    pad: 2
    kernel_size: 5
    stride: 1
    weight_filler {
      type: "gaussian"
      std: 0.01
    }
    bias_filler {
      type: "constant"
    }
  }
}
layer {
  name: "relu3"
  type: "ReLU"
  bottom: "conv3"
  top: "conv3"
}
layer {
  name: "conv4"
  type: "Convolution"
  bottom: "conv3"
  top: "conv4"
  param {
    lr_mult: 1
  }
  param {
    lr_mult: 2
  }
  convolution_param {
    num_output: 64
    pad: 2
    kernel_size: 5
    stride: 1
    weight_filler {
      type: "gaussian"
      std: 0.01
    }
    bias_filler {
      type: "constant"
    }
  }
}
layer {
  name: "relu4"
  type: "ReLU"
  bottom: "conv4"
  top: "conv4"
}
layer {
  name: "conv5"
  type: "Convolution"
  bottom: "conv4"
  top: "conv5"
  param {
    lr_mult: 1
  }
  param {
    lr_mult: 2
  }
  convolution_param {
    num_output: 64
    pad: 2
    kernel_size: 5
    stride: 1
    weight_filler {
      type: "gaussian"
      std: 0.01
    }
    bias_filler {
      type: "constant"
    }
  }
}
layer {
  name: "relu5"
  type: "ReLU"
  bottom: "conv5"
  top: "conv5"
}
layer {
  name: "pool5"
  type: "Pooling"
  bottom: "conv5"
  top: "pool5"
  pooling_param {
    pool: AVE
    kernel_size: 3
    stride: 2
  }
}
layer {
  name: "ip1"
  type: "InnerProduct"
  bottom: "pool5"
  top: "ip1"
  param {
    lr_mult: 1
  }
  param {
    lr_mult: 2
  }
  inner_product_param {
    num_output: 64
    weight_filler {
      type: "gaussian"
      std: 0.1
    }
    bias_filler {
      type: "constant"
    }
  }
}
layer {
  name: "ip2"
  type: "InnerProduct"
  bottom: "ip1"
  top: "ip2"
  param {
    lr_mult: 1
  }
  param {
    lr_mult: 2
  }
  inner_product_param {
    num_output: 64
    weight_filler {
      type: "gaussian"
      std: 0.1
    }
    bias_filler {
      type: "constant"
    }
  }
}
layer {
  name: "ip3"
  type: "InnerProduct"
  bottom: "ip2"
  top: "ip3"
  param {
    lr_mult: 1
  }
  param {
    lr_mult: 2
  }
  inner_product_param {
    num_output: 50
    weight_filler {
      type: "gaussian"
      std: 0.1
    }
    bias_filler {
      type: "constant"
    }
  }
}
layer {
  name: "loss"
  type: "SoftmaxWithLoss"
  bottom: "ip3"
  bottom: "label"
  top: "loss"
}
I0501 22:14:40.012244 15210 layer_factory.hpp:77] Creating layer parameters
I0501 22:14:40.012253 15210 net.cpp:94] Creating Layer parameters
I0501 22:14:40.012256 15210 net.cpp:409] parameters -> data
I0501 22:14:40.012264 15210 net.cpp:409] parameters -> label
I0501 22:14:40.012269 15210 hdf5_data_layer.cpp:79] Loading list of HDF5 filenames from: /home/purduethu/scratch/radon/d/deng106/CNNStatisticalModel/distributions/input/50_distributions_900_sample_size_train-distributions-path.txt
I0501 22:14:40.012285 15210 hdf5_data_layer.cpp:93] Number of HDF5 files: 1
I0501 22:14:41.467098 15210 hdf5.cpp:35] Datatype class: H5T_INTEGER
I0501 22:14:41.470144 15210 net.cpp:144] Setting up parameters
I0501 22:14:41.470162 15210 net.cpp:151] Top shape: 20 1 30 30 (18000)
I0501 22:14:41.470167 15210 net.cpp:151] Top shape: 20 (20)
I0501 22:14:41.470170 15210 net.cpp:159] Memory required for data: 72080
I0501 22:14:41.470177 15210 layer_factory.hpp:77] Creating layer conv1
I0501 22:14:41.470192 15210 net.cpp:94] Creating Layer conv1
I0501 22:14:41.470196 15210 net.cpp:435] conv1 <- data
I0501 22:14:41.470203 15210 net.cpp:409] conv1 -> conv1
I0501 22:14:41.473704 15210 net.cpp:144] Setting up conv1
I0501 22:14:41.473718 15210 net.cpp:151] Top shape: 20 64 30 30 (1152000)
I0501 22:14:41.473722 15210 net.cpp:159] Memory required for data: 4680080
I0501 22:14:41.473732 15210 layer_factory.hpp:77] Creating layer relu1
I0501 22:14:41.473740 15210 net.cpp:94] Creating Layer relu1
I0501 22:14:41.473744 15210 net.cpp:435] relu1 <- conv1
I0501 22:14:41.473749 15210 net.cpp:396] relu1 -> conv1 (in-place)
I0501 22:14:41.473757 15210 net.cpp:144] Setting up relu1
I0501 22:14:41.473762 15210 net.cpp:151] Top shape: 20 64 30 30 (1152000)
I0501 22:14:41.473764 15210 net.cpp:159] Memory required for data: 9288080
I0501 22:14:41.473767 15210 layer_factory.hpp:77] Creating layer conv2
I0501 22:14:41.473775 15210 net.cpp:94] Creating Layer conv2
I0501 22:14:41.473778 15210 net.cpp:435] conv2 <- conv1
I0501 22:14:41.473783 15210 net.cpp:409] conv2 -> conv2
I0501 22:14:41.489783 15210 net.cpp:144] Setting up conv2
I0501 22:14:41.489797 15210 net.cpp:151] Top shape: 20 64 30 30 (1152000)
I0501 22:14:41.489801 15210 net.cpp:159] Memory required for data: 13896080
I0501 22:14:41.489810 15210 layer_factory.hpp:77] Creating layer relu2
I0501 22:14:41.489816 15210 net.cpp:94] Creating Layer relu2
I0501 22:14:41.489820 15210 net.cpp:435] relu2 <- conv2
I0501 22:14:41.489825 15210 net.cpp:396] relu2 -> conv2 (in-place)
I0501 22:14:41.489832 15210 net.cpp:144] Setting up relu2
I0501 22:14:41.489836 15210 net.cpp:151] Top shape: 20 64 30 30 (1152000)
I0501 22:14:41.489840 15210 net.cpp:159] Memory required for data: 18504080
I0501 22:14:41.489842 15210 layer_factory.hpp:77] Creating layer pool2
I0501 22:14:41.489848 15210 net.cpp:94] Creating Layer pool2
I0501 22:14:41.489851 15210 net.cpp:435] pool2 <- conv2
I0501 22:14:41.489856 15210 net.cpp:409] pool2 -> pool2
I0501 22:14:41.489907 15210 net.cpp:144] Setting up pool2
I0501 22:14:41.489914 15210 net.cpp:151] Top shape: 20 64 15 15 (288000)
I0501 22:14:41.489917 15210 net.cpp:159] Memory required for data: 19656080
I0501 22:14:41.489922 15210 layer_factory.hpp:77] Creating layer conv3
I0501 22:14:41.489928 15210 net.cpp:94] Creating Layer conv3
I0501 22:14:41.489933 15210 net.cpp:435] conv3 <- pool2
I0501 22:14:41.489943 15210 net.cpp:409] conv3 -> conv3
I0501 22:14:41.498865 15210 net.cpp:144] Setting up conv3
I0501 22:14:41.498903 15210 net.cpp:151] Top shape: 20 64 15 15 (288000)
I0501 22:14:41.498915 15210 net.cpp:159] Memory required for data: 20808080
I0501 22:14:41.498939 15210 layer_factory.hpp:77] Creating layer relu3
I0501 22:14:41.498944 15210 net.cpp:94] Creating Layer relu3
I0501 22:14:41.498949 15210 net.cpp:435] relu3 <- conv3
I0501 22:14:41.498953 15210 net.cpp:396] relu3 -> conv3 (in-place)
I0501 22:14:41.498960 15210 net.cpp:144] Setting up relu3
I0501 22:14:41.498965 15210 net.cpp:151] Top shape: 20 64 15 15 (288000)
I0501 22:14:41.498967 15210 net.cpp:159] Memory required for data: 21960080
I0501 22:14:41.498970 15210 layer_factory.hpp:77] Creating layer conv4
I0501 22:14:41.498980 15210 net.cpp:94] Creating Layer conv4
I0501 22:14:41.498982 15210 net.cpp:435] conv4 <- conv3
I0501 22:14:41.498987 15210 net.cpp:409] conv4 -> conv4
I0501 22:14:41.507688 15210 net.cpp:144] Setting up conv4
I0501 22:14:41.507704 15210 net.cpp:151] Top shape: 20 64 15 15 (288000)
I0501 22:14:41.507709 15210 net.cpp:159] Memory required for data: 23112080
I0501 22:14:41.507715 15210 layer_factory.hpp:77] Creating layer relu4
I0501 22:14:41.507721 15210 net.cpp:94] Creating Layer relu4
I0501 22:14:41.507725 15210 net.cpp:435] relu4 <- conv4
I0501 22:14:41.507730 15210 net.cpp:396] relu4 -> conv4 (in-place)
I0501 22:14:41.507737 15210 net.cpp:144] Setting up relu4
I0501 22:14:41.507741 15210 net.cpp:151] Top shape: 20 64 15 15 (288000)
I0501 22:14:41.507745 15210 net.cpp:159] Memory required for data: 24264080
I0501 22:14:41.507747 15210 layer_factory.hpp:77] Creating layer conv5
I0501 22:14:41.507755 15210 net.cpp:94] Creating Layer conv5
I0501 22:14:41.507758 15210 net.cpp:435] conv5 <- conv4
I0501 22:14:41.507763 15210 net.cpp:409] conv5 -> conv5
I0501 22:14:41.515672 15210 net.cpp:144] Setting up conv5
I0501 22:14:41.515687 15210 net.cpp:151] Top shape: 20 64 15 15 (288000)
I0501 22:14:41.515692 15210 net.cpp:159] Memory required for data: 25416080
I0501 22:14:41.515700 15210 layer_factory.hpp:77] Creating layer relu5
I0501 22:14:41.515707 15210 net.cpp:94] Creating Layer relu5
I0501 22:14:41.515710 15210 net.cpp:435] relu5 <- conv5
I0501 22:14:41.515715 15210 net.cpp:396] relu5 -> conv5 (in-place)
I0501 22:14:41.515722 15210 net.cpp:144] Setting up relu5
I0501 22:14:41.515727 15210 net.cpp:151] Top shape: 20 64 15 15 (288000)
I0501 22:14:41.515730 15210 net.cpp:159] Memory required for data: 26568080
I0501 22:14:41.515733 15210 layer_factory.hpp:77] Creating layer pool5
I0501 22:14:41.515738 15210 net.cpp:94] Creating Layer pool5
I0501 22:14:41.515743 15210 net.cpp:435] pool5 <- conv5
I0501 22:14:41.515746 15210 net.cpp:409] pool5 -> pool5
I0501 22:14:41.515784 15210 net.cpp:144] Setting up pool5
I0501 22:14:41.515791 15210 net.cpp:151] Top shape: 20 64 7 7 (62720)
I0501 22:14:41.515794 15210 net.cpp:159] Memory required for data: 26818960
I0501 22:14:41.515797 15210 layer_factory.hpp:77] Creating layer ip1
I0501 22:14:41.515805 15210 net.cpp:94] Creating Layer ip1
I0501 22:14:41.515808 15210 net.cpp:435] ip1 <- pool5
I0501 22:14:41.515813 15210 net.cpp:409] ip1 -> ip1
I0501 22:14:41.520635 15210 net.cpp:144] Setting up ip1
I0501 22:14:41.520645 15210 net.cpp:151] Top shape: 20 64 (1280)
I0501 22:14:41.520649 15210 net.cpp:159] Memory required for data: 26824080
I0501 22:14:41.520654 15210 layer_factory.hpp:77] Creating layer ip2
I0501 22:14:41.520661 15210 net.cpp:94] Creating Layer ip2
I0501 22:14:41.520664 15210 net.cpp:435] ip2 <- ip1
I0501 22:14:41.520669 15210 net.cpp:409] ip2 -> ip2
I0501 22:14:41.520900 15210 net.cpp:144] Setting up ip2
I0501 22:14:41.520906 15210 net.cpp:151] Top shape: 20 64 (1280)
I0501 22:14:41.520910 15210 net.cpp:159] Memory required for data: 26829200
I0501 22:14:41.520915 15210 layer_factory.hpp:77] Creating layer ip3
I0501 22:14:41.520920 15210 net.cpp:94] Creating Layer ip3
I0501 22:14:41.520923 15210 net.cpp:435] ip3 <- ip2
I0501 22:14:41.520928 15210 net.cpp:409] ip3 -> ip3
I0501 22:14:41.521118 15210 net.cpp:144] Setting up ip3
I0501 22:14:41.521126 15210 net.cpp:151] Top shape: 20 50 (1000)
I0501 22:14:41.521129 15210 net.cpp:159] Memory required for data: 26833200
I0501 22:14:41.521134 15210 layer_factory.hpp:77] Creating layer loss
I0501 22:14:41.521140 15210 net.cpp:94] Creating Layer loss
I0501 22:14:41.521143 15210 net.cpp:435] loss <- ip3
I0501 22:14:41.521147 15210 net.cpp:435] loss <- label
I0501 22:14:41.521152 15210 net.cpp:409] loss -> loss
I0501 22:14:41.521158 15210 layer_factory.hpp:77] Creating layer loss
…
I0501 22:14:41.521669 15210 solver.cpp:181] Creating test net (#0) specified by net file: ./protocol/dis_50_900_dimension.protocol_distribution
I0501 22:14:41.521695 15210 net.cpp:323] The NetState phase (1) differed from the phase (0) specified by a rule in layer parameters
I0501 22:14:41.521787 15210 net.cpp:52] Initializing net from parameters: 
state {
  phase: TEST
}
layer {
  name: "intercept"
  type: "HDF5Data"
  top: "data"
  top: "label"
  include {
    phase: TEST
  }
  hdf5_data_param {
    source: "/home/purduethu/scratch/radon/d/deng106/CNNStatisticalModel/distributions/input/50_distributions_900_sample_size_test-distributions-path.txt"
    batch_size: 20
  }
}
layer {
  name: "conv1"
  type: "Convolution"
  bottom: "data"
  top: "conv1"
  param {
    lr_mult: 1
  }
  param {
    lr_mult: 2
  }
  convolution_param {
    num_output: 64
    pad: 2
    kernel_size: 5
    stride: 1
    weight_filler {
      type: "gaussian"
      std: 0.0001
    }
    bias_filler {
      type: "constant"
    }
  }
}
layer {
  name: "relu1"
  type: "ReLU"
  bottom: "conv1"
  top: "conv1"
}
layer {
  name: "conv2"
  type: "Convolution"
  bottom: "conv1"
  top: "conv2"
  param {
    lr_mult: 1
  }
  param {
    lr_mult: 2
  }
  convolution_param {
    num_output: 64
    pad: 2
    kernel_size: 5
    stride: 1
    weight_filler {
      type: "gaussian"
      std: 0.01
    }
    bias_filler {
      type: "constant"
    }
  }
}
layer {
  name: "relu2"
  type: "ReLU"
  bottom: "conv2"
  top: "conv2"
}
layer {
  name: "pool2"
  type: "Pooling"
  bottom: "conv2"
  top: "pool2"
  pooling_param {
    pool: MAX
    kernel_size: 3
    stride: 2
  }
}
layer {
  name: "conv3"
  type: "Convolution"
  bottom: "pool2"
  top: "conv3"
  param {
    lr_mult: 1
  }
  param {
    lr_mult: 2
  }
  convolution_param {
    num_output: 64
    pad: 2
    kernel_size: 5
    stride: 1
    weight_filler {
      type: "gaussian"
      std: 0.01
    }
    bias_filler {
      type: "constant"
    }
  }
}
layer {
  name: "relu3"
  type: "ReLU"
  bottom: "conv3"
  top: "conv3"
}
layer {
  name: "conv4"
  type: "Convolution"
  bottom: "conv3"
  top: "conv4"
  param {
    lr_mult: 1
  }
  param {
    lr_mult: 2
  }
  convolution_param {
    num_output: 64
    pad: 2
    kernel_size: 5
    stride: 1
    weight_filler {
      type: "gaussian"
      std: 0.01
    }
    bias_filler {
      type: "constant"
    }
  }
}
layer {
  name: "relu4"
  type: "ReLU"
  bottom: "conv4"
  top: "conv4"
}
layer {
  name: "conv5"
  type: "Convolution"
  bottom: "conv4"
  top: "conv5"
  param {
    lr_mult: 1
  }
  param {
    lr_mult: 2
  }
  convolution_param {
    num_output: 64
    pad: 2
    kernel_size: 5
    stride: 1
    weight_filler {
      type: "gaussian"
      std: 0.01
    }
    bias_filler {
      type: "constant"
    }
  }
}
layer {
  name: "relu5"
  type: "ReLU"
  bottom: "conv5"
  top: "conv5"
}
layer {
  name: "pool5"
  type: "Pooling"
  bottom: "conv5"
  top: "pool5"
  pooling_param {
    pool: AVE
    kernel_size: 3
    stride: 2
  }
}
layer {
  name: "ip1"
  type: "InnerProduct"
  bottom: "pool5"
  top: "ip1"
  param {
    lr_mult: 1
  }
  param {
    lr_mult: 2
  }
  inner_product_param {
    num_output: 64
    weight_filler {
      type: "gaussian"
      std: 0.1
    }
    bias_filler {
      type: "constant"
    }
  }
}
layer {
  name: "ip2"
  type: "InnerProduct"
  bottom: "ip1"
  top: "ip2"
  param {
    lr_mult: 1
  }
  param {
    lr_mult: 2
  }
  inner_product_param {
    num_output: 64
    weight_filler {
      type: "gaussian"
      std: 0.1
    }
    bias_filler {
      type: "constant"
    }
  }
}
layer {
  name: "ip3"
  type: "InnerProduct"
  bottom: "ip2"
  top: "ip3"
  param {
    lr_mult: 1
  }
  param {
    lr_mult: 2
  }
  inner_product_param {
    num_output: 50
    weight_filler {
      type: "gaussian"
      std: 0.1
    }
    bias_filler {
      type: "constant"
    }
  }
}
layer {
  name: "accuracy"
  type: "Accuracy"
  bottom: "ip3"
  bottom: "label"
  top: "accuracy"
  include {
    phase: TEST
  }
}
layer {
  name: "loss"
  type: "SoftmaxWithLoss"
  bottom: "ip3"
  bottom: "label"
  top: "loss"
}
I0501 22:14:41.521848 15210 layer_factory.hpp:77] Creating layer intercept
I0501 22:14:41.521857 15210 net.cpp:94] Creating Layer intercept
I0501 22:14:41.521860 15210 net.cpp:409] intercept -> data
I0501 22:14:41.521867 15210 net.cpp:409] intercept -> label
I0501 22:14:41.521872 15210 hdf5_data_layer.cpp:79] Loading list of HDF5 filenames from: /home/purduethu/scratch/radon/d/deng106/CNNStatisticalModel/distributions/input/50_distributions_900_sample_size_test-distributions-path.txt
I0501 22:14:41.521891 15210 hdf5_data_layer.cpp:93] Number of HDF5 files: 1
I0501 22:14:41.883427 15210 net.cpp:144] Setting up intercept
I0501 22:14:41.883460 15210 net.cpp:151] Top shape: 20 1 30 30 (18000)
I0501 22:14:41.883466 15210 net.cpp:151] Top shape: 20 (20)
I0501 22:14:41.883469 15210 net.cpp:159] Memory required for data: 72080
I0501 22:14:41.883476 15210 layer_factory.hpp:77] Creating layer label_intercept_1_split
I0501 22:14:41.883493 15210 net.cpp:94] Creating Layer label_intercept_1_split
I0501 22:14:41.883498 15210 net.cpp:435] label_intercept_1_split <- label
I0501 22:14:41.883503 15210 net.cpp:409] label_intercept_1_split -> label_intercept_1_split_0
I0501 22:14:41.883512 15210 net.cpp:409] label_intercept_1_split -> label_intercept_1_split_1
I0501 22:14:41.883565 15210 net.cpp:144] Setting up label_intercept_1_split
I0501 22:14:41.883572 15210 net.cpp:151] Top shape: 20 (20)
I0501 22:14:41.883575 15210 net.cpp:151] Top shape: 20 (20)
I0501 22:14:41.883579 15210 net.cpp:159] Memory required for data: 72240
I0501 22:14:41.883582 15210 layer_factory.hpp:77] Creating layer conv1
I0501 22:14:41.883594 15210 net.cpp:94] Creating Layer conv1
I0501 22:14:41.883597 15210 net.cpp:435] conv1 <- data
I0501 22:14:41.883602 15210 net.cpp:409] conv1 -> conv1
I0501 22:14:41.885113 15210 net.cpp:144] Setting up conv1
I0501 22:14:41.885128 15210 net.cpp:151] Top shape: 20 64 30 30 (1152000)
I0501 22:14:41.885131 15210 net.cpp:159] Memory required for data: 4680240
I0501 22:14:41.885141 15210 layer_factory.hpp:77] Creating layer relu1
I0501 22:14:41.885149 15210 net.cpp:94] Creating Layer relu1
I0501 22:14:41.885151 15210 net.cpp:435] relu1 <- conv1
I0501 22:14:41.885156 15210 net.cpp:396] relu1 -> conv1 (in-place)
I0501 22:14:41.885164 15210 net.cpp:144] Setting up relu1
I0501 22:14:41.885169 15210 net.cpp:151] Top shape: 20 64 30 30 (1152000)
I0501 22:14:41.885171 15210 net.cpp:159] Memory required for data: 9288240
I0501 22:14:41.885174 15210 layer_factory.hpp:77] Creating layer conv2
I0501 22:14:41.885182 15210 net.cpp:94] Creating Layer conv2
I0501 22:14:41.885186 15210 net.cpp:435] conv2 <- conv1
I0501 22:14:41.885190 15210 net.cpp:409] conv2 -> conv2
I0501 22:14:41.892670 15210 net.cpp:144] Setting up conv2
I0501 22:14:41.892685 15210 net.cpp:151] Top shape: 20 64 30 30 (1152000)
I0501 22:14:41.892689 15210 net.cpp:159] Memory required for data: 13896240
I0501 22:14:41.892699 15210 layer_factory.hpp:77] Creating layer relu2
I0501 22:14:41.892705 15210 net.cpp:94] Creating Layer relu2
I0501 22:14:41.892709 15210 net.cpp:435] relu2 <- conv2
I0501 22:14:41.892714 15210 net.cpp:396] relu2 -> conv2 (in-place)
I0501 22:14:41.892721 15210 net.cpp:144] Setting up relu2
I0501 22:14:41.892726 15210 net.cpp:151] Top shape: 20 64 30 30 (1152000)
I0501 22:14:41.892729 15210 net.cpp:159] Memory required for data: 18504240
I0501 22:14:41.892732 15210 layer_factory.hpp:77] Creating layer pool2
I0501 22:14:41.892738 15210 net.cpp:94] Creating Layer pool2
I0501 22:14:41.892741 15210 net.cpp:435] pool2 <- conv2
I0501 22:14:41.892745 15210 net.cpp:409] pool2 -> pool2
I0501 22:14:41.892799 15210 net.cpp:144] Setting up pool2
I0501 22:14:41.892807 15210 net.cpp:151] Top shape: 20 64 15 15 (288000)
I0501 22:14:41.892809 15210 net.cpp:159] Memory required for data: 19656240
I0501 22:14:41.892812 15210 layer_factory.hpp:77] Creating layer conv3
I0501 22:14:41.892822 15210 net.cpp:94] Creating Layer conv3
I0501 22:14:41.892825 15210 net.cpp:435] conv3 <- pool2
I0501 22:14:41.892830 15210 net.cpp:409] conv3 -> conv3
I0501 22:14:41.898069 15210 net.cpp:144] Setting up conv3
I0501 22:14:41.898103 15210 net.cpp:151] Top shape: 20 64 15 15 (288000)
I0501 22:14:41.898108 15210 net.cpp:159] Memory required for data: 20808240
I0501 22:14:41.898116 15210 layer_factory.hpp:77] Creating layer relu3
I0501 22:14:41.898123 15210 net.cpp:94] Creating Layer relu3
I0501 22:14:41.898126 15210 net.cpp:435] relu3 <- conv3
I0501 22:14:41.898131 15210 net.cpp:396] relu3 -> conv3 (in-place)
I0501 22:14:41.898138 15210 net.cpp:144] Setting up relu3
I0501 22:14:41.898144 15210 net.cpp:151] Top shape: 20 64 15 15 (288000)
I0501 22:14:41.898146 15210 net.cpp:159] Memory required for data: 21960240
I0501 22:14:41.898149 15210 layer_factory.hpp:77] Creating layer conv4
I0501 22:14:41.898159 15210 net.cpp:94] Creating Layer conv4
I0501 22:14:41.898162 15210 net.cpp:435] conv4 <- conv3
I0501 22:14:41.898167 15210 net.cpp:409] conv4 -> conv4
I0501 22:14:41.903005 15210 net.cpp:144] Setting up conv4
I0501 22:14:41.903041 15210 net.cpp:151] Top shape: 20 64 15 15 (288000)
I0501 22:14:41.903053 15210 net.cpp:159] Memory required for data: 23112240
I0501 22:14:41.903079 15210 layer_factory.hpp:77] Creating layer relu4
I0501 22:14:41.903086 15210 net.cpp:94] Creating Layer relu4
I0501 22:14:41.903090 15210 net.cpp:435] relu4 <- conv4
I0501 22:14:41.903095 15210 net.cpp:396] relu4 -> conv4 (in-place)
I0501 22:14:41.903102 15210 net.cpp:144] Setting up relu4
I0501 22:14:41.903106 15210 net.cpp:151] Top shape: 20 64 15 15 (288000)
I0501 22:14:41.903110 15210 net.cpp:159] Memory required for data: 24264240
I0501 22:14:41.903112 15210 layer_factory.hpp:77] Creating layer conv5
I0501 22:14:41.903120 15210 net.cpp:94] Creating Layer conv5
I0501 22:14:41.903123 15210 net.cpp:435] conv5 <- conv4
I0501 22:14:41.903128 15210 net.cpp:409] conv5 -> conv5
I0501 22:14:41.907907 15210 net.cpp:144] Setting up conv5
I0501 22:14:41.907943 15210 net.cpp:151] Top shape: 20 64 15 15 (288000)
I0501 22:14:41.907953 15210 net.cpp:159] Memory required for data: 25416240
I0501 22:14:41.907976 15210 layer_factory.hpp:77] Creating layer relu5
I0501 22:14:41.908001 15210 net.cpp:94] Creating Layer relu5
I0501 22:14:41.908005 15210 net.cpp:435] relu5 <- conv5
I0501 22:14:41.908010 15210 net.cpp:396] relu5 -> conv5 (in-place)
I0501 22:14:41.908016 15210 net.cpp:144] Setting up relu5
I0501 22:14:41.908020 15210 net.cpp:151] Top shape: 20 64 15 15 (288000)
I0501 22:14:41.908023 15210 net.cpp:159] Memory required for data: 26568240
I0501 22:14:41.908026 15210 layer_factory.hpp:77] Creating layer pool5
I0501 22:14:41.908033 15210 net.cpp:94] Creating Layer pool5
I0501 22:14:41.908036 15210 net.cpp:435] pool5 <- conv5
I0501 22:14:41.908042 15210 net.cpp:409] pool5 -> pool5
I0501 22:14:41.908079 15210 net.cpp:144] Setting up pool5
I0501 22:14:41.908087 15210 net.cpp:151] Top shape: 20 64 7 7 (62720)
I0501 22:14:41.908090 15210 net.cpp:159] Memory required for data: 26819120
I0501 22:14:41.908093 15210 layer_factory.hpp:77] Creating layer ip1
I0501 22:14:41.908100 15210 net.cpp:94] Creating Layer ip1
I0501 22:14:41.908104 15210 net.cpp:435] ip1 <- pool5
I0501 22:14:41.908109 15210 net.cpp:409] ip1 -> ip1
I0501 22:14:41.913769 15210 net.cpp:144] Setting up ip1
I0501 22:14:41.913782 15210 net.cpp:151] Top shape: 20 64 (1280)
I0501 22:14:41.913785 15210 net.cpp:159] Memory required for data: 26824240
I0501 22:14:41.913791 15210 layer_factory.hpp:77] Creating layer ip2
I0501 22:14:41.913800 15210 net.cpp:94] Creating Layer ip2
I0501 22:14:41.913803 15210 net.cpp:435] ip2 <- ip1
I0501 22:14:41.913808 15210 net.cpp:409] ip2 -> ip2
I0501 22:14:41.914044 15210 net.cpp:144] Setting up ip2
I0501 22:14:41.914052 15210 net.cpp:151] Top shape: 20 64 (1280)
I0501 22:14:41.914055 15210 net.cpp:159] Memory required for data: 26829360
I0501 22:14:41.914060 15210 layer_factory.hpp:77] Creating layer ip3
I0501 22:14:41.914067 15210 net.cpp:94] Creating Layer ip3
I0501 22:14:41.914072 15210 net.cpp:435] ip3 <- ip2
I0501 22:14:41.914077 15210 net.cpp:409] ip3 -> ip3
I0501 22:14:41.914275 15210 net.cpp:144] Setting up ip3
I0501 22:14:41.914283 15210 net.cpp:151] Top shape: 20 50 (1000)
I0501 22:14:41.914286 15210 net.cpp:159] Memory required for data: 26833360
I0501 22:14:41.914291 15210 layer_factory.hpp:77] Creating layer ip3_ip3_0_split
I0501 22:14:41.914296 15210 net.cpp:94] Creating Layer ip3_ip3_0_split
I0501 22:14:41.914299 15210 net.cpp:435] ip3_ip3_0_split <- ip3
I0501 22:14:41.914304 15210 net.cpp:409] ip3_ip3_0_split -> ip3_ip3_0_split_0
I0501 22:14:41.914309 15210 net.cpp:409] ip3_ip3_0_split -> ip3_ip3_0_split_1
I0501 22:14:41.914350 15210 net.cpp:144] Setting up ip3_ip3_0_split
I0501 22:14:41.914356 15210 net.cpp:151] Top shape: 20 50 (1000)
I0501 22:14:41.914361 15210 net.cpp:151] Top shape: 20 50 (1000)
I0501 22:14:41.914363 15210 net.cpp:159] Memory required for data: 26841360
I0501 22:14:41.914366 15210 layer_factory.hpp:77] Creating layer accuracy
I0501 22:14:41.914372 15210 net.cpp:94] Creating Layer accuracy
I0501 22:14:41.914376 15210 net.cpp:435] accuracy <- ip3_ip3_0_split_0
I0501 22:14:41.914379 15210 net.cpp:435] accuracy <- label_intercept_1_split_0
I0501 22:14:41.914384 15210 net.cpp:409] accuracy -> accuracy
…
