…
I0501 18:32:40.496889 14054 net.cpp:323] The NetState phase (0) differed from the phase (1) specified by a rule in layer intercept
I0501 18:32:40.496907 14054 net.cpp:323] The NetState phase (0) differed from the phase (1) specified by a rule in layer loss
I0501 18:32:40.496997 14054 net.cpp:52] Initializing net from parameters: 
state {
  phase: TRAIN
}
layer {
  name: "parameters"
  type: "HDF5Data"
  top: "data"
  top: "label"
  include {
    phase: TRAIN
  }
  hdf5_data_param {
    source: "/home/purduethu/scratch/radon/d/deng106/CNNStatisticalModel/distributions/input/50_distributions_900_sample_size_train-parameters-path.txt"
    batch_size: 20
  }
}
layer {
  name: "conv1"
  type: "Convolution"
  bottom: "data"
  top: "conv1"
  param {
    lr_mult: 1
  }
  param {
    lr_mult: 2
  }
  convolution_param {
    num_output: 64
    pad: 2
    kernel_size: 5
    stride: 1
    weight_filler {
      type: "gaussian"
      std: 0.0001
    }
    bias_filler {
      type: "constant"
    }
  }
}
layer {
  name: "relu1"
  type: "ReLU"
  bottom: "conv1"
  top: "conv1"
}
layer {
  name: "conv2"
  type: "Convolution"
  bottom: "conv1"
  top: "conv2"
  param {
    lr_mult: 1
  }
  param {
    lr_mult: 2
  }
  convolution_param {
    num_output: 64
    pad: 2
    kernel_size: 5
    stride: 1
    weight_filler {
      type: "gaussian"
      std: 0.01
    }
    bias_filler {
      type: "constant"
    }
  }
}
layer {
  name: "relu2"
  type: "ReLU"
  bottom: "conv2"
  top: "conv2"
}
layer {
  name: "pool2"
  type: "Pooling"
  bottom: "conv2"
  top: "pool2"
  pooling_param {
    pool: MAX
    kernel_size: 3
    stride: 2
  }
}
layer {
  name: "conv3"
  type: "Convolution"
  bottom: "pool2"
  top: "conv3"
  param {
    lr_mult: 1
  }
  param {
    lr_mult: 2
  }
  convolution_param {
    num_output: 64
    pad: 2
    kernel_size: 5
    stride: 1
    weight_filler {
      type: "gaussian"
      std: 0.01
    }
    bias_filler {
      type: "constant"
    }
  }
}
layer {
  name: "relu3"
  type: "ReLU"
  bottom: "conv3"
  top: "conv3"
}
layer {
  name: "conv4"
  type: "Convolution"
  bottom: "conv3"
  top: "conv4"
  param {
    lr_mult: 1
  }
  param {
    lr_mult: 2
  }
  convolution_param {
    num_output: 64
    pad: 2
    kernel_size: 5
    stride: 1
    weight_filler {
      type: "gaussian"
      std: 0.01
    }
    bias_filler {
      type: "constant"
    }
  }
}
layer {
  name: "relu4"
  type: "ReLU"
  bottom: "conv4"
  top: "conv4"
}
layer {
  name: "conv5"
  type: "Convolution"
  bottom: "conv4"
  top: "conv5"
  param {
    lr_mult: 1
  }
  param {
    lr_mult: 2
  }
  convolution_param {
    num_output: 64
    pad: 2
    kernel_size: 5
    stride: 1
    weight_filler {
      type: "gaussian"
      std: 0.01
    }
    bias_filler {
      type: "constant"
    }
  }
}
layer {
  name: "relu5"
  type: "ReLU"
  bottom: "conv5"
  top: "conv5"
}
layer {
  name: "pool5"
  type: "Pooling"
  bottom: "conv5"
  top: "pool5"
  pooling_param {
    pool: AVE
    kernel_size: 3
    stride: 2
  }
}
layer {
  name: "ip1"
  type: "InnerProduct"
  bottom: "pool5"
  top: "ip1"
  param {
    lr_mult: 1
  }
  param {
    lr_mult: 2
  }
  inner_product_param {
    num_output: 64
    weight_filler {
      type: "gaussian"
      std: 0.1
    }
    bias_filler {
      type: "constant"
    }
  }
}
layer {
  name: "ip2"
  type: "InnerProduct"
  bottom: "ip1"
  top: "ip2"
  param {
    lr_mult: 1
  }
  param {
    lr_mult: 2
  }
  inner_product_param {
    num_output: 64
    weight_filler {
      type: "gaussian"
      std: 0.1
    }
    bias_filler {
      type: "constant"
    }
  }
}
layer {
  name: "ip3"
  type: "InnerProduct"
  bottom: "ip2"
  top: "ip3"
  param {
    lr_mult: 1
  }
  param {
    lr_mult: 2
  }
  inner_product_param {
    num_output: 1
    weight_filler {
      type: "gaussian"
      std: 0.1
    }
    bias_filler {
      type: "constant"
    }
  }
}
layer {
  name: "loss"
  type: "HuberLoss"
  bottom: "ip3"
  bottom: "label"
  top: "loss"
  include {
    phase: TRAIN
  }
}
I0501 18:32:40.497074 14054 layer_factory.hpp:77] Creating layer parameters
I0501 18:32:40.497089 14054 net.cpp:94] Creating Layer parameters
I0501 18:32:40.497095 14054 net.cpp:409] parameters -> data
I0501 18:32:40.497115 14054 net.cpp:409] parameters -> label
I0501 18:32:40.497126 14054 hdf5_data_layer.cpp:79] Loading list of HDF5 filenames from: /home/purduethu/scratch/radon/d/deng106/CNNStatisticalModel/distributions/input/50_distributions_900_sample_size_train-parameters-path.txt
I0501 18:32:40.497149 14054 hdf5_data_layer.cpp:93] Number of HDF5 files: 1
I0501 18:32:40.497757 14054 hdf5.cpp:32] Datatype class: H5T_FLOAT
I0501 18:32:41.987587 14054 net.cpp:144] Setting up parameters
I0501 18:32:41.987620 14054 net.cpp:151] Top shape: 20 1 30 30 (18000)
I0501 18:32:41.987627 14054 net.cpp:151] Top shape: 20 (20)
I0501 18:32:41.987629 14054 net.cpp:159] Memory required for data: 72080
I0501 18:32:41.987637 14054 layer_factory.hpp:77] Creating layer conv1
I0501 18:32:41.987656 14054 net.cpp:94] Creating Layer conv1
I0501 18:32:41.987661 14054 net.cpp:435] conv1 <- data
I0501 18:32:41.987673 14054 net.cpp:409] conv1 -> conv1
I0501 18:32:41.993585 14054 net.cpp:144] Setting up conv1
I0501 18:32:41.993603 14054 net.cpp:151] Top shape: 20 64 30 30 (1152000)
I0501 18:32:41.993607 14054 net.cpp:159] Memory required for data: 4680080
I0501 18:32:41.993619 14054 layer_factory.hpp:77] Creating layer relu1
I0501 18:32:41.993628 14054 net.cpp:94] Creating Layer relu1
I0501 18:32:41.993631 14054 net.cpp:435] relu1 <- conv1
I0501 18:32:41.993636 14054 net.cpp:396] relu1 -> conv1 (in-place)
I0501 18:32:41.993652 14054 net.cpp:144] Setting up relu1
I0501 18:32:41.993657 14054 net.cpp:151] Top shape: 20 64 30 30 (1152000)
I0501 18:32:41.993660 14054 net.cpp:159] Memory required for data: 9288080
I0501 18:32:41.993664 14054 layer_factory.hpp:77] Creating layer conv2
I0501 18:32:41.993672 14054 net.cpp:94] Creating Layer conv2
I0501 18:32:41.993675 14054 net.cpp:435] conv2 <- conv1
I0501 18:32:41.993680 14054 net.cpp:409] conv2 -> conv2
I0501 18:32:42.008841 14054 net.cpp:144] Setting up conv2
I0501 18:32:42.008882 14054 net.cpp:151] Top shape: 20 64 30 30 (1152000)
I0501 18:32:42.008893 14054 net.cpp:159] Memory required for data: 13896080
I0501 18:32:42.008915 14054 layer_factory.hpp:77] Creating layer relu2
I0501 18:32:42.008934 14054 net.cpp:94] Creating Layer relu2
I0501 18:32:42.008944 14054 net.cpp:435] relu2 <- conv2
I0501 18:32:42.008958 14054 net.cpp:396] relu2 -> conv2 (in-place)
I0501 18:32:42.008980 14054 net.cpp:144] Setting up relu2
I0501 18:32:42.008993 14054 net.cpp:151] Top shape: 20 64 30 30 (1152000)
I0501 18:32:42.009002 14054 net.cpp:159] Memory required for data: 18504080
I0501 18:32:42.009011 14054 layer_factory.hpp:77] Creating layer pool2
I0501 18:32:42.009028 14054 net.cpp:94] Creating Layer pool2
I0501 18:32:42.009050 14054 net.cpp:435] pool2 <- conv2
I0501 18:32:42.009065 14054 net.cpp:409] pool2 -> pool2
I0501 18:32:42.009131 14054 net.cpp:144] Setting up pool2
I0501 18:32:42.009140 14054 net.cpp:151] Top shape: 20 64 15 15 (288000)
I0501 18:32:42.009142 14054 net.cpp:159] Memory required for data: 19656080
I0501 18:32:42.009146 14054 layer_factory.hpp:77] Creating layer conv3
I0501 18:32:42.009155 14054 net.cpp:94] Creating Layer conv3
I0501 18:32:42.009157 14054 net.cpp:435] conv3 <- pool2
I0501 18:32:42.009162 14054 net.cpp:409] conv3 -> conv3
I0501 18:32:42.017206 14054 net.cpp:144] Setting up conv3
I0501 18:32:42.017222 14054 net.cpp:151] Top shape: 20 64 15 15 (288000)
I0501 18:32:42.017226 14054 net.cpp:159] Memory required for data: 20808080
I0501 18:32:42.017235 14054 layer_factory.hpp:77] Creating layer relu3
I0501 18:32:42.017241 14054 net.cpp:94] Creating Layer relu3
I0501 18:32:42.017246 14054 net.cpp:435] relu3 <- conv3
I0501 18:32:42.017251 14054 net.cpp:396] relu3 -> conv3 (in-place)
I0501 18:32:42.017257 14054 net.cpp:144] Setting up relu3
I0501 18:32:42.017262 14054 net.cpp:151] Top shape: 20 64 15 15 (288000)
I0501 18:32:42.017266 14054 net.cpp:159] Memory required for data: 21960080
I0501 18:32:42.017268 14054 layer_factory.hpp:77] Creating layer conv4
I0501 18:32:42.017277 14054 net.cpp:94] Creating Layer conv4
I0501 18:32:42.017280 14054 net.cpp:435] conv4 <- conv3
I0501 18:32:42.017285 14054 net.cpp:409] conv4 -> conv4
I0501 18:32:42.024533 14054 net.cpp:144] Setting up conv4
I0501 18:32:42.024547 14054 net.cpp:151] Top shape: 20 64 15 15 (288000)
I0501 18:32:42.024560 14054 net.cpp:159] Memory required for data: 23112080
I0501 18:32:42.024567 14054 layer_factory.hpp:77] Creating layer relu4
I0501 18:32:42.024574 14054 net.cpp:94] Creating Layer relu4
I0501 18:32:42.024577 14054 net.cpp:435] relu4 <- conv4
I0501 18:32:42.024582 14054 net.cpp:396] relu4 -> conv4 (in-place)
I0501 18:32:42.024590 14054 net.cpp:144] Setting up relu4
I0501 18:32:42.024593 14054 net.cpp:151] Top shape: 20 64 15 15 (288000)
I0501 18:32:42.024596 14054 net.cpp:159] Memory required for data: 24264080
I0501 18:32:42.024600 14054 layer_factory.hpp:77] Creating layer conv5
I0501 18:32:42.024608 14054 net.cpp:94] Creating Layer conv5
I0501 18:32:42.024611 14054 net.cpp:435] conv5 <- conv4
I0501 18:32:42.024616 14054 net.cpp:409] conv5 -> conv5
I0501 18:32:42.031797 14054 net.cpp:144] Setting up conv5
I0501 18:32:42.031812 14054 net.cpp:151] Top shape: 20 64 15 15 (288000)
I0501 18:32:42.031816 14054 net.cpp:159] Memory required for data: 25416080
I0501 18:32:42.031826 14054 layer_factory.hpp:77] Creating layer relu5
I0501 18:32:42.031832 14054 net.cpp:94] Creating Layer relu5
I0501 18:32:42.031836 14054 net.cpp:435] relu5 <- conv5
I0501 18:32:42.031841 14054 net.cpp:396] relu5 -> conv5 (in-place)
I0501 18:32:42.031847 14054 net.cpp:144] Setting up relu5
I0501 18:32:42.031852 14054 net.cpp:151] Top shape: 20 64 15 15 (288000)
I0501 18:32:42.031855 14054 net.cpp:159] Memory required for data: 26568080
I0501 18:32:42.031858 14054 layer_factory.hpp:77] Creating layer pool5
I0501 18:32:42.031863 14054 net.cpp:94] Creating Layer pool5
I0501 18:32:42.031867 14054 net.cpp:435] pool5 <- conv5
I0501 18:32:42.031872 14054 net.cpp:409] pool5 -> pool5
I0501 18:32:42.031904 14054 net.cpp:144] Setting up pool5
I0501 18:32:42.031913 14054 net.cpp:151] Top shape: 20 64 7 7 (62720)
I0501 18:32:42.031915 14054 net.cpp:159] Memory required for data: 26818960
I0501 18:32:42.031919 14054 layer_factory.hpp:77] Creating layer ip1
I0501 18:32:42.031929 14054 net.cpp:94] Creating Layer ip1
I0501 18:32:42.031932 14054 net.cpp:435] ip1 <- pool5
I0501 18:32:42.031937 14054 net.cpp:409] ip1 -> ip1
I0501 18:32:42.037359 14054 net.cpp:144] Setting up ip1
I0501 18:32:42.037374 14054 net.cpp:151] Top shape: 20 64 (1280)
I0501 18:32:42.037377 14054 net.cpp:159] Memory required for data: 26824080
I0501 18:32:42.037384 14054 layer_factory.hpp:77] Creating layer ip2
I0501 18:32:42.037390 14054 net.cpp:94] Creating Layer ip2
I0501 18:32:42.037398 14054 net.cpp:435] ip2 <- ip1
I0501 18:32:42.037405 14054 net.cpp:409] ip2 -> ip2
I0501 18:32:42.037569 14054 net.cpp:144] Setting up ip2
I0501 18:32:42.037576 14054 net.cpp:151] Top shape: 20 64 (1280)
I0501 18:32:42.037580 14054 net.cpp:159] Memory required for data: 26829200
I0501 18:32:42.037585 14054 layer_factory.hpp:77] Creating layer ip3
I0501 18:32:42.037591 14054 net.cpp:94] Creating Layer ip3
I0501 18:32:42.037595 14054 net.cpp:435] ip3 <- ip2
I0501 18:32:42.037600 14054 net.cpp:409] ip3 -> ip3
I0501 18:32:42.037662 14054 net.cpp:144] Setting up ip3
I0501 18:32:42.037673 14054 net.cpp:151] Top shape: 20 1 (20)
I0501 18:32:42.037677 14054 net.cpp:159] Memory required for data: 26829280
I0501 18:32:42.037681 14054 layer_factory.hpp:77] Creating layer loss
I0501 18:32:42.037693 14054 net.cpp:94] Creating Layer loss
I0501 18:32:42.037696 14054 net.cpp:435] loss <- ip3
I0501 18:32:42.037700 14054 net.cpp:435] loss <- label
I0501 18:32:42.037706 14054 net.cpp:409] loss -> loss
I0501 18:32:42.037740 14054 net.cpp:144] Setting up loss
…
