…
I0501 00:36:18.227057 28751 net.cpp:323] The NetState phase (0) differed from the phase (1) specified by a rule in layer intercept
I0501 00:36:18.227073 28751 net.cpp:323] The NetState phase (0) differed from the phase (1) specified by a rule in layer loss
I0501 00:36:18.227155 28751 net.cpp:52] Initializing net from parameters: 
state {
  phase: TRAIN
}
layer {
  name: "parameters"
  type: "HDF5Data"
  top: "data"
  top: "label"
  include {
    phase: TRAIN
  }
  hdf5_data_param {
    source: "/home/purduethu/scratch/radon/d/deng106/CNNStatisticalModel/distributions/input/50_distributions_100_sample_size_train-parameters-path.txt"
    batch_size: 20
  }
}
layer {
  name: "conv1"
  type: "Convolution"
  bottom: "data"
  top: "conv1"
  param {
    lr_mult: 1
  }
  param {
    lr_mult: 2
  }
  convolution_param {
    num_output: 64
    pad: 2
    kernel_size: 5
    stride: 1
    weight_filler {
      type: "gaussian"
      std: 0.0001
    }
    bias_filler {
      type: "constant"
    }
  }
}
layer {
  name: "relu1"
  type: "ReLU"
  bottom: "conv1"
  top: "conv1"
}
layer {
  name: "conv2"
  type: "Convolution"
  bottom: "conv1"
  top: "conv2"
  param {
    lr_mult: 1
  }
  param {
    lr_mult: 2
  }
  convolution_param {
    num_output: 64
    pad: 2
    kernel_size: 5
    stride: 1
    weight_filler {
      type: "gaussian"
      std: 0.01
    }
    bias_filler {
      type: "constant"
    }
  }
}
layer {
  name: "relu2"
  type: "ReLU"
  bottom: "conv2"
  top: "conv2"
}
layer {
  name: "pool2"
  type: "Pooling"
  bottom: "conv2"
  top: "pool2"
  pooling_param {
    pool: MAX
    kernel_size: 3
    stride: 2
  }
}
layer {
  name: "conv3"
  type: "Convolution"
  bottom: "pool2"
  top: "conv3"
  param {
    lr_mult: 1
  }
  param {
    lr_mult: 2
  }
  convolution_param {
    num_output: 128
    pad: 2
    kernel_size: 5
    stride: 1
    weight_filler {
      type: "gaussian"
      std: 0.01
    }
    bias_filler {
      type: "constant"
    }
  }
}
layer {
  name: "relu3"
  type: "ReLU"
  bottom: "conv3"
  top: "conv3"
}
layer {
  name: "conv4"
  type: "Convolution"
  bottom: "conv3"
  top: "conv4"
  param {
    lr_mult: 1
  }
  param {
    lr_mult: 2
  }
  convolution_param {
    num_output: 128
    pad: 2
    kernel_size: 5
    stride: 1
    weight_filler {
      type: "gaussian"
      std: 0.01
    }
    bias_filler {
      type: "constant"
    }
  }
}
layer {
  name: "relu4"
  type: "ReLU"
  bottom: "conv4"
  top: "conv4"
}
layer {
  name: "conv5"
  type: "Convolution"
  bottom: "conv4"
  top: "conv5"
  param {
    lr_mult: 1
  }
  param {
    lr_mult: 2
  }
  convolution_param {
    num_output: 128
    pad: 2
    kernel_size: 5
    stride: 1
    weight_filler {
      type: "gaussian"
      std: 0.01
    }
    bias_filler {
      type: "constant"
    }
  }
}
layer {
  name: "relu5"
  type: "ReLU"
  bottom: "conv5"
  top: "conv5"
}
layer {
  name: "pool5"
  type: "Pooling"
  bottom: "conv5"
  top: "pool5"
  pooling_param {
    pool: AVE
    kernel_size: 3
    stride: 2
  }
}
layer {
  name: "ip1"
  type: "InnerProduct"
  bottom: "pool5"
  top: "ip1"
  param {
    lr_mult: 1
  }
  param {
    lr_mult: 2
  }
  inner_product_param {
    num_output: 1024
    weight_filler {
      type: "gaussian"
      std: 0.1
    }
    bias_filler {
      type: "constant"
    }
  }
}
layer {
  name: "ip2"
  type: "InnerProduct"
  bottom: "ip1"
  top: "ip2"
  param {
    lr_mult: 1
  }
  param {
    lr_mult: 2
  }
  inner_product_param {
    num_output: 512
    weight_filler {
      type: "gaussian"
      std: 0.1
    }
    bias_filler {
      type: "constant"
    }
  }
}
layer {
  name: "ip3"
  type: "InnerProduct"
  bottom: "ip2"
  top: "ip3"
  param {
    lr_mult: 1
  }
  param {
    lr_mult: 2
  }
  inner_product_param {
    num_output: 1
    weight_filler {
      type: "gaussian"
      std: 0.1
    }
    bias_filler {
      type: "constant"
    }
  }
}
layer {
  name: "loss"
  type: "HuberLoss"
  bottom: "ip3"
  bottom: "label"
  top: "loss"
  include {
    phase: TRAIN
  }
}
I0501 00:36:18.227208 28751 layer_factory.hpp:77] Creating layer parameters
I0501 00:36:18.227226 28751 net.cpp:94] Creating Layer parameters
I0501 00:36:18.227229 28751 net.cpp:409] parameters -> data
I0501 00:36:18.227239 28751 net.cpp:409] parameters -> label
I0501 00:36:18.227246 28751 hdf5_data_layer.cpp:79] Loading list of HDF5 filenames from: /home/purduethu/scratch/radon/d/deng106/CNNStatisticalModel/distributions/input/50_distributions_100_sample_size_train-parameters-path.txt
I0501 00:36:18.227262 28751 hdf5_data_layer.cpp:93] Number of HDF5 files: 1
I0501 00:36:18.227833 28751 hdf5.cpp:32] Datatype class: H5T_FLOAT
I0501 00:36:18.396147 28751 net.cpp:144] Setting up parameters
I0501 00:36:18.396178 28751 net.cpp:151] Top shape: 20 1 10 10 (2000)
I0501 00:36:18.396183 28751 net.cpp:151] Top shape: 20 (20)
I0501 00:36:18.396188 28751 net.cpp:159] Memory required for data: 8080
I0501 00:36:18.396193 28751 layer_factory.hpp:77] Creating layer conv1
I0501 00:36:18.396216 28751 net.cpp:94] Creating Layer conv1
I0501 00:36:18.396220 28751 net.cpp:435] conv1 <- data
I0501 00:36:18.396227 28751 net.cpp:409] conv1 -> conv1
I0501 00:36:18.400457 28751 net.cpp:144] Setting up conv1
I0501 00:36:18.400477 28751 net.cpp:151] Top shape: 20 64 10 10 (128000)
I0501 00:36:18.400481 28751 net.cpp:159] Memory required for data: 520080
I0501 00:36:18.400492 28751 layer_factory.hpp:77] Creating layer relu1
I0501 00:36:18.400501 28751 net.cpp:94] Creating Layer relu1
I0501 00:36:18.400506 28751 net.cpp:435] relu1 <- conv1
I0501 00:36:18.400509 28751 net.cpp:396] relu1 -> conv1 (in-place)
I0501 00:36:18.400522 28751 net.cpp:144] Setting up relu1
I0501 00:36:18.400527 28751 net.cpp:151] Top shape: 20 64 10 10 (128000)
I0501 00:36:18.400530 28751 net.cpp:159] Memory required for data: 1032080
I0501 00:36:18.400533 28751 layer_factory.hpp:77] Creating layer conv2
I0501 00:36:18.400542 28751 net.cpp:94] Creating Layer conv2
I0501 00:36:18.400545 28751 net.cpp:435] conv2 <- conv1
I0501 00:36:18.400566 28751 net.cpp:409] conv2 -> conv2
I0501 00:36:18.406641 28751 net.cpp:144] Setting up conv2
I0501 00:36:18.406656 28751 net.cpp:151] Top shape: 20 64 10 10 (128000)
I0501 00:36:18.406661 28751 net.cpp:159] Memory required for data: 1544080
I0501 00:36:18.406668 28751 layer_factory.hpp:77] Creating layer relu2
I0501 00:36:18.406675 28751 net.cpp:94] Creating Layer relu2
I0501 00:36:18.406679 28751 net.cpp:435] relu2 <- conv2
I0501 00:36:18.406684 28751 net.cpp:396] relu2 -> conv2 (in-place)
I0501 00:36:18.406692 28751 net.cpp:144] Setting up relu2
I0501 00:36:18.406697 28751 net.cpp:151] Top shape: 20 64 10 10 (128000)
I0501 00:36:18.406699 28751 net.cpp:159] Memory required for data: 2056080
I0501 00:36:18.406702 28751 layer_factory.hpp:77] Creating layer pool2
I0501 00:36:18.406708 28751 net.cpp:94] Creating Layer pool2
I0501 00:36:18.406716 28751 net.cpp:435] pool2 <- conv2
I0501 00:36:18.406720 28751 net.cpp:409] pool2 -> pool2
I0501 00:36:18.406772 28751 net.cpp:144] Setting up pool2
I0501 00:36:18.406780 28751 net.cpp:151] Top shape: 20 64 5 5 (32000)
I0501 00:36:18.406783 28751 net.cpp:159] Memory required for data: 2184080
I0501 00:36:18.406786 28751 layer_factory.hpp:77] Creating layer conv3
I0501 00:36:18.406795 28751 net.cpp:94] Creating Layer conv3
I0501 00:36:18.406798 28751 net.cpp:435] conv3 <- pool2
I0501 00:36:18.406802 28751 net.cpp:409] conv3 -> conv3
I0501 00:36:18.414924 28751 net.cpp:144] Setting up conv3
I0501 00:36:18.414938 28751 net.cpp:151] Top shape: 20 128 5 5 (64000)
I0501 00:36:18.414942 28751 net.cpp:159] Memory required for data: 2440080
I0501 00:36:18.414950 28751 layer_factory.hpp:77] Creating layer relu3
I0501 00:36:18.414957 28751 net.cpp:94] Creating Layer relu3
I0501 00:36:18.414959 28751 net.cpp:435] relu3 <- conv3
I0501 00:36:18.414964 28751 net.cpp:396] relu3 -> conv3 (in-place)
I0501 00:36:18.414971 28751 net.cpp:144] Setting up relu3
I0501 00:36:18.414976 28751 net.cpp:151] Top shape: 20 128 5 5 (64000)
I0501 00:36:18.414979 28751 net.cpp:159] Memory required for data: 2696080
I0501 00:36:18.414983 28751 layer_factory.hpp:77] Creating layer conv4
I0501 00:36:18.414990 28751 net.cpp:94] Creating Layer conv4
I0501 00:36:18.414994 28751 net.cpp:435] conv4 <- conv3
I0501 00:36:18.414999 28751 net.cpp:409] conv4 -> conv4
I0501 00:36:18.430127 28751 net.cpp:144] Setting up conv4
I0501 00:36:18.430146 28751 net.cpp:151] Top shape: 20 128 5 5 (64000)
I0501 00:36:18.430150 28751 net.cpp:159] Memory required for data: 2952080
I0501 00:36:18.430158 28751 layer_factory.hpp:77] Creating layer relu4
I0501 00:36:18.430166 28751 net.cpp:94] Creating Layer relu4
I0501 00:36:18.430169 28751 net.cpp:435] relu4 <- conv4
I0501 00:36:18.430173 28751 net.cpp:396] relu4 -> conv4 (in-place)
I0501 00:36:18.430181 28751 net.cpp:144] Setting up relu4
I0501 00:36:18.430186 28751 net.cpp:151] Top shape: 20 128 5 5 (64000)
I0501 00:36:18.430189 28751 net.cpp:159] Memory required for data: 3208080
I0501 00:36:18.430192 28751 layer_factory.hpp:77] Creating layer conv5
I0501 00:36:18.430200 28751 net.cpp:94] Creating Layer conv5
I0501 00:36:18.430203 28751 net.cpp:435] conv5 <- conv4
I0501 00:36:18.430208 28751 net.cpp:409] conv5 -> conv5
I0501 00:36:18.445017 28751 net.cpp:144] Setting up conv5
I0501 00:36:18.445036 28751 net.cpp:151] Top shape: 20 128 5 5 (64000)
I0501 00:36:18.445040 28751 net.cpp:159] Memory required for data: 3464080
I0501 00:36:18.445051 28751 layer_factory.hpp:77] Creating layer relu5
I0501 00:36:18.445058 28751 net.cpp:94] Creating Layer relu5
I0501 00:36:18.445062 28751 net.cpp:435] relu5 <- conv5
I0501 00:36:18.445066 28751 net.cpp:396] relu5 -> conv5 (in-place)
I0501 00:36:18.445075 28751 net.cpp:144] Setting up relu5
I0501 00:36:18.445080 28751 net.cpp:151] Top shape: 20 128 5 5 (64000)
I0501 00:36:18.445082 28751 net.cpp:159] Memory required for data: 3720080
I0501 00:36:18.445086 28751 layer_factory.hpp:77] Creating layer pool5
I0501 00:36:18.445091 28751 net.cpp:94] Creating Layer pool5
I0501 00:36:18.445094 28751 net.cpp:435] pool5 <- conv5
I0501 00:36:18.445098 28751 net.cpp:409] pool5 -> pool5
I0501 00:36:18.445142 28751 net.cpp:144] Setting up pool5
I0501 00:36:18.445148 28751 net.cpp:151] Top shape: 20 128 2 2 (10240)
I0501 00:36:18.445152 28751 net.cpp:159] Memory required for data: 3761040
I0501 00:36:18.445155 28751 layer_factory.hpp:77] Creating layer ip1
I0501 00:36:18.445165 28751 net.cpp:94] Creating Layer ip1
I0501 00:36:18.445169 28751 net.cpp:435] ip1 <- pool5
I0501 00:36:18.445173 28751 net.cpp:409] ip1 -> ip1
I0501 00:36:18.459125 28751 net.cpp:144] Setting up ip1
I0501 00:36:18.459146 28751 net.cpp:151] Top shape: 20 1024 (20480)
I0501 00:36:18.459149 28751 net.cpp:159] Memory required for data: 3842960
I0501 00:36:18.459156 28751 layer_factory.hpp:77] Creating layer ip2
I0501 00:36:18.459166 28751 net.cpp:94] Creating Layer ip2
I0501 00:36:18.459175 28751 net.cpp:435] ip2 <- ip1
I0501 00:36:18.459182 28751 net.cpp:409] ip2 -> ip2
I0501 00:36:18.472280 28751 net.cpp:144] Setting up ip2
I0501 00:36:18.472296 28751 net.cpp:151] Top shape: 20 512 (10240)
I0501 00:36:18.472301 28751 net.cpp:159] Memory required for data: 3883920
I0501 00:36:18.472306 28751 layer_factory.hpp:77] Creating layer ip3
I0501 00:36:18.472313 28751 net.cpp:94] Creating Layer ip3
I0501 00:36:18.472317 28751 net.cpp:435] ip3 <- ip2
I0501 00:36:18.472323 28751 net.cpp:409] ip3 -> ip3
I0501 00:36:18.472434 28751 net.cpp:144] Setting up ip3
I0501 00:36:18.472442 28751 net.cpp:151] Top shape: 20 1 (20)
I0501 00:36:18.472445 28751 net.cpp:159] Memory required for data: 3884000
I0501 00:36:18.472450 28751 layer_factory.hpp:77] Creating layer loss
I0501 00:36:18.472458 28751 net.cpp:94] Creating Layer loss
I0501 00:36:18.472461 28751 net.cpp:435] loss <- ip3
I0501 00:36:18.472465 28751 net.cpp:435] loss <- label
I0501 00:36:18.472470 28751 net.cpp:409] loss -> loss
I0501 00:36:18.472517 28751 net.cpp:144] Setting up loss
…
I0501 00:36:18.579941 28751 net.cpp:323] The NetState phase (0) differed from the phase (1) specified by a rule in layer intercept
I0501 00:36:18.579957 28751 net.cpp:323] The NetState phase (0) differed from the phase (1) specified by a rule in layer accuracy
I0501 00:36:18.580042 28751 net.cpp:52] Initializing net from parameters: 
state {
  phase: TRAIN
}
layer {
  name: "parameters"
  type: "HDF5Data"
  top: "data"
  top: "label"
  include {
    phase: TRAIN
  }
  hdf5_data_param {
    source: "/home/purduethu/scratch/radon/d/deng106/CNNStatisticalModel/distributions/input/50_distributions_100_sample_size_train-distributions-path.txt"
    batch_size: 20
  }
}
layer {
  name: "conv1"
  type: "Convolution"
  bottom: "data"
  top: "conv1"
  param {
    lr_mult: 1
  }
  param {
    lr_mult: 2
  }
  convolution_param {
    num_output: 64
    pad: 2
    kernel_size: 5
    stride: 1
    weight_filler {
      type: "gaussian"
      std: 0.0001
    }
    bias_filler {
      type: "constant"
    }
  }
}
layer {
  name: "relu1"
  type: "ReLU"
  bottom: "conv1"
  top: "conv1"
}
layer {
  name: "conv2"
  type: "Convolution"
  bottom: "conv1"
  top: "conv2"
  param {
    lr_mult: 1
  }
  param {
    lr_mult: 2
  }
  convolution_param {
    num_output: 64
    pad: 2
    kernel_size: 5
    stride: 1
    weight_filler {
      type: "gaussian"
      std: 0.01
    }
    bias_filler {
      type: "constant"
    }
  }
}
layer {
  name: "relu2"
  type: "ReLU"
  bottom: "conv2"
  top: "conv2"
}
layer {
  name: "pool2"
  type: "Pooling"
  bottom: "conv2"
  top: "pool2"
  pooling_param {
    pool: MAX
    kernel_size: 3
    stride: 2
  }
}
layer {
  name: "conv3"
  type: "Convolution"
  bottom: "pool2"
  top: "conv3"
  param {
    lr_mult: 1
  }
  param {
    lr_mult: 2
  }
  convolution_param {
    num_output: 128
    pad: 2
    kernel_size: 5
    stride: 1
    weight_filler {
      type: "gaussian"
      std: 0.01
    }
    bias_filler {
      type: "constant"
    }
  }
}
layer {
  name: "relu3"
  type: "ReLU"
  bottom: "conv3"
  top: "conv3"
}
layer {
  name: "conv4"
  type: "Convolution"
  bottom: "conv3"
  top: "conv4"
  param {
    lr_mult: 1
  }
  param {
    lr_mult: 2
  }
  convolution_param {
    num_output: 128
    pad: 2
    kernel_size: 5
    stride: 1
    weight_filler {
      type: "gaussian"
      std: 0.01
    }
    bias_filler {
      type: "constant"
    }
  }
}
layer {
  name: "relu4"
  type: "ReLU"
  bottom: "conv4"
  top: "conv4"
}
layer {
  name: "conv5"
  type: "Convolution"
  bottom: "conv4"
  top: "conv5"
  param {
    lr_mult: 1
  }
  param {
    lr_mult: 2
  }
  convolution_param {
    num_output: 128
    pad: 2
    kernel_size: 5
    stride: 1
    weight_filler {
      type: "gaussian"
      std: 0.01
    }
    bias_filler {
      type: "constant"
    }
  }
}
layer {
  name: "relu5"
  type: "ReLU"
  bottom: "conv5"
  top: "conv5"
}
layer {
  name: "pool5"
  type: "Pooling"
  bottom: "conv5"
  top: "pool5"
  pooling_param {
    pool: AVE
    kernel_size: 3
    stride: 2
  }
}
layer {
  name: "ip1"
  type: "InnerProduct"
  bottom: "pool5"
  top: "ip1"
  param {
    lr_mult: 1
  }
  param {
    lr_mult: 2
  }
  inner_product_param {
    num_output: 1024
    weight_filler {
      type: "gaussian"
      std: 0.1
    }
    bias_filler {
      type: "constant"
    }
  }
}
layer {
  name: "ip2"
  type: "InnerProduct"
  bottom: "ip1"
  top: "ip2"
  param {
    lr_mult: 1
  }
  param {
    lr_mult: 2
  }
  inner_product_param {
    num_output: 512
    weight_filler {
      type: "gaussian"
      std: 0.1
    }
    bias_filler {
      type: "constant"
    }
  }
}
layer {
  name: "ip3"
  type: "InnerProduct"
  bottom: "ip2"
  top: "ip3"
  param {
    lr_mult: 1
  }
  param {
    lr_mult: 2
  }
  inner_product_param {
    num_output: 50
    weight_filler {
      type: "gaussian"
      std: 0.1
    }
    bias_filler {
      type: "constant"
    }
  }
}
layer {
  name: "loss"
  type: "SoftmaxWithLoss"
  bottom: "ip3"
  bottom: "label"
  top: "loss"
}
I0501 00:36:18.580092 28751 layer_factory.hpp:77] Creating layer parameters
I0501 00:36:18.580101 28751 net.cpp:94] Creating Layer parameters
I0501 00:36:18.580104 28751 net.cpp:409] parameters -> data
I0501 00:36:18.580111 28751 net.cpp:409] parameters -> label
I0501 00:36:18.580116 28751 hdf5_data_layer.cpp:79] Loading list of HDF5 filenames from: /home/purduethu/scratch/radon/d/deng106/CNNStatisticalModel/distributions/input/50_distributions_100_sample_size_train-distributions-path.txt
I0501 00:36:18.580133 28751 hdf5_data_layer.cpp:93] Number of HDF5 files: 1
I0501 00:36:18.736695 28751 hdf5.cpp:35] Datatype class: H5T_INTEGER
I0501 00:36:18.739773 28751 net.cpp:144] Setting up parameters
I0501 00:36:18.739792 28751 net.cpp:151] Top shape: 20 1 10 10 (2000)
I0501 00:36:18.739797 28751 net.cpp:151] Top shape: 20 (20)
I0501 00:36:18.739800 28751 net.cpp:159] Memory required for data: 8080
I0501 00:36:18.739806 28751 layer_factory.hpp:77] Creating layer conv1
I0501 00:36:18.739822 28751 net.cpp:94] Creating Layer conv1
I0501 00:36:18.739826 28751 net.cpp:435] conv1 <- data
I0501 00:36:18.739832 28751 net.cpp:409] conv1 -> conv1
I0501 00:36:18.741657 28751 net.cpp:144] Setting up conv1
I0501 00:36:18.741670 28751 net.cpp:151] Top shape: 20 64 10 10 (128000)
I0501 00:36:18.741674 28751 net.cpp:159] Memory required for data: 520080
I0501 00:36:18.741684 28751 layer_factory.hpp:77] Creating layer relu1
I0501 00:36:18.741691 28751 net.cpp:94] Creating Layer relu1
I0501 00:36:18.741695 28751 net.cpp:435] relu1 <- conv1
I0501 00:36:18.741699 28751 net.cpp:396] relu1 -> conv1 (in-place)
I0501 00:36:18.741706 28751 net.cpp:144] Setting up relu1
I0501 00:36:18.741711 28751 net.cpp:151] Top shape: 20 64 10 10 (128000)
I0501 00:36:18.741714 28751 net.cpp:159] Memory required for data: 1032080
I0501 00:36:18.741717 28751 layer_factory.hpp:77] Creating layer conv2
I0501 00:36:18.741725 28751 net.cpp:94] Creating Layer conv2
I0501 00:36:18.741729 28751 net.cpp:435] conv2 <- conv1
I0501 00:36:18.741734 28751 net.cpp:409] conv2 -> conv2
I0501 00:36:18.747097 28751 net.cpp:144] Setting up conv2
I0501 00:36:18.747110 28751 net.cpp:151] Top shape: 20 64 10 10 (128000)
I0501 00:36:18.747114 28751 net.cpp:159] Memory required for data: 1544080
I0501 00:36:18.747123 28751 layer_factory.hpp:77] Creating layer relu2
I0501 00:36:18.747128 28751 net.cpp:94] Creating Layer relu2
I0501 00:36:18.747133 28751 net.cpp:435] relu2 <- conv2
I0501 00:36:18.747138 28751 net.cpp:396] relu2 -> conv2 (in-place)
I0501 00:36:18.747144 28751 net.cpp:144] Setting up relu2
I0501 00:36:18.747148 28751 net.cpp:151] Top shape: 20 64 10 10 (128000)
I0501 00:36:18.747151 28751 net.cpp:159] Memory required for data: 2056080
I0501 00:36:18.747154 28751 layer_factory.hpp:77] Creating layer pool2
I0501 00:36:18.747160 28751 net.cpp:94] Creating Layer pool2
I0501 00:36:18.747164 28751 net.cpp:435] pool2 <- conv2
I0501 00:36:18.747167 28751 net.cpp:409] pool2 -> pool2
I0501 00:36:18.747218 28751 net.cpp:144] Setting up pool2
I0501 00:36:18.747225 28751 net.cpp:151] Top shape: 20 64 5 5 (32000)
I0501 00:36:18.747229 28751 net.cpp:159] Memory required for data: 2184080
I0501 00:36:18.747232 28751 layer_factory.hpp:77] Creating layer conv3
I0501 00:36:18.747241 28751 net.cpp:94] Creating Layer conv3
I0501 00:36:18.747243 28751 net.cpp:435] conv3 <- pool2
I0501 00:36:18.747248 28751 net.cpp:409] conv3 -> conv3
I0501 00:36:18.756001 28751 net.cpp:144] Setting up conv3
I0501 00:36:18.756018 28751 net.cpp:151] Top shape: 20 128 5 5 (64000)
I0501 00:36:18.756022 28751 net.cpp:159] Memory required for data: 2440080
I0501 00:36:18.756031 28751 layer_factory.hpp:77] Creating layer relu3
I0501 00:36:18.756037 28751 net.cpp:94] Creating Layer relu3
I0501 00:36:18.756042 28751 net.cpp:435] relu3 <- conv3
I0501 00:36:18.756047 28751 net.cpp:396] relu3 -> conv3 (in-place)
I0501 00:36:18.756053 28751 net.cpp:144] Setting up relu3
I0501 00:36:18.756058 28751 net.cpp:151] Top shape: 20 128 5 5 (64000)
I0501 00:36:18.756062 28751 net.cpp:159] Memory required for data: 2696080
I0501 00:36:18.756064 28751 layer_factory.hpp:77] Creating layer conv4
I0501 00:36:18.756073 28751 net.cpp:94] Creating Layer conv4
I0501 00:36:18.756077 28751 net.cpp:435] conv4 <- conv3
I0501 00:36:18.756081 28751 net.cpp:409] conv4 -> conv4
I0501 00:36:18.770879 28751 net.cpp:144] Setting up conv4
I0501 00:36:18.770896 28751 net.cpp:151] Top shape: 20 128 5 5 (64000)
I0501 00:36:18.770900 28751 net.cpp:159] Memory required for data: 2952080
I0501 00:36:18.770907 28751 layer_factory.hpp:77] Creating layer relu4
I0501 00:36:18.770915 28751 net.cpp:94] Creating Layer relu4
I0501 00:36:18.770918 28751 net.cpp:435] relu4 <- conv4
I0501 00:36:18.770923 28751 net.cpp:396] relu4 -> conv4 (in-place)
I0501 00:36:18.770931 28751 net.cpp:144] Setting up relu4
I0501 00:36:18.770936 28751 net.cpp:151] Top shape: 20 128 5 5 (64000)
I0501 00:36:18.770938 28751 net.cpp:159] Memory required for data: 3208080
I0501 00:36:18.770941 28751 layer_factory.hpp:77] Creating layer conv5
I0501 00:36:18.770949 28751 net.cpp:94] Creating Layer conv5
I0501 00:36:18.770952 28751 net.cpp:435] conv5 <- conv4
I0501 00:36:18.770957 28751 net.cpp:409] conv5 -> conv5
I0501 00:36:18.786150 28751 net.cpp:144] Setting up conv5
I0501 00:36:18.786168 28751 net.cpp:151] Top shape: 20 128 5 5 (64000)
I0501 00:36:18.786172 28751 net.cpp:159] Memory required for data: 3464080
I0501 00:36:18.786182 28751 layer_factory.hpp:77] Creating layer relu5
I0501 00:36:18.786188 28751 net.cpp:94] Creating Layer relu5
I0501 00:36:18.786192 28751 net.cpp:435] relu5 <- conv5
I0501 00:36:18.786197 28751 net.cpp:396] relu5 -> conv5 (in-place)
I0501 00:36:18.786206 28751 net.cpp:144] Setting up relu5
I0501 00:36:18.786209 28751 net.cpp:151] Top shape: 20 128 5 5 (64000)
I0501 00:36:18.786212 28751 net.cpp:159] Memory required for data: 3720080
I0501 00:36:18.786216 28751 layer_factory.hpp:77] Creating layer pool5
I0501 00:36:18.786221 28751 net.cpp:94] Creating Layer pool5
I0501 00:36:18.786224 28751 net.cpp:435] pool5 <- conv5
I0501 00:36:18.786228 28751 net.cpp:409] pool5 -> pool5
I0501 00:36:18.786267 28751 net.cpp:144] Setting up pool5
I0501 00:36:18.786275 28751 net.cpp:151] Top shape: 20 128 2 2 (10240)
I0501 00:36:18.786278 28751 net.cpp:159] Memory required for data: 3761040
I0501 00:36:18.786281 28751 layer_factory.hpp:77] Creating layer ip1
I0501 00:36:18.786288 28751 net.cpp:94] Creating Layer ip1
I0501 00:36:18.786291 28751 net.cpp:435] ip1 <- pool5
I0501 00:36:18.786296 28751 net.cpp:409] ip1 -> ip1
I0501 00:36:18.799420 28751 net.cpp:144] Setting up ip1
I0501 00:36:18.799439 28751 net.cpp:151] Top shape: 20 1024 (20480)
I0501 00:36:18.799443 28751 net.cpp:159] Memory required for data: 3842960
I0501 00:36:18.799450 28751 layer_factory.hpp:77] Creating layer ip2
I0501 00:36:18.799458 28751 net.cpp:94] Creating Layer ip2
I0501 00:36:18.799461 28751 net.cpp:435] ip2 <- ip1
I0501 00:36:18.799466 28751 net.cpp:409] ip2 -> ip2
I0501 00:36:18.812543 28751 net.cpp:144] Setting up ip2
I0501 00:36:18.812573 28751 net.cpp:151] Top shape: 20 512 (10240)
I0501 00:36:18.812577 28751 net.cpp:159] Memory required for data: 3883920
I0501 00:36:18.812584 28751 layer_factory.hpp:77] Creating layer ip3
I0501 00:36:18.812592 28751 net.cpp:94] Creating Layer ip3
I0501 00:36:18.812594 28751 net.cpp:435] ip3 <- ip2
I0501 00:36:18.812599 28751 net.cpp:409] ip3 -> ip3
I0501 00:36:18.814182 28751 net.cpp:144] Setting up ip3
I0501 00:36:18.814195 28751 net.cpp:151] Top shape: 20 50 (1000)
I0501 00:36:18.814205 28751 net.cpp:159] Memory required for data: 3887920
I0501 00:36:18.814213 28751 layer_factory.hpp:77] Creating layer loss
I0501 00:36:18.814221 28751 net.cpp:94] Creating Layer loss
I0501 00:36:18.814225 28751 net.cpp:435] loss <- ip3
I0501 00:36:18.814229 28751 net.cpp:435] loss <- label
I0501 00:36:18.814234 28751 net.cpp:409] loss -> loss
I0501 00:36:18.814242 28751 layer_factory.hpp:77] Creating layer loss
…
I0501 00:36:18.814757 28751 solver.cpp:181] Creating test net (#0) specified by net file: ./protocol/dis_50_100_dimension.protocol_distribution
I0501 00:36:18.814785 28751 net.cpp:323] The NetState phase (1) differed from the phase (0) specified by a rule in layer parameters
I0501 00:36:18.814878 28751 net.cpp:52] Initializing net from parameters: 
state {
  phase: TEST
}
layer {
  name: "intercept"
  type: "HDF5Data"
  top: "data"
  top: "label"
  include {
    phase: TEST
  }
  hdf5_data_param {
    source: "/home/purduethu/scratch/radon/d/deng106/CNNStatisticalModel/distributions/input/50_distributions_100_sample_size_test-distributions-path.txt"
    batch_size: 20
  }
}
layer {
  name: "conv1"
  type: "Convolution"
  bottom: "data"
  top: "conv1"
  param {
    lr_mult: 1
  }
  param {
    lr_mult: 2
  }
  convolution_param {
    num_output: 64
    pad: 2
    kernel_size: 5
    stride: 1
    weight_filler {
      type: "gaussian"
      std: 0.0001
    }
    bias_filler {
      type: "constant"
    }
  }
}
layer {
  name: "relu1"
  type: "ReLU"
  bottom: "conv1"
  top: "conv1"
}
layer {
  name: "conv2"
  type: "Convolution"
  bottom: "conv1"
  top: "conv2"
  param {
    lr_mult: 1
  }
  param {
    lr_mult: 2
  }
  convolution_param {
    num_output: 64
    pad: 2
    kernel_size: 5
    stride: 1
    weight_filler {
      type: "gaussian"
      std: 0.01
    }
    bias_filler {
      type: "constant"
    }
  }
}
layer {
  name: "relu2"
  type: "ReLU"
  bottom: "conv2"
  top: "conv2"
}
layer {
  name: "pool2"
  type: "Pooling"
  bottom: "conv2"
  top: "pool2"
  pooling_param {
    pool: MAX
    kernel_size: 3
    stride: 2
  }
}
layer {
  name: "conv3"
  type: "Convolution"
  bottom: "pool2"
  top: "conv3"
  param {
    lr_mult: 1
  }
  param {
    lr_mult: 2
  }
  convolution_param {
    num_output: 128
    pad: 2
    kernel_size: 5
    stride: 1
    weight_filler {
      type: "gaussian"
      std: 0.01
    }
    bias_filler {
      type: "constant"
    }
  }
}
layer {
  name: "relu3"
  type: "ReLU"
  bottom: "conv3"
  top: "conv3"
}
layer {
  name: "conv4"
  type: "Convolution"
  bottom: "conv3"
  top: "conv4"
  param {
    lr_mult: 1
  }
  param {
    lr_mult: 2
  }
  convolution_param {
    num_output: 128
    pad: 2
    kernel_size: 5
    stride: 1
    weight_filler {
      type: "gaussian"
      std: 0.01
    }
    bias_filler {
      type: "constant"
    }
  }
}
layer {
  name: "relu4"
  type: "ReLU"
  bottom: "conv4"
  top: "conv4"
}
layer {
  name: "conv5"
  type: "Convolution"
  bottom: "conv4"
  top: "conv5"
  param {
    lr_mult: 1
  }
  param {
    lr_mult: 2
  }
  convolution_param {
    num_output: 128
    pad: 2
    kernel_size: 5
    stride: 1
    weight_filler {
      type: "gaussian"
      std: 0.01
    }
    bias_filler {
      type: "constant"
    }
  }
}
layer {
  name: "relu5"
  type: "ReLU"
  bottom: "conv5"
  top: "conv5"
}
layer {
  name: "pool5"
  type: "Pooling"
  bottom: "conv5"
  top: "pool5"
  pooling_param {
    pool: AVE
    kernel_size: 3
    stride: 2
  }
}
layer {
  name: "ip1"
  type: "InnerProduct"
  bottom: "pool5"
  top: "ip1"
  param {
    lr_mult: 1
  }
  param {
    lr_mult: 2
  }
  inner_product_param {
    num_output: 1024
    weight_filler {
      type: "gaussian"
      std: 0.1
    }
    bias_filler {
      type: "constant"
    }
  }
}
layer {
  name: "ip2"
  type: "InnerProduct"
  bottom: "ip1"
  top: "ip2"
  param {
    lr_mult: 1
  }
  param {
    lr_mult: 2
  }
  inner_product_param {
    num_output: 512
    weight_filler {
      type: "gaussian"
      std: 0.1
    }
    bias_filler {
      type: "constant"
    }
  }
}
layer {
  name: "ip3"
  type: "InnerProduct"
  bottom: "ip2"
  top: "ip3"
  param {
    lr_mult: 1
  }
  param {
    lr_mult: 2
  }
  inner_product_param {
    num_output: 50
    weight_filler {
      type: "gaussian"
      std: 0.1
    }
    bias_filler {
      type: "constant"
    }
  }
}
layer {
  name: "accuracy"
  type: "Accuracy"
  bottom: "ip3"
  bottom: "label"
  top: "accuracy"
  include {
    phase: TEST
  }
}
layer {
  name: "loss"
  type: "SoftmaxWithLoss"
  bottom: "ip3"
  bottom: "label"
  top: "loss"
}
I0501 00:36:18.814940 28751 layer_factory.hpp:77] Creating layer intercept
I0501 00:36:18.814949 28751 net.cpp:94] Creating Layer intercept
I0501 00:36:18.814952 28751 net.cpp:409] intercept -> data
I0501 00:36:18.814960 28751 net.cpp:409] intercept -> label
I0501 00:36:18.814965 28751 hdf5_data_layer.cpp:79] Loading list of HDF5 filenames from: /home/purduethu/scratch/radon/d/deng106/CNNStatisticalModel/distributions/input/50_distributions_100_sample_size_test-distributions-path.txt
I0501 00:36:18.814985 28751 hdf5_data_layer.cpp:93] Number of HDF5 files: 1
I0501 00:36:18.856314 28751 net.cpp:144] Setting up intercept
I0501 00:36:18.856348 28751 net.cpp:151] Top shape: 20 1 10 10 (2000)
I0501 00:36:18.856353 28751 net.cpp:151] Top shape: 20 (20)
I0501 00:36:18.856356 28751 net.cpp:159] Memory required for data: 8080
I0501 00:36:18.856362 28751 layer_factory.hpp:77] Creating layer label_intercept_1_split
I0501 00:36:18.856382 28751 net.cpp:94] Creating Layer label_intercept_1_split
I0501 00:36:18.856387 28751 net.cpp:435] label_intercept_1_split <- label
I0501 00:36:18.856392 28751 net.cpp:409] label_intercept_1_split -> label_intercept_1_split_0
I0501 00:36:18.856400 28751 net.cpp:409] label_intercept_1_split -> label_intercept_1_split_1
I0501 00:36:18.856441 28751 net.cpp:144] Setting up label_intercept_1_split
I0501 00:36:18.856448 28751 net.cpp:151] Top shape: 20 (20)
I0501 00:36:18.856451 28751 net.cpp:151] Top shape: 20 (20)
I0501 00:36:18.856454 28751 net.cpp:159] Memory required for data: 8240
I0501 00:36:18.856458 28751 layer_factory.hpp:77] Creating layer conv1
I0501 00:36:18.856469 28751 net.cpp:94] Creating Layer conv1
I0501 00:36:18.856472 28751 net.cpp:435] conv1 <- data
I0501 00:36:18.856477 28751 net.cpp:409] conv1 -> conv1
I0501 00:36:18.857359 28751 net.cpp:144] Setting up conv1
I0501 00:36:18.857372 28751 net.cpp:151] Top shape: 20 64 10 10 (128000)
I0501 00:36:18.857383 28751 net.cpp:159] Memory required for data: 520240
I0501 00:36:18.857393 28751 layer_factory.hpp:77] Creating layer relu1
I0501 00:36:18.857399 28751 net.cpp:94] Creating Layer relu1
I0501 00:36:18.857403 28751 net.cpp:435] relu1 <- conv1
I0501 00:36:18.857408 28751 net.cpp:396] relu1 -> conv1 (in-place)
I0501 00:36:18.857415 28751 net.cpp:144] Setting up relu1
I0501 00:36:18.857419 28751 net.cpp:151] Top shape: 20 64 10 10 (128000)
I0501 00:36:18.857422 28751 net.cpp:159] Memory required for data: 1032240
I0501 00:36:18.857425 28751 layer_factory.hpp:77] Creating layer conv2
I0501 00:36:18.857434 28751 net.cpp:94] Creating Layer conv2
I0501 00:36:18.857437 28751 net.cpp:435] conv2 <- conv1
I0501 00:36:18.857441 28751 net.cpp:409] conv2 -> conv2
I0501 00:36:18.861567 28751 net.cpp:144] Setting up conv2
I0501 00:36:18.861582 28751 net.cpp:151] Top shape: 20 64 10 10 (128000)
I0501 00:36:18.861585 28751 net.cpp:159] Memory required for data: 1544240
I0501 00:36:18.861593 28751 layer_factory.hpp:77] Creating layer relu2
I0501 00:36:18.861599 28751 net.cpp:94] Creating Layer relu2
I0501 00:36:18.861603 28751 net.cpp:435] relu2 <- conv2
I0501 00:36:18.861608 28751 net.cpp:396] relu2 -> conv2 (in-place)
I0501 00:36:18.861615 28751 net.cpp:144] Setting up relu2
I0501 00:36:18.861620 28751 net.cpp:151] Top shape: 20 64 10 10 (128000)
I0501 00:36:18.861624 28751 net.cpp:159] Memory required for data: 2056240
I0501 00:36:18.861626 28751 layer_factory.hpp:77] Creating layer pool2
I0501 00:36:18.861632 28751 net.cpp:94] Creating Layer pool2
I0501 00:36:18.861635 28751 net.cpp:435] pool2 <- conv2
I0501 00:36:18.861639 28751 net.cpp:409] pool2 -> pool2
I0501 00:36:18.861695 28751 net.cpp:144] Setting up pool2
I0501 00:36:18.861702 28751 net.cpp:151] Top shape: 20 64 5 5 (32000)
I0501 00:36:18.861706 28751 net.cpp:159] Memory required for data: 2184240
I0501 00:36:18.861709 28751 layer_factory.hpp:77] Creating layer conv3
I0501 00:36:18.861717 28751 net.cpp:94] Creating Layer conv3
I0501 00:36:18.861721 28751 net.cpp:435] conv3 <- pool2
I0501 00:36:18.861726 28751 net.cpp:409] conv3 -> conv3
I0501 00:36:18.867771 28751 net.cpp:144] Setting up conv3
I0501 00:36:18.867784 28751 net.cpp:151] Top shape: 20 128 5 5 (64000)
I0501 00:36:18.867787 28751 net.cpp:159] Memory required for data: 2440240
I0501 00:36:18.867795 28751 layer_factory.hpp:77] Creating layer relu3
I0501 00:36:18.867802 28751 net.cpp:94] Creating Layer relu3
I0501 00:36:18.867805 28751 net.cpp:435] relu3 <- conv3
I0501 00:36:18.867810 28751 net.cpp:396] relu3 -> conv3 (in-place)
I0501 00:36:18.867816 28751 net.cpp:144] Setting up relu3
I0501 00:36:18.867821 28751 net.cpp:151] Top shape: 20 128 5 5 (64000)
I0501 00:36:18.867825 28751 net.cpp:159] Memory required for data: 2696240
I0501 00:36:18.867827 28751 layer_factory.hpp:77] Creating layer conv4
I0501 00:36:18.867835 28751 net.cpp:94] Creating Layer conv4
I0501 00:36:18.867839 28751 net.cpp:435] conv4 <- conv3
I0501 00:36:18.867844 28751 net.cpp:409] conv4 -> conv4
I0501 00:36:18.880457 28751 net.cpp:144] Setting up conv4
I0501 00:36:18.880475 28751 net.cpp:151] Top shape: 20 128 5 5 (64000)
I0501 00:36:18.880478 28751 net.cpp:159] Memory required for data: 2952240
I0501 00:36:18.880486 28751 layer_factory.hpp:77] Creating layer relu4
I0501 00:36:18.880493 28751 net.cpp:94] Creating Layer relu4
I0501 00:36:18.880497 28751 net.cpp:435] relu4 <- conv4
I0501 00:36:18.880502 28751 net.cpp:396] relu4 -> conv4 (in-place)
I0501 00:36:18.880509 28751 net.cpp:144] Setting up relu4
I0501 00:36:18.880513 28751 net.cpp:151] Top shape: 20 128 5 5 (64000)
I0501 00:36:18.880517 28751 net.cpp:159] Memory required for data: 3208240
I0501 00:36:18.880519 28751 layer_factory.hpp:77] Creating layer conv5
I0501 00:36:18.880528 28751 net.cpp:94] Creating Layer conv5
I0501 00:36:18.880532 28751 net.cpp:435] conv5 <- conv4
I0501 00:36:18.880537 28751 net.cpp:409] conv5 -> conv5
I0501 00:36:18.893069 28751 net.cpp:144] Setting up conv5
I0501 00:36:18.893087 28751 net.cpp:151] Top shape: 20 128 5 5 (64000)
I0501 00:36:18.893095 28751 net.cpp:159] Memory required for data: 3464240
I0501 00:36:18.893106 28751 layer_factory.hpp:77] Creating layer relu5
I0501 00:36:18.893112 28751 net.cpp:94] Creating Layer relu5
I0501 00:36:18.893116 28751 net.cpp:435] relu5 <- conv5
I0501 00:36:18.893121 28751 net.cpp:396] relu5 -> conv5 (in-place)
I0501 00:36:18.893127 28751 net.cpp:144] Setting up relu5
I0501 00:36:18.893132 28751 net.cpp:151] Top shape: 20 128 5 5 (64000)
I0501 00:36:18.893136 28751 net.cpp:159] Memory required for data: 3720240
I0501 00:36:18.893137 28751 layer_factory.hpp:77] Creating layer pool5
I0501 00:36:18.893143 28751 net.cpp:94] Creating Layer pool5
I0501 00:36:18.893146 28751 net.cpp:435] pool5 <- conv5
I0501 00:36:18.893151 28751 net.cpp:409] pool5 -> pool5
I0501 00:36:18.893193 28751 net.cpp:144] Setting up pool5
I0501 00:36:18.893199 28751 net.cpp:151] Top shape: 20 128 2 2 (10240)
I0501 00:36:18.893203 28751 net.cpp:159] Memory required for data: 3761200
I0501 00:36:18.893205 28751 layer_factory.hpp:77] Creating layer ip1
I0501 00:36:18.893214 28751 net.cpp:94] Creating Layer ip1
I0501 00:36:18.893218 28751 net.cpp:435] ip1 <- pool5
I0501 00:36:18.893223 28751 net.cpp:409] ip1 -> ip1
I0501 00:36:18.906332 28751 net.cpp:144] Setting up ip1
I0501 00:36:18.906349 28751 net.cpp:151] Top shape: 20 1024 (20480)
I0501 00:36:18.906353 28751 net.cpp:159] Memory required for data: 3843120
I0501 00:36:18.906360 28751 layer_factory.hpp:77] Creating layer ip2
I0501 00:36:18.906368 28751 net.cpp:94] Creating Layer ip2
I0501 00:36:18.906371 28751 net.cpp:435] ip2 <- ip1
I0501 00:36:18.906378 28751 net.cpp:409] ip2 -> ip2
I0501 00:36:18.919517 28751 net.cpp:144] Setting up ip2
I0501 00:36:18.919534 28751 net.cpp:151] Top shape: 20 512 (10240)
I0501 00:36:18.919538 28751 net.cpp:159] Memory required for data: 3884080
I0501 00:36:18.919544 28751 layer_factory.hpp:77] Creating layer ip3
I0501 00:36:18.919554 28751 net.cpp:94] Creating Layer ip3
I0501 00:36:18.919559 28751 net.cpp:435] ip3 <- ip2
I0501 00:36:18.919565 28751 net.cpp:409] ip3 -> ip3
I0501 00:36:18.920297 28751 net.cpp:144] Setting up ip3
I0501 00:36:18.920305 28751 net.cpp:151] Top shape: 20 50 (1000)
I0501 00:36:18.920308 28751 net.cpp:159] Memory required for data: 3888080
I0501 00:36:18.920313 28751 layer_factory.hpp:77] Creating layer ip3_ip3_0_split
I0501 00:36:18.920320 28751 net.cpp:94] Creating Layer ip3_ip3_0_split
I0501 00:36:18.920322 28751 net.cpp:435] ip3_ip3_0_split <- ip3
I0501 00:36:18.920327 28751 net.cpp:409] ip3_ip3_0_split -> ip3_ip3_0_split_0
I0501 00:36:18.920332 28751 net.cpp:409] ip3_ip3_0_split -> ip3_ip3_0_split_1
I0501 00:36:18.920375 28751 net.cpp:144] Setting up ip3_ip3_0_split
I0501 00:36:18.920382 28751 net.cpp:151] Top shape: 20 50 (1000)
I0501 00:36:18.920385 28751 net.cpp:151] Top shape: 20 50 (1000)
I0501 00:36:18.920388 28751 net.cpp:159] Memory required for data: 3896080
I0501 00:36:18.920392 28751 layer_factory.hpp:77] Creating layer accuracy
I0501 00:36:18.920398 28751 net.cpp:94] Creating Layer accuracy
I0501 00:36:18.920402 28751 net.cpp:435] accuracy <- ip3_ip3_0_split_0
I0501 00:36:18.920405 28751 net.cpp:435] accuracy <- label_intercept_1_split_0
I0501 00:36:18.920409 28751 net.cpp:409] accuracy -> accuracy
…
