…
I0505 05:23:21.857339  3537 net.cpp:323] The NetState phase (0) differed from the phase (1) specified by a rule in layer intercept
I0505 05:23:21.857355  3537 net.cpp:323] The NetState phase (0) differed from the phase (1) specified by a rule in layer accuracy
I0505 05:23:21.857436  3537 net.cpp:52] Initializing net from parameters: 
state {
  phase: TRAIN
}
layer {
  name: "parameters"
  type: "HDF5Data"
  top: "data"
  top: "label"
  include {
    phase: TRAIN
  }
  hdf5_data_param {
    source: "/home/purduethu/scratch/radon/d/deng106/CNNStatisticalModel/distributions/input/20_distributions_400_sample_size_train-distributions-path.txt"
    batch_size: 20
  }
}
layer {
  name: "conv1"
  type: "Convolution"
  bottom: "data"
  top: "conv1"
  param {
    lr_mult: 1
  }
  param {
    lr_mult: 2
  }
  convolution_param {
    num_output: 64
    pad: 2
    kernel_size: 5
    stride: 1
    weight_filler {
      type: "gaussian"
      std: 0.0001
    }
    bias_filler {
      type: "constant"
    }
  }
}
layer {
  name: "relu1"
  type: "ReLU"
  bottom: "conv1"
  top: "conv1"
}
layer {
  name: "pool1"
  type: "Pooling"
  bottom: "conv1"
  top: "pool1"
  pooling_param {
    pool: MAX
    kernel_size: 3
    stride: 2
  }
}
layer {
  name: "conv2"
  type: "Convolution"
  bottom: "pool1"
  top: "conv2"
  param {
    lr_mult: 1
  }
  param {
    lr_mult: 2
  }
  convolution_param {
    num_output: 128
    pad: 2
    kernel_size: 5
    stride: 1
    weight_filler {
      type: "gaussian"
      std: 0.01
    }
    bias_filler {
      type: "constant"
    }
  }
}
layer {
  name: "relu2"
  type: "ReLU"
  bottom: "conv2"
  top: "conv2"
}
layer {
  name: "conv3"
  type: "Convolution"
  bottom: "conv2"
  top: "conv3"
  param {
    lr_mult: 1
  }
  param {
    lr_mult: 2
  }
  convolution_param {
    num_output: 128
    pad: 2
    kernel_size: 5
    stride: 1
    weight_filler {
      type: "gaussian"
      std: 0.01
    }
    bias_filler {
      type: "constant"
    }
  }
}
layer {
  name: "relu3"
  type: "ReLU"
  bottom: "conv3"
  top: "conv3"
}
layer {
  name: "pool3"
  type: "Pooling"
  bottom: "conv3"
  top: "pool3"
  pooling_param {
    pool: AVE
    kernel_size: 3
    stride: 2
  }
}
layer {
  name: "ip1"
  type: "InnerProduct"
  bottom: "pool3"
  top: "ip1"
  param {
    lr_mult: 1
  }
  param {
    lr_mult: 2
  }
  inner_product_param {
    num_output: 512
    weight_filler {
      type: "gaussian"
      std: 0.1
    }
    bias_filler {
      type: "constant"
    }
  }
}
layer {
  name: "ip2"
  type: "InnerProduct"
  bottom: "ip1"
  top: "ip2"
  param {
    lr_mult: 1
  }
  param {
    lr_mult: 2
  }
  inner_product_param {
    num_output: 256
    weight_filler {
      type: "gaussian"
      std: 0.1
    }
    bias_filler {
      type: "constant"
    }
  }
}
layer {
  name: "ip3"
  type: "InnerProduct"
  bottom: "ip2"
  top: "ip3"
  param {
    lr_mult: 1
  }
  param {
    lr_mult: 2
  }
  inner_product_param {
    num_output: 50
    weight_filler {
      type: "gaussian"
      std: 0.1
    }
    bias_filler {
      type: "constant"
    }
  }
}
layer {
  name: "loss"
  type: "SoftmaxWithLoss"
  bottom: "ip3"
  bottom: "label"
  top: "loss"
}
I0505 05:23:21.857502  3537 layer_factory.hpp:77] Creating layer parameters
I0505 05:23:21.857517  3537 net.cpp:94] Creating Layer parameters
I0505 05:23:21.857532  3537 net.cpp:409] parameters -> data
I0505 05:23:21.857552  3537 net.cpp:409] parameters -> label
I0505 05:23:21.857563  3537 hdf5_data_layer.cpp:79] Loading list of HDF5 filenames from: /home/purduethu/scratch/radon/d/deng106/CNNStatisticalModel/distributions/input/20_distributions_400_sample_size_train-distributions-path.txt
I0505 05:23:21.857585  3537 hdf5_data_layer.cpp:93] Number of HDF5 files: 1
I0505 05:23:21.858211  3537 hdf5.cpp:32] Datatype class: H5T_FLOAT
I0505 05:23:22.123468  3537 hdf5.cpp:35] Datatype class: H5T_INTEGER
I0505 05:23:22.125232  3537 net.cpp:144] Setting up parameters
I0505 05:23:22.125252  3537 net.cpp:151] Top shape: 20 1 20 20 (8000)
I0505 05:23:22.125258  3537 net.cpp:151] Top shape: 20 (20)
I0505 05:23:22.125262  3537 net.cpp:159] Memory required for data: 32080
I0505 05:23:22.125270  3537 layer_factory.hpp:77] Creating layer conv1
I0505 05:23:22.125295  3537 net.cpp:94] Creating Layer conv1
I0505 05:23:22.125301  3537 net.cpp:435] conv1 <- data
I0505 05:23:22.125313  3537 net.cpp:409] conv1 -> conv1
I0505 05:23:22.130249  3537 net.cpp:144] Setting up conv1
I0505 05:23:22.130264  3537 net.cpp:151] Top shape: 20 64 20 20 (512000)
I0505 05:23:22.130269  3537 net.cpp:159] Memory required for data: 2080080
I0505 05:23:22.130280  3537 layer_factory.hpp:77] Creating layer relu1
I0505 05:23:22.130288  3537 net.cpp:94] Creating Layer relu1
I0505 05:23:22.130293  3537 net.cpp:435] relu1 <- conv1
I0505 05:23:22.130298  3537 net.cpp:396] relu1 -> conv1 (in-place)
I0505 05:23:22.130314  3537 net.cpp:144] Setting up relu1
I0505 05:23:22.130319  3537 net.cpp:151] Top shape: 20 64 20 20 (512000)
I0505 05:23:22.130323  3537 net.cpp:159] Memory required for data: 4128080
I0505 05:23:22.130327  3537 layer_factory.hpp:77] Creating layer pool1
I0505 05:23:22.130334  3537 net.cpp:94] Creating Layer pool1
I0505 05:23:22.130338  3537 net.cpp:435] pool1 <- conv1
I0505 05:23:22.130343  3537 net.cpp:409] pool1 -> pool1
I0505 05:23:22.130385  3537 net.cpp:144] Setting up pool1
I0505 05:23:22.130393  3537 net.cpp:151] Top shape: 20 64 10 10 (128000)
I0505 05:23:22.130396  3537 net.cpp:159] Memory required for data: 4640080
I0505 05:23:22.130400  3537 layer_factory.hpp:77] Creating layer conv2
I0505 05:23:22.130409  3537 net.cpp:94] Creating Layer conv2
I0505 05:23:22.130414  3537 net.cpp:435] conv2 <- pool1
I0505 05:23:22.130419  3537 net.cpp:409] conv2 -> conv2
I0505 05:23:22.140146  3537 net.cpp:144] Setting up conv2
I0505 05:23:22.140162  3537 net.cpp:151] Top shape: 20 128 10 10 (256000)
I0505 05:23:22.140167  3537 net.cpp:159] Memory required for data: 5664080
I0505 05:23:22.140175  3537 layer_factory.hpp:77] Creating layer relu2
I0505 05:23:22.140182  3537 net.cpp:94] Creating Layer relu2
I0505 05:23:22.140187  3537 net.cpp:435] relu2 <- conv2
I0505 05:23:22.140192  3537 net.cpp:396] relu2 -> conv2 (in-place)
I0505 05:23:22.140198  3537 net.cpp:144] Setting up relu2
I0505 05:23:22.140204  3537 net.cpp:151] Top shape: 20 128 10 10 (256000)
I0505 05:23:22.140208  3537 net.cpp:159] Memory required for data: 6688080
I0505 05:23:22.140210  3537 layer_factory.hpp:77] Creating layer conv3
I0505 05:23:22.140218  3537 net.cpp:94] Creating Layer conv3
I0505 05:23:22.140223  3537 net.cpp:435] conv3 <- conv2
I0505 05:23:22.140228  3537 net.cpp:409] conv3 -> conv3
I0505 05:23:22.157922  3537 net.cpp:144] Setting up conv3
I0505 05:23:22.157937  3537 net.cpp:151] Top shape: 20 128 10 10 (256000)
I0505 05:23:22.157941  3537 net.cpp:159] Memory required for data: 7712080
I0505 05:23:22.157959  3537 layer_factory.hpp:77] Creating layer relu3
I0505 05:23:22.157966  3537 net.cpp:94] Creating Layer relu3
I0505 05:23:22.157971  3537 net.cpp:435] relu3 <- conv3
I0505 05:23:22.157976  3537 net.cpp:396] relu3 -> conv3 (in-place)
I0505 05:23:22.157984  3537 net.cpp:144] Setting up relu3
I0505 05:23:22.157989  3537 net.cpp:151] Top shape: 20 128 10 10 (256000)
I0505 05:23:22.157992  3537 net.cpp:159] Memory required for data: 8736080
I0505 05:23:22.157995  3537 layer_factory.hpp:77] Creating layer pool3
I0505 05:23:22.158002  3537 net.cpp:94] Creating Layer pool3
I0505 05:23:22.158012  3537 net.cpp:435] pool3 <- conv3
I0505 05:23:22.158017  3537 net.cpp:409] pool3 -> pool3
I0505 05:23:22.158052  3537 net.cpp:144] Setting up pool3
I0505 05:23:22.158059  3537 net.cpp:151] Top shape: 20 128 5 5 (64000)
I0505 05:23:22.158062  3537 net.cpp:159] Memory required for data: 8992080
I0505 05:23:22.158066  3537 layer_factory.hpp:77] Creating layer ip1
I0505 05:23:22.158077  3537 net.cpp:94] Creating Layer ip1
I0505 05:23:22.158082  3537 net.cpp:435] ip1 <- pool3
I0505 05:23:22.158087  3537 net.cpp:409] ip1 -> ip1
I0505 05:23:22.199429  3537 net.cpp:144] Setting up ip1
I0505 05:23:22.199446  3537 net.cpp:151] Top shape: 20 512 (10240)
I0505 05:23:22.199450  3537 net.cpp:159] Memory required for data: 9033040
I0505 05:23:22.199458  3537 layer_factory.hpp:77] Creating layer ip2
I0505 05:23:22.199465  3537 net.cpp:94] Creating Layer ip2
I0505 05:23:22.199470  3537 net.cpp:435] ip2 <- ip1
I0505 05:23:22.199476  3537 net.cpp:409] ip2 -> ip2
I0505 05:23:22.202756  3537 net.cpp:144] Setting up ip2
I0505 05:23:22.202765  3537 net.cpp:151] Top shape: 20 256 (5120)
I0505 05:23:22.202769  3537 net.cpp:159] Memory required for data: 9053520
I0505 05:23:22.202777  3537 layer_factory.hpp:77] Creating layer ip3
I0505 05:23:22.202785  3537 net.cpp:94] Creating Layer ip3
I0505 05:23:22.202788  3537 net.cpp:435] ip3 <- ip2
I0505 05:23:22.202793  3537 net.cpp:409] ip3 -> ip3
I0505 05:23:22.203824  3537 net.cpp:144] Setting up ip3
I0505 05:23:22.203836  3537 net.cpp:151] Top shape: 20 50 (1000)
I0505 05:23:22.203840  3537 net.cpp:159] Memory required for data: 9057520
I0505 05:23:22.203846  3537 layer_factory.hpp:77] Creating layer loss
I0505 05:23:22.203853  3537 net.cpp:94] Creating Layer loss
I0505 05:23:22.203857  3537 net.cpp:435] loss <- ip3
I0505 05:23:22.203862  3537 net.cpp:435] loss <- label
I0505 05:23:22.203868  3537 net.cpp:409] loss -> loss
I0505 05:23:22.203879  3537 layer_factory.hpp:77] Creating layer loss
…
I0505 05:23:22.204325  3537 solver.cpp:181] Creating test net (#0) specified by net file: ./protocol/dis_20_400_dimension.protocol_distribution
I0505 05:23:22.204351  3537 net.cpp:323] The NetState phase (1) differed from the phase (0) specified by a rule in layer parameters
I0505 05:23:22.204440  3537 net.cpp:52] Initializing net from parameters: 
state {
  phase: TEST
}
layer {
  name: "intercept"
  type: "HDF5Data"
  top: "data"
  top: "label"
  include {
    phase: TEST
  }
  hdf5_data_param {
    source: "/home/purduethu/scratch/radon/d/deng106/CNNStatisticalModel/distributions/input/20_distributions_400_sample_size_test-distributions-path.txt"
    batch_size: 20
  }
}
layer {
  name: "conv1"
  type: "Convolution"
  bottom: "data"
  top: "conv1"
  param {
    lr_mult: 1
  }
  param {
    lr_mult: 2
  }
  convolution_param {
    num_output: 64
    pad: 2
    kernel_size: 5
    stride: 1
    weight_filler {
      type: "gaussian"
      std: 0.0001
    }
    bias_filler {
      type: "constant"
    }
  }
}
layer {
  name: "relu1"
  type: "ReLU"
  bottom: "conv1"
  top: "conv1"
}
layer {
  name: "pool1"
  type: "Pooling"
  bottom: "conv1"
  top: "pool1"
  pooling_param {
    pool: MAX
    kernel_size: 3
    stride: 2
  }
}
layer {
  name: "conv2"
  type: "Convolution"
  bottom: "pool1"
  top: "conv2"
  param {
    lr_mult: 1
  }
  param {
    lr_mult: 2
  }
  convolution_param {
    num_output: 128
    pad: 2
    kernel_size: 5
    stride: 1
    weight_filler {
      type: "gaussian"
      std: 0.01
    }
    bias_filler {
      type: "constant"
    }
  }
}
layer {
  name: "relu2"
  type: "ReLU"
  bottom: "conv2"
  top: "conv2"
}
layer {
  name: "conv3"
  type: "Convolution"
  bottom: "conv2"
  top: "conv3"
  param {
    lr_mult: 1
  }
  param {
    lr_mult: 2
  }
  convolution_param {
    num_output: 128
    pad: 2
    kernel_size: 5
    stride: 1
    weight_filler {
      type: "gaussian"
      std: 0.01
    }
    bias_filler {
      type: "constant"
    }
  }
}
layer {
  name: "relu3"
  type: "ReLU"
  bottom: "conv3"
  top: "conv3"
}
layer {
  name: "pool3"
  type: "Pooling"
  bottom: "conv3"
  top: "pool3"
  pooling_param {
    pool: AVE
    kernel_size: 3
    stride: 2
  }
}
layer {
  name: "ip1"
  type: "InnerProduct"
  bottom: "pool3"
  top: "ip1"
  param {
    lr_mult: 1
  }
  param {
    lr_mult: 2
  }
  inner_product_param {
    num_output: 512
    weight_filler {
      type: "gaussian"
      std: 0.1
    }
    bias_filler {
      type: "constant"
    }
  }
}
layer {
  name: "ip2"
  type: "InnerProduct"
  bottom: "ip1"
  top: "ip2"
  param {
    lr_mult: 1
  }
  param {
    lr_mult: 2
  }
  inner_product_param {
    num_output: 256
    weight_filler {
      type: "gaussian"
      std: 0.1
    }
    bias_filler {
      type: "constant"
    }
  }
}
layer {
  name: "ip3"
  type: "InnerProduct"
  bottom: "ip2"
  top: "ip3"
  param {
    lr_mult: 1
  }
  param {
    lr_mult: 2
  }
  inner_product_param {
    num_output: 50
    weight_filler {
      type: "gaussian"
      std: 0.1
    }
    bias_filler {
      type: "constant"
    }
  }
}
layer {
  name: "accuracy"
  type: "Accuracy"
  bottom: "ip3"
  bottom: "label"
  top: "accuracy"
  include {
    phase: TEST
  }
}
layer {
  name: "loss"
  type: "SoftmaxWithLoss"
  bottom: "ip3"
  bottom: "label"
  top: "loss"
}
I0505 05:23:22.204505  3537 layer_factory.hpp:77] Creating layer intercept
I0505 05:23:22.204514  3537 net.cpp:94] Creating Layer intercept
I0505 05:23:22.204519  3537 net.cpp:409] intercept -> data
I0505 05:23:22.204526  3537 net.cpp:409] intercept -> label
I0505 05:23:22.204533  3537 hdf5_data_layer.cpp:79] Loading list of HDF5 filenames from: /home/purduethu/scratch/radon/d/deng106/CNNStatisticalModel/distributions/input/20_distributions_400_sample_size_test-distributions-path.txt
I0505 05:23:22.204563  3537 hdf5_data_layer.cpp:93] Number of HDF5 files: 1
I0505 05:23:22.269734  3537 net.cpp:144] Setting up intercept
I0505 05:23:22.269765  3537 net.cpp:151] Top shape: 20 1 20 20 (8000)
I0505 05:23:22.269771  3537 net.cpp:151] Top shape: 20 (20)
I0505 05:23:22.269775  3537 net.cpp:159] Memory required for data: 32080
I0505 05:23:22.269781  3537 layer_factory.hpp:77] Creating layer label_intercept_1_split
I0505 05:23:22.269804  3537 net.cpp:94] Creating Layer label_intercept_1_split
I0505 05:23:22.269810  3537 net.cpp:435] label_intercept_1_split <- label
I0505 05:23:22.269816  3537 net.cpp:409] label_intercept_1_split -> label_intercept_1_split_0
I0505 05:23:22.269825  3537 net.cpp:409] label_intercept_1_split -> label_intercept_1_split_1
I0505 05:23:22.269855  3537 net.cpp:144] Setting up label_intercept_1_split
I0505 05:23:22.269860  3537 net.cpp:151] Top shape: 20 (20)
I0505 05:23:22.269865  3537 net.cpp:151] Top shape: 20 (20)
I0505 05:23:22.269868  3537 net.cpp:159] Memory required for data: 32240
I0505 05:23:22.269879  3537 layer_factory.hpp:77] Creating layer conv1
I0505 05:23:22.269891  3537 net.cpp:94] Creating Layer conv1
I0505 05:23:22.269896  3537 net.cpp:435] conv1 <- data
I0505 05:23:22.269901  3537 net.cpp:409] conv1 -> conv1
I0505 05:23:22.270607  3537 net.cpp:144] Setting up conv1
I0505 05:23:22.270620  3537 net.cpp:151] Top shape: 20 64 20 20 (512000)
I0505 05:23:22.270625  3537 net.cpp:159] Memory required for data: 2080240
I0505 05:23:22.270635  3537 layer_factory.hpp:77] Creating layer relu1
I0505 05:23:22.270642  3537 net.cpp:94] Creating Layer relu1
I0505 05:23:22.270647  3537 net.cpp:435] relu1 <- conv1
I0505 05:23:22.270650  3537 net.cpp:396] relu1 -> conv1 (in-place)
I0505 05:23:22.270658  3537 net.cpp:144] Setting up relu1
I0505 05:23:22.270663  3537 net.cpp:151] Top shape: 20 64 20 20 (512000)
I0505 05:23:22.270666  3537 net.cpp:159] Memory required for data: 4128240
I0505 05:23:22.270670  3537 layer_factory.hpp:77] Creating layer pool1
I0505 05:23:22.270678  3537 net.cpp:94] Creating Layer pool1
I0505 05:23:22.270680  3537 net.cpp:435] pool1 <- conv1
I0505 05:23:22.270685  3537 net.cpp:409] pool1 -> pool1
I0505 05:23:22.270719  3537 net.cpp:144] Setting up pool1
I0505 05:23:22.270725  3537 net.cpp:151] Top shape: 20 64 10 10 (128000)
I0505 05:23:22.270728  3537 net.cpp:159] Memory required for data: 4640240
I0505 05:23:22.270731  3537 layer_factory.hpp:77] Creating layer conv2
I0505 05:23:22.270740  3537 net.cpp:94] Creating Layer conv2
I0505 05:23:22.270743  3537 net.cpp:435] conv2 <- pool1
I0505 05:23:22.270748  3537 net.cpp:409] conv2 -> conv2
I0505 05:23:22.278061  3537 net.cpp:144] Setting up conv2
I0505 05:23:22.278076  3537 net.cpp:151] Top shape: 20 128 10 10 (256000)
I0505 05:23:22.278080  3537 net.cpp:159] Memory required for data: 5664240
I0505 05:23:22.278090  3537 layer_factory.hpp:77] Creating layer relu2
I0505 05:23:22.278096  3537 net.cpp:94] Creating Layer relu2
I0505 05:23:22.278100  3537 net.cpp:435] relu2 <- conv2
I0505 05:23:22.278105  3537 net.cpp:396] relu2 -> conv2 (in-place)
I0505 05:23:22.278112  3537 net.cpp:144] Setting up relu2
I0505 05:23:22.278117  3537 net.cpp:151] Top shape: 20 128 10 10 (256000)
I0505 05:23:22.278120  3537 net.cpp:159] Memory required for data: 6688240
I0505 05:23:22.278125  3537 layer_factory.hpp:77] Creating layer conv3
I0505 05:23:22.278132  3537 net.cpp:94] Creating Layer conv3
I0505 05:23:22.278136  3537 net.cpp:435] conv3 <- conv2
I0505 05:23:22.278141  3537 net.cpp:409] conv3 -> conv3
I0505 05:23:22.291761  3537 net.cpp:144] Setting up conv3
I0505 05:23:22.291775  3537 net.cpp:151] Top shape: 20 128 10 10 (256000)
I0505 05:23:22.291780  3537 net.cpp:159] Memory required for data: 7712240
I0505 05:23:22.291788  3537 layer_factory.hpp:77] Creating layer relu3
I0505 05:23:22.291796  3537 net.cpp:94] Creating Layer relu3
I0505 05:23:22.291800  3537 net.cpp:435] relu3 <- conv3
I0505 05:23:22.291805  3537 net.cpp:396] relu3 -> conv3 (in-place)
I0505 05:23:22.291812  3537 net.cpp:144] Setting up relu3
I0505 05:23:22.291817  3537 net.cpp:151] Top shape: 20 128 10 10 (256000)
I0505 05:23:22.291821  3537 net.cpp:159] Memory required for data: 8736240
I0505 05:23:22.291824  3537 layer_factory.hpp:77] Creating layer pool3
I0505 05:23:22.291831  3537 net.cpp:94] Creating Layer pool3
I0505 05:23:22.291833  3537 net.cpp:435] pool3 <- conv3
I0505 05:23:22.291838  3537 net.cpp:409] pool3 -> pool3
I0505 05:23:22.291864  3537 net.cpp:144] Setting up pool3
I0505 05:23:22.291875  3537 net.cpp:151] Top shape: 20 128 5 5 (64000)
I0505 05:23:22.291878  3537 net.cpp:159] Memory required for data: 8992240
I0505 05:23:22.291882  3537 layer_factory.hpp:77] Creating layer ip1
I0505 05:23:22.291889  3537 net.cpp:94] Creating Layer ip1
I0505 05:23:22.291893  3537 net.cpp:435] ip1 <- pool3
I0505 05:23:22.291898  3537 net.cpp:409] ip1 -> ip1
I0505 05:23:22.334638  3537 net.cpp:144] Setting up ip1
I0505 05:23:22.334661  3537 net.cpp:151] Top shape: 20 512 (10240)
I0505 05:23:22.334666  3537 net.cpp:159] Memory required for data: 9033200
I0505 05:23:22.334679  3537 layer_factory.hpp:77] Creating layer ip2
I0505 05:23:22.334687  3537 net.cpp:94] Creating Layer ip2
I0505 05:23:22.334692  3537 net.cpp:435] ip2 <- ip1
I0505 05:23:22.334698  3537 net.cpp:409] ip2 -> ip2
I0505 05:23:22.337967  3537 net.cpp:144] Setting up ip2
I0505 05:23:22.337976  3537 net.cpp:151] Top shape: 20 256 (5120)
I0505 05:23:22.337980  3537 net.cpp:159] Memory required for data: 9053680
I0505 05:23:22.337987  3537 layer_factory.hpp:77] Creating layer ip3
I0505 05:23:22.337994  3537 net.cpp:94] Creating Layer ip3
I0505 05:23:22.337997  3537 net.cpp:435] ip3 <- ip2
I0505 05:23:22.338003  3537 net.cpp:409] ip3 -> ip3
I0505 05:23:22.338395  3537 net.cpp:144] Setting up ip3
I0505 05:23:22.338402  3537 net.cpp:151] Top shape: 20 50 (1000)
I0505 05:23:22.338405  3537 net.cpp:159] Memory required for data: 9057680
I0505 05:23:22.338410  3537 layer_factory.hpp:77] Creating layer ip3_ip3_0_split
I0505 05:23:22.338416  3537 net.cpp:94] Creating Layer ip3_ip3_0_split
I0505 05:23:22.338420  3537 net.cpp:435] ip3_ip3_0_split <- ip3
I0505 05:23:22.338424  3537 net.cpp:409] ip3_ip3_0_split -> ip3_ip3_0_split_0
I0505 05:23:22.338430  3537 net.cpp:409] ip3_ip3_0_split -> ip3_ip3_0_split_1
I0505 05:23:22.338455  3537 net.cpp:144] Setting up ip3_ip3_0_split
I0505 05:23:22.338461  3537 net.cpp:151] Top shape: 20 50 (1000)
I0505 05:23:22.338465  3537 net.cpp:151] Top shape: 20 50 (1000)
I0505 05:23:22.338469  3537 net.cpp:159] Memory required for data: 9065680
I0505 05:23:22.338472  3537 layer_factory.hpp:77] Creating layer accuracy
I0505 05:23:22.338482  3537 net.cpp:94] Creating Layer accuracy
I0505 05:23:22.338486  3537 net.cpp:435] accuracy <- ip3_ip3_0_split_0
I0505 05:23:22.338490  3537 net.cpp:435] accuracy <- label_intercept_1_split_0
I0505 05:23:22.338495  3537 net.cpp:409] accuracy -> accuracy
…
