…
I0501 19:19:15.326395 14230 net.cpp:323] The NetState phase (0) differed from the phase (1) specified by a rule in layer intercept
I0501 19:19:15.326412 14230 net.cpp:323] The NetState phase (0) differed from the phase (1) specified by a rule in layer loss
I0501 19:19:15.326503 14230 net.cpp:52] Initializing net from parameters: 
state {
  phase: TRAIN
}
layer {
  name: "parameters"
  type: "HDF5Data"
  top: "data"
  top: "label"
  include {
    phase: TRAIN
  }
  hdf5_data_param {
    source: "/home/purduethu/scratch/radon/d/deng106/CNNStatisticalModel/distributions/input/20_distributions_400_sample_size_train-parameters-path.txt"
    batch_size: 20
  }
}
layer {
  name: "conv1"
  type: "Convolution"
  bottom: "data"
  top: "conv1"
  param {
    lr_mult: 1
  }
  param {
    lr_mult: 2
  }
  convolution_param {
    num_output: 64
    pad: 2
    kernel_size: 5
    stride: 1
    weight_filler {
      type: "gaussian"
      std: 0.0001
    }
    bias_filler {
      type: "constant"
    }
  }
}
layer {
  name: "relu1"
  type: "ReLU"
  bottom: "conv1"
  top: "conv1"
}
layer {
  name: "conv2"
  type: "Convolution"
  bottom: "conv1"
  top: "conv2"
  param {
    lr_mult: 1
  }
  param {
    lr_mult: 2
  }
  convolution_param {
    num_output: 64
    pad: 2
    kernel_size: 5
    stride: 1
    weight_filler {
      type: "gaussian"
      std: 0.01
    }
    bias_filler {
      type: "constant"
    }
  }
}
layer {
  name: "relu2"
  type: "ReLU"
  bottom: "conv2"
  top: "conv2"
}
layer {
  name: "pool2"
  type: "Pooling"
  bottom: "conv2"
  top: "pool2"
  pooling_param {
    pool: MAX
    kernel_size: 3
    stride: 2
  }
}
layer {
  name: "conv3"
  type: "Convolution"
  bottom: "pool2"
  top: "conv3"
  param {
    lr_mult: 1
  }
  param {
    lr_mult: 2
  }
  convolution_param {
    num_output: 64
    pad: 2
    kernel_size: 5
    stride: 1
    weight_filler {
      type: "gaussian"
      std: 0.01
    }
    bias_filler {
      type: "constant"
    }
  }
}
layer {
  name: "relu3"
  type: "ReLU"
  bottom: "conv3"
  top: "conv3"
}
layer {
  name: "conv4"
  type: "Convolution"
  bottom: "conv3"
  top: "conv4"
  param {
    lr_mult: 1
  }
  param {
    lr_mult: 2
  }
  convolution_param {
    num_output: 64
    pad: 2
    kernel_size: 5
    stride: 1
    weight_filler {
      type: "gaussian"
      std: 0.01
    }
    bias_filler {
      type: "constant"
    }
  }
}
layer {
  name: "relu4"
  type: "ReLU"
  bottom: "conv4"
  top: "conv4"
}
layer {
  name: "conv5"
  type: "Convolution"
  bottom: "conv4"
  top: "conv5"
  param {
    lr_mult: 1
  }
  param {
    lr_mult: 2
  }
  convolution_param {
    num_output: 64
    pad: 2
    kernel_size: 5
    stride: 1
    weight_filler {
      type: "gaussian"
      std: 0.01
    }
    bias_filler {
      type: "constant"
    }
  }
}
layer {
  name: "relu5"
  type: "ReLU"
  bottom: "conv5"
  top: "conv5"
}
layer {
  name: "pool5"
  type: "Pooling"
  bottom: "conv5"
  top: "pool5"
  pooling_param {
    pool: AVE
    kernel_size: 3
    stride: 2
  }
}
layer {
  name: "ip1"
  type: "InnerProduct"
  bottom: "pool5"
  top: "ip1"
  param {
    lr_mult: 1
  }
  param {
    lr_mult: 2
  }
  inner_product_param {
    num_output: 64
    weight_filler {
      type: "gaussian"
      std: 0.1
    }
    bias_filler {
      type: "constant"
    }
  }
}
layer {
  name: "ip2"
  type: "InnerProduct"
  bottom: "ip1"
  top: "ip2"
  param {
    lr_mult: 1
  }
  param {
    lr_mult: 2
  }
  inner_product_param {
    num_output: 64
    weight_filler {
      type: "gaussian"
      std: 0.1
    }
    bias_filler {
      type: "constant"
    }
  }
}
layer {
  name: "ip3"
  type: "InnerProduct"
  bottom: "ip2"
  top: "ip3"
  param {
    lr_mult: 1
  }
  param {
    lr_mult: 2
  }
  inner_product_param {
    num_output: 1
    weight_filler {
      type: "gaussian"
      std: 0.1
    }
    bias_filler {
      type: "constant"
    }
  }
}
layer {
  name: "loss"
  type: "HuberLoss"
  bottom: "ip3"
  bottom: "label"
  top: "loss"
  include {
    phase: TRAIN
  }
}
I0501 19:19:15.326578 14230 layer_factory.hpp:77] Creating layer parameters
I0501 19:19:15.326594 14230 net.cpp:94] Creating Layer parameters
I0501 19:19:15.326601 14230 net.cpp:409] parameters -> data
I0501 19:19:15.326622 14230 net.cpp:409] parameters -> label
I0501 19:19:15.326632 14230 hdf5_data_layer.cpp:79] Loading list of HDF5 filenames from: /home/purduethu/scratch/radon/d/deng106/CNNStatisticalModel/distributions/input/20_distributions_400_sample_size_train-parameters-path.txt
I0501 19:19:15.326656 14230 hdf5_data_layer.cpp:93] Number of HDF5 files: 1
I0501 19:19:15.327224 14230 hdf5.cpp:32] Datatype class: H5T_FLOAT
I0501 19:19:15.586835 14230 net.cpp:144] Setting up parameters
I0501 19:19:15.586869 14230 net.cpp:151] Top shape: 20 1 20 20 (8000)
I0501 19:19:15.586874 14230 net.cpp:151] Top shape: 20 (20)
I0501 19:19:15.586877 14230 net.cpp:159] Memory required for data: 32080
I0501 19:19:15.586885 14230 layer_factory.hpp:77] Creating layer conv1
I0501 19:19:15.586908 14230 net.cpp:94] Creating Layer conv1
I0501 19:19:15.586915 14230 net.cpp:435] conv1 <- data
I0501 19:19:15.586927 14230 net.cpp:409] conv1 -> conv1
I0501 19:19:15.591753 14230 net.cpp:144] Setting up conv1
I0501 19:19:15.591769 14230 net.cpp:151] Top shape: 20 64 20 20 (512000)
I0501 19:19:15.591773 14230 net.cpp:159] Memory required for data: 2080080
I0501 19:19:15.591785 14230 layer_factory.hpp:77] Creating layer relu1
I0501 19:19:15.591794 14230 net.cpp:94] Creating Layer relu1
I0501 19:19:15.591799 14230 net.cpp:435] relu1 <- conv1
I0501 19:19:15.591804 14230 net.cpp:396] relu1 -> conv1 (in-place)
I0501 19:19:15.591819 14230 net.cpp:144] Setting up relu1
I0501 19:19:15.591825 14230 net.cpp:151] Top shape: 20 64 20 20 (512000)
I0501 19:19:15.591827 14230 net.cpp:159] Memory required for data: 4128080
I0501 19:19:15.591831 14230 layer_factory.hpp:77] Creating layer conv2
I0501 19:19:15.591840 14230 net.cpp:94] Creating Layer conv2
I0501 19:19:15.591843 14230 net.cpp:435] conv2 <- conv1
I0501 19:19:15.591848 14230 net.cpp:409] conv2 -> conv2
I0501 19:19:15.602485 14230 net.cpp:144] Setting up conv2
I0501 19:19:15.602501 14230 net.cpp:151] Top shape: 20 64 20 20 (512000)
I0501 19:19:15.602505 14230 net.cpp:159] Memory required for data: 6176080
I0501 19:19:15.602514 14230 layer_factory.hpp:77] Creating layer relu2
I0501 19:19:15.602521 14230 net.cpp:94] Creating Layer relu2
I0501 19:19:15.602525 14230 net.cpp:435] relu2 <- conv2
I0501 19:19:15.602530 14230 net.cpp:396] relu2 -> conv2 (in-place)
I0501 19:19:15.602538 14230 net.cpp:144] Setting up relu2
I0501 19:19:15.602542 14230 net.cpp:151] Top shape: 20 64 20 20 (512000)
I0501 19:19:15.602546 14230 net.cpp:159] Memory required for data: 8224080
I0501 19:19:15.602550 14230 layer_factory.hpp:77] Creating layer pool2
I0501 19:19:15.602557 14230 net.cpp:94] Creating Layer pool2
I0501 19:19:15.602567 14230 net.cpp:435] pool2 <- conv2
I0501 19:19:15.602573 14230 net.cpp:409] pool2 -> pool2
I0501 19:19:15.602617 14230 net.cpp:144] Setting up pool2
I0501 19:19:15.602624 14230 net.cpp:151] Top shape: 20 64 10 10 (128000)
I0501 19:19:15.602628 14230 net.cpp:159] Memory required for data: 8736080
I0501 19:19:15.602632 14230 layer_factory.hpp:77] Creating layer conv3
I0501 19:19:15.602639 14230 net.cpp:94] Creating Layer conv3
I0501 19:19:15.602644 14230 net.cpp:435] conv3 <- pool2
I0501 19:19:15.602649 14230 net.cpp:409] conv3 -> conv3
I0501 19:19:15.607923 14230 net.cpp:144] Setting up conv3
I0501 19:19:15.607938 14230 net.cpp:151] Top shape: 20 64 10 10 (128000)
I0501 19:19:15.607941 14230 net.cpp:159] Memory required for data: 9248080
I0501 19:19:15.607950 14230 layer_factory.hpp:77] Creating layer relu3
I0501 19:19:15.607956 14230 net.cpp:94] Creating Layer relu3
I0501 19:19:15.607960 14230 net.cpp:435] relu3 <- conv3
I0501 19:19:15.607965 14230 net.cpp:396] relu3 -> conv3 (in-place)
I0501 19:19:15.607972 14230 net.cpp:144] Setting up relu3
I0501 19:19:15.607977 14230 net.cpp:151] Top shape: 20 64 10 10 (128000)
I0501 19:19:15.607980 14230 net.cpp:159] Memory required for data: 9760080
I0501 19:19:15.607985 14230 layer_factory.hpp:77] Creating layer conv4
I0501 19:19:15.607992 14230 net.cpp:94] Creating Layer conv4
I0501 19:19:15.607996 14230 net.cpp:435] conv4 <- conv3
I0501 19:19:15.608002 14230 net.cpp:409] conv4 -> conv4
I0501 19:19:15.613267 14230 net.cpp:144] Setting up conv4
I0501 19:19:15.613281 14230 net.cpp:151] Top shape: 20 64 10 10 (128000)
I0501 19:19:15.613286 14230 net.cpp:159] Memory required for data: 10272080
I0501 19:19:15.613292 14230 layer_factory.hpp:77] Creating layer relu4
I0501 19:19:15.613298 14230 net.cpp:94] Creating Layer relu4
I0501 19:19:15.613302 14230 net.cpp:435] relu4 <- conv4
I0501 19:19:15.613307 14230 net.cpp:396] relu4 -> conv4 (in-place)
I0501 19:19:15.613314 14230 net.cpp:144] Setting up relu4
I0501 19:19:15.613319 14230 net.cpp:151] Top shape: 20 64 10 10 (128000)
I0501 19:19:15.613323 14230 net.cpp:159] Memory required for data: 10784080
I0501 19:19:15.613327 14230 layer_factory.hpp:77] Creating layer conv5
I0501 19:19:15.613334 14230 net.cpp:94] Creating Layer conv5
I0501 19:19:15.613338 14230 net.cpp:435] conv5 <- conv4
I0501 19:19:15.613343 14230 net.cpp:409] conv5 -> conv5
I0501 19:19:15.619272 14230 net.cpp:144] Setting up conv5
I0501 19:19:15.619287 14230 net.cpp:151] Top shape: 20 64 10 10 (128000)
I0501 19:19:15.619292 14230 net.cpp:159] Memory required for data: 11296080
I0501 19:19:15.619300 14230 layer_factory.hpp:77] Creating layer relu5
I0501 19:19:15.619307 14230 net.cpp:94] Creating Layer relu5
I0501 19:19:15.619312 14230 net.cpp:435] relu5 <- conv5
I0501 19:19:15.619316 14230 net.cpp:396] relu5 -> conv5 (in-place)
I0501 19:19:15.619323 14230 net.cpp:144] Setting up relu5
I0501 19:19:15.619328 14230 net.cpp:151] Top shape: 20 64 10 10 (128000)
I0501 19:19:15.619331 14230 net.cpp:159] Memory required for data: 11808080
I0501 19:19:15.619334 14230 layer_factory.hpp:77] Creating layer pool5
I0501 19:19:15.619339 14230 net.cpp:94] Creating Layer pool5
I0501 19:19:15.619343 14230 net.cpp:435] pool5 <- conv5
I0501 19:19:15.619348 14230 net.cpp:409] pool5 -> pool5
I0501 19:19:15.619381 14230 net.cpp:144] Setting up pool5
I0501 19:19:15.619390 14230 net.cpp:151] Top shape: 20 64 5 5 (32000)
I0501 19:19:15.619392 14230 net.cpp:159] Memory required for data: 11936080
I0501 19:19:15.619396 14230 layer_factory.hpp:77] Creating layer ip1
I0501 19:19:15.619406 14230 net.cpp:94] Creating Layer ip1
I0501 19:19:15.619410 14230 net.cpp:435] ip1 <- pool5
I0501 19:19:15.619415 14230 net.cpp:409] ip1 -> ip1
I0501 19:19:15.621913 14230 net.cpp:144] Setting up ip1
I0501 19:19:15.621923 14230 net.cpp:151] Top shape: 20 64 (1280)
I0501 19:19:15.621927 14230 net.cpp:159] Memory required for data: 11941200
I0501 19:19:15.621933 14230 layer_factory.hpp:77] Creating layer ip2
I0501 19:19:15.621939 14230 net.cpp:94] Creating Layer ip2
I0501 19:19:15.621948 14230 net.cpp:435] ip2 <- ip1
I0501 19:19:15.621953 14230 net.cpp:409] ip2 -> ip2
I0501 19:19:15.622120 14230 net.cpp:144] Setting up ip2
I0501 19:19:15.622128 14230 net.cpp:151] Top shape: 20 64 (1280)
I0501 19:19:15.622131 14230 net.cpp:159] Memory required for data: 11946320
I0501 19:19:15.622138 14230 layer_factory.hpp:77] Creating layer ip3
I0501 19:19:15.622143 14230 net.cpp:94] Creating Layer ip3
I0501 19:19:15.622148 14230 net.cpp:435] ip3 <- ip2
I0501 19:19:15.622153 14230 net.cpp:409] ip3 -> ip3
I0501 19:19:15.622217 14230 net.cpp:144] Setting up ip3
I0501 19:19:15.622229 14230 net.cpp:151] Top shape: 20 1 (20)
I0501 19:19:15.622233 14230 net.cpp:159] Memory required for data: 11946400
I0501 19:19:15.622238 14230 layer_factory.hpp:77] Creating layer loss
I0501 19:19:15.622246 14230 net.cpp:94] Creating Layer loss
I0501 19:19:15.622251 14230 net.cpp:435] loss <- ip3
I0501 19:19:15.622254 14230 net.cpp:435] loss <- label
I0501 19:19:15.622261 14230 net.cpp:409] loss -> loss
I0501 19:19:15.622299 14230 net.cpp:144] Setting up loss
…
