…
I0507 15:52:11.669582  4429 net.cpp:323] The NetState phase (0) differed from the phase (1) specified by a rule in layer intercept
I0507 15:52:11.669600  4429 net.cpp:323] The NetState phase (0) differed from the phase (1) specified by a rule in layer loss
I0507 15:52:11.669678  4429 net.cpp:52] Initializing net from parameters: 
state {
  phase: TRAIN
}
layer {
  name: "parameters"
  type: "HDF5Data"
  top: "data"
  top: "label"
  include {
    phase: TRAIN
  }
  hdf5_data_param {
    source: "/home/purduethu/scratch/radon/d/deng106/CNNStatisticalModel/distributions/input/50_distributions_100_sample_size_train-parameters-path.txt"
    batch_size: 20
  }
}
layer {
  name: "conv1"
  type: "Convolution"
  bottom: "data"
  top: "conv1"
  param {
    lr_mult: 1
  }
  param {
    lr_mult: 2
  }
  convolution_param {
    num_output: 64
    pad: 2
    kernel_size: 5
    stride: 1
    weight_filler {
      type: "gaussian"
      std: 0.0001
    }
    bias_filler {
      type: "constant"
    }
  }
}
layer {
  name: "relu1"
  type: "ReLU"
  bottom: "conv1"
  top: "conv1"
}
layer {
  name: "conv2"
  type: "Convolution"
  bottom: "conv1"
  top: "conv2"
  param {
    lr_mult: 1
  }
  param {
    lr_mult: 2
  }
  convolution_param {
    num_output: 64
    pad: 2
    kernel_size: 5
    stride: 1
    weight_filler {
      type: "gaussian"
      std: 0.01
    }
    bias_filler {
      type: "constant"
    }
  }
}
layer {
  name: "relu2"
  type: "ReLU"
  bottom: "conv2"
  top: "conv2"
}
layer {
  name: "pool2"
  type: "Pooling"
  bottom: "conv2"
  top: "pool2"
  pooling_param {
    pool: MAX
    kernel_size: 3
    stride: 2
  }
}
layer {
  name: "conv3"
  type: "Convolution"
  bottom: "pool2"
  top: "conv3"
  param {
    lr_mult: 1
  }
  param {
    lr_mult: 2
  }
  convolution_param {
    num_output: 64
    pad: 2
    kernel_size: 5
    stride: 1
    weight_filler {
      type: "gaussian"
      std: 0.01
    }
    bias_filler {
      type: "constant"
    }
  }
}
layer {
  name: "relu3"
  type: "ReLU"
  bottom: "conv3"
  top: "conv3"
}
layer {
  name: "conv4"
  type: "Convolution"
  bottom: "conv3"
  top: "conv4"
  param {
    lr_mult: 1
  }
  param {
    lr_mult: 2
  }
  convolution_param {
    num_output: 64
    pad: 2
    kernel_size: 5
    stride: 1
    weight_filler {
      type: "gaussian"
      std: 0.01
    }
    bias_filler {
      type: "constant"
    }
  }
}
layer {
  name: "relu4"
  type: "ReLU"
  bottom: "conv4"
  top: "conv4"
}
layer {
  name: "conv5"
  type: "Convolution"
  bottom: "conv4"
  top: "conv5"
  param {
    lr_mult: 1
  }
  param {
    lr_mult: 2
  }
  convolution_param {
    num_output: 64
    pad: 2
    kernel_size: 5
    stride: 1
    weight_filler {
      type: "gaussian"
      std: 0.01
    }
    bias_filler {
      type: "constant"
    }
  }
}
layer {
  name: "relu5"
  type: "ReLU"
  bottom: "conv5"
  top: "conv5"
}
layer {
  name: "pool5"
  type: "Pooling"
  bottom: "conv5"
  top: "pool5"
  pooling_param {
    pool: AVE
    kernel_size: 3
    stride: 2
  }
}
layer {
  name: "ip1"
  type: "InnerProduct"
  bottom: "pool5"
  top: "ip1"
  param {
    lr_mult: 1
  }
  param {
    lr_mult: 2
  }
  inner_product_param {
    num_output: 64
    weight_filler {
      type: "gaussian"
      std: 0.1
    }
    bias_filler {
      type: "constant"
    }
  }
}
layer {
  name: "ip2"
  type: "InnerProduct"
  bottom: "ip1"
  top: "ip2"
  param {
    lr_mult: 1
  }
  param {
    lr_mult: 2
  }
  inner_product_param {
    num_output: 64
    weight_filler {
      type: "gaussian"
      std: 0.1
    }
    bias_filler {
      type: "constant"
    }
  }
}
layer {
  name: "ip3"
  type: "InnerProduct"
  bottom: "ip2"
  top: "ip3"
  param {
    lr_mult: 1
  }
  param {
    lr_mult: 2
  }
  inner_product_param {
    num_output: 1
    weight_filler {
      type: "gaussian"
      std: 0.1
    }
    bias_filler {
      type: "constant"
    }
  }
}
layer {
  name: "loss"
  type: "HuberLoss"
  bottom: "ip3"
  bottom: "label"
  top: "loss"
  include {
    phase: TRAIN
  }
}
I0507 15:52:11.669731  4429 layer_factory.hpp:77] Creating layer parameters
I0507 15:52:11.669745  4429 net.cpp:94] Creating Layer parameters
I0507 15:52:11.669750  4429 net.cpp:409] parameters -> data
I0507 15:52:11.669759  4429 net.cpp:409] parameters -> label
I0507 15:52:11.669770  4429 hdf5_data_layer.cpp:79] Loading list of HDF5 filenames from: /home/purduethu/scratch/radon/d/deng106/CNNStatisticalModel/distributions/input/50_distributions_100_sample_size_train-parameters-path.txt
I0507 15:52:11.669785  4429 hdf5_data_layer.cpp:93] Number of HDF5 files: 1
I0507 15:52:11.670202  4429 hdf5.cpp:32] Datatype class: H5T_FLOAT
I0507 15:52:11.833123  4429 net.cpp:144] Setting up parameters
I0507 15:52:11.833155  4429 net.cpp:151] Top shape: 20 1 10 10 (2000)
I0507 15:52:11.833161  4429 net.cpp:151] Top shape: 20 (20)
I0507 15:52:11.833164  4429 net.cpp:159] Memory required for data: 8080
I0507 15:52:11.833171  4429 layer_factory.hpp:77] Creating layer conv1
I0507 15:52:11.833187  4429 net.cpp:94] Creating Layer conv1
I0507 15:52:11.833191  4429 net.cpp:435] conv1 <- data
I0507 15:52:11.833199  4429 net.cpp:409] conv1 -> conv1
I0507 15:52:11.837235  4429 net.cpp:144] Setting up conv1
I0507 15:52:11.837251  4429 net.cpp:151] Top shape: 20 64 10 10 (128000)
I0507 15:52:11.837255  4429 net.cpp:159] Memory required for data: 520080
I0507 15:52:11.837266  4429 layer_factory.hpp:77] Creating layer relu1
I0507 15:52:11.837275  4429 net.cpp:94] Creating Layer relu1
I0507 15:52:11.837278  4429 net.cpp:435] relu1 <- conv1
I0507 15:52:11.837282  4429 net.cpp:396] relu1 -> conv1 (in-place)
I0507 15:52:11.837294  4429 net.cpp:144] Setting up relu1
I0507 15:52:11.837299  4429 net.cpp:151] Top shape: 20 64 10 10 (128000)
I0507 15:52:11.837302  4429 net.cpp:159] Memory required for data: 1032080
I0507 15:52:11.837306  4429 layer_factory.hpp:77] Creating layer conv2
I0507 15:52:11.837314  4429 net.cpp:94] Creating Layer conv2
I0507 15:52:11.837317  4429 net.cpp:435] conv2 <- conv1
I0507 15:52:11.837322  4429 net.cpp:409] conv2 -> conv2
I0507 15:52:11.843340  4429 net.cpp:144] Setting up conv2
I0507 15:52:11.843355  4429 net.cpp:151] Top shape: 20 64 10 10 (128000)
I0507 15:52:11.843359  4429 net.cpp:159] Memory required for data: 1544080
I0507 15:52:11.843369  4429 layer_factory.hpp:77] Creating layer relu2
I0507 15:52:11.843374  4429 net.cpp:94] Creating Layer relu2
I0507 15:52:11.843379  4429 net.cpp:435] relu2 <- conv2
I0507 15:52:11.843384  4429 net.cpp:396] relu2 -> conv2 (in-place)
I0507 15:52:11.843390  4429 net.cpp:144] Setting up relu2
I0507 15:52:11.843394  4429 net.cpp:151] Top shape: 20 64 10 10 (128000)
I0507 15:52:11.843397  4429 net.cpp:159] Memory required for data: 2056080
I0507 15:52:11.843401  4429 layer_factory.hpp:77] Creating layer pool2
I0507 15:52:11.843413  4429 net.cpp:94] Creating Layer pool2
I0507 15:52:11.843417  4429 net.cpp:435] pool2 <- conv2
I0507 15:52:11.843421  4429 net.cpp:409] pool2 -> pool2
I0507 15:52:11.843479  4429 net.cpp:144] Setting up pool2
I0507 15:52:11.843487  4429 net.cpp:151] Top shape: 20 64 5 5 (32000)
I0507 15:52:11.843492  4429 net.cpp:159] Memory required for data: 2184080
I0507 15:52:11.843494  4429 layer_factory.hpp:77] Creating layer conv3
I0507 15:52:11.843502  4429 net.cpp:94] Creating Layer conv3
I0507 15:52:11.843505  4429 net.cpp:435] conv3 <- pool2
I0507 15:52:11.843510  4429 net.cpp:409] conv3 -> conv3
I0507 15:52:11.848356  4429 net.cpp:144] Setting up conv3
I0507 15:52:11.848371  4429 net.cpp:151] Top shape: 20 64 5 5 (32000)
I0507 15:52:11.848376  4429 net.cpp:159] Memory required for data: 2312080
I0507 15:52:11.848383  4429 layer_factory.hpp:77] Creating layer relu3
I0507 15:52:11.848389  4429 net.cpp:94] Creating Layer relu3
I0507 15:52:11.848393  4429 net.cpp:435] relu3 <- conv3
I0507 15:52:11.848398  4429 net.cpp:396] relu3 -> conv3 (in-place)
I0507 15:52:11.848405  4429 net.cpp:144] Setting up relu3
I0507 15:52:11.848409  4429 net.cpp:151] Top shape: 20 64 5 5 (32000)
I0507 15:52:11.848412  4429 net.cpp:159] Memory required for data: 2440080
I0507 15:52:11.848417  4429 layer_factory.hpp:77] Creating layer conv4
I0507 15:52:11.848424  4429 net.cpp:94] Creating Layer conv4
I0507 15:52:11.848428  4429 net.cpp:435] conv4 <- conv3
I0507 15:52:11.848433  4429 net.cpp:409] conv4 -> conv4
I0507 15:52:11.852797  4429 net.cpp:144] Setting up conv4
I0507 15:52:11.852810  4429 net.cpp:151] Top shape: 20 64 5 5 (32000)
I0507 15:52:11.852814  4429 net.cpp:159] Memory required for data: 2568080
I0507 15:52:11.852820  4429 layer_factory.hpp:77] Creating layer relu4
I0507 15:52:11.852826  4429 net.cpp:94] Creating Layer relu4
I0507 15:52:11.852830  4429 net.cpp:435] relu4 <- conv4
I0507 15:52:11.852835  4429 net.cpp:396] relu4 -> conv4 (in-place)
I0507 15:52:11.852843  4429 net.cpp:144] Setting up relu4
I0507 15:52:11.852846  4429 net.cpp:151] Top shape: 20 64 5 5 (32000)
I0507 15:52:11.852849  4429 net.cpp:159] Memory required for data: 2696080
I0507 15:52:11.852854  4429 layer_factory.hpp:77] Creating layer conv5
I0507 15:52:11.852860  4429 net.cpp:94] Creating Layer conv5
I0507 15:52:11.852864  4429 net.cpp:435] conv5 <- conv4
I0507 15:52:11.852869  4429 net.cpp:409] conv5 -> conv5
I0507 15:52:11.857682  4429 net.cpp:144] Setting up conv5
I0507 15:52:11.857697  4429 net.cpp:151] Top shape: 20 64 5 5 (32000)
I0507 15:52:11.857700  4429 net.cpp:159] Memory required for data: 2824080
I0507 15:52:11.857708  4429 layer_factory.hpp:77] Creating layer relu5
I0507 15:52:11.857715  4429 net.cpp:94] Creating Layer relu5
I0507 15:52:11.857718  4429 net.cpp:435] relu5 <- conv5
I0507 15:52:11.857723  4429 net.cpp:396] relu5 -> conv5 (in-place)
I0507 15:52:11.857730  4429 net.cpp:144] Setting up relu5
I0507 15:52:11.857734  4429 net.cpp:151] Top shape: 20 64 5 5 (32000)
I0507 15:52:11.857738  4429 net.cpp:159] Memory required for data: 2952080
I0507 15:52:11.857741  4429 layer_factory.hpp:77] Creating layer pool5
I0507 15:52:11.857746  4429 net.cpp:94] Creating Layer pool5
I0507 15:52:11.857749  4429 net.cpp:435] pool5 <- conv5
I0507 15:52:11.857753  4429 net.cpp:409] pool5 -> pool5
I0507 15:52:11.857794  4429 net.cpp:144] Setting up pool5
I0507 15:52:11.857801  4429 net.cpp:151] Top shape: 20 64 2 2 (5120)
I0507 15:52:11.857805  4429 net.cpp:159] Memory required for data: 2972560
I0507 15:52:11.857808  4429 layer_factory.hpp:77] Creating layer ip1
I0507 15:52:11.857815  4429 net.cpp:94] Creating Layer ip1
I0507 15:52:11.857820  4429 net.cpp:435] ip1 <- pool5
I0507 15:52:11.857823  4429 net.cpp:409] ip1 -> ip1
I0507 15:52:11.859150  4429 net.cpp:144] Setting up ip1
I0507 15:52:11.859163  4429 net.cpp:151] Top shape: 20 64 (1280)
I0507 15:52:11.859167  4429 net.cpp:159] Memory required for data: 2977680
I0507 15:52:11.859174  4429 layer_factory.hpp:77] Creating layer ip2
I0507 15:52:11.859181  4429 net.cpp:94] Creating Layer ip2
I0507 15:52:11.859189  4429 net.cpp:435] ip2 <- ip1
I0507 15:52:11.859195  4429 net.cpp:409] ip2 -> ip2
I0507 15:52:11.859411  4429 net.cpp:144] Setting up ip2
I0507 15:52:11.859418  4429 net.cpp:151] Top shape: 20 64 (1280)
I0507 15:52:11.859422  4429 net.cpp:159] Memory required for data: 2982800
I0507 15:52:11.859427  4429 layer_factory.hpp:77] Creating layer ip3
I0507 15:52:11.859433  4429 net.cpp:94] Creating Layer ip3
I0507 15:52:11.859437  4429 net.cpp:435] ip3 <- ip2
I0507 15:52:11.859441  4429 net.cpp:409] ip3 -> ip3
I0507 15:52:11.859551  4429 net.cpp:144] Setting up ip3
I0507 15:52:11.859558  4429 net.cpp:151] Top shape: 20 1 (20)
I0507 15:52:11.859561  4429 net.cpp:159] Memory required for data: 2982880
I0507 15:52:11.859566  4429 layer_factory.hpp:77] Creating layer loss
I0507 15:52:11.859577  4429 net.cpp:94] Creating Layer loss
I0507 15:52:11.859581  4429 net.cpp:435] loss <- ip3
I0507 15:52:11.859586  4429 net.cpp:435] loss <- label
I0507 15:52:11.859589  4429 net.cpp:409] loss -> loss
I0507 15:52:11.859644  4429 net.cpp:144] Setting up loss
…
I0507 15:52:11.920994  4429 net.cpp:323] The NetState phase (0) differed from the phase (1) specified by a rule in layer intercept
I0507 15:52:11.921010  4429 net.cpp:323] The NetState phase (0) differed from the phase (1) specified by a rule in layer accuracy
I0507 15:52:11.921097  4429 net.cpp:52] Initializing net from parameters: 
state {
  phase: TRAIN
}
layer {
  name: "parameters"
  type: "HDF5Data"
  top: "data"
  top: "label"
  include {
    phase: TRAIN
  }
  hdf5_data_param {
    source: "/home/purduethu/scratch/radon/d/deng106/CNNStatisticalModel/distributions/input/50_distributions_100_sample_size_train-distributions-path.txt"
    batch_size: 20
  }
}
layer {
  name: "conv1"
  type: "Convolution"
  bottom: "data"
  top: "conv1"
  param {
    lr_mult: 1
  }
  param {
    lr_mult: 2
  }
  convolution_param {
    num_output: 64
    pad: 2
    kernel_size: 5
    stride: 1
    weight_filler {
      type: "gaussian"
      std: 0.0001
    }
    bias_filler {
      type: "constant"
    }
  }
}
layer {
  name: "relu1"
  type: "ReLU"
  bottom: "conv1"
  top: "conv1"
}
layer {
  name: "conv2"
  type: "Convolution"
  bottom: "conv1"
  top: "conv2"
  param {
    lr_mult: 1
  }
  param {
    lr_mult: 2
  }
  convolution_param {
    num_output: 64
    pad: 2
    kernel_size: 5
    stride: 1
    weight_filler {
      type: "gaussian"
      std: 0.01
    }
    bias_filler {
      type: "constant"
    }
  }
}
layer {
  name: "relu2"
  type: "ReLU"
  bottom: "conv2"
  top: "conv2"
}
layer {
  name: "pool2"
  type: "Pooling"
  bottom: "conv2"
  top: "pool2"
  pooling_param {
    pool: MAX
    kernel_size: 3
    stride: 2
  }
}
layer {
  name: "conv3"
  type: "Convolution"
  bottom: "pool2"
  top: "conv3"
  param {
    lr_mult: 1
  }
  param {
    lr_mult: 2
  }
  convolution_param {
    num_output: 64
    pad: 2
    kernel_size: 5
    stride: 1
    weight_filler {
      type: "gaussian"
      std: 0.01
    }
    bias_filler {
      type: "constant"
    }
  }
}
layer {
  name: "relu3"
  type: "ReLU"
  bottom: "conv3"
  top: "conv3"
}
layer {
  name: "conv4"
  type: "Convolution"
  bottom: "conv3"
  top: "conv4"
  param {
    lr_mult: 1
  }
  param {
    lr_mult: 2
  }
  convolution_param {
    num_output: 64
    pad: 2
    kernel_size: 5
    stride: 1
    weight_filler {
      type: "gaussian"
      std: 0.01
    }
    bias_filler {
      type: "constant"
    }
  }
}
layer {
  name: "relu4"
  type: "ReLU"
  bottom: "conv4"
  top: "conv4"
}
layer {
  name: "conv5"
  type: "Convolution"
  bottom: "conv4"
  top: "conv5"
  param {
    lr_mult: 1
  }
  param {
    lr_mult: 2
  }
  convolution_param {
    num_output: 64
    pad: 2
    kernel_size: 5
    stride: 1
    weight_filler {
      type: "gaussian"
      std: 0.01
    }
    bias_filler {
      type: "constant"
    }
  }
}
layer {
  name: "relu5"
  type: "ReLU"
  bottom: "conv5"
  top: "conv5"
}
layer {
  name: "pool5"
  type: "Pooling"
  bottom: "conv5"
  top: "pool5"
  pooling_param {
    pool: AVE
    kernel_size: 3
    stride: 2
  }
}
layer {
  name: "ip1"
  type: "InnerProduct"
  bottom: "pool5"
  top: "ip1"
  param {
    lr_mult: 1
  }
  param {
    lr_mult: 2
  }
  inner_product_param {
    num_output: 64
    weight_filler {
      type: "gaussian"
      std: 0.1
    }
    bias_filler {
      type: "constant"
    }
  }
}
layer {
  name: "ip2"
  type: "InnerProduct"
  bottom: "ip1"
  top: "ip2"
  param {
    lr_mult: 1
  }
  param {
    lr_mult: 2
  }
  inner_product_param {
    num_output: 64
    weight_filler {
      type: "gaussian"
      std: 0.1
    }
    bias_filler {
      type: "constant"
    }
  }
}
layer {
  name: "ip3"
  type: "InnerProduct"
  bottom: "ip2"
  top: "ip3"
  param {
    lr_mult: 1
  }
  param {
    lr_mult: 2
  }
  inner_product_param {
    num_output: 50
    weight_filler {
      type: "gaussian"
      std: 0.1
    }
    bias_filler {
      type: "constant"
    }
  }
}
layer {
  name: "loss"
  type: "SoftmaxWithLoss"
  bottom: "ip3"
  bottom: "label"
  top: "loss"
}
I0507 15:52:11.921149  4429 layer_factory.hpp:77] Creating layer parameters
I0507 15:52:11.921157  4429 net.cpp:94] Creating Layer parameters
I0507 15:52:11.921161  4429 net.cpp:409] parameters -> data
I0507 15:52:11.921169  4429 net.cpp:409] parameters -> label
I0507 15:52:11.921175  4429 hdf5_data_layer.cpp:79] Loading list of HDF5 filenames from: /home/purduethu/scratch/radon/d/deng106/CNNStatisticalModel/distributions/input/50_distributions_100_sample_size_train-distributions-path.txt
I0507 15:52:11.921190  4429 hdf5_data_layer.cpp:93] Number of HDF5 files: 1
I0507 15:52:12.078094  4429 hdf5.cpp:35] Datatype class: H5T_INTEGER
I0507 15:52:12.081143  4429 net.cpp:144] Setting up parameters
I0507 15:52:12.081166  4429 net.cpp:151] Top shape: 20 1 10 10 (2000)
I0507 15:52:12.081172  4429 net.cpp:151] Top shape: 20 (20)
I0507 15:52:12.081176  4429 net.cpp:159] Memory required for data: 8080
I0507 15:52:12.081182  4429 layer_factory.hpp:77] Creating layer conv1
I0507 15:52:12.081198  4429 net.cpp:94] Creating Layer conv1
I0507 15:52:12.081202  4429 net.cpp:435] conv1 <- data
I0507 15:52:12.081209  4429 net.cpp:409] conv1 -> conv1
I0507 15:52:12.082901  4429 net.cpp:144] Setting up conv1
I0507 15:52:12.082914  4429 net.cpp:151] Top shape: 20 64 10 10 (128000)
I0507 15:52:12.082918  4429 net.cpp:159] Memory required for data: 520080
I0507 15:52:12.082928  4429 layer_factory.hpp:77] Creating layer relu1
I0507 15:52:12.082937  4429 net.cpp:94] Creating Layer relu1
I0507 15:52:12.082940  4429 net.cpp:435] relu1 <- conv1
I0507 15:52:12.082944  4429 net.cpp:396] relu1 -> conv1 (in-place)
I0507 15:52:12.082952  4429 net.cpp:144] Setting up relu1
I0507 15:52:12.082957  4429 net.cpp:151] Top shape: 20 64 10 10 (128000)
I0507 15:52:12.082960  4429 net.cpp:159] Memory required for data: 1032080
I0507 15:52:12.082963  4429 layer_factory.hpp:77] Creating layer conv2
I0507 15:52:12.082972  4429 net.cpp:94] Creating Layer conv2
I0507 15:52:12.082974  4429 net.cpp:435] conv2 <- conv1
I0507 15:52:12.082979  4429 net.cpp:409] conv2 -> conv2
I0507 15:52:12.088279  4429 net.cpp:144] Setting up conv2
I0507 15:52:12.088291  4429 net.cpp:151] Top shape: 20 64 10 10 (128000)
I0507 15:52:12.088296  4429 net.cpp:159] Memory required for data: 1544080
I0507 15:52:12.088304  4429 layer_factory.hpp:77] Creating layer relu2
I0507 15:52:12.088311  4429 net.cpp:94] Creating Layer relu2
I0507 15:52:12.088315  4429 net.cpp:435] relu2 <- conv2
I0507 15:52:12.088320  4429 net.cpp:396] relu2 -> conv2 (in-place)
I0507 15:52:12.088326  4429 net.cpp:144] Setting up relu2
I0507 15:52:12.088331  4429 net.cpp:151] Top shape: 20 64 10 10 (128000)
I0507 15:52:12.088335  4429 net.cpp:159] Memory required for data: 2056080
I0507 15:52:12.088337  4429 layer_factory.hpp:77] Creating layer pool2
I0507 15:52:12.088345  4429 net.cpp:94] Creating Layer pool2
I0507 15:52:12.088347  4429 net.cpp:435] pool2 <- conv2
I0507 15:52:12.088351  4429 net.cpp:409] pool2 -> pool2
I0507 15:52:12.088407  4429 net.cpp:144] Setting up pool2
I0507 15:52:12.088415  4429 net.cpp:151] Top shape: 20 64 5 5 (32000)
I0507 15:52:12.088418  4429 net.cpp:159] Memory required for data: 2184080
I0507 15:52:12.088423  4429 layer_factory.hpp:77] Creating layer conv3
I0507 15:52:12.088429  4429 net.cpp:94] Creating Layer conv3
I0507 15:52:12.088433  4429 net.cpp:435] conv3 <- pool2
I0507 15:52:12.088438  4429 net.cpp:409] conv3 -> conv3
I0507 15:52:12.094166  4429 net.cpp:144] Setting up conv3
I0507 15:52:12.094182  4429 net.cpp:151] Top shape: 20 64 5 5 (32000)
I0507 15:52:12.094185  4429 net.cpp:159] Memory required for data: 2312080
I0507 15:52:12.094193  4429 layer_factory.hpp:77] Creating layer relu3
I0507 15:52:12.094199  4429 net.cpp:94] Creating Layer relu3
I0507 15:52:12.094203  4429 net.cpp:435] relu3 <- conv3
I0507 15:52:12.094208  4429 net.cpp:396] relu3 -> conv3 (in-place)
I0507 15:52:12.094215  4429 net.cpp:144] Setting up relu3
I0507 15:52:12.094220  4429 net.cpp:151] Top shape: 20 64 5 5 (32000)
I0507 15:52:12.094223  4429 net.cpp:159] Memory required for data: 2440080
I0507 15:52:12.094226  4429 layer_factory.hpp:77] Creating layer conv4
I0507 15:52:12.094235  4429 net.cpp:94] Creating Layer conv4
I0507 15:52:12.094238  4429 net.cpp:435] conv4 <- conv3
I0507 15:52:12.094244  4429 net.cpp:409] conv4 -> conv4
I0507 15:52:12.099083  4429 net.cpp:144] Setting up conv4
I0507 15:52:12.099097  4429 net.cpp:151] Top shape: 20 64 5 5 (32000)
I0507 15:52:12.099102  4429 net.cpp:159] Memory required for data: 2568080
I0507 15:52:12.099108  4429 layer_factory.hpp:77] Creating layer relu4
I0507 15:52:12.099114  4429 net.cpp:94] Creating Layer relu4
I0507 15:52:12.099118  4429 net.cpp:435] relu4 <- conv4
I0507 15:52:12.099123  4429 net.cpp:396] relu4 -> conv4 (in-place)
I0507 15:52:12.099129  4429 net.cpp:144] Setting up relu4
I0507 15:52:12.099134  4429 net.cpp:151] Top shape: 20 64 5 5 (32000)
I0507 15:52:12.099138  4429 net.cpp:159] Memory required for data: 2696080
I0507 15:52:12.099140  4429 layer_factory.hpp:77] Creating layer conv5
I0507 15:52:12.099148  4429 net.cpp:94] Creating Layer conv5
I0507 15:52:12.099151  4429 net.cpp:435] conv5 <- conv4
I0507 15:52:12.099156  4429 net.cpp:409] conv5 -> conv5
I0507 15:52:12.103540  4429 net.cpp:144] Setting up conv5
I0507 15:52:12.103554  4429 net.cpp:151] Top shape: 20 64 5 5 (32000)
I0507 15:52:12.103559  4429 net.cpp:159] Memory required for data: 2824080
I0507 15:52:12.103566  4429 layer_factory.hpp:77] Creating layer relu5
I0507 15:52:12.103572  4429 net.cpp:94] Creating Layer relu5
I0507 15:52:12.103576  4429 net.cpp:435] relu5 <- conv5
I0507 15:52:12.103580  4429 net.cpp:396] relu5 -> conv5 (in-place)
I0507 15:52:12.103587  4429 net.cpp:144] Setting up relu5
I0507 15:52:12.103592  4429 net.cpp:151] Top shape: 20 64 5 5 (32000)
I0507 15:52:12.103595  4429 net.cpp:159] Memory required for data: 2952080
I0507 15:52:12.103600  4429 layer_factory.hpp:77] Creating layer pool5
I0507 15:52:12.103605  4429 net.cpp:94] Creating Layer pool5
I0507 15:52:12.103607  4429 net.cpp:435] pool5 <- conv5
I0507 15:52:12.103611  4429 net.cpp:409] pool5 -> pool5
I0507 15:52:12.103647  4429 net.cpp:144] Setting up pool5
I0507 15:52:12.103655  4429 net.cpp:151] Top shape: 20 64 2 2 (5120)
I0507 15:52:12.103658  4429 net.cpp:159] Memory required for data: 2972560
I0507 15:52:12.103662  4429 layer_factory.hpp:77] Creating layer ip1
I0507 15:52:12.103669  4429 net.cpp:94] Creating Layer ip1
I0507 15:52:12.103672  4429 net.cpp:435] ip1 <- pool5
I0507 15:52:12.103677  4429 net.cpp:409] ip1 -> ip1
I0507 15:52:12.104197  4429 net.cpp:144] Setting up ip1
I0507 15:52:12.104205  4429 net.cpp:151] Top shape: 20 64 (1280)
I0507 15:52:12.104209  4429 net.cpp:159] Memory required for data: 2977680
I0507 15:52:12.104214  4429 layer_factory.hpp:77] Creating layer ip2
I0507 15:52:12.104220  4429 net.cpp:94] Creating Layer ip2
I0507 15:52:12.104224  4429 net.cpp:435] ip2 <- ip1
I0507 15:52:12.104228  4429 net.cpp:409] ip2 -> ip2
I0507 15:52:12.104454  4429 net.cpp:144] Setting up ip2
I0507 15:52:12.104461  4429 net.cpp:151] Top shape: 20 64 (1280)
I0507 15:52:12.104465  4429 net.cpp:159] Memory required for data: 2982800
I0507 15:52:12.104470  4429 layer_factory.hpp:77] Creating layer ip3
I0507 15:52:12.104476  4429 net.cpp:94] Creating Layer ip3
I0507 15:52:12.104480  4429 net.cpp:435] ip3 <- ip2
I0507 15:52:12.104485  4429 net.cpp:409] ip3 -> ip3
I0507 15:52:12.104694  4429 net.cpp:144] Setting up ip3
I0507 15:52:12.104703  4429 net.cpp:151] Top shape: 20 50 (1000)
I0507 15:52:12.104712  4429 net.cpp:159] Memory required for data: 2986800
I0507 15:52:12.104717  4429 layer_factory.hpp:77] Creating layer loss
I0507 15:52:12.104723  4429 net.cpp:94] Creating Layer loss
I0507 15:52:12.104727  4429 net.cpp:435] loss <- ip3
I0507 15:52:12.104732  4429 net.cpp:435] loss <- label
I0507 15:52:12.104735  4429 net.cpp:409] loss -> loss
I0507 15:52:12.104743  4429 layer_factory.hpp:77] Creating layer loss
…
I0507 15:52:12.106093  4429 solver.cpp:181] Creating test net (#0) specified by net file: ./protocol/dis_50_100_dimension.protocol_distribution
I0507 15:52:12.106119  4429 net.cpp:323] The NetState phase (1) differed from the phase (0) specified by a rule in layer parameters
I0507 15:52:12.106215  4429 net.cpp:52] Initializing net from parameters: 
state {
  phase: TEST
}
layer {
  name: "intercept"
  type: "HDF5Data"
  top: "data"
  top: "label"
  include {
    phase: TEST
  }
  hdf5_data_param {
    source: "/home/purduethu/scratch/radon/d/deng106/CNNStatisticalModel/distributions/input/50_distributions_100_sample_size_test-distributions-path.txt"
    batch_size: 20
  }
}
layer {
  name: "conv1"
  type: "Convolution"
  bottom: "data"
  top: "conv1"
  param {
    lr_mult: 1
  }
  param {
    lr_mult: 2
  }
  convolution_param {
    num_output: 64
    pad: 2
    kernel_size: 5
    stride: 1
    weight_filler {
      type: "gaussian"
      std: 0.0001
    }
    bias_filler {
      type: "constant"
    }
  }
}
layer {
  name: "relu1"
  type: "ReLU"
  bottom: "conv1"
  top: "conv1"
}
layer {
  name: "conv2"
  type: "Convolution"
  bottom: "conv1"
  top: "conv2"
  param {
    lr_mult: 1
  }
  param {
    lr_mult: 2
  }
  convolution_param {
    num_output: 64
    pad: 2
    kernel_size: 5
    stride: 1
    weight_filler {
      type: "gaussian"
      std: 0.01
    }
    bias_filler {
      type: "constant"
    }
  }
}
layer {
  name: "relu2"
  type: "ReLU"
  bottom: "conv2"
  top: "conv2"
}
layer {
  name: "pool2"
  type: "Pooling"
  bottom: "conv2"
  top: "pool2"
  pooling_param {
    pool: MAX
    kernel_size: 3
    stride: 2
  }
}
layer {
  name: "conv3"
  type: "Convolution"
  bottom: "pool2"
  top: "conv3"
  param {
    lr_mult: 1
  }
  param {
    lr_mult: 2
  }
  convolution_param {
    num_output: 64
    pad: 2
    kernel_size: 5
    stride: 1
    weight_filler {
      type: "gaussian"
      std: 0.01
    }
    bias_filler {
      type: "constant"
    }
  }
}
layer {
  name: "relu3"
  type: "ReLU"
  bottom: "conv3"
  top: "conv3"
}
layer {
  name: "conv4"
  type: "Convolution"
  bottom: "conv3"
  top: "conv4"
  param {
    lr_mult: 1
  }
  param {
    lr_mult: 2
  }
  convolution_param {
    num_output: 64
    pad: 2
    kernel_size: 5
    stride: 1
    weight_filler {
      type: "gaussian"
      std: 0.01
    }
    bias_filler {
      type: "constant"
    }
  }
}
layer {
  name: "relu4"
  type: "ReLU"
  bottom: "conv4"
  top: "conv4"
}
layer {
  name: "conv5"
  type: "Convolution"
  bottom: "conv4"
  top: "conv5"
  param {
    lr_mult: 1
  }
  param {
    lr_mult: 2
  }
  convolution_param {
    num_output: 64
    pad: 2
    kernel_size: 5
    stride: 1
    weight_filler {
      type: "gaussian"
      std: 0.01
    }
    bias_filler {
      type: "constant"
    }
  }
}
layer {
  name: "relu5"
  type: "ReLU"
  bottom: "conv5"
  top: "conv5"
}
layer {
  name: "pool5"
  type: "Pooling"
  bottom: "conv5"
  top: "pool5"
  pooling_param {
    pool: AVE
    kernel_size: 3
    stride: 2
  }
}
layer {
  name: "ip1"
  type: "InnerProduct"
  bottom: "pool5"
  top: "ip1"
  param {
    lr_mult: 1
  }
  param {
    lr_mult: 2
  }
  inner_product_param {
    num_output: 64
    weight_filler {
      type: "gaussian"
      std: 0.1
    }
    bias_filler {
      type: "constant"
    }
  }
}
layer {
  name: "ip2"
  type: "InnerProduct"
  bottom: "ip1"
  top: "ip2"
  param {
    lr_mult: 1
  }
  param {
    lr_mult: 2
  }
  inner_product_param {
    num_output: 64
    weight_filler {
      type: "gaussian"
      std: 0.1
    }
    bias_filler {
      type: "constant"
    }
  }
}
layer {
  name: "ip3"
  type: "InnerProduct"
  bottom: "ip2"
  top: "ip3"
  param {
    lr_mult: 1
  }
  param {
    lr_mult: 2
  }
  inner_product_param {
    num_output: 50
    weight_filler {
      type: "gaussian"
      std: 0.1
    }
    bias_filler {
      type: "constant"
    }
  }
}
layer {
  name: "accuracy"
  type: "Accuracy"
  bottom: "ip3"
  bottom: "label"
  top: "accuracy"
  include {
    phase: TEST
  }
}
layer {
  name: "loss"
  type: "SoftmaxWithLoss"
  bottom: "ip3"
  bottom: "label"
  top: "loss"
}
I0507 15:52:12.106281  4429 layer_factory.hpp:77] Creating layer intercept
I0507 15:52:12.106289  4429 net.cpp:94] Creating Layer intercept
I0507 15:52:12.106294  4429 net.cpp:409] intercept -> data
I0507 15:52:12.106302  4429 net.cpp:409] intercept -> label
I0507 15:52:12.106307  4429 hdf5_data_layer.cpp:79] Loading list of HDF5 filenames from: /home/purduethu/scratch/radon/d/deng106/CNNStatisticalModel/distributions/input/50_distributions_100_sample_size_test-distributions-path.txt
I0507 15:52:12.106326  4429 hdf5_data_layer.cpp:93] Number of HDF5 files: 1
I0507 15:52:12.147806  4429 net.cpp:144] Setting up intercept
I0507 15:52:12.147840  4429 net.cpp:151] Top shape: 20 1 10 10 (2000)
I0507 15:52:12.147846  4429 net.cpp:151] Top shape: 20 (20)
I0507 15:52:12.147850  4429 net.cpp:159] Memory required for data: 8080
I0507 15:52:12.147856  4429 layer_factory.hpp:77] Creating layer label_intercept_1_split
I0507 15:52:12.147876  4429 net.cpp:94] Creating Layer label_intercept_1_split
I0507 15:52:12.147881  4429 net.cpp:435] label_intercept_1_split <- label
I0507 15:52:12.147886  4429 net.cpp:409] label_intercept_1_split -> label_intercept_1_split_0
I0507 15:52:12.147896  4429 net.cpp:409] label_intercept_1_split -> label_intercept_1_split_1
I0507 15:52:12.147940  4429 net.cpp:144] Setting up label_intercept_1_split
I0507 15:52:12.147948  4429 net.cpp:151] Top shape: 20 (20)
I0507 15:52:12.147951  4429 net.cpp:151] Top shape: 20 (20)
I0507 15:52:12.147954  4429 net.cpp:159] Memory required for data: 8240
I0507 15:52:12.147958  4429 layer_factory.hpp:77] Creating layer conv1
I0507 15:52:12.147969  4429 net.cpp:94] Creating Layer conv1
I0507 15:52:12.147972  4429 net.cpp:435] conv1 <- data
I0507 15:52:12.147977  4429 net.cpp:409] conv1 -> conv1
I0507 15:52:12.148777  4429 net.cpp:144] Setting up conv1
I0507 15:52:12.148790  4429 net.cpp:151] Top shape: 20 64 10 10 (128000)
I0507 15:52:12.148802  4429 net.cpp:159] Memory required for data: 520240
I0507 15:52:12.148813  4429 layer_factory.hpp:77] Creating layer relu1
I0507 15:52:12.148819  4429 net.cpp:94] Creating Layer relu1
I0507 15:52:12.148823  4429 net.cpp:435] relu1 <- conv1
I0507 15:52:12.148828  4429 net.cpp:396] relu1 -> conv1 (in-place)
I0507 15:52:12.148834  4429 net.cpp:144] Setting up relu1
I0507 15:52:12.148838  4429 net.cpp:151] Top shape: 20 64 10 10 (128000)
I0507 15:52:12.148843  4429 net.cpp:159] Memory required for data: 1032240
I0507 15:52:12.148845  4429 layer_factory.hpp:77] Creating layer conv2
I0507 15:52:12.148854  4429 net.cpp:94] Creating Layer conv2
I0507 15:52:12.148856  4429 net.cpp:435] conv2 <- conv1
I0507 15:52:12.148861  4429 net.cpp:409] conv2 -> conv2
I0507 15:52:12.152911  4429 net.cpp:144] Setting up conv2
I0507 15:52:12.152925  4429 net.cpp:151] Top shape: 20 64 10 10 (128000)
I0507 15:52:12.152930  4429 net.cpp:159] Memory required for data: 1544240
I0507 15:52:12.152937  4429 layer_factory.hpp:77] Creating layer relu2
I0507 15:52:12.152945  4429 net.cpp:94] Creating Layer relu2
I0507 15:52:12.152950  4429 net.cpp:435] relu2 <- conv2
I0507 15:52:12.152953  4429 net.cpp:396] relu2 -> conv2 (in-place)
I0507 15:52:12.152961  4429 net.cpp:144] Setting up relu2
I0507 15:52:12.152966  4429 net.cpp:151] Top shape: 20 64 10 10 (128000)
I0507 15:52:12.152968  4429 net.cpp:159] Memory required for data: 2056240
I0507 15:52:12.152971  4429 layer_factory.hpp:77] Creating layer pool2
I0507 15:52:12.152977  4429 net.cpp:94] Creating Layer pool2
I0507 15:52:12.152981  4429 net.cpp:435] pool2 <- conv2
I0507 15:52:12.152984  4429 net.cpp:409] pool2 -> pool2
I0507 15:52:12.153043  4429 net.cpp:144] Setting up pool2
I0507 15:52:12.153049  4429 net.cpp:151] Top shape: 20 64 5 5 (32000)
I0507 15:52:12.153053  4429 net.cpp:159] Memory required for data: 2184240
I0507 15:52:12.153056  4429 layer_factory.hpp:77] Creating layer conv3
I0507 15:52:12.153065  4429 net.cpp:94] Creating Layer conv3
I0507 15:52:12.153069  4429 net.cpp:435] conv3 <- pool2
I0507 15:52:12.153074  4429 net.cpp:409] conv3 -> conv3
I0507 15:52:12.157435  4429 net.cpp:144] Setting up conv3
I0507 15:52:12.157449  4429 net.cpp:151] Top shape: 20 64 5 5 (32000)
I0507 15:52:12.157452  4429 net.cpp:159] Memory required for data: 2312240
I0507 15:52:12.157461  4429 layer_factory.hpp:77] Creating layer relu3
I0507 15:52:12.157467  4429 net.cpp:94] Creating Layer relu3
I0507 15:52:12.157471  4429 net.cpp:435] relu3 <- conv3
I0507 15:52:12.157475  4429 net.cpp:396] relu3 -> conv3 (in-place)
I0507 15:52:12.157482  4429 net.cpp:144] Setting up relu3
I0507 15:52:12.157487  4429 net.cpp:151] Top shape: 20 64 5 5 (32000)
I0507 15:52:12.157490  4429 net.cpp:159] Memory required for data: 2440240
I0507 15:52:12.157493  4429 layer_factory.hpp:77] Creating layer conv4
I0507 15:52:12.157503  4429 net.cpp:94] Creating Layer conv4
I0507 15:52:12.157506  4429 net.cpp:435] conv4 <- conv3
I0507 15:52:12.157511  4429 net.cpp:409] conv4 -> conv4
I0507 15:52:12.160984  4429 net.cpp:144] Setting up conv4
I0507 15:52:12.160996  4429 net.cpp:151] Top shape: 20 64 5 5 (32000)
I0507 15:52:12.161000  4429 net.cpp:159] Memory required for data: 2568240
I0507 15:52:12.161006  4429 layer_factory.hpp:77] Creating layer relu4
I0507 15:52:12.161012  4429 net.cpp:94] Creating Layer relu4
I0507 15:52:12.161016  4429 net.cpp:435] relu4 <- conv4
I0507 15:52:12.161020  4429 net.cpp:396] relu4 -> conv4 (in-place)
I0507 15:52:12.161026  4429 net.cpp:144] Setting up relu4
I0507 15:52:12.161031  4429 net.cpp:151] Top shape: 20 64 5 5 (32000)
I0507 15:52:12.161034  4429 net.cpp:159] Memory required for data: 2696240
I0507 15:52:12.161037  4429 layer_factory.hpp:77] Creating layer conv5
I0507 15:52:12.161047  4429 net.cpp:94] Creating Layer conv5
I0507 15:52:12.161051  4429 net.cpp:435] conv5 <- conv4
I0507 15:52:12.161056  4429 net.cpp:409] conv5 -> conv5
I0507 15:52:12.165045  4429 net.cpp:144] Setting up conv5
I0507 15:52:12.165058  4429 net.cpp:151] Top shape: 20 64 5 5 (32000)
I0507 15:52:12.165062  4429 net.cpp:159] Memory required for data: 2824240
I0507 15:52:12.165076  4429 layer_factory.hpp:77] Creating layer relu5
I0507 15:52:12.165083  4429 net.cpp:94] Creating Layer relu5
I0507 15:52:12.165087  4429 net.cpp:435] relu5 <- conv5
I0507 15:52:12.165092  4429 net.cpp:396] relu5 -> conv5 (in-place)
I0507 15:52:12.165098  4429 net.cpp:144] Setting up relu5
I0507 15:52:12.165103  4429 net.cpp:151] Top shape: 20 64 5 5 (32000)
I0507 15:52:12.165107  4429 net.cpp:159] Memory required for data: 2952240
I0507 15:52:12.165109  4429 layer_factory.hpp:77] Creating layer pool5
I0507 15:52:12.165114  4429 net.cpp:94] Creating Layer pool5
I0507 15:52:12.165118  4429 net.cpp:435] pool5 <- conv5
I0507 15:52:12.165123  4429 net.cpp:409] pool5 -> pool5
I0507 15:52:12.165163  4429 net.cpp:144] Setting up pool5
I0507 15:52:12.165169  4429 net.cpp:151] Top shape: 20 64 2 2 (5120)
I0507 15:52:12.165172  4429 net.cpp:159] Memory required for data: 2972720
I0507 15:52:12.165176  4429 layer_factory.hpp:77] Creating layer ip1
I0507 15:52:12.165184  4429 net.cpp:94] Creating Layer ip1
I0507 15:52:12.165187  4429 net.cpp:435] ip1 <- pool5
I0507 15:52:12.165192  4429 net.cpp:409] ip1 -> ip1
I0507 15:52:12.165726  4429 net.cpp:144] Setting up ip1
I0507 15:52:12.165735  4429 net.cpp:151] Top shape: 20 64 (1280)
I0507 15:52:12.165737  4429 net.cpp:159] Memory required for data: 2977840
I0507 15:52:12.165743  4429 layer_factory.hpp:77] Creating layer ip2
I0507 15:52:12.165750  4429 net.cpp:94] Creating Layer ip2
I0507 15:52:12.165752  4429 net.cpp:435] ip2 <- ip1
I0507 15:52:12.165757  4429 net.cpp:409] ip2 -> ip2
I0507 15:52:12.165990  4429 net.cpp:144] Setting up ip2
I0507 15:52:12.165997  4429 net.cpp:151] Top shape: 20 64 (1280)
I0507 15:52:12.166000  4429 net.cpp:159] Memory required for data: 2982960
I0507 15:52:12.166007  4429 layer_factory.hpp:77] Creating layer ip3
I0507 15:52:12.166014  4429 net.cpp:94] Creating Layer ip3
I0507 15:52:12.166018  4429 net.cpp:435] ip3 <- ip2
I0507 15:52:12.166023  4429 net.cpp:409] ip3 -> ip3
I0507 15:52:12.166232  4429 net.cpp:144] Setting up ip3
I0507 15:52:12.166240  4429 net.cpp:151] Top shape: 20 50 (1000)
I0507 15:52:12.166244  4429 net.cpp:159] Memory required for data: 2986960
I0507 15:52:12.166249  4429 layer_factory.hpp:77] Creating layer ip3_ip3_0_split
I0507 15:52:12.166254  4429 net.cpp:94] Creating Layer ip3_ip3_0_split
I0507 15:52:12.166257  4429 net.cpp:435] ip3_ip3_0_split <- ip3
I0507 15:52:12.166263  4429 net.cpp:409] ip3_ip3_0_split -> ip3_ip3_0_split_0
I0507 15:52:12.166268  4429 net.cpp:409] ip3_ip3_0_split -> ip3_ip3_0_split_1
I0507 15:52:12.166311  4429 net.cpp:144] Setting up ip3_ip3_0_split
I0507 15:52:12.166318  4429 net.cpp:151] Top shape: 20 50 (1000)
I0507 15:52:12.166322  4429 net.cpp:151] Top shape: 20 50 (1000)
I0507 15:52:12.166326  4429 net.cpp:159] Memory required for data: 2994960
I0507 15:52:12.166328  4429 layer_factory.hpp:77] Creating layer accuracy
I0507 15:52:12.166334  4429 net.cpp:94] Creating Layer accuracy
I0507 15:52:12.166337  4429 net.cpp:435] accuracy <- ip3_ip3_0_split_0
I0507 15:52:12.166342  4429 net.cpp:435] accuracy <- label_intercept_1_split_0
I0507 15:52:12.166347  4429 net.cpp:409] accuracy -> accuracy
…
