…
I0502 17:05:32.626179 11730 net.cpp:323] The NetState phase (0) differed from the phase (1) specified by a rule in layer intercept
I0502 17:05:32.626196 11730 net.cpp:323] The NetState phase (0) differed from the phase (1) specified by a rule in layer accuracy
I0502 17:05:32.626287 11730 net.cpp:52] Initializing net from parameters: 
state {
  phase: TRAIN
}
layer {
  name: "parameters"
  type: "HDF5Data"
  top: "data"
  top: "label"
  include {
    phase: TRAIN
  }
  hdf5_data_param {
    source: "/home/purduethu/scratch/radon/d/deng106/CNNStatisticalModel/distributions/input/20_distributions_900_sample_size_train-distributions-path.txt"
    batch_size: 20
  }
}
layer {
  name: "conv1"
  type: "Convolution"
  bottom: "data"
  top: "conv1"
  param {
    lr_mult: 1
  }
  param {
    lr_mult: 2
  }
  convolution_param {
    num_output: 64
    pad: 2
    kernel_size: 5
    stride: 1
    weight_filler {
      type: "gaussian"
      std: 0.0001
    }
    bias_filler {
      type: "constant"
    }
  }
}
layer {
  name: "relu1"
  type: "ReLU"
  bottom: "conv1"
  top: "conv1"
}
layer {
  name: "conv2"
  type: "Convolution"
  bottom: "conv1"
  top: "conv2"
  param {
    lr_mult: 1
  }
  param {
    lr_mult: 2
  }
  convolution_param {
    num_output: 64
    pad: 2
    kernel_size: 5
    stride: 1
    weight_filler {
      type: "gaussian"
      std: 0.01
    }
    bias_filler {
      type: "constant"
    }
  }
}
layer {
  name: "relu2"
  type: "ReLU"
  bottom: "conv2"
  top: "conv2"
}
layer {
  name: "pool2"
  type: "Pooling"
  bottom: "conv2"
  top: "pool2"
  pooling_param {
    pool: MAX
    kernel_size: 3
    stride: 2
  }
}
layer {
  name: "conv3"
  type: "Convolution"
  bottom: "pool2"
  top: "conv3"
  param {
    lr_mult: 1
  }
  param {
    lr_mult: 2
  }
  convolution_param {
    num_output: 64
    pad: 2
    kernel_size: 5
    stride: 1
    weight_filler {
      type: "gaussian"
      std: 0.01
    }
    bias_filler {
      type: "constant"
    }
  }
}
layer {
  name: "relu3"
  type: "ReLU"
  bottom: "conv3"
  top: "conv3"
}
layer {
  name: "conv4"
  type: "Convolution"
  bottom: "conv3"
  top: "conv4"
  param {
    lr_mult: 1
  }
  param {
    lr_mult: 2
  }
  convolution_param {
    num_output: 64
    pad: 2
    kernel_size: 5
    stride: 1
    weight_filler {
      type: "gaussian"
      std: 0.01
    }
    bias_filler {
      type: "constant"
    }
  }
}
layer {
  name: "relu4"
  type: "ReLU"
  bottom: "conv4"
  top: "conv4"
}
layer {
  name: "conv5"
  type: "Convolution"
  bottom: "conv4"
  top: "conv5"
  param {
    lr_mult: 1
  }
  param {
    lr_mult: 2
  }
  convolution_param {
    num_output: 64
    pad: 2
    kernel_size: 5
    stride: 1
    weight_filler {
      type: "gaussian"
      std: 0.01
    }
    bias_filler {
      type: "constant"
    }
  }
}
layer {
  name: "relu5"
  type: "ReLU"
  bottom: "conv5"
  top: "conv5"
}
layer {
  name: "pool5"
  type: "Pooling"
  bottom: "conv5"
  top: "pool5"
  pooling_param {
    pool: AVE
    kernel_size: 3
    stride: 2
  }
}
layer {
  name: "ip1"
  type: "InnerProduct"
  bottom: "pool5"
  top: "ip1"
  param {
    lr_mult: 1
  }
  param {
    lr_mult: 2
  }
  inner_product_param {
    num_output: 64
    weight_filler {
      type: "gaussian"
      std: 0.1
    }
    bias_filler {
      type: "constant"
    }
  }
}
layer {
  name: "ip2"
  type: "InnerProduct"
  bottom: "ip1"
  top: "ip2"
  param {
    lr_mult: 1
  }
  param {
    lr_mult: 2
  }
  inner_product_param {
    num_output: 64
    weight_filler {
      type: "gaussian"
      std: 0.1
    }
    bias_filler {
      type: "constant"
    }
  }
}
layer {
  name: "ip3"
  type: "InnerProduct"
  bottom: "ip2"
  top: "ip3"
  param {
    lr_mult: 1
  }
  param {
    lr_mult: 2
  }
  inner_product_param {
    num_output: 50
    weight_filler {
      type: "gaussian"
      std: 0.1
    }
    bias_filler {
      type: "constant"
    }
  }
}
layer {
  name: "loss"
  type: "SoftmaxWithLoss"
  bottom: "ip3"
  bottom: "label"
  top: "loss"
}
I0502 17:05:32.626361 11730 layer_factory.hpp:77] Creating layer parameters
I0502 17:05:32.626376 11730 net.cpp:94] Creating Layer parameters
I0502 17:05:32.626384 11730 net.cpp:409] parameters -> data
I0502 17:05:32.626402 11730 net.cpp:409] parameters -> label
I0502 17:05:32.626412 11730 hdf5_data_layer.cpp:79] Loading list of HDF5 filenames from: /home/purduethu/scratch/radon/d/deng106/CNNStatisticalModel/distributions/input/20_distributions_900_sample_size_train-distributions-path.txt
I0502 17:05:32.626440 11730 hdf5_data_layer.cpp:93] Number of HDF5 files: 1
I0502 17:05:32.627018 11730 hdf5.cpp:32] Datatype class: H5T_FLOAT
I0502 17:05:33.205067 11730 hdf5.cpp:35] Datatype class: H5T_INTEGER
I0502 17:05:33.206789 11730 net.cpp:144] Setting up parameters
I0502 17:05:33.206809 11730 net.cpp:151] Top shape: 20 1 30 30 (18000)
I0502 17:05:33.206814 11730 net.cpp:151] Top shape: 20 (20)
I0502 17:05:33.206817 11730 net.cpp:159] Memory required for data: 72080
I0502 17:05:33.206825 11730 layer_factory.hpp:77] Creating layer conv1
I0502 17:05:33.206845 11730 net.cpp:94] Creating Layer conv1
I0502 17:05:33.206851 11730 net.cpp:435] conv1 <- data
I0502 17:05:33.206861 11730 net.cpp:409] conv1 -> conv1
I0502 17:05:33.214092 11730 net.cpp:144] Setting up conv1
I0502 17:05:33.214109 11730 net.cpp:151] Top shape: 20 64 30 30 (1152000)
I0502 17:05:33.214113 11730 net.cpp:159] Memory required for data: 4680080
I0502 17:05:33.214125 11730 layer_factory.hpp:77] Creating layer relu1
I0502 17:05:33.214134 11730 net.cpp:94] Creating Layer relu1
I0502 17:05:33.214138 11730 net.cpp:435] relu1 <- conv1
I0502 17:05:33.214143 11730 net.cpp:396] relu1 -> conv1 (in-place)
I0502 17:05:33.214155 11730 net.cpp:144] Setting up relu1
I0502 17:05:33.214160 11730 net.cpp:151] Top shape: 20 64 30 30 (1152000)
I0502 17:05:33.214164 11730 net.cpp:159] Memory required for data: 9288080
I0502 17:05:33.214166 11730 layer_factory.hpp:77] Creating layer conv2
I0502 17:05:33.214175 11730 net.cpp:94] Creating Layer conv2
I0502 17:05:33.214179 11730 net.cpp:435] conv2 <- conv1
I0502 17:05:33.214184 11730 net.cpp:409] conv2 -> conv2
I0502 17:05:33.229306 11730 net.cpp:144] Setting up conv2
I0502 17:05:33.229322 11730 net.cpp:151] Top shape: 20 64 30 30 (1152000)
I0502 17:05:33.229326 11730 net.cpp:159] Memory required for data: 13896080
I0502 17:05:33.229334 11730 layer_factory.hpp:77] Creating layer relu2
I0502 17:05:33.229341 11730 net.cpp:94] Creating Layer relu2
I0502 17:05:33.229346 11730 net.cpp:435] relu2 <- conv2
I0502 17:05:33.229351 11730 net.cpp:396] relu2 -> conv2 (in-place)
I0502 17:05:33.229357 11730 net.cpp:144] Setting up relu2
I0502 17:05:33.229362 11730 net.cpp:151] Top shape: 20 64 30 30 (1152000)
I0502 17:05:33.229365 11730 net.cpp:159] Memory required for data: 18504080
I0502 17:05:33.229369 11730 layer_factory.hpp:77] Creating layer pool2
I0502 17:05:33.229383 11730 net.cpp:94] Creating Layer pool2
I0502 17:05:33.229387 11730 net.cpp:435] pool2 <- conv2
I0502 17:05:33.229393 11730 net.cpp:409] pool2 -> pool2
I0502 17:05:33.229435 11730 net.cpp:144] Setting up pool2
I0502 17:05:33.229442 11730 net.cpp:151] Top shape: 20 64 15 15 (288000)
I0502 17:05:33.229446 11730 net.cpp:159] Memory required for data: 19656080
I0502 17:05:33.229449 11730 layer_factory.hpp:77] Creating layer conv3
I0502 17:05:33.229457 11730 net.cpp:94] Creating Layer conv3
I0502 17:05:33.229461 11730 net.cpp:435] conv3 <- pool2
I0502 17:05:33.229476 11730 net.cpp:409] conv3 -> conv3
I0502 17:05:33.238530 11730 net.cpp:144] Setting up conv3
I0502 17:05:33.238546 11730 net.cpp:151] Top shape: 20 64 15 15 (288000)
I0502 17:05:33.238550 11730 net.cpp:159] Memory required for data: 20808080
I0502 17:05:33.238559 11730 layer_factory.hpp:77] Creating layer relu3
I0502 17:05:33.238565 11730 net.cpp:94] Creating Layer relu3
I0502 17:05:33.238569 11730 net.cpp:435] relu3 <- conv3
I0502 17:05:33.238574 11730 net.cpp:396] relu3 -> conv3 (in-place)
I0502 17:05:33.238581 11730 net.cpp:144] Setting up relu3
I0502 17:05:33.238585 11730 net.cpp:151] Top shape: 20 64 15 15 (288000)
I0502 17:05:33.238590 11730 net.cpp:159] Memory required for data: 21960080
I0502 17:05:33.238592 11730 layer_factory.hpp:77] Creating layer conv4
I0502 17:05:33.238600 11730 net.cpp:94] Creating Layer conv4
I0502 17:05:33.238605 11730 net.cpp:435] conv4 <- conv3
I0502 17:05:33.238610 11730 net.cpp:409] conv4 -> conv4
I0502 17:05:33.246274 11730 net.cpp:144] Setting up conv4
I0502 17:05:33.246289 11730 net.cpp:151] Top shape: 20 64 15 15 (288000)
I0502 17:05:33.246294 11730 net.cpp:159] Memory required for data: 23112080
I0502 17:05:33.246300 11730 layer_factory.hpp:77] Creating layer relu4
I0502 17:05:33.246306 11730 net.cpp:94] Creating Layer relu4
I0502 17:05:33.246310 11730 net.cpp:435] relu4 <- conv4
I0502 17:05:33.246315 11730 net.cpp:396] relu4 -> conv4 (in-place)
I0502 17:05:33.246322 11730 net.cpp:144] Setting up relu4
I0502 17:05:33.246327 11730 net.cpp:151] Top shape: 20 64 15 15 (288000)
I0502 17:05:33.246330 11730 net.cpp:159] Memory required for data: 24264080
I0502 17:05:33.246333 11730 layer_factory.hpp:77] Creating layer conv5
I0502 17:05:33.246341 11730 net.cpp:94] Creating Layer conv5
I0502 17:05:33.246345 11730 net.cpp:435] conv5 <- conv4
I0502 17:05:33.246351 11730 net.cpp:409] conv5 -> conv5
I0502 17:05:33.254818 11730 net.cpp:144] Setting up conv5
I0502 17:05:33.254833 11730 net.cpp:151] Top shape: 20 64 15 15 (288000)
I0502 17:05:33.254837 11730 net.cpp:159] Memory required for data: 25416080
I0502 17:05:33.254848 11730 layer_factory.hpp:77] Creating layer relu5
I0502 17:05:33.254853 11730 net.cpp:94] Creating Layer relu5
I0502 17:05:33.254858 11730 net.cpp:435] relu5 <- conv5
I0502 17:05:33.254863 11730 net.cpp:396] relu5 -> conv5 (in-place)
I0502 17:05:33.254869 11730 net.cpp:144] Setting up relu5
I0502 17:05:33.254874 11730 net.cpp:151] Top shape: 20 64 15 15 (288000)
I0502 17:05:33.254878 11730 net.cpp:159] Memory required for data: 26568080
I0502 17:05:33.254881 11730 layer_factory.hpp:77] Creating layer pool5
I0502 17:05:33.254886 11730 net.cpp:94] Creating Layer pool5
I0502 17:05:33.254889 11730 net.cpp:435] pool5 <- conv5
I0502 17:05:33.254894 11730 net.cpp:409] pool5 -> pool5
I0502 17:05:33.254928 11730 net.cpp:144] Setting up pool5
I0502 17:05:33.254936 11730 net.cpp:151] Top shape: 20 64 7 7 (62720)
I0502 17:05:33.254940 11730 net.cpp:159] Memory required for data: 26818960
I0502 17:05:33.254943 11730 layer_factory.hpp:77] Creating layer ip1
I0502 17:05:33.254953 11730 net.cpp:94] Creating Layer ip1
I0502 17:05:33.254957 11730 net.cpp:435] ip1 <- pool5
I0502 17:05:33.254962 11730 net.cpp:409] ip1 -> ip1
I0502 17:05:33.259783 11730 net.cpp:144] Setting up ip1
I0502 17:05:33.259793 11730 net.cpp:151] Top shape: 20 64 (1280)
I0502 17:05:33.259796 11730 net.cpp:159] Memory required for data: 26824080
I0502 17:05:33.259801 11730 layer_factory.hpp:77] Creating layer ip2
I0502 17:05:33.259811 11730 net.cpp:94] Creating Layer ip2
I0502 17:05:33.259816 11730 net.cpp:435] ip2 <- ip1
I0502 17:05:33.259821 11730 net.cpp:409] ip2 -> ip2
I0502 17:05:33.259989 11730 net.cpp:144] Setting up ip2
I0502 17:05:33.259996 11730 net.cpp:151] Top shape: 20 64 (1280)
I0502 17:05:33.259999 11730 net.cpp:159] Memory required for data: 26829200
I0502 17:05:33.260004 11730 layer_factory.hpp:77] Creating layer ip3
I0502 17:05:33.260010 11730 net.cpp:94] Creating Layer ip3
I0502 17:05:33.260015 11730 net.cpp:435] ip3 <- ip2
I0502 17:05:33.260018 11730 net.cpp:409] ip3 -> ip3
I0502 17:05:33.260169 11730 net.cpp:144] Setting up ip3
I0502 17:05:33.260174 11730 net.cpp:151] Top shape: 20 50 (1000)
I0502 17:05:33.260179 11730 net.cpp:159] Memory required for data: 26833200
I0502 17:05:33.260184 11730 layer_factory.hpp:77] Creating layer loss
I0502 17:05:33.260190 11730 net.cpp:94] Creating Layer loss
I0502 17:05:33.260192 11730 net.cpp:435] loss <- ip3
I0502 17:05:33.260197 11730 net.cpp:435] loss <- label
I0502 17:05:33.260202 11730 net.cpp:409] loss -> loss
I0502 17:05:33.260211 11730 layer_factory.hpp:77] Creating layer loss
…
I0502 17:05:33.260707 11730 solver.cpp:181] Creating test net (#0) specified by net file: ./protocol/dis_20_900_dimension.protocol_distribution
I0502 17:05:33.260735 11730 net.cpp:323] The NetState phase (1) differed from the phase (0) specified by a rule in layer parameters
I0502 17:05:33.260830 11730 net.cpp:52] Initializing net from parameters: 
state {
  phase: TEST
}
layer {
  name: "intercept"
  type: "HDF5Data"
  top: "data"
  top: "label"
  include {
    phase: TEST
  }
  hdf5_data_param {
    source: "/home/purduethu/scratch/radon/d/deng106/CNNStatisticalModel/distributions/input/20_distributions_900_sample_size_test-distributions-path.txt"
    batch_size: 20
  }
}
layer {
  name: "conv1"
  type: "Convolution"
  bottom: "data"
  top: "conv1"
  param {
    lr_mult: 1
  }
  param {
    lr_mult: 2
  }
  convolution_param {
    num_output: 64
    pad: 2
    kernel_size: 5
    stride: 1
    weight_filler {
      type: "gaussian"
      std: 0.0001
    }
    bias_filler {
      type: "constant"
    }
  }
}
layer {
  name: "relu1"
  type: "ReLU"
  bottom: "conv1"
  top: "conv1"
}
layer {
  name: "conv2"
  type: "Convolution"
  bottom: "conv1"
  top: "conv2"
  param {
    lr_mult: 1
  }
  param {
    lr_mult: 2
  }
  convolution_param {
    num_output: 64
    pad: 2
    kernel_size: 5
    stride: 1
    weight_filler {
      type: "gaussian"
      std: 0.01
    }
    bias_filler {
      type: "constant"
    }
  }
}
layer {
  name: "relu2"
  type: "ReLU"
  bottom: "conv2"
  top: "conv2"
}
layer {
  name: "pool2"
  type: "Pooling"
  bottom: "conv2"
  top: "pool2"
  pooling_param {
    pool: MAX
    kernel_size: 3
    stride: 2
  }
}
layer {
  name: "conv3"
  type: "Convolution"
  bottom: "pool2"
  top: "conv3"
  param {
    lr_mult: 1
  }
  param {
    lr_mult: 2
  }
  convolution_param {
    num_output: 64
    pad: 2
    kernel_size: 5
    stride: 1
    weight_filler {
      type: "gaussian"
      std: 0.01
    }
    bias_filler {
      type: "constant"
    }
  }
}
layer {
  name: "relu3"
  type: "ReLU"
  bottom: "conv3"
  top: "conv3"
}
layer {
  name: "conv4"
  type: "Convolution"
  bottom: "conv3"
  top: "conv4"
  param {
    lr_mult: 1
  }
  param {
    lr_mult: 2
  }
  convolution_param {
    num_output: 64
    pad: 2
    kernel_size: 5
    stride: 1
    weight_filler {
      type: "gaussian"
      std: 0.01
    }
    bias_filler {
      type: "constant"
    }
  }
}
layer {
  name: "relu4"
  type: "ReLU"
  bottom: "conv4"
  top: "conv4"
}
layer {
  name: "conv5"
  type: "Convolution"
  bottom: "conv4"
  top: "conv5"
  param {
    lr_mult: 1
  }
  param {
    lr_mult: 2
  }
  convolution_param {
    num_output: 64
    pad: 2
    kernel_size: 5
    stride: 1
    weight_filler {
      type: "gaussian"
      std: 0.01
    }
    bias_filler {
      type: "constant"
    }
  }
}
layer {
  name: "relu5"
  type: "ReLU"
  bottom: "conv5"
  top: "conv5"
}
layer {
  name: "pool5"
  type: "Pooling"
  bottom: "conv5"
  top: "pool5"
  pooling_param {
    pool: AVE
    kernel_size: 3
    stride: 2
  }
}
layer {
  name: "ip1"
  type: "InnerProduct"
  bottom: "pool5"
  top: "ip1"
  param {
    lr_mult: 1
  }
  param {
    lr_mult: 2
  }
  inner_product_param {
    num_output: 64
    weight_filler {
      type: "gaussian"
      std: 0.1
    }
    bias_filler {
      type: "constant"
    }
  }
}
layer {
  name: "ip2"
  type: "InnerProduct"
  bottom: "ip1"
  top: "ip2"
  param {
    lr_mult: 1
  }
  param {
    lr_mult: 2
  }
  inner_product_param {
    num_output: 64
    weight_filler {
      type: "gaussian"
      std: 0.1
    }
    bias_filler {
      type: "constant"
    }
  }
}
layer {
  name: "ip3"
  type: "InnerProduct"
  bottom: "ip2"
  top: "ip3"
  param {
    lr_mult: 1
  }
  param {
    lr_mult: 2
  }
  inner_product_param {
    num_output: 50
    weight_filler {
      type: "gaussian"
      std: 0.1
    }
    bias_filler {
      type: "constant"
    }
  }
}
layer {
  name: "accuracy"
  type: "Accuracy"
  bottom: "ip3"
  bottom: "label"
  top: "accuracy"
  include {
    phase: TEST
  }
}
layer {
  name: "loss"
  type: "SoftmaxWithLoss"
  bottom: "ip3"
  bottom: "label"
  top: "loss"
}
I0502 17:05:33.260901 11730 layer_factory.hpp:77] Creating layer intercept
I0502 17:05:33.260910 11730 net.cpp:94] Creating Layer intercept
I0502 17:05:33.260915 11730 net.cpp:409] intercept -> data
I0502 17:05:33.260921 11730 net.cpp:409] intercept -> label
I0502 17:05:33.260927 11730 hdf5_data_layer.cpp:79] Loading list of HDF5 filenames from: /home/purduethu/scratch/radon/d/deng106/CNNStatisticalModel/distributions/input/20_distributions_900_sample_size_test-distributions-path.txt
I0502 17:05:33.260948 11730 hdf5_data_layer.cpp:93] Number of HDF5 files: 1
I0502 17:05:33.405671 11730 net.cpp:144] Setting up intercept
I0502 17:05:33.405704 11730 net.cpp:151] Top shape: 20 1 30 30 (18000)
I0502 17:05:33.405709 11730 net.cpp:151] Top shape: 20 (20)
I0502 17:05:33.405712 11730 net.cpp:159] Memory required for data: 72080
I0502 17:05:33.405719 11730 layer_factory.hpp:77] Creating layer label_intercept_1_split
I0502 17:05:33.405735 11730 net.cpp:94] Creating Layer label_intercept_1_split
I0502 17:05:33.405738 11730 net.cpp:435] label_intercept_1_split <- label
I0502 17:05:33.405745 11730 net.cpp:409] label_intercept_1_split -> label_intercept_1_split_0
I0502 17:05:33.405753 11730 net.cpp:409] label_intercept_1_split -> label_intercept_1_split_1
I0502 17:05:33.405786 11730 net.cpp:144] Setting up label_intercept_1_split
I0502 17:05:33.405793 11730 net.cpp:151] Top shape: 20 (20)
I0502 17:05:33.405797 11730 net.cpp:151] Top shape: 20 (20)
I0502 17:05:33.405800 11730 net.cpp:159] Memory required for data: 72240
I0502 17:05:33.405803 11730 layer_factory.hpp:77] Creating layer conv1
I0502 17:05:33.405814 11730 net.cpp:94] Creating Layer conv1
I0502 17:05:33.405818 11730 net.cpp:435] conv1 <- data
I0502 17:05:33.405823 11730 net.cpp:409] conv1 -> conv1
I0502 17:05:33.407619 11730 net.cpp:144] Setting up conv1
I0502 17:05:33.407634 11730 net.cpp:151] Top shape: 20 64 30 30 (1152000)
I0502 17:05:33.407637 11730 net.cpp:159] Memory required for data: 4680240
I0502 17:05:33.407646 11730 layer_factory.hpp:77] Creating layer relu1
I0502 17:05:33.407654 11730 net.cpp:94] Creating Layer relu1
I0502 17:05:33.407657 11730 net.cpp:435] relu1 <- conv1
I0502 17:05:33.407661 11730 net.cpp:396] relu1 -> conv1 (in-place)
I0502 17:05:33.407670 11730 net.cpp:144] Setting up relu1
I0502 17:05:33.407673 11730 net.cpp:151] Top shape: 20 64 30 30 (1152000)
I0502 17:05:33.407676 11730 net.cpp:159] Memory required for data: 9288240
I0502 17:05:33.407680 11730 layer_factory.hpp:77] Creating layer conv2
I0502 17:05:33.407688 11730 net.cpp:94] Creating Layer conv2
I0502 17:05:33.407691 11730 net.cpp:435] conv2 <- conv1
I0502 17:05:33.407696 11730 net.cpp:409] conv2 -> conv2
I0502 17:05:33.413838 11730 net.cpp:144] Setting up conv2
I0502 17:05:33.413853 11730 net.cpp:151] Top shape: 20 64 30 30 (1152000)
I0502 17:05:33.413857 11730 net.cpp:159] Memory required for data: 13896240
I0502 17:05:33.413866 11730 layer_factory.hpp:77] Creating layer relu2
I0502 17:05:33.413872 11730 net.cpp:94] Creating Layer relu2
I0502 17:05:33.413875 11730 net.cpp:435] relu2 <- conv2
I0502 17:05:33.413880 11730 net.cpp:396] relu2 -> conv2 (in-place)
I0502 17:05:33.413887 11730 net.cpp:144] Setting up relu2
I0502 17:05:33.413892 11730 net.cpp:151] Top shape: 20 64 30 30 (1152000)
I0502 17:05:33.413895 11730 net.cpp:159] Memory required for data: 18504240
I0502 17:05:33.413898 11730 layer_factory.hpp:77] Creating layer pool2
I0502 17:05:33.413905 11730 net.cpp:94] Creating Layer pool2
I0502 17:05:33.413908 11730 net.cpp:435] pool2 <- conv2
I0502 17:05:33.413913 11730 net.cpp:409] pool2 -> pool2
I0502 17:05:33.413947 11730 net.cpp:144] Setting up pool2
I0502 17:05:33.413954 11730 net.cpp:151] Top shape: 20 64 15 15 (288000)
I0502 17:05:33.413956 11730 net.cpp:159] Memory required for data: 19656240
I0502 17:05:33.413960 11730 layer_factory.hpp:77] Creating layer conv3
I0502 17:05:33.413969 11730 net.cpp:94] Creating Layer conv3
I0502 17:05:33.413972 11730 net.cpp:435] conv3 <- pool2
I0502 17:05:33.413977 11730 net.cpp:409] conv3 -> conv3
I0502 17:05:33.419104 11730 net.cpp:144] Setting up conv3
I0502 17:05:33.419119 11730 net.cpp:151] Top shape: 20 64 15 15 (288000)
I0502 17:05:33.419123 11730 net.cpp:159] Memory required for data: 20808240
I0502 17:05:33.419131 11730 layer_factory.hpp:77] Creating layer relu3
I0502 17:05:33.419138 11730 net.cpp:94] Creating Layer relu3
I0502 17:05:33.419142 11730 net.cpp:435] relu3 <- conv3
I0502 17:05:33.419147 11730 net.cpp:396] relu3 -> conv3 (in-place)
I0502 17:05:33.419154 11730 net.cpp:144] Setting up relu3
I0502 17:05:33.419158 11730 net.cpp:151] Top shape: 20 64 15 15 (288000)
I0502 17:05:33.419162 11730 net.cpp:159] Memory required for data: 21960240
I0502 17:05:33.419165 11730 layer_factory.hpp:77] Creating layer conv4
I0502 17:05:33.419173 11730 net.cpp:94] Creating Layer conv4
I0502 17:05:33.419176 11730 net.cpp:435] conv4 <- conv3
I0502 17:05:33.419181 11730 net.cpp:409] conv4 -> conv4
I0502 17:05:33.424288 11730 net.cpp:144] Setting up conv4
I0502 17:05:33.424325 11730 net.cpp:151] Top shape: 20 64 15 15 (288000)
I0502 17:05:33.424336 11730 net.cpp:159] Memory required for data: 23112240
I0502 17:05:33.424355 11730 layer_factory.hpp:77] Creating layer relu4
I0502 17:05:33.424370 11730 net.cpp:94] Creating Layer relu4
I0502 17:05:33.424391 11730 net.cpp:435] relu4 <- conv4
I0502 17:05:33.424404 11730 net.cpp:396] relu4 -> conv4 (in-place)
I0502 17:05:33.424429 11730 net.cpp:144] Setting up relu4
I0502 17:05:33.424433 11730 net.cpp:151] Top shape: 20 64 15 15 (288000)
I0502 17:05:33.424437 11730 net.cpp:159] Memory required for data: 24264240
I0502 17:05:33.424440 11730 layer_factory.hpp:77] Creating layer conv5
I0502 17:05:33.424448 11730 net.cpp:94] Creating Layer conv5
I0502 17:05:33.424451 11730 net.cpp:435] conv5 <- conv4
I0502 17:05:33.424456 11730 net.cpp:409] conv5 -> conv5
I0502 17:05:33.429405 11730 net.cpp:144] Setting up conv5
I0502 17:05:33.429420 11730 net.cpp:151] Top shape: 20 64 15 15 (288000)
I0502 17:05:33.429425 11730 net.cpp:159] Memory required for data: 25416240
I0502 17:05:33.429433 11730 layer_factory.hpp:77] Creating layer relu5
I0502 17:05:33.429440 11730 net.cpp:94] Creating Layer relu5
I0502 17:05:33.429443 11730 net.cpp:435] relu5 <- conv5
I0502 17:05:33.429448 11730 net.cpp:396] relu5 -> conv5 (in-place)
I0502 17:05:33.429455 11730 net.cpp:144] Setting up relu5
I0502 17:05:33.429461 11730 net.cpp:151] Top shape: 20 64 15 15 (288000)
I0502 17:05:33.429463 11730 net.cpp:159] Memory required for data: 26568240
I0502 17:05:33.429466 11730 layer_factory.hpp:77] Creating layer pool5
I0502 17:05:33.429471 11730 net.cpp:94] Creating Layer pool5
I0502 17:05:33.429474 11730 net.cpp:435] pool5 <- conv5
I0502 17:05:33.429479 11730 net.cpp:409] pool5 -> pool5
I0502 17:05:33.429504 11730 net.cpp:144] Setting up pool5
I0502 17:05:33.429512 11730 net.cpp:151] Top shape: 20 64 7 7 (62720)
I0502 17:05:33.429514 11730 net.cpp:159] Memory required for data: 26819120
I0502 17:05:33.429517 11730 layer_factory.hpp:77] Creating layer ip1
I0502 17:05:33.429524 11730 net.cpp:94] Creating Layer ip1
I0502 17:05:33.429528 11730 net.cpp:435] ip1 <- pool5
I0502 17:05:33.429533 11730 net.cpp:409] ip1 -> ip1
I0502 17:05:33.434345 11730 net.cpp:144] Setting up ip1
I0502 17:05:33.434355 11730 net.cpp:151] Top shape: 20 64 (1280)
I0502 17:05:33.434358 11730 net.cpp:159] Memory required for data: 26824240
I0502 17:05:33.434363 11730 layer_factory.hpp:77] Creating layer ip2
I0502 17:05:33.434370 11730 net.cpp:94] Creating Layer ip2
I0502 17:05:33.434372 11730 net.cpp:435] ip2 <- ip1
I0502 17:05:33.434377 11730 net.cpp:409] ip2 -> ip2
I0502 17:05:33.434546 11730 net.cpp:144] Setting up ip2
I0502 17:05:33.434553 11730 net.cpp:151] Top shape: 20 64 (1280)
I0502 17:05:33.434556 11730 net.cpp:159] Memory required for data: 26829360
I0502 17:05:33.434561 11730 layer_factory.hpp:77] Creating layer ip3
I0502 17:05:33.434568 11730 net.cpp:94] Creating Layer ip3
I0502 17:05:33.434571 11730 net.cpp:435] ip3 <- ip2
I0502 17:05:33.434576 11730 net.cpp:409] ip3 -> ip3
I0502 17:05:33.434722 11730 net.cpp:144] Setting up ip3
I0502 17:05:33.434728 11730 net.cpp:151] Top shape: 20 50 (1000)
I0502 17:05:33.434731 11730 net.cpp:159] Memory required for data: 26833360
I0502 17:05:33.434736 11730 layer_factory.hpp:77] Creating layer ip3_ip3_0_split
I0502 17:05:33.434741 11730 net.cpp:94] Creating Layer ip3_ip3_0_split
I0502 17:05:33.434746 11730 net.cpp:435] ip3_ip3_0_split <- ip3
I0502 17:05:33.434749 11730 net.cpp:409] ip3_ip3_0_split -> ip3_ip3_0_split_0
I0502 17:05:33.434754 11730 net.cpp:409] ip3_ip3_0_split -> ip3_ip3_0_split_1
I0502 17:05:33.434778 11730 net.cpp:144] Setting up ip3_ip3_0_split
I0502 17:05:33.434783 11730 net.cpp:151] Top shape: 20 50 (1000)
I0502 17:05:33.434787 11730 net.cpp:151] Top shape: 20 50 (1000)
I0502 17:05:33.434790 11730 net.cpp:159] Memory required for data: 26841360
I0502 17:05:33.434793 11730 layer_factory.hpp:77] Creating layer accuracy
I0502 17:05:33.434799 11730 net.cpp:94] Creating Layer accuracy
I0502 17:05:33.434803 11730 net.cpp:435] accuracy <- ip3_ip3_0_split_0
I0502 17:05:33.434808 11730 net.cpp:435] accuracy <- label_intercept_1_split_0
I0502 17:05:33.434811 11730 net.cpp:409] accuracy -> accuracy
…
