…
I0505 13:39:54.146775  7202 net.cpp:323] The NetState phase (0) differed from the phase (1) specified by a rule in layer intercept
I0505 13:39:54.146790  7202 net.cpp:323] The NetState phase (0) differed from the phase (1) specified by a rule in layer loss
I0505 13:39:54.146863  7202 net.cpp:52] Initializing net from parameters: 
state {
  phase: TRAIN
}
layer {
  name: "parameters"
  type: "HDF5Data"
  top: "data"
  top: "label"
  include {
    phase: TRAIN
  }
  hdf5_data_param {
    source: "/home/purduethu/scratch/radon/d/deng106/CNNStatisticalModel/distributions/input/5_distributions_900_sample_size_train-parameters-path.txt"
    batch_size: 20
  }
}
layer {
  name: "conv1"
  type: "Convolution"
  bottom: "data"
  top: "conv1"
  param {
    lr_mult: 1
  }
  param {
    lr_mult: 2
  }
  convolution_param {
    num_output: 64
    pad: 2
    kernel_size: 5
    stride: 1
    weight_filler {
      type: "gaussian"
      std: 0.0001
    }
    bias_filler {
      type: "constant"
    }
  }
}
layer {
  name: "relu1"
  type: "ReLU"
  bottom: "conv1"
  top: "conv1"
}
layer {
  name: "pool1"
  type: "Pooling"
  bottom: "conv1"
  top: "pool1"
  pooling_param {
    pool: MAX
    kernel_size: 3
    stride: 2
  }
}
layer {
  name: "conv2"
  type: "Convolution"
  bottom: "pool1"
  top: "conv2"
  param {
    lr_mult: 1
  }
  param {
    lr_mult: 2
  }
  convolution_param {
    num_output: 128
    pad: 2
    kernel_size: 5
    stride: 1
    weight_filler {
      type: "gaussian"
      std: 0.01
    }
    bias_filler {
      type: "constant"
    }
  }
}
layer {
  name: "relu2"
  type: "ReLU"
  bottom: "conv2"
  top: "conv2"
}
layer {
  name: "conv3"
  type: "Convolution"
  bottom: "conv2"
  top: "conv3"
  param {
    lr_mult: 1
  }
  param {
    lr_mult: 2
  }
  convolution_param {
    num_output: 128
    pad: 2
    kernel_size: 5
    stride: 1
    weight_filler {
      type: "gaussian"
      std: 0.01
    }
    bias_filler {
      type: "constant"
    }
  }
}
layer {
  name: "relu3"
  type: "ReLU"
  bottom: "conv3"
  top: "conv3"
}
layer {
  name: "pool3"
  type: "Pooling"
  bottom: "conv3"
  top: "pool3"
  pooling_param {
    pool: AVE
    kernel_size: 3
    stride: 2
  }
}
layer {
  name: "ip1"
  type: "InnerProduct"
  bottom: "pool3"
  top: "ip1"
  param {
    lr_mult: 1
  }
  param {
    lr_mult: 2
  }
  inner_product_param {
    num_output: 512
    weight_filler {
      type: "gaussian"
      std: 0.1
    }
    bias_filler {
      type: "constant"
    }
  }
}
layer {
  name: "ip2"
  type: "InnerProduct"
  bottom: "ip1"
  top: "ip2"
  param {
    lr_mult: 1
  }
  param {
    lr_mult: 2
  }
  inner_product_param {
    num_output: 256
    weight_filler {
      type: "gaussian"
      std: 0.1
    }
    bias_filler {
      type: "constant"
    }
  }
}
layer {
  name: "ip3"
  type: "InnerProduct"
  bottom: "ip2"
  top: "ip3"
  param {
    lr_mult: 1
  }
  param {
    lr_mult: 2
  }
  inner_product_param {
    num_output: 1
    weight_filler {
      type: "gaussian"
      std: 0.1
    }
    bias_filler {
      type: "constant"
    }
  }
}
layer {
  name: "loss"
  type: "HuberLoss"
  bottom: "ip3"
  bottom: "label"
  top: "loss"
  include {
    phase: TRAIN
  }
}
I0505 13:39:54.146910  7202 layer_factory.hpp:77] Creating layer parameters
I0505 13:39:54.146927  7202 net.cpp:94] Creating Layer parameters
I0505 13:39:54.146932  7202 net.cpp:409] parameters -> data
I0505 13:39:54.146942  7202 net.cpp:409] parameters -> label
I0505 13:39:54.146950  7202 hdf5_data_layer.cpp:79] Loading list of HDF5 filenames from: /home/purduethu/scratch/radon/d/deng106/CNNStatisticalModel/distributions/input/5_distributions_900_sample_size_train-parameters-path.txt
I0505 13:39:54.146965  7202 hdf5_data_layer.cpp:93] Number of HDF5 files: 1
I0505 13:39:54.147526  7202 hdf5.cpp:32] Datatype class: H5T_FLOAT
I0505 13:39:54.287731  7202 net.cpp:144] Setting up parameters
I0505 13:39:54.287761  7202 net.cpp:151] Top shape: 20 1 30 30 (18000)
I0505 13:39:54.287767  7202 net.cpp:151] Top shape: 20 (20)
I0505 13:39:54.287770  7202 net.cpp:159] Memory required for data: 72080
I0505 13:39:54.287777  7202 layer_factory.hpp:77] Creating layer conv1
I0505 13:39:54.287793  7202 net.cpp:94] Creating Layer conv1
I0505 13:39:54.287798  7202 net.cpp:435] conv1 <- data
I0505 13:39:54.287804  7202 net.cpp:409] conv1 -> conv1
I0505 13:39:54.294236  7202 net.cpp:144] Setting up conv1
I0505 13:39:54.294258  7202 net.cpp:151] Top shape: 20 64 30 30 (1152000)
I0505 13:39:54.294262  7202 net.cpp:159] Memory required for data: 4680080
I0505 13:39:54.294275  7202 layer_factory.hpp:77] Creating layer relu1
I0505 13:39:54.294283  7202 net.cpp:94] Creating Layer relu1
I0505 13:39:54.294287  7202 net.cpp:435] relu1 <- conv1
I0505 13:39:54.294292  7202 net.cpp:396] relu1 -> conv1 (in-place)
I0505 13:39:54.294301  7202 net.cpp:144] Setting up relu1
I0505 13:39:54.294306  7202 net.cpp:151] Top shape: 20 64 30 30 (1152000)
I0505 13:39:54.294309  7202 net.cpp:159] Memory required for data: 9288080
I0505 13:39:54.294313  7202 layer_factory.hpp:77] Creating layer pool1
I0505 13:39:54.294319  7202 net.cpp:94] Creating Layer pool1
I0505 13:39:54.294322  7202 net.cpp:435] pool1 <- conv1
I0505 13:39:54.294327  7202 net.cpp:409] pool1 -> pool1
I0505 13:39:54.294380  7202 net.cpp:144] Setting up pool1
I0505 13:39:54.294387  7202 net.cpp:151] Top shape: 20 64 15 15 (288000)
I0505 13:39:54.294390  7202 net.cpp:159] Memory required for data: 10440080
I0505 13:39:54.294394  7202 layer_factory.hpp:77] Creating layer conv2
I0505 13:39:54.294404  7202 net.cpp:94] Creating Layer conv2
I0505 13:39:54.294407  7202 net.cpp:435] conv2 <- pool1
I0505 13:39:54.294412  7202 net.cpp:409] conv2 -> conv2
I0505 13:39:54.307386  7202 net.cpp:144] Setting up conv2
I0505 13:39:54.307427  7202 net.cpp:151] Top shape: 20 128 15 15 (576000)
I0505 13:39:54.307440  7202 net.cpp:159] Memory required for data: 12744080
I0505 13:39:54.307463  7202 layer_factory.hpp:77] Creating layer relu2
I0505 13:39:54.307479  7202 net.cpp:94] Creating Layer relu2
I0505 13:39:54.307490  7202 net.cpp:435] relu2 <- conv2
I0505 13:39:54.307504  7202 net.cpp:396] relu2 -> conv2 (in-place)
I0505 13:39:54.307525  7202 net.cpp:144] Setting up relu2
I0505 13:39:54.307539  7202 net.cpp:151] Top shape: 20 128 15 15 (576000)
I0505 13:39:54.307549  7202 net.cpp:159] Memory required for data: 15048080
I0505 13:39:54.307559  7202 layer_factory.hpp:77] Creating layer conv3
I0505 13:39:54.307580  7202 net.cpp:94] Creating Layer conv3
I0505 13:39:54.307590  7202 net.cpp:435] conv3 <- conv2
I0505 13:39:54.307605  7202 net.cpp:409] conv3 -> conv3
I0505 13:39:54.329282  7202 net.cpp:144] Setting up conv3
I0505 13:39:54.329298  7202 net.cpp:151] Top shape: 20 128 15 15 (576000)
I0505 13:39:54.329303  7202 net.cpp:159] Memory required for data: 17352080
I0505 13:39:54.329313  7202 layer_factory.hpp:77] Creating layer relu3
I0505 13:39:54.329324  7202 net.cpp:94] Creating Layer relu3
I0505 13:39:54.329329  7202 net.cpp:435] relu3 <- conv3
I0505 13:39:54.329334  7202 net.cpp:396] relu3 -> conv3 (in-place)
I0505 13:39:54.329341  7202 net.cpp:144] Setting up relu3
I0505 13:39:54.329346  7202 net.cpp:151] Top shape: 20 128 15 15 (576000)
I0505 13:39:54.329350  7202 net.cpp:159] Memory required for data: 19656080
I0505 13:39:54.329354  7202 layer_factory.hpp:77] Creating layer pool3
I0505 13:39:54.329360  7202 net.cpp:94] Creating Layer pool3
I0505 13:39:54.329363  7202 net.cpp:435] pool3 <- conv3
I0505 13:39:54.329368  7202 net.cpp:409] pool3 -> pool3
I0505 13:39:54.329408  7202 net.cpp:144] Setting up pool3
I0505 13:39:54.329416  7202 net.cpp:151] Top shape: 20 128 7 7 (125440)
I0505 13:39:54.329419  7202 net.cpp:159] Memory required for data: 20157840
I0505 13:39:54.329422  7202 layer_factory.hpp:77] Creating layer ip1
I0505 13:39:54.329432  7202 net.cpp:94] Creating Layer ip1
I0505 13:39:54.329437  7202 net.cpp:435] ip1 <- pool3
I0505 13:39:54.329442  7202 net.cpp:409] ip1 -> ip1
I0505 13:39:54.407553  7202 net.cpp:144] Setting up ip1
I0505 13:39:54.407587  7202 net.cpp:151] Top shape: 20 512 (10240)
I0505 13:39:54.407591  7202 net.cpp:159] Memory required for data: 20198800
I0505 13:39:54.407599  7202 layer_factory.hpp:77] Creating layer ip2
I0505 13:39:54.407610  7202 net.cpp:94] Creating Layer ip2
I0505 13:39:54.407614  7202 net.cpp:435] ip2 <- ip1
I0505 13:39:54.407621  7202 net.cpp:409] ip2 -> ip2
I0505 13:39:54.410773  7202 net.cpp:144] Setting up ip2
I0505 13:39:54.410784  7202 net.cpp:151] Top shape: 20 256 (5120)
I0505 13:39:54.410789  7202 net.cpp:159] Memory required for data: 20219280
I0505 13:39:54.410796  7202 layer_factory.hpp:77] Creating layer ip3
I0505 13:39:54.410802  7202 net.cpp:94] Creating Layer ip3
I0505 13:39:54.410806  7202 net.cpp:435] ip3 <- ip2
I0505 13:39:54.410811  7202 net.cpp:409] ip3 -> ip3
I0505 13:39:54.410923  7202 net.cpp:144] Setting up ip3
I0505 13:39:54.410929  7202 net.cpp:151] Top shape: 20 1 (20)
I0505 13:39:54.410933  7202 net.cpp:159] Memory required for data: 20219360
I0505 13:39:54.410939  7202 layer_factory.hpp:77] Creating layer loss
I0505 13:39:54.410951  7202 net.cpp:94] Creating Layer loss
I0505 13:39:54.410955  7202 net.cpp:435] loss <- ip3
I0505 13:39:54.410959  7202 net.cpp:435] loss <- label
I0505 13:39:54.410964  7202 net.cpp:409] loss -> loss
I0505 13:39:54.411012  7202 net.cpp:144] Setting up loss
…
I0505 13:39:54.554788  7202 net.cpp:323] The NetState phase (0) differed from the phase (1) specified by a rule in layer intercept
I0505 13:39:54.554801  7202 net.cpp:323] The NetState phase (0) differed from the phase (1) specified by a rule in layer accuracy
I0505 13:39:54.554873  7202 net.cpp:52] Initializing net from parameters: 
state {
  phase: TRAIN
}
layer {
  name: "parameters"
  type: "HDF5Data"
  top: "data"
  top: "label"
  include {
    phase: TRAIN
  }
  hdf5_data_param {
    source: "/home/purduethu/scratch/radon/d/deng106/CNNStatisticalModel/distributions/input/5_distributions_900_sample_size_train-distributions-path.txt"
    batch_size: 20
  }
}
layer {
  name: "conv1"
  type: "Convolution"
  bottom: "data"
  top: "conv1"
  param {
    lr_mult: 1
  }
  param {
    lr_mult: 2
  }
  convolution_param {
    num_output: 64
    pad: 2
    kernel_size: 5
    stride: 1
    weight_filler {
      type: "gaussian"
      std: 0.0001
    }
    bias_filler {
      type: "constant"
    }
  }
}
layer {
  name: "relu1"
  type: "ReLU"
  bottom: "conv1"
  top: "conv1"
}
layer {
  name: "pool1"
  type: "Pooling"
  bottom: "conv1"
  top: "pool1"
  pooling_param {
    pool: MAX
    kernel_size: 3
    stride: 2
  }
}
layer {
  name: "conv2"
  type: "Convolution"
  bottom: "pool1"
  top: "conv2"
  param {
    lr_mult: 1
  }
  param {
    lr_mult: 2
  }
  convolution_param {
    num_output: 128
    pad: 2
    kernel_size: 5
    stride: 1
    weight_filler {
      type: "gaussian"
      std: 0.01
    }
    bias_filler {
      type: "constant"
    }
  }
}
layer {
  name: "relu2"
  type: "ReLU"
  bottom: "conv2"
  top: "conv2"
}
layer {
  name: "conv3"
  type: "Convolution"
  bottom: "conv2"
  top: "conv3"
  param {
    lr_mult: 1
  }
  param {
    lr_mult: 2
  }
  convolution_param {
    num_output: 128
    pad: 2
    kernel_size: 5
    stride: 1
    weight_filler {
      type: "gaussian"
      std: 0.01
    }
    bias_filler {
      type: "constant"
    }
  }
}
layer {
  name: "relu3"
  type: "ReLU"
  bottom: "conv3"
  top: "conv3"
}
layer {
  name: "pool3"
  type: "Pooling"
  bottom: "conv3"
  top: "pool3"
  pooling_param {
    pool: AVE
    kernel_size: 3
    stride: 2
  }
}
layer {
  name: "ip1"
  type: "InnerProduct"
  bottom: "pool3"
  top: "ip1"
  param {
    lr_mult: 1
  }
  param {
    lr_mult: 2
  }
  inner_product_param {
    num_output: 512
    weight_filler {
      type: "gaussian"
      std: 0.1
    }
    bias_filler {
      type: "constant"
    }
  }
}
layer {
  name: "ip2"
  type: "InnerProduct"
  bottom: "ip1"
  top: "ip2"
  param {
    lr_mult: 1
  }
  param {
    lr_mult: 2
  }
  inner_product_param {
    num_output: 256
    weight_filler {
      type: "gaussian"
      std: 0.1
    }
    bias_filler {
      type: "constant"
    }
  }
}
layer {
  name: "ip3"
  type: "InnerProduct"
  bottom: "ip2"
  top: "ip3"
  param {
    lr_mult: 1
  }
  param {
    lr_mult: 2
  }
  inner_product_param {
    num_output: 50
    weight_filler {
      type: "gaussian"
      std: 0.1
    }
    bias_filler {
      type: "constant"
    }
  }
}
layer {
  name: "loss"
  type: "SoftmaxWithLoss"
  bottom: "ip3"
  bottom: "label"
  top: "loss"
}
I0505 13:39:54.554915  7202 layer_factory.hpp:77] Creating layer parameters
I0505 13:39:54.554924  7202 net.cpp:94] Creating Layer parameters
I0505 13:39:54.554927  7202 net.cpp:409] parameters -> data
I0505 13:39:54.554934  7202 net.cpp:409] parameters -> label
I0505 13:39:54.554941  7202 hdf5_data_layer.cpp:79] Loading list of HDF5 filenames from: /home/purduethu/scratch/radon/d/deng106/CNNStatisticalModel/distributions/input/5_distributions_900_sample_size_train-distributions-path.txt
I0505 13:39:54.554956  7202 hdf5_data_layer.cpp:93] Number of HDF5 files: 1
I0505 13:39:54.690497  7202 hdf5.cpp:35] Datatype class: H5T_INTEGER
I0505 13:39:54.690927  7202 net.cpp:144] Setting up parameters
I0505 13:39:54.690942  7202 net.cpp:151] Top shape: 20 1 30 30 (18000)
I0505 13:39:54.690946  7202 net.cpp:151] Top shape: 20 (20)
I0505 13:39:54.690949  7202 net.cpp:159] Memory required for data: 72080
I0505 13:39:54.690956  7202 layer_factory.hpp:77] Creating layer conv1
I0505 13:39:54.690973  7202 net.cpp:94] Creating Layer conv1
I0505 13:39:54.690978  7202 net.cpp:435] conv1 <- data
I0505 13:39:54.690984  7202 net.cpp:409] conv1 -> conv1
I0505 13:39:54.694351  7202 net.cpp:144] Setting up conv1
I0505 13:39:54.694365  7202 net.cpp:151] Top shape: 20 64 30 30 (1152000)
I0505 13:39:54.694370  7202 net.cpp:159] Memory required for data: 4680080
I0505 13:39:54.694380  7202 layer_factory.hpp:77] Creating layer relu1
I0505 13:39:54.694388  7202 net.cpp:94] Creating Layer relu1
I0505 13:39:54.694392  7202 net.cpp:435] relu1 <- conv1
I0505 13:39:54.694396  7202 net.cpp:396] relu1 -> conv1 (in-place)
I0505 13:39:54.694404  7202 net.cpp:144] Setting up relu1
I0505 13:39:54.694409  7202 net.cpp:151] Top shape: 20 64 30 30 (1152000)
I0505 13:39:54.694412  7202 net.cpp:159] Memory required for data: 9288080
I0505 13:39:54.694416  7202 layer_factory.hpp:77] Creating layer pool1
I0505 13:39:54.694422  7202 net.cpp:94] Creating Layer pool1
I0505 13:39:54.694425  7202 net.cpp:435] pool1 <- conv1
I0505 13:39:54.694435  7202 net.cpp:409] pool1 -> pool1
I0505 13:39:54.694485  7202 net.cpp:144] Setting up pool1
I0505 13:39:54.694492  7202 net.cpp:151] Top shape: 20 64 15 15 (288000)
I0505 13:39:54.694495  7202 net.cpp:159] Memory required for data: 10440080
I0505 13:39:54.694499  7202 layer_factory.hpp:77] Creating layer conv2
I0505 13:39:54.694507  7202 net.cpp:94] Creating Layer conv2
I0505 13:39:54.694511  7202 net.cpp:435] conv2 <- pool1
I0505 13:39:54.694516  7202 net.cpp:409] conv2 -> conv2
I0505 13:39:54.707402  7202 net.cpp:144] Setting up conv2
I0505 13:39:54.707419  7202 net.cpp:151] Top shape: 20 128 15 15 (576000)
I0505 13:39:54.707424  7202 net.cpp:159] Memory required for data: 12744080
I0505 13:39:54.707432  7202 layer_factory.hpp:77] Creating layer relu2
I0505 13:39:54.707439  7202 net.cpp:94] Creating Layer relu2
I0505 13:39:54.707443  7202 net.cpp:435] relu2 <- conv2
I0505 13:39:54.707448  7202 net.cpp:396] relu2 -> conv2 (in-place)
I0505 13:39:54.707455  7202 net.cpp:144] Setting up relu2
I0505 13:39:54.707460  7202 net.cpp:151] Top shape: 20 128 15 15 (576000)
I0505 13:39:54.707463  7202 net.cpp:159] Memory required for data: 15048080
I0505 13:39:54.707466  7202 layer_factory.hpp:77] Creating layer conv3
I0505 13:39:54.707474  7202 net.cpp:94] Creating Layer conv3
I0505 13:39:54.707478  7202 net.cpp:435] conv3 <- conv2
I0505 13:39:54.707482  7202 net.cpp:409] conv3 -> conv3
I0505 13:39:54.729157  7202 net.cpp:144] Setting up conv3
I0505 13:39:54.729174  7202 net.cpp:151] Top shape: 20 128 15 15 (576000)
I0505 13:39:54.729179  7202 net.cpp:159] Memory required for data: 17352080
I0505 13:39:54.729187  7202 layer_factory.hpp:77] Creating layer relu3
I0505 13:39:54.729194  7202 net.cpp:94] Creating Layer relu3
I0505 13:39:54.729198  7202 net.cpp:435] relu3 <- conv3
I0505 13:39:54.729203  7202 net.cpp:396] relu3 -> conv3 (in-place)
I0505 13:39:54.729210  7202 net.cpp:144] Setting up relu3
I0505 13:39:54.729215  7202 net.cpp:151] Top shape: 20 128 15 15 (576000)
I0505 13:39:54.729218  7202 net.cpp:159] Memory required for data: 19656080
I0505 13:39:54.729221  7202 layer_factory.hpp:77] Creating layer pool3
I0505 13:39:54.729228  7202 net.cpp:94] Creating Layer pool3
I0505 13:39:54.729231  7202 net.cpp:435] pool3 <- conv3
I0505 13:39:54.729235  7202 net.cpp:409] pool3 -> pool3
I0505 13:39:54.729274  7202 net.cpp:144] Setting up pool3
I0505 13:39:54.729280  7202 net.cpp:151] Top shape: 20 128 7 7 (125440)
I0505 13:39:54.729284  7202 net.cpp:159] Memory required for data: 20157840
I0505 13:39:54.729287  7202 layer_factory.hpp:77] Creating layer ip1
I0505 13:39:54.729295  7202 net.cpp:94] Creating Layer ip1
I0505 13:39:54.729297  7202 net.cpp:435] ip1 <- pool3
I0505 13:39:54.729302  7202 net.cpp:409] ip1 -> ip1
I0505 13:39:54.807746  7202 net.cpp:144] Setting up ip1
I0505 13:39:54.807778  7202 net.cpp:151] Top shape: 20 512 (10240)
I0505 13:39:54.807783  7202 net.cpp:159] Memory required for data: 20198800
I0505 13:39:54.807792  7202 layer_factory.hpp:77] Creating layer ip2
I0505 13:39:54.807802  7202 net.cpp:94] Creating Layer ip2
I0505 13:39:54.807807  7202 net.cpp:435] ip2 <- ip1
I0505 13:39:54.807814  7202 net.cpp:409] ip2 -> ip2
I0505 13:39:54.811007  7202 net.cpp:144] Setting up ip2
I0505 13:39:54.811017  7202 net.cpp:151] Top shape: 20 256 (5120)
I0505 13:39:54.811020  7202 net.cpp:159] Memory required for data: 20219280
I0505 13:39:54.811028  7202 layer_factory.hpp:77] Creating layer ip3
I0505 13:39:54.811035  7202 net.cpp:94] Creating Layer ip3
I0505 13:39:54.811038  7202 net.cpp:435] ip3 <- ip2
I0505 13:39:54.811043  7202 net.cpp:409] ip3 -> ip3
I0505 13:39:54.811466  7202 net.cpp:144] Setting up ip3
I0505 13:39:54.811475  7202 net.cpp:151] Top shape: 20 50 (1000)
I0505 13:39:54.811478  7202 net.cpp:159] Memory required for data: 20223280
I0505 13:39:54.811483  7202 layer_factory.hpp:77] Creating layer loss
I0505 13:39:54.811488  7202 net.cpp:94] Creating Layer loss
I0505 13:39:54.811492  7202 net.cpp:435] loss <- ip3
I0505 13:39:54.811496  7202 net.cpp:435] loss <- label
I0505 13:39:54.811511  7202 net.cpp:409] loss -> loss
I0505 13:39:54.811519  7202 layer_factory.hpp:77] Creating layer loss
…
I0505 13:39:54.811975  7202 solver.cpp:181] Creating test net (#0) specified by net file: ./protocol/dis_5_900_dimension.protocol_distribution
I0505 13:39:54.811998  7202 net.cpp:323] The NetState phase (1) differed from the phase (0) specified by a rule in layer parameters
I0505 13:39:54.812083  7202 net.cpp:52] Initializing net from parameters: 
state {
  phase: TEST
}
layer {
  name: "intercept"
  type: "HDF5Data"
  top: "data"
  top: "label"
  include {
    phase: TEST
  }
  hdf5_data_param {
    source: "/home/purduethu/scratch/radon/d/deng106/CNNStatisticalModel/distributions/input/5_distributions_900_sample_size_test-distributions-path.txt"
    batch_size: 20
  }
}
layer {
  name: "conv1"
  type: "Convolution"
  bottom: "data"
  top: "conv1"
  param {
    lr_mult: 1
  }
  param {
    lr_mult: 2
  }
  convolution_param {
    num_output: 64
    pad: 2
    kernel_size: 5
    stride: 1
    weight_filler {
      type: "gaussian"
      std: 0.0001
    }
    bias_filler {
      type: "constant"
    }
  }
}
layer {
  name: "relu1"
  type: "ReLU"
  bottom: "conv1"
  top: "conv1"
}
layer {
  name: "pool1"
  type: "Pooling"
  bottom: "conv1"
  top: "pool1"
  pooling_param {
    pool: MAX
    kernel_size: 3
    stride: 2
  }
}
layer {
  name: "conv2"
  type: "Convolution"
  bottom: "pool1"
  top: "conv2"
  param {
    lr_mult: 1
  }
  param {
    lr_mult: 2
  }
  convolution_param {
    num_output: 128
    pad: 2
    kernel_size: 5
    stride: 1
    weight_filler {
      type: "gaussian"
      std: 0.01
    }
    bias_filler {
      type: "constant"
    }
  }
}
layer {
  name: "relu2"
  type: "ReLU"
  bottom: "conv2"
  top: "conv2"
}
layer {
  name: "conv3"
  type: "Convolution"
  bottom: "conv2"
  top: "conv3"
  param {
    lr_mult: 1
  }
  param {
    lr_mult: 2
  }
  convolution_param {
    num_output: 128
    pad: 2
    kernel_size: 5
    stride: 1
    weight_filler {
      type: "gaussian"
      std: 0.01
    }
    bias_filler {
      type: "constant"
    }
  }
}
layer {
  name: "relu3"
  type: "ReLU"
  bottom: "conv3"
  top: "conv3"
}
layer {
  name: "pool3"
  type: "Pooling"
  bottom: "conv3"
  top: "pool3"
  pooling_param {
    pool: AVE
    kernel_size: 3
    stride: 2
  }
}
layer {
  name: "ip1"
  type: "InnerProduct"
  bottom: "pool3"
  top: "ip1"
  param {
    lr_mult: 1
  }
  param {
    lr_mult: 2
  }
  inner_product_param {
    num_output: 512
    weight_filler {
      type: "gaussian"
      std: 0.1
    }
    bias_filler {
      type: "constant"
    }
  }
}
layer {
  name: "ip2"
  type: "InnerProduct"
  bottom: "ip1"
  top: "ip2"
  param {
    lr_mult: 1
  }
  param {
    lr_mult: 2
  }
  inner_product_param {
    num_output: 256
    weight_filler {
      type: "gaussian"
      std: 0.1
    }
    bias_filler {
      type: "constant"
    }
  }
}
layer {
  name: "ip3"
  type: "InnerProduct"
  bottom: "ip2"
  top: "ip3"
  param {
    lr_mult: 1
  }
  param {
    lr_mult: 2
  }
  inner_product_param {
    num_output: 50
    weight_filler {
      type: "gaussian"
      std: 0.1
    }
    bias_filler {
      type: "constant"
    }
  }
}
layer {
  name: "accuracy"
  type: "Accuracy"
  bottom: "ip3"
  bottom: "label"
  top: "accuracy"
  include {
    phase: TEST
  }
}
layer {
  name: "loss"
  type: "SoftmaxWithLoss"
  bottom: "ip3"
  bottom: "label"
  top: "loss"
}
I0505 13:39:54.812141  7202 layer_factory.hpp:77] Creating layer intercept
I0505 13:39:54.812150  7202 net.cpp:94] Creating Layer intercept
I0505 13:39:54.812155  7202 net.cpp:409] intercept -> data
I0505 13:39:54.812161  7202 net.cpp:409] intercept -> label
I0505 13:39:54.812167  7202 hdf5_data_layer.cpp:79] Loading list of HDF5 filenames from: /home/purduethu/scratch/radon/d/deng106/CNNStatisticalModel/distributions/input/5_distributions_900_sample_size_test-distributions-path.txt
I0505 13:39:54.812188  7202 hdf5_data_layer.cpp:93] Number of HDF5 files: 1
I0505 13:39:54.847439  7202 net.cpp:144] Setting up intercept
I0505 13:39:54.847471  7202 net.cpp:151] Top shape: 20 1 30 30 (18000)
I0505 13:39:54.847476  7202 net.cpp:151] Top shape: 20 (20)
I0505 13:39:54.847481  7202 net.cpp:159] Memory required for data: 72080
I0505 13:39:54.847486  7202 layer_factory.hpp:77] Creating layer label_intercept_1_split
I0505 13:39:54.847506  7202 net.cpp:94] Creating Layer label_intercept_1_split
I0505 13:39:54.847512  7202 net.cpp:435] label_intercept_1_split <- label
I0505 13:39:54.847517  7202 net.cpp:409] label_intercept_1_split -> label_intercept_1_split_0
I0505 13:39:54.847527  7202 net.cpp:409] label_intercept_1_split -> label_intercept_1_split_1
I0505 13:39:54.847568  7202 net.cpp:144] Setting up label_intercept_1_split
I0505 13:39:54.847573  7202 net.cpp:151] Top shape: 20 (20)
I0505 13:39:54.847578  7202 net.cpp:151] Top shape: 20 (20)
I0505 13:39:54.847580  7202 net.cpp:159] Memory required for data: 72240
I0505 13:39:54.847584  7202 layer_factory.hpp:77] Creating layer conv1
I0505 13:39:54.847595  7202 net.cpp:94] Creating Layer conv1
I0505 13:39:54.847599  7202 net.cpp:435] conv1 <- data
I0505 13:39:54.847604  7202 net.cpp:409] conv1 -> conv1
I0505 13:39:54.849086  7202 net.cpp:144] Setting up conv1
I0505 13:39:54.849100  7202 net.cpp:151] Top shape: 20 64 30 30 (1152000)
I0505 13:39:54.849104  7202 net.cpp:159] Memory required for data: 4680240
I0505 13:39:54.849114  7202 layer_factory.hpp:77] Creating layer relu1
I0505 13:39:54.849122  7202 net.cpp:94] Creating Layer relu1
I0505 13:39:54.849125  7202 net.cpp:435] relu1 <- conv1
I0505 13:39:54.849129  7202 net.cpp:396] relu1 -> conv1 (in-place)
I0505 13:39:54.849138  7202 net.cpp:144] Setting up relu1
I0505 13:39:54.849141  7202 net.cpp:151] Top shape: 20 64 30 30 (1152000)
I0505 13:39:54.849144  7202 net.cpp:159] Memory required for data: 9288240
I0505 13:39:54.849148  7202 layer_factory.hpp:77] Creating layer pool1
I0505 13:39:54.849154  7202 net.cpp:94] Creating Layer pool1
I0505 13:39:54.849159  7202 net.cpp:435] pool1 <- conv1
I0505 13:39:54.849162  7202 net.cpp:409] pool1 -> pool1
I0505 13:39:54.849213  7202 net.cpp:144] Setting up pool1
I0505 13:39:54.849220  7202 net.cpp:151] Top shape: 20 64 15 15 (288000)
I0505 13:39:54.849223  7202 net.cpp:159] Memory required for data: 10440240
I0505 13:39:54.849226  7202 layer_factory.hpp:77] Creating layer conv2
I0505 13:39:54.849234  7202 net.cpp:94] Creating Layer conv2
I0505 13:39:54.849238  7202 net.cpp:435] conv2 <- pool1
I0505 13:39:54.849243  7202 net.cpp:409] conv2 -> conv2
I0505 13:39:54.857342  7202 net.cpp:144] Setting up conv2
I0505 13:39:54.857357  7202 net.cpp:151] Top shape: 20 128 15 15 (576000)
I0505 13:39:54.857360  7202 net.cpp:159] Memory required for data: 12744240
I0505 13:39:54.857375  7202 layer_factory.hpp:77] Creating layer relu2
I0505 13:39:54.857383  7202 net.cpp:94] Creating Layer relu2
I0505 13:39:54.857388  7202 net.cpp:435] relu2 <- conv2
I0505 13:39:54.857391  7202 net.cpp:396] relu2 -> conv2 (in-place)
I0505 13:39:54.857398  7202 net.cpp:144] Setting up relu2
I0505 13:39:54.857403  7202 net.cpp:151] Top shape: 20 128 15 15 (576000)
I0505 13:39:54.857408  7202 net.cpp:159] Memory required for data: 15048240
I0505 13:39:54.857410  7202 layer_factory.hpp:77] Creating layer conv3
I0505 13:39:54.857419  7202 net.cpp:94] Creating Layer conv3
I0505 13:39:54.857421  7202 net.cpp:435] conv3 <- conv2
I0505 13:39:54.857426  7202 net.cpp:409] conv3 -> conv3
I0505 13:39:54.872680  7202 net.cpp:144] Setting up conv3
I0505 13:39:54.872719  7202 net.cpp:151] Top shape: 20 128 15 15 (576000)
I0505 13:39:54.872730  7202 net.cpp:159] Memory required for data: 17352240
I0505 13:39:54.872753  7202 layer_factory.hpp:77] Creating layer relu3
I0505 13:39:54.872772  7202 net.cpp:94] Creating Layer relu3
I0505 13:39:54.872782  7202 net.cpp:435] relu3 <- conv3
I0505 13:39:54.872797  7202 net.cpp:396] relu3 -> conv3 (in-place)
I0505 13:39:54.872817  7202 net.cpp:144] Setting up relu3
I0505 13:39:54.872829  7202 net.cpp:151] Top shape: 20 128 15 15 (576000)
I0505 13:39:54.872838  7202 net.cpp:159] Memory required for data: 19656240
I0505 13:39:54.872848  7202 layer_factory.hpp:77] Creating layer pool3
I0505 13:39:54.872861  7202 net.cpp:94] Creating Layer pool3
I0505 13:39:54.872871  7202 net.cpp:435] pool3 <- conv3
I0505 13:39:54.872884  7202 net.cpp:409] pool3 -> pool3
I0505 13:39:54.872977  7202 net.cpp:144] Setting up pool3
I0505 13:39:54.872997  7202 net.cpp:151] Top shape: 20 128 7 7 (125440)
I0505 13:39:54.873005  7202 net.cpp:159] Memory required for data: 20158000
I0505 13:39:54.873015  7202 layer_factory.hpp:77] Creating layer ip1
I0505 13:39:54.873039  7202 net.cpp:94] Creating Layer ip1
I0505 13:39:54.873044  7202 net.cpp:435] ip1 <- pool3
I0505 13:39:54.873049  7202 net.cpp:409] ip1 -> ip1
I0505 13:39:54.950934  7202 net.cpp:144] Setting up ip1
I0505 13:39:54.950968  7202 net.cpp:151] Top shape: 20 512 (10240)
I0505 13:39:54.950971  7202 net.cpp:159] Memory required for data: 20198960
I0505 13:39:54.950979  7202 layer_factory.hpp:77] Creating layer ip2
I0505 13:39:54.950989  7202 net.cpp:94] Creating Layer ip2
I0505 13:39:54.950994  7202 net.cpp:435] ip2 <- ip1
I0505 13:39:54.951001  7202 net.cpp:409] ip2 -> ip2
I0505 13:39:54.954195  7202 net.cpp:144] Setting up ip2
I0505 13:39:54.954205  7202 net.cpp:151] Top shape: 20 256 (5120)
I0505 13:39:54.954207  7202 net.cpp:159] Memory required for data: 20219440
I0505 13:39:54.954216  7202 layer_factory.hpp:77] Creating layer ip3
I0505 13:39:54.954221  7202 net.cpp:94] Creating Layer ip3
I0505 13:39:54.954226  7202 net.cpp:435] ip3 <- ip2
I0505 13:39:54.954231  7202 net.cpp:409] ip3 -> ip3
I0505 13:39:54.954664  7202 net.cpp:144] Setting up ip3
I0505 13:39:54.954671  7202 net.cpp:151] Top shape: 20 50 (1000)
I0505 13:39:54.954674  7202 net.cpp:159] Memory required for data: 20223440
I0505 13:39:54.954679  7202 layer_factory.hpp:77] Creating layer ip3_ip3_0_split
I0505 13:39:54.954685  7202 net.cpp:94] Creating Layer ip3_ip3_0_split
I0505 13:39:54.954689  7202 net.cpp:435] ip3_ip3_0_split <- ip3
I0505 13:39:54.954694  7202 net.cpp:409] ip3_ip3_0_split -> ip3_ip3_0_split_0
I0505 13:39:54.954699  7202 net.cpp:409] ip3_ip3_0_split -> ip3_ip3_0_split_1
I0505 13:39:54.954738  7202 net.cpp:144] Setting up ip3_ip3_0_split
I0505 13:39:54.954744  7202 net.cpp:151] Top shape: 20 50 (1000)
I0505 13:39:54.954748  7202 net.cpp:151] Top shape: 20 50 (1000)
I0505 13:39:54.954751  7202 net.cpp:159] Memory required for data: 20231440
I0505 13:39:54.954754  7202 layer_factory.hpp:77] Creating layer accuracy
I0505 13:39:54.954761  7202 net.cpp:94] Creating Layer accuracy
I0505 13:39:54.954763  7202 net.cpp:435] accuracy <- ip3_ip3_0_split_0
I0505 13:39:54.954767  7202 net.cpp:435] accuracy <- label_intercept_1_split_0
I0505 13:39:54.954771  7202 net.cpp:409] accuracy -> accuracy
…
