…
I0503 09:11:57.019265 19716 net.cpp:323] The NetState phase (0) differed from the phase (1) specified by a rule in layer intercept
I0503 09:11:57.019282 19716 net.cpp:323] The NetState phase (0) differed from the phase (1) specified by a rule in layer loss
I0503 09:11:57.019377 19716 net.cpp:52] Initializing net from parameters: 
state {
  phase: TRAIN
}
layer {
  name: "parameters"
  type: "HDF5Data"
  top: "data"
  top: "label"
  include {
    phase: TRAIN
  }
  hdf5_data_param {
    source: "/home/purduethu/scratch/radon/d/deng106/CNNStatisticalModel/distributions/input/5_distributions_900_sample_size_train-parameters-path.txt"
    batch_size: 20
  }
}
layer {
  name: "conv1"
  type: "Convolution"
  bottom: "data"
  top: "conv1"
  param {
    lr_mult: 1
  }
  param {
    lr_mult: 2
  }
  convolution_param {
    num_output: 64
    pad: 2
    kernel_size: 5
    stride: 1
    weight_filler {
      type: "gaussian"
      std: 0.0001
    }
    bias_filler {
      type: "constant"
    }
  }
}
layer {
  name: "relu1"
  type: "ReLU"
  bottom: "conv1"
  top: "conv1"
}
layer {
  name: "conv2"
  type: "Convolution"
  bottom: "conv1"
  top: "conv2"
  param {
    lr_mult: 1
  }
  param {
    lr_mult: 2
  }
  convolution_param {
    num_output: 64
    pad: 2
    kernel_size: 5
    stride: 1
    weight_filler {
      type: "gaussian"
      std: 0.01
    }
    bias_filler {
      type: "constant"
    }
  }
}
layer {
  name: "relu2"
  type: "ReLU"
  bottom: "conv2"
  top: "conv2"
}
layer {
  name: "pool2"
  type: "Pooling"
  bottom: "conv2"
  top: "pool2"
  pooling_param {
    pool: MAX
    kernel_size: 3
    stride: 2
  }
}
layer {
  name: "conv3"
  type: "Convolution"
  bottom: "pool2"
  top: "conv3"
  param {
    lr_mult: 1
  }
  param {
    lr_mult: 2
  }
  convolution_param {
    num_output: 128
    pad: 2
    kernel_size: 5
    stride: 1
    weight_filler {
      type: "gaussian"
      std: 0.01
    }
    bias_filler {
      type: "constant"
    }
  }
}
layer {
  name: "relu3"
  type: "ReLU"
  bottom: "conv3"
  top: "conv3"
}
layer {
  name: "conv4"
  type: "Convolution"
  bottom: "conv3"
  top: "conv4"
  param {
    lr_mult: 1
  }
  param {
    lr_mult: 2
  }
  convolution_param {
    num_output: 128
    pad: 2
    kernel_size: 5
    stride: 1
    weight_filler {
      type: "gaussian"
      std: 0.01
    }
    bias_filler {
      type: "constant"
    }
  }
}
layer {
  name: "relu4"
  type: "ReLU"
  bottom: "conv4"
  top: "conv4"
}
layer {
  name: "conv5"
  type: "Convolution"
  bottom: "conv4"
  top: "conv5"
  param {
    lr_mult: 1
  }
  param {
    lr_mult: 2
  }
  convolution_param {
    num_output: 128
    pad: 2
    kernel_size: 5
    stride: 1
    weight_filler {
      type: "gaussian"
      std: 0.01
    }
    bias_filler {
      type: "constant"
    }
  }
}
layer {
  name: "relu5"
  type: "ReLU"
  bottom: "conv5"
  top: "conv5"
}
layer {
  name: "pool5"
  type: "Pooling"
  bottom: "conv5"
  top: "pool5"
  pooling_param {
    pool: AVE
    kernel_size: 3
    stride: 2
  }
}
layer {
  name: "ip1"
  type: "InnerProduct"
  bottom: "pool5"
  top: "ip1"
  param {
    lr_mult: 1
  }
  param {
    lr_mult: 2
  }
  inner_product_param {
    num_output: 1024
    weight_filler {
      type: "gaussian"
      std: 0.1
    }
    bias_filler {
      type: "constant"
    }
  }
}
layer {
  name: "ip2"
  type: "InnerProduct"
  bottom: "ip1"
  top: "ip2"
  param {
    lr_mult: 1
  }
  param {
    lr_mult: 2
  }
  inner_product_param {
    num_output: 512
    weight_filler {
      type: "gaussian"
      std: 0.1
    }
    bias_filler {
      type: "constant"
    }
  }
}
layer {
  name: "ip3"
  type: "InnerProduct"
  bottom: "ip2"
  top: "ip3"
  param {
    lr_mult: 1
  }
  param {
    lr_mult: 2
  }
  inner_product_param {
    num_output: 1
    weight_filler {
      type: "gaussian"
      std: 0.1
    }
    bias_filler {
      type: "constant"
    }
  }
}
layer {
  name: "loss"
  type: "HuberLoss"
  bottom: "ip3"
  bottom: "label"
  top: "loss"
  include {
    phase: TRAIN
  }
}
I0503 09:11:57.019459 19716 layer_factory.hpp:77] Creating layer parameters
I0503 09:11:57.019474 19716 net.cpp:94] Creating Layer parameters
I0503 09:11:57.019479 19716 net.cpp:409] parameters -> data
I0503 09:11:57.019497 19716 net.cpp:409] parameters -> label
I0503 09:11:57.019507 19716 hdf5_data_layer.cpp:79] Loading list of HDF5 filenames from: /home/purduethu/scratch/radon/d/deng106/CNNStatisticalModel/distributions/input/5_distributions_900_sample_size_train-parameters-path.txt
I0503 09:11:57.019529 19716 hdf5_data_layer.cpp:93] Number of HDF5 files: 1
I0503 09:11:57.020148 19716 hdf5.cpp:32] Datatype class: H5T_FLOAT
I0503 09:11:57.158730 19716 net.cpp:144] Setting up parameters
I0503 09:11:57.158761 19716 net.cpp:151] Top shape: 20 1 30 30 (18000)
I0503 09:11:57.158767 19716 net.cpp:151] Top shape: 20 (20)
I0503 09:11:57.158771 19716 net.cpp:159] Memory required for data: 72080
I0503 09:11:57.158778 19716 layer_factory.hpp:77] Creating layer conv1
I0503 09:11:57.158803 19716 net.cpp:94] Creating Layer conv1
I0503 09:11:57.158809 19716 net.cpp:435] conv1 <- data
I0503 09:11:57.158821 19716 net.cpp:409] conv1 -> conv1
I0503 09:11:57.164660 19716 net.cpp:144] Setting up conv1
I0503 09:11:57.164676 19716 net.cpp:151] Top shape: 20 64 30 30 (1152000)
I0503 09:11:57.164680 19716 net.cpp:159] Memory required for data: 4680080
I0503 09:11:57.164692 19716 layer_factory.hpp:77] Creating layer relu1
I0503 09:11:57.164700 19716 net.cpp:94] Creating Layer relu1
I0503 09:11:57.164705 19716 net.cpp:435] relu1 <- conv1
I0503 09:11:57.164708 19716 net.cpp:396] relu1 -> conv1 (in-place)
I0503 09:11:57.164727 19716 net.cpp:144] Setting up relu1
I0503 09:11:57.164732 19716 net.cpp:151] Top shape: 20 64 30 30 (1152000)
I0503 09:11:57.164736 19716 net.cpp:159] Memory required for data: 9288080
I0503 09:11:57.164739 19716 layer_factory.hpp:77] Creating layer conv2
I0503 09:11:57.164746 19716 net.cpp:94] Creating Layer conv2
I0503 09:11:57.164750 19716 net.cpp:435] conv2 <- conv1
I0503 09:11:57.164755 19716 net.cpp:409] conv2 -> conv2
I0503 09:11:57.180001 19716 net.cpp:144] Setting up conv2
I0503 09:11:57.180022 19716 net.cpp:151] Top shape: 20 64 30 30 (1152000)
I0503 09:11:57.180027 19716 net.cpp:159] Memory required for data: 13896080
I0503 09:11:57.180038 19716 layer_factory.hpp:77] Creating layer relu2
I0503 09:11:57.180047 19716 net.cpp:94] Creating Layer relu2
I0503 09:11:57.180052 19716 net.cpp:435] relu2 <- conv2
I0503 09:11:57.180058 19716 net.cpp:396] relu2 -> conv2 (in-place)
I0503 09:11:57.180068 19716 net.cpp:144] Setting up relu2
I0503 09:11:57.180075 19716 net.cpp:151] Top shape: 20 64 30 30 (1152000)
I0503 09:11:57.180079 19716 net.cpp:159] Memory required for data: 18504080
I0503 09:11:57.180084 19716 layer_factory.hpp:77] Creating layer pool2
I0503 09:11:57.180094 19716 net.cpp:94] Creating Layer pool2
I0503 09:11:57.180106 19716 net.cpp:435] pool2 <- conv2
I0503 09:11:57.180114 19716 net.cpp:409] pool2 -> pool2
I0503 09:11:57.180171 19716 net.cpp:144] Setting up pool2
I0503 09:11:57.180181 19716 net.cpp:151] Top shape: 20 64 15 15 (288000)
I0503 09:11:57.180186 19716 net.cpp:159] Memory required for data: 19656080
I0503 09:11:57.180191 19716 layer_factory.hpp:77] Creating layer conv3
I0503 09:11:57.180200 19716 net.cpp:94] Creating Layer conv3
I0503 09:11:57.180205 19716 net.cpp:435] conv3 <- pool2
I0503 09:11:57.180212 19716 net.cpp:409] conv3 -> conv3
I0503 09:11:57.192744 19716 net.cpp:144] Setting up conv3
I0503 09:11:57.192759 19716 net.cpp:151] Top shape: 20 128 15 15 (576000)
I0503 09:11:57.192764 19716 net.cpp:159] Memory required for data: 21960080
I0503 09:11:57.192771 19716 layer_factory.hpp:77] Creating layer relu3
I0503 09:11:57.192777 19716 net.cpp:94] Creating Layer relu3
I0503 09:11:57.192781 19716 net.cpp:435] relu3 <- conv3
I0503 09:11:57.192786 19716 net.cpp:396] relu3 -> conv3 (in-place)
I0503 09:11:57.192793 19716 net.cpp:144] Setting up relu3
I0503 09:11:57.192798 19716 net.cpp:151] Top shape: 20 128 15 15 (576000)
I0503 09:11:57.192801 19716 net.cpp:159] Memory required for data: 24264080
I0503 09:11:57.192806 19716 layer_factory.hpp:77] Creating layer conv4
I0503 09:11:57.192813 19716 net.cpp:94] Creating Layer conv4
I0503 09:11:57.192817 19716 net.cpp:435] conv4 <- conv3
I0503 09:11:57.192822 19716 net.cpp:409] conv4 -> conv4
I0503 09:11:57.214984 19716 net.cpp:144] Setting up conv4
I0503 09:11:57.215000 19716 net.cpp:151] Top shape: 20 128 15 15 (576000)
I0503 09:11:57.215004 19716 net.cpp:159] Memory required for data: 26568080
I0503 09:11:57.215011 19716 layer_factory.hpp:77] Creating layer relu4
I0503 09:11:57.215018 19716 net.cpp:94] Creating Layer relu4
I0503 09:11:57.215023 19716 net.cpp:435] relu4 <- conv4
I0503 09:11:57.215028 19716 net.cpp:396] relu4 -> conv4 (in-place)
I0503 09:11:57.215034 19716 net.cpp:144] Setting up relu4
I0503 09:11:57.215039 19716 net.cpp:151] Top shape: 20 128 15 15 (576000)
I0503 09:11:57.215042 19716 net.cpp:159] Memory required for data: 28872080
I0503 09:11:57.215045 19716 layer_factory.hpp:77] Creating layer conv5
I0503 09:11:57.215054 19716 net.cpp:94] Creating Layer conv5
I0503 09:11:57.215057 19716 net.cpp:435] conv5 <- conv4
I0503 09:11:57.215062 19716 net.cpp:409] conv5 -> conv5
I0503 09:11:57.236619 19716 net.cpp:144] Setting up conv5
I0503 09:11:57.236640 19716 net.cpp:151] Top shape: 20 128 15 15 (576000)
I0503 09:11:57.236646 19716 net.cpp:159] Memory required for data: 31176080
I0503 09:11:57.236659 19716 layer_factory.hpp:77] Creating layer relu5
I0503 09:11:57.236666 19716 net.cpp:94] Creating Layer relu5
I0503 09:11:57.236671 19716 net.cpp:435] relu5 <- conv5
I0503 09:11:57.236678 19716 net.cpp:396] relu5 -> conv5 (in-place)
I0503 09:11:57.236688 19716 net.cpp:144] Setting up relu5
I0503 09:11:57.236695 19716 net.cpp:151] Top shape: 20 128 15 15 (576000)
I0503 09:11:57.236699 19716 net.cpp:159] Memory required for data: 33480080
I0503 09:11:57.236703 19716 layer_factory.hpp:77] Creating layer pool5
I0503 09:11:57.236711 19716 net.cpp:94] Creating Layer pool5
I0503 09:11:57.236714 19716 net.cpp:435] pool5 <- conv5
I0503 09:11:57.236721 19716 net.cpp:409] pool5 -> pool5
I0503 09:11:57.236768 19716 net.cpp:144] Setting up pool5
I0503 09:11:57.236778 19716 net.cpp:151] Top shape: 20 128 7 7 (125440)
I0503 09:11:57.236783 19716 net.cpp:159] Memory required for data: 33981840
I0503 09:11:57.236788 19716 layer_factory.hpp:77] Creating layer ip1
I0503 09:11:57.236799 19716 net.cpp:94] Creating Layer ip1
I0503 09:11:57.236804 19716 net.cpp:435] ip1 <- pool5
I0503 09:11:57.236811 19716 net.cpp:409] ip1 -> ip1
I0503 09:11:57.399590 19716 net.cpp:144] Setting up ip1
I0503 09:11:57.399612 19716 net.cpp:151] Top shape: 20 1024 (20480)
I0503 09:11:57.399617 19716 net.cpp:159] Memory required for data: 34063760
I0503 09:11:57.399626 19716 layer_factory.hpp:77] Creating layer ip2
I0503 09:11:57.399636 19716 net.cpp:94] Creating Layer ip2
I0503 09:11:57.399646 19716 net.cpp:435] ip2 <- ip1
I0503 09:11:57.399652 19716 net.cpp:409] ip2 -> ip2
I0503 09:11:57.413221 19716 net.cpp:144] Setting up ip2
I0503 09:11:57.413235 19716 net.cpp:151] Top shape: 20 512 (10240)
I0503 09:11:57.413239 19716 net.cpp:159] Memory required for data: 34104720
I0503 09:11:57.413245 19716 layer_factory.hpp:77] Creating layer ip3
I0503 09:11:57.413252 19716 net.cpp:94] Creating Layer ip3
I0503 09:11:57.413256 19716 net.cpp:435] ip3 <- ip2
I0503 09:11:57.413261 19716 net.cpp:409] ip3 -> ip3
I0503 09:11:57.413342 19716 net.cpp:144] Setting up ip3
I0503 09:11:57.413358 19716 net.cpp:151] Top shape: 20 1 (20)
I0503 09:11:57.413362 19716 net.cpp:159] Memory required for data: 34104800
I0503 09:11:57.413367 19716 layer_factory.hpp:77] Creating layer loss
I0503 09:11:57.413377 19716 net.cpp:94] Creating Layer loss
I0503 09:11:57.413379 19716 net.cpp:435] loss <- ip3
I0503 09:11:57.413383 19716 net.cpp:435] loss <- label
I0503 09:11:57.413389 19716 net.cpp:409] loss -> loss
I0503 09:11:57.413427 19716 net.cpp:144] Setting up loss
…
