…
I0503 19:06:26.228966 21936 net.cpp:323] The NetState phase (0) differed from the phase (1) specified by a rule in layer intercept
I0503 19:06:26.228983 21936 net.cpp:323] The NetState phase (0) differed from the phase (1) specified by a rule in layer accuracy
I0503 19:06:26.229074 21936 net.cpp:52] Initializing net from parameters: 
state {
  phase: TRAIN
}
layer {
  name: "parameters"
  type: "HDF5Data"
  top: "data"
  top: "label"
  include {
    phase: TRAIN
  }
  hdf5_data_param {
    source: "/home/purduethu/scratch/radon/d/deng106/CNNStatisticalModel/distributions/input/20_distributions_400_sample_size_train-distributions-path.txt"
    batch_size: 20
  }
}
layer {
  name: "conv1"
  type: "Convolution"
  bottom: "data"
  top: "conv1"
  param {
    lr_mult: 1
  }
  param {
    lr_mult: 2
  }
  convolution_param {
    num_output: 64
    pad: 2
    kernel_size: 5
    stride: 1
    weight_filler {
      type: "gaussian"
      std: 0.0001
    }
    bias_filler {
      type: "constant"
    }
  }
}
layer {
  name: "relu1"
  type: "ReLU"
  bottom: "conv1"
  top: "conv1"
}
layer {
  name: "conv2"
  type: "Convolution"
  bottom: "conv1"
  top: "conv2"
  param {
    lr_mult: 1
  }
  param {
    lr_mult: 2
  }
  convolution_param {
    num_output: 64
    pad: 2
    kernel_size: 5
    stride: 1
    weight_filler {
      type: "gaussian"
      std: 0.01
    }
    bias_filler {
      type: "constant"
    }
  }
}
layer {
  name: "relu2"
  type: "ReLU"
  bottom: "conv2"
  top: "conv2"
}
layer {
  name: "pool2"
  type: "Pooling"
  bottom: "conv2"
  top: "pool2"
  pooling_param {
    pool: MAX
    kernel_size: 3
    stride: 2
  }
}
layer {
  name: "conv3"
  type: "Convolution"
  bottom: "pool2"
  top: "conv3"
  param {
    lr_mult: 1
  }
  param {
    lr_mult: 2
  }
  convolution_param {
    num_output: 128
    pad: 2
    kernel_size: 5
    stride: 1
    weight_filler {
      type: "gaussian"
      std: 0.01
    }
    bias_filler {
      type: "constant"
    }
  }
}
layer {
  name: "relu3"
  type: "ReLU"
  bottom: "conv3"
  top: "conv3"
}
layer {
  name: "conv4"
  type: "Convolution"
  bottom: "conv3"
  top: "conv4"
  param {
    lr_mult: 1
  }
  param {
    lr_mult: 2
  }
  convolution_param {
    num_output: 128
    pad: 2
    kernel_size: 5
    stride: 1
    weight_filler {
      type: "gaussian"
      std: 0.01
    }
    bias_filler {
      type: "constant"
    }
  }
}
layer {
  name: "relu4"
  type: "ReLU"
  bottom: "conv4"
  top: "conv4"
}
layer {
  name: "conv5"
  type: "Convolution"
  bottom: "conv4"
  top: "conv5"
  param {
    lr_mult: 1
  }
  param {
    lr_mult: 2
  }
  convolution_param {
    num_output: 128
    pad: 2
    kernel_size: 5
    stride: 1
    weight_filler {
      type: "gaussian"
      std: 0.01
    }
    bias_filler {
      type: "constant"
    }
  }
}
layer {
  name: "relu5"
  type: "ReLU"
  bottom: "conv5"
  top: "conv5"
}
layer {
  name: "pool5"
  type: "Pooling"
  bottom: "conv5"
  top: "pool5"
  pooling_param {
    pool: AVE
    kernel_size: 3
    stride: 2
  }
}
layer {
  name: "ip1"
  type: "InnerProduct"
  bottom: "pool5"
  top: "ip1"
  param {
    lr_mult: 1
  }
  param {
    lr_mult: 2
  }
  inner_product_param {
    num_output: 1024
    weight_filler {
      type: "gaussian"
      std: 0.1
    }
    bias_filler {
      type: "constant"
    }
  }
}
layer {
  name: "ip2"
  type: "InnerProduct"
  bottom: "ip1"
  top: "ip2"
  param {
    lr_mult: 1
  }
  param {
    lr_mult: 2
  }
  inner_product_param {
    num_output: 512
    weight_filler {
      type: "gaussian"
      std: 0.1
    }
    bias_filler {
      type: "constant"
    }
  }
}
layer {
  name: "ip3"
  type: "InnerProduct"
  bottom: "ip2"
  top: "ip3"
  param {
    lr_mult: 1
  }
  param {
    lr_mult: 2
  }
  inner_product_param {
    num_output: 50
    weight_filler {
      type: "gaussian"
      std: 0.1
    }
    bias_filler {
      type: "constant"
    }
  }
}
layer {
  name: "loss"
  type: "SoftmaxWithLoss"
  bottom: "ip3"
  bottom: "label"
  top: "loss"
}
I0503 19:06:26.229146 21936 layer_factory.hpp:77] Creating layer parameters
I0503 19:06:26.229161 21936 net.cpp:94] Creating Layer parameters
I0503 19:06:26.229166 21936 net.cpp:409] parameters -> data
I0503 19:06:26.229184 21936 net.cpp:409] parameters -> label
I0503 19:06:26.229195 21936 hdf5_data_layer.cpp:79] Loading list of HDF5 filenames from: /home/purduethu/scratch/radon/d/deng106/CNNStatisticalModel/distributions/input/20_distributions_400_sample_size_train-distributions-path.txt
I0503 19:06:26.229216 21936 hdf5_data_layer.cpp:93] Number of HDF5 files: 1
I0503 19:06:26.229670 21936 hdf5.cpp:32] Datatype class: H5T_FLOAT
I0503 19:06:26.481098 21936 hdf5.cpp:35] Datatype class: H5T_INTEGER
I0503 19:06:26.482787 21936 net.cpp:144] Setting up parameters
I0503 19:06:26.482805 21936 net.cpp:151] Top shape: 20 1 20 20 (8000)
I0503 19:06:26.482810 21936 net.cpp:151] Top shape: 20 (20)
I0503 19:06:26.482815 21936 net.cpp:159] Memory required for data: 32080
I0503 19:06:26.482821 21936 layer_factory.hpp:77] Creating layer conv1
I0503 19:06:26.482841 21936 net.cpp:94] Creating Layer conv1
I0503 19:06:26.482846 21936 net.cpp:435] conv1 <- data
I0503 19:06:26.482856 21936 net.cpp:409] conv1 -> conv1
I0503 19:06:26.487548 21936 net.cpp:144] Setting up conv1
I0503 19:06:26.487563 21936 net.cpp:151] Top shape: 20 64 20 20 (512000)
I0503 19:06:26.487567 21936 net.cpp:159] Memory required for data: 2080080
I0503 19:06:26.487578 21936 layer_factory.hpp:77] Creating layer relu1
I0503 19:06:26.487586 21936 net.cpp:94] Creating Layer relu1
I0503 19:06:26.487591 21936 net.cpp:435] relu1 <- conv1
I0503 19:06:26.487594 21936 net.cpp:396] relu1 -> conv1 (in-place)
I0503 19:06:26.487606 21936 net.cpp:144] Setting up relu1
I0503 19:06:26.487610 21936 net.cpp:151] Top shape: 20 64 20 20 (512000)
I0503 19:06:26.487614 21936 net.cpp:159] Memory required for data: 4128080
I0503 19:06:26.487617 21936 layer_factory.hpp:77] Creating layer conv2
I0503 19:06:26.487625 21936 net.cpp:94] Creating Layer conv2
I0503 19:06:26.487628 21936 net.cpp:435] conv2 <- conv1
I0503 19:06:26.487633 21936 net.cpp:409] conv2 -> conv2
I0503 19:06:26.497509 21936 net.cpp:144] Setting up conv2
I0503 19:06:26.497524 21936 net.cpp:151] Top shape: 20 64 20 20 (512000)
I0503 19:06:26.497529 21936 net.cpp:159] Memory required for data: 6176080
I0503 19:06:26.497536 21936 layer_factory.hpp:77] Creating layer relu2
I0503 19:06:26.497544 21936 net.cpp:94] Creating Layer relu2
I0503 19:06:26.497547 21936 net.cpp:435] relu2 <- conv2
I0503 19:06:26.497552 21936 net.cpp:396] relu2 -> conv2 (in-place)
I0503 19:06:26.497560 21936 net.cpp:144] Setting up relu2
I0503 19:06:26.497565 21936 net.cpp:151] Top shape: 20 64 20 20 (512000)
I0503 19:06:26.497567 21936 net.cpp:159] Memory required for data: 8224080
I0503 19:06:26.497570 21936 layer_factory.hpp:77] Creating layer pool2
I0503 19:06:26.497583 21936 net.cpp:94] Creating Layer pool2
I0503 19:06:26.497587 21936 net.cpp:435] pool2 <- conv2
I0503 19:06:26.497592 21936 net.cpp:409] pool2 -> pool2
I0503 19:06:26.497635 21936 net.cpp:144] Setting up pool2
I0503 19:06:26.497642 21936 net.cpp:151] Top shape: 20 64 10 10 (128000)
I0503 19:06:26.497645 21936 net.cpp:159] Memory required for data: 8736080
I0503 19:06:26.497649 21936 layer_factory.hpp:77] Creating layer conv3
I0503 19:06:26.497656 21936 net.cpp:94] Creating Layer conv3
I0503 19:06:26.497660 21936 net.cpp:435] conv3 <- pool2
I0503 19:06:26.497673 21936 net.cpp:409] conv3 -> conv3
I0503 19:06:26.506914 21936 net.cpp:144] Setting up conv3
I0503 19:06:26.506929 21936 net.cpp:151] Top shape: 20 128 10 10 (256000)
I0503 19:06:26.506934 21936 net.cpp:159] Memory required for data: 9760080
I0503 19:06:26.506942 21936 layer_factory.hpp:77] Creating layer relu3
I0503 19:06:26.506948 21936 net.cpp:94] Creating Layer relu3
I0503 19:06:26.506953 21936 net.cpp:435] relu3 <- conv3
I0503 19:06:26.506956 21936 net.cpp:396] relu3 -> conv3 (in-place)
I0503 19:06:26.506964 21936 net.cpp:144] Setting up relu3
I0503 19:06:26.506969 21936 net.cpp:151] Top shape: 20 128 10 10 (256000)
I0503 19:06:26.506973 21936 net.cpp:159] Memory required for data: 10784080
I0503 19:06:26.506975 21936 layer_factory.hpp:77] Creating layer conv4
I0503 19:06:26.506983 21936 net.cpp:94] Creating Layer conv4
I0503 19:06:26.506988 21936 net.cpp:435] conv4 <- conv3
I0503 19:06:26.506992 21936 net.cpp:409] conv4 -> conv4
I0503 19:06:26.524338 21936 net.cpp:144] Setting up conv4
I0503 19:06:26.524377 21936 net.cpp:151] Top shape: 20 128 10 10 (256000)
I0503 19:06:26.524381 21936 net.cpp:159] Memory required for data: 11808080
I0503 19:06:26.524389 21936 layer_factory.hpp:77] Creating layer relu4
I0503 19:06:26.524394 21936 net.cpp:94] Creating Layer relu4
I0503 19:06:26.524399 21936 net.cpp:435] relu4 <- conv4
I0503 19:06:26.524404 21936 net.cpp:396] relu4 -> conv4 (in-place)
I0503 19:06:26.524410 21936 net.cpp:144] Setting up relu4
I0503 19:06:26.524415 21936 net.cpp:151] Top shape: 20 128 10 10 (256000)
I0503 19:06:26.524418 21936 net.cpp:159] Memory required for data: 12832080
I0503 19:06:26.524421 21936 layer_factory.hpp:77] Creating layer conv5
I0503 19:06:26.524430 21936 net.cpp:94] Creating Layer conv5
I0503 19:06:26.524432 21936 net.cpp:435] conv5 <- conv4
I0503 19:06:26.524437 21936 net.cpp:409] conv5 -> conv5
I0503 19:06:26.541412 21936 net.cpp:144] Setting up conv5
I0503 19:06:26.541427 21936 net.cpp:151] Top shape: 20 128 10 10 (256000)
I0503 19:06:26.541432 21936 net.cpp:159] Memory required for data: 13856080
I0503 19:06:26.541440 21936 layer_factory.hpp:77] Creating layer relu5
I0503 19:06:26.541447 21936 net.cpp:94] Creating Layer relu5
I0503 19:06:26.541451 21936 net.cpp:435] relu5 <- conv5
I0503 19:06:26.541455 21936 net.cpp:396] relu5 -> conv5 (in-place)
I0503 19:06:26.541463 21936 net.cpp:144] Setting up relu5
I0503 19:06:26.541467 21936 net.cpp:151] Top shape: 20 128 10 10 (256000)
I0503 19:06:26.541471 21936 net.cpp:159] Memory required for data: 14880080
I0503 19:06:26.541474 21936 layer_factory.hpp:77] Creating layer pool5
I0503 19:06:26.541479 21936 net.cpp:94] Creating Layer pool5
I0503 19:06:26.541482 21936 net.cpp:435] pool5 <- conv5
I0503 19:06:26.541487 21936 net.cpp:409] pool5 -> pool5
I0503 19:06:26.541522 21936 net.cpp:144] Setting up pool5
I0503 19:06:26.541529 21936 net.cpp:151] Top shape: 20 128 5 5 (64000)
I0503 19:06:26.541532 21936 net.cpp:159] Memory required for data: 15136080
I0503 19:06:26.541535 21936 layer_factory.hpp:77] Creating layer ip1
I0503 19:06:26.541545 21936 net.cpp:94] Creating Layer ip1
I0503 19:06:26.541549 21936 net.cpp:435] ip1 <- pool5
I0503 19:06:26.541554 21936 net.cpp:409] ip1 -> ip1
I0503 19:06:26.625352 21936 net.cpp:144] Setting up ip1
I0503 19:06:26.625382 21936 net.cpp:151] Top shape: 20 1024 (20480)
I0503 19:06:26.625387 21936 net.cpp:159] Memory required for data: 15218000
I0503 19:06:26.625394 21936 layer_factory.hpp:77] Creating layer ip2
I0503 19:06:26.625411 21936 net.cpp:94] Creating Layer ip2
I0503 19:06:26.625416 21936 net.cpp:435] ip2 <- ip1
I0503 19:06:26.625422 21936 net.cpp:409] ip2 -> ip2
I0503 19:06:26.639081 21936 net.cpp:144] Setting up ip2
I0503 19:06:26.639093 21936 net.cpp:151] Top shape: 20 512 (10240)
I0503 19:06:26.639097 21936 net.cpp:159] Memory required for data: 15258960
I0503 19:06:26.639102 21936 layer_factory.hpp:77] Creating layer ip3
I0503 19:06:26.639111 21936 net.cpp:94] Creating Layer ip3
I0503 19:06:26.639113 21936 net.cpp:435] ip3 <- ip2
I0503 19:06:26.639119 21936 net.cpp:409] ip3 -> ip3
I0503 19:06:26.640444 21936 net.cpp:144] Setting up ip3
I0503 19:06:26.640455 21936 net.cpp:151] Top shape: 20 50 (1000)
I0503 19:06:26.640460 21936 net.cpp:159] Memory required for data: 15262960
I0503 19:06:26.640465 21936 layer_factory.hpp:77] Creating layer loss
I0503 19:06:26.640473 21936 net.cpp:94] Creating Layer loss
I0503 19:06:26.640477 21936 net.cpp:435] loss <- ip3
I0503 19:06:26.640481 21936 net.cpp:435] loss <- label
I0503 19:06:26.640487 21936 net.cpp:409] loss -> loss
I0503 19:06:26.640499 21936 layer_factory.hpp:77] Creating layer loss
…
I0503 19:06:26.641028 21936 solver.cpp:181] Creating test net (#0) specified by net file: ./protocol/dis_20_400_dimension.protocol_distribution
I0503 19:06:26.641055 21936 net.cpp:323] The NetState phase (1) differed from the phase (0) specified by a rule in layer parameters
I0503 19:06:26.641150 21936 net.cpp:52] Initializing net from parameters: 
state {
  phase: TEST
}
layer {
  name: "intercept"
  type: "HDF5Data"
  top: "data"
  top: "label"
  include {
    phase: TEST
  }
  hdf5_data_param {
    source: "/home/purduethu/scratch/radon/d/deng106/CNNStatisticalModel/distributions/input/20_distributions_400_sample_size_test-distributions-path.txt"
    batch_size: 20
  }
}
layer {
  name: "conv1"
  type: "Convolution"
  bottom: "data"
  top: "conv1"
  param {
    lr_mult: 1
  }
  param {
    lr_mult: 2
  }
  convolution_param {
    num_output: 64
    pad: 2
    kernel_size: 5
    stride: 1
    weight_filler {
      type: "gaussian"
      std: 0.0001
    }
    bias_filler {
      type: "constant"
    }
  }
}
layer {
  name: "relu1"
  type: "ReLU"
  bottom: "conv1"
  top: "conv1"
}
layer {
  name: "conv2"
  type: "Convolution"
  bottom: "conv1"
  top: "conv2"
  param {
    lr_mult: 1
  }
  param {
    lr_mult: 2
  }
  convolution_param {
    num_output: 64
    pad: 2
    kernel_size: 5
    stride: 1
    weight_filler {
      type: "gaussian"
      std: 0.01
    }
    bias_filler {
      type: "constant"
    }
  }
}
layer {
  name: "relu2"
  type: "ReLU"
  bottom: "conv2"
  top: "conv2"
}
layer {
  name: "pool2"
  type: "Pooling"
  bottom: "conv2"
  top: "pool2"
  pooling_param {
    pool: MAX
    kernel_size: 3
    stride: 2
  }
}
layer {
  name: "conv3"
  type: "Convolution"
  bottom: "pool2"
  top: "conv3"
  param {
    lr_mult: 1
  }
  param {
    lr_mult: 2
  }
  convolution_param {
    num_output: 128
    pad: 2
    kernel_size: 5
    stride: 1
    weight_filler {
      type: "gaussian"
      std: 0.01
    }
    bias_filler {
      type: "constant"
    }
  }
}
layer {
  name: "relu3"
  type: "ReLU"
  bottom: "conv3"
  top: "conv3"
}
layer {
  name: "conv4"
  type: "Convolution"
  bottom: "conv3"
  top: "conv4"
  param {
    lr_mult: 1
  }
  param {
    lr_mult: 2
  }
  convolution_param {
    num_output: 128
    pad: 2
    kernel_size: 5
    stride: 1
    weight_filler {
      type: "gaussian"
      std: 0.01
    }
    bias_filler {
      type: "constant"
    }
  }
}
layer {
  name: "relu4"
  type: "ReLU"
  bottom: "conv4"
  top: "conv4"
}
layer {
  name: "conv5"
  type: "Convolution"
  bottom: "conv4"
  top: "conv5"
  param {
    lr_mult: 1
  }
  param {
    lr_mult: 2
  }
  convolution_param {
    num_output: 128
    pad: 2
    kernel_size: 5
    stride: 1
    weight_filler {
      type: "gaussian"
      std: 0.01
    }
    bias_filler {
      type: "constant"
    }
  }
}
layer {
  name: "relu5"
  type: "ReLU"
  bottom: "conv5"
  top: "conv5"
}
layer {
  name: "pool5"
  type: "Pooling"
  bottom: "conv5"
  top: "pool5"
  pooling_param {
    pool: AVE
    kernel_size: 3
    stride: 2
  }
}
layer {
  name: "ip1"
  type: "InnerProduct"
  bottom: "pool5"
  top: "ip1"
  param {
    lr_mult: 1
  }
  param {
    lr_mult: 2
  }
  inner_product_param {
    num_output: 1024
    weight_filler {
      type: "gaussian"
      std: 0.1
    }
    bias_filler {
      type: "constant"
    }
  }
}
layer {
  name: "ip2"
  type: "InnerProduct"
  bottom: "ip1"
  top: "ip2"
  param {
    lr_mult: 1
  }
  param {
    lr_mult: 2
  }
  inner_product_param {
    num_output: 512
    weight_filler {
      type: "gaussian"
      std: 0.1
    }
    bias_filler {
      type: "constant"
    }
  }
}
layer {
  name: "ip3"
  type: "InnerProduct"
  bottom: "ip2"
  top: "ip3"
  param {
    lr_mult: 1
  }
  param {
    lr_mult: 2
  }
  inner_product_param {
    num_output: 50
    weight_filler {
      type: "gaussian"
      std: 0.1
    }
    bias_filler {
      type: "constant"
    }
  }
}
layer {
  name: "accuracy"
  type: "Accuracy"
  bottom: "ip3"
  bottom: "label"
  top: "accuracy"
  include {
    phase: TEST
  }
}
layer {
  name: "loss"
  type: "SoftmaxWithLoss"
  bottom: "ip3"
  bottom: "label"
  top: "loss"
}
I0503 19:06:26.641222 21936 layer_factory.hpp:77] Creating layer intercept
I0503 19:06:26.641229 21936 net.cpp:94] Creating Layer intercept
I0503 19:06:26.641233 21936 net.cpp:409] intercept -> data
I0503 19:06:26.641240 21936 net.cpp:409] intercept -> label
I0503 19:06:26.641247 21936 hdf5_data_layer.cpp:79] Loading list of HDF5 filenames from: /home/purduethu/scratch/radon/d/deng106/CNNStatisticalModel/distributions/input/20_distributions_400_sample_size_test-distributions-path.txt
I0503 19:06:26.641265 21936 hdf5_data_layer.cpp:93] Number of HDF5 files: 1
I0503 19:06:26.704654 21936 net.cpp:144] Setting up intercept
I0503 19:06:26.704687 21936 net.cpp:151] Top shape: 20 1 20 20 (8000)
I0503 19:06:26.704694 21936 net.cpp:151] Top shape: 20 (20)
I0503 19:06:26.704696 21936 net.cpp:159] Memory required for data: 32080
I0503 19:06:26.704702 21936 layer_factory.hpp:77] Creating layer label_intercept_1_split
I0503 19:06:26.704720 21936 net.cpp:94] Creating Layer label_intercept_1_split
I0503 19:06:26.704725 21936 net.cpp:435] label_intercept_1_split <- label
I0503 19:06:26.704731 21936 net.cpp:409] label_intercept_1_split -> label_intercept_1_split_0
I0503 19:06:26.704741 21936 net.cpp:409] label_intercept_1_split -> label_intercept_1_split_1
I0503 19:06:26.704776 21936 net.cpp:144] Setting up label_intercept_1_split
I0503 19:06:26.704782 21936 net.cpp:151] Top shape: 20 (20)
I0503 19:06:26.704787 21936 net.cpp:151] Top shape: 20 (20)
I0503 19:06:26.704789 21936 net.cpp:159] Memory required for data: 32240
I0503 19:06:26.704792 21936 layer_factory.hpp:77] Creating layer conv1
I0503 19:06:26.704803 21936 net.cpp:94] Creating Layer conv1
I0503 19:06:26.704807 21936 net.cpp:435] conv1 <- data
I0503 19:06:26.704813 21936 net.cpp:409] conv1 -> conv1
I0503 19:06:26.705478 21936 net.cpp:144] Setting up conv1
I0503 19:06:26.705492 21936 net.cpp:151] Top shape: 20 64 20 20 (512000)
I0503 19:06:26.705495 21936 net.cpp:159] Memory required for data: 2080240
I0503 19:06:26.705504 21936 layer_factory.hpp:77] Creating layer relu1
I0503 19:06:26.705512 21936 net.cpp:94] Creating Layer relu1
I0503 19:06:26.705514 21936 net.cpp:435] relu1 <- conv1
I0503 19:06:26.705519 21936 net.cpp:396] relu1 -> conv1 (in-place)
I0503 19:06:26.705526 21936 net.cpp:144] Setting up relu1
I0503 19:06:26.705531 21936 net.cpp:151] Top shape: 20 64 20 20 (512000)
I0503 19:06:26.705534 21936 net.cpp:159] Memory required for data: 4128240
I0503 19:06:26.705538 21936 layer_factory.hpp:77] Creating layer conv2
I0503 19:06:26.705546 21936 net.cpp:94] Creating Layer conv2
I0503 19:06:26.705549 21936 net.cpp:435] conv2 <- conv1
I0503 19:06:26.705554 21936 net.cpp:409] conv2 -> conv2
I0503 19:06:26.710396 21936 net.cpp:144] Setting up conv2
I0503 19:06:26.710409 21936 net.cpp:151] Top shape: 20 64 20 20 (512000)
I0503 19:06:26.710413 21936 net.cpp:159] Memory required for data: 6176240
I0503 19:06:26.710420 21936 layer_factory.hpp:77] Creating layer relu2
I0503 19:06:26.710427 21936 net.cpp:94] Creating Layer relu2
I0503 19:06:26.710430 21936 net.cpp:435] relu2 <- conv2
I0503 19:06:26.710435 21936 net.cpp:396] relu2 -> conv2 (in-place)
I0503 19:06:26.710443 21936 net.cpp:144] Setting up relu2
I0503 19:06:26.710448 21936 net.cpp:151] Top shape: 20 64 20 20 (512000)
I0503 19:06:26.710450 21936 net.cpp:159] Memory required for data: 8224240
I0503 19:06:26.710453 21936 layer_factory.hpp:77] Creating layer pool2
I0503 19:06:26.710459 21936 net.cpp:94] Creating Layer pool2
I0503 19:06:26.710463 21936 net.cpp:435] pool2 <- conv2
I0503 19:06:26.710467 21936 net.cpp:409] pool2 -> pool2
I0503 19:06:26.710500 21936 net.cpp:144] Setting up pool2
I0503 19:06:26.710506 21936 net.cpp:151] Top shape: 20 64 10 10 (128000)
I0503 19:06:26.710510 21936 net.cpp:159] Memory required for data: 8736240
I0503 19:06:26.710512 21936 layer_factory.hpp:77] Creating layer conv3
I0503 19:06:26.710520 21936 net.cpp:94] Creating Layer conv3
I0503 19:06:26.710523 21936 net.cpp:435] conv3 <- pool2
I0503 19:06:26.710528 21936 net.cpp:409] conv3 -> conv3
I0503 19:06:26.718164 21936 net.cpp:144] Setting up conv3
I0503 19:06:26.718179 21936 net.cpp:151] Top shape: 20 128 10 10 (256000)
I0503 19:06:26.718183 21936 net.cpp:159] Memory required for data: 9760240
I0503 19:06:26.718192 21936 layer_factory.hpp:77] Creating layer relu3
I0503 19:06:26.718199 21936 net.cpp:94] Creating Layer relu3
I0503 19:06:26.718202 21936 net.cpp:435] relu3 <- conv3
I0503 19:06:26.718207 21936 net.cpp:396] relu3 -> conv3 (in-place)
I0503 19:06:26.718214 21936 net.cpp:144] Setting up relu3
I0503 19:06:26.718219 21936 net.cpp:151] Top shape: 20 128 10 10 (256000)
I0503 19:06:26.718222 21936 net.cpp:159] Memory required for data: 10784240
I0503 19:06:26.718225 21936 layer_factory.hpp:77] Creating layer conv4
I0503 19:06:26.718233 21936 net.cpp:94] Creating Layer conv4
I0503 19:06:26.718237 21936 net.cpp:435] conv4 <- conv3
I0503 19:06:26.718242 21936 net.cpp:409] conv4 -> conv4
I0503 19:06:26.731441 21936 net.cpp:144] Setting up conv4
I0503 19:06:26.731456 21936 net.cpp:151] Top shape: 20 128 10 10 (256000)
I0503 19:06:26.731461 21936 net.cpp:159] Memory required for data: 11808240
I0503 19:06:26.731467 21936 layer_factory.hpp:77] Creating layer relu4
I0503 19:06:26.731472 21936 net.cpp:94] Creating Layer relu4
I0503 19:06:26.731479 21936 net.cpp:435] relu4 <- conv4
I0503 19:06:26.731485 21936 net.cpp:396] relu4 -> conv4 (in-place)
I0503 19:06:26.731492 21936 net.cpp:144] Setting up relu4
I0503 19:06:26.731498 21936 net.cpp:151] Top shape: 20 128 10 10 (256000)
I0503 19:06:26.731501 21936 net.cpp:159] Memory required for data: 12832240
I0503 19:06:26.731504 21936 layer_factory.hpp:77] Creating layer conv5
I0503 19:06:26.731513 21936 net.cpp:94] Creating Layer conv5
I0503 19:06:26.731515 21936 net.cpp:435] conv5 <- conv4
I0503 19:06:26.731520 21936 net.cpp:409] conv5 -> conv5
I0503 19:06:26.744408 21936 net.cpp:144] Setting up conv5
I0503 19:06:26.744444 21936 net.cpp:151] Top shape: 20 128 10 10 (256000)
I0503 19:06:26.744457 21936 net.cpp:159] Memory required for data: 13856240
I0503 19:06:26.744479 21936 layer_factory.hpp:77] Creating layer relu5
I0503 19:06:26.744495 21936 net.cpp:94] Creating Layer relu5
I0503 19:06:26.744508 21936 net.cpp:435] relu5 <- conv5
I0503 19:06:26.744520 21936 net.cpp:396] relu5 -> conv5 (in-place)
I0503 19:06:26.744540 21936 net.cpp:144] Setting up relu5
I0503 19:06:26.744570 21936 net.cpp:151] Top shape: 20 128 10 10 (256000)
I0503 19:06:26.744582 21936 net.cpp:159] Memory required for data: 14880240
I0503 19:06:26.744592 21936 layer_factory.hpp:77] Creating layer pool5
I0503 19:06:26.744606 21936 net.cpp:94] Creating Layer pool5
I0503 19:06:26.744616 21936 net.cpp:435] pool5 <- conv5
I0503 19:06:26.744628 21936 net.cpp:409] pool5 -> pool5
I0503 19:06:26.744693 21936 net.cpp:144] Setting up pool5
I0503 19:06:26.744710 21936 net.cpp:151] Top shape: 20 128 5 5 (64000)
I0503 19:06:26.744719 21936 net.cpp:159] Memory required for data: 15136240
I0503 19:06:26.744729 21936 layer_factory.hpp:77] Creating layer ip1
I0503 19:06:26.744745 21936 net.cpp:94] Creating Layer ip1
I0503 19:06:26.744755 21936 net.cpp:435] ip1 <- pool5
I0503 19:06:26.744768 21936 net.cpp:409] ip1 -> ip1
I0503 19:06:26.827860 21936 net.cpp:144] Setting up ip1
I0503 19:06:26.827890 21936 net.cpp:151] Top shape: 20 1024 (20480)
I0503 19:06:26.827894 21936 net.cpp:159] Memory required for data: 15218160
I0503 19:06:26.827903 21936 layer_factory.hpp:77] Creating layer ip2
I0503 19:06:26.827911 21936 net.cpp:94] Creating Layer ip2
I0503 19:06:26.827916 21936 net.cpp:435] ip2 <- ip1
I0503 19:06:26.827924 21936 net.cpp:409] ip2 -> ip2
I0503 19:06:26.841549 21936 net.cpp:144] Setting up ip2
I0503 19:06:26.841562 21936 net.cpp:151] Top shape: 20 512 (10240)
I0503 19:06:26.841567 21936 net.cpp:159] Memory required for data: 15259120
I0503 19:06:26.841572 21936 layer_factory.hpp:77] Creating layer ip3
I0503 19:06:26.841580 21936 net.cpp:94] Creating Layer ip3
I0503 19:06:26.841584 21936 net.cpp:435] ip3 <- ip2
I0503 19:06:26.841590 21936 net.cpp:409] ip3 -> ip3
I0503 19:06:26.842299 21936 net.cpp:144] Setting up ip3
I0503 19:06:26.842308 21936 net.cpp:151] Top shape: 20 50 (1000)
I0503 19:06:26.842310 21936 net.cpp:159] Memory required for data: 15263120
I0503 19:06:26.842315 21936 layer_factory.hpp:77] Creating layer ip3_ip3_0_split
I0503 19:06:26.842321 21936 net.cpp:94] Creating Layer ip3_ip3_0_split
I0503 19:06:26.842324 21936 net.cpp:435] ip3_ip3_0_split <- ip3
I0503 19:06:26.842329 21936 net.cpp:409] ip3_ip3_0_split -> ip3_ip3_0_split_0
I0503 19:06:26.842334 21936 net.cpp:409] ip3_ip3_0_split -> ip3_ip3_0_split_1
I0503 19:06:26.842358 21936 net.cpp:144] Setting up ip3_ip3_0_split
I0503 19:06:26.842365 21936 net.cpp:151] Top shape: 20 50 (1000)
I0503 19:06:26.842368 21936 net.cpp:151] Top shape: 20 50 (1000)
I0503 19:06:26.842371 21936 net.cpp:159] Memory required for data: 15271120
I0503 19:06:26.842375 21936 layer_factory.hpp:77] Creating layer accuracy
I0503 19:06:26.842381 21936 net.cpp:94] Creating Layer accuracy
I0503 19:06:26.842383 21936 net.cpp:435] accuracy <- ip3_ip3_0_split_0
I0503 19:06:26.842387 21936 net.cpp:435] accuracy <- label_intercept_1_split_0
I0503 19:06:26.842392 21936 net.cpp:409] accuracy -> accuracy
…
