…
I0503 11:21:24.276329 20347 net.cpp:323] The NetState phase (0) differed from the phase (1) specified by a rule in layer intercept
I0503 11:21:24.276345 20347 net.cpp:323] The NetState phase (0) differed from the phase (1) specified by a rule in layer accuracy
I0503 11:21:24.276437 20347 net.cpp:52] Initializing net from parameters: 
state {
  phase: TRAIN
}
layer {
  name: "parameters"
  type: "HDF5Data"
  top: "data"
  top: "label"
  include {
    phase: TRAIN
  }
  hdf5_data_param {
    source: "/home/purduethu/scratch/radon/d/deng106/CNNStatisticalModel/distributions/input/20_distributions_900_sample_size_train-distributions-path.txt"
    batch_size: 20
  }
}
layer {
  name: "conv1"
  type: "Convolution"
  bottom: "data"
  top: "conv1"
  param {
    lr_mult: 1
  }
  param {
    lr_mult: 2
  }
  convolution_param {
    num_output: 64
    pad: 2
    kernel_size: 5
    stride: 1
    weight_filler {
      type: "gaussian"
      std: 0.0001
    }
    bias_filler {
      type: "constant"
    }
  }
}
layer {
  name: "relu1"
  type: "ReLU"
  bottom: "conv1"
  top: "conv1"
}
layer {
  name: "conv2"
  type: "Convolution"
  bottom: "conv1"
  top: "conv2"
  param {
    lr_mult: 1
  }
  param {
    lr_mult: 2
  }
  convolution_param {
    num_output: 64
    pad: 2
    kernel_size: 5
    stride: 1
    weight_filler {
      type: "gaussian"
      std: 0.01
    }
    bias_filler {
      type: "constant"
    }
  }
}
layer {
  name: "relu2"
  type: "ReLU"
  bottom: "conv2"
  top: "conv2"
}
layer {
  name: "pool2"
  type: "Pooling"
  bottom: "conv2"
  top: "pool2"
  pooling_param {
    pool: MAX
    kernel_size: 3
    stride: 2
  }
}
layer {
  name: "conv3"
  type: "Convolution"
  bottom: "pool2"
  top: "conv3"
  param {
    lr_mult: 1
  }
  param {
    lr_mult: 2
  }
  convolution_param {
    num_output: 128
    pad: 2
    kernel_size: 5
    stride: 1
    weight_filler {
      type: "gaussian"
      std: 0.01
    }
    bias_filler {
      type: "constant"
    }
  }
}
layer {
  name: "relu3"
  type: "ReLU"
  bottom: "conv3"
  top: "conv3"
}
layer {
  name: "conv4"
  type: "Convolution"
  bottom: "conv3"
  top: "conv4"
  param {
    lr_mult: 1
  }
  param {
    lr_mult: 2
  }
  convolution_param {
    num_output: 128
    pad: 2
    kernel_size: 5
    stride: 1
    weight_filler {
      type: "gaussian"
      std: 0.01
    }
    bias_filler {
      type: "constant"
    }
  }
}
layer {
  name: "relu4"
  type: "ReLU"
  bottom: "conv4"
  top: "conv4"
}
layer {
  name: "conv5"
  type: "Convolution"
  bottom: "conv4"
  top: "conv5"
  param {
    lr_mult: 1
  }
  param {
    lr_mult: 2
  }
  convolution_param {
    num_output: 128
    pad: 2
    kernel_size: 5
    stride: 1
    weight_filler {
      type: "gaussian"
      std: 0.01
    }
    bias_filler {
      type: "constant"
    }
  }
}
layer {
  name: "relu5"
  type: "ReLU"
  bottom: "conv5"
  top: "conv5"
}
layer {
  name: "pool5"
  type: "Pooling"
  bottom: "conv5"
  top: "pool5"
  pooling_param {
    pool: AVE
    kernel_size: 3
    stride: 2
  }
}
layer {
  name: "ip1"
  type: "InnerProduct"
  bottom: "pool5"
  top: "ip1"
  param {
    lr_mult: 1
  }
  param {
    lr_mult: 2
  }
  inner_product_param {
    num_output: 1024
    weight_filler {
      type: "gaussian"
      std: 0.1
    }
    bias_filler {
      type: "constant"
    }
  }
}
layer {
  name: "ip2"
  type: "InnerProduct"
  bottom: "ip1"
  top: "ip2"
  param {
    lr_mult: 1
  }
  param {
    lr_mult: 2
  }
  inner_product_param {
    num_output: 512
    weight_filler {
      type: "gaussian"
      std: 0.1
    }
    bias_filler {
      type: "constant"
    }
  }
}
layer {
  name: "ip3"
  type: "InnerProduct"
  bottom: "ip2"
  top: "ip3"
  param {
    lr_mult: 1
  }
  param {
    lr_mult: 2
  }
  inner_product_param {
    num_output: 50
    weight_filler {
      type: "gaussian"
      std: 0.1
    }
    bias_filler {
      type: "constant"
    }
  }
}
layer {
  name: "loss"
  type: "SoftmaxWithLoss"
  bottom: "ip3"
  bottom: "label"
  top: "loss"
}
I0503 11:21:24.276515 20347 layer_factory.hpp:77] Creating layer parameters
I0503 11:21:24.276530 20347 net.cpp:94] Creating Layer parameters
I0503 11:21:24.276536 20347 net.cpp:409] parameters -> data
I0503 11:21:24.276568 20347 net.cpp:409] parameters -> label
I0503 11:21:24.276581 20347 hdf5_data_layer.cpp:79] Loading list of HDF5 filenames from: /home/purduethu/scratch/radon/d/deng106/CNNStatisticalModel/distributions/input/20_distributions_900_sample_size_train-distributions-path.txt
I0503 11:21:24.276604 20347 hdf5_data_layer.cpp:93] Number of HDF5 files: 1
I0503 11:21:24.277205 20347 hdf5.cpp:32] Datatype class: H5T_FLOAT
I0503 11:21:24.851873 20347 hdf5.cpp:35] Datatype class: H5T_INTEGER
I0503 11:21:24.853633 20347 net.cpp:144] Setting up parameters
I0503 11:21:24.853653 20347 net.cpp:151] Top shape: 20 1 30 30 (18000)
I0503 11:21:24.853659 20347 net.cpp:151] Top shape: 20 (20)
I0503 11:21:24.853663 20347 net.cpp:159] Memory required for data: 72080
I0503 11:21:24.853672 20347 layer_factory.hpp:77] Creating layer conv1
I0503 11:21:24.853689 20347 net.cpp:94] Creating Layer conv1
I0503 11:21:24.853694 20347 net.cpp:435] conv1 <- data
I0503 11:21:24.853705 20347 net.cpp:409] conv1 -> conv1
I0503 11:21:24.859557 20347 net.cpp:144] Setting up conv1
I0503 11:21:24.859573 20347 net.cpp:151] Top shape: 20 64 30 30 (1152000)
I0503 11:21:24.859577 20347 net.cpp:159] Memory required for data: 4680080
I0503 11:21:24.859589 20347 layer_factory.hpp:77] Creating layer relu1
I0503 11:21:24.859598 20347 net.cpp:94] Creating Layer relu1
I0503 11:21:24.859602 20347 net.cpp:435] relu1 <- conv1
I0503 11:21:24.859606 20347 net.cpp:396] relu1 -> conv1 (in-place)
I0503 11:21:24.859623 20347 net.cpp:144] Setting up relu1
I0503 11:21:24.859628 20347 net.cpp:151] Top shape: 20 64 30 30 (1152000)
I0503 11:21:24.859632 20347 net.cpp:159] Memory required for data: 9288080
I0503 11:21:24.859635 20347 layer_factory.hpp:77] Creating layer conv2
I0503 11:21:24.859642 20347 net.cpp:94] Creating Layer conv2
I0503 11:21:24.859647 20347 net.cpp:435] conv2 <- conv1
I0503 11:21:24.859650 20347 net.cpp:409] conv2 -> conv2
I0503 11:21:24.874660 20347 net.cpp:144] Setting up conv2
I0503 11:21:24.874675 20347 net.cpp:151] Top shape: 20 64 30 30 (1152000)
I0503 11:21:24.874680 20347 net.cpp:159] Memory required for data: 13896080
I0503 11:21:24.874688 20347 layer_factory.hpp:77] Creating layer relu2
I0503 11:21:24.874694 20347 net.cpp:94] Creating Layer relu2
I0503 11:21:24.874698 20347 net.cpp:435] relu2 <- conv2
I0503 11:21:24.874703 20347 net.cpp:396] relu2 -> conv2 (in-place)
I0503 11:21:24.874711 20347 net.cpp:144] Setting up relu2
I0503 11:21:24.874716 20347 net.cpp:151] Top shape: 20 64 30 30 (1152000)
I0503 11:21:24.874718 20347 net.cpp:159] Memory required for data: 18504080
I0503 11:21:24.874722 20347 layer_factory.hpp:77] Creating layer pool2
I0503 11:21:24.874735 20347 net.cpp:94] Creating Layer pool2
I0503 11:21:24.874739 20347 net.cpp:435] pool2 <- conv2
I0503 11:21:24.874744 20347 net.cpp:409] pool2 -> pool2
I0503 11:21:24.874789 20347 net.cpp:144] Setting up pool2
I0503 11:21:24.874797 20347 net.cpp:151] Top shape: 20 64 15 15 (288000)
I0503 11:21:24.874800 20347 net.cpp:159] Memory required for data: 19656080
I0503 11:21:24.874804 20347 layer_factory.hpp:77] Creating layer conv3
I0503 11:21:24.874811 20347 net.cpp:94] Creating Layer conv3
I0503 11:21:24.874815 20347 net.cpp:435] conv3 <- pool2
I0503 11:21:24.874827 20347 net.cpp:409] conv3 -> conv3
I0503 11:21:24.889420 20347 net.cpp:144] Setting up conv3
I0503 11:21:24.889436 20347 net.cpp:151] Top shape: 20 128 15 15 (576000)
I0503 11:21:24.889441 20347 net.cpp:159] Memory required for data: 21960080
I0503 11:21:24.889448 20347 layer_factory.hpp:77] Creating layer relu3
I0503 11:21:24.889454 20347 net.cpp:94] Creating Layer relu3
I0503 11:21:24.889458 20347 net.cpp:435] relu3 <- conv3
I0503 11:21:24.889463 20347 net.cpp:396] relu3 -> conv3 (in-place)
I0503 11:21:24.889470 20347 net.cpp:144] Setting up relu3
I0503 11:21:24.889475 20347 net.cpp:151] Top shape: 20 128 15 15 (576000)
I0503 11:21:24.889478 20347 net.cpp:159] Memory required for data: 24264080
I0503 11:21:24.889482 20347 layer_factory.hpp:77] Creating layer conv4
I0503 11:21:24.889490 20347 net.cpp:94] Creating Layer conv4
I0503 11:21:24.889493 20347 net.cpp:435] conv4 <- conv3
I0503 11:21:24.889498 20347 net.cpp:409] conv4 -> conv4
I0503 11:21:24.913035 20347 net.cpp:144] Setting up conv4
I0503 11:21:24.913051 20347 net.cpp:151] Top shape: 20 128 15 15 (576000)
I0503 11:21:24.913055 20347 net.cpp:159] Memory required for data: 26568080
I0503 11:21:24.913063 20347 layer_factory.hpp:77] Creating layer relu4
I0503 11:21:24.913069 20347 net.cpp:94] Creating Layer relu4
I0503 11:21:24.913072 20347 net.cpp:435] relu4 <- conv4
I0503 11:21:24.913076 20347 net.cpp:396] relu4 -> conv4 (in-place)
I0503 11:21:24.913084 20347 net.cpp:144] Setting up relu4
I0503 11:21:24.913089 20347 net.cpp:151] Top shape: 20 128 15 15 (576000)
I0503 11:21:24.913091 20347 net.cpp:159] Memory required for data: 28872080
I0503 11:21:24.913094 20347 layer_factory.hpp:77] Creating layer conv5
I0503 11:21:24.913103 20347 net.cpp:94] Creating Layer conv5
I0503 11:21:24.913106 20347 net.cpp:435] conv5 <- conv4
I0503 11:21:24.913111 20347 net.cpp:409] conv5 -> conv5
I0503 11:21:24.934552 20347 net.cpp:144] Setting up conv5
I0503 11:21:24.934567 20347 net.cpp:151] Top shape: 20 128 15 15 (576000)
I0503 11:21:24.934572 20347 net.cpp:159] Memory required for data: 31176080
I0503 11:21:24.934581 20347 layer_factory.hpp:77] Creating layer relu5
I0503 11:21:24.934587 20347 net.cpp:94] Creating Layer relu5
I0503 11:21:24.934592 20347 net.cpp:435] relu5 <- conv5
I0503 11:21:24.934595 20347 net.cpp:396] relu5 -> conv5 (in-place)
I0503 11:21:24.934603 20347 net.cpp:144] Setting up relu5
I0503 11:21:24.934608 20347 net.cpp:151] Top shape: 20 128 15 15 (576000)
I0503 11:21:24.934612 20347 net.cpp:159] Memory required for data: 33480080
I0503 11:21:24.934614 20347 layer_factory.hpp:77] Creating layer pool5
I0503 11:21:24.934619 20347 net.cpp:94] Creating Layer pool5
I0503 11:21:24.934623 20347 net.cpp:435] pool5 <- conv5
I0503 11:21:24.934628 20347 net.cpp:409] pool5 -> pool5
I0503 11:21:24.934664 20347 net.cpp:144] Setting up pool5
I0503 11:21:24.934670 20347 net.cpp:151] Top shape: 20 128 7 7 (125440)
I0503 11:21:24.934674 20347 net.cpp:159] Memory required for data: 33981840
I0503 11:21:24.934677 20347 layer_factory.hpp:77] Creating layer ip1
I0503 11:21:24.934687 20347 net.cpp:94] Creating Layer ip1
I0503 11:21:24.934690 20347 net.cpp:435] ip1 <- pool5
I0503 11:21:24.934695 20347 net.cpp:409] ip1 -> ip1
I0503 11:21:25.089793 20347 net.cpp:144] Setting up ip1
I0503 11:21:25.089834 20347 net.cpp:151] Top shape: 20 1024 (20480)
I0503 11:21:25.090001 20347 net.cpp:159] Memory required for data: 34063760
I0503 11:21:25.090023 20347 layer_factory.hpp:77] Creating layer ip2
I0503 11:21:25.090047 20347 net.cpp:94] Creating Layer ip2
I0503 11:21:25.090057 20347 net.cpp:435] ip2 <- ip1
I0503 11:21:25.090066 20347 net.cpp:409] ip2 -> ip2
I0503 11:21:25.103142 20347 net.cpp:144] Setting up ip2
I0503 11:21:25.103157 20347 net.cpp:151] Top shape: 20 512 (10240)
I0503 11:21:25.103160 20347 net.cpp:159] Memory required for data: 34104720
I0503 11:21:25.103166 20347 layer_factory.hpp:77] Creating layer ip3
I0503 11:21:25.103173 20347 net.cpp:94] Creating Layer ip3
I0503 11:21:25.103176 20347 net.cpp:435] ip3 <- ip2
I0503 11:21:25.103181 20347 net.cpp:409] ip3 -> ip3
I0503 11:21:25.104477 20347 net.cpp:144] Setting up ip3
I0503 11:21:25.104490 20347 net.cpp:151] Top shape: 20 50 (1000)
I0503 11:21:25.104493 20347 net.cpp:159] Memory required for data: 34108720
I0503 11:21:25.104499 20347 layer_factory.hpp:77] Creating layer loss
I0503 11:21:25.104507 20347 net.cpp:94] Creating Layer loss
I0503 11:21:25.104511 20347 net.cpp:435] loss <- ip3
I0503 11:21:25.104516 20347 net.cpp:435] loss <- label
I0503 11:21:25.104521 20347 net.cpp:409] loss -> loss
I0503 11:21:25.104533 20347 layer_factory.hpp:77] Creating layer loss
…
I0503 11:21:25.105064 20347 solver.cpp:181] Creating test net (#0) specified by net file: ./protocol/dis_20_900_dimension.protocol_distribution
I0503 11:21:25.105092 20347 net.cpp:323] The NetState phase (1) differed from the phase (0) specified by a rule in layer parameters
I0503 11:21:25.105185 20347 net.cpp:52] Initializing net from parameters: 
state {
  phase: TEST
}
layer {
  name: "intercept"
  type: "HDF5Data"
  top: "data"
  top: "label"
  include {
    phase: TEST
  }
  hdf5_data_param {
    source: "/home/purduethu/scratch/radon/d/deng106/CNNStatisticalModel/distributions/input/20_distributions_900_sample_size_test-distributions-path.txt"
    batch_size: 20
  }
}
layer {
  name: "conv1"
  type: "Convolution"
  bottom: "data"
  top: "conv1"
  param {
    lr_mult: 1
  }
  param {
    lr_mult: 2
  }
  convolution_param {
    num_output: 64
    pad: 2
    kernel_size: 5
    stride: 1
    weight_filler {
      type: "gaussian"
      std: 0.0001
    }
    bias_filler {
      type: "constant"
    }
  }
}
layer {
  name: "relu1"
  type: "ReLU"
  bottom: "conv1"
  top: "conv1"
}
layer {
  name: "conv2"
  type: "Convolution"
  bottom: "conv1"
  top: "conv2"
  param {
    lr_mult: 1
  }
  param {
    lr_mult: 2
  }
  convolution_param {
    num_output: 64
    pad: 2
    kernel_size: 5
    stride: 1
    weight_filler {
      type: "gaussian"
      std: 0.01
    }
    bias_filler {
      type: "constant"
    }
  }
}
layer {
  name: "relu2"
  type: "ReLU"
  bottom: "conv2"
  top: "conv2"
}
layer {
  name: "pool2"
  type: "Pooling"
  bottom: "conv2"
  top: "pool2"
  pooling_param {
    pool: MAX
    kernel_size: 3
    stride: 2
  }
}
layer {
  name: "conv3"
  type: "Convolution"
  bottom: "pool2"
  top: "conv3"
  param {
    lr_mult: 1
  }
  param {
    lr_mult: 2
  }
  convolution_param {
    num_output: 128
    pad: 2
    kernel_size: 5
    stride: 1
    weight_filler {
      type: "gaussian"
      std: 0.01
    }
    bias_filler {
      type: "constant"
    }
  }
}
layer {
  name: "relu3"
  type: "ReLU"
  bottom: "conv3"
  top: "conv3"
}
layer {
  name: "conv4"
  type: "Convolution"
  bottom: "conv3"
  top: "conv4"
  param {
    lr_mult: 1
  }
  param {
    lr_mult: 2
  }
  convolution_param {
    num_output: 128
    pad: 2
    kernel_size: 5
    stride: 1
    weight_filler {
      type: "gaussian"
      std: 0.01
    }
    bias_filler {
      type: "constant"
    }
  }
}
layer {
  name: "relu4"
  type: "ReLU"
  bottom: "conv4"
  top: "conv4"
}
layer {
  name: "conv5"
  type: "Convolution"
  bottom: "conv4"
  top: "conv5"
  param {
    lr_mult: 1
  }
  param {
    lr_mult: 2
  }
  convolution_param {
    num_output: 128
    pad: 2
    kernel_size: 5
    stride: 1
    weight_filler {
      type: "gaussian"
      std: 0.01
    }
    bias_filler {
      type: "constant"
    }
  }
}
layer {
  name: "relu5"
  type: "ReLU"
  bottom: "conv5"
  top: "conv5"
}
layer {
  name: "pool5"
  type: "Pooling"
  bottom: "conv5"
  top: "pool5"
  pooling_param {
    pool: AVE
    kernel_size: 3
    stride: 2
  }
}
layer {
  name: "ip1"
  type: "InnerProduct"
  bottom: "pool5"
  top: "ip1"
  param {
    lr_mult: 1
  }
  param {
    lr_mult: 2
  }
  inner_product_param {
    num_output: 1024
    weight_filler {
      type: "gaussian"
      std: 0.1
    }
    bias_filler {
      type: "constant"
    }
  }
}
layer {
  name: "ip2"
  type: "InnerProduct"
  bottom: "ip1"
  top: "ip2"
  param {
    lr_mult: 1
  }
  param {
    lr_mult: 2
  }
  inner_product_param {
    num_output: 512
    weight_filler {
      type: "gaussian"
      std: 0.1
    }
    bias_filler {
      type: "constant"
    }
  }
}
layer {
  name: "ip3"
  type: "InnerProduct"
  bottom: "ip2"
  top: "ip3"
  param {
    lr_mult: 1
  }
  param {
    lr_mult: 2
  }
  inner_product_param {
    num_output: 50
    weight_filler {
      type: "gaussian"
      std: 0.1
    }
    bias_filler {
      type: "constant"
    }
  }
}
layer {
  name: "accuracy"
  type: "Accuracy"
  bottom: "ip3"
  bottom: "label"
  top: "accuracy"
  include {
    phase: TEST
  }
}
layer {
  name: "loss"
  type: "SoftmaxWithLoss"
  bottom: "ip3"
  bottom: "label"
  top: "loss"
}
I0503 11:21:25.105255 20347 layer_factory.hpp:77] Creating layer intercept
I0503 11:21:25.105264 20347 net.cpp:94] Creating Layer intercept
I0503 11:21:25.105268 20347 net.cpp:409] intercept -> data
I0503 11:21:25.105275 20347 net.cpp:409] intercept -> label
I0503 11:21:25.105281 20347 hdf5_data_layer.cpp:79] Loading list of HDF5 filenames from: /home/purduethu/scratch/radon/d/deng106/CNNStatisticalModel/distributions/input/20_distributions_900_sample_size_test-distributions-path.txt
I0503 11:21:25.105300 20347 hdf5_data_layer.cpp:93] Number of HDF5 files: 1
I0503 11:21:25.245419 20347 net.cpp:144] Setting up intercept
I0503 11:21:25.245453 20347 net.cpp:151] Top shape: 20 1 30 30 (18000)
I0503 11:21:25.245460 20347 net.cpp:151] Top shape: 20 (20)
I0503 11:21:25.245462 20347 net.cpp:159] Memory required for data: 72080
I0503 11:21:25.245468 20347 layer_factory.hpp:77] Creating layer label_intercept_1_split
I0503 11:21:25.245487 20347 net.cpp:94] Creating Layer label_intercept_1_split
I0503 11:21:25.245492 20347 net.cpp:435] label_intercept_1_split <- label
I0503 11:21:25.245498 20347 net.cpp:409] label_intercept_1_split -> label_intercept_1_split_0
I0503 11:21:25.245515 20347 net.cpp:409] label_intercept_1_split -> label_intercept_1_split_1
I0503 11:21:25.245543 20347 net.cpp:144] Setting up label_intercept_1_split
I0503 11:21:25.245549 20347 net.cpp:151] Top shape: 20 (20)
I0503 11:21:25.245553 20347 net.cpp:151] Top shape: 20 (20)
I0503 11:21:25.245556 20347 net.cpp:159] Memory required for data: 72240
I0503 11:21:25.245559 20347 layer_factory.hpp:77] Creating layer conv1
I0503 11:21:25.245571 20347 net.cpp:94] Creating Layer conv1
I0503 11:21:25.245574 20347 net.cpp:435] conv1 <- data
I0503 11:21:25.245579 20347 net.cpp:409] conv1 -> conv1
I0503 11:21:25.246887 20347 net.cpp:144] Setting up conv1
I0503 11:21:25.246901 20347 net.cpp:151] Top shape: 20 64 30 30 (1152000)
I0503 11:21:25.246906 20347 net.cpp:159] Memory required for data: 4680240
I0503 11:21:25.246914 20347 layer_factory.hpp:77] Creating layer relu1
I0503 11:21:25.246922 20347 net.cpp:94] Creating Layer relu1
I0503 11:21:25.246925 20347 net.cpp:435] relu1 <- conv1
I0503 11:21:25.246929 20347 net.cpp:396] relu1 -> conv1 (in-place)
I0503 11:21:25.246937 20347 net.cpp:144] Setting up relu1
I0503 11:21:25.246942 20347 net.cpp:151] Top shape: 20 64 30 30 (1152000)
I0503 11:21:25.246945 20347 net.cpp:159] Memory required for data: 9288240
I0503 11:21:25.246948 20347 layer_factory.hpp:77] Creating layer conv2
I0503 11:21:25.246956 20347 net.cpp:94] Creating Layer conv2
I0503 11:21:25.246960 20347 net.cpp:435] conv2 <- conv1
I0503 11:21:25.246965 20347 net.cpp:409] conv2 -> conv2
I0503 11:21:25.253273 20347 net.cpp:144] Setting up conv2
I0503 11:21:25.253288 20347 net.cpp:151] Top shape: 20 64 30 30 (1152000)
I0503 11:21:25.253293 20347 net.cpp:159] Memory required for data: 13896240
I0503 11:21:25.253300 20347 layer_factory.hpp:77] Creating layer relu2
I0503 11:21:25.253307 20347 net.cpp:94] Creating Layer relu2
I0503 11:21:25.253311 20347 net.cpp:435] relu2 <- conv2
I0503 11:21:25.253315 20347 net.cpp:396] relu2 -> conv2 (in-place)
I0503 11:21:25.253324 20347 net.cpp:144] Setting up relu2
I0503 11:21:25.253327 20347 net.cpp:151] Top shape: 20 64 30 30 (1152000)
I0503 11:21:25.253330 20347 net.cpp:159] Memory required for data: 18504240
I0503 11:21:25.253334 20347 layer_factory.hpp:77] Creating layer pool2
I0503 11:21:25.253340 20347 net.cpp:94] Creating Layer pool2
I0503 11:21:25.253342 20347 net.cpp:435] pool2 <- conv2
I0503 11:21:25.253347 20347 net.cpp:409] pool2 -> pool2
I0503 11:21:25.253383 20347 net.cpp:144] Setting up pool2
I0503 11:21:25.253389 20347 net.cpp:151] Top shape: 20 64 15 15 (288000)
I0503 11:21:25.253393 20347 net.cpp:159] Memory required for data: 19656240
I0503 11:21:25.253396 20347 layer_factory.hpp:77] Creating layer conv3
I0503 11:21:25.253404 20347 net.cpp:94] Creating Layer conv3
I0503 11:21:25.253407 20347 net.cpp:435] conv3 <- pool2
I0503 11:21:25.253412 20347 net.cpp:409] conv3 -> conv3
I0503 11:21:25.261370 20347 net.cpp:144] Setting up conv3
I0503 11:21:25.261385 20347 net.cpp:151] Top shape: 20 128 15 15 (576000)
I0503 11:21:25.261390 20347 net.cpp:159] Memory required for data: 21960240
I0503 11:21:25.261399 20347 layer_factory.hpp:77] Creating layer relu3
I0503 11:21:25.261405 20347 net.cpp:94] Creating Layer relu3
I0503 11:21:25.261409 20347 net.cpp:435] relu3 <- conv3
I0503 11:21:25.261414 20347 net.cpp:396] relu3 -> conv3 (in-place)
I0503 11:21:25.261420 20347 net.cpp:144] Setting up relu3
I0503 11:21:25.261425 20347 net.cpp:151] Top shape: 20 128 15 15 (576000)
I0503 11:21:25.261428 20347 net.cpp:159] Memory required for data: 24264240
I0503 11:21:25.261431 20347 layer_factory.hpp:77] Creating layer conv4
I0503 11:21:25.261440 20347 net.cpp:94] Creating Layer conv4
I0503 11:21:25.261442 20347 net.cpp:435] conv4 <- conv3
I0503 11:21:25.261447 20347 net.cpp:409] conv4 -> conv4
I0503 11:21:25.278035 20347 net.cpp:144] Setting up conv4
I0503 11:21:25.278051 20347 net.cpp:151] Top shape: 20 128 15 15 (576000)
I0503 11:21:25.278055 20347 net.cpp:159] Memory required for data: 26568240
I0503 11:21:25.278061 20347 layer_factory.hpp:77] Creating layer relu4
I0503 11:21:25.278067 20347 net.cpp:94] Creating Layer relu4
I0503 11:21:25.278075 20347 net.cpp:435] relu4 <- conv4
I0503 11:21:25.278080 20347 net.cpp:396] relu4 -> conv4 (in-place)
I0503 11:21:25.278087 20347 net.cpp:144] Setting up relu4
I0503 11:21:25.278092 20347 net.cpp:151] Top shape: 20 128 15 15 (576000)
I0503 11:21:25.278095 20347 net.cpp:159] Memory required for data: 28872240
I0503 11:21:25.278100 20347 layer_factory.hpp:77] Creating layer conv5
I0503 11:21:25.278107 20347 net.cpp:94] Creating Layer conv5
I0503 11:21:25.278110 20347 net.cpp:435] conv5 <- conv4
I0503 11:21:25.278115 20347 net.cpp:409] conv5 -> conv5
I0503 11:21:25.292649 20347 net.cpp:144] Setting up conv5
I0503 11:21:25.292665 20347 net.cpp:151] Top shape: 20 128 15 15 (576000)
I0503 11:21:25.292670 20347 net.cpp:159] Memory required for data: 31176240
I0503 11:21:25.292678 20347 layer_factory.hpp:77] Creating layer relu5
I0503 11:21:25.292685 20347 net.cpp:94] Creating Layer relu5
I0503 11:21:25.292687 20347 net.cpp:435] relu5 <- conv5
I0503 11:21:25.292692 20347 net.cpp:396] relu5 -> conv5 (in-place)
I0503 11:21:25.292699 20347 net.cpp:144] Setting up relu5
I0503 11:21:25.292704 20347 net.cpp:151] Top shape: 20 128 15 15 (576000)
I0503 11:21:25.292707 20347 net.cpp:159] Memory required for data: 33480240
I0503 11:21:25.292711 20347 layer_factory.hpp:77] Creating layer pool5
I0503 11:21:25.292716 20347 net.cpp:94] Creating Layer pool5
I0503 11:21:25.292718 20347 net.cpp:435] pool5 <- conv5
I0503 11:21:25.292722 20347 net.cpp:409] pool5 -> pool5
I0503 11:21:25.292749 20347 net.cpp:144] Setting up pool5
I0503 11:21:25.292757 20347 net.cpp:151] Top shape: 20 128 7 7 (125440)
I0503 11:21:25.292759 20347 net.cpp:159] Memory required for data: 33982000
I0503 11:21:25.292762 20347 layer_factory.hpp:77] Creating layer ip1
I0503 11:21:25.292768 20347 net.cpp:94] Creating Layer ip1
I0503 11:21:25.292771 20347 net.cpp:435] ip1 <- pool5
I0503 11:21:25.292776 20347 net.cpp:409] ip1 -> ip1
I0503 11:21:25.447876 20347 net.cpp:144] Setting up ip1
I0503 11:21:25.447912 20347 net.cpp:151] Top shape: 20 1024 (20480)
I0503 11:21:25.447916 20347 net.cpp:159] Memory required for data: 34063920
I0503 11:21:25.447924 20347 layer_factory.hpp:77] Creating layer ip2
I0503 11:21:25.447935 20347 net.cpp:94] Creating Layer ip2
I0503 11:21:25.447939 20347 net.cpp:435] ip2 <- ip1
I0503 11:21:25.447947 20347 net.cpp:409] ip2 -> ip2
I0503 11:21:25.460965 20347 net.cpp:144] Setting up ip2
I0503 11:21:25.460978 20347 net.cpp:151] Top shape: 20 512 (10240)
I0503 11:21:25.460983 20347 net.cpp:159] Memory required for data: 34104880
I0503 11:21:25.460988 20347 layer_factory.hpp:77] Creating layer ip3
I0503 11:21:25.460997 20347 net.cpp:94] Creating Layer ip3
I0503 11:21:25.461000 20347 net.cpp:435] ip3 <- ip2
I0503 11:21:25.461006 20347 net.cpp:409] ip3 -> ip3
I0503 11:21:25.461685 20347 net.cpp:144] Setting up ip3
I0503 11:21:25.461694 20347 net.cpp:151] Top shape: 20 50 (1000)
I0503 11:21:25.461696 20347 net.cpp:159] Memory required for data: 34108880
I0503 11:21:25.461701 20347 layer_factory.hpp:77] Creating layer ip3_ip3_0_split
I0503 11:21:25.461707 20347 net.cpp:94] Creating Layer ip3_ip3_0_split
I0503 11:21:25.461710 20347 net.cpp:435] ip3_ip3_0_split <- ip3
I0503 11:21:25.461714 20347 net.cpp:409] ip3_ip3_0_split -> ip3_ip3_0_split_0
I0503 11:21:25.461719 20347 net.cpp:409] ip3_ip3_0_split -> ip3_ip3_0_split_1
I0503 11:21:25.461745 20347 net.cpp:144] Setting up ip3_ip3_0_split
I0503 11:21:25.461750 20347 net.cpp:151] Top shape: 20 50 (1000)
I0503 11:21:25.461755 20347 net.cpp:151] Top shape: 20 50 (1000)
I0503 11:21:25.461757 20347 net.cpp:159] Memory required for data: 34116880
I0503 11:21:25.461760 20347 layer_factory.hpp:77] Creating layer accuracy
I0503 11:21:25.461766 20347 net.cpp:94] Creating Layer accuracy
I0503 11:21:25.461771 20347 net.cpp:435] accuracy <- ip3_ip3_0_split_0
I0503 11:21:25.461774 20347 net.cpp:435] accuracy <- label_intercept_1_split_0
I0503 11:21:25.461778 20347 net.cpp:409] accuracy -> accuracy
…
