…
I0505 03:01:03.668540  2847 net.cpp:323] The NetState phase (0) differed from the phase (1) specified by a rule in layer intercept
I0505 03:01:03.668565  2847 net.cpp:323] The NetState phase (0) differed from the phase (1) specified by a rule in layer loss
I0505 03:01:03.668650  2847 net.cpp:52] Initializing net from parameters: 
state {
  phase: TRAIN
}
layer {
  name: "parameters"
  type: "HDF5Data"
  top: "data"
  top: "label"
  include {
    phase: TRAIN
  }
  hdf5_data_param {
    source: "/home/purduethu/scratch/radon/d/deng106/CNNStatisticalModel/distributions/input/50_distributions_400_sample_size_train-parameters-path.txt"
    batch_size: 20
  }
}
layer {
  name: "conv1"
  type: "Convolution"
  bottom: "data"
  top: "conv1"
  param {
    lr_mult: 1
  }
  param {
    lr_mult: 2
  }
  convolution_param {
    num_output: 64
    pad: 2
    kernel_size: 5
    stride: 1
    weight_filler {
      type: "gaussian"
      std: 0.0001
    }
    bias_filler {
      type: "constant"
    }
  }
}
layer {
  name: "relu1"
  type: "ReLU"
  bottom: "conv1"
  top: "conv1"
}
layer {
  name: "pool1"
  type: "Pooling"
  bottom: "conv1"
  top: "pool1"
  pooling_param {
    pool: MAX
    kernel_size: 3
    stride: 2
  }
}
layer {
  name: "conv2"
  type: "Convolution"
  bottom: "pool1"
  top: "conv2"
  param {
    lr_mult: 1
  }
  param {
    lr_mult: 2
  }
  convolution_param {
    num_output: 128
    pad: 2
    kernel_size: 5
    stride: 1
    weight_filler {
      type: "gaussian"
      std: 0.01
    }
    bias_filler {
      type: "constant"
    }
  }
}
layer {
  name: "relu2"
  type: "ReLU"
  bottom: "conv2"
  top: "conv2"
}
layer {
  name: "conv3"
  type: "Convolution"
  bottom: "conv2"
  top: "conv3"
  param {
    lr_mult: 1
  }
  param {
    lr_mult: 2
  }
  convolution_param {
    num_output: 128
    pad: 2
    kernel_size: 5
    stride: 1
    weight_filler {
      type: "gaussian"
      std: 0.01
    }
    bias_filler {
      type: "constant"
    }
  }
}
layer {
  name: "relu3"
  type: "ReLU"
  bottom: "conv3"
  top: "conv3"
}
layer {
  name: "pool3"
  type: "Pooling"
  bottom: "conv3"
  top: "pool3"
  pooling_param {
    pool: AVE
    kernel_size: 3
    stride: 2
  }
}
layer {
  name: "ip1"
  type: "InnerProduct"
  bottom: "pool3"
  top: "ip1"
  param {
    lr_mult: 1
  }
  param {
    lr_mult: 2
  }
  inner_product_param {
    num_output: 512
    weight_filler {
      type: "gaussian"
      std: 0.1
    }
    bias_filler {
      type: "constant"
    }
  }
}
layer {
  name: "ip2"
  type: "InnerProduct"
  bottom: "ip1"
  top: "ip2"
  param {
    lr_mult: 1
  }
  param {
    lr_mult: 2
  }
  inner_product_param {
    num_output: 256
    weight_filler {
      type: "gaussian"
      std: 0.1
    }
    bias_filler {
      type: "constant"
    }
  }
}
layer {
  name: "ip3"
  type: "InnerProduct"
  bottom: "ip2"
  top: "ip3"
  param {
    lr_mult: 1
  }
  param {
    lr_mult: 2
  }
  inner_product_param {
    num_output: 1
    weight_filler {
      type: "gaussian"
      std: 0.1
    }
    bias_filler {
      type: "constant"
    }
  }
}
layer {
  name: "loss"
  type: "HuberLoss"
  bottom: "ip3"
  bottom: "label"
  top: "loss"
  include {
    phase: TRAIN
  }
}
I0505 03:01:03.668715  2847 layer_factory.hpp:77] Creating layer parameters
I0505 03:01:03.668731  2847 net.cpp:94] Creating Layer parameters
I0505 03:01:03.668745  2847 net.cpp:409] parameters -> data
I0505 03:01:03.668766  2847 net.cpp:409] parameters -> label
I0505 03:01:03.668776  2847 hdf5_data_layer.cpp:79] Loading list of HDF5 filenames from: /home/purduethu/scratch/radon/d/deng106/CNNStatisticalModel/distributions/input/50_distributions_400_sample_size_train-parameters-path.txt
I0505 03:01:03.668799  2847 hdf5_data_layer.cpp:93] Number of HDF5 files: 1
I0505 03:01:03.669435  2847 hdf5.cpp:32] Datatype class: H5T_FLOAT
I0505 03:01:04.302232  2847 net.cpp:144] Setting up parameters
I0505 03:01:04.302265  2847 net.cpp:151] Top shape: 20 1 20 20 (8000)
I0505 03:01:04.302271  2847 net.cpp:151] Top shape: 20 (20)
I0505 03:01:04.302275  2847 net.cpp:159] Memory required for data: 32080
I0505 03:01:04.302284  2847 layer_factory.hpp:77] Creating layer conv1
I0505 03:01:04.302302  2847 net.cpp:94] Creating Layer conv1
I0505 03:01:04.302309  2847 net.cpp:435] conv1 <- data
I0505 03:01:04.302319  2847 net.cpp:409] conv1 -> conv1
I0505 03:01:04.307857  2847 net.cpp:144] Setting up conv1
I0505 03:01:04.307873  2847 net.cpp:151] Top shape: 20 64 20 20 (512000)
I0505 03:01:04.307878  2847 net.cpp:159] Memory required for data: 2080080
I0505 03:01:04.307889  2847 layer_factory.hpp:77] Creating layer relu1
I0505 03:01:04.307898  2847 net.cpp:94] Creating Layer relu1
I0505 03:01:04.307901  2847 net.cpp:435] relu1 <- conv1
I0505 03:01:04.307906  2847 net.cpp:396] relu1 -> conv1 (in-place)
I0505 03:01:04.307921  2847 net.cpp:144] Setting up relu1
I0505 03:01:04.307927  2847 net.cpp:151] Top shape: 20 64 20 20 (512000)
I0505 03:01:04.307930  2847 net.cpp:159] Memory required for data: 4128080
I0505 03:01:04.307934  2847 layer_factory.hpp:77] Creating layer pool1
I0505 03:01:04.307941  2847 net.cpp:94] Creating Layer pool1
I0505 03:01:04.307945  2847 net.cpp:435] pool1 <- conv1
I0505 03:01:04.307950  2847 net.cpp:409] pool1 -> pool1
I0505 03:01:04.307991  2847 net.cpp:144] Setting up pool1
I0505 03:01:04.307998  2847 net.cpp:151] Top shape: 20 64 10 10 (128000)
I0505 03:01:04.308001  2847 net.cpp:159] Memory required for data: 4640080
I0505 03:01:04.308006  2847 layer_factory.hpp:77] Creating layer conv2
I0505 03:01:04.308014  2847 net.cpp:94] Creating Layer conv2
I0505 03:01:04.308018  2847 net.cpp:435] conv2 <- pool1
I0505 03:01:04.308023  2847 net.cpp:409] conv2 -> conv2
I0505 03:01:04.318086  2847 net.cpp:144] Setting up conv2
I0505 03:01:04.318102  2847 net.cpp:151] Top shape: 20 128 10 10 (256000)
I0505 03:01:04.318106  2847 net.cpp:159] Memory required for data: 5664080
I0505 03:01:04.318115  2847 layer_factory.hpp:77] Creating layer relu2
I0505 03:01:04.318121  2847 net.cpp:94] Creating Layer relu2
I0505 03:01:04.318125  2847 net.cpp:435] relu2 <- conv2
I0505 03:01:04.318130  2847 net.cpp:396] relu2 -> conv2 (in-place)
I0505 03:01:04.318137  2847 net.cpp:144] Setting up relu2
I0505 03:01:04.318142  2847 net.cpp:151] Top shape: 20 128 10 10 (256000)
I0505 03:01:04.318146  2847 net.cpp:159] Memory required for data: 6688080
I0505 03:01:04.318150  2847 layer_factory.hpp:77] Creating layer conv3
I0505 03:01:04.318157  2847 net.cpp:94] Creating Layer conv3
I0505 03:01:04.318161  2847 net.cpp:435] conv3 <- conv2
I0505 03:01:04.318166  2847 net.cpp:409] conv3 -> conv3
I0505 03:01:04.335224  2847 net.cpp:144] Setting up conv3
I0505 03:01:04.335239  2847 net.cpp:151] Top shape: 20 128 10 10 (256000)
I0505 03:01:04.335244  2847 net.cpp:159] Memory required for data: 7712080
I0505 03:01:04.335253  2847 layer_factory.hpp:77] Creating layer relu3
I0505 03:01:04.335259  2847 net.cpp:94] Creating Layer relu3
I0505 03:01:04.335268  2847 net.cpp:435] relu3 <- conv3
I0505 03:01:04.335274  2847 net.cpp:396] relu3 -> conv3 (in-place)
I0505 03:01:04.335283  2847 net.cpp:144] Setting up relu3
I0505 03:01:04.335288  2847 net.cpp:151] Top shape: 20 128 10 10 (256000)
I0505 03:01:04.335291  2847 net.cpp:159] Memory required for data: 8736080
I0505 03:01:04.335294  2847 layer_factory.hpp:77] Creating layer pool3
I0505 03:01:04.335300  2847 net.cpp:94] Creating Layer pool3
I0505 03:01:04.335304  2847 net.cpp:435] pool3 <- conv3
I0505 03:01:04.335320  2847 net.cpp:409] pool3 -> pool3
I0505 03:01:04.335355  2847 net.cpp:144] Setting up pool3
I0505 03:01:04.335362  2847 net.cpp:151] Top shape: 20 128 5 5 (64000)
I0505 03:01:04.335366  2847 net.cpp:159] Memory required for data: 8992080
I0505 03:01:04.335369  2847 layer_factory.hpp:77] Creating layer ip1
I0505 03:01:04.335379  2847 net.cpp:94] Creating Layer ip1
I0505 03:01:04.335383  2847 net.cpp:435] ip1 <- pool3
I0505 03:01:04.335389  2847 net.cpp:409] ip1 -> ip1
I0505 03:01:04.374739  2847 net.cpp:144] Setting up ip1
I0505 03:01:04.374753  2847 net.cpp:151] Top shape: 20 512 (10240)
I0505 03:01:04.374758  2847 net.cpp:159] Memory required for data: 9033040
I0505 03:01:04.374764  2847 layer_factory.hpp:77] Creating layer ip2
I0505 03:01:04.374771  2847 net.cpp:94] Creating Layer ip2
I0505 03:01:04.374775  2847 net.cpp:435] ip2 <- ip1
I0505 03:01:04.374780  2847 net.cpp:409] ip2 -> ip2
I0505 03:01:04.377897  2847 net.cpp:144] Setting up ip2
I0505 03:01:04.377907  2847 net.cpp:151] Top shape: 20 256 (5120)
I0505 03:01:04.377910  2847 net.cpp:159] Memory required for data: 9053520
I0505 03:01:04.377918  2847 layer_factory.hpp:77] Creating layer ip3
I0505 03:01:04.377924  2847 net.cpp:94] Creating Layer ip3
I0505 03:01:04.377928  2847 net.cpp:435] ip3 <- ip2
I0505 03:01:04.377933  2847 net.cpp:409] ip3 -> ip3
I0505 03:01:04.377998  2847 net.cpp:144] Setting up ip3
I0505 03:01:04.378005  2847 net.cpp:151] Top shape: 20 1 (20)
I0505 03:01:04.378007  2847 net.cpp:159] Memory required for data: 9053600
I0505 03:01:04.378012  2847 layer_factory.hpp:77] Creating layer loss
I0505 03:01:04.378022  2847 net.cpp:94] Creating Layer loss
I0505 03:01:04.378026  2847 net.cpp:435] loss <- ip3
I0505 03:01:04.378031  2847 net.cpp:435] loss <- label
I0505 03:01:04.378036  2847 net.cpp:409] loss -> loss
I0505 03:01:04.378070  2847 net.cpp:144] Setting up loss
…
