…
I0503 00:35:39.202977 16276 net.cpp:323] The NetState phase (0) differed from the phase (1) specified by a rule in layer intercept
I0503 00:35:39.202993 16276 net.cpp:323] The NetState phase (0) differed from the phase (1) specified by a rule in layer loss
I0503 00:35:39.203071 16276 net.cpp:52] Initializing net from parameters: 
state {
  phase: TRAIN
}
layer {
  name: "parameters"
  type: "HDF5Data"
  top: "data"
  top: "label"
  include {
    phase: TRAIN
  }
  hdf5_data_param {
    source: "/home/purduethu/scratch/radon/d/deng106/CNNStatisticalModel/distributions/input/20_distributions_900_sample_size_train-parameters-path.txt"
    batch_size: 20
  }
}
layer {
  name: "conv1"
  type: "Convolution"
  bottom: "data"
  top: "conv1"
  param {
    lr_mult: 1
  }
  param {
    lr_mult: 2
  }
  convolution_param {
    num_output: 64
    pad: 2
    kernel_size: 5
    stride: 1
    weight_filler {
      type: "gaussian"
      std: 0.0001
    }
    bias_filler {
      type: "constant"
    }
  }
}
layer {
  name: "relu1"
  type: "ReLU"
  bottom: "conv1"
  top: "conv1"
}
layer {
  name: "conv2"
  type: "Convolution"
  bottom: "conv1"
  top: "conv2"
  param {
    lr_mult: 1
  }
  param {
    lr_mult: 2
  }
  convolution_param {
    num_output: 64
    pad: 2
    kernel_size: 5
    stride: 1
    weight_filler {
      type: "gaussian"
      std: 0.01
    }
    bias_filler {
      type: "constant"
    }
  }
}
layer {
  name: "relu2"
  type: "ReLU"
  bottom: "conv2"
  top: "conv2"
}
layer {
  name: "pool2"
  type: "Pooling"
  bottom: "conv2"
  top: "pool2"
  pooling_param {
    pool: MAX
    kernel_size: 3
    stride: 2
  }
}
layer {
  name: "conv3"
  type: "Convolution"
  bottom: "pool2"
  top: "conv3"
  param {
    lr_mult: 1
  }
  param {
    lr_mult: 2
  }
  convolution_param {
    num_output: 128
    pad: 2
    kernel_size: 5
    stride: 1
    weight_filler {
      type: "gaussian"
      std: 0.01
    }
    bias_filler {
      type: "constant"
    }
  }
}
layer {
  name: "relu3"
  type: "ReLU"
  bottom: "conv3"
  top: "conv3"
}
layer {
  name: "conv4"
  type: "Convolution"
  bottom: "conv3"
  top: "conv4"
  param {
    lr_mult: 1
  }
  param {
    lr_mult: 2
  }
  convolution_param {
    num_output: 128
    pad: 2
    kernel_size: 5
    stride: 1
    weight_filler {
      type: "gaussian"
      std: 0.01
    }
    bias_filler {
      type: "constant"
    }
  }
}
layer {
  name: "relu4"
  type: "ReLU"
  bottom: "conv4"
  top: "conv4"
}
layer {
  name: "conv5"
  type: "Convolution"
  bottom: "conv4"
  top: "conv5"
  param {
    lr_mult: 1
  }
  param {
    lr_mult: 2
  }
  convolution_param {
    num_output: 128
    pad: 2
    kernel_size: 5
    stride: 1
    weight_filler {
      type: "gaussian"
      std: 0.01
    }
    bias_filler {
      type: "constant"
    }
  }
}
layer {
  name: "relu5"
  type: "ReLU"
  bottom: "conv5"
  top: "conv5"
}
layer {
  name: "pool5"
  type: "Pooling"
  bottom: "conv5"
  top: "pool5"
  pooling_param {
    pool: AVE
    kernel_size: 3
    stride: 2
  }
}
layer {
  name: "ip1"
  type: "InnerProduct"
  bottom: "pool5"
  top: "ip1"
  param {
    lr_mult: 1
  }
  param {
    lr_mult: 2
  }
  inner_product_param {
    num_output: 1024
    weight_filler {
      type: "gaussian"
      std: 0.1
    }
    bias_filler {
      type: "constant"
    }
  }
}
layer {
  name: "ip2"
  type: "InnerProduct"
  bottom: "ip1"
  top: "ip2"
  param {
    lr_mult: 1
  }
  param {
    lr_mult: 2
  }
  inner_product_param {
    num_output: 512
    weight_filler {
      type: "gaussian"
      std: 0.1
    }
    bias_filler {
      type: "constant"
    }
  }
}
layer {
  name: "ip3"
  type: "InnerProduct"
  bottom: "ip2"
  top: "ip3"
  param {
    lr_mult: 1
  }
  param {
    lr_mult: 2
  }
  inner_product_param {
    num_output: 1
    weight_filler {
      type: "gaussian"
      std: 0.1
    }
    bias_filler {
      type: "constant"
    }
  }
}
layer {
  name: "loss"
  type: "HuberLoss"
  bottom: "ip3"
  bottom: "label"
  top: "loss"
  include {
    phase: TRAIN
  }
}
I0503 00:35:39.203125 16276 layer_factory.hpp:77] Creating layer parameters
I0503 00:35:39.203137 16276 net.cpp:94] Creating Layer parameters
I0503 00:35:39.203142 16276 net.cpp:409] parameters -> data
I0503 00:35:39.203151 16276 net.cpp:409] parameters -> label
I0503 00:35:39.203163 16276 hdf5_data_layer.cpp:79] Loading list of HDF5 filenames from: /home/purduethu/scratch/radon/d/deng106/CNNStatisticalModel/distributions/input/20_distributions_900_sample_size_train-parameters-path.txt
I0503 00:35:39.203181 16276 hdf5_data_layer.cpp:93] Number of HDF5 files: 1
I0503 00:35:39.203734 16276 hdf5.cpp:32] Datatype class: H5T_FLOAT
I0503 00:35:39.786173 16276 net.cpp:144] Setting up parameters
I0503 00:35:39.786206 16276 net.cpp:151] Top shape: 20 1 30 30 (18000)
I0503 00:35:39.786211 16276 net.cpp:151] Top shape: 20 (20)
I0503 00:35:39.786214 16276 net.cpp:159] Memory required for data: 72080
I0503 00:35:39.786221 16276 layer_factory.hpp:77] Creating layer conv1
I0503 00:35:39.786237 16276 net.cpp:94] Creating Layer conv1
I0503 00:35:39.786242 16276 net.cpp:435] conv1 <- data
I0503 00:35:39.786248 16276 net.cpp:409] conv1 -> conv1
I0503 00:35:39.792819 16276 net.cpp:144] Setting up conv1
I0503 00:35:39.792842 16276 net.cpp:151] Top shape: 20 64 30 30 (1152000)
I0503 00:35:39.792846 16276 net.cpp:159] Memory required for data: 4680080
I0503 00:35:39.792857 16276 layer_factory.hpp:77] Creating layer relu1
I0503 00:35:39.792867 16276 net.cpp:94] Creating Layer relu1
I0503 00:35:39.792870 16276 net.cpp:435] relu1 <- conv1
I0503 00:35:39.792876 16276 net.cpp:396] relu1 -> conv1 (in-place)
I0503 00:35:39.792888 16276 net.cpp:144] Setting up relu1
I0503 00:35:39.792893 16276 net.cpp:151] Top shape: 20 64 30 30 (1152000)
I0503 00:35:39.792896 16276 net.cpp:159] Memory required for data: 9288080
I0503 00:35:39.792899 16276 layer_factory.hpp:77] Creating layer conv2
I0503 00:35:39.792909 16276 net.cpp:94] Creating Layer conv2
I0503 00:35:39.792912 16276 net.cpp:435] conv2 <- conv1
I0503 00:35:39.792917 16276 net.cpp:409] conv2 -> conv2
I0503 00:35:39.807780 16276 net.cpp:144] Setting up conv2
I0503 00:35:39.807797 16276 net.cpp:151] Top shape: 20 64 30 30 (1152000)
I0503 00:35:39.807801 16276 net.cpp:159] Memory required for data: 13896080
I0503 00:35:39.807809 16276 layer_factory.hpp:77] Creating layer relu2
I0503 00:35:39.807817 16276 net.cpp:94] Creating Layer relu2
I0503 00:35:39.807821 16276 net.cpp:435] relu2 <- conv2
I0503 00:35:39.807826 16276 net.cpp:396] relu2 -> conv2 (in-place)
I0503 00:35:39.807833 16276 net.cpp:144] Setting up relu2
I0503 00:35:39.807837 16276 net.cpp:151] Top shape: 20 64 30 30 (1152000)
I0503 00:35:39.807840 16276 net.cpp:159] Memory required for data: 18504080
I0503 00:35:39.807843 16276 layer_factory.hpp:77] Creating layer pool2
I0503 00:35:39.807855 16276 net.cpp:94] Creating Layer pool2
I0503 00:35:39.807859 16276 net.cpp:435] pool2 <- conv2
I0503 00:35:39.807863 16276 net.cpp:409] pool2 -> pool2
I0503 00:35:39.807924 16276 net.cpp:144] Setting up pool2
I0503 00:35:39.807931 16276 net.cpp:151] Top shape: 20 64 15 15 (288000)
I0503 00:35:39.807934 16276 net.cpp:159] Memory required for data: 19656080
I0503 00:35:39.807937 16276 layer_factory.hpp:77] Creating layer conv3
I0503 00:35:39.807946 16276 net.cpp:94] Creating Layer conv3
I0503 00:35:39.807950 16276 net.cpp:435] conv3 <- pool2
I0503 00:35:39.807955 16276 net.cpp:409] conv3 -> conv3
I0503 00:35:39.822136 16276 net.cpp:144] Setting up conv3
I0503 00:35:39.822154 16276 net.cpp:151] Top shape: 20 128 15 15 (576000)
I0503 00:35:39.822157 16276 net.cpp:159] Memory required for data: 21960080
I0503 00:35:39.822166 16276 layer_factory.hpp:77] Creating layer relu3
I0503 00:35:39.822172 16276 net.cpp:94] Creating Layer relu3
I0503 00:35:39.822176 16276 net.cpp:435] relu3 <- conv3
I0503 00:35:39.822181 16276 net.cpp:396] relu3 -> conv3 (in-place)
I0503 00:35:39.822188 16276 net.cpp:144] Setting up relu3
I0503 00:35:39.822192 16276 net.cpp:151] Top shape: 20 128 15 15 (576000)
I0503 00:35:39.822196 16276 net.cpp:159] Memory required for data: 24264080
I0503 00:35:39.822199 16276 layer_factory.hpp:77] Creating layer conv4
I0503 00:35:39.822207 16276 net.cpp:94] Creating Layer conv4
I0503 00:35:39.822211 16276 net.cpp:435] conv4 <- conv3
I0503 00:35:39.822216 16276 net.cpp:409] conv4 -> conv4
I0503 00:35:39.845235 16276 net.cpp:144] Setting up conv4
I0503 00:35:39.845254 16276 net.cpp:151] Top shape: 20 128 15 15 (576000)
I0503 00:35:39.845258 16276 net.cpp:159] Memory required for data: 26568080
I0503 00:35:39.845265 16276 layer_factory.hpp:77] Creating layer relu4
I0503 00:35:39.845273 16276 net.cpp:94] Creating Layer relu4
I0503 00:35:39.845276 16276 net.cpp:435] relu4 <- conv4
I0503 00:35:39.845280 16276 net.cpp:396] relu4 -> conv4 (in-place)
I0503 00:35:39.845288 16276 net.cpp:144] Setting up relu4
I0503 00:35:39.845293 16276 net.cpp:151] Top shape: 20 128 15 15 (576000)
I0503 00:35:39.845295 16276 net.cpp:159] Memory required for data: 28872080
I0503 00:35:39.845299 16276 layer_factory.hpp:77] Creating layer conv5
I0503 00:35:39.845306 16276 net.cpp:94] Creating Layer conv5
I0503 00:35:39.845309 16276 net.cpp:435] conv5 <- conv4
I0503 00:35:39.845314 16276 net.cpp:409] conv5 -> conv5
I0503 00:35:39.867671 16276 net.cpp:144] Setting up conv5
I0503 00:35:39.867691 16276 net.cpp:151] Top shape: 20 128 15 15 (576000)
I0503 00:35:39.867694 16276 net.cpp:159] Memory required for data: 31176080
I0503 00:35:39.867704 16276 layer_factory.hpp:77] Creating layer relu5
I0503 00:35:39.867712 16276 net.cpp:94] Creating Layer relu5
I0503 00:35:39.867717 16276 net.cpp:435] relu5 <- conv5
I0503 00:35:39.867720 16276 net.cpp:396] relu5 -> conv5 (in-place)
I0503 00:35:39.867728 16276 net.cpp:144] Setting up relu5
I0503 00:35:39.867733 16276 net.cpp:151] Top shape: 20 128 15 15 (576000)
I0503 00:35:39.867735 16276 net.cpp:159] Memory required for data: 33480080
I0503 00:35:39.867738 16276 layer_factory.hpp:77] Creating layer pool5
I0503 00:35:39.867744 16276 net.cpp:94] Creating Layer pool5
I0503 00:35:39.867748 16276 net.cpp:435] pool5 <- conv5
I0503 00:35:39.867751 16276 net.cpp:409] pool5 -> pool5
I0503 00:35:39.867801 16276 net.cpp:144] Setting up pool5
I0503 00:35:39.867808 16276 net.cpp:151] Top shape: 20 128 7 7 (125440)
I0503 00:35:39.867811 16276 net.cpp:159] Memory required for data: 33981840
I0503 00:35:39.867815 16276 layer_factory.hpp:77] Creating layer ip1
I0503 00:35:39.867822 16276 net.cpp:94] Creating Layer ip1
I0503 00:35:39.867826 16276 net.cpp:435] ip1 <- pool5
I0503 00:35:39.867830 16276 net.cpp:409] ip1 -> ip1
I0503 00:35:40.023322 16276 net.cpp:144] Setting up ip1
I0503 00:35:40.023355 16276 net.cpp:151] Top shape: 20 1024 (20480)
I0503 00:35:40.023360 16276 net.cpp:159] Memory required for data: 34063760
I0503 00:35:40.023370 16276 layer_factory.hpp:77] Creating layer ip2
I0503 00:35:40.023380 16276 net.cpp:94] Creating Layer ip2
I0503 00:35:40.023394 16276 net.cpp:435] ip2 <- ip1
I0503 00:35:40.023402 16276 net.cpp:409] ip2 -> ip2
I0503 00:35:40.036705 16276 net.cpp:144] Setting up ip2
I0503 00:35:40.036728 16276 net.cpp:151] Top shape: 20 512 (10240)
I0503 00:35:40.036732 16276 net.cpp:159] Memory required for data: 34104720
I0503 00:35:40.036741 16276 layer_factory.hpp:77] Creating layer ip3
I0503 00:35:40.036748 16276 net.cpp:94] Creating Layer ip3
I0503 00:35:40.036762 16276 net.cpp:435] ip3 <- ip2
I0503 00:35:40.036769 16276 net.cpp:409] ip3 -> ip3
I0503 00:35:40.036898 16276 net.cpp:144] Setting up ip3
I0503 00:35:40.036906 16276 net.cpp:151] Top shape: 20 1 (20)
I0503 00:35:40.036909 16276 net.cpp:159] Memory required for data: 34104800
I0503 00:35:40.036914 16276 layer_factory.hpp:77] Creating layer loss
I0503 00:35:40.036929 16276 net.cpp:94] Creating Layer loss
I0503 00:35:40.036933 16276 net.cpp:435] loss <- ip3
I0503 00:35:40.036937 16276 net.cpp:435] loss <- label
I0503 00:35:40.036942 16276 net.cpp:409] loss -> loss
I0503 00:35:40.036998 16276 net.cpp:144] Setting up loss
…
I0503 00:35:40.404772 16276 net.cpp:323] The NetState phase (0) differed from the phase (1) specified by a rule in layer intercept
I0503 00:35:40.404788 16276 net.cpp:323] The NetState phase (0) differed from the phase (1) specified by a rule in layer accuracy
I0503 00:35:40.404889 16276 net.cpp:52] Initializing net from parameters: 
state {
  phase: TRAIN
}
layer {
  name: "parameters"
  type: "HDF5Data"
  top: "data"
  top: "label"
  include {
    phase: TRAIN
  }
  hdf5_data_param {
    source: "/home/purduethu/scratch/radon/d/deng106/CNNStatisticalModel/distributions/input/20_distributions_900_sample_size_train-distributions-path.txt"
    batch_size: 20
  }
}
layer {
  name: "conv1"
  type: "Convolution"
  bottom: "data"
  top: "conv1"
  param {
    lr_mult: 1
  }
  param {
    lr_mult: 2
  }
  convolution_param {
    num_output: 64
    pad: 2
    kernel_size: 5
    stride: 1
    weight_filler {
      type: "gaussian"
      std: 0.0001
    }
    bias_filler {
      type: "constant"
    }
  }
}
layer {
  name: "relu1"
  type: "ReLU"
  bottom: "conv1"
  top: "conv1"
}
layer {
  name: "conv2"
  type: "Convolution"
  bottom: "conv1"
  top: "conv2"
  param {
    lr_mult: 1
  }
  param {
    lr_mult: 2
  }
  convolution_param {
    num_output: 64
    pad: 2
    kernel_size: 5
    stride: 1
    weight_filler {
      type: "gaussian"
      std: 0.01
    }
    bias_filler {
      type: "constant"
    }
  }
}
layer {
  name: "relu2"
  type: "ReLU"
  bottom: "conv2"
  top: "conv2"
}
layer {
  name: "pool2"
  type: "Pooling"
  bottom: "conv2"
  top: "pool2"
  pooling_param {
    pool: MAX
    kernel_size: 3
    stride: 2
  }
}
layer {
  name: "conv3"
  type: "Convolution"
  bottom: "pool2"
  top: "conv3"
  param {
    lr_mult: 1
  }
  param {
    lr_mult: 2
  }
  convolution_param {
    num_output: 128
    pad: 2
    kernel_size: 5
    stride: 1
    weight_filler {
      type: "gaussian"
      std: 0.01
    }
    bias_filler {
      type: "constant"
    }
  }
}
layer {
  name: "relu3"
  type: "ReLU"
  bottom: "conv3"
  top: "conv3"
}
layer {
  name: "conv4"
  type: "Convolution"
  bottom: "conv3"
  top: "conv4"
  param {
    lr_mult: 1
  }
  param {
    lr_mult: 2
  }
  convolution_param {
    num_output: 128
    pad: 2
    kernel_size: 5
    stride: 1
    weight_filler {
      type: "gaussian"
      std: 0.01
    }
    bias_filler {
      type: "constant"
    }
  }
}
layer {
  name: "relu4"
  type: "ReLU"
  bottom: "conv4"
  top: "conv4"
}
layer {
  name: "conv5"
  type: "Convolution"
  bottom: "conv4"
  top: "conv5"
  param {
    lr_mult: 1
  }
  param {
    lr_mult: 2
  }
  convolution_param {
    num_output: 128
    pad: 2
    kernel_size: 5
    stride: 1
    weight_filler {
      type: "gaussian"
      std: 0.01
    }
    bias_filler {
      type: "constant"
    }
  }
}
layer {
  name: "relu5"
  type: "ReLU"
  bottom: "conv5"
  top: "conv5"
}
layer {
  name: "pool5"
  type: "Pooling"
  bottom: "conv5"
  top: "pool5"
  pooling_param {
    pool: AVE
    kernel_size: 3
    stride: 2
  }
}
layer {
  name: "ip1"
  type: "InnerProduct"
  bottom: "pool5"
  top: "ip1"
  param {
    lr_mult: 1
  }
  param {
    lr_mult: 2
  }
  inner_product_param {
    num_output: 1024
    weight_filler {
      type: "gaussian"
      std: 0.1
    }
    bias_filler {
      type: "constant"
    }
  }
}
layer {
  name: "ip2"
  type: "InnerProduct"
  bottom: "ip1"
  top: "ip2"
  param {
    lr_mult: 1
  }
  param {
    lr_mult: 2
  }
  inner_product_param {
    num_output: 512
    weight_filler {
      type: "gaussian"
      std: 0.1
    }
    bias_filler {
      type: "constant"
    }
  }
}
layer {
  name: "ip3"
  type: "InnerProduct"
  bottom: "ip2"
  top: "ip3"
  param {
    lr_mult: 1
  }
  param {
    lr_mult: 2
  }
  inner_product_param {
    num_output: 50
    weight_filler {
      type: "gaussian"
      std: 0.1
    }
    bias_filler {
      type: "constant"
    }
  }
}
layer {
  name: "loss"
  type: "SoftmaxWithLoss"
  bottom: "ip3"
  bottom: "label"
  top: "loss"
}
I0503 00:35:40.404939 16276 layer_factory.hpp:77] Creating layer parameters
I0503 00:35:40.404947 16276 net.cpp:94] Creating Layer parameters
I0503 00:35:40.404952 16276 net.cpp:409] parameters -> data
I0503 00:35:40.404958 16276 net.cpp:409] parameters -> label
I0503 00:35:40.404964 16276 hdf5_data_layer.cpp:79] Loading list of HDF5 filenames from: /home/purduethu/scratch/radon/d/deng106/CNNStatisticalModel/distributions/input/20_distributions_900_sample_size_train-distributions-path.txt
I0503 00:35:40.404980 16276 hdf5_data_layer.cpp:93] Number of HDF5 files: 1
I0503 00:35:40.979832 16276 hdf5.cpp:35] Datatype class: H5T_INTEGER
I0503 00:35:40.980922 16276 net.cpp:144] Setting up parameters
I0503 00:35:40.980938 16276 net.cpp:151] Top shape: 20 1 30 30 (18000)
I0503 00:35:40.980943 16276 net.cpp:151] Top shape: 20 (20)
I0503 00:35:40.980947 16276 net.cpp:159] Memory required for data: 72080
I0503 00:35:40.980953 16276 layer_factory.hpp:77] Creating layer conv1
I0503 00:35:40.980968 16276 net.cpp:94] Creating Layer conv1
I0503 00:35:40.980973 16276 net.cpp:435] conv1 <- data
I0503 00:35:40.980979 16276 net.cpp:409] conv1 -> conv1
I0503 00:35:40.984513 16276 net.cpp:144] Setting up conv1
I0503 00:35:40.984530 16276 net.cpp:151] Top shape: 20 64 30 30 (1152000)
I0503 00:35:40.984534 16276 net.cpp:159] Memory required for data: 4680080
I0503 00:35:40.984545 16276 layer_factory.hpp:77] Creating layer relu1
I0503 00:35:40.984572 16276 net.cpp:94] Creating Layer relu1
I0503 00:35:40.984578 16276 net.cpp:435] relu1 <- conv1
I0503 00:35:40.984583 16276 net.cpp:396] relu1 -> conv1 (in-place)
I0503 00:35:40.984591 16276 net.cpp:144] Setting up relu1
I0503 00:35:40.984596 16276 net.cpp:151] Top shape: 20 64 30 30 (1152000)
I0503 00:35:40.984599 16276 net.cpp:159] Memory required for data: 9288080
I0503 00:35:40.984602 16276 layer_factory.hpp:77] Creating layer conv2
I0503 00:35:40.984611 16276 net.cpp:94] Creating Layer conv2
I0503 00:35:40.984614 16276 net.cpp:435] conv2 <- conv1
I0503 00:35:40.984619 16276 net.cpp:409] conv2 -> conv2
I0503 00:35:41.001060 16276 net.cpp:144] Setting up conv2
I0503 00:35:41.001075 16276 net.cpp:151] Top shape: 20 64 30 30 (1152000)
I0503 00:35:41.001080 16276 net.cpp:159] Memory required for data: 13896080
I0503 00:35:41.001088 16276 layer_factory.hpp:77] Creating layer relu2
I0503 00:35:41.001097 16276 net.cpp:94] Creating Layer relu2
I0503 00:35:41.001101 16276 net.cpp:435] relu2 <- conv2
I0503 00:35:41.001106 16276 net.cpp:396] relu2 -> conv2 (in-place)
I0503 00:35:41.001113 16276 net.cpp:144] Setting up relu2
I0503 00:35:41.001117 16276 net.cpp:151] Top shape: 20 64 30 30 (1152000)
I0503 00:35:41.001121 16276 net.cpp:159] Memory required for data: 18504080
I0503 00:35:41.001124 16276 layer_factory.hpp:77] Creating layer pool2
I0503 00:35:41.001129 16276 net.cpp:94] Creating Layer pool2
I0503 00:35:41.001132 16276 net.cpp:435] pool2 <- conv2
I0503 00:35:41.001137 16276 net.cpp:409] pool2 -> pool2
I0503 00:35:41.001199 16276 net.cpp:144] Setting up pool2
I0503 00:35:41.001206 16276 net.cpp:151] Top shape: 20 64 15 15 (288000)
I0503 00:35:41.001209 16276 net.cpp:159] Memory required for data: 19656080
I0503 00:35:41.001214 16276 layer_factory.hpp:77] Creating layer conv3
I0503 00:35:41.001221 16276 net.cpp:94] Creating Layer conv3
I0503 00:35:41.001232 16276 net.cpp:435] conv3 <- pool2
I0503 00:35:41.001237 16276 net.cpp:409] conv3 -> conv3
I0503 00:35:41.015105 16276 net.cpp:144] Setting up conv3
I0503 00:35:41.015125 16276 net.cpp:151] Top shape: 20 128 15 15 (576000)
I0503 00:35:41.015128 16276 net.cpp:159] Memory required for data: 21960080
I0503 00:35:41.015138 16276 layer_factory.hpp:77] Creating layer relu3
I0503 00:35:41.015146 16276 net.cpp:94] Creating Layer relu3
I0503 00:35:41.015149 16276 net.cpp:435] relu3 <- conv3
I0503 00:35:41.015154 16276 net.cpp:396] relu3 -> conv3 (in-place)
I0503 00:35:41.015161 16276 net.cpp:144] Setting up relu3
I0503 00:35:41.015166 16276 net.cpp:151] Top shape: 20 128 15 15 (576000)
I0503 00:35:41.015169 16276 net.cpp:159] Memory required for data: 24264080
I0503 00:35:41.015172 16276 layer_factory.hpp:77] Creating layer conv4
I0503 00:35:41.015182 16276 net.cpp:94] Creating Layer conv4
I0503 00:35:41.015185 16276 net.cpp:435] conv4 <- conv3
I0503 00:35:41.015189 16276 net.cpp:409] conv4 -> conv4
I0503 00:35:41.038820 16276 net.cpp:144] Setting up conv4
I0503 00:35:41.038839 16276 net.cpp:151] Top shape: 20 128 15 15 (576000)
I0503 00:35:41.038843 16276 net.cpp:159] Memory required for data: 26568080
I0503 00:35:41.038851 16276 layer_factory.hpp:77] Creating layer relu4
I0503 00:35:41.038858 16276 net.cpp:94] Creating Layer relu4
I0503 00:35:41.038862 16276 net.cpp:435] relu4 <- conv4
I0503 00:35:41.038867 16276 net.cpp:396] relu4 -> conv4 (in-place)
I0503 00:35:41.038875 16276 net.cpp:144] Setting up relu4
I0503 00:35:41.038880 16276 net.cpp:151] Top shape: 20 128 15 15 (576000)
I0503 00:35:41.038883 16276 net.cpp:159] Memory required for data: 28872080
I0503 00:35:41.038887 16276 layer_factory.hpp:77] Creating layer conv5
I0503 00:35:41.038894 16276 net.cpp:94] Creating Layer conv5
I0503 00:35:41.038897 16276 net.cpp:435] conv5 <- conv4
I0503 00:35:41.038902 16276 net.cpp:409] conv5 -> conv5
I0503 00:35:41.061966 16276 net.cpp:144] Setting up conv5
I0503 00:35:41.061986 16276 net.cpp:151] Top shape: 20 128 15 15 (576000)
I0503 00:35:41.061991 16276 net.cpp:159] Memory required for data: 31176080
I0503 00:35:41.062002 16276 layer_factory.hpp:77] Creating layer relu5
I0503 00:35:41.062010 16276 net.cpp:94] Creating Layer relu5
I0503 00:35:41.062013 16276 net.cpp:435] relu5 <- conv5
I0503 00:35:41.062018 16276 net.cpp:396] relu5 -> conv5 (in-place)
I0503 00:35:41.062026 16276 net.cpp:144] Setting up relu5
I0503 00:35:41.062031 16276 net.cpp:151] Top shape: 20 128 15 15 (576000)
I0503 00:35:41.062033 16276 net.cpp:159] Memory required for data: 33480080
I0503 00:35:41.062036 16276 layer_factory.hpp:77] Creating layer pool5
I0503 00:35:41.062042 16276 net.cpp:94] Creating Layer pool5
I0503 00:35:41.062046 16276 net.cpp:435] pool5 <- conv5
I0503 00:35:41.062050 16276 net.cpp:409] pool5 -> pool5
I0503 00:35:41.062098 16276 net.cpp:144] Setting up pool5
I0503 00:35:41.062105 16276 net.cpp:151] Top shape: 20 128 7 7 (125440)
I0503 00:35:41.062108 16276 net.cpp:159] Memory required for data: 33981840
I0503 00:35:41.062113 16276 layer_factory.hpp:77] Creating layer ip1
I0503 00:35:41.062119 16276 net.cpp:94] Creating Layer ip1
I0503 00:35:41.062122 16276 net.cpp:435] ip1 <- pool5
I0503 00:35:41.062127 16276 net.cpp:409] ip1 -> ip1
I0503 00:35:41.217696 16276 net.cpp:144] Setting up ip1
I0503 00:35:41.217731 16276 net.cpp:151] Top shape: 20 1024 (20480)
I0503 00:35:41.217736 16276 net.cpp:159] Memory required for data: 34063760
I0503 00:35:41.217744 16276 layer_factory.hpp:77] Creating layer ip2
I0503 00:35:41.217754 16276 net.cpp:94] Creating Layer ip2
I0503 00:35:41.217759 16276 net.cpp:435] ip2 <- ip1
I0503 00:35:41.217766 16276 net.cpp:409] ip2 -> ip2
I0503 00:35:41.231158 16276 net.cpp:144] Setting up ip2
I0503 00:35:41.231182 16276 net.cpp:151] Top shape: 20 512 (10240)
I0503 00:35:41.231186 16276 net.cpp:159] Memory required for data: 34104720
I0503 00:35:41.231194 16276 layer_factory.hpp:77] Creating layer ip3
I0503 00:35:41.231204 16276 net.cpp:94] Creating Layer ip3
I0503 00:35:41.231207 16276 net.cpp:435] ip3 <- ip2
I0503 00:35:41.231221 16276 net.cpp:409] ip3 -> ip3
I0503 00:35:41.231986 16276 net.cpp:144] Setting up ip3
I0503 00:35:41.231994 16276 net.cpp:151] Top shape: 20 50 (1000)
I0503 00:35:41.231997 16276 net.cpp:159] Memory required for data: 34108720
I0503 00:35:41.232003 16276 layer_factory.hpp:77] Creating layer loss
I0503 00:35:41.232012 16276 net.cpp:94] Creating Layer loss
I0503 00:35:41.232014 16276 net.cpp:435] loss <- ip3
I0503 00:35:41.232018 16276 net.cpp:435] loss <- label
I0503 00:35:41.232023 16276 net.cpp:409] loss -> loss
I0503 00:35:41.232030 16276 layer_factory.hpp:77] Creating layer loss
…
I0503 00:35:41.232576 16276 solver.cpp:181] Creating test net (#0) specified by net file: ./protocol/dis_20_900_dimension.protocol_distribution
I0503 00:35:41.232605 16276 net.cpp:323] The NetState phase (1) differed from the phase (0) specified by a rule in layer parameters
I0503 00:35:41.232702 16276 net.cpp:52] Initializing net from parameters: 
state {
  phase: TEST
}
layer {
  name: "intercept"
  type: "HDF5Data"
  top: "data"
  top: "label"
  include {
    phase: TEST
  }
  hdf5_data_param {
    source: "/home/purduethu/scratch/radon/d/deng106/CNNStatisticalModel/distributions/input/20_distributions_900_sample_size_test-distributions-path.txt"
    batch_size: 20
  }
}
layer {
  name: "conv1"
  type: "Convolution"
  bottom: "data"
  top: "conv1"
  param {
    lr_mult: 1
  }
  param {
    lr_mult: 2
  }
  convolution_param {
    num_output: 64
    pad: 2
    kernel_size: 5
    stride: 1
    weight_filler {
      type: "gaussian"
      std: 0.0001
    }
    bias_filler {
      type: "constant"
    }
  }
}
layer {
  name: "relu1"
  type: "ReLU"
  bottom: "conv1"
  top: "conv1"
}
layer {
  name: "conv2"
  type: "Convolution"
  bottom: "conv1"
  top: "conv2"
  param {
    lr_mult: 1
  }
  param {
    lr_mult: 2
  }
  convolution_param {
    num_output: 64
    pad: 2
    kernel_size: 5
    stride: 1
    weight_filler {
      type: "gaussian"
      std: 0.01
    }
    bias_filler {
      type: "constant"
    }
  }
}
layer {
  name: "relu2"
  type: "ReLU"
  bottom: "conv2"
  top: "conv2"
}
layer {
  name: "pool2"
  type: "Pooling"
  bottom: "conv2"
  top: "pool2"
  pooling_param {
    pool: MAX
    kernel_size: 3
    stride: 2
  }
}
layer {
  name: "conv3"
  type: "Convolution"
  bottom: "pool2"
  top: "conv3"
  param {
    lr_mult: 1
  }
  param {
    lr_mult: 2
  }
  convolution_param {
    num_output: 128
    pad: 2
    kernel_size: 5
    stride: 1
    weight_filler {
      type: "gaussian"
      std: 0.01
    }
    bias_filler {
      type: "constant"
    }
  }
}
layer {
  name: "relu3"
  type: "ReLU"
  bottom: "conv3"
  top: "conv3"
}
layer {
  name: "conv4"
  type: "Convolution"
  bottom: "conv3"
  top: "conv4"
  param {
    lr_mult: 1
  }
  param {
    lr_mult: 2
  }
  convolution_param {
    num_output: 128
    pad: 2
    kernel_size: 5
    stride: 1
    weight_filler {
      type: "gaussian"
      std: 0.01
    }
    bias_filler {
      type: "constant"
    }
  }
}
layer {
  name: "relu4"
  type: "ReLU"
  bottom: "conv4"
  top: "conv4"
}
layer {
  name: "conv5"
  type: "Convolution"
  bottom: "conv4"
  top: "conv5"
  param {
    lr_mult: 1
  }
  param {
    lr_mult: 2
  }
  convolution_param {
    num_output: 128
    pad: 2
    kernel_size: 5
    stride: 1
    weight_filler {
      type: "gaussian"
      std: 0.01
    }
    bias_filler {
      type: "constant"
    }
  }
}
layer {
  name: "relu5"
  type: "ReLU"
  bottom: "conv5"
  top: "conv5"
}
layer {
  name: "pool5"
  type: "Pooling"
  bottom: "conv5"
  top: "pool5"
  pooling_param {
    pool: AVE
    kernel_size: 3
    stride: 2
  }
}
layer {
  name: "ip1"
  type: "InnerProduct"
  bottom: "pool5"
  top: "ip1"
  param {
    lr_mult: 1
  }
  param {
    lr_mult: 2
  }
  inner_product_param {
    num_output: 1024
    weight_filler {
      type: "gaussian"
      std: 0.1
    }
    bias_filler {
      type: "constant"
    }
  }
}
layer {
  name: "ip2"
  type: "InnerProduct"
  bottom: "ip1"
  top: "ip2"
  param {
    lr_mult: 1
  }
  param {
    lr_mult: 2
  }
  inner_product_param {
    num_output: 512
    weight_filler {
      type: "gaussian"
      std: 0.1
    }
    bias_filler {
      type: "constant"
    }
  }
}
layer {
  name: "ip3"
  type: "InnerProduct"
  bottom: "ip2"
  top: "ip3"
  param {
    lr_mult: 1
  }
  param {
    lr_mult: 2
  }
  inner_product_param {
    num_output: 50
    weight_filler {
      type: "gaussian"
      std: 0.1
    }
    bias_filler {
      type: "constant"
    }
  }
}
layer {
  name: "accuracy"
  type: "Accuracy"
  bottom: "ip3"
  bottom: "label"
  top: "accuracy"
  include {
    phase: TEST
  }
}
layer {
  name: "loss"
  type: "SoftmaxWithLoss"
  bottom: "ip3"
  bottom: "label"
  top: "loss"
}
I0503 00:35:41.232772 16276 layer_factory.hpp:77] Creating layer intercept
I0503 00:35:41.232781 16276 net.cpp:94] Creating Layer intercept
I0503 00:35:41.232786 16276 net.cpp:409] intercept -> data
I0503 00:35:41.232794 16276 net.cpp:409] intercept -> label
I0503 00:35:41.232800 16276 hdf5_data_layer.cpp:79] Loading list of HDF5 filenames from: /home/purduethu/scratch/radon/d/deng106/CNNStatisticalModel/distributions/input/20_distributions_900_sample_size_test-distributions-path.txt
I0503 00:35:41.232820 16276 hdf5_data_layer.cpp:93] Number of HDF5 files: 1
I0503 00:35:41.377827 16276 net.cpp:144] Setting up intercept
I0503 00:35:41.377861 16276 net.cpp:151] Top shape: 20 1 30 30 (18000)
I0503 00:35:41.377866 16276 net.cpp:151] Top shape: 20 (20)
I0503 00:35:41.377869 16276 net.cpp:159] Memory required for data: 72080
I0503 00:35:41.377876 16276 layer_factory.hpp:77] Creating layer label_intercept_1_split
I0503 00:35:41.377887 16276 net.cpp:94] Creating Layer label_intercept_1_split
I0503 00:35:41.377892 16276 net.cpp:435] label_intercept_1_split <- label
I0503 00:35:41.377897 16276 net.cpp:409] label_intercept_1_split -> label_intercept_1_split_0
I0503 00:35:41.377905 16276 net.cpp:409] label_intercept_1_split -> label_intercept_1_split_1
I0503 00:35:41.377959 16276 net.cpp:144] Setting up label_intercept_1_split
I0503 00:35:41.377966 16276 net.cpp:151] Top shape: 20 (20)
I0503 00:35:41.377970 16276 net.cpp:151] Top shape: 20 (20)
I0503 00:35:41.377974 16276 net.cpp:159] Memory required for data: 72240
I0503 00:35:41.377976 16276 layer_factory.hpp:77] Creating layer conv1
I0503 00:35:41.377987 16276 net.cpp:94] Creating Layer conv1
I0503 00:35:41.377991 16276 net.cpp:435] conv1 <- data
I0503 00:35:41.377995 16276 net.cpp:409] conv1 -> conv1
I0503 00:35:41.379535 16276 net.cpp:144] Setting up conv1
I0503 00:35:41.379549 16276 net.cpp:151] Top shape: 20 64 30 30 (1152000)
I0503 00:35:41.379554 16276 net.cpp:159] Memory required for data: 4680240
I0503 00:35:41.379564 16276 layer_factory.hpp:77] Creating layer relu1
I0503 00:35:41.379570 16276 net.cpp:94] Creating Layer relu1
I0503 00:35:41.379573 16276 net.cpp:435] relu1 <- conv1
I0503 00:35:41.379577 16276 net.cpp:396] relu1 -> conv1 (in-place)
I0503 00:35:41.379585 16276 net.cpp:144] Setting up relu1
I0503 00:35:41.379590 16276 net.cpp:151] Top shape: 20 64 30 30 (1152000)
I0503 00:35:41.379593 16276 net.cpp:159] Memory required for data: 9288240
I0503 00:35:41.379596 16276 layer_factory.hpp:77] Creating layer conv2
I0503 00:35:41.379604 16276 net.cpp:94] Creating Layer conv2
I0503 00:35:41.379608 16276 net.cpp:435] conv2 <- conv1
I0503 00:35:41.379612 16276 net.cpp:409] conv2 -> conv2
I0503 00:35:41.386494 16276 net.cpp:144] Setting up conv2
I0503 00:35:41.386510 16276 net.cpp:151] Top shape: 20 64 30 30 (1152000)
I0503 00:35:41.386514 16276 net.cpp:159] Memory required for data: 13896240
I0503 00:35:41.386523 16276 layer_factory.hpp:77] Creating layer relu2
I0503 00:35:41.386529 16276 net.cpp:94] Creating Layer relu2
I0503 00:35:41.386533 16276 net.cpp:435] relu2 <- conv2
I0503 00:35:41.386538 16276 net.cpp:396] relu2 -> conv2 (in-place)
I0503 00:35:41.386544 16276 net.cpp:144] Setting up relu2
I0503 00:35:41.386548 16276 net.cpp:151] Top shape: 20 64 30 30 (1152000)
I0503 00:35:41.386553 16276 net.cpp:159] Memory required for data: 18504240
I0503 00:35:41.386555 16276 layer_factory.hpp:77] Creating layer pool2
I0503 00:35:41.386561 16276 net.cpp:94] Creating Layer pool2
I0503 00:35:41.386564 16276 net.cpp:435] pool2 <- conv2
I0503 00:35:41.386569 16276 net.cpp:409] pool2 -> pool2
I0503 00:35:41.386628 16276 net.cpp:144] Setting up pool2
I0503 00:35:41.386636 16276 net.cpp:151] Top shape: 20 64 15 15 (288000)
I0503 00:35:41.386638 16276 net.cpp:159] Memory required for data: 19656240
I0503 00:35:41.386641 16276 layer_factory.hpp:77] Creating layer conv3
I0503 00:35:41.386651 16276 net.cpp:94] Creating Layer conv3
I0503 00:35:41.386653 16276 net.cpp:435] conv3 <- pool2
I0503 00:35:41.386658 16276 net.cpp:409] conv3 -> conv3
I0503 00:35:41.394310 16276 net.cpp:144] Setting up conv3
I0503 00:35:41.394326 16276 net.cpp:151] Top shape: 20 128 15 15 (576000)
I0503 00:35:41.394330 16276 net.cpp:159] Memory required for data: 21960240
I0503 00:35:41.394338 16276 layer_factory.hpp:77] Creating layer relu3
I0503 00:35:41.394345 16276 net.cpp:94] Creating Layer relu3
I0503 00:35:41.394349 16276 net.cpp:435] relu3 <- conv3
I0503 00:35:41.394353 16276 net.cpp:396] relu3 -> conv3 (in-place)
I0503 00:35:41.394361 16276 net.cpp:144] Setting up relu3
I0503 00:35:41.394366 16276 net.cpp:151] Top shape: 20 128 15 15 (576000)
I0503 00:35:41.394368 16276 net.cpp:159] Memory required for data: 24264240
I0503 00:35:41.394371 16276 layer_factory.hpp:77] Creating layer conv4
I0503 00:35:41.394379 16276 net.cpp:94] Creating Layer conv4
I0503 00:35:41.394382 16276 net.cpp:435] conv4 <- conv3
I0503 00:35:41.394387 16276 net.cpp:409] conv4 -> conv4
I0503 00:35:41.410080 16276 net.cpp:144] Setting up conv4
I0503 00:35:41.410099 16276 net.cpp:151] Top shape: 20 128 15 15 (576000)
I0503 00:35:41.410104 16276 net.cpp:159] Memory required for data: 26568240
I0503 00:35:41.410110 16276 layer_factory.hpp:77] Creating layer relu4
I0503 00:35:41.410117 16276 net.cpp:94] Creating Layer relu4
I0503 00:35:41.410121 16276 net.cpp:435] relu4 <- conv4
I0503 00:35:41.410126 16276 net.cpp:396] relu4 -> conv4 (in-place)
I0503 00:35:41.410133 16276 net.cpp:144] Setting up relu4
I0503 00:35:41.410138 16276 net.cpp:151] Top shape: 20 128 15 15 (576000)
I0503 00:35:41.410141 16276 net.cpp:159] Memory required for data: 28872240
I0503 00:35:41.410145 16276 layer_factory.hpp:77] Creating layer conv5
I0503 00:35:41.410152 16276 net.cpp:94] Creating Layer conv5
I0503 00:35:41.410156 16276 net.cpp:435] conv5 <- conv4
I0503 00:35:41.410166 16276 net.cpp:409] conv5 -> conv5
I0503 00:35:41.425357 16276 net.cpp:144] Setting up conv5
I0503 00:35:41.425377 16276 net.cpp:151] Top shape: 20 128 15 15 (576000)
I0503 00:35:41.425381 16276 net.cpp:159] Memory required for data: 31176240
I0503 00:35:41.425391 16276 layer_factory.hpp:77] Creating layer relu5
I0503 00:35:41.425398 16276 net.cpp:94] Creating Layer relu5
I0503 00:35:41.425402 16276 net.cpp:435] relu5 <- conv5
I0503 00:35:41.425406 16276 net.cpp:396] relu5 -> conv5 (in-place)
I0503 00:35:41.425415 16276 net.cpp:144] Setting up relu5
I0503 00:35:41.425418 16276 net.cpp:151] Top shape: 20 128 15 15 (576000)
I0503 00:35:41.425421 16276 net.cpp:159] Memory required for data: 33480240
I0503 00:35:41.425424 16276 layer_factory.hpp:77] Creating layer pool5
I0503 00:35:41.425431 16276 net.cpp:94] Creating Layer pool5
I0503 00:35:41.425433 16276 net.cpp:435] pool5 <- conv5
I0503 00:35:41.425437 16276 net.cpp:409] pool5 -> pool5
I0503 00:35:41.425484 16276 net.cpp:144] Setting up pool5
I0503 00:35:41.425492 16276 net.cpp:151] Top shape: 20 128 7 7 (125440)
I0503 00:35:41.425494 16276 net.cpp:159] Memory required for data: 33982000
I0503 00:35:41.425498 16276 layer_factory.hpp:77] Creating layer ip1
I0503 00:35:41.425504 16276 net.cpp:94] Creating Layer ip1
I0503 00:35:41.425508 16276 net.cpp:435] ip1 <- pool5
I0503 00:35:41.425513 16276 net.cpp:409] ip1 -> ip1
I0503 00:35:41.581024 16276 net.cpp:144] Setting up ip1
I0503 00:35:41.581058 16276 net.cpp:151] Top shape: 20 1024 (20480)
I0503 00:35:41.581063 16276 net.cpp:159] Memory required for data: 34063920
I0503 00:35:41.581073 16276 layer_factory.hpp:77] Creating layer ip2
I0503 00:35:41.581082 16276 net.cpp:94] Creating Layer ip2
I0503 00:35:41.581087 16276 net.cpp:435] ip2 <- ip1
I0503 00:35:41.581094 16276 net.cpp:409] ip2 -> ip2
I0503 00:35:41.594454 16276 net.cpp:144] Setting up ip2
I0503 00:35:41.594475 16276 net.cpp:151] Top shape: 20 512 (10240)
I0503 00:35:41.594480 16276 net.cpp:159] Memory required for data: 34104880
I0503 00:35:41.594486 16276 layer_factory.hpp:77] Creating layer ip3
I0503 00:35:41.594501 16276 net.cpp:94] Creating Layer ip3
I0503 00:35:41.594504 16276 net.cpp:435] ip3 <- ip2
I0503 00:35:41.594511 16276 net.cpp:409] ip3 -> ip3
I0503 00:35:41.595286 16276 net.cpp:144] Setting up ip3
I0503 00:35:41.595294 16276 net.cpp:151] Top shape: 20 50 (1000)
I0503 00:35:41.595297 16276 net.cpp:159] Memory required for data: 34108880
I0503 00:35:41.595304 16276 layer_factory.hpp:77] Creating layer ip3_ip3_0_split
I0503 00:35:41.595309 16276 net.cpp:94] Creating Layer ip3_ip3_0_split
I0503 00:35:41.595312 16276 net.cpp:435] ip3_ip3_0_split <- ip3
I0503 00:35:41.595317 16276 net.cpp:409] ip3_ip3_0_split -> ip3_ip3_0_split_0
I0503 00:35:41.595324 16276 net.cpp:409] ip3_ip3_0_split -> ip3_ip3_0_split_1
I0503 00:35:41.595371 16276 net.cpp:144] Setting up ip3_ip3_0_split
I0503 00:35:41.595377 16276 net.cpp:151] Top shape: 20 50 (1000)
I0503 00:35:41.595381 16276 net.cpp:151] Top shape: 20 50 (1000)
I0503 00:35:41.595383 16276 net.cpp:159] Memory required for data: 34116880
I0503 00:35:41.595386 16276 layer_factory.hpp:77] Creating layer accuracy
I0503 00:35:41.595392 16276 net.cpp:94] Creating Layer accuracy
I0503 00:35:41.595396 16276 net.cpp:435] accuracy <- ip3_ip3_0_split_0
I0503 00:35:41.595399 16276 net.cpp:435] accuracy <- label_intercept_1_split_0
I0503 00:35:41.595405 16276 net.cpp:409] accuracy -> accuracy
…
