…
I0501 06:29:04.933073 31991 net.cpp:323] The NetState phase (0) differed from the phase (1) specified by a rule in layer intercept
I0501 06:29:04.933090 31991 net.cpp:323] The NetState phase (0) differed from the phase (1) specified by a rule in layer loss
I0501 06:29:04.933181 31991 net.cpp:52] Initializing net from parameters: 
state {
  phase: TRAIN
}
layer {
  name: "parameters"
  type: "HDF5Data"
  top: "data"
  top: "label"
  include {
    phase: TRAIN
  }
  hdf5_data_param {
    source: "/home/purduethu/scratch/radon/d/deng106/CNNStatisticalModel/distributions/input/50_distributions_100_sample_size_train-parameters-path.txt"
    batch_size: 20
  }
}
layer {
  name: "conv1"
  type: "Convolution"
  bottom: "data"
  top: "conv1"
  param {
    lr_mult: 1
  }
  param {
    lr_mult: 2
  }
  convolution_param {
    num_output: 64
    pad: 2
    kernel_size: 5
    stride: 1
    weight_filler {
      type: "gaussian"
      std: 0.0001
    }
    bias_filler {
      type: "constant"
    }
  }
}
layer {
  name: "relu1"
  type: "ReLU"
  bottom: "conv1"
  top: "conv1"
}
layer {
  name: "conv2"
  type: "Convolution"
  bottom: "conv1"
  top: "conv2"
  param {
    lr_mult: 1
  }
  param {
    lr_mult: 2
  }
  convolution_param {
    num_output: 64
    pad: 2
    kernel_size: 5
    stride: 1
    weight_filler {
      type: "gaussian"
      std: 0.01
    }
    bias_filler {
      type: "constant"
    }
  }
}
layer {
  name: "relu2"
  type: "ReLU"
  bottom: "conv2"
  top: "conv2"
}
layer {
  name: "pool2"
  type: "Pooling"
  bottom: "conv2"
  top: "pool2"
  pooling_param {
    pool: MAX
    kernel_size: 3
    stride: 2
  }
}
layer {
  name: "conv3"
  type: "Convolution"
  bottom: "pool2"
  top: "conv3"
  param {
    lr_mult: 1
  }
  param {
    lr_mult: 2
  }
  convolution_param {
    num_output: 128
    pad: 2
    kernel_size: 5
    stride: 1
    weight_filler {
      type: "gaussian"
      std: 0.01
    }
    bias_filler {
      type: "constant"
    }
  }
}
layer {
  name: "relu3"
  type: "ReLU"
  bottom: "conv3"
  top: "conv3"
}
layer {
  name: "conv4"
  type: "Convolution"
  bottom: "conv3"
  top: "conv4"
  param {
    lr_mult: 1
  }
  param {
    lr_mult: 2
  }
  convolution_param {
    num_output: 128
    pad: 2
    kernel_size: 5
    stride: 1
    weight_filler {
      type: "gaussian"
      std: 0.01
    }
    bias_filler {
      type: "constant"
    }
  }
}
layer {
  name: "relu4"
  type: "ReLU"
  bottom: "conv4"
  top: "conv4"
}
layer {
  name: "conv5"
  type: "Convolution"
  bottom: "conv4"
  top: "conv5"
  param {
    lr_mult: 1
  }
  param {
    lr_mult: 2
  }
  convolution_param {
    num_output: 128
    pad: 2
    kernel_size: 5
    stride: 1
    weight_filler {
      type: "gaussian"
      std: 0.01
    }
    bias_filler {
      type: "constant"
    }
  }
}
layer {
  name: "relu5"
  type: "ReLU"
  bottom: "conv5"
  top: "conv5"
}
layer {
  name: "pool5"
  type: "Pooling"
  bottom: "conv5"
  top: "pool5"
  pooling_param {
    pool: AVE
    kernel_size: 3
    stride: 2
  }
}
layer {
  name: "ip1"
  type: "InnerProduct"
  bottom: "pool5"
  top: "ip1"
  param {
    lr_mult: 1
  }
  param {
    lr_mult: 2
  }
  inner_product_param {
    num_output: 1024
    weight_filler {
      type: "gaussian"
      std: 0.1
    }
    bias_filler {
      type: "constant"
    }
  }
}
layer {
  name: "ip2"
  type: "InnerProduct"
  bottom: "ip1"
  top: "ip2"
  param {
    lr_mult: 1
  }
  param {
    lr_mult: 2
  }
  inner_product_param {
    num_output: 512
    weight_filler {
      type: "gaussian"
      std: 0.1
    }
    bias_filler {
      type: "constant"
    }
  }
}
layer {
  name: "ip3"
  type: "InnerProduct"
  bottom: "ip2"
  top: "ip3"
  param {
    lr_mult: 1
  }
  param {
    lr_mult: 2
  }
  inner_product_param {
    num_output: 1
    weight_filler {
      type: "gaussian"
      std: 0.1
    }
    bias_filler {
      type: "constant"
    }
  }
}
layer {
  name: "loss"
  type: "HuberLoss"
  bottom: "ip3"
  bottom: "label"
  top: "loss"
  include {
    phase: TRAIN
  }
}
I0501 06:29:04.933254 31991 layer_factory.hpp:77] Creating layer parameters
I0501 06:29:04.933269 31991 net.cpp:94] Creating Layer parameters
I0501 06:29:04.933275 31991 net.cpp:409] parameters -> data
I0501 06:29:04.933295 31991 net.cpp:409] parameters -> label
I0501 06:29:04.933305 31991 hdf5_data_layer.cpp:79] Loading list of HDF5 filenames from: /home/purduethu/scratch/radon/d/deng106/CNNStatisticalModel/distributions/input/50_distributions_100_sample_size_train-parameters-path.txt
I0501 06:29:04.933327 31991 hdf5_data_layer.cpp:93] Number of HDF5 files: 1
I0501 06:29:04.933902 31991 hdf5.cpp:32] Datatype class: H5T_FLOAT
I0501 06:29:05.097975 31991 net.cpp:144] Setting up parameters
I0501 06:29:05.098006 31991 net.cpp:151] Top shape: 20 1 10 10 (2000)
I0501 06:29:05.098011 31991 net.cpp:151] Top shape: 20 (20)
I0501 06:29:05.098016 31991 net.cpp:159] Memory required for data: 8080
I0501 06:29:05.098022 31991 layer_factory.hpp:77] Creating layer conv1
I0501 06:29:05.098047 31991 net.cpp:94] Creating Layer conv1
I0501 06:29:05.098052 31991 net.cpp:435] conv1 <- data
I0501 06:29:05.098062 31991 net.cpp:409] conv1 -> conv1
I0501 06:29:05.101863 31991 net.cpp:144] Setting up conv1
I0501 06:29:05.101881 31991 net.cpp:151] Top shape: 20 64 10 10 (128000)
I0501 06:29:05.101886 31991 net.cpp:159] Memory required for data: 520080
I0501 06:29:05.101898 31991 layer_factory.hpp:77] Creating layer relu1
I0501 06:29:05.101907 31991 net.cpp:94] Creating Layer relu1
I0501 06:29:05.101910 31991 net.cpp:435] relu1 <- conv1
I0501 06:29:05.101915 31991 net.cpp:396] relu1 -> conv1 (in-place)
I0501 06:29:05.101933 31991 net.cpp:144] Setting up relu1
I0501 06:29:05.101939 31991 net.cpp:151] Top shape: 20 64 10 10 (128000)
I0501 06:29:05.101943 31991 net.cpp:159] Memory required for data: 1032080
I0501 06:29:05.101945 31991 layer_factory.hpp:77] Creating layer conv2
I0501 06:29:05.101953 31991 net.cpp:94] Creating Layer conv2
I0501 06:29:05.101956 31991 net.cpp:435] conv2 <- conv1
I0501 06:29:05.101961 31991 net.cpp:409] conv2 -> conv2
I0501 06:29:05.107759 31991 net.cpp:144] Setting up conv2
I0501 06:29:05.107774 31991 net.cpp:151] Top shape: 20 64 10 10 (128000)
I0501 06:29:05.107777 31991 net.cpp:159] Memory required for data: 1544080
I0501 06:29:05.107784 31991 layer_factory.hpp:77] Creating layer relu2
I0501 06:29:05.107791 31991 net.cpp:94] Creating Layer relu2
I0501 06:29:05.107795 31991 net.cpp:435] relu2 <- conv2
I0501 06:29:05.107800 31991 net.cpp:396] relu2 -> conv2 (in-place)
I0501 06:29:05.107807 31991 net.cpp:144] Setting up relu2
I0501 06:29:05.107811 31991 net.cpp:151] Top shape: 20 64 10 10 (128000)
I0501 06:29:05.107815 31991 net.cpp:159] Memory required for data: 2056080
I0501 06:29:05.107818 31991 layer_factory.hpp:77] Creating layer pool2
I0501 06:29:05.107825 31991 net.cpp:94] Creating Layer pool2
I0501 06:29:05.107836 31991 net.cpp:435] pool2 <- conv2
I0501 06:29:05.107841 31991 net.cpp:409] pool2 -> pool2
I0501 06:29:05.107882 31991 net.cpp:144] Setting up pool2
I0501 06:29:05.107890 31991 net.cpp:151] Top shape: 20 64 5 5 (32000)
I0501 06:29:05.107894 31991 net.cpp:159] Memory required for data: 2184080
I0501 06:29:05.107897 31991 layer_factory.hpp:77] Creating layer conv3
I0501 06:29:05.107905 31991 net.cpp:94] Creating Layer conv3
I0501 06:29:05.107908 31991 net.cpp:435] conv3 <- pool2
I0501 06:29:05.107913 31991 net.cpp:409] conv3 -> conv3
I0501 06:29:05.116020 31991 net.cpp:144] Setting up conv3
I0501 06:29:05.116036 31991 net.cpp:151] Top shape: 20 128 5 5 (64000)
I0501 06:29:05.116040 31991 net.cpp:159] Memory required for data: 2440080
I0501 06:29:05.116050 31991 layer_factory.hpp:77] Creating layer relu3
I0501 06:29:05.116055 31991 net.cpp:94] Creating Layer relu3
I0501 06:29:05.116060 31991 net.cpp:435] relu3 <- conv3
I0501 06:29:05.116065 31991 net.cpp:396] relu3 -> conv3 (in-place)
I0501 06:29:05.116071 31991 net.cpp:144] Setting up relu3
I0501 06:29:05.116076 31991 net.cpp:151] Top shape: 20 128 5 5 (64000)
I0501 06:29:05.116078 31991 net.cpp:159] Memory required for data: 2696080
I0501 06:29:05.116081 31991 layer_factory.hpp:77] Creating layer conv4
I0501 06:29:05.116091 31991 net.cpp:94] Creating Layer conv4
I0501 06:29:05.116094 31991 net.cpp:435] conv4 <- conv3
I0501 06:29:05.116098 31991 net.cpp:409] conv4 -> conv4
I0501 06:29:05.136298 31991 net.cpp:144] Setting up conv4
I0501 06:29:05.136317 31991 net.cpp:151] Top shape: 20 128 5 5 (64000)
I0501 06:29:05.136322 31991 net.cpp:159] Memory required for data: 2952080
I0501 06:29:05.136328 31991 layer_factory.hpp:77] Creating layer relu4
I0501 06:29:05.136335 31991 net.cpp:94] Creating Layer relu4
I0501 06:29:05.136339 31991 net.cpp:435] relu4 <- conv4
I0501 06:29:05.136344 31991 net.cpp:396] relu4 -> conv4 (in-place)
I0501 06:29:05.136353 31991 net.cpp:144] Setting up relu4
I0501 06:29:05.136356 31991 net.cpp:151] Top shape: 20 128 5 5 (64000)
I0501 06:29:05.136359 31991 net.cpp:159] Memory required for data: 3208080
I0501 06:29:05.136363 31991 layer_factory.hpp:77] Creating layer conv5
I0501 06:29:05.136370 31991 net.cpp:94] Creating Layer conv5
I0501 06:29:05.136374 31991 net.cpp:435] conv5 <- conv4
I0501 06:29:05.136379 31991 net.cpp:409] conv5 -> conv5
I0501 06:29:05.151031 31991 net.cpp:144] Setting up conv5
I0501 06:29:05.151049 31991 net.cpp:151] Top shape: 20 128 5 5 (64000)
I0501 06:29:05.151053 31991 net.cpp:159] Memory required for data: 3464080
I0501 06:29:05.151063 31991 layer_factory.hpp:77] Creating layer relu5
I0501 06:29:05.151069 31991 net.cpp:94] Creating Layer relu5
I0501 06:29:05.151073 31991 net.cpp:435] relu5 <- conv5
I0501 06:29:05.151078 31991 net.cpp:396] relu5 -> conv5 (in-place)
I0501 06:29:05.151085 31991 net.cpp:144] Setting up relu5
I0501 06:29:05.151090 31991 net.cpp:151] Top shape: 20 128 5 5 (64000)
I0501 06:29:05.151093 31991 net.cpp:159] Memory required for data: 3720080
I0501 06:29:05.151098 31991 layer_factory.hpp:77] Creating layer pool5
I0501 06:29:05.151103 31991 net.cpp:94] Creating Layer pool5
I0501 06:29:05.151105 31991 net.cpp:435] pool5 <- conv5
I0501 06:29:05.151110 31991 net.cpp:409] pool5 -> pool5
I0501 06:29:05.151149 31991 net.cpp:144] Setting up pool5
I0501 06:29:05.151155 31991 net.cpp:151] Top shape: 20 128 2 2 (10240)
I0501 06:29:05.151160 31991 net.cpp:159] Memory required for data: 3761040
I0501 06:29:05.151162 31991 layer_factory.hpp:77] Creating layer ip1
I0501 06:29:05.151172 31991 net.cpp:94] Creating Layer ip1
I0501 06:29:05.151176 31991 net.cpp:435] ip1 <- pool5
I0501 06:29:05.151181 31991 net.cpp:409] ip1 -> ip1
I0501 06:29:05.166718 31991 net.cpp:144] Setting up ip1
I0501 06:29:05.166739 31991 net.cpp:151] Top shape: 20 1024 (20480)
I0501 06:29:05.166744 31991 net.cpp:159] Memory required for data: 3842960
I0501 06:29:05.166750 31991 layer_factory.hpp:77] Creating layer ip2
I0501 06:29:05.166759 31991 net.cpp:94] Creating Layer ip2
I0501 06:29:05.166762 31991 net.cpp:435] ip2 <- ip1
I0501 06:29:05.166774 31991 net.cpp:409] ip2 -> ip2
I0501 06:29:05.179687 31991 net.cpp:144] Setting up ip2
I0501 06:29:05.179703 31991 net.cpp:151] Top shape: 20 512 (10240)
I0501 06:29:05.179708 31991 net.cpp:159] Memory required for data: 3883920
I0501 06:29:05.179714 31991 layer_factory.hpp:77] Creating layer ip3
I0501 06:29:05.179720 31991 net.cpp:94] Creating Layer ip3
I0501 06:29:05.179725 31991 net.cpp:435] ip3 <- ip2
I0501 06:29:05.179730 31991 net.cpp:409] ip3 -> ip3
I0501 06:29:05.179805 31991 net.cpp:144] Setting up ip3
I0501 06:29:05.179811 31991 net.cpp:151] Top shape: 20 1 (20)
I0501 06:29:05.179823 31991 net.cpp:159] Memory required for data: 3884000
I0501 06:29:05.179828 31991 layer_factory.hpp:77] Creating layer loss
I0501 06:29:05.179836 31991 net.cpp:94] Creating Layer loss
I0501 06:29:05.179841 31991 net.cpp:435] loss <- ip3
I0501 06:29:05.179844 31991 net.cpp:435] loss <- label
I0501 06:29:05.179849 31991 net.cpp:409] loss -> loss
I0501 06:29:05.179890 31991 net.cpp:144] Setting up loss
…
