…
I0506 03:09:48.020428 12576 net.cpp:323] The NetState phase (0) differed from the phase (1) specified by a rule in layer intercept
I0506 03:09:48.020444 12576 net.cpp:323] The NetState phase (0) differed from the phase (1) specified by a rule in layer loss
I0506 03:09:48.020527 12576 net.cpp:52] Initializing net from parameters: 
state {
  phase: TRAIN
}
layer {
  name: "parameters"
  type: "HDF5Data"
  top: "data"
  top: "label"
  include {
    phase: TRAIN
  }
  hdf5_data_param {
    source: "/home/purduethu/scratch/radon/d/deng106/CNNStatisticalModel/distributions/input/50_distributions_100_sample_size_train-parameters-path.txt"
    batch_size: 20
  }
}
layer {
  name: "conv1"
  type: "Convolution"
  bottom: "data"
  top: "conv1"
  param {
    lr_mult: 1
  }
  param {
    lr_mult: 2
  }
  convolution_param {
    num_output: 64
    pad: 2
    kernel_size: 5
    stride: 1
    weight_filler {
      type: "gaussian"
      std: 0.0001
    }
    bias_filler {
      type: "constant"
    }
  }
}
layer {
  name: "relu1"
  type: "ReLU"
  bottom: "conv1"
  top: "conv1"
}
layer {
  name: "conv2"
  type: "Convolution"
  bottom: "conv1"
  top: "conv2"
  param {
    lr_mult: 1
  }
  param {
    lr_mult: 2
  }
  convolution_param {
    num_output: 64
    pad: 2
    kernel_size: 5
    stride: 1
    weight_filler {
      type: "gaussian"
      std: 0.01
    }
    bias_filler {
      type: "constant"
    }
  }
}
layer {
  name: "relu2"
  type: "ReLU"
  bottom: "conv2"
  top: "conv2"
}
layer {
  name: "pool2"
  type: "Pooling"
  bottom: "conv2"
  top: "pool2"
  pooling_param {
    pool: MAX
    kernel_size: 3
    stride: 2
  }
}
layer {
  name: "conv3"
  type: "Convolution"
  bottom: "pool2"
  top: "conv3"
  param {
    lr_mult: 1
  }
  param {
    lr_mult: 2
  }
  convolution_param {
    num_output: 128
    pad: 2
    kernel_size: 5
    stride: 1
    weight_filler {
      type: "gaussian"
      std: 0.01
    }
    bias_filler {
      type: "constant"
    }
  }
}
layer {
  name: "relu3"
  type: "ReLU"
  bottom: "conv3"
  top: "conv3"
}
layer {
  name: "conv4"
  type: "Convolution"
  bottom: "conv3"
  top: "conv4"
  param {
    lr_mult: 1
  }
  param {
    lr_mult: 2
  }
  convolution_param {
    num_output: 128
    pad: 2
    kernel_size: 5
    stride: 1
    weight_filler {
      type: "gaussian"
      std: 0.01
    }
    bias_filler {
      type: "constant"
    }
  }
}
layer {
  name: "relu4"
  type: "ReLU"
  bottom: "conv4"
  top: "conv4"
}
layer {
  name: "conv5"
  type: "Convolution"
  bottom: "conv4"
  top: "conv5"
  param {
    lr_mult: 1
  }
  param {
    lr_mult: 2
  }
  convolution_param {
    num_output: 128
    pad: 2
    kernel_size: 5
    stride: 1
    weight_filler {
      type: "gaussian"
      std: 0.01
    }
    bias_filler {
      type: "constant"
    }
  }
}
layer {
  name: "relu5"
  type: "ReLU"
  bottom: "conv5"
  top: "conv5"
}
layer {
  name: "pool5"
  type: "Pooling"
  bottom: "conv5"
  top: "pool5"
  pooling_param {
    pool: AVE
    kernel_size: 3
    stride: 2
  }
}
layer {
  name: "ip1"
  type: "InnerProduct"
  bottom: "pool5"
  top: "ip1"
  param {
    lr_mult: 1
  }
  param {
    lr_mult: 2
  }
  inner_product_param {
    num_output: 1024
    weight_filler {
      type: "gaussian"
      std: 0.1
    }
    bias_filler {
      type: "constant"
    }
  }
}
layer {
  name: "ip2"
  type: "InnerProduct"
  bottom: "ip1"
  top: "ip2"
  param {
    lr_mult: 1
  }
  param {
    lr_mult: 2
  }
  inner_product_param {
    num_output: 512
    weight_filler {
      type: "gaussian"
      std: 0.1
    }
    bias_filler {
      type: "constant"
    }
  }
}
layer {
  name: "ip3"
  type: "InnerProduct"
  bottom: "ip2"
  top: "ip3"
  param {
    lr_mult: 1
  }
  param {
    lr_mult: 2
  }
  inner_product_param {
    num_output: 1
    weight_filler {
      type: "gaussian"
      std: 0.1
    }
    bias_filler {
      type: "constant"
    }
  }
}
layer {
  name: "loss"
  type: "HuberLoss"
  bottom: "ip3"
  bottom: "label"
  top: "loss"
  include {
    phase: TRAIN
  }
}
I0506 03:09:48.020596 12576 layer_factory.hpp:77] Creating layer parameters
I0506 03:09:48.020613 12576 net.cpp:94] Creating Layer parameters
I0506 03:09:48.020618 12576 net.cpp:409] parameters -> data
I0506 03:09:48.020627 12576 net.cpp:409] parameters -> label
I0506 03:09:48.020634 12576 hdf5_data_layer.cpp:79] Loading list of HDF5 filenames from: /home/purduethu/scratch/radon/d/deng106/CNNStatisticalModel/distributions/input/50_distributions_100_sample_size_train-parameters-path.txt
I0506 03:09:48.020649 12576 hdf5_data_layer.cpp:93] Number of HDF5 files: 1
I0506 03:09:48.021174 12576 hdf5.cpp:32] Datatype class: H5T_FLOAT
I0506 03:09:48.182819 12576 net.cpp:144] Setting up parameters
I0506 03:09:48.182847 12576 net.cpp:151] Top shape: 20 1 10 10 (2000)
I0506 03:09:48.182852 12576 net.cpp:151] Top shape: 20 (20)
I0506 03:09:48.182855 12576 net.cpp:159] Memory required for data: 8080
I0506 03:09:48.182862 12576 layer_factory.hpp:77] Creating layer conv1
I0506 03:09:48.182876 12576 net.cpp:94] Creating Layer conv1
I0506 03:09:48.182880 12576 net.cpp:435] conv1 <- data
I0506 03:09:48.182886 12576 net.cpp:409] conv1 -> conv1
I0506 03:09:48.187136 12576 net.cpp:144] Setting up conv1
I0506 03:09:48.187150 12576 net.cpp:151] Top shape: 20 64 10 10 (128000)
I0506 03:09:48.187155 12576 net.cpp:159] Memory required for data: 520080
I0506 03:09:48.187165 12576 layer_factory.hpp:77] Creating layer relu1
I0506 03:09:48.187171 12576 net.cpp:94] Creating Layer relu1
I0506 03:09:48.187175 12576 net.cpp:435] relu1 <- conv1
I0506 03:09:48.187178 12576 net.cpp:396] relu1 -> conv1 (in-place)
I0506 03:09:48.187186 12576 net.cpp:144] Setting up relu1
I0506 03:09:48.187191 12576 net.cpp:151] Top shape: 20 64 10 10 (128000)
I0506 03:09:48.187193 12576 net.cpp:159] Memory required for data: 1032080
I0506 03:09:48.187196 12576 layer_factory.hpp:77] Creating layer conv2
I0506 03:09:48.187204 12576 net.cpp:94] Creating Layer conv2
I0506 03:09:48.187207 12576 net.cpp:435] conv2 <- conv1
I0506 03:09:48.187212 12576 net.cpp:409] conv2 -> conv2
I0506 03:09:48.193477 12576 net.cpp:144] Setting up conv2
I0506 03:09:48.193491 12576 net.cpp:151] Top shape: 20 64 10 10 (128000)
I0506 03:09:48.193495 12576 net.cpp:159] Memory required for data: 1544080
I0506 03:09:48.193503 12576 layer_factory.hpp:77] Creating layer relu2
I0506 03:09:48.193509 12576 net.cpp:94] Creating Layer relu2
I0506 03:09:48.193513 12576 net.cpp:435] relu2 <- conv2
I0506 03:09:48.193517 12576 net.cpp:396] relu2 -> conv2 (in-place)
I0506 03:09:48.193524 12576 net.cpp:144] Setting up relu2
I0506 03:09:48.193528 12576 net.cpp:151] Top shape: 20 64 10 10 (128000)
I0506 03:09:48.193531 12576 net.cpp:159] Memory required for data: 2056080
I0506 03:09:48.193534 12576 layer_factory.hpp:77] Creating layer pool2
I0506 03:09:48.193539 12576 net.cpp:94] Creating Layer pool2
I0506 03:09:48.193542 12576 net.cpp:435] pool2 <- conv2
I0506 03:09:48.193547 12576 net.cpp:409] pool2 -> pool2
I0506 03:09:48.193598 12576 net.cpp:144] Setting up pool2
I0506 03:09:48.193605 12576 net.cpp:151] Top shape: 20 64 5 5 (32000)
I0506 03:09:48.193608 12576 net.cpp:159] Memory required for data: 2184080
I0506 03:09:48.193611 12576 layer_factory.hpp:77] Creating layer conv3
I0506 03:09:48.193619 12576 net.cpp:94] Creating Layer conv3
I0506 03:09:48.193629 12576 net.cpp:435] conv3 <- pool2
I0506 03:09:48.193634 12576 net.cpp:409] conv3 -> conv3
I0506 03:09:48.201987 12576 net.cpp:144] Setting up conv3
I0506 03:09:48.202002 12576 net.cpp:151] Top shape: 20 128 5 5 (64000)
I0506 03:09:48.202004 12576 net.cpp:159] Memory required for data: 2440080
I0506 03:09:48.202013 12576 layer_factory.hpp:77] Creating layer relu3
I0506 03:09:48.202018 12576 net.cpp:94] Creating Layer relu3
I0506 03:09:48.202023 12576 net.cpp:435] relu3 <- conv3
I0506 03:09:48.202026 12576 net.cpp:396] relu3 -> conv3 (in-place)
I0506 03:09:48.202033 12576 net.cpp:144] Setting up relu3
I0506 03:09:48.202038 12576 net.cpp:151] Top shape: 20 128 5 5 (64000)
I0506 03:09:48.202040 12576 net.cpp:159] Memory required for data: 2696080
I0506 03:09:48.202044 12576 layer_factory.hpp:77] Creating layer conv4
I0506 03:09:48.202051 12576 net.cpp:94] Creating Layer conv4
I0506 03:09:48.202054 12576 net.cpp:435] conv4 <- conv3
I0506 03:09:48.202059 12576 net.cpp:409] conv4 -> conv4
I0506 03:09:48.217218 12576 net.cpp:144] Setting up conv4
I0506 03:09:48.217232 12576 net.cpp:151] Top shape: 20 128 5 5 (64000)
I0506 03:09:48.217236 12576 net.cpp:159] Memory required for data: 2952080
I0506 03:09:48.217242 12576 layer_factory.hpp:77] Creating layer relu4
I0506 03:09:48.217248 12576 net.cpp:94] Creating Layer relu4
I0506 03:09:48.217252 12576 net.cpp:435] relu4 <- conv4
I0506 03:09:48.217257 12576 net.cpp:396] relu4 -> conv4 (in-place)
I0506 03:09:48.217263 12576 net.cpp:144] Setting up relu4
I0506 03:09:48.217267 12576 net.cpp:151] Top shape: 20 128 5 5 (64000)
I0506 03:09:48.217270 12576 net.cpp:159] Memory required for data: 3208080
I0506 03:09:48.217273 12576 layer_factory.hpp:77] Creating layer conv5
I0506 03:09:48.217280 12576 net.cpp:94] Creating Layer conv5
I0506 03:09:48.217283 12576 net.cpp:435] conv5 <- conv4
I0506 03:09:48.217288 12576 net.cpp:409] conv5 -> conv5
I0506 03:09:48.231874 12576 net.cpp:144] Setting up conv5
I0506 03:09:48.231889 12576 net.cpp:151] Top shape: 20 128 5 5 (64000)
I0506 03:09:48.231892 12576 net.cpp:159] Memory required for data: 3464080
I0506 03:09:48.231900 12576 layer_factory.hpp:77] Creating layer relu5
I0506 03:09:48.231906 12576 net.cpp:94] Creating Layer relu5
I0506 03:09:48.231909 12576 net.cpp:435] relu5 <- conv5
I0506 03:09:48.231914 12576 net.cpp:396] relu5 -> conv5 (in-place)
I0506 03:09:48.231920 12576 net.cpp:144] Setting up relu5
I0506 03:09:48.231925 12576 net.cpp:151] Top shape: 20 128 5 5 (64000)
I0506 03:09:48.231927 12576 net.cpp:159] Memory required for data: 3720080
I0506 03:09:48.231930 12576 layer_factory.hpp:77] Creating layer pool5
I0506 03:09:48.231935 12576 net.cpp:94] Creating Layer pool5
I0506 03:09:48.231938 12576 net.cpp:435] pool5 <- conv5
I0506 03:09:48.231942 12576 net.cpp:409] pool5 -> pool5
I0506 03:09:48.231978 12576 net.cpp:144] Setting up pool5
I0506 03:09:48.231986 12576 net.cpp:151] Top shape: 20 128 2 2 (10240)
I0506 03:09:48.231988 12576 net.cpp:159] Memory required for data: 3761040
I0506 03:09:48.231992 12576 layer_factory.hpp:77] Creating layer ip1
I0506 03:09:48.232002 12576 net.cpp:94] Creating Layer ip1
I0506 03:09:48.232005 12576 net.cpp:435] ip1 <- pool5
I0506 03:09:48.232009 12576 net.cpp:409] ip1 -> ip1
I0506 03:09:48.246064 12576 net.cpp:144] Setting up ip1
I0506 03:09:48.246078 12576 net.cpp:151] Top shape: 20 1024 (20480)
I0506 03:09:48.246081 12576 net.cpp:159] Memory required for data: 3842960
I0506 03:09:48.246088 12576 layer_factory.hpp:77] Creating layer ip2
I0506 03:09:48.246094 12576 net.cpp:94] Creating Layer ip2
I0506 03:09:48.246098 12576 net.cpp:435] ip2 <- ip1
I0506 03:09:48.246103 12576 net.cpp:409] ip2 -> ip2
I0506 03:09:48.259353 12576 net.cpp:144] Setting up ip2
I0506 03:09:48.259366 12576 net.cpp:151] Top shape: 20 512 (10240)
I0506 03:09:48.259371 12576 net.cpp:159] Memory required for data: 3883920
I0506 03:09:48.259377 12576 layer_factory.hpp:77] Creating layer ip3
I0506 03:09:48.259382 12576 net.cpp:94] Creating Layer ip3
I0506 03:09:48.259385 12576 net.cpp:435] ip3 <- ip2
I0506 03:09:48.259395 12576 net.cpp:409] ip3 -> ip3
I0506 03:09:48.259507 12576 net.cpp:144] Setting up ip3
I0506 03:09:48.259516 12576 net.cpp:151] Top shape: 20 1 (20)
I0506 03:09:48.259518 12576 net.cpp:159] Memory required for data: 3884000
I0506 03:09:48.259523 12576 layer_factory.hpp:77] Creating layer loss
I0506 03:09:48.259534 12576 net.cpp:94] Creating Layer loss
I0506 03:09:48.259538 12576 net.cpp:435] loss <- ip3
I0506 03:09:48.259542 12576 net.cpp:435] loss <- label
I0506 03:09:48.259547 12576 net.cpp:409] loss -> loss
I0506 03:09:48.259595 12576 net.cpp:144] Setting up loss
…
I0506 03:09:48.366093 12576 net.cpp:323] The NetState phase (0) differed from the phase (1) specified by a rule in layer intercept
I0506 03:09:48.366109 12576 net.cpp:323] The NetState phase (0) differed from the phase (1) specified by a rule in layer accuracy
I0506 03:09:48.366197 12576 net.cpp:52] Initializing net from parameters: 
state {
  phase: TRAIN
}
layer {
  name: "parameters"
  type: "HDF5Data"
  top: "data"
  top: "label"
  include {
    phase: TRAIN
  }
  hdf5_data_param {
    source: "/home/purduethu/scratch/radon/d/deng106/CNNStatisticalModel/distributions/input/50_distributions_100_sample_size_train-distributions-path.txt"
    batch_size: 20
  }
}
layer {
  name: "conv1"
  type: "Convolution"
  bottom: "data"
  top: "conv1"
  param {
    lr_mult: 1
  }
  param {
    lr_mult: 2
  }
  convolution_param {
    num_output: 64
    pad: 2
    kernel_size: 5
    stride: 1
    weight_filler {
      type: "gaussian"
      std: 0.0001
    }
    bias_filler {
      type: "constant"
    }
  }
}
layer {
  name: "relu1"
  type: "ReLU"
  bottom: "conv1"
  top: "conv1"
}
layer {
  name: "conv2"
  type: "Convolution"
  bottom: "conv1"
  top: "conv2"
  param {
    lr_mult: 1
  }
  param {
    lr_mult: 2
  }
  convolution_param {
    num_output: 64
    pad: 2
    kernel_size: 5
    stride: 1
    weight_filler {
      type: "gaussian"
      std: 0.01
    }
    bias_filler {
      type: "constant"
    }
  }
}
layer {
  name: "relu2"
  type: "ReLU"
  bottom: "conv2"
  top: "conv2"
}
layer {
  name: "pool2"
  type: "Pooling"
  bottom: "conv2"
  top: "pool2"
  pooling_param {
    pool: MAX
    kernel_size: 3
    stride: 2
  }
}
layer {
  name: "conv3"
  type: "Convolution"
  bottom: "pool2"
  top: "conv3"
  param {
    lr_mult: 1
  }
  param {
    lr_mult: 2
  }
  convolution_param {
    num_output: 128
    pad: 2
    kernel_size: 5
    stride: 1
    weight_filler {
      type: "gaussian"
      std: 0.01
    }
    bias_filler {
      type: "constant"
    }
  }
}
layer {
  name: "relu3"
  type: "ReLU"
  bottom: "conv3"
  top: "conv3"
}
layer {
  name: "conv4"
  type: "Convolution"
  bottom: "conv3"
  top: "conv4"
  param {
    lr_mult: 1
  }
  param {
    lr_mult: 2
  }
  convolution_param {
    num_output: 128
    pad: 2
    kernel_size: 5
    stride: 1
    weight_filler {
      type: "gaussian"
      std: 0.01
    }
    bias_filler {
      type: "constant"
    }
  }
}
layer {
  name: "relu4"
  type: "ReLU"
  bottom: "conv4"
  top: "conv4"
}
layer {
  name: "conv5"
  type: "Convolution"
  bottom: "conv4"
  top: "conv5"
  param {
    lr_mult: 1
  }
  param {
    lr_mult: 2
  }
  convolution_param {
    num_output: 128
    pad: 2
    kernel_size: 5
    stride: 1
    weight_filler {
      type: "gaussian"
      std: 0.01
    }
    bias_filler {
      type: "constant"
    }
  }
}
layer {
  name: "relu5"
  type: "ReLU"
  bottom: "conv5"
  top: "conv5"
}
layer {
  name: "pool5"
  type: "Pooling"
  bottom: "conv5"
  top: "pool5"
  pooling_param {
    pool: AVE
    kernel_size: 3
    stride: 2
  }
}
layer {
  name: "ip1"
  type: "InnerProduct"
  bottom: "pool5"
  top: "ip1"
  param {
    lr_mult: 1
  }
  param {
    lr_mult: 2
  }
  inner_product_param {
    num_output: 1024
    weight_filler {
      type: "gaussian"
      std: 0.1
    }
    bias_filler {
      type: "constant"
    }
  }
}
layer {
  name: "ip2"
  type: "InnerProduct"
  bottom: "ip1"
  top: "ip2"
  param {
    lr_mult: 1
  }
  param {
    lr_mult: 2
  }
  inner_product_param {
    num_output: 512
    weight_filler {
      type: "gaussian"
      std: 0.1
    }
    bias_filler {
      type: "constant"
    }
  }
}
layer {
  name: "ip3"
  type: "InnerProduct"
  bottom: "ip2"
  top: "ip3"
  param {
    lr_mult: 1
  }
  param {
    lr_mult: 2
  }
  inner_product_param {
    num_output: 50
    weight_filler {
      type: "gaussian"
      std: 0.1
    }
    bias_filler {
      type: "constant"
    }
  }
}
layer {
  name: "loss"
  type: "SoftmaxWithLoss"
  bottom: "ip3"
  bottom: "label"
  top: "loss"
}
I0506 03:09:48.366248 12576 layer_factory.hpp:77] Creating layer parameters
I0506 03:09:48.366257 12576 net.cpp:94] Creating Layer parameters
I0506 03:09:48.366261 12576 net.cpp:409] parameters -> data
I0506 03:09:48.366267 12576 net.cpp:409] parameters -> label
I0506 03:09:48.366272 12576 hdf5_data_layer.cpp:79] Loading list of HDF5 filenames from: /home/purduethu/scratch/radon/d/deng106/CNNStatisticalModel/distributions/input/50_distributions_100_sample_size_train-distributions-path.txt
I0506 03:09:48.366288 12576 hdf5_data_layer.cpp:93] Number of HDF5 files: 1
I0506 03:09:48.521586 12576 hdf5.cpp:35] Datatype class: H5T_INTEGER
I0506 03:09:48.524617 12576 net.cpp:144] Setting up parameters
I0506 03:09:48.524634 12576 net.cpp:151] Top shape: 20 1 10 10 (2000)
I0506 03:09:48.524638 12576 net.cpp:151] Top shape: 20 (20)
I0506 03:09:48.524642 12576 net.cpp:159] Memory required for data: 8080
I0506 03:09:48.524648 12576 layer_factory.hpp:77] Creating layer conv1
I0506 03:09:48.524663 12576 net.cpp:94] Creating Layer conv1
I0506 03:09:48.524667 12576 net.cpp:435] conv1 <- data
I0506 03:09:48.524673 12576 net.cpp:409] conv1 -> conv1
I0506 03:09:48.526615 12576 net.cpp:144] Setting up conv1
I0506 03:09:48.526628 12576 net.cpp:151] Top shape: 20 64 10 10 (128000)
I0506 03:09:48.526631 12576 net.cpp:159] Memory required for data: 520080
I0506 03:09:48.526641 12576 layer_factory.hpp:77] Creating layer relu1
I0506 03:09:48.526648 12576 net.cpp:94] Creating Layer relu1
I0506 03:09:48.526651 12576 net.cpp:435] relu1 <- conv1
I0506 03:09:48.526655 12576 net.cpp:396] relu1 -> conv1 (in-place)
I0506 03:09:48.526664 12576 net.cpp:144] Setting up relu1
I0506 03:09:48.526667 12576 net.cpp:151] Top shape: 20 64 10 10 (128000)
I0506 03:09:48.526670 12576 net.cpp:159] Memory required for data: 1032080
I0506 03:09:48.526674 12576 layer_factory.hpp:77] Creating layer conv2
I0506 03:09:48.526680 12576 net.cpp:94] Creating Layer conv2
I0506 03:09:48.526684 12576 net.cpp:435] conv2 <- conv1
I0506 03:09:48.526688 12576 net.cpp:409] conv2 -> conv2
I0506 03:09:48.532232 12576 net.cpp:144] Setting up conv2
I0506 03:09:48.532246 12576 net.cpp:151] Top shape: 20 64 10 10 (128000)
I0506 03:09:48.532250 12576 net.cpp:159] Memory required for data: 1544080
I0506 03:09:48.532258 12576 layer_factory.hpp:77] Creating layer relu2
I0506 03:09:48.532263 12576 net.cpp:94] Creating Layer relu2
I0506 03:09:48.532268 12576 net.cpp:435] relu2 <- conv2
I0506 03:09:48.532271 12576 net.cpp:396] relu2 -> conv2 (in-place)
I0506 03:09:48.532279 12576 net.cpp:144] Setting up relu2
I0506 03:09:48.532282 12576 net.cpp:151] Top shape: 20 64 10 10 (128000)
I0506 03:09:48.532285 12576 net.cpp:159] Memory required for data: 2056080
I0506 03:09:48.532289 12576 layer_factory.hpp:77] Creating layer pool2
I0506 03:09:48.532294 12576 net.cpp:94] Creating Layer pool2
I0506 03:09:48.532296 12576 net.cpp:435] pool2 <- conv2
I0506 03:09:48.532300 12576 net.cpp:409] pool2 -> pool2
I0506 03:09:48.532351 12576 net.cpp:144] Setting up pool2
I0506 03:09:48.532357 12576 net.cpp:151] Top shape: 20 64 5 5 (32000)
I0506 03:09:48.532361 12576 net.cpp:159] Memory required for data: 2184080
I0506 03:09:48.532363 12576 layer_factory.hpp:77] Creating layer conv3
I0506 03:09:48.532371 12576 net.cpp:94] Creating Layer conv3
I0506 03:09:48.532373 12576 net.cpp:435] conv3 <- pool2
I0506 03:09:48.532378 12576 net.cpp:409] conv3 -> conv3
I0506 03:09:48.541262 12576 net.cpp:144] Setting up conv3
I0506 03:09:48.541276 12576 net.cpp:151] Top shape: 20 128 5 5 (64000)
I0506 03:09:48.541280 12576 net.cpp:159] Memory required for data: 2440080
I0506 03:09:48.541288 12576 layer_factory.hpp:77] Creating layer relu3
I0506 03:09:48.541295 12576 net.cpp:94] Creating Layer relu3
I0506 03:09:48.541297 12576 net.cpp:435] relu3 <- conv3
I0506 03:09:48.541301 12576 net.cpp:396] relu3 -> conv3 (in-place)
I0506 03:09:48.541316 12576 net.cpp:144] Setting up relu3
I0506 03:09:48.541319 12576 net.cpp:151] Top shape: 20 128 5 5 (64000)
I0506 03:09:48.541322 12576 net.cpp:159] Memory required for data: 2696080
I0506 03:09:48.541326 12576 layer_factory.hpp:77] Creating layer conv4
I0506 03:09:48.541333 12576 net.cpp:94] Creating Layer conv4
I0506 03:09:48.541337 12576 net.cpp:435] conv4 <- conv3
I0506 03:09:48.541342 12576 net.cpp:409] conv4 -> conv4
I0506 03:09:48.556192 12576 net.cpp:144] Setting up conv4
I0506 03:09:48.556206 12576 net.cpp:151] Top shape: 20 128 5 5 (64000)
I0506 03:09:48.556210 12576 net.cpp:159] Memory required for data: 2952080
I0506 03:09:48.556217 12576 layer_factory.hpp:77] Creating layer relu4
I0506 03:09:48.556222 12576 net.cpp:94] Creating Layer relu4
I0506 03:09:48.556226 12576 net.cpp:435] relu4 <- conv4
I0506 03:09:48.556231 12576 net.cpp:396] relu4 -> conv4 (in-place)
I0506 03:09:48.556237 12576 net.cpp:144] Setting up relu4
I0506 03:09:48.556241 12576 net.cpp:151] Top shape: 20 128 5 5 (64000)
I0506 03:09:48.556244 12576 net.cpp:159] Memory required for data: 3208080
I0506 03:09:48.556247 12576 layer_factory.hpp:77] Creating layer conv5
I0506 03:09:48.556254 12576 net.cpp:94] Creating Layer conv5
I0506 03:09:48.556258 12576 net.cpp:435] conv5 <- conv4
I0506 03:09:48.556263 12576 net.cpp:409] conv5 -> conv5
I0506 03:09:48.571460 12576 net.cpp:144] Setting up conv5
I0506 03:09:48.571475 12576 net.cpp:151] Top shape: 20 128 5 5 (64000)
I0506 03:09:48.571478 12576 net.cpp:159] Memory required for data: 3464080
I0506 03:09:48.571486 12576 layer_factory.hpp:77] Creating layer relu5
I0506 03:09:48.571492 12576 net.cpp:94] Creating Layer relu5
I0506 03:09:48.571496 12576 net.cpp:435] relu5 <- conv5
I0506 03:09:48.571501 12576 net.cpp:396] relu5 -> conv5 (in-place)
I0506 03:09:48.571507 12576 net.cpp:144] Setting up relu5
I0506 03:09:48.571511 12576 net.cpp:151] Top shape: 20 128 5 5 (64000)
I0506 03:09:48.571514 12576 net.cpp:159] Memory required for data: 3720080
I0506 03:09:48.571516 12576 layer_factory.hpp:77] Creating layer pool5
I0506 03:09:48.571521 12576 net.cpp:94] Creating Layer pool5
I0506 03:09:48.571526 12576 net.cpp:435] pool5 <- conv5
I0506 03:09:48.571529 12576 net.cpp:409] pool5 -> pool5
I0506 03:09:48.571564 12576 net.cpp:144] Setting up pool5
I0506 03:09:48.571571 12576 net.cpp:151] Top shape: 20 128 2 2 (10240)
I0506 03:09:48.571574 12576 net.cpp:159] Memory required for data: 3761040
I0506 03:09:48.571578 12576 layer_factory.hpp:77] Creating layer ip1
I0506 03:09:48.571583 12576 net.cpp:94] Creating Layer ip1
I0506 03:09:48.571588 12576 net.cpp:435] ip1 <- pool5
I0506 03:09:48.571591 12576 net.cpp:409] ip1 -> ip1
I0506 03:09:48.584893 12576 net.cpp:144] Setting up ip1
I0506 03:09:48.584906 12576 net.cpp:151] Top shape: 20 1024 (20480)
I0506 03:09:48.584910 12576 net.cpp:159] Memory required for data: 3842960
I0506 03:09:48.584916 12576 layer_factory.hpp:77] Creating layer ip2
I0506 03:09:48.584923 12576 net.cpp:94] Creating Layer ip2
I0506 03:09:48.584926 12576 net.cpp:435] ip2 <- ip1
I0506 03:09:48.584931 12576 net.cpp:409] ip2 -> ip2
I0506 03:09:48.598217 12576 net.cpp:144] Setting up ip2
I0506 03:09:48.598230 12576 net.cpp:151] Top shape: 20 512 (10240)
I0506 03:09:48.598233 12576 net.cpp:159] Memory required for data: 3883920
I0506 03:09:48.598239 12576 layer_factory.hpp:77] Creating layer ip3
I0506 03:09:48.598247 12576 net.cpp:94] Creating Layer ip3
I0506 03:09:48.598250 12576 net.cpp:435] ip3 <- ip2
I0506 03:09:48.598255 12576 net.cpp:409] ip3 -> ip3
I0506 03:09:48.599787 12576 net.cpp:144] Setting up ip3
I0506 03:09:48.599799 12576 net.cpp:151] Top shape: 20 50 (1000)
I0506 03:09:48.599803 12576 net.cpp:159] Memory required for data: 3887920
I0506 03:09:48.599809 12576 layer_factory.hpp:77] Creating layer loss
I0506 03:09:48.599817 12576 net.cpp:94] Creating Layer loss
I0506 03:09:48.599820 12576 net.cpp:435] loss <- ip3
I0506 03:09:48.599824 12576 net.cpp:435] loss <- label
I0506 03:09:48.599828 12576 net.cpp:409] loss -> loss
I0506 03:09:48.599835 12576 layer_factory.hpp:77] Creating layer loss
…
I0506 03:09:48.600353 12576 solver.cpp:181] Creating test net (#0) specified by net file: ./protocol/dis_50_100_dimension.protocol_distribution
I0506 03:09:48.600379 12576 net.cpp:323] The NetState phase (1) differed from the phase (0) specified by a rule in layer parameters
I0506 03:09:48.600477 12576 net.cpp:52] Initializing net from parameters: 
state {
  phase: TEST
}
layer {
  name: "intercept"
  type: "HDF5Data"
  top: "data"
  top: "label"
  include {
    phase: TEST
  }
  hdf5_data_param {
    source: "/home/purduethu/scratch/radon/d/deng106/CNNStatisticalModel/distributions/input/50_distributions_100_sample_size_test-distributions-path.txt"
    batch_size: 20
  }
}
layer {
  name: "conv1"
  type: "Convolution"
  bottom: "data"
  top: "conv1"
  param {
    lr_mult: 1
  }
  param {
    lr_mult: 2
  }
  convolution_param {
    num_output: 64
    pad: 2
    kernel_size: 5
    stride: 1
    weight_filler {
      type: "gaussian"
      std: 0.0001
    }
    bias_filler {
      type: "constant"
    }
  }
}
layer {
  name: "relu1"
  type: "ReLU"
  bottom: "conv1"
  top: "conv1"
}
layer {
  name: "conv2"
  type: "Convolution"
  bottom: "conv1"
  top: "conv2"
  param {
    lr_mult: 1
  }
  param {
    lr_mult: 2
  }
  convolution_param {
    num_output: 64
    pad: 2
    kernel_size: 5
    stride: 1
    weight_filler {
      type: "gaussian"
      std: 0.01
    }
    bias_filler {
      type: "constant"
    }
  }
}
layer {
  name: "relu2"
  type: "ReLU"
  bottom: "conv2"
  top: "conv2"
}
layer {
  name: "pool2"
  type: "Pooling"
  bottom: "conv2"
  top: "pool2"
  pooling_param {
    pool: MAX
    kernel_size: 3
    stride: 2
  }
}
layer {
  name: "conv3"
  type: "Convolution"
  bottom: "pool2"
  top: "conv3"
  param {
    lr_mult: 1
  }
  param {
    lr_mult: 2
  }
  convolution_param {
    num_output: 128
    pad: 2
    kernel_size: 5
    stride: 1
    weight_filler {
      type: "gaussian"
      std: 0.01
    }
    bias_filler {
      type: "constant"
    }
  }
}
layer {
  name: "relu3"
  type: "ReLU"
  bottom: "conv3"
  top: "conv3"
}
layer {
  name: "conv4"
  type: "Convolution"
  bottom: "conv3"
  top: "conv4"
  param {
    lr_mult: 1
  }
  param {
    lr_mult: 2
  }
  convolution_param {
    num_output: 128
    pad: 2
    kernel_size: 5
    stride: 1
    weight_filler {
      type: "gaussian"
      std: 0.01
    }
    bias_filler {
      type: "constant"
    }
  }
}
layer {
  name: "relu4"
  type: "ReLU"
  bottom: "conv4"
  top: "conv4"
}
layer {
  name: "conv5"
  type: "Convolution"
  bottom: "conv4"
  top: "conv5"
  param {
    lr_mult: 1
  }
  param {
    lr_mult: 2
  }
  convolution_param {
    num_output: 128
    pad: 2
    kernel_size: 5
    stride: 1
    weight_filler {
      type: "gaussian"
      std: 0.01
    }
    bias_filler {
      type: "constant"
    }
  }
}
layer {
  name: "relu5"
  type: "ReLU"
  bottom: "conv5"
  top: "conv5"
}
layer {
  name: "pool5"
  type: "Pooling"
  bottom: "conv5"
  top: "pool5"
  pooling_param {
    pool: AVE
    kernel_size: 3
    stride: 2
  }
}
layer {
  name: "ip1"
  type: "InnerProduct"
  bottom: "pool5"
  top: "ip1"
  param {
    lr_mult: 1
  }
  param {
    lr_mult: 2
  }
  inner_product_param {
    num_output: 1024
    weight_filler {
      type: "gaussian"
      std: 0.1
    }
    bias_filler {
      type: "constant"
    }
  }
}
layer {
  name: "ip2"
  type: "InnerProduct"
  bottom: "ip1"
  top: "ip2"
  param {
    lr_mult: 1
  }
  param {
    lr_mult: 2
  }
  inner_product_param {
    num_output: 512
    weight_filler {
      type: "gaussian"
      std: 0.1
    }
    bias_filler {
      type: "constant"
    }
  }
}
layer {
  name: "ip3"
  type: "InnerProduct"
  bottom: "ip2"
  top: "ip3"
  param {
    lr_mult: 1
  }
  param {
    lr_mult: 2
  }
  inner_product_param {
    num_output: 50
    weight_filler {
      type: "gaussian"
      std: 0.1
    }
    bias_filler {
      type: "constant"
    }
  }
}
layer {
  name: "accuracy"
  type: "Accuracy"
  bottom: "ip3"
  bottom: "label"
  top: "accuracy"
  include {
    phase: TEST
  }
}
layer {
  name: "loss"
  type: "SoftmaxWithLoss"
  bottom: "ip3"
  bottom: "label"
  top: "loss"
}
I0506 03:09:48.600541 12576 layer_factory.hpp:77] Creating layer intercept
I0506 03:09:48.600554 12576 net.cpp:94] Creating Layer intercept
I0506 03:09:48.600559 12576 net.cpp:409] intercept -> data
I0506 03:09:48.600566 12576 net.cpp:409] intercept -> label
I0506 03:09:48.600572 12576 hdf5_data_layer.cpp:79] Loading list of HDF5 filenames from: /home/purduethu/scratch/radon/d/deng106/CNNStatisticalModel/distributions/input/50_distributions_100_sample_size_test-distributions-path.txt
I0506 03:09:48.600591 12576 hdf5_data_layer.cpp:93] Number of HDF5 files: 1
I0506 03:09:48.641214 12576 net.cpp:144] Setting up intercept
I0506 03:09:48.641248 12576 net.cpp:151] Top shape: 20 1 10 10 (2000)
I0506 03:09:48.641253 12576 net.cpp:151] Top shape: 20 (20)
I0506 03:09:48.641257 12576 net.cpp:159] Memory required for data: 8080
I0506 03:09:48.641263 12576 layer_factory.hpp:77] Creating layer label_intercept_1_split
I0506 03:09:48.641281 12576 net.cpp:94] Creating Layer label_intercept_1_split
I0506 03:09:48.641285 12576 net.cpp:435] label_intercept_1_split <- label
I0506 03:09:48.641291 12576 net.cpp:409] label_intercept_1_split -> label_intercept_1_split_0
I0506 03:09:48.641300 12576 net.cpp:409] label_intercept_1_split -> label_intercept_1_split_1
I0506 03:09:48.641341 12576 net.cpp:144] Setting up label_intercept_1_split
I0506 03:09:48.641347 12576 net.cpp:151] Top shape: 20 (20)
I0506 03:09:48.641351 12576 net.cpp:151] Top shape: 20 (20)
I0506 03:09:48.641355 12576 net.cpp:159] Memory required for data: 8240
I0506 03:09:48.641357 12576 layer_factory.hpp:77] Creating layer conv1
I0506 03:09:48.641367 12576 net.cpp:94] Creating Layer conv1
I0506 03:09:48.641371 12576 net.cpp:435] conv1 <- data
I0506 03:09:48.641376 12576 net.cpp:409] conv1 -> conv1
I0506 03:09:48.642225 12576 net.cpp:144] Setting up conv1
I0506 03:09:48.642238 12576 net.cpp:151] Top shape: 20 64 10 10 (128000)
I0506 03:09:48.642241 12576 net.cpp:159] Memory required for data: 520240
I0506 03:09:48.642251 12576 layer_factory.hpp:77] Creating layer relu1
I0506 03:09:48.642257 12576 net.cpp:94] Creating Layer relu1
I0506 03:09:48.642261 12576 net.cpp:435] relu1 <- conv1
I0506 03:09:48.642266 12576 net.cpp:396] relu1 -> conv1 (in-place)
I0506 03:09:48.642271 12576 net.cpp:144] Setting up relu1
I0506 03:09:48.642276 12576 net.cpp:151] Top shape: 20 64 10 10 (128000)
I0506 03:09:48.642287 12576 net.cpp:159] Memory required for data: 1032240
I0506 03:09:48.642289 12576 layer_factory.hpp:77] Creating layer conv2
I0506 03:09:48.642297 12576 net.cpp:94] Creating Layer conv2
I0506 03:09:48.642302 12576 net.cpp:435] conv2 <- conv1
I0506 03:09:48.642305 12576 net.cpp:409] conv2 -> conv2
I0506 03:09:48.646508 12576 net.cpp:144] Setting up conv2
I0506 03:09:48.646522 12576 net.cpp:151] Top shape: 20 64 10 10 (128000)
I0506 03:09:48.646525 12576 net.cpp:159] Memory required for data: 1544240
I0506 03:09:48.646533 12576 layer_factory.hpp:77] Creating layer relu2
I0506 03:09:48.646539 12576 net.cpp:94] Creating Layer relu2
I0506 03:09:48.646543 12576 net.cpp:435] relu2 <- conv2
I0506 03:09:48.646546 12576 net.cpp:396] relu2 -> conv2 (in-place)
I0506 03:09:48.646553 12576 net.cpp:144] Setting up relu2
I0506 03:09:48.646558 12576 net.cpp:151] Top shape: 20 64 10 10 (128000)
I0506 03:09:48.646559 12576 net.cpp:159] Memory required for data: 2056240
I0506 03:09:48.646562 12576 layer_factory.hpp:77] Creating layer pool2
I0506 03:09:48.646569 12576 net.cpp:94] Creating Layer pool2
I0506 03:09:48.646572 12576 net.cpp:435] pool2 <- conv2
I0506 03:09:48.646577 12576 net.cpp:409] pool2 -> pool2
I0506 03:09:48.646631 12576 net.cpp:144] Setting up pool2
I0506 03:09:48.646637 12576 net.cpp:151] Top shape: 20 64 5 5 (32000)
I0506 03:09:48.646641 12576 net.cpp:159] Memory required for data: 2184240
I0506 03:09:48.646643 12576 layer_factory.hpp:77] Creating layer conv3
I0506 03:09:48.646652 12576 net.cpp:94] Creating Layer conv3
I0506 03:09:48.646656 12576 net.cpp:435] conv3 <- pool2
I0506 03:09:48.646661 12576 net.cpp:409] conv3 -> conv3
I0506 03:09:48.652887 12576 net.cpp:144] Setting up conv3
I0506 03:09:48.652901 12576 net.cpp:151] Top shape: 20 128 5 5 (64000)
I0506 03:09:48.652904 12576 net.cpp:159] Memory required for data: 2440240
I0506 03:09:48.652911 12576 layer_factory.hpp:77] Creating layer relu3
I0506 03:09:48.652918 12576 net.cpp:94] Creating Layer relu3
I0506 03:09:48.652921 12576 net.cpp:435] relu3 <- conv3
I0506 03:09:48.652927 12576 net.cpp:396] relu3 -> conv3 (in-place)
I0506 03:09:48.652933 12576 net.cpp:144] Setting up relu3
I0506 03:09:48.652937 12576 net.cpp:151] Top shape: 20 128 5 5 (64000)
I0506 03:09:48.652940 12576 net.cpp:159] Memory required for data: 2696240
I0506 03:09:48.652943 12576 layer_factory.hpp:77] Creating layer conv4
I0506 03:09:48.652951 12576 net.cpp:94] Creating Layer conv4
I0506 03:09:48.652954 12576 net.cpp:435] conv4 <- conv3
I0506 03:09:48.652959 12576 net.cpp:409] conv4 -> conv4
I0506 03:09:48.665735 12576 net.cpp:144] Setting up conv4
I0506 03:09:48.665748 12576 net.cpp:151] Top shape: 20 128 5 5 (64000)
I0506 03:09:48.665751 12576 net.cpp:159] Memory required for data: 2952240
I0506 03:09:48.665757 12576 layer_factory.hpp:77] Creating layer relu4
I0506 03:09:48.665763 12576 net.cpp:94] Creating Layer relu4
I0506 03:09:48.665766 12576 net.cpp:435] relu4 <- conv4
I0506 03:09:48.665771 12576 net.cpp:396] relu4 -> conv4 (in-place)
I0506 03:09:48.665777 12576 net.cpp:144] Setting up relu4
I0506 03:09:48.665781 12576 net.cpp:151] Top shape: 20 128 5 5 (64000)
I0506 03:09:48.665783 12576 net.cpp:159] Memory required for data: 3208240
I0506 03:09:48.665786 12576 layer_factory.hpp:77] Creating layer conv5
I0506 03:09:48.665796 12576 net.cpp:94] Creating Layer conv5
I0506 03:09:48.665798 12576 net.cpp:435] conv5 <- conv4
I0506 03:09:48.665804 12576 net.cpp:409] conv5 -> conv5
I0506 03:09:48.678628 12576 net.cpp:144] Setting up conv5
I0506 03:09:48.678653 12576 net.cpp:151] Top shape: 20 128 5 5 (64000)
I0506 03:09:48.678659 12576 net.cpp:159] Memory required for data: 3464240
I0506 03:09:48.678674 12576 layer_factory.hpp:77] Creating layer relu5
I0506 03:09:48.678684 12576 net.cpp:94] Creating Layer relu5
I0506 03:09:48.678690 12576 net.cpp:435] relu5 <- conv5
I0506 03:09:48.678700 12576 net.cpp:396] relu5 -> conv5 (in-place)
I0506 03:09:48.678724 12576 net.cpp:144] Setting up relu5
I0506 03:09:48.678727 12576 net.cpp:151] Top shape: 20 128 5 5 (64000)
I0506 03:09:48.678733 12576 net.cpp:159] Memory required for data: 3720240
I0506 03:09:48.678737 12576 layer_factory.hpp:77] Creating layer pool5
I0506 03:09:48.678742 12576 net.cpp:94] Creating Layer pool5
I0506 03:09:48.678745 12576 net.cpp:435] pool5 <- conv5
I0506 03:09:48.678750 12576 net.cpp:409] pool5 -> pool5
I0506 03:09:48.678786 12576 net.cpp:144] Setting up pool5
I0506 03:09:48.678793 12576 net.cpp:151] Top shape: 20 128 2 2 (10240)
I0506 03:09:48.678797 12576 net.cpp:159] Memory required for data: 3761200
I0506 03:09:48.678799 12576 layer_factory.hpp:77] Creating layer ip1
I0506 03:09:48.678807 12576 net.cpp:94] Creating Layer ip1
I0506 03:09:48.678809 12576 net.cpp:435] ip1 <- pool5
I0506 03:09:48.678814 12576 net.cpp:409] ip1 -> ip1
I0506 03:09:48.692148 12576 net.cpp:144] Setting up ip1
I0506 03:09:48.692162 12576 net.cpp:151] Top shape: 20 1024 (20480)
I0506 03:09:48.692164 12576 net.cpp:159] Memory required for data: 3843120
I0506 03:09:48.692170 12576 layer_factory.hpp:77] Creating layer ip2
I0506 03:09:48.692178 12576 net.cpp:94] Creating Layer ip2
I0506 03:09:48.692181 12576 net.cpp:435] ip2 <- ip1
I0506 03:09:48.692186 12576 net.cpp:409] ip2 -> ip2
I0506 03:09:48.705525 12576 net.cpp:144] Setting up ip2
I0506 03:09:48.705538 12576 net.cpp:151] Top shape: 20 512 (10240)
I0506 03:09:48.705541 12576 net.cpp:159] Memory required for data: 3884080
I0506 03:09:48.705548 12576 layer_factory.hpp:77] Creating layer ip3
I0506 03:09:48.705556 12576 net.cpp:94] Creating Layer ip3
I0506 03:09:48.705560 12576 net.cpp:435] ip3 <- ip2
I0506 03:09:48.705565 12576 net.cpp:409] ip3 -> ip3
I0506 03:09:48.706311 12576 net.cpp:144] Setting up ip3
I0506 03:09:48.706320 12576 net.cpp:151] Top shape: 20 50 (1000)
I0506 03:09:48.706322 12576 net.cpp:159] Memory required for data: 3888080
I0506 03:09:48.706327 12576 layer_factory.hpp:77] Creating layer ip3_ip3_0_split
I0506 03:09:48.706332 12576 net.cpp:94] Creating Layer ip3_ip3_0_split
I0506 03:09:48.706336 12576 net.cpp:435] ip3_ip3_0_split <- ip3
I0506 03:09:48.706339 12576 net.cpp:409] ip3_ip3_0_split -> ip3_ip3_0_split_0
I0506 03:09:48.706346 12576 net.cpp:409] ip3_ip3_0_split -> ip3_ip3_0_split_1
I0506 03:09:48.706387 12576 net.cpp:144] Setting up ip3_ip3_0_split
I0506 03:09:48.706393 12576 net.cpp:151] Top shape: 20 50 (1000)
I0506 03:09:48.706395 12576 net.cpp:151] Top shape: 20 50 (1000)
I0506 03:09:48.706398 12576 net.cpp:159] Memory required for data: 3896080
I0506 03:09:48.706401 12576 layer_factory.hpp:77] Creating layer accuracy
I0506 03:09:48.706408 12576 net.cpp:94] Creating Layer accuracy
I0506 03:09:48.706410 12576 net.cpp:435] accuracy <- ip3_ip3_0_split_0
I0506 03:09:48.706413 12576 net.cpp:435] accuracy <- label_intercept_1_split_0
I0506 03:09:48.706418 12576 net.cpp:409] accuracy -> accuracy
…
