…
I0502 03:21:32.179774 17811 net.cpp:323] The NetState phase (0) differed from the phase (1) specified by a rule in layer intercept
I0502 03:21:32.179790 17811 net.cpp:323] The NetState phase (0) differed from the phase (1) specified by a rule in layer loss
I0502 03:21:32.179867 17811 net.cpp:52] Initializing net from parameters: 
state {
  phase: TRAIN
}
layer {
  name: "parameters"
  type: "HDF5Data"
  top: "data"
  top: "label"
  include {
    phase: TRAIN
  }
  hdf5_data_param {
    source: "/home/purduethu/scratch/radon/d/deng106/CNNStatisticalModel/distributions/input/5_distributions_100_sample_size_train-parameters-path.txt"
    batch_size: 20
  }
}
layer {
  name: "conv1"
  type: "Convolution"
  bottom: "data"
  top: "conv1"
  param {
    lr_mult: 1
  }
  param {
    lr_mult: 2
  }
  convolution_param {
    num_output: 64
    pad: 2
    kernel_size: 5
    stride: 1
    weight_filler {
      type: "gaussian"
      std: 0.0001
    }
    bias_filler {
      type: "constant"
    }
  }
}
layer {
  name: "relu1"
  type: "ReLU"
  bottom: "conv1"
  top: "conv1"
}
layer {
  name: "conv2"
  type: "Convolution"
  bottom: "conv1"
  top: "conv2"
  param {
    lr_mult: 1
  }
  param {
    lr_mult: 2
  }
  convolution_param {
    num_output: 64
    pad: 2
    kernel_size: 5
    stride: 1
    weight_filler {
      type: "gaussian"
      std: 0.01
    }
    bias_filler {
      type: "constant"
    }
  }
}
layer {
  name: "relu2"
  type: "ReLU"
  bottom: "conv2"
  top: "conv2"
}
layer {
  name: "pool2"
  type: "Pooling"
  bottom: "conv2"
  top: "pool2"
  pooling_param {
    pool: MAX
    kernel_size: 3
    stride: 2
  }
}
layer {
  name: "conv3"
  type: "Convolution"
  bottom: "pool2"
  top: "conv3"
  param {
    lr_mult: 1
  }
  param {
    lr_mult: 2
  }
  convolution_param {
    num_output: 64
    pad: 2
    kernel_size: 5
    stride: 1
    weight_filler {
      type: "gaussian"
      std: 0.01
    }
    bias_filler {
      type: "constant"
    }
  }
}
layer {
  name: "relu3"
  type: "ReLU"
  bottom: "conv3"
  top: "conv3"
}
layer {
  name: "conv4"
  type: "Convolution"
  bottom: "conv3"
  top: "conv4"
  param {
    lr_mult: 1
  }
  param {
    lr_mult: 2
  }
  convolution_param {
    num_output: 64
    pad: 2
    kernel_size: 5
    stride: 1
    weight_filler {
      type: "gaussian"
      std: 0.01
    }
    bias_filler {
      type: "constant"
    }
  }
}
layer {
  name: "relu4"
  type: "ReLU"
  bottom: "conv4"
  top: "conv4"
}
layer {
  name: "conv5"
  type: "Convolution"
  bottom: "conv4"
  top: "conv5"
  param {
    lr_mult: 1
  }
  param {
    lr_mult: 2
  }
  convolution_param {
    num_output: 64
    pad: 2
    kernel_size: 5
    stride: 1
    weight_filler {
      type: "gaussian"
      std: 0.01
    }
    bias_filler {
      type: "constant"
    }
  }
}
layer {
  name: "relu5"
  type: "ReLU"
  bottom: "conv5"
  top: "conv5"
}
layer {
  name: "pool5"
  type: "Pooling"
  bottom: "conv5"
  top: "pool5"
  pooling_param {
    pool: AVE
    kernel_size: 3
    stride: 2
  }
}
layer {
  name: "ip1"
  type: "InnerProduct"
  bottom: "pool5"
  top: "ip1"
  param {
    lr_mult: 1
  }
  param {
    lr_mult: 2
  }
  inner_product_param {
    num_output: 64
    weight_filler {
      type: "gaussian"
      std: 0.1
    }
    bias_filler {
      type: "constant"
    }
  }
}
layer {
  name: "ip2"
  type: "InnerProduct"
  bottom: "ip1"
  top: "ip2"
  param {
    lr_mult: 1
  }
  param {
    lr_mult: 2
  }
  inner_product_param {
    num_output: 64
    weight_filler {
      type: "gaussian"
      std: 0.1
    }
    bias_filler {
      type: "constant"
    }
  }
}
layer {
  name: "ip3"
  type: "InnerProduct"
  bottom: "ip2"
  top: "ip3"
  param {
    lr_mult: 1
  }
  param {
    lr_mult: 2
  }
  inner_product_param {
    num_output: 1
    weight_filler {
      type: "gaussian"
      std: 0.1
    }
    bias_filler {
      type: "constant"
    }
  }
}
layer {
  name: "loss"
  type: "HuberLoss"
  bottom: "ip3"
  bottom: "label"
  top: "loss"
  include {
    phase: TRAIN
  }
}
I0502 03:21:32.179919 17811 layer_factory.hpp:77] Creating layer parameters
I0502 03:21:32.179934 17811 net.cpp:94] Creating Layer parameters
I0502 03:21:32.179939 17811 net.cpp:409] parameters -> data
I0502 03:21:32.179947 17811 net.cpp:409] parameters -> label
I0502 03:21:32.179955 17811 hdf5_data_layer.cpp:79] Loading list of HDF5 filenames from: /home/purduethu/scratch/radon/d/deng106/CNNStatisticalModel/distributions/input/5_distributions_100_sample_size_train-parameters-path.txt
I0502 03:21:32.179968 17811 hdf5_data_layer.cpp:93] Number of HDF5 files: 1
I0502 03:21:32.180510 17811 hdf5.cpp:32] Datatype class: H5T_FLOAT
I0502 03:21:32.198540 17811 net.cpp:144] Setting up parameters
I0502 03:21:32.198568 17811 net.cpp:151] Top shape: 20 1 10 10 (2000)
I0502 03:21:32.198575 17811 net.cpp:151] Top shape: 20 (20)
I0502 03:21:32.198577 17811 net.cpp:159] Memory required for data: 8080
I0502 03:21:32.198583 17811 layer_factory.hpp:77] Creating layer conv1
I0502 03:21:32.198606 17811 net.cpp:94] Creating Layer conv1
I0502 03:21:32.198611 17811 net.cpp:435] conv1 <- data
I0502 03:21:32.198617 17811 net.cpp:409] conv1 -> conv1
I0502 03:21:32.202692 17811 net.cpp:144] Setting up conv1
I0502 03:21:32.202706 17811 net.cpp:151] Top shape: 20 64 10 10 (128000)
I0502 03:21:32.202710 17811 net.cpp:159] Memory required for data: 520080
I0502 03:21:32.202720 17811 layer_factory.hpp:77] Creating layer relu1
I0502 03:21:32.202728 17811 net.cpp:94] Creating Layer relu1
I0502 03:21:32.202733 17811 net.cpp:435] relu1 <- conv1
I0502 03:21:32.202738 17811 net.cpp:396] relu1 -> conv1 (in-place)
I0502 03:21:32.202749 17811 net.cpp:144] Setting up relu1
I0502 03:21:32.202754 17811 net.cpp:151] Top shape: 20 64 10 10 (128000)
I0502 03:21:32.202756 17811 net.cpp:159] Memory required for data: 1032080
I0502 03:21:32.202759 17811 layer_factory.hpp:77] Creating layer conv2
I0502 03:21:32.202767 17811 net.cpp:94] Creating Layer conv2
I0502 03:21:32.202771 17811 net.cpp:435] conv2 <- conv1
I0502 03:21:32.202776 17811 net.cpp:409] conv2 -> conv2
I0502 03:21:32.208809 17811 net.cpp:144] Setting up conv2
I0502 03:21:32.208824 17811 net.cpp:151] Top shape: 20 64 10 10 (128000)
I0502 03:21:32.208828 17811 net.cpp:159] Memory required for data: 1544080
I0502 03:21:32.208837 17811 layer_factory.hpp:77] Creating layer relu2
I0502 03:21:32.208843 17811 net.cpp:94] Creating Layer relu2
I0502 03:21:32.208847 17811 net.cpp:435] relu2 <- conv2
I0502 03:21:32.208853 17811 net.cpp:396] relu2 -> conv2 (in-place)
I0502 03:21:32.208859 17811 net.cpp:144] Setting up relu2
I0502 03:21:32.208863 17811 net.cpp:151] Top shape: 20 64 10 10 (128000)
I0502 03:21:32.208866 17811 net.cpp:159] Memory required for data: 2056080
I0502 03:21:32.208869 17811 layer_factory.hpp:77] Creating layer pool2
I0502 03:21:32.208883 17811 net.cpp:94] Creating Layer pool2
I0502 03:21:32.208886 17811 net.cpp:435] pool2 <- conv2
I0502 03:21:32.208891 17811 net.cpp:409] pool2 -> pool2
I0502 03:21:32.208941 17811 net.cpp:144] Setting up pool2
I0502 03:21:32.208948 17811 net.cpp:151] Top shape: 20 64 5 5 (32000)
I0502 03:21:32.208952 17811 net.cpp:159] Memory required for data: 2184080
I0502 03:21:32.208956 17811 layer_factory.hpp:77] Creating layer conv3
I0502 03:21:32.208964 17811 net.cpp:94] Creating Layer conv3
I0502 03:21:32.208968 17811 net.cpp:435] conv3 <- pool2
I0502 03:21:32.208973 17811 net.cpp:409] conv3 -> conv3
I0502 03:21:32.213742 17811 net.cpp:144] Setting up conv3
I0502 03:21:32.213755 17811 net.cpp:151] Top shape: 20 64 5 5 (32000)
I0502 03:21:32.213759 17811 net.cpp:159] Memory required for data: 2312080
I0502 03:21:32.213768 17811 layer_factory.hpp:77] Creating layer relu3
I0502 03:21:32.213773 17811 net.cpp:94] Creating Layer relu3
I0502 03:21:32.213776 17811 net.cpp:435] relu3 <- conv3
I0502 03:21:32.213781 17811 net.cpp:396] relu3 -> conv3 (in-place)
I0502 03:21:32.213788 17811 net.cpp:144] Setting up relu3
I0502 03:21:32.213793 17811 net.cpp:151] Top shape: 20 64 5 5 (32000)
I0502 03:21:32.213796 17811 net.cpp:159] Memory required for data: 2440080
I0502 03:21:32.213799 17811 layer_factory.hpp:77] Creating layer conv4
I0502 03:21:32.213809 17811 net.cpp:94] Creating Layer conv4
I0502 03:21:32.213812 17811 net.cpp:435] conv4 <- conv3
I0502 03:21:32.213817 17811 net.cpp:409] conv4 -> conv4
I0502 03:21:32.218194 17811 net.cpp:144] Setting up conv4
I0502 03:21:32.218207 17811 net.cpp:151] Top shape: 20 64 5 5 (32000)
I0502 03:21:32.218211 17811 net.cpp:159] Memory required for data: 2568080
I0502 03:21:32.218217 17811 layer_factory.hpp:77] Creating layer relu4
I0502 03:21:32.218224 17811 net.cpp:94] Creating Layer relu4
I0502 03:21:32.218227 17811 net.cpp:435] relu4 <- conv4
I0502 03:21:32.218232 17811 net.cpp:396] relu4 -> conv4 (in-place)
I0502 03:21:32.218240 17811 net.cpp:144] Setting up relu4
I0502 03:21:32.218245 17811 net.cpp:151] Top shape: 20 64 5 5 (32000)
I0502 03:21:32.218247 17811 net.cpp:159] Memory required for data: 2696080
I0502 03:21:32.218250 17811 layer_factory.hpp:77] Creating layer conv5
I0502 03:21:32.218258 17811 net.cpp:94] Creating Layer conv5
I0502 03:21:32.218262 17811 net.cpp:435] conv5 <- conv4
I0502 03:21:32.218267 17811 net.cpp:409] conv5 -> conv5
I0502 03:21:32.223078 17811 net.cpp:144] Setting up conv5
I0502 03:21:32.223091 17811 net.cpp:151] Top shape: 20 64 5 5 (32000)
I0502 03:21:32.223095 17811 net.cpp:159] Memory required for data: 2824080
I0502 03:21:32.223104 17811 layer_factory.hpp:77] Creating layer relu5
I0502 03:21:32.223110 17811 net.cpp:94] Creating Layer relu5
I0502 03:21:32.223114 17811 net.cpp:435] relu5 <- conv5
I0502 03:21:32.223119 17811 net.cpp:396] relu5 -> conv5 (in-place)
I0502 03:21:32.223126 17811 net.cpp:144] Setting up relu5
I0502 03:21:32.223130 17811 net.cpp:151] Top shape: 20 64 5 5 (32000)
I0502 03:21:32.223134 17811 net.cpp:159] Memory required for data: 2952080
I0502 03:21:32.223136 17811 layer_factory.hpp:77] Creating layer pool5
I0502 03:21:32.223143 17811 net.cpp:94] Creating Layer pool5
I0502 03:21:32.223147 17811 net.cpp:435] pool5 <- conv5
I0502 03:21:32.223151 17811 net.cpp:409] pool5 -> pool5
I0502 03:21:32.223189 17811 net.cpp:144] Setting up pool5
I0502 03:21:32.223196 17811 net.cpp:151] Top shape: 20 64 2 2 (5120)
I0502 03:21:32.223199 17811 net.cpp:159] Memory required for data: 2972560
I0502 03:21:32.223202 17811 layer_factory.hpp:77] Creating layer ip1
I0502 03:21:32.223212 17811 net.cpp:94] Creating Layer ip1
I0502 03:21:32.223217 17811 net.cpp:435] ip1 <- pool5
I0502 03:21:32.223222 17811 net.cpp:409] ip1 -> ip1
I0502 03:21:32.224545 17811 net.cpp:144] Setting up ip1
I0502 03:21:32.224566 17811 net.cpp:151] Top shape: 20 64 (1280)
I0502 03:21:32.224571 17811 net.cpp:159] Memory required for data: 2977680
I0502 03:21:32.224577 17811 layer_factory.hpp:77] Creating layer ip2
I0502 03:21:32.224586 17811 net.cpp:94] Creating Layer ip2
I0502 03:21:32.224593 17811 net.cpp:435] ip2 <- ip1
I0502 03:21:32.224598 17811 net.cpp:409] ip2 -> ip2
I0502 03:21:32.224812 17811 net.cpp:144] Setting up ip2
I0502 03:21:32.224819 17811 net.cpp:151] Top shape: 20 64 (1280)
I0502 03:21:32.224822 17811 net.cpp:159] Memory required for data: 2982800
I0502 03:21:32.224828 17811 layer_factory.hpp:77] Creating layer ip3
I0502 03:21:32.224834 17811 net.cpp:94] Creating Layer ip3
I0502 03:21:32.224838 17811 net.cpp:435] ip3 <- ip2
I0502 03:21:32.224844 17811 net.cpp:409] ip3 -> ip3
I0502 03:21:32.224948 17811 net.cpp:144] Setting up ip3
I0502 03:21:32.224956 17811 net.cpp:151] Top shape: 20 1 (20)
I0502 03:21:32.224958 17811 net.cpp:159] Memory required for data: 2982880
I0502 03:21:32.224963 17811 layer_factory.hpp:77] Creating layer loss
I0502 03:21:32.224972 17811 net.cpp:94] Creating Layer loss
I0502 03:21:32.224977 17811 net.cpp:435] loss <- ip3
I0502 03:21:32.224980 17811 net.cpp:435] loss <- label
I0502 03:21:32.224985 17811 net.cpp:409] loss -> loss
I0502 03:21:32.225038 17811 net.cpp:144] Setting up loss
…
I0502 03:21:32.248831 17811 net.cpp:323] The NetState phase (0) differed from the phase (1) specified by a rule in layer intercept
I0502 03:21:32.248848 17811 net.cpp:323] The NetState phase (0) differed from the phase (1) specified by a rule in layer accuracy
I0502 03:21:32.248949 17811 net.cpp:52] Initializing net from parameters: 
state {
  phase: TRAIN
}
layer {
  name: "parameters"
  type: "HDF5Data"
  top: "data"
  top: "label"
  include {
    phase: TRAIN
  }
  hdf5_data_param {
    source: "/home/purduethu/scratch/radon/d/deng106/CNNStatisticalModel/distributions/input/5_distributions_100_sample_size_train-distributions-path.txt"
    batch_size: 20
  }
}
layer {
  name: "conv1"
  type: "Convolution"
  bottom: "data"
  top: "conv1"
  param {
    lr_mult: 1
  }
  param {
    lr_mult: 2
  }
  convolution_param {
    num_output: 64
    pad: 2
    kernel_size: 5
    stride: 1
    weight_filler {
      type: "gaussian"
      std: 0.0001
    }
    bias_filler {
      type: "constant"
    }
  }
}
layer {
  name: "relu1"
  type: "ReLU"
  bottom: "conv1"
  top: "conv1"
}
layer {
  name: "conv2"
  type: "Convolution"
  bottom: "conv1"
  top: "conv2"
  param {
    lr_mult: 1
  }
  param {
    lr_mult: 2
  }
  convolution_param {
    num_output: 64
    pad: 2
    kernel_size: 5
    stride: 1
    weight_filler {
      type: "gaussian"
      std: 0.01
    }
    bias_filler {
      type: "constant"
    }
  }
}
layer {
  name: "relu2"
  type: "ReLU"
  bottom: "conv2"
  top: "conv2"
}
layer {
  name: "pool2"
  type: "Pooling"
  bottom: "conv2"
  top: "pool2"
  pooling_param {
    pool: MAX
    kernel_size: 3
    stride: 2
  }
}
layer {
  name: "conv3"
  type: "Convolution"
  bottom: "pool2"
  top: "conv3"
  param {
    lr_mult: 1
  }
  param {
    lr_mult: 2
  }
  convolution_param {
    num_output: 64
    pad: 2
    kernel_size: 5
    stride: 1
    weight_filler {
      type: "gaussian"
      std: 0.01
    }
    bias_filler {
      type: "constant"
    }
  }
}
layer {
  name: "relu3"
  type: "ReLU"
  bottom: "conv3"
  top: "conv3"
}
layer {
  name: "conv4"
  type: "Convolution"
  bottom: "conv3"
  top: "conv4"
  param {
    lr_mult: 1
  }
  param {
    lr_mult: 2
  }
  convolution_param {
    num_output: 64
    pad: 2
    kernel_size: 5
    stride: 1
    weight_filler {
      type: "gaussian"
      std: 0.01
    }
    bias_filler {
      type: "constant"
    }
  }
}
layer {
  name: "relu4"
  type: "ReLU"
  bottom: "conv4"
  top: "conv4"
}
layer {
  name: "conv5"
  type: "Convolution"
  bottom: "conv4"
  top: "conv5"
  param {
    lr_mult: 1
  }
  param {
    lr_mult: 2
  }
  convolution_param {
    num_output: 64
    pad: 2
    kernel_size: 5
    stride: 1
    weight_filler {
      type: "gaussian"
      std: 0.01
    }
    bias_filler {
      type: "constant"
    }
  }
}
layer {
  name: "relu5"
  type: "ReLU"
  bottom: "conv5"
  top: "conv5"
}
layer {
  name: "pool5"
  type: "Pooling"
  bottom: "conv5"
  top: "pool5"
  pooling_param {
    pool: AVE
    kernel_size: 3
    stride: 2
  }
}
layer {
  name: "ip1"
  type: "InnerProduct"
  bottom: "pool5"
  top: "ip1"
  param {
    lr_mult: 1
  }
  param {
    lr_mult: 2
  }
  inner_product_param {
    num_output: 64
    weight_filler {
      type: "gaussian"
      std: 0.1
    }
    bias_filler {
      type: "constant"
    }
  }
}
layer {
  name: "ip2"
  type: "InnerProduct"
  bottom: "ip1"
  top: "ip2"
  param {
    lr_mult: 1
  }
  param {
    lr_mult: 2
  }
  inner_product_param {
    num_output: 64
    weight_filler {
      type: "gaussian"
      std: 0.1
    }
    bias_filler {
      type: "constant"
    }
  }
}
layer {
  name: "ip3"
  type: "InnerProduct"
  bottom: "ip2"
  top: "ip3"
  param {
    lr_mult: 1
  }
  param {
    lr_mult: 2
  }
  inner_product_param {
    num_output: 50
    weight_filler {
      type: "gaussian"
      std: 0.1
    }
    bias_filler {
      type: "constant"
    }
  }
}
layer {
  name: "loss"
  type: "SoftmaxWithLoss"
  bottom: "ip3"
  bottom: "label"
  top: "loss"
}
I0502 03:21:32.249001 17811 layer_factory.hpp:77] Creating layer parameters
I0502 03:21:32.249009 17811 net.cpp:94] Creating Layer parameters
I0502 03:21:32.249013 17811 net.cpp:409] parameters -> data
I0502 03:21:32.249020 17811 net.cpp:409] parameters -> label
I0502 03:21:32.249027 17811 hdf5_data_layer.cpp:79] Loading list of HDF5 filenames from: /home/purduethu/scratch/radon/d/deng106/CNNStatisticalModel/distributions/input/5_distributions_100_sample_size_train-distributions-path.txt
I0502 03:21:32.249042 17811 hdf5_data_layer.cpp:93] Number of HDF5 files: 1
I0502 03:21:32.264866 17811 hdf5.cpp:35] Datatype class: H5T_INTEGER
I0502 03:21:32.265295 17811 net.cpp:144] Setting up parameters
I0502 03:21:32.265310 17811 net.cpp:151] Top shape: 20 1 10 10 (2000)
I0502 03:21:32.265314 17811 net.cpp:151] Top shape: 20 (20)
I0502 03:21:32.265318 17811 net.cpp:159] Memory required for data: 8080
I0502 03:21:32.265324 17811 layer_factory.hpp:77] Creating layer conv1
I0502 03:21:32.265341 17811 net.cpp:94] Creating Layer conv1
I0502 03:21:32.265344 17811 net.cpp:435] conv1 <- data
I0502 03:21:32.265352 17811 net.cpp:409] conv1 -> conv1
I0502 03:21:32.267071 17811 net.cpp:144] Setting up conv1
I0502 03:21:32.267083 17811 net.cpp:151] Top shape: 20 64 10 10 (128000)
I0502 03:21:32.267087 17811 net.cpp:159] Memory required for data: 520080
I0502 03:21:32.267097 17811 layer_factory.hpp:77] Creating layer relu1
I0502 03:21:32.267105 17811 net.cpp:94] Creating Layer relu1
I0502 03:21:32.267109 17811 net.cpp:435] relu1 <- conv1
I0502 03:21:32.267114 17811 net.cpp:396] relu1 -> conv1 (in-place)
I0502 03:21:32.267122 17811 net.cpp:144] Setting up relu1
I0502 03:21:32.267127 17811 net.cpp:151] Top shape: 20 64 10 10 (128000)
I0502 03:21:32.267129 17811 net.cpp:159] Memory required for data: 1032080
I0502 03:21:32.267132 17811 layer_factory.hpp:77] Creating layer conv2
I0502 03:21:32.267140 17811 net.cpp:94] Creating Layer conv2
I0502 03:21:32.267144 17811 net.cpp:435] conv2 <- conv1
I0502 03:21:32.267149 17811 net.cpp:409] conv2 -> conv2
I0502 03:21:32.272529 17811 net.cpp:144] Setting up conv2
I0502 03:21:32.272543 17811 net.cpp:151] Top shape: 20 64 10 10 (128000)
I0502 03:21:32.272547 17811 net.cpp:159] Memory required for data: 1544080
I0502 03:21:32.272564 17811 layer_factory.hpp:77] Creating layer relu2
I0502 03:21:32.272572 17811 net.cpp:94] Creating Layer relu2
I0502 03:21:32.272577 17811 net.cpp:435] relu2 <- conv2
I0502 03:21:32.272581 17811 net.cpp:396] relu2 -> conv2 (in-place)
I0502 03:21:32.272588 17811 net.cpp:144] Setting up relu2
I0502 03:21:32.272593 17811 net.cpp:151] Top shape: 20 64 10 10 (128000)
I0502 03:21:32.272596 17811 net.cpp:159] Memory required for data: 2056080
I0502 03:21:32.272599 17811 layer_factory.hpp:77] Creating layer pool2
I0502 03:21:32.272606 17811 net.cpp:94] Creating Layer pool2
I0502 03:21:32.272609 17811 net.cpp:435] pool2 <- conv2
I0502 03:21:32.272614 17811 net.cpp:409] pool2 -> pool2
I0502 03:21:32.272662 17811 net.cpp:144] Setting up pool2
I0502 03:21:32.272670 17811 net.cpp:151] Top shape: 20 64 5 5 (32000)
I0502 03:21:32.272672 17811 net.cpp:159] Memory required for data: 2184080
I0502 03:21:32.272676 17811 layer_factory.hpp:77] Creating layer conv3
I0502 03:21:32.272685 17811 net.cpp:94] Creating Layer conv3
I0502 03:21:32.272688 17811 net.cpp:435] conv3 <- pool2
I0502 03:21:32.272693 17811 net.cpp:409] conv3 -> conv3
I0502 03:21:32.277520 17811 net.cpp:144] Setting up conv3
I0502 03:21:32.277541 17811 net.cpp:151] Top shape: 20 64 5 5 (32000)
I0502 03:21:32.277546 17811 net.cpp:159] Memory required for data: 2312080
I0502 03:21:32.277554 17811 layer_factory.hpp:77] Creating layer relu3
I0502 03:21:32.277560 17811 net.cpp:94] Creating Layer relu3
I0502 03:21:32.277565 17811 net.cpp:435] relu3 <- conv3
I0502 03:21:32.277568 17811 net.cpp:396] relu3 -> conv3 (in-place)
I0502 03:21:32.277575 17811 net.cpp:144] Setting up relu3
I0502 03:21:32.277580 17811 net.cpp:151] Top shape: 20 64 5 5 (32000)
I0502 03:21:32.277583 17811 net.cpp:159] Memory required for data: 2440080
I0502 03:21:32.277586 17811 layer_factory.hpp:77] Creating layer conv4
I0502 03:21:32.277595 17811 net.cpp:94] Creating Layer conv4
I0502 03:21:32.277598 17811 net.cpp:435] conv4 <- conv3
I0502 03:21:32.277603 17811 net.cpp:409] conv4 -> conv4
I0502 03:21:32.283334 17811 net.cpp:144] Setting up conv4
I0502 03:21:32.283349 17811 net.cpp:151] Top shape: 20 64 5 5 (32000)
I0502 03:21:32.283352 17811 net.cpp:159] Memory required for data: 2568080
I0502 03:21:32.283359 17811 layer_factory.hpp:77] Creating layer relu4
I0502 03:21:32.283366 17811 net.cpp:94] Creating Layer relu4
I0502 03:21:32.283370 17811 net.cpp:435] relu4 <- conv4
I0502 03:21:32.283375 17811 net.cpp:396] relu4 -> conv4 (in-place)
I0502 03:21:32.283382 17811 net.cpp:144] Setting up relu4
I0502 03:21:32.283386 17811 net.cpp:151] Top shape: 20 64 5 5 (32000)
I0502 03:21:32.283390 17811 net.cpp:159] Memory required for data: 2696080
I0502 03:21:32.283392 17811 layer_factory.hpp:77] Creating layer conv5
I0502 03:21:32.283401 17811 net.cpp:94] Creating Layer conv5
I0502 03:21:32.283404 17811 net.cpp:435] conv5 <- conv4
I0502 03:21:32.283409 17811 net.cpp:409] conv5 -> conv5
I0502 03:21:32.287786 17811 net.cpp:144] Setting up conv5
I0502 03:21:32.287801 17811 net.cpp:151] Top shape: 20 64 5 5 (32000)
I0502 03:21:32.287804 17811 net.cpp:159] Memory required for data: 2824080
I0502 03:21:32.287812 17811 layer_factory.hpp:77] Creating layer relu5
I0502 03:21:32.287818 17811 net.cpp:94] Creating Layer relu5
I0502 03:21:32.287822 17811 net.cpp:435] relu5 <- conv5
I0502 03:21:32.287827 17811 net.cpp:396] relu5 -> conv5 (in-place)
I0502 03:21:32.287833 17811 net.cpp:144] Setting up relu5
I0502 03:21:32.287837 17811 net.cpp:151] Top shape: 20 64 5 5 (32000)
I0502 03:21:32.287840 17811 net.cpp:159] Memory required for data: 2952080
I0502 03:21:32.287843 17811 layer_factory.hpp:77] Creating layer pool5
I0502 03:21:32.287849 17811 net.cpp:94] Creating Layer pool5
I0502 03:21:32.287853 17811 net.cpp:435] pool5 <- conv5
I0502 03:21:32.287858 17811 net.cpp:409] pool5 -> pool5
I0502 03:21:32.287891 17811 net.cpp:144] Setting up pool5
I0502 03:21:32.287899 17811 net.cpp:151] Top shape: 20 64 2 2 (5120)
I0502 03:21:32.287901 17811 net.cpp:159] Memory required for data: 2972560
I0502 03:21:32.287904 17811 layer_factory.hpp:77] Creating layer ip1
I0502 03:21:32.287912 17811 net.cpp:94] Creating Layer ip1
I0502 03:21:32.287915 17811 net.cpp:435] ip1 <- pool5
I0502 03:21:32.287920 17811 net.cpp:409] ip1 -> ip1
I0502 03:21:32.288434 17811 net.cpp:144] Setting up ip1
I0502 03:21:32.288441 17811 net.cpp:151] Top shape: 20 64 (1280)
I0502 03:21:32.288445 17811 net.cpp:159] Memory required for data: 2977680
I0502 03:21:32.288450 17811 layer_factory.hpp:77] Creating layer ip2
I0502 03:21:32.288457 17811 net.cpp:94] Creating Layer ip2
I0502 03:21:32.288460 17811 net.cpp:435] ip2 <- ip1
I0502 03:21:32.288466 17811 net.cpp:409] ip2 -> ip2
I0502 03:21:32.288694 17811 net.cpp:144] Setting up ip2
I0502 03:21:32.288703 17811 net.cpp:151] Top shape: 20 64 (1280)
I0502 03:21:32.288707 17811 net.cpp:159] Memory required for data: 2982800
I0502 03:21:32.288712 17811 layer_factory.hpp:77] Creating layer ip3
I0502 03:21:32.288718 17811 net.cpp:94] Creating Layer ip3
I0502 03:21:32.288722 17811 net.cpp:435] ip3 <- ip2
I0502 03:21:32.288727 17811 net.cpp:409] ip3 -> ip3
I0502 03:21:32.288923 17811 net.cpp:144] Setting up ip3
I0502 03:21:32.288929 17811 net.cpp:151] Top shape: 20 50 (1000)
I0502 03:21:32.288936 17811 net.cpp:159] Memory required for data: 2986800
I0502 03:21:32.288942 17811 layer_factory.hpp:77] Creating layer loss
I0502 03:21:32.288950 17811 net.cpp:94] Creating Layer loss
I0502 03:21:32.288954 17811 net.cpp:435] loss <- ip3
I0502 03:21:32.288957 17811 net.cpp:435] loss <- label
I0502 03:21:32.288962 17811 net.cpp:409] loss -> loss
I0502 03:21:32.288970 17811 layer_factory.hpp:77] Creating layer loss
…
I0502 03:21:32.290338 17811 solver.cpp:181] Creating test net (#0) specified by net file: ./protocol/dis_5_100_dimension.protocol_distribution
I0502 03:21:32.290364 17811 net.cpp:323] The NetState phase (1) differed from the phase (0) specified by a rule in layer parameters
I0502 03:21:32.290462 17811 net.cpp:52] Initializing net from parameters: 
state {
  phase: TEST
}
layer {
  name: "intercept"
  type: "HDF5Data"
  top: "data"
  top: "label"
  include {
    phase: TEST
  }
  hdf5_data_param {
    source: "/home/purduethu/scratch/radon/d/deng106/CNNStatisticalModel/distributions/input/5_distributions_100_sample_size_test-distributions-path.txt"
    batch_size: 20
  }
}
layer {
  name: "conv1"
  type: "Convolution"
  bottom: "data"
  top: "conv1"
  param {
    lr_mult: 1
  }
  param {
    lr_mult: 2
  }
  convolution_param {
    num_output: 64
    pad: 2
    kernel_size: 5
    stride: 1
    weight_filler {
      type: "gaussian"
      std: 0.0001
    }
    bias_filler {
      type: "constant"
    }
  }
}
layer {
  name: "relu1"
  type: "ReLU"
  bottom: "conv1"
  top: "conv1"
}
layer {
  name: "conv2"
  type: "Convolution"
  bottom: "conv1"
  top: "conv2"
  param {
    lr_mult: 1
  }
  param {
    lr_mult: 2
  }
  convolution_param {
    num_output: 64
    pad: 2
    kernel_size: 5
    stride: 1
    weight_filler {
      type: "gaussian"
      std: 0.01
    }
    bias_filler {
      type: "constant"
    }
  }
}
layer {
  name: "relu2"
  type: "ReLU"
  bottom: "conv2"
  top: "conv2"
}
layer {
  name: "pool2"
  type: "Pooling"
  bottom: "conv2"
  top: "pool2"
  pooling_param {
    pool: MAX
    kernel_size: 3
    stride: 2
  }
}
layer {
  name: "conv3"
  type: "Convolution"
  bottom: "pool2"
  top: "conv3"
  param {
    lr_mult: 1
  }
  param {
    lr_mult: 2
  }
  convolution_param {
    num_output: 64
    pad: 2
    kernel_size: 5
    stride: 1
    weight_filler {
      type: "gaussian"
      std: 0.01
    }
    bias_filler {
      type: "constant"
    }
  }
}
layer {
  name: "relu3"
  type: "ReLU"
  bottom: "conv3"
  top: "conv3"
}
layer {
  name: "conv4"
  type: "Convolution"
  bottom: "conv3"
  top: "conv4"
  param {
    lr_mult: 1
  }
  param {
    lr_mult: 2
  }
  convolution_param {
    num_output: 64
    pad: 2
    kernel_size: 5
    stride: 1
    weight_filler {
      type: "gaussian"
      std: 0.01
    }
    bias_filler {
      type: "constant"
    }
  }
}
layer {
  name: "relu4"
  type: "ReLU"
  bottom: "conv4"
  top: "conv4"
}
layer {
  name: "conv5"
  type: "Convolution"
  bottom: "conv4"
  top: "conv5"
  param {
    lr_mult: 1
  }
  param {
    lr_mult: 2
  }
  convolution_param {
    num_output: 64
    pad: 2
    kernel_size: 5
    stride: 1
    weight_filler {
      type: "gaussian"
      std: 0.01
    }
    bias_filler {
      type: "constant"
    }
  }
}
layer {
  name: "relu5"
  type: "ReLU"
  bottom: "conv5"
  top: "conv5"
}
layer {
  name: "pool5"
  type: "Pooling"
  bottom: "conv5"
  top: "pool5"
  pooling_param {
    pool: AVE
    kernel_size: 3
    stride: 2
  }
}
layer {
  name: "ip1"
  type: "InnerProduct"
  bottom: "pool5"
  top: "ip1"
  param {
    lr_mult: 1
  }
  param {
    lr_mult: 2
  }
  inner_product_param {
    num_output: 64
    weight_filler {
      type: "gaussian"
      std: 0.1
    }
    bias_filler {
      type: "constant"
    }
  }
}
layer {
  name: "ip2"
  type: "InnerProduct"
  bottom: "ip1"
  top: "ip2"
  param {
    lr_mult: 1
  }
  param {
    lr_mult: 2
  }
  inner_product_param {
    num_output: 64
    weight_filler {
      type: "gaussian"
      std: 0.1
    }
    bias_filler {
      type: "constant"
    }
  }
}
layer {
  name: "ip3"
  type: "InnerProduct"
  bottom: "ip2"
  top: "ip3"
  param {
    lr_mult: 1
  }
  param {
    lr_mult: 2
  }
  inner_product_param {
    num_output: 50
    weight_filler {
      type: "gaussian"
      std: 0.1
    }
    bias_filler {
      type: "constant"
    }
  }
}
layer {
  name: "accuracy"
  type: "Accuracy"
  bottom: "ip3"
  bottom: "label"
  top: "accuracy"
  include {
    phase: TEST
  }
}
layer {
  name: "loss"
  type: "SoftmaxWithLoss"
  bottom: "ip3"
  bottom: "label"
  top: "loss"
}
I0502 03:21:32.290532 17811 layer_factory.hpp:77] Creating layer intercept
I0502 03:21:32.290541 17811 net.cpp:94] Creating Layer intercept
I0502 03:21:32.290546 17811 net.cpp:409] intercept -> data
I0502 03:21:32.290554 17811 net.cpp:409] intercept -> label
I0502 03:21:32.290560 17811 hdf5_data_layer.cpp:79] Loading list of HDF5 filenames from: /home/purduethu/scratch/radon/d/deng106/CNNStatisticalModel/distributions/input/5_distributions_100_sample_size_test-distributions-path.txt
I0502 03:21:32.290578 17811 hdf5_data_layer.cpp:93] Number of HDF5 files: 1
I0502 03:21:32.295040 17811 net.cpp:144] Setting up intercept
I0502 03:21:32.295070 17811 net.cpp:151] Top shape: 20 1 10 10 (2000)
I0502 03:21:32.295075 17811 net.cpp:151] Top shape: 20 (20)
I0502 03:21:32.295079 17811 net.cpp:159] Memory required for data: 8080
I0502 03:21:32.295085 17811 layer_factory.hpp:77] Creating layer label_intercept_1_split
I0502 03:21:32.295102 17811 net.cpp:94] Creating Layer label_intercept_1_split
I0502 03:21:32.295106 17811 net.cpp:435] label_intercept_1_split <- label
I0502 03:21:32.295112 17811 net.cpp:409] label_intercept_1_split -> label_intercept_1_split_0
I0502 03:21:32.295121 17811 net.cpp:409] label_intercept_1_split -> label_intercept_1_split_1
I0502 03:21:32.295161 17811 net.cpp:144] Setting up label_intercept_1_split
I0502 03:21:32.295166 17811 net.cpp:151] Top shape: 20 (20)
I0502 03:21:32.295171 17811 net.cpp:151] Top shape: 20 (20)
I0502 03:21:32.295173 17811 net.cpp:159] Memory required for data: 8240
I0502 03:21:32.295177 17811 layer_factory.hpp:77] Creating layer conv1
I0502 03:21:32.295188 17811 net.cpp:94] Creating Layer conv1
I0502 03:21:32.295192 17811 net.cpp:435] conv1 <- data
I0502 03:21:32.295197 17811 net.cpp:409] conv1 -> conv1
I0502 03:21:32.295981 17811 net.cpp:144] Setting up conv1
I0502 03:21:32.295994 17811 net.cpp:151] Top shape: 20 64 10 10 (128000)
I0502 03:21:32.295999 17811 net.cpp:159] Memory required for data: 520240
I0502 03:21:32.296015 17811 layer_factory.hpp:77] Creating layer relu1
I0502 03:21:32.296022 17811 net.cpp:94] Creating Layer relu1
I0502 03:21:32.296026 17811 net.cpp:435] relu1 <- conv1
I0502 03:21:32.296030 17811 net.cpp:396] relu1 -> conv1 (in-place)
I0502 03:21:32.296038 17811 net.cpp:144] Setting up relu1
I0502 03:21:32.296042 17811 net.cpp:151] Top shape: 20 64 10 10 (128000)
I0502 03:21:32.296046 17811 net.cpp:159] Memory required for data: 1032240
I0502 03:21:32.296049 17811 layer_factory.hpp:77] Creating layer conv2
I0502 03:21:32.296057 17811 net.cpp:94] Creating Layer conv2
I0502 03:21:32.296061 17811 net.cpp:435] conv2 <- conv1
I0502 03:21:32.296066 17811 net.cpp:409] conv2 -> conv2
I0502 03:21:32.300092 17811 net.cpp:144] Setting up conv2
I0502 03:21:32.300107 17811 net.cpp:151] Top shape: 20 64 10 10 (128000)
I0502 03:21:32.300110 17811 net.cpp:159] Memory required for data: 1544240
I0502 03:21:32.300118 17811 layer_factory.hpp:77] Creating layer relu2
I0502 03:21:32.300124 17811 net.cpp:94] Creating Layer relu2
I0502 03:21:32.300128 17811 net.cpp:435] relu2 <- conv2
I0502 03:21:32.300133 17811 net.cpp:396] relu2 -> conv2 (in-place)
I0502 03:21:32.300140 17811 net.cpp:144] Setting up relu2
I0502 03:21:32.300144 17811 net.cpp:151] Top shape: 20 64 10 10 (128000)
I0502 03:21:32.300148 17811 net.cpp:159] Memory required for data: 2056240
I0502 03:21:32.300150 17811 layer_factory.hpp:77] Creating layer pool2
I0502 03:21:32.300156 17811 net.cpp:94] Creating Layer pool2
I0502 03:21:32.300160 17811 net.cpp:435] pool2 <- conv2
I0502 03:21:32.300164 17811 net.cpp:409] pool2 -> pool2
I0502 03:21:32.300213 17811 net.cpp:144] Setting up pool2
I0502 03:21:32.300220 17811 net.cpp:151] Top shape: 20 64 5 5 (32000)
I0502 03:21:32.300223 17811 net.cpp:159] Memory required for data: 2184240
I0502 03:21:32.300226 17811 layer_factory.hpp:77] Creating layer conv3
I0502 03:21:32.300235 17811 net.cpp:94] Creating Layer conv3
I0502 03:21:32.300238 17811 net.cpp:435] conv3 <- pool2
I0502 03:21:32.300243 17811 net.cpp:409] conv3 -> conv3
I0502 03:21:32.303745 17811 net.cpp:144] Setting up conv3
I0502 03:21:32.303758 17811 net.cpp:151] Top shape: 20 64 5 5 (32000)
I0502 03:21:32.303762 17811 net.cpp:159] Memory required for data: 2312240
I0502 03:21:32.303771 17811 layer_factory.hpp:77] Creating layer relu3
I0502 03:21:32.303777 17811 net.cpp:94] Creating Layer relu3
I0502 03:21:32.303781 17811 net.cpp:435] relu3 <- conv3
I0502 03:21:32.303786 17811 net.cpp:396] relu3 -> conv3 (in-place)
I0502 03:21:32.303792 17811 net.cpp:144] Setting up relu3
I0502 03:21:32.303797 17811 net.cpp:151] Top shape: 20 64 5 5 (32000)
I0502 03:21:32.303800 17811 net.cpp:159] Memory required for data: 2440240
I0502 03:21:32.303803 17811 layer_factory.hpp:77] Creating layer conv4
I0502 03:21:32.303812 17811 net.cpp:94] Creating Layer conv4
I0502 03:21:32.303814 17811 net.cpp:435] conv4 <- conv3
I0502 03:21:32.303819 17811 net.cpp:409] conv4 -> conv4
I0502 03:21:32.307317 17811 net.cpp:144] Setting up conv4
I0502 03:21:32.307329 17811 net.cpp:151] Top shape: 20 64 5 5 (32000)
I0502 03:21:32.307333 17811 net.cpp:159] Memory required for data: 2568240
I0502 03:21:32.307339 17811 layer_factory.hpp:77] Creating layer relu4
I0502 03:21:32.307345 17811 net.cpp:94] Creating Layer relu4
I0502 03:21:32.307349 17811 net.cpp:435] relu4 <- conv4
I0502 03:21:32.307353 17811 net.cpp:396] relu4 -> conv4 (in-place)
I0502 03:21:32.307360 17811 net.cpp:144] Setting up relu4
I0502 03:21:32.307365 17811 net.cpp:151] Top shape: 20 64 5 5 (32000)
I0502 03:21:32.307368 17811 net.cpp:159] Memory required for data: 2696240
I0502 03:21:32.307371 17811 layer_factory.hpp:77] Creating layer conv5
I0502 03:21:32.307379 17811 net.cpp:94] Creating Layer conv5
I0502 03:21:32.307384 17811 net.cpp:435] conv5 <- conv4
I0502 03:21:32.307389 17811 net.cpp:409] conv5 -> conv5
I0502 03:21:32.312176 17811 net.cpp:144] Setting up conv5
I0502 03:21:32.312191 17811 net.cpp:151] Top shape: 20 64 5 5 (32000)
I0502 03:21:32.312194 17811 net.cpp:159] Memory required for data: 2824240
I0502 03:21:32.312206 17811 layer_factory.hpp:77] Creating layer relu5
I0502 03:21:32.312213 17811 net.cpp:94] Creating Layer relu5
I0502 03:21:32.312217 17811 net.cpp:435] relu5 <- conv5
I0502 03:21:32.312222 17811 net.cpp:396] relu5 -> conv5 (in-place)
I0502 03:21:32.312229 17811 net.cpp:144] Setting up relu5
I0502 03:21:32.312233 17811 net.cpp:151] Top shape: 20 64 5 5 (32000)
I0502 03:21:32.312237 17811 net.cpp:159] Memory required for data: 2952240
I0502 03:21:32.312240 17811 layer_factory.hpp:77] Creating layer pool5
I0502 03:21:32.312245 17811 net.cpp:94] Creating Layer pool5
I0502 03:21:32.312248 17811 net.cpp:435] pool5 <- conv5
I0502 03:21:32.312253 17811 net.cpp:409] pool5 -> pool5
I0502 03:21:32.312288 17811 net.cpp:144] Setting up pool5
I0502 03:21:32.312295 17811 net.cpp:151] Top shape: 20 64 2 2 (5120)
I0502 03:21:32.312299 17811 net.cpp:159] Memory required for data: 2972720
I0502 03:21:32.312301 17811 layer_factory.hpp:77] Creating layer ip1
I0502 03:21:32.312309 17811 net.cpp:94] Creating Layer ip1
I0502 03:21:32.312312 17811 net.cpp:435] ip1 <- pool5
I0502 03:21:32.312317 17811 net.cpp:409] ip1 -> ip1
I0502 03:21:32.312865 17811 net.cpp:144] Setting up ip1
I0502 03:21:32.312885 17811 net.cpp:151] Top shape: 20 64 (1280)
I0502 03:21:32.312889 17811 net.cpp:159] Memory required for data: 2977840
I0502 03:21:32.312894 17811 layer_factory.hpp:77] Creating layer ip2
I0502 03:21:32.312901 17811 net.cpp:94] Creating Layer ip2
I0502 03:21:32.312906 17811 net.cpp:435] ip2 <- ip1
I0502 03:21:32.312911 17811 net.cpp:409] ip2 -> ip2
I0502 03:21:32.313123 17811 net.cpp:144] Setting up ip2
I0502 03:21:32.313132 17811 net.cpp:151] Top shape: 20 64 (1280)
I0502 03:21:32.313134 17811 net.cpp:159] Memory required for data: 2982960
I0502 03:21:32.313139 17811 layer_factory.hpp:77] Creating layer ip3
I0502 03:21:32.313146 17811 net.cpp:94] Creating Layer ip3
I0502 03:21:32.313150 17811 net.cpp:435] ip3 <- ip2
I0502 03:21:32.313155 17811 net.cpp:409] ip3 -> ip3
I0502 03:21:32.313343 17811 net.cpp:144] Setting up ip3
I0502 03:21:32.313349 17811 net.cpp:151] Top shape: 20 50 (1000)
I0502 03:21:32.313352 17811 net.cpp:159] Memory required for data: 2986960
I0502 03:21:32.313357 17811 layer_factory.hpp:77] Creating layer ip3_ip3_0_split
I0502 03:21:32.313364 17811 net.cpp:94] Creating Layer ip3_ip3_0_split
I0502 03:21:32.313366 17811 net.cpp:435] ip3_ip3_0_split <- ip3
I0502 03:21:32.313371 17811 net.cpp:409] ip3_ip3_0_split -> ip3_ip3_0_split_0
I0502 03:21:32.313377 17811 net.cpp:409] ip3_ip3_0_split -> ip3_ip3_0_split_1
I0502 03:21:32.313415 17811 net.cpp:144] Setting up ip3_ip3_0_split
I0502 03:21:32.313421 17811 net.cpp:151] Top shape: 20 50 (1000)
I0502 03:21:32.313424 17811 net.cpp:151] Top shape: 20 50 (1000)
I0502 03:21:32.313427 17811 net.cpp:159] Memory required for data: 2994960
I0502 03:21:32.313431 17811 layer_factory.hpp:77] Creating layer accuracy
I0502 03:21:32.313436 17811 net.cpp:94] Creating Layer accuracy
I0502 03:21:32.313439 17811 net.cpp:435] accuracy <- ip3_ip3_0_split_0
I0502 03:21:32.313443 17811 net.cpp:435] accuracy <- label_intercept_1_split_0
I0502 03:21:32.313448 17811 net.cpp:409] accuracy -> accuracy
…
