…
I0430 22:05:40.367957 26303 net.cpp:323] The NetState phase (0) differed from the phase (1) specified by a rule in layer intercept
I0430 22:05:40.367974 26303 net.cpp:323] The NetState phase (0) differed from the phase (1) specified by a rule in layer loss
I0430 22:05:40.368053 26303 net.cpp:52] Initializing net from parameters: 
state {
  phase: TRAIN
}
layer {
  name: "parameters"
  type: "HDF5Data"
  top: "data"
  top: "label"
  include {
    phase: TRAIN
  }
  hdf5_data_param {
    source: "/home/purduethu/scratch/radon/d/deng106/CNNStatisticalModel/distributions/input/50_distributions_900_sample_size_train-parameters-path.txt"
    batch_size: 20
  }
}
layer {
  name: "conv1"
  type: "Convolution"
  bottom: "data"
  top: "conv1"
  param {
    lr_mult: 1
  }
  param {
    lr_mult: 2
  }
  convolution_param {
    num_output: 64
    pad: 2
    kernel_size: 5
    stride: 1
    weight_filler {
      type: "gaussian"
      std: 0.0001
    }
    bias_filler {
      type: "constant"
    }
  }
}
layer {
  name: "relu1"
  type: "ReLU"
  bottom: "conv1"
  top: "conv1"
}
layer {
  name: "conv2"
  type: "Convolution"
  bottom: "conv1"
  top: "conv2"
  param {
    lr_mult: 1
  }
  param {
    lr_mult: 2
  }
  convolution_param {
    num_output: 64
    pad: 2
    kernel_size: 5
    stride: 1
    weight_filler {
      type: "gaussian"
      std: 0.01
    }
    bias_filler {
      type: "constant"
    }
  }
}
layer {
  name: "relu2"
  type: "ReLU"
  bottom: "conv2"
  top: "conv2"
}
layer {
  name: "pool2"
  type: "Pooling"
  bottom: "conv2"
  top: "pool2"
  pooling_param {
    pool: MAX
    kernel_size: 3
    stride: 2
  }
}
layer {
  name: "conv3"
  type: "Convolution"
  bottom: "pool2"
  top: "conv3"
  param {
    lr_mult: 1
  }
  param {
    lr_mult: 2
  }
  convolution_param {
    num_output: 128
    pad: 2
    kernel_size: 5
    stride: 1
    weight_filler {
      type: "gaussian"
      std: 0.01
    }
    bias_filler {
      type: "constant"
    }
  }
}
layer {
  name: "relu3"
  type: "ReLU"
  bottom: "conv3"
  top: "conv3"
}
layer {
  name: "conv4"
  type: "Convolution"
  bottom: "conv3"
  top: "conv4"
  param {
    lr_mult: 1
  }
  param {
    lr_mult: 2
  }
  convolution_param {
    num_output: 128
    pad: 2
    kernel_size: 5
    stride: 1
    weight_filler {
      type: "gaussian"
      std: 0.01
    }
    bias_filler {
      type: "constant"
    }
  }
}
layer {
  name: "relu4"
  type: "ReLU"
  bottom: "conv4"
  top: "conv4"
}
layer {
  name: "conv5"
  type: "Convolution"
  bottom: "conv4"
  top: "conv5"
  param {
    lr_mult: 1
  }
  param {
    lr_mult: 2
  }
  convolution_param {
    num_output: 128
    pad: 2
    kernel_size: 5
    stride: 1
    weight_filler {
      type: "gaussian"
      std: 0.01
    }
    bias_filler {
      type: "constant"
    }
  }
}
layer {
  name: "relu5"
  type: "ReLU"
  bottom: "conv5"
  top: "conv5"
}
layer {
  name: "pool5"
  type: "Pooling"
  bottom: "conv5"
  top: "pool5"
  pooling_param {
    pool: AVE
    kernel_size: 3
    stride: 2
  }
}
layer {
  name: "ip1"
  type: "InnerProduct"
  bottom: "pool5"
  top: "ip1"
  param {
    lr_mult: 1
  }
  param {
    lr_mult: 2
  }
  inner_product_param {
    num_output: 1024
    weight_filler {
      type: "gaussian"
      std: 0.1
    }
    bias_filler {
      type: "constant"
    }
  }
}
layer {
  name: "ip2"
  type: "InnerProduct"
  bottom: "ip1"
  top: "ip2"
  param {
    lr_mult: 1
  }
  param {
    lr_mult: 2
  }
  inner_product_param {
    num_output: 512
    weight_filler {
      type: "gaussian"
      std: 0.1
    }
    bias_filler {
      type: "constant"
    }
  }
}
layer {
  name: "ip3"
  type: "InnerProduct"
  bottom: "ip2"
  top: "ip3"
  param {
    lr_mult: 1
  }
  param {
    lr_mult: 2
  }
  inner_product_param {
    num_output: 1
    weight_filler {
      type: "gaussian"
      std: 0.1
    }
    bias_filler {
      type: "constant"
    }
  }
}
layer {
  name: "loss"
  type: "HuberLoss"
  bottom: "ip3"
  bottom: "label"
  top: "loss"
  include {
    phase: TRAIN
  }
}
I0430 22:05:40.368109 26303 layer_factory.hpp:77] Creating layer parameters
I0430 22:05:40.368125 26303 net.cpp:94] Creating Layer parameters
I0430 22:05:40.368130 26303 net.cpp:409] parameters -> data
I0430 22:05:40.368139 26303 net.cpp:409] parameters -> label
I0430 22:05:40.368146 26303 hdf5_data_layer.cpp:79] Loading list of HDF5 filenames from: /home/purduethu/scratch/radon/d/deng106/CNNStatisticalModel/distributions/input/50_distributions_900_sample_size_train-parameters-path.txt
I0430 22:05:40.368161 26303 hdf5_data_layer.cpp:93] Number of HDF5 files: 1
I0430 22:05:40.368741 26303 hdf5.cpp:32] Datatype class: H5T_FLOAT
I0430 22:05:41.874065 26303 net.cpp:144] Setting up parameters
I0430 22:05:41.874105 26303 net.cpp:151] Top shape: 20 1 30 30 (18000)
I0430 22:05:41.874111 26303 net.cpp:151] Top shape: 20 (20)
I0430 22:05:41.874114 26303 net.cpp:159] Memory required for data: 72080
I0430 22:05:41.874121 26303 layer_factory.hpp:77] Creating layer conv1
I0430 22:05:41.874143 26303 net.cpp:94] Creating Layer conv1
I0430 22:05:41.874148 26303 net.cpp:435] conv1 <- data
I0430 22:05:41.874155 26303 net.cpp:409] conv1 -> conv1
I0430 22:05:41.881122 26303 net.cpp:144] Setting up conv1
I0430 22:05:41.881157 26303 net.cpp:151] Top shape: 20 64 30 30 (1152000)
I0430 22:05:41.881161 26303 net.cpp:159] Memory required for data: 4680080
I0430 22:05:41.881176 26303 layer_factory.hpp:77] Creating layer relu1
I0430 22:05:41.881187 26303 net.cpp:94] Creating Layer relu1
I0430 22:05:41.881192 26303 net.cpp:435] relu1 <- conv1
I0430 22:05:41.881197 26303 net.cpp:396] relu1 -> conv1 (in-place)
I0430 22:05:41.881212 26303 net.cpp:144] Setting up relu1
I0430 22:05:41.881217 26303 net.cpp:151] Top shape: 20 64 30 30 (1152000)
I0430 22:05:41.881220 26303 net.cpp:159] Memory required for data: 9288080
I0430 22:05:41.881223 26303 layer_factory.hpp:77] Creating layer conv2
I0430 22:05:41.881234 26303 net.cpp:94] Creating Layer conv2
I0430 22:05:41.881238 26303 net.cpp:435] conv2 <- conv1
I0430 22:05:41.881243 26303 net.cpp:409] conv2 -> conv2
I0430 22:05:41.898175 26303 net.cpp:144] Setting up conv2
I0430 22:05:41.898212 26303 net.cpp:151] Top shape: 20 64 30 30 (1152000)
I0430 22:05:41.898216 26303 net.cpp:159] Memory required for data: 13896080
I0430 22:05:41.898231 26303 layer_factory.hpp:77] Creating layer relu2
I0430 22:05:41.898242 26303 net.cpp:94] Creating Layer relu2
I0430 22:05:41.898247 26303 net.cpp:435] relu2 <- conv2
I0430 22:05:41.898252 26303 net.cpp:396] relu2 -> conv2 (in-place)
I0430 22:05:41.898263 26303 net.cpp:144] Setting up relu2
I0430 22:05:41.898268 26303 net.cpp:151] Top shape: 20 64 30 30 (1152000)
I0430 22:05:41.898272 26303 net.cpp:159] Memory required for data: 18504080
I0430 22:05:41.898274 26303 layer_factory.hpp:77] Creating layer pool2
I0430 22:05:41.898288 26303 net.cpp:94] Creating Layer pool2
I0430 22:05:41.898293 26303 net.cpp:435] pool2 <- conv2
I0430 22:05:41.898296 26303 net.cpp:409] pool2 -> pool2
I0430 22:05:41.898393 26303 net.cpp:144] Setting up pool2
I0430 22:05:41.898401 26303 net.cpp:151] Top shape: 20 64 15 15 (288000)
I0430 22:05:41.898403 26303 net.cpp:159] Memory required for data: 19656080
I0430 22:05:41.898407 26303 layer_factory.hpp:77] Creating layer conv3
I0430 22:05:41.898417 26303 net.cpp:94] Creating Layer conv3
I0430 22:05:41.898421 26303 net.cpp:435] conv3 <- pool2
I0430 22:05:41.898425 26303 net.cpp:409] conv3 -> conv3
I0430 22:05:41.911633 26303 net.cpp:144] Setting up conv3
I0430 22:05:41.911667 26303 net.cpp:151] Top shape: 20 128 15 15 (576000)
I0430 22:05:41.911671 26303 net.cpp:159] Memory required for data: 21960080
I0430 22:05:41.911686 26303 layer_factory.hpp:77] Creating layer relu3
I0430 22:05:41.911696 26303 net.cpp:94] Creating Layer relu3
I0430 22:05:41.911701 26303 net.cpp:435] relu3 <- conv3
I0430 22:05:41.911706 26303 net.cpp:396] relu3 -> conv3 (in-place)
I0430 22:05:41.911717 26303 net.cpp:144] Setting up relu3
I0430 22:05:41.911721 26303 net.cpp:151] Top shape: 20 128 15 15 (576000)
I0430 22:05:41.911725 26303 net.cpp:159] Memory required for data: 24264080
I0430 22:05:41.911727 26303 layer_factory.hpp:77] Creating layer conv4
I0430 22:05:41.911739 26303 net.cpp:94] Creating Layer conv4
I0430 22:05:41.911743 26303 net.cpp:435] conv4 <- conv3
I0430 22:05:41.911748 26303 net.cpp:409] conv4 -> conv4
I0430 22:05:41.937369 26303 net.cpp:144] Setting up conv4
I0430 22:05:41.937410 26303 net.cpp:151] Top shape: 20 128 15 15 (576000)
I0430 22:05:41.937414 26303 net.cpp:159] Memory required for data: 26568080
I0430 22:05:41.937425 26303 layer_factory.hpp:77] Creating layer relu4
I0430 22:05:41.937438 26303 net.cpp:94] Creating Layer relu4
I0430 22:05:41.937443 26303 net.cpp:435] relu4 <- conv4
I0430 22:05:41.937448 26303 net.cpp:396] relu4 -> conv4 (in-place)
I0430 22:05:41.937459 26303 net.cpp:144] Setting up relu4
I0430 22:05:41.937463 26303 net.cpp:151] Top shape: 20 128 15 15 (576000)
I0430 22:05:41.937466 26303 net.cpp:159] Memory required for data: 28872080
I0430 22:05:41.937469 26303 layer_factory.hpp:77] Creating layer conv5
I0430 22:05:41.937480 26303 net.cpp:94] Creating Layer conv5
I0430 22:05:41.937484 26303 net.cpp:435] conv5 <- conv4
I0430 22:05:41.937489 26303 net.cpp:409] conv5 -> conv5
I0430 22:05:41.961161 26303 net.cpp:144] Setting up conv5
I0430 22:05:41.961203 26303 net.cpp:151] Top shape: 20 128 15 15 (576000)
I0430 22:05:41.961207 26303 net.cpp:159] Memory required for data: 31176080
I0430 22:05:41.961223 26303 layer_factory.hpp:77] Creating layer relu5
I0430 22:05:41.961235 26303 net.cpp:94] Creating Layer relu5
I0430 22:05:41.961238 26303 net.cpp:435] relu5 <- conv5
I0430 22:05:41.961244 26303 net.cpp:396] relu5 -> conv5 (in-place)
I0430 22:05:41.961256 26303 net.cpp:144] Setting up relu5
I0430 22:05:41.961261 26303 net.cpp:151] Top shape: 20 128 15 15 (576000)
I0430 22:05:41.961262 26303 net.cpp:159] Memory required for data: 33480080
I0430 22:05:41.961266 26303 layer_factory.hpp:77] Creating layer pool5
I0430 22:05:41.961272 26303 net.cpp:94] Creating Layer pool5
I0430 22:05:41.961274 26303 net.cpp:435] pool5 <- conv5
I0430 22:05:41.961279 26303 net.cpp:409] pool5 -> pool5
I0430 22:05:41.961369 26303 net.cpp:144] Setting up pool5
I0430 22:05:41.961375 26303 net.cpp:151] Top shape: 20 128 7 7 (125440)
I0430 22:05:41.961379 26303 net.cpp:159] Memory required for data: 33981840
I0430 22:05:41.961382 26303 layer_factory.hpp:77] Creating layer ip1
I0430 22:05:41.961393 26303 net.cpp:94] Creating Layer ip1
I0430 22:05:41.961397 26303 net.cpp:435] ip1 <- pool5
I0430 22:05:41.961401 26303 net.cpp:409] ip1 -> ip1
I0430 22:05:42.121600 26303 net.cpp:144] Setting up ip1
I0430 22:05:42.121639 26303 net.cpp:151] Top shape: 20 1024 (20480)
I0430 22:05:42.121644 26303 net.cpp:159] Memory required for data: 34063760
I0430 22:05:42.121654 26303 layer_factory.hpp:77] Creating layer ip2
I0430 22:05:42.121665 26303 net.cpp:94] Creating Layer ip2
I0430 22:05:42.121682 26303 net.cpp:435] ip2 <- ip1
I0430 22:05:42.121690 26303 net.cpp:409] ip2 -> ip2
I0430 22:05:42.135325 26303 net.cpp:144] Setting up ip2
I0430 22:05:42.135361 26303 net.cpp:151] Top shape: 20 512 (10240)
I0430 22:05:42.135365 26303 net.cpp:159] Memory required for data: 34104720
I0430 22:05:42.135375 26303 layer_factory.hpp:77] Creating layer ip3
I0430 22:05:42.135385 26303 net.cpp:94] Creating Layer ip3
I0430 22:05:42.135390 26303 net.cpp:435] ip3 <- ip2
I0430 22:05:42.135397 26303 net.cpp:409] ip3 -> ip3
I0430 22:05:42.135517 26303 net.cpp:144] Setting up ip3
I0430 22:05:42.135524 26303 net.cpp:151] Top shape: 20 1 (20)
I0430 22:05:42.135527 26303 net.cpp:159] Memory required for data: 34104800
I0430 22:05:42.135532 26303 layer_factory.hpp:77] Creating layer loss
I0430 22:05:42.135541 26303 net.cpp:94] Creating Layer loss
I0430 22:05:42.135545 26303 net.cpp:435] loss <- ip3
I0430 22:05:42.135548 26303 net.cpp:435] loss <- label
I0430 22:05:42.135552 26303 net.cpp:409] loss -> loss
I0430 22:05:42.135603 26303 net.cpp:144] Setting up loss
…
I0430 22:05:42.800928 26303 net.cpp:323] The NetState phase (0) differed from the phase (1) specified by a rule in layer intercept
I0430 22:05:42.800951 26303 net.cpp:323] The NetState phase (0) differed from the phase (1) specified by a rule in layer accuracy
I0430 22:05:42.801061 26303 net.cpp:52] Initializing net from parameters: 
state {
  phase: TRAIN
}
layer {
  name: "parameters"
  type: "HDF5Data"
  top: "data"
  top: "label"
  include {
    phase: TRAIN
  }
  hdf5_data_param {
    source: "/home/purduethu/scratch/radon/d/deng106/CNNStatisticalModel/distributions/input/50_distributions_900_sample_size_train-distributions-path.txt"
    batch_size: 20
  }
}
layer {
  name: "conv1"
  type: "Convolution"
  bottom: "data"
  top: "conv1"
  param {
    lr_mult: 1
  }
  param {
    lr_mult: 2
  }
  convolution_param {
    num_output: 64
    pad: 2
    kernel_size: 5
    stride: 1
    weight_filler {
      type: "gaussian"
      std: 0.0001
    }
    bias_filler {
      type: "constant"
    }
  }
}
layer {
  name: "relu1"
  type: "ReLU"
  bottom: "conv1"
  top: "conv1"
}
layer {
  name: "conv2"
  type: "Convolution"
  bottom: "conv1"
  top: "conv2"
  param {
    lr_mult: 1
  }
  param {
    lr_mult: 2
  }
  convolution_param {
    num_output: 64
    pad: 2
    kernel_size: 5
    stride: 1
    weight_filler {
      type: "gaussian"
      std: 0.01
    }
    bias_filler {
      type: "constant"
    }
  }
}
layer {
  name: "relu2"
  type: "ReLU"
  bottom: "conv2"
  top: "conv2"
}
layer {
  name: "pool2"
  type: "Pooling"
  bottom: "conv2"
  top: "pool2"
  pooling_param {
    pool: MAX
    kernel_size: 3
    stride: 2
  }
}
layer {
  name: "conv3"
  type: "Convolution"
  bottom: "pool2"
  top: "conv3"
  param {
    lr_mult: 1
  }
  param {
    lr_mult: 2
  }
  convolution_param {
    num_output: 128
    pad: 2
    kernel_size: 5
    stride: 1
    weight_filler {
      type: "gaussian"
      std: 0.01
    }
    bias_filler {
      type: "constant"
    }
  }
}
layer {
  name: "relu3"
  type: "ReLU"
  bottom: "conv3"
  top: "conv3"
}
layer {
  name: "conv4"
  type: "Convolution"
  bottom: "conv3"
  top: "conv4"
  param {
    lr_mult: 1
  }
  param {
    lr_mult: 2
  }
  convolution_param {
    num_output: 128
    pad: 2
    kernel_size: 5
    stride: 1
    weight_filler {
      type: "gaussian"
      std: 0.01
    }
    bias_filler {
      type: "constant"
    }
  }
}
layer {
  name: "relu4"
  type: "ReLU"
  bottom: "conv4"
  top: "conv4"
}
layer {
  name: "conv5"
  type: "Convolution"
  bottom: "conv4"
  top: "conv5"
  param {
    lr_mult: 1
  }
  param {
    lr_mult: 2
  }
  convolution_param {
    num_output: 128
    pad: 2
    kernel_size: 5
    stride: 1
    weight_filler {
      type: "gaussian"
      std: 0.01
    }
    bias_filler {
      type: "constant"
    }
  }
}
layer {
  name: "relu5"
  type: "ReLU"
  bottom: "conv5"
  top: "conv5"
}
layer {
  name: "pool5"
  type: "Pooling"
  bottom: "conv5"
  top: "pool5"
  pooling_param {
    pool: AVE
    kernel_size: 3
    stride: 2
  }
}
layer {
  name: "ip1"
  type: "InnerProduct"
  bottom: "pool5"
  top: "ip1"
  param {
    lr_mult: 1
  }
  param {
    lr_mult: 2
  }
  inner_product_param {
    num_output: 1024
    weight_filler {
      type: "gaussian"
      std: 0.1
    }
    bias_filler {
      type: "constant"
    }
  }
}
layer {
  name: "ip2"
  type: "InnerProduct"
  bottom: "ip1"
  top: "ip2"
  param {
    lr_mult: 1
  }
  param {
    lr_mult: 2
  }
  inner_product_param {
    num_output: 512
    weight_filler {
      type: "gaussian"
      std: 0.1
    }
    bias_filler {
      type: "constant"
    }
  }
}
layer {
  name: "ip3"
  type: "InnerProduct"
  bottom: "ip2"
  top: "ip3"
  param {
    lr_mult: 1
  }
  param {
    lr_mult: 2
  }
  inner_product_param {
    num_output: 50
    weight_filler {
      type: "gaussian"
      std: 0.1
    }
    bias_filler {
      type: "constant"
    }
  }
}
layer {
  name: "loss"
  type: "SoftmaxWithLoss"
  bottom: "ip3"
  bottom: "label"
  top: "loss"
}
I0430 22:05:42.801131 26303 layer_factory.hpp:77] Creating layer parameters
I0430 22:05:42.801141 26303 net.cpp:94] Creating Layer parameters
I0430 22:05:42.801146 26303 net.cpp:409] parameters -> data
I0430 22:05:42.801154 26303 net.cpp:409] parameters -> label
I0430 22:05:42.801162 26303 hdf5_data_layer.cpp:79] Loading list of HDF5 filenames from: /home/purduethu/scratch/radon/d/deng106/CNNStatisticalModel/distributions/input/50_distributions_900_sample_size_train-distributions-path.txt
I0430 22:05:42.801182 26303 hdf5_data_layer.cpp:93] Number of HDF5 files: 1
I0430 22:05:44.296376 26303 hdf5.cpp:35] Datatype class: H5T_INTEGER
I0430 22:05:44.299437 26303 net.cpp:144] Setting up parameters
I0430 22:05:44.299454 26303 net.cpp:151] Top shape: 20 1 30 30 (18000)
I0430 22:05:44.299459 26303 net.cpp:151] Top shape: 20 (20)
I0430 22:05:44.299463 26303 net.cpp:159] Memory required for data: 72080
I0430 22:05:44.299468 26303 layer_factory.hpp:77] Creating layer conv1
I0430 22:05:44.299484 26303 net.cpp:94] Creating Layer conv1
I0430 22:05:44.299489 26303 net.cpp:435] conv1 <- data
I0430 22:05:44.299494 26303 net.cpp:409] conv1 -> conv1
I0430 22:05:44.302963 26303 net.cpp:144] Setting up conv1
I0430 22:05:44.302980 26303 net.cpp:151] Top shape: 20 64 30 30 (1152000)
I0430 22:05:44.302984 26303 net.cpp:159] Memory required for data: 4680080
I0430 22:05:44.302995 26303 layer_factory.hpp:77] Creating layer relu1
I0430 22:05:44.303004 26303 net.cpp:94] Creating Layer relu1
I0430 22:05:44.303007 26303 net.cpp:435] relu1 <- conv1
I0430 22:05:44.303011 26303 net.cpp:396] relu1 -> conv1 (in-place)
I0430 22:05:44.303020 26303 net.cpp:144] Setting up relu1
I0430 22:05:44.303023 26303 net.cpp:151] Top shape: 20 64 30 30 (1152000)
I0430 22:05:44.303026 26303 net.cpp:159] Memory required for data: 9288080
I0430 22:05:44.303030 26303 layer_factory.hpp:77] Creating layer conv2
I0430 22:05:44.303037 26303 net.cpp:94] Creating Layer conv2
I0430 22:05:44.303040 26303 net.cpp:435] conv2 <- conv1
I0430 22:05:44.303045 26303 net.cpp:409] conv2 -> conv2
I0430 22:05:44.319056 26303 net.cpp:144] Setting up conv2
I0430 22:05:44.319072 26303 net.cpp:151] Top shape: 20 64 30 30 (1152000)
I0430 22:05:44.319075 26303 net.cpp:159] Memory required for data: 13896080
I0430 22:05:44.319084 26303 layer_factory.hpp:77] Creating layer relu2
I0430 22:05:44.319092 26303 net.cpp:94] Creating Layer relu2
I0430 22:05:44.319095 26303 net.cpp:435] relu2 <- conv2
I0430 22:05:44.319099 26303 net.cpp:396] relu2 -> conv2 (in-place)
I0430 22:05:44.319106 26303 net.cpp:144] Setting up relu2
I0430 22:05:44.319110 26303 net.cpp:151] Top shape: 20 64 30 30 (1152000)
I0430 22:05:44.319113 26303 net.cpp:159] Memory required for data: 18504080
I0430 22:05:44.319116 26303 layer_factory.hpp:77] Creating layer pool2
I0430 22:05:44.319123 26303 net.cpp:94] Creating Layer pool2
I0430 22:05:44.319125 26303 net.cpp:435] pool2 <- conv2
I0430 22:05:44.319129 26303 net.cpp:409] pool2 -> pool2
I0430 22:05:44.319183 26303 net.cpp:144] Setting up pool2
I0430 22:05:44.319190 26303 net.cpp:151] Top shape: 20 64 15 15 (288000)
I0430 22:05:44.319193 26303 net.cpp:159] Memory required for data: 19656080
I0430 22:05:44.319196 26303 layer_factory.hpp:77] Creating layer conv3
I0430 22:05:44.319203 26303 net.cpp:94] Creating Layer conv3
I0430 22:05:44.319213 26303 net.cpp:435] conv3 <- pool2
I0430 22:05:44.319219 26303 net.cpp:409] conv3 -> conv3
I0430 22:05:44.332902 26303 net.cpp:144] Setting up conv3
I0430 22:05:44.332919 26303 net.cpp:151] Top shape: 20 128 15 15 (576000)
I0430 22:05:44.332923 26303 net.cpp:159] Memory required for data: 21960080
I0430 22:05:44.332931 26303 layer_factory.hpp:77] Creating layer relu3
I0430 22:05:44.332937 26303 net.cpp:94] Creating Layer relu3
I0430 22:05:44.332942 26303 net.cpp:435] relu3 <- conv3
I0430 22:05:44.332945 26303 net.cpp:396] relu3 -> conv3 (in-place)
I0430 22:05:44.332953 26303 net.cpp:144] Setting up relu3
I0430 22:05:44.332957 26303 net.cpp:151] Top shape: 20 128 15 15 (576000)
I0430 22:05:44.332960 26303 net.cpp:159] Memory required for data: 24264080
I0430 22:05:44.332963 26303 layer_factory.hpp:77] Creating layer conv4
I0430 22:05:44.332973 26303 net.cpp:94] Creating Layer conv4
I0430 22:05:44.332975 26303 net.cpp:435] conv4 <- conv3
I0430 22:05:44.332979 26303 net.cpp:409] conv4 -> conv4
I0430 22:05:44.355921 26303 net.cpp:144] Setting up conv4
I0430 22:05:44.355939 26303 net.cpp:151] Top shape: 20 128 15 15 (576000)
I0430 22:05:44.355943 26303 net.cpp:159] Memory required for data: 26568080
I0430 22:05:44.355949 26303 layer_factory.hpp:77] Creating layer relu4
I0430 22:05:44.355957 26303 net.cpp:94] Creating Layer relu4
I0430 22:05:44.355959 26303 net.cpp:435] relu4 <- conv4
I0430 22:05:44.355964 26303 net.cpp:396] relu4 -> conv4 (in-place)
I0430 22:05:44.355972 26303 net.cpp:144] Setting up relu4
I0430 22:05:44.355975 26303 net.cpp:151] Top shape: 20 128 15 15 (576000)
I0430 22:05:44.355978 26303 net.cpp:159] Memory required for data: 28872080
I0430 22:05:44.355981 26303 layer_factory.hpp:77] Creating layer conv5
I0430 22:05:44.355989 26303 net.cpp:94] Creating Layer conv5
I0430 22:05:44.355993 26303 net.cpp:435] conv5 <- conv4
I0430 22:05:44.355998 26303 net.cpp:409] conv5 -> conv5
I0430 22:05:44.378535 26303 net.cpp:144] Setting up conv5
I0430 22:05:44.378554 26303 net.cpp:151] Top shape: 20 128 15 15 (576000)
I0430 22:05:44.378558 26303 net.cpp:159] Memory required for data: 31176080
I0430 22:05:44.378569 26303 layer_factory.hpp:77] Creating layer relu5
I0430 22:05:44.378576 26303 net.cpp:94] Creating Layer relu5
I0430 22:05:44.378581 26303 net.cpp:435] relu5 <- conv5
I0430 22:05:44.378584 26303 net.cpp:396] relu5 -> conv5 (in-place)
I0430 22:05:44.378592 26303 net.cpp:144] Setting up relu5
I0430 22:05:44.378597 26303 net.cpp:151] Top shape: 20 128 15 15 (576000)
I0430 22:05:44.378599 26303 net.cpp:159] Memory required for data: 33480080
I0430 22:05:44.378602 26303 layer_factory.hpp:77] Creating layer pool5
I0430 22:05:44.378607 26303 net.cpp:94] Creating Layer pool5
I0430 22:05:44.378610 26303 net.cpp:435] pool5 <- conv5
I0430 22:05:44.378614 26303 net.cpp:409] pool5 -> pool5
I0430 22:05:44.378655 26303 net.cpp:144] Setting up pool5
I0430 22:05:44.378662 26303 net.cpp:151] Top shape: 20 128 7 7 (125440)
I0430 22:05:44.378665 26303 net.cpp:159] Memory required for data: 33981840
I0430 22:05:44.378669 26303 layer_factory.hpp:77] Creating layer ip1
I0430 22:05:44.378674 26303 net.cpp:94] Creating Layer ip1
I0430 22:05:44.378679 26303 net.cpp:435] ip1 <- pool5
I0430 22:05:44.378682 26303 net.cpp:409] ip1 -> ip1
I0430 22:05:44.533921 26303 net.cpp:144] Setting up ip1
I0430 22:05:44.533957 26303 net.cpp:151] Top shape: 20 1024 (20480)
I0430 22:05:44.533962 26303 net.cpp:159] Memory required for data: 34063760
I0430 22:05:44.533970 26303 layer_factory.hpp:77] Creating layer ip2
I0430 22:05:44.533979 26303 net.cpp:94] Creating Layer ip2
I0430 22:05:44.533983 26303 net.cpp:435] ip2 <- ip1
I0430 22:05:44.533990 26303 net.cpp:409] ip2 -> ip2
I0430 22:05:44.547464 26303 net.cpp:144] Setting up ip2
I0430 22:05:44.547489 26303 net.cpp:151] Top shape: 20 512 (10240)
I0430 22:05:44.547493 26303 net.cpp:159] Memory required for data: 34104720
I0430 22:05:44.547500 26303 layer_factory.hpp:77] Creating layer ip3
I0430 22:05:44.547509 26303 net.cpp:94] Creating Layer ip3
I0430 22:05:44.547513 26303 net.cpp:435] ip3 <- ip2
I0430 22:05:44.547528 26303 net.cpp:409] ip3 -> ip3
I0430 22:05:44.549187 26303 net.cpp:144] Setting up ip3
I0430 22:05:44.549202 26303 net.cpp:151] Top shape: 20 50 (1000)
I0430 22:05:44.549206 26303 net.cpp:159] Memory required for data: 34108720
I0430 22:05:44.549212 26303 layer_factory.hpp:77] Creating layer loss
I0430 22:05:44.549221 26303 net.cpp:94] Creating Layer loss
I0430 22:05:44.549224 26303 net.cpp:435] loss <- ip3
I0430 22:05:44.549228 26303 net.cpp:435] loss <- label
I0430 22:05:44.549232 26303 net.cpp:409] loss -> loss
I0430 22:05:44.549242 26303 layer_factory.hpp:77] Creating layer loss
…
I0430 22:05:44.549751 26303 solver.cpp:181] Creating test net (#0) specified by net file: ./protocol/dis_50_900_dimension.protocol_distribution
I0430 22:05:44.549777 26303 net.cpp:323] The NetState phase (1) differed from the phase (0) specified by a rule in layer parameters
I0430 22:05:44.549870 26303 net.cpp:52] Initializing net from parameters: 
state {
  phase: TEST
}
layer {
  name: "intercept"
  type: "HDF5Data"
  top: "data"
  top: "label"
  include {
    phase: TEST
  }
  hdf5_data_param {
    source: "/home/purduethu/scratch/radon/d/deng106/CNNStatisticalModel/distributions/input/50_distributions_900_sample_size_test-distributions-path.txt"
    batch_size: 20
  }
}
layer {
  name: "conv1"
  type: "Convolution"
  bottom: "data"
  top: "conv1"
  param {
    lr_mult: 1
  }
  param {
    lr_mult: 2
  }
  convolution_param {
    num_output: 64
    pad: 2
    kernel_size: 5
    stride: 1
    weight_filler {
      type: "gaussian"
      std: 0.0001
    }
    bias_filler {
      type: "constant"
    }
  }
}
layer {
  name: "relu1"
  type: "ReLU"
  bottom: "conv1"
  top: "conv1"
}
layer {
  name: "conv2"
  type: "Convolution"
  bottom: "conv1"
  top: "conv2"
  param {
    lr_mult: 1
  }
  param {
    lr_mult: 2
  }
  convolution_param {
    num_output: 64
    pad: 2
    kernel_size: 5
    stride: 1
    weight_filler {
      type: "gaussian"
      std: 0.01
    }
    bias_filler {
      type: "constant"
    }
  }
}
layer {
  name: "relu2"
  type: "ReLU"
  bottom: "conv2"
  top: "conv2"
}
layer {
  name: "pool2"
  type: "Pooling"
  bottom: "conv2"
  top: "pool2"
  pooling_param {
    pool: MAX
    kernel_size: 3
    stride: 2
  }
}
layer {
  name: "conv3"
  type: "Convolution"
  bottom: "pool2"
  top: "conv3"
  param {
    lr_mult: 1
  }
  param {
    lr_mult: 2
  }
  convolution_param {
    num_output: 128
    pad: 2
    kernel_size: 5
    stride: 1
    weight_filler {
      type: "gaussian"
      std: 0.01
    }
    bias_filler {
      type: "constant"
    }
  }
}
layer {
  name: "relu3"
  type: "ReLU"
  bottom: "conv3"
  top: "conv3"
}
layer {
  name: "conv4"
  type: "Convolution"
  bottom: "conv3"
  top: "conv4"
  param {
    lr_mult: 1
  }
  param {
    lr_mult: 2
  }
  convolution_param {
    num_output: 128
    pad: 2
    kernel_size: 5
    stride: 1
    weight_filler {
      type: "gaussian"
      std: 0.01
    }
    bias_filler {
      type: "constant"
    }
  }
}
layer {
  name: "relu4"
  type: "ReLU"
  bottom: "conv4"
  top: "conv4"
}
layer {
  name: "conv5"
  type: "Convolution"
  bottom: "conv4"
  top: "conv5"
  param {
    lr_mult: 1
  }
  param {
    lr_mult: 2
  }
  convolution_param {
    num_output: 128
    pad: 2
    kernel_size: 5
    stride: 1
    weight_filler {
      type: "gaussian"
      std: 0.01
    }
    bias_filler {
      type: "constant"
    }
  }
}
layer {
  name: "relu5"
  type: "ReLU"
  bottom: "conv5"
  top: "conv5"
}
layer {
  name: "pool5"
  type: "Pooling"
  bottom: "conv5"
  top: "pool5"
  pooling_param {
    pool: AVE
    kernel_size: 3
    stride: 2
  }
}
layer {
  name: "ip1"
  type: "InnerProduct"
  bottom: "pool5"
  top: "ip1"
  param {
    lr_mult: 1
  }
  param {
    lr_mult: 2
  }
  inner_product_param {
    num_output: 1024
    weight_filler {
      type: "gaussian"
      std: 0.1
    }
    bias_filler {
      type: "constant"
    }
  }
}
layer {
  name: "ip2"
  type: "InnerProduct"
  bottom: "ip1"
  top: "ip2"
  param {
    lr_mult: 1
  }
  param {
    lr_mult: 2
  }
  inner_product_param {
    num_output: 512
    weight_filler {
      type: "gaussian"
      std: 0.1
    }
    bias_filler {
      type: "constant"
    }
  }
}
layer {
  name: "ip3"
  type: "InnerProduct"
  bottom: "ip2"
  top: "ip3"
  param {
    lr_mult: 1
  }
  param {
    lr_mult: 2
  }
  inner_product_param {
    num_output: 50
    weight_filler {
      type: "gaussian"
      std: 0.1
    }
    bias_filler {
      type: "constant"
    }
  }
}
layer {
  name: "accuracy"
  type: "Accuracy"
  bottom: "ip3"
  bottom: "label"
  top: "accuracy"
  include {
    phase: TEST
  }
}
layer {
  name: "loss"
  type: "SoftmaxWithLoss"
  bottom: "ip3"
  bottom: "label"
  top: "loss"
}
I0430 22:05:44.549938 26303 layer_factory.hpp:77] Creating layer intercept
I0430 22:05:44.549947 26303 net.cpp:94] Creating Layer intercept
I0430 22:05:44.549952 26303 net.cpp:409] intercept -> data
I0430 22:05:44.549958 26303 net.cpp:409] intercept -> label
I0430 22:05:44.549963 26303 hdf5_data_layer.cpp:79] Loading list of HDF5 filenames from: /home/purduethu/scratch/radon/d/deng106/CNNStatisticalModel/distributions/input/50_distributions_900_sample_size_test-distributions-path.txt
I0430 22:05:44.549983 26303 hdf5_data_layer.cpp:93] Number of HDF5 files: 1
I0430 22:05:44.910610 26303 net.cpp:144] Setting up intercept
I0430 22:05:44.910643 26303 net.cpp:151] Top shape: 20 1 30 30 (18000)
I0430 22:05:44.910648 26303 net.cpp:151] Top shape: 20 (20)
I0430 22:05:44.910651 26303 net.cpp:159] Memory required for data: 72080
I0430 22:05:44.910656 26303 layer_factory.hpp:77] Creating layer label_intercept_1_split
I0430 22:05:44.910675 26303 net.cpp:94] Creating Layer label_intercept_1_split
I0430 22:05:44.910678 26303 net.cpp:435] label_intercept_1_split <- label
I0430 22:05:44.910684 26303 net.cpp:409] label_intercept_1_split -> label_intercept_1_split_0
I0430 22:05:44.910692 26303 net.cpp:409] label_intercept_1_split -> label_intercept_1_split_1
I0430 22:05:44.910734 26303 net.cpp:144] Setting up label_intercept_1_split
I0430 22:05:44.910742 26303 net.cpp:151] Top shape: 20 (20)
I0430 22:05:44.910744 26303 net.cpp:151] Top shape: 20 (20)
I0430 22:05:44.910748 26303 net.cpp:159] Memory required for data: 72240
I0430 22:05:44.910750 26303 layer_factory.hpp:77] Creating layer conv1
I0430 22:05:44.910760 26303 net.cpp:94] Creating Layer conv1
I0430 22:05:44.910764 26303 net.cpp:435] conv1 <- data
I0430 22:05:44.910768 26303 net.cpp:409] conv1 -> conv1
I0430 22:05:44.912336 26303 net.cpp:144] Setting up conv1
I0430 22:05:44.912351 26303 net.cpp:151] Top shape: 20 64 30 30 (1152000)
I0430 22:05:44.912355 26303 net.cpp:159] Memory required for data: 4680240
I0430 22:05:44.912365 26303 layer_factory.hpp:77] Creating layer relu1
I0430 22:05:44.912372 26303 net.cpp:94] Creating Layer relu1
I0430 22:05:44.912375 26303 net.cpp:435] relu1 <- conv1
I0430 22:05:44.912380 26303 net.cpp:396] relu1 -> conv1 (in-place)
I0430 22:05:44.912387 26303 net.cpp:144] Setting up relu1
I0430 22:05:44.912391 26303 net.cpp:151] Top shape: 20 64 30 30 (1152000)
I0430 22:05:44.912395 26303 net.cpp:159] Memory required for data: 9288240
I0430 22:05:44.912397 26303 layer_factory.hpp:77] Creating layer conv2
I0430 22:05:44.912405 26303 net.cpp:94] Creating Layer conv2
I0430 22:05:44.912410 26303 net.cpp:435] conv2 <- conv1
I0430 22:05:44.912417 26303 net.cpp:409] conv2 -> conv2
I0430 22:05:44.919273 26303 net.cpp:144] Setting up conv2
I0430 22:05:44.919288 26303 net.cpp:151] Top shape: 20 64 30 30 (1152000)
I0430 22:05:44.919292 26303 net.cpp:159] Memory required for data: 13896240
I0430 22:05:44.919301 26303 layer_factory.hpp:77] Creating layer relu2
I0430 22:05:44.919306 26303 net.cpp:94] Creating Layer relu2
I0430 22:05:44.919309 26303 net.cpp:435] relu2 <- conv2
I0430 22:05:44.919313 26303 net.cpp:396] relu2 -> conv2 (in-place)
I0430 22:05:44.919320 26303 net.cpp:144] Setting up relu2
I0430 22:05:44.919324 26303 net.cpp:151] Top shape: 20 64 30 30 (1152000)
I0430 22:05:44.919327 26303 net.cpp:159] Memory required for data: 18504240
I0430 22:05:44.919330 26303 layer_factory.hpp:77] Creating layer pool2
I0430 22:05:44.919337 26303 net.cpp:94] Creating Layer pool2
I0430 22:05:44.919340 26303 net.cpp:435] pool2 <- conv2
I0430 22:05:44.919344 26303 net.cpp:409] pool2 -> pool2
I0430 22:05:44.919402 26303 net.cpp:144] Setting up pool2
I0430 22:05:44.919409 26303 net.cpp:151] Top shape: 20 64 15 15 (288000)
I0430 22:05:44.919411 26303 net.cpp:159] Memory required for data: 19656240
I0430 22:05:44.919414 26303 layer_factory.hpp:77] Creating layer conv3
I0430 22:05:44.919422 26303 net.cpp:94] Creating Layer conv3
I0430 22:05:44.919426 26303 net.cpp:435] conv3 <- pool2
I0430 22:05:44.919432 26303 net.cpp:409] conv3 -> conv3
I0430 22:05:44.927201 26303 net.cpp:144] Setting up conv3
I0430 22:05:44.927215 26303 net.cpp:151] Top shape: 20 128 15 15 (576000)
I0430 22:05:44.927218 26303 net.cpp:159] Memory required for data: 21960240
I0430 22:05:44.927227 26303 layer_factory.hpp:77] Creating layer relu3
I0430 22:05:44.927238 26303 net.cpp:94] Creating Layer relu3
I0430 22:05:44.927242 26303 net.cpp:435] relu3 <- conv3
I0430 22:05:44.927247 26303 net.cpp:396] relu3 -> conv3 (in-place)
I0430 22:05:44.927253 26303 net.cpp:144] Setting up relu3
I0430 22:05:44.927258 26303 net.cpp:151] Top shape: 20 128 15 15 (576000)
I0430 22:05:44.927261 26303 net.cpp:159] Memory required for data: 24264240
I0430 22:05:44.927263 26303 layer_factory.hpp:77] Creating layer conv4
I0430 22:05:44.927273 26303 net.cpp:94] Creating Layer conv4
I0430 22:05:44.927275 26303 net.cpp:435] conv4 <- conv3
I0430 22:05:44.927281 26303 net.cpp:409] conv4 -> conv4
I0430 22:05:44.942996 26303 net.cpp:144] Setting up conv4
I0430 22:05:44.943012 26303 net.cpp:151] Top shape: 20 128 15 15 (576000)
I0430 22:05:44.943017 26303 net.cpp:159] Memory required for data: 26568240
I0430 22:05:44.943023 26303 layer_factory.hpp:77] Creating layer relu4
I0430 22:05:44.943030 26303 net.cpp:94] Creating Layer relu4
I0430 22:05:44.943033 26303 net.cpp:435] relu4 <- conv4
I0430 22:05:44.943037 26303 net.cpp:396] relu4 -> conv4 (in-place)
I0430 22:05:44.943044 26303 net.cpp:144] Setting up relu4
I0430 22:05:44.943048 26303 net.cpp:151] Top shape: 20 128 15 15 (576000)
I0430 22:05:44.943051 26303 net.cpp:159] Memory required for data: 28872240
I0430 22:05:44.943054 26303 layer_factory.hpp:77] Creating layer conv5
I0430 22:05:44.943064 26303 net.cpp:94] Creating Layer conv5
I0430 22:05:44.943068 26303 net.cpp:435] conv5 <- conv4
I0430 22:05:44.943080 26303 net.cpp:409] conv5 -> conv5
I0430 22:05:44.958457 26303 net.cpp:144] Setting up conv5
I0430 22:05:44.958478 26303 net.cpp:151] Top shape: 20 128 15 15 (576000)
I0430 22:05:44.958482 26303 net.cpp:159] Memory required for data: 31176240
I0430 22:05:44.958492 26303 layer_factory.hpp:77] Creating layer relu5
I0430 22:05:44.958499 26303 net.cpp:94] Creating Layer relu5
I0430 22:05:44.958503 26303 net.cpp:435] relu5 <- conv5
I0430 22:05:44.958508 26303 net.cpp:396] relu5 -> conv5 (in-place)
I0430 22:05:44.958514 26303 net.cpp:144] Setting up relu5
I0430 22:05:44.958518 26303 net.cpp:151] Top shape: 20 128 15 15 (576000)
I0430 22:05:44.958521 26303 net.cpp:159] Memory required for data: 33480240
I0430 22:05:44.958524 26303 layer_factory.hpp:77] Creating layer pool5
I0430 22:05:44.958531 26303 net.cpp:94] Creating Layer pool5
I0430 22:05:44.958534 26303 net.cpp:435] pool5 <- conv5
I0430 22:05:44.958539 26303 net.cpp:409] pool5 -> pool5
I0430 22:05:44.958581 26303 net.cpp:144] Setting up pool5
I0430 22:05:44.958588 26303 net.cpp:151] Top shape: 20 128 7 7 (125440)
I0430 22:05:44.958591 26303 net.cpp:159] Memory required for data: 33982000
I0430 22:05:44.958595 26303 layer_factory.hpp:77] Creating layer ip1
I0430 22:05:44.958600 26303 net.cpp:94] Creating Layer ip1
I0430 22:05:44.958603 26303 net.cpp:435] ip1 <- pool5
I0430 22:05:44.958609 26303 net.cpp:409] ip1 -> ip1
I0430 22:05:45.114657 26303 net.cpp:144] Setting up ip1
I0430 22:05:45.114691 26303 net.cpp:151] Top shape: 20 1024 (20480)
I0430 22:05:45.114694 26303 net.cpp:159] Memory required for data: 34063920
I0430 22:05:45.114703 26303 layer_factory.hpp:77] Creating layer ip2
I0430 22:05:45.114713 26303 net.cpp:94] Creating Layer ip2
I0430 22:05:45.114717 26303 net.cpp:435] ip2 <- ip1
I0430 22:05:45.114725 26303 net.cpp:409] ip2 -> ip2
I0430 22:05:45.128047 26303 net.cpp:144] Setting up ip2
I0430 22:05:45.128067 26303 net.cpp:151] Top shape: 20 512 (10240)
I0430 22:05:45.128070 26303 net.cpp:159] Memory required for data: 34104880
I0430 22:05:45.128077 26303 layer_factory.hpp:77] Creating layer ip3
I0430 22:05:45.128089 26303 net.cpp:94] Creating Layer ip3
I0430 22:05:45.128093 26303 net.cpp:435] ip3 <- ip2
I0430 22:05:45.128099 26303 net.cpp:409] ip3 -> ip3
I0430 22:05:45.128865 26303 net.cpp:144] Setting up ip3
I0430 22:05:45.128873 26303 net.cpp:151] Top shape: 20 50 (1000)
I0430 22:05:45.128887 26303 net.cpp:159] Memory required for data: 34108880
I0430 22:05:45.128892 26303 layer_factory.hpp:77] Creating layer ip3_ip3_0_split
I0430 22:05:45.128897 26303 net.cpp:94] Creating Layer ip3_ip3_0_split
I0430 22:05:45.128901 26303 net.cpp:435] ip3_ip3_0_split <- ip3
I0430 22:05:45.128904 26303 net.cpp:409] ip3_ip3_0_split -> ip3_ip3_0_split_0
I0430 22:05:45.128909 26303 net.cpp:409] ip3_ip3_0_split -> ip3_ip3_0_split_1
I0430 22:05:45.128952 26303 net.cpp:144] Setting up ip3_ip3_0_split
I0430 22:05:45.128958 26303 net.cpp:151] Top shape: 20 50 (1000)
I0430 22:05:45.128962 26303 net.cpp:151] Top shape: 20 50 (1000)
I0430 22:05:45.128964 26303 net.cpp:159] Memory required for data: 34116880
I0430 22:05:45.128968 26303 layer_factory.hpp:77] Creating layer accuracy
I0430 22:05:45.128973 26303 net.cpp:94] Creating Layer accuracy
I0430 22:05:45.128976 26303 net.cpp:435] accuracy <- ip3_ip3_0_split_0
I0430 22:05:45.128979 26303 net.cpp:435] accuracy <- label_intercept_1_split_0
I0430 22:05:45.128984 26303 net.cpp:409] accuracy -> accuracy
…
