…
I0506 06:23:54.394840 19979 net.cpp:323] The NetState phase (0) differed from the phase (1) specified by a rule in layer intercept
I0506 06:23:54.394855 19979 net.cpp:323] The NetState phase (0) differed from the phase (1) specified by a rule in layer loss
I0506 06:23:54.394934 19979 net.cpp:52] Initializing net from parameters: 
state {
  phase: TRAIN
}
layer {
  name: "parameters"
  type: "HDF5Data"
  top: "data"
  top: "label"
  include {
    phase: TRAIN
  }
  hdf5_data_param {
    source: "/home/purduethu/scratch/radon/d/deng106/CNNStatisticalModel/distributions/input/50_distributions_100_sample_size_train-parameters-path.txt"
    batch_size: 20
  }
}
layer {
  name: "conv1"
  type: "Convolution"
  bottom: "data"
  top: "conv1"
  param {
    lr_mult: 1
  }
  param {
    lr_mult: 2
  }
  convolution_param {
    num_output: 64
    pad: 2
    kernel_size: 5
    stride: 1
    weight_filler {
      type: "gaussian"
      std: 0.0001
    }
    bias_filler {
      type: "constant"
    }
  }
}
layer {
  name: "relu1"
  type: "ReLU"
  bottom: "conv1"
  top: "conv1"
}
layer {
  name: "conv2"
  type: "Convolution"
  bottom: "conv1"
  top: "conv2"
  param {
    lr_mult: 1
  }
  param {
    lr_mult: 2
  }
  convolution_param {
    num_output: 64
    pad: 2
    kernel_size: 5
    stride: 1
    weight_filler {
      type: "gaussian"
      std: 0.01
    }
    bias_filler {
      type: "constant"
    }
  }
}
layer {
  name: "relu2"
  type: "ReLU"
  bottom: "conv2"
  top: "conv2"
}
layer {
  name: "pool2"
  type: "Pooling"
  bottom: "conv2"
  top: "pool2"
  pooling_param {
    pool: MAX
    kernel_size: 3
    stride: 2
  }
}
layer {
  name: "conv3"
  type: "Convolution"
  bottom: "pool2"
  top: "conv3"
  param {
    lr_mult: 1
  }
  param {
    lr_mult: 2
  }
  convolution_param {
    num_output: 128
    pad: 2
    kernel_size: 5
    stride: 1
    weight_filler {
      type: "gaussian"
      std: 0.01
    }
    bias_filler {
      type: "constant"
    }
  }
}
layer {
  name: "relu3"
  type: "ReLU"
  bottom: "conv3"
  top: "conv3"
}
layer {
  name: "conv4"
  type: "Convolution"
  bottom: "conv3"
  top: "conv4"
  param {
    lr_mult: 1
  }
  param {
    lr_mult: 2
  }
  convolution_param {
    num_output: 128
    pad: 2
    kernel_size: 5
    stride: 1
    weight_filler {
      type: "gaussian"
      std: 0.01
    }
    bias_filler {
      type: "constant"
    }
  }
}
layer {
  name: "relu4"
  type: "ReLU"
  bottom: "conv4"
  top: "conv4"
}
layer {
  name: "conv5"
  type: "Convolution"
  bottom: "conv4"
  top: "conv5"
  param {
    lr_mult: 1
  }
  param {
    lr_mult: 2
  }
  convolution_param {
    num_output: 128
    pad: 2
    kernel_size: 5
    stride: 1
    weight_filler {
      type: "gaussian"
      std: 0.01
    }
    bias_filler {
      type: "constant"
    }
  }
}
layer {
  name: "relu5"
  type: "ReLU"
  bottom: "conv5"
  top: "conv5"
}
layer {
  name: "pool5"
  type: "Pooling"
  bottom: "conv5"
  top: "pool5"
  pooling_param {
    pool: AVE
    kernel_size: 3
    stride: 2
  }
}
layer {
  name: "ip1"
  type: "InnerProduct"
  bottom: "pool5"
  top: "ip1"
  param {
    lr_mult: 1
  }
  param {
    lr_mult: 2
  }
  inner_product_param {
    num_output: 1024
    weight_filler {
      type: "gaussian"
      std: 0.1
    }
    bias_filler {
      type: "constant"
    }
  }
}
layer {
  name: "ip2"
  type: "InnerProduct"
  bottom: "ip1"
  top: "ip2"
  param {
    lr_mult: 1
  }
  param {
    lr_mult: 2
  }
  inner_product_param {
    num_output: 512
    weight_filler {
      type: "gaussian"
      std: 0.1
    }
    bias_filler {
      type: "constant"
    }
  }
}
layer {
  name: "ip3"
  type: "InnerProduct"
  bottom: "ip2"
  top: "ip3"
  param {
    lr_mult: 1
  }
  param {
    lr_mult: 2
  }
  inner_product_param {
    num_output: 1
    weight_filler {
      type: "gaussian"
      std: 0.1
    }
    bias_filler {
      type: "constant"
    }
  }
}
layer {
  name: "loss"
  type: "HuberLoss"
  bottom: "ip3"
  bottom: "label"
  top: "loss"
  include {
    phase: TRAIN
  }
}
I0506 06:23:54.394989 19979 layer_factory.hpp:77] Creating layer parameters
I0506 06:23:54.395005 19979 net.cpp:94] Creating Layer parameters
I0506 06:23:54.395010 19979 net.cpp:409] parameters -> data
I0506 06:23:54.395020 19979 net.cpp:409] parameters -> label
I0506 06:23:54.395026 19979 hdf5_data_layer.cpp:79] Loading list of HDF5 filenames from: /home/purduethu/scratch/radon/d/deng106/CNNStatisticalModel/distributions/input/50_distributions_100_sample_size_train-parameters-path.txt
I0506 06:23:54.395040 19979 hdf5_data_layer.cpp:93] Number of HDF5 files: 1
I0506 06:23:54.395587 19979 hdf5.cpp:32] Datatype class: H5T_FLOAT
I0506 06:23:54.559761 19979 net.cpp:144] Setting up parameters
I0506 06:23:54.559792 19979 net.cpp:151] Top shape: 20 1 10 10 (2000)
I0506 06:23:54.559798 19979 net.cpp:151] Top shape: 20 (20)
I0506 06:23:54.559800 19979 net.cpp:159] Memory required for data: 8080
I0506 06:23:54.559808 19979 layer_factory.hpp:77] Creating layer conv1
I0506 06:23:54.559823 19979 net.cpp:94] Creating Layer conv1
I0506 06:23:54.559828 19979 net.cpp:435] conv1 <- data
I0506 06:23:54.559834 19979 net.cpp:409] conv1 -> conv1
I0506 06:23:54.563999 19979 net.cpp:144] Setting up conv1
I0506 06:23:54.564015 19979 net.cpp:151] Top shape: 20 64 10 10 (128000)
I0506 06:23:54.564019 19979 net.cpp:159] Memory required for data: 520080
I0506 06:23:54.564029 19979 layer_factory.hpp:77] Creating layer relu1
I0506 06:23:54.564038 19979 net.cpp:94] Creating Layer relu1
I0506 06:23:54.564041 19979 net.cpp:435] relu1 <- conv1
I0506 06:23:54.564045 19979 net.cpp:396] relu1 -> conv1 (in-place)
I0506 06:23:54.564054 19979 net.cpp:144] Setting up relu1
I0506 06:23:54.564057 19979 net.cpp:151] Top shape: 20 64 10 10 (128000)
I0506 06:23:54.564060 19979 net.cpp:159] Memory required for data: 1032080
I0506 06:23:54.564064 19979 layer_factory.hpp:77] Creating layer conv2
I0506 06:23:54.564071 19979 net.cpp:94] Creating Layer conv2
I0506 06:23:54.564075 19979 net.cpp:435] conv2 <- conv1
I0506 06:23:54.564080 19979 net.cpp:409] conv2 -> conv2
I0506 06:23:54.570107 19979 net.cpp:144] Setting up conv2
I0506 06:23:54.570123 19979 net.cpp:151] Top shape: 20 64 10 10 (128000)
I0506 06:23:54.570127 19979 net.cpp:159] Memory required for data: 1544080
I0506 06:23:54.570135 19979 layer_factory.hpp:77] Creating layer relu2
I0506 06:23:54.570142 19979 net.cpp:94] Creating Layer relu2
I0506 06:23:54.570145 19979 net.cpp:435] relu2 <- conv2
I0506 06:23:54.570150 19979 net.cpp:396] relu2 -> conv2 (in-place)
I0506 06:23:54.570158 19979 net.cpp:144] Setting up relu2
I0506 06:23:54.570163 19979 net.cpp:151] Top shape: 20 64 10 10 (128000)
I0506 06:23:54.570164 19979 net.cpp:159] Memory required for data: 2056080
I0506 06:23:54.570168 19979 layer_factory.hpp:77] Creating layer pool2
I0506 06:23:54.570174 19979 net.cpp:94] Creating Layer pool2
I0506 06:23:54.570178 19979 net.cpp:435] pool2 <- conv2
I0506 06:23:54.570181 19979 net.cpp:409] pool2 -> pool2
I0506 06:23:54.570240 19979 net.cpp:144] Setting up pool2
I0506 06:23:54.570248 19979 net.cpp:151] Top shape: 20 64 5 5 (32000)
I0506 06:23:54.570251 19979 net.cpp:159] Memory required for data: 2184080
I0506 06:23:54.570255 19979 layer_factory.hpp:77] Creating layer conv3
I0506 06:23:54.570263 19979 net.cpp:94] Creating Layer conv3
I0506 06:23:54.570273 19979 net.cpp:435] conv3 <- pool2
I0506 06:23:54.570279 19979 net.cpp:409] conv3 -> conv3
I0506 06:23:54.578394 19979 net.cpp:144] Setting up conv3
I0506 06:23:54.578410 19979 net.cpp:151] Top shape: 20 128 5 5 (64000)
I0506 06:23:54.578414 19979 net.cpp:159] Memory required for data: 2440080
I0506 06:23:54.578423 19979 layer_factory.hpp:77] Creating layer relu3
I0506 06:23:54.578429 19979 net.cpp:94] Creating Layer relu3
I0506 06:23:54.578433 19979 net.cpp:435] relu3 <- conv3
I0506 06:23:54.578438 19979 net.cpp:396] relu3 -> conv3 (in-place)
I0506 06:23:54.578444 19979 net.cpp:144] Setting up relu3
I0506 06:23:54.578449 19979 net.cpp:151] Top shape: 20 128 5 5 (64000)
I0506 06:23:54.578452 19979 net.cpp:159] Memory required for data: 2696080
I0506 06:23:54.578455 19979 layer_factory.hpp:77] Creating layer conv4
I0506 06:23:54.578464 19979 net.cpp:94] Creating Layer conv4
I0506 06:23:54.578467 19979 net.cpp:435] conv4 <- conv3
I0506 06:23:54.578472 19979 net.cpp:409] conv4 -> conv4
I0506 06:23:54.593564 19979 net.cpp:144] Setting up conv4
I0506 06:23:54.593585 19979 net.cpp:151] Top shape: 20 128 5 5 (64000)
I0506 06:23:54.593590 19979 net.cpp:159] Memory required for data: 2952080
I0506 06:23:54.593596 19979 layer_factory.hpp:77] Creating layer relu4
I0506 06:23:54.593605 19979 net.cpp:94] Creating Layer relu4
I0506 06:23:54.593608 19979 net.cpp:435] relu4 <- conv4
I0506 06:23:54.593613 19979 net.cpp:396] relu4 -> conv4 (in-place)
I0506 06:23:54.593622 19979 net.cpp:144] Setting up relu4
I0506 06:23:54.593626 19979 net.cpp:151] Top shape: 20 128 5 5 (64000)
I0506 06:23:54.593629 19979 net.cpp:159] Memory required for data: 3208080
I0506 06:23:54.593632 19979 layer_factory.hpp:77] Creating layer conv5
I0506 06:23:54.593641 19979 net.cpp:94] Creating Layer conv5
I0506 06:23:54.593644 19979 net.cpp:435] conv5 <- conv4
I0506 06:23:54.593649 19979 net.cpp:409] conv5 -> conv5
I0506 06:23:54.608203 19979 net.cpp:144] Setting up conv5
I0506 06:23:54.608225 19979 net.cpp:151] Top shape: 20 128 5 5 (64000)
I0506 06:23:54.608230 19979 net.cpp:159] Memory required for data: 3464080
I0506 06:23:54.608239 19979 layer_factory.hpp:77] Creating layer relu5
I0506 06:23:54.608248 19979 net.cpp:94] Creating Layer relu5
I0506 06:23:54.608252 19979 net.cpp:435] relu5 <- conv5
I0506 06:23:54.608256 19979 net.cpp:396] relu5 -> conv5 (in-place)
I0506 06:23:54.608264 19979 net.cpp:144] Setting up relu5
I0506 06:23:54.608269 19979 net.cpp:151] Top shape: 20 128 5 5 (64000)
I0506 06:23:54.608273 19979 net.cpp:159] Memory required for data: 3720080
I0506 06:23:54.608275 19979 layer_factory.hpp:77] Creating layer pool5
I0506 06:23:54.608280 19979 net.cpp:94] Creating Layer pool5
I0506 06:23:54.608283 19979 net.cpp:435] pool5 <- conv5
I0506 06:23:54.608289 19979 net.cpp:409] pool5 -> pool5
I0506 06:23:54.608333 19979 net.cpp:144] Setting up pool5
I0506 06:23:54.608340 19979 net.cpp:151] Top shape: 20 128 2 2 (10240)
I0506 06:23:54.608343 19979 net.cpp:159] Memory required for data: 3761040
I0506 06:23:54.608346 19979 layer_factory.hpp:77] Creating layer ip1
I0506 06:23:54.608357 19979 net.cpp:94] Creating Layer ip1
I0506 06:23:54.608361 19979 net.cpp:435] ip1 <- pool5
I0506 06:23:54.608366 19979 net.cpp:409] ip1 -> ip1
I0506 06:23:54.622433 19979 net.cpp:144] Setting up ip1
I0506 06:23:54.622455 19979 net.cpp:151] Top shape: 20 1024 (20480)
I0506 06:23:54.622459 19979 net.cpp:159] Memory required for data: 3842960
I0506 06:23:54.622467 19979 layer_factory.hpp:77] Creating layer ip2
I0506 06:23:54.622476 19979 net.cpp:94] Creating Layer ip2
I0506 06:23:54.622480 19979 net.cpp:435] ip2 <- ip1
I0506 06:23:54.622488 19979 net.cpp:409] ip2 -> ip2
I0506 06:23:54.635567 19979 net.cpp:144] Setting up ip2
I0506 06:23:54.635586 19979 net.cpp:151] Top shape: 20 512 (10240)
I0506 06:23:54.635591 19979 net.cpp:159] Memory required for data: 3883920
I0506 06:23:54.635597 19979 layer_factory.hpp:77] Creating layer ip3
I0506 06:23:54.635606 19979 net.cpp:94] Creating Layer ip3
I0506 06:23:54.635609 19979 net.cpp:435] ip3 <- ip2
I0506 06:23:54.635620 19979 net.cpp:409] ip3 -> ip3
I0506 06:23:54.635743 19979 net.cpp:144] Setting up ip3
I0506 06:23:54.635751 19979 net.cpp:151] Top shape: 20 1 (20)
I0506 06:23:54.635753 19979 net.cpp:159] Memory required for data: 3884000
I0506 06:23:54.635759 19979 layer_factory.hpp:77] Creating layer loss
I0506 06:23:54.635772 19979 net.cpp:94] Creating Layer loss
I0506 06:23:54.635776 19979 net.cpp:435] loss <- ip3
I0506 06:23:54.635781 19979 net.cpp:435] loss <- label
I0506 06:23:54.635784 19979 net.cpp:409] loss -> loss
I0506 06:23:54.635838 19979 net.cpp:144] Setting up loss
…
I0506 06:23:54.743525 19979 net.cpp:323] The NetState phase (0) differed from the phase (1) specified by a rule in layer intercept
I0506 06:23:54.743541 19979 net.cpp:323] The NetState phase (0) differed from the phase (1) specified by a rule in layer accuracy
I0506 06:23:54.743626 19979 net.cpp:52] Initializing net from parameters: 
state {
  phase: TRAIN
}
layer {
  name: "parameters"
  type: "HDF5Data"
  top: "data"
  top: "label"
  include {
    phase: TRAIN
  }
  hdf5_data_param {
    source: "/home/purduethu/scratch/radon/d/deng106/CNNStatisticalModel/distributions/input/50_distributions_100_sample_size_train-distributions-path.txt"
    batch_size: 20
  }
}
layer {
  name: "conv1"
  type: "Convolution"
  bottom: "data"
  top: "conv1"
  param {
    lr_mult: 1
  }
  param {
    lr_mult: 2
  }
  convolution_param {
    num_output: 64
    pad: 2
    kernel_size: 5
    stride: 1
    weight_filler {
      type: "gaussian"
      std: 0.0001
    }
    bias_filler {
      type: "constant"
    }
  }
}
layer {
  name: "relu1"
  type: "ReLU"
  bottom: "conv1"
  top: "conv1"
}
layer {
  name: "conv2"
  type: "Convolution"
  bottom: "conv1"
  top: "conv2"
  param {
    lr_mult: 1
  }
  param {
    lr_mult: 2
  }
  convolution_param {
    num_output: 64
    pad: 2
    kernel_size: 5
    stride: 1
    weight_filler {
      type: "gaussian"
      std: 0.01
    }
    bias_filler {
      type: "constant"
    }
  }
}
layer {
  name: "relu2"
  type: "ReLU"
  bottom: "conv2"
  top: "conv2"
}
layer {
  name: "pool2"
  type: "Pooling"
  bottom: "conv2"
  top: "pool2"
  pooling_param {
    pool: MAX
    kernel_size: 3
    stride: 2
  }
}
layer {
  name: "conv3"
  type: "Convolution"
  bottom: "pool2"
  top: "conv3"
  param {
    lr_mult: 1
  }
  param {
    lr_mult: 2
  }
  convolution_param {
    num_output: 128
    pad: 2
    kernel_size: 5
    stride: 1
    weight_filler {
      type: "gaussian"
      std: 0.01
    }
    bias_filler {
      type: "constant"
    }
  }
}
layer {
  name: "relu3"
  type: "ReLU"
  bottom: "conv3"
  top: "conv3"
}
layer {
  name: "conv4"
  type: "Convolution"
  bottom: "conv3"
  top: "conv4"
  param {
    lr_mult: 1
  }
  param {
    lr_mult: 2
  }
  convolution_param {
    num_output: 128
    pad: 2
    kernel_size: 5
    stride: 1
    weight_filler {
      type: "gaussian"
      std: 0.01
    }
    bias_filler {
      type: "constant"
    }
  }
}
layer {
  name: "relu4"
  type: "ReLU"
  bottom: "conv4"
  top: "conv4"
}
layer {
  name: "conv5"
  type: "Convolution"
  bottom: "conv4"
  top: "conv5"
  param {
    lr_mult: 1
  }
  param {
    lr_mult: 2
  }
  convolution_param {
    num_output: 128
    pad: 2
    kernel_size: 5
    stride: 1
    weight_filler {
      type: "gaussian"
      std: 0.01
    }
    bias_filler {
      type: "constant"
    }
  }
}
layer {
  name: "relu5"
  type: "ReLU"
  bottom: "conv5"
  top: "conv5"
}
layer {
  name: "pool5"
  type: "Pooling"
  bottom: "conv5"
  top: "pool5"
  pooling_param {
    pool: AVE
    kernel_size: 3
    stride: 2
  }
}
layer {
  name: "ip1"
  type: "InnerProduct"
  bottom: "pool5"
  top: "ip1"
  param {
    lr_mult: 1
  }
  param {
    lr_mult: 2
  }
  inner_product_param {
    num_output: 1024
    weight_filler {
      type: "gaussian"
      std: 0.1
    }
    bias_filler {
      type: "constant"
    }
  }
}
layer {
  name: "ip2"
  type: "InnerProduct"
  bottom: "ip1"
  top: "ip2"
  param {
    lr_mult: 1
  }
  param {
    lr_mult: 2
  }
  inner_product_param {
    num_output: 512
    weight_filler {
      type: "gaussian"
      std: 0.1
    }
    bias_filler {
      type: "constant"
    }
  }
}
layer {
  name: "ip3"
  type: "InnerProduct"
  bottom: "ip2"
  top: "ip3"
  param {
    lr_mult: 1
  }
  param {
    lr_mult: 2
  }
  inner_product_param {
    num_output: 50
    weight_filler {
      type: "gaussian"
      std: 0.1
    }
    bias_filler {
      type: "constant"
    }
  }
}
layer {
  name: "loss"
  type: "SoftmaxWithLoss"
  bottom: "ip3"
  bottom: "label"
  top: "loss"
}
I0506 06:23:54.743675 19979 layer_factory.hpp:77] Creating layer parameters
I0506 06:23:54.743683 19979 net.cpp:94] Creating Layer parameters
I0506 06:23:54.743687 19979 net.cpp:409] parameters -> data
I0506 06:23:54.743695 19979 net.cpp:409] parameters -> label
I0506 06:23:54.743700 19979 hdf5_data_layer.cpp:79] Loading list of HDF5 filenames from: /home/purduethu/scratch/radon/d/deng106/CNNStatisticalModel/distributions/input/50_distributions_100_sample_size_train-distributions-path.txt
I0506 06:23:54.743716 19979 hdf5_data_layer.cpp:93] Number of HDF5 files: 1
I0506 06:23:54.901648 19979 hdf5.cpp:35] Datatype class: H5T_INTEGER
I0506 06:23:54.904736 19979 net.cpp:144] Setting up parameters
I0506 06:23:54.904754 19979 net.cpp:151] Top shape: 20 1 10 10 (2000)
I0506 06:23:54.904760 19979 net.cpp:151] Top shape: 20 (20)
I0506 06:23:54.904763 19979 net.cpp:159] Memory required for data: 8080
I0506 06:23:54.904769 19979 layer_factory.hpp:77] Creating layer conv1
I0506 06:23:54.904785 19979 net.cpp:94] Creating Layer conv1
I0506 06:23:54.904790 19979 net.cpp:435] conv1 <- data
I0506 06:23:54.904796 19979 net.cpp:409] conv1 -> conv1
I0506 06:23:54.906584 19979 net.cpp:144] Setting up conv1
I0506 06:23:54.906596 19979 net.cpp:151] Top shape: 20 64 10 10 (128000)
I0506 06:23:54.906600 19979 net.cpp:159] Memory required for data: 520080
I0506 06:23:54.906610 19979 layer_factory.hpp:77] Creating layer relu1
I0506 06:23:54.906617 19979 net.cpp:94] Creating Layer relu1
I0506 06:23:54.906621 19979 net.cpp:435] relu1 <- conv1
I0506 06:23:54.906625 19979 net.cpp:396] relu1 -> conv1 (in-place)
I0506 06:23:54.906632 19979 net.cpp:144] Setting up relu1
I0506 06:23:54.906637 19979 net.cpp:151] Top shape: 20 64 10 10 (128000)
I0506 06:23:54.906641 19979 net.cpp:159] Memory required for data: 1032080
I0506 06:23:54.906643 19979 layer_factory.hpp:77] Creating layer conv2
I0506 06:23:54.906651 19979 net.cpp:94] Creating Layer conv2
I0506 06:23:54.906654 19979 net.cpp:435] conv2 <- conv1
I0506 06:23:54.906659 19979 net.cpp:409] conv2 -> conv2
I0506 06:23:54.911981 19979 net.cpp:144] Setting up conv2
I0506 06:23:54.911998 19979 net.cpp:151] Top shape: 20 64 10 10 (128000)
I0506 06:23:54.912001 19979 net.cpp:159] Memory required for data: 1544080
I0506 06:23:54.912010 19979 layer_factory.hpp:77] Creating layer relu2
I0506 06:23:54.912017 19979 net.cpp:94] Creating Layer relu2
I0506 06:23:54.912021 19979 net.cpp:435] relu2 <- conv2
I0506 06:23:54.912026 19979 net.cpp:396] relu2 -> conv2 (in-place)
I0506 06:23:54.912034 19979 net.cpp:144] Setting up relu2
I0506 06:23:54.912037 19979 net.cpp:151] Top shape: 20 64 10 10 (128000)
I0506 06:23:54.912041 19979 net.cpp:159] Memory required for data: 2056080
I0506 06:23:54.912045 19979 layer_factory.hpp:77] Creating layer pool2
I0506 06:23:54.912050 19979 net.cpp:94] Creating Layer pool2
I0506 06:23:54.912053 19979 net.cpp:435] pool2 <- conv2
I0506 06:23:54.912057 19979 net.cpp:409] pool2 -> pool2
I0506 06:23:54.912117 19979 net.cpp:144] Setting up pool2
I0506 06:23:54.912124 19979 net.cpp:151] Top shape: 20 64 5 5 (32000)
I0506 06:23:54.912127 19979 net.cpp:159] Memory required for data: 2184080
I0506 06:23:54.912130 19979 layer_factory.hpp:77] Creating layer conv3
I0506 06:23:54.912138 19979 net.cpp:94] Creating Layer conv3
I0506 06:23:54.912142 19979 net.cpp:435] conv3 <- pool2
I0506 06:23:54.912147 19979 net.cpp:409] conv3 -> conv3
I0506 06:23:54.920902 19979 net.cpp:144] Setting up conv3
I0506 06:23:54.920939 19979 net.cpp:151] Top shape: 20 128 5 5 (64000)
I0506 06:23:54.920950 19979 net.cpp:159] Memory required for data: 2440080
I0506 06:23:54.920974 19979 layer_factory.hpp:77] Creating layer relu3
I0506 06:23:54.920989 19979 net.cpp:94] Creating Layer relu3
I0506 06:23:54.921000 19979 net.cpp:435] relu3 <- conv3
I0506 06:23:54.921013 19979 net.cpp:396] relu3 -> conv3 (in-place)
I0506 06:23:54.921046 19979 net.cpp:144] Setting up relu3
I0506 06:23:54.921061 19979 net.cpp:151] Top shape: 20 128 5 5 (64000)
I0506 06:23:54.921069 19979 net.cpp:159] Memory required for data: 2696080
I0506 06:23:54.921078 19979 layer_factory.hpp:77] Creating layer conv4
I0506 06:23:54.921102 19979 net.cpp:94] Creating Layer conv4
I0506 06:23:54.921111 19979 net.cpp:435] conv4 <- conv3
I0506 06:23:54.921125 19979 net.cpp:409] conv4 -> conv4
I0506 06:23:54.936031 19979 net.cpp:144] Setting up conv4
I0506 06:23:54.936053 19979 net.cpp:151] Top shape: 20 128 5 5 (64000)
I0506 06:23:54.936056 19979 net.cpp:159] Memory required for data: 2952080
I0506 06:23:54.936064 19979 layer_factory.hpp:77] Creating layer relu4
I0506 06:23:54.936071 19979 net.cpp:94] Creating Layer relu4
I0506 06:23:54.936075 19979 net.cpp:435] relu4 <- conv4
I0506 06:23:54.936080 19979 net.cpp:396] relu4 -> conv4 (in-place)
I0506 06:23:54.936089 19979 net.cpp:144] Setting up relu4
I0506 06:23:54.936092 19979 net.cpp:151] Top shape: 20 128 5 5 (64000)
I0506 06:23:54.936095 19979 net.cpp:159] Memory required for data: 3208080
I0506 06:23:54.936098 19979 layer_factory.hpp:77] Creating layer conv5
I0506 06:23:54.936106 19979 net.cpp:94] Creating Layer conv5
I0506 06:23:54.936110 19979 net.cpp:435] conv5 <- conv4
I0506 06:23:54.936115 19979 net.cpp:409] conv5 -> conv5
I0506 06:23:54.951652 19979 net.cpp:144] Setting up conv5
I0506 06:23:54.951673 19979 net.cpp:151] Top shape: 20 128 5 5 (64000)
I0506 06:23:54.951678 19979 net.cpp:159] Memory required for data: 3464080
I0506 06:23:54.951689 19979 layer_factory.hpp:77] Creating layer relu5
I0506 06:23:54.951695 19979 net.cpp:94] Creating Layer relu5
I0506 06:23:54.951700 19979 net.cpp:435] relu5 <- conv5
I0506 06:23:54.951705 19979 net.cpp:396] relu5 -> conv5 (in-place)
I0506 06:23:54.951712 19979 net.cpp:144] Setting up relu5
I0506 06:23:54.951717 19979 net.cpp:151] Top shape: 20 128 5 5 (64000)
I0506 06:23:54.951720 19979 net.cpp:159] Memory required for data: 3720080
I0506 06:23:54.951723 19979 layer_factory.hpp:77] Creating layer pool5
I0506 06:23:54.951728 19979 net.cpp:94] Creating Layer pool5
I0506 06:23:54.951732 19979 net.cpp:435] pool5 <- conv5
I0506 06:23:54.951736 19979 net.cpp:409] pool5 -> pool5
I0506 06:23:54.951781 19979 net.cpp:144] Setting up pool5
I0506 06:23:54.951789 19979 net.cpp:151] Top shape: 20 128 2 2 (10240)
I0506 06:23:54.951792 19979 net.cpp:159] Memory required for data: 3761040
I0506 06:23:54.951795 19979 layer_factory.hpp:77] Creating layer ip1
I0506 06:23:54.951802 19979 net.cpp:94] Creating Layer ip1
I0506 06:23:54.951807 19979 net.cpp:435] ip1 <- pool5
I0506 06:23:54.951812 19979 net.cpp:409] ip1 -> ip1
I0506 06:23:54.965279 19979 net.cpp:144] Setting up ip1
I0506 06:23:54.965301 19979 net.cpp:151] Top shape: 20 1024 (20480)
I0506 06:23:54.965304 19979 net.cpp:159] Memory required for data: 3842960
I0506 06:23:54.965312 19979 layer_factory.hpp:77] Creating layer ip2
I0506 06:23:54.965322 19979 net.cpp:94] Creating Layer ip2
I0506 06:23:54.965325 19979 net.cpp:435] ip2 <- ip1
I0506 06:23:54.965332 19979 net.cpp:409] ip2 -> ip2
I0506 06:23:54.978914 19979 net.cpp:144] Setting up ip2
I0506 06:23:54.978951 19979 net.cpp:151] Top shape: 20 512 (10240)
I0506 06:23:54.978955 19979 net.cpp:159] Memory required for data: 3883920
I0506 06:23:54.978965 19979 layer_factory.hpp:77] Creating layer ip3
I0506 06:23:54.978974 19979 net.cpp:94] Creating Layer ip3
I0506 06:23:54.978979 19979 net.cpp:435] ip3 <- ip2
I0506 06:23:54.978986 19979 net.cpp:409] ip3 -> ip3
I0506 06:23:54.980747 19979 net.cpp:144] Setting up ip3
I0506 06:23:54.980763 19979 net.cpp:151] Top shape: 20 50 (1000)
I0506 06:23:54.980767 19979 net.cpp:159] Memory required for data: 3887920
I0506 06:23:54.980773 19979 layer_factory.hpp:77] Creating layer loss
I0506 06:23:54.980783 19979 net.cpp:94] Creating Layer loss
I0506 06:23:54.980787 19979 net.cpp:435] loss <- ip3
I0506 06:23:54.980792 19979 net.cpp:435] loss <- label
I0506 06:23:54.980796 19979 net.cpp:409] loss -> loss
I0506 06:23:54.980804 19979 layer_factory.hpp:77] Creating layer loss
…
I0506 06:23:54.981360 19979 solver.cpp:181] Creating test net (#0) specified by net file: ./protocol/dis_50_100_dimension.protocol_distribution
I0506 06:23:54.981389 19979 net.cpp:323] The NetState phase (1) differed from the phase (0) specified by a rule in layer parameters
I0506 06:23:54.981482 19979 net.cpp:52] Initializing net from parameters: 
state {
  phase: TEST
}
layer {
  name: "intercept"
  type: "HDF5Data"
  top: "data"
  top: "label"
  include {
    phase: TEST
  }
  hdf5_data_param {
    source: "/home/purduethu/scratch/radon/d/deng106/CNNStatisticalModel/distributions/input/50_distributions_100_sample_size_test-distributions-path.txt"
    batch_size: 20
  }
}
layer {
  name: "conv1"
  type: "Convolution"
  bottom: "data"
  top: "conv1"
  param {
    lr_mult: 1
  }
  param {
    lr_mult: 2
  }
  convolution_param {
    num_output: 64
    pad: 2
    kernel_size: 5
    stride: 1
    weight_filler {
      type: "gaussian"
      std: 0.0001
    }
    bias_filler {
      type: "constant"
    }
  }
}
layer {
  name: "relu1"
  type: "ReLU"
  bottom: "conv1"
  top: "conv1"
}
layer {
  name: "conv2"
  type: "Convolution"
  bottom: "conv1"
  top: "conv2"
  param {
    lr_mult: 1
  }
  param {
    lr_mult: 2
  }
  convolution_param {
    num_output: 64
    pad: 2
    kernel_size: 5
    stride: 1
    weight_filler {
      type: "gaussian"
      std: 0.01
    }
    bias_filler {
      type: "constant"
    }
  }
}
layer {
  name: "relu2"
  type: "ReLU"
  bottom: "conv2"
  top: "conv2"
}
layer {
  name: "pool2"
  type: "Pooling"
  bottom: "conv2"
  top: "pool2"
  pooling_param {
    pool: MAX
    kernel_size: 3
    stride: 2
  }
}
layer {
  name: "conv3"
  type: "Convolution"
  bottom: "pool2"
  top: "conv3"
  param {
    lr_mult: 1
  }
  param {
    lr_mult: 2
  }
  convolution_param {
    num_output: 128
    pad: 2
    kernel_size: 5
    stride: 1
    weight_filler {
      type: "gaussian"
      std: 0.01
    }
    bias_filler {
      type: "constant"
    }
  }
}
layer {
  name: "relu3"
  type: "ReLU"
  bottom: "conv3"
  top: "conv3"
}
layer {
  name: "conv4"
  type: "Convolution"
  bottom: "conv3"
  top: "conv4"
  param {
    lr_mult: 1
  }
  param {
    lr_mult: 2
  }
  convolution_param {
    num_output: 128
    pad: 2
    kernel_size: 5
    stride: 1
    weight_filler {
      type: "gaussian"
      std: 0.01
    }
    bias_filler {
      type: "constant"
    }
  }
}
layer {
  name: "relu4"
  type: "ReLU"
  bottom: "conv4"
  top: "conv4"
}
layer {
  name: "conv5"
  type: "Convolution"
  bottom: "conv4"
  top: "conv5"
  param {
    lr_mult: 1
  }
  param {
    lr_mult: 2
  }
  convolution_param {
    num_output: 128
    pad: 2
    kernel_size: 5
    stride: 1
    weight_filler {
      type: "gaussian"
      std: 0.01
    }
    bias_filler {
      type: "constant"
    }
  }
}
layer {
  name: "relu5"
  type: "ReLU"
  bottom: "conv5"
  top: "conv5"
}
layer {
  name: "pool5"
  type: "Pooling"
  bottom: "conv5"
  top: "pool5"
  pooling_param {
    pool: AVE
    kernel_size: 3
    stride: 2
  }
}
layer {
  name: "ip1"
  type: "InnerProduct"
  bottom: "pool5"
  top: "ip1"
  param {
    lr_mult: 1
  }
  param {
    lr_mult: 2
  }
  inner_product_param {
    num_output: 1024
    weight_filler {
      type: "gaussian"
      std: 0.1
    }
    bias_filler {
      type: "constant"
    }
  }
}
layer {
  name: "ip2"
  type: "InnerProduct"
  bottom: "ip1"
  top: "ip2"
  param {
    lr_mult: 1
  }
  param {
    lr_mult: 2
  }
  inner_product_param {
    num_output: 512
    weight_filler {
      type: "gaussian"
      std: 0.1
    }
    bias_filler {
      type: "constant"
    }
  }
}
layer {
  name: "ip3"
  type: "InnerProduct"
  bottom: "ip2"
  top: "ip3"
  param {
    lr_mult: 1
  }
  param {
    lr_mult: 2
  }
  inner_product_param {
    num_output: 50
    weight_filler {
      type: "gaussian"
      std: 0.1
    }
    bias_filler {
      type: "constant"
    }
  }
}
layer {
  name: "accuracy"
  type: "Accuracy"
  bottom: "ip3"
  bottom: "label"
  top: "accuracy"
  include {
    phase: TEST
  }
}
layer {
  name: "loss"
  type: "SoftmaxWithLoss"
  bottom: "ip3"
  bottom: "label"
  top: "loss"
}
I0506 06:23:54.981549 19979 layer_factory.hpp:77] Creating layer intercept
I0506 06:23:54.981557 19979 net.cpp:94] Creating Layer intercept
I0506 06:23:54.981561 19979 net.cpp:409] intercept -> data
I0506 06:23:54.981568 19979 net.cpp:409] intercept -> label
I0506 06:23:54.981573 19979 hdf5_data_layer.cpp:79] Loading list of HDF5 filenames from: /home/purduethu/scratch/radon/d/deng106/CNNStatisticalModel/distributions/input/50_distributions_100_sample_size_test-distributions-path.txt
I0506 06:23:54.981595 19979 hdf5_data_layer.cpp:93] Number of HDF5 files: 1
I0506 06:23:55.023605 19979 net.cpp:144] Setting up intercept
I0506 06:23:55.023639 19979 net.cpp:151] Top shape: 20 1 10 10 (2000)
I0506 06:23:55.023645 19979 net.cpp:151] Top shape: 20 (20)
I0506 06:23:55.023648 19979 net.cpp:159] Memory required for data: 8080
I0506 06:23:55.023654 19979 layer_factory.hpp:77] Creating layer label_intercept_1_split
I0506 06:23:55.023674 19979 net.cpp:94] Creating Layer label_intercept_1_split
I0506 06:23:55.023679 19979 net.cpp:435] label_intercept_1_split <- label
I0506 06:23:55.023684 19979 net.cpp:409] label_intercept_1_split -> label_intercept_1_split_0
I0506 06:23:55.023694 19979 net.cpp:409] label_intercept_1_split -> label_intercept_1_split_1
I0506 06:23:55.023739 19979 net.cpp:144] Setting up label_intercept_1_split
I0506 06:23:55.023746 19979 net.cpp:151] Top shape: 20 (20)
I0506 06:23:55.023749 19979 net.cpp:151] Top shape: 20 (20)
I0506 06:23:55.023752 19979 net.cpp:159] Memory required for data: 8240
I0506 06:23:55.023756 19979 layer_factory.hpp:77] Creating layer conv1
I0506 06:23:55.023766 19979 net.cpp:94] Creating Layer conv1
I0506 06:23:55.023769 19979 net.cpp:435] conv1 <- data
I0506 06:23:55.023774 19979 net.cpp:409] conv1 -> conv1
I0506 06:23:55.024629 19979 net.cpp:144] Setting up conv1
I0506 06:23:55.024643 19979 net.cpp:151] Top shape: 20 64 10 10 (128000)
I0506 06:23:55.024647 19979 net.cpp:159] Memory required for data: 520240
I0506 06:23:55.024657 19979 layer_factory.hpp:77] Creating layer relu1
I0506 06:23:55.024663 19979 net.cpp:94] Creating Layer relu1
I0506 06:23:55.024667 19979 net.cpp:435] relu1 <- conv1
I0506 06:23:55.024672 19979 net.cpp:396] relu1 -> conv1 (in-place)
I0506 06:23:55.024679 19979 net.cpp:144] Setting up relu1
I0506 06:23:55.024683 19979 net.cpp:151] Top shape: 20 64 10 10 (128000)
I0506 06:23:55.024694 19979 net.cpp:159] Memory required for data: 1032240
I0506 06:23:55.024698 19979 layer_factory.hpp:77] Creating layer conv2
I0506 06:23:55.024706 19979 net.cpp:94] Creating Layer conv2
I0506 06:23:55.024710 19979 net.cpp:435] conv2 <- conv1
I0506 06:23:55.024715 19979 net.cpp:409] conv2 -> conv2
I0506 06:23:55.028892 19979 net.cpp:144] Setting up conv2
I0506 06:23:55.028908 19979 net.cpp:151] Top shape: 20 64 10 10 (128000)
I0506 06:23:55.028913 19979 net.cpp:159] Memory required for data: 1544240
I0506 06:23:55.028920 19979 layer_factory.hpp:77] Creating layer relu2
I0506 06:23:55.028928 19979 net.cpp:94] Creating Layer relu2
I0506 06:23:55.028933 19979 net.cpp:435] relu2 <- conv2
I0506 06:23:55.028937 19979 net.cpp:396] relu2 -> conv2 (in-place)
I0506 06:23:55.028944 19979 net.cpp:144] Setting up relu2
I0506 06:23:55.028949 19979 net.cpp:151] Top shape: 20 64 10 10 (128000)
I0506 06:23:55.028954 19979 net.cpp:159] Memory required for data: 2056240
I0506 06:23:55.028956 19979 layer_factory.hpp:77] Creating layer pool2
I0506 06:23:55.028962 19979 net.cpp:94] Creating Layer pool2
I0506 06:23:55.028965 19979 net.cpp:435] pool2 <- conv2
I0506 06:23:55.028970 19979 net.cpp:409] pool2 -> pool2
I0506 06:23:55.029032 19979 net.cpp:144] Setting up pool2
I0506 06:23:55.029040 19979 net.cpp:151] Top shape: 20 64 5 5 (32000)
I0506 06:23:55.029043 19979 net.cpp:159] Memory required for data: 2184240
I0506 06:23:55.029047 19979 layer_factory.hpp:77] Creating layer conv3
I0506 06:23:55.029055 19979 net.cpp:94] Creating Layer conv3
I0506 06:23:55.029059 19979 net.cpp:435] conv3 <- pool2
I0506 06:23:55.029065 19979 net.cpp:409] conv3 -> conv3
I0506 06:23:55.035133 19979 net.cpp:144] Setting up conv3
I0506 06:23:55.035146 19979 net.cpp:151] Top shape: 20 128 5 5 (64000)
I0506 06:23:55.035151 19979 net.cpp:159] Memory required for data: 2440240
I0506 06:23:55.035159 19979 layer_factory.hpp:77] Creating layer relu3
I0506 06:23:55.035167 19979 net.cpp:94] Creating Layer relu3
I0506 06:23:55.035171 19979 net.cpp:435] relu3 <- conv3
I0506 06:23:55.035176 19979 net.cpp:396] relu3 -> conv3 (in-place)
I0506 06:23:55.035183 19979 net.cpp:144] Setting up relu3
I0506 06:23:55.035187 19979 net.cpp:151] Top shape: 20 128 5 5 (64000)
I0506 06:23:55.035190 19979 net.cpp:159] Memory required for data: 2696240
I0506 06:23:55.035193 19979 layer_factory.hpp:77] Creating layer conv4
I0506 06:23:55.035202 19979 net.cpp:94] Creating Layer conv4
I0506 06:23:55.035205 19979 net.cpp:435] conv4 <- conv3
I0506 06:23:55.035212 19979 net.cpp:409] conv4 -> conv4
I0506 06:23:55.048041 19979 net.cpp:144] Setting up conv4
I0506 06:23:55.048081 19979 net.cpp:151] Top shape: 20 128 5 5 (64000)
I0506 06:23:55.048092 19979 net.cpp:159] Memory required for data: 2952240
I0506 06:23:55.048111 19979 layer_factory.hpp:77] Creating layer relu4
I0506 06:23:55.048127 19979 net.cpp:94] Creating Layer relu4
I0506 06:23:55.048138 19979 net.cpp:435] relu4 <- conv4
I0506 06:23:55.048154 19979 net.cpp:396] relu4 -> conv4 (in-place)
I0506 06:23:55.048180 19979 net.cpp:144] Setting up relu4
I0506 06:23:55.048185 19979 net.cpp:151] Top shape: 20 128 5 5 (64000)
I0506 06:23:55.048188 19979 net.cpp:159] Memory required for data: 3208240
I0506 06:23:55.048192 19979 layer_factory.hpp:77] Creating layer conv5
I0506 06:23:55.048200 19979 net.cpp:94] Creating Layer conv5
I0506 06:23:55.048203 19979 net.cpp:435] conv5 <- conv4
I0506 06:23:55.048208 19979 net.cpp:409] conv5 -> conv5
I0506 06:23:55.060961 19979 net.cpp:144] Setting up conv5
I0506 06:23:55.060982 19979 net.cpp:151] Top shape: 20 128 5 5 (64000)
I0506 06:23:55.060986 19979 net.cpp:159] Memory required for data: 3464240
I0506 06:23:55.060998 19979 layer_factory.hpp:77] Creating layer relu5
I0506 06:23:55.061007 19979 net.cpp:94] Creating Layer relu5
I0506 06:23:55.061009 19979 net.cpp:435] relu5 <- conv5
I0506 06:23:55.061015 19979 net.cpp:396] relu5 -> conv5 (in-place)
I0506 06:23:55.061022 19979 net.cpp:144] Setting up relu5
I0506 06:23:55.061028 19979 net.cpp:151] Top shape: 20 128 5 5 (64000)
I0506 06:23:55.061036 19979 net.cpp:159] Memory required for data: 3720240
I0506 06:23:55.061039 19979 layer_factory.hpp:77] Creating layer pool5
I0506 06:23:55.061045 19979 net.cpp:94] Creating Layer pool5
I0506 06:23:55.061048 19979 net.cpp:435] pool5 <- conv5
I0506 06:23:55.061054 19979 net.cpp:409] pool5 -> pool5
I0506 06:23:55.061100 19979 net.cpp:144] Setting up pool5
I0506 06:23:55.061106 19979 net.cpp:151] Top shape: 20 128 2 2 (10240)
I0506 06:23:55.061110 19979 net.cpp:159] Memory required for data: 3761200
I0506 06:23:55.061112 19979 layer_factory.hpp:77] Creating layer ip1
I0506 06:23:55.061120 19979 net.cpp:94] Creating Layer ip1
I0506 06:23:55.061125 19979 net.cpp:435] ip1 <- pool5
I0506 06:23:55.061131 19979 net.cpp:409] ip1 -> ip1
I0506 06:23:55.074311 19979 net.cpp:144] Setting up ip1
I0506 06:23:55.074331 19979 net.cpp:151] Top shape: 20 1024 (20480)
I0506 06:23:55.074334 19979 net.cpp:159] Memory required for data: 3843120
I0506 06:23:55.074342 19979 layer_factory.hpp:77] Creating layer ip2
I0506 06:23:55.074349 19979 net.cpp:94] Creating Layer ip2
I0506 06:23:55.074354 19979 net.cpp:435] ip2 <- ip1
I0506 06:23:55.074359 19979 net.cpp:409] ip2 -> ip2
I0506 06:23:55.087544 19979 net.cpp:144] Setting up ip2
I0506 06:23:55.087566 19979 net.cpp:151] Top shape: 20 512 (10240)
I0506 06:23:55.087570 19979 net.cpp:159] Memory required for data: 3884080
I0506 06:23:55.087576 19979 layer_factory.hpp:77] Creating layer ip3
I0506 06:23:55.087589 19979 net.cpp:94] Creating Layer ip3
I0506 06:23:55.087594 19979 net.cpp:435] ip3 <- ip2
I0506 06:23:55.087601 19979 net.cpp:409] ip3 -> ip3
I0506 06:23:55.088352 19979 net.cpp:144] Setting up ip3
I0506 06:23:55.088361 19979 net.cpp:151] Top shape: 20 50 (1000)
I0506 06:23:55.088363 19979 net.cpp:159] Memory required for data: 3888080
I0506 06:23:55.088369 19979 layer_factory.hpp:77] Creating layer ip3_ip3_0_split
I0506 06:23:55.088376 19979 net.cpp:94] Creating Layer ip3_ip3_0_split
I0506 06:23:55.088379 19979 net.cpp:435] ip3_ip3_0_split <- ip3
I0506 06:23:55.088383 19979 net.cpp:409] ip3_ip3_0_split -> ip3_ip3_0_split_0
I0506 06:23:55.088389 19979 net.cpp:409] ip3_ip3_0_split -> ip3_ip3_0_split_1
I0506 06:23:55.088436 19979 net.cpp:144] Setting up ip3_ip3_0_split
I0506 06:23:55.088443 19979 net.cpp:151] Top shape: 20 50 (1000)
I0506 06:23:55.088446 19979 net.cpp:151] Top shape: 20 50 (1000)
I0506 06:23:55.088449 19979 net.cpp:159] Memory required for data: 3896080
I0506 06:23:55.088452 19979 layer_factory.hpp:77] Creating layer accuracy
I0506 06:23:55.088459 19979 net.cpp:94] Creating Layer accuracy
I0506 06:23:55.088462 19979 net.cpp:435] accuracy <- ip3_ip3_0_split_0
I0506 06:23:55.088466 19979 net.cpp:435] accuracy <- label_intercept_1_split_0
I0506 06:23:55.088471 19979 net.cpp:409] accuracy -> accuracy
…
