…
I0507 21:53:20.960273  7918 net.cpp:323] The NetState phase (0) differed from the phase (1) specified by a rule in layer intercept
I0507 21:53:20.960289  7918 net.cpp:323] The NetState phase (0) differed from the phase (1) specified by a rule in layer loss
I0507 21:53:20.960371  7918 net.cpp:52] Initializing net from parameters: 
state {
  phase: TRAIN
}
layer {
  name: "parameters"
  type: "HDF5Data"
  top: "data"
  top: "label"
  include {
    phase: TRAIN
  }
  hdf5_data_param {
    source: "/home/purduethu/scratch/radon/d/deng106/CNNStatisticalModel/distributions/input/5_distributions_900_sample_size_train-parameters-path.txt"
    batch_size: 20
  }
}
layer {
  name: "conv1"
  type: "Convolution"
  bottom: "data"
  top: "conv1"
  param {
    lr_mult: 1
  }
  param {
    lr_mult: 2
  }
  convolution_param {
    num_output: 64
    pad: 2
    kernel_size: 5
    stride: 1
    weight_filler {
      type: "gaussian"
      std: 0.0001
    }
    bias_filler {
      type: "constant"
    }
  }
}
layer {
  name: "relu1"
  type: "ReLU"
  bottom: "conv1"
  top: "conv1"
}
layer {
  name: "conv2"
  type: "Convolution"
  bottom: "conv1"
  top: "conv2"
  param {
    lr_mult: 1
  }
  param {
    lr_mult: 2
  }
  convolution_param {
    num_output: 64
    pad: 2
    kernel_size: 5
    stride: 1
    weight_filler {
      type: "gaussian"
      std: 0.01
    }
    bias_filler {
      type: "constant"
    }
  }
}
layer {
  name: "relu2"
  type: "ReLU"
  bottom: "conv2"
  top: "conv2"
}
layer {
  name: "pool2"
  type: "Pooling"
  bottom: "conv2"
  top: "pool2"
  pooling_param {
    pool: MAX
    kernel_size: 3
    stride: 2
  }
}
layer {
  name: "conv3"
  type: "Convolution"
  bottom: "pool2"
  top: "conv3"
  param {
    lr_mult: 1
  }
  param {
    lr_mult: 2
  }
  convolution_param {
    num_output: 64
    pad: 2
    kernel_size: 5
    stride: 1
    weight_filler {
      type: "gaussian"
      std: 0.01
    }
    bias_filler {
      type: "constant"
    }
  }
}
layer {
  name: "relu3"
  type: "ReLU"
  bottom: "conv3"
  top: "conv3"
}
layer {
  name: "conv4"
  type: "Convolution"
  bottom: "conv3"
  top: "conv4"
  param {
    lr_mult: 1
  }
  param {
    lr_mult: 2
  }
  convolution_param {
    num_output: 64
    pad: 2
    kernel_size: 5
    stride: 1
    weight_filler {
      type: "gaussian"
      std: 0.01
    }
    bias_filler {
      type: "constant"
    }
  }
}
layer {
  name: "relu4"
  type: "ReLU"
  bottom: "conv4"
  top: "conv4"
}
layer {
  name: "conv5"
  type: "Convolution"
  bottom: "conv4"
  top: "conv5"
  param {
    lr_mult: 1
  }
  param {
    lr_mult: 2
  }
  convolution_param {
    num_output: 64
    pad: 2
    kernel_size: 5
    stride: 1
    weight_filler {
      type: "gaussian"
      std: 0.01
    }
    bias_filler {
      type: "constant"
    }
  }
}
layer {
  name: "relu5"
  type: "ReLU"
  bottom: "conv5"
  top: "conv5"
}
layer {
  name: "pool5"
  type: "Pooling"
  bottom: "conv5"
  top: "pool5"
  pooling_param {
    pool: AVE
    kernel_size: 3
    stride: 2
  }
}
layer {
  name: "ip1"
  type: "InnerProduct"
  bottom: "pool5"
  top: "ip1"
  param {
    lr_mult: 1
  }
  param {
    lr_mult: 2
  }
  inner_product_param {
    num_output: 64
    weight_filler {
      type: "gaussian"
      std: 0.1
    }
    bias_filler {
      type: "constant"
    }
  }
}
layer {
  name: "ip2"
  type: "InnerProduct"
  bottom: "ip1"
  top: "ip2"
  param {
    lr_mult: 1
  }
  param {
    lr_mult: 2
  }
  inner_product_param {
    num_output: 64
    weight_filler {
      type: "gaussian"
      std: 0.1
    }
    bias_filler {
      type: "constant"
    }
  }
}
layer {
  name: "ip3"
  type: "InnerProduct"
  bottom: "ip2"
  top: "ip3"
  param {
    lr_mult: 1
  }
  param {
    lr_mult: 2
  }
  inner_product_param {
    num_output: 1
    weight_filler {
      type: "gaussian"
      std: 0.1
    }
    bias_filler {
      type: "constant"
    }
  }
}
layer {
  name: "loss"
  type: "HuberLoss"
  bottom: "ip3"
  bottom: "label"
  top: "loss"
  include {
    phase: TRAIN
  }
}
I0507 21:53:20.960427  7918 layer_factory.hpp:77] Creating layer parameters
I0507 21:53:20.960443  7918 net.cpp:94] Creating Layer parameters
I0507 21:53:20.960448  7918 net.cpp:409] parameters -> data
I0507 21:53:20.960458  7918 net.cpp:409] parameters -> label
I0507 21:53:20.960464  7918 hdf5_data_layer.cpp:79] Loading list of HDF5 filenames from: /home/purduethu/scratch/radon/d/deng106/CNNStatisticalModel/distributions/input/5_distributions_900_sample_size_train-parameters-path.txt
I0507 21:53:20.960479  7918 hdf5_data_layer.cpp:93] Number of HDF5 files: 1
I0507 21:53:20.961055  7918 hdf5.cpp:32] Datatype class: H5T_FLOAT
I0507 21:53:21.099339  7918 net.cpp:144] Setting up parameters
I0507 21:53:21.099367  7918 net.cpp:151] Top shape: 20 1 30 30 (18000)
I0507 21:53:21.099372  7918 net.cpp:151] Top shape: 20 (20)
I0507 21:53:21.099375  7918 net.cpp:159] Memory required for data: 72080
I0507 21:53:21.099381  7918 layer_factory.hpp:77] Creating layer conv1
I0507 21:53:21.099396  7918 net.cpp:94] Creating Layer conv1
I0507 21:53:21.099401  7918 net.cpp:435] conv1 <- data
I0507 21:53:21.099407  7918 net.cpp:409] conv1 -> conv1
I0507 21:53:21.105792  7918 net.cpp:144] Setting up conv1
I0507 21:53:21.105808  7918 net.cpp:151] Top shape: 20 64 30 30 (1152000)
I0507 21:53:21.105813  7918 net.cpp:159] Memory required for data: 4680080
I0507 21:53:21.105823  7918 layer_factory.hpp:77] Creating layer relu1
I0507 21:53:21.105830  7918 net.cpp:94] Creating Layer relu1
I0507 21:53:21.105834  7918 net.cpp:435] relu1 <- conv1
I0507 21:53:21.105839  7918 net.cpp:396] relu1 -> conv1 (in-place)
I0507 21:53:21.105846  7918 net.cpp:144] Setting up relu1
I0507 21:53:21.105851  7918 net.cpp:151] Top shape: 20 64 30 30 (1152000)
I0507 21:53:21.105854  7918 net.cpp:159] Memory required for data: 9288080
I0507 21:53:21.105856  7918 layer_factory.hpp:77] Creating layer conv2
I0507 21:53:21.105865  7918 net.cpp:94] Creating Layer conv2
I0507 21:53:21.105867  7918 net.cpp:435] conv2 <- conv1
I0507 21:53:21.105872  7918 net.cpp:409] conv2 -> conv2
I0507 21:53:21.121124  7918 net.cpp:144] Setting up conv2
I0507 21:53:21.121140  7918 net.cpp:151] Top shape: 20 64 30 30 (1152000)
I0507 21:53:21.121143  7918 net.cpp:159] Memory required for data: 13896080
I0507 21:53:21.121151  7918 layer_factory.hpp:77] Creating layer relu2
I0507 21:53:21.121157  7918 net.cpp:94] Creating Layer relu2
I0507 21:53:21.121161  7918 net.cpp:435] relu2 <- conv2
I0507 21:53:21.121166  7918 net.cpp:396] relu2 -> conv2 (in-place)
I0507 21:53:21.121173  7918 net.cpp:144] Setting up relu2
I0507 21:53:21.121177  7918 net.cpp:151] Top shape: 20 64 30 30 (1152000)
I0507 21:53:21.121181  7918 net.cpp:159] Memory required for data: 18504080
I0507 21:53:21.121183  7918 layer_factory.hpp:77] Creating layer pool2
I0507 21:53:21.121196  7918 net.cpp:94] Creating Layer pool2
I0507 21:53:21.121199  7918 net.cpp:435] pool2 <- conv2
I0507 21:53:21.121203  7918 net.cpp:409] pool2 -> pool2
I0507 21:53:21.121258  7918 net.cpp:144] Setting up pool2
I0507 21:53:21.121265  7918 net.cpp:151] Top shape: 20 64 15 15 (288000)
I0507 21:53:21.121269  7918 net.cpp:159] Memory required for data: 19656080
I0507 21:53:21.121273  7918 layer_factory.hpp:77] Creating layer conv3
I0507 21:53:21.121279  7918 net.cpp:94] Creating Layer conv3
I0507 21:53:21.121284  7918 net.cpp:435] conv3 <- pool2
I0507 21:53:21.121287  7918 net.cpp:409] conv3 -> conv3
I0507 21:53:21.129456  7918 net.cpp:144] Setting up conv3
I0507 21:53:21.129469  7918 net.cpp:151] Top shape: 20 64 15 15 (288000)
I0507 21:53:21.129473  7918 net.cpp:159] Memory required for data: 20808080
I0507 21:53:21.129482  7918 layer_factory.hpp:77] Creating layer relu3
I0507 21:53:21.129487  7918 net.cpp:94] Creating Layer relu3
I0507 21:53:21.129492  7918 net.cpp:435] relu3 <- conv3
I0507 21:53:21.129495  7918 net.cpp:396] relu3 -> conv3 (in-place)
I0507 21:53:21.129503  7918 net.cpp:144] Setting up relu3
I0507 21:53:21.129508  7918 net.cpp:151] Top shape: 20 64 15 15 (288000)
I0507 21:53:21.129510  7918 net.cpp:159] Memory required for data: 21960080
I0507 21:53:21.129513  7918 layer_factory.hpp:77] Creating layer conv4
I0507 21:53:21.129523  7918 net.cpp:94] Creating Layer conv4
I0507 21:53:21.129525  7918 net.cpp:435] conv4 <- conv3
I0507 21:53:21.129530  7918 net.cpp:409] conv4 -> conv4
I0507 21:53:21.136772  7918 net.cpp:144] Setting up conv4
I0507 21:53:21.136786  7918 net.cpp:151] Top shape: 20 64 15 15 (288000)
I0507 21:53:21.136790  7918 net.cpp:159] Memory required for data: 23112080
I0507 21:53:21.136796  7918 layer_factory.hpp:77] Creating layer relu4
I0507 21:53:21.136802  7918 net.cpp:94] Creating Layer relu4
I0507 21:53:21.136806  7918 net.cpp:435] relu4 <- conv4
I0507 21:53:21.136811  7918 net.cpp:396] relu4 -> conv4 (in-place)
I0507 21:53:21.136818  7918 net.cpp:144] Setting up relu4
I0507 21:53:21.136822  7918 net.cpp:151] Top shape: 20 64 15 15 (288000)
I0507 21:53:21.136826  7918 net.cpp:159] Memory required for data: 24264080
I0507 21:53:21.136828  7918 layer_factory.hpp:77] Creating layer conv5
I0507 21:53:21.136837  7918 net.cpp:94] Creating Layer conv5
I0507 21:53:21.136839  7918 net.cpp:435] conv5 <- conv4
I0507 21:53:21.136844  7918 net.cpp:409] conv5 -> conv5
I0507 21:53:21.144167  7918 net.cpp:144] Setting up conv5
I0507 21:53:21.144181  7918 net.cpp:151] Top shape: 20 64 15 15 (288000)
I0507 21:53:21.144186  7918 net.cpp:159] Memory required for data: 25416080
I0507 21:53:21.144194  7918 layer_factory.hpp:77] Creating layer relu5
I0507 21:53:21.144201  7918 net.cpp:94] Creating Layer relu5
I0507 21:53:21.144203  7918 net.cpp:435] relu5 <- conv5
I0507 21:53:21.144208  7918 net.cpp:396] relu5 -> conv5 (in-place)
I0507 21:53:21.144215  7918 net.cpp:144] Setting up relu5
I0507 21:53:21.144219  7918 net.cpp:151] Top shape: 20 64 15 15 (288000)
I0507 21:53:21.144222  7918 net.cpp:159] Memory required for data: 26568080
I0507 21:53:21.144225  7918 layer_factory.hpp:77] Creating layer pool5
I0507 21:53:21.144232  7918 net.cpp:94] Creating Layer pool5
I0507 21:53:21.144235  7918 net.cpp:435] pool5 <- conv5
I0507 21:53:21.144239  7918 net.cpp:409] pool5 -> pool5
I0507 21:53:21.144279  7918 net.cpp:144] Setting up pool5
I0507 21:53:21.144285  7918 net.cpp:151] Top shape: 20 64 7 7 (62720)
I0507 21:53:21.144289  7918 net.cpp:159] Memory required for data: 26818960
I0507 21:53:21.144291  7918 layer_factory.hpp:77] Creating layer ip1
I0507 21:53:21.144301  7918 net.cpp:94] Creating Layer ip1
I0507 21:53:21.144305  7918 net.cpp:435] ip1 <- pool5
I0507 21:53:21.144309  7918 net.cpp:409] ip1 -> ip1
I0507 21:53:21.149899  7918 net.cpp:144] Setting up ip1
I0507 21:53:21.149912  7918 net.cpp:151] Top shape: 20 64 (1280)
I0507 21:53:21.149916  7918 net.cpp:159] Memory required for data: 26824080
I0507 21:53:21.149922  7918 layer_factory.hpp:77] Creating layer ip2
I0507 21:53:21.149930  7918 net.cpp:94] Creating Layer ip2
I0507 21:53:21.149937  7918 net.cpp:435] ip2 <- ip1
I0507 21:53:21.149942  7918 net.cpp:409] ip2 -> ip2
I0507 21:53:21.150152  7918 net.cpp:144] Setting up ip2
I0507 21:53:21.150161  7918 net.cpp:151] Top shape: 20 64 (1280)
I0507 21:53:21.150163  7918 net.cpp:159] Memory required for data: 26829200
I0507 21:53:21.150168  7918 layer_factory.hpp:77] Creating layer ip3
I0507 21:53:21.150174  7918 net.cpp:94] Creating Layer ip3
I0507 21:53:21.150177  7918 net.cpp:435] ip3 <- ip2
I0507 21:53:21.150182  7918 net.cpp:409] ip3 -> ip3
I0507 21:53:21.150286  7918 net.cpp:144] Setting up ip3
I0507 21:53:21.150293  7918 net.cpp:151] Top shape: 20 1 (20)
I0507 21:53:21.150296  7918 net.cpp:159] Memory required for data: 26829280
I0507 21:53:21.150301  7918 layer_factory.hpp:77] Creating layer loss
I0507 21:53:21.150312  7918 net.cpp:94] Creating Layer loss
I0507 21:53:21.150315  7918 net.cpp:435] loss <- ip3
I0507 21:53:21.150319  7918 net.cpp:435] loss <- label
I0507 21:53:21.150323  7918 net.cpp:409] loss -> loss
I0507 21:53:21.150372  7918 net.cpp:144] Setting up loss
…
I0507 21:53:21.215968  7918 net.cpp:323] The NetState phase (0) differed from the phase (1) specified by a rule in layer intercept
I0507 21:53:21.215984  7918 net.cpp:323] The NetState phase (0) differed from the phase (1) specified by a rule in layer accuracy
I0507 21:53:21.216071  7918 net.cpp:52] Initializing net from parameters: 
state {
  phase: TRAIN
}
layer {
  name: "parameters"
  type: "HDF5Data"
  top: "data"
  top: "label"
  include {
    phase: TRAIN
  }
  hdf5_data_param {
    source: "/home/purduethu/scratch/radon/d/deng106/CNNStatisticalModel/distributions/input/5_distributions_900_sample_size_train-distributions-path.txt"
    batch_size: 20
  }
}
layer {
  name: "conv1"
  type: "Convolution"
  bottom: "data"
  top: "conv1"
  param {
    lr_mult: 1
  }
  param {
    lr_mult: 2
  }
  convolution_param {
    num_output: 64
    pad: 2
    kernel_size: 5
    stride: 1
    weight_filler {
      type: "gaussian"
      std: 0.0001
    }
    bias_filler {
      type: "constant"
    }
  }
}
layer {
  name: "relu1"
  type: "ReLU"
  bottom: "conv1"
  top: "conv1"
}
layer {
  name: "conv2"
  type: "Convolution"
  bottom: "conv1"
  top: "conv2"
  param {
    lr_mult: 1
  }
  param {
    lr_mult: 2
  }
  convolution_param {
    num_output: 64
    pad: 2
    kernel_size: 5
    stride: 1
    weight_filler {
      type: "gaussian"
      std: 0.01
    }
    bias_filler {
      type: "constant"
    }
  }
}
layer {
  name: "relu2"
  type: "ReLU"
  bottom: "conv2"
  top: "conv2"
}
layer {
  name: "pool2"
  type: "Pooling"
  bottom: "conv2"
  top: "pool2"
  pooling_param {
    pool: MAX
    kernel_size: 3
    stride: 2
  }
}
layer {
  name: "conv3"
  type: "Convolution"
  bottom: "pool2"
  top: "conv3"
  param {
    lr_mult: 1
  }
  param {
    lr_mult: 2
  }
  convolution_param {
    num_output: 64
    pad: 2
    kernel_size: 5
    stride: 1
    weight_filler {
      type: "gaussian"
      std: 0.01
    }
    bias_filler {
      type: "constant"
    }
  }
}
layer {
  name: "relu3"
  type: "ReLU"
  bottom: "conv3"
  top: "conv3"
}
layer {
  name: "conv4"
  type: "Convolution"
  bottom: "conv3"
  top: "conv4"
  param {
    lr_mult: 1
  }
  param {
    lr_mult: 2
  }
  convolution_param {
    num_output: 64
    pad: 2
    kernel_size: 5
    stride: 1
    weight_filler {
      type: "gaussian"
      std: 0.01
    }
    bias_filler {
      type: "constant"
    }
  }
}
layer {
  name: "relu4"
  type: "ReLU"
  bottom: "conv4"
  top: "conv4"
}
layer {
  name: "conv5"
  type: "Convolution"
  bottom: "conv4"
  top: "conv5"
  param {
    lr_mult: 1
  }
  param {
    lr_mult: 2
  }
  convolution_param {
    num_output: 64
    pad: 2
    kernel_size: 5
    stride: 1
    weight_filler {
      type: "gaussian"
      std: 0.01
    }
    bias_filler {
      type: "constant"
    }
  }
}
layer {
  name: "relu5"
  type: "ReLU"
  bottom: "conv5"
  top: "conv5"
}
layer {
  name: "pool5"
  type: "Pooling"
  bottom: "conv5"
  top: "pool5"
  pooling_param {
    pool: AVE
    kernel_size: 3
    stride: 2
  }
}
layer {
  name: "ip1"
  type: "InnerProduct"
  bottom: "pool5"
  top: "ip1"
  param {
    lr_mult: 1
  }
  param {
    lr_mult: 2
  }
  inner_product_param {
    num_output: 64
    weight_filler {
      type: "gaussian"
      std: 0.1
    }
    bias_filler {
      type: "constant"
    }
  }
}
layer {
  name: "ip2"
  type: "InnerProduct"
  bottom: "ip1"
  top: "ip2"
  param {
    lr_mult: 1
  }
  param {
    lr_mult: 2
  }
  inner_product_param {
    num_output: 64
    weight_filler {
      type: "gaussian"
      std: 0.1
    }
    bias_filler {
      type: "constant"
    }
  }
}
layer {
  name: "ip3"
  type: "InnerProduct"
  bottom: "ip2"
  top: "ip3"
  param {
    lr_mult: 1
  }
  param {
    lr_mult: 2
  }
  inner_product_param {
    num_output: 50
    weight_filler {
      type: "gaussian"
      std: 0.1
    }
    bias_filler {
      type: "constant"
    }
  }
}
layer {
  name: "loss"
  type: "SoftmaxWithLoss"
  bottom: "ip3"
  bottom: "label"
  top: "loss"
}
I0507 21:53:21.216122  7918 layer_factory.hpp:77] Creating layer parameters
I0507 21:53:21.216130  7918 net.cpp:94] Creating Layer parameters
I0507 21:53:21.216135  7918 net.cpp:409] parameters -> data
I0507 21:53:21.216140  7918 net.cpp:409] parameters -> label
I0507 21:53:21.216147  7918 hdf5_data_layer.cpp:79] Loading list of HDF5 filenames from: /home/purduethu/scratch/radon/d/deng106/CNNStatisticalModel/distributions/input/5_distributions_900_sample_size_train-distributions-path.txt
I0507 21:53:21.216163  7918 hdf5_data_layer.cpp:93] Number of HDF5 files: 1
I0507 21:53:21.350466  7918 hdf5.cpp:35] Datatype class: H5T_INTEGER
I0507 21:53:21.350888  7918 net.cpp:144] Setting up parameters
I0507 21:53:21.350901  7918 net.cpp:151] Top shape: 20 1 30 30 (18000)
I0507 21:53:21.350906  7918 net.cpp:151] Top shape: 20 (20)
I0507 21:53:21.350909  7918 net.cpp:159] Memory required for data: 72080
I0507 21:53:21.350915  7918 layer_factory.hpp:77] Creating layer conv1
I0507 21:53:21.350930  7918 net.cpp:94] Creating Layer conv1
I0507 21:53:21.350934  7918 net.cpp:435] conv1 <- data
I0507 21:53:21.350940  7918 net.cpp:409] conv1 -> conv1
I0507 21:53:21.354367  7918 net.cpp:144] Setting up conv1
I0507 21:53:21.354382  7918 net.cpp:151] Top shape: 20 64 30 30 (1152000)
I0507 21:53:21.354387  7918 net.cpp:159] Memory required for data: 4680080
I0507 21:53:21.354396  7918 layer_factory.hpp:77] Creating layer relu1
I0507 21:53:21.354404  7918 net.cpp:94] Creating Layer relu1
I0507 21:53:21.354408  7918 net.cpp:435] relu1 <- conv1
I0507 21:53:21.354413  7918 net.cpp:396] relu1 -> conv1 (in-place)
I0507 21:53:21.354419  7918 net.cpp:144] Setting up relu1
I0507 21:53:21.354424  7918 net.cpp:151] Top shape: 20 64 30 30 (1152000)
I0507 21:53:21.354427  7918 net.cpp:159] Memory required for data: 9288080
I0507 21:53:21.354430  7918 layer_factory.hpp:77] Creating layer conv2
I0507 21:53:21.354437  7918 net.cpp:94] Creating Layer conv2
I0507 21:53:21.354441  7918 net.cpp:435] conv2 <- conv1
I0507 21:53:21.354445  7918 net.cpp:409] conv2 -> conv2
I0507 21:53:21.369215  7918 net.cpp:144] Setting up conv2
I0507 21:53:21.369231  7918 net.cpp:151] Top shape: 20 64 30 30 (1152000)
I0507 21:53:21.369235  7918 net.cpp:159] Memory required for data: 13896080
I0507 21:53:21.369243  7918 layer_factory.hpp:77] Creating layer relu2
I0507 21:53:21.369251  7918 net.cpp:94] Creating Layer relu2
I0507 21:53:21.369253  7918 net.cpp:435] relu2 <- conv2
I0507 21:53:21.369258  7918 net.cpp:396] relu2 -> conv2 (in-place)
I0507 21:53:21.369266  7918 net.cpp:144] Setting up relu2
I0507 21:53:21.369271  7918 net.cpp:151] Top shape: 20 64 30 30 (1152000)
I0507 21:53:21.369272  7918 net.cpp:159] Memory required for data: 18504080
I0507 21:53:21.369276  7918 layer_factory.hpp:77] Creating layer pool2
I0507 21:53:21.369282  7918 net.cpp:94] Creating Layer pool2
I0507 21:53:21.369284  7918 net.cpp:435] pool2 <- conv2
I0507 21:53:21.369288  7918 net.cpp:409] pool2 -> pool2
I0507 21:53:21.369339  7918 net.cpp:144] Setting up pool2
I0507 21:53:21.369348  7918 net.cpp:151] Top shape: 20 64 15 15 (288000)
I0507 21:53:21.369350  7918 net.cpp:159] Memory required for data: 19656080
I0507 21:53:21.369354  7918 layer_factory.hpp:77] Creating layer conv3
I0507 21:53:21.369360  7918 net.cpp:94] Creating Layer conv3
I0507 21:53:21.369364  7918 net.cpp:435] conv3 <- pool2
I0507 21:53:21.369375  7918 net.cpp:409] conv3 -> conv3
I0507 21:53:21.377769  7918 net.cpp:144] Setting up conv3
I0507 21:53:21.377784  7918 net.cpp:151] Top shape: 20 64 15 15 (288000)
I0507 21:53:21.377789  7918 net.cpp:159] Memory required for data: 20808080
I0507 21:53:21.377796  7918 layer_factory.hpp:77] Creating layer relu3
I0507 21:53:21.377802  7918 net.cpp:94] Creating Layer relu3
I0507 21:53:21.377806  7918 net.cpp:435] relu3 <- conv3
I0507 21:53:21.377811  7918 net.cpp:396] relu3 -> conv3 (in-place)
I0507 21:53:21.377817  7918 net.cpp:144] Setting up relu3
I0507 21:53:21.377822  7918 net.cpp:151] Top shape: 20 64 15 15 (288000)
I0507 21:53:21.377825  7918 net.cpp:159] Memory required for data: 21960080
I0507 21:53:21.377828  7918 layer_factory.hpp:77] Creating layer conv4
I0507 21:53:21.377836  7918 net.cpp:94] Creating Layer conv4
I0507 21:53:21.377840  7918 net.cpp:435] conv4 <- conv3
I0507 21:53:21.377845  7918 net.cpp:409] conv4 -> conv4
I0507 21:53:21.385334  7918 net.cpp:144] Setting up conv4
I0507 21:53:21.385349  7918 net.cpp:151] Top shape: 20 64 15 15 (288000)
I0507 21:53:21.385351  7918 net.cpp:159] Memory required for data: 23112080
I0507 21:53:21.385359  7918 layer_factory.hpp:77] Creating layer relu4
I0507 21:53:21.385365  7918 net.cpp:94] Creating Layer relu4
I0507 21:53:21.385368  7918 net.cpp:435] relu4 <- conv4
I0507 21:53:21.385372  7918 net.cpp:396] relu4 -> conv4 (in-place)
I0507 21:53:21.385380  7918 net.cpp:144] Setting up relu4
I0507 21:53:21.385385  7918 net.cpp:151] Top shape: 20 64 15 15 (288000)
I0507 21:53:21.385387  7918 net.cpp:159] Memory required for data: 24264080
I0507 21:53:21.385390  7918 layer_factory.hpp:77] Creating layer conv5
I0507 21:53:21.385397  7918 net.cpp:94] Creating Layer conv5
I0507 21:53:21.385401  7918 net.cpp:435] conv5 <- conv4
I0507 21:53:21.385406  7918 net.cpp:409] conv5 -> conv5
I0507 21:53:21.393688  7918 net.cpp:144] Setting up conv5
I0507 21:53:21.393703  7918 net.cpp:151] Top shape: 20 64 15 15 (288000)
I0507 21:53:21.393707  7918 net.cpp:159] Memory required for data: 25416080
I0507 21:53:21.393715  7918 layer_factory.hpp:77] Creating layer relu5
I0507 21:53:21.393723  7918 net.cpp:94] Creating Layer relu5
I0507 21:53:21.393725  7918 net.cpp:435] relu5 <- conv5
I0507 21:53:21.393730  7918 net.cpp:396] relu5 -> conv5 (in-place)
I0507 21:53:21.393738  7918 net.cpp:144] Setting up relu5
I0507 21:53:21.393741  7918 net.cpp:151] Top shape: 20 64 15 15 (288000)
I0507 21:53:21.393744  7918 net.cpp:159] Memory required for data: 26568080
I0507 21:53:21.393748  7918 layer_factory.hpp:77] Creating layer pool5
I0507 21:53:21.393752  7918 net.cpp:94] Creating Layer pool5
I0507 21:53:21.393755  7918 net.cpp:435] pool5 <- conv5
I0507 21:53:21.393760  7918 net.cpp:409] pool5 -> pool5
I0507 21:53:21.393800  7918 net.cpp:144] Setting up pool5
I0507 21:53:21.393806  7918 net.cpp:151] Top shape: 20 64 7 7 (62720)
I0507 21:53:21.393810  7918 net.cpp:159] Memory required for data: 26818960
I0507 21:53:21.393812  7918 layer_factory.hpp:77] Creating layer ip1
I0507 21:53:21.393820  7918 net.cpp:94] Creating Layer ip1
I0507 21:53:21.393823  7918 net.cpp:435] ip1 <- pool5
I0507 21:53:21.393827  7918 net.cpp:409] ip1 -> ip1
I0507 21:53:21.398607  7918 net.cpp:144] Setting up ip1
I0507 21:53:21.398617  7918 net.cpp:151] Top shape: 20 64 (1280)
I0507 21:53:21.398620  7918 net.cpp:159] Memory required for data: 26824080
I0507 21:53:21.398625  7918 layer_factory.hpp:77] Creating layer ip2
I0507 21:53:21.398632  7918 net.cpp:94] Creating Layer ip2
I0507 21:53:21.398634  7918 net.cpp:435] ip2 <- ip1
I0507 21:53:21.398640  7918 net.cpp:409] ip2 -> ip2
I0507 21:53:21.398859  7918 net.cpp:144] Setting up ip2
I0507 21:53:21.398867  7918 net.cpp:151] Top shape: 20 64 (1280)
I0507 21:53:21.398869  7918 net.cpp:159] Memory required for data: 26829200
I0507 21:53:21.398874  7918 layer_factory.hpp:77] Creating layer ip3
I0507 21:53:21.398880  7918 net.cpp:94] Creating Layer ip3
I0507 21:53:21.398883  7918 net.cpp:435] ip3 <- ip2
I0507 21:53:21.398891  7918 net.cpp:409] ip3 -> ip3
I0507 21:53:21.399086  7918 net.cpp:144] Setting up ip3
I0507 21:53:21.399094  7918 net.cpp:151] Top shape: 20 50 (1000)
I0507 21:53:21.399097  7918 net.cpp:159] Memory required for data: 26833200
I0507 21:53:21.399102  7918 layer_factory.hpp:77] Creating layer loss
I0507 21:53:21.399111  7918 net.cpp:94] Creating Layer loss
I0507 21:53:21.399113  7918 net.cpp:435] loss <- ip3
I0507 21:53:21.399117  7918 net.cpp:435] loss <- label
I0507 21:53:21.399122  7918 net.cpp:409] loss -> loss
I0507 21:53:21.399129  7918 layer_factory.hpp:77] Creating layer loss
…
I0507 21:53:21.399631  7918 solver.cpp:181] Creating test net (#0) specified by net file: ./protocol/dis_5_900_dimension.protocol_distribution
I0507 21:53:21.399658  7918 net.cpp:323] The NetState phase (1) differed from the phase (0) specified by a rule in layer parameters
I0507 21:53:21.399756  7918 net.cpp:52] Initializing net from parameters: 
state {
  phase: TEST
}
layer {
  name: "intercept"
  type: "HDF5Data"
  top: "data"
  top: "label"
  include {
    phase: TEST
  }
  hdf5_data_param {
    source: "/home/purduethu/scratch/radon/d/deng106/CNNStatisticalModel/distributions/input/5_distributions_900_sample_size_test-distributions-path.txt"
    batch_size: 20
  }
}
layer {
  name: "conv1"
  type: "Convolution"
  bottom: "data"
  top: "conv1"
  param {
    lr_mult: 1
  }
  param {
    lr_mult: 2
  }
  convolution_param {
    num_output: 64
    pad: 2
    kernel_size: 5
    stride: 1
    weight_filler {
      type: "gaussian"
      std: 0.0001
    }
    bias_filler {
      type: "constant"
    }
  }
}
layer {
  name: "relu1"
  type: "ReLU"
  bottom: "conv1"
  top: "conv1"
}
layer {
  name: "conv2"
  type: "Convolution"
  bottom: "conv1"
  top: "conv2"
  param {
    lr_mult: 1
  }
  param {
    lr_mult: 2
  }
  convolution_param {
    num_output: 64
    pad: 2
    kernel_size: 5
    stride: 1
    weight_filler {
      type: "gaussian"
      std: 0.01
    }
    bias_filler {
      type: "constant"
    }
  }
}
layer {
  name: "relu2"
  type: "ReLU"
  bottom: "conv2"
  top: "conv2"
}
layer {
  name: "pool2"
  type: "Pooling"
  bottom: "conv2"
  top: "pool2"
  pooling_param {
    pool: MAX
    kernel_size: 3
    stride: 2
  }
}
layer {
  name: "conv3"
  type: "Convolution"
  bottom: "pool2"
  top: "conv3"
  param {
    lr_mult: 1
  }
  param {
    lr_mult: 2
  }
  convolution_param {
    num_output: 64
    pad: 2
    kernel_size: 5
    stride: 1
    weight_filler {
      type: "gaussian"
      std: 0.01
    }
    bias_filler {
      type: "constant"
    }
  }
}
layer {
  name: "relu3"
  type: "ReLU"
  bottom: "conv3"
  top: "conv3"
}
layer {
  name: "conv4"
  type: "Convolution"
  bottom: "conv3"
  top: "conv4"
  param {
    lr_mult: 1
  }
  param {
    lr_mult: 2
  }
  convolution_param {
    num_output: 64
    pad: 2
    kernel_size: 5
    stride: 1
    weight_filler {
      type: "gaussian"
      std: 0.01
    }
    bias_filler {
      type: "constant"
    }
  }
}
layer {
  name: "relu4"
  type: "ReLU"
  bottom: "conv4"
  top: "conv4"
}
layer {
  name: "conv5"
  type: "Convolution"
  bottom: "conv4"
  top: "conv5"
  param {
    lr_mult: 1
  }
  param {
    lr_mult: 2
  }
  convolution_param {
    num_output: 64
    pad: 2
    kernel_size: 5
    stride: 1
    weight_filler {
      type: "gaussian"
      std: 0.01
    }
    bias_filler {
      type: "constant"
    }
  }
}
layer {
  name: "relu5"
  type: "ReLU"
  bottom: "conv5"
  top: "conv5"
}
layer {
  name: "pool5"
  type: "Pooling"
  bottom: "conv5"
  top: "pool5"
  pooling_param {
    pool: AVE
    kernel_size: 3
    stride: 2
  }
}
layer {
  name: "ip1"
  type: "InnerProduct"
  bottom: "pool5"
  top: "ip1"
  param {
    lr_mult: 1
  }
  param {
    lr_mult: 2
  }
  inner_product_param {
    num_output: 64
    weight_filler {
      type: "gaussian"
      std: 0.1
    }
    bias_filler {
      type: "constant"
    }
  }
}
layer {
  name: "ip2"
  type: "InnerProduct"
  bottom: "ip1"
  top: "ip2"
  param {
    lr_mult: 1
  }
  param {
    lr_mult: 2
  }
  inner_product_param {
    num_output: 64
    weight_filler {
      type: "gaussian"
      std: 0.1
    }
    bias_filler {
      type: "constant"
    }
  }
}
layer {
  name: "ip3"
  type: "InnerProduct"
  bottom: "ip2"
  top: "ip3"
  param {
    lr_mult: 1
  }
  param {
    lr_mult: 2
  }
  inner_product_param {
    num_output: 50
    weight_filler {
      type: "gaussian"
      std: 0.1
    }
    bias_filler {
      type: "constant"
    }
  }
}
layer {
  name: "accuracy"
  type: "Accuracy"
  bottom: "ip3"
  bottom: "label"
  top: "accuracy"
  include {
    phase: TEST
  }
}
layer {
  name: "loss"
  type: "SoftmaxWithLoss"
  bottom: "ip3"
  bottom: "label"
  top: "loss"
}
I0507 21:53:21.399823  7918 layer_factory.hpp:77] Creating layer intercept
I0507 21:53:21.399832  7918 net.cpp:94] Creating Layer intercept
I0507 21:53:21.399835  7918 net.cpp:409] intercept -> data
I0507 21:53:21.399842  7918 net.cpp:409] intercept -> label
I0507 21:53:21.399847  7918 hdf5_data_layer.cpp:79] Loading list of HDF5 filenames from: /home/purduethu/scratch/radon/d/deng106/CNNStatisticalModel/distributions/input/5_distributions_900_sample_size_test-distributions-path.txt
I0507 21:53:21.399866  7918 hdf5_data_layer.cpp:93] Number of HDF5 files: 1
I0507 21:53:21.435780  7918 net.cpp:144] Setting up intercept
I0507 21:53:21.435812  7918 net.cpp:151] Top shape: 20 1 30 30 (18000)
I0507 21:53:21.435817  7918 net.cpp:151] Top shape: 20 (20)
I0507 21:53:21.435820  7918 net.cpp:159] Memory required for data: 72080
I0507 21:53:21.435827  7918 layer_factory.hpp:77] Creating layer label_intercept_1_split
I0507 21:53:21.435843  7918 net.cpp:94] Creating Layer label_intercept_1_split
I0507 21:53:21.435848  7918 net.cpp:435] label_intercept_1_split <- label
I0507 21:53:21.435853  7918 net.cpp:409] label_intercept_1_split -> label_intercept_1_split_0
I0507 21:53:21.435863  7918 net.cpp:409] label_intercept_1_split -> label_intercept_1_split_1
I0507 21:53:21.435904  7918 net.cpp:144] Setting up label_intercept_1_split
I0507 21:53:21.435909  7918 net.cpp:151] Top shape: 20 (20)
I0507 21:53:21.435914  7918 net.cpp:151] Top shape: 20 (20)
I0507 21:53:21.435916  7918 net.cpp:159] Memory required for data: 72240
I0507 21:53:21.435920  7918 layer_factory.hpp:77] Creating layer conv1
I0507 21:53:21.435930  7918 net.cpp:94] Creating Layer conv1
I0507 21:53:21.435933  7918 net.cpp:435] conv1 <- data
I0507 21:53:21.435938  7918 net.cpp:409] conv1 -> conv1
I0507 21:53:21.437444  7918 net.cpp:144] Setting up conv1
I0507 21:53:21.437464  7918 net.cpp:151] Top shape: 20 64 30 30 (1152000)
I0507 21:53:21.437469  7918 net.cpp:159] Memory required for data: 4680240
I0507 21:53:21.437479  7918 layer_factory.hpp:77] Creating layer relu1
I0507 21:53:21.437485  7918 net.cpp:94] Creating Layer relu1
I0507 21:53:21.437489  7918 net.cpp:435] relu1 <- conv1
I0507 21:53:21.437494  7918 net.cpp:396] relu1 -> conv1 (in-place)
I0507 21:53:21.437501  7918 net.cpp:144] Setting up relu1
I0507 21:53:21.437505  7918 net.cpp:151] Top shape: 20 64 30 30 (1152000)
I0507 21:53:21.437508  7918 net.cpp:159] Memory required for data: 9288240
I0507 21:53:21.437511  7918 layer_factory.hpp:77] Creating layer conv2
I0507 21:53:21.437520  7918 net.cpp:94] Creating Layer conv2
I0507 21:53:21.437523  7918 net.cpp:435] conv2 <- conv1
I0507 21:53:21.437528  7918 net.cpp:409] conv2 -> conv2
I0507 21:53:21.443837  7918 net.cpp:144] Setting up conv2
I0507 21:53:21.443851  7918 net.cpp:151] Top shape: 20 64 30 30 (1152000)
I0507 21:53:21.443856  7918 net.cpp:159] Memory required for data: 13896240
I0507 21:53:21.443863  7918 layer_factory.hpp:77] Creating layer relu2
I0507 21:53:21.443869  7918 net.cpp:94] Creating Layer relu2
I0507 21:53:21.443873  7918 net.cpp:435] relu2 <- conv2
I0507 21:53:21.443877  7918 net.cpp:396] relu2 -> conv2 (in-place)
I0507 21:53:21.443884  7918 net.cpp:144] Setting up relu2
I0507 21:53:21.443888  7918 net.cpp:151] Top shape: 20 64 30 30 (1152000)
I0507 21:53:21.443892  7918 net.cpp:159] Memory required for data: 18504240
I0507 21:53:21.443894  7918 layer_factory.hpp:77] Creating layer pool2
I0507 21:53:21.443900  7918 net.cpp:94] Creating Layer pool2
I0507 21:53:21.443903  7918 net.cpp:435] pool2 <- conv2
I0507 21:53:21.443907  7918 net.cpp:409] pool2 -> pool2
I0507 21:53:21.443958  7918 net.cpp:144] Setting up pool2
I0507 21:53:21.443965  7918 net.cpp:151] Top shape: 20 64 15 15 (288000)
I0507 21:53:21.443969  7918 net.cpp:159] Memory required for data: 19656240
I0507 21:53:21.443971  7918 layer_factory.hpp:77] Creating layer conv3
I0507 21:53:21.443979  7918 net.cpp:94] Creating Layer conv3
I0507 21:53:21.443982  7918 net.cpp:435] conv3 <- pool2
I0507 21:53:21.443987  7918 net.cpp:409] conv3 -> conv3
I0507 21:53:21.448905  7918 net.cpp:144] Setting up conv3
I0507 21:53:21.448920  7918 net.cpp:151] Top shape: 20 64 15 15 (288000)
I0507 21:53:21.448922  7918 net.cpp:159] Memory required for data: 20808240
I0507 21:53:21.448931  7918 layer_factory.hpp:77] Creating layer relu3
I0507 21:53:21.448937  7918 net.cpp:94] Creating Layer relu3
I0507 21:53:21.448941  7918 net.cpp:435] relu3 <- conv3
I0507 21:53:21.448946  7918 net.cpp:396] relu3 -> conv3 (in-place)
I0507 21:53:21.448952  7918 net.cpp:144] Setting up relu3
I0507 21:53:21.448957  7918 net.cpp:151] Top shape: 20 64 15 15 (288000)
I0507 21:53:21.448961  7918 net.cpp:159] Memory required for data: 21960240
I0507 21:53:21.448963  7918 layer_factory.hpp:77] Creating layer conv4
I0507 21:53:21.448971  7918 net.cpp:94] Creating Layer conv4
I0507 21:53:21.448973  7918 net.cpp:435] conv4 <- conv3
I0507 21:53:21.448978  7918 net.cpp:409] conv4 -> conv4
I0507 21:53:21.454334  7918 net.cpp:144] Setting up conv4
I0507 21:53:21.454349  7918 net.cpp:151] Top shape: 20 64 15 15 (288000)
I0507 21:53:21.454354  7918 net.cpp:159] Memory required for data: 23112240
I0507 21:53:21.454360  7918 layer_factory.hpp:77] Creating layer relu4
I0507 21:53:21.454366  7918 net.cpp:94] Creating Layer relu4
I0507 21:53:21.454370  7918 net.cpp:435] relu4 <- conv4
I0507 21:53:21.454375  7918 net.cpp:396] relu4 -> conv4 (in-place)
I0507 21:53:21.454380  7918 net.cpp:144] Setting up relu4
I0507 21:53:21.454385  7918 net.cpp:151] Top shape: 20 64 15 15 (288000)
I0507 21:53:21.454388  7918 net.cpp:159] Memory required for data: 24264240
I0507 21:53:21.454391  7918 layer_factory.hpp:77] Creating layer conv5
I0507 21:53:21.454399  7918 net.cpp:94] Creating Layer conv5
I0507 21:53:21.454402  7918 net.cpp:435] conv5 <- conv4
I0507 21:53:21.454407  7918 net.cpp:409] conv5 -> conv5
I0507 21:53:21.458953  7918 net.cpp:144] Setting up conv5
I0507 21:53:21.458986  7918 net.cpp:151] Top shape: 20 64 15 15 (288000)
I0507 21:53:21.458993  7918 net.cpp:159] Memory required for data: 25416240
I0507 21:53:21.459010  7918 layer_factory.hpp:77] Creating layer relu5
I0507 21:53:21.459022  7918 net.cpp:94] Creating Layer relu5
I0507 21:53:21.459028  7918 net.cpp:435] relu5 <- conv5
I0507 21:53:21.459038  7918 net.cpp:396] relu5 -> conv5 (in-place)
I0507 21:53:21.459051  7918 net.cpp:144] Setting up relu5
I0507 21:53:21.459060  7918 net.cpp:151] Top shape: 20 64 15 15 (288000)
I0507 21:53:21.459066  7918 net.cpp:159] Memory required for data: 26568240
I0507 21:53:21.459072  7918 layer_factory.hpp:77] Creating layer pool5
I0507 21:53:21.459082  7918 net.cpp:94] Creating Layer pool5
I0507 21:53:21.459089  7918 net.cpp:435] pool5 <- conv5
I0507 21:53:21.459105  7918 net.cpp:409] pool5 -> pool5
I0507 21:53:21.459141  7918 net.cpp:144] Setting up pool5
I0507 21:53:21.459147  7918 net.cpp:151] Top shape: 20 64 7 7 (62720)
I0507 21:53:21.459151  7918 net.cpp:159] Memory required for data: 26819120
I0507 21:53:21.459153  7918 layer_factory.hpp:77] Creating layer ip1
I0507 21:53:21.459161  7918 net.cpp:94] Creating Layer ip1
I0507 21:53:21.459163  7918 net.cpp:435] ip1 <- pool5
I0507 21:53:21.459168  7918 net.cpp:409] ip1 -> ip1
I0507 21:53:21.463946  7918 net.cpp:144] Setting up ip1
I0507 21:53:21.463956  7918 net.cpp:151] Top shape: 20 64 (1280)
I0507 21:53:21.463959  7918 net.cpp:159] Memory required for data: 26824240
I0507 21:53:21.463964  7918 layer_factory.hpp:77] Creating layer ip2
I0507 21:53:21.463970  7918 net.cpp:94] Creating Layer ip2
I0507 21:53:21.463974  7918 net.cpp:435] ip2 <- ip1
I0507 21:53:21.463979  7918 net.cpp:409] ip2 -> ip2
I0507 21:53:21.464193  7918 net.cpp:144] Setting up ip2
I0507 21:53:21.464200  7918 net.cpp:151] Top shape: 20 64 (1280)
I0507 21:53:21.464203  7918 net.cpp:159] Memory required for data: 26829360
I0507 21:53:21.464208  7918 layer_factory.hpp:77] Creating layer ip3
I0507 21:53:21.464215  7918 net.cpp:94] Creating Layer ip3
I0507 21:53:21.464218  7918 net.cpp:435] ip3 <- ip2
I0507 21:53:21.464223  7918 net.cpp:409] ip3 -> ip3
I0507 21:53:21.464409  7918 net.cpp:144] Setting up ip3
I0507 21:53:21.464416  7918 net.cpp:151] Top shape: 20 50 (1000)
I0507 21:53:21.464419  7918 net.cpp:159] Memory required for data: 26833360
I0507 21:53:21.464424  7918 layer_factory.hpp:77] Creating layer ip3_ip3_0_split
I0507 21:53:21.464429  7918 net.cpp:94] Creating Layer ip3_ip3_0_split
I0507 21:53:21.464432  7918 net.cpp:435] ip3_ip3_0_split <- ip3
I0507 21:53:21.464437  7918 net.cpp:409] ip3_ip3_0_split -> ip3_ip3_0_split_0
I0507 21:53:21.464442  7918 net.cpp:409] ip3_ip3_0_split -> ip3_ip3_0_split_1
I0507 21:53:21.464479  7918 net.cpp:144] Setting up ip3_ip3_0_split
I0507 21:53:21.464485  7918 net.cpp:151] Top shape: 20 50 (1000)
I0507 21:53:21.464489  7918 net.cpp:151] Top shape: 20 50 (1000)
I0507 21:53:21.464493  7918 net.cpp:159] Memory required for data: 26841360
I0507 21:53:21.464495  7918 layer_factory.hpp:77] Creating layer accuracy
I0507 21:53:21.464500  7918 net.cpp:94] Creating Layer accuracy
I0507 21:53:21.464504  7918 net.cpp:435] accuracy <- ip3_ip3_0_split_0
I0507 21:53:21.464507  7918 net.cpp:435] accuracy <- label_intercept_1_split_0
I0507 21:53:21.464511  7918 net.cpp:409] accuracy -> accuracy
…
