…
I0502 12:07:12.142632 30082 net.cpp:323] The NetState phase (0) differed from the phase (1) specified by a rule in layer intercept
I0502 12:07:12.142647 30082 net.cpp:323] The NetState phase (0) differed from the phase (1) specified by a rule in layer loss
I0502 12:07:12.142724 30082 net.cpp:52] Initializing net from parameters: 
state {
  phase: TRAIN
}
layer {
  name: "parameters"
  type: "HDF5Data"
  top: "data"
  top: "label"
  include {
    phase: TRAIN
  }
  hdf5_data_param {
    source: "/home/purduethu/scratch/radon/d/deng106/CNNStatisticalModel/distributions/input/5_distributions_900_sample_size_train-parameters-path.txt"
    batch_size: 20
  }
}
layer {
  name: "conv1"
  type: "Convolution"
  bottom: "data"
  top: "conv1"
  param {
    lr_mult: 1
  }
  param {
    lr_mult: 2
  }
  convolution_param {
    num_output: 64
    pad: 2
    kernel_size: 5
    stride: 1
    weight_filler {
      type: "gaussian"
      std: 0.0001
    }
    bias_filler {
      type: "constant"
    }
  }
}
layer {
  name: "relu1"
  type: "ReLU"
  bottom: "conv1"
  top: "conv1"
}
layer {
  name: "conv2"
  type: "Convolution"
  bottom: "conv1"
  top: "conv2"
  param {
    lr_mult: 1
  }
  param {
    lr_mult: 2
  }
  convolution_param {
    num_output: 64
    pad: 2
    kernel_size: 5
    stride: 1
    weight_filler {
      type: "gaussian"
      std: 0.01
    }
    bias_filler {
      type: "constant"
    }
  }
}
layer {
  name: "relu2"
  type: "ReLU"
  bottom: "conv2"
  top: "conv2"
}
layer {
  name: "pool2"
  type: "Pooling"
  bottom: "conv2"
  top: "pool2"
  pooling_param {
    pool: MAX
    kernel_size: 3
    stride: 2
  }
}
layer {
  name: "conv3"
  type: "Convolution"
  bottom: "pool2"
  top: "conv3"
  param {
    lr_mult: 1
  }
  param {
    lr_mult: 2
  }
  convolution_param {
    num_output: 64
    pad: 2
    kernel_size: 5
    stride: 1
    weight_filler {
      type: "gaussian"
      std: 0.01
    }
    bias_filler {
      type: "constant"
    }
  }
}
layer {
  name: "relu3"
  type: "ReLU"
  bottom: "conv3"
  top: "conv3"
}
layer {
  name: "conv4"
  type: "Convolution"
  bottom: "conv3"
  top: "conv4"
  param {
    lr_mult: 1
  }
  param {
    lr_mult: 2
  }
  convolution_param {
    num_output: 64
    pad: 2
    kernel_size: 5
    stride: 1
    weight_filler {
      type: "gaussian"
      std: 0.01
    }
    bias_filler {
      type: "constant"
    }
  }
}
layer {
  name: "relu4"
  type: "ReLU"
  bottom: "conv4"
  top: "conv4"
}
layer {
  name: "conv5"
  type: "Convolution"
  bottom: "conv4"
  top: "conv5"
  param {
    lr_mult: 1
  }
  param {
    lr_mult: 2
  }
  convolution_param {
    num_output: 64
    pad: 2
    kernel_size: 5
    stride: 1
    weight_filler {
      type: "gaussian"
      std: 0.01
    }
    bias_filler {
      type: "constant"
    }
  }
}
layer {
  name: "relu5"
  type: "ReLU"
  bottom: "conv5"
  top: "conv5"
}
layer {
  name: "pool5"
  type: "Pooling"
  bottom: "conv5"
  top: "pool5"
  pooling_param {
    pool: AVE
    kernel_size: 3
    stride: 2
  }
}
layer {
  name: "ip1"
  type: "InnerProduct"
  bottom: "pool5"
  top: "ip1"
  param {
    lr_mult: 1
  }
  param {
    lr_mult: 2
  }
  inner_product_param {
    num_output: 64
    weight_filler {
      type: "gaussian"
      std: 0.1
    }
    bias_filler {
      type: "constant"
    }
  }
}
layer {
  name: "ip2"
  type: "InnerProduct"
  bottom: "ip1"
  top: "ip2"
  param {
    lr_mult: 1
  }
  param {
    lr_mult: 2
  }
  inner_product_param {
    num_output: 64
    weight_filler {
      type: "gaussian"
      std: 0.1
    }
    bias_filler {
      type: "constant"
    }
  }
}
layer {
  name: "ip3"
  type: "InnerProduct"
  bottom: "ip2"
  top: "ip3"
  param {
    lr_mult: 1
  }
  param {
    lr_mult: 2
  }
  inner_product_param {
    num_output: 1
    weight_filler {
      type: "gaussian"
      std: 0.1
    }
    bias_filler {
      type: "constant"
    }
  }
}
layer {
  name: "loss"
  type: "HuberLoss"
  bottom: "ip3"
  bottom: "label"
  top: "loss"
  include {
    phase: TRAIN
  }
}
I0502 12:07:12.142781 30082 layer_factory.hpp:77] Creating layer parameters
I0502 12:07:12.142792 30082 net.cpp:94] Creating Layer parameters
I0502 12:07:12.142796 30082 net.cpp:409] parameters -> data
I0502 12:07:12.142805 30082 net.cpp:409] parameters -> label
I0502 12:07:12.142815 30082 hdf5_data_layer.cpp:79] Loading list of HDF5 filenames from: /home/purduethu/scratch/radon/d/deng106/CNNStatisticalModel/distributions/input/5_distributions_900_sample_size_train-parameters-path.txt
I0502 12:07:12.142829 30082 hdf5_data_layer.cpp:93] Number of HDF5 files: 1
I0502 12:07:12.143394 30082 hdf5.cpp:32] Datatype class: H5T_FLOAT
I0502 12:07:12.285750 30082 net.cpp:144] Setting up parameters
I0502 12:07:12.285779 30082 net.cpp:151] Top shape: 20 1 30 30 (18000)
I0502 12:07:12.285784 30082 net.cpp:151] Top shape: 20 (20)
I0502 12:07:12.285787 30082 net.cpp:159] Memory required for data: 72080
I0502 12:07:12.285794 30082 layer_factory.hpp:77] Creating layer conv1
I0502 12:07:12.285809 30082 net.cpp:94] Creating Layer conv1
I0502 12:07:12.285815 30082 net.cpp:435] conv1 <- data
I0502 12:07:12.285820 30082 net.cpp:409] conv1 -> conv1
I0502 12:07:12.292397 30082 net.cpp:144] Setting up conv1
I0502 12:07:12.292414 30082 net.cpp:151] Top shape: 20 64 30 30 (1152000)
I0502 12:07:12.292418 30082 net.cpp:159] Memory required for data: 4680080
I0502 12:07:12.292428 30082 layer_factory.hpp:77] Creating layer relu1
I0502 12:07:12.292436 30082 net.cpp:94] Creating Layer relu1
I0502 12:07:12.292440 30082 net.cpp:435] relu1 <- conv1
I0502 12:07:12.292444 30082 net.cpp:396] relu1 -> conv1 (in-place)
I0502 12:07:12.292455 30082 net.cpp:144] Setting up relu1
I0502 12:07:12.292460 30082 net.cpp:151] Top shape: 20 64 30 30 (1152000)
I0502 12:07:12.292464 30082 net.cpp:159] Memory required for data: 9288080
I0502 12:07:12.292466 30082 layer_factory.hpp:77] Creating layer conv2
I0502 12:07:12.292474 30082 net.cpp:94] Creating Layer conv2
I0502 12:07:12.292476 30082 net.cpp:435] conv2 <- conv1
I0502 12:07:12.292481 30082 net.cpp:409] conv2 -> conv2
I0502 12:07:12.307953 30082 net.cpp:144] Setting up conv2
I0502 12:07:12.307981 30082 net.cpp:151] Top shape: 20 64 30 30 (1152000)
I0502 12:07:12.307987 30082 net.cpp:159] Memory required for data: 13896080
I0502 12:07:12.308001 30082 layer_factory.hpp:77] Creating layer relu2
I0502 12:07:12.308013 30082 net.cpp:94] Creating Layer relu2
I0502 12:07:12.308020 30082 net.cpp:435] relu2 <- conv2
I0502 12:07:12.308029 30082 net.cpp:396] relu2 -> conv2 (in-place)
I0502 12:07:12.308043 30082 net.cpp:144] Setting up relu2
I0502 12:07:12.308050 30082 net.cpp:151] Top shape: 20 64 30 30 (1152000)
I0502 12:07:12.308056 30082 net.cpp:159] Memory required for data: 18504080
I0502 12:07:12.308061 30082 layer_factory.hpp:77] Creating layer pool2
I0502 12:07:12.308079 30082 net.cpp:94] Creating Layer pool2
I0502 12:07:12.308086 30082 net.cpp:435] pool2 <- conv2
I0502 12:07:12.308094 30082 net.cpp:409] pool2 -> pool2
I0502 12:07:12.308172 30082 net.cpp:144] Setting up pool2
I0502 12:07:12.308179 30082 net.cpp:151] Top shape: 20 64 15 15 (288000)
I0502 12:07:12.308182 30082 net.cpp:159] Memory required for data: 19656080
I0502 12:07:12.308187 30082 layer_factory.hpp:77] Creating layer conv3
I0502 12:07:12.308193 30082 net.cpp:94] Creating Layer conv3
I0502 12:07:12.308197 30082 net.cpp:435] conv3 <- pool2
I0502 12:07:12.308202 30082 net.cpp:409] conv3 -> conv3
I0502 12:07:12.316941 30082 net.cpp:144] Setting up conv3
I0502 12:07:12.316957 30082 net.cpp:151] Top shape: 20 64 15 15 (288000)
I0502 12:07:12.316962 30082 net.cpp:159] Memory required for data: 20808080
I0502 12:07:12.316970 30082 layer_factory.hpp:77] Creating layer relu3
I0502 12:07:12.316977 30082 net.cpp:94] Creating Layer relu3
I0502 12:07:12.316980 30082 net.cpp:435] relu3 <- conv3
I0502 12:07:12.316985 30082 net.cpp:396] relu3 -> conv3 (in-place)
I0502 12:07:12.316992 30082 net.cpp:144] Setting up relu3
I0502 12:07:12.316998 30082 net.cpp:151] Top shape: 20 64 15 15 (288000)
I0502 12:07:12.317000 30082 net.cpp:159] Memory required for data: 21960080
I0502 12:07:12.317003 30082 layer_factory.hpp:77] Creating layer conv4
I0502 12:07:12.317013 30082 net.cpp:94] Creating Layer conv4
I0502 12:07:12.317015 30082 net.cpp:435] conv4 <- conv3
I0502 12:07:12.317021 30082 net.cpp:409] conv4 -> conv4
I0502 12:07:12.324671 30082 net.cpp:144] Setting up conv4
I0502 12:07:12.324687 30082 net.cpp:151] Top shape: 20 64 15 15 (288000)
I0502 12:07:12.324690 30082 net.cpp:159] Memory required for data: 23112080
I0502 12:07:12.324697 30082 layer_factory.hpp:77] Creating layer relu4
I0502 12:07:12.324703 30082 net.cpp:94] Creating Layer relu4
I0502 12:07:12.324707 30082 net.cpp:435] relu4 <- conv4
I0502 12:07:12.324712 30082 net.cpp:396] relu4 -> conv4 (in-place)
I0502 12:07:12.324719 30082 net.cpp:144] Setting up relu4
I0502 12:07:12.324724 30082 net.cpp:151] Top shape: 20 64 15 15 (288000)
I0502 12:07:12.324726 30082 net.cpp:159] Memory required for data: 24264080
I0502 12:07:12.324729 30082 layer_factory.hpp:77] Creating layer conv5
I0502 12:07:12.324738 30082 net.cpp:94] Creating Layer conv5
I0502 12:07:12.324741 30082 net.cpp:435] conv5 <- conv4
I0502 12:07:12.324746 30082 net.cpp:409] conv5 -> conv5
I0502 12:07:12.332345 30082 net.cpp:144] Setting up conv5
I0502 12:07:12.332360 30082 net.cpp:151] Top shape: 20 64 15 15 (288000)
I0502 12:07:12.332365 30082 net.cpp:159] Memory required for data: 25416080
I0502 12:07:12.332373 30082 layer_factory.hpp:77] Creating layer relu5
I0502 12:07:12.332379 30082 net.cpp:94] Creating Layer relu5
I0502 12:07:12.332382 30082 net.cpp:435] relu5 <- conv5
I0502 12:07:12.332387 30082 net.cpp:396] relu5 -> conv5 (in-place)
I0502 12:07:12.332394 30082 net.cpp:144] Setting up relu5
I0502 12:07:12.332398 30082 net.cpp:151] Top shape: 20 64 15 15 (288000)
I0502 12:07:12.332401 30082 net.cpp:159] Memory required for data: 26568080
I0502 12:07:12.332404 30082 layer_factory.hpp:77] Creating layer pool5
I0502 12:07:12.332411 30082 net.cpp:94] Creating Layer pool5
I0502 12:07:12.332413 30082 net.cpp:435] pool5 <- conv5
I0502 12:07:12.332418 30082 net.cpp:409] pool5 -> pool5
I0502 12:07:12.332463 30082 net.cpp:144] Setting up pool5
I0502 12:07:12.332471 30082 net.cpp:151] Top shape: 20 64 7 7 (62720)
I0502 12:07:12.332474 30082 net.cpp:159] Memory required for data: 26818960
I0502 12:07:12.332478 30082 layer_factory.hpp:77] Creating layer ip1
I0502 12:07:12.332484 30082 net.cpp:94] Creating Layer ip1
I0502 12:07:12.332487 30082 net.cpp:435] ip1 <- pool5
I0502 12:07:12.332496 30082 net.cpp:409] ip1 -> ip1
I0502 12:07:12.338574 30082 net.cpp:144] Setting up ip1
I0502 12:07:12.338589 30082 net.cpp:151] Top shape: 20 64 (1280)
I0502 12:07:12.338593 30082 net.cpp:159] Memory required for data: 26824080
I0502 12:07:12.338599 30082 layer_factory.hpp:77] Creating layer ip2
I0502 12:07:12.338605 30082 net.cpp:94] Creating Layer ip2
I0502 12:07:12.338614 30082 net.cpp:435] ip2 <- ip1
I0502 12:07:12.338620 30082 net.cpp:409] ip2 -> ip2
I0502 12:07:12.338863 30082 net.cpp:144] Setting up ip2
I0502 12:07:12.338872 30082 net.cpp:151] Top shape: 20 64 (1280)
I0502 12:07:12.338876 30082 net.cpp:159] Memory required for data: 26829200
I0502 12:07:12.338881 30082 layer_factory.hpp:77] Creating layer ip3
I0502 12:07:12.338886 30082 net.cpp:94] Creating Layer ip3
I0502 12:07:12.338889 30082 net.cpp:435] ip3 <- ip2
I0502 12:07:12.338894 30082 net.cpp:409] ip3 -> ip3
I0502 12:07:12.339021 30082 net.cpp:144] Setting up ip3
I0502 12:07:12.339030 30082 net.cpp:151] Top shape: 20 1 (20)
I0502 12:07:12.339032 30082 net.cpp:159] Memory required for data: 26829280
I0502 12:07:12.339037 30082 layer_factory.hpp:77] Creating layer loss
I0502 12:07:12.339049 30082 net.cpp:94] Creating Layer loss
I0502 12:07:12.339053 30082 net.cpp:435] loss <- ip3
I0502 12:07:12.339056 30082 net.cpp:435] loss <- label
I0502 12:07:12.339061 30082 net.cpp:409] loss -> loss
I0502 12:07:12.339121 30082 net.cpp:144] Setting up loss
…
I0502 12:07:12.408571 30082 net.cpp:323] The NetState phase (0) differed from the phase (1) specified by a rule in layer intercept
I0502 12:07:12.408589 30082 net.cpp:323] The NetState phase (0) differed from the phase (1) specified by a rule in layer accuracy
I0502 12:07:12.408681 30082 net.cpp:52] Initializing net from parameters: 
state {
  phase: TRAIN
}
layer {
  name: "parameters"
  type: "HDF5Data"
  top: "data"
  top: "label"
  include {
    phase: TRAIN
  }
  hdf5_data_param {
    source: "/home/purduethu/scratch/radon/d/deng106/CNNStatisticalModel/distributions/input/5_distributions_900_sample_size_train-distributions-path.txt"
    batch_size: 20
  }
}
layer {
  name: "conv1"
  type: "Convolution"
  bottom: "data"
  top: "conv1"
  param {
    lr_mult: 1
  }
  param {
    lr_mult: 2
  }
  convolution_param {
    num_output: 64
    pad: 2
    kernel_size: 5
    stride: 1
    weight_filler {
      type: "gaussian"
      std: 0.0001
    }
    bias_filler {
      type: "constant"
    }
  }
}
layer {
  name: "relu1"
  type: "ReLU"
  bottom: "conv1"
  top: "conv1"
}
layer {
  name: "conv2"
  type: "Convolution"
  bottom: "conv1"
  top: "conv2"
  param {
    lr_mult: 1
  }
  param {
    lr_mult: 2
  }
  convolution_param {
    num_output: 64
    pad: 2
    kernel_size: 5
    stride: 1
    weight_filler {
      type: "gaussian"
      std: 0.01
    }
    bias_filler {
      type: "constant"
    }
  }
}
layer {
  name: "relu2"
  type: "ReLU"
  bottom: "conv2"
  top: "conv2"
}
layer {
  name: "pool2"
  type: "Pooling"
  bottom: "conv2"
  top: "pool2"
  pooling_param {
    pool: MAX
    kernel_size: 3
    stride: 2
  }
}
layer {
  name: "conv3"
  type: "Convolution"
  bottom: "pool2"
  top: "conv3"
  param {
    lr_mult: 1
  }
  param {
    lr_mult: 2
  }
  convolution_param {
    num_output: 64
    pad: 2
    kernel_size: 5
    stride: 1
    weight_filler {
      type: "gaussian"
      std: 0.01
    }
    bias_filler {
      type: "constant"
    }
  }
}
layer {
  name: "relu3"
  type: "ReLU"
  bottom: "conv3"
  top: "conv3"
}
layer {
  name: "conv4"
  type: "Convolution"
  bottom: "conv3"
  top: "conv4"
  param {
    lr_mult: 1
  }
  param {
    lr_mult: 2
  }
  convolution_param {
    num_output: 64
    pad: 2
    kernel_size: 5
    stride: 1
    weight_filler {
      type: "gaussian"
      std: 0.01
    }
    bias_filler {
      type: "constant"
    }
  }
}
layer {
  name: "relu4"
  type: "ReLU"
  bottom: "conv4"
  top: "conv4"
}
layer {
  name: "conv5"
  type: "Convolution"
  bottom: "conv4"
  top: "conv5"
  param {
    lr_mult: 1
  }
  param {
    lr_mult: 2
  }
  convolution_param {
    num_output: 64
    pad: 2
    kernel_size: 5
    stride: 1
    weight_filler {
      type: "gaussian"
      std: 0.01
    }
    bias_filler {
      type: "constant"
    }
  }
}
layer {
  name: "relu5"
  type: "ReLU"
  bottom: "conv5"
  top: "conv5"
}
layer {
  name: "pool5"
  type: "Pooling"
  bottom: "conv5"
  top: "pool5"
  pooling_param {
    pool: AVE
    kernel_size: 3
    stride: 2
  }
}
layer {
  name: "ip1"
  type: "InnerProduct"
  bottom: "pool5"
  top: "ip1"
  param {
    lr_mult: 1
  }
  param {
    lr_mult: 2
  }
  inner_product_param {
    num_output: 64
    weight_filler {
      type: "gaussian"
      std: 0.1
    }
    bias_filler {
      type: "constant"
    }
  }
}
layer {
  name: "ip2"
  type: "InnerProduct"
  bottom: "ip1"
  top: "ip2"
  param {
    lr_mult: 1
  }
  param {
    lr_mult: 2
  }
  inner_product_param {
    num_output: 64
    weight_filler {
      type: "gaussian"
      std: 0.1
    }
    bias_filler {
      type: "constant"
    }
  }
}
layer {
  name: "ip3"
  type: "InnerProduct"
  bottom: "ip2"
  top: "ip3"
  param {
    lr_mult: 1
  }
  param {
    lr_mult: 2
  }
  inner_product_param {
    num_output: 50
    weight_filler {
      type: "gaussian"
      std: 0.1
    }
    bias_filler {
      type: "constant"
    }
  }
}
layer {
  name: "loss"
  type: "SoftmaxWithLoss"
  bottom: "ip3"
  bottom: "label"
  top: "loss"
}
I0502 12:07:12.408732 30082 layer_factory.hpp:77] Creating layer parameters
I0502 12:07:12.408741 30082 net.cpp:94] Creating Layer parameters
I0502 12:07:12.408745 30082 net.cpp:409] parameters -> data
I0502 12:07:12.408751 30082 net.cpp:409] parameters -> label
I0502 12:07:12.408757 30082 hdf5_data_layer.cpp:79] Loading list of HDF5 filenames from: /home/purduethu/scratch/radon/d/deng106/CNNStatisticalModel/distributions/input/5_distributions_900_sample_size_train-distributions-path.txt
I0502 12:07:12.408773 30082 hdf5_data_layer.cpp:93] Number of HDF5 files: 1
I0502 12:07:12.547878 30082 hdf5.cpp:35] Datatype class: H5T_INTEGER
I0502 12:07:12.548331 30082 net.cpp:144] Setting up parameters
I0502 12:07:12.548346 30082 net.cpp:151] Top shape: 20 1 30 30 (18000)
I0502 12:07:12.548351 30082 net.cpp:151] Top shape: 20 (20)
I0502 12:07:12.548353 30082 net.cpp:159] Memory required for data: 72080
I0502 12:07:12.548359 30082 layer_factory.hpp:77] Creating layer conv1
I0502 12:07:12.548375 30082 net.cpp:94] Creating Layer conv1
I0502 12:07:12.548379 30082 net.cpp:435] conv1 <- data
I0502 12:07:12.548387 30082 net.cpp:409] conv1 -> conv1
I0502 12:07:12.551829 30082 net.cpp:144] Setting up conv1
I0502 12:07:12.551844 30082 net.cpp:151] Top shape: 20 64 30 30 (1152000)
I0502 12:07:12.551848 30082 net.cpp:159] Memory required for data: 4680080
I0502 12:07:12.551858 30082 layer_factory.hpp:77] Creating layer relu1
I0502 12:07:12.551865 30082 net.cpp:94] Creating Layer relu1
I0502 12:07:12.551869 30082 net.cpp:435] relu1 <- conv1
I0502 12:07:12.551873 30082 net.cpp:396] relu1 -> conv1 (in-place)
I0502 12:07:12.551882 30082 net.cpp:144] Setting up relu1
I0502 12:07:12.551885 30082 net.cpp:151] Top shape: 20 64 30 30 (1152000)
I0502 12:07:12.551888 30082 net.cpp:159] Memory required for data: 9288080
I0502 12:07:12.551890 30082 layer_factory.hpp:77] Creating layer conv2
I0502 12:07:12.551898 30082 net.cpp:94] Creating Layer conv2
I0502 12:07:12.551901 30082 net.cpp:435] conv2 <- conv1
I0502 12:07:12.551906 30082 net.cpp:409] conv2 -> conv2
I0502 12:07:12.566473 30082 net.cpp:144] Setting up conv2
I0502 12:07:12.566488 30082 net.cpp:151] Top shape: 20 64 30 30 (1152000)
I0502 12:07:12.566491 30082 net.cpp:159] Memory required for data: 13896080
I0502 12:07:12.566499 30082 layer_factory.hpp:77] Creating layer relu2
I0502 12:07:12.566506 30082 net.cpp:94] Creating Layer relu2
I0502 12:07:12.566509 30082 net.cpp:435] relu2 <- conv2
I0502 12:07:12.566514 30082 net.cpp:396] relu2 -> conv2 (in-place)
I0502 12:07:12.566520 30082 net.cpp:144] Setting up relu2
I0502 12:07:12.566525 30082 net.cpp:151] Top shape: 20 64 30 30 (1152000)
I0502 12:07:12.566527 30082 net.cpp:159] Memory required for data: 18504080
I0502 12:07:12.566530 30082 layer_factory.hpp:77] Creating layer pool2
I0502 12:07:12.566536 30082 net.cpp:94] Creating Layer pool2
I0502 12:07:12.566540 30082 net.cpp:435] pool2 <- conv2
I0502 12:07:12.566543 30082 net.cpp:409] pool2 -> pool2
I0502 12:07:12.566599 30082 net.cpp:144] Setting up pool2
I0502 12:07:12.566607 30082 net.cpp:151] Top shape: 20 64 15 15 (288000)
I0502 12:07:12.566611 30082 net.cpp:159] Memory required for data: 19656080
I0502 12:07:12.566613 30082 layer_factory.hpp:77] Creating layer conv3
I0502 12:07:12.566620 30082 net.cpp:94] Creating Layer conv3
I0502 12:07:12.566623 30082 net.cpp:435] conv3 <- pool2
I0502 12:07:12.566634 30082 net.cpp:409] conv3 -> conv3
I0502 12:07:12.575100 30082 net.cpp:144] Setting up conv3
I0502 12:07:12.575114 30082 net.cpp:151] Top shape: 20 64 15 15 (288000)
I0502 12:07:12.575119 30082 net.cpp:159] Memory required for data: 20808080
I0502 12:07:12.575126 30082 layer_factory.hpp:77] Creating layer relu3
I0502 12:07:12.575132 30082 net.cpp:94] Creating Layer relu3
I0502 12:07:12.575135 30082 net.cpp:435] relu3 <- conv3
I0502 12:07:12.575140 30082 net.cpp:396] relu3 -> conv3 (in-place)
I0502 12:07:12.575147 30082 net.cpp:144] Setting up relu3
I0502 12:07:12.575151 30082 net.cpp:151] Top shape: 20 64 15 15 (288000)
I0502 12:07:12.575153 30082 net.cpp:159] Memory required for data: 21960080
I0502 12:07:12.575156 30082 layer_factory.hpp:77] Creating layer conv4
I0502 12:07:12.575165 30082 net.cpp:94] Creating Layer conv4
I0502 12:07:12.575168 30082 net.cpp:435] conv4 <- conv3
I0502 12:07:12.575172 30082 net.cpp:409] conv4 -> conv4
I0502 12:07:12.582628 30082 net.cpp:144] Setting up conv4
I0502 12:07:12.582654 30082 net.cpp:151] Top shape: 20 64 15 15 (288000)
I0502 12:07:12.582661 30082 net.cpp:159] Memory required for data: 23112080
I0502 12:07:12.582674 30082 layer_factory.hpp:77] Creating layer relu4
I0502 12:07:12.582684 30082 net.cpp:94] Creating Layer relu4
I0502 12:07:12.582690 30082 net.cpp:435] relu4 <- conv4
I0502 12:07:12.582700 30082 net.cpp:396] relu4 -> conv4 (in-place)
I0502 12:07:12.582712 30082 net.cpp:144] Setting up relu4
I0502 12:07:12.582720 30082 net.cpp:151] Top shape: 20 64 15 15 (288000)
I0502 12:07:12.582726 30082 net.cpp:159] Memory required for data: 24264080
I0502 12:07:12.582731 30082 layer_factory.hpp:77] Creating layer conv5
I0502 12:07:12.582746 30082 net.cpp:94] Creating Layer conv5
I0502 12:07:12.582751 30082 net.cpp:435] conv5 <- conv4
I0502 12:07:12.582761 30082 net.cpp:409] conv5 -> conv5
I0502 12:07:12.591085 30082 net.cpp:144] Setting up conv5
I0502 12:07:12.591101 30082 net.cpp:151] Top shape: 20 64 15 15 (288000)
I0502 12:07:12.591104 30082 net.cpp:159] Memory required for data: 25416080
I0502 12:07:12.591114 30082 layer_factory.hpp:77] Creating layer relu5
I0502 12:07:12.591120 30082 net.cpp:94] Creating Layer relu5
I0502 12:07:12.591123 30082 net.cpp:435] relu5 <- conv5
I0502 12:07:12.591127 30082 net.cpp:396] relu5 -> conv5 (in-place)
I0502 12:07:12.591135 30082 net.cpp:144] Setting up relu5
I0502 12:07:12.591138 30082 net.cpp:151] Top shape: 20 64 15 15 (288000)
I0502 12:07:12.591141 30082 net.cpp:159] Memory required for data: 26568080
I0502 12:07:12.591145 30082 layer_factory.hpp:77] Creating layer pool5
I0502 12:07:12.591150 30082 net.cpp:94] Creating Layer pool5
I0502 12:07:12.591152 30082 net.cpp:435] pool5 <- conv5
I0502 12:07:12.591156 30082 net.cpp:409] pool5 -> pool5
I0502 12:07:12.591200 30082 net.cpp:144] Setting up pool5
I0502 12:07:12.591207 30082 net.cpp:151] Top shape: 20 64 7 7 (62720)
I0502 12:07:12.591210 30082 net.cpp:159] Memory required for data: 26818960
I0502 12:07:12.591213 30082 layer_factory.hpp:77] Creating layer ip1
I0502 12:07:12.591222 30082 net.cpp:94] Creating Layer ip1
I0502 12:07:12.591224 30082 net.cpp:435] ip1 <- pool5
I0502 12:07:12.591228 30082 net.cpp:409] ip1 -> ip1
I0502 12:07:12.596118 30082 net.cpp:144] Setting up ip1
I0502 12:07:12.596128 30082 net.cpp:151] Top shape: 20 64 (1280)
I0502 12:07:12.596132 30082 net.cpp:159] Memory required for data: 26824080
I0502 12:07:12.596137 30082 layer_factory.hpp:77] Creating layer ip2
I0502 12:07:12.596143 30082 net.cpp:94] Creating Layer ip2
I0502 12:07:12.596146 30082 net.cpp:435] ip2 <- ip1
I0502 12:07:12.596151 30082 net.cpp:409] ip2 -> ip2
I0502 12:07:12.596391 30082 net.cpp:144] Setting up ip2
I0502 12:07:12.596400 30082 net.cpp:151] Top shape: 20 64 (1280)
I0502 12:07:12.596402 30082 net.cpp:159] Memory required for data: 26829200
I0502 12:07:12.596407 30082 layer_factory.hpp:77] Creating layer ip3
I0502 12:07:12.596413 30082 net.cpp:94] Creating Layer ip3
I0502 12:07:12.596416 30082 net.cpp:435] ip3 <- ip2
I0502 12:07:12.596424 30082 net.cpp:409] ip3 -> ip3
I0502 12:07:12.596649 30082 net.cpp:144] Setting up ip3
I0502 12:07:12.596658 30082 net.cpp:151] Top shape: 20 50 (1000)
I0502 12:07:12.596662 30082 net.cpp:159] Memory required for data: 26833200
I0502 12:07:12.596667 30082 layer_factory.hpp:77] Creating layer loss
I0502 12:07:12.596675 30082 net.cpp:94] Creating Layer loss
I0502 12:07:12.596678 30082 net.cpp:435] loss <- ip3
I0502 12:07:12.596683 30082 net.cpp:435] loss <- label
I0502 12:07:12.596686 30082 net.cpp:409] loss -> loss
I0502 12:07:12.596694 30082 layer_factory.hpp:77] Creating layer loss
…
I0502 12:07:12.597229 30082 solver.cpp:181] Creating test net (#0) specified by net file: ./protocol/dis_5_900_dimension.protocol_distribution
I0502 12:07:12.597255 30082 net.cpp:323] The NetState phase (1) differed from the phase (0) specified by a rule in layer parameters
I0502 12:07:12.597350 30082 net.cpp:52] Initializing net from parameters: 
state {
  phase: TEST
}
layer {
  name: "intercept"
  type: "HDF5Data"
  top: "data"
  top: "label"
  include {
    phase: TEST
  }
  hdf5_data_param {
    source: "/home/purduethu/scratch/radon/d/deng106/CNNStatisticalModel/distributions/input/5_distributions_900_sample_size_test-distributions-path.txt"
    batch_size: 20
  }
}
layer {
  name: "conv1"
  type: "Convolution"
  bottom: "data"
  top: "conv1"
  param {
    lr_mult: 1
  }
  param {
    lr_mult: 2
  }
  convolution_param {
    num_output: 64
    pad: 2
    kernel_size: 5
    stride: 1
    weight_filler {
      type: "gaussian"
      std: 0.0001
    }
    bias_filler {
      type: "constant"
    }
  }
}
layer {
  name: "relu1"
  type: "ReLU"
  bottom: "conv1"
  top: "conv1"
}
layer {
  name: "conv2"
  type: "Convolution"
  bottom: "conv1"
  top: "conv2"
  param {
    lr_mult: 1
  }
  param {
    lr_mult: 2
  }
  convolution_param {
    num_output: 64
    pad: 2
    kernel_size: 5
    stride: 1
    weight_filler {
      type: "gaussian"
      std: 0.01
    }
    bias_filler {
      type: "constant"
    }
  }
}
layer {
  name: "relu2"
  type: "ReLU"
  bottom: "conv2"
  top: "conv2"
}
layer {
  name: "pool2"
  type: "Pooling"
  bottom: "conv2"
  top: "pool2"
  pooling_param {
    pool: MAX
    kernel_size: 3
    stride: 2
  }
}
layer {
  name: "conv3"
  type: "Convolution"
  bottom: "pool2"
  top: "conv3"
  param {
    lr_mult: 1
  }
  param {
    lr_mult: 2
  }
  convolution_param {
    num_output: 64
    pad: 2
    kernel_size: 5
    stride: 1
    weight_filler {
      type: "gaussian"
      std: 0.01
    }
    bias_filler {
      type: "constant"
    }
  }
}
layer {
  name: "relu3"
  type: "ReLU"
  bottom: "conv3"
  top: "conv3"
}
layer {
  name: "conv4"
  type: "Convolution"
  bottom: "conv3"
  top: "conv4"
  param {
    lr_mult: 1
  }
  param {
    lr_mult: 2
  }
  convolution_param {
    num_output: 64
    pad: 2
    kernel_size: 5
    stride: 1
    weight_filler {
      type: "gaussian"
      std: 0.01
    }
    bias_filler {
      type: "constant"
    }
  }
}
layer {
  name: "relu4"
  type: "ReLU"
  bottom: "conv4"
  top: "conv4"
}
layer {
  name: "conv5"
  type: "Convolution"
  bottom: "conv4"
  top: "conv5"
  param {
    lr_mult: 1
  }
  param {
    lr_mult: 2
  }
  convolution_param {
    num_output: 64
    pad: 2
    kernel_size: 5
    stride: 1
    weight_filler {
      type: "gaussian"
      std: 0.01
    }
    bias_filler {
      type: "constant"
    }
  }
}
layer {
  name: "relu5"
  type: "ReLU"
  bottom: "conv5"
  top: "conv5"
}
layer {
  name: "pool5"
  type: "Pooling"
  bottom: "conv5"
  top: "pool5"
  pooling_param {
    pool: AVE
    kernel_size: 3
    stride: 2
  }
}
layer {
  name: "ip1"
  type: "InnerProduct"
  bottom: "pool5"
  top: "ip1"
  param {
    lr_mult: 1
  }
  param {
    lr_mult: 2
  }
  inner_product_param {
    num_output: 64
    weight_filler {
      type: "gaussian"
      std: 0.1
    }
    bias_filler {
      type: "constant"
    }
  }
}
layer {
  name: "ip2"
  type: "InnerProduct"
  bottom: "ip1"
  top: "ip2"
  param {
    lr_mult: 1
  }
  param {
    lr_mult: 2
  }
  inner_product_param {
    num_output: 64
    weight_filler {
      type: "gaussian"
      std: 0.1
    }
    bias_filler {
      type: "constant"
    }
  }
}
layer {
  name: "ip3"
  type: "InnerProduct"
  bottom: "ip2"
  top: "ip3"
  param {
    lr_mult: 1
  }
  param {
    lr_mult: 2
  }
  inner_product_param {
    num_output: 50
    weight_filler {
      type: "gaussian"
      std: 0.1
    }
    bias_filler {
      type: "constant"
    }
  }
}
layer {
  name: "accuracy"
  type: "Accuracy"
  bottom: "ip3"
  bottom: "label"
  top: "accuracy"
  include {
    phase: TEST
  }
}
layer {
  name: "loss"
  type: "SoftmaxWithLoss"
  bottom: "ip3"
  bottom: "label"
  top: "loss"
}
I0502 12:07:12.597419 30082 layer_factory.hpp:77] Creating layer intercept
I0502 12:07:12.597429 30082 net.cpp:94] Creating Layer intercept
I0502 12:07:12.597431 30082 net.cpp:409] intercept -> data
I0502 12:07:12.597439 30082 net.cpp:409] intercept -> label
I0502 12:07:12.597445 30082 hdf5_data_layer.cpp:79] Loading list of HDF5 filenames from: /home/purduethu/scratch/radon/d/deng106/CNNStatisticalModel/distributions/input/5_distributions_900_sample_size_test-distributions-path.txt
I0502 12:07:12.597462 30082 hdf5_data_layer.cpp:93] Number of HDF5 files: 1
I0502 12:07:12.633724 30082 net.cpp:144] Setting up intercept
I0502 12:07:12.633759 30082 net.cpp:151] Top shape: 20 1 30 30 (18000)
I0502 12:07:12.633764 30082 net.cpp:151] Top shape: 20 (20)
I0502 12:07:12.633766 30082 net.cpp:159] Memory required for data: 72080
I0502 12:07:12.633772 30082 layer_factory.hpp:77] Creating layer label_intercept_1_split
I0502 12:07:12.633790 30082 net.cpp:94] Creating Layer label_intercept_1_split
I0502 12:07:12.633795 30082 net.cpp:435] label_intercept_1_split <- label
I0502 12:07:12.633800 30082 net.cpp:409] label_intercept_1_split -> label_intercept_1_split_0
I0502 12:07:12.633808 30082 net.cpp:409] label_intercept_1_split -> label_intercept_1_split_1
I0502 12:07:12.633852 30082 net.cpp:144] Setting up label_intercept_1_split
I0502 12:07:12.633858 30082 net.cpp:151] Top shape: 20 (20)
I0502 12:07:12.633862 30082 net.cpp:151] Top shape: 20 (20)
I0502 12:07:12.633864 30082 net.cpp:159] Memory required for data: 72240
I0502 12:07:12.633867 30082 layer_factory.hpp:77] Creating layer conv1
I0502 12:07:12.633878 30082 net.cpp:94] Creating Layer conv1
I0502 12:07:12.633882 30082 net.cpp:435] conv1 <- data
I0502 12:07:12.633885 30082 net.cpp:409] conv1 -> conv1
I0502 12:07:12.635406 30082 net.cpp:144] Setting up conv1
I0502 12:07:12.635426 30082 net.cpp:151] Top shape: 20 64 30 30 (1152000)
I0502 12:07:12.635431 30082 net.cpp:159] Memory required for data: 4680240
I0502 12:07:12.635439 30082 layer_factory.hpp:77] Creating layer relu1
I0502 12:07:12.635447 30082 net.cpp:94] Creating Layer relu1
I0502 12:07:12.635450 30082 net.cpp:435] relu1 <- conv1
I0502 12:07:12.635454 30082 net.cpp:396] relu1 -> conv1 (in-place)
I0502 12:07:12.635462 30082 net.cpp:144] Setting up relu1
I0502 12:07:12.635465 30082 net.cpp:151] Top shape: 20 64 30 30 (1152000)
I0502 12:07:12.635468 30082 net.cpp:159] Memory required for data: 9288240
I0502 12:07:12.635471 30082 layer_factory.hpp:77] Creating layer conv2
I0502 12:07:12.635479 30082 net.cpp:94] Creating Layer conv2
I0502 12:07:12.635483 30082 net.cpp:435] conv2 <- conv1
I0502 12:07:12.635488 30082 net.cpp:409] conv2 -> conv2
I0502 12:07:12.641827 30082 net.cpp:144] Setting up conv2
I0502 12:07:12.641842 30082 net.cpp:151] Top shape: 20 64 30 30 (1152000)
I0502 12:07:12.641846 30082 net.cpp:159] Memory required for data: 13896240
I0502 12:07:12.641855 30082 layer_factory.hpp:77] Creating layer relu2
I0502 12:07:12.641860 30082 net.cpp:94] Creating Layer relu2
I0502 12:07:12.641863 30082 net.cpp:435] relu2 <- conv2
I0502 12:07:12.641867 30082 net.cpp:396] relu2 -> conv2 (in-place)
I0502 12:07:12.641875 30082 net.cpp:144] Setting up relu2
I0502 12:07:12.641878 30082 net.cpp:151] Top shape: 20 64 30 30 (1152000)
I0502 12:07:12.641881 30082 net.cpp:159] Memory required for data: 18504240
I0502 12:07:12.641885 30082 layer_factory.hpp:77] Creating layer pool2
I0502 12:07:12.641890 30082 net.cpp:94] Creating Layer pool2
I0502 12:07:12.641892 30082 net.cpp:435] pool2 <- conv2
I0502 12:07:12.641896 30082 net.cpp:409] pool2 -> pool2
I0502 12:07:12.641954 30082 net.cpp:144] Setting up pool2
I0502 12:07:12.641962 30082 net.cpp:151] Top shape: 20 64 15 15 (288000)
I0502 12:07:12.641964 30082 net.cpp:159] Memory required for data: 19656240
I0502 12:07:12.641968 30082 layer_factory.hpp:77] Creating layer conv3
I0502 12:07:12.641975 30082 net.cpp:94] Creating Layer conv3
I0502 12:07:12.641978 30082 net.cpp:435] conv3 <- pool2
I0502 12:07:12.641983 30082 net.cpp:409] conv3 -> conv3
I0502 12:07:12.647042 30082 net.cpp:144] Setting up conv3
I0502 12:07:12.647056 30082 net.cpp:151] Top shape: 20 64 15 15 (288000)
I0502 12:07:12.647060 30082 net.cpp:159] Memory required for data: 20808240
I0502 12:07:12.647068 30082 layer_factory.hpp:77] Creating layer relu3
I0502 12:07:12.647075 30082 net.cpp:94] Creating Layer relu3
I0502 12:07:12.647078 30082 net.cpp:435] relu3 <- conv3
I0502 12:07:12.647083 30082 net.cpp:396] relu3 -> conv3 (in-place)
I0502 12:07:12.647090 30082 net.cpp:144] Setting up relu3
I0502 12:07:12.647094 30082 net.cpp:151] Top shape: 20 64 15 15 (288000)
I0502 12:07:12.647097 30082 net.cpp:159] Memory required for data: 21960240
I0502 12:07:12.647099 30082 layer_factory.hpp:77] Creating layer conv4
I0502 12:07:12.647107 30082 net.cpp:94] Creating Layer conv4
I0502 12:07:12.647110 30082 net.cpp:435] conv4 <- conv3
I0502 12:07:12.647114 30082 net.cpp:409] conv4 -> conv4
I0502 12:07:12.652653 30082 net.cpp:144] Setting up conv4
I0502 12:07:12.652669 30082 net.cpp:151] Top shape: 20 64 15 15 (288000)
I0502 12:07:12.652673 30082 net.cpp:159] Memory required for data: 23112240
I0502 12:07:12.652679 30082 layer_factory.hpp:77] Creating layer relu4
I0502 12:07:12.652685 30082 net.cpp:94] Creating Layer relu4
I0502 12:07:12.652689 30082 net.cpp:435] relu4 <- conv4
I0502 12:07:12.652693 30082 net.cpp:396] relu4 -> conv4 (in-place)
I0502 12:07:12.652700 30082 net.cpp:144] Setting up relu4
I0502 12:07:12.652704 30082 net.cpp:151] Top shape: 20 64 15 15 (288000)
I0502 12:07:12.652707 30082 net.cpp:159] Memory required for data: 24264240
I0502 12:07:12.652710 30082 layer_factory.hpp:77] Creating layer conv5
I0502 12:07:12.652717 30082 net.cpp:94] Creating Layer conv5
I0502 12:07:12.652720 30082 net.cpp:435] conv5 <- conv4
I0502 12:07:12.652725 30082 net.cpp:409] conv5 -> conv5
I0502 12:07:12.657312 30082 net.cpp:144] Setting up conv5
I0502 12:07:12.657331 30082 net.cpp:151] Top shape: 20 64 15 15 (288000)
I0502 12:07:12.657335 30082 net.cpp:159] Memory required for data: 25416240
I0502 12:07:12.657343 30082 layer_factory.hpp:77] Creating layer relu5
I0502 12:07:12.657349 30082 net.cpp:94] Creating Layer relu5
I0502 12:07:12.657353 30082 net.cpp:435] relu5 <- conv5
I0502 12:07:12.657357 30082 net.cpp:396] relu5 -> conv5 (in-place)
I0502 12:07:12.657364 30082 net.cpp:144] Setting up relu5
I0502 12:07:12.657368 30082 net.cpp:151] Top shape: 20 64 15 15 (288000)
I0502 12:07:12.657371 30082 net.cpp:159] Memory required for data: 26568240
I0502 12:07:12.657374 30082 layer_factory.hpp:77] Creating layer pool5
I0502 12:07:12.657379 30082 net.cpp:94] Creating Layer pool5
I0502 12:07:12.657382 30082 net.cpp:435] pool5 <- conv5
I0502 12:07:12.657387 30082 net.cpp:409] pool5 -> pool5
I0502 12:07:12.657428 30082 net.cpp:144] Setting up pool5
I0502 12:07:12.657434 30082 net.cpp:151] Top shape: 20 64 7 7 (62720)
I0502 12:07:12.657438 30082 net.cpp:159] Memory required for data: 26819120
I0502 12:07:12.657440 30082 layer_factory.hpp:77] Creating layer ip1
I0502 12:07:12.657447 30082 net.cpp:94] Creating Layer ip1
I0502 12:07:12.657450 30082 net.cpp:435] ip1 <- pool5
I0502 12:07:12.657455 30082 net.cpp:409] ip1 -> ip1
I0502 12:07:12.662317 30082 net.cpp:144] Setting up ip1
I0502 12:07:12.662327 30082 net.cpp:151] Top shape: 20 64 (1280)
I0502 12:07:12.662329 30082 net.cpp:159] Memory required for data: 26824240
I0502 12:07:12.662334 30082 layer_factory.hpp:77] Creating layer ip2
I0502 12:07:12.662340 30082 net.cpp:94] Creating Layer ip2
I0502 12:07:12.662343 30082 net.cpp:435] ip2 <- ip1
I0502 12:07:12.662348 30082 net.cpp:409] ip2 -> ip2
I0502 12:07:12.662581 30082 net.cpp:144] Setting up ip2
I0502 12:07:12.662590 30082 net.cpp:151] Top shape: 20 64 (1280)
I0502 12:07:12.662592 30082 net.cpp:159] Memory required for data: 26829360
I0502 12:07:12.662597 30082 layer_factory.hpp:77] Creating layer ip3
I0502 12:07:12.662603 30082 net.cpp:94] Creating Layer ip3
I0502 12:07:12.662606 30082 net.cpp:435] ip3 <- ip2
I0502 12:07:12.662611 30082 net.cpp:409] ip3 -> ip3
I0502 12:07:12.662814 30082 net.cpp:144] Setting up ip3
I0502 12:07:12.662822 30082 net.cpp:151] Top shape: 20 50 (1000)
I0502 12:07:12.662824 30082 net.cpp:159] Memory required for data: 26833360
I0502 12:07:12.662829 30082 layer_factory.hpp:77] Creating layer ip3_ip3_0_split
I0502 12:07:12.662834 30082 net.cpp:94] Creating Layer ip3_ip3_0_split
I0502 12:07:12.662837 30082 net.cpp:435] ip3_ip3_0_split <- ip3
I0502 12:07:12.662842 30082 net.cpp:409] ip3_ip3_0_split -> ip3_ip3_0_split_0
I0502 12:07:12.662847 30082 net.cpp:409] ip3_ip3_0_split -> ip3_ip3_0_split_1
I0502 12:07:12.662889 30082 net.cpp:144] Setting up ip3_ip3_0_split
I0502 12:07:12.662894 30082 net.cpp:151] Top shape: 20 50 (1000)
I0502 12:07:12.662897 30082 net.cpp:151] Top shape: 20 50 (1000)
I0502 12:07:12.662900 30082 net.cpp:159] Memory required for data: 26841360
I0502 12:07:12.662904 30082 layer_factory.hpp:77] Creating layer accuracy
I0502 12:07:12.662909 30082 net.cpp:94] Creating Layer accuracy
I0502 12:07:12.662912 30082 net.cpp:435] accuracy <- ip3_ip3_0_split_0
I0502 12:07:12.662916 30082 net.cpp:435] accuracy <- label_intercept_1_split_0
I0502 12:07:12.662920 30082 net.cpp:409] accuracy -> accuracy
…
