…
I0505 02:24:44.570575  2132 net.cpp:323] The NetState phase (0) differed from the phase (1) specified by a rule in layer intercept
I0505 02:24:44.570590  2132 net.cpp:323] The NetState phase (0) differed from the phase (1) specified by a rule in layer accuracy
I0505 02:24:44.570670  2132 net.cpp:52] Initializing net from parameters: 
state {
  phase: TRAIN
}
layer {
  name: "parameters"
  type: "HDF5Data"
  top: "data"
  top: "label"
  include {
    phase: TRAIN
  }
  hdf5_data_param {
    source: "/home/purduethu/scratch/radon/d/deng106/CNNStatisticalModel/distributions/input/5_distributions_400_sample_size_train-distributions-path.txt"
    batch_size: 20
  }
}
layer {
  name: "conv1"
  type: "Convolution"
  bottom: "data"
  top: "conv1"
  param {
    lr_mult: 1
  }
  param {
    lr_mult: 2
  }
  convolution_param {
    num_output: 64
    pad: 2
    kernel_size: 5
    stride: 1
    weight_filler {
      type: "gaussian"
      std: 0.0001
    }
    bias_filler {
      type: "constant"
    }
  }
}
layer {
  name: "relu1"
  type: "ReLU"
  bottom: "conv1"
  top: "conv1"
}
layer {
  name: "pool1"
  type: "Pooling"
  bottom: "conv1"
  top: "pool1"
  pooling_param {
    pool: MAX
    kernel_size: 3
    stride: 2
  }
}
layer {
  name: "conv2"
  type: "Convolution"
  bottom: "pool1"
  top: "conv2"
  param {
    lr_mult: 1
  }
  param {
    lr_mult: 2
  }
  convolution_param {
    num_output: 128
    pad: 2
    kernel_size: 5
    stride: 1
    weight_filler {
      type: "gaussian"
      std: 0.01
    }
    bias_filler {
      type: "constant"
    }
  }
}
layer {
  name: "relu2"
  type: "ReLU"
  bottom: "conv2"
  top: "conv2"
}
layer {
  name: "conv3"
  type: "Convolution"
  bottom: "conv2"
  top: "conv3"
  param {
    lr_mult: 1
  }
  param {
    lr_mult: 2
  }
  convolution_param {
    num_output: 128
    pad: 2
    kernel_size: 5
    stride: 1
    weight_filler {
      type: "gaussian"
      std: 0.01
    }
    bias_filler {
      type: "constant"
    }
  }
}
layer {
  name: "relu3"
  type: "ReLU"
  bottom: "conv3"
  top: "conv3"
}
layer {
  name: "pool3"
  type: "Pooling"
  bottom: "conv3"
  top: "pool3"
  pooling_param {
    pool: AVE
    kernel_size: 3
    stride: 2
  }
}
layer {
  name: "ip1"
  type: "InnerProduct"
  bottom: "pool3"
  top: "ip1"
  param {
    lr_mult: 1
  }
  param {
    lr_mult: 2
  }
  inner_product_param {
    num_output: 512
    weight_filler {
      type: "gaussian"
      std: 0.1
    }
    bias_filler {
      type: "constant"
    }
  }
}
layer {
  name: "ip2"
  type: "InnerProduct"
  bottom: "ip1"
  top: "ip2"
  param {
    lr_mult: 1
  }
  param {
    lr_mult: 2
  }
  inner_product_param {
    num_output: 256
    weight_filler {
      type: "gaussian"
      std: 0.1
    }
    bias_filler {
      type: "constant"
    }
  }
}
layer {
  name: "ip3"
  type: "InnerProduct"
  bottom: "ip2"
  top: "ip3"
  param {
    lr_mult: 1
  }
  param {
    lr_mult: 2
  }
  inner_product_param {
    num_output: 50
    weight_filler {
      type: "gaussian"
      std: 0.1
    }
    bias_filler {
      type: "constant"
    }
  }
}
layer {
  name: "loss"
  type: "SoftmaxWithLoss"
  bottom: "ip3"
  bottom: "label"
  top: "loss"
}
I0505 02:24:44.570736  2132 layer_factory.hpp:77] Creating layer parameters
I0505 02:24:44.570751  2132 net.cpp:94] Creating Layer parameters
I0505 02:24:44.570757  2132 net.cpp:409] parameters -> data
I0505 02:24:44.570785  2132 net.cpp:409] parameters -> label
I0505 02:24:44.570796  2132 hdf5_data_layer.cpp:79] Loading list of HDF5 filenames from: /home/purduethu/scratch/radon/d/deng106/CNNStatisticalModel/distributions/input/5_distributions_400_sample_size_train-distributions-path.txt
I0505 02:24:44.570819  2132 hdf5_data_layer.cpp:93] Number of HDF5 files: 1
I0505 02:24:44.571439  2132 hdf5.cpp:32] Datatype class: H5T_FLOAT
I0505 02:24:44.635316  2132 hdf5.cpp:35] Datatype class: H5T_INTEGER
I0505 02:24:44.636488  2132 net.cpp:144] Setting up parameters
I0505 02:24:44.636507  2132 net.cpp:151] Top shape: 20 1 20 20 (8000)
I0505 02:24:44.636513  2132 net.cpp:151] Top shape: 20 (20)
I0505 02:24:44.636517  2132 net.cpp:159] Memory required for data: 32080
I0505 02:24:44.636524  2132 layer_factory.hpp:77] Creating layer conv1
I0505 02:24:44.636559  2132 net.cpp:94] Creating Layer conv1
I0505 02:24:44.636574  2132 net.cpp:435] conv1 <- data
I0505 02:24:44.636586  2132 net.cpp:409] conv1 -> conv1
I0505 02:24:44.642824  2132 net.cpp:144] Setting up conv1
I0505 02:24:44.642841  2132 net.cpp:151] Top shape: 20 64 20 20 (512000)
I0505 02:24:44.642845  2132 net.cpp:159] Memory required for data: 2080080
I0505 02:24:44.642858  2132 layer_factory.hpp:77] Creating layer relu1
I0505 02:24:44.642868  2132 net.cpp:94] Creating Layer relu1
I0505 02:24:44.642871  2132 net.cpp:435] relu1 <- conv1
I0505 02:24:44.642876  2132 net.cpp:396] relu1 -> conv1 (in-place)
I0505 02:24:44.642892  2132 net.cpp:144] Setting up relu1
I0505 02:24:44.642899  2132 net.cpp:151] Top shape: 20 64 20 20 (512000)
I0505 02:24:44.642901  2132 net.cpp:159] Memory required for data: 4128080
I0505 02:24:44.642904  2132 layer_factory.hpp:77] Creating layer pool1
I0505 02:24:44.642912  2132 net.cpp:94] Creating Layer pool1
I0505 02:24:44.642915  2132 net.cpp:435] pool1 <- conv1
I0505 02:24:44.642920  2132 net.cpp:409] pool1 -> pool1
I0505 02:24:44.642963  2132 net.cpp:144] Setting up pool1
I0505 02:24:44.642969  2132 net.cpp:151] Top shape: 20 64 10 10 (128000)
I0505 02:24:44.642973  2132 net.cpp:159] Memory required for data: 4640080
I0505 02:24:44.642976  2132 layer_factory.hpp:77] Creating layer conv2
I0505 02:24:44.642985  2132 net.cpp:94] Creating Layer conv2
I0505 02:24:44.642989  2132 net.cpp:435] conv2 <- pool1
I0505 02:24:44.642994  2132 net.cpp:409] conv2 -> conv2
I0505 02:24:44.653368  2132 net.cpp:144] Setting up conv2
I0505 02:24:44.653398  2132 net.cpp:151] Top shape: 20 128 10 10 (256000)
I0505 02:24:44.653406  2132 net.cpp:159] Memory required for data: 5664080
I0505 02:24:44.653422  2132 layer_factory.hpp:77] Creating layer relu2
I0505 02:24:44.653434  2132 net.cpp:94] Creating Layer relu2
I0505 02:24:44.653441  2132 net.cpp:435] relu2 <- conv2
I0505 02:24:44.653450  2132 net.cpp:396] relu2 -> conv2 (in-place)
I0505 02:24:44.653465  2132 net.cpp:144] Setting up relu2
I0505 02:24:44.653475  2132 net.cpp:151] Top shape: 20 128 10 10 (256000)
I0505 02:24:44.653481  2132 net.cpp:159] Memory required for data: 6688080
I0505 02:24:44.653487  2132 layer_factory.hpp:77] Creating layer conv3
I0505 02:24:44.653501  2132 net.cpp:94] Creating Layer conv3
I0505 02:24:44.653509  2132 net.cpp:435] conv3 <- conv2
I0505 02:24:44.653518  2132 net.cpp:409] conv3 -> conv3
I0505 02:24:44.671329  2132 net.cpp:144] Setting up conv3
I0505 02:24:44.671344  2132 net.cpp:151] Top shape: 20 128 10 10 (256000)
I0505 02:24:44.671349  2132 net.cpp:159] Memory required for data: 7712080
I0505 02:24:44.671357  2132 layer_factory.hpp:77] Creating layer relu3
I0505 02:24:44.671370  2132 net.cpp:94] Creating Layer relu3
I0505 02:24:44.671375  2132 net.cpp:435] relu3 <- conv3
I0505 02:24:44.671380  2132 net.cpp:396] relu3 -> conv3 (in-place)
I0505 02:24:44.671387  2132 net.cpp:144] Setting up relu3
I0505 02:24:44.671392  2132 net.cpp:151] Top shape: 20 128 10 10 (256000)
I0505 02:24:44.671396  2132 net.cpp:159] Memory required for data: 8736080
I0505 02:24:44.671398  2132 layer_factory.hpp:77] Creating layer pool3
I0505 02:24:44.671404  2132 net.cpp:94] Creating Layer pool3
I0505 02:24:44.671414  2132 net.cpp:435] pool3 <- conv3
I0505 02:24:44.671421  2132 net.cpp:409] pool3 -> pool3
I0505 02:24:44.671455  2132 net.cpp:144] Setting up pool3
I0505 02:24:44.671463  2132 net.cpp:151] Top shape: 20 128 5 5 (64000)
I0505 02:24:44.671465  2132 net.cpp:159] Memory required for data: 8992080
I0505 02:24:44.671469  2132 layer_factory.hpp:77] Creating layer ip1
I0505 02:24:44.671478  2132 net.cpp:94] Creating Layer ip1
I0505 02:24:44.671483  2132 net.cpp:435] ip1 <- pool3
I0505 02:24:44.671488  2132 net.cpp:409] ip1 -> ip1
I0505 02:24:44.712899  2132 net.cpp:144] Setting up ip1
I0505 02:24:44.712918  2132 net.cpp:151] Top shape: 20 512 (10240)
I0505 02:24:44.712923  2132 net.cpp:159] Memory required for data: 9033040
I0505 02:24:44.712929  2132 layer_factory.hpp:77] Creating layer ip2
I0505 02:24:44.712936  2132 net.cpp:94] Creating Layer ip2
I0505 02:24:44.712940  2132 net.cpp:435] ip2 <- ip1
I0505 02:24:44.712945  2132 net.cpp:409] ip2 -> ip2
I0505 02:24:44.716208  2132 net.cpp:144] Setting up ip2
I0505 02:24:44.716217  2132 net.cpp:151] Top shape: 20 256 (5120)
I0505 02:24:44.716220  2132 net.cpp:159] Memory required for data: 9053520
I0505 02:24:44.716228  2132 layer_factory.hpp:77] Creating layer ip3
I0505 02:24:44.716234  2132 net.cpp:94] Creating Layer ip3
I0505 02:24:44.716238  2132 net.cpp:435] ip3 <- ip2
I0505 02:24:44.716243  2132 net.cpp:409] ip3 -> ip3
I0505 02:24:44.717303  2132 net.cpp:144] Setting up ip3
I0505 02:24:44.717317  2132 net.cpp:151] Top shape: 20 50 (1000)
I0505 02:24:44.717321  2132 net.cpp:159] Memory required for data: 9057520
I0505 02:24:44.717327  2132 layer_factory.hpp:77] Creating layer loss
I0505 02:24:44.717334  2132 net.cpp:94] Creating Layer loss
I0505 02:24:44.717337  2132 net.cpp:435] loss <- ip3
I0505 02:24:44.717341  2132 net.cpp:435] loss <- label
I0505 02:24:44.717347  2132 net.cpp:409] loss -> loss
I0505 02:24:44.717358  2132 layer_factory.hpp:77] Creating layer loss
…
I0505 02:24:44.717793  2132 solver.cpp:181] Creating test net (#0) specified by net file: ./protocol/dis_5_400_dimension.protocol_distribution
I0505 02:24:44.717818  2132 net.cpp:323] The NetState phase (1) differed from the phase (0) specified by a rule in layer parameters
I0505 02:24:44.717910  2132 net.cpp:52] Initializing net from parameters: 
state {
  phase: TEST
}
layer {
  name: "intercept"
  type: "HDF5Data"
  top: "data"
  top: "label"
  include {
    phase: TEST
  }
  hdf5_data_param {
    source: "/home/purduethu/scratch/radon/d/deng106/CNNStatisticalModel/distributions/input/5_distributions_400_sample_size_test-distributions-path.txt"
    batch_size: 20
  }
}
layer {
  name: "conv1"
  type: "Convolution"
  bottom: "data"
  top: "conv1"
  param {
    lr_mult: 1
  }
  param {
    lr_mult: 2
  }
  convolution_param {
    num_output: 64
    pad: 2
    kernel_size: 5
    stride: 1
    weight_filler {
      type: "gaussian"
      std: 0.0001
    }
    bias_filler {
      type: "constant"
    }
  }
}
layer {
  name: "relu1"
  type: "ReLU"
  bottom: "conv1"
  top: "conv1"
}
layer {
  name: "pool1"
  type: "Pooling"
  bottom: "conv1"
  top: "pool1"
  pooling_param {
    pool: MAX
    kernel_size: 3
    stride: 2
  }
}
layer {
  name: "conv2"
  type: "Convolution"
  bottom: "pool1"
  top: "conv2"
  param {
    lr_mult: 1
  }
  param {
    lr_mult: 2
  }
  convolution_param {
    num_output: 128
    pad: 2
    kernel_size: 5
    stride: 1
    weight_filler {
      type: "gaussian"
      std: 0.01
    }
    bias_filler {
      type: "constant"
    }
  }
}
layer {
  name: "relu2"
  type: "ReLU"
  bottom: "conv2"
  top: "conv2"
}
layer {
  name: "conv3"
  type: "Convolution"
  bottom: "conv2"
  top: "conv3"
  param {
    lr_mult: 1
  }
  param {
    lr_mult: 2
  }
  convolution_param {
    num_output: 128
    pad: 2
    kernel_size: 5
    stride: 1
    weight_filler {
      type: "gaussian"
      std: 0.01
    }
    bias_filler {
      type: "constant"
    }
  }
}
layer {
  name: "relu3"
  type: "ReLU"
  bottom: "conv3"
  top: "conv3"
}
layer {
  name: "pool3"
  type: "Pooling"
  bottom: "conv3"
  top: "pool3"
  pooling_param {
    pool: AVE
    kernel_size: 3
    stride: 2
  }
}
layer {
  name: "ip1"
  type: "InnerProduct"
  bottom: "pool3"
  top: "ip1"
  param {
    lr_mult: 1
  }
  param {
    lr_mult: 2
  }
  inner_product_param {
    num_output: 512
    weight_filler {
      type: "gaussian"
      std: 0.1
    }
    bias_filler {
      type: "constant"
    }
  }
}
layer {
  name: "ip2"
  type: "InnerProduct"
  bottom: "ip1"
  top: "ip2"
  param {
    lr_mult: 1
  }
  param {
    lr_mult: 2
  }
  inner_product_param {
    num_output: 256
    weight_filler {
      type: "gaussian"
      std: 0.1
    }
    bias_filler {
      type: "constant"
    }
  }
}
layer {
  name: "ip3"
  type: "InnerProduct"
  bottom: "ip2"
  top: "ip3"
  param {
    lr_mult: 1
  }
  param {
    lr_mult: 2
  }
  inner_product_param {
    num_output: 50
    weight_filler {
      type: "gaussian"
      std: 0.1
    }
    bias_filler {
      type: "constant"
    }
  }
}
layer {
  name: "accuracy"
  type: "Accuracy"
  bottom: "ip3"
  bottom: "label"
  top: "accuracy"
  include {
    phase: TEST
  }
}
layer {
  name: "loss"
  type: "SoftmaxWithLoss"
  bottom: "ip3"
  bottom: "label"
  top: "loss"
}
I0505 02:24:44.717975  2132 layer_factory.hpp:77] Creating layer intercept
I0505 02:24:44.717984  2132 net.cpp:94] Creating Layer intercept
I0505 02:24:44.717989  2132 net.cpp:409] intercept -> data
I0505 02:24:44.717996  2132 net.cpp:409] intercept -> label
I0505 02:24:44.718003  2132 hdf5_data_layer.cpp:79] Loading list of HDF5 filenames from: /home/purduethu/scratch/radon/d/deng106/CNNStatisticalModel/distributions/input/5_distributions_400_sample_size_test-distributions-path.txt
I0505 02:24:44.718021  2132 hdf5_data_layer.cpp:93] Number of HDF5 files: 1
I0505 02:24:44.733806  2132 net.cpp:144] Setting up intercept
I0505 02:24:44.733839  2132 net.cpp:151] Top shape: 20 1 20 20 (8000)
I0505 02:24:44.733844  2132 net.cpp:151] Top shape: 20 (20)
I0505 02:24:44.733849  2132 net.cpp:159] Memory required for data: 32080
I0505 02:24:44.733855  2132 layer_factory.hpp:77] Creating layer label_intercept_1_split
I0505 02:24:44.733873  2132 net.cpp:94] Creating Layer label_intercept_1_split
I0505 02:24:44.733886  2132 net.cpp:435] label_intercept_1_split <- label
I0505 02:24:44.733892  2132 net.cpp:409] label_intercept_1_split -> label_intercept_1_split_0
I0505 02:24:44.733901  2132 net.cpp:409] label_intercept_1_split -> label_intercept_1_split_1
I0505 02:24:44.733928  2132 net.cpp:144] Setting up label_intercept_1_split
I0505 02:24:44.733934  2132 net.cpp:151] Top shape: 20 (20)
I0505 02:24:44.733938  2132 net.cpp:151] Top shape: 20 (20)
I0505 02:24:44.733942  2132 net.cpp:159] Memory required for data: 32240
I0505 02:24:44.733952  2132 layer_factory.hpp:77] Creating layer conv1
I0505 02:24:44.733964  2132 net.cpp:94] Creating Layer conv1
I0505 02:24:44.733968  2132 net.cpp:435] conv1 <- data
I0505 02:24:44.733973  2132 net.cpp:409] conv1 -> conv1
I0505 02:24:44.734680  2132 net.cpp:144] Setting up conv1
I0505 02:24:44.734694  2132 net.cpp:151] Top shape: 20 64 20 20 (512000)
I0505 02:24:44.734699  2132 net.cpp:159] Memory required for data: 2080240
I0505 02:24:44.734709  2132 layer_factory.hpp:77] Creating layer relu1
I0505 02:24:44.734714  2132 net.cpp:94] Creating Layer relu1
I0505 02:24:44.734719  2132 net.cpp:435] relu1 <- conv1
I0505 02:24:44.734724  2132 net.cpp:396] relu1 -> conv1 (in-place)
I0505 02:24:44.734730  2132 net.cpp:144] Setting up relu1
I0505 02:24:44.734735  2132 net.cpp:151] Top shape: 20 64 20 20 (512000)
I0505 02:24:44.734738  2132 net.cpp:159] Memory required for data: 4128240
I0505 02:24:44.734741  2132 layer_factory.hpp:77] Creating layer pool1
I0505 02:24:44.734748  2132 net.cpp:94] Creating Layer pool1
I0505 02:24:44.734751  2132 net.cpp:435] pool1 <- conv1
I0505 02:24:44.734756  2132 net.cpp:409] pool1 -> pool1
I0505 02:24:44.734789  2132 net.cpp:144] Setting up pool1
I0505 02:24:44.734796  2132 net.cpp:151] Top shape: 20 64 10 10 (128000)
I0505 02:24:44.734798  2132 net.cpp:159] Memory required for data: 4640240
I0505 02:24:44.734802  2132 layer_factory.hpp:77] Creating layer conv2
I0505 02:24:44.734809  2132 net.cpp:94] Creating Layer conv2
I0505 02:24:44.734813  2132 net.cpp:435] conv2 <- pool1
I0505 02:24:44.734818  2132 net.cpp:409] conv2 -> conv2
I0505 02:24:44.742486  2132 net.cpp:144] Setting up conv2
I0505 02:24:44.742501  2132 net.cpp:151] Top shape: 20 128 10 10 (256000)
I0505 02:24:44.742506  2132 net.cpp:159] Memory required for data: 5664240
I0505 02:24:44.742513  2132 layer_factory.hpp:77] Creating layer relu2
I0505 02:24:44.742519  2132 net.cpp:94] Creating Layer relu2
I0505 02:24:44.742523  2132 net.cpp:435] relu2 <- conv2
I0505 02:24:44.742528  2132 net.cpp:396] relu2 -> conv2 (in-place)
I0505 02:24:44.742534  2132 net.cpp:144] Setting up relu2
I0505 02:24:44.742539  2132 net.cpp:151] Top shape: 20 128 10 10 (256000)
I0505 02:24:44.742542  2132 net.cpp:159] Memory required for data: 6688240
I0505 02:24:44.742545  2132 layer_factory.hpp:77] Creating layer conv3
I0505 02:24:44.742553  2132 net.cpp:94] Creating Layer conv3
I0505 02:24:44.742557  2132 net.cpp:435] conv3 <- conv2
I0505 02:24:44.742561  2132 net.cpp:409] conv3 -> conv3
I0505 02:24:44.756534  2132 net.cpp:144] Setting up conv3
I0505 02:24:44.756556  2132 net.cpp:151] Top shape: 20 128 10 10 (256000)
I0505 02:24:44.756562  2132 net.cpp:159] Memory required for data: 7712240
I0505 02:24:44.756572  2132 layer_factory.hpp:77] Creating layer relu3
I0505 02:24:44.756577  2132 net.cpp:94] Creating Layer relu3
I0505 02:24:44.756582  2132 net.cpp:435] relu3 <- conv3
I0505 02:24:44.756587  2132 net.cpp:396] relu3 -> conv3 (in-place)
I0505 02:24:44.756593  2132 net.cpp:144] Setting up relu3
I0505 02:24:44.756597  2132 net.cpp:151] Top shape: 20 128 10 10 (256000)
I0505 02:24:44.756602  2132 net.cpp:159] Memory required for data: 8736240
I0505 02:24:44.756604  2132 layer_factory.hpp:77] Creating layer pool3
I0505 02:24:44.756609  2132 net.cpp:94] Creating Layer pool3
I0505 02:24:44.756613  2132 net.cpp:435] pool3 <- conv3
I0505 02:24:44.756618  2132 net.cpp:409] pool3 -> pool3
I0505 02:24:44.756644  2132 net.cpp:144] Setting up pool3
I0505 02:24:44.756650  2132 net.cpp:151] Top shape: 20 128 5 5 (64000)
I0505 02:24:44.756657  2132 net.cpp:159] Memory required for data: 8992240
I0505 02:24:44.756661  2132 layer_factory.hpp:77] Creating layer ip1
I0505 02:24:44.756667  2132 net.cpp:94] Creating Layer ip1
I0505 02:24:44.756671  2132 net.cpp:435] ip1 <- pool3
I0505 02:24:44.756675  2132 net.cpp:409] ip1 -> ip1
I0505 02:24:44.798063  2132 net.cpp:144] Setting up ip1
I0505 02:24:44.798082  2132 net.cpp:151] Top shape: 20 512 (10240)
I0505 02:24:44.798086  2132 net.cpp:159] Memory required for data: 9033200
I0505 02:24:44.798101  2132 layer_factory.hpp:77] Creating layer ip2
I0505 02:24:44.798110  2132 net.cpp:94] Creating Layer ip2
I0505 02:24:44.798113  2132 net.cpp:435] ip2 <- ip1
I0505 02:24:44.798118  2132 net.cpp:409] ip2 -> ip2
I0505 02:24:44.801385  2132 net.cpp:144] Setting up ip2
I0505 02:24:44.801394  2132 net.cpp:151] Top shape: 20 256 (5120)
I0505 02:24:44.801398  2132 net.cpp:159] Memory required for data: 9053680
I0505 02:24:44.801404  2132 layer_factory.hpp:77] Creating layer ip3
I0505 02:24:44.801410  2132 net.cpp:94] Creating Layer ip3
I0505 02:24:44.801414  2132 net.cpp:435] ip3 <- ip2
I0505 02:24:44.801419  2132 net.cpp:409] ip3 -> ip3
I0505 02:24:44.801810  2132 net.cpp:144] Setting up ip3
I0505 02:24:44.801816  2132 net.cpp:151] Top shape: 20 50 (1000)
I0505 02:24:44.801820  2132 net.cpp:159] Memory required for data: 9057680
I0505 02:24:44.801825  2132 layer_factory.hpp:77] Creating layer ip3_ip3_0_split
I0505 02:24:44.801831  2132 net.cpp:94] Creating Layer ip3_ip3_0_split
I0505 02:24:44.801833  2132 net.cpp:435] ip3_ip3_0_split <- ip3
I0505 02:24:44.801838  2132 net.cpp:409] ip3_ip3_0_split -> ip3_ip3_0_split_0
I0505 02:24:44.801843  2132 net.cpp:409] ip3_ip3_0_split -> ip3_ip3_0_split_1
I0505 02:24:44.801868  2132 net.cpp:144] Setting up ip3_ip3_0_split
I0505 02:24:44.801873  2132 net.cpp:151] Top shape: 20 50 (1000)
I0505 02:24:44.801877  2132 net.cpp:151] Top shape: 20 50 (1000)
I0505 02:24:44.801880  2132 net.cpp:159] Memory required for data: 9065680
I0505 02:24:44.801883  2132 layer_factory.hpp:77] Creating layer accuracy
I0505 02:24:44.801889  2132 net.cpp:94] Creating Layer accuracy
I0505 02:24:44.801893  2132 net.cpp:435] accuracy <- ip3_ip3_0_split_0
I0505 02:24:44.801898  2132 net.cpp:435] accuracy <- label_intercept_1_split_0
I0505 02:24:44.801901  2132 net.cpp:409] accuracy -> accuracy
…
