…
I0503 17:15:12.117653 21517 net.cpp:323] The NetState phase (0) differed from the phase (1) specified by a rule in layer intercept
I0503 17:15:12.117671 21517 net.cpp:323] The NetState phase (0) differed from the phase (1) specified by a rule in layer accuracy
I0503 17:15:12.117764 21517 net.cpp:52] Initializing net from parameters: 
state {
  phase: TRAIN
}
layer {
  name: "parameters"
  type: "HDF5Data"
  top: "data"
  top: "label"
  include {
    phase: TRAIN
  }
  hdf5_data_param {
    source: "/home/purduethu/scratch/radon/d/deng106/CNNStatisticalModel/distributions/input/50_distributions_900_sample_size_train-distributions-path.txt"
    batch_size: 20
  }
}
layer {
  name: "conv1"
  type: "Convolution"
  bottom: "data"
  top: "conv1"
  param {
    lr_mult: 1
  }
  param {
    lr_mult: 2
  }
  convolution_param {
    num_output: 64
    pad: 2
    kernel_size: 5
    stride: 1
    weight_filler {
      type: "gaussian"
      std: 0.0001
    }
    bias_filler {
      type: "constant"
    }
  }
}
layer {
  name: "relu1"
  type: "ReLU"
  bottom: "conv1"
  top: "conv1"
}
layer {
  name: "conv2"
  type: "Convolution"
  bottom: "conv1"
  top: "conv2"
  param {
    lr_mult: 1
  }
  param {
    lr_mult: 2
  }
  convolution_param {
    num_output: 64
    pad: 2
    kernel_size: 5
    stride: 1
    weight_filler {
      type: "gaussian"
      std: 0.01
    }
    bias_filler {
      type: "constant"
    }
  }
}
layer {
  name: "relu2"
  type: "ReLU"
  bottom: "conv2"
  top: "conv2"
}
layer {
  name: "pool2"
  type: "Pooling"
  bottom: "conv2"
  top: "pool2"
  pooling_param {
    pool: MAX
    kernel_size: 3
    stride: 2
  }
}
layer {
  name: "conv3"
  type: "Convolution"
  bottom: "pool2"
  top: "conv3"
  param {
    lr_mult: 1
  }
  param {
    lr_mult: 2
  }
  convolution_param {
    num_output: 128
    pad: 2
    kernel_size: 5
    stride: 1
    weight_filler {
      type: "gaussian"
      std: 0.01
    }
    bias_filler {
      type: "constant"
    }
  }
}
layer {
  name: "relu3"
  type: "ReLU"
  bottom: "conv3"
  top: "conv3"
}
layer {
  name: "conv4"
  type: "Convolution"
  bottom: "conv3"
  top: "conv4"
  param {
    lr_mult: 1
  }
  param {
    lr_mult: 2
  }
  convolution_param {
    num_output: 128
    pad: 2
    kernel_size: 5
    stride: 1
    weight_filler {
      type: "gaussian"
      std: 0.01
    }
    bias_filler {
      type: "constant"
    }
  }
}
layer {
  name: "relu4"
  type: "ReLU"
  bottom: "conv4"
  top: "conv4"
}
layer {
  name: "conv5"
  type: "Convolution"
  bottom: "conv4"
  top: "conv5"
  param {
    lr_mult: 1
  }
  param {
    lr_mult: 2
  }
  convolution_param {
    num_output: 128
    pad: 2
    kernel_size: 5
    stride: 1
    weight_filler {
      type: "gaussian"
      std: 0.01
    }
    bias_filler {
      type: "constant"
    }
  }
}
layer {
  name: "relu5"
  type: "ReLU"
  bottom: "conv5"
  top: "conv5"
}
layer {
  name: "pool5"
  type: "Pooling"
  bottom: "conv5"
  top: "pool5"
  pooling_param {
    pool: AVE
    kernel_size: 3
    stride: 2
  }
}
layer {
  name: "ip1"
  type: "InnerProduct"
  bottom: "pool5"
  top: "ip1"
  param {
    lr_mult: 1
  }
  param {
    lr_mult: 2
  }
  inner_product_param {
    num_output: 1024
    weight_filler {
      type: "gaussian"
      std: 0.1
    }
    bias_filler {
      type: "constant"
    }
  }
}
layer {
  name: "ip2"
  type: "InnerProduct"
  bottom: "ip1"
  top: "ip2"
  param {
    lr_mult: 1
  }
  param {
    lr_mult: 2
  }
  inner_product_param {
    num_output: 512
    weight_filler {
      type: "gaussian"
      std: 0.1
    }
    bias_filler {
      type: "constant"
    }
  }
}
layer {
  name: "ip3"
  type: "InnerProduct"
  bottom: "ip2"
  top: "ip3"
  param {
    lr_mult: 1
  }
  param {
    lr_mult: 2
  }
  inner_product_param {
    num_output: 50
    weight_filler {
      type: "gaussian"
      std: 0.1
    }
    bias_filler {
      type: "constant"
    }
  }
}
layer {
  name: "loss"
  type: "SoftmaxWithLoss"
  bottom: "ip3"
  bottom: "label"
  top: "loss"
}
I0503 17:15:12.117844 21517 layer_factory.hpp:77] Creating layer parameters
I0503 17:15:12.117859 21517 net.cpp:94] Creating Layer parameters
I0503 17:15:12.117866 21517 net.cpp:409] parameters -> data
I0503 17:15:12.117885 21517 net.cpp:409] parameters -> label
I0503 17:15:12.117895 21517 hdf5_data_layer.cpp:79] Loading list of HDF5 filenames from: /home/purduethu/scratch/radon/d/deng106/CNNStatisticalModel/distributions/input/50_distributions_900_sample_size_train-distributions-path.txt
I0503 17:15:12.117923 21517 hdf5_data_layer.cpp:93] Number of HDF5 files: 1
I0503 17:15:12.118544 21517 hdf5.cpp:32] Datatype class: H5T_FLOAT
I0503 17:15:13.561127 21517 hdf5.cpp:35] Datatype class: H5T_INTEGER
I0503 17:15:13.563866 21517 net.cpp:144] Setting up parameters
I0503 17:15:13.563884 21517 net.cpp:151] Top shape: 20 1 30 30 (18000)
I0503 17:15:13.563889 21517 net.cpp:151] Top shape: 20 (20)
I0503 17:15:13.563894 21517 net.cpp:159] Memory required for data: 72080
I0503 17:15:13.563901 21517 layer_factory.hpp:77] Creating layer conv1
I0503 17:15:13.563920 21517 net.cpp:94] Creating Layer conv1
I0503 17:15:13.563925 21517 net.cpp:435] conv1 <- data
I0503 17:15:13.563936 21517 net.cpp:409] conv1 -> conv1
I0503 17:15:13.569914 21517 net.cpp:144] Setting up conv1
I0503 17:15:13.569929 21517 net.cpp:151] Top shape: 20 64 30 30 (1152000)
I0503 17:15:13.569933 21517 net.cpp:159] Memory required for data: 4680080
I0503 17:15:13.569946 21517 layer_factory.hpp:77] Creating layer relu1
I0503 17:15:13.569953 21517 net.cpp:94] Creating Layer relu1
I0503 17:15:13.569957 21517 net.cpp:435] relu1 <- conv1
I0503 17:15:13.569962 21517 net.cpp:396] relu1 -> conv1 (in-place)
I0503 17:15:13.569978 21517 net.cpp:144] Setting up relu1
I0503 17:15:13.569983 21517 net.cpp:151] Top shape: 20 64 30 30 (1152000)
I0503 17:15:13.569986 21517 net.cpp:159] Memory required for data: 9288080
I0503 17:15:13.569990 21517 layer_factory.hpp:77] Creating layer conv2
I0503 17:15:13.569998 21517 net.cpp:94] Creating Layer conv2
I0503 17:15:13.570001 21517 net.cpp:435] conv2 <- conv1
I0503 17:15:13.570006 21517 net.cpp:409] conv2 -> conv2
I0503 17:15:13.587045 21517 net.cpp:144] Setting up conv2
I0503 17:15:13.587061 21517 net.cpp:151] Top shape: 20 64 30 30 (1152000)
I0503 17:15:13.587065 21517 net.cpp:159] Memory required for data: 13896080
I0503 17:15:13.587074 21517 layer_factory.hpp:77] Creating layer relu2
I0503 17:15:13.587081 21517 net.cpp:94] Creating Layer relu2
I0503 17:15:13.587085 21517 net.cpp:435] relu2 <- conv2
I0503 17:15:13.587090 21517 net.cpp:396] relu2 -> conv2 (in-place)
I0503 17:15:13.587097 21517 net.cpp:144] Setting up relu2
I0503 17:15:13.587102 21517 net.cpp:151] Top shape: 20 64 30 30 (1152000)
I0503 17:15:13.587105 21517 net.cpp:159] Memory required for data: 18504080
I0503 17:15:13.587108 21517 layer_factory.hpp:77] Creating layer pool2
I0503 17:15:13.587122 21517 net.cpp:94] Creating Layer pool2
I0503 17:15:13.587126 21517 net.cpp:435] pool2 <- conv2
I0503 17:15:13.587131 21517 net.cpp:409] pool2 -> pool2
I0503 17:15:13.587177 21517 net.cpp:144] Setting up pool2
I0503 17:15:13.587184 21517 net.cpp:151] Top shape: 20 64 15 15 (288000)
I0503 17:15:13.587188 21517 net.cpp:159] Memory required for data: 19656080
I0503 17:15:13.587191 21517 layer_factory.hpp:77] Creating layer conv3
I0503 17:15:13.587199 21517 net.cpp:94] Creating Layer conv3
I0503 17:15:13.587203 21517 net.cpp:435] conv3 <- pool2
I0503 17:15:13.587216 21517 net.cpp:409] conv3 -> conv3
I0503 17:15:13.600069 21517 net.cpp:144] Setting up conv3
I0503 17:15:13.600083 21517 net.cpp:151] Top shape: 20 128 15 15 (576000)
I0503 17:15:13.600088 21517 net.cpp:159] Memory required for data: 21960080
I0503 17:15:13.600096 21517 layer_factory.hpp:77] Creating layer relu3
I0503 17:15:13.600103 21517 net.cpp:94] Creating Layer relu3
I0503 17:15:13.600107 21517 net.cpp:435] relu3 <- conv3
I0503 17:15:13.600112 21517 net.cpp:396] relu3 -> conv3 (in-place)
I0503 17:15:13.600119 21517 net.cpp:144] Setting up relu3
I0503 17:15:13.600124 21517 net.cpp:151] Top shape: 20 128 15 15 (576000)
I0503 17:15:13.600127 21517 net.cpp:159] Memory required for data: 24264080
I0503 17:15:13.600131 21517 layer_factory.hpp:77] Creating layer conv4
I0503 17:15:13.600139 21517 net.cpp:94] Creating Layer conv4
I0503 17:15:13.600143 21517 net.cpp:435] conv4 <- conv3
I0503 17:15:13.600148 21517 net.cpp:409] conv4 -> conv4
I0503 17:15:13.623728 21517 net.cpp:144] Setting up conv4
I0503 17:15:13.623744 21517 net.cpp:151] Top shape: 20 128 15 15 (576000)
I0503 17:15:13.623749 21517 net.cpp:159] Memory required for data: 26568080
I0503 17:15:13.623754 21517 layer_factory.hpp:77] Creating layer relu4
I0503 17:15:13.623761 21517 net.cpp:94] Creating Layer relu4
I0503 17:15:13.623765 21517 net.cpp:435] relu4 <- conv4
I0503 17:15:13.623770 21517 net.cpp:396] relu4 -> conv4 (in-place)
I0503 17:15:13.623777 21517 net.cpp:144] Setting up relu4
I0503 17:15:13.623782 21517 net.cpp:151] Top shape: 20 128 15 15 (576000)
I0503 17:15:13.623785 21517 net.cpp:159] Memory required for data: 28872080
I0503 17:15:13.623788 21517 layer_factory.hpp:77] Creating layer conv5
I0503 17:15:13.623796 21517 net.cpp:94] Creating Layer conv5
I0503 17:15:13.623800 21517 net.cpp:435] conv5 <- conv4
I0503 17:15:13.623805 21517 net.cpp:409] conv5 -> conv5
I0503 17:15:13.646451 21517 net.cpp:144] Setting up conv5
I0503 17:15:13.646467 21517 net.cpp:151] Top shape: 20 128 15 15 (576000)
I0503 17:15:13.646471 21517 net.cpp:159] Memory required for data: 31176080
I0503 17:15:13.646481 21517 layer_factory.hpp:77] Creating layer relu5
I0503 17:15:13.646487 21517 net.cpp:94] Creating Layer relu5
I0503 17:15:13.646492 21517 net.cpp:435] relu5 <- conv5
I0503 17:15:13.646495 21517 net.cpp:396] relu5 -> conv5 (in-place)
I0503 17:15:13.646503 21517 net.cpp:144] Setting up relu5
I0503 17:15:13.646508 21517 net.cpp:151] Top shape: 20 128 15 15 (576000)
I0503 17:15:13.646512 21517 net.cpp:159] Memory required for data: 33480080
I0503 17:15:13.646515 21517 layer_factory.hpp:77] Creating layer pool5
I0503 17:15:13.646520 21517 net.cpp:94] Creating Layer pool5
I0503 17:15:13.646524 21517 net.cpp:435] pool5 <- conv5
I0503 17:15:13.646528 21517 net.cpp:409] pool5 -> pool5
I0503 17:15:13.646564 21517 net.cpp:144] Setting up pool5
I0503 17:15:13.646570 21517 net.cpp:151] Top shape: 20 128 7 7 (125440)
I0503 17:15:13.646574 21517 net.cpp:159] Memory required for data: 33981840
I0503 17:15:13.646577 21517 layer_factory.hpp:77] Creating layer ip1
I0503 17:15:13.646586 21517 net.cpp:94] Creating Layer ip1
I0503 17:15:13.646590 21517 net.cpp:435] ip1 <- pool5
I0503 17:15:13.646595 21517 net.cpp:409] ip1 -> ip1
I0503 17:15:13.804061 21517 net.cpp:144] Setting up ip1
I0503 17:15:13.804081 21517 net.cpp:151] Top shape: 20 1024 (20480)
I0503 17:15:13.804086 21517 net.cpp:159] Memory required for data: 34063760
I0503 17:15:13.804095 21517 layer_factory.hpp:77] Creating layer ip2
I0503 17:15:13.804113 21517 net.cpp:94] Creating Layer ip2
I0503 17:15:13.804119 21517 net.cpp:435] ip2 <- ip1
I0503 17:15:13.804126 21517 net.cpp:409] ip2 -> ip2
I0503 17:15:13.817087 21517 net.cpp:144] Setting up ip2
I0503 17:15:13.817101 21517 net.cpp:151] Top shape: 20 512 (10240)
I0503 17:15:13.817104 21517 net.cpp:159] Memory required for data: 34104720
I0503 17:15:13.817111 21517 layer_factory.hpp:77] Creating layer ip3
I0503 17:15:13.817117 21517 net.cpp:94] Creating Layer ip3
I0503 17:15:13.817121 21517 net.cpp:435] ip3 <- ip2
I0503 17:15:13.817126 21517 net.cpp:409] ip3 -> ip3
I0503 17:15:13.818431 21517 net.cpp:144] Setting up ip3
I0503 17:15:13.818444 21517 net.cpp:151] Top shape: 20 50 (1000)
I0503 17:15:13.818447 21517 net.cpp:159] Memory required for data: 34108720
I0503 17:15:13.818454 21517 layer_factory.hpp:77] Creating layer loss
I0503 17:15:13.818461 21517 net.cpp:94] Creating Layer loss
I0503 17:15:13.818465 21517 net.cpp:435] loss <- ip3
I0503 17:15:13.818470 21517 net.cpp:435] loss <- label
I0503 17:15:13.818475 21517 net.cpp:409] loss -> loss
I0503 17:15:13.818486 21517 layer_factory.hpp:77] Creating layer loss
…
I0503 17:15:13.818975 21517 solver.cpp:181] Creating test net (#0) specified by net file: ./protocol/dis_50_900_dimension.protocol_distribution
I0503 17:15:13.819002 21517 net.cpp:323] The NetState phase (1) differed from the phase (0) specified by a rule in layer parameters
I0503 17:15:13.819098 21517 net.cpp:52] Initializing net from parameters: 
state {
  phase: TEST
}
layer {
  name: "intercept"
  type: "HDF5Data"
  top: "data"
  top: "label"
  include {
    phase: TEST
  }
  hdf5_data_param {
    source: "/home/purduethu/scratch/radon/d/deng106/CNNStatisticalModel/distributions/input/50_distributions_900_sample_size_test-distributions-path.txt"
    batch_size: 20
  }
}
layer {
  name: "conv1"
  type: "Convolution"
  bottom: "data"
  top: "conv1"
  param {
    lr_mult: 1
  }
  param {
    lr_mult: 2
  }
  convolution_param {
    num_output: 64
    pad: 2
    kernel_size: 5
    stride: 1
    weight_filler {
      type: "gaussian"
      std: 0.0001
    }
    bias_filler {
      type: "constant"
    }
  }
}
layer {
  name: "relu1"
  type: "ReLU"
  bottom: "conv1"
  top: "conv1"
}
layer {
  name: "conv2"
  type: "Convolution"
  bottom: "conv1"
  top: "conv2"
  param {
    lr_mult: 1
  }
  param {
    lr_mult: 2
  }
  convolution_param {
    num_output: 64
    pad: 2
    kernel_size: 5
    stride: 1
    weight_filler {
      type: "gaussian"
      std: 0.01
    }
    bias_filler {
      type: "constant"
    }
  }
}
layer {
  name: "relu2"
  type: "ReLU"
  bottom: "conv2"
  top: "conv2"
}
layer {
  name: "pool2"
  type: "Pooling"
  bottom: "conv2"
  top: "pool2"
  pooling_param {
    pool: MAX
    kernel_size: 3
    stride: 2
  }
}
layer {
  name: "conv3"
  type: "Convolution"
  bottom: "pool2"
  top: "conv3"
  param {
    lr_mult: 1
  }
  param {
    lr_mult: 2
  }
  convolution_param {
    num_output: 128
    pad: 2
    kernel_size: 5
    stride: 1
    weight_filler {
      type: "gaussian"
      std: 0.01
    }
    bias_filler {
      type: "constant"
    }
  }
}
layer {
  name: "relu3"
  type: "ReLU"
  bottom: "conv3"
  top: "conv3"
}
layer {
  name: "conv4"
  type: "Convolution"
  bottom: "conv3"
  top: "conv4"
  param {
    lr_mult: 1
  }
  param {
    lr_mult: 2
  }
  convolution_param {
    num_output: 128
    pad: 2
    kernel_size: 5
    stride: 1
    weight_filler {
      type: "gaussian"
      std: 0.01
    }
    bias_filler {
      type: "constant"
    }
  }
}
layer {
  name: "relu4"
  type: "ReLU"
  bottom: "conv4"
  top: "conv4"
}
layer {
  name: "conv5"
  type: "Convolution"
  bottom: "conv4"
  top: "conv5"
  param {
    lr_mult: 1
  }
  param {
    lr_mult: 2
  }
  convolution_param {
    num_output: 128
    pad: 2
    kernel_size: 5
    stride: 1
    weight_filler {
      type: "gaussian"
      std: 0.01
    }
    bias_filler {
      type: "constant"
    }
  }
}
layer {
  name: "relu5"
  type: "ReLU"
  bottom: "conv5"
  top: "conv5"
}
layer {
  name: "pool5"
  type: "Pooling"
  bottom: "conv5"
  top: "pool5"
  pooling_param {
    pool: AVE
    kernel_size: 3
    stride: 2
  }
}
layer {
  name: "ip1"
  type: "InnerProduct"
  bottom: "pool5"
  top: "ip1"
  param {
    lr_mult: 1
  }
  param {
    lr_mult: 2
  }
  inner_product_param {
    num_output: 1024
    weight_filler {
      type: "gaussian"
      std: 0.1
    }
    bias_filler {
      type: "constant"
    }
  }
}
layer {
  name: "ip2"
  type: "InnerProduct"
  bottom: "ip1"
  top: "ip2"
  param {
    lr_mult: 1
  }
  param {
    lr_mult: 2
  }
  inner_product_param {
    num_output: 512
    weight_filler {
      type: "gaussian"
      std: 0.1
    }
    bias_filler {
      type: "constant"
    }
  }
}
layer {
  name: "ip3"
  type: "InnerProduct"
  bottom: "ip2"
  top: "ip3"
  param {
    lr_mult: 1
  }
  param {
    lr_mult: 2
  }
  inner_product_param {
    num_output: 50
    weight_filler {
      type: "gaussian"
      std: 0.1
    }
    bias_filler {
      type: "constant"
    }
  }
}
layer {
  name: "accuracy"
  type: "Accuracy"
  bottom: "ip3"
  bottom: "label"
  top: "accuracy"
  include {
    phase: TEST
  }
}
layer {
  name: "loss"
  type: "SoftmaxWithLoss"
  bottom: "ip3"
  bottom: "label"
  top: "loss"
}
I0503 17:15:13.819169 21517 layer_factory.hpp:77] Creating layer intercept
I0503 17:15:13.819178 21517 net.cpp:94] Creating Layer intercept
I0503 17:15:13.819182 21517 net.cpp:409] intercept -> data
I0503 17:15:13.819190 21517 net.cpp:409] intercept -> label
I0503 17:15:13.819195 21517 hdf5_data_layer.cpp:79] Loading list of HDF5 filenames from: /home/purduethu/scratch/radon/d/deng106/CNNStatisticalModel/distributions/input/50_distributions_900_sample_size_test-distributions-path.txt
I0503 17:15:13.819216 21517 hdf5_data_layer.cpp:93] Number of HDF5 files: 1
I0503 17:15:14.173316 21517 net.cpp:144] Setting up intercept
I0503 17:15:14.173351 21517 net.cpp:151] Top shape: 20 1 30 30 (18000)
I0503 17:15:14.173357 21517 net.cpp:151] Top shape: 20 (20)
I0503 17:15:14.173359 21517 net.cpp:159] Memory required for data: 72080
I0503 17:15:14.173365 21517 layer_factory.hpp:77] Creating layer label_intercept_1_split
I0503 17:15:14.173385 21517 net.cpp:94] Creating Layer label_intercept_1_split
I0503 17:15:14.173390 21517 net.cpp:435] label_intercept_1_split <- label
I0503 17:15:14.173398 21517 net.cpp:409] label_intercept_1_split -> label_intercept_1_split_0
I0503 17:15:14.173413 21517 net.cpp:409] label_intercept_1_split -> label_intercept_1_split_1
I0503 17:15:14.173441 21517 net.cpp:144] Setting up label_intercept_1_split
I0503 17:15:14.173447 21517 net.cpp:151] Top shape: 20 (20)
I0503 17:15:14.173451 21517 net.cpp:151] Top shape: 20 (20)
I0503 17:15:14.173455 21517 net.cpp:159] Memory required for data: 72240
I0503 17:15:14.173458 21517 layer_factory.hpp:77] Creating layer conv1
I0503 17:15:14.173470 21517 net.cpp:94] Creating Layer conv1
I0503 17:15:14.173473 21517 net.cpp:435] conv1 <- data
I0503 17:15:14.173480 21517 net.cpp:409] conv1 -> conv1
I0503 17:15:14.174829 21517 net.cpp:144] Setting up conv1
I0503 17:15:14.174841 21517 net.cpp:151] Top shape: 20 64 30 30 (1152000)
I0503 17:15:14.174846 21517 net.cpp:159] Memory required for data: 4680240
I0503 17:15:14.174856 21517 layer_factory.hpp:77] Creating layer relu1
I0503 17:15:14.174863 21517 net.cpp:94] Creating Layer relu1
I0503 17:15:14.174867 21517 net.cpp:435] relu1 <- conv1
I0503 17:15:14.174871 21517 net.cpp:396] relu1 -> conv1 (in-place)
I0503 17:15:14.174880 21517 net.cpp:144] Setting up relu1
I0503 17:15:14.174885 21517 net.cpp:151] Top shape: 20 64 30 30 (1152000)
I0503 17:15:14.174887 21517 net.cpp:159] Memory required for data: 9288240
I0503 17:15:14.174890 21517 layer_factory.hpp:77] Creating layer conv2
I0503 17:15:14.174899 21517 net.cpp:94] Creating Layer conv2
I0503 17:15:14.174902 21517 net.cpp:435] conv2 <- conv1
I0503 17:15:14.174907 21517 net.cpp:409] conv2 -> conv2
I0503 17:15:14.181560 21517 net.cpp:144] Setting up conv2
I0503 17:15:14.181576 21517 net.cpp:151] Top shape: 20 64 30 30 (1152000)
I0503 17:15:14.181579 21517 net.cpp:159] Memory required for data: 13896240
I0503 17:15:14.181587 21517 layer_factory.hpp:77] Creating layer relu2
I0503 17:15:14.181594 21517 net.cpp:94] Creating Layer relu2
I0503 17:15:14.181598 21517 net.cpp:435] relu2 <- conv2
I0503 17:15:14.181603 21517 net.cpp:396] relu2 -> conv2 (in-place)
I0503 17:15:14.181610 21517 net.cpp:144] Setting up relu2
I0503 17:15:14.181614 21517 net.cpp:151] Top shape: 20 64 30 30 (1152000)
I0503 17:15:14.181617 21517 net.cpp:159] Memory required for data: 18504240
I0503 17:15:14.181622 21517 layer_factory.hpp:77] Creating layer pool2
I0503 17:15:14.181627 21517 net.cpp:94] Creating Layer pool2
I0503 17:15:14.181630 21517 net.cpp:435] pool2 <- conv2
I0503 17:15:14.181635 21517 net.cpp:409] pool2 -> pool2
I0503 17:15:14.181671 21517 net.cpp:144] Setting up pool2
I0503 17:15:14.181677 21517 net.cpp:151] Top shape: 20 64 15 15 (288000)
I0503 17:15:14.181680 21517 net.cpp:159] Memory required for data: 19656240
I0503 17:15:14.181684 21517 layer_factory.hpp:77] Creating layer conv3
I0503 17:15:14.181692 21517 net.cpp:94] Creating Layer conv3
I0503 17:15:14.181695 21517 net.cpp:435] conv3 <- pool2
I0503 17:15:14.181700 21517 net.cpp:409] conv3 -> conv3
I0503 17:15:14.189602 21517 net.cpp:144] Setting up conv3
I0503 17:15:14.189617 21517 net.cpp:151] Top shape: 20 128 15 15 (576000)
I0503 17:15:14.189622 21517 net.cpp:159] Memory required for data: 21960240
I0503 17:15:14.189630 21517 layer_factory.hpp:77] Creating layer relu3
I0503 17:15:14.189638 21517 net.cpp:94] Creating Layer relu3
I0503 17:15:14.189642 21517 net.cpp:435] relu3 <- conv3
I0503 17:15:14.189647 21517 net.cpp:396] relu3 -> conv3 (in-place)
I0503 17:15:14.189654 21517 net.cpp:144] Setting up relu3
I0503 17:15:14.189659 21517 net.cpp:151] Top shape: 20 128 15 15 (576000)
I0503 17:15:14.189662 21517 net.cpp:159] Memory required for data: 24264240
I0503 17:15:14.189666 21517 layer_factory.hpp:77] Creating layer conv4
I0503 17:15:14.189673 21517 net.cpp:94] Creating Layer conv4
I0503 17:15:14.189677 21517 net.cpp:435] conv4 <- conv3
I0503 17:15:14.189682 21517 net.cpp:409] conv4 -> conv4
I0503 17:15:14.205550 21517 net.cpp:144] Setting up conv4
I0503 17:15:14.205566 21517 net.cpp:151] Top shape: 20 128 15 15 (576000)
I0503 17:15:14.205570 21517 net.cpp:159] Memory required for data: 26568240
I0503 17:15:14.205577 21517 layer_factory.hpp:77] Creating layer relu4
I0503 17:15:14.205584 21517 net.cpp:94] Creating Layer relu4
I0503 17:15:14.205591 21517 net.cpp:435] relu4 <- conv4
I0503 17:15:14.205596 21517 net.cpp:396] relu4 -> conv4 (in-place)
I0503 17:15:14.205603 21517 net.cpp:144] Setting up relu4
I0503 17:15:14.205608 21517 net.cpp:151] Top shape: 20 128 15 15 (576000)
I0503 17:15:14.205611 21517 net.cpp:159] Memory required for data: 28872240
I0503 17:15:14.205615 21517 layer_factory.hpp:77] Creating layer conv5
I0503 17:15:14.205623 21517 net.cpp:94] Creating Layer conv5
I0503 17:15:14.205626 21517 net.cpp:435] conv5 <- conv4
I0503 17:15:14.205631 21517 net.cpp:409] conv5 -> conv5
I0503 17:15:14.221094 21517 net.cpp:144] Setting up conv5
I0503 17:15:14.221109 21517 net.cpp:151] Top shape: 20 128 15 15 (576000)
I0503 17:15:14.221114 21517 net.cpp:159] Memory required for data: 31176240
I0503 17:15:14.221122 21517 layer_factory.hpp:77] Creating layer relu5
I0503 17:15:14.221130 21517 net.cpp:94] Creating Layer relu5
I0503 17:15:14.221134 21517 net.cpp:435] relu5 <- conv5
I0503 17:15:14.221139 21517 net.cpp:396] relu5 -> conv5 (in-place)
I0503 17:15:14.221146 21517 net.cpp:144] Setting up relu5
I0503 17:15:14.221151 21517 net.cpp:151] Top shape: 20 128 15 15 (576000)
I0503 17:15:14.221154 21517 net.cpp:159] Memory required for data: 33480240
I0503 17:15:14.221158 21517 layer_factory.hpp:77] Creating layer pool5
I0503 17:15:14.221163 21517 net.cpp:94] Creating Layer pool5
I0503 17:15:14.221166 21517 net.cpp:435] pool5 <- conv5
I0503 17:15:14.221170 21517 net.cpp:409] pool5 -> pool5
I0503 17:15:14.221199 21517 net.cpp:144] Setting up pool5
I0503 17:15:14.221205 21517 net.cpp:151] Top shape: 20 128 7 7 (125440)
I0503 17:15:14.221209 21517 net.cpp:159] Memory required for data: 33982000
I0503 17:15:14.221212 21517 layer_factory.hpp:77] Creating layer ip1
I0503 17:15:14.221220 21517 net.cpp:94] Creating Layer ip1
I0503 17:15:14.221222 21517 net.cpp:435] ip1 <- pool5
I0503 17:15:14.221227 21517 net.cpp:409] ip1 -> ip1
I0503 17:15:14.378815 21517 net.cpp:144] Setting up ip1
I0503 17:15:14.378850 21517 net.cpp:151] Top shape: 20 1024 (20480)
I0503 17:15:14.378854 21517 net.cpp:159] Memory required for data: 34063920
I0503 17:15:14.378862 21517 layer_factory.hpp:77] Creating layer ip2
I0503 17:15:14.378875 21517 net.cpp:94] Creating Layer ip2
I0503 17:15:14.378880 21517 net.cpp:435] ip2 <- ip1
I0503 17:15:14.378886 21517 net.cpp:409] ip2 -> ip2
I0503 17:15:14.391896 21517 net.cpp:144] Setting up ip2
I0503 17:15:14.391911 21517 net.cpp:151] Top shape: 20 512 (10240)
I0503 17:15:14.391914 21517 net.cpp:159] Memory required for data: 34104880
I0503 17:15:14.391921 21517 layer_factory.hpp:77] Creating layer ip3
I0503 17:15:14.391932 21517 net.cpp:94] Creating Layer ip3
I0503 17:15:14.391935 21517 net.cpp:435] ip3 <- ip2
I0503 17:15:14.391942 21517 net.cpp:409] ip3 -> ip3
I0503 17:15:14.392642 21517 net.cpp:144] Setting up ip3
I0503 17:15:14.392650 21517 net.cpp:151] Top shape: 20 50 (1000)
I0503 17:15:14.392654 21517 net.cpp:159] Memory required for data: 34108880
I0503 17:15:14.392659 21517 layer_factory.hpp:77] Creating layer ip3_ip3_0_split
I0503 17:15:14.392665 21517 net.cpp:94] Creating Layer ip3_ip3_0_split
I0503 17:15:14.392669 21517 net.cpp:435] ip3_ip3_0_split <- ip3
I0503 17:15:14.392674 21517 net.cpp:409] ip3_ip3_0_split -> ip3_ip3_0_split_0
I0503 17:15:14.392679 21517 net.cpp:409] ip3_ip3_0_split -> ip3_ip3_0_split_1
I0503 17:15:14.392709 21517 net.cpp:144] Setting up ip3_ip3_0_split
I0503 17:15:14.392714 21517 net.cpp:151] Top shape: 20 50 (1000)
I0503 17:15:14.392719 21517 net.cpp:151] Top shape: 20 50 (1000)
I0503 17:15:14.392721 21517 net.cpp:159] Memory required for data: 34116880
I0503 17:15:14.392724 21517 layer_factory.hpp:77] Creating layer accuracy
I0503 17:15:14.392730 21517 net.cpp:94] Creating Layer accuracy
I0503 17:15:14.392735 21517 net.cpp:435] accuracy <- ip3_ip3_0_split_0
I0503 17:15:14.392738 21517 net.cpp:435] accuracy <- label_intercept_1_split_0
I0503 17:15:14.392745 21517 net.cpp:409] accuracy -> accuracy
…
