…
I0504 05:02:00.887620 24105 net.cpp:323] The NetState phase (0) differed from the phase (1) specified by a rule in layer intercept
I0504 05:02:00.887636 24105 net.cpp:323] The NetState phase (0) differed from the phase (1) specified by a rule in layer loss
I0504 05:02:00.887724 24105 net.cpp:52] Initializing net from parameters: 
state {
  phase: TRAIN
}
layer {
  name: "parameters"
  type: "HDF5Data"
  top: "data"
  top: "label"
  include {
    phase: TRAIN
  }
  hdf5_data_param {
    source: "/home/purduethu/scratch/radon/d/deng106/CNNStatisticalModel/distributions/input/20_distributions_100_sample_size_train-parameters-path.txt"
    batch_size: 20
  }
}
layer {
  name: "conv1"
  type: "Convolution"
  bottom: "data"
  top: "conv1"
  param {
    lr_mult: 1
  }
  param {
    lr_mult: 2
  }
  convolution_param {
    num_output: 64
    pad: 2
    kernel_size: 5
    stride: 1
    weight_filler {
      type: "gaussian"
      std: 0.0001
    }
    bias_filler {
      type: "constant"
    }
  }
}
layer {
  name: "relu1"
  type: "ReLU"
  bottom: "conv1"
  top: "conv1"
}
layer {
  name: "conv2"
  type: "Convolution"
  bottom: "conv1"
  top: "conv2"
  param {
    lr_mult: 1
  }
  param {
    lr_mult: 2
  }
  convolution_param {
    num_output: 64
    pad: 2
    kernel_size: 5
    stride: 1
    weight_filler {
      type: "gaussian"
      std: 0.01
    }
    bias_filler {
      type: "constant"
    }
  }
}
layer {
  name: "relu2"
  type: "ReLU"
  bottom: "conv2"
  top: "conv2"
}
layer {
  name: "pool2"
  type: "Pooling"
  bottom: "conv2"
  top: "pool2"
  pooling_param {
    pool: MAX
    kernel_size: 3
    stride: 2
  }
}
layer {
  name: "conv3"
  type: "Convolution"
  bottom: "pool2"
  top: "conv3"
  param {
    lr_mult: 1
  }
  param {
    lr_mult: 2
  }
  convolution_param {
    num_output: 128
    pad: 2
    kernel_size: 5
    stride: 1
    weight_filler {
      type: "gaussian"
      std: 0.01
    }
    bias_filler {
      type: "constant"
    }
  }
}
layer {
  name: "relu3"
  type: "ReLU"
  bottom: "conv3"
  top: "conv3"
}
layer {
  name: "conv4"
  type: "Convolution"
  bottom: "conv3"
  top: "conv4"
  param {
    lr_mult: 1
  }
  param {
    lr_mult: 2
  }
  convolution_param {
    num_output: 128
    pad: 2
    kernel_size: 5
    stride: 1
    weight_filler {
      type: "gaussian"
      std: 0.01
    }
    bias_filler {
      type: "constant"
    }
  }
}
layer {
  name: "relu4"
  type: "ReLU"
  bottom: "conv4"
  top: "conv4"
}
layer {
  name: "conv5"
  type: "Convolution"
  bottom: "conv4"
  top: "conv5"
  param {
    lr_mult: 1
  }
  param {
    lr_mult: 2
  }
  convolution_param {
    num_output: 128
    pad: 2
    kernel_size: 5
    stride: 1
    weight_filler {
      type: "gaussian"
      std: 0.01
    }
    bias_filler {
      type: "constant"
    }
  }
}
layer {
  name: "relu5"
  type: "ReLU"
  bottom: "conv5"
  top: "conv5"
}
layer {
  name: "pool5"
  type: "Pooling"
  bottom: "conv5"
  top: "pool5"
  pooling_param {
    pool: AVE
    kernel_size: 3
    stride: 2
  }
}
layer {
  name: "ip1"
  type: "InnerProduct"
  bottom: "pool5"
  top: "ip1"
  param {
    lr_mult: 1
  }
  param {
    lr_mult: 2
  }
  inner_product_param {
    num_output: 1024
    weight_filler {
      type: "gaussian"
      std: 0.1
    }
    bias_filler {
      type: "constant"
    }
  }
}
layer {
  name: "ip2"
  type: "InnerProduct"
  bottom: "ip1"
  top: "ip2"
  param {
    lr_mult: 1
  }
  param {
    lr_mult: 2
  }
  inner_product_param {
    num_output: 512
    weight_filler {
      type: "gaussian"
      std: 0.1
    }
    bias_filler {
      type: "constant"
    }
  }
}
layer {
  name: "ip3"
  type: "InnerProduct"
  bottom: "ip2"
  top: "ip3"
  param {
    lr_mult: 1
  }
  param {
    lr_mult: 2
  }
  inner_product_param {
    num_output: 1
    weight_filler {
      type: "gaussian"
      std: 0.1
    }
    bias_filler {
      type: "constant"
    }
  }
}
layer {
  name: "loss"
  type: "HuberLoss"
  bottom: "ip3"
  bottom: "label"
  top: "loss"
  include {
    phase: TRAIN
  }
}
I0504 05:02:00.887797 24105 layer_factory.hpp:77] Creating layer parameters
I0504 05:02:00.887811 24105 net.cpp:94] Creating Layer parameters
I0504 05:02:00.887817 24105 net.cpp:409] parameters -> data
I0504 05:02:00.887835 24105 net.cpp:409] parameters -> label
I0504 05:02:00.887846 24105 hdf5_data_layer.cpp:79] Loading list of HDF5 filenames from: /home/purduethu/scratch/radon/d/deng106/CNNStatisticalModel/distributions/input/20_distributions_100_sample_size_train-parameters-path.txt
I0504 05:02:00.887868 24105 hdf5_data_layer.cpp:93] Number of HDF5 files: 1
I0504 05:02:00.888461 24105 hdf5.cpp:32] Datatype class: H5T_FLOAT
I0504 05:02:00.953701 24105 net.cpp:144] Setting up parameters
I0504 05:02:00.953732 24105 net.cpp:151] Top shape: 20 1 10 10 (2000)
I0504 05:02:00.953737 24105 net.cpp:151] Top shape: 20 (20)
I0504 05:02:00.953742 24105 net.cpp:159] Memory required for data: 8080
I0504 05:02:00.953748 24105 layer_factory.hpp:77] Creating layer conv1
I0504 05:02:00.953779 24105 net.cpp:94] Creating Layer conv1
I0504 05:02:00.953786 24105 net.cpp:435] conv1 <- data
I0504 05:02:00.953797 24105 net.cpp:409] conv1 -> conv1
I0504 05:02:00.957566 24105 net.cpp:144] Setting up conv1
I0504 05:02:00.957581 24105 net.cpp:151] Top shape: 20 64 10 10 (128000)
I0504 05:02:00.957587 24105 net.cpp:159] Memory required for data: 520080
I0504 05:02:00.957597 24105 layer_factory.hpp:77] Creating layer relu1
I0504 05:02:00.957605 24105 net.cpp:94] Creating Layer relu1
I0504 05:02:00.957609 24105 net.cpp:435] relu1 <- conv1
I0504 05:02:00.957613 24105 net.cpp:396] relu1 -> conv1 (in-place)
I0504 05:02:00.957625 24105 net.cpp:144] Setting up relu1
I0504 05:02:00.957631 24105 net.cpp:151] Top shape: 20 64 10 10 (128000)
I0504 05:02:00.957634 24105 net.cpp:159] Memory required for data: 1032080
I0504 05:02:00.957638 24105 layer_factory.hpp:77] Creating layer conv2
I0504 05:02:00.957645 24105 net.cpp:94] Creating Layer conv2
I0504 05:02:00.957648 24105 net.cpp:435] conv2 <- conv1
I0504 05:02:00.957653 24105 net.cpp:409] conv2 -> conv2
I0504 05:02:00.962777 24105 net.cpp:144] Setting up conv2
I0504 05:02:00.962791 24105 net.cpp:151] Top shape: 20 64 10 10 (128000)
I0504 05:02:00.962795 24105 net.cpp:159] Memory required for data: 1544080
I0504 05:02:00.962803 24105 layer_factory.hpp:77] Creating layer relu2
I0504 05:02:00.962810 24105 net.cpp:94] Creating Layer relu2
I0504 05:02:00.962815 24105 net.cpp:435] relu2 <- conv2
I0504 05:02:00.962818 24105 net.cpp:396] relu2 -> conv2 (in-place)
I0504 05:02:00.962826 24105 net.cpp:144] Setting up relu2
I0504 05:02:00.962831 24105 net.cpp:151] Top shape: 20 64 10 10 (128000)
I0504 05:02:00.962833 24105 net.cpp:159] Memory required for data: 2056080
I0504 05:02:00.962837 24105 layer_factory.hpp:77] Creating layer pool2
I0504 05:02:00.962844 24105 net.cpp:94] Creating Layer pool2
I0504 05:02:00.962854 24105 net.cpp:435] pool2 <- conv2
I0504 05:02:00.962859 24105 net.cpp:409] pool2 -> pool2
I0504 05:02:00.962903 24105 net.cpp:144] Setting up pool2
I0504 05:02:00.962910 24105 net.cpp:151] Top shape: 20 64 5 5 (32000)
I0504 05:02:00.962913 24105 net.cpp:159] Memory required for data: 2184080
I0504 05:02:00.962918 24105 layer_factory.hpp:77] Creating layer conv3
I0504 05:02:00.962924 24105 net.cpp:94] Creating Layer conv3
I0504 05:02:00.962929 24105 net.cpp:435] conv3 <- pool2
I0504 05:02:00.962934 24105 net.cpp:409] conv3 -> conv3
I0504 05:02:00.971024 24105 net.cpp:144] Setting up conv3
I0504 05:02:00.971038 24105 net.cpp:151] Top shape: 20 128 5 5 (64000)
I0504 05:02:00.971042 24105 net.cpp:159] Memory required for data: 2440080
I0504 05:02:00.971050 24105 layer_factory.hpp:77] Creating layer relu3
I0504 05:02:00.971055 24105 net.cpp:94] Creating Layer relu3
I0504 05:02:00.971060 24105 net.cpp:435] relu3 <- conv3
I0504 05:02:00.971065 24105 net.cpp:396] relu3 -> conv3 (in-place)
I0504 05:02:00.971071 24105 net.cpp:144] Setting up relu3
I0504 05:02:00.971076 24105 net.cpp:151] Top shape: 20 128 5 5 (64000)
I0504 05:02:00.971079 24105 net.cpp:159] Memory required for data: 2696080
I0504 05:02:00.971082 24105 layer_factory.hpp:77] Creating layer conv4
I0504 05:02:00.971091 24105 net.cpp:94] Creating Layer conv4
I0504 05:02:00.971094 24105 net.cpp:435] conv4 <- conv3
I0504 05:02:00.971098 24105 net.cpp:409] conv4 -> conv4
I0504 05:02:00.985721 24105 net.cpp:144] Setting up conv4
I0504 05:02:00.985735 24105 net.cpp:151] Top shape: 20 128 5 5 (64000)
I0504 05:02:00.985739 24105 net.cpp:159] Memory required for data: 2952080
I0504 05:02:00.985745 24105 layer_factory.hpp:77] Creating layer relu4
I0504 05:02:00.985751 24105 net.cpp:94] Creating Layer relu4
I0504 05:02:00.985755 24105 net.cpp:435] relu4 <- conv4
I0504 05:02:00.985760 24105 net.cpp:396] relu4 -> conv4 (in-place)
I0504 05:02:00.985767 24105 net.cpp:144] Setting up relu4
I0504 05:02:00.985771 24105 net.cpp:151] Top shape: 20 128 5 5 (64000)
I0504 05:02:00.985775 24105 net.cpp:159] Memory required for data: 3208080
I0504 05:02:00.985779 24105 layer_factory.hpp:77] Creating layer conv5
I0504 05:02:00.985785 24105 net.cpp:94] Creating Layer conv5
I0504 05:02:00.985790 24105 net.cpp:435] conv5 <- conv4
I0504 05:02:00.985795 24105 net.cpp:409] conv5 -> conv5
I0504 05:02:00.999785 24105 net.cpp:144] Setting up conv5
I0504 05:02:00.999800 24105 net.cpp:151] Top shape: 20 128 5 5 (64000)
I0504 05:02:00.999804 24105 net.cpp:159] Memory required for data: 3464080
I0504 05:02:00.999812 24105 layer_factory.hpp:77] Creating layer relu5
I0504 05:02:00.999819 24105 net.cpp:94] Creating Layer relu5
I0504 05:02:00.999822 24105 net.cpp:435] relu5 <- conv5
I0504 05:02:00.999827 24105 net.cpp:396] relu5 -> conv5 (in-place)
I0504 05:02:00.999835 24105 net.cpp:144] Setting up relu5
I0504 05:02:00.999840 24105 net.cpp:151] Top shape: 20 128 5 5 (64000)
I0504 05:02:00.999842 24105 net.cpp:159] Memory required for data: 3720080
I0504 05:02:00.999845 24105 layer_factory.hpp:77] Creating layer pool5
I0504 05:02:00.999850 24105 net.cpp:94] Creating Layer pool5
I0504 05:02:00.999855 24105 net.cpp:435] pool5 <- conv5
I0504 05:02:00.999858 24105 net.cpp:409] pool5 -> pool5
I0504 05:02:00.999892 24105 net.cpp:144] Setting up pool5
I0504 05:02:00.999899 24105 net.cpp:151] Top shape: 20 128 2 2 (10240)
I0504 05:02:00.999903 24105 net.cpp:159] Memory required for data: 3761040
I0504 05:02:00.999907 24105 layer_factory.hpp:77] Creating layer ip1
I0504 05:02:00.999917 24105 net.cpp:94] Creating Layer ip1
I0504 05:02:00.999920 24105 net.cpp:435] ip1 <- pool5
I0504 05:02:00.999925 24105 net.cpp:409] ip1 -> ip1
I0504 05:02:01.013315 24105 net.cpp:144] Setting up ip1
I0504 05:02:01.013329 24105 net.cpp:151] Top shape: 20 1024 (20480)
I0504 05:02:01.013334 24105 net.cpp:159] Memory required for data: 3842960
I0504 05:02:01.013339 24105 layer_factory.hpp:77] Creating layer ip2
I0504 05:02:01.013346 24105 net.cpp:94] Creating Layer ip2
I0504 05:02:01.013350 24105 net.cpp:435] ip2 <- ip1
I0504 05:02:01.013360 24105 net.cpp:409] ip2 -> ip2
I0504 05:02:01.026085 24105 net.cpp:144] Setting up ip2
I0504 05:02:01.026098 24105 net.cpp:151] Top shape: 20 512 (10240)
I0504 05:02:01.026103 24105 net.cpp:159] Memory required for data: 3883920
I0504 05:02:01.026108 24105 layer_factory.hpp:77] Creating layer ip3
I0504 05:02:01.026114 24105 net.cpp:94] Creating Layer ip3
I0504 05:02:01.026118 24105 net.cpp:435] ip3 <- ip2
I0504 05:02:01.026124 24105 net.cpp:409] ip3 -> ip3
I0504 05:02:01.026196 24105 net.cpp:144] Setting up ip3
I0504 05:02:01.026203 24105 net.cpp:151] Top shape: 20 1 (20)
I0504 05:02:01.026214 24105 net.cpp:159] Memory required for data: 3884000
I0504 05:02:01.026219 24105 layer_factory.hpp:77] Creating layer loss
I0504 05:02:01.026232 24105 net.cpp:94] Creating Layer loss
I0504 05:02:01.026235 24105 net.cpp:435] loss <- ip3
I0504 05:02:01.026239 24105 net.cpp:435] loss <- label
I0504 05:02:01.026244 24105 net.cpp:409] loss -> loss
I0504 05:02:01.026279 24105 net.cpp:144] Setting up loss
…
