…
I0507 01:41:27.505338 30741 net.cpp:323] The NetState phase (0) differed from the phase (1) specified by a rule in layer intercept
I0507 01:41:27.505354 30741 net.cpp:323] The NetState phase (0) differed from the phase (1) specified by a rule in layer loss
I0507 01:41:27.505434 30741 net.cpp:52] Initializing net from parameters: 
state {
  phase: TRAIN
}
layer {
  name: "parameters"
  type: "HDF5Data"
  top: "data"
  top: "label"
  include {
    phase: TRAIN
  }
  hdf5_data_param {
    source: "/home/purduethu/scratch/radon/d/deng106/CNNStatisticalModel/distributions/input/50_distributions_100_sample_size_train-parameters-path.txt"
    batch_size: 20
  }
}
layer {
  name: "conv1"
  type: "Convolution"
  bottom: "data"
  top: "conv1"
  param {
    lr_mult: 1
  }
  param {
    lr_mult: 2
  }
  convolution_param {
    num_output: 64
    pad: 2
    kernel_size: 5
    stride: 1
    weight_filler {
      type: "gaussian"
      std: 0.0001
    }
    bias_filler {
      type: "constant"
    }
  }
}
layer {
  name: "relu1"
  type: "ReLU"
  bottom: "conv1"
  top: "conv1"
}
layer {
  name: "conv2"
  type: "Convolution"
  bottom: "conv1"
  top: "conv2"
  param {
    lr_mult: 1
  }
  param {
    lr_mult: 2
  }
  convolution_param {
    num_output: 64
    pad: 2
    kernel_size: 5
    stride: 1
    weight_filler {
      type: "gaussian"
      std: 0.01
    }
    bias_filler {
      type: "constant"
    }
  }
}
layer {
  name: "relu2"
  type: "ReLU"
  bottom: "conv2"
  top: "conv2"
}
layer {
  name: "pool2"
  type: "Pooling"
  bottom: "conv2"
  top: "pool2"
  pooling_param {
    pool: MAX
    kernel_size: 3
    stride: 2
  }
}
layer {
  name: "conv3"
  type: "Convolution"
  bottom: "pool2"
  top: "conv3"
  param {
    lr_mult: 1
  }
  param {
    lr_mult: 2
  }
  convolution_param {
    num_output: 64
    pad: 2
    kernel_size: 5
    stride: 1
    weight_filler {
      type: "gaussian"
      std: 0.01
    }
    bias_filler {
      type: "constant"
    }
  }
}
layer {
  name: "relu3"
  type: "ReLU"
  bottom: "conv3"
  top: "conv3"
}
layer {
  name: "conv4"
  type: "Convolution"
  bottom: "conv3"
  top: "conv4"
  param {
    lr_mult: 1
  }
  param {
    lr_mult: 2
  }
  convolution_param {
    num_output: 64
    pad: 2
    kernel_size: 5
    stride: 1
    weight_filler {
      type: "gaussian"
      std: 0.01
    }
    bias_filler {
      type: "constant"
    }
  }
}
layer {
  name: "relu4"
  type: "ReLU"
  bottom: "conv4"
  top: "conv4"
}
layer {
  name: "conv5"
  type: "Convolution"
  bottom: "conv4"
  top: "conv5"
  param {
    lr_mult: 1
  }
  param {
    lr_mult: 2
  }
  convolution_param {
    num_output: 64
    pad: 2
    kernel_size: 5
    stride: 1
    weight_filler {
      type: "gaussian"
      std: 0.01
    }
    bias_filler {
      type: "constant"
    }
  }
}
layer {
  name: "relu5"
  type: "ReLU"
  bottom: "conv5"
  top: "conv5"
}
layer {
  name: "pool5"
  type: "Pooling"
  bottom: "conv5"
  top: "pool5"
  pooling_param {
    pool: AVE
    kernel_size: 3
    stride: 2
  }
}
layer {
  name: "ip1"
  type: "InnerProduct"
  bottom: "pool5"
  top: "ip1"
  param {
    lr_mult: 1
  }
  param {
    lr_mult: 2
  }
  inner_product_param {
    num_output: 64
    weight_filler {
      type: "gaussian"
      std: 0.1
    }
    bias_filler {
      type: "constant"
    }
  }
}
layer {
  name: "ip2"
  type: "InnerProduct"
  bottom: "ip1"
  top: "ip2"
  param {
    lr_mult: 1
  }
  param {
    lr_mult: 2
  }
  inner_product_param {
    num_output: 64
    weight_filler {
      type: "gaussian"
      std: 0.1
    }
    bias_filler {
      type: "constant"
    }
  }
}
layer {
  name: "ip3"
  type: "InnerProduct"
  bottom: "ip2"
  top: "ip3"
  param {
    lr_mult: 1
  }
  param {
    lr_mult: 2
  }
  inner_product_param {
    num_output: 1
    weight_filler {
      type: "gaussian"
      std: 0.1
    }
    bias_filler {
      type: "constant"
    }
  }
}
layer {
  name: "loss"
  type: "HuberLoss"
  bottom: "ip3"
  bottom: "label"
  top: "loss"
  include {
    phase: TRAIN
  }
}
I0507 01:41:27.505486 30741 layer_factory.hpp:77] Creating layer parameters
I0507 01:41:27.505503 30741 net.cpp:94] Creating Layer parameters
I0507 01:41:27.505507 30741 net.cpp:409] parameters -> data
I0507 01:41:27.505517 30741 net.cpp:409] parameters -> label
I0507 01:41:27.505522 30741 hdf5_data_layer.cpp:79] Loading list of HDF5 filenames from: /home/purduethu/scratch/radon/d/deng106/CNNStatisticalModel/distributions/input/50_distributions_100_sample_size_train-parameters-path.txt
I0507 01:41:27.505537 30741 hdf5_data_layer.cpp:93] Number of HDF5 files: 1
I0507 01:41:27.506078 30741 hdf5.cpp:32] Datatype class: H5T_FLOAT
I0507 01:41:27.668184 30741 net.cpp:144] Setting up parameters
I0507 01:41:27.668216 30741 net.cpp:151] Top shape: 20 1 10 10 (2000)
I0507 01:41:27.668221 30741 net.cpp:151] Top shape: 20 (20)
I0507 01:41:27.668225 30741 net.cpp:159] Memory required for data: 8080
I0507 01:41:27.668231 30741 layer_factory.hpp:77] Creating layer conv1
I0507 01:41:27.668246 30741 net.cpp:94] Creating Layer conv1
I0507 01:41:27.668251 30741 net.cpp:435] conv1 <- data
I0507 01:41:27.668256 30741 net.cpp:409] conv1 -> conv1
I0507 01:41:27.672473 30741 net.cpp:144] Setting up conv1
I0507 01:41:27.672489 30741 net.cpp:151] Top shape: 20 64 10 10 (128000)
I0507 01:41:27.672493 30741 net.cpp:159] Memory required for data: 520080
I0507 01:41:27.672504 30741 layer_factory.hpp:77] Creating layer relu1
I0507 01:41:27.672511 30741 net.cpp:94] Creating Layer relu1
I0507 01:41:27.672515 30741 net.cpp:435] relu1 <- conv1
I0507 01:41:27.672519 30741 net.cpp:396] relu1 -> conv1 (in-place)
I0507 01:41:27.672528 30741 net.cpp:144] Setting up relu1
I0507 01:41:27.672531 30741 net.cpp:151] Top shape: 20 64 10 10 (128000)
I0507 01:41:27.672534 30741 net.cpp:159] Memory required for data: 1032080
I0507 01:41:27.672538 30741 layer_factory.hpp:77] Creating layer conv2
I0507 01:41:27.672545 30741 net.cpp:94] Creating Layer conv2
I0507 01:41:27.672549 30741 net.cpp:435] conv2 <- conv1
I0507 01:41:27.672569 30741 net.cpp:409] conv2 -> conv2
I0507 01:41:27.678551 30741 net.cpp:144] Setting up conv2
I0507 01:41:27.678565 30741 net.cpp:151] Top shape: 20 64 10 10 (128000)
I0507 01:41:27.678568 30741 net.cpp:159] Memory required for data: 1544080
I0507 01:41:27.678576 30741 layer_factory.hpp:77] Creating layer relu2
I0507 01:41:27.678583 30741 net.cpp:94] Creating Layer relu2
I0507 01:41:27.678587 30741 net.cpp:435] relu2 <- conv2
I0507 01:41:27.678591 30741 net.cpp:396] relu2 -> conv2 (in-place)
I0507 01:41:27.678598 30741 net.cpp:144] Setting up relu2
I0507 01:41:27.678602 30741 net.cpp:151] Top shape: 20 64 10 10 (128000)
I0507 01:41:27.678606 30741 net.cpp:159] Memory required for data: 2056080
I0507 01:41:27.678608 30741 layer_factory.hpp:77] Creating layer pool2
I0507 01:41:27.678614 30741 net.cpp:94] Creating Layer pool2
I0507 01:41:27.678617 30741 net.cpp:435] pool2 <- conv2
I0507 01:41:27.678622 30741 net.cpp:409] pool2 -> pool2
I0507 01:41:27.678679 30741 net.cpp:144] Setting up pool2
I0507 01:41:27.678686 30741 net.cpp:151] Top shape: 20 64 5 5 (32000)
I0507 01:41:27.678690 30741 net.cpp:159] Memory required for data: 2184080
I0507 01:41:27.678694 30741 layer_factory.hpp:77] Creating layer conv3
I0507 01:41:27.678700 30741 net.cpp:94] Creating Layer conv3
I0507 01:41:27.678704 30741 net.cpp:435] conv3 <- pool2
I0507 01:41:27.678715 30741 net.cpp:409] conv3 -> conv3
I0507 01:41:27.683496 30741 net.cpp:144] Setting up conv3
I0507 01:41:27.683509 30741 net.cpp:151] Top shape: 20 64 5 5 (32000)
I0507 01:41:27.683513 30741 net.cpp:159] Memory required for data: 2312080
I0507 01:41:27.683521 30741 layer_factory.hpp:77] Creating layer relu3
I0507 01:41:27.683527 30741 net.cpp:94] Creating Layer relu3
I0507 01:41:27.683531 30741 net.cpp:435] relu3 <- conv3
I0507 01:41:27.683534 30741 net.cpp:396] relu3 -> conv3 (in-place)
I0507 01:41:27.683542 30741 net.cpp:144] Setting up relu3
I0507 01:41:27.683545 30741 net.cpp:151] Top shape: 20 64 5 5 (32000)
I0507 01:41:27.683548 30741 net.cpp:159] Memory required for data: 2440080
I0507 01:41:27.683552 30741 layer_factory.hpp:77] Creating layer conv4
I0507 01:41:27.683559 30741 net.cpp:94] Creating Layer conv4
I0507 01:41:27.683562 30741 net.cpp:435] conv4 <- conv3
I0507 01:41:27.683568 30741 net.cpp:409] conv4 -> conv4
I0507 01:41:27.687885 30741 net.cpp:144] Setting up conv4
I0507 01:41:27.687897 30741 net.cpp:151] Top shape: 20 64 5 5 (32000)
I0507 01:41:27.687901 30741 net.cpp:159] Memory required for data: 2568080
I0507 01:41:27.687907 30741 layer_factory.hpp:77] Creating layer relu4
I0507 01:41:27.687913 30741 net.cpp:94] Creating Layer relu4
I0507 01:41:27.687916 30741 net.cpp:435] relu4 <- conv4
I0507 01:41:27.687921 30741 net.cpp:396] relu4 -> conv4 (in-place)
I0507 01:41:27.687927 30741 net.cpp:144] Setting up relu4
I0507 01:41:27.687932 30741 net.cpp:151] Top shape: 20 64 5 5 (32000)
I0507 01:41:27.687933 30741 net.cpp:159] Memory required for data: 2696080
I0507 01:41:27.687937 30741 layer_factory.hpp:77] Creating layer conv5
I0507 01:41:27.687944 30741 net.cpp:94] Creating Layer conv5
I0507 01:41:27.687947 30741 net.cpp:435] conv5 <- conv4
I0507 01:41:27.687952 30741 net.cpp:409] conv5 -> conv5
I0507 01:41:27.692749 30741 net.cpp:144] Setting up conv5
I0507 01:41:27.692761 30741 net.cpp:151] Top shape: 20 64 5 5 (32000)
I0507 01:41:27.692764 30741 net.cpp:159] Memory required for data: 2824080
I0507 01:41:27.692773 30741 layer_factory.hpp:77] Creating layer relu5
I0507 01:41:27.692778 30741 net.cpp:94] Creating Layer relu5
I0507 01:41:27.692782 30741 net.cpp:435] relu5 <- conv5
I0507 01:41:27.692786 30741 net.cpp:396] relu5 -> conv5 (in-place)
I0507 01:41:27.692793 30741 net.cpp:144] Setting up relu5
I0507 01:41:27.692797 30741 net.cpp:151] Top shape: 20 64 5 5 (32000)
I0507 01:41:27.692800 30741 net.cpp:159] Memory required for data: 2952080
I0507 01:41:27.692803 30741 layer_factory.hpp:77] Creating layer pool5
I0507 01:41:27.692808 30741 net.cpp:94] Creating Layer pool5
I0507 01:41:27.692811 30741 net.cpp:435] pool5 <- conv5
I0507 01:41:27.692816 30741 net.cpp:409] pool5 -> pool5
I0507 01:41:27.692854 30741 net.cpp:144] Setting up pool5
I0507 01:41:27.692862 30741 net.cpp:151] Top shape: 20 64 2 2 (5120)
I0507 01:41:27.692864 30741 net.cpp:159] Memory required for data: 2972560
I0507 01:41:27.692867 30741 layer_factory.hpp:77] Creating layer ip1
I0507 01:41:27.692878 30741 net.cpp:94] Creating Layer ip1
I0507 01:41:27.692880 30741 net.cpp:435] ip1 <- pool5
I0507 01:41:27.692885 30741 net.cpp:409] ip1 -> ip1
I0507 01:41:27.694226 30741 net.cpp:144] Setting up ip1
I0507 01:41:27.694238 30741 net.cpp:151] Top shape: 20 64 (1280)
I0507 01:41:27.694242 30741 net.cpp:159] Memory required for data: 2977680
I0507 01:41:27.694248 30741 layer_factory.hpp:77] Creating layer ip2
I0507 01:41:27.694255 30741 net.cpp:94] Creating Layer ip2
I0507 01:41:27.694258 30741 net.cpp:435] ip2 <- ip1
I0507 01:41:27.694263 30741 net.cpp:409] ip2 -> ip2
I0507 01:41:27.694479 30741 net.cpp:144] Setting up ip2
I0507 01:41:27.694486 30741 net.cpp:151] Top shape: 20 64 (1280)
I0507 01:41:27.694489 30741 net.cpp:159] Memory required for data: 2982800
I0507 01:41:27.694494 30741 layer_factory.hpp:77] Creating layer ip3
I0507 01:41:27.694500 30741 net.cpp:94] Creating Layer ip3
I0507 01:41:27.694504 30741 net.cpp:435] ip3 <- ip2
I0507 01:41:27.694509 30741 net.cpp:409] ip3 -> ip3
I0507 01:41:27.694622 30741 net.cpp:144] Setting up ip3
I0507 01:41:27.694628 30741 net.cpp:151] Top shape: 20 1 (20)
I0507 01:41:27.694631 30741 net.cpp:159] Memory required for data: 2982880
I0507 01:41:27.694636 30741 layer_factory.hpp:77] Creating layer loss
I0507 01:41:27.694648 30741 net.cpp:94] Creating Layer loss
I0507 01:41:27.694650 30741 net.cpp:435] loss <- ip3
I0507 01:41:27.694654 30741 net.cpp:435] loss <- label
I0507 01:41:27.694658 30741 net.cpp:409] loss -> loss
I0507 01:41:27.694711 30741 net.cpp:144] Setting up loss
…
I0507 01:41:27.756079 30741 net.cpp:323] The NetState phase (0) differed from the phase (1) specified by a rule in layer intercept
I0507 01:41:27.756094 30741 net.cpp:323] The NetState phase (0) differed from the phase (1) specified by a rule in layer accuracy
I0507 01:41:27.756178 30741 net.cpp:52] Initializing net from parameters: 
state {
  phase: TRAIN
}
layer {
  name: "parameters"
  type: "HDF5Data"
  top: "data"
  top: "label"
  include {
    phase: TRAIN
  }
  hdf5_data_param {
    source: "/home/purduethu/scratch/radon/d/deng106/CNNStatisticalModel/distributions/input/50_distributions_100_sample_size_train-distributions-path.txt"
    batch_size: 20
  }
}
layer {
  name: "conv1"
  type: "Convolution"
  bottom: "data"
  top: "conv1"
  param {
    lr_mult: 1
  }
  param {
    lr_mult: 2
  }
  convolution_param {
    num_output: 64
    pad: 2
    kernel_size: 5
    stride: 1
    weight_filler {
      type: "gaussian"
      std: 0.0001
    }
    bias_filler {
      type: "constant"
    }
  }
}
layer {
  name: "relu1"
  type: "ReLU"
  bottom: "conv1"
  top: "conv1"
}
layer {
  name: "conv2"
  type: "Convolution"
  bottom: "conv1"
  top: "conv2"
  param {
    lr_mult: 1
  }
  param {
    lr_mult: 2
  }
  convolution_param {
    num_output: 64
    pad: 2
    kernel_size: 5
    stride: 1
    weight_filler {
      type: "gaussian"
      std: 0.01
    }
    bias_filler {
      type: "constant"
    }
  }
}
layer {
  name: "relu2"
  type: "ReLU"
  bottom: "conv2"
  top: "conv2"
}
layer {
  name: "pool2"
  type: "Pooling"
  bottom: "conv2"
  top: "pool2"
  pooling_param {
    pool: MAX
    kernel_size: 3
    stride: 2
  }
}
layer {
  name: "conv3"
  type: "Convolution"
  bottom: "pool2"
  top: "conv3"
  param {
    lr_mult: 1
  }
  param {
    lr_mult: 2
  }
  convolution_param {
    num_output: 64
    pad: 2
    kernel_size: 5
    stride: 1
    weight_filler {
      type: "gaussian"
      std: 0.01
    }
    bias_filler {
      type: "constant"
    }
  }
}
layer {
  name: "relu3"
  type: "ReLU"
  bottom: "conv3"
  top: "conv3"
}
layer {
  name: "conv4"
  type: "Convolution"
  bottom: "conv3"
  top: "conv4"
  param {
    lr_mult: 1
  }
  param {
    lr_mult: 2
  }
  convolution_param {
    num_output: 64
    pad: 2
    kernel_size: 5
    stride: 1
    weight_filler {
      type: "gaussian"
      std: 0.01
    }
    bias_filler {
      type: "constant"
    }
  }
}
layer {
  name: "relu4"
  type: "ReLU"
  bottom: "conv4"
  top: "conv4"
}
layer {
  name: "conv5"
  type: "Convolution"
  bottom: "conv4"
  top: "conv5"
  param {
    lr_mult: 1
  }
  param {
    lr_mult: 2
  }
  convolution_param {
    num_output: 64
    pad: 2
    kernel_size: 5
    stride: 1
    weight_filler {
      type: "gaussian"
      std: 0.01
    }
    bias_filler {
      type: "constant"
    }
  }
}
layer {
  name: "relu5"
  type: "ReLU"
  bottom: "conv5"
  top: "conv5"
}
layer {
  name: "pool5"
  type: "Pooling"
  bottom: "conv5"
  top: "pool5"
  pooling_param {
    pool: AVE
    kernel_size: 3
    stride: 2
  }
}
layer {
  name: "ip1"
  type: "InnerProduct"
  bottom: "pool5"
  top: "ip1"
  param {
    lr_mult: 1
  }
  param {
    lr_mult: 2
  }
  inner_product_param {
    num_output: 64
    weight_filler {
      type: "gaussian"
      std: 0.1
    }
    bias_filler {
      type: "constant"
    }
  }
}
layer {
  name: "ip2"
  type: "InnerProduct"
  bottom: "ip1"
  top: "ip2"
  param {
    lr_mult: 1
  }
  param {
    lr_mult: 2
  }
  inner_product_param {
    num_output: 64
    weight_filler {
      type: "gaussian"
      std: 0.1
    }
    bias_filler {
      type: "constant"
    }
  }
}
layer {
  name: "ip3"
  type: "InnerProduct"
  bottom: "ip2"
  top: "ip3"
  param {
    lr_mult: 1
  }
  param {
    lr_mult: 2
  }
  inner_product_param {
    num_output: 50
    weight_filler {
      type: "gaussian"
      std: 0.1
    }
    bias_filler {
      type: "constant"
    }
  }
}
layer {
  name: "loss"
  type: "SoftmaxWithLoss"
  bottom: "ip3"
  bottom: "label"
  top: "loss"
}
I0507 01:41:27.756228 30741 layer_factory.hpp:77] Creating layer parameters
I0507 01:41:27.756237 30741 net.cpp:94] Creating Layer parameters
I0507 01:41:27.756242 30741 net.cpp:409] parameters -> data
I0507 01:41:27.756247 30741 net.cpp:409] parameters -> label
I0507 01:41:27.756253 30741 hdf5_data_layer.cpp:79] Loading list of HDF5 filenames from: /home/purduethu/scratch/radon/d/deng106/CNNStatisticalModel/distributions/input/50_distributions_100_sample_size_train-distributions-path.txt
I0507 01:41:27.756268 30741 hdf5_data_layer.cpp:93] Number of HDF5 files: 1
I0507 01:41:27.913118 30741 hdf5.cpp:35] Datatype class: H5T_INTEGER
I0507 01:41:27.916119 30741 net.cpp:144] Setting up parameters
I0507 01:41:27.916142 30741 net.cpp:151] Top shape: 20 1 10 10 (2000)
I0507 01:41:27.916147 30741 net.cpp:151] Top shape: 20 (20)
I0507 01:41:27.916151 30741 net.cpp:159] Memory required for data: 8080
I0507 01:41:27.916157 30741 layer_factory.hpp:77] Creating layer conv1
I0507 01:41:27.916172 30741 net.cpp:94] Creating Layer conv1
I0507 01:41:27.916175 30741 net.cpp:435] conv1 <- data
I0507 01:41:27.916182 30741 net.cpp:409] conv1 -> conv1
I0507 01:41:27.917898 30741 net.cpp:144] Setting up conv1
I0507 01:41:27.917912 30741 net.cpp:151] Top shape: 20 64 10 10 (128000)
I0507 01:41:27.917915 30741 net.cpp:159] Memory required for data: 520080
I0507 01:41:27.917925 30741 layer_factory.hpp:77] Creating layer relu1
I0507 01:41:27.917932 30741 net.cpp:94] Creating Layer relu1
I0507 01:41:27.917935 30741 net.cpp:435] relu1 <- conv1
I0507 01:41:27.917939 30741 net.cpp:396] relu1 -> conv1 (in-place)
I0507 01:41:27.917948 30741 net.cpp:144] Setting up relu1
I0507 01:41:27.917951 30741 net.cpp:151] Top shape: 20 64 10 10 (128000)
I0507 01:41:27.917954 30741 net.cpp:159] Memory required for data: 1032080
I0507 01:41:27.917958 30741 layer_factory.hpp:77] Creating layer conv2
I0507 01:41:27.917964 30741 net.cpp:94] Creating Layer conv2
I0507 01:41:27.917968 30741 net.cpp:435] conv2 <- conv1
I0507 01:41:27.917971 30741 net.cpp:409] conv2 -> conv2
I0507 01:41:27.923244 30741 net.cpp:144] Setting up conv2
I0507 01:41:27.923257 30741 net.cpp:151] Top shape: 20 64 10 10 (128000)
I0507 01:41:27.923261 30741 net.cpp:159] Memory required for data: 1544080
I0507 01:41:27.923269 30741 layer_factory.hpp:77] Creating layer relu2
I0507 01:41:27.923275 30741 net.cpp:94] Creating Layer relu2
I0507 01:41:27.923280 30741 net.cpp:435] relu2 <- conv2
I0507 01:41:27.923283 30741 net.cpp:396] relu2 -> conv2 (in-place)
I0507 01:41:27.923290 30741 net.cpp:144] Setting up relu2
I0507 01:41:27.923295 30741 net.cpp:151] Top shape: 20 64 10 10 (128000)
I0507 01:41:27.923296 30741 net.cpp:159] Memory required for data: 2056080
I0507 01:41:27.923300 30741 layer_factory.hpp:77] Creating layer pool2
I0507 01:41:27.923305 30741 net.cpp:94] Creating Layer pool2
I0507 01:41:27.923308 30741 net.cpp:435] pool2 <- conv2
I0507 01:41:27.923312 30741 net.cpp:409] pool2 -> pool2
I0507 01:41:27.923367 30741 net.cpp:144] Setting up pool2
I0507 01:41:27.923373 30741 net.cpp:151] Top shape: 20 64 5 5 (32000)
I0507 01:41:27.923377 30741 net.cpp:159] Memory required for data: 2184080
I0507 01:41:27.923379 30741 layer_factory.hpp:77] Creating layer conv3
I0507 01:41:27.923388 30741 net.cpp:94] Creating Layer conv3
I0507 01:41:27.923390 30741 net.cpp:435] conv3 <- pool2
I0507 01:41:27.923394 30741 net.cpp:409] conv3 -> conv3
I0507 01:41:27.929066 30741 net.cpp:144] Setting up conv3
I0507 01:41:27.929080 30741 net.cpp:151] Top shape: 20 64 5 5 (32000)
I0507 01:41:27.929085 30741 net.cpp:159] Memory required for data: 2312080
I0507 01:41:27.929092 30741 layer_factory.hpp:77] Creating layer relu3
I0507 01:41:27.929098 30741 net.cpp:94] Creating Layer relu3
I0507 01:41:27.929102 30741 net.cpp:435] relu3 <- conv3
I0507 01:41:27.929106 30741 net.cpp:396] relu3 -> conv3 (in-place)
I0507 01:41:27.929112 30741 net.cpp:144] Setting up relu3
I0507 01:41:27.929116 30741 net.cpp:151] Top shape: 20 64 5 5 (32000)
I0507 01:41:27.929126 30741 net.cpp:159] Memory required for data: 2440080
I0507 01:41:27.929128 30741 layer_factory.hpp:77] Creating layer conv4
I0507 01:41:27.929136 30741 net.cpp:94] Creating Layer conv4
I0507 01:41:27.929141 30741 net.cpp:435] conv4 <- conv3
I0507 01:41:27.929144 30741 net.cpp:409] conv4 -> conv4
I0507 01:41:27.933997 30741 net.cpp:144] Setting up conv4
I0507 01:41:27.934010 30741 net.cpp:151] Top shape: 20 64 5 5 (32000)
I0507 01:41:27.934015 30741 net.cpp:159] Memory required for data: 2568080
I0507 01:41:27.934020 30741 layer_factory.hpp:77] Creating layer relu4
I0507 01:41:27.934026 30741 net.cpp:94] Creating Layer relu4
I0507 01:41:27.934029 30741 net.cpp:435] relu4 <- conv4
I0507 01:41:27.934033 30741 net.cpp:396] relu4 -> conv4 (in-place)
I0507 01:41:27.934041 30741 net.cpp:144] Setting up relu4
I0507 01:41:27.934044 30741 net.cpp:151] Top shape: 20 64 5 5 (32000)
I0507 01:41:27.934047 30741 net.cpp:159] Memory required for data: 2696080
I0507 01:41:27.934051 30741 layer_factory.hpp:77] Creating layer conv5
I0507 01:41:27.934057 30741 net.cpp:94] Creating Layer conv5
I0507 01:41:27.934061 30741 net.cpp:435] conv5 <- conv4
I0507 01:41:27.934065 30741 net.cpp:409] conv5 -> conv5
I0507 01:41:27.938436 30741 net.cpp:144] Setting up conv5
I0507 01:41:27.938449 30741 net.cpp:151] Top shape: 20 64 5 5 (32000)
I0507 01:41:27.938453 30741 net.cpp:159] Memory required for data: 2824080
I0507 01:41:27.938462 30741 layer_factory.hpp:77] Creating layer relu5
I0507 01:41:27.938467 30741 net.cpp:94] Creating Layer relu5
I0507 01:41:27.938470 30741 net.cpp:435] relu5 <- conv5
I0507 01:41:27.938474 30741 net.cpp:396] relu5 -> conv5 (in-place)
I0507 01:41:27.938482 30741 net.cpp:144] Setting up relu5
I0507 01:41:27.938485 30741 net.cpp:151] Top shape: 20 64 5 5 (32000)
I0507 01:41:27.938488 30741 net.cpp:159] Memory required for data: 2952080
I0507 01:41:27.938491 30741 layer_factory.hpp:77] Creating layer pool5
I0507 01:41:27.938496 30741 net.cpp:94] Creating Layer pool5
I0507 01:41:27.938499 30741 net.cpp:435] pool5 <- conv5
I0507 01:41:27.938503 30741 net.cpp:409] pool5 -> pool5
I0507 01:41:27.938537 30741 net.cpp:144] Setting up pool5
I0507 01:41:27.938544 30741 net.cpp:151] Top shape: 20 64 2 2 (5120)
I0507 01:41:27.938547 30741 net.cpp:159] Memory required for data: 2972560
I0507 01:41:27.938550 30741 layer_factory.hpp:77] Creating layer ip1
I0507 01:41:27.938556 30741 net.cpp:94] Creating Layer ip1
I0507 01:41:27.938560 30741 net.cpp:435] ip1 <- pool5
I0507 01:41:27.938563 30741 net.cpp:409] ip1 -> ip1
I0507 01:41:27.939082 30741 net.cpp:144] Setting up ip1
I0507 01:41:27.939090 30741 net.cpp:151] Top shape: 20 64 (1280)
I0507 01:41:27.939093 30741 net.cpp:159] Memory required for data: 2977680
I0507 01:41:27.939098 30741 layer_factory.hpp:77] Creating layer ip2
I0507 01:41:27.939105 30741 net.cpp:94] Creating Layer ip2
I0507 01:41:27.939107 30741 net.cpp:435] ip2 <- ip1
I0507 01:41:27.939112 30741 net.cpp:409] ip2 -> ip2
I0507 01:41:27.939337 30741 net.cpp:144] Setting up ip2
I0507 01:41:27.939344 30741 net.cpp:151] Top shape: 20 64 (1280)
I0507 01:41:27.939347 30741 net.cpp:159] Memory required for data: 2982800
I0507 01:41:27.939352 30741 layer_factory.hpp:77] Creating layer ip3
I0507 01:41:27.939357 30741 net.cpp:94] Creating Layer ip3
I0507 01:41:27.939360 30741 net.cpp:435] ip3 <- ip2
I0507 01:41:27.939365 30741 net.cpp:409] ip3 -> ip3
I0507 01:41:27.939564 30741 net.cpp:144] Setting up ip3
I0507 01:41:27.939571 30741 net.cpp:151] Top shape: 20 50 (1000)
I0507 01:41:27.939574 30741 net.cpp:159] Memory required for data: 2986800
I0507 01:41:27.939579 30741 layer_factory.hpp:77] Creating layer loss
I0507 01:41:27.939585 30741 net.cpp:94] Creating Layer loss
I0507 01:41:27.939589 30741 net.cpp:435] loss <- ip3
I0507 01:41:27.939592 30741 net.cpp:435] loss <- label
I0507 01:41:27.939596 30741 net.cpp:409] loss -> loss
I0507 01:41:27.939602 30741 layer_factory.hpp:77] Creating layer loss
…
I0507 01:41:27.940961 30741 solver.cpp:181] Creating test net (#0) specified by net file: ./protocol/dis_50_100_dimension.protocol_distribution
I0507 01:41:27.940989 30741 net.cpp:323] The NetState phase (1) differed from the phase (0) specified by a rule in layer parameters
I0507 01:41:27.941082 30741 net.cpp:52] Initializing net from parameters: 
state {
  phase: TEST
}
layer {
  name: "intercept"
  type: "HDF5Data"
  top: "data"
  top: "label"
  include {
    phase: TEST
  }
  hdf5_data_param {
    source: "/home/purduethu/scratch/radon/d/deng106/CNNStatisticalModel/distributions/input/50_distributions_100_sample_size_test-distributions-path.txt"
    batch_size: 20
  }
}
layer {
  name: "conv1"
  type: "Convolution"
  bottom: "data"
  top: "conv1"
  param {
    lr_mult: 1
  }
  param {
    lr_mult: 2
  }
  convolution_param {
    num_output: 64
    pad: 2
    kernel_size: 5
    stride: 1
    weight_filler {
      type: "gaussian"
      std: 0.0001
    }
    bias_filler {
      type: "constant"
    }
  }
}
layer {
  name: "relu1"
  type: "ReLU"
  bottom: "conv1"
  top: "conv1"
}
layer {
  name: "conv2"
  type: "Convolution"
  bottom: "conv1"
  top: "conv2"
  param {
    lr_mult: 1
  }
  param {
    lr_mult: 2
  }
  convolution_param {
    num_output: 64
    pad: 2
    kernel_size: 5
    stride: 1
    weight_filler {
      type: "gaussian"
      std: 0.01
    }
    bias_filler {
      type: "constant"
    }
  }
}
layer {
  name: "relu2"
  type: "ReLU"
  bottom: "conv2"
  top: "conv2"
}
layer {
  name: "pool2"
  type: "Pooling"
  bottom: "conv2"
  top: "pool2"
  pooling_param {
    pool: MAX
    kernel_size: 3
    stride: 2
  }
}
layer {
  name: "conv3"
  type: "Convolution"
  bottom: "pool2"
  top: "conv3"
  param {
    lr_mult: 1
  }
  param {
    lr_mult: 2
  }
  convolution_param {
    num_output: 64
    pad: 2
    kernel_size: 5
    stride: 1
    weight_filler {
      type: "gaussian"
      std: 0.01
    }
    bias_filler {
      type: "constant"
    }
  }
}
layer {
  name: "relu3"
  type: "ReLU"
  bottom: "conv3"
  top: "conv3"
}
layer {
  name: "conv4"
  type: "Convolution"
  bottom: "conv3"
  top: "conv4"
  param {
    lr_mult: 1
  }
  param {
    lr_mult: 2
  }
  convolution_param {
    num_output: 64
    pad: 2
    kernel_size: 5
    stride: 1
    weight_filler {
      type: "gaussian"
      std: 0.01
    }
    bias_filler {
      type: "constant"
    }
  }
}
layer {
  name: "relu4"
  type: "ReLU"
  bottom: "conv4"
  top: "conv4"
}
layer {
  name: "conv5"
  type: "Convolution"
  bottom: "conv4"
  top: "conv5"
  param {
    lr_mult: 1
  }
  param {
    lr_mult: 2
  }
  convolution_param {
    num_output: 64
    pad: 2
    kernel_size: 5
    stride: 1
    weight_filler {
      type: "gaussian"
      std: 0.01
    }
    bias_filler {
      type: "constant"
    }
  }
}
layer {
  name: "relu5"
  type: "ReLU"
  bottom: "conv5"
  top: "conv5"
}
layer {
  name: "pool5"
  type: "Pooling"
  bottom: "conv5"
  top: "pool5"
  pooling_param {
    pool: AVE
    kernel_size: 3
    stride: 2
  }
}
layer {
  name: "ip1"
  type: "InnerProduct"
  bottom: "pool5"
  top: "ip1"
  param {
    lr_mult: 1
  }
  param {
    lr_mult: 2
  }
  inner_product_param {
    num_output: 64
    weight_filler {
      type: "gaussian"
      std: 0.1
    }
    bias_filler {
      type: "constant"
    }
  }
}
layer {
  name: "ip2"
  type: "InnerProduct"
  bottom: "ip1"
  top: "ip2"
  param {
    lr_mult: 1
  }
  param {
    lr_mult: 2
  }
  inner_product_param {
    num_output: 64
    weight_filler {
      type: "gaussian"
      std: 0.1
    }
    bias_filler {
      type: "constant"
    }
  }
}
layer {
  name: "ip3"
  type: "InnerProduct"
  bottom: "ip2"
  top: "ip3"
  param {
    lr_mult: 1
  }
  param {
    lr_mult: 2
  }
  inner_product_param {
    num_output: 50
    weight_filler {
      type: "gaussian"
      std: 0.1
    }
    bias_filler {
      type: "constant"
    }
  }
}
layer {
  name: "accuracy"
  type: "Accuracy"
  bottom: "ip3"
  bottom: "label"
  top: "accuracy"
  include {
    phase: TEST
  }
}
layer {
  name: "loss"
  type: "SoftmaxWithLoss"
  bottom: "ip3"
  bottom: "label"
  top: "loss"
}
I0507 01:41:27.941145 30741 layer_factory.hpp:77] Creating layer intercept
I0507 01:41:27.941154 30741 net.cpp:94] Creating Layer intercept
I0507 01:41:27.941159 30741 net.cpp:409] intercept -> data
I0507 01:41:27.941164 30741 net.cpp:409] intercept -> label
I0507 01:41:27.941170 30741 hdf5_data_layer.cpp:79] Loading list of HDF5 filenames from: /home/purduethu/scratch/radon/d/deng106/CNNStatisticalModel/distributions/input/50_distributions_100_sample_size_test-distributions-path.txt
I0507 01:41:27.941190 30741 hdf5_data_layer.cpp:93] Number of HDF5 files: 1
I0507 01:41:27.982762 30741 net.cpp:144] Setting up intercept
I0507 01:41:27.982797 30741 net.cpp:151] Top shape: 20 1 10 10 (2000)
I0507 01:41:27.982802 30741 net.cpp:151] Top shape: 20 (20)
I0507 01:41:27.982805 30741 net.cpp:159] Memory required for data: 8080
I0507 01:41:27.982811 30741 layer_factory.hpp:77] Creating layer label_intercept_1_split
I0507 01:41:27.982830 30741 net.cpp:94] Creating Layer label_intercept_1_split
I0507 01:41:27.982833 30741 net.cpp:435] label_intercept_1_split <- label
I0507 01:41:27.982841 30741 net.cpp:409] label_intercept_1_split -> label_intercept_1_split_0
I0507 01:41:27.982848 30741 net.cpp:409] label_intercept_1_split -> label_intercept_1_split_1
I0507 01:41:27.982892 30741 net.cpp:144] Setting up label_intercept_1_split
I0507 01:41:27.982897 30741 net.cpp:151] Top shape: 20 (20)
I0507 01:41:27.982902 30741 net.cpp:151] Top shape: 20 (20)
I0507 01:41:27.982904 30741 net.cpp:159] Memory required for data: 8240
I0507 01:41:27.982908 30741 layer_factory.hpp:77] Creating layer conv1
I0507 01:41:27.982918 30741 net.cpp:94] Creating Layer conv1
I0507 01:41:27.982923 30741 net.cpp:435] conv1 <- data
I0507 01:41:27.982926 30741 net.cpp:409] conv1 -> conv1
I0507 01:41:27.983721 30741 net.cpp:144] Setting up conv1
I0507 01:41:27.983734 30741 net.cpp:151] Top shape: 20 64 10 10 (128000)
I0507 01:41:27.983738 30741 net.cpp:159] Memory required for data: 520240
I0507 01:41:27.983748 30741 layer_factory.hpp:77] Creating layer relu1
I0507 01:41:27.983755 30741 net.cpp:94] Creating Layer relu1
I0507 01:41:27.983758 30741 net.cpp:435] relu1 <- conv1
I0507 01:41:27.983762 30741 net.cpp:396] relu1 -> conv1 (in-place)
I0507 01:41:27.983769 30741 net.cpp:144] Setting up relu1
I0507 01:41:27.983773 30741 net.cpp:151] Top shape: 20 64 10 10 (128000)
I0507 01:41:27.983777 30741 net.cpp:159] Memory required for data: 1032240
I0507 01:41:27.983788 30741 layer_factory.hpp:77] Creating layer conv2
I0507 01:41:27.983794 30741 net.cpp:94] Creating Layer conv2
I0507 01:41:27.983798 30741 net.cpp:435] conv2 <- conv1
I0507 01:41:27.983803 30741 net.cpp:409] conv2 -> conv2
I0507 01:41:27.987876 30741 net.cpp:144] Setting up conv2
I0507 01:41:27.987890 30741 net.cpp:151] Top shape: 20 64 10 10 (128000)
I0507 01:41:27.987893 30741 net.cpp:159] Memory required for data: 1544240
I0507 01:41:27.987901 30741 layer_factory.hpp:77] Creating layer relu2
I0507 01:41:27.987907 30741 net.cpp:94] Creating Layer relu2
I0507 01:41:27.987910 30741 net.cpp:435] relu2 <- conv2
I0507 01:41:27.987915 30741 net.cpp:396] relu2 -> conv2 (in-place)
I0507 01:41:27.987921 30741 net.cpp:144] Setting up relu2
I0507 01:41:27.987926 30741 net.cpp:151] Top shape: 20 64 10 10 (128000)
I0507 01:41:27.987928 30741 net.cpp:159] Memory required for data: 2056240
I0507 01:41:27.987931 30741 layer_factory.hpp:77] Creating layer pool2
I0507 01:41:27.987937 30741 net.cpp:94] Creating Layer pool2
I0507 01:41:27.987939 30741 net.cpp:435] pool2 <- conv2
I0507 01:41:27.987946 30741 net.cpp:409] pool2 -> pool2
I0507 01:41:27.988004 30741 net.cpp:144] Setting up pool2
I0507 01:41:27.988011 30741 net.cpp:151] Top shape: 20 64 5 5 (32000)
I0507 01:41:27.988014 30741 net.cpp:159] Memory required for data: 2184240
I0507 01:41:27.988018 30741 layer_factory.hpp:77] Creating layer conv3
I0507 01:41:27.988025 30741 net.cpp:94] Creating Layer conv3
I0507 01:41:27.988029 30741 net.cpp:435] conv3 <- pool2
I0507 01:41:27.988034 30741 net.cpp:409] conv3 -> conv3
I0507 01:41:27.992372 30741 net.cpp:144] Setting up conv3
I0507 01:41:27.992385 30741 net.cpp:151] Top shape: 20 64 5 5 (32000)
I0507 01:41:27.992389 30741 net.cpp:159] Memory required for data: 2312240
I0507 01:41:27.992398 30741 layer_factory.hpp:77] Creating layer relu3
I0507 01:41:27.992405 30741 net.cpp:94] Creating Layer relu3
I0507 01:41:27.992408 30741 net.cpp:435] relu3 <- conv3
I0507 01:41:27.992413 30741 net.cpp:396] relu3 -> conv3 (in-place)
I0507 01:41:27.992419 30741 net.cpp:144] Setting up relu3
I0507 01:41:27.992424 30741 net.cpp:151] Top shape: 20 64 5 5 (32000)
I0507 01:41:27.992426 30741 net.cpp:159] Memory required for data: 2440240
I0507 01:41:27.992429 30741 layer_factory.hpp:77] Creating layer conv4
I0507 01:41:27.992437 30741 net.cpp:94] Creating Layer conv4
I0507 01:41:27.992440 30741 net.cpp:435] conv4 <- conv3
I0507 01:41:27.992446 30741 net.cpp:409] conv4 -> conv4
I0507 01:41:27.995962 30741 net.cpp:144] Setting up conv4
I0507 01:41:27.995975 30741 net.cpp:151] Top shape: 20 64 5 5 (32000)
I0507 01:41:27.995978 30741 net.cpp:159] Memory required for data: 2568240
I0507 01:41:27.995985 30741 layer_factory.hpp:77] Creating layer relu4
I0507 01:41:27.995990 30741 net.cpp:94] Creating Layer relu4
I0507 01:41:27.995992 30741 net.cpp:435] relu4 <- conv4
I0507 01:41:27.995997 30741 net.cpp:396] relu4 -> conv4 (in-place)
I0507 01:41:27.996004 30741 net.cpp:144] Setting up relu4
I0507 01:41:27.996008 30741 net.cpp:151] Top shape: 20 64 5 5 (32000)
I0507 01:41:27.996011 30741 net.cpp:159] Memory required for data: 2696240
I0507 01:41:27.996014 30741 layer_factory.hpp:77] Creating layer conv5
I0507 01:41:27.996022 30741 net.cpp:94] Creating Layer conv5
I0507 01:41:27.996026 30741 net.cpp:435] conv5 <- conv4
I0507 01:41:27.996031 30741 net.cpp:409] conv5 -> conv5
I0507 01:41:27.999958 30741 net.cpp:144] Setting up conv5
I0507 01:41:27.999971 30741 net.cpp:151] Top shape: 20 64 5 5 (32000)
I0507 01:41:27.999975 30741 net.cpp:159] Memory required for data: 2824240
I0507 01:41:27.999984 30741 layer_factory.hpp:77] Creating layer relu5
I0507 01:41:27.999989 30741 net.cpp:94] Creating Layer relu5
I0507 01:41:27.999992 30741 net.cpp:435] relu5 <- conv5
I0507 01:41:27.999996 30741 net.cpp:396] relu5 -> conv5 (in-place)
I0507 01:41:28.000002 30741 net.cpp:144] Setting up relu5
I0507 01:41:28.000007 30741 net.cpp:151] Top shape: 20 64 5 5 (32000)
I0507 01:41:28.000010 30741 net.cpp:159] Memory required for data: 2952240
I0507 01:41:28.000017 30741 layer_factory.hpp:77] Creating layer pool5
I0507 01:41:28.000023 30741 net.cpp:94] Creating Layer pool5
I0507 01:41:28.000026 30741 net.cpp:435] pool5 <- conv5
I0507 01:41:28.000031 30741 net.cpp:409] pool5 -> pool5
I0507 01:41:28.000071 30741 net.cpp:144] Setting up pool5
I0507 01:41:28.000077 30741 net.cpp:151] Top shape: 20 64 2 2 (5120)
I0507 01:41:28.000080 30741 net.cpp:159] Memory required for data: 2972720
I0507 01:41:28.000083 30741 layer_factory.hpp:77] Creating layer ip1
I0507 01:41:28.000089 30741 net.cpp:94] Creating Layer ip1
I0507 01:41:28.000092 30741 net.cpp:435] ip1 <- pool5
I0507 01:41:28.000098 30741 net.cpp:409] ip1 -> ip1
I0507 01:41:28.000653 30741 net.cpp:144] Setting up ip1
I0507 01:41:28.000663 30741 net.cpp:151] Top shape: 20 64 (1280)
I0507 01:41:28.000665 30741 net.cpp:159] Memory required for data: 2977840
I0507 01:41:28.000671 30741 layer_factory.hpp:77] Creating layer ip2
I0507 01:41:28.000677 30741 net.cpp:94] Creating Layer ip2
I0507 01:41:28.000680 30741 net.cpp:435] ip2 <- ip1
I0507 01:41:28.000685 30741 net.cpp:409] ip2 -> ip2
I0507 01:41:28.000932 30741 net.cpp:144] Setting up ip2
I0507 01:41:28.000939 30741 net.cpp:151] Top shape: 20 64 (1280)
I0507 01:41:28.000942 30741 net.cpp:159] Memory required for data: 2982960
I0507 01:41:28.000947 30741 layer_factory.hpp:77] Creating layer ip3
I0507 01:41:28.000954 30741 net.cpp:94] Creating Layer ip3
I0507 01:41:28.000957 30741 net.cpp:435] ip3 <- ip2
I0507 01:41:28.000963 30741 net.cpp:409] ip3 -> ip3
I0507 01:41:28.001168 30741 net.cpp:144] Setting up ip3
I0507 01:41:28.001175 30741 net.cpp:151] Top shape: 20 50 (1000)
I0507 01:41:28.001178 30741 net.cpp:159] Memory required for data: 2986960
I0507 01:41:28.001183 30741 layer_factory.hpp:77] Creating layer ip3_ip3_0_split
I0507 01:41:28.001188 30741 net.cpp:94] Creating Layer ip3_ip3_0_split
I0507 01:41:28.001191 30741 net.cpp:435] ip3_ip3_0_split <- ip3
I0507 01:41:28.001195 30741 net.cpp:409] ip3_ip3_0_split -> ip3_ip3_0_split_0
I0507 01:41:28.001200 30741 net.cpp:409] ip3_ip3_0_split -> ip3_ip3_0_split_1
I0507 01:41:28.001242 30741 net.cpp:144] Setting up ip3_ip3_0_split
I0507 01:41:28.001248 30741 net.cpp:151] Top shape: 20 50 (1000)
I0507 01:41:28.001252 30741 net.cpp:151] Top shape: 20 50 (1000)
I0507 01:41:28.001255 30741 net.cpp:159] Memory required for data: 2994960
I0507 01:41:28.001257 30741 layer_factory.hpp:77] Creating layer accuracy
I0507 01:41:28.001263 30741 net.cpp:94] Creating Layer accuracy
I0507 01:41:28.001266 30741 net.cpp:435] accuracy <- ip3_ip3_0_split_0
I0507 01:41:28.001271 30741 net.cpp:435] accuracy <- label_intercept_1_split_0
I0507 01:41:28.001274 30741 net.cpp:409] accuracy -> accuracy
…
