…
I0502 20:54:00.682934 13433 net.cpp:323] The NetState phase (0) differed from the phase (1) specified by a rule in layer intercept
I0502 20:54:00.682950 13433 net.cpp:323] The NetState phase (0) differed from the phase (1) specified by a rule in layer accuracy
I0502 20:54:00.683043 13433 net.cpp:52] Initializing net from parameters: 
state {
  phase: TRAIN
}
layer {
  name: "parameters"
  type: "HDF5Data"
  top: "data"
  top: "label"
  include {
    phase: TRAIN
  }
  hdf5_data_param {
    source: "/home/purduethu/scratch/radon/d/deng106/CNNStatisticalModel/distributions/input/5_distributions_100_sample_size_train-distributions-path.txt"
    batch_size: 20
  }
}
layer {
  name: "conv1"
  type: "Convolution"
  bottom: "data"
  top: "conv1"
  param {
    lr_mult: 1
  }
  param {
    lr_mult: 2
  }
  convolution_param {
    num_output: 64
    pad: 2
    kernel_size: 5
    stride: 1
    weight_filler {
      type: "gaussian"
      std: 0.0001
    }
    bias_filler {
      type: "constant"
    }
  }
}
layer {
  name: "relu1"
  type: "ReLU"
  bottom: "conv1"
  top: "conv1"
}
layer {
  name: "conv2"
  type: "Convolution"
  bottom: "conv1"
  top: "conv2"
  param {
    lr_mult: 1
  }
  param {
    lr_mult: 2
  }
  convolution_param {
    num_output: 64
    pad: 2
    kernel_size: 5
    stride: 1
    weight_filler {
      type: "gaussian"
      std: 0.01
    }
    bias_filler {
      type: "constant"
    }
  }
}
layer {
  name: "relu2"
  type: "ReLU"
  bottom: "conv2"
  top: "conv2"
}
layer {
  name: "pool2"
  type: "Pooling"
  bottom: "conv2"
  top: "pool2"
  pooling_param {
    pool: MAX
    kernel_size: 3
    stride: 2
  }
}
layer {
  name: "conv3"
  type: "Convolution"
  bottom: "pool2"
  top: "conv3"
  param {
    lr_mult: 1
  }
  param {
    lr_mult: 2
  }
  convolution_param {
    num_output: 64
    pad: 2
    kernel_size: 5
    stride: 1
    weight_filler {
      type: "gaussian"
      std: 0.01
    }
    bias_filler {
      type: "constant"
    }
  }
}
layer {
  name: "relu3"
  type: "ReLU"
  bottom: "conv3"
  top: "conv3"
}
layer {
  name: "conv4"
  type: "Convolution"
  bottom: "conv3"
  top: "conv4"
  param {
    lr_mult: 1
  }
  param {
    lr_mult: 2
  }
  convolution_param {
    num_output: 64
    pad: 2
    kernel_size: 5
    stride: 1
    weight_filler {
      type: "gaussian"
      std: 0.01
    }
    bias_filler {
      type: "constant"
    }
  }
}
layer {
  name: "relu4"
  type: "ReLU"
  bottom: "conv4"
  top: "conv4"
}
layer {
  name: "conv5"
  type: "Convolution"
  bottom: "conv4"
  top: "conv5"
  param {
    lr_mult: 1
  }
  param {
    lr_mult: 2
  }
  convolution_param {
    num_output: 64
    pad: 2
    kernel_size: 5
    stride: 1
    weight_filler {
      type: "gaussian"
      std: 0.01
    }
    bias_filler {
      type: "constant"
    }
  }
}
layer {
  name: "relu5"
  type: "ReLU"
  bottom: "conv5"
  top: "conv5"
}
layer {
  name: "pool5"
  type: "Pooling"
  bottom: "conv5"
  top: "pool5"
  pooling_param {
    pool: AVE
    kernel_size: 3
    stride: 2
  }
}
layer {
  name: "ip1"
  type: "InnerProduct"
  bottom: "pool5"
  top: "ip1"
  param {
    lr_mult: 1
  }
  param {
    lr_mult: 2
  }
  inner_product_param {
    num_output: 64
    weight_filler {
      type: "gaussian"
      std: 0.1
    }
    bias_filler {
      type: "constant"
    }
  }
}
layer {
  name: "ip2"
  type: "InnerProduct"
  bottom: "ip1"
  top: "ip2"
  param {
    lr_mult: 1
  }
  param {
    lr_mult: 2
  }
  inner_product_param {
    num_output: 64
    weight_filler {
      type: "gaussian"
      std: 0.1
    }
    bias_filler {
      type: "constant"
    }
  }
}
layer {
  name: "ip3"
  type: "InnerProduct"
  bottom: "ip2"
  top: "ip3"
  param {
    lr_mult: 1
  }
  param {
    lr_mult: 2
  }
  inner_product_param {
    num_output: 50
    weight_filler {
      type: "gaussian"
      std: 0.1
    }
    bias_filler {
      type: "constant"
    }
  }
}
layer {
  name: "loss"
  type: "SoftmaxWithLoss"
  bottom: "ip3"
  bottom: "label"
  top: "loss"
}
I0502 20:54:00.683120 13433 layer_factory.hpp:77] Creating layer parameters
I0502 20:54:00.683135 13433 net.cpp:94] Creating Layer parameters
I0502 20:54:00.683140 13433 net.cpp:409] parameters -> data
I0502 20:54:00.683161 13433 net.cpp:409] parameters -> label
I0502 20:54:00.683171 13433 hdf5_data_layer.cpp:79] Loading list of HDF5 filenames from: /home/purduethu/scratch/radon/d/deng106/CNNStatisticalModel/distributions/input/5_distributions_100_sample_size_train-distributions-path.txt
I0502 20:54:00.683193 13433 hdf5_data_layer.cpp:93] Number of HDF5 files: 1
I0502 20:54:00.683782 13433 hdf5.cpp:32] Datatype class: H5T_FLOAT
I0502 20:54:00.700692 13433 hdf5.cpp:35] Datatype class: H5T_INTEGER
I0502 20:54:00.701901 13433 net.cpp:144] Setting up parameters
I0502 20:54:00.701922 13433 net.cpp:151] Top shape: 20 1 10 10 (2000)
I0502 20:54:00.701928 13433 net.cpp:151] Top shape: 20 (20)
I0502 20:54:00.701932 13433 net.cpp:159] Memory required for data: 8080
I0502 20:54:00.701941 13433 layer_factory.hpp:77] Creating layer conv1
I0502 20:54:00.701964 13433 net.cpp:94] Creating Layer conv1
I0502 20:54:00.701970 13433 net.cpp:435] conv1 <- data
I0502 20:54:00.701982 13433 net.cpp:409] conv1 -> conv1
I0502 20:54:00.705754 13433 net.cpp:144] Setting up conv1
I0502 20:54:00.705770 13433 net.cpp:151] Top shape: 20 64 10 10 (128000)
I0502 20:54:00.705773 13433 net.cpp:159] Memory required for data: 520080
I0502 20:54:00.705785 13433 layer_factory.hpp:77] Creating layer relu1
I0502 20:54:00.705795 13433 net.cpp:94] Creating Layer relu1
I0502 20:54:00.705798 13433 net.cpp:435] relu1 <- conv1
I0502 20:54:00.705803 13433 net.cpp:396] relu1 -> conv1 (in-place)
I0502 20:54:00.705818 13433 net.cpp:144] Setting up relu1
I0502 20:54:00.705824 13433 net.cpp:151] Top shape: 20 64 10 10 (128000)
I0502 20:54:00.705827 13433 net.cpp:159] Memory required for data: 1032080
I0502 20:54:00.705832 13433 layer_factory.hpp:77] Creating layer conv2
I0502 20:54:00.705839 13433 net.cpp:94] Creating Layer conv2
I0502 20:54:00.705843 13433 net.cpp:435] conv2 <- conv1
I0502 20:54:00.705848 13433 net.cpp:409] conv2 -> conv2
I0502 20:54:00.711695 13433 net.cpp:144] Setting up conv2
I0502 20:54:00.711709 13433 net.cpp:151] Top shape: 20 64 10 10 (128000)
I0502 20:54:00.711714 13433 net.cpp:159] Memory required for data: 1544080
I0502 20:54:00.711722 13433 layer_factory.hpp:77] Creating layer relu2
I0502 20:54:00.711730 13433 net.cpp:94] Creating Layer relu2
I0502 20:54:00.711733 13433 net.cpp:435] relu2 <- conv2
I0502 20:54:00.711738 13433 net.cpp:396] relu2 -> conv2 (in-place)
I0502 20:54:00.711746 13433 net.cpp:144] Setting up relu2
I0502 20:54:00.711751 13433 net.cpp:151] Top shape: 20 64 10 10 (128000)
I0502 20:54:00.711755 13433 net.cpp:159] Memory required for data: 2056080
I0502 20:54:00.711758 13433 layer_factory.hpp:77] Creating layer pool2
I0502 20:54:00.711772 13433 net.cpp:94] Creating Layer pool2
I0502 20:54:00.711776 13433 net.cpp:435] pool2 <- conv2
I0502 20:54:00.711781 13433 net.cpp:409] pool2 -> pool2
I0502 20:54:00.711825 13433 net.cpp:144] Setting up pool2
I0502 20:54:00.711833 13433 net.cpp:151] Top shape: 20 64 5 5 (32000)
I0502 20:54:00.711836 13433 net.cpp:159] Memory required for data: 2184080
I0502 20:54:00.711840 13433 layer_factory.hpp:77] Creating layer conv3
I0502 20:54:00.711848 13433 net.cpp:94] Creating Layer conv3
I0502 20:54:00.711853 13433 net.cpp:435] conv3 <- pool2
I0502 20:54:00.711865 13433 net.cpp:409] conv3 -> conv3
I0502 20:54:00.716636 13433 net.cpp:144] Setting up conv3
I0502 20:54:00.716651 13433 net.cpp:151] Top shape: 20 64 5 5 (32000)
I0502 20:54:00.716655 13433 net.cpp:159] Memory required for data: 2312080
I0502 20:54:00.716665 13433 layer_factory.hpp:77] Creating layer relu3
I0502 20:54:00.716670 13433 net.cpp:94] Creating Layer relu3
I0502 20:54:00.716675 13433 net.cpp:435] relu3 <- conv3
I0502 20:54:00.716680 13433 net.cpp:396] relu3 -> conv3 (in-place)
I0502 20:54:00.716686 13433 net.cpp:144] Setting up relu3
I0502 20:54:00.716691 13433 net.cpp:151] Top shape: 20 64 5 5 (32000)
I0502 20:54:00.716696 13433 net.cpp:159] Memory required for data: 2440080
I0502 20:54:00.716698 13433 layer_factory.hpp:77] Creating layer conv4
I0502 20:54:00.716707 13433 net.cpp:94] Creating Layer conv4
I0502 20:54:00.716711 13433 net.cpp:435] conv4 <- conv3
I0502 20:54:00.716717 13433 net.cpp:409] conv4 -> conv4
I0502 20:54:00.721056 13433 net.cpp:144] Setting up conv4
I0502 20:54:00.721071 13433 net.cpp:151] Top shape: 20 64 5 5 (32000)
I0502 20:54:00.721076 13433 net.cpp:159] Memory required for data: 2568080
I0502 20:54:00.721081 13433 layer_factory.hpp:77] Creating layer relu4
I0502 20:54:00.721087 13433 net.cpp:94] Creating Layer relu4
I0502 20:54:00.721091 13433 net.cpp:435] relu4 <- conv4
I0502 20:54:00.721096 13433 net.cpp:396] relu4 -> conv4 (in-place)
I0502 20:54:00.721103 13433 net.cpp:144] Setting up relu4
I0502 20:54:00.721108 13433 net.cpp:151] Top shape: 20 64 5 5 (32000)
I0502 20:54:00.721112 13433 net.cpp:159] Memory required for data: 2696080
I0502 20:54:00.721115 13433 layer_factory.hpp:77] Creating layer conv5
I0502 20:54:00.721123 13433 net.cpp:94] Creating Layer conv5
I0502 20:54:00.721127 13433 net.cpp:435] conv5 <- conv4
I0502 20:54:00.721132 13433 net.cpp:409] conv5 -> conv5
I0502 20:54:00.725862 13433 net.cpp:144] Setting up conv5
I0502 20:54:00.725875 13433 net.cpp:151] Top shape: 20 64 5 5 (32000)
I0502 20:54:00.725880 13433 net.cpp:159] Memory required for data: 2824080
I0502 20:54:00.725889 13433 layer_factory.hpp:77] Creating layer relu5
I0502 20:54:00.725895 13433 net.cpp:94] Creating Layer relu5
I0502 20:54:00.725899 13433 net.cpp:435] relu5 <- conv5
I0502 20:54:00.725904 13433 net.cpp:396] relu5 -> conv5 (in-place)
I0502 20:54:00.725911 13433 net.cpp:144] Setting up relu5
I0502 20:54:00.725916 13433 net.cpp:151] Top shape: 20 64 5 5 (32000)
I0502 20:54:00.725919 13433 net.cpp:159] Memory required for data: 2952080
I0502 20:54:00.725924 13433 layer_factory.hpp:77] Creating layer pool5
I0502 20:54:00.725929 13433 net.cpp:94] Creating Layer pool5
I0502 20:54:00.725932 13433 net.cpp:435] pool5 <- conv5
I0502 20:54:00.725936 13433 net.cpp:409] pool5 -> pool5
I0502 20:54:00.725970 13433 net.cpp:144] Setting up pool5
I0502 20:54:00.725977 13433 net.cpp:151] Top shape: 20 64 2 2 (5120)
I0502 20:54:00.725981 13433 net.cpp:159] Memory required for data: 2972560
I0502 20:54:00.725985 13433 layer_factory.hpp:77] Creating layer ip1
I0502 20:54:00.725994 13433 net.cpp:94] Creating Layer ip1
I0502 20:54:00.725998 13433 net.cpp:435] ip1 <- pool5
I0502 20:54:00.726003 13433 net.cpp:409] ip1 -> ip1
I0502 20:54:00.727202 13433 net.cpp:144] Setting up ip1
I0502 20:54:00.727216 13433 net.cpp:151] Top shape: 20 64 (1280)
I0502 20:54:00.727221 13433 net.cpp:159] Memory required for data: 2977680
I0502 20:54:00.727226 13433 layer_factory.hpp:77] Creating layer ip2
I0502 20:54:00.727233 13433 net.cpp:94] Creating Layer ip2
I0502 20:54:00.727242 13433 net.cpp:435] ip2 <- ip1
I0502 20:54:00.727248 13433 net.cpp:409] ip2 -> ip2
I0502 20:54:00.727419 13433 net.cpp:144] Setting up ip2
I0502 20:54:00.727427 13433 net.cpp:151] Top shape: 20 64 (1280)
I0502 20:54:00.727430 13433 net.cpp:159] Memory required for data: 2982800
I0502 20:54:00.727437 13433 layer_factory.hpp:77] Creating layer ip3
I0502 20:54:00.727442 13433 net.cpp:94] Creating Layer ip3
I0502 20:54:00.727447 13433 net.cpp:435] ip3 <- ip2
I0502 20:54:00.727452 13433 net.cpp:409] ip3 -> ip3
I0502 20:54:00.727596 13433 net.cpp:144] Setting up ip3
I0502 20:54:00.727609 13433 net.cpp:151] Top shape: 20 50 (1000)
I0502 20:54:00.727613 13433 net.cpp:159] Memory required for data: 2986800
I0502 20:54:00.727618 13433 layer_factory.hpp:77] Creating layer loss
I0502 20:54:00.727625 13433 net.cpp:94] Creating Layer loss
I0502 20:54:00.727629 13433 net.cpp:435] loss <- ip3
I0502 20:54:00.727633 13433 net.cpp:435] loss <- label
I0502 20:54:00.727639 13433 net.cpp:409] loss -> loss
I0502 20:54:00.727649 13433 layer_factory.hpp:77] Creating layer loss
…
I0502 20:54:00.728893 13433 solver.cpp:181] Creating test net (#0) specified by net file: ./protocol/dis_5_100_dimension.protocol_distribution
I0502 20:54:00.728920 13433 net.cpp:323] The NetState phase (1) differed from the phase (0) specified by a rule in layer parameters
I0502 20:54:00.729020 13433 net.cpp:52] Initializing net from parameters: 
state {
  phase: TEST
}
layer {
  name: "intercept"
  type: "HDF5Data"
  top: "data"
  top: "label"
  include {
    phase: TEST
  }
  hdf5_data_param {
    source: "/home/purduethu/scratch/radon/d/deng106/CNNStatisticalModel/distributions/input/5_distributions_100_sample_size_test-distributions-path.txt"
    batch_size: 20
  }
}
layer {
  name: "conv1"
  type: "Convolution"
  bottom: "data"
  top: "conv1"
  param {
    lr_mult: 1
  }
  param {
    lr_mult: 2
  }
  convolution_param {
    num_output: 64
    pad: 2
    kernel_size: 5
    stride: 1
    weight_filler {
      type: "gaussian"
      std: 0.0001
    }
    bias_filler {
      type: "constant"
    }
  }
}
layer {
  name: "relu1"
  type: "ReLU"
  bottom: "conv1"
  top: "conv1"
}
layer {
  name: "conv2"
  type: "Convolution"
  bottom: "conv1"
  top: "conv2"
  param {
    lr_mult: 1
  }
  param {
    lr_mult: 2
  }
  convolution_param {
    num_output: 64
    pad: 2
    kernel_size: 5
    stride: 1
    weight_filler {
      type: "gaussian"
      std: 0.01
    }
    bias_filler {
      type: "constant"
    }
  }
}
layer {
  name: "relu2"
  type: "ReLU"
  bottom: "conv2"
  top: "conv2"
}
layer {
  name: "pool2"
  type: "Pooling"
  bottom: "conv2"
  top: "pool2"
  pooling_param {
    pool: MAX
    kernel_size: 3
    stride: 2
  }
}
layer {
  name: "conv3"
  type: "Convolution"
  bottom: "pool2"
  top: "conv3"
  param {
    lr_mult: 1
  }
  param {
    lr_mult: 2
  }
  convolution_param {
    num_output: 64
    pad: 2
    kernel_size: 5
    stride: 1
    weight_filler {
      type: "gaussian"
      std: 0.01
    }
    bias_filler {
      type: "constant"
    }
  }
}
layer {
  name: "relu3"
  type: "ReLU"
  bottom: "conv3"
  top: "conv3"
}
layer {
  name: "conv4"
  type: "Convolution"
  bottom: "conv3"
  top: "conv4"
  param {
    lr_mult: 1
  }
  param {
    lr_mult: 2
  }
  convolution_param {
    num_output: 64
    pad: 2
    kernel_size: 5
    stride: 1
    weight_filler {
      type: "gaussian"
      std: 0.01
    }
    bias_filler {
      type: "constant"
    }
  }
}
layer {
  name: "relu4"
  type: "ReLU"
  bottom: "conv4"
  top: "conv4"
}
layer {
  name: "conv5"
  type: "Convolution"
  bottom: "conv4"
  top: "conv5"
  param {
    lr_mult: 1
  }
  param {
    lr_mult: 2
  }
  convolution_param {
    num_output: 64
    pad: 2
    kernel_size: 5
    stride: 1
    weight_filler {
      type: "gaussian"
      std: 0.01
    }
    bias_filler {
      type: "constant"
    }
  }
}
layer {
  name: "relu5"
  type: "ReLU"
  bottom: "conv5"
  top: "conv5"
}
layer {
  name: "pool5"
  type: "Pooling"
  bottom: "conv5"
  top: "pool5"
  pooling_param {
    pool: AVE
    kernel_size: 3
    stride: 2
  }
}
layer {
  name: "ip1"
  type: "InnerProduct"
  bottom: "pool5"
  top: "ip1"
  param {
    lr_mult: 1
  }
  param {
    lr_mult: 2
  }
  inner_product_param {
    num_output: 64
    weight_filler {
      type: "gaussian"
      std: 0.1
    }
    bias_filler {
      type: "constant"
    }
  }
}
layer {
  name: "ip2"
  type: "InnerProduct"
  bottom: "ip1"
  top: "ip2"
  param {
    lr_mult: 1
  }
  param {
    lr_mult: 2
  }
  inner_product_param {
    num_output: 64
    weight_filler {
      type: "gaussian"
      std: 0.1
    }
    bias_filler {
      type: "constant"
    }
  }
}
layer {
  name: "ip3"
  type: "InnerProduct"
  bottom: "ip2"
  top: "ip3"
  param {
    lr_mult: 1
  }
  param {
    lr_mult: 2
  }
  inner_product_param {
    num_output: 50
    weight_filler {
      type: "gaussian"
      std: 0.1
    }
    bias_filler {
      type: "constant"
    }
  }
}
layer {
  name: "accuracy"
  type: "Accuracy"
  bottom: "ip3"
  bottom: "label"
  top: "accuracy"
  include {
    phase: TEST
  }
}
layer {
  name: "loss"
  type: "SoftmaxWithLoss"
  bottom: "ip3"
  bottom: "label"
  top: "loss"
}
I0502 20:54:00.729095 13433 layer_factory.hpp:77] Creating layer intercept
I0502 20:54:00.729104 13433 net.cpp:94] Creating Layer intercept
I0502 20:54:00.729109 13433 net.cpp:409] intercept -> data
I0502 20:54:00.729116 13433 net.cpp:409] intercept -> label
I0502 20:54:00.729122 13433 hdf5_data_layer.cpp:79] Loading list of HDF5 filenames from: /home/purduethu/scratch/radon/d/deng106/CNNStatisticalModel/distributions/input/5_distributions_100_sample_size_test-distributions-path.txt
I0502 20:54:00.729141 13433 hdf5_data_layer.cpp:93] Number of HDF5 files: 1
I0502 20:54:00.733453 13433 net.cpp:144] Setting up intercept
I0502 20:54:00.733479 13433 net.cpp:151] Top shape: 20 1 10 10 (2000)
I0502 20:54:00.733484 13433 net.cpp:151] Top shape: 20 (20)
I0502 20:54:00.733489 13433 net.cpp:159] Memory required for data: 8080
I0502 20:54:00.733494 13433 layer_factory.hpp:77] Creating layer label_intercept_1_split
I0502 20:54:00.733510 13433 net.cpp:94] Creating Layer label_intercept_1_split
I0502 20:54:00.733513 13433 net.cpp:435] label_intercept_1_split <- label
I0502 20:54:00.733520 13433 net.cpp:409] label_intercept_1_split -> label_intercept_1_split_0
I0502 20:54:00.733527 13433 net.cpp:409] label_intercept_1_split -> label_intercept_1_split_1
I0502 20:54:00.733561 13433 net.cpp:144] Setting up label_intercept_1_split
I0502 20:54:00.733567 13433 net.cpp:151] Top shape: 20 (20)
I0502 20:54:00.733572 13433 net.cpp:151] Top shape: 20 (20)
I0502 20:54:00.733575 13433 net.cpp:159] Memory required for data: 8240
I0502 20:54:00.733578 13433 layer_factory.hpp:77] Creating layer conv1
I0502 20:54:00.733588 13433 net.cpp:94] Creating Layer conv1
I0502 20:54:00.733592 13433 net.cpp:435] conv1 <- data
I0502 20:54:00.733597 13433 net.cpp:409] conv1 -> conv1
I0502 20:54:00.734201 13433 net.cpp:144] Setting up conv1
I0502 20:54:00.734222 13433 net.cpp:151] Top shape: 20 64 10 10 (128000)
I0502 20:54:00.734227 13433 net.cpp:159] Memory required for data: 520240
I0502 20:54:00.734236 13433 layer_factory.hpp:77] Creating layer relu1
I0502 20:54:00.734243 13433 net.cpp:94] Creating Layer relu1
I0502 20:54:00.734246 13433 net.cpp:435] relu1 <- conv1
I0502 20:54:00.734251 13433 net.cpp:396] relu1 -> conv1 (in-place)
I0502 20:54:00.734259 13433 net.cpp:144] Setting up relu1
I0502 20:54:00.734264 13433 net.cpp:151] Top shape: 20 64 10 10 (128000)
I0502 20:54:00.734267 13433 net.cpp:159] Memory required for data: 1032240
I0502 20:54:00.734272 13433 layer_factory.hpp:77] Creating layer conv2
I0502 20:54:00.734279 13433 net.cpp:94] Creating Layer conv2
I0502 20:54:00.734283 13433 net.cpp:435] conv2 <- conv1
I0502 20:54:00.734288 13433 net.cpp:409] conv2 -> conv2
I0502 20:54:00.737730 13433 net.cpp:144] Setting up conv2
I0502 20:54:00.737743 13433 net.cpp:151] Top shape: 20 64 10 10 (128000)
I0502 20:54:00.737747 13433 net.cpp:159] Memory required for data: 1544240
I0502 20:54:00.737756 13433 layer_factory.hpp:77] Creating layer relu2
I0502 20:54:00.737761 13433 net.cpp:94] Creating Layer relu2
I0502 20:54:00.737766 13433 net.cpp:435] relu2 <- conv2
I0502 20:54:00.737771 13433 net.cpp:396] relu2 -> conv2 (in-place)
I0502 20:54:00.737777 13433 net.cpp:144] Setting up relu2
I0502 20:54:00.737782 13433 net.cpp:151] Top shape: 20 64 10 10 (128000)
I0502 20:54:00.737785 13433 net.cpp:159] Memory required for data: 2056240
I0502 20:54:00.737788 13433 layer_factory.hpp:77] Creating layer pool2
I0502 20:54:00.737794 13433 net.cpp:94] Creating Layer pool2
I0502 20:54:00.737797 13433 net.cpp:435] pool2 <- conv2
I0502 20:54:00.737802 13433 net.cpp:409] pool2 -> pool2
I0502 20:54:00.737834 13433 net.cpp:144] Setting up pool2
I0502 20:54:00.737840 13433 net.cpp:151] Top shape: 20 64 5 5 (32000)
I0502 20:54:00.737844 13433 net.cpp:159] Memory required for data: 2184240
I0502 20:54:00.737848 13433 layer_factory.hpp:77] Creating layer conv3
I0502 20:54:00.737856 13433 net.cpp:94] Creating Layer conv3
I0502 20:54:00.737859 13433 net.cpp:435] conv3 <- pool2
I0502 20:54:00.737864 13433 net.cpp:409] conv3 -> conv3
I0502 20:54:00.742535 13433 net.cpp:144] Setting up conv3
I0502 20:54:00.742549 13433 net.cpp:151] Top shape: 20 64 5 5 (32000)
I0502 20:54:00.742553 13433 net.cpp:159] Memory required for data: 2312240
I0502 20:54:00.742563 13433 layer_factory.hpp:77] Creating layer relu3
I0502 20:54:00.742569 13433 net.cpp:94] Creating Layer relu3
I0502 20:54:00.742573 13433 net.cpp:435] relu3 <- conv3
I0502 20:54:00.742578 13433 net.cpp:396] relu3 -> conv3 (in-place)
I0502 20:54:00.742586 13433 net.cpp:144] Setting up relu3
I0502 20:54:00.742591 13433 net.cpp:151] Top shape: 20 64 5 5 (32000)
I0502 20:54:00.742594 13433 net.cpp:159] Memory required for data: 2440240
I0502 20:54:00.742599 13433 layer_factory.hpp:77] Creating layer conv4
I0502 20:54:00.742605 13433 net.cpp:94] Creating Layer conv4
I0502 20:54:00.742609 13433 net.cpp:435] conv4 <- conv3
I0502 20:54:00.742614 13433 net.cpp:409] conv4 -> conv4
I0502 20:54:00.746091 13433 net.cpp:144] Setting up conv4
I0502 20:54:00.746104 13433 net.cpp:151] Top shape: 20 64 5 5 (32000)
I0502 20:54:00.746109 13433 net.cpp:159] Memory required for data: 2568240
I0502 20:54:00.746115 13433 layer_factory.hpp:77] Creating layer relu4
I0502 20:54:00.746121 13433 net.cpp:94] Creating Layer relu4
I0502 20:54:00.746125 13433 net.cpp:435] relu4 <- conv4
I0502 20:54:00.746134 13433 net.cpp:396] relu4 -> conv4 (in-place)
I0502 20:54:00.746142 13433 net.cpp:144] Setting up relu4
I0502 20:54:00.746147 13433 net.cpp:151] Top shape: 20 64 5 5 (32000)
I0502 20:54:00.746151 13433 net.cpp:159] Memory required for data: 2696240
I0502 20:54:00.746155 13433 layer_factory.hpp:77] Creating layer conv5
I0502 20:54:00.746162 13433 net.cpp:94] Creating Layer conv5
I0502 20:54:00.746166 13433 net.cpp:435] conv5 <- conv4
I0502 20:54:00.746171 13433 net.cpp:409] conv5 -> conv5
I0502 20:54:00.749639 13433 net.cpp:144] Setting up conv5
I0502 20:54:00.749651 13433 net.cpp:151] Top shape: 20 64 5 5 (32000)
I0502 20:54:00.749661 13433 net.cpp:159] Memory required for data: 2824240
I0502 20:54:00.749671 13433 layer_factory.hpp:77] Creating layer relu5
I0502 20:54:00.749677 13433 net.cpp:94] Creating Layer relu5
I0502 20:54:00.749681 13433 net.cpp:435] relu5 <- conv5
I0502 20:54:00.749686 13433 net.cpp:396] relu5 -> conv5 (in-place)
I0502 20:54:00.749692 13433 net.cpp:144] Setting up relu5
I0502 20:54:00.749697 13433 net.cpp:151] Top shape: 20 64 5 5 (32000)
I0502 20:54:00.749701 13433 net.cpp:159] Memory required for data: 2952240
I0502 20:54:00.749704 13433 layer_factory.hpp:77] Creating layer pool5
I0502 20:54:00.749709 13433 net.cpp:94] Creating Layer pool5
I0502 20:54:00.749713 13433 net.cpp:435] pool5 <- conv5
I0502 20:54:00.749717 13433 net.cpp:409] pool5 -> pool5
I0502 20:54:00.749742 13433 net.cpp:144] Setting up pool5
I0502 20:54:00.749748 13433 net.cpp:151] Top shape: 20 64 2 2 (5120)
I0502 20:54:00.749752 13433 net.cpp:159] Memory required for data: 2972720
I0502 20:54:00.749755 13433 layer_factory.hpp:77] Creating layer ip1
I0502 20:54:00.749763 13433 net.cpp:94] Creating Layer ip1
I0502 20:54:00.749765 13433 net.cpp:435] ip1 <- pool5
I0502 20:54:00.749771 13433 net.cpp:409] ip1 -> ip1
I0502 20:54:00.750252 13433 net.cpp:144] Setting up ip1
I0502 20:54:00.750258 13433 net.cpp:151] Top shape: 20 64 (1280)
I0502 20:54:00.750262 13433 net.cpp:159] Memory required for data: 2977840
I0502 20:54:00.750268 13433 layer_factory.hpp:77] Creating layer ip2
I0502 20:54:00.750274 13433 net.cpp:94] Creating Layer ip2
I0502 20:54:00.750277 13433 net.cpp:435] ip2 <- ip1
I0502 20:54:00.750283 13433 net.cpp:409] ip2 -> ip2
I0502 20:54:00.750452 13433 net.cpp:144] Setting up ip2
I0502 20:54:00.750459 13433 net.cpp:151] Top shape: 20 64 (1280)
I0502 20:54:00.750463 13433 net.cpp:159] Memory required for data: 2982960
I0502 20:54:00.750468 13433 layer_factory.hpp:77] Creating layer ip3
I0502 20:54:00.750475 13433 net.cpp:94] Creating Layer ip3
I0502 20:54:00.750478 13433 net.cpp:435] ip3 <- ip2
I0502 20:54:00.750483 13433 net.cpp:409] ip3 -> ip3
I0502 20:54:00.750633 13433 net.cpp:144] Setting up ip3
I0502 20:54:00.750638 13433 net.cpp:151] Top shape: 20 50 (1000)
I0502 20:54:00.750643 13433 net.cpp:159] Memory required for data: 2986960
I0502 20:54:00.750648 13433 layer_factory.hpp:77] Creating layer ip3_ip3_0_split
I0502 20:54:00.750653 13433 net.cpp:94] Creating Layer ip3_ip3_0_split
I0502 20:54:00.750656 13433 net.cpp:435] ip3_ip3_0_split <- ip3
I0502 20:54:00.750660 13433 net.cpp:409] ip3_ip3_0_split -> ip3_ip3_0_split_0
I0502 20:54:00.750666 13433 net.cpp:409] ip3_ip3_0_split -> ip3_ip3_0_split_1
I0502 20:54:00.750690 13433 net.cpp:144] Setting up ip3_ip3_0_split
I0502 20:54:00.750696 13433 net.cpp:151] Top shape: 20 50 (1000)
I0502 20:54:00.750700 13433 net.cpp:151] Top shape: 20 50 (1000)
I0502 20:54:00.750704 13433 net.cpp:159] Memory required for data: 2994960
I0502 20:54:00.750706 13433 layer_factory.hpp:77] Creating layer accuracy
I0502 20:54:00.750716 13433 net.cpp:94] Creating Layer accuracy
I0502 20:54:00.750720 13433 net.cpp:435] accuracy <- ip3_ip3_0_split_0
I0502 20:54:00.750725 13433 net.cpp:435] accuracy <- label_intercept_1_split_0
I0502 20:54:00.750728 13433 net.cpp:409] accuracy -> accuracy
…
