…
I0506 10:25:23.744956 21221 net.cpp:323] The NetState phase (0) differed from the phase (1) specified by a rule in layer intercept
I0506 10:25:23.744972 21221 net.cpp:323] The NetState phase (0) differed from the phase (1) specified by a rule in layer loss
I0506 10:25:23.745060 21221 net.cpp:52] Initializing net from parameters: 
state {
  phase: TRAIN
}
layer {
  name: "parameters"
  type: "HDF5Data"
  top: "data"
  top: "label"
  include {
    phase: TRAIN
  }
  hdf5_data_param {
    source: "/home/purduethu/scratch/radon/d/deng106/CNNStatisticalModel/distributions/input/50_distributions_100_sample_size_train-parameters-path.txt"
    batch_size: 20
  }
}
layer {
  name: "conv1"
  type: "Convolution"
  bottom: "data"
  top: "conv1"
  param {
    lr_mult: 1
  }
  param {
    lr_mult: 2
  }
  convolution_param {
    num_output: 64
    pad: 2
    kernel_size: 5
    stride: 1
    weight_filler {
      type: "gaussian"
      std: 0.0001
    }
    bias_filler {
      type: "constant"
    }
  }
}
layer {
  name: "relu1"
  type: "ReLU"
  bottom: "conv1"
  top: "conv1"
}
layer {
  name: "conv2"
  type: "Convolution"
  bottom: "conv1"
  top: "conv2"
  param {
    lr_mult: 1
  }
  param {
    lr_mult: 2
  }
  convolution_param {
    num_output: 64
    pad: 2
    kernel_size: 5
    stride: 1
    weight_filler {
      type: "gaussian"
      std: 0.01
    }
    bias_filler {
      type: "constant"
    }
  }
}
layer {
  name: "relu2"
  type: "ReLU"
  bottom: "conv2"
  top: "conv2"
}
layer {
  name: "pool2"
  type: "Pooling"
  bottom: "conv2"
  top: "pool2"
  pooling_param {
    pool: MAX
    kernel_size: 3
    stride: 2
  }
}
layer {
  name: "conv3"
  type: "Convolution"
  bottom: "pool2"
  top: "conv3"
  param {
    lr_mult: 1
  }
  param {
    lr_mult: 2
  }
  convolution_param {
    num_output: 128
    pad: 2
    kernel_size: 5
    stride: 1
    weight_filler {
      type: "gaussian"
      std: 0.01
    }
    bias_filler {
      type: "constant"
    }
  }
}
layer {
  name: "relu3"
  type: "ReLU"
  bottom: "conv3"
  top: "conv3"
}
layer {
  name: "conv4"
  type: "Convolution"
  bottom: "conv3"
  top: "conv4"
  param {
    lr_mult: 1
  }
  param {
    lr_mult: 2
  }
  convolution_param {
    num_output: 128
    pad: 2
    kernel_size: 5
    stride: 1
    weight_filler {
      type: "gaussian"
      std: 0.01
    }
    bias_filler {
      type: "constant"
    }
  }
}
layer {
  name: "relu4"
  type: "ReLU"
  bottom: "conv4"
  top: "conv4"
}
layer {
  name: "conv5"
  type: "Convolution"
  bottom: "conv4"
  top: "conv5"
  param {
    lr_mult: 1
  }
  param {
    lr_mult: 2
  }
  convolution_param {
    num_output: 128
    pad: 2
    kernel_size: 5
    stride: 1
    weight_filler {
      type: "gaussian"
      std: 0.01
    }
    bias_filler {
      type: "constant"
    }
  }
}
layer {
  name: "relu5"
  type: "ReLU"
  bottom: "conv5"
  top: "conv5"
}
layer {
  name: "pool5"
  type: "Pooling"
  bottom: "conv5"
  top: "pool5"
  pooling_param {
    pool: AVE
    kernel_size: 3
    stride: 2
  }
}
layer {
  name: "ip1"
  type: "InnerProduct"
  bottom: "pool5"
  top: "ip1"
  param {
    lr_mult: 1
  }
  param {
    lr_mult: 2
  }
  inner_product_param {
    num_output: 1024
    weight_filler {
      type: "gaussian"
      std: 0.1
    }
    bias_filler {
      type: "constant"
    }
  }
}
layer {
  name: "ip2"
  type: "InnerProduct"
  bottom: "ip1"
  top: "ip2"
  param {
    lr_mult: 1
  }
  param {
    lr_mult: 2
  }
  inner_product_param {
    num_output: 512
    weight_filler {
      type: "gaussian"
      std: 0.1
    }
    bias_filler {
      type: "constant"
    }
  }
}
layer {
  name: "ip3"
  type: "InnerProduct"
  bottom: "ip2"
  top: "ip3"
  param {
    lr_mult: 1
  }
  param {
    lr_mult: 2
  }
  inner_product_param {
    num_output: 1
    weight_filler {
      type: "gaussian"
      std: 0.1
    }
    bias_filler {
      type: "constant"
    }
  }
}
layer {
  name: "loss"
  type: "HuberLoss"
  bottom: "ip3"
  bottom: "label"
  top: "loss"
  include {
    phase: TRAIN
  }
}
I0506 10:25:23.745111 21221 layer_factory.hpp:77] Creating layer parameters
I0506 10:25:23.745124 21221 net.cpp:94] Creating Layer parameters
I0506 10:25:23.745128 21221 net.cpp:409] parameters -> data
I0506 10:25:23.745137 21221 net.cpp:409] parameters -> label
I0506 10:25:23.745148 21221 hdf5_data_layer.cpp:79] Loading list of HDF5 filenames from: /home/purduethu/scratch/radon/d/deng106/CNNStatisticalModel/distributions/input/50_distributions_100_sample_size_train-parameters-path.txt
I0506 10:25:23.745163 21221 hdf5_data_layer.cpp:93] Number of HDF5 files: 1
I0506 10:25:23.745570 21221 hdf5.cpp:32] Datatype class: H5T_FLOAT
I0506 10:25:23.907011 21221 net.cpp:144] Setting up parameters
I0506 10:25:23.907040 21221 net.cpp:151] Top shape: 20 1 10 10 (2000)
I0506 10:25:23.907047 21221 net.cpp:151] Top shape: 20 (20)
I0506 10:25:23.907049 21221 net.cpp:159] Memory required for data: 8080
I0506 10:25:23.907055 21221 layer_factory.hpp:77] Creating layer conv1
I0506 10:25:23.907075 21221 net.cpp:94] Creating Layer conv1
I0506 10:25:23.907080 21221 net.cpp:435] conv1 <- data
I0506 10:25:23.907088 21221 net.cpp:409] conv1 -> conv1
I0506 10:25:23.911269 21221 net.cpp:144] Setting up conv1
I0506 10:25:23.911284 21221 net.cpp:151] Top shape: 20 64 10 10 (128000)
I0506 10:25:23.911288 21221 net.cpp:159] Memory required for data: 520080
I0506 10:25:23.911299 21221 layer_factory.hpp:77] Creating layer relu1
I0506 10:25:23.911308 21221 net.cpp:94] Creating Layer relu1
I0506 10:25:23.911311 21221 net.cpp:435] relu1 <- conv1
I0506 10:25:23.911315 21221 net.cpp:396] relu1 -> conv1 (in-place)
I0506 10:25:23.911327 21221 net.cpp:144] Setting up relu1
I0506 10:25:23.911332 21221 net.cpp:151] Top shape: 20 64 10 10 (128000)
I0506 10:25:23.911334 21221 net.cpp:159] Memory required for data: 1032080
I0506 10:25:23.911339 21221 layer_factory.hpp:77] Creating layer conv2
I0506 10:25:23.911345 21221 net.cpp:94] Creating Layer conv2
I0506 10:25:23.911350 21221 net.cpp:435] conv2 <- conv1
I0506 10:25:23.911353 21221 net.cpp:409] conv2 -> conv2
I0506 10:25:23.917402 21221 net.cpp:144] Setting up conv2
I0506 10:25:23.917415 21221 net.cpp:151] Top shape: 20 64 10 10 (128000)
I0506 10:25:23.917418 21221 net.cpp:159] Memory required for data: 1544080
I0506 10:25:23.917426 21221 layer_factory.hpp:77] Creating layer relu2
I0506 10:25:23.917433 21221 net.cpp:94] Creating Layer relu2
I0506 10:25:23.917436 21221 net.cpp:435] relu2 <- conv2
I0506 10:25:23.917441 21221 net.cpp:396] relu2 -> conv2 (in-place)
I0506 10:25:23.917448 21221 net.cpp:144] Setting up relu2
I0506 10:25:23.917453 21221 net.cpp:151] Top shape: 20 64 10 10 (128000)
I0506 10:25:23.917455 21221 net.cpp:159] Memory required for data: 2056080
I0506 10:25:23.917459 21221 layer_factory.hpp:77] Creating layer pool2
I0506 10:25:23.917464 21221 net.cpp:94] Creating Layer pool2
I0506 10:25:23.917467 21221 net.cpp:435] pool2 <- conv2
I0506 10:25:23.917471 21221 net.cpp:409] pool2 -> pool2
I0506 10:25:23.917528 21221 net.cpp:144] Setting up pool2
I0506 10:25:23.917536 21221 net.cpp:151] Top shape: 20 64 5 5 (32000)
I0506 10:25:23.917539 21221 net.cpp:159] Memory required for data: 2184080
I0506 10:25:23.917542 21221 layer_factory.hpp:77] Creating layer conv3
I0506 10:25:23.917551 21221 net.cpp:94] Creating Layer conv3
I0506 10:25:23.917560 21221 net.cpp:435] conv3 <- pool2
I0506 10:25:23.917565 21221 net.cpp:409] conv3 -> conv3
I0506 10:25:23.925746 21221 net.cpp:144] Setting up conv3
I0506 10:25:23.925761 21221 net.cpp:151] Top shape: 20 128 5 5 (64000)
I0506 10:25:23.925765 21221 net.cpp:159] Memory required for data: 2440080
I0506 10:25:23.925773 21221 layer_factory.hpp:77] Creating layer relu3
I0506 10:25:23.925779 21221 net.cpp:94] Creating Layer relu3
I0506 10:25:23.925783 21221 net.cpp:435] relu3 <- conv3
I0506 10:25:23.925787 21221 net.cpp:396] relu3 -> conv3 (in-place)
I0506 10:25:23.925796 21221 net.cpp:144] Setting up relu3
I0506 10:25:23.925799 21221 net.cpp:151] Top shape: 20 128 5 5 (64000)
I0506 10:25:23.925802 21221 net.cpp:159] Memory required for data: 2696080
I0506 10:25:23.925806 21221 layer_factory.hpp:77] Creating layer conv4
I0506 10:25:23.925813 21221 net.cpp:94] Creating Layer conv4
I0506 10:25:23.925817 21221 net.cpp:435] conv4 <- conv3
I0506 10:25:23.925822 21221 net.cpp:409] conv4 -> conv4
I0506 10:25:23.940737 21221 net.cpp:144] Setting up conv4
I0506 10:25:23.940757 21221 net.cpp:151] Top shape: 20 128 5 5 (64000)
I0506 10:25:23.940762 21221 net.cpp:159] Memory required for data: 2952080
I0506 10:25:23.940768 21221 layer_factory.hpp:77] Creating layer relu4
I0506 10:25:23.940775 21221 net.cpp:94] Creating Layer relu4
I0506 10:25:23.940779 21221 net.cpp:435] relu4 <- conv4
I0506 10:25:23.940784 21221 net.cpp:396] relu4 -> conv4 (in-place)
I0506 10:25:23.940793 21221 net.cpp:144] Setting up relu4
I0506 10:25:23.940796 21221 net.cpp:151] Top shape: 20 128 5 5 (64000)
I0506 10:25:23.940799 21221 net.cpp:159] Memory required for data: 3208080
I0506 10:25:23.940803 21221 layer_factory.hpp:77] Creating layer conv5
I0506 10:25:23.940810 21221 net.cpp:94] Creating Layer conv5
I0506 10:25:23.940814 21221 net.cpp:435] conv5 <- conv4
I0506 10:25:23.940819 21221 net.cpp:409] conv5 -> conv5
I0506 10:25:23.955240 21221 net.cpp:144] Setting up conv5
I0506 10:25:23.955261 21221 net.cpp:151] Top shape: 20 128 5 5 (64000)
I0506 10:25:23.955265 21221 net.cpp:159] Memory required for data: 3464080
I0506 10:25:23.955276 21221 layer_factory.hpp:77] Creating layer relu5
I0506 10:25:23.955282 21221 net.cpp:94] Creating Layer relu5
I0506 10:25:23.955286 21221 net.cpp:435] relu5 <- conv5
I0506 10:25:23.955291 21221 net.cpp:396] relu5 -> conv5 (in-place)
I0506 10:25:23.955299 21221 net.cpp:144] Setting up relu5
I0506 10:25:23.955303 21221 net.cpp:151] Top shape: 20 128 5 5 (64000)
I0506 10:25:23.955307 21221 net.cpp:159] Memory required for data: 3720080
I0506 10:25:23.955309 21221 layer_factory.hpp:77] Creating layer pool5
I0506 10:25:23.955314 21221 net.cpp:94] Creating Layer pool5
I0506 10:25:23.955317 21221 net.cpp:435] pool5 <- conv5
I0506 10:25:23.955322 21221 net.cpp:409] pool5 -> pool5
I0506 10:25:23.955368 21221 net.cpp:144] Setting up pool5
I0506 10:25:23.955375 21221 net.cpp:151] Top shape: 20 128 2 2 (10240)
I0506 10:25:23.955379 21221 net.cpp:159] Memory required for data: 3761040
I0506 10:25:23.955382 21221 layer_factory.hpp:77] Creating layer ip1
I0506 10:25:23.955391 21221 net.cpp:94] Creating Layer ip1
I0506 10:25:23.955395 21221 net.cpp:435] ip1 <- pool5
I0506 10:25:23.955400 21221 net.cpp:409] ip1 -> ip1
I0506 10:25:23.969512 21221 net.cpp:144] Setting up ip1
I0506 10:25:23.969537 21221 net.cpp:151] Top shape: 20 1024 (20480)
I0506 10:25:23.969542 21221 net.cpp:159] Memory required for data: 3842960
I0506 10:25:23.969548 21221 layer_factory.hpp:77] Creating layer ip2
I0506 10:25:23.969558 21221 net.cpp:94] Creating Layer ip2
I0506 10:25:23.969561 21221 net.cpp:435] ip2 <- ip1
I0506 10:25:23.969568 21221 net.cpp:409] ip2 -> ip2
I0506 10:25:23.982637 21221 net.cpp:144] Setting up ip2
I0506 10:25:23.982656 21221 net.cpp:151] Top shape: 20 512 (10240)
I0506 10:25:23.982658 21221 net.cpp:159] Memory required for data: 3883920
I0506 10:25:23.982664 21221 layer_factory.hpp:77] Creating layer ip3
I0506 10:25:23.982672 21221 net.cpp:94] Creating Layer ip3
I0506 10:25:23.982676 21221 net.cpp:435] ip3 <- ip2
I0506 10:25:23.982688 21221 net.cpp:409] ip3 -> ip3
I0506 10:25:23.982811 21221 net.cpp:144] Setting up ip3
I0506 10:25:23.982820 21221 net.cpp:151] Top shape: 20 1 (20)
I0506 10:25:23.982822 21221 net.cpp:159] Memory required for data: 3884000
I0506 10:25:23.982827 21221 layer_factory.hpp:77] Creating layer loss
I0506 10:25:23.982841 21221 net.cpp:94] Creating Layer loss
I0506 10:25:23.982844 21221 net.cpp:435] loss <- ip3
I0506 10:25:23.982848 21221 net.cpp:435] loss <- label
I0506 10:25:23.982853 21221 net.cpp:409] loss -> loss
I0506 10:25:23.982908 21221 net.cpp:144] Setting up loss
…
I0506 10:25:24.089504 21221 net.cpp:323] The NetState phase (0) differed from the phase (1) specified by a rule in layer intercept
I0506 10:25:24.089520 21221 net.cpp:323] The NetState phase (0) differed from the phase (1) specified by a rule in layer accuracy
I0506 10:25:24.089612 21221 net.cpp:52] Initializing net from parameters: 
state {
  phase: TRAIN
}
layer {
  name: "parameters"
  type: "HDF5Data"
  top: "data"
  top: "label"
  include {
    phase: TRAIN
  }
  hdf5_data_param {
    source: "/home/purduethu/scratch/radon/d/deng106/CNNStatisticalModel/distributions/input/50_distributions_100_sample_size_train-distributions-path.txt"
    batch_size: 20
  }
}
layer {
  name: "conv1"
  type: "Convolution"
  bottom: "data"
  top: "conv1"
  param {
    lr_mult: 1
  }
  param {
    lr_mult: 2
  }
  convolution_param {
    num_output: 64
    pad: 2
    kernel_size: 5
    stride: 1
    weight_filler {
      type: "gaussian"
      std: 0.0001
    }
    bias_filler {
      type: "constant"
    }
  }
}
layer {
  name: "relu1"
  type: "ReLU"
  bottom: "conv1"
  top: "conv1"
}
layer {
  name: "conv2"
  type: "Convolution"
  bottom: "conv1"
  top: "conv2"
  param {
    lr_mult: 1
  }
  param {
    lr_mult: 2
  }
  convolution_param {
    num_output: 64
    pad: 2
    kernel_size: 5
    stride: 1
    weight_filler {
      type: "gaussian"
      std: 0.01
    }
    bias_filler {
      type: "constant"
    }
  }
}
layer {
  name: "relu2"
  type: "ReLU"
  bottom: "conv2"
  top: "conv2"
}
layer {
  name: "pool2"
  type: "Pooling"
  bottom: "conv2"
  top: "pool2"
  pooling_param {
    pool: MAX
    kernel_size: 3
    stride: 2
  }
}
layer {
  name: "conv3"
  type: "Convolution"
  bottom: "pool2"
  top: "conv3"
  param {
    lr_mult: 1
  }
  param {
    lr_mult: 2
  }
  convolution_param {
    num_output: 128
    pad: 2
    kernel_size: 5
    stride: 1
    weight_filler {
      type: "gaussian"
      std: 0.01
    }
    bias_filler {
      type: "constant"
    }
  }
}
layer {
  name: "relu3"
  type: "ReLU"
  bottom: "conv3"
  top: "conv3"
}
layer {
  name: "conv4"
  type: "Convolution"
  bottom: "conv3"
  top: "conv4"
  param {
    lr_mult: 1
  }
  param {
    lr_mult: 2
  }
  convolution_param {
    num_output: 128
    pad: 2
    kernel_size: 5
    stride: 1
    weight_filler {
      type: "gaussian"
      std: 0.01
    }
    bias_filler {
      type: "constant"
    }
  }
}
layer {
  name: "relu4"
  type: "ReLU"
  bottom: "conv4"
  top: "conv4"
}
layer {
  name: "conv5"
  type: "Convolution"
  bottom: "conv4"
  top: "conv5"
  param {
    lr_mult: 1
  }
  param {
    lr_mult: 2
  }
  convolution_param {
    num_output: 128
    pad: 2
    kernel_size: 5
    stride: 1
    weight_filler {
      type: "gaussian"
      std: 0.01
    }
    bias_filler {
      type: "constant"
    }
  }
}
layer {
  name: "relu5"
  type: "ReLU"
  bottom: "conv5"
  top: "conv5"
}
layer {
  name: "pool5"
  type: "Pooling"
  bottom: "conv5"
  top: "pool5"
  pooling_param {
    pool: AVE
    kernel_size: 3
    stride: 2
  }
}
layer {
  name: "ip1"
  type: "InnerProduct"
  bottom: "pool5"
  top: "ip1"
  param {
    lr_mult: 1
  }
  param {
    lr_mult: 2
  }
  inner_product_param {
    num_output: 1024
    weight_filler {
      type: "gaussian"
      std: 0.1
    }
    bias_filler {
      type: "constant"
    }
  }
}
layer {
  name: "ip2"
  type: "InnerProduct"
  bottom: "ip1"
  top: "ip2"
  param {
    lr_mult: 1
  }
  param {
    lr_mult: 2
  }
  inner_product_param {
    num_output: 512
    weight_filler {
      type: "gaussian"
      std: 0.1
    }
    bias_filler {
      type: "constant"
    }
  }
}
layer {
  name: "ip3"
  type: "InnerProduct"
  bottom: "ip2"
  top: "ip3"
  param {
    lr_mult: 1
  }
  param {
    lr_mult: 2
  }
  inner_product_param {
    num_output: 50
    weight_filler {
      type: "gaussian"
      std: 0.1
    }
    bias_filler {
      type: "constant"
    }
  }
}
layer {
  name: "loss"
  type: "SoftmaxWithLoss"
  bottom: "ip3"
  bottom: "label"
  top: "loss"
}
I0506 10:25:24.089663 21221 layer_factory.hpp:77] Creating layer parameters
I0506 10:25:24.089673 21221 net.cpp:94] Creating Layer parameters
I0506 10:25:24.089676 21221 net.cpp:409] parameters -> data
I0506 10:25:24.089682 21221 net.cpp:409] parameters -> label
I0506 10:25:24.089687 21221 hdf5_data_layer.cpp:79] Loading list of HDF5 filenames from: /home/purduethu/scratch/radon/d/deng106/CNNStatisticalModel/distributions/input/50_distributions_100_sample_size_train-distributions-path.txt
I0506 10:25:24.089704 21221 hdf5_data_layer.cpp:93] Number of HDF5 files: 1
I0506 10:25:24.244858 21221 hdf5.cpp:35] Datatype class: H5T_INTEGER
I0506 10:25:24.247879 21221 net.cpp:144] Setting up parameters
I0506 10:25:24.247900 21221 net.cpp:151] Top shape: 20 1 10 10 (2000)
I0506 10:25:24.247905 21221 net.cpp:151] Top shape: 20 (20)
I0506 10:25:24.247907 21221 net.cpp:159] Memory required for data: 8080
I0506 10:25:24.247913 21221 layer_factory.hpp:77] Creating layer conv1
I0506 10:25:24.247931 21221 net.cpp:94] Creating Layer conv1
I0506 10:25:24.247934 21221 net.cpp:435] conv1 <- data
I0506 10:25:24.247941 21221 net.cpp:409] conv1 -> conv1
I0506 10:25:24.249770 21221 net.cpp:144] Setting up conv1
I0506 10:25:24.249785 21221 net.cpp:151] Top shape: 20 64 10 10 (128000)
I0506 10:25:24.249789 21221 net.cpp:159] Memory required for data: 520080
I0506 10:25:24.249799 21221 layer_factory.hpp:77] Creating layer relu1
I0506 10:25:24.249806 21221 net.cpp:94] Creating Layer relu1
I0506 10:25:24.249810 21221 net.cpp:435] relu1 <- conv1
I0506 10:25:24.249814 21221 net.cpp:396] relu1 -> conv1 (in-place)
I0506 10:25:24.249822 21221 net.cpp:144] Setting up relu1
I0506 10:25:24.249826 21221 net.cpp:151] Top shape: 20 64 10 10 (128000)
I0506 10:25:24.249830 21221 net.cpp:159] Memory required for data: 1032080
I0506 10:25:24.249832 21221 layer_factory.hpp:77] Creating layer conv2
I0506 10:25:24.249840 21221 net.cpp:94] Creating Layer conv2
I0506 10:25:24.249843 21221 net.cpp:435] conv2 <- conv1
I0506 10:25:24.249847 21221 net.cpp:409] conv2 -> conv2
I0506 10:25:24.255175 21221 net.cpp:144] Setting up conv2
I0506 10:25:24.255189 21221 net.cpp:151] Top shape: 20 64 10 10 (128000)
I0506 10:25:24.255192 21221 net.cpp:159] Memory required for data: 1544080
I0506 10:25:24.255200 21221 layer_factory.hpp:77] Creating layer relu2
I0506 10:25:24.255206 21221 net.cpp:94] Creating Layer relu2
I0506 10:25:24.255210 21221 net.cpp:435] relu2 <- conv2
I0506 10:25:24.255214 21221 net.cpp:396] relu2 -> conv2 (in-place)
I0506 10:25:24.255221 21221 net.cpp:144] Setting up relu2
I0506 10:25:24.255226 21221 net.cpp:151] Top shape: 20 64 10 10 (128000)
I0506 10:25:24.255229 21221 net.cpp:159] Memory required for data: 2056080
I0506 10:25:24.255231 21221 layer_factory.hpp:77] Creating layer pool2
I0506 10:25:24.255237 21221 net.cpp:94] Creating Layer pool2
I0506 10:25:24.255240 21221 net.cpp:435] pool2 <- conv2
I0506 10:25:24.255245 21221 net.cpp:409] pool2 -> pool2
I0506 10:25:24.255301 21221 net.cpp:144] Setting up pool2
I0506 10:25:24.255308 21221 net.cpp:151] Top shape: 20 64 5 5 (32000)
I0506 10:25:24.255311 21221 net.cpp:159] Memory required for data: 2184080
I0506 10:25:24.255316 21221 layer_factory.hpp:77] Creating layer conv3
I0506 10:25:24.255322 21221 net.cpp:94] Creating Layer conv3
I0506 10:25:24.255326 21221 net.cpp:435] conv3 <- pool2
I0506 10:25:24.255331 21221 net.cpp:409] conv3 -> conv3
I0506 10:25:24.263900 21221 net.cpp:144] Setting up conv3
I0506 10:25:24.263914 21221 net.cpp:151] Top shape: 20 128 5 5 (64000)
I0506 10:25:24.263918 21221 net.cpp:159] Memory required for data: 2440080
I0506 10:25:24.263926 21221 layer_factory.hpp:77] Creating layer relu3
I0506 10:25:24.263931 21221 net.cpp:94] Creating Layer relu3
I0506 10:25:24.263934 21221 net.cpp:435] relu3 <- conv3
I0506 10:25:24.263939 21221 net.cpp:396] relu3 -> conv3 (in-place)
I0506 10:25:24.263952 21221 net.cpp:144] Setting up relu3
I0506 10:25:24.263957 21221 net.cpp:151] Top shape: 20 128 5 5 (64000)
I0506 10:25:24.263959 21221 net.cpp:159] Memory required for data: 2696080
I0506 10:25:24.263962 21221 layer_factory.hpp:77] Creating layer conv4
I0506 10:25:24.263970 21221 net.cpp:94] Creating Layer conv4
I0506 10:25:24.263974 21221 net.cpp:435] conv4 <- conv3
I0506 10:25:24.263979 21221 net.cpp:409] conv4 -> conv4
I0506 10:25:24.278457 21221 net.cpp:144] Setting up conv4
I0506 10:25:24.278471 21221 net.cpp:151] Top shape: 20 128 5 5 (64000)
I0506 10:25:24.278475 21221 net.cpp:159] Memory required for data: 2952080
I0506 10:25:24.278481 21221 layer_factory.hpp:77] Creating layer relu4
I0506 10:25:24.278487 21221 net.cpp:94] Creating Layer relu4
I0506 10:25:24.278491 21221 net.cpp:435] relu4 <- conv4
I0506 10:25:24.278496 21221 net.cpp:396] relu4 -> conv4 (in-place)
I0506 10:25:24.278503 21221 net.cpp:144] Setting up relu4
I0506 10:25:24.278507 21221 net.cpp:151] Top shape: 20 128 5 5 (64000)
I0506 10:25:24.278511 21221 net.cpp:159] Memory required for data: 3208080
I0506 10:25:24.278513 21221 layer_factory.hpp:77] Creating layer conv5
I0506 10:25:24.278522 21221 net.cpp:94] Creating Layer conv5
I0506 10:25:24.278524 21221 net.cpp:435] conv5 <- conv4
I0506 10:25:24.278529 21221 net.cpp:409] conv5 -> conv5
I0506 10:25:24.293359 21221 net.cpp:144] Setting up conv5
I0506 10:25:24.293372 21221 net.cpp:151] Top shape: 20 128 5 5 (64000)
I0506 10:25:24.293376 21221 net.cpp:159] Memory required for data: 3464080
I0506 10:25:24.293385 21221 layer_factory.hpp:77] Creating layer relu5
I0506 10:25:24.293390 21221 net.cpp:94] Creating Layer relu5
I0506 10:25:24.293395 21221 net.cpp:435] relu5 <- conv5
I0506 10:25:24.293398 21221 net.cpp:396] relu5 -> conv5 (in-place)
I0506 10:25:24.293406 21221 net.cpp:144] Setting up relu5
I0506 10:25:24.293411 21221 net.cpp:151] Top shape: 20 128 5 5 (64000)
I0506 10:25:24.293412 21221 net.cpp:159] Memory required for data: 3720080
I0506 10:25:24.293416 21221 layer_factory.hpp:77] Creating layer pool5
I0506 10:25:24.293421 21221 net.cpp:94] Creating Layer pool5
I0506 10:25:24.293423 21221 net.cpp:435] pool5 <- conv5
I0506 10:25:24.293427 21221 net.cpp:409] pool5 -> pool5
I0506 10:25:24.293467 21221 net.cpp:144] Setting up pool5
I0506 10:25:24.293475 21221 net.cpp:151] Top shape: 20 128 2 2 (10240)
I0506 10:25:24.293478 21221 net.cpp:159] Memory required for data: 3761040
I0506 10:25:24.293481 21221 layer_factory.hpp:77] Creating layer ip1
I0506 10:25:24.293488 21221 net.cpp:94] Creating Layer ip1
I0506 10:25:24.293491 21221 net.cpp:435] ip1 <- pool5
I0506 10:25:24.293496 21221 net.cpp:409] ip1 -> ip1
I0506 10:25:24.306574 21221 net.cpp:144] Setting up ip1
I0506 10:25:24.306588 21221 net.cpp:151] Top shape: 20 1024 (20480)
I0506 10:25:24.306592 21221 net.cpp:159] Memory required for data: 3842960
I0506 10:25:24.306598 21221 layer_factory.hpp:77] Creating layer ip2
I0506 10:25:24.306604 21221 net.cpp:94] Creating Layer ip2
I0506 10:25:24.306608 21221 net.cpp:435] ip2 <- ip1
I0506 10:25:24.306613 21221 net.cpp:409] ip2 -> ip2
I0506 10:25:24.319682 21221 net.cpp:144] Setting up ip2
I0506 10:25:24.319696 21221 net.cpp:151] Top shape: 20 512 (10240)
I0506 10:25:24.319700 21221 net.cpp:159] Memory required for data: 3883920
I0506 10:25:24.319705 21221 layer_factory.hpp:77] Creating layer ip3
I0506 10:25:24.319712 21221 net.cpp:94] Creating Layer ip3
I0506 10:25:24.319715 21221 net.cpp:435] ip3 <- ip2
I0506 10:25:24.319720 21221 net.cpp:409] ip3 -> ip3
I0506 10:25:24.321267 21221 net.cpp:144] Setting up ip3
I0506 10:25:24.321280 21221 net.cpp:151] Top shape: 20 50 (1000)
I0506 10:25:24.321285 21221 net.cpp:159] Memory required for data: 3887920
I0506 10:25:24.321290 21221 layer_factory.hpp:77] Creating layer loss
I0506 10:25:24.321296 21221 net.cpp:94] Creating Layer loss
I0506 10:25:24.321300 21221 net.cpp:435] loss <- ip3
I0506 10:25:24.321305 21221 net.cpp:435] loss <- label
I0506 10:25:24.321310 21221 net.cpp:409] loss -> loss
I0506 10:25:24.321317 21221 layer_factory.hpp:77] Creating layer loss
…
I0506 10:25:24.321846 21221 solver.cpp:181] Creating test net (#0) specified by net file: ./protocol/dis_50_100_dimension.protocol_distribution
I0506 10:25:24.321872 21221 net.cpp:323] The NetState phase (1) differed from the phase (0) specified by a rule in layer parameters
I0506 10:25:24.321972 21221 net.cpp:52] Initializing net from parameters: 
state {
  phase: TEST
}
layer {
  name: "intercept"
  type: "HDF5Data"
  top: "data"
  top: "label"
  include {
    phase: TEST
  }
  hdf5_data_param {
    source: "/home/purduethu/scratch/radon/d/deng106/CNNStatisticalModel/distributions/input/50_distributions_100_sample_size_test-distributions-path.txt"
    batch_size: 20
  }
}
layer {
  name: "conv1"
  type: "Convolution"
  bottom: "data"
  top: "conv1"
  param {
    lr_mult: 1
  }
  param {
    lr_mult: 2
  }
  convolution_param {
    num_output: 64
    pad: 2
    kernel_size: 5
    stride: 1
    weight_filler {
      type: "gaussian"
      std: 0.0001
    }
    bias_filler {
      type: "constant"
    }
  }
}
layer {
  name: "relu1"
  type: "ReLU"
  bottom: "conv1"
  top: "conv1"
}
layer {
  name: "conv2"
  type: "Convolution"
  bottom: "conv1"
  top: "conv2"
  param {
    lr_mult: 1
  }
  param {
    lr_mult: 2
  }
  convolution_param {
    num_output: 64
    pad: 2
    kernel_size: 5
    stride: 1
    weight_filler {
      type: "gaussian"
      std: 0.01
    }
    bias_filler {
      type: "constant"
    }
  }
}
layer {
  name: "relu2"
  type: "ReLU"
  bottom: "conv2"
  top: "conv2"
}
layer {
  name: "pool2"
  type: "Pooling"
  bottom: "conv2"
  top: "pool2"
  pooling_param {
    pool: MAX
    kernel_size: 3
    stride: 2
  }
}
layer {
  name: "conv3"
  type: "Convolution"
  bottom: "pool2"
  top: "conv3"
  param {
    lr_mult: 1
  }
  param {
    lr_mult: 2
  }
  convolution_param {
    num_output: 128
    pad: 2
    kernel_size: 5
    stride: 1
    weight_filler {
      type: "gaussian"
      std: 0.01
    }
    bias_filler {
      type: "constant"
    }
  }
}
layer {
  name: "relu3"
  type: "ReLU"
  bottom: "conv3"
  top: "conv3"
}
layer {
  name: "conv4"
  type: "Convolution"
  bottom: "conv3"
  top: "conv4"
  param {
    lr_mult: 1
  }
  param {
    lr_mult: 2
  }
  convolution_param {
    num_output: 128
    pad: 2
    kernel_size: 5
    stride: 1
    weight_filler {
      type: "gaussian"
      std: 0.01
    }
    bias_filler {
      type: "constant"
    }
  }
}
layer {
  name: "relu4"
  type: "ReLU"
  bottom: "conv4"
  top: "conv4"
}
layer {
  name: "conv5"
  type: "Convolution"
  bottom: "conv4"
  top: "conv5"
  param {
    lr_mult: 1
  }
  param {
    lr_mult: 2
  }
  convolution_param {
    num_output: 128
    pad: 2
    kernel_size: 5
    stride: 1
    weight_filler {
      type: "gaussian"
      std: 0.01
    }
    bias_filler {
      type: "constant"
    }
  }
}
layer {
  name: "relu5"
  type: "ReLU"
  bottom: "conv5"
  top: "conv5"
}
layer {
  name: "pool5"
  type: "Pooling"
  bottom: "conv5"
  top: "pool5"
  pooling_param {
    pool: AVE
    kernel_size: 3
    stride: 2
  }
}
layer {
  name: "ip1"
  type: "InnerProduct"
  bottom: "pool5"
  top: "ip1"
  param {
    lr_mult: 1
  }
  param {
    lr_mult: 2
  }
  inner_product_param {
    num_output: 1024
    weight_filler {
      type: "gaussian"
      std: 0.1
    }
    bias_filler {
      type: "constant"
    }
  }
}
layer {
  name: "ip2"
  type: "InnerProduct"
  bottom: "ip1"
  top: "ip2"
  param {
    lr_mult: 1
  }
  param {
    lr_mult: 2
  }
  inner_product_param {
    num_output: 512
    weight_filler {
      type: "gaussian"
      std: 0.1
    }
    bias_filler {
      type: "constant"
    }
  }
}
layer {
  name: "ip3"
  type: "InnerProduct"
  bottom: "ip2"
  top: "ip3"
  param {
    lr_mult: 1
  }
  param {
    lr_mult: 2
  }
  inner_product_param {
    num_output: 50
    weight_filler {
      type: "gaussian"
      std: 0.1
    }
    bias_filler {
      type: "constant"
    }
  }
}
layer {
  name: "accuracy"
  type: "Accuracy"
  bottom: "ip3"
  bottom: "label"
  top: "accuracy"
  include {
    phase: TEST
  }
}
layer {
  name: "loss"
  type: "SoftmaxWithLoss"
  bottom: "ip3"
  bottom: "label"
  top: "loss"
}
I0506 10:25:24.322036 21221 layer_factory.hpp:77] Creating layer intercept
I0506 10:25:24.322043 21221 net.cpp:94] Creating Layer intercept
I0506 10:25:24.322047 21221 net.cpp:409] intercept -> data
I0506 10:25:24.322053 21221 net.cpp:409] intercept -> label
I0506 10:25:24.322059 21221 hdf5_data_layer.cpp:79] Loading list of HDF5 filenames from: /home/purduethu/scratch/radon/d/deng106/CNNStatisticalModel/distributions/input/50_distributions_100_sample_size_test-distributions-path.txt
I0506 10:25:24.322079 21221 hdf5_data_layer.cpp:93] Number of HDF5 files: 1
I0506 10:25:24.362288 21221 net.cpp:144] Setting up intercept
I0506 10:25:24.362324 21221 net.cpp:151] Top shape: 20 1 10 10 (2000)
I0506 10:25:24.362329 21221 net.cpp:151] Top shape: 20 (20)
I0506 10:25:24.362332 21221 net.cpp:159] Memory required for data: 8080
I0506 10:25:24.362339 21221 layer_factory.hpp:77] Creating layer label_intercept_1_split
I0506 10:25:24.362359 21221 net.cpp:94] Creating Layer label_intercept_1_split
I0506 10:25:24.362362 21221 net.cpp:435] label_intercept_1_split <- label
I0506 10:25:24.362370 21221 net.cpp:409] label_intercept_1_split -> label_intercept_1_split_0
I0506 10:25:24.362378 21221 net.cpp:409] label_intercept_1_split -> label_intercept_1_split_1
I0506 10:25:24.362423 21221 net.cpp:144] Setting up label_intercept_1_split
I0506 10:25:24.362431 21221 net.cpp:151] Top shape: 20 (20)
I0506 10:25:24.362433 21221 net.cpp:151] Top shape: 20 (20)
I0506 10:25:24.362437 21221 net.cpp:159] Memory required for data: 8240
I0506 10:25:24.362439 21221 layer_factory.hpp:77] Creating layer conv1
I0506 10:25:24.362450 21221 net.cpp:94] Creating Layer conv1
I0506 10:25:24.362453 21221 net.cpp:435] conv1 <- data
I0506 10:25:24.362458 21221 net.cpp:409] conv1 -> conv1
I0506 10:25:24.363320 21221 net.cpp:144] Setting up conv1
I0506 10:25:24.363333 21221 net.cpp:151] Top shape: 20 64 10 10 (128000)
I0506 10:25:24.363337 21221 net.cpp:159] Memory required for data: 520240
I0506 10:25:24.363346 21221 layer_factory.hpp:77] Creating layer relu1
I0506 10:25:24.363353 21221 net.cpp:94] Creating Layer relu1
I0506 10:25:24.363356 21221 net.cpp:435] relu1 <- conv1
I0506 10:25:24.363360 21221 net.cpp:396] relu1 -> conv1 (in-place)
I0506 10:25:24.363368 21221 net.cpp:144] Setting up relu1
I0506 10:25:24.363373 21221 net.cpp:151] Top shape: 20 64 10 10 (128000)
I0506 10:25:24.363382 21221 net.cpp:159] Memory required for data: 1032240
I0506 10:25:24.363385 21221 layer_factory.hpp:77] Creating layer conv2
I0506 10:25:24.363394 21221 net.cpp:94] Creating Layer conv2
I0506 10:25:24.363396 21221 net.cpp:435] conv2 <- conv1
I0506 10:25:24.363401 21221 net.cpp:409] conv2 -> conv2
I0506 10:25:24.367483 21221 net.cpp:144] Setting up conv2
I0506 10:25:24.367496 21221 net.cpp:151] Top shape: 20 64 10 10 (128000)
I0506 10:25:24.367501 21221 net.cpp:159] Memory required for data: 1544240
I0506 10:25:24.367507 21221 layer_factory.hpp:77] Creating layer relu2
I0506 10:25:24.367514 21221 net.cpp:94] Creating Layer relu2
I0506 10:25:24.367518 21221 net.cpp:435] relu2 <- conv2
I0506 10:25:24.367522 21221 net.cpp:396] relu2 -> conv2 (in-place)
I0506 10:25:24.367529 21221 net.cpp:144] Setting up relu2
I0506 10:25:24.367534 21221 net.cpp:151] Top shape: 20 64 10 10 (128000)
I0506 10:25:24.367537 21221 net.cpp:159] Memory required for data: 2056240
I0506 10:25:24.367540 21221 layer_factory.hpp:77] Creating layer pool2
I0506 10:25:24.367547 21221 net.cpp:94] Creating Layer pool2
I0506 10:25:24.367549 21221 net.cpp:435] pool2 <- conv2
I0506 10:25:24.367552 21221 net.cpp:409] pool2 -> pool2
I0506 10:25:24.367614 21221 net.cpp:144] Setting up pool2
I0506 10:25:24.367620 21221 net.cpp:151] Top shape: 20 64 5 5 (32000)
I0506 10:25:24.367624 21221 net.cpp:159] Memory required for data: 2184240
I0506 10:25:24.367626 21221 layer_factory.hpp:77] Creating layer conv3
I0506 10:25:24.367635 21221 net.cpp:94] Creating Layer conv3
I0506 10:25:24.367640 21221 net.cpp:435] conv3 <- pool2
I0506 10:25:24.367645 21221 net.cpp:409] conv3 -> conv3
I0506 10:25:24.373659 21221 net.cpp:144] Setting up conv3
I0506 10:25:24.373672 21221 net.cpp:151] Top shape: 20 128 5 5 (64000)
I0506 10:25:24.373674 21221 net.cpp:159] Memory required for data: 2440240
I0506 10:25:24.373683 21221 layer_factory.hpp:77] Creating layer relu3
I0506 10:25:24.373689 21221 net.cpp:94] Creating Layer relu3
I0506 10:25:24.373693 21221 net.cpp:435] relu3 <- conv3
I0506 10:25:24.373698 21221 net.cpp:396] relu3 -> conv3 (in-place)
I0506 10:25:24.373705 21221 net.cpp:144] Setting up relu3
I0506 10:25:24.373709 21221 net.cpp:151] Top shape: 20 128 5 5 (64000)
I0506 10:25:24.373713 21221 net.cpp:159] Memory required for data: 2696240
I0506 10:25:24.373715 21221 layer_factory.hpp:77] Creating layer conv4
I0506 10:25:24.373724 21221 net.cpp:94] Creating Layer conv4
I0506 10:25:24.373728 21221 net.cpp:435] conv4 <- conv3
I0506 10:25:24.373733 21221 net.cpp:409] conv4 -> conv4
I0506 10:25:24.386279 21221 net.cpp:144] Setting up conv4
I0506 10:25:24.386315 21221 net.cpp:151] Top shape: 20 128 5 5 (64000)
I0506 10:25:24.386325 21221 net.cpp:159] Memory required for data: 2952240
I0506 10:25:24.386343 21221 layer_factory.hpp:77] Creating layer relu4
I0506 10:25:24.386358 21221 net.cpp:94] Creating Layer relu4
I0506 10:25:24.386368 21221 net.cpp:435] relu4 <- conv4
I0506 10:25:24.386384 21221 net.cpp:396] relu4 -> conv4 (in-place)
I0506 10:25:24.386405 21221 net.cpp:144] Setting up relu4
I0506 10:25:24.386409 21221 net.cpp:151] Top shape: 20 128 5 5 (64000)
I0506 10:25:24.386412 21221 net.cpp:159] Memory required for data: 3208240
I0506 10:25:24.386415 21221 layer_factory.hpp:77] Creating layer conv5
I0506 10:25:24.386423 21221 net.cpp:94] Creating Layer conv5
I0506 10:25:24.386426 21221 net.cpp:435] conv5 <- conv4
I0506 10:25:24.386431 21221 net.cpp:409] conv5 -> conv5
I0506 10:25:24.398916 21221 net.cpp:144] Setting up conv5
I0506 10:25:24.398950 21221 net.cpp:151] Top shape: 20 128 5 5 (64000)
I0506 10:25:24.398962 21221 net.cpp:159] Memory required for data: 3464240
I0506 10:25:24.398985 21221 layer_factory.hpp:77] Creating layer relu5
I0506 10:25:24.399005 21221 net.cpp:94] Creating Layer relu5
I0506 10:25:24.399009 21221 net.cpp:435] relu5 <- conv5
I0506 10:25:24.399014 21221 net.cpp:396] relu5 -> conv5 (in-place)
I0506 10:25:24.399021 21221 net.cpp:144] Setting up relu5
I0506 10:25:24.399025 21221 net.cpp:151] Top shape: 20 128 5 5 (64000)
I0506 10:25:24.399032 21221 net.cpp:159] Memory required for data: 3720240
I0506 10:25:24.399036 21221 layer_factory.hpp:77] Creating layer pool5
I0506 10:25:24.399041 21221 net.cpp:94] Creating Layer pool5
I0506 10:25:24.399044 21221 net.cpp:435] pool5 <- conv5
I0506 10:25:24.399049 21221 net.cpp:409] pool5 -> pool5
I0506 10:25:24.399091 21221 net.cpp:144] Setting up pool5
I0506 10:25:24.399098 21221 net.cpp:151] Top shape: 20 128 2 2 (10240)
I0506 10:25:24.399101 21221 net.cpp:159] Memory required for data: 3761200
I0506 10:25:24.399104 21221 layer_factory.hpp:77] Creating layer ip1
I0506 10:25:24.399111 21221 net.cpp:94] Creating Layer ip1
I0506 10:25:24.399114 21221 net.cpp:435] ip1 <- pool5
I0506 10:25:24.399119 21221 net.cpp:409] ip1 -> ip1
I0506 10:25:24.412463 21221 net.cpp:144] Setting up ip1
I0506 10:25:24.412477 21221 net.cpp:151] Top shape: 20 1024 (20480)
I0506 10:25:24.412480 21221 net.cpp:159] Memory required for data: 3843120
I0506 10:25:24.412485 21221 layer_factory.hpp:77] Creating layer ip2
I0506 10:25:24.412492 21221 net.cpp:94] Creating Layer ip2
I0506 10:25:24.412497 21221 net.cpp:435] ip2 <- ip1
I0506 10:25:24.412502 21221 net.cpp:409] ip2 -> ip2
I0506 10:25:24.425827 21221 net.cpp:144] Setting up ip2
I0506 10:25:24.425839 21221 net.cpp:151] Top shape: 20 512 (10240)
I0506 10:25:24.425843 21221 net.cpp:159] Memory required for data: 3884080
I0506 10:25:24.425849 21221 layer_factory.hpp:77] Creating layer ip3
I0506 10:25:24.425858 21221 net.cpp:94] Creating Layer ip3
I0506 10:25:24.425861 21221 net.cpp:435] ip3 <- ip2
I0506 10:25:24.425868 21221 net.cpp:409] ip3 -> ip3
I0506 10:25:24.426635 21221 net.cpp:144] Setting up ip3
I0506 10:25:24.426642 21221 net.cpp:151] Top shape: 20 50 (1000)
I0506 10:25:24.426645 21221 net.cpp:159] Memory required for data: 3888080
I0506 10:25:24.426651 21221 layer_factory.hpp:77] Creating layer ip3_ip3_0_split
I0506 10:25:24.426657 21221 net.cpp:94] Creating Layer ip3_ip3_0_split
I0506 10:25:24.426661 21221 net.cpp:435] ip3_ip3_0_split <- ip3
I0506 10:25:24.426664 21221 net.cpp:409] ip3_ip3_0_split -> ip3_ip3_0_split_0
I0506 10:25:24.426671 21221 net.cpp:409] ip3_ip3_0_split -> ip3_ip3_0_split_1
I0506 10:25:24.426717 21221 net.cpp:144] Setting up ip3_ip3_0_split
I0506 10:25:24.426723 21221 net.cpp:151] Top shape: 20 50 (1000)
I0506 10:25:24.426728 21221 net.cpp:151] Top shape: 20 50 (1000)
I0506 10:25:24.426730 21221 net.cpp:159] Memory required for data: 3896080
I0506 10:25:24.426733 21221 layer_factory.hpp:77] Creating layer accuracy
I0506 10:25:24.426739 21221 net.cpp:94] Creating Layer accuracy
I0506 10:25:24.426743 21221 net.cpp:435] accuracy <- ip3_ip3_0_split_0
I0506 10:25:24.426746 21221 net.cpp:435] accuracy <- label_intercept_1_split_0
I0506 10:25:24.426751 21221 net.cpp:409] accuracy -> accuracy
…
