…
I0506 13:58:27.628638 22041 net.cpp:323] The NetState phase (0) differed from the phase (1) specified by a rule in layer intercept
I0506 13:58:27.628655 22041 net.cpp:323] The NetState phase (0) differed from the phase (1) specified by a rule in layer loss
I0506 13:58:27.628741 22041 net.cpp:52] Initializing net from parameters: 
state {
  phase: TRAIN
}
layer {
  name: "parameters"
  type: "HDF5Data"
  top: "data"
  top: "label"
  include {
    phase: TRAIN
  }
  hdf5_data_param {
    source: "/home/purduethu/scratch/radon/d/deng106/CNNStatisticalModel/distributions/input/50_distributions_100_sample_size_train-parameters-path.txt"
    batch_size: 20
  }
}
layer {
  name: "conv1"
  type: "Convolution"
  bottom: "data"
  top: "conv1"
  param {
    lr_mult: 1
  }
  param {
    lr_mult: 2
  }
  convolution_param {
    num_output: 64
    pad: 2
    kernel_size: 5
    stride: 1
    weight_filler {
      type: "gaussian"
      std: 0.0001
    }
    bias_filler {
      type: "constant"
    }
  }
}
layer {
  name: "relu1"
  type: "ReLU"
  bottom: "conv1"
  top: "conv1"
}
layer {
  name: "conv2"
  type: "Convolution"
  bottom: "conv1"
  top: "conv2"
  param {
    lr_mult: 1
  }
  param {
    lr_mult: 2
  }
  convolution_param {
    num_output: 64
    pad: 2
    kernel_size: 5
    stride: 1
    weight_filler {
      type: "gaussian"
      std: 0.01
    }
    bias_filler {
      type: "constant"
    }
  }
}
layer {
  name: "relu2"
  type: "ReLU"
  bottom: "conv2"
  top: "conv2"
}
layer {
  name: "pool2"
  type: "Pooling"
  bottom: "conv2"
  top: "pool2"
  pooling_param {
    pool: MAX
    kernel_size: 3
    stride: 2
  }
}
layer {
  name: "conv3"
  type: "Convolution"
  bottom: "pool2"
  top: "conv3"
  param {
    lr_mult: 1
  }
  param {
    lr_mult: 2
  }
  convolution_param {
    num_output: 128
    pad: 2
    kernel_size: 5
    stride: 1
    weight_filler {
      type: "gaussian"
      std: 0.01
    }
    bias_filler {
      type: "constant"
    }
  }
}
layer {
  name: "relu3"
  type: "ReLU"
  bottom: "conv3"
  top: "conv3"
}
layer {
  name: "conv4"
  type: "Convolution"
  bottom: "conv3"
  top: "conv4"
  param {
    lr_mult: 1
  }
  param {
    lr_mult: 2
  }
  convolution_param {
    num_output: 128
    pad: 2
    kernel_size: 5
    stride: 1
    weight_filler {
      type: "gaussian"
      std: 0.01
    }
    bias_filler {
      type: "constant"
    }
  }
}
layer {
  name: "relu4"
  type: "ReLU"
  bottom: "conv4"
  top: "conv4"
}
layer {
  name: "conv5"
  type: "Convolution"
  bottom: "conv4"
  top: "conv5"
  param {
    lr_mult: 1
  }
  param {
    lr_mult: 2
  }
  convolution_param {
    num_output: 128
    pad: 2
    kernel_size: 5
    stride: 1
    weight_filler {
      type: "gaussian"
      std: 0.01
    }
    bias_filler {
      type: "constant"
    }
  }
}
layer {
  name: "relu5"
  type: "ReLU"
  bottom: "conv5"
  top: "conv5"
}
layer {
  name: "pool5"
  type: "Pooling"
  bottom: "conv5"
  top: "pool5"
  pooling_param {
    pool: AVE
    kernel_size: 3
    stride: 2
  }
}
layer {
  name: "ip1"
  type: "InnerProduct"
  bottom: "pool5"
  top: "ip1"
  param {
    lr_mult: 1
  }
  param {
    lr_mult: 2
  }
  inner_product_param {
    num_output: 1024
    weight_filler {
      type: "gaussian"
      std: 0.1
    }
    bias_filler {
      type: "constant"
    }
  }
}
layer {
  name: "ip2"
  type: "InnerProduct"
  bottom: "ip1"
  top: "ip2"
  param {
    lr_mult: 1
  }
  param {
    lr_mult: 2
  }
  inner_product_param {
    num_output: 512
    weight_filler {
      type: "gaussian"
      std: 0.1
    }
    bias_filler {
      type: "constant"
    }
  }
}
layer {
  name: "ip3"
  type: "InnerProduct"
  bottom: "ip2"
  top: "ip3"
  param {
    lr_mult: 1
  }
  param {
    lr_mult: 2
  }
  inner_product_param {
    num_output: 1
    weight_filler {
      type: "gaussian"
      std: 0.1
    }
    bias_filler {
      type: "constant"
    }
  }
}
layer {
  name: "loss"
  type: "HuberLoss"
  bottom: "ip3"
  bottom: "label"
  top: "loss"
  include {
    phase: TRAIN
  }
}
I0506 13:58:27.628796 22041 layer_factory.hpp:77] Creating layer parameters
I0506 13:58:27.628809 22041 net.cpp:94] Creating Layer parameters
I0506 13:58:27.628813 22041 net.cpp:409] parameters -> data
I0506 13:58:27.628823 22041 net.cpp:409] parameters -> label
I0506 13:58:27.628834 22041 hdf5_data_layer.cpp:79] Loading list of HDF5 filenames from: /home/purduethu/scratch/radon/d/deng106/CNNStatisticalModel/distributions/input/50_distributions_100_sample_size_train-parameters-path.txt
I0506 13:58:27.628849 22041 hdf5_data_layer.cpp:93] Number of HDF5 files: 1
I0506 13:58:27.629412 22041 hdf5.cpp:32] Datatype class: H5T_FLOAT
I0506 13:58:27.795840 22041 net.cpp:144] Setting up parameters
I0506 13:58:27.795871 22041 net.cpp:151] Top shape: 20 1 10 10 (2000)
I0506 13:58:27.795876 22041 net.cpp:151] Top shape: 20 (20)
I0506 13:58:27.795879 22041 net.cpp:159] Memory required for data: 8080
I0506 13:58:27.795886 22041 layer_factory.hpp:77] Creating layer conv1
I0506 13:58:27.795902 22041 net.cpp:94] Creating Layer conv1
I0506 13:58:27.795907 22041 net.cpp:435] conv1 <- data
I0506 13:58:27.795913 22041 net.cpp:409] conv1 -> conv1
I0506 13:58:27.800295 22041 net.cpp:144] Setting up conv1
I0506 13:58:27.800310 22041 net.cpp:151] Top shape: 20 64 10 10 (128000)
I0506 13:58:27.800314 22041 net.cpp:159] Memory required for data: 520080
I0506 13:58:27.800324 22041 layer_factory.hpp:77] Creating layer relu1
I0506 13:58:27.800331 22041 net.cpp:94] Creating Layer relu1
I0506 13:58:27.800335 22041 net.cpp:435] relu1 <- conv1
I0506 13:58:27.800339 22041 net.cpp:396] relu1 -> conv1 (in-place)
I0506 13:58:27.800350 22041 net.cpp:144] Setting up relu1
I0506 13:58:27.800355 22041 net.cpp:151] Top shape: 20 64 10 10 (128000)
I0506 13:58:27.800359 22041 net.cpp:159] Memory required for data: 1032080
I0506 13:58:27.800361 22041 layer_factory.hpp:77] Creating layer conv2
I0506 13:58:27.800369 22041 net.cpp:94] Creating Layer conv2
I0506 13:58:27.800372 22041 net.cpp:435] conv2 <- conv1
I0506 13:58:27.800377 22041 net.cpp:409] conv2 -> conv2
I0506 13:58:27.806565 22041 net.cpp:144] Setting up conv2
I0506 13:58:27.806582 22041 net.cpp:151] Top shape: 20 64 10 10 (128000)
I0506 13:58:27.806586 22041 net.cpp:159] Memory required for data: 1544080
I0506 13:58:27.806594 22041 layer_factory.hpp:77] Creating layer relu2
I0506 13:58:27.806602 22041 net.cpp:94] Creating Layer relu2
I0506 13:58:27.806604 22041 net.cpp:435] relu2 <- conv2
I0506 13:58:27.806609 22041 net.cpp:396] relu2 -> conv2 (in-place)
I0506 13:58:27.806617 22041 net.cpp:144] Setting up relu2
I0506 13:58:27.806620 22041 net.cpp:151] Top shape: 20 64 10 10 (128000)
I0506 13:58:27.806623 22041 net.cpp:159] Memory required for data: 2056080
I0506 13:58:27.806627 22041 layer_factory.hpp:77] Creating layer pool2
I0506 13:58:27.806632 22041 net.cpp:94] Creating Layer pool2
I0506 13:58:27.806634 22041 net.cpp:435] pool2 <- conv2
I0506 13:58:27.806638 22041 net.cpp:409] pool2 -> pool2
I0506 13:58:27.806689 22041 net.cpp:144] Setting up pool2
I0506 13:58:27.806696 22041 net.cpp:151] Top shape: 20 64 5 5 (32000)
I0506 13:58:27.806699 22041 net.cpp:159] Memory required for data: 2184080
I0506 13:58:27.806702 22041 layer_factory.hpp:77] Creating layer conv3
I0506 13:58:27.806710 22041 net.cpp:94] Creating Layer conv3
I0506 13:58:27.806720 22041 net.cpp:435] conv3 <- pool2
I0506 13:58:27.806725 22041 net.cpp:409] conv3 -> conv3
I0506 13:58:27.815117 22041 net.cpp:144] Setting up conv3
I0506 13:58:27.815135 22041 net.cpp:151] Top shape: 20 128 5 5 (64000)
I0506 13:58:27.815138 22041 net.cpp:159] Memory required for data: 2440080
I0506 13:58:27.815147 22041 layer_factory.hpp:77] Creating layer relu3
I0506 13:58:27.815153 22041 net.cpp:94] Creating Layer relu3
I0506 13:58:27.815156 22041 net.cpp:435] relu3 <- conv3
I0506 13:58:27.815161 22041 net.cpp:396] relu3 -> conv3 (in-place)
I0506 13:58:27.815168 22041 net.cpp:144] Setting up relu3
I0506 13:58:27.815172 22041 net.cpp:151] Top shape: 20 128 5 5 (64000)
I0506 13:58:27.815176 22041 net.cpp:159] Memory required for data: 2696080
I0506 13:58:27.815178 22041 layer_factory.hpp:77] Creating layer conv4
I0506 13:58:27.815186 22041 net.cpp:94] Creating Layer conv4
I0506 13:58:27.815191 22041 net.cpp:435] conv4 <- conv3
I0506 13:58:27.815194 22041 net.cpp:409] conv4 -> conv4
I0506 13:58:27.830245 22041 net.cpp:144] Setting up conv4
I0506 13:58:27.830265 22041 net.cpp:151] Top shape: 20 128 5 5 (64000)
I0506 13:58:27.830268 22041 net.cpp:159] Memory required for data: 2952080
I0506 13:58:27.830276 22041 layer_factory.hpp:77] Creating layer relu4
I0506 13:58:27.830283 22041 net.cpp:94] Creating Layer relu4
I0506 13:58:27.830287 22041 net.cpp:435] relu4 <- conv4
I0506 13:58:27.830291 22041 net.cpp:396] relu4 -> conv4 (in-place)
I0506 13:58:27.830299 22041 net.cpp:144] Setting up relu4
I0506 13:58:27.830303 22041 net.cpp:151] Top shape: 20 128 5 5 (64000)
I0506 13:58:27.830307 22041 net.cpp:159] Memory required for data: 3208080
I0506 13:58:27.830309 22041 layer_factory.hpp:77] Creating layer conv5
I0506 13:58:27.830318 22041 net.cpp:94] Creating Layer conv5
I0506 13:58:27.830322 22041 net.cpp:435] conv5 <- conv4
I0506 13:58:27.830327 22041 net.cpp:409] conv5 -> conv5
I0506 13:58:27.844738 22041 net.cpp:144] Setting up conv5
I0506 13:58:27.844760 22041 net.cpp:151] Top shape: 20 128 5 5 (64000)
I0506 13:58:27.844763 22041 net.cpp:159] Memory required for data: 3464080
I0506 13:58:27.844774 22041 layer_factory.hpp:77] Creating layer relu5
I0506 13:58:27.844781 22041 net.cpp:94] Creating Layer relu5
I0506 13:58:27.844784 22041 net.cpp:435] relu5 <- conv5
I0506 13:58:27.844789 22041 net.cpp:396] relu5 -> conv5 (in-place)
I0506 13:58:27.844797 22041 net.cpp:144] Setting up relu5
I0506 13:58:27.844801 22041 net.cpp:151] Top shape: 20 128 5 5 (64000)
I0506 13:58:27.844805 22041 net.cpp:159] Memory required for data: 3720080
I0506 13:58:27.844807 22041 layer_factory.hpp:77] Creating layer pool5
I0506 13:58:27.844813 22041 net.cpp:94] Creating Layer pool5
I0506 13:58:27.844816 22041 net.cpp:435] pool5 <- conv5
I0506 13:58:27.844820 22041 net.cpp:409] pool5 -> pool5
I0506 13:58:27.844861 22041 net.cpp:144] Setting up pool5
I0506 13:58:27.844867 22041 net.cpp:151] Top shape: 20 128 2 2 (10240)
I0506 13:58:27.844871 22041 net.cpp:159] Memory required for data: 3761040
I0506 13:58:27.844873 22041 layer_factory.hpp:77] Creating layer ip1
I0506 13:58:27.844880 22041 net.cpp:94] Creating Layer ip1
I0506 13:58:27.844884 22041 net.cpp:435] ip1 <- pool5
I0506 13:58:27.844888 22041 net.cpp:409] ip1 -> ip1
I0506 13:58:27.858829 22041 net.cpp:144] Setting up ip1
I0506 13:58:27.858852 22041 net.cpp:151] Top shape: 20 1024 (20480)
I0506 13:58:27.858856 22041 net.cpp:159] Memory required for data: 3842960
I0506 13:58:27.858863 22041 layer_factory.hpp:77] Creating layer ip2
I0506 13:58:27.858873 22041 net.cpp:94] Creating Layer ip2
I0506 13:58:27.858877 22041 net.cpp:435] ip2 <- ip1
I0506 13:58:27.858883 22041 net.cpp:409] ip2 -> ip2
I0506 13:58:27.871944 22041 net.cpp:144] Setting up ip2
I0506 13:58:27.871964 22041 net.cpp:151] Top shape: 20 512 (10240)
I0506 13:58:27.871968 22041 net.cpp:159] Memory required for data: 3883920
I0506 13:58:27.871975 22041 layer_factory.hpp:77] Creating layer ip3
I0506 13:58:27.871983 22041 net.cpp:94] Creating Layer ip3
I0506 13:58:27.871986 22041 net.cpp:435] ip3 <- ip2
I0506 13:58:27.871999 22041 net.cpp:409] ip3 -> ip3
I0506 13:58:27.872112 22041 net.cpp:144] Setting up ip3
I0506 13:58:27.872119 22041 net.cpp:151] Top shape: 20 1 (20)
I0506 13:58:27.872123 22041 net.cpp:159] Memory required for data: 3884000
I0506 13:58:27.872128 22041 layer_factory.hpp:77] Creating layer loss
I0506 13:58:27.872140 22041 net.cpp:94] Creating Layer loss
I0506 13:58:27.872143 22041 net.cpp:435] loss <- ip3
I0506 13:58:27.872148 22041 net.cpp:435] loss <- label
I0506 13:58:27.872151 22041 net.cpp:409] loss -> loss
I0506 13:58:27.872200 22041 net.cpp:144] Setting up loss
…
I0506 13:58:27.979663 22041 net.cpp:323] The NetState phase (0) differed from the phase (1) specified by a rule in layer intercept
I0506 13:58:27.979681 22041 net.cpp:323] The NetState phase (0) differed from the phase (1) specified by a rule in layer accuracy
I0506 13:58:27.979769 22041 net.cpp:52] Initializing net from parameters: 
state {
  phase: TRAIN
}
layer {
  name: "parameters"
  type: "HDF5Data"
  top: "data"
  top: "label"
  include {
    phase: TRAIN
  }
  hdf5_data_param {
    source: "/home/purduethu/scratch/radon/d/deng106/CNNStatisticalModel/distributions/input/50_distributions_100_sample_size_train-distributions-path.txt"
    batch_size: 20
  }
}
layer {
  name: "conv1"
  type: "Convolution"
  bottom: "data"
  top: "conv1"
  param {
    lr_mult: 1
  }
  param {
    lr_mult: 2
  }
  convolution_param {
    num_output: 64
    pad: 2
    kernel_size: 5
    stride: 1
    weight_filler {
      type: "gaussian"
      std: 0.0001
    }
    bias_filler {
      type: "constant"
    }
  }
}
layer {
  name: "relu1"
  type: "ReLU"
  bottom: "conv1"
  top: "conv1"
}
layer {
  name: "conv2"
  type: "Convolution"
  bottom: "conv1"
  top: "conv2"
  param {
    lr_mult: 1
  }
  param {
    lr_mult: 2
  }
  convolution_param {
    num_output: 64
    pad: 2
    kernel_size: 5
    stride: 1
    weight_filler {
      type: "gaussian"
      std: 0.01
    }
    bias_filler {
      type: "constant"
    }
  }
}
layer {
  name: "relu2"
  type: "ReLU"
  bottom: "conv2"
  top: "conv2"
}
layer {
  name: "pool2"
  type: "Pooling"
  bottom: "conv2"
  top: "pool2"
  pooling_param {
    pool: MAX
    kernel_size: 3
    stride: 2
  }
}
layer {
  name: "conv3"
  type: "Convolution"
  bottom: "pool2"
  top: "conv3"
  param {
    lr_mult: 1
  }
  param {
    lr_mult: 2
  }
  convolution_param {
    num_output: 128
    pad: 2
    kernel_size: 5
    stride: 1
    weight_filler {
      type: "gaussian"
      std: 0.01
    }
    bias_filler {
      type: "constant"
    }
  }
}
layer {
  name: "relu3"
  type: "ReLU"
  bottom: "conv3"
  top: "conv3"
}
layer {
  name: "conv4"
  type: "Convolution"
  bottom: "conv3"
  top: "conv4"
  param {
    lr_mult: 1
  }
  param {
    lr_mult: 2
  }
  convolution_param {
    num_output: 128
    pad: 2
    kernel_size: 5
    stride: 1
    weight_filler {
      type: "gaussian"
      std: 0.01
    }
    bias_filler {
      type: "constant"
    }
  }
}
layer {
  name: "relu4"
  type: "ReLU"
  bottom: "conv4"
  top: "conv4"
}
layer {
  name: "conv5"
  type: "Convolution"
  bottom: "conv4"
  top: "conv5"
  param {
    lr_mult: 1
  }
  param {
    lr_mult: 2
  }
  convolution_param {
    num_output: 128
    pad: 2
    kernel_size: 5
    stride: 1
    weight_filler {
      type: "gaussian"
      std: 0.01
    }
    bias_filler {
      type: "constant"
    }
  }
}
layer {
  name: "relu5"
  type: "ReLU"
  bottom: "conv5"
  top: "conv5"
}
layer {
  name: "pool5"
  type: "Pooling"
  bottom: "conv5"
  top: "pool5"
  pooling_param {
    pool: AVE
    kernel_size: 3
    stride: 2
  }
}
layer {
  name: "ip1"
  type: "InnerProduct"
  bottom: "pool5"
  top: "ip1"
  param {
    lr_mult: 1
  }
  param {
    lr_mult: 2
  }
  inner_product_param {
    num_output: 1024
    weight_filler {
      type: "gaussian"
      std: 0.1
    }
    bias_filler {
      type: "constant"
    }
  }
}
layer {
  name: "ip2"
  type: "InnerProduct"
  bottom: "ip1"
  top: "ip2"
  param {
    lr_mult: 1
  }
  param {
    lr_mult: 2
  }
  inner_product_param {
    num_output: 512
    weight_filler {
      type: "gaussian"
      std: 0.1
    }
    bias_filler {
      type: "constant"
    }
  }
}
layer {
  name: "ip3"
  type: "InnerProduct"
  bottom: "ip2"
  top: "ip3"
  param {
    lr_mult: 1
  }
  param {
    lr_mult: 2
  }
  inner_product_param {
    num_output: 50
    weight_filler {
      type: "gaussian"
      std: 0.1
    }
    bias_filler {
      type: "constant"
    }
  }
}
layer {
  name: "loss"
  type: "SoftmaxWithLoss"
  bottom: "ip3"
  bottom: "label"
  top: "loss"
}
I0506 13:58:27.979818 22041 layer_factory.hpp:77] Creating layer parameters
I0506 13:58:27.979826 22041 net.cpp:94] Creating Layer parameters
I0506 13:58:27.979830 22041 net.cpp:409] parameters -> data
I0506 13:58:27.979837 22041 net.cpp:409] parameters -> label
I0506 13:58:27.979842 22041 hdf5_data_layer.cpp:79] Loading list of HDF5 filenames from: /home/purduethu/scratch/radon/d/deng106/CNNStatisticalModel/distributions/input/50_distributions_100_sample_size_train-distributions-path.txt
I0506 13:58:27.979858 22041 hdf5_data_layer.cpp:93] Number of HDF5 files: 1
I0506 13:58:28.136196 22041 hdf5.cpp:35] Datatype class: H5T_INTEGER
I0506 13:58:28.139874 22041 net.cpp:144] Setting up parameters
I0506 13:58:28.139894 22041 net.cpp:151] Top shape: 20 1 10 10 (2000)
I0506 13:58:28.139900 22041 net.cpp:151] Top shape: 20 (20)
I0506 13:58:28.139904 22041 net.cpp:159] Memory required for data: 8080
I0506 13:58:28.139909 22041 layer_factory.hpp:77] Creating layer conv1
I0506 13:58:28.139925 22041 net.cpp:94] Creating Layer conv1
I0506 13:58:28.139928 22041 net.cpp:435] conv1 <- data
I0506 13:58:28.139935 22041 net.cpp:409] conv1 -> conv1
I0506 13:58:28.141819 22041 net.cpp:144] Setting up conv1
I0506 13:58:28.141832 22041 net.cpp:151] Top shape: 20 64 10 10 (128000)
I0506 13:58:28.141836 22041 net.cpp:159] Memory required for data: 520080
I0506 13:58:28.141845 22041 layer_factory.hpp:77] Creating layer relu1
I0506 13:58:28.141852 22041 net.cpp:94] Creating Layer relu1
I0506 13:58:28.141856 22041 net.cpp:435] relu1 <- conv1
I0506 13:58:28.141860 22041 net.cpp:396] relu1 -> conv1 (in-place)
I0506 13:58:28.141867 22041 net.cpp:144] Setting up relu1
I0506 13:58:28.141871 22041 net.cpp:151] Top shape: 20 64 10 10 (128000)
I0506 13:58:28.141875 22041 net.cpp:159] Memory required for data: 1032080
I0506 13:58:28.141877 22041 layer_factory.hpp:77] Creating layer conv2
I0506 13:58:28.141885 22041 net.cpp:94] Creating Layer conv2
I0506 13:58:28.141888 22041 net.cpp:435] conv2 <- conv1
I0506 13:58:28.141892 22041 net.cpp:409] conv2 -> conv2
I0506 13:58:28.147292 22041 net.cpp:144] Setting up conv2
I0506 13:58:28.147306 22041 net.cpp:151] Top shape: 20 64 10 10 (128000)
I0506 13:58:28.147310 22041 net.cpp:159] Memory required for data: 1544080
I0506 13:58:28.147318 22041 layer_factory.hpp:77] Creating layer relu2
I0506 13:58:28.147325 22041 net.cpp:94] Creating Layer relu2
I0506 13:58:28.147328 22041 net.cpp:435] relu2 <- conv2
I0506 13:58:28.147333 22041 net.cpp:396] relu2 -> conv2 (in-place)
I0506 13:58:28.147339 22041 net.cpp:144] Setting up relu2
I0506 13:58:28.147343 22041 net.cpp:151] Top shape: 20 64 10 10 (128000)
I0506 13:58:28.147346 22041 net.cpp:159] Memory required for data: 2056080
I0506 13:58:28.147349 22041 layer_factory.hpp:77] Creating layer pool2
I0506 13:58:28.147356 22041 net.cpp:94] Creating Layer pool2
I0506 13:58:28.147358 22041 net.cpp:435] pool2 <- conv2
I0506 13:58:28.147362 22041 net.cpp:409] pool2 -> pool2
I0506 13:58:28.147413 22041 net.cpp:144] Setting up pool2
I0506 13:58:28.147419 22041 net.cpp:151] Top shape: 20 64 5 5 (32000)
I0506 13:58:28.147423 22041 net.cpp:159] Memory required for data: 2184080
I0506 13:58:28.147425 22041 layer_factory.hpp:77] Creating layer conv3
I0506 13:58:28.147433 22041 net.cpp:94] Creating Layer conv3
I0506 13:58:28.147436 22041 net.cpp:435] conv3 <- pool2
I0506 13:58:28.147441 22041 net.cpp:409] conv3 -> conv3
I0506 13:58:28.156108 22041 net.cpp:144] Setting up conv3
I0506 13:58:28.156126 22041 net.cpp:151] Top shape: 20 128 5 5 (64000)
I0506 13:58:28.156129 22041 net.cpp:159] Memory required for data: 2440080
I0506 13:58:28.156138 22041 layer_factory.hpp:77] Creating layer relu3
I0506 13:58:28.156144 22041 net.cpp:94] Creating Layer relu3
I0506 13:58:28.156148 22041 net.cpp:435] relu3 <- conv3
I0506 13:58:28.156152 22041 net.cpp:396] relu3 -> conv3 (in-place)
I0506 13:58:28.156167 22041 net.cpp:144] Setting up relu3
I0506 13:58:28.156172 22041 net.cpp:151] Top shape: 20 128 5 5 (64000)
I0506 13:58:28.156174 22041 net.cpp:159] Memory required for data: 2696080
I0506 13:58:28.156177 22041 layer_factory.hpp:77] Creating layer conv4
I0506 13:58:28.156186 22041 net.cpp:94] Creating Layer conv4
I0506 13:58:28.156189 22041 net.cpp:435] conv4 <- conv3
I0506 13:58:28.156194 22041 net.cpp:409] conv4 -> conv4
I0506 13:58:28.170897 22041 net.cpp:144] Setting up conv4
I0506 13:58:28.170920 22041 net.cpp:151] Top shape: 20 128 5 5 (64000)
I0506 13:58:28.170924 22041 net.cpp:159] Memory required for data: 2952080
I0506 13:58:28.170931 22041 layer_factory.hpp:77] Creating layer relu4
I0506 13:58:28.170938 22041 net.cpp:94] Creating Layer relu4
I0506 13:58:28.170941 22041 net.cpp:435] relu4 <- conv4
I0506 13:58:28.170948 22041 net.cpp:396] relu4 -> conv4 (in-place)
I0506 13:58:28.170954 22041 net.cpp:144] Setting up relu4
I0506 13:58:28.170958 22041 net.cpp:151] Top shape: 20 128 5 5 (64000)
I0506 13:58:28.170961 22041 net.cpp:159] Memory required for data: 3208080
I0506 13:58:28.170964 22041 layer_factory.hpp:77] Creating layer conv5
I0506 13:58:28.170972 22041 net.cpp:94] Creating Layer conv5
I0506 13:58:28.170975 22041 net.cpp:435] conv5 <- conv4
I0506 13:58:28.170980 22041 net.cpp:409] conv5 -> conv5
I0506 13:58:28.185920 22041 net.cpp:144] Setting up conv5
I0506 13:58:28.185942 22041 net.cpp:151] Top shape: 20 128 5 5 (64000)
I0506 13:58:28.185946 22041 net.cpp:159] Memory required for data: 3464080
I0506 13:58:28.185956 22041 layer_factory.hpp:77] Creating layer relu5
I0506 13:58:28.185963 22041 net.cpp:94] Creating Layer relu5
I0506 13:58:28.185966 22041 net.cpp:435] relu5 <- conv5
I0506 13:58:28.185971 22041 net.cpp:396] relu5 -> conv5 (in-place)
I0506 13:58:28.185979 22041 net.cpp:144] Setting up relu5
I0506 13:58:28.185983 22041 net.cpp:151] Top shape: 20 128 5 5 (64000)
I0506 13:58:28.185986 22041 net.cpp:159] Memory required for data: 3720080
I0506 13:58:28.185989 22041 layer_factory.hpp:77] Creating layer pool5
I0506 13:58:28.185994 22041 net.cpp:94] Creating Layer pool5
I0506 13:58:28.185997 22041 net.cpp:435] pool5 <- conv5
I0506 13:58:28.186002 22041 net.cpp:409] pool5 -> pool5
I0506 13:58:28.186040 22041 net.cpp:144] Setting up pool5
I0506 13:58:28.186048 22041 net.cpp:151] Top shape: 20 128 2 2 (10240)
I0506 13:58:28.186050 22041 net.cpp:159] Memory required for data: 3761040
I0506 13:58:28.186053 22041 layer_factory.hpp:77] Creating layer ip1
I0506 13:58:28.186060 22041 net.cpp:94] Creating Layer ip1
I0506 13:58:28.186064 22041 net.cpp:435] ip1 <- pool5
I0506 13:58:28.186067 22041 net.cpp:409] ip1 -> ip1
I0506 13:58:28.199240 22041 net.cpp:144] Setting up ip1
I0506 13:58:28.199260 22041 net.cpp:151] Top shape: 20 1024 (20480)
I0506 13:58:28.199265 22041 net.cpp:159] Memory required for data: 3842960
I0506 13:58:28.199271 22041 layer_factory.hpp:77] Creating layer ip2
I0506 13:58:28.199278 22041 net.cpp:94] Creating Layer ip2
I0506 13:58:28.199282 22041 net.cpp:435] ip2 <- ip1
I0506 13:58:28.199287 22041 net.cpp:409] ip2 -> ip2
I0506 13:58:28.212472 22041 net.cpp:144] Setting up ip2
I0506 13:58:28.212493 22041 net.cpp:151] Top shape: 20 512 (10240)
I0506 13:58:28.212497 22041 net.cpp:159] Memory required for data: 3883920
I0506 13:58:28.212503 22041 layer_factory.hpp:77] Creating layer ip3
I0506 13:58:28.212512 22041 net.cpp:94] Creating Layer ip3
I0506 13:58:28.212515 22041 net.cpp:435] ip3 <- ip2
I0506 13:58:28.212522 22041 net.cpp:409] ip3 -> ip3
I0506 13:58:28.214138 22041 net.cpp:144] Setting up ip3
I0506 13:58:28.214153 22041 net.cpp:151] Top shape: 20 50 (1000)
I0506 13:58:28.214156 22041 net.cpp:159] Memory required for data: 3887920
I0506 13:58:28.214162 22041 layer_factory.hpp:77] Creating layer loss
I0506 13:58:28.214170 22041 net.cpp:94] Creating Layer loss
I0506 13:58:28.214174 22041 net.cpp:435] loss <- ip3
I0506 13:58:28.214177 22041 net.cpp:435] loss <- label
I0506 13:58:28.214182 22041 net.cpp:409] loss -> loss
I0506 13:58:28.214190 22041 layer_factory.hpp:77] Creating layer loss
…
I0506 13:58:28.214712 22041 solver.cpp:181] Creating test net (#0) specified by net file: ./protocol/dis_50_100_dimension.protocol_distribution
I0506 13:58:28.214738 22041 net.cpp:323] The NetState phase (1) differed from the phase (0) specified by a rule in layer parameters
I0506 13:58:28.214834 22041 net.cpp:52] Initializing net from parameters: 
state {
  phase: TEST
}
layer {
  name: "intercept"
  type: "HDF5Data"
  top: "data"
  top: "label"
  include {
    phase: TEST
  }
  hdf5_data_param {
    source: "/home/purduethu/scratch/radon/d/deng106/CNNStatisticalModel/distributions/input/50_distributions_100_sample_size_test-distributions-path.txt"
    batch_size: 20
  }
}
layer {
  name: "conv1"
  type: "Convolution"
  bottom: "data"
  top: "conv1"
  param {
    lr_mult: 1
  }
  param {
    lr_mult: 2
  }
  convolution_param {
    num_output: 64
    pad: 2
    kernel_size: 5
    stride: 1
    weight_filler {
      type: "gaussian"
      std: 0.0001
    }
    bias_filler {
      type: "constant"
    }
  }
}
layer {
  name: "relu1"
  type: "ReLU"
  bottom: "conv1"
  top: "conv1"
}
layer {
  name: "conv2"
  type: "Convolution"
  bottom: "conv1"
  top: "conv2"
  param {
    lr_mult: 1
  }
  param {
    lr_mult: 2
  }
  convolution_param {
    num_output: 64
    pad: 2
    kernel_size: 5
    stride: 1
    weight_filler {
      type: "gaussian"
      std: 0.01
    }
    bias_filler {
      type: "constant"
    }
  }
}
layer {
  name: "relu2"
  type: "ReLU"
  bottom: "conv2"
  top: "conv2"
}
layer {
  name: "pool2"
  type: "Pooling"
  bottom: "conv2"
  top: "pool2"
  pooling_param {
    pool: MAX
    kernel_size: 3
    stride: 2
  }
}
layer {
  name: "conv3"
  type: "Convolution"
  bottom: "pool2"
  top: "conv3"
  param {
    lr_mult: 1
  }
  param {
    lr_mult: 2
  }
  convolution_param {
    num_output: 128
    pad: 2
    kernel_size: 5
    stride: 1
    weight_filler {
      type: "gaussian"
      std: 0.01
    }
    bias_filler {
      type: "constant"
    }
  }
}
layer {
  name: "relu3"
  type: "ReLU"
  bottom: "conv3"
  top: "conv3"
}
layer {
  name: "conv4"
  type: "Convolution"
  bottom: "conv3"
  top: "conv4"
  param {
    lr_mult: 1
  }
  param {
    lr_mult: 2
  }
  convolution_param {
    num_output: 128
    pad: 2
    kernel_size: 5
    stride: 1
    weight_filler {
      type: "gaussian"
      std: 0.01
    }
    bias_filler {
      type: "constant"
    }
  }
}
layer {
  name: "relu4"
  type: "ReLU"
  bottom: "conv4"
  top: "conv4"
}
layer {
  name: "conv5"
  type: "Convolution"
  bottom: "conv4"
  top: "conv5"
  param {
    lr_mult: 1
  }
  param {
    lr_mult: 2
  }
  convolution_param {
    num_output: 128
    pad: 2
    kernel_size: 5
    stride: 1
    weight_filler {
      type: "gaussian"
      std: 0.01
    }
    bias_filler {
      type: "constant"
    }
  }
}
layer {
  name: "relu5"
  type: "ReLU"
  bottom: "conv5"
  top: "conv5"
}
layer {
  name: "pool5"
  type: "Pooling"
  bottom: "conv5"
  top: "pool5"
  pooling_param {
    pool: AVE
    kernel_size: 3
    stride: 2
  }
}
layer {
  name: "ip1"
  type: "InnerProduct"
  bottom: "pool5"
  top: "ip1"
  param {
    lr_mult: 1
  }
  param {
    lr_mult: 2
  }
  inner_product_param {
    num_output: 1024
    weight_filler {
      type: "gaussian"
      std: 0.1
    }
    bias_filler {
      type: "constant"
    }
  }
}
layer {
  name: "ip2"
  type: "InnerProduct"
  bottom: "ip1"
  top: "ip2"
  param {
    lr_mult: 1
  }
  param {
    lr_mult: 2
  }
  inner_product_param {
    num_output: 512
    weight_filler {
      type: "gaussian"
      std: 0.1
    }
    bias_filler {
      type: "constant"
    }
  }
}
layer {
  name: "ip3"
  type: "InnerProduct"
  bottom: "ip2"
  top: "ip3"
  param {
    lr_mult: 1
  }
  param {
    lr_mult: 2
  }
  inner_product_param {
    num_output: 50
    weight_filler {
      type: "gaussian"
      std: 0.1
    }
    bias_filler {
      type: "constant"
    }
  }
}
layer {
  name: "accuracy"
  type: "Accuracy"
  bottom: "ip3"
  bottom: "label"
  top: "accuracy"
  include {
    phase: TEST
  }
}
layer {
  name: "loss"
  type: "SoftmaxWithLoss"
  bottom: "ip3"
  bottom: "label"
  top: "loss"
}
I0506 13:58:28.214897 22041 layer_factory.hpp:77] Creating layer intercept
I0506 13:58:28.214905 22041 net.cpp:94] Creating Layer intercept
I0506 13:58:28.214910 22041 net.cpp:409] intercept -> data
I0506 13:58:28.214916 22041 net.cpp:409] intercept -> label
I0506 13:58:28.214921 22041 hdf5_data_layer.cpp:79] Loading list of HDF5 filenames from: /home/purduethu/scratch/radon/d/deng106/CNNStatisticalModel/distributions/input/50_distributions_100_sample_size_test-distributions-path.txt
I0506 13:58:28.214941 22041 hdf5_data_layer.cpp:93] Number of HDF5 files: 1
I0506 13:58:28.255792 22041 net.cpp:144] Setting up intercept
I0506 13:58:28.255815 22041 net.cpp:151] Top shape: 20 1 10 10 (2000)
I0506 13:58:28.255818 22041 net.cpp:151] Top shape: 20 (20)
I0506 13:58:28.255821 22041 net.cpp:159] Memory required for data: 8080
I0506 13:58:28.255827 22041 layer_factory.hpp:77] Creating layer label_intercept_1_split
I0506 13:58:28.255846 22041 net.cpp:94] Creating Layer label_intercept_1_split
I0506 13:58:28.255849 22041 net.cpp:435] label_intercept_1_split <- label
I0506 13:58:28.255856 22041 net.cpp:409] label_intercept_1_split -> label_intercept_1_split_0
I0506 13:58:28.255863 22041 net.cpp:409] label_intercept_1_split -> label_intercept_1_split_1
I0506 13:58:28.255903 22041 net.cpp:144] Setting up label_intercept_1_split
I0506 13:58:28.255909 22041 net.cpp:151] Top shape: 20 (20)
I0506 13:58:28.255913 22041 net.cpp:151] Top shape: 20 (20)
I0506 13:58:28.255915 22041 net.cpp:159] Memory required for data: 8240
I0506 13:58:28.255918 22041 layer_factory.hpp:77] Creating layer conv1
I0506 13:58:28.255929 22041 net.cpp:94] Creating Layer conv1
I0506 13:58:28.255933 22041 net.cpp:435] conv1 <- data
I0506 13:58:28.255937 22041 net.cpp:409] conv1 -> conv1
I0506 13:58:28.256814 22041 net.cpp:144] Setting up conv1
I0506 13:58:28.256827 22041 net.cpp:151] Top shape: 20 64 10 10 (128000)
I0506 13:58:28.256831 22041 net.cpp:159] Memory required for data: 520240
I0506 13:58:28.256841 22041 layer_factory.hpp:77] Creating layer relu1
I0506 13:58:28.256849 22041 net.cpp:94] Creating Layer relu1
I0506 13:58:28.256852 22041 net.cpp:435] relu1 <- conv1
I0506 13:58:28.256856 22041 net.cpp:396] relu1 -> conv1 (in-place)
I0506 13:58:28.256863 22041 net.cpp:144] Setting up relu1
I0506 13:58:28.256867 22041 net.cpp:151] Top shape: 20 64 10 10 (128000)
I0506 13:58:28.256878 22041 net.cpp:159] Memory required for data: 1032240
I0506 13:58:28.256881 22041 layer_factory.hpp:77] Creating layer conv2
I0506 13:58:28.256891 22041 net.cpp:94] Creating Layer conv2
I0506 13:58:28.256893 22041 net.cpp:435] conv2 <- conv1
I0506 13:58:28.256898 22041 net.cpp:409] conv2 -> conv2
I0506 13:58:28.261021 22041 net.cpp:144] Setting up conv2
I0506 13:58:28.261037 22041 net.cpp:151] Top shape: 20 64 10 10 (128000)
I0506 13:58:28.261040 22041 net.cpp:159] Memory required for data: 1544240
I0506 13:58:28.261049 22041 layer_factory.hpp:77] Creating layer relu2
I0506 13:58:28.261055 22041 net.cpp:94] Creating Layer relu2
I0506 13:58:28.261059 22041 net.cpp:435] relu2 <- conv2
I0506 13:58:28.261063 22041 net.cpp:396] relu2 -> conv2 (in-place)
I0506 13:58:28.261070 22041 net.cpp:144] Setting up relu2
I0506 13:58:28.261073 22041 net.cpp:151] Top shape: 20 64 10 10 (128000)
I0506 13:58:28.261076 22041 net.cpp:159] Memory required for data: 2056240
I0506 13:58:28.261080 22041 layer_factory.hpp:77] Creating layer pool2
I0506 13:58:28.261085 22041 net.cpp:94] Creating Layer pool2
I0506 13:58:28.261087 22041 net.cpp:435] pool2 <- conv2
I0506 13:58:28.261093 22041 net.cpp:409] pool2 -> pool2
I0506 13:58:28.261148 22041 net.cpp:144] Setting up pool2
I0506 13:58:28.261155 22041 net.cpp:151] Top shape: 20 64 5 5 (32000)
I0506 13:58:28.261158 22041 net.cpp:159] Memory required for data: 2184240
I0506 13:58:28.261162 22041 layer_factory.hpp:77] Creating layer conv3
I0506 13:58:28.261169 22041 net.cpp:94] Creating Layer conv3
I0506 13:58:28.261173 22041 net.cpp:435] conv3 <- pool2
I0506 13:58:28.261178 22041 net.cpp:409] conv3 -> conv3
I0506 13:58:28.267268 22041 net.cpp:144] Setting up conv3
I0506 13:58:28.267282 22041 net.cpp:151] Top shape: 20 128 5 5 (64000)
I0506 13:58:28.267287 22041 net.cpp:159] Memory required for data: 2440240
I0506 13:58:28.267293 22041 layer_factory.hpp:77] Creating layer relu3
I0506 13:58:28.267300 22041 net.cpp:94] Creating Layer relu3
I0506 13:58:28.267303 22041 net.cpp:435] relu3 <- conv3
I0506 13:58:28.267307 22041 net.cpp:396] relu3 -> conv3 (in-place)
I0506 13:58:28.267314 22041 net.cpp:144] Setting up relu3
I0506 13:58:28.267318 22041 net.cpp:151] Top shape: 20 128 5 5 (64000)
I0506 13:58:28.267321 22041 net.cpp:159] Memory required for data: 2696240
I0506 13:58:28.267324 22041 layer_factory.hpp:77] Creating layer conv4
I0506 13:58:28.267333 22041 net.cpp:94] Creating Layer conv4
I0506 13:58:28.267336 22041 net.cpp:435] conv4 <- conv3
I0506 13:58:28.267341 22041 net.cpp:409] conv4 -> conv4
I0506 13:58:28.279974 22041 net.cpp:144] Setting up conv4
I0506 13:58:28.279994 22041 net.cpp:151] Top shape: 20 128 5 5 (64000)
I0506 13:58:28.279999 22041 net.cpp:159] Memory required for data: 2952240
I0506 13:58:28.280005 22041 layer_factory.hpp:77] Creating layer relu4
I0506 13:58:28.280014 22041 net.cpp:94] Creating Layer relu4
I0506 13:58:28.280017 22041 net.cpp:435] relu4 <- conv4
I0506 13:58:28.280022 22041 net.cpp:396] relu4 -> conv4 (in-place)
I0506 13:58:28.280030 22041 net.cpp:144] Setting up relu4
I0506 13:58:28.280035 22041 net.cpp:151] Top shape: 20 128 5 5 (64000)
I0506 13:58:28.280036 22041 net.cpp:159] Memory required for data: 3208240
I0506 13:58:28.280040 22041 layer_factory.hpp:77] Creating layer conv5
I0506 13:58:28.280048 22041 net.cpp:94] Creating Layer conv5
I0506 13:58:28.280051 22041 net.cpp:435] conv5 <- conv4
I0506 13:58:28.280056 22041 net.cpp:409] conv5 -> conv5
I0506 13:58:28.292748 22041 net.cpp:144] Setting up conv5
I0506 13:58:28.292768 22041 net.cpp:151] Top shape: 20 128 5 5 (64000)
I0506 13:58:28.292773 22041 net.cpp:159] Memory required for data: 3464240
I0506 13:58:28.292783 22041 layer_factory.hpp:77] Creating layer relu5
I0506 13:58:28.292788 22041 net.cpp:94] Creating Layer relu5
I0506 13:58:28.292793 22041 net.cpp:435] relu5 <- conv5
I0506 13:58:28.292798 22041 net.cpp:396] relu5 -> conv5 (in-place)
I0506 13:58:28.292804 22041 net.cpp:144] Setting up relu5
I0506 13:58:28.292809 22041 net.cpp:151] Top shape: 20 128 5 5 (64000)
I0506 13:58:28.292817 22041 net.cpp:159] Memory required for data: 3720240
I0506 13:58:28.292820 22041 layer_factory.hpp:77] Creating layer pool5
I0506 13:58:28.292825 22041 net.cpp:94] Creating Layer pool5
I0506 13:58:28.292829 22041 net.cpp:435] pool5 <- conv5
I0506 13:58:28.292834 22041 net.cpp:409] pool5 -> pool5
I0506 13:58:28.292873 22041 net.cpp:144] Setting up pool5
I0506 13:58:28.292881 22041 net.cpp:151] Top shape: 20 128 2 2 (10240)
I0506 13:58:28.292882 22041 net.cpp:159] Memory required for data: 3761200
I0506 13:58:28.292886 22041 layer_factory.hpp:77] Creating layer ip1
I0506 13:58:28.292893 22041 net.cpp:94] Creating Layer ip1
I0506 13:58:28.292896 22041 net.cpp:435] ip1 <- pool5
I0506 13:58:28.292901 22041 net.cpp:409] ip1 -> ip1
I0506 13:58:28.306295 22041 net.cpp:144] Setting up ip1
I0506 13:58:28.306315 22041 net.cpp:151] Top shape: 20 1024 (20480)
I0506 13:58:28.306319 22041 net.cpp:159] Memory required for data: 3843120
I0506 13:58:28.306326 22041 layer_factory.hpp:77] Creating layer ip2
I0506 13:58:28.306334 22041 net.cpp:94] Creating Layer ip2
I0506 13:58:28.306337 22041 net.cpp:435] ip2 <- ip1
I0506 13:58:28.306344 22041 net.cpp:409] ip2 -> ip2
I0506 13:58:28.319775 22041 net.cpp:144] Setting up ip2
I0506 13:58:28.319795 22041 net.cpp:151] Top shape: 20 512 (10240)
I0506 13:58:28.319799 22041 net.cpp:159] Memory required for data: 3884080
I0506 13:58:28.319806 22041 layer_factory.hpp:77] Creating layer ip3
I0506 13:58:28.319816 22041 net.cpp:94] Creating Layer ip3
I0506 13:58:28.319819 22041 net.cpp:435] ip3 <- ip2
I0506 13:58:28.319828 22041 net.cpp:409] ip3 -> ip3
I0506 13:58:28.320591 22041 net.cpp:144] Setting up ip3
I0506 13:58:28.320601 22041 net.cpp:151] Top shape: 20 50 (1000)
I0506 13:58:28.320605 22041 net.cpp:159] Memory required for data: 3888080
I0506 13:58:28.320610 22041 layer_factory.hpp:77] Creating layer ip3_ip3_0_split
I0506 13:58:28.320616 22041 net.cpp:94] Creating Layer ip3_ip3_0_split
I0506 13:58:28.320618 22041 net.cpp:435] ip3_ip3_0_split <- ip3
I0506 13:58:28.320623 22041 net.cpp:409] ip3_ip3_0_split -> ip3_ip3_0_split_0
I0506 13:58:28.320628 22041 net.cpp:409] ip3_ip3_0_split -> ip3_ip3_0_split_1
I0506 13:58:28.320670 22041 net.cpp:144] Setting up ip3_ip3_0_split
I0506 13:58:28.320677 22041 net.cpp:151] Top shape: 20 50 (1000)
I0506 13:58:28.320679 22041 net.cpp:151] Top shape: 20 50 (1000)
I0506 13:58:28.320683 22041 net.cpp:159] Memory required for data: 3896080
I0506 13:58:28.320685 22041 layer_factory.hpp:77] Creating layer accuracy
I0506 13:58:28.320691 22041 net.cpp:94] Creating Layer accuracy
I0506 13:58:28.320694 22041 net.cpp:435] accuracy <- ip3_ip3_0_split_0
I0506 13:58:28.320698 22041 net.cpp:435] accuracy <- label_intercept_1_split_0
I0506 13:58:28.320703 22041 net.cpp:409] accuracy -> accuracy
…
