…
I0501 20:48:32.226605 14607 net.cpp:323] The NetState phase (0) differed from the phase (1) specified by a rule in layer intercept
I0501 20:48:32.226621 14607 net.cpp:323] The NetState phase (0) differed from the phase (1) specified by a rule in layer accuracy
I0501 20:48:32.226716 14607 net.cpp:52] Initializing net from parameters: 
state {
  phase: TRAIN
}
layer {
  name: "parameters"
  type: "HDF5Data"
  top: "data"
  top: "label"
  include {
    phase: TRAIN
  }
  hdf5_data_param {
    source: "/home/purduethu/scratch/radon/d/deng106/CNNStatisticalModel/distributions/input/50_distributions_100_sample_size_train-distributions-path.txt"
    batch_size: 20
  }
}
layer {
  name: "conv1"
  type: "Convolution"
  bottom: "data"
  top: "conv1"
  param {
    lr_mult: 1
  }
  param {
    lr_mult: 2
  }
  convolution_param {
    num_output: 64
    pad: 2
    kernel_size: 5
    stride: 1
    weight_filler {
      type: "gaussian"
      std: 0.0001
    }
    bias_filler {
      type: "constant"
    }
  }
}
layer {
  name: "relu1"
  type: "ReLU"
  bottom: "conv1"
  top: "conv1"
}
layer {
  name: "conv2"
  type: "Convolution"
  bottom: "conv1"
  top: "conv2"
  param {
    lr_mult: 1
  }
  param {
    lr_mult: 2
  }
  convolution_param {
    num_output: 64
    pad: 2
    kernel_size: 5
    stride: 1
    weight_filler {
      type: "gaussian"
      std: 0.01
    }
    bias_filler {
      type: "constant"
    }
  }
}
layer {
  name: "relu2"
  type: "ReLU"
  bottom: "conv2"
  top: "conv2"
}
layer {
  name: "pool2"
  type: "Pooling"
  bottom: "conv2"
  top: "pool2"
  pooling_param {
    pool: MAX
    kernel_size: 3
    stride: 2
  }
}
layer {
  name: "conv3"
  type: "Convolution"
  bottom: "pool2"
  top: "conv3"
  param {
    lr_mult: 1
  }
  param {
    lr_mult: 2
  }
  convolution_param {
    num_output: 64
    pad: 2
    kernel_size: 5
    stride: 1
    weight_filler {
      type: "gaussian"
      std: 0.01
    }
    bias_filler {
      type: "constant"
    }
  }
}
layer {
  name: "relu3"
  type: "ReLU"
  bottom: "conv3"
  top: "conv3"
}
layer {
  name: "conv4"
  type: "Convolution"
  bottom: "conv3"
  top: "conv4"
  param {
    lr_mult: 1
  }
  param {
    lr_mult: 2
  }
  convolution_param {
    num_output: 64
    pad: 2
    kernel_size: 5
    stride: 1
    weight_filler {
      type: "gaussian"
      std: 0.01
    }
    bias_filler {
      type: "constant"
    }
  }
}
layer {
  name: "relu4"
  type: "ReLU"
  bottom: "conv4"
  top: "conv4"
}
layer {
  name: "conv5"
  type: "Convolution"
  bottom: "conv4"
  top: "conv5"
  param {
    lr_mult: 1
  }
  param {
    lr_mult: 2
  }
  convolution_param {
    num_output: 64
    pad: 2
    kernel_size: 5
    stride: 1
    weight_filler {
      type: "gaussian"
      std: 0.01
    }
    bias_filler {
      type: "constant"
    }
  }
}
layer {
  name: "relu5"
  type: "ReLU"
  bottom: "conv5"
  top: "conv5"
}
layer {
  name: "pool5"
  type: "Pooling"
  bottom: "conv5"
  top: "pool5"
  pooling_param {
    pool: AVE
    kernel_size: 3
    stride: 2
  }
}
layer {
  name: "ip1"
  type: "InnerProduct"
  bottom: "pool5"
  top: "ip1"
  param {
    lr_mult: 1
  }
  param {
    lr_mult: 2
  }
  inner_product_param {
    num_output: 64
    weight_filler {
      type: "gaussian"
      std: 0.1
    }
    bias_filler {
      type: "constant"
    }
  }
}
layer {
  name: "ip2"
  type: "InnerProduct"
  bottom: "ip1"
  top: "ip2"
  param {
    lr_mult: 1
  }
  param {
    lr_mult: 2
  }
  inner_product_param {
    num_output: 64
    weight_filler {
      type: "gaussian"
      std: 0.1
    }
    bias_filler {
      type: "constant"
    }
  }
}
layer {
  name: "ip3"
  type: "InnerProduct"
  bottom: "ip2"
  top: "ip3"
  param {
    lr_mult: 1
  }
  param {
    lr_mult: 2
  }
  inner_product_param {
    num_output: 50
    weight_filler {
      type: "gaussian"
      std: 0.1
    }
    bias_filler {
      type: "constant"
    }
  }
}
layer {
  name: "loss"
  type: "SoftmaxWithLoss"
  bottom: "ip3"
  bottom: "label"
  top: "loss"
}
I0501 20:48:32.226794 14607 layer_factory.hpp:77] Creating layer parameters
I0501 20:48:32.226809 14607 net.cpp:94] Creating Layer parameters
I0501 20:48:32.226815 14607 net.cpp:409] parameters -> data
I0501 20:48:32.226835 14607 net.cpp:409] parameters -> label
I0501 20:48:32.226846 14607 hdf5_data_layer.cpp:79] Loading list of HDF5 filenames from: /home/purduethu/scratch/radon/d/deng106/CNNStatisticalModel/distributions/input/50_distributions_100_sample_size_train-distributions-path.txt
I0501 20:48:32.226871 14607 hdf5_data_layer.cpp:93] Number of HDF5 files: 1
I0501 20:48:32.227444 14607 hdf5.cpp:32] Datatype class: H5T_FLOAT
I0501 20:48:32.387508 14607 hdf5.cpp:35] Datatype class: H5T_INTEGER
I0501 20:48:32.390367 14607 net.cpp:144] Setting up parameters
I0501 20:48:32.390391 14607 net.cpp:151] Top shape: 20 1 10 10 (2000)
I0501 20:48:32.390398 14607 net.cpp:151] Top shape: 20 (20)
I0501 20:48:32.390401 14607 net.cpp:159] Memory required for data: 8080
I0501 20:48:32.390409 14607 layer_factory.hpp:77] Creating layer conv1
I0501 20:48:32.390435 14607 net.cpp:94] Creating Layer conv1
I0501 20:48:32.390442 14607 net.cpp:435] conv1 <- data
I0501 20:48:32.390453 14607 net.cpp:409] conv1 -> conv1
I0501 20:48:32.394264 14607 net.cpp:144] Setting up conv1
I0501 20:48:32.394279 14607 net.cpp:151] Top shape: 20 64 10 10 (128000)
I0501 20:48:32.394284 14607 net.cpp:159] Memory required for data: 520080
I0501 20:48:32.394296 14607 layer_factory.hpp:77] Creating layer relu1
I0501 20:48:32.394305 14607 net.cpp:94] Creating Layer relu1
I0501 20:48:32.394309 14607 net.cpp:435] relu1 <- conv1
I0501 20:48:32.394315 14607 net.cpp:396] relu1 -> conv1 (in-place)
I0501 20:48:32.394330 14607 net.cpp:144] Setting up relu1
I0501 20:48:32.394336 14607 net.cpp:151] Top shape: 20 64 10 10 (128000)
I0501 20:48:32.394340 14607 net.cpp:159] Memory required for data: 1032080
I0501 20:48:32.394345 14607 layer_factory.hpp:77] Creating layer conv2
I0501 20:48:32.394352 14607 net.cpp:94] Creating Layer conv2
I0501 20:48:32.394356 14607 net.cpp:435] conv2 <- conv1
I0501 20:48:32.394361 14607 net.cpp:409] conv2 -> conv2
I0501 20:48:32.400115 14607 net.cpp:144] Setting up conv2
I0501 20:48:32.400130 14607 net.cpp:151] Top shape: 20 64 10 10 (128000)
I0501 20:48:32.400135 14607 net.cpp:159] Memory required for data: 1544080
I0501 20:48:32.400142 14607 layer_factory.hpp:77] Creating layer relu2
I0501 20:48:32.400151 14607 net.cpp:94] Creating Layer relu2
I0501 20:48:32.400154 14607 net.cpp:435] relu2 <- conv2
I0501 20:48:32.400159 14607 net.cpp:396] relu2 -> conv2 (in-place)
I0501 20:48:32.400167 14607 net.cpp:144] Setting up relu2
I0501 20:48:32.400172 14607 net.cpp:151] Top shape: 20 64 10 10 (128000)
I0501 20:48:32.400177 14607 net.cpp:159] Memory required for data: 2056080
I0501 20:48:32.400179 14607 layer_factory.hpp:77] Creating layer pool2
I0501 20:48:32.400193 14607 net.cpp:94] Creating Layer pool2
I0501 20:48:32.400198 14607 net.cpp:435] pool2 <- conv2
I0501 20:48:32.400203 14607 net.cpp:409] pool2 -> pool2
I0501 20:48:32.400246 14607 net.cpp:144] Setting up pool2
I0501 20:48:32.400255 14607 net.cpp:151] Top shape: 20 64 5 5 (32000)
I0501 20:48:32.400259 14607 net.cpp:159] Memory required for data: 2184080
I0501 20:48:32.400262 14607 layer_factory.hpp:77] Creating layer conv3
I0501 20:48:32.400271 14607 net.cpp:94] Creating Layer conv3
I0501 20:48:32.400275 14607 net.cpp:435] conv3 <- pool2
I0501 20:48:32.400290 14607 net.cpp:409] conv3 -> conv3
I0501 20:48:32.405045 14607 net.cpp:144] Setting up conv3
I0501 20:48:32.405058 14607 net.cpp:151] Top shape: 20 64 5 5 (32000)
I0501 20:48:32.405063 14607 net.cpp:159] Memory required for data: 2312080
I0501 20:48:32.405071 14607 layer_factory.hpp:77] Creating layer relu3
I0501 20:48:32.405078 14607 net.cpp:94] Creating Layer relu3
I0501 20:48:32.405082 14607 net.cpp:435] relu3 <- conv3
I0501 20:48:32.405087 14607 net.cpp:396] relu3 -> conv3 (in-place)
I0501 20:48:32.405095 14607 net.cpp:144] Setting up relu3
I0501 20:48:32.405100 14607 net.cpp:151] Top shape: 20 64 5 5 (32000)
I0501 20:48:32.405103 14607 net.cpp:159] Memory required for data: 2440080
I0501 20:48:32.405107 14607 layer_factory.hpp:77] Creating layer conv4
I0501 20:48:32.405115 14607 net.cpp:94] Creating Layer conv4
I0501 20:48:32.405119 14607 net.cpp:435] conv4 <- conv3
I0501 20:48:32.405125 14607 net.cpp:409] conv4 -> conv4
I0501 20:48:32.409454 14607 net.cpp:144] Setting up conv4
I0501 20:48:32.409468 14607 net.cpp:151] Top shape: 20 64 5 5 (32000)
I0501 20:48:32.409473 14607 net.cpp:159] Memory required for data: 2568080
I0501 20:48:32.409479 14607 layer_factory.hpp:77] Creating layer relu4
I0501 20:48:32.409485 14607 net.cpp:94] Creating Layer relu4
I0501 20:48:32.409490 14607 net.cpp:435] relu4 <- conv4
I0501 20:48:32.409495 14607 net.cpp:396] relu4 -> conv4 (in-place)
I0501 20:48:32.409502 14607 net.cpp:144] Setting up relu4
I0501 20:48:32.409507 14607 net.cpp:151] Top shape: 20 64 5 5 (32000)
I0501 20:48:32.409510 14607 net.cpp:159] Memory required for data: 2696080
I0501 20:48:32.409514 14607 layer_factory.hpp:77] Creating layer conv5
I0501 20:48:32.409523 14607 net.cpp:94] Creating Layer conv5
I0501 20:48:32.409526 14607 net.cpp:435] conv5 <- conv4
I0501 20:48:32.409531 14607 net.cpp:409] conv5 -> conv5
I0501 20:48:32.414239 14607 net.cpp:144] Setting up conv5
I0501 20:48:32.414254 14607 net.cpp:151] Top shape: 20 64 5 5 (32000)
I0501 20:48:32.414258 14607 net.cpp:159] Memory required for data: 2824080
I0501 20:48:32.414268 14607 layer_factory.hpp:77] Creating layer relu5
I0501 20:48:32.414274 14607 net.cpp:94] Creating Layer relu5
I0501 20:48:32.414278 14607 net.cpp:435] relu5 <- conv5
I0501 20:48:32.414283 14607 net.cpp:396] relu5 -> conv5 (in-place)
I0501 20:48:32.414290 14607 net.cpp:144] Setting up relu5
I0501 20:48:32.414295 14607 net.cpp:151] Top shape: 20 64 5 5 (32000)
I0501 20:48:32.414299 14607 net.cpp:159] Memory required for data: 2952080
I0501 20:48:32.414302 14607 layer_factory.hpp:77] Creating layer pool5
I0501 20:48:32.414307 14607 net.cpp:94] Creating Layer pool5
I0501 20:48:32.414311 14607 net.cpp:435] pool5 <- conv5
I0501 20:48:32.414315 14607 net.cpp:409] pool5 -> pool5
I0501 20:48:32.414348 14607 net.cpp:144] Setting up pool5
I0501 20:48:32.414357 14607 net.cpp:151] Top shape: 20 64 2 2 (5120)
I0501 20:48:32.414361 14607 net.cpp:159] Memory required for data: 2972560
I0501 20:48:32.414364 14607 layer_factory.hpp:77] Creating layer ip1
I0501 20:48:32.414374 14607 net.cpp:94] Creating Layer ip1
I0501 20:48:32.414378 14607 net.cpp:435] ip1 <- pool5
I0501 20:48:32.414384 14607 net.cpp:409] ip1 -> ip1
I0501 20:48:32.415511 14607 net.cpp:144] Setting up ip1
I0501 20:48:32.415524 14607 net.cpp:151] Top shape: 20 64 (1280)
I0501 20:48:32.415529 14607 net.cpp:159] Memory required for data: 2977680
I0501 20:48:32.415535 14607 layer_factory.hpp:77] Creating layer ip2
I0501 20:48:32.415542 14607 net.cpp:94] Creating Layer ip2
I0501 20:48:32.415550 14607 net.cpp:435] ip2 <- ip1
I0501 20:48:32.415557 14607 net.cpp:409] ip2 -> ip2
I0501 20:48:32.415727 14607 net.cpp:144] Setting up ip2
I0501 20:48:32.415735 14607 net.cpp:151] Top shape: 20 64 (1280)
I0501 20:48:32.415738 14607 net.cpp:159] Memory required for data: 2982800
I0501 20:48:32.415745 14607 layer_factory.hpp:77] Creating layer ip3
I0501 20:48:32.415750 14607 net.cpp:94] Creating Layer ip3
I0501 20:48:32.415755 14607 net.cpp:435] ip3 <- ip2
I0501 20:48:32.415760 14607 net.cpp:409] ip3 -> ip3
I0501 20:48:32.415904 14607 net.cpp:144] Setting up ip3
I0501 20:48:32.415917 14607 net.cpp:151] Top shape: 20 50 (1000)
I0501 20:48:32.415921 14607 net.cpp:159] Memory required for data: 2986800
I0501 20:48:32.415927 14607 layer_factory.hpp:77] Creating layer loss
I0501 20:48:32.415935 14607 net.cpp:94] Creating Layer loss
I0501 20:48:32.415938 14607 net.cpp:435] loss <- ip3
I0501 20:48:32.415943 14607 net.cpp:435] loss <- label
I0501 20:48:32.415949 14607 net.cpp:409] loss -> loss
I0501 20:48:32.415959 14607 layer_factory.hpp:77] Creating layer loss
…
I0501 20:48:32.417121 14607 solver.cpp:181] Creating test net (#0) specified by net file: ./protocol/dis_50_100_dimension.protocol_distribution
I0501 20:48:32.417150 14607 net.cpp:323] The NetState phase (1) differed from the phase (0) specified by a rule in layer parameters
I0501 20:48:32.417251 14607 net.cpp:52] Initializing net from parameters: 
state {
  phase: TEST
}
layer {
  name: "intercept"
  type: "HDF5Data"
  top: "data"
  top: "label"
  include {
    phase: TEST
  }
  hdf5_data_param {
    source: "/home/purduethu/scratch/radon/d/deng106/CNNStatisticalModel/distributions/input/50_distributions_100_sample_size_test-distributions-path.txt"
    batch_size: 20
  }
}
layer {
  name: "conv1"
  type: "Convolution"
  bottom: "data"
  top: "conv1"
  param {
    lr_mult: 1
  }
  param {
    lr_mult: 2
  }
  convolution_param {
    num_output: 64
    pad: 2
    kernel_size: 5
    stride: 1
    weight_filler {
      type: "gaussian"
      std: 0.0001
    }
    bias_filler {
      type: "constant"
    }
  }
}
layer {
  name: "relu1"
  type: "ReLU"
  bottom: "conv1"
  top: "conv1"
}
layer {
  name: "conv2"
  type: "Convolution"
  bottom: "conv1"
  top: "conv2"
  param {
    lr_mult: 1
  }
  param {
    lr_mult: 2
  }
  convolution_param {
    num_output: 64
    pad: 2
    kernel_size: 5
    stride: 1
    weight_filler {
      type: "gaussian"
      std: 0.01
    }
    bias_filler {
      type: "constant"
    }
  }
}
layer {
  name: "relu2"
  type: "ReLU"
  bottom: "conv2"
  top: "conv2"
}
layer {
  name: "pool2"
  type: "Pooling"
  bottom: "conv2"
  top: "pool2"
  pooling_param {
    pool: MAX
    kernel_size: 3
    stride: 2
  }
}
layer {
  name: "conv3"
  type: "Convolution"
  bottom: "pool2"
  top: "conv3"
  param {
    lr_mult: 1
  }
  param {
    lr_mult: 2
  }
  convolution_param {
    num_output: 64
    pad: 2
    kernel_size: 5
    stride: 1
    weight_filler {
      type: "gaussian"
      std: 0.01
    }
    bias_filler {
      type: "constant"
    }
  }
}
layer {
  name: "relu3"
  type: "ReLU"
  bottom: "conv3"
  top: "conv3"
}
layer {
  name: "conv4"
  type: "Convolution"
  bottom: "conv3"
  top: "conv4"
  param {
    lr_mult: 1
  }
  param {
    lr_mult: 2
  }
  convolution_param {
    num_output: 64
    pad: 2
    kernel_size: 5
    stride: 1
    weight_filler {
      type: "gaussian"
      std: 0.01
    }
    bias_filler {
      type: "constant"
    }
  }
}
layer {
  name: "relu4"
  type: "ReLU"
  bottom: "conv4"
  top: "conv4"
}
layer {
  name: "conv5"
  type: "Convolution"
  bottom: "conv4"
  top: "conv5"
  param {
    lr_mult: 1
  }
  param {
    lr_mult: 2
  }
  convolution_param {
    num_output: 64
    pad: 2
    kernel_size: 5
    stride: 1
    weight_filler {
      type: "gaussian"
      std: 0.01
    }
    bias_filler {
      type: "constant"
    }
  }
}
layer {
  name: "relu5"
  type: "ReLU"
  bottom: "conv5"
  top: "conv5"
}
layer {
  name: "pool5"
  type: "Pooling"
  bottom: "conv5"
  top: "pool5"
  pooling_param {
    pool: AVE
    kernel_size: 3
    stride: 2
  }
}
layer {
  name: "ip1"
  type: "InnerProduct"
  bottom: "pool5"
  top: "ip1"
  param {
    lr_mult: 1
  }
  param {
    lr_mult: 2
  }
  inner_product_param {
    num_output: 64
    weight_filler {
      type: "gaussian"
      std: 0.1
    }
    bias_filler {
      type: "constant"
    }
  }
}
layer {
  name: "ip2"
  type: "InnerProduct"
  bottom: "ip1"
  top: "ip2"
  param {
    lr_mult: 1
  }
  param {
    lr_mult: 2
  }
  inner_product_param {
    num_output: 64
    weight_filler {
      type: "gaussian"
      std: 0.1
    }
    bias_filler {
      type: "constant"
    }
  }
}
layer {
  name: "ip3"
  type: "InnerProduct"
  bottom: "ip2"
  top: "ip3"
  param {
    lr_mult: 1
  }
  param {
    lr_mult: 2
  }
  inner_product_param {
    num_output: 50
    weight_filler {
      type: "gaussian"
      std: 0.1
    }
    bias_filler {
      type: "constant"
    }
  }
}
layer {
  name: "accuracy"
  type: "Accuracy"
  bottom: "ip3"
  bottom: "label"
  top: "accuracy"
  include {
    phase: TEST
  }
}
layer {
  name: "loss"
  type: "SoftmaxWithLoss"
  bottom: "ip3"
  bottom: "label"
  top: "loss"
}
I0501 20:48:32.417325 14607 layer_factory.hpp:77] Creating layer intercept
I0501 20:48:32.417335 14607 net.cpp:94] Creating Layer intercept
I0501 20:48:32.417338 14607 net.cpp:409] intercept -> data
I0501 20:48:32.417346 14607 net.cpp:409] intercept -> label
I0501 20:48:32.417353 14607 hdf5_data_layer.cpp:79] Loading list of HDF5 filenames from: /home/purduethu/scratch/radon/d/deng106/CNNStatisticalModel/distributions/input/50_distributions_100_sample_size_test-distributions-path.txt
I0501 20:48:32.417373 14607 hdf5_data_layer.cpp:93] Number of HDF5 files: 1
I0501 20:48:32.458567 14607 net.cpp:144] Setting up intercept
I0501 20:48:32.458603 14607 net.cpp:151] Top shape: 20 1 10 10 (2000)
I0501 20:48:32.458609 14607 net.cpp:151] Top shape: 20 (20)
I0501 20:48:32.458613 14607 net.cpp:159] Memory required for data: 8080
I0501 20:48:32.458619 14607 layer_factory.hpp:77] Creating layer label_intercept_1_split
I0501 20:48:32.458638 14607 net.cpp:94] Creating Layer label_intercept_1_split
I0501 20:48:32.458643 14607 net.cpp:435] label_intercept_1_split <- label
I0501 20:48:32.458650 14607 net.cpp:409] label_intercept_1_split -> label_intercept_1_split_0
I0501 20:48:32.458659 14607 net.cpp:409] label_intercept_1_split -> label_intercept_1_split_1
I0501 20:48:32.458695 14607 net.cpp:144] Setting up label_intercept_1_split
I0501 20:48:32.458703 14607 net.cpp:151] Top shape: 20 (20)
I0501 20:48:32.458706 14607 net.cpp:151] Top shape: 20 (20)
I0501 20:48:32.458710 14607 net.cpp:159] Memory required for data: 8240
I0501 20:48:32.458714 14607 layer_factory.hpp:77] Creating layer conv1
I0501 20:48:32.458725 14607 net.cpp:94] Creating Layer conv1
I0501 20:48:32.458729 14607 net.cpp:435] conv1 <- data
I0501 20:48:32.458735 14607 net.cpp:409] conv1 -> conv1
I0501 20:48:32.459381 14607 net.cpp:144] Setting up conv1
I0501 20:48:32.459403 14607 net.cpp:151] Top shape: 20 64 10 10 (128000)
I0501 20:48:32.459408 14607 net.cpp:159] Memory required for data: 520240
I0501 20:48:32.459417 14607 layer_factory.hpp:77] Creating layer relu1
I0501 20:48:32.459424 14607 net.cpp:94] Creating Layer relu1
I0501 20:48:32.459429 14607 net.cpp:435] relu1 <- conv1
I0501 20:48:32.459434 14607 net.cpp:396] relu1 -> conv1 (in-place)
I0501 20:48:32.459441 14607 net.cpp:144] Setting up relu1
I0501 20:48:32.459446 14607 net.cpp:151] Top shape: 20 64 10 10 (128000)
I0501 20:48:32.459450 14607 net.cpp:159] Memory required for data: 1032240
I0501 20:48:32.459453 14607 layer_factory.hpp:77] Creating layer conv2
I0501 20:48:32.459462 14607 net.cpp:94] Creating Layer conv2
I0501 20:48:32.459466 14607 net.cpp:435] conv2 <- conv1
I0501 20:48:32.459471 14607 net.cpp:409] conv2 -> conv2
I0501 20:48:32.463563 14607 net.cpp:144] Setting up conv2
I0501 20:48:32.463577 14607 net.cpp:151] Top shape: 20 64 10 10 (128000)
I0501 20:48:32.463582 14607 net.cpp:159] Memory required for data: 1544240
I0501 20:48:32.463590 14607 layer_factory.hpp:77] Creating layer relu2
I0501 20:48:32.463598 14607 net.cpp:94] Creating Layer relu2
I0501 20:48:32.463601 14607 net.cpp:435] relu2 <- conv2
I0501 20:48:32.463606 14607 net.cpp:396] relu2 -> conv2 (in-place)
I0501 20:48:32.463613 14607 net.cpp:144] Setting up relu2
I0501 20:48:32.463618 14607 net.cpp:151] Top shape: 20 64 10 10 (128000)
I0501 20:48:32.463621 14607 net.cpp:159] Memory required for data: 2056240
I0501 20:48:32.463625 14607 layer_factory.hpp:77] Creating layer pool2
I0501 20:48:32.463631 14607 net.cpp:94] Creating Layer pool2
I0501 20:48:32.463634 14607 net.cpp:435] pool2 <- conv2
I0501 20:48:32.463639 14607 net.cpp:409] pool2 -> pool2
I0501 20:48:32.463671 14607 net.cpp:144] Setting up pool2
I0501 20:48:32.463678 14607 net.cpp:151] Top shape: 20 64 5 5 (32000)
I0501 20:48:32.463681 14607 net.cpp:159] Memory required for data: 2184240
I0501 20:48:32.463685 14607 layer_factory.hpp:77] Creating layer conv3
I0501 20:48:32.463693 14607 net.cpp:94] Creating Layer conv3
I0501 20:48:32.463697 14607 net.cpp:435] conv3 <- pool2
I0501 20:48:32.463702 14607 net.cpp:409] conv3 -> conv3
I0501 20:48:32.467488 14607 net.cpp:144] Setting up conv3
I0501 20:48:32.467501 14607 net.cpp:151] Top shape: 20 64 5 5 (32000)
I0501 20:48:32.467506 14607 net.cpp:159] Memory required for data: 2312240
I0501 20:48:32.467514 14607 layer_factory.hpp:77] Creating layer relu3
I0501 20:48:32.467522 14607 net.cpp:94] Creating Layer relu3
I0501 20:48:32.467526 14607 net.cpp:435] relu3 <- conv3
I0501 20:48:32.467531 14607 net.cpp:396] relu3 -> conv3 (in-place)
I0501 20:48:32.467540 14607 net.cpp:144] Setting up relu3
I0501 20:48:32.467545 14607 net.cpp:151] Top shape: 20 64 5 5 (32000)
I0501 20:48:32.467547 14607 net.cpp:159] Memory required for data: 2440240
I0501 20:48:32.467550 14607 layer_factory.hpp:77] Creating layer conv4
I0501 20:48:32.467558 14607 net.cpp:94] Creating Layer conv4
I0501 20:48:32.467562 14607 net.cpp:435] conv4 <- conv3
I0501 20:48:32.467567 14607 net.cpp:409] conv4 -> conv4
I0501 20:48:32.470918 14607 net.cpp:144] Setting up conv4
I0501 20:48:32.470932 14607 net.cpp:151] Top shape: 20 64 5 5 (32000)
I0501 20:48:32.470937 14607 net.cpp:159] Memory required for data: 2568240
I0501 20:48:32.470943 14607 layer_factory.hpp:77] Creating layer relu4
I0501 20:48:32.470949 14607 net.cpp:94] Creating Layer relu4
I0501 20:48:32.470953 14607 net.cpp:435] relu4 <- conv4
I0501 20:48:32.470962 14607 net.cpp:396] relu4 -> conv4 (in-place)
I0501 20:48:32.470969 14607 net.cpp:144] Setting up relu4
I0501 20:48:32.470974 14607 net.cpp:151] Top shape: 20 64 5 5 (32000)
I0501 20:48:32.470978 14607 net.cpp:159] Memory required for data: 2696240
I0501 20:48:32.470981 14607 layer_factory.hpp:77] Creating layer conv5
I0501 20:48:32.470989 14607 net.cpp:94] Creating Layer conv5
I0501 20:48:32.470993 14607 net.cpp:435] conv5 <- conv4
I0501 20:48:32.470998 14607 net.cpp:409] conv5 -> conv5
I0501 20:48:32.474359 14607 net.cpp:144] Setting up conv5
I0501 20:48:32.474378 14607 net.cpp:151] Top shape: 20 64 5 5 (32000)
I0501 20:48:32.474382 14607 net.cpp:159] Memory required for data: 2824240
I0501 20:48:32.474391 14607 layer_factory.hpp:77] Creating layer relu5
I0501 20:48:32.474397 14607 net.cpp:94] Creating Layer relu5
I0501 20:48:32.474401 14607 net.cpp:435] relu5 <- conv5
I0501 20:48:32.474406 14607 net.cpp:396] relu5 -> conv5 (in-place)
I0501 20:48:32.474412 14607 net.cpp:144] Setting up relu5
I0501 20:48:32.474417 14607 net.cpp:151] Top shape: 20 64 5 5 (32000)
I0501 20:48:32.474421 14607 net.cpp:159] Memory required for data: 2952240
I0501 20:48:32.474423 14607 layer_factory.hpp:77] Creating layer pool5
I0501 20:48:32.474428 14607 net.cpp:94] Creating Layer pool5
I0501 20:48:32.474432 14607 net.cpp:435] pool5 <- conv5
I0501 20:48:32.474437 14607 net.cpp:409] pool5 -> pool5
I0501 20:48:32.474460 14607 net.cpp:144] Setting up pool5
I0501 20:48:32.474467 14607 net.cpp:151] Top shape: 20 64 2 2 (5120)
I0501 20:48:32.474470 14607 net.cpp:159] Memory required for data: 2972720
I0501 20:48:32.474473 14607 layer_factory.hpp:77] Creating layer ip1
I0501 20:48:32.474480 14607 net.cpp:94] Creating Layer ip1
I0501 20:48:32.474484 14607 net.cpp:435] ip1 <- pool5
I0501 20:48:32.474489 14607 net.cpp:409] ip1 -> ip1
I0501 20:48:32.474951 14607 net.cpp:144] Setting up ip1
I0501 20:48:32.474959 14607 net.cpp:151] Top shape: 20 64 (1280)
I0501 20:48:32.474962 14607 net.cpp:159] Memory required for data: 2977840
I0501 20:48:32.474967 14607 layer_factory.hpp:77] Creating layer ip2
I0501 20:48:32.474974 14607 net.cpp:94] Creating Layer ip2
I0501 20:48:32.474977 14607 net.cpp:435] ip2 <- ip1
I0501 20:48:32.474982 14607 net.cpp:409] ip2 -> ip2
I0501 20:48:32.475147 14607 net.cpp:144] Setting up ip2
I0501 20:48:32.475154 14607 net.cpp:151] Top shape: 20 64 (1280)
I0501 20:48:32.475157 14607 net.cpp:159] Memory required for data: 2982960
I0501 20:48:32.475162 14607 layer_factory.hpp:77] Creating layer ip3
I0501 20:48:32.475169 14607 net.cpp:94] Creating Layer ip3
I0501 20:48:32.475173 14607 net.cpp:435] ip3 <- ip2
I0501 20:48:32.475178 14607 net.cpp:409] ip3 -> ip3
I0501 20:48:32.475323 14607 net.cpp:144] Setting up ip3
I0501 20:48:32.475330 14607 net.cpp:151] Top shape: 20 50 (1000)
I0501 20:48:32.475333 14607 net.cpp:159] Memory required for data: 2986960
I0501 20:48:32.475338 14607 layer_factory.hpp:77] Creating layer ip3_ip3_0_split
I0501 20:48:32.475343 14607 net.cpp:94] Creating Layer ip3_ip3_0_split
I0501 20:48:32.475347 14607 net.cpp:435] ip3_ip3_0_split <- ip3
I0501 20:48:32.475353 14607 net.cpp:409] ip3_ip3_0_split -> ip3_ip3_0_split_0
I0501 20:48:32.475358 14607 net.cpp:409] ip3_ip3_0_split -> ip3_ip3_0_split_1
I0501 20:48:32.475383 14607 net.cpp:144] Setting up ip3_ip3_0_split
I0501 20:48:32.475390 14607 net.cpp:151] Top shape: 20 50 (1000)
I0501 20:48:32.475394 14607 net.cpp:151] Top shape: 20 50 (1000)
I0501 20:48:32.475397 14607 net.cpp:159] Memory required for data: 2994960
I0501 20:48:32.475400 14607 layer_factory.hpp:77] Creating layer accuracy
I0501 20:48:32.475406 14607 net.cpp:94] Creating Layer accuracy
I0501 20:48:32.475409 14607 net.cpp:435] accuracy <- ip3_ip3_0_split_0
I0501 20:48:32.475414 14607 net.cpp:435] accuracy <- label_intercept_1_split_0
I0501 20:48:32.475419 14607 net.cpp:409] accuracy -> accuracy
…
