…
I0503 11:54:21.344331 20537 net.cpp:323] The NetState phase (0) differed from the phase (1) specified by a rule in layer intercept
I0503 11:54:21.344347 20537 net.cpp:323] The NetState phase (0) differed from the phase (1) specified by a rule in layer accuracy
I0503 11:54:21.344439 20537 net.cpp:52] Initializing net from parameters: 
state {
  phase: TRAIN
}
layer {
  name: "parameters"
  type: "HDF5Data"
  top: "data"
  top: "label"
  include {
    phase: TRAIN
  }
  hdf5_data_param {
    source: "/home/purduethu/scratch/radon/d/deng106/CNNStatisticalModel/distributions/input/20_distributions_400_sample_size_train-distributions-path.txt"
    batch_size: 20
  }
}
layer {
  name: "conv1"
  type: "Convolution"
  bottom: "data"
  top: "conv1"
  param {
    lr_mult: 1
  }
  param {
    lr_mult: 2
  }
  convolution_param {
    num_output: 64
    pad: 2
    kernel_size: 5
    stride: 1
    weight_filler {
      type: "gaussian"
      std: 0.0001
    }
    bias_filler {
      type: "constant"
    }
  }
}
layer {
  name: "relu1"
  type: "ReLU"
  bottom: "conv1"
  top: "conv1"
}
layer {
  name: "conv2"
  type: "Convolution"
  bottom: "conv1"
  top: "conv2"
  param {
    lr_mult: 1
  }
  param {
    lr_mult: 2
  }
  convolution_param {
    num_output: 64
    pad: 2
    kernel_size: 5
    stride: 1
    weight_filler {
      type: "gaussian"
      std: 0.01
    }
    bias_filler {
      type: "constant"
    }
  }
}
layer {
  name: "relu2"
  type: "ReLU"
  bottom: "conv2"
  top: "conv2"
}
layer {
  name: "pool2"
  type: "Pooling"
  bottom: "conv2"
  top: "pool2"
  pooling_param {
    pool: MAX
    kernel_size: 3
    stride: 2
  }
}
layer {
  name: "conv3"
  type: "Convolution"
  bottom: "pool2"
  top: "conv3"
  param {
    lr_mult: 1
  }
  param {
    lr_mult: 2
  }
  convolution_param {
    num_output: 128
    pad: 2
    kernel_size: 5
    stride: 1
    weight_filler {
      type: "gaussian"
      std: 0.01
    }
    bias_filler {
      type: "constant"
    }
  }
}
layer {
  name: "relu3"
  type: "ReLU"
  bottom: "conv3"
  top: "conv3"
}
layer {
  name: "conv4"
  type: "Convolution"
  bottom: "conv3"
  top: "conv4"
  param {
    lr_mult: 1
  }
  param {
    lr_mult: 2
  }
  convolution_param {
    num_output: 128
    pad: 2
    kernel_size: 5
    stride: 1
    weight_filler {
      type: "gaussian"
      std: 0.01
    }
    bias_filler {
      type: "constant"
    }
  }
}
layer {
  name: "relu4"
  type: "ReLU"
  bottom: "conv4"
  top: "conv4"
}
layer {
  name: "conv5"
  type: "Convolution"
  bottom: "conv4"
  top: "conv5"
  param {
    lr_mult: 1
  }
  param {
    lr_mult: 2
  }
  convolution_param {
    num_output: 128
    pad: 2
    kernel_size: 5
    stride: 1
    weight_filler {
      type: "gaussian"
      std: 0.01
    }
    bias_filler {
      type: "constant"
    }
  }
}
layer {
  name: "relu5"
  type: "ReLU"
  bottom: "conv5"
  top: "conv5"
}
layer {
  name: "pool5"
  type: "Pooling"
  bottom: "conv5"
  top: "pool5"
  pooling_param {
    pool: AVE
    kernel_size: 3
    stride: 2
  }
}
layer {
  name: "ip1"
  type: "InnerProduct"
  bottom: "pool5"
  top: "ip1"
  param {
    lr_mult: 1
  }
  param {
    lr_mult: 2
  }
  inner_product_param {
    num_output: 1024
    weight_filler {
      type: "gaussian"
      std: 0.1
    }
    bias_filler {
      type: "constant"
    }
  }
}
layer {
  name: "ip2"
  type: "InnerProduct"
  bottom: "ip1"
  top: "ip2"
  param {
    lr_mult: 1
  }
  param {
    lr_mult: 2
  }
  inner_product_param {
    num_output: 512
    weight_filler {
      type: "gaussian"
      std: 0.1
    }
    bias_filler {
      type: "constant"
    }
  }
}
layer {
  name: "ip3"
  type: "InnerProduct"
  bottom: "ip2"
  top: "ip3"
  param {
    lr_mult: 1
  }
  param {
    lr_mult: 2
  }
  inner_product_param {
    num_output: 50
    weight_filler {
      type: "gaussian"
      std: 0.1
    }
    bias_filler {
      type: "constant"
    }
  }
}
layer {
  name: "loss"
  type: "SoftmaxWithLoss"
  bottom: "ip3"
  bottom: "label"
  top: "loss"
}
I0503 11:54:21.344513 20537 layer_factory.hpp:77] Creating layer parameters
I0503 11:54:21.344527 20537 net.cpp:94] Creating Layer parameters
I0503 11:54:21.344533 20537 net.cpp:409] parameters -> data
I0503 11:54:21.344559 20537 net.cpp:409] parameters -> label
I0503 11:54:21.344579 20537 hdf5_data_layer.cpp:79] Loading list of HDF5 filenames from: /home/purduethu/scratch/radon/d/deng106/CNNStatisticalModel/distributions/input/20_distributions_400_sample_size_train-distributions-path.txt
I0503 11:54:21.344602 20537 hdf5_data_layer.cpp:93] Number of HDF5 files: 1
I0503 11:54:21.345072 20537 hdf5.cpp:32] Datatype class: H5T_FLOAT
I0503 11:54:21.603879 20537 hdf5.cpp:35] Datatype class: H5T_INTEGER
I0503 11:54:21.605634 20537 net.cpp:144] Setting up parameters
I0503 11:54:21.605653 20537 net.cpp:151] Top shape: 20 1 20 20 (8000)
I0503 11:54:21.605659 20537 net.cpp:151] Top shape: 20 (20)
I0503 11:54:21.605661 20537 net.cpp:159] Memory required for data: 32080
I0503 11:54:21.605669 20537 layer_factory.hpp:77] Creating layer conv1
I0503 11:54:21.605695 20537 net.cpp:94] Creating Layer conv1
I0503 11:54:21.605700 20537 net.cpp:435] conv1 <- data
I0503 11:54:21.605711 20537 net.cpp:409] conv1 -> conv1
I0503 11:54:21.610532 20537 net.cpp:144] Setting up conv1
I0503 11:54:21.610546 20537 net.cpp:151] Top shape: 20 64 20 20 (512000)
I0503 11:54:21.610551 20537 net.cpp:159] Memory required for data: 2080080
I0503 11:54:21.610563 20537 layer_factory.hpp:77] Creating layer relu1
I0503 11:54:21.610570 20537 net.cpp:94] Creating Layer relu1
I0503 11:54:21.610574 20537 net.cpp:435] relu1 <- conv1
I0503 11:54:21.610579 20537 net.cpp:396] relu1 -> conv1 (in-place)
I0503 11:54:21.610596 20537 net.cpp:144] Setting up relu1
I0503 11:54:21.610601 20537 net.cpp:151] Top shape: 20 64 20 20 (512000)
I0503 11:54:21.610605 20537 net.cpp:159] Memory required for data: 4128080
I0503 11:54:21.610607 20537 layer_factory.hpp:77] Creating layer conv2
I0503 11:54:21.610615 20537 net.cpp:94] Creating Layer conv2
I0503 11:54:21.610620 20537 net.cpp:435] conv2 <- conv1
I0503 11:54:21.610625 20537 net.cpp:409] conv2 -> conv2
I0503 11:54:21.620563 20537 net.cpp:144] Setting up conv2
I0503 11:54:21.620579 20537 net.cpp:151] Top shape: 20 64 20 20 (512000)
I0503 11:54:21.620584 20537 net.cpp:159] Memory required for data: 6176080
I0503 11:54:21.620591 20537 layer_factory.hpp:77] Creating layer relu2
I0503 11:54:21.620599 20537 net.cpp:94] Creating Layer relu2
I0503 11:54:21.620602 20537 net.cpp:435] relu2 <- conv2
I0503 11:54:21.620606 20537 net.cpp:396] relu2 -> conv2 (in-place)
I0503 11:54:21.620615 20537 net.cpp:144] Setting up relu2
I0503 11:54:21.620618 20537 net.cpp:151] Top shape: 20 64 20 20 (512000)
I0503 11:54:21.620621 20537 net.cpp:159] Memory required for data: 8224080
I0503 11:54:21.620625 20537 layer_factory.hpp:77] Creating layer pool2
I0503 11:54:21.620640 20537 net.cpp:94] Creating Layer pool2
I0503 11:54:21.620643 20537 net.cpp:435] pool2 <- conv2
I0503 11:54:21.620648 20537 net.cpp:409] pool2 -> pool2
I0503 11:54:21.620692 20537 net.cpp:144] Setting up pool2
I0503 11:54:21.620699 20537 net.cpp:151] Top shape: 20 64 10 10 (128000)
I0503 11:54:21.620703 20537 net.cpp:159] Memory required for data: 8736080
I0503 11:54:21.620707 20537 layer_factory.hpp:77] Creating layer conv3
I0503 11:54:21.620714 20537 net.cpp:94] Creating Layer conv3
I0503 11:54:21.620718 20537 net.cpp:435] conv3 <- pool2
I0503 11:54:21.620731 20537 net.cpp:409] conv3 -> conv3
I0503 11:54:21.629981 20537 net.cpp:144] Setting up conv3
I0503 11:54:21.629997 20537 net.cpp:151] Top shape: 20 128 10 10 (256000)
I0503 11:54:21.630002 20537 net.cpp:159] Memory required for data: 9760080
I0503 11:54:21.630010 20537 layer_factory.hpp:77] Creating layer relu3
I0503 11:54:21.630017 20537 net.cpp:94] Creating Layer relu3
I0503 11:54:21.630020 20537 net.cpp:435] relu3 <- conv3
I0503 11:54:21.630024 20537 net.cpp:396] relu3 -> conv3 (in-place)
I0503 11:54:21.630033 20537 net.cpp:144] Setting up relu3
I0503 11:54:21.630036 20537 net.cpp:151] Top shape: 20 128 10 10 (256000)
I0503 11:54:21.630039 20537 net.cpp:159] Memory required for data: 10784080
I0503 11:54:21.630043 20537 layer_factory.hpp:77] Creating layer conv4
I0503 11:54:21.630051 20537 net.cpp:94] Creating Layer conv4
I0503 11:54:21.630055 20537 net.cpp:435] conv4 <- conv3
I0503 11:54:21.630060 20537 net.cpp:409] conv4 -> conv4
I0503 11:54:21.647497 20537 net.cpp:144] Setting up conv4
I0503 11:54:21.647512 20537 net.cpp:151] Top shape: 20 128 10 10 (256000)
I0503 11:54:21.647516 20537 net.cpp:159] Memory required for data: 11808080
I0503 11:54:21.647522 20537 layer_factory.hpp:77] Creating layer relu4
I0503 11:54:21.647528 20537 net.cpp:94] Creating Layer relu4
I0503 11:54:21.647532 20537 net.cpp:435] relu4 <- conv4
I0503 11:54:21.647537 20537 net.cpp:396] relu4 -> conv4 (in-place)
I0503 11:54:21.647544 20537 net.cpp:144] Setting up relu4
I0503 11:54:21.647549 20537 net.cpp:151] Top shape: 20 128 10 10 (256000)
I0503 11:54:21.647552 20537 net.cpp:159] Memory required for data: 12832080
I0503 11:54:21.647555 20537 layer_factory.hpp:77] Creating layer conv5
I0503 11:54:21.647563 20537 net.cpp:94] Creating Layer conv5
I0503 11:54:21.647567 20537 net.cpp:435] conv5 <- conv4
I0503 11:54:21.647572 20537 net.cpp:409] conv5 -> conv5
I0503 11:54:21.664718 20537 net.cpp:144] Setting up conv5
I0503 11:54:21.664734 20537 net.cpp:151] Top shape: 20 128 10 10 (256000)
I0503 11:54:21.664738 20537 net.cpp:159] Memory required for data: 13856080
I0503 11:54:21.664747 20537 layer_factory.hpp:77] Creating layer relu5
I0503 11:54:21.664754 20537 net.cpp:94] Creating Layer relu5
I0503 11:54:21.664757 20537 net.cpp:435] relu5 <- conv5
I0503 11:54:21.664762 20537 net.cpp:396] relu5 -> conv5 (in-place)
I0503 11:54:21.664770 20537 net.cpp:144] Setting up relu5
I0503 11:54:21.664774 20537 net.cpp:151] Top shape: 20 128 10 10 (256000)
I0503 11:54:21.664777 20537 net.cpp:159] Memory required for data: 14880080
I0503 11:54:21.664782 20537 layer_factory.hpp:77] Creating layer pool5
I0503 11:54:21.664786 20537 net.cpp:94] Creating Layer pool5
I0503 11:54:21.664789 20537 net.cpp:435] pool5 <- conv5
I0503 11:54:21.664793 20537 net.cpp:409] pool5 -> pool5
I0503 11:54:21.664829 20537 net.cpp:144] Setting up pool5
I0503 11:54:21.664836 20537 net.cpp:151] Top shape: 20 128 5 5 (64000)
I0503 11:54:21.664839 20537 net.cpp:159] Memory required for data: 15136080
I0503 11:54:21.664844 20537 layer_factory.hpp:77] Creating layer ip1
I0503 11:54:21.664854 20537 net.cpp:94] Creating Layer ip1
I0503 11:54:21.664857 20537 net.cpp:435] ip1 <- pool5
I0503 11:54:21.664862 20537 net.cpp:409] ip1 -> ip1
I0503 11:54:21.747717 20537 net.cpp:144] Setting up ip1
I0503 11:54:21.747751 20537 net.cpp:151] Top shape: 20 1024 (20480)
I0503 11:54:21.747756 20537 net.cpp:159] Memory required for data: 15218000
I0503 11:54:21.747764 20537 layer_factory.hpp:77] Creating layer ip2
I0503 11:54:21.747782 20537 net.cpp:94] Creating Layer ip2
I0503 11:54:21.747787 20537 net.cpp:435] ip2 <- ip1
I0503 11:54:21.747793 20537 net.cpp:409] ip2 -> ip2
I0503 11:54:21.761323 20537 net.cpp:144] Setting up ip2
I0503 11:54:21.761338 20537 net.cpp:151] Top shape: 20 512 (10240)
I0503 11:54:21.761343 20537 net.cpp:159] Memory required for data: 15258960
I0503 11:54:21.761348 20537 layer_factory.hpp:77] Creating layer ip3
I0503 11:54:21.761355 20537 net.cpp:94] Creating Layer ip3
I0503 11:54:21.761359 20537 net.cpp:435] ip3 <- ip2
I0503 11:54:21.761364 20537 net.cpp:409] ip3 -> ip3
I0503 11:54:21.762714 20537 net.cpp:144] Setting up ip3
I0503 11:54:21.762727 20537 net.cpp:151] Top shape: 20 50 (1000)
I0503 11:54:21.762732 20537 net.cpp:159] Memory required for data: 15262960
I0503 11:54:21.762737 20537 layer_factory.hpp:77] Creating layer loss
I0503 11:54:21.762747 20537 net.cpp:94] Creating Layer loss
I0503 11:54:21.762750 20537 net.cpp:435] loss <- ip3
I0503 11:54:21.762754 20537 net.cpp:435] loss <- label
I0503 11:54:21.762760 20537 net.cpp:409] loss -> loss
I0503 11:54:21.762776 20537 layer_factory.hpp:77] Creating layer loss
…
I0503 11:54:21.763291 20537 solver.cpp:181] Creating test net (#0) specified by net file: ./protocol/dis_20_400_dimension.protocol_distribution
I0503 11:54:21.763319 20537 net.cpp:323] The NetState phase (1) differed from the phase (0) specified by a rule in layer parameters
I0503 11:54:21.763418 20537 net.cpp:52] Initializing net from parameters: 
state {
  phase: TEST
}
layer {
  name: "intercept"
  type: "HDF5Data"
  top: "data"
  top: "label"
  include {
    phase: TEST
  }
  hdf5_data_param {
    source: "/home/purduethu/scratch/radon/d/deng106/CNNStatisticalModel/distributions/input/20_distributions_400_sample_size_test-distributions-path.txt"
    batch_size: 20
  }
}
layer {
  name: "conv1"
  type: "Convolution"
  bottom: "data"
  top: "conv1"
  param {
    lr_mult: 1
  }
  param {
    lr_mult: 2
  }
  convolution_param {
    num_output: 64
    pad: 2
    kernel_size: 5
    stride: 1
    weight_filler {
      type: "gaussian"
      std: 0.0001
    }
    bias_filler {
      type: "constant"
    }
  }
}
layer {
  name: "relu1"
  type: "ReLU"
  bottom: "conv1"
  top: "conv1"
}
layer {
  name: "conv2"
  type: "Convolution"
  bottom: "conv1"
  top: "conv2"
  param {
    lr_mult: 1
  }
  param {
    lr_mult: 2
  }
  convolution_param {
    num_output: 64
    pad: 2
    kernel_size: 5
    stride: 1
    weight_filler {
      type: "gaussian"
      std: 0.01
    }
    bias_filler {
      type: "constant"
    }
  }
}
layer {
  name: "relu2"
  type: "ReLU"
  bottom: "conv2"
  top: "conv2"
}
layer {
  name: "pool2"
  type: "Pooling"
  bottom: "conv2"
  top: "pool2"
  pooling_param {
    pool: MAX
    kernel_size: 3
    stride: 2
  }
}
layer {
  name: "conv3"
  type: "Convolution"
  bottom: "pool2"
  top: "conv3"
  param {
    lr_mult: 1
  }
  param {
    lr_mult: 2
  }
  convolution_param {
    num_output: 128
    pad: 2
    kernel_size: 5
    stride: 1
    weight_filler {
      type: "gaussian"
      std: 0.01
    }
    bias_filler {
      type: "constant"
    }
  }
}
layer {
  name: "relu3"
  type: "ReLU"
  bottom: "conv3"
  top: "conv3"
}
layer {
  name: "conv4"
  type: "Convolution"
  bottom: "conv3"
  top: "conv4"
  param {
    lr_mult: 1
  }
  param {
    lr_mult: 2
  }
  convolution_param {
    num_output: 128
    pad: 2
    kernel_size: 5
    stride: 1
    weight_filler {
      type: "gaussian"
      std: 0.01
    }
    bias_filler {
      type: "constant"
    }
  }
}
layer {
  name: "relu4"
  type: "ReLU"
  bottom: "conv4"
  top: "conv4"
}
layer {
  name: "conv5"
  type: "Convolution"
  bottom: "conv4"
  top: "conv5"
  param {
    lr_mult: 1
  }
  param {
    lr_mult: 2
  }
  convolution_param {
    num_output: 128
    pad: 2
    kernel_size: 5
    stride: 1
    weight_filler {
      type: "gaussian"
      std: 0.01
    }
    bias_filler {
      type: "constant"
    }
  }
}
layer {
  name: "relu5"
  type: "ReLU"
  bottom: "conv5"
  top: "conv5"
}
layer {
  name: "pool5"
  type: "Pooling"
  bottom: "conv5"
  top: "pool5"
  pooling_param {
    pool: AVE
    kernel_size: 3
    stride: 2
  }
}
layer {
  name: "ip1"
  type: "InnerProduct"
  bottom: "pool5"
  top: "ip1"
  param {
    lr_mult: 1
  }
  param {
    lr_mult: 2
  }
  inner_product_param {
    num_output: 1024
    weight_filler {
      type: "gaussian"
      std: 0.1
    }
    bias_filler {
      type: "constant"
    }
  }
}
layer {
  name: "ip2"
  type: "InnerProduct"
  bottom: "ip1"
  top: "ip2"
  param {
    lr_mult: 1
  }
  param {
    lr_mult: 2
  }
  inner_product_param {
    num_output: 512
    weight_filler {
      type: "gaussian"
      std: 0.1
    }
    bias_filler {
      type: "constant"
    }
  }
}
layer {
  name: "ip3"
  type: "InnerProduct"
  bottom: "ip2"
  top: "ip3"
  param {
    lr_mult: 1
  }
  param {
    lr_mult: 2
  }
  inner_product_param {
    num_output: 50
    weight_filler {
      type: "gaussian"
      std: 0.1
    }
    bias_filler {
      type: "constant"
    }
  }
}
layer {
  name: "accuracy"
  type: "Accuracy"
  bottom: "ip3"
  bottom: "label"
  top: "accuracy"
  include {
    phase: TEST
  }
}
layer {
  name: "loss"
  type: "SoftmaxWithLoss"
  bottom: "ip3"
  bottom: "label"
  top: "loss"
}
I0503 11:54:21.763492 20537 layer_factory.hpp:77] Creating layer intercept
I0503 11:54:21.763501 20537 net.cpp:94] Creating Layer intercept
I0503 11:54:21.763505 20537 net.cpp:409] intercept -> data
I0503 11:54:21.763512 20537 net.cpp:409] intercept -> label
I0503 11:54:21.763520 20537 hdf5_data_layer.cpp:79] Loading list of HDF5 filenames from: /home/purduethu/scratch/radon/d/deng106/CNNStatisticalModel/distributions/input/20_distributions_400_sample_size_test-distributions-path.txt
I0503 11:54:21.763540 20537 hdf5_data_layer.cpp:93] Number of HDF5 files: 1
I0503 11:54:21.828881 20537 net.cpp:144] Setting up intercept
I0503 11:54:21.828915 20537 net.cpp:151] Top shape: 20 1 20 20 (8000)
I0503 11:54:21.828920 20537 net.cpp:151] Top shape: 20 (20)
I0503 11:54:21.828924 20537 net.cpp:159] Memory required for data: 32080
I0503 11:54:21.828930 20537 layer_factory.hpp:77] Creating layer label_intercept_1_split
I0503 11:54:21.828950 20537 net.cpp:94] Creating Layer label_intercept_1_split
I0503 11:54:21.828955 20537 net.cpp:435] label_intercept_1_split <- label
I0503 11:54:21.828961 20537 net.cpp:409] label_intercept_1_split -> label_intercept_1_split_0
I0503 11:54:21.828969 20537 net.cpp:409] label_intercept_1_split -> label_intercept_1_split_1
I0503 11:54:21.829006 20537 net.cpp:144] Setting up label_intercept_1_split
I0503 11:54:21.829013 20537 net.cpp:151] Top shape: 20 (20)
I0503 11:54:21.829017 20537 net.cpp:151] Top shape: 20 (20)
I0503 11:54:21.829020 20537 net.cpp:159] Memory required for data: 32240
I0503 11:54:21.829025 20537 layer_factory.hpp:77] Creating layer conv1
I0503 11:54:21.829035 20537 net.cpp:94] Creating Layer conv1
I0503 11:54:21.829040 20537 net.cpp:435] conv1 <- data
I0503 11:54:21.829044 20537 net.cpp:409] conv1 -> conv1
I0503 11:54:21.829754 20537 net.cpp:144] Setting up conv1
I0503 11:54:21.829768 20537 net.cpp:151] Top shape: 20 64 20 20 (512000)
I0503 11:54:21.829772 20537 net.cpp:159] Memory required for data: 2080240
I0503 11:54:21.829782 20537 layer_factory.hpp:77] Creating layer relu1
I0503 11:54:21.829788 20537 net.cpp:94] Creating Layer relu1
I0503 11:54:21.829792 20537 net.cpp:435] relu1 <- conv1
I0503 11:54:21.829797 20537 net.cpp:396] relu1 -> conv1 (in-place)
I0503 11:54:21.829805 20537 net.cpp:144] Setting up relu1
I0503 11:54:21.829809 20537 net.cpp:151] Top shape: 20 64 20 20 (512000)
I0503 11:54:21.829813 20537 net.cpp:159] Memory required for data: 4128240
I0503 11:54:21.829815 20537 layer_factory.hpp:77] Creating layer conv2
I0503 11:54:21.829824 20537 net.cpp:94] Creating Layer conv2
I0503 11:54:21.829828 20537 net.cpp:435] conv2 <- conv1
I0503 11:54:21.829833 20537 net.cpp:409] conv2 -> conv2
I0503 11:54:21.834753 20537 net.cpp:144] Setting up conv2
I0503 11:54:21.834767 20537 net.cpp:151] Top shape: 20 64 20 20 (512000)
I0503 11:54:21.834771 20537 net.cpp:159] Memory required for data: 6176240
I0503 11:54:21.834779 20537 layer_factory.hpp:77] Creating layer relu2
I0503 11:54:21.834785 20537 net.cpp:94] Creating Layer relu2
I0503 11:54:21.834789 20537 net.cpp:435] relu2 <- conv2
I0503 11:54:21.834794 20537 net.cpp:396] relu2 -> conv2 (in-place)
I0503 11:54:21.834800 20537 net.cpp:144] Setting up relu2
I0503 11:54:21.834805 20537 net.cpp:151] Top shape: 20 64 20 20 (512000)
I0503 11:54:21.834808 20537 net.cpp:159] Memory required for data: 8224240
I0503 11:54:21.834811 20537 layer_factory.hpp:77] Creating layer pool2
I0503 11:54:21.834817 20537 net.cpp:94] Creating Layer pool2
I0503 11:54:21.834820 20537 net.cpp:435] pool2 <- conv2
I0503 11:54:21.834825 20537 net.cpp:409] pool2 -> pool2
I0503 11:54:21.834858 20537 net.cpp:144] Setting up pool2
I0503 11:54:21.834864 20537 net.cpp:151] Top shape: 20 64 10 10 (128000)
I0503 11:54:21.834867 20537 net.cpp:159] Memory required for data: 8736240
I0503 11:54:21.834872 20537 layer_factory.hpp:77] Creating layer conv3
I0503 11:54:21.834879 20537 net.cpp:94] Creating Layer conv3
I0503 11:54:21.834882 20537 net.cpp:435] conv3 <- pool2
I0503 11:54:21.834887 20537 net.cpp:409] conv3 -> conv3
I0503 11:54:21.842675 20537 net.cpp:144] Setting up conv3
I0503 11:54:21.842689 20537 net.cpp:151] Top shape: 20 128 10 10 (256000)
I0503 11:54:21.842694 20537 net.cpp:159] Memory required for data: 9760240
I0503 11:54:21.842702 20537 layer_factory.hpp:77] Creating layer relu3
I0503 11:54:21.842708 20537 net.cpp:94] Creating Layer relu3
I0503 11:54:21.842712 20537 net.cpp:435] relu3 <- conv3
I0503 11:54:21.842717 20537 net.cpp:396] relu3 -> conv3 (in-place)
I0503 11:54:21.842725 20537 net.cpp:144] Setting up relu3
I0503 11:54:21.842728 20537 net.cpp:151] Top shape: 20 128 10 10 (256000)
I0503 11:54:21.842731 20537 net.cpp:159] Memory required for data: 10784240
I0503 11:54:21.842736 20537 layer_factory.hpp:77] Creating layer conv4
I0503 11:54:21.842742 20537 net.cpp:94] Creating Layer conv4
I0503 11:54:21.842746 20537 net.cpp:435] conv4 <- conv3
I0503 11:54:21.842751 20537 net.cpp:409] conv4 -> conv4
I0503 11:54:21.856405 20537 net.cpp:144] Setting up conv4
I0503 11:54:21.856420 20537 net.cpp:151] Top shape: 20 128 10 10 (256000)
I0503 11:54:21.856423 20537 net.cpp:159] Memory required for data: 11808240
I0503 11:54:21.856429 20537 layer_factory.hpp:77] Creating layer relu4
I0503 11:54:21.856436 20537 net.cpp:94] Creating Layer relu4
I0503 11:54:21.856443 20537 net.cpp:435] relu4 <- conv4
I0503 11:54:21.856448 20537 net.cpp:396] relu4 -> conv4 (in-place)
I0503 11:54:21.856456 20537 net.cpp:144] Setting up relu4
I0503 11:54:21.856461 20537 net.cpp:151] Top shape: 20 128 10 10 (256000)
I0503 11:54:21.856463 20537 net.cpp:159] Memory required for data: 12832240
I0503 11:54:21.856467 20537 layer_factory.hpp:77] Creating layer conv5
I0503 11:54:21.856474 20537 net.cpp:94] Creating Layer conv5
I0503 11:54:21.856477 20537 net.cpp:435] conv5 <- conv4
I0503 11:54:21.856482 20537 net.cpp:409] conv5 -> conv5
I0503 11:54:21.869784 20537 net.cpp:144] Setting up conv5
I0503 11:54:21.869801 20537 net.cpp:151] Top shape: 20 128 10 10 (256000)
I0503 11:54:21.869804 20537 net.cpp:159] Memory required for data: 13856240
I0503 11:54:21.869813 20537 layer_factory.hpp:77] Creating layer relu5
I0503 11:54:21.869819 20537 net.cpp:94] Creating Layer relu5
I0503 11:54:21.869822 20537 net.cpp:435] relu5 <- conv5
I0503 11:54:21.869827 20537 net.cpp:396] relu5 -> conv5 (in-place)
I0503 11:54:21.869834 20537 net.cpp:144] Setting up relu5
I0503 11:54:21.869839 20537 net.cpp:151] Top shape: 20 128 10 10 (256000)
I0503 11:54:21.869843 20537 net.cpp:159] Memory required for data: 14880240
I0503 11:54:21.869845 20537 layer_factory.hpp:77] Creating layer pool5
I0503 11:54:21.869850 20537 net.cpp:94] Creating Layer pool5
I0503 11:54:21.869853 20537 net.cpp:435] pool5 <- conv5
I0503 11:54:21.869858 20537 net.cpp:409] pool5 -> pool5
I0503 11:54:21.869884 20537 net.cpp:144] Setting up pool5
I0503 11:54:21.869891 20537 net.cpp:151] Top shape: 20 128 5 5 (64000)
I0503 11:54:21.869894 20537 net.cpp:159] Memory required for data: 15136240
I0503 11:54:21.869897 20537 layer_factory.hpp:77] Creating layer ip1
I0503 11:54:21.869904 20537 net.cpp:94] Creating Layer ip1
I0503 11:54:21.869907 20537 net.cpp:435] ip1 <- pool5
I0503 11:54:21.869912 20537 net.cpp:409] ip1 -> ip1
I0503 11:54:21.952793 20537 net.cpp:144] Setting up ip1
I0503 11:54:21.952826 20537 net.cpp:151] Top shape: 20 1024 (20480)
I0503 11:54:21.952831 20537 net.cpp:159] Memory required for data: 15218160
I0503 11:54:21.952838 20537 layer_factory.hpp:77] Creating layer ip2
I0503 11:54:21.952848 20537 net.cpp:94] Creating Layer ip2
I0503 11:54:21.952852 20537 net.cpp:435] ip2 <- ip1
I0503 11:54:21.952858 20537 net.cpp:409] ip2 -> ip2
I0503 11:54:21.966436 20537 net.cpp:144] Setting up ip2
I0503 11:54:21.966450 20537 net.cpp:151] Top shape: 20 512 (10240)
I0503 11:54:21.966454 20537 net.cpp:159] Memory required for data: 15259120
I0503 11:54:21.966460 20537 layer_factory.hpp:77] Creating layer ip3
I0503 11:54:21.966470 20537 net.cpp:94] Creating Layer ip3
I0503 11:54:21.966473 20537 net.cpp:435] ip3 <- ip2
I0503 11:54:21.966480 20537 net.cpp:409] ip3 -> ip3
I0503 11:54:21.967193 20537 net.cpp:144] Setting up ip3
I0503 11:54:21.967201 20537 net.cpp:151] Top shape: 20 50 (1000)
I0503 11:54:21.967205 20537 net.cpp:159] Memory required for data: 15263120
I0503 11:54:21.967209 20537 layer_factory.hpp:77] Creating layer ip3_ip3_0_split
I0503 11:54:21.967216 20537 net.cpp:94] Creating Layer ip3_ip3_0_split
I0503 11:54:21.967218 20537 net.cpp:435] ip3_ip3_0_split <- ip3
I0503 11:54:21.967222 20537 net.cpp:409] ip3_ip3_0_split -> ip3_ip3_0_split_0
I0503 11:54:21.967228 20537 net.cpp:409] ip3_ip3_0_split -> ip3_ip3_0_split_1
I0503 11:54:21.967253 20537 net.cpp:144] Setting up ip3_ip3_0_split
I0503 11:54:21.967259 20537 net.cpp:151] Top shape: 20 50 (1000)
I0503 11:54:21.967263 20537 net.cpp:151] Top shape: 20 50 (1000)
I0503 11:54:21.967267 20537 net.cpp:159] Memory required for data: 15271120
I0503 11:54:21.967269 20537 layer_factory.hpp:77] Creating layer accuracy
I0503 11:54:21.967277 20537 net.cpp:94] Creating Layer accuracy
I0503 11:54:21.967279 20537 net.cpp:435] accuracy <- ip3_ip3_0_split_0
I0503 11:54:21.967283 20537 net.cpp:435] accuracy <- label_intercept_1_split_0
I0503 11:54:21.967288 20537 net.cpp:409] accuracy -> accuracy
…
