…
I0505 04:53:14.941293  3412 net.cpp:323] The NetState phase (0) differed from the phase (1) specified by a rule in layer intercept
I0505 04:53:14.941309  3412 net.cpp:323] The NetState phase (0) differed from the phase (1) specified by a rule in layer accuracy
I0505 04:53:14.941386  3412 net.cpp:52] Initializing net from parameters: 
state {
  phase: TRAIN
}
layer {
  name: "parameters"
  type: "HDF5Data"
  top: "data"
  top: "label"
  include {
    phase: TRAIN
  }
  hdf5_data_param {
    source: "/home/purduethu/scratch/radon/d/deng106/CNNStatisticalModel/distributions/input/50_distributions_400_sample_size_train-distributions-path.txt"
    batch_size: 20
  }
}
layer {
  name: "conv1"
  type: "Convolution"
  bottom: "data"
  top: "conv1"
  param {
    lr_mult: 1
  }
  param {
    lr_mult: 2
  }
  convolution_param {
    num_output: 64
    pad: 2
    kernel_size: 5
    stride: 1
    weight_filler {
      type: "gaussian"
      std: 0.0001
    }
    bias_filler {
      type: "constant"
    }
  }
}
layer {
  name: "relu1"
  type: "ReLU"
  bottom: "conv1"
  top: "conv1"
}
layer {
  name: "pool1"
  type: "Pooling"
  bottom: "conv1"
  top: "pool1"
  pooling_param {
    pool: MAX
    kernel_size: 3
    stride: 2
  }
}
layer {
  name: "conv2"
  type: "Convolution"
  bottom: "pool1"
  top: "conv2"
  param {
    lr_mult: 1
  }
  param {
    lr_mult: 2
  }
  convolution_param {
    num_output: 128
    pad: 2
    kernel_size: 5
    stride: 1
    weight_filler {
      type: "gaussian"
      std: 0.01
    }
    bias_filler {
      type: "constant"
    }
  }
}
layer {
  name: "relu2"
  type: "ReLU"
  bottom: "conv2"
  top: "conv2"
}
layer {
  name: "conv3"
  type: "Convolution"
  bottom: "conv2"
  top: "conv3"
  param {
    lr_mult: 1
  }
  param {
    lr_mult: 2
  }
  convolution_param {
    num_output: 128
    pad: 2
    kernel_size: 5
    stride: 1
    weight_filler {
      type: "gaussian"
      std: 0.01
    }
    bias_filler {
      type: "constant"
    }
  }
}
layer {
  name: "relu3"
  type: "ReLU"
  bottom: "conv3"
  top: "conv3"
}
layer {
  name: "pool3"
  type: "Pooling"
  bottom: "conv3"
  top: "pool3"
  pooling_param {
    pool: AVE
    kernel_size: 3
    stride: 2
  }
}
layer {
  name: "ip1"
  type: "InnerProduct"
  bottom: "pool3"
  top: "ip1"
  param {
    lr_mult: 1
  }
  param {
    lr_mult: 2
  }
  inner_product_param {
    num_output: 512
    weight_filler {
      type: "gaussian"
      std: 0.1
    }
    bias_filler {
      type: "constant"
    }
  }
}
layer {
  name: "ip2"
  type: "InnerProduct"
  bottom: "ip1"
  top: "ip2"
  param {
    lr_mult: 1
  }
  param {
    lr_mult: 2
  }
  inner_product_param {
    num_output: 256
    weight_filler {
      type: "gaussian"
      std: 0.1
    }
    bias_filler {
      type: "constant"
    }
  }
}
layer {
  name: "ip3"
  type: "InnerProduct"
  bottom: "ip2"
  top: "ip3"
  param {
    lr_mult: 1
  }
  param {
    lr_mult: 2
  }
  inner_product_param {
    num_output: 50
    weight_filler {
      type: "gaussian"
      std: 0.1
    }
    bias_filler {
      type: "constant"
    }
  }
}
layer {
  name: "loss"
  type: "SoftmaxWithLoss"
  bottom: "ip3"
  bottom: "label"
  top: "loss"
}
I0505 04:53:14.941448  3412 layer_factory.hpp:77] Creating layer parameters
I0505 04:53:14.941462  3412 net.cpp:94] Creating Layer parameters
I0505 04:53:14.941475  3412 net.cpp:409] parameters -> data
I0505 04:53:14.941495  3412 net.cpp:409] parameters -> label
I0505 04:53:14.941506  3412 hdf5_data_layer.cpp:79] Loading list of HDF5 filenames from: /home/purduethu/scratch/radon/d/deng106/CNNStatisticalModel/distributions/input/50_distributions_400_sample_size_train-distributions-path.txt
I0505 04:53:14.941527  3412 hdf5_data_layer.cpp:93] Number of HDF5 files: 1
I0505 04:53:14.942018  3412 hdf5.cpp:32] Datatype class: H5T_FLOAT
I0505 04:53:15.571190  3412 hdf5.cpp:35] Datatype class: H5T_INTEGER
I0505 04:53:15.573642  3412 net.cpp:144] Setting up parameters
I0505 04:53:15.573660  3412 net.cpp:151] Top shape: 20 1 20 20 (8000)
I0505 04:53:15.573665  3412 net.cpp:151] Top shape: 20 (20)
I0505 04:53:15.573669  3412 net.cpp:159] Memory required for data: 32080
I0505 04:53:15.573676  3412 layer_factory.hpp:77] Creating layer conv1
I0505 04:53:15.573700  3412 net.cpp:94] Creating Layer conv1
I0505 04:53:15.573706  3412 net.cpp:435] conv1 <- data
I0505 04:53:15.573717  3412 net.cpp:409] conv1 -> conv1
I0505 04:53:15.578325  3412 net.cpp:144] Setting up conv1
I0505 04:53:15.578341  3412 net.cpp:151] Top shape: 20 64 20 20 (512000)
I0505 04:53:15.578344  3412 net.cpp:159] Memory required for data: 2080080
I0505 04:53:15.578356  3412 layer_factory.hpp:77] Creating layer relu1
I0505 04:53:15.578363  3412 net.cpp:94] Creating Layer relu1
I0505 04:53:15.578367  3412 net.cpp:435] relu1 <- conv1
I0505 04:53:15.578372  3412 net.cpp:396] relu1 -> conv1 (in-place)
I0505 04:53:15.578389  3412 net.cpp:144] Setting up relu1
I0505 04:53:15.578394  3412 net.cpp:151] Top shape: 20 64 20 20 (512000)
I0505 04:53:15.578398  3412 net.cpp:159] Memory required for data: 4128080
I0505 04:53:15.578402  3412 layer_factory.hpp:77] Creating layer pool1
I0505 04:53:15.578409  3412 net.cpp:94] Creating Layer pool1
I0505 04:53:15.578413  3412 net.cpp:435] pool1 <- conv1
I0505 04:53:15.578416  3412 net.cpp:409] pool1 -> pool1
I0505 04:53:15.578455  3412 net.cpp:144] Setting up pool1
I0505 04:53:15.578462  3412 net.cpp:151] Top shape: 20 64 10 10 (128000)
I0505 04:53:15.578465  3412 net.cpp:159] Memory required for data: 4640080
I0505 04:53:15.578469  3412 layer_factory.hpp:77] Creating layer conv2
I0505 04:53:15.578477  3412 net.cpp:94] Creating Layer conv2
I0505 04:53:15.578481  3412 net.cpp:435] conv2 <- pool1
I0505 04:53:15.578486  3412 net.cpp:409] conv2 -> conv2
I0505 04:53:15.588474  3412 net.cpp:144] Setting up conv2
I0505 04:53:15.588490  3412 net.cpp:151] Top shape: 20 128 10 10 (256000)
I0505 04:53:15.588495  3412 net.cpp:159] Memory required for data: 5664080
I0505 04:53:15.588502  3412 layer_factory.hpp:77] Creating layer relu2
I0505 04:53:15.588508  3412 net.cpp:94] Creating Layer relu2
I0505 04:53:15.588512  3412 net.cpp:435] relu2 <- conv2
I0505 04:53:15.588517  3412 net.cpp:396] relu2 -> conv2 (in-place)
I0505 04:53:15.588524  3412 net.cpp:144] Setting up relu2
I0505 04:53:15.588528  3412 net.cpp:151] Top shape: 20 128 10 10 (256000)
I0505 04:53:15.588532  3412 net.cpp:159] Memory required for data: 6688080
I0505 04:53:15.588536  3412 layer_factory.hpp:77] Creating layer conv3
I0505 04:53:15.588542  3412 net.cpp:94] Creating Layer conv3
I0505 04:53:15.588546  3412 net.cpp:435] conv3 <- conv2
I0505 04:53:15.588560  3412 net.cpp:409] conv3 -> conv3
I0505 04:53:15.605425  3412 net.cpp:144] Setting up conv3
I0505 04:53:15.605440  3412 net.cpp:151] Top shape: 20 128 10 10 (256000)
I0505 04:53:15.605444  3412 net.cpp:159] Memory required for data: 7712080
I0505 04:53:15.605458  3412 layer_factory.hpp:77] Creating layer relu3
I0505 04:53:15.605465  3412 net.cpp:94] Creating Layer relu3
I0505 04:53:15.605469  3412 net.cpp:435] relu3 <- conv3
I0505 04:53:15.605473  3412 net.cpp:396] relu3 -> conv3 (in-place)
I0505 04:53:15.605480  3412 net.cpp:144] Setting up relu3
I0505 04:53:15.605485  3412 net.cpp:151] Top shape: 20 128 10 10 (256000)
I0505 04:53:15.605489  3412 net.cpp:159] Memory required for data: 8736080
I0505 04:53:15.605491  3412 layer_factory.hpp:77] Creating layer pool3
I0505 04:53:15.605497  3412 net.cpp:94] Creating Layer pool3
I0505 04:53:15.605507  3412 net.cpp:435] pool3 <- conv3
I0505 04:53:15.605512  3412 net.cpp:409] pool3 -> pool3
I0505 04:53:15.605546  3412 net.cpp:144] Setting up pool3
I0505 04:53:15.605553  3412 net.cpp:151] Top shape: 20 128 5 5 (64000)
I0505 04:53:15.605556  3412 net.cpp:159] Memory required for data: 8992080
I0505 04:53:15.605561  3412 layer_factory.hpp:77] Creating layer ip1
I0505 04:53:15.605571  3412 net.cpp:94] Creating Layer ip1
I0505 04:53:15.605573  3412 net.cpp:435] ip1 <- pool3
I0505 04:53:15.605578  3412 net.cpp:409] ip1 -> ip1
I0505 04:53:15.645043  3412 net.cpp:144] Setting up ip1
I0505 04:53:15.645059  3412 net.cpp:151] Top shape: 20 512 (10240)
I0505 04:53:15.645063  3412 net.cpp:159] Memory required for data: 9033040
I0505 04:53:15.645069  3412 layer_factory.hpp:77] Creating layer ip2
I0505 04:53:15.645076  3412 net.cpp:94] Creating Layer ip2
I0505 04:53:15.645079  3412 net.cpp:435] ip2 <- ip1
I0505 04:53:15.645086  3412 net.cpp:409] ip2 -> ip2
I0505 04:53:15.648177  3412 net.cpp:144] Setting up ip2
I0505 04:53:15.648185  3412 net.cpp:151] Top shape: 20 256 (5120)
I0505 04:53:15.648188  3412 net.cpp:159] Memory required for data: 9053520
I0505 04:53:15.648195  3412 layer_factory.hpp:77] Creating layer ip3
I0505 04:53:15.648201  3412 net.cpp:94] Creating Layer ip3
I0505 04:53:15.648205  3412 net.cpp:435] ip3 <- ip2
I0505 04:53:15.648210  3412 net.cpp:409] ip3 -> ip3
I0505 04:53:15.649229  3412 net.cpp:144] Setting up ip3
I0505 04:53:15.649242  3412 net.cpp:151] Top shape: 20 50 (1000)
I0505 04:53:15.649245  3412 net.cpp:159] Memory required for data: 9057520
I0505 04:53:15.649251  3412 layer_factory.hpp:77] Creating layer loss
I0505 04:53:15.649257  3412 net.cpp:94] Creating Layer loss
I0505 04:53:15.649261  3412 net.cpp:435] loss <- ip3
I0505 04:53:15.649266  3412 net.cpp:435] loss <- label
I0505 04:53:15.649271  3412 net.cpp:409] loss -> loss
I0505 04:53:15.649281  3412 layer_factory.hpp:77] Creating layer loss
…
I0505 04:53:15.649699  3412 solver.cpp:181] Creating test net (#0) specified by net file: ./protocol/dis_50_400_dimension.protocol_distribution
I0505 04:53:15.649724  3412 net.cpp:323] The NetState phase (1) differed from the phase (0) specified by a rule in layer parameters
I0505 04:53:15.649809  3412 net.cpp:52] Initializing net from parameters: 
state {
  phase: TEST
}
layer {
  name: "intercept"
  type: "HDF5Data"
  top: "data"
  top: "label"
  include {
    phase: TEST
  }
  hdf5_data_param {
    source: "/home/purduethu/scratch/radon/d/deng106/CNNStatisticalModel/distributions/input/50_distributions_400_sample_size_test-distributions-path.txt"
    batch_size: 20
  }
}
layer {
  name: "conv1"
  type: "Convolution"
  bottom: "data"
  top: "conv1"
  param {
    lr_mult: 1
  }
  param {
    lr_mult: 2
  }
  convolution_param {
    num_output: 64
    pad: 2
    kernel_size: 5
    stride: 1
    weight_filler {
      type: "gaussian"
      std: 0.0001
    }
    bias_filler {
      type: "constant"
    }
  }
}
layer {
  name: "relu1"
  type: "ReLU"
  bottom: "conv1"
  top: "conv1"
}
layer {
  name: "pool1"
  type: "Pooling"
  bottom: "conv1"
  top: "pool1"
  pooling_param {
    pool: MAX
    kernel_size: 3
    stride: 2
  }
}
layer {
  name: "conv2"
  type: "Convolution"
  bottom: "pool1"
  top: "conv2"
  param {
    lr_mult: 1
  }
  param {
    lr_mult: 2
  }
  convolution_param {
    num_output: 128
    pad: 2
    kernel_size: 5
    stride: 1
    weight_filler {
      type: "gaussian"
      std: 0.01
    }
    bias_filler {
      type: "constant"
    }
  }
}
layer {
  name: "relu2"
  type: "ReLU"
  bottom: "conv2"
  top: "conv2"
}
layer {
  name: "conv3"
  type: "Convolution"
  bottom: "conv2"
  top: "conv3"
  param {
    lr_mult: 1
  }
  param {
    lr_mult: 2
  }
  convolution_param {
    num_output: 128
    pad: 2
    kernel_size: 5
    stride: 1
    weight_filler {
      type: "gaussian"
      std: 0.01
    }
    bias_filler {
      type: "constant"
    }
  }
}
layer {
  name: "relu3"
  type: "ReLU"
  bottom: "conv3"
  top: "conv3"
}
layer {
  name: "pool3"
  type: "Pooling"
  bottom: "conv3"
  top: "pool3"
  pooling_param {
    pool: AVE
    kernel_size: 3
    stride: 2
  }
}
layer {
  name: "ip1"
  type: "InnerProduct"
  bottom: "pool3"
  top: "ip1"
  param {
    lr_mult: 1
  }
  param {
    lr_mult: 2
  }
  inner_product_param {
    num_output: 512
    weight_filler {
      type: "gaussian"
      std: 0.1
    }
    bias_filler {
      type: "constant"
    }
  }
}
layer {
  name: "ip2"
  type: "InnerProduct"
  bottom: "ip1"
  top: "ip2"
  param {
    lr_mult: 1
  }
  param {
    lr_mult: 2
  }
  inner_product_param {
    num_output: 256
    weight_filler {
      type: "gaussian"
      std: 0.1
    }
    bias_filler {
      type: "constant"
    }
  }
}
layer {
  name: "ip3"
  type: "InnerProduct"
  bottom: "ip2"
  top: "ip3"
  param {
    lr_mult: 1
  }
  param {
    lr_mult: 2
  }
  inner_product_param {
    num_output: 50
    weight_filler {
      type: "gaussian"
      std: 0.1
    }
    bias_filler {
      type: "constant"
    }
  }
}
layer {
  name: "accuracy"
  type: "Accuracy"
  bottom: "ip3"
  bottom: "label"
  top: "accuracy"
  include {
    phase: TEST
  }
}
layer {
  name: "loss"
  type: "SoftmaxWithLoss"
  bottom: "ip3"
  bottom: "label"
  top: "loss"
}
I0505 04:53:15.649871  3412 layer_factory.hpp:77] Creating layer intercept
I0505 04:53:15.649878  3412 net.cpp:94] Creating Layer intercept
I0505 04:53:15.649883  3412 net.cpp:409] intercept -> data
I0505 04:53:15.649889  3412 net.cpp:409] intercept -> label
I0505 04:53:15.649895  3412 hdf5_data_layer.cpp:79] Loading list of HDF5 filenames from: /home/purduethu/scratch/radon/d/deng106/CNNStatisticalModel/distributions/input/50_distributions_400_sample_size_test-distributions-path.txt
I0505 04:53:15.649914  3412 hdf5_data_layer.cpp:93] Number of HDF5 files: 1
I0505 04:53:15.815575  3412 net.cpp:144] Setting up intercept
I0505 04:53:15.815609  3412 net.cpp:151] Top shape: 20 1 20 20 (8000)
I0505 04:53:15.815615  3412 net.cpp:151] Top shape: 20 (20)
I0505 04:53:15.815618  3412 net.cpp:159] Memory required for data: 32080
I0505 04:53:15.815624  3412 layer_factory.hpp:77] Creating layer label_intercept_1_split
I0505 04:53:15.815652  3412 net.cpp:94] Creating Layer label_intercept_1_split
I0505 04:53:15.815659  3412 net.cpp:435] label_intercept_1_split <- label
I0505 04:53:15.815663  3412 net.cpp:409] label_intercept_1_split -> label_intercept_1_split_0
I0505 04:53:15.815672  3412 net.cpp:409] label_intercept_1_split -> label_intercept_1_split_1
I0505 04:53:15.815698  3412 net.cpp:144] Setting up label_intercept_1_split
I0505 04:53:15.815704  3412 net.cpp:151] Top shape: 20 (20)
I0505 04:53:15.815708  3412 net.cpp:151] Top shape: 20 (20)
I0505 04:53:15.815711  3412 net.cpp:159] Memory required for data: 32240
I0505 04:53:15.815723  3412 layer_factory.hpp:77] Creating layer conv1
I0505 04:53:15.815733  3412 net.cpp:94] Creating Layer conv1
I0505 04:53:15.815737  3412 net.cpp:435] conv1 <- data
I0505 04:53:15.815742  3412 net.cpp:409] conv1 -> conv1
I0505 04:53:15.816391  3412 net.cpp:144] Setting up conv1
I0505 04:53:15.816404  3412 net.cpp:151] Top shape: 20 64 20 20 (512000)
I0505 04:53:15.816407  3412 net.cpp:159] Memory required for data: 2080240
I0505 04:53:15.816417  3412 layer_factory.hpp:77] Creating layer relu1
I0505 04:53:15.816424  3412 net.cpp:94] Creating Layer relu1
I0505 04:53:15.816428  3412 net.cpp:435] relu1 <- conv1
I0505 04:53:15.816432  3412 net.cpp:396] relu1 -> conv1 (in-place)
I0505 04:53:15.816440  3412 net.cpp:144] Setting up relu1
I0505 04:53:15.816444  3412 net.cpp:151] Top shape: 20 64 20 20 (512000)
I0505 04:53:15.816447  3412 net.cpp:159] Memory required for data: 4128240
I0505 04:53:15.816450  3412 layer_factory.hpp:77] Creating layer pool1
I0505 04:53:15.816457  3412 net.cpp:94] Creating Layer pool1
I0505 04:53:15.816462  3412 net.cpp:435] pool1 <- conv1
I0505 04:53:15.816465  3412 net.cpp:409] pool1 -> pool1
I0505 04:53:15.816496  3412 net.cpp:144] Setting up pool1
I0505 04:53:15.816503  3412 net.cpp:151] Top shape: 20 64 10 10 (128000)
I0505 04:53:15.816506  3412 net.cpp:159] Memory required for data: 4640240
I0505 04:53:15.816509  3412 layer_factory.hpp:77] Creating layer conv2
I0505 04:53:15.816517  3412 net.cpp:94] Creating Layer conv2
I0505 04:53:15.816520  3412 net.cpp:435] conv2 <- pool1
I0505 04:53:15.816525  3412 net.cpp:409] conv2 -> conv2
I0505 04:53:15.823881  3412 net.cpp:144] Setting up conv2
I0505 04:53:15.823895  3412 net.cpp:151] Top shape: 20 128 10 10 (256000)
I0505 04:53:15.823899  3412 net.cpp:159] Memory required for data: 5664240
I0505 04:53:15.823907  3412 layer_factory.hpp:77] Creating layer relu2
I0505 04:53:15.823914  3412 net.cpp:94] Creating Layer relu2
I0505 04:53:15.823917  3412 net.cpp:435] relu2 <- conv2
I0505 04:53:15.823922  3412 net.cpp:396] relu2 -> conv2 (in-place)
I0505 04:53:15.823930  3412 net.cpp:144] Setting up relu2
I0505 04:53:15.823933  3412 net.cpp:151] Top shape: 20 128 10 10 (256000)
I0505 04:53:15.823936  3412 net.cpp:159] Memory required for data: 6688240
I0505 04:53:15.823940  3412 layer_factory.hpp:77] Creating layer conv3
I0505 04:53:15.823947  3412 net.cpp:94] Creating Layer conv3
I0505 04:53:15.823951  3412 net.cpp:435] conv3 <- conv2
I0505 04:53:15.823956  3412 net.cpp:409] conv3 -> conv3
I0505 04:53:15.837172  3412 net.cpp:144] Setting up conv3
I0505 04:53:15.837188  3412 net.cpp:151] Top shape: 20 128 10 10 (256000)
I0505 04:53:15.837193  3412 net.cpp:159] Memory required for data: 7712240
I0505 04:53:15.837200  3412 layer_factory.hpp:77] Creating layer relu3
I0505 04:53:15.837208  3412 net.cpp:94] Creating Layer relu3
I0505 04:53:15.837211  3412 net.cpp:435] relu3 <- conv3
I0505 04:53:15.837216  3412 net.cpp:396] relu3 -> conv3 (in-place)
I0505 04:53:15.837224  3412 net.cpp:144] Setting up relu3
I0505 04:53:15.837227  3412 net.cpp:151] Top shape: 20 128 10 10 (256000)
I0505 04:53:15.837230  3412 net.cpp:159] Memory required for data: 8736240
I0505 04:53:15.837234  3412 layer_factory.hpp:77] Creating layer pool3
I0505 04:53:15.837239  3412 net.cpp:94] Creating Layer pool3
I0505 04:53:15.837241  3412 net.cpp:435] pool3 <- conv3
I0505 04:53:15.837246  3412 net.cpp:409] pool3 -> pool3
I0505 04:53:15.837272  3412 net.cpp:144] Setting up pool3
I0505 04:53:15.837282  3412 net.cpp:151] Top shape: 20 128 5 5 (64000)
I0505 04:53:15.837286  3412 net.cpp:159] Memory required for data: 8992240
I0505 04:53:15.837290  3412 layer_factory.hpp:77] Creating layer ip1
I0505 04:53:15.837296  3412 net.cpp:94] Creating Layer ip1
I0505 04:53:15.837301  3412 net.cpp:435] ip1 <- pool3
I0505 04:53:15.837304  3412 net.cpp:409] ip1 -> ip1
I0505 04:53:15.877434  3412 net.cpp:144] Setting up ip1
I0505 04:53:15.877449  3412 net.cpp:151] Top shape: 20 512 (10240)
I0505 04:53:15.877454  3412 net.cpp:159] Memory required for data: 9033200
I0505 04:53:15.877467  3412 layer_factory.hpp:77] Creating layer ip2
I0505 04:53:15.877475  3412 net.cpp:94] Creating Layer ip2
I0505 04:53:15.877478  3412 net.cpp:435] ip2 <- ip1
I0505 04:53:15.877483  3412 net.cpp:409] ip2 -> ip2
I0505 04:53:15.880628  3412 net.cpp:144] Setting up ip2
I0505 04:53:15.880636  3412 net.cpp:151] Top shape: 20 256 (5120)
I0505 04:53:15.880640  3412 net.cpp:159] Memory required for data: 9053680
I0505 04:53:15.880647  3412 layer_factory.hpp:77] Creating layer ip3
I0505 04:53:15.880653  3412 net.cpp:94] Creating Layer ip3
I0505 04:53:15.880656  3412 net.cpp:435] ip3 <- ip2
I0505 04:53:15.880661  3412 net.cpp:409] ip3 -> ip3
I0505 04:53:15.881032  3412 net.cpp:144] Setting up ip3
I0505 04:53:15.881039  3412 net.cpp:151] Top shape: 20 50 (1000)
I0505 04:53:15.881042  3412 net.cpp:159] Memory required for data: 9057680
I0505 04:53:15.881047  3412 layer_factory.hpp:77] Creating layer ip3_ip3_0_split
I0505 04:53:15.881052  3412 net.cpp:94] Creating Layer ip3_ip3_0_split
I0505 04:53:15.881055  3412 net.cpp:435] ip3_ip3_0_split <- ip3
I0505 04:53:15.881060  3412 net.cpp:409] ip3_ip3_0_split -> ip3_ip3_0_split_0
I0505 04:53:15.881065  3412 net.cpp:409] ip3_ip3_0_split -> ip3_ip3_0_split_1
I0505 04:53:15.881088  3412 net.cpp:144] Setting up ip3_ip3_0_split
I0505 04:53:15.881093  3412 net.cpp:151] Top shape: 20 50 (1000)
I0505 04:53:15.881098  3412 net.cpp:151] Top shape: 20 50 (1000)
I0505 04:53:15.881100  3412 net.cpp:159] Memory required for data: 9065680
I0505 04:53:15.881103  3412 layer_factory.hpp:77] Creating layer accuracy
I0505 04:53:15.881109  3412 net.cpp:94] Creating Layer accuracy
I0505 04:53:15.881112  3412 net.cpp:435] accuracy <- ip3_ip3_0_split_0
I0505 04:53:15.881116  3412 net.cpp:435] accuracy <- label_intercept_1_split_0
I0505 04:53:15.881121  3412 net.cpp:409] accuracy -> accuracy
…
