…
I0505 00:01:53.458616  1031 net.cpp:323] The NetState phase (0) differed from the phase (1) specified by a rule in layer intercept
I0505 00:01:53.458631  1031 net.cpp:323] The NetState phase (0) differed from the phase (1) specified by a rule in layer loss
I0505 00:01:53.458708  1031 net.cpp:52] Initializing net from parameters: 
state {
  phase: TRAIN
}
layer {
  name: "parameters"
  type: "HDF5Data"
  top: "data"
  top: "label"
  include {
    phase: TRAIN
  }
  hdf5_data_param {
    source: "/home/purduethu/scratch/radon/d/deng106/CNNStatisticalModel/distributions/input/20_distributions_400_sample_size_train-parameters-path.txt"
    batch_size: 20
  }
}
layer {
  name: "conv1"
  type: "Convolution"
  bottom: "data"
  top: "conv1"
  param {
    lr_mult: 1
  }
  param {
    lr_mult: 2
  }
  convolution_param {
    num_output: 64
    pad: 2
    kernel_size: 5
    stride: 1
    weight_filler {
      type: "gaussian"
      std: 0.0001
    }
    bias_filler {
      type: "constant"
    }
  }
}
layer {
  name: "relu1"
  type: "ReLU"
  bottom: "conv1"
  top: "conv1"
}
layer {
  name: "pool1"
  type: "Pooling"
  bottom: "conv1"
  top: "pool1"
  pooling_param {
    pool: MAX
    kernel_size: 3
    stride: 2
  }
}
layer {
  name: "conv2"
  type: "Convolution"
  bottom: "pool1"
  top: "conv2"
  param {
    lr_mult: 1
  }
  param {
    lr_mult: 2
  }
  convolution_param {
    num_output: 128
    pad: 2
    kernel_size: 5
    stride: 1
    weight_filler {
      type: "gaussian"
      std: 0.01
    }
    bias_filler {
      type: "constant"
    }
  }
}
layer {
  name: "relu2"
  type: "ReLU"
  bottom: "conv2"
  top: "conv2"
}
layer {
  name: "conv3"
  type: "Convolution"
  bottom: "conv2"
  top: "conv3"
  param {
    lr_mult: 1
  }
  param {
    lr_mult: 2
  }
  convolution_param {
    num_output: 128
    pad: 2
    kernel_size: 5
    stride: 1
    weight_filler {
      type: "gaussian"
      std: 0.01
    }
    bias_filler {
      type: "constant"
    }
  }
}
layer {
  name: "relu3"
  type: "ReLU"
  bottom: "conv3"
  top: "conv3"
}
layer {
  name: "pool3"
  type: "Pooling"
  bottom: "conv3"
  top: "pool3"
  pooling_param {
    pool: AVE
    kernel_size: 3
    stride: 2
  }
}
layer {
  name: "ip1"
  type: "InnerProduct"
  bottom: "pool3"
  top: "ip1"
  param {
    lr_mult: 1
  }
  param {
    lr_mult: 2
  }
  inner_product_param {
    num_output: 512
    weight_filler {
      type: "gaussian"
      std: 0.1
    }
    bias_filler {
      type: "constant"
    }
  }
}
layer {
  name: "ip2"
  type: "InnerProduct"
  bottom: "ip1"
  top: "ip2"
  param {
    lr_mult: 1
  }
  param {
    lr_mult: 2
  }
  inner_product_param {
    num_output: 256
    weight_filler {
      type: "gaussian"
      std: 0.1
    }
    bias_filler {
      type: "constant"
    }
  }
}
layer {
  name: "ip3"
  type: "InnerProduct"
  bottom: "ip2"
  top: "ip3"
  param {
    lr_mult: 1
  }
  param {
    lr_mult: 2
  }
  inner_product_param {
    num_output: 1
    weight_filler {
      type: "gaussian"
      std: 0.1
    }
    bias_filler {
      type: "constant"
    }
  }
}
layer {
  name: "loss"
  type: "HuberLoss"
  bottom: "ip3"
  bottom: "label"
  top: "loss"
  include {
    phase: TRAIN
  }
}
I0505 00:01:53.458770  1031 layer_factory.hpp:77] Creating layer parameters
I0505 00:01:53.458788  1031 net.cpp:94] Creating Layer parameters
I0505 00:01:53.458802  1031 net.cpp:409] parameters -> data
I0505 00:01:53.458822  1031 net.cpp:409] parameters -> label
I0505 00:01:53.458832  1031 hdf5_data_layer.cpp:79] Loading list of HDF5 filenames from: /home/purduethu/scratch/radon/d/deng106/CNNStatisticalModel/distributions/input/20_distributions_400_sample_size_train-parameters-path.txt
I0505 00:01:53.458854  1031 hdf5_data_layer.cpp:93] Number of HDF5 files: 1
I0505 00:01:53.459322  1031 hdf5.cpp:32] Datatype class: H5T_FLOAT
I0505 00:01:53.720228  1031 net.cpp:144] Setting up parameters
I0505 00:01:53.720262  1031 net.cpp:151] Top shape: 20 1 20 20 (8000)
I0505 00:01:53.720268  1031 net.cpp:151] Top shape: 20 (20)
I0505 00:01:53.720271  1031 net.cpp:159] Memory required for data: 32080
I0505 00:01:53.720279  1031 layer_factory.hpp:77] Creating layer conv1
I0505 00:01:53.720299  1031 net.cpp:94] Creating Layer conv1
I0505 00:01:53.720304  1031 net.cpp:435] conv1 <- data
I0505 00:01:53.720316  1031 net.cpp:409] conv1 -> conv1
I0505 00:01:53.725215  1031 net.cpp:144] Setting up conv1
I0505 00:01:53.725235  1031 net.cpp:151] Top shape: 20 64 20 20 (512000)
I0505 00:01:53.725240  1031 net.cpp:159] Memory required for data: 2080080
I0505 00:01:53.725252  1031 layer_factory.hpp:77] Creating layer relu1
I0505 00:01:53.725261  1031 net.cpp:94] Creating Layer relu1
I0505 00:01:53.725265  1031 net.cpp:435] relu1 <- conv1
I0505 00:01:53.725270  1031 net.cpp:396] relu1 -> conv1 (in-place)
I0505 00:01:53.725286  1031 net.cpp:144] Setting up relu1
I0505 00:01:53.725291  1031 net.cpp:151] Top shape: 20 64 20 20 (512000)
I0505 00:01:53.725293  1031 net.cpp:159] Memory required for data: 4128080
I0505 00:01:53.725296  1031 layer_factory.hpp:77] Creating layer pool1
I0505 00:01:53.725303  1031 net.cpp:94] Creating Layer pool1
I0505 00:01:53.725307  1031 net.cpp:435] pool1 <- conv1
I0505 00:01:53.725311  1031 net.cpp:409] pool1 -> pool1
I0505 00:01:53.725353  1031 net.cpp:144] Setting up pool1
I0505 00:01:53.725359  1031 net.cpp:151] Top shape: 20 64 10 10 (128000)
I0505 00:01:53.725363  1031 net.cpp:159] Memory required for data: 4640080
I0505 00:01:53.725365  1031 layer_factory.hpp:77] Creating layer conv2
I0505 00:01:53.725374  1031 net.cpp:94] Creating Layer conv2
I0505 00:01:53.725378  1031 net.cpp:435] conv2 <- pool1
I0505 00:01:53.725383  1031 net.cpp:409] conv2 -> conv2
I0505 00:01:53.734828  1031 net.cpp:144] Setting up conv2
I0505 00:01:53.734849  1031 net.cpp:151] Top shape: 20 128 10 10 (256000)
I0505 00:01:53.734853  1031 net.cpp:159] Memory required for data: 5664080
I0505 00:01:53.734863  1031 layer_factory.hpp:77] Creating layer relu2
I0505 00:01:53.734869  1031 net.cpp:94] Creating Layer relu2
I0505 00:01:53.734874  1031 net.cpp:435] relu2 <- conv2
I0505 00:01:53.734879  1031 net.cpp:396] relu2 -> conv2 (in-place)
I0505 00:01:53.734885  1031 net.cpp:144] Setting up relu2
I0505 00:01:53.734890  1031 net.cpp:151] Top shape: 20 128 10 10 (256000)
I0505 00:01:53.734894  1031 net.cpp:159] Memory required for data: 6688080
I0505 00:01:53.734896  1031 layer_factory.hpp:77] Creating layer conv3
I0505 00:01:53.734905  1031 net.cpp:94] Creating Layer conv3
I0505 00:01:53.734908  1031 net.cpp:435] conv3 <- conv2
I0505 00:01:53.734913  1031 net.cpp:409] conv3 -> conv3
I0505 00:01:53.752143  1031 net.cpp:144] Setting up conv3
I0505 00:01:53.752188  1031 net.cpp:151] Top shape: 20 128 10 10 (256000)
I0505 00:01:53.752197  1031 net.cpp:159] Memory required for data: 7712080
I0505 00:01:53.752218  1031 layer_factory.hpp:77] Creating layer relu3
I0505 00:01:53.752233  1031 net.cpp:94] Creating Layer relu3
I0505 00:01:53.752250  1031 net.cpp:435] relu3 <- conv3
I0505 00:01:53.752261  1031 net.cpp:396] relu3 -> conv3 (in-place)
I0505 00:01:53.752279  1031 net.cpp:144] Setting up relu3
I0505 00:01:53.752288  1031 net.cpp:151] Top shape: 20 128 10 10 (256000)
I0505 00:01:53.752295  1031 net.cpp:159] Memory required for data: 8736080
I0505 00:01:53.752300  1031 layer_factory.hpp:77] Creating layer pool3
I0505 00:01:53.752313  1031 net.cpp:94] Creating Layer pool3
I0505 00:01:53.752321  1031 net.cpp:435] pool3 <- conv3
I0505 00:01:53.752343  1031 net.cpp:409] pool3 -> pool3
I0505 00:01:53.752418  1031 net.cpp:144] Setting up pool3
I0505 00:01:53.752430  1031 net.cpp:151] Top shape: 20 128 5 5 (64000)
I0505 00:01:53.752436  1031 net.cpp:159] Memory required for data: 8992080
I0505 00:01:53.752444  1031 layer_factory.hpp:77] Creating layer ip1
I0505 00:01:53.752460  1031 net.cpp:94] Creating Layer ip1
I0505 00:01:53.752468  1031 net.cpp:435] ip1 <- pool3
I0505 00:01:53.752477  1031 net.cpp:409] ip1 -> ip1
I0505 00:01:53.843400  1031 net.cpp:144] Setting up ip1
I0505 00:01:53.843446  1031 net.cpp:151] Top shape: 20 512 (10240)
I0505 00:01:53.843454  1031 net.cpp:159] Memory required for data: 9033040
I0505 00:01:53.843467  1031 layer_factory.hpp:77] Creating layer ip2
I0505 00:01:53.843482  1031 net.cpp:94] Creating Layer ip2
I0505 00:01:53.843490  1031 net.cpp:435] ip2 <- ip1
I0505 00:01:53.843502  1031 net.cpp:409] ip2 -> ip2
I0505 00:01:53.849202  1031 net.cpp:144] Setting up ip2
I0505 00:01:53.849216  1031 net.cpp:151] Top shape: 20 256 (5120)
I0505 00:01:53.849222  1031 net.cpp:159] Memory required for data: 9053520
I0505 00:01:53.849236  1031 layer_factory.hpp:77] Creating layer ip3
I0505 00:01:53.849244  1031 net.cpp:94] Creating Layer ip3
I0505 00:01:53.849251  1031 net.cpp:435] ip3 <- ip2
I0505 00:01:53.849258  1031 net.cpp:409] ip3 -> ip3
I0505 00:01:53.849370  1031 net.cpp:144] Setting up ip3
I0505 00:01:53.849378  1031 net.cpp:151] Top shape: 20 1 (20)
I0505 00:01:53.849385  1031 net.cpp:159] Memory required for data: 9053600
I0505 00:01:53.849391  1031 layer_factory.hpp:77] Creating layer loss
I0505 00:01:53.849411  1031 net.cpp:94] Creating Layer loss
I0505 00:01:53.849417  1031 net.cpp:435] loss <- ip3
I0505 00:01:53.849424  1031 net.cpp:435] loss <- label
I0505 00:01:53.849433  1031 net.cpp:409] loss -> loss
I0505 00:01:53.849488  1031 net.cpp:144] Setting up loss
…
