…
I0505 08:06:26.138365  5188 net.cpp:323] The NetState phase (0) differed from the phase (1) specified by a rule in layer intercept
I0505 08:06:26.138381  5188 net.cpp:323] The NetState phase (0) differed from the phase (1) specified by a rule in layer loss
I0505 08:06:26.138459  5188 net.cpp:52] Initializing net from parameters: 
state {
  phase: TRAIN
}
layer {
  name: "parameters"
  type: "HDF5Data"
  top: "data"
  top: "label"
  include {
    phase: TRAIN
  }
  hdf5_data_param {
    source: "/home/purduethu/scratch/radon/d/deng106/CNNStatisticalModel/distributions/input/5_distributions_100_sample_size_train-parameters-path.txt"
    batch_size: 20
  }
}
layer {
  name: "conv1"
  type: "Convolution"
  bottom: "data"
  top: "conv1"
  param {
    lr_mult: 1
  }
  param {
    lr_mult: 2
  }
  convolution_param {
    num_output: 64
    pad: 2
    kernel_size: 5
    stride: 1
    weight_filler {
      type: "gaussian"
      std: 0.0001
    }
    bias_filler {
      type: "constant"
    }
  }
}
layer {
  name: "relu1"
  type: "ReLU"
  bottom: "conv1"
  top: "conv1"
}
layer {
  name: "pool1"
  type: "Pooling"
  bottom: "conv1"
  top: "pool1"
  pooling_param {
    pool: MAX
    kernel_size: 3
    stride: 2
  }
}
layer {
  name: "conv2"
  type: "Convolution"
  bottom: "pool1"
  top: "conv2"
  param {
    lr_mult: 1
  }
  param {
    lr_mult: 2
  }
  convolution_param {
    num_output: 128
    pad: 2
    kernel_size: 5
    stride: 1
    weight_filler {
      type: "gaussian"
      std: 0.01
    }
    bias_filler {
      type: "constant"
    }
  }
}
layer {
  name: "relu2"
  type: "ReLU"
  bottom: "conv2"
  top: "conv2"
}
layer {
  name: "conv3"
  type: "Convolution"
  bottom: "conv2"
  top: "conv3"
  param {
    lr_mult: 1
  }
  param {
    lr_mult: 2
  }
  convolution_param {
    num_output: 128
    pad: 2
    kernel_size: 5
    stride: 1
    weight_filler {
      type: "gaussian"
      std: 0.01
    }
    bias_filler {
      type: "constant"
    }
  }
}
layer {
  name: "relu3"
  type: "ReLU"
  bottom: "conv3"
  top: "conv3"
}
layer {
  name: "pool3"
  type: "Pooling"
  bottom: "conv3"
  top: "pool3"
  pooling_param {
    pool: AVE
    kernel_size: 3
    stride: 2
  }
}
layer {
  name: "ip1"
  type: "InnerProduct"
  bottom: "pool3"
  top: "ip1"
  param {
    lr_mult: 1
  }
  param {
    lr_mult: 2
  }
  inner_product_param {
    num_output: 512
    weight_filler {
      type: "gaussian"
      std: 0.1
    }
    bias_filler {
      type: "constant"
    }
  }
}
layer {
  name: "ip2"
  type: "InnerProduct"
  bottom: "ip1"
  top: "ip2"
  param {
    lr_mult: 1
  }
  param {
    lr_mult: 2
  }
  inner_product_param {
    num_output: 256
    weight_filler {
      type: "gaussian"
      std: 0.1
    }
    bias_filler {
      type: "constant"
    }
  }
}
layer {
  name: "ip3"
  type: "InnerProduct"
  bottom: "ip2"
  top: "ip3"
  param {
    lr_mult: 1
  }
  param {
    lr_mult: 2
  }
  inner_product_param {
    num_output: 1
    weight_filler {
      type: "gaussian"
      std: 0.1
    }
    bias_filler {
      type: "constant"
    }
  }
}
layer {
  name: "loss"
  type: "HuberLoss"
  bottom: "ip3"
  bottom: "label"
  top: "loss"
  include {
    phase: TRAIN
  }
}
I0505 08:06:26.138523  5188 layer_factory.hpp:77] Creating layer parameters
I0505 08:06:26.138538  5188 net.cpp:94] Creating Layer parameters
I0505 08:06:26.138550  5188 net.cpp:409] parameters -> data
I0505 08:06:26.138571  5188 net.cpp:409] parameters -> label
I0505 08:06:26.138581  5188 hdf5_data_layer.cpp:79] Loading list of HDF5 filenames from: /home/purduethu/scratch/radon/d/deng106/CNNStatisticalModel/distributions/input/5_distributions_100_sample_size_train-parameters-path.txt
I0505 08:06:26.138602  5188 hdf5_data_layer.cpp:93] Number of HDF5 files: 1
I0505 08:06:26.139102  5188 hdf5.cpp:32] Datatype class: H5T_FLOAT
I0505 08:06:26.156242  5188 net.cpp:144] Setting up parameters
I0505 08:06:26.156276  5188 net.cpp:151] Top shape: 20 1 10 10 (2000)
I0505 08:06:26.156282  5188 net.cpp:151] Top shape: 20 (20)
I0505 08:06:26.156286  5188 net.cpp:159] Memory required for data: 8080
I0505 08:06:26.156293  5188 layer_factory.hpp:77] Creating layer conv1
I0505 08:06:26.156316  5188 net.cpp:94] Creating Layer conv1
I0505 08:06:26.156322  5188 net.cpp:435] conv1 <- data
I0505 08:06:26.156334  5188 net.cpp:409] conv1 -> conv1
I0505 08:06:26.160132  5188 net.cpp:144] Setting up conv1
I0505 08:06:26.160148  5188 net.cpp:151] Top shape: 20 64 10 10 (128000)
I0505 08:06:26.160152  5188 net.cpp:159] Memory required for data: 520080
I0505 08:06:26.160164  5188 layer_factory.hpp:77] Creating layer relu1
I0505 08:06:26.160172  5188 net.cpp:94] Creating Layer relu1
I0505 08:06:26.160176  5188 net.cpp:435] relu1 <- conv1
I0505 08:06:26.160181  5188 net.cpp:396] relu1 -> conv1 (in-place)
I0505 08:06:26.160197  5188 net.cpp:144] Setting up relu1
I0505 08:06:26.160202  5188 net.cpp:151] Top shape: 20 64 10 10 (128000)
I0505 08:06:26.160204  5188 net.cpp:159] Memory required for data: 1032080
I0505 08:06:26.160207  5188 layer_factory.hpp:77] Creating layer pool1
I0505 08:06:26.160215  5188 net.cpp:94] Creating Layer pool1
I0505 08:06:26.160218  5188 net.cpp:435] pool1 <- conv1
I0505 08:06:26.160223  5188 net.cpp:409] pool1 -> pool1
I0505 08:06:26.160267  5188 net.cpp:144] Setting up pool1
I0505 08:06:26.160274  5188 net.cpp:151] Top shape: 20 64 5 5 (32000)
I0505 08:06:26.160277  5188 net.cpp:159] Memory required for data: 1160080
I0505 08:06:26.160280  5188 layer_factory.hpp:77] Creating layer conv2
I0505 08:06:26.160290  5188 net.cpp:94] Creating Layer conv2
I0505 08:06:26.160293  5188 net.cpp:435] conv2 <- pool1
I0505 08:06:26.160298  5188 net.cpp:409] conv2 -> conv2
I0505 08:06:26.169060  5188 net.cpp:144] Setting up conv2
I0505 08:06:26.169075  5188 net.cpp:151] Top shape: 20 128 5 5 (64000)
I0505 08:06:26.169080  5188 net.cpp:159] Memory required for data: 1416080
I0505 08:06:26.169087  5188 layer_factory.hpp:77] Creating layer relu2
I0505 08:06:26.169093  5188 net.cpp:94] Creating Layer relu2
I0505 08:06:26.169097  5188 net.cpp:435] relu2 <- conv2
I0505 08:06:26.169102  5188 net.cpp:396] relu2 -> conv2 (in-place)
I0505 08:06:26.169109  5188 net.cpp:144] Setting up relu2
I0505 08:06:26.169114  5188 net.cpp:151] Top shape: 20 128 5 5 (64000)
I0505 08:06:26.169117  5188 net.cpp:159] Memory required for data: 1672080
I0505 08:06:26.169121  5188 layer_factory.hpp:77] Creating layer conv3
I0505 08:06:26.169128  5188 net.cpp:94] Creating Layer conv3
I0505 08:06:26.169132  5188 net.cpp:435] conv3 <- conv2
I0505 08:06:26.169137  5188 net.cpp:409] conv3 -> conv3
I0505 08:06:26.183954  5188 net.cpp:144] Setting up conv3
I0505 08:06:26.183969  5188 net.cpp:151] Top shape: 20 128 5 5 (64000)
I0505 08:06:26.183974  5188 net.cpp:159] Memory required for data: 1928080
I0505 08:06:26.183982  5188 layer_factory.hpp:77] Creating layer relu3
I0505 08:06:26.183989  5188 net.cpp:94] Creating Layer relu3
I0505 08:06:26.183997  5188 net.cpp:435] relu3 <- conv3
I0505 08:06:26.184003  5188 net.cpp:396] relu3 -> conv3 (in-place)
I0505 08:06:26.184010  5188 net.cpp:144] Setting up relu3
I0505 08:06:26.184015  5188 net.cpp:151] Top shape: 20 128 5 5 (64000)
I0505 08:06:26.184018  5188 net.cpp:159] Memory required for data: 2184080
I0505 08:06:26.184021  5188 layer_factory.hpp:77] Creating layer pool3
I0505 08:06:26.184027  5188 net.cpp:94] Creating Layer pool3
I0505 08:06:26.184031  5188 net.cpp:435] pool3 <- conv3
I0505 08:06:26.184043  5188 net.cpp:409] pool3 -> pool3
I0505 08:06:26.184077  5188 net.cpp:144] Setting up pool3
I0505 08:06:26.184083  5188 net.cpp:151] Top shape: 20 128 2 2 (10240)
I0505 08:06:26.184087  5188 net.cpp:159] Memory required for data: 2225040
I0505 08:06:26.184089  5188 layer_factory.hpp:77] Creating layer ip1
I0505 08:06:26.184099  5188 net.cpp:94] Creating Layer ip1
I0505 08:06:26.184103  5188 net.cpp:435] ip1 <- pool3
I0505 08:06:26.184108  5188 net.cpp:409] ip1 -> ip1
I0505 08:06:26.191192  5188 net.cpp:144] Setting up ip1
I0505 08:06:26.191206  5188 net.cpp:151] Top shape: 20 512 (10240)
I0505 08:06:26.191210  5188 net.cpp:159] Memory required for data: 2266000
I0505 08:06:26.191216  5188 layer_factory.hpp:77] Creating layer ip2
I0505 08:06:26.191223  5188 net.cpp:94] Creating Layer ip2
I0505 08:06:26.191227  5188 net.cpp:435] ip2 <- ip1
I0505 08:06:26.191232  5188 net.cpp:409] ip2 -> ip2
I0505 08:06:26.195114  5188 net.cpp:144] Setting up ip2
I0505 08:06:26.195127  5188 net.cpp:151] Top shape: 20 256 (5120)
I0505 08:06:26.195132  5188 net.cpp:159] Memory required for data: 2286480
I0505 08:06:26.195140  5188 layer_factory.hpp:77] Creating layer ip3
I0505 08:06:26.195147  5188 net.cpp:94] Creating Layer ip3
I0505 08:06:26.195150  5188 net.cpp:435] ip3 <- ip2
I0505 08:06:26.195157  5188 net.cpp:409] ip3 -> ip3
I0505 08:06:26.195225  5188 net.cpp:144] Setting up ip3
I0505 08:06:26.195231  5188 net.cpp:151] Top shape: 20 1 (20)
I0505 08:06:26.195235  5188 net.cpp:159] Memory required for data: 2286560
I0505 08:06:26.195240  5188 layer_factory.hpp:77] Creating layer loss
I0505 08:06:26.195245  5188 net.cpp:94] Creating Layer loss
I0505 08:06:26.195250  5188 net.cpp:435] loss <- ip3
I0505 08:06:26.195253  5188 net.cpp:435] loss <- label
I0505 08:06:26.195258  5188 net.cpp:409] loss -> loss
I0505 08:06:26.195293  5188 net.cpp:144] Setting up loss
…
