…
I0504 07:23:41.228447 25317 net.cpp:323] The NetState phase (0) differed from the phase (1) specified by a rule in layer intercept
I0504 07:23:41.228463 25317 net.cpp:323] The NetState phase (0) differed from the phase (1) specified by a rule in layer loss
I0504 07:23:41.228541 25317 net.cpp:52] Initializing net from parameters: 
state {
  phase: TRAIN
}
layer {
  name: "parameters"
  type: "HDF5Data"
  top: "data"
  top: "label"
  include {
    phase: TRAIN
  }
  hdf5_data_param {
    source: "/home/purduethu/scratch/radon/d/deng106/CNNStatisticalModel/distributions/input/20_distributions_400_sample_size_train-parameters-path.txt"
    batch_size: 20
  }
}
layer {
  name: "conv1"
  type: "Convolution"
  bottom: "data"
  top: "conv1"
  param {
    lr_mult: 1
  }
  param {
    lr_mult: 2
  }
  convolution_param {
    num_output: 64
    pad: 2
    kernel_size: 5
    stride: 1
    weight_filler {
      type: "gaussian"
      std: 0.0001
    }
    bias_filler {
      type: "constant"
    }
  }
}
layer {
  name: "relu1"
  type: "ReLU"
  bottom: "conv1"
  top: "conv1"
}
layer {
  name: "conv2"
  type: "Convolution"
  bottom: "conv1"
  top: "conv2"
  param {
    lr_mult: 1
  }
  param {
    lr_mult: 2
  }
  convolution_param {
    num_output: 64
    pad: 2
    kernel_size: 5
    stride: 1
    weight_filler {
      type: "gaussian"
      std: 0.01
    }
    bias_filler {
      type: "constant"
    }
  }
}
layer {
  name: "relu2"
  type: "ReLU"
  bottom: "conv2"
  top: "conv2"
}
layer {
  name: "pool2"
  type: "Pooling"
  bottom: "conv2"
  top: "pool2"
  pooling_param {
    pool: MAX
    kernel_size: 3
    stride: 2
  }
}
layer {
  name: "conv3"
  type: "Convolution"
  bottom: "pool2"
  top: "conv3"
  param {
    lr_mult: 1
  }
  param {
    lr_mult: 2
  }
  convolution_param {
    num_output: 128
    pad: 2
    kernel_size: 5
    stride: 1
    weight_filler {
      type: "gaussian"
      std: 0.01
    }
    bias_filler {
      type: "constant"
    }
  }
}
layer {
  name: "relu3"
  type: "ReLU"
  bottom: "conv3"
  top: "conv3"
}
layer {
  name: "conv4"
  type: "Convolution"
  bottom: "conv3"
  top: "conv4"
  param {
    lr_mult: 1
  }
  param {
    lr_mult: 2
  }
  convolution_param {
    num_output: 128
    pad: 2
    kernel_size: 5
    stride: 1
    weight_filler {
      type: "gaussian"
      std: 0.01
    }
    bias_filler {
      type: "constant"
    }
  }
}
layer {
  name: "relu4"
  type: "ReLU"
  bottom: "conv4"
  top: "conv4"
}
layer {
  name: "conv5"
  type: "Convolution"
  bottom: "conv4"
  top: "conv5"
  param {
    lr_mult: 1
  }
  param {
    lr_mult: 2
  }
  convolution_param {
    num_output: 128
    pad: 2
    kernel_size: 5
    stride: 1
    weight_filler {
      type: "gaussian"
      std: 0.01
    }
    bias_filler {
      type: "constant"
    }
  }
}
layer {
  name: "relu5"
  type: "ReLU"
  bottom: "conv5"
  top: "conv5"
}
layer {
  name: "pool5"
  type: "Pooling"
  bottom: "conv5"
  top: "pool5"
  pooling_param {
    pool: AVE
    kernel_size: 3
    stride: 2
  }
}
layer {
  name: "ip1"
  type: "InnerProduct"
  bottom: "pool5"
  top: "ip1"
  param {
    lr_mult: 1
  }
  param {
    lr_mult: 2
  }
  inner_product_param {
    num_output: 1024
    weight_filler {
      type: "gaussian"
      std: 0.1
    }
    bias_filler {
      type: "constant"
    }
  }
}
layer {
  name: "ip2"
  type: "InnerProduct"
  bottom: "ip1"
  top: "ip2"
  param {
    lr_mult: 1
  }
  param {
    lr_mult: 2
  }
  inner_product_param {
    num_output: 512
    weight_filler {
      type: "gaussian"
      std: 0.1
    }
    bias_filler {
      type: "constant"
    }
  }
}
layer {
  name: "ip3"
  type: "InnerProduct"
  bottom: "ip2"
  top: "ip3"
  param {
    lr_mult: 1
  }
  param {
    lr_mult: 2
  }
  inner_product_param {
    num_output: 1
    weight_filler {
      type: "gaussian"
      std: 0.1
    }
    bias_filler {
      type: "constant"
    }
  }
}
layer {
  name: "loss"
  type: "HuberLoss"
  bottom: "ip3"
  bottom: "label"
  top: "loss"
  include {
    phase: TRAIN
  }
}
I0504 07:23:41.228611 25317 layer_factory.hpp:77] Creating layer parameters
I0504 07:23:41.228624 25317 net.cpp:94] Creating Layer parameters
I0504 07:23:41.228629 25317 net.cpp:409] parameters -> data
I0504 07:23:41.228638 25317 net.cpp:409] parameters -> label
I0504 07:23:41.228646 25317 hdf5_data_layer.cpp:79] Loading list of HDF5 filenames from: /home/purduethu/scratch/radon/d/deng106/CNNStatisticalModel/distributions/input/20_distributions_400_sample_size_train-parameters-path.txt
I0504 07:23:41.228662 25317 hdf5_data_layer.cpp:93] Number of HDF5 files: 1
I0504 07:23:41.229181 25317 hdf5.cpp:32] Datatype class: H5T_FLOAT
I0504 07:23:41.488132 25317 net.cpp:144] Setting up parameters
I0504 07:23:41.488164 25317 net.cpp:151] Top shape: 20 1 20 20 (8000)
I0504 07:23:41.488169 25317 net.cpp:151] Top shape: 20 (20)
I0504 07:23:41.488173 25317 net.cpp:159] Memory required for data: 32080
I0504 07:23:41.488179 25317 layer_factory.hpp:77] Creating layer conv1
I0504 07:23:41.488200 25317 net.cpp:94] Creating Layer conv1
I0504 07:23:41.488205 25317 net.cpp:435] conv1 <- data
I0504 07:23:41.488211 25317 net.cpp:409] conv1 -> conv1
I0504 07:23:41.493580 25317 net.cpp:144] Setting up conv1
I0504 07:23:41.493599 25317 net.cpp:151] Top shape: 20 64 20 20 (512000)
I0504 07:23:41.493603 25317 net.cpp:159] Memory required for data: 2080080
I0504 07:23:41.493613 25317 layer_factory.hpp:77] Creating layer relu1
I0504 07:23:41.493623 25317 net.cpp:94] Creating Layer relu1
I0504 07:23:41.493626 25317 net.cpp:435] relu1 <- conv1
I0504 07:23:41.493631 25317 net.cpp:396] relu1 -> conv1 (in-place)
I0504 07:23:41.493645 25317 net.cpp:144] Setting up relu1
I0504 07:23:41.493651 25317 net.cpp:151] Top shape: 20 64 20 20 (512000)
I0504 07:23:41.493654 25317 net.cpp:159] Memory required for data: 4128080
I0504 07:23:41.493657 25317 layer_factory.hpp:77] Creating layer conv2
I0504 07:23:41.493665 25317 net.cpp:94] Creating Layer conv2
I0504 07:23:41.493669 25317 net.cpp:435] conv2 <- conv1
I0504 07:23:41.493674 25317 net.cpp:409] conv2 -> conv2
I0504 07:23:41.503561 25317 net.cpp:144] Setting up conv2
I0504 07:23:41.503576 25317 net.cpp:151] Top shape: 20 64 20 20 (512000)
I0504 07:23:41.503579 25317 net.cpp:159] Memory required for data: 6176080
I0504 07:23:41.503588 25317 layer_factory.hpp:77] Creating layer relu2
I0504 07:23:41.503595 25317 net.cpp:94] Creating Layer relu2
I0504 07:23:41.503599 25317 net.cpp:435] relu2 <- conv2
I0504 07:23:41.503603 25317 net.cpp:396] relu2 -> conv2 (in-place)
I0504 07:23:41.503610 25317 net.cpp:144] Setting up relu2
I0504 07:23:41.503615 25317 net.cpp:151] Top shape: 20 64 20 20 (512000)
I0504 07:23:41.503618 25317 net.cpp:159] Memory required for data: 8224080
I0504 07:23:41.503621 25317 layer_factory.hpp:77] Creating layer pool2
I0504 07:23:41.503628 25317 net.cpp:94] Creating Layer pool2
I0504 07:23:41.503638 25317 net.cpp:435] pool2 <- conv2
I0504 07:23:41.503643 25317 net.cpp:409] pool2 -> pool2
I0504 07:23:41.503700 25317 net.cpp:144] Setting up pool2
I0504 07:23:41.503707 25317 net.cpp:151] Top shape: 20 64 10 10 (128000)
I0504 07:23:41.503711 25317 net.cpp:159] Memory required for data: 8736080
I0504 07:23:41.503715 25317 layer_factory.hpp:77] Creating layer conv3
I0504 07:23:41.503722 25317 net.cpp:94] Creating Layer conv3
I0504 07:23:41.503726 25317 net.cpp:435] conv3 <- pool2
I0504 07:23:41.503731 25317 net.cpp:409] conv3 -> conv3
I0504 07:23:41.512972 25317 net.cpp:144] Setting up conv3
I0504 07:23:41.512989 25317 net.cpp:151] Top shape: 20 128 10 10 (256000)
I0504 07:23:41.512992 25317 net.cpp:159] Memory required for data: 9760080
I0504 07:23:41.513000 25317 layer_factory.hpp:77] Creating layer relu3
I0504 07:23:41.513006 25317 net.cpp:94] Creating Layer relu3
I0504 07:23:41.513010 25317 net.cpp:435] relu3 <- conv3
I0504 07:23:41.513015 25317 net.cpp:396] relu3 -> conv3 (in-place)
I0504 07:23:41.513021 25317 net.cpp:144] Setting up relu3
I0504 07:23:41.513026 25317 net.cpp:151] Top shape: 20 128 10 10 (256000)
I0504 07:23:41.513028 25317 net.cpp:159] Memory required for data: 10784080
I0504 07:23:41.513031 25317 layer_factory.hpp:77] Creating layer conv4
I0504 07:23:41.513039 25317 net.cpp:94] Creating Layer conv4
I0504 07:23:41.513043 25317 net.cpp:435] conv4 <- conv3
I0504 07:23:41.513047 25317 net.cpp:409] conv4 -> conv4
I0504 07:23:41.531111 25317 net.cpp:144] Setting up conv4
I0504 07:23:41.531131 25317 net.cpp:151] Top shape: 20 128 10 10 (256000)
I0504 07:23:41.531134 25317 net.cpp:159] Memory required for data: 11808080
I0504 07:23:41.531141 25317 layer_factory.hpp:77] Creating layer relu4
I0504 07:23:41.531148 25317 net.cpp:94] Creating Layer relu4
I0504 07:23:41.531152 25317 net.cpp:435] relu4 <- conv4
I0504 07:23:41.531157 25317 net.cpp:396] relu4 -> conv4 (in-place)
I0504 07:23:41.531164 25317 net.cpp:144] Setting up relu4
I0504 07:23:41.531168 25317 net.cpp:151] Top shape: 20 128 10 10 (256000)
I0504 07:23:41.531172 25317 net.cpp:159] Memory required for data: 12832080
I0504 07:23:41.531174 25317 layer_factory.hpp:77] Creating layer conv5
I0504 07:23:41.531183 25317 net.cpp:94] Creating Layer conv5
I0504 07:23:41.531185 25317 net.cpp:435] conv5 <- conv4
I0504 07:23:41.531190 25317 net.cpp:409] conv5 -> conv5
I0504 07:23:41.548872 25317 net.cpp:144] Setting up conv5
I0504 07:23:41.548889 25317 net.cpp:151] Top shape: 20 128 10 10 (256000)
I0504 07:23:41.548893 25317 net.cpp:159] Memory required for data: 13856080
I0504 07:23:41.548903 25317 layer_factory.hpp:77] Creating layer relu5
I0504 07:23:41.548909 25317 net.cpp:94] Creating Layer relu5
I0504 07:23:41.548913 25317 net.cpp:435] relu5 <- conv5
I0504 07:23:41.548918 25317 net.cpp:396] relu5 -> conv5 (in-place)
I0504 07:23:41.548924 25317 net.cpp:144] Setting up relu5
I0504 07:23:41.548929 25317 net.cpp:151] Top shape: 20 128 10 10 (256000)
I0504 07:23:41.548931 25317 net.cpp:159] Memory required for data: 14880080
I0504 07:23:41.548934 25317 layer_factory.hpp:77] Creating layer pool5
I0504 07:23:41.548939 25317 net.cpp:94] Creating Layer pool5
I0504 07:23:41.548943 25317 net.cpp:435] pool5 <- conv5
I0504 07:23:41.548948 25317 net.cpp:409] pool5 -> pool5
I0504 07:23:41.548991 25317 net.cpp:144] Setting up pool5
I0504 07:23:41.549000 25317 net.cpp:151] Top shape: 20 128 5 5 (64000)
I0504 07:23:41.549002 25317 net.cpp:159] Memory required for data: 15136080
I0504 07:23:41.549005 25317 layer_factory.hpp:77] Creating layer ip1
I0504 07:23:41.549015 25317 net.cpp:94] Creating Layer ip1
I0504 07:23:41.549019 25317 net.cpp:435] ip1 <- pool5
I0504 07:23:41.549023 25317 net.cpp:409] ip1 -> ip1
I0504 07:23:41.628509 25317 net.cpp:144] Setting up ip1
I0504 07:23:41.628543 25317 net.cpp:151] Top shape: 20 1024 (20480)
I0504 07:23:41.628547 25317 net.cpp:159] Memory required for data: 15218000
I0504 07:23:41.628559 25317 layer_factory.hpp:77] Creating layer ip2
I0504 07:23:41.628569 25317 net.cpp:94] Creating Layer ip2
I0504 07:23:41.628582 25317 net.cpp:435] ip2 <- ip1
I0504 07:23:41.628589 25317 net.cpp:409] ip2 -> ip2
I0504 07:23:41.641875 25317 net.cpp:144] Setting up ip2
I0504 07:23:41.641893 25317 net.cpp:151] Top shape: 20 512 (10240)
I0504 07:23:41.641897 25317 net.cpp:159] Memory required for data: 15258960
I0504 07:23:41.641903 25317 layer_factory.hpp:77] Creating layer ip3
I0504 07:23:41.641911 25317 net.cpp:94] Creating Layer ip3
I0504 07:23:41.641914 25317 net.cpp:435] ip3 <- ip2
I0504 07:23:41.641919 25317 net.cpp:409] ip3 -> ip3
I0504 07:23:41.642040 25317 net.cpp:144] Setting up ip3
I0504 07:23:41.642047 25317 net.cpp:151] Top shape: 20 1 (20)
I0504 07:23:41.642050 25317 net.cpp:159] Memory required for data: 15259040
I0504 07:23:41.642055 25317 layer_factory.hpp:77] Creating layer loss
I0504 07:23:41.642063 25317 net.cpp:94] Creating Layer loss
I0504 07:23:41.642066 25317 net.cpp:435] loss <- ip3
I0504 07:23:41.642071 25317 net.cpp:435] loss <- label
I0504 07:23:41.642074 25317 net.cpp:409] loss -> loss
I0504 07:23:41.642127 25317 net.cpp:144] Setting up loss
…
I0504 07:23:41.845844 25317 net.cpp:323] The NetState phase (0) differed from the phase (1) specified by a rule in layer intercept
I0504 07:23:41.845859 25317 net.cpp:323] The NetState phase (0) differed from the phase (1) specified by a rule in layer accuracy
I0504 07:23:41.845944 25317 net.cpp:52] Initializing net from parameters: 
state {
  phase: TRAIN
}
layer {
  name: "parameters"
  type: "HDF5Data"
  top: "data"
  top: "label"
  include {
    phase: TRAIN
  }
  hdf5_data_param {
    source: "/home/purduethu/scratch/radon/d/deng106/CNNStatisticalModel/distributions/input/20_distributions_400_sample_size_train-distributions-path.txt"
    batch_size: 20
  }
}
layer {
  name: "conv1"
  type: "Convolution"
  bottom: "data"
  top: "conv1"
  param {
    lr_mult: 1
  }
  param {
    lr_mult: 2
  }
  convolution_param {
    num_output: 64
    pad: 2
    kernel_size: 5
    stride: 1
    weight_filler {
      type: "gaussian"
      std: 0.0001
    }
    bias_filler {
      type: "constant"
    }
  }
}
layer {
  name: "relu1"
  type: "ReLU"
  bottom: "conv1"
  top: "conv1"
}
layer {
  name: "conv2"
  type: "Convolution"
  bottom: "conv1"
  top: "conv2"
  param {
    lr_mult: 1
  }
  param {
    lr_mult: 2
  }
  convolution_param {
    num_output: 64
    pad: 2
    kernel_size: 5
    stride: 1
    weight_filler {
      type: "gaussian"
      std: 0.01
    }
    bias_filler {
      type: "constant"
    }
  }
}
layer {
  name: "relu2"
  type: "ReLU"
  bottom: "conv2"
  top: "conv2"
}
layer {
  name: "pool2"
  type: "Pooling"
  bottom: "conv2"
  top: "pool2"
  pooling_param {
    pool: MAX
    kernel_size: 3
    stride: 2
  }
}
layer {
  name: "conv3"
  type: "Convolution"
  bottom: "pool2"
  top: "conv3"
  param {
    lr_mult: 1
  }
  param {
    lr_mult: 2
  }
  convolution_param {
    num_output: 128
    pad: 2
    kernel_size: 5
    stride: 1
    weight_filler {
      type: "gaussian"
      std: 0.01
    }
    bias_filler {
      type: "constant"
    }
  }
}
layer {
  name: "relu3"
  type: "ReLU"
  bottom: "conv3"
  top: "conv3"
}
layer {
  name: "conv4"
  type: "Convolution"
  bottom: "conv3"
  top: "conv4"
  param {
    lr_mult: 1
  }
  param {
    lr_mult: 2
  }
  convolution_param {
    num_output: 128
    pad: 2
    kernel_size: 5
    stride: 1
    weight_filler {
      type: "gaussian"
      std: 0.01
    }
    bias_filler {
      type: "constant"
    }
  }
}
layer {
  name: "relu4"
  type: "ReLU"
  bottom: "conv4"
  top: "conv4"
}
layer {
  name: "conv5"
  type: "Convolution"
  bottom: "conv4"
  top: "conv5"
  param {
    lr_mult: 1
  }
  param {
    lr_mult: 2
  }
  convolution_param {
    num_output: 128
    pad: 2
    kernel_size: 5
    stride: 1
    weight_filler {
      type: "gaussian"
      std: 0.01
    }
    bias_filler {
      type: "constant"
    }
  }
}
layer {
  name: "relu5"
  type: "ReLU"
  bottom: "conv5"
  top: "conv5"
}
layer {
  name: "pool5"
  type: "Pooling"
  bottom: "conv5"
  top: "pool5"
  pooling_param {
    pool: AVE
    kernel_size: 3
    stride: 2
  }
}
layer {
  name: "ip1"
  type: "InnerProduct"
  bottom: "pool5"
  top: "ip1"
  param {
    lr_mult: 1
  }
  param {
    lr_mult: 2
  }
  inner_product_param {
    num_output: 1024
    weight_filler {
      type: "gaussian"
      std: 0.1
    }
    bias_filler {
      type: "constant"
    }
  }
}
layer {
  name: "ip2"
  type: "InnerProduct"
  bottom: "ip1"
  top: "ip2"
  param {
    lr_mult: 1
  }
  param {
    lr_mult: 2
  }
  inner_product_param {
    num_output: 512
    weight_filler {
      type: "gaussian"
      std: 0.1
    }
    bias_filler {
      type: "constant"
    }
  }
}
layer {
  name: "ip3"
  type: "InnerProduct"
  bottom: "ip2"
  top: "ip3"
  param {
    lr_mult: 1
  }
  param {
    lr_mult: 2
  }
  inner_product_param {
    num_output: 50
    weight_filler {
      type: "gaussian"
      std: 0.1
    }
    bias_filler {
      type: "constant"
    }
  }
}
layer {
  name: "loss"
  type: "SoftmaxWithLoss"
  bottom: "ip3"
  bottom: "label"
  top: "loss"
}
I0504 07:23:41.845995 25317 layer_factory.hpp:77] Creating layer parameters
I0504 07:23:41.846004 25317 net.cpp:94] Creating Layer parameters
I0504 07:23:41.846007 25317 net.cpp:409] parameters -> data
I0504 07:23:41.846014 25317 net.cpp:409] parameters -> label
I0504 07:23:41.846019 25317 hdf5_data_layer.cpp:79] Loading list of HDF5 filenames from: /home/purduethu/scratch/radon/d/deng106/CNNStatisticalModel/distributions/input/20_distributions_400_sample_size_train-distributions-path.txt
I0504 07:23:41.846035 25317 hdf5_data_layer.cpp:93] Number of HDF5 files: 1
I0504 07:23:42.099686 25317 hdf5.cpp:35] Datatype class: H5T_INTEGER
I0504 07:23:42.100774 25317 net.cpp:144] Setting up parameters
I0504 07:23:42.100790 25317 net.cpp:151] Top shape: 20 1 20 20 (8000)
I0504 07:23:42.100796 25317 net.cpp:151] Top shape: 20 (20)
I0504 07:23:42.100800 25317 net.cpp:159] Memory required for data: 32080
I0504 07:23:42.100805 25317 layer_factory.hpp:77] Creating layer conv1
I0504 07:23:42.100821 25317 net.cpp:94] Creating Layer conv1
I0504 07:23:42.100826 25317 net.cpp:435] conv1 <- data
I0504 07:23:42.100831 25317 net.cpp:409] conv1 -> conv1
I0504 07:23:42.103286 25317 net.cpp:144] Setting up conv1
I0504 07:23:42.103299 25317 net.cpp:151] Top shape: 20 64 20 20 (512000)
I0504 07:23:42.103302 25317 net.cpp:159] Memory required for data: 2080080
I0504 07:23:42.103312 25317 layer_factory.hpp:77] Creating layer relu1
I0504 07:23:42.103319 25317 net.cpp:94] Creating Layer relu1
I0504 07:23:42.103323 25317 net.cpp:435] relu1 <- conv1
I0504 07:23:42.103327 25317 net.cpp:396] relu1 -> conv1 (in-place)
I0504 07:23:42.103334 25317 net.cpp:144] Setting up relu1
I0504 07:23:42.103339 25317 net.cpp:151] Top shape: 20 64 20 20 (512000)
I0504 07:23:42.103341 25317 net.cpp:159] Memory required for data: 4128080
I0504 07:23:42.103344 25317 layer_factory.hpp:77] Creating layer conv2
I0504 07:23:42.103353 25317 net.cpp:94] Creating Layer conv2
I0504 07:23:42.103355 25317 net.cpp:435] conv2 <- conv1
I0504 07:23:42.103359 25317 net.cpp:409] conv2 -> conv2
I0504 07:23:42.113792 25317 net.cpp:144] Setting up conv2
I0504 07:23:42.113809 25317 net.cpp:151] Top shape: 20 64 20 20 (512000)
I0504 07:23:42.113813 25317 net.cpp:159] Memory required for data: 6176080
I0504 07:23:42.113821 25317 layer_factory.hpp:77] Creating layer relu2
I0504 07:23:42.113827 25317 net.cpp:94] Creating Layer relu2
I0504 07:23:42.113831 25317 net.cpp:435] relu2 <- conv2
I0504 07:23:42.113836 25317 net.cpp:396] relu2 -> conv2 (in-place)
I0504 07:23:42.113842 25317 net.cpp:144] Setting up relu2
I0504 07:23:42.113847 25317 net.cpp:151] Top shape: 20 64 20 20 (512000)
I0504 07:23:42.113849 25317 net.cpp:159] Memory required for data: 8224080
I0504 07:23:42.113852 25317 layer_factory.hpp:77] Creating layer pool2
I0504 07:23:42.113858 25317 net.cpp:94] Creating Layer pool2
I0504 07:23:42.113862 25317 net.cpp:435] pool2 <- conv2
I0504 07:23:42.113865 25317 net.cpp:409] pool2 -> pool2
I0504 07:23:42.113925 25317 net.cpp:144] Setting up pool2
I0504 07:23:42.113932 25317 net.cpp:151] Top shape: 20 64 10 10 (128000)
I0504 07:23:42.113935 25317 net.cpp:159] Memory required for data: 8736080
I0504 07:23:42.113940 25317 layer_factory.hpp:77] Creating layer conv3
I0504 07:23:42.113947 25317 net.cpp:94] Creating Layer conv3
I0504 07:23:42.113950 25317 net.cpp:435] conv3 <- pool2
I0504 07:23:42.113961 25317 net.cpp:409] conv3 -> conv3
I0504 07:23:42.124610 25317 net.cpp:144] Setting up conv3
I0504 07:23:42.124625 25317 net.cpp:151] Top shape: 20 128 10 10 (256000)
I0504 07:23:42.124629 25317 net.cpp:159] Memory required for data: 9760080
I0504 07:23:42.124637 25317 layer_factory.hpp:77] Creating layer relu3
I0504 07:23:42.124644 25317 net.cpp:94] Creating Layer relu3
I0504 07:23:42.124647 25317 net.cpp:435] relu3 <- conv3
I0504 07:23:42.124652 25317 net.cpp:396] relu3 -> conv3 (in-place)
I0504 07:23:42.124660 25317 net.cpp:144] Setting up relu3
I0504 07:23:42.124663 25317 net.cpp:151] Top shape: 20 128 10 10 (256000)
I0504 07:23:42.124666 25317 net.cpp:159] Memory required for data: 10784080
I0504 07:23:42.124670 25317 layer_factory.hpp:77] Creating layer conv4
I0504 07:23:42.124677 25317 net.cpp:94] Creating Layer conv4
I0504 07:23:42.124680 25317 net.cpp:435] conv4 <- conv3
I0504 07:23:42.124686 25317 net.cpp:409] conv4 -> conv4
I0504 07:23:42.142832 25317 net.cpp:144] Setting up conv4
I0504 07:23:42.142848 25317 net.cpp:151] Top shape: 20 128 10 10 (256000)
I0504 07:23:42.142853 25317 net.cpp:159] Memory required for data: 11808080
I0504 07:23:42.142859 25317 layer_factory.hpp:77] Creating layer relu4
I0504 07:23:42.142865 25317 net.cpp:94] Creating Layer relu4
I0504 07:23:42.142869 25317 net.cpp:435] relu4 <- conv4
I0504 07:23:42.142874 25317 net.cpp:396] relu4 -> conv4 (in-place)
I0504 07:23:42.142881 25317 net.cpp:144] Setting up relu4
I0504 07:23:42.142885 25317 net.cpp:151] Top shape: 20 128 10 10 (256000)
I0504 07:23:42.142889 25317 net.cpp:159] Memory required for data: 12832080
I0504 07:23:42.142891 25317 layer_factory.hpp:77] Creating layer conv5
I0504 07:23:42.142899 25317 net.cpp:94] Creating Layer conv5
I0504 07:23:42.142902 25317 net.cpp:435] conv5 <- conv4
I0504 07:23:42.142906 25317 net.cpp:409] conv5 -> conv5
I0504 07:23:42.160744 25317 net.cpp:144] Setting up conv5
I0504 07:23:42.160763 25317 net.cpp:151] Top shape: 20 128 10 10 (256000)
I0504 07:23:42.160768 25317 net.cpp:159] Memory required for data: 13856080
I0504 07:23:42.160778 25317 layer_factory.hpp:77] Creating layer relu5
I0504 07:23:42.160784 25317 net.cpp:94] Creating Layer relu5
I0504 07:23:42.160789 25317 net.cpp:435] relu5 <- conv5
I0504 07:23:42.160794 25317 net.cpp:396] relu5 -> conv5 (in-place)
I0504 07:23:42.160800 25317 net.cpp:144] Setting up relu5
I0504 07:23:42.160804 25317 net.cpp:151] Top shape: 20 128 10 10 (256000)
I0504 07:23:42.160807 25317 net.cpp:159] Memory required for data: 14880080
I0504 07:23:42.160810 25317 layer_factory.hpp:77] Creating layer pool5
I0504 07:23:42.160815 25317 net.cpp:94] Creating Layer pool5
I0504 07:23:42.160818 25317 net.cpp:435] pool5 <- conv5
I0504 07:23:42.160823 25317 net.cpp:409] pool5 -> pool5
I0504 07:23:42.160866 25317 net.cpp:144] Setting up pool5
I0504 07:23:42.160873 25317 net.cpp:151] Top shape: 20 128 5 5 (64000)
I0504 07:23:42.160876 25317 net.cpp:159] Memory required for data: 15136080
I0504 07:23:42.160879 25317 layer_factory.hpp:77] Creating layer ip1
I0504 07:23:42.160887 25317 net.cpp:94] Creating Layer ip1
I0504 07:23:42.160889 25317 net.cpp:435] ip1 <- pool5
I0504 07:23:42.160893 25317 net.cpp:409] ip1 -> ip1
I0504 07:23:42.241662 25317 net.cpp:144] Setting up ip1
I0504 07:23:42.241698 25317 net.cpp:151] Top shape: 20 1024 (20480)
I0504 07:23:42.241701 25317 net.cpp:159] Memory required for data: 15218000
I0504 07:23:42.241710 25317 layer_factory.hpp:77] Creating layer ip2
I0504 07:23:42.241720 25317 net.cpp:94] Creating Layer ip2
I0504 07:23:42.241724 25317 net.cpp:435] ip2 <- ip1
I0504 07:23:42.241730 25317 net.cpp:409] ip2 -> ip2
I0504 07:23:42.254954 25317 net.cpp:144] Setting up ip2
I0504 07:23:42.254971 25317 net.cpp:151] Top shape: 20 512 (10240)
I0504 07:23:42.254974 25317 net.cpp:159] Memory required for data: 15258960
I0504 07:23:42.254981 25317 layer_factory.hpp:77] Creating layer ip3
I0504 07:23:42.254987 25317 net.cpp:94] Creating Layer ip3
I0504 07:23:42.254992 25317 net.cpp:435] ip3 <- ip2
I0504 07:23:42.254997 25317 net.cpp:409] ip3 -> ip3
I0504 07:23:42.255753 25317 net.cpp:144] Setting up ip3
I0504 07:23:42.255762 25317 net.cpp:151] Top shape: 20 50 (1000)
I0504 07:23:42.255765 25317 net.cpp:159] Memory required for data: 15262960
I0504 07:23:42.255770 25317 layer_factory.hpp:77] Creating layer loss
I0504 07:23:42.255779 25317 net.cpp:94] Creating Layer loss
I0504 07:23:42.255782 25317 net.cpp:435] loss <- ip3
I0504 07:23:42.255785 25317 net.cpp:435] loss <- label
I0504 07:23:42.255789 25317 net.cpp:409] loss -> loss
I0504 07:23:42.255796 25317 layer_factory.hpp:77] Creating layer loss
…
I0504 07:23:42.256314 25317 solver.cpp:181] Creating test net (#0) specified by net file: ./protocol/dis_20_400_dimension.protocol_distribution
I0504 07:23:42.256340 25317 net.cpp:323] The NetState phase (1) differed from the phase (0) specified by a rule in layer parameters
I0504 07:23:42.256431 25317 net.cpp:52] Initializing net from parameters: 
state {
  phase: TEST
}
layer {
  name: "intercept"
  type: "HDF5Data"
  top: "data"
  top: "label"
  include {
    phase: TEST
  }
  hdf5_data_param {
    source: "/home/purduethu/scratch/radon/d/deng106/CNNStatisticalModel/distributions/input/20_distributions_400_sample_size_test-distributions-path.txt"
    batch_size: 20
  }
}
layer {
  name: "conv1"
  type: "Convolution"
  bottom: "data"
  top: "conv1"
  param {
    lr_mult: 1
  }
  param {
    lr_mult: 2
  }
  convolution_param {
    num_output: 64
    pad: 2
    kernel_size: 5
    stride: 1
    weight_filler {
      type: "gaussian"
      std: 0.0001
    }
    bias_filler {
      type: "constant"
    }
  }
}
layer {
  name: "relu1"
  type: "ReLU"
  bottom: "conv1"
  top: "conv1"
}
layer {
  name: "conv2"
  type: "Convolution"
  bottom: "conv1"
  top: "conv2"
  param {
    lr_mult: 1
  }
  param {
    lr_mult: 2
  }
  convolution_param {
    num_output: 64
    pad: 2
    kernel_size: 5
    stride: 1
    weight_filler {
      type: "gaussian"
      std: 0.01
    }
    bias_filler {
      type: "constant"
    }
  }
}
layer {
  name: "relu2"
  type: "ReLU"
  bottom: "conv2"
  top: "conv2"
}
layer {
  name: "pool2"
  type: "Pooling"
  bottom: "conv2"
  top: "pool2"
  pooling_param {
    pool: MAX
    kernel_size: 3
    stride: 2
  }
}
layer {
  name: "conv3"
  type: "Convolution"
  bottom: "pool2"
  top: "conv3"
  param {
    lr_mult: 1
  }
  param {
    lr_mult: 2
  }
  convolution_param {
    num_output: 128
    pad: 2
    kernel_size: 5
    stride: 1
    weight_filler {
      type: "gaussian"
      std: 0.01
    }
    bias_filler {
      type: "constant"
    }
  }
}
layer {
  name: "relu3"
  type: "ReLU"
  bottom: "conv3"
  top: "conv3"
}
layer {
  name: "conv4"
  type: "Convolution"
  bottom: "conv3"
  top: "conv4"
  param {
    lr_mult: 1
  }
  param {
    lr_mult: 2
  }
  convolution_param {
    num_output: 128
    pad: 2
    kernel_size: 5
    stride: 1
    weight_filler {
      type: "gaussian"
      std: 0.01
    }
    bias_filler {
      type: "constant"
    }
  }
}
layer {
  name: "relu4"
  type: "ReLU"
  bottom: "conv4"
  top: "conv4"
}
layer {
  name: "conv5"
  type: "Convolution"
  bottom: "conv4"
  top: "conv5"
  param {
    lr_mult: 1
  }
  param {
    lr_mult: 2
  }
  convolution_param {
    num_output: 128
    pad: 2
    kernel_size: 5
    stride: 1
    weight_filler {
      type: "gaussian"
      std: 0.01
    }
    bias_filler {
      type: "constant"
    }
  }
}
layer {
  name: "relu5"
  type: "ReLU"
  bottom: "conv5"
  top: "conv5"
}
layer {
  name: "pool5"
  type: "Pooling"
  bottom: "conv5"
  top: "pool5"
  pooling_param {
    pool: AVE
    kernel_size: 3
    stride: 2
  }
}
layer {
  name: "ip1"
  type: "InnerProduct"
  bottom: "pool5"
  top: "ip1"
  param {
    lr_mult: 1
  }
  param {
    lr_mult: 2
  }
  inner_product_param {
    num_output: 1024
    weight_filler {
      type: "gaussian"
      std: 0.1
    }
    bias_filler {
      type: "constant"
    }
  }
}
layer {
  name: "ip2"
  type: "InnerProduct"
  bottom: "ip1"
  top: "ip2"
  param {
    lr_mult: 1
  }
  param {
    lr_mult: 2
  }
  inner_product_param {
    num_output: 512
    weight_filler {
      type: "gaussian"
      std: 0.1
    }
    bias_filler {
      type: "constant"
    }
  }
}
layer {
  name: "ip3"
  type: "InnerProduct"
  bottom: "ip2"
  top: "ip3"
  param {
    lr_mult: 1
  }
  param {
    lr_mult: 2
  }
  inner_product_param {
    num_output: 50
    weight_filler {
      type: "gaussian"
      std: 0.1
    }
    bias_filler {
      type: "constant"
    }
  }
}
layer {
  name: "accuracy"
  type: "Accuracy"
  bottom: "ip3"
  bottom: "label"
  top: "accuracy"
  include {
    phase: TEST
  }
}
layer {
  name: "loss"
  type: "SoftmaxWithLoss"
  bottom: "ip3"
  bottom: "label"
  top: "loss"
}
I0504 07:23:42.256498 25317 layer_factory.hpp:77] Creating layer intercept
I0504 07:23:42.256507 25317 net.cpp:94] Creating Layer intercept
I0504 07:23:42.256511 25317 net.cpp:409] intercept -> data
I0504 07:23:42.256517 25317 net.cpp:409] intercept -> label
I0504 07:23:42.256523 25317 hdf5_data_layer.cpp:79] Loading list of HDF5 filenames from: /home/purduethu/scratch/radon/d/deng106/CNNStatisticalModel/distributions/input/20_distributions_400_sample_size_test-distributions-path.txt
I0504 07:23:42.256542 25317 hdf5_data_layer.cpp:93] Number of HDF5 files: 1
I0504 07:23:42.321238 25317 net.cpp:144] Setting up intercept
I0504 07:23:42.321271 25317 net.cpp:151] Top shape: 20 1 20 20 (8000)
I0504 07:23:42.321276 25317 net.cpp:151] Top shape: 20 (20)
I0504 07:23:42.321280 25317 net.cpp:159] Memory required for data: 32080
I0504 07:23:42.321285 25317 layer_factory.hpp:77] Creating layer label_intercept_1_split
I0504 07:23:42.321302 25317 net.cpp:94] Creating Layer label_intercept_1_split
I0504 07:23:42.321306 25317 net.cpp:435] label_intercept_1_split <- label
I0504 07:23:42.321312 25317 net.cpp:409] label_intercept_1_split -> label_intercept_1_split_0
I0504 07:23:42.321321 25317 net.cpp:409] label_intercept_1_split -> label_intercept_1_split_1
I0504 07:23:42.321367 25317 net.cpp:144] Setting up label_intercept_1_split
I0504 07:23:42.321374 25317 net.cpp:151] Top shape: 20 (20)
I0504 07:23:42.321377 25317 net.cpp:151] Top shape: 20 (20)
I0504 07:23:42.321380 25317 net.cpp:159] Memory required for data: 32240
I0504 07:23:42.321383 25317 layer_factory.hpp:77] Creating layer conv1
I0504 07:23:42.321394 25317 net.cpp:94] Creating Layer conv1
I0504 07:23:42.321398 25317 net.cpp:435] conv1 <- data
I0504 07:23:42.321403 25317 net.cpp:409] conv1 -> conv1
I0504 07:23:42.322265 25317 net.cpp:144] Setting up conv1
I0504 07:23:42.322281 25317 net.cpp:151] Top shape: 20 64 20 20 (512000)
I0504 07:23:42.322285 25317 net.cpp:159] Memory required for data: 2080240
I0504 07:23:42.322294 25317 layer_factory.hpp:77] Creating layer relu1
I0504 07:23:42.322301 25317 net.cpp:94] Creating Layer relu1
I0504 07:23:42.322305 25317 net.cpp:435] relu1 <- conv1
I0504 07:23:42.322309 25317 net.cpp:396] relu1 -> conv1 (in-place)
I0504 07:23:42.322316 25317 net.cpp:144] Setting up relu1
I0504 07:23:42.322320 25317 net.cpp:151] Top shape: 20 64 20 20 (512000)
I0504 07:23:42.322324 25317 net.cpp:159] Memory required for data: 4128240
I0504 07:23:42.322326 25317 layer_factory.hpp:77] Creating layer conv2
I0504 07:23:42.322335 25317 net.cpp:94] Creating Layer conv2
I0504 07:23:42.322338 25317 net.cpp:435] conv2 <- conv1
I0504 07:23:42.322342 25317 net.cpp:409] conv2 -> conv2
I0504 07:23:42.327613 25317 net.cpp:144] Setting up conv2
I0504 07:23:42.327628 25317 net.cpp:151] Top shape: 20 64 20 20 (512000)
I0504 07:23:42.327631 25317 net.cpp:159] Memory required for data: 6176240
I0504 07:23:42.327639 25317 layer_factory.hpp:77] Creating layer relu2
I0504 07:23:42.327646 25317 net.cpp:94] Creating Layer relu2
I0504 07:23:42.327649 25317 net.cpp:435] relu2 <- conv2
I0504 07:23:42.327654 25317 net.cpp:396] relu2 -> conv2 (in-place)
I0504 07:23:42.327661 25317 net.cpp:144] Setting up relu2
I0504 07:23:42.327666 25317 net.cpp:151] Top shape: 20 64 20 20 (512000)
I0504 07:23:42.327668 25317 net.cpp:159] Memory required for data: 8224240
I0504 07:23:42.327672 25317 layer_factory.hpp:77] Creating layer pool2
I0504 07:23:42.327677 25317 net.cpp:94] Creating Layer pool2
I0504 07:23:42.327679 25317 net.cpp:435] pool2 <- conv2
I0504 07:23:42.327683 25317 net.cpp:409] pool2 -> pool2
I0504 07:23:42.327739 25317 net.cpp:144] Setting up pool2
I0504 07:23:42.327746 25317 net.cpp:151] Top shape: 20 64 10 10 (128000)
I0504 07:23:42.327749 25317 net.cpp:159] Memory required for data: 8736240
I0504 07:23:42.327752 25317 layer_factory.hpp:77] Creating layer conv3
I0504 07:23:42.327760 25317 net.cpp:94] Creating Layer conv3
I0504 07:23:42.327764 25317 net.cpp:435] conv3 <- pool2
I0504 07:23:42.327769 25317 net.cpp:409] conv3 -> conv3
I0504 07:23:42.335160 25317 net.cpp:144] Setting up conv3
I0504 07:23:42.335175 25317 net.cpp:151] Top shape: 20 128 10 10 (256000)
I0504 07:23:42.335178 25317 net.cpp:159] Memory required for data: 9760240
I0504 07:23:42.335187 25317 layer_factory.hpp:77] Creating layer relu3
I0504 07:23:42.335193 25317 net.cpp:94] Creating Layer relu3
I0504 07:23:42.335197 25317 net.cpp:435] relu3 <- conv3
I0504 07:23:42.335202 25317 net.cpp:396] relu3 -> conv3 (in-place)
I0504 07:23:42.335209 25317 net.cpp:144] Setting up relu3
I0504 07:23:42.335213 25317 net.cpp:151] Top shape: 20 128 10 10 (256000)
I0504 07:23:42.335216 25317 net.cpp:159] Memory required for data: 10784240
I0504 07:23:42.335219 25317 layer_factory.hpp:77] Creating layer conv4
I0504 07:23:42.335227 25317 net.cpp:94] Creating Layer conv4
I0504 07:23:42.335230 25317 net.cpp:435] conv4 <- conv3
I0504 07:23:42.335235 25317 net.cpp:409] conv4 -> conv4
I0504 07:23:42.349378 25317 net.cpp:144] Setting up conv4
I0504 07:23:42.349395 25317 net.cpp:151] Top shape: 20 128 10 10 (256000)
I0504 07:23:42.349400 25317 net.cpp:159] Memory required for data: 11808240
I0504 07:23:42.349406 25317 layer_factory.hpp:77] Creating layer relu4
I0504 07:23:42.349413 25317 net.cpp:94] Creating Layer relu4
I0504 07:23:42.349416 25317 net.cpp:435] relu4 <- conv4
I0504 07:23:42.349421 25317 net.cpp:396] relu4 -> conv4 (in-place)
I0504 07:23:42.349428 25317 net.cpp:144] Setting up relu4
I0504 07:23:42.349432 25317 net.cpp:151] Top shape: 20 128 10 10 (256000)
I0504 07:23:42.349436 25317 net.cpp:159] Memory required for data: 12832240
I0504 07:23:42.349438 25317 layer_factory.hpp:77] Creating layer conv5
I0504 07:23:42.349447 25317 net.cpp:94] Creating Layer conv5
I0504 07:23:42.349449 25317 net.cpp:435] conv5 <- conv4
I0504 07:23:42.349454 25317 net.cpp:409] conv5 -> conv5
I0504 07:23:42.363054 25317 net.cpp:144] Setting up conv5
I0504 07:23:42.363070 25317 net.cpp:151] Top shape: 20 128 10 10 (256000)
I0504 07:23:42.363075 25317 net.cpp:159] Memory required for data: 13856240
I0504 07:23:42.363083 25317 layer_factory.hpp:77] Creating layer relu5
I0504 07:23:42.363090 25317 net.cpp:94] Creating Layer relu5
I0504 07:23:42.363093 25317 net.cpp:435] relu5 <- conv5
I0504 07:23:42.363097 25317 net.cpp:396] relu5 -> conv5 (in-place)
I0504 07:23:42.363104 25317 net.cpp:144] Setting up relu5
I0504 07:23:42.363109 25317 net.cpp:151] Top shape: 20 128 10 10 (256000)
I0504 07:23:42.363112 25317 net.cpp:159] Memory required for data: 14880240
I0504 07:23:42.363116 25317 layer_factory.hpp:77] Creating layer pool5
I0504 07:23:42.363121 25317 net.cpp:94] Creating Layer pool5
I0504 07:23:42.363123 25317 net.cpp:435] pool5 <- conv5
I0504 07:23:42.363127 25317 net.cpp:409] pool5 -> pool5
I0504 07:23:42.363169 25317 net.cpp:144] Setting up pool5
I0504 07:23:42.363176 25317 net.cpp:151] Top shape: 20 128 5 5 (64000)
I0504 07:23:42.363179 25317 net.cpp:159] Memory required for data: 15136240
I0504 07:23:42.363183 25317 layer_factory.hpp:77] Creating layer ip1
I0504 07:23:42.363188 25317 net.cpp:94] Creating Layer ip1
I0504 07:23:42.363193 25317 net.cpp:435] ip1 <- pool5
I0504 07:23:42.363196 25317 net.cpp:409] ip1 -> ip1
I0504 07:23:42.443128 25317 net.cpp:144] Setting up ip1
I0504 07:23:42.443161 25317 net.cpp:151] Top shape: 20 1024 (20480)
I0504 07:23:42.443164 25317 net.cpp:159] Memory required for data: 15218160
I0504 07:23:42.443173 25317 layer_factory.hpp:77] Creating layer ip2
I0504 07:23:42.443186 25317 net.cpp:94] Creating Layer ip2
I0504 07:23:42.443189 25317 net.cpp:435] ip2 <- ip1
I0504 07:23:42.443197 25317 net.cpp:409] ip2 -> ip2
I0504 07:23:42.456450 25317 net.cpp:144] Setting up ip2
I0504 07:23:42.456466 25317 net.cpp:151] Top shape: 20 512 (10240)
I0504 07:23:42.456470 25317 net.cpp:159] Memory required for data: 15259120
I0504 07:23:42.456475 25317 layer_factory.hpp:77] Creating layer ip3
I0504 07:23:42.456485 25317 net.cpp:94] Creating Layer ip3
I0504 07:23:42.456488 25317 net.cpp:435] ip3 <- ip2
I0504 07:23:42.456493 25317 net.cpp:409] ip3 -> ip3
I0504 07:23:42.457295 25317 net.cpp:144] Setting up ip3
I0504 07:23:42.457305 25317 net.cpp:151] Top shape: 20 50 (1000)
I0504 07:23:42.457309 25317 net.cpp:159] Memory required for data: 15263120
I0504 07:23:42.457314 25317 layer_factory.hpp:77] Creating layer ip3_ip3_0_split
I0504 07:23:42.457319 25317 net.cpp:94] Creating Layer ip3_ip3_0_split
I0504 07:23:42.457324 25317 net.cpp:435] ip3_ip3_0_split <- ip3
I0504 07:23:42.457329 25317 net.cpp:409] ip3_ip3_0_split -> ip3_ip3_0_split_0
I0504 07:23:42.457334 25317 net.cpp:409] ip3_ip3_0_split -> ip3_ip3_0_split_1
I0504 07:23:42.457382 25317 net.cpp:144] Setting up ip3_ip3_0_split
I0504 07:23:42.457389 25317 net.cpp:151] Top shape: 20 50 (1000)
I0504 07:23:42.457392 25317 net.cpp:151] Top shape: 20 50 (1000)
I0504 07:23:42.457396 25317 net.cpp:159] Memory required for data: 15271120
I0504 07:23:42.457398 25317 layer_factory.hpp:77] Creating layer accuracy
I0504 07:23:42.457406 25317 net.cpp:94] Creating Layer accuracy
I0504 07:23:42.457408 25317 net.cpp:435] accuracy <- ip3_ip3_0_split_0
I0504 07:23:42.457412 25317 net.cpp:435] accuracy <- label_intercept_1_split_0
I0504 07:23:42.457418 25317 net.cpp:409] accuracy -> accuracy
…
