…
I0505 03:52:46.704493  3131 net.cpp:323] The NetState phase (0) differed from the phase (1) specified by a rule in layer intercept
I0505 03:52:46.704509  3131 net.cpp:323] The NetState phase (0) differed from the phase (1) specified by a rule in layer loss
I0505 03:52:46.704596  3131 net.cpp:52] Initializing net from parameters: 
state {
  phase: TRAIN
}
layer {
  name: "parameters"
  type: "HDF5Data"
  top: "data"
  top: "label"
  include {
    phase: TRAIN
  }
  hdf5_data_param {
    source: "/home/purduethu/scratch/radon/d/deng106/CNNStatisticalModel/distributions/input/20_distributions_100_sample_size_train-parameters-path.txt"
    batch_size: 20
  }
}
layer {
  name: "conv1"
  type: "Convolution"
  bottom: "data"
  top: "conv1"
  param {
    lr_mult: 1
  }
  param {
    lr_mult: 2
  }
  convolution_param {
    num_output: 64
    pad: 2
    kernel_size: 5
    stride: 1
    weight_filler {
      type: "gaussian"
      std: 0.0001
    }
    bias_filler {
      type: "constant"
    }
  }
}
layer {
  name: "relu1"
  type: "ReLU"
  bottom: "conv1"
  top: "conv1"
}
layer {
  name: "pool1"
  type: "Pooling"
  bottom: "conv1"
  top: "pool1"
  pooling_param {
    pool: MAX
    kernel_size: 3
    stride: 2
  }
}
layer {
  name: "conv2"
  type: "Convolution"
  bottom: "pool1"
  top: "conv2"
  param {
    lr_mult: 1
  }
  param {
    lr_mult: 2
  }
  convolution_param {
    num_output: 128
    pad: 2
    kernel_size: 5
    stride: 1
    weight_filler {
      type: "gaussian"
      std: 0.01
    }
    bias_filler {
      type: "constant"
    }
  }
}
layer {
  name: "relu2"
  type: "ReLU"
  bottom: "conv2"
  top: "conv2"
}
layer {
  name: "conv3"
  type: "Convolution"
  bottom: "conv2"
  top: "conv3"
  param {
    lr_mult: 1
  }
  param {
    lr_mult: 2
  }
  convolution_param {
    num_output: 128
    pad: 2
    kernel_size: 5
    stride: 1
    weight_filler {
      type: "gaussian"
      std: 0.01
    }
    bias_filler {
      type: "constant"
    }
  }
}
layer {
  name: "relu3"
  type: "ReLU"
  bottom: "conv3"
  top: "conv3"
}
layer {
  name: "pool3"
  type: "Pooling"
  bottom: "conv3"
  top: "pool3"
  pooling_param {
    pool: AVE
    kernel_size: 3
    stride: 2
  }
}
layer {
  name: "ip1"
  type: "InnerProduct"
  bottom: "pool3"
  top: "ip1"
  param {
    lr_mult: 1
  }
  param {
    lr_mult: 2
  }
  inner_product_param {
    num_output: 512
    weight_filler {
      type: "gaussian"
      std: 0.1
    }
    bias_filler {
      type: "constant"
    }
  }
}
layer {
  name: "ip2"
  type: "InnerProduct"
  bottom: "ip1"
  top: "ip2"
  param {
    lr_mult: 1
  }
  param {
    lr_mult: 2
  }
  inner_product_param {
    num_output: 256
    weight_filler {
      type: "gaussian"
      std: 0.1
    }
    bias_filler {
      type: "constant"
    }
  }
}
layer {
  name: "ip3"
  type: "InnerProduct"
  bottom: "ip2"
  top: "ip3"
  param {
    lr_mult: 1
  }
  param {
    lr_mult: 2
  }
  inner_product_param {
    num_output: 1
    weight_filler {
      type: "gaussian"
      std: 0.1
    }
    bias_filler {
      type: "constant"
    }
  }
}
layer {
  name: "loss"
  type: "HuberLoss"
  bottom: "ip3"
  bottom: "label"
  top: "loss"
  include {
    phase: TRAIN
  }
}
I0505 03:52:46.704663  3131 layer_factory.hpp:77] Creating layer parameters
I0505 03:52:46.704677  3131 net.cpp:94] Creating Layer parameters
I0505 03:52:46.704694  3131 net.cpp:409] parameters -> data
I0505 03:52:46.704713  3131 net.cpp:409] parameters -> label
I0505 03:52:46.704725  3131 hdf5_data_layer.cpp:79] Loading list of HDF5 filenames from: /home/purduethu/scratch/radon/d/deng106/CNNStatisticalModel/distributions/input/20_distributions_100_sample_size_train-parameters-path.txt
I0505 03:52:46.704746  3131 hdf5_data_layer.cpp:93] Number of HDF5 files: 1
I0505 03:52:46.705225  3131 hdf5.cpp:32] Datatype class: H5T_FLOAT
I0505 03:52:46.772661  3131 net.cpp:144] Setting up parameters
I0505 03:52:46.772694  3131 net.cpp:151] Top shape: 20 1 10 10 (2000)
I0505 03:52:46.772701  3131 net.cpp:151] Top shape: 20 (20)
I0505 03:52:46.772704  3131 net.cpp:159] Memory required for data: 8080
I0505 03:52:46.772712  3131 layer_factory.hpp:77] Creating layer conv1
I0505 03:52:46.772730  3131 net.cpp:94] Creating Layer conv1
I0505 03:52:46.772737  3131 net.cpp:435] conv1 <- data
I0505 03:52:46.772748  3131 net.cpp:409] conv1 -> conv1
I0505 03:52:46.776633  3131 net.cpp:144] Setting up conv1
I0505 03:52:46.776649  3131 net.cpp:151] Top shape: 20 64 10 10 (128000)
I0505 03:52:46.776654  3131 net.cpp:159] Memory required for data: 520080
I0505 03:52:46.776665  3131 layer_factory.hpp:77] Creating layer relu1
I0505 03:52:46.776674  3131 net.cpp:94] Creating Layer relu1
I0505 03:52:46.776679  3131 net.cpp:435] relu1 <- conv1
I0505 03:52:46.776682  3131 net.cpp:396] relu1 -> conv1 (in-place)
I0505 03:52:46.776701  3131 net.cpp:144] Setting up relu1
I0505 03:52:46.776707  3131 net.cpp:151] Top shape: 20 64 10 10 (128000)
I0505 03:52:46.776710  3131 net.cpp:159] Memory required for data: 1032080
I0505 03:52:46.776715  3131 layer_factory.hpp:77] Creating layer pool1
I0505 03:52:46.776721  3131 net.cpp:94] Creating Layer pool1
I0505 03:52:46.776724  3131 net.cpp:435] pool1 <- conv1
I0505 03:52:46.776729  3131 net.cpp:409] pool1 -> pool1
I0505 03:52:46.776773  3131 net.cpp:144] Setting up pool1
I0505 03:52:46.776782  3131 net.cpp:151] Top shape: 20 64 5 5 (32000)
I0505 03:52:46.776784  3131 net.cpp:159] Memory required for data: 1160080
I0505 03:52:46.776788  3131 layer_factory.hpp:77] Creating layer conv2
I0505 03:52:46.776796  3131 net.cpp:94] Creating Layer conv2
I0505 03:52:46.776800  3131 net.cpp:435] conv2 <- pool1
I0505 03:52:46.776805  3131 net.cpp:409] conv2 -> conv2
I0505 03:52:46.784910  3131 net.cpp:144] Setting up conv2
I0505 03:52:46.784925  3131 net.cpp:151] Top shape: 20 128 5 5 (64000)
I0505 03:52:46.784930  3131 net.cpp:159] Memory required for data: 1416080
I0505 03:52:46.784939  3131 layer_factory.hpp:77] Creating layer relu2
I0505 03:52:46.784945  3131 net.cpp:94] Creating Layer relu2
I0505 03:52:46.784948  3131 net.cpp:435] relu2 <- conv2
I0505 03:52:46.784953  3131 net.cpp:396] relu2 -> conv2 (in-place)
I0505 03:52:46.784960  3131 net.cpp:144] Setting up relu2
I0505 03:52:46.784965  3131 net.cpp:151] Top shape: 20 128 5 5 (64000)
I0505 03:52:46.784968  3131 net.cpp:159] Memory required for data: 1672080
I0505 03:52:46.784971  3131 layer_factory.hpp:77] Creating layer conv3
I0505 03:52:46.784979  3131 net.cpp:94] Creating Layer conv3
I0505 03:52:46.784983  3131 net.cpp:435] conv3 <- conv2
I0505 03:52:46.784988  3131 net.cpp:409] conv3 -> conv3
I0505 03:52:46.799834  3131 net.cpp:144] Setting up conv3
I0505 03:52:46.799849  3131 net.cpp:151] Top shape: 20 128 5 5 (64000)
I0505 03:52:46.799854  3131 net.cpp:159] Memory required for data: 1928080
I0505 03:52:46.799862  3131 layer_factory.hpp:77] Creating layer relu3
I0505 03:52:46.799868  3131 net.cpp:94] Creating Layer relu3
I0505 03:52:46.799878  3131 net.cpp:435] relu3 <- conv3
I0505 03:52:46.799883  3131 net.cpp:396] relu3 -> conv3 (in-place)
I0505 03:52:46.799891  3131 net.cpp:144] Setting up relu3
I0505 03:52:46.799896  3131 net.cpp:151] Top shape: 20 128 5 5 (64000)
I0505 03:52:46.799899  3131 net.cpp:159] Memory required for data: 2184080
I0505 03:52:46.799902  3131 layer_factory.hpp:77] Creating layer pool3
I0505 03:52:46.799908  3131 net.cpp:94] Creating Layer pool3
I0505 03:52:46.799912  3131 net.cpp:435] pool3 <- conv3
I0505 03:52:46.799922  3131 net.cpp:409] pool3 -> pool3
I0505 03:52:46.799957  3131 net.cpp:144] Setting up pool3
I0505 03:52:46.799963  3131 net.cpp:151] Top shape: 20 128 2 2 (10240)
I0505 03:52:46.799968  3131 net.cpp:159] Memory required for data: 2225040
I0505 03:52:46.799970  3131 layer_factory.hpp:77] Creating layer ip1
I0505 03:52:46.799978  3131 net.cpp:94] Creating Layer ip1
I0505 03:52:46.799981  3131 net.cpp:435] ip1 <- pool3
I0505 03:52:46.799985  3131 net.cpp:409] ip1 -> ip1
I0505 03:52:46.807714  3131 net.cpp:144] Setting up ip1
I0505 03:52:46.807729  3131 net.cpp:151] Top shape: 20 512 (10240)
I0505 03:52:46.807732  3131 net.cpp:159] Memory required for data: 2266000
I0505 03:52:46.807739  3131 layer_factory.hpp:77] Creating layer ip2
I0505 03:52:46.807745  3131 net.cpp:94] Creating Layer ip2
I0505 03:52:46.807750  3131 net.cpp:435] ip2 <- ip1
I0505 03:52:46.807755  3131 net.cpp:409] ip2 -> ip2
I0505 03:52:46.811007  3131 net.cpp:144] Setting up ip2
I0505 03:52:46.811017  3131 net.cpp:151] Top shape: 20 256 (5120)
I0505 03:52:46.811019  3131 net.cpp:159] Memory required for data: 2286480
I0505 03:52:46.811028  3131 layer_factory.hpp:77] Creating layer ip3
I0505 03:52:46.811033  3131 net.cpp:94] Creating Layer ip3
I0505 03:52:46.811038  3131 net.cpp:435] ip3 <- ip2
I0505 03:52:46.811043  3131 net.cpp:409] ip3 -> ip3
I0505 03:52:46.811110  3131 net.cpp:144] Setting up ip3
I0505 03:52:46.811116  3131 net.cpp:151] Top shape: 20 1 (20)
I0505 03:52:46.811120  3131 net.cpp:159] Memory required for data: 2286560
I0505 03:52:46.811125  3131 layer_factory.hpp:77] Creating layer loss
I0505 03:52:46.811133  3131 net.cpp:94] Creating Layer loss
I0505 03:52:46.811137  3131 net.cpp:435] loss <- ip3
I0505 03:52:46.811141  3131 net.cpp:435] loss <- label
I0505 03:52:46.811147  3131 net.cpp:409] loss -> loss
I0505 03:52:46.811182  3131 net.cpp:144] Setting up loss
…
