…
I0502 05:11:35.772172 18713 net.cpp:323] The NetState phase (0) differed from the phase (1) specified by a rule in layer intercept
I0502 05:11:35.772189 18713 net.cpp:323] The NetState phase (0) differed from the phase (1) specified by a rule in layer loss
I0502 05:11:35.772281 18713 net.cpp:52] Initializing net from parameters: 
state {
  phase: TRAIN
}
layer {
  name: "parameters"
  type: "HDF5Data"
  top: "data"
  top: "label"
  include {
    phase: TRAIN
  }
  hdf5_data_param {
    source: "/home/purduethu/scratch/radon/d/deng106/CNNStatisticalModel/distributions/input/5_distributions_400_sample_size_train-parameters-path.txt"
    batch_size: 20
  }
}
layer {
  name: "conv1"
  type: "Convolution"
  bottom: "data"
  top: "conv1"
  param {
    lr_mult: 1
  }
  param {
    lr_mult: 2
  }
  convolution_param {
    num_output: 64
    pad: 2
    kernel_size: 5
    stride: 1
    weight_filler {
      type: "gaussian"
      std: 0.0001
    }
    bias_filler {
      type: "constant"
    }
  }
}
layer {
  name: "relu1"
  type: "ReLU"
  bottom: "conv1"
  top: "conv1"
}
layer {
  name: "conv2"
  type: "Convolution"
  bottom: "conv1"
  top: "conv2"
  param {
    lr_mult: 1
  }
  param {
    lr_mult: 2
  }
  convolution_param {
    num_output: 64
    pad: 2
    kernel_size: 5
    stride: 1
    weight_filler {
      type: "gaussian"
      std: 0.01
    }
    bias_filler {
      type: "constant"
    }
  }
}
layer {
  name: "relu2"
  type: "ReLU"
  bottom: "conv2"
  top: "conv2"
}
layer {
  name: "pool2"
  type: "Pooling"
  bottom: "conv2"
  top: "pool2"
  pooling_param {
    pool: MAX
    kernel_size: 3
    stride: 2
  }
}
layer {
  name: "conv3"
  type: "Convolution"
  bottom: "pool2"
  top: "conv3"
  param {
    lr_mult: 1
  }
  param {
    lr_mult: 2
  }
  convolution_param {
    num_output: 64
    pad: 2
    kernel_size: 5
    stride: 1
    weight_filler {
      type: "gaussian"
      std: 0.01
    }
    bias_filler {
      type: "constant"
    }
  }
}
layer {
  name: "relu3"
  type: "ReLU"
  bottom: "conv3"
  top: "conv3"
}
layer {
  name: "conv4"
  type: "Convolution"
  bottom: "conv3"
  top: "conv4"
  param {
    lr_mult: 1
  }
  param {
    lr_mult: 2
  }
  convolution_param {
    num_output: 64
    pad: 2
    kernel_size: 5
    stride: 1
    weight_filler {
      type: "gaussian"
      std: 0.01
    }
    bias_filler {
      type: "constant"
    }
  }
}
layer {
  name: "relu4"
  type: "ReLU"
  bottom: "conv4"
  top: "conv4"
}
layer {
  name: "conv5"
  type: "Convolution"
  bottom: "conv4"
  top: "conv5"
  param {
    lr_mult: 1
  }
  param {
    lr_mult: 2
  }
  convolution_param {
    num_output: 64
    pad: 2
    kernel_size: 5
    stride: 1
    weight_filler {
      type: "gaussian"
      std: 0.01
    }
    bias_filler {
      type: "constant"
    }
  }
}
layer {
  name: "relu5"
  type: "ReLU"
  bottom: "conv5"
  top: "conv5"
}
layer {
  name: "pool5"
  type: "Pooling"
  bottom: "conv5"
  top: "pool5"
  pooling_param {
    pool: AVE
    kernel_size: 3
    stride: 2
  }
}
layer {
  name: "ip1"
  type: "InnerProduct"
  bottom: "pool5"
  top: "ip1"
  param {
    lr_mult: 1
  }
  param {
    lr_mult: 2
  }
  inner_product_param {
    num_output: 64
    weight_filler {
      type: "gaussian"
      std: 0.1
    }
    bias_filler {
      type: "constant"
    }
  }
}
layer {
  name: "ip2"
  type: "InnerProduct"
  bottom: "ip1"
  top: "ip2"
  param {
    lr_mult: 1
  }
  param {
    lr_mult: 2
  }
  inner_product_param {
    num_output: 64
    weight_filler {
      type: "gaussian"
      std: 0.1
    }
    bias_filler {
      type: "constant"
    }
  }
}
layer {
  name: "ip3"
  type: "InnerProduct"
  bottom: "ip2"
  top: "ip3"
  param {
    lr_mult: 1
  }
  param {
    lr_mult: 2
  }
  inner_product_param {
    num_output: 1
    weight_filler {
      type: "gaussian"
      std: 0.1
    }
    bias_filler {
      type: "constant"
    }
  }
}
layer {
  name: "loss"
  type: "HuberLoss"
  bottom: "ip3"
  bottom: "label"
  top: "loss"
  include {
    phase: TRAIN
  }
}
I0502 05:11:35.772356 18713 layer_factory.hpp:77] Creating layer parameters
I0502 05:11:35.772372 18713 net.cpp:94] Creating Layer parameters
I0502 05:11:35.772377 18713 net.cpp:409] parameters -> data
I0502 05:11:35.772397 18713 net.cpp:409] parameters -> label
I0502 05:11:35.772408 18713 hdf5_data_layer.cpp:79] Loading list of HDF5 filenames from: /home/purduethu/scratch/radon/d/deng106/CNNStatisticalModel/distributions/input/5_distributions_400_sample_size_train-parameters-path.txt
I0502 05:11:35.772430 18713 hdf5_data_layer.cpp:93] Number of HDF5 files: 1
I0502 05:11:35.772907 18713 hdf5.cpp:32] Datatype class: H5T_FLOAT
I0502 05:11:35.836052 18713 net.cpp:144] Setting up parameters
I0502 05:11:35.836084 18713 net.cpp:151] Top shape: 20 1 20 20 (8000)
I0502 05:11:35.836091 18713 net.cpp:151] Top shape: 20 (20)
I0502 05:11:35.836093 18713 net.cpp:159] Memory required for data: 32080
I0502 05:11:35.836102 18713 layer_factory.hpp:77] Creating layer conv1
I0502 05:11:35.836127 18713 net.cpp:94] Creating Layer conv1
I0502 05:11:35.836133 18713 net.cpp:435] conv1 <- data
I0502 05:11:35.836143 18713 net.cpp:409] conv1 -> conv1
I0502 05:11:35.841014 18713 net.cpp:144] Setting up conv1
I0502 05:11:35.841030 18713 net.cpp:151] Top shape: 20 64 20 20 (512000)
I0502 05:11:35.841034 18713 net.cpp:159] Memory required for data: 2080080
I0502 05:11:35.841047 18713 layer_factory.hpp:77] Creating layer relu1
I0502 05:11:35.841054 18713 net.cpp:94] Creating Layer relu1
I0502 05:11:35.841058 18713 net.cpp:435] relu1 <- conv1
I0502 05:11:35.841063 18713 net.cpp:396] relu1 -> conv1 (in-place)
I0502 05:11:35.841079 18713 net.cpp:144] Setting up relu1
I0502 05:11:35.841084 18713 net.cpp:151] Top shape: 20 64 20 20 (512000)
I0502 05:11:35.841089 18713 net.cpp:159] Memory required for data: 4128080
I0502 05:11:35.841091 18713 layer_factory.hpp:77] Creating layer conv2
I0502 05:11:35.841099 18713 net.cpp:94] Creating Layer conv2
I0502 05:11:35.841104 18713 net.cpp:435] conv2 <- conv1
I0502 05:11:35.841109 18713 net.cpp:409] conv2 -> conv2
I0502 05:11:35.852179 18713 net.cpp:144] Setting up conv2
I0502 05:11:35.852195 18713 net.cpp:151] Top shape: 20 64 20 20 (512000)
I0502 05:11:35.852198 18713 net.cpp:159] Memory required for data: 6176080
I0502 05:11:35.852206 18713 layer_factory.hpp:77] Creating layer relu2
I0502 05:11:35.852213 18713 net.cpp:94] Creating Layer relu2
I0502 05:11:35.852217 18713 net.cpp:435] relu2 <- conv2
I0502 05:11:35.852222 18713 net.cpp:396] relu2 -> conv2 (in-place)
I0502 05:11:35.852229 18713 net.cpp:144] Setting up relu2
I0502 05:11:35.852234 18713 net.cpp:151] Top shape: 20 64 20 20 (512000)
I0502 05:11:35.852237 18713 net.cpp:159] Memory required for data: 8224080
I0502 05:11:35.852241 18713 layer_factory.hpp:77] Creating layer pool2
I0502 05:11:35.852248 18713 net.cpp:94] Creating Layer pool2
I0502 05:11:35.852258 18713 net.cpp:435] pool2 <- conv2
I0502 05:11:35.852263 18713 net.cpp:409] pool2 -> pool2
I0502 05:11:35.852308 18713 net.cpp:144] Setting up pool2
I0502 05:11:35.852316 18713 net.cpp:151] Top shape: 20 64 10 10 (128000)
I0502 05:11:35.852320 18713 net.cpp:159] Memory required for data: 8736080
I0502 05:11:35.852324 18713 layer_factory.hpp:77] Creating layer conv3
I0502 05:11:35.852331 18713 net.cpp:94] Creating Layer conv3
I0502 05:11:35.852335 18713 net.cpp:435] conv3 <- pool2
I0502 05:11:35.852340 18713 net.cpp:409] conv3 -> conv3
I0502 05:11:35.857552 18713 net.cpp:144] Setting up conv3
I0502 05:11:35.857565 18713 net.cpp:151] Top shape: 20 64 10 10 (128000)
I0502 05:11:35.857569 18713 net.cpp:159] Memory required for data: 9248080
I0502 05:11:35.857578 18713 layer_factory.hpp:77] Creating layer relu3
I0502 05:11:35.857583 18713 net.cpp:94] Creating Layer relu3
I0502 05:11:35.857587 18713 net.cpp:435] relu3 <- conv3
I0502 05:11:35.857592 18713 net.cpp:396] relu3 -> conv3 (in-place)
I0502 05:11:35.857599 18713 net.cpp:144] Setting up relu3
I0502 05:11:35.857604 18713 net.cpp:151] Top shape: 20 64 10 10 (128000)
I0502 05:11:35.857607 18713 net.cpp:159] Memory required for data: 9760080
I0502 05:11:35.857610 18713 layer_factory.hpp:77] Creating layer conv4
I0502 05:11:35.857620 18713 net.cpp:94] Creating Layer conv4
I0502 05:11:35.857622 18713 net.cpp:435] conv4 <- conv3
I0502 05:11:35.857627 18713 net.cpp:409] conv4 -> conv4
I0502 05:11:35.862766 18713 net.cpp:144] Setting up conv4
I0502 05:11:35.862779 18713 net.cpp:151] Top shape: 20 64 10 10 (128000)
I0502 05:11:35.862784 18713 net.cpp:159] Memory required for data: 10272080
I0502 05:11:35.862790 18713 layer_factory.hpp:77] Creating layer relu4
I0502 05:11:35.862797 18713 net.cpp:94] Creating Layer relu4
I0502 05:11:35.862800 18713 net.cpp:435] relu4 <- conv4
I0502 05:11:35.862805 18713 net.cpp:396] relu4 -> conv4 (in-place)
I0502 05:11:35.862812 18713 net.cpp:144] Setting up relu4
I0502 05:11:35.862818 18713 net.cpp:151] Top shape: 20 64 10 10 (128000)
I0502 05:11:35.862820 18713 net.cpp:159] Memory required for data: 10784080
I0502 05:11:35.862823 18713 layer_factory.hpp:77] Creating layer conv5
I0502 05:11:35.862831 18713 net.cpp:94] Creating Layer conv5
I0502 05:11:35.862835 18713 net.cpp:435] conv5 <- conv4
I0502 05:11:35.862840 18713 net.cpp:409] conv5 -> conv5
I0502 05:11:35.867997 18713 net.cpp:144] Setting up conv5
I0502 05:11:35.868011 18713 net.cpp:151] Top shape: 20 64 10 10 (128000)
I0502 05:11:35.868016 18713 net.cpp:159] Memory required for data: 11296080
I0502 05:11:35.868024 18713 layer_factory.hpp:77] Creating layer relu5
I0502 05:11:35.868031 18713 net.cpp:94] Creating Layer relu5
I0502 05:11:35.868033 18713 net.cpp:435] relu5 <- conv5
I0502 05:11:35.868038 18713 net.cpp:396] relu5 -> conv5 (in-place)
I0502 05:11:35.868046 18713 net.cpp:144] Setting up relu5
I0502 05:11:35.868050 18713 net.cpp:151] Top shape: 20 64 10 10 (128000)
I0502 05:11:35.868053 18713 net.cpp:159] Memory required for data: 11808080
I0502 05:11:35.868057 18713 layer_factory.hpp:77] Creating layer pool5
I0502 05:11:35.868062 18713 net.cpp:94] Creating Layer pool5
I0502 05:11:35.868065 18713 net.cpp:435] pool5 <- conv5
I0502 05:11:35.868069 18713 net.cpp:409] pool5 -> pool5
I0502 05:11:35.868103 18713 net.cpp:144] Setting up pool5
I0502 05:11:35.868110 18713 net.cpp:151] Top shape: 20 64 5 5 (32000)
I0502 05:11:35.868114 18713 net.cpp:159] Memory required for data: 11936080
I0502 05:11:35.868118 18713 layer_factory.hpp:77] Creating layer ip1
I0502 05:11:35.868127 18713 net.cpp:94] Creating Layer ip1
I0502 05:11:35.868131 18713 net.cpp:435] ip1 <- pool5
I0502 05:11:35.868136 18713 net.cpp:409] ip1 -> ip1
I0502 05:11:35.870699 18713 net.cpp:144] Setting up ip1
I0502 05:11:35.870708 18713 net.cpp:151] Top shape: 20 64 (1280)
I0502 05:11:35.870712 18713 net.cpp:159] Memory required for data: 11941200
I0502 05:11:35.870718 18713 layer_factory.hpp:77] Creating layer ip2
I0502 05:11:35.870723 18713 net.cpp:94] Creating Layer ip2
I0502 05:11:35.870728 18713 net.cpp:435] ip2 <- ip1
I0502 05:11:35.870736 18713 net.cpp:409] ip2 -> ip2
I0502 05:11:35.870903 18713 net.cpp:144] Setting up ip2
I0502 05:11:35.870910 18713 net.cpp:151] Top shape: 20 64 (1280)
I0502 05:11:35.870914 18713 net.cpp:159] Memory required for data: 11946320
I0502 05:11:35.870919 18713 layer_factory.hpp:77] Creating layer ip3
I0502 05:11:35.870924 18713 net.cpp:94] Creating Layer ip3
I0502 05:11:35.870929 18713 net.cpp:435] ip3 <- ip2
I0502 05:11:35.870934 18713 net.cpp:409] ip3 -> ip3
I0502 05:11:35.870995 18713 net.cpp:144] Setting up ip3
I0502 05:11:35.871006 18713 net.cpp:151] Top shape: 20 1 (20)
I0502 05:11:35.871011 18713 net.cpp:159] Memory required for data: 11946400
I0502 05:11:35.871016 18713 layer_factory.hpp:77] Creating layer loss
I0502 05:11:35.871022 18713 net.cpp:94] Creating Layer loss
I0502 05:11:35.871026 18713 net.cpp:435] loss <- ip3
I0502 05:11:35.871029 18713 net.cpp:435] loss <- label
I0502 05:11:35.871035 18713 net.cpp:409] loss -> loss
I0502 05:11:35.871069 18713 net.cpp:144] Setting up loss
…
