…
I0504 13:34:09.524809 26832 net.cpp:323] The NetState phase (0) differed from the phase (1) specified by a rule in layer intercept
I0504 13:34:09.524827 26832 net.cpp:323] The NetState phase (0) differed from the phase (1) specified by a rule in layer loss
I0504 13:34:09.524919 26832 net.cpp:52] Initializing net from parameters: 
state {
  phase: TRAIN
}
layer {
  name: "parameters"
  type: "HDF5Data"
  top: "data"
  top: "label"
  include {
    phase: TRAIN
  }
  hdf5_data_param {
    source: "/home/purduethu/scratch/radon/d/deng106/CNNStatisticalModel/distributions/input/5_distributions_400_sample_size_train-parameters-path.txt"
    batch_size: 20
  }
}
layer {
  name: "conv1"
  type: "Convolution"
  bottom: "data"
  top: "conv1"
  param {
    lr_mult: 1
  }
  param {
    lr_mult: 2
  }
  convolution_param {
    num_output: 64
    pad: 2
    kernel_size: 5
    stride: 1
    weight_filler {
      type: "gaussian"
      std: 0.0001
    }
    bias_filler {
      type: "constant"
    }
  }
}
layer {
  name: "relu1"
  type: "ReLU"
  bottom: "conv1"
  top: "conv1"
}
layer {
  name: "conv2"
  type: "Convolution"
  bottom: "conv1"
  top: "conv2"
  param {
    lr_mult: 1
  }
  param {
    lr_mult: 2
  }
  convolution_param {
    num_output: 64
    pad: 2
    kernel_size: 5
    stride: 1
    weight_filler {
      type: "gaussian"
      std: 0.01
    }
    bias_filler {
      type: "constant"
    }
  }
}
layer {
  name: "relu2"
  type: "ReLU"
  bottom: "conv2"
  top: "conv2"
}
layer {
  name: "pool2"
  type: "Pooling"
  bottom: "conv2"
  top: "pool2"
  pooling_param {
    pool: MAX
    kernel_size: 3
    stride: 2
  }
}
layer {
  name: "conv3"
  type: "Convolution"
  bottom: "pool2"
  top: "conv3"
  param {
    lr_mult: 1
  }
  param {
    lr_mult: 2
  }
  convolution_param {
    num_output: 128
    pad: 2
    kernel_size: 5
    stride: 1
    weight_filler {
      type: "gaussian"
      std: 0.01
    }
    bias_filler {
      type: "constant"
    }
  }
}
layer {
  name: "relu3"
  type: "ReLU"
  bottom: "conv3"
  top: "conv3"
}
layer {
  name: "conv4"
  type: "Convolution"
  bottom: "conv3"
  top: "conv4"
  param {
    lr_mult: 1
  }
  param {
    lr_mult: 2
  }
  convolution_param {
    num_output: 128
    pad: 2
    kernel_size: 5
    stride: 1
    weight_filler {
      type: "gaussian"
      std: 0.01
    }
    bias_filler {
      type: "constant"
    }
  }
}
layer {
  name: "relu4"
  type: "ReLU"
  bottom: "conv4"
  top: "conv4"
}
layer {
  name: "conv5"
  type: "Convolution"
  bottom: "conv4"
  top: "conv5"
  param {
    lr_mult: 1
  }
  param {
    lr_mult: 2
  }
  convolution_param {
    num_output: 128
    pad: 2
    kernel_size: 5
    stride: 1
    weight_filler {
      type: "gaussian"
      std: 0.01
    }
    bias_filler {
      type: "constant"
    }
  }
}
layer {
  name: "relu5"
  type: "ReLU"
  bottom: "conv5"
  top: "conv5"
}
layer {
  name: "pool5"
  type: "Pooling"
  bottom: "conv5"
  top: "pool5"
  pooling_param {
    pool: AVE
    kernel_size: 3
    stride: 2
  }
}
layer {
  name: "ip1"
  type: "InnerProduct"
  bottom: "pool5"
  top: "ip1"
  param {
    lr_mult: 1
  }
  param {
    lr_mult: 2
  }
  inner_product_param {
    num_output: 1024
    weight_filler {
      type: "gaussian"
      std: 0.1
    }
    bias_filler {
      type: "constant"
    }
  }
}
layer {
  name: "ip2"
  type: "InnerProduct"
  bottom: "ip1"
  top: "ip2"
  param {
    lr_mult: 1
  }
  param {
    lr_mult: 2
  }
  inner_product_param {
    num_output: 512
    weight_filler {
      type: "gaussian"
      std: 0.1
    }
    bias_filler {
      type: "constant"
    }
  }
}
layer {
  name: "ip3"
  type: "InnerProduct"
  bottom: "ip2"
  top: "ip3"
  param {
    lr_mult: 1
  }
  param {
    lr_mult: 2
  }
  inner_product_param {
    num_output: 1
    weight_filler {
      type: "gaussian"
      std: 0.1
    }
    bias_filler {
      type: "constant"
    }
  }
}
layer {
  name: "loss"
  type: "HuberLoss"
  bottom: "ip3"
  bottom: "label"
  top: "loss"
  include {
    phase: TRAIN
  }
}
I0504 13:34:09.524993 26832 layer_factory.hpp:77] Creating layer parameters
I0504 13:34:09.525008 26832 net.cpp:94] Creating Layer parameters
I0504 13:34:09.525014 26832 net.cpp:409] parameters -> data
I0504 13:34:09.525033 26832 net.cpp:409] parameters -> label
I0504 13:34:09.525043 26832 hdf5_data_layer.cpp:79] Loading list of HDF5 filenames from: /home/purduethu/scratch/radon/d/deng106/CNNStatisticalModel/distributions/input/5_distributions_400_sample_size_train-parameters-path.txt
I0504 13:34:09.525066 26832 hdf5_data_layer.cpp:93] Number of HDF5 files: 1
I0504 13:34:09.525640 26832 hdf5.cpp:32] Datatype class: H5T_FLOAT
I0504 13:34:09.588456 26832 net.cpp:144] Setting up parameters
I0504 13:34:09.588490 26832 net.cpp:151] Top shape: 20 1 20 20 (8000)
I0504 13:34:09.588495 26832 net.cpp:151] Top shape: 20 (20)
I0504 13:34:09.588500 26832 net.cpp:159] Memory required for data: 32080
I0504 13:34:09.588507 26832 layer_factory.hpp:77] Creating layer conv1
I0504 13:34:09.588526 26832 net.cpp:94] Creating Layer conv1
I0504 13:34:09.588532 26832 net.cpp:435] conv1 <- data
I0504 13:34:09.588544 26832 net.cpp:409] conv1 -> conv1
I0504 13:34:09.593282 26832 net.cpp:144] Setting up conv1
I0504 13:34:09.593299 26832 net.cpp:151] Top shape: 20 64 20 20 (512000)
I0504 13:34:09.593304 26832 net.cpp:159] Memory required for data: 2080080
I0504 13:34:09.593317 26832 layer_factory.hpp:77] Creating layer relu1
I0504 13:34:09.593327 26832 net.cpp:94] Creating Layer relu1
I0504 13:34:09.593330 26832 net.cpp:435] relu1 <- conv1
I0504 13:34:09.593335 26832 net.cpp:396] relu1 -> conv1 (in-place)
I0504 13:34:09.593353 26832 net.cpp:144] Setting up relu1
I0504 13:34:09.593358 26832 net.cpp:151] Top shape: 20 64 20 20 (512000)
I0504 13:34:09.593361 26832 net.cpp:159] Memory required for data: 4128080
I0504 13:34:09.593364 26832 layer_factory.hpp:77] Creating layer conv2
I0504 13:34:09.593374 26832 net.cpp:94] Creating Layer conv2
I0504 13:34:09.593377 26832 net.cpp:435] conv2 <- conv1
I0504 13:34:09.593382 26832 net.cpp:409] conv2 -> conv2
I0504 13:34:09.603574 26832 net.cpp:144] Setting up conv2
I0504 13:34:09.603590 26832 net.cpp:151] Top shape: 20 64 20 20 (512000)
I0504 13:34:09.603595 26832 net.cpp:159] Memory required for data: 6176080
I0504 13:34:09.603603 26832 layer_factory.hpp:77] Creating layer relu2
I0504 13:34:09.603610 26832 net.cpp:94] Creating Layer relu2
I0504 13:34:09.603615 26832 net.cpp:435] relu2 <- conv2
I0504 13:34:09.603619 26832 net.cpp:396] relu2 -> conv2 (in-place)
I0504 13:34:09.603627 26832 net.cpp:144] Setting up relu2
I0504 13:34:09.603632 26832 net.cpp:151] Top shape: 20 64 20 20 (512000)
I0504 13:34:09.603636 26832 net.cpp:159] Memory required for data: 8224080
I0504 13:34:09.603639 26832 layer_factory.hpp:77] Creating layer pool2
I0504 13:34:09.603647 26832 net.cpp:94] Creating Layer pool2
I0504 13:34:09.603657 26832 net.cpp:435] pool2 <- conv2
I0504 13:34:09.603663 26832 net.cpp:409] pool2 -> pool2
I0504 13:34:09.603709 26832 net.cpp:144] Setting up pool2
I0504 13:34:09.603718 26832 net.cpp:151] Top shape: 20 64 10 10 (128000)
I0504 13:34:09.603720 26832 net.cpp:159] Memory required for data: 8736080
I0504 13:34:09.603724 26832 layer_factory.hpp:77] Creating layer conv3
I0504 13:34:09.603732 26832 net.cpp:94] Creating Layer conv3
I0504 13:34:09.603736 26832 net.cpp:435] conv3 <- pool2
I0504 13:34:09.603741 26832 net.cpp:409] conv3 -> conv3
I0504 13:34:09.613044 26832 net.cpp:144] Setting up conv3
I0504 13:34:09.613060 26832 net.cpp:151] Top shape: 20 128 10 10 (256000)
I0504 13:34:09.613065 26832 net.cpp:159] Memory required for data: 9760080
I0504 13:34:09.613073 26832 layer_factory.hpp:77] Creating layer relu3
I0504 13:34:09.613080 26832 net.cpp:94] Creating Layer relu3
I0504 13:34:09.613085 26832 net.cpp:435] relu3 <- conv3
I0504 13:34:09.613090 26832 net.cpp:396] relu3 -> conv3 (in-place)
I0504 13:34:09.613096 26832 net.cpp:144] Setting up relu3
I0504 13:34:09.613101 26832 net.cpp:151] Top shape: 20 128 10 10 (256000)
I0504 13:34:09.613104 26832 net.cpp:159] Memory required for data: 10784080
I0504 13:34:09.613108 26832 layer_factory.hpp:77] Creating layer conv4
I0504 13:34:09.613117 26832 net.cpp:94] Creating Layer conv4
I0504 13:34:09.613121 26832 net.cpp:435] conv4 <- conv3
I0504 13:34:09.613126 26832 net.cpp:409] conv4 -> conv4
I0504 13:34:09.630483 26832 net.cpp:144] Setting up conv4
I0504 13:34:09.630498 26832 net.cpp:151] Top shape: 20 128 10 10 (256000)
I0504 13:34:09.630503 26832 net.cpp:159] Memory required for data: 11808080
I0504 13:34:09.630511 26832 layer_factory.hpp:77] Creating layer relu4
I0504 13:34:09.630517 26832 net.cpp:94] Creating Layer relu4
I0504 13:34:09.630520 26832 net.cpp:435] relu4 <- conv4
I0504 13:34:09.630525 26832 net.cpp:396] relu4 -> conv4 (in-place)
I0504 13:34:09.630533 26832 net.cpp:144] Setting up relu4
I0504 13:34:09.630538 26832 net.cpp:151] Top shape: 20 128 10 10 (256000)
I0504 13:34:09.630542 26832 net.cpp:159] Memory required for data: 12832080
I0504 13:34:09.630545 26832 layer_factory.hpp:77] Creating layer conv5
I0504 13:34:09.630553 26832 net.cpp:94] Creating Layer conv5
I0504 13:34:09.630558 26832 net.cpp:435] conv5 <- conv4
I0504 13:34:09.630563 26832 net.cpp:409] conv5 -> conv5
I0504 13:34:09.647454 26832 net.cpp:144] Setting up conv5
I0504 13:34:09.647469 26832 net.cpp:151] Top shape: 20 128 10 10 (256000)
I0504 13:34:09.647474 26832 net.cpp:159] Memory required for data: 13856080
I0504 13:34:09.647483 26832 layer_factory.hpp:77] Creating layer relu5
I0504 13:34:09.647490 26832 net.cpp:94] Creating Layer relu5
I0504 13:34:09.647495 26832 net.cpp:435] relu5 <- conv5
I0504 13:34:09.647498 26832 net.cpp:396] relu5 -> conv5 (in-place)
I0504 13:34:09.647506 26832 net.cpp:144] Setting up relu5
I0504 13:34:09.647511 26832 net.cpp:151] Top shape: 20 128 10 10 (256000)
I0504 13:34:09.647514 26832 net.cpp:159] Memory required for data: 14880080
I0504 13:34:09.647518 26832 layer_factory.hpp:77] Creating layer pool5
I0504 13:34:09.647523 26832 net.cpp:94] Creating Layer pool5
I0504 13:34:09.647527 26832 net.cpp:435] pool5 <- conv5
I0504 13:34:09.647531 26832 net.cpp:409] pool5 -> pool5
I0504 13:34:09.647567 26832 net.cpp:144] Setting up pool5
I0504 13:34:09.647574 26832 net.cpp:151] Top shape: 20 128 5 5 (64000)
I0504 13:34:09.647578 26832 net.cpp:159] Memory required for data: 15136080
I0504 13:34:09.647581 26832 layer_factory.hpp:77] Creating layer ip1
I0504 13:34:09.647591 26832 net.cpp:94] Creating Layer ip1
I0504 13:34:09.647594 26832 net.cpp:435] ip1 <- pool5
I0504 13:34:09.647599 26832 net.cpp:409] ip1 -> ip1
I0504 13:34:09.728037 26832 net.cpp:144] Setting up ip1
I0504 13:34:09.728057 26832 net.cpp:151] Top shape: 20 1024 (20480)
I0504 13:34:09.728062 26832 net.cpp:159] Memory required for data: 15218000
I0504 13:34:09.728070 26832 layer_factory.hpp:77] Creating layer ip2
I0504 13:34:09.728080 26832 net.cpp:94] Creating Layer ip2
I0504 13:34:09.728085 26832 net.cpp:435] ip2 <- ip1
I0504 13:34:09.728099 26832 net.cpp:409] ip2 -> ip2
I0504 13:34:09.741029 26832 net.cpp:144] Setting up ip2
I0504 13:34:09.741044 26832 net.cpp:151] Top shape: 20 512 (10240)
I0504 13:34:09.741047 26832 net.cpp:159] Memory required for data: 15258960
I0504 13:34:09.741053 26832 layer_factory.hpp:77] Creating layer ip3
I0504 13:34:09.741060 26832 net.cpp:94] Creating Layer ip3
I0504 13:34:09.741065 26832 net.cpp:435] ip3 <- ip2
I0504 13:34:09.741070 26832 net.cpp:409] ip3 -> ip3
I0504 13:34:09.741143 26832 net.cpp:144] Setting up ip3
I0504 13:34:09.741159 26832 net.cpp:151] Top shape: 20 1 (20)
I0504 13:34:09.741163 26832 net.cpp:159] Memory required for data: 15259040
I0504 13:34:09.741168 26832 layer_factory.hpp:77] Creating layer loss
I0504 13:34:09.741183 26832 net.cpp:94] Creating Layer loss
I0504 13:34:09.741186 26832 net.cpp:435] loss <- ip3
I0504 13:34:09.741190 26832 net.cpp:435] loss <- label
I0504 13:34:09.741195 26832 net.cpp:409] loss -> loss
I0504 13:34:09.741232 26832 net.cpp:144] Setting up loss
…
