…
I0507 05:21:43.139508 31512 net.cpp:323] The NetState phase (0) differed from the phase (1) specified by a rule in layer intercept
I0507 05:21:43.139524 31512 net.cpp:323] The NetState phase (0) differed from the phase (1) specified by a rule in layer loss
I0507 05:21:43.139606 31512 net.cpp:52] Initializing net from parameters: 
state {
  phase: TRAIN
}
layer {
  name: "parameters"
  type: "HDF5Data"
  top: "data"
  top: "label"
  include {
    phase: TRAIN
  }
  hdf5_data_param {
    source: "/home/purduethu/scratch/radon/d/deng106/CNNStatisticalModel/distributions/input/50_distributions_100_sample_size_train-parameters-path.txt"
    batch_size: 20
  }
}
layer {
  name: "conv1"
  type: "Convolution"
  bottom: "data"
  top: "conv1"
  param {
    lr_mult: 1
  }
  param {
    lr_mult: 2
  }
  convolution_param {
    num_output: 64
    pad: 2
    kernel_size: 5
    stride: 1
    weight_filler {
      type: "gaussian"
      std: 0.0001
    }
    bias_filler {
      type: "constant"
    }
  }
}
layer {
  name: "relu1"
  type: "ReLU"
  bottom: "conv1"
  top: "conv1"
}
layer {
  name: "conv2"
  type: "Convolution"
  bottom: "conv1"
  top: "conv2"
  param {
    lr_mult: 1
  }
  param {
    lr_mult: 2
  }
  convolution_param {
    num_output: 64
    pad: 2
    kernel_size: 5
    stride: 1
    weight_filler {
      type: "gaussian"
      std: 0.01
    }
    bias_filler {
      type: "constant"
    }
  }
}
layer {
  name: "relu2"
  type: "ReLU"
  bottom: "conv2"
  top: "conv2"
}
layer {
  name: "pool2"
  type: "Pooling"
  bottom: "conv2"
  top: "pool2"
  pooling_param {
    pool: MAX
    kernel_size: 3
    stride: 2
  }
}
layer {
  name: "conv3"
  type: "Convolution"
  bottom: "pool2"
  top: "conv3"
  param {
    lr_mult: 1
  }
  param {
    lr_mult: 2
  }
  convolution_param {
    num_output: 64
    pad: 2
    kernel_size: 5
    stride: 1
    weight_filler {
      type: "gaussian"
      std: 0.01
    }
    bias_filler {
      type: "constant"
    }
  }
}
layer {
  name: "relu3"
  type: "ReLU"
  bottom: "conv3"
  top: "conv3"
}
layer {
  name: "conv4"
  type: "Convolution"
  bottom: "conv3"
  top: "conv4"
  param {
    lr_mult: 1
  }
  param {
    lr_mult: 2
  }
  convolution_param {
    num_output: 64
    pad: 2
    kernel_size: 5
    stride: 1
    weight_filler {
      type: "gaussian"
      std: 0.01
    }
    bias_filler {
      type: "constant"
    }
  }
}
layer {
  name: "relu4"
  type: "ReLU"
  bottom: "conv4"
  top: "conv4"
}
layer {
  name: "conv5"
  type: "Convolution"
  bottom: "conv4"
  top: "conv5"
  param {
    lr_mult: 1
  }
  param {
    lr_mult: 2
  }
  convolution_param {
    num_output: 64
    pad: 2
    kernel_size: 5
    stride: 1
    weight_filler {
      type: "gaussian"
      std: 0.01
    }
    bias_filler {
      type: "constant"
    }
  }
}
layer {
  name: "relu5"
  type: "ReLU"
  bottom: "conv5"
  top: "conv5"
}
layer {
  name: "pool5"
  type: "Pooling"
  bottom: "conv5"
  top: "pool5"
  pooling_param {
    pool: AVE
    kernel_size: 3
    stride: 2
  }
}
layer {
  name: "ip1"
  type: "InnerProduct"
  bottom: "pool5"
  top: "ip1"
  param {
    lr_mult: 1
  }
  param {
    lr_mult: 2
  }
  inner_product_param {
    num_output: 64
    weight_filler {
      type: "gaussian"
      std: 0.1
    }
    bias_filler {
      type: "constant"
    }
  }
}
layer {
  name: "ip2"
  type: "InnerProduct"
  bottom: "ip1"
  top: "ip2"
  param {
    lr_mult: 1
  }
  param {
    lr_mult: 2
  }
  inner_product_param {
    num_output: 64
    weight_filler {
      type: "gaussian"
      std: 0.1
    }
    bias_filler {
      type: "constant"
    }
  }
}
layer {
  name: "ip3"
  type: "InnerProduct"
  bottom: "ip2"
  top: "ip3"
  param {
    lr_mult: 1
  }
  param {
    lr_mult: 2
  }
  inner_product_param {
    num_output: 1
    weight_filler {
      type: "gaussian"
      std: 0.1
    }
    bias_filler {
      type: "constant"
    }
  }
}
layer {
  name: "loss"
  type: "HuberLoss"
  bottom: "ip3"
  bottom: "label"
  top: "loss"
  include {
    phase: TRAIN
  }
}
I0507 05:21:43.139662 31512 layer_factory.hpp:77] Creating layer parameters
I0507 05:21:43.139678 31512 net.cpp:94] Creating Layer parameters
I0507 05:21:43.139683 31512 net.cpp:409] parameters -> data
I0507 05:21:43.139693 31512 net.cpp:409] parameters -> label
I0507 05:21:43.139699 31512 hdf5_data_layer.cpp:79] Loading list of HDF5 filenames from: /home/purduethu/scratch/radon/d/deng106/CNNStatisticalModel/distributions/input/50_distributions_100_sample_size_train-parameters-path.txt
I0507 05:21:43.139714 31512 hdf5_data_layer.cpp:93] Number of HDF5 files: 1
I0507 05:21:43.140267 31512 hdf5.cpp:32] Datatype class: H5T_FLOAT
I0507 05:21:43.304433 31512 net.cpp:144] Setting up parameters
I0507 05:21:43.304467 31512 net.cpp:151] Top shape: 20 1 10 10 (2000)
I0507 05:21:43.304473 31512 net.cpp:151] Top shape: 20 (20)
I0507 05:21:43.304476 31512 net.cpp:159] Memory required for data: 8080
I0507 05:21:43.304483 31512 layer_factory.hpp:77] Creating layer conv1
I0507 05:21:43.304505 31512 net.cpp:94] Creating Layer conv1
I0507 05:21:43.304512 31512 net.cpp:435] conv1 <- data
I0507 05:21:43.304517 31512 net.cpp:409] conv1 -> conv1
I0507 05:21:43.308706 31512 net.cpp:144] Setting up conv1
I0507 05:21:43.308722 31512 net.cpp:151] Top shape: 20 64 10 10 (128000)
I0507 05:21:43.308727 31512 net.cpp:159] Memory required for data: 520080
I0507 05:21:43.308737 31512 layer_factory.hpp:77] Creating layer relu1
I0507 05:21:43.308746 31512 net.cpp:94] Creating Layer relu1
I0507 05:21:43.308750 31512 net.cpp:435] relu1 <- conv1
I0507 05:21:43.308754 31512 net.cpp:396] relu1 -> conv1 (in-place)
I0507 05:21:43.308766 31512 net.cpp:144] Setting up relu1
I0507 05:21:43.308771 31512 net.cpp:151] Top shape: 20 64 10 10 (128000)
I0507 05:21:43.308774 31512 net.cpp:159] Memory required for data: 1032080
I0507 05:21:43.308778 31512 layer_factory.hpp:77] Creating layer conv2
I0507 05:21:43.308786 31512 net.cpp:94] Creating Layer conv2
I0507 05:21:43.308789 31512 net.cpp:435] conv2 <- conv1
I0507 05:21:43.308794 31512 net.cpp:409] conv2 -> conv2
I0507 05:21:43.314858 31512 net.cpp:144] Setting up conv2
I0507 05:21:43.314873 31512 net.cpp:151] Top shape: 20 64 10 10 (128000)
I0507 05:21:43.314877 31512 net.cpp:159] Memory required for data: 1544080
I0507 05:21:43.314887 31512 layer_factory.hpp:77] Creating layer relu2
I0507 05:21:43.314893 31512 net.cpp:94] Creating Layer relu2
I0507 05:21:43.314898 31512 net.cpp:435] relu2 <- conv2
I0507 05:21:43.314901 31512 net.cpp:396] relu2 -> conv2 (in-place)
I0507 05:21:43.314909 31512 net.cpp:144] Setting up relu2
I0507 05:21:43.314913 31512 net.cpp:151] Top shape: 20 64 10 10 (128000)
I0507 05:21:43.314916 31512 net.cpp:159] Memory required for data: 2056080
I0507 05:21:43.314919 31512 layer_factory.hpp:77] Creating layer pool2
I0507 05:21:43.314925 31512 net.cpp:94] Creating Layer pool2
I0507 05:21:43.314929 31512 net.cpp:435] pool2 <- conv2
I0507 05:21:43.314934 31512 net.cpp:409] pool2 -> pool2
I0507 05:21:43.314985 31512 net.cpp:144] Setting up pool2
I0507 05:21:43.314992 31512 net.cpp:151] Top shape: 20 64 5 5 (32000)
I0507 05:21:43.314996 31512 net.cpp:159] Memory required for data: 2184080
I0507 05:21:43.314999 31512 layer_factory.hpp:77] Creating layer conv3
I0507 05:21:43.315007 31512 net.cpp:94] Creating Layer conv3
I0507 05:21:43.315011 31512 net.cpp:435] conv3 <- pool2
I0507 05:21:43.315022 31512 net.cpp:409] conv3 -> conv3
I0507 05:21:43.319898 31512 net.cpp:144] Setting up conv3
I0507 05:21:43.319911 31512 net.cpp:151] Top shape: 20 64 5 5 (32000)
I0507 05:21:43.319916 31512 net.cpp:159] Memory required for data: 2312080
I0507 05:21:43.319924 31512 layer_factory.hpp:77] Creating layer relu3
I0507 05:21:43.319931 31512 net.cpp:94] Creating Layer relu3
I0507 05:21:43.319934 31512 net.cpp:435] relu3 <- conv3
I0507 05:21:43.319939 31512 net.cpp:396] relu3 -> conv3 (in-place)
I0507 05:21:43.319947 31512 net.cpp:144] Setting up relu3
I0507 05:21:43.319950 31512 net.cpp:151] Top shape: 20 64 5 5 (32000)
I0507 05:21:43.319953 31512 net.cpp:159] Memory required for data: 2440080
I0507 05:21:43.319957 31512 layer_factory.hpp:77] Creating layer conv4
I0507 05:21:43.319965 31512 net.cpp:94] Creating Layer conv4
I0507 05:21:43.319968 31512 net.cpp:435] conv4 <- conv3
I0507 05:21:43.319973 31512 net.cpp:409] conv4 -> conv4
I0507 05:21:43.324385 31512 net.cpp:144] Setting up conv4
I0507 05:21:43.324398 31512 net.cpp:151] Top shape: 20 64 5 5 (32000)
I0507 05:21:43.324403 31512 net.cpp:159] Memory required for data: 2568080
I0507 05:21:43.324409 31512 layer_factory.hpp:77] Creating layer relu4
I0507 05:21:43.324414 31512 net.cpp:94] Creating Layer relu4
I0507 05:21:43.324419 31512 net.cpp:435] relu4 <- conv4
I0507 05:21:43.324424 31512 net.cpp:396] relu4 -> conv4 (in-place)
I0507 05:21:43.324430 31512 net.cpp:144] Setting up relu4
I0507 05:21:43.324434 31512 net.cpp:151] Top shape: 20 64 5 5 (32000)
I0507 05:21:43.324439 31512 net.cpp:159] Memory required for data: 2696080
I0507 05:21:43.324441 31512 layer_factory.hpp:77] Creating layer conv5
I0507 05:21:43.324450 31512 net.cpp:94] Creating Layer conv5
I0507 05:21:43.324452 31512 net.cpp:435] conv5 <- conv4
I0507 05:21:43.324457 31512 net.cpp:409] conv5 -> conv5
I0507 05:21:43.329368 31512 net.cpp:144] Setting up conv5
I0507 05:21:43.329382 31512 net.cpp:151] Top shape: 20 64 5 5 (32000)
I0507 05:21:43.329386 31512 net.cpp:159] Memory required for data: 2824080
I0507 05:21:43.329394 31512 layer_factory.hpp:77] Creating layer relu5
I0507 05:21:43.329401 31512 net.cpp:94] Creating Layer relu5
I0507 05:21:43.329404 31512 net.cpp:435] relu5 <- conv5
I0507 05:21:43.329409 31512 net.cpp:396] relu5 -> conv5 (in-place)
I0507 05:21:43.329416 31512 net.cpp:144] Setting up relu5
I0507 05:21:43.329421 31512 net.cpp:151] Top shape: 20 64 5 5 (32000)
I0507 05:21:43.329423 31512 net.cpp:159] Memory required for data: 2952080
I0507 05:21:43.329427 31512 layer_factory.hpp:77] Creating layer pool5
I0507 05:21:43.329432 31512 net.cpp:94] Creating Layer pool5
I0507 05:21:43.329434 31512 net.cpp:435] pool5 <- conv5
I0507 05:21:43.329439 31512 net.cpp:409] pool5 -> pool5
I0507 05:21:43.329476 31512 net.cpp:144] Setting up pool5
I0507 05:21:43.329484 31512 net.cpp:151] Top shape: 20 64 2 2 (5120)
I0507 05:21:43.329488 31512 net.cpp:159] Memory required for data: 2972560
I0507 05:21:43.329490 31512 layer_factory.hpp:77] Creating layer ip1
I0507 05:21:43.329500 31512 net.cpp:94] Creating Layer ip1
I0507 05:21:43.329504 31512 net.cpp:435] ip1 <- pool5
I0507 05:21:43.329509 31512 net.cpp:409] ip1 -> ip1
I0507 05:21:43.330814 31512 net.cpp:144] Setting up ip1
I0507 05:21:43.330826 31512 net.cpp:151] Top shape: 20 64 (1280)
I0507 05:21:43.330831 31512 net.cpp:159] Memory required for data: 2977680
I0507 05:21:43.330837 31512 layer_factory.hpp:77] Creating layer ip2
I0507 05:21:43.330844 31512 net.cpp:94] Creating Layer ip2
I0507 05:21:43.330848 31512 net.cpp:435] ip2 <- ip1
I0507 05:21:43.330853 31512 net.cpp:409] ip2 -> ip2
I0507 05:21:43.331058 31512 net.cpp:144] Setting up ip2
I0507 05:21:43.331065 31512 net.cpp:151] Top shape: 20 64 (1280)
I0507 05:21:43.331068 31512 net.cpp:159] Memory required for data: 2982800
I0507 05:21:43.331073 31512 layer_factory.hpp:77] Creating layer ip3
I0507 05:21:43.331079 31512 net.cpp:94] Creating Layer ip3
I0507 05:21:43.331084 31512 net.cpp:435] ip3 <- ip2
I0507 05:21:43.331089 31512 net.cpp:409] ip3 -> ip3
I0507 05:21:43.331193 31512 net.cpp:144] Setting up ip3
I0507 05:21:43.331202 31512 net.cpp:151] Top shape: 20 1 (20)
I0507 05:21:43.331204 31512 net.cpp:159] Memory required for data: 2982880
I0507 05:21:43.331209 31512 layer_factory.hpp:77] Creating layer loss
I0507 05:21:43.331218 31512 net.cpp:94] Creating Layer loss
I0507 05:21:43.331221 31512 net.cpp:435] loss <- ip3
I0507 05:21:43.331225 31512 net.cpp:435] loss <- label
I0507 05:21:43.331229 31512 net.cpp:409] loss -> loss
I0507 05:21:43.331277 31512 net.cpp:144] Setting up loss
…
I0507 05:21:43.392602 31512 net.cpp:323] The NetState phase (0) differed from the phase (1) specified by a rule in layer intercept
I0507 05:21:43.392619 31512 net.cpp:323] The NetState phase (0) differed from the phase (1) specified by a rule in layer accuracy
I0507 05:21:43.392711 31512 net.cpp:52] Initializing net from parameters: 
state {
  phase: TRAIN
}
layer {
  name: "parameters"
  type: "HDF5Data"
  top: "data"
  top: "label"
  include {
    phase: TRAIN
  }
  hdf5_data_param {
    source: "/home/purduethu/scratch/radon/d/deng106/CNNStatisticalModel/distributions/input/50_distributions_100_sample_size_train-distributions-path.txt"
    batch_size: 20
  }
}
layer {
  name: "conv1"
  type: "Convolution"
  bottom: "data"
  top: "conv1"
  param {
    lr_mult: 1
  }
  param {
    lr_mult: 2
  }
  convolution_param {
    num_output: 64
    pad: 2
    kernel_size: 5
    stride: 1
    weight_filler {
      type: "gaussian"
      std: 0.0001
    }
    bias_filler {
      type: "constant"
    }
  }
}
layer {
  name: "relu1"
  type: "ReLU"
  bottom: "conv1"
  top: "conv1"
}
layer {
  name: "conv2"
  type: "Convolution"
  bottom: "conv1"
  top: "conv2"
  param {
    lr_mult: 1
  }
  param {
    lr_mult: 2
  }
  convolution_param {
    num_output: 64
    pad: 2
    kernel_size: 5
    stride: 1
    weight_filler {
      type: "gaussian"
      std: 0.01
    }
    bias_filler {
      type: "constant"
    }
  }
}
layer {
  name: "relu2"
  type: "ReLU"
  bottom: "conv2"
  top: "conv2"
}
layer {
  name: "pool2"
  type: "Pooling"
  bottom: "conv2"
  top: "pool2"
  pooling_param {
    pool: MAX
    kernel_size: 3
    stride: 2
  }
}
layer {
  name: "conv3"
  type: "Convolution"
  bottom: "pool2"
  top: "conv3"
  param {
    lr_mult: 1
  }
  param {
    lr_mult: 2
  }
  convolution_param {
    num_output: 64
    pad: 2
    kernel_size: 5
    stride: 1
    weight_filler {
      type: "gaussian"
      std: 0.01
    }
    bias_filler {
      type: "constant"
    }
  }
}
layer {
  name: "relu3"
  type: "ReLU"
  bottom: "conv3"
  top: "conv3"
}
layer {
  name: "conv4"
  type: "Convolution"
  bottom: "conv3"
  top: "conv4"
  param {
    lr_mult: 1
  }
  param {
    lr_mult: 2
  }
  convolution_param {
    num_output: 64
    pad: 2
    kernel_size: 5
    stride: 1
    weight_filler {
      type: "gaussian"
      std: 0.01
    }
    bias_filler {
      type: "constant"
    }
  }
}
layer {
  name: "relu4"
  type: "ReLU"
  bottom: "conv4"
  top: "conv4"
}
layer {
  name: "conv5"
  type: "Convolution"
  bottom: "conv4"
  top: "conv5"
  param {
    lr_mult: 1
  }
  param {
    lr_mult: 2
  }
  convolution_param {
    num_output: 64
    pad: 2
    kernel_size: 5
    stride: 1
    weight_filler {
      type: "gaussian"
      std: 0.01
    }
    bias_filler {
      type: "constant"
    }
  }
}
layer {
  name: "relu5"
  type: "ReLU"
  bottom: "conv5"
  top: "conv5"
}
layer {
  name: "pool5"
  type: "Pooling"
  bottom: "conv5"
  top: "pool5"
  pooling_param {
    pool: AVE
    kernel_size: 3
    stride: 2
  }
}
layer {
  name: "ip1"
  type: "InnerProduct"
  bottom: "pool5"
  top: "ip1"
  param {
    lr_mult: 1
  }
  param {
    lr_mult: 2
  }
  inner_product_param {
    num_output: 64
    weight_filler {
      type: "gaussian"
      std: 0.1
    }
    bias_filler {
      type: "constant"
    }
  }
}
layer {
  name: "ip2"
  type: "InnerProduct"
  bottom: "ip1"
  top: "ip2"
  param {
    lr_mult: 1
  }
  param {
    lr_mult: 2
  }
  inner_product_param {
    num_output: 64
    weight_filler {
      type: "gaussian"
      std: 0.1
    }
    bias_filler {
      type: "constant"
    }
  }
}
layer {
  name: "ip3"
  type: "InnerProduct"
  bottom: "ip2"
  top: "ip3"
  param {
    lr_mult: 1
  }
  param {
    lr_mult: 2
  }
  inner_product_param {
    num_output: 50
    weight_filler {
      type: "gaussian"
      std: 0.1
    }
    bias_filler {
      type: "constant"
    }
  }
}
layer {
  name: "loss"
  type: "SoftmaxWithLoss"
  bottom: "ip3"
  bottom: "label"
  top: "loss"
}
I0507 05:21:43.392763 31512 layer_factory.hpp:77] Creating layer parameters
I0507 05:21:43.392771 31512 net.cpp:94] Creating Layer parameters
I0507 05:21:43.392776 31512 net.cpp:409] parameters -> data
I0507 05:21:43.392783 31512 net.cpp:409] parameters -> label
I0507 05:21:43.392789 31512 hdf5_data_layer.cpp:79] Loading list of HDF5 filenames from: /home/purduethu/scratch/radon/d/deng106/CNNStatisticalModel/distributions/input/50_distributions_100_sample_size_train-distributions-path.txt
I0507 05:21:43.392807 31512 hdf5_data_layer.cpp:93] Number of HDF5 files: 1
I0507 05:21:43.550093 31512 hdf5.cpp:35] Datatype class: H5T_INTEGER
I0507 05:21:43.553109 31512 net.cpp:144] Setting up parameters
I0507 05:21:43.553128 31512 net.cpp:151] Top shape: 20 1 10 10 (2000)
I0507 05:21:43.553133 31512 net.cpp:151] Top shape: 20 (20)
I0507 05:21:43.553136 31512 net.cpp:159] Memory required for data: 8080
I0507 05:21:43.553143 31512 layer_factory.hpp:77] Creating layer conv1
I0507 05:21:43.553158 31512 net.cpp:94] Creating Layer conv1
I0507 05:21:43.553161 31512 net.cpp:435] conv1 <- data
I0507 05:21:43.553169 31512 net.cpp:409] conv1 -> conv1
I0507 05:21:43.554909 31512 net.cpp:144] Setting up conv1
I0507 05:21:43.554922 31512 net.cpp:151] Top shape: 20 64 10 10 (128000)
I0507 05:21:43.554926 31512 net.cpp:159] Memory required for data: 520080
I0507 05:21:43.554936 31512 layer_factory.hpp:77] Creating layer relu1
I0507 05:21:43.554944 31512 net.cpp:94] Creating Layer relu1
I0507 05:21:43.554947 31512 net.cpp:435] relu1 <- conv1
I0507 05:21:43.554952 31512 net.cpp:396] relu1 -> conv1 (in-place)
I0507 05:21:43.554960 31512 net.cpp:144] Setting up relu1
I0507 05:21:43.554965 31512 net.cpp:151] Top shape: 20 64 10 10 (128000)
I0507 05:21:43.554967 31512 net.cpp:159] Memory required for data: 1032080
I0507 05:21:43.554970 31512 layer_factory.hpp:77] Creating layer conv2
I0507 05:21:43.554978 31512 net.cpp:94] Creating Layer conv2
I0507 05:21:43.554981 31512 net.cpp:435] conv2 <- conv1
I0507 05:21:43.554986 31512 net.cpp:409] conv2 -> conv2
I0507 05:21:43.560317 31512 net.cpp:144] Setting up conv2
I0507 05:21:43.560331 31512 net.cpp:151] Top shape: 20 64 10 10 (128000)
I0507 05:21:43.560335 31512 net.cpp:159] Memory required for data: 1544080
I0507 05:21:43.560343 31512 layer_factory.hpp:77] Creating layer relu2
I0507 05:21:43.560350 31512 net.cpp:94] Creating Layer relu2
I0507 05:21:43.560354 31512 net.cpp:435] relu2 <- conv2
I0507 05:21:43.560359 31512 net.cpp:396] relu2 -> conv2 (in-place)
I0507 05:21:43.560365 31512 net.cpp:144] Setting up relu2
I0507 05:21:43.560370 31512 net.cpp:151] Top shape: 20 64 10 10 (128000)
I0507 05:21:43.560374 31512 net.cpp:159] Memory required for data: 2056080
I0507 05:21:43.560376 31512 layer_factory.hpp:77] Creating layer pool2
I0507 05:21:43.560382 31512 net.cpp:94] Creating Layer pool2
I0507 05:21:43.560385 31512 net.cpp:435] pool2 <- conv2
I0507 05:21:43.560390 31512 net.cpp:409] pool2 -> pool2
I0507 05:21:43.560439 31512 net.cpp:144] Setting up pool2
I0507 05:21:43.560447 31512 net.cpp:151] Top shape: 20 64 5 5 (32000)
I0507 05:21:43.560451 31512 net.cpp:159] Memory required for data: 2184080
I0507 05:21:43.560454 31512 layer_factory.hpp:77] Creating layer conv3
I0507 05:21:43.560461 31512 net.cpp:94] Creating Layer conv3
I0507 05:21:43.560466 31512 net.cpp:435] conv3 <- pool2
I0507 05:21:43.560470 31512 net.cpp:409] conv3 -> conv3
I0507 05:21:43.566189 31512 net.cpp:144] Setting up conv3
I0507 05:21:43.566202 31512 net.cpp:151] Top shape: 20 64 5 5 (32000)
I0507 05:21:43.566206 31512 net.cpp:159] Memory required for data: 2312080
I0507 05:21:43.566215 31512 layer_factory.hpp:77] Creating layer relu3
I0507 05:21:43.566221 31512 net.cpp:94] Creating Layer relu3
I0507 05:21:43.566226 31512 net.cpp:435] relu3 <- conv3
I0507 05:21:43.566231 31512 net.cpp:396] relu3 -> conv3 (in-place)
I0507 05:21:43.566237 31512 net.cpp:144] Setting up relu3
I0507 05:21:43.566241 31512 net.cpp:151] Top shape: 20 64 5 5 (32000)
I0507 05:21:43.566251 31512 net.cpp:159] Memory required for data: 2440080
I0507 05:21:43.566254 31512 layer_factory.hpp:77] Creating layer conv4
I0507 05:21:43.566263 31512 net.cpp:94] Creating Layer conv4
I0507 05:21:43.566267 31512 net.cpp:435] conv4 <- conv3
I0507 05:21:43.566272 31512 net.cpp:409] conv4 -> conv4
I0507 05:21:43.571137 31512 net.cpp:144] Setting up conv4
I0507 05:21:43.571151 31512 net.cpp:151] Top shape: 20 64 5 5 (32000)
I0507 05:21:43.571156 31512 net.cpp:159] Memory required for data: 2568080
I0507 05:21:43.571162 31512 layer_factory.hpp:77] Creating layer relu4
I0507 05:21:43.571167 31512 net.cpp:94] Creating Layer relu4
I0507 05:21:43.571171 31512 net.cpp:435] relu4 <- conv4
I0507 05:21:43.571177 31512 net.cpp:396] relu4 -> conv4 (in-place)
I0507 05:21:43.571183 31512 net.cpp:144] Setting up relu4
I0507 05:21:43.571187 31512 net.cpp:151] Top shape: 20 64 5 5 (32000)
I0507 05:21:43.571190 31512 net.cpp:159] Memory required for data: 2696080
I0507 05:21:43.571193 31512 layer_factory.hpp:77] Creating layer conv5
I0507 05:21:43.571202 31512 net.cpp:94] Creating Layer conv5
I0507 05:21:43.571205 31512 net.cpp:435] conv5 <- conv4
I0507 05:21:43.571210 31512 net.cpp:409] conv5 -> conv5
I0507 05:21:43.575630 31512 net.cpp:144] Setting up conv5
I0507 05:21:43.575644 31512 net.cpp:151] Top shape: 20 64 5 5 (32000)
I0507 05:21:43.575647 31512 net.cpp:159] Memory required for data: 2824080
I0507 05:21:43.575656 31512 layer_factory.hpp:77] Creating layer relu5
I0507 05:21:43.575662 31512 net.cpp:94] Creating Layer relu5
I0507 05:21:43.575665 31512 net.cpp:435] relu5 <- conv5
I0507 05:21:43.575670 31512 net.cpp:396] relu5 -> conv5 (in-place)
I0507 05:21:43.575677 31512 net.cpp:144] Setting up relu5
I0507 05:21:43.575682 31512 net.cpp:151] Top shape: 20 64 5 5 (32000)
I0507 05:21:43.575685 31512 net.cpp:159] Memory required for data: 2952080
I0507 05:21:43.575688 31512 layer_factory.hpp:77] Creating layer pool5
I0507 05:21:43.575693 31512 net.cpp:94] Creating Layer pool5
I0507 05:21:43.575696 31512 net.cpp:435] pool5 <- conv5
I0507 05:21:43.575701 31512 net.cpp:409] pool5 -> pool5
I0507 05:21:43.575734 31512 net.cpp:144] Setting up pool5
I0507 05:21:43.575742 31512 net.cpp:151] Top shape: 20 64 2 2 (5120)
I0507 05:21:43.575745 31512 net.cpp:159] Memory required for data: 2972560
I0507 05:21:43.575748 31512 layer_factory.hpp:77] Creating layer ip1
I0507 05:21:43.575755 31512 net.cpp:94] Creating Layer ip1
I0507 05:21:43.575759 31512 net.cpp:435] ip1 <- pool5
I0507 05:21:43.575763 31512 net.cpp:409] ip1 -> ip1
I0507 05:21:43.576272 31512 net.cpp:144] Setting up ip1
I0507 05:21:43.576280 31512 net.cpp:151] Top shape: 20 64 (1280)
I0507 05:21:43.576283 31512 net.cpp:159] Memory required for data: 2977680
I0507 05:21:43.576289 31512 layer_factory.hpp:77] Creating layer ip2
I0507 05:21:43.576294 31512 net.cpp:94] Creating Layer ip2
I0507 05:21:43.576298 31512 net.cpp:435] ip2 <- ip1
I0507 05:21:43.576303 31512 net.cpp:409] ip2 -> ip2
I0507 05:21:43.576514 31512 net.cpp:144] Setting up ip2
I0507 05:21:43.576522 31512 net.cpp:151] Top shape: 20 64 (1280)
I0507 05:21:43.576525 31512 net.cpp:159] Memory required for data: 2982800
I0507 05:21:43.576530 31512 layer_factory.hpp:77] Creating layer ip3
I0507 05:21:43.576536 31512 net.cpp:94] Creating Layer ip3
I0507 05:21:43.576539 31512 net.cpp:435] ip3 <- ip2
I0507 05:21:43.576545 31512 net.cpp:409] ip3 -> ip3
I0507 05:21:43.576740 31512 net.cpp:144] Setting up ip3
I0507 05:21:43.576750 31512 net.cpp:151] Top shape: 20 50 (1000)
I0507 05:21:43.576752 31512 net.cpp:159] Memory required for data: 2986800
I0507 05:21:43.576758 31512 layer_factory.hpp:77] Creating layer loss
I0507 05:21:43.576764 31512 net.cpp:94] Creating Layer loss
I0507 05:21:43.576767 31512 net.cpp:435] loss <- ip3
I0507 05:21:43.576771 31512 net.cpp:435] loss <- label
I0507 05:21:43.576776 31512 net.cpp:409] loss -> loss
I0507 05:21:43.576782 31512 layer_factory.hpp:77] Creating layer loss
…
I0507 05:21:43.578130 31512 solver.cpp:181] Creating test net (#0) specified by net file: ./protocol/dis_50_100_dimension.protocol_distribution
I0507 05:21:43.578157 31512 net.cpp:323] The NetState phase (1) differed from the phase (0) specified by a rule in layer parameters
I0507 05:21:43.578253 31512 net.cpp:52] Initializing net from parameters: 
state {
  phase: TEST
}
layer {
  name: "intercept"
  type: "HDF5Data"
  top: "data"
  top: "label"
  include {
    phase: TEST
  }
  hdf5_data_param {
    source: "/home/purduethu/scratch/radon/d/deng106/CNNStatisticalModel/distributions/input/50_distributions_100_sample_size_test-distributions-path.txt"
    batch_size: 20
  }
}
layer {
  name: "conv1"
  type: "Convolution"
  bottom: "data"
  top: "conv1"
  param {
    lr_mult: 1
  }
  param {
    lr_mult: 2
  }
  convolution_param {
    num_output: 64
    pad: 2
    kernel_size: 5
    stride: 1
    weight_filler {
      type: "gaussian"
      std: 0.0001
    }
    bias_filler {
      type: "constant"
    }
  }
}
layer {
  name: "relu1"
  type: "ReLU"
  bottom: "conv1"
  top: "conv1"
}
layer {
  name: "conv2"
  type: "Convolution"
  bottom: "conv1"
  top: "conv2"
  param {
    lr_mult: 1
  }
  param {
    lr_mult: 2
  }
  convolution_param {
    num_output: 64
    pad: 2
    kernel_size: 5
    stride: 1
    weight_filler {
      type: "gaussian"
      std: 0.01
    }
    bias_filler {
      type: "constant"
    }
  }
}
layer {
  name: "relu2"
  type: "ReLU"
  bottom: "conv2"
  top: "conv2"
}
layer {
  name: "pool2"
  type: "Pooling"
  bottom: "conv2"
  top: "pool2"
  pooling_param {
    pool: MAX
    kernel_size: 3
    stride: 2
  }
}
layer {
  name: "conv3"
  type: "Convolution"
  bottom: "pool2"
  top: "conv3"
  param {
    lr_mult: 1
  }
  param {
    lr_mult: 2
  }
  convolution_param {
    num_output: 64
    pad: 2
    kernel_size: 5
    stride: 1
    weight_filler {
      type: "gaussian"
      std: 0.01
    }
    bias_filler {
      type: "constant"
    }
  }
}
layer {
  name: "relu3"
  type: "ReLU"
  bottom: "conv3"
  top: "conv3"
}
layer {
  name: "conv4"
  type: "Convolution"
  bottom: "conv3"
  top: "conv4"
  param {
    lr_mult: 1
  }
  param {
    lr_mult: 2
  }
  convolution_param {
    num_output: 64
    pad: 2
    kernel_size: 5
    stride: 1
    weight_filler {
      type: "gaussian"
      std: 0.01
    }
    bias_filler {
      type: "constant"
    }
  }
}
layer {
  name: "relu4"
  type: "ReLU"
  bottom: "conv4"
  top: "conv4"
}
layer {
  name: "conv5"
  type: "Convolution"
  bottom: "conv4"
  top: "conv5"
  param {
    lr_mult: 1
  }
  param {
    lr_mult: 2
  }
  convolution_param {
    num_output: 64
    pad: 2
    kernel_size: 5
    stride: 1
    weight_filler {
      type: "gaussian"
      std: 0.01
    }
    bias_filler {
      type: "constant"
    }
  }
}
layer {
  name: "relu5"
  type: "ReLU"
  bottom: "conv5"
  top: "conv5"
}
layer {
  name: "pool5"
  type: "Pooling"
  bottom: "conv5"
  top: "pool5"
  pooling_param {
    pool: AVE
    kernel_size: 3
    stride: 2
  }
}
layer {
  name: "ip1"
  type: "InnerProduct"
  bottom: "pool5"
  top: "ip1"
  param {
    lr_mult: 1
  }
  param {
    lr_mult: 2
  }
  inner_product_param {
    num_output: 64
    weight_filler {
      type: "gaussian"
      std: 0.1
    }
    bias_filler {
      type: "constant"
    }
  }
}
layer {
  name: "ip2"
  type: "InnerProduct"
  bottom: "ip1"
  top: "ip2"
  param {
    lr_mult: 1
  }
  param {
    lr_mult: 2
  }
  inner_product_param {
    num_output: 64
    weight_filler {
      type: "gaussian"
      std: 0.1
    }
    bias_filler {
      type: "constant"
    }
  }
}
layer {
  name: "ip3"
  type: "InnerProduct"
  bottom: "ip2"
  top: "ip3"
  param {
    lr_mult: 1
  }
  param {
    lr_mult: 2
  }
  inner_product_param {
    num_output: 50
    weight_filler {
      type: "gaussian"
      std: 0.1
    }
    bias_filler {
      type: "constant"
    }
  }
}
layer {
  name: "accuracy"
  type: "Accuracy"
  bottom: "ip3"
  bottom: "label"
  top: "accuracy"
  include {
    phase: TEST
  }
}
layer {
  name: "loss"
  type: "SoftmaxWithLoss"
  bottom: "ip3"
  bottom: "label"
  top: "loss"
}
I0507 05:21:43.578316 31512 layer_factory.hpp:77] Creating layer intercept
I0507 05:21:43.578325 31512 net.cpp:94] Creating Layer intercept
I0507 05:21:43.578330 31512 net.cpp:409] intercept -> data
I0507 05:21:43.578337 31512 net.cpp:409] intercept -> label
I0507 05:21:43.578343 31512 hdf5_data_layer.cpp:79] Loading list of HDF5 filenames from: /home/purduethu/scratch/radon/d/deng106/CNNStatisticalModel/distributions/input/50_distributions_100_sample_size_test-distributions-path.txt
I0507 05:21:43.578363 31512 hdf5_data_layer.cpp:93] Number of HDF5 files: 1
I0507 05:21:43.619794 31512 net.cpp:144] Setting up intercept
I0507 05:21:43.619828 31512 net.cpp:151] Top shape: 20 1 10 10 (2000)
I0507 05:21:43.619834 31512 net.cpp:151] Top shape: 20 (20)
I0507 05:21:43.619837 31512 net.cpp:159] Memory required for data: 8080
I0507 05:21:43.619843 31512 layer_factory.hpp:77] Creating layer label_intercept_1_split
I0507 05:21:43.619863 31512 net.cpp:94] Creating Layer label_intercept_1_split
I0507 05:21:43.619868 31512 net.cpp:435] label_intercept_1_split <- label
I0507 05:21:43.619874 31512 net.cpp:409] label_intercept_1_split -> label_intercept_1_split_0
I0507 05:21:43.619881 31512 net.cpp:409] label_intercept_1_split -> label_intercept_1_split_1
I0507 05:21:43.619921 31512 net.cpp:144] Setting up label_intercept_1_split
I0507 05:21:43.619928 31512 net.cpp:151] Top shape: 20 (20)
I0507 05:21:43.619932 31512 net.cpp:151] Top shape: 20 (20)
I0507 05:21:43.619935 31512 net.cpp:159] Memory required for data: 8240
I0507 05:21:43.619938 31512 layer_factory.hpp:77] Creating layer conv1
I0507 05:21:43.619951 31512 net.cpp:94] Creating Layer conv1
I0507 05:21:43.619954 31512 net.cpp:435] conv1 <- data
I0507 05:21:43.619959 31512 net.cpp:409] conv1 -> conv1
I0507 05:21:43.620792 31512 net.cpp:144] Setting up conv1
I0507 05:21:43.620806 31512 net.cpp:151] Top shape: 20 64 10 10 (128000)
I0507 05:21:43.620810 31512 net.cpp:159] Memory required for data: 520240
I0507 05:21:43.620821 31512 layer_factory.hpp:77] Creating layer relu1
I0507 05:21:43.620827 31512 net.cpp:94] Creating Layer relu1
I0507 05:21:43.620831 31512 net.cpp:435] relu1 <- conv1
I0507 05:21:43.620836 31512 net.cpp:396] relu1 -> conv1 (in-place)
I0507 05:21:43.620842 31512 net.cpp:144] Setting up relu1
I0507 05:21:43.620847 31512 net.cpp:151] Top shape: 20 64 10 10 (128000)
I0507 05:21:43.620851 31512 net.cpp:159] Memory required for data: 1032240
I0507 05:21:43.620862 31512 layer_factory.hpp:77] Creating layer conv2
I0507 05:21:43.620869 31512 net.cpp:94] Creating Layer conv2
I0507 05:21:43.620873 31512 net.cpp:435] conv2 <- conv1
I0507 05:21:43.620878 31512 net.cpp:409] conv2 -> conv2
I0507 05:21:43.624930 31512 net.cpp:144] Setting up conv2
I0507 05:21:43.624943 31512 net.cpp:151] Top shape: 20 64 10 10 (128000)
I0507 05:21:43.624948 31512 net.cpp:159] Memory required for data: 1544240
I0507 05:21:43.624956 31512 layer_factory.hpp:77] Creating layer relu2
I0507 05:21:43.624963 31512 net.cpp:94] Creating Layer relu2
I0507 05:21:43.624966 31512 net.cpp:435] relu2 <- conv2
I0507 05:21:43.624970 31512 net.cpp:396] relu2 -> conv2 (in-place)
I0507 05:21:43.624977 31512 net.cpp:144] Setting up relu2
I0507 05:21:43.624981 31512 net.cpp:151] Top shape: 20 64 10 10 (128000)
I0507 05:21:43.624985 31512 net.cpp:159] Memory required for data: 2056240
I0507 05:21:43.624989 31512 layer_factory.hpp:77] Creating layer pool2
I0507 05:21:43.624995 31512 net.cpp:94] Creating Layer pool2
I0507 05:21:43.625000 31512 net.cpp:435] pool2 <- conv2
I0507 05:21:43.625003 31512 net.cpp:409] pool2 -> pool2
I0507 05:21:43.625056 31512 net.cpp:144] Setting up pool2
I0507 05:21:43.625063 31512 net.cpp:151] Top shape: 20 64 5 5 (32000)
I0507 05:21:43.625066 31512 net.cpp:159] Memory required for data: 2184240
I0507 05:21:43.625069 31512 layer_factory.hpp:77] Creating layer conv3
I0507 05:21:43.625080 31512 net.cpp:94] Creating Layer conv3
I0507 05:21:43.625083 31512 net.cpp:435] conv3 <- pool2
I0507 05:21:43.625088 31512 net.cpp:409] conv3 -> conv3
I0507 05:21:43.629446 31512 net.cpp:144] Setting up conv3
I0507 05:21:43.629461 31512 net.cpp:151] Top shape: 20 64 5 5 (32000)
I0507 05:21:43.629464 31512 net.cpp:159] Memory required for data: 2312240
I0507 05:21:43.629473 31512 layer_factory.hpp:77] Creating layer relu3
I0507 05:21:43.629480 31512 net.cpp:94] Creating Layer relu3
I0507 05:21:43.629484 31512 net.cpp:435] relu3 <- conv3
I0507 05:21:43.629492 31512 net.cpp:396] relu3 -> conv3 (in-place)
I0507 05:21:43.629498 31512 net.cpp:144] Setting up relu3
I0507 05:21:43.629503 31512 net.cpp:151] Top shape: 20 64 5 5 (32000)
I0507 05:21:43.629506 31512 net.cpp:159] Memory required for data: 2440240
I0507 05:21:43.629509 31512 layer_factory.hpp:77] Creating layer conv4
I0507 05:21:43.629518 31512 net.cpp:94] Creating Layer conv4
I0507 05:21:43.629521 31512 net.cpp:435] conv4 <- conv3
I0507 05:21:43.629526 31512 net.cpp:409] conv4 -> conv4
I0507 05:21:43.633028 31512 net.cpp:144] Setting up conv4
I0507 05:21:43.633043 31512 net.cpp:151] Top shape: 20 64 5 5 (32000)
I0507 05:21:43.633046 31512 net.cpp:159] Memory required for data: 2568240
I0507 05:21:43.633052 31512 layer_factory.hpp:77] Creating layer relu4
I0507 05:21:43.633059 31512 net.cpp:94] Creating Layer relu4
I0507 05:21:43.633062 31512 net.cpp:435] relu4 <- conv4
I0507 05:21:43.633067 31512 net.cpp:396] relu4 -> conv4 (in-place)
I0507 05:21:43.633074 31512 net.cpp:144] Setting up relu4
I0507 05:21:43.633080 31512 net.cpp:151] Top shape: 20 64 5 5 (32000)
I0507 05:21:43.633082 31512 net.cpp:159] Memory required for data: 2696240
I0507 05:21:43.633085 31512 layer_factory.hpp:77] Creating layer conv5
I0507 05:21:43.633093 31512 net.cpp:94] Creating Layer conv5
I0507 05:21:43.633097 31512 net.cpp:435] conv5 <- conv4
I0507 05:21:43.633102 31512 net.cpp:409] conv5 -> conv5
I0507 05:21:43.637114 31512 net.cpp:144] Setting up conv5
I0507 05:21:43.637127 31512 net.cpp:151] Top shape: 20 64 5 5 (32000)
I0507 05:21:43.637131 31512 net.cpp:159] Memory required for data: 2824240
I0507 05:21:43.637140 31512 layer_factory.hpp:77] Creating layer relu5
I0507 05:21:43.637145 31512 net.cpp:94] Creating Layer relu5
I0507 05:21:43.637150 31512 net.cpp:435] relu5 <- conv5
I0507 05:21:43.637154 31512 net.cpp:396] relu5 -> conv5 (in-place)
I0507 05:21:43.637161 31512 net.cpp:144] Setting up relu5
I0507 05:21:43.637166 31512 net.cpp:151] Top shape: 20 64 5 5 (32000)
I0507 05:21:43.637169 31512 net.cpp:159] Memory required for data: 2952240
I0507 05:21:43.637177 31512 layer_factory.hpp:77] Creating layer pool5
I0507 05:21:43.637183 31512 net.cpp:94] Creating Layer pool5
I0507 05:21:43.637187 31512 net.cpp:435] pool5 <- conv5
I0507 05:21:43.637192 31512 net.cpp:409] pool5 -> pool5
I0507 05:21:43.637229 31512 net.cpp:144] Setting up pool5
I0507 05:21:43.637238 31512 net.cpp:151] Top shape: 20 64 2 2 (5120)
I0507 05:21:43.637240 31512 net.cpp:159] Memory required for data: 2972720
I0507 05:21:43.637243 31512 layer_factory.hpp:77] Creating layer ip1
I0507 05:21:43.637250 31512 net.cpp:94] Creating Layer ip1
I0507 05:21:43.637253 31512 net.cpp:435] ip1 <- pool5
I0507 05:21:43.637259 31512 net.cpp:409] ip1 -> ip1
I0507 05:21:43.637779 31512 net.cpp:144] Setting up ip1
I0507 05:21:43.637787 31512 net.cpp:151] Top shape: 20 64 (1280)
I0507 05:21:43.637790 31512 net.cpp:159] Memory required for data: 2977840
I0507 05:21:43.637795 31512 layer_factory.hpp:77] Creating layer ip2
I0507 05:21:43.637802 31512 net.cpp:94] Creating Layer ip2
I0507 05:21:43.637805 31512 net.cpp:435] ip2 <- ip1
I0507 05:21:43.637810 31512 net.cpp:409] ip2 -> ip2
I0507 05:21:43.638027 31512 net.cpp:144] Setting up ip2
I0507 05:21:43.638036 31512 net.cpp:151] Top shape: 20 64 (1280)
I0507 05:21:43.638038 31512 net.cpp:159] Memory required for data: 2982960
I0507 05:21:43.638043 31512 layer_factory.hpp:77] Creating layer ip3
I0507 05:21:43.638051 31512 net.cpp:94] Creating Layer ip3
I0507 05:21:43.638054 31512 net.cpp:435] ip3 <- ip2
I0507 05:21:43.638059 31512 net.cpp:409] ip3 -> ip3
I0507 05:21:43.638249 31512 net.cpp:144] Setting up ip3
I0507 05:21:43.638257 31512 net.cpp:151] Top shape: 20 50 (1000)
I0507 05:21:43.638259 31512 net.cpp:159] Memory required for data: 2986960
I0507 05:21:43.638265 31512 layer_factory.hpp:77] Creating layer ip3_ip3_0_split
I0507 05:21:43.638270 31512 net.cpp:94] Creating Layer ip3_ip3_0_split
I0507 05:21:43.638273 31512 net.cpp:435] ip3_ip3_0_split <- ip3
I0507 05:21:43.638278 31512 net.cpp:409] ip3_ip3_0_split -> ip3_ip3_0_split_0
I0507 05:21:43.638284 31512 net.cpp:409] ip3_ip3_0_split -> ip3_ip3_0_split_1
I0507 05:21:43.638324 31512 net.cpp:144] Setting up ip3_ip3_0_split
I0507 05:21:43.638330 31512 net.cpp:151] Top shape: 20 50 (1000)
I0507 05:21:43.638334 31512 net.cpp:151] Top shape: 20 50 (1000)
I0507 05:21:43.638337 31512 net.cpp:159] Memory required for data: 2994960
I0507 05:21:43.638340 31512 layer_factory.hpp:77] Creating layer accuracy
I0507 05:21:43.638345 31512 net.cpp:94] Creating Layer accuracy
I0507 05:21:43.638348 31512 net.cpp:435] accuracy <- ip3_ip3_0_split_0
I0507 05:21:43.638352 31512 net.cpp:435] accuracy <- label_intercept_1_split_0
I0507 05:21:43.638356 31512 net.cpp:409] accuracy -> accuracy
…
