…
I0501 21:15:32.206241 14793 net.cpp:323] The NetState phase (0) differed from the phase (1) specified by a rule in layer intercept
I0501 21:15:32.206257 14793 net.cpp:323] The NetState phase (0) differed from the phase (1) specified by a rule in layer accuracy
I0501 21:15:32.206347 14793 net.cpp:52] Initializing net from parameters: 
state {
  phase: TRAIN
}
layer {
  name: "parameters"
  type: "HDF5Data"
  top: "data"
  top: "label"
  include {
    phase: TRAIN
  }
  hdf5_data_param {
    source: "/home/purduethu/scratch/radon/d/deng106/CNNStatisticalModel/distributions/input/20_distributions_400_sample_size_train-distributions-path.txt"
    batch_size: 20
  }
}
layer {
  name: "conv1"
  type: "Convolution"
  bottom: "data"
  top: "conv1"
  param {
    lr_mult: 1
  }
  param {
    lr_mult: 2
  }
  convolution_param {
    num_output: 64
    pad: 2
    kernel_size: 5
    stride: 1
    weight_filler {
      type: "gaussian"
      std: 0.0001
    }
    bias_filler {
      type: "constant"
    }
  }
}
layer {
  name: "relu1"
  type: "ReLU"
  bottom: "conv1"
  top: "conv1"
}
layer {
  name: "conv2"
  type: "Convolution"
  bottom: "conv1"
  top: "conv2"
  param {
    lr_mult: 1
  }
  param {
    lr_mult: 2
  }
  convolution_param {
    num_output: 64
    pad: 2
    kernel_size: 5
    stride: 1
    weight_filler {
      type: "gaussian"
      std: 0.01
    }
    bias_filler {
      type: "constant"
    }
  }
}
layer {
  name: "relu2"
  type: "ReLU"
  bottom: "conv2"
  top: "conv2"
}
layer {
  name: "pool2"
  type: "Pooling"
  bottom: "conv2"
  top: "pool2"
  pooling_param {
    pool: MAX
    kernel_size: 3
    stride: 2
  }
}
layer {
  name: "conv3"
  type: "Convolution"
  bottom: "pool2"
  top: "conv3"
  param {
    lr_mult: 1
  }
  param {
    lr_mult: 2
  }
  convolution_param {
    num_output: 64
    pad: 2
    kernel_size: 5
    stride: 1
    weight_filler {
      type: "gaussian"
      std: 0.01
    }
    bias_filler {
      type: "constant"
    }
  }
}
layer {
  name: "relu3"
  type: "ReLU"
  bottom: "conv3"
  top: "conv3"
}
layer {
  name: "conv4"
  type: "Convolution"
  bottom: "conv3"
  top: "conv4"
  param {
    lr_mult: 1
  }
  param {
    lr_mult: 2
  }
  convolution_param {
    num_output: 64
    pad: 2
    kernel_size: 5
    stride: 1
    weight_filler {
      type: "gaussian"
      std: 0.01
    }
    bias_filler {
      type: "constant"
    }
  }
}
layer {
  name: "relu4"
  type: "ReLU"
  bottom: "conv4"
  top: "conv4"
}
layer {
  name: "conv5"
  type: "Convolution"
  bottom: "conv4"
  top: "conv5"
  param {
    lr_mult: 1
  }
  param {
    lr_mult: 2
  }
  convolution_param {
    num_output: 64
    pad: 2
    kernel_size: 5
    stride: 1
    weight_filler {
      type: "gaussian"
      std: 0.01
    }
    bias_filler {
      type: "constant"
    }
  }
}
layer {
  name: "relu5"
  type: "ReLU"
  bottom: "conv5"
  top: "conv5"
}
layer {
  name: "pool5"
  type: "Pooling"
  bottom: "conv5"
  top: "pool5"
  pooling_param {
    pool: AVE
    kernel_size: 3
    stride: 2
  }
}
layer {
  name: "ip1"
  type: "InnerProduct"
  bottom: "pool5"
  top: "ip1"
  param {
    lr_mult: 1
  }
  param {
    lr_mult: 2
  }
  inner_product_param {
    num_output: 64
    weight_filler {
      type: "gaussian"
      std: 0.1
    }
    bias_filler {
      type: "constant"
    }
  }
}
layer {
  name: "ip2"
  type: "InnerProduct"
  bottom: "ip1"
  top: "ip2"
  param {
    lr_mult: 1
  }
  param {
    lr_mult: 2
  }
  inner_product_param {
    num_output: 64
    weight_filler {
      type: "gaussian"
      std: 0.1
    }
    bias_filler {
      type: "constant"
    }
  }
}
layer {
  name: "ip3"
  type: "InnerProduct"
  bottom: "ip2"
  top: "ip3"
  param {
    lr_mult: 1
  }
  param {
    lr_mult: 2
  }
  inner_product_param {
    num_output: 50
    weight_filler {
      type: "gaussian"
      std: 0.1
    }
    bias_filler {
      type: "constant"
    }
  }
}
layer {
  name: "loss"
  type: "SoftmaxWithLoss"
  bottom: "ip3"
  bottom: "label"
  top: "loss"
}
I0501 21:15:32.206423 14793 layer_factory.hpp:77] Creating layer parameters
I0501 21:15:32.206437 14793 net.cpp:94] Creating Layer parameters
I0501 21:15:32.206444 14793 net.cpp:409] parameters -> data
I0501 21:15:32.206462 14793 net.cpp:409] parameters -> label
I0501 21:15:32.206473 14793 hdf5_data_layer.cpp:79] Loading list of HDF5 filenames from: /home/purduethu/scratch/radon/d/deng106/CNNStatisticalModel/distributions/input/20_distributions_400_sample_size_train-distributions-path.txt
I0501 21:15:32.206496 14793 hdf5_data_layer.cpp:93] Number of HDF5 files: 1
I0501 21:15:32.207064 14793 hdf5.cpp:32] Datatype class: H5T_FLOAT
I0501 21:15:32.465175 14793 hdf5.cpp:35] Datatype class: H5T_INTEGER
I0501 21:15:32.466919 14793 net.cpp:144] Setting up parameters
I0501 21:15:32.466938 14793 net.cpp:151] Top shape: 20 1 20 20 (8000)
I0501 21:15:32.466943 14793 net.cpp:151] Top shape: 20 (20)
I0501 21:15:32.466948 14793 net.cpp:159] Memory required for data: 32080
I0501 21:15:32.466955 14793 layer_factory.hpp:77] Creating layer conv1
I0501 21:15:32.466980 14793 net.cpp:94] Creating Layer conv1
I0501 21:15:32.466986 14793 net.cpp:435] conv1 <- data
I0501 21:15:32.466997 14793 net.cpp:409] conv1 -> conv1
I0501 21:15:32.471859 14793 net.cpp:144] Setting up conv1
I0501 21:15:32.471874 14793 net.cpp:151] Top shape: 20 64 20 20 (512000)
I0501 21:15:32.471879 14793 net.cpp:159] Memory required for data: 2080080
I0501 21:15:32.471890 14793 layer_factory.hpp:77] Creating layer relu1
I0501 21:15:32.471899 14793 net.cpp:94] Creating Layer relu1
I0501 21:15:32.471904 14793 net.cpp:435] relu1 <- conv1
I0501 21:15:32.471907 14793 net.cpp:396] relu1 -> conv1 (in-place)
I0501 21:15:32.471923 14793 net.cpp:144] Setting up relu1
I0501 21:15:32.471928 14793 net.cpp:151] Top shape: 20 64 20 20 (512000)
I0501 21:15:32.471932 14793 net.cpp:159] Memory required for data: 4128080
I0501 21:15:32.471935 14793 layer_factory.hpp:77] Creating layer conv2
I0501 21:15:32.471943 14793 net.cpp:94] Creating Layer conv2
I0501 21:15:32.471946 14793 net.cpp:435] conv2 <- conv1
I0501 21:15:32.471951 14793 net.cpp:409] conv2 -> conv2
I0501 21:15:32.484132 14793 net.cpp:144] Setting up conv2
I0501 21:15:32.484148 14793 net.cpp:151] Top shape: 20 64 20 20 (512000)
I0501 21:15:32.484151 14793 net.cpp:159] Memory required for data: 6176080
I0501 21:15:32.484160 14793 layer_factory.hpp:77] Creating layer relu2
I0501 21:15:32.484167 14793 net.cpp:94] Creating Layer relu2
I0501 21:15:32.484171 14793 net.cpp:435] relu2 <- conv2
I0501 21:15:32.484175 14793 net.cpp:396] relu2 -> conv2 (in-place)
I0501 21:15:32.484184 14793 net.cpp:144] Setting up relu2
I0501 21:15:32.484189 14793 net.cpp:151] Top shape: 20 64 20 20 (512000)
I0501 21:15:32.484191 14793 net.cpp:159] Memory required for data: 8224080
I0501 21:15:32.484194 14793 layer_factory.hpp:77] Creating layer pool2
I0501 21:15:32.484208 14793 net.cpp:94] Creating Layer pool2
I0501 21:15:32.484212 14793 net.cpp:435] pool2 <- conv2
I0501 21:15:32.484217 14793 net.cpp:409] pool2 -> pool2
I0501 21:15:32.484261 14793 net.cpp:144] Setting up pool2
I0501 21:15:32.484269 14793 net.cpp:151] Top shape: 20 64 10 10 (128000)
I0501 21:15:32.484272 14793 net.cpp:159] Memory required for data: 8736080
I0501 21:15:32.484277 14793 layer_factory.hpp:77] Creating layer conv3
I0501 21:15:32.484284 14793 net.cpp:94] Creating Layer conv3
I0501 21:15:32.484288 14793 net.cpp:435] conv3 <- pool2
I0501 21:15:32.484300 14793 net.cpp:409] conv3 -> conv3
I0501 21:15:32.489642 14793 net.cpp:144] Setting up conv3
I0501 21:15:32.489656 14793 net.cpp:151] Top shape: 20 64 10 10 (128000)
I0501 21:15:32.489660 14793 net.cpp:159] Memory required for data: 9248080
I0501 21:15:32.489670 14793 layer_factory.hpp:77] Creating layer relu3
I0501 21:15:32.489675 14793 net.cpp:94] Creating Layer relu3
I0501 21:15:32.489679 14793 net.cpp:435] relu3 <- conv3
I0501 21:15:32.489683 14793 net.cpp:396] relu3 -> conv3 (in-place)
I0501 21:15:32.489691 14793 net.cpp:144] Setting up relu3
I0501 21:15:32.489696 14793 net.cpp:151] Top shape: 20 64 10 10 (128000)
I0501 21:15:32.489699 14793 net.cpp:159] Memory required for data: 9760080
I0501 21:15:32.489702 14793 layer_factory.hpp:77] Creating layer conv4
I0501 21:15:32.489711 14793 net.cpp:94] Creating Layer conv4
I0501 21:15:32.489714 14793 net.cpp:435] conv4 <- conv3
I0501 21:15:32.489719 14793 net.cpp:409] conv4 -> conv4
I0501 21:15:32.495034 14793 net.cpp:144] Setting up conv4
I0501 21:15:32.495048 14793 net.cpp:151] Top shape: 20 64 10 10 (128000)
I0501 21:15:32.495052 14793 net.cpp:159] Memory required for data: 10272080
I0501 21:15:32.495059 14793 layer_factory.hpp:77] Creating layer relu4
I0501 21:15:32.495065 14793 net.cpp:94] Creating Layer relu4
I0501 21:15:32.495069 14793 net.cpp:435] relu4 <- conv4
I0501 21:15:32.495074 14793 net.cpp:396] relu4 -> conv4 (in-place)
I0501 21:15:32.495081 14793 net.cpp:144] Setting up relu4
I0501 21:15:32.495085 14793 net.cpp:151] Top shape: 20 64 10 10 (128000)
I0501 21:15:32.495090 14793 net.cpp:159] Memory required for data: 10784080
I0501 21:15:32.495092 14793 layer_factory.hpp:77] Creating layer conv5
I0501 21:15:32.495100 14793 net.cpp:94] Creating Layer conv5
I0501 21:15:32.495103 14793 net.cpp:435] conv5 <- conv4
I0501 21:15:32.495108 14793 net.cpp:409] conv5 -> conv5
I0501 21:15:32.501081 14793 net.cpp:144] Setting up conv5
I0501 21:15:32.501096 14793 net.cpp:151] Top shape: 20 64 10 10 (128000)
I0501 21:15:32.501099 14793 net.cpp:159] Memory required for data: 11296080
I0501 21:15:32.501108 14793 layer_factory.hpp:77] Creating layer relu5
I0501 21:15:32.501114 14793 net.cpp:94] Creating Layer relu5
I0501 21:15:32.501118 14793 net.cpp:435] relu5 <- conv5
I0501 21:15:32.501123 14793 net.cpp:396] relu5 -> conv5 (in-place)
I0501 21:15:32.501130 14793 net.cpp:144] Setting up relu5
I0501 21:15:32.501134 14793 net.cpp:151] Top shape: 20 64 10 10 (128000)
I0501 21:15:32.501138 14793 net.cpp:159] Memory required for data: 11808080
I0501 21:15:32.501142 14793 layer_factory.hpp:77] Creating layer pool5
I0501 21:15:32.501147 14793 net.cpp:94] Creating Layer pool5
I0501 21:15:32.501149 14793 net.cpp:435] pool5 <- conv5
I0501 21:15:32.501154 14793 net.cpp:409] pool5 -> pool5
I0501 21:15:32.501188 14793 net.cpp:144] Setting up pool5
I0501 21:15:32.501195 14793 net.cpp:151] Top shape: 20 64 5 5 (32000)
I0501 21:15:32.501199 14793 net.cpp:159] Memory required for data: 11936080
I0501 21:15:32.501202 14793 layer_factory.hpp:77] Creating layer ip1
I0501 21:15:32.501212 14793 net.cpp:94] Creating Layer ip1
I0501 21:15:32.501216 14793 net.cpp:435] ip1 <- pool5
I0501 21:15:32.501220 14793 net.cpp:409] ip1 -> ip1
I0501 21:15:32.503779 14793 net.cpp:144] Setting up ip1
I0501 21:15:32.503787 14793 net.cpp:151] Top shape: 20 64 (1280)
I0501 21:15:32.503792 14793 net.cpp:159] Memory required for data: 11941200
I0501 21:15:32.503796 14793 layer_factory.hpp:77] Creating layer ip2
I0501 21:15:32.503806 14793 net.cpp:94] Creating Layer ip2
I0501 21:15:32.503811 14793 net.cpp:435] ip2 <- ip1
I0501 21:15:32.503815 14793 net.cpp:409] ip2 -> ip2
I0501 21:15:32.503985 14793 net.cpp:144] Setting up ip2
I0501 21:15:32.503993 14793 net.cpp:151] Top shape: 20 64 (1280)
I0501 21:15:32.503995 14793 net.cpp:159] Memory required for data: 11946320
I0501 21:15:32.504000 14793 layer_factory.hpp:77] Creating layer ip3
I0501 21:15:32.504006 14793 net.cpp:94] Creating Layer ip3
I0501 21:15:32.504010 14793 net.cpp:435] ip3 <- ip2
I0501 21:15:32.504014 14793 net.cpp:409] ip3 -> ip3
I0501 21:15:32.504166 14793 net.cpp:144] Setting up ip3
I0501 21:15:32.504173 14793 net.cpp:151] Top shape: 20 50 (1000)
I0501 21:15:32.504176 14793 net.cpp:159] Memory required for data: 11950320
I0501 21:15:32.504181 14793 layer_factory.hpp:77] Creating layer loss
I0501 21:15:32.504187 14793 net.cpp:94] Creating Layer loss
I0501 21:15:32.504191 14793 net.cpp:435] loss <- ip3
I0501 21:15:32.504195 14793 net.cpp:435] loss <- label
I0501 21:15:32.504200 14793 net.cpp:409] loss -> loss
I0501 21:15:32.504210 14793 layer_factory.hpp:77] Creating layer loss
…
I0501 21:15:32.504729 14793 solver.cpp:181] Creating test net (#0) specified by net file: ./protocol/dis_20_400_dimension.protocol_distribution
I0501 21:15:32.504758 14793 net.cpp:323] The NetState phase (1) differed from the phase (0) specified by a rule in layer parameters
I0501 21:15:32.504859 14793 net.cpp:52] Initializing net from parameters: 
state {
  phase: TEST
}
layer {
  name: "intercept"
  type: "HDF5Data"
  top: "data"
  top: "label"
  include {
    phase: TEST
  }
  hdf5_data_param {
    source: "/home/purduethu/scratch/radon/d/deng106/CNNStatisticalModel/distributions/input/20_distributions_400_sample_size_test-distributions-path.txt"
    batch_size: 20
  }
}
layer {
  name: "conv1"
  type: "Convolution"
  bottom: "data"
  top: "conv1"
  param {
    lr_mult: 1
  }
  param {
    lr_mult: 2
  }
  convolution_param {
    num_output: 64
    pad: 2
    kernel_size: 5
    stride: 1
    weight_filler {
      type: "gaussian"
      std: 0.0001
    }
    bias_filler {
      type: "constant"
    }
  }
}
layer {
  name: "relu1"
  type: "ReLU"
  bottom: "conv1"
  top: "conv1"
}
layer {
  name: "conv2"
  type: "Convolution"
  bottom: "conv1"
  top: "conv2"
  param {
    lr_mult: 1
  }
  param {
    lr_mult: 2
  }
  convolution_param {
    num_output: 64
    pad: 2
    kernel_size: 5
    stride: 1
    weight_filler {
      type: "gaussian"
      std: 0.01
    }
    bias_filler {
      type: "constant"
    }
  }
}
layer {
  name: "relu2"
  type: "ReLU"
  bottom: "conv2"
  top: "conv2"
}
layer {
  name: "pool2"
  type: "Pooling"
  bottom: "conv2"
  top: "pool2"
  pooling_param {
    pool: MAX
    kernel_size: 3
    stride: 2
  }
}
layer {
  name: "conv3"
  type: "Convolution"
  bottom: "pool2"
  top: "conv3"
  param {
    lr_mult: 1
  }
  param {
    lr_mult: 2
  }
  convolution_param {
    num_output: 64
    pad: 2
    kernel_size: 5
    stride: 1
    weight_filler {
      type: "gaussian"
      std: 0.01
    }
    bias_filler {
      type: "constant"
    }
  }
}
layer {
  name: "relu3"
  type: "ReLU"
  bottom: "conv3"
  top: "conv3"
}
layer {
  name: "conv4"
  type: "Convolution"
  bottom: "conv3"
  top: "conv4"
  param {
    lr_mult: 1
  }
  param {
    lr_mult: 2
  }
  convolution_param {
    num_output: 64
    pad: 2
    kernel_size: 5
    stride: 1
    weight_filler {
      type: "gaussian"
      std: 0.01
    }
    bias_filler {
      type: "constant"
    }
  }
}
layer {
  name: "relu4"
  type: "ReLU"
  bottom: "conv4"
  top: "conv4"
}
layer {
  name: "conv5"
  type: "Convolution"
  bottom: "conv4"
  top: "conv5"
  param {
    lr_mult: 1
  }
  param {
    lr_mult: 2
  }
  convolution_param {
    num_output: 64
    pad: 2
    kernel_size: 5
    stride: 1
    weight_filler {
      type: "gaussian"
      std: 0.01
    }
    bias_filler {
      type: "constant"
    }
  }
}
layer {
  name: "relu5"
  type: "ReLU"
  bottom: "conv5"
  top: "conv5"
}
layer {
  name: "pool5"
  type: "Pooling"
  bottom: "conv5"
  top: "pool5"
  pooling_param {
    pool: AVE
    kernel_size: 3
    stride: 2
  }
}
layer {
  name: "ip1"
  type: "InnerProduct"
  bottom: "pool5"
  top: "ip1"
  param {
    lr_mult: 1
  }
  param {
    lr_mult: 2
  }
  inner_product_param {
    num_output: 64
    weight_filler {
      type: "gaussian"
      std: 0.1
    }
    bias_filler {
      type: "constant"
    }
  }
}
layer {
  name: "ip2"
  type: "InnerProduct"
  bottom: "ip1"
  top: "ip2"
  param {
    lr_mult: 1
  }
  param {
    lr_mult: 2
  }
  inner_product_param {
    num_output: 64
    weight_filler {
      type: "gaussian"
      std: 0.1
    }
    bias_filler {
      type: "constant"
    }
  }
}
layer {
  name: "ip3"
  type: "InnerProduct"
  bottom: "ip2"
  top: "ip3"
  param {
    lr_mult: 1
  }
  param {
    lr_mult: 2
  }
  inner_product_param {
    num_output: 50
    weight_filler {
      type: "gaussian"
      std: 0.1
    }
    bias_filler {
      type: "constant"
    }
  }
}
layer {
  name: "accuracy"
  type: "Accuracy"
  bottom: "ip3"
  bottom: "label"
  top: "accuracy"
  include {
    phase: TEST
  }
}
layer {
  name: "loss"
  type: "SoftmaxWithLoss"
  bottom: "ip3"
  bottom: "label"
  top: "loss"
}
I0501 21:15:32.504932 14793 layer_factory.hpp:77] Creating layer intercept
I0501 21:15:32.504941 14793 net.cpp:94] Creating Layer intercept
I0501 21:15:32.504945 14793 net.cpp:409] intercept -> data
I0501 21:15:32.504952 14793 net.cpp:409] intercept -> label
I0501 21:15:32.504959 14793 hdf5_data_layer.cpp:79] Loading list of HDF5 filenames from: /home/purduethu/scratch/radon/d/deng106/CNNStatisticalModel/distributions/input/20_distributions_400_sample_size_test-distributions-path.txt
I0501 21:15:32.504978 14793 hdf5_data_layer.cpp:93] Number of HDF5 files: 1
I0501 21:15:32.572304 14793 net.cpp:144] Setting up intercept
I0501 21:15:32.572335 14793 net.cpp:151] Top shape: 20 1 20 20 (8000)
I0501 21:15:32.572341 14793 net.cpp:151] Top shape: 20 (20)
I0501 21:15:32.572345 14793 net.cpp:159] Memory required for data: 32080
I0501 21:15:32.572351 14793 layer_factory.hpp:77] Creating layer label_intercept_1_split
I0501 21:15:32.572367 14793 net.cpp:94] Creating Layer label_intercept_1_split
I0501 21:15:32.572372 14793 net.cpp:435] label_intercept_1_split <- label
I0501 21:15:32.572378 14793 net.cpp:409] label_intercept_1_split -> label_intercept_1_split_0
I0501 21:15:32.572387 14793 net.cpp:409] label_intercept_1_split -> label_intercept_1_split_1
I0501 21:15:32.572420 14793 net.cpp:144] Setting up label_intercept_1_split
I0501 21:15:32.572427 14793 net.cpp:151] Top shape: 20 (20)
I0501 21:15:32.572432 14793 net.cpp:151] Top shape: 20 (20)
I0501 21:15:32.572435 14793 net.cpp:159] Memory required for data: 32240
I0501 21:15:32.572438 14793 layer_factory.hpp:77] Creating layer conv1
I0501 21:15:32.572449 14793 net.cpp:94] Creating Layer conv1
I0501 21:15:32.572453 14793 net.cpp:435] conv1 <- data
I0501 21:15:32.572458 14793 net.cpp:409] conv1 -> conv1
I0501 21:15:32.573531 14793 net.cpp:144] Setting up conv1
I0501 21:15:32.573554 14793 net.cpp:151] Top shape: 20 64 20 20 (512000)
I0501 21:15:32.573559 14793 net.cpp:159] Memory required for data: 2080240
I0501 21:15:32.573567 14793 layer_factory.hpp:77] Creating layer relu1
I0501 21:15:32.573575 14793 net.cpp:94] Creating Layer relu1
I0501 21:15:32.573578 14793 net.cpp:435] relu1 <- conv1
I0501 21:15:32.573582 14793 net.cpp:396] relu1 -> conv1 (in-place)
I0501 21:15:32.573590 14793 net.cpp:144] Setting up relu1
I0501 21:15:32.573596 14793 net.cpp:151] Top shape: 20 64 20 20 (512000)
I0501 21:15:32.573598 14793 net.cpp:159] Memory required for data: 4128240
I0501 21:15:32.573601 14793 layer_factory.hpp:77] Creating layer conv2
I0501 21:15:32.573611 14793 net.cpp:94] Creating Layer conv2
I0501 21:15:32.573613 14793 net.cpp:435] conv2 <- conv1
I0501 21:15:32.573618 14793 net.cpp:409] conv2 -> conv2
I0501 21:15:32.580466 14793 net.cpp:144] Setting up conv2
I0501 21:15:32.580480 14793 net.cpp:151] Top shape: 20 64 20 20 (512000)
I0501 21:15:32.580484 14793 net.cpp:159] Memory required for data: 6176240
I0501 21:15:32.580493 14793 layer_factory.hpp:77] Creating layer relu2
I0501 21:15:32.580499 14793 net.cpp:94] Creating Layer relu2
I0501 21:15:32.580502 14793 net.cpp:435] relu2 <- conv2
I0501 21:15:32.580507 14793 net.cpp:396] relu2 -> conv2 (in-place)
I0501 21:15:32.580514 14793 net.cpp:144] Setting up relu2
I0501 21:15:32.580519 14793 net.cpp:151] Top shape: 20 64 20 20 (512000)
I0501 21:15:32.580523 14793 net.cpp:159] Memory required for data: 8224240
I0501 21:15:32.580525 14793 layer_factory.hpp:77] Creating layer pool2
I0501 21:15:32.580533 14793 net.cpp:94] Creating Layer pool2
I0501 21:15:32.580535 14793 net.cpp:435] pool2 <- conv2
I0501 21:15:32.580539 14793 net.cpp:409] pool2 -> pool2
I0501 21:15:32.580585 14793 net.cpp:144] Setting up pool2
I0501 21:15:32.580593 14793 net.cpp:151] Top shape: 20 64 10 10 (128000)
I0501 21:15:32.580597 14793 net.cpp:159] Memory required for data: 8736240
I0501 21:15:32.580600 14793 layer_factory.hpp:77] Creating layer conv3
I0501 21:15:32.580610 14793 net.cpp:94] Creating Layer conv3
I0501 21:15:32.580612 14793 net.cpp:435] conv3 <- pool2
I0501 21:15:32.580617 14793 net.cpp:409] conv3 -> conv3
I0501 21:15:32.584509 14793 net.cpp:144] Setting up conv3
I0501 21:15:32.584523 14793 net.cpp:151] Top shape: 20 64 10 10 (128000)
I0501 21:15:32.584527 14793 net.cpp:159] Memory required for data: 9248240
I0501 21:15:32.584535 14793 layer_factory.hpp:77] Creating layer relu3
I0501 21:15:32.584542 14793 net.cpp:94] Creating Layer relu3
I0501 21:15:32.584547 14793 net.cpp:435] relu3 <- conv3
I0501 21:15:32.584559 14793 net.cpp:396] relu3 -> conv3 (in-place)
I0501 21:15:32.584568 14793 net.cpp:144] Setting up relu3
I0501 21:15:32.584573 14793 net.cpp:151] Top shape: 20 64 10 10 (128000)
I0501 21:15:32.584576 14793 net.cpp:159] Memory required for data: 9760240
I0501 21:15:32.584579 14793 layer_factory.hpp:77] Creating layer conv4
I0501 21:15:32.584588 14793 net.cpp:94] Creating Layer conv4
I0501 21:15:32.584590 14793 net.cpp:435] conv4 <- conv3
I0501 21:15:32.584595 14793 net.cpp:409] conv4 -> conv4
I0501 21:15:32.588078 14793 net.cpp:144] Setting up conv4
I0501 21:15:32.588091 14793 net.cpp:151] Top shape: 20 64 10 10 (128000)
I0501 21:15:32.588095 14793 net.cpp:159] Memory required for data: 10272240
I0501 21:15:32.588101 14793 layer_factory.hpp:77] Creating layer relu4
I0501 21:15:32.588107 14793 net.cpp:94] Creating Layer relu4
I0501 21:15:32.588114 14793 net.cpp:435] relu4 <- conv4
I0501 21:15:32.588120 14793 net.cpp:396] relu4 -> conv4 (in-place)
I0501 21:15:32.588127 14793 net.cpp:144] Setting up relu4
I0501 21:15:32.588132 14793 net.cpp:151] Top shape: 20 64 10 10 (128000)
I0501 21:15:32.588135 14793 net.cpp:159] Memory required for data: 10784240
I0501 21:15:32.588138 14793 layer_factory.hpp:77] Creating layer conv5
I0501 21:15:32.588146 14793 net.cpp:94] Creating Layer conv5
I0501 21:15:32.588150 14793 net.cpp:435] conv5 <- conv4
I0501 21:15:32.588155 14793 net.cpp:409] conv5 -> conv5
I0501 21:15:32.592700 14793 net.cpp:144] Setting up conv5
I0501 21:15:32.592720 14793 net.cpp:151] Top shape: 20 64 10 10 (128000)
I0501 21:15:32.592725 14793 net.cpp:159] Memory required for data: 11296240
I0501 21:15:32.592733 14793 layer_factory.hpp:77] Creating layer relu5
I0501 21:15:32.592739 14793 net.cpp:94] Creating Layer relu5
I0501 21:15:32.592743 14793 net.cpp:435] relu5 <- conv5
I0501 21:15:32.592748 14793 net.cpp:396] relu5 -> conv5 (in-place)
I0501 21:15:32.592756 14793 net.cpp:144] Setting up relu5
I0501 21:15:32.592761 14793 net.cpp:151] Top shape: 20 64 10 10 (128000)
I0501 21:15:32.592763 14793 net.cpp:159] Memory required for data: 11808240
I0501 21:15:32.592767 14793 layer_factory.hpp:77] Creating layer pool5
I0501 21:15:32.592772 14793 net.cpp:94] Creating Layer pool5
I0501 21:15:32.592775 14793 net.cpp:435] pool5 <- conv5
I0501 21:15:32.592779 14793 net.cpp:409] pool5 -> pool5
I0501 21:15:32.592805 14793 net.cpp:144] Setting up pool5
I0501 21:15:32.592813 14793 net.cpp:151] Top shape: 20 64 5 5 (32000)
I0501 21:15:32.592815 14793 net.cpp:159] Memory required for data: 11936240
I0501 21:15:32.592818 14793 layer_factory.hpp:77] Creating layer ip1
I0501 21:15:32.592825 14793 net.cpp:94] Creating Layer ip1
I0501 21:15:32.592829 14793 net.cpp:435] ip1 <- pool5
I0501 21:15:32.592834 14793 net.cpp:409] ip1 -> ip1
I0501 21:15:32.595393 14793 net.cpp:144] Setting up ip1
I0501 21:15:32.595401 14793 net.cpp:151] Top shape: 20 64 (1280)
I0501 21:15:32.595404 14793 net.cpp:159] Memory required for data: 11941360
I0501 21:15:32.595410 14793 layer_factory.hpp:77] Creating layer ip2
I0501 21:15:32.595417 14793 net.cpp:94] Creating Layer ip2
I0501 21:15:32.595420 14793 net.cpp:435] ip2 <- ip1
I0501 21:15:32.595425 14793 net.cpp:409] ip2 -> ip2
I0501 21:15:32.595597 14793 net.cpp:144] Setting up ip2
I0501 21:15:32.595602 14793 net.cpp:151] Top shape: 20 64 (1280)
I0501 21:15:32.595607 14793 net.cpp:159] Memory required for data: 11946480
I0501 21:15:32.595612 14793 layer_factory.hpp:77] Creating layer ip3
I0501 21:15:32.595618 14793 net.cpp:94] Creating Layer ip3
I0501 21:15:32.595621 14793 net.cpp:435] ip3 <- ip2
I0501 21:15:32.595626 14793 net.cpp:409] ip3 -> ip3
I0501 21:15:32.595774 14793 net.cpp:144] Setting up ip3
I0501 21:15:32.595782 14793 net.cpp:151] Top shape: 20 50 (1000)
I0501 21:15:32.595784 14793 net.cpp:159] Memory required for data: 11950480
I0501 21:15:32.595789 14793 layer_factory.hpp:77] Creating layer ip3_ip3_0_split
I0501 21:15:32.595794 14793 net.cpp:94] Creating Layer ip3_ip3_0_split
I0501 21:15:32.595798 14793 net.cpp:435] ip3_ip3_0_split <- ip3
I0501 21:15:32.595803 14793 net.cpp:409] ip3_ip3_0_split -> ip3_ip3_0_split_0
I0501 21:15:32.595808 14793 net.cpp:409] ip3_ip3_0_split -> ip3_ip3_0_split_1
I0501 21:15:32.595834 14793 net.cpp:144] Setting up ip3_ip3_0_split
I0501 21:15:32.595839 14793 net.cpp:151] Top shape: 20 50 (1000)
I0501 21:15:32.595842 14793 net.cpp:151] Top shape: 20 50 (1000)
I0501 21:15:32.595845 14793 net.cpp:159] Memory required for data: 11958480
I0501 21:15:32.595849 14793 layer_factory.hpp:77] Creating layer accuracy
I0501 21:15:32.595859 14793 net.cpp:94] Creating Layer accuracy
I0501 21:15:32.595862 14793 net.cpp:435] accuracy <- ip3_ip3_0_split_0
I0501 21:15:32.595866 14793 net.cpp:435] accuracy <- label_intercept_1_split_0
I0501 21:15:32.595871 14793 net.cpp:409] accuracy -> accuracy
…
