…
I0507 13:52:09.039058  2260 net.cpp:323] The NetState phase (0) differed from the phase (1) specified by a rule in layer intercept
I0507 13:52:09.039074  2260 net.cpp:323] The NetState phase (0) differed from the phase (1) specified by a rule in layer loss
I0507 13:52:09.039151  2260 net.cpp:52] Initializing net from parameters: 
state {
  phase: TRAIN
}
layer {
  name: "parameters"
  type: "HDF5Data"
  top: "data"
  top: "label"
  include {
    phase: TRAIN
  }
  hdf5_data_param {
    source: "/home/purduethu/scratch/radon/d/deng106/CNNStatisticalModel/distributions/input/5_distributions_400_sample_size_train-parameters-path.txt"
    batch_size: 20
  }
}
layer {
  name: "conv1"
  type: "Convolution"
  bottom: "data"
  top: "conv1"
  param {
    lr_mult: 1
  }
  param {
    lr_mult: 2
  }
  convolution_param {
    num_output: 64
    pad: 2
    kernel_size: 5
    stride: 1
    weight_filler {
      type: "gaussian"
      std: 0.0001
    }
    bias_filler {
      type: "constant"
    }
  }
}
layer {
  name: "relu1"
  type: "ReLU"
  bottom: "conv1"
  top: "conv1"
}
layer {
  name: "conv2"
  type: "Convolution"
  bottom: "conv1"
  top: "conv2"
  param {
    lr_mult: 1
  }
  param {
    lr_mult: 2
  }
  convolution_param {
    num_output: 64
    pad: 2
    kernel_size: 5
    stride: 1
    weight_filler {
      type: "gaussian"
      std: 0.01
    }
    bias_filler {
      type: "constant"
    }
  }
}
layer {
  name: "relu2"
  type: "ReLU"
  bottom: "conv2"
  top: "conv2"
}
layer {
  name: "pool2"
  type: "Pooling"
  bottom: "conv2"
  top: "pool2"
  pooling_param {
    pool: MAX
    kernel_size: 3
    stride: 2
  }
}
layer {
  name: "conv3"
  type: "Convolution"
  bottom: "pool2"
  top: "conv3"
  param {
    lr_mult: 1
  }
  param {
    lr_mult: 2
  }
  convolution_param {
    num_output: 64
    pad: 2
    kernel_size: 5
    stride: 1
    weight_filler {
      type: "gaussian"
      std: 0.01
    }
    bias_filler {
      type: "constant"
    }
  }
}
layer {
  name: "relu3"
  type: "ReLU"
  bottom: "conv3"
  top: "conv3"
}
layer {
  name: "conv4"
  type: "Convolution"
  bottom: "conv3"
  top: "conv4"
  param {
    lr_mult: 1
  }
  param {
    lr_mult: 2
  }
  convolution_param {
    num_output: 64
    pad: 2
    kernel_size: 5
    stride: 1
    weight_filler {
      type: "gaussian"
      std: 0.01
    }
    bias_filler {
      type: "constant"
    }
  }
}
layer {
  name: "relu4"
  type: "ReLU"
  bottom: "conv4"
  top: "conv4"
}
layer {
  name: "conv5"
  type: "Convolution"
  bottom: "conv4"
  top: "conv5"
  param {
    lr_mult: 1
  }
  param {
    lr_mult: 2
  }
  convolution_param {
    num_output: 64
    pad: 2
    kernel_size: 5
    stride: 1
    weight_filler {
      type: "gaussian"
      std: 0.01
    }
    bias_filler {
      type: "constant"
    }
  }
}
layer {
  name: "relu5"
  type: "ReLU"
  bottom: "conv5"
  top: "conv5"
}
layer {
  name: "pool5"
  type: "Pooling"
  bottom: "conv5"
  top: "pool5"
  pooling_param {
    pool: AVE
    kernel_size: 3
    stride: 2
  }
}
layer {
  name: "ip1"
  type: "InnerProduct"
  bottom: "pool5"
  top: "ip1"
  param {
    lr_mult: 1
  }
  param {
    lr_mult: 2
  }
  inner_product_param {
    num_output: 64
    weight_filler {
      type: "gaussian"
      std: 0.1
    }
    bias_filler {
      type: "constant"
    }
  }
}
layer {
  name: "ip2"
  type: "InnerProduct"
  bottom: "ip1"
  top: "ip2"
  param {
    lr_mult: 1
  }
  param {
    lr_mult: 2
  }
  inner_product_param {
    num_output: 64
    weight_filler {
      type: "gaussian"
      std: 0.1
    }
    bias_filler {
      type: "constant"
    }
  }
}
layer {
  name: "ip3"
  type: "InnerProduct"
  bottom: "ip2"
  top: "ip3"
  param {
    lr_mult: 1
  }
  param {
    lr_mult: 2
  }
  inner_product_param {
    num_output: 1
    weight_filler {
      type: "gaussian"
      std: 0.1
    }
    bias_filler {
      type: "constant"
    }
  }
}
layer {
  name: "loss"
  type: "HuberLoss"
  bottom: "ip3"
  bottom: "label"
  top: "loss"
  include {
    phase: TRAIN
  }
}
I0507 13:52:09.039206  2260 layer_factory.hpp:77] Creating layer parameters
I0507 13:52:09.039218  2260 net.cpp:94] Creating Layer parameters
I0507 13:52:09.039222  2260 net.cpp:409] parameters -> data
I0507 13:52:09.039235  2260 net.cpp:409] parameters -> label
I0507 13:52:09.039242  2260 hdf5_data_layer.cpp:79] Loading list of HDF5 filenames from: /home/purduethu/scratch/radon/d/deng106/CNNStatisticalModel/distributions/input/5_distributions_400_sample_size_train-parameters-path.txt
I0507 13:52:09.039260  2260 hdf5_data_layer.cpp:93] Number of HDF5 files: 1
I0507 13:52:09.039819  2260 hdf5.cpp:32] Datatype class: H5T_FLOAT
I0507 13:52:09.107496  2260 net.cpp:144] Setting up parameters
I0507 13:52:09.107528  2260 net.cpp:151] Top shape: 20 1 20 20 (8000)
I0507 13:52:09.107533  2260 net.cpp:151] Top shape: 20 (20)
I0507 13:52:09.107537  2260 net.cpp:159] Memory required for data: 32080
I0507 13:52:09.107543  2260 layer_factory.hpp:77] Creating layer conv1
I0507 13:52:09.107560  2260 net.cpp:94] Creating Layer conv1
I0507 13:52:09.107564  2260 net.cpp:435] conv1 <- data
I0507 13:52:09.107570  2260 net.cpp:409] conv1 -> conv1
I0507 13:52:09.112792  2260 net.cpp:144] Setting up conv1
I0507 13:52:09.112805  2260 net.cpp:151] Top shape: 20 64 20 20 (512000)
I0507 13:52:09.112809  2260 net.cpp:159] Memory required for data: 2080080
I0507 13:52:09.112819  2260 layer_factory.hpp:77] Creating layer relu1
I0507 13:52:09.112828  2260 net.cpp:94] Creating Layer relu1
I0507 13:52:09.112830  2260 net.cpp:435] relu1 <- conv1
I0507 13:52:09.112835  2260 net.cpp:396] relu1 -> conv1 (in-place)
I0507 13:52:09.112843  2260 net.cpp:144] Setting up relu1
I0507 13:52:09.112848  2260 net.cpp:151] Top shape: 20 64 20 20 (512000)
I0507 13:52:09.112850  2260 net.cpp:159] Memory required for data: 4128080
I0507 13:52:09.112854  2260 layer_factory.hpp:77] Creating layer conv2
I0507 13:52:09.112860  2260 net.cpp:94] Creating Layer conv2
I0507 13:52:09.112864  2260 net.cpp:435] conv2 <- conv1
I0507 13:52:09.112869  2260 net.cpp:409] conv2 -> conv2
I0507 13:52:09.123184  2260 net.cpp:144] Setting up conv2
I0507 13:52:09.123200  2260 net.cpp:151] Top shape: 20 64 20 20 (512000)
I0507 13:52:09.123204  2260 net.cpp:159] Memory required for data: 6176080
I0507 13:52:09.123211  2260 layer_factory.hpp:77] Creating layer relu2
I0507 13:52:09.123219  2260 net.cpp:94] Creating Layer relu2
I0507 13:52:09.123222  2260 net.cpp:435] relu2 <- conv2
I0507 13:52:09.123226  2260 net.cpp:396] relu2 -> conv2 (in-place)
I0507 13:52:09.123234  2260 net.cpp:144] Setting up relu2
I0507 13:52:09.123237  2260 net.cpp:151] Top shape: 20 64 20 20 (512000)
I0507 13:52:09.123240  2260 net.cpp:159] Memory required for data: 8224080
I0507 13:52:09.123244  2260 layer_factory.hpp:77] Creating layer pool2
I0507 13:52:09.123256  2260 net.cpp:94] Creating Layer pool2
I0507 13:52:09.123260  2260 net.cpp:435] pool2 <- conv2
I0507 13:52:09.123265  2260 net.cpp:409] pool2 -> pool2
I0507 13:52:09.123317  2260 net.cpp:144] Setting up pool2
I0507 13:52:09.123324  2260 net.cpp:151] Top shape: 20 64 10 10 (128000)
I0507 13:52:09.123327  2260 net.cpp:159] Memory required for data: 8736080
I0507 13:52:09.123332  2260 layer_factory.hpp:77] Creating layer conv3
I0507 13:52:09.123338  2260 net.cpp:94] Creating Layer conv3
I0507 13:52:09.123342  2260 net.cpp:435] conv3 <- pool2
I0507 13:52:09.123347  2260 net.cpp:409] conv3 -> conv3
I0507 13:52:09.128492  2260 net.cpp:144] Setting up conv3
I0507 13:52:09.128506  2260 net.cpp:151] Top shape: 20 64 10 10 (128000)
I0507 13:52:09.128510  2260 net.cpp:159] Memory required for data: 9248080
I0507 13:52:09.128518  2260 layer_factory.hpp:77] Creating layer relu3
I0507 13:52:09.128525  2260 net.cpp:94] Creating Layer relu3
I0507 13:52:09.128528  2260 net.cpp:435] relu3 <- conv3
I0507 13:52:09.128532  2260 net.cpp:396] relu3 -> conv3 (in-place)
I0507 13:52:09.128540  2260 net.cpp:144] Setting up relu3
I0507 13:52:09.128543  2260 net.cpp:151] Top shape: 20 64 10 10 (128000)
I0507 13:52:09.128546  2260 net.cpp:159] Memory required for data: 9760080
I0507 13:52:09.128557  2260 layer_factory.hpp:77] Creating layer conv4
I0507 13:52:09.128567  2260 net.cpp:94] Creating Layer conv4
I0507 13:52:09.128571  2260 net.cpp:435] conv4 <- conv3
I0507 13:52:09.128576  2260 net.cpp:409] conv4 -> conv4
I0507 13:52:09.133711  2260 net.cpp:144] Setting up conv4
I0507 13:52:09.133725  2260 net.cpp:151] Top shape: 20 64 10 10 (128000)
I0507 13:52:09.133729  2260 net.cpp:159] Memory required for data: 10272080
I0507 13:52:09.133735  2260 layer_factory.hpp:77] Creating layer relu4
I0507 13:52:09.133741  2260 net.cpp:94] Creating Layer relu4
I0507 13:52:09.133745  2260 net.cpp:435] relu4 <- conv4
I0507 13:52:09.133749  2260 net.cpp:396] relu4 -> conv4 (in-place)
I0507 13:52:09.133756  2260 net.cpp:144] Setting up relu4
I0507 13:52:09.133760  2260 net.cpp:151] Top shape: 20 64 10 10 (128000)
I0507 13:52:09.133764  2260 net.cpp:159] Memory required for data: 10784080
I0507 13:52:09.133767  2260 layer_factory.hpp:77] Creating layer conv5
I0507 13:52:09.133775  2260 net.cpp:94] Creating Layer conv5
I0507 13:52:09.133779  2260 net.cpp:435] conv5 <- conv4
I0507 13:52:09.133783  2260 net.cpp:409] conv5 -> conv5
I0507 13:52:09.138933  2260 net.cpp:144] Setting up conv5
I0507 13:52:09.138947  2260 net.cpp:151] Top shape: 20 64 10 10 (128000)
I0507 13:52:09.138950  2260 net.cpp:159] Memory required for data: 11296080
I0507 13:52:09.138959  2260 layer_factory.hpp:77] Creating layer relu5
I0507 13:52:09.138965  2260 net.cpp:94] Creating Layer relu5
I0507 13:52:09.138968  2260 net.cpp:435] relu5 <- conv5
I0507 13:52:09.138972  2260 net.cpp:396] relu5 -> conv5 (in-place)
I0507 13:52:09.138979  2260 net.cpp:144] Setting up relu5
I0507 13:52:09.138983  2260 net.cpp:151] Top shape: 20 64 10 10 (128000)
I0507 13:52:09.138986  2260 net.cpp:159] Memory required for data: 11808080
I0507 13:52:09.138989  2260 layer_factory.hpp:77] Creating layer pool5
I0507 13:52:09.138995  2260 net.cpp:94] Creating Layer pool5
I0507 13:52:09.138999  2260 net.cpp:435] pool5 <- conv5
I0507 13:52:09.139003  2260 net.cpp:409] pool5 -> pool5
I0507 13:52:09.139041  2260 net.cpp:144] Setting up pool5
I0507 13:52:09.139048  2260 net.cpp:151] Top shape: 20 64 5 5 (32000)
I0507 13:52:09.139051  2260 net.cpp:159] Memory required for data: 11936080
I0507 13:52:09.139055  2260 layer_factory.hpp:77] Creating layer ip1
I0507 13:52:09.139063  2260 net.cpp:94] Creating Layer ip1
I0507 13:52:09.139067  2260 net.cpp:435] ip1 <- pool5
I0507 13:52:09.139072  2260 net.cpp:409] ip1 -> ip1
I0507 13:52:09.141609  2260 net.cpp:144] Setting up ip1
I0507 13:52:09.141618  2260 net.cpp:151] Top shape: 20 64 (1280)
I0507 13:52:09.141621  2260 net.cpp:159] Memory required for data: 11941200
I0507 13:52:09.141628  2260 layer_factory.hpp:77] Creating layer ip2
I0507 13:52:09.141633  2260 net.cpp:94] Creating Layer ip2
I0507 13:52:09.141639  2260 net.cpp:435] ip2 <- ip1
I0507 13:52:09.141646  2260 net.cpp:409] ip2 -> ip2
I0507 13:52:09.141855  2260 net.cpp:144] Setting up ip2
I0507 13:52:09.141862  2260 net.cpp:151] Top shape: 20 64 (1280)
I0507 13:52:09.141865  2260 net.cpp:159] Memory required for data: 11946320
I0507 13:52:09.141870  2260 layer_factory.hpp:77] Creating layer ip3
I0507 13:52:09.141876  2260 net.cpp:94] Creating Layer ip3
I0507 13:52:09.141880  2260 net.cpp:435] ip3 <- ip2
I0507 13:52:09.141885  2260 net.cpp:409] ip3 -> ip3
I0507 13:52:09.141988  2260 net.cpp:144] Setting up ip3
I0507 13:52:09.141993  2260 net.cpp:151] Top shape: 20 1 (20)
I0507 13:52:09.141996  2260 net.cpp:159] Memory required for data: 11946400
I0507 13:52:09.142001  2260 layer_factory.hpp:77] Creating layer loss
I0507 13:52:09.142011  2260 net.cpp:94] Creating Layer loss
I0507 13:52:09.142015  2260 net.cpp:435] loss <- ip3
I0507 13:52:09.142019  2260 net.cpp:435] loss <- label
I0507 13:52:09.142024  2260 net.cpp:409] loss -> loss
I0507 13:52:09.142076  2260 net.cpp:144] Setting up loss
…
I0507 13:52:09.182261  2260 net.cpp:323] The NetState phase (0) differed from the phase (1) specified by a rule in layer intercept
I0507 13:52:09.182279  2260 net.cpp:323] The NetState phase (0) differed from the phase (1) specified by a rule in layer accuracy
I0507 13:52:09.182368  2260 net.cpp:52] Initializing net from parameters: 
state {
  phase: TRAIN
}
layer {
  name: "parameters"
  type: "HDF5Data"
  top: "data"
  top: "label"
  include {
    phase: TRAIN
  }
  hdf5_data_param {
    source: "/home/purduethu/scratch/radon/d/deng106/CNNStatisticalModel/distributions/input/5_distributions_400_sample_size_train-distributions-path.txt"
    batch_size: 20
  }
}
layer {
  name: "conv1"
  type: "Convolution"
  bottom: "data"
  top: "conv1"
  param {
    lr_mult: 1
  }
  param {
    lr_mult: 2
  }
  convolution_param {
    num_output: 64
    pad: 2
    kernel_size: 5
    stride: 1
    weight_filler {
      type: "gaussian"
      std: 0.0001
    }
    bias_filler {
      type: "constant"
    }
  }
}
layer {
  name: "relu1"
  type: "ReLU"
  bottom: "conv1"
  top: "conv1"
}
layer {
  name: "conv2"
  type: "Convolution"
  bottom: "conv1"
  top: "conv2"
  param {
    lr_mult: 1
  }
  param {
    lr_mult: 2
  }
  convolution_param {
    num_output: 64
    pad: 2
    kernel_size: 5
    stride: 1
    weight_filler {
      type: "gaussian"
      std: 0.01
    }
    bias_filler {
      type: "constant"
    }
  }
}
layer {
  name: "relu2"
  type: "ReLU"
  bottom: "conv2"
  top: "conv2"
}
layer {
  name: "pool2"
  type: "Pooling"
  bottom: "conv2"
  top: "pool2"
  pooling_param {
    pool: MAX
    kernel_size: 3
    stride: 2
  }
}
layer {
  name: "conv3"
  type: "Convolution"
  bottom: "pool2"
  top: "conv3"
  param {
    lr_mult: 1
  }
  param {
    lr_mult: 2
  }
  convolution_param {
    num_output: 64
    pad: 2
    kernel_size: 5
    stride: 1
    weight_filler {
      type: "gaussian"
      std: 0.01
    }
    bias_filler {
      type: "constant"
    }
  }
}
layer {
  name: "relu3"
  type: "ReLU"
  bottom: "conv3"
  top: "conv3"
}
layer {
  name: "conv4"
  type: "Convolution"
  bottom: "conv3"
  top: "conv4"
  param {
    lr_mult: 1
  }
  param {
    lr_mult: 2
  }
  convolution_param {
    num_output: 64
    pad: 2
    kernel_size: 5
    stride: 1
    weight_filler {
      type: "gaussian"
      std: 0.01
    }
    bias_filler {
      type: "constant"
    }
  }
}
layer {
  name: "relu4"
  type: "ReLU"
  bottom: "conv4"
  top: "conv4"
}
layer {
  name: "conv5"
  type: "Convolution"
  bottom: "conv4"
  top: "conv5"
  param {
    lr_mult: 1
  }
  param {
    lr_mult: 2
  }
  convolution_param {
    num_output: 64
    pad: 2
    kernel_size: 5
    stride: 1
    weight_filler {
      type: "gaussian"
      std: 0.01
    }
    bias_filler {
      type: "constant"
    }
  }
}
layer {
  name: "relu5"
  type: "ReLU"
  bottom: "conv5"
  top: "conv5"
}
layer {
  name: "pool5"
  type: "Pooling"
  bottom: "conv5"
  top: "pool5"
  pooling_param {
    pool: AVE
    kernel_size: 3
    stride: 2
  }
}
layer {
  name: "ip1"
  type: "InnerProduct"
  bottom: "pool5"
  top: "ip1"
  param {
    lr_mult: 1
  }
  param {
    lr_mult: 2
  }
  inner_product_param {
    num_output: 64
    weight_filler {
      type: "gaussian"
      std: 0.1
    }
    bias_filler {
      type: "constant"
    }
  }
}
layer {
  name: "ip2"
  type: "InnerProduct"
  bottom: "ip1"
  top: "ip2"
  param {
    lr_mult: 1
  }
  param {
    lr_mult: 2
  }
  inner_product_param {
    num_output: 64
    weight_filler {
      type: "gaussian"
      std: 0.1
    }
    bias_filler {
      type: "constant"
    }
  }
}
layer {
  name: "ip3"
  type: "InnerProduct"
  bottom: "ip2"
  top: "ip3"
  param {
    lr_mult: 1
  }
  param {
    lr_mult: 2
  }
  inner_product_param {
    num_output: 50
    weight_filler {
      type: "gaussian"
      std: 0.1
    }
    bias_filler {
      type: "constant"
    }
  }
}
layer {
  name: "loss"
  type: "SoftmaxWithLoss"
  bottom: "ip3"
  bottom: "label"
  top: "loss"
}
I0507 13:52:09.182420  2260 layer_factory.hpp:77] Creating layer parameters
I0507 13:52:09.182428  2260 net.cpp:94] Creating Layer parameters
I0507 13:52:09.182432  2260 net.cpp:409] parameters -> data
I0507 13:52:09.182440  2260 net.cpp:409] parameters -> label
I0507 13:52:09.182446  2260 hdf5_data_layer.cpp:79] Loading list of HDF5 filenames from: /home/purduethu/scratch/radon/d/deng106/CNNStatisticalModel/distributions/input/5_distributions_400_sample_size_train-distributions-path.txt
I0507 13:52:09.182462  2260 hdf5_data_layer.cpp:93] Number of HDF5 files: 1
I0507 13:52:09.243540  2260 hdf5.cpp:35] Datatype class: H5T_INTEGER
I0507 13:52:09.243973  2260 net.cpp:144] Setting up parameters
I0507 13:52:09.243988  2260 net.cpp:151] Top shape: 20 1 20 20 (8000)
I0507 13:52:09.243993  2260 net.cpp:151] Top shape: 20 (20)
I0507 13:52:09.243996  2260 net.cpp:159] Memory required for data: 32080
I0507 13:52:09.244002  2260 layer_factory.hpp:77] Creating layer conv1
I0507 13:52:09.244019  2260 net.cpp:94] Creating Layer conv1
I0507 13:52:09.244022  2260 net.cpp:435] conv1 <- data
I0507 13:52:09.244029  2260 net.cpp:409] conv1 -> conv1
I0507 13:52:09.246718  2260 net.cpp:144] Setting up conv1
I0507 13:52:09.246732  2260 net.cpp:151] Top shape: 20 64 20 20 (512000)
I0507 13:52:09.246737  2260 net.cpp:159] Memory required for data: 2080080
I0507 13:52:09.246747  2260 layer_factory.hpp:77] Creating layer relu1
I0507 13:52:09.246754  2260 net.cpp:94] Creating Layer relu1
I0507 13:52:09.246758  2260 net.cpp:435] relu1 <- conv1
I0507 13:52:09.246763  2260 net.cpp:396] relu1 -> conv1 (in-place)
I0507 13:52:09.246770  2260 net.cpp:144] Setting up relu1
I0507 13:52:09.246774  2260 net.cpp:151] Top shape: 20 64 20 20 (512000)
I0507 13:52:09.246778  2260 net.cpp:159] Memory required for data: 4128080
I0507 13:52:09.246780  2260 layer_factory.hpp:77] Creating layer conv2
I0507 13:52:09.246788  2260 net.cpp:94] Creating Layer conv2
I0507 13:52:09.246793  2260 net.cpp:435] conv2 <- conv1
I0507 13:52:09.246798  2260 net.cpp:409] conv2 -> conv2
I0507 13:52:09.256995  2260 net.cpp:144] Setting up conv2
I0507 13:52:09.257010  2260 net.cpp:151] Top shape: 20 64 20 20 (512000)
I0507 13:52:09.257014  2260 net.cpp:159] Memory required for data: 6176080
I0507 13:52:09.257022  2260 layer_factory.hpp:77] Creating layer relu2
I0507 13:52:09.257030  2260 net.cpp:94] Creating Layer relu2
I0507 13:52:09.257033  2260 net.cpp:435] relu2 <- conv2
I0507 13:52:09.257037  2260 net.cpp:396] relu2 -> conv2 (in-place)
I0507 13:52:09.257045  2260 net.cpp:144] Setting up relu2
I0507 13:52:09.257048  2260 net.cpp:151] Top shape: 20 64 20 20 (512000)
I0507 13:52:09.257051  2260 net.cpp:159] Memory required for data: 8224080
I0507 13:52:09.257055  2260 layer_factory.hpp:77] Creating layer pool2
I0507 13:52:09.257061  2260 net.cpp:94] Creating Layer pool2
I0507 13:52:09.257064  2260 net.cpp:435] pool2 <- conv2
I0507 13:52:09.257068  2260 net.cpp:409] pool2 -> pool2
I0507 13:52:09.257119  2260 net.cpp:144] Setting up pool2
I0507 13:52:09.257127  2260 net.cpp:151] Top shape: 20 64 10 10 (128000)
I0507 13:52:09.257129  2260 net.cpp:159] Memory required for data: 8736080
I0507 13:52:09.257133  2260 layer_factory.hpp:77] Creating layer conv3
I0507 13:52:09.257140  2260 net.cpp:94] Creating Layer conv3
I0507 13:52:09.257143  2260 net.cpp:435] conv3 <- pool2
I0507 13:52:09.257148  2260 net.cpp:409] conv3 -> conv3
I0507 13:52:09.262333  2260 net.cpp:144] Setting up conv3
I0507 13:52:09.262347  2260 net.cpp:151] Top shape: 20 64 10 10 (128000)
I0507 13:52:09.262351  2260 net.cpp:159] Memory required for data: 9248080
I0507 13:52:09.262359  2260 layer_factory.hpp:77] Creating layer relu3
I0507 13:52:09.262365  2260 net.cpp:94] Creating Layer relu3
I0507 13:52:09.262369  2260 net.cpp:435] relu3 <- conv3
I0507 13:52:09.262373  2260 net.cpp:396] relu3 -> conv3 (in-place)
I0507 13:52:09.262380  2260 net.cpp:144] Setting up relu3
I0507 13:52:09.262385  2260 net.cpp:151] Top shape: 20 64 10 10 (128000)
I0507 13:52:09.262388  2260 net.cpp:159] Memory required for data: 9760080
I0507 13:52:09.262392  2260 layer_factory.hpp:77] Creating layer conv4
I0507 13:52:09.262399  2260 net.cpp:94] Creating Layer conv4
I0507 13:52:09.262403  2260 net.cpp:435] conv4 <- conv3
I0507 13:52:09.262408  2260 net.cpp:409] conv4 -> conv4
I0507 13:52:09.267587  2260 net.cpp:144] Setting up conv4
I0507 13:52:09.267601  2260 net.cpp:151] Top shape: 20 64 10 10 (128000)
I0507 13:52:09.267606  2260 net.cpp:159] Memory required for data: 10272080
I0507 13:52:09.267611  2260 layer_factory.hpp:77] Creating layer relu4
I0507 13:52:09.267617  2260 net.cpp:94] Creating Layer relu4
I0507 13:52:09.267621  2260 net.cpp:435] relu4 <- conv4
I0507 13:52:09.267626  2260 net.cpp:396] relu4 -> conv4 (in-place)
I0507 13:52:09.267632  2260 net.cpp:144] Setting up relu4
I0507 13:52:09.267637  2260 net.cpp:151] Top shape: 20 64 10 10 (128000)
I0507 13:52:09.267639  2260 net.cpp:159] Memory required for data: 10784080
I0507 13:52:09.267642  2260 layer_factory.hpp:77] Creating layer conv5
I0507 13:52:09.267650  2260 net.cpp:94] Creating Layer conv5
I0507 13:52:09.267653  2260 net.cpp:435] conv5 <- conv4
I0507 13:52:09.267658  2260 net.cpp:409] conv5 -> conv5
I0507 13:52:09.272848  2260 net.cpp:144] Setting up conv5
I0507 13:52:09.272861  2260 net.cpp:151] Top shape: 20 64 10 10 (128000)
I0507 13:52:09.272866  2260 net.cpp:159] Memory required for data: 11296080
I0507 13:52:09.272873  2260 layer_factory.hpp:77] Creating layer relu5
I0507 13:52:09.272879  2260 net.cpp:94] Creating Layer relu5
I0507 13:52:09.272882  2260 net.cpp:435] relu5 <- conv5
I0507 13:52:09.272887  2260 net.cpp:396] relu5 -> conv5 (in-place)
I0507 13:52:09.272894  2260 net.cpp:144] Setting up relu5
I0507 13:52:09.272898  2260 net.cpp:151] Top shape: 20 64 10 10 (128000)
I0507 13:52:09.272902  2260 net.cpp:159] Memory required for data: 11808080
I0507 13:52:09.272904  2260 layer_factory.hpp:77] Creating layer pool5
I0507 13:52:09.272909  2260 net.cpp:94] Creating Layer pool5
I0507 13:52:09.272912  2260 net.cpp:435] pool5 <- conv5
I0507 13:52:09.272917  2260 net.cpp:409] pool5 -> pool5
I0507 13:52:09.272951  2260 net.cpp:144] Setting up pool5
I0507 13:52:09.272958  2260 net.cpp:151] Top shape: 20 64 5 5 (32000)
I0507 13:52:09.272961  2260 net.cpp:159] Memory required for data: 11936080
I0507 13:52:09.272965  2260 layer_factory.hpp:77] Creating layer ip1
I0507 13:52:09.272971  2260 net.cpp:94] Creating Layer ip1
I0507 13:52:09.272974  2260 net.cpp:435] ip1 <- pool5
I0507 13:52:09.272979  2260 net.cpp:409] ip1 -> ip1
I0507 13:52:09.275519  2260 net.cpp:144] Setting up ip1
I0507 13:52:09.275527  2260 net.cpp:151] Top shape: 20 64 (1280)
I0507 13:52:09.275530  2260 net.cpp:159] Memory required for data: 11941200
I0507 13:52:09.275537  2260 layer_factory.hpp:77] Creating layer ip2
I0507 13:52:09.275542  2260 net.cpp:94] Creating Layer ip2
I0507 13:52:09.275545  2260 net.cpp:435] ip2 <- ip1
I0507 13:52:09.275552  2260 net.cpp:409] ip2 -> ip2
I0507 13:52:09.275770  2260 net.cpp:144] Setting up ip2
I0507 13:52:09.275777  2260 net.cpp:151] Top shape: 20 64 (1280)
I0507 13:52:09.275780  2260 net.cpp:159] Memory required for data: 11946320
I0507 13:52:09.275785  2260 layer_factory.hpp:77] Creating layer ip3
I0507 13:52:09.275792  2260 net.cpp:94] Creating Layer ip3
I0507 13:52:09.275796  2260 net.cpp:435] ip3 <- ip2
I0507 13:52:09.275800  2260 net.cpp:409] ip3 -> ip3
I0507 13:52:09.275995  2260 net.cpp:144] Setting up ip3
I0507 13:52:09.276005  2260 net.cpp:151] Top shape: 20 50 (1000)
I0507 13:52:09.276008  2260 net.cpp:159] Memory required for data: 11950320
I0507 13:52:09.276013  2260 layer_factory.hpp:77] Creating layer loss
I0507 13:52:09.276021  2260 net.cpp:94] Creating Layer loss
I0507 13:52:09.276024  2260 net.cpp:435] loss <- ip3
I0507 13:52:09.276028  2260 net.cpp:435] loss <- label
I0507 13:52:09.276032  2260 net.cpp:409] loss -> loss
I0507 13:52:09.276039  2260 layer_factory.hpp:77] Creating layer loss
…
I0507 13:52:09.276558  2260 solver.cpp:181] Creating test net (#0) specified by net file: ./protocol/dis_5_400_dimension.protocol_distribution
I0507 13:52:09.276587  2260 net.cpp:323] The NetState phase (1) differed from the phase (0) specified by a rule in layer parameters
I0507 13:52:09.276684  2260 net.cpp:52] Initializing net from parameters: 
state {
  phase: TEST
}
layer {
  name: "intercept"
  type: "HDF5Data"
  top: "data"
  top: "label"
  include {
    phase: TEST
  }
  hdf5_data_param {
    source: "/home/purduethu/scratch/radon/d/deng106/CNNStatisticalModel/distributions/input/5_distributions_400_sample_size_test-distributions-path.txt"
    batch_size: 20
  }
}
layer {
  name: "conv1"
  type: "Convolution"
  bottom: "data"
  top: "conv1"
  param {
    lr_mult: 1
  }
  param {
    lr_mult: 2
  }
  convolution_param {
    num_output: 64
    pad: 2
    kernel_size: 5
    stride: 1
    weight_filler {
      type: "gaussian"
      std: 0.0001
    }
    bias_filler {
      type: "constant"
    }
  }
}
layer {
  name: "relu1"
  type: "ReLU"
  bottom: "conv1"
  top: "conv1"
}
layer {
  name: "conv2"
  type: "Convolution"
  bottom: "conv1"
  top: "conv2"
  param {
    lr_mult: 1
  }
  param {
    lr_mult: 2
  }
  convolution_param {
    num_output: 64
    pad: 2
    kernel_size: 5
    stride: 1
    weight_filler {
      type: "gaussian"
      std: 0.01
    }
    bias_filler {
      type: "constant"
    }
  }
}
layer {
  name: "relu2"
  type: "ReLU"
  bottom: "conv2"
  top: "conv2"
}
layer {
  name: "pool2"
  type: "Pooling"
  bottom: "conv2"
  top: "pool2"
  pooling_param {
    pool: MAX
    kernel_size: 3
    stride: 2
  }
}
layer {
  name: "conv3"
  type: "Convolution"
  bottom: "pool2"
  top: "conv3"
  param {
    lr_mult: 1
  }
  param {
    lr_mult: 2
  }
  convolution_param {
    num_output: 64
    pad: 2
    kernel_size: 5
    stride: 1
    weight_filler {
      type: "gaussian"
      std: 0.01
    }
    bias_filler {
      type: "constant"
    }
  }
}
layer {
  name: "relu3"
  type: "ReLU"
  bottom: "conv3"
  top: "conv3"
}
layer {
  name: "conv4"
  type: "Convolution"
  bottom: "conv3"
  top: "conv4"
  param {
    lr_mult: 1
  }
  param {
    lr_mult: 2
  }
  convolution_param {
    num_output: 64
    pad: 2
    kernel_size: 5
    stride: 1
    weight_filler {
      type: "gaussian"
      std: 0.01
    }
    bias_filler {
      type: "constant"
    }
  }
}
layer {
  name: "relu4"
  type: "ReLU"
  bottom: "conv4"
  top: "conv4"
}
layer {
  name: "conv5"
  type: "Convolution"
  bottom: "conv4"
  top: "conv5"
  param {
    lr_mult: 1
  }
  param {
    lr_mult: 2
  }
  convolution_param {
    num_output: 64
    pad: 2
    kernel_size: 5
    stride: 1
    weight_filler {
      type: "gaussian"
      std: 0.01
    }
    bias_filler {
      type: "constant"
    }
  }
}
layer {
  name: "relu5"
  type: "ReLU"
  bottom: "conv5"
  top: "conv5"
}
layer {
  name: "pool5"
  type: "Pooling"
  bottom: "conv5"
  top: "pool5"
  pooling_param {
    pool: AVE
    kernel_size: 3
    stride: 2
  }
}
layer {
  name: "ip1"
  type: "InnerProduct"
  bottom: "pool5"
  top: "ip1"
  param {
    lr_mult: 1
  }
  param {
    lr_mult: 2
  }
  inner_product_param {
    num_output: 64
    weight_filler {
      type: "gaussian"
      std: 0.1
    }
    bias_filler {
      type: "constant"
    }
  }
}
layer {
  name: "ip2"
  type: "InnerProduct"
  bottom: "ip1"
  top: "ip2"
  param {
    lr_mult: 1
  }
  param {
    lr_mult: 2
  }
  inner_product_param {
    num_output: 64
    weight_filler {
      type: "gaussian"
      std: 0.1
    }
    bias_filler {
      type: "constant"
    }
  }
}
layer {
  name: "ip3"
  type: "InnerProduct"
  bottom: "ip2"
  top: "ip3"
  param {
    lr_mult: 1
  }
  param {
    lr_mult: 2
  }
  inner_product_param {
    num_output: 50
    weight_filler {
      type: "gaussian"
      std: 0.1
    }
    bias_filler {
      type: "constant"
    }
  }
}
layer {
  name: "accuracy"
  type: "Accuracy"
  bottom: "ip3"
  bottom: "label"
  top: "accuracy"
  include {
    phase: TEST
  }
}
layer {
  name: "loss"
  type: "SoftmaxWithLoss"
  bottom: "ip3"
  bottom: "label"
  top: "loss"
}
I0507 13:52:09.276754  2260 layer_factory.hpp:77] Creating layer intercept
I0507 13:52:09.276762  2260 net.cpp:94] Creating Layer intercept
I0507 13:52:09.276767  2260 net.cpp:409] intercept -> data
I0507 13:52:09.276773  2260 net.cpp:409] intercept -> label
I0507 13:52:09.276779  2260 hdf5_data_layer.cpp:79] Loading list of HDF5 filenames from: /home/purduethu/scratch/radon/d/deng106/CNNStatisticalModel/distributions/input/5_distributions_400_sample_size_test-distributions-path.txt
I0507 13:52:09.276799  2260 hdf5_data_layer.cpp:93] Number of HDF5 files: 1
I0507 13:52:09.292981  2260 net.cpp:144] Setting up intercept
I0507 13:52:09.293017  2260 net.cpp:151] Top shape: 20 1 20 20 (8000)
I0507 13:52:09.293022  2260 net.cpp:151] Top shape: 20 (20)
I0507 13:52:09.293025  2260 net.cpp:159] Memory required for data: 32080
I0507 13:52:09.293031  2260 layer_factory.hpp:77] Creating layer label_intercept_1_split
I0507 13:52:09.293050  2260 net.cpp:94] Creating Layer label_intercept_1_split
I0507 13:52:09.293053  2260 net.cpp:435] label_intercept_1_split <- label
I0507 13:52:09.293059  2260 net.cpp:409] label_intercept_1_split -> label_intercept_1_split_0
I0507 13:52:09.293067  2260 net.cpp:409] label_intercept_1_split -> label_intercept_1_split_1
I0507 13:52:09.293107  2260 net.cpp:144] Setting up label_intercept_1_split
I0507 13:52:09.293113  2260 net.cpp:151] Top shape: 20 (20)
I0507 13:52:09.293118  2260 net.cpp:151] Top shape: 20 (20)
I0507 13:52:09.293120  2260 net.cpp:159] Memory required for data: 32240
I0507 13:52:09.293123  2260 layer_factory.hpp:77] Creating layer conv1
I0507 13:52:09.293134  2260 net.cpp:94] Creating Layer conv1
I0507 13:52:09.293138  2260 net.cpp:435] conv1 <- data
I0507 13:52:09.293143  2260 net.cpp:409] conv1 -> conv1
I0507 13:52:09.295650  2260 net.cpp:144] Setting up conv1
I0507 13:52:09.295670  2260 net.cpp:151] Top shape: 20 64 20 20 (512000)
I0507 13:52:09.295675  2260 net.cpp:159] Memory required for data: 2080240
I0507 13:52:09.295683  2260 layer_factory.hpp:77] Creating layer relu1
I0507 13:52:09.295691  2260 net.cpp:94] Creating Layer relu1
I0507 13:52:09.295694  2260 net.cpp:435] relu1 <- conv1
I0507 13:52:09.295698  2260 net.cpp:396] relu1 -> conv1 (in-place)
I0507 13:52:09.295706  2260 net.cpp:144] Setting up relu1
I0507 13:52:09.295711  2260 net.cpp:151] Top shape: 20 64 20 20 (512000)
I0507 13:52:09.295713  2260 net.cpp:159] Memory required for data: 4128240
I0507 13:52:09.295717  2260 layer_factory.hpp:77] Creating layer conv2
I0507 13:52:09.295724  2260 net.cpp:94] Creating Layer conv2
I0507 13:52:09.295728  2260 net.cpp:435] conv2 <- conv1
I0507 13:52:09.295733  2260 net.cpp:409] conv2 -> conv2
I0507 13:52:09.301357  2260 net.cpp:144] Setting up conv2
I0507 13:52:09.301372  2260 net.cpp:151] Top shape: 20 64 20 20 (512000)
I0507 13:52:09.301375  2260 net.cpp:159] Memory required for data: 6176240
I0507 13:52:09.301383  2260 layer_factory.hpp:77] Creating layer relu2
I0507 13:52:09.301389  2260 net.cpp:94] Creating Layer relu2
I0507 13:52:09.301393  2260 net.cpp:435] relu2 <- conv2
I0507 13:52:09.301398  2260 net.cpp:396] relu2 -> conv2 (in-place)
I0507 13:52:09.301404  2260 net.cpp:144] Setting up relu2
I0507 13:52:09.301409  2260 net.cpp:151] Top shape: 20 64 20 20 (512000)
I0507 13:52:09.301411  2260 net.cpp:159] Memory required for data: 8224240
I0507 13:52:09.301414  2260 layer_factory.hpp:77] Creating layer pool2
I0507 13:52:09.301420  2260 net.cpp:94] Creating Layer pool2
I0507 13:52:09.301424  2260 net.cpp:435] pool2 <- conv2
I0507 13:52:09.301429  2260 net.cpp:409] pool2 -> pool2
I0507 13:52:09.301478  2260 net.cpp:144] Setting up pool2
I0507 13:52:09.301484  2260 net.cpp:151] Top shape: 20 64 10 10 (128000)
I0507 13:52:09.301487  2260 net.cpp:159] Memory required for data: 8736240
I0507 13:52:09.301491  2260 layer_factory.hpp:77] Creating layer conv3
I0507 13:52:09.301498  2260 net.cpp:94] Creating Layer conv3
I0507 13:52:09.301502  2260 net.cpp:435] conv3 <- pool2
I0507 13:52:09.301507  2260 net.cpp:409] conv3 -> conv3
I0507 13:52:09.305413  2260 net.cpp:144] Setting up conv3
I0507 13:52:09.305426  2260 net.cpp:151] Top shape: 20 64 10 10 (128000)
I0507 13:52:09.305430  2260 net.cpp:159] Memory required for data: 9248240
I0507 13:52:09.305438  2260 layer_factory.hpp:77] Creating layer relu3
I0507 13:52:09.305445  2260 net.cpp:94] Creating Layer relu3
I0507 13:52:09.305449  2260 net.cpp:435] relu3 <- conv3
I0507 13:52:09.305454  2260 net.cpp:396] relu3 -> conv3 (in-place)
I0507 13:52:09.305460  2260 net.cpp:144] Setting up relu3
I0507 13:52:09.305464  2260 net.cpp:151] Top shape: 20 64 10 10 (128000)
I0507 13:52:09.305467  2260 net.cpp:159] Memory required for data: 9760240
I0507 13:52:09.305470  2260 layer_factory.hpp:77] Creating layer conv4
I0507 13:52:09.305479  2260 net.cpp:94] Creating Layer conv4
I0507 13:52:09.305481  2260 net.cpp:435] conv4 <- conv3
I0507 13:52:09.305486  2260 net.cpp:409] conv4 -> conv4
I0507 13:52:09.308928  2260 net.cpp:144] Setting up conv4
I0507 13:52:09.308940  2260 net.cpp:151] Top shape: 20 64 10 10 (128000)
I0507 13:52:09.308944  2260 net.cpp:159] Memory required for data: 10272240
I0507 13:52:09.308950  2260 layer_factory.hpp:77] Creating layer relu4
I0507 13:52:09.308956  2260 net.cpp:94] Creating Layer relu4
I0507 13:52:09.308960  2260 net.cpp:435] relu4 <- conv4
I0507 13:52:09.308964  2260 net.cpp:396] relu4 -> conv4 (in-place)
I0507 13:52:09.308971  2260 net.cpp:144] Setting up relu4
I0507 13:52:09.308975  2260 net.cpp:151] Top shape: 20 64 10 10 (128000)
I0507 13:52:09.308979  2260 net.cpp:159] Memory required for data: 10784240
I0507 13:52:09.308981  2260 layer_factory.hpp:77] Creating layer conv5
I0507 13:52:09.308989  2260 net.cpp:94] Creating Layer conv5
I0507 13:52:09.308992  2260 net.cpp:435] conv5 <- conv4
I0507 13:52:09.308996  2260 net.cpp:409] conv5 -> conv5
I0507 13:52:09.312881  2260 net.cpp:144] Setting up conv5
I0507 13:52:09.312898  2260 net.cpp:151] Top shape: 20 64 10 10 (128000)
I0507 13:52:09.312903  2260 net.cpp:159] Memory required for data: 11296240
I0507 13:52:09.312911  2260 layer_factory.hpp:77] Creating layer relu5
I0507 13:52:09.312917  2260 net.cpp:94] Creating Layer relu5
I0507 13:52:09.312922  2260 net.cpp:435] relu5 <- conv5
I0507 13:52:09.312925  2260 net.cpp:396] relu5 -> conv5 (in-place)
I0507 13:52:09.312932  2260 net.cpp:144] Setting up relu5
I0507 13:52:09.312937  2260 net.cpp:151] Top shape: 20 64 10 10 (128000)
I0507 13:52:09.312940  2260 net.cpp:159] Memory required for data: 11808240
I0507 13:52:09.312943  2260 layer_factory.hpp:77] Creating layer pool5
I0507 13:52:09.312948  2260 net.cpp:94] Creating Layer pool5
I0507 13:52:09.312952  2260 net.cpp:435] pool5 <- conv5
I0507 13:52:09.312955  2260 net.cpp:409] pool5 -> pool5
I0507 13:52:09.312990  2260 net.cpp:144] Setting up pool5
I0507 13:52:09.312996  2260 net.cpp:151] Top shape: 20 64 5 5 (32000)
I0507 13:52:09.312999  2260 net.cpp:159] Memory required for data: 11936240
I0507 13:52:09.313004  2260 layer_factory.hpp:77] Creating layer ip1
I0507 13:52:09.313009  2260 net.cpp:94] Creating Layer ip1
I0507 13:52:09.313014  2260 net.cpp:435] ip1 <- pool5
I0507 13:52:09.313019  2260 net.cpp:409] ip1 -> ip1
I0507 13:52:09.315552  2260 net.cpp:144] Setting up ip1
I0507 13:52:09.315560  2260 net.cpp:151] Top shape: 20 64 (1280)
I0507 13:52:09.315563  2260 net.cpp:159] Memory required for data: 11941360
I0507 13:52:09.315568  2260 layer_factory.hpp:77] Creating layer ip2
I0507 13:52:09.315574  2260 net.cpp:94] Creating Layer ip2
I0507 13:52:09.315578  2260 net.cpp:435] ip2 <- ip1
I0507 13:52:09.315583  2260 net.cpp:409] ip2 -> ip2
I0507 13:52:09.315800  2260 net.cpp:144] Setting up ip2
I0507 13:52:09.315807  2260 net.cpp:151] Top shape: 20 64 (1280)
I0507 13:52:09.315810  2260 net.cpp:159] Memory required for data: 11946480
I0507 13:52:09.315815  2260 layer_factory.hpp:77] Creating layer ip3
I0507 13:52:09.315822  2260 net.cpp:94] Creating Layer ip3
I0507 13:52:09.315825  2260 net.cpp:435] ip3 <- ip2
I0507 13:52:09.315830  2260 net.cpp:409] ip3 -> ip3
I0507 13:52:09.316022  2260 net.cpp:144] Setting up ip3
I0507 13:52:09.316028  2260 net.cpp:151] Top shape: 20 50 (1000)
I0507 13:52:09.316031  2260 net.cpp:159] Memory required for data: 11950480
I0507 13:52:09.316036  2260 layer_factory.hpp:77] Creating layer ip3_ip3_0_split
I0507 13:52:09.316042  2260 net.cpp:94] Creating Layer ip3_ip3_0_split
I0507 13:52:09.316045  2260 net.cpp:435] ip3_ip3_0_split <- ip3
I0507 13:52:09.316049  2260 net.cpp:409] ip3_ip3_0_split -> ip3_ip3_0_split_0
I0507 13:52:09.316056  2260 net.cpp:409] ip3_ip3_0_split -> ip3_ip3_0_split_1
I0507 13:52:09.316092  2260 net.cpp:144] Setting up ip3_ip3_0_split
I0507 13:52:09.316098  2260 net.cpp:151] Top shape: 20 50 (1000)
I0507 13:52:09.316102  2260 net.cpp:151] Top shape: 20 50 (1000)
I0507 13:52:09.316105  2260 net.cpp:159] Memory required for data: 11958480
I0507 13:52:09.316108  2260 layer_factory.hpp:77] Creating layer accuracy
I0507 13:52:09.316114  2260 net.cpp:94] Creating Layer accuracy
I0507 13:52:09.316118  2260 net.cpp:435] accuracy <- ip3_ip3_0_split_0
I0507 13:52:09.316121  2260 net.cpp:435] accuracy <- label_intercept_1_split_0
I0507 13:52:09.316125  2260 net.cpp:409] accuracy -> accuracy
…
