…
I0507 17:21:13.544597  5268 net.cpp:323] The NetState phase (0) differed from the phase (1) specified by a rule in layer intercept
I0507 17:21:13.544615  5268 net.cpp:323] The NetState phase (0) differed from the phase (1) specified by a rule in layer loss
I0507 17:21:13.544693  5268 net.cpp:52] Initializing net from parameters: 
state {
  phase: TRAIN
}
layer {
  name: "parameters"
  type: "HDF5Data"
  top: "data"
  top: "label"
  include {
    phase: TRAIN
  }
  hdf5_data_param {
    source: "/home/purduethu/scratch/radon/d/deng106/CNNStatisticalModel/distributions/input/20_distributions_100_sample_size_train-parameters-path.txt"
    batch_size: 20
  }
}
layer {
  name: "conv1"
  type: "Convolution"
  bottom: "data"
  top: "conv1"
  param {
    lr_mult: 1
  }
  param {
    lr_mult: 2
  }
  convolution_param {
    num_output: 64
    pad: 2
    kernel_size: 5
    stride: 1
    weight_filler {
      type: "gaussian"
      std: 0.0001
    }
    bias_filler {
      type: "constant"
    }
  }
}
layer {
  name: "relu1"
  type: "ReLU"
  bottom: "conv1"
  top: "conv1"
}
layer {
  name: "conv2"
  type: "Convolution"
  bottom: "conv1"
  top: "conv2"
  param {
    lr_mult: 1
  }
  param {
    lr_mult: 2
  }
  convolution_param {
    num_output: 64
    pad: 2
    kernel_size: 5
    stride: 1
    weight_filler {
      type: "gaussian"
      std: 0.01
    }
    bias_filler {
      type: "constant"
    }
  }
}
layer {
  name: "relu2"
  type: "ReLU"
  bottom: "conv2"
  top: "conv2"
}
layer {
  name: "pool2"
  type: "Pooling"
  bottom: "conv2"
  top: "pool2"
  pooling_param {
    pool: MAX
    kernel_size: 3
    stride: 2
  }
}
layer {
  name: "conv3"
  type: "Convolution"
  bottom: "pool2"
  top: "conv3"
  param {
    lr_mult: 1
  }
  param {
    lr_mult: 2
  }
  convolution_param {
    num_output: 64
    pad: 2
    kernel_size: 5
    stride: 1
    weight_filler {
      type: "gaussian"
      std: 0.01
    }
    bias_filler {
      type: "constant"
    }
  }
}
layer {
  name: "relu3"
  type: "ReLU"
  bottom: "conv3"
  top: "conv3"
}
layer {
  name: "conv4"
  type: "Convolution"
  bottom: "conv3"
  top: "conv4"
  param {
    lr_mult: 1
  }
  param {
    lr_mult: 2
  }
  convolution_param {
    num_output: 64
    pad: 2
    kernel_size: 5
    stride: 1
    weight_filler {
      type: "gaussian"
      std: 0.01
    }
    bias_filler {
      type: "constant"
    }
  }
}
layer {
  name: "relu4"
  type: "ReLU"
  bottom: "conv4"
  top: "conv4"
}
layer {
  name: "conv5"
  type: "Convolution"
  bottom: "conv4"
  top: "conv5"
  param {
    lr_mult: 1
  }
  param {
    lr_mult: 2
  }
  convolution_param {
    num_output: 64
    pad: 2
    kernel_size: 5
    stride: 1
    weight_filler {
      type: "gaussian"
      std: 0.01
    }
    bias_filler {
      type: "constant"
    }
  }
}
layer {
  name: "relu5"
  type: "ReLU"
  bottom: "conv5"
  top: "conv5"
}
layer {
  name: "pool5"
  type: "Pooling"
  bottom: "conv5"
  top: "pool5"
  pooling_param {
    pool: AVE
    kernel_size: 3
    stride: 2
  }
}
layer {
  name: "ip1"
  type: "InnerProduct"
  bottom: "pool5"
  top: "ip1"
  param {
    lr_mult: 1
  }
  param {
    lr_mult: 2
  }
  inner_product_param {
    num_output: 64
    weight_filler {
      type: "gaussian"
      std: 0.1
    }
    bias_filler {
      type: "constant"
    }
  }
}
layer {
  name: "ip2"
  type: "InnerProduct"
  bottom: "ip1"
  top: "ip2"
  param {
    lr_mult: 1
  }
  param {
    lr_mult: 2
  }
  inner_product_param {
    num_output: 64
    weight_filler {
      type: "gaussian"
      std: 0.1
    }
    bias_filler {
      type: "constant"
    }
  }
}
layer {
  name: "ip3"
  type: "InnerProduct"
  bottom: "ip2"
  top: "ip3"
  param {
    lr_mult: 1
  }
  param {
    lr_mult: 2
  }
  inner_product_param {
    num_output: 1
    weight_filler {
      type: "gaussian"
      std: 0.1
    }
    bias_filler {
      type: "constant"
    }
  }
}
layer {
  name: "loss"
  type: "HuberLoss"
  bottom: "ip3"
  bottom: "label"
  top: "loss"
  include {
    phase: TRAIN
  }
}
I0507 17:21:13.544749  5268 layer_factory.hpp:77] Creating layer parameters
I0507 17:21:13.544765  5268 net.cpp:94] Creating Layer parameters
I0507 17:21:13.544770  5268 net.cpp:409] parameters -> data
I0507 17:21:13.544780  5268 net.cpp:409] parameters -> label
I0507 17:21:13.544787  5268 hdf5_data_layer.cpp:79] Loading list of HDF5 filenames from: /home/purduethu/scratch/radon/d/deng106/CNNStatisticalModel/distributions/input/20_distributions_100_sample_size_train-parameters-path.txt
I0507 17:21:13.544802  5268 hdf5_data_layer.cpp:93] Number of HDF5 files: 1
I0507 17:21:13.545358  5268 hdf5.cpp:32] Datatype class: H5T_FLOAT
I0507 17:21:13.612185  5268 net.cpp:144] Setting up parameters
I0507 17:21:13.612215  5268 net.cpp:151] Top shape: 20 1 10 10 (2000)
I0507 17:21:13.612220  5268 net.cpp:151] Top shape: 20 (20)
I0507 17:21:13.612223  5268 net.cpp:159] Memory required for data: 8080
I0507 17:21:13.612228  5268 layer_factory.hpp:77] Creating layer conv1
I0507 17:21:13.612246  5268 net.cpp:94] Creating Layer conv1
I0507 17:21:13.612249  5268 net.cpp:435] conv1 <- data
I0507 17:21:13.612256  5268 net.cpp:409] conv1 -> conv1
I0507 17:21:13.616407  5268 net.cpp:144] Setting up conv1
I0507 17:21:13.616422  5268 net.cpp:151] Top shape: 20 64 10 10 (128000)
I0507 17:21:13.616426  5268 net.cpp:159] Memory required for data: 520080
I0507 17:21:13.616436  5268 layer_factory.hpp:77] Creating layer relu1
I0507 17:21:13.616444  5268 net.cpp:94] Creating Layer relu1
I0507 17:21:13.616448  5268 net.cpp:435] relu1 <- conv1
I0507 17:21:13.616452  5268 net.cpp:396] relu1 -> conv1 (in-place)
I0507 17:21:13.616459  5268 net.cpp:144] Setting up relu1
I0507 17:21:13.616464  5268 net.cpp:151] Top shape: 20 64 10 10 (128000)
I0507 17:21:13.616467  5268 net.cpp:159] Memory required for data: 1032080
I0507 17:21:13.616470  5268 layer_factory.hpp:77] Creating layer conv2
I0507 17:21:13.616477  5268 net.cpp:94] Creating Layer conv2
I0507 17:21:13.616482  5268 net.cpp:435] conv2 <- conv1
I0507 17:21:13.616487  5268 net.cpp:409] conv2 -> conv2
I0507 17:21:13.621747  5268 net.cpp:144] Setting up conv2
I0507 17:21:13.621760  5268 net.cpp:151] Top shape: 20 64 10 10 (128000)
I0507 17:21:13.621764  5268 net.cpp:159] Memory required for data: 1544080
I0507 17:21:13.621773  5268 layer_factory.hpp:77] Creating layer relu2
I0507 17:21:13.621778  5268 net.cpp:94] Creating Layer relu2
I0507 17:21:13.621783  5268 net.cpp:435] relu2 <- conv2
I0507 17:21:13.621786  5268 net.cpp:396] relu2 -> conv2 (in-place)
I0507 17:21:13.621793  5268 net.cpp:144] Setting up relu2
I0507 17:21:13.621798  5268 net.cpp:151] Top shape: 20 64 10 10 (128000)
I0507 17:21:13.621800  5268 net.cpp:159] Memory required for data: 2056080
I0507 17:21:13.621803  5268 layer_factory.hpp:77] Creating layer pool2
I0507 17:21:13.621816  5268 net.cpp:94] Creating Layer pool2
I0507 17:21:13.621820  5268 net.cpp:435] pool2 <- conv2
I0507 17:21:13.621824  5268 net.cpp:409] pool2 -> pool2
I0507 17:21:13.621881  5268 net.cpp:144] Setting up pool2
I0507 17:21:13.621889  5268 net.cpp:151] Top shape: 20 64 5 5 (32000)
I0507 17:21:13.621892  5268 net.cpp:159] Memory required for data: 2184080
I0507 17:21:13.621896  5268 layer_factory.hpp:77] Creating layer conv3
I0507 17:21:13.621904  5268 net.cpp:94] Creating Layer conv3
I0507 17:21:13.621907  5268 net.cpp:435] conv3 <- pool2
I0507 17:21:13.621912  5268 net.cpp:409] conv3 -> conv3
I0507 17:21:13.626719  5268 net.cpp:144] Setting up conv3
I0507 17:21:13.626734  5268 net.cpp:151] Top shape: 20 64 5 5 (32000)
I0507 17:21:13.626737  5268 net.cpp:159] Memory required for data: 2312080
I0507 17:21:13.626745  5268 layer_factory.hpp:77] Creating layer relu3
I0507 17:21:13.626751  5268 net.cpp:94] Creating Layer relu3
I0507 17:21:13.626755  5268 net.cpp:435] relu3 <- conv3
I0507 17:21:13.626760  5268 net.cpp:396] relu3 -> conv3 (in-place)
I0507 17:21:13.626766  5268 net.cpp:144] Setting up relu3
I0507 17:21:13.626771  5268 net.cpp:151] Top shape: 20 64 5 5 (32000)
I0507 17:21:13.626775  5268 net.cpp:159] Memory required for data: 2440080
I0507 17:21:13.626777  5268 layer_factory.hpp:77] Creating layer conv4
I0507 17:21:13.626785  5268 net.cpp:94] Creating Layer conv4
I0507 17:21:13.626790  5268 net.cpp:435] conv4 <- conv3
I0507 17:21:13.626793  5268 net.cpp:409] conv4 -> conv4
I0507 17:21:13.631176  5268 net.cpp:144] Setting up conv4
I0507 17:21:13.631191  5268 net.cpp:151] Top shape: 20 64 5 5 (32000)
I0507 17:21:13.631193  5268 net.cpp:159] Memory required for data: 2568080
I0507 17:21:13.631201  5268 layer_factory.hpp:77] Creating layer relu4
I0507 17:21:13.631206  5268 net.cpp:94] Creating Layer relu4
I0507 17:21:13.631209  5268 net.cpp:435] relu4 <- conv4
I0507 17:21:13.631213  5268 net.cpp:396] relu4 -> conv4 (in-place)
I0507 17:21:13.631220  5268 net.cpp:144] Setting up relu4
I0507 17:21:13.631225  5268 net.cpp:151] Top shape: 20 64 5 5 (32000)
I0507 17:21:13.631228  5268 net.cpp:159] Memory required for data: 2696080
I0507 17:21:13.631232  5268 layer_factory.hpp:77] Creating layer conv5
I0507 17:21:13.631238  5268 net.cpp:94] Creating Layer conv5
I0507 17:21:13.631242  5268 net.cpp:435] conv5 <- conv4
I0507 17:21:13.631247  5268 net.cpp:409] conv5 -> conv5
I0507 17:21:13.636898  5268 net.cpp:144] Setting up conv5
I0507 17:21:13.636912  5268 net.cpp:151] Top shape: 20 64 5 5 (32000)
I0507 17:21:13.636916  5268 net.cpp:159] Memory required for data: 2824080
I0507 17:21:13.636925  5268 layer_factory.hpp:77] Creating layer relu5
I0507 17:21:13.636931  5268 net.cpp:94] Creating Layer relu5
I0507 17:21:13.636934  5268 net.cpp:435] relu5 <- conv5
I0507 17:21:13.636940  5268 net.cpp:396] relu5 -> conv5 (in-place)
I0507 17:21:13.636946  5268 net.cpp:144] Setting up relu5
I0507 17:21:13.636950  5268 net.cpp:151] Top shape: 20 64 5 5 (32000)
I0507 17:21:13.636953  5268 net.cpp:159] Memory required for data: 2952080
I0507 17:21:13.636956  5268 layer_factory.hpp:77] Creating layer pool5
I0507 17:21:13.636961  5268 net.cpp:94] Creating Layer pool5
I0507 17:21:13.636965  5268 net.cpp:435] pool5 <- conv5
I0507 17:21:13.636970  5268 net.cpp:409] pool5 -> pool5
I0507 17:21:13.637008  5268 net.cpp:144] Setting up pool5
I0507 17:21:13.637017  5268 net.cpp:151] Top shape: 20 64 2 2 (5120)
I0507 17:21:13.637019  5268 net.cpp:159] Memory required for data: 2972560
I0507 17:21:13.637022  5268 layer_factory.hpp:77] Creating layer ip1
I0507 17:21:13.637032  5268 net.cpp:94] Creating Layer ip1
I0507 17:21:13.637035  5268 net.cpp:435] ip1 <- pool5
I0507 17:21:13.637039  5268 net.cpp:409] ip1 -> ip1
I0507 17:21:13.638370  5268 net.cpp:144] Setting up ip1
I0507 17:21:13.638383  5268 net.cpp:151] Top shape: 20 64 (1280)
I0507 17:21:13.638387  5268 net.cpp:159] Memory required for data: 2977680
I0507 17:21:13.638393  5268 layer_factory.hpp:77] Creating layer ip2
I0507 17:21:13.638401  5268 net.cpp:94] Creating Layer ip2
I0507 17:21:13.638408  5268 net.cpp:435] ip2 <- ip1
I0507 17:21:13.638414  5268 net.cpp:409] ip2 -> ip2
I0507 17:21:13.638636  5268 net.cpp:144] Setting up ip2
I0507 17:21:13.638645  5268 net.cpp:151] Top shape: 20 64 (1280)
I0507 17:21:13.638648  5268 net.cpp:159] Memory required for data: 2982800
I0507 17:21:13.638653  5268 layer_factory.hpp:77] Creating layer ip3
I0507 17:21:13.638659  5268 net.cpp:94] Creating Layer ip3
I0507 17:21:13.638662  5268 net.cpp:435] ip3 <- ip2
I0507 17:21:13.638667  5268 net.cpp:409] ip3 -> ip3
I0507 17:21:13.638778  5268 net.cpp:144] Setting up ip3
I0507 17:21:13.638787  5268 net.cpp:151] Top shape: 20 1 (20)
I0507 17:21:13.638789  5268 net.cpp:159] Memory required for data: 2982880
I0507 17:21:13.638794  5268 layer_factory.hpp:77] Creating layer loss
I0507 17:21:13.638804  5268 net.cpp:94] Creating Layer loss
I0507 17:21:13.638808  5268 net.cpp:435] loss <- ip3
I0507 17:21:13.638813  5268 net.cpp:435] loss <- label
I0507 17:21:13.638816  5268 net.cpp:409] loss -> loss
I0507 17:21:13.638869  5268 net.cpp:144] Setting up loss
…
I0507 17:21:13.675863  5268 net.cpp:323] The NetState phase (0) differed from the phase (1) specified by a rule in layer intercept
I0507 17:21:13.675879  5268 net.cpp:323] The NetState phase (0) differed from the phase (1) specified by a rule in layer accuracy
I0507 17:21:13.675964  5268 net.cpp:52] Initializing net from parameters: 
state {
  phase: TRAIN
}
layer {
  name: "parameters"
  type: "HDF5Data"
  top: "data"
  top: "label"
  include {
    phase: TRAIN
  }
  hdf5_data_param {
    source: "/home/purduethu/scratch/radon/d/deng106/CNNStatisticalModel/distributions/input/20_distributions_100_sample_size_train-distributions-path.txt"
    batch_size: 20
  }
}
layer {
  name: "conv1"
  type: "Convolution"
  bottom: "data"
  top: "conv1"
  param {
    lr_mult: 1
  }
  param {
    lr_mult: 2
  }
  convolution_param {
    num_output: 64
    pad: 2
    kernel_size: 5
    stride: 1
    weight_filler {
      type: "gaussian"
      std: 0.0001
    }
    bias_filler {
      type: "constant"
    }
  }
}
layer {
  name: "relu1"
  type: "ReLU"
  bottom: "conv1"
  top: "conv1"
}
layer {
  name: "conv2"
  type: "Convolution"
  bottom: "conv1"
  top: "conv2"
  param {
    lr_mult: 1
  }
  param {
    lr_mult: 2
  }
  convolution_param {
    num_output: 64
    pad: 2
    kernel_size: 5
    stride: 1
    weight_filler {
      type: "gaussian"
      std: 0.01
    }
    bias_filler {
      type: "constant"
    }
  }
}
layer {
  name: "relu2"
  type: "ReLU"
  bottom: "conv2"
  top: "conv2"
}
layer {
  name: "pool2"
  type: "Pooling"
  bottom: "conv2"
  top: "pool2"
  pooling_param {
    pool: MAX
    kernel_size: 3
    stride: 2
  }
}
layer {
  name: "conv3"
  type: "Convolution"
  bottom: "pool2"
  top: "conv3"
  param {
    lr_mult: 1
  }
  param {
    lr_mult: 2
  }
  convolution_param {
    num_output: 64
    pad: 2
    kernel_size: 5
    stride: 1
    weight_filler {
      type: "gaussian"
      std: 0.01
    }
    bias_filler {
      type: "constant"
    }
  }
}
layer {
  name: "relu3"
  type: "ReLU"
  bottom: "conv3"
  top: "conv3"
}
layer {
  name: "conv4"
  type: "Convolution"
  bottom: "conv3"
  top: "conv4"
  param {
    lr_mult: 1
  }
  param {
    lr_mult: 2
  }
  convolution_param {
    num_output: 64
    pad: 2
    kernel_size: 5
    stride: 1
    weight_filler {
      type: "gaussian"
      std: 0.01
    }
    bias_filler {
      type: "constant"
    }
  }
}
layer {
  name: "relu4"
  type: "ReLU"
  bottom: "conv4"
  top: "conv4"
}
layer {
  name: "conv5"
  type: "Convolution"
  bottom: "conv4"
  top: "conv5"
  param {
    lr_mult: 1
  }
  param {
    lr_mult: 2
  }
  convolution_param {
    num_output: 64
    pad: 2
    kernel_size: 5
    stride: 1
    weight_filler {
      type: "gaussian"
      std: 0.01
    }
    bias_filler {
      type: "constant"
    }
  }
}
layer {
  name: "relu5"
  type: "ReLU"
  bottom: "conv5"
  top: "conv5"
}
layer {
  name: "pool5"
  type: "Pooling"
  bottom: "conv5"
  top: "pool5"
  pooling_param {
    pool: AVE
    kernel_size: 3
    stride: 2
  }
}
layer {
  name: "ip1"
  type: "InnerProduct"
  bottom: "pool5"
  top: "ip1"
  param {
    lr_mult: 1
  }
  param {
    lr_mult: 2
  }
  inner_product_param {
    num_output: 64
    weight_filler {
      type: "gaussian"
      std: 0.1
    }
    bias_filler {
      type: "constant"
    }
  }
}
layer {
  name: "ip2"
  type: "InnerProduct"
  bottom: "ip1"
  top: "ip2"
  param {
    lr_mult: 1
  }
  param {
    lr_mult: 2
  }
  inner_product_param {
    num_output: 64
    weight_filler {
      type: "gaussian"
      std: 0.1
    }
    bias_filler {
      type: "constant"
    }
  }
}
layer {
  name: "ip3"
  type: "InnerProduct"
  bottom: "ip2"
  top: "ip3"
  param {
    lr_mult: 1
  }
  param {
    lr_mult: 2
  }
  inner_product_param {
    num_output: 50
    weight_filler {
      type: "gaussian"
      std: 0.1
    }
    bias_filler {
      type: "constant"
    }
  }
}
layer {
  name: "loss"
  type: "SoftmaxWithLoss"
  bottom: "ip3"
  bottom: "label"
  top: "loss"
}
I0507 17:21:13.676015  5268 layer_factory.hpp:77] Creating layer parameters
I0507 17:21:13.676023  5268 net.cpp:94] Creating Layer parameters
I0507 17:21:13.676028  5268 net.cpp:409] parameters -> data
I0507 17:21:13.676034  5268 net.cpp:409] parameters -> label
I0507 17:21:13.676040  5268 hdf5_data_layer.cpp:79] Loading list of HDF5 filenames from: /home/purduethu/scratch/radon/d/deng106/CNNStatisticalModel/distributions/input/20_distributions_100_sample_size_train-distributions-path.txt
I0507 17:21:13.676055  5268 hdf5_data_layer.cpp:93] Number of HDF5 files: 1
I0507 17:21:13.739825  5268 hdf5.cpp:35] Datatype class: H5T_INTEGER
I0507 17:21:13.741806  5268 net.cpp:144] Setting up parameters
I0507 17:21:13.741822  5268 net.cpp:151] Top shape: 20 1 10 10 (2000)
I0507 17:21:13.741828  5268 net.cpp:151] Top shape: 20 (20)
I0507 17:21:13.741832  5268 net.cpp:159] Memory required for data: 8080
I0507 17:21:13.741837  5268 layer_factory.hpp:77] Creating layer conv1
I0507 17:21:13.741853  5268 net.cpp:94] Creating Layer conv1
I0507 17:21:13.741858  5268 net.cpp:435] conv1 <- data
I0507 17:21:13.741863  5268 net.cpp:409] conv1 -> conv1
I0507 17:21:13.743638  5268 net.cpp:144] Setting up conv1
I0507 17:21:13.743651  5268 net.cpp:151] Top shape: 20 64 10 10 (128000)
I0507 17:21:13.743655  5268 net.cpp:159] Memory required for data: 520080
I0507 17:21:13.743665  5268 layer_factory.hpp:77] Creating layer relu1
I0507 17:21:13.743672  5268 net.cpp:94] Creating Layer relu1
I0507 17:21:13.743676  5268 net.cpp:435] relu1 <- conv1
I0507 17:21:13.743680  5268 net.cpp:396] relu1 -> conv1 (in-place)
I0507 17:21:13.743688  5268 net.cpp:144] Setting up relu1
I0507 17:21:13.743693  5268 net.cpp:151] Top shape: 20 64 10 10 (128000)
I0507 17:21:13.743695  5268 net.cpp:159] Memory required for data: 1032080
I0507 17:21:13.743698  5268 layer_factory.hpp:77] Creating layer conv2
I0507 17:21:13.743706  5268 net.cpp:94] Creating Layer conv2
I0507 17:21:13.743710  5268 net.cpp:435] conv2 <- conv1
I0507 17:21:13.743715  5268 net.cpp:409] conv2 -> conv2
I0507 17:21:13.749008  5268 net.cpp:144] Setting up conv2
I0507 17:21:13.749022  5268 net.cpp:151] Top shape: 20 64 10 10 (128000)
I0507 17:21:13.749025  5268 net.cpp:159] Memory required for data: 1544080
I0507 17:21:13.749033  5268 layer_factory.hpp:77] Creating layer relu2
I0507 17:21:13.749039  5268 net.cpp:94] Creating Layer relu2
I0507 17:21:13.749043  5268 net.cpp:435] relu2 <- conv2
I0507 17:21:13.749048  5268 net.cpp:396] relu2 -> conv2 (in-place)
I0507 17:21:13.749054  5268 net.cpp:144] Setting up relu2
I0507 17:21:13.749059  5268 net.cpp:151] Top shape: 20 64 10 10 (128000)
I0507 17:21:13.749063  5268 net.cpp:159] Memory required for data: 2056080
I0507 17:21:13.749065  5268 layer_factory.hpp:77] Creating layer pool2
I0507 17:21:13.749071  5268 net.cpp:94] Creating Layer pool2
I0507 17:21:13.749074  5268 net.cpp:435] pool2 <- conv2
I0507 17:21:13.749078  5268 net.cpp:409] pool2 -> pool2
I0507 17:21:13.749133  5268 net.cpp:144] Setting up pool2
I0507 17:21:13.749141  5268 net.cpp:151] Top shape: 20 64 5 5 (32000)
I0507 17:21:13.749145  5268 net.cpp:159] Memory required for data: 2184080
I0507 17:21:13.749148  5268 layer_factory.hpp:77] Creating layer conv3
I0507 17:21:13.749156  5268 net.cpp:94] Creating Layer conv3
I0507 17:21:13.749160  5268 net.cpp:435] conv3 <- pool2
I0507 17:21:13.749164  5268 net.cpp:409] conv3 -> conv3
I0507 17:21:13.754091  5268 net.cpp:144] Setting up conv3
I0507 17:21:13.754106  5268 net.cpp:151] Top shape: 20 64 5 5 (32000)
I0507 17:21:13.754109  5268 net.cpp:159] Memory required for data: 2312080
I0507 17:21:13.754117  5268 layer_factory.hpp:77] Creating layer relu3
I0507 17:21:13.754123  5268 net.cpp:94] Creating Layer relu3
I0507 17:21:13.754127  5268 net.cpp:435] relu3 <- conv3
I0507 17:21:13.754132  5268 net.cpp:396] relu3 -> conv3 (in-place)
I0507 17:21:13.754138  5268 net.cpp:144] Setting up relu3
I0507 17:21:13.754142  5268 net.cpp:151] Top shape: 20 64 5 5 (32000)
I0507 17:21:13.754145  5268 net.cpp:159] Memory required for data: 2440080
I0507 17:21:13.754148  5268 layer_factory.hpp:77] Creating layer conv4
I0507 17:21:13.754158  5268 net.cpp:94] Creating Layer conv4
I0507 17:21:13.754160  5268 net.cpp:435] conv4 <- conv3
I0507 17:21:13.754165  5268 net.cpp:409] conv4 -> conv4
I0507 17:21:13.759024  5268 net.cpp:144] Setting up conv4
I0507 17:21:13.759038  5268 net.cpp:151] Top shape: 20 64 5 5 (32000)
I0507 17:21:13.759042  5268 net.cpp:159] Memory required for data: 2568080
I0507 17:21:13.759048  5268 layer_factory.hpp:77] Creating layer relu4
I0507 17:21:13.759053  5268 net.cpp:94] Creating Layer relu4
I0507 17:21:13.759057  5268 net.cpp:435] relu4 <- conv4
I0507 17:21:13.759061  5268 net.cpp:396] relu4 -> conv4 (in-place)
I0507 17:21:13.759068  5268 net.cpp:144] Setting up relu4
I0507 17:21:13.759073  5268 net.cpp:151] Top shape: 20 64 5 5 (32000)
I0507 17:21:13.759076  5268 net.cpp:159] Memory required for data: 2696080
I0507 17:21:13.759078  5268 layer_factory.hpp:77] Creating layer conv5
I0507 17:21:13.759086  5268 net.cpp:94] Creating Layer conv5
I0507 17:21:13.759089  5268 net.cpp:435] conv5 <- conv4
I0507 17:21:13.759094  5268 net.cpp:409] conv5 -> conv5
I0507 17:21:13.764351  5268 net.cpp:144] Setting up conv5
I0507 17:21:13.764365  5268 net.cpp:151] Top shape: 20 64 5 5 (32000)
I0507 17:21:13.764369  5268 net.cpp:159] Memory required for data: 2824080
I0507 17:21:13.764377  5268 layer_factory.hpp:77] Creating layer relu5
I0507 17:21:13.764384  5268 net.cpp:94] Creating Layer relu5
I0507 17:21:13.764387  5268 net.cpp:435] relu5 <- conv5
I0507 17:21:13.764392  5268 net.cpp:396] relu5 -> conv5 (in-place)
I0507 17:21:13.764400  5268 net.cpp:144] Setting up relu5
I0507 17:21:13.764403  5268 net.cpp:151] Top shape: 20 64 5 5 (32000)
I0507 17:21:13.764406  5268 net.cpp:159] Memory required for data: 2952080
I0507 17:21:13.764410  5268 layer_factory.hpp:77] Creating layer pool5
I0507 17:21:13.764415  5268 net.cpp:94] Creating Layer pool5
I0507 17:21:13.764417  5268 net.cpp:435] pool5 <- conv5
I0507 17:21:13.764421  5268 net.cpp:409] pool5 -> pool5
I0507 17:21:13.764458  5268 net.cpp:144] Setting up pool5
I0507 17:21:13.764467  5268 net.cpp:151] Top shape: 20 64 2 2 (5120)
I0507 17:21:13.764469  5268 net.cpp:159] Memory required for data: 2972560
I0507 17:21:13.764472  5268 layer_factory.hpp:77] Creating layer ip1
I0507 17:21:13.764479  5268 net.cpp:94] Creating Layer ip1
I0507 17:21:13.764483  5268 net.cpp:435] ip1 <- pool5
I0507 17:21:13.764487  5268 net.cpp:409] ip1 -> ip1
I0507 17:21:13.765034  5268 net.cpp:144] Setting up ip1
I0507 17:21:13.765044  5268 net.cpp:151] Top shape: 20 64 (1280)
I0507 17:21:13.765048  5268 net.cpp:159] Memory required for data: 2977680
I0507 17:21:13.765053  5268 layer_factory.hpp:77] Creating layer ip2
I0507 17:21:13.765058  5268 net.cpp:94] Creating Layer ip2
I0507 17:21:13.765063  5268 net.cpp:435] ip2 <- ip1
I0507 17:21:13.765067  5268 net.cpp:409] ip2 -> ip2
I0507 17:21:13.765296  5268 net.cpp:144] Setting up ip2
I0507 17:21:13.765305  5268 net.cpp:151] Top shape: 20 64 (1280)
I0507 17:21:13.765307  5268 net.cpp:159] Memory required for data: 2982800
I0507 17:21:13.765312  5268 layer_factory.hpp:77] Creating layer ip3
I0507 17:21:13.765318  5268 net.cpp:94] Creating Layer ip3
I0507 17:21:13.765321  5268 net.cpp:435] ip3 <- ip2
I0507 17:21:13.765326  5268 net.cpp:409] ip3 -> ip3
I0507 17:21:13.765527  5268 net.cpp:144] Setting up ip3
I0507 17:21:13.765533  5268 net.cpp:151] Top shape: 20 50 (1000)
I0507 17:21:13.765540  5268 net.cpp:159] Memory required for data: 2986800
I0507 17:21:13.765547  5268 layer_factory.hpp:77] Creating layer loss
I0507 17:21:13.765552  5268 net.cpp:94] Creating Layer loss
I0507 17:21:13.765557  5268 net.cpp:435] loss <- ip3
I0507 17:21:13.765560  5268 net.cpp:435] loss <- label
I0507 17:21:13.765564  5268 net.cpp:409] loss -> loss
I0507 17:21:13.765571  5268 layer_factory.hpp:77] Creating layer loss
…
I0507 17:21:13.766916  5268 solver.cpp:181] Creating test net (#0) specified by net file: ./protocol/dis_20_100_dimension.protocol_distribution
I0507 17:21:13.766942  5268 net.cpp:323] The NetState phase (1) differed from the phase (0) specified by a rule in layer parameters
I0507 17:21:13.767035  5268 net.cpp:52] Initializing net from parameters: 
state {
  phase: TEST
}
layer {
  name: "intercept"
  type: "HDF5Data"
  top: "data"
  top: "label"
  include {
    phase: TEST
  }
  hdf5_data_param {
    source: "/home/purduethu/scratch/radon/d/deng106/CNNStatisticalModel/distributions/input/20_distributions_100_sample_size_test-distributions-path.txt"
    batch_size: 20
  }
}
layer {
  name: "conv1"
  type: "Convolution"
  bottom: "data"
  top: "conv1"
  param {
    lr_mult: 1
  }
  param {
    lr_mult: 2
  }
  convolution_param {
    num_output: 64
    pad: 2
    kernel_size: 5
    stride: 1
    weight_filler {
      type: "gaussian"
      std: 0.0001
    }
    bias_filler {
      type: "constant"
    }
  }
}
layer {
  name: "relu1"
  type: "ReLU"
  bottom: "conv1"
  top: "conv1"
}
layer {
  name: "conv2"
  type: "Convolution"
  bottom: "conv1"
  top: "conv2"
  param {
    lr_mult: 1
  }
  param {
    lr_mult: 2
  }
  convolution_param {
    num_output: 64
    pad: 2
    kernel_size: 5
    stride: 1
    weight_filler {
      type: "gaussian"
      std: 0.01
    }
    bias_filler {
      type: "constant"
    }
  }
}
layer {
  name: "relu2"
  type: "ReLU"
  bottom: "conv2"
  top: "conv2"
}
layer {
  name: "pool2"
  type: "Pooling"
  bottom: "conv2"
  top: "pool2"
  pooling_param {
    pool: MAX
    kernel_size: 3
    stride: 2
  }
}
layer {
  name: "conv3"
  type: "Convolution"
  bottom: "pool2"
  top: "conv3"
  param {
    lr_mult: 1
  }
  param {
    lr_mult: 2
  }
  convolution_param {
    num_output: 64
    pad: 2
    kernel_size: 5
    stride: 1
    weight_filler {
      type: "gaussian"
      std: 0.01
    }
    bias_filler {
      type: "constant"
    }
  }
}
layer {
  name: "relu3"
  type: "ReLU"
  bottom: "conv3"
  top: "conv3"
}
layer {
  name: "conv4"
  type: "Convolution"
  bottom: "conv3"
  top: "conv4"
  param {
    lr_mult: 1
  }
  param {
    lr_mult: 2
  }
  convolution_param {
    num_output: 64
    pad: 2
    kernel_size: 5
    stride: 1
    weight_filler {
      type: "gaussian"
      std: 0.01
    }
    bias_filler {
      type: "constant"
    }
  }
}
layer {
  name: "relu4"
  type: "ReLU"
  bottom: "conv4"
  top: "conv4"
}
layer {
  name: "conv5"
  type: "Convolution"
  bottom: "conv4"
  top: "conv5"
  param {
    lr_mult: 1
  }
  param {
    lr_mult: 2
  }
  convolution_param {
    num_output: 64
    pad: 2
    kernel_size: 5
    stride: 1
    weight_filler {
      type: "gaussian"
      std: 0.01
    }
    bias_filler {
      type: "constant"
    }
  }
}
layer {
  name: "relu5"
  type: "ReLU"
  bottom: "conv5"
  top: "conv5"
}
layer {
  name: "pool5"
  type: "Pooling"
  bottom: "conv5"
  top: "pool5"
  pooling_param {
    pool: AVE
    kernel_size: 3
    stride: 2
  }
}
layer {
  name: "ip1"
  type: "InnerProduct"
  bottom: "pool5"
  top: "ip1"
  param {
    lr_mult: 1
  }
  param {
    lr_mult: 2
  }
  inner_product_param {
    num_output: 64
    weight_filler {
      type: "gaussian"
      std: 0.1
    }
    bias_filler {
      type: "constant"
    }
  }
}
layer {
  name: "ip2"
  type: "InnerProduct"
  bottom: "ip1"
  top: "ip2"
  param {
    lr_mult: 1
  }
  param {
    lr_mult: 2
  }
  inner_product_param {
    num_output: 64
    weight_filler {
      type: "gaussian"
      std: 0.1
    }
    bias_filler {
      type: "constant"
    }
  }
}
layer {
  name: "ip3"
  type: "InnerProduct"
  bottom: "ip2"
  top: "ip3"
  param {
    lr_mult: 1
  }
  param {
    lr_mult: 2
  }
  inner_product_param {
    num_output: 50
    weight_filler {
      type: "gaussian"
      std: 0.1
    }
    bias_filler {
      type: "constant"
    }
  }
}
layer {
  name: "accuracy"
  type: "Accuracy"
  bottom: "ip3"
  bottom: "label"
  top: "accuracy"
  include {
    phase: TEST
  }
}
layer {
  name: "loss"
  type: "SoftmaxWithLoss"
  bottom: "ip3"
  bottom: "label"
  top: "loss"
}
I0507 17:21:13.767102  5268 layer_factory.hpp:77] Creating layer intercept
I0507 17:21:13.767110  5268 net.cpp:94] Creating Layer intercept
I0507 17:21:13.767114  5268 net.cpp:409] intercept -> data
I0507 17:21:13.767122  5268 net.cpp:409] intercept -> label
I0507 17:21:13.767127  5268 hdf5_data_layer.cpp:79] Loading list of HDF5 filenames from: /home/purduethu/scratch/radon/d/deng106/CNNStatisticalModel/distributions/input/20_distributions_100_sample_size_test-distributions-path.txt
I0507 17:21:13.767145  5268 hdf5_data_layer.cpp:93] Number of HDF5 files: 1
I0507 17:21:13.784418  5268 net.cpp:144] Setting up intercept
I0507 17:21:13.784452  5268 net.cpp:151] Top shape: 20 1 10 10 (2000)
I0507 17:21:13.784458  5268 net.cpp:151] Top shape: 20 (20)
I0507 17:21:13.784461  5268 net.cpp:159] Memory required for data: 8080
I0507 17:21:13.784466  5268 layer_factory.hpp:77] Creating layer label_intercept_1_split
I0507 17:21:13.784487  5268 net.cpp:94] Creating Layer label_intercept_1_split
I0507 17:21:13.784490  5268 net.cpp:435] label_intercept_1_split <- label
I0507 17:21:13.784495  5268 net.cpp:409] label_intercept_1_split -> label_intercept_1_split_0
I0507 17:21:13.784503  5268 net.cpp:409] label_intercept_1_split -> label_intercept_1_split_1
I0507 17:21:13.784548  5268 net.cpp:144] Setting up label_intercept_1_split
I0507 17:21:13.784562  5268 net.cpp:151] Top shape: 20 (20)
I0507 17:21:13.784566  5268 net.cpp:151] Top shape: 20 (20)
I0507 17:21:13.784569  5268 net.cpp:159] Memory required for data: 8240
I0507 17:21:13.784572  5268 layer_factory.hpp:77] Creating layer conv1
I0507 17:21:13.784582  5268 net.cpp:94] Creating Layer conv1
I0507 17:21:13.784586  5268 net.cpp:435] conv1 <- data
I0507 17:21:13.784591  5268 net.cpp:409] conv1 -> conv1
I0507 17:21:13.785403  5268 net.cpp:144] Setting up conv1
I0507 17:21:13.785418  5268 net.cpp:151] Top shape: 20 64 10 10 (128000)
I0507 17:21:13.785429  5268 net.cpp:159] Memory required for data: 520240
I0507 17:21:13.785439  5268 layer_factory.hpp:77] Creating layer relu1
I0507 17:21:13.785446  5268 net.cpp:94] Creating Layer relu1
I0507 17:21:13.785449  5268 net.cpp:435] relu1 <- conv1
I0507 17:21:13.785454  5268 net.cpp:396] relu1 -> conv1 (in-place)
I0507 17:21:13.785460  5268 net.cpp:144] Setting up relu1
I0507 17:21:13.785465  5268 net.cpp:151] Top shape: 20 64 10 10 (128000)
I0507 17:21:13.785468  5268 net.cpp:159] Memory required for data: 1032240
I0507 17:21:13.785471  5268 layer_factory.hpp:77] Creating layer conv2
I0507 17:21:13.785478  5268 net.cpp:94] Creating Layer conv2
I0507 17:21:13.785481  5268 net.cpp:435] conv2 <- conv1
I0507 17:21:13.785486  5268 net.cpp:409] conv2 -> conv2
I0507 17:21:13.789532  5268 net.cpp:144] Setting up conv2
I0507 17:21:13.789546  5268 net.cpp:151] Top shape: 20 64 10 10 (128000)
I0507 17:21:13.789549  5268 net.cpp:159] Memory required for data: 1544240
I0507 17:21:13.789557  5268 layer_factory.hpp:77] Creating layer relu2
I0507 17:21:13.789563  5268 net.cpp:94] Creating Layer relu2
I0507 17:21:13.789566  5268 net.cpp:435] relu2 <- conv2
I0507 17:21:13.789571  5268 net.cpp:396] relu2 -> conv2 (in-place)
I0507 17:21:13.789577  5268 net.cpp:144] Setting up relu2
I0507 17:21:13.789582  5268 net.cpp:151] Top shape: 20 64 10 10 (128000)
I0507 17:21:13.789584  5268 net.cpp:159] Memory required for data: 2056240
I0507 17:21:13.789587  5268 layer_factory.hpp:77] Creating layer pool2
I0507 17:21:13.789593  5268 net.cpp:94] Creating Layer pool2
I0507 17:21:13.789597  5268 net.cpp:435] pool2 <- conv2
I0507 17:21:13.789600  5268 net.cpp:409] pool2 -> pool2
I0507 17:21:13.789656  5268 net.cpp:144] Setting up pool2
I0507 17:21:13.789664  5268 net.cpp:151] Top shape: 20 64 5 5 (32000)
I0507 17:21:13.789666  5268 net.cpp:159] Memory required for data: 2184240
I0507 17:21:13.789669  5268 layer_factory.hpp:77] Creating layer conv3
I0507 17:21:13.789677  5268 net.cpp:94] Creating Layer conv3
I0507 17:21:13.789680  5268 net.cpp:435] conv3 <- pool2
I0507 17:21:13.789685  5268 net.cpp:409] conv3 -> conv3
I0507 17:21:13.793174  5268 net.cpp:144] Setting up conv3
I0507 17:21:13.793187  5268 net.cpp:151] Top shape: 20 64 5 5 (32000)
I0507 17:21:13.793191  5268 net.cpp:159] Memory required for data: 2312240
I0507 17:21:13.793200  5268 layer_factory.hpp:77] Creating layer relu3
I0507 17:21:13.793205  5268 net.cpp:94] Creating Layer relu3
I0507 17:21:13.793210  5268 net.cpp:435] relu3 <- conv3
I0507 17:21:13.793213  5268 net.cpp:396] relu3 -> conv3 (in-place)
I0507 17:21:13.793220  5268 net.cpp:144] Setting up relu3
I0507 17:21:13.793225  5268 net.cpp:151] Top shape: 20 64 5 5 (32000)
I0507 17:21:13.793227  5268 net.cpp:159] Memory required for data: 2440240
I0507 17:21:13.793231  5268 layer_factory.hpp:77] Creating layer conv4
I0507 17:21:13.793237  5268 net.cpp:94] Creating Layer conv4
I0507 17:21:13.793241  5268 net.cpp:435] conv4 <- conv3
I0507 17:21:13.793246  5268 net.cpp:409] conv4 -> conv4
I0507 17:21:13.796731  5268 net.cpp:144] Setting up conv4
I0507 17:21:13.796744  5268 net.cpp:151] Top shape: 20 64 5 5 (32000)
I0507 17:21:13.796748  5268 net.cpp:159] Memory required for data: 2568240
I0507 17:21:13.796754  5268 layer_factory.hpp:77] Creating layer relu4
I0507 17:21:13.796761  5268 net.cpp:94] Creating Layer relu4
I0507 17:21:13.796763  5268 net.cpp:435] relu4 <- conv4
I0507 17:21:13.796768  5268 net.cpp:396] relu4 -> conv4 (in-place)
I0507 17:21:13.796774  5268 net.cpp:144] Setting up relu4
I0507 17:21:13.796778  5268 net.cpp:151] Top shape: 20 64 5 5 (32000)
I0507 17:21:13.796782  5268 net.cpp:159] Memory required for data: 2696240
I0507 17:21:13.796784  5268 layer_factory.hpp:77] Creating layer conv5
I0507 17:21:13.796792  5268 net.cpp:94] Creating Layer conv5
I0507 17:21:13.796794  5268 net.cpp:435] conv5 <- conv4
I0507 17:21:13.796799  5268 net.cpp:409] conv5 -> conv5
I0507 17:21:13.800809  5268 net.cpp:144] Setting up conv5
I0507 17:21:13.800823  5268 net.cpp:151] Top shape: 20 64 5 5 (32000)
I0507 17:21:13.800827  5268 net.cpp:159] Memory required for data: 2824240
I0507 17:21:13.800839  5268 layer_factory.hpp:77] Creating layer relu5
I0507 17:21:13.800845  5268 net.cpp:94] Creating Layer relu5
I0507 17:21:13.800848  5268 net.cpp:435] relu5 <- conv5
I0507 17:21:13.800854  5268 net.cpp:396] relu5 -> conv5 (in-place)
I0507 17:21:13.800861  5268 net.cpp:144] Setting up relu5
I0507 17:21:13.800865  5268 net.cpp:151] Top shape: 20 64 5 5 (32000)
I0507 17:21:13.800868  5268 net.cpp:159] Memory required for data: 2952240
I0507 17:21:13.800871  5268 layer_factory.hpp:77] Creating layer pool5
I0507 17:21:13.800876  5268 net.cpp:94] Creating Layer pool5
I0507 17:21:13.800879  5268 net.cpp:435] pool5 <- conv5
I0507 17:21:13.800884  5268 net.cpp:409] pool5 -> pool5
I0507 17:21:13.800922  5268 net.cpp:144] Setting up pool5
I0507 17:21:13.800930  5268 net.cpp:151] Top shape: 20 64 2 2 (5120)
I0507 17:21:13.800932  5268 net.cpp:159] Memory required for data: 2972720
I0507 17:21:13.800935  5268 layer_factory.hpp:77] Creating layer ip1
I0507 17:21:13.800942  5268 net.cpp:94] Creating Layer ip1
I0507 17:21:13.800946  5268 net.cpp:435] ip1 <- pool5
I0507 17:21:13.800951  5268 net.cpp:409] ip1 -> ip1
I0507 17:21:13.801493  5268 net.cpp:144] Setting up ip1
I0507 17:21:13.801501  5268 net.cpp:151] Top shape: 20 64 (1280)
I0507 17:21:13.801504  5268 net.cpp:159] Memory required for data: 2977840
I0507 17:21:13.801509  5268 layer_factory.hpp:77] Creating layer ip2
I0507 17:21:13.801517  5268 net.cpp:94] Creating Layer ip2
I0507 17:21:13.801520  5268 net.cpp:435] ip2 <- ip1
I0507 17:21:13.801524  5268 net.cpp:409] ip2 -> ip2
I0507 17:21:13.801759  5268 net.cpp:144] Setting up ip2
I0507 17:21:13.801767  5268 net.cpp:151] Top shape: 20 64 (1280)
I0507 17:21:13.801769  5268 net.cpp:159] Memory required for data: 2982960
I0507 17:21:13.801774  5268 layer_factory.hpp:77] Creating layer ip3
I0507 17:21:13.801782  5268 net.cpp:94] Creating Layer ip3
I0507 17:21:13.801785  5268 net.cpp:435] ip3 <- ip2
I0507 17:21:13.801790  5268 net.cpp:409] ip3 -> ip3
I0507 17:21:13.801995  5268 net.cpp:144] Setting up ip3
I0507 17:21:13.802001  5268 net.cpp:151] Top shape: 20 50 (1000)
I0507 17:21:13.802004  5268 net.cpp:159] Memory required for data: 2986960
I0507 17:21:13.802009  5268 layer_factory.hpp:77] Creating layer ip3_ip3_0_split
I0507 17:21:13.802014  5268 net.cpp:94] Creating Layer ip3_ip3_0_split
I0507 17:21:13.802017  5268 net.cpp:435] ip3_ip3_0_split <- ip3
I0507 17:21:13.802022  5268 net.cpp:409] ip3_ip3_0_split -> ip3_ip3_0_split_0
I0507 17:21:13.802028  5268 net.cpp:409] ip3_ip3_0_split -> ip3_ip3_0_split_1
I0507 17:21:13.802073  5268 net.cpp:144] Setting up ip3_ip3_0_split
I0507 17:21:13.802079  5268 net.cpp:151] Top shape: 20 50 (1000)
I0507 17:21:13.802083  5268 net.cpp:151] Top shape: 20 50 (1000)
I0507 17:21:13.802085  5268 net.cpp:159] Memory required for data: 2994960
I0507 17:21:13.802088  5268 layer_factory.hpp:77] Creating layer accuracy
I0507 17:21:13.802094  5268 net.cpp:94] Creating Layer accuracy
I0507 17:21:13.802098  5268 net.cpp:435] accuracy <- ip3_ip3_0_split_0
I0507 17:21:13.802100  5268 net.cpp:435] accuracy <- label_intercept_1_split_0
I0507 17:21:13.802105  5268 net.cpp:409] accuracy -> accuracy
…
