…
I0507 03:05:39.491565 31051 net.cpp:323] The NetState phase (0) differed from the phase (1) specified by a rule in layer intercept
I0507 03:05:39.491582 31051 net.cpp:323] The NetState phase (0) differed from the phase (1) specified by a rule in layer loss
I0507 03:05:39.491662 31051 net.cpp:52] Initializing net from parameters: 
state {
  phase: TRAIN
}
layer {
  name: "parameters"
  type: "HDF5Data"
  top: "data"
  top: "label"
  include {
    phase: TRAIN
  }
  hdf5_data_param {
    source: "/home/purduethu/scratch/radon/d/deng106/CNNStatisticalModel/distributions/input/50_distributions_100_sample_size_train-parameters-path.txt"
    batch_size: 20
  }
}
layer {
  name: "conv1"
  type: "Convolution"
  bottom: "data"
  top: "conv1"
  param {
    lr_mult: 1
  }
  param {
    lr_mult: 2
  }
  convolution_param {
    num_output: 64
    pad: 2
    kernel_size: 5
    stride: 1
    weight_filler {
      type: "gaussian"
      std: 0.0001
    }
    bias_filler {
      type: "constant"
    }
  }
}
layer {
  name: "relu1"
  type: "ReLU"
  bottom: "conv1"
  top: "conv1"
}
layer {
  name: "conv2"
  type: "Convolution"
  bottom: "conv1"
  top: "conv2"
  param {
    lr_mult: 1
  }
  param {
    lr_mult: 2
  }
  convolution_param {
    num_output: 64
    pad: 2
    kernel_size: 5
    stride: 1
    weight_filler {
      type: "gaussian"
      std: 0.01
    }
    bias_filler {
      type: "constant"
    }
  }
}
layer {
  name: "relu2"
  type: "ReLU"
  bottom: "conv2"
  top: "conv2"
}
layer {
  name: "pool2"
  type: "Pooling"
  bottom: "conv2"
  top: "pool2"
  pooling_param {
    pool: MAX
    kernel_size: 3
    stride: 2
  }
}
layer {
  name: "conv3"
  type: "Convolution"
  bottom: "pool2"
  top: "conv3"
  param {
    lr_mult: 1
  }
  param {
    lr_mult: 2
  }
  convolution_param {
    num_output: 64
    pad: 2
    kernel_size: 5
    stride: 1
    weight_filler {
      type: "gaussian"
      std: 0.01
    }
    bias_filler {
      type: "constant"
    }
  }
}
layer {
  name: "relu3"
  type: "ReLU"
  bottom: "conv3"
  top: "conv3"
}
layer {
  name: "conv4"
  type: "Convolution"
  bottom: "conv3"
  top: "conv4"
  param {
    lr_mult: 1
  }
  param {
    lr_mult: 2
  }
  convolution_param {
    num_output: 64
    pad: 2
    kernel_size: 5
    stride: 1
    weight_filler {
      type: "gaussian"
      std: 0.01
    }
    bias_filler {
      type: "constant"
    }
  }
}
layer {
  name: "relu4"
  type: "ReLU"
  bottom: "conv4"
  top: "conv4"
}
layer {
  name: "conv5"
  type: "Convolution"
  bottom: "conv4"
  top: "conv5"
  param {
    lr_mult: 1
  }
  param {
    lr_mult: 2
  }
  convolution_param {
    num_output: 64
    pad: 2
    kernel_size: 5
    stride: 1
    weight_filler {
      type: "gaussian"
      std: 0.01
    }
    bias_filler {
      type: "constant"
    }
  }
}
layer {
  name: "relu5"
  type: "ReLU"
  bottom: "conv5"
  top: "conv5"
}
layer {
  name: "pool5"
  type: "Pooling"
  bottom: "conv5"
  top: "pool5"
  pooling_param {
    pool: AVE
    kernel_size: 3
    stride: 2
  }
}
layer {
  name: "ip1"
  type: "InnerProduct"
  bottom: "pool5"
  top: "ip1"
  param {
    lr_mult: 1
  }
  param {
    lr_mult: 2
  }
  inner_product_param {
    num_output: 64
    weight_filler {
      type: "gaussian"
      std: 0.1
    }
    bias_filler {
      type: "constant"
    }
  }
}
layer {
  name: "ip2"
  type: "InnerProduct"
  bottom: "ip1"
  top: "ip2"
  param {
    lr_mult: 1
  }
  param {
    lr_mult: 2
  }
  inner_product_param {
    num_output: 64
    weight_filler {
      type: "gaussian"
      std: 0.1
    }
    bias_filler {
      type: "constant"
    }
  }
}
layer {
  name: "ip3"
  type: "InnerProduct"
  bottom: "ip2"
  top: "ip3"
  param {
    lr_mult: 1
  }
  param {
    lr_mult: 2
  }
  inner_product_param {
    num_output: 1
    weight_filler {
      type: "gaussian"
      std: 0.1
    }
    bias_filler {
      type: "constant"
    }
  }
}
layer {
  name: "loss"
  type: "HuberLoss"
  bottom: "ip3"
  bottom: "label"
  top: "loss"
  include {
    phase: TRAIN
  }
}
I0507 03:05:39.491717 31051 layer_factory.hpp:77] Creating layer parameters
I0507 03:05:39.491734 31051 net.cpp:94] Creating Layer parameters
I0507 03:05:39.491739 31051 net.cpp:409] parameters -> data
I0507 03:05:39.491750 31051 net.cpp:409] parameters -> label
I0507 03:05:39.491756 31051 hdf5_data_layer.cpp:79] Loading list of HDF5 filenames from: /home/purduethu/scratch/radon/d/deng106/CNNStatisticalModel/distributions/input/50_distributions_100_sample_size_train-parameters-path.txt
I0507 03:05:39.491772 31051 hdf5_data_layer.cpp:93] Number of HDF5 files: 1
I0507 03:05:39.492305 31051 hdf5.cpp:32] Datatype class: H5T_FLOAT
I0507 03:05:39.653769 31051 net.cpp:144] Setting up parameters
I0507 03:05:39.653805 31051 net.cpp:151] Top shape: 20 1 10 10 (2000)
I0507 03:05:39.653810 31051 net.cpp:151] Top shape: 20 (20)
I0507 03:05:39.653815 31051 net.cpp:159] Memory required for data: 8080
I0507 03:05:39.653820 31051 layer_factory.hpp:77] Creating layer conv1
I0507 03:05:39.653843 31051 net.cpp:94] Creating Layer conv1
I0507 03:05:39.653848 31051 net.cpp:435] conv1 <- data
I0507 03:05:39.653856 31051 net.cpp:409] conv1 -> conv1
I0507 03:05:39.658057 31051 net.cpp:144] Setting up conv1
I0507 03:05:39.658074 31051 net.cpp:151] Top shape: 20 64 10 10 (128000)
I0507 03:05:39.658079 31051 net.cpp:159] Memory required for data: 520080
I0507 03:05:39.658090 31051 layer_factory.hpp:77] Creating layer relu1
I0507 03:05:39.658099 31051 net.cpp:94] Creating Layer relu1
I0507 03:05:39.658103 31051 net.cpp:435] relu1 <- conv1
I0507 03:05:39.658108 31051 net.cpp:396] relu1 -> conv1 (in-place)
I0507 03:05:39.658120 31051 net.cpp:144] Setting up relu1
I0507 03:05:39.658126 31051 net.cpp:151] Top shape: 20 64 10 10 (128000)
I0507 03:05:39.658130 31051 net.cpp:159] Memory required for data: 1032080
I0507 03:05:39.658133 31051 layer_factory.hpp:77] Creating layer conv2
I0507 03:05:39.658143 31051 net.cpp:94] Creating Layer conv2
I0507 03:05:39.658146 31051 net.cpp:435] conv2 <- conv1
I0507 03:05:39.658152 31051 net.cpp:409] conv2 -> conv2
I0507 03:05:39.664254 31051 net.cpp:144] Setting up conv2
I0507 03:05:39.664268 31051 net.cpp:151] Top shape: 20 64 10 10 (128000)
I0507 03:05:39.664273 31051 net.cpp:159] Memory required for data: 1544080
I0507 03:05:39.664281 31051 layer_factory.hpp:77] Creating layer relu2
I0507 03:05:39.664288 31051 net.cpp:94] Creating Layer relu2
I0507 03:05:39.664294 31051 net.cpp:435] relu2 <- conv2
I0507 03:05:39.664299 31051 net.cpp:396] relu2 -> conv2 (in-place)
I0507 03:05:39.664306 31051 net.cpp:144] Setting up relu2
I0507 03:05:39.664311 31051 net.cpp:151] Top shape: 20 64 10 10 (128000)
I0507 03:05:39.664314 31051 net.cpp:159] Memory required for data: 2056080
I0507 03:05:39.664319 31051 layer_factory.hpp:77] Creating layer pool2
I0507 03:05:39.664324 31051 net.cpp:94] Creating Layer pool2
I0507 03:05:39.664328 31051 net.cpp:435] pool2 <- conv2
I0507 03:05:39.664333 31051 net.cpp:409] pool2 -> pool2
I0507 03:05:39.664384 31051 net.cpp:144] Setting up pool2
I0507 03:05:39.664392 31051 net.cpp:151] Top shape: 20 64 5 5 (32000)
I0507 03:05:39.664397 31051 net.cpp:159] Memory required for data: 2184080
I0507 03:05:39.664400 31051 layer_factory.hpp:77] Creating layer conv3
I0507 03:05:39.664408 31051 net.cpp:94] Creating Layer conv3
I0507 03:05:39.664412 31051 net.cpp:435] conv3 <- pool2
I0507 03:05:39.664423 31051 net.cpp:409] conv3 -> conv3
I0507 03:05:39.669419 31051 net.cpp:144] Setting up conv3
I0507 03:05:39.669431 31051 net.cpp:151] Top shape: 20 64 5 5 (32000)
I0507 03:05:39.669436 31051 net.cpp:159] Memory required for data: 2312080
I0507 03:05:39.669445 31051 layer_factory.hpp:77] Creating layer relu3
I0507 03:05:39.669450 31051 net.cpp:94] Creating Layer relu3
I0507 03:05:39.669456 31051 net.cpp:435] relu3 <- conv3
I0507 03:05:39.669461 31051 net.cpp:396] relu3 -> conv3 (in-place)
I0507 03:05:39.669467 31051 net.cpp:144] Setting up relu3
I0507 03:05:39.669473 31051 net.cpp:151] Top shape: 20 64 5 5 (32000)
I0507 03:05:39.669476 31051 net.cpp:159] Memory required for data: 2440080
I0507 03:05:39.669481 31051 layer_factory.hpp:77] Creating layer conv4
I0507 03:05:39.669489 31051 net.cpp:94] Creating Layer conv4
I0507 03:05:39.669493 31051 net.cpp:435] conv4 <- conv3
I0507 03:05:39.669498 31051 net.cpp:409] conv4 -> conv4
I0507 03:05:39.673975 31051 net.cpp:144] Setting up conv4
I0507 03:05:39.673990 31051 net.cpp:151] Top shape: 20 64 5 5 (32000)
I0507 03:05:39.673993 31051 net.cpp:159] Memory required for data: 2568080
I0507 03:05:39.674000 31051 layer_factory.hpp:77] Creating layer relu4
I0507 03:05:39.674006 31051 net.cpp:94] Creating Layer relu4
I0507 03:05:39.674010 31051 net.cpp:435] relu4 <- conv4
I0507 03:05:39.674015 31051 net.cpp:396] relu4 -> conv4 (in-place)
I0507 03:05:39.674022 31051 net.cpp:144] Setting up relu4
I0507 03:05:39.674027 31051 net.cpp:151] Top shape: 20 64 5 5 (32000)
I0507 03:05:39.674031 31051 net.cpp:159] Memory required for data: 2696080
I0507 03:05:39.674034 31051 layer_factory.hpp:77] Creating layer conv5
I0507 03:05:39.674042 31051 net.cpp:94] Creating Layer conv5
I0507 03:05:39.674046 31051 net.cpp:435] conv5 <- conv4
I0507 03:05:39.674052 31051 net.cpp:409] conv5 -> conv5
I0507 03:05:39.678970 31051 net.cpp:144] Setting up conv5
I0507 03:05:39.678984 31051 net.cpp:151] Top shape: 20 64 5 5 (32000)
I0507 03:05:39.678988 31051 net.cpp:159] Memory required for data: 2824080
I0507 03:05:39.678997 31051 layer_factory.hpp:77] Creating layer relu5
I0507 03:05:39.679003 31051 net.cpp:94] Creating Layer relu5
I0507 03:05:39.679008 31051 net.cpp:435] relu5 <- conv5
I0507 03:05:39.679013 31051 net.cpp:396] relu5 -> conv5 (in-place)
I0507 03:05:39.679020 31051 net.cpp:144] Setting up relu5
I0507 03:05:39.679025 31051 net.cpp:151] Top shape: 20 64 5 5 (32000)
I0507 03:05:39.679029 31051 net.cpp:159] Memory required for data: 2952080
I0507 03:05:39.679033 31051 layer_factory.hpp:77] Creating layer pool5
I0507 03:05:39.679039 31051 net.cpp:94] Creating Layer pool5
I0507 03:05:39.679042 31051 net.cpp:435] pool5 <- conv5
I0507 03:05:39.679046 31051 net.cpp:409] pool5 -> pool5
I0507 03:05:39.679083 31051 net.cpp:144] Setting up pool5
I0507 03:05:39.679091 31051 net.cpp:151] Top shape: 20 64 2 2 (5120)
I0507 03:05:39.679095 31051 net.cpp:159] Memory required for data: 2972560
I0507 03:05:39.679100 31051 layer_factory.hpp:77] Creating layer ip1
I0507 03:05:39.679110 31051 net.cpp:94] Creating Layer ip1
I0507 03:05:39.679113 31051 net.cpp:435] ip1 <- pool5
I0507 03:05:39.679118 31051 net.cpp:409] ip1 -> ip1
I0507 03:05:39.680418 31051 net.cpp:144] Setting up ip1
I0507 03:05:39.680430 31051 net.cpp:151] Top shape: 20 64 (1280)
I0507 03:05:39.680434 31051 net.cpp:159] Memory required for data: 2977680
I0507 03:05:39.680441 31051 layer_factory.hpp:77] Creating layer ip2
I0507 03:05:39.680449 31051 net.cpp:94] Creating Layer ip2
I0507 03:05:39.680452 31051 net.cpp:435] ip2 <- ip1
I0507 03:05:39.680459 31051 net.cpp:409] ip2 -> ip2
I0507 03:05:39.680682 31051 net.cpp:144] Setting up ip2
I0507 03:05:39.680693 31051 net.cpp:151] Top shape: 20 64 (1280)
I0507 03:05:39.680697 31051 net.cpp:159] Memory required for data: 2982800
I0507 03:05:39.680703 31051 layer_factory.hpp:77] Creating layer ip3
I0507 03:05:39.680711 31051 net.cpp:94] Creating Layer ip3
I0507 03:05:39.680714 31051 net.cpp:435] ip3 <- ip2
I0507 03:05:39.680719 31051 net.cpp:409] ip3 -> ip3
I0507 03:05:39.680826 31051 net.cpp:144] Setting up ip3
I0507 03:05:39.680835 31051 net.cpp:151] Top shape: 20 1 (20)
I0507 03:05:39.680838 31051 net.cpp:159] Memory required for data: 2982880
I0507 03:05:39.680845 31051 layer_factory.hpp:77] Creating layer loss
I0507 03:05:39.680851 31051 net.cpp:94] Creating Layer loss
I0507 03:05:39.680855 31051 net.cpp:435] loss <- ip3
I0507 03:05:39.680860 31051 net.cpp:435] loss <- label
I0507 03:05:39.680865 31051 net.cpp:409] loss -> loss
I0507 03:05:39.680913 31051 net.cpp:144] Setting up loss
…
I0507 03:05:39.741901 31051 net.cpp:323] The NetState phase (0) differed from the phase (1) specified by a rule in layer intercept
I0507 03:05:39.741919 31051 net.cpp:323] The NetState phase (0) differed from the phase (1) specified by a rule in layer accuracy
I0507 03:05:39.742007 31051 net.cpp:52] Initializing net from parameters: 
state {
  phase: TRAIN
}
layer {
  name: "parameters"
  type: "HDF5Data"
  top: "data"
  top: "label"
  include {
    phase: TRAIN
  }
  hdf5_data_param {
    source: "/home/purduethu/scratch/radon/d/deng106/CNNStatisticalModel/distributions/input/50_distributions_100_sample_size_train-distributions-path.txt"
    batch_size: 20
  }
}
layer {
  name: "conv1"
  type: "Convolution"
  bottom: "data"
  top: "conv1"
  param {
    lr_mult: 1
  }
  param {
    lr_mult: 2
  }
  convolution_param {
    num_output: 64
    pad: 2
    kernel_size: 5
    stride: 1
    weight_filler {
      type: "gaussian"
      std: 0.0001
    }
    bias_filler {
      type: "constant"
    }
  }
}
layer {
  name: "relu1"
  type: "ReLU"
  bottom: "conv1"
  top: "conv1"
}
layer {
  name: "conv2"
  type: "Convolution"
  bottom: "conv1"
  top: "conv2"
  param {
    lr_mult: 1
  }
  param {
    lr_mult: 2
  }
  convolution_param {
    num_output: 64
    pad: 2
    kernel_size: 5
    stride: 1
    weight_filler {
      type: "gaussian"
      std: 0.01
    }
    bias_filler {
      type: "constant"
    }
  }
}
layer {
  name: "relu2"
  type: "ReLU"
  bottom: "conv2"
  top: "conv2"
}
layer {
  name: "pool2"
  type: "Pooling"
  bottom: "conv2"
  top: "pool2"
  pooling_param {
    pool: MAX
    kernel_size: 3
    stride: 2
  }
}
layer {
  name: "conv3"
  type: "Convolution"
  bottom: "pool2"
  top: "conv3"
  param {
    lr_mult: 1
  }
  param {
    lr_mult: 2
  }
  convolution_param {
    num_output: 64
    pad: 2
    kernel_size: 5
    stride: 1
    weight_filler {
      type: "gaussian"
      std: 0.01
    }
    bias_filler {
      type: "constant"
    }
  }
}
layer {
  name: "relu3"
  type: "ReLU"
  bottom: "conv3"
  top: "conv3"
}
layer {
  name: "conv4"
  type: "Convolution"
  bottom: "conv3"
  top: "conv4"
  param {
    lr_mult: 1
  }
  param {
    lr_mult: 2
  }
  convolution_param {
    num_output: 64
    pad: 2
    kernel_size: 5
    stride: 1
    weight_filler {
      type: "gaussian"
      std: 0.01
    }
    bias_filler {
      type: "constant"
    }
  }
}
layer {
  name: "relu4"
  type: "ReLU"
  bottom: "conv4"
  top: "conv4"
}
layer {
  name: "conv5"
  type: "Convolution"
  bottom: "conv4"
  top: "conv5"
  param {
    lr_mult: 1
  }
  param {
    lr_mult: 2
  }
  convolution_param {
    num_output: 64
    pad: 2
    kernel_size: 5
    stride: 1
    weight_filler {
      type: "gaussian"
      std: 0.01
    }
    bias_filler {
      type: "constant"
    }
  }
}
layer {
  name: "relu5"
  type: "ReLU"
  bottom: "conv5"
  top: "conv5"
}
layer {
  name: "pool5"
  type: "Pooling"
  bottom: "conv5"
  top: "pool5"
  pooling_param {
    pool: AVE
    kernel_size: 3
    stride: 2
  }
}
layer {
  name: "ip1"
  type: "InnerProduct"
  bottom: "pool5"
  top: "ip1"
  param {
    lr_mult: 1
  }
  param {
    lr_mult: 2
  }
  inner_product_param {
    num_output: 64
    weight_filler {
      type: "gaussian"
      std: 0.1
    }
    bias_filler {
      type: "constant"
    }
  }
}
layer {
  name: "ip2"
  type: "InnerProduct"
  bottom: "ip1"
  top: "ip2"
  param {
    lr_mult: 1
  }
  param {
    lr_mult: 2
  }
  inner_product_param {
    num_output: 64
    weight_filler {
      type: "gaussian"
      std: 0.1
    }
    bias_filler {
      type: "constant"
    }
  }
}
layer {
  name: "ip3"
  type: "InnerProduct"
  bottom: "ip2"
  top: "ip3"
  param {
    lr_mult: 1
  }
  param {
    lr_mult: 2
  }
  inner_product_param {
    num_output: 50
    weight_filler {
      type: "gaussian"
      std: 0.1
    }
    bias_filler {
      type: "constant"
    }
  }
}
layer {
  name: "loss"
  type: "SoftmaxWithLoss"
  bottom: "ip3"
  bottom: "label"
  top: "loss"
}
I0507 03:05:39.742058 31051 layer_factory.hpp:77] Creating layer parameters
I0507 03:05:39.742067 31051 net.cpp:94] Creating Layer parameters
I0507 03:05:39.742071 31051 net.cpp:409] parameters -> data
I0507 03:05:39.742079 31051 net.cpp:409] parameters -> label
I0507 03:05:39.742085 31051 hdf5_data_layer.cpp:79] Loading list of HDF5 filenames from: /home/purduethu/scratch/radon/d/deng106/CNNStatisticalModel/distributions/input/50_distributions_100_sample_size_train-distributions-path.txt
I0507 03:05:39.742101 31051 hdf5_data_layer.cpp:93] Number of HDF5 files: 1
I0507 03:05:39.898155 31051 hdf5.cpp:35] Datatype class: H5T_INTEGER
I0507 03:05:39.901190 31051 net.cpp:144] Setting up parameters
I0507 03:05:39.901216 31051 net.cpp:151] Top shape: 20 1 10 10 (2000)
I0507 03:05:39.901221 31051 net.cpp:151] Top shape: 20 (20)
I0507 03:05:39.901226 31051 net.cpp:159] Memory required for data: 8080
I0507 03:05:39.901232 31051 layer_factory.hpp:77] Creating layer conv1
I0507 03:05:39.901248 31051 net.cpp:94] Creating Layer conv1
I0507 03:05:39.901253 31051 net.cpp:435] conv1 <- data
I0507 03:05:39.901260 31051 net.cpp:409] conv1 -> conv1
I0507 03:05:39.903025 31051 net.cpp:144] Setting up conv1
I0507 03:05:39.903039 31051 net.cpp:151] Top shape: 20 64 10 10 (128000)
I0507 03:05:39.903044 31051 net.cpp:159] Memory required for data: 520080
I0507 03:05:39.903053 31051 layer_factory.hpp:77] Creating layer relu1
I0507 03:05:39.903062 31051 net.cpp:94] Creating Layer relu1
I0507 03:05:39.903066 31051 net.cpp:435] relu1 <- conv1
I0507 03:05:39.903071 31051 net.cpp:396] relu1 -> conv1 (in-place)
I0507 03:05:39.903079 31051 net.cpp:144] Setting up relu1
I0507 03:05:39.903084 31051 net.cpp:151] Top shape: 20 64 10 10 (128000)
I0507 03:05:39.903089 31051 net.cpp:159] Memory required for data: 1032080
I0507 03:05:39.903091 31051 layer_factory.hpp:77] Creating layer conv2
I0507 03:05:39.903100 31051 net.cpp:94] Creating Layer conv2
I0507 03:05:39.903103 31051 net.cpp:435] conv2 <- conv1
I0507 03:05:39.903110 31051 net.cpp:409] conv2 -> conv2
I0507 03:05:39.908506 31051 net.cpp:144] Setting up conv2
I0507 03:05:39.908520 31051 net.cpp:151] Top shape: 20 64 10 10 (128000)
I0507 03:05:39.908524 31051 net.cpp:159] Memory required for data: 1544080
I0507 03:05:39.908534 31051 layer_factory.hpp:77] Creating layer relu2
I0507 03:05:39.908540 31051 net.cpp:94] Creating Layer relu2
I0507 03:05:39.908545 31051 net.cpp:435] relu2 <- conv2
I0507 03:05:39.908560 31051 net.cpp:396] relu2 -> conv2 (in-place)
I0507 03:05:39.908568 31051 net.cpp:144] Setting up relu2
I0507 03:05:39.908574 31051 net.cpp:151] Top shape: 20 64 10 10 (128000)
I0507 03:05:39.908577 31051 net.cpp:159] Memory required for data: 2056080
I0507 03:05:39.908581 31051 layer_factory.hpp:77] Creating layer pool2
I0507 03:05:39.908588 31051 net.cpp:94] Creating Layer pool2
I0507 03:05:39.908591 31051 net.cpp:435] pool2 <- conv2
I0507 03:05:39.908596 31051 net.cpp:409] pool2 -> pool2
I0507 03:05:39.908648 31051 net.cpp:144] Setting up pool2
I0507 03:05:39.908655 31051 net.cpp:151] Top shape: 20 64 5 5 (32000)
I0507 03:05:39.908659 31051 net.cpp:159] Memory required for data: 2184080
I0507 03:05:39.908663 31051 layer_factory.hpp:77] Creating layer conv3
I0507 03:05:39.908671 31051 net.cpp:94] Creating Layer conv3
I0507 03:05:39.908675 31051 net.cpp:435] conv3 <- pool2
I0507 03:05:39.908680 31051 net.cpp:409] conv3 -> conv3
I0507 03:05:39.914458 31051 net.cpp:144] Setting up conv3
I0507 03:05:39.914474 31051 net.cpp:151] Top shape: 20 64 5 5 (32000)
I0507 03:05:39.914477 31051 net.cpp:159] Memory required for data: 2312080
I0507 03:05:39.914486 31051 layer_factory.hpp:77] Creating layer relu3
I0507 03:05:39.914492 31051 net.cpp:94] Creating Layer relu3
I0507 03:05:39.914496 31051 net.cpp:435] relu3 <- conv3
I0507 03:05:39.914501 31051 net.cpp:396] relu3 -> conv3 (in-place)
I0507 03:05:39.914510 31051 net.cpp:144] Setting up relu3
I0507 03:05:39.914515 31051 net.cpp:151] Top shape: 20 64 5 5 (32000)
I0507 03:05:39.914525 31051 net.cpp:159] Memory required for data: 2440080
I0507 03:05:39.914528 31051 layer_factory.hpp:77] Creating layer conv4
I0507 03:05:39.914537 31051 net.cpp:94] Creating Layer conv4
I0507 03:05:39.914541 31051 net.cpp:435] conv4 <- conv3
I0507 03:05:39.914546 31051 net.cpp:409] conv4 -> conv4
I0507 03:05:39.919488 31051 net.cpp:144] Setting up conv4
I0507 03:05:39.919502 31051 net.cpp:151] Top shape: 20 64 5 5 (32000)
I0507 03:05:39.919507 31051 net.cpp:159] Memory required for data: 2568080
I0507 03:05:39.919513 31051 layer_factory.hpp:77] Creating layer relu4
I0507 03:05:39.919520 31051 net.cpp:94] Creating Layer relu4
I0507 03:05:39.919524 31051 net.cpp:435] relu4 <- conv4
I0507 03:05:39.919529 31051 net.cpp:396] relu4 -> conv4 (in-place)
I0507 03:05:39.919536 31051 net.cpp:144] Setting up relu4
I0507 03:05:39.919541 31051 net.cpp:151] Top shape: 20 64 5 5 (32000)
I0507 03:05:39.919545 31051 net.cpp:159] Memory required for data: 2696080
I0507 03:05:39.919548 31051 layer_factory.hpp:77] Creating layer conv5
I0507 03:05:39.919556 31051 net.cpp:94] Creating Layer conv5
I0507 03:05:39.919560 31051 net.cpp:435] conv5 <- conv4
I0507 03:05:39.919566 31051 net.cpp:409] conv5 -> conv5
I0507 03:05:39.924062 31051 net.cpp:144] Setting up conv5
I0507 03:05:39.924075 31051 net.cpp:151] Top shape: 20 64 5 5 (32000)
I0507 03:05:39.924079 31051 net.cpp:159] Memory required for data: 2824080
I0507 03:05:39.924088 31051 layer_factory.hpp:77] Creating layer relu5
I0507 03:05:39.924094 31051 net.cpp:94] Creating Layer relu5
I0507 03:05:39.924098 31051 net.cpp:435] relu5 <- conv5
I0507 03:05:39.924103 31051 net.cpp:396] relu5 -> conv5 (in-place)
I0507 03:05:39.924111 31051 net.cpp:144] Setting up relu5
I0507 03:05:39.924116 31051 net.cpp:151] Top shape: 20 64 5 5 (32000)
I0507 03:05:39.924119 31051 net.cpp:159] Memory required for data: 2952080
I0507 03:05:39.924124 31051 layer_factory.hpp:77] Creating layer pool5
I0507 03:05:39.924129 31051 net.cpp:94] Creating Layer pool5
I0507 03:05:39.924132 31051 net.cpp:435] pool5 <- conv5
I0507 03:05:39.924137 31051 net.cpp:409] pool5 -> pool5
I0507 03:05:39.924172 31051 net.cpp:144] Setting up pool5
I0507 03:05:39.924180 31051 net.cpp:151] Top shape: 20 64 2 2 (5120)
I0507 03:05:39.924183 31051 net.cpp:159] Memory required for data: 2972560
I0507 03:05:39.924187 31051 layer_factory.hpp:77] Creating layer ip1
I0507 03:05:39.924195 31051 net.cpp:94] Creating Layer ip1
I0507 03:05:39.924198 31051 net.cpp:435] ip1 <- pool5
I0507 03:05:39.924203 31051 net.cpp:409] ip1 -> ip1
I0507 03:05:39.924721 31051 net.cpp:144] Setting up ip1
I0507 03:05:39.924731 31051 net.cpp:151] Top shape: 20 64 (1280)
I0507 03:05:39.924734 31051 net.cpp:159] Memory required for data: 2977680
I0507 03:05:39.924741 31051 layer_factory.hpp:77] Creating layer ip2
I0507 03:05:39.924747 31051 net.cpp:94] Creating Layer ip2
I0507 03:05:39.924751 31051 net.cpp:435] ip2 <- ip1
I0507 03:05:39.924757 31051 net.cpp:409] ip2 -> ip2
I0507 03:05:39.924968 31051 net.cpp:144] Setting up ip2
I0507 03:05:39.924976 31051 net.cpp:151] Top shape: 20 64 (1280)
I0507 03:05:39.924980 31051 net.cpp:159] Memory required for data: 2982800
I0507 03:05:39.924985 31051 layer_factory.hpp:77] Creating layer ip3
I0507 03:05:39.924993 31051 net.cpp:94] Creating Layer ip3
I0507 03:05:39.924996 31051 net.cpp:435] ip3 <- ip2
I0507 03:05:39.925001 31051 net.cpp:409] ip3 -> ip3
I0507 03:05:39.925187 31051 net.cpp:144] Setting up ip3
I0507 03:05:39.925194 31051 net.cpp:151] Top shape: 20 50 (1000)
I0507 03:05:39.925199 31051 net.cpp:159] Memory required for data: 2986800
I0507 03:05:39.925204 31051 layer_factory.hpp:77] Creating layer loss
I0507 03:05:39.925211 31051 net.cpp:94] Creating Layer loss
I0507 03:05:39.925215 31051 net.cpp:435] loss <- ip3
I0507 03:05:39.925220 31051 net.cpp:435] loss <- label
I0507 03:05:39.925225 31051 net.cpp:409] loss -> loss
I0507 03:05:39.925231 31051 layer_factory.hpp:77] Creating layer loss
…
I0507 03:05:39.926576 31051 solver.cpp:181] Creating test net (#0) specified by net file: ./protocol/dis_50_100_dimension.protocol_distribution
I0507 03:05:39.926604 31051 net.cpp:323] The NetState phase (1) differed from the phase (0) specified by a rule in layer parameters
I0507 03:05:39.926699 31051 net.cpp:52] Initializing net from parameters: 
state {
  phase: TEST
}
layer {
  name: "intercept"
  type: "HDF5Data"
  top: "data"
  top: "label"
  include {
    phase: TEST
  }
  hdf5_data_param {
    source: "/home/purduethu/scratch/radon/d/deng106/CNNStatisticalModel/distributions/input/50_distributions_100_sample_size_test-distributions-path.txt"
    batch_size: 20
  }
}
layer {
  name: "conv1"
  type: "Convolution"
  bottom: "data"
  top: "conv1"
  param {
    lr_mult: 1
  }
  param {
    lr_mult: 2
  }
  convolution_param {
    num_output: 64
    pad: 2
    kernel_size: 5
    stride: 1
    weight_filler {
      type: "gaussian"
      std: 0.0001
    }
    bias_filler {
      type: "constant"
    }
  }
}
layer {
  name: "relu1"
  type: "ReLU"
  bottom: "conv1"
  top: "conv1"
}
layer {
  name: "conv2"
  type: "Convolution"
  bottom: "conv1"
  top: "conv2"
  param {
    lr_mult: 1
  }
  param {
    lr_mult: 2
  }
  convolution_param {
    num_output: 64
    pad: 2
    kernel_size: 5
    stride: 1
    weight_filler {
      type: "gaussian"
      std: 0.01
    }
    bias_filler {
      type: "constant"
    }
  }
}
layer {
  name: "relu2"
  type: "ReLU"
  bottom: "conv2"
  top: "conv2"
}
layer {
  name: "pool2"
  type: "Pooling"
  bottom: "conv2"
  top: "pool2"
  pooling_param {
    pool: MAX
    kernel_size: 3
    stride: 2
  }
}
layer {
  name: "conv3"
  type: "Convolution"
  bottom: "pool2"
  top: "conv3"
  param {
    lr_mult: 1
  }
  param {
    lr_mult: 2
  }
  convolution_param {
    num_output: 64
    pad: 2
    kernel_size: 5
    stride: 1
    weight_filler {
      type: "gaussian"
      std: 0.01
    }
    bias_filler {
      type: "constant"
    }
  }
}
layer {
  name: "relu3"
  type: "ReLU"
  bottom: "conv3"
  top: "conv3"
}
layer {
  name: "conv4"
  type: "Convolution"
  bottom: "conv3"
  top: "conv4"
  param {
    lr_mult: 1
  }
  param {
    lr_mult: 2
  }
  convolution_param {
    num_output: 64
    pad: 2
    kernel_size: 5
    stride: 1
    weight_filler {
      type: "gaussian"
      std: 0.01
    }
    bias_filler {
      type: "constant"
    }
  }
}
layer {
  name: "relu4"
  type: "ReLU"
  bottom: "conv4"
  top: "conv4"
}
layer {
  name: "conv5"
  type: "Convolution"
  bottom: "conv4"
  top: "conv5"
  param {
    lr_mult: 1
  }
  param {
    lr_mult: 2
  }
  convolution_param {
    num_output: 64
    pad: 2
    kernel_size: 5
    stride: 1
    weight_filler {
      type: "gaussian"
      std: 0.01
    }
    bias_filler {
      type: "constant"
    }
  }
}
layer {
  name: "relu5"
  type: "ReLU"
  bottom: "conv5"
  top: "conv5"
}
layer {
  name: "pool5"
  type: "Pooling"
  bottom: "conv5"
  top: "pool5"
  pooling_param {
    pool: AVE
    kernel_size: 3
    stride: 2
  }
}
layer {
  name: "ip1"
  type: "InnerProduct"
  bottom: "pool5"
  top: "ip1"
  param {
    lr_mult: 1
  }
  param {
    lr_mult: 2
  }
  inner_product_param {
    num_output: 64
    weight_filler {
      type: "gaussian"
      std: 0.1
    }
    bias_filler {
      type: "constant"
    }
  }
}
layer {
  name: "ip2"
  type: "InnerProduct"
  bottom: "ip1"
  top: "ip2"
  param {
    lr_mult: 1
  }
  param {
    lr_mult: 2
  }
  inner_product_param {
    num_output: 64
    weight_filler {
      type: "gaussian"
      std: 0.1
    }
    bias_filler {
      type: "constant"
    }
  }
}
layer {
  name: "ip3"
  type: "InnerProduct"
  bottom: "ip2"
  top: "ip3"
  param {
    lr_mult: 1
  }
  param {
    lr_mult: 2
  }
  inner_product_param {
    num_output: 50
    weight_filler {
      type: "gaussian"
      std: 0.1
    }
    bias_filler {
      type: "constant"
    }
  }
}
layer {
  name: "accuracy"
  type: "Accuracy"
  bottom: "ip3"
  bottom: "label"
  top: "accuracy"
  include {
    phase: TEST
  }
}
layer {
  name: "loss"
  type: "SoftmaxWithLoss"
  bottom: "ip3"
  bottom: "label"
  top: "loss"
}
I0507 03:05:39.926764 31051 layer_factory.hpp:77] Creating layer intercept
I0507 03:05:39.926772 31051 net.cpp:94] Creating Layer intercept
I0507 03:05:39.926777 31051 net.cpp:409] intercept -> data
I0507 03:05:39.926784 31051 net.cpp:409] intercept -> label
I0507 03:05:39.926791 31051 hdf5_data_layer.cpp:79] Loading list of HDF5 filenames from: /home/purduethu/scratch/radon/d/deng106/CNNStatisticalModel/distributions/input/50_distributions_100_sample_size_test-distributions-path.txt
I0507 03:05:39.926811 31051 hdf5_data_layer.cpp:93] Number of HDF5 files: 1
I0507 03:05:39.968034 31051 net.cpp:144] Setting up intercept
I0507 03:05:39.968067 31051 net.cpp:151] Top shape: 20 1 10 10 (2000)
I0507 03:05:39.968073 31051 net.cpp:151] Top shape: 20 (20)
I0507 03:05:39.968076 31051 net.cpp:159] Memory required for data: 8080
I0507 03:05:39.968083 31051 layer_factory.hpp:77] Creating layer label_intercept_1_split
I0507 03:05:39.968103 31051 net.cpp:94] Creating Layer label_intercept_1_split
I0507 03:05:39.968108 31051 net.cpp:435] label_intercept_1_split <- label
I0507 03:05:39.968116 31051 net.cpp:409] label_intercept_1_split -> label_intercept_1_split_0
I0507 03:05:39.968124 31051 net.cpp:409] label_intercept_1_split -> label_intercept_1_split_1
I0507 03:05:39.968164 31051 net.cpp:144] Setting up label_intercept_1_split
I0507 03:05:39.968171 31051 net.cpp:151] Top shape: 20 (20)
I0507 03:05:39.968176 31051 net.cpp:151] Top shape: 20 (20)
I0507 03:05:39.968179 31051 net.cpp:159] Memory required for data: 8240
I0507 03:05:39.968183 31051 layer_factory.hpp:77] Creating layer conv1
I0507 03:05:39.968195 31051 net.cpp:94] Creating Layer conv1
I0507 03:05:39.968199 31051 net.cpp:435] conv1 <- data
I0507 03:05:39.968204 31051 net.cpp:409] conv1 -> conv1
I0507 03:05:39.969033 31051 net.cpp:144] Setting up conv1
I0507 03:05:39.969048 31051 net.cpp:151] Top shape: 20 64 10 10 (128000)
I0507 03:05:39.969051 31051 net.cpp:159] Memory required for data: 520240
I0507 03:05:39.969061 31051 layer_factory.hpp:77] Creating layer relu1
I0507 03:05:39.969069 31051 net.cpp:94] Creating Layer relu1
I0507 03:05:39.969074 31051 net.cpp:435] relu1 <- conv1
I0507 03:05:39.969079 31051 net.cpp:396] relu1 -> conv1 (in-place)
I0507 03:05:39.969086 31051 net.cpp:144] Setting up relu1
I0507 03:05:39.969091 31051 net.cpp:151] Top shape: 20 64 10 10 (128000)
I0507 03:05:39.969095 31051 net.cpp:159] Memory required for data: 1032240
I0507 03:05:39.969106 31051 layer_factory.hpp:77] Creating layer conv2
I0507 03:05:39.969115 31051 net.cpp:94] Creating Layer conv2
I0507 03:05:39.969120 31051 net.cpp:435] conv2 <- conv1
I0507 03:05:39.969125 31051 net.cpp:409] conv2 -> conv2
I0507 03:05:39.973184 31051 net.cpp:144] Setting up conv2
I0507 03:05:39.973197 31051 net.cpp:151] Top shape: 20 64 10 10 (128000)
I0507 03:05:39.973201 31051 net.cpp:159] Memory required for data: 1544240
I0507 03:05:39.973211 31051 layer_factory.hpp:77] Creating layer relu2
I0507 03:05:39.973217 31051 net.cpp:94] Creating Layer relu2
I0507 03:05:39.973222 31051 net.cpp:435] relu2 <- conv2
I0507 03:05:39.973227 31051 net.cpp:396] relu2 -> conv2 (in-place)
I0507 03:05:39.973235 31051 net.cpp:144] Setting up relu2
I0507 03:05:39.973240 31051 net.cpp:151] Top shape: 20 64 10 10 (128000)
I0507 03:05:39.973243 31051 net.cpp:159] Memory required for data: 2056240
I0507 03:05:39.973248 31051 layer_factory.hpp:77] Creating layer pool2
I0507 03:05:39.973253 31051 net.cpp:94] Creating Layer pool2
I0507 03:05:39.973258 31051 net.cpp:435] pool2 <- conv2
I0507 03:05:39.973263 31051 net.cpp:409] pool2 -> pool2
I0507 03:05:39.973315 31051 net.cpp:144] Setting up pool2
I0507 03:05:39.973322 31051 net.cpp:151] Top shape: 20 64 5 5 (32000)
I0507 03:05:39.973325 31051 net.cpp:159] Memory required for data: 2184240
I0507 03:05:39.973328 31051 layer_factory.hpp:77] Creating layer conv3
I0507 03:05:39.973338 31051 net.cpp:94] Creating Layer conv3
I0507 03:05:39.973342 31051 net.cpp:435] conv3 <- pool2
I0507 03:05:39.973348 31051 net.cpp:409] conv3 -> conv3
I0507 03:05:39.977718 31051 net.cpp:144] Setting up conv3
I0507 03:05:39.977732 31051 net.cpp:151] Top shape: 20 64 5 5 (32000)
I0507 03:05:39.977736 31051 net.cpp:159] Memory required for data: 2312240
I0507 03:05:39.977746 31051 layer_factory.hpp:77] Creating layer relu3
I0507 03:05:39.977753 31051 net.cpp:94] Creating Layer relu3
I0507 03:05:39.977758 31051 net.cpp:435] relu3 <- conv3
I0507 03:05:39.977763 31051 net.cpp:396] relu3 -> conv3 (in-place)
I0507 03:05:39.977771 31051 net.cpp:144] Setting up relu3
I0507 03:05:39.977776 31051 net.cpp:151] Top shape: 20 64 5 5 (32000)
I0507 03:05:39.977779 31051 net.cpp:159] Memory required for data: 2440240
I0507 03:05:39.977782 31051 layer_factory.hpp:77] Creating layer conv4
I0507 03:05:39.977792 31051 net.cpp:94] Creating Layer conv4
I0507 03:05:39.977795 31051 net.cpp:435] conv4 <- conv3
I0507 03:05:39.977802 31051 net.cpp:409] conv4 -> conv4
I0507 03:05:39.981308 31051 net.cpp:144] Setting up conv4
I0507 03:05:39.981322 31051 net.cpp:151] Top shape: 20 64 5 5 (32000)
I0507 03:05:39.981325 31051 net.cpp:159] Memory required for data: 2568240
I0507 03:05:39.981333 31051 layer_factory.hpp:77] Creating layer relu4
I0507 03:05:39.981338 31051 net.cpp:94] Creating Layer relu4
I0507 03:05:39.981343 31051 net.cpp:435] relu4 <- conv4
I0507 03:05:39.981348 31051 net.cpp:396] relu4 -> conv4 (in-place)
I0507 03:05:39.981355 31051 net.cpp:144] Setting up relu4
I0507 03:05:39.981360 31051 net.cpp:151] Top shape: 20 64 5 5 (32000)
I0507 03:05:39.981364 31051 net.cpp:159] Memory required for data: 2696240
I0507 03:05:39.981367 31051 layer_factory.hpp:77] Creating layer conv5
I0507 03:05:39.981376 31051 net.cpp:94] Creating Layer conv5
I0507 03:05:39.981380 31051 net.cpp:435] conv5 <- conv4
I0507 03:05:39.981386 31051 net.cpp:409] conv5 -> conv5
I0507 03:05:39.985306 31051 net.cpp:144] Setting up conv5
I0507 03:05:39.985321 31051 net.cpp:151] Top shape: 20 64 5 5 (32000)
I0507 03:05:39.985324 31051 net.cpp:159] Memory required for data: 2824240
I0507 03:05:39.985333 31051 layer_factory.hpp:77] Creating layer relu5
I0507 03:05:39.985340 31051 net.cpp:94] Creating Layer relu5
I0507 03:05:39.985344 31051 net.cpp:435] relu5 <- conv5
I0507 03:05:39.985349 31051 net.cpp:396] relu5 -> conv5 (in-place)
I0507 03:05:39.985357 31051 net.cpp:144] Setting up relu5
I0507 03:05:39.985361 31051 net.cpp:151] Top shape: 20 64 5 5 (32000)
I0507 03:05:39.985365 31051 net.cpp:159] Memory required for data: 2952240
I0507 03:05:39.985373 31051 layer_factory.hpp:77] Creating layer pool5
I0507 03:05:39.985380 31051 net.cpp:94] Creating Layer pool5
I0507 03:05:39.985384 31051 net.cpp:435] pool5 <- conv5
I0507 03:05:39.985389 31051 net.cpp:409] pool5 -> pool5
I0507 03:05:39.985426 31051 net.cpp:144] Setting up pool5
I0507 03:05:39.985435 31051 net.cpp:151] Top shape: 20 64 2 2 (5120)
I0507 03:05:39.985437 31051 net.cpp:159] Memory required for data: 2972720
I0507 03:05:39.985440 31051 layer_factory.hpp:77] Creating layer ip1
I0507 03:05:39.985448 31051 net.cpp:94] Creating Layer ip1
I0507 03:05:39.985451 31051 net.cpp:435] ip1 <- pool5
I0507 03:05:39.985457 31051 net.cpp:409] ip1 -> ip1
I0507 03:05:39.985976 31051 net.cpp:144] Setting up ip1
I0507 03:05:39.985985 31051 net.cpp:151] Top shape: 20 64 (1280)
I0507 03:05:39.985988 31051 net.cpp:159] Memory required for data: 2977840
I0507 03:05:39.985994 31051 layer_factory.hpp:77] Creating layer ip2
I0507 03:05:39.986001 31051 net.cpp:94] Creating Layer ip2
I0507 03:05:39.986006 31051 net.cpp:435] ip2 <- ip1
I0507 03:05:39.986011 31051 net.cpp:409] ip2 -> ip2
I0507 03:05:39.986234 31051 net.cpp:144] Setting up ip2
I0507 03:05:39.986243 31051 net.cpp:151] Top shape: 20 64 (1280)
I0507 03:05:39.986245 31051 net.cpp:159] Memory required for data: 2982960
I0507 03:05:39.986251 31051 layer_factory.hpp:77] Creating layer ip3
I0507 03:05:39.986259 31051 net.cpp:94] Creating Layer ip3
I0507 03:05:39.986264 31051 net.cpp:435] ip3 <- ip2
I0507 03:05:39.986269 31051 net.cpp:409] ip3 -> ip3
I0507 03:05:39.986464 31051 net.cpp:144] Setting up ip3
I0507 03:05:39.986472 31051 net.cpp:151] Top shape: 20 50 (1000)
I0507 03:05:39.986475 31051 net.cpp:159] Memory required for data: 2986960
I0507 03:05:39.986481 31051 layer_factory.hpp:77] Creating layer ip3_ip3_0_split
I0507 03:05:39.986488 31051 net.cpp:94] Creating Layer ip3_ip3_0_split
I0507 03:05:39.986492 31051 net.cpp:435] ip3_ip3_0_split <- ip3
I0507 03:05:39.986496 31051 net.cpp:409] ip3_ip3_0_split -> ip3_ip3_0_split_0
I0507 03:05:39.986502 31051 net.cpp:409] ip3_ip3_0_split -> ip3_ip3_0_split_1
I0507 03:05:39.986542 31051 net.cpp:144] Setting up ip3_ip3_0_split
I0507 03:05:39.986549 31051 net.cpp:151] Top shape: 20 50 (1000)
I0507 03:05:39.986553 31051 net.cpp:151] Top shape: 20 50 (1000)
I0507 03:05:39.986557 31051 net.cpp:159] Memory required for data: 2994960
I0507 03:05:39.986560 31051 layer_factory.hpp:77] Creating layer accuracy
I0507 03:05:39.986567 31051 net.cpp:94] Creating Layer accuracy
I0507 03:05:39.986570 31051 net.cpp:435] accuracy <- ip3_ip3_0_split_0
I0507 03:05:39.986574 31051 net.cpp:435] accuracy <- label_intercept_1_split_0
I0507 03:05:39.986578 31051 net.cpp:409] accuracy -> accuracy
…
