…
I0501 19:09:22.764286 14199 net.cpp:323] The NetState phase (0) differed from the phase (1) specified by a rule in layer intercept
I0501 19:09:22.764302 14199 net.cpp:323] The NetState phase (0) differed from the phase (1) specified by a rule in layer loss
I0501 19:09:22.764390 14199 net.cpp:52] Initializing net from parameters: 
state {
  phase: TRAIN
}
layer {
  name: "parameters"
  type: "HDF5Data"
  top: "data"
  top: "label"
  include {
    phase: TRAIN
  }
  hdf5_data_param {
    source: "/home/purduethu/scratch/radon/d/deng106/CNNStatisticalModel/distributions/input/20_distributions_900_sample_size_train-parameters-path.txt"
    batch_size: 20
  }
}
layer {
  name: "conv1"
  type: "Convolution"
  bottom: "data"
  top: "conv1"
  param {
    lr_mult: 1
  }
  param {
    lr_mult: 2
  }
  convolution_param {
    num_output: 64
    pad: 2
    kernel_size: 5
    stride: 1
    weight_filler {
      type: "gaussian"
      std: 0.0001
    }
    bias_filler {
      type: "constant"
    }
  }
}
layer {
  name: "relu1"
  type: "ReLU"
  bottom: "conv1"
  top: "conv1"
}
layer {
  name: "conv2"
  type: "Convolution"
  bottom: "conv1"
  top: "conv2"
  param {
    lr_mult: 1
  }
  param {
    lr_mult: 2
  }
  convolution_param {
    num_output: 64
    pad: 2
    kernel_size: 5
    stride: 1
    weight_filler {
      type: "gaussian"
      std: 0.01
    }
    bias_filler {
      type: "constant"
    }
  }
}
layer {
  name: "relu2"
  type: "ReLU"
  bottom: "conv2"
  top: "conv2"
}
layer {
  name: "pool2"
  type: "Pooling"
  bottom: "conv2"
  top: "pool2"
  pooling_param {
    pool: MAX
    kernel_size: 3
    stride: 2
  }
}
layer {
  name: "conv3"
  type: "Convolution"
  bottom: "pool2"
  top: "conv3"
  param {
    lr_mult: 1
  }
  param {
    lr_mult: 2
  }
  convolution_param {
    num_output: 64
    pad: 2
    kernel_size: 5
    stride: 1
    weight_filler {
      type: "gaussian"
      std: 0.01
    }
    bias_filler {
      type: "constant"
    }
  }
}
layer {
  name: "relu3"
  type: "ReLU"
  bottom: "conv3"
  top: "conv3"
}
layer {
  name: "conv4"
  type: "Convolution"
  bottom: "conv3"
  top: "conv4"
  param {
    lr_mult: 1
  }
  param {
    lr_mult: 2
  }
  convolution_param {
    num_output: 64
    pad: 2
    kernel_size: 5
    stride: 1
    weight_filler {
      type: "gaussian"
      std: 0.01
    }
    bias_filler {
      type: "constant"
    }
  }
}
layer {
  name: "relu4"
  type: "ReLU"
  bottom: "conv4"
  top: "conv4"
}
layer {
  name: "conv5"
  type: "Convolution"
  bottom: "conv4"
  top: "conv5"
  param {
    lr_mult: 1
  }
  param {
    lr_mult: 2
  }
  convolution_param {
    num_output: 64
    pad: 2
    kernel_size: 5
    stride: 1
    weight_filler {
      type: "gaussian"
      std: 0.01
    }
    bias_filler {
      type: "constant"
    }
  }
}
layer {
  name: "relu5"
  type: "ReLU"
  bottom: "conv5"
  top: "conv5"
}
layer {
  name: "pool5"
  type: "Pooling"
  bottom: "conv5"
  top: "pool5"
  pooling_param {
    pool: AVE
    kernel_size: 3
    stride: 2
  }
}
layer {
  name: "ip1"
  type: "InnerProduct"
  bottom: "pool5"
  top: "ip1"
  param {
    lr_mult: 1
  }
  param {
    lr_mult: 2
  }
  inner_product_param {
    num_output: 64
    weight_filler {
      type: "gaussian"
      std: 0.1
    }
    bias_filler {
      type: "constant"
    }
  }
}
layer {
  name: "ip2"
  type: "InnerProduct"
  bottom: "ip1"
  top: "ip2"
  param {
    lr_mult: 1
  }
  param {
    lr_mult: 2
  }
  inner_product_param {
    num_output: 64
    weight_filler {
      type: "gaussian"
      std: 0.1
    }
    bias_filler {
      type: "constant"
    }
  }
}
layer {
  name: "ip3"
  type: "InnerProduct"
  bottom: "ip2"
  top: "ip3"
  param {
    lr_mult: 1
  }
  param {
    lr_mult: 2
  }
  inner_product_param {
    num_output: 1
    weight_filler {
      type: "gaussian"
      std: 0.1
    }
    bias_filler {
      type: "constant"
    }
  }
}
layer {
  name: "loss"
  type: "HuberLoss"
  bottom: "ip3"
  bottom: "label"
  top: "loss"
  include {
    phase: TRAIN
  }
}
I0501 19:09:22.764464 14199 layer_factory.hpp:77] Creating layer parameters
I0501 19:09:22.764479 14199 net.cpp:94] Creating Layer parameters
I0501 19:09:22.764487 14199 net.cpp:409] parameters -> data
I0501 19:09:22.764506 14199 net.cpp:409] parameters -> label
I0501 19:09:22.764518 14199 hdf5_data_layer.cpp:79] Loading list of HDF5 filenames from: /home/purduethu/scratch/radon/d/deng106/CNNStatisticalModel/distributions/input/20_distributions_900_sample_size_train-parameters-path.txt
I0501 19:09:22.764539 14199 hdf5_data_layer.cpp:93] Number of HDF5 files: 1
I0501 19:09:22.765133 14199 hdf5.cpp:32] Datatype class: H5T_FLOAT
I0501 19:09:23.334239 14199 net.cpp:144] Setting up parameters
I0501 19:09:23.334271 14199 net.cpp:151] Top shape: 20 1 30 30 (18000)
I0501 19:09:23.334277 14199 net.cpp:151] Top shape: 20 (20)
I0501 19:09:23.334281 14199 net.cpp:159] Memory required for data: 72080
I0501 19:09:23.334290 14199 layer_factory.hpp:77] Creating layer conv1
I0501 19:09:23.334308 14199 net.cpp:94] Creating Layer conv1
I0501 19:09:23.334314 14199 net.cpp:435] conv1 <- data
I0501 19:09:23.334324 14199 net.cpp:409] conv1 -> conv1
I0501 19:09:23.340103 14199 net.cpp:144] Setting up conv1
I0501 19:09:23.340118 14199 net.cpp:151] Top shape: 20 64 30 30 (1152000)
I0501 19:09:23.340123 14199 net.cpp:159] Memory required for data: 4680080
I0501 19:09:23.340134 14199 layer_factory.hpp:77] Creating layer relu1
I0501 19:09:23.340143 14199 net.cpp:94] Creating Layer relu1
I0501 19:09:23.340147 14199 net.cpp:435] relu1 <- conv1
I0501 19:09:23.340152 14199 net.cpp:396] relu1 -> conv1 (in-place)
I0501 19:09:23.340170 14199 net.cpp:144] Setting up relu1
I0501 19:09:23.340176 14199 net.cpp:151] Top shape: 20 64 30 30 (1152000)
I0501 19:09:23.340180 14199 net.cpp:159] Memory required for data: 9288080
I0501 19:09:23.340183 14199 layer_factory.hpp:77] Creating layer conv2
I0501 19:09:23.340191 14199 net.cpp:94] Creating Layer conv2
I0501 19:09:23.340195 14199 net.cpp:435] conv2 <- conv1
I0501 19:09:23.340201 14199 net.cpp:409] conv2 -> conv2
I0501 19:09:23.354320 14199 net.cpp:144] Setting up conv2
I0501 19:09:23.354336 14199 net.cpp:151] Top shape: 20 64 30 30 (1152000)
I0501 19:09:23.354341 14199 net.cpp:159] Memory required for data: 13896080
I0501 19:09:23.354349 14199 layer_factory.hpp:77] Creating layer relu2
I0501 19:09:23.354357 14199 net.cpp:94] Creating Layer relu2
I0501 19:09:23.354362 14199 net.cpp:435] relu2 <- conv2
I0501 19:09:23.354367 14199 net.cpp:396] relu2 -> conv2 (in-place)
I0501 19:09:23.354374 14199 net.cpp:144] Setting up relu2
I0501 19:09:23.354379 14199 net.cpp:151] Top shape: 20 64 30 30 (1152000)
I0501 19:09:23.354382 14199 net.cpp:159] Memory required for data: 18504080
I0501 19:09:23.354387 14199 layer_factory.hpp:77] Creating layer pool2
I0501 19:09:23.354394 14199 net.cpp:94] Creating Layer pool2
I0501 19:09:23.354404 14199 net.cpp:435] pool2 <- conv2
I0501 19:09:23.354410 14199 net.cpp:409] pool2 -> pool2
I0501 19:09:23.354455 14199 net.cpp:144] Setting up pool2
I0501 19:09:23.354463 14199 net.cpp:151] Top shape: 20 64 15 15 (288000)
I0501 19:09:23.354467 14199 net.cpp:159] Memory required for data: 19656080
I0501 19:09:23.354470 14199 layer_factory.hpp:77] Creating layer conv3
I0501 19:09:23.354480 14199 net.cpp:94] Creating Layer conv3
I0501 19:09:23.354483 14199 net.cpp:435] conv3 <- pool2
I0501 19:09:23.354488 14199 net.cpp:409] conv3 -> conv3
I0501 19:09:23.362478 14199 net.cpp:144] Setting up conv3
I0501 19:09:23.362494 14199 net.cpp:151] Top shape: 20 64 15 15 (288000)
I0501 19:09:23.362498 14199 net.cpp:159] Memory required for data: 20808080
I0501 19:09:23.362507 14199 layer_factory.hpp:77] Creating layer relu3
I0501 19:09:23.362514 14199 net.cpp:94] Creating Layer relu3
I0501 19:09:23.362519 14199 net.cpp:435] relu3 <- conv3
I0501 19:09:23.362524 14199 net.cpp:396] relu3 -> conv3 (in-place)
I0501 19:09:23.362531 14199 net.cpp:144] Setting up relu3
I0501 19:09:23.362536 14199 net.cpp:151] Top shape: 20 64 15 15 (288000)
I0501 19:09:23.362540 14199 net.cpp:159] Memory required for data: 21960080
I0501 19:09:23.362545 14199 layer_factory.hpp:77] Creating layer conv4
I0501 19:09:23.362553 14199 net.cpp:94] Creating Layer conv4
I0501 19:09:23.362557 14199 net.cpp:435] conv4 <- conv3
I0501 19:09:23.362562 14199 net.cpp:409] conv4 -> conv4
I0501 19:09:23.369650 14199 net.cpp:144] Setting up conv4
I0501 19:09:23.369666 14199 net.cpp:151] Top shape: 20 64 15 15 (288000)
I0501 19:09:23.369670 14199 net.cpp:159] Memory required for data: 23112080
I0501 19:09:23.369678 14199 layer_factory.hpp:77] Creating layer relu4
I0501 19:09:23.369683 14199 net.cpp:94] Creating Layer relu4
I0501 19:09:23.369688 14199 net.cpp:435] relu4 <- conv4
I0501 19:09:23.369693 14199 net.cpp:396] relu4 -> conv4 (in-place)
I0501 19:09:23.369700 14199 net.cpp:144] Setting up relu4
I0501 19:09:23.369705 14199 net.cpp:151] Top shape: 20 64 15 15 (288000)
I0501 19:09:23.369709 14199 net.cpp:159] Memory required for data: 24264080
I0501 19:09:23.369712 14199 layer_factory.hpp:77] Creating layer conv5
I0501 19:09:23.369720 14199 net.cpp:94] Creating Layer conv5
I0501 19:09:23.369724 14199 net.cpp:435] conv5 <- conv4
I0501 19:09:23.369729 14199 net.cpp:409] conv5 -> conv5
I0501 19:09:23.377416 14199 net.cpp:144] Setting up conv5
I0501 19:09:23.377431 14199 net.cpp:151] Top shape: 20 64 15 15 (288000)
I0501 19:09:23.377436 14199 net.cpp:159] Memory required for data: 25416080
I0501 19:09:23.377445 14199 layer_factory.hpp:77] Creating layer relu5
I0501 19:09:23.377451 14199 net.cpp:94] Creating Layer relu5
I0501 19:09:23.377456 14199 net.cpp:435] relu5 <- conv5
I0501 19:09:23.377460 14199 net.cpp:396] relu5 -> conv5 (in-place)
I0501 19:09:23.377468 14199 net.cpp:144] Setting up relu5
I0501 19:09:23.377473 14199 net.cpp:151] Top shape: 20 64 15 15 (288000)
I0501 19:09:23.377477 14199 net.cpp:159] Memory required for data: 26568080
I0501 19:09:23.377480 14199 layer_factory.hpp:77] Creating layer pool5
I0501 19:09:23.377486 14199 net.cpp:94] Creating Layer pool5
I0501 19:09:23.377490 14199 net.cpp:435] pool5 <- conv5
I0501 19:09:23.377495 14199 net.cpp:409] pool5 -> pool5
I0501 19:09:23.377530 14199 net.cpp:144] Setting up pool5
I0501 19:09:23.377538 14199 net.cpp:151] Top shape: 20 64 7 7 (62720)
I0501 19:09:23.377542 14199 net.cpp:159] Memory required for data: 26818960
I0501 19:09:23.377545 14199 layer_factory.hpp:77] Creating layer ip1
I0501 19:09:23.377552 14199 net.cpp:94] Creating Layer ip1
I0501 19:09:23.377557 14199 net.cpp:435] ip1 <- pool5
I0501 19:09:23.377562 14199 net.cpp:409] ip1 -> ip1
I0501 19:09:23.382381 14199 net.cpp:144] Setting up ip1
I0501 19:09:23.382391 14199 net.cpp:151] Top shape: 20 64 (1280)
I0501 19:09:23.382395 14199 net.cpp:159] Memory required for data: 26824080
I0501 19:09:23.382401 14199 layer_factory.hpp:77] Creating layer ip2
I0501 19:09:23.382407 14199 net.cpp:94] Creating Layer ip2
I0501 19:09:23.382416 14199 net.cpp:435] ip2 <- ip1
I0501 19:09:23.382421 14199 net.cpp:409] ip2 -> ip2
I0501 19:09:23.382591 14199 net.cpp:144] Setting up ip2
I0501 19:09:23.382597 14199 net.cpp:151] Top shape: 20 64 (1280)
I0501 19:09:23.382601 14199 net.cpp:159] Memory required for data: 26829200
I0501 19:09:23.382607 14199 layer_factory.hpp:77] Creating layer ip3
I0501 19:09:23.382612 14199 net.cpp:94] Creating Layer ip3
I0501 19:09:23.382616 14199 net.cpp:435] ip3 <- ip2
I0501 19:09:23.382622 14199 net.cpp:409] ip3 -> ip3
I0501 19:09:23.382685 14199 net.cpp:144] Setting up ip3
I0501 19:09:23.382697 14199 net.cpp:151] Top shape: 20 1 (20)
I0501 19:09:23.382701 14199 net.cpp:159] Memory required for data: 26829280
I0501 19:09:23.382707 14199 layer_factory.hpp:77] Creating layer loss
I0501 19:09:23.382719 14199 net.cpp:94] Creating Layer loss
I0501 19:09:23.382722 14199 net.cpp:435] loss <- ip3
I0501 19:09:23.382726 14199 net.cpp:435] loss <- label
I0501 19:09:23.382732 14199 net.cpp:409] loss -> loss
I0501 19:09:23.382768 14199 net.cpp:144] Setting up loss
…
