…
I0501 20:16:03.138164 14473 net.cpp:323] The NetState phase (0) differed from the phase (1) specified by a rule in layer intercept
I0501 20:16:03.138180 14473 net.cpp:323] The NetState phase (0) differed from the phase (1) specified by a rule in layer loss
I0501 20:16:03.138273 14473 net.cpp:52] Initializing net from parameters: 
state {
  phase: TRAIN
}
layer {
  name: "parameters"
  type: "HDF5Data"
  top: "data"
  top: "label"
  include {
    phase: TRAIN
  }
  hdf5_data_param {
    source: "/home/purduethu/scratch/radon/d/deng106/CNNStatisticalModel/distributions/input/5_distributions_100_sample_size_train-parameters-path.txt"
    batch_size: 20
  }
}
layer {
  name: "conv1"
  type: "Convolution"
  bottom: "data"
  top: "conv1"
  param {
    lr_mult: 1
  }
  param {
    lr_mult: 2
  }
  convolution_param {
    num_output: 64
    pad: 2
    kernel_size: 5
    stride: 1
    weight_filler {
      type: "gaussian"
      std: 0.0001
    }
    bias_filler {
      type: "constant"
    }
  }
}
layer {
  name: "relu1"
  type: "ReLU"
  bottom: "conv1"
  top: "conv1"
}
layer {
  name: "conv2"
  type: "Convolution"
  bottom: "conv1"
  top: "conv2"
  param {
    lr_mult: 1
  }
  param {
    lr_mult: 2
  }
  convolution_param {
    num_output: 64
    pad: 2
    kernel_size: 5
    stride: 1
    weight_filler {
      type: "gaussian"
      std: 0.01
    }
    bias_filler {
      type: "constant"
    }
  }
}
layer {
  name: "relu2"
  type: "ReLU"
  bottom: "conv2"
  top: "conv2"
}
layer {
  name: "pool2"
  type: "Pooling"
  bottom: "conv2"
  top: "pool2"
  pooling_param {
    pool: MAX
    kernel_size: 3
    stride: 2
  }
}
layer {
  name: "conv3"
  type: "Convolution"
  bottom: "pool2"
  top: "conv3"
  param {
    lr_mult: 1
  }
  param {
    lr_mult: 2
  }
  convolution_param {
    num_output: 64
    pad: 2
    kernel_size: 5
    stride: 1
    weight_filler {
      type: "gaussian"
      std: 0.01
    }
    bias_filler {
      type: "constant"
    }
  }
}
layer {
  name: "relu3"
  type: "ReLU"
  bottom: "conv3"
  top: "conv3"
}
layer {
  name: "conv4"
  type: "Convolution"
  bottom: "conv3"
  top: "conv4"
  param {
    lr_mult: 1
  }
  param {
    lr_mult: 2
  }
  convolution_param {
    num_output: 64
    pad: 2
    kernel_size: 5
    stride: 1
    weight_filler {
      type: "gaussian"
      std: 0.01
    }
    bias_filler {
      type: "constant"
    }
  }
}
layer {
  name: "relu4"
  type: "ReLU"
  bottom: "conv4"
  top: "conv4"
}
layer {
  name: "conv5"
  type: "Convolution"
  bottom: "conv4"
  top: "conv5"
  param {
    lr_mult: 1
  }
  param {
    lr_mult: 2
  }
  convolution_param {
    num_output: 64
    pad: 2
    kernel_size: 5
    stride: 1
    weight_filler {
      type: "gaussian"
      std: 0.01
    }
    bias_filler {
      type: "constant"
    }
  }
}
layer {
  name: "relu5"
  type: "ReLU"
  bottom: "conv5"
  top: "conv5"
}
layer {
  name: "pool5"
  type: "Pooling"
  bottom: "conv5"
  top: "pool5"
  pooling_param {
    pool: AVE
    kernel_size: 3
    stride: 2
  }
}
layer {
  name: "ip1"
  type: "InnerProduct"
  bottom: "pool5"
  top: "ip1"
  param {
    lr_mult: 1
  }
  param {
    lr_mult: 2
  }
  inner_product_param {
    num_output: 64
    weight_filler {
      type: "gaussian"
      std: 0.1
    }
    bias_filler {
      type: "constant"
    }
  }
}
layer {
  name: "ip2"
  type: "InnerProduct"
  bottom: "ip1"
  top: "ip2"
  param {
    lr_mult: 1
  }
  param {
    lr_mult: 2
  }
  inner_product_param {
    num_output: 64
    weight_filler {
      type: "gaussian"
      std: 0.1
    }
    bias_filler {
      type: "constant"
    }
  }
}
layer {
  name: "ip3"
  type: "InnerProduct"
  bottom: "ip2"
  top: "ip3"
  param {
    lr_mult: 1
  }
  param {
    lr_mult: 2
  }
  inner_product_param {
    num_output: 1
    weight_filler {
      type: "gaussian"
      std: 0.1
    }
    bias_filler {
      type: "constant"
    }
  }
}
layer {
  name: "loss"
  type: "HuberLoss"
  bottom: "ip3"
  bottom: "label"
  top: "loss"
  include {
    phase: TRAIN
  }
}
I0501 20:16:03.138350 14473 layer_factory.hpp:77] Creating layer parameters
I0501 20:16:03.138365 14473 net.cpp:94] Creating Layer parameters
I0501 20:16:03.138371 14473 net.cpp:409] parameters -> data
I0501 20:16:03.138392 14473 net.cpp:409] parameters -> label
I0501 20:16:03.138403 14473 hdf5_data_layer.cpp:79] Loading list of HDF5 filenames from: /home/purduethu/scratch/radon/d/deng106/CNNStatisticalModel/distributions/input/5_distributions_100_sample_size_train-parameters-path.txt
I0501 20:16:03.138425 14473 hdf5_data_layer.cpp:93] Number of HDF5 files: 1
I0501 20:16:03.139019 14473 hdf5.cpp:32] Datatype class: H5T_FLOAT
I0501 20:16:03.156782 14473 net.cpp:144] Setting up parameters
I0501 20:16:03.156816 14473 net.cpp:151] Top shape: 20 1 10 10 (2000)
I0501 20:16:03.156821 14473 net.cpp:151] Top shape: 20 (20)
I0501 20:16:03.156824 14473 net.cpp:159] Memory required for data: 8080
I0501 20:16:03.156832 14473 layer_factory.hpp:77] Creating layer conv1
I0501 20:16:03.156857 14473 net.cpp:94] Creating Layer conv1
I0501 20:16:03.156863 14473 net.cpp:435] conv1 <- data
I0501 20:16:03.156874 14473 net.cpp:409] conv1 -> conv1
I0501 20:16:03.160610 14473 net.cpp:144] Setting up conv1
I0501 20:16:03.160625 14473 net.cpp:151] Top shape: 20 64 10 10 (128000)
I0501 20:16:03.160630 14473 net.cpp:159] Memory required for data: 520080
I0501 20:16:03.160642 14473 layer_factory.hpp:77] Creating layer relu1
I0501 20:16:03.160650 14473 net.cpp:94] Creating Layer relu1
I0501 20:16:03.160655 14473 net.cpp:435] relu1 <- conv1
I0501 20:16:03.160660 14473 net.cpp:396] relu1 -> conv1 (in-place)
I0501 20:16:03.160675 14473 net.cpp:144] Setting up relu1
I0501 20:16:03.160681 14473 net.cpp:151] Top shape: 20 64 10 10 (128000)
I0501 20:16:03.160683 14473 net.cpp:159] Memory required for data: 1032080
I0501 20:16:03.160686 14473 layer_factory.hpp:77] Creating layer conv2
I0501 20:16:03.160696 14473 net.cpp:94] Creating Layer conv2
I0501 20:16:03.160698 14473 net.cpp:435] conv2 <- conv1
I0501 20:16:03.160703 14473 net.cpp:409] conv2 -> conv2
I0501 20:16:03.166466 14473 net.cpp:144] Setting up conv2
I0501 20:16:03.166481 14473 net.cpp:151] Top shape: 20 64 10 10 (128000)
I0501 20:16:03.166486 14473 net.cpp:159] Memory required for data: 1544080
I0501 20:16:03.166493 14473 layer_factory.hpp:77] Creating layer relu2
I0501 20:16:03.166501 14473 net.cpp:94] Creating Layer relu2
I0501 20:16:03.166504 14473 net.cpp:435] relu2 <- conv2
I0501 20:16:03.166509 14473 net.cpp:396] relu2 -> conv2 (in-place)
I0501 20:16:03.166517 14473 net.cpp:144] Setting up relu2
I0501 20:16:03.166522 14473 net.cpp:151] Top shape: 20 64 10 10 (128000)
I0501 20:16:03.166524 14473 net.cpp:159] Memory required for data: 2056080
I0501 20:16:03.166527 14473 layer_factory.hpp:77] Creating layer pool2
I0501 20:16:03.166535 14473 net.cpp:94] Creating Layer pool2
I0501 20:16:03.166545 14473 net.cpp:435] pool2 <- conv2
I0501 20:16:03.166551 14473 net.cpp:409] pool2 -> pool2
I0501 20:16:03.166594 14473 net.cpp:144] Setting up pool2
I0501 20:16:03.166602 14473 net.cpp:151] Top shape: 20 64 5 5 (32000)
I0501 20:16:03.166606 14473 net.cpp:159] Memory required for data: 2184080
I0501 20:16:03.166610 14473 layer_factory.hpp:77] Creating layer conv3
I0501 20:16:03.166617 14473 net.cpp:94] Creating Layer conv3
I0501 20:16:03.166621 14473 net.cpp:435] conv3 <- pool2
I0501 20:16:03.166626 14473 net.cpp:409] conv3 -> conv3
I0501 20:16:03.171360 14473 net.cpp:144] Setting up conv3
I0501 20:16:03.171375 14473 net.cpp:151] Top shape: 20 64 5 5 (32000)
I0501 20:16:03.171378 14473 net.cpp:159] Memory required for data: 2312080
I0501 20:16:03.171386 14473 layer_factory.hpp:77] Creating layer relu3
I0501 20:16:03.171392 14473 net.cpp:94] Creating Layer relu3
I0501 20:16:03.171396 14473 net.cpp:435] relu3 <- conv3
I0501 20:16:03.171401 14473 net.cpp:396] relu3 -> conv3 (in-place)
I0501 20:16:03.171408 14473 net.cpp:144] Setting up relu3
I0501 20:16:03.171413 14473 net.cpp:151] Top shape: 20 64 5 5 (32000)
I0501 20:16:03.171416 14473 net.cpp:159] Memory required for data: 2440080
I0501 20:16:03.171419 14473 layer_factory.hpp:77] Creating layer conv4
I0501 20:16:03.171428 14473 net.cpp:94] Creating Layer conv4
I0501 20:16:03.171432 14473 net.cpp:435] conv4 <- conv3
I0501 20:16:03.171437 14473 net.cpp:409] conv4 -> conv4
I0501 20:16:03.175720 14473 net.cpp:144] Setting up conv4
I0501 20:16:03.175734 14473 net.cpp:151] Top shape: 20 64 5 5 (32000)
I0501 20:16:03.175739 14473 net.cpp:159] Memory required for data: 2568080
I0501 20:16:03.175745 14473 layer_factory.hpp:77] Creating layer relu4
I0501 20:16:03.175750 14473 net.cpp:94] Creating Layer relu4
I0501 20:16:03.175755 14473 net.cpp:435] relu4 <- conv4
I0501 20:16:03.175760 14473 net.cpp:396] relu4 -> conv4 (in-place)
I0501 20:16:03.175766 14473 net.cpp:144] Setting up relu4
I0501 20:16:03.175770 14473 net.cpp:151] Top shape: 20 64 5 5 (32000)
I0501 20:16:03.175775 14473 net.cpp:159] Memory required for data: 2696080
I0501 20:16:03.175777 14473 layer_factory.hpp:77] Creating layer conv5
I0501 20:16:03.175786 14473 net.cpp:94] Creating Layer conv5
I0501 20:16:03.175789 14473 net.cpp:435] conv5 <- conv4
I0501 20:16:03.175793 14473 net.cpp:409] conv5 -> conv5
I0501 20:16:03.180495 14473 net.cpp:144] Setting up conv5
I0501 20:16:03.180510 14473 net.cpp:151] Top shape: 20 64 5 5 (32000)
I0501 20:16:03.180513 14473 net.cpp:159] Memory required for data: 2824080
I0501 20:16:03.180521 14473 layer_factory.hpp:77] Creating layer relu5
I0501 20:16:03.180527 14473 net.cpp:94] Creating Layer relu5
I0501 20:16:03.180531 14473 net.cpp:435] relu5 <- conv5
I0501 20:16:03.180536 14473 net.cpp:396] relu5 -> conv5 (in-place)
I0501 20:16:03.180543 14473 net.cpp:144] Setting up relu5
I0501 20:16:03.180548 14473 net.cpp:151] Top shape: 20 64 5 5 (32000)
I0501 20:16:03.180562 14473 net.cpp:159] Memory required for data: 2952080
I0501 20:16:03.180565 14473 layer_factory.hpp:77] Creating layer pool5
I0501 20:16:03.180572 14473 net.cpp:94] Creating Layer pool5
I0501 20:16:03.180574 14473 net.cpp:435] pool5 <- conv5
I0501 20:16:03.180579 14473 net.cpp:409] pool5 -> pool5
I0501 20:16:03.180613 14473 net.cpp:144] Setting up pool5
I0501 20:16:03.180620 14473 net.cpp:151] Top shape: 20 64 2 2 (5120)
I0501 20:16:03.180624 14473 net.cpp:159] Memory required for data: 2972560
I0501 20:16:03.180626 14473 layer_factory.hpp:77] Creating layer ip1
I0501 20:16:03.180636 14473 net.cpp:94] Creating Layer ip1
I0501 20:16:03.180640 14473 net.cpp:435] ip1 <- pool5
I0501 20:16:03.180645 14473 net.cpp:409] ip1 -> ip1
I0501 20:16:03.181766 14473 net.cpp:144] Setting up ip1
I0501 20:16:03.181779 14473 net.cpp:151] Top shape: 20 64 (1280)
I0501 20:16:03.181784 14473 net.cpp:159] Memory required for data: 2977680
I0501 20:16:03.181790 14473 layer_factory.hpp:77] Creating layer ip2
I0501 20:16:03.181797 14473 net.cpp:94] Creating Layer ip2
I0501 20:16:03.181802 14473 net.cpp:435] ip2 <- ip1
I0501 20:16:03.181812 14473 net.cpp:409] ip2 -> ip2
I0501 20:16:03.181980 14473 net.cpp:144] Setting up ip2
I0501 20:16:03.181988 14473 net.cpp:151] Top shape: 20 64 (1280)
I0501 20:16:03.181991 14473 net.cpp:159] Memory required for data: 2982800
I0501 20:16:03.181996 14473 layer_factory.hpp:77] Creating layer ip3
I0501 20:16:03.182003 14473 net.cpp:94] Creating Layer ip3
I0501 20:16:03.182006 14473 net.cpp:435] ip3 <- ip2
I0501 20:16:03.182011 14473 net.cpp:409] ip3 -> ip3
I0501 20:16:03.182073 14473 net.cpp:144] Setting up ip3
I0501 20:16:03.182080 14473 net.cpp:151] Top shape: 20 1 (20)
I0501 20:16:03.182090 14473 net.cpp:159] Memory required for data: 2982880
I0501 20:16:03.182096 14473 layer_factory.hpp:77] Creating layer loss
I0501 20:16:03.182106 14473 net.cpp:94] Creating Layer loss
I0501 20:16:03.182111 14473 net.cpp:435] loss <- ip3
I0501 20:16:03.182114 14473 net.cpp:435] loss <- label
I0501 20:16:03.182121 14473 net.cpp:409] loss -> loss
I0501 20:16:03.182155 14473 net.cpp:144] Setting up loss
…
