…
I0505 03:59:13.775542  3179 net.cpp:323] The NetState phase (0) differed from the phase (1) specified by a rule in layer intercept
I0505 03:59:13.775555  3179 net.cpp:323] The NetState phase (0) differed from the phase (1) specified by a rule in layer loss
I0505 03:59:13.775631  3179 net.cpp:52] Initializing net from parameters: 
state {
  phase: TRAIN
}
layer {
  name: "parameters"
  type: "HDF5Data"
  top: "data"
  top: "label"
  include {
    phase: TRAIN
  }
  hdf5_data_param {
    source: "/home/purduethu/scratch/radon/d/deng106/CNNStatisticalModel/distributions/input/5_distributions_900_sample_size_train-parameters-path.txt"
    batch_size: 20
  }
}
layer {
  name: "conv1"
  type: "Convolution"
  bottom: "data"
  top: "conv1"
  param {
    lr_mult: 1
  }
  param {
    lr_mult: 2
  }
  convolution_param {
    num_output: 64
    pad: 2
    kernel_size: 5
    stride: 1
    weight_filler {
      type: "gaussian"
      std: 0.0001
    }
    bias_filler {
      type: "constant"
    }
  }
}
layer {
  name: "relu1"
  type: "ReLU"
  bottom: "conv1"
  top: "conv1"
}
layer {
  name: "pool1"
  type: "Pooling"
  bottom: "conv1"
  top: "pool1"
  pooling_param {
    pool: MAX
    kernel_size: 3
    stride: 2
  }
}
layer {
  name: "conv2"
  type: "Convolution"
  bottom: "pool1"
  top: "conv2"
  param {
    lr_mult: 1
  }
  param {
    lr_mult: 2
  }
  convolution_param {
    num_output: 128
    pad: 2
    kernel_size: 5
    stride: 1
    weight_filler {
      type: "gaussian"
      std: 0.01
    }
    bias_filler {
      type: "constant"
    }
  }
}
layer {
  name: "relu2"
  type: "ReLU"
  bottom: "conv2"
  top: "conv2"
}
layer {
  name: "conv3"
  type: "Convolution"
  bottom: "conv2"
  top: "conv3"
  param {
    lr_mult: 1
  }
  param {
    lr_mult: 2
  }
  convolution_param {
    num_output: 128
    pad: 2
    kernel_size: 5
    stride: 1
    weight_filler {
      type: "gaussian"
      std: 0.01
    }
    bias_filler {
      type: "constant"
    }
  }
}
layer {
  name: "relu3"
  type: "ReLU"
  bottom: "conv3"
  top: "conv3"
}
layer {
  name: "pool3"
  type: "Pooling"
  bottom: "conv3"
  top: "pool3"
  pooling_param {
    pool: AVE
    kernel_size: 3
    stride: 2
  }
}
layer {
  name: "ip1"
  type: "InnerProduct"
  bottom: "pool3"
  top: "ip1"
  param {
    lr_mult: 1
  }
  param {
    lr_mult: 2
  }
  inner_product_param {
    num_output: 512
    weight_filler {
      type: "gaussian"
      std: 0.1
    }
    bias_filler {
      type: "constant"
    }
  }
}
layer {
  name: "ip2"
  type: "InnerProduct"
  bottom: "ip1"
  top: "ip2"
  param {
    lr_mult: 1
  }
  param {
    lr_mult: 2
  }
  inner_product_param {
    num_output: 256
    weight_filler {
      type: "gaussian"
      std: 0.1
    }
    bias_filler {
      type: "constant"
    }
  }
}
layer {
  name: "ip3"
  type: "InnerProduct"
  bottom: "ip2"
  top: "ip3"
  param {
    lr_mult: 1
  }
  param {
    lr_mult: 2
  }
  inner_product_param {
    num_output: 1
    weight_filler {
      type: "gaussian"
      std: 0.1
    }
    bias_filler {
      type: "constant"
    }
  }
}
layer {
  name: "loss"
  type: "HuberLoss"
  bottom: "ip3"
  bottom: "label"
  top: "loss"
  include {
    phase: TRAIN
  }
}
I0505 03:59:13.775694  3179 layer_factory.hpp:77] Creating layer parameters
I0505 03:59:13.775708  3179 net.cpp:94] Creating Layer parameters
I0505 03:59:13.775720  3179 net.cpp:409] parameters -> data
I0505 03:59:13.775740  3179 net.cpp:409] parameters -> label
I0505 03:59:13.775750  3179 hdf5_data_layer.cpp:79] Loading list of HDF5 filenames from: /home/purduethu/scratch/radon/d/deng106/CNNStatisticalModel/distributions/input/5_distributions_900_sample_size_train-parameters-path.txt
I0505 03:59:13.775773  3179 hdf5_data_layer.cpp:93] Number of HDF5 files: 1
I0505 03:59:13.776322  3179 hdf5.cpp:32] Datatype class: H5T_FLOAT
I0505 03:59:13.910245  3179 net.cpp:144] Setting up parameters
I0505 03:59:13.910277  3179 net.cpp:151] Top shape: 20 1 30 30 (18000)
I0505 03:59:13.910282  3179 net.cpp:151] Top shape: 20 (20)
I0505 03:59:13.910286  3179 net.cpp:159] Memory required for data: 72080
I0505 03:59:13.910293  3179 layer_factory.hpp:77] Creating layer conv1
I0505 03:59:13.910312  3179 net.cpp:94] Creating Layer conv1
I0505 03:59:13.910318  3179 net.cpp:435] conv1 <- data
I0505 03:59:13.910329  3179 net.cpp:409] conv1 -> conv1
I0505 03:59:13.916072  3179 net.cpp:144] Setting up conv1
I0505 03:59:13.916090  3179 net.cpp:151] Top shape: 20 64 30 30 (1152000)
I0505 03:59:13.916093  3179 net.cpp:159] Memory required for data: 4680080
I0505 03:59:13.916105  3179 layer_factory.hpp:77] Creating layer relu1
I0505 03:59:13.916112  3179 net.cpp:94] Creating Layer relu1
I0505 03:59:13.916116  3179 net.cpp:435] relu1 <- conv1
I0505 03:59:13.916121  3179 net.cpp:396] relu1 -> conv1 (in-place)
I0505 03:59:13.916132  3179 net.cpp:144] Setting up relu1
I0505 03:59:13.916137  3179 net.cpp:151] Top shape: 20 64 30 30 (1152000)
I0505 03:59:13.916141  3179 net.cpp:159] Memory required for data: 9288080
I0505 03:59:13.916143  3179 layer_factory.hpp:77] Creating layer pool1
I0505 03:59:13.916151  3179 net.cpp:94] Creating Layer pool1
I0505 03:59:13.916153  3179 net.cpp:435] pool1 <- conv1
I0505 03:59:13.916158  3179 net.cpp:409] pool1 -> pool1
I0505 03:59:13.916205  3179 net.cpp:144] Setting up pool1
I0505 03:59:13.916213  3179 net.cpp:151] Top shape: 20 64 15 15 (288000)
I0505 03:59:13.916216  3179 net.cpp:159] Memory required for data: 10440080
I0505 03:59:13.916219  3179 layer_factory.hpp:77] Creating layer conv2
I0505 03:59:13.916229  3179 net.cpp:94] Creating Layer conv2
I0505 03:59:13.916231  3179 net.cpp:435] conv2 <- pool1
I0505 03:59:13.916236  3179 net.cpp:409] conv2 -> conv2
I0505 03:59:13.929406  3179 net.cpp:144] Setting up conv2
I0505 03:59:13.929422  3179 net.cpp:151] Top shape: 20 128 15 15 (576000)
I0505 03:59:13.929426  3179 net.cpp:159] Memory required for data: 12744080
I0505 03:59:13.929435  3179 layer_factory.hpp:77] Creating layer relu2
I0505 03:59:13.929441  3179 net.cpp:94] Creating Layer relu2
I0505 03:59:13.929445  3179 net.cpp:435] relu2 <- conv2
I0505 03:59:13.929450  3179 net.cpp:396] relu2 -> conv2 (in-place)
I0505 03:59:13.929456  3179 net.cpp:144] Setting up relu2
I0505 03:59:13.929461  3179 net.cpp:151] Top shape: 20 128 15 15 (576000)
I0505 03:59:13.929464  3179 net.cpp:159] Memory required for data: 15048080
I0505 03:59:13.929467  3179 layer_factory.hpp:77] Creating layer conv3
I0505 03:59:13.929476  3179 net.cpp:94] Creating Layer conv3
I0505 03:59:13.929478  3179 net.cpp:435] conv3 <- conv2
I0505 03:59:13.929483  3179 net.cpp:409] conv3 -> conv3
I0505 03:59:13.950839  3179 net.cpp:144] Setting up conv3
I0505 03:59:13.950855  3179 net.cpp:151] Top shape: 20 128 15 15 (576000)
I0505 03:59:13.950860  3179 net.cpp:159] Memory required for data: 17352080
I0505 03:59:13.950868  3179 layer_factory.hpp:77] Creating layer relu3
I0505 03:59:13.950875  3179 net.cpp:94] Creating Layer relu3
I0505 03:59:13.950884  3179 net.cpp:435] relu3 <- conv3
I0505 03:59:13.950889  3179 net.cpp:396] relu3 -> conv3 (in-place)
I0505 03:59:13.950896  3179 net.cpp:144] Setting up relu3
I0505 03:59:13.950901  3179 net.cpp:151] Top shape: 20 128 15 15 (576000)
I0505 03:59:13.950904  3179 net.cpp:159] Memory required for data: 19656080
I0505 03:59:13.950907  3179 layer_factory.hpp:77] Creating layer pool3
I0505 03:59:13.950913  3179 net.cpp:94] Creating Layer pool3
I0505 03:59:13.950917  3179 net.cpp:435] pool3 <- conv3
I0505 03:59:13.950928  3179 net.cpp:409] pool3 -> pool3
I0505 03:59:13.950963  3179 net.cpp:144] Setting up pool3
I0505 03:59:13.950970  3179 net.cpp:151] Top shape: 20 128 7 7 (125440)
I0505 03:59:13.950973  3179 net.cpp:159] Memory required for data: 20157840
I0505 03:59:13.950976  3179 layer_factory.hpp:77] Creating layer ip1
I0505 03:59:13.950986  3179 net.cpp:94] Creating Layer ip1
I0505 03:59:13.950990  3179 net.cpp:435] ip1 <- pool3
I0505 03:59:13.950994  3179 net.cpp:409] ip1 -> ip1
I0505 03:59:14.027871  3179 net.cpp:144] Setting up ip1
I0505 03:59:14.027890  3179 net.cpp:151] Top shape: 20 512 (10240)
I0505 03:59:14.027895  3179 net.cpp:159] Memory required for data: 20198800
I0505 03:59:14.027902  3179 layer_factory.hpp:77] Creating layer ip2
I0505 03:59:14.027911  3179 net.cpp:94] Creating Layer ip2
I0505 03:59:14.027915  3179 net.cpp:435] ip2 <- ip1
I0505 03:59:14.027921  3179 net.cpp:409] ip2 -> ip2
I0505 03:59:14.031028  3179 net.cpp:144] Setting up ip2
I0505 03:59:14.031035  3179 net.cpp:151] Top shape: 20 256 (5120)
I0505 03:59:14.031039  3179 net.cpp:159] Memory required for data: 20219280
I0505 03:59:14.031046  3179 layer_factory.hpp:77] Creating layer ip3
I0505 03:59:14.031052  3179 net.cpp:94] Creating Layer ip3
I0505 03:59:14.031055  3179 net.cpp:435] ip3 <- ip2
I0505 03:59:14.031060  3179 net.cpp:409] ip3 -> ip3
I0505 03:59:14.031124  3179 net.cpp:144] Setting up ip3
I0505 03:59:14.031131  3179 net.cpp:151] Top shape: 20 1 (20)
I0505 03:59:14.031134  3179 net.cpp:159] Memory required for data: 20219360
I0505 03:59:14.031139  3179 layer_factory.hpp:77] Creating layer loss
I0505 03:59:14.031152  3179 net.cpp:94] Creating Layer loss
I0505 03:59:14.031155  3179 net.cpp:435] loss <- ip3
I0505 03:59:14.031159  3179 net.cpp:435] loss <- label
I0505 03:59:14.031164  3179 net.cpp:409] loss -> loss
I0505 03:59:14.031199  3179 net.cpp:144] Setting up loss
…
