…
I0505 16:37:20.343822  8155 net.cpp:323] The NetState phase (0) differed from the phase (1) specified by a rule in layer intercept
I0505 16:37:20.343837  8155 net.cpp:323] The NetState phase (0) differed from the phase (1) specified by a rule in layer loss
I0505 16:37:20.343904  8155 net.cpp:52] Initializing net from parameters: 
state {
  phase: TRAIN
}
layer {
  name: "parameters"
  type: "HDF5Data"
  top: "data"
  top: "label"
  include {
    phase: TRAIN
  }
  hdf5_data_param {
    source: "/home/purduethu/scratch/radon/d/deng106/CNNStatisticalModel/distributions/input/20_distributions_900_sample_size_train-parameters-path.txt"
    batch_size: 20
  }
}
layer {
  name: "conv1"
  type: "Convolution"
  bottom: "data"
  top: "conv1"
  param {
    lr_mult: 1
  }
  param {
    lr_mult: 2
  }
  convolution_param {
    num_output: 64
    pad: 2
    kernel_size: 5
    stride: 1
    weight_filler {
      type: "gaussian"
      std: 0.0001
    }
    bias_filler {
      type: "constant"
    }
  }
}
layer {
  name: "relu1"
  type: "ReLU"
  bottom: "conv1"
  top: "conv1"
}
layer {
  name: "pool1"
  type: "Pooling"
  bottom: "conv1"
  top: "pool1"
  pooling_param {
    pool: MAX
    kernel_size: 3
    stride: 2
  }
}
layer {
  name: "conv2"
  type: "Convolution"
  bottom: "pool1"
  top: "conv2"
  param {
    lr_mult: 1
  }
  param {
    lr_mult: 2
  }
  convolution_param {
    num_output: 128
    pad: 2
    kernel_size: 5
    stride: 1
    weight_filler {
      type: "gaussian"
      std: 0.01
    }
    bias_filler {
      type: "constant"
    }
  }
}
layer {
  name: "relu2"
  type: "ReLU"
  bottom: "conv2"
  top: "conv2"
}
layer {
  name: "conv3"
  type: "Convolution"
  bottom: "conv2"
  top: "conv3"
  param {
    lr_mult: 1
  }
  param {
    lr_mult: 2
  }
  convolution_param {
    num_output: 128
    pad: 2
    kernel_size: 5
    stride: 1
    weight_filler {
      type: "gaussian"
      std: 0.01
    }
    bias_filler {
      type: "constant"
    }
  }
}
layer {
  name: "relu3"
  type: "ReLU"
  bottom: "conv3"
  top: "conv3"
}
layer {
  name: "pool3"
  type: "Pooling"
  bottom: "conv3"
  top: "pool3"
  pooling_param {
    pool: AVE
    kernel_size: 3
    stride: 2
  }
}
layer {
  name: "ip1"
  type: "InnerProduct"
  bottom: "pool3"
  top: "ip1"
  param {
    lr_mult: 1
  }
  param {
    lr_mult: 2
  }
  inner_product_param {
    num_output: 512
    weight_filler {
      type: "gaussian"
      std: 0.1
    }
    bias_filler {
      type: "constant"
    }
  }
}
layer {
  name: "ip2"
  type: "InnerProduct"
  bottom: "ip1"
  top: "ip2"
  param {
    lr_mult: 1
  }
  param {
    lr_mult: 2
  }
  inner_product_param {
    num_output: 256
    weight_filler {
      type: "gaussian"
      std: 0.1
    }
    bias_filler {
      type: "constant"
    }
  }
}
layer {
  name: "ip3"
  type: "InnerProduct"
  bottom: "ip2"
  top: "ip3"
  param {
    lr_mult: 1
  }
  param {
    lr_mult: 2
  }
  inner_product_param {
    num_output: 1
    weight_filler {
      type: "gaussian"
      std: 0.1
    }
    bias_filler {
      type: "constant"
    }
  }
}
layer {
  name: "loss"
  type: "HuberLoss"
  bottom: "ip3"
  bottom: "label"
  top: "loss"
  include {
    phase: TRAIN
  }
}
I0505 16:37:20.343950  8155 layer_factory.hpp:77] Creating layer parameters
I0505 16:37:20.343962  8155 net.cpp:94] Creating Layer parameters
I0505 16:37:20.343967  8155 net.cpp:409] parameters -> data
I0505 16:37:20.343976  8155 net.cpp:409] parameters -> label
I0505 16:37:20.343982  8155 hdf5_data_layer.cpp:79] Loading list of HDF5 filenames from: /home/purduethu/scratch/radon/d/deng106/CNNStatisticalModel/distributions/input/20_distributions_900_sample_size_train-parameters-path.txt
I0505 16:37:20.343997  8155 hdf5_data_layer.cpp:93] Number of HDF5 files: 1
I0505 16:37:20.344545  8155 hdf5.cpp:32] Datatype class: H5T_FLOAT
I0505 16:37:20.925056  8155 net.cpp:144] Setting up parameters
I0505 16:37:20.925087  8155 net.cpp:151] Top shape: 20 1 30 30 (18000)
I0505 16:37:20.925092  8155 net.cpp:151] Top shape: 20 (20)
I0505 16:37:20.925096  8155 net.cpp:159] Memory required for data: 72080
I0505 16:37:20.925101  8155 layer_factory.hpp:77] Creating layer conv1
I0505 16:37:20.925123  8155 net.cpp:94] Creating Layer conv1
I0505 16:37:20.925127  8155 net.cpp:435] conv1 <- data
I0505 16:37:20.925133  8155 net.cpp:409] conv1 -> conv1
I0505 16:37:20.931670  8155 net.cpp:144] Setting up conv1
I0505 16:37:20.931690  8155 net.cpp:151] Top shape: 20 64 30 30 (1152000)
I0505 16:37:20.931695  8155 net.cpp:159] Memory required for data: 4680080
I0505 16:37:20.931706  8155 layer_factory.hpp:77] Creating layer relu1
I0505 16:37:20.931715  8155 net.cpp:94] Creating Layer relu1
I0505 16:37:20.931720  8155 net.cpp:435] relu1 <- conv1
I0505 16:37:20.931723  8155 net.cpp:396] relu1 -> conv1 (in-place)
I0505 16:37:20.931738  8155 net.cpp:144] Setting up relu1
I0505 16:37:20.931743  8155 net.cpp:151] Top shape: 20 64 30 30 (1152000)
I0505 16:37:20.931746  8155 net.cpp:159] Memory required for data: 9288080
I0505 16:37:20.931749  8155 layer_factory.hpp:77] Creating layer pool1
I0505 16:37:20.931756  8155 net.cpp:94] Creating Layer pool1
I0505 16:37:20.931758  8155 net.cpp:435] pool1 <- conv1
I0505 16:37:20.931762  8155 net.cpp:409] pool1 -> pool1
I0505 16:37:20.931818  8155 net.cpp:144] Setting up pool1
I0505 16:37:20.931824  8155 net.cpp:151] Top shape: 20 64 15 15 (288000)
I0505 16:37:20.931828  8155 net.cpp:159] Memory required for data: 10440080
I0505 16:37:20.931830  8155 layer_factory.hpp:77] Creating layer conv2
I0505 16:37:20.931839  8155 net.cpp:94] Creating Layer conv2
I0505 16:37:20.931843  8155 net.cpp:435] conv2 <- pool1
I0505 16:37:20.931849  8155 net.cpp:409] conv2 -> conv2
I0505 16:37:20.944355  8155 net.cpp:144] Setting up conv2
I0505 16:37:20.944371  8155 net.cpp:151] Top shape: 20 128 15 15 (576000)
I0505 16:37:20.944375  8155 net.cpp:159] Memory required for data: 12744080
I0505 16:37:20.944383  8155 layer_factory.hpp:77] Creating layer relu2
I0505 16:37:20.944389  8155 net.cpp:94] Creating Layer relu2
I0505 16:37:20.944393  8155 net.cpp:435] relu2 <- conv2
I0505 16:37:20.944397  8155 net.cpp:396] relu2 -> conv2 (in-place)
I0505 16:37:20.944404  8155 net.cpp:144] Setting up relu2
I0505 16:37:20.944409  8155 net.cpp:151] Top shape: 20 128 15 15 (576000)
I0505 16:37:20.944412  8155 net.cpp:159] Memory required for data: 15048080
I0505 16:37:20.944416  8155 layer_factory.hpp:77] Creating layer conv3
I0505 16:37:20.944422  8155 net.cpp:94] Creating Layer conv3
I0505 16:37:20.944427  8155 net.cpp:435] conv3 <- conv2
I0505 16:37:20.944430  8155 net.cpp:409] conv3 -> conv3
I0505 16:37:20.967447  8155 net.cpp:144] Setting up conv3
I0505 16:37:20.967465  8155 net.cpp:151] Top shape: 20 128 15 15 (576000)
I0505 16:37:20.967469  8155 net.cpp:159] Memory required for data: 17352080
I0505 16:37:20.967478  8155 layer_factory.hpp:77] Creating layer relu3
I0505 16:37:20.967491  8155 net.cpp:94] Creating Layer relu3
I0505 16:37:20.967495  8155 net.cpp:435] relu3 <- conv3
I0505 16:37:20.967500  8155 net.cpp:396] relu3 -> conv3 (in-place)
I0505 16:37:20.967507  8155 net.cpp:144] Setting up relu3
I0505 16:37:20.967511  8155 net.cpp:151] Top shape: 20 128 15 15 (576000)
I0505 16:37:20.967514  8155 net.cpp:159] Memory required for data: 19656080
I0505 16:37:20.967517  8155 layer_factory.hpp:77] Creating layer pool3
I0505 16:37:20.967523  8155 net.cpp:94] Creating Layer pool3
I0505 16:37:20.967526  8155 net.cpp:435] pool3 <- conv3
I0505 16:37:20.967530  8155 net.cpp:409] pool3 -> pool3
I0505 16:37:20.967576  8155 net.cpp:144] Setting up pool3
I0505 16:37:20.967583  8155 net.cpp:151] Top shape: 20 128 7 7 (125440)
I0505 16:37:20.967586  8155 net.cpp:159] Memory required for data: 20157840
I0505 16:37:20.967589  8155 layer_factory.hpp:77] Creating layer ip1
I0505 16:37:20.967600  8155 net.cpp:94] Creating Layer ip1
I0505 16:37:20.967603  8155 net.cpp:435] ip1 <- pool3
I0505 16:37:20.967608  8155 net.cpp:409] ip1 -> ip1
I0505 16:37:21.045692  8155 net.cpp:144] Setting up ip1
I0505 16:37:21.045725  8155 net.cpp:151] Top shape: 20 512 (10240)
I0505 16:37:21.045729  8155 net.cpp:159] Memory required for data: 20198800
I0505 16:37:21.045738  8155 layer_factory.hpp:77] Creating layer ip2
I0505 16:37:21.045748  8155 net.cpp:94] Creating Layer ip2
I0505 16:37:21.045753  8155 net.cpp:435] ip2 <- ip1
I0505 16:37:21.045758  8155 net.cpp:409] ip2 -> ip2
I0505 16:37:21.048959  8155 net.cpp:144] Setting up ip2
I0505 16:37:21.048974  8155 net.cpp:151] Top shape: 20 256 (5120)
I0505 16:37:21.048976  8155 net.cpp:159] Memory required for data: 20219280
I0505 16:37:21.048985  8155 layer_factory.hpp:77] Creating layer ip3
I0505 16:37:21.048991  8155 net.cpp:94] Creating Layer ip3
I0505 16:37:21.048995  8155 net.cpp:435] ip3 <- ip2
I0505 16:37:21.049000  8155 net.cpp:409] ip3 -> ip3
I0505 16:37:21.049105  8155 net.cpp:144] Setting up ip3
I0505 16:37:21.049113  8155 net.cpp:151] Top shape: 20 1 (20)
I0505 16:37:21.049115  8155 net.cpp:159] Memory required for data: 20219360
I0505 16:37:21.049120  8155 layer_factory.hpp:77] Creating layer loss
I0505 16:37:21.049125  8155 net.cpp:94] Creating Layer loss
I0505 16:37:21.049129  8155 net.cpp:435] loss <- ip3
I0505 16:37:21.049132  8155 net.cpp:435] loss <- label
I0505 16:37:21.049137  8155 net.cpp:409] loss -> loss
I0505 16:37:21.049187  8155 net.cpp:144] Setting up loss
…
I0505 16:37:21.310010  8155 net.cpp:323] The NetState phase (0) differed from the phase (1) specified by a rule in layer intercept
I0505 16:37:21.310022  8155 net.cpp:323] The NetState phase (0) differed from the phase (1) specified by a rule in layer accuracy
I0505 16:37:21.310092  8155 net.cpp:52] Initializing net from parameters: 
state {
  phase: TRAIN
}
layer {
  name: "parameters"
  type: "HDF5Data"
  top: "data"
  top: "label"
  include {
    phase: TRAIN
  }
  hdf5_data_param {
    source: "/home/purduethu/scratch/radon/d/deng106/CNNStatisticalModel/distributions/input/20_distributions_900_sample_size_train-distributions-path.txt"
    batch_size: 20
  }
}
layer {
  name: "conv1"
  type: "Convolution"
  bottom: "data"
  top: "conv1"
  param {
    lr_mult: 1
  }
  param {
    lr_mult: 2
  }
  convolution_param {
    num_output: 64
    pad: 2
    kernel_size: 5
    stride: 1
    weight_filler {
      type: "gaussian"
      std: 0.0001
    }
    bias_filler {
      type: "constant"
    }
  }
}
layer {
  name: "relu1"
  type: "ReLU"
  bottom: "conv1"
  top: "conv1"
}
layer {
  name: "pool1"
  type: "Pooling"
  bottom: "conv1"
  top: "pool1"
  pooling_param {
    pool: MAX
    kernel_size: 3
    stride: 2
  }
}
layer {
  name: "conv2"
  type: "Convolution"
  bottom: "pool1"
  top: "conv2"
  param {
    lr_mult: 1
  }
  param {
    lr_mult: 2
  }
  convolution_param {
    num_output: 128
    pad: 2
    kernel_size: 5
    stride: 1
    weight_filler {
      type: "gaussian"
      std: 0.01
    }
    bias_filler {
      type: "constant"
    }
  }
}
layer {
  name: "relu2"
  type: "ReLU"
  bottom: "conv2"
  top: "conv2"
}
layer {
  name: "conv3"
  type: "Convolution"
  bottom: "conv2"
  top: "conv3"
  param {
    lr_mult: 1
  }
  param {
    lr_mult: 2
  }
  convolution_param {
    num_output: 128
    pad: 2
    kernel_size: 5
    stride: 1
    weight_filler {
      type: "gaussian"
      std: 0.01
    }
    bias_filler {
      type: "constant"
    }
  }
}
layer {
  name: "relu3"
  type: "ReLU"
  bottom: "conv3"
  top: "conv3"
}
layer {
  name: "pool3"
  type: "Pooling"
  bottom: "conv3"
  top: "pool3"
  pooling_param {
    pool: AVE
    kernel_size: 3
    stride: 2
  }
}
layer {
  name: "ip1"
  type: "InnerProduct"
  bottom: "pool3"
  top: "ip1"
  param {
    lr_mult: 1
  }
  param {
    lr_mult: 2
  }
  inner_product_param {
    num_output: 512
    weight_filler {
      type: "gaussian"
      std: 0.1
    }
    bias_filler {
      type: "constant"
    }
  }
}
layer {
  name: "ip2"
  type: "InnerProduct"
  bottom: "ip1"
  top: "ip2"
  param {
    lr_mult: 1
  }
  param {
    lr_mult: 2
  }
  inner_product_param {
    num_output: 256
    weight_filler {
      type: "gaussian"
      std: 0.1
    }
    bias_filler {
      type: "constant"
    }
  }
}
layer {
  name: "ip3"
  type: "InnerProduct"
  bottom: "ip2"
  top: "ip3"
  param {
    lr_mult: 1
  }
  param {
    lr_mult: 2
  }
  inner_product_param {
    num_output: 50
    weight_filler {
      type: "gaussian"
      std: 0.1
    }
    bias_filler {
      type: "constant"
    }
  }
}
layer {
  name: "loss"
  type: "SoftmaxWithLoss"
  bottom: "ip3"
  bottom: "label"
  top: "loss"
}
I0505 16:37:21.310148  8155 layer_factory.hpp:77] Creating layer parameters
I0505 16:37:21.310156  8155 net.cpp:94] Creating Layer parameters
I0505 16:37:21.310160  8155 net.cpp:409] parameters -> data
I0505 16:37:21.310168  8155 net.cpp:409] parameters -> label
I0505 16:37:21.310173  8155 hdf5_data_layer.cpp:79] Loading list of HDF5 filenames from: /home/purduethu/scratch/radon/d/deng106/CNNStatisticalModel/distributions/input/20_distributions_900_sample_size_train-distributions-path.txt
I0505 16:37:21.310189  8155 hdf5_data_layer.cpp:93] Number of HDF5 files: 1
I0505 16:37:21.880942  8155 hdf5.cpp:35] Datatype class: H5T_INTEGER
I0505 16:37:21.881979  8155 net.cpp:144] Setting up parameters
I0505 16:37:21.881994  8155 net.cpp:151] Top shape: 20 1 30 30 (18000)
I0505 16:37:21.881997  8155 net.cpp:151] Top shape: 20 (20)
I0505 16:37:21.882000  8155 net.cpp:159] Memory required for data: 72080
I0505 16:37:21.882006  8155 layer_factory.hpp:77] Creating layer conv1
I0505 16:37:21.882021  8155 net.cpp:94] Creating Layer conv1
I0505 16:37:21.882026  8155 net.cpp:435] conv1 <- data
I0505 16:37:21.882031  8155 net.cpp:409] conv1 -> conv1
I0505 16:37:21.885673  8155 net.cpp:144] Setting up conv1
I0505 16:37:21.885713  8155 net.cpp:151] Top shape: 20 64 30 30 (1152000)
I0505 16:37:21.885725  8155 net.cpp:159] Memory required for data: 4680080
I0505 16:37:21.885751  8155 layer_factory.hpp:77] Creating layer relu1
I0505 16:37:21.885768  8155 net.cpp:94] Creating Layer relu1
I0505 16:37:21.885778  8155 net.cpp:435] relu1 <- conv1
I0505 16:37:21.885792  8155 net.cpp:396] relu1 -> conv1 (in-place)
I0505 16:37:21.885810  8155 net.cpp:144] Setting up relu1
I0505 16:37:21.885823  8155 net.cpp:151] Top shape: 20 64 30 30 (1152000)
I0505 16:37:21.885830  8155 net.cpp:159] Memory required for data: 9288080
I0505 16:37:21.885839  8155 layer_factory.hpp:77] Creating layer pool1
I0505 16:37:21.885852  8155 net.cpp:94] Creating Layer pool1
I0505 16:37:21.885874  8155 net.cpp:435] pool1 <- conv1
I0505 16:37:21.885886  8155 net.cpp:409] pool1 -> pool1
I0505 16:37:21.886037  8155 net.cpp:144] Setting up pool1
I0505 16:37:21.886054  8155 net.cpp:151] Top shape: 20 64 15 15 (288000)
I0505 16:37:21.886063  8155 net.cpp:159] Memory required for data: 10440080
I0505 16:37:21.886072  8155 layer_factory.hpp:77] Creating layer conv2
I0505 16:37:21.886099  8155 net.cpp:94] Creating Layer conv2
I0505 16:37:21.886103  8155 net.cpp:435] conv2 <- pool1
I0505 16:37:21.886108  8155 net.cpp:409] conv2 -> conv2
I0505 16:37:21.899574  8155 net.cpp:144] Setting up conv2
I0505 16:37:21.899591  8155 net.cpp:151] Top shape: 20 128 15 15 (576000)
I0505 16:37:21.899595  8155 net.cpp:159] Memory required for data: 12744080
I0505 16:37:21.899603  8155 layer_factory.hpp:77] Creating layer relu2
I0505 16:37:21.899610  8155 net.cpp:94] Creating Layer relu2
I0505 16:37:21.899613  8155 net.cpp:435] relu2 <- conv2
I0505 16:37:21.899617  8155 net.cpp:396] relu2 -> conv2 (in-place)
I0505 16:37:21.899624  8155 net.cpp:144] Setting up relu2
I0505 16:37:21.899629  8155 net.cpp:151] Top shape: 20 128 15 15 (576000)
I0505 16:37:21.899632  8155 net.cpp:159] Memory required for data: 15048080
I0505 16:37:21.899634  8155 layer_factory.hpp:77] Creating layer conv3
I0505 16:37:21.899642  8155 net.cpp:94] Creating Layer conv3
I0505 16:37:21.899646  8155 net.cpp:435] conv3 <- conv2
I0505 16:37:21.899651  8155 net.cpp:409] conv3 -> conv3
I0505 16:37:21.922611  8155 net.cpp:144] Setting up conv3
I0505 16:37:21.922628  8155 net.cpp:151] Top shape: 20 128 15 15 (576000)
I0505 16:37:21.922632  8155 net.cpp:159] Memory required for data: 17352080
I0505 16:37:21.922641  8155 layer_factory.hpp:77] Creating layer relu3
I0505 16:37:21.922648  8155 net.cpp:94] Creating Layer relu3
I0505 16:37:21.922652  8155 net.cpp:435] relu3 <- conv3
I0505 16:37:21.922657  8155 net.cpp:396] relu3 -> conv3 (in-place)
I0505 16:37:21.922663  8155 net.cpp:144] Setting up relu3
I0505 16:37:21.922667  8155 net.cpp:151] Top shape: 20 128 15 15 (576000)
I0505 16:37:21.922670  8155 net.cpp:159] Memory required for data: 19656080
I0505 16:37:21.922673  8155 layer_factory.hpp:77] Creating layer pool3
I0505 16:37:21.922679  8155 net.cpp:94] Creating Layer pool3
I0505 16:37:21.922683  8155 net.cpp:435] pool3 <- conv3
I0505 16:37:21.922686  8155 net.cpp:409] pool3 -> pool3
I0505 16:37:21.922731  8155 net.cpp:144] Setting up pool3
I0505 16:37:21.922739  8155 net.cpp:151] Top shape: 20 128 7 7 (125440)
I0505 16:37:21.922741  8155 net.cpp:159] Memory required for data: 20157840
I0505 16:37:21.922744  8155 layer_factory.hpp:77] Creating layer ip1
I0505 16:37:21.922750  8155 net.cpp:94] Creating Layer ip1
I0505 16:37:21.922754  8155 net.cpp:435] ip1 <- pool3
I0505 16:37:21.922758  8155 net.cpp:409] ip1 -> ip1
I0505 16:37:22.001087  8155 net.cpp:144] Setting up ip1
I0505 16:37:22.001119  8155 net.cpp:151] Top shape: 20 512 (10240)
I0505 16:37:22.001123  8155 net.cpp:159] Memory required for data: 20198800
I0505 16:37:22.001132  8155 layer_factory.hpp:77] Creating layer ip2
I0505 16:37:22.001142  8155 net.cpp:94] Creating Layer ip2
I0505 16:37:22.001147  8155 net.cpp:435] ip2 <- ip1
I0505 16:37:22.001153  8155 net.cpp:409] ip2 -> ip2
I0505 16:37:22.004334  8155 net.cpp:144] Setting up ip2
I0505 16:37:22.004346  8155 net.cpp:151] Top shape: 20 256 (5120)
I0505 16:37:22.004349  8155 net.cpp:159] Memory required for data: 20219280
I0505 16:37:22.004357  8155 layer_factory.hpp:77] Creating layer ip3
I0505 16:37:22.004364  8155 net.cpp:94] Creating Layer ip3
I0505 16:37:22.004369  8155 net.cpp:435] ip3 <- ip2
I0505 16:37:22.004372  8155 net.cpp:409] ip3 -> ip3
I0505 16:37:22.005776  8155 net.cpp:144] Setting up ip3
I0505 16:37:22.005790  8155 net.cpp:151] Top shape: 20 50 (1000)
I0505 16:37:22.005795  8155 net.cpp:159] Memory required for data: 20223280
I0505 16:37:22.005800  8155 layer_factory.hpp:77] Creating layer loss
I0505 16:37:22.005805  8155 net.cpp:94] Creating Layer loss
I0505 16:37:22.005810  8155 net.cpp:435] loss <- ip3
I0505 16:37:22.005813  8155 net.cpp:435] loss <- label
I0505 16:37:22.005823  8155 net.cpp:409] loss -> loss
I0505 16:37:22.005831  8155 layer_factory.hpp:77] Creating layer loss
…
I0505 16:37:22.006281  8155 solver.cpp:181] Creating test net (#0) specified by net file: ./protocol/dis_20_900_dimension.protocol_distribution
I0505 16:37:22.006304  8155 net.cpp:323] The NetState phase (1) differed from the phase (0) specified by a rule in layer parameters
I0505 16:37:22.006386  8155 net.cpp:52] Initializing net from parameters: 
state {
  phase: TEST
}
layer {
  name: "intercept"
  type: "HDF5Data"
  top: "data"
  top: "label"
  include {
    phase: TEST
  }
  hdf5_data_param {
    source: "/home/purduethu/scratch/radon/d/deng106/CNNStatisticalModel/distributions/input/20_distributions_900_sample_size_test-distributions-path.txt"
    batch_size: 20
  }
}
layer {
  name: "conv1"
  type: "Convolution"
  bottom: "data"
  top: "conv1"
  param {
    lr_mult: 1
  }
  param {
    lr_mult: 2
  }
  convolution_param {
    num_output: 64
    pad: 2
    kernel_size: 5
    stride: 1
    weight_filler {
      type: "gaussian"
      std: 0.0001
    }
    bias_filler {
      type: "constant"
    }
  }
}
layer {
  name: "relu1"
  type: "ReLU"
  bottom: "conv1"
  top: "conv1"
}
layer {
  name: "pool1"
  type: "Pooling"
  bottom: "conv1"
  top: "pool1"
  pooling_param {
    pool: MAX
    kernel_size: 3
    stride: 2
  }
}
layer {
  name: "conv2"
  type: "Convolution"
  bottom: "pool1"
  top: "conv2"
  param {
    lr_mult: 1
  }
  param {
    lr_mult: 2
  }
  convolution_param {
    num_output: 128
    pad: 2
    kernel_size: 5
    stride: 1
    weight_filler {
      type: "gaussian"
      std: 0.01
    }
    bias_filler {
      type: "constant"
    }
  }
}
layer {
  name: "relu2"
  type: "ReLU"
  bottom: "conv2"
  top: "conv2"
}
layer {
  name: "conv3"
  type: "Convolution"
  bottom: "conv2"
  top: "conv3"
  param {
    lr_mult: 1
  }
  param {
    lr_mult: 2
  }
  convolution_param {
    num_output: 128
    pad: 2
    kernel_size: 5
    stride: 1
    weight_filler {
      type: "gaussian"
      std: 0.01
    }
    bias_filler {
      type: "constant"
    }
  }
}
layer {
  name: "relu3"
  type: "ReLU"
  bottom: "conv3"
  top: "conv3"
}
layer {
  name: "pool3"
  type: "Pooling"
  bottom: "conv3"
  top: "pool3"
  pooling_param {
    pool: AVE
    kernel_size: 3
    stride: 2
  }
}
layer {
  name: "ip1"
  type: "InnerProduct"
  bottom: "pool3"
  top: "ip1"
  param {
    lr_mult: 1
  }
  param {
    lr_mult: 2
  }
  inner_product_param {
    num_output: 512
    weight_filler {
      type: "gaussian"
      std: 0.1
    }
    bias_filler {
      type: "constant"
    }
  }
}
layer {
  name: "ip2"
  type: "InnerProduct"
  bottom: "ip1"
  top: "ip2"
  param {
    lr_mult: 1
  }
  param {
    lr_mult: 2
  }
  inner_product_param {
    num_output: 256
    weight_filler {
      type: "gaussian"
      std: 0.1
    }
    bias_filler {
      type: "constant"
    }
  }
}
layer {
  name: "ip3"
  type: "InnerProduct"
  bottom: "ip2"
  top: "ip3"
  param {
    lr_mult: 1
  }
  param {
    lr_mult: 2
  }
  inner_product_param {
    num_output: 50
    weight_filler {
      type: "gaussian"
      std: 0.1
    }
    bias_filler {
      type: "constant"
    }
  }
}
layer {
  name: "accuracy"
  type: "Accuracy"
  bottom: "ip3"
  bottom: "label"
  top: "accuracy"
  include {
    phase: TEST
  }
}
layer {
  name: "loss"
  type: "SoftmaxWithLoss"
  bottom: "ip3"
  bottom: "label"
  top: "loss"
}
I0505 16:37:22.006441  8155 layer_factory.hpp:77] Creating layer intercept
I0505 16:37:22.006448  8155 net.cpp:94] Creating Layer intercept
I0505 16:37:22.006453  8155 net.cpp:409] intercept -> data
I0505 16:37:22.006459  8155 net.cpp:409] intercept -> label
I0505 16:37:22.006464  8155 hdf5_data_layer.cpp:79] Loading list of HDF5 filenames from: /home/purduethu/scratch/radon/d/deng106/CNNStatisticalModel/distributions/input/20_distributions_900_sample_size_test-distributions-path.txt
I0505 16:37:22.006484  8155 hdf5_data_layer.cpp:93] Number of HDF5 files: 1
I0505 16:37:22.149847  8155 net.cpp:144] Setting up intercept
I0505 16:37:22.149881  8155 net.cpp:151] Top shape: 20 1 30 30 (18000)
I0505 16:37:22.149886  8155 net.cpp:151] Top shape: 20 (20)
I0505 16:37:22.149889  8155 net.cpp:159] Memory required for data: 72080
I0505 16:37:22.149895  8155 layer_factory.hpp:77] Creating layer label_intercept_1_split
I0505 16:37:22.149914  8155 net.cpp:94] Creating Layer label_intercept_1_split
I0505 16:37:22.149919  8155 net.cpp:435] label_intercept_1_split <- label
I0505 16:37:22.149924  8155 net.cpp:409] label_intercept_1_split -> label_intercept_1_split_0
I0505 16:37:22.149933  8155 net.cpp:409] label_intercept_1_split -> label_intercept_1_split_1
I0505 16:37:22.149977  8155 net.cpp:144] Setting up label_intercept_1_split
I0505 16:37:22.149983  8155 net.cpp:151] Top shape: 20 (20)
I0505 16:37:22.149987  8155 net.cpp:151] Top shape: 20 (20)
I0505 16:37:22.149991  8155 net.cpp:159] Memory required for data: 72240
I0505 16:37:22.149993  8155 layer_factory.hpp:77] Creating layer conv1
I0505 16:37:22.150004  8155 net.cpp:94] Creating Layer conv1
I0505 16:37:22.150007  8155 net.cpp:435] conv1 <- data
I0505 16:37:22.150012  8155 net.cpp:409] conv1 -> conv1
I0505 16:37:22.151543  8155 net.cpp:144] Setting up conv1
I0505 16:37:22.151559  8155 net.cpp:151] Top shape: 20 64 30 30 (1152000)
I0505 16:37:22.151563  8155 net.cpp:159] Memory required for data: 4680240
I0505 16:37:22.151573  8155 layer_factory.hpp:77] Creating layer relu1
I0505 16:37:22.151581  8155 net.cpp:94] Creating Layer relu1
I0505 16:37:22.151583  8155 net.cpp:435] relu1 <- conv1
I0505 16:37:22.151588  8155 net.cpp:396] relu1 -> conv1 (in-place)
I0505 16:37:22.151595  8155 net.cpp:144] Setting up relu1
I0505 16:37:22.151600  8155 net.cpp:151] Top shape: 20 64 30 30 (1152000)
I0505 16:37:22.151603  8155 net.cpp:159] Memory required for data: 9288240
I0505 16:37:22.151607  8155 layer_factory.hpp:77] Creating layer pool1
I0505 16:37:22.151613  8155 net.cpp:94] Creating Layer pool1
I0505 16:37:22.151617  8155 net.cpp:435] pool1 <- conv1
I0505 16:37:22.151620  8155 net.cpp:409] pool1 -> pool1
I0505 16:37:22.151677  8155 net.cpp:144] Setting up pool1
I0505 16:37:22.151684  8155 net.cpp:151] Top shape: 20 64 15 15 (288000)
I0505 16:37:22.151687  8155 net.cpp:159] Memory required for data: 10440240
I0505 16:37:22.151690  8155 layer_factory.hpp:77] Creating layer conv2
I0505 16:37:22.151698  8155 net.cpp:94] Creating Layer conv2
I0505 16:37:22.151701  8155 net.cpp:435] conv2 <- pool1
I0505 16:37:22.151706  8155 net.cpp:409] conv2 -> conv2
I0505 16:37:22.160167  8155 net.cpp:144] Setting up conv2
I0505 16:37:22.160184  8155 net.cpp:151] Top shape: 20 128 15 15 (576000)
I0505 16:37:22.160188  8155 net.cpp:159] Memory required for data: 12744240
I0505 16:37:22.160204  8155 layer_factory.hpp:77] Creating layer relu2
I0505 16:37:22.160212  8155 net.cpp:94] Creating Layer relu2
I0505 16:37:22.160214  8155 net.cpp:435] relu2 <- conv2
I0505 16:37:22.160219  8155 net.cpp:396] relu2 -> conv2 (in-place)
I0505 16:37:22.160226  8155 net.cpp:144] Setting up relu2
I0505 16:37:22.160230  8155 net.cpp:151] Top shape: 20 128 15 15 (576000)
I0505 16:37:22.160233  8155 net.cpp:159] Memory required for data: 15048240
I0505 16:37:22.160236  8155 layer_factory.hpp:77] Creating layer conv3
I0505 16:37:22.160243  8155 net.cpp:94] Creating Layer conv3
I0505 16:37:22.160246  8155 net.cpp:435] conv3 <- conv2
I0505 16:37:22.160251  8155 net.cpp:409] conv3 -> conv3
I0505 16:37:22.175797  8155 net.cpp:144] Setting up conv3
I0505 16:37:22.175837  8155 net.cpp:151] Top shape: 20 128 15 15 (576000)
I0505 16:37:22.175848  8155 net.cpp:159] Memory required for data: 17352240
I0505 16:37:22.175873  8155 layer_factory.hpp:77] Creating layer relu3
I0505 16:37:22.175889  8155 net.cpp:94] Creating Layer relu3
I0505 16:37:22.175899  8155 net.cpp:435] relu3 <- conv3
I0505 16:37:22.175912  8155 net.cpp:396] relu3 -> conv3 (in-place)
I0505 16:37:22.175930  8155 net.cpp:144] Setting up relu3
I0505 16:37:22.175943  8155 net.cpp:151] Top shape: 20 128 15 15 (576000)
I0505 16:37:22.175951  8155 net.cpp:159] Memory required for data: 19656240
I0505 16:37:22.175961  8155 layer_factory.hpp:77] Creating layer pool3
I0505 16:37:22.175973  8155 net.cpp:94] Creating Layer pool3
I0505 16:37:22.175981  8155 net.cpp:435] pool3 <- conv3
I0505 16:37:22.175993  8155 net.cpp:409] pool3 -> pool3
I0505 16:37:22.176087  8155 net.cpp:144] Setting up pool3
I0505 16:37:22.176095  8155 net.cpp:151] Top shape: 20 128 7 7 (125440)
I0505 16:37:22.176098  8155 net.cpp:159] Memory required for data: 20158000
I0505 16:37:22.176101  8155 layer_factory.hpp:77] Creating layer ip1
I0505 16:37:22.176107  8155 net.cpp:94] Creating Layer ip1
I0505 16:37:22.176110  8155 net.cpp:435] ip1 <- pool3
I0505 16:37:22.176115  8155 net.cpp:409] ip1 -> ip1
I0505 16:37:22.258595  8155 net.cpp:144] Setting up ip1
I0505 16:37:22.258627  8155 net.cpp:151] Top shape: 20 512 (10240)
I0505 16:37:22.258630  8155 net.cpp:159] Memory required for data: 20198960
I0505 16:37:22.258640  8155 layer_factory.hpp:77] Creating layer ip2
I0505 16:37:22.258649  8155 net.cpp:94] Creating Layer ip2
I0505 16:37:22.258653  8155 net.cpp:435] ip2 <- ip1
I0505 16:37:22.258659  8155 net.cpp:409] ip2 -> ip2
I0505 16:37:22.262073  8155 net.cpp:144] Setting up ip2
I0505 16:37:22.262084  8155 net.cpp:151] Top shape: 20 256 (5120)
I0505 16:37:22.262087  8155 net.cpp:159] Memory required for data: 20219440
I0505 16:37:22.262096  8155 layer_factory.hpp:77] Creating layer ip3
I0505 16:37:22.262102  8155 net.cpp:94] Creating Layer ip3
I0505 16:37:22.262106  8155 net.cpp:435] ip3 <- ip2
I0505 16:37:22.262110  8155 net.cpp:409] ip3 -> ip3
I0505 16:37:22.262572  8155 net.cpp:144] Setting up ip3
I0505 16:37:22.262578  8155 net.cpp:151] Top shape: 20 50 (1000)
I0505 16:37:22.262581  8155 net.cpp:159] Memory required for data: 20223440
I0505 16:37:22.262585  8155 layer_factory.hpp:77] Creating layer ip3_ip3_0_split
I0505 16:37:22.262591  8155 net.cpp:94] Creating Layer ip3_ip3_0_split
I0505 16:37:22.262594  8155 net.cpp:435] ip3_ip3_0_split <- ip3
I0505 16:37:22.262598  8155 net.cpp:409] ip3_ip3_0_split -> ip3_ip3_0_split_0
I0505 16:37:22.262603  8155 net.cpp:409] ip3_ip3_0_split -> ip3_ip3_0_split_1
I0505 16:37:22.262646  8155 net.cpp:144] Setting up ip3_ip3_0_split
I0505 16:37:22.262652  8155 net.cpp:151] Top shape: 20 50 (1000)
I0505 16:37:22.262656  8155 net.cpp:151] Top shape: 20 50 (1000)
I0505 16:37:22.262660  8155 net.cpp:159] Memory required for data: 20231440
I0505 16:37:22.262662  8155 layer_factory.hpp:77] Creating layer accuracy
I0505 16:37:22.262667  8155 net.cpp:94] Creating Layer accuracy
I0505 16:37:22.262670  8155 net.cpp:435] accuracy <- ip3_ip3_0_split_0
I0505 16:37:22.262675  8155 net.cpp:435] accuracy <- label_intercept_1_split_0
I0505 16:37:22.262678  8155 net.cpp:409] accuracy -> accuracy
…
