…
I0507 16:10:02.379086  4621 net.cpp:323] The NetState phase (0) differed from the phase (1) specified by a rule in layer intercept
I0507 16:10:02.379101  4621 net.cpp:323] The NetState phase (0) differed from the phase (1) specified by a rule in layer loss
I0507 16:10:02.379179  4621 net.cpp:52] Initializing net from parameters: 
state {
  phase: TRAIN
}
layer {
  name: "parameters"
  type: "HDF5Data"
  top: "data"
  top: "label"
  include {
    phase: TRAIN
  }
  hdf5_data_param {
    source: "/home/purduethu/scratch/radon/d/deng106/CNNStatisticalModel/distributions/input/20_distributions_900_sample_size_train-parameters-path.txt"
    batch_size: 20
  }
}
layer {
  name: "conv1"
  type: "Convolution"
  bottom: "data"
  top: "conv1"
  param {
    lr_mult: 1
  }
  param {
    lr_mult: 2
  }
  convolution_param {
    num_output: 64
    pad: 2
    kernel_size: 5
    stride: 1
    weight_filler {
      type: "gaussian"
      std: 0.0001
    }
    bias_filler {
      type: "constant"
    }
  }
}
layer {
  name: "relu1"
  type: "ReLU"
  bottom: "conv1"
  top: "conv1"
}
layer {
  name: "conv2"
  type: "Convolution"
  bottom: "conv1"
  top: "conv2"
  param {
    lr_mult: 1
  }
  param {
    lr_mult: 2
  }
  convolution_param {
    num_output: 64
    pad: 2
    kernel_size: 5
    stride: 1
    weight_filler {
      type: "gaussian"
      std: 0.01
    }
    bias_filler {
      type: "constant"
    }
  }
}
layer {
  name: "relu2"
  type: "ReLU"
  bottom: "conv2"
  top: "conv2"
}
layer {
  name: "pool2"
  type: "Pooling"
  bottom: "conv2"
  top: "pool2"
  pooling_param {
    pool: MAX
    kernel_size: 3
    stride: 2
  }
}
layer {
  name: "conv3"
  type: "Convolution"
  bottom: "pool2"
  top: "conv3"
  param {
    lr_mult: 1
  }
  param {
    lr_mult: 2
  }
  convolution_param {
    num_output: 64
    pad: 2
    kernel_size: 5
    stride: 1
    weight_filler {
      type: "gaussian"
      std: 0.01
    }
    bias_filler {
      type: "constant"
    }
  }
}
layer {
  name: "relu3"
  type: "ReLU"
  bottom: "conv3"
  top: "conv3"
}
layer {
  name: "conv4"
  type: "Convolution"
  bottom: "conv3"
  top: "conv4"
  param {
    lr_mult: 1
  }
  param {
    lr_mult: 2
  }
  convolution_param {
    num_output: 64
    pad: 2
    kernel_size: 5
    stride: 1
    weight_filler {
      type: "gaussian"
      std: 0.01
    }
    bias_filler {
      type: "constant"
    }
  }
}
layer {
  name: "relu4"
  type: "ReLU"
  bottom: "conv4"
  top: "conv4"
}
layer {
  name: "conv5"
  type: "Convolution"
  bottom: "conv4"
  top: "conv5"
  param {
    lr_mult: 1
  }
  param {
    lr_mult: 2
  }
  convolution_param {
    num_output: 64
    pad: 2
    kernel_size: 5
    stride: 1
    weight_filler {
      type: "gaussian"
      std: 0.01
    }
    bias_filler {
      type: "constant"
    }
  }
}
layer {
  name: "relu5"
  type: "ReLU"
  bottom: "conv5"
  top: "conv5"
}
layer {
  name: "pool5"
  type: "Pooling"
  bottom: "conv5"
  top: "pool5"
  pooling_param {
    pool: AVE
    kernel_size: 3
    stride: 2
  }
}
layer {
  name: "ip1"
  type: "InnerProduct"
  bottom: "pool5"
  top: "ip1"
  param {
    lr_mult: 1
  }
  param {
    lr_mult: 2
  }
  inner_product_param {
    num_output: 64
    weight_filler {
      type: "gaussian"
      std: 0.1
    }
    bias_filler {
      type: "constant"
    }
  }
}
layer {
  name: "ip2"
  type: "InnerProduct"
  bottom: "ip1"
  top: "ip2"
  param {
    lr_mult: 1
  }
  param {
    lr_mult: 2
  }
  inner_product_param {
    num_output: 64
    weight_filler {
      type: "gaussian"
      std: 0.1
    }
    bias_filler {
      type: "constant"
    }
  }
}
layer {
  name: "ip3"
  type: "InnerProduct"
  bottom: "ip2"
  top: "ip3"
  param {
    lr_mult: 1
  }
  param {
    lr_mult: 2
  }
  inner_product_param {
    num_output: 1
    weight_filler {
      type: "gaussian"
      std: 0.1
    }
    bias_filler {
      type: "constant"
    }
  }
}
layer {
  name: "loss"
  type: "HuberLoss"
  bottom: "ip3"
  bottom: "label"
  top: "loss"
  include {
    phase: TRAIN
  }
}
I0507 16:10:02.379232  4621 layer_factory.hpp:77] Creating layer parameters
I0507 16:10:02.379245  4621 net.cpp:94] Creating Layer parameters
I0507 16:10:02.379251  4621 net.cpp:409] parameters -> data
I0507 16:10:02.379259  4621 net.cpp:409] parameters -> label
I0507 16:10:02.379266  4621 hdf5_data_layer.cpp:79] Loading list of HDF5 filenames from: /home/purduethu/scratch/radon/d/deng106/CNNStatisticalModel/distributions/input/20_distributions_900_sample_size_train-parameters-path.txt
I0507 16:10:02.379281  4621 hdf5_data_layer.cpp:93] Number of HDF5 files: 1
I0507 16:10:02.379786  4621 hdf5.cpp:32] Datatype class: H5T_FLOAT
I0507 16:10:02.954349  4621 net.cpp:144] Setting up parameters
I0507 16:10:02.954378  4621 net.cpp:151] Top shape: 20 1 30 30 (18000)
I0507 16:10:02.954383  4621 net.cpp:151] Top shape: 20 (20)
I0507 16:10:02.954387  4621 net.cpp:159] Memory required for data: 72080
I0507 16:10:02.954393  4621 layer_factory.hpp:77] Creating layer conv1
I0507 16:10:02.954416  4621 net.cpp:94] Creating Layer conv1
I0507 16:10:02.954421  4621 net.cpp:435] conv1 <- data
I0507 16:10:02.954427  4621 net.cpp:409] conv1 -> conv1
I0507 16:10:02.960782  4621 net.cpp:144] Setting up conv1
I0507 16:10:02.960798  4621 net.cpp:151] Top shape: 20 64 30 30 (1152000)
I0507 16:10:02.960801  4621 net.cpp:159] Memory required for data: 4680080
I0507 16:10:02.960811  4621 layer_factory.hpp:77] Creating layer relu1
I0507 16:10:02.960819  4621 net.cpp:94] Creating Layer relu1
I0507 16:10:02.960822  4621 net.cpp:435] relu1 <- conv1
I0507 16:10:02.960827  4621 net.cpp:396] relu1 -> conv1 (in-place)
I0507 16:10:02.960837  4621 net.cpp:144] Setting up relu1
I0507 16:10:02.960842  4621 net.cpp:151] Top shape: 20 64 30 30 (1152000)
I0507 16:10:02.960845  4621 net.cpp:159] Memory required for data: 9288080
I0507 16:10:02.960849  4621 layer_factory.hpp:77] Creating layer conv2
I0507 16:10:02.960856  4621 net.cpp:94] Creating Layer conv2
I0507 16:10:02.960860  4621 net.cpp:435] conv2 <- conv1
I0507 16:10:02.960865  4621 net.cpp:409] conv2 -> conv2
I0507 16:10:02.975405  4621 net.cpp:144] Setting up conv2
I0507 16:10:02.975421  4621 net.cpp:151] Top shape: 20 64 30 30 (1152000)
I0507 16:10:02.975425  4621 net.cpp:159] Memory required for data: 13896080
I0507 16:10:02.975433  4621 layer_factory.hpp:77] Creating layer relu2
I0507 16:10:02.975440  4621 net.cpp:94] Creating Layer relu2
I0507 16:10:02.975443  4621 net.cpp:435] relu2 <- conv2
I0507 16:10:02.975447  4621 net.cpp:396] relu2 -> conv2 (in-place)
I0507 16:10:02.975455  4621 net.cpp:144] Setting up relu2
I0507 16:10:02.975458  4621 net.cpp:151] Top shape: 20 64 30 30 (1152000)
I0507 16:10:02.975461  4621 net.cpp:159] Memory required for data: 18504080
I0507 16:10:02.975464  4621 layer_factory.hpp:77] Creating layer pool2
I0507 16:10:02.975477  4621 net.cpp:94] Creating Layer pool2
I0507 16:10:02.975481  4621 net.cpp:435] pool2 <- conv2
I0507 16:10:02.975486  4621 net.cpp:409] pool2 -> pool2
I0507 16:10:02.975539  4621 net.cpp:144] Setting up pool2
I0507 16:10:02.975548  4621 net.cpp:151] Top shape: 20 64 15 15 (288000)
I0507 16:10:02.975550  4621 net.cpp:159] Memory required for data: 19656080
I0507 16:10:02.975553  4621 layer_factory.hpp:77] Creating layer conv3
I0507 16:10:02.975561  4621 net.cpp:94] Creating Layer conv3
I0507 16:10:02.975564  4621 net.cpp:435] conv3 <- pool2
I0507 16:10:02.975569  4621 net.cpp:409] conv3 -> conv3
I0507 16:10:02.983862  4621 net.cpp:144] Setting up conv3
I0507 16:10:02.983877  4621 net.cpp:151] Top shape: 20 64 15 15 (288000)
I0507 16:10:02.983882  4621 net.cpp:159] Memory required for data: 20808080
I0507 16:10:02.983891  4621 layer_factory.hpp:77] Creating layer relu3
I0507 16:10:02.983897  4621 net.cpp:94] Creating Layer relu3
I0507 16:10:02.983901  4621 net.cpp:435] relu3 <- conv3
I0507 16:10:02.983906  4621 net.cpp:396] relu3 -> conv3 (in-place)
I0507 16:10:02.983913  4621 net.cpp:144] Setting up relu3
I0507 16:10:02.983918  4621 net.cpp:151] Top shape: 20 64 15 15 (288000)
I0507 16:10:02.983922  4621 net.cpp:159] Memory required for data: 21960080
I0507 16:10:02.983924  4621 layer_factory.hpp:77] Creating layer conv4
I0507 16:10:02.983933  4621 net.cpp:94] Creating Layer conv4
I0507 16:10:02.983937  4621 net.cpp:435] conv4 <- conv3
I0507 16:10:02.983942  4621 net.cpp:409] conv4 -> conv4
I0507 16:10:02.991293  4621 net.cpp:144] Setting up conv4
I0507 16:10:02.991308  4621 net.cpp:151] Top shape: 20 64 15 15 (288000)
I0507 16:10:02.991312  4621 net.cpp:159] Memory required for data: 23112080
I0507 16:10:02.991319  4621 layer_factory.hpp:77] Creating layer relu4
I0507 16:10:02.991325  4621 net.cpp:94] Creating Layer relu4
I0507 16:10:02.991328  4621 net.cpp:435] relu4 <- conv4
I0507 16:10:02.991333  4621 net.cpp:396] relu4 -> conv4 (in-place)
I0507 16:10:02.991340  4621 net.cpp:144] Setting up relu4
I0507 16:10:02.991344  4621 net.cpp:151] Top shape: 20 64 15 15 (288000)
I0507 16:10:02.991348  4621 net.cpp:159] Memory required for data: 24264080
I0507 16:10:02.991350  4621 layer_factory.hpp:77] Creating layer conv5
I0507 16:10:02.991358  4621 net.cpp:94] Creating Layer conv5
I0507 16:10:02.991363  4621 net.cpp:435] conv5 <- conv4
I0507 16:10:02.991367  4621 net.cpp:409] conv5 -> conv5
I0507 16:10:02.999460  4621 net.cpp:144] Setting up conv5
I0507 16:10:02.999475  4621 net.cpp:151] Top shape: 20 64 15 15 (288000)
I0507 16:10:02.999480  4621 net.cpp:159] Memory required for data: 25416080
I0507 16:10:02.999488  4621 layer_factory.hpp:77] Creating layer relu5
I0507 16:10:02.999495  4621 net.cpp:94] Creating Layer relu5
I0507 16:10:02.999498  4621 net.cpp:435] relu5 <- conv5
I0507 16:10:02.999503  4621 net.cpp:396] relu5 -> conv5 (in-place)
I0507 16:10:02.999511  4621 net.cpp:144] Setting up relu5
I0507 16:10:02.999514  4621 net.cpp:151] Top shape: 20 64 15 15 (288000)
I0507 16:10:02.999517  4621 net.cpp:159] Memory required for data: 26568080
I0507 16:10:02.999521  4621 layer_factory.hpp:77] Creating layer pool5
I0507 16:10:02.999526  4621 net.cpp:94] Creating Layer pool5
I0507 16:10:02.999528  4621 net.cpp:435] pool5 <- conv5
I0507 16:10:02.999533  4621 net.cpp:409] pool5 -> pool5
I0507 16:10:02.999573  4621 net.cpp:144] Setting up pool5
I0507 16:10:02.999581  4621 net.cpp:151] Top shape: 20 64 7 7 (62720)
I0507 16:10:02.999584  4621 net.cpp:159] Memory required for data: 26818960
I0507 16:10:02.999588  4621 layer_factory.hpp:77] Creating layer ip1
I0507 16:10:02.999598  4621 net.cpp:94] Creating Layer ip1
I0507 16:10:02.999601  4621 net.cpp:435] ip1 <- pool5
I0507 16:10:02.999606  4621 net.cpp:409] ip1 -> ip1
I0507 16:10:03.004632  4621 net.cpp:144] Setting up ip1
I0507 16:10:03.004644  4621 net.cpp:151] Top shape: 20 64 (1280)
I0507 16:10:03.004648  4621 net.cpp:159] Memory required for data: 26824080
I0507 16:10:03.004653  4621 layer_factory.hpp:77] Creating layer ip2
I0507 16:10:03.004660  4621 net.cpp:94] Creating Layer ip2
I0507 16:10:03.004667  4621 net.cpp:435] ip2 <- ip1
I0507 16:10:03.004673  4621 net.cpp:409] ip2 -> ip2
I0507 16:10:03.004891  4621 net.cpp:144] Setting up ip2
I0507 16:10:03.004899  4621 net.cpp:151] Top shape: 20 64 (1280)
I0507 16:10:03.004902  4621 net.cpp:159] Memory required for data: 26829200
I0507 16:10:03.004909  4621 layer_factory.hpp:77] Creating layer ip3
I0507 16:10:03.004914  4621 net.cpp:94] Creating Layer ip3
I0507 16:10:03.004917  4621 net.cpp:435] ip3 <- ip2
I0507 16:10:03.004921  4621 net.cpp:409] ip3 -> ip3
I0507 16:10:03.005028  4621 net.cpp:144] Setting up ip3
I0507 16:10:03.005035  4621 net.cpp:151] Top shape: 20 1 (20)
I0507 16:10:03.005038  4621 net.cpp:159] Memory required for data: 26829280
I0507 16:10:03.005043  4621 layer_factory.hpp:77] Creating layer loss
I0507 16:10:03.005050  4621 net.cpp:94] Creating Layer loss
I0507 16:10:03.005053  4621 net.cpp:435] loss <- ip3
I0507 16:10:03.005058  4621 net.cpp:435] loss <- label
I0507 16:10:03.005062  4621 net.cpp:409] loss -> loss
I0507 16:10:03.005117  4621 net.cpp:144] Setting up loss
…
I0507 16:10:03.181799  4621 net.cpp:323] The NetState phase (0) differed from the phase (1) specified by a rule in layer intercept
I0507 16:10:03.181815  4621 net.cpp:323] The NetState phase (0) differed from the phase (1) specified by a rule in layer accuracy
I0507 16:10:03.181900  4621 net.cpp:52] Initializing net from parameters: 
state {
  phase: TRAIN
}
layer {
  name: "parameters"
  type: "HDF5Data"
  top: "data"
  top: "label"
  include {
    phase: TRAIN
  }
  hdf5_data_param {
    source: "/home/purduethu/scratch/radon/d/deng106/CNNStatisticalModel/distributions/input/20_distributions_900_sample_size_train-distributions-path.txt"
    batch_size: 20
  }
}
layer {
  name: "conv1"
  type: "Convolution"
  bottom: "data"
  top: "conv1"
  param {
    lr_mult: 1
  }
  param {
    lr_mult: 2
  }
  convolution_param {
    num_output: 64
    pad: 2
    kernel_size: 5
    stride: 1
    weight_filler {
      type: "gaussian"
      std: 0.0001
    }
    bias_filler {
      type: "constant"
    }
  }
}
layer {
  name: "relu1"
  type: "ReLU"
  bottom: "conv1"
  top: "conv1"
}
layer {
  name: "conv2"
  type: "Convolution"
  bottom: "conv1"
  top: "conv2"
  param {
    lr_mult: 1
  }
  param {
    lr_mult: 2
  }
  convolution_param {
    num_output: 64
    pad: 2
    kernel_size: 5
    stride: 1
    weight_filler {
      type: "gaussian"
      std: 0.01
    }
    bias_filler {
      type: "constant"
    }
  }
}
layer {
  name: "relu2"
  type: "ReLU"
  bottom: "conv2"
  top: "conv2"
}
layer {
  name: "pool2"
  type: "Pooling"
  bottom: "conv2"
  top: "pool2"
  pooling_param {
    pool: MAX
    kernel_size: 3
    stride: 2
  }
}
layer {
  name: "conv3"
  type: "Convolution"
  bottom: "pool2"
  top: "conv3"
  param {
    lr_mult: 1
  }
  param {
    lr_mult: 2
  }
  convolution_param {
    num_output: 64
    pad: 2
    kernel_size: 5
    stride: 1
    weight_filler {
      type: "gaussian"
      std: 0.01
    }
    bias_filler {
      type: "constant"
    }
  }
}
layer {
  name: "relu3"
  type: "ReLU"
  bottom: "conv3"
  top: "conv3"
}
layer {
  name: "conv4"
  type: "Convolution"
  bottom: "conv3"
  top: "conv4"
  param {
    lr_mult: 1
  }
  param {
    lr_mult: 2
  }
  convolution_param {
    num_output: 64
    pad: 2
    kernel_size: 5
    stride: 1
    weight_filler {
      type: "gaussian"
      std: 0.01
    }
    bias_filler {
      type: "constant"
    }
  }
}
layer {
  name: "relu4"
  type: "ReLU"
  bottom: "conv4"
  top: "conv4"
}
layer {
  name: "conv5"
  type: "Convolution"
  bottom: "conv4"
  top: "conv5"
  param {
    lr_mult: 1
  }
  param {
    lr_mult: 2
  }
  convolution_param {
    num_output: 64
    pad: 2
    kernel_size: 5
    stride: 1
    weight_filler {
      type: "gaussian"
      std: 0.01
    }
    bias_filler {
      type: "constant"
    }
  }
}
layer {
  name: "relu5"
  type: "ReLU"
  bottom: "conv5"
  top: "conv5"
}
layer {
  name: "pool5"
  type: "Pooling"
  bottom: "conv5"
  top: "pool5"
  pooling_param {
    pool: AVE
    kernel_size: 3
    stride: 2
  }
}
layer {
  name: "ip1"
  type: "InnerProduct"
  bottom: "pool5"
  top: "ip1"
  param {
    lr_mult: 1
  }
  param {
    lr_mult: 2
  }
  inner_product_param {
    num_output: 64
    weight_filler {
      type: "gaussian"
      std: 0.1
    }
    bias_filler {
      type: "constant"
    }
  }
}
layer {
  name: "ip2"
  type: "InnerProduct"
  bottom: "ip1"
  top: "ip2"
  param {
    lr_mult: 1
  }
  param {
    lr_mult: 2
  }
  inner_product_param {
    num_output: 64
    weight_filler {
      type: "gaussian"
      std: 0.1
    }
    bias_filler {
      type: "constant"
    }
  }
}
layer {
  name: "ip3"
  type: "InnerProduct"
  bottom: "ip2"
  top: "ip3"
  param {
    lr_mult: 1
  }
  param {
    lr_mult: 2
  }
  inner_product_param {
    num_output: 50
    weight_filler {
      type: "gaussian"
      std: 0.1
    }
    bias_filler {
      type: "constant"
    }
  }
}
layer {
  name: "loss"
  type: "SoftmaxWithLoss"
  bottom: "ip3"
  bottom: "label"
  top: "loss"
}
I0507 16:10:03.181954  4621 layer_factory.hpp:77] Creating layer parameters
I0507 16:10:03.181962  4621 net.cpp:94] Creating Layer parameters
I0507 16:10:03.181967  4621 net.cpp:409] parameters -> data
I0507 16:10:03.181973  4621 net.cpp:409] parameters -> label
I0507 16:10:03.181979  4621 hdf5_data_layer.cpp:79] Loading list of HDF5 filenames from: /home/purduethu/scratch/radon/d/deng106/CNNStatisticalModel/distributions/input/20_distributions_900_sample_size_train-distributions-path.txt
I0507 16:10:03.181995  4621 hdf5_data_layer.cpp:93] Number of HDF5 files: 1
I0507 16:10:03.748656  4621 hdf5.cpp:35] Datatype class: H5T_INTEGER
I0507 16:10:03.750663  4621 net.cpp:144] Setting up parameters
I0507 16:10:03.750681  4621 net.cpp:151] Top shape: 20 1 30 30 (18000)
I0507 16:10:03.750686  4621 net.cpp:151] Top shape: 20 (20)
I0507 16:10:03.750690  4621 net.cpp:159] Memory required for data: 72080
I0507 16:10:03.750696  4621 layer_factory.hpp:77] Creating layer conv1
I0507 16:10:03.750712  4621 net.cpp:94] Creating Layer conv1
I0507 16:10:03.750716  4621 net.cpp:435] conv1 <- data
I0507 16:10:03.750722  4621 net.cpp:409] conv1 -> conv1
I0507 16:10:03.754230  4621 net.cpp:144] Setting up conv1
I0507 16:10:03.754245  4621 net.cpp:151] Top shape: 20 64 30 30 (1152000)
I0507 16:10:03.754248  4621 net.cpp:159] Memory required for data: 4680080
I0507 16:10:03.754259  4621 layer_factory.hpp:77] Creating layer relu1
I0507 16:10:03.754266  4621 net.cpp:94] Creating Layer relu1
I0507 16:10:03.754269  4621 net.cpp:435] relu1 <- conv1
I0507 16:10:03.754274  4621 net.cpp:396] relu1 -> conv1 (in-place)
I0507 16:10:03.754281  4621 net.cpp:144] Setting up relu1
I0507 16:10:03.754286  4621 net.cpp:151] Top shape: 20 64 30 30 (1152000)
I0507 16:10:03.754288  4621 net.cpp:159] Memory required for data: 9288080
I0507 16:10:03.754292  4621 layer_factory.hpp:77] Creating layer conv2
I0507 16:10:03.754299  4621 net.cpp:94] Creating Layer conv2
I0507 16:10:03.754302  4621 net.cpp:435] conv2 <- conv1
I0507 16:10:03.754307  4621 net.cpp:409] conv2 -> conv2
I0507 16:10:03.770256  4621 net.cpp:144] Setting up conv2
I0507 16:10:03.770272  4621 net.cpp:151] Top shape: 20 64 30 30 (1152000)
I0507 16:10:03.770275  4621 net.cpp:159] Memory required for data: 13896080
I0507 16:10:03.770283  4621 layer_factory.hpp:77] Creating layer relu2
I0507 16:10:03.770289  4621 net.cpp:94] Creating Layer relu2
I0507 16:10:03.770293  4621 net.cpp:435] relu2 <- conv2
I0507 16:10:03.770298  4621 net.cpp:396] relu2 -> conv2 (in-place)
I0507 16:10:03.770305  4621 net.cpp:144] Setting up relu2
I0507 16:10:03.770309  4621 net.cpp:151] Top shape: 20 64 30 30 (1152000)
I0507 16:10:03.770313  4621 net.cpp:159] Memory required for data: 18504080
I0507 16:10:03.770315  4621 layer_factory.hpp:77] Creating layer pool2
I0507 16:10:03.770321  4621 net.cpp:94] Creating Layer pool2
I0507 16:10:03.770324  4621 net.cpp:435] pool2 <- conv2
I0507 16:10:03.770329  4621 net.cpp:409] pool2 -> pool2
I0507 16:10:03.770395  4621 net.cpp:144] Setting up pool2
I0507 16:10:03.770403  4621 net.cpp:151] Top shape: 20 64 15 15 (288000)
I0507 16:10:03.770406  4621 net.cpp:159] Memory required for data: 19656080
I0507 16:10:03.770409  4621 layer_factory.hpp:77] Creating layer conv3
I0507 16:10:03.770417  4621 net.cpp:94] Creating Layer conv3
I0507 16:10:03.770421  4621 net.cpp:435] conv3 <- pool2
I0507 16:10:03.770431  4621 net.cpp:409] conv3 -> conv3
I0507 16:10:03.779237  4621 net.cpp:144] Setting up conv3
I0507 16:10:03.779253  4621 net.cpp:151] Top shape: 20 64 15 15 (288000)
I0507 16:10:03.779256  4621 net.cpp:159] Memory required for data: 20808080
I0507 16:10:03.779264  4621 layer_factory.hpp:77] Creating layer relu3
I0507 16:10:03.779270  4621 net.cpp:94] Creating Layer relu3
I0507 16:10:03.779274  4621 net.cpp:435] relu3 <- conv3
I0507 16:10:03.779279  4621 net.cpp:396] relu3 -> conv3 (in-place)
I0507 16:10:03.779286  4621 net.cpp:144] Setting up relu3
I0507 16:10:03.779291  4621 net.cpp:151] Top shape: 20 64 15 15 (288000)
I0507 16:10:03.779294  4621 net.cpp:159] Memory required for data: 21960080
I0507 16:10:03.779297  4621 layer_factory.hpp:77] Creating layer conv4
I0507 16:10:03.779305  4621 net.cpp:94] Creating Layer conv4
I0507 16:10:03.779309  4621 net.cpp:435] conv4 <- conv3
I0507 16:10:03.779314  4621 net.cpp:409] conv4 -> conv4
I0507 16:10:03.787257  4621 net.cpp:144] Setting up conv4
I0507 16:10:03.787272  4621 net.cpp:151] Top shape: 20 64 15 15 (288000)
I0507 16:10:03.787276  4621 net.cpp:159] Memory required for data: 23112080
I0507 16:10:03.787283  4621 layer_factory.hpp:77] Creating layer relu4
I0507 16:10:03.787288  4621 net.cpp:94] Creating Layer relu4
I0507 16:10:03.787292  4621 net.cpp:435] relu4 <- conv4
I0507 16:10:03.787297  4621 net.cpp:396] relu4 -> conv4 (in-place)
I0507 16:10:03.787304  4621 net.cpp:144] Setting up relu4
I0507 16:10:03.787308  4621 net.cpp:151] Top shape: 20 64 15 15 (288000)
I0507 16:10:03.787312  4621 net.cpp:159] Memory required for data: 24264080
I0507 16:10:03.787314  4621 layer_factory.hpp:77] Creating layer conv5
I0507 16:10:03.787322  4621 net.cpp:94] Creating Layer conv5
I0507 16:10:03.787325  4621 net.cpp:435] conv5 <- conv4
I0507 16:10:03.787330  4621 net.cpp:409] conv5 -> conv5
I0507 16:10:03.795186  4621 net.cpp:144] Setting up conv5
I0507 16:10:03.795200  4621 net.cpp:151] Top shape: 20 64 15 15 (288000)
I0507 16:10:03.795204  4621 net.cpp:159] Memory required for data: 25416080
I0507 16:10:03.795213  4621 layer_factory.hpp:77] Creating layer relu5
I0507 16:10:03.795219  4621 net.cpp:94] Creating Layer relu5
I0507 16:10:03.795222  4621 net.cpp:435] relu5 <- conv5
I0507 16:10:03.795228  4621 net.cpp:396] relu5 -> conv5 (in-place)
I0507 16:10:03.795234  4621 net.cpp:144] Setting up relu5
I0507 16:10:03.795238  4621 net.cpp:151] Top shape: 20 64 15 15 (288000)
I0507 16:10:03.795241  4621 net.cpp:159] Memory required for data: 26568080
I0507 16:10:03.795245  4621 layer_factory.hpp:77] Creating layer pool5
I0507 16:10:03.795249  4621 net.cpp:94] Creating Layer pool5
I0507 16:10:03.795253  4621 net.cpp:435] pool5 <- conv5
I0507 16:10:03.795258  4621 net.cpp:409] pool5 -> pool5
I0507 16:10:03.795296  4621 net.cpp:144] Setting up pool5
I0507 16:10:03.795305  4621 net.cpp:151] Top shape: 20 64 7 7 (62720)
I0507 16:10:03.795307  4621 net.cpp:159] Memory required for data: 26818960
I0507 16:10:03.795310  4621 layer_factory.hpp:77] Creating layer ip1
I0507 16:10:03.795317  4621 net.cpp:94] Creating Layer ip1
I0507 16:10:03.795320  4621 net.cpp:435] ip1 <- pool5
I0507 16:10:03.795325  4621 net.cpp:409] ip1 -> ip1
I0507 16:10:03.801213  4621 net.cpp:144] Setting up ip1
I0507 16:10:03.801226  4621 net.cpp:151] Top shape: 20 64 (1280)
I0507 16:10:03.801230  4621 net.cpp:159] Memory required for data: 26824080
I0507 16:10:03.801236  4621 layer_factory.hpp:77] Creating layer ip2
I0507 16:10:03.801244  4621 net.cpp:94] Creating Layer ip2
I0507 16:10:03.801247  4621 net.cpp:435] ip2 <- ip1
I0507 16:10:03.801252  4621 net.cpp:409] ip2 -> ip2
I0507 16:10:03.801486  4621 net.cpp:144] Setting up ip2
I0507 16:10:03.801493  4621 net.cpp:151] Top shape: 20 64 (1280)
I0507 16:10:03.801497  4621 net.cpp:159] Memory required for data: 26829200
I0507 16:10:03.801502  4621 layer_factory.hpp:77] Creating layer ip3
I0507 16:10:03.801507  4621 net.cpp:94] Creating Layer ip3
I0507 16:10:03.801512  4621 net.cpp:435] ip3 <- ip2
I0507 16:10:03.801515  4621 net.cpp:409] ip3 -> ip3
I0507 16:10:03.801725  4621 net.cpp:144] Setting up ip3
I0507 16:10:03.801733  4621 net.cpp:151] Top shape: 20 50 (1000)
I0507 16:10:03.801736  4621 net.cpp:159] Memory required for data: 26833200
I0507 16:10:03.801741  4621 layer_factory.hpp:77] Creating layer loss
I0507 16:10:03.801748  4621 net.cpp:94] Creating Layer loss
I0507 16:10:03.801751  4621 net.cpp:435] loss <- ip3
I0507 16:10:03.801755  4621 net.cpp:435] loss <- label
I0507 16:10:03.801759  4621 net.cpp:409] loss -> loss
I0507 16:10:03.801766  4621 layer_factory.hpp:77] Creating layer loss
…
I0507 16:10:03.802289  4621 solver.cpp:181] Creating test net (#0) specified by net file: ./protocol/dis_20_900_dimension.protocol_distribution
I0507 16:10:03.802314  4621 net.cpp:323] The NetState phase (1) differed from the phase (0) specified by a rule in layer parameters
I0507 16:10:03.802407  4621 net.cpp:52] Initializing net from parameters: 
state {
  phase: TEST
}
layer {
  name: "intercept"
  type: "HDF5Data"
  top: "data"
  top: "label"
  include {
    phase: TEST
  }
  hdf5_data_param {
    source: "/home/purduethu/scratch/radon/d/deng106/CNNStatisticalModel/distributions/input/20_distributions_900_sample_size_test-distributions-path.txt"
    batch_size: 20
  }
}
layer {
  name: "conv1"
  type: "Convolution"
  bottom: "data"
  top: "conv1"
  param {
    lr_mult: 1
  }
  param {
    lr_mult: 2
  }
  convolution_param {
    num_output: 64
    pad: 2
    kernel_size: 5
    stride: 1
    weight_filler {
      type: "gaussian"
      std: 0.0001
    }
    bias_filler {
      type: "constant"
    }
  }
}
layer {
  name: "relu1"
  type: "ReLU"
  bottom: "conv1"
  top: "conv1"
}
layer {
  name: "conv2"
  type: "Convolution"
  bottom: "conv1"
  top: "conv2"
  param {
    lr_mult: 1
  }
  param {
    lr_mult: 2
  }
  convolution_param {
    num_output: 64
    pad: 2
    kernel_size: 5
    stride: 1
    weight_filler {
      type: "gaussian"
      std: 0.01
    }
    bias_filler {
      type: "constant"
    }
  }
}
layer {
  name: "relu2"
  type: "ReLU"
  bottom: "conv2"
  top: "conv2"
}
layer {
  name: "pool2"
  type: "Pooling"
  bottom: "conv2"
  top: "pool2"
  pooling_param {
    pool: MAX
    kernel_size: 3
    stride: 2
  }
}
layer {
  name: "conv3"
  type: "Convolution"
  bottom: "pool2"
  top: "conv3"
  param {
    lr_mult: 1
  }
  param {
    lr_mult: 2
  }
  convolution_param {
    num_output: 64
    pad: 2
    kernel_size: 5
    stride: 1
    weight_filler {
      type: "gaussian"
      std: 0.01
    }
    bias_filler {
      type: "constant"
    }
  }
}
layer {
  name: "relu3"
  type: "ReLU"
  bottom: "conv3"
  top: "conv3"
}
layer {
  name: "conv4"
  type: "Convolution"
  bottom: "conv3"
  top: "conv4"
  param {
    lr_mult: 1
  }
  param {
    lr_mult: 2
  }
  convolution_param {
    num_output: 64
    pad: 2
    kernel_size: 5
    stride: 1
    weight_filler {
      type: "gaussian"
      std: 0.01
    }
    bias_filler {
      type: "constant"
    }
  }
}
layer {
  name: "relu4"
  type: "ReLU"
  bottom: "conv4"
  top: "conv4"
}
layer {
  name: "conv5"
  type: "Convolution"
  bottom: "conv4"
  top: "conv5"
  param {
    lr_mult: 1
  }
  param {
    lr_mult: 2
  }
  convolution_param {
    num_output: 64
    pad: 2
    kernel_size: 5
    stride: 1
    weight_filler {
      type: "gaussian"
      std: 0.01
    }
    bias_filler {
      type: "constant"
    }
  }
}
layer {
  name: "relu5"
  type: "ReLU"
  bottom: "conv5"
  top: "conv5"
}
layer {
  name: "pool5"
  type: "Pooling"
  bottom: "conv5"
  top: "pool5"
  pooling_param {
    pool: AVE
    kernel_size: 3
    stride: 2
  }
}
layer {
  name: "ip1"
  type: "InnerProduct"
  bottom: "pool5"
  top: "ip1"
  param {
    lr_mult: 1
  }
  param {
    lr_mult: 2
  }
  inner_product_param {
    num_output: 64
    weight_filler {
      type: "gaussian"
      std: 0.1
    }
    bias_filler {
      type: "constant"
    }
  }
}
layer {
  name: "ip2"
  type: "InnerProduct"
  bottom: "ip1"
  top: "ip2"
  param {
    lr_mult: 1
  }
  param {
    lr_mult: 2
  }
  inner_product_param {
    num_output: 64
    weight_filler {
      type: "gaussian"
      std: 0.1
    }
    bias_filler {
      type: "constant"
    }
  }
}
layer {
  name: "ip3"
  type: "InnerProduct"
  bottom: "ip2"
  top: "ip3"
  param {
    lr_mult: 1
  }
  param {
    lr_mult: 2
  }
  inner_product_param {
    num_output: 50
    weight_filler {
      type: "gaussian"
      std: 0.1
    }
    bias_filler {
      type: "constant"
    }
  }
}
layer {
  name: "accuracy"
  type: "Accuracy"
  bottom: "ip3"
  bottom: "label"
  top: "accuracy"
  include {
    phase: TEST
  }
}
layer {
  name: "loss"
  type: "SoftmaxWithLoss"
  bottom: "ip3"
  bottom: "label"
  top: "loss"
}
I0507 16:10:03.802470  4621 layer_factory.hpp:77] Creating layer intercept
I0507 16:10:03.802479  4621 net.cpp:94] Creating Layer intercept
I0507 16:10:03.802484  4621 net.cpp:409] intercept -> data
I0507 16:10:03.802489  4621 net.cpp:409] intercept -> label
I0507 16:10:03.802495  4621 hdf5_data_layer.cpp:79] Loading list of HDF5 filenames from: /home/purduethu/scratch/radon/d/deng106/CNNStatisticalModel/distributions/input/20_distributions_900_sample_size_test-distributions-path.txt
I0507 16:10:03.802515  4621 hdf5_data_layer.cpp:93] Number of HDF5 files: 1
I0507 16:10:03.945011  4621 net.cpp:144] Setting up intercept
I0507 16:10:03.945046  4621 net.cpp:151] Top shape: 20 1 30 30 (18000)
I0507 16:10:03.945052  4621 net.cpp:151] Top shape: 20 (20)
I0507 16:10:03.945055  4621 net.cpp:159] Memory required for data: 72080
I0507 16:10:03.945061  4621 layer_factory.hpp:77] Creating layer label_intercept_1_split
I0507 16:10:03.945080  4621 net.cpp:94] Creating Layer label_intercept_1_split
I0507 16:10:03.945083  4621 net.cpp:435] label_intercept_1_split <- label
I0507 16:10:03.945089  4621 net.cpp:409] label_intercept_1_split -> label_intercept_1_split_0
I0507 16:10:03.945097  4621 net.cpp:409] label_intercept_1_split -> label_intercept_1_split_1
I0507 16:10:03.945140  4621 net.cpp:144] Setting up label_intercept_1_split
I0507 16:10:03.945147  4621 net.cpp:151] Top shape: 20 (20)
I0507 16:10:03.945152  4621 net.cpp:151] Top shape: 20 (20)
I0507 16:10:03.945154  4621 net.cpp:159] Memory required for data: 72240
I0507 16:10:03.945158  4621 layer_factory.hpp:77] Creating layer conv1
I0507 16:10:03.945168  4621 net.cpp:94] Creating Layer conv1
I0507 16:10:03.945171  4621 net.cpp:435] conv1 <- data
I0507 16:10:03.945176  4621 net.cpp:409] conv1 -> conv1
I0507 16:10:03.946676  4621 net.cpp:144] Setting up conv1
I0507 16:10:03.946691  4621 net.cpp:151] Top shape: 20 64 30 30 (1152000)
I0507 16:10:03.946694  4621 net.cpp:159] Memory required for data: 4680240
I0507 16:10:03.946703  4621 layer_factory.hpp:77] Creating layer relu1
I0507 16:10:03.946710  4621 net.cpp:94] Creating Layer relu1
I0507 16:10:03.946714  4621 net.cpp:435] relu1 <- conv1
I0507 16:10:03.946718  4621 net.cpp:396] relu1 -> conv1 (in-place)
I0507 16:10:03.946725  4621 net.cpp:144] Setting up relu1
I0507 16:10:03.946729  4621 net.cpp:151] Top shape: 20 64 30 30 (1152000)
I0507 16:10:03.946732  4621 net.cpp:159] Memory required for data: 9288240
I0507 16:10:03.946735  4621 layer_factory.hpp:77] Creating layer conv2
I0507 16:10:03.946744  4621 net.cpp:94] Creating Layer conv2
I0507 16:10:03.946748  4621 net.cpp:435] conv2 <- conv1
I0507 16:10:03.946753  4621 net.cpp:409] conv2 -> conv2
I0507 16:10:03.953438  4621 net.cpp:144] Setting up conv2
I0507 16:10:03.953452  4621 net.cpp:151] Top shape: 20 64 30 30 (1152000)
I0507 16:10:03.953456  4621 net.cpp:159] Memory required for data: 13896240
I0507 16:10:03.953464  4621 layer_factory.hpp:77] Creating layer relu2
I0507 16:10:03.953470  4621 net.cpp:94] Creating Layer relu2
I0507 16:10:03.953474  4621 net.cpp:435] relu2 <- conv2
I0507 16:10:03.953479  4621 net.cpp:396] relu2 -> conv2 (in-place)
I0507 16:10:03.953485  4621 net.cpp:144] Setting up relu2
I0507 16:10:03.953490  4621 net.cpp:151] Top shape: 20 64 30 30 (1152000)
I0507 16:10:03.953492  4621 net.cpp:159] Memory required for data: 18504240
I0507 16:10:03.953495  4621 layer_factory.hpp:77] Creating layer pool2
I0507 16:10:03.953501  4621 net.cpp:94] Creating Layer pool2
I0507 16:10:03.953505  4621 net.cpp:435] pool2 <- conv2
I0507 16:10:03.953508  4621 net.cpp:409] pool2 -> pool2
I0507 16:10:03.953567  4621 net.cpp:144] Setting up pool2
I0507 16:10:03.953572  4621 net.cpp:151] Top shape: 20 64 15 15 (288000)
I0507 16:10:03.953577  4621 net.cpp:159] Memory required for data: 19656240
I0507 16:10:03.953579  4621 layer_factory.hpp:77] Creating layer conv3
I0507 16:10:03.953586  4621 net.cpp:94] Creating Layer conv3
I0507 16:10:03.953590  4621 net.cpp:435] conv3 <- pool2
I0507 16:10:03.953595  4621 net.cpp:409] conv3 -> conv3
I0507 16:10:03.958761  4621 net.cpp:144] Setting up conv3
I0507 16:10:03.958776  4621 net.cpp:151] Top shape: 20 64 15 15 (288000)
I0507 16:10:03.958781  4621 net.cpp:159] Memory required for data: 20808240
I0507 16:10:03.958788  4621 layer_factory.hpp:77] Creating layer relu3
I0507 16:10:03.958794  4621 net.cpp:94] Creating Layer relu3
I0507 16:10:03.958798  4621 net.cpp:435] relu3 <- conv3
I0507 16:10:03.958803  4621 net.cpp:396] relu3 -> conv3 (in-place)
I0507 16:10:03.958811  4621 net.cpp:144] Setting up relu3
I0507 16:10:03.958814  4621 net.cpp:151] Top shape: 20 64 15 15 (288000)
I0507 16:10:03.958817  4621 net.cpp:159] Memory required for data: 21960240
I0507 16:10:03.958820  4621 layer_factory.hpp:77] Creating layer conv4
I0507 16:10:03.958828  4621 net.cpp:94] Creating Layer conv4
I0507 16:10:03.958832  4621 net.cpp:435] conv4 <- conv3
I0507 16:10:03.958837  4621 net.cpp:409] conv4 -> conv4
I0507 16:10:03.963572  4621 net.cpp:144] Setting up conv4
I0507 16:10:03.963587  4621 net.cpp:151] Top shape: 20 64 15 15 (288000)
I0507 16:10:03.963591  4621 net.cpp:159] Memory required for data: 23112240
I0507 16:10:03.963598  4621 layer_factory.hpp:77] Creating layer relu4
I0507 16:10:03.963603  4621 net.cpp:94] Creating Layer relu4
I0507 16:10:03.963608  4621 net.cpp:435] relu4 <- conv4
I0507 16:10:03.963613  4621 net.cpp:396] relu4 -> conv4 (in-place)
I0507 16:10:03.963619  4621 net.cpp:144] Setting up relu4
I0507 16:10:03.963624  4621 net.cpp:151] Top shape: 20 64 15 15 (288000)
I0507 16:10:03.963626  4621 net.cpp:159] Memory required for data: 24264240
I0507 16:10:03.963629  4621 layer_factory.hpp:77] Creating layer conv5
I0507 16:10:03.963637  4621 net.cpp:94] Creating Layer conv5
I0507 16:10:03.963640  4621 net.cpp:435] conv5 <- conv4
I0507 16:10:03.963645  4621 net.cpp:409] conv5 -> conv5
I0507 16:10:03.969188  4621 net.cpp:144] Setting up conv5
I0507 16:10:03.969203  4621 net.cpp:151] Top shape: 20 64 15 15 (288000)
I0507 16:10:03.969208  4621 net.cpp:159] Memory required for data: 25416240
I0507 16:10:03.969216  4621 layer_factory.hpp:77] Creating layer relu5
I0507 16:10:03.969223  4621 net.cpp:94] Creating Layer relu5
I0507 16:10:03.969225  4621 net.cpp:435] relu5 <- conv5
I0507 16:10:03.969230  4621 net.cpp:396] relu5 -> conv5 (in-place)
I0507 16:10:03.969238  4621 net.cpp:144] Setting up relu5
I0507 16:10:03.969241  4621 net.cpp:151] Top shape: 20 64 15 15 (288000)
I0507 16:10:03.969244  4621 net.cpp:159] Memory required for data: 26568240
I0507 16:10:03.969247  4621 layer_factory.hpp:77] Creating layer pool5
I0507 16:10:03.969252  4621 net.cpp:94] Creating Layer pool5
I0507 16:10:03.969255  4621 net.cpp:435] pool5 <- conv5
I0507 16:10:03.969262  4621 net.cpp:409] pool5 -> pool5
I0507 16:10:03.969303  4621 net.cpp:144] Setting up pool5
I0507 16:10:03.969310  4621 net.cpp:151] Top shape: 20 64 7 7 (62720)
I0507 16:10:03.969313  4621 net.cpp:159] Memory required for data: 26819120
I0507 16:10:03.969317  4621 layer_factory.hpp:77] Creating layer ip1
I0507 16:10:03.969323  4621 net.cpp:94] Creating Layer ip1
I0507 16:10:03.969326  4621 net.cpp:435] ip1 <- pool5
I0507 16:10:03.969331  4621 net.cpp:409] ip1 -> ip1
I0507 16:10:03.974215  4621 net.cpp:144] Setting up ip1
I0507 16:10:03.974225  4621 net.cpp:151] Top shape: 20 64 (1280)
I0507 16:10:03.974228  4621 net.cpp:159] Memory required for data: 26824240
I0507 16:10:03.974234  4621 layer_factory.hpp:77] Creating layer ip2
I0507 16:10:03.974241  4621 net.cpp:94] Creating Layer ip2
I0507 16:10:03.974243  4621 net.cpp:435] ip2 <- ip1
I0507 16:10:03.974249  4621 net.cpp:409] ip2 -> ip2
I0507 16:10:03.974490  4621 net.cpp:144] Setting up ip2
I0507 16:10:03.974498  4621 net.cpp:151] Top shape: 20 64 (1280)
I0507 16:10:03.974501  4621 net.cpp:159] Memory required for data: 26829360
I0507 16:10:03.974506  4621 layer_factory.hpp:77] Creating layer ip3
I0507 16:10:03.974515  4621 net.cpp:94] Creating Layer ip3
I0507 16:10:03.974519  4621 net.cpp:435] ip3 <- ip2
I0507 16:10:03.974524  4621 net.cpp:409] ip3 -> ip3
I0507 16:10:03.974731  4621 net.cpp:144] Setting up ip3
I0507 16:10:03.974740  4621 net.cpp:151] Top shape: 20 50 (1000)
I0507 16:10:03.974741  4621 net.cpp:159] Memory required for data: 26833360
I0507 16:10:03.974746  4621 layer_factory.hpp:77] Creating layer ip3_ip3_0_split
I0507 16:10:03.974751  4621 net.cpp:94] Creating Layer ip3_ip3_0_split
I0507 16:10:03.974755  4621 net.cpp:435] ip3_ip3_0_split <- ip3
I0507 16:10:03.974758  4621 net.cpp:409] ip3_ip3_0_split -> ip3_ip3_0_split_0
I0507 16:10:03.974766  4621 net.cpp:409] ip3_ip3_0_split -> ip3_ip3_0_split_1
I0507 16:10:03.974808  4621 net.cpp:144] Setting up ip3_ip3_0_split
I0507 16:10:03.974814  4621 net.cpp:151] Top shape: 20 50 (1000)
I0507 16:10:03.974818  4621 net.cpp:151] Top shape: 20 50 (1000)
I0507 16:10:03.974822  4621 net.cpp:159] Memory required for data: 26841360
I0507 16:10:03.974824  4621 layer_factory.hpp:77] Creating layer accuracy
I0507 16:10:03.974829  4621 net.cpp:94] Creating Layer accuracy
I0507 16:10:03.974833  4621 net.cpp:435] accuracy <- ip3_ip3_0_split_0
I0507 16:10:03.974835  4621 net.cpp:435] accuracy <- label_intercept_1_split_0
I0507 16:10:03.974839  4621 net.cpp:409] accuracy -> accuracy
…
