…
I0506 06:39:00.414690 20101 net.cpp:323] The NetState phase (0) differed from the phase (1) specified by a rule in layer intercept
I0506 06:39:00.414707 20101 net.cpp:323] The NetState phase (0) differed from the phase (1) specified by a rule in layer loss
I0506 06:39:00.414788 20101 net.cpp:52] Initializing net from parameters: 
state {
  phase: TRAIN
}
layer {
  name: "parameters"
  type: "HDF5Data"
  top: "data"
  top: "label"
  include {
    phase: TRAIN
  }
  hdf5_data_param {
    source: "/home/purduethu/scratch/radon/d/deng106/CNNStatisticalModel/distributions/input/50_distributions_100_sample_size_train-parameters-path.txt"
    batch_size: 20
  }
}
layer {
  name: "conv1"
  type: "Convolution"
  bottom: "data"
  top: "conv1"
  param {
    lr_mult: 1
  }
  param {
    lr_mult: 2
  }
  convolution_param {
    num_output: 64
    pad: 2
    kernel_size: 5
    stride: 1
    weight_filler {
      type: "gaussian"
      std: 0.0001
    }
    bias_filler {
      type: "constant"
    }
  }
}
layer {
  name: "relu1"
  type: "ReLU"
  bottom: "conv1"
  top: "conv1"
}
layer {
  name: "conv2"
  type: "Convolution"
  bottom: "conv1"
  top: "conv2"
  param {
    lr_mult: 1
  }
  param {
    lr_mult: 2
  }
  convolution_param {
    num_output: 64
    pad: 2
    kernel_size: 5
    stride: 1
    weight_filler {
      type: "gaussian"
      std: 0.01
    }
    bias_filler {
      type: "constant"
    }
  }
}
layer {
  name: "relu2"
  type: "ReLU"
  bottom: "conv2"
  top: "conv2"
}
layer {
  name: "pool2"
  type: "Pooling"
  bottom: "conv2"
  top: "pool2"
  pooling_param {
    pool: MAX
    kernel_size: 3
    stride: 2
  }
}
layer {
  name: "conv3"
  type: "Convolution"
  bottom: "pool2"
  top: "conv3"
  param {
    lr_mult: 1
  }
  param {
    lr_mult: 2
  }
  convolution_param {
    num_output: 128
    pad: 2
    kernel_size: 5
    stride: 1
    weight_filler {
      type: "gaussian"
      std: 0.01
    }
    bias_filler {
      type: "constant"
    }
  }
}
layer {
  name: "relu3"
  type: "ReLU"
  bottom: "conv3"
  top: "conv3"
}
layer {
  name: "conv4"
  type: "Convolution"
  bottom: "conv3"
  top: "conv4"
  param {
    lr_mult: 1
  }
  param {
    lr_mult: 2
  }
  convolution_param {
    num_output: 128
    pad: 2
    kernel_size: 5
    stride: 1
    weight_filler {
      type: "gaussian"
      std: 0.01
    }
    bias_filler {
      type: "constant"
    }
  }
}
layer {
  name: "relu4"
  type: "ReLU"
  bottom: "conv4"
  top: "conv4"
}
layer {
  name: "conv5"
  type: "Convolution"
  bottom: "conv4"
  top: "conv5"
  param {
    lr_mult: 1
  }
  param {
    lr_mult: 2
  }
  convolution_param {
    num_output: 128
    pad: 2
    kernel_size: 5
    stride: 1
    weight_filler {
      type: "gaussian"
      std: 0.01
    }
    bias_filler {
      type: "constant"
    }
  }
}
layer {
  name: "relu5"
  type: "ReLU"
  bottom: "conv5"
  top: "conv5"
}
layer {
  name: "pool5"
  type: "Pooling"
  bottom: "conv5"
  top: "pool5"
  pooling_param {
    pool: AVE
    kernel_size: 3
    stride: 2
  }
}
layer {
  name: "ip1"
  type: "InnerProduct"
  bottom: "pool5"
  top: "ip1"
  param {
    lr_mult: 1
  }
  param {
    lr_mult: 2
  }
  inner_product_param {
    num_output: 1024
    weight_filler {
      type: "gaussian"
      std: 0.1
    }
    bias_filler {
      type: "constant"
    }
  }
}
layer {
  name: "ip2"
  type: "InnerProduct"
  bottom: "ip1"
  top: "ip2"
  param {
    lr_mult: 1
  }
  param {
    lr_mult: 2
  }
  inner_product_param {
    num_output: 512
    weight_filler {
      type: "gaussian"
      std: 0.1
    }
    bias_filler {
      type: "constant"
    }
  }
}
layer {
  name: "ip3"
  type: "InnerProduct"
  bottom: "ip2"
  top: "ip3"
  param {
    lr_mult: 1
  }
  param {
    lr_mult: 2
  }
  inner_product_param {
    num_output: 1
    weight_filler {
      type: "gaussian"
      std: 0.1
    }
    bias_filler {
      type: "constant"
    }
  }
}
layer {
  name: "loss"
  type: "HuberLoss"
  bottom: "ip3"
  bottom: "label"
  top: "loss"
  include {
    phase: TRAIN
  }
}
I0506 06:39:00.414844 20101 layer_factory.hpp:77] Creating layer parameters
I0506 06:39:00.414860 20101 net.cpp:94] Creating Layer parameters
I0506 06:39:00.414865 20101 net.cpp:409] parameters -> data
I0506 06:39:00.414877 20101 net.cpp:409] parameters -> label
I0506 06:39:00.414885 20101 hdf5_data_layer.cpp:79] Loading list of HDF5 filenames from: /home/purduethu/scratch/radon/d/deng106/CNNStatisticalModel/distributions/input/50_distributions_100_sample_size_train-parameters-path.txt
I0506 06:39:00.414898 20101 hdf5_data_layer.cpp:93] Number of HDF5 files: 1
I0506 06:39:00.415464 20101 hdf5.cpp:32] Datatype class: H5T_FLOAT
I0506 06:39:00.580891 20101 net.cpp:144] Setting up parameters
I0506 06:39:00.580922 20101 net.cpp:151] Top shape: 20 1 10 10 (2000)
I0506 06:39:00.580929 20101 net.cpp:151] Top shape: 20 (20)
I0506 06:39:00.580931 20101 net.cpp:159] Memory required for data: 8080
I0506 06:39:00.580938 20101 layer_factory.hpp:77] Creating layer conv1
I0506 06:39:00.580953 20101 net.cpp:94] Creating Layer conv1
I0506 06:39:00.580957 20101 net.cpp:435] conv1 <- data
I0506 06:39:00.580965 20101 net.cpp:409] conv1 -> conv1
I0506 06:39:00.585203 20101 net.cpp:144] Setting up conv1
I0506 06:39:00.585222 20101 net.cpp:151] Top shape: 20 64 10 10 (128000)
I0506 06:39:00.585225 20101 net.cpp:159] Memory required for data: 520080
I0506 06:39:00.585235 20101 layer_factory.hpp:77] Creating layer relu1
I0506 06:39:00.585243 20101 net.cpp:94] Creating Layer relu1
I0506 06:39:00.585247 20101 net.cpp:435] relu1 <- conv1
I0506 06:39:00.585253 20101 net.cpp:396] relu1 -> conv1 (in-place)
I0506 06:39:00.585260 20101 net.cpp:144] Setting up relu1
I0506 06:39:00.585264 20101 net.cpp:151] Top shape: 20 64 10 10 (128000)
I0506 06:39:00.585268 20101 net.cpp:159] Memory required for data: 1032080
I0506 06:39:00.585270 20101 layer_factory.hpp:77] Creating layer conv2
I0506 06:39:00.585278 20101 net.cpp:94] Creating Layer conv2
I0506 06:39:00.585281 20101 net.cpp:435] conv2 <- conv1
I0506 06:39:00.585286 20101 net.cpp:409] conv2 -> conv2
I0506 06:39:00.591377 20101 net.cpp:144] Setting up conv2
I0506 06:39:00.591392 20101 net.cpp:151] Top shape: 20 64 10 10 (128000)
I0506 06:39:00.591397 20101 net.cpp:159] Memory required for data: 1544080
I0506 06:39:00.591404 20101 layer_factory.hpp:77] Creating layer relu2
I0506 06:39:00.591411 20101 net.cpp:94] Creating Layer relu2
I0506 06:39:00.591414 20101 net.cpp:435] relu2 <- conv2
I0506 06:39:00.591419 20101 net.cpp:396] relu2 -> conv2 (in-place)
I0506 06:39:00.591426 20101 net.cpp:144] Setting up relu2
I0506 06:39:00.591430 20101 net.cpp:151] Top shape: 20 64 10 10 (128000)
I0506 06:39:00.591434 20101 net.cpp:159] Memory required for data: 2056080
I0506 06:39:00.591436 20101 layer_factory.hpp:77] Creating layer pool2
I0506 06:39:00.591441 20101 net.cpp:94] Creating Layer pool2
I0506 06:39:00.591444 20101 net.cpp:435] pool2 <- conv2
I0506 06:39:00.591449 20101 net.cpp:409] pool2 -> pool2
I0506 06:39:00.591500 20101 net.cpp:144] Setting up pool2
I0506 06:39:00.591507 20101 net.cpp:151] Top shape: 20 64 5 5 (32000)
I0506 06:39:00.591511 20101 net.cpp:159] Memory required for data: 2184080
I0506 06:39:00.591514 20101 layer_factory.hpp:77] Creating layer conv3
I0506 06:39:00.591522 20101 net.cpp:94] Creating Layer conv3
I0506 06:39:00.591532 20101 net.cpp:435] conv3 <- pool2
I0506 06:39:00.591537 20101 net.cpp:409] conv3 -> conv3
I0506 06:39:00.599772 20101 net.cpp:144] Setting up conv3
I0506 06:39:00.599792 20101 net.cpp:151] Top shape: 20 128 5 5 (64000)
I0506 06:39:00.599795 20101 net.cpp:159] Memory required for data: 2440080
I0506 06:39:00.599804 20101 layer_factory.hpp:77] Creating layer relu3
I0506 06:39:00.599812 20101 net.cpp:94] Creating Layer relu3
I0506 06:39:00.599815 20101 net.cpp:435] relu3 <- conv3
I0506 06:39:00.599819 20101 net.cpp:396] relu3 -> conv3 (in-place)
I0506 06:39:00.599827 20101 net.cpp:144] Setting up relu3
I0506 06:39:00.599830 20101 net.cpp:151] Top shape: 20 128 5 5 (64000)
I0506 06:39:00.599833 20101 net.cpp:159] Memory required for data: 2696080
I0506 06:39:00.599836 20101 layer_factory.hpp:77] Creating layer conv4
I0506 06:39:00.599845 20101 net.cpp:94] Creating Layer conv4
I0506 06:39:00.599848 20101 net.cpp:435] conv4 <- conv3
I0506 06:39:00.599853 20101 net.cpp:409] conv4 -> conv4
I0506 06:39:00.615006 20101 net.cpp:144] Setting up conv4
I0506 06:39:00.615031 20101 net.cpp:151] Top shape: 20 128 5 5 (64000)
I0506 06:39:00.615036 20101 net.cpp:159] Memory required for data: 2952080
I0506 06:39:00.615043 20101 layer_factory.hpp:77] Creating layer relu4
I0506 06:39:00.615051 20101 net.cpp:94] Creating Layer relu4
I0506 06:39:00.615054 20101 net.cpp:435] relu4 <- conv4
I0506 06:39:00.615059 20101 net.cpp:396] relu4 -> conv4 (in-place)
I0506 06:39:00.615067 20101 net.cpp:144] Setting up relu4
I0506 06:39:00.615072 20101 net.cpp:151] Top shape: 20 128 5 5 (64000)
I0506 06:39:00.615074 20101 net.cpp:159] Memory required for data: 3208080
I0506 06:39:00.615077 20101 layer_factory.hpp:77] Creating layer conv5
I0506 06:39:00.615085 20101 net.cpp:94] Creating Layer conv5
I0506 06:39:00.615088 20101 net.cpp:435] conv5 <- conv4
I0506 06:39:00.615093 20101 net.cpp:409] conv5 -> conv5
I0506 06:39:00.629832 20101 net.cpp:144] Setting up conv5
I0506 06:39:00.629855 20101 net.cpp:151] Top shape: 20 128 5 5 (64000)
I0506 06:39:00.629859 20101 net.cpp:159] Memory required for data: 3464080
I0506 06:39:00.629875 20101 layer_factory.hpp:77] Creating layer relu5
I0506 06:39:00.629884 20101 net.cpp:94] Creating Layer relu5
I0506 06:39:00.629889 20101 net.cpp:435] relu5 <- conv5
I0506 06:39:00.629892 20101 net.cpp:396] relu5 -> conv5 (in-place)
I0506 06:39:00.629900 20101 net.cpp:144] Setting up relu5
I0506 06:39:00.629904 20101 net.cpp:151] Top shape: 20 128 5 5 (64000)
I0506 06:39:00.629907 20101 net.cpp:159] Memory required for data: 3720080
I0506 06:39:00.629910 20101 layer_factory.hpp:77] Creating layer pool5
I0506 06:39:00.629915 20101 net.cpp:94] Creating Layer pool5
I0506 06:39:00.629918 20101 net.cpp:435] pool5 <- conv5
I0506 06:39:00.629923 20101 net.cpp:409] pool5 -> pool5
I0506 06:39:00.629971 20101 net.cpp:144] Setting up pool5
I0506 06:39:00.629979 20101 net.cpp:151] Top shape: 20 128 2 2 (10240)
I0506 06:39:00.629982 20101 net.cpp:159] Memory required for data: 3761040
I0506 06:39:00.629986 20101 layer_factory.hpp:77] Creating layer ip1
I0506 06:39:00.629997 20101 net.cpp:94] Creating Layer ip1
I0506 06:39:00.629999 20101 net.cpp:435] ip1 <- pool5
I0506 06:39:00.630004 20101 net.cpp:409] ip1 -> ip1
I0506 06:39:00.644292 20101 net.cpp:144] Setting up ip1
I0506 06:39:00.644317 20101 net.cpp:151] Top shape: 20 1024 (20480)
I0506 06:39:00.644322 20101 net.cpp:159] Memory required for data: 3842960
I0506 06:39:00.644330 20101 layer_factory.hpp:77] Creating layer ip2
I0506 06:39:00.644340 20101 net.cpp:94] Creating Layer ip2
I0506 06:39:00.644345 20101 net.cpp:435] ip2 <- ip1
I0506 06:39:00.644351 20101 net.cpp:409] ip2 -> ip2
I0506 06:39:00.657694 20101 net.cpp:144] Setting up ip2
I0506 06:39:00.657721 20101 net.cpp:151] Top shape: 20 512 (10240)
I0506 06:39:00.657724 20101 net.cpp:159] Memory required for data: 3883920
I0506 06:39:00.657732 20101 layer_factory.hpp:77] Creating layer ip3
I0506 06:39:00.657740 20101 net.cpp:94] Creating Layer ip3
I0506 06:39:00.657744 20101 net.cpp:435] ip3 <- ip2
I0506 06:39:00.657757 20101 net.cpp:409] ip3 -> ip3
I0506 06:39:00.657876 20101 net.cpp:144] Setting up ip3
I0506 06:39:00.657884 20101 net.cpp:151] Top shape: 20 1 (20)
I0506 06:39:00.657887 20101 net.cpp:159] Memory required for data: 3884000
I0506 06:39:00.657892 20101 layer_factory.hpp:77] Creating layer loss
I0506 06:39:00.657907 20101 net.cpp:94] Creating Layer loss
I0506 06:39:00.657912 20101 net.cpp:435] loss <- ip3
I0506 06:39:00.657915 20101 net.cpp:435] loss <- label
I0506 06:39:00.657919 20101 net.cpp:409] loss -> loss
I0506 06:39:00.657971 20101 net.cpp:144] Setting up loss
…
I0506 06:39:00.767369 20101 net.cpp:323] The NetState phase (0) differed from the phase (1) specified by a rule in layer intercept
I0506 06:39:00.767385 20101 net.cpp:323] The NetState phase (0) differed from the phase (1) specified by a rule in layer accuracy
I0506 06:39:00.767473 20101 net.cpp:52] Initializing net from parameters: 
state {
  phase: TRAIN
}
layer {
  name: "parameters"
  type: "HDF5Data"
  top: "data"
  top: "label"
  include {
    phase: TRAIN
  }
  hdf5_data_param {
    source: "/home/purduethu/scratch/radon/d/deng106/CNNStatisticalModel/distributions/input/50_distributions_100_sample_size_train-distributions-path.txt"
    batch_size: 20
  }
}
layer {
  name: "conv1"
  type: "Convolution"
  bottom: "data"
  top: "conv1"
  param {
    lr_mult: 1
  }
  param {
    lr_mult: 2
  }
  convolution_param {
    num_output: 64
    pad: 2
    kernel_size: 5
    stride: 1
    weight_filler {
      type: "gaussian"
      std: 0.0001
    }
    bias_filler {
      type: "constant"
    }
  }
}
layer {
  name: "relu1"
  type: "ReLU"
  bottom: "conv1"
  top: "conv1"
}
layer {
  name: "conv2"
  type: "Convolution"
  bottom: "conv1"
  top: "conv2"
  param {
    lr_mult: 1
  }
  param {
    lr_mult: 2
  }
  convolution_param {
    num_output: 64
    pad: 2
    kernel_size: 5
    stride: 1
    weight_filler {
      type: "gaussian"
      std: 0.01
    }
    bias_filler {
      type: "constant"
    }
  }
}
layer {
  name: "relu2"
  type: "ReLU"
  bottom: "conv2"
  top: "conv2"
}
layer {
  name: "pool2"
  type: "Pooling"
  bottom: "conv2"
  top: "pool2"
  pooling_param {
    pool: MAX
    kernel_size: 3
    stride: 2
  }
}
layer {
  name: "conv3"
  type: "Convolution"
  bottom: "pool2"
  top: "conv3"
  param {
    lr_mult: 1
  }
  param {
    lr_mult: 2
  }
  convolution_param {
    num_output: 128
    pad: 2
    kernel_size: 5
    stride: 1
    weight_filler {
      type: "gaussian"
      std: 0.01
    }
    bias_filler {
      type: "constant"
    }
  }
}
layer {
  name: "relu3"
  type: "ReLU"
  bottom: "conv3"
  top: "conv3"
}
layer {
  name: "conv4"
  type: "Convolution"
  bottom: "conv3"
  top: "conv4"
  param {
    lr_mult: 1
  }
  param {
    lr_mult: 2
  }
  convolution_param {
    num_output: 128
    pad: 2
    kernel_size: 5
    stride: 1
    weight_filler {
      type: "gaussian"
      std: 0.01
    }
    bias_filler {
      type: "constant"
    }
  }
}
layer {
  name: "relu4"
  type: "ReLU"
  bottom: "conv4"
  top: "conv4"
}
layer {
  name: "conv5"
  type: "Convolution"
  bottom: "conv4"
  top: "conv5"
  param {
    lr_mult: 1
  }
  param {
    lr_mult: 2
  }
  convolution_param {
    num_output: 128
    pad: 2
    kernel_size: 5
    stride: 1
    weight_filler {
      type: "gaussian"
      std: 0.01
    }
    bias_filler {
      type: "constant"
    }
  }
}
layer {
  name: "relu5"
  type: "ReLU"
  bottom: "conv5"
  top: "conv5"
}
layer {
  name: "pool5"
  type: "Pooling"
  bottom: "conv5"
  top: "pool5"
  pooling_param {
    pool: AVE
    kernel_size: 3
    stride: 2
  }
}
layer {
  name: "ip1"
  type: "InnerProduct"
  bottom: "pool5"
  top: "ip1"
  param {
    lr_mult: 1
  }
  param {
    lr_mult: 2
  }
  inner_product_param {
    num_output: 1024
    weight_filler {
      type: "gaussian"
      std: 0.1
    }
    bias_filler {
      type: "constant"
    }
  }
}
layer {
  name: "ip2"
  type: "InnerProduct"
  bottom: "ip1"
  top: "ip2"
  param {
    lr_mult: 1
  }
  param {
    lr_mult: 2
  }
  inner_product_param {
    num_output: 512
    weight_filler {
      type: "gaussian"
      std: 0.1
    }
    bias_filler {
      type: "constant"
    }
  }
}
layer {
  name: "ip3"
  type: "InnerProduct"
  bottom: "ip2"
  top: "ip3"
  param {
    lr_mult: 1
  }
  param {
    lr_mult: 2
  }
  inner_product_param {
    num_output: 50
    weight_filler {
      type: "gaussian"
      std: 0.1
    }
    bias_filler {
      type: "constant"
    }
  }
}
layer {
  name: "loss"
  type: "SoftmaxWithLoss"
  bottom: "ip3"
  bottom: "label"
  top: "loss"
}
I0506 06:39:00.767525 20101 layer_factory.hpp:77] Creating layer parameters
I0506 06:39:00.767534 20101 net.cpp:94] Creating Layer parameters
I0506 06:39:00.767539 20101 net.cpp:409] parameters -> data
I0506 06:39:00.767544 20101 net.cpp:409] parameters -> label
I0506 06:39:00.767550 20101 hdf5_data_layer.cpp:79] Loading list of HDF5 filenames from: /home/purduethu/scratch/radon/d/deng106/CNNStatisticalModel/distributions/input/50_distributions_100_sample_size_train-distributions-path.txt
I0506 06:39:00.767568 20101 hdf5_data_layer.cpp:93] Number of HDF5 files: 1
I0506 06:39:00.927373 20101 hdf5.cpp:35] Datatype class: H5T_INTEGER
I0506 06:39:00.930490 20101 net.cpp:144] Setting up parameters
I0506 06:39:00.930518 20101 net.cpp:151] Top shape: 20 1 10 10 (2000)
I0506 06:39:00.930523 20101 net.cpp:151] Top shape: 20 (20)
I0506 06:39:00.930527 20101 net.cpp:159] Memory required for data: 8080
I0506 06:39:00.930533 20101 layer_factory.hpp:77] Creating layer conv1
I0506 06:39:00.930550 20101 net.cpp:94] Creating Layer conv1
I0506 06:39:00.930554 20101 net.cpp:435] conv1 <- data
I0506 06:39:00.930560 20101 net.cpp:409] conv1 -> conv1
I0506 06:39:00.932380 20101 net.cpp:144] Setting up conv1
I0506 06:39:00.932394 20101 net.cpp:151] Top shape: 20 64 10 10 (128000)
I0506 06:39:00.932399 20101 net.cpp:159] Memory required for data: 520080
I0506 06:39:00.932407 20101 layer_factory.hpp:77] Creating layer relu1
I0506 06:39:00.932415 20101 net.cpp:94] Creating Layer relu1
I0506 06:39:00.932418 20101 net.cpp:435] relu1 <- conv1
I0506 06:39:00.932422 20101 net.cpp:396] relu1 -> conv1 (in-place)
I0506 06:39:00.932430 20101 net.cpp:144] Setting up relu1
I0506 06:39:00.932435 20101 net.cpp:151] Top shape: 20 64 10 10 (128000)
I0506 06:39:00.932437 20101 net.cpp:159] Memory required for data: 1032080
I0506 06:39:00.932440 20101 layer_factory.hpp:77] Creating layer conv2
I0506 06:39:00.932447 20101 net.cpp:94] Creating Layer conv2
I0506 06:39:00.932451 20101 net.cpp:435] conv2 <- conv1
I0506 06:39:00.932454 20101 net.cpp:409] conv2 -> conv2
I0506 06:39:00.937888 20101 net.cpp:144] Setting up conv2
I0506 06:39:00.937906 20101 net.cpp:151] Top shape: 20 64 10 10 (128000)
I0506 06:39:00.937909 20101 net.cpp:159] Memory required for data: 1544080
I0506 06:39:00.937918 20101 layer_factory.hpp:77] Creating layer relu2
I0506 06:39:00.937925 20101 net.cpp:94] Creating Layer relu2
I0506 06:39:00.937929 20101 net.cpp:435] relu2 <- conv2
I0506 06:39:00.937934 20101 net.cpp:396] relu2 -> conv2 (in-place)
I0506 06:39:00.937942 20101 net.cpp:144] Setting up relu2
I0506 06:39:00.937945 20101 net.cpp:151] Top shape: 20 64 10 10 (128000)
I0506 06:39:00.937947 20101 net.cpp:159] Memory required for data: 2056080
I0506 06:39:00.937950 20101 layer_factory.hpp:77] Creating layer pool2
I0506 06:39:00.937957 20101 net.cpp:94] Creating Layer pool2
I0506 06:39:00.937959 20101 net.cpp:435] pool2 <- conv2
I0506 06:39:00.937963 20101 net.cpp:409] pool2 -> pool2
I0506 06:39:00.938019 20101 net.cpp:144] Setting up pool2
I0506 06:39:00.938025 20101 net.cpp:151] Top shape: 20 64 5 5 (32000)
I0506 06:39:00.938030 20101 net.cpp:159] Memory required for data: 2184080
I0506 06:39:00.938032 20101 layer_factory.hpp:77] Creating layer conv3
I0506 06:39:00.938040 20101 net.cpp:94] Creating Layer conv3
I0506 06:39:00.938043 20101 net.cpp:435] conv3 <- pool2
I0506 06:39:00.938047 20101 net.cpp:409] conv3 -> conv3
I0506 06:39:00.946813 20101 net.cpp:144] Setting up conv3
I0506 06:39:00.946833 20101 net.cpp:151] Top shape: 20 128 5 5 (64000)
I0506 06:39:00.946837 20101 net.cpp:159] Memory required for data: 2440080
I0506 06:39:00.946846 20101 layer_factory.hpp:77] Creating layer relu3
I0506 06:39:00.946853 20101 net.cpp:94] Creating Layer relu3
I0506 06:39:00.946856 20101 net.cpp:435] relu3 <- conv3
I0506 06:39:00.946861 20101 net.cpp:396] relu3 -> conv3 (in-place)
I0506 06:39:00.946874 20101 net.cpp:144] Setting up relu3
I0506 06:39:00.946879 20101 net.cpp:151] Top shape: 20 128 5 5 (64000)
I0506 06:39:00.946882 20101 net.cpp:159] Memory required for data: 2696080
I0506 06:39:00.946885 20101 layer_factory.hpp:77] Creating layer conv4
I0506 06:39:00.946894 20101 net.cpp:94] Creating Layer conv4
I0506 06:39:00.946898 20101 net.cpp:435] conv4 <- conv3
I0506 06:39:00.946902 20101 net.cpp:409] conv4 -> conv4
I0506 06:39:00.961742 20101 net.cpp:144] Setting up conv4
I0506 06:39:00.961766 20101 net.cpp:151] Top shape: 20 128 5 5 (64000)
I0506 06:39:00.961769 20101 net.cpp:159] Memory required for data: 2952080
I0506 06:39:00.961777 20101 layer_factory.hpp:77] Creating layer relu4
I0506 06:39:00.961786 20101 net.cpp:94] Creating Layer relu4
I0506 06:39:00.961789 20101 net.cpp:435] relu4 <- conv4
I0506 06:39:00.961794 20101 net.cpp:396] relu4 -> conv4 (in-place)
I0506 06:39:00.961802 20101 net.cpp:144] Setting up relu4
I0506 06:39:00.961805 20101 net.cpp:151] Top shape: 20 128 5 5 (64000)
I0506 06:39:00.961808 20101 net.cpp:159] Memory required for data: 3208080
I0506 06:39:00.961812 20101 layer_factory.hpp:77] Creating layer conv5
I0506 06:39:00.961819 20101 net.cpp:94] Creating Layer conv5
I0506 06:39:00.961823 20101 net.cpp:435] conv5 <- conv4
I0506 06:39:00.961827 20101 net.cpp:409] conv5 -> conv5
I0506 06:39:00.977241 20101 net.cpp:144] Setting up conv5
I0506 06:39:00.977264 20101 net.cpp:151] Top shape: 20 128 5 5 (64000)
I0506 06:39:00.977268 20101 net.cpp:159] Memory required for data: 3464080
I0506 06:39:00.977278 20101 layer_factory.hpp:77] Creating layer relu5
I0506 06:39:00.977288 20101 net.cpp:94] Creating Layer relu5
I0506 06:39:00.977291 20101 net.cpp:435] relu5 <- conv5
I0506 06:39:00.977296 20101 net.cpp:396] relu5 -> conv5 (in-place)
I0506 06:39:00.977304 20101 net.cpp:144] Setting up relu5
I0506 06:39:00.977309 20101 net.cpp:151] Top shape: 20 128 5 5 (64000)
I0506 06:39:00.977311 20101 net.cpp:159] Memory required for data: 3720080
I0506 06:39:00.977315 20101 layer_factory.hpp:77] Creating layer pool5
I0506 06:39:00.977321 20101 net.cpp:94] Creating Layer pool5
I0506 06:39:00.977324 20101 net.cpp:435] pool5 <- conv5
I0506 06:39:00.977329 20101 net.cpp:409] pool5 -> pool5
I0506 06:39:00.977371 20101 net.cpp:144] Setting up pool5
I0506 06:39:00.977380 20101 net.cpp:151] Top shape: 20 128 2 2 (10240)
I0506 06:39:00.977382 20101 net.cpp:159] Memory required for data: 3761040
I0506 06:39:00.977385 20101 layer_factory.hpp:77] Creating layer ip1
I0506 06:39:00.977392 20101 net.cpp:94] Creating Layer ip1
I0506 06:39:00.977396 20101 net.cpp:435] ip1 <- pool5
I0506 06:39:00.977401 20101 net.cpp:409] ip1 -> ip1
I0506 06:39:00.990803 20101 net.cpp:144] Setting up ip1
I0506 06:39:00.990829 20101 net.cpp:151] Top shape: 20 1024 (20480)
I0506 06:39:00.990834 20101 net.cpp:159] Memory required for data: 3842960
I0506 06:39:00.990841 20101 layer_factory.hpp:77] Creating layer ip2
I0506 06:39:00.990850 20101 net.cpp:94] Creating Layer ip2
I0506 06:39:00.990854 20101 net.cpp:435] ip2 <- ip1
I0506 06:39:00.990860 20101 net.cpp:409] ip2 -> ip2
I0506 06:39:01.004339 20101 net.cpp:144] Setting up ip2
I0506 06:39:01.004364 20101 net.cpp:151] Top shape: 20 512 (10240)
I0506 06:39:01.004369 20101 net.cpp:159] Memory required for data: 3883920
I0506 06:39:01.004375 20101 layer_factory.hpp:77] Creating layer ip3
I0506 06:39:01.004384 20101 net.cpp:94] Creating Layer ip3
I0506 06:39:01.004390 20101 net.cpp:435] ip3 <- ip2
I0506 06:39:01.004395 20101 net.cpp:409] ip3 -> ip3
I0506 06:39:01.006088 20101 net.cpp:144] Setting up ip3
I0506 06:39:01.006106 20101 net.cpp:151] Top shape: 20 50 (1000)
I0506 06:39:01.006110 20101 net.cpp:159] Memory required for data: 3887920
I0506 06:39:01.006117 20101 layer_factory.hpp:77] Creating layer loss
I0506 06:39:01.006129 20101 net.cpp:94] Creating Layer loss
I0506 06:39:01.006131 20101 net.cpp:435] loss <- ip3
I0506 06:39:01.006136 20101 net.cpp:435] loss <- label
I0506 06:39:01.006140 20101 net.cpp:409] loss -> loss
I0506 06:39:01.006150 20101 layer_factory.hpp:77] Creating layer loss
…
I0506 06:39:01.006677 20101 solver.cpp:181] Creating test net (#0) specified by net file: ./protocol/dis_50_100_dimension.protocol_distribution
I0506 06:39:01.006705 20101 net.cpp:323] The NetState phase (1) differed from the phase (0) specified by a rule in layer parameters
I0506 06:39:01.006798 20101 net.cpp:52] Initializing net from parameters: 
state {
  phase: TEST
}
layer {
  name: "intercept"
  type: "HDF5Data"
  top: "data"
  top: "label"
  include {
    phase: TEST
  }
  hdf5_data_param {
    source: "/home/purduethu/scratch/radon/d/deng106/CNNStatisticalModel/distributions/input/50_distributions_100_sample_size_test-distributions-path.txt"
    batch_size: 20
  }
}
layer {
  name: "conv1"
  type: "Convolution"
  bottom: "data"
  top: "conv1"
  param {
    lr_mult: 1
  }
  param {
    lr_mult: 2
  }
  convolution_param {
    num_output: 64
    pad: 2
    kernel_size: 5
    stride: 1
    weight_filler {
      type: "gaussian"
      std: 0.0001
    }
    bias_filler {
      type: "constant"
    }
  }
}
layer {
  name: "relu1"
  type: "ReLU"
  bottom: "conv1"
  top: "conv1"
}
layer {
  name: "conv2"
  type: "Convolution"
  bottom: "conv1"
  top: "conv2"
  param {
    lr_mult: 1
  }
  param {
    lr_mult: 2
  }
  convolution_param {
    num_output: 64
    pad: 2
    kernel_size: 5
    stride: 1
    weight_filler {
      type: "gaussian"
      std: 0.01
    }
    bias_filler {
      type: "constant"
    }
  }
}
layer {
  name: "relu2"
  type: "ReLU"
  bottom: "conv2"
  top: "conv2"
}
layer {
  name: "pool2"
  type: "Pooling"
  bottom: "conv2"
  top: "pool2"
  pooling_param {
    pool: MAX
    kernel_size: 3
    stride: 2
  }
}
layer {
  name: "conv3"
  type: "Convolution"
  bottom: "pool2"
  top: "conv3"
  param {
    lr_mult: 1
  }
  param {
    lr_mult: 2
  }
  convolution_param {
    num_output: 128
    pad: 2
    kernel_size: 5
    stride: 1
    weight_filler {
      type: "gaussian"
      std: 0.01
    }
    bias_filler {
      type: "constant"
    }
  }
}
layer {
  name: "relu3"
  type: "ReLU"
  bottom: "conv3"
  top: "conv3"
}
layer {
  name: "conv4"
  type: "Convolution"
  bottom: "conv3"
  top: "conv4"
  param {
    lr_mult: 1
  }
  param {
    lr_mult: 2
  }
  convolution_param {
    num_output: 128
    pad: 2
    kernel_size: 5
    stride: 1
    weight_filler {
      type: "gaussian"
      std: 0.01
    }
    bias_filler {
      type: "constant"
    }
  }
}
layer {
  name: "relu4"
  type: "ReLU"
  bottom: "conv4"
  top: "conv4"
}
layer {
  name: "conv5"
  type: "Convolution"
  bottom: "conv4"
  top: "conv5"
  param {
    lr_mult: 1
  }
  param {
    lr_mult: 2
  }
  convolution_param {
    num_output: 128
    pad: 2
    kernel_size: 5
    stride: 1
    weight_filler {
      type: "gaussian"
      std: 0.01
    }
    bias_filler {
      type: "constant"
    }
  }
}
layer {
  name: "relu5"
  type: "ReLU"
  bottom: "conv5"
  top: "conv5"
}
layer {
  name: "pool5"
  type: "Pooling"
  bottom: "conv5"
  top: "pool5"
  pooling_param {
    pool: AVE
    kernel_size: 3
    stride: 2
  }
}
layer {
  name: "ip1"
  type: "InnerProduct"
  bottom: "pool5"
  top: "ip1"
  param {
    lr_mult: 1
  }
  param {
    lr_mult: 2
  }
  inner_product_param {
    num_output: 1024
    weight_filler {
      type: "gaussian"
      std: 0.1
    }
    bias_filler {
      type: "constant"
    }
  }
}
layer {
  name: "ip2"
  type: "InnerProduct"
  bottom: "ip1"
  top: "ip2"
  param {
    lr_mult: 1
  }
  param {
    lr_mult: 2
  }
  inner_product_param {
    num_output: 512
    weight_filler {
      type: "gaussian"
      std: 0.1
    }
    bias_filler {
      type: "constant"
    }
  }
}
layer {
  name: "ip3"
  type: "InnerProduct"
  bottom: "ip2"
  top: "ip3"
  param {
    lr_mult: 1
  }
  param {
    lr_mult: 2
  }
  inner_product_param {
    num_output: 50
    weight_filler {
      type: "gaussian"
      std: 0.1
    }
    bias_filler {
      type: "constant"
    }
  }
}
layer {
  name: "accuracy"
  type: "Accuracy"
  bottom: "ip3"
  bottom: "label"
  top: "accuracy"
  include {
    phase: TEST
  }
}
layer {
  name: "loss"
  type: "SoftmaxWithLoss"
  bottom: "ip3"
  bottom: "label"
  top: "loss"
}
I0506 06:39:01.006860 20101 layer_factory.hpp:77] Creating layer intercept
I0506 06:39:01.006868 20101 net.cpp:94] Creating Layer intercept
I0506 06:39:01.006872 20101 net.cpp:409] intercept -> data
I0506 06:39:01.006880 20101 net.cpp:409] intercept -> label
I0506 06:39:01.006884 20101 hdf5_data_layer.cpp:79] Loading list of HDF5 filenames from: /home/purduethu/scratch/radon/d/deng106/CNNStatisticalModel/distributions/input/50_distributions_100_sample_size_test-distributions-path.txt
I0506 06:39:01.006904 20101 hdf5_data_layer.cpp:93] Number of HDF5 files: 1
I0506 06:39:01.048753 20101 net.cpp:144] Setting up intercept
I0506 06:39:01.048789 20101 net.cpp:151] Top shape: 20 1 10 10 (2000)
I0506 06:39:01.048794 20101 net.cpp:151] Top shape: 20 (20)
I0506 06:39:01.048799 20101 net.cpp:159] Memory required for data: 8080
I0506 06:39:01.048804 20101 layer_factory.hpp:77] Creating layer label_intercept_1_split
I0506 06:39:01.048825 20101 net.cpp:94] Creating Layer label_intercept_1_split
I0506 06:39:01.048830 20101 net.cpp:435] label_intercept_1_split <- label
I0506 06:39:01.048836 20101 net.cpp:409] label_intercept_1_split -> label_intercept_1_split_0
I0506 06:39:01.048846 20101 net.cpp:409] label_intercept_1_split -> label_intercept_1_split_1
I0506 06:39:01.048887 20101 net.cpp:144] Setting up label_intercept_1_split
I0506 06:39:01.048894 20101 net.cpp:151] Top shape: 20 (20)
I0506 06:39:01.048897 20101 net.cpp:151] Top shape: 20 (20)
I0506 06:39:01.048900 20101 net.cpp:159] Memory required for data: 8240
I0506 06:39:01.048903 20101 layer_factory.hpp:77] Creating layer conv1
I0506 06:39:01.048915 20101 net.cpp:94] Creating Layer conv1
I0506 06:39:01.048918 20101 net.cpp:435] conv1 <- data
I0506 06:39:01.048923 20101 net.cpp:409] conv1 -> conv1
I0506 06:39:01.049799 20101 net.cpp:144] Setting up conv1
I0506 06:39:01.049814 20101 net.cpp:151] Top shape: 20 64 10 10 (128000)
I0506 06:39:01.049818 20101 net.cpp:159] Memory required for data: 520240
I0506 06:39:01.049827 20101 layer_factory.hpp:77] Creating layer relu1
I0506 06:39:01.049834 20101 net.cpp:94] Creating Layer relu1
I0506 06:39:01.049839 20101 net.cpp:435] relu1 <- conv1
I0506 06:39:01.049842 20101 net.cpp:396] relu1 -> conv1 (in-place)
I0506 06:39:01.049850 20101 net.cpp:144] Setting up relu1
I0506 06:39:01.049854 20101 net.cpp:151] Top shape: 20 64 10 10 (128000)
I0506 06:39:01.049865 20101 net.cpp:159] Memory required for data: 1032240
I0506 06:39:01.049867 20101 layer_factory.hpp:77] Creating layer conv2
I0506 06:39:01.049876 20101 net.cpp:94] Creating Layer conv2
I0506 06:39:01.049880 20101 net.cpp:435] conv2 <- conv1
I0506 06:39:01.049883 20101 net.cpp:409] conv2 -> conv2
I0506 06:39:01.053987 20101 net.cpp:144] Setting up conv2
I0506 06:39:01.054000 20101 net.cpp:151] Top shape: 20 64 10 10 (128000)
I0506 06:39:01.054004 20101 net.cpp:159] Memory required for data: 1544240
I0506 06:39:01.054013 20101 layer_factory.hpp:77] Creating layer relu2
I0506 06:39:01.054019 20101 net.cpp:94] Creating Layer relu2
I0506 06:39:01.054023 20101 net.cpp:435] relu2 <- conv2
I0506 06:39:01.054026 20101 net.cpp:396] relu2 -> conv2 (in-place)
I0506 06:39:01.054033 20101 net.cpp:144] Setting up relu2
I0506 06:39:01.054039 20101 net.cpp:151] Top shape: 20 64 10 10 (128000)
I0506 06:39:01.054041 20101 net.cpp:159] Memory required for data: 2056240
I0506 06:39:01.054044 20101 layer_factory.hpp:77] Creating layer pool2
I0506 06:39:01.054050 20101 net.cpp:94] Creating Layer pool2
I0506 06:39:01.054054 20101 net.cpp:435] pool2 <- conv2
I0506 06:39:01.054057 20101 net.cpp:409] pool2 -> pool2
I0506 06:39:01.054111 20101 net.cpp:144] Setting up pool2
I0506 06:39:01.054119 20101 net.cpp:151] Top shape: 20 64 5 5 (32000)
I0506 06:39:01.054122 20101 net.cpp:159] Memory required for data: 2184240
I0506 06:39:01.054126 20101 layer_factory.hpp:77] Creating layer conv3
I0506 06:39:01.054133 20101 net.cpp:94] Creating Layer conv3
I0506 06:39:01.054136 20101 net.cpp:435] conv3 <- pool2
I0506 06:39:01.054142 20101 net.cpp:409] conv3 -> conv3
I0506 06:39:01.060302 20101 net.cpp:144] Setting up conv3
I0506 06:39:01.060318 20101 net.cpp:151] Top shape: 20 128 5 5 (64000)
I0506 06:39:01.060322 20101 net.cpp:159] Memory required for data: 2440240
I0506 06:39:01.060329 20101 layer_factory.hpp:77] Creating layer relu3
I0506 06:39:01.060338 20101 net.cpp:94] Creating Layer relu3
I0506 06:39:01.060340 20101 net.cpp:435] relu3 <- conv3
I0506 06:39:01.060346 20101 net.cpp:396] relu3 -> conv3 (in-place)
I0506 06:39:01.060353 20101 net.cpp:144] Setting up relu3
I0506 06:39:01.060356 20101 net.cpp:151] Top shape: 20 128 5 5 (64000)
I0506 06:39:01.060359 20101 net.cpp:159] Memory required for data: 2696240
I0506 06:39:01.060362 20101 layer_factory.hpp:77] Creating layer conv4
I0506 06:39:01.060370 20101 net.cpp:94] Creating Layer conv4
I0506 06:39:01.060374 20101 net.cpp:435] conv4 <- conv3
I0506 06:39:01.060379 20101 net.cpp:409] conv4 -> conv4
I0506 06:39:01.073367 20101 net.cpp:144] Setting up conv4
I0506 06:39:01.073401 20101 net.cpp:151] Top shape: 20 128 5 5 (64000)
I0506 06:39:01.073408 20101 net.cpp:159] Memory required for data: 2952240
I0506 06:39:01.073421 20101 layer_factory.hpp:77] Creating layer relu4
I0506 06:39:01.073433 20101 net.cpp:94] Creating Layer relu4
I0506 06:39:01.073441 20101 net.cpp:435] relu4 <- conv4
I0506 06:39:01.073451 20101 net.cpp:396] relu4 -> conv4 (in-place)
I0506 06:39:01.073464 20101 net.cpp:144] Setting up relu4
I0506 06:39:01.073472 20101 net.cpp:151] Top shape: 20 128 5 5 (64000)
I0506 06:39:01.073477 20101 net.cpp:159] Memory required for data: 3208240
I0506 06:39:01.073483 20101 layer_factory.hpp:77] Creating layer conv5
I0506 06:39:01.073498 20101 net.cpp:94] Creating Layer conv5
I0506 06:39:01.073514 20101 net.cpp:435] conv5 <- conv4
I0506 06:39:01.073519 20101 net.cpp:409] conv5 -> conv5
I0506 06:39:01.086516 20101 net.cpp:144] Setting up conv5
I0506 06:39:01.086551 20101 net.cpp:151] Top shape: 20 128 5 5 (64000)
I0506 06:39:01.086558 20101 net.cpp:159] Memory required for data: 3464240
I0506 06:39:01.086577 20101 layer_factory.hpp:77] Creating layer relu5
I0506 06:39:01.086591 20101 net.cpp:94] Creating Layer relu5
I0506 06:39:01.086597 20101 net.cpp:435] relu5 <- conv5
I0506 06:39:01.086607 20101 net.cpp:396] relu5 -> conv5 (in-place)
I0506 06:39:01.086621 20101 net.cpp:144] Setting up relu5
I0506 06:39:01.086628 20101 net.cpp:151] Top shape: 20 128 5 5 (64000)
I0506 06:39:01.086642 20101 net.cpp:159] Memory required for data: 3720240
I0506 06:39:01.086648 20101 layer_factory.hpp:77] Creating layer pool5
I0506 06:39:01.086658 20101 net.cpp:94] Creating Layer pool5
I0506 06:39:01.086663 20101 net.cpp:435] pool5 <- conv5
I0506 06:39:01.086671 20101 net.cpp:409] pool5 -> pool5
I0506 06:39:01.086740 20101 net.cpp:144] Setting up pool5
I0506 06:39:01.086746 20101 net.cpp:151] Top shape: 20 128 2 2 (10240)
I0506 06:39:01.086750 20101 net.cpp:159] Memory required for data: 3761200
I0506 06:39:01.086752 20101 layer_factory.hpp:77] Creating layer ip1
I0506 06:39:01.086760 20101 net.cpp:94] Creating Layer ip1
I0506 06:39:01.086763 20101 net.cpp:435] ip1 <- pool5
I0506 06:39:01.086767 20101 net.cpp:409] ip1 -> ip1
I0506 06:39:01.100193 20101 net.cpp:144] Setting up ip1
I0506 06:39:01.100219 20101 net.cpp:151] Top shape: 20 1024 (20480)
I0506 06:39:01.100222 20101 net.cpp:159] Memory required for data: 3843120
I0506 06:39:01.100230 20101 layer_factory.hpp:77] Creating layer ip2
I0506 06:39:01.100239 20101 net.cpp:94] Creating Layer ip2
I0506 06:39:01.100244 20101 net.cpp:435] ip2 <- ip1
I0506 06:39:01.100250 20101 net.cpp:409] ip2 -> ip2
I0506 06:39:01.113715 20101 net.cpp:144] Setting up ip2
I0506 06:39:01.113740 20101 net.cpp:151] Top shape: 20 512 (10240)
I0506 06:39:01.113744 20101 net.cpp:159] Memory required for data: 3884080
I0506 06:39:01.113751 20101 layer_factory.hpp:77] Creating layer ip3
I0506 06:39:01.113765 20101 net.cpp:94] Creating Layer ip3
I0506 06:39:01.113770 20101 net.cpp:435] ip3 <- ip2
I0506 06:39:01.113776 20101 net.cpp:409] ip3 -> ip3
I0506 06:39:01.114533 20101 net.cpp:144] Setting up ip3
I0506 06:39:01.114542 20101 net.cpp:151] Top shape: 20 50 (1000)
I0506 06:39:01.114544 20101 net.cpp:159] Memory required for data: 3888080
I0506 06:39:01.114549 20101 layer_factory.hpp:77] Creating layer ip3_ip3_0_split
I0506 06:39:01.114557 20101 net.cpp:94] Creating Layer ip3_ip3_0_split
I0506 06:39:01.114559 20101 net.cpp:435] ip3_ip3_0_split <- ip3
I0506 06:39:01.114563 20101 net.cpp:409] ip3_ip3_0_split -> ip3_ip3_0_split_0
I0506 06:39:01.114568 20101 net.cpp:409] ip3_ip3_0_split -> ip3_ip3_0_split_1
I0506 06:39:01.114614 20101 net.cpp:144] Setting up ip3_ip3_0_split
I0506 06:39:01.114620 20101 net.cpp:151] Top shape: 20 50 (1000)
I0506 06:39:01.114624 20101 net.cpp:151] Top shape: 20 50 (1000)
I0506 06:39:01.114626 20101 net.cpp:159] Memory required for data: 3896080
I0506 06:39:01.114629 20101 layer_factory.hpp:77] Creating layer accuracy
I0506 06:39:01.114636 20101 net.cpp:94] Creating Layer accuracy
I0506 06:39:01.114640 20101 net.cpp:435] accuracy <- ip3_ip3_0_split_0
I0506 06:39:01.114644 20101 net.cpp:435] accuracy <- label_intercept_1_split_0
I0506 06:39:01.114648 20101 net.cpp:409] accuracy -> accuracy
…
