…
I0507 03:51:13.820137 31281 net.cpp:323] The NetState phase (0) differed from the phase (1) specified by a rule in layer intercept
I0507 03:51:13.820153 31281 net.cpp:323] The NetState phase (0) differed from the phase (1) specified by a rule in layer loss
I0507 03:51:13.820230 31281 net.cpp:52] Initializing net from parameters: 
state {
  phase: TRAIN
}
layer {
  name: "parameters"
  type: "HDF5Data"
  top: "data"
  top: "label"
  include {
    phase: TRAIN
  }
  hdf5_data_param {
    source: "/home/purduethu/scratch/radon/d/deng106/CNNStatisticalModel/distributions/input/50_distributions_100_sample_size_train-parameters-path.txt"
    batch_size: 20
  }
}
layer {
  name: "conv1"
  type: "Convolution"
  bottom: "data"
  top: "conv1"
  param {
    lr_mult: 1
  }
  param {
    lr_mult: 2
  }
  convolution_param {
    num_output: 64
    pad: 2
    kernel_size: 5
    stride: 1
    weight_filler {
      type: "gaussian"
      std: 0.0001
    }
    bias_filler {
      type: "constant"
    }
  }
}
layer {
  name: "relu1"
  type: "ReLU"
  bottom: "conv1"
  top: "conv1"
}
layer {
  name: "conv2"
  type: "Convolution"
  bottom: "conv1"
  top: "conv2"
  param {
    lr_mult: 1
  }
  param {
    lr_mult: 2
  }
  convolution_param {
    num_output: 64
    pad: 2
    kernel_size: 5
    stride: 1
    weight_filler {
      type: "gaussian"
      std: 0.01
    }
    bias_filler {
      type: "constant"
    }
  }
}
layer {
  name: "relu2"
  type: "ReLU"
  bottom: "conv2"
  top: "conv2"
}
layer {
  name: "pool2"
  type: "Pooling"
  bottom: "conv2"
  top: "pool2"
  pooling_param {
    pool: MAX
    kernel_size: 3
    stride: 2
  }
}
layer {
  name: "conv3"
  type: "Convolution"
  bottom: "pool2"
  top: "conv3"
  param {
    lr_mult: 1
  }
  param {
    lr_mult: 2
  }
  convolution_param {
    num_output: 64
    pad: 2
    kernel_size: 5
    stride: 1
    weight_filler {
      type: "gaussian"
      std: 0.01
    }
    bias_filler {
      type: "constant"
    }
  }
}
layer {
  name: "relu3"
  type: "ReLU"
  bottom: "conv3"
  top: "conv3"
}
layer {
  name: "conv4"
  type: "Convolution"
  bottom: "conv3"
  top: "conv4"
  param {
    lr_mult: 1
  }
  param {
    lr_mult: 2
  }
  convolution_param {
    num_output: 64
    pad: 2
    kernel_size: 5
    stride: 1
    weight_filler {
      type: "gaussian"
      std: 0.01
    }
    bias_filler {
      type: "constant"
    }
  }
}
layer {
  name: "relu4"
  type: "ReLU"
  bottom: "conv4"
  top: "conv4"
}
layer {
  name: "conv5"
  type: "Convolution"
  bottom: "conv4"
  top: "conv5"
  param {
    lr_mult: 1
  }
  param {
    lr_mult: 2
  }
  convolution_param {
    num_output: 64
    pad: 2
    kernel_size: 5
    stride: 1
    weight_filler {
      type: "gaussian"
      std: 0.01
    }
    bias_filler {
      type: "constant"
    }
  }
}
layer {
  name: "relu5"
  type: "ReLU"
  bottom: "conv5"
  top: "conv5"
}
layer {
  name: "pool5"
  type: "Pooling"
  bottom: "conv5"
  top: "pool5"
  pooling_param {
    pool: AVE
    kernel_size: 3
    stride: 2
  }
}
layer {
  name: "ip1"
  type: "InnerProduct"
  bottom: "pool5"
  top: "ip1"
  param {
    lr_mult: 1
  }
  param {
    lr_mult: 2
  }
  inner_product_param {
    num_output: 64
    weight_filler {
      type: "gaussian"
      std: 0.1
    }
    bias_filler {
      type: "constant"
    }
  }
}
layer {
  name: "ip2"
  type: "InnerProduct"
  bottom: "ip1"
  top: "ip2"
  param {
    lr_mult: 1
  }
  param {
    lr_mult: 2
  }
  inner_product_param {
    num_output: 64
    weight_filler {
      type: "gaussian"
      std: 0.1
    }
    bias_filler {
      type: "constant"
    }
  }
}
layer {
  name: "ip3"
  type: "InnerProduct"
  bottom: "ip2"
  top: "ip3"
  param {
    lr_mult: 1
  }
  param {
    lr_mult: 2
  }
  inner_product_param {
    num_output: 1
    weight_filler {
      type: "gaussian"
      std: 0.1
    }
    bias_filler {
      type: "constant"
    }
  }
}
layer {
  name: "loss"
  type: "HuberLoss"
  bottom: "ip3"
  bottom: "label"
  top: "loss"
  include {
    phase: TRAIN
  }
}
I0507 03:51:13.820284 31281 layer_factory.hpp:77] Creating layer parameters
I0507 03:51:13.820297 31281 net.cpp:94] Creating Layer parameters
I0507 03:51:13.820300 31281 net.cpp:409] parameters -> data
I0507 03:51:13.820309 31281 net.cpp:409] parameters -> label
I0507 03:51:13.820315 31281 hdf5_data_layer.cpp:79] Loading list of HDF5 filenames from: /home/purduethu/scratch/radon/d/deng106/CNNStatisticalModel/distributions/input/50_distributions_100_sample_size_train-parameters-path.txt
I0507 03:51:13.820330 31281 hdf5_data_layer.cpp:93] Number of HDF5 files: 1
I0507 03:51:13.820902 31281 hdf5.cpp:32] Datatype class: H5T_FLOAT
I0507 03:51:13.982107 31281 net.cpp:144] Setting up parameters
I0507 03:51:13.982139 31281 net.cpp:151] Top shape: 20 1 10 10 (2000)
I0507 03:51:13.982144 31281 net.cpp:151] Top shape: 20 (20)
I0507 03:51:13.982147 31281 net.cpp:159] Memory required for data: 8080
I0507 03:51:13.982154 31281 layer_factory.hpp:77] Creating layer conv1
I0507 03:51:13.982177 31281 net.cpp:94] Creating Layer conv1
I0507 03:51:13.982180 31281 net.cpp:435] conv1 <- data
I0507 03:51:13.982187 31281 net.cpp:409] conv1 -> conv1
I0507 03:51:13.986449 31281 net.cpp:144] Setting up conv1
I0507 03:51:13.986465 31281 net.cpp:151] Top shape: 20 64 10 10 (128000)
I0507 03:51:13.986469 31281 net.cpp:159] Memory required for data: 520080
I0507 03:51:13.986479 31281 layer_factory.hpp:77] Creating layer relu1
I0507 03:51:13.986487 31281 net.cpp:94] Creating Layer relu1
I0507 03:51:13.986491 31281 net.cpp:435] relu1 <- conv1
I0507 03:51:13.986495 31281 net.cpp:396] relu1 -> conv1 (in-place)
I0507 03:51:13.986510 31281 net.cpp:144] Setting up relu1
I0507 03:51:13.986515 31281 net.cpp:151] Top shape: 20 64 10 10 (128000)
I0507 03:51:13.986518 31281 net.cpp:159] Memory required for data: 1032080
I0507 03:51:13.986521 31281 layer_factory.hpp:77] Creating layer conv2
I0507 03:51:13.986529 31281 net.cpp:94] Creating Layer conv2
I0507 03:51:13.986532 31281 net.cpp:435] conv2 <- conv1
I0507 03:51:13.986537 31281 net.cpp:409] conv2 -> conv2
I0507 03:51:13.992635 31281 net.cpp:144] Setting up conv2
I0507 03:51:13.992648 31281 net.cpp:151] Top shape: 20 64 10 10 (128000)
I0507 03:51:13.992652 31281 net.cpp:159] Memory required for data: 1544080
I0507 03:51:13.992660 31281 layer_factory.hpp:77] Creating layer relu2
I0507 03:51:13.992667 31281 net.cpp:94] Creating Layer relu2
I0507 03:51:13.992671 31281 net.cpp:435] relu2 <- conv2
I0507 03:51:13.992676 31281 net.cpp:396] relu2 -> conv2 (in-place)
I0507 03:51:13.992682 31281 net.cpp:144] Setting up relu2
I0507 03:51:13.992686 31281 net.cpp:151] Top shape: 20 64 10 10 (128000)
I0507 03:51:13.992689 31281 net.cpp:159] Memory required for data: 2056080
I0507 03:51:13.992692 31281 layer_factory.hpp:77] Creating layer pool2
I0507 03:51:13.992698 31281 net.cpp:94] Creating Layer pool2
I0507 03:51:13.992700 31281 net.cpp:435] pool2 <- conv2
I0507 03:51:13.992705 31281 net.cpp:409] pool2 -> pool2
I0507 03:51:13.992763 31281 net.cpp:144] Setting up pool2
I0507 03:51:13.992770 31281 net.cpp:151] Top shape: 20 64 5 5 (32000)
I0507 03:51:13.992774 31281 net.cpp:159] Memory required for data: 2184080
I0507 03:51:13.992777 31281 layer_factory.hpp:77] Creating layer conv3
I0507 03:51:13.992784 31281 net.cpp:94] Creating Layer conv3
I0507 03:51:13.992789 31281 net.cpp:435] conv3 <- pool2
I0507 03:51:13.992799 31281 net.cpp:409] conv3 -> conv3
I0507 03:51:13.997687 31281 net.cpp:144] Setting up conv3
I0507 03:51:13.997701 31281 net.cpp:151] Top shape: 20 64 5 5 (32000)
I0507 03:51:13.997704 31281 net.cpp:159] Memory required for data: 2312080
I0507 03:51:13.997712 31281 layer_factory.hpp:77] Creating layer relu3
I0507 03:51:13.997719 31281 net.cpp:94] Creating Layer relu3
I0507 03:51:13.997722 31281 net.cpp:435] relu3 <- conv3
I0507 03:51:13.997726 31281 net.cpp:396] relu3 -> conv3 (in-place)
I0507 03:51:13.997733 31281 net.cpp:144] Setting up relu3
I0507 03:51:13.997737 31281 net.cpp:151] Top shape: 20 64 5 5 (32000)
I0507 03:51:13.997740 31281 net.cpp:159] Memory required for data: 2440080
I0507 03:51:13.997743 31281 layer_factory.hpp:77] Creating layer conv4
I0507 03:51:13.997751 31281 net.cpp:94] Creating Layer conv4
I0507 03:51:13.997756 31281 net.cpp:435] conv4 <- conv3
I0507 03:51:13.997759 31281 net.cpp:409] conv4 -> conv4
I0507 03:51:14.002166 31281 net.cpp:144] Setting up conv4
I0507 03:51:14.002179 31281 net.cpp:151] Top shape: 20 64 5 5 (32000)
I0507 03:51:14.002182 31281 net.cpp:159] Memory required for data: 2568080
I0507 03:51:14.002188 31281 layer_factory.hpp:77] Creating layer relu4
I0507 03:51:14.002194 31281 net.cpp:94] Creating Layer relu4
I0507 03:51:14.002197 31281 net.cpp:435] relu4 <- conv4
I0507 03:51:14.002202 31281 net.cpp:396] relu4 -> conv4 (in-place)
I0507 03:51:14.002208 31281 net.cpp:144] Setting up relu4
I0507 03:51:14.002213 31281 net.cpp:151] Top shape: 20 64 5 5 (32000)
I0507 03:51:14.002215 31281 net.cpp:159] Memory required for data: 2696080
I0507 03:51:14.002218 31281 layer_factory.hpp:77] Creating layer conv5
I0507 03:51:14.002226 31281 net.cpp:94] Creating Layer conv5
I0507 03:51:14.002229 31281 net.cpp:435] conv5 <- conv4
I0507 03:51:14.002234 31281 net.cpp:409] conv5 -> conv5
I0507 03:51:14.007076 31281 net.cpp:144] Setting up conv5
I0507 03:51:14.007089 31281 net.cpp:151] Top shape: 20 64 5 5 (32000)
I0507 03:51:14.007092 31281 net.cpp:159] Memory required for data: 2824080
I0507 03:51:14.007100 31281 layer_factory.hpp:77] Creating layer relu5
I0507 03:51:14.007107 31281 net.cpp:94] Creating Layer relu5
I0507 03:51:14.007109 31281 net.cpp:435] relu5 <- conv5
I0507 03:51:14.007114 31281 net.cpp:396] relu5 -> conv5 (in-place)
I0507 03:51:14.007122 31281 net.cpp:144] Setting up relu5
I0507 03:51:14.007125 31281 net.cpp:151] Top shape: 20 64 5 5 (32000)
I0507 03:51:14.007128 31281 net.cpp:159] Memory required for data: 2952080
I0507 03:51:14.007130 31281 layer_factory.hpp:77] Creating layer pool5
I0507 03:51:14.007135 31281 net.cpp:94] Creating Layer pool5
I0507 03:51:14.007138 31281 net.cpp:435] pool5 <- conv5
I0507 03:51:14.007143 31281 net.cpp:409] pool5 -> pool5
I0507 03:51:14.007182 31281 net.cpp:144] Setting up pool5
I0507 03:51:14.007189 31281 net.cpp:151] Top shape: 20 64 2 2 (5120)
I0507 03:51:14.007192 31281 net.cpp:159] Memory required for data: 2972560
I0507 03:51:14.007196 31281 layer_factory.hpp:77] Creating layer ip1
I0507 03:51:14.007206 31281 net.cpp:94] Creating Layer ip1
I0507 03:51:14.007210 31281 net.cpp:435] ip1 <- pool5
I0507 03:51:14.007215 31281 net.cpp:409] ip1 -> ip1
I0507 03:51:14.008545 31281 net.cpp:144] Setting up ip1
I0507 03:51:14.008569 31281 net.cpp:151] Top shape: 20 64 (1280)
I0507 03:51:14.008572 31281 net.cpp:159] Memory required for data: 2977680
I0507 03:51:14.008579 31281 layer_factory.hpp:77] Creating layer ip2
I0507 03:51:14.008585 31281 net.cpp:94] Creating Layer ip2
I0507 03:51:14.008589 31281 net.cpp:435] ip2 <- ip1
I0507 03:51:14.008594 31281 net.cpp:409] ip2 -> ip2
I0507 03:51:14.008815 31281 net.cpp:144] Setting up ip2
I0507 03:51:14.008821 31281 net.cpp:151] Top shape: 20 64 (1280)
I0507 03:51:14.008824 31281 net.cpp:159] Memory required for data: 2982800
I0507 03:51:14.008829 31281 layer_factory.hpp:77] Creating layer ip3
I0507 03:51:14.008836 31281 net.cpp:94] Creating Layer ip3
I0507 03:51:14.008838 31281 net.cpp:435] ip3 <- ip2
I0507 03:51:14.008843 31281 net.cpp:409] ip3 -> ip3
I0507 03:51:14.008960 31281 net.cpp:144] Setting up ip3
I0507 03:51:14.008966 31281 net.cpp:151] Top shape: 20 1 (20)
I0507 03:51:14.008970 31281 net.cpp:159] Memory required for data: 2982880
I0507 03:51:14.008975 31281 layer_factory.hpp:77] Creating layer loss
I0507 03:51:14.008982 31281 net.cpp:94] Creating Layer loss
I0507 03:51:14.008985 31281 net.cpp:435] loss <- ip3
I0507 03:51:14.008990 31281 net.cpp:435] loss <- label
I0507 03:51:14.008993 31281 net.cpp:409] loss -> loss
I0507 03:51:14.009045 31281 net.cpp:144] Setting up loss
…
I0507 03:51:14.070060 31281 net.cpp:323] The NetState phase (0) differed from the phase (1) specified by a rule in layer intercept
I0507 03:51:14.070075 31281 net.cpp:323] The NetState phase (0) differed from the phase (1) specified by a rule in layer accuracy
I0507 03:51:14.070159 31281 net.cpp:52] Initializing net from parameters: 
state {
  phase: TRAIN
}
layer {
  name: "parameters"
  type: "HDF5Data"
  top: "data"
  top: "label"
  include {
    phase: TRAIN
  }
  hdf5_data_param {
    source: "/home/purduethu/scratch/radon/d/deng106/CNNStatisticalModel/distributions/input/50_distributions_100_sample_size_train-distributions-path.txt"
    batch_size: 20
  }
}
layer {
  name: "conv1"
  type: "Convolution"
  bottom: "data"
  top: "conv1"
  param {
    lr_mult: 1
  }
  param {
    lr_mult: 2
  }
  convolution_param {
    num_output: 64
    pad: 2
    kernel_size: 5
    stride: 1
    weight_filler {
      type: "gaussian"
      std: 0.0001
    }
    bias_filler {
      type: "constant"
    }
  }
}
layer {
  name: "relu1"
  type: "ReLU"
  bottom: "conv1"
  top: "conv1"
}
layer {
  name: "conv2"
  type: "Convolution"
  bottom: "conv1"
  top: "conv2"
  param {
    lr_mult: 1
  }
  param {
    lr_mult: 2
  }
  convolution_param {
    num_output: 64
    pad: 2
    kernel_size: 5
    stride: 1
    weight_filler {
      type: "gaussian"
      std: 0.01
    }
    bias_filler {
      type: "constant"
    }
  }
}
layer {
  name: "relu2"
  type: "ReLU"
  bottom: "conv2"
  top: "conv2"
}
layer {
  name: "pool2"
  type: "Pooling"
  bottom: "conv2"
  top: "pool2"
  pooling_param {
    pool: MAX
    kernel_size: 3
    stride: 2
  }
}
layer {
  name: "conv3"
  type: "Convolution"
  bottom: "pool2"
  top: "conv3"
  param {
    lr_mult: 1
  }
  param {
    lr_mult: 2
  }
  convolution_param {
    num_output: 64
    pad: 2
    kernel_size: 5
    stride: 1
    weight_filler {
      type: "gaussian"
      std: 0.01
    }
    bias_filler {
      type: "constant"
    }
  }
}
layer {
  name: "relu3"
  type: "ReLU"
  bottom: "conv3"
  top: "conv3"
}
layer {
  name: "conv4"
  type: "Convolution"
  bottom: "conv3"
  top: "conv4"
  param {
    lr_mult: 1
  }
  param {
    lr_mult: 2
  }
  convolution_param {
    num_output: 64
    pad: 2
    kernel_size: 5
    stride: 1
    weight_filler {
      type: "gaussian"
      std: 0.01
    }
    bias_filler {
      type: "constant"
    }
  }
}
layer {
  name: "relu4"
  type: "ReLU"
  bottom: "conv4"
  top: "conv4"
}
layer {
  name: "conv5"
  type: "Convolution"
  bottom: "conv4"
  top: "conv5"
  param {
    lr_mult: 1
  }
  param {
    lr_mult: 2
  }
  convolution_param {
    num_output: 64
    pad: 2
    kernel_size: 5
    stride: 1
    weight_filler {
      type: "gaussian"
      std: 0.01
    }
    bias_filler {
      type: "constant"
    }
  }
}
layer {
  name: "relu5"
  type: "ReLU"
  bottom: "conv5"
  top: "conv5"
}
layer {
  name: "pool5"
  type: "Pooling"
  bottom: "conv5"
  top: "pool5"
  pooling_param {
    pool: AVE
    kernel_size: 3
    stride: 2
  }
}
layer {
  name: "ip1"
  type: "InnerProduct"
  bottom: "pool5"
  top: "ip1"
  param {
    lr_mult: 1
  }
  param {
    lr_mult: 2
  }
  inner_product_param {
    num_output: 64
    weight_filler {
      type: "gaussian"
      std: 0.1
    }
    bias_filler {
      type: "constant"
    }
  }
}
layer {
  name: "ip2"
  type: "InnerProduct"
  bottom: "ip1"
  top: "ip2"
  param {
    lr_mult: 1
  }
  param {
    lr_mult: 2
  }
  inner_product_param {
    num_output: 64
    weight_filler {
      type: "gaussian"
      std: 0.1
    }
    bias_filler {
      type: "constant"
    }
  }
}
layer {
  name: "ip3"
  type: "InnerProduct"
  bottom: "ip2"
  top: "ip3"
  param {
    lr_mult: 1
  }
  param {
    lr_mult: 2
  }
  inner_product_param {
    num_output: 50
    weight_filler {
      type: "gaussian"
      std: 0.1
    }
    bias_filler {
      type: "constant"
    }
  }
}
layer {
  name: "loss"
  type: "SoftmaxWithLoss"
  bottom: "ip3"
  bottom: "label"
  top: "loss"
}
I0507 03:51:14.070210 31281 layer_factory.hpp:77] Creating layer parameters
I0507 03:51:14.070219 31281 net.cpp:94] Creating Layer parameters
I0507 03:51:14.070222 31281 net.cpp:409] parameters -> data
I0507 03:51:14.070228 31281 net.cpp:409] parameters -> label
I0507 03:51:14.070235 31281 hdf5_data_layer.cpp:79] Loading list of HDF5 filenames from: /home/purduethu/scratch/radon/d/deng106/CNNStatisticalModel/distributions/input/50_distributions_100_sample_size_train-distributions-path.txt
I0507 03:51:14.070250 31281 hdf5_data_layer.cpp:93] Number of HDF5 files: 1
I0507 03:51:14.226006 31281 hdf5.cpp:35] Datatype class: H5T_INTEGER
I0507 03:51:14.229105 31281 net.cpp:144] Setting up parameters
I0507 03:51:14.229127 31281 net.cpp:151] Top shape: 20 1 10 10 (2000)
I0507 03:51:14.229132 31281 net.cpp:151] Top shape: 20 (20)
I0507 03:51:14.229135 31281 net.cpp:159] Memory required for data: 8080
I0507 03:51:14.229141 31281 layer_factory.hpp:77] Creating layer conv1
I0507 03:51:14.229157 31281 net.cpp:94] Creating Layer conv1
I0507 03:51:14.229161 31281 net.cpp:435] conv1 <- data
I0507 03:51:14.229167 31281 net.cpp:409] conv1 -> conv1
I0507 03:51:14.230996 31281 net.cpp:144] Setting up conv1
I0507 03:51:14.231010 31281 net.cpp:151] Top shape: 20 64 10 10 (128000)
I0507 03:51:14.231014 31281 net.cpp:159] Memory required for data: 520080
I0507 03:51:14.231024 31281 layer_factory.hpp:77] Creating layer relu1
I0507 03:51:14.231031 31281 net.cpp:94] Creating Layer relu1
I0507 03:51:14.231034 31281 net.cpp:435] relu1 <- conv1
I0507 03:51:14.231039 31281 net.cpp:396] relu1 -> conv1 (in-place)
I0507 03:51:14.231047 31281 net.cpp:144] Setting up relu1
I0507 03:51:14.231051 31281 net.cpp:151] Top shape: 20 64 10 10 (128000)
I0507 03:51:14.231055 31281 net.cpp:159] Memory required for data: 1032080
I0507 03:51:14.231056 31281 layer_factory.hpp:77] Creating layer conv2
I0507 03:51:14.231065 31281 net.cpp:94] Creating Layer conv2
I0507 03:51:14.231067 31281 net.cpp:435] conv2 <- conv1
I0507 03:51:14.231071 31281 net.cpp:409] conv2 -> conv2
I0507 03:51:14.236418 31281 net.cpp:144] Setting up conv2
I0507 03:51:14.236433 31281 net.cpp:151] Top shape: 20 64 10 10 (128000)
I0507 03:51:14.236436 31281 net.cpp:159] Memory required for data: 1544080
I0507 03:51:14.236443 31281 layer_factory.hpp:77] Creating layer relu2
I0507 03:51:14.236450 31281 net.cpp:94] Creating Layer relu2
I0507 03:51:14.236454 31281 net.cpp:435] relu2 <- conv2
I0507 03:51:14.236459 31281 net.cpp:396] relu2 -> conv2 (in-place)
I0507 03:51:14.236464 31281 net.cpp:144] Setting up relu2
I0507 03:51:14.236469 31281 net.cpp:151] Top shape: 20 64 10 10 (128000)
I0507 03:51:14.236471 31281 net.cpp:159] Memory required for data: 2056080
I0507 03:51:14.236474 31281 layer_factory.hpp:77] Creating layer pool2
I0507 03:51:14.236480 31281 net.cpp:94] Creating Layer pool2
I0507 03:51:14.236484 31281 net.cpp:435] pool2 <- conv2
I0507 03:51:14.236487 31281 net.cpp:409] pool2 -> pool2
I0507 03:51:14.236542 31281 net.cpp:144] Setting up pool2
I0507 03:51:14.236559 31281 net.cpp:151] Top shape: 20 64 5 5 (32000)
I0507 03:51:14.236564 31281 net.cpp:159] Memory required for data: 2184080
I0507 03:51:14.236567 31281 layer_factory.hpp:77] Creating layer conv3
I0507 03:51:14.236575 31281 net.cpp:94] Creating Layer conv3
I0507 03:51:14.236579 31281 net.cpp:435] conv3 <- pool2
I0507 03:51:14.236583 31281 net.cpp:409] conv3 -> conv3
I0507 03:51:14.242365 31281 net.cpp:144] Setting up conv3
I0507 03:51:14.242379 31281 net.cpp:151] Top shape: 20 64 5 5 (32000)
I0507 03:51:14.242383 31281 net.cpp:159] Memory required for data: 2312080
I0507 03:51:14.242390 31281 layer_factory.hpp:77] Creating layer relu3
I0507 03:51:14.242396 31281 net.cpp:94] Creating Layer relu3
I0507 03:51:14.242399 31281 net.cpp:435] relu3 <- conv3
I0507 03:51:14.242404 31281 net.cpp:396] relu3 -> conv3 (in-place)
I0507 03:51:14.242411 31281 net.cpp:144] Setting up relu3
I0507 03:51:14.242415 31281 net.cpp:151] Top shape: 20 64 5 5 (32000)
I0507 03:51:14.242424 31281 net.cpp:159] Memory required for data: 2440080
I0507 03:51:14.242427 31281 layer_factory.hpp:77] Creating layer conv4
I0507 03:51:14.242435 31281 net.cpp:94] Creating Layer conv4
I0507 03:51:14.242439 31281 net.cpp:435] conv4 <- conv3
I0507 03:51:14.242444 31281 net.cpp:409] conv4 -> conv4
I0507 03:51:14.247334 31281 net.cpp:144] Setting up conv4
I0507 03:51:14.247349 31281 net.cpp:151] Top shape: 20 64 5 5 (32000)
I0507 03:51:14.247351 31281 net.cpp:159] Memory required for data: 2568080
I0507 03:51:14.247359 31281 layer_factory.hpp:77] Creating layer relu4
I0507 03:51:14.247364 31281 net.cpp:94] Creating Layer relu4
I0507 03:51:14.247367 31281 net.cpp:435] relu4 <- conv4
I0507 03:51:14.247371 31281 net.cpp:396] relu4 -> conv4 (in-place)
I0507 03:51:14.247378 31281 net.cpp:144] Setting up relu4
I0507 03:51:14.247382 31281 net.cpp:151] Top shape: 20 64 5 5 (32000)
I0507 03:51:14.247385 31281 net.cpp:159] Memory required for data: 2696080
I0507 03:51:14.247388 31281 layer_factory.hpp:77] Creating layer conv5
I0507 03:51:14.247396 31281 net.cpp:94] Creating Layer conv5
I0507 03:51:14.247400 31281 net.cpp:435] conv5 <- conv4
I0507 03:51:14.247404 31281 net.cpp:409] conv5 -> conv5
I0507 03:51:14.251839 31281 net.cpp:144] Setting up conv5
I0507 03:51:14.251853 31281 net.cpp:151] Top shape: 20 64 5 5 (32000)
I0507 03:51:14.251857 31281 net.cpp:159] Memory required for data: 2824080
I0507 03:51:14.251864 31281 layer_factory.hpp:77] Creating layer relu5
I0507 03:51:14.251870 31281 net.cpp:94] Creating Layer relu5
I0507 03:51:14.251874 31281 net.cpp:435] relu5 <- conv5
I0507 03:51:14.251878 31281 net.cpp:396] relu5 -> conv5 (in-place)
I0507 03:51:14.251884 31281 net.cpp:144] Setting up relu5
I0507 03:51:14.251889 31281 net.cpp:151] Top shape: 20 64 5 5 (32000)
I0507 03:51:14.251893 31281 net.cpp:159] Memory required for data: 2952080
I0507 03:51:14.251895 31281 layer_factory.hpp:77] Creating layer pool5
I0507 03:51:14.251899 31281 net.cpp:94] Creating Layer pool5
I0507 03:51:14.251902 31281 net.cpp:435] pool5 <- conv5
I0507 03:51:14.251906 31281 net.cpp:409] pool5 -> pool5
I0507 03:51:14.251943 31281 net.cpp:144] Setting up pool5
I0507 03:51:14.251950 31281 net.cpp:151] Top shape: 20 64 2 2 (5120)
I0507 03:51:14.251953 31281 net.cpp:159] Memory required for data: 2972560
I0507 03:51:14.251956 31281 layer_factory.hpp:77] Creating layer ip1
I0507 03:51:14.251963 31281 net.cpp:94] Creating Layer ip1
I0507 03:51:14.251966 31281 net.cpp:435] ip1 <- pool5
I0507 03:51:14.251971 31281 net.cpp:409] ip1 -> ip1
I0507 03:51:14.252492 31281 net.cpp:144] Setting up ip1
I0507 03:51:14.252501 31281 net.cpp:151] Top shape: 20 64 (1280)
I0507 03:51:14.252504 31281 net.cpp:159] Memory required for data: 2977680
I0507 03:51:14.252509 31281 layer_factory.hpp:77] Creating layer ip2
I0507 03:51:14.252516 31281 net.cpp:94] Creating Layer ip2
I0507 03:51:14.252518 31281 net.cpp:435] ip2 <- ip1
I0507 03:51:14.252522 31281 net.cpp:409] ip2 -> ip2
I0507 03:51:14.252763 31281 net.cpp:144] Setting up ip2
I0507 03:51:14.252773 31281 net.cpp:151] Top shape: 20 64 (1280)
I0507 03:51:14.252775 31281 net.cpp:159] Memory required for data: 2982800
I0507 03:51:14.252780 31281 layer_factory.hpp:77] Creating layer ip3
I0507 03:51:14.252786 31281 net.cpp:94] Creating Layer ip3
I0507 03:51:14.252789 31281 net.cpp:435] ip3 <- ip2
I0507 03:51:14.252794 31281 net.cpp:409] ip3 -> ip3
I0507 03:51:14.252993 31281 net.cpp:144] Setting up ip3
I0507 03:51:14.253000 31281 net.cpp:151] Top shape: 20 50 (1000)
I0507 03:51:14.253003 31281 net.cpp:159] Memory required for data: 2986800
I0507 03:51:14.253008 31281 layer_factory.hpp:77] Creating layer loss
I0507 03:51:14.253015 31281 net.cpp:94] Creating Layer loss
I0507 03:51:14.253017 31281 net.cpp:435] loss <- ip3
I0507 03:51:14.253021 31281 net.cpp:435] loss <- label
I0507 03:51:14.253026 31281 net.cpp:409] loss -> loss
I0507 03:51:14.253032 31281 layer_factory.hpp:77] Creating layer loss
…
I0507 03:51:14.254405 31281 solver.cpp:181] Creating test net (#0) specified by net file: ./protocol/dis_50_100_dimension.protocol_distribution
I0507 03:51:14.254431 31281 net.cpp:323] The NetState phase (1) differed from the phase (0) specified by a rule in layer parameters
I0507 03:51:14.254525 31281 net.cpp:52] Initializing net from parameters: 
state {
  phase: TEST
}
layer {
  name: "intercept"
  type: "HDF5Data"
  top: "data"
  top: "label"
  include {
    phase: TEST
  }
  hdf5_data_param {
    source: "/home/purduethu/scratch/radon/d/deng106/CNNStatisticalModel/distributions/input/50_distributions_100_sample_size_test-distributions-path.txt"
    batch_size: 20
  }
}
layer {
  name: "conv1"
  type: "Convolution"
  bottom: "data"
  top: "conv1"
  param {
    lr_mult: 1
  }
  param {
    lr_mult: 2
  }
  convolution_param {
    num_output: 64
    pad: 2
    kernel_size: 5
    stride: 1
    weight_filler {
      type: "gaussian"
      std: 0.0001
    }
    bias_filler {
      type: "constant"
    }
  }
}
layer {
  name: "relu1"
  type: "ReLU"
  bottom: "conv1"
  top: "conv1"
}
layer {
  name: "conv2"
  type: "Convolution"
  bottom: "conv1"
  top: "conv2"
  param {
    lr_mult: 1
  }
  param {
    lr_mult: 2
  }
  convolution_param {
    num_output: 64
    pad: 2
    kernel_size: 5
    stride: 1
    weight_filler {
      type: "gaussian"
      std: 0.01
    }
    bias_filler {
      type: "constant"
    }
  }
}
layer {
  name: "relu2"
  type: "ReLU"
  bottom: "conv2"
  top: "conv2"
}
layer {
  name: "pool2"
  type: "Pooling"
  bottom: "conv2"
  top: "pool2"
  pooling_param {
    pool: MAX
    kernel_size: 3
    stride: 2
  }
}
layer {
  name: "conv3"
  type: "Convolution"
  bottom: "pool2"
  top: "conv3"
  param {
    lr_mult: 1
  }
  param {
    lr_mult: 2
  }
  convolution_param {
    num_output: 64
    pad: 2
    kernel_size: 5
    stride: 1
    weight_filler {
      type: "gaussian"
      std: 0.01
    }
    bias_filler {
      type: "constant"
    }
  }
}
layer {
  name: "relu3"
  type: "ReLU"
  bottom: "conv3"
  top: "conv3"
}
layer {
  name: "conv4"
  type: "Convolution"
  bottom: "conv3"
  top: "conv4"
  param {
    lr_mult: 1
  }
  param {
    lr_mult: 2
  }
  convolution_param {
    num_output: 64
    pad: 2
    kernel_size: 5
    stride: 1
    weight_filler {
      type: "gaussian"
      std: 0.01
    }
    bias_filler {
      type: "constant"
    }
  }
}
layer {
  name: "relu4"
  type: "ReLU"
  bottom: "conv4"
  top: "conv4"
}
layer {
  name: "conv5"
  type: "Convolution"
  bottom: "conv4"
  top: "conv5"
  param {
    lr_mult: 1
  }
  param {
    lr_mult: 2
  }
  convolution_param {
    num_output: 64
    pad: 2
    kernel_size: 5
    stride: 1
    weight_filler {
      type: "gaussian"
      std: 0.01
    }
    bias_filler {
      type: "constant"
    }
  }
}
layer {
  name: "relu5"
  type: "ReLU"
  bottom: "conv5"
  top: "conv5"
}
layer {
  name: "pool5"
  type: "Pooling"
  bottom: "conv5"
  top: "pool5"
  pooling_param {
    pool: AVE
    kernel_size: 3
    stride: 2
  }
}
layer {
  name: "ip1"
  type: "InnerProduct"
  bottom: "pool5"
  top: "ip1"
  param {
    lr_mult: 1
  }
  param {
    lr_mult: 2
  }
  inner_product_param {
    num_output: 64
    weight_filler {
      type: "gaussian"
      std: 0.1
    }
    bias_filler {
      type: "constant"
    }
  }
}
layer {
  name: "ip2"
  type: "InnerProduct"
  bottom: "ip1"
  top: "ip2"
  param {
    lr_mult: 1
  }
  param {
    lr_mult: 2
  }
  inner_product_param {
    num_output: 64
    weight_filler {
      type: "gaussian"
      std: 0.1
    }
    bias_filler {
      type: "constant"
    }
  }
}
layer {
  name: "ip3"
  type: "InnerProduct"
  bottom: "ip2"
  top: "ip3"
  param {
    lr_mult: 1
  }
  param {
    lr_mult: 2
  }
  inner_product_param {
    num_output: 50
    weight_filler {
      type: "gaussian"
      std: 0.1
    }
    bias_filler {
      type: "constant"
    }
  }
}
layer {
  name: "accuracy"
  type: "Accuracy"
  bottom: "ip3"
  bottom: "label"
  top: "accuracy"
  include {
    phase: TEST
  }
}
layer {
  name: "loss"
  type: "SoftmaxWithLoss"
  bottom: "ip3"
  bottom: "label"
  top: "loss"
}
I0507 03:51:14.254590 31281 layer_factory.hpp:77] Creating layer intercept
I0507 03:51:14.254598 31281 net.cpp:94] Creating Layer intercept
I0507 03:51:14.254602 31281 net.cpp:409] intercept -> data
I0507 03:51:14.254608 31281 net.cpp:409] intercept -> label
I0507 03:51:14.254614 31281 hdf5_data_layer.cpp:79] Loading list of HDF5 filenames from: /home/purduethu/scratch/radon/d/deng106/CNNStatisticalModel/distributions/input/50_distributions_100_sample_size_test-distributions-path.txt
I0507 03:51:14.254633 31281 hdf5_data_layer.cpp:93] Number of HDF5 files: 1
I0507 03:51:14.295876 31281 net.cpp:144] Setting up intercept
I0507 03:51:14.295912 31281 net.cpp:151] Top shape: 20 1 10 10 (2000)
I0507 03:51:14.295917 31281 net.cpp:151] Top shape: 20 (20)
I0507 03:51:14.295920 31281 net.cpp:159] Memory required for data: 8080
I0507 03:51:14.295925 31281 layer_factory.hpp:77] Creating layer label_intercept_1_split
I0507 03:51:14.295944 31281 net.cpp:94] Creating Layer label_intercept_1_split
I0507 03:51:14.295949 31281 net.cpp:435] label_intercept_1_split <- label
I0507 03:51:14.295955 31281 net.cpp:409] label_intercept_1_split -> label_intercept_1_split_0
I0507 03:51:14.295964 31281 net.cpp:409] label_intercept_1_split -> label_intercept_1_split_1
I0507 03:51:14.296007 31281 net.cpp:144] Setting up label_intercept_1_split
I0507 03:51:14.296015 31281 net.cpp:151] Top shape: 20 (20)
I0507 03:51:14.296017 31281 net.cpp:151] Top shape: 20 (20)
I0507 03:51:14.296020 31281 net.cpp:159] Memory required for data: 8240
I0507 03:51:14.296025 31281 layer_factory.hpp:77] Creating layer conv1
I0507 03:51:14.296036 31281 net.cpp:94] Creating Layer conv1
I0507 03:51:14.296038 31281 net.cpp:435] conv1 <- data
I0507 03:51:14.296043 31281 net.cpp:409] conv1 -> conv1
I0507 03:51:14.296926 31281 net.cpp:144] Setting up conv1
I0507 03:51:14.296941 31281 net.cpp:151] Top shape: 20 64 10 10 (128000)
I0507 03:51:14.296944 31281 net.cpp:159] Memory required for data: 520240
I0507 03:51:14.296953 31281 layer_factory.hpp:77] Creating layer relu1
I0507 03:51:14.296959 31281 net.cpp:94] Creating Layer relu1
I0507 03:51:14.296963 31281 net.cpp:435] relu1 <- conv1
I0507 03:51:14.296967 31281 net.cpp:396] relu1 -> conv1 (in-place)
I0507 03:51:14.296974 31281 net.cpp:144] Setting up relu1
I0507 03:51:14.296978 31281 net.cpp:151] Top shape: 20 64 10 10 (128000)
I0507 03:51:14.296982 31281 net.cpp:159] Memory required for data: 1032240
I0507 03:51:14.296993 31281 layer_factory.hpp:77] Creating layer conv2
I0507 03:51:14.297001 31281 net.cpp:94] Creating Layer conv2
I0507 03:51:14.297004 31281 net.cpp:435] conv2 <- conv1
I0507 03:51:14.297009 31281 net.cpp:409] conv2 -> conv2
I0507 03:51:14.301072 31281 net.cpp:144] Setting up conv2
I0507 03:51:14.301085 31281 net.cpp:151] Top shape: 20 64 10 10 (128000)
I0507 03:51:14.301090 31281 net.cpp:159] Memory required for data: 1544240
I0507 03:51:14.301097 31281 layer_factory.hpp:77] Creating layer relu2
I0507 03:51:14.301105 31281 net.cpp:94] Creating Layer relu2
I0507 03:51:14.301107 31281 net.cpp:435] relu2 <- conv2
I0507 03:51:14.301112 31281 net.cpp:396] relu2 -> conv2 (in-place)
I0507 03:51:14.301118 31281 net.cpp:144] Setting up relu2
I0507 03:51:14.301122 31281 net.cpp:151] Top shape: 20 64 10 10 (128000)
I0507 03:51:14.301126 31281 net.cpp:159] Memory required for data: 2056240
I0507 03:51:14.301128 31281 layer_factory.hpp:77] Creating layer pool2
I0507 03:51:14.301134 31281 net.cpp:94] Creating Layer pool2
I0507 03:51:14.301136 31281 net.cpp:435] pool2 <- conv2
I0507 03:51:14.301141 31281 net.cpp:409] pool2 -> pool2
I0507 03:51:14.301200 31281 net.cpp:144] Setting up pool2
I0507 03:51:14.301208 31281 net.cpp:151] Top shape: 20 64 5 5 (32000)
I0507 03:51:14.301210 31281 net.cpp:159] Memory required for data: 2184240
I0507 03:51:14.301213 31281 layer_factory.hpp:77] Creating layer conv3
I0507 03:51:14.301221 31281 net.cpp:94] Creating Layer conv3
I0507 03:51:14.301225 31281 net.cpp:435] conv3 <- pool2
I0507 03:51:14.301231 31281 net.cpp:409] conv3 -> conv3
I0507 03:51:14.305577 31281 net.cpp:144] Setting up conv3
I0507 03:51:14.305590 31281 net.cpp:151] Top shape: 20 64 5 5 (32000)
I0507 03:51:14.305594 31281 net.cpp:159] Memory required for data: 2312240
I0507 03:51:14.305603 31281 layer_factory.hpp:77] Creating layer relu3
I0507 03:51:14.305608 31281 net.cpp:94] Creating Layer relu3
I0507 03:51:14.305611 31281 net.cpp:435] relu3 <- conv3
I0507 03:51:14.305616 31281 net.cpp:396] relu3 -> conv3 (in-place)
I0507 03:51:14.305622 31281 net.cpp:144] Setting up relu3
I0507 03:51:14.305627 31281 net.cpp:151] Top shape: 20 64 5 5 (32000)
I0507 03:51:14.305629 31281 net.cpp:159] Memory required for data: 2440240
I0507 03:51:14.305632 31281 layer_factory.hpp:77] Creating layer conv4
I0507 03:51:14.305642 31281 net.cpp:94] Creating Layer conv4
I0507 03:51:14.305645 31281 net.cpp:435] conv4 <- conv3
I0507 03:51:14.305650 31281 net.cpp:409] conv4 -> conv4
I0507 03:51:14.309185 31281 net.cpp:144] Setting up conv4
I0507 03:51:14.309198 31281 net.cpp:151] Top shape: 20 64 5 5 (32000)
I0507 03:51:14.309201 31281 net.cpp:159] Memory required for data: 2568240
I0507 03:51:14.309207 31281 layer_factory.hpp:77] Creating layer relu4
I0507 03:51:14.309213 31281 net.cpp:94] Creating Layer relu4
I0507 03:51:14.309216 31281 net.cpp:435] relu4 <- conv4
I0507 03:51:14.309221 31281 net.cpp:396] relu4 -> conv4 (in-place)
I0507 03:51:14.309227 31281 net.cpp:144] Setting up relu4
I0507 03:51:14.309231 31281 net.cpp:151] Top shape: 20 64 5 5 (32000)
I0507 03:51:14.309234 31281 net.cpp:159] Memory required for data: 2696240
I0507 03:51:14.309237 31281 layer_factory.hpp:77] Creating layer conv5
I0507 03:51:14.309247 31281 net.cpp:94] Creating Layer conv5
I0507 03:51:14.309249 31281 net.cpp:435] conv5 <- conv4
I0507 03:51:14.309253 31281 net.cpp:409] conv5 -> conv5
I0507 03:51:14.313225 31281 net.cpp:144] Setting up conv5
I0507 03:51:14.313238 31281 net.cpp:151] Top shape: 20 64 5 5 (32000)
I0507 03:51:14.313241 31281 net.cpp:159] Memory required for data: 2824240
I0507 03:51:14.313249 31281 layer_factory.hpp:77] Creating layer relu5
I0507 03:51:14.313256 31281 net.cpp:94] Creating Layer relu5
I0507 03:51:14.313258 31281 net.cpp:435] relu5 <- conv5
I0507 03:51:14.313264 31281 net.cpp:396] relu5 -> conv5 (in-place)
I0507 03:51:14.313271 31281 net.cpp:144] Setting up relu5
I0507 03:51:14.313275 31281 net.cpp:151] Top shape: 20 64 5 5 (32000)
I0507 03:51:14.313278 31281 net.cpp:159] Memory required for data: 2952240
I0507 03:51:14.313285 31281 layer_factory.hpp:77] Creating layer pool5
I0507 03:51:14.313290 31281 net.cpp:94] Creating Layer pool5
I0507 03:51:14.313293 31281 net.cpp:435] pool5 <- conv5
I0507 03:51:14.313298 31281 net.cpp:409] pool5 -> pool5
I0507 03:51:14.313338 31281 net.cpp:144] Setting up pool5
I0507 03:51:14.313345 31281 net.cpp:151] Top shape: 20 64 2 2 (5120)
I0507 03:51:14.313349 31281 net.cpp:159] Memory required for data: 2972720
I0507 03:51:14.313351 31281 layer_factory.hpp:77] Creating layer ip1
I0507 03:51:14.313359 31281 net.cpp:94] Creating Layer ip1
I0507 03:51:14.313361 31281 net.cpp:435] ip1 <- pool5
I0507 03:51:14.313367 31281 net.cpp:409] ip1 -> ip1
I0507 03:51:14.313900 31281 net.cpp:144] Setting up ip1
I0507 03:51:14.313908 31281 net.cpp:151] Top shape: 20 64 (1280)
I0507 03:51:14.313911 31281 net.cpp:159] Memory required for data: 2977840
I0507 03:51:14.313916 31281 layer_factory.hpp:77] Creating layer ip2
I0507 03:51:14.313921 31281 net.cpp:94] Creating Layer ip2
I0507 03:51:14.313925 31281 net.cpp:435] ip2 <- ip1
I0507 03:51:14.313930 31281 net.cpp:409] ip2 -> ip2
I0507 03:51:14.314159 31281 net.cpp:144] Setting up ip2
I0507 03:51:14.314167 31281 net.cpp:151] Top shape: 20 64 (1280)
I0507 03:51:14.314169 31281 net.cpp:159] Memory required for data: 2982960
I0507 03:51:14.314174 31281 layer_factory.hpp:77] Creating layer ip3
I0507 03:51:14.314182 31281 net.cpp:94] Creating Layer ip3
I0507 03:51:14.314184 31281 net.cpp:435] ip3 <- ip2
I0507 03:51:14.314188 31281 net.cpp:409] ip3 -> ip3
I0507 03:51:14.314394 31281 net.cpp:144] Setting up ip3
I0507 03:51:14.314401 31281 net.cpp:151] Top shape: 20 50 (1000)
I0507 03:51:14.314404 31281 net.cpp:159] Memory required for data: 2986960
I0507 03:51:14.314409 31281 layer_factory.hpp:77] Creating layer ip3_ip3_0_split
I0507 03:51:14.314414 31281 net.cpp:94] Creating Layer ip3_ip3_0_split
I0507 03:51:14.314416 31281 net.cpp:435] ip3_ip3_0_split <- ip3
I0507 03:51:14.314421 31281 net.cpp:409] ip3_ip3_0_split -> ip3_ip3_0_split_0
I0507 03:51:14.314427 31281 net.cpp:409] ip3_ip3_0_split -> ip3_ip3_0_split_1
I0507 03:51:14.314469 31281 net.cpp:144] Setting up ip3_ip3_0_split
I0507 03:51:14.314476 31281 net.cpp:151] Top shape: 20 50 (1000)
I0507 03:51:14.314478 31281 net.cpp:151] Top shape: 20 50 (1000)
I0507 03:51:14.314481 31281 net.cpp:159] Memory required for data: 2994960
I0507 03:51:14.314484 31281 layer_factory.hpp:77] Creating layer accuracy
I0507 03:51:14.314489 31281 net.cpp:94] Creating Layer accuracy
I0507 03:51:14.314492 31281 net.cpp:435] accuracy <- ip3_ip3_0_split_0
I0507 03:51:14.314496 31281 net.cpp:435] accuracy <- label_intercept_1_split_0
I0507 03:51:14.314502 31281 net.cpp:409] accuracy -> accuracy
…
