…
I0502 08:33:17.943544 21005 net.cpp:323] The NetState phase (0) differed from the phase (1) specified by a rule in layer intercept
I0502 08:33:17.943560 21005 net.cpp:323] The NetState phase (0) differed from the phase (1) specified by a rule in layer loss
I0502 08:33:17.943637 21005 net.cpp:52] Initializing net from parameters: 
state {
  phase: TRAIN
}
layer {
  name: "parameters"
  type: "HDF5Data"
  top: "data"
  top: "label"
  include {
    phase: TRAIN
  }
  hdf5_data_param {
    source: "/home/purduethu/scratch/radon/d/deng106/CNNStatisticalModel/distributions/input/50_distributions_900_sample_size_train-parameters-path.txt"
    batch_size: 20
  }
}
layer {
  name: "conv1"
  type: "Convolution"
  bottom: "data"
  top: "conv1"
  param {
    lr_mult: 1
  }
  param {
    lr_mult: 2
  }
  convolution_param {
    num_output: 64
    pad: 2
    kernel_size: 5
    stride: 1
    weight_filler {
      type: "gaussian"
      std: 0.0001
    }
    bias_filler {
      type: "constant"
    }
  }
}
layer {
  name: "relu1"
  type: "ReLU"
  bottom: "conv1"
  top: "conv1"
}
layer {
  name: "conv2"
  type: "Convolution"
  bottom: "conv1"
  top: "conv2"
  param {
    lr_mult: 1
  }
  param {
    lr_mult: 2
  }
  convolution_param {
    num_output: 64
    pad: 2
    kernel_size: 5
    stride: 1
    weight_filler {
      type: "gaussian"
      std: 0.01
    }
    bias_filler {
      type: "constant"
    }
  }
}
layer {
  name: "relu2"
  type: "ReLU"
  bottom: "conv2"
  top: "conv2"
}
layer {
  name: "pool2"
  type: "Pooling"
  bottom: "conv2"
  top: "pool2"
  pooling_param {
    pool: MAX
    kernel_size: 3
    stride: 2
  }
}
layer {
  name: "conv3"
  type: "Convolution"
  bottom: "pool2"
  top: "conv3"
  param {
    lr_mult: 1
  }
  param {
    lr_mult: 2
  }
  convolution_param {
    num_output: 64
    pad: 2
    kernel_size: 5
    stride: 1
    weight_filler {
      type: "gaussian"
      std: 0.01
    }
    bias_filler {
      type: "constant"
    }
  }
}
layer {
  name: "relu3"
  type: "ReLU"
  bottom: "conv3"
  top: "conv3"
}
layer {
  name: "conv4"
  type: "Convolution"
  bottom: "conv3"
  top: "conv4"
  param {
    lr_mult: 1
  }
  param {
    lr_mult: 2
  }
  convolution_param {
    num_output: 64
    pad: 2
    kernel_size: 5
    stride: 1
    weight_filler {
      type: "gaussian"
      std: 0.01
    }
    bias_filler {
      type: "constant"
    }
  }
}
layer {
  name: "relu4"
  type: "ReLU"
  bottom: "conv4"
  top: "conv4"
}
layer {
  name: "conv5"
  type: "Convolution"
  bottom: "conv4"
  top: "conv5"
  param {
    lr_mult: 1
  }
  param {
    lr_mult: 2
  }
  convolution_param {
    num_output: 64
    pad: 2
    kernel_size: 5
    stride: 1
    weight_filler {
      type: "gaussian"
      std: 0.01
    }
    bias_filler {
      type: "constant"
    }
  }
}
layer {
  name: "relu5"
  type: "ReLU"
  bottom: "conv5"
  top: "conv5"
}
layer {
  name: "pool5"
  type: "Pooling"
  bottom: "conv5"
  top: "pool5"
  pooling_param {
    pool: AVE
    kernel_size: 3
    stride: 2
  }
}
layer {
  name: "ip1"
  type: "InnerProduct"
  bottom: "pool5"
  top: "ip1"
  param {
    lr_mult: 1
  }
  param {
    lr_mult: 2
  }
  inner_product_param {
    num_output: 64
    weight_filler {
      type: "gaussian"
      std: 0.1
    }
    bias_filler {
      type: "constant"
    }
  }
}
layer {
  name: "ip2"
  type: "InnerProduct"
  bottom: "ip1"
  top: "ip2"
  param {
    lr_mult: 1
  }
  param {
    lr_mult: 2
  }
  inner_product_param {
    num_output: 64
    weight_filler {
      type: "gaussian"
      std: 0.1
    }
    bias_filler {
      type: "constant"
    }
  }
}
layer {
  name: "ip3"
  type: "InnerProduct"
  bottom: "ip2"
  top: "ip3"
  param {
    lr_mult: 1
  }
  param {
    lr_mult: 2
  }
  inner_product_param {
    num_output: 1
    weight_filler {
      type: "gaussian"
      std: 0.1
    }
    bias_filler {
      type: "constant"
    }
  }
}
layer {
  name: "loss"
  type: "HuberLoss"
  bottom: "ip3"
  bottom: "label"
  top: "loss"
  include {
    phase: TRAIN
  }
}
I0502 08:33:17.943689 21005 layer_factory.hpp:77] Creating layer parameters
I0502 08:33:17.943702 21005 net.cpp:94] Creating Layer parameters
I0502 08:33:17.943706 21005 net.cpp:409] parameters -> data
I0502 08:33:17.943716 21005 net.cpp:409] parameters -> label
I0502 08:33:17.943722 21005 hdf5_data_layer.cpp:79] Loading list of HDF5 filenames from: /home/purduethu/scratch/radon/d/deng106/CNNStatisticalModel/distributions/input/50_distributions_900_sample_size_train-parameters-path.txt
I0502 08:33:17.943735 21005 hdf5_data_layer.cpp:93] Number of HDF5 files: 1
I0502 08:33:17.944167 21005 hdf5.cpp:32] Datatype class: H5T_FLOAT
I0502 08:33:19.473306 21005 net.cpp:144] Setting up parameters
I0502 08:33:19.473338 21005 net.cpp:151] Top shape: 20 1 30 30 (18000)
I0502 08:33:19.473343 21005 net.cpp:151] Top shape: 20 (20)
I0502 08:33:19.473346 21005 net.cpp:159] Memory required for data: 72080
I0502 08:33:19.473353 21005 layer_factory.hpp:77] Creating layer conv1
I0502 08:33:19.473376 21005 net.cpp:94] Creating Layer conv1
I0502 08:33:19.473381 21005 net.cpp:435] conv1 <- data
I0502 08:33:19.473387 21005 net.cpp:409] conv1 -> conv1
I0502 08:33:19.480322 21005 net.cpp:144] Setting up conv1
I0502 08:33:19.480370 21005 net.cpp:151] Top shape: 20 64 30 30 (1152000)
I0502 08:33:19.480382 21005 net.cpp:159] Memory required for data: 4680080
I0502 08:33:19.480409 21005 layer_factory.hpp:77] Creating layer relu1
I0502 08:33:19.480429 21005 net.cpp:94] Creating Layer relu1
I0502 08:33:19.480439 21005 net.cpp:435] relu1 <- conv1
I0502 08:33:19.480453 21005 net.cpp:396] relu1 -> conv1 (in-place)
I0502 08:33:19.480487 21005 net.cpp:144] Setting up relu1
I0502 08:33:19.480501 21005 net.cpp:151] Top shape: 20 64 30 30 (1152000)
I0502 08:33:19.480509 21005 net.cpp:159] Memory required for data: 9288080
I0502 08:33:19.480518 21005 layer_factory.hpp:77] Creating layer conv2
I0502 08:33:19.480540 21005 net.cpp:94] Creating Layer conv2
I0502 08:33:19.480576 21005 net.cpp:435] conv2 <- conv1
I0502 08:33:19.480592 21005 net.cpp:409] conv2 -> conv2
I0502 08:33:19.497452 21005 net.cpp:144] Setting up conv2
I0502 08:33:19.497504 21005 net.cpp:151] Top shape: 20 64 30 30 (1152000)
I0502 08:33:19.497515 21005 net.cpp:159] Memory required for data: 13896080
I0502 08:33:19.497542 21005 layer_factory.hpp:77] Creating layer relu2
I0502 08:33:19.497563 21005 net.cpp:94] Creating Layer relu2
I0502 08:33:19.497575 21005 net.cpp:435] relu2 <- conv2
I0502 08:33:19.497588 21005 net.cpp:396] relu2 -> conv2 (in-place)
I0502 08:33:19.497617 21005 net.cpp:144] Setting up relu2
I0502 08:33:19.497622 21005 net.cpp:151] Top shape: 20 64 30 30 (1152000)
I0502 08:33:19.497623 21005 net.cpp:159] Memory required for data: 18504080
I0502 08:33:19.497627 21005 layer_factory.hpp:77] Creating layer pool2
I0502 08:33:19.497639 21005 net.cpp:94] Creating Layer pool2
I0502 08:33:19.497643 21005 net.cpp:435] pool2 <- conv2
I0502 08:33:19.497648 21005 net.cpp:409] pool2 -> pool2
I0502 08:33:19.497737 21005 net.cpp:144] Setting up pool2
I0502 08:33:19.497745 21005 net.cpp:151] Top shape: 20 64 15 15 (288000)
I0502 08:33:19.497748 21005 net.cpp:159] Memory required for data: 19656080
I0502 08:33:19.497751 21005 layer_factory.hpp:77] Creating layer conv3
I0502 08:33:19.497762 21005 net.cpp:94] Creating Layer conv3
I0502 08:33:19.497766 21005 net.cpp:435] conv3 <- pool2
I0502 08:33:19.497771 21005 net.cpp:409] conv3 -> conv3
I0502 08:33:19.507133 21005 net.cpp:144] Setting up conv3
I0502 08:33:19.507158 21005 net.cpp:151] Top shape: 20 64 15 15 (288000)
I0502 08:33:19.507163 21005 net.cpp:159] Memory required for data: 20808080
I0502 08:33:19.507175 21005 layer_factory.hpp:77] Creating layer relu3
I0502 08:33:19.507184 21005 net.cpp:94] Creating Layer relu3
I0502 08:33:19.507187 21005 net.cpp:435] relu3 <- conv3
I0502 08:33:19.507192 21005 net.cpp:396] relu3 -> conv3 (in-place)
I0502 08:33:19.507201 21005 net.cpp:144] Setting up relu3
I0502 08:33:19.507205 21005 net.cpp:151] Top shape: 20 64 15 15 (288000)
I0502 08:33:19.507208 21005 net.cpp:159] Memory required for data: 21960080
I0502 08:33:19.507211 21005 layer_factory.hpp:77] Creating layer conv4
I0502 08:33:19.507221 21005 net.cpp:94] Creating Layer conv4
I0502 08:33:19.507225 21005 net.cpp:435] conv4 <- conv3
I0502 08:33:19.507230 21005 net.cpp:409] conv4 -> conv4
I0502 08:33:19.515187 21005 net.cpp:144] Setting up conv4
I0502 08:33:19.515218 21005 net.cpp:151] Top shape: 20 64 15 15 (288000)
I0502 08:33:19.515223 21005 net.cpp:159] Memory required for data: 23112080
I0502 08:33:19.515233 21005 layer_factory.hpp:77] Creating layer relu4
I0502 08:33:19.515241 21005 net.cpp:94] Creating Layer relu4
I0502 08:33:19.515246 21005 net.cpp:435] relu4 <- conv4
I0502 08:33:19.515251 21005 net.cpp:396] relu4 -> conv4 (in-place)
I0502 08:33:19.515261 21005 net.cpp:144] Setting up relu4
I0502 08:33:19.515266 21005 net.cpp:151] Top shape: 20 64 15 15 (288000)
I0502 08:33:19.515269 21005 net.cpp:159] Memory required for data: 24264080
I0502 08:33:19.515272 21005 layer_factory.hpp:77] Creating layer conv5
I0502 08:33:19.515282 21005 net.cpp:94] Creating Layer conv5
I0502 08:33:19.515286 21005 net.cpp:435] conv5 <- conv4
I0502 08:33:19.515291 21005 net.cpp:409] conv5 -> conv5
I0502 08:33:19.523284 21005 net.cpp:144] Setting up conv5
I0502 08:33:19.523336 21005 net.cpp:151] Top shape: 20 64 15 15 (288000)
I0502 08:33:19.523349 21005 net.cpp:159] Memory required for data: 25416080
I0502 08:33:19.523375 21005 layer_factory.hpp:77] Creating layer relu5
I0502 08:33:19.523393 21005 net.cpp:94] Creating Layer relu5
I0502 08:33:19.523404 21005 net.cpp:435] relu5 <- conv5
I0502 08:33:19.523417 21005 net.cpp:396] relu5 -> conv5 (in-place)
I0502 08:33:19.523438 21005 net.cpp:144] Setting up relu5
I0502 08:33:19.523452 21005 net.cpp:151] Top shape: 20 64 15 15 (288000)
I0502 08:33:19.523459 21005 net.cpp:159] Memory required for data: 26568080
I0502 08:33:19.523468 21005 layer_factory.hpp:77] Creating layer pool5
I0502 08:33:19.523481 21005 net.cpp:94] Creating Layer pool5
I0502 08:33:19.523489 21005 net.cpp:435] pool5 <- conv5
I0502 08:33:19.523501 21005 net.cpp:409] pool5 -> pool5
I0502 08:33:19.523640 21005 net.cpp:144] Setting up pool5
I0502 08:33:19.523659 21005 net.cpp:151] Top shape: 20 64 7 7 (62720)
I0502 08:33:19.523669 21005 net.cpp:159] Memory required for data: 26818960
I0502 08:33:19.523677 21005 layer_factory.hpp:77] Creating layer ip1
I0502 08:33:19.523699 21005 net.cpp:94] Creating Layer ip1
I0502 08:33:19.523710 21005 net.cpp:435] ip1 <- pool5
I0502 08:33:19.523721 21005 net.cpp:409] ip1 -> ip1
I0502 08:33:19.529909 21005 net.cpp:144] Setting up ip1
I0502 08:33:19.529937 21005 net.cpp:151] Top shape: 20 64 (1280)
I0502 08:33:19.529942 21005 net.cpp:159] Memory required for data: 26824080
I0502 08:33:19.529950 21005 layer_factory.hpp:77] Creating layer ip2
I0502 08:33:19.529960 21005 net.cpp:94] Creating Layer ip2
I0502 08:33:19.529973 21005 net.cpp:435] ip2 <- ip1
I0502 08:33:19.529979 21005 net.cpp:409] ip2 -> ip2
I0502 08:33:19.530221 21005 net.cpp:144] Setting up ip2
I0502 08:33:19.530230 21005 net.cpp:151] Top shape: 20 64 (1280)
I0502 08:33:19.530232 21005 net.cpp:159] Memory required for data: 26829200
I0502 08:33:19.530238 21005 layer_factory.hpp:77] Creating layer ip3
I0502 08:33:19.530243 21005 net.cpp:94] Creating Layer ip3
I0502 08:33:19.530247 21005 net.cpp:435] ip3 <- ip2
I0502 08:33:19.530252 21005 net.cpp:409] ip3 -> ip3
I0502 08:33:19.530362 21005 net.cpp:144] Setting up ip3
I0502 08:33:19.530369 21005 net.cpp:151] Top shape: 20 1 (20)
I0502 08:33:19.530372 21005 net.cpp:159] Memory required for data: 26829280
I0502 08:33:19.530377 21005 layer_factory.hpp:77] Creating layer loss
I0502 08:33:19.530385 21005 net.cpp:94] Creating Layer loss
I0502 08:33:19.530388 21005 net.cpp:435] loss <- ip3
I0502 08:33:19.530392 21005 net.cpp:435] loss <- label
I0502 08:33:19.530397 21005 net.cpp:409] loss -> loss
I0502 08:33:19.530450 21005 net.cpp:144] Setting up loss
…
I0502 08:33:19.985759 21005 net.cpp:323] The NetState phase (0) differed from the phase (1) specified by a rule in layer intercept
I0502 08:33:19.985774 21005 net.cpp:323] The NetState phase (0) differed from the phase (1) specified by a rule in layer accuracy
I0502 08:33:19.985852 21005 net.cpp:52] Initializing net from parameters: 
state {
  phase: TRAIN
}
layer {
  name: "parameters"
  type: "HDF5Data"
  top: "data"
  top: "label"
  include {
    phase: TRAIN
  }
  hdf5_data_param {
    source: "/home/purduethu/scratch/radon/d/deng106/CNNStatisticalModel/distributions/input/50_distributions_900_sample_size_train-distributions-path.txt"
    batch_size: 20
  }
}
layer {
  name: "conv1"
  type: "Convolution"
  bottom: "data"
  top: "conv1"
  param {
    lr_mult: 1
  }
  param {
    lr_mult: 2
  }
  convolution_param {
    num_output: 64
    pad: 2
    kernel_size: 5
    stride: 1
    weight_filler {
      type: "gaussian"
      std: 0.0001
    }
    bias_filler {
      type: "constant"
    }
  }
}
layer {
  name: "relu1"
  type: "ReLU"
  bottom: "conv1"
  top: "conv1"
}
layer {
  name: "conv2"
  type: "Convolution"
  bottom: "conv1"
  top: "conv2"
  param {
    lr_mult: 1
  }
  param {
    lr_mult: 2
  }
  convolution_param {
    num_output: 64
    pad: 2
    kernel_size: 5
    stride: 1
    weight_filler {
      type: "gaussian"
      std: 0.01
    }
    bias_filler {
      type: "constant"
    }
  }
}
layer {
  name: "relu2"
  type: "ReLU"
  bottom: "conv2"
  top: "conv2"
}
layer {
  name: "pool2"
  type: "Pooling"
  bottom: "conv2"
  top: "pool2"
  pooling_param {
    pool: MAX
    kernel_size: 3
    stride: 2
  }
}
layer {
  name: "conv3"
  type: "Convolution"
  bottom: "pool2"
  top: "conv3"
  param {
    lr_mult: 1
  }
  param {
    lr_mult: 2
  }
  convolution_param {
    num_output: 64
    pad: 2
    kernel_size: 5
    stride: 1
    weight_filler {
      type: "gaussian"
      std: 0.01
    }
    bias_filler {
      type: "constant"
    }
  }
}
layer {
  name: "relu3"
  type: "ReLU"
  bottom: "conv3"
  top: "conv3"
}
layer {
  name: "conv4"
  type: "Convolution"
  bottom: "conv3"
  top: "conv4"
  param {
    lr_mult: 1
  }
  param {
    lr_mult: 2
  }
  convolution_param {
    num_output: 64
    pad: 2
    kernel_size: 5
    stride: 1
    weight_filler {
      type: "gaussian"
      std: 0.01
    }
    bias_filler {
      type: "constant"
    }
  }
}
layer {
  name: "relu4"
  type: "ReLU"
  bottom: "conv4"
  top: "conv4"
}
layer {
  name: "conv5"
  type: "Convolution"
  bottom: "conv4"
  top: "conv5"
  param {
    lr_mult: 1
  }
  param {
    lr_mult: 2
  }
  convolution_param {
    num_output: 64
    pad: 2
    kernel_size: 5
    stride: 1
    weight_filler {
      type: "gaussian"
      std: 0.01
    }
    bias_filler {
      type: "constant"
    }
  }
}
layer {
  name: "relu5"
  type: "ReLU"
  bottom: "conv5"
  top: "conv5"
}
layer {
  name: "pool5"
  type: "Pooling"
  bottom: "conv5"
  top: "pool5"
  pooling_param {
    pool: AVE
    kernel_size: 3
    stride: 2
  }
}
layer {
  name: "ip1"
  type: "InnerProduct"
  bottom: "pool5"
  top: "ip1"
  param {
    lr_mult: 1
  }
  param {
    lr_mult: 2
  }
  inner_product_param {
    num_output: 64
    weight_filler {
      type: "gaussian"
      std: 0.1
    }
    bias_filler {
      type: "constant"
    }
  }
}
layer {
  name: "ip2"
  type: "InnerProduct"
  bottom: "ip1"
  top: "ip2"
  param {
    lr_mult: 1
  }
  param {
    lr_mult: 2
  }
  inner_product_param {
    num_output: 64
    weight_filler {
      type: "gaussian"
      std: 0.1
    }
    bias_filler {
      type: "constant"
    }
  }
}
layer {
  name: "ip3"
  type: "InnerProduct"
  bottom: "ip2"
  top: "ip3"
  param {
    lr_mult: 1
  }
  param {
    lr_mult: 2
  }
  inner_product_param {
    num_output: 50
    weight_filler {
      type: "gaussian"
      std: 0.1
    }
    bias_filler {
      type: "constant"
    }
  }
}
layer {
  name: "loss"
  type: "SoftmaxWithLoss"
  bottom: "ip3"
  bottom: "label"
  top: "loss"
}
I0502 08:33:19.985903 21005 layer_factory.hpp:77] Creating layer parameters
I0502 08:33:19.985910 21005 net.cpp:94] Creating Layer parameters
I0502 08:33:19.985914 21005 net.cpp:409] parameters -> data
I0502 08:33:19.985921 21005 net.cpp:409] parameters -> label
I0502 08:33:19.985927 21005 hdf5_data_layer.cpp:79] Loading list of HDF5 filenames from: /home/purduethu/scratch/radon/d/deng106/CNNStatisticalModel/distributions/input/50_distributions_900_sample_size_train-distributions-path.txt
I0502 08:33:19.985941 21005 hdf5_data_layer.cpp:93] Number of HDF5 files: 1
I0502 08:33:21.467731 21005 hdf5.cpp:35] Datatype class: H5T_INTEGER
I0502 08:33:21.470914 21005 net.cpp:144] Setting up parameters
I0502 08:33:21.470952 21005 net.cpp:151] Top shape: 20 1 30 30 (18000)
I0502 08:33:21.470957 21005 net.cpp:151] Top shape: 20 (20)
I0502 08:33:21.470960 21005 net.cpp:159] Memory required for data: 72080
I0502 08:33:21.470968 21005 layer_factory.hpp:77] Creating layer conv1
I0502 08:33:21.470984 21005 net.cpp:94] Creating Layer conv1
I0502 08:33:21.470989 21005 net.cpp:435] conv1 <- data
I0502 08:33:21.470995 21005 net.cpp:409] conv1 -> conv1
I0502 08:33:21.474720 21005 net.cpp:144] Setting up conv1
I0502 08:33:21.474750 21005 net.cpp:151] Top shape: 20 64 30 30 (1152000)
I0502 08:33:21.474755 21005 net.cpp:159] Memory required for data: 4680080
I0502 08:33:21.474768 21005 layer_factory.hpp:77] Creating layer relu1
I0502 08:33:21.474778 21005 net.cpp:94] Creating Layer relu1
I0502 08:33:21.474783 21005 net.cpp:435] relu1 <- conv1
I0502 08:33:21.474788 21005 net.cpp:396] relu1 -> conv1 (in-place)
I0502 08:33:21.474798 21005 net.cpp:144] Setting up relu1
I0502 08:33:21.474802 21005 net.cpp:151] Top shape: 20 64 30 30 (1152000)
I0502 08:33:21.474805 21005 net.cpp:159] Memory required for data: 9288080
I0502 08:33:21.474808 21005 layer_factory.hpp:77] Creating layer conv2
I0502 08:33:21.474818 21005 net.cpp:94] Creating Layer conv2
I0502 08:33:21.474822 21005 net.cpp:435] conv2 <- conv1
I0502 08:33:21.474828 21005 net.cpp:409] conv2 -> conv2
I0502 08:33:21.491444 21005 net.cpp:144] Setting up conv2
I0502 08:33:21.491482 21005 net.cpp:151] Top shape: 20 64 30 30 (1152000)
I0502 08:33:21.491487 21005 net.cpp:159] Memory required for data: 13896080
I0502 08:33:21.491502 21005 layer_factory.hpp:77] Creating layer relu2
I0502 08:33:21.491513 21005 net.cpp:94] Creating Layer relu2
I0502 08:33:21.491516 21005 net.cpp:435] relu2 <- conv2
I0502 08:33:21.491523 21005 net.cpp:396] relu2 -> conv2 (in-place)
I0502 08:33:21.491533 21005 net.cpp:144] Setting up relu2
I0502 08:33:21.491538 21005 net.cpp:151] Top shape: 20 64 30 30 (1152000)
I0502 08:33:21.491540 21005 net.cpp:159] Memory required for data: 18504080
I0502 08:33:21.491544 21005 layer_factory.hpp:77] Creating layer pool2
I0502 08:33:21.491550 21005 net.cpp:94] Creating Layer pool2
I0502 08:33:21.491554 21005 net.cpp:435] pool2 <- conv2
I0502 08:33:21.491557 21005 net.cpp:409] pool2 -> pool2
I0502 08:33:21.491667 21005 net.cpp:144] Setting up pool2
I0502 08:33:21.491685 21005 net.cpp:151] Top shape: 20 64 15 15 (288000)
I0502 08:33:21.491688 21005 net.cpp:159] Memory required for data: 19656080
I0502 08:33:21.491691 21005 layer_factory.hpp:77] Creating layer conv3
I0502 08:33:21.491701 21005 net.cpp:94] Creating Layer conv3
I0502 08:33:21.491705 21005 net.cpp:435] conv3 <- pool2
I0502 08:33:21.491719 21005 net.cpp:409] conv3 -> conv3
I0502 08:33:21.500927 21005 net.cpp:144] Setting up conv3
I0502 08:33:21.500962 21005 net.cpp:151] Top shape: 20 64 15 15 (288000)
I0502 08:33:21.500965 21005 net.cpp:159] Memory required for data: 20808080
I0502 08:33:21.500979 21005 layer_factory.hpp:77] Creating layer relu3
I0502 08:33:21.500989 21005 net.cpp:94] Creating Layer relu3
I0502 08:33:21.500994 21005 net.cpp:435] relu3 <- conv3
I0502 08:33:21.500999 21005 net.cpp:396] relu3 -> conv3 (in-place)
I0502 08:33:21.501010 21005 net.cpp:144] Setting up relu3
I0502 08:33:21.501015 21005 net.cpp:151] Top shape: 20 64 15 15 (288000)
I0502 08:33:21.501018 21005 net.cpp:159] Memory required for data: 21960080
I0502 08:33:21.501020 21005 layer_factory.hpp:77] Creating layer conv4
I0502 08:33:21.501031 21005 net.cpp:94] Creating Layer conv4
I0502 08:33:21.501035 21005 net.cpp:435] conv4 <- conv3
I0502 08:33:21.501040 21005 net.cpp:409] conv4 -> conv4
I0502 08:33:21.510329 21005 net.cpp:144] Setting up conv4
I0502 08:33:21.510385 21005 net.cpp:151] Top shape: 20 64 15 15 (288000)
I0502 08:33:21.510390 21005 net.cpp:159] Memory required for data: 23112080
I0502 08:33:21.510401 21005 layer_factory.hpp:77] Creating layer relu4
I0502 08:33:21.510409 21005 net.cpp:94] Creating Layer relu4
I0502 08:33:21.510414 21005 net.cpp:435] relu4 <- conv4
I0502 08:33:21.510421 21005 net.cpp:396] relu4 -> conv4 (in-place)
I0502 08:33:21.510432 21005 net.cpp:144] Setting up relu4
I0502 08:33:21.510435 21005 net.cpp:151] Top shape: 20 64 15 15 (288000)
I0502 08:33:21.510438 21005 net.cpp:159] Memory required for data: 24264080
I0502 08:33:21.510442 21005 layer_factory.hpp:77] Creating layer conv5
I0502 08:33:21.510452 21005 net.cpp:94] Creating Layer conv5
I0502 08:33:21.510455 21005 net.cpp:435] conv5 <- conv4
I0502 08:33:21.510460 21005 net.cpp:409] conv5 -> conv5
I0502 08:33:21.518914 21005 net.cpp:144] Setting up conv5
I0502 08:33:21.518970 21005 net.cpp:151] Top shape: 20 64 15 15 (288000)
I0502 08:33:21.518982 21005 net.cpp:159] Memory required for data: 25416080
I0502 08:33:21.519011 21005 layer_factory.hpp:77] Creating layer relu5
I0502 08:33:21.519032 21005 net.cpp:94] Creating Layer relu5
I0502 08:33:21.519052 21005 net.cpp:435] relu5 <- conv5
I0502 08:33:21.519057 21005 net.cpp:396] relu5 -> conv5 (in-place)
I0502 08:33:21.519068 21005 net.cpp:144] Setting up relu5
I0502 08:33:21.519073 21005 net.cpp:151] Top shape: 20 64 15 15 (288000)
I0502 08:33:21.519075 21005 net.cpp:159] Memory required for data: 26568080
I0502 08:33:21.519078 21005 layer_factory.hpp:77] Creating layer pool5
I0502 08:33:21.519084 21005 net.cpp:94] Creating Layer pool5
I0502 08:33:21.519088 21005 net.cpp:435] pool5 <- conv5
I0502 08:33:21.519093 21005 net.cpp:409] pool5 -> pool5
I0502 08:33:21.519184 21005 net.cpp:144] Setting up pool5
I0502 08:33:21.519191 21005 net.cpp:151] Top shape: 20 64 7 7 (62720)
I0502 08:33:21.519194 21005 net.cpp:159] Memory required for data: 26818960
I0502 08:33:21.519197 21005 layer_factory.hpp:77] Creating layer ip1
I0502 08:33:21.519204 21005 net.cpp:94] Creating Layer ip1
I0502 08:33:21.519208 21005 net.cpp:435] ip1 <- pool5
I0502 08:33:21.519212 21005 net.cpp:409] ip1 -> ip1
I0502 08:33:21.524173 21005 net.cpp:144] Setting up ip1
I0502 08:33:21.524200 21005 net.cpp:151] Top shape: 20 64 (1280)
I0502 08:33:21.524204 21005 net.cpp:159] Memory required for data: 26824080
I0502 08:33:21.524212 21005 layer_factory.hpp:77] Creating layer ip2
I0502 08:33:21.524221 21005 net.cpp:94] Creating Layer ip2
I0502 08:33:21.524225 21005 net.cpp:435] ip2 <- ip1
I0502 08:33:21.524232 21005 net.cpp:409] ip2 -> ip2
I0502 08:33:21.524463 21005 net.cpp:144] Setting up ip2
I0502 08:33:21.524471 21005 net.cpp:151] Top shape: 20 64 (1280)
I0502 08:33:21.524474 21005 net.cpp:159] Memory required for data: 26829200
I0502 08:33:21.524478 21005 layer_factory.hpp:77] Creating layer ip3
I0502 08:33:21.524484 21005 net.cpp:94] Creating Layer ip3
I0502 08:33:21.524487 21005 net.cpp:435] ip3 <- ip2
I0502 08:33:21.524492 21005 net.cpp:409] ip3 -> ip3
I0502 08:33:21.524719 21005 net.cpp:144] Setting up ip3
I0502 08:33:21.524727 21005 net.cpp:151] Top shape: 20 50 (1000)
I0502 08:33:21.524731 21005 net.cpp:159] Memory required for data: 26833200
I0502 08:33:21.524736 21005 layer_factory.hpp:77] Creating layer loss
I0502 08:33:21.524744 21005 net.cpp:94] Creating Layer loss
I0502 08:33:21.524746 21005 net.cpp:435] loss <- ip3
I0502 08:33:21.524750 21005 net.cpp:435] loss <- label
I0502 08:33:21.524755 21005 net.cpp:409] loss -> loss
I0502 08:33:21.524762 21005 layer_factory.hpp:77] Creating layer loss
…
I0502 08:33:21.525313 21005 solver.cpp:181] Creating test net (#0) specified by net file: ./protocol/dis_50_900_dimension.protocol_distribution
I0502 08:33:21.525341 21005 net.cpp:323] The NetState phase (1) differed from the phase (0) specified by a rule in layer parameters
I0502 08:33:21.525432 21005 net.cpp:52] Initializing net from parameters: 
state {
  phase: TEST
}
layer {
  name: "intercept"
  type: "HDF5Data"
  top: "data"
  top: "label"
  include {
    phase: TEST
  }
  hdf5_data_param {
    source: "/home/purduethu/scratch/radon/d/deng106/CNNStatisticalModel/distributions/input/50_distributions_900_sample_size_test-distributions-path.txt"
    batch_size: 20
  }
}
layer {
  name: "conv1"
  type: "Convolution"
  bottom: "data"
  top: "conv1"
  param {
    lr_mult: 1
  }
  param {
    lr_mult: 2
  }
  convolution_param {
    num_output: 64
    pad: 2
    kernel_size: 5
    stride: 1
    weight_filler {
      type: "gaussian"
      std: 0.0001
    }
    bias_filler {
      type: "constant"
    }
  }
}
layer {
  name: "relu1"
  type: "ReLU"
  bottom: "conv1"
  top: "conv1"
}
layer {
  name: "conv2"
  type: "Convolution"
  bottom: "conv1"
  top: "conv2"
  param {
    lr_mult: 1
  }
  param {
    lr_mult: 2
  }
  convolution_param {
    num_output: 64
    pad: 2
    kernel_size: 5
    stride: 1
    weight_filler {
      type: "gaussian"
      std: 0.01
    }
    bias_filler {
      type: "constant"
    }
  }
}
layer {
  name: "relu2"
  type: "ReLU"
  bottom: "conv2"
  top: "conv2"
}
layer {
  name: "pool2"
  type: "Pooling"
  bottom: "conv2"
  top: "pool2"
  pooling_param {
    pool: MAX
    kernel_size: 3
    stride: 2
  }
}
layer {
  name: "conv3"
  type: "Convolution"
  bottom: "pool2"
  top: "conv3"
  param {
    lr_mult: 1
  }
  param {
    lr_mult: 2
  }
  convolution_param {
    num_output: 64
    pad: 2
    kernel_size: 5
    stride: 1
    weight_filler {
      type: "gaussian"
      std: 0.01
    }
    bias_filler {
      type: "constant"
    }
  }
}
layer {
  name: "relu3"
  type: "ReLU"
  bottom: "conv3"
  top: "conv3"
}
layer {
  name: "conv4"
  type: "Convolution"
  bottom: "conv3"
  top: "conv4"
  param {
    lr_mult: 1
  }
  param {
    lr_mult: 2
  }
  convolution_param {
    num_output: 64
    pad: 2
    kernel_size: 5
    stride: 1
    weight_filler {
      type: "gaussian"
      std: 0.01
    }
    bias_filler {
      type: "constant"
    }
  }
}
layer {
  name: "relu4"
  type: "ReLU"
  bottom: "conv4"
  top: "conv4"
}
layer {
  name: "conv5"
  type: "Convolution"
  bottom: "conv4"
  top: "conv5"
  param {
    lr_mult: 1
  }
  param {
    lr_mult: 2
  }
  convolution_param {
    num_output: 64
    pad: 2
    kernel_size: 5
    stride: 1
    weight_filler {
      type: "gaussian"
      std: 0.01
    }
    bias_filler {
      type: "constant"
    }
  }
}
layer {
  name: "relu5"
  type: "ReLU"
  bottom: "conv5"
  top: "conv5"
}
layer {
  name: "pool5"
  type: "Pooling"
  bottom: "conv5"
  top: "pool5"
  pooling_param {
    pool: AVE
    kernel_size: 3
    stride: 2
  }
}
layer {
  name: "ip1"
  type: "InnerProduct"
  bottom: "pool5"
  top: "ip1"
  param {
    lr_mult: 1
  }
  param {
    lr_mult: 2
  }
  inner_product_param {
    num_output: 64
    weight_filler {
      type: "gaussian"
      std: 0.1
    }
    bias_filler {
      type: "constant"
    }
  }
}
layer {
  name: "ip2"
  type: "InnerProduct"
  bottom: "ip1"
  top: "ip2"
  param {
    lr_mult: 1
  }
  param {
    lr_mult: 2
  }
  inner_product_param {
    num_output: 64
    weight_filler {
      type: "gaussian"
      std: 0.1
    }
    bias_filler {
      type: "constant"
    }
  }
}
layer {
  name: "ip3"
  type: "InnerProduct"
  bottom: "ip2"
  top: "ip3"
  param {
    lr_mult: 1
  }
  param {
    lr_mult: 2
  }
  inner_product_param {
    num_output: 50
    weight_filler {
      type: "gaussian"
      std: 0.1
    }
    bias_filler {
      type: "constant"
    }
  }
}
layer {
  name: "accuracy"
  type: "Accuracy"
  bottom: "ip3"
  bottom: "label"
  top: "accuracy"
  include {
    phase: TEST
  }
}
layer {
  name: "loss"
  type: "SoftmaxWithLoss"
  bottom: "ip3"
  bottom: "label"
  top: "loss"
}
I0502 08:33:21.525496 21005 layer_factory.hpp:77] Creating layer intercept
I0502 08:33:21.525504 21005 net.cpp:94] Creating Layer intercept
I0502 08:33:21.525508 21005 net.cpp:409] intercept -> data
I0502 08:33:21.525514 21005 net.cpp:409] intercept -> label
I0502 08:33:21.525521 21005 hdf5_data_layer.cpp:79] Loading list of HDF5 filenames from: /home/purduethu/scratch/radon/d/deng106/CNNStatisticalModel/distributions/input/50_distributions_900_sample_size_test-distributions-path.txt
I0502 08:33:21.525542 21005 hdf5_data_layer.cpp:93] Number of HDF5 files: 1
I0502 08:33:21.892622 21005 net.cpp:144] Setting up intercept
I0502 08:33:21.892658 21005 net.cpp:151] Top shape: 20 1 30 30 (18000)
I0502 08:33:21.892664 21005 net.cpp:151] Top shape: 20 (20)
I0502 08:33:21.892668 21005 net.cpp:159] Memory required for data: 72080
I0502 08:33:21.892673 21005 layer_factory.hpp:77] Creating layer label_intercept_1_split
I0502 08:33:21.892691 21005 net.cpp:94] Creating Layer label_intercept_1_split
I0502 08:33:21.892696 21005 net.cpp:435] label_intercept_1_split <- label
I0502 08:33:21.892702 21005 net.cpp:409] label_intercept_1_split -> label_intercept_1_split_0
I0502 08:33:21.892710 21005 net.cpp:409] label_intercept_1_split -> label_intercept_1_split_1
I0502 08:33:21.892753 21005 net.cpp:144] Setting up label_intercept_1_split
I0502 08:33:21.892760 21005 net.cpp:151] Top shape: 20 (20)
I0502 08:33:21.892763 21005 net.cpp:151] Top shape: 20 (20)
I0502 08:33:21.892766 21005 net.cpp:159] Memory required for data: 72240
I0502 08:33:21.892769 21005 layer_factory.hpp:77] Creating layer conv1
I0502 08:33:21.892781 21005 net.cpp:94] Creating Layer conv1
I0502 08:33:21.892784 21005 net.cpp:435] conv1 <- data
I0502 08:33:21.892789 21005 net.cpp:409] conv1 -> conv1
I0502 08:33:21.894353 21005 net.cpp:144] Setting up conv1
I0502 08:33:21.894371 21005 net.cpp:151] Top shape: 20 64 30 30 (1152000)
I0502 08:33:21.894376 21005 net.cpp:159] Memory required for data: 4680240
I0502 08:33:21.894385 21005 layer_factory.hpp:77] Creating layer relu1
I0502 08:33:21.894393 21005 net.cpp:94] Creating Layer relu1
I0502 08:33:21.894397 21005 net.cpp:435] relu1 <- conv1
I0502 08:33:21.894402 21005 net.cpp:396] relu1 -> conv1 (in-place)
I0502 08:33:21.894409 21005 net.cpp:144] Setting up relu1
I0502 08:33:21.894413 21005 net.cpp:151] Top shape: 20 64 30 30 (1152000)
I0502 08:33:21.894415 21005 net.cpp:159] Memory required for data: 9288240
I0502 08:33:21.894418 21005 layer_factory.hpp:77] Creating layer conv2
I0502 08:33:21.894428 21005 net.cpp:94] Creating Layer conv2
I0502 08:33:21.894431 21005 net.cpp:435] conv2 <- conv1
I0502 08:33:21.894436 21005 net.cpp:409] conv2 -> conv2
I0502 08:33:21.902367 21005 net.cpp:144] Setting up conv2
I0502 08:33:21.902405 21005 net.cpp:151] Top shape: 20 64 30 30 (1152000)
I0502 08:33:21.902408 21005 net.cpp:159] Memory required for data: 13896240
I0502 08:33:21.902422 21005 layer_factory.hpp:77] Creating layer relu2
I0502 08:33:21.902433 21005 net.cpp:94] Creating Layer relu2
I0502 08:33:21.902438 21005 net.cpp:435] relu2 <- conv2
I0502 08:33:21.902443 21005 net.cpp:396] relu2 -> conv2 (in-place)
I0502 08:33:21.902454 21005 net.cpp:144] Setting up relu2
I0502 08:33:21.902458 21005 net.cpp:151] Top shape: 20 64 30 30 (1152000)
I0502 08:33:21.902462 21005 net.cpp:159] Memory required for data: 18504240
I0502 08:33:21.902463 21005 layer_factory.hpp:77] Creating layer pool2
I0502 08:33:21.902469 21005 net.cpp:94] Creating Layer pool2
I0502 08:33:21.902472 21005 net.cpp:435] pool2 <- conv2
I0502 08:33:21.902477 21005 net.cpp:409] pool2 -> pool2
I0502 08:33:21.902587 21005 net.cpp:144] Setting up pool2
I0502 08:33:21.902593 21005 net.cpp:151] Top shape: 20 64 15 15 (288000)
I0502 08:33:21.902606 21005 net.cpp:159] Memory required for data: 19656240
I0502 08:33:21.902609 21005 layer_factory.hpp:77] Creating layer conv3
I0502 08:33:21.902619 21005 net.cpp:94] Creating Layer conv3
I0502 08:33:21.902623 21005 net.cpp:435] conv3 <- pool2
I0502 08:33:21.902628 21005 net.cpp:409] conv3 -> conv3
I0502 08:33:21.908112 21005 net.cpp:144] Setting up conv3
I0502 08:33:21.908167 21005 net.cpp:151] Top shape: 20 64 15 15 (288000)
I0502 08:33:21.908171 21005 net.cpp:159] Memory required for data: 20808240
I0502 08:33:21.908185 21005 layer_factory.hpp:77] Creating layer relu3
I0502 08:33:21.908196 21005 net.cpp:94] Creating Layer relu3
I0502 08:33:21.908200 21005 net.cpp:435] relu3 <- conv3
I0502 08:33:21.908205 21005 net.cpp:396] relu3 -> conv3 (in-place)
I0502 08:33:21.908215 21005 net.cpp:144] Setting up relu3
I0502 08:33:21.908219 21005 net.cpp:151] Top shape: 20 64 15 15 (288000)
I0502 08:33:21.908222 21005 net.cpp:159] Memory required for data: 21960240
I0502 08:33:21.908226 21005 layer_factory.hpp:77] Creating layer conv4
I0502 08:33:21.908236 21005 net.cpp:94] Creating Layer conv4
I0502 08:33:21.908238 21005 net.cpp:435] conv4 <- conv3
I0502 08:33:21.908243 21005 net.cpp:409] conv4 -> conv4
I0502 08:33:21.913260 21005 net.cpp:144] Setting up conv4
I0502 08:33:21.913295 21005 net.cpp:151] Top shape: 20 64 15 15 (288000)
I0502 08:33:21.913298 21005 net.cpp:159] Memory required for data: 23112240
I0502 08:33:21.913308 21005 layer_factory.hpp:77] Creating layer relu4
I0502 08:33:21.913318 21005 net.cpp:94] Creating Layer relu4
I0502 08:33:21.913322 21005 net.cpp:435] relu4 <- conv4
I0502 08:33:21.913327 21005 net.cpp:396] relu4 -> conv4 (in-place)
I0502 08:33:21.913338 21005 net.cpp:144] Setting up relu4
I0502 08:33:21.913342 21005 net.cpp:151] Top shape: 20 64 15 15 (288000)
I0502 08:33:21.913345 21005 net.cpp:159] Memory required for data: 24264240
I0502 08:33:21.913347 21005 layer_factory.hpp:77] Creating layer conv5
I0502 08:33:21.913357 21005 net.cpp:94] Creating Layer conv5
I0502 08:33:21.913360 21005 net.cpp:435] conv5 <- conv4
I0502 08:33:21.913365 21005 net.cpp:409] conv5 -> conv5
I0502 08:33:21.918400 21005 net.cpp:144] Setting up conv5
I0502 08:33:21.918436 21005 net.cpp:151] Top shape: 20 64 15 15 (288000)
I0502 08:33:21.918438 21005 net.cpp:159] Memory required for data: 25416240
I0502 08:33:21.918452 21005 layer_factory.hpp:77] Creating layer relu5
I0502 08:33:21.918462 21005 net.cpp:94] Creating Layer relu5
I0502 08:33:21.918467 21005 net.cpp:435] relu5 <- conv5
I0502 08:33:21.918473 21005 net.cpp:396] relu5 -> conv5 (in-place)
I0502 08:33:21.918483 21005 net.cpp:144] Setting up relu5
I0502 08:33:21.918486 21005 net.cpp:151] Top shape: 20 64 15 15 (288000)
I0502 08:33:21.918489 21005 net.cpp:159] Memory required for data: 26568240
I0502 08:33:21.918493 21005 layer_factory.hpp:77] Creating layer pool5
I0502 08:33:21.918498 21005 net.cpp:94] Creating Layer pool5
I0502 08:33:21.918501 21005 net.cpp:435] pool5 <- conv5
I0502 08:33:21.918505 21005 net.cpp:409] pool5 -> pool5
I0502 08:33:21.918571 21005 net.cpp:144] Setting up pool5
I0502 08:33:21.918578 21005 net.cpp:151] Top shape: 20 64 7 7 (62720)
I0502 08:33:21.918581 21005 net.cpp:159] Memory required for data: 26819120
I0502 08:33:21.918584 21005 layer_factory.hpp:77] Creating layer ip1
I0502 08:33:21.918592 21005 net.cpp:94] Creating Layer ip1
I0502 08:33:21.918596 21005 net.cpp:435] ip1 <- pool5
I0502 08:33:21.918601 21005 net.cpp:409] ip1 -> ip1
I0502 08:33:21.924499 21005 net.cpp:144] Setting up ip1
I0502 08:33:21.924535 21005 net.cpp:151] Top shape: 20 64 (1280)
I0502 08:33:21.924538 21005 net.cpp:159] Memory required for data: 26824240
I0502 08:33:21.924547 21005 layer_factory.hpp:77] Creating layer ip2
I0502 08:33:21.924577 21005 net.cpp:94] Creating Layer ip2
I0502 08:33:21.924582 21005 net.cpp:435] ip2 <- ip1
I0502 08:33:21.924588 21005 net.cpp:409] ip2 -> ip2
I0502 08:33:21.924841 21005 net.cpp:144] Setting up ip2
I0502 08:33:21.924849 21005 net.cpp:151] Top shape: 20 64 (1280)
I0502 08:33:21.924851 21005 net.cpp:159] Memory required for data: 26829360
I0502 08:33:21.924856 21005 layer_factory.hpp:77] Creating layer ip3
I0502 08:33:21.924865 21005 net.cpp:94] Creating Layer ip3
I0502 08:33:21.924867 21005 net.cpp:435] ip3 <- ip2
I0502 08:33:21.924872 21005 net.cpp:409] ip3 -> ip3
I0502 08:33:21.925083 21005 net.cpp:144] Setting up ip3
I0502 08:33:21.925091 21005 net.cpp:151] Top shape: 20 50 (1000)
I0502 08:33:21.925093 21005 net.cpp:159] Memory required for data: 26833360
I0502 08:33:21.925097 21005 layer_factory.hpp:77] Creating layer ip3_ip3_0_split
I0502 08:33:21.925103 21005 net.cpp:94] Creating Layer ip3_ip3_0_split
I0502 08:33:21.925107 21005 net.cpp:435] ip3_ip3_0_split <- ip3
I0502 08:33:21.925110 21005 net.cpp:409] ip3_ip3_0_split -> ip3_ip3_0_split_0
I0502 08:33:21.925115 21005 net.cpp:409] ip3_ip3_0_split -> ip3_ip3_0_split_1
I0502 08:33:21.925156 21005 net.cpp:144] Setting up ip3_ip3_0_split
I0502 08:33:21.925163 21005 net.cpp:151] Top shape: 20 50 (1000)
I0502 08:33:21.925165 21005 net.cpp:151] Top shape: 20 50 (1000)
I0502 08:33:21.925168 21005 net.cpp:159] Memory required for data: 26841360
I0502 08:33:21.925171 21005 layer_factory.hpp:77] Creating layer accuracy
I0502 08:33:21.925176 21005 net.cpp:94] Creating Layer accuracy
I0502 08:33:21.925179 21005 net.cpp:435] accuracy <- ip3_ip3_0_split_0
I0502 08:33:21.925184 21005 net.cpp:435] accuracy <- label_intercept_1_split_0
I0502 08:33:21.925187 21005 net.cpp:409] accuracy -> accuracy
…
