…
I0504 02:26:32.297267 23608 net.cpp:323] The NetState phase (0) differed from the phase (1) specified by a rule in layer intercept
I0504 02:26:32.297284 23608 net.cpp:323] The NetState phase (0) differed from the phase (1) specified by a rule in layer loss
I0504 02:26:32.297366 23608 net.cpp:52] Initializing net from parameters: 
state {
  phase: TRAIN
}
layer {
  name: "parameters"
  type: "HDF5Data"
  top: "data"
  top: "label"
  include {
    phase: TRAIN
  }
  hdf5_data_param {
    source: "/home/purduethu/scratch/radon/d/deng106/CNNStatisticalModel/distributions/input/5_distributions_400_sample_size_train-parameters-path.txt"
    batch_size: 20
  }
}
layer {
  name: "conv1"
  type: "Convolution"
  bottom: "data"
  top: "conv1"
  param {
    lr_mult: 1
  }
  param {
    lr_mult: 2
  }
  convolution_param {
    num_output: 64
    pad: 2
    kernel_size: 5
    stride: 1
    weight_filler {
      type: "gaussian"
      std: 0.0001
    }
    bias_filler {
      type: "constant"
    }
  }
}
layer {
  name: "relu1"
  type: "ReLU"
  bottom: "conv1"
  top: "conv1"
}
layer {
  name: "conv2"
  type: "Convolution"
  bottom: "conv1"
  top: "conv2"
  param {
    lr_mult: 1
  }
  param {
    lr_mult: 2
  }
  convolution_param {
    num_output: 64
    pad: 2
    kernel_size: 5
    stride: 1
    weight_filler {
      type: "gaussian"
      std: 0.01
    }
    bias_filler {
      type: "constant"
    }
  }
}
layer {
  name: "relu2"
  type: "ReLU"
  bottom: "conv2"
  top: "conv2"
}
layer {
  name: "pool2"
  type: "Pooling"
  bottom: "conv2"
  top: "pool2"
  pooling_param {
    pool: MAX
    kernel_size: 3
    stride: 2
  }
}
layer {
  name: "conv3"
  type: "Convolution"
  bottom: "pool2"
  top: "conv3"
  param {
    lr_mult: 1
  }
  param {
    lr_mult: 2
  }
  convolution_param {
    num_output: 128
    pad: 2
    kernel_size: 5
    stride: 1
    weight_filler {
      type: "gaussian"
      std: 0.01
    }
    bias_filler {
      type: "constant"
    }
  }
}
layer {
  name: "relu3"
  type: "ReLU"
  bottom: "conv3"
  top: "conv3"
}
layer {
  name: "conv4"
  type: "Convolution"
  bottom: "conv3"
  top: "conv4"
  param {
    lr_mult: 1
  }
  param {
    lr_mult: 2
  }
  convolution_param {
    num_output: 128
    pad: 2
    kernel_size: 5
    stride: 1
    weight_filler {
      type: "gaussian"
      std: 0.01
    }
    bias_filler {
      type: "constant"
    }
  }
}
layer {
  name: "relu4"
  type: "ReLU"
  bottom: "conv4"
  top: "conv4"
}
layer {
  name: "conv5"
  type: "Convolution"
  bottom: "conv4"
  top: "conv5"
  param {
    lr_mult: 1
  }
  param {
    lr_mult: 2
  }
  convolution_param {
    num_output: 128
    pad: 2
    kernel_size: 5
    stride: 1
    weight_filler {
      type: "gaussian"
      std: 0.01
    }
    bias_filler {
      type: "constant"
    }
  }
}
layer {
  name: "relu5"
  type: "ReLU"
  bottom: "conv5"
  top: "conv5"
}
layer {
  name: "pool5"
  type: "Pooling"
  bottom: "conv5"
  top: "pool5"
  pooling_param {
    pool: AVE
    kernel_size: 3
    stride: 2
  }
}
layer {
  name: "ip1"
  type: "InnerProduct"
  bottom: "pool5"
  top: "ip1"
  param {
    lr_mult: 1
  }
  param {
    lr_mult: 2
  }
  inner_product_param {
    num_output: 1024
    weight_filler {
      type: "gaussian"
      std: 0.1
    }
    bias_filler {
      type: "constant"
    }
  }
}
layer {
  name: "ip2"
  type: "InnerProduct"
  bottom: "ip1"
  top: "ip2"
  param {
    lr_mult: 1
  }
  param {
    lr_mult: 2
  }
  inner_product_param {
    num_output: 512
    weight_filler {
      type: "gaussian"
      std: 0.1
    }
    bias_filler {
      type: "constant"
    }
  }
}
layer {
  name: "ip3"
  type: "InnerProduct"
  bottom: "ip2"
  top: "ip3"
  param {
    lr_mult: 1
  }
  param {
    lr_mult: 2
  }
  inner_product_param {
    num_output: 1
    weight_filler {
      type: "gaussian"
      std: 0.1
    }
    bias_filler {
      type: "constant"
    }
  }
}
layer {
  name: "loss"
  type: "HuberLoss"
  bottom: "ip3"
  bottom: "label"
  top: "loss"
  include {
    phase: TRAIN
  }
}
I0504 02:26:32.297428 23608 layer_factory.hpp:77] Creating layer parameters
I0504 02:26:32.297441 23608 net.cpp:94] Creating Layer parameters
I0504 02:26:32.297446 23608 net.cpp:409] parameters -> data
I0504 02:26:32.297454 23608 net.cpp:409] parameters -> label
I0504 02:26:32.297466 23608 hdf5_data_layer.cpp:79] Loading list of HDF5 filenames from: /home/purduethu/scratch/radon/d/deng106/CNNStatisticalModel/distributions/input/5_distributions_400_sample_size_train-parameters-path.txt
I0504 02:26:32.297480 23608 hdf5_data_layer.cpp:93] Number of HDF5 files: 1
I0504 02:26:32.298043 23608 hdf5.cpp:32] Datatype class: H5T_FLOAT
I0504 02:26:32.368472 23608 net.cpp:144] Setting up parameters
I0504 02:26:32.368504 23608 net.cpp:151] Top shape: 20 1 20 20 (8000)
I0504 02:26:32.368508 23608 net.cpp:151] Top shape: 20 (20)
I0504 02:26:32.368512 23608 net.cpp:159] Memory required for data: 32080
I0504 02:26:32.368518 23608 layer_factory.hpp:77] Creating layer conv1
I0504 02:26:32.368535 23608 net.cpp:94] Creating Layer conv1
I0504 02:26:32.368538 23608 net.cpp:435] conv1 <- data
I0504 02:26:32.368544 23608 net.cpp:409] conv1 -> conv1
I0504 02:26:32.375098 23608 net.cpp:144] Setting up conv1
I0504 02:26:32.375146 23608 net.cpp:151] Top shape: 20 64 20 20 (512000)
I0504 02:26:32.375159 23608 net.cpp:159] Memory required for data: 2080080
I0504 02:26:32.375185 23608 layer_factory.hpp:77] Creating layer relu1
I0504 02:26:32.375205 23608 net.cpp:94] Creating Layer relu1
I0504 02:26:32.375216 23608 net.cpp:435] relu1 <- conv1
I0504 02:26:32.375228 23608 net.cpp:396] relu1 -> conv1 (in-place)
I0504 02:26:32.375257 23608 net.cpp:144] Setting up relu1
I0504 02:26:32.375269 23608 net.cpp:151] Top shape: 20 64 20 20 (512000)
I0504 02:26:32.375277 23608 net.cpp:159] Memory required for data: 4128080
I0504 02:26:32.375285 23608 layer_factory.hpp:77] Creating layer conv2
I0504 02:26:32.375305 23608 net.cpp:94] Creating Layer conv2
I0504 02:26:32.375315 23608 net.cpp:435] conv2 <- conv1
I0504 02:26:32.375329 23608 net.cpp:409] conv2 -> conv2
I0504 02:26:32.403362 23608 net.cpp:144] Setting up conv2
I0504 02:26:32.403399 23608 net.cpp:151] Top shape: 20 64 20 20 (512000)
I0504 02:26:32.403409 23608 net.cpp:159] Memory required for data: 6176080
I0504 02:26:32.403429 23608 layer_factory.hpp:77] Creating layer relu2
I0504 02:26:32.403445 23608 net.cpp:94] Creating Layer relu2
I0504 02:26:32.403453 23608 net.cpp:435] relu2 <- conv2
I0504 02:26:32.403465 23608 net.cpp:396] relu2 -> conv2 (in-place)
I0504 02:26:32.403482 23608 net.cpp:144] Setting up relu2
I0504 02:26:32.403493 23608 net.cpp:151] Top shape: 20 64 20 20 (512000)
I0504 02:26:32.403501 23608 net.cpp:159] Memory required for data: 8224080
I0504 02:26:32.403507 23608 layer_factory.hpp:77] Creating layer pool2
I0504 02:26:32.403519 23608 net.cpp:94] Creating Layer pool2
I0504 02:26:32.403537 23608 net.cpp:435] pool2 <- conv2
I0504 02:26:32.403549 23608 net.cpp:409] pool2 -> pool2
I0504 02:26:32.403674 23608 net.cpp:144] Setting up pool2
I0504 02:26:32.403690 23608 net.cpp:151] Top shape: 20 64 10 10 (128000)
I0504 02:26:32.403698 23608 net.cpp:159] Memory required for data: 8736080
I0504 02:26:32.403707 23608 layer_factory.hpp:77] Creating layer conv3
I0504 02:26:32.403724 23608 net.cpp:94] Creating Layer conv3
I0504 02:26:32.403733 23608 net.cpp:435] conv3 <- pool2
I0504 02:26:32.403743 23608 net.cpp:409] conv3 -> conv3
I0504 02:26:32.423084 23608 net.cpp:144] Setting up conv3
I0504 02:26:32.423125 23608 net.cpp:151] Top shape: 20 128 10 10 (256000)
I0504 02:26:32.423137 23608 net.cpp:159] Memory required for data: 9760080
I0504 02:26:32.423161 23608 layer_factory.hpp:77] Creating layer relu3
I0504 02:26:32.423177 23608 net.cpp:94] Creating Layer relu3
I0504 02:26:32.423187 23608 net.cpp:435] relu3 <- conv3
I0504 02:26:32.423200 23608 net.cpp:396] relu3 -> conv3 (in-place)
I0504 02:26:32.423220 23608 net.cpp:144] Setting up relu3
I0504 02:26:32.423233 23608 net.cpp:151] Top shape: 20 128 10 10 (256000)
I0504 02:26:32.423241 23608 net.cpp:159] Memory required for data: 10784080
I0504 02:26:32.423249 23608 layer_factory.hpp:77] Creating layer conv4
I0504 02:26:32.423271 23608 net.cpp:94] Creating Layer conv4
I0504 02:26:32.423280 23608 net.cpp:435] conv4 <- conv3
I0504 02:26:32.423293 23608 net.cpp:409] conv4 -> conv4
I0504 02:26:32.461330 23608 net.cpp:144] Setting up conv4
I0504 02:26:32.461365 23608 net.cpp:151] Top shape: 20 128 10 10 (256000)
I0504 02:26:32.461375 23608 net.cpp:159] Memory required for data: 11808080
I0504 02:26:32.461390 23608 layer_factory.hpp:77] Creating layer relu4
I0504 02:26:32.461402 23608 net.cpp:94] Creating Layer relu4
I0504 02:26:32.461411 23608 net.cpp:435] relu4 <- conv4
I0504 02:26:32.461422 23608 net.cpp:396] relu4 -> conv4 (in-place)
I0504 02:26:32.461439 23608 net.cpp:144] Setting up relu4
I0504 02:26:32.461449 23608 net.cpp:151] Top shape: 20 128 10 10 (256000)
I0504 02:26:32.461455 23608 net.cpp:159] Memory required for data: 12832080
I0504 02:26:32.461462 23608 layer_factory.hpp:77] Creating layer conv5
I0504 02:26:32.461478 23608 net.cpp:94] Creating Layer conv5
I0504 02:26:32.461486 23608 net.cpp:435] conv5 <- conv4
I0504 02:26:32.461498 23608 net.cpp:409] conv5 -> conv5
I0504 02:26:32.493113 23608 net.cpp:144] Setting up conv5
I0504 02:26:32.493146 23608 net.cpp:151] Top shape: 20 128 10 10 (256000)
I0504 02:26:32.493154 23608 net.cpp:159] Memory required for data: 13856080
I0504 02:26:32.493171 23608 layer_factory.hpp:77] Creating layer relu5
I0504 02:26:32.493186 23608 net.cpp:94] Creating Layer relu5
I0504 02:26:32.493193 23608 net.cpp:435] relu5 <- conv5
I0504 02:26:32.493202 23608 net.cpp:396] relu5 -> conv5 (in-place)
I0504 02:26:32.493216 23608 net.cpp:144] Setting up relu5
I0504 02:26:32.493226 23608 net.cpp:151] Top shape: 20 128 10 10 (256000)
I0504 02:26:32.493230 23608 net.cpp:159] Memory required for data: 14880080
I0504 02:26:32.493237 23608 layer_factory.hpp:77] Creating layer pool5
I0504 02:26:32.493248 23608 net.cpp:94] Creating Layer pool5
I0504 02:26:32.493254 23608 net.cpp:435] pool5 <- conv5
I0504 02:26:32.493263 23608 net.cpp:409] pool5 -> pool5
I0504 02:26:32.493341 23608 net.cpp:144] Setting up pool5
I0504 02:26:32.493353 23608 net.cpp:151] Top shape: 20 128 5 5 (64000)
I0504 02:26:32.493360 23608 net.cpp:159] Memory required for data: 15136080
I0504 02:26:32.493366 23608 layer_factory.hpp:77] Creating layer ip1
I0504 02:26:32.493377 23608 net.cpp:94] Creating Layer ip1
I0504 02:26:32.493383 23608 net.cpp:435] ip1 <- pool5
I0504 02:26:32.493397 23608 net.cpp:409] ip1 -> ip1
I0504 02:26:32.624773 23608 net.cpp:144] Setting up ip1
I0504 02:26:32.624819 23608 net.cpp:151] Top shape: 20 1024 (20480)
I0504 02:26:32.624824 23608 net.cpp:159] Memory required for data: 15218000
I0504 02:26:32.624833 23608 layer_factory.hpp:77] Creating layer ip2
I0504 02:26:32.624846 23608 net.cpp:94] Creating Layer ip2
I0504 02:26:32.624858 23608 net.cpp:435] ip2 <- ip1
I0504 02:26:32.624866 23608 net.cpp:409] ip2 -> ip2
I0504 02:26:32.641860 23608 net.cpp:144] Setting up ip2
I0504 02:26:32.641880 23608 net.cpp:151] Top shape: 20 512 (10240)
I0504 02:26:32.641885 23608 net.cpp:159] Memory required for data: 15258960
I0504 02:26:32.641892 23608 layer_factory.hpp:77] Creating layer ip3
I0504 02:26:32.641901 23608 net.cpp:94] Creating Layer ip3
I0504 02:26:32.641906 23608 net.cpp:435] ip3 <- ip2
I0504 02:26:32.641913 23608 net.cpp:409] ip3 -> ip3
I0504 02:26:32.642058 23608 net.cpp:144] Setting up ip3
I0504 02:26:32.642066 23608 net.cpp:151] Top shape: 20 1 (20)
I0504 02:26:32.642071 23608 net.cpp:159] Memory required for data: 15259040
I0504 02:26:32.642076 23608 layer_factory.hpp:77] Creating layer loss
I0504 02:26:32.642091 23608 net.cpp:94] Creating Layer loss
I0504 02:26:32.642096 23608 net.cpp:435] loss <- ip3
I0504 02:26:32.642099 23608 net.cpp:435] loss <- label
I0504 02:26:32.642107 23608 net.cpp:409] loss -> loss
I0504 02:26:32.642168 23608 net.cpp:144] Setting up loss
…
I0504 02:26:32.806241 23608 net.cpp:323] The NetState phase (0) differed from the phase (1) specified by a rule in layer intercept
I0504 02:26:32.806258 23608 net.cpp:323] The NetState phase (0) differed from the phase (1) specified by a rule in layer accuracy
I0504 02:26:32.806347 23608 net.cpp:52] Initializing net from parameters: 
state {
  phase: TRAIN
}
layer {
  name: "parameters"
  type: "HDF5Data"
  top: "data"
  top: "label"
  include {
    phase: TRAIN
  }
  hdf5_data_param {
    source: "/home/purduethu/scratch/radon/d/deng106/CNNStatisticalModel/distributions/input/5_distributions_400_sample_size_train-distributions-path.txt"
    batch_size: 20
  }
}
layer {
  name: "conv1"
  type: "Convolution"
  bottom: "data"
  top: "conv1"
  param {
    lr_mult: 1
  }
  param {
    lr_mult: 2
  }
  convolution_param {
    num_output: 64
    pad: 2
    kernel_size: 5
    stride: 1
    weight_filler {
      type: "gaussian"
      std: 0.0001
    }
    bias_filler {
      type: "constant"
    }
  }
}
layer {
  name: "relu1"
  type: "ReLU"
  bottom: "conv1"
  top: "conv1"
}
layer {
  name: "conv2"
  type: "Convolution"
  bottom: "conv1"
  top: "conv2"
  param {
    lr_mult: 1
  }
  param {
    lr_mult: 2
  }
  convolution_param {
    num_output: 64
    pad: 2
    kernel_size: 5
    stride: 1
    weight_filler {
      type: "gaussian"
      std: 0.01
    }
    bias_filler {
      type: "constant"
    }
  }
}
layer {
  name: "relu2"
  type: "ReLU"
  bottom: "conv2"
  top: "conv2"
}
layer {
  name: "pool2"
  type: "Pooling"
  bottom: "conv2"
  top: "pool2"
  pooling_param {
    pool: MAX
    kernel_size: 3
    stride: 2
  }
}
layer {
  name: "conv3"
  type: "Convolution"
  bottom: "pool2"
  top: "conv3"
  param {
    lr_mult: 1
  }
  param {
    lr_mult: 2
  }
  convolution_param {
    num_output: 128
    pad: 2
    kernel_size: 5
    stride: 1
    weight_filler {
      type: "gaussian"
      std: 0.01
    }
    bias_filler {
      type: "constant"
    }
  }
}
layer {
  name: "relu3"
  type: "ReLU"
  bottom: "conv3"
  top: "conv3"
}
layer {
  name: "conv4"
  type: "Convolution"
  bottom: "conv3"
  top: "conv4"
  param {
    lr_mult: 1
  }
  param {
    lr_mult: 2
  }
  convolution_param {
    num_output: 128
    pad: 2
    kernel_size: 5
    stride: 1
    weight_filler {
      type: "gaussian"
      std: 0.01
    }
    bias_filler {
      type: "constant"
    }
  }
}
layer {
  name: "relu4"
  type: "ReLU"
  bottom: "conv4"
  top: "conv4"
}
layer {
  name: "conv5"
  type: "Convolution"
  bottom: "conv4"
  top: "conv5"
  param {
    lr_mult: 1
  }
  param {
    lr_mult: 2
  }
  convolution_param {
    num_output: 128
    pad: 2
    kernel_size: 5
    stride: 1
    weight_filler {
      type: "gaussian"
      std: 0.01
    }
    bias_filler {
      type: "constant"
    }
  }
}
layer {
  name: "relu5"
  type: "ReLU"
  bottom: "conv5"
  top: "conv5"
}
layer {
  name: "pool5"
  type: "Pooling"
  bottom: "conv5"
  top: "pool5"
  pooling_param {
    pool: AVE
    kernel_size: 3
    stride: 2
  }
}
layer {
  name: "ip1"
  type: "InnerProduct"
  bottom: "pool5"
  top: "ip1"
  param {
    lr_mult: 1
  }
  param {
    lr_mult: 2
  }
  inner_product_param {
    num_output: 1024
    weight_filler {
      type: "gaussian"
      std: 0.1
    }
    bias_filler {
      type: "constant"
    }
  }
}
layer {
  name: "ip2"
  type: "InnerProduct"
  bottom: "ip1"
  top: "ip2"
  param {
    lr_mult: 1
  }
  param {
    lr_mult: 2
  }
  inner_product_param {
    num_output: 512
    weight_filler {
      type: "gaussian"
      std: 0.1
    }
    bias_filler {
      type: "constant"
    }
  }
}
layer {
  name: "ip3"
  type: "InnerProduct"
  bottom: "ip2"
  top: "ip3"
  param {
    lr_mult: 1
  }
  param {
    lr_mult: 2
  }
  inner_product_param {
    num_output: 50
    weight_filler {
      type: "gaussian"
      std: 0.1
    }
    bias_filler {
      type: "constant"
    }
  }
}
layer {
  name: "loss"
  type: "SoftmaxWithLoss"
  bottom: "ip3"
  bottom: "label"
  top: "loss"
}
I0504 02:26:32.806401 23608 layer_factory.hpp:77] Creating layer parameters
I0504 02:26:32.806409 23608 net.cpp:94] Creating Layer parameters
I0504 02:26:32.806413 23608 net.cpp:409] parameters -> data
I0504 02:26:32.806419 23608 net.cpp:409] parameters -> label
I0504 02:26:32.806426 23608 hdf5_data_layer.cpp:79] Loading list of HDF5 filenames from: /home/purduethu/scratch/radon/d/deng106/CNNStatisticalModel/distributions/input/5_distributions_400_sample_size_train-distributions-path.txt
I0504 02:26:32.806442 23608 hdf5_data_layer.cpp:93] Number of HDF5 files: 1
I0504 02:26:32.870689 23608 hdf5.cpp:35] Datatype class: H5T_INTEGER
I0504 02:26:32.871147 23608 net.cpp:144] Setting up parameters
I0504 02:26:32.871163 23608 net.cpp:151] Top shape: 20 1 20 20 (8000)
I0504 02:26:32.871168 23608 net.cpp:151] Top shape: 20 (20)
I0504 02:26:32.871172 23608 net.cpp:159] Memory required for data: 32080
I0504 02:26:32.871177 23608 layer_factory.hpp:77] Creating layer conv1
I0504 02:26:32.871193 23608 net.cpp:94] Creating Layer conv1
I0504 02:26:32.871197 23608 net.cpp:435] conv1 <- data
I0504 02:26:32.871203 23608 net.cpp:409] conv1 -> conv1
I0504 02:26:32.873558 23608 net.cpp:144] Setting up conv1
I0504 02:26:32.873572 23608 net.cpp:151] Top shape: 20 64 20 20 (512000)
I0504 02:26:32.873576 23608 net.cpp:159] Memory required for data: 2080080
I0504 02:26:32.873586 23608 layer_factory.hpp:77] Creating layer relu1
I0504 02:26:32.873594 23608 net.cpp:94] Creating Layer relu1
I0504 02:26:32.873597 23608 net.cpp:435] relu1 <- conv1
I0504 02:26:32.873601 23608 net.cpp:396] relu1 -> conv1 (in-place)
I0504 02:26:32.873610 23608 net.cpp:144] Setting up relu1
I0504 02:26:32.873613 23608 net.cpp:151] Top shape: 20 64 20 20 (512000)
I0504 02:26:32.873616 23608 net.cpp:159] Memory required for data: 4128080
I0504 02:26:32.873620 23608 layer_factory.hpp:77] Creating layer conv2
I0504 02:26:32.873627 23608 net.cpp:94] Creating Layer conv2
I0504 02:26:32.873631 23608 net.cpp:435] conv2 <- conv1
I0504 02:26:32.873634 23608 net.cpp:409] conv2 -> conv2
I0504 02:26:32.883802 23608 net.cpp:144] Setting up conv2
I0504 02:26:32.883821 23608 net.cpp:151] Top shape: 20 64 20 20 (512000)
I0504 02:26:32.883826 23608 net.cpp:159] Memory required for data: 6176080
I0504 02:26:32.883833 23608 layer_factory.hpp:77] Creating layer relu2
I0504 02:26:32.883841 23608 net.cpp:94] Creating Layer relu2
I0504 02:26:32.883846 23608 net.cpp:435] relu2 <- conv2
I0504 02:26:32.883851 23608 net.cpp:396] relu2 -> conv2 (in-place)
I0504 02:26:32.883857 23608 net.cpp:144] Setting up relu2
I0504 02:26:32.883862 23608 net.cpp:151] Top shape: 20 64 20 20 (512000)
I0504 02:26:32.883864 23608 net.cpp:159] Memory required for data: 8224080
I0504 02:26:32.883867 23608 layer_factory.hpp:77] Creating layer pool2
I0504 02:26:32.883873 23608 net.cpp:94] Creating Layer pool2
I0504 02:26:32.883877 23608 net.cpp:435] pool2 <- conv2
I0504 02:26:32.883880 23608 net.cpp:409] pool2 -> pool2
I0504 02:26:32.883934 23608 net.cpp:144] Setting up pool2
I0504 02:26:32.883941 23608 net.cpp:151] Top shape: 20 64 10 10 (128000)
I0504 02:26:32.883944 23608 net.cpp:159] Memory required for data: 8736080
I0504 02:26:32.883947 23608 layer_factory.hpp:77] Creating layer conv3
I0504 02:26:32.883955 23608 net.cpp:94] Creating Layer conv3
I0504 02:26:32.883958 23608 net.cpp:435] conv3 <- pool2
I0504 02:26:32.883970 23608 net.cpp:409] conv3 -> conv3
I0504 02:26:32.899318 23608 net.cpp:144] Setting up conv3
I0504 02:26:32.899338 23608 net.cpp:151] Top shape: 20 128 10 10 (256000)
I0504 02:26:32.899343 23608 net.cpp:159] Memory required for data: 9760080
I0504 02:26:32.899351 23608 layer_factory.hpp:77] Creating layer relu3
I0504 02:26:32.899358 23608 net.cpp:94] Creating Layer relu3
I0504 02:26:32.899361 23608 net.cpp:435] relu3 <- conv3
I0504 02:26:32.899366 23608 net.cpp:396] relu3 -> conv3 (in-place)
I0504 02:26:32.899374 23608 net.cpp:144] Setting up relu3
I0504 02:26:32.899379 23608 net.cpp:151] Top shape: 20 128 10 10 (256000)
I0504 02:26:32.899381 23608 net.cpp:159] Memory required for data: 10784080
I0504 02:26:32.899384 23608 layer_factory.hpp:77] Creating layer conv4
I0504 02:26:32.899394 23608 net.cpp:94] Creating Layer conv4
I0504 02:26:32.899396 23608 net.cpp:435] conv4 <- conv3
I0504 02:26:32.899401 23608 net.cpp:409] conv4 -> conv4
I0504 02:26:32.920433 23608 net.cpp:144] Setting up conv4
I0504 02:26:32.920456 23608 net.cpp:151] Top shape: 20 128 10 10 (256000)
I0504 02:26:32.920460 23608 net.cpp:159] Memory required for data: 11808080
I0504 02:26:32.920467 23608 layer_factory.hpp:77] Creating layer relu4
I0504 02:26:32.920475 23608 net.cpp:94] Creating Layer relu4
I0504 02:26:32.920480 23608 net.cpp:435] relu4 <- conv4
I0504 02:26:32.920483 23608 net.cpp:396] relu4 -> conv4 (in-place)
I0504 02:26:32.920491 23608 net.cpp:144] Setting up relu4
I0504 02:26:32.920495 23608 net.cpp:151] Top shape: 20 128 10 10 (256000)
I0504 02:26:32.920498 23608 net.cpp:159] Memory required for data: 12832080
I0504 02:26:32.920501 23608 layer_factory.hpp:77] Creating layer conv5
I0504 02:26:32.920511 23608 net.cpp:94] Creating Layer conv5
I0504 02:26:32.920513 23608 net.cpp:435] conv5 <- conv4
I0504 02:26:32.920518 23608 net.cpp:409] conv5 -> conv5
I0504 02:26:32.939430 23608 net.cpp:144] Setting up conv5
I0504 02:26:32.939455 23608 net.cpp:151] Top shape: 20 128 10 10 (256000)
I0504 02:26:32.939460 23608 net.cpp:159] Memory required for data: 13856080
I0504 02:26:32.939472 23608 layer_factory.hpp:77] Creating layer relu5
I0504 02:26:32.939481 23608 net.cpp:94] Creating Layer relu5
I0504 02:26:32.939486 23608 net.cpp:435] relu5 <- conv5
I0504 02:26:32.939491 23608 net.cpp:396] relu5 -> conv5 (in-place)
I0504 02:26:32.939501 23608 net.cpp:144] Setting up relu5
I0504 02:26:32.939505 23608 net.cpp:151] Top shape: 20 128 10 10 (256000)
I0504 02:26:32.939508 23608 net.cpp:159] Memory required for data: 14880080
I0504 02:26:32.939512 23608 layer_factory.hpp:77] Creating layer pool5
I0504 02:26:32.939517 23608 net.cpp:94] Creating Layer pool5
I0504 02:26:32.939519 23608 net.cpp:435] pool5 <- conv5
I0504 02:26:32.939524 23608 net.cpp:409] pool5 -> pool5
I0504 02:26:32.939574 23608 net.cpp:144] Setting up pool5
I0504 02:26:32.939581 23608 net.cpp:151] Top shape: 20 128 5 5 (64000)
I0504 02:26:32.939584 23608 net.cpp:159] Memory required for data: 15136080
I0504 02:26:32.939587 23608 layer_factory.hpp:77] Creating layer ip1
I0504 02:26:32.939595 23608 net.cpp:94] Creating Layer ip1
I0504 02:26:32.939599 23608 net.cpp:435] ip1 <- pool5
I0504 02:26:32.939602 23608 net.cpp:409] ip1 -> ip1
I0504 02:26:33.023289 23608 net.cpp:144] Setting up ip1
I0504 02:26:33.023322 23608 net.cpp:151] Top shape: 20 1024 (20480)
I0504 02:26:33.023326 23608 net.cpp:159] Memory required for data: 15218000
I0504 02:26:33.023335 23608 layer_factory.hpp:77] Creating layer ip2
I0504 02:26:33.023346 23608 net.cpp:94] Creating Layer ip2
I0504 02:26:33.023351 23608 net.cpp:435] ip2 <- ip1
I0504 02:26:33.023357 23608 net.cpp:409] ip2 -> ip2
I0504 02:26:33.037169 23608 net.cpp:144] Setting up ip2
I0504 02:26:33.037187 23608 net.cpp:151] Top shape: 20 512 (10240)
I0504 02:26:33.037191 23608 net.cpp:159] Memory required for data: 15258960
I0504 02:26:33.037199 23608 layer_factory.hpp:77] Creating layer ip3
I0504 02:26:33.037206 23608 net.cpp:94] Creating Layer ip3
I0504 02:26:33.037210 23608 net.cpp:435] ip3 <- ip2
I0504 02:26:33.037219 23608 net.cpp:409] ip3 -> ip3
I0504 02:26:33.038002 23608 net.cpp:144] Setting up ip3
I0504 02:26:33.038012 23608 net.cpp:151] Top shape: 20 50 (1000)
I0504 02:26:33.038015 23608 net.cpp:159] Memory required for data: 15262960
I0504 02:26:33.038020 23608 layer_factory.hpp:77] Creating layer loss
I0504 02:26:33.038028 23608 net.cpp:94] Creating Layer loss
I0504 02:26:33.038031 23608 net.cpp:435] loss <- ip3
I0504 02:26:33.038035 23608 net.cpp:435] loss <- label
I0504 02:26:33.038040 23608 net.cpp:409] loss -> loss
I0504 02:26:33.038048 23608 layer_factory.hpp:77] Creating layer loss
…
I0504 02:26:33.038597 23608 solver.cpp:181] Creating test net (#0) specified by net file: ./protocol/dis_5_400_dimension.protocol_distribution
I0504 02:26:33.038627 23608 net.cpp:323] The NetState phase (1) differed from the phase (0) specified by a rule in layer parameters
I0504 02:26:33.038729 23608 net.cpp:52] Initializing net from parameters: 
state {
  phase: TEST
}
layer {
  name: "intercept"
  type: "HDF5Data"
  top: "data"
  top: "label"
  include {
    phase: TEST
  }
  hdf5_data_param {
    source: "/home/purduethu/scratch/radon/d/deng106/CNNStatisticalModel/distributions/input/5_distributions_400_sample_size_test-distributions-path.txt"
    batch_size: 20
  }
}
layer {
  name: "conv1"
  type: "Convolution"
  bottom: "data"
  top: "conv1"
  param {
    lr_mult: 1
  }
  param {
    lr_mult: 2
  }
  convolution_param {
    num_output: 64
    pad: 2
    kernel_size: 5
    stride: 1
    weight_filler {
      type: "gaussian"
      std: 0.0001
    }
    bias_filler {
      type: "constant"
    }
  }
}
layer {
  name: "relu1"
  type: "ReLU"
  bottom: "conv1"
  top: "conv1"
}
layer {
  name: "conv2"
  type: "Convolution"
  bottom: "conv1"
  top: "conv2"
  param {
    lr_mult: 1
  }
  param {
    lr_mult: 2
  }
  convolution_param {
    num_output: 64
    pad: 2
    kernel_size: 5
    stride: 1
    weight_filler {
      type: "gaussian"
      std: 0.01
    }
    bias_filler {
      type: "constant"
    }
  }
}
layer {
  name: "relu2"
  type: "ReLU"
  bottom: "conv2"
  top: "conv2"
}
layer {
  name: "pool2"
  type: "Pooling"
  bottom: "conv2"
  top: "pool2"
  pooling_param {
    pool: MAX
    kernel_size: 3
    stride: 2
  }
}
layer {
  name: "conv3"
  type: "Convolution"
  bottom: "pool2"
  top: "conv3"
  param {
    lr_mult: 1
  }
  param {
    lr_mult: 2
  }
  convolution_param {
    num_output: 128
    pad: 2
    kernel_size: 5
    stride: 1
    weight_filler {
      type: "gaussian"
      std: 0.01
    }
    bias_filler {
      type: "constant"
    }
  }
}
layer {
  name: "relu3"
  type: "ReLU"
  bottom: "conv3"
  top: "conv3"
}
layer {
  name: "conv4"
  type: "Convolution"
  bottom: "conv3"
  top: "conv4"
  param {
    lr_mult: 1
  }
  param {
    lr_mult: 2
  }
  convolution_param {
    num_output: 128
    pad: 2
    kernel_size: 5
    stride: 1
    weight_filler {
      type: "gaussian"
      std: 0.01
    }
    bias_filler {
      type: "constant"
    }
  }
}
layer {
  name: "relu4"
  type: "ReLU"
  bottom: "conv4"
  top: "conv4"
}
layer {
  name: "conv5"
  type: "Convolution"
  bottom: "conv4"
  top: "conv5"
  param {
    lr_mult: 1
  }
  param {
    lr_mult: 2
  }
  convolution_param {
    num_output: 128
    pad: 2
    kernel_size: 5
    stride: 1
    weight_filler {
      type: "gaussian"
      std: 0.01
    }
    bias_filler {
      type: "constant"
    }
  }
}
layer {
  name: "relu5"
  type: "ReLU"
  bottom: "conv5"
  top: "conv5"
}
layer {
  name: "pool5"
  type: "Pooling"
  bottom: "conv5"
  top: "pool5"
  pooling_param {
    pool: AVE
    kernel_size: 3
    stride: 2
  }
}
layer {
  name: "ip1"
  type: "InnerProduct"
  bottom: "pool5"
  top: "ip1"
  param {
    lr_mult: 1
  }
  param {
    lr_mult: 2
  }
  inner_product_param {
    num_output: 1024
    weight_filler {
      type: "gaussian"
      std: 0.1
    }
    bias_filler {
      type: "constant"
    }
  }
}
layer {
  name: "ip2"
  type: "InnerProduct"
  bottom: "ip1"
  top: "ip2"
  param {
    lr_mult: 1
  }
  param {
    lr_mult: 2
  }
  inner_product_param {
    num_output: 512
    weight_filler {
      type: "gaussian"
      std: 0.1
    }
    bias_filler {
      type: "constant"
    }
  }
}
layer {
  name: "ip3"
  type: "InnerProduct"
  bottom: "ip2"
  top: "ip3"
  param {
    lr_mult: 1
  }
  param {
    lr_mult: 2
  }
  inner_product_param {
    num_output: 50
    weight_filler {
      type: "gaussian"
      std: 0.1
    }
    bias_filler {
      type: "constant"
    }
  }
}
layer {
  name: "accuracy"
  type: "Accuracy"
  bottom: "ip3"
  bottom: "label"
  top: "accuracy"
  include {
    phase: TEST
  }
}
layer {
  name: "loss"
  type: "SoftmaxWithLoss"
  bottom: "ip3"
  bottom: "label"
  top: "loss"
}
I0504 02:26:33.038805 23608 layer_factory.hpp:77] Creating layer intercept
I0504 02:26:33.038813 23608 net.cpp:94] Creating Layer intercept
I0504 02:26:33.038817 23608 net.cpp:409] intercept -> data
I0504 02:26:33.038825 23608 net.cpp:409] intercept -> label
I0504 02:26:33.038830 23608 hdf5_data_layer.cpp:79] Loading list of HDF5 filenames from: /home/purduethu/scratch/radon/d/deng106/CNNStatisticalModel/distributions/input/5_distributions_400_sample_size_test-distributions-path.txt
I0504 02:26:33.038849 23608 hdf5_data_layer.cpp:93] Number of HDF5 files: 1
I0504 02:26:33.055433 23608 net.cpp:144] Setting up intercept
I0504 02:26:33.055465 23608 net.cpp:151] Top shape: 20 1 20 20 (8000)
I0504 02:26:33.055470 23608 net.cpp:151] Top shape: 20 (20)
I0504 02:26:33.055474 23608 net.cpp:159] Memory required for data: 32080
I0504 02:26:33.055480 23608 layer_factory.hpp:77] Creating layer label_intercept_1_split
I0504 02:26:33.055498 23608 net.cpp:94] Creating Layer label_intercept_1_split
I0504 02:26:33.055503 23608 net.cpp:435] label_intercept_1_split <- label
I0504 02:26:33.055510 23608 net.cpp:409] label_intercept_1_split -> label_intercept_1_split_0
I0504 02:26:33.055517 23608 net.cpp:409] label_intercept_1_split -> label_intercept_1_split_1
I0504 02:26:33.055560 23608 net.cpp:144] Setting up label_intercept_1_split
I0504 02:26:33.055567 23608 net.cpp:151] Top shape: 20 (20)
I0504 02:26:33.055570 23608 net.cpp:151] Top shape: 20 (20)
I0504 02:26:33.055573 23608 net.cpp:159] Memory required for data: 32240
I0504 02:26:33.055577 23608 layer_factory.hpp:77] Creating layer conv1
I0504 02:26:33.055588 23608 net.cpp:94] Creating Layer conv1
I0504 02:26:33.055591 23608 net.cpp:435] conv1 <- data
I0504 02:26:33.055596 23608 net.cpp:409] conv1 -> conv1
I0504 02:26:33.056505 23608 net.cpp:144] Setting up conv1
I0504 02:26:33.056526 23608 net.cpp:151] Top shape: 20 64 20 20 (512000)
I0504 02:26:33.056530 23608 net.cpp:159] Memory required for data: 2080240
I0504 02:26:33.056540 23608 layer_factory.hpp:77] Creating layer relu1
I0504 02:26:33.056547 23608 net.cpp:94] Creating Layer relu1
I0504 02:26:33.056571 23608 net.cpp:435] relu1 <- conv1
I0504 02:26:33.056576 23608 net.cpp:396] relu1 -> conv1 (in-place)
I0504 02:26:33.056584 23608 net.cpp:144] Setting up relu1
I0504 02:26:33.056589 23608 net.cpp:151] Top shape: 20 64 20 20 (512000)
I0504 02:26:33.056592 23608 net.cpp:159] Memory required for data: 4128240
I0504 02:26:33.056596 23608 layer_factory.hpp:77] Creating layer conv2
I0504 02:26:33.056603 23608 net.cpp:94] Creating Layer conv2
I0504 02:26:33.056607 23608 net.cpp:435] conv2 <- conv1
I0504 02:26:33.056612 23608 net.cpp:409] conv2 -> conv2
I0504 02:26:33.061827 23608 net.cpp:144] Setting up conv2
I0504 02:26:33.061841 23608 net.cpp:151] Top shape: 20 64 20 20 (512000)
I0504 02:26:33.061846 23608 net.cpp:159] Memory required for data: 6176240
I0504 02:26:33.061853 23608 layer_factory.hpp:77] Creating layer relu2
I0504 02:26:33.061859 23608 net.cpp:94] Creating Layer relu2
I0504 02:26:33.061862 23608 net.cpp:435] relu2 <- conv2
I0504 02:26:33.061867 23608 net.cpp:396] relu2 -> conv2 (in-place)
I0504 02:26:33.061874 23608 net.cpp:144] Setting up relu2
I0504 02:26:33.061878 23608 net.cpp:151] Top shape: 20 64 20 20 (512000)
I0504 02:26:33.061882 23608 net.cpp:159] Memory required for data: 8224240
I0504 02:26:33.061884 23608 layer_factory.hpp:77] Creating layer pool2
I0504 02:26:33.061890 23608 net.cpp:94] Creating Layer pool2
I0504 02:26:33.061893 23608 net.cpp:435] pool2 <- conv2
I0504 02:26:33.061898 23608 net.cpp:409] pool2 -> pool2
I0504 02:26:33.061951 23608 net.cpp:144] Setting up pool2
I0504 02:26:33.061959 23608 net.cpp:151] Top shape: 20 64 10 10 (128000)
I0504 02:26:33.061961 23608 net.cpp:159] Memory required for data: 8736240
I0504 02:26:33.061964 23608 layer_factory.hpp:77] Creating layer conv3
I0504 02:26:33.061972 23608 net.cpp:94] Creating Layer conv3
I0504 02:26:33.061975 23608 net.cpp:435] conv3 <- pool2
I0504 02:26:33.061980 23608 net.cpp:409] conv3 -> conv3
I0504 02:26:33.069473 23608 net.cpp:144] Setting up conv3
I0504 02:26:33.069488 23608 net.cpp:151] Top shape: 20 128 10 10 (256000)
I0504 02:26:33.069491 23608 net.cpp:159] Memory required for data: 9760240
I0504 02:26:33.069499 23608 layer_factory.hpp:77] Creating layer relu3
I0504 02:26:33.069507 23608 net.cpp:94] Creating Layer relu3
I0504 02:26:33.069510 23608 net.cpp:435] relu3 <- conv3
I0504 02:26:33.069515 23608 net.cpp:396] relu3 -> conv3 (in-place)
I0504 02:26:33.069522 23608 net.cpp:144] Setting up relu3
I0504 02:26:33.069527 23608 net.cpp:151] Top shape: 20 128 10 10 (256000)
I0504 02:26:33.069530 23608 net.cpp:159] Memory required for data: 10784240
I0504 02:26:33.069533 23608 layer_factory.hpp:77] Creating layer conv4
I0504 02:26:33.069540 23608 net.cpp:94] Creating Layer conv4
I0504 02:26:33.069545 23608 net.cpp:435] conv4 <- conv3
I0504 02:26:33.069550 23608 net.cpp:409] conv4 -> conv4
I0504 02:26:33.084853 23608 net.cpp:144] Setting up conv4
I0504 02:26:33.084873 23608 net.cpp:151] Top shape: 20 128 10 10 (256000)
I0504 02:26:33.084877 23608 net.cpp:159] Memory required for data: 11808240
I0504 02:26:33.084884 23608 layer_factory.hpp:77] Creating layer relu4
I0504 02:26:33.084892 23608 net.cpp:94] Creating Layer relu4
I0504 02:26:33.084895 23608 net.cpp:435] relu4 <- conv4
I0504 02:26:33.084900 23608 net.cpp:396] relu4 -> conv4 (in-place)
I0504 02:26:33.084908 23608 net.cpp:144] Setting up relu4
I0504 02:26:33.084913 23608 net.cpp:151] Top shape: 20 128 10 10 (256000)
I0504 02:26:33.084914 23608 net.cpp:159] Memory required for data: 12832240
I0504 02:26:33.084918 23608 layer_factory.hpp:77] Creating layer conv5
I0504 02:26:33.084926 23608 net.cpp:94] Creating Layer conv5
I0504 02:26:33.084929 23608 net.cpp:435] conv5 <- conv4
I0504 02:26:33.084934 23608 net.cpp:409] conv5 -> conv5
I0504 02:26:33.098695 23608 net.cpp:144] Setting up conv5
I0504 02:26:33.098719 23608 net.cpp:151] Top shape: 20 128 10 10 (256000)
I0504 02:26:33.098723 23608 net.cpp:159] Memory required for data: 13856240
I0504 02:26:33.098733 23608 layer_factory.hpp:77] Creating layer relu5
I0504 02:26:33.098742 23608 net.cpp:94] Creating Layer relu5
I0504 02:26:33.098744 23608 net.cpp:435] relu5 <- conv5
I0504 02:26:33.098749 23608 net.cpp:396] relu5 -> conv5 (in-place)
I0504 02:26:33.098757 23608 net.cpp:144] Setting up relu5
I0504 02:26:33.098762 23608 net.cpp:151] Top shape: 20 128 10 10 (256000)
I0504 02:26:33.098764 23608 net.cpp:159] Memory required for data: 14880240
I0504 02:26:33.098767 23608 layer_factory.hpp:77] Creating layer pool5
I0504 02:26:33.098773 23608 net.cpp:94] Creating Layer pool5
I0504 02:26:33.098776 23608 net.cpp:435] pool5 <- conv5
I0504 02:26:33.098780 23608 net.cpp:409] pool5 -> pool5
I0504 02:26:33.098822 23608 net.cpp:144] Setting up pool5
I0504 02:26:33.098829 23608 net.cpp:151] Top shape: 20 128 5 5 (64000)
I0504 02:26:33.098832 23608 net.cpp:159] Memory required for data: 15136240
I0504 02:26:33.098835 23608 layer_factory.hpp:77] Creating layer ip1
I0504 02:26:33.098842 23608 net.cpp:94] Creating Layer ip1
I0504 02:26:33.098846 23608 net.cpp:435] ip1 <- pool5
I0504 02:26:33.098850 23608 net.cpp:409] ip1 -> ip1
I0504 02:26:33.183305 23608 net.cpp:144] Setting up ip1
I0504 02:26:33.183346 23608 net.cpp:151] Top shape: 20 1024 (20480)
I0504 02:26:33.183349 23608 net.cpp:159] Memory required for data: 15218160
I0504 02:26:33.183358 23608 layer_factory.hpp:77] Creating layer ip2
I0504 02:26:33.183369 23608 net.cpp:94] Creating Layer ip2
I0504 02:26:33.183374 23608 net.cpp:435] ip2 <- ip1
I0504 02:26:33.183380 23608 net.cpp:409] ip2 -> ip2
I0504 02:26:33.197243 23608 net.cpp:144] Setting up ip2
I0504 02:26:33.197262 23608 net.cpp:151] Top shape: 20 512 (10240)
I0504 02:26:33.197265 23608 net.cpp:159] Memory required for data: 15259120
I0504 02:26:33.197273 23608 layer_factory.hpp:77] Creating layer ip3
I0504 02:26:33.197283 23608 net.cpp:94] Creating Layer ip3
I0504 02:26:33.197288 23608 net.cpp:435] ip3 <- ip2
I0504 02:26:33.197293 23608 net.cpp:409] ip3 -> ip3
I0504 02:26:33.198065 23608 net.cpp:144] Setting up ip3
I0504 02:26:33.198073 23608 net.cpp:151] Top shape: 20 50 (1000)
I0504 02:26:33.198076 23608 net.cpp:159] Memory required for data: 15263120
I0504 02:26:33.198082 23608 layer_factory.hpp:77] Creating layer ip3_ip3_0_split
I0504 02:26:33.198087 23608 net.cpp:94] Creating Layer ip3_ip3_0_split
I0504 02:26:33.198091 23608 net.cpp:435] ip3_ip3_0_split <- ip3
I0504 02:26:33.198096 23608 net.cpp:409] ip3_ip3_0_split -> ip3_ip3_0_split_0
I0504 02:26:33.198101 23608 net.cpp:409] ip3_ip3_0_split -> ip3_ip3_0_split_1
I0504 02:26:33.198153 23608 net.cpp:144] Setting up ip3_ip3_0_split
I0504 02:26:33.198158 23608 net.cpp:151] Top shape: 20 50 (1000)
I0504 02:26:33.198163 23608 net.cpp:151] Top shape: 20 50 (1000)
I0504 02:26:33.198164 23608 net.cpp:159] Memory required for data: 15271120
I0504 02:26:33.198168 23608 layer_factory.hpp:77] Creating layer accuracy
I0504 02:26:33.198173 23608 net.cpp:94] Creating Layer accuracy
I0504 02:26:33.198177 23608 net.cpp:435] accuracy <- ip3_ip3_0_split_0
I0504 02:26:33.198181 23608 net.cpp:435] accuracy <- label_intercept_1_split_0
I0504 02:26:33.198186 23608 net.cpp:409] accuracy -> accuracy
…
