…
I0505 05:41:40.646785  3628 net.cpp:323] The NetState phase (0) differed from the phase (1) specified by a rule in layer intercept
I0505 05:41:40.646802  3628 net.cpp:323] The NetState phase (0) differed from the phase (1) specified by a rule in layer accuracy
I0505 05:41:40.646886  3628 net.cpp:52] Initializing net from parameters: 
state {
  phase: TRAIN
}
layer {
  name: "parameters"
  type: "HDF5Data"
  top: "data"
  top: "label"
  include {
    phase: TRAIN
  }
  hdf5_data_param {
    source: "/home/purduethu/scratch/radon/d/deng106/CNNStatisticalModel/distributions/input/20_distributions_100_sample_size_train-distributions-path.txt"
    batch_size: 20
  }
}
layer {
  name: "conv1"
  type: "Convolution"
  bottom: "data"
  top: "conv1"
  param {
    lr_mult: 1
  }
  param {
    lr_mult: 2
  }
  convolution_param {
    num_output: 64
    pad: 2
    kernel_size: 5
    stride: 1
    weight_filler {
      type: "gaussian"
      std: 0.0001
    }
    bias_filler {
      type: "constant"
    }
  }
}
layer {
  name: "relu1"
  type: "ReLU"
  bottom: "conv1"
  top: "conv1"
}
layer {
  name: "pool1"
  type: "Pooling"
  bottom: "conv1"
  top: "pool1"
  pooling_param {
    pool: MAX
    kernel_size: 3
    stride: 2
  }
}
layer {
  name: "conv2"
  type: "Convolution"
  bottom: "pool1"
  top: "conv2"
  param {
    lr_mult: 1
  }
  param {
    lr_mult: 2
  }
  convolution_param {
    num_output: 128
    pad: 2
    kernel_size: 5
    stride: 1
    weight_filler {
      type: "gaussian"
      std: 0.01
    }
    bias_filler {
      type: "constant"
    }
  }
}
layer {
  name: "relu2"
  type: "ReLU"
  bottom: "conv2"
  top: "conv2"
}
layer {
  name: "conv3"
  type: "Convolution"
  bottom: "conv2"
  top: "conv3"
  param {
    lr_mult: 1
  }
  param {
    lr_mult: 2
  }
  convolution_param {
    num_output: 128
    pad: 2
    kernel_size: 5
    stride: 1
    weight_filler {
      type: "gaussian"
      std: 0.01
    }
    bias_filler {
      type: "constant"
    }
  }
}
layer {
  name: "relu3"
  type: "ReLU"
  bottom: "conv3"
  top: "conv3"
}
layer {
  name: "pool3"
  type: "Pooling"
  bottom: "conv3"
  top: "pool3"
  pooling_param {
    pool: AVE
    kernel_size: 3
    stride: 2
  }
}
layer {
  name: "ip1"
  type: "InnerProduct"
  bottom: "pool3"
  top: "ip1"
  param {
    lr_mult: 1
  }
  param {
    lr_mult: 2
  }
  inner_product_param {
    num_output: 512
    weight_filler {
      type: "gaussian"
      std: 0.1
    }
    bias_filler {
      type: "constant"
    }
  }
}
layer {
  name: "ip2"
  type: "InnerProduct"
  bottom: "ip1"
  top: "ip2"
  param {
    lr_mult: 1
  }
  param {
    lr_mult: 2
  }
  inner_product_param {
    num_output: 256
    weight_filler {
      type: "gaussian"
      std: 0.1
    }
    bias_filler {
      type: "constant"
    }
  }
}
layer {
  name: "ip3"
  type: "InnerProduct"
  bottom: "ip2"
  top: "ip3"
  param {
    lr_mult: 1
  }
  param {
    lr_mult: 2
  }
  inner_product_param {
    num_output: 50
    weight_filler {
      type: "gaussian"
      std: 0.1
    }
    bias_filler {
      type: "constant"
    }
  }
}
layer {
  name: "loss"
  type: "SoftmaxWithLoss"
  bottom: "ip3"
  bottom: "label"
  top: "loss"
}
I0505 05:41:40.646958  3628 layer_factory.hpp:77] Creating layer parameters
I0505 05:41:40.646975  3628 net.cpp:94] Creating Layer parameters
I0505 05:41:40.646989  3628 net.cpp:409] parameters -> data
I0505 05:41:40.647012  3628 net.cpp:409] parameters -> label
I0505 05:41:40.647027  3628 hdf5_data_layer.cpp:79] Loading list of HDF5 filenames from: /home/purduethu/scratch/radon/d/deng106/CNNStatisticalModel/distributions/input/20_distributions_100_sample_size_train-distributions-path.txt
I0505 05:41:40.647053  3628 hdf5_data_layer.cpp:93] Number of HDF5 files: 1
I0505 05:41:40.647604  3628 hdf5.cpp:32] Datatype class: H5T_FLOAT
I0505 05:41:40.720477  3628 hdf5.cpp:35] Datatype class: H5T_INTEGER
I0505 05:41:40.722313  3628 net.cpp:144] Setting up parameters
I0505 05:41:40.722333  3628 net.cpp:151] Top shape: 20 1 10 10 (2000)
I0505 05:41:40.722339  3628 net.cpp:151] Top shape: 20 (20)
I0505 05:41:40.722343  3628 net.cpp:159] Memory required for data: 8080
I0505 05:41:40.722352  3628 layer_factory.hpp:77] Creating layer conv1
I0505 05:41:40.722376  3628 net.cpp:94] Creating Layer conv1
I0505 05:41:40.722383  3628 net.cpp:435] conv1 <- data
I0505 05:41:40.722395  3628 net.cpp:409] conv1 -> conv1
I0505 05:41:40.726480  3628 net.cpp:144] Setting up conv1
I0505 05:41:40.726498  3628 net.cpp:151] Top shape: 20 64 10 10 (128000)
I0505 05:41:40.726503  3628 net.cpp:159] Memory required for data: 520080
I0505 05:41:40.726516  3628 layer_factory.hpp:77] Creating layer relu1
I0505 05:41:40.726524  3628 net.cpp:94] Creating Layer relu1
I0505 05:41:40.726528  3628 net.cpp:435] relu1 <- conv1
I0505 05:41:40.726534  3628 net.cpp:396] relu1 -> conv1 (in-place)
I0505 05:41:40.726550  3628 net.cpp:144] Setting up relu1
I0505 05:41:40.726557  3628 net.cpp:151] Top shape: 20 64 10 10 (128000)
I0505 05:41:40.726559  3628 net.cpp:159] Memory required for data: 1032080
I0505 05:41:40.726563  3628 layer_factory.hpp:77] Creating layer pool1
I0505 05:41:40.726572  3628 net.cpp:94] Creating Layer pool1
I0505 05:41:40.726574  3628 net.cpp:435] pool1 <- conv1
I0505 05:41:40.726579  3628 net.cpp:409] pool1 -> pool1
I0505 05:41:40.726625  3628 net.cpp:144] Setting up pool1
I0505 05:41:40.726632  3628 net.cpp:151] Top shape: 20 64 5 5 (32000)
I0505 05:41:40.726636  3628 net.cpp:159] Memory required for data: 1160080
I0505 05:41:40.726639  3628 layer_factory.hpp:77] Creating layer conv2
I0505 05:41:40.726649  3628 net.cpp:94] Creating Layer conv2
I0505 05:41:40.726653  3628 net.cpp:435] conv2 <- pool1
I0505 05:41:40.726658  3628 net.cpp:409] conv2 -> conv2
I0505 05:41:40.734705  3628 net.cpp:144] Setting up conv2
I0505 05:41:40.734733  3628 net.cpp:151] Top shape: 20 128 5 5 (64000)
I0505 05:41:40.734738  3628 net.cpp:159] Memory required for data: 1416080
I0505 05:41:40.734748  3628 layer_factory.hpp:77] Creating layer relu2
I0505 05:41:40.734757  3628 net.cpp:94] Creating Layer relu2
I0505 05:41:40.734761  3628 net.cpp:435] relu2 <- conv2
I0505 05:41:40.734767  3628 net.cpp:396] relu2 -> conv2 (in-place)
I0505 05:41:40.734776  3628 net.cpp:144] Setting up relu2
I0505 05:41:40.734781  3628 net.cpp:151] Top shape: 20 128 5 5 (64000)
I0505 05:41:40.734784  3628 net.cpp:159] Memory required for data: 1672080
I0505 05:41:40.734787  3628 layer_factory.hpp:77] Creating layer conv3
I0505 05:41:40.734797  3628 net.cpp:94] Creating Layer conv3
I0505 05:41:40.734802  3628 net.cpp:435] conv3 <- conv2
I0505 05:41:40.734807  3628 net.cpp:409] conv3 -> conv3
I0505 05:41:40.749369  3628 net.cpp:144] Setting up conv3
I0505 05:41:40.749402  3628 net.cpp:151] Top shape: 20 128 5 5 (64000)
I0505 05:41:40.749406  3628 net.cpp:159] Memory required for data: 1928080
I0505 05:41:40.749418  3628 layer_factory.hpp:77] Creating layer relu3
I0505 05:41:40.749434  3628 net.cpp:94] Creating Layer relu3
I0505 05:41:40.749440  3628 net.cpp:435] relu3 <- conv3
I0505 05:41:40.749446  3628 net.cpp:396] relu3 -> conv3 (in-place)
I0505 05:41:40.749457  3628 net.cpp:144] Setting up relu3
I0505 05:41:40.749462  3628 net.cpp:151] Top shape: 20 128 5 5 (64000)
I0505 05:41:40.749465  3628 net.cpp:159] Memory required for data: 2184080
I0505 05:41:40.749469  3628 layer_factory.hpp:77] Creating layer pool3
I0505 05:41:40.749476  3628 net.cpp:94] Creating Layer pool3
I0505 05:41:40.749490  3628 net.cpp:435] pool3 <- conv3
I0505 05:41:40.749496  3628 net.cpp:409] pool3 -> pool3
I0505 05:41:40.749538  3628 net.cpp:144] Setting up pool3
I0505 05:41:40.749547  3628 net.cpp:151] Top shape: 20 128 2 2 (10240)
I0505 05:41:40.749549  3628 net.cpp:159] Memory required for data: 2225040
I0505 05:41:40.749553  3628 layer_factory.hpp:77] Creating layer ip1
I0505 05:41:40.749563  3628 net.cpp:94] Creating Layer ip1
I0505 05:41:40.749567  3628 net.cpp:435] ip1 <- pool3
I0505 05:41:40.749572  3628 net.cpp:409] ip1 -> ip1
I0505 05:41:40.757474  3628 net.cpp:144] Setting up ip1
I0505 05:41:40.757500  3628 net.cpp:151] Top shape: 20 512 (10240)
I0505 05:41:40.757505  3628 net.cpp:159] Memory required for data: 2266000
I0505 05:41:40.757513  3628 layer_factory.hpp:77] Creating layer ip2
I0505 05:41:40.757521  3628 net.cpp:94] Creating Layer ip2
I0505 05:41:40.757526  3628 net.cpp:435] ip2 <- ip1
I0505 05:41:40.757532  3628 net.cpp:409] ip2 -> ip2
I0505 05:41:40.760850  3628 net.cpp:144] Setting up ip2
I0505 05:41:40.760861  3628 net.cpp:151] Top shape: 20 256 (5120)
I0505 05:41:40.760864  3628 net.cpp:159] Memory required for data: 2286480
I0505 05:41:40.760872  3628 layer_factory.hpp:77] Creating layer ip3
I0505 05:41:40.760879  3628 net.cpp:94] Creating Layer ip3
I0505 05:41:40.760882  3628 net.cpp:435] ip3 <- ip2
I0505 05:41:40.760888  3628 net.cpp:409] ip3 -> ip3
I0505 05:41:40.761936  3628 net.cpp:144] Setting up ip3
I0505 05:41:40.761950  3628 net.cpp:151] Top shape: 20 50 (1000)
I0505 05:41:40.761953  3628 net.cpp:159] Memory required for data: 2290480
I0505 05:41:40.761960  3628 layer_factory.hpp:77] Creating layer loss
I0505 05:41:40.761966  3628 net.cpp:94] Creating Layer loss
I0505 05:41:40.761970  3628 net.cpp:435] loss <- ip3
I0505 05:41:40.761975  3628 net.cpp:435] loss <- label
I0505 05:41:40.761981  3628 net.cpp:409] loss -> loss
I0505 05:41:40.761994  3628 layer_factory.hpp:77] Creating layer loss
…
I0505 05:41:40.762428  3628 solver.cpp:181] Creating test net (#0) specified by net file: ./protocol/dis_20_100_dimension.protocol_distribution
I0505 05:41:40.762452  3628 net.cpp:323] The NetState phase (1) differed from the phase (0) specified by a rule in layer parameters
I0505 05:41:40.762540  3628 net.cpp:52] Initializing net from parameters: 
state {
  phase: TEST
}
layer {
  name: "intercept"
  type: "HDF5Data"
  top: "data"
  top: "label"
  include {
    phase: TEST
  }
  hdf5_data_param {
    source: "/home/purduethu/scratch/radon/d/deng106/CNNStatisticalModel/distributions/input/20_distributions_100_sample_size_test-distributions-path.txt"
    batch_size: 20
  }
}
layer {
  name: "conv1"
  type: "Convolution"
  bottom: "data"
  top: "conv1"
  param {
    lr_mult: 1
  }
  param {
    lr_mult: 2
  }
  convolution_param {
    num_output: 64
    pad: 2
    kernel_size: 5
    stride: 1
    weight_filler {
      type: "gaussian"
      std: 0.0001
    }
    bias_filler {
      type: "constant"
    }
  }
}
layer {
  name: "relu1"
  type: "ReLU"
  bottom: "conv1"
  top: "conv1"
}
layer {
  name: "pool1"
  type: "Pooling"
  bottom: "conv1"
  top: "pool1"
  pooling_param {
    pool: MAX
    kernel_size: 3
    stride: 2
  }
}
layer {
  name: "conv2"
  type: "Convolution"
  bottom: "pool1"
  top: "conv2"
  param {
    lr_mult: 1
  }
  param {
    lr_mult: 2
  }
  convolution_param {
    num_output: 128
    pad: 2
    kernel_size: 5
    stride: 1
    weight_filler {
      type: "gaussian"
      std: 0.01
    }
    bias_filler {
      type: "constant"
    }
  }
}
layer {
  name: "relu2"
  type: "ReLU"
  bottom: "conv2"
  top: "conv2"
}
layer {
  name: "conv3"
  type: "Convolution"
  bottom: "conv2"
  top: "conv3"
  param {
    lr_mult: 1
  }
  param {
    lr_mult: 2
  }
  convolution_param {
    num_output: 128
    pad: 2
    kernel_size: 5
    stride: 1
    weight_filler {
      type: "gaussian"
      std: 0.01
    }
    bias_filler {
      type: "constant"
    }
  }
}
layer {
  name: "relu3"
  type: "ReLU"
  bottom: "conv3"
  top: "conv3"
}
layer {
  name: "pool3"
  type: "Pooling"
  bottom: "conv3"
  top: "pool3"
  pooling_param {
    pool: AVE
    kernel_size: 3
    stride: 2
  }
}
layer {
  name: "ip1"
  type: "InnerProduct"
  bottom: "pool3"
  top: "ip1"
  param {
    lr_mult: 1
  }
  param {
    lr_mult: 2
  }
  inner_product_param {
    num_output: 512
    weight_filler {
      type: "gaussian"
      std: 0.1
    }
    bias_filler {
      type: "constant"
    }
  }
}
layer {
  name: "ip2"
  type: "InnerProduct"
  bottom: "ip1"
  top: "ip2"
  param {
    lr_mult: 1
  }
  param {
    lr_mult: 2
  }
  inner_product_param {
    num_output: 256
    weight_filler {
      type: "gaussian"
      std: 0.1
    }
    bias_filler {
      type: "constant"
    }
  }
}
layer {
  name: "ip3"
  type: "InnerProduct"
  bottom: "ip2"
  top: "ip3"
  param {
    lr_mult: 1
  }
  param {
    lr_mult: 2
  }
  inner_product_param {
    num_output: 50
    weight_filler {
      type: "gaussian"
      std: 0.1
    }
    bias_filler {
      type: "constant"
    }
  }
}
layer {
  name: "accuracy"
  type: "Accuracy"
  bottom: "ip3"
  bottom: "label"
  top: "accuracy"
  include {
    phase: TEST
  }
}
layer {
  name: "loss"
  type: "SoftmaxWithLoss"
  bottom: "ip3"
  bottom: "label"
  top: "loss"
}
I0505 05:41:40.762604  3628 layer_factory.hpp:77] Creating layer intercept
I0505 05:41:40.762614  3628 net.cpp:94] Creating Layer intercept
I0505 05:41:40.762617  3628 net.cpp:409] intercept -> data
I0505 05:41:40.762624  3628 net.cpp:409] intercept -> label
I0505 05:41:40.762631  3628 hdf5_data_layer.cpp:79] Loading list of HDF5 filenames from: /home/purduethu/scratch/radon/d/deng106/CNNStatisticalModel/distributions/input/20_distributions_100_sample_size_test-distributions-path.txt
I0505 05:41:40.762650  3628 hdf5_data_layer.cpp:93] Number of HDF5 files: 1
I0505 05:41:40.780383  3628 net.cpp:144] Setting up intercept
I0505 05:41:40.780413  3628 net.cpp:151] Top shape: 20 1 10 10 (2000)
I0505 05:41:40.780419  3628 net.cpp:151] Top shape: 20 (20)
I0505 05:41:40.780423  3628 net.cpp:159] Memory required for data: 8080
I0505 05:41:40.780429  3628 layer_factory.hpp:77] Creating layer label_intercept_1_split
I0505 05:41:40.780447  3628 net.cpp:94] Creating Layer label_intercept_1_split
I0505 05:41:40.780459  3628 net.cpp:435] label_intercept_1_split <- label
I0505 05:41:40.780465  3628 net.cpp:409] label_intercept_1_split -> label_intercept_1_split_0
I0505 05:41:40.780474  3628 net.cpp:409] label_intercept_1_split -> label_intercept_1_split_1
I0505 05:41:40.780501  3628 net.cpp:144] Setting up label_intercept_1_split
I0505 05:41:40.780508  3628 net.cpp:151] Top shape: 20 (20)
I0505 05:41:40.780513  3628 net.cpp:151] Top shape: 20 (20)
I0505 05:41:40.780515  3628 net.cpp:159] Memory required for data: 8240
I0505 05:41:40.780525  3628 layer_factory.hpp:77] Creating layer conv1
I0505 05:41:40.780537  3628 net.cpp:94] Creating Layer conv1
I0505 05:41:40.780541  3628 net.cpp:435] conv1 <- data
I0505 05:41:40.780546  3628 net.cpp:409] conv1 -> conv1
I0505 05:41:40.781280  3628 net.cpp:144] Setting up conv1
I0505 05:41:40.781293  3628 net.cpp:151] Top shape: 20 64 10 10 (128000)
I0505 05:41:40.781298  3628 net.cpp:159] Memory required for data: 520240
I0505 05:41:40.781307  3628 layer_factory.hpp:77] Creating layer relu1
I0505 05:41:40.781314  3628 net.cpp:94] Creating Layer relu1
I0505 05:41:40.781318  3628 net.cpp:435] relu1 <- conv1
I0505 05:41:40.781323  3628 net.cpp:396] relu1 -> conv1 (in-place)
I0505 05:41:40.781332  3628 net.cpp:144] Setting up relu1
I0505 05:41:40.781337  3628 net.cpp:151] Top shape: 20 64 10 10 (128000)
I0505 05:41:40.781339  3628 net.cpp:159] Memory required for data: 1032240
I0505 05:41:40.781343  3628 layer_factory.hpp:77] Creating layer pool1
I0505 05:41:40.781350  3628 net.cpp:94] Creating Layer pool1
I0505 05:41:40.781353  3628 net.cpp:435] pool1 <- conv1
I0505 05:41:40.781358  3628 net.cpp:409] pool1 -> pool1
I0505 05:41:40.781395  3628 net.cpp:144] Setting up pool1
I0505 05:41:40.781402  3628 net.cpp:151] Top shape: 20 64 5 5 (32000)
I0505 05:41:40.781405  3628 net.cpp:159] Memory required for data: 1160240
I0505 05:41:40.781409  3628 layer_factory.hpp:77] Creating layer conv2
I0505 05:41:40.781416  3628 net.cpp:94] Creating Layer conv2
I0505 05:41:40.781420  3628 net.cpp:435] conv2 <- pool1
I0505 05:41:40.781425  3628 net.cpp:409] conv2 -> conv2
I0505 05:41:40.788431  3628 net.cpp:144] Setting up conv2
I0505 05:41:40.788455  3628 net.cpp:151] Top shape: 20 128 5 5 (64000)
I0505 05:41:40.788460  3628 net.cpp:159] Memory required for data: 1416240
I0505 05:41:40.788470  3628 layer_factory.hpp:77] Creating layer relu2
I0505 05:41:40.788478  3628 net.cpp:94] Creating Layer relu2
I0505 05:41:40.788482  3628 net.cpp:435] relu2 <- conv2
I0505 05:41:40.788487  3628 net.cpp:396] relu2 -> conv2 (in-place)
I0505 05:41:40.788496  3628 net.cpp:144] Setting up relu2
I0505 05:41:40.788501  3628 net.cpp:151] Top shape: 20 128 5 5 (64000)
I0505 05:41:40.788504  3628 net.cpp:159] Memory required for data: 1672240
I0505 05:41:40.788507  3628 layer_factory.hpp:77] Creating layer conv3
I0505 05:41:40.788516  3628 net.cpp:94] Creating Layer conv3
I0505 05:41:40.788521  3628 net.cpp:435] conv3 <- conv2
I0505 05:41:40.788525  3628 net.cpp:409] conv3 -> conv3
I0505 05:41:40.800727  3628 net.cpp:144] Setting up conv3
I0505 05:41:40.800760  3628 net.cpp:151] Top shape: 20 128 5 5 (64000)
I0505 05:41:40.800765  3628 net.cpp:159] Memory required for data: 1928240
I0505 05:41:40.800777  3628 layer_factory.hpp:77] Creating layer relu3
I0505 05:41:40.800788  3628 net.cpp:94] Creating Layer relu3
I0505 05:41:40.800794  3628 net.cpp:435] relu3 <- conv3
I0505 05:41:40.800801  3628 net.cpp:396] relu3 -> conv3 (in-place)
I0505 05:41:40.800810  3628 net.cpp:144] Setting up relu3
I0505 05:41:40.800815  3628 net.cpp:151] Top shape: 20 128 5 5 (64000)
I0505 05:41:40.800819  3628 net.cpp:159] Memory required for data: 2184240
I0505 05:41:40.800822  3628 layer_factory.hpp:77] Creating layer pool3
I0505 05:41:40.800829  3628 net.cpp:94] Creating Layer pool3
I0505 05:41:40.800832  3628 net.cpp:435] pool3 <- conv3
I0505 05:41:40.800837  3628 net.cpp:409] pool3 -> pool3
I0505 05:41:40.800868  3628 net.cpp:144] Setting up pool3
I0505 05:41:40.800874  3628 net.cpp:151] Top shape: 20 128 2 2 (10240)
I0505 05:41:40.800889  3628 net.cpp:159] Memory required for data: 2225200
I0505 05:41:40.800892  3628 layer_factory.hpp:77] Creating layer ip1
I0505 05:41:40.800899  3628 net.cpp:94] Creating Layer ip1
I0505 05:41:40.800904  3628 net.cpp:435] ip1 <- pool3
I0505 05:41:40.800909  3628 net.cpp:409] ip1 -> ip1
I0505 05:41:40.807121  3628 net.cpp:144] Setting up ip1
I0505 05:41:40.807134  3628 net.cpp:151] Top shape: 20 512 (10240)
I0505 05:41:40.807138  3628 net.cpp:159] Memory required for data: 2266160
I0505 05:41:40.807152  3628 layer_factory.hpp:77] Creating layer ip2
I0505 05:41:40.807158  3628 net.cpp:94] Creating Layer ip2
I0505 05:41:40.807163  3628 net.cpp:435] ip2 <- ip1
I0505 05:41:40.807168  3628 net.cpp:409] ip2 -> ip2
I0505 05:41:40.810295  3628 net.cpp:144] Setting up ip2
I0505 05:41:40.810305  3628 net.cpp:151] Top shape: 20 256 (5120)
I0505 05:41:40.810308  3628 net.cpp:159] Memory required for data: 2286640
I0505 05:41:40.810317  3628 layer_factory.hpp:77] Creating layer ip3
I0505 05:41:40.810323  3628 net.cpp:94] Creating Layer ip3
I0505 05:41:40.810326  3628 net.cpp:435] ip3 <- ip2
I0505 05:41:40.810331  3628 net.cpp:409] ip3 -> ip3
I0505 05:41:40.810703  3628 net.cpp:144] Setting up ip3
I0505 05:41:40.810709  3628 net.cpp:151] Top shape: 20 50 (1000)
I0505 05:41:40.810712  3628 net.cpp:159] Memory required for data: 2290640
I0505 05:41:40.810717  3628 layer_factory.hpp:77] Creating layer ip3_ip3_0_split
I0505 05:41:40.810724  3628 net.cpp:94] Creating Layer ip3_ip3_0_split
I0505 05:41:40.810726  3628 net.cpp:435] ip3_ip3_0_split <- ip3
I0505 05:41:40.810731  3628 net.cpp:409] ip3_ip3_0_split -> ip3_ip3_0_split_0
I0505 05:41:40.810737  3628 net.cpp:409] ip3_ip3_0_split -> ip3_ip3_0_split_1
I0505 05:41:40.810761  3628 net.cpp:144] Setting up ip3_ip3_0_split
I0505 05:41:40.810767  3628 net.cpp:151] Top shape: 20 50 (1000)
I0505 05:41:40.810771  3628 net.cpp:151] Top shape: 20 50 (1000)
I0505 05:41:40.810775  3628 net.cpp:159] Memory required for data: 2298640
I0505 05:41:40.810777  3628 layer_factory.hpp:77] Creating layer accuracy
I0505 05:41:40.810783  3628 net.cpp:94] Creating Layer accuracy
I0505 05:41:40.810786  3628 net.cpp:435] accuracy <- ip3_ip3_0_split_0
I0505 05:41:40.810791  3628 net.cpp:435] accuracy <- label_intercept_1_split_0
I0505 05:41:40.810796  3628 net.cpp:409] accuracy -> accuracy
…
