…
I0502 01:48:25.339987 16953 net.cpp:323] The NetState phase (0) differed from the phase (1) specified by a rule in layer intercept
I0502 01:48:25.340001 16953 net.cpp:323] The NetState phase (0) differed from the phase (1) specified by a rule in layer loss
I0502 01:48:25.340080 16953 net.cpp:52] Initializing net from parameters: 
state {
  phase: TRAIN
}
layer {
  name: "parameters"
  type: "HDF5Data"
  top: "data"
  top: "label"
  include {
    phase: TRAIN
  }
  hdf5_data_param {
    source: "/home/purduethu/scratch/radon/d/deng106/CNNStatisticalModel/distributions/input/5_distributions_900_sample_size_train-parameters-path.txt"
    batch_size: 20
  }
}
layer {
  name: "conv1"
  type: "Convolution"
  bottom: "data"
  top: "conv1"
  param {
    lr_mult: 1
  }
  param {
    lr_mult: 2
  }
  convolution_param {
    num_output: 64
    pad: 2
    kernel_size: 5
    stride: 1
    weight_filler {
      type: "gaussian"
      std: 0.0001
    }
    bias_filler {
      type: "constant"
    }
  }
}
layer {
  name: "relu1"
  type: "ReLU"
  bottom: "conv1"
  top: "conv1"
}
layer {
  name: "conv2"
  type: "Convolution"
  bottom: "conv1"
  top: "conv2"
  param {
    lr_mult: 1
  }
  param {
    lr_mult: 2
  }
  convolution_param {
    num_output: 64
    pad: 2
    kernel_size: 5
    stride: 1
    weight_filler {
      type: "gaussian"
      std: 0.01
    }
    bias_filler {
      type: "constant"
    }
  }
}
layer {
  name: "relu2"
  type: "ReLU"
  bottom: "conv2"
  top: "conv2"
}
layer {
  name: "pool2"
  type: "Pooling"
  bottom: "conv2"
  top: "pool2"
  pooling_param {
    pool: MAX
    kernel_size: 3
    stride: 2
  }
}
layer {
  name: "conv3"
  type: "Convolution"
  bottom: "pool2"
  top: "conv3"
  param {
    lr_mult: 1
  }
  param {
    lr_mult: 2
  }
  convolution_param {
    num_output: 64
    pad: 2
    kernel_size: 5
    stride: 1
    weight_filler {
      type: "gaussian"
      std: 0.01
    }
    bias_filler {
      type: "constant"
    }
  }
}
layer {
  name: "relu3"
  type: "ReLU"
  bottom: "conv3"
  top: "conv3"
}
layer {
  name: "conv4"
  type: "Convolution"
  bottom: "conv3"
  top: "conv4"
  param {
    lr_mult: 1
  }
  param {
    lr_mult: 2
  }
  convolution_param {
    num_output: 64
    pad: 2
    kernel_size: 5
    stride: 1
    weight_filler {
      type: "gaussian"
      std: 0.01
    }
    bias_filler {
      type: "constant"
    }
  }
}
layer {
  name: "relu4"
  type: "ReLU"
  bottom: "conv4"
  top: "conv4"
}
layer {
  name: "conv5"
  type: "Convolution"
  bottom: "conv4"
  top: "conv5"
  param {
    lr_mult: 1
  }
  param {
    lr_mult: 2
  }
  convolution_param {
    num_output: 64
    pad: 2
    kernel_size: 5
    stride: 1
    weight_filler {
      type: "gaussian"
      std: 0.01
    }
    bias_filler {
      type: "constant"
    }
  }
}
layer {
  name: "relu5"
  type: "ReLU"
  bottom: "conv5"
  top: "conv5"
}
layer {
  name: "pool5"
  type: "Pooling"
  bottom: "conv5"
  top: "pool5"
  pooling_param {
    pool: AVE
    kernel_size: 3
    stride: 2
  }
}
layer {
  name: "ip1"
  type: "InnerProduct"
  bottom: "pool5"
  top: "ip1"
  param {
    lr_mult: 1
  }
  param {
    lr_mult: 2
  }
  inner_product_param {
    num_output: 64
    weight_filler {
      type: "gaussian"
      std: 0.1
    }
    bias_filler {
      type: "constant"
    }
  }
}
layer {
  name: "ip2"
  type: "InnerProduct"
  bottom: "ip1"
  top: "ip2"
  param {
    lr_mult: 1
  }
  param {
    lr_mult: 2
  }
  inner_product_param {
    num_output: 64
    weight_filler {
      type: "gaussian"
      std: 0.1
    }
    bias_filler {
      type: "constant"
    }
  }
}
layer {
  name: "ip3"
  type: "InnerProduct"
  bottom: "ip2"
  top: "ip3"
  param {
    lr_mult: 1
  }
  param {
    lr_mult: 2
  }
  inner_product_param {
    num_output: 1
    weight_filler {
      type: "gaussian"
      std: 0.1
    }
    bias_filler {
      type: "constant"
    }
  }
}
layer {
  name: "loss"
  type: "HuberLoss"
  bottom: "ip3"
  bottom: "label"
  top: "loss"
  include {
    phase: TRAIN
  }
}
I0502 01:48:25.340142 16953 layer_factory.hpp:77] Creating layer parameters
I0502 01:48:25.340155 16953 net.cpp:94] Creating Layer parameters
I0502 01:48:25.340160 16953 net.cpp:409] parameters -> data
I0502 01:48:25.340169 16953 net.cpp:409] parameters -> label
I0502 01:48:25.340176 16953 hdf5_data_layer.cpp:79] Loading list of HDF5 filenames from: /home/purduethu/scratch/radon/d/deng106/CNNStatisticalModel/distributions/input/5_distributions_900_sample_size_train-parameters-path.txt
I0502 01:48:25.340191 16953 hdf5_data_layer.cpp:93] Number of HDF5 files: 1
I0502 01:48:25.340747 16953 hdf5.cpp:32] Datatype class: H5T_FLOAT
I0502 01:48:25.479025 16953 net.cpp:144] Setting up parameters
I0502 01:48:25.479058 16953 net.cpp:151] Top shape: 20 1 30 30 (18000)
I0502 01:48:25.479063 16953 net.cpp:151] Top shape: 20 (20)
I0502 01:48:25.479066 16953 net.cpp:159] Memory required for data: 72080
I0502 01:48:25.479073 16953 layer_factory.hpp:77] Creating layer conv1
I0502 01:48:25.479094 16953 net.cpp:94] Creating Layer conv1
I0502 01:48:25.479099 16953 net.cpp:435] conv1 <- data
I0502 01:48:25.479105 16953 net.cpp:409] conv1 -> conv1
I0502 01:48:25.485545 16953 net.cpp:144] Setting up conv1
I0502 01:48:25.485563 16953 net.cpp:151] Top shape: 20 64 30 30 (1152000)
I0502 01:48:25.485566 16953 net.cpp:159] Memory required for data: 4680080
I0502 01:48:25.485577 16953 layer_factory.hpp:77] Creating layer relu1
I0502 01:48:25.485585 16953 net.cpp:94] Creating Layer relu1
I0502 01:48:25.485589 16953 net.cpp:435] relu1 <- conv1
I0502 01:48:25.485594 16953 net.cpp:396] relu1 -> conv1 (in-place)
I0502 01:48:25.485608 16953 net.cpp:144] Setting up relu1
I0502 01:48:25.485613 16953 net.cpp:151] Top shape: 20 64 30 30 (1152000)
I0502 01:48:25.485616 16953 net.cpp:159] Memory required for data: 9288080
I0502 01:48:25.485620 16953 layer_factory.hpp:77] Creating layer conv2
I0502 01:48:25.485627 16953 net.cpp:94] Creating Layer conv2
I0502 01:48:25.485631 16953 net.cpp:435] conv2 <- conv1
I0502 01:48:25.485635 16953 net.cpp:409] conv2 -> conv2
I0502 01:48:25.501372 16953 net.cpp:144] Setting up conv2
I0502 01:48:25.501389 16953 net.cpp:151] Top shape: 20 64 30 30 (1152000)
I0502 01:48:25.501394 16953 net.cpp:159] Memory required for data: 13896080
I0502 01:48:25.501401 16953 layer_factory.hpp:77] Creating layer relu2
I0502 01:48:25.501408 16953 net.cpp:94] Creating Layer relu2
I0502 01:48:25.501412 16953 net.cpp:435] relu2 <- conv2
I0502 01:48:25.501417 16953 net.cpp:396] relu2 -> conv2 (in-place)
I0502 01:48:25.501425 16953 net.cpp:144] Setting up relu2
I0502 01:48:25.501430 16953 net.cpp:151] Top shape: 20 64 30 30 (1152000)
I0502 01:48:25.501432 16953 net.cpp:159] Memory required for data: 18504080
I0502 01:48:25.501435 16953 layer_factory.hpp:77] Creating layer pool2
I0502 01:48:25.501446 16953 net.cpp:94] Creating Layer pool2
I0502 01:48:25.501451 16953 net.cpp:435] pool2 <- conv2
I0502 01:48:25.501456 16953 net.cpp:409] pool2 -> pool2
I0502 01:48:25.501512 16953 net.cpp:144] Setting up pool2
I0502 01:48:25.501519 16953 net.cpp:151] Top shape: 20 64 15 15 (288000)
I0502 01:48:25.501523 16953 net.cpp:159] Memory required for data: 19656080
I0502 01:48:25.501526 16953 layer_factory.hpp:77] Creating layer conv3
I0502 01:48:25.501534 16953 net.cpp:94] Creating Layer conv3
I0502 01:48:25.501538 16953 net.cpp:435] conv3 <- pool2
I0502 01:48:25.501543 16953 net.cpp:409] conv3 -> conv3
I0502 01:48:25.509873 16953 net.cpp:144] Setting up conv3
I0502 01:48:25.509887 16953 net.cpp:151] Top shape: 20 64 15 15 (288000)
I0502 01:48:25.509891 16953 net.cpp:159] Memory required for data: 20808080
I0502 01:48:25.509901 16953 layer_factory.hpp:77] Creating layer relu3
I0502 01:48:25.509907 16953 net.cpp:94] Creating Layer relu3
I0502 01:48:25.509910 16953 net.cpp:435] relu3 <- conv3
I0502 01:48:25.509915 16953 net.cpp:396] relu3 -> conv3 (in-place)
I0502 01:48:25.509922 16953 net.cpp:144] Setting up relu3
I0502 01:48:25.509927 16953 net.cpp:151] Top shape: 20 64 15 15 (288000)
I0502 01:48:25.509930 16953 net.cpp:159] Memory required for data: 21960080
I0502 01:48:25.509933 16953 layer_factory.hpp:77] Creating layer conv4
I0502 01:48:25.509941 16953 net.cpp:94] Creating Layer conv4
I0502 01:48:25.509945 16953 net.cpp:435] conv4 <- conv3
I0502 01:48:25.509950 16953 net.cpp:409] conv4 -> conv4
I0502 01:48:25.517309 16953 net.cpp:144] Setting up conv4
I0502 01:48:25.517324 16953 net.cpp:151] Top shape: 20 64 15 15 (288000)
I0502 01:48:25.517328 16953 net.cpp:159] Memory required for data: 23112080
I0502 01:48:25.517334 16953 layer_factory.hpp:77] Creating layer relu4
I0502 01:48:25.517341 16953 net.cpp:94] Creating Layer relu4
I0502 01:48:25.517344 16953 net.cpp:435] relu4 <- conv4
I0502 01:48:25.517349 16953 net.cpp:396] relu4 -> conv4 (in-place)
I0502 01:48:25.517356 16953 net.cpp:144] Setting up relu4
I0502 01:48:25.517361 16953 net.cpp:151] Top shape: 20 64 15 15 (288000)
I0502 01:48:25.517364 16953 net.cpp:159] Memory required for data: 24264080
I0502 01:48:25.517367 16953 layer_factory.hpp:77] Creating layer conv5
I0502 01:48:25.517375 16953 net.cpp:94] Creating Layer conv5
I0502 01:48:25.517379 16953 net.cpp:435] conv5 <- conv4
I0502 01:48:25.517383 16953 net.cpp:409] conv5 -> conv5
I0502 01:48:25.524718 16953 net.cpp:144] Setting up conv5
I0502 01:48:25.524732 16953 net.cpp:151] Top shape: 20 64 15 15 (288000)
I0502 01:48:25.524736 16953 net.cpp:159] Memory required for data: 25416080
I0502 01:48:25.524744 16953 layer_factory.hpp:77] Creating layer relu5
I0502 01:48:25.524751 16953 net.cpp:94] Creating Layer relu5
I0502 01:48:25.524755 16953 net.cpp:435] relu5 <- conv5
I0502 01:48:25.524760 16953 net.cpp:396] relu5 -> conv5 (in-place)
I0502 01:48:25.524766 16953 net.cpp:144] Setting up relu5
I0502 01:48:25.524771 16953 net.cpp:151] Top shape: 20 64 15 15 (288000)
I0502 01:48:25.524775 16953 net.cpp:159] Memory required for data: 26568080
I0502 01:48:25.524777 16953 layer_factory.hpp:77] Creating layer pool5
I0502 01:48:25.524782 16953 net.cpp:94] Creating Layer pool5
I0502 01:48:25.524785 16953 net.cpp:435] pool5 <- conv5
I0502 01:48:25.524791 16953 net.cpp:409] pool5 -> pool5
I0502 01:48:25.524833 16953 net.cpp:144] Setting up pool5
I0502 01:48:25.524842 16953 net.cpp:151] Top shape: 20 64 7 7 (62720)
I0502 01:48:25.524845 16953 net.cpp:159] Memory required for data: 26818960
I0502 01:48:25.524848 16953 layer_factory.hpp:77] Creating layer ip1
I0502 01:48:25.524858 16953 net.cpp:94] Creating Layer ip1
I0502 01:48:25.524863 16953 net.cpp:435] ip1 <- pool5
I0502 01:48:25.524868 16953 net.cpp:409] ip1 -> ip1
I0502 01:48:25.530467 16953 net.cpp:144] Setting up ip1
I0502 01:48:25.530480 16953 net.cpp:151] Top shape: 20 64 (1280)
I0502 01:48:25.530483 16953 net.cpp:159] Memory required for data: 26824080
I0502 01:48:25.530490 16953 layer_factory.hpp:77] Creating layer ip2
I0502 01:48:25.530496 16953 net.cpp:94] Creating Layer ip2
I0502 01:48:25.530504 16953 net.cpp:435] ip2 <- ip1
I0502 01:48:25.530511 16953 net.cpp:409] ip2 -> ip2
I0502 01:48:25.530735 16953 net.cpp:144] Setting up ip2
I0502 01:48:25.530743 16953 net.cpp:151] Top shape: 20 64 (1280)
I0502 01:48:25.530746 16953 net.cpp:159] Memory required for data: 26829200
I0502 01:48:25.530751 16953 layer_factory.hpp:77] Creating layer ip3
I0502 01:48:25.530760 16953 net.cpp:94] Creating Layer ip3
I0502 01:48:25.530762 16953 net.cpp:435] ip3 <- ip2
I0502 01:48:25.530767 16953 net.cpp:409] ip3 -> ip3
I0502 01:48:25.530882 16953 net.cpp:144] Setting up ip3
I0502 01:48:25.530889 16953 net.cpp:151] Top shape: 20 1 (20)
I0502 01:48:25.530892 16953 net.cpp:159] Memory required for data: 26829280
I0502 01:48:25.530897 16953 layer_factory.hpp:77] Creating layer loss
I0502 01:48:25.530907 16953 net.cpp:94] Creating Layer loss
I0502 01:48:25.530911 16953 net.cpp:435] loss <- ip3
I0502 01:48:25.530915 16953 net.cpp:435] loss <- label
I0502 01:48:25.530920 16953 net.cpp:409] loss -> loss
I0502 01:48:25.530974 16953 net.cpp:144] Setting up loss
…
I0502 01:48:25.597700 16953 net.cpp:323] The NetState phase (0) differed from the phase (1) specified by a rule in layer intercept
I0502 01:48:25.597718 16953 net.cpp:323] The NetState phase (0) differed from the phase (1) specified by a rule in layer accuracy
I0502 01:48:25.597801 16953 net.cpp:52] Initializing net from parameters: 
state {
  phase: TRAIN
}
layer {
  name: "parameters"
  type: "HDF5Data"
  top: "data"
  top: "label"
  include {
    phase: TRAIN
  }
  hdf5_data_param {
    source: "/home/purduethu/scratch/radon/d/deng106/CNNStatisticalModel/distributions/input/5_distributions_900_sample_size_train-distributions-path.txt"
    batch_size: 20
  }
}
layer {
  name: "conv1"
  type: "Convolution"
  bottom: "data"
  top: "conv1"
  param {
    lr_mult: 1
  }
  param {
    lr_mult: 2
  }
  convolution_param {
    num_output: 64
    pad: 2
    kernel_size: 5
    stride: 1
    weight_filler {
      type: "gaussian"
      std: 0.0001
    }
    bias_filler {
      type: "constant"
    }
  }
}
layer {
  name: "relu1"
  type: "ReLU"
  bottom: "conv1"
  top: "conv1"
}
layer {
  name: "conv2"
  type: "Convolution"
  bottom: "conv1"
  top: "conv2"
  param {
    lr_mult: 1
  }
  param {
    lr_mult: 2
  }
  convolution_param {
    num_output: 64
    pad: 2
    kernel_size: 5
    stride: 1
    weight_filler {
      type: "gaussian"
      std: 0.01
    }
    bias_filler {
      type: "constant"
    }
  }
}
layer {
  name: "relu2"
  type: "ReLU"
  bottom: "conv2"
  top: "conv2"
}
layer {
  name: "pool2"
  type: "Pooling"
  bottom: "conv2"
  top: "pool2"
  pooling_param {
    pool: MAX
    kernel_size: 3
    stride: 2
  }
}
layer {
  name: "conv3"
  type: "Convolution"
  bottom: "pool2"
  top: "conv3"
  param {
    lr_mult: 1
  }
  param {
    lr_mult: 2
  }
  convolution_param {
    num_output: 64
    pad: 2
    kernel_size: 5
    stride: 1
    weight_filler {
      type: "gaussian"
      std: 0.01
    }
    bias_filler {
      type: "constant"
    }
  }
}
layer {
  name: "relu3"
  type: "ReLU"
  bottom: "conv3"
  top: "conv3"
}
layer {
  name: "conv4"
  type: "Convolution"
  bottom: "conv3"
  top: "conv4"
  param {
    lr_mult: 1
  }
  param {
    lr_mult: 2
  }
  convolution_param {
    num_output: 64
    pad: 2
    kernel_size: 5
    stride: 1
    weight_filler {
      type: "gaussian"
      std: 0.01
    }
    bias_filler {
      type: "constant"
    }
  }
}
layer {
  name: "relu4"
  type: "ReLU"
  bottom: "conv4"
  top: "conv4"
}
layer {
  name: "conv5"
  type: "Convolution"
  bottom: "conv4"
  top: "conv5"
  param {
    lr_mult: 1
  }
  param {
    lr_mult: 2
  }
  convolution_param {
    num_output: 64
    pad: 2
    kernel_size: 5
    stride: 1
    weight_filler {
      type: "gaussian"
      std: 0.01
    }
    bias_filler {
      type: "constant"
    }
  }
}
layer {
  name: "relu5"
  type: "ReLU"
  bottom: "conv5"
  top: "conv5"
}
layer {
  name: "pool5"
  type: "Pooling"
  bottom: "conv5"
  top: "pool5"
  pooling_param {
    pool: AVE
    kernel_size: 3
    stride: 2
  }
}
layer {
  name: "ip1"
  type: "InnerProduct"
  bottom: "pool5"
  top: "ip1"
  param {
    lr_mult: 1
  }
  param {
    lr_mult: 2
  }
  inner_product_param {
    num_output: 64
    weight_filler {
      type: "gaussian"
      std: 0.1
    }
    bias_filler {
      type: "constant"
    }
  }
}
layer {
  name: "ip2"
  type: "InnerProduct"
  bottom: "ip1"
  top: "ip2"
  param {
    lr_mult: 1
  }
  param {
    lr_mult: 2
  }
  inner_product_param {
    num_output: 64
    weight_filler {
      type: "gaussian"
      std: 0.1
    }
    bias_filler {
      type: "constant"
    }
  }
}
layer {
  name: "ip3"
  type: "InnerProduct"
  bottom: "ip2"
  top: "ip3"
  param {
    lr_mult: 1
  }
  param {
    lr_mult: 2
  }
  inner_product_param {
    num_output: 50
    weight_filler {
      type: "gaussian"
      std: 0.1
    }
    bias_filler {
      type: "constant"
    }
  }
}
layer {
  name: "loss"
  type: "SoftmaxWithLoss"
  bottom: "ip3"
  bottom: "label"
  top: "loss"
}
I0502 01:48:25.597853 16953 layer_factory.hpp:77] Creating layer parameters
I0502 01:48:25.597862 16953 net.cpp:94] Creating Layer parameters
I0502 01:48:25.597865 16953 net.cpp:409] parameters -> data
I0502 01:48:25.597872 16953 net.cpp:409] parameters -> label
I0502 01:48:25.597877 16953 hdf5_data_layer.cpp:79] Loading list of HDF5 filenames from: /home/purduethu/scratch/radon/d/deng106/CNNStatisticalModel/distributions/input/5_distributions_900_sample_size_train-distributions-path.txt
I0502 01:48:25.597893 16953 hdf5_data_layer.cpp:93] Number of HDF5 files: 1
I0502 01:48:25.734138 16953 hdf5.cpp:35] Datatype class: H5T_INTEGER
I0502 01:48:25.734598 16953 net.cpp:144] Setting up parameters
I0502 01:48:25.734614 16953 net.cpp:151] Top shape: 20 1 30 30 (18000)
I0502 01:48:25.734619 16953 net.cpp:151] Top shape: 20 (20)
I0502 01:48:25.734623 16953 net.cpp:159] Memory required for data: 72080
I0502 01:48:25.734629 16953 layer_factory.hpp:77] Creating layer conv1
I0502 01:48:25.734644 16953 net.cpp:94] Creating Layer conv1
I0502 01:48:25.734648 16953 net.cpp:435] conv1 <- data
I0502 01:48:25.734655 16953 net.cpp:409] conv1 -> conv1
I0502 01:48:25.738092 16953 net.cpp:144] Setting up conv1
I0502 01:48:25.738107 16953 net.cpp:151] Top shape: 20 64 30 30 (1152000)
I0502 01:48:25.738111 16953 net.cpp:159] Memory required for data: 4680080
I0502 01:48:25.738121 16953 layer_factory.hpp:77] Creating layer relu1
I0502 01:48:25.738129 16953 net.cpp:94] Creating Layer relu1
I0502 01:48:25.738133 16953 net.cpp:435] relu1 <- conv1
I0502 01:48:25.738138 16953 net.cpp:396] relu1 -> conv1 (in-place)
I0502 01:48:25.738147 16953 net.cpp:144] Setting up relu1
I0502 01:48:25.738152 16953 net.cpp:151] Top shape: 20 64 30 30 (1152000)
I0502 01:48:25.738154 16953 net.cpp:159] Memory required for data: 9288080
I0502 01:48:25.738157 16953 layer_factory.hpp:77] Creating layer conv2
I0502 01:48:25.738165 16953 net.cpp:94] Creating Layer conv2
I0502 01:48:25.738169 16953 net.cpp:435] conv2 <- conv1
I0502 01:48:25.738174 16953 net.cpp:409] conv2 -> conv2
I0502 01:48:25.753012 16953 net.cpp:144] Setting up conv2
I0502 01:48:25.753028 16953 net.cpp:151] Top shape: 20 64 30 30 (1152000)
I0502 01:48:25.753032 16953 net.cpp:159] Memory required for data: 13896080
I0502 01:48:25.753041 16953 layer_factory.hpp:77] Creating layer relu2
I0502 01:48:25.753048 16953 net.cpp:94] Creating Layer relu2
I0502 01:48:25.753052 16953 net.cpp:435] relu2 <- conv2
I0502 01:48:25.753057 16953 net.cpp:396] relu2 -> conv2 (in-place)
I0502 01:48:25.753064 16953 net.cpp:144] Setting up relu2
I0502 01:48:25.753069 16953 net.cpp:151] Top shape: 20 64 30 30 (1152000)
I0502 01:48:25.753072 16953 net.cpp:159] Memory required for data: 18504080
I0502 01:48:25.753075 16953 layer_factory.hpp:77] Creating layer pool2
I0502 01:48:25.753082 16953 net.cpp:94] Creating Layer pool2
I0502 01:48:25.753085 16953 net.cpp:435] pool2 <- conv2
I0502 01:48:25.753089 16953 net.cpp:409] pool2 -> pool2
I0502 01:48:25.753146 16953 net.cpp:144] Setting up pool2
I0502 01:48:25.753154 16953 net.cpp:151] Top shape: 20 64 15 15 (288000)
I0502 01:48:25.753157 16953 net.cpp:159] Memory required for data: 19656080
I0502 01:48:25.753161 16953 layer_factory.hpp:77] Creating layer conv3
I0502 01:48:25.753170 16953 net.cpp:94] Creating Layer conv3
I0502 01:48:25.753172 16953 net.cpp:435] conv3 <- pool2
I0502 01:48:25.753185 16953 net.cpp:409] conv3 -> conv3
I0502 01:48:25.761611 16953 net.cpp:144] Setting up conv3
I0502 01:48:25.761626 16953 net.cpp:151] Top shape: 20 64 15 15 (288000)
I0502 01:48:25.761631 16953 net.cpp:159] Memory required for data: 20808080
I0502 01:48:25.761639 16953 layer_factory.hpp:77] Creating layer relu3
I0502 01:48:25.761646 16953 net.cpp:94] Creating Layer relu3
I0502 01:48:25.761649 16953 net.cpp:435] relu3 <- conv3
I0502 01:48:25.761654 16953 net.cpp:396] relu3 -> conv3 (in-place)
I0502 01:48:25.761662 16953 net.cpp:144] Setting up relu3
I0502 01:48:25.761667 16953 net.cpp:151] Top shape: 20 64 15 15 (288000)
I0502 01:48:25.761669 16953 net.cpp:159] Memory required for data: 21960080
I0502 01:48:25.761672 16953 layer_factory.hpp:77] Creating layer conv4
I0502 01:48:25.761680 16953 net.cpp:94] Creating Layer conv4
I0502 01:48:25.761684 16953 net.cpp:435] conv4 <- conv3
I0502 01:48:25.761689 16953 net.cpp:409] conv4 -> conv4
I0502 01:48:25.769069 16953 net.cpp:144] Setting up conv4
I0502 01:48:25.769084 16953 net.cpp:151] Top shape: 20 64 15 15 (288000)
I0502 01:48:25.769088 16953 net.cpp:159] Memory required for data: 23112080
I0502 01:48:25.769095 16953 layer_factory.hpp:77] Creating layer relu4
I0502 01:48:25.769101 16953 net.cpp:94] Creating Layer relu4
I0502 01:48:25.769105 16953 net.cpp:435] relu4 <- conv4
I0502 01:48:25.769110 16953 net.cpp:396] relu4 -> conv4 (in-place)
I0502 01:48:25.769117 16953 net.cpp:144] Setting up relu4
I0502 01:48:25.769121 16953 net.cpp:151] Top shape: 20 64 15 15 (288000)
I0502 01:48:25.769125 16953 net.cpp:159] Memory required for data: 24264080
I0502 01:48:25.769129 16953 layer_factory.hpp:77] Creating layer conv5
I0502 01:48:25.769135 16953 net.cpp:94] Creating Layer conv5
I0502 01:48:25.769140 16953 net.cpp:435] conv5 <- conv4
I0502 01:48:25.769145 16953 net.cpp:409] conv5 -> conv5
I0502 01:48:25.777395 16953 net.cpp:144] Setting up conv5
I0502 01:48:25.777410 16953 net.cpp:151] Top shape: 20 64 15 15 (288000)
I0502 01:48:25.777415 16953 net.cpp:159] Memory required for data: 25416080
I0502 01:48:25.777423 16953 layer_factory.hpp:77] Creating layer relu5
I0502 01:48:25.777429 16953 net.cpp:94] Creating Layer relu5
I0502 01:48:25.777433 16953 net.cpp:435] relu5 <- conv5
I0502 01:48:25.777437 16953 net.cpp:396] relu5 -> conv5 (in-place)
I0502 01:48:25.777444 16953 net.cpp:144] Setting up relu5
I0502 01:48:25.777449 16953 net.cpp:151] Top shape: 20 64 15 15 (288000)
I0502 01:48:25.777452 16953 net.cpp:159] Memory required for data: 26568080
I0502 01:48:25.777456 16953 layer_factory.hpp:77] Creating layer pool5
I0502 01:48:25.777460 16953 net.cpp:94] Creating Layer pool5
I0502 01:48:25.777463 16953 net.cpp:435] pool5 <- conv5
I0502 01:48:25.777469 16953 net.cpp:409] pool5 -> pool5
I0502 01:48:25.777513 16953 net.cpp:144] Setting up pool5
I0502 01:48:25.777520 16953 net.cpp:151] Top shape: 20 64 7 7 (62720)
I0502 01:48:25.777523 16953 net.cpp:159] Memory required for data: 26818960
I0502 01:48:25.777526 16953 layer_factory.hpp:77] Creating layer ip1
I0502 01:48:25.777534 16953 net.cpp:94] Creating Layer ip1
I0502 01:48:25.777539 16953 net.cpp:435] ip1 <- pool5
I0502 01:48:25.777545 16953 net.cpp:409] ip1 -> ip1
I0502 01:48:25.782342 16953 net.cpp:144] Setting up ip1
I0502 01:48:25.782353 16953 net.cpp:151] Top shape: 20 64 (1280)
I0502 01:48:25.782356 16953 net.cpp:159] Memory required for data: 26824080
I0502 01:48:25.782362 16953 layer_factory.hpp:77] Creating layer ip2
I0502 01:48:25.782369 16953 net.cpp:94] Creating Layer ip2
I0502 01:48:25.782372 16953 net.cpp:435] ip2 <- ip1
I0502 01:48:25.782378 16953 net.cpp:409] ip2 -> ip2
I0502 01:48:25.782611 16953 net.cpp:144] Setting up ip2
I0502 01:48:25.782618 16953 net.cpp:151] Top shape: 20 64 (1280)
I0502 01:48:25.782621 16953 net.cpp:159] Memory required for data: 26829200
I0502 01:48:25.782627 16953 layer_factory.hpp:77] Creating layer ip3
I0502 01:48:25.782634 16953 net.cpp:94] Creating Layer ip3
I0502 01:48:25.782637 16953 net.cpp:435] ip3 <- ip2
I0502 01:48:25.782642 16953 net.cpp:409] ip3 -> ip3
I0502 01:48:25.782855 16953 net.cpp:144] Setting up ip3
I0502 01:48:25.782863 16953 net.cpp:151] Top shape: 20 50 (1000)
I0502 01:48:25.782866 16953 net.cpp:159] Memory required for data: 26833200
I0502 01:48:25.782872 16953 layer_factory.hpp:77] Creating layer loss
I0502 01:48:25.782881 16953 net.cpp:94] Creating Layer loss
I0502 01:48:25.782883 16953 net.cpp:435] loss <- ip3
I0502 01:48:25.782887 16953 net.cpp:435] loss <- label
I0502 01:48:25.782892 16953 net.cpp:409] loss -> loss
I0502 01:48:25.782898 16953 layer_factory.hpp:77] Creating layer loss
…
I0502 01:48:25.783421 16953 solver.cpp:181] Creating test net (#0) specified by net file: ./protocol/dis_5_900_dimension.protocol_distribution
I0502 01:48:25.783447 16953 net.cpp:323] The NetState phase (1) differed from the phase (0) specified by a rule in layer parameters
I0502 01:48:25.783540 16953 net.cpp:52] Initializing net from parameters: 
state {
  phase: TEST
}
layer {
  name: "intercept"
  type: "HDF5Data"
  top: "data"
  top: "label"
  include {
    phase: TEST
  }
  hdf5_data_param {
    source: "/home/purduethu/scratch/radon/d/deng106/CNNStatisticalModel/distributions/input/5_distributions_900_sample_size_test-distributions-path.txt"
    batch_size: 20
  }
}
layer {
  name: "conv1"
  type: "Convolution"
  bottom: "data"
  top: "conv1"
  param {
    lr_mult: 1
  }
  param {
    lr_mult: 2
  }
  convolution_param {
    num_output: 64
    pad: 2
    kernel_size: 5
    stride: 1
    weight_filler {
      type: "gaussian"
      std: 0.0001
    }
    bias_filler {
      type: "constant"
    }
  }
}
layer {
  name: "relu1"
  type: "ReLU"
  bottom: "conv1"
  top: "conv1"
}
layer {
  name: "conv2"
  type: "Convolution"
  bottom: "conv1"
  top: "conv2"
  param {
    lr_mult: 1
  }
  param {
    lr_mult: 2
  }
  convolution_param {
    num_output: 64
    pad: 2
    kernel_size: 5
    stride: 1
    weight_filler {
      type: "gaussian"
      std: 0.01
    }
    bias_filler {
      type: "constant"
    }
  }
}
layer {
  name: "relu2"
  type: "ReLU"
  bottom: "conv2"
  top: "conv2"
}
layer {
  name: "pool2"
  type: "Pooling"
  bottom: "conv2"
  top: "pool2"
  pooling_param {
    pool: MAX
    kernel_size: 3
    stride: 2
  }
}
layer {
  name: "conv3"
  type: "Convolution"
  bottom: "pool2"
  top: "conv3"
  param {
    lr_mult: 1
  }
  param {
    lr_mult: 2
  }
  convolution_param {
    num_output: 64
    pad: 2
    kernel_size: 5
    stride: 1
    weight_filler {
      type: "gaussian"
      std: 0.01
    }
    bias_filler {
      type: "constant"
    }
  }
}
layer {
  name: "relu3"
  type: "ReLU"
  bottom: "conv3"
  top: "conv3"
}
layer {
  name: "conv4"
  type: "Convolution"
  bottom: "conv3"
  top: "conv4"
  param {
    lr_mult: 1
  }
  param {
    lr_mult: 2
  }
  convolution_param {
    num_output: 64
    pad: 2
    kernel_size: 5
    stride: 1
    weight_filler {
      type: "gaussian"
      std: 0.01
    }
    bias_filler {
      type: "constant"
    }
  }
}
layer {
  name: "relu4"
  type: "ReLU"
  bottom: "conv4"
  top: "conv4"
}
layer {
  name: "conv5"
  type: "Convolution"
  bottom: "conv4"
  top: "conv5"
  param {
    lr_mult: 1
  }
  param {
    lr_mult: 2
  }
  convolution_param {
    num_output: 64
    pad: 2
    kernel_size: 5
    stride: 1
    weight_filler {
      type: "gaussian"
      std: 0.01
    }
    bias_filler {
      type: "constant"
    }
  }
}
layer {
  name: "relu5"
  type: "ReLU"
  bottom: "conv5"
  top: "conv5"
}
layer {
  name: "pool5"
  type: "Pooling"
  bottom: "conv5"
  top: "pool5"
  pooling_param {
    pool: AVE
    kernel_size: 3
    stride: 2
  }
}
layer {
  name: "ip1"
  type: "InnerProduct"
  bottom: "pool5"
  top: "ip1"
  param {
    lr_mult: 1
  }
  param {
    lr_mult: 2
  }
  inner_product_param {
    num_output: 64
    weight_filler {
      type: "gaussian"
      std: 0.1
    }
    bias_filler {
      type: "constant"
    }
  }
}
layer {
  name: "ip2"
  type: "InnerProduct"
  bottom: "ip1"
  top: "ip2"
  param {
    lr_mult: 1
  }
  param {
    lr_mult: 2
  }
  inner_product_param {
    num_output: 64
    weight_filler {
      type: "gaussian"
      std: 0.1
    }
    bias_filler {
      type: "constant"
    }
  }
}
layer {
  name: "ip3"
  type: "InnerProduct"
  bottom: "ip2"
  top: "ip3"
  param {
    lr_mult: 1
  }
  param {
    lr_mult: 2
  }
  inner_product_param {
    num_output: 50
    weight_filler {
      type: "gaussian"
      std: 0.1
    }
    bias_filler {
      type: "constant"
    }
  }
}
layer {
  name: "accuracy"
  type: "Accuracy"
  bottom: "ip3"
  bottom: "label"
  top: "accuracy"
  include {
    phase: TEST
  }
}
layer {
  name: "loss"
  type: "SoftmaxWithLoss"
  bottom: "ip3"
  bottom: "label"
  top: "loss"
}
I0502 01:48:25.783607 16953 layer_factory.hpp:77] Creating layer intercept
I0502 01:48:25.783617 16953 net.cpp:94] Creating Layer intercept
I0502 01:48:25.783620 16953 net.cpp:409] intercept -> data
I0502 01:48:25.783627 16953 net.cpp:409] intercept -> label
I0502 01:48:25.783632 16953 hdf5_data_layer.cpp:79] Loading list of HDF5 filenames from: /home/purduethu/scratch/radon/d/deng106/CNNStatisticalModel/distributions/input/5_distributions_900_sample_size_test-distributions-path.txt
I0502 01:48:25.783651 16953 hdf5_data_layer.cpp:93] Number of HDF5 files: 1
I0502 01:48:25.818713 16953 net.cpp:144] Setting up intercept
I0502 01:48:25.818748 16953 net.cpp:151] Top shape: 20 1 30 30 (18000)
I0502 01:48:25.818753 16953 net.cpp:151] Top shape: 20 (20)
I0502 01:48:25.818758 16953 net.cpp:159] Memory required for data: 72080
I0502 01:48:25.818763 16953 layer_factory.hpp:77] Creating layer label_intercept_1_split
I0502 01:48:25.818781 16953 net.cpp:94] Creating Layer label_intercept_1_split
I0502 01:48:25.818785 16953 net.cpp:435] label_intercept_1_split <- label
I0502 01:48:25.818791 16953 net.cpp:409] label_intercept_1_split -> label_intercept_1_split_0
I0502 01:48:25.818799 16953 net.cpp:409] label_intercept_1_split -> label_intercept_1_split_1
I0502 01:48:25.818843 16953 net.cpp:144] Setting up label_intercept_1_split
I0502 01:48:25.818850 16953 net.cpp:151] Top shape: 20 (20)
I0502 01:48:25.818853 16953 net.cpp:151] Top shape: 20 (20)
I0502 01:48:25.818856 16953 net.cpp:159] Memory required for data: 72240
I0502 01:48:25.818859 16953 layer_factory.hpp:77] Creating layer conv1
I0502 01:48:25.818869 16953 net.cpp:94] Creating Layer conv1
I0502 01:48:25.818873 16953 net.cpp:435] conv1 <- data
I0502 01:48:25.818878 16953 net.cpp:409] conv1 -> conv1
I0502 01:48:25.820375 16953 net.cpp:144] Setting up conv1
I0502 01:48:25.820395 16953 net.cpp:151] Top shape: 20 64 30 30 (1152000)
I0502 01:48:25.820399 16953 net.cpp:159] Memory required for data: 4680240
I0502 01:48:25.820410 16953 layer_factory.hpp:77] Creating layer relu1
I0502 01:48:25.820417 16953 net.cpp:94] Creating Layer relu1
I0502 01:48:25.820420 16953 net.cpp:435] relu1 <- conv1
I0502 01:48:25.820425 16953 net.cpp:396] relu1 -> conv1 (in-place)
I0502 01:48:25.820432 16953 net.cpp:144] Setting up relu1
I0502 01:48:25.820437 16953 net.cpp:151] Top shape: 20 64 30 30 (1152000)
I0502 01:48:25.820441 16953 net.cpp:159] Memory required for data: 9288240
I0502 01:48:25.820443 16953 layer_factory.hpp:77] Creating layer conv2
I0502 01:48:25.820451 16953 net.cpp:94] Creating Layer conv2
I0502 01:48:25.820454 16953 net.cpp:435] conv2 <- conv1
I0502 01:48:25.820459 16953 net.cpp:409] conv2 -> conv2
I0502 01:48:25.826822 16953 net.cpp:144] Setting up conv2
I0502 01:48:25.826838 16953 net.cpp:151] Top shape: 20 64 30 30 (1152000)
I0502 01:48:25.826841 16953 net.cpp:159] Memory required for data: 13896240
I0502 01:48:25.826849 16953 layer_factory.hpp:77] Creating layer relu2
I0502 01:48:25.826856 16953 net.cpp:94] Creating Layer relu2
I0502 01:48:25.826859 16953 net.cpp:435] relu2 <- conv2
I0502 01:48:25.826864 16953 net.cpp:396] relu2 -> conv2 (in-place)
I0502 01:48:25.826871 16953 net.cpp:144] Setting up relu2
I0502 01:48:25.826876 16953 net.cpp:151] Top shape: 20 64 30 30 (1152000)
I0502 01:48:25.826879 16953 net.cpp:159] Memory required for data: 18504240
I0502 01:48:25.826882 16953 layer_factory.hpp:77] Creating layer pool2
I0502 01:48:25.826889 16953 net.cpp:94] Creating Layer pool2
I0502 01:48:25.826891 16953 net.cpp:435] pool2 <- conv2
I0502 01:48:25.826895 16953 net.cpp:409] pool2 -> pool2
I0502 01:48:25.826953 16953 net.cpp:144] Setting up pool2
I0502 01:48:25.826961 16953 net.cpp:151] Top shape: 20 64 15 15 (288000)
I0502 01:48:25.826963 16953 net.cpp:159] Memory required for data: 19656240
I0502 01:48:25.826967 16953 layer_factory.hpp:77] Creating layer conv3
I0502 01:48:25.826974 16953 net.cpp:94] Creating Layer conv3
I0502 01:48:25.826978 16953 net.cpp:435] conv3 <- pool2
I0502 01:48:25.826983 16953 net.cpp:409] conv3 -> conv3
I0502 01:48:25.831995 16953 net.cpp:144] Setting up conv3
I0502 01:48:25.832010 16953 net.cpp:151] Top shape: 20 64 15 15 (288000)
I0502 01:48:25.832013 16953 net.cpp:159] Memory required for data: 20808240
I0502 01:48:25.832021 16953 layer_factory.hpp:77] Creating layer relu3
I0502 01:48:25.832029 16953 net.cpp:94] Creating Layer relu3
I0502 01:48:25.832032 16953 net.cpp:435] relu3 <- conv3
I0502 01:48:25.832037 16953 net.cpp:396] relu3 -> conv3 (in-place)
I0502 01:48:25.832044 16953 net.cpp:144] Setting up relu3
I0502 01:48:25.832048 16953 net.cpp:151] Top shape: 20 64 15 15 (288000)
I0502 01:48:25.832052 16953 net.cpp:159] Memory required for data: 21960240
I0502 01:48:25.832056 16953 layer_factory.hpp:77] Creating layer conv4
I0502 01:48:25.832062 16953 net.cpp:94] Creating Layer conv4
I0502 01:48:25.832067 16953 net.cpp:435] conv4 <- conv3
I0502 01:48:25.832070 16953 net.cpp:409] conv4 -> conv4
I0502 01:48:25.837527 16953 net.cpp:144] Setting up conv4
I0502 01:48:25.837543 16953 net.cpp:151] Top shape: 20 64 15 15 (288000)
I0502 01:48:25.837546 16953 net.cpp:159] Memory required for data: 23112240
I0502 01:48:25.837553 16953 layer_factory.hpp:77] Creating layer relu4
I0502 01:48:25.837560 16953 net.cpp:94] Creating Layer relu4
I0502 01:48:25.837564 16953 net.cpp:435] relu4 <- conv4
I0502 01:48:25.837568 16953 net.cpp:396] relu4 -> conv4 (in-place)
I0502 01:48:25.837575 16953 net.cpp:144] Setting up relu4
I0502 01:48:25.837580 16953 net.cpp:151] Top shape: 20 64 15 15 (288000)
I0502 01:48:25.837584 16953 net.cpp:159] Memory required for data: 24264240
I0502 01:48:25.837586 16953 layer_factory.hpp:77] Creating layer conv5
I0502 01:48:25.837594 16953 net.cpp:94] Creating Layer conv5
I0502 01:48:25.837599 16953 net.cpp:435] conv5 <- conv4
I0502 01:48:25.837602 16953 net.cpp:409] conv5 -> conv5
I0502 01:48:25.842129 16953 net.cpp:144] Setting up conv5
I0502 01:48:25.842149 16953 net.cpp:151] Top shape: 20 64 15 15 (288000)
I0502 01:48:25.842154 16953 net.cpp:159] Memory required for data: 25416240
I0502 01:48:25.842162 16953 layer_factory.hpp:77] Creating layer relu5
I0502 01:48:25.842169 16953 net.cpp:94] Creating Layer relu5
I0502 01:48:25.842172 16953 net.cpp:435] relu5 <- conv5
I0502 01:48:25.842176 16953 net.cpp:396] relu5 -> conv5 (in-place)
I0502 01:48:25.842183 16953 net.cpp:144] Setting up relu5
I0502 01:48:25.842188 16953 net.cpp:151] Top shape: 20 64 15 15 (288000)
I0502 01:48:25.842191 16953 net.cpp:159] Memory required for data: 26568240
I0502 01:48:25.842195 16953 layer_factory.hpp:77] Creating layer pool5
I0502 01:48:25.842200 16953 net.cpp:94] Creating Layer pool5
I0502 01:48:25.842202 16953 net.cpp:435] pool5 <- conv5
I0502 01:48:25.842206 16953 net.cpp:409] pool5 -> pool5
I0502 01:48:25.842247 16953 net.cpp:144] Setting up pool5
I0502 01:48:25.842254 16953 net.cpp:151] Top shape: 20 64 7 7 (62720)
I0502 01:48:25.842257 16953 net.cpp:159] Memory required for data: 26819120
I0502 01:48:25.842262 16953 layer_factory.hpp:77] Creating layer ip1
I0502 01:48:25.842268 16953 net.cpp:94] Creating Layer ip1
I0502 01:48:25.842272 16953 net.cpp:435] ip1 <- pool5
I0502 01:48:25.842277 16953 net.cpp:409] ip1 -> ip1
I0502 01:48:25.847046 16953 net.cpp:144] Setting up ip1
I0502 01:48:25.847056 16953 net.cpp:151] Top shape: 20 64 (1280)
I0502 01:48:25.847060 16953 net.cpp:159] Memory required for data: 26824240
I0502 01:48:25.847066 16953 layer_factory.hpp:77] Creating layer ip2
I0502 01:48:25.847072 16953 net.cpp:94] Creating Layer ip2
I0502 01:48:25.847076 16953 net.cpp:435] ip2 <- ip1
I0502 01:48:25.847081 16953 net.cpp:409] ip2 -> ip2
I0502 01:48:25.847313 16953 net.cpp:144] Setting up ip2
I0502 01:48:25.847321 16953 net.cpp:151] Top shape: 20 64 (1280)
I0502 01:48:25.847324 16953 net.cpp:159] Memory required for data: 26829360
I0502 01:48:25.847329 16953 layer_factory.hpp:77] Creating layer ip3
I0502 01:48:25.847337 16953 net.cpp:94] Creating Layer ip3
I0502 01:48:25.847340 16953 net.cpp:435] ip3 <- ip2
I0502 01:48:25.847345 16953 net.cpp:409] ip3 -> ip3
I0502 01:48:25.847548 16953 net.cpp:144] Setting up ip3
I0502 01:48:25.847555 16953 net.cpp:151] Top shape: 20 50 (1000)
I0502 01:48:25.847558 16953 net.cpp:159] Memory required for data: 26833360
I0502 01:48:25.847563 16953 layer_factory.hpp:77] Creating layer ip3_ip3_0_split
I0502 01:48:25.847568 16953 net.cpp:94] Creating Layer ip3_ip3_0_split
I0502 01:48:25.847571 16953 net.cpp:435] ip3_ip3_0_split <- ip3
I0502 01:48:25.847575 16953 net.cpp:409] ip3_ip3_0_split -> ip3_ip3_0_split_0
I0502 01:48:25.847581 16953 net.cpp:409] ip3_ip3_0_split -> ip3_ip3_0_split_1
I0502 01:48:25.847622 16953 net.cpp:144] Setting up ip3_ip3_0_split
I0502 01:48:25.847628 16953 net.cpp:151] Top shape: 20 50 (1000)
I0502 01:48:25.847631 16953 net.cpp:151] Top shape: 20 50 (1000)
I0502 01:48:25.847635 16953 net.cpp:159] Memory required for data: 26841360
I0502 01:48:25.847637 16953 layer_factory.hpp:77] Creating layer accuracy
I0502 01:48:25.847643 16953 net.cpp:94] Creating Layer accuracy
I0502 01:48:25.847646 16953 net.cpp:435] accuracy <- ip3_ip3_0_split_0
I0502 01:48:25.847651 16953 net.cpp:435] accuracy <- label_intercept_1_split_0
I0502 01:48:25.847654 16953 net.cpp:409] accuracy -> accuracy
…
