…
I0507 15:19:38.264864  4024 net.cpp:323] The NetState phase (0) differed from the phase (1) specified by a rule in layer intercept
I0507 15:19:38.264883  4024 net.cpp:323] The NetState phase (0) differed from the phase (1) specified by a rule in layer loss
I0507 15:19:38.264967  4024 net.cpp:52] Initializing net from parameters: 
state {
  phase: TRAIN
}
layer {
  name: "parameters"
  type: "HDF5Data"
  top: "data"
  top: "label"
  include {
    phase: TRAIN
  }
  hdf5_data_param {
    source: "/home/purduethu/scratch/radon/d/deng106/CNNStatisticalModel/distributions/input/50_distributions_400_sample_size_train-parameters-path.txt"
    batch_size: 20
  }
}
layer {
  name: "conv1"
  type: "Convolution"
  bottom: "data"
  top: "conv1"
  param {
    lr_mult: 1
  }
  param {
    lr_mult: 2
  }
  convolution_param {
    num_output: 64
    pad: 2
    kernel_size: 5
    stride: 1
    weight_filler {
      type: "gaussian"
      std: 0.0001
    }
    bias_filler {
      type: "constant"
    }
  }
}
layer {
  name: "relu1"
  type: "ReLU"
  bottom: "conv1"
  top: "conv1"
}
layer {
  name: "conv2"
  type: "Convolution"
  bottom: "conv1"
  top: "conv2"
  param {
    lr_mult: 1
  }
  param {
    lr_mult: 2
  }
  convolution_param {
    num_output: 64
    pad: 2
    kernel_size: 5
    stride: 1
    weight_filler {
      type: "gaussian"
      std: 0.01
    }
    bias_filler {
      type: "constant"
    }
  }
}
layer {
  name: "relu2"
  type: "ReLU"
  bottom: "conv2"
  top: "conv2"
}
layer {
  name: "pool2"
  type: "Pooling"
  bottom: "conv2"
  top: "pool2"
  pooling_param {
    pool: MAX
    kernel_size: 3
    stride: 2
  }
}
layer {
  name: "conv3"
  type: "Convolution"
  bottom: "pool2"
  top: "conv3"
  param {
    lr_mult: 1
  }
  param {
    lr_mult: 2
  }
  convolution_param {
    num_output: 64
    pad: 2
    kernel_size: 5
    stride: 1
    weight_filler {
      type: "gaussian"
      std: 0.01
    }
    bias_filler {
      type: "constant"
    }
  }
}
layer {
  name: "relu3"
  type: "ReLU"
  bottom: "conv3"
  top: "conv3"
}
layer {
  name: "conv4"
  type: "Convolution"
  bottom: "conv3"
  top: "conv4"
  param {
    lr_mult: 1
  }
  param {
    lr_mult: 2
  }
  convolution_param {
    num_output: 64
    pad: 2
    kernel_size: 5
    stride: 1
    weight_filler {
      type: "gaussian"
      std: 0.01
    }
    bias_filler {
      type: "constant"
    }
  }
}
layer {
  name: "relu4"
  type: "ReLU"
  bottom: "conv4"
  top: "conv4"
}
layer {
  name: "conv5"
  type: "Convolution"
  bottom: "conv4"
  top: "conv5"
  param {
    lr_mult: 1
  }
  param {
    lr_mult: 2
  }
  convolution_param {
    num_output: 64
    pad: 2
    kernel_size: 5
    stride: 1
    weight_filler {
      type: "gaussian"
      std: 0.01
    }
    bias_filler {
      type: "constant"
    }
  }
}
layer {
  name: "relu5"
  type: "ReLU"
  bottom: "conv5"
  top: "conv5"
}
layer {
  name: "pool5"
  type: "Pooling"
  bottom: "conv5"
  top: "pool5"
  pooling_param {
    pool: AVE
    kernel_size: 3
    stride: 2
  }
}
layer {
  name: "ip1"
  type: "InnerProduct"
  bottom: "pool5"
  top: "ip1"
  param {
    lr_mult: 1
  }
  param {
    lr_mult: 2
  }
  inner_product_param {
    num_output: 64
    weight_filler {
      type: "gaussian"
      std: 0.1
    }
    bias_filler {
      type: "constant"
    }
  }
}
layer {
  name: "ip2"
  type: "InnerProduct"
  bottom: "ip1"
  top: "ip2"
  param {
    lr_mult: 1
  }
  param {
    lr_mult: 2
  }
  inner_product_param {
    num_output: 64
    weight_filler {
      type: "gaussian"
      std: 0.1
    }
    bias_filler {
      type: "constant"
    }
  }
}
layer {
  name: "ip3"
  type: "InnerProduct"
  bottom: "ip2"
  top: "ip3"
  param {
    lr_mult: 1
  }
  param {
    lr_mult: 2
  }
  inner_product_param {
    num_output: 1
    weight_filler {
      type: "gaussian"
      std: 0.1
    }
    bias_filler {
      type: "constant"
    }
  }
}
layer {
  name: "loss"
  type: "HuberLoss"
  bottom: "ip3"
  bottom: "label"
  top: "loss"
  include {
    phase: TRAIN
  }
}
I0507 15:19:38.265025  4024 layer_factory.hpp:77] Creating layer parameters
I0507 15:19:38.265038  4024 net.cpp:94] Creating Layer parameters
I0507 15:19:38.265043  4024 net.cpp:409] parameters -> data
I0507 15:19:38.265053  4024 net.cpp:409] parameters -> label
I0507 15:19:38.265060  4024 hdf5_data_layer.cpp:79] Loading list of HDF5 filenames from: /home/purduethu/scratch/radon/d/deng106/CNNStatisticalModel/distributions/input/50_distributions_400_sample_size_train-parameters-path.txt
I0507 15:19:38.265075  4024 hdf5_data_layer.cpp:93] Number of HDF5 files: 1
I0507 15:19:38.265635  4024 hdf5.cpp:32] Datatype class: H5T_FLOAT
I0507 15:19:38.903882  4024 net.cpp:144] Setting up parameters
I0507 15:19:38.903916  4024 net.cpp:151] Top shape: 20 1 20 20 (8000)
I0507 15:19:38.903921  4024 net.cpp:151] Top shape: 20 (20)
I0507 15:19:38.903924  4024 net.cpp:159] Memory required for data: 32080
I0507 15:19:38.903931  4024 layer_factory.hpp:77] Creating layer conv1
I0507 15:19:38.903954  4024 net.cpp:94] Creating Layer conv1
I0507 15:19:38.903959  4024 net.cpp:435] conv1 <- data
I0507 15:19:38.903964  4024 net.cpp:409] conv1 -> conv1
I0507 15:19:38.909407  4024 net.cpp:144] Setting up conv1
I0507 15:19:38.909425  4024 net.cpp:151] Top shape: 20 64 20 20 (512000)
I0507 15:19:38.909430  4024 net.cpp:159] Memory required for data: 2080080
I0507 15:19:38.909440  4024 layer_factory.hpp:77] Creating layer relu1
I0507 15:19:38.909449  4024 net.cpp:94] Creating Layer relu1
I0507 15:19:38.909453  4024 net.cpp:435] relu1 <- conv1
I0507 15:19:38.909457  4024 net.cpp:396] relu1 -> conv1 (in-place)
I0507 15:19:38.909469  4024 net.cpp:144] Setting up relu1
I0507 15:19:38.909474  4024 net.cpp:151] Top shape: 20 64 20 20 (512000)
I0507 15:19:38.909476  4024 net.cpp:159] Memory required for data: 4128080
I0507 15:19:38.909479  4024 layer_factory.hpp:77] Creating layer conv2
I0507 15:19:38.909488  4024 net.cpp:94] Creating Layer conv2
I0507 15:19:38.909492  4024 net.cpp:435] conv2 <- conv1
I0507 15:19:38.909497  4024 net.cpp:409] conv2 -> conv2
I0507 15:19:38.920296  4024 net.cpp:144] Setting up conv2
I0507 15:19:38.920311  4024 net.cpp:151] Top shape: 20 64 20 20 (512000)
I0507 15:19:38.920315  4024 net.cpp:159] Memory required for data: 6176080
I0507 15:19:38.920323  4024 layer_factory.hpp:77] Creating layer relu2
I0507 15:19:38.920331  4024 net.cpp:94] Creating Layer relu2
I0507 15:19:38.920334  4024 net.cpp:435] relu2 <- conv2
I0507 15:19:38.920338  4024 net.cpp:396] relu2 -> conv2 (in-place)
I0507 15:19:38.920346  4024 net.cpp:144] Setting up relu2
I0507 15:19:38.920351  4024 net.cpp:151] Top shape: 20 64 20 20 (512000)
I0507 15:19:38.920353  4024 net.cpp:159] Memory required for data: 8224080
I0507 15:19:38.920356  4024 layer_factory.hpp:77] Creating layer pool2
I0507 15:19:38.920368  4024 net.cpp:94] Creating Layer pool2
I0507 15:19:38.920372  4024 net.cpp:435] pool2 <- conv2
I0507 15:19:38.920377  4024 net.cpp:409] pool2 -> pool2
I0507 15:19:38.920428  4024 net.cpp:144] Setting up pool2
I0507 15:19:38.920434  4024 net.cpp:151] Top shape: 20 64 10 10 (128000)
I0507 15:19:38.920439  4024 net.cpp:159] Memory required for data: 8736080
I0507 15:19:38.920441  4024 layer_factory.hpp:77] Creating layer conv3
I0507 15:19:38.920449  4024 net.cpp:94] Creating Layer conv3
I0507 15:19:38.920452  4024 net.cpp:435] conv3 <- pool2
I0507 15:19:38.920457  4024 net.cpp:409] conv3 -> conv3
I0507 15:19:38.925776  4024 net.cpp:144] Setting up conv3
I0507 15:19:38.925789  4024 net.cpp:151] Top shape: 20 64 10 10 (128000)
I0507 15:19:38.925793  4024 net.cpp:159] Memory required for data: 9248080
I0507 15:19:38.925801  4024 layer_factory.hpp:77] Creating layer relu3
I0507 15:19:38.925807  4024 net.cpp:94] Creating Layer relu3
I0507 15:19:38.925810  4024 net.cpp:435] relu3 <- conv3
I0507 15:19:38.925815  4024 net.cpp:396] relu3 -> conv3 (in-place)
I0507 15:19:38.925822  4024 net.cpp:144] Setting up relu3
I0507 15:19:38.925827  4024 net.cpp:151] Top shape: 20 64 10 10 (128000)
I0507 15:19:38.925829  4024 net.cpp:159] Memory required for data: 9760080
I0507 15:19:38.925832  4024 layer_factory.hpp:77] Creating layer conv4
I0507 15:19:38.925840  4024 net.cpp:94] Creating Layer conv4
I0507 15:19:38.925843  4024 net.cpp:435] conv4 <- conv3
I0507 15:19:38.925848  4024 net.cpp:409] conv4 -> conv4
I0507 15:19:38.931123  4024 net.cpp:144] Setting up conv4
I0507 15:19:38.931136  4024 net.cpp:151] Top shape: 20 64 10 10 (128000)
I0507 15:19:38.931139  4024 net.cpp:159] Memory required for data: 10272080
I0507 15:19:38.931145  4024 layer_factory.hpp:77] Creating layer relu4
I0507 15:19:38.931151  4024 net.cpp:94] Creating Layer relu4
I0507 15:19:38.931155  4024 net.cpp:435] relu4 <- conv4
I0507 15:19:38.931160  4024 net.cpp:396] relu4 -> conv4 (in-place)
I0507 15:19:38.931166  4024 net.cpp:144] Setting up relu4
I0507 15:19:38.931170  4024 net.cpp:151] Top shape: 20 64 10 10 (128000)
I0507 15:19:38.931174  4024 net.cpp:159] Memory required for data: 10784080
I0507 15:19:38.931176  4024 layer_factory.hpp:77] Creating layer conv5
I0507 15:19:38.931185  4024 net.cpp:94] Creating Layer conv5
I0507 15:19:38.931188  4024 net.cpp:435] conv5 <- conv4
I0507 15:19:38.931192  4024 net.cpp:409] conv5 -> conv5
I0507 15:19:38.936468  4024 net.cpp:144] Setting up conv5
I0507 15:19:38.936482  4024 net.cpp:151] Top shape: 20 64 10 10 (128000)
I0507 15:19:38.936486  4024 net.cpp:159] Memory required for data: 11296080
I0507 15:19:38.936494  4024 layer_factory.hpp:77] Creating layer relu5
I0507 15:19:38.936501  4024 net.cpp:94] Creating Layer relu5
I0507 15:19:38.936503  4024 net.cpp:435] relu5 <- conv5
I0507 15:19:38.936508  4024 net.cpp:396] relu5 -> conv5 (in-place)
I0507 15:19:38.936516  4024 net.cpp:144] Setting up relu5
I0507 15:19:38.936519  4024 net.cpp:151] Top shape: 20 64 10 10 (128000)
I0507 15:19:38.936522  4024 net.cpp:159] Memory required for data: 11808080
I0507 15:19:38.936525  4024 layer_factory.hpp:77] Creating layer pool5
I0507 15:19:38.936530  4024 net.cpp:94] Creating Layer pool5
I0507 15:19:38.936533  4024 net.cpp:435] pool5 <- conv5
I0507 15:19:38.936537  4024 net.cpp:409] pool5 -> pool5
I0507 15:19:38.936583  4024 net.cpp:144] Setting up pool5
I0507 15:19:38.936591  4024 net.cpp:151] Top shape: 20 64 5 5 (32000)
I0507 15:19:38.936594  4024 net.cpp:159] Memory required for data: 11936080
I0507 15:19:38.936597  4024 layer_factory.hpp:77] Creating layer ip1
I0507 15:19:38.936607  4024 net.cpp:94] Creating Layer ip1
I0507 15:19:38.936611  4024 net.cpp:435] ip1 <- pool5
I0507 15:19:38.936616  4024 net.cpp:409] ip1 -> ip1
I0507 15:19:38.939087  4024 net.cpp:144] Setting up ip1
I0507 15:19:38.939095  4024 net.cpp:151] Top shape: 20 64 (1280)
I0507 15:19:38.939098  4024 net.cpp:159] Memory required for data: 11941200
I0507 15:19:38.939103  4024 layer_factory.hpp:77] Creating layer ip2
I0507 15:19:38.939110  4024 net.cpp:94] Creating Layer ip2
I0507 15:19:38.939116  4024 net.cpp:435] ip2 <- ip1
I0507 15:19:38.939122  4024 net.cpp:409] ip2 -> ip2
I0507 15:19:38.939321  4024 net.cpp:144] Setting up ip2
I0507 15:19:38.939327  4024 net.cpp:151] Top shape: 20 64 (1280)
I0507 15:19:38.939330  4024 net.cpp:159] Memory required for data: 11946320
I0507 15:19:38.939335  4024 layer_factory.hpp:77] Creating layer ip3
I0507 15:19:38.939340  4024 net.cpp:94] Creating Layer ip3
I0507 15:19:38.939344  4024 net.cpp:435] ip3 <- ip2
I0507 15:19:38.939348  4024 net.cpp:409] ip3 -> ip3
I0507 15:19:38.939442  4024 net.cpp:144] Setting up ip3
I0507 15:19:38.939448  4024 net.cpp:151] Top shape: 20 1 (20)
I0507 15:19:38.939451  4024 net.cpp:159] Memory required for data: 11946400
I0507 15:19:38.939456  4024 layer_factory.hpp:77] Creating layer loss
I0507 15:19:38.939463  4024 net.cpp:94] Creating Layer loss
I0507 15:19:38.939466  4024 net.cpp:435] loss <- ip3
I0507 15:19:38.939471  4024 net.cpp:435] loss <- label
I0507 15:19:38.939474  4024 net.cpp:409] loss -> loss
I0507 15:19:38.939527  4024 net.cpp:144] Setting up loss
…
I0507 15:19:39.122505  4024 net.cpp:323] The NetState phase (0) differed from the phase (1) specified by a rule in layer intercept
I0507 15:19:39.122521  4024 net.cpp:323] The NetState phase (0) differed from the phase (1) specified by a rule in layer accuracy
I0507 15:19:39.122612  4024 net.cpp:52] Initializing net from parameters: 
state {
  phase: TRAIN
}
layer {
  name: "parameters"
  type: "HDF5Data"
  top: "data"
  top: "label"
  include {
    phase: TRAIN
  }
  hdf5_data_param {
    source: "/home/purduethu/scratch/radon/d/deng106/CNNStatisticalModel/distributions/input/50_distributions_400_sample_size_train-distributions-path.txt"
    batch_size: 20
  }
}
layer {
  name: "conv1"
  type: "Convolution"
  bottom: "data"
  top: "conv1"
  param {
    lr_mult: 1
  }
  param {
    lr_mult: 2
  }
  convolution_param {
    num_output: 64
    pad: 2
    kernel_size: 5
    stride: 1
    weight_filler {
      type: "gaussian"
      std: 0.0001
    }
    bias_filler {
      type: "constant"
    }
  }
}
layer {
  name: "relu1"
  type: "ReLU"
  bottom: "conv1"
  top: "conv1"
}
layer {
  name: "conv2"
  type: "Convolution"
  bottom: "conv1"
  top: "conv2"
  param {
    lr_mult: 1
  }
  param {
    lr_mult: 2
  }
  convolution_param {
    num_output: 64
    pad: 2
    kernel_size: 5
    stride: 1
    weight_filler {
      type: "gaussian"
      std: 0.01
    }
    bias_filler {
      type: "constant"
    }
  }
}
layer {
  name: "relu2"
  type: "ReLU"
  bottom: "conv2"
  top: "conv2"
}
layer {
  name: "pool2"
  type: "Pooling"
  bottom: "conv2"
  top: "pool2"
  pooling_param {
    pool: MAX
    kernel_size: 3
    stride: 2
  }
}
layer {
  name: "conv3"
  type: "Convolution"
  bottom: "pool2"
  top: "conv3"
  param {
    lr_mult: 1
  }
  param {
    lr_mult: 2
  }
  convolution_param {
    num_output: 64
    pad: 2
    kernel_size: 5
    stride: 1
    weight_filler {
      type: "gaussian"
      std: 0.01
    }
    bias_filler {
      type: "constant"
    }
  }
}
layer {
  name: "relu3"
  type: "ReLU"
  bottom: "conv3"
  top: "conv3"
}
layer {
  name: "conv4"
  type: "Convolution"
  bottom: "conv3"
  top: "conv4"
  param {
    lr_mult: 1
  }
  param {
    lr_mult: 2
  }
  convolution_param {
    num_output: 64
    pad: 2
    kernel_size: 5
    stride: 1
    weight_filler {
      type: "gaussian"
      std: 0.01
    }
    bias_filler {
      type: "constant"
    }
  }
}
layer {
  name: "relu4"
  type: "ReLU"
  bottom: "conv4"
  top: "conv4"
}
layer {
  name: "conv5"
  type: "Convolution"
  bottom: "conv4"
  top: "conv5"
  param {
    lr_mult: 1
  }
  param {
    lr_mult: 2
  }
  convolution_param {
    num_output: 64
    pad: 2
    kernel_size: 5
    stride: 1
    weight_filler {
      type: "gaussian"
      std: 0.01
    }
    bias_filler {
      type: "constant"
    }
  }
}
layer {
  name: "relu5"
  type: "ReLU"
  bottom: "conv5"
  top: "conv5"
}
layer {
  name: "pool5"
  type: "Pooling"
  bottom: "conv5"
  top: "pool5"
  pooling_param {
    pool: AVE
    kernel_size: 3
    stride: 2
  }
}
layer {
  name: "ip1"
  type: "InnerProduct"
  bottom: "pool5"
  top: "ip1"
  param {
    lr_mult: 1
  }
  param {
    lr_mult: 2
  }
  inner_product_param {
    num_output: 64
    weight_filler {
      type: "gaussian"
      std: 0.1
    }
    bias_filler {
      type: "constant"
    }
  }
}
layer {
  name: "ip2"
  type: "InnerProduct"
  bottom: "ip1"
  top: "ip2"
  param {
    lr_mult: 1
  }
  param {
    lr_mult: 2
  }
  inner_product_param {
    num_output: 64
    weight_filler {
      type: "gaussian"
      std: 0.1
    }
    bias_filler {
      type: "constant"
    }
  }
}
layer {
  name: "ip3"
  type: "InnerProduct"
  bottom: "ip2"
  top: "ip3"
  param {
    lr_mult: 1
  }
  param {
    lr_mult: 2
  }
  inner_product_param {
    num_output: 50
    weight_filler {
      type: "gaussian"
      std: 0.1
    }
    bias_filler {
      type: "constant"
    }
  }
}
layer {
  name: "loss"
  type: "SoftmaxWithLoss"
  bottom: "ip3"
  bottom: "label"
  top: "loss"
}
I0507 15:19:39.122665  4024 layer_factory.hpp:77] Creating layer parameters
I0507 15:19:39.122673  4024 net.cpp:94] Creating Layer parameters
I0507 15:19:39.122678  4024 net.cpp:409] parameters -> data
I0507 15:19:39.122684  4024 net.cpp:409] parameters -> label
I0507 15:19:39.122690  4024 hdf5_data_layer.cpp:79] Loading list of HDF5 filenames from: /home/purduethu/scratch/radon/d/deng106/CNNStatisticalModel/distributions/input/50_distributions_400_sample_size_train-distributions-path.txt
I0507 15:19:39.122706  4024 hdf5_data_layer.cpp:93] Number of HDF5 files: 1
I0507 15:19:39.758114  4024 hdf5.cpp:35] Datatype class: H5T_INTEGER
I0507 15:19:39.761157  4024 net.cpp:144] Setting up parameters
I0507 15:19:39.761178  4024 net.cpp:151] Top shape: 20 1 20 20 (8000)
I0507 15:19:39.761183  4024 net.cpp:151] Top shape: 20 (20)
I0507 15:19:39.761186  4024 net.cpp:159] Memory required for data: 32080
I0507 15:19:39.761193  4024 layer_factory.hpp:77] Creating layer conv1
I0507 15:19:39.761209  4024 net.cpp:94] Creating Layer conv1
I0507 15:19:39.761212  4024 net.cpp:435] conv1 <- data
I0507 15:19:39.761219  4024 net.cpp:409] conv1 -> conv1
I0507 15:19:39.764005  4024 net.cpp:144] Setting up conv1
I0507 15:19:39.764019  4024 net.cpp:151] Top shape: 20 64 20 20 (512000)
I0507 15:19:39.764024  4024 net.cpp:159] Memory required for data: 2080080
I0507 15:19:39.764034  4024 layer_factory.hpp:77] Creating layer relu1
I0507 15:19:39.764041  4024 net.cpp:94] Creating Layer relu1
I0507 15:19:39.764045  4024 net.cpp:435] relu1 <- conv1
I0507 15:19:39.764050  4024 net.cpp:396] relu1 -> conv1 (in-place)
I0507 15:19:39.764056  4024 net.cpp:144] Setting up relu1
I0507 15:19:39.764061  4024 net.cpp:151] Top shape: 20 64 20 20 (512000)
I0507 15:19:39.764063  4024 net.cpp:159] Memory required for data: 4128080
I0507 15:19:39.764066  4024 layer_factory.hpp:77] Creating layer conv2
I0507 15:19:39.764075  4024 net.cpp:94] Creating Layer conv2
I0507 15:19:39.764077  4024 net.cpp:435] conv2 <- conv1
I0507 15:19:39.764082  4024 net.cpp:409] conv2 -> conv2
I0507 15:19:39.774147  4024 net.cpp:144] Setting up conv2
I0507 15:19:39.774160  4024 net.cpp:151] Top shape: 20 64 20 20 (512000)
I0507 15:19:39.774164  4024 net.cpp:159] Memory required for data: 6176080
I0507 15:19:39.774173  4024 layer_factory.hpp:77] Creating layer relu2
I0507 15:19:39.774179  4024 net.cpp:94] Creating Layer relu2
I0507 15:19:39.774183  4024 net.cpp:435] relu2 <- conv2
I0507 15:19:39.774188  4024 net.cpp:396] relu2 -> conv2 (in-place)
I0507 15:19:39.774194  4024 net.cpp:144] Setting up relu2
I0507 15:19:39.774199  4024 net.cpp:151] Top shape: 20 64 20 20 (512000)
I0507 15:19:39.774201  4024 net.cpp:159] Memory required for data: 8224080
I0507 15:19:39.774204  4024 layer_factory.hpp:77] Creating layer pool2
I0507 15:19:39.774210  4024 net.cpp:94] Creating Layer pool2
I0507 15:19:39.774214  4024 net.cpp:435] pool2 <- conv2
I0507 15:19:39.774217  4024 net.cpp:409] pool2 -> pool2
I0507 15:19:39.774267  4024 net.cpp:144] Setting up pool2
I0507 15:19:39.774274  4024 net.cpp:151] Top shape: 20 64 10 10 (128000)
I0507 15:19:39.774277  4024 net.cpp:159] Memory required for data: 8736080
I0507 15:19:39.774281  4024 layer_factory.hpp:77] Creating layer conv3
I0507 15:19:39.774288  4024 net.cpp:94] Creating Layer conv3
I0507 15:19:39.774292  4024 net.cpp:435] conv3 <- pool2
I0507 15:19:39.774303  4024 net.cpp:409] conv3 -> conv3
I0507 15:19:39.779803  4024 net.cpp:144] Setting up conv3
I0507 15:19:39.779816  4024 net.cpp:151] Top shape: 20 64 10 10 (128000)
I0507 15:19:39.779820  4024 net.cpp:159] Memory required for data: 9248080
I0507 15:19:39.779829  4024 layer_factory.hpp:77] Creating layer relu3
I0507 15:19:39.779834  4024 net.cpp:94] Creating Layer relu3
I0507 15:19:39.779837  4024 net.cpp:435] relu3 <- conv3
I0507 15:19:39.779841  4024 net.cpp:396] relu3 -> conv3 (in-place)
I0507 15:19:39.779848  4024 net.cpp:144] Setting up relu3
I0507 15:19:39.779853  4024 net.cpp:151] Top shape: 20 64 10 10 (128000)
I0507 15:19:39.779855  4024 net.cpp:159] Memory required for data: 9760080
I0507 15:19:39.779858  4024 layer_factory.hpp:77] Creating layer conv4
I0507 15:19:39.779866  4024 net.cpp:94] Creating Layer conv4
I0507 15:19:39.779870  4024 net.cpp:435] conv4 <- conv3
I0507 15:19:39.779875  4024 net.cpp:409] conv4 -> conv4
I0507 15:19:39.785378  4024 net.cpp:144] Setting up conv4
I0507 15:19:39.785392  4024 net.cpp:151] Top shape: 20 64 10 10 (128000)
I0507 15:19:39.785395  4024 net.cpp:159] Memory required for data: 10272080
I0507 15:19:39.785403  4024 layer_factory.hpp:77] Creating layer relu4
I0507 15:19:39.785408  4024 net.cpp:94] Creating Layer relu4
I0507 15:19:39.785411  4024 net.cpp:435] relu4 <- conv4
I0507 15:19:39.785416  4024 net.cpp:396] relu4 -> conv4 (in-place)
I0507 15:19:39.785423  4024 net.cpp:144] Setting up relu4
I0507 15:19:39.785428  4024 net.cpp:151] Top shape: 20 64 10 10 (128000)
I0507 15:19:39.785430  4024 net.cpp:159] Memory required for data: 10784080
I0507 15:19:39.785434  4024 layer_factory.hpp:77] Creating layer conv5
I0507 15:19:39.785440  4024 net.cpp:94] Creating Layer conv5
I0507 15:19:39.785444  4024 net.cpp:435] conv5 <- conv4
I0507 15:19:39.785449  4024 net.cpp:409] conv5 -> conv5
I0507 15:19:39.790959  4024 net.cpp:144] Setting up conv5
I0507 15:19:39.790973  4024 net.cpp:151] Top shape: 20 64 10 10 (128000)
I0507 15:19:39.790977  4024 net.cpp:159] Memory required for data: 11296080
I0507 15:19:39.790985  4024 layer_factory.hpp:77] Creating layer relu5
I0507 15:19:39.790992  4024 net.cpp:94] Creating Layer relu5
I0507 15:19:39.790994  4024 net.cpp:435] relu5 <- conv5
I0507 15:19:39.790999  4024 net.cpp:396] relu5 -> conv5 (in-place)
I0507 15:19:39.791005  4024 net.cpp:144] Setting up relu5
I0507 15:19:39.791010  4024 net.cpp:151] Top shape: 20 64 10 10 (128000)
I0507 15:19:39.791013  4024 net.cpp:159] Memory required for data: 11808080
I0507 15:19:39.791016  4024 layer_factory.hpp:77] Creating layer pool5
I0507 15:19:39.791021  4024 net.cpp:94] Creating Layer pool5
I0507 15:19:39.791024  4024 net.cpp:435] pool5 <- conv5
I0507 15:19:39.791028  4024 net.cpp:409] pool5 -> pool5
I0507 15:19:39.791061  4024 net.cpp:144] Setting up pool5
I0507 15:19:39.791069  4024 net.cpp:151] Top shape: 20 64 5 5 (32000)
I0507 15:19:39.791071  4024 net.cpp:159] Memory required for data: 11936080
I0507 15:19:39.791075  4024 layer_factory.hpp:77] Creating layer ip1
I0507 15:19:39.791081  4024 net.cpp:94] Creating Layer ip1
I0507 15:19:39.791085  4024 net.cpp:435] ip1 <- pool5
I0507 15:19:39.791090  4024 net.cpp:409] ip1 -> ip1
I0507 15:19:39.794461  4024 net.cpp:144] Setting up ip1
I0507 15:19:39.794473  4024 net.cpp:151] Top shape: 20 64 (1280)
I0507 15:19:39.794477  4024 net.cpp:159] Memory required for data: 11941200
I0507 15:19:39.794483  4024 layer_factory.hpp:77] Creating layer ip2
I0507 15:19:39.794490  4024 net.cpp:94] Creating Layer ip2
I0507 15:19:39.794494  4024 net.cpp:435] ip2 <- ip1
I0507 15:19:39.794499  4024 net.cpp:409] ip2 -> ip2
I0507 15:19:39.794715  4024 net.cpp:144] Setting up ip2
I0507 15:19:39.794723  4024 net.cpp:151] Top shape: 20 64 (1280)
I0507 15:19:39.794726  4024 net.cpp:159] Memory required for data: 11946320
I0507 15:19:39.794731  4024 layer_factory.hpp:77] Creating layer ip3
I0507 15:19:39.794737  4024 net.cpp:94] Creating Layer ip3
I0507 15:19:39.794740  4024 net.cpp:435] ip3 <- ip2
I0507 15:19:39.794745  4024 net.cpp:409] ip3 -> ip3
I0507 15:19:39.794939  4024 net.cpp:144] Setting up ip3
I0507 15:19:39.794946  4024 net.cpp:151] Top shape: 20 50 (1000)
I0507 15:19:39.794950  4024 net.cpp:159] Memory required for data: 11950320
I0507 15:19:39.794955  4024 layer_factory.hpp:77] Creating layer loss
I0507 15:19:39.794961  4024 net.cpp:94] Creating Layer loss
I0507 15:19:39.794965  4024 net.cpp:435] loss <- ip3
I0507 15:19:39.794968  4024 net.cpp:435] loss <- label
I0507 15:19:39.794972  4024 net.cpp:409] loss -> loss
I0507 15:19:39.794980  4024 layer_factory.hpp:77] Creating layer loss
…
I0507 15:19:39.795493  4024 solver.cpp:181] Creating test net (#0) specified by net file: ./protocol/dis_50_400_dimension.protocol_distribution
I0507 15:19:39.795519  4024 net.cpp:323] The NetState phase (1) differed from the phase (0) specified by a rule in layer parameters
I0507 15:19:39.795616  4024 net.cpp:52] Initializing net from parameters: 
state {
  phase: TEST
}
layer {
  name: "intercept"
  type: "HDF5Data"
  top: "data"
  top: "label"
  include {
    phase: TEST
  }
  hdf5_data_param {
    source: "/home/purduethu/scratch/radon/d/deng106/CNNStatisticalModel/distributions/input/50_distributions_400_sample_size_test-distributions-path.txt"
    batch_size: 20
  }
}
layer {
  name: "conv1"
  type: "Convolution"
  bottom: "data"
  top: "conv1"
  param {
    lr_mult: 1
  }
  param {
    lr_mult: 2
  }
  convolution_param {
    num_output: 64
    pad: 2
    kernel_size: 5
    stride: 1
    weight_filler {
      type: "gaussian"
      std: 0.0001
    }
    bias_filler {
      type: "constant"
    }
  }
}
layer {
  name: "relu1"
  type: "ReLU"
  bottom: "conv1"
  top: "conv1"
}
layer {
  name: "conv2"
  type: "Convolution"
  bottom: "conv1"
  top: "conv2"
  param {
    lr_mult: 1
  }
  param {
    lr_mult: 2
  }
  convolution_param {
    num_output: 64
    pad: 2
    kernel_size: 5
    stride: 1
    weight_filler {
      type: "gaussian"
      std: 0.01
    }
    bias_filler {
      type: "constant"
    }
  }
}
layer {
  name: "relu2"
  type: "ReLU"
  bottom: "conv2"
  top: "conv2"
}
layer {
  name: "pool2"
  type: "Pooling"
  bottom: "conv2"
  top: "pool2"
  pooling_param {
    pool: MAX
    kernel_size: 3
    stride: 2
  }
}
layer {
  name: "conv3"
  type: "Convolution"
  bottom: "pool2"
  top: "conv3"
  param {
    lr_mult: 1
  }
  param {
    lr_mult: 2
  }
  convolution_param {
    num_output: 64
    pad: 2
    kernel_size: 5
    stride: 1
    weight_filler {
      type: "gaussian"
      std: 0.01
    }
    bias_filler {
      type: "constant"
    }
  }
}
layer {
  name: "relu3"
  type: "ReLU"
  bottom: "conv3"
  top: "conv3"
}
layer {
  name: "conv4"
  type: "Convolution"
  bottom: "conv3"
  top: "conv4"
  param {
    lr_mult: 1
  }
  param {
    lr_mult: 2
  }
  convolution_param {
    num_output: 64
    pad: 2
    kernel_size: 5
    stride: 1
    weight_filler {
      type: "gaussian"
      std: 0.01
    }
    bias_filler {
      type: "constant"
    }
  }
}
layer {
  name: "relu4"
  type: "ReLU"
  bottom: "conv4"
  top: "conv4"
}
layer {
  name: "conv5"
  type: "Convolution"
  bottom: "conv4"
  top: "conv5"
  param {
    lr_mult: 1
  }
  param {
    lr_mult: 2
  }
  convolution_param {
    num_output: 64
    pad: 2
    kernel_size: 5
    stride: 1
    weight_filler {
      type: "gaussian"
      std: 0.01
    }
    bias_filler {
      type: "constant"
    }
  }
}
layer {
  name: "relu5"
  type: "ReLU"
  bottom: "conv5"
  top: "conv5"
}
layer {
  name: "pool5"
  type: "Pooling"
  bottom: "conv5"
  top: "pool5"
  pooling_param {
    pool: AVE
    kernel_size: 3
    stride: 2
  }
}
layer {
  name: "ip1"
  type: "InnerProduct"
  bottom: "pool5"
  top: "ip1"
  param {
    lr_mult: 1
  }
  param {
    lr_mult: 2
  }
  inner_product_param {
    num_output: 64
    weight_filler {
      type: "gaussian"
      std: 0.1
    }
    bias_filler {
      type: "constant"
    }
  }
}
layer {
  name: "ip2"
  type: "InnerProduct"
  bottom: "ip1"
  top: "ip2"
  param {
    lr_mult: 1
  }
  param {
    lr_mult: 2
  }
  inner_product_param {
    num_output: 64
    weight_filler {
      type: "gaussian"
      std: 0.1
    }
    bias_filler {
      type: "constant"
    }
  }
}
layer {
  name: "ip3"
  type: "InnerProduct"
  bottom: "ip2"
  top: "ip3"
  param {
    lr_mult: 1
  }
  param {
    lr_mult: 2
  }
  inner_product_param {
    num_output: 50
    weight_filler {
      type: "gaussian"
      std: 0.1
    }
    bias_filler {
      type: "constant"
    }
  }
}
layer {
  name: "accuracy"
  type: "Accuracy"
  bottom: "ip3"
  bottom: "label"
  top: "accuracy"
  include {
    phase: TEST
  }
}
layer {
  name: "loss"
  type: "SoftmaxWithLoss"
  bottom: "ip3"
  bottom: "label"
  top: "loss"
}
I0507 15:19:39.795680  4024 layer_factory.hpp:77] Creating layer intercept
I0507 15:19:39.795689  4024 net.cpp:94] Creating Layer intercept
I0507 15:19:39.795693  4024 net.cpp:409] intercept -> data
I0507 15:19:39.795701  4024 net.cpp:409] intercept -> label
I0507 15:19:39.795706  4024 hdf5_data_layer.cpp:79] Loading list of HDF5 filenames from: /home/purduethu/scratch/radon/d/deng106/CNNStatisticalModel/distributions/input/50_distributions_400_sample_size_test-distributions-path.txt
I0507 15:19:39.795727  4024 hdf5_data_layer.cpp:93] Number of HDF5 files: 1
I0507 15:19:39.958338  4024 net.cpp:144] Setting up intercept
I0507 15:19:39.958374  4024 net.cpp:151] Top shape: 20 1 20 20 (8000)
I0507 15:19:39.958380  4024 net.cpp:151] Top shape: 20 (20)
I0507 15:19:39.958384  4024 net.cpp:159] Memory required for data: 32080
I0507 15:19:39.958389  4024 layer_factory.hpp:77] Creating layer label_intercept_1_split
I0507 15:19:39.958408  4024 net.cpp:94] Creating Layer label_intercept_1_split
I0507 15:19:39.958413  4024 net.cpp:435] label_intercept_1_split <- label
I0507 15:19:39.958420  4024 net.cpp:409] label_intercept_1_split -> label_intercept_1_split_0
I0507 15:19:39.958428  4024 net.cpp:409] label_intercept_1_split -> label_intercept_1_split_1
I0507 15:19:39.958467  4024 net.cpp:144] Setting up label_intercept_1_split
I0507 15:19:39.958474  4024 net.cpp:151] Top shape: 20 (20)
I0507 15:19:39.958478  4024 net.cpp:151] Top shape: 20 (20)
I0507 15:19:39.958482  4024 net.cpp:159] Memory required for data: 32240
I0507 15:19:39.958484  4024 layer_factory.hpp:77] Creating layer conv1
I0507 15:19:39.958494  4024 net.cpp:94] Creating Layer conv1
I0507 15:19:39.958498  4024 net.cpp:435] conv1 <- data
I0507 15:19:39.958503  4024 net.cpp:409] conv1 -> conv1
I0507 15:19:39.959877  4024 net.cpp:144] Setting up conv1
I0507 15:19:39.959897  4024 net.cpp:151] Top shape: 20 64 20 20 (512000)
I0507 15:19:39.959900  4024 net.cpp:159] Memory required for data: 2080240
I0507 15:19:39.959910  4024 layer_factory.hpp:77] Creating layer relu1
I0507 15:19:39.959918  4024 net.cpp:94] Creating Layer relu1
I0507 15:19:39.959920  4024 net.cpp:435] relu1 <- conv1
I0507 15:19:39.959924  4024 net.cpp:396] relu1 -> conv1 (in-place)
I0507 15:19:39.959931  4024 net.cpp:144] Setting up relu1
I0507 15:19:39.959936  4024 net.cpp:151] Top shape: 20 64 20 20 (512000)
I0507 15:19:39.959939  4024 net.cpp:159] Memory required for data: 4128240
I0507 15:19:39.959941  4024 layer_factory.hpp:77] Creating layer conv2
I0507 15:19:39.959949  4024 net.cpp:94] Creating Layer conv2
I0507 15:19:39.959952  4024 net.cpp:435] conv2 <- conv1
I0507 15:19:39.959957  4024 net.cpp:409] conv2 -> conv2
I0507 15:19:39.964996  4024 net.cpp:144] Setting up conv2
I0507 15:19:39.965010  4024 net.cpp:151] Top shape: 20 64 20 20 (512000)
I0507 15:19:39.965014  4024 net.cpp:159] Memory required for data: 6176240
I0507 15:19:39.965023  4024 layer_factory.hpp:77] Creating layer relu2
I0507 15:19:39.965029  4024 net.cpp:94] Creating Layer relu2
I0507 15:19:39.965031  4024 net.cpp:435] relu2 <- conv2
I0507 15:19:39.965036  4024 net.cpp:396] relu2 -> conv2 (in-place)
I0507 15:19:39.965042  4024 net.cpp:144] Setting up relu2
I0507 15:19:39.965047  4024 net.cpp:151] Top shape: 20 64 20 20 (512000)
I0507 15:19:39.965049  4024 net.cpp:159] Memory required for data: 8224240
I0507 15:19:39.965054  4024 layer_factory.hpp:77] Creating layer pool2
I0507 15:19:39.965060  4024 net.cpp:94] Creating Layer pool2
I0507 15:19:39.965064  4024 net.cpp:435] pool2 <- conv2
I0507 15:19:39.965067  4024 net.cpp:409] pool2 -> pool2
I0507 15:19:39.965121  4024 net.cpp:144] Setting up pool2
I0507 15:19:39.965128  4024 net.cpp:151] Top shape: 20 64 10 10 (128000)
I0507 15:19:39.965131  4024 net.cpp:159] Memory required for data: 8736240
I0507 15:19:39.965134  4024 layer_factory.hpp:77] Creating layer conv3
I0507 15:19:39.965142  4024 net.cpp:94] Creating Layer conv3
I0507 15:19:39.965147  4024 net.cpp:435] conv3 <- pool2
I0507 15:19:39.965152  4024 net.cpp:409] conv3 -> conv3
I0507 15:19:39.969135  4024 net.cpp:144] Setting up conv3
I0507 15:19:39.969148  4024 net.cpp:151] Top shape: 20 64 10 10 (128000)
I0507 15:19:39.969152  4024 net.cpp:159] Memory required for data: 9248240
I0507 15:19:39.969162  4024 layer_factory.hpp:77] Creating layer relu3
I0507 15:19:39.969169  4024 net.cpp:94] Creating Layer relu3
I0507 15:19:39.969172  4024 net.cpp:435] relu3 <- conv3
I0507 15:19:39.969177  4024 net.cpp:396] relu3 -> conv3 (in-place)
I0507 15:19:39.969184  4024 net.cpp:144] Setting up relu3
I0507 15:19:39.969189  4024 net.cpp:151] Top shape: 20 64 10 10 (128000)
I0507 15:19:39.969192  4024 net.cpp:159] Memory required for data: 9760240
I0507 15:19:39.969195  4024 layer_factory.hpp:77] Creating layer conv4
I0507 15:19:39.969203  4024 net.cpp:94] Creating Layer conv4
I0507 15:19:39.969208  4024 net.cpp:435] conv4 <- conv3
I0507 15:19:39.969213  4024 net.cpp:409] conv4 -> conv4
I0507 15:19:39.972815  4024 net.cpp:144] Setting up conv4
I0507 15:19:39.972828  4024 net.cpp:151] Top shape: 20 64 10 10 (128000)
I0507 15:19:39.972831  4024 net.cpp:159] Memory required for data: 10272240
I0507 15:19:39.972837  4024 layer_factory.hpp:77] Creating layer relu4
I0507 15:19:39.972843  4024 net.cpp:94] Creating Layer relu4
I0507 15:19:39.972846  4024 net.cpp:435] relu4 <- conv4
I0507 15:19:39.972851  4024 net.cpp:396] relu4 -> conv4 (in-place)
I0507 15:19:39.972857  4024 net.cpp:144] Setting up relu4
I0507 15:19:39.972862  4024 net.cpp:151] Top shape: 20 64 10 10 (128000)
I0507 15:19:39.972864  4024 net.cpp:159] Memory required for data: 10784240
I0507 15:19:39.972867  4024 layer_factory.hpp:77] Creating layer conv5
I0507 15:19:39.972875  4024 net.cpp:94] Creating Layer conv5
I0507 15:19:39.972879  4024 net.cpp:435] conv5 <- conv4
I0507 15:19:39.972884  4024 net.cpp:409] conv5 -> conv5
I0507 15:19:39.977767  4024 net.cpp:144] Setting up conv5
I0507 15:19:39.977784  4024 net.cpp:151] Top shape: 20 64 10 10 (128000)
I0507 15:19:39.977788  4024 net.cpp:159] Memory required for data: 11296240
I0507 15:19:39.977797  4024 layer_factory.hpp:77] Creating layer relu5
I0507 15:19:39.977804  4024 net.cpp:94] Creating Layer relu5
I0507 15:19:39.977807  4024 net.cpp:435] relu5 <- conv5
I0507 15:19:39.977813  4024 net.cpp:396] relu5 -> conv5 (in-place)
I0507 15:19:39.977819  4024 net.cpp:144] Setting up relu5
I0507 15:19:39.977823  4024 net.cpp:151] Top shape: 20 64 10 10 (128000)
I0507 15:19:39.977826  4024 net.cpp:159] Memory required for data: 11808240
I0507 15:19:39.977829  4024 layer_factory.hpp:77] Creating layer pool5
I0507 15:19:39.977835  4024 net.cpp:94] Creating Layer pool5
I0507 15:19:39.977838  4024 net.cpp:435] pool5 <- conv5
I0507 15:19:39.977843  4024 net.cpp:409] pool5 -> pool5
I0507 15:19:39.977879  4024 net.cpp:144] Setting up pool5
I0507 15:19:39.977885  4024 net.cpp:151] Top shape: 20 64 5 5 (32000)
I0507 15:19:39.977888  4024 net.cpp:159] Memory required for data: 11936240
I0507 15:19:39.977891  4024 layer_factory.hpp:77] Creating layer ip1
I0507 15:19:39.977898  4024 net.cpp:94] Creating Layer ip1
I0507 15:19:39.977901  4024 net.cpp:435] ip1 <- pool5
I0507 15:19:39.977907  4024 net.cpp:409] ip1 -> ip1
I0507 15:19:39.980448  4024 net.cpp:144] Setting up ip1
I0507 15:19:39.980456  4024 net.cpp:151] Top shape: 20 64 (1280)
I0507 15:19:39.980459  4024 net.cpp:159] Memory required for data: 11941360
I0507 15:19:39.980464  4024 layer_factory.hpp:77] Creating layer ip2
I0507 15:19:39.980471  4024 net.cpp:94] Creating Layer ip2
I0507 15:19:39.980474  4024 net.cpp:435] ip2 <- ip1
I0507 15:19:39.980479  4024 net.cpp:409] ip2 -> ip2
I0507 15:19:39.980715  4024 net.cpp:144] Setting up ip2
I0507 15:19:39.980723  4024 net.cpp:151] Top shape: 20 64 (1280)
I0507 15:19:39.980726  4024 net.cpp:159] Memory required for data: 11946480
I0507 15:19:39.980732  4024 layer_factory.hpp:77] Creating layer ip3
I0507 15:19:39.980741  4024 net.cpp:94] Creating Layer ip3
I0507 15:19:39.980744  4024 net.cpp:435] ip3 <- ip2
I0507 15:19:39.980751  4024 net.cpp:409] ip3 -> ip3
I0507 15:19:39.980948  4024 net.cpp:144] Setting up ip3
I0507 15:19:39.980957  4024 net.cpp:151] Top shape: 20 50 (1000)
I0507 15:19:39.980959  4024 net.cpp:159] Memory required for data: 11950480
I0507 15:19:39.980964  4024 layer_factory.hpp:77] Creating layer ip3_ip3_0_split
I0507 15:19:39.980969  4024 net.cpp:94] Creating Layer ip3_ip3_0_split
I0507 15:19:39.980973  4024 net.cpp:435] ip3_ip3_0_split <- ip3
I0507 15:19:39.980978  4024 net.cpp:409] ip3_ip3_0_split -> ip3_ip3_0_split_0
I0507 15:19:39.980983  4024 net.cpp:409] ip3_ip3_0_split -> ip3_ip3_0_split_1
I0507 15:19:39.981021  4024 net.cpp:144] Setting up ip3_ip3_0_split
I0507 15:19:39.981029  4024 net.cpp:151] Top shape: 20 50 (1000)
I0507 15:19:39.981031  4024 net.cpp:151] Top shape: 20 50 (1000)
I0507 15:19:39.981034  4024 net.cpp:159] Memory required for data: 11958480
I0507 15:19:39.981037  4024 layer_factory.hpp:77] Creating layer accuracy
I0507 15:19:39.981043  4024 net.cpp:94] Creating Layer accuracy
I0507 15:19:39.981046  4024 net.cpp:435] accuracy <- ip3_ip3_0_split_0
I0507 15:19:39.981050  4024 net.cpp:435] accuracy <- label_intercept_1_split_0
I0507 15:19:39.981055  4024 net.cpp:409] accuracy -> accuracy
…
