…
I0501 05:35:28.155797 31331 net.cpp:323] The NetState phase (0) differed from the phase (1) specified by a rule in layer intercept
I0501 05:35:28.155813 31331 net.cpp:323] The NetState phase (0) differed from the phase (1) specified by a rule in layer loss
I0501 05:35:28.155902 31331 net.cpp:52] Initializing net from parameters: 
state {
  phase: TRAIN
}
layer {
  name: "parameters"
  type: "HDF5Data"
  top: "data"
  top: "label"
  include {
    phase: TRAIN
  }
  hdf5_data_param {
    source: "/home/purduethu/scratch/radon/d/deng106/CNNStatisticalModel/distributions/input/50_distributions_900_sample_size_train-parameters-path.txt"
    batch_size: 20
  }
}
layer {
  name: "conv1"
  type: "Convolution"
  bottom: "data"
  top: "conv1"
  param {
    lr_mult: 1
  }
  param {
    lr_mult: 2
  }
  convolution_param {
    num_output: 64
    pad: 2
    kernel_size: 5
    stride: 1
    weight_filler {
      type: "gaussian"
      std: 0.0001
    }
    bias_filler {
      type: "constant"
    }
  }
}
layer {
  name: "relu1"
  type: "ReLU"
  bottom: "conv1"
  top: "conv1"
}
layer {
  name: "conv2"
  type: "Convolution"
  bottom: "conv1"
  top: "conv2"
  param {
    lr_mult: 1
  }
  param {
    lr_mult: 2
  }
  convolution_param {
    num_output: 64
    pad: 2
    kernel_size: 5
    stride: 1
    weight_filler {
      type: "gaussian"
      std: 0.01
    }
    bias_filler {
      type: "constant"
    }
  }
}
layer {
  name: "relu2"
  type: "ReLU"
  bottom: "conv2"
  top: "conv2"
}
layer {
  name: "pool2"
  type: "Pooling"
  bottom: "conv2"
  top: "pool2"
  pooling_param {
    pool: MAX
    kernel_size: 3
    stride: 2
  }
}
layer {
  name: "conv3"
  type: "Convolution"
  bottom: "pool2"
  top: "conv3"
  param {
    lr_mult: 1
  }
  param {
    lr_mult: 2
  }
  convolution_param {
    num_output: 128
    pad: 2
    kernel_size: 5
    stride: 1
    weight_filler {
      type: "gaussian"
      std: 0.01
    }
    bias_filler {
      type: "constant"
    }
  }
}
layer {
  name: "relu3"
  type: "ReLU"
  bottom: "conv3"
  top: "conv3"
}
layer {
  name: "conv4"
  type: "Convolution"
  bottom: "conv3"
  top: "conv4"
  param {
    lr_mult: 1
  }
  param {
    lr_mult: 2
  }
  convolution_param {
    num_output: 128
    pad: 2
    kernel_size: 5
    stride: 1
    weight_filler {
      type: "gaussian"
      std: 0.01
    }
    bias_filler {
      type: "constant"
    }
  }
}
layer {
  name: "relu4"
  type: "ReLU"
  bottom: "conv4"
  top: "conv4"
}
layer {
  name: "conv5"
  type: "Convolution"
  bottom: "conv4"
  top: "conv5"
  param {
    lr_mult: 1
  }
  param {
    lr_mult: 2
  }
  convolution_param {
    num_output: 128
    pad: 2
    kernel_size: 5
    stride: 1
    weight_filler {
      type: "gaussian"
      std: 0.01
    }
    bias_filler {
      type: "constant"
    }
  }
}
layer {
  name: "relu5"
  type: "ReLU"
  bottom: "conv5"
  top: "conv5"
}
layer {
  name: "pool5"
  type: "Pooling"
  bottom: "conv5"
  top: "pool5"
  pooling_param {
    pool: AVE
    kernel_size: 3
    stride: 2
  }
}
layer {
  name: "ip1"
  type: "InnerProduct"
  bottom: "pool5"
  top: "ip1"
  param {
    lr_mult: 1
  }
  param {
    lr_mult: 2
  }
  inner_product_param {
    num_output: 1024
    weight_filler {
      type: "gaussian"
      std: 0.1
    }
    bias_filler {
      type: "constant"
    }
  }
}
layer {
  name: "ip2"
  type: "InnerProduct"
  bottom: "ip1"
  top: "ip2"
  param {
    lr_mult: 1
  }
  param {
    lr_mult: 2
  }
  inner_product_param {
    num_output: 512
    weight_filler {
      type: "gaussian"
      std: 0.1
    }
    bias_filler {
      type: "constant"
    }
  }
}
layer {
  name: "ip3"
  type: "InnerProduct"
  bottom: "ip2"
  top: "ip3"
  param {
    lr_mult: 1
  }
  param {
    lr_mult: 2
  }
  inner_product_param {
    num_output: 1
    weight_filler {
      type: "gaussian"
      std: 0.1
    }
    bias_filler {
      type: "constant"
    }
  }
}
layer {
  name: "loss"
  type: "HuberLoss"
  bottom: "ip3"
  bottom: "label"
  top: "loss"
  include {
    phase: TRAIN
  }
}
I0501 05:35:28.155977 31331 layer_factory.hpp:77] Creating layer parameters
I0501 05:35:28.155992 31331 net.cpp:94] Creating Layer parameters
I0501 05:35:28.155998 31331 net.cpp:409] parameters -> data
I0501 05:35:28.156018 31331 net.cpp:409] parameters -> label
I0501 05:35:28.156028 31331 hdf5_data_layer.cpp:79] Loading list of HDF5 filenames from: /home/purduethu/scratch/radon/d/deng106/CNNStatisticalModel/distributions/input/50_distributions_900_sample_size_train-parameters-path.txt
I0501 05:35:28.156050 31331 hdf5_data_layer.cpp:93] Number of HDF5 files: 1
I0501 05:35:28.156635 31331 hdf5.cpp:32] Datatype class: H5T_FLOAT
I0501 05:35:29.600229 31331 net.cpp:144] Setting up parameters
I0501 05:35:29.600266 31331 net.cpp:151] Top shape: 20 1 30 30 (18000)
I0501 05:35:29.600272 31331 net.cpp:151] Top shape: 20 (20)
I0501 05:35:29.600277 31331 net.cpp:159] Memory required for data: 72080
I0501 05:35:29.600284 31331 layer_factory.hpp:77] Creating layer conv1
I0501 05:35:29.600304 31331 net.cpp:94] Creating Layer conv1
I0501 05:35:29.600311 31331 net.cpp:435] conv1 <- data
I0501 05:35:29.600322 31331 net.cpp:409] conv1 -> conv1
I0501 05:35:29.609639 31331 net.cpp:144] Setting up conv1
I0501 05:35:29.609681 31331 net.cpp:151] Top shape: 20 64 30 30 (1152000)
I0501 05:35:29.609695 31331 net.cpp:159] Memory required for data: 4680080
I0501 05:35:29.609726 31331 layer_factory.hpp:77] Creating layer relu1
I0501 05:35:29.609746 31331 net.cpp:94] Creating Layer relu1
I0501 05:35:29.609760 31331 net.cpp:435] relu1 <- conv1
I0501 05:35:29.609773 31331 net.cpp:396] relu1 -> conv1 (in-place)
I0501 05:35:29.609810 31331 net.cpp:144] Setting up relu1
I0501 05:35:29.609827 31331 net.cpp:151] Top shape: 20 64 30 30 (1152000)
I0501 05:35:29.609838 31331 net.cpp:159] Memory required for data: 9288080
I0501 05:35:29.609848 31331 layer_factory.hpp:77] Creating layer conv2
I0501 05:35:29.609870 31331 net.cpp:94] Creating Layer conv2
I0501 05:35:29.609881 31331 net.cpp:435] conv2 <- conv1
I0501 05:35:29.609897 31331 net.cpp:409] conv2 -> conv2
I0501 05:35:29.625073 31331 net.cpp:144] Setting up conv2
I0501 05:35:29.625089 31331 net.cpp:151] Top shape: 20 64 30 30 (1152000)
I0501 05:35:29.625094 31331 net.cpp:159] Memory required for data: 13896080
I0501 05:35:29.625103 31331 layer_factory.hpp:77] Creating layer relu2
I0501 05:35:29.625110 31331 net.cpp:94] Creating Layer relu2
I0501 05:35:29.625114 31331 net.cpp:435] relu2 <- conv2
I0501 05:35:29.625119 31331 net.cpp:396] relu2 -> conv2 (in-place)
I0501 05:35:29.625128 31331 net.cpp:144] Setting up relu2
I0501 05:35:29.625133 31331 net.cpp:151] Top shape: 20 64 30 30 (1152000)
I0501 05:35:29.625135 31331 net.cpp:159] Memory required for data: 18504080
I0501 05:35:29.625139 31331 layer_factory.hpp:77] Creating layer pool2
I0501 05:35:29.625147 31331 net.cpp:94] Creating Layer pool2
I0501 05:35:29.625157 31331 net.cpp:435] pool2 <- conv2
I0501 05:35:29.625164 31331 net.cpp:409] pool2 -> pool2
I0501 05:35:29.625206 31331 net.cpp:144] Setting up pool2
I0501 05:35:29.625214 31331 net.cpp:151] Top shape: 20 64 15 15 (288000)
I0501 05:35:29.625218 31331 net.cpp:159] Memory required for data: 19656080
I0501 05:35:29.625221 31331 layer_factory.hpp:77] Creating layer conv3
I0501 05:35:29.625229 31331 net.cpp:94] Creating Layer conv3
I0501 05:35:29.625233 31331 net.cpp:435] conv3 <- pool2
I0501 05:35:29.625239 31331 net.cpp:409] conv3 -> conv3
I0501 05:35:29.637297 31331 net.cpp:144] Setting up conv3
I0501 05:35:29.637313 31331 net.cpp:151] Top shape: 20 128 15 15 (576000)
I0501 05:35:29.637318 31331 net.cpp:159] Memory required for data: 21960080
I0501 05:35:29.637327 31331 layer_factory.hpp:77] Creating layer relu3
I0501 05:35:29.637333 31331 net.cpp:94] Creating Layer relu3
I0501 05:35:29.637337 31331 net.cpp:435] relu3 <- conv3
I0501 05:35:29.637343 31331 net.cpp:396] relu3 -> conv3 (in-place)
I0501 05:35:29.637351 31331 net.cpp:144] Setting up relu3
I0501 05:35:29.637356 31331 net.cpp:151] Top shape: 20 128 15 15 (576000)
I0501 05:35:29.637359 31331 net.cpp:159] Memory required for data: 24264080
I0501 05:35:29.637363 31331 layer_factory.hpp:77] Creating layer conv4
I0501 05:35:29.637372 31331 net.cpp:94] Creating Layer conv4
I0501 05:35:29.637377 31331 net.cpp:435] conv4 <- conv3
I0501 05:35:29.637382 31331 net.cpp:409] conv4 -> conv4
I0501 05:35:29.659385 31331 net.cpp:144] Setting up conv4
I0501 05:35:29.659401 31331 net.cpp:151] Top shape: 20 128 15 15 (576000)
I0501 05:35:29.659406 31331 net.cpp:159] Memory required for data: 26568080
I0501 05:35:29.659413 31331 layer_factory.hpp:77] Creating layer relu4
I0501 05:35:29.659420 31331 net.cpp:94] Creating Layer relu4
I0501 05:35:29.659425 31331 net.cpp:435] relu4 <- conv4
I0501 05:35:29.659430 31331 net.cpp:396] relu4 -> conv4 (in-place)
I0501 05:35:29.659437 31331 net.cpp:144] Setting up relu4
I0501 05:35:29.659442 31331 net.cpp:151] Top shape: 20 128 15 15 (576000)
I0501 05:35:29.659446 31331 net.cpp:159] Memory required for data: 28872080
I0501 05:35:29.659449 31331 layer_factory.hpp:77] Creating layer conv5
I0501 05:35:29.659457 31331 net.cpp:94] Creating Layer conv5
I0501 05:35:29.659461 31331 net.cpp:435] conv5 <- conv4
I0501 05:35:29.659466 31331 net.cpp:409] conv5 -> conv5
I0501 05:35:29.681318 31331 net.cpp:144] Setting up conv5
I0501 05:35:29.681357 31331 net.cpp:151] Top shape: 20 128 15 15 (576000)
I0501 05:35:29.681370 31331 net.cpp:159] Memory required for data: 31176080
I0501 05:35:29.681396 31331 layer_factory.hpp:77] Creating layer relu5
I0501 05:35:29.681412 31331 net.cpp:94] Creating Layer relu5
I0501 05:35:29.681423 31331 net.cpp:435] relu5 <- conv5
I0501 05:35:29.681437 31331 net.cpp:396] relu5 -> conv5 (in-place)
I0501 05:35:29.681457 31331 net.cpp:144] Setting up relu5
I0501 05:35:29.681471 31331 net.cpp:151] Top shape: 20 128 15 15 (576000)
I0501 05:35:29.681481 31331 net.cpp:159] Memory required for data: 33480080
I0501 05:35:29.681491 31331 layer_factory.hpp:77] Creating layer pool5
I0501 05:35:29.681504 31331 net.cpp:94] Creating Layer pool5
I0501 05:35:29.681514 31331 net.cpp:435] pool5 <- conv5
I0501 05:35:29.681527 31331 net.cpp:409] pool5 -> pool5
I0501 05:35:29.681612 31331 net.cpp:144] Setting up pool5
I0501 05:35:29.681630 31331 net.cpp:151] Top shape: 20 128 7 7 (125440)
I0501 05:35:29.681641 31331 net.cpp:159] Memory required for data: 33981840
I0501 05:35:29.681651 31331 layer_factory.hpp:77] Creating layer ip1
I0501 05:35:29.681674 31331 net.cpp:94] Creating Layer ip1
I0501 05:35:29.681686 31331 net.cpp:435] ip1 <- pool5
I0501 05:35:29.681710 31331 net.cpp:409] ip1 -> ip1
I0501 05:35:29.840683 31331 net.cpp:144] Setting up ip1
I0501 05:35:29.840719 31331 net.cpp:151] Top shape: 20 1024 (20480)
I0501 05:35:29.840724 31331 net.cpp:159] Memory required for data: 34063760
I0501 05:35:29.840734 31331 layer_factory.hpp:77] Creating layer ip2
I0501 05:35:29.840744 31331 net.cpp:94] Creating Layer ip2
I0501 05:35:29.840756 31331 net.cpp:435] ip2 <- ip1
I0501 05:35:29.840764 31331 net.cpp:409] ip2 -> ip2
I0501 05:35:29.855068 31331 net.cpp:144] Setting up ip2
I0501 05:35:29.855083 31331 net.cpp:151] Top shape: 20 512 (10240)
I0501 05:35:29.855088 31331 net.cpp:159] Memory required for data: 34104720
I0501 05:35:29.855094 31331 layer_factory.hpp:77] Creating layer ip3
I0501 05:35:29.855101 31331 net.cpp:94] Creating Layer ip3
I0501 05:35:29.855105 31331 net.cpp:435] ip3 <- ip2
I0501 05:35:29.855111 31331 net.cpp:409] ip3 -> ip3
I0501 05:35:29.855190 31331 net.cpp:144] Setting up ip3
I0501 05:35:29.855204 31331 net.cpp:151] Top shape: 20 1 (20)
I0501 05:35:29.855208 31331 net.cpp:159] Memory required for data: 34104800
I0501 05:35:29.855213 31331 layer_factory.hpp:77] Creating layer loss
I0501 05:35:29.855227 31331 net.cpp:94] Creating Layer loss
I0501 05:35:29.855232 31331 net.cpp:435] loss <- ip3
I0501 05:35:29.855237 31331 net.cpp:435] loss <- label
I0501 05:35:29.855242 31331 net.cpp:409] loss -> loss
I0501 05:35:29.855278 31331 net.cpp:144] Setting up loss
…
