…
I0505 20:31:30.011582  9061 net.cpp:323] The NetState phase (0) differed from the phase (1) specified by a rule in layer intercept
I0505 20:31:30.011596  9061 net.cpp:323] The NetState phase (0) differed from the phase (1) specified by a rule in layer loss
I0505 20:31:30.011665  9061 net.cpp:52] Initializing net from parameters: 
state {
  phase: TRAIN
}
layer {
  name: "parameters"
  type: "HDF5Data"
  top: "data"
  top: "label"
  include {
    phase: TRAIN
  }
  hdf5_data_param {
    source: "/home/purduethu/scratch/radon/d/deng106/CNNStatisticalModel/distributions/input/50_distributions_400_sample_size_train-parameters-path.txt"
    batch_size: 20
  }
}
layer {
  name: "conv1"
  type: "Convolution"
  bottom: "data"
  top: "conv1"
  param {
    lr_mult: 1
  }
  param {
    lr_mult: 2
  }
  convolution_param {
    num_output: 64
    pad: 2
    kernel_size: 5
    stride: 1
    weight_filler {
      type: "gaussian"
      std: 0.0001
    }
    bias_filler {
      type: "constant"
    }
  }
}
layer {
  name: "relu1"
  type: "ReLU"
  bottom: "conv1"
  top: "conv1"
}
layer {
  name: "pool1"
  type: "Pooling"
  bottom: "conv1"
  top: "pool1"
  pooling_param {
    pool: MAX
    kernel_size: 3
    stride: 2
  }
}
layer {
  name: "conv2"
  type: "Convolution"
  bottom: "pool1"
  top: "conv2"
  param {
    lr_mult: 1
  }
  param {
    lr_mult: 2
  }
  convolution_param {
    num_output: 128
    pad: 2
    kernel_size: 5
    stride: 1
    weight_filler {
      type: "gaussian"
      std: 0.01
    }
    bias_filler {
      type: "constant"
    }
  }
}
layer {
  name: "relu2"
  type: "ReLU"
  bottom: "conv2"
  top: "conv2"
}
layer {
  name: "conv3"
  type: "Convolution"
  bottom: "conv2"
  top: "conv3"
  param {
    lr_mult: 1
  }
  param {
    lr_mult: 2
  }
  convolution_param {
    num_output: 128
    pad: 2
    kernel_size: 5
    stride: 1
    weight_filler {
      type: "gaussian"
      std: 0.01
    }
    bias_filler {
      type: "constant"
    }
  }
}
layer {
  name: "relu3"
  type: "ReLU"
  bottom: "conv3"
  top: "conv3"
}
layer {
  name: "pool3"
  type: "Pooling"
  bottom: "conv3"
  top: "pool3"
  pooling_param {
    pool: AVE
    kernel_size: 3
    stride: 2
  }
}
layer {
  name: "ip1"
  type: "InnerProduct"
  bottom: "pool3"
  top: "ip1"
  param {
    lr_mult: 1
  }
  param {
    lr_mult: 2
  }
  inner_product_param {
    num_output: 512
    weight_filler {
      type: "gaussian"
      std: 0.1
    }
    bias_filler {
      type: "constant"
    }
  }
}
layer {
  name: "ip2"
  type: "InnerProduct"
  bottom: "ip1"
  top: "ip2"
  param {
    lr_mult: 1
  }
  param {
    lr_mult: 2
  }
  inner_product_param {
    num_output: 256
    weight_filler {
      type: "gaussian"
      std: 0.1
    }
    bias_filler {
      type: "constant"
    }
  }
}
layer {
  name: "ip3"
  type: "InnerProduct"
  bottom: "ip2"
  top: "ip3"
  param {
    lr_mult: 1
  }
  param {
    lr_mult: 2
  }
  inner_product_param {
    num_output: 1
    weight_filler {
      type: "gaussian"
      std: 0.1
    }
    bias_filler {
      type: "constant"
    }
  }
}
layer {
  name: "loss"
  type: "HuberLoss"
  bottom: "ip3"
  bottom: "label"
  top: "loss"
  include {
    phase: TRAIN
  }
}
I0505 20:31:30.011713  9061 layer_factory.hpp:77] Creating layer parameters
I0505 20:31:30.011729  9061 net.cpp:94] Creating Layer parameters
I0505 20:31:30.011734  9061 net.cpp:409] parameters -> data
I0505 20:31:30.011742  9061 net.cpp:409] parameters -> label
I0505 20:31:30.011749  9061 hdf5_data_layer.cpp:79] Loading list of HDF5 filenames from: /home/purduethu/scratch/radon/d/deng106/CNNStatisticalModel/distributions/input/50_distributions_400_sample_size_train-parameters-path.txt
I0505 20:31:30.011765  9061 hdf5_data_layer.cpp:93] Number of HDF5 files: 1
I0505 20:31:30.012300  9061 hdf5.cpp:32] Datatype class: H5T_FLOAT
I0505 20:31:30.674618  9061 net.cpp:144] Setting up parameters
I0505 20:31:30.674650  9061 net.cpp:151] Top shape: 20 1 20 20 (8000)
I0505 20:31:30.674656  9061 net.cpp:151] Top shape: 20 (20)
I0505 20:31:30.674659  9061 net.cpp:159] Memory required for data: 32080
I0505 20:31:30.674666  9061 layer_factory.hpp:77] Creating layer conv1
I0505 20:31:30.674684  9061 net.cpp:94] Creating Layer conv1
I0505 20:31:30.674688  9061 net.cpp:435] conv1 <- data
I0505 20:31:30.674695  9061 net.cpp:409] conv1 -> conv1
I0505 20:31:30.680315  9061 net.cpp:144] Setting up conv1
I0505 20:31:30.680336  9061 net.cpp:151] Top shape: 20 64 20 20 (512000)
I0505 20:31:30.680341  9061 net.cpp:159] Memory required for data: 2080080
I0505 20:31:30.680351  9061 layer_factory.hpp:77] Creating layer relu1
I0505 20:31:30.680361  9061 net.cpp:94] Creating Layer relu1
I0505 20:31:30.680364  9061 net.cpp:435] relu1 <- conv1
I0505 20:31:30.680369  9061 net.cpp:396] relu1 -> conv1 (in-place)
I0505 20:31:30.680377  9061 net.cpp:144] Setting up relu1
I0505 20:31:30.680382  9061 net.cpp:151] Top shape: 20 64 20 20 (512000)
I0505 20:31:30.680384  9061 net.cpp:159] Memory required for data: 4128080
I0505 20:31:30.680387  9061 layer_factory.hpp:77] Creating layer pool1
I0505 20:31:30.680393  9061 net.cpp:94] Creating Layer pool1
I0505 20:31:30.680397  9061 net.cpp:435] pool1 <- conv1
I0505 20:31:30.680402  9061 net.cpp:409] pool1 -> pool1
I0505 20:31:30.680457  9061 net.cpp:144] Setting up pool1
I0505 20:31:30.680464  9061 net.cpp:151] Top shape: 20 64 10 10 (128000)
I0505 20:31:30.680467  9061 net.cpp:159] Memory required for data: 4640080
I0505 20:31:30.680470  9061 layer_factory.hpp:77] Creating layer conv2
I0505 20:31:30.680481  9061 net.cpp:94] Creating Layer conv2
I0505 20:31:30.680485  9061 net.cpp:435] conv2 <- pool1
I0505 20:31:30.680490  9061 net.cpp:409] conv2 -> conv2
I0505 20:31:30.691651  9061 net.cpp:144] Setting up conv2
I0505 20:31:30.691689  9061 net.cpp:151] Top shape: 20 128 10 10 (256000)
I0505 20:31:30.691701  9061 net.cpp:159] Memory required for data: 5664080
I0505 20:31:30.691723  9061 layer_factory.hpp:77] Creating layer relu2
I0505 20:31:30.691740  9061 net.cpp:94] Creating Layer relu2
I0505 20:31:30.691750  9061 net.cpp:435] relu2 <- conv2
I0505 20:31:30.691761  9061 net.cpp:396] relu2 -> conv2 (in-place)
I0505 20:31:30.691781  9061 net.cpp:144] Setting up relu2
I0505 20:31:30.691793  9061 net.cpp:151] Top shape: 20 128 10 10 (256000)
I0505 20:31:30.691802  9061 net.cpp:159] Memory required for data: 6688080
I0505 20:31:30.691809  9061 layer_factory.hpp:77] Creating layer conv3
I0505 20:31:30.691830  9061 net.cpp:94] Creating Layer conv3
I0505 20:31:30.691839  9061 net.cpp:435] conv3 <- conv2
I0505 20:31:30.691853  9061 net.cpp:409] conv3 -> conv3
I0505 20:31:30.710561  9061 net.cpp:144] Setting up conv3
I0505 20:31:30.710577  9061 net.cpp:151] Top shape: 20 128 10 10 (256000)
I0505 20:31:30.710582  9061 net.cpp:159] Memory required for data: 7712080
I0505 20:31:30.710589  9061 layer_factory.hpp:77] Creating layer relu3
I0505 20:31:30.710602  9061 net.cpp:94] Creating Layer relu3
I0505 20:31:30.710606  9061 net.cpp:435] relu3 <- conv3
I0505 20:31:30.710611  9061 net.cpp:396] relu3 -> conv3 (in-place)
I0505 20:31:30.710618  9061 net.cpp:144] Setting up relu3
I0505 20:31:30.710623  9061 net.cpp:151] Top shape: 20 128 10 10 (256000)
I0505 20:31:30.710626  9061 net.cpp:159] Memory required for data: 8736080
I0505 20:31:30.710628  9061 layer_factory.hpp:77] Creating layer pool3
I0505 20:31:30.710634  9061 net.cpp:94] Creating Layer pool3
I0505 20:31:30.710638  9061 net.cpp:435] pool3 <- conv3
I0505 20:31:30.710642  9061 net.cpp:409] pool3 -> pool3
I0505 20:31:30.710686  9061 net.cpp:144] Setting up pool3
I0505 20:31:30.710695  9061 net.cpp:151] Top shape: 20 128 5 5 (64000)
I0505 20:31:30.710697  9061 net.cpp:159] Memory required for data: 8992080
I0505 20:31:30.710700  9061 layer_factory.hpp:77] Creating layer ip1
I0505 20:31:30.710711  9061 net.cpp:94] Creating Layer ip1
I0505 20:31:30.710713  9061 net.cpp:435] ip1 <- pool3
I0505 20:31:30.710718  9061 net.cpp:409] ip1 -> ip1
I0505 20:31:30.750830  9061 net.cpp:144] Setting up ip1
I0505 20:31:30.750855  9061 net.cpp:151] Top shape: 20 512 (10240)
I0505 20:31:30.750859  9061 net.cpp:159] Memory required for data: 9033040
I0505 20:31:30.750867  9061 layer_factory.hpp:77] Creating layer ip2
I0505 20:31:30.750876  9061 net.cpp:94] Creating Layer ip2
I0505 20:31:30.750880  9061 net.cpp:435] ip2 <- ip1
I0505 20:31:30.750885  9061 net.cpp:409] ip2 -> ip2
I0505 20:31:30.754075  9061 net.cpp:144] Setting up ip2
I0505 20:31:30.754087  9061 net.cpp:151] Top shape: 20 256 (5120)
I0505 20:31:30.754091  9061 net.cpp:159] Memory required for data: 9053520
I0505 20:31:30.754099  9061 layer_factory.hpp:77] Creating layer ip3
I0505 20:31:30.754106  9061 net.cpp:94] Creating Layer ip3
I0505 20:31:30.754109  9061 net.cpp:435] ip3 <- ip2
I0505 20:31:30.754114  9061 net.cpp:409] ip3 -> ip3
I0505 20:31:30.754220  9061 net.cpp:144] Setting up ip3
I0505 20:31:30.754226  9061 net.cpp:151] Top shape: 20 1 (20)
I0505 20:31:30.754230  9061 net.cpp:159] Memory required for data: 9053600
I0505 20:31:30.754235  9061 layer_factory.hpp:77] Creating layer loss
I0505 20:31:30.754246  9061 net.cpp:94] Creating Layer loss
I0505 20:31:30.754251  9061 net.cpp:435] loss <- ip3
I0505 20:31:30.754254  9061 net.cpp:435] loss <- label
I0505 20:31:30.754258  9061 net.cpp:409] loss -> loss
I0505 20:31:30.754309  9061 net.cpp:144] Setting up loss
…
I0505 20:31:30.981068  9061 net.cpp:323] The NetState phase (0) differed from the phase (1) specified by a rule in layer intercept
I0505 20:31:30.981081  9061 net.cpp:323] The NetState phase (0) differed from the phase (1) specified by a rule in layer accuracy
I0505 20:31:30.981154  9061 net.cpp:52] Initializing net from parameters: 
state {
  phase: TRAIN
}
layer {
  name: "parameters"
  type: "HDF5Data"
  top: "data"
  top: "label"
  include {
    phase: TRAIN
  }
  hdf5_data_param {
    source: "/home/purduethu/scratch/radon/d/deng106/CNNStatisticalModel/distributions/input/50_distributions_400_sample_size_train-distributions-path.txt"
    batch_size: 20
  }
}
layer {
  name: "conv1"
  type: "Convolution"
  bottom: "data"
  top: "conv1"
  param {
    lr_mult: 1
  }
  param {
    lr_mult: 2
  }
  convolution_param {
    num_output: 64
    pad: 2
    kernel_size: 5
    stride: 1
    weight_filler {
      type: "gaussian"
      std: 0.0001
    }
    bias_filler {
      type: "constant"
    }
  }
}
layer {
  name: "relu1"
  type: "ReLU"
  bottom: "conv1"
  top: "conv1"
}
layer {
  name: "pool1"
  type: "Pooling"
  bottom: "conv1"
  top: "pool1"
  pooling_param {
    pool: MAX
    kernel_size: 3
    stride: 2
  }
}
layer {
  name: "conv2"
  type: "Convolution"
  bottom: "pool1"
  top: "conv2"
  param {
    lr_mult: 1
  }
  param {
    lr_mult: 2
  }
  convolution_param {
    num_output: 128
    pad: 2
    kernel_size: 5
    stride: 1
    weight_filler {
      type: "gaussian"
      std: 0.01
    }
    bias_filler {
      type: "constant"
    }
  }
}
layer {
  name: "relu2"
  type: "ReLU"
  bottom: "conv2"
  top: "conv2"
}
layer {
  name: "conv3"
  type: "Convolution"
  bottom: "conv2"
  top: "conv3"
  param {
    lr_mult: 1
  }
  param {
    lr_mult: 2
  }
  convolution_param {
    num_output: 128
    pad: 2
    kernel_size: 5
    stride: 1
    weight_filler {
      type: "gaussian"
      std: 0.01
    }
    bias_filler {
      type: "constant"
    }
  }
}
layer {
  name: "relu3"
  type: "ReLU"
  bottom: "conv3"
  top: "conv3"
}
layer {
  name: "pool3"
  type: "Pooling"
  bottom: "conv3"
  top: "pool3"
  pooling_param {
    pool: AVE
    kernel_size: 3
    stride: 2
  }
}
layer {
  name: "ip1"
  type: "InnerProduct"
  bottom: "pool3"
  top: "ip1"
  param {
    lr_mult: 1
  }
  param {
    lr_mult: 2
  }
  inner_product_param {
    num_output: 512
    weight_filler {
      type: "gaussian"
      std: 0.1
    }
    bias_filler {
      type: "constant"
    }
  }
}
layer {
  name: "ip2"
  type: "InnerProduct"
  bottom: "ip1"
  top: "ip2"
  param {
    lr_mult: 1
  }
  param {
    lr_mult: 2
  }
  inner_product_param {
    num_output: 256
    weight_filler {
      type: "gaussian"
      std: 0.1
    }
    bias_filler {
      type: "constant"
    }
  }
}
layer {
  name: "ip3"
  type: "InnerProduct"
  bottom: "ip2"
  top: "ip3"
  param {
    lr_mult: 1
  }
  param {
    lr_mult: 2
  }
  inner_product_param {
    num_output: 50
    weight_filler {
      type: "gaussian"
      std: 0.1
    }
    bias_filler {
      type: "constant"
    }
  }
}
layer {
  name: "loss"
  type: "SoftmaxWithLoss"
  bottom: "ip3"
  bottom: "label"
  top: "loss"
}
I0505 20:31:30.981199  9061 layer_factory.hpp:77] Creating layer parameters
I0505 20:31:30.981206  9061 net.cpp:94] Creating Layer parameters
I0505 20:31:30.981210  9061 net.cpp:409] parameters -> data
I0505 20:31:30.981216  9061 net.cpp:409] parameters -> label
I0505 20:31:30.981222  9061 hdf5_data_layer.cpp:79] Loading list of HDF5 filenames from: /home/purduethu/scratch/radon/d/deng106/CNNStatisticalModel/distributions/input/50_distributions_400_sample_size_train-distributions-path.txt
I0505 20:31:30.981238  9061 hdf5_data_layer.cpp:93] Number of HDF5 files: 1
I0505 20:31:31.633193  9061 hdf5.cpp:35] Datatype class: H5T_INTEGER
I0505 20:31:31.636289  9061 net.cpp:144] Setting up parameters
I0505 20:31:31.636307  9061 net.cpp:151] Top shape: 20 1 20 20 (8000)
I0505 20:31:31.636312  9061 net.cpp:151] Top shape: 20 (20)
I0505 20:31:31.636317  9061 net.cpp:159] Memory required for data: 32080
I0505 20:31:31.636322  9061 layer_factory.hpp:77] Creating layer conv1
I0505 20:31:31.636339  9061 net.cpp:94] Creating Layer conv1
I0505 20:31:31.636343  9061 net.cpp:435] conv1 <- data
I0505 20:31:31.636349  9061 net.cpp:409] conv1 -> conv1
I0505 20:31:31.638695  9061 net.cpp:144] Setting up conv1
I0505 20:31:31.638710  9061 net.cpp:151] Top shape: 20 64 20 20 (512000)
I0505 20:31:31.638715  9061 net.cpp:159] Memory required for data: 2080080
I0505 20:31:31.638725  9061 layer_factory.hpp:77] Creating layer relu1
I0505 20:31:31.638732  9061 net.cpp:94] Creating Layer relu1
I0505 20:31:31.638736  9061 net.cpp:435] relu1 <- conv1
I0505 20:31:31.638739  9061 net.cpp:396] relu1 -> conv1 (in-place)
I0505 20:31:31.638747  9061 net.cpp:144] Setting up relu1
I0505 20:31:31.638751  9061 net.cpp:151] Top shape: 20 64 20 20 (512000)
I0505 20:31:31.638754  9061 net.cpp:159] Memory required for data: 4128080
I0505 20:31:31.638757  9061 layer_factory.hpp:77] Creating layer pool1
I0505 20:31:31.638763  9061 net.cpp:94] Creating Layer pool1
I0505 20:31:31.638767  9061 net.cpp:435] pool1 <- conv1
I0505 20:31:31.638777  9061 net.cpp:409] pool1 -> pool1
I0505 20:31:31.638831  9061 net.cpp:144] Setting up pool1
I0505 20:31:31.638839  9061 net.cpp:151] Top shape: 20 64 10 10 (128000)
I0505 20:31:31.638842  9061 net.cpp:159] Memory required for data: 4640080
I0505 20:31:31.638845  9061 layer_factory.hpp:77] Creating layer conv2
I0505 20:31:31.638854  9061 net.cpp:94] Creating Layer conv2
I0505 20:31:31.638857  9061 net.cpp:435] conv2 <- pool1
I0505 20:31:31.638862  9061 net.cpp:409] conv2 -> conv2
I0505 20:31:31.650235  9061 net.cpp:144] Setting up conv2
I0505 20:31:31.650252  9061 net.cpp:151] Top shape: 20 128 10 10 (256000)
I0505 20:31:31.650256  9061 net.cpp:159] Memory required for data: 5664080
I0505 20:31:31.650264  9061 layer_factory.hpp:77] Creating layer relu2
I0505 20:31:31.650270  9061 net.cpp:94] Creating Layer relu2
I0505 20:31:31.650274  9061 net.cpp:435] relu2 <- conv2
I0505 20:31:31.650279  9061 net.cpp:396] relu2 -> conv2 (in-place)
I0505 20:31:31.650285  9061 net.cpp:144] Setting up relu2
I0505 20:31:31.650290  9061 net.cpp:151] Top shape: 20 128 10 10 (256000)
I0505 20:31:31.650293  9061 net.cpp:159] Memory required for data: 6688080
I0505 20:31:31.650296  9061 layer_factory.hpp:77] Creating layer conv3
I0505 20:31:31.650305  9061 net.cpp:94] Creating Layer conv3
I0505 20:31:31.650307  9061 net.cpp:435] conv3 <- conv2
I0505 20:31:31.650312  9061 net.cpp:409] conv3 -> conv3
I0505 20:31:31.669059  9061 net.cpp:144] Setting up conv3
I0505 20:31:31.669075  9061 net.cpp:151] Top shape: 20 128 10 10 (256000)
I0505 20:31:31.669080  9061 net.cpp:159] Memory required for data: 7712080
I0505 20:31:31.669088  9061 layer_factory.hpp:77] Creating layer relu3
I0505 20:31:31.669095  9061 net.cpp:94] Creating Layer relu3
I0505 20:31:31.669097  9061 net.cpp:435] relu3 <- conv3
I0505 20:31:31.669102  9061 net.cpp:396] relu3 -> conv3 (in-place)
I0505 20:31:31.669109  9061 net.cpp:144] Setting up relu3
I0505 20:31:31.669113  9061 net.cpp:151] Top shape: 20 128 10 10 (256000)
I0505 20:31:31.669116  9061 net.cpp:159] Memory required for data: 8736080
I0505 20:31:31.669119  9061 layer_factory.hpp:77] Creating layer pool3
I0505 20:31:31.669126  9061 net.cpp:94] Creating Layer pool3
I0505 20:31:31.669128  9061 net.cpp:435] pool3 <- conv3
I0505 20:31:31.669132  9061 net.cpp:409] pool3 -> pool3
I0505 20:31:31.669173  9061 net.cpp:144] Setting up pool3
I0505 20:31:31.669180  9061 net.cpp:151] Top shape: 20 128 5 5 (64000)
I0505 20:31:31.669183  9061 net.cpp:159] Memory required for data: 8992080
I0505 20:31:31.669186  9061 layer_factory.hpp:77] Creating layer ip1
I0505 20:31:31.669193  9061 net.cpp:94] Creating Layer ip1
I0505 20:31:31.669196  9061 net.cpp:435] ip1 <- pool3
I0505 20:31:31.669201  9061 net.cpp:409] ip1 -> ip1
I0505 20:31:31.708981  9061 net.cpp:144] Setting up ip1
I0505 20:31:31.709008  9061 net.cpp:151] Top shape: 20 512 (10240)
I0505 20:31:31.709012  9061 net.cpp:159] Memory required for data: 9033040
I0505 20:31:31.709019  9061 layer_factory.hpp:77] Creating layer ip2
I0505 20:31:31.709026  9061 net.cpp:94] Creating Layer ip2
I0505 20:31:31.709030  9061 net.cpp:435] ip2 <- ip1
I0505 20:31:31.709036  9061 net.cpp:409] ip2 -> ip2
I0505 20:31:31.712214  9061 net.cpp:144] Setting up ip2
I0505 20:31:31.712227  9061 net.cpp:151] Top shape: 20 256 (5120)
I0505 20:31:31.712230  9061 net.cpp:159] Memory required for data: 9053520
I0505 20:31:31.712239  9061 layer_factory.hpp:77] Creating layer ip3
I0505 20:31:31.712245  9061 net.cpp:94] Creating Layer ip3
I0505 20:31:31.712249  9061 net.cpp:435] ip3 <- ip2
I0505 20:31:31.712255  9061 net.cpp:409] ip3 -> ip3
I0505 20:31:31.713598  9061 net.cpp:144] Setting up ip3
I0505 20:31:31.713611  9061 net.cpp:151] Top shape: 20 50 (1000)
I0505 20:31:31.713614  9061 net.cpp:159] Memory required for data: 9057520
I0505 20:31:31.713620  9061 layer_factory.hpp:77] Creating layer loss
I0505 20:31:31.713626  9061 net.cpp:94] Creating Layer loss
I0505 20:31:31.713630  9061 net.cpp:435] loss <- ip3
I0505 20:31:31.713634  9061 net.cpp:435] loss <- label
I0505 20:31:31.713644  9061 net.cpp:409] loss -> loss
I0505 20:31:31.713652  9061 layer_factory.hpp:77] Creating layer loss
…
I0505 20:31:31.714094  9061 solver.cpp:181] Creating test net (#0) specified by net file: ./protocol/dis_50_400_dimension.protocol_distribution
I0505 20:31:31.714118  9061 net.cpp:323] The NetState phase (1) differed from the phase (0) specified by a rule in layer parameters
I0505 20:31:31.714195  9061 net.cpp:52] Initializing net from parameters: 
state {
  phase: TEST
}
layer {
  name: "intercept"
  type: "HDF5Data"
  top: "data"
  top: "label"
  include {
    phase: TEST
  }
  hdf5_data_param {
    source: "/home/purduethu/scratch/radon/d/deng106/CNNStatisticalModel/distributions/input/50_distributions_400_sample_size_test-distributions-path.txt"
    batch_size: 20
  }
}
layer {
  name: "conv1"
  type: "Convolution"
  bottom: "data"
  top: "conv1"
  param {
    lr_mult: 1
  }
  param {
    lr_mult: 2
  }
  convolution_param {
    num_output: 64
    pad: 2
    kernel_size: 5
    stride: 1
    weight_filler {
      type: "gaussian"
      std: 0.0001
    }
    bias_filler {
      type: "constant"
    }
  }
}
layer {
  name: "relu1"
  type: "ReLU"
  bottom: "conv1"
  top: "conv1"
}
layer {
  name: "pool1"
  type: "Pooling"
  bottom: "conv1"
  top: "pool1"
  pooling_param {
    pool: MAX
    kernel_size: 3
    stride: 2
  }
}
layer {
  name: "conv2"
  type: "Convolution"
  bottom: "pool1"
  top: "conv2"
  param {
    lr_mult: 1
  }
  param {
    lr_mult: 2
  }
  convolution_param {
    num_output: 128
    pad: 2
    kernel_size: 5
    stride: 1
    weight_filler {
      type: "gaussian"
      std: 0.01
    }
    bias_filler {
      type: "constant"
    }
  }
}
layer {
  name: "relu2"
  type: "ReLU"
  bottom: "conv2"
  top: "conv2"
}
layer {
  name: "conv3"
  type: "Convolution"
  bottom: "conv2"
  top: "conv3"
  param {
    lr_mult: 1
  }
  param {
    lr_mult: 2
  }
  convolution_param {
    num_output: 128
    pad: 2
    kernel_size: 5
    stride: 1
    weight_filler {
      type: "gaussian"
      std: 0.01
    }
    bias_filler {
      type: "constant"
    }
  }
}
layer {
  name: "relu3"
  type: "ReLU"
  bottom: "conv3"
  top: "conv3"
}
layer {
  name: "pool3"
  type: "Pooling"
  bottom: "conv3"
  top: "pool3"
  pooling_param {
    pool: AVE
    kernel_size: 3
    stride: 2
  }
}
layer {
  name: "ip1"
  type: "InnerProduct"
  bottom: "pool3"
  top: "ip1"
  param {
    lr_mult: 1
  }
  param {
    lr_mult: 2
  }
  inner_product_param {
    num_output: 512
    weight_filler {
      type: "gaussian"
      std: 0.1
    }
    bias_filler {
      type: "constant"
    }
  }
}
layer {
  name: "ip2"
  type: "InnerProduct"
  bottom: "ip1"
  top: "ip2"
  param {
    lr_mult: 1
  }
  param {
    lr_mult: 2
  }
  inner_product_param {
    num_output: 256
    weight_filler {
      type: "gaussian"
      std: 0.1
    }
    bias_filler {
      type: "constant"
    }
  }
}
layer {
  name: "ip3"
  type: "InnerProduct"
  bottom: "ip2"
  top: "ip3"
  param {
    lr_mult: 1
  }
  param {
    lr_mult: 2
  }
  inner_product_param {
    num_output: 50
    weight_filler {
      type: "gaussian"
      std: 0.1
    }
    bias_filler {
      type: "constant"
    }
  }
}
layer {
  name: "accuracy"
  type: "Accuracy"
  bottom: "ip3"
  bottom: "label"
  top: "accuracy"
  include {
    phase: TEST
  }
}
layer {
  name: "loss"
  type: "SoftmaxWithLoss"
  bottom: "ip3"
  bottom: "label"
  top: "loss"
}
I0505 20:31:31.714251  9061 layer_factory.hpp:77] Creating layer intercept
I0505 20:31:31.714258  9061 net.cpp:94] Creating Layer intercept
I0505 20:31:31.714262  9061 net.cpp:409] intercept -> data
I0505 20:31:31.714268  9061 net.cpp:409] intercept -> label
I0505 20:31:31.714274  9061 hdf5_data_layer.cpp:79] Loading list of HDF5 filenames from: /home/purduethu/scratch/radon/d/deng106/CNNStatisticalModel/distributions/input/50_distributions_400_sample_size_test-distributions-path.txt
I0505 20:31:31.714294  9061 hdf5_data_layer.cpp:93] Number of HDF5 files: 1
I0505 20:31:31.876355  9061 net.cpp:144] Setting up intercept
I0505 20:31:31.876390  9061 net.cpp:151] Top shape: 20 1 20 20 (8000)
I0505 20:31:31.876395  9061 net.cpp:151] Top shape: 20 (20)
I0505 20:31:31.876399  9061 net.cpp:159] Memory required for data: 32080
I0505 20:31:31.876405  9061 layer_factory.hpp:77] Creating layer label_intercept_1_split
I0505 20:31:31.876423  9061 net.cpp:94] Creating Layer label_intercept_1_split
I0505 20:31:31.876428  9061 net.cpp:435] label_intercept_1_split <- label
I0505 20:31:31.876433  9061 net.cpp:409] label_intercept_1_split -> label_intercept_1_split_0
I0505 20:31:31.876442  9061 net.cpp:409] label_intercept_1_split -> label_intercept_1_split_1
I0505 20:31:31.876485  9061 net.cpp:144] Setting up label_intercept_1_split
I0505 20:31:31.876492  9061 net.cpp:151] Top shape: 20 (20)
I0505 20:31:31.876495  9061 net.cpp:151] Top shape: 20 (20)
I0505 20:31:31.876498  9061 net.cpp:159] Memory required for data: 32240
I0505 20:31:31.876502  9061 layer_factory.hpp:77] Creating layer conv1
I0505 20:31:31.876513  9061 net.cpp:94] Creating Layer conv1
I0505 20:31:31.876516  9061 net.cpp:435] conv1 <- data
I0505 20:31:31.876521  9061 net.cpp:409] conv1 -> conv1
I0505 20:31:31.877382  9061 net.cpp:144] Setting up conv1
I0505 20:31:31.877395  9061 net.cpp:151] Top shape: 20 64 20 20 (512000)
I0505 20:31:31.877399  9061 net.cpp:159] Memory required for data: 2080240
I0505 20:31:31.877409  9061 layer_factory.hpp:77] Creating layer relu1
I0505 20:31:31.877416  9061 net.cpp:94] Creating Layer relu1
I0505 20:31:31.877419  9061 net.cpp:435] relu1 <- conv1
I0505 20:31:31.877424  9061 net.cpp:396] relu1 -> conv1 (in-place)
I0505 20:31:31.877431  9061 net.cpp:144] Setting up relu1
I0505 20:31:31.877435  9061 net.cpp:151] Top shape: 20 64 20 20 (512000)
I0505 20:31:31.877439  9061 net.cpp:159] Memory required for data: 4128240
I0505 20:31:31.877441  9061 layer_factory.hpp:77] Creating layer pool1
I0505 20:31:31.877447  9061 net.cpp:94] Creating Layer pool1
I0505 20:31:31.877450  9061 net.cpp:435] pool1 <- conv1
I0505 20:31:31.877455  9061 net.cpp:409] pool1 -> pool1
I0505 20:31:31.877508  9061 net.cpp:144] Setting up pool1
I0505 20:31:31.877516  9061 net.cpp:151] Top shape: 20 64 10 10 (128000)
I0505 20:31:31.877518  9061 net.cpp:159] Memory required for data: 4640240
I0505 20:31:31.877522  9061 layer_factory.hpp:77] Creating layer conv2
I0505 20:31:31.877530  9061 net.cpp:94] Creating Layer conv2
I0505 20:31:31.877533  9061 net.cpp:435] conv2 <- pool1
I0505 20:31:31.877538  9061 net.cpp:409] conv2 -> conv2
I0505 20:31:31.885409  9061 net.cpp:144] Setting up conv2
I0505 20:31:31.885445  9061 net.cpp:151] Top shape: 20 128 10 10 (256000)
I0505 20:31:31.885457  9061 net.cpp:159] Memory required for data: 5664240
I0505 20:31:31.885478  9061 layer_factory.hpp:77] Creating layer relu2
I0505 20:31:31.885504  9061 net.cpp:94] Creating Layer relu2
I0505 20:31:31.885514  9061 net.cpp:435] relu2 <- conv2
I0505 20:31:31.885527  9061 net.cpp:396] relu2 -> conv2 (in-place)
I0505 20:31:31.885546  9061 net.cpp:144] Setting up relu2
I0505 20:31:31.885558  9061 net.cpp:151] Top shape: 20 128 10 10 (256000)
I0505 20:31:31.885566  9061 net.cpp:159] Memory required for data: 6688240
I0505 20:31:31.885576  9061 layer_factory.hpp:77] Creating layer conv3
I0505 20:31:31.885596  9061 net.cpp:94] Creating Layer conv3
I0505 20:31:31.885604  9061 net.cpp:435] conv3 <- conv2
I0505 20:31:31.885617  9061 net.cpp:409] conv3 -> conv3
I0505 20:31:31.899405  9061 net.cpp:144] Setting up conv3
I0505 20:31:31.899443  9061 net.cpp:151] Top shape: 20 128 10 10 (256000)
I0505 20:31:31.899453  9061 net.cpp:159] Memory required for data: 7712240
I0505 20:31:31.899476  9061 layer_factory.hpp:77] Creating layer relu3
I0505 20:31:31.899493  9061 net.cpp:94] Creating Layer relu3
I0505 20:31:31.899503  9061 net.cpp:435] relu3 <- conv3
I0505 20:31:31.899516  9061 net.cpp:396] relu3 -> conv3 (in-place)
I0505 20:31:31.899535  9061 net.cpp:144] Setting up relu3
I0505 20:31:31.899547  9061 net.cpp:151] Top shape: 20 128 10 10 (256000)
I0505 20:31:31.899556  9061 net.cpp:159] Memory required for data: 8736240
I0505 20:31:31.899564  9061 layer_factory.hpp:77] Creating layer pool3
I0505 20:31:31.899577  9061 net.cpp:94] Creating Layer pool3
I0505 20:31:31.899585  9061 net.cpp:435] pool3 <- conv3
I0505 20:31:31.899597  9061 net.cpp:409] pool3 -> pool3
I0505 20:31:31.899698  9061 net.cpp:144] Setting up pool3
I0505 20:31:31.899715  9061 net.cpp:151] Top shape: 20 128 5 5 (64000)
I0505 20:31:31.899724  9061 net.cpp:159] Memory required for data: 8992240
I0505 20:31:31.899744  9061 layer_factory.hpp:77] Creating layer ip1
I0505 20:31:31.899750  9061 net.cpp:94] Creating Layer ip1
I0505 20:31:31.899754  9061 net.cpp:435] ip1 <- pool3
I0505 20:31:31.899758  9061 net.cpp:409] ip1 -> ip1
I0505 20:31:31.939473  9061 net.cpp:144] Setting up ip1
I0505 20:31:31.939499  9061 net.cpp:151] Top shape: 20 512 (10240)
I0505 20:31:31.939502  9061 net.cpp:159] Memory required for data: 9033200
I0505 20:31:31.939509  9061 layer_factory.hpp:77] Creating layer ip2
I0505 20:31:31.939517  9061 net.cpp:94] Creating Layer ip2
I0505 20:31:31.939522  9061 net.cpp:435] ip2 <- ip1
I0505 20:31:31.939527  9061 net.cpp:409] ip2 -> ip2
I0505 20:31:31.942706  9061 net.cpp:144] Setting up ip2
I0505 20:31:31.942716  9061 net.cpp:151] Top shape: 20 256 (5120)
I0505 20:31:31.942719  9061 net.cpp:159] Memory required for data: 9053680
I0505 20:31:31.942728  9061 layer_factory.hpp:77] Creating layer ip3
I0505 20:31:31.942734  9061 net.cpp:94] Creating Layer ip3
I0505 20:31:31.942736  9061 net.cpp:435] ip3 <- ip2
I0505 20:31:31.942742  9061 net.cpp:409] ip3 -> ip3
I0505 20:31:31.943186  9061 net.cpp:144] Setting up ip3
I0505 20:31:31.943193  9061 net.cpp:151] Top shape: 20 50 (1000)
I0505 20:31:31.943197  9061 net.cpp:159] Memory required for data: 9057680
I0505 20:31:31.943202  9061 layer_factory.hpp:77] Creating layer ip3_ip3_0_split
I0505 20:31:31.943207  9061 net.cpp:94] Creating Layer ip3_ip3_0_split
I0505 20:31:31.943209  9061 net.cpp:435] ip3_ip3_0_split <- ip3
I0505 20:31:31.943215  9061 net.cpp:409] ip3_ip3_0_split -> ip3_ip3_0_split_0
I0505 20:31:31.943220  9061 net.cpp:409] ip3_ip3_0_split -> ip3_ip3_0_split_1
I0505 20:31:31.943264  9061 net.cpp:144] Setting up ip3_ip3_0_split
I0505 20:31:31.943270  9061 net.cpp:151] Top shape: 20 50 (1000)
I0505 20:31:31.943274  9061 net.cpp:151] Top shape: 20 50 (1000)
I0505 20:31:31.943276  9061 net.cpp:159] Memory required for data: 9065680
I0505 20:31:31.943279  9061 layer_factory.hpp:77] Creating layer accuracy
I0505 20:31:31.943286  9061 net.cpp:94] Creating Layer accuracy
I0505 20:31:31.943289  9061 net.cpp:435] accuracy <- ip3_ip3_0_split_0
I0505 20:31:31.943294  9061 net.cpp:435] accuracy <- label_intercept_1_split_0
I0505 20:31:31.943297  9061 net.cpp:409] accuracy -> accuracy
…
