…
I0505 05:11:45.415364  3504 net.cpp:323] The NetState phase (0) differed from the phase (1) specified by a rule in layer intercept
I0505 05:11:45.415377  3504 net.cpp:323] The NetState phase (0) differed from the phase (1) specified by a rule in layer accuracy
I0505 05:11:45.415452  3504 net.cpp:52] Initializing net from parameters: 
state {
  phase: TRAIN
}
layer {
  name: "parameters"
  type: "HDF5Data"
  top: "data"
  top: "label"
  include {
    phase: TRAIN
  }
  hdf5_data_param {
    source: "/home/purduethu/scratch/radon/d/deng106/CNNStatisticalModel/distributions/input/20_distributions_900_sample_size_train-distributions-path.txt"
    batch_size: 20
  }
}
layer {
  name: "conv1"
  type: "Convolution"
  bottom: "data"
  top: "conv1"
  param {
    lr_mult: 1
  }
  param {
    lr_mult: 2
  }
  convolution_param {
    num_output: 64
    pad: 2
    kernel_size: 5
    stride: 1
    weight_filler {
      type: "gaussian"
      std: 0.0001
    }
    bias_filler {
      type: "constant"
    }
  }
}
layer {
  name: "relu1"
  type: "ReLU"
  bottom: "conv1"
  top: "conv1"
}
layer {
  name: "pool1"
  type: "Pooling"
  bottom: "conv1"
  top: "pool1"
  pooling_param {
    pool: MAX
    kernel_size: 3
    stride: 2
  }
}
layer {
  name: "conv2"
  type: "Convolution"
  bottom: "pool1"
  top: "conv2"
  param {
    lr_mult: 1
  }
  param {
    lr_mult: 2
  }
  convolution_param {
    num_output: 128
    pad: 2
    kernel_size: 5
    stride: 1
    weight_filler {
      type: "gaussian"
      std: 0.01
    }
    bias_filler {
      type: "constant"
    }
  }
}
layer {
  name: "relu2"
  type: "ReLU"
  bottom: "conv2"
  top: "conv2"
}
layer {
  name: "conv3"
  type: "Convolution"
  bottom: "conv2"
  top: "conv3"
  param {
    lr_mult: 1
  }
  param {
    lr_mult: 2
  }
  convolution_param {
    num_output: 128
    pad: 2
    kernel_size: 5
    stride: 1
    weight_filler {
      type: "gaussian"
      std: 0.01
    }
    bias_filler {
      type: "constant"
    }
  }
}
layer {
  name: "relu3"
  type: "ReLU"
  bottom: "conv3"
  top: "conv3"
}
layer {
  name: "pool3"
  type: "Pooling"
  bottom: "conv3"
  top: "pool3"
  pooling_param {
    pool: AVE
    kernel_size: 3
    stride: 2
  }
}
layer {
  name: "ip1"
  type: "InnerProduct"
  bottom: "pool3"
  top: "ip1"
  param {
    lr_mult: 1
  }
  param {
    lr_mult: 2
  }
  inner_product_param {
    num_output: 512
    weight_filler {
      type: "gaussian"
      std: 0.1
    }
    bias_filler {
      type: "constant"
    }
  }
}
layer {
  name: "ip2"
  type: "InnerProduct"
  bottom: "ip1"
  top: "ip2"
  param {
    lr_mult: 1
  }
  param {
    lr_mult: 2
  }
  inner_product_param {
    num_output: 256
    weight_filler {
      type: "gaussian"
      std: 0.1
    }
    bias_filler {
      type: "constant"
    }
  }
}
layer {
  name: "ip3"
  type: "InnerProduct"
  bottom: "ip2"
  top: "ip3"
  param {
    lr_mult: 1
  }
  param {
    lr_mult: 2
  }
  inner_product_param {
    num_output: 50
    weight_filler {
      type: "gaussian"
      std: 0.1
    }
    bias_filler {
      type: "constant"
    }
  }
}
layer {
  name: "loss"
  type: "SoftmaxWithLoss"
  bottom: "ip3"
  bottom: "label"
  top: "loss"
}
I0505 05:11:45.415513  3504 layer_factory.hpp:77] Creating layer parameters
I0505 05:11:45.415525  3504 net.cpp:94] Creating Layer parameters
I0505 05:11:45.415539  3504 net.cpp:409] parameters -> data
I0505 05:11:45.415560  3504 net.cpp:409] parameters -> label
I0505 05:11:45.415570  3504 hdf5_data_layer.cpp:79] Loading list of HDF5 filenames from: /home/purduethu/scratch/radon/d/deng106/CNNStatisticalModel/distributions/input/20_distributions_900_sample_size_train-distributions-path.txt
I0505 05:11:45.415591  3504 hdf5_data_layer.cpp:93] Number of HDF5 files: 1
I0505 05:11:45.416141  3504 hdf5.cpp:32] Datatype class: H5T_FLOAT
I0505 05:11:45.972908  3504 hdf5.cpp:35] Datatype class: H5T_INTEGER
I0505 05:11:45.974565  3504 net.cpp:144] Setting up parameters
I0505 05:11:45.974584  3504 net.cpp:151] Top shape: 20 1 30 30 (18000)
I0505 05:11:45.974591  3504 net.cpp:151] Top shape: 20 (20)
I0505 05:11:45.974594  3504 net.cpp:159] Memory required for data: 72080
I0505 05:11:45.974601  3504 layer_factory.hpp:77] Creating layer conv1
I0505 05:11:45.974627  3504 net.cpp:94] Creating Layer conv1
I0505 05:11:45.974632  3504 net.cpp:435] conv1 <- data
I0505 05:11:45.974644  3504 net.cpp:409] conv1 -> conv1
I0505 05:11:45.980381  3504 net.cpp:144] Setting up conv1
I0505 05:11:45.980396  3504 net.cpp:151] Top shape: 20 64 30 30 (1152000)
I0505 05:11:45.980401  3504 net.cpp:159] Memory required for data: 4680080
I0505 05:11:45.980413  3504 layer_factory.hpp:77] Creating layer relu1
I0505 05:11:45.980422  3504 net.cpp:94] Creating Layer relu1
I0505 05:11:45.980427  3504 net.cpp:435] relu1 <- conv1
I0505 05:11:45.980430  3504 net.cpp:396] relu1 -> conv1 (in-place)
I0505 05:11:45.980446  3504 net.cpp:144] Setting up relu1
I0505 05:11:45.980453  3504 net.cpp:151] Top shape: 20 64 30 30 (1152000)
I0505 05:11:45.980456  3504 net.cpp:159] Memory required for data: 9288080
I0505 05:11:45.980459  3504 layer_factory.hpp:77] Creating layer pool1
I0505 05:11:45.980468  3504 net.cpp:94] Creating Layer pool1
I0505 05:11:45.980470  3504 net.cpp:435] pool1 <- conv1
I0505 05:11:45.980475  3504 net.cpp:409] pool1 -> pool1
I0505 05:11:45.980516  3504 net.cpp:144] Setting up pool1
I0505 05:11:45.980523  3504 net.cpp:151] Top shape: 20 64 15 15 (288000)
I0505 05:11:45.980526  3504 net.cpp:159] Memory required for data: 10440080
I0505 05:11:45.980530  3504 layer_factory.hpp:77] Creating layer conv2
I0505 05:11:45.980540  3504 net.cpp:94] Creating Layer conv2
I0505 05:11:45.980542  3504 net.cpp:435] conv2 <- pool1
I0505 05:11:45.980547  3504 net.cpp:409] conv2 -> conv2
I0505 05:11:45.993095  3504 net.cpp:144] Setting up conv2
I0505 05:11:45.993110  3504 net.cpp:151] Top shape: 20 128 15 15 (576000)
I0505 05:11:45.993115  3504 net.cpp:159] Memory required for data: 12744080
I0505 05:11:45.993124  3504 layer_factory.hpp:77] Creating layer relu2
I0505 05:11:45.993130  3504 net.cpp:94] Creating Layer relu2
I0505 05:11:45.993134  3504 net.cpp:435] relu2 <- conv2
I0505 05:11:45.993139  3504 net.cpp:396] relu2 -> conv2 (in-place)
I0505 05:11:45.993146  3504 net.cpp:144] Setting up relu2
I0505 05:11:45.993151  3504 net.cpp:151] Top shape: 20 128 15 15 (576000)
I0505 05:11:45.993155  3504 net.cpp:159] Memory required for data: 15048080
I0505 05:11:45.993157  3504 layer_factory.hpp:77] Creating layer conv3
I0505 05:11:45.993165  3504 net.cpp:94] Creating Layer conv3
I0505 05:11:45.993170  3504 net.cpp:435] conv3 <- conv2
I0505 05:11:45.993175  3504 net.cpp:409] conv3 -> conv3
I0505 05:11:46.014683  3504 net.cpp:144] Setting up conv3
I0505 05:11:46.014698  3504 net.cpp:151] Top shape: 20 128 15 15 (576000)
I0505 05:11:46.014703  3504 net.cpp:159] Memory required for data: 17352080
I0505 05:11:46.014719  3504 layer_factory.hpp:77] Creating layer relu3
I0505 05:11:46.014725  3504 net.cpp:94] Creating Layer relu3
I0505 05:11:46.014729  3504 net.cpp:435] relu3 <- conv3
I0505 05:11:46.014734  3504 net.cpp:396] relu3 -> conv3 (in-place)
I0505 05:11:46.014742  3504 net.cpp:144] Setting up relu3
I0505 05:11:46.014746  3504 net.cpp:151] Top shape: 20 128 15 15 (576000)
I0505 05:11:46.014750  3504 net.cpp:159] Memory required for data: 19656080
I0505 05:11:46.014753  3504 layer_factory.hpp:77] Creating layer pool3
I0505 05:11:46.014767  3504 net.cpp:94] Creating Layer pool3
I0505 05:11:46.014771  3504 net.cpp:435] pool3 <- conv3
I0505 05:11:46.014776  3504 net.cpp:409] pool3 -> pool3
I0505 05:11:46.014811  3504 net.cpp:144] Setting up pool3
I0505 05:11:46.014818  3504 net.cpp:151] Top shape: 20 128 7 7 (125440)
I0505 05:11:46.014822  3504 net.cpp:159] Memory required for data: 20157840
I0505 05:11:46.014825  3504 layer_factory.hpp:77] Creating layer ip1
I0505 05:11:46.014834  3504 net.cpp:94] Creating Layer ip1
I0505 05:11:46.014838  3504 net.cpp:435] ip1 <- pool3
I0505 05:11:46.014843  3504 net.cpp:409] ip1 -> ip1
I0505 05:11:46.092110  3504 net.cpp:144] Setting up ip1
I0505 05:11:46.092139  3504 net.cpp:151] Top shape: 20 512 (10240)
I0505 05:11:46.092144  3504 net.cpp:159] Memory required for data: 20198800
I0505 05:11:46.092152  3504 layer_factory.hpp:77] Creating layer ip2
I0505 05:11:46.092162  3504 net.cpp:94] Creating Layer ip2
I0505 05:11:46.092167  3504 net.cpp:435] ip2 <- ip1
I0505 05:11:46.092175  3504 net.cpp:409] ip2 -> ip2
I0505 05:11:46.095280  3504 net.cpp:144] Setting up ip2
I0505 05:11:46.095290  3504 net.cpp:151] Top shape: 20 256 (5120)
I0505 05:11:46.095293  3504 net.cpp:159] Memory required for data: 20219280
I0505 05:11:46.095301  3504 layer_factory.hpp:77] Creating layer ip3
I0505 05:11:46.095307  3504 net.cpp:94] Creating Layer ip3
I0505 05:11:46.095311  3504 net.cpp:435] ip3 <- ip2
I0505 05:11:46.095316  3504 net.cpp:409] ip3 -> ip3
I0505 05:11:46.096392  3504 net.cpp:144] Setting up ip3
I0505 05:11:46.096405  3504 net.cpp:151] Top shape: 20 50 (1000)
I0505 05:11:46.096410  3504 net.cpp:159] Memory required for data: 20223280
I0505 05:11:46.096415  3504 layer_factory.hpp:77] Creating layer loss
I0505 05:11:46.096422  3504 net.cpp:94] Creating Layer loss
I0505 05:11:46.096426  3504 net.cpp:435] loss <- ip3
I0505 05:11:46.096431  3504 net.cpp:435] loss <- label
I0505 05:11:46.096436  3504 net.cpp:409] loss -> loss
I0505 05:11:46.096447  3504 layer_factory.hpp:77] Creating layer loss
…
I0505 05:11:46.096912  3504 solver.cpp:181] Creating test net (#0) specified by net file: ./protocol/dis_20_900_dimension.protocol_distribution
I0505 05:11:46.096943  3504 net.cpp:323] The NetState phase (1) differed from the phase (0) specified by a rule in layer parameters
I0505 05:11:46.097025  3504 net.cpp:52] Initializing net from parameters: 
state {
  phase: TEST
}
layer {
  name: "intercept"
  type: "HDF5Data"
  top: "data"
  top: "label"
  include {
    phase: TEST
  }
  hdf5_data_param {
    source: "/home/purduethu/scratch/radon/d/deng106/CNNStatisticalModel/distributions/input/20_distributions_900_sample_size_test-distributions-path.txt"
    batch_size: 20
  }
}
layer {
  name: "conv1"
  type: "Convolution"
  bottom: "data"
  top: "conv1"
  param {
    lr_mult: 1
  }
  param {
    lr_mult: 2
  }
  convolution_param {
    num_output: 64
    pad: 2
    kernel_size: 5
    stride: 1
    weight_filler {
      type: "gaussian"
      std: 0.0001
    }
    bias_filler {
      type: "constant"
    }
  }
}
layer {
  name: "relu1"
  type: "ReLU"
  bottom: "conv1"
  top: "conv1"
}
layer {
  name: "pool1"
  type: "Pooling"
  bottom: "conv1"
  top: "pool1"
  pooling_param {
    pool: MAX
    kernel_size: 3
    stride: 2
  }
}
layer {
  name: "conv2"
  type: "Convolution"
  bottom: "pool1"
  top: "conv2"
  param {
    lr_mult: 1
  }
  param {
    lr_mult: 2
  }
  convolution_param {
    num_output: 128
    pad: 2
    kernel_size: 5
    stride: 1
    weight_filler {
      type: "gaussian"
      std: 0.01
    }
    bias_filler {
      type: "constant"
    }
  }
}
layer {
  name: "relu2"
  type: "ReLU"
  bottom: "conv2"
  top: "conv2"
}
layer {
  name: "conv3"
  type: "Convolution"
  bottom: "conv2"
  top: "conv3"
  param {
    lr_mult: 1
  }
  param {
    lr_mult: 2
  }
  convolution_param {
    num_output: 128
    pad: 2
    kernel_size: 5
    stride: 1
    weight_filler {
      type: "gaussian"
      std: 0.01
    }
    bias_filler {
      type: "constant"
    }
  }
}
layer {
  name: "relu3"
  type: "ReLU"
  bottom: "conv3"
  top: "conv3"
}
layer {
  name: "pool3"
  type: "Pooling"
  bottom: "conv3"
  top: "pool3"
  pooling_param {
    pool: AVE
    kernel_size: 3
    stride: 2
  }
}
layer {
  name: "ip1"
  type: "InnerProduct"
  bottom: "pool3"
  top: "ip1"
  param {
    lr_mult: 1
  }
  param {
    lr_mult: 2
  }
  inner_product_param {
    num_output: 512
    weight_filler {
      type: "gaussian"
      std: 0.1
    }
    bias_filler {
      type: "constant"
    }
  }
}
layer {
  name: "ip2"
  type: "InnerProduct"
  bottom: "ip1"
  top: "ip2"
  param {
    lr_mult: 1
  }
  param {
    lr_mult: 2
  }
  inner_product_param {
    num_output: 256
    weight_filler {
      type: "gaussian"
      std: 0.1
    }
    bias_filler {
      type: "constant"
    }
  }
}
layer {
  name: "ip3"
  type: "InnerProduct"
  bottom: "ip2"
  top: "ip3"
  param {
    lr_mult: 1
  }
  param {
    lr_mult: 2
  }
  inner_product_param {
    num_output: 50
    weight_filler {
      type: "gaussian"
      std: 0.1
    }
    bias_filler {
      type: "constant"
    }
  }
}
layer {
  name: "accuracy"
  type: "Accuracy"
  bottom: "ip3"
  bottom: "label"
  top: "accuracy"
  include {
    phase: TEST
  }
}
layer {
  name: "loss"
  type: "SoftmaxWithLoss"
  bottom: "ip3"
  bottom: "label"
  top: "loss"
}
I0505 05:11:46.097088  3504 layer_factory.hpp:77] Creating layer intercept
I0505 05:11:46.097096  3504 net.cpp:94] Creating Layer intercept
I0505 05:11:46.097100  3504 net.cpp:409] intercept -> data
I0505 05:11:46.097107  3504 net.cpp:409] intercept -> label
I0505 05:11:46.097115  3504 hdf5_data_layer.cpp:79] Loading list of HDF5 filenames from: /home/purduethu/scratch/radon/d/deng106/CNNStatisticalModel/distributions/input/20_distributions_900_sample_size_test-distributions-path.txt
I0505 05:11:46.097133  3504 hdf5_data_layer.cpp:93] Number of HDF5 files: 1
I0505 05:11:46.241073  3504 net.cpp:144] Setting up intercept
I0505 05:11:46.241104  3504 net.cpp:151] Top shape: 20 1 30 30 (18000)
I0505 05:11:46.241109  3504 net.cpp:151] Top shape: 20 (20)
I0505 05:11:46.241113  3504 net.cpp:159] Memory required for data: 72080
I0505 05:11:46.241119  3504 layer_factory.hpp:77] Creating layer label_intercept_1_split
I0505 05:11:46.241143  3504 net.cpp:94] Creating Layer label_intercept_1_split
I0505 05:11:46.241149  3504 net.cpp:435] label_intercept_1_split <- label
I0505 05:11:46.241155  3504 net.cpp:409] label_intercept_1_split -> label_intercept_1_split_0
I0505 05:11:46.241164  3504 net.cpp:409] label_intercept_1_split -> label_intercept_1_split_1
I0505 05:11:46.241192  3504 net.cpp:144] Setting up label_intercept_1_split
I0505 05:11:46.241199  3504 net.cpp:151] Top shape: 20 (20)
I0505 05:11:46.241202  3504 net.cpp:151] Top shape: 20 (20)
I0505 05:11:46.241214  3504 net.cpp:159] Memory required for data: 72240
I0505 05:11:46.241216  3504 layer_factory.hpp:77] Creating layer conv1
I0505 05:11:46.241227  3504 net.cpp:94] Creating Layer conv1
I0505 05:11:46.241231  3504 net.cpp:435] conv1 <- data
I0505 05:11:46.241235  3504 net.cpp:409] conv1 -> conv1
I0505 05:11:46.242434  3504 net.cpp:144] Setting up conv1
I0505 05:11:46.242447  3504 net.cpp:151] Top shape: 20 64 30 30 (1152000)
I0505 05:11:46.242452  3504 net.cpp:159] Memory required for data: 4680240
I0505 05:11:46.242461  3504 layer_factory.hpp:77] Creating layer relu1
I0505 05:11:46.242468  3504 net.cpp:94] Creating Layer relu1
I0505 05:11:46.242472  3504 net.cpp:435] relu1 <- conv1
I0505 05:11:46.242477  3504 net.cpp:396] relu1 -> conv1 (in-place)
I0505 05:11:46.242486  3504 net.cpp:144] Setting up relu1
I0505 05:11:46.242489  3504 net.cpp:151] Top shape: 20 64 30 30 (1152000)
I0505 05:11:46.242493  3504 net.cpp:159] Memory required for data: 9288240
I0505 05:11:46.242496  3504 layer_factory.hpp:77] Creating layer pool1
I0505 05:11:46.242503  3504 net.cpp:94] Creating Layer pool1
I0505 05:11:46.242507  3504 net.cpp:435] pool1 <- conv1
I0505 05:11:46.242511  3504 net.cpp:409] pool1 -> pool1
I0505 05:11:46.242545  3504 net.cpp:144] Setting up pool1
I0505 05:11:46.242552  3504 net.cpp:151] Top shape: 20 64 15 15 (288000)
I0505 05:11:46.242555  3504 net.cpp:159] Memory required for data: 10440240
I0505 05:11:46.242558  3504 layer_factory.hpp:77] Creating layer conv2
I0505 05:11:46.242566  3504 net.cpp:94] Creating Layer conv2
I0505 05:11:46.242570  3504 net.cpp:435] conv2 <- pool1
I0505 05:11:46.242575  3504 net.cpp:409] conv2 -> conv2
I0505 05:11:46.250530  3504 net.cpp:144] Setting up conv2
I0505 05:11:46.250545  3504 net.cpp:151] Top shape: 20 128 15 15 (576000)
I0505 05:11:46.250550  3504 net.cpp:159] Memory required for data: 12744240
I0505 05:11:46.250557  3504 layer_factory.hpp:77] Creating layer relu2
I0505 05:11:46.250564  3504 net.cpp:94] Creating Layer relu2
I0505 05:11:46.250568  3504 net.cpp:435] relu2 <- conv2
I0505 05:11:46.250573  3504 net.cpp:396] relu2 -> conv2 (in-place)
I0505 05:11:46.250581  3504 net.cpp:144] Setting up relu2
I0505 05:11:46.250586  3504 net.cpp:151] Top shape: 20 128 15 15 (576000)
I0505 05:11:46.250588  3504 net.cpp:159] Memory required for data: 15048240
I0505 05:11:46.250592  3504 layer_factory.hpp:77] Creating layer conv3
I0505 05:11:46.250599  3504 net.cpp:94] Creating Layer conv3
I0505 05:11:46.250603  3504 net.cpp:435] conv3 <- conv2
I0505 05:11:46.250608  3504 net.cpp:409] conv3 -> conv3
I0505 05:11:46.265331  3504 net.cpp:144] Setting up conv3
I0505 05:11:46.265347  3504 net.cpp:151] Top shape: 20 128 15 15 (576000)
I0505 05:11:46.265352  3504 net.cpp:159] Memory required for data: 17352240
I0505 05:11:46.265360  3504 layer_factory.hpp:77] Creating layer relu3
I0505 05:11:46.265367  3504 net.cpp:94] Creating Layer relu3
I0505 05:11:46.265372  3504 net.cpp:435] relu3 <- conv3
I0505 05:11:46.265377  3504 net.cpp:396] relu3 -> conv3 (in-place)
I0505 05:11:46.265383  3504 net.cpp:144] Setting up relu3
I0505 05:11:46.265388  3504 net.cpp:151] Top shape: 20 128 15 15 (576000)
I0505 05:11:46.265391  3504 net.cpp:159] Memory required for data: 19656240
I0505 05:11:46.265394  3504 layer_factory.hpp:77] Creating layer pool3
I0505 05:11:46.265400  3504 net.cpp:94] Creating Layer pool3
I0505 05:11:46.265403  3504 net.cpp:435] pool3 <- conv3
I0505 05:11:46.265408  3504 net.cpp:409] pool3 -> pool3
I0505 05:11:46.265435  3504 net.cpp:144] Setting up pool3
I0505 05:11:46.265446  3504 net.cpp:151] Top shape: 20 128 7 7 (125440)
I0505 05:11:46.265450  3504 net.cpp:159] Memory required for data: 20158000
I0505 05:11:46.265455  3504 layer_factory.hpp:77] Creating layer ip1
I0505 05:11:46.265461  3504 net.cpp:94] Creating Layer ip1
I0505 05:11:46.265465  3504 net.cpp:435] ip1 <- pool3
I0505 05:11:46.265470  3504 net.cpp:409] ip1 -> ip1
I0505 05:11:46.342713  3504 net.cpp:144] Setting up ip1
I0505 05:11:46.342746  3504 net.cpp:151] Top shape: 20 512 (10240)
I0505 05:11:46.342749  3504 net.cpp:159] Memory required for data: 20198960
I0505 05:11:46.342770  3504 layer_factory.hpp:77] Creating layer ip2
I0505 05:11:46.342780  3504 net.cpp:94] Creating Layer ip2
I0505 05:11:46.342785  3504 net.cpp:435] ip2 <- ip1
I0505 05:11:46.342792  3504 net.cpp:409] ip2 -> ip2
I0505 05:11:46.345906  3504 net.cpp:144] Setting up ip2
I0505 05:11:46.345914  3504 net.cpp:151] Top shape: 20 256 (5120)
I0505 05:11:46.345917  3504 net.cpp:159] Memory required for data: 20219440
I0505 05:11:46.345927  3504 layer_factory.hpp:77] Creating layer ip3
I0505 05:11:46.345933  3504 net.cpp:94] Creating Layer ip3
I0505 05:11:46.345937  3504 net.cpp:435] ip3 <- ip2
I0505 05:11:46.345942  3504 net.cpp:409] ip3 -> ip3
I0505 05:11:46.346312  3504 net.cpp:144] Setting up ip3
I0505 05:11:46.346319  3504 net.cpp:151] Top shape: 20 50 (1000)
I0505 05:11:46.346323  3504 net.cpp:159] Memory required for data: 20223440
I0505 05:11:46.346328  3504 layer_factory.hpp:77] Creating layer ip3_ip3_0_split
I0505 05:11:46.346333  3504 net.cpp:94] Creating Layer ip3_ip3_0_split
I0505 05:11:46.346336  3504 net.cpp:435] ip3_ip3_0_split <- ip3
I0505 05:11:46.346341  3504 net.cpp:409] ip3_ip3_0_split -> ip3_ip3_0_split_0
I0505 05:11:46.346346  3504 net.cpp:409] ip3_ip3_0_split -> ip3_ip3_0_split_1
I0505 05:11:46.346370  3504 net.cpp:144] Setting up ip3_ip3_0_split
I0505 05:11:46.346375  3504 net.cpp:151] Top shape: 20 50 (1000)
I0505 05:11:46.346379  3504 net.cpp:151] Top shape: 20 50 (1000)
I0505 05:11:46.346384  3504 net.cpp:159] Memory required for data: 20231440
I0505 05:11:46.346386  3504 layer_factory.hpp:77] Creating layer accuracy
I0505 05:11:46.346392  3504 net.cpp:94] Creating Layer accuracy
I0505 05:11:46.346395  3504 net.cpp:435] accuracy <- ip3_ip3_0_split_0
I0505 05:11:46.346400  3504 net.cpp:435] accuracy <- label_intercept_1_split_0
I0505 05:11:46.346405  3504 net.cpp:409] accuracy -> accuracy
…
