…
I0506 23:47:06.513706 28695 net.cpp:323] The NetState phase (0) differed from the phase (1) specified by a rule in layer intercept
I0506 23:47:06.513723 28695 net.cpp:323] The NetState phase (0) differed from the phase (1) specified by a rule in layer loss
I0506 23:47:06.513805 28695 net.cpp:52] Initializing net from parameters: 
state {
  phase: TRAIN
}
layer {
  name: "parameters"
  type: "HDF5Data"
  top: "data"
  top: "label"
  include {
    phase: TRAIN
  }
  hdf5_data_param {
    source: "/home/purduethu/scratch/radon/d/deng106/CNNStatisticalModel/distributions/input/50_distributions_100_sample_size_train-parameters-path.txt"
    batch_size: 20
  }
}
layer {
  name: "conv1"
  type: "Convolution"
  bottom: "data"
  top: "conv1"
  param {
    lr_mult: 1
  }
  param {
    lr_mult: 2
  }
  convolution_param {
    num_output: 64
    pad: 2
    kernel_size: 5
    stride: 1
    weight_filler {
      type: "gaussian"
      std: 0.0001
    }
    bias_filler {
      type: "constant"
    }
  }
}
layer {
  name: "relu1"
  type: "ReLU"
  bottom: "conv1"
  top: "conv1"
}
layer {
  name: "conv2"
  type: "Convolution"
  bottom: "conv1"
  top: "conv2"
  param {
    lr_mult: 1
  }
  param {
    lr_mult: 2
  }
  convolution_param {
    num_output: 64
    pad: 2
    kernel_size: 5
    stride: 1
    weight_filler {
      type: "gaussian"
      std: 0.01
    }
    bias_filler {
      type: "constant"
    }
  }
}
layer {
  name: "relu2"
  type: "ReLU"
  bottom: "conv2"
  top: "conv2"
}
layer {
  name: "pool2"
  type: "Pooling"
  bottom: "conv2"
  top: "pool2"
  pooling_param {
    pool: MAX
    kernel_size: 3
    stride: 2
  }
}
layer {
  name: "conv3"
  type: "Convolution"
  bottom: "pool2"
  top: "conv3"
  param {
    lr_mult: 1
  }
  param {
    lr_mult: 2
  }
  convolution_param {
    num_output: 64
    pad: 2
    kernel_size: 5
    stride: 1
    weight_filler {
      type: "gaussian"
      std: 0.01
    }
    bias_filler {
      type: "constant"
    }
  }
}
layer {
  name: "relu3"
  type: "ReLU"
  bottom: "conv3"
  top: "conv3"
}
layer {
  name: "conv4"
  type: "Convolution"
  bottom: "conv3"
  top: "conv4"
  param {
    lr_mult: 1
  }
  param {
    lr_mult: 2
  }
  convolution_param {
    num_output: 64
    pad: 2
    kernel_size: 5
    stride: 1
    weight_filler {
      type: "gaussian"
      std: 0.01
    }
    bias_filler {
      type: "constant"
    }
  }
}
layer {
  name: "relu4"
  type: "ReLU"
  bottom: "conv4"
  top: "conv4"
}
layer {
  name: "conv5"
  type: "Convolution"
  bottom: "conv4"
  top: "conv5"
  param {
    lr_mult: 1
  }
  param {
    lr_mult: 2
  }
  convolution_param {
    num_output: 64
    pad: 2
    kernel_size: 5
    stride: 1
    weight_filler {
      type: "gaussian"
      std: 0.01
    }
    bias_filler {
      type: "constant"
    }
  }
}
layer {
  name: "relu5"
  type: "ReLU"
  bottom: "conv5"
  top: "conv5"
}
layer {
  name: "pool5"
  type: "Pooling"
  bottom: "conv5"
  top: "pool5"
  pooling_param {
    pool: AVE
    kernel_size: 3
    stride: 2
  }
}
layer {
  name: "ip1"
  type: "InnerProduct"
  bottom: "pool5"
  top: "ip1"
  param {
    lr_mult: 1
  }
  param {
    lr_mult: 2
  }
  inner_product_param {
    num_output: 64
    weight_filler {
      type: "gaussian"
      std: 0.1
    }
    bias_filler {
      type: "constant"
    }
  }
}
layer {
  name: "ip2"
  type: "InnerProduct"
  bottom: "ip1"
  top: "ip2"
  param {
    lr_mult: 1
  }
  param {
    lr_mult: 2
  }
  inner_product_param {
    num_output: 64
    weight_filler {
      type: "gaussian"
      std: 0.1
    }
    bias_filler {
      type: "constant"
    }
  }
}
layer {
  name: "ip3"
  type: "InnerProduct"
  bottom: "ip2"
  top: "ip3"
  param {
    lr_mult: 1
  }
  param {
    lr_mult: 2
  }
  inner_product_param {
    num_output: 1
    weight_filler {
      type: "gaussian"
      std: 0.1
    }
    bias_filler {
      type: "constant"
    }
  }
}
layer {
  name: "loss"
  type: "HuberLoss"
  bottom: "ip3"
  bottom: "label"
  top: "loss"
  include {
    phase: TRAIN
  }
}
I0506 23:47:06.513860 28695 layer_factory.hpp:77] Creating layer parameters
I0506 23:47:06.513875 28695 net.cpp:94] Creating Layer parameters
I0506 23:47:06.513880 28695 net.cpp:409] parameters -> data
I0506 23:47:06.513890 28695 net.cpp:409] parameters -> label
I0506 23:47:06.513900 28695 hdf5_data_layer.cpp:79] Loading list of HDF5 filenames from: /home/purduethu/scratch/radon/d/deng106/CNNStatisticalModel/distributions/input/50_distributions_100_sample_size_train-parameters-path.txt
I0506 23:47:06.513916 28695 hdf5_data_layer.cpp:93] Number of HDF5 files: 1
I0506 23:47:06.514437 28695 hdf5.cpp:32] Datatype class: H5T_FLOAT
I0506 23:47:06.677314 28695 net.cpp:144] Setting up parameters
I0506 23:47:06.677346 28695 net.cpp:151] Top shape: 20 1 10 10 (2000)
I0506 23:47:06.677351 28695 net.cpp:151] Top shape: 20 (20)
I0506 23:47:06.677356 28695 net.cpp:159] Memory required for data: 8080
I0506 23:47:06.677361 28695 layer_factory.hpp:77] Creating layer conv1
I0506 23:47:06.677383 28695 net.cpp:94] Creating Layer conv1
I0506 23:47:06.677387 28695 net.cpp:435] conv1 <- data
I0506 23:47:06.677394 28695 net.cpp:409] conv1 -> conv1
I0506 23:47:06.682032 28695 net.cpp:144] Setting up conv1
I0506 23:47:06.682075 28695 net.cpp:151] Top shape: 20 64 10 10 (128000)
I0506 23:47:06.682087 28695 net.cpp:159] Memory required for data: 520080
I0506 23:47:06.682113 28695 layer_factory.hpp:77] Creating layer relu1
I0506 23:47:06.682133 28695 net.cpp:94] Creating Layer relu1
I0506 23:47:06.682143 28695 net.cpp:435] relu1 <- conv1
I0506 23:47:06.682157 28695 net.cpp:396] relu1 -> conv1 (in-place)
I0506 23:47:06.682186 28695 net.cpp:144] Setting up relu1
I0506 23:47:06.682201 28695 net.cpp:151] Top shape: 20 64 10 10 (128000)
I0506 23:47:06.682210 28695 net.cpp:159] Memory required for data: 1032080
I0506 23:47:06.682219 28695 layer_factory.hpp:77] Creating layer conv2
I0506 23:47:06.682240 28695 net.cpp:94] Creating Layer conv2
I0506 23:47:06.682250 28695 net.cpp:435] conv2 <- conv1
I0506 23:47:06.682265 28695 net.cpp:409] conv2 -> conv2
I0506 23:47:06.695585 28695 net.cpp:144] Setting up conv2
I0506 23:47:06.695618 28695 net.cpp:151] Top shape: 20 64 10 10 (128000)
I0506 23:47:06.695628 28695 net.cpp:159] Memory required for data: 1544080
I0506 23:47:06.695649 28695 layer_factory.hpp:77] Creating layer relu2
I0506 23:47:06.695667 28695 net.cpp:94] Creating Layer relu2
I0506 23:47:06.695677 28695 net.cpp:435] relu2 <- conv2
I0506 23:47:06.695688 28695 net.cpp:396] relu2 -> conv2 (in-place)
I0506 23:47:06.695706 28695 net.cpp:144] Setting up relu2
I0506 23:47:06.695719 28695 net.cpp:151] Top shape: 20 64 10 10 (128000)
I0506 23:47:06.695727 28695 net.cpp:159] Memory required for data: 2056080
I0506 23:47:06.695735 28695 layer_factory.hpp:77] Creating layer pool2
I0506 23:47:06.695749 28695 net.cpp:94] Creating Layer pool2
I0506 23:47:06.695757 28695 net.cpp:435] pool2 <- conv2
I0506 23:47:06.695770 28695 net.cpp:409] pool2 -> pool2
I0506 23:47:06.695891 28695 net.cpp:144] Setting up pool2
I0506 23:47:06.695909 28695 net.cpp:151] Top shape: 20 64 5 5 (32000)
I0506 23:47:06.695919 28695 net.cpp:159] Memory required for data: 2184080
I0506 23:47:06.695927 28695 layer_factory.hpp:77] Creating layer conv3
I0506 23:47:06.695946 28695 net.cpp:94] Creating Layer conv3
I0506 23:47:06.695955 28695 net.cpp:435] conv3 <- pool2
I0506 23:47:06.695981 28695 net.cpp:409] conv3 -> conv3
I0506 23:47:06.706485 28695 net.cpp:144] Setting up conv3
I0506 23:47:06.706516 28695 net.cpp:151] Top shape: 20 64 5 5 (32000)
I0506 23:47:06.706526 28695 net.cpp:159] Memory required for data: 2312080
I0506 23:47:06.706545 28695 layer_factory.hpp:77] Creating layer relu3
I0506 23:47:06.706559 28695 net.cpp:94] Creating Layer relu3
I0506 23:47:06.706568 28695 net.cpp:435] relu3 <- conv3
I0506 23:47:06.706579 28695 net.cpp:396] relu3 -> conv3 (in-place)
I0506 23:47:06.706596 28695 net.cpp:144] Setting up relu3
I0506 23:47:06.706607 28695 net.cpp:151] Top shape: 20 64 5 5 (32000)
I0506 23:47:06.706615 28695 net.cpp:159] Memory required for data: 2440080
I0506 23:47:06.706624 28695 layer_factory.hpp:77] Creating layer conv4
I0506 23:47:06.706642 28695 net.cpp:94] Creating Layer conv4
I0506 23:47:06.706651 28695 net.cpp:435] conv4 <- conv3
I0506 23:47:06.706663 28695 net.cpp:409] conv4 -> conv4
I0506 23:47:06.715487 28695 net.cpp:144] Setting up conv4
I0506 23:47:06.715515 28695 net.cpp:151] Top shape: 20 64 5 5 (32000)
I0506 23:47:06.715525 28695 net.cpp:159] Memory required for data: 2568080
I0506 23:47:06.715540 28695 layer_factory.hpp:77] Creating layer relu4
I0506 23:47:06.715553 28695 net.cpp:94] Creating Layer relu4
I0506 23:47:06.715562 28695 net.cpp:435] relu4 <- conv4
I0506 23:47:06.715574 28695 net.cpp:396] relu4 -> conv4 (in-place)
I0506 23:47:06.715590 28695 net.cpp:144] Setting up relu4
I0506 23:47:06.715601 28695 net.cpp:151] Top shape: 20 64 5 5 (32000)
I0506 23:47:06.715610 28695 net.cpp:159] Memory required for data: 2696080
I0506 23:47:06.715617 28695 layer_factory.hpp:77] Creating layer conv5
I0506 23:47:06.715634 28695 net.cpp:94] Creating Layer conv5
I0506 23:47:06.715643 28695 net.cpp:435] conv5 <- conv4
I0506 23:47:06.715656 28695 net.cpp:409] conv5 -> conv5
I0506 23:47:06.725075 28695 net.cpp:144] Setting up conv5
I0506 23:47:06.725105 28695 net.cpp:151] Top shape: 20 64 5 5 (32000)
I0506 23:47:06.725113 28695 net.cpp:159] Memory required for data: 2824080
I0506 23:47:06.725131 28695 layer_factory.hpp:77] Creating layer relu5
I0506 23:47:06.725144 28695 net.cpp:94] Creating Layer relu5
I0506 23:47:06.725153 28695 net.cpp:435] relu5 <- conv5
I0506 23:47:06.725163 28695 net.cpp:396] relu5 -> conv5 (in-place)
I0506 23:47:06.725179 28695 net.cpp:144] Setting up relu5
I0506 23:47:06.725189 28695 net.cpp:151] Top shape: 20 64 5 5 (32000)
I0506 23:47:06.725196 28695 net.cpp:159] Memory required for data: 2952080
I0506 23:47:06.725204 28695 layer_factory.hpp:77] Creating layer pool5
I0506 23:47:06.725214 28695 net.cpp:94] Creating Layer pool5
I0506 23:47:06.725222 28695 net.cpp:435] pool5 <- conv5
I0506 23:47:06.725232 28695 net.cpp:409] pool5 -> pool5
I0506 23:47:06.725311 28695 net.cpp:144] Setting up pool5
I0506 23:47:06.725327 28695 net.cpp:151] Top shape: 20 64 2 2 (5120)
I0506 23:47:06.725334 28695 net.cpp:159] Memory required for data: 2972560
I0506 23:47:06.725342 28695 layer_factory.hpp:77] Creating layer ip1
I0506 23:47:06.725360 28695 net.cpp:94] Creating Layer ip1
I0506 23:47:06.725368 28695 net.cpp:435] ip1 <- pool5
I0506 23:47:06.725379 28695 net.cpp:409] ip1 -> ip1
I0506 23:47:06.728040 28695 net.cpp:144] Setting up ip1
I0506 23:47:06.728067 28695 net.cpp:151] Top shape: 20 64 (1280)
I0506 23:47:06.728076 28695 net.cpp:159] Memory required for data: 2977680
I0506 23:47:06.728090 28695 layer_factory.hpp:77] Creating layer ip2
I0506 23:47:06.728103 28695 net.cpp:94] Creating Layer ip2
I0506 23:47:06.728112 28695 net.cpp:435] ip2 <- ip1
I0506 23:47:06.728124 28695 net.cpp:409] ip2 -> ip2
I0506 23:47:06.728623 28695 net.cpp:144] Setting up ip2
I0506 23:47:06.728642 28695 net.cpp:151] Top shape: 20 64 (1280)
I0506 23:47:06.728651 28695 net.cpp:159] Memory required for data: 2982800
I0506 23:47:06.728663 28695 layer_factory.hpp:77] Creating layer ip3
I0506 23:47:06.728675 28695 net.cpp:94] Creating Layer ip3
I0506 23:47:06.728683 28695 net.cpp:435] ip3 <- ip2
I0506 23:47:06.728694 28695 net.cpp:409] ip3 -> ip3
I0506 23:47:06.728937 28695 net.cpp:144] Setting up ip3
I0506 23:47:06.728953 28695 net.cpp:151] Top shape: 20 1 (20)
I0506 23:47:06.728960 28695 net.cpp:159] Memory required for data: 2982880
I0506 23:47:06.728984 28695 layer_factory.hpp:77] Creating layer loss
I0506 23:47:06.728998 28695 net.cpp:94] Creating Layer loss
I0506 23:47:06.729007 28695 net.cpp:435] loss <- ip3
I0506 23:47:06.729014 28695 net.cpp:435] loss <- label
I0506 23:47:06.729024 28695 net.cpp:409] loss -> loss
I0506 23:47:06.729125 28695 net.cpp:144] Setting up loss
…
I0506 23:47:06.825176 28695 net.cpp:323] The NetState phase (0) differed from the phase (1) specified by a rule in layer intercept
I0506 23:47:06.825198 28695 net.cpp:323] The NetState phase (0) differed from the phase (1) specified by a rule in layer accuracy
I0506 23:47:06.825328 28695 net.cpp:52] Initializing net from parameters: 
state {
  phase: TRAIN
}
layer {
  name: "parameters"
  type: "HDF5Data"
  top: "data"
  top: "label"
  include {
    phase: TRAIN
  }
  hdf5_data_param {
    source: "/home/purduethu/scratch/radon/d/deng106/CNNStatisticalModel/distributions/input/50_distributions_100_sample_size_train-distributions-path.txt"
    batch_size: 20
  }
}
layer {
  name: "conv1"
  type: "Convolution"
  bottom: "data"
  top: "conv1"
  param {
    lr_mult: 1
  }
  param {
    lr_mult: 2
  }
  convolution_param {
    num_output: 64
    pad: 2
    kernel_size: 5
    stride: 1
    weight_filler {
      type: "gaussian"
      std: 0.0001
    }
    bias_filler {
      type: "constant"
    }
  }
}
layer {
  name: "relu1"
  type: "ReLU"
  bottom: "conv1"
  top: "conv1"
}
layer {
  name: "conv2"
  type: "Convolution"
  bottom: "conv1"
  top: "conv2"
  param {
    lr_mult: 1
  }
  param {
    lr_mult: 2
  }
  convolution_param {
    num_output: 64
    pad: 2
    kernel_size: 5
    stride: 1
    weight_filler {
      type: "gaussian"
      std: 0.01
    }
    bias_filler {
      type: "constant"
    }
  }
}
layer {
  name: "relu2"
  type: "ReLU"
  bottom: "conv2"
  top: "conv2"
}
layer {
  name: "pool2"
  type: "Pooling"
  bottom: "conv2"
  top: "pool2"
  pooling_param {
    pool: MAX
    kernel_size: 3
    stride: 2
  }
}
layer {
  name: "conv3"
  type: "Convolution"
  bottom: "pool2"
  top: "conv3"
  param {
    lr_mult: 1
  }
  param {
    lr_mult: 2
  }
  convolution_param {
    num_output: 64
    pad: 2
    kernel_size: 5
    stride: 1
    weight_filler {
      type: "gaussian"
      std: 0.01
    }
    bias_filler {
      type: "constant"
    }
  }
}
layer {
  name: "relu3"
  type: "ReLU"
  bottom: "conv3"
  top: "conv3"
}
layer {
  name: "conv4"
  type: "Convolution"
  bottom: "conv3"
  top: "conv4"
  param {
    lr_mult: 1
  }
  param {
    lr_mult: 2
  }
  convolution_param {
    num_output: 64
    pad: 2
    kernel_size: 5
    stride: 1
    weight_filler {
      type: "gaussian"
      std: 0.01
    }
    bias_filler {
      type: "constant"
    }
  }
}
layer {
  name: "relu4"
  type: "ReLU"
  bottom: "conv4"
  top: "conv4"
}
layer {
  name: "conv5"
  type: "Convolution"
  bottom: "conv4"
  top: "conv5"
  param {
    lr_mult: 1
  }
  param {
    lr_mult: 2
  }
  convolution_param {
    num_output: 64
    pad: 2
    kernel_size: 5
    stride: 1
    weight_filler {
      type: "gaussian"
      std: 0.01
    }
    bias_filler {
      type: "constant"
    }
  }
}
layer {
  name: "relu5"
  type: "ReLU"
  bottom: "conv5"
  top: "conv5"
}
layer {
  name: "pool5"
  type: "Pooling"
  bottom: "conv5"
  top: "pool5"
  pooling_param {
    pool: AVE
    kernel_size: 3
    stride: 2
  }
}
layer {
  name: "ip1"
  type: "InnerProduct"
  bottom: "pool5"
  top: "ip1"
  param {
    lr_mult: 1
  }
  param {
    lr_mult: 2
  }
  inner_product_param {
    num_output: 64
    weight_filler {
      type: "gaussian"
      std: 0.1
    }
    bias_filler {
      type: "constant"
    }
  }
}
layer {
  name: "ip2"
  type: "InnerProduct"
  bottom: "ip1"
  top: "ip2"
  param {
    lr_mult: 1
  }
  param {
    lr_mult: 2
  }
  inner_product_param {
    num_output: 64
    weight_filler {
      type: "gaussian"
      std: 0.1
    }
    bias_filler {
      type: "constant"
    }
  }
}
layer {
  name: "ip3"
  type: "InnerProduct"
  bottom: "ip2"
  top: "ip3"
  param {
    lr_mult: 1
  }
  param {
    lr_mult: 2
  }
  inner_product_param {
    num_output: 50
    weight_filler {
      type: "gaussian"
      std: 0.1
    }
    bias_filler {
      type: "constant"
    }
  }
}
layer {
  name: "loss"
  type: "SoftmaxWithLoss"
  bottom: "ip3"
  bottom: "label"
  top: "loss"
}
I0506 23:47:06.825400 28695 layer_factory.hpp:77] Creating layer parameters
I0506 23:47:06.825412 28695 net.cpp:94] Creating Layer parameters
I0506 23:47:06.825417 28695 net.cpp:409] parameters -> data
I0506 23:47:06.825428 28695 net.cpp:409] parameters -> label
I0506 23:47:06.825436 28695 hdf5_data_layer.cpp:79] Loading list of HDF5 filenames from: /home/purduethu/scratch/radon/d/deng106/CNNStatisticalModel/distributions/input/50_distributions_100_sample_size_train-distributions-path.txt
I0506 23:47:06.825459 28695 hdf5_data_layer.cpp:93] Number of HDF5 files: 1
I0506 23:47:07.003334 28695 hdf5.cpp:35] Datatype class: H5T_INTEGER
I0506 23:47:07.006438 28695 net.cpp:144] Setting up parameters
I0506 23:47:07.006455 28695 net.cpp:151] Top shape: 20 1 10 10 (2000)
I0506 23:47:07.006460 28695 net.cpp:151] Top shape: 20 (20)
I0506 23:47:07.006464 28695 net.cpp:159] Memory required for data: 8080
I0506 23:47:07.006470 28695 layer_factory.hpp:77] Creating layer conv1
I0506 23:47:07.006486 28695 net.cpp:94] Creating Layer conv1
I0506 23:47:07.006491 28695 net.cpp:435] conv1 <- data
I0506 23:47:07.006497 28695 net.cpp:409] conv1 -> conv1
I0506 23:47:07.008235 28695 net.cpp:144] Setting up conv1
I0506 23:47:07.008249 28695 net.cpp:151] Top shape: 20 64 10 10 (128000)
I0506 23:47:07.008252 28695 net.cpp:159] Memory required for data: 520080
I0506 23:47:07.008262 28695 layer_factory.hpp:77] Creating layer relu1
I0506 23:47:07.008270 28695 net.cpp:94] Creating Layer relu1
I0506 23:47:07.008275 28695 net.cpp:435] relu1 <- conv1
I0506 23:47:07.008278 28695 net.cpp:396] relu1 -> conv1 (in-place)
I0506 23:47:07.008286 28695 net.cpp:144] Setting up relu1
I0506 23:47:07.008291 28695 net.cpp:151] Top shape: 20 64 10 10 (128000)
I0506 23:47:07.008294 28695 net.cpp:159] Memory required for data: 1032080
I0506 23:47:07.008297 28695 layer_factory.hpp:77] Creating layer conv2
I0506 23:47:07.008304 28695 net.cpp:94] Creating Layer conv2
I0506 23:47:07.008308 28695 net.cpp:435] conv2 <- conv1
I0506 23:47:07.008313 28695 net.cpp:409] conv2 -> conv2
I0506 23:47:07.013756 28695 net.cpp:144] Setting up conv2
I0506 23:47:07.013770 28695 net.cpp:151] Top shape: 20 64 10 10 (128000)
I0506 23:47:07.013774 28695 net.cpp:159] Memory required for data: 1544080
I0506 23:47:07.013782 28695 layer_factory.hpp:77] Creating layer relu2
I0506 23:47:07.013789 28695 net.cpp:94] Creating Layer relu2
I0506 23:47:07.013793 28695 net.cpp:435] relu2 <- conv2
I0506 23:47:07.013797 28695 net.cpp:396] relu2 -> conv2 (in-place)
I0506 23:47:07.013804 28695 net.cpp:144] Setting up relu2
I0506 23:47:07.013809 28695 net.cpp:151] Top shape: 20 64 10 10 (128000)
I0506 23:47:07.013813 28695 net.cpp:159] Memory required for data: 2056080
I0506 23:47:07.013815 28695 layer_factory.hpp:77] Creating layer pool2
I0506 23:47:07.013823 28695 net.cpp:94] Creating Layer pool2
I0506 23:47:07.013825 28695 net.cpp:435] pool2 <- conv2
I0506 23:47:07.013829 28695 net.cpp:409] pool2 -> pool2
I0506 23:47:07.013880 28695 net.cpp:144] Setting up pool2
I0506 23:47:07.013888 28695 net.cpp:151] Top shape: 20 64 5 5 (32000)
I0506 23:47:07.013891 28695 net.cpp:159] Memory required for data: 2184080
I0506 23:47:07.013895 28695 layer_factory.hpp:77] Creating layer conv3
I0506 23:47:07.013902 28695 net.cpp:94] Creating Layer conv3
I0506 23:47:07.013906 28695 net.cpp:435] conv3 <- pool2
I0506 23:47:07.013911 28695 net.cpp:409] conv3 -> conv3
I0506 23:47:07.019673 28695 net.cpp:144] Setting up conv3
I0506 23:47:07.019687 28695 net.cpp:151] Top shape: 20 64 5 5 (32000)
I0506 23:47:07.019691 28695 net.cpp:159] Memory required for data: 2312080
I0506 23:47:07.019701 28695 layer_factory.hpp:77] Creating layer relu3
I0506 23:47:07.019706 28695 net.cpp:94] Creating Layer relu3
I0506 23:47:07.019711 28695 net.cpp:435] relu3 <- conv3
I0506 23:47:07.019716 28695 net.cpp:396] relu3 -> conv3 (in-place)
I0506 23:47:07.019722 28695 net.cpp:144] Setting up relu3
I0506 23:47:07.019726 28695 net.cpp:151] Top shape: 20 64 5 5 (32000)
I0506 23:47:07.019737 28695 net.cpp:159] Memory required for data: 2440080
I0506 23:47:07.019739 28695 layer_factory.hpp:77] Creating layer conv4
I0506 23:47:07.019748 28695 net.cpp:94] Creating Layer conv4
I0506 23:47:07.019752 28695 net.cpp:435] conv4 <- conv3
I0506 23:47:07.019757 28695 net.cpp:409] conv4 -> conv4
I0506 23:47:07.024669 28695 net.cpp:144] Setting up conv4
I0506 23:47:07.024682 28695 net.cpp:151] Top shape: 20 64 5 5 (32000)
I0506 23:47:07.024688 28695 net.cpp:159] Memory required for data: 2568080
I0506 23:47:07.024693 28695 layer_factory.hpp:77] Creating layer relu4
I0506 23:47:07.024699 28695 net.cpp:94] Creating Layer relu4
I0506 23:47:07.024703 28695 net.cpp:435] relu4 <- conv4
I0506 23:47:07.024708 28695 net.cpp:396] relu4 -> conv4 (in-place)
I0506 23:47:07.024714 28695 net.cpp:144] Setting up relu4
I0506 23:47:07.024719 28695 net.cpp:151] Top shape: 20 64 5 5 (32000)
I0506 23:47:07.024722 28695 net.cpp:159] Memory required for data: 2696080
I0506 23:47:07.024726 28695 layer_factory.hpp:77] Creating layer conv5
I0506 23:47:07.024734 28695 net.cpp:94] Creating Layer conv5
I0506 23:47:07.024737 28695 net.cpp:435] conv5 <- conv4
I0506 23:47:07.024742 28695 net.cpp:409] conv5 -> conv5
I0506 23:47:07.029217 28695 net.cpp:144] Setting up conv5
I0506 23:47:07.029232 28695 net.cpp:151] Top shape: 20 64 5 5 (32000)
I0506 23:47:07.029234 28695 net.cpp:159] Memory required for data: 2824080
I0506 23:47:07.029243 28695 layer_factory.hpp:77] Creating layer relu5
I0506 23:47:07.029249 28695 net.cpp:94] Creating Layer relu5
I0506 23:47:07.029253 28695 net.cpp:435] relu5 <- conv5
I0506 23:47:07.029258 28695 net.cpp:396] relu5 -> conv5 (in-place)
I0506 23:47:07.029265 28695 net.cpp:144] Setting up relu5
I0506 23:47:07.029269 28695 net.cpp:151] Top shape: 20 64 5 5 (32000)
I0506 23:47:07.029273 28695 net.cpp:159] Memory required for data: 2952080
I0506 23:47:07.029276 28695 layer_factory.hpp:77] Creating layer pool5
I0506 23:47:07.029281 28695 net.cpp:94] Creating Layer pool5
I0506 23:47:07.029285 28695 net.cpp:435] pool5 <- conv5
I0506 23:47:07.029289 28695 net.cpp:409] pool5 -> pool5
I0506 23:47:07.029323 28695 net.cpp:144] Setting up pool5
I0506 23:47:07.029331 28695 net.cpp:151] Top shape: 20 64 2 2 (5120)
I0506 23:47:07.029335 28695 net.cpp:159] Memory required for data: 2972560
I0506 23:47:07.029338 28695 layer_factory.hpp:77] Creating layer ip1
I0506 23:47:07.029345 28695 net.cpp:94] Creating Layer ip1
I0506 23:47:07.029348 28695 net.cpp:435] ip1 <- pool5
I0506 23:47:07.029353 28695 net.cpp:409] ip1 -> ip1
I0506 23:47:07.029873 28695 net.cpp:144] Setting up ip1
I0506 23:47:07.029881 28695 net.cpp:151] Top shape: 20 64 (1280)
I0506 23:47:07.029886 28695 net.cpp:159] Memory required for data: 2977680
I0506 23:47:07.029891 28695 layer_factory.hpp:77] Creating layer ip2
I0506 23:47:07.029897 28695 net.cpp:94] Creating Layer ip2
I0506 23:47:07.029901 28695 net.cpp:435] ip2 <- ip1
I0506 23:47:07.029906 28695 net.cpp:409] ip2 -> ip2
I0506 23:47:07.030122 28695 net.cpp:144] Setting up ip2
I0506 23:47:07.030130 28695 net.cpp:151] Top shape: 20 64 (1280)
I0506 23:47:07.030133 28695 net.cpp:159] Memory required for data: 2982800
I0506 23:47:07.030139 28695 layer_factory.hpp:77] Creating layer ip3
I0506 23:47:07.030145 28695 net.cpp:94] Creating Layer ip3
I0506 23:47:07.030148 28695 net.cpp:435] ip3 <- ip2
I0506 23:47:07.030153 28695 net.cpp:409] ip3 -> ip3
I0506 23:47:07.030344 28695 net.cpp:144] Setting up ip3
I0506 23:47:07.030352 28695 net.cpp:151] Top shape: 20 50 (1000)
I0506 23:47:07.030355 28695 net.cpp:159] Memory required for data: 2986800
I0506 23:47:07.030361 28695 layer_factory.hpp:77] Creating layer loss
I0506 23:47:07.030367 28695 net.cpp:94] Creating Layer loss
I0506 23:47:07.030370 28695 net.cpp:435] loss <- ip3
I0506 23:47:07.030375 28695 net.cpp:435] loss <- label
I0506 23:47:07.030380 28695 net.cpp:409] loss -> loss
I0506 23:47:07.030386 28695 layer_factory.hpp:77] Creating layer loss
…
I0506 23:47:07.031754 28695 solver.cpp:181] Creating test net (#0) specified by net file: ./protocol/dis_50_100_dimension.protocol_distribution
I0506 23:47:07.031782 28695 net.cpp:323] The NetState phase (1) differed from the phase (0) specified by a rule in layer parameters
I0506 23:47:07.031883 28695 net.cpp:52] Initializing net from parameters: 
state {
  phase: TEST
}
layer {
  name: "intercept"
  type: "HDF5Data"
  top: "data"
  top: "label"
  include {
    phase: TEST
  }
  hdf5_data_param {
    source: "/home/purduethu/scratch/radon/d/deng106/CNNStatisticalModel/distributions/input/50_distributions_100_sample_size_test-distributions-path.txt"
    batch_size: 20
  }
}
layer {
  name: "conv1"
  type: "Convolution"
  bottom: "data"
  top: "conv1"
  param {
    lr_mult: 1
  }
  param {
    lr_mult: 2
  }
  convolution_param {
    num_output: 64
    pad: 2
    kernel_size: 5
    stride: 1
    weight_filler {
      type: "gaussian"
      std: 0.0001
    }
    bias_filler {
      type: "constant"
    }
  }
}
layer {
  name: "relu1"
  type: "ReLU"
  bottom: "conv1"
  top: "conv1"
}
layer {
  name: "conv2"
  type: "Convolution"
  bottom: "conv1"
  top: "conv2"
  param {
    lr_mult: 1
  }
  param {
    lr_mult: 2
  }
  convolution_param {
    num_output: 64
    pad: 2
    kernel_size: 5
    stride: 1
    weight_filler {
      type: "gaussian"
      std: 0.01
    }
    bias_filler {
      type: "constant"
    }
  }
}
layer {
  name: "relu2"
  type: "ReLU"
  bottom: "conv2"
  top: "conv2"
}
layer {
  name: "pool2"
  type: "Pooling"
  bottom: "conv2"
  top: "pool2"
  pooling_param {
    pool: MAX
    kernel_size: 3
    stride: 2
  }
}
layer {
  name: "conv3"
  type: "Convolution"
  bottom: "pool2"
  top: "conv3"
  param {
    lr_mult: 1
  }
  param {
    lr_mult: 2
  }
  convolution_param {
    num_output: 64
    pad: 2
    kernel_size: 5
    stride: 1
    weight_filler {
      type: "gaussian"
      std: 0.01
    }
    bias_filler {
      type: "constant"
    }
  }
}
layer {
  name: "relu3"
  type: "ReLU"
  bottom: "conv3"
  top: "conv3"
}
layer {
  name: "conv4"
  type: "Convolution"
  bottom: "conv3"
  top: "conv4"
  param {
    lr_mult: 1
  }
  param {
    lr_mult: 2
  }
  convolution_param {
    num_output: 64
    pad: 2
    kernel_size: 5
    stride: 1
    weight_filler {
      type: "gaussian"
      std: 0.01
    }
    bias_filler {
      type: "constant"
    }
  }
}
layer {
  name: "relu4"
  type: "ReLU"
  bottom: "conv4"
  top: "conv4"
}
layer {
  name: "conv5"
  type: "Convolution"
  bottom: "conv4"
  top: "conv5"
  param {
    lr_mult: 1
  }
  param {
    lr_mult: 2
  }
  convolution_param {
    num_output: 64
    pad: 2
    kernel_size: 5
    stride: 1
    weight_filler {
      type: "gaussian"
      std: 0.01
    }
    bias_filler {
      type: "constant"
    }
  }
}
layer {
  name: "relu5"
  type: "ReLU"
  bottom: "conv5"
  top: "conv5"
}
layer {
  name: "pool5"
  type: "Pooling"
  bottom: "conv5"
  top: "pool5"
  pooling_param {
    pool: AVE
    kernel_size: 3
    stride: 2
  }
}
layer {
  name: "ip1"
  type: "InnerProduct"
  bottom: "pool5"
  top: "ip1"
  param {
    lr_mult: 1
  }
  param {
    lr_mult: 2
  }
  inner_product_param {
    num_output: 64
    weight_filler {
      type: "gaussian"
      std: 0.1
    }
    bias_filler {
      type: "constant"
    }
  }
}
layer {
  name: "ip2"
  type: "InnerProduct"
  bottom: "ip1"
  top: "ip2"
  param {
    lr_mult: 1
  }
  param {
    lr_mult: 2
  }
  inner_product_param {
    num_output: 64
    weight_filler {
      type: "gaussian"
      std: 0.1
    }
    bias_filler {
      type: "constant"
    }
  }
}
layer {
  name: "ip3"
  type: "InnerProduct"
  bottom: "ip2"
  top: "ip3"
  param {
    lr_mult: 1
  }
  param {
    lr_mult: 2
  }
  inner_product_param {
    num_output: 50
    weight_filler {
      type: "gaussian"
      std: 0.1
    }
    bias_filler {
      type: "constant"
    }
  }
}
layer {
  name: "accuracy"
  type: "Accuracy"
  bottom: "ip3"
  bottom: "label"
  top: "accuracy"
  include {
    phase: TEST
  }
}
layer {
  name: "loss"
  type: "SoftmaxWithLoss"
  bottom: "ip3"
  bottom: "label"
  top: "loss"
}
I0506 23:47:07.031947 28695 layer_factory.hpp:77] Creating layer intercept
I0506 23:47:07.031956 28695 net.cpp:94] Creating Layer intercept
I0506 23:47:07.031960 28695 net.cpp:409] intercept -> data
I0506 23:47:07.031967 28695 net.cpp:409] intercept -> label
I0506 23:47:07.031973 28695 hdf5_data_layer.cpp:79] Loading list of HDF5 filenames from: /home/purduethu/scratch/radon/d/deng106/CNNStatisticalModel/distributions/input/50_distributions_100_sample_size_test-distributions-path.txt
I0506 23:47:07.031992 28695 hdf5_data_layer.cpp:93] Number of HDF5 files: 1
I0506 23:47:07.074568 28695 net.cpp:144] Setting up intercept
I0506 23:47:07.074604 28695 net.cpp:151] Top shape: 20 1 10 10 (2000)
I0506 23:47:07.074609 28695 net.cpp:151] Top shape: 20 (20)
I0506 23:47:07.074612 28695 net.cpp:159] Memory required for data: 8080
I0506 23:47:07.074618 28695 layer_factory.hpp:77] Creating layer label_intercept_1_split
I0506 23:47:07.074638 28695 net.cpp:94] Creating Layer label_intercept_1_split
I0506 23:47:07.074643 28695 net.cpp:435] label_intercept_1_split <- label
I0506 23:47:07.074650 28695 net.cpp:409] label_intercept_1_split -> label_intercept_1_split_0
I0506 23:47:07.074658 28695 net.cpp:409] label_intercept_1_split -> label_intercept_1_split_1
I0506 23:47:07.074699 28695 net.cpp:144] Setting up label_intercept_1_split
I0506 23:47:07.074707 28695 net.cpp:151] Top shape: 20 (20)
I0506 23:47:07.074710 28695 net.cpp:151] Top shape: 20 (20)
I0506 23:47:07.074713 28695 net.cpp:159] Memory required for data: 8240
I0506 23:47:07.074717 28695 layer_factory.hpp:77] Creating layer conv1
I0506 23:47:07.074728 28695 net.cpp:94] Creating Layer conv1
I0506 23:47:07.074733 28695 net.cpp:435] conv1 <- data
I0506 23:47:07.074736 28695 net.cpp:409] conv1 -> conv1
I0506 23:47:07.075546 28695 net.cpp:144] Setting up conv1
I0506 23:47:07.075559 28695 net.cpp:151] Top shape: 20 64 10 10 (128000)
I0506 23:47:07.075563 28695 net.cpp:159] Memory required for data: 520240
I0506 23:47:07.075573 28695 layer_factory.hpp:77] Creating layer relu1
I0506 23:47:07.075580 28695 net.cpp:94] Creating Layer relu1
I0506 23:47:07.075583 28695 net.cpp:435] relu1 <- conv1
I0506 23:47:07.075588 28695 net.cpp:396] relu1 -> conv1 (in-place)
I0506 23:47:07.075595 28695 net.cpp:144] Setting up relu1
I0506 23:47:07.075599 28695 net.cpp:151] Top shape: 20 64 10 10 (128000)
I0506 23:47:07.075603 28695 net.cpp:159] Memory required for data: 1032240
I0506 23:47:07.075613 28695 layer_factory.hpp:77] Creating layer conv2
I0506 23:47:07.075623 28695 net.cpp:94] Creating Layer conv2
I0506 23:47:07.075626 28695 net.cpp:435] conv2 <- conv1
I0506 23:47:07.075631 28695 net.cpp:409] conv2 -> conv2
I0506 23:47:07.079782 28695 net.cpp:144] Setting up conv2
I0506 23:47:07.079797 28695 net.cpp:151] Top shape: 20 64 10 10 (128000)
I0506 23:47:07.079800 28695 net.cpp:159] Memory required for data: 1544240
I0506 23:47:07.079808 28695 layer_factory.hpp:77] Creating layer relu2
I0506 23:47:07.079814 28695 net.cpp:94] Creating Layer relu2
I0506 23:47:07.079818 28695 net.cpp:435] relu2 <- conv2
I0506 23:47:07.079823 28695 net.cpp:396] relu2 -> conv2 (in-place)
I0506 23:47:07.079829 28695 net.cpp:144] Setting up relu2
I0506 23:47:07.079834 28695 net.cpp:151] Top shape: 20 64 10 10 (128000)
I0506 23:47:07.079838 28695 net.cpp:159] Memory required for data: 2056240
I0506 23:47:07.079840 28695 layer_factory.hpp:77] Creating layer pool2
I0506 23:47:07.079849 28695 net.cpp:94] Creating Layer pool2
I0506 23:47:07.079851 28695 net.cpp:435] pool2 <- conv2
I0506 23:47:07.079856 28695 net.cpp:409] pool2 -> pool2
I0506 23:47:07.079910 28695 net.cpp:144] Setting up pool2
I0506 23:47:07.079917 28695 net.cpp:151] Top shape: 20 64 5 5 (32000)
I0506 23:47:07.079921 28695 net.cpp:159] Memory required for data: 2184240
I0506 23:47:07.079923 28695 layer_factory.hpp:77] Creating layer conv3
I0506 23:47:07.079933 28695 net.cpp:94] Creating Layer conv3
I0506 23:47:07.079936 28695 net.cpp:435] conv3 <- pool2
I0506 23:47:07.079941 28695 net.cpp:409] conv3 -> conv3
I0506 23:47:07.084427 28695 net.cpp:144] Setting up conv3
I0506 23:47:07.084441 28695 net.cpp:151] Top shape: 20 64 5 5 (32000)
I0506 23:47:07.084445 28695 net.cpp:159] Memory required for data: 2312240
I0506 23:47:07.084455 28695 layer_factory.hpp:77] Creating layer relu3
I0506 23:47:07.084462 28695 net.cpp:94] Creating Layer relu3
I0506 23:47:07.084466 28695 net.cpp:435] relu3 <- conv3
I0506 23:47:07.084471 28695 net.cpp:396] relu3 -> conv3 (in-place)
I0506 23:47:07.084478 28695 net.cpp:144] Setting up relu3
I0506 23:47:07.084483 28695 net.cpp:151] Top shape: 20 64 5 5 (32000)
I0506 23:47:07.084486 28695 net.cpp:159] Memory required for data: 2440240
I0506 23:47:07.084491 28695 layer_factory.hpp:77] Creating layer conv4
I0506 23:47:07.084498 28695 net.cpp:94] Creating Layer conv4
I0506 23:47:07.084502 28695 net.cpp:435] conv4 <- conv3
I0506 23:47:07.084507 28695 net.cpp:409] conv4 -> conv4
I0506 23:47:07.088124 28695 net.cpp:144] Setting up conv4
I0506 23:47:07.088138 28695 net.cpp:151] Top shape: 20 64 5 5 (32000)
I0506 23:47:07.088142 28695 net.cpp:159] Memory required for data: 2568240
I0506 23:47:07.088148 28695 layer_factory.hpp:77] Creating layer relu4
I0506 23:47:07.088155 28695 net.cpp:94] Creating Layer relu4
I0506 23:47:07.088160 28695 net.cpp:435] relu4 <- conv4
I0506 23:47:07.088163 28695 net.cpp:396] relu4 -> conv4 (in-place)
I0506 23:47:07.088171 28695 net.cpp:144] Setting up relu4
I0506 23:47:07.088176 28695 net.cpp:151] Top shape: 20 64 5 5 (32000)
I0506 23:47:07.088179 28695 net.cpp:159] Memory required for data: 2696240
I0506 23:47:07.088182 28695 layer_factory.hpp:77] Creating layer conv5
I0506 23:47:07.088191 28695 net.cpp:94] Creating Layer conv5
I0506 23:47:07.088194 28695 net.cpp:435] conv5 <- conv4
I0506 23:47:07.088199 28695 net.cpp:409] conv5 -> conv5
I0506 23:47:07.092283 28695 net.cpp:144] Setting up conv5
I0506 23:47:07.092298 28695 net.cpp:151] Top shape: 20 64 5 5 (32000)
I0506 23:47:07.092300 28695 net.cpp:159] Memory required for data: 2824240
I0506 23:47:07.092309 28695 layer_factory.hpp:77] Creating layer relu5
I0506 23:47:07.092315 28695 net.cpp:94] Creating Layer relu5
I0506 23:47:07.092319 28695 net.cpp:435] relu5 <- conv5
I0506 23:47:07.092324 28695 net.cpp:396] relu5 -> conv5 (in-place)
I0506 23:47:07.092331 28695 net.cpp:144] Setting up relu5
I0506 23:47:07.092336 28695 net.cpp:151] Top shape: 20 64 5 5 (32000)
I0506 23:47:07.092339 28695 net.cpp:159] Memory required for data: 2952240
I0506 23:47:07.092346 28695 layer_factory.hpp:77] Creating layer pool5
I0506 23:47:07.092351 28695 net.cpp:94] Creating Layer pool5
I0506 23:47:07.092355 28695 net.cpp:435] pool5 <- conv5
I0506 23:47:07.092360 28695 net.cpp:409] pool5 -> pool5
I0506 23:47:07.092398 28695 net.cpp:144] Setting up pool5
I0506 23:47:07.092406 28695 net.cpp:151] Top shape: 20 64 2 2 (5120)
I0506 23:47:07.092408 28695 net.cpp:159] Memory required for data: 2972720
I0506 23:47:07.092412 28695 layer_factory.hpp:77] Creating layer ip1
I0506 23:47:07.092420 28695 net.cpp:94] Creating Layer ip1
I0506 23:47:07.092423 28695 net.cpp:435] ip1 <- pool5
I0506 23:47:07.092429 28695 net.cpp:409] ip1 -> ip1
I0506 23:47:07.092972 28695 net.cpp:144] Setting up ip1
I0506 23:47:07.092981 28695 net.cpp:151] Top shape: 20 64 (1280)
I0506 23:47:07.092985 28695 net.cpp:159] Memory required for data: 2977840
I0506 23:47:07.092990 28695 layer_factory.hpp:77] Creating layer ip2
I0506 23:47:07.092998 28695 net.cpp:94] Creating Layer ip2
I0506 23:47:07.093003 28695 net.cpp:435] ip2 <- ip1
I0506 23:47:07.093008 28695 net.cpp:409] ip2 -> ip2
I0506 23:47:07.093235 28695 net.cpp:144] Setting up ip2
I0506 23:47:07.093242 28695 net.cpp:151] Top shape: 20 64 (1280)
I0506 23:47:07.093246 28695 net.cpp:159] Memory required for data: 2982960
I0506 23:47:07.093251 28695 layer_factory.hpp:77] Creating layer ip3
I0506 23:47:07.093260 28695 net.cpp:94] Creating Layer ip3
I0506 23:47:07.093263 28695 net.cpp:435] ip3 <- ip2
I0506 23:47:07.093268 28695 net.cpp:409] ip3 -> ip3
I0506 23:47:07.093471 28695 net.cpp:144] Setting up ip3
I0506 23:47:07.093478 28695 net.cpp:151] Top shape: 20 50 (1000)
I0506 23:47:07.093482 28695 net.cpp:159] Memory required for data: 2986960
I0506 23:47:07.093487 28695 layer_factory.hpp:77] Creating layer ip3_ip3_0_split
I0506 23:47:07.093492 28695 net.cpp:94] Creating Layer ip3_ip3_0_split
I0506 23:47:07.093495 28695 net.cpp:435] ip3_ip3_0_split <- ip3
I0506 23:47:07.093502 28695 net.cpp:409] ip3_ip3_0_split -> ip3_ip3_0_split_0
I0506 23:47:07.093507 28695 net.cpp:409] ip3_ip3_0_split -> ip3_ip3_0_split_1
I0506 23:47:07.093549 28695 net.cpp:144] Setting up ip3_ip3_0_split
I0506 23:47:07.093555 28695 net.cpp:151] Top shape: 20 50 (1000)
I0506 23:47:07.093559 28695 net.cpp:151] Top shape: 20 50 (1000)
I0506 23:47:07.093561 28695 net.cpp:159] Memory required for data: 2994960
I0506 23:47:07.093565 28695 layer_factory.hpp:77] Creating layer accuracy
I0506 23:47:07.093570 28695 net.cpp:94] Creating Layer accuracy
I0506 23:47:07.093575 28695 net.cpp:435] accuracy <- ip3_ip3_0_split_0
I0506 23:47:07.093578 28695 net.cpp:435] accuracy <- label_intercept_1_split_0
I0506 23:47:07.093582 28695 net.cpp:409] accuracy -> accuracy
…
