…
I0501 22:13:35.867262 15171 net.cpp:323] The NetState phase (0) differed from the phase (1) specified by a rule in layer intercept
I0501 22:13:35.867278 15171 net.cpp:323] The NetState phase (0) differed from the phase (1) specified by a rule in layer loss
I0501 22:13:35.867357 15171 net.cpp:52] Initializing net from parameters: 
state {
  phase: TRAIN
}
layer {
  name: "parameters"
  type: "HDF5Data"
  top: "data"
  top: "label"
  include {
    phase: TRAIN
  }
  hdf5_data_param {
    source: "/home/purduethu/scratch/radon/d/deng106/CNNStatisticalModel/distributions/input/50_distributions_900_sample_size_train-parameters-path.txt"
    batch_size: 20
  }
}
layer {
  name: "conv1"
  type: "Convolution"
  bottom: "data"
  top: "conv1"
  param {
    lr_mult: 1
  }
  param {
    lr_mult: 2
  }
  convolution_param {
    num_output: 64
    pad: 2
    kernel_size: 5
    stride: 1
    weight_filler {
      type: "gaussian"
      std: 0.0001
    }
    bias_filler {
      type: "constant"
    }
  }
}
layer {
  name: "relu1"
  type: "ReLU"
  bottom: "conv1"
  top: "conv1"
}
layer {
  name: "conv2"
  type: "Convolution"
  bottom: "conv1"
  top: "conv2"
  param {
    lr_mult: 1
  }
  param {
    lr_mult: 2
  }
  convolution_param {
    num_output: 64
    pad: 2
    kernel_size: 5
    stride: 1
    weight_filler {
      type: "gaussian"
      std: 0.01
    }
    bias_filler {
      type: "constant"
    }
  }
}
layer {
  name: "relu2"
  type: "ReLU"
  bottom: "conv2"
  top: "conv2"
}
layer {
  name: "pool2"
  type: "Pooling"
  bottom: "conv2"
  top: "pool2"
  pooling_param {
    pool: MAX
    kernel_size: 3
    stride: 2
  }
}
layer {
  name: "conv3"
  type: "Convolution"
  bottom: "pool2"
  top: "conv3"
  param {
    lr_mult: 1
  }
  param {
    lr_mult: 2
  }
  convolution_param {
    num_output: 64
    pad: 2
    kernel_size: 5
    stride: 1
    weight_filler {
      type: "gaussian"
      std: 0.01
    }
    bias_filler {
      type: "constant"
    }
  }
}
layer {
  name: "relu3"
  type: "ReLU"
  bottom: "conv3"
  top: "conv3"
}
layer {
  name: "conv4"
  type: "Convolution"
  bottom: "conv3"
  top: "conv4"
  param {
    lr_mult: 1
  }
  param {
    lr_mult: 2
  }
  convolution_param {
    num_output: 64
    pad: 2
    kernel_size: 5
    stride: 1
    weight_filler {
      type: "gaussian"
      std: 0.01
    }
    bias_filler {
      type: "constant"
    }
  }
}
layer {
  name: "relu4"
  type: "ReLU"
  bottom: "conv4"
  top: "conv4"
}
layer {
  name: "conv5"
  type: "Convolution"
  bottom: "conv4"
  top: "conv5"
  param {
    lr_mult: 1
  }
  param {
    lr_mult: 2
  }
  convolution_param {
    num_output: 64
    pad: 2
    kernel_size: 5
    stride: 1
    weight_filler {
      type: "gaussian"
      std: 0.01
    }
    bias_filler {
      type: "constant"
    }
  }
}
layer {
  name: "relu5"
  type: "ReLU"
  bottom: "conv5"
  top: "conv5"
}
layer {
  name: "pool5"
  type: "Pooling"
  bottom: "conv5"
  top: "pool5"
  pooling_param {
    pool: AVE
    kernel_size: 3
    stride: 2
  }
}
layer {
  name: "ip1"
  type: "InnerProduct"
  bottom: "pool5"
  top: "ip1"
  param {
    lr_mult: 1
  }
  param {
    lr_mult: 2
  }
  inner_product_param {
    num_output: 64
    weight_filler {
      type: "gaussian"
      std: 0.1
    }
    bias_filler {
      type: "constant"
    }
  }
}
layer {
  name: "ip2"
  type: "InnerProduct"
  bottom: "ip1"
  top: "ip2"
  param {
    lr_mult: 1
  }
  param {
    lr_mult: 2
  }
  inner_product_param {
    num_output: 64
    weight_filler {
      type: "gaussian"
      std: 0.1
    }
    bias_filler {
      type: "constant"
    }
  }
}
layer {
  name: "ip3"
  type: "InnerProduct"
  bottom: "ip2"
  top: "ip3"
  param {
    lr_mult: 1
  }
  param {
    lr_mult: 2
  }
  inner_product_param {
    num_output: 1
    weight_filler {
      type: "gaussian"
      std: 0.1
    }
    bias_filler {
      type: "constant"
    }
  }
}
layer {
  name: "loss"
  type: "HuberLoss"
  bottom: "ip3"
  bottom: "label"
  top: "loss"
  include {
    phase: TRAIN
  }
}
I0501 22:13:35.867410 15171 layer_factory.hpp:77] Creating layer parameters
I0501 22:13:35.867424 15171 net.cpp:94] Creating Layer parameters
I0501 22:13:35.867427 15171 net.cpp:409] parameters -> data
I0501 22:13:35.867440 15171 net.cpp:409] parameters -> label
I0501 22:13:35.867447 15171 hdf5_data_layer.cpp:79] Loading list of HDF5 filenames from: /home/purduethu/scratch/radon/d/deng106/CNNStatisticalModel/distributions/input/50_distributions_900_sample_size_train-parameters-path.txt
I0501 22:13:35.867462 15171 hdf5_data_layer.cpp:93] Number of HDF5 files: 1
I0501 22:13:35.868005 15171 hdf5.cpp:32] Datatype class: H5T_FLOAT
I0501 22:13:37.297992 15171 net.cpp:144] Setting up parameters
I0501 22:13:37.298024 15171 net.cpp:151] Top shape: 20 1 30 30 (18000)
I0501 22:13:37.298029 15171 net.cpp:151] Top shape: 20 (20)
I0501 22:13:37.298032 15171 net.cpp:159] Memory required for data: 72080
I0501 22:13:37.298038 15171 layer_factory.hpp:77] Creating layer conv1
I0501 22:13:37.298054 15171 net.cpp:94] Creating Layer conv1
I0501 22:13:37.298058 15171 net.cpp:435] conv1 <- data
I0501 22:13:37.298064 15171 net.cpp:409] conv1 -> conv1
I0501 22:13:37.304668 15171 net.cpp:144] Setting up conv1
I0501 22:13:37.304708 15171 net.cpp:151] Top shape: 20 64 30 30 (1152000)
I0501 22:13:37.304718 15171 net.cpp:159] Memory required for data: 4680080
I0501 22:13:37.304743 15171 layer_factory.hpp:77] Creating layer relu1
I0501 22:13:37.304761 15171 net.cpp:94] Creating Layer relu1
I0501 22:13:37.304771 15171 net.cpp:435] relu1 <- conv1
I0501 22:13:37.304783 15171 net.cpp:396] relu1 -> conv1 (in-place)
I0501 22:13:37.304802 15171 net.cpp:144] Setting up relu1
I0501 22:13:37.304814 15171 net.cpp:151] Top shape: 20 64 30 30 (1152000)
I0501 22:13:37.304823 15171 net.cpp:159] Memory required for data: 9288080
I0501 22:13:37.304831 15171 layer_factory.hpp:77] Creating layer conv2
I0501 22:13:37.304852 15171 net.cpp:94] Creating Layer conv2
I0501 22:13:37.304860 15171 net.cpp:435] conv2 <- conv1
I0501 22:13:37.304873 15171 net.cpp:409] conv2 -> conv2
I0501 22:13:37.322296 15171 net.cpp:144] Setting up conv2
I0501 22:13:37.322335 15171 net.cpp:151] Top shape: 20 64 30 30 (1152000)
I0501 22:13:37.322345 15171 net.cpp:159] Memory required for data: 13896080
I0501 22:13:37.322366 15171 layer_factory.hpp:77] Creating layer relu2
I0501 22:13:37.322383 15171 net.cpp:94] Creating Layer relu2
I0501 22:13:37.322392 15171 net.cpp:435] relu2 <- conv2
I0501 22:13:37.322405 15171 net.cpp:396] relu2 -> conv2 (in-place)
I0501 22:13:37.322423 15171 net.cpp:144] Setting up relu2
I0501 22:13:37.322437 15171 net.cpp:151] Top shape: 20 64 30 30 (1152000)
I0501 22:13:37.322444 15171 net.cpp:159] Memory required for data: 18504080
I0501 22:13:37.322453 15171 layer_factory.hpp:77] Creating layer pool2
I0501 22:13:37.322487 15171 net.cpp:94] Creating Layer pool2
I0501 22:13:37.322491 15171 net.cpp:435] pool2 <- conv2
I0501 22:13:37.322495 15171 net.cpp:409] pool2 -> pool2
I0501 22:13:37.322551 15171 net.cpp:144] Setting up pool2
I0501 22:13:37.322559 15171 net.cpp:151] Top shape: 20 64 15 15 (288000)
I0501 22:13:37.322562 15171 net.cpp:159] Memory required for data: 19656080
I0501 22:13:37.322566 15171 layer_factory.hpp:77] Creating layer conv3
I0501 22:13:37.322573 15171 net.cpp:94] Creating Layer conv3
I0501 22:13:37.322576 15171 net.cpp:435] conv3 <- pool2
I0501 22:13:37.322582 15171 net.cpp:409] conv3 -> conv3
I0501 22:13:37.331791 15171 net.cpp:144] Setting up conv3
I0501 22:13:37.331807 15171 net.cpp:151] Top shape: 20 64 15 15 (288000)
I0501 22:13:37.331811 15171 net.cpp:159] Memory required for data: 20808080
I0501 22:13:37.331820 15171 layer_factory.hpp:77] Creating layer relu3
I0501 22:13:37.331825 15171 net.cpp:94] Creating Layer relu3
I0501 22:13:37.331828 15171 net.cpp:435] relu3 <- conv3
I0501 22:13:37.331833 15171 net.cpp:396] relu3 -> conv3 (in-place)
I0501 22:13:37.331840 15171 net.cpp:144] Setting up relu3
I0501 22:13:37.331845 15171 net.cpp:151] Top shape: 20 64 15 15 (288000)
I0501 22:13:37.331847 15171 net.cpp:159] Memory required for data: 21960080
I0501 22:13:37.331851 15171 layer_factory.hpp:77] Creating layer conv4
I0501 22:13:37.331858 15171 net.cpp:94] Creating Layer conv4
I0501 22:13:37.331862 15171 net.cpp:435] conv4 <- conv3
I0501 22:13:37.331866 15171 net.cpp:409] conv4 -> conv4
I0501 22:13:37.340044 15171 net.cpp:144] Setting up conv4
I0501 22:13:37.340059 15171 net.cpp:151] Top shape: 20 64 15 15 (288000)
I0501 22:13:37.340064 15171 net.cpp:159] Memory required for data: 23112080
I0501 22:13:37.340070 15171 layer_factory.hpp:77] Creating layer relu4
I0501 22:13:37.340075 15171 net.cpp:94] Creating Layer relu4
I0501 22:13:37.340080 15171 net.cpp:435] relu4 <- conv4
I0501 22:13:37.340083 15171 net.cpp:396] relu4 -> conv4 (in-place)
I0501 22:13:37.340090 15171 net.cpp:144] Setting up relu4
I0501 22:13:37.340095 15171 net.cpp:151] Top shape: 20 64 15 15 (288000)
I0501 22:13:37.340097 15171 net.cpp:159] Memory required for data: 24264080
I0501 22:13:37.340101 15171 layer_factory.hpp:77] Creating layer conv5
I0501 22:13:37.340108 15171 net.cpp:94] Creating Layer conv5
I0501 22:13:37.340112 15171 net.cpp:435] conv5 <- conv4
I0501 22:13:37.340116 15171 net.cpp:409] conv5 -> conv5
I0501 22:13:37.348124 15171 net.cpp:144] Setting up conv5
I0501 22:13:37.348140 15171 net.cpp:151] Top shape: 20 64 15 15 (288000)
I0501 22:13:37.348143 15171 net.cpp:159] Memory required for data: 25416080
I0501 22:13:37.348152 15171 layer_factory.hpp:77] Creating layer relu5
I0501 22:13:37.348158 15171 net.cpp:94] Creating Layer relu5
I0501 22:13:37.348161 15171 net.cpp:435] relu5 <- conv5
I0501 22:13:37.348165 15171 net.cpp:396] relu5 -> conv5 (in-place)
I0501 22:13:37.348172 15171 net.cpp:144] Setting up relu5
I0501 22:13:37.348177 15171 net.cpp:151] Top shape: 20 64 15 15 (288000)
I0501 22:13:37.348181 15171 net.cpp:159] Memory required for data: 26568080
I0501 22:13:37.348183 15171 layer_factory.hpp:77] Creating layer pool5
I0501 22:13:37.348187 15171 net.cpp:94] Creating Layer pool5
I0501 22:13:37.348191 15171 net.cpp:435] pool5 <- conv5
I0501 22:13:37.348194 15171 net.cpp:409] pool5 -> pool5
I0501 22:13:37.348237 15171 net.cpp:144] Setting up pool5
I0501 22:13:37.348243 15171 net.cpp:151] Top shape: 20 64 7 7 (62720)
I0501 22:13:37.348247 15171 net.cpp:159] Memory required for data: 26818960
I0501 22:13:37.348249 15171 layer_factory.hpp:77] Creating layer ip1
I0501 22:13:37.348259 15171 net.cpp:94] Creating Layer ip1
I0501 22:13:37.348263 15171 net.cpp:435] ip1 <- pool5
I0501 22:13:37.348268 15171 net.cpp:409] ip1 -> ip1
I0501 22:13:37.354081 15171 net.cpp:144] Setting up ip1
I0501 22:13:37.354094 15171 net.cpp:151] Top shape: 20 64 (1280)
I0501 22:13:37.354099 15171 net.cpp:159] Memory required for data: 26824080
I0501 22:13:37.354104 15171 layer_factory.hpp:77] Creating layer ip2
I0501 22:13:37.354111 15171 net.cpp:94] Creating Layer ip2
I0501 22:13:37.354118 15171 net.cpp:435] ip2 <- ip1
I0501 22:13:37.354125 15171 net.cpp:409] ip2 -> ip2
I0501 22:13:37.354342 15171 net.cpp:144] Setting up ip2
I0501 22:13:37.354349 15171 net.cpp:151] Top shape: 20 64 (1280)
I0501 22:13:37.354352 15171 net.cpp:159] Memory required for data: 26829200
I0501 22:13:37.354358 15171 layer_factory.hpp:77] Creating layer ip3
I0501 22:13:37.354363 15171 net.cpp:94] Creating Layer ip3
I0501 22:13:37.354367 15171 net.cpp:435] ip3 <- ip2
I0501 22:13:37.354372 15171 net.cpp:409] ip3 -> ip3
I0501 22:13:37.354480 15171 net.cpp:144] Setting up ip3
I0501 22:13:37.354485 15171 net.cpp:151] Top shape: 20 1 (20)
I0501 22:13:37.354488 15171 net.cpp:159] Memory required for data: 26829280
I0501 22:13:37.354493 15171 layer_factory.hpp:77] Creating layer loss
I0501 22:13:37.354504 15171 net.cpp:94] Creating Layer loss
I0501 22:13:37.354507 15171 net.cpp:435] loss <- ip3
I0501 22:13:37.354511 15171 net.cpp:435] loss <- label
I0501 22:13:37.354516 15171 net.cpp:409] loss -> loss
I0501 22:13:37.354568 15171 net.cpp:144] Setting up loss
…
I0501 22:13:37.745316 15171 net.cpp:323] The NetState phase (0) differed from the phase (1) specified by a rule in layer intercept
I0501 22:13:37.745332 15171 net.cpp:323] The NetState phase (0) differed from the phase (1) specified by a rule in layer accuracy
I0501 22:13:37.745419 15171 net.cpp:52] Initializing net from parameters: 
state {
  phase: TRAIN
}
layer {
  name: "parameters"
  type: "HDF5Data"
  top: "data"
  top: "label"
  include {
    phase: TRAIN
  }
  hdf5_data_param {
    source: "/home/purduethu/scratch/radon/d/deng106/CNNStatisticalModel/distributions/input/50_distributions_900_sample_size_train-distributions-path.txt"
    batch_size: 20
  }
}
layer {
  name: "conv1"
  type: "Convolution"
  bottom: "data"
  top: "conv1"
  param {
    lr_mult: 1
  }
  param {
    lr_mult: 2
  }
  convolution_param {
    num_output: 64
    pad: 2
    kernel_size: 5
    stride: 1
    weight_filler {
      type: "gaussian"
      std: 0.0001
    }
    bias_filler {
      type: "constant"
    }
  }
}
layer {
  name: "relu1"
  type: "ReLU"
  bottom: "conv1"
  top: "conv1"
}
layer {
  name: "conv2"
  type: "Convolution"
  bottom: "conv1"
  top: "conv2"
  param {
    lr_mult: 1
  }
  param {
    lr_mult: 2
  }
  convolution_param {
    num_output: 64
    pad: 2
    kernel_size: 5
    stride: 1
    weight_filler {
      type: "gaussian"
      std: 0.01
    }
    bias_filler {
      type: "constant"
    }
  }
}
layer {
  name: "relu2"
  type: "ReLU"
  bottom: "conv2"
  top: "conv2"
}
layer {
  name: "pool2"
  type: "Pooling"
  bottom: "conv2"
  top: "pool2"
  pooling_param {
    pool: MAX
    kernel_size: 3
    stride: 2
  }
}
layer {
  name: "conv3"
  type: "Convolution"
  bottom: "pool2"
  top: "conv3"
  param {
    lr_mult: 1
  }
  param {
    lr_mult: 2
  }
  convolution_param {
    num_output: 64
    pad: 2
    kernel_size: 5
    stride: 1
    weight_filler {
      type: "gaussian"
      std: 0.01
    }
    bias_filler {
      type: "constant"
    }
  }
}
layer {
  name: "relu3"
  type: "ReLU"
  bottom: "conv3"
  top: "conv3"
}
layer {
  name: "conv4"
  type: "Convolution"
  bottom: "conv3"
  top: "conv4"
  param {
    lr_mult: 1
  }
  param {
    lr_mult: 2
  }
  convolution_param {
    num_output: 64
    pad: 2
    kernel_size: 5
    stride: 1
    weight_filler {
      type: "gaussian"
      std: 0.01
    }
    bias_filler {
      type: "constant"
    }
  }
}
layer {
  name: "relu4"
  type: "ReLU"
  bottom: "conv4"
  top: "conv4"
}
layer {
  name: "conv5"
  type: "Convolution"
  bottom: "conv4"
  top: "conv5"
  param {
    lr_mult: 1
  }
  param {
    lr_mult: 2
  }
  convolution_param {
    num_output: 64
    pad: 2
    kernel_size: 5
    stride: 1
    weight_filler {
      type: "gaussian"
      std: 0.01
    }
    bias_filler {
      type: "constant"
    }
  }
}
layer {
  name: "relu5"
  type: "ReLU"
  bottom: "conv5"
  top: "conv5"
}
layer {
  name: "pool5"
  type: "Pooling"
  bottom: "conv5"
  top: "pool5"
  pooling_param {
    pool: AVE
    kernel_size: 3
    stride: 2
  }
}
layer {
  name: "ip1"
  type: "InnerProduct"
  bottom: "pool5"
  top: "ip1"
  param {
    lr_mult: 1
  }
  param {
    lr_mult: 2
  }
  inner_product_param {
    num_output: 64
    weight_filler {
      type: "gaussian"
      std: 0.1
    }
    bias_filler {
      type: "constant"
    }
  }
}
layer {
  name: "ip2"
  type: "InnerProduct"
  bottom: "ip1"
  top: "ip2"
  param {
    lr_mult: 1
  }
  param {
    lr_mult: 2
  }
  inner_product_param {
    num_output: 64
    weight_filler {
      type: "gaussian"
      std: 0.1
    }
    bias_filler {
      type: "constant"
    }
  }
}
layer {
  name: "ip3"
  type: "InnerProduct"
  bottom: "ip2"
  top: "ip3"
  param {
    lr_mult: 1
  }
  param {
    lr_mult: 2
  }
  inner_product_param {
    num_output: 50
    weight_filler {
      type: "gaussian"
      std: 0.1
    }
    bias_filler {
      type: "constant"
    }
  }
}
layer {
  name: "loss"
  type: "SoftmaxWithLoss"
  bottom: "ip3"
  bottom: "label"
  top: "loss"
}
I0501 22:13:37.745470 15171 layer_factory.hpp:77] Creating layer parameters
I0501 22:13:37.745477 15171 net.cpp:94] Creating Layer parameters
I0501 22:13:37.745481 15171 net.cpp:409] parameters -> data
I0501 22:13:37.745487 15171 net.cpp:409] parameters -> label
I0501 22:13:37.745492 15171 hdf5_data_layer.cpp:79] Loading list of HDF5 filenames from: /home/purduethu/scratch/radon/d/deng106/CNNStatisticalModel/distributions/input/50_distributions_900_sample_size_train-distributions-path.txt
I0501 22:13:37.745508 15171 hdf5_data_layer.cpp:93] Number of HDF5 files: 1
I0501 22:13:39.234557 15171 hdf5.cpp:35] Datatype class: H5T_INTEGER
I0501 22:13:39.237627 15171 net.cpp:144] Setting up parameters
I0501 22:13:39.237649 15171 net.cpp:151] Top shape: 20 1 30 30 (18000)
I0501 22:13:39.237654 15171 net.cpp:151] Top shape: 20 (20)
I0501 22:13:39.237658 15171 net.cpp:159] Memory required for data: 72080
I0501 22:13:39.237663 15171 layer_factory.hpp:77] Creating layer conv1
I0501 22:13:39.237679 15171 net.cpp:94] Creating Layer conv1
I0501 22:13:39.237684 15171 net.cpp:435] conv1 <- data
I0501 22:13:39.237689 15171 net.cpp:409] conv1 -> conv1
I0501 22:13:39.241194 15171 net.cpp:144] Setting up conv1
I0501 22:13:39.241209 15171 net.cpp:151] Top shape: 20 64 30 30 (1152000)
I0501 22:13:39.241212 15171 net.cpp:159] Memory required for data: 4680080
I0501 22:13:39.241222 15171 layer_factory.hpp:77] Creating layer relu1
I0501 22:13:39.241230 15171 net.cpp:94] Creating Layer relu1
I0501 22:13:39.241233 15171 net.cpp:435] relu1 <- conv1
I0501 22:13:39.241237 15171 net.cpp:396] relu1 -> conv1 (in-place)
I0501 22:13:39.241245 15171 net.cpp:144] Setting up relu1
I0501 22:13:39.241248 15171 net.cpp:151] Top shape: 20 64 30 30 (1152000)
I0501 22:13:39.241251 15171 net.cpp:159] Memory required for data: 9288080
I0501 22:13:39.241255 15171 layer_factory.hpp:77] Creating layer conv2
I0501 22:13:39.241261 15171 net.cpp:94] Creating Layer conv2
I0501 22:13:39.241264 15171 net.cpp:435] conv2 <- conv1
I0501 22:13:39.241269 15171 net.cpp:409] conv2 -> conv2
I0501 22:13:39.257572 15171 net.cpp:144] Setting up conv2
I0501 22:13:39.257587 15171 net.cpp:151] Top shape: 20 64 30 30 (1152000)
I0501 22:13:39.257591 15171 net.cpp:159] Memory required for data: 13896080
I0501 22:13:39.257599 15171 layer_factory.hpp:77] Creating layer relu2
I0501 22:13:39.257606 15171 net.cpp:94] Creating Layer relu2
I0501 22:13:39.257608 15171 net.cpp:435] relu2 <- conv2
I0501 22:13:39.257613 15171 net.cpp:396] relu2 -> conv2 (in-place)
I0501 22:13:39.257619 15171 net.cpp:144] Setting up relu2
I0501 22:13:39.257624 15171 net.cpp:151] Top shape: 20 64 30 30 (1152000)
I0501 22:13:39.257627 15171 net.cpp:159] Memory required for data: 18504080
I0501 22:13:39.257629 15171 layer_factory.hpp:77] Creating layer pool2
I0501 22:13:39.257635 15171 net.cpp:94] Creating Layer pool2
I0501 22:13:39.257638 15171 net.cpp:435] pool2 <- conv2
I0501 22:13:39.257642 15171 net.cpp:409] pool2 -> pool2
I0501 22:13:39.257699 15171 net.cpp:144] Setting up pool2
I0501 22:13:39.257705 15171 net.cpp:151] Top shape: 20 64 15 15 (288000)
I0501 22:13:39.257709 15171 net.cpp:159] Memory required for data: 19656080
I0501 22:13:39.257711 15171 layer_factory.hpp:77] Creating layer conv3
I0501 22:13:39.257719 15171 net.cpp:94] Creating Layer conv3
I0501 22:13:39.257722 15171 net.cpp:435] conv3 <- pool2
I0501 22:13:39.257732 15171 net.cpp:409] conv3 -> conv3
I0501 22:13:39.266752 15171 net.cpp:144] Setting up conv3
I0501 22:13:39.266767 15171 net.cpp:151] Top shape: 20 64 15 15 (288000)
I0501 22:13:39.266770 15171 net.cpp:159] Memory required for data: 20808080
I0501 22:13:39.266778 15171 layer_factory.hpp:77] Creating layer relu3
I0501 22:13:39.266783 15171 net.cpp:94] Creating Layer relu3
I0501 22:13:39.266788 15171 net.cpp:435] relu3 <- conv3
I0501 22:13:39.266791 15171 net.cpp:396] relu3 -> conv3 (in-place)
I0501 22:13:39.266798 15171 net.cpp:144] Setting up relu3
I0501 22:13:39.266803 15171 net.cpp:151] Top shape: 20 64 15 15 (288000)
I0501 22:13:39.266805 15171 net.cpp:159] Memory required for data: 21960080
I0501 22:13:39.266808 15171 layer_factory.hpp:77] Creating layer conv4
I0501 22:13:39.266816 15171 net.cpp:94] Creating Layer conv4
I0501 22:13:39.266819 15171 net.cpp:435] conv4 <- conv3
I0501 22:13:39.266824 15171 net.cpp:409] conv4 -> conv4
I0501 22:13:39.275599 15171 net.cpp:144] Setting up conv4
I0501 22:13:39.275614 15171 net.cpp:151] Top shape: 20 64 15 15 (288000)
I0501 22:13:39.275617 15171 net.cpp:159] Memory required for data: 23112080
I0501 22:13:39.275624 15171 layer_factory.hpp:77] Creating layer relu4
I0501 22:13:39.275629 15171 net.cpp:94] Creating Layer relu4
I0501 22:13:39.275632 15171 net.cpp:435] relu4 <- conv4
I0501 22:13:39.275637 15171 net.cpp:396] relu4 -> conv4 (in-place)
I0501 22:13:39.275643 15171 net.cpp:144] Setting up relu4
I0501 22:13:39.275647 15171 net.cpp:151] Top shape: 20 64 15 15 (288000)
I0501 22:13:39.275650 15171 net.cpp:159] Memory required for data: 24264080
I0501 22:13:39.275653 15171 layer_factory.hpp:77] Creating layer conv5
I0501 22:13:39.275661 15171 net.cpp:94] Creating Layer conv5
I0501 22:13:39.275665 15171 net.cpp:435] conv5 <- conv4
I0501 22:13:39.275668 15171 net.cpp:409] conv5 -> conv5
I0501 22:13:39.283783 15171 net.cpp:144] Setting up conv5
I0501 22:13:39.283821 15171 net.cpp:151] Top shape: 20 64 15 15 (288000)
I0501 22:13:39.283838 15171 net.cpp:159] Memory required for data: 25416080
I0501 22:13:39.283846 15171 layer_factory.hpp:77] Creating layer relu5
I0501 22:13:39.283852 15171 net.cpp:94] Creating Layer relu5
I0501 22:13:39.283855 15171 net.cpp:435] relu5 <- conv5
I0501 22:13:39.283860 15171 net.cpp:396] relu5 -> conv5 (in-place)
I0501 22:13:39.283866 15171 net.cpp:144] Setting up relu5
I0501 22:13:39.283871 15171 net.cpp:151] Top shape: 20 64 15 15 (288000)
I0501 22:13:39.283874 15171 net.cpp:159] Memory required for data: 26568080
I0501 22:13:39.283877 15171 layer_factory.hpp:77] Creating layer pool5
I0501 22:13:39.283881 15171 net.cpp:94] Creating Layer pool5
I0501 22:13:39.283885 15171 net.cpp:435] pool5 <- conv5
I0501 22:13:39.283888 15171 net.cpp:409] pool5 -> pool5
I0501 22:13:39.283928 15171 net.cpp:144] Setting up pool5
I0501 22:13:39.283936 15171 net.cpp:151] Top shape: 20 64 7 7 (62720)
I0501 22:13:39.283938 15171 net.cpp:159] Memory required for data: 26818960
I0501 22:13:39.283941 15171 layer_factory.hpp:77] Creating layer ip1
I0501 22:13:39.283948 15171 net.cpp:94] Creating Layer ip1
I0501 22:13:39.283951 15171 net.cpp:435] ip1 <- pool5
I0501 22:13:39.283956 15171 net.cpp:409] ip1 -> ip1
I0501 22:13:39.288861 15171 net.cpp:144] Setting up ip1
I0501 22:13:39.288877 15171 net.cpp:151] Top shape: 20 64 (1280)
I0501 22:13:39.288880 15171 net.cpp:159] Memory required for data: 26824080
I0501 22:13:39.288885 15171 layer_factory.hpp:77] Creating layer ip2
I0501 22:13:39.288892 15171 net.cpp:94] Creating Layer ip2
I0501 22:13:39.288894 15171 net.cpp:435] ip2 <- ip1
I0501 22:13:39.288899 15171 net.cpp:409] ip2 -> ip2
I0501 22:13:39.289129 15171 net.cpp:144] Setting up ip2
I0501 22:13:39.289136 15171 net.cpp:151] Top shape: 20 64 (1280)
I0501 22:13:39.289139 15171 net.cpp:159] Memory required for data: 26829200
I0501 22:13:39.289144 15171 layer_factory.hpp:77] Creating layer ip3
I0501 22:13:39.289150 15171 net.cpp:94] Creating Layer ip3
I0501 22:13:39.289153 15171 net.cpp:435] ip3 <- ip2
I0501 22:13:39.289157 15171 net.cpp:409] ip3 -> ip3
I0501 22:13:39.289366 15171 net.cpp:144] Setting up ip3
I0501 22:13:39.289374 15171 net.cpp:151] Top shape: 20 50 (1000)
I0501 22:13:39.289377 15171 net.cpp:159] Memory required for data: 26833200
I0501 22:13:39.289382 15171 layer_factory.hpp:77] Creating layer loss
I0501 22:13:39.289388 15171 net.cpp:94] Creating Layer loss
I0501 22:13:39.289391 15171 net.cpp:435] loss <- ip3
I0501 22:13:39.289396 15171 net.cpp:435] loss <- label
I0501 22:13:39.289399 15171 net.cpp:409] loss -> loss
I0501 22:13:39.289407 15171 layer_factory.hpp:77] Creating layer loss
…
I0501 22:13:39.289923 15171 solver.cpp:181] Creating test net (#0) specified by net file: ./protocol/dis_50_900_dimension.protocol_distribution
I0501 22:13:39.289949 15171 net.cpp:323] The NetState phase (1) differed from the phase (0) specified by a rule in layer parameters
I0501 22:13:39.290045 15171 net.cpp:52] Initializing net from parameters: 
state {
  phase: TEST
}
layer {
  name: "intercept"
  type: "HDF5Data"
  top: "data"
  top: "label"
  include {
    phase: TEST
  }
  hdf5_data_param {
    source: "/home/purduethu/scratch/radon/d/deng106/CNNStatisticalModel/distributions/input/50_distributions_900_sample_size_test-distributions-path.txt"
    batch_size: 20
  }
}
layer {
  name: "conv1"
  type: "Convolution"
  bottom: "data"
  top: "conv1"
  param {
    lr_mult: 1
  }
  param {
    lr_mult: 2
  }
  convolution_param {
    num_output: 64
    pad: 2
    kernel_size: 5
    stride: 1
    weight_filler {
      type: "gaussian"
      std: 0.0001
    }
    bias_filler {
      type: "constant"
    }
  }
}
layer {
  name: "relu1"
  type: "ReLU"
  bottom: "conv1"
  top: "conv1"
}
layer {
  name: "conv2"
  type: "Convolution"
  bottom: "conv1"
  top: "conv2"
  param {
    lr_mult: 1
  }
  param {
    lr_mult: 2
  }
  convolution_param {
    num_output: 64
    pad: 2
    kernel_size: 5
    stride: 1
    weight_filler {
      type: "gaussian"
      std: 0.01
    }
    bias_filler {
      type: "constant"
    }
  }
}
layer {
  name: "relu2"
  type: "ReLU"
  bottom: "conv2"
  top: "conv2"
}
layer {
  name: "pool2"
  type: "Pooling"
  bottom: "conv2"
  top: "pool2"
  pooling_param {
    pool: MAX
    kernel_size: 3
    stride: 2
  }
}
layer {
  name: "conv3"
  type: "Convolution"
  bottom: "pool2"
  top: "conv3"
  param {
    lr_mult: 1
  }
  param {
    lr_mult: 2
  }
  convolution_param {
    num_output: 64
    pad: 2
    kernel_size: 5
    stride: 1
    weight_filler {
      type: "gaussian"
      std: 0.01
    }
    bias_filler {
      type: "constant"
    }
  }
}
layer {
  name: "relu3"
  type: "ReLU"
  bottom: "conv3"
  top: "conv3"
}
layer {
  name: "conv4"
  type: "Convolution"
  bottom: "conv3"
  top: "conv4"
  param {
    lr_mult: 1
  }
  param {
    lr_mult: 2
  }
  convolution_param {
    num_output: 64
    pad: 2
    kernel_size: 5
    stride: 1
    weight_filler {
      type: "gaussian"
      std: 0.01
    }
    bias_filler {
      type: "constant"
    }
  }
}
layer {
  name: "relu4"
  type: "ReLU"
  bottom: "conv4"
  top: "conv4"
}
layer {
  name: "conv5"
  type: "Convolution"
  bottom: "conv4"
  top: "conv5"
  param {
    lr_mult: 1
  }
  param {
    lr_mult: 2
  }
  convolution_param {
    num_output: 64
    pad: 2
    kernel_size: 5
    stride: 1
    weight_filler {
      type: "gaussian"
      std: 0.01
    }
    bias_filler {
      type: "constant"
    }
  }
}
layer {
  name: "relu5"
  type: "ReLU"
  bottom: "conv5"
  top: "conv5"
}
layer {
  name: "pool5"
  type: "Pooling"
  bottom: "conv5"
  top: "pool5"
  pooling_param {
    pool: AVE
    kernel_size: 3
    stride: 2
  }
}
layer {
  name: "ip1"
  type: "InnerProduct"
  bottom: "pool5"
  top: "ip1"
  param {
    lr_mult: 1
  }
  param {
    lr_mult: 2
  }
  inner_product_param {
    num_output: 64
    weight_filler {
      type: "gaussian"
      std: 0.1
    }
    bias_filler {
      type: "constant"
    }
  }
}
layer {
  name: "ip2"
  type: "InnerProduct"
  bottom: "ip1"
  top: "ip2"
  param {
    lr_mult: 1
  }
  param {
    lr_mult: 2
  }
  inner_product_param {
    num_output: 64
    weight_filler {
      type: "gaussian"
      std: 0.1
    }
    bias_filler {
      type: "constant"
    }
  }
}
layer {
  name: "ip3"
  type: "InnerProduct"
  bottom: "ip2"
  top: "ip3"
  param {
    lr_mult: 1
  }
  param {
    lr_mult: 2
  }
  inner_product_param {
    num_output: 50
    weight_filler {
      type: "gaussian"
      std: 0.1
    }
    bias_filler {
      type: "constant"
    }
  }
}
layer {
  name: "accuracy"
  type: "Accuracy"
  bottom: "ip3"
  bottom: "label"
  top: "accuracy"
  include {
    phase: TEST
  }
}
layer {
  name: "loss"
  type: "SoftmaxWithLoss"
  bottom: "ip3"
  bottom: "label"
  top: "loss"
}
I0501 22:13:39.290112 15171 layer_factory.hpp:77] Creating layer intercept
I0501 22:13:39.290119 15171 net.cpp:94] Creating Layer intercept
I0501 22:13:39.290123 15171 net.cpp:409] intercept -> data
I0501 22:13:39.290130 15171 net.cpp:409] intercept -> label
I0501 22:13:39.290135 15171 hdf5_data_layer.cpp:79] Loading list of HDF5 filenames from: /home/purduethu/scratch/radon/d/deng106/CNNStatisticalModel/distributions/input/50_distributions_900_sample_size_test-distributions-path.txt
I0501 22:13:39.290154 15171 hdf5_data_layer.cpp:93] Number of HDF5 files: 1
I0501 22:13:39.656064 15171 net.cpp:144] Setting up intercept
I0501 22:13:39.656100 15171 net.cpp:151] Top shape: 20 1 30 30 (18000)
I0501 22:13:39.656105 15171 net.cpp:151] Top shape: 20 (20)
I0501 22:13:39.656107 15171 net.cpp:159] Memory required for data: 72080
I0501 22:13:39.656112 15171 layer_factory.hpp:77] Creating layer label_intercept_1_split
I0501 22:13:39.656132 15171 net.cpp:94] Creating Layer label_intercept_1_split
I0501 22:13:39.656136 15171 net.cpp:435] label_intercept_1_split <- label
I0501 22:13:39.656142 15171 net.cpp:409] label_intercept_1_split -> label_intercept_1_split_0
I0501 22:13:39.656150 15171 net.cpp:409] label_intercept_1_split -> label_intercept_1_split_1
I0501 22:13:39.656193 15171 net.cpp:144] Setting up label_intercept_1_split
I0501 22:13:39.656199 15171 net.cpp:151] Top shape: 20 (20)
I0501 22:13:39.656203 15171 net.cpp:151] Top shape: 20 (20)
I0501 22:13:39.656206 15171 net.cpp:159] Memory required for data: 72240
I0501 22:13:39.656209 15171 layer_factory.hpp:77] Creating layer conv1
I0501 22:13:39.656219 15171 net.cpp:94] Creating Layer conv1
I0501 22:13:39.656224 15171 net.cpp:435] conv1 <- data
I0501 22:13:39.656227 15171 net.cpp:409] conv1 -> conv1
I0501 22:13:39.657786 15171 net.cpp:144] Setting up conv1
I0501 22:13:39.657799 15171 net.cpp:151] Top shape: 20 64 30 30 (1152000)
I0501 22:13:39.657804 15171 net.cpp:159] Memory required for data: 4680240
I0501 22:13:39.657812 15171 layer_factory.hpp:77] Creating layer relu1
I0501 22:13:39.657819 15171 net.cpp:94] Creating Layer relu1
I0501 22:13:39.657822 15171 net.cpp:435] relu1 <- conv1
I0501 22:13:39.657826 15171 net.cpp:396] relu1 -> conv1 (in-place)
I0501 22:13:39.657835 15171 net.cpp:144] Setting up relu1
I0501 22:13:39.657838 15171 net.cpp:151] Top shape: 20 64 30 30 (1152000)
I0501 22:13:39.657840 15171 net.cpp:159] Memory required for data: 9288240
I0501 22:13:39.657843 15171 layer_factory.hpp:77] Creating layer conv2
I0501 22:13:39.657851 15171 net.cpp:94] Creating Layer conv2
I0501 22:13:39.657855 15171 net.cpp:435] conv2 <- conv1
I0501 22:13:39.657858 15171 net.cpp:409] conv2 -> conv2
I0501 22:13:39.665583 15171 net.cpp:144] Setting up conv2
I0501 22:13:39.665598 15171 net.cpp:151] Top shape: 20 64 30 30 (1152000)
I0501 22:13:39.665601 15171 net.cpp:159] Memory required for data: 13896240
I0501 22:13:39.665611 15171 layer_factory.hpp:77] Creating layer relu2
I0501 22:13:39.665617 15171 net.cpp:94] Creating Layer relu2
I0501 22:13:39.665621 15171 net.cpp:435] relu2 <- conv2
I0501 22:13:39.665626 15171 net.cpp:396] relu2 -> conv2 (in-place)
I0501 22:13:39.665632 15171 net.cpp:144] Setting up relu2
I0501 22:13:39.665637 15171 net.cpp:151] Top shape: 20 64 30 30 (1152000)
I0501 22:13:39.665639 15171 net.cpp:159] Memory required for data: 18504240
I0501 22:13:39.665642 15171 layer_factory.hpp:77] Creating layer pool2
I0501 22:13:39.665648 15171 net.cpp:94] Creating Layer pool2
I0501 22:13:39.665650 15171 net.cpp:435] pool2 <- conv2
I0501 22:13:39.665654 15171 net.cpp:409] pool2 -> pool2
I0501 22:13:39.665715 15171 net.cpp:144] Setting up pool2
I0501 22:13:39.665721 15171 net.cpp:151] Top shape: 20 64 15 15 (288000)
I0501 22:13:39.665724 15171 net.cpp:159] Memory required for data: 19656240
I0501 22:13:39.665727 15171 layer_factory.hpp:77] Creating layer conv3
I0501 22:13:39.665736 15171 net.cpp:94] Creating Layer conv3
I0501 22:13:39.665740 15171 net.cpp:435] conv3 <- pool2
I0501 22:13:39.665745 15171 net.cpp:409] conv3 -> conv3
I0501 22:13:39.670939 15171 net.cpp:144] Setting up conv3
I0501 22:13:39.670953 15171 net.cpp:151] Top shape: 20 64 15 15 (288000)
I0501 22:13:39.670956 15171 net.cpp:159] Memory required for data: 20808240
I0501 22:13:39.670964 15171 layer_factory.hpp:77] Creating layer relu3
I0501 22:13:39.670971 15171 net.cpp:94] Creating Layer relu3
I0501 22:13:39.670974 15171 net.cpp:435] relu3 <- conv3
I0501 22:13:39.670979 15171 net.cpp:396] relu3 -> conv3 (in-place)
I0501 22:13:39.670985 15171 net.cpp:144] Setting up relu3
I0501 22:13:39.670989 15171 net.cpp:151] Top shape: 20 64 15 15 (288000)
I0501 22:13:39.670992 15171 net.cpp:159] Memory required for data: 21960240
I0501 22:13:39.670995 15171 layer_factory.hpp:77] Creating layer conv4
I0501 22:13:39.671006 15171 net.cpp:94] Creating Layer conv4
I0501 22:13:39.671010 15171 net.cpp:435] conv4 <- conv3
I0501 22:13:39.671015 15171 net.cpp:409] conv4 -> conv4
I0501 22:13:39.675747 15171 net.cpp:144] Setting up conv4
I0501 22:13:39.675761 15171 net.cpp:151] Top shape: 20 64 15 15 (288000)
I0501 22:13:39.675765 15171 net.cpp:159] Memory required for data: 23112240
I0501 22:13:39.675771 15171 layer_factory.hpp:77] Creating layer relu4
I0501 22:13:39.675778 15171 net.cpp:94] Creating Layer relu4
I0501 22:13:39.675782 15171 net.cpp:435] relu4 <- conv4
I0501 22:13:39.675786 15171 net.cpp:396] relu4 -> conv4 (in-place)
I0501 22:13:39.675793 15171 net.cpp:144] Setting up relu4
I0501 22:13:39.675798 15171 net.cpp:151] Top shape: 20 64 15 15 (288000)
I0501 22:13:39.675801 15171 net.cpp:159] Memory required for data: 24264240
I0501 22:13:39.675804 15171 layer_factory.hpp:77] Creating layer conv5
I0501 22:13:39.675812 15171 net.cpp:94] Creating Layer conv5
I0501 22:13:39.675814 15171 net.cpp:435] conv5 <- conv4
I0501 22:13:39.675820 15171 net.cpp:409] conv5 -> conv5
I0501 22:13:39.680546 15171 net.cpp:144] Setting up conv5
I0501 22:13:39.680568 15171 net.cpp:151] Top shape: 20 64 15 15 (288000)
I0501 22:13:39.680572 15171 net.cpp:159] Memory required for data: 25416240
I0501 22:13:39.680580 15171 layer_factory.hpp:77] Creating layer relu5
I0501 22:13:39.680586 15171 net.cpp:94] Creating Layer relu5
I0501 22:13:39.680589 15171 net.cpp:435] relu5 <- conv5
I0501 22:13:39.680593 15171 net.cpp:396] relu5 -> conv5 (in-place)
I0501 22:13:39.680600 15171 net.cpp:144] Setting up relu5
I0501 22:13:39.680604 15171 net.cpp:151] Top shape: 20 64 15 15 (288000)
I0501 22:13:39.680608 15171 net.cpp:159] Memory required for data: 26568240
I0501 22:13:39.680610 15171 layer_factory.hpp:77] Creating layer pool5
I0501 22:13:39.680616 15171 net.cpp:94] Creating Layer pool5
I0501 22:13:39.680620 15171 net.cpp:435] pool5 <- conv5
I0501 22:13:39.680624 15171 net.cpp:409] pool5 -> pool5
I0501 22:13:39.680666 15171 net.cpp:144] Setting up pool5
I0501 22:13:39.680673 15171 net.cpp:151] Top shape: 20 64 7 7 (62720)
I0501 22:13:39.680675 15171 net.cpp:159] Memory required for data: 26819120
I0501 22:13:39.680680 15171 layer_factory.hpp:77] Creating layer ip1
I0501 22:13:39.680686 15171 net.cpp:94] Creating Layer ip1
I0501 22:13:39.680691 15171 net.cpp:435] ip1 <- pool5
I0501 22:13:39.680694 15171 net.cpp:409] ip1 -> ip1
I0501 22:13:39.686305 15171 net.cpp:144] Setting up ip1
I0501 22:13:39.686317 15171 net.cpp:151] Top shape: 20 64 (1280)
I0501 22:13:39.686321 15171 net.cpp:159] Memory required for data: 26824240
I0501 22:13:39.686326 15171 layer_factory.hpp:77] Creating layer ip2
I0501 22:13:39.686334 15171 net.cpp:94] Creating Layer ip2
I0501 22:13:39.686338 15171 net.cpp:435] ip2 <- ip1
I0501 22:13:39.686342 15171 net.cpp:409] ip2 -> ip2
I0501 22:13:39.686589 15171 net.cpp:144] Setting up ip2
I0501 22:13:39.686596 15171 net.cpp:151] Top shape: 20 64 (1280)
I0501 22:13:39.686599 15171 net.cpp:159] Memory required for data: 26829360
I0501 22:13:39.686604 15171 layer_factory.hpp:77] Creating layer ip3
I0501 22:13:39.686610 15171 net.cpp:94] Creating Layer ip3
I0501 22:13:39.686614 15171 net.cpp:435] ip3 <- ip2
I0501 22:13:39.686619 15171 net.cpp:409] ip3 -> ip3
I0501 22:13:39.686827 15171 net.cpp:144] Setting up ip3
I0501 22:13:39.686835 15171 net.cpp:151] Top shape: 20 50 (1000)
I0501 22:13:39.686836 15171 net.cpp:159] Memory required for data: 26833360
I0501 22:13:39.686841 15171 layer_factory.hpp:77] Creating layer ip3_ip3_0_split
I0501 22:13:39.686846 15171 net.cpp:94] Creating Layer ip3_ip3_0_split
I0501 22:13:39.686849 15171 net.cpp:435] ip3_ip3_0_split <- ip3
I0501 22:13:39.686854 15171 net.cpp:409] ip3_ip3_0_split -> ip3_ip3_0_split_0
I0501 22:13:39.686859 15171 net.cpp:409] ip3_ip3_0_split -> ip3_ip3_0_split_1
I0501 22:13:39.686902 15171 net.cpp:144] Setting up ip3_ip3_0_split
I0501 22:13:39.686908 15171 net.cpp:151] Top shape: 20 50 (1000)
I0501 22:13:39.686911 15171 net.cpp:151] Top shape: 20 50 (1000)
I0501 22:13:39.686914 15171 net.cpp:159] Memory required for data: 26841360
I0501 22:13:39.686918 15171 layer_factory.hpp:77] Creating layer accuracy
I0501 22:13:39.686923 15171 net.cpp:94] Creating Layer accuracy
I0501 22:13:39.686925 15171 net.cpp:435] accuracy <- ip3_ip3_0_split_0
I0501 22:13:39.686929 15171 net.cpp:435] accuracy <- label_intercept_1_split_0
I0501 22:13:39.686933 15171 net.cpp:409] accuracy -> accuracy
…
