…
I0501 19:46:09.444743 14347 net.cpp:323] The NetState phase (0) differed from the phase (1) specified by a rule in layer intercept
I0501 19:46:09.444761 14347 net.cpp:323] The NetState phase (0) differed from the phase (1) specified by a rule in layer loss
I0501 19:46:09.444854 14347 net.cpp:52] Initializing net from parameters: 
state {
  phase: TRAIN
}
layer {
  name: "parameters"
  type: "HDF5Data"
  top: "data"
  top: "label"
  include {
    phase: TRAIN
  }
  hdf5_data_param {
    source: "/home/purduethu/scratch/radon/d/deng106/CNNStatisticalModel/distributions/input/5_distributions_900_sample_size_train-parameters-path.txt"
    batch_size: 20
  }
}
layer {
  name: "conv1"
  type: "Convolution"
  bottom: "data"
  top: "conv1"
  param {
    lr_mult: 1
  }
  param {
    lr_mult: 2
  }
  convolution_param {
    num_output: 64
    pad: 2
    kernel_size: 5
    stride: 1
    weight_filler {
      type: "gaussian"
      std: 0.0001
    }
    bias_filler {
      type: "constant"
    }
  }
}
layer {
  name: "relu1"
  type: "ReLU"
  bottom: "conv1"
  top: "conv1"
}
layer {
  name: "conv2"
  type: "Convolution"
  bottom: "conv1"
  top: "conv2"
  param {
    lr_mult: 1
  }
  param {
    lr_mult: 2
  }
  convolution_param {
    num_output: 64
    pad: 2
    kernel_size: 5
    stride: 1
    weight_filler {
      type: "gaussian"
      std: 0.01
    }
    bias_filler {
      type: "constant"
    }
  }
}
layer {
  name: "relu2"
  type: "ReLU"
  bottom: "conv2"
  top: "conv2"
}
layer {
  name: "pool2"
  type: "Pooling"
  bottom: "conv2"
  top: "pool2"
  pooling_param {
    pool: MAX
    kernel_size: 3
    stride: 2
  }
}
layer {
  name: "conv3"
  type: "Convolution"
  bottom: "pool2"
  top: "conv3"
  param {
    lr_mult: 1
  }
  param {
    lr_mult: 2
  }
  convolution_param {
    num_output: 64
    pad: 2
    kernel_size: 5
    stride: 1
    weight_filler {
      type: "gaussian"
      std: 0.01
    }
    bias_filler {
      type: "constant"
    }
  }
}
layer {
  name: "relu3"
  type: "ReLU"
  bottom: "conv3"
  top: "conv3"
}
layer {
  name: "conv4"
  type: "Convolution"
  bottom: "conv3"
  top: "conv4"
  param {
    lr_mult: 1
  }
  param {
    lr_mult: 2
  }
  convolution_param {
    num_output: 64
    pad: 2
    kernel_size: 5
    stride: 1
    weight_filler {
      type: "gaussian"
      std: 0.01
    }
    bias_filler {
      type: "constant"
    }
  }
}
layer {
  name: "relu4"
  type: "ReLU"
  bottom: "conv4"
  top: "conv4"
}
layer {
  name: "conv5"
  type: "Convolution"
  bottom: "conv4"
  top: "conv5"
  param {
    lr_mult: 1
  }
  param {
    lr_mult: 2
  }
  convolution_param {
    num_output: 64
    pad: 2
    kernel_size: 5
    stride: 1
    weight_filler {
      type: "gaussian"
      std: 0.01
    }
    bias_filler {
      type: "constant"
    }
  }
}
layer {
  name: "relu5"
  type: "ReLU"
  bottom: "conv5"
  top: "conv5"
}
layer {
  name: "pool5"
  type: "Pooling"
  bottom: "conv5"
  top: "pool5"
  pooling_param {
    pool: AVE
    kernel_size: 3
    stride: 2
  }
}
layer {
  name: "ip1"
  type: "InnerProduct"
  bottom: "pool5"
  top: "ip1"
  param {
    lr_mult: 1
  }
  param {
    lr_mult: 2
  }
  inner_product_param {
    num_output: 64
    weight_filler {
      type: "gaussian"
      std: 0.1
    }
    bias_filler {
      type: "constant"
    }
  }
}
layer {
  name: "ip2"
  type: "InnerProduct"
  bottom: "ip1"
  top: "ip2"
  param {
    lr_mult: 1
  }
  param {
    lr_mult: 2
  }
  inner_product_param {
    num_output: 64
    weight_filler {
      type: "gaussian"
      std: 0.1
    }
    bias_filler {
      type: "constant"
    }
  }
}
layer {
  name: "ip3"
  type: "InnerProduct"
  bottom: "ip2"
  top: "ip3"
  param {
    lr_mult: 1
  }
  param {
    lr_mult: 2
  }
  inner_product_param {
    num_output: 1
    weight_filler {
      type: "gaussian"
      std: 0.1
    }
    bias_filler {
      type: "constant"
    }
  }
}
layer {
  name: "loss"
  type: "HuberLoss"
  bottom: "ip3"
  bottom: "label"
  top: "loss"
  include {
    phase: TRAIN
  }
}
I0501 19:46:09.444933 14347 layer_factory.hpp:77] Creating layer parameters
I0501 19:46:09.444949 14347 net.cpp:94] Creating Layer parameters
I0501 19:46:09.444955 14347 net.cpp:409] parameters -> data
I0501 19:46:09.444975 14347 net.cpp:409] parameters -> label
I0501 19:46:09.444989 14347 hdf5_data_layer.cpp:79] Loading list of HDF5 filenames from: /home/purduethu/scratch/radon/d/deng106/CNNStatisticalModel/distributions/input/5_distributions_900_sample_size_train-parameters-path.txt
I0501 19:46:09.445011 14347 hdf5_data_layer.cpp:93] Number of HDF5 files: 1
I0501 19:46:09.445616 14347 hdf5.cpp:32] Datatype class: H5T_FLOAT
I0501 19:46:09.586549 14347 net.cpp:144] Setting up parameters
I0501 19:46:09.586581 14347 net.cpp:151] Top shape: 20 1 30 30 (18000)
I0501 19:46:09.586588 14347 net.cpp:151] Top shape: 20 (20)
I0501 19:46:09.586591 14347 net.cpp:159] Memory required for data: 72080
I0501 19:46:09.586599 14347 layer_factory.hpp:77] Creating layer conv1
I0501 19:46:09.586624 14347 net.cpp:94] Creating Layer conv1
I0501 19:46:09.586630 14347 net.cpp:435] conv1 <- data
I0501 19:46:09.586642 14347 net.cpp:409] conv1 -> conv1
I0501 19:46:09.592546 14347 net.cpp:144] Setting up conv1
I0501 19:46:09.592577 14347 net.cpp:151] Top shape: 20 64 30 30 (1152000)
I0501 19:46:09.592582 14347 net.cpp:159] Memory required for data: 4680080
I0501 19:46:09.592593 14347 layer_factory.hpp:77] Creating layer relu1
I0501 19:46:09.592602 14347 net.cpp:94] Creating Layer relu1
I0501 19:46:09.592605 14347 net.cpp:435] relu1 <- conv1
I0501 19:46:09.592610 14347 net.cpp:396] relu1 -> conv1 (in-place)
I0501 19:46:09.592625 14347 net.cpp:144] Setting up relu1
I0501 19:46:09.592631 14347 net.cpp:151] Top shape: 20 64 30 30 (1152000)
I0501 19:46:09.592634 14347 net.cpp:159] Memory required for data: 9288080
I0501 19:46:09.592638 14347 layer_factory.hpp:77] Creating layer conv2
I0501 19:46:09.592646 14347 net.cpp:94] Creating Layer conv2
I0501 19:46:09.592650 14347 net.cpp:435] conv2 <- conv1
I0501 19:46:09.592655 14347 net.cpp:409] conv2 -> conv2
I0501 19:46:09.608011 14347 net.cpp:144] Setting up conv2
I0501 19:46:09.608026 14347 net.cpp:151] Top shape: 20 64 30 30 (1152000)
I0501 19:46:09.608031 14347 net.cpp:159] Memory required for data: 13896080
I0501 19:46:09.608039 14347 layer_factory.hpp:77] Creating layer relu2
I0501 19:46:09.608047 14347 net.cpp:94] Creating Layer relu2
I0501 19:46:09.608050 14347 net.cpp:435] relu2 <- conv2
I0501 19:46:09.608055 14347 net.cpp:396] relu2 -> conv2 (in-place)
I0501 19:46:09.608062 14347 net.cpp:144] Setting up relu2
I0501 19:46:09.608067 14347 net.cpp:151] Top shape: 20 64 30 30 (1152000)
I0501 19:46:09.608072 14347 net.cpp:159] Memory required for data: 18504080
I0501 19:46:09.608074 14347 layer_factory.hpp:77] Creating layer pool2
I0501 19:46:09.608081 14347 net.cpp:94] Creating Layer pool2
I0501 19:46:09.608091 14347 net.cpp:435] pool2 <- conv2
I0501 19:46:09.608098 14347 net.cpp:409] pool2 -> pool2
I0501 19:46:09.608141 14347 net.cpp:144] Setting up pool2
I0501 19:46:09.608148 14347 net.cpp:151] Top shape: 20 64 15 15 (288000)
I0501 19:46:09.608152 14347 net.cpp:159] Memory required for data: 19656080
I0501 19:46:09.608155 14347 layer_factory.hpp:77] Creating layer conv3
I0501 19:46:09.608165 14347 net.cpp:94] Creating Layer conv3
I0501 19:46:09.608168 14347 net.cpp:435] conv3 <- pool2
I0501 19:46:09.608173 14347 net.cpp:409] conv3 -> conv3
I0501 19:46:09.616590 14347 net.cpp:144] Setting up conv3
I0501 19:46:09.616606 14347 net.cpp:151] Top shape: 20 64 15 15 (288000)
I0501 19:46:09.616611 14347 net.cpp:159] Memory required for data: 20808080
I0501 19:46:09.616621 14347 layer_factory.hpp:77] Creating layer relu3
I0501 19:46:09.616627 14347 net.cpp:94] Creating Layer relu3
I0501 19:46:09.616631 14347 net.cpp:435] relu3 <- conv3
I0501 19:46:09.616636 14347 net.cpp:396] relu3 -> conv3 (in-place)
I0501 19:46:09.616644 14347 net.cpp:144] Setting up relu3
I0501 19:46:09.616650 14347 net.cpp:151] Top shape: 20 64 15 15 (288000)
I0501 19:46:09.616653 14347 net.cpp:159] Memory required for data: 21960080
I0501 19:46:09.616657 14347 layer_factory.hpp:77] Creating layer conv4
I0501 19:46:09.616667 14347 net.cpp:94] Creating Layer conv4
I0501 19:46:09.616670 14347 net.cpp:435] conv4 <- conv3
I0501 19:46:09.616677 14347 net.cpp:409] conv4 -> conv4
I0501 19:46:09.624439 14347 net.cpp:144] Setting up conv4
I0501 19:46:09.624455 14347 net.cpp:151] Top shape: 20 64 15 15 (288000)
I0501 19:46:09.624459 14347 net.cpp:159] Memory required for data: 23112080
I0501 19:46:09.624466 14347 layer_factory.hpp:77] Creating layer relu4
I0501 19:46:09.624474 14347 net.cpp:94] Creating Layer relu4
I0501 19:46:09.624477 14347 net.cpp:435] relu4 <- conv4
I0501 19:46:09.624482 14347 net.cpp:396] relu4 -> conv4 (in-place)
I0501 19:46:09.624491 14347 net.cpp:144] Setting up relu4
I0501 19:46:09.624496 14347 net.cpp:151] Top shape: 20 64 15 15 (288000)
I0501 19:46:09.624500 14347 net.cpp:159] Memory required for data: 24264080
I0501 19:46:09.624503 14347 layer_factory.hpp:77] Creating layer conv5
I0501 19:46:09.624511 14347 net.cpp:94] Creating Layer conv5
I0501 19:46:09.624516 14347 net.cpp:435] conv5 <- conv4
I0501 19:46:09.624521 14347 net.cpp:409] conv5 -> conv5
I0501 19:46:09.631875 14347 net.cpp:144] Setting up conv5
I0501 19:46:09.631891 14347 net.cpp:151] Top shape: 20 64 15 15 (288000)
I0501 19:46:09.631894 14347 net.cpp:159] Memory required for data: 25416080
I0501 19:46:09.631904 14347 layer_factory.hpp:77] Creating layer relu5
I0501 19:46:09.631911 14347 net.cpp:94] Creating Layer relu5
I0501 19:46:09.631916 14347 net.cpp:435] relu5 <- conv5
I0501 19:46:09.631920 14347 net.cpp:396] relu5 -> conv5 (in-place)
I0501 19:46:09.631928 14347 net.cpp:144] Setting up relu5
I0501 19:46:09.631933 14347 net.cpp:151] Top shape: 20 64 15 15 (288000)
I0501 19:46:09.631937 14347 net.cpp:159] Memory required for data: 26568080
I0501 19:46:09.631940 14347 layer_factory.hpp:77] Creating layer pool5
I0501 19:46:09.631947 14347 net.cpp:94] Creating Layer pool5
I0501 19:46:09.631949 14347 net.cpp:435] pool5 <- conv5
I0501 19:46:09.631954 14347 net.cpp:409] pool5 -> pool5
I0501 19:46:09.631991 14347 net.cpp:144] Setting up pool5
I0501 19:46:09.631999 14347 net.cpp:151] Top shape: 20 64 7 7 (62720)
I0501 19:46:09.632002 14347 net.cpp:159] Memory required for data: 26818960
I0501 19:46:09.632006 14347 layer_factory.hpp:77] Creating layer ip1
I0501 19:46:09.632016 14347 net.cpp:94] Creating Layer ip1
I0501 19:46:09.632021 14347 net.cpp:435] ip1 <- pool5
I0501 19:46:09.632026 14347 net.cpp:409] ip1 -> ip1
I0501 19:46:09.637959 14347 net.cpp:144] Setting up ip1
I0501 19:46:09.637974 14347 net.cpp:151] Top shape: 20 64 (1280)
I0501 19:46:09.637979 14347 net.cpp:159] Memory required for data: 26824080
I0501 19:46:09.637984 14347 layer_factory.hpp:77] Creating layer ip2
I0501 19:46:09.637992 14347 net.cpp:94] Creating Layer ip2
I0501 19:46:09.638001 14347 net.cpp:435] ip2 <- ip1
I0501 19:46:09.638008 14347 net.cpp:409] ip2 -> ip2
I0501 19:46:09.638193 14347 net.cpp:144] Setting up ip2
I0501 19:46:09.638201 14347 net.cpp:151] Top shape: 20 64 (1280)
I0501 19:46:09.638206 14347 net.cpp:159] Memory required for data: 26829200
I0501 19:46:09.638211 14347 layer_factory.hpp:77] Creating layer ip3
I0501 19:46:09.638217 14347 net.cpp:94] Creating Layer ip3
I0501 19:46:09.638221 14347 net.cpp:435] ip3 <- ip2
I0501 19:46:09.638226 14347 net.cpp:409] ip3 -> ip3
I0501 19:46:09.638295 14347 net.cpp:144] Setting up ip3
I0501 19:46:09.638309 14347 net.cpp:151] Top shape: 20 1 (20)
I0501 19:46:09.638312 14347 net.cpp:159] Memory required for data: 26829280
I0501 19:46:09.638317 14347 layer_factory.hpp:77] Creating layer loss
I0501 19:46:09.638325 14347 net.cpp:94] Creating Layer loss
I0501 19:46:09.638329 14347 net.cpp:435] loss <- ip3
I0501 19:46:09.638334 14347 net.cpp:435] loss <- label
I0501 19:46:09.638339 14347 net.cpp:409] loss -> loss
I0501 19:46:09.638377 14347 net.cpp:144] Setting up loss
…
