…
I0430 22:05:37.270258 26267 net.cpp:323] The NetState phase (0) differed from the phase (1) specified by a rule in layer intercept
I0430 22:05:37.270274 26267 net.cpp:323] The NetState phase (0) differed from the phase (1) specified by a rule in layer loss
I0430 22:05:37.270350 26267 net.cpp:52] Initializing net from parameters: 
state {
  phase: TRAIN
}
layer {
  name: "parameters"
  type: "HDF5Data"
  top: "data"
  top: "label"
  include {
    phase: TRAIN
  }
  hdf5_data_param {
    source: "/home/purduethu/scratch/radon/d/deng106/CNNStatisticalModel/distributions/input/50_distributions_900_sample_size_train-parameters-path.txt"
    batch_size: 20
  }
}
layer {
  name: "conv1"
  type: "Convolution"
  bottom: "data"
  top: "conv1"
  param {
    lr_mult: 1
  }
  param {
    lr_mult: 2
  }
  convolution_param {
    num_output: 64
    pad: 2
    kernel_size: 5
    stride: 1
    weight_filler {
      type: "gaussian"
      std: 0.0001
    }
    bias_filler {
      type: "constant"
    }
  }
}
layer {
  name: "relu1"
  type: "ReLU"
  bottom: "conv1"
  top: "conv1"
}
layer {
  name: "conv2"
  type: "Convolution"
  bottom: "conv1"
  top: "conv2"
  param {
    lr_mult: 1
  }
  param {
    lr_mult: 2
  }
  convolution_param {
    num_output: 64
    pad: 2
    kernel_size: 5
    stride: 1
    weight_filler {
      type: "gaussian"
      std: 0.01
    }
    bias_filler {
      type: "constant"
    }
  }
}
layer {
  name: "relu2"
  type: "ReLU"
  bottom: "conv2"
  top: "conv2"
}
layer {
  name: "pool2"
  type: "Pooling"
  bottom: "conv2"
  top: "pool2"
  pooling_param {
    pool: MAX
    kernel_size: 3
    stride: 2
  }
}
layer {
  name: "conv3"
  type: "Convolution"
  bottom: "pool2"
  top: "conv3"
  param {
    lr_mult: 1
  }
  param {
    lr_mult: 2
  }
  convolution_param {
    num_output: 128
    pad: 2
    kernel_size: 5
    stride: 1
    weight_filler {
      type: "gaussian"
      std: 0.01
    }
    bias_filler {
      type: "constant"
    }
  }
}
layer {
  name: "relu3"
  type: "ReLU"
  bottom: "conv3"
  top: "conv3"
}
layer {
  name: "conv4"
  type: "Convolution"
  bottom: "conv3"
  top: "conv4"
  param {
    lr_mult: 1
  }
  param {
    lr_mult: 2
  }
  convolution_param {
    num_output: 128
    pad: 2
    kernel_size: 5
    stride: 1
    weight_filler {
      type: "gaussian"
      std: 0.01
    }
    bias_filler {
      type: "constant"
    }
  }
}
layer {
  name: "relu4"
  type: "ReLU"
  bottom: "conv4"
  top: "conv4"
}
layer {
  name: "conv5"
  type: "Convolution"
  bottom: "conv4"
  top: "conv5"
  param {
    lr_mult: 1
  }
  param {
    lr_mult: 2
  }
  convolution_param {
    num_output: 128
    pad: 2
    kernel_size: 5
    stride: 1
    weight_filler {
      type: "gaussian"
      std: 0.01
    }
    bias_filler {
      type: "constant"
    }
  }
}
layer {
  name: "relu5"
  type: "ReLU"
  bottom: "conv5"
  top: "conv5"
}
layer {
  name: "pool5"
  type: "Pooling"
  bottom: "conv5"
  top: "pool5"
  pooling_param {
    pool: AVE
    kernel_size: 3
    stride: 2
  }
}
layer {
  name: "ip1"
  type: "InnerProduct"
  bottom: "pool5"
  top: "ip1"
  param {
    lr_mult: 1
  }
  param {
    lr_mult: 2
  }
  inner_product_param {
    num_output: 1024
    weight_filler {
      type: "gaussian"
      std: 0.1
    }
    bias_filler {
      type: "constant"
    }
  }
}
layer {
  name: "ip2"
  type: "InnerProduct"
  bottom: "ip1"
  top: "ip2"
  param {
    lr_mult: 1
  }
  param {
    lr_mult: 2
  }
  inner_product_param {
    num_output: 512
    weight_filler {
      type: "gaussian"
      std: 0.1
    }
    bias_filler {
      type: "constant"
    }
  }
}
layer {
  name: "ip3"
  type: "InnerProduct"
  bottom: "ip2"
  top: "ip3"
  param {
    lr_mult: 1
  }
  param {
    lr_mult: 2
  }
  inner_product_param {
    num_output: 1
    weight_filler {
      type: "gaussian"
      std: 0.1
    }
    bias_filler {
      type: "constant"
    }
  }
}
layer {
  name: "loss"
  type: "HuberLoss"
  bottom: "ip3"
  bottom: "label"
  top: "loss"
  include {
    phase: TRAIN
  }
}
I0430 22:05:37.270402 26267 layer_factory.hpp:77] Creating layer parameters
I0430 22:05:37.270416 26267 net.cpp:94] Creating Layer parameters
I0430 22:05:37.270419 26267 net.cpp:409] parameters -> data
I0430 22:05:37.270429 26267 net.cpp:409] parameters -> label
I0430 22:05:37.270437 26267 hdf5_data_layer.cpp:79] Loading list of HDF5 filenames from: /home/purduethu/scratch/radon/d/deng106/CNNStatisticalModel/distributions/input/50_distributions_900_sample_size_train-parameters-path.txt
I0430 22:05:37.270452 26267 hdf5_data_layer.cpp:93] Number of HDF5 files: 1
I0430 22:05:37.270952 26267 hdf5.cpp:32] Datatype class: H5T_FLOAT
I0430 22:05:38.846427 26267 net.cpp:144] Setting up parameters
I0430 22:05:38.846496 26267 net.cpp:151] Top shape: 20 1 30 30 (18000)
I0430 22:05:38.846509 26267 net.cpp:151] Top shape: 20 (20)
I0430 22:05:38.846518 26267 net.cpp:159] Memory required for data: 72080
I0430 22:05:38.846532 26267 layer_factory.hpp:77] Creating layer conv1
I0430 22:05:38.846580 26267 net.cpp:94] Creating Layer conv1
I0430 22:05:38.846590 26267 net.cpp:435] conv1 <- data
I0430 22:05:38.846604 26267 net.cpp:409] conv1 -> conv1
I0430 22:05:38.856468 26267 net.cpp:144] Setting up conv1
I0430 22:05:38.856518 26267 net.cpp:151] Top shape: 20 64 30 30 (1152000)
I0430 22:05:38.856528 26267 net.cpp:159] Memory required for data: 4680080
I0430 22:05:38.856570 26267 layer_factory.hpp:77] Creating layer relu1
I0430 22:05:38.856593 26267 net.cpp:94] Creating Layer relu1
I0430 22:05:38.856603 26267 net.cpp:435] relu1 <- conv1
I0430 22:05:38.856611 26267 net.cpp:396] relu1 -> conv1 (in-place)
I0430 22:05:38.856642 26267 net.cpp:144] Setting up relu1
I0430 22:05:38.856653 26267 net.cpp:151] Top shape: 20 64 30 30 (1152000)
I0430 22:05:38.856660 26267 net.cpp:159] Memory required for data: 9288080
I0430 22:05:38.856667 26267 layer_factory.hpp:77] Creating layer conv2
I0430 22:05:38.856686 26267 net.cpp:94] Creating Layer conv2
I0430 22:05:38.856694 26267 net.cpp:435] conv2 <- conv1
I0430 22:05:38.856705 26267 net.cpp:409] conv2 -> conv2
I0430 22:05:38.877032 26267 net.cpp:144] Setting up conv2
I0430 22:05:38.877061 26267 net.cpp:151] Top shape: 20 64 30 30 (1152000)
I0430 22:05:38.877065 26267 net.cpp:159] Memory required for data: 13896080
I0430 22:05:38.877079 26267 layer_factory.hpp:77] Creating layer relu2
I0430 22:05:38.877089 26267 net.cpp:94] Creating Layer relu2
I0430 22:05:38.877094 26267 net.cpp:435] relu2 <- conv2
I0430 22:05:38.877099 26267 net.cpp:396] relu2 -> conv2 (in-place)
I0430 22:05:38.877110 26267 net.cpp:144] Setting up relu2
I0430 22:05:38.877115 26267 net.cpp:151] Top shape: 20 64 30 30 (1152000)
I0430 22:05:38.877118 26267 net.cpp:159] Memory required for data: 18504080
I0430 22:05:38.877121 26267 layer_factory.hpp:77] Creating layer pool2
I0430 22:05:38.877135 26267 net.cpp:94] Creating Layer pool2
I0430 22:05:38.877140 26267 net.cpp:435] pool2 <- conv2
I0430 22:05:38.877143 26267 net.cpp:409] pool2 -> pool2
I0430 22:05:38.877244 26267 net.cpp:144] Setting up pool2
I0430 22:05:38.877252 26267 net.cpp:151] Top shape: 20 64 15 15 (288000)
I0430 22:05:38.877255 26267 net.cpp:159] Memory required for data: 19656080
I0430 22:05:38.877259 26267 layer_factory.hpp:77] Creating layer conv3
I0430 22:05:38.877269 26267 net.cpp:94] Creating Layer conv3
I0430 22:05:38.877272 26267 net.cpp:435] conv3 <- pool2
I0430 22:05:38.877277 26267 net.cpp:409] conv3 -> conv3
I0430 22:05:38.890100 26267 net.cpp:144] Setting up conv3
I0430 22:05:38.890128 26267 net.cpp:151] Top shape: 20 128 15 15 (576000)
I0430 22:05:38.890132 26267 net.cpp:159] Memory required for data: 21960080
I0430 22:05:38.890146 26267 layer_factory.hpp:77] Creating layer relu3
I0430 22:05:38.890154 26267 net.cpp:94] Creating Layer relu3
I0430 22:05:38.890159 26267 net.cpp:435] relu3 <- conv3
I0430 22:05:38.890164 26267 net.cpp:396] relu3 -> conv3 (in-place)
I0430 22:05:38.890173 26267 net.cpp:144] Setting up relu3
I0430 22:05:38.890178 26267 net.cpp:151] Top shape: 20 128 15 15 (576000)
I0430 22:05:38.890182 26267 net.cpp:159] Memory required for data: 24264080
I0430 22:05:38.890184 26267 layer_factory.hpp:77] Creating layer conv4
I0430 22:05:38.890195 26267 net.cpp:94] Creating Layer conv4
I0430 22:05:38.890198 26267 net.cpp:435] conv4 <- conv3
I0430 22:05:38.890204 26267 net.cpp:409] conv4 -> conv4
I0430 22:05:38.912915 26267 net.cpp:144] Setting up conv4
I0430 22:05:38.912945 26267 net.cpp:151] Top shape: 20 128 15 15 (576000)
I0430 22:05:38.912950 26267 net.cpp:159] Memory required for data: 26568080
I0430 22:05:38.912961 26267 layer_factory.hpp:77] Creating layer relu4
I0430 22:05:38.912971 26267 net.cpp:94] Creating Layer relu4
I0430 22:05:38.912976 26267 net.cpp:435] relu4 <- conv4
I0430 22:05:38.912982 26267 net.cpp:396] relu4 -> conv4 (in-place)
I0430 22:05:38.912993 26267 net.cpp:144] Setting up relu4
I0430 22:05:38.912997 26267 net.cpp:151] Top shape: 20 128 15 15 (576000)
I0430 22:05:38.913000 26267 net.cpp:159] Memory required for data: 28872080
I0430 22:05:38.913003 26267 layer_factory.hpp:77] Creating layer conv5
I0430 22:05:38.913014 26267 net.cpp:94] Creating Layer conv5
I0430 22:05:38.913017 26267 net.cpp:435] conv5 <- conv4
I0430 22:05:38.913022 26267 net.cpp:409] conv5 -> conv5
I0430 22:05:38.935506 26267 net.cpp:144] Setting up conv5
I0430 22:05:38.935539 26267 net.cpp:151] Top shape: 20 128 15 15 (576000)
I0430 22:05:38.935544 26267 net.cpp:159] Memory required for data: 31176080
I0430 22:05:38.935559 26267 layer_factory.hpp:77] Creating layer relu5
I0430 22:05:38.935569 26267 net.cpp:94] Creating Layer relu5
I0430 22:05:38.935573 26267 net.cpp:435] relu5 <- conv5
I0430 22:05:38.935580 26267 net.cpp:396] relu5 -> conv5 (in-place)
I0430 22:05:38.935590 26267 net.cpp:144] Setting up relu5
I0430 22:05:38.935595 26267 net.cpp:151] Top shape: 20 128 15 15 (576000)
I0430 22:05:38.935597 26267 net.cpp:159] Memory required for data: 33480080
I0430 22:05:38.935600 26267 layer_factory.hpp:77] Creating layer pool5
I0430 22:05:38.935606 26267 net.cpp:94] Creating Layer pool5
I0430 22:05:38.935609 26267 net.cpp:435] pool5 <- conv5
I0430 22:05:38.935613 26267 net.cpp:409] pool5 -> pool5
I0430 22:05:38.935699 26267 net.cpp:144] Setting up pool5
I0430 22:05:38.935708 26267 net.cpp:151] Top shape: 20 128 7 7 (125440)
I0430 22:05:38.935710 26267 net.cpp:159] Memory required for data: 33981840
I0430 22:05:38.935714 26267 layer_factory.hpp:77] Creating layer ip1
I0430 22:05:38.935724 26267 net.cpp:94] Creating Layer ip1
I0430 22:05:38.935727 26267 net.cpp:435] ip1 <- pool5
I0430 22:05:38.935732 26267 net.cpp:409] ip1 -> ip1
I0430 22:05:39.189396 26267 net.cpp:144] Setting up ip1
I0430 22:05:39.189429 26267 net.cpp:151] Top shape: 20 1024 (20480)
I0430 22:05:39.189434 26267 net.cpp:159] Memory required for data: 34063760
I0430 22:05:39.189443 26267 layer_factory.hpp:77] Creating layer ip2
I0430 22:05:39.189455 26267 net.cpp:94] Creating Layer ip2
I0430 22:05:39.189469 26267 net.cpp:435] ip2 <- ip1
I0430 22:05:39.189477 26267 net.cpp:409] ip2 -> ip2
I0430 22:05:39.202996 26267 net.cpp:144] Setting up ip2
I0430 22:05:39.203028 26267 net.cpp:151] Top shape: 20 512 (10240)
I0430 22:05:39.203032 26267 net.cpp:159] Memory required for data: 34104720
I0430 22:05:39.203042 26267 layer_factory.hpp:77] Creating layer ip3
I0430 22:05:39.203053 26267 net.cpp:94] Creating Layer ip3
I0430 22:05:39.203058 26267 net.cpp:435] ip3 <- ip2
I0430 22:05:39.203065 26267 net.cpp:409] ip3 -> ip3
I0430 22:05:39.203197 26267 net.cpp:144] Setting up ip3
I0430 22:05:39.203204 26267 net.cpp:151] Top shape: 20 1 (20)
I0430 22:05:39.203208 26267 net.cpp:159] Memory required for data: 34104800
I0430 22:05:39.203213 26267 layer_factory.hpp:77] Creating layer loss
I0430 22:05:39.203222 26267 net.cpp:94] Creating Layer loss
I0430 22:05:39.203225 26267 net.cpp:435] loss <- ip3
I0430 22:05:39.203229 26267 net.cpp:435] loss <- label
I0430 22:05:39.203234 26267 net.cpp:409] loss -> loss
I0430 22:05:39.203289 26267 net.cpp:144] Setting up loss
…
I0430 22:05:40.035737 26267 net.cpp:323] The NetState phase (0) differed from the phase (1) specified by a rule in layer intercept
I0430 22:05:40.035753 26267 net.cpp:323] The NetState phase (0) differed from the phase (1) specified by a rule in layer accuracy
I0430 22:05:40.035840 26267 net.cpp:52] Initializing net from parameters: 
state {
  phase: TRAIN
}
layer {
  name: "parameters"
  type: "HDF5Data"
  top: "data"
  top: "label"
  include {
    phase: TRAIN
  }
  hdf5_data_param {
    source: "/home/purduethu/scratch/radon/d/deng106/CNNStatisticalModel/distributions/input/50_distributions_900_sample_size_train-distributions-path.txt"
    batch_size: 20
  }
}
layer {
  name: "conv1"
  type: "Convolution"
  bottom: "data"
  top: "conv1"
  param {
    lr_mult: 1
  }
  param {
    lr_mult: 2
  }
  convolution_param {
    num_output: 64
    pad: 2
    kernel_size: 5
    stride: 1
    weight_filler {
      type: "gaussian"
      std: 0.0001
    }
    bias_filler {
      type: "constant"
    }
  }
}
layer {
  name: "relu1"
  type: "ReLU"
  bottom: "conv1"
  top: "conv1"
}
layer {
  name: "conv2"
  type: "Convolution"
  bottom: "conv1"
  top: "conv2"
  param {
    lr_mult: 1
  }
  param {
    lr_mult: 2
  }
  convolution_param {
    num_output: 64
    pad: 2
    kernel_size: 5
    stride: 1
    weight_filler {
      type: "gaussian"
      std: 0.01
    }
    bias_filler {
      type: "constant"
    }
  }
}
layer {
  name: "relu2"
  type: "ReLU"
  bottom: "conv2"
  top: "conv2"
}
layer {
  name: "pool2"
  type: "Pooling"
  bottom: "conv2"
  top: "pool2"
  pooling_param {
    pool: MAX
    kernel_size: 3
    stride: 2
  }
}
layer {
  name: "conv3"
  type: "Convolution"
  bottom: "pool2"
  top: "conv3"
  param {
    lr_mult: 1
  }
  param {
    lr_mult: 2
  }
  convolution_param {
    num_output: 128
    pad: 2
    kernel_size: 5
    stride: 1
    weight_filler {
      type: "gaussian"
      std: 0.01
    }
    bias_filler {
      type: "constant"
    }
  }
}
layer {
  name: "relu3"
  type: "ReLU"
  bottom: "conv3"
  top: "conv3"
}
layer {
  name: "conv4"
  type: "Convolution"
  bottom: "conv3"
  top: "conv4"
  param {
    lr_mult: 1
  }
  param {
    lr_mult: 2
  }
  convolution_param {
    num_output: 128
    pad: 2
    kernel_size: 5
    stride: 1
    weight_filler {
      type: "gaussian"
      std: 0.01
    }
    bias_filler {
      type: "constant"
    }
  }
}
layer {
  name: "relu4"
  type: "ReLU"
  bottom: "conv4"
  top: "conv4"
}
layer {
  name: "conv5"
  type: "Convolution"
  bottom: "conv4"
  top: "conv5"
  param {
    lr_mult: 1
  }
  param {
    lr_mult: 2
  }
  convolution_param {
    num_output: 128
    pad: 2
    kernel_size: 5
    stride: 1
    weight_filler {
      type: "gaussian"
      std: 0.01
    }
    bias_filler {
      type: "constant"
    }
  }
}
layer {
  name: "relu5"
  type: "ReLU"
  bottom: "conv5"
  top: "conv5"
}
layer {
  name: "pool5"
  type: "Pooling"
  bottom: "conv5"
  top: "pool5"
  pooling_param {
    pool: AVE
    kernel_size: 3
    stride: 2
  }
}
layer {
  name: "ip1"
  type: "InnerProduct"
  bottom: "pool5"
  top: "ip1"
  param {
    lr_mult: 1
  }
  param {
    lr_mult: 2
  }
  inner_product_param {
    num_output: 1024
    weight_filler {
      type: "gaussian"
      std: 0.1
    }
    bias_filler {
      type: "constant"
    }
  }
}
layer {
  name: "ip2"
  type: "InnerProduct"
  bottom: "ip1"
  top: "ip2"
  param {
    lr_mult: 1
  }
  param {
    lr_mult: 2
  }
  inner_product_param {
    num_output: 512
    weight_filler {
      type: "gaussian"
      std: 0.1
    }
    bias_filler {
      type: "constant"
    }
  }
}
layer {
  name: "ip3"
  type: "InnerProduct"
  bottom: "ip2"
  top: "ip3"
  param {
    lr_mult: 1
  }
  param {
    lr_mult: 2
  }
  inner_product_param {
    num_output: 50
    weight_filler {
      type: "gaussian"
      std: 0.1
    }
    bias_filler {
      type: "constant"
    }
  }
}
layer {
  name: "loss"
  type: "SoftmaxWithLoss"
  bottom: "ip3"
  bottom: "label"
  top: "loss"
}
I0430 22:05:40.035897 26267 layer_factory.hpp:77] Creating layer parameters
I0430 22:05:40.035907 26267 net.cpp:94] Creating Layer parameters
I0430 22:05:40.035910 26267 net.cpp:409] parameters -> data
I0430 22:05:40.035918 26267 net.cpp:409] parameters -> label
I0430 22:05:40.035925 26267 hdf5_data_layer.cpp:79] Loading list of HDF5 filenames from: /home/purduethu/scratch/radon/d/deng106/CNNStatisticalModel/distributions/input/50_distributions_900_sample_size_train-distributions-path.txt
I0430 22:05:40.035943 26267 hdf5_data_layer.cpp:93] Number of HDF5 files: 1
I0430 22:05:41.583559 26267 hdf5.cpp:35] Datatype class: H5T_INTEGER
I0430 22:05:41.586735 26267 net.cpp:144] Setting up parameters
I0430 22:05:41.586766 26267 net.cpp:151] Top shape: 20 1 30 30 (18000)
I0430 22:05:41.586771 26267 net.cpp:151] Top shape: 20 (20)
I0430 22:05:41.586776 26267 net.cpp:159] Memory required for data: 72080
I0430 22:05:41.586781 26267 layer_factory.hpp:77] Creating layer conv1
I0430 22:05:41.586799 26267 net.cpp:94] Creating Layer conv1
I0430 22:05:41.586804 26267 net.cpp:435] conv1 <- data
I0430 22:05:41.586810 26267 net.cpp:409] conv1 -> conv1
I0430 22:05:41.590401 26267 net.cpp:144] Setting up conv1
I0430 22:05:41.590451 26267 net.cpp:151] Top shape: 20 64 30 30 (1152000)
I0430 22:05:41.590462 26267 net.cpp:159] Memory required for data: 4680080
I0430 22:05:41.590490 26267 layer_factory.hpp:77] Creating layer relu1
I0430 22:05:41.590512 26267 net.cpp:94] Creating Layer relu1
I0430 22:05:41.590523 26267 net.cpp:435] relu1 <- conv1
I0430 22:05:41.590536 26267 net.cpp:396] relu1 -> conv1 (in-place)
I0430 22:05:41.590556 26267 net.cpp:144] Setting up relu1
I0430 22:05:41.590569 26267 net.cpp:151] Top shape: 20 64 30 30 (1152000)
I0430 22:05:41.590579 26267 net.cpp:159] Memory required for data: 9288080
I0430 22:05:41.590587 26267 layer_factory.hpp:77] Creating layer conv2
I0430 22:05:41.590608 26267 net.cpp:94] Creating Layer conv2
I0430 22:05:41.590618 26267 net.cpp:435] conv2 <- conv1
I0430 22:05:41.590632 26267 net.cpp:409] conv2 -> conv2
I0430 22:05:41.606704 26267 net.cpp:144] Setting up conv2
I0430 22:05:41.606741 26267 net.cpp:151] Top shape: 20 64 30 30 (1152000)
I0430 22:05:41.606746 26267 net.cpp:159] Memory required for data: 13896080
I0430 22:05:41.606761 26267 layer_factory.hpp:77] Creating layer relu2
I0430 22:05:41.606772 26267 net.cpp:94] Creating Layer relu2
I0430 22:05:41.606777 26267 net.cpp:435] relu2 <- conv2
I0430 22:05:41.606783 26267 net.cpp:396] relu2 -> conv2 (in-place)
I0430 22:05:41.606793 26267 net.cpp:144] Setting up relu2
I0430 22:05:41.606798 26267 net.cpp:151] Top shape: 20 64 30 30 (1152000)
I0430 22:05:41.606801 26267 net.cpp:159] Memory required for data: 18504080
I0430 22:05:41.606804 26267 layer_factory.hpp:77] Creating layer pool2
I0430 22:05:41.606812 26267 net.cpp:94] Creating Layer pool2
I0430 22:05:41.606814 26267 net.cpp:435] pool2 <- conv2
I0430 22:05:41.606818 26267 net.cpp:409] pool2 -> pool2
I0430 22:05:41.606936 26267 net.cpp:144] Setting up pool2
I0430 22:05:41.606943 26267 net.cpp:151] Top shape: 20 64 15 15 (288000)
I0430 22:05:41.606947 26267 net.cpp:159] Memory required for data: 19656080
I0430 22:05:41.606950 26267 layer_factory.hpp:77] Creating layer conv3
I0430 22:05:41.606961 26267 net.cpp:94] Creating Layer conv3
I0430 22:05:41.606972 26267 net.cpp:435] conv3 <- pool2
I0430 22:05:41.606978 26267 net.cpp:409] conv3 -> conv3
I0430 22:05:41.620733 26267 net.cpp:144] Setting up conv3
I0430 22:05:41.620769 26267 net.cpp:151] Top shape: 20 128 15 15 (576000)
I0430 22:05:41.620772 26267 net.cpp:159] Memory required for data: 21960080
I0430 22:05:41.620786 26267 layer_factory.hpp:77] Creating layer relu3
I0430 22:05:41.620797 26267 net.cpp:94] Creating Layer relu3
I0430 22:05:41.620801 26267 net.cpp:435] relu3 <- conv3
I0430 22:05:41.620806 26267 net.cpp:396] relu3 -> conv3 (in-place)
I0430 22:05:41.620817 26267 net.cpp:144] Setting up relu3
I0430 22:05:41.620822 26267 net.cpp:151] Top shape: 20 128 15 15 (576000)
I0430 22:05:41.620826 26267 net.cpp:159] Memory required for data: 24264080
I0430 22:05:41.620828 26267 layer_factory.hpp:77] Creating layer conv4
I0430 22:05:41.620839 26267 net.cpp:94] Creating Layer conv4
I0430 22:05:41.620843 26267 net.cpp:435] conv4 <- conv3
I0430 22:05:41.620848 26267 net.cpp:409] conv4 -> conv4
I0430 22:05:41.644057 26267 net.cpp:144] Setting up conv4
I0430 22:05:41.644093 26267 net.cpp:151] Top shape: 20 128 15 15 (576000)
I0430 22:05:41.644098 26267 net.cpp:159] Memory required for data: 26568080
I0430 22:05:41.644109 26267 layer_factory.hpp:77] Creating layer relu4
I0430 22:05:41.644119 26267 net.cpp:94] Creating Layer relu4
I0430 22:05:41.644125 26267 net.cpp:435] relu4 <- conv4
I0430 22:05:41.644130 26267 net.cpp:396] relu4 -> conv4 (in-place)
I0430 22:05:41.644141 26267 net.cpp:144] Setting up relu4
I0430 22:05:41.644146 26267 net.cpp:151] Top shape: 20 128 15 15 (576000)
I0430 22:05:41.644150 26267 net.cpp:159] Memory required for data: 28872080
I0430 22:05:41.644152 26267 layer_factory.hpp:77] Creating layer conv5
I0430 22:05:41.644162 26267 net.cpp:94] Creating Layer conv5
I0430 22:05:41.644165 26267 net.cpp:435] conv5 <- conv4
I0430 22:05:41.644170 26267 net.cpp:409] conv5 -> conv5
I0430 22:05:41.667127 26267 net.cpp:144] Setting up conv5
I0430 22:05:41.667166 26267 net.cpp:151] Top shape: 20 128 15 15 (576000)
I0430 22:05:41.667171 26267 net.cpp:159] Memory required for data: 31176080
I0430 22:05:41.667186 26267 layer_factory.hpp:77] Creating layer relu5
I0430 22:05:41.667197 26267 net.cpp:94] Creating Layer relu5
I0430 22:05:41.667202 26267 net.cpp:435] relu5 <- conv5
I0430 22:05:41.667207 26267 net.cpp:396] relu5 -> conv5 (in-place)
I0430 22:05:41.667218 26267 net.cpp:144] Setting up relu5
I0430 22:05:41.667223 26267 net.cpp:151] Top shape: 20 128 15 15 (576000)
I0430 22:05:41.667227 26267 net.cpp:159] Memory required for data: 33480080
I0430 22:05:41.667229 26267 layer_factory.hpp:77] Creating layer pool5
I0430 22:05:41.667235 26267 net.cpp:94] Creating Layer pool5
I0430 22:05:41.667238 26267 net.cpp:435] pool5 <- conv5
I0430 22:05:41.667243 26267 net.cpp:409] pool5 -> pool5
I0430 22:05:41.667340 26267 net.cpp:144] Setting up pool5
I0430 22:05:41.667348 26267 net.cpp:151] Top shape: 20 128 7 7 (125440)
I0430 22:05:41.667351 26267 net.cpp:159] Memory required for data: 33981840
I0430 22:05:41.667354 26267 layer_factory.hpp:77] Creating layer ip1
I0430 22:05:41.667362 26267 net.cpp:94] Creating Layer ip1
I0430 22:05:41.667366 26267 net.cpp:435] ip1 <- pool5
I0430 22:05:41.667371 26267 net.cpp:409] ip1 -> ip1
I0430 22:05:41.828089 26267 net.cpp:144] Setting up ip1
I0430 22:05:41.828128 26267 net.cpp:151] Top shape: 20 1024 (20480)
I0430 22:05:41.828132 26267 net.cpp:159] Memory required for data: 34063760
I0430 22:05:41.828142 26267 layer_factory.hpp:77] Creating layer ip2
I0430 22:05:41.828153 26267 net.cpp:94] Creating Layer ip2
I0430 22:05:41.828158 26267 net.cpp:435] ip2 <- ip1
I0430 22:05:41.828166 26267 net.cpp:409] ip2 -> ip2
I0430 22:05:41.841871 26267 net.cpp:144] Setting up ip2
I0430 22:05:41.841907 26267 net.cpp:151] Top shape: 20 512 (10240)
I0430 22:05:41.841912 26267 net.cpp:159] Memory required for data: 34104720
I0430 22:05:41.841922 26267 layer_factory.hpp:77] Creating layer ip3
I0430 22:05:41.841933 26267 net.cpp:94] Creating Layer ip3
I0430 22:05:41.841938 26267 net.cpp:435] ip3 <- ip2
I0430 22:05:41.841956 26267 net.cpp:409] ip3 -> ip3
I0430 22:05:41.843751 26267 net.cpp:144] Setting up ip3
I0430 22:05:41.843775 26267 net.cpp:151] Top shape: 20 50 (1000)
I0430 22:05:41.843778 26267 net.cpp:159] Memory required for data: 34108720
I0430 22:05:41.843786 26267 layer_factory.hpp:77] Creating layer loss
I0430 22:05:41.843797 26267 net.cpp:94] Creating Layer loss
I0430 22:05:41.843801 26267 net.cpp:435] loss <- ip3
I0430 22:05:41.843807 26267 net.cpp:435] loss <- label
I0430 22:05:41.843811 26267 net.cpp:409] loss -> loss
I0430 22:05:41.843822 26267 layer_factory.hpp:77] Creating layer loss
…
I0430 22:05:41.844380 26267 solver.cpp:181] Creating test net (#0) specified by net file: ./protocol/dis_50_900_dimension.protocol_distribution
I0430 22:05:41.844408 26267 net.cpp:323] The NetState phase (1) differed from the phase (0) specified by a rule in layer parameters
I0430 22:05:41.844503 26267 net.cpp:52] Initializing net from parameters: 
state {
  phase: TEST
}
layer {
  name: "intercept"
  type: "HDF5Data"
  top: "data"
  top: "label"
  include {
    phase: TEST
  }
  hdf5_data_param {
    source: "/home/purduethu/scratch/radon/d/deng106/CNNStatisticalModel/distributions/input/50_distributions_900_sample_size_test-distributions-path.txt"
    batch_size: 20
  }
}
layer {
  name: "conv1"
  type: "Convolution"
  bottom: "data"
  top: "conv1"
  param {
    lr_mult: 1
  }
  param {
    lr_mult: 2
  }
  convolution_param {
    num_output: 64
    pad: 2
    kernel_size: 5
    stride: 1
    weight_filler {
      type: "gaussian"
      std: 0.0001
    }
    bias_filler {
      type: "constant"
    }
  }
}
layer {
  name: "relu1"
  type: "ReLU"
  bottom: "conv1"
  top: "conv1"
}
layer {
  name: "conv2"
  type: "Convolution"
  bottom: "conv1"
  top: "conv2"
  param {
    lr_mult: 1
  }
  param {
    lr_mult: 2
  }
  convolution_param {
    num_output: 64
    pad: 2
    kernel_size: 5
    stride: 1
    weight_filler {
      type: "gaussian"
      std: 0.01
    }
    bias_filler {
      type: "constant"
    }
  }
}
layer {
  name: "relu2"
  type: "ReLU"
  bottom: "conv2"
  top: "conv2"
}
layer {
  name: "pool2"
  type: "Pooling"
  bottom: "conv2"
  top: "pool2"
  pooling_param {
    pool: MAX
    kernel_size: 3
    stride: 2
  }
}
layer {
  name: "conv3"
  type: "Convolution"
  bottom: "pool2"
  top: "conv3"
  param {
    lr_mult: 1
  }
  param {
    lr_mult: 2
  }
  convolution_param {
    num_output: 128
    pad: 2
    kernel_size: 5
    stride: 1
    weight_filler {
      type: "gaussian"
      std: 0.01
    }
    bias_filler {
      type: "constant"
    }
  }
}
layer {
  name: "relu3"
  type: "ReLU"
  bottom: "conv3"
  top: "conv3"
}
layer {
  name: "conv4"
  type: "Convolution"
  bottom: "conv3"
  top: "conv4"
  param {
    lr_mult: 1
  }
  param {
    lr_mult: 2
  }
  convolution_param {
    num_output: 128
    pad: 2
    kernel_size: 5
    stride: 1
    weight_filler {
      type: "gaussian"
      std: 0.01
    }
    bias_filler {
      type: "constant"
    }
  }
}
layer {
  name: "relu4"
  type: "ReLU"
  bottom: "conv4"
  top: "conv4"
}
layer {
  name: "conv5"
  type: "Convolution"
  bottom: "conv4"
  top: "conv5"
  param {
    lr_mult: 1
  }
  param {
    lr_mult: 2
  }
  convolution_param {
    num_output: 128
    pad: 2
    kernel_size: 5
    stride: 1
    weight_filler {
      type: "gaussian"
      std: 0.01
    }
    bias_filler {
      type: "constant"
    }
  }
}
layer {
  name: "relu5"
  type: "ReLU"
  bottom: "conv5"
  top: "conv5"
}
layer {
  name: "pool5"
  type: "Pooling"
  bottom: "conv5"
  top: "pool5"
  pooling_param {
    pool: AVE
    kernel_size: 3
    stride: 2
  }
}
layer {
  name: "ip1"
  type: "InnerProduct"
  bottom: "pool5"
  top: "ip1"
  param {
    lr_mult: 1
  }
  param {
    lr_mult: 2
  }
  inner_product_param {
    num_output: 1024
    weight_filler {
      type: "gaussian"
      std: 0.1
    }
    bias_filler {
      type: "constant"
    }
  }
}
layer {
  name: "ip2"
  type: "InnerProduct"
  bottom: "ip1"
  top: "ip2"
  param {
    lr_mult: 1
  }
  param {
    lr_mult: 2
  }
  inner_product_param {
    num_output: 512
    weight_filler {
      type: "gaussian"
      std: 0.1
    }
    bias_filler {
      type: "constant"
    }
  }
}
layer {
  name: "ip3"
  type: "InnerProduct"
  bottom: "ip2"
  top: "ip3"
  param {
    lr_mult: 1
  }
  param {
    lr_mult: 2
  }
  inner_product_param {
    num_output: 50
    weight_filler {
      type: "gaussian"
      std: 0.1
    }
    bias_filler {
      type: "constant"
    }
  }
}
layer {
  name: "accuracy"
  type: "Accuracy"
  bottom: "ip3"
  bottom: "label"
  top: "accuracy"
  include {
    phase: TEST
  }
}
layer {
  name: "loss"
  type: "SoftmaxWithLoss"
  bottom: "ip3"
  bottom: "label"
  top: "loss"
}
I0430 22:05:41.844584 26267 layer_factory.hpp:77] Creating layer intercept
I0430 22:05:41.844595 26267 net.cpp:94] Creating Layer intercept
I0430 22:05:41.844599 26267 net.cpp:409] intercept -> data
I0430 22:05:41.844607 26267 net.cpp:409] intercept -> label
I0430 22:05:41.844614 26267 hdf5_data_layer.cpp:79] Loading list of HDF5 filenames from: /home/purduethu/scratch/radon/d/deng106/CNNStatisticalModel/distributions/input/50_distributions_900_sample_size_test-distributions-path.txt
I0430 22:05:41.844635 26267 hdf5_data_layer.cpp:93] Number of HDF5 files: 1
I0430 22:05:42.211729 26267 net.cpp:144] Setting up intercept
I0430 22:05:42.211763 26267 net.cpp:151] Top shape: 20 1 30 30 (18000)
I0430 22:05:42.211768 26267 net.cpp:151] Top shape: 20 (20)
I0430 22:05:42.211772 26267 net.cpp:159] Memory required for data: 72080
I0430 22:05:42.211778 26267 layer_factory.hpp:77] Creating layer label_intercept_1_split
I0430 22:05:42.211798 26267 net.cpp:94] Creating Layer label_intercept_1_split
I0430 22:05:42.211802 26267 net.cpp:435] label_intercept_1_split <- label
I0430 22:05:42.211808 26267 net.cpp:409] label_intercept_1_split -> label_intercept_1_split_0
I0430 22:05:42.211817 26267 net.cpp:409] label_intercept_1_split -> label_intercept_1_split_1
I0430 22:05:42.211866 26267 net.cpp:144] Setting up label_intercept_1_split
I0430 22:05:42.211874 26267 net.cpp:151] Top shape: 20 (20)
I0430 22:05:42.211877 26267 net.cpp:151] Top shape: 20 (20)
I0430 22:05:42.211880 26267 net.cpp:159] Memory required for data: 72240
I0430 22:05:42.211884 26267 layer_factory.hpp:77] Creating layer conv1
I0430 22:05:42.211895 26267 net.cpp:94] Creating Layer conv1
I0430 22:05:42.211899 26267 net.cpp:435] conv1 <- data
I0430 22:05:42.211904 26267 net.cpp:409] conv1 -> conv1
I0430 22:05:42.213490 26267 net.cpp:144] Setting up conv1
I0430 22:05:42.213508 26267 net.cpp:151] Top shape: 20 64 30 30 (1152000)
I0430 22:05:42.213512 26267 net.cpp:159] Memory required for data: 4680240
I0430 22:05:42.213522 26267 layer_factory.hpp:77] Creating layer relu1
I0430 22:05:42.213531 26267 net.cpp:94] Creating Layer relu1
I0430 22:05:42.213534 26267 net.cpp:435] relu1 <- conv1
I0430 22:05:42.213538 26267 net.cpp:396] relu1 -> conv1 (in-place)
I0430 22:05:42.213546 26267 net.cpp:144] Setting up relu1
I0430 22:05:42.213551 26267 net.cpp:151] Top shape: 20 64 30 30 (1152000)
I0430 22:05:42.213553 26267 net.cpp:159] Memory required for data: 9288240
I0430 22:05:42.213557 26267 layer_factory.hpp:77] Creating layer conv2
I0430 22:05:42.213567 26267 net.cpp:94] Creating Layer conv2
I0430 22:05:42.213569 26267 net.cpp:435] conv2 <- conv1
I0430 22:05:42.213578 26267 net.cpp:409] conv2 -> conv2
I0430 22:05:42.221354 26267 net.cpp:144] Setting up conv2
I0430 22:05:42.221382 26267 net.cpp:151] Top shape: 20 64 30 30 (1152000)
I0430 22:05:42.221386 26267 net.cpp:159] Memory required for data: 13896240
I0430 22:05:42.221398 26267 layer_factory.hpp:77] Creating layer relu2
I0430 22:05:42.221407 26267 net.cpp:94] Creating Layer relu2
I0430 22:05:42.221411 26267 net.cpp:435] relu2 <- conv2
I0430 22:05:42.221416 26267 net.cpp:396] relu2 -> conv2 (in-place)
I0430 22:05:42.221426 26267 net.cpp:144] Setting up relu2
I0430 22:05:42.221429 26267 net.cpp:151] Top shape: 20 64 30 30 (1152000)
I0430 22:05:42.221432 26267 net.cpp:159] Memory required for data: 18504240
I0430 22:05:42.221436 26267 layer_factory.hpp:77] Creating layer pool2
I0430 22:05:42.221442 26267 net.cpp:94] Creating Layer pool2
I0430 22:05:42.221446 26267 net.cpp:435] pool2 <- conv2
I0430 22:05:42.221451 26267 net.cpp:409] pool2 -> pool2
I0430 22:05:42.221524 26267 net.cpp:144] Setting up pool2
I0430 22:05:42.221531 26267 net.cpp:151] Top shape: 20 64 15 15 (288000)
I0430 22:05:42.221534 26267 net.cpp:159] Memory required for data: 19656240
I0430 22:05:42.221537 26267 layer_factory.hpp:77] Creating layer conv3
I0430 22:05:42.221549 26267 net.cpp:94] Creating Layer conv3
I0430 22:05:42.221551 26267 net.cpp:435] conv3 <- pool2
I0430 22:05:42.221557 26267 net.cpp:409] conv3 -> conv3
I0430 22:05:42.229571 26267 net.cpp:144] Setting up conv3
I0430 22:05:42.229611 26267 net.cpp:151] Top shape: 20 128 15 15 (576000)
I0430 22:05:42.229615 26267 net.cpp:159] Memory required for data: 21960240
I0430 22:05:42.229630 26267 layer_factory.hpp:77] Creating layer relu3
I0430 22:05:42.229652 26267 net.cpp:94] Creating Layer relu3
I0430 22:05:42.229657 26267 net.cpp:435] relu3 <- conv3
I0430 22:05:42.229663 26267 net.cpp:396] relu3 -> conv3 (in-place)
I0430 22:05:42.229674 26267 net.cpp:144] Setting up relu3
I0430 22:05:42.229678 26267 net.cpp:151] Top shape: 20 128 15 15 (576000)
I0430 22:05:42.229681 26267 net.cpp:159] Memory required for data: 24264240
I0430 22:05:42.229686 26267 layer_factory.hpp:77] Creating layer conv4
I0430 22:05:42.229697 26267 net.cpp:94] Creating Layer conv4
I0430 22:05:42.229701 26267 net.cpp:435] conv4 <- conv3
I0430 22:05:42.229707 26267 net.cpp:409] conv4 -> conv4
I0430 22:05:42.246352 26267 net.cpp:144] Setting up conv4
I0430 22:05:42.246392 26267 net.cpp:151] Top shape: 20 128 15 15 (576000)
I0430 22:05:42.246397 26267 net.cpp:159] Memory required for data: 26568240
I0430 22:05:42.246408 26267 layer_factory.hpp:77] Creating layer relu4
I0430 22:05:42.246420 26267 net.cpp:94] Creating Layer relu4
I0430 22:05:42.246425 26267 net.cpp:435] relu4 <- conv4
I0430 22:05:42.246431 26267 net.cpp:396] relu4 -> conv4 (in-place)
I0430 22:05:42.246443 26267 net.cpp:144] Setting up relu4
I0430 22:05:42.246448 26267 net.cpp:151] Top shape: 20 128 15 15 (576000)
I0430 22:05:42.246450 26267 net.cpp:159] Memory required for data: 28872240
I0430 22:05:42.246454 26267 layer_factory.hpp:77] Creating layer conv5
I0430 22:05:42.246466 26267 net.cpp:94] Creating Layer conv5
I0430 22:05:42.246469 26267 net.cpp:435] conv5 <- conv4
I0430 22:05:42.246481 26267 net.cpp:409] conv5 -> conv5
I0430 22:05:42.262593 26267 net.cpp:144] Setting up conv5
I0430 22:05:42.262627 26267 net.cpp:151] Top shape: 20 128 15 15 (576000)
I0430 22:05:42.262632 26267 net.cpp:159] Memory required for data: 31176240
I0430 22:05:42.262647 26267 layer_factory.hpp:77] Creating layer relu5
I0430 22:05:42.262658 26267 net.cpp:94] Creating Layer relu5
I0430 22:05:42.262663 26267 net.cpp:435] relu5 <- conv5
I0430 22:05:42.262668 26267 net.cpp:396] relu5 -> conv5 (in-place)
I0430 22:05:42.262678 26267 net.cpp:144] Setting up relu5
I0430 22:05:42.262682 26267 net.cpp:151] Top shape: 20 128 15 15 (576000)
I0430 22:05:42.262686 26267 net.cpp:159] Memory required for data: 33480240
I0430 22:05:42.262688 26267 layer_factory.hpp:77] Creating layer pool5
I0430 22:05:42.262696 26267 net.cpp:94] Creating Layer pool5
I0430 22:05:42.262699 26267 net.cpp:435] pool5 <- conv5
I0430 22:05:42.262703 26267 net.cpp:409] pool5 -> pool5
I0430 22:05:42.262810 26267 net.cpp:144] Setting up pool5
I0430 22:05:42.262817 26267 net.cpp:151] Top shape: 20 128 7 7 (125440)
I0430 22:05:42.262820 26267 net.cpp:159] Memory required for data: 33982000
I0430 22:05:42.262823 26267 layer_factory.hpp:77] Creating layer ip1
I0430 22:05:42.262831 26267 net.cpp:94] Creating Layer ip1
I0430 22:05:42.262835 26267 net.cpp:435] ip1 <- pool5
I0430 22:05:42.262840 26267 net.cpp:409] ip1 -> ip1
I0430 22:05:42.422888 26267 net.cpp:144] Setting up ip1
I0430 22:05:42.422924 26267 net.cpp:151] Top shape: 20 1024 (20480)
I0430 22:05:42.422929 26267 net.cpp:159] Memory required for data: 34063920
I0430 22:05:42.422937 26267 layer_factory.hpp:77] Creating layer ip2
I0430 22:05:42.422948 26267 net.cpp:94] Creating Layer ip2
I0430 22:05:42.422952 26267 net.cpp:435] ip2 <- ip1
I0430 22:05:42.422961 26267 net.cpp:409] ip2 -> ip2
I0430 22:05:42.436683 26267 net.cpp:144] Setting up ip2
I0430 22:05:42.436719 26267 net.cpp:151] Top shape: 20 512 (10240)
I0430 22:05:42.436723 26267 net.cpp:159] Memory required for data: 34104880
I0430 22:05:42.436733 26267 layer_factory.hpp:77] Creating layer ip3
I0430 22:05:42.436749 26267 net.cpp:94] Creating Layer ip3
I0430 22:05:42.436753 26267 net.cpp:435] ip3 <- ip2
I0430 22:05:42.436760 26267 net.cpp:409] ip3 -> ip3
I0430 22:05:42.437547 26267 net.cpp:144] Setting up ip3
I0430 22:05:42.437556 26267 net.cpp:151] Top shape: 20 50 (1000)
I0430 22:05:42.437561 26267 net.cpp:159] Memory required for data: 34108880
I0430 22:05:42.437566 26267 layer_factory.hpp:77] Creating layer ip3_ip3_0_split
I0430 22:05:42.437572 26267 net.cpp:94] Creating Layer ip3_ip3_0_split
I0430 22:05:42.437574 26267 net.cpp:435] ip3_ip3_0_split <- ip3
I0430 22:05:42.437579 26267 net.cpp:409] ip3_ip3_0_split -> ip3_ip3_0_split_0
I0430 22:05:42.437584 26267 net.cpp:409] ip3_ip3_0_split -> ip3_ip3_0_split_1
I0430 22:05:42.437633 26267 net.cpp:144] Setting up ip3_ip3_0_split
I0430 22:05:42.437640 26267 net.cpp:151] Top shape: 20 50 (1000)
I0430 22:05:42.437644 26267 net.cpp:151] Top shape: 20 50 (1000)
I0430 22:05:42.437647 26267 net.cpp:159] Memory required for data: 34116880
I0430 22:05:42.437650 26267 layer_factory.hpp:77] Creating layer accuracy
I0430 22:05:42.437656 26267 net.cpp:94] Creating Layer accuracy
I0430 22:05:42.437659 26267 net.cpp:435] accuracy <- ip3_ip3_0_split_0
I0430 22:05:42.437664 26267 net.cpp:435] accuracy <- label_intercept_1_split_0
I0430 22:05:42.437669 26267 net.cpp:409] accuracy -> accuracy
…
