…
I0503 16:10:10.078832 21246 net.cpp:323] The NetState phase (0) differed from the phase (1) specified by a rule in layer intercept
I0503 16:10:10.078848 21246 net.cpp:323] The NetState phase (0) differed from the phase (1) specified by a rule in layer accuracy
I0503 16:10:10.078941 21246 net.cpp:52] Initializing net from parameters: 
state {
  phase: TRAIN
}
layer {
  name: "parameters"
  type: "HDF5Data"
  top: "data"
  top: "label"
  include {
    phase: TRAIN
  }
  hdf5_data_param {
    source: "/home/purduethu/scratch/radon/d/deng106/CNNStatisticalModel/distributions/input/5_distributions_900_sample_size_train-distributions-path.txt"
    batch_size: 20
  }
}
layer {
  name: "conv1"
  type: "Convolution"
  bottom: "data"
  top: "conv1"
  param {
    lr_mult: 1
  }
  param {
    lr_mult: 2
  }
  convolution_param {
    num_output: 64
    pad: 2
    kernel_size: 5
    stride: 1
    weight_filler {
      type: "gaussian"
      std: 0.0001
    }
    bias_filler {
      type: "constant"
    }
  }
}
layer {
  name: "relu1"
  type: "ReLU"
  bottom: "conv1"
  top: "conv1"
}
layer {
  name: "conv2"
  type: "Convolution"
  bottom: "conv1"
  top: "conv2"
  param {
    lr_mult: 1
  }
  param {
    lr_mult: 2
  }
  convolution_param {
    num_output: 64
    pad: 2
    kernel_size: 5
    stride: 1
    weight_filler {
      type: "gaussian"
      std: 0.01
    }
    bias_filler {
      type: "constant"
    }
  }
}
layer {
  name: "relu2"
  type: "ReLU"
  bottom: "conv2"
  top: "conv2"
}
layer {
  name: "pool2"
  type: "Pooling"
  bottom: "conv2"
  top: "pool2"
  pooling_param {
    pool: MAX
    kernel_size: 3
    stride: 2
  }
}
layer {
  name: "conv3"
  type: "Convolution"
  bottom: "pool2"
  top: "conv3"
  param {
    lr_mult: 1
  }
  param {
    lr_mult: 2
  }
  convolution_param {
    num_output: 128
    pad: 2
    kernel_size: 5
    stride: 1
    weight_filler {
      type: "gaussian"
      std: 0.01
    }
    bias_filler {
      type: "constant"
    }
  }
}
layer {
  name: "relu3"
  type: "ReLU"
  bottom: "conv3"
  top: "conv3"
}
layer {
  name: "conv4"
  type: "Convolution"
  bottom: "conv3"
  top: "conv4"
  param {
    lr_mult: 1
  }
  param {
    lr_mult: 2
  }
  convolution_param {
    num_output: 128
    pad: 2
    kernel_size: 5
    stride: 1
    weight_filler {
      type: "gaussian"
      std: 0.01
    }
    bias_filler {
      type: "constant"
    }
  }
}
layer {
  name: "relu4"
  type: "ReLU"
  bottom: "conv4"
  top: "conv4"
}
layer {
  name: "conv5"
  type: "Convolution"
  bottom: "conv4"
  top: "conv5"
  param {
    lr_mult: 1
  }
  param {
    lr_mult: 2
  }
  convolution_param {
    num_output: 128
    pad: 2
    kernel_size: 5
    stride: 1
    weight_filler {
      type: "gaussian"
      std: 0.01
    }
    bias_filler {
      type: "constant"
    }
  }
}
layer {
  name: "relu5"
  type: "ReLU"
  bottom: "conv5"
  top: "conv5"
}
layer {
  name: "pool5"
  type: "Pooling"
  bottom: "conv5"
  top: "pool5"
  pooling_param {
    pool: AVE
    kernel_size: 3
    stride: 2
  }
}
layer {
  name: "ip1"
  type: "InnerProduct"
  bottom: "pool5"
  top: "ip1"
  param {
    lr_mult: 1
  }
  param {
    lr_mult: 2
  }
  inner_product_param {
    num_output: 1024
    weight_filler {
      type: "gaussian"
      std: 0.1
    }
    bias_filler {
      type: "constant"
    }
  }
}
layer {
  name: "ip2"
  type: "InnerProduct"
  bottom: "ip1"
  top: "ip2"
  param {
    lr_mult: 1
  }
  param {
    lr_mult: 2
  }
  inner_product_param {
    num_output: 512
    weight_filler {
      type: "gaussian"
      std: 0.1
    }
    bias_filler {
      type: "constant"
    }
  }
}
layer {
  name: "ip3"
  type: "InnerProduct"
  bottom: "ip2"
  top: "ip3"
  param {
    lr_mult: 1
  }
  param {
    lr_mult: 2
  }
  inner_product_param {
    num_output: 50
    weight_filler {
      type: "gaussian"
      std: 0.1
    }
    bias_filler {
      type: "constant"
    }
  }
}
layer {
  name: "loss"
  type: "SoftmaxWithLoss"
  bottom: "ip3"
  bottom: "label"
  top: "loss"
}
I0503 16:10:10.079012 21246 layer_factory.hpp:77] Creating layer parameters
I0503 16:10:10.079027 21246 net.cpp:94] Creating Layer parameters
I0503 16:10:10.079032 21246 net.cpp:409] parameters -> data
I0503 16:10:10.079051 21246 net.cpp:409] parameters -> label
I0503 16:10:10.079061 21246 hdf5_data_layer.cpp:79] Loading list of HDF5 filenames from: /home/purduethu/scratch/radon/d/deng106/CNNStatisticalModel/distributions/input/5_distributions_900_sample_size_train-distributions-path.txt
I0503 16:10:10.079083 21246 hdf5_data_layer.cpp:93] Number of HDF5 files: 1
I0503 16:10:10.079637 21246 hdf5.cpp:32] Datatype class: H5T_FLOAT
I0503 16:10:10.213114 21246 hdf5.cpp:35] Datatype class: H5T_INTEGER
I0503 16:10:10.214221 21246 net.cpp:144] Setting up parameters
I0503 16:10:10.214238 21246 net.cpp:151] Top shape: 20 1 30 30 (18000)
I0503 16:10:10.214244 21246 net.cpp:151] Top shape: 20 (20)
I0503 16:10:10.214248 21246 net.cpp:159] Memory required for data: 72080
I0503 16:10:10.214256 21246 layer_factory.hpp:77] Creating layer conv1
I0503 16:10:10.214279 21246 net.cpp:94] Creating Layer conv1
I0503 16:10:10.214285 21246 net.cpp:435] conv1 <- data
I0503 16:10:10.214296 21246 net.cpp:409] conv1 -> conv1
I0503 16:10:10.225069 21246 net.cpp:144] Setting up conv1
I0503 16:10:10.225087 21246 net.cpp:151] Top shape: 20 64 30 30 (1152000)
I0503 16:10:10.225091 21246 net.cpp:159] Memory required for data: 4680080
I0503 16:10:10.225103 21246 layer_factory.hpp:77] Creating layer relu1
I0503 16:10:10.225111 21246 net.cpp:94] Creating Layer relu1
I0503 16:10:10.225116 21246 net.cpp:435] relu1 <- conv1
I0503 16:10:10.225121 21246 net.cpp:396] relu1 -> conv1 (in-place)
I0503 16:10:10.225136 21246 net.cpp:144] Setting up relu1
I0503 16:10:10.225142 21246 net.cpp:151] Top shape: 20 64 30 30 (1152000)
I0503 16:10:10.225145 21246 net.cpp:159] Memory required for data: 9288080
I0503 16:10:10.225148 21246 layer_factory.hpp:77] Creating layer conv2
I0503 16:10:10.225157 21246 net.cpp:94] Creating Layer conv2
I0503 16:10:10.225160 21246 net.cpp:435] conv2 <- conv1
I0503 16:10:10.225165 21246 net.cpp:409] conv2 -> conv2
I0503 16:10:10.240487 21246 net.cpp:144] Setting up conv2
I0503 16:10:10.240510 21246 net.cpp:151] Top shape: 20 64 30 30 (1152000)
I0503 16:10:10.240517 21246 net.cpp:159] Memory required for data: 13896080
I0503 16:10:10.240530 21246 layer_factory.hpp:77] Creating layer relu2
I0503 16:10:10.240541 21246 net.cpp:94] Creating Layer relu2
I0503 16:10:10.240547 21246 net.cpp:435] relu2 <- conv2
I0503 16:10:10.240568 21246 net.cpp:396] relu2 -> conv2 (in-place)
I0503 16:10:10.240581 21246 net.cpp:144] Setting up relu2
I0503 16:10:10.240588 21246 net.cpp:151] Top shape: 20 64 30 30 (1152000)
I0503 16:10:10.240593 21246 net.cpp:159] Memory required for data: 18504080
I0503 16:10:10.240598 21246 layer_factory.hpp:77] Creating layer pool2
I0503 16:10:10.240618 21246 net.cpp:94] Creating Layer pool2
I0503 16:10:10.240625 21246 net.cpp:435] pool2 <- conv2
I0503 16:10:10.240633 21246 net.cpp:409] pool2 -> pool2
I0503 16:10:10.240705 21246 net.cpp:144] Setting up pool2
I0503 16:10:10.240713 21246 net.cpp:151] Top shape: 20 64 15 15 (288000)
I0503 16:10:10.240716 21246 net.cpp:159] Memory required for data: 19656080
I0503 16:10:10.240720 21246 layer_factory.hpp:77] Creating layer conv3
I0503 16:10:10.240728 21246 net.cpp:94] Creating Layer conv3
I0503 16:10:10.240732 21246 net.cpp:435] conv3 <- pool2
I0503 16:10:10.240746 21246 net.cpp:409] conv3 -> conv3
I0503 16:10:10.252986 21246 net.cpp:144] Setting up conv3
I0503 16:10:10.253001 21246 net.cpp:151] Top shape: 20 128 15 15 (576000)
I0503 16:10:10.253006 21246 net.cpp:159] Memory required for data: 21960080
I0503 16:10:10.253015 21246 layer_factory.hpp:77] Creating layer relu3
I0503 16:10:10.253021 21246 net.cpp:94] Creating Layer relu3
I0503 16:10:10.253026 21246 net.cpp:435] relu3 <- conv3
I0503 16:10:10.253029 21246 net.cpp:396] relu3 -> conv3 (in-place)
I0503 16:10:10.253037 21246 net.cpp:144] Setting up relu3
I0503 16:10:10.253042 21246 net.cpp:151] Top shape: 20 128 15 15 (576000)
I0503 16:10:10.253046 21246 net.cpp:159] Memory required for data: 24264080
I0503 16:10:10.253048 21246 layer_factory.hpp:77] Creating layer conv4
I0503 16:10:10.253057 21246 net.cpp:94] Creating Layer conv4
I0503 16:10:10.253060 21246 net.cpp:435] conv4 <- conv3
I0503 16:10:10.253067 21246 net.cpp:409] conv4 -> conv4
I0503 16:10:10.274675 21246 net.cpp:144] Setting up conv4
I0503 16:10:10.274691 21246 net.cpp:151] Top shape: 20 128 15 15 (576000)
I0503 16:10:10.274695 21246 net.cpp:159] Memory required for data: 26568080
I0503 16:10:10.274703 21246 layer_factory.hpp:77] Creating layer relu4
I0503 16:10:10.274708 21246 net.cpp:94] Creating Layer relu4
I0503 16:10:10.274713 21246 net.cpp:435] relu4 <- conv4
I0503 16:10:10.274718 21246 net.cpp:396] relu4 -> conv4 (in-place)
I0503 16:10:10.274725 21246 net.cpp:144] Setting up relu4
I0503 16:10:10.274729 21246 net.cpp:151] Top shape: 20 128 15 15 (576000)
I0503 16:10:10.274734 21246 net.cpp:159] Memory required for data: 28872080
I0503 16:10:10.274736 21246 layer_factory.hpp:77] Creating layer conv5
I0503 16:10:10.274744 21246 net.cpp:94] Creating Layer conv5
I0503 16:10:10.274749 21246 net.cpp:435] conv5 <- conv4
I0503 16:10:10.274754 21246 net.cpp:409] conv5 -> conv5
I0503 16:10:10.295923 21246 net.cpp:144] Setting up conv5
I0503 16:10:10.295938 21246 net.cpp:151] Top shape: 20 128 15 15 (576000)
I0503 16:10:10.295943 21246 net.cpp:159] Memory required for data: 31176080
I0503 16:10:10.295953 21246 layer_factory.hpp:77] Creating layer relu5
I0503 16:10:10.295959 21246 net.cpp:94] Creating Layer relu5
I0503 16:10:10.295964 21246 net.cpp:435] relu5 <- conv5
I0503 16:10:10.295969 21246 net.cpp:396] relu5 -> conv5 (in-place)
I0503 16:10:10.295975 21246 net.cpp:144] Setting up relu5
I0503 16:10:10.295980 21246 net.cpp:151] Top shape: 20 128 15 15 (576000)
I0503 16:10:10.295984 21246 net.cpp:159] Memory required for data: 33480080
I0503 16:10:10.295986 21246 layer_factory.hpp:77] Creating layer pool5
I0503 16:10:10.295991 21246 net.cpp:94] Creating Layer pool5
I0503 16:10:10.295995 21246 net.cpp:435] pool5 <- conv5
I0503 16:10:10.296000 21246 net.cpp:409] pool5 -> pool5
I0503 16:10:10.296035 21246 net.cpp:144] Setting up pool5
I0503 16:10:10.296042 21246 net.cpp:151] Top shape: 20 128 7 7 (125440)
I0503 16:10:10.296046 21246 net.cpp:159] Memory required for data: 33981840
I0503 16:10:10.296049 21246 layer_factory.hpp:77] Creating layer ip1
I0503 16:10:10.296059 21246 net.cpp:94] Creating Layer ip1
I0503 16:10:10.296062 21246 net.cpp:435] ip1 <- pool5
I0503 16:10:10.296068 21246 net.cpp:409] ip1 -> ip1
I0503 16:10:10.450995 21246 net.cpp:144] Setting up ip1
I0503 16:10:10.451020 21246 net.cpp:151] Top shape: 20 1024 (20480)
I0503 16:10:10.451025 21246 net.cpp:159] Memory required for data: 34063760
I0503 16:10:10.451033 21246 layer_factory.hpp:77] Creating layer ip2
I0503 16:10:10.451053 21246 net.cpp:94] Creating Layer ip2
I0503 16:10:10.451059 21246 net.cpp:435] ip2 <- ip1
I0503 16:10:10.451066 21246 net.cpp:409] ip2 -> ip2
I0503 16:10:10.464049 21246 net.cpp:144] Setting up ip2
I0503 16:10:10.464062 21246 net.cpp:151] Top shape: 20 512 (10240)
I0503 16:10:10.464067 21246 net.cpp:159] Memory required for data: 34104720
I0503 16:10:10.464073 21246 layer_factory.hpp:77] Creating layer ip3
I0503 16:10:10.464079 21246 net.cpp:94] Creating Layer ip3
I0503 16:10:10.464083 21246 net.cpp:435] ip3 <- ip2
I0503 16:10:10.464088 21246 net.cpp:409] ip3 -> ip3
I0503 16:10:10.464793 21246 net.cpp:144] Setting up ip3
I0503 16:10:10.464802 21246 net.cpp:151] Top shape: 20 50 (1000)
I0503 16:10:10.464805 21246 net.cpp:159] Memory required for data: 34108720
I0503 16:10:10.464812 21246 layer_factory.hpp:77] Creating layer loss
I0503 16:10:10.464819 21246 net.cpp:94] Creating Layer loss
I0503 16:10:10.464823 21246 net.cpp:435] loss <- ip3
I0503 16:10:10.464828 21246 net.cpp:435] loss <- label
I0503 16:10:10.464833 21246 net.cpp:409] loss -> loss
I0503 16:10:10.464844 21246 layer_factory.hpp:77] Creating layer loss
…
I0503 16:10:10.465349 21246 solver.cpp:181] Creating test net (#0) specified by net file: ./protocol/dis_5_900_dimension.protocol_distribution
I0503 16:10:10.465376 21246 net.cpp:323] The NetState phase (1) differed from the phase (0) specified by a rule in layer parameters
I0503 16:10:10.465476 21246 net.cpp:52] Initializing net from parameters: 
state {
  phase: TEST
}
layer {
  name: "intercept"
  type: "HDF5Data"
  top: "data"
  top: "label"
  include {
    phase: TEST
  }
  hdf5_data_param {
    source: "/home/purduethu/scratch/radon/d/deng106/CNNStatisticalModel/distributions/input/5_distributions_900_sample_size_test-distributions-path.txt"
    batch_size: 20
  }
}
layer {
  name: "conv1"
  type: "Convolution"
  bottom: "data"
  top: "conv1"
  param {
    lr_mult: 1
  }
  param {
    lr_mult: 2
  }
  convolution_param {
    num_output: 64
    pad: 2
    kernel_size: 5
    stride: 1
    weight_filler {
      type: "gaussian"
      std: 0.0001
    }
    bias_filler {
      type: "constant"
    }
  }
}
layer {
  name: "relu1"
  type: "ReLU"
  bottom: "conv1"
  top: "conv1"
}
layer {
  name: "conv2"
  type: "Convolution"
  bottom: "conv1"
  top: "conv2"
  param {
    lr_mult: 1
  }
  param {
    lr_mult: 2
  }
  convolution_param {
    num_output: 64
    pad: 2
    kernel_size: 5
    stride: 1
    weight_filler {
      type: "gaussian"
      std: 0.01
    }
    bias_filler {
      type: "constant"
    }
  }
}
layer {
  name: "relu2"
  type: "ReLU"
  bottom: "conv2"
  top: "conv2"
}
layer {
  name: "pool2"
  type: "Pooling"
  bottom: "conv2"
  top: "pool2"
  pooling_param {
    pool: MAX
    kernel_size: 3
    stride: 2
  }
}
layer {
  name: "conv3"
  type: "Convolution"
  bottom: "pool2"
  top: "conv3"
  param {
    lr_mult: 1
  }
  param {
    lr_mult: 2
  }
  convolution_param {
    num_output: 128
    pad: 2
    kernel_size: 5
    stride: 1
    weight_filler {
      type: "gaussian"
      std: 0.01
    }
    bias_filler {
      type: "constant"
    }
  }
}
layer {
  name: "relu3"
  type: "ReLU"
  bottom: "conv3"
  top: "conv3"
}
layer {
  name: "conv4"
  type: "Convolution"
  bottom: "conv3"
  top: "conv4"
  param {
    lr_mult: 1
  }
  param {
    lr_mult: 2
  }
  convolution_param {
    num_output: 128
    pad: 2
    kernel_size: 5
    stride: 1
    weight_filler {
      type: "gaussian"
      std: 0.01
    }
    bias_filler {
      type: "constant"
    }
  }
}
layer {
  name: "relu4"
  type: "ReLU"
  bottom: "conv4"
  top: "conv4"
}
layer {
  name: "conv5"
  type: "Convolution"
  bottom: "conv4"
  top: "conv5"
  param {
    lr_mult: 1
  }
  param {
    lr_mult: 2
  }
  convolution_param {
    num_output: 128
    pad: 2
    kernel_size: 5
    stride: 1
    weight_filler {
      type: "gaussian"
      std: 0.01
    }
    bias_filler {
      type: "constant"
    }
  }
}
layer {
  name: "relu5"
  type: "ReLU"
  bottom: "conv5"
  top: "conv5"
}
layer {
  name: "pool5"
  type: "Pooling"
  bottom: "conv5"
  top: "pool5"
  pooling_param {
    pool: AVE
    kernel_size: 3
    stride: 2
  }
}
layer {
  name: "ip1"
  type: "InnerProduct"
  bottom: "pool5"
  top: "ip1"
  param {
    lr_mult: 1
  }
  param {
    lr_mult: 2
  }
  inner_product_param {
    num_output: 1024
    weight_filler {
      type: "gaussian"
      std: 0.1
    }
    bias_filler {
      type: "constant"
    }
  }
}
layer {
  name: "ip2"
  type: "InnerProduct"
  bottom: "ip1"
  top: "ip2"
  param {
    lr_mult: 1
  }
  param {
    lr_mult: 2
  }
  inner_product_param {
    num_output: 512
    weight_filler {
      type: "gaussian"
      std: 0.1
    }
    bias_filler {
      type: "constant"
    }
  }
}
layer {
  name: "ip3"
  type: "InnerProduct"
  bottom: "ip2"
  top: "ip3"
  param {
    lr_mult: 1
  }
  param {
    lr_mult: 2
  }
  inner_product_param {
    num_output: 50
    weight_filler {
      type: "gaussian"
      std: 0.1
    }
    bias_filler {
      type: "constant"
    }
  }
}
layer {
  name: "accuracy"
  type: "Accuracy"
  bottom: "ip3"
  bottom: "label"
  top: "accuracy"
  include {
    phase: TEST
  }
}
layer {
  name: "loss"
  type: "SoftmaxWithLoss"
  bottom: "ip3"
  bottom: "label"
  top: "loss"
}
I0503 16:10:10.465545 21246 layer_factory.hpp:77] Creating layer intercept
I0503 16:10:10.465553 21246 net.cpp:94] Creating Layer intercept
I0503 16:10:10.465559 21246 net.cpp:409] intercept -> data
I0503 16:10:10.465565 21246 net.cpp:409] intercept -> label
I0503 16:10:10.465571 21246 hdf5_data_layer.cpp:79] Loading list of HDF5 filenames from: /home/purduethu/scratch/radon/d/deng106/CNNStatisticalModel/distributions/input/5_distributions_900_sample_size_test-distributions-path.txt
I0503 16:10:10.465590 21246 hdf5_data_layer.cpp:93] Number of HDF5 files: 1
I0503 16:10:10.500424 21246 net.cpp:144] Setting up intercept
I0503 16:10:10.500454 21246 net.cpp:151] Top shape: 20 1 30 30 (18000)
I0503 16:10:10.500460 21246 net.cpp:151] Top shape: 20 (20)
I0503 16:10:10.500464 21246 net.cpp:159] Memory required for data: 72080
I0503 16:10:10.500470 21246 layer_factory.hpp:77] Creating layer label_intercept_1_split
I0503 16:10:10.500486 21246 net.cpp:94] Creating Layer label_intercept_1_split
I0503 16:10:10.500491 21246 net.cpp:435] label_intercept_1_split <- label
I0503 16:10:10.500497 21246 net.cpp:409] label_intercept_1_split -> label_intercept_1_split_0
I0503 16:10:10.500505 21246 net.cpp:409] label_intercept_1_split -> label_intercept_1_split_1
I0503 16:10:10.500540 21246 net.cpp:144] Setting up label_intercept_1_split
I0503 16:10:10.500546 21246 net.cpp:151] Top shape: 20 (20)
I0503 16:10:10.500569 21246 net.cpp:151] Top shape: 20 (20)
I0503 16:10:10.500574 21246 net.cpp:159] Memory required for data: 72240
I0503 16:10:10.500577 21246 layer_factory.hpp:77] Creating layer conv1
I0503 16:10:10.500589 21246 net.cpp:94] Creating Layer conv1
I0503 16:10:10.500593 21246 net.cpp:435] conv1 <- data
I0503 16:10:10.500598 21246 net.cpp:409] conv1 -> conv1
I0503 16:10:10.501817 21246 net.cpp:144] Setting up conv1
I0503 16:10:10.501830 21246 net.cpp:151] Top shape: 20 64 30 30 (1152000)
I0503 16:10:10.501835 21246 net.cpp:159] Memory required for data: 4680240
I0503 16:10:10.501844 21246 layer_factory.hpp:77] Creating layer relu1
I0503 16:10:10.501852 21246 net.cpp:94] Creating Layer relu1
I0503 16:10:10.501855 21246 net.cpp:435] relu1 <- conv1
I0503 16:10:10.501859 21246 net.cpp:396] relu1 -> conv1 (in-place)
I0503 16:10:10.501866 21246 net.cpp:144] Setting up relu1
I0503 16:10:10.501871 21246 net.cpp:151] Top shape: 20 64 30 30 (1152000)
I0503 16:10:10.501874 21246 net.cpp:159] Memory required for data: 9288240
I0503 16:10:10.501878 21246 layer_factory.hpp:77] Creating layer conv2
I0503 16:10:10.501886 21246 net.cpp:94] Creating Layer conv2
I0503 16:10:10.501889 21246 net.cpp:435] conv2 <- conv1
I0503 16:10:10.501894 21246 net.cpp:409] conv2 -> conv2
I0503 16:10:10.508141 21246 net.cpp:144] Setting up conv2
I0503 16:10:10.508179 21246 net.cpp:151] Top shape: 20 64 30 30 (1152000)
I0503 16:10:10.508193 21246 net.cpp:159] Memory required for data: 13896240
I0503 16:10:10.508215 21246 layer_factory.hpp:77] Creating layer relu2
I0503 16:10:10.508241 21246 net.cpp:94] Creating Layer relu2
I0503 16:10:10.508245 21246 net.cpp:435] relu2 <- conv2
I0503 16:10:10.508250 21246 net.cpp:396] relu2 -> conv2 (in-place)
I0503 16:10:10.508257 21246 net.cpp:144] Setting up relu2
I0503 16:10:10.508262 21246 net.cpp:151] Top shape: 20 64 30 30 (1152000)
I0503 16:10:10.508265 21246 net.cpp:159] Memory required for data: 18504240
I0503 16:10:10.508268 21246 layer_factory.hpp:77] Creating layer pool2
I0503 16:10:10.508275 21246 net.cpp:94] Creating Layer pool2
I0503 16:10:10.508278 21246 net.cpp:435] pool2 <- conv2
I0503 16:10:10.508283 21246 net.cpp:409] pool2 -> pool2
I0503 16:10:10.508318 21246 net.cpp:144] Setting up pool2
I0503 16:10:10.508325 21246 net.cpp:151] Top shape: 20 64 15 15 (288000)
I0503 16:10:10.508328 21246 net.cpp:159] Memory required for data: 19656240
I0503 16:10:10.508332 21246 layer_factory.hpp:77] Creating layer conv3
I0503 16:10:10.508339 21246 net.cpp:94] Creating Layer conv3
I0503 16:10:10.508343 21246 net.cpp:435] conv3 <- pool2
I0503 16:10:10.508348 21246 net.cpp:409] conv3 -> conv3
I0503 16:10:10.515650 21246 net.cpp:144] Setting up conv3
I0503 16:10:10.515666 21246 net.cpp:151] Top shape: 20 128 15 15 (576000)
I0503 16:10:10.515671 21246 net.cpp:159] Memory required for data: 21960240
I0503 16:10:10.515679 21246 layer_factory.hpp:77] Creating layer relu3
I0503 16:10:10.515686 21246 net.cpp:94] Creating Layer relu3
I0503 16:10:10.515691 21246 net.cpp:435] relu3 <- conv3
I0503 16:10:10.515696 21246 net.cpp:396] relu3 -> conv3 (in-place)
I0503 16:10:10.515702 21246 net.cpp:144] Setting up relu3
I0503 16:10:10.515707 21246 net.cpp:151] Top shape: 20 128 15 15 (576000)
I0503 16:10:10.515710 21246 net.cpp:159] Memory required for data: 24264240
I0503 16:10:10.515713 21246 layer_factory.hpp:77] Creating layer conv4
I0503 16:10:10.515722 21246 net.cpp:94] Creating Layer conv4
I0503 16:10:10.515724 21246 net.cpp:435] conv4 <- conv3
I0503 16:10:10.515729 21246 net.cpp:409] conv4 -> conv4
I0503 16:10:10.530617 21246 net.cpp:144] Setting up conv4
I0503 16:10:10.530633 21246 net.cpp:151] Top shape: 20 128 15 15 (576000)
I0503 16:10:10.530637 21246 net.cpp:159] Memory required for data: 26568240
I0503 16:10:10.530644 21246 layer_factory.hpp:77] Creating layer relu4
I0503 16:10:10.530650 21246 net.cpp:94] Creating Layer relu4
I0503 16:10:10.530658 21246 net.cpp:435] relu4 <- conv4
I0503 16:10:10.530663 21246 net.cpp:396] relu4 -> conv4 (in-place)
I0503 16:10:10.530671 21246 net.cpp:144] Setting up relu4
I0503 16:10:10.530676 21246 net.cpp:151] Top shape: 20 128 15 15 (576000)
I0503 16:10:10.530679 21246 net.cpp:159] Memory required for data: 28872240
I0503 16:10:10.530683 21246 layer_factory.hpp:77] Creating layer conv5
I0503 16:10:10.530689 21246 net.cpp:94] Creating Layer conv5
I0503 16:10:10.530694 21246 net.cpp:435] conv5 <- conv4
I0503 16:10:10.530699 21246 net.cpp:409] conv5 -> conv5
I0503 16:10:10.545294 21246 net.cpp:144] Setting up conv5
I0503 16:10:10.545308 21246 net.cpp:151] Top shape: 20 128 15 15 (576000)
I0503 16:10:10.545312 21246 net.cpp:159] Memory required for data: 31176240
I0503 16:10:10.545321 21246 layer_factory.hpp:77] Creating layer relu5
I0503 16:10:10.545328 21246 net.cpp:94] Creating Layer relu5
I0503 16:10:10.545331 21246 net.cpp:435] relu5 <- conv5
I0503 16:10:10.545336 21246 net.cpp:396] relu5 -> conv5 (in-place)
I0503 16:10:10.545343 21246 net.cpp:144] Setting up relu5
I0503 16:10:10.545348 21246 net.cpp:151] Top shape: 20 128 15 15 (576000)
I0503 16:10:10.545351 21246 net.cpp:159] Memory required for data: 33480240
I0503 16:10:10.545354 21246 layer_factory.hpp:77] Creating layer pool5
I0503 16:10:10.545359 21246 net.cpp:94] Creating Layer pool5
I0503 16:10:10.545363 21246 net.cpp:435] pool5 <- conv5
I0503 16:10:10.545367 21246 net.cpp:409] pool5 -> pool5
I0503 16:10:10.545394 21246 net.cpp:144] Setting up pool5
I0503 16:10:10.545402 21246 net.cpp:151] Top shape: 20 128 7 7 (125440)
I0503 16:10:10.545404 21246 net.cpp:159] Memory required for data: 33982000
I0503 16:10:10.545408 21246 layer_factory.hpp:77] Creating layer ip1
I0503 16:10:10.545414 21246 net.cpp:94] Creating Layer ip1
I0503 16:10:10.545418 21246 net.cpp:435] ip1 <- pool5
I0503 16:10:10.545423 21246 net.cpp:409] ip1 -> ip1
I0503 16:10:10.700702 21246 net.cpp:144] Setting up ip1
I0503 16:10:10.700723 21246 net.cpp:151] Top shape: 20 1024 (20480)
I0503 16:10:10.700727 21246 net.cpp:159] Memory required for data: 34063920
I0503 16:10:10.700734 21246 layer_factory.hpp:77] Creating layer ip2
I0503 16:10:10.700745 21246 net.cpp:94] Creating Layer ip2
I0503 16:10:10.700750 21246 net.cpp:435] ip2 <- ip1
I0503 16:10:10.700758 21246 net.cpp:409] ip2 -> ip2
I0503 16:10:10.713729 21246 net.cpp:144] Setting up ip2
I0503 16:10:10.713742 21246 net.cpp:151] Top shape: 20 512 (10240)
I0503 16:10:10.713747 21246 net.cpp:159] Memory required for data: 34104880
I0503 16:10:10.713752 21246 layer_factory.hpp:77] Creating layer ip3
I0503 16:10:10.713762 21246 net.cpp:94] Creating Layer ip3
I0503 16:10:10.713765 21246 net.cpp:435] ip3 <- ip2
I0503 16:10:10.713770 21246 net.cpp:409] ip3 -> ip3
I0503 16:10:10.714442 21246 net.cpp:144] Setting up ip3
I0503 16:10:10.714449 21246 net.cpp:151] Top shape: 20 50 (1000)
I0503 16:10:10.714452 21246 net.cpp:159] Memory required for data: 34108880
I0503 16:10:10.714457 21246 layer_factory.hpp:77] Creating layer ip3_ip3_0_split
I0503 16:10:10.714463 21246 net.cpp:94] Creating Layer ip3_ip3_0_split
I0503 16:10:10.714467 21246 net.cpp:435] ip3_ip3_0_split <- ip3
I0503 16:10:10.714471 21246 net.cpp:409] ip3_ip3_0_split -> ip3_ip3_0_split_0
I0503 16:10:10.714476 21246 net.cpp:409] ip3_ip3_0_split -> ip3_ip3_0_split_1
I0503 16:10:10.714501 21246 net.cpp:144] Setting up ip3_ip3_0_split
I0503 16:10:10.714506 21246 net.cpp:151] Top shape: 20 50 (1000)
I0503 16:10:10.714510 21246 net.cpp:151] Top shape: 20 50 (1000)
I0503 16:10:10.714514 21246 net.cpp:159] Memory required for data: 34116880
I0503 16:10:10.714516 21246 layer_factory.hpp:77] Creating layer accuracy
I0503 16:10:10.714524 21246 net.cpp:94] Creating Layer accuracy
I0503 16:10:10.714526 21246 net.cpp:435] accuracy <- ip3_ip3_0_split_0
I0503 16:10:10.714530 21246 net.cpp:435] accuracy <- label_intercept_1_split_0
I0503 16:10:10.714535 21246 net.cpp:409] accuracy -> accuracy
…
