…
I0506 23:46:52.471618 28670 net.cpp:323] The NetState phase (0) differed from the phase (1) specified by a rule in layer intercept
I0506 23:46:52.471634 28670 net.cpp:323] The NetState phase (0) differed from the phase (1) specified by a rule in layer loss
I0506 23:46:52.471714 28670 net.cpp:52] Initializing net from parameters: 
state {
  phase: TRAIN
}
layer {
  name: "parameters"
  type: "HDF5Data"
  top: "data"
  top: "label"
  include {
    phase: TRAIN
  }
  hdf5_data_param {
    source: "/home/purduethu/scratch/radon/d/deng106/CNNStatisticalModel/distributions/input/50_distributions_100_sample_size_train-parameters-path.txt"
    batch_size: 20
  }
}
layer {
  name: "conv1"
  type: "Convolution"
  bottom: "data"
  top: "conv1"
  param {
    lr_mult: 1
  }
  param {
    lr_mult: 2
  }
  convolution_param {
    num_output: 64
    pad: 2
    kernel_size: 5
    stride: 1
    weight_filler {
      type: "gaussian"
      std: 0.0001
    }
    bias_filler {
      type: "constant"
    }
  }
}
layer {
  name: "relu1"
  type: "ReLU"
  bottom: "conv1"
  top: "conv1"
}
layer {
  name: "conv2"
  type: "Convolution"
  bottom: "conv1"
  top: "conv2"
  param {
    lr_mult: 1
  }
  param {
    lr_mult: 2
  }
  convolution_param {
    num_output: 64
    pad: 2
    kernel_size: 5
    stride: 1
    weight_filler {
      type: "gaussian"
      std: 0.01
    }
    bias_filler {
      type: "constant"
    }
  }
}
layer {
  name: "relu2"
  type: "ReLU"
  bottom: "conv2"
  top: "conv2"
}
layer {
  name: "pool2"
  type: "Pooling"
  bottom: "conv2"
  top: "pool2"
  pooling_param {
    pool: MAX
    kernel_size: 3
    stride: 2
  }
}
layer {
  name: "conv3"
  type: "Convolution"
  bottom: "pool2"
  top: "conv3"
  param {
    lr_mult: 1
  }
  param {
    lr_mult: 2
  }
  convolution_param {
    num_output: 64
    pad: 2
    kernel_size: 5
    stride: 1
    weight_filler {
      type: "gaussian"
      std: 0.01
    }
    bias_filler {
      type: "constant"
    }
  }
}
layer {
  name: "relu3"
  type: "ReLU"
  bottom: "conv3"
  top: "conv3"
}
layer {
  name: "conv4"
  type: "Convolution"
  bottom: "conv3"
  top: "conv4"
  param {
    lr_mult: 1
  }
  param {
    lr_mult: 2
  }
  convolution_param {
    num_output: 64
    pad: 2
    kernel_size: 5
    stride: 1
    weight_filler {
      type: "gaussian"
      std: 0.01
    }
    bias_filler {
      type: "constant"
    }
  }
}
layer {
  name: "relu4"
  type: "ReLU"
  bottom: "conv4"
  top: "conv4"
}
layer {
  name: "conv5"
  type: "Convolution"
  bottom: "conv4"
  top: "conv5"
  param {
    lr_mult: 1
  }
  param {
    lr_mult: 2
  }
  convolution_param {
    num_output: 64
    pad: 2
    kernel_size: 5
    stride: 1
    weight_filler {
      type: "gaussian"
      std: 0.01
    }
    bias_filler {
      type: "constant"
    }
  }
}
layer {
  name: "relu5"
  type: "ReLU"
  bottom: "conv5"
  top: "conv5"
}
layer {
  name: "pool5"
  type: "Pooling"
  bottom: "conv5"
  top: "pool5"
  pooling_param {
    pool: AVE
    kernel_size: 3
    stride: 2
  }
}
layer {
  name: "ip1"
  type: "InnerProduct"
  bottom: "pool5"
  top: "ip1"
  param {
    lr_mult: 1
  }
  param {
    lr_mult: 2
  }
  inner_product_param {
    num_output: 64
    weight_filler {
      type: "gaussian"
      std: 0.1
    }
    bias_filler {
      type: "constant"
    }
  }
}
layer {
  name: "ip2"
  type: "InnerProduct"
  bottom: "ip1"
  top: "ip2"
  param {
    lr_mult: 1
  }
  param {
    lr_mult: 2
  }
  inner_product_param {
    num_output: 64
    weight_filler {
      type: "gaussian"
      std: 0.1
    }
    bias_filler {
      type: "constant"
    }
  }
}
layer {
  name: "ip3"
  type: "InnerProduct"
  bottom: "ip2"
  top: "ip3"
  param {
    lr_mult: 1
  }
  param {
    lr_mult: 2
  }
  inner_product_param {
    num_output: 1
    weight_filler {
      type: "gaussian"
      std: 0.1
    }
    bias_filler {
      type: "constant"
    }
  }
}
layer {
  name: "loss"
  type: "HuberLoss"
  bottom: "ip3"
  bottom: "label"
  top: "loss"
  include {
    phase: TRAIN
  }
}
I0506 23:46:52.471766 28670 layer_factory.hpp:77] Creating layer parameters
I0506 23:46:52.471778 28670 net.cpp:94] Creating Layer parameters
I0506 23:46:52.471783 28670 net.cpp:409] parameters -> data
I0506 23:46:52.471792 28670 net.cpp:409] parameters -> label
I0506 23:46:52.471798 28670 hdf5_data_layer.cpp:79] Loading list of HDF5 filenames from: /home/purduethu/scratch/radon/d/deng106/CNNStatisticalModel/distributions/input/50_distributions_100_sample_size_train-parameters-path.txt
I0506 23:46:52.471813 28670 hdf5_data_layer.cpp:93] Number of HDF5 files: 1
I0506 23:46:52.472335 28670 hdf5.cpp:32] Datatype class: H5T_FLOAT
I0506 23:46:52.632658 28670 net.cpp:144] Setting up parameters
I0506 23:46:52.632689 28670 net.cpp:151] Top shape: 20 1 10 10 (2000)
I0506 23:46:52.632695 28670 net.cpp:151] Top shape: 20 (20)
I0506 23:46:52.632699 28670 net.cpp:159] Memory required for data: 8080
I0506 23:46:52.632704 28670 layer_factory.hpp:77] Creating layer conv1
I0506 23:46:52.632725 28670 net.cpp:94] Creating Layer conv1
I0506 23:46:52.632730 28670 net.cpp:435] conv1 <- data
I0506 23:46:52.632737 28670 net.cpp:409] conv1 -> conv1
I0506 23:46:52.636844 28670 net.cpp:144] Setting up conv1
I0506 23:46:52.636859 28670 net.cpp:151] Top shape: 20 64 10 10 (128000)
I0506 23:46:52.636863 28670 net.cpp:159] Memory required for data: 520080
I0506 23:46:52.636873 28670 layer_factory.hpp:77] Creating layer relu1
I0506 23:46:52.636881 28670 net.cpp:94] Creating Layer relu1
I0506 23:46:52.636885 28670 net.cpp:435] relu1 <- conv1
I0506 23:46:52.636889 28670 net.cpp:396] relu1 -> conv1 (in-place)
I0506 23:46:52.636904 28670 net.cpp:144] Setting up relu1
I0506 23:46:52.636909 28670 net.cpp:151] Top shape: 20 64 10 10 (128000)
I0506 23:46:52.636912 28670 net.cpp:159] Memory required for data: 1032080
I0506 23:46:52.636916 28670 layer_factory.hpp:77] Creating layer conv2
I0506 23:46:52.636924 28670 net.cpp:94] Creating Layer conv2
I0506 23:46:52.636927 28670 net.cpp:435] conv2 <- conv1
I0506 23:46:52.636932 28670 net.cpp:409] conv2 -> conv2
I0506 23:46:52.643025 28670 net.cpp:144] Setting up conv2
I0506 23:46:52.643039 28670 net.cpp:151] Top shape: 20 64 10 10 (128000)
I0506 23:46:52.643043 28670 net.cpp:159] Memory required for data: 1544080
I0506 23:46:52.643051 28670 layer_factory.hpp:77] Creating layer relu2
I0506 23:46:52.643059 28670 net.cpp:94] Creating Layer relu2
I0506 23:46:52.643061 28670 net.cpp:435] relu2 <- conv2
I0506 23:46:52.643066 28670 net.cpp:396] relu2 -> conv2 (in-place)
I0506 23:46:52.643074 28670 net.cpp:144] Setting up relu2
I0506 23:46:52.643077 28670 net.cpp:151] Top shape: 20 64 10 10 (128000)
I0506 23:46:52.643080 28670 net.cpp:159] Memory required for data: 2056080
I0506 23:46:52.643084 28670 layer_factory.hpp:77] Creating layer pool2
I0506 23:46:52.643090 28670 net.cpp:94] Creating Layer pool2
I0506 23:46:52.643092 28670 net.cpp:435] pool2 <- conv2
I0506 23:46:52.643097 28670 net.cpp:409] pool2 -> pool2
I0506 23:46:52.643153 28670 net.cpp:144] Setting up pool2
I0506 23:46:52.643160 28670 net.cpp:151] Top shape: 20 64 5 5 (32000)
I0506 23:46:52.643163 28670 net.cpp:159] Memory required for data: 2184080
I0506 23:46:52.643167 28670 layer_factory.hpp:77] Creating layer conv3
I0506 23:46:52.643175 28670 net.cpp:94] Creating Layer conv3
I0506 23:46:52.643178 28670 net.cpp:435] conv3 <- pool2
I0506 23:46:52.643189 28670 net.cpp:409] conv3 -> conv3
I0506 23:46:52.648123 28670 net.cpp:144] Setting up conv3
I0506 23:46:52.648136 28670 net.cpp:151] Top shape: 20 64 5 5 (32000)
I0506 23:46:52.648141 28670 net.cpp:159] Memory required for data: 2312080
I0506 23:46:52.648149 28670 layer_factory.hpp:77] Creating layer relu3
I0506 23:46:52.648155 28670 net.cpp:94] Creating Layer relu3
I0506 23:46:52.648159 28670 net.cpp:435] relu3 <- conv3
I0506 23:46:52.648164 28670 net.cpp:396] relu3 -> conv3 (in-place)
I0506 23:46:52.648170 28670 net.cpp:144] Setting up relu3
I0506 23:46:52.648175 28670 net.cpp:151] Top shape: 20 64 5 5 (32000)
I0506 23:46:52.648177 28670 net.cpp:159] Memory required for data: 2440080
I0506 23:46:52.648180 28670 layer_factory.hpp:77] Creating layer conv4
I0506 23:46:52.648190 28670 net.cpp:94] Creating Layer conv4
I0506 23:46:52.648193 28670 net.cpp:435] conv4 <- conv3
I0506 23:46:52.648197 28670 net.cpp:409] conv4 -> conv4
I0506 23:46:52.652662 28670 net.cpp:144] Setting up conv4
I0506 23:46:52.652675 28670 net.cpp:151] Top shape: 20 64 5 5 (32000)
I0506 23:46:52.652679 28670 net.cpp:159] Memory required for data: 2568080
I0506 23:46:52.652685 28670 layer_factory.hpp:77] Creating layer relu4
I0506 23:46:52.652691 28670 net.cpp:94] Creating Layer relu4
I0506 23:46:52.652695 28670 net.cpp:435] relu4 <- conv4
I0506 23:46:52.652700 28670 net.cpp:396] relu4 -> conv4 (in-place)
I0506 23:46:52.652706 28670 net.cpp:144] Setting up relu4
I0506 23:46:52.652711 28670 net.cpp:151] Top shape: 20 64 5 5 (32000)
I0506 23:46:52.652714 28670 net.cpp:159] Memory required for data: 2696080
I0506 23:46:52.652717 28670 layer_factory.hpp:77] Creating layer conv5
I0506 23:46:52.652725 28670 net.cpp:94] Creating Layer conv5
I0506 23:46:52.652729 28670 net.cpp:435] conv5 <- conv4
I0506 23:46:52.652734 28670 net.cpp:409] conv5 -> conv5
I0506 23:46:52.657626 28670 net.cpp:144] Setting up conv5
I0506 23:46:52.657644 28670 net.cpp:151] Top shape: 20 64 5 5 (32000)
I0506 23:46:52.657655 28670 net.cpp:159] Memory required for data: 2824080
I0506 23:46:52.657666 28670 layer_factory.hpp:77] Creating layer relu5
I0506 23:46:52.657675 28670 net.cpp:94] Creating Layer relu5
I0506 23:46:52.657680 28670 net.cpp:435] relu5 <- conv5
I0506 23:46:52.657686 28670 net.cpp:396] relu5 -> conv5 (in-place)
I0506 23:46:52.657696 28670 net.cpp:144] Setting up relu5
I0506 23:46:52.657702 28670 net.cpp:151] Top shape: 20 64 5 5 (32000)
I0506 23:46:52.657707 28670 net.cpp:159] Memory required for data: 2952080
I0506 23:46:52.657712 28670 layer_factory.hpp:77] Creating layer pool5
I0506 23:46:52.657719 28670 net.cpp:94] Creating Layer pool5
I0506 23:46:52.657724 28670 net.cpp:435] pool5 <- conv5
I0506 23:46:52.657732 28670 net.cpp:409] pool5 -> pool5
I0506 23:46:52.657780 28670 net.cpp:144] Setting up pool5
I0506 23:46:52.657791 28670 net.cpp:151] Top shape: 20 64 2 2 (5120)
I0506 23:46:52.657796 28670 net.cpp:159] Memory required for data: 2972560
I0506 23:46:52.657801 28670 layer_factory.hpp:77] Creating layer ip1
I0506 23:46:52.657814 28670 net.cpp:94] Creating Layer ip1
I0506 23:46:52.657820 28670 net.cpp:435] ip1 <- pool5
I0506 23:46:52.657827 28670 net.cpp:409] ip1 -> ip1
I0506 23:46:52.659544 28670 net.cpp:144] Setting up ip1
I0506 23:46:52.659557 28670 net.cpp:151] Top shape: 20 64 (1280)
I0506 23:46:52.659562 28670 net.cpp:159] Memory required for data: 2977680
I0506 23:46:52.659569 28670 layer_factory.hpp:77] Creating layer ip2
I0506 23:46:52.659575 28670 net.cpp:94] Creating Layer ip2
I0506 23:46:52.659579 28670 net.cpp:435] ip2 <- ip1
I0506 23:46:52.659584 28670 net.cpp:409] ip2 -> ip2
I0506 23:46:52.659799 28670 net.cpp:144] Setting up ip2
I0506 23:46:52.659807 28670 net.cpp:151] Top shape: 20 64 (1280)
I0506 23:46:52.659811 28670 net.cpp:159] Memory required for data: 2982800
I0506 23:46:52.659816 28670 layer_factory.hpp:77] Creating layer ip3
I0506 23:46:52.659821 28670 net.cpp:94] Creating Layer ip3
I0506 23:46:52.659826 28670 net.cpp:435] ip3 <- ip2
I0506 23:46:52.659829 28670 net.cpp:409] ip3 -> ip3
I0506 23:46:52.659945 28670 net.cpp:144] Setting up ip3
I0506 23:46:52.659952 28670 net.cpp:151] Top shape: 20 1 (20)
I0506 23:46:52.659955 28670 net.cpp:159] Memory required for data: 2982880
I0506 23:46:52.659960 28670 layer_factory.hpp:77] Creating layer loss
I0506 23:46:52.659968 28670 net.cpp:94] Creating Layer loss
I0506 23:46:52.659971 28670 net.cpp:435] loss <- ip3
I0506 23:46:52.659976 28670 net.cpp:435] loss <- label
I0506 23:46:52.659979 28670 net.cpp:409] loss -> loss
I0506 23:46:52.660032 28670 net.cpp:144] Setting up loss
…
I0506 23:46:52.720948 28670 net.cpp:323] The NetState phase (0) differed from the phase (1) specified by a rule in layer intercept
I0506 23:46:52.720965 28670 net.cpp:323] The NetState phase (0) differed from the phase (1) specified by a rule in layer accuracy
I0506 23:46:52.721055 28670 net.cpp:52] Initializing net from parameters: 
state {
  phase: TRAIN
}
layer {
  name: "parameters"
  type: "HDF5Data"
  top: "data"
  top: "label"
  include {
    phase: TRAIN
  }
  hdf5_data_param {
    source: "/home/purduethu/scratch/radon/d/deng106/CNNStatisticalModel/distributions/input/50_distributions_100_sample_size_train-distributions-path.txt"
    batch_size: 20
  }
}
layer {
  name: "conv1"
  type: "Convolution"
  bottom: "data"
  top: "conv1"
  param {
    lr_mult: 1
  }
  param {
    lr_mult: 2
  }
  convolution_param {
    num_output: 64
    pad: 2
    kernel_size: 5
    stride: 1
    weight_filler {
      type: "gaussian"
      std: 0.0001
    }
    bias_filler {
      type: "constant"
    }
  }
}
layer {
  name: "relu1"
  type: "ReLU"
  bottom: "conv1"
  top: "conv1"
}
layer {
  name: "conv2"
  type: "Convolution"
  bottom: "conv1"
  top: "conv2"
  param {
    lr_mult: 1
  }
  param {
    lr_mult: 2
  }
  convolution_param {
    num_output: 64
    pad: 2
    kernel_size: 5
    stride: 1
    weight_filler {
      type: "gaussian"
      std: 0.01
    }
    bias_filler {
      type: "constant"
    }
  }
}
layer {
  name: "relu2"
  type: "ReLU"
  bottom: "conv2"
  top: "conv2"
}
layer {
  name: "pool2"
  type: "Pooling"
  bottom: "conv2"
  top: "pool2"
  pooling_param {
    pool: MAX
    kernel_size: 3
    stride: 2
  }
}
layer {
  name: "conv3"
  type: "Convolution"
  bottom: "pool2"
  top: "conv3"
  param {
    lr_mult: 1
  }
  param {
    lr_mult: 2
  }
  convolution_param {
    num_output: 64
    pad: 2
    kernel_size: 5
    stride: 1
    weight_filler {
      type: "gaussian"
      std: 0.01
    }
    bias_filler {
      type: "constant"
    }
  }
}
layer {
  name: "relu3"
  type: "ReLU"
  bottom: "conv3"
  top: "conv3"
}
layer {
  name: "conv4"
  type: "Convolution"
  bottom: "conv3"
  top: "conv4"
  param {
    lr_mult: 1
  }
  param {
    lr_mult: 2
  }
  convolution_param {
    num_output: 64
    pad: 2
    kernel_size: 5
    stride: 1
    weight_filler {
      type: "gaussian"
      std: 0.01
    }
    bias_filler {
      type: "constant"
    }
  }
}
layer {
  name: "relu4"
  type: "ReLU"
  bottom: "conv4"
  top: "conv4"
}
layer {
  name: "conv5"
  type: "Convolution"
  bottom: "conv4"
  top: "conv5"
  param {
    lr_mult: 1
  }
  param {
    lr_mult: 2
  }
  convolution_param {
    num_output: 64
    pad: 2
    kernel_size: 5
    stride: 1
    weight_filler {
      type: "gaussian"
      std: 0.01
    }
    bias_filler {
      type: "constant"
    }
  }
}
layer {
  name: "relu5"
  type: "ReLU"
  bottom: "conv5"
  top: "conv5"
}
layer {
  name: "pool5"
  type: "Pooling"
  bottom: "conv5"
  top: "pool5"
  pooling_param {
    pool: AVE
    kernel_size: 3
    stride: 2
  }
}
layer {
  name: "ip1"
  type: "InnerProduct"
  bottom: "pool5"
  top: "ip1"
  param {
    lr_mult: 1
  }
  param {
    lr_mult: 2
  }
  inner_product_param {
    num_output: 64
    weight_filler {
      type: "gaussian"
      std: 0.1
    }
    bias_filler {
      type: "constant"
    }
  }
}
layer {
  name: "ip2"
  type: "InnerProduct"
  bottom: "ip1"
  top: "ip2"
  param {
    lr_mult: 1
  }
  param {
    lr_mult: 2
  }
  inner_product_param {
    num_output: 64
    weight_filler {
      type: "gaussian"
      std: 0.1
    }
    bias_filler {
      type: "constant"
    }
  }
}
layer {
  name: "ip3"
  type: "InnerProduct"
  bottom: "ip2"
  top: "ip3"
  param {
    lr_mult: 1
  }
  param {
    lr_mult: 2
  }
  inner_product_param {
    num_output: 50
    weight_filler {
      type: "gaussian"
      std: 0.1
    }
    bias_filler {
      type: "constant"
    }
  }
}
layer {
  name: "loss"
  type: "SoftmaxWithLoss"
  bottom: "ip3"
  bottom: "label"
  top: "loss"
}
I0506 23:46:52.721107 28670 layer_factory.hpp:77] Creating layer parameters
I0506 23:46:52.721115 28670 net.cpp:94] Creating Layer parameters
I0506 23:46:52.721119 28670 net.cpp:409] parameters -> data
I0506 23:46:52.721127 28670 net.cpp:409] parameters -> label
I0506 23:46:52.721132 28670 hdf5_data_layer.cpp:79] Loading list of HDF5 filenames from: /home/purduethu/scratch/radon/d/deng106/CNNStatisticalModel/distributions/input/50_distributions_100_sample_size_train-distributions-path.txt
I0506 23:46:52.721148 28670 hdf5_data_layer.cpp:93] Number of HDF5 files: 1
I0506 23:46:52.876829 28670 hdf5.cpp:35] Datatype class: H5T_INTEGER
I0506 23:46:52.879832 28670 net.cpp:144] Setting up parameters
I0506 23:46:52.879853 28670 net.cpp:151] Top shape: 20 1 10 10 (2000)
I0506 23:46:52.879858 28670 net.cpp:151] Top shape: 20 (20)
I0506 23:46:52.879861 28670 net.cpp:159] Memory required for data: 8080
I0506 23:46:52.879868 28670 layer_factory.hpp:77] Creating layer conv1
I0506 23:46:52.879884 28670 net.cpp:94] Creating Layer conv1
I0506 23:46:52.879889 28670 net.cpp:435] conv1 <- data
I0506 23:46:52.879894 28670 net.cpp:409] conv1 -> conv1
I0506 23:46:52.881691 28670 net.cpp:144] Setting up conv1
I0506 23:46:52.881705 28670 net.cpp:151] Top shape: 20 64 10 10 (128000)
I0506 23:46:52.881709 28670 net.cpp:159] Memory required for data: 520080
I0506 23:46:52.881719 28670 layer_factory.hpp:77] Creating layer relu1
I0506 23:46:52.881726 28670 net.cpp:94] Creating Layer relu1
I0506 23:46:52.881731 28670 net.cpp:435] relu1 <- conv1
I0506 23:46:52.881734 28670 net.cpp:396] relu1 -> conv1 (in-place)
I0506 23:46:52.881742 28670 net.cpp:144] Setting up relu1
I0506 23:46:52.881747 28670 net.cpp:151] Top shape: 20 64 10 10 (128000)
I0506 23:46:52.881749 28670 net.cpp:159] Memory required for data: 1032080
I0506 23:46:52.881752 28670 layer_factory.hpp:77] Creating layer conv2
I0506 23:46:52.881760 28670 net.cpp:94] Creating Layer conv2
I0506 23:46:52.881763 28670 net.cpp:435] conv2 <- conv1
I0506 23:46:52.881768 28670 net.cpp:409] conv2 -> conv2
I0506 23:46:52.887143 28670 net.cpp:144] Setting up conv2
I0506 23:46:52.887156 28670 net.cpp:151] Top shape: 20 64 10 10 (128000)
I0506 23:46:52.887161 28670 net.cpp:159] Memory required for data: 1544080
I0506 23:46:52.887168 28670 layer_factory.hpp:77] Creating layer relu2
I0506 23:46:52.887176 28670 net.cpp:94] Creating Layer relu2
I0506 23:46:52.887178 28670 net.cpp:435] relu2 <- conv2
I0506 23:46:52.887183 28670 net.cpp:396] relu2 -> conv2 (in-place)
I0506 23:46:52.887190 28670 net.cpp:144] Setting up relu2
I0506 23:46:52.887194 28670 net.cpp:151] Top shape: 20 64 10 10 (128000)
I0506 23:46:52.887197 28670 net.cpp:159] Memory required for data: 2056080
I0506 23:46:52.887200 28670 layer_factory.hpp:77] Creating layer pool2
I0506 23:46:52.887207 28670 net.cpp:94] Creating Layer pool2
I0506 23:46:52.887210 28670 net.cpp:435] pool2 <- conv2
I0506 23:46:52.887214 28670 net.cpp:409] pool2 -> pool2
I0506 23:46:52.887269 28670 net.cpp:144] Setting up pool2
I0506 23:46:52.887277 28670 net.cpp:151] Top shape: 20 64 5 5 (32000)
I0506 23:46:52.887280 28670 net.cpp:159] Memory required for data: 2184080
I0506 23:46:52.887284 28670 layer_factory.hpp:77] Creating layer conv3
I0506 23:46:52.887292 28670 net.cpp:94] Creating Layer conv3
I0506 23:46:52.887295 28670 net.cpp:435] conv3 <- pool2
I0506 23:46:52.887300 28670 net.cpp:409] conv3 -> conv3
I0506 23:46:52.893110 28670 net.cpp:144] Setting up conv3
I0506 23:46:52.893123 28670 net.cpp:151] Top shape: 20 64 5 5 (32000)
I0506 23:46:52.893127 28670 net.cpp:159] Memory required for data: 2312080
I0506 23:46:52.893136 28670 layer_factory.hpp:77] Creating layer relu3
I0506 23:46:52.893141 28670 net.cpp:94] Creating Layer relu3
I0506 23:46:52.893146 28670 net.cpp:435] relu3 <- conv3
I0506 23:46:52.893151 28670 net.cpp:396] relu3 -> conv3 (in-place)
I0506 23:46:52.893157 28670 net.cpp:144] Setting up relu3
I0506 23:46:52.893162 28670 net.cpp:151] Top shape: 20 64 5 5 (32000)
I0506 23:46:52.893170 28670 net.cpp:159] Memory required for data: 2440080
I0506 23:46:52.893174 28670 layer_factory.hpp:77] Creating layer conv4
I0506 23:46:52.893182 28670 net.cpp:94] Creating Layer conv4
I0506 23:46:52.893187 28670 net.cpp:435] conv4 <- conv3
I0506 23:46:52.893191 28670 net.cpp:409] conv4 -> conv4
I0506 23:46:52.898134 28670 net.cpp:144] Setting up conv4
I0506 23:46:52.898147 28670 net.cpp:151] Top shape: 20 64 5 5 (32000)
I0506 23:46:52.898151 28670 net.cpp:159] Memory required for data: 2568080
I0506 23:46:52.898157 28670 layer_factory.hpp:77] Creating layer relu4
I0506 23:46:52.898164 28670 net.cpp:94] Creating Layer relu4
I0506 23:46:52.898167 28670 net.cpp:435] relu4 <- conv4
I0506 23:46:52.898172 28670 net.cpp:396] relu4 -> conv4 (in-place)
I0506 23:46:52.898178 28670 net.cpp:144] Setting up relu4
I0506 23:46:52.898183 28670 net.cpp:151] Top shape: 20 64 5 5 (32000)
I0506 23:46:52.898186 28670 net.cpp:159] Memory required for data: 2696080
I0506 23:46:52.898190 28670 layer_factory.hpp:77] Creating layer conv5
I0506 23:46:52.898197 28670 net.cpp:94] Creating Layer conv5
I0506 23:46:52.898200 28670 net.cpp:435] conv5 <- conv4
I0506 23:46:52.898205 28670 net.cpp:409] conv5 -> conv5
I0506 23:46:52.902689 28670 net.cpp:144] Setting up conv5
I0506 23:46:52.902703 28670 net.cpp:151] Top shape: 20 64 5 5 (32000)
I0506 23:46:52.902706 28670 net.cpp:159] Memory required for data: 2824080
I0506 23:46:52.902714 28670 layer_factory.hpp:77] Creating layer relu5
I0506 23:46:52.902720 28670 net.cpp:94] Creating Layer relu5
I0506 23:46:52.902724 28670 net.cpp:435] relu5 <- conv5
I0506 23:46:52.902729 28670 net.cpp:396] relu5 -> conv5 (in-place)
I0506 23:46:52.902734 28670 net.cpp:144] Setting up relu5
I0506 23:46:52.902740 28670 net.cpp:151] Top shape: 20 64 5 5 (32000)
I0506 23:46:52.902742 28670 net.cpp:159] Memory required for data: 2952080
I0506 23:46:52.902745 28670 layer_factory.hpp:77] Creating layer pool5
I0506 23:46:52.902750 28670 net.cpp:94] Creating Layer pool5
I0506 23:46:52.902755 28670 net.cpp:435] pool5 <- conv5
I0506 23:46:52.902758 28670 net.cpp:409] pool5 -> pool5
I0506 23:46:52.902796 28670 net.cpp:144] Setting up pool5
I0506 23:46:52.902802 28670 net.cpp:151] Top shape: 20 64 2 2 (5120)
I0506 23:46:52.902806 28670 net.cpp:159] Memory required for data: 2972560
I0506 23:46:52.902809 28670 layer_factory.hpp:77] Creating layer ip1
I0506 23:46:52.902815 28670 net.cpp:94] Creating Layer ip1
I0506 23:46:52.902819 28670 net.cpp:435] ip1 <- pool5
I0506 23:46:52.902824 28670 net.cpp:409] ip1 -> ip1
I0506 23:46:52.903343 28670 net.cpp:144] Setting up ip1
I0506 23:46:52.903352 28670 net.cpp:151] Top shape: 20 64 (1280)
I0506 23:46:52.903355 28670 net.cpp:159] Memory required for data: 2977680
I0506 23:46:52.903362 28670 layer_factory.hpp:77] Creating layer ip2
I0506 23:46:52.903367 28670 net.cpp:94] Creating Layer ip2
I0506 23:46:52.903370 28670 net.cpp:435] ip2 <- ip1
I0506 23:46:52.903375 28670 net.cpp:409] ip2 -> ip2
I0506 23:46:52.903602 28670 net.cpp:144] Setting up ip2
I0506 23:46:52.903610 28670 net.cpp:151] Top shape: 20 64 (1280)
I0506 23:46:52.903614 28670 net.cpp:159] Memory required for data: 2982800
I0506 23:46:52.903619 28670 layer_factory.hpp:77] Creating layer ip3
I0506 23:46:52.903625 28670 net.cpp:94] Creating Layer ip3
I0506 23:46:52.903628 28670 net.cpp:435] ip3 <- ip2
I0506 23:46:52.903632 28670 net.cpp:409] ip3 -> ip3
I0506 23:46:52.903834 28670 net.cpp:144] Setting up ip3
I0506 23:46:52.903841 28670 net.cpp:151] Top shape: 20 50 (1000)
I0506 23:46:52.903844 28670 net.cpp:159] Memory required for data: 2986800
I0506 23:46:52.903849 28670 layer_factory.hpp:77] Creating layer loss
I0506 23:46:52.903856 28670 net.cpp:94] Creating Layer loss
I0506 23:46:52.903861 28670 net.cpp:435] loss <- ip3
I0506 23:46:52.903863 28670 net.cpp:435] loss <- label
I0506 23:46:52.903868 28670 net.cpp:409] loss -> loss
I0506 23:46:52.903875 28670 layer_factory.hpp:77] Creating layer loss
…
I0506 23:46:52.905236 28670 solver.cpp:181] Creating test net (#0) specified by net file: ./protocol/dis_50_100_dimension.protocol_distribution
I0506 23:46:52.905261 28670 net.cpp:323] The NetState phase (1) differed from the phase (0) specified by a rule in layer parameters
I0506 23:46:52.905357 28670 net.cpp:52] Initializing net from parameters: 
state {
  phase: TEST
}
layer {
  name: "intercept"
  type: "HDF5Data"
  top: "data"
  top: "label"
  include {
    phase: TEST
  }
  hdf5_data_param {
    source: "/home/purduethu/scratch/radon/d/deng106/CNNStatisticalModel/distributions/input/50_distributions_100_sample_size_test-distributions-path.txt"
    batch_size: 20
  }
}
layer {
  name: "conv1"
  type: "Convolution"
  bottom: "data"
  top: "conv1"
  param {
    lr_mult: 1
  }
  param {
    lr_mult: 2
  }
  convolution_param {
    num_output: 64
    pad: 2
    kernel_size: 5
    stride: 1
    weight_filler {
      type: "gaussian"
      std: 0.0001
    }
    bias_filler {
      type: "constant"
    }
  }
}
layer {
  name: "relu1"
  type: "ReLU"
  bottom: "conv1"
  top: "conv1"
}
layer {
  name: "conv2"
  type: "Convolution"
  bottom: "conv1"
  top: "conv2"
  param {
    lr_mult: 1
  }
  param {
    lr_mult: 2
  }
  convolution_param {
    num_output: 64
    pad: 2
    kernel_size: 5
    stride: 1
    weight_filler {
      type: "gaussian"
      std: 0.01
    }
    bias_filler {
      type: "constant"
    }
  }
}
layer {
  name: "relu2"
  type: "ReLU"
  bottom: "conv2"
  top: "conv2"
}
layer {
  name: "pool2"
  type: "Pooling"
  bottom: "conv2"
  top: "pool2"
  pooling_param {
    pool: MAX
    kernel_size: 3
    stride: 2
  }
}
layer {
  name: "conv3"
  type: "Convolution"
  bottom: "pool2"
  top: "conv3"
  param {
    lr_mult: 1
  }
  param {
    lr_mult: 2
  }
  convolution_param {
    num_output: 64
    pad: 2
    kernel_size: 5
    stride: 1
    weight_filler {
      type: "gaussian"
      std: 0.01
    }
    bias_filler {
      type: "constant"
    }
  }
}
layer {
  name: "relu3"
  type: "ReLU"
  bottom: "conv3"
  top: "conv3"
}
layer {
  name: "conv4"
  type: "Convolution"
  bottom: "conv3"
  top: "conv4"
  param {
    lr_mult: 1
  }
  param {
    lr_mult: 2
  }
  convolution_param {
    num_output: 64
    pad: 2
    kernel_size: 5
    stride: 1
    weight_filler {
      type: "gaussian"
      std: 0.01
    }
    bias_filler {
      type: "constant"
    }
  }
}
layer {
  name: "relu4"
  type: "ReLU"
  bottom: "conv4"
  top: "conv4"
}
layer {
  name: "conv5"
  type: "Convolution"
  bottom: "conv4"
  top: "conv5"
  param {
    lr_mult: 1
  }
  param {
    lr_mult: 2
  }
  convolution_param {
    num_output: 64
    pad: 2
    kernel_size: 5
    stride: 1
    weight_filler {
      type: "gaussian"
      std: 0.01
    }
    bias_filler {
      type: "constant"
    }
  }
}
layer {
  name: "relu5"
  type: "ReLU"
  bottom: "conv5"
  top: "conv5"
}
layer {
  name: "pool5"
  type: "Pooling"
  bottom: "conv5"
  top: "pool5"
  pooling_param {
    pool: AVE
    kernel_size: 3
    stride: 2
  }
}
layer {
  name: "ip1"
  type: "InnerProduct"
  bottom: "pool5"
  top: "ip1"
  param {
    lr_mult: 1
  }
  param {
    lr_mult: 2
  }
  inner_product_param {
    num_output: 64
    weight_filler {
      type: "gaussian"
      std: 0.1
    }
    bias_filler {
      type: "constant"
    }
  }
}
layer {
  name: "ip2"
  type: "InnerProduct"
  bottom: "ip1"
  top: "ip2"
  param {
    lr_mult: 1
  }
  param {
    lr_mult: 2
  }
  inner_product_param {
    num_output: 64
    weight_filler {
      type: "gaussian"
      std: 0.1
    }
    bias_filler {
      type: "constant"
    }
  }
}
layer {
  name: "ip3"
  type: "InnerProduct"
  bottom: "ip2"
  top: "ip3"
  param {
    lr_mult: 1
  }
  param {
    lr_mult: 2
  }
  inner_product_param {
    num_output: 50
    weight_filler {
      type: "gaussian"
      std: 0.1
    }
    bias_filler {
      type: "constant"
    }
  }
}
layer {
  name: "accuracy"
  type: "Accuracy"
  bottom: "ip3"
  bottom: "label"
  top: "accuracy"
  include {
    phase: TEST
  }
}
layer {
  name: "loss"
  type: "SoftmaxWithLoss"
  bottom: "ip3"
  bottom: "label"
  top: "loss"
}
I0506 23:46:52.905421 28670 layer_factory.hpp:77] Creating layer intercept
I0506 23:46:52.905429 28670 net.cpp:94] Creating Layer intercept
I0506 23:46:52.905434 28670 net.cpp:409] intercept -> data
I0506 23:46:52.905441 28670 net.cpp:409] intercept -> label
I0506 23:46:52.905447 28670 hdf5_data_layer.cpp:79] Loading list of HDF5 filenames from: /home/purduethu/scratch/radon/d/deng106/CNNStatisticalModel/distributions/input/50_distributions_100_sample_size_test-distributions-path.txt
I0506 23:46:52.905465 28670 hdf5_data_layer.cpp:93] Number of HDF5 files: 1
I0506 23:46:52.946537 28670 net.cpp:144] Setting up intercept
I0506 23:46:52.946571 28670 net.cpp:151] Top shape: 20 1 10 10 (2000)
I0506 23:46:52.946578 28670 net.cpp:151] Top shape: 20 (20)
I0506 23:46:52.946580 28670 net.cpp:159] Memory required for data: 8080
I0506 23:46:52.946586 28670 layer_factory.hpp:77] Creating layer label_intercept_1_split
I0506 23:46:52.946606 28670 net.cpp:94] Creating Layer label_intercept_1_split
I0506 23:46:52.946611 28670 net.cpp:435] label_intercept_1_split <- label
I0506 23:46:52.946617 28670 net.cpp:409] label_intercept_1_split -> label_intercept_1_split_0
I0506 23:46:52.946625 28670 net.cpp:409] label_intercept_1_split -> label_intercept_1_split_1
I0506 23:46:52.946669 28670 net.cpp:144] Setting up label_intercept_1_split
I0506 23:46:52.946676 28670 net.cpp:151] Top shape: 20 (20)
I0506 23:46:52.946679 28670 net.cpp:151] Top shape: 20 (20)
I0506 23:46:52.946682 28670 net.cpp:159] Memory required for data: 8240
I0506 23:46:52.946686 28670 layer_factory.hpp:77] Creating layer conv1
I0506 23:46:52.946697 28670 net.cpp:94] Creating Layer conv1
I0506 23:46:52.946701 28670 net.cpp:435] conv1 <- data
I0506 23:46:52.946705 28670 net.cpp:409] conv1 -> conv1
I0506 23:46:52.947525 28670 net.cpp:144] Setting up conv1
I0506 23:46:52.947537 28670 net.cpp:151] Top shape: 20 64 10 10 (128000)
I0506 23:46:52.947541 28670 net.cpp:159] Memory required for data: 520240
I0506 23:46:52.947551 28670 layer_factory.hpp:77] Creating layer relu1
I0506 23:46:52.947557 28670 net.cpp:94] Creating Layer relu1
I0506 23:46:52.947561 28670 net.cpp:435] relu1 <- conv1
I0506 23:46:52.947566 28670 net.cpp:396] relu1 -> conv1 (in-place)
I0506 23:46:52.947572 28670 net.cpp:144] Setting up relu1
I0506 23:46:52.947577 28670 net.cpp:151] Top shape: 20 64 10 10 (128000)
I0506 23:46:52.947579 28670 net.cpp:159] Memory required for data: 1032240
I0506 23:46:52.947590 28670 layer_factory.hpp:77] Creating layer conv2
I0506 23:46:52.947598 28670 net.cpp:94] Creating Layer conv2
I0506 23:46:52.947602 28670 net.cpp:435] conv2 <- conv1
I0506 23:46:52.947607 28670 net.cpp:409] conv2 -> conv2
I0506 23:46:52.951696 28670 net.cpp:144] Setting up conv2
I0506 23:46:52.951710 28670 net.cpp:151] Top shape: 20 64 10 10 (128000)
I0506 23:46:52.951714 28670 net.cpp:159] Memory required for data: 1544240
I0506 23:46:52.951721 28670 layer_factory.hpp:77] Creating layer relu2
I0506 23:46:52.951727 28670 net.cpp:94] Creating Layer relu2
I0506 23:46:52.951731 28670 net.cpp:435] relu2 <- conv2
I0506 23:46:52.951736 28670 net.cpp:396] relu2 -> conv2 (in-place)
I0506 23:46:52.951742 28670 net.cpp:144] Setting up relu2
I0506 23:46:52.951746 28670 net.cpp:151] Top shape: 20 64 10 10 (128000)
I0506 23:46:52.951750 28670 net.cpp:159] Memory required for data: 2056240
I0506 23:46:52.951753 28670 layer_factory.hpp:77] Creating layer pool2
I0506 23:46:52.951761 28670 net.cpp:94] Creating Layer pool2
I0506 23:46:52.951763 28670 net.cpp:435] pool2 <- conv2
I0506 23:46:52.951767 28670 net.cpp:409] pool2 -> pool2
I0506 23:46:52.951825 28670 net.cpp:144] Setting up pool2
I0506 23:46:52.951833 28670 net.cpp:151] Top shape: 20 64 5 5 (32000)
I0506 23:46:52.951835 28670 net.cpp:159] Memory required for data: 2184240
I0506 23:46:52.951838 28670 layer_factory.hpp:77] Creating layer conv3
I0506 23:46:52.951848 28670 net.cpp:94] Creating Layer conv3
I0506 23:46:52.951851 28670 net.cpp:435] conv3 <- pool2
I0506 23:46:52.951856 28670 net.cpp:409] conv3 -> conv3
I0506 23:46:52.956285 28670 net.cpp:144] Setting up conv3
I0506 23:46:52.956298 28670 net.cpp:151] Top shape: 20 64 5 5 (32000)
I0506 23:46:52.956302 28670 net.cpp:159] Memory required for data: 2312240
I0506 23:46:52.956311 28670 layer_factory.hpp:77] Creating layer relu3
I0506 23:46:52.956318 28670 net.cpp:94] Creating Layer relu3
I0506 23:46:52.956322 28670 net.cpp:435] relu3 <- conv3
I0506 23:46:52.956328 28670 net.cpp:396] relu3 -> conv3 (in-place)
I0506 23:46:52.956336 28670 net.cpp:144] Setting up relu3
I0506 23:46:52.956339 28670 net.cpp:151] Top shape: 20 64 5 5 (32000)
I0506 23:46:52.956342 28670 net.cpp:159] Memory required for data: 2440240
I0506 23:46:52.956346 28670 layer_factory.hpp:77] Creating layer conv4
I0506 23:46:52.956354 28670 net.cpp:94] Creating Layer conv4
I0506 23:46:52.956357 28670 net.cpp:435] conv4 <- conv3
I0506 23:46:52.956362 28670 net.cpp:409] conv4 -> conv4
I0506 23:46:52.959923 28670 net.cpp:144] Setting up conv4
I0506 23:46:52.959935 28670 net.cpp:151] Top shape: 20 64 5 5 (32000)
I0506 23:46:52.959939 28670 net.cpp:159] Memory required for data: 2568240
I0506 23:46:52.959945 28670 layer_factory.hpp:77] Creating layer relu4
I0506 23:46:52.959952 28670 net.cpp:94] Creating Layer relu4
I0506 23:46:52.959956 28670 net.cpp:435] relu4 <- conv4
I0506 23:46:52.959961 28670 net.cpp:396] relu4 -> conv4 (in-place)
I0506 23:46:52.959969 28670 net.cpp:144] Setting up relu4
I0506 23:46:52.959972 28670 net.cpp:151] Top shape: 20 64 5 5 (32000)
I0506 23:46:52.959975 28670 net.cpp:159] Memory required for data: 2696240
I0506 23:46:52.959978 28670 layer_factory.hpp:77] Creating layer conv5
I0506 23:46:52.959987 28670 net.cpp:94] Creating Layer conv5
I0506 23:46:52.959990 28670 net.cpp:435] conv5 <- conv4
I0506 23:46:52.959995 28670 net.cpp:409] conv5 -> conv5
I0506 23:46:52.964002 28670 net.cpp:144] Setting up conv5
I0506 23:46:52.964016 28670 net.cpp:151] Top shape: 20 64 5 5 (32000)
I0506 23:46:52.964020 28670 net.cpp:159] Memory required for data: 2824240
I0506 23:46:52.964028 28670 layer_factory.hpp:77] Creating layer relu5
I0506 23:46:52.964035 28670 net.cpp:94] Creating Layer relu5
I0506 23:46:52.964037 28670 net.cpp:435] relu5 <- conv5
I0506 23:46:52.964043 28670 net.cpp:396] relu5 -> conv5 (in-place)
I0506 23:46:52.964051 28670 net.cpp:144] Setting up relu5
I0506 23:46:52.964054 28670 net.cpp:151] Top shape: 20 64 5 5 (32000)
I0506 23:46:52.964057 28670 net.cpp:159] Memory required for data: 2952240
I0506 23:46:52.964067 28670 layer_factory.hpp:77] Creating layer pool5
I0506 23:46:52.964072 28670 net.cpp:94] Creating Layer pool5
I0506 23:46:52.964076 28670 net.cpp:435] pool5 <- conv5
I0506 23:46:52.964082 28670 net.cpp:409] pool5 -> pool5
I0506 23:46:52.964120 28670 net.cpp:144] Setting up pool5
I0506 23:46:52.964128 28670 net.cpp:151] Top shape: 20 64 2 2 (5120)
I0506 23:46:52.964131 28670 net.cpp:159] Memory required for data: 2972720
I0506 23:46:52.964135 28670 layer_factory.hpp:77] Creating layer ip1
I0506 23:46:52.964141 28670 net.cpp:94] Creating Layer ip1
I0506 23:46:52.964145 28670 net.cpp:435] ip1 <- pool5
I0506 23:46:52.964150 28670 net.cpp:409] ip1 -> ip1
I0506 23:46:52.964694 28670 net.cpp:144] Setting up ip1
I0506 23:46:52.964702 28670 net.cpp:151] Top shape: 20 64 (1280)
I0506 23:46:52.964705 28670 net.cpp:159] Memory required for data: 2977840
I0506 23:46:52.964711 28670 layer_factory.hpp:77] Creating layer ip2
I0506 23:46:52.964718 28670 net.cpp:94] Creating Layer ip2
I0506 23:46:52.964722 28670 net.cpp:435] ip2 <- ip1
I0506 23:46:52.964727 28670 net.cpp:409] ip2 -> ip2
I0506 23:46:52.964959 28670 net.cpp:144] Setting up ip2
I0506 23:46:52.964967 28670 net.cpp:151] Top shape: 20 64 (1280)
I0506 23:46:52.964969 28670 net.cpp:159] Memory required for data: 2982960
I0506 23:46:52.964974 28670 layer_factory.hpp:77] Creating layer ip3
I0506 23:46:52.964982 28670 net.cpp:94] Creating Layer ip3
I0506 23:46:52.964987 28670 net.cpp:435] ip3 <- ip2
I0506 23:46:52.964992 28670 net.cpp:409] ip3 -> ip3
I0506 23:46:52.965203 28670 net.cpp:144] Setting up ip3
I0506 23:46:52.965210 28670 net.cpp:151] Top shape: 20 50 (1000)
I0506 23:46:52.965214 28670 net.cpp:159] Memory required for data: 2986960
I0506 23:46:52.965219 28670 layer_factory.hpp:77] Creating layer ip3_ip3_0_split
I0506 23:46:52.965224 28670 net.cpp:94] Creating Layer ip3_ip3_0_split
I0506 23:46:52.965229 28670 net.cpp:435] ip3_ip3_0_split <- ip3
I0506 23:46:52.965232 28670 net.cpp:409] ip3_ip3_0_split -> ip3_ip3_0_split_0
I0506 23:46:52.965237 28670 net.cpp:409] ip3_ip3_0_split -> ip3_ip3_0_split_1
I0506 23:46:52.965281 28670 net.cpp:144] Setting up ip3_ip3_0_split
I0506 23:46:52.965287 28670 net.cpp:151] Top shape: 20 50 (1000)
I0506 23:46:52.965291 28670 net.cpp:151] Top shape: 20 50 (1000)
I0506 23:46:52.965294 28670 net.cpp:159] Memory required for data: 2994960
I0506 23:46:52.965297 28670 layer_factory.hpp:77] Creating layer accuracy
I0506 23:46:52.965303 28670 net.cpp:94] Creating Layer accuracy
I0506 23:46:52.965306 28670 net.cpp:435] accuracy <- ip3_ip3_0_split_0
I0506 23:46:52.965311 28670 net.cpp:435] accuracy <- label_intercept_1_split_0
I0506 23:46:52.965314 28670 net.cpp:409] accuracy -> accuracy
…
