…
I0505 21:52:48.419422  9446 net.cpp:323] The NetState phase (0) differed from the phase (1) specified by a rule in layer intercept
I0505 21:52:48.419436  9446 net.cpp:323] The NetState phase (0) differed from the phase (1) specified by a rule in layer loss
I0505 21:52:48.419502  9446 net.cpp:52] Initializing net from parameters: 
state {
  phase: TRAIN
}
layer {
  name: "parameters"
  type: "HDF5Data"
  top: "data"
  top: "label"
  include {
    phase: TRAIN
  }
  hdf5_data_param {
    source: "/home/purduethu/scratch/radon/d/deng106/CNNStatisticalModel/distributions/input/50_distributions_100_sample_size_train-parameters-path.txt"
    batch_size: 20
  }
}
layer {
  name: "conv1"
  type: "Convolution"
  bottom: "data"
  top: "conv1"
  param {
    lr_mult: 1
  }
  param {
    lr_mult: 2
  }
  convolution_param {
    num_output: 64
    pad: 2
    kernel_size: 5
    stride: 1
    weight_filler {
      type: "gaussian"
      std: 0.0001
    }
    bias_filler {
      type: "constant"
    }
  }
}
layer {
  name: "relu1"
  type: "ReLU"
  bottom: "conv1"
  top: "conv1"
}
layer {
  name: "pool1"
  type: "Pooling"
  bottom: "conv1"
  top: "pool1"
  pooling_param {
    pool: MAX
    kernel_size: 3
    stride: 2
  }
}
layer {
  name: "conv2"
  type: "Convolution"
  bottom: "pool1"
  top: "conv2"
  param {
    lr_mult: 1
  }
  param {
    lr_mult: 2
  }
  convolution_param {
    num_output: 128
    pad: 2
    kernel_size: 5
    stride: 1
    weight_filler {
      type: "gaussian"
      std: 0.01
    }
    bias_filler {
      type: "constant"
    }
  }
}
layer {
  name: "relu2"
  type: "ReLU"
  bottom: "conv2"
  top: "conv2"
}
layer {
  name: "conv3"
  type: "Convolution"
  bottom: "conv2"
  top: "conv3"
  param {
    lr_mult: 1
  }
  param {
    lr_mult: 2
  }
  convolution_param {
    num_output: 128
    pad: 2
    kernel_size: 5
    stride: 1
    weight_filler {
      type: "gaussian"
      std: 0.01
    }
    bias_filler {
      type: "constant"
    }
  }
}
layer {
  name: "relu3"
  type: "ReLU"
  bottom: "conv3"
  top: "conv3"
}
layer {
  name: "pool3"
  type: "Pooling"
  bottom: "conv3"
  top: "pool3"
  pooling_param {
    pool: AVE
    kernel_size: 3
    stride: 2
  }
}
layer {
  name: "ip1"
  type: "InnerProduct"
  bottom: "pool3"
  top: "ip1"
  param {
    lr_mult: 1
  }
  param {
    lr_mult: 2
  }
  inner_product_param {
    num_output: 512
    weight_filler {
      type: "gaussian"
      std: 0.1
    }
    bias_filler {
      type: "constant"
    }
  }
}
layer {
  name: "ip2"
  type: "InnerProduct"
  bottom: "ip1"
  top: "ip2"
  param {
    lr_mult: 1
  }
  param {
    lr_mult: 2
  }
  inner_product_param {
    num_output: 256
    weight_filler {
      type: "gaussian"
      std: 0.1
    }
    bias_filler {
      type: "constant"
    }
  }
}
layer {
  name: "ip3"
  type: "InnerProduct"
  bottom: "ip2"
  top: "ip3"
  param {
    lr_mult: 1
  }
  param {
    lr_mult: 2
  }
  inner_product_param {
    num_output: 1
    weight_filler {
      type: "gaussian"
      std: 0.1
    }
    bias_filler {
      type: "constant"
    }
  }
}
layer {
  name: "loss"
  type: "HuberLoss"
  bottom: "ip3"
  bottom: "label"
  top: "loss"
  include {
    phase: TRAIN
  }
}
I0505 21:52:48.419550  9446 layer_factory.hpp:77] Creating layer parameters
I0505 21:52:48.419565  9446 net.cpp:94] Creating Layer parameters
I0505 21:52:48.419569  9446 net.cpp:409] parameters -> data
I0505 21:52:48.419582  9446 net.cpp:409] parameters -> label
I0505 21:52:48.419589  9446 hdf5_data_layer.cpp:79] Loading list of HDF5 filenames from: /home/purduethu/scratch/radon/d/deng106/CNNStatisticalModel/distributions/input/50_distributions_100_sample_size_train-parameters-path.txt
I0505 21:52:48.419605  9446 hdf5_data_layer.cpp:93] Number of HDF5 files: 1
I0505 21:52:48.420148  9446 hdf5.cpp:32] Datatype class: H5T_FLOAT
I0505 21:52:48.584619  9446 net.cpp:144] Setting up parameters
I0505 21:52:48.584653  9446 net.cpp:151] Top shape: 20 1 10 10 (2000)
I0505 21:52:48.584658  9446 net.cpp:151] Top shape: 20 (20)
I0505 21:52:48.584662  9446 net.cpp:159] Memory required for data: 8080
I0505 21:52:48.584668  9446 layer_factory.hpp:77] Creating layer conv1
I0505 21:52:48.584684  9446 net.cpp:94] Creating Layer conv1
I0505 21:52:48.584688  9446 net.cpp:435] conv1 <- data
I0505 21:52:48.584695  9446 net.cpp:409] conv1 -> conv1
I0505 21:52:48.588904  9446 net.cpp:144] Setting up conv1
I0505 21:52:48.588922  9446 net.cpp:151] Top shape: 20 64 10 10 (128000)
I0505 21:52:48.588927  9446 net.cpp:159] Memory required for data: 520080
I0505 21:52:48.588937  9446 layer_factory.hpp:77] Creating layer relu1
I0505 21:52:48.588945  9446 net.cpp:94] Creating Layer relu1
I0505 21:52:48.588949  9446 net.cpp:435] relu1 <- conv1
I0505 21:52:48.588953  9446 net.cpp:396] relu1 -> conv1 (in-place)
I0505 21:52:48.588961  9446 net.cpp:144] Setting up relu1
I0505 21:52:48.588966  9446 net.cpp:151] Top shape: 20 64 10 10 (128000)
I0505 21:52:48.588969  9446 net.cpp:159] Memory required for data: 1032080
I0505 21:52:48.588973  9446 layer_factory.hpp:77] Creating layer pool1
I0505 21:52:48.588977  9446 net.cpp:94] Creating Layer pool1
I0505 21:52:48.588981  9446 net.cpp:435] pool1 <- conv1
I0505 21:52:48.588985  9446 net.cpp:409] pool1 -> pool1
I0505 21:52:48.589040  9446 net.cpp:144] Setting up pool1
I0505 21:52:48.589047  9446 net.cpp:151] Top shape: 20 64 5 5 (32000)
I0505 21:52:48.589051  9446 net.cpp:159] Memory required for data: 1160080
I0505 21:52:48.589053  9446 layer_factory.hpp:77] Creating layer conv2
I0505 21:52:48.589063  9446 net.cpp:94] Creating Layer conv2
I0505 21:52:48.589066  9446 net.cpp:435] conv2 <- pool1
I0505 21:52:48.589071  9446 net.cpp:409] conv2 -> conv2
I0505 21:52:48.598247  9446 net.cpp:144] Setting up conv2
I0505 21:52:48.598263  9446 net.cpp:151] Top shape: 20 128 5 5 (64000)
I0505 21:52:48.598266  9446 net.cpp:159] Memory required for data: 1416080
I0505 21:52:48.598275  9446 layer_factory.hpp:77] Creating layer relu2
I0505 21:52:48.598281  9446 net.cpp:94] Creating Layer relu2
I0505 21:52:48.598285  9446 net.cpp:435] relu2 <- conv2
I0505 21:52:48.598289  9446 net.cpp:396] relu2 -> conv2 (in-place)
I0505 21:52:48.598296  9446 net.cpp:144] Setting up relu2
I0505 21:52:48.598301  9446 net.cpp:151] Top shape: 20 128 5 5 (64000)
I0505 21:52:48.598304  9446 net.cpp:159] Memory required for data: 1672080
I0505 21:52:48.598307  9446 layer_factory.hpp:77] Creating layer conv3
I0505 21:52:48.598315  9446 net.cpp:94] Creating Layer conv3
I0505 21:52:48.598318  9446 net.cpp:435] conv3 <- conv2
I0505 21:52:48.598323  9446 net.cpp:409] conv3 -> conv3
I0505 21:52:48.613534  9446 net.cpp:144] Setting up conv3
I0505 21:52:48.613549  9446 net.cpp:151] Top shape: 20 128 5 5 (64000)
I0505 21:52:48.613554  9446 net.cpp:159] Memory required for data: 1928080
I0505 21:52:48.613562  9446 layer_factory.hpp:77] Creating layer relu3
I0505 21:52:48.613575  9446 net.cpp:94] Creating Layer relu3
I0505 21:52:48.613579  9446 net.cpp:435] relu3 <- conv3
I0505 21:52:48.613584  9446 net.cpp:396] relu3 -> conv3 (in-place)
I0505 21:52:48.613591  9446 net.cpp:144] Setting up relu3
I0505 21:52:48.613595  9446 net.cpp:151] Top shape: 20 128 5 5 (64000)
I0505 21:52:48.613598  9446 net.cpp:159] Memory required for data: 2184080
I0505 21:52:48.613601  9446 layer_factory.hpp:77] Creating layer pool3
I0505 21:52:48.613608  9446 net.cpp:94] Creating Layer pool3
I0505 21:52:48.613611  9446 net.cpp:435] pool3 <- conv3
I0505 21:52:48.613615  9446 net.cpp:409] pool3 -> pool3
I0505 21:52:48.613654  9446 net.cpp:144] Setting up pool3
I0505 21:52:48.613662  9446 net.cpp:151] Top shape: 20 128 2 2 (10240)
I0505 21:52:48.613664  9446 net.cpp:159] Memory required for data: 2225040
I0505 21:52:48.613668  9446 layer_factory.hpp:77] Creating layer ip1
I0505 21:52:48.613678  9446 net.cpp:94] Creating Layer ip1
I0505 21:52:48.613682  9446 net.cpp:435] ip1 <- pool3
I0505 21:52:48.613687  9446 net.cpp:409] ip1 -> ip1
I0505 21:52:48.620705  9446 net.cpp:144] Setting up ip1
I0505 21:52:48.620720  9446 net.cpp:151] Top shape: 20 512 (10240)
I0505 21:52:48.620724  9446 net.cpp:159] Memory required for data: 2266000
I0505 21:52:48.620730  9446 layer_factory.hpp:77] Creating layer ip2
I0505 21:52:48.620738  9446 net.cpp:94] Creating Layer ip2
I0505 21:52:48.620741  9446 net.cpp:435] ip2 <- ip1
I0505 21:52:48.620748  9446 net.cpp:409] ip2 -> ip2
I0505 21:52:48.624699  9446 net.cpp:144] Setting up ip2
I0505 21:52:48.624713  9446 net.cpp:151] Top shape: 20 256 (5120)
I0505 21:52:48.624716  9446 net.cpp:159] Memory required for data: 2286480
I0505 21:52:48.624725  9446 layer_factory.hpp:77] Creating layer ip3
I0505 21:52:48.624732  9446 net.cpp:94] Creating Layer ip3
I0505 21:52:48.624735  9446 net.cpp:435] ip3 <- ip2
I0505 21:52:48.624742  9446 net.cpp:409] ip3 -> ip3
I0505 21:52:48.624845  9446 net.cpp:144] Setting up ip3
I0505 21:52:48.624851  9446 net.cpp:151] Top shape: 20 1 (20)
I0505 21:52:48.624855  9446 net.cpp:159] Memory required for data: 2286560
I0505 21:52:48.624861  9446 layer_factory.hpp:77] Creating layer loss
I0505 21:52:48.624881  9446 net.cpp:94] Creating Layer loss
I0505 21:52:48.624884  9446 net.cpp:435] loss <- ip3
I0505 21:52:48.624887  9446 net.cpp:435] loss <- label
I0505 21:52:48.624892  9446 net.cpp:409] loss -> loss
I0505 21:52:48.624940  9446 net.cpp:144] Setting up loss
…
I0505 21:52:48.699236  9446 net.cpp:323] The NetState phase (0) differed from the phase (1) specified by a rule in layer intercept
I0505 21:52:48.699249  9446 net.cpp:323] The NetState phase (0) differed from the phase (1) specified by a rule in layer accuracy
I0505 21:52:48.699321  9446 net.cpp:52] Initializing net from parameters: 
state {
  phase: TRAIN
}
layer {
  name: "parameters"
  type: "HDF5Data"
  top: "data"
  top: "label"
  include {
    phase: TRAIN
  }
  hdf5_data_param {
    source: "/home/purduethu/scratch/radon/d/deng106/CNNStatisticalModel/distributions/input/50_distributions_100_sample_size_train-distributions-path.txt"
    batch_size: 20
  }
}
layer {
  name: "conv1"
  type: "Convolution"
  bottom: "data"
  top: "conv1"
  param {
    lr_mult: 1
  }
  param {
    lr_mult: 2
  }
  convolution_param {
    num_output: 64
    pad: 2
    kernel_size: 5
    stride: 1
    weight_filler {
      type: "gaussian"
      std: 0.0001
    }
    bias_filler {
      type: "constant"
    }
  }
}
layer {
  name: "relu1"
  type: "ReLU"
  bottom: "conv1"
  top: "conv1"
}
layer {
  name: "pool1"
  type: "Pooling"
  bottom: "conv1"
  top: "pool1"
  pooling_param {
    pool: MAX
    kernel_size: 3
    stride: 2
  }
}
layer {
  name: "conv2"
  type: "Convolution"
  bottom: "pool1"
  top: "conv2"
  param {
    lr_mult: 1
  }
  param {
    lr_mult: 2
  }
  convolution_param {
    num_output: 128
    pad: 2
    kernel_size: 5
    stride: 1
    weight_filler {
      type: "gaussian"
      std: 0.01
    }
    bias_filler {
      type: "constant"
    }
  }
}
layer {
  name: "relu2"
  type: "ReLU"
  bottom: "conv2"
  top: "conv2"
}
layer {
  name: "conv3"
  type: "Convolution"
  bottom: "conv2"
  top: "conv3"
  param {
    lr_mult: 1
  }
  param {
    lr_mult: 2
  }
  convolution_param {
    num_output: 128
    pad: 2
    kernel_size: 5
    stride: 1
    weight_filler {
      type: "gaussian"
      std: 0.01
    }
    bias_filler {
      type: "constant"
    }
  }
}
layer {
  name: "relu3"
  type: "ReLU"
  bottom: "conv3"
  top: "conv3"
}
layer {
  name: "pool3"
  type: "Pooling"
  bottom: "conv3"
  top: "pool3"
  pooling_param {
    pool: AVE
    kernel_size: 3
    stride: 2
  }
}
layer {
  name: "ip1"
  type: "InnerProduct"
  bottom: "pool3"
  top: "ip1"
  param {
    lr_mult: 1
  }
  param {
    lr_mult: 2
  }
  inner_product_param {
    num_output: 512
    weight_filler {
      type: "gaussian"
      std: 0.1
    }
    bias_filler {
      type: "constant"
    }
  }
}
layer {
  name: "ip2"
  type: "InnerProduct"
  bottom: "ip1"
  top: "ip2"
  param {
    lr_mult: 1
  }
  param {
    lr_mult: 2
  }
  inner_product_param {
    num_output: 256
    weight_filler {
      type: "gaussian"
      std: 0.1
    }
    bias_filler {
      type: "constant"
    }
  }
}
layer {
  name: "ip3"
  type: "InnerProduct"
  bottom: "ip2"
  top: "ip3"
  param {
    lr_mult: 1
  }
  param {
    lr_mult: 2
  }
  inner_product_param {
    num_output: 50
    weight_filler {
      type: "gaussian"
      std: 0.1
    }
    bias_filler {
      type: "constant"
    }
  }
}
layer {
  name: "loss"
  type: "SoftmaxWithLoss"
  bottom: "ip3"
  bottom: "label"
  top: "loss"
}
I0505 21:52:48.699365  9446 layer_factory.hpp:77] Creating layer parameters
I0505 21:52:48.699373  9446 net.cpp:94] Creating Layer parameters
I0505 21:52:48.699376  9446 net.cpp:409] parameters -> data
I0505 21:52:48.699383  9446 net.cpp:409] parameters -> label
I0505 21:52:48.699388  9446 hdf5_data_layer.cpp:79] Loading list of HDF5 filenames from: /home/purduethu/scratch/radon/d/deng106/CNNStatisticalModel/distributions/input/50_distributions_100_sample_size_train-distributions-path.txt
I0505 21:52:48.699404  9446 hdf5_data_layer.cpp:93] Number of HDF5 files: 1
I0505 21:52:48.856894  9446 hdf5.cpp:35] Datatype class: H5T_INTEGER
I0505 21:52:48.859966  9446 net.cpp:144] Setting up parameters
I0505 21:52:48.859992  9446 net.cpp:151] Top shape: 20 1 10 10 (2000)
I0505 21:52:48.859997  9446 net.cpp:151] Top shape: 20 (20)
I0505 21:52:48.859999  9446 net.cpp:159] Memory required for data: 8080
I0505 21:52:48.860005  9446 layer_factory.hpp:77] Creating layer conv1
I0505 21:52:48.860021  9446 net.cpp:94] Creating Layer conv1
I0505 21:52:48.860025  9446 net.cpp:435] conv1 <- data
I0505 21:52:48.860033  9446 net.cpp:409] conv1 -> conv1
I0505 21:52:48.861837  9446 net.cpp:144] Setting up conv1
I0505 21:52:48.861851  9446 net.cpp:151] Top shape: 20 64 10 10 (128000)
I0505 21:52:48.861855  9446 net.cpp:159] Memory required for data: 520080
I0505 21:52:48.861865  9446 layer_factory.hpp:77] Creating layer relu1
I0505 21:52:48.861872  9446 net.cpp:94] Creating Layer relu1
I0505 21:52:48.861876  9446 net.cpp:435] relu1 <- conv1
I0505 21:52:48.861881  9446 net.cpp:396] relu1 -> conv1 (in-place)
I0505 21:52:48.861887  9446 net.cpp:144] Setting up relu1
I0505 21:52:48.861891  9446 net.cpp:151] Top shape: 20 64 10 10 (128000)
I0505 21:52:48.861894  9446 net.cpp:159] Memory required for data: 1032080
I0505 21:52:48.861897  9446 layer_factory.hpp:77] Creating layer pool1
I0505 21:52:48.861903  9446 net.cpp:94] Creating Layer pool1
I0505 21:52:48.861907  9446 net.cpp:435] pool1 <- conv1
I0505 21:52:48.861917  9446 net.cpp:409] pool1 -> pool1
I0505 21:52:48.861969  9446 net.cpp:144] Setting up pool1
I0505 21:52:48.861976  9446 net.cpp:151] Top shape: 20 64 5 5 (32000)
I0505 21:52:48.861980  9446 net.cpp:159] Memory required for data: 1160080
I0505 21:52:48.861984  9446 layer_factory.hpp:77] Creating layer conv2
I0505 21:52:48.861991  9446 net.cpp:94] Creating Layer conv2
I0505 21:52:48.861995  9446 net.cpp:435] conv2 <- pool1
I0505 21:52:48.861999  9446 net.cpp:409] conv2 -> conv2
I0505 21:52:48.871152  9446 net.cpp:144] Setting up conv2
I0505 21:52:48.871167  9446 net.cpp:151] Top shape: 20 128 5 5 (64000)
I0505 21:52:48.871171  9446 net.cpp:159] Memory required for data: 1416080
I0505 21:52:48.871179  9446 layer_factory.hpp:77] Creating layer relu2
I0505 21:52:48.871186  9446 net.cpp:94] Creating Layer relu2
I0505 21:52:48.871188  9446 net.cpp:435] relu2 <- conv2
I0505 21:52:48.871193  9446 net.cpp:396] relu2 -> conv2 (in-place)
I0505 21:52:48.871199  9446 net.cpp:144] Setting up relu2
I0505 21:52:48.871204  9446 net.cpp:151] Top shape: 20 128 5 5 (64000)
I0505 21:52:48.871207  9446 net.cpp:159] Memory required for data: 1672080
I0505 21:52:48.871210  9446 layer_factory.hpp:77] Creating layer conv3
I0505 21:52:48.871218  9446 net.cpp:94] Creating Layer conv3
I0505 21:52:48.871222  9446 net.cpp:435] conv3 <- conv2
I0505 21:52:48.871227  9446 net.cpp:409] conv3 -> conv3
I0505 21:52:48.886071  9446 net.cpp:144] Setting up conv3
I0505 21:52:48.886090  9446 net.cpp:151] Top shape: 20 128 5 5 (64000)
I0505 21:52:48.886096  9446 net.cpp:159] Memory required for data: 1928080
I0505 21:52:48.886104  9446 layer_factory.hpp:77] Creating layer relu3
I0505 21:52:48.886112  9446 net.cpp:94] Creating Layer relu3
I0505 21:52:48.886116  9446 net.cpp:435] relu3 <- conv3
I0505 21:52:48.886121  9446 net.cpp:396] relu3 -> conv3 (in-place)
I0505 21:52:48.886129  9446 net.cpp:144] Setting up relu3
I0505 21:52:48.886133  9446 net.cpp:151] Top shape: 20 128 5 5 (64000)
I0505 21:52:48.886137  9446 net.cpp:159] Memory required for data: 2184080
I0505 21:52:48.886140  9446 layer_factory.hpp:77] Creating layer pool3
I0505 21:52:48.886147  9446 net.cpp:94] Creating Layer pool3
I0505 21:52:48.886150  9446 net.cpp:435] pool3 <- conv3
I0505 21:52:48.886154  9446 net.cpp:409] pool3 -> pool3
I0505 21:52:48.886191  9446 net.cpp:144] Setting up pool3
I0505 21:52:48.886199  9446 net.cpp:151] Top shape: 20 128 2 2 (10240)
I0505 21:52:48.886203  9446 net.cpp:159] Memory required for data: 2225040
I0505 21:52:48.886205  9446 layer_factory.hpp:77] Creating layer ip1
I0505 21:52:48.886212  9446 net.cpp:94] Creating Layer ip1
I0505 21:52:48.886215  9446 net.cpp:435] ip1 <- pool3
I0505 21:52:48.886220  9446 net.cpp:409] ip1 -> ip1
I0505 21:52:48.892705  9446 net.cpp:144] Setting up ip1
I0505 21:52:48.892715  9446 net.cpp:151] Top shape: 20 512 (10240)
I0505 21:52:48.892719  9446 net.cpp:159] Memory required for data: 2266000
I0505 21:52:48.892724  9446 layer_factory.hpp:77] Creating layer ip2
I0505 21:52:48.892731  9446 net.cpp:94] Creating Layer ip2
I0505 21:52:48.892735  9446 net.cpp:435] ip2 <- ip1
I0505 21:52:48.892740  9446 net.cpp:409] ip2 -> ip2
I0505 21:52:48.896054  9446 net.cpp:144] Setting up ip2
I0505 21:52:48.896061  9446 net.cpp:151] Top shape: 20 256 (5120)
I0505 21:52:48.896065  9446 net.cpp:159] Memory required for data: 2286480
I0505 21:52:48.896072  9446 layer_factory.hpp:77] Creating layer ip3
I0505 21:52:48.896080  9446 net.cpp:94] Creating Layer ip3
I0505 21:52:48.896082  9446 net.cpp:435] ip3 <- ip2
I0505 21:52:48.896088  9446 net.cpp:409] ip3 -> ip3
I0505 21:52:48.897398  9446 net.cpp:144] Setting up ip3
I0505 21:52:48.897413  9446 net.cpp:151] Top shape: 20 50 (1000)
I0505 21:52:48.897418  9446 net.cpp:159] Memory required for data: 2290480
I0505 21:52:48.897423  9446 layer_factory.hpp:77] Creating layer loss
I0505 21:52:48.897429  9446 net.cpp:94] Creating Layer loss
I0505 21:52:48.897433  9446 net.cpp:435] loss <- ip3
I0505 21:52:48.897447  9446 net.cpp:435] loss <- label
I0505 21:52:48.897452  9446 net.cpp:409] loss -> loss
I0505 21:52:48.897464  9446 layer_factory.hpp:77] Creating layer loss
…
I0505 21:52:48.897912  9446 solver.cpp:181] Creating test net (#0) specified by net file: ./protocol/dis_50_100_dimension.protocol_distribution
I0505 21:52:48.897935  9446 net.cpp:323] The NetState phase (1) differed from the phase (0) specified by a rule in layer parameters
I0505 21:52:48.898025  9446 net.cpp:52] Initializing net from parameters: 
state {
  phase: TEST
}
layer {
  name: "intercept"
  type: "HDF5Data"
  top: "data"
  top: "label"
  include {
    phase: TEST
  }
  hdf5_data_param {
    source: "/home/purduethu/scratch/radon/d/deng106/CNNStatisticalModel/distributions/input/50_distributions_100_sample_size_test-distributions-path.txt"
    batch_size: 20
  }
}
layer {
  name: "conv1"
  type: "Convolution"
  bottom: "data"
  top: "conv1"
  param {
    lr_mult: 1
  }
  param {
    lr_mult: 2
  }
  convolution_param {
    num_output: 64
    pad: 2
    kernel_size: 5
    stride: 1
    weight_filler {
      type: "gaussian"
      std: 0.0001
    }
    bias_filler {
      type: "constant"
    }
  }
}
layer {
  name: "relu1"
  type: "ReLU"
  bottom: "conv1"
  top: "conv1"
}
layer {
  name: "pool1"
  type: "Pooling"
  bottom: "conv1"
  top: "pool1"
  pooling_param {
    pool: MAX
    kernel_size: 3
    stride: 2
  }
}
layer {
  name: "conv2"
  type: "Convolution"
  bottom: "pool1"
  top: "conv2"
  param {
    lr_mult: 1
  }
  param {
    lr_mult: 2
  }
  convolution_param {
    num_output: 128
    pad: 2
    kernel_size: 5
    stride: 1
    weight_filler {
      type: "gaussian"
      std: 0.01
    }
    bias_filler {
      type: "constant"
    }
  }
}
layer {
  name: "relu2"
  type: "ReLU"
  bottom: "conv2"
  top: "conv2"
}
layer {
  name: "conv3"
  type: "Convolution"
  bottom: "conv2"
  top: "conv3"
  param {
    lr_mult: 1
  }
  param {
    lr_mult: 2
  }
  convolution_param {
    num_output: 128
    pad: 2
    kernel_size: 5
    stride: 1
    weight_filler {
      type: "gaussian"
      std: 0.01
    }
    bias_filler {
      type: "constant"
    }
  }
}
layer {
  name: "relu3"
  type: "ReLU"
  bottom: "conv3"
  top: "conv3"
}
layer {
  name: "pool3"
  type: "Pooling"
  bottom: "conv3"
  top: "pool3"
  pooling_param {
    pool: AVE
    kernel_size: 3
    stride: 2
  }
}
layer {
  name: "ip1"
  type: "InnerProduct"
  bottom: "pool3"
  top: "ip1"
  param {
    lr_mult: 1
  }
  param {
    lr_mult: 2
  }
  inner_product_param {
    num_output: 512
    weight_filler {
      type: "gaussian"
      std: 0.1
    }
    bias_filler {
      type: "constant"
    }
  }
}
layer {
  name: "ip2"
  type: "InnerProduct"
  bottom: "ip1"
  top: "ip2"
  param {
    lr_mult: 1
  }
  param {
    lr_mult: 2
  }
  inner_product_param {
    num_output: 256
    weight_filler {
      type: "gaussian"
      std: 0.1
    }
    bias_filler {
      type: "constant"
    }
  }
}
layer {
  name: "ip3"
  type: "InnerProduct"
  bottom: "ip2"
  top: "ip3"
  param {
    lr_mult: 1
  }
  param {
    lr_mult: 2
  }
  inner_product_param {
    num_output: 50
    weight_filler {
      type: "gaussian"
      std: 0.1
    }
    bias_filler {
      type: "constant"
    }
  }
}
layer {
  name: "accuracy"
  type: "Accuracy"
  bottom: "ip3"
  bottom: "label"
  top: "accuracy"
  include {
    phase: TEST
  }
}
layer {
  name: "loss"
  type: "SoftmaxWithLoss"
  bottom: "ip3"
  bottom: "label"
  top: "loss"
}
I0505 21:52:48.898082  9446 layer_factory.hpp:77] Creating layer intercept
I0505 21:52:48.898089  9446 net.cpp:94] Creating Layer intercept
I0505 21:52:48.898093  9446 net.cpp:409] intercept -> data
I0505 21:52:48.898100  9446 net.cpp:409] intercept -> label
I0505 21:52:48.898106  9446 hdf5_data_layer.cpp:79] Loading list of HDF5 filenames from: /home/purduethu/scratch/radon/d/deng106/CNNStatisticalModel/distributions/input/50_distributions_100_sample_size_test-distributions-path.txt
I0505 21:52:48.898135  9446 hdf5_data_layer.cpp:93] Number of HDF5 files: 1
I0505 21:52:48.940541  9446 net.cpp:144] Setting up intercept
I0505 21:52:48.940595  9446 net.cpp:151] Top shape: 20 1 10 10 (2000)
I0505 21:52:48.940600  9446 net.cpp:151] Top shape: 20 (20)
I0505 21:52:48.940604  9446 net.cpp:159] Memory required for data: 8080
I0505 21:52:48.940610  9446 layer_factory.hpp:77] Creating layer label_intercept_1_split
I0505 21:52:48.940630  9446 net.cpp:94] Creating Layer label_intercept_1_split
I0505 21:52:48.940634  9446 net.cpp:435] label_intercept_1_split <- label
I0505 21:52:48.940641  9446 net.cpp:409] label_intercept_1_split -> label_intercept_1_split_0
I0505 21:52:48.940649  9446 net.cpp:409] label_intercept_1_split -> label_intercept_1_split_1
I0505 21:52:48.940691  9446 net.cpp:144] Setting up label_intercept_1_split
I0505 21:52:48.940697  9446 net.cpp:151] Top shape: 20 (20)
I0505 21:52:48.940701  9446 net.cpp:151] Top shape: 20 (20)
I0505 21:52:48.940704  9446 net.cpp:159] Memory required for data: 8240
I0505 21:52:48.940707  9446 layer_factory.hpp:77] Creating layer conv1
I0505 21:52:48.940718  9446 net.cpp:94] Creating Layer conv1
I0505 21:52:48.940722  9446 net.cpp:435] conv1 <- data
I0505 21:52:48.940727  9446 net.cpp:409] conv1 -> conv1
I0505 21:52:48.941575  9446 net.cpp:144] Setting up conv1
I0505 21:52:48.941587  9446 net.cpp:151] Top shape: 20 64 10 10 (128000)
I0505 21:52:48.941591  9446 net.cpp:159] Memory required for data: 520240
I0505 21:52:48.941601  9446 layer_factory.hpp:77] Creating layer relu1
I0505 21:52:48.941607  9446 net.cpp:94] Creating Layer relu1
I0505 21:52:48.941612  9446 net.cpp:435] relu1 <- conv1
I0505 21:52:48.941615  9446 net.cpp:396] relu1 -> conv1 (in-place)
I0505 21:52:48.941622  9446 net.cpp:144] Setting up relu1
I0505 21:52:48.941627  9446 net.cpp:151] Top shape: 20 64 10 10 (128000)
I0505 21:52:48.941629  9446 net.cpp:159] Memory required for data: 1032240
I0505 21:52:48.941632  9446 layer_factory.hpp:77] Creating layer pool1
I0505 21:52:48.941639  9446 net.cpp:94] Creating Layer pool1
I0505 21:52:48.941642  9446 net.cpp:435] pool1 <- conv1
I0505 21:52:48.941646  9446 net.cpp:409] pool1 -> pool1
I0505 21:52:48.941699  9446 net.cpp:144] Setting up pool1
I0505 21:52:48.941706  9446 net.cpp:151] Top shape: 20 64 5 5 (32000)
I0505 21:52:48.941709  9446 net.cpp:159] Memory required for data: 1160240
I0505 21:52:48.941712  9446 layer_factory.hpp:77] Creating layer conv2
I0505 21:52:48.941720  9446 net.cpp:94] Creating Layer conv2
I0505 21:52:48.941725  9446 net.cpp:435] conv2 <- pool1
I0505 21:52:48.941730  9446 net.cpp:409] conv2 -> conv2
I0505 21:52:48.949242  9446 net.cpp:144] Setting up conv2
I0505 21:52:48.949257  9446 net.cpp:151] Top shape: 20 128 5 5 (64000)
I0505 21:52:48.949261  9446 net.cpp:159] Memory required for data: 1416240
I0505 21:52:48.949270  9446 layer_factory.hpp:77] Creating layer relu2
I0505 21:52:48.949281  9446 net.cpp:94] Creating Layer relu2
I0505 21:52:48.949286  9446 net.cpp:435] relu2 <- conv2
I0505 21:52:48.949291  9446 net.cpp:396] relu2 -> conv2 (in-place)
I0505 21:52:48.949297  9446 net.cpp:144] Setting up relu2
I0505 21:52:48.949302  9446 net.cpp:151] Top shape: 20 128 5 5 (64000)
I0505 21:52:48.949306  9446 net.cpp:159] Memory required for data: 1672240
I0505 21:52:48.949308  9446 layer_factory.hpp:77] Creating layer conv3
I0505 21:52:48.949316  9446 net.cpp:94] Creating Layer conv3
I0505 21:52:48.949319  9446 net.cpp:435] conv3 <- conv2
I0505 21:52:48.949324  9446 net.cpp:409] conv3 -> conv3
I0505 21:52:48.961783  9446 net.cpp:144] Setting up conv3
I0505 21:52:48.961809  9446 net.cpp:151] Top shape: 20 128 5 5 (64000)
I0505 21:52:48.961817  9446 net.cpp:159] Memory required for data: 1928240
I0505 21:52:48.961833  9446 layer_factory.hpp:77] Creating layer relu3
I0505 21:52:48.961844  9446 net.cpp:94] Creating Layer relu3
I0505 21:52:48.961851  9446 net.cpp:435] relu3 <- conv3
I0505 21:52:48.961860  9446 net.cpp:396] relu3 -> conv3 (in-place)
I0505 21:52:48.961872  9446 net.cpp:144] Setting up relu3
I0505 21:52:48.961881  9446 net.cpp:151] Top shape: 20 128 5 5 (64000)
I0505 21:52:48.961887  9446 net.cpp:159] Memory required for data: 2184240
I0505 21:52:48.961894  9446 layer_factory.hpp:77] Creating layer pool3
I0505 21:52:48.961902  9446 net.cpp:94] Creating Layer pool3
I0505 21:52:48.961907  9446 net.cpp:435] pool3 <- conv3
I0505 21:52:48.961915  9446 net.cpp:409] pool3 -> pool3
I0505 21:52:48.961978  9446 net.cpp:144] Setting up pool3
I0505 21:52:48.961992  9446 net.cpp:151] Top shape: 20 128 2 2 (10240)
I0505 21:52:48.961997  9446 net.cpp:159] Memory required for data: 2225200
I0505 21:52:48.962011  9446 layer_factory.hpp:77] Creating layer ip1
I0505 21:52:48.962018  9446 net.cpp:94] Creating Layer ip1
I0505 21:52:48.962021  9446 net.cpp:435] ip1 <- pool3
I0505 21:52:48.962026  9446 net.cpp:409] ip1 -> ip1
I0505 21:52:48.968242  9446 net.cpp:144] Setting up ip1
I0505 21:52:48.968251  9446 net.cpp:151] Top shape: 20 512 (10240)
I0505 21:52:48.968255  9446 net.cpp:159] Memory required for data: 2266160
I0505 21:52:48.968261  9446 layer_factory.hpp:77] Creating layer ip2
I0505 21:52:48.968266  9446 net.cpp:94] Creating Layer ip2
I0505 21:52:48.968269  9446 net.cpp:435] ip2 <- ip1
I0505 21:52:48.968274  9446 net.cpp:409] ip2 -> ip2
I0505 21:52:48.972268  9446 net.cpp:144] Setting up ip2
I0505 21:52:48.972283  9446 net.cpp:151] Top shape: 20 256 (5120)
I0505 21:52:48.972286  9446 net.cpp:159] Memory required for data: 2286640
I0505 21:52:48.972295  9446 layer_factory.hpp:77] Creating layer ip3
I0505 21:52:48.972301  9446 net.cpp:94] Creating Layer ip3
I0505 21:52:48.972306  9446 net.cpp:435] ip3 <- ip2
I0505 21:52:48.972311  9446 net.cpp:409] ip3 -> ip3
I0505 21:52:48.972761  9446 net.cpp:144] Setting up ip3
I0505 21:52:48.972770  9446 net.cpp:151] Top shape: 20 50 (1000)
I0505 21:52:48.972774  9446 net.cpp:159] Memory required for data: 2290640
I0505 21:52:48.972779  9446 layer_factory.hpp:77] Creating layer ip3_ip3_0_split
I0505 21:52:48.972785  9446 net.cpp:94] Creating Layer ip3_ip3_0_split
I0505 21:52:48.972790  9446 net.cpp:435] ip3_ip3_0_split <- ip3
I0505 21:52:48.972793  9446 net.cpp:409] ip3_ip3_0_split -> ip3_ip3_0_split_0
I0505 21:52:48.972800  9446 net.cpp:409] ip3_ip3_0_split -> ip3_ip3_0_split_1
I0505 21:52:48.972841  9446 net.cpp:144] Setting up ip3_ip3_0_split
I0505 21:52:48.972846  9446 net.cpp:151] Top shape: 20 50 (1000)
I0505 21:52:48.972851  9446 net.cpp:151] Top shape: 20 50 (1000)
I0505 21:52:48.972853  9446 net.cpp:159] Memory required for data: 2298640
I0505 21:52:48.972856  9446 layer_factory.hpp:77] Creating layer accuracy
I0505 21:52:48.972863  9446 net.cpp:94] Creating Layer accuracy
I0505 21:52:48.972867  9446 net.cpp:435] accuracy <- ip3_ip3_0_split_0
I0505 21:52:48.972880  9446 net.cpp:435] accuracy <- label_intercept_1_split_0
I0505 21:52:48.972884  9446 net.cpp:409] accuracy -> accuracy
…
