…
I0505 04:35:09.972537  3352 net.cpp:323] The NetState phase (0) differed from the phase (1) specified by a rule in layer intercept
I0505 04:35:09.972558  3352 net.cpp:323] The NetState phase (0) differed from the phase (1) specified by a rule in layer accuracy
I0505 04:35:09.972651  3352 net.cpp:52] Initializing net from parameters: 
state {
  phase: TRAIN
}
layer {
  name: "parameters"
  type: "HDF5Data"
  top: "data"
  top: "label"
  include {
    phase: TRAIN
  }
  hdf5_data_param {
    source: "/home/purduethu/scratch/radon/d/deng106/CNNStatisticalModel/distributions/input/50_distributions_900_sample_size_train-distributions-path.txt"
    batch_size: 20
  }
}
layer {
  name: "conv1"
  type: "Convolution"
  bottom: "data"
  top: "conv1"
  param {
    lr_mult: 1
  }
  param {
    lr_mult: 2
  }
  convolution_param {
    num_output: 64
    pad: 2
    kernel_size: 5
    stride: 1
    weight_filler {
      type: "gaussian"
      std: 0.0001
    }
    bias_filler {
      type: "constant"
    }
  }
}
layer {
  name: "relu1"
  type: "ReLU"
  bottom: "conv1"
  top: "conv1"
}
layer {
  name: "pool1"
  type: "Pooling"
  bottom: "conv1"
  top: "pool1"
  pooling_param {
    pool: MAX
    kernel_size: 3
    stride: 2
  }
}
layer {
  name: "conv2"
  type: "Convolution"
  bottom: "pool1"
  top: "conv2"
  param {
    lr_mult: 1
  }
  param {
    lr_mult: 2
  }
  convolution_param {
    num_output: 128
    pad: 2
    kernel_size: 5
    stride: 1
    weight_filler {
      type: "gaussian"
      std: 0.01
    }
    bias_filler {
      type: "constant"
    }
  }
}
layer {
  name: "relu2"
  type: "ReLU"
  bottom: "conv2"
  top: "conv2"
}
layer {
  name: "conv3"
  type: "Convolution"
  bottom: "conv2"
  top: "conv3"
  param {
    lr_mult: 1
  }
  param {
    lr_mult: 2
  }
  convolution_param {
    num_output: 128
    pad: 2
    kernel_size: 5
    stride: 1
    weight_filler {
      type: "gaussian"
      std: 0.01
    }
    bias_filler {
      type: "constant"
    }
  }
}
layer {
  name: "relu3"
  type: "ReLU"
  bottom: "conv3"
  top: "conv3"
}
layer {
  name: "pool3"
  type: "Pooling"
  bottom: "conv3"
  top: "pool3"
  pooling_param {
    pool: AVE
    kernel_size: 3
    stride: 2
  }
}
layer {
  name: "ip1"
  type: "InnerProduct"
  bottom: "pool3"
  top: "ip1"
  param {
    lr_mult: 1
  }
  param {
    lr_mult: 2
  }
  inner_product_param {
    num_output: 512
    weight_filler {
      type: "gaussian"
      std: 0.1
    }
    bias_filler {
      type: "constant"
    }
  }
}
layer {
  name: "ip2"
  type: "InnerProduct"
  bottom: "ip1"
  top: "ip2"
  param {
    lr_mult: 1
  }
  param {
    lr_mult: 2
  }
  inner_product_param {
    num_output: 256
    weight_filler {
      type: "gaussian"
      std: 0.1
    }
    bias_filler {
      type: "constant"
    }
  }
}
layer {
  name: "ip3"
  type: "InnerProduct"
  bottom: "ip2"
  top: "ip3"
  param {
    lr_mult: 1
  }
  param {
    lr_mult: 2
  }
  inner_product_param {
    num_output: 50
    weight_filler {
      type: "gaussian"
      std: 0.1
    }
    bias_filler {
      type: "constant"
    }
  }
}
layer {
  name: "loss"
  type: "SoftmaxWithLoss"
  bottom: "ip3"
  bottom: "label"
  top: "loss"
}
I0505 04:35:09.972718  3352 layer_factory.hpp:77] Creating layer parameters
I0505 04:35:09.972731  3352 net.cpp:94] Creating Layer parameters
I0505 04:35:09.972744  3352 net.cpp:409] parameters -> data
I0505 04:35:09.972764  3352 net.cpp:409] parameters -> label
I0505 04:35:09.972774  3352 hdf5_data_layer.cpp:79] Loading list of HDF5 filenames from: /home/purduethu/scratch/radon/d/deng106/CNNStatisticalModel/distributions/input/50_distributions_900_sample_size_train-distributions-path.txt
I0505 04:35:09.972795  3352 hdf5_data_layer.cpp:93] Number of HDF5 files: 1
I0505 04:35:09.973351  3352 hdf5.cpp:32] Datatype class: H5T_FLOAT
I0505 04:35:11.379083  3352 hdf5.cpp:35] Datatype class: H5T_INTEGER
I0505 04:35:11.381819  3352 net.cpp:144] Setting up parameters
I0505 04:35:11.381842  3352 net.cpp:151] Top shape: 20 1 30 30 (18000)
I0505 04:35:11.381847  3352 net.cpp:151] Top shape: 20 (20)
I0505 04:35:11.381851  3352 net.cpp:159] Memory required for data: 72080
I0505 04:35:11.381860  3352 layer_factory.hpp:77] Creating layer conv1
I0505 04:35:11.381882  3352 net.cpp:94] Creating Layer conv1
I0505 04:35:11.381888  3352 net.cpp:435] conv1 <- data
I0505 04:35:11.381901  3352 net.cpp:409] conv1 -> conv1
I0505 04:35:11.387696  3352 net.cpp:144] Setting up conv1
I0505 04:35:11.387712  3352 net.cpp:151] Top shape: 20 64 30 30 (1152000)
I0505 04:35:11.387717  3352 net.cpp:159] Memory required for data: 4680080
I0505 04:35:11.387729  3352 layer_factory.hpp:77] Creating layer relu1
I0505 04:35:11.387737  3352 net.cpp:94] Creating Layer relu1
I0505 04:35:11.387742  3352 net.cpp:435] relu1 <- conv1
I0505 04:35:11.387747  3352 net.cpp:396] relu1 -> conv1 (in-place)
I0505 04:35:11.387763  3352 net.cpp:144] Setting up relu1
I0505 04:35:11.387768  3352 net.cpp:151] Top shape: 20 64 30 30 (1152000)
I0505 04:35:11.387770  3352 net.cpp:159] Memory required for data: 9288080
I0505 04:35:11.387773  3352 layer_factory.hpp:77] Creating layer pool1
I0505 04:35:11.387781  3352 net.cpp:94] Creating Layer pool1
I0505 04:35:11.387784  3352 net.cpp:435] pool1 <- conv1
I0505 04:35:11.387789  3352 net.cpp:409] pool1 -> pool1
I0505 04:35:11.387830  3352 net.cpp:144] Setting up pool1
I0505 04:35:11.387836  3352 net.cpp:151] Top shape: 20 64 15 15 (288000)
I0505 04:35:11.387840  3352 net.cpp:159] Memory required for data: 10440080
I0505 04:35:11.387842  3352 layer_factory.hpp:77] Creating layer conv2
I0505 04:35:11.387851  3352 net.cpp:94] Creating Layer conv2
I0505 04:35:11.387856  3352 net.cpp:435] conv2 <- pool1
I0505 04:35:11.387861  3352 net.cpp:409] conv2 -> conv2
I0505 04:35:11.400897  3352 net.cpp:144] Setting up conv2
I0505 04:35:11.400913  3352 net.cpp:151] Top shape: 20 128 15 15 (576000)
I0505 04:35:11.400916  3352 net.cpp:159] Memory required for data: 12744080
I0505 04:35:11.400924  3352 layer_factory.hpp:77] Creating layer relu2
I0505 04:35:11.400931  3352 net.cpp:94] Creating Layer relu2
I0505 04:35:11.400935  3352 net.cpp:435] relu2 <- conv2
I0505 04:35:11.400940  3352 net.cpp:396] relu2 -> conv2 (in-place)
I0505 04:35:11.400948  3352 net.cpp:144] Setting up relu2
I0505 04:35:11.400952  3352 net.cpp:151] Top shape: 20 128 15 15 (576000)
I0505 04:35:11.400955  3352 net.cpp:159] Memory required for data: 15048080
I0505 04:35:11.400959  3352 layer_factory.hpp:77] Creating layer conv3
I0505 04:35:11.400966  3352 net.cpp:94] Creating Layer conv3
I0505 04:35:11.400969  3352 net.cpp:435] conv3 <- conv2
I0505 04:35:11.400974  3352 net.cpp:409] conv3 -> conv3
I0505 04:35:11.422641  3352 net.cpp:144] Setting up conv3
I0505 04:35:11.422657  3352 net.cpp:151] Top shape: 20 128 15 15 (576000)
I0505 04:35:11.422660  3352 net.cpp:159] Memory required for data: 17352080
I0505 04:35:11.422674  3352 layer_factory.hpp:77] Creating layer relu3
I0505 04:35:11.422682  3352 net.cpp:94] Creating Layer relu3
I0505 04:35:11.422685  3352 net.cpp:435] relu3 <- conv3
I0505 04:35:11.422690  3352 net.cpp:396] relu3 -> conv3 (in-place)
I0505 04:35:11.422698  3352 net.cpp:144] Setting up relu3
I0505 04:35:11.422703  3352 net.cpp:151] Top shape: 20 128 15 15 (576000)
I0505 04:35:11.422705  3352 net.cpp:159] Memory required for data: 19656080
I0505 04:35:11.422708  3352 layer_factory.hpp:77] Creating layer pool3
I0505 04:35:11.422721  3352 net.cpp:94] Creating Layer pool3
I0505 04:35:11.422725  3352 net.cpp:435] pool3 <- conv3
I0505 04:35:11.422729  3352 net.cpp:409] pool3 -> pool3
I0505 04:35:11.422765  3352 net.cpp:144] Setting up pool3
I0505 04:35:11.422771  3352 net.cpp:151] Top shape: 20 128 7 7 (125440)
I0505 04:35:11.422775  3352 net.cpp:159] Memory required for data: 20157840
I0505 04:35:11.422777  3352 layer_factory.hpp:77] Creating layer ip1
I0505 04:35:11.422788  3352 net.cpp:94] Creating Layer ip1
I0505 04:35:11.422791  3352 net.cpp:435] ip1 <- pool3
I0505 04:35:11.422796  3352 net.cpp:409] ip1 -> ip1
I0505 04:35:11.499797  3352 net.cpp:144] Setting up ip1
I0505 04:35:11.499820  3352 net.cpp:151] Top shape: 20 512 (10240)
I0505 04:35:11.499825  3352 net.cpp:159] Memory required for data: 20198800
I0505 04:35:11.499833  3352 layer_factory.hpp:77] Creating layer ip2
I0505 04:35:11.499843  3352 net.cpp:94] Creating Layer ip2
I0505 04:35:11.499848  3352 net.cpp:435] ip2 <- ip1
I0505 04:35:11.499855  3352 net.cpp:409] ip2 -> ip2
I0505 04:35:11.502957  3352 net.cpp:144] Setting up ip2
I0505 04:35:11.502966  3352 net.cpp:151] Top shape: 20 256 (5120)
I0505 04:35:11.502969  3352 net.cpp:159] Memory required for data: 20219280
I0505 04:35:11.502977  3352 layer_factory.hpp:77] Creating layer ip3
I0505 04:35:11.502984  3352 net.cpp:94] Creating Layer ip3
I0505 04:35:11.502987  3352 net.cpp:435] ip3 <- ip2
I0505 04:35:11.502992  3352 net.cpp:409] ip3 -> ip3
I0505 04:35:11.504076  3352 net.cpp:144] Setting up ip3
I0505 04:35:11.504088  3352 net.cpp:151] Top shape: 20 50 (1000)
I0505 04:35:11.504092  3352 net.cpp:159] Memory required for data: 20223280
I0505 04:35:11.504098  3352 layer_factory.hpp:77] Creating layer loss
I0505 04:35:11.504106  3352 net.cpp:94] Creating Layer loss
I0505 04:35:11.504108  3352 net.cpp:435] loss <- ip3
I0505 04:35:11.504113  3352 net.cpp:435] loss <- label
I0505 04:35:11.504118  3352 net.cpp:409] loss -> loss
I0505 04:35:11.504134  3352 layer_factory.hpp:77] Creating layer loss
…
I0505 04:35:11.504555  3352 solver.cpp:181] Creating test net (#0) specified by net file: ./protocol/dis_50_900_dimension.protocol_distribution
I0505 04:35:11.504600  3352 net.cpp:323] The NetState phase (1) differed from the phase (0) specified by a rule in layer parameters
I0505 04:35:11.504686  3352 net.cpp:52] Initializing net from parameters: 
state {
  phase: TEST
}
layer {
  name: "intercept"
  type: "HDF5Data"
  top: "data"
  top: "label"
  include {
    phase: TEST
  }
  hdf5_data_param {
    source: "/home/purduethu/scratch/radon/d/deng106/CNNStatisticalModel/distributions/input/50_distributions_900_sample_size_test-distributions-path.txt"
    batch_size: 20
  }
}
layer {
  name: "conv1"
  type: "Convolution"
  bottom: "data"
  top: "conv1"
  param {
    lr_mult: 1
  }
  param {
    lr_mult: 2
  }
  convolution_param {
    num_output: 64
    pad: 2
    kernel_size: 5
    stride: 1
    weight_filler {
      type: "gaussian"
      std: 0.0001
    }
    bias_filler {
      type: "constant"
    }
  }
}
layer {
  name: "relu1"
  type: "ReLU"
  bottom: "conv1"
  top: "conv1"
}
layer {
  name: "pool1"
  type: "Pooling"
  bottom: "conv1"
  top: "pool1"
  pooling_param {
    pool: MAX
    kernel_size: 3
    stride: 2
  }
}
layer {
  name: "conv2"
  type: "Convolution"
  bottom: "pool1"
  top: "conv2"
  param {
    lr_mult: 1
  }
  param {
    lr_mult: 2
  }
  convolution_param {
    num_output: 128
    pad: 2
    kernel_size: 5
    stride: 1
    weight_filler {
      type: "gaussian"
      std: 0.01
    }
    bias_filler {
      type: "constant"
    }
  }
}
layer {
  name: "relu2"
  type: "ReLU"
  bottom: "conv2"
  top: "conv2"
}
layer {
  name: "conv3"
  type: "Convolution"
  bottom: "conv2"
  top: "conv3"
  param {
    lr_mult: 1
  }
  param {
    lr_mult: 2
  }
  convolution_param {
    num_output: 128
    pad: 2
    kernel_size: 5
    stride: 1
    weight_filler {
      type: "gaussian"
      std: 0.01
    }
    bias_filler {
      type: "constant"
    }
  }
}
layer {
  name: "relu3"
  type: "ReLU"
  bottom: "conv3"
  top: "conv3"
}
layer {
  name: "pool3"
  type: "Pooling"
  bottom: "conv3"
  top: "pool3"
  pooling_param {
    pool: AVE
    kernel_size: 3
    stride: 2
  }
}
layer {
  name: "ip1"
  type: "InnerProduct"
  bottom: "pool3"
  top: "ip1"
  param {
    lr_mult: 1
  }
  param {
    lr_mult: 2
  }
  inner_product_param {
    num_output: 512
    weight_filler {
      type: "gaussian"
      std: 0.1
    }
    bias_filler {
      type: "constant"
    }
  }
}
layer {
  name: "ip2"
  type: "InnerProduct"
  bottom: "ip1"
  top: "ip2"
  param {
    lr_mult: 1
  }
  param {
    lr_mult: 2
  }
  inner_product_param {
    num_output: 256
    weight_filler {
      type: "gaussian"
      std: 0.1
    }
    bias_filler {
      type: "constant"
    }
  }
}
layer {
  name: "ip3"
  type: "InnerProduct"
  bottom: "ip2"
  top: "ip3"
  param {
    lr_mult: 1
  }
  param {
    lr_mult: 2
  }
  inner_product_param {
    num_output: 50
    weight_filler {
      type: "gaussian"
      std: 0.1
    }
    bias_filler {
      type: "constant"
    }
  }
}
layer {
  name: "accuracy"
  type: "Accuracy"
  bottom: "ip3"
  bottom: "label"
  top: "accuracy"
  include {
    phase: TEST
  }
}
layer {
  name: "loss"
  type: "SoftmaxWithLoss"
  bottom: "ip3"
  bottom: "label"
  top: "loss"
}
I0505 04:35:11.504750  3352 layer_factory.hpp:77] Creating layer intercept
I0505 04:35:11.504760  3352 net.cpp:94] Creating Layer intercept
I0505 04:35:11.504763  3352 net.cpp:409] intercept -> data
I0505 04:35:11.504770  3352 net.cpp:409] intercept -> label
I0505 04:35:11.504777  3352 hdf5_data_layer.cpp:79] Loading list of HDF5 filenames from: /home/purduethu/scratch/radon/d/deng106/CNNStatisticalModel/distributions/input/50_distributions_900_sample_size_test-distributions-path.txt
I0505 04:35:11.504797  3352 hdf5_data_layer.cpp:93] Number of HDF5 files: 1
I0505 04:35:11.853204  3352 net.cpp:144] Setting up intercept
I0505 04:35:11.853236  3352 net.cpp:151] Top shape: 20 1 30 30 (18000)
I0505 04:35:11.853241  3352 net.cpp:151] Top shape: 20 (20)
I0505 04:35:11.853245  3352 net.cpp:159] Memory required for data: 72080
I0505 04:35:11.853251  3352 layer_factory.hpp:77] Creating layer label_intercept_1_split
I0505 04:35:11.853278  3352 net.cpp:94] Creating Layer label_intercept_1_split
I0505 04:35:11.853283  3352 net.cpp:435] label_intercept_1_split <- label
I0505 04:35:11.853289  3352 net.cpp:409] label_intercept_1_split -> label_intercept_1_split_0
I0505 04:35:11.853298  3352 net.cpp:409] label_intercept_1_split -> label_intercept_1_split_1
I0505 04:35:11.853324  3352 net.cpp:144] Setting up label_intercept_1_split
I0505 04:35:11.853329  3352 net.cpp:151] Top shape: 20 (20)
I0505 04:35:11.853333  3352 net.cpp:151] Top shape: 20 (20)
I0505 04:35:11.853343  3352 net.cpp:159] Memory required for data: 72240
I0505 04:35:11.853348  3352 layer_factory.hpp:77] Creating layer conv1
I0505 04:35:11.853358  3352 net.cpp:94] Creating Layer conv1
I0505 04:35:11.853363  3352 net.cpp:435] conv1 <- data
I0505 04:35:11.853368  3352 net.cpp:409] conv1 -> conv1
I0505 04:35:11.854674  3352 net.cpp:144] Setting up conv1
I0505 04:35:11.854688  3352 net.cpp:151] Top shape: 20 64 30 30 (1152000)
I0505 04:35:11.854692  3352 net.cpp:159] Memory required for data: 4680240
I0505 04:35:11.854701  3352 layer_factory.hpp:77] Creating layer relu1
I0505 04:35:11.854708  3352 net.cpp:94] Creating Layer relu1
I0505 04:35:11.854712  3352 net.cpp:435] relu1 <- conv1
I0505 04:35:11.854717  3352 net.cpp:396] relu1 -> conv1 (in-place)
I0505 04:35:11.854724  3352 net.cpp:144] Setting up relu1
I0505 04:35:11.854728  3352 net.cpp:151] Top shape: 20 64 30 30 (1152000)
I0505 04:35:11.854732  3352 net.cpp:159] Memory required for data: 9288240
I0505 04:35:11.854735  3352 layer_factory.hpp:77] Creating layer pool1
I0505 04:35:11.854743  3352 net.cpp:94] Creating Layer pool1
I0505 04:35:11.854745  3352 net.cpp:435] pool1 <- conv1
I0505 04:35:11.854750  3352 net.cpp:409] pool1 -> pool1
I0505 04:35:11.854784  3352 net.cpp:144] Setting up pool1
I0505 04:35:11.854790  3352 net.cpp:151] Top shape: 20 64 15 15 (288000)
I0505 04:35:11.854794  3352 net.cpp:159] Memory required for data: 10440240
I0505 04:35:11.854796  3352 layer_factory.hpp:77] Creating layer conv2
I0505 04:35:11.854804  3352 net.cpp:94] Creating Layer conv2
I0505 04:35:11.854807  3352 net.cpp:435] conv2 <- pool1
I0505 04:35:11.854812  3352 net.cpp:409] conv2 -> conv2
I0505 04:35:11.862509  3352 net.cpp:144] Setting up conv2
I0505 04:35:11.862524  3352 net.cpp:151] Top shape: 20 128 15 15 (576000)
I0505 04:35:11.862527  3352 net.cpp:159] Memory required for data: 12744240
I0505 04:35:11.862535  3352 layer_factory.hpp:77] Creating layer relu2
I0505 04:35:11.862541  3352 net.cpp:94] Creating Layer relu2
I0505 04:35:11.862545  3352 net.cpp:435] relu2 <- conv2
I0505 04:35:11.862550  3352 net.cpp:396] relu2 -> conv2 (in-place)
I0505 04:35:11.862557  3352 net.cpp:144] Setting up relu2
I0505 04:35:11.862561  3352 net.cpp:151] Top shape: 20 128 15 15 (576000)
I0505 04:35:11.862565  3352 net.cpp:159] Memory required for data: 15048240
I0505 04:35:11.862568  3352 layer_factory.hpp:77] Creating layer conv3
I0505 04:35:11.862576  3352 net.cpp:94] Creating Layer conv3
I0505 04:35:11.862579  3352 net.cpp:435] conv3 <- conv2
I0505 04:35:11.862583  3352 net.cpp:409] conv3 -> conv3
I0505 04:35:11.877357  3352 net.cpp:144] Setting up conv3
I0505 04:35:11.877395  3352 net.cpp:151] Top shape: 20 128 15 15 (576000)
I0505 04:35:11.877408  3352 net.cpp:159] Memory required for data: 17352240
I0505 04:35:11.877430  3352 layer_factory.hpp:77] Creating layer relu3
I0505 04:35:11.877449  3352 net.cpp:94] Creating Layer relu3
I0505 04:35:11.877460  3352 net.cpp:435] relu3 <- conv3
I0505 04:35:11.877475  3352 net.cpp:396] relu3 -> conv3 (in-place)
I0505 04:35:11.877495  3352 net.cpp:144] Setting up relu3
I0505 04:35:11.877507  3352 net.cpp:151] Top shape: 20 128 15 15 (576000)
I0505 04:35:11.877517  3352 net.cpp:159] Memory required for data: 19656240
I0505 04:35:11.877526  3352 layer_factory.hpp:77] Creating layer pool3
I0505 04:35:11.877539  3352 net.cpp:94] Creating Layer pool3
I0505 04:35:11.877549  3352 net.cpp:435] pool3 <- conv3
I0505 04:35:11.877562  3352 net.cpp:409] pool3 -> pool3
I0505 04:35:11.877637  3352 net.cpp:144] Setting up pool3
I0505 04:35:11.877665  3352 net.cpp:151] Top shape: 20 128 7 7 (125440)
I0505 04:35:11.877676  3352 net.cpp:159] Memory required for data: 20158000
I0505 04:35:11.877686  3352 layer_factory.hpp:77] Creating layer ip1
I0505 04:35:11.877702  3352 net.cpp:94] Creating Layer ip1
I0505 04:35:11.877713  3352 net.cpp:435] ip1 <- pool3
I0505 04:35:11.877727  3352 net.cpp:409] ip1 -> ip1
I0505 04:35:11.954984  3352 net.cpp:144] Setting up ip1
I0505 04:35:11.955018  3352 net.cpp:151] Top shape: 20 512 (10240)
I0505 04:35:11.955023  3352 net.cpp:159] Memory required for data: 20198960
I0505 04:35:11.955040  3352 layer_factory.hpp:77] Creating layer ip2
I0505 04:35:11.955050  3352 net.cpp:94] Creating Layer ip2
I0505 04:35:11.955055  3352 net.cpp:435] ip2 <- ip1
I0505 04:35:11.955062  3352 net.cpp:409] ip2 -> ip2
I0505 04:35:11.958173  3352 net.cpp:144] Setting up ip2
I0505 04:35:11.958181  3352 net.cpp:151] Top shape: 20 256 (5120)
I0505 04:35:11.958184  3352 net.cpp:159] Memory required for data: 20219440
I0505 04:35:11.958194  3352 layer_factory.hpp:77] Creating layer ip3
I0505 04:35:11.958200  3352 net.cpp:94] Creating Layer ip3
I0505 04:35:11.958204  3352 net.cpp:435] ip3 <- ip2
I0505 04:35:11.958209  3352 net.cpp:409] ip3 -> ip3
I0505 04:35:11.958588  3352 net.cpp:144] Setting up ip3
I0505 04:35:11.958596  3352 net.cpp:151] Top shape: 20 50 (1000)
I0505 04:35:11.958600  3352 net.cpp:159] Memory required for data: 20223440
I0505 04:35:11.958605  3352 layer_factory.hpp:77] Creating layer ip3_ip3_0_split
I0505 04:35:11.958611  3352 net.cpp:94] Creating Layer ip3_ip3_0_split
I0505 04:35:11.958613  3352 net.cpp:435] ip3_ip3_0_split <- ip3
I0505 04:35:11.958618  3352 net.cpp:409] ip3_ip3_0_split -> ip3_ip3_0_split_0
I0505 04:35:11.958624  3352 net.cpp:409] ip3_ip3_0_split -> ip3_ip3_0_split_1
I0505 04:35:11.958649  3352 net.cpp:144] Setting up ip3_ip3_0_split
I0505 04:35:11.958655  3352 net.cpp:151] Top shape: 20 50 (1000)
I0505 04:35:11.958659  3352 net.cpp:151] Top shape: 20 50 (1000)
I0505 04:35:11.958662  3352 net.cpp:159] Memory required for data: 20231440
I0505 04:35:11.958665  3352 layer_factory.hpp:77] Creating layer accuracy
I0505 04:35:11.958672  3352 net.cpp:94] Creating Layer accuracy
I0505 04:35:11.958674  3352 net.cpp:435] accuracy <- ip3_ip3_0_split_0
I0505 04:35:11.958678  3352 net.cpp:435] accuracy <- label_intercept_1_split_0
I0505 04:35:11.958684  3352 net.cpp:409] accuracy -> accuracy
…
