…
I0505 01:24:27.236850  1722 net.cpp:323] The NetState phase (0) differed from the phase (1) specified by a rule in layer intercept
I0505 01:24:27.236865  1722 net.cpp:323] The NetState phase (0) differed from the phase (1) specified by a rule in layer accuracy
I0505 01:24:27.236943  1722 net.cpp:52] Initializing net from parameters: 
state {
  phase: TRAIN
}
layer {
  name: "parameters"
  type: "HDF5Data"
  top: "data"
  top: "label"
  include {
    phase: TRAIN
  }
  hdf5_data_param {
    source: "/home/purduethu/scratch/radon/d/deng106/CNNStatisticalModel/distributions/input/50_distributions_100_sample_size_train-distributions-path.txt"
    batch_size: 20
  }
}
layer {
  name: "conv1"
  type: "Convolution"
  bottom: "data"
  top: "conv1"
  param {
    lr_mult: 1
  }
  param {
    lr_mult: 2
  }
  convolution_param {
    num_output: 64
    pad: 2
    kernel_size: 5
    stride: 1
    weight_filler {
      type: "gaussian"
      std: 0.0001
    }
    bias_filler {
      type: "constant"
    }
  }
}
layer {
  name: "relu1"
  type: "ReLU"
  bottom: "conv1"
  top: "conv1"
}
layer {
  name: "pool1"
  type: "Pooling"
  bottom: "conv1"
  top: "pool1"
  pooling_param {
    pool: MAX
    kernel_size: 3
    stride: 2
  }
}
layer {
  name: "conv2"
  type: "Convolution"
  bottom: "pool1"
  top: "conv2"
  param {
    lr_mult: 1
  }
  param {
    lr_mult: 2
  }
  convolution_param {
    num_output: 128
    pad: 2
    kernel_size: 5
    stride: 1
    weight_filler {
      type: "gaussian"
      std: 0.01
    }
    bias_filler {
      type: "constant"
    }
  }
}
layer {
  name: "relu2"
  type: "ReLU"
  bottom: "conv2"
  top: "conv2"
}
layer {
  name: "conv3"
  type: "Convolution"
  bottom: "conv2"
  top: "conv3"
  param {
    lr_mult: 1
  }
  param {
    lr_mult: 2
  }
  convolution_param {
    num_output: 128
    pad: 2
    kernel_size: 5
    stride: 1
    weight_filler {
      type: "gaussian"
      std: 0.01
    }
    bias_filler {
      type: "constant"
    }
  }
}
layer {
  name: "relu3"
  type: "ReLU"
  bottom: "conv3"
  top: "conv3"
}
layer {
  name: "pool3"
  type: "Pooling"
  bottom: "conv3"
  top: "pool3"
  pooling_param {
    pool: AVE
    kernel_size: 3
    stride: 2
  }
}
layer {
  name: "ip1"
  type: "InnerProduct"
  bottom: "pool3"
  top: "ip1"
  param {
    lr_mult: 1
  }
  param {
    lr_mult: 2
  }
  inner_product_param {
    num_output: 512
    weight_filler {
      type: "gaussian"
      std: 0.1
    }
    bias_filler {
      type: "constant"
    }
  }
}
layer {
  name: "ip2"
  type: "InnerProduct"
  bottom: "ip1"
  top: "ip2"
  param {
    lr_mult: 1
  }
  param {
    lr_mult: 2
  }
  inner_product_param {
    num_output: 256
    weight_filler {
      type: "gaussian"
      std: 0.1
    }
    bias_filler {
      type: "constant"
    }
  }
}
layer {
  name: "ip3"
  type: "InnerProduct"
  bottom: "ip2"
  top: "ip3"
  param {
    lr_mult: 1
  }
  param {
    lr_mult: 2
  }
  inner_product_param {
    num_output: 50
    weight_filler {
      type: "gaussian"
      std: 0.1
    }
    bias_filler {
      type: "constant"
    }
  }
}
layer {
  name: "loss"
  type: "SoftmaxWithLoss"
  bottom: "ip3"
  bottom: "label"
  top: "loss"
}
I0505 01:24:27.237006  1722 layer_factory.hpp:77] Creating layer parameters
I0505 01:24:27.237020  1722 net.cpp:94] Creating Layer parameters
I0505 01:24:27.237035  1722 net.cpp:409] parameters -> data
I0505 01:24:27.237053  1722 net.cpp:409] parameters -> label
I0505 01:24:27.237064  1722 hdf5_data_layer.cpp:79] Loading list of HDF5 filenames from: /home/purduethu/scratch/radon/d/deng106/CNNStatisticalModel/distributions/input/50_distributions_100_sample_size_train-distributions-path.txt
I0505 01:24:27.237087  1722 hdf5_data_layer.cpp:93] Number of HDF5 files: 1
I0505 01:24:27.237655  1722 hdf5.cpp:32] Datatype class: H5T_FLOAT
I0505 01:24:27.401166  1722 hdf5.cpp:35] Datatype class: H5T_INTEGER
I0505 01:24:27.404007  1722 net.cpp:144] Setting up parameters
I0505 01:24:27.404029  1722 net.cpp:151] Top shape: 20 1 10 10 (2000)
I0505 01:24:27.404036  1722 net.cpp:151] Top shape: 20 (20)
I0505 01:24:27.404039  1722 net.cpp:159] Memory required for data: 8080
I0505 01:24:27.404047  1722 layer_factory.hpp:77] Creating layer conv1
I0505 01:24:27.404067  1722 net.cpp:94] Creating Layer conv1
I0505 01:24:27.404072  1722 net.cpp:435] conv1 <- data
I0505 01:24:27.404083  1722 net.cpp:409] conv1 -> conv1
I0505 01:24:27.407984  1722 net.cpp:144] Setting up conv1
I0505 01:24:27.408001  1722 net.cpp:151] Top shape: 20 64 10 10 (128000)
I0505 01:24:27.408005  1722 net.cpp:159] Memory required for data: 520080
I0505 01:24:27.408017  1722 layer_factory.hpp:77] Creating layer relu1
I0505 01:24:27.408025  1722 net.cpp:94] Creating Layer relu1
I0505 01:24:27.408030  1722 net.cpp:435] relu1 <- conv1
I0505 01:24:27.408033  1722 net.cpp:396] relu1 -> conv1 (in-place)
I0505 01:24:27.408051  1722 net.cpp:144] Setting up relu1
I0505 01:24:27.408056  1722 net.cpp:151] Top shape: 20 64 10 10 (128000)
I0505 01:24:27.408058  1722 net.cpp:159] Memory required for data: 1032080
I0505 01:24:27.408062  1722 layer_factory.hpp:77] Creating layer pool1
I0505 01:24:27.408071  1722 net.cpp:94] Creating Layer pool1
I0505 01:24:27.408073  1722 net.cpp:435] pool1 <- conv1
I0505 01:24:27.408078  1722 net.cpp:409] pool1 -> pool1
I0505 01:24:27.408121  1722 net.cpp:144] Setting up pool1
I0505 01:24:27.408128  1722 net.cpp:151] Top shape: 20 64 5 5 (32000)
I0505 01:24:27.408131  1722 net.cpp:159] Memory required for data: 1160080
I0505 01:24:27.408134  1722 layer_factory.hpp:77] Creating layer conv2
I0505 01:24:27.408143  1722 net.cpp:94] Creating Layer conv2
I0505 01:24:27.408148  1722 net.cpp:435] conv2 <- pool1
I0505 01:24:27.408152  1722 net.cpp:409] conv2 -> conv2
I0505 01:24:27.417062  1722 net.cpp:144] Setting up conv2
I0505 01:24:27.417083  1722 net.cpp:151] Top shape: 20 128 5 5 (64000)
I0505 01:24:27.417088  1722 net.cpp:159] Memory required for data: 1416080
I0505 01:24:27.417098  1722 layer_factory.hpp:77] Creating layer relu2
I0505 01:24:27.417105  1722 net.cpp:94] Creating Layer relu2
I0505 01:24:27.417109  1722 net.cpp:435] relu2 <- conv2
I0505 01:24:27.417114  1722 net.cpp:396] relu2 -> conv2 (in-place)
I0505 01:24:27.417122  1722 net.cpp:144] Setting up relu2
I0505 01:24:27.417127  1722 net.cpp:151] Top shape: 20 128 5 5 (64000)
I0505 01:24:27.417130  1722 net.cpp:159] Memory required for data: 1672080
I0505 01:24:27.417134  1722 layer_factory.hpp:77] Creating layer conv3
I0505 01:24:27.417142  1722 net.cpp:94] Creating Layer conv3
I0505 01:24:27.417145  1722 net.cpp:435] conv3 <- conv2
I0505 01:24:27.417150  1722 net.cpp:409] conv3 -> conv3
I0505 01:24:27.432266  1722 net.cpp:144] Setting up conv3
I0505 01:24:27.432303  1722 net.cpp:151] Top shape: 20 128 5 5 (64000)
I0505 01:24:27.432312  1722 net.cpp:159] Memory required for data: 1928080
I0505 01:24:27.432328  1722 layer_factory.hpp:77] Creating layer relu3
I0505 01:24:27.432350  1722 net.cpp:94] Creating Layer relu3
I0505 01:24:27.432358  1722 net.cpp:435] relu3 <- conv3
I0505 01:24:27.432368  1722 net.cpp:396] relu3 -> conv3 (in-place)
I0505 01:24:27.432384  1722 net.cpp:144] Setting up relu3
I0505 01:24:27.432391  1722 net.cpp:151] Top shape: 20 128 5 5 (64000)
I0505 01:24:27.432397  1722 net.cpp:159] Memory required for data: 2184080
I0505 01:24:27.432404  1722 layer_factory.hpp:77] Creating layer pool3
I0505 01:24:27.432415  1722 net.cpp:94] Creating Layer pool3
I0505 01:24:27.432430  1722 net.cpp:435] pool3 <- conv3
I0505 01:24:27.432440  1722 net.cpp:409] pool3 -> pool3
I0505 01:24:27.432497  1722 net.cpp:144] Setting up pool3
I0505 01:24:27.432509  1722 net.cpp:151] Top shape: 20 128 2 2 (10240)
I0505 01:24:27.432515  1722 net.cpp:159] Memory required for data: 2225040
I0505 01:24:27.432521  1722 layer_factory.hpp:77] Creating layer ip1
I0505 01:24:27.432533  1722 net.cpp:94] Creating Layer ip1
I0505 01:24:27.432538  1722 net.cpp:435] ip1 <- pool3
I0505 01:24:27.432548  1722 net.cpp:409] ip1 -> ip1
I0505 01:24:27.439998  1722 net.cpp:144] Setting up ip1
I0505 01:24:27.440018  1722 net.cpp:151] Top shape: 20 512 (10240)
I0505 01:24:27.440023  1722 net.cpp:159] Memory required for data: 2266000
I0505 01:24:27.440030  1722 layer_factory.hpp:77] Creating layer ip2
I0505 01:24:27.440038  1722 net.cpp:94] Creating Layer ip2
I0505 01:24:27.440042  1722 net.cpp:435] ip2 <- ip1
I0505 01:24:27.440048  1722 net.cpp:409] ip2 -> ip2
I0505 01:24:27.443946  1722 net.cpp:144] Setting up ip2
I0505 01:24:27.443960  1722 net.cpp:151] Top shape: 20 256 (5120)
I0505 01:24:27.443965  1722 net.cpp:159] Memory required for data: 2286480
I0505 01:24:27.443974  1722 layer_factory.hpp:77] Creating layer ip3
I0505 01:24:27.443981  1722 net.cpp:94] Creating Layer ip3
I0505 01:24:27.443984  1722 net.cpp:435] ip3 <- ip2
I0505 01:24:27.443990  1722 net.cpp:409] ip3 -> ip3
I0505 01:24:27.445029  1722 net.cpp:144] Setting up ip3
I0505 01:24:27.445044  1722 net.cpp:151] Top shape: 20 50 (1000)
I0505 01:24:27.445047  1722 net.cpp:159] Memory required for data: 2290480
I0505 01:24:27.445052  1722 layer_factory.hpp:77] Creating layer loss
I0505 01:24:27.445058  1722 net.cpp:94] Creating Layer loss
I0505 01:24:27.445062  1722 net.cpp:435] loss <- ip3
I0505 01:24:27.445066  1722 net.cpp:435] loss <- label
I0505 01:24:27.445073  1722 net.cpp:409] loss -> loss
I0505 01:24:27.445085  1722 layer_factory.hpp:77] Creating layer loss
…
I0505 01:24:27.445526  1722 solver.cpp:181] Creating test net (#0) specified by net file: ./protocol/dis_50_100_dimension.protocol_distribution
I0505 01:24:27.445550  1722 net.cpp:323] The NetState phase (1) differed from the phase (0) specified by a rule in layer parameters
I0505 01:24:27.445643  1722 net.cpp:52] Initializing net from parameters: 
state {
  phase: TEST
}
layer {
  name: "intercept"
  type: "HDF5Data"
  top: "data"
  top: "label"
  include {
    phase: TEST
  }
  hdf5_data_param {
    source: "/home/purduethu/scratch/radon/d/deng106/CNNStatisticalModel/distributions/input/50_distributions_100_sample_size_test-distributions-path.txt"
    batch_size: 20
  }
}
layer {
  name: "conv1"
  type: "Convolution"
  bottom: "data"
  top: "conv1"
  param {
    lr_mult: 1
  }
  param {
    lr_mult: 2
  }
  convolution_param {
    num_output: 64
    pad: 2
    kernel_size: 5
    stride: 1
    weight_filler {
      type: "gaussian"
      std: 0.0001
    }
    bias_filler {
      type: "constant"
    }
  }
}
layer {
  name: "relu1"
  type: "ReLU"
  bottom: "conv1"
  top: "conv1"
}
layer {
  name: "pool1"
  type: "Pooling"
  bottom: "conv1"
  top: "pool1"
  pooling_param {
    pool: MAX
    kernel_size: 3
    stride: 2
  }
}
layer {
  name: "conv2"
  type: "Convolution"
  bottom: "pool1"
  top: "conv2"
  param {
    lr_mult: 1
  }
  param {
    lr_mult: 2
  }
  convolution_param {
    num_output: 128
    pad: 2
    kernel_size: 5
    stride: 1
    weight_filler {
      type: "gaussian"
      std: 0.01
    }
    bias_filler {
      type: "constant"
    }
  }
}
layer {
  name: "relu2"
  type: "ReLU"
  bottom: "conv2"
  top: "conv2"
}
layer {
  name: "conv3"
  type: "Convolution"
  bottom: "conv2"
  top: "conv3"
  param {
    lr_mult: 1
  }
  param {
    lr_mult: 2
  }
  convolution_param {
    num_output: 128
    pad: 2
    kernel_size: 5
    stride: 1
    weight_filler {
      type: "gaussian"
      std: 0.01
    }
    bias_filler {
      type: "constant"
    }
  }
}
layer {
  name: "relu3"
  type: "ReLU"
  bottom: "conv3"
  top: "conv3"
}
layer {
  name: "pool3"
  type: "Pooling"
  bottom: "conv3"
  top: "pool3"
  pooling_param {
    pool: AVE
    kernel_size: 3
    stride: 2
  }
}
layer {
  name: "ip1"
  type: "InnerProduct"
  bottom: "pool3"
  top: "ip1"
  param {
    lr_mult: 1
  }
  param {
    lr_mult: 2
  }
  inner_product_param {
    num_output: 512
    weight_filler {
      type: "gaussian"
      std: 0.1
    }
    bias_filler {
      type: "constant"
    }
  }
}
layer {
  name: "ip2"
  type: "InnerProduct"
  bottom: "ip1"
  top: "ip2"
  param {
    lr_mult: 1
  }
  param {
    lr_mult: 2
  }
  inner_product_param {
    num_output: 256
    weight_filler {
      type: "gaussian"
      std: 0.1
    }
    bias_filler {
      type: "constant"
    }
  }
}
layer {
  name: "ip3"
  type: "InnerProduct"
  bottom: "ip2"
  top: "ip3"
  param {
    lr_mult: 1
  }
  param {
    lr_mult: 2
  }
  inner_product_param {
    num_output: 50
    weight_filler {
      type: "gaussian"
      std: 0.1
    }
    bias_filler {
      type: "constant"
    }
  }
}
layer {
  name: "accuracy"
  type: "Accuracy"
  bottom: "ip3"
  bottom: "label"
  top: "accuracy"
  include {
    phase: TEST
  }
}
layer {
  name: "loss"
  type: "SoftmaxWithLoss"
  bottom: "ip3"
  bottom: "label"
  top: "loss"
}
I0505 01:24:27.445708  1722 layer_factory.hpp:77] Creating layer intercept
I0505 01:24:27.445718  1722 net.cpp:94] Creating Layer intercept
I0505 01:24:27.445721  1722 net.cpp:409] intercept -> data
I0505 01:24:27.445729  1722 net.cpp:409] intercept -> label
I0505 01:24:27.445734  1722 hdf5_data_layer.cpp:79] Loading list of HDF5 filenames from: /home/purduethu/scratch/radon/d/deng106/CNNStatisticalModel/distributions/input/50_distributions_100_sample_size_test-distributions-path.txt
I0505 01:24:27.445755  1722 hdf5_data_layer.cpp:93] Number of HDF5 files: 1
I0505 01:24:27.486989  1722 net.cpp:144] Setting up intercept
I0505 01:24:27.487025  1722 net.cpp:151] Top shape: 20 1 10 10 (2000)
I0505 01:24:27.487030  1722 net.cpp:151] Top shape: 20 (20)
I0505 01:24:27.487033  1722 net.cpp:159] Memory required for data: 8080
I0505 01:24:27.487040  1722 layer_factory.hpp:77] Creating layer label_intercept_1_split
I0505 01:24:27.487059  1722 net.cpp:94] Creating Layer label_intercept_1_split
I0505 01:24:27.487074  1722 net.cpp:435] label_intercept_1_split <- label
I0505 01:24:27.487082  1722 net.cpp:409] label_intercept_1_split -> label_intercept_1_split_0
I0505 01:24:27.487089  1722 net.cpp:409] label_intercept_1_split -> label_intercept_1_split_1
I0505 01:24:27.487118  1722 net.cpp:144] Setting up label_intercept_1_split
I0505 01:24:27.487123  1722 net.cpp:151] Top shape: 20 (20)
I0505 01:24:27.487128  1722 net.cpp:151] Top shape: 20 (20)
I0505 01:24:27.487130  1722 net.cpp:159] Memory required for data: 8240
I0505 01:24:27.487140  1722 layer_factory.hpp:77] Creating layer conv1
I0505 01:24:27.487152  1722 net.cpp:94] Creating Layer conv1
I0505 01:24:27.487155  1722 net.cpp:435] conv1 <- data
I0505 01:24:27.487160  1722 net.cpp:409] conv1 -> conv1
I0505 01:24:27.487854  1722 net.cpp:144] Setting up conv1
I0505 01:24:27.487866  1722 net.cpp:151] Top shape: 20 64 10 10 (128000)
I0505 01:24:27.487870  1722 net.cpp:159] Memory required for data: 520240
I0505 01:24:27.487880  1722 layer_factory.hpp:77] Creating layer relu1
I0505 01:24:27.487886  1722 net.cpp:94] Creating Layer relu1
I0505 01:24:27.487890  1722 net.cpp:435] relu1 <- conv1
I0505 01:24:27.487895  1722 net.cpp:396] relu1 -> conv1 (in-place)
I0505 01:24:27.487902  1722 net.cpp:144] Setting up relu1
I0505 01:24:27.487907  1722 net.cpp:151] Top shape: 20 64 10 10 (128000)
I0505 01:24:27.487910  1722 net.cpp:159] Memory required for data: 1032240
I0505 01:24:27.487913  1722 layer_factory.hpp:77] Creating layer pool1
I0505 01:24:27.487920  1722 net.cpp:94] Creating Layer pool1
I0505 01:24:27.487924  1722 net.cpp:435] pool1 <- conv1
I0505 01:24:27.487928  1722 net.cpp:409] pool1 -> pool1
I0505 01:24:27.487965  1722 net.cpp:144] Setting up pool1
I0505 01:24:27.487972  1722 net.cpp:151] Top shape: 20 64 5 5 (32000)
I0505 01:24:27.487975  1722 net.cpp:159] Memory required for data: 1160240
I0505 01:24:27.487978  1722 layer_factory.hpp:77] Creating layer conv2
I0505 01:24:27.487987  1722 net.cpp:94] Creating Layer conv2
I0505 01:24:27.487990  1722 net.cpp:435] conv2 <- pool1
I0505 01:24:27.487995  1722 net.cpp:409] conv2 -> conv2
I0505 01:24:27.494668  1722 net.cpp:144] Setting up conv2
I0505 01:24:27.494684  1722 net.cpp:151] Top shape: 20 128 5 5 (64000)
I0505 01:24:27.494688  1722 net.cpp:159] Memory required for data: 1416240
I0505 01:24:27.494698  1722 layer_factory.hpp:77] Creating layer relu2
I0505 01:24:27.494704  1722 net.cpp:94] Creating Layer relu2
I0505 01:24:27.494707  1722 net.cpp:435] relu2 <- conv2
I0505 01:24:27.494712  1722 net.cpp:396] relu2 -> conv2 (in-place)
I0505 01:24:27.494719  1722 net.cpp:144] Setting up relu2
I0505 01:24:27.494724  1722 net.cpp:151] Top shape: 20 128 5 5 (64000)
I0505 01:24:27.494727  1722 net.cpp:159] Memory required for data: 1672240
I0505 01:24:27.494730  1722 layer_factory.hpp:77] Creating layer conv3
I0505 01:24:27.494738  1722 net.cpp:94] Creating Layer conv3
I0505 01:24:27.494742  1722 net.cpp:435] conv3 <- conv2
I0505 01:24:27.494748  1722 net.cpp:409] conv3 -> conv3
I0505 01:24:27.507434  1722 net.cpp:144] Setting up conv3
I0505 01:24:27.507460  1722 net.cpp:151] Top shape: 20 128 5 5 (64000)
I0505 01:24:27.507464  1722 net.cpp:159] Memory required for data: 1928240
I0505 01:24:27.507477  1722 layer_factory.hpp:77] Creating layer relu3
I0505 01:24:27.507486  1722 net.cpp:94] Creating Layer relu3
I0505 01:24:27.507490  1722 net.cpp:435] relu3 <- conv3
I0505 01:24:27.507495  1722 net.cpp:396] relu3 -> conv3 (in-place)
I0505 01:24:27.507504  1722 net.cpp:144] Setting up relu3
I0505 01:24:27.507509  1722 net.cpp:151] Top shape: 20 128 5 5 (64000)
I0505 01:24:27.507513  1722 net.cpp:159] Memory required for data: 2184240
I0505 01:24:27.507515  1722 layer_factory.hpp:77] Creating layer pool3
I0505 01:24:27.507521  1722 net.cpp:94] Creating Layer pool3
I0505 01:24:27.507524  1722 net.cpp:435] pool3 <- conv3
I0505 01:24:27.507529  1722 net.cpp:409] pool3 -> pool3
I0505 01:24:27.507558  1722 net.cpp:144] Setting up pool3
I0505 01:24:27.507565  1722 net.cpp:151] Top shape: 20 128 2 2 (10240)
I0505 01:24:27.507575  1722 net.cpp:159] Memory required for data: 2225200
I0505 01:24:27.507580  1722 layer_factory.hpp:77] Creating layer ip1
I0505 01:24:27.507586  1722 net.cpp:94] Creating Layer ip1
I0505 01:24:27.507591  1722 net.cpp:435] ip1 <- pool3
I0505 01:24:27.507596  1722 net.cpp:409] ip1 -> ip1
I0505 01:24:27.514739  1722 net.cpp:144] Setting up ip1
I0505 01:24:27.514760  1722 net.cpp:151] Top shape: 20 512 (10240)
I0505 01:24:27.514765  1722 net.cpp:159] Memory required for data: 2266160
I0505 01:24:27.514780  1722 layer_factory.hpp:77] Creating layer ip2
I0505 01:24:27.514788  1722 net.cpp:94] Creating Layer ip2
I0505 01:24:27.514792  1722 net.cpp:435] ip2 <- ip1
I0505 01:24:27.514797  1722 net.cpp:409] ip2 -> ip2
I0505 01:24:27.518059  1722 net.cpp:144] Setting up ip2
I0505 01:24:27.518067  1722 net.cpp:151] Top shape: 20 256 (5120)
I0505 01:24:27.518071  1722 net.cpp:159] Memory required for data: 2286640
I0505 01:24:27.518079  1722 layer_factory.hpp:77] Creating layer ip3
I0505 01:24:27.518086  1722 net.cpp:94] Creating Layer ip3
I0505 01:24:27.518090  1722 net.cpp:435] ip3 <- ip2
I0505 01:24:27.518095  1722 net.cpp:409] ip3 -> ip3
I0505 01:24:27.518484  1722 net.cpp:144] Setting up ip3
I0505 01:24:27.518491  1722 net.cpp:151] Top shape: 20 50 (1000)
I0505 01:24:27.518496  1722 net.cpp:159] Memory required for data: 2290640
I0505 01:24:27.518501  1722 layer_factory.hpp:77] Creating layer ip3_ip3_0_split
I0505 01:24:27.518507  1722 net.cpp:94] Creating Layer ip3_ip3_0_split
I0505 01:24:27.518509  1722 net.cpp:435] ip3_ip3_0_split <- ip3
I0505 01:24:27.518514  1722 net.cpp:409] ip3_ip3_0_split -> ip3_ip3_0_split_0
I0505 01:24:27.518519  1722 net.cpp:409] ip3_ip3_0_split -> ip3_ip3_0_split_1
I0505 01:24:27.518544  1722 net.cpp:144] Setting up ip3_ip3_0_split
I0505 01:24:27.518550  1722 net.cpp:151] Top shape: 20 50 (1000)
I0505 01:24:27.518554  1722 net.cpp:151] Top shape: 20 50 (1000)
I0505 01:24:27.518558  1722 net.cpp:159] Memory required for data: 2298640
I0505 01:24:27.518560  1722 layer_factory.hpp:77] Creating layer accuracy
I0505 01:24:27.518573  1722 net.cpp:94] Creating Layer accuracy
I0505 01:24:27.518576  1722 net.cpp:435] accuracy <- ip3_ip3_0_split_0
I0505 01:24:27.518580  1722 net.cpp:435] accuracy <- label_intercept_1_split_0
I0505 01:24:27.518584  1722 net.cpp:409] accuracy -> accuracy
…
