…
I0502 03:54:41.905066 18354 net.cpp:323] The NetState phase (0) differed from the phase (1) specified by a rule in layer intercept
I0502 03:54:41.905083 18354 net.cpp:323] The NetState phase (0) differed from the phase (1) specified by a rule in layer loss
I0502 03:54:41.905176 18354 net.cpp:52] Initializing net from parameters: 
state {
  phase: TRAIN
}
layer {
  name: "parameters"
  type: "HDF5Data"
  top: "data"
  top: "label"
  include {
    phase: TRAIN
  }
  hdf5_data_param {
    source: "/home/purduethu/scratch/radon/d/deng106/CNNStatisticalModel/distributions/input/50_distributions_400_sample_size_train-parameters-path.txt"
    batch_size: 20
  }
}
layer {
  name: "conv1"
  type: "Convolution"
  bottom: "data"
  top: "conv1"
  param {
    lr_mult: 1
  }
  param {
    lr_mult: 2
  }
  convolution_param {
    num_output: 64
    pad: 2
    kernel_size: 5
    stride: 1
    weight_filler {
      type: "gaussian"
      std: 0.0001
    }
    bias_filler {
      type: "constant"
    }
  }
}
layer {
  name: "relu1"
  type: "ReLU"
  bottom: "conv1"
  top: "conv1"
}
layer {
  name: "conv2"
  type: "Convolution"
  bottom: "conv1"
  top: "conv2"
  param {
    lr_mult: 1
  }
  param {
    lr_mult: 2
  }
  convolution_param {
    num_output: 64
    pad: 2
    kernel_size: 5
    stride: 1
    weight_filler {
      type: "gaussian"
      std: 0.01
    }
    bias_filler {
      type: "constant"
    }
  }
}
layer {
  name: "relu2"
  type: "ReLU"
  bottom: "conv2"
  top: "conv2"
}
layer {
  name: "pool2"
  type: "Pooling"
  bottom: "conv2"
  top: "pool2"
  pooling_param {
    pool: MAX
    kernel_size: 3
    stride: 2
  }
}
layer {
  name: "conv3"
  type: "Convolution"
  bottom: "pool2"
  top: "conv3"
  param {
    lr_mult: 1
  }
  param {
    lr_mult: 2
  }
  convolution_param {
    num_output: 64
    pad: 2
    kernel_size: 5
    stride: 1
    weight_filler {
      type: "gaussian"
      std: 0.01
    }
    bias_filler {
      type: "constant"
    }
  }
}
layer {
  name: "relu3"
  type: "ReLU"
  bottom: "conv3"
  top: "conv3"
}
layer {
  name: "conv4"
  type: "Convolution"
  bottom: "conv3"
  top: "conv4"
  param {
    lr_mult: 1
  }
  param {
    lr_mult: 2
  }
  convolution_param {
    num_output: 64
    pad: 2
    kernel_size: 5
    stride: 1
    weight_filler {
      type: "gaussian"
      std: 0.01
    }
    bias_filler {
      type: "constant"
    }
  }
}
layer {
  name: "relu4"
  type: "ReLU"
  bottom: "conv4"
  top: "conv4"
}
layer {
  name: "conv5"
  type: "Convolution"
  bottom: "conv4"
  top: "conv5"
  param {
    lr_mult: 1
  }
  param {
    lr_mult: 2
  }
  convolution_param {
    num_output: 64
    pad: 2
    kernel_size: 5
    stride: 1
    weight_filler {
      type: "gaussian"
      std: 0.01
    }
    bias_filler {
      type: "constant"
    }
  }
}
layer {
  name: "relu5"
  type: "ReLU"
  bottom: "conv5"
  top: "conv5"
}
layer {
  name: "pool5"
  type: "Pooling"
  bottom: "conv5"
  top: "pool5"
  pooling_param {
    pool: AVE
    kernel_size: 3
    stride: 2
  }
}
layer {
  name: "ip1"
  type: "InnerProduct"
  bottom: "pool5"
  top: "ip1"
  param {
    lr_mult: 1
  }
  param {
    lr_mult: 2
  }
  inner_product_param {
    num_output: 64
    weight_filler {
      type: "gaussian"
      std: 0.1
    }
    bias_filler {
      type: "constant"
    }
  }
}
layer {
  name: "ip2"
  type: "InnerProduct"
  bottom: "ip1"
  top: "ip2"
  param {
    lr_mult: 1
  }
  param {
    lr_mult: 2
  }
  inner_product_param {
    num_output: 64
    weight_filler {
      type: "gaussian"
      std: 0.1
    }
    bias_filler {
      type: "constant"
    }
  }
}
layer {
  name: "ip3"
  type: "InnerProduct"
  bottom: "ip2"
  top: "ip3"
  param {
    lr_mult: 1
  }
  param {
    lr_mult: 2
  }
  inner_product_param {
    num_output: 1
    weight_filler {
      type: "gaussian"
      std: 0.1
    }
    bias_filler {
      type: "constant"
    }
  }
}
layer {
  name: "loss"
  type: "HuberLoss"
  bottom: "ip3"
  bottom: "label"
  top: "loss"
  include {
    phase: TRAIN
  }
}
I0502 03:54:41.905251 18354 layer_factory.hpp:77] Creating layer parameters
I0502 03:54:41.905264 18354 net.cpp:94] Creating Layer parameters
I0502 03:54:41.905270 18354 net.cpp:409] parameters -> data
I0502 03:54:41.905289 18354 net.cpp:409] parameters -> label
I0502 03:54:41.905300 18354 hdf5_data_layer.cpp:79] Loading list of HDF5 filenames from: /home/purduethu/scratch/radon/d/deng106/CNNStatisticalModel/distributions/input/50_distributions_400_sample_size_train-parameters-path.txt
I0502 03:54:41.905323 18354 hdf5_data_layer.cpp:93] Number of HDF5 files: 1
I0502 03:54:41.905797 18354 hdf5.cpp:32] Datatype class: H5T_FLOAT
I0502 03:54:42.556169 18354 net.cpp:144] Setting up parameters
I0502 03:54:42.556205 18354 net.cpp:151] Top shape: 20 1 20 20 (8000)
I0502 03:54:42.556211 18354 net.cpp:151] Top shape: 20 (20)
I0502 03:54:42.556216 18354 net.cpp:159] Memory required for data: 32080
I0502 03:54:42.556222 18354 layer_factory.hpp:77] Creating layer conv1
I0502 03:54:42.556246 18354 net.cpp:94] Creating Layer conv1
I0502 03:54:42.556252 18354 net.cpp:435] conv1 <- data
I0502 03:54:42.556262 18354 net.cpp:409] conv1 -> conv1
I0502 03:54:42.561226 18354 net.cpp:144] Setting up conv1
I0502 03:54:42.561244 18354 net.cpp:151] Top shape: 20 64 20 20 (512000)
I0502 03:54:42.561249 18354 net.cpp:159] Memory required for data: 2080080
I0502 03:54:42.561261 18354 layer_factory.hpp:77] Creating layer relu1
I0502 03:54:42.561271 18354 net.cpp:94] Creating Layer relu1
I0502 03:54:42.561275 18354 net.cpp:435] relu1 <- conv1
I0502 03:54:42.561280 18354 net.cpp:396] relu1 -> conv1 (in-place)
I0502 03:54:42.561295 18354 net.cpp:144] Setting up relu1
I0502 03:54:42.561300 18354 net.cpp:151] Top shape: 20 64 20 20 (512000)
I0502 03:54:42.561303 18354 net.cpp:159] Memory required for data: 4128080
I0502 03:54:42.561306 18354 layer_factory.hpp:77] Creating layer conv2
I0502 03:54:42.561316 18354 net.cpp:94] Creating Layer conv2
I0502 03:54:42.561318 18354 net.cpp:435] conv2 <- conv1
I0502 03:54:42.561323 18354 net.cpp:409] conv2 -> conv2
I0502 03:54:42.571791 18354 net.cpp:144] Setting up conv2
I0502 03:54:42.571807 18354 net.cpp:151] Top shape: 20 64 20 20 (512000)
I0502 03:54:42.571811 18354 net.cpp:159] Memory required for data: 6176080
I0502 03:54:42.571820 18354 layer_factory.hpp:77] Creating layer relu2
I0502 03:54:42.571827 18354 net.cpp:94] Creating Layer relu2
I0502 03:54:42.571830 18354 net.cpp:435] relu2 <- conv2
I0502 03:54:42.571835 18354 net.cpp:396] relu2 -> conv2 (in-place)
I0502 03:54:42.571842 18354 net.cpp:144] Setting up relu2
I0502 03:54:42.571847 18354 net.cpp:151] Top shape: 20 64 20 20 (512000)
I0502 03:54:42.571851 18354 net.cpp:159] Memory required for data: 8224080
I0502 03:54:42.571853 18354 layer_factory.hpp:77] Creating layer pool2
I0502 03:54:42.571861 18354 net.cpp:94] Creating Layer pool2
I0502 03:54:42.571871 18354 net.cpp:435] pool2 <- conv2
I0502 03:54:42.571877 18354 net.cpp:409] pool2 -> pool2
I0502 03:54:42.571923 18354 net.cpp:144] Setting up pool2
I0502 03:54:42.571929 18354 net.cpp:151] Top shape: 20 64 10 10 (128000)
I0502 03:54:42.571933 18354 net.cpp:159] Memory required for data: 8736080
I0502 03:54:42.571936 18354 layer_factory.hpp:77] Creating layer conv3
I0502 03:54:42.571944 18354 net.cpp:94] Creating Layer conv3
I0502 03:54:42.571949 18354 net.cpp:435] conv3 <- pool2
I0502 03:54:42.571954 18354 net.cpp:409] conv3 -> conv3
I0502 03:54:42.577181 18354 net.cpp:144] Setting up conv3
I0502 03:54:42.577195 18354 net.cpp:151] Top shape: 20 64 10 10 (128000)
I0502 03:54:42.577199 18354 net.cpp:159] Memory required for data: 9248080
I0502 03:54:42.577208 18354 layer_factory.hpp:77] Creating layer relu3
I0502 03:54:42.577214 18354 net.cpp:94] Creating Layer relu3
I0502 03:54:42.577217 18354 net.cpp:435] relu3 <- conv3
I0502 03:54:42.577222 18354 net.cpp:396] relu3 -> conv3 (in-place)
I0502 03:54:42.577229 18354 net.cpp:144] Setting up relu3
I0502 03:54:42.577234 18354 net.cpp:151] Top shape: 20 64 10 10 (128000)
I0502 03:54:42.577236 18354 net.cpp:159] Memory required for data: 9760080
I0502 03:54:42.577239 18354 layer_factory.hpp:77] Creating layer conv4
I0502 03:54:42.577247 18354 net.cpp:94] Creating Layer conv4
I0502 03:54:42.577251 18354 net.cpp:435] conv4 <- conv3
I0502 03:54:42.577256 18354 net.cpp:409] conv4 -> conv4
I0502 03:54:42.582402 18354 net.cpp:144] Setting up conv4
I0502 03:54:42.582417 18354 net.cpp:151] Top shape: 20 64 10 10 (128000)
I0502 03:54:42.582420 18354 net.cpp:159] Memory required for data: 10272080
I0502 03:54:42.582427 18354 layer_factory.hpp:77] Creating layer relu4
I0502 03:54:42.582432 18354 net.cpp:94] Creating Layer relu4
I0502 03:54:42.582437 18354 net.cpp:435] relu4 <- conv4
I0502 03:54:42.582440 18354 net.cpp:396] relu4 -> conv4 (in-place)
I0502 03:54:42.582448 18354 net.cpp:144] Setting up relu4
I0502 03:54:42.582453 18354 net.cpp:151] Top shape: 20 64 10 10 (128000)
I0502 03:54:42.582455 18354 net.cpp:159] Memory required for data: 10784080
I0502 03:54:42.582458 18354 layer_factory.hpp:77] Creating layer conv5
I0502 03:54:42.582465 18354 net.cpp:94] Creating Layer conv5
I0502 03:54:42.582468 18354 net.cpp:435] conv5 <- conv4
I0502 03:54:42.582473 18354 net.cpp:409] conv5 -> conv5
I0502 03:54:42.587622 18354 net.cpp:144] Setting up conv5
I0502 03:54:42.587636 18354 net.cpp:151] Top shape: 20 64 10 10 (128000)
I0502 03:54:42.587641 18354 net.cpp:159] Memory required for data: 11296080
I0502 03:54:42.587648 18354 layer_factory.hpp:77] Creating layer relu5
I0502 03:54:42.587656 18354 net.cpp:94] Creating Layer relu5
I0502 03:54:42.587658 18354 net.cpp:435] relu5 <- conv5
I0502 03:54:42.587662 18354 net.cpp:396] relu5 -> conv5 (in-place)
I0502 03:54:42.587671 18354 net.cpp:144] Setting up relu5
I0502 03:54:42.587674 18354 net.cpp:151] Top shape: 20 64 10 10 (128000)
I0502 03:54:42.587677 18354 net.cpp:159] Memory required for data: 11808080
I0502 03:54:42.587680 18354 layer_factory.hpp:77] Creating layer pool5
I0502 03:54:42.587685 18354 net.cpp:94] Creating Layer pool5
I0502 03:54:42.587689 18354 net.cpp:435] pool5 <- conv5
I0502 03:54:42.587693 18354 net.cpp:409] pool5 -> pool5
I0502 03:54:42.587726 18354 net.cpp:144] Setting up pool5
I0502 03:54:42.587733 18354 net.cpp:151] Top shape: 20 64 5 5 (32000)
I0502 03:54:42.587736 18354 net.cpp:159] Memory required for data: 11936080
I0502 03:54:42.587739 18354 layer_factory.hpp:77] Creating layer ip1
I0502 03:54:42.587749 18354 net.cpp:94] Creating Layer ip1
I0502 03:54:42.587752 18354 net.cpp:435] ip1 <- pool5
I0502 03:54:42.587757 18354 net.cpp:409] ip1 -> ip1
I0502 03:54:42.590262 18354 net.cpp:144] Setting up ip1
I0502 03:54:42.590271 18354 net.cpp:151] Top shape: 20 64 (1280)
I0502 03:54:42.590276 18354 net.cpp:159] Memory required for data: 11941200
I0502 03:54:42.590281 18354 layer_factory.hpp:77] Creating layer ip2
I0502 03:54:42.590286 18354 net.cpp:94] Creating Layer ip2
I0502 03:54:42.590293 18354 net.cpp:435] ip2 <- ip1
I0502 03:54:42.590298 18354 net.cpp:409] ip2 -> ip2
I0502 03:54:42.590466 18354 net.cpp:144] Setting up ip2
I0502 03:54:42.590472 18354 net.cpp:151] Top shape: 20 64 (1280)
I0502 03:54:42.590476 18354 net.cpp:159] Memory required for data: 11946320
I0502 03:54:42.590481 18354 layer_factory.hpp:77] Creating layer ip3
I0502 03:54:42.590486 18354 net.cpp:94] Creating Layer ip3
I0502 03:54:42.590489 18354 net.cpp:435] ip3 <- ip2
I0502 03:54:42.590493 18354 net.cpp:409] ip3 -> ip3
I0502 03:54:42.590559 18354 net.cpp:144] Setting up ip3
I0502 03:54:42.590569 18354 net.cpp:151] Top shape: 20 1 (20)
I0502 03:54:42.590574 18354 net.cpp:159] Memory required for data: 11946400
I0502 03:54:42.590577 18354 layer_factory.hpp:77] Creating layer loss
I0502 03:54:42.590585 18354 net.cpp:94] Creating Layer loss
I0502 03:54:42.590589 18354 net.cpp:435] loss <- ip3
I0502 03:54:42.590592 18354 net.cpp:435] loss <- label
I0502 03:54:42.590597 18354 net.cpp:409] loss -> loss
I0502 03:54:42.590633 18354 net.cpp:144] Setting up loss
…
