…
I0506 08:02:30.089571 20805 net.cpp:323] The NetState phase (0) differed from the phase (1) specified by a rule in layer intercept
I0506 08:02:30.089587 20805 net.cpp:323] The NetState phase (0) differed from the phase (1) specified by a rule in layer loss
I0506 08:02:30.089664 20805 net.cpp:52] Initializing net from parameters: 
state {
  phase: TRAIN
}
layer {
  name: "parameters"
  type: "HDF5Data"
  top: "data"
  top: "label"
  include {
    phase: TRAIN
  }
  hdf5_data_param {
    source: "/home/purduethu/scratch/radon/d/deng106/CNNStatisticalModel/distributions/input/50_distributions_100_sample_size_train-parameters-path.txt"
    batch_size: 20
  }
}
layer {
  name: "conv1"
  type: "Convolution"
  bottom: "data"
  top: "conv1"
  param {
    lr_mult: 1
  }
  param {
    lr_mult: 2
  }
  convolution_param {
    num_output: 64
    pad: 2
    kernel_size: 5
    stride: 1
    weight_filler {
      type: "gaussian"
      std: 0.0001
    }
    bias_filler {
      type: "constant"
    }
  }
}
layer {
  name: "relu1"
  type: "ReLU"
  bottom: "conv1"
  top: "conv1"
}
layer {
  name: "conv2"
  type: "Convolution"
  bottom: "conv1"
  top: "conv2"
  param {
    lr_mult: 1
  }
  param {
    lr_mult: 2
  }
  convolution_param {
    num_output: 64
    pad: 2
    kernel_size: 5
    stride: 1
    weight_filler {
      type: "gaussian"
      std: 0.01
    }
    bias_filler {
      type: "constant"
    }
  }
}
layer {
  name: "relu2"
  type: "ReLU"
  bottom: "conv2"
  top: "conv2"
}
layer {
  name: "pool2"
  type: "Pooling"
  bottom: "conv2"
  top: "pool2"
  pooling_param {
    pool: MAX
    kernel_size: 3
    stride: 2
  }
}
layer {
  name: "conv3"
  type: "Convolution"
  bottom: "pool2"
  top: "conv3"
  param {
    lr_mult: 1
  }
  param {
    lr_mult: 2
  }
  convolution_param {
    num_output: 128
    pad: 2
    kernel_size: 5
    stride: 1
    weight_filler {
      type: "gaussian"
      std: 0.01
    }
    bias_filler {
      type: "constant"
    }
  }
}
layer {
  name: "relu3"
  type: "ReLU"
  bottom: "conv3"
  top: "conv3"
}
layer {
  name: "conv4"
  type: "Convolution"
  bottom: "conv3"
  top: "conv4"
  param {
    lr_mult: 1
  }
  param {
    lr_mult: 2
  }
  convolution_param {
    num_output: 128
    pad: 2
    kernel_size: 5
    stride: 1
    weight_filler {
      type: "gaussian"
      std: 0.01
    }
    bias_filler {
      type: "constant"
    }
  }
}
layer {
  name: "relu4"
  type: "ReLU"
  bottom: "conv4"
  top: "conv4"
}
layer {
  name: "conv5"
  type: "Convolution"
  bottom: "conv4"
  top: "conv5"
  param {
    lr_mult: 1
  }
  param {
    lr_mult: 2
  }
  convolution_param {
    num_output: 128
    pad: 2
    kernel_size: 5
    stride: 1
    weight_filler {
      type: "gaussian"
      std: 0.01
    }
    bias_filler {
      type: "constant"
    }
  }
}
layer {
  name: "relu5"
  type: "ReLU"
  bottom: "conv5"
  top: "conv5"
}
layer {
  name: "pool5"
  type: "Pooling"
  bottom: "conv5"
  top: "pool5"
  pooling_param {
    pool: AVE
    kernel_size: 3
    stride: 2
  }
}
layer {
  name: "ip1"
  type: "InnerProduct"
  bottom: "pool5"
  top: "ip1"
  param {
    lr_mult: 1
  }
  param {
    lr_mult: 2
  }
  inner_product_param {
    num_output: 1024
    weight_filler {
      type: "gaussian"
      std: 0.1
    }
    bias_filler {
      type: "constant"
    }
  }
}
layer {
  name: "ip2"
  type: "InnerProduct"
  bottom: "ip1"
  top: "ip2"
  param {
    lr_mult: 1
  }
  param {
    lr_mult: 2
  }
  inner_product_param {
    num_output: 512
    weight_filler {
      type: "gaussian"
      std: 0.1
    }
    bias_filler {
      type: "constant"
    }
  }
}
layer {
  name: "ip3"
  type: "InnerProduct"
  bottom: "ip2"
  top: "ip3"
  param {
    lr_mult: 1
  }
  param {
    lr_mult: 2
  }
  inner_product_param {
    num_output: 1
    weight_filler {
      type: "gaussian"
      std: 0.1
    }
    bias_filler {
      type: "constant"
    }
  }
}
layer {
  name: "loss"
  type: "HuberLoss"
  bottom: "ip3"
  bottom: "label"
  top: "loss"
  include {
    phase: TRAIN
  }
}
I0506 08:02:30.089718 20805 layer_factory.hpp:77] Creating layer parameters
I0506 08:02:30.089731 20805 net.cpp:94] Creating Layer parameters
I0506 08:02:30.089736 20805 net.cpp:409] parameters -> data
I0506 08:02:30.089745 20805 net.cpp:409] parameters -> label
I0506 08:02:30.089752 20805 hdf5_data_layer.cpp:79] Loading list of HDF5 filenames from: /home/purduethu/scratch/radon/d/deng106/CNNStatisticalModel/distributions/input/50_distributions_100_sample_size_train-parameters-path.txt
I0506 08:02:30.089767 20805 hdf5_data_layer.cpp:93] Number of HDF5 files: 1
I0506 08:02:30.090303 20805 hdf5.cpp:32] Datatype class: H5T_FLOAT
I0506 08:02:30.252048 20805 net.cpp:144] Setting up parameters
I0506 08:02:30.252081 20805 net.cpp:151] Top shape: 20 1 10 10 (2000)
I0506 08:02:30.252086 20805 net.cpp:151] Top shape: 20 (20)
I0506 08:02:30.252089 20805 net.cpp:159] Memory required for data: 8080
I0506 08:02:30.252095 20805 layer_factory.hpp:77] Creating layer conv1
I0506 08:02:30.252117 20805 net.cpp:94] Creating Layer conv1
I0506 08:02:30.252122 20805 net.cpp:435] conv1 <- data
I0506 08:02:30.252128 20805 net.cpp:409] conv1 -> conv1
I0506 08:02:30.256391 20805 net.cpp:144] Setting up conv1
I0506 08:02:30.256405 20805 net.cpp:151] Top shape: 20 64 10 10 (128000)
I0506 08:02:30.256409 20805 net.cpp:159] Memory required for data: 520080
I0506 08:02:30.256419 20805 layer_factory.hpp:77] Creating layer relu1
I0506 08:02:30.256428 20805 net.cpp:94] Creating Layer relu1
I0506 08:02:30.256431 20805 net.cpp:435] relu1 <- conv1
I0506 08:02:30.256436 20805 net.cpp:396] relu1 -> conv1 (in-place)
I0506 08:02:30.256450 20805 net.cpp:144] Setting up relu1
I0506 08:02:30.256455 20805 net.cpp:151] Top shape: 20 64 10 10 (128000)
I0506 08:02:30.256458 20805 net.cpp:159] Memory required for data: 1032080
I0506 08:02:30.256461 20805 layer_factory.hpp:77] Creating layer conv2
I0506 08:02:30.256469 20805 net.cpp:94] Creating Layer conv2
I0506 08:02:30.256472 20805 net.cpp:435] conv2 <- conv1
I0506 08:02:30.256477 20805 net.cpp:409] conv2 -> conv2
I0506 08:02:30.262562 20805 net.cpp:144] Setting up conv2
I0506 08:02:30.262575 20805 net.cpp:151] Top shape: 20 64 10 10 (128000)
I0506 08:02:30.262579 20805 net.cpp:159] Memory required for data: 1544080
I0506 08:02:30.262588 20805 layer_factory.hpp:77] Creating layer relu2
I0506 08:02:30.262594 20805 net.cpp:94] Creating Layer relu2
I0506 08:02:30.262598 20805 net.cpp:435] relu2 <- conv2
I0506 08:02:30.262603 20805 net.cpp:396] relu2 -> conv2 (in-place)
I0506 08:02:30.262609 20805 net.cpp:144] Setting up relu2
I0506 08:02:30.262614 20805 net.cpp:151] Top shape: 20 64 10 10 (128000)
I0506 08:02:30.262616 20805 net.cpp:159] Memory required for data: 2056080
I0506 08:02:30.262619 20805 layer_factory.hpp:77] Creating layer pool2
I0506 08:02:30.262624 20805 net.cpp:94] Creating Layer pool2
I0506 08:02:30.262627 20805 net.cpp:435] pool2 <- conv2
I0506 08:02:30.262632 20805 net.cpp:409] pool2 -> pool2
I0506 08:02:30.262688 20805 net.cpp:144] Setting up pool2
I0506 08:02:30.262696 20805 net.cpp:151] Top shape: 20 64 5 5 (32000)
I0506 08:02:30.262699 20805 net.cpp:159] Memory required for data: 2184080
I0506 08:02:30.262702 20805 layer_factory.hpp:77] Creating layer conv3
I0506 08:02:30.262711 20805 net.cpp:94] Creating Layer conv3
I0506 08:02:30.262719 20805 net.cpp:435] conv3 <- pool2
I0506 08:02:30.262725 20805 net.cpp:409] conv3 -> conv3
I0506 08:02:30.270925 20805 net.cpp:144] Setting up conv3
I0506 08:02:30.270939 20805 net.cpp:151] Top shape: 20 128 5 5 (64000)
I0506 08:02:30.270943 20805 net.cpp:159] Memory required for data: 2440080
I0506 08:02:30.270951 20805 layer_factory.hpp:77] Creating layer relu3
I0506 08:02:30.270957 20805 net.cpp:94] Creating Layer relu3
I0506 08:02:30.270961 20805 net.cpp:435] relu3 <- conv3
I0506 08:02:30.270965 20805 net.cpp:396] relu3 -> conv3 (in-place)
I0506 08:02:30.270972 20805 net.cpp:144] Setting up relu3
I0506 08:02:30.270977 20805 net.cpp:151] Top shape: 20 128 5 5 (64000)
I0506 08:02:30.270979 20805 net.cpp:159] Memory required for data: 2696080
I0506 08:02:30.270982 20805 layer_factory.hpp:77] Creating layer conv4
I0506 08:02:30.270990 20805 net.cpp:94] Creating Layer conv4
I0506 08:02:30.270994 20805 net.cpp:435] conv4 <- conv3
I0506 08:02:30.270999 20805 net.cpp:409] conv4 -> conv4
I0506 08:02:30.286031 20805 net.cpp:144] Setting up conv4
I0506 08:02:30.286044 20805 net.cpp:151] Top shape: 20 128 5 5 (64000)
I0506 08:02:30.286048 20805 net.cpp:159] Memory required for data: 2952080
I0506 08:02:30.286054 20805 layer_factory.hpp:77] Creating layer relu4
I0506 08:02:30.286061 20805 net.cpp:94] Creating Layer relu4
I0506 08:02:30.286063 20805 net.cpp:435] relu4 <- conv4
I0506 08:02:30.286068 20805 net.cpp:396] relu4 -> conv4 (in-place)
I0506 08:02:30.286075 20805 net.cpp:144] Setting up relu4
I0506 08:02:30.286079 20805 net.cpp:151] Top shape: 20 128 5 5 (64000)
I0506 08:02:30.286082 20805 net.cpp:159] Memory required for data: 3208080
I0506 08:02:30.286085 20805 layer_factory.hpp:77] Creating layer conv5
I0506 08:02:30.286092 20805 net.cpp:94] Creating Layer conv5
I0506 08:02:30.286097 20805 net.cpp:435] conv5 <- conv4
I0506 08:02:30.286101 20805 net.cpp:409] conv5 -> conv5
I0506 08:02:30.300493 20805 net.cpp:144] Setting up conv5
I0506 08:02:30.300508 20805 net.cpp:151] Top shape: 20 128 5 5 (64000)
I0506 08:02:30.300513 20805 net.cpp:159] Memory required for data: 3464080
I0506 08:02:30.300521 20805 layer_factory.hpp:77] Creating layer relu5
I0506 08:02:30.300528 20805 net.cpp:94] Creating Layer relu5
I0506 08:02:30.300531 20805 net.cpp:435] relu5 <- conv5
I0506 08:02:30.300535 20805 net.cpp:396] relu5 -> conv5 (in-place)
I0506 08:02:30.300542 20805 net.cpp:144] Setting up relu5
I0506 08:02:30.300546 20805 net.cpp:151] Top shape: 20 128 5 5 (64000)
I0506 08:02:30.300559 20805 net.cpp:159] Memory required for data: 3720080
I0506 08:02:30.300562 20805 layer_factory.hpp:77] Creating layer pool5
I0506 08:02:30.300568 20805 net.cpp:94] Creating Layer pool5
I0506 08:02:30.300571 20805 net.cpp:435] pool5 <- conv5
I0506 08:02:30.300576 20805 net.cpp:409] pool5 -> pool5
I0506 08:02:30.300617 20805 net.cpp:144] Setting up pool5
I0506 08:02:30.300626 20805 net.cpp:151] Top shape: 20 128 2 2 (10240)
I0506 08:02:30.300628 20805 net.cpp:159] Memory required for data: 3761040
I0506 08:02:30.300631 20805 layer_factory.hpp:77] Creating layer ip1
I0506 08:02:30.300642 20805 net.cpp:94] Creating Layer ip1
I0506 08:02:30.300644 20805 net.cpp:435] ip1 <- pool5
I0506 08:02:30.300649 20805 net.cpp:409] ip1 -> ip1
I0506 08:02:30.314519 20805 net.cpp:144] Setting up ip1
I0506 08:02:30.314532 20805 net.cpp:151] Top shape: 20 1024 (20480)
I0506 08:02:30.314537 20805 net.cpp:159] Memory required for data: 3842960
I0506 08:02:30.314543 20805 layer_factory.hpp:77] Creating layer ip2
I0506 08:02:30.314550 20805 net.cpp:94] Creating Layer ip2
I0506 08:02:30.314553 20805 net.cpp:435] ip2 <- ip1
I0506 08:02:30.314558 20805 net.cpp:409] ip2 -> ip2
I0506 08:02:30.327600 20805 net.cpp:144] Setting up ip2
I0506 08:02:30.327615 20805 net.cpp:151] Top shape: 20 512 (10240)
I0506 08:02:30.327618 20805 net.cpp:159] Memory required for data: 3883920
I0506 08:02:30.327623 20805 layer_factory.hpp:77] Creating layer ip3
I0506 08:02:30.327630 20805 net.cpp:94] Creating Layer ip3
I0506 08:02:30.327633 20805 net.cpp:435] ip3 <- ip2
I0506 08:02:30.327643 20805 net.cpp:409] ip3 -> ip3
I0506 08:02:30.327764 20805 net.cpp:144] Setting up ip3
I0506 08:02:30.327771 20805 net.cpp:151] Top shape: 20 1 (20)
I0506 08:02:30.327775 20805 net.cpp:159] Memory required for data: 3884000
I0506 08:02:30.327780 20805 layer_factory.hpp:77] Creating layer loss
I0506 08:02:30.327787 20805 net.cpp:94] Creating Layer loss
I0506 08:02:30.327791 20805 net.cpp:435] loss <- ip3
I0506 08:02:30.327795 20805 net.cpp:435] loss <- label
I0506 08:02:30.327800 20805 net.cpp:409] loss -> loss
I0506 08:02:30.327852 20805 net.cpp:144] Setting up loss
…
I0506 08:02:30.434355 20805 net.cpp:323] The NetState phase (0) differed from the phase (1) specified by a rule in layer intercept
I0506 08:02:30.434371 20805 net.cpp:323] The NetState phase (0) differed from the phase (1) specified by a rule in layer accuracy
I0506 08:02:30.434458 20805 net.cpp:52] Initializing net from parameters: 
state {
  phase: TRAIN
}
layer {
  name: "parameters"
  type: "HDF5Data"
  top: "data"
  top: "label"
  include {
    phase: TRAIN
  }
  hdf5_data_param {
    source: "/home/purduethu/scratch/radon/d/deng106/CNNStatisticalModel/distributions/input/50_distributions_100_sample_size_train-distributions-path.txt"
    batch_size: 20
  }
}
layer {
  name: "conv1"
  type: "Convolution"
  bottom: "data"
  top: "conv1"
  param {
    lr_mult: 1
  }
  param {
    lr_mult: 2
  }
  convolution_param {
    num_output: 64
    pad: 2
    kernel_size: 5
    stride: 1
    weight_filler {
      type: "gaussian"
      std: 0.0001
    }
    bias_filler {
      type: "constant"
    }
  }
}
layer {
  name: "relu1"
  type: "ReLU"
  bottom: "conv1"
  top: "conv1"
}
layer {
  name: "conv2"
  type: "Convolution"
  bottom: "conv1"
  top: "conv2"
  param {
    lr_mult: 1
  }
  param {
    lr_mult: 2
  }
  convolution_param {
    num_output: 64
    pad: 2
    kernel_size: 5
    stride: 1
    weight_filler {
      type: "gaussian"
      std: 0.01
    }
    bias_filler {
      type: "constant"
    }
  }
}
layer {
  name: "relu2"
  type: "ReLU"
  bottom: "conv2"
  top: "conv2"
}
layer {
  name: "pool2"
  type: "Pooling"
  bottom: "conv2"
  top: "pool2"
  pooling_param {
    pool: MAX
    kernel_size: 3
    stride: 2
  }
}
layer {
  name: "conv3"
  type: "Convolution"
  bottom: "pool2"
  top: "conv3"
  param {
    lr_mult: 1
  }
  param {
    lr_mult: 2
  }
  convolution_param {
    num_output: 128
    pad: 2
    kernel_size: 5
    stride: 1
    weight_filler {
      type: "gaussian"
      std: 0.01
    }
    bias_filler {
      type: "constant"
    }
  }
}
layer {
  name: "relu3"
  type: "ReLU"
  bottom: "conv3"
  top: "conv3"
}
layer {
  name: "conv4"
  type: "Convolution"
  bottom: "conv3"
  top: "conv4"
  param {
    lr_mult: 1
  }
  param {
    lr_mult: 2
  }
  convolution_param {
    num_output: 128
    pad: 2
    kernel_size: 5
    stride: 1
    weight_filler {
      type: "gaussian"
      std: 0.01
    }
    bias_filler {
      type: "constant"
    }
  }
}
layer {
  name: "relu4"
  type: "ReLU"
  bottom: "conv4"
  top: "conv4"
}
layer {
  name: "conv5"
  type: "Convolution"
  bottom: "conv4"
  top: "conv5"
  param {
    lr_mult: 1
  }
  param {
    lr_mult: 2
  }
  convolution_param {
    num_output: 128
    pad: 2
    kernel_size: 5
    stride: 1
    weight_filler {
      type: "gaussian"
      std: 0.01
    }
    bias_filler {
      type: "constant"
    }
  }
}
layer {
  name: "relu5"
  type: "ReLU"
  bottom: "conv5"
  top: "conv5"
}
layer {
  name: "pool5"
  type: "Pooling"
  bottom: "conv5"
  top: "pool5"
  pooling_param {
    pool: AVE
    kernel_size: 3
    stride: 2
  }
}
layer {
  name: "ip1"
  type: "InnerProduct"
  bottom: "pool5"
  top: "ip1"
  param {
    lr_mult: 1
  }
  param {
    lr_mult: 2
  }
  inner_product_param {
    num_output: 1024
    weight_filler {
      type: "gaussian"
      std: 0.1
    }
    bias_filler {
      type: "constant"
    }
  }
}
layer {
  name: "ip2"
  type: "InnerProduct"
  bottom: "ip1"
  top: "ip2"
  param {
    lr_mult: 1
  }
  param {
    lr_mult: 2
  }
  inner_product_param {
    num_output: 512
    weight_filler {
      type: "gaussian"
      std: 0.1
    }
    bias_filler {
      type: "constant"
    }
  }
}
layer {
  name: "ip3"
  type: "InnerProduct"
  bottom: "ip2"
  top: "ip3"
  param {
    lr_mult: 1
  }
  param {
    lr_mult: 2
  }
  inner_product_param {
    num_output: 50
    weight_filler {
      type: "gaussian"
      std: 0.1
    }
    bias_filler {
      type: "constant"
    }
  }
}
layer {
  name: "loss"
  type: "SoftmaxWithLoss"
  bottom: "ip3"
  bottom: "label"
  top: "loss"
}
I0506 08:02:30.434507 20805 layer_factory.hpp:77] Creating layer parameters
I0506 08:02:30.434515 20805 net.cpp:94] Creating Layer parameters
I0506 08:02:30.434520 20805 net.cpp:409] parameters -> data
I0506 08:02:30.434525 20805 net.cpp:409] parameters -> label
I0506 08:02:30.434531 20805 hdf5_data_layer.cpp:79] Loading list of HDF5 filenames from: /home/purduethu/scratch/radon/d/deng106/CNNStatisticalModel/distributions/input/50_distributions_100_sample_size_train-distributions-path.txt
I0506 08:02:30.434548 20805 hdf5_data_layer.cpp:93] Number of HDF5 files: 1
I0506 08:02:30.591689 20805 hdf5.cpp:35] Datatype class: H5T_INTEGER
I0506 08:02:30.594741 20805 net.cpp:144] Setting up parameters
I0506 08:02:30.594761 20805 net.cpp:151] Top shape: 20 1 10 10 (2000)
I0506 08:02:30.594766 20805 net.cpp:151] Top shape: 20 (20)
I0506 08:02:30.594769 20805 net.cpp:159] Memory required for data: 8080
I0506 08:02:30.594775 20805 layer_factory.hpp:77] Creating layer conv1
I0506 08:02:30.594791 20805 net.cpp:94] Creating Layer conv1
I0506 08:02:30.594795 20805 net.cpp:435] conv1 <- data
I0506 08:02:30.594801 20805 net.cpp:409] conv1 -> conv1
I0506 08:02:30.596653 20805 net.cpp:144] Setting up conv1
I0506 08:02:30.596668 20805 net.cpp:151] Top shape: 20 64 10 10 (128000)
I0506 08:02:30.596673 20805 net.cpp:159] Memory required for data: 520080
I0506 08:02:30.596683 20805 layer_factory.hpp:77] Creating layer relu1
I0506 08:02:30.596689 20805 net.cpp:94] Creating Layer relu1
I0506 08:02:30.596693 20805 net.cpp:435] relu1 <- conv1
I0506 08:02:30.596698 20805 net.cpp:396] relu1 -> conv1 (in-place)
I0506 08:02:30.596704 20805 net.cpp:144] Setting up relu1
I0506 08:02:30.596709 20805 net.cpp:151] Top shape: 20 64 10 10 (128000)
I0506 08:02:30.596711 20805 net.cpp:159] Memory required for data: 1032080
I0506 08:02:30.596714 20805 layer_factory.hpp:77] Creating layer conv2
I0506 08:02:30.596722 20805 net.cpp:94] Creating Layer conv2
I0506 08:02:30.596725 20805 net.cpp:435] conv2 <- conv1
I0506 08:02:30.596730 20805 net.cpp:409] conv2 -> conv2
I0506 08:02:30.602082 20805 net.cpp:144] Setting up conv2
I0506 08:02:30.602097 20805 net.cpp:151] Top shape: 20 64 10 10 (128000)
I0506 08:02:30.602100 20805 net.cpp:159] Memory required for data: 1544080
I0506 08:02:30.602108 20805 layer_factory.hpp:77] Creating layer relu2
I0506 08:02:30.602114 20805 net.cpp:94] Creating Layer relu2
I0506 08:02:30.602118 20805 net.cpp:435] relu2 <- conv2
I0506 08:02:30.602123 20805 net.cpp:396] relu2 -> conv2 (in-place)
I0506 08:02:30.602129 20805 net.cpp:144] Setting up relu2
I0506 08:02:30.602133 20805 net.cpp:151] Top shape: 20 64 10 10 (128000)
I0506 08:02:30.602136 20805 net.cpp:159] Memory required for data: 2056080
I0506 08:02:30.602139 20805 layer_factory.hpp:77] Creating layer pool2
I0506 08:02:30.602145 20805 net.cpp:94] Creating Layer pool2
I0506 08:02:30.602149 20805 net.cpp:435] pool2 <- conv2
I0506 08:02:30.602152 20805 net.cpp:409] pool2 -> pool2
I0506 08:02:30.602210 20805 net.cpp:144] Setting up pool2
I0506 08:02:30.602216 20805 net.cpp:151] Top shape: 20 64 5 5 (32000)
I0506 08:02:30.602221 20805 net.cpp:159] Memory required for data: 2184080
I0506 08:02:30.602223 20805 layer_factory.hpp:77] Creating layer conv3
I0506 08:02:30.602231 20805 net.cpp:94] Creating Layer conv3
I0506 08:02:30.602234 20805 net.cpp:435] conv3 <- pool2
I0506 08:02:30.602239 20805 net.cpp:409] conv3 -> conv3
I0506 08:02:30.610891 20805 net.cpp:144] Setting up conv3
I0506 08:02:30.610906 20805 net.cpp:151] Top shape: 20 128 5 5 (64000)
I0506 08:02:30.610910 20805 net.cpp:159] Memory required for data: 2440080
I0506 08:02:30.610918 20805 layer_factory.hpp:77] Creating layer relu3
I0506 08:02:30.610924 20805 net.cpp:94] Creating Layer relu3
I0506 08:02:30.610927 20805 net.cpp:435] relu3 <- conv3
I0506 08:02:30.610931 20805 net.cpp:396] relu3 -> conv3 (in-place)
I0506 08:02:30.610944 20805 net.cpp:144] Setting up relu3
I0506 08:02:30.610949 20805 net.cpp:151] Top shape: 20 128 5 5 (64000)
I0506 08:02:30.610952 20805 net.cpp:159] Memory required for data: 2696080
I0506 08:02:30.610955 20805 layer_factory.hpp:77] Creating layer conv4
I0506 08:02:30.610963 20805 net.cpp:94] Creating Layer conv4
I0506 08:02:30.610967 20805 net.cpp:435] conv4 <- conv3
I0506 08:02:30.610972 20805 net.cpp:409] conv4 -> conv4
I0506 08:02:30.625600 20805 net.cpp:144] Setting up conv4
I0506 08:02:30.625614 20805 net.cpp:151] Top shape: 20 128 5 5 (64000)
I0506 08:02:30.625618 20805 net.cpp:159] Memory required for data: 2952080
I0506 08:02:30.625625 20805 layer_factory.hpp:77] Creating layer relu4
I0506 08:02:30.625630 20805 net.cpp:94] Creating Layer relu4
I0506 08:02:30.625634 20805 net.cpp:435] relu4 <- conv4
I0506 08:02:30.625639 20805 net.cpp:396] relu4 -> conv4 (in-place)
I0506 08:02:30.625646 20805 net.cpp:144] Setting up relu4
I0506 08:02:30.625650 20805 net.cpp:151] Top shape: 20 128 5 5 (64000)
I0506 08:02:30.625653 20805 net.cpp:159] Memory required for data: 3208080
I0506 08:02:30.625656 20805 layer_factory.hpp:77] Creating layer conv5
I0506 08:02:30.625663 20805 net.cpp:94] Creating Layer conv5
I0506 08:02:30.625668 20805 net.cpp:435] conv5 <- conv4
I0506 08:02:30.625672 20805 net.cpp:409] conv5 -> conv5
I0506 08:02:30.640569 20805 net.cpp:144] Setting up conv5
I0506 08:02:30.640583 20805 net.cpp:151] Top shape: 20 128 5 5 (64000)
I0506 08:02:30.640588 20805 net.cpp:159] Memory required for data: 3464080
I0506 08:02:30.640595 20805 layer_factory.hpp:77] Creating layer relu5
I0506 08:02:30.640601 20805 net.cpp:94] Creating Layer relu5
I0506 08:02:30.640605 20805 net.cpp:435] relu5 <- conv5
I0506 08:02:30.640609 20805 net.cpp:396] relu5 -> conv5 (in-place)
I0506 08:02:30.640616 20805 net.cpp:144] Setting up relu5
I0506 08:02:30.640620 20805 net.cpp:151] Top shape: 20 128 5 5 (64000)
I0506 08:02:30.640624 20805 net.cpp:159] Memory required for data: 3720080
I0506 08:02:30.640626 20805 layer_factory.hpp:77] Creating layer pool5
I0506 08:02:30.640631 20805 net.cpp:94] Creating Layer pool5
I0506 08:02:30.640635 20805 net.cpp:435] pool5 <- conv5
I0506 08:02:30.640640 20805 net.cpp:409] pool5 -> pool5
I0506 08:02:30.640679 20805 net.cpp:144] Setting up pool5
I0506 08:02:30.640686 20805 net.cpp:151] Top shape: 20 128 2 2 (10240)
I0506 08:02:30.640689 20805 net.cpp:159] Memory required for data: 3761040
I0506 08:02:30.640692 20805 layer_factory.hpp:77] Creating layer ip1
I0506 08:02:30.640699 20805 net.cpp:94] Creating Layer ip1
I0506 08:02:30.640702 20805 net.cpp:435] ip1 <- pool5
I0506 08:02:30.640707 20805 net.cpp:409] ip1 -> ip1
I0506 08:02:30.653755 20805 net.cpp:144] Setting up ip1
I0506 08:02:30.653769 20805 net.cpp:151] Top shape: 20 1024 (20480)
I0506 08:02:30.653774 20805 net.cpp:159] Memory required for data: 3842960
I0506 08:02:30.653779 20805 layer_factory.hpp:77] Creating layer ip2
I0506 08:02:30.653785 20805 net.cpp:94] Creating Layer ip2
I0506 08:02:30.653789 20805 net.cpp:435] ip2 <- ip1
I0506 08:02:30.653794 20805 net.cpp:409] ip2 -> ip2
I0506 08:02:30.666816 20805 net.cpp:144] Setting up ip2
I0506 08:02:30.666831 20805 net.cpp:151] Top shape: 20 512 (10240)
I0506 08:02:30.666833 20805 net.cpp:159] Memory required for data: 3883920
I0506 08:02:30.666839 20805 layer_factory.hpp:77] Creating layer ip3
I0506 08:02:30.666846 20805 net.cpp:94] Creating Layer ip3
I0506 08:02:30.666849 20805 net.cpp:435] ip3 <- ip2
I0506 08:02:30.666854 20805 net.cpp:409] ip3 -> ip3
I0506 08:02:30.668356 20805 net.cpp:144] Setting up ip3
I0506 08:02:30.668368 20805 net.cpp:151] Top shape: 20 50 (1000)
I0506 08:02:30.668372 20805 net.cpp:159] Memory required for data: 3887920
I0506 08:02:30.668378 20805 layer_factory.hpp:77] Creating layer loss
I0506 08:02:30.668385 20805 net.cpp:94] Creating Layer loss
I0506 08:02:30.668388 20805 net.cpp:435] loss <- ip3
I0506 08:02:30.668392 20805 net.cpp:435] loss <- label
I0506 08:02:30.668397 20805 net.cpp:409] loss -> loss
I0506 08:02:30.668404 20805 layer_factory.hpp:77] Creating layer loss
…
I0506 08:02:30.668957 20805 solver.cpp:181] Creating test net (#0) specified by net file: ./protocol/dis_50_100_dimension.protocol_distribution
I0506 08:02:30.668983 20805 net.cpp:323] The NetState phase (1) differed from the phase (0) specified by a rule in layer parameters
I0506 08:02:30.669075 20805 net.cpp:52] Initializing net from parameters: 
state {
  phase: TEST
}
layer {
  name: "intercept"
  type: "HDF5Data"
  top: "data"
  top: "label"
  include {
    phase: TEST
  }
  hdf5_data_param {
    source: "/home/purduethu/scratch/radon/d/deng106/CNNStatisticalModel/distributions/input/50_distributions_100_sample_size_test-distributions-path.txt"
    batch_size: 20
  }
}
layer {
  name: "conv1"
  type: "Convolution"
  bottom: "data"
  top: "conv1"
  param {
    lr_mult: 1
  }
  param {
    lr_mult: 2
  }
  convolution_param {
    num_output: 64
    pad: 2
    kernel_size: 5
    stride: 1
    weight_filler {
      type: "gaussian"
      std: 0.0001
    }
    bias_filler {
      type: "constant"
    }
  }
}
layer {
  name: "relu1"
  type: "ReLU"
  bottom: "conv1"
  top: "conv1"
}
layer {
  name: "conv2"
  type: "Convolution"
  bottom: "conv1"
  top: "conv2"
  param {
    lr_mult: 1
  }
  param {
    lr_mult: 2
  }
  convolution_param {
    num_output: 64
    pad: 2
    kernel_size: 5
    stride: 1
    weight_filler {
      type: "gaussian"
      std: 0.01
    }
    bias_filler {
      type: "constant"
    }
  }
}
layer {
  name: "relu2"
  type: "ReLU"
  bottom: "conv2"
  top: "conv2"
}
layer {
  name: "pool2"
  type: "Pooling"
  bottom: "conv2"
  top: "pool2"
  pooling_param {
    pool: MAX
    kernel_size: 3
    stride: 2
  }
}
layer {
  name: "conv3"
  type: "Convolution"
  bottom: "pool2"
  top: "conv3"
  param {
    lr_mult: 1
  }
  param {
    lr_mult: 2
  }
  convolution_param {
    num_output: 128
    pad: 2
    kernel_size: 5
    stride: 1
    weight_filler {
      type: "gaussian"
      std: 0.01
    }
    bias_filler {
      type: "constant"
    }
  }
}
layer {
  name: "relu3"
  type: "ReLU"
  bottom: "conv3"
  top: "conv3"
}
layer {
  name: "conv4"
  type: "Convolution"
  bottom: "conv3"
  top: "conv4"
  param {
    lr_mult: 1
  }
  param {
    lr_mult: 2
  }
  convolution_param {
    num_output: 128
    pad: 2
    kernel_size: 5
    stride: 1
    weight_filler {
      type: "gaussian"
      std: 0.01
    }
    bias_filler {
      type: "constant"
    }
  }
}
layer {
  name: "relu4"
  type: "ReLU"
  bottom: "conv4"
  top: "conv4"
}
layer {
  name: "conv5"
  type: "Convolution"
  bottom: "conv4"
  top: "conv5"
  param {
    lr_mult: 1
  }
  param {
    lr_mult: 2
  }
  convolution_param {
    num_output: 128
    pad: 2
    kernel_size: 5
    stride: 1
    weight_filler {
      type: "gaussian"
      std: 0.01
    }
    bias_filler {
      type: "constant"
    }
  }
}
layer {
  name: "relu5"
  type: "ReLU"
  bottom: "conv5"
  top: "conv5"
}
layer {
  name: "pool5"
  type: "Pooling"
  bottom: "conv5"
  top: "pool5"
  pooling_param {
    pool: AVE
    kernel_size: 3
    stride: 2
  }
}
layer {
  name: "ip1"
  type: "InnerProduct"
  bottom: "pool5"
  top: "ip1"
  param {
    lr_mult: 1
  }
  param {
    lr_mult: 2
  }
  inner_product_param {
    num_output: 1024
    weight_filler {
      type: "gaussian"
      std: 0.1
    }
    bias_filler {
      type: "constant"
    }
  }
}
layer {
  name: "ip2"
  type: "InnerProduct"
  bottom: "ip1"
  top: "ip2"
  param {
    lr_mult: 1
  }
  param {
    lr_mult: 2
  }
  inner_product_param {
    num_output: 512
    weight_filler {
      type: "gaussian"
      std: 0.1
    }
    bias_filler {
      type: "constant"
    }
  }
}
layer {
  name: "ip3"
  type: "InnerProduct"
  bottom: "ip2"
  top: "ip3"
  param {
    lr_mult: 1
  }
  param {
    lr_mult: 2
  }
  inner_product_param {
    num_output: 50
    weight_filler {
      type: "gaussian"
      std: 0.1
    }
    bias_filler {
      type: "constant"
    }
  }
}
layer {
  name: "accuracy"
  type: "Accuracy"
  bottom: "ip3"
  bottom: "label"
  top: "accuracy"
  include {
    phase: TEST
  }
}
layer {
  name: "loss"
  type: "SoftmaxWithLoss"
  bottom: "ip3"
  bottom: "label"
  top: "loss"
}
I0506 08:02:30.669140 20805 layer_factory.hpp:77] Creating layer intercept
I0506 08:02:30.669148 20805 net.cpp:94] Creating Layer intercept
I0506 08:02:30.669153 20805 net.cpp:409] intercept -> data
I0506 08:02:30.669159 20805 net.cpp:409] intercept -> label
I0506 08:02:30.669165 20805 hdf5_data_layer.cpp:79] Loading list of HDF5 filenames from: /home/purduethu/scratch/radon/d/deng106/CNNStatisticalModel/distributions/input/50_distributions_100_sample_size_test-distributions-path.txt
I0506 08:02:30.669184 20805 hdf5_data_layer.cpp:93] Number of HDF5 files: 1
I0506 08:02:30.710314 20805 net.cpp:144] Setting up intercept
I0506 08:02:30.710346 20805 net.cpp:151] Top shape: 20 1 10 10 (2000)
I0506 08:02:30.710351 20805 net.cpp:151] Top shape: 20 (20)
I0506 08:02:30.710355 20805 net.cpp:159] Memory required for data: 8080
I0506 08:02:30.710361 20805 layer_factory.hpp:77] Creating layer label_intercept_1_split
I0506 08:02:30.710381 20805 net.cpp:94] Creating Layer label_intercept_1_split
I0506 08:02:30.710384 20805 net.cpp:435] label_intercept_1_split <- label
I0506 08:02:30.710391 20805 net.cpp:409] label_intercept_1_split -> label_intercept_1_split_0
I0506 08:02:30.710399 20805 net.cpp:409] label_intercept_1_split -> label_intercept_1_split_1
I0506 08:02:30.710443 20805 net.cpp:144] Setting up label_intercept_1_split
I0506 08:02:30.710450 20805 net.cpp:151] Top shape: 20 (20)
I0506 08:02:30.710454 20805 net.cpp:151] Top shape: 20 (20)
I0506 08:02:30.710456 20805 net.cpp:159] Memory required for data: 8240
I0506 08:02:30.710459 20805 layer_factory.hpp:77] Creating layer conv1
I0506 08:02:30.710470 20805 net.cpp:94] Creating Layer conv1
I0506 08:02:30.710474 20805 net.cpp:435] conv1 <- data
I0506 08:02:30.710479 20805 net.cpp:409] conv1 -> conv1
I0506 08:02:30.711330 20805 net.cpp:144] Setting up conv1
I0506 08:02:30.711344 20805 net.cpp:151] Top shape: 20 64 10 10 (128000)
I0506 08:02:30.711347 20805 net.cpp:159] Memory required for data: 520240
I0506 08:02:30.711357 20805 layer_factory.hpp:77] Creating layer relu1
I0506 08:02:30.711364 20805 net.cpp:94] Creating Layer relu1
I0506 08:02:30.711366 20805 net.cpp:435] relu1 <- conv1
I0506 08:02:30.711371 20805 net.cpp:396] relu1 -> conv1 (in-place)
I0506 08:02:30.711379 20805 net.cpp:144] Setting up relu1
I0506 08:02:30.711382 20805 net.cpp:151] Top shape: 20 64 10 10 (128000)
I0506 08:02:30.711392 20805 net.cpp:159] Memory required for data: 1032240
I0506 08:02:30.711395 20805 layer_factory.hpp:77] Creating layer conv2
I0506 08:02:30.711403 20805 net.cpp:94] Creating Layer conv2
I0506 08:02:30.711406 20805 net.cpp:435] conv2 <- conv1
I0506 08:02:30.711411 20805 net.cpp:409] conv2 -> conv2
I0506 08:02:30.715504 20805 net.cpp:144] Setting up conv2
I0506 08:02:30.715518 20805 net.cpp:151] Top shape: 20 64 10 10 (128000)
I0506 08:02:30.715523 20805 net.cpp:159] Memory required for data: 1544240
I0506 08:02:30.715530 20805 layer_factory.hpp:77] Creating layer relu2
I0506 08:02:30.715538 20805 net.cpp:94] Creating Layer relu2
I0506 08:02:30.715541 20805 net.cpp:435] relu2 <- conv2
I0506 08:02:30.715545 20805 net.cpp:396] relu2 -> conv2 (in-place)
I0506 08:02:30.715554 20805 net.cpp:144] Setting up relu2
I0506 08:02:30.715559 20805 net.cpp:151] Top shape: 20 64 10 10 (128000)
I0506 08:02:30.715561 20805 net.cpp:159] Memory required for data: 2056240
I0506 08:02:30.715564 20805 layer_factory.hpp:77] Creating layer pool2
I0506 08:02:30.715570 20805 net.cpp:94] Creating Layer pool2
I0506 08:02:30.715574 20805 net.cpp:435] pool2 <- conv2
I0506 08:02:30.715577 20805 net.cpp:409] pool2 -> pool2
I0506 08:02:30.715638 20805 net.cpp:144] Setting up pool2
I0506 08:02:30.715646 20805 net.cpp:151] Top shape: 20 64 5 5 (32000)
I0506 08:02:30.715649 20805 net.cpp:159] Memory required for data: 2184240
I0506 08:02:30.715652 20805 layer_factory.hpp:77] Creating layer conv3
I0506 08:02:30.715661 20805 net.cpp:94] Creating Layer conv3
I0506 08:02:30.715664 20805 net.cpp:435] conv3 <- pool2
I0506 08:02:30.715670 20805 net.cpp:409] conv3 -> conv3
I0506 08:02:30.721719 20805 net.cpp:144] Setting up conv3
I0506 08:02:30.721734 20805 net.cpp:151] Top shape: 20 128 5 5 (64000)
I0506 08:02:30.721737 20805 net.cpp:159] Memory required for data: 2440240
I0506 08:02:30.721745 20805 layer_factory.hpp:77] Creating layer relu3
I0506 08:02:30.721752 20805 net.cpp:94] Creating Layer relu3
I0506 08:02:30.721755 20805 net.cpp:435] relu3 <- conv3
I0506 08:02:30.721761 20805 net.cpp:396] relu3 -> conv3 (in-place)
I0506 08:02:30.721768 20805 net.cpp:144] Setting up relu3
I0506 08:02:30.721772 20805 net.cpp:151] Top shape: 20 128 5 5 (64000)
I0506 08:02:30.721776 20805 net.cpp:159] Memory required for data: 2696240
I0506 08:02:30.721778 20805 layer_factory.hpp:77] Creating layer conv4
I0506 08:02:30.721786 20805 net.cpp:94] Creating Layer conv4
I0506 08:02:30.721791 20805 net.cpp:435] conv4 <- conv3
I0506 08:02:30.721796 20805 net.cpp:409] conv4 -> conv4
I0506 08:02:30.734375 20805 net.cpp:144] Setting up conv4
I0506 08:02:30.734390 20805 net.cpp:151] Top shape: 20 128 5 5 (64000)
I0506 08:02:30.734393 20805 net.cpp:159] Memory required for data: 2952240
I0506 08:02:30.734400 20805 layer_factory.hpp:77] Creating layer relu4
I0506 08:02:30.734405 20805 net.cpp:94] Creating Layer relu4
I0506 08:02:30.734410 20805 net.cpp:435] relu4 <- conv4
I0506 08:02:30.734414 20805 net.cpp:396] relu4 -> conv4 (in-place)
I0506 08:02:30.734421 20805 net.cpp:144] Setting up relu4
I0506 08:02:30.734426 20805 net.cpp:151] Top shape: 20 128 5 5 (64000)
I0506 08:02:30.734428 20805 net.cpp:159] Memory required for data: 3208240
I0506 08:02:30.734431 20805 layer_factory.hpp:77] Creating layer conv5
I0506 08:02:30.734441 20805 net.cpp:94] Creating Layer conv5
I0506 08:02:30.734443 20805 net.cpp:435] conv5 <- conv4
I0506 08:02:30.734448 20805 net.cpp:409] conv5 -> conv5
I0506 08:02:30.746863 20805 net.cpp:144] Setting up conv5
I0506 08:02:30.746877 20805 net.cpp:151] Top shape: 20 128 5 5 (64000)
I0506 08:02:30.746882 20805 net.cpp:159] Memory required for data: 3464240
I0506 08:02:30.746891 20805 layer_factory.hpp:77] Creating layer relu5
I0506 08:02:30.746897 20805 net.cpp:94] Creating Layer relu5
I0506 08:02:30.746901 20805 net.cpp:435] relu5 <- conv5
I0506 08:02:30.746906 20805 net.cpp:396] relu5 -> conv5 (in-place)
I0506 08:02:30.746912 20805 net.cpp:144] Setting up relu5
I0506 08:02:30.746917 20805 net.cpp:151] Top shape: 20 128 5 5 (64000)
I0506 08:02:30.746924 20805 net.cpp:159] Memory required for data: 3720240
I0506 08:02:30.746928 20805 layer_factory.hpp:77] Creating layer pool5
I0506 08:02:30.746933 20805 net.cpp:94] Creating Layer pool5
I0506 08:02:30.746937 20805 net.cpp:435] pool5 <- conv5
I0506 08:02:30.746942 20805 net.cpp:409] pool5 -> pool5
I0506 08:02:30.746984 20805 net.cpp:144] Setting up pool5
I0506 08:02:30.746991 20805 net.cpp:151] Top shape: 20 128 2 2 (10240)
I0506 08:02:30.746994 20805 net.cpp:159] Memory required for data: 3761200
I0506 08:02:30.746996 20805 layer_factory.hpp:77] Creating layer ip1
I0506 08:02:30.747004 20805 net.cpp:94] Creating Layer ip1
I0506 08:02:30.747009 20805 net.cpp:435] ip1 <- pool5
I0506 08:02:30.747014 20805 net.cpp:409] ip1 -> ip1
I0506 08:02:30.760170 20805 net.cpp:144] Setting up ip1
I0506 08:02:30.760184 20805 net.cpp:151] Top shape: 20 1024 (20480)
I0506 08:02:30.760186 20805 net.cpp:159] Memory required for data: 3843120
I0506 08:02:30.760192 20805 layer_factory.hpp:77] Creating layer ip2
I0506 08:02:30.760200 20805 net.cpp:94] Creating Layer ip2
I0506 08:02:30.760202 20805 net.cpp:435] ip2 <- ip1
I0506 08:02:30.760207 20805 net.cpp:409] ip2 -> ip2
I0506 08:02:30.773382 20805 net.cpp:144] Setting up ip2
I0506 08:02:30.773396 20805 net.cpp:151] Top shape: 20 512 (10240)
I0506 08:02:30.773399 20805 net.cpp:159] Memory required for data: 3884080
I0506 08:02:30.773406 20805 layer_factory.hpp:77] Creating layer ip3
I0506 08:02:30.773414 20805 net.cpp:94] Creating Layer ip3
I0506 08:02:30.773417 20805 net.cpp:435] ip3 <- ip2
I0506 08:02:30.773424 20805 net.cpp:409] ip3 -> ip3
I0506 08:02:30.774169 20805 net.cpp:144] Setting up ip3
I0506 08:02:30.774178 20805 net.cpp:151] Top shape: 20 50 (1000)
I0506 08:02:30.774180 20805 net.cpp:159] Memory required for data: 3888080
I0506 08:02:30.774185 20805 layer_factory.hpp:77] Creating layer ip3_ip3_0_split
I0506 08:02:30.774193 20805 net.cpp:94] Creating Layer ip3_ip3_0_split
I0506 08:02:30.774195 20805 net.cpp:435] ip3_ip3_0_split <- ip3
I0506 08:02:30.774199 20805 net.cpp:409] ip3_ip3_0_split -> ip3_ip3_0_split_0
I0506 08:02:30.774205 20805 net.cpp:409] ip3_ip3_0_split -> ip3_ip3_0_split_1
I0506 08:02:30.774251 20805 net.cpp:144] Setting up ip3_ip3_0_split
I0506 08:02:30.774257 20805 net.cpp:151] Top shape: 20 50 (1000)
I0506 08:02:30.774261 20805 net.cpp:151] Top shape: 20 50 (1000)
I0506 08:02:30.774263 20805 net.cpp:159] Memory required for data: 3896080
I0506 08:02:30.774266 20805 layer_factory.hpp:77] Creating layer accuracy
I0506 08:02:30.774273 20805 net.cpp:94] Creating Layer accuracy
I0506 08:02:30.774276 20805 net.cpp:435] accuracy <- ip3_ip3_0_split_0
I0506 08:02:30.774281 20805 net.cpp:435] accuracy <- label_intercept_1_split_0
I0506 08:02:30.774284 20805 net.cpp:409] accuracy -> accuracy
…
