…
I0505 04:58:59.255772  3438 net.cpp:323] The NetState phase (0) differed from the phase (1) specified by a rule in layer intercept
I0505 04:58:59.255787  3438 net.cpp:323] The NetState phase (0) differed from the phase (1) specified by a rule in layer accuracy
I0505 04:58:59.255868  3438 net.cpp:52] Initializing net from parameters: 
state {
  phase: TRAIN
}
layer {
  name: "parameters"
  type: "HDF5Data"
  top: "data"
  top: "label"
  include {
    phase: TRAIN
  }
  hdf5_data_param {
    source: "/home/purduethu/scratch/radon/d/deng106/CNNStatisticalModel/distributions/input/50_distributions_100_sample_size_train-distributions-path.txt"
    batch_size: 20
  }
}
layer {
  name: "conv1"
  type: "Convolution"
  bottom: "data"
  top: "conv1"
  param {
    lr_mult: 1
  }
  param {
    lr_mult: 2
  }
  convolution_param {
    num_output: 64
    pad: 2
    kernel_size: 5
    stride: 1
    weight_filler {
      type: "gaussian"
      std: 0.0001
    }
    bias_filler {
      type: "constant"
    }
  }
}
layer {
  name: "relu1"
  type: "ReLU"
  bottom: "conv1"
  top: "conv1"
}
layer {
  name: "pool1"
  type: "Pooling"
  bottom: "conv1"
  top: "pool1"
  pooling_param {
    pool: MAX
    kernel_size: 3
    stride: 2
  }
}
layer {
  name: "conv2"
  type: "Convolution"
  bottom: "pool1"
  top: "conv2"
  param {
    lr_mult: 1
  }
  param {
    lr_mult: 2
  }
  convolution_param {
    num_output: 128
    pad: 2
    kernel_size: 5
    stride: 1
    weight_filler {
      type: "gaussian"
      std: 0.01
    }
    bias_filler {
      type: "constant"
    }
  }
}
layer {
  name: "relu2"
  type: "ReLU"
  bottom: "conv2"
  top: "conv2"
}
layer {
  name: "conv3"
  type: "Convolution"
  bottom: "conv2"
  top: "conv3"
  param {
    lr_mult: 1
  }
  param {
    lr_mult: 2
  }
  convolution_param {
    num_output: 128
    pad: 2
    kernel_size: 5
    stride: 1
    weight_filler {
      type: "gaussian"
      std: 0.01
    }
    bias_filler {
      type: "constant"
    }
  }
}
layer {
  name: "relu3"
  type: "ReLU"
  bottom: "conv3"
  top: "conv3"
}
layer {
  name: "pool3"
  type: "Pooling"
  bottom: "conv3"
  top: "pool3"
  pooling_param {
    pool: AVE
    kernel_size: 3
    stride: 2
  }
}
layer {
  name: "ip1"
  type: "InnerProduct"
  bottom: "pool3"
  top: "ip1"
  param {
    lr_mult: 1
  }
  param {
    lr_mult: 2
  }
  inner_product_param {
    num_output: 512
    weight_filler {
      type: "gaussian"
      std: 0.1
    }
    bias_filler {
      type: "constant"
    }
  }
}
layer {
  name: "ip2"
  type: "InnerProduct"
  bottom: "ip1"
  top: "ip2"
  param {
    lr_mult: 1
  }
  param {
    lr_mult: 2
  }
  inner_product_param {
    num_output: 256
    weight_filler {
      type: "gaussian"
      std: 0.1
    }
    bias_filler {
      type: "constant"
    }
  }
}
layer {
  name: "ip3"
  type: "InnerProduct"
  bottom: "ip2"
  top: "ip3"
  param {
    lr_mult: 1
  }
  param {
    lr_mult: 2
  }
  inner_product_param {
    num_output: 50
    weight_filler {
      type: "gaussian"
      std: 0.1
    }
    bias_filler {
      type: "constant"
    }
  }
}
layer {
  name: "loss"
  type: "SoftmaxWithLoss"
  bottom: "ip3"
  bottom: "label"
  top: "loss"
}
I0505 04:58:59.255933  3438 layer_factory.hpp:77] Creating layer parameters
I0505 04:58:59.255947  3438 net.cpp:94] Creating Layer parameters
I0505 04:58:59.255960  3438 net.cpp:409] parameters -> data
I0505 04:58:59.255980  3438 net.cpp:409] parameters -> label
I0505 04:58:59.255991  3438 hdf5_data_layer.cpp:79] Loading list of HDF5 filenames from: /home/purduethu/scratch/radon/d/deng106/CNNStatisticalModel/distributions/input/50_distributions_100_sample_size_train-distributions-path.txt
I0505 04:58:59.256014  3438 hdf5_data_layer.cpp:93] Number of HDF5 files: 1
I0505 04:58:59.256608  3438 hdf5.cpp:32] Datatype class: H5T_FLOAT
I0505 04:58:59.417249  3438 hdf5.cpp:35] Datatype class: H5T_INTEGER
I0505 04:58:59.420083  3438 net.cpp:144] Setting up parameters
I0505 04:58:59.420101  3438 net.cpp:151] Top shape: 20 1 10 10 (2000)
I0505 04:58:59.420107  3438 net.cpp:151] Top shape: 20 (20)
I0505 04:58:59.420111  3438 net.cpp:159] Memory required for data: 8080
I0505 04:58:59.420120  3438 layer_factory.hpp:77] Creating layer conv1
I0505 04:58:59.420138  3438 net.cpp:94] Creating Layer conv1
I0505 04:58:59.420145  3438 net.cpp:435] conv1 <- data
I0505 04:58:59.420156  3438 net.cpp:409] conv1 -> conv1
I0505 04:58:59.423923  3438 net.cpp:144] Setting up conv1
I0505 04:58:59.423941  3438 net.cpp:151] Top shape: 20 64 10 10 (128000)
I0505 04:58:59.423949  3438 net.cpp:159] Memory required for data: 520080
I0505 04:58:59.423961  3438 layer_factory.hpp:77] Creating layer relu1
I0505 04:58:59.423970  3438 net.cpp:94] Creating Layer relu1
I0505 04:58:59.423974  3438 net.cpp:435] relu1 <- conv1
I0505 04:58:59.423979  3438 net.cpp:396] relu1 -> conv1 (in-place)
I0505 04:58:59.423995  3438 net.cpp:144] Setting up relu1
I0505 04:58:59.424001  3438 net.cpp:151] Top shape: 20 64 10 10 (128000)
I0505 04:58:59.424005  3438 net.cpp:159] Memory required for data: 1032080
I0505 04:58:59.424008  3438 layer_factory.hpp:77] Creating layer pool1
I0505 04:58:59.424015  3438 net.cpp:94] Creating Layer pool1
I0505 04:58:59.424019  3438 net.cpp:435] pool1 <- conv1
I0505 04:58:59.424024  3438 net.cpp:409] pool1 -> pool1
I0505 04:58:59.424072  3438 net.cpp:144] Setting up pool1
I0505 04:58:59.424078  3438 net.cpp:151] Top shape: 20 64 5 5 (32000)
I0505 04:58:59.424082  3438 net.cpp:159] Memory required for data: 1160080
I0505 04:58:59.424085  3438 layer_factory.hpp:77] Creating layer conv2
I0505 04:58:59.424094  3438 net.cpp:94] Creating Layer conv2
I0505 04:58:59.424098  3438 net.cpp:435] conv2 <- pool1
I0505 04:58:59.424104  3438 net.cpp:409] conv2 -> conv2
I0505 04:58:59.432931  3438 net.cpp:144] Setting up conv2
I0505 04:58:59.432947  3438 net.cpp:151] Top shape: 20 128 5 5 (64000)
I0505 04:58:59.432951  3438 net.cpp:159] Memory required for data: 1416080
I0505 04:58:59.432960  3438 layer_factory.hpp:77] Creating layer relu2
I0505 04:58:59.432966  3438 net.cpp:94] Creating Layer relu2
I0505 04:58:59.432971  3438 net.cpp:435] relu2 <- conv2
I0505 04:58:59.432976  3438 net.cpp:396] relu2 -> conv2 (in-place)
I0505 04:58:59.432983  3438 net.cpp:144] Setting up relu2
I0505 04:58:59.432988  3438 net.cpp:151] Top shape: 20 128 5 5 (64000)
I0505 04:58:59.432991  3438 net.cpp:159] Memory required for data: 1672080
I0505 04:58:59.432996  3438 layer_factory.hpp:77] Creating layer conv3
I0505 04:58:59.433003  3438 net.cpp:94] Creating Layer conv3
I0505 04:58:59.433007  3438 net.cpp:435] conv3 <- conv2
I0505 04:58:59.433012  3438 net.cpp:409] conv3 -> conv3
I0505 04:58:59.448072  3438 net.cpp:144] Setting up conv3
I0505 04:58:59.448086  3438 net.cpp:151] Top shape: 20 128 5 5 (64000)
I0505 04:58:59.448091  3438 net.cpp:159] Memory required for data: 1928080
I0505 04:58:59.448101  3438 layer_factory.hpp:77] Creating layer relu3
I0505 04:58:59.448113  3438 net.cpp:94] Creating Layer relu3
I0505 04:58:59.448117  3438 net.cpp:435] relu3 <- conv3
I0505 04:58:59.448122  3438 net.cpp:396] relu3 -> conv3 (in-place)
I0505 04:58:59.448130  3438 net.cpp:144] Setting up relu3
I0505 04:58:59.448135  3438 net.cpp:151] Top shape: 20 128 5 5 (64000)
I0505 04:58:59.448138  3438 net.cpp:159] Memory required for data: 2184080
I0505 04:58:59.448143  3438 layer_factory.hpp:77] Creating layer pool3
I0505 04:58:59.448148  3438 net.cpp:94] Creating Layer pool3
I0505 04:58:59.448161  3438 net.cpp:435] pool3 <- conv3
I0505 04:58:59.448168  3438 net.cpp:409] pool3 -> pool3
I0505 04:58:59.448200  3438 net.cpp:144] Setting up pool3
I0505 04:58:59.448209  3438 net.cpp:151] Top shape: 20 128 2 2 (10240)
I0505 04:58:59.448211  3438 net.cpp:159] Memory required for data: 2225040
I0505 04:58:59.448215  3438 layer_factory.hpp:77] Creating layer ip1
I0505 04:58:59.448225  3438 net.cpp:94] Creating Layer ip1
I0505 04:58:59.448228  3438 net.cpp:435] ip1 <- pool3
I0505 04:58:59.448235  3438 net.cpp:409] ip1 -> ip1
I0505 04:58:59.455693  3438 net.cpp:144] Setting up ip1
I0505 04:58:59.455706  3438 net.cpp:151] Top shape: 20 512 (10240)
I0505 04:58:59.455710  3438 net.cpp:159] Memory required for data: 2266000
I0505 04:58:59.455718  3438 layer_factory.hpp:77] Creating layer ip2
I0505 04:58:59.455725  3438 net.cpp:94] Creating Layer ip2
I0505 04:58:59.455729  3438 net.cpp:435] ip2 <- ip1
I0505 04:58:59.455735  3438 net.cpp:409] ip2 -> ip2
I0505 04:58:59.459620  3438 net.cpp:144] Setting up ip2
I0505 04:58:59.459633  3438 net.cpp:151] Top shape: 20 256 (5120)
I0505 04:58:59.459638  3438 net.cpp:159] Memory required for data: 2286480
I0505 04:58:59.459646  3438 layer_factory.hpp:77] Creating layer ip3
I0505 04:58:59.459655  3438 net.cpp:94] Creating Layer ip3
I0505 04:58:59.459658  3438 net.cpp:435] ip3 <- ip2
I0505 04:58:59.459663  3438 net.cpp:409] ip3 -> ip3
I0505 04:58:59.460690  3438 net.cpp:144] Setting up ip3
I0505 04:58:59.460703  3438 net.cpp:151] Top shape: 20 50 (1000)
I0505 04:58:59.460707  3438 net.cpp:159] Memory required for data: 2290480
I0505 04:58:59.460714  3438 layer_factory.hpp:77] Creating layer loss
I0505 04:58:59.460721  3438 net.cpp:94] Creating Layer loss
I0505 04:58:59.460726  3438 net.cpp:435] loss <- ip3
I0505 04:58:59.460729  3438 net.cpp:435] loss <- label
I0505 04:58:59.460736  3438 net.cpp:409] loss -> loss
I0505 04:58:59.460747  3438 layer_factory.hpp:77] Creating layer loss
…
I0505 04:58:59.461191  3438 solver.cpp:181] Creating test net (#0) specified by net file: ./protocol/dis_50_100_dimension.protocol_distribution
I0505 04:58:59.461217  3438 net.cpp:323] The NetState phase (1) differed from the phase (0) specified by a rule in layer parameters
I0505 04:58:59.461308  3438 net.cpp:52] Initializing net from parameters: 
state {
  phase: TEST
}
layer {
  name: "intercept"
  type: "HDF5Data"
  top: "data"
  top: "label"
  include {
    phase: TEST
  }
  hdf5_data_param {
    source: "/home/purduethu/scratch/radon/d/deng106/CNNStatisticalModel/distributions/input/50_distributions_100_sample_size_test-distributions-path.txt"
    batch_size: 20
  }
}
layer {
  name: "conv1"
  type: "Convolution"
  bottom: "data"
  top: "conv1"
  param {
    lr_mult: 1
  }
  param {
    lr_mult: 2
  }
  convolution_param {
    num_output: 64
    pad: 2
    kernel_size: 5
    stride: 1
    weight_filler {
      type: "gaussian"
      std: 0.0001
    }
    bias_filler {
      type: "constant"
    }
  }
}
layer {
  name: "relu1"
  type: "ReLU"
  bottom: "conv1"
  top: "conv1"
}
layer {
  name: "pool1"
  type: "Pooling"
  bottom: "conv1"
  top: "pool1"
  pooling_param {
    pool: MAX
    kernel_size: 3
    stride: 2
  }
}
layer {
  name: "conv2"
  type: "Convolution"
  bottom: "pool1"
  top: "conv2"
  param {
    lr_mult: 1
  }
  param {
    lr_mult: 2
  }
  convolution_param {
    num_output: 128
    pad: 2
    kernel_size: 5
    stride: 1
    weight_filler {
      type: "gaussian"
      std: 0.01
    }
    bias_filler {
      type: "constant"
    }
  }
}
layer {
  name: "relu2"
  type: "ReLU"
  bottom: "conv2"
  top: "conv2"
}
layer {
  name: "conv3"
  type: "Convolution"
  bottom: "conv2"
  top: "conv3"
  param {
    lr_mult: 1
  }
  param {
    lr_mult: 2
  }
  convolution_param {
    num_output: 128
    pad: 2
    kernel_size: 5
    stride: 1
    weight_filler {
      type: "gaussian"
      std: 0.01
    }
    bias_filler {
      type: "constant"
    }
  }
}
layer {
  name: "relu3"
  type: "ReLU"
  bottom: "conv3"
  top: "conv3"
}
layer {
  name: "pool3"
  type: "Pooling"
  bottom: "conv3"
  top: "pool3"
  pooling_param {
    pool: AVE
    kernel_size: 3
    stride: 2
  }
}
layer {
  name: "ip1"
  type: "InnerProduct"
  bottom: "pool3"
  top: "ip1"
  param {
    lr_mult: 1
  }
  param {
    lr_mult: 2
  }
  inner_product_param {
    num_output: 512
    weight_filler {
      type: "gaussian"
      std: 0.1
    }
    bias_filler {
      type: "constant"
    }
  }
}
layer {
  name: "ip2"
  type: "InnerProduct"
  bottom: "ip1"
  top: "ip2"
  param {
    lr_mult: 1
  }
  param {
    lr_mult: 2
  }
  inner_product_param {
    num_output: 256
    weight_filler {
      type: "gaussian"
      std: 0.1
    }
    bias_filler {
      type: "constant"
    }
  }
}
layer {
  name: "ip3"
  type: "InnerProduct"
  bottom: "ip2"
  top: "ip3"
  param {
    lr_mult: 1
  }
  param {
    lr_mult: 2
  }
  inner_product_param {
    num_output: 50
    weight_filler {
      type: "gaussian"
      std: 0.1
    }
    bias_filler {
      type: "constant"
    }
  }
}
layer {
  name: "accuracy"
  type: "Accuracy"
  bottom: "ip3"
  bottom: "label"
  top: "accuracy"
  include {
    phase: TEST
  }
}
layer {
  name: "loss"
  type: "SoftmaxWithLoss"
  bottom: "ip3"
  bottom: "label"
  top: "loss"
}
I0505 04:58:59.461374  3438 layer_factory.hpp:77] Creating layer intercept
I0505 04:58:59.461381  3438 net.cpp:94] Creating Layer intercept
I0505 04:58:59.461386  3438 net.cpp:409] intercept -> data
I0505 04:58:59.461393  3438 net.cpp:409] intercept -> label
I0505 04:58:59.461400  3438 hdf5_data_layer.cpp:79] Loading list of HDF5 filenames from: /home/purduethu/scratch/radon/d/deng106/CNNStatisticalModel/distributions/input/50_distributions_100_sample_size_test-distributions-path.txt
I0505 04:58:59.461421  3438 hdf5_data_layer.cpp:93] Number of HDF5 files: 1
I0505 04:58:59.502823  3438 net.cpp:144] Setting up intercept
I0505 04:58:59.502859  3438 net.cpp:151] Top shape: 20 1 10 10 (2000)
I0505 04:58:59.502866  3438 net.cpp:151] Top shape: 20 (20)
I0505 04:58:59.502869  3438 net.cpp:159] Memory required for data: 8080
I0505 04:58:59.502876  3438 layer_factory.hpp:77] Creating layer label_intercept_1_split
I0505 04:58:59.502897  3438 net.cpp:94] Creating Layer label_intercept_1_split
I0505 04:58:59.502910  3438 net.cpp:435] label_intercept_1_split <- label
I0505 04:58:59.502918  3438 net.cpp:409] label_intercept_1_split -> label_intercept_1_split_0
I0505 04:58:59.502926  3438 net.cpp:409] label_intercept_1_split -> label_intercept_1_split_1
I0505 04:58:59.502954  3438 net.cpp:144] Setting up label_intercept_1_split
I0505 04:58:59.502961  3438 net.cpp:151] Top shape: 20 (20)
I0505 04:58:59.502965  3438 net.cpp:151] Top shape: 20 (20)
I0505 04:58:59.502969  3438 net.cpp:159] Memory required for data: 8240
I0505 04:58:59.502979  3438 layer_factory.hpp:77] Creating layer conv1
I0505 04:58:59.502991  3438 net.cpp:94] Creating Layer conv1
I0505 04:58:59.502995  3438 net.cpp:435] conv1 <- data
I0505 04:58:59.503001  3438 net.cpp:409] conv1 -> conv1
I0505 04:58:59.503691  3438 net.cpp:144] Setting up conv1
I0505 04:58:59.503705  3438 net.cpp:151] Top shape: 20 64 10 10 (128000)
I0505 04:58:59.503710  3438 net.cpp:159] Memory required for data: 520240
I0505 04:58:59.503720  3438 layer_factory.hpp:77] Creating layer relu1
I0505 04:58:59.503726  3438 net.cpp:94] Creating Layer relu1
I0505 04:58:59.503731  3438 net.cpp:435] relu1 <- conv1
I0505 04:58:59.503736  3438 net.cpp:396] relu1 -> conv1 (in-place)
I0505 04:58:59.503742  3438 net.cpp:144] Setting up relu1
I0505 04:58:59.503747  3438 net.cpp:151] Top shape: 20 64 10 10 (128000)
I0505 04:58:59.503751  3438 net.cpp:159] Memory required for data: 1032240
I0505 04:58:59.503754  3438 layer_factory.hpp:77] Creating layer pool1
I0505 04:58:59.503762  3438 net.cpp:94] Creating Layer pool1
I0505 04:58:59.503765  3438 net.cpp:435] pool1 <- conv1
I0505 04:58:59.503770  3438 net.cpp:409] pool1 -> pool1
I0505 04:58:59.503808  3438 net.cpp:144] Setting up pool1
I0505 04:58:59.503814  3438 net.cpp:151] Top shape: 20 64 5 5 (32000)
I0505 04:58:59.503818  3438 net.cpp:159] Memory required for data: 1160240
I0505 04:58:59.503821  3438 layer_factory.hpp:77] Creating layer conv2
I0505 04:58:59.503829  3438 net.cpp:94] Creating Layer conv2
I0505 04:58:59.503834  3438 net.cpp:435] conv2 <- pool1
I0505 04:58:59.503839  3438 net.cpp:409] conv2 -> conv2
I0505 04:58:59.510489  3438 net.cpp:144] Setting up conv2
I0505 04:58:59.510504  3438 net.cpp:151] Top shape: 20 128 5 5 (64000)
I0505 04:58:59.510509  3438 net.cpp:159] Memory required for data: 1416240
I0505 04:58:59.510516  3438 layer_factory.hpp:77] Creating layer relu2
I0505 04:58:59.510522  3438 net.cpp:94] Creating Layer relu2
I0505 04:58:59.510526  3438 net.cpp:435] relu2 <- conv2
I0505 04:58:59.510531  3438 net.cpp:396] relu2 -> conv2 (in-place)
I0505 04:58:59.510538  3438 net.cpp:144] Setting up relu2
I0505 04:58:59.510543  3438 net.cpp:151] Top shape: 20 128 5 5 (64000)
I0505 04:58:59.510547  3438 net.cpp:159] Memory required for data: 1672240
I0505 04:58:59.510550  3438 layer_factory.hpp:77] Creating layer conv3
I0505 04:58:59.510558  3438 net.cpp:94] Creating Layer conv3
I0505 04:58:59.510562  3438 net.cpp:435] conv3 <- conv2
I0505 04:58:59.510567  3438 net.cpp:409] conv3 -> conv3
I0505 04:58:59.524291  3438 net.cpp:144] Setting up conv3
I0505 04:58:59.524305  3438 net.cpp:151] Top shape: 20 128 5 5 (64000)
I0505 04:58:59.524310  3438 net.cpp:159] Memory required for data: 1928240
I0505 04:58:59.524319  3438 layer_factory.hpp:77] Creating layer relu3
I0505 04:58:59.524327  3438 net.cpp:94] Creating Layer relu3
I0505 04:58:59.524330  3438 net.cpp:435] relu3 <- conv3
I0505 04:58:59.524335  3438 net.cpp:396] relu3 -> conv3 (in-place)
I0505 04:58:59.524343  3438 net.cpp:144] Setting up relu3
I0505 04:58:59.524348  3438 net.cpp:151] Top shape: 20 128 5 5 (64000)
I0505 04:58:59.524351  3438 net.cpp:159] Memory required for data: 2184240
I0505 04:58:59.524354  3438 layer_factory.hpp:77] Creating layer pool3
I0505 04:58:59.524359  3438 net.cpp:94] Creating Layer pool3
I0505 04:58:59.524363  3438 net.cpp:435] pool3 <- conv3
I0505 04:58:59.524369  3438 net.cpp:409] pool3 -> pool3
I0505 04:58:59.524394  3438 net.cpp:144] Setting up pool3
I0505 04:58:59.524401  3438 net.cpp:151] Top shape: 20 128 2 2 (10240)
I0505 04:58:59.524410  3438 net.cpp:159] Memory required for data: 2225200
I0505 04:58:59.524413  3438 layer_factory.hpp:77] Creating layer ip1
I0505 04:58:59.524420  3438 net.cpp:94] Creating Layer ip1
I0505 04:58:59.524425  3438 net.cpp:435] ip1 <- pool3
I0505 04:58:59.524430  3438 net.cpp:409] ip1 -> ip1
I0505 04:58:59.531538  3438 net.cpp:144] Setting up ip1
I0505 04:58:59.531553  3438 net.cpp:151] Top shape: 20 512 (10240)
I0505 04:58:59.531558  3438 net.cpp:159] Memory required for data: 2266160
I0505 04:58:59.531571  3438 layer_factory.hpp:77] Creating layer ip2
I0505 04:58:59.531579  3438 net.cpp:94] Creating Layer ip2
I0505 04:58:59.531584  3438 net.cpp:435] ip2 <- ip1
I0505 04:58:59.531589  3438 net.cpp:409] ip2 -> ip2
I0505 04:58:59.535215  3438 net.cpp:144] Setting up ip2
I0505 04:58:59.535231  3438 net.cpp:151] Top shape: 20 256 (5120)
I0505 04:58:59.535238  3438 net.cpp:159] Memory required for data: 2286640
I0505 04:58:59.535249  3438 layer_factory.hpp:77] Creating layer ip3
I0505 04:58:59.535259  3438 net.cpp:94] Creating Layer ip3
I0505 04:58:59.535265  3438 net.cpp:435] ip3 <- ip2
I0505 04:58:59.535274  3438 net.cpp:409] ip3 -> ip3
I0505 04:58:59.535786  3438 net.cpp:144] Setting up ip3
I0505 04:58:59.535799  3438 net.cpp:151] Top shape: 20 50 (1000)
I0505 04:58:59.535804  3438 net.cpp:159] Memory required for data: 2290640
I0505 04:58:59.535815  3438 layer_factory.hpp:77] Creating layer ip3_ip3_0_split
I0505 04:58:59.535822  3438 net.cpp:94] Creating Layer ip3_ip3_0_split
I0505 04:58:59.535830  3438 net.cpp:435] ip3_ip3_0_split <- ip3
I0505 04:58:59.535837  3438 net.cpp:409] ip3_ip3_0_split -> ip3_ip3_0_split_0
I0505 04:58:59.535846  3438 net.cpp:409] ip3_ip3_0_split -> ip3_ip3_0_split_1
I0505 04:58:59.535881  3438 net.cpp:144] Setting up ip3_ip3_0_split
I0505 04:58:59.535892  3438 net.cpp:151] Top shape: 20 50 (1000)
I0505 04:58:59.535898  3438 net.cpp:151] Top shape: 20 50 (1000)
I0505 04:58:59.535903  3438 net.cpp:159] Memory required for data: 2298640
I0505 04:58:59.535909  3438 layer_factory.hpp:77] Creating layer accuracy
I0505 04:58:59.535918  3438 net.cpp:94] Creating Layer accuracy
I0505 04:58:59.535924  3438 net.cpp:435] accuracy <- ip3_ip3_0_split_0
I0505 04:58:59.535931  3438 net.cpp:435] accuracy <- label_intercept_1_split_0
I0505 04:58:59.535939  3438 net.cpp:409] accuracy -> accuracy
…
