…
I0507 14:23:14.367228  3045 net.cpp:323] The NetState phase (0) differed from the phase (1) specified by a rule in layer intercept
I0507 14:23:14.367243  3045 net.cpp:323] The NetState phase (0) differed from the phase (1) specified by a rule in layer loss
I0507 14:23:14.367319  3045 net.cpp:52] Initializing net from parameters: 
state {
  phase: TRAIN
}
layer {
  name: "parameters"
  type: "HDF5Data"
  top: "data"
  top: "label"
  include {
    phase: TRAIN
  }
  hdf5_data_param {
    source: "/home/purduethu/scratch/radon/d/deng106/CNNStatisticalModel/distributions/input/5_distributions_100_sample_size_train-parameters-path.txt"
    batch_size: 20
  }
}
layer {
  name: "conv1"
  type: "Convolution"
  bottom: "data"
  top: "conv1"
  param {
    lr_mult: 1
  }
  param {
    lr_mult: 2
  }
  convolution_param {
    num_output: 64
    pad: 2
    kernel_size: 5
    stride: 1
    weight_filler {
      type: "gaussian"
      std: 0.0001
    }
    bias_filler {
      type: "constant"
    }
  }
}
layer {
  name: "relu1"
  type: "ReLU"
  bottom: "conv1"
  top: "conv1"
}
layer {
  name: "conv2"
  type: "Convolution"
  bottom: "conv1"
  top: "conv2"
  param {
    lr_mult: 1
  }
  param {
    lr_mult: 2
  }
  convolution_param {
    num_output: 64
    pad: 2
    kernel_size: 5
    stride: 1
    weight_filler {
      type: "gaussian"
      std: 0.01
    }
    bias_filler {
      type: "constant"
    }
  }
}
layer {
  name: "relu2"
  type: "ReLU"
  bottom: "conv2"
  top: "conv2"
}
layer {
  name: "pool2"
  type: "Pooling"
  bottom: "conv2"
  top: "pool2"
  pooling_param {
    pool: MAX
    kernel_size: 3
    stride: 2
  }
}
layer {
  name: "conv3"
  type: "Convolution"
  bottom: "pool2"
  top: "conv3"
  param {
    lr_mult: 1
  }
  param {
    lr_mult: 2
  }
  convolution_param {
    num_output: 64
    pad: 2
    kernel_size: 5
    stride: 1
    weight_filler {
      type: "gaussian"
      std: 0.01
    }
    bias_filler {
      type: "constant"
    }
  }
}
layer {
  name: "relu3"
  type: "ReLU"
  bottom: "conv3"
  top: "conv3"
}
layer {
  name: "conv4"
  type: "Convolution"
  bottom: "conv3"
  top: "conv4"
  param {
    lr_mult: 1
  }
  param {
    lr_mult: 2
  }
  convolution_param {
    num_output: 64
    pad: 2
    kernel_size: 5
    stride: 1
    weight_filler {
      type: "gaussian"
      std: 0.01
    }
    bias_filler {
      type: "constant"
    }
  }
}
layer {
  name: "relu4"
  type: "ReLU"
  bottom: "conv4"
  top: "conv4"
}
layer {
  name: "conv5"
  type: "Convolution"
  bottom: "conv4"
  top: "conv5"
  param {
    lr_mult: 1
  }
  param {
    lr_mult: 2
  }
  convolution_param {
    num_output: 64
    pad: 2
    kernel_size: 5
    stride: 1
    weight_filler {
      type: "gaussian"
      std: 0.01
    }
    bias_filler {
      type: "constant"
    }
  }
}
layer {
  name: "relu5"
  type: "ReLU"
  bottom: "conv5"
  top: "conv5"
}
layer {
  name: "pool5"
  type: "Pooling"
  bottom: "conv5"
  top: "pool5"
  pooling_param {
    pool: AVE
    kernel_size: 3
    stride: 2
  }
}
layer {
  name: "ip1"
  type: "InnerProduct"
  bottom: "pool5"
  top: "ip1"
  param {
    lr_mult: 1
  }
  param {
    lr_mult: 2
  }
  inner_product_param {
    num_output: 64
    weight_filler {
      type: "gaussian"
      std: 0.1
    }
    bias_filler {
      type: "constant"
    }
  }
}
layer {
  name: "ip2"
  type: "InnerProduct"
  bottom: "ip1"
  top: "ip2"
  param {
    lr_mult: 1
  }
  param {
    lr_mult: 2
  }
  inner_product_param {
    num_output: 64
    weight_filler {
      type: "gaussian"
      std: 0.1
    }
    bias_filler {
      type: "constant"
    }
  }
}
layer {
  name: "ip3"
  type: "InnerProduct"
  bottom: "ip2"
  top: "ip3"
  param {
    lr_mult: 1
  }
  param {
    lr_mult: 2
  }
  inner_product_param {
    num_output: 1
    weight_filler {
      type: "gaussian"
      std: 0.1
    }
    bias_filler {
      type: "constant"
    }
  }
}
layer {
  name: "loss"
  type: "HuberLoss"
  bottom: "ip3"
  bottom: "label"
  top: "loss"
  include {
    phase: TRAIN
  }
}
I0507 14:23:14.367372  3045 layer_factory.hpp:77] Creating layer parameters
I0507 14:23:14.367383  3045 net.cpp:94] Creating Layer parameters
I0507 14:23:14.367388  3045 net.cpp:409] parameters -> data
I0507 14:23:14.367396  3045 net.cpp:409] parameters -> label
I0507 14:23:14.367403  3045 hdf5_data_layer.cpp:79] Loading list of HDF5 filenames from: /home/purduethu/scratch/radon/d/deng106/CNNStatisticalModel/distributions/input/5_distributions_100_sample_size_train-parameters-path.txt
I0507 14:23:14.367416  3045 hdf5_data_layer.cpp:93] Number of HDF5 files: 1
I0507 14:23:14.367935  3045 hdf5.cpp:32] Datatype class: H5T_FLOAT
I0507 14:23:14.385749  3045 net.cpp:144] Setting up parameters
I0507 14:23:14.385777  3045 net.cpp:151] Top shape: 20 1 10 10 (2000)
I0507 14:23:14.385782  3045 net.cpp:151] Top shape: 20 (20)
I0507 14:23:14.385787  3045 net.cpp:159] Memory required for data: 8080
I0507 14:23:14.385792  3045 layer_factory.hpp:77] Creating layer conv1
I0507 14:23:14.385813  3045 net.cpp:94] Creating Layer conv1
I0507 14:23:14.385818  3045 net.cpp:435] conv1 <- data
I0507 14:23:14.385823  3045 net.cpp:409] conv1 -> conv1
I0507 14:23:14.389967  3045 net.cpp:144] Setting up conv1
I0507 14:23:14.389982  3045 net.cpp:151] Top shape: 20 64 10 10 (128000)
I0507 14:23:14.389986  3045 net.cpp:159] Memory required for data: 520080
I0507 14:23:14.389995  3045 layer_factory.hpp:77] Creating layer relu1
I0507 14:23:14.390003  3045 net.cpp:94] Creating Layer relu1
I0507 14:23:14.390007  3045 net.cpp:435] relu1 <- conv1
I0507 14:23:14.390012  3045 net.cpp:396] relu1 -> conv1 (in-place)
I0507 14:23:14.390022  3045 net.cpp:144] Setting up relu1
I0507 14:23:14.390027  3045 net.cpp:151] Top shape: 20 64 10 10 (128000)
I0507 14:23:14.390029  3045 net.cpp:159] Memory required for data: 1032080
I0507 14:23:14.390033  3045 layer_factory.hpp:77] Creating layer conv2
I0507 14:23:14.390040  3045 net.cpp:94] Creating Layer conv2
I0507 14:23:14.390043  3045 net.cpp:435] conv2 <- conv1
I0507 14:23:14.390048  3045 net.cpp:409] conv2 -> conv2
I0507 14:23:14.396105  3045 net.cpp:144] Setting up conv2
I0507 14:23:14.396118  3045 net.cpp:151] Top shape: 20 64 10 10 (128000)
I0507 14:23:14.396122  3045 net.cpp:159] Memory required for data: 1544080
I0507 14:23:14.396131  3045 layer_factory.hpp:77] Creating layer relu2
I0507 14:23:14.396136  3045 net.cpp:94] Creating Layer relu2
I0507 14:23:14.396140  3045 net.cpp:435] relu2 <- conv2
I0507 14:23:14.396144  3045 net.cpp:396] relu2 -> conv2 (in-place)
I0507 14:23:14.396152  3045 net.cpp:144] Setting up relu2
I0507 14:23:14.396155  3045 net.cpp:151] Top shape: 20 64 10 10 (128000)
I0507 14:23:14.396158  3045 net.cpp:159] Memory required for data: 2056080
I0507 14:23:14.396162  3045 layer_factory.hpp:77] Creating layer pool2
I0507 14:23:14.396173  3045 net.cpp:94] Creating Layer pool2
I0507 14:23:14.396178  3045 net.cpp:435] pool2 <- conv2
I0507 14:23:14.396181  3045 net.cpp:409] pool2 -> pool2
I0507 14:23:14.396235  3045 net.cpp:144] Setting up pool2
I0507 14:23:14.396244  3045 net.cpp:151] Top shape: 20 64 5 5 (32000)
I0507 14:23:14.396246  3045 net.cpp:159] Memory required for data: 2184080
I0507 14:23:14.396250  3045 layer_factory.hpp:77] Creating layer conv3
I0507 14:23:14.396257  3045 net.cpp:94] Creating Layer conv3
I0507 14:23:14.396260  3045 net.cpp:435] conv3 <- pool2
I0507 14:23:14.396265  3045 net.cpp:409] conv3 -> conv3
I0507 14:23:14.401154  3045 net.cpp:144] Setting up conv3
I0507 14:23:14.401168  3045 net.cpp:151] Top shape: 20 64 5 5 (32000)
I0507 14:23:14.401171  3045 net.cpp:159] Memory required for data: 2312080
I0507 14:23:14.401180  3045 layer_factory.hpp:77] Creating layer relu3
I0507 14:23:14.401185  3045 net.cpp:94] Creating Layer relu3
I0507 14:23:14.401190  3045 net.cpp:435] relu3 <- conv3
I0507 14:23:14.401193  3045 net.cpp:396] relu3 -> conv3 (in-place)
I0507 14:23:14.401201  3045 net.cpp:144] Setting up relu3
I0507 14:23:14.401204  3045 net.cpp:151] Top shape: 20 64 5 5 (32000)
I0507 14:23:14.401207  3045 net.cpp:159] Memory required for data: 2440080
I0507 14:23:14.401211  3045 layer_factory.hpp:77] Creating layer conv4
I0507 14:23:14.401218  3045 net.cpp:94] Creating Layer conv4
I0507 14:23:14.401222  3045 net.cpp:435] conv4 <- conv3
I0507 14:23:14.401226  3045 net.cpp:409] conv4 -> conv4
I0507 14:23:14.405642  3045 net.cpp:144] Setting up conv4
I0507 14:23:14.405655  3045 net.cpp:151] Top shape: 20 64 5 5 (32000)
I0507 14:23:14.405659  3045 net.cpp:159] Memory required for data: 2568080
I0507 14:23:14.405665  3045 layer_factory.hpp:77] Creating layer relu4
I0507 14:23:14.405671  3045 net.cpp:94] Creating Layer relu4
I0507 14:23:14.405674  3045 net.cpp:435] relu4 <- conv4
I0507 14:23:14.405679  3045 net.cpp:396] relu4 -> conv4 (in-place)
I0507 14:23:14.405686  3045 net.cpp:144] Setting up relu4
I0507 14:23:14.405690  3045 net.cpp:151] Top shape: 20 64 5 5 (32000)
I0507 14:23:14.405694  3045 net.cpp:159] Memory required for data: 2696080
I0507 14:23:14.405696  3045 layer_factory.hpp:77] Creating layer conv5
I0507 14:23:14.405704  3045 net.cpp:94] Creating Layer conv5
I0507 14:23:14.405706  3045 net.cpp:435] conv5 <- conv4
I0507 14:23:14.405711  3045 net.cpp:409] conv5 -> conv5
I0507 14:23:14.410571  3045 net.cpp:144] Setting up conv5
I0507 14:23:14.410585  3045 net.cpp:151] Top shape: 20 64 5 5 (32000)
I0507 14:23:14.410588  3045 net.cpp:159] Memory required for data: 2824080
I0507 14:23:14.410598  3045 layer_factory.hpp:77] Creating layer relu5
I0507 14:23:14.410604  3045 net.cpp:94] Creating Layer relu5
I0507 14:23:14.410606  3045 net.cpp:435] relu5 <- conv5
I0507 14:23:14.410611  3045 net.cpp:396] relu5 -> conv5 (in-place)
I0507 14:23:14.410619  3045 net.cpp:144] Setting up relu5
I0507 14:23:14.410622  3045 net.cpp:151] Top shape: 20 64 5 5 (32000)
I0507 14:23:14.410625  3045 net.cpp:159] Memory required for data: 2952080
I0507 14:23:14.410627  3045 layer_factory.hpp:77] Creating layer pool5
I0507 14:23:14.410634  3045 net.cpp:94] Creating Layer pool5
I0507 14:23:14.410636  3045 net.cpp:435] pool5 <- conv5
I0507 14:23:14.410640  3045 net.cpp:409] pool5 -> pool5
I0507 14:23:14.410681  3045 net.cpp:144] Setting up pool5
I0507 14:23:14.410688  3045 net.cpp:151] Top shape: 20 64 2 2 (5120)
I0507 14:23:14.410691  3045 net.cpp:159] Memory required for data: 2972560
I0507 14:23:14.410693  3045 layer_factory.hpp:77] Creating layer ip1
I0507 14:23:14.410703  3045 net.cpp:94] Creating Layer ip1
I0507 14:23:14.410706  3045 net.cpp:435] ip1 <- pool5
I0507 14:23:14.410712  3045 net.cpp:409] ip1 -> ip1
I0507 14:23:14.412037  3045 net.cpp:144] Setting up ip1
I0507 14:23:14.412050  3045 net.cpp:151] Top shape: 20 64 (1280)
I0507 14:23:14.412055  3045 net.cpp:159] Memory required for data: 2977680
I0507 14:23:14.412060  3045 layer_factory.hpp:77] Creating layer ip2
I0507 14:23:14.412068  3045 net.cpp:94] Creating Layer ip2
I0507 14:23:14.412075  3045 net.cpp:435] ip2 <- ip1
I0507 14:23:14.412081  3045 net.cpp:409] ip2 -> ip2
I0507 14:23:14.412302  3045 net.cpp:144] Setting up ip2
I0507 14:23:14.412309  3045 net.cpp:151] Top shape: 20 64 (1280)
I0507 14:23:14.412312  3045 net.cpp:159] Memory required for data: 2982800
I0507 14:23:14.412318  3045 layer_factory.hpp:77] Creating layer ip3
I0507 14:23:14.412324  3045 net.cpp:94] Creating Layer ip3
I0507 14:23:14.412328  3045 net.cpp:435] ip3 <- ip2
I0507 14:23:14.412333  3045 net.cpp:409] ip3 -> ip3
I0507 14:23:14.412443  3045 net.cpp:144] Setting up ip3
I0507 14:23:14.412451  3045 net.cpp:151] Top shape: 20 1 (20)
I0507 14:23:14.412454  3045 net.cpp:159] Memory required for data: 2982880
I0507 14:23:14.412459  3045 layer_factory.hpp:77] Creating layer loss
I0507 14:23:14.412466  3045 net.cpp:94] Creating Layer loss
I0507 14:23:14.412469  3045 net.cpp:435] loss <- ip3
I0507 14:23:14.412472  3045 net.cpp:435] loss <- label
I0507 14:23:14.412477  3045 net.cpp:409] loss -> loss
I0507 14:23:14.412537  3045 net.cpp:144] Setting up loss
…
I0507 14:23:14.436358  3045 net.cpp:323] The NetState phase (0) differed from the phase (1) specified by a rule in layer intercept
I0507 14:23:14.436375  3045 net.cpp:323] The NetState phase (0) differed from the phase (1) specified by a rule in layer accuracy
I0507 14:23:14.436462  3045 net.cpp:52] Initializing net from parameters: 
state {
  phase: TRAIN
}
layer {
  name: "parameters"
  type: "HDF5Data"
  top: "data"
  top: "label"
  include {
    phase: TRAIN
  }
  hdf5_data_param {
    source: "/home/purduethu/scratch/radon/d/deng106/CNNStatisticalModel/distributions/input/5_distributions_100_sample_size_train-distributions-path.txt"
    batch_size: 20
  }
}
layer {
  name: "conv1"
  type: "Convolution"
  bottom: "data"
  top: "conv1"
  param {
    lr_mult: 1
  }
  param {
    lr_mult: 2
  }
  convolution_param {
    num_output: 64
    pad: 2
    kernel_size: 5
    stride: 1
    weight_filler {
      type: "gaussian"
      std: 0.0001
    }
    bias_filler {
      type: "constant"
    }
  }
}
layer {
  name: "relu1"
  type: "ReLU"
  bottom: "conv1"
  top: "conv1"
}
layer {
  name: "conv2"
  type: "Convolution"
  bottom: "conv1"
  top: "conv2"
  param {
    lr_mult: 1
  }
  param {
    lr_mult: 2
  }
  convolution_param {
    num_output: 64
    pad: 2
    kernel_size: 5
    stride: 1
    weight_filler {
      type: "gaussian"
      std: 0.01
    }
    bias_filler {
      type: "constant"
    }
  }
}
layer {
  name: "relu2"
  type: "ReLU"
  bottom: "conv2"
  top: "conv2"
}
layer {
  name: "pool2"
  type: "Pooling"
  bottom: "conv2"
  top: "pool2"
  pooling_param {
    pool: MAX
    kernel_size: 3
    stride: 2
  }
}
layer {
  name: "conv3"
  type: "Convolution"
  bottom: "pool2"
  top: "conv3"
  param {
    lr_mult: 1
  }
  param {
    lr_mult: 2
  }
  convolution_param {
    num_output: 64
    pad: 2
    kernel_size: 5
    stride: 1
    weight_filler {
      type: "gaussian"
      std: 0.01
    }
    bias_filler {
      type: "constant"
    }
  }
}
layer {
  name: "relu3"
  type: "ReLU"
  bottom: "conv3"
  top: "conv3"
}
layer {
  name: "conv4"
  type: "Convolution"
  bottom: "conv3"
  top: "conv4"
  param {
    lr_mult: 1
  }
  param {
    lr_mult: 2
  }
  convolution_param {
    num_output: 64
    pad: 2
    kernel_size: 5
    stride: 1
    weight_filler {
      type: "gaussian"
      std: 0.01
    }
    bias_filler {
      type: "constant"
    }
  }
}
layer {
  name: "relu4"
  type: "ReLU"
  bottom: "conv4"
  top: "conv4"
}
layer {
  name: "conv5"
  type: "Convolution"
  bottom: "conv4"
  top: "conv5"
  param {
    lr_mult: 1
  }
  param {
    lr_mult: 2
  }
  convolution_param {
    num_output: 64
    pad: 2
    kernel_size: 5
    stride: 1
    weight_filler {
      type: "gaussian"
      std: 0.01
    }
    bias_filler {
      type: "constant"
    }
  }
}
layer {
  name: "relu5"
  type: "ReLU"
  bottom: "conv5"
  top: "conv5"
}
layer {
  name: "pool5"
  type: "Pooling"
  bottom: "conv5"
  top: "pool5"
  pooling_param {
    pool: AVE
    kernel_size: 3
    stride: 2
  }
}
layer {
  name: "ip1"
  type: "InnerProduct"
  bottom: "pool5"
  top: "ip1"
  param {
    lr_mult: 1
  }
  param {
    lr_mult: 2
  }
  inner_product_param {
    num_output: 64
    weight_filler {
      type: "gaussian"
      std: 0.1
    }
    bias_filler {
      type: "constant"
    }
  }
}
layer {
  name: "ip2"
  type: "InnerProduct"
  bottom: "ip1"
  top: "ip2"
  param {
    lr_mult: 1
  }
  param {
    lr_mult: 2
  }
  inner_product_param {
    num_output: 64
    weight_filler {
      type: "gaussian"
      std: 0.1
    }
    bias_filler {
      type: "constant"
    }
  }
}
layer {
  name: "ip3"
  type: "InnerProduct"
  bottom: "ip2"
  top: "ip3"
  param {
    lr_mult: 1
  }
  param {
    lr_mult: 2
  }
  inner_product_param {
    num_output: 50
    weight_filler {
      type: "gaussian"
      std: 0.1
    }
    bias_filler {
      type: "constant"
    }
  }
}
layer {
  name: "loss"
  type: "SoftmaxWithLoss"
  bottom: "ip3"
  bottom: "label"
  top: "loss"
}
I0507 14:23:14.436514  3045 layer_factory.hpp:77] Creating layer parameters
I0507 14:23:14.436522  3045 net.cpp:94] Creating Layer parameters
I0507 14:23:14.436527  3045 net.cpp:409] parameters -> data
I0507 14:23:14.436532  3045 net.cpp:409] parameters -> label
I0507 14:23:14.436538  3045 hdf5_data_layer.cpp:79] Loading list of HDF5 filenames from: /home/purduethu/scratch/radon/d/deng106/CNNStatisticalModel/distributions/input/5_distributions_100_sample_size_train-distributions-path.txt
I0507 14:23:14.436563  3045 hdf5_data_layer.cpp:93] Number of HDF5 files: 1
I0507 14:23:14.452193  3045 hdf5.cpp:35] Datatype class: H5T_INTEGER
I0507 14:23:14.452656  3045 net.cpp:144] Setting up parameters
I0507 14:23:14.452671  3045 net.cpp:151] Top shape: 20 1 10 10 (2000)
I0507 14:23:14.452675  3045 net.cpp:151] Top shape: 20 (20)
I0507 14:23:14.452678  3045 net.cpp:159] Memory required for data: 8080
I0507 14:23:14.452684  3045 layer_factory.hpp:77] Creating layer conv1
I0507 14:23:14.452699  3045 net.cpp:94] Creating Layer conv1
I0507 14:23:14.452703  3045 net.cpp:435] conv1 <- data
I0507 14:23:14.452709  3045 net.cpp:409] conv1 -> conv1
I0507 14:23:14.454550  3045 net.cpp:144] Setting up conv1
I0507 14:23:14.454563  3045 net.cpp:151] Top shape: 20 64 10 10 (128000)
I0507 14:23:14.454566  3045 net.cpp:159] Memory required for data: 520080
I0507 14:23:14.454576  3045 layer_factory.hpp:77] Creating layer relu1
I0507 14:23:14.454583  3045 net.cpp:94] Creating Layer relu1
I0507 14:23:14.454587  3045 net.cpp:435] relu1 <- conv1
I0507 14:23:14.454591  3045 net.cpp:396] relu1 -> conv1 (in-place)
I0507 14:23:14.454598  3045 net.cpp:144] Setting up relu1
I0507 14:23:14.454603  3045 net.cpp:151] Top shape: 20 64 10 10 (128000)
I0507 14:23:14.454605  3045 net.cpp:159] Memory required for data: 1032080
I0507 14:23:14.454608  3045 layer_factory.hpp:77] Creating layer conv2
I0507 14:23:14.454617  3045 net.cpp:94] Creating Layer conv2
I0507 14:23:14.454619  3045 net.cpp:435] conv2 <- conv1
I0507 14:23:14.454623  3045 net.cpp:409] conv2 -> conv2
I0507 14:23:14.460005  3045 net.cpp:144] Setting up conv2
I0507 14:23:14.460018  3045 net.cpp:151] Top shape: 20 64 10 10 (128000)
I0507 14:23:14.460022  3045 net.cpp:159] Memory required for data: 1544080
I0507 14:23:14.460029  3045 layer_factory.hpp:77] Creating layer relu2
I0507 14:23:14.460036  3045 net.cpp:94] Creating Layer relu2
I0507 14:23:14.460039  3045 net.cpp:435] relu2 <- conv2
I0507 14:23:14.460044  3045 net.cpp:396] relu2 -> conv2 (in-place)
I0507 14:23:14.460050  3045 net.cpp:144] Setting up relu2
I0507 14:23:14.460054  3045 net.cpp:151] Top shape: 20 64 10 10 (128000)
I0507 14:23:14.460057  3045 net.cpp:159] Memory required for data: 2056080
I0507 14:23:14.460060  3045 layer_factory.hpp:77] Creating layer pool2
I0507 14:23:14.460067  3045 net.cpp:94] Creating Layer pool2
I0507 14:23:14.460069  3045 net.cpp:435] pool2 <- conv2
I0507 14:23:14.460073  3045 net.cpp:409] pool2 -> pool2
I0507 14:23:14.460127  3045 net.cpp:144] Setting up pool2
I0507 14:23:14.460134  3045 net.cpp:151] Top shape: 20 64 5 5 (32000)
I0507 14:23:14.460137  3045 net.cpp:159] Memory required for data: 2184080
I0507 14:23:14.460141  3045 layer_factory.hpp:77] Creating layer conv3
I0507 14:23:14.460149  3045 net.cpp:94] Creating Layer conv3
I0507 14:23:14.460152  3045 net.cpp:435] conv3 <- pool2
I0507 14:23:14.460156  3045 net.cpp:409] conv3 -> conv3
I0507 14:23:14.465101  3045 net.cpp:144] Setting up conv3
I0507 14:23:14.465121  3045 net.cpp:151] Top shape: 20 64 5 5 (32000)
I0507 14:23:14.465124  3045 net.cpp:159] Memory required for data: 2312080
I0507 14:23:14.465132  3045 layer_factory.hpp:77] Creating layer relu3
I0507 14:23:14.465138  3045 net.cpp:94] Creating Layer relu3
I0507 14:23:14.465142  3045 net.cpp:435] relu3 <- conv3
I0507 14:23:14.465147  3045 net.cpp:396] relu3 -> conv3 (in-place)
I0507 14:23:14.465152  3045 net.cpp:144] Setting up relu3
I0507 14:23:14.465157  3045 net.cpp:151] Top shape: 20 64 5 5 (32000)
I0507 14:23:14.465159  3045 net.cpp:159] Memory required for data: 2440080
I0507 14:23:14.465162  3045 layer_factory.hpp:77] Creating layer conv4
I0507 14:23:14.465170  3045 net.cpp:94] Creating Layer conv4
I0507 14:23:14.465174  3045 net.cpp:435] conv4 <- conv3
I0507 14:23:14.465178  3045 net.cpp:409] conv4 -> conv4
I0507 14:23:14.470933  3045 net.cpp:144] Setting up conv4
I0507 14:23:14.470947  3045 net.cpp:151] Top shape: 20 64 5 5 (32000)
I0507 14:23:14.470952  3045 net.cpp:159] Memory required for data: 2568080
I0507 14:23:14.470957  3045 layer_factory.hpp:77] Creating layer relu4
I0507 14:23:14.470963  3045 net.cpp:94] Creating Layer relu4
I0507 14:23:14.470968  3045 net.cpp:435] relu4 <- conv4
I0507 14:23:14.470971  3045 net.cpp:396] relu4 -> conv4 (in-place)
I0507 14:23:14.470978  3045 net.cpp:144] Setting up relu4
I0507 14:23:14.470983  3045 net.cpp:151] Top shape: 20 64 5 5 (32000)
I0507 14:23:14.470985  3045 net.cpp:159] Memory required for data: 2696080
I0507 14:23:14.470988  3045 layer_factory.hpp:77] Creating layer conv5
I0507 14:23:14.470995  3045 net.cpp:94] Creating Layer conv5
I0507 14:23:14.470999  3045 net.cpp:435] conv5 <- conv4
I0507 14:23:14.471004  3045 net.cpp:409] conv5 -> conv5
I0507 14:23:14.475427  3045 net.cpp:144] Setting up conv5
I0507 14:23:14.475440  3045 net.cpp:151] Top shape: 20 64 5 5 (32000)
I0507 14:23:14.475445  3045 net.cpp:159] Memory required for data: 2824080
I0507 14:23:14.475452  3045 layer_factory.hpp:77] Creating layer relu5
I0507 14:23:14.475457  3045 net.cpp:94] Creating Layer relu5
I0507 14:23:14.475461  3045 net.cpp:435] relu5 <- conv5
I0507 14:23:14.475466  3045 net.cpp:396] relu5 -> conv5 (in-place)
I0507 14:23:14.475472  3045 net.cpp:144] Setting up relu5
I0507 14:23:14.475476  3045 net.cpp:151] Top shape: 20 64 5 5 (32000)
I0507 14:23:14.475479  3045 net.cpp:159] Memory required for data: 2952080
I0507 14:23:14.475481  3045 layer_factory.hpp:77] Creating layer pool5
I0507 14:23:14.475486  3045 net.cpp:94] Creating Layer pool5
I0507 14:23:14.475489  3045 net.cpp:435] pool5 <- conv5
I0507 14:23:14.475493  3045 net.cpp:409] pool5 -> pool5
I0507 14:23:14.475529  3045 net.cpp:144] Setting up pool5
I0507 14:23:14.475536  3045 net.cpp:151] Top shape: 20 64 2 2 (5120)
I0507 14:23:14.475539  3045 net.cpp:159] Memory required for data: 2972560
I0507 14:23:14.475543  3045 layer_factory.hpp:77] Creating layer ip1
I0507 14:23:14.475548  3045 net.cpp:94] Creating Layer ip1
I0507 14:23:14.475551  3045 net.cpp:435] ip1 <- pool5
I0507 14:23:14.475556  3045 net.cpp:409] ip1 -> ip1
I0507 14:23:14.476080  3045 net.cpp:144] Setting up ip1
I0507 14:23:14.476089  3045 net.cpp:151] Top shape: 20 64 (1280)
I0507 14:23:14.476091  3045 net.cpp:159] Memory required for data: 2977680
I0507 14:23:14.476096  3045 layer_factory.hpp:77] Creating layer ip2
I0507 14:23:14.476102  3045 net.cpp:94] Creating Layer ip2
I0507 14:23:14.476105  3045 net.cpp:435] ip2 <- ip1
I0507 14:23:14.476111  3045 net.cpp:409] ip2 -> ip2
I0507 14:23:14.476343  3045 net.cpp:144] Setting up ip2
I0507 14:23:14.476351  3045 net.cpp:151] Top shape: 20 64 (1280)
I0507 14:23:14.476354  3045 net.cpp:159] Memory required for data: 2982800
I0507 14:23:14.476359  3045 layer_factory.hpp:77] Creating layer ip3
I0507 14:23:14.476364  3045 net.cpp:94] Creating Layer ip3
I0507 14:23:14.476368  3045 net.cpp:435] ip3 <- ip2
I0507 14:23:14.476372  3045 net.cpp:409] ip3 -> ip3
I0507 14:23:14.476588  3045 net.cpp:144] Setting up ip3
I0507 14:23:14.476596  3045 net.cpp:151] Top shape: 20 50 (1000)
I0507 14:23:14.476603  3045 net.cpp:159] Memory required for data: 2986800
I0507 14:23:14.476608  3045 layer_factory.hpp:77] Creating layer loss
I0507 14:23:14.476616  3045 net.cpp:94] Creating Layer loss
I0507 14:23:14.476619  3045 net.cpp:435] loss <- ip3
I0507 14:23:14.476624  3045 net.cpp:435] loss <- label
I0507 14:23:14.476627  3045 net.cpp:409] loss -> loss
I0507 14:23:14.476634  3045 layer_factory.hpp:77] Creating layer loss
…
I0507 14:23:14.477980  3045 solver.cpp:181] Creating test net (#0) specified by net file: ./protocol/dis_5_100_dimension.protocol_distribution
I0507 14:23:14.478005  3045 net.cpp:323] The NetState phase (1) differed from the phase (0) specified by a rule in layer parameters
I0507 14:23:14.478101  3045 net.cpp:52] Initializing net from parameters: 
state {
  phase: TEST
}
layer {
  name: "intercept"
  type: "HDF5Data"
  top: "data"
  top: "label"
  include {
    phase: TEST
  }
  hdf5_data_param {
    source: "/home/purduethu/scratch/radon/d/deng106/CNNStatisticalModel/distributions/input/5_distributions_100_sample_size_test-distributions-path.txt"
    batch_size: 20
  }
}
layer {
  name: "conv1"
  type: "Convolution"
  bottom: "data"
  top: "conv1"
  param {
    lr_mult: 1
  }
  param {
    lr_mult: 2
  }
  convolution_param {
    num_output: 64
    pad: 2
    kernel_size: 5
    stride: 1
    weight_filler {
      type: "gaussian"
      std: 0.0001
    }
    bias_filler {
      type: "constant"
    }
  }
}
layer {
  name: "relu1"
  type: "ReLU"
  bottom: "conv1"
  top: "conv1"
}
layer {
  name: "conv2"
  type: "Convolution"
  bottom: "conv1"
  top: "conv2"
  param {
    lr_mult: 1
  }
  param {
    lr_mult: 2
  }
  convolution_param {
    num_output: 64
    pad: 2
    kernel_size: 5
    stride: 1
    weight_filler {
      type: "gaussian"
      std: 0.01
    }
    bias_filler {
      type: "constant"
    }
  }
}
layer {
  name: "relu2"
  type: "ReLU"
  bottom: "conv2"
  top: "conv2"
}
layer {
  name: "pool2"
  type: "Pooling"
  bottom: "conv2"
  top: "pool2"
  pooling_param {
    pool: MAX
    kernel_size: 3
    stride: 2
  }
}
layer {
  name: "conv3"
  type: "Convolution"
  bottom: "pool2"
  top: "conv3"
  param {
    lr_mult: 1
  }
  param {
    lr_mult: 2
  }
  convolution_param {
    num_output: 64
    pad: 2
    kernel_size: 5
    stride: 1
    weight_filler {
      type: "gaussian"
      std: 0.01
    }
    bias_filler {
      type: "constant"
    }
  }
}
layer {
  name: "relu3"
  type: "ReLU"
  bottom: "conv3"
  top: "conv3"
}
layer {
  name: "conv4"
  type: "Convolution"
  bottom: "conv3"
  top: "conv4"
  param {
    lr_mult: 1
  }
  param {
    lr_mult: 2
  }
  convolution_param {
    num_output: 64
    pad: 2
    kernel_size: 5
    stride: 1
    weight_filler {
      type: "gaussian"
      std: 0.01
    }
    bias_filler {
      type: "constant"
    }
  }
}
layer {
  name: "relu4"
  type: "ReLU"
  bottom: "conv4"
  top: "conv4"
}
layer {
  name: "conv5"
  type: "Convolution"
  bottom: "conv4"
  top: "conv5"
  param {
    lr_mult: 1
  }
  param {
    lr_mult: 2
  }
  convolution_param {
    num_output: 64
    pad: 2
    kernel_size: 5
    stride: 1
    weight_filler {
      type: "gaussian"
      std: 0.01
    }
    bias_filler {
      type: "constant"
    }
  }
}
layer {
  name: "relu5"
  type: "ReLU"
  bottom: "conv5"
  top: "conv5"
}
layer {
  name: "pool5"
  type: "Pooling"
  bottom: "conv5"
  top: "pool5"
  pooling_param {
    pool: AVE
    kernel_size: 3
    stride: 2
  }
}
layer {
  name: "ip1"
  type: "InnerProduct"
  bottom: "pool5"
  top: "ip1"
  param {
    lr_mult: 1
  }
  param {
    lr_mult: 2
  }
  inner_product_param {
    num_output: 64
    weight_filler {
      type: "gaussian"
      std: 0.1
    }
    bias_filler {
      type: "constant"
    }
  }
}
layer {
  name: "ip2"
  type: "InnerProduct"
  bottom: "ip1"
  top: "ip2"
  param {
    lr_mult: 1
  }
  param {
    lr_mult: 2
  }
  inner_product_param {
    num_output: 64
    weight_filler {
      type: "gaussian"
      std: 0.1
    }
    bias_filler {
      type: "constant"
    }
  }
}
layer {
  name: "ip3"
  type: "InnerProduct"
  bottom: "ip2"
  top: "ip3"
  param {
    lr_mult: 1
  }
  param {
    lr_mult: 2
  }
  inner_product_param {
    num_output: 50
    weight_filler {
      type: "gaussian"
      std: 0.1
    }
    bias_filler {
      type: "constant"
    }
  }
}
layer {
  name: "accuracy"
  type: "Accuracy"
  bottom: "ip3"
  bottom: "label"
  top: "accuracy"
  include {
    phase: TEST
  }
}
layer {
  name: "loss"
  type: "SoftmaxWithLoss"
  bottom: "ip3"
  bottom: "label"
  top: "loss"
}
I0507 14:23:14.478169  3045 layer_factory.hpp:77] Creating layer intercept
I0507 14:23:14.478178  3045 net.cpp:94] Creating Layer intercept
I0507 14:23:14.478181  3045 net.cpp:409] intercept -> data
I0507 14:23:14.478188  3045 net.cpp:409] intercept -> label
I0507 14:23:14.478193  3045 hdf5_data_layer.cpp:79] Loading list of HDF5 filenames from: /home/purduethu/scratch/radon/d/deng106/CNNStatisticalModel/distributions/input/5_distributions_100_sample_size_test-distributions-path.txt
I0507 14:23:14.478211  3045 hdf5_data_layer.cpp:93] Number of HDF5 files: 1
I0507 14:23:14.482566  3045 net.cpp:144] Setting up intercept
I0507 14:23:14.482594  3045 net.cpp:151] Top shape: 20 1 10 10 (2000)
I0507 14:23:14.482599  3045 net.cpp:151] Top shape: 20 (20)
I0507 14:23:14.482601  3045 net.cpp:159] Memory required for data: 8080
I0507 14:23:14.482606  3045 layer_factory.hpp:77] Creating layer label_intercept_1_split
I0507 14:23:14.482622  3045 net.cpp:94] Creating Layer label_intercept_1_split
I0507 14:23:14.482626  3045 net.cpp:435] label_intercept_1_split <- label
I0507 14:23:14.482631  3045 net.cpp:409] label_intercept_1_split -> label_intercept_1_split_0
I0507 14:23:14.482640  3045 net.cpp:409] label_intercept_1_split -> label_intercept_1_split_1
I0507 14:23:14.482682  3045 net.cpp:144] Setting up label_intercept_1_split
I0507 14:23:14.482688  3045 net.cpp:151] Top shape: 20 (20)
I0507 14:23:14.482692  3045 net.cpp:151] Top shape: 20 (20)
I0507 14:23:14.482695  3045 net.cpp:159] Memory required for data: 8240
I0507 14:23:14.482698  3045 layer_factory.hpp:77] Creating layer conv1
I0507 14:23:14.482707  3045 net.cpp:94] Creating Layer conv1
I0507 14:23:14.482710  3045 net.cpp:435] conv1 <- data
I0507 14:23:14.482715  3045 net.cpp:409] conv1 -> conv1
I0507 14:23:14.483526  3045 net.cpp:144] Setting up conv1
I0507 14:23:14.483539  3045 net.cpp:151] Top shape: 20 64 10 10 (128000)
I0507 14:23:14.483543  3045 net.cpp:159] Memory required for data: 520240
I0507 14:23:14.483558  3045 layer_factory.hpp:77] Creating layer relu1
I0507 14:23:14.483566  3045 net.cpp:94] Creating Layer relu1
I0507 14:23:14.483568  3045 net.cpp:435] relu1 <- conv1
I0507 14:23:14.483573  3045 net.cpp:396] relu1 -> conv1 (in-place)
I0507 14:23:14.483580  3045 net.cpp:144] Setting up relu1
I0507 14:23:14.483584  3045 net.cpp:151] Top shape: 20 64 10 10 (128000)
I0507 14:23:14.483587  3045 net.cpp:159] Memory required for data: 1032240
I0507 14:23:14.483590  3045 layer_factory.hpp:77] Creating layer conv2
I0507 14:23:14.483597  3045 net.cpp:94] Creating Layer conv2
I0507 14:23:14.483602  3045 net.cpp:435] conv2 <- conv1
I0507 14:23:14.483605  3045 net.cpp:409] conv2 -> conv2
I0507 14:23:14.487617  3045 net.cpp:144] Setting up conv2
I0507 14:23:14.487632  3045 net.cpp:151] Top shape: 20 64 10 10 (128000)
I0507 14:23:14.487634  3045 net.cpp:159] Memory required for data: 1544240
I0507 14:23:14.487643  3045 layer_factory.hpp:77] Creating layer relu2
I0507 14:23:14.487648  3045 net.cpp:94] Creating Layer relu2
I0507 14:23:14.487651  3045 net.cpp:435] relu2 <- conv2
I0507 14:23:14.487655  3045 net.cpp:396] relu2 -> conv2 (in-place)
I0507 14:23:14.487663  3045 net.cpp:144] Setting up relu2
I0507 14:23:14.487666  3045 net.cpp:151] Top shape: 20 64 10 10 (128000)
I0507 14:23:14.487669  3045 net.cpp:159] Memory required for data: 2056240
I0507 14:23:14.487673  3045 layer_factory.hpp:77] Creating layer pool2
I0507 14:23:14.487678  3045 net.cpp:94] Creating Layer pool2
I0507 14:23:14.487680  3045 net.cpp:435] pool2 <- conv2
I0507 14:23:14.487684  3045 net.cpp:409] pool2 -> pool2
I0507 14:23:14.487737  3045 net.cpp:144] Setting up pool2
I0507 14:23:14.487745  3045 net.cpp:151] Top shape: 20 64 5 5 (32000)
I0507 14:23:14.487747  3045 net.cpp:159] Memory required for data: 2184240
I0507 14:23:14.487751  3045 layer_factory.hpp:77] Creating layer conv3
I0507 14:23:14.487758  3045 net.cpp:94] Creating Layer conv3
I0507 14:23:14.487761  3045 net.cpp:435] conv3 <- pool2
I0507 14:23:14.487766  3045 net.cpp:409] conv3 -> conv3
I0507 14:23:14.491276  3045 net.cpp:144] Setting up conv3
I0507 14:23:14.491289  3045 net.cpp:151] Top shape: 20 64 5 5 (32000)
I0507 14:23:14.491292  3045 net.cpp:159] Memory required for data: 2312240
I0507 14:23:14.491300  3045 layer_factory.hpp:77] Creating layer relu3
I0507 14:23:14.491307  3045 net.cpp:94] Creating Layer relu3
I0507 14:23:14.491310  3045 net.cpp:435] relu3 <- conv3
I0507 14:23:14.491314  3045 net.cpp:396] relu3 -> conv3 (in-place)
I0507 14:23:14.491322  3045 net.cpp:144] Setting up relu3
I0507 14:23:14.491325  3045 net.cpp:151] Top shape: 20 64 5 5 (32000)
I0507 14:23:14.491328  3045 net.cpp:159] Memory required for data: 2440240
I0507 14:23:14.491331  3045 layer_factory.hpp:77] Creating layer conv4
I0507 14:23:14.491338  3045 net.cpp:94] Creating Layer conv4
I0507 14:23:14.491341  3045 net.cpp:435] conv4 <- conv3
I0507 14:23:14.491345  3045 net.cpp:409] conv4 -> conv4
I0507 14:23:14.494858  3045 net.cpp:144] Setting up conv4
I0507 14:23:14.494870  3045 net.cpp:151] Top shape: 20 64 5 5 (32000)
I0507 14:23:14.494874  3045 net.cpp:159] Memory required for data: 2568240
I0507 14:23:14.494880  3045 layer_factory.hpp:77] Creating layer relu4
I0507 14:23:14.494885  3045 net.cpp:94] Creating Layer relu4
I0507 14:23:14.494889  3045 net.cpp:435] relu4 <- conv4
I0507 14:23:14.494894  3045 net.cpp:396] relu4 -> conv4 (in-place)
I0507 14:23:14.494900  3045 net.cpp:144] Setting up relu4
I0507 14:23:14.494904  3045 net.cpp:151] Top shape: 20 64 5 5 (32000)
I0507 14:23:14.494907  3045 net.cpp:159] Memory required for data: 2696240
I0507 14:23:14.494910  3045 layer_factory.hpp:77] Creating layer conv5
I0507 14:23:14.494917  3045 net.cpp:94] Creating Layer conv5
I0507 14:23:14.494920  3045 net.cpp:435] conv5 <- conv4
I0507 14:23:14.494925  3045 net.cpp:409] conv5 -> conv5
I0507 14:23:14.499722  3045 net.cpp:144] Setting up conv5
I0507 14:23:14.499734  3045 net.cpp:151] Top shape: 20 64 5 5 (32000)
I0507 14:23:14.499738  3045 net.cpp:159] Memory required for data: 2824240
I0507 14:23:14.499750  3045 layer_factory.hpp:77] Creating layer relu5
I0507 14:23:14.499758  3045 net.cpp:94] Creating Layer relu5
I0507 14:23:14.499760  3045 net.cpp:435] relu5 <- conv5
I0507 14:23:14.499764  3045 net.cpp:396] relu5 -> conv5 (in-place)
I0507 14:23:14.499771  3045 net.cpp:144] Setting up relu5
I0507 14:23:14.499775  3045 net.cpp:151] Top shape: 20 64 5 5 (32000)
I0507 14:23:14.499778  3045 net.cpp:159] Memory required for data: 2952240
I0507 14:23:14.499781  3045 layer_factory.hpp:77] Creating layer pool5
I0507 14:23:14.499786  3045 net.cpp:94] Creating Layer pool5
I0507 14:23:14.499789  3045 net.cpp:435] pool5 <- conv5
I0507 14:23:14.499792  3045 net.cpp:409] pool5 -> pool5
I0507 14:23:14.499830  3045 net.cpp:144] Setting up pool5
I0507 14:23:14.499837  3045 net.cpp:151] Top shape: 20 64 2 2 (5120)
I0507 14:23:14.499840  3045 net.cpp:159] Memory required for data: 2972720
I0507 14:23:14.499843  3045 layer_factory.hpp:77] Creating layer ip1
I0507 14:23:14.499850  3045 net.cpp:94] Creating Layer ip1
I0507 14:23:14.499853  3045 net.cpp:435] ip1 <- pool5
I0507 14:23:14.499857  3045 net.cpp:409] ip1 -> ip1
I0507 14:23:14.500388  3045 net.cpp:144] Setting up ip1
I0507 14:23:14.500396  3045 net.cpp:151] Top shape: 20 64 (1280)
I0507 14:23:14.500398  3045 net.cpp:159] Memory required for data: 2977840
I0507 14:23:14.500404  3045 layer_factory.hpp:77] Creating layer ip2
I0507 14:23:14.500411  3045 net.cpp:94] Creating Layer ip2
I0507 14:23:14.500413  3045 net.cpp:435] ip2 <- ip1
I0507 14:23:14.500417  3045 net.cpp:409] ip2 -> ip2
I0507 14:23:14.500665  3045 net.cpp:144] Setting up ip2
I0507 14:23:14.500674  3045 net.cpp:151] Top shape: 20 64 (1280)
I0507 14:23:14.500676  3045 net.cpp:159] Memory required for data: 2982960
I0507 14:23:14.500681  3045 layer_factory.hpp:77] Creating layer ip3
I0507 14:23:14.500689  3045 net.cpp:94] Creating Layer ip3
I0507 14:23:14.500691  3045 net.cpp:435] ip3 <- ip2
I0507 14:23:14.500695  3045 net.cpp:409] ip3 -> ip3
I0507 14:23:14.500907  3045 net.cpp:144] Setting up ip3
I0507 14:23:14.500915  3045 net.cpp:151] Top shape: 20 50 (1000)
I0507 14:23:14.500917  3045 net.cpp:159] Memory required for data: 2986960
I0507 14:23:14.500922  3045 layer_factory.hpp:77] Creating layer ip3_ip3_0_split
I0507 14:23:14.500927  3045 net.cpp:94] Creating Layer ip3_ip3_0_split
I0507 14:23:14.500931  3045 net.cpp:435] ip3_ip3_0_split <- ip3
I0507 14:23:14.500934  3045 net.cpp:409] ip3_ip3_0_split -> ip3_ip3_0_split_0
I0507 14:23:14.500939  3045 net.cpp:409] ip3_ip3_0_split -> ip3_ip3_0_split_1
I0507 14:23:14.500979  3045 net.cpp:144] Setting up ip3_ip3_0_split
I0507 14:23:14.500985  3045 net.cpp:151] Top shape: 20 50 (1000)
I0507 14:23:14.500988  3045 net.cpp:151] Top shape: 20 50 (1000)
I0507 14:23:14.500991  3045 net.cpp:159] Memory required for data: 2994960
I0507 14:23:14.500994  3045 layer_factory.hpp:77] Creating layer accuracy
I0507 14:23:14.500999  3045 net.cpp:94] Creating Layer accuracy
I0507 14:23:14.501003  3045 net.cpp:435] accuracy <- ip3_ip3_0_split_0
I0507 14:23:14.501005  3045 net.cpp:435] accuracy <- label_intercept_1_split_0
I0507 14:23:14.501009  3045 net.cpp:409] accuracy -> accuracy
…
