…
I0505 07:01:26.000828  4545 net.cpp:323] The NetState phase (0) differed from the phase (1) specified by a rule in layer intercept
I0505 07:01:26.000844  4545 net.cpp:323] The NetState phase (0) differed from the phase (1) specified by a rule in layer loss
I0505 07:01:26.000928  4545 net.cpp:52] Initializing net from parameters: 
state {
  phase: TRAIN
}
layer {
  name: "parameters"
  type: "HDF5Data"
  top: "data"
  top: "label"
  include {
    phase: TRAIN
  }
  hdf5_data_param {
    source: "/home/purduethu/scratch/radon/d/deng106/CNNStatisticalModel/distributions/input/20_distributions_900_sample_size_train-parameters-path.txt"
    batch_size: 20
  }
}
layer {
  name: "conv1"
  type: "Convolution"
  bottom: "data"
  top: "conv1"
  param {
    lr_mult: 1
  }
  param {
    lr_mult: 2
  }
  convolution_param {
    num_output: 64
    pad: 2
    kernel_size: 5
    stride: 1
    weight_filler {
      type: "gaussian"
      std: 0.0001
    }
    bias_filler {
      type: "constant"
    }
  }
}
layer {
  name: "relu1"
  type: "ReLU"
  bottom: "conv1"
  top: "conv1"
}
layer {
  name: "pool1"
  type: "Pooling"
  bottom: "conv1"
  top: "pool1"
  pooling_param {
    pool: MAX
    kernel_size: 3
    stride: 2
  }
}
layer {
  name: "conv2"
  type: "Convolution"
  bottom: "pool1"
  top: "conv2"
  param {
    lr_mult: 1
  }
  param {
    lr_mult: 2
  }
  convolution_param {
    num_output: 128
    pad: 2
    kernel_size: 5
    stride: 1
    weight_filler {
      type: "gaussian"
      std: 0.01
    }
    bias_filler {
      type: "constant"
    }
  }
}
layer {
  name: "relu2"
  type: "ReLU"
  bottom: "conv2"
  top: "conv2"
}
layer {
  name: "conv3"
  type: "Convolution"
  bottom: "conv2"
  top: "conv3"
  param {
    lr_mult: 1
  }
  param {
    lr_mult: 2
  }
  convolution_param {
    num_output: 128
    pad: 2
    kernel_size: 5
    stride: 1
    weight_filler {
      type: "gaussian"
      std: 0.01
    }
    bias_filler {
      type: "constant"
    }
  }
}
layer {
  name: "relu3"
  type: "ReLU"
  bottom: "conv3"
  top: "conv3"
}
layer {
  name: "pool3"
  type: "Pooling"
  bottom: "conv3"
  top: "pool3"
  pooling_param {
    pool: AVE
    kernel_size: 3
    stride: 2
  }
}
layer {
  name: "ip1"
  type: "InnerProduct"
  bottom: "pool3"
  top: "ip1"
  param {
    lr_mult: 1
  }
  param {
    lr_mult: 2
  }
  inner_product_param {
    num_output: 512
    weight_filler {
      type: "gaussian"
      std: 0.1
    }
    bias_filler {
      type: "constant"
    }
  }
}
layer {
  name: "ip2"
  type: "InnerProduct"
  bottom: "ip1"
  top: "ip2"
  param {
    lr_mult: 1
  }
  param {
    lr_mult: 2
  }
  inner_product_param {
    num_output: 256
    weight_filler {
      type: "gaussian"
      std: 0.1
    }
    bias_filler {
      type: "constant"
    }
  }
}
layer {
  name: "ip3"
  type: "InnerProduct"
  bottom: "ip2"
  top: "ip3"
  param {
    lr_mult: 1
  }
  param {
    lr_mult: 2
  }
  inner_product_param {
    num_output: 1
    weight_filler {
      type: "gaussian"
      std: 0.1
    }
    bias_filler {
      type: "constant"
    }
  }
}
layer {
  name: "loss"
  type: "HuberLoss"
  bottom: "ip3"
  bottom: "label"
  top: "loss"
  include {
    phase: TRAIN
  }
}
I0505 07:01:26.000991  4545 layer_factory.hpp:77] Creating layer parameters
I0505 07:01:26.001006  4545 net.cpp:94] Creating Layer parameters
I0505 07:01:26.001020  4545 net.cpp:409] parameters -> data
I0505 07:01:26.001040  4545 net.cpp:409] parameters -> label
I0505 07:01:26.001051  4545 hdf5_data_layer.cpp:79] Loading list of HDF5 filenames from: /home/purduethu/scratch/radon/d/deng106/CNNStatisticalModel/distributions/input/20_distributions_900_sample_size_train-parameters-path.txt
I0505 07:01:26.001075  4545 hdf5_data_layer.cpp:93] Number of HDF5 files: 1
I0505 07:01:26.001536  4545 hdf5.cpp:32] Datatype class: H5T_FLOAT
I0505 07:01:26.572803  4545 net.cpp:144] Setting up parameters
I0505 07:01:26.572834  4545 net.cpp:151] Top shape: 20 1 30 30 (18000)
I0505 07:01:26.572840  4545 net.cpp:151] Top shape: 20 (20)
I0505 07:01:26.572844  4545 net.cpp:159] Memory required for data: 72080
I0505 07:01:26.572852  4545 layer_factory.hpp:77] Creating layer conv1
I0505 07:01:26.572872  4545 net.cpp:94] Creating Layer conv1
I0505 07:01:26.572888  4545 net.cpp:435] conv1 <- data
I0505 07:01:26.572899  4545 net.cpp:409] conv1 -> conv1
I0505 07:01:26.578724  4545 net.cpp:144] Setting up conv1
I0505 07:01:26.578764  4545 net.cpp:151] Top shape: 20 64 30 30 (1152000)
I0505 07:01:26.578778  4545 net.cpp:159] Memory required for data: 4680080
I0505 07:01:26.578805  4545 layer_factory.hpp:77] Creating layer relu1
I0505 07:01:26.578824  4545 net.cpp:94] Creating Layer relu1
I0505 07:01:26.578835  4545 net.cpp:435] relu1 <- conv1
I0505 07:01:26.578850  4545 net.cpp:396] relu1 -> conv1 (in-place)
I0505 07:01:26.578883  4545 net.cpp:144] Setting up relu1
I0505 07:01:26.578898  4545 net.cpp:151] Top shape: 20 64 30 30 (1152000)
I0505 07:01:26.578908  4545 net.cpp:159] Memory required for data: 9288080
I0505 07:01:26.578917  4545 layer_factory.hpp:77] Creating layer pool1
I0505 07:01:26.578934  4545 net.cpp:94] Creating Layer pool1
I0505 07:01:26.578944  4545 net.cpp:435] pool1 <- conv1
I0505 07:01:26.578958  4545 net.cpp:409] pool1 -> pool1
I0505 07:01:26.579066  4545 net.cpp:144] Setting up pool1
I0505 07:01:26.579083  4545 net.cpp:151] Top shape: 20 64 15 15 (288000)
I0505 07:01:26.579092  4545 net.cpp:159] Memory required for data: 10440080
I0505 07:01:26.579102  4545 layer_factory.hpp:77] Creating layer conv2
I0505 07:01:26.579124  4545 net.cpp:94] Creating Layer conv2
I0505 07:01:26.579134  4545 net.cpp:435] conv2 <- pool1
I0505 07:01:26.579149  4545 net.cpp:409] conv2 -> conv2
I0505 07:01:26.591614  4545 net.cpp:144] Setting up conv2
I0505 07:01:26.591629  4545 net.cpp:151] Top shape: 20 128 15 15 (576000)
I0505 07:01:26.591634  4545 net.cpp:159] Memory required for data: 12744080
I0505 07:01:26.591641  4545 layer_factory.hpp:77] Creating layer relu2
I0505 07:01:26.591648  4545 net.cpp:94] Creating Layer relu2
I0505 07:01:26.591651  4545 net.cpp:435] relu2 <- conv2
I0505 07:01:26.591656  4545 net.cpp:396] relu2 -> conv2 (in-place)
I0505 07:01:26.591665  4545 net.cpp:144] Setting up relu2
I0505 07:01:26.591668  4545 net.cpp:151] Top shape: 20 128 15 15 (576000)
I0505 07:01:26.591672  4545 net.cpp:159] Memory required for data: 15048080
I0505 07:01:26.591675  4545 layer_factory.hpp:77] Creating layer conv3
I0505 07:01:26.591683  4545 net.cpp:94] Creating Layer conv3
I0505 07:01:26.591686  4545 net.cpp:435] conv3 <- conv2
I0505 07:01:26.591691  4545 net.cpp:409] conv3 -> conv3
I0505 07:01:26.613291  4545 net.cpp:144] Setting up conv3
I0505 07:01:26.613307  4545 net.cpp:151] Top shape: 20 128 15 15 (576000)
I0505 07:01:26.613312  4545 net.cpp:159] Memory required for data: 17352080
I0505 07:01:26.613319  4545 layer_factory.hpp:77] Creating layer relu3
I0505 07:01:26.613332  4545 net.cpp:94] Creating Layer relu3
I0505 07:01:26.613337  4545 net.cpp:435] relu3 <- conv3
I0505 07:01:26.613342  4545 net.cpp:396] relu3 -> conv3 (in-place)
I0505 07:01:26.613348  4545 net.cpp:144] Setting up relu3
I0505 07:01:26.613353  4545 net.cpp:151] Top shape: 20 128 15 15 (576000)
I0505 07:01:26.613356  4545 net.cpp:159] Memory required for data: 19656080
I0505 07:01:26.613360  4545 layer_factory.hpp:77] Creating layer pool3
I0505 07:01:26.613366  4545 net.cpp:94] Creating Layer pool3
I0505 07:01:26.613369  4545 net.cpp:435] pool3 <- conv3
I0505 07:01:26.613381  4545 net.cpp:409] pool3 -> pool3
I0505 07:01:26.613415  4545 net.cpp:144] Setting up pool3
I0505 07:01:26.613423  4545 net.cpp:151] Top shape: 20 128 7 7 (125440)
I0505 07:01:26.613426  4545 net.cpp:159] Memory required for data: 20157840
I0505 07:01:26.613430  4545 layer_factory.hpp:77] Creating layer ip1
I0505 07:01:26.613440  4545 net.cpp:94] Creating Layer ip1
I0505 07:01:26.613443  4545 net.cpp:435] ip1 <- pool3
I0505 07:01:26.613448  4545 net.cpp:409] ip1 -> ip1
I0505 07:01:26.690965  4545 net.cpp:144] Setting up ip1
I0505 07:01:26.690997  4545 net.cpp:151] Top shape: 20 512 (10240)
I0505 07:01:26.691002  4545 net.cpp:159] Memory required for data: 20198800
I0505 07:01:26.691010  4545 layer_factory.hpp:77] Creating layer ip2
I0505 07:01:26.691020  4545 net.cpp:94] Creating Layer ip2
I0505 07:01:26.691025  4545 net.cpp:435] ip2 <- ip1
I0505 07:01:26.691031  4545 net.cpp:409] ip2 -> ip2
I0505 07:01:26.694139  4545 net.cpp:144] Setting up ip2
I0505 07:01:26.694149  4545 net.cpp:151] Top shape: 20 256 (5120)
I0505 07:01:26.694152  4545 net.cpp:159] Memory required for data: 20219280
I0505 07:01:26.694160  4545 layer_factory.hpp:77] Creating layer ip3
I0505 07:01:26.694166  4545 net.cpp:94] Creating Layer ip3
I0505 07:01:26.694169  4545 net.cpp:435] ip3 <- ip2
I0505 07:01:26.694175  4545 net.cpp:409] ip3 -> ip3
I0505 07:01:26.694237  4545 net.cpp:144] Setting up ip3
I0505 07:01:26.694243  4545 net.cpp:151] Top shape: 20 1 (20)
I0505 07:01:26.694247  4545 net.cpp:159] Memory required for data: 20219360
I0505 07:01:26.694252  4545 layer_factory.hpp:77] Creating layer loss
I0505 07:01:26.694267  4545 net.cpp:94] Creating Layer loss
I0505 07:01:26.694269  4545 net.cpp:435] loss <- ip3
I0505 07:01:26.694273  4545 net.cpp:435] loss <- label
I0505 07:01:26.694279  4545 net.cpp:409] loss -> loss
I0505 07:01:26.694325  4545 net.cpp:144] Setting up loss
…
