…
I0502 18:58:48.101707 12398 net.cpp:323] The NetState phase (0) differed from the phase (1) specified by a rule in layer intercept
I0502 18:58:48.101725 12398 net.cpp:323] The NetState phase (0) differed from the phase (1) specified by a rule in layer accuracy
I0502 18:58:48.101819 12398 net.cpp:52] Initializing net from parameters: 
state {
  phase: TRAIN
}
layer {
  name: "parameters"
  type: "HDF5Data"
  top: "data"
  top: "label"
  include {
    phase: TRAIN
  }
  hdf5_data_param {
    source: "/home/purduethu/scratch/radon/d/deng106/CNNStatisticalModel/distributions/input/5_distributions_900_sample_size_train-distributions-path.txt"
    batch_size: 20
  }
}
layer {
  name: "conv1"
  type: "Convolution"
  bottom: "data"
  top: "conv1"
  param {
    lr_mult: 1
  }
  param {
    lr_mult: 2
  }
  convolution_param {
    num_output: 64
    pad: 2
    kernel_size: 5
    stride: 1
    weight_filler {
      type: "gaussian"
      std: 0.0001
    }
    bias_filler {
      type: "constant"
    }
  }
}
layer {
  name: "relu1"
  type: "ReLU"
  bottom: "conv1"
  top: "conv1"
}
layer {
  name: "conv2"
  type: "Convolution"
  bottom: "conv1"
  top: "conv2"
  param {
    lr_mult: 1
  }
  param {
    lr_mult: 2
  }
  convolution_param {
    num_output: 64
    pad: 2
    kernel_size: 5
    stride: 1
    weight_filler {
      type: "gaussian"
      std: 0.01
    }
    bias_filler {
      type: "constant"
    }
  }
}
layer {
  name: "relu2"
  type: "ReLU"
  bottom: "conv2"
  top: "conv2"
}
layer {
  name: "pool2"
  type: "Pooling"
  bottom: "conv2"
  top: "pool2"
  pooling_param {
    pool: MAX
    kernel_size: 3
    stride: 2
  }
}
layer {
  name: "conv3"
  type: "Convolution"
  bottom: "pool2"
  top: "conv3"
  param {
    lr_mult: 1
  }
  param {
    lr_mult: 2
  }
  convolution_param {
    num_output: 64
    pad: 2
    kernel_size: 5
    stride: 1
    weight_filler {
      type: "gaussian"
      std: 0.01
    }
    bias_filler {
      type: "constant"
    }
  }
}
layer {
  name: "relu3"
  type: "ReLU"
  bottom: "conv3"
  top: "conv3"
}
layer {
  name: "conv4"
  type: "Convolution"
  bottom: "conv3"
  top: "conv4"
  param {
    lr_mult: 1
  }
  param {
    lr_mult: 2
  }
  convolution_param {
    num_output: 64
    pad: 2
    kernel_size: 5
    stride: 1
    weight_filler {
      type: "gaussian"
      std: 0.01
    }
    bias_filler {
      type: "constant"
    }
  }
}
layer {
  name: "relu4"
  type: "ReLU"
  bottom: "conv4"
  top: "conv4"
}
layer {
  name: "conv5"
  type: "Convolution"
  bottom: "conv4"
  top: "conv5"
  param {
    lr_mult: 1
  }
  param {
    lr_mult: 2
  }
  convolution_param {
    num_output: 64
    pad: 2
    kernel_size: 5
    stride: 1
    weight_filler {
      type: "gaussian"
      std: 0.01
    }
    bias_filler {
      type: "constant"
    }
  }
}
layer {
  name: "relu5"
  type: "ReLU"
  bottom: "conv5"
  top: "conv5"
}
layer {
  name: "pool5"
  type: "Pooling"
  bottom: "conv5"
  top: "pool5"
  pooling_param {
    pool: AVE
    kernel_size: 3
    stride: 2
  }
}
layer {
  name: "ip1"
  type: "InnerProduct"
  bottom: "pool5"
  top: "ip1"
  param {
    lr_mult: 1
  }
  param {
    lr_mult: 2
  }
  inner_product_param {
    num_output: 64
    weight_filler {
      type: "gaussian"
      std: 0.1
    }
    bias_filler {
      type: "constant"
    }
  }
}
layer {
  name: "ip2"
  type: "InnerProduct"
  bottom: "ip1"
  top: "ip2"
  param {
    lr_mult: 1
  }
  param {
    lr_mult: 2
  }
  inner_product_param {
    num_output: 64
    weight_filler {
      type: "gaussian"
      std: 0.1
    }
    bias_filler {
      type: "constant"
    }
  }
}
layer {
  name: "ip3"
  type: "InnerProduct"
  bottom: "ip2"
  top: "ip3"
  param {
    lr_mult: 1
  }
  param {
    lr_mult: 2
  }
  inner_product_param {
    num_output: 50
    weight_filler {
      type: "gaussian"
      std: 0.1
    }
    bias_filler {
      type: "constant"
    }
  }
}
layer {
  name: "loss"
  type: "SoftmaxWithLoss"
  bottom: "ip3"
  bottom: "label"
  top: "loss"
}
I0502 18:58:48.101899 12398 layer_factory.hpp:77] Creating layer parameters
I0502 18:58:48.101914 12398 net.cpp:94] Creating Layer parameters
I0502 18:58:48.101919 12398 net.cpp:409] parameters -> data
I0502 18:58:48.101938 12398 net.cpp:409] parameters -> label
I0502 18:58:48.101946 12398 hdf5_data_layer.cpp:79] Loading list of HDF5 filenames from: /home/purduethu/scratch/radon/d/deng106/CNNStatisticalModel/distributions/input/5_distributions_900_sample_size_train-distributions-path.txt
I0502 18:58:48.101970 12398 hdf5_data_layer.cpp:93] Number of HDF5 files: 1
I0502 18:58:48.102586 12398 hdf5.cpp:32] Datatype class: H5T_FLOAT
I0502 18:58:48.241952 12398 hdf5.cpp:35] Datatype class: H5T_INTEGER
I0502 18:58:48.243094 12398 net.cpp:144] Setting up parameters
I0502 18:58:48.243114 12398 net.cpp:151] Top shape: 20 1 30 30 (18000)
I0502 18:58:48.243120 12398 net.cpp:151] Top shape: 20 (20)
I0502 18:58:48.243124 12398 net.cpp:159] Memory required for data: 72080
I0502 18:58:48.243131 12398 layer_factory.hpp:77] Creating layer conv1
I0502 18:58:48.243149 12398 net.cpp:94] Creating Layer conv1
I0502 18:58:48.243155 12398 net.cpp:435] conv1 <- data
I0502 18:58:48.243166 12398 net.cpp:409] conv1 -> conv1
I0502 18:58:48.251699 12398 net.cpp:144] Setting up conv1
I0502 18:58:48.251716 12398 net.cpp:151] Top shape: 20 64 30 30 (1152000)
I0502 18:58:48.251720 12398 net.cpp:159] Memory required for data: 4680080
I0502 18:58:48.251732 12398 layer_factory.hpp:77] Creating layer relu1
I0502 18:58:48.251740 12398 net.cpp:94] Creating Layer relu1
I0502 18:58:48.251744 12398 net.cpp:435] relu1 <- conv1
I0502 18:58:48.251749 12398 net.cpp:396] relu1 -> conv1 (in-place)
I0502 18:58:48.251763 12398 net.cpp:144] Setting up relu1
I0502 18:58:48.251768 12398 net.cpp:151] Top shape: 20 64 30 30 (1152000)
I0502 18:58:48.251771 12398 net.cpp:159] Memory required for data: 9288080
I0502 18:58:48.251775 12398 layer_factory.hpp:77] Creating layer conv2
I0502 18:58:48.251782 12398 net.cpp:94] Creating Layer conv2
I0502 18:58:48.251786 12398 net.cpp:435] conv2 <- conv1
I0502 18:58:48.251791 12398 net.cpp:409] conv2 -> conv2
I0502 18:58:48.268227 12398 net.cpp:144] Setting up conv2
I0502 18:58:48.268242 12398 net.cpp:151] Top shape: 20 64 30 30 (1152000)
I0502 18:58:48.268246 12398 net.cpp:159] Memory required for data: 13896080
I0502 18:58:48.268254 12398 layer_factory.hpp:77] Creating layer relu2
I0502 18:58:48.268261 12398 net.cpp:94] Creating Layer relu2
I0502 18:58:48.268265 12398 net.cpp:435] relu2 <- conv2
I0502 18:58:48.268270 12398 net.cpp:396] relu2 -> conv2 (in-place)
I0502 18:58:48.268276 12398 net.cpp:144] Setting up relu2
I0502 18:58:48.268281 12398 net.cpp:151] Top shape: 20 64 30 30 (1152000)
I0502 18:58:48.268285 12398 net.cpp:159] Memory required for data: 18504080
I0502 18:58:48.268287 12398 layer_factory.hpp:77] Creating layer pool2
I0502 18:58:48.268301 12398 net.cpp:94] Creating Layer pool2
I0502 18:58:48.268306 12398 net.cpp:435] pool2 <- conv2
I0502 18:58:48.268311 12398 net.cpp:409] pool2 -> pool2
I0502 18:58:48.268353 12398 net.cpp:144] Setting up pool2
I0502 18:58:48.268362 12398 net.cpp:151] Top shape: 20 64 15 15 (288000)
I0502 18:58:48.268364 12398 net.cpp:159] Memory required for data: 19656080
I0502 18:58:48.268368 12398 layer_factory.hpp:77] Creating layer conv3
I0502 18:58:48.268375 12398 net.cpp:94] Creating Layer conv3
I0502 18:58:48.268379 12398 net.cpp:435] conv3 <- pool2
I0502 18:58:48.268393 12398 net.cpp:409] conv3 -> conv3
I0502 18:58:48.278093 12398 net.cpp:144] Setting up conv3
I0502 18:58:48.278110 12398 net.cpp:151] Top shape: 20 64 15 15 (288000)
I0502 18:58:48.278113 12398 net.cpp:159] Memory required for data: 20808080
I0502 18:58:48.278122 12398 layer_factory.hpp:77] Creating layer relu3
I0502 18:58:48.278128 12398 net.cpp:94] Creating Layer relu3
I0502 18:58:48.278132 12398 net.cpp:435] relu3 <- conv3
I0502 18:58:48.278136 12398 net.cpp:396] relu3 -> conv3 (in-place)
I0502 18:58:48.278143 12398 net.cpp:144] Setting up relu3
I0502 18:58:48.278148 12398 net.cpp:151] Top shape: 20 64 15 15 (288000)
I0502 18:58:48.278151 12398 net.cpp:159] Memory required for data: 21960080
I0502 18:58:48.278154 12398 layer_factory.hpp:77] Creating layer conv4
I0502 18:58:48.278163 12398 net.cpp:94] Creating Layer conv4
I0502 18:58:48.278167 12398 net.cpp:435] conv4 <- conv3
I0502 18:58:48.278172 12398 net.cpp:409] conv4 -> conv4
I0502 18:58:48.285899 12398 net.cpp:144] Setting up conv4
I0502 18:58:48.285914 12398 net.cpp:151] Top shape: 20 64 15 15 (288000)
I0502 18:58:48.285918 12398 net.cpp:159] Memory required for data: 23112080
I0502 18:58:48.285925 12398 layer_factory.hpp:77] Creating layer relu4
I0502 18:58:48.285931 12398 net.cpp:94] Creating Layer relu4
I0502 18:58:48.285934 12398 net.cpp:435] relu4 <- conv4
I0502 18:58:48.285939 12398 net.cpp:396] relu4 -> conv4 (in-place)
I0502 18:58:48.285946 12398 net.cpp:144] Setting up relu4
I0502 18:58:48.285951 12398 net.cpp:151] Top shape: 20 64 15 15 (288000)
I0502 18:58:48.285954 12398 net.cpp:159] Memory required for data: 24264080
I0502 18:58:48.285957 12398 layer_factory.hpp:77] Creating layer conv5
I0502 18:58:48.285965 12398 net.cpp:94] Creating Layer conv5
I0502 18:58:48.285969 12398 net.cpp:435] conv5 <- conv4
I0502 18:58:48.285974 12398 net.cpp:409] conv5 -> conv5
I0502 18:58:48.294541 12398 net.cpp:144] Setting up conv5
I0502 18:58:48.294556 12398 net.cpp:151] Top shape: 20 64 15 15 (288000)
I0502 18:58:48.294560 12398 net.cpp:159] Memory required for data: 25416080
I0502 18:58:48.294569 12398 layer_factory.hpp:77] Creating layer relu5
I0502 18:58:48.294575 12398 net.cpp:94] Creating Layer relu5
I0502 18:58:48.294579 12398 net.cpp:435] relu5 <- conv5
I0502 18:58:48.294584 12398 net.cpp:396] relu5 -> conv5 (in-place)
I0502 18:58:48.294591 12398 net.cpp:144] Setting up relu5
I0502 18:58:48.294596 12398 net.cpp:151] Top shape: 20 64 15 15 (288000)
I0502 18:58:48.294600 12398 net.cpp:159] Memory required for data: 26568080
I0502 18:58:48.294602 12398 layer_factory.hpp:77] Creating layer pool5
I0502 18:58:48.294607 12398 net.cpp:94] Creating Layer pool5
I0502 18:58:48.294611 12398 net.cpp:435] pool5 <- conv5
I0502 18:58:48.294615 12398 net.cpp:409] pool5 -> pool5
I0502 18:58:48.294648 12398 net.cpp:144] Setting up pool5
I0502 18:58:48.294656 12398 net.cpp:151] Top shape: 20 64 7 7 (62720)
I0502 18:58:48.294659 12398 net.cpp:159] Memory required for data: 26818960
I0502 18:58:48.294662 12398 layer_factory.hpp:77] Creating layer ip1
I0502 18:58:48.294672 12398 net.cpp:94] Creating Layer ip1
I0502 18:58:48.294675 12398 net.cpp:435] ip1 <- pool5
I0502 18:58:48.294679 12398 net.cpp:409] ip1 -> ip1
I0502 18:58:48.300173 12398 net.cpp:144] Setting up ip1
I0502 18:58:48.300187 12398 net.cpp:151] Top shape: 20 64 (1280)
I0502 18:58:48.300191 12398 net.cpp:159] Memory required for data: 26824080
I0502 18:58:48.300197 12398 layer_factory.hpp:77] Creating layer ip2
I0502 18:58:48.300209 12398 net.cpp:94] Creating Layer ip2
I0502 18:58:48.300213 12398 net.cpp:435] ip2 <- ip1
I0502 18:58:48.300218 12398 net.cpp:409] ip2 -> ip2
I0502 18:58:48.300389 12398 net.cpp:144] Setting up ip2
I0502 18:58:48.300395 12398 net.cpp:151] Top shape: 20 64 (1280)
I0502 18:58:48.300398 12398 net.cpp:159] Memory required for data: 26829200
I0502 18:58:48.300403 12398 layer_factory.hpp:77] Creating layer ip3
I0502 18:58:48.300410 12398 net.cpp:94] Creating Layer ip3
I0502 18:58:48.300412 12398 net.cpp:435] ip3 <- ip2
I0502 18:58:48.300417 12398 net.cpp:409] ip3 -> ip3
I0502 18:58:48.300572 12398 net.cpp:144] Setting up ip3
I0502 18:58:48.300580 12398 net.cpp:151] Top shape: 20 50 (1000)
I0502 18:58:48.300583 12398 net.cpp:159] Memory required for data: 26833200
I0502 18:58:48.300588 12398 layer_factory.hpp:77] Creating layer loss
I0502 18:58:48.300595 12398 net.cpp:94] Creating Layer loss
I0502 18:58:48.300598 12398 net.cpp:435] loss <- ip3
I0502 18:58:48.300602 12398 net.cpp:435] loss <- label
I0502 18:58:48.300607 12398 net.cpp:409] loss -> loss
I0502 18:58:48.300617 12398 layer_factory.hpp:77] Creating layer loss
…
I0502 18:58:48.301108 12398 solver.cpp:181] Creating test net (#0) specified by net file: ./protocol/dis_5_900_dimension.protocol_distribution
I0502 18:58:48.301136 12398 net.cpp:323] The NetState phase (1) differed from the phase (0) specified by a rule in layer parameters
I0502 18:58:48.301234 12398 net.cpp:52] Initializing net from parameters: 
state {
  phase: TEST
}
layer {
  name: "intercept"
  type: "HDF5Data"
  top: "data"
  top: "label"
  include {
    phase: TEST
  }
  hdf5_data_param {
    source: "/home/purduethu/scratch/radon/d/deng106/CNNStatisticalModel/distributions/input/5_distributions_900_sample_size_test-distributions-path.txt"
    batch_size: 20
  }
}
layer {
  name: "conv1"
  type: "Convolution"
  bottom: "data"
  top: "conv1"
  param {
    lr_mult: 1
  }
  param {
    lr_mult: 2
  }
  convolution_param {
    num_output: 64
    pad: 2
    kernel_size: 5
    stride: 1
    weight_filler {
      type: "gaussian"
      std: 0.0001
    }
    bias_filler {
      type: "constant"
    }
  }
}
layer {
  name: "relu1"
  type: "ReLU"
  bottom: "conv1"
  top: "conv1"
}
layer {
  name: "conv2"
  type: "Convolution"
  bottom: "conv1"
  top: "conv2"
  param {
    lr_mult: 1
  }
  param {
    lr_mult: 2
  }
  convolution_param {
    num_output: 64
    pad: 2
    kernel_size: 5
    stride: 1
    weight_filler {
      type: "gaussian"
      std: 0.01
    }
    bias_filler {
      type: "constant"
    }
  }
}
layer {
  name: "relu2"
  type: "ReLU"
  bottom: "conv2"
  top: "conv2"
}
layer {
  name: "pool2"
  type: "Pooling"
  bottom: "conv2"
  top: "pool2"
  pooling_param {
    pool: MAX
    kernel_size: 3
    stride: 2
  }
}
layer {
  name: "conv3"
  type: "Convolution"
  bottom: "pool2"
  top: "conv3"
  param {
    lr_mult: 1
  }
  param {
    lr_mult: 2
  }
  convolution_param {
    num_output: 64
    pad: 2
    kernel_size: 5
    stride: 1
    weight_filler {
      type: "gaussian"
      std: 0.01
    }
    bias_filler {
      type: "constant"
    }
  }
}
layer {
  name: "relu3"
  type: "ReLU"
  bottom: "conv3"
  top: "conv3"
}
layer {
  name: "conv4"
  type: "Convolution"
  bottom: "conv3"
  top: "conv4"
  param {
    lr_mult: 1
  }
  param {
    lr_mult: 2
  }
  convolution_param {
    num_output: 64
    pad: 2
    kernel_size: 5
    stride: 1
    weight_filler {
      type: "gaussian"
      std: 0.01
    }
    bias_filler {
      type: "constant"
    }
  }
}
layer {
  name: "relu4"
  type: "ReLU"
  bottom: "conv4"
  top: "conv4"
}
layer {
  name: "conv5"
  type: "Convolution"
  bottom: "conv4"
  top: "conv5"
  param {
    lr_mult: 1
  }
  param {
    lr_mult: 2
  }
  convolution_param {
    num_output: 64
    pad: 2
    kernel_size: 5
    stride: 1
    weight_filler {
      type: "gaussian"
      std: 0.01
    }
    bias_filler {
      type: "constant"
    }
  }
}
layer {
  name: "relu5"
  type: "ReLU"
  bottom: "conv5"
  top: "conv5"
}
layer {
  name: "pool5"
  type: "Pooling"
  bottom: "conv5"
  top: "pool5"
  pooling_param {
    pool: AVE
    kernel_size: 3
    stride: 2
  }
}
layer {
  name: "ip1"
  type: "InnerProduct"
  bottom: "pool5"
  top: "ip1"
  param {
    lr_mult: 1
  }
  param {
    lr_mult: 2
  }
  inner_product_param {
    num_output: 64
    weight_filler {
      type: "gaussian"
      std: 0.1
    }
    bias_filler {
      type: "constant"
    }
  }
}
layer {
  name: "ip2"
  type: "InnerProduct"
  bottom: "ip1"
  top: "ip2"
  param {
    lr_mult: 1
  }
  param {
    lr_mult: 2
  }
  inner_product_param {
    num_output: 64
    weight_filler {
      type: "gaussian"
      std: 0.1
    }
    bias_filler {
      type: "constant"
    }
  }
}
layer {
  name: "ip3"
  type: "InnerProduct"
  bottom: "ip2"
  top: "ip3"
  param {
    lr_mult: 1
  }
  param {
    lr_mult: 2
  }
  inner_product_param {
    num_output: 50
    weight_filler {
      type: "gaussian"
      std: 0.1
    }
    bias_filler {
      type: "constant"
    }
  }
}
layer {
  name: "accuracy"
  type: "Accuracy"
  bottom: "ip3"
  bottom: "label"
  top: "accuracy"
  include {
    phase: TEST
  }
}
layer {
  name: "loss"
  type: "SoftmaxWithLoss"
  bottom: "ip3"
  bottom: "label"
  top: "loss"
}
I0502 18:58:48.301304 12398 layer_factory.hpp:77] Creating layer intercept
I0502 18:58:48.301313 12398 net.cpp:94] Creating Layer intercept
I0502 18:58:48.301317 12398 net.cpp:409] intercept -> data
I0502 18:58:48.301324 12398 net.cpp:409] intercept -> label
I0502 18:58:48.301331 12398 hdf5_data_layer.cpp:79] Loading list of HDF5 filenames from: /home/purduethu/scratch/radon/d/deng106/CNNStatisticalModel/distributions/input/5_distributions_900_sample_size_test-distributions-path.txt
I0502 18:58:48.301349 12398 hdf5_data_layer.cpp:93] Number of HDF5 files: 1
I0502 18:58:48.336727 12398 net.cpp:144] Setting up intercept
I0502 18:58:48.336760 12398 net.cpp:151] Top shape: 20 1 30 30 (18000)
I0502 18:58:48.336765 12398 net.cpp:151] Top shape: 20 (20)
I0502 18:58:48.336768 12398 net.cpp:159] Memory required for data: 72080
I0502 18:58:48.336773 12398 layer_factory.hpp:77] Creating layer label_intercept_1_split
I0502 18:58:48.336789 12398 net.cpp:94] Creating Layer label_intercept_1_split
I0502 18:58:48.336794 12398 net.cpp:435] label_intercept_1_split <- label
I0502 18:58:48.336800 12398 net.cpp:409] label_intercept_1_split -> label_intercept_1_split_0
I0502 18:58:48.336809 12398 net.cpp:409] label_intercept_1_split -> label_intercept_1_split_1
I0502 18:58:48.336843 12398 net.cpp:144] Setting up label_intercept_1_split
I0502 18:58:48.336850 12398 net.cpp:151] Top shape: 20 (20)
I0502 18:58:48.336853 12398 net.cpp:151] Top shape: 20 (20)
I0502 18:58:48.336856 12398 net.cpp:159] Memory required for data: 72240
I0502 18:58:48.336860 12398 layer_factory.hpp:77] Creating layer conv1
I0502 18:58:48.336870 12398 net.cpp:94] Creating Layer conv1
I0502 18:58:48.336874 12398 net.cpp:435] conv1 <- data
I0502 18:58:48.336879 12398 net.cpp:409] conv1 -> conv1
I0502 18:58:48.339136 12398 net.cpp:144] Setting up conv1
I0502 18:58:48.339157 12398 net.cpp:151] Top shape: 20 64 30 30 (1152000)
I0502 18:58:48.339162 12398 net.cpp:159] Memory required for data: 4680240
I0502 18:58:48.339171 12398 layer_factory.hpp:77] Creating layer relu1
I0502 18:58:48.339179 12398 net.cpp:94] Creating Layer relu1
I0502 18:58:48.339182 12398 net.cpp:435] relu1 <- conv1
I0502 18:58:48.339186 12398 net.cpp:396] relu1 -> conv1 (in-place)
I0502 18:58:48.339195 12398 net.cpp:144] Setting up relu1
I0502 18:58:48.339198 12398 net.cpp:151] Top shape: 20 64 30 30 (1152000)
I0502 18:58:48.339201 12398 net.cpp:159] Memory required for data: 9288240
I0502 18:58:48.339205 12398 layer_factory.hpp:77] Creating layer conv2
I0502 18:58:48.339212 12398 net.cpp:94] Creating Layer conv2
I0502 18:58:48.339216 12398 net.cpp:435] conv2 <- conv1
I0502 18:58:48.339221 12398 net.cpp:409] conv2 -> conv2
I0502 18:58:48.345418 12398 net.cpp:144] Setting up conv2
I0502 18:58:48.345434 12398 net.cpp:151] Top shape: 20 64 30 30 (1152000)
I0502 18:58:48.345445 12398 net.cpp:159] Memory required for data: 13896240
I0502 18:58:48.345453 12398 layer_factory.hpp:77] Creating layer relu2
I0502 18:58:48.345459 12398 net.cpp:94] Creating Layer relu2
I0502 18:58:48.345463 12398 net.cpp:435] relu2 <- conv2
I0502 18:58:48.345468 12398 net.cpp:396] relu2 -> conv2 (in-place)
I0502 18:58:48.345475 12398 net.cpp:144] Setting up relu2
I0502 18:58:48.345479 12398 net.cpp:151] Top shape: 20 64 30 30 (1152000)
I0502 18:58:48.345484 12398 net.cpp:159] Memory required for data: 18504240
I0502 18:58:48.345486 12398 layer_factory.hpp:77] Creating layer pool2
I0502 18:58:48.345492 12398 net.cpp:94] Creating Layer pool2
I0502 18:58:48.345495 12398 net.cpp:435] pool2 <- conv2
I0502 18:58:48.345499 12398 net.cpp:409] pool2 -> pool2
I0502 18:58:48.345533 12398 net.cpp:144] Setting up pool2
I0502 18:58:48.345540 12398 net.cpp:151] Top shape: 20 64 15 15 (288000)
I0502 18:58:48.345542 12398 net.cpp:159] Memory required for data: 19656240
I0502 18:58:48.345546 12398 layer_factory.hpp:77] Creating layer conv3
I0502 18:58:48.345553 12398 net.cpp:94] Creating Layer conv3
I0502 18:58:48.345556 12398 net.cpp:435] conv3 <- pool2
I0502 18:58:48.345561 12398 net.cpp:409] conv3 -> conv3
I0502 18:58:48.350538 12398 net.cpp:144] Setting up conv3
I0502 18:58:48.350553 12398 net.cpp:151] Top shape: 20 64 15 15 (288000)
I0502 18:58:48.350556 12398 net.cpp:159] Memory required for data: 20808240
I0502 18:58:48.350564 12398 layer_factory.hpp:77] Creating layer relu3
I0502 18:58:48.350570 12398 net.cpp:94] Creating Layer relu3
I0502 18:58:48.350574 12398 net.cpp:435] relu3 <- conv3
I0502 18:58:48.350579 12398 net.cpp:396] relu3 -> conv3 (in-place)
I0502 18:58:48.350587 12398 net.cpp:144] Setting up relu3
I0502 18:58:48.350592 12398 net.cpp:151] Top shape: 20 64 15 15 (288000)
I0502 18:58:48.350595 12398 net.cpp:159] Memory required for data: 21960240
I0502 18:58:48.350599 12398 layer_factory.hpp:77] Creating layer conv4
I0502 18:58:48.350606 12398 net.cpp:94] Creating Layer conv4
I0502 18:58:48.350610 12398 net.cpp:435] conv4 <- conv3
I0502 18:58:48.350615 12398 net.cpp:409] conv4 -> conv4
I0502 18:58:48.355170 12398 net.cpp:144] Setting up conv4
I0502 18:58:48.355183 12398 net.cpp:151] Top shape: 20 64 15 15 (288000)
I0502 18:58:48.355187 12398 net.cpp:159] Memory required for data: 23112240
I0502 18:58:48.355193 12398 layer_factory.hpp:77] Creating layer relu4
I0502 18:58:48.355199 12398 net.cpp:94] Creating Layer relu4
I0502 18:58:48.355206 12398 net.cpp:435] relu4 <- conv4
I0502 18:58:48.355212 12398 net.cpp:396] relu4 -> conv4 (in-place)
I0502 18:58:48.355219 12398 net.cpp:144] Setting up relu4
I0502 18:58:48.355223 12398 net.cpp:151] Top shape: 20 64 15 15 (288000)
I0502 18:58:48.355226 12398 net.cpp:159] Memory required for data: 24264240
I0502 18:58:48.355231 12398 layer_factory.hpp:77] Creating layer conv5
I0502 18:58:48.355237 12398 net.cpp:94] Creating Layer conv5
I0502 18:58:48.355242 12398 net.cpp:435] conv5 <- conv4
I0502 18:58:48.355245 12398 net.cpp:409] conv5 -> conv5
I0502 18:58:48.359925 12398 net.cpp:144] Setting up conv5
I0502 18:58:48.359938 12398 net.cpp:151] Top shape: 20 64 15 15 (288000)
I0502 18:58:48.359942 12398 net.cpp:159] Memory required for data: 25416240
I0502 18:58:48.359951 12398 layer_factory.hpp:77] Creating layer relu5
I0502 18:58:48.359957 12398 net.cpp:94] Creating Layer relu5
I0502 18:58:48.359961 12398 net.cpp:435] relu5 <- conv5
I0502 18:58:48.359966 12398 net.cpp:396] relu5 -> conv5 (in-place)
I0502 18:58:48.359972 12398 net.cpp:144] Setting up relu5
I0502 18:58:48.359977 12398 net.cpp:151] Top shape: 20 64 15 15 (288000)
I0502 18:58:48.359979 12398 net.cpp:159] Memory required for data: 26568240
I0502 18:58:48.359983 12398 layer_factory.hpp:77] Creating layer pool5
I0502 18:58:48.359987 12398 net.cpp:94] Creating Layer pool5
I0502 18:58:48.359992 12398 net.cpp:435] pool5 <- conv5
I0502 18:58:48.359995 12398 net.cpp:409] pool5 -> pool5
I0502 18:58:48.360020 12398 net.cpp:144] Setting up pool5
I0502 18:58:48.360026 12398 net.cpp:151] Top shape: 20 64 7 7 (62720)
I0502 18:58:48.360029 12398 net.cpp:159] Memory required for data: 26819120
I0502 18:58:48.360033 12398 layer_factory.hpp:77] Creating layer ip1
I0502 18:58:48.360039 12398 net.cpp:94] Creating Layer ip1
I0502 18:58:48.360044 12398 net.cpp:435] ip1 <- pool5
I0502 18:58:48.360047 12398 net.cpp:409] ip1 -> ip1
I0502 18:58:48.365527 12398 net.cpp:144] Setting up ip1
I0502 18:58:48.365541 12398 net.cpp:151] Top shape: 20 64 (1280)
I0502 18:58:48.365545 12398 net.cpp:159] Memory required for data: 26824240
I0502 18:58:48.365551 12398 layer_factory.hpp:77] Creating layer ip2
I0502 18:58:48.365558 12398 net.cpp:94] Creating Layer ip2
I0502 18:58:48.365562 12398 net.cpp:435] ip2 <- ip1
I0502 18:58:48.365567 12398 net.cpp:409] ip2 -> ip2
I0502 18:58:48.365739 12398 net.cpp:144] Setting up ip2
I0502 18:58:48.365746 12398 net.cpp:151] Top shape: 20 64 (1280)
I0502 18:58:48.365749 12398 net.cpp:159] Memory required for data: 26829360
I0502 18:58:48.365754 12398 layer_factory.hpp:77] Creating layer ip3
I0502 18:58:48.365761 12398 net.cpp:94] Creating Layer ip3
I0502 18:58:48.365766 12398 net.cpp:435] ip3 <- ip2
I0502 18:58:48.365770 12398 net.cpp:409] ip3 -> ip3
I0502 18:58:48.365916 12398 net.cpp:144] Setting up ip3
I0502 18:58:48.365921 12398 net.cpp:151] Top shape: 20 50 (1000)
I0502 18:58:48.365924 12398 net.cpp:159] Memory required for data: 26833360
I0502 18:58:48.365929 12398 layer_factory.hpp:77] Creating layer ip3_ip3_0_split
I0502 18:58:48.365934 12398 net.cpp:94] Creating Layer ip3_ip3_0_split
I0502 18:58:48.365937 12398 net.cpp:435] ip3_ip3_0_split <- ip3
I0502 18:58:48.365942 12398 net.cpp:409] ip3_ip3_0_split -> ip3_ip3_0_split_0
I0502 18:58:48.365947 12398 net.cpp:409] ip3_ip3_0_split -> ip3_ip3_0_split_1
I0502 18:58:48.365972 12398 net.cpp:144] Setting up ip3_ip3_0_split
I0502 18:58:48.365977 12398 net.cpp:151] Top shape: 20 50 (1000)
I0502 18:58:48.365980 12398 net.cpp:151] Top shape: 20 50 (1000)
I0502 18:58:48.365983 12398 net.cpp:159] Memory required for data: 26841360
I0502 18:58:48.365986 12398 layer_factory.hpp:77] Creating layer accuracy
I0502 18:58:48.365996 12398 net.cpp:94] Creating Layer accuracy
I0502 18:58:48.365999 12398 net.cpp:435] accuracy <- ip3_ip3_0_split_0
I0502 18:58:48.366003 12398 net.cpp:435] accuracy <- label_intercept_1_split_0
I0502 18:58:48.366008 12398 net.cpp:409] accuracy -> accuracy
…
