…
I0501 05:41:30.339793 31391 net.cpp:323] The NetState phase (0) differed from the phase (1) specified by a rule in layer intercept
I0501 05:41:30.339810 31391 net.cpp:323] The NetState phase (0) differed from the phase (1) specified by a rule in layer loss
I0501 05:41:30.339903 31391 net.cpp:52] Initializing net from parameters: 
state {
  phase: TRAIN
}
layer {
  name: "parameters"
  type: "HDF5Data"
  top: "data"
  top: "label"
  include {
    phase: TRAIN
  }
  hdf5_data_param {
    source: "/home/purduethu/scratch/radon/d/deng106/CNNStatisticalModel/distributions/input/50_distributions_400_sample_size_train-parameters-path.txt"
    batch_size: 20
  }
}
layer {
  name: "conv1"
  type: "Convolution"
  bottom: "data"
  top: "conv1"
  param {
    lr_mult: 1
  }
  param {
    lr_mult: 2
  }
  convolution_param {
    num_output: 64
    pad: 2
    kernel_size: 5
    stride: 1
    weight_filler {
      type: "gaussian"
      std: 0.0001
    }
    bias_filler {
      type: "constant"
    }
  }
}
layer {
  name: "relu1"
  type: "ReLU"
  bottom: "conv1"
  top: "conv1"
}
layer {
  name: "conv2"
  type: "Convolution"
  bottom: "conv1"
  top: "conv2"
  param {
    lr_mult: 1
  }
  param {
    lr_mult: 2
  }
  convolution_param {
    num_output: 64
    pad: 2
    kernel_size: 5
    stride: 1
    weight_filler {
      type: "gaussian"
      std: 0.01
    }
    bias_filler {
      type: "constant"
    }
  }
}
layer {
  name: "relu2"
  type: "ReLU"
  bottom: "conv2"
  top: "conv2"
}
layer {
  name: "pool2"
  type: "Pooling"
  bottom: "conv2"
  top: "pool2"
  pooling_param {
    pool: MAX
    kernel_size: 3
    stride: 2
  }
}
layer {
  name: "conv3"
  type: "Convolution"
  bottom: "pool2"
  top: "conv3"
  param {
    lr_mult: 1
  }
  param {
    lr_mult: 2
  }
  convolution_param {
    num_output: 128
    pad: 2
    kernel_size: 5
    stride: 1
    weight_filler {
      type: "gaussian"
      std: 0.01
    }
    bias_filler {
      type: "constant"
    }
  }
}
layer {
  name: "relu3"
  type: "ReLU"
  bottom: "conv3"
  top: "conv3"
}
layer {
  name: "conv4"
  type: "Convolution"
  bottom: "conv3"
  top: "conv4"
  param {
    lr_mult: 1
  }
  param {
    lr_mult: 2
  }
  convolution_param {
    num_output: 128
    pad: 2
    kernel_size: 5
    stride: 1
    weight_filler {
      type: "gaussian"
      std: 0.01
    }
    bias_filler {
      type: "constant"
    }
  }
}
layer {
  name: "relu4"
  type: "ReLU"
  bottom: "conv4"
  top: "conv4"
}
layer {
  name: "conv5"
  type: "Convolution"
  bottom: "conv4"
  top: "conv5"
  param {
    lr_mult: 1
  }
  param {
    lr_mult: 2
  }
  convolution_param {
    num_output: 128
    pad: 2
    kernel_size: 5
    stride: 1
    weight_filler {
      type: "gaussian"
      std: 0.01
    }
    bias_filler {
      type: "constant"
    }
  }
}
layer {
  name: "relu5"
  type: "ReLU"
  bottom: "conv5"
  top: "conv5"
}
layer {
  name: "pool5"
  type: "Pooling"
  bottom: "conv5"
  top: "pool5"
  pooling_param {
    pool: AVE
    kernel_size: 3
    stride: 2
  }
}
layer {
  name: "ip1"
  type: "InnerProduct"
  bottom: "pool5"
  top: "ip1"
  param {
    lr_mult: 1
  }
  param {
    lr_mult: 2
  }
  inner_product_param {
    num_output: 1024
    weight_filler {
      type: "gaussian"
      std: 0.1
    }
    bias_filler {
      type: "constant"
    }
  }
}
layer {
  name: "ip2"
  type: "InnerProduct"
  bottom: "ip1"
  top: "ip2"
  param {
    lr_mult: 1
  }
  param {
    lr_mult: 2
  }
  inner_product_param {
    num_output: 512
    weight_filler {
      type: "gaussian"
      std: 0.1
    }
    bias_filler {
      type: "constant"
    }
  }
}
layer {
  name: "ip3"
  type: "InnerProduct"
  bottom: "ip2"
  top: "ip3"
  param {
    lr_mult: 1
  }
  param {
    lr_mult: 2
  }
  inner_product_param {
    num_output: 1
    weight_filler {
      type: "gaussian"
      std: 0.1
    }
    bias_filler {
      type: "constant"
    }
  }
}
layer {
  name: "loss"
  type: "HuberLoss"
  bottom: "ip3"
  bottom: "label"
  top: "loss"
  include {
    phase: TRAIN
  }
}
I0501 05:41:30.339980 31391 layer_factory.hpp:77] Creating layer parameters
I0501 05:41:30.339994 31391 net.cpp:94] Creating Layer parameters
I0501 05:41:30.340000 31391 net.cpp:409] parameters -> data
I0501 05:41:30.340019 31391 net.cpp:409] parameters -> label
I0501 05:41:30.340029 31391 hdf5_data_layer.cpp:79] Loading list of HDF5 filenames from: /home/purduethu/scratch/radon/d/deng106/CNNStatisticalModel/distributions/input/50_distributions_400_sample_size_train-parameters-path.txt
I0501 05:41:30.340051 31391 hdf5_data_layer.cpp:93] Number of HDF5 files: 1
I0501 05:41:30.340682 31391 hdf5.cpp:32] Datatype class: H5T_FLOAT
I0501 05:41:30.971606 31391 net.cpp:144] Setting up parameters
I0501 05:41:30.971637 31391 net.cpp:151] Top shape: 20 1 20 20 (8000)
I0501 05:41:30.971643 31391 net.cpp:151] Top shape: 20 (20)
I0501 05:41:30.971647 31391 net.cpp:159] Memory required for data: 32080
I0501 05:41:30.971654 31391 layer_factory.hpp:77] Creating layer conv1
I0501 05:41:30.971673 31391 net.cpp:94] Creating Layer conv1
I0501 05:41:30.971678 31391 net.cpp:435] conv1 <- data
I0501 05:41:30.971688 31391 net.cpp:409] conv1 -> conv1
I0501 05:41:30.976420 31391 net.cpp:144] Setting up conv1
I0501 05:41:30.976435 31391 net.cpp:151] Top shape: 20 64 20 20 (512000)
I0501 05:41:30.976439 31391 net.cpp:159] Memory required for data: 2080080
I0501 05:41:30.976450 31391 layer_factory.hpp:77] Creating layer relu1
I0501 05:41:30.976457 31391 net.cpp:94] Creating Layer relu1
I0501 05:41:30.976461 31391 net.cpp:435] relu1 <- conv1
I0501 05:41:30.976466 31391 net.cpp:396] relu1 -> conv1 (in-place)
I0501 05:41:30.976477 31391 net.cpp:144] Setting up relu1
I0501 05:41:30.976481 31391 net.cpp:151] Top shape: 20 64 20 20 (512000)
I0501 05:41:30.976485 31391 net.cpp:159] Memory required for data: 4128080
I0501 05:41:30.976488 31391 layer_factory.hpp:77] Creating layer conv2
I0501 05:41:30.976495 31391 net.cpp:94] Creating Layer conv2
I0501 05:41:30.976500 31391 net.cpp:435] conv2 <- conv1
I0501 05:41:30.976503 31391 net.cpp:409] conv2 -> conv2
I0501 05:41:30.987035 31391 net.cpp:144] Setting up conv2
I0501 05:41:30.987049 31391 net.cpp:151] Top shape: 20 64 20 20 (512000)
I0501 05:41:30.987053 31391 net.cpp:159] Memory required for data: 6176080
I0501 05:41:30.987061 31391 layer_factory.hpp:77] Creating layer relu2
I0501 05:41:30.987067 31391 net.cpp:94] Creating Layer relu2
I0501 05:41:30.987071 31391 net.cpp:435] relu2 <- conv2
I0501 05:41:30.987076 31391 net.cpp:396] relu2 -> conv2 (in-place)
I0501 05:41:30.987083 31391 net.cpp:144] Setting up relu2
I0501 05:41:30.987087 31391 net.cpp:151] Top shape: 20 64 20 20 (512000)
I0501 05:41:30.987090 31391 net.cpp:159] Memory required for data: 8224080
I0501 05:41:30.987093 31391 layer_factory.hpp:77] Creating layer pool2
I0501 05:41:30.987102 31391 net.cpp:94] Creating Layer pool2
I0501 05:41:30.987110 31391 net.cpp:435] pool2 <- conv2
I0501 05:41:30.987115 31391 net.cpp:409] pool2 -> pool2
I0501 05:41:30.987159 31391 net.cpp:144] Setting up pool2
I0501 05:41:30.987166 31391 net.cpp:151] Top shape: 20 64 10 10 (128000)
I0501 05:41:30.987170 31391 net.cpp:159] Memory required for data: 8736080
I0501 05:41:30.987174 31391 layer_factory.hpp:77] Creating layer conv3
I0501 05:41:30.987181 31391 net.cpp:94] Creating Layer conv3
I0501 05:41:30.987185 31391 net.cpp:435] conv3 <- pool2
I0501 05:41:30.987190 31391 net.cpp:409] conv3 -> conv3
I0501 05:41:30.996233 31391 net.cpp:144] Setting up conv3
I0501 05:41:30.996248 31391 net.cpp:151] Top shape: 20 128 10 10 (256000)
I0501 05:41:30.996253 31391 net.cpp:159] Memory required for data: 9760080
I0501 05:41:30.996260 31391 layer_factory.hpp:77] Creating layer relu3
I0501 05:41:30.996266 31391 net.cpp:94] Creating Layer relu3
I0501 05:41:30.996270 31391 net.cpp:435] relu3 <- conv3
I0501 05:41:30.996275 31391 net.cpp:396] relu3 -> conv3 (in-place)
I0501 05:41:30.996282 31391 net.cpp:144] Setting up relu3
I0501 05:41:30.996287 31391 net.cpp:151] Top shape: 20 128 10 10 (256000)
I0501 05:41:30.996290 31391 net.cpp:159] Memory required for data: 10784080
I0501 05:41:30.996294 31391 layer_factory.hpp:77] Creating layer conv4
I0501 05:41:30.996302 31391 net.cpp:94] Creating Layer conv4
I0501 05:41:30.996305 31391 net.cpp:435] conv4 <- conv3
I0501 05:41:30.996310 31391 net.cpp:409] conv4 -> conv4
I0501 05:41:31.013223 31391 net.cpp:144] Setting up conv4
I0501 05:41:31.013238 31391 net.cpp:151] Top shape: 20 128 10 10 (256000)
I0501 05:41:31.013242 31391 net.cpp:159] Memory required for data: 11808080
I0501 05:41:31.013249 31391 layer_factory.hpp:77] Creating layer relu4
I0501 05:41:31.013255 31391 net.cpp:94] Creating Layer relu4
I0501 05:41:31.013259 31391 net.cpp:435] relu4 <- conv4
I0501 05:41:31.013264 31391 net.cpp:396] relu4 -> conv4 (in-place)
I0501 05:41:31.013272 31391 net.cpp:144] Setting up relu4
I0501 05:41:31.013275 31391 net.cpp:151] Top shape: 20 128 10 10 (256000)
I0501 05:41:31.013278 31391 net.cpp:159] Memory required for data: 12832080
I0501 05:41:31.013281 31391 layer_factory.hpp:77] Creating layer conv5
I0501 05:41:31.013289 31391 net.cpp:94] Creating Layer conv5
I0501 05:41:31.013293 31391 net.cpp:435] conv5 <- conv4
I0501 05:41:31.013298 31391 net.cpp:409] conv5 -> conv5
I0501 05:41:31.030117 31391 net.cpp:144] Setting up conv5
I0501 05:41:31.030131 31391 net.cpp:151] Top shape: 20 128 10 10 (256000)
I0501 05:41:31.030135 31391 net.cpp:159] Memory required for data: 13856080
I0501 05:41:31.030144 31391 layer_factory.hpp:77] Creating layer relu5
I0501 05:41:31.030150 31391 net.cpp:94] Creating Layer relu5
I0501 05:41:31.030154 31391 net.cpp:435] relu5 <- conv5
I0501 05:41:31.030159 31391 net.cpp:396] relu5 -> conv5 (in-place)
I0501 05:41:31.030166 31391 net.cpp:144] Setting up relu5
I0501 05:41:31.030170 31391 net.cpp:151] Top shape: 20 128 10 10 (256000)
I0501 05:41:31.030174 31391 net.cpp:159] Memory required for data: 14880080
I0501 05:41:31.030176 31391 layer_factory.hpp:77] Creating layer pool5
I0501 05:41:31.030181 31391 net.cpp:94] Creating Layer pool5
I0501 05:41:31.030185 31391 net.cpp:435] pool5 <- conv5
I0501 05:41:31.030189 31391 net.cpp:409] pool5 -> pool5
I0501 05:41:31.030225 31391 net.cpp:144] Setting up pool5
I0501 05:41:31.030231 31391 net.cpp:151] Top shape: 20 128 5 5 (64000)
I0501 05:41:31.030236 31391 net.cpp:159] Memory required for data: 15136080
I0501 05:41:31.030238 31391 layer_factory.hpp:77] Creating layer ip1
I0501 05:41:31.030248 31391 net.cpp:94] Creating Layer ip1
I0501 05:41:31.030251 31391 net.cpp:435] ip1 <- pool5
I0501 05:41:31.030256 31391 net.cpp:409] ip1 -> ip1
I0501 05:41:31.108992 31391 net.cpp:144] Setting up ip1
I0501 05:41:31.109022 31391 net.cpp:151] Top shape: 20 1024 (20480)
I0501 05:41:31.109026 31391 net.cpp:159] Memory required for data: 15218000
I0501 05:41:31.109035 31391 layer_factory.hpp:77] Creating layer ip2
I0501 05:41:31.109043 31391 net.cpp:94] Creating Layer ip2
I0501 05:41:31.109055 31391 net.cpp:435] ip2 <- ip1
I0501 05:41:31.109061 31391 net.cpp:409] ip2 -> ip2
I0501 05:41:31.121959 31391 net.cpp:144] Setting up ip2
I0501 05:41:31.121973 31391 net.cpp:151] Top shape: 20 512 (10240)
I0501 05:41:31.121978 31391 net.cpp:159] Memory required for data: 15258960
I0501 05:41:31.121983 31391 layer_factory.hpp:77] Creating layer ip3
I0501 05:41:31.121989 31391 net.cpp:94] Creating Layer ip3
I0501 05:41:31.121994 31391 net.cpp:435] ip3 <- ip2
I0501 05:41:31.121999 31391 net.cpp:409] ip3 -> ip3
I0501 05:41:31.122073 31391 net.cpp:144] Setting up ip3
I0501 05:41:31.122087 31391 net.cpp:151] Top shape: 20 1 (20)
I0501 05:41:31.122092 31391 net.cpp:159] Memory required for data: 15259040
I0501 05:41:31.122097 31391 layer_factory.hpp:77] Creating layer loss
I0501 05:41:31.122109 31391 net.cpp:94] Creating Layer loss
I0501 05:41:31.122113 31391 net.cpp:435] loss <- ip3
I0501 05:41:31.122117 31391 net.cpp:435] loss <- label
I0501 05:41:31.122123 31391 net.cpp:409] loss -> loss
I0501 05:41:31.122159 31391 net.cpp:144] Setting up loss
…
