…
I0507 17:13:45.661764  5165 net.cpp:323] The NetState phase (0) differed from the phase (1) specified by a rule in layer intercept
I0507 17:13:45.661780  5165 net.cpp:323] The NetState phase (0) differed from the phase (1) specified by a rule in layer loss
I0507 17:13:45.661857  5165 net.cpp:52] Initializing net from parameters: 
state {
  phase: TRAIN
}
layer {
  name: "parameters"
  type: "HDF5Data"
  top: "data"
  top: "label"
  include {
    phase: TRAIN
  }
  hdf5_data_param {
    source: "/home/purduethu/scratch/radon/d/deng106/CNNStatisticalModel/distributions/input/20_distributions_100_sample_size_train-parameters-path.txt"
    batch_size: 20
  }
}
layer {
  name: "conv1"
  type: "Convolution"
  bottom: "data"
  top: "conv1"
  param {
    lr_mult: 1
  }
  param {
    lr_mult: 2
  }
  convolution_param {
    num_output: 64
    pad: 2
    kernel_size: 5
    stride: 1
    weight_filler {
      type: "gaussian"
      std: 0.0001
    }
    bias_filler {
      type: "constant"
    }
  }
}
layer {
  name: "relu1"
  type: "ReLU"
  bottom: "conv1"
  top: "conv1"
}
layer {
  name: "conv2"
  type: "Convolution"
  bottom: "conv1"
  top: "conv2"
  param {
    lr_mult: 1
  }
  param {
    lr_mult: 2
  }
  convolution_param {
    num_output: 64
    pad: 2
    kernel_size: 5
    stride: 1
    weight_filler {
      type: "gaussian"
      std: 0.01
    }
    bias_filler {
      type: "constant"
    }
  }
}
layer {
  name: "relu2"
  type: "ReLU"
  bottom: "conv2"
  top: "conv2"
}
layer {
  name: "pool2"
  type: "Pooling"
  bottom: "conv2"
  top: "pool2"
  pooling_param {
    pool: MAX
    kernel_size: 3
    stride: 2
  }
}
layer {
  name: "conv3"
  type: "Convolution"
  bottom: "pool2"
  top: "conv3"
  param {
    lr_mult: 1
  }
  param {
    lr_mult: 2
  }
  convolution_param {
    num_output: 64
    pad: 2
    kernel_size: 5
    stride: 1
    weight_filler {
      type: "gaussian"
      std: 0.01
    }
    bias_filler {
      type: "constant"
    }
  }
}
layer {
  name: "relu3"
  type: "ReLU"
  bottom: "conv3"
  top: "conv3"
}
layer {
  name: "conv4"
  type: "Convolution"
  bottom: "conv3"
  top: "conv4"
  param {
    lr_mult: 1
  }
  param {
    lr_mult: 2
  }
  convolution_param {
    num_output: 64
    pad: 2
    kernel_size: 5
    stride: 1
    weight_filler {
      type: "gaussian"
      std: 0.01
    }
    bias_filler {
      type: "constant"
    }
  }
}
layer {
  name: "relu4"
  type: "ReLU"
  bottom: "conv4"
  top: "conv4"
}
layer {
  name: "conv5"
  type: "Convolution"
  bottom: "conv4"
  top: "conv5"
  param {
    lr_mult: 1
  }
  param {
    lr_mult: 2
  }
  convolution_param {
    num_output: 64
    pad: 2
    kernel_size: 5
    stride: 1
    weight_filler {
      type: "gaussian"
      std: 0.01
    }
    bias_filler {
      type: "constant"
    }
  }
}
layer {
  name: "relu5"
  type: "ReLU"
  bottom: "conv5"
  top: "conv5"
}
layer {
  name: "pool5"
  type: "Pooling"
  bottom: "conv5"
  top: "pool5"
  pooling_param {
    pool: AVE
    kernel_size: 3
    stride: 2
  }
}
layer {
  name: "ip1"
  type: "InnerProduct"
  bottom: "pool5"
  top: "ip1"
  param {
    lr_mult: 1
  }
  param {
    lr_mult: 2
  }
  inner_product_param {
    num_output: 64
    weight_filler {
      type: "gaussian"
      std: 0.1
    }
    bias_filler {
      type: "constant"
    }
  }
}
layer {
  name: "ip2"
  type: "InnerProduct"
  bottom: "ip1"
  top: "ip2"
  param {
    lr_mult: 1
  }
  param {
    lr_mult: 2
  }
  inner_product_param {
    num_output: 64
    weight_filler {
      type: "gaussian"
      std: 0.1
    }
    bias_filler {
      type: "constant"
    }
  }
}
layer {
  name: "ip3"
  type: "InnerProduct"
  bottom: "ip2"
  top: "ip3"
  param {
    lr_mult: 1
  }
  param {
    lr_mult: 2
  }
  inner_product_param {
    num_output: 1
    weight_filler {
      type: "gaussian"
      std: 0.1
    }
    bias_filler {
      type: "constant"
    }
  }
}
layer {
  name: "loss"
  type: "HuberLoss"
  bottom: "ip3"
  bottom: "label"
  top: "loss"
  include {
    phase: TRAIN
  }
}
I0507 17:13:45.661909  5165 layer_factory.hpp:77] Creating layer parameters
I0507 17:13:45.661921  5165 net.cpp:94] Creating Layer parameters
I0507 17:13:45.661926  5165 net.cpp:409] parameters -> data
I0507 17:13:45.661934  5165 net.cpp:409] parameters -> label
I0507 17:13:45.661944  5165 hdf5_data_layer.cpp:79] Loading list of HDF5 filenames from: /home/purduethu/scratch/radon/d/deng106/CNNStatisticalModel/distributions/input/20_distributions_100_sample_size_train-parameters-path.txt
I0507 17:13:45.661958  5165 hdf5_data_layer.cpp:93] Number of HDF5 files: 1
I0507 17:13:45.662490  5165 hdf5.cpp:32] Datatype class: H5T_FLOAT
I0507 17:13:45.729928  5165 net.cpp:144] Setting up parameters
I0507 17:13:45.729959  5165 net.cpp:151] Top shape: 20 1 10 10 (2000)
I0507 17:13:45.729964  5165 net.cpp:151] Top shape: 20 (20)
I0507 17:13:45.729967  5165 net.cpp:159] Memory required for data: 8080
I0507 17:13:45.729974  5165 layer_factory.hpp:77] Creating layer conv1
I0507 17:13:45.729990  5165 net.cpp:94] Creating Layer conv1
I0507 17:13:45.729995  5165 net.cpp:435] conv1 <- data
I0507 17:13:45.730001  5165 net.cpp:409] conv1 -> conv1
I0507 17:13:45.734182  5165 net.cpp:144] Setting up conv1
I0507 17:13:45.734199  5165 net.cpp:151] Top shape: 20 64 10 10 (128000)
I0507 17:13:45.734202  5165 net.cpp:159] Memory required for data: 520080
I0507 17:13:45.734212  5165 layer_factory.hpp:77] Creating layer relu1
I0507 17:13:45.734220  5165 net.cpp:94] Creating Layer relu1
I0507 17:13:45.734223  5165 net.cpp:435] relu1 <- conv1
I0507 17:13:45.734227  5165 net.cpp:396] relu1 -> conv1 (in-place)
I0507 17:13:45.734238  5165 net.cpp:144] Setting up relu1
I0507 17:13:45.734243  5165 net.cpp:151] Top shape: 20 64 10 10 (128000)
I0507 17:13:45.734246  5165 net.cpp:159] Memory required for data: 1032080
I0507 17:13:45.734249  5165 layer_factory.hpp:77] Creating layer conv2
I0507 17:13:45.734257  5165 net.cpp:94] Creating Layer conv2
I0507 17:13:45.734261  5165 net.cpp:435] conv2 <- conv1
I0507 17:13:45.734266  5165 net.cpp:409] conv2 -> conv2
I0507 17:13:45.739550  5165 net.cpp:144] Setting up conv2
I0507 17:13:45.739564  5165 net.cpp:151] Top shape: 20 64 10 10 (128000)
I0507 17:13:45.739567  5165 net.cpp:159] Memory required for data: 1544080
I0507 17:13:45.739575  5165 layer_factory.hpp:77] Creating layer relu2
I0507 17:13:45.739583  5165 net.cpp:94] Creating Layer relu2
I0507 17:13:45.739585  5165 net.cpp:435] relu2 <- conv2
I0507 17:13:45.739590  5165 net.cpp:396] relu2 -> conv2 (in-place)
I0507 17:13:45.739596  5165 net.cpp:144] Setting up relu2
I0507 17:13:45.739600  5165 net.cpp:151] Top shape: 20 64 10 10 (128000)
I0507 17:13:45.739603  5165 net.cpp:159] Memory required for data: 2056080
I0507 17:13:45.739606  5165 layer_factory.hpp:77] Creating layer pool2
I0507 17:13:45.739619  5165 net.cpp:94] Creating Layer pool2
I0507 17:13:45.739624  5165 net.cpp:435] pool2 <- conv2
I0507 17:13:45.739627  5165 net.cpp:409] pool2 -> pool2
I0507 17:13:45.739677  5165 net.cpp:144] Setting up pool2
I0507 17:13:45.739686  5165 net.cpp:151] Top shape: 20 64 5 5 (32000)
I0507 17:13:45.739688  5165 net.cpp:159] Memory required for data: 2184080
I0507 17:13:45.739691  5165 layer_factory.hpp:77] Creating layer conv3
I0507 17:13:45.739698  5165 net.cpp:94] Creating Layer conv3
I0507 17:13:45.739702  5165 net.cpp:435] conv3 <- pool2
I0507 17:13:45.739706  5165 net.cpp:409] conv3 -> conv3
I0507 17:13:45.744606  5165 net.cpp:144] Setting up conv3
I0507 17:13:45.744621  5165 net.cpp:151] Top shape: 20 64 5 5 (32000)
I0507 17:13:45.744624  5165 net.cpp:159] Memory required for data: 2312080
I0507 17:13:45.744632  5165 layer_factory.hpp:77] Creating layer relu3
I0507 17:13:45.744638  5165 net.cpp:94] Creating Layer relu3
I0507 17:13:45.744642  5165 net.cpp:435] relu3 <- conv3
I0507 17:13:45.744647  5165 net.cpp:396] relu3 -> conv3 (in-place)
I0507 17:13:45.744653  5165 net.cpp:144] Setting up relu3
I0507 17:13:45.744657  5165 net.cpp:151] Top shape: 20 64 5 5 (32000)
I0507 17:13:45.744660  5165 net.cpp:159] Memory required for data: 2440080
I0507 17:13:45.744663  5165 layer_factory.hpp:77] Creating layer conv4
I0507 17:13:45.744671  5165 net.cpp:94] Creating Layer conv4
I0507 17:13:45.744674  5165 net.cpp:435] conv4 <- conv3
I0507 17:13:45.744678  5165 net.cpp:409] conv4 -> conv4
I0507 17:13:45.749150  5165 net.cpp:144] Setting up conv4
I0507 17:13:45.749163  5165 net.cpp:151] Top shape: 20 64 5 5 (32000)
I0507 17:13:45.749167  5165 net.cpp:159] Memory required for data: 2568080
I0507 17:13:45.749173  5165 layer_factory.hpp:77] Creating layer relu4
I0507 17:13:45.749178  5165 net.cpp:94] Creating Layer relu4
I0507 17:13:45.749182  5165 net.cpp:435] relu4 <- conv4
I0507 17:13:45.749186  5165 net.cpp:396] relu4 -> conv4 (in-place)
I0507 17:13:45.749193  5165 net.cpp:144] Setting up relu4
I0507 17:13:45.749197  5165 net.cpp:151] Top shape: 20 64 5 5 (32000)
I0507 17:13:45.749200  5165 net.cpp:159] Memory required for data: 2696080
I0507 17:13:45.749203  5165 layer_factory.hpp:77] Creating layer conv5
I0507 17:13:45.749210  5165 net.cpp:94] Creating Layer conv5
I0507 17:13:45.749213  5165 net.cpp:435] conv5 <- conv4
I0507 17:13:45.749218  5165 net.cpp:409] conv5 -> conv5
I0507 17:13:45.754917  5165 net.cpp:144] Setting up conv5
I0507 17:13:45.754930  5165 net.cpp:151] Top shape: 20 64 5 5 (32000)
I0507 17:13:45.754935  5165 net.cpp:159] Memory required for data: 2824080
I0507 17:13:45.754943  5165 layer_factory.hpp:77] Creating layer relu5
I0507 17:13:45.754948  5165 net.cpp:94] Creating Layer relu5
I0507 17:13:45.754952  5165 net.cpp:435] relu5 <- conv5
I0507 17:13:45.754956  5165 net.cpp:396] relu5 -> conv5 (in-place)
I0507 17:13:45.754963  5165 net.cpp:144] Setting up relu5
I0507 17:13:45.754968  5165 net.cpp:151] Top shape: 20 64 5 5 (32000)
I0507 17:13:45.754971  5165 net.cpp:159] Memory required for data: 2952080
I0507 17:13:45.754973  5165 layer_factory.hpp:77] Creating layer pool5
I0507 17:13:45.754978  5165 net.cpp:94] Creating Layer pool5
I0507 17:13:45.754981  5165 net.cpp:435] pool5 <- conv5
I0507 17:13:45.754986  5165 net.cpp:409] pool5 -> pool5
I0507 17:13:45.755022  5165 net.cpp:144] Setting up pool5
I0507 17:13:45.755029  5165 net.cpp:151] Top shape: 20 64 2 2 (5120)
I0507 17:13:45.755033  5165 net.cpp:159] Memory required for data: 2972560
I0507 17:13:45.755035  5165 layer_factory.hpp:77] Creating layer ip1
I0507 17:13:45.755041  5165 net.cpp:94] Creating Layer ip1
I0507 17:13:45.755044  5165 net.cpp:435] ip1 <- pool5
I0507 17:13:45.755049  5165 net.cpp:409] ip1 -> ip1
I0507 17:13:45.756352  5165 net.cpp:144] Setting up ip1
I0507 17:13:45.756364  5165 net.cpp:151] Top shape: 20 64 (1280)
I0507 17:13:45.756368  5165 net.cpp:159] Memory required for data: 2977680
I0507 17:13:45.756374  5165 layer_factory.hpp:77] Creating layer ip2
I0507 17:13:45.756381  5165 net.cpp:94] Creating Layer ip2
I0507 17:13:45.756392  5165 net.cpp:435] ip2 <- ip1
I0507 17:13:45.756397  5165 net.cpp:409] ip2 -> ip2
I0507 17:13:45.756615  5165 net.cpp:144] Setting up ip2
I0507 17:13:45.756624  5165 net.cpp:151] Top shape: 20 64 (1280)
I0507 17:13:45.756628  5165 net.cpp:159] Memory required for data: 2982800
I0507 17:13:45.756633  5165 layer_factory.hpp:77] Creating layer ip3
I0507 17:13:45.756639  5165 net.cpp:94] Creating Layer ip3
I0507 17:13:45.756642  5165 net.cpp:435] ip3 <- ip2
I0507 17:13:45.756646  5165 net.cpp:409] ip3 -> ip3
I0507 17:13:45.756745  5165 net.cpp:144] Setting up ip3
I0507 17:13:45.756752  5165 net.cpp:151] Top shape: 20 1 (20)
I0507 17:13:45.756754  5165 net.cpp:159] Memory required for data: 2982880
I0507 17:13:45.756759  5165 layer_factory.hpp:77] Creating layer loss
I0507 17:13:45.756769  5165 net.cpp:94] Creating Layer loss
I0507 17:13:45.756772  5165 net.cpp:435] loss <- ip3
I0507 17:13:45.756777  5165 net.cpp:435] loss <- label
I0507 17:13:45.756780  5165 net.cpp:409] loss -> loss
I0507 17:13:45.756829  5165 net.cpp:144] Setting up loss
…
I0507 17:13:45.793644  5165 net.cpp:323] The NetState phase (0) differed from the phase (1) specified by a rule in layer intercept
I0507 17:13:45.793660  5165 net.cpp:323] The NetState phase (0) differed from the phase (1) specified by a rule in layer accuracy
I0507 17:13:45.793745  5165 net.cpp:52] Initializing net from parameters: 
state {
  phase: TRAIN
}
layer {
  name: "parameters"
  type: "HDF5Data"
  top: "data"
  top: "label"
  include {
    phase: TRAIN
  }
  hdf5_data_param {
    source: "/home/purduethu/scratch/radon/d/deng106/CNNStatisticalModel/distributions/input/20_distributions_100_sample_size_train-distributions-path.txt"
    batch_size: 20
  }
}
layer {
  name: "conv1"
  type: "Convolution"
  bottom: "data"
  top: "conv1"
  param {
    lr_mult: 1
  }
  param {
    lr_mult: 2
  }
  convolution_param {
    num_output: 64
    pad: 2
    kernel_size: 5
    stride: 1
    weight_filler {
      type: "gaussian"
      std: 0.0001
    }
    bias_filler {
      type: "constant"
    }
  }
}
layer {
  name: "relu1"
  type: "ReLU"
  bottom: "conv1"
  top: "conv1"
}
layer {
  name: "conv2"
  type: "Convolution"
  bottom: "conv1"
  top: "conv2"
  param {
    lr_mult: 1
  }
  param {
    lr_mult: 2
  }
  convolution_param {
    num_output: 64
    pad: 2
    kernel_size: 5
    stride: 1
    weight_filler {
      type: "gaussian"
      std: 0.01
    }
    bias_filler {
      type: "constant"
    }
  }
}
layer {
  name: "relu2"
  type: "ReLU"
  bottom: "conv2"
  top: "conv2"
}
layer {
  name: "pool2"
  type: "Pooling"
  bottom: "conv2"
  top: "pool2"
  pooling_param {
    pool: MAX
    kernel_size: 3
    stride: 2
  }
}
layer {
  name: "conv3"
  type: "Convolution"
  bottom: "pool2"
  top: "conv3"
  param {
    lr_mult: 1
  }
  param {
    lr_mult: 2
  }
  convolution_param {
    num_output: 64
    pad: 2
    kernel_size: 5
    stride: 1
    weight_filler {
      type: "gaussian"
      std: 0.01
    }
    bias_filler {
      type: "constant"
    }
  }
}
layer {
  name: "relu3"
  type: "ReLU"
  bottom: "conv3"
  top: "conv3"
}
layer {
  name: "conv4"
  type: "Convolution"
  bottom: "conv3"
  top: "conv4"
  param {
    lr_mult: 1
  }
  param {
    lr_mult: 2
  }
  convolution_param {
    num_output: 64
    pad: 2
    kernel_size: 5
    stride: 1
    weight_filler {
      type: "gaussian"
      std: 0.01
    }
    bias_filler {
      type: "constant"
    }
  }
}
layer {
  name: "relu4"
  type: "ReLU"
  bottom: "conv4"
  top: "conv4"
}
layer {
  name: "conv5"
  type: "Convolution"
  bottom: "conv4"
  top: "conv5"
  param {
    lr_mult: 1
  }
  param {
    lr_mult: 2
  }
  convolution_param {
    num_output: 64
    pad: 2
    kernel_size: 5
    stride: 1
    weight_filler {
      type: "gaussian"
      std: 0.01
    }
    bias_filler {
      type: "constant"
    }
  }
}
layer {
  name: "relu5"
  type: "ReLU"
  bottom: "conv5"
  top: "conv5"
}
layer {
  name: "pool5"
  type: "Pooling"
  bottom: "conv5"
  top: "pool5"
  pooling_param {
    pool: AVE
    kernel_size: 3
    stride: 2
  }
}
layer {
  name: "ip1"
  type: "InnerProduct"
  bottom: "pool5"
  top: "ip1"
  param {
    lr_mult: 1
  }
  param {
    lr_mult: 2
  }
  inner_product_param {
    num_output: 64
    weight_filler {
      type: "gaussian"
      std: 0.1
    }
    bias_filler {
      type: "constant"
    }
  }
}
layer {
  name: "ip2"
  type: "InnerProduct"
  bottom: "ip1"
  top: "ip2"
  param {
    lr_mult: 1
  }
  param {
    lr_mult: 2
  }
  inner_product_param {
    num_output: 64
    weight_filler {
      type: "gaussian"
      std: 0.1
    }
    bias_filler {
      type: "constant"
    }
  }
}
layer {
  name: "ip3"
  type: "InnerProduct"
  bottom: "ip2"
  top: "ip3"
  param {
    lr_mult: 1
  }
  param {
    lr_mult: 2
  }
  inner_product_param {
    num_output: 50
    weight_filler {
      type: "gaussian"
      std: 0.1
    }
    bias_filler {
      type: "constant"
    }
  }
}
layer {
  name: "loss"
  type: "SoftmaxWithLoss"
  bottom: "ip3"
  bottom: "label"
  top: "loss"
}
I0507 17:13:45.793794  5165 layer_factory.hpp:77] Creating layer parameters
I0507 17:13:45.793803  5165 net.cpp:94] Creating Layer parameters
I0507 17:13:45.793807  5165 net.cpp:409] parameters -> data
I0507 17:13:45.793813  5165 net.cpp:409] parameters -> label
I0507 17:13:45.793818  5165 hdf5_data_layer.cpp:79] Loading list of HDF5 filenames from: /home/purduethu/scratch/radon/d/deng106/CNNStatisticalModel/distributions/input/20_distributions_100_sample_size_train-distributions-path.txt
I0507 17:13:45.793833  5165 hdf5_data_layer.cpp:93] Number of HDF5 files: 1
I0507 17:13:45.857903  5165 hdf5.cpp:35] Datatype class: H5T_INTEGER
I0507 17:13:45.859830  5165 net.cpp:144] Setting up parameters
I0507 17:13:45.859849  5165 net.cpp:151] Top shape: 20 1 10 10 (2000)
I0507 17:13:45.859854  5165 net.cpp:151] Top shape: 20 (20)
I0507 17:13:45.859858  5165 net.cpp:159] Memory required for data: 8080
I0507 17:13:45.859863  5165 layer_factory.hpp:77] Creating layer conv1
I0507 17:13:45.859879  5165 net.cpp:94] Creating Layer conv1
I0507 17:13:45.859884  5165 net.cpp:435] conv1 <- data
I0507 17:13:45.859890  5165 net.cpp:409] conv1 -> conv1
I0507 17:13:45.861706  5165 net.cpp:144] Setting up conv1
I0507 17:13:45.861721  5165 net.cpp:151] Top shape: 20 64 10 10 (128000)
I0507 17:13:45.861723  5165 net.cpp:159] Memory required for data: 520080
I0507 17:13:45.861733  5165 layer_factory.hpp:77] Creating layer relu1
I0507 17:13:45.861740  5165 net.cpp:94] Creating Layer relu1
I0507 17:13:45.861744  5165 net.cpp:435] relu1 <- conv1
I0507 17:13:45.861748  5165 net.cpp:396] relu1 -> conv1 (in-place)
I0507 17:13:45.861755  5165 net.cpp:144] Setting up relu1
I0507 17:13:45.861759  5165 net.cpp:151] Top shape: 20 64 10 10 (128000)
I0507 17:13:45.861763  5165 net.cpp:159] Memory required for data: 1032080
I0507 17:13:45.861765  5165 layer_factory.hpp:77] Creating layer conv2
I0507 17:13:45.861773  5165 net.cpp:94] Creating Layer conv2
I0507 17:13:45.861775  5165 net.cpp:435] conv2 <- conv1
I0507 17:13:45.861780  5165 net.cpp:409] conv2 -> conv2
I0507 17:13:45.867096  5165 net.cpp:144] Setting up conv2
I0507 17:13:45.867110  5165 net.cpp:151] Top shape: 20 64 10 10 (128000)
I0507 17:13:45.867113  5165 net.cpp:159] Memory required for data: 1544080
I0507 17:13:45.867121  5165 layer_factory.hpp:77] Creating layer relu2
I0507 17:13:45.867127  5165 net.cpp:94] Creating Layer relu2
I0507 17:13:45.867131  5165 net.cpp:435] relu2 <- conv2
I0507 17:13:45.867136  5165 net.cpp:396] relu2 -> conv2 (in-place)
I0507 17:13:45.867142  5165 net.cpp:144] Setting up relu2
I0507 17:13:45.867146  5165 net.cpp:151] Top shape: 20 64 10 10 (128000)
I0507 17:13:45.867149  5165 net.cpp:159] Memory required for data: 2056080
I0507 17:13:45.867152  5165 layer_factory.hpp:77] Creating layer pool2
I0507 17:13:45.867157  5165 net.cpp:94] Creating Layer pool2
I0507 17:13:45.867161  5165 net.cpp:435] pool2 <- conv2
I0507 17:13:45.867164  5165 net.cpp:409] pool2 -> pool2
I0507 17:13:45.867213  5165 net.cpp:144] Setting up pool2
I0507 17:13:45.867220  5165 net.cpp:151] Top shape: 20 64 5 5 (32000)
I0507 17:13:45.867223  5165 net.cpp:159] Memory required for data: 2184080
I0507 17:13:45.867226  5165 layer_factory.hpp:77] Creating layer conv3
I0507 17:13:45.867233  5165 net.cpp:94] Creating Layer conv3
I0507 17:13:45.867236  5165 net.cpp:435] conv3 <- pool2
I0507 17:13:45.867241  5165 net.cpp:409] conv3 -> conv3
I0507 17:13:45.872192  5165 net.cpp:144] Setting up conv3
I0507 17:13:45.872206  5165 net.cpp:151] Top shape: 20 64 5 5 (32000)
I0507 17:13:45.872210  5165 net.cpp:159] Memory required for data: 2312080
I0507 17:13:45.872218  5165 layer_factory.hpp:77] Creating layer relu3
I0507 17:13:45.872223  5165 net.cpp:94] Creating Layer relu3
I0507 17:13:45.872227  5165 net.cpp:435] relu3 <- conv3
I0507 17:13:45.872231  5165 net.cpp:396] relu3 -> conv3 (in-place)
I0507 17:13:45.872238  5165 net.cpp:144] Setting up relu3
I0507 17:13:45.872242  5165 net.cpp:151] Top shape: 20 64 5 5 (32000)
I0507 17:13:45.872244  5165 net.cpp:159] Memory required for data: 2440080
I0507 17:13:45.872248  5165 layer_factory.hpp:77] Creating layer conv4
I0507 17:13:45.872256  5165 net.cpp:94] Creating Layer conv4
I0507 17:13:45.872259  5165 net.cpp:435] conv4 <- conv3
I0507 17:13:45.872264  5165 net.cpp:409] conv4 -> conv4
I0507 17:13:45.877197  5165 net.cpp:144] Setting up conv4
I0507 17:13:45.877212  5165 net.cpp:151] Top shape: 20 64 5 5 (32000)
I0507 17:13:45.877214  5165 net.cpp:159] Memory required for data: 2568080
I0507 17:13:45.877221  5165 layer_factory.hpp:77] Creating layer relu4
I0507 17:13:45.877226  5165 net.cpp:94] Creating Layer relu4
I0507 17:13:45.877230  5165 net.cpp:435] relu4 <- conv4
I0507 17:13:45.877234  5165 net.cpp:396] relu4 -> conv4 (in-place)
I0507 17:13:45.877241  5165 net.cpp:144] Setting up relu4
I0507 17:13:45.877245  5165 net.cpp:151] Top shape: 20 64 5 5 (32000)
I0507 17:13:45.877249  5165 net.cpp:159] Memory required for data: 2696080
I0507 17:13:45.877250  5165 layer_factory.hpp:77] Creating layer conv5
I0507 17:13:45.877259  5165 net.cpp:94] Creating Layer conv5
I0507 17:13:45.877261  5165 net.cpp:435] conv5 <- conv4
I0507 17:13:45.877265  5165 net.cpp:409] conv5 -> conv5
I0507 17:13:45.882592  5165 net.cpp:144] Setting up conv5
I0507 17:13:45.882606  5165 net.cpp:151] Top shape: 20 64 5 5 (32000)
I0507 17:13:45.882611  5165 net.cpp:159] Memory required for data: 2824080
I0507 17:13:45.882618  5165 layer_factory.hpp:77] Creating layer relu5
I0507 17:13:45.882623  5165 net.cpp:94] Creating Layer relu5
I0507 17:13:45.882627  5165 net.cpp:435] relu5 <- conv5
I0507 17:13:45.882632  5165 net.cpp:396] relu5 -> conv5 (in-place)
I0507 17:13:45.882638  5165 net.cpp:144] Setting up relu5
I0507 17:13:45.882642  5165 net.cpp:151] Top shape: 20 64 5 5 (32000)
I0507 17:13:45.882645  5165 net.cpp:159] Memory required for data: 2952080
I0507 17:13:45.882648  5165 layer_factory.hpp:77] Creating layer pool5
I0507 17:13:45.882653  5165 net.cpp:94] Creating Layer pool5
I0507 17:13:45.882655  5165 net.cpp:435] pool5 <- conv5
I0507 17:13:45.882660  5165 net.cpp:409] pool5 -> pool5
I0507 17:13:45.882694  5165 net.cpp:144] Setting up pool5
I0507 17:13:45.882700  5165 net.cpp:151] Top shape: 20 64 2 2 (5120)
I0507 17:13:45.882704  5165 net.cpp:159] Memory required for data: 2972560
I0507 17:13:45.882706  5165 layer_factory.hpp:77] Creating layer ip1
I0507 17:13:45.882714  5165 net.cpp:94] Creating Layer ip1
I0507 17:13:45.882716  5165 net.cpp:435] ip1 <- pool5
I0507 17:13:45.882720  5165 net.cpp:409] ip1 -> ip1
I0507 17:13:45.883229  5165 net.cpp:144] Setting up ip1
I0507 17:13:45.883237  5165 net.cpp:151] Top shape: 20 64 (1280)
I0507 17:13:45.883240  5165 net.cpp:159] Memory required for data: 2977680
I0507 17:13:45.883245  5165 layer_factory.hpp:77] Creating layer ip2
I0507 17:13:45.883251  5165 net.cpp:94] Creating Layer ip2
I0507 17:13:45.883255  5165 net.cpp:435] ip2 <- ip1
I0507 17:13:45.883260  5165 net.cpp:409] ip2 -> ip2
I0507 17:13:45.883471  5165 net.cpp:144] Setting up ip2
I0507 17:13:45.883477  5165 net.cpp:151] Top shape: 20 64 (1280)
I0507 17:13:45.883481  5165 net.cpp:159] Memory required for data: 2982800
I0507 17:13:45.883486  5165 layer_factory.hpp:77] Creating layer ip3
I0507 17:13:45.883491  5165 net.cpp:94] Creating Layer ip3
I0507 17:13:45.883494  5165 net.cpp:435] ip3 <- ip2
I0507 17:13:45.883498  5165 net.cpp:409] ip3 -> ip3
I0507 17:13:45.883687  5165 net.cpp:144] Setting up ip3
I0507 17:13:45.883693  5165 net.cpp:151] Top shape: 20 50 (1000)
I0507 17:13:45.883700  5165 net.cpp:159] Memory required for data: 2986800
I0507 17:13:45.883707  5165 layer_factory.hpp:77] Creating layer loss
I0507 17:13:45.883713  5165 net.cpp:94] Creating Layer loss
I0507 17:13:45.883715  5165 net.cpp:435] loss <- ip3
I0507 17:13:45.883719  5165 net.cpp:435] loss <- label
I0507 17:13:45.883723  5165 net.cpp:409] loss -> loss
I0507 17:13:45.883730  5165 layer_factory.hpp:77] Creating layer loss
…
I0507 17:13:45.885080  5165 solver.cpp:181] Creating test net (#0) specified by net file: ./protocol/dis_20_100_dimension.protocol_distribution
I0507 17:13:45.885107  5165 net.cpp:323] The NetState phase (1) differed from the phase (0) specified by a rule in layer parameters
I0507 17:13:45.885200  5165 net.cpp:52] Initializing net from parameters: 
state {
  phase: TEST
}
layer {
  name: "intercept"
  type: "HDF5Data"
  top: "data"
  top: "label"
  include {
    phase: TEST
  }
  hdf5_data_param {
    source: "/home/purduethu/scratch/radon/d/deng106/CNNStatisticalModel/distributions/input/20_distributions_100_sample_size_test-distributions-path.txt"
    batch_size: 20
  }
}
layer {
  name: "conv1"
  type: "Convolution"
  bottom: "data"
  top: "conv1"
  param {
    lr_mult: 1
  }
  param {
    lr_mult: 2
  }
  convolution_param {
    num_output: 64
    pad: 2
    kernel_size: 5
    stride: 1
    weight_filler {
      type: "gaussian"
      std: 0.0001
    }
    bias_filler {
      type: "constant"
    }
  }
}
layer {
  name: "relu1"
  type: "ReLU"
  bottom: "conv1"
  top: "conv1"
}
layer {
  name: "conv2"
  type: "Convolution"
  bottom: "conv1"
  top: "conv2"
  param {
    lr_mult: 1
  }
  param {
    lr_mult: 2
  }
  convolution_param {
    num_output: 64
    pad: 2
    kernel_size: 5
    stride: 1
    weight_filler {
      type: "gaussian"
      std: 0.01
    }
    bias_filler {
      type: "constant"
    }
  }
}
layer {
  name: "relu2"
  type: "ReLU"
  bottom: "conv2"
  top: "conv2"
}
layer {
  name: "pool2"
  type: "Pooling"
  bottom: "conv2"
  top: "pool2"
  pooling_param {
    pool: MAX
    kernel_size: 3
    stride: 2
  }
}
layer {
  name: "conv3"
  type: "Convolution"
  bottom: "pool2"
  top: "conv3"
  param {
    lr_mult: 1
  }
  param {
    lr_mult: 2
  }
  convolution_param {
    num_output: 64
    pad: 2
    kernel_size: 5
    stride: 1
    weight_filler {
      type: "gaussian"
      std: 0.01
    }
    bias_filler {
      type: "constant"
    }
  }
}
layer {
  name: "relu3"
  type: "ReLU"
  bottom: "conv3"
  top: "conv3"
}
layer {
  name: "conv4"
  type: "Convolution"
  bottom: "conv3"
  top: "conv4"
  param {
    lr_mult: 1
  }
  param {
    lr_mult: 2
  }
  convolution_param {
    num_output: 64
    pad: 2
    kernel_size: 5
    stride: 1
    weight_filler {
      type: "gaussian"
      std: 0.01
    }
    bias_filler {
      type: "constant"
    }
  }
}
layer {
  name: "relu4"
  type: "ReLU"
  bottom: "conv4"
  top: "conv4"
}
layer {
  name: "conv5"
  type: "Convolution"
  bottom: "conv4"
  top: "conv5"
  param {
    lr_mult: 1
  }
  param {
    lr_mult: 2
  }
  convolution_param {
    num_output: 64
    pad: 2
    kernel_size: 5
    stride: 1
    weight_filler {
      type: "gaussian"
      std: 0.01
    }
    bias_filler {
      type: "constant"
    }
  }
}
layer {
  name: "relu5"
  type: "ReLU"
  bottom: "conv5"
  top: "conv5"
}
layer {
  name: "pool5"
  type: "Pooling"
  bottom: "conv5"
  top: "pool5"
  pooling_param {
    pool: AVE
    kernel_size: 3
    stride: 2
  }
}
layer {
  name: "ip1"
  type: "InnerProduct"
  bottom: "pool5"
  top: "ip1"
  param {
    lr_mult: 1
  }
  param {
    lr_mult: 2
  }
  inner_product_param {
    num_output: 64
    weight_filler {
      type: "gaussian"
      std: 0.1
    }
    bias_filler {
      type: "constant"
    }
  }
}
layer {
  name: "ip2"
  type: "InnerProduct"
  bottom: "ip1"
  top: "ip2"
  param {
    lr_mult: 1
  }
  param {
    lr_mult: 2
  }
  inner_product_param {
    num_output: 64
    weight_filler {
      type: "gaussian"
      std: 0.1
    }
    bias_filler {
      type: "constant"
    }
  }
}
layer {
  name: "ip3"
  type: "InnerProduct"
  bottom: "ip2"
  top: "ip3"
  param {
    lr_mult: 1
  }
  param {
    lr_mult: 2
  }
  inner_product_param {
    num_output: 50
    weight_filler {
      type: "gaussian"
      std: 0.1
    }
    bias_filler {
      type: "constant"
    }
  }
}
layer {
  name: "accuracy"
  type: "Accuracy"
  bottom: "ip3"
  bottom: "label"
  top: "accuracy"
  include {
    phase: TEST
  }
}
layer {
  name: "loss"
  type: "SoftmaxWithLoss"
  bottom: "ip3"
  bottom: "label"
  top: "loss"
}
I0507 17:13:45.885263  5165 layer_factory.hpp:77] Creating layer intercept
I0507 17:13:45.885272  5165 net.cpp:94] Creating Layer intercept
I0507 17:13:45.885275  5165 net.cpp:409] intercept -> data
I0507 17:13:45.885282  5165 net.cpp:409] intercept -> label
I0507 17:13:45.885288  5165 hdf5_data_layer.cpp:79] Loading list of HDF5 filenames from: /home/purduethu/scratch/radon/d/deng106/CNNStatisticalModel/distributions/input/20_distributions_100_sample_size_test-distributions-path.txt
I0507 17:13:45.885308  5165 hdf5_data_layer.cpp:93] Number of HDF5 files: 1
I0507 17:13:45.902520  5165 net.cpp:144] Setting up intercept
I0507 17:13:45.902554  5165 net.cpp:151] Top shape: 20 1 10 10 (2000)
I0507 17:13:45.902559  5165 net.cpp:151] Top shape: 20 (20)
I0507 17:13:45.902561  5165 net.cpp:159] Memory required for data: 8080
I0507 17:13:45.902567  5165 layer_factory.hpp:77] Creating layer label_intercept_1_split
I0507 17:13:45.902586  5165 net.cpp:94] Creating Layer label_intercept_1_split
I0507 17:13:45.902591  5165 net.cpp:435] label_intercept_1_split <- label
I0507 17:13:45.902596  5165 net.cpp:409] label_intercept_1_split -> label_intercept_1_split_0
I0507 17:13:45.902604  5165 net.cpp:409] label_intercept_1_split -> label_intercept_1_split_1
I0507 17:13:45.902643  5165 net.cpp:144] Setting up label_intercept_1_split
I0507 17:13:45.902649  5165 net.cpp:151] Top shape: 20 (20)
I0507 17:13:45.902653  5165 net.cpp:151] Top shape: 20 (20)
I0507 17:13:45.902655  5165 net.cpp:159] Memory required for data: 8240
I0507 17:13:45.902658  5165 layer_factory.hpp:77] Creating layer conv1
I0507 17:13:45.902668  5165 net.cpp:94] Creating Layer conv1
I0507 17:13:45.902673  5165 net.cpp:435] conv1 <- data
I0507 17:13:45.902676  5165 net.cpp:409] conv1 -> conv1
I0507 17:13:45.903479  5165 net.cpp:144] Setting up conv1
I0507 17:13:45.903492  5165 net.cpp:151] Top shape: 20 64 10 10 (128000)
I0507 17:13:45.903503  5165 net.cpp:159] Memory required for data: 520240
I0507 17:13:45.903513  5165 layer_factory.hpp:77] Creating layer relu1
I0507 17:13:45.903519  5165 net.cpp:94] Creating Layer relu1
I0507 17:13:45.903523  5165 net.cpp:435] relu1 <- conv1
I0507 17:13:45.903527  5165 net.cpp:396] relu1 -> conv1 (in-place)
I0507 17:13:45.903534  5165 net.cpp:144] Setting up relu1
I0507 17:13:45.903538  5165 net.cpp:151] Top shape: 20 64 10 10 (128000)
I0507 17:13:45.903542  5165 net.cpp:159] Memory required for data: 1032240
I0507 17:13:45.903544  5165 layer_factory.hpp:77] Creating layer conv2
I0507 17:13:45.903551  5165 net.cpp:94] Creating Layer conv2
I0507 17:13:45.903555  5165 net.cpp:435] conv2 <- conv1
I0507 17:13:45.903559  5165 net.cpp:409] conv2 -> conv2
I0507 17:13:45.907632  5165 net.cpp:144] Setting up conv2
I0507 17:13:45.907646  5165 net.cpp:151] Top shape: 20 64 10 10 (128000)
I0507 17:13:45.907650  5165 net.cpp:159] Memory required for data: 1544240
I0507 17:13:45.907657  5165 layer_factory.hpp:77] Creating layer relu2
I0507 17:13:45.907663  5165 net.cpp:94] Creating Layer relu2
I0507 17:13:45.907666  5165 net.cpp:435] relu2 <- conv2
I0507 17:13:45.907670  5165 net.cpp:396] relu2 -> conv2 (in-place)
I0507 17:13:45.907677  5165 net.cpp:144] Setting up relu2
I0507 17:13:45.907681  5165 net.cpp:151] Top shape: 20 64 10 10 (128000)
I0507 17:13:45.907683  5165 net.cpp:159] Memory required for data: 2056240
I0507 17:13:45.907686  5165 layer_factory.hpp:77] Creating layer pool2
I0507 17:13:45.907692  5165 net.cpp:94] Creating Layer pool2
I0507 17:13:45.907696  5165 net.cpp:435] pool2 <- conv2
I0507 17:13:45.907699  5165 net.cpp:409] pool2 -> pool2
I0507 17:13:45.907747  5165 net.cpp:144] Setting up pool2
I0507 17:13:45.907754  5165 net.cpp:151] Top shape: 20 64 5 5 (32000)
I0507 17:13:45.907757  5165 net.cpp:159] Memory required for data: 2184240
I0507 17:13:45.907760  5165 layer_factory.hpp:77] Creating layer conv3
I0507 17:13:45.907768  5165 net.cpp:94] Creating Layer conv3
I0507 17:13:45.907770  5165 net.cpp:435] conv3 <- pool2
I0507 17:13:45.907775  5165 net.cpp:409] conv3 -> conv3
I0507 17:13:45.911327  5165 net.cpp:144] Setting up conv3
I0507 17:13:45.911340  5165 net.cpp:151] Top shape: 20 64 5 5 (32000)
I0507 17:13:45.911344  5165 net.cpp:159] Memory required for data: 2312240
I0507 17:13:45.911351  5165 layer_factory.hpp:77] Creating layer relu3
I0507 17:13:45.911357  5165 net.cpp:94] Creating Layer relu3
I0507 17:13:45.911361  5165 net.cpp:435] relu3 <- conv3
I0507 17:13:45.911365  5165 net.cpp:396] relu3 -> conv3 (in-place)
I0507 17:13:45.911371  5165 net.cpp:144] Setting up relu3
I0507 17:13:45.911375  5165 net.cpp:151] Top shape: 20 64 5 5 (32000)
I0507 17:13:45.911378  5165 net.cpp:159] Memory required for data: 2440240
I0507 17:13:45.911381  5165 layer_factory.hpp:77] Creating layer conv4
I0507 17:13:45.911388  5165 net.cpp:94] Creating Layer conv4
I0507 17:13:45.911391  5165 net.cpp:435] conv4 <- conv3
I0507 17:13:45.911396  5165 net.cpp:409] conv4 -> conv4
I0507 17:13:45.914947  5165 net.cpp:144] Setting up conv4
I0507 17:13:45.914959  5165 net.cpp:151] Top shape: 20 64 5 5 (32000)
I0507 17:13:45.914963  5165 net.cpp:159] Memory required for data: 2568240
I0507 17:13:45.914968  5165 layer_factory.hpp:77] Creating layer relu4
I0507 17:13:45.914974  5165 net.cpp:94] Creating Layer relu4
I0507 17:13:45.914978  5165 net.cpp:435] relu4 <- conv4
I0507 17:13:45.914981  5165 net.cpp:396] relu4 -> conv4 (in-place)
I0507 17:13:45.914988  5165 net.cpp:144] Setting up relu4
I0507 17:13:45.914991  5165 net.cpp:151] Top shape: 20 64 5 5 (32000)
I0507 17:13:45.914994  5165 net.cpp:159] Memory required for data: 2696240
I0507 17:13:45.914997  5165 layer_factory.hpp:77] Creating layer conv5
I0507 17:13:45.915004  5165 net.cpp:94] Creating Layer conv5
I0507 17:13:45.915007  5165 net.cpp:435] conv5 <- conv4
I0507 17:13:45.915012  5165 net.cpp:409] conv5 -> conv5
I0507 17:13:45.919030  5165 net.cpp:144] Setting up conv5
I0507 17:13:45.919044  5165 net.cpp:151] Top shape: 20 64 5 5 (32000)
I0507 17:13:45.919047  5165 net.cpp:159] Memory required for data: 2824240
I0507 17:13:45.919059  5165 layer_factory.hpp:77] Creating layer relu5
I0507 17:13:45.919066  5165 net.cpp:94] Creating Layer relu5
I0507 17:13:45.919070  5165 net.cpp:435] relu5 <- conv5
I0507 17:13:45.919075  5165 net.cpp:396] relu5 -> conv5 (in-place)
I0507 17:13:45.919080  5165 net.cpp:144] Setting up relu5
I0507 17:13:45.919085  5165 net.cpp:151] Top shape: 20 64 5 5 (32000)
I0507 17:13:45.919087  5165 net.cpp:159] Memory required for data: 2952240
I0507 17:13:45.919090  5165 layer_factory.hpp:77] Creating layer pool5
I0507 17:13:45.919095  5165 net.cpp:94] Creating Layer pool5
I0507 17:13:45.919097  5165 net.cpp:435] pool5 <- conv5
I0507 17:13:45.919101  5165 net.cpp:409] pool5 -> pool5
I0507 17:13:45.919137  5165 net.cpp:144] Setting up pool5
I0507 17:13:45.919144  5165 net.cpp:151] Top shape: 20 64 2 2 (5120)
I0507 17:13:45.919147  5165 net.cpp:159] Memory required for data: 2972720
I0507 17:13:45.919150  5165 layer_factory.hpp:77] Creating layer ip1
I0507 17:13:45.919157  5165 net.cpp:94] Creating Layer ip1
I0507 17:13:45.919159  5165 net.cpp:435] ip1 <- pool5
I0507 17:13:45.919164  5165 net.cpp:409] ip1 -> ip1
I0507 17:13:45.919678  5165 net.cpp:144] Setting up ip1
I0507 17:13:45.919687  5165 net.cpp:151] Top shape: 20 64 (1280)
I0507 17:13:45.919688  5165 net.cpp:159] Memory required for data: 2977840
I0507 17:13:45.919694  5165 layer_factory.hpp:77] Creating layer ip2
I0507 17:13:45.919700  5165 net.cpp:94] Creating Layer ip2
I0507 17:13:45.919703  5165 net.cpp:435] ip2 <- ip1
I0507 17:13:45.919708  5165 net.cpp:409] ip2 -> ip2
I0507 17:13:45.919925  5165 net.cpp:144] Setting up ip2
I0507 17:13:45.919931  5165 net.cpp:151] Top shape: 20 64 (1280)
I0507 17:13:45.919934  5165 net.cpp:159] Memory required for data: 2982960
I0507 17:13:45.919939  5165 layer_factory.hpp:77] Creating layer ip3
I0507 17:13:45.919947  5165 net.cpp:94] Creating Layer ip3
I0507 17:13:45.919950  5165 net.cpp:435] ip3 <- ip2
I0507 17:13:45.919955  5165 net.cpp:409] ip3 -> ip3
I0507 17:13:45.920143  5165 net.cpp:144] Setting up ip3
I0507 17:13:45.920151  5165 net.cpp:151] Top shape: 20 50 (1000)
I0507 17:13:45.920153  5165 net.cpp:159] Memory required for data: 2986960
I0507 17:13:45.920158  5165 layer_factory.hpp:77] Creating layer ip3_ip3_0_split
I0507 17:13:45.920164  5165 net.cpp:94] Creating Layer ip3_ip3_0_split
I0507 17:13:45.920166  5165 net.cpp:435] ip3_ip3_0_split <- ip3
I0507 17:13:45.920171  5165 net.cpp:409] ip3_ip3_0_split -> ip3_ip3_0_split_0
I0507 17:13:45.920176  5165 net.cpp:409] ip3_ip3_0_split -> ip3_ip3_0_split_1
I0507 17:13:45.920214  5165 net.cpp:144] Setting up ip3_ip3_0_split
I0507 17:13:45.920220  5165 net.cpp:151] Top shape: 20 50 (1000)
I0507 17:13:45.920224  5165 net.cpp:151] Top shape: 20 50 (1000)
I0507 17:13:45.920227  5165 net.cpp:159] Memory required for data: 2994960
I0507 17:13:45.920229  5165 layer_factory.hpp:77] Creating layer accuracy
I0507 17:13:45.920234  5165 net.cpp:94] Creating Layer accuracy
I0507 17:13:45.920238  5165 net.cpp:435] accuracy <- ip3_ip3_0_split_0
I0507 17:13:45.920241  5165 net.cpp:435] accuracy <- label_intercept_1_split_0
I0507 17:13:45.920245  5165 net.cpp:409] accuracy -> accuracy
…
