…
I0503 17:48:15.698570 21588 net.cpp:323] The NetState phase (0) differed from the phase (1) specified by a rule in layer intercept
I0503 17:48:15.698586 21588 net.cpp:323] The NetState phase (0) differed from the phase (1) specified by a rule in layer accuracy
I0503 17:48:15.698675 21588 net.cpp:52] Initializing net from parameters: 
state {
  phase: TRAIN
}
layer {
  name: "parameters"
  type: "HDF5Data"
  top: "data"
  top: "label"
  include {
    phase: TRAIN
  }
  hdf5_data_param {
    source: "/home/purduethu/scratch/radon/d/deng106/CNNStatisticalModel/distributions/input/50_distributions_400_sample_size_train-distributions-path.txt"
    batch_size: 20
  }
}
layer {
  name: "conv1"
  type: "Convolution"
  bottom: "data"
  top: "conv1"
  param {
    lr_mult: 1
  }
  param {
    lr_mult: 2
  }
  convolution_param {
    num_output: 64
    pad: 2
    kernel_size: 5
    stride: 1
    weight_filler {
      type: "gaussian"
      std: 0.0001
    }
    bias_filler {
      type: "constant"
    }
  }
}
layer {
  name: "relu1"
  type: "ReLU"
  bottom: "conv1"
  top: "conv1"
}
layer {
  name: "conv2"
  type: "Convolution"
  bottom: "conv1"
  top: "conv2"
  param {
    lr_mult: 1
  }
  param {
    lr_mult: 2
  }
  convolution_param {
    num_output: 64
    pad: 2
    kernel_size: 5
    stride: 1
    weight_filler {
      type: "gaussian"
      std: 0.01
    }
    bias_filler {
      type: "constant"
    }
  }
}
layer {
  name: "relu2"
  type: "ReLU"
  bottom: "conv2"
  top: "conv2"
}
layer {
  name: "pool2"
  type: "Pooling"
  bottom: "conv2"
  top: "pool2"
  pooling_param {
    pool: MAX
    kernel_size: 3
    stride: 2
  }
}
layer {
  name: "conv3"
  type: "Convolution"
  bottom: "pool2"
  top: "conv3"
  param {
    lr_mult: 1
  }
  param {
    lr_mult: 2
  }
  convolution_param {
    num_output: 128
    pad: 2
    kernel_size: 5
    stride: 1
    weight_filler {
      type: "gaussian"
      std: 0.01
    }
    bias_filler {
      type: "constant"
    }
  }
}
layer {
  name: "relu3"
  type: "ReLU"
  bottom: "conv3"
  top: "conv3"
}
layer {
  name: "conv4"
  type: "Convolution"
  bottom: "conv3"
  top: "conv4"
  param {
    lr_mult: 1
  }
  param {
    lr_mult: 2
  }
  convolution_param {
    num_output: 128
    pad: 2
    kernel_size: 5
    stride: 1
    weight_filler {
      type: "gaussian"
      std: 0.01
    }
    bias_filler {
      type: "constant"
    }
  }
}
layer {
  name: "relu4"
  type: "ReLU"
  bottom: "conv4"
  top: "conv4"
}
layer {
  name: "conv5"
  type: "Convolution"
  bottom: "conv4"
  top: "conv5"
  param {
    lr_mult: 1
  }
  param {
    lr_mult: 2
  }
  convolution_param {
    num_output: 128
    pad: 2
    kernel_size: 5
    stride: 1
    weight_filler {
      type: "gaussian"
      std: 0.01
    }
    bias_filler {
      type: "constant"
    }
  }
}
layer {
  name: "relu5"
  type: "ReLU"
  bottom: "conv5"
  top: "conv5"
}
layer {
  name: "pool5"
  type: "Pooling"
  bottom: "conv5"
  top: "pool5"
  pooling_param {
    pool: AVE
    kernel_size: 3
    stride: 2
  }
}
layer {
  name: "ip1"
  type: "InnerProduct"
  bottom: "pool5"
  top: "ip1"
  param {
    lr_mult: 1
  }
  param {
    lr_mult: 2
  }
  inner_product_param {
    num_output: 1024
    weight_filler {
      type: "gaussian"
      std: 0.1
    }
    bias_filler {
      type: "constant"
    }
  }
}
layer {
  name: "ip2"
  type: "InnerProduct"
  bottom: "ip1"
  top: "ip2"
  param {
    lr_mult: 1
  }
  param {
    lr_mult: 2
  }
  inner_product_param {
    num_output: 512
    weight_filler {
      type: "gaussian"
      std: 0.1
    }
    bias_filler {
      type: "constant"
    }
  }
}
layer {
  name: "ip3"
  type: "InnerProduct"
  bottom: "ip2"
  top: "ip3"
  param {
    lr_mult: 1
  }
  param {
    lr_mult: 2
  }
  inner_product_param {
    num_output: 50
    weight_filler {
      type: "gaussian"
      std: 0.1
    }
    bias_filler {
      type: "constant"
    }
  }
}
layer {
  name: "loss"
  type: "SoftmaxWithLoss"
  bottom: "ip3"
  bottom: "label"
  top: "loss"
}
I0503 17:48:15.698751 21588 layer_factory.hpp:77] Creating layer parameters
I0503 17:48:15.698765 21588 net.cpp:94] Creating Layer parameters
I0503 17:48:15.698771 21588 net.cpp:409] parameters -> data
I0503 17:48:15.698791 21588 net.cpp:409] parameters -> label
I0503 17:48:15.698801 21588 hdf5_data_layer.cpp:79] Loading list of HDF5 filenames from: /home/purduethu/scratch/radon/d/deng106/CNNStatisticalModel/distributions/input/50_distributions_400_sample_size_train-distributions-path.txt
I0503 17:48:15.698827 21588 hdf5_data_layer.cpp:93] Number of HDF5 files: 1
I0503 17:48:15.699398 21588 hdf5.cpp:32] Datatype class: H5T_FLOAT
I0503 17:48:16.342247 21588 hdf5.cpp:35] Datatype class: H5T_INTEGER
I0503 17:48:16.345126 21588 net.cpp:144] Setting up parameters
I0503 17:48:16.345149 21588 net.cpp:151] Top shape: 20 1 20 20 (8000)
I0503 17:48:16.345155 21588 net.cpp:151] Top shape: 20 (20)
I0503 17:48:16.345160 21588 net.cpp:159] Memory required for data: 32080
I0503 17:48:16.345167 21588 layer_factory.hpp:77] Creating layer conv1
I0503 17:48:16.345191 21588 net.cpp:94] Creating Layer conv1
I0503 17:48:16.345196 21588 net.cpp:435] conv1 <- data
I0503 17:48:16.345207 21588 net.cpp:409] conv1 -> conv1
I0503 17:48:16.349938 21588 net.cpp:144] Setting up conv1
I0503 17:48:16.349956 21588 net.cpp:151] Top shape: 20 64 20 20 (512000)
I0503 17:48:16.349959 21588 net.cpp:159] Memory required for data: 2080080
I0503 17:48:16.349972 21588 layer_factory.hpp:77] Creating layer relu1
I0503 17:48:16.349980 21588 net.cpp:94] Creating Layer relu1
I0503 17:48:16.349983 21588 net.cpp:435] relu1 <- conv1
I0503 17:48:16.349988 21588 net.cpp:396] relu1 -> conv1 (in-place)
I0503 17:48:16.350006 21588 net.cpp:144] Setting up relu1
I0503 17:48:16.350011 21588 net.cpp:151] Top shape: 20 64 20 20 (512000)
I0503 17:48:16.350014 21588 net.cpp:159] Memory required for data: 4128080
I0503 17:48:16.350018 21588 layer_factory.hpp:77] Creating layer conv2
I0503 17:48:16.350026 21588 net.cpp:94] Creating Layer conv2
I0503 17:48:16.350030 21588 net.cpp:435] conv2 <- conv1
I0503 17:48:16.350035 21588 net.cpp:409] conv2 -> conv2
I0503 17:48:16.360466 21588 net.cpp:144] Setting up conv2
I0503 17:48:16.360481 21588 net.cpp:151] Top shape: 20 64 20 20 (512000)
I0503 17:48:16.360484 21588 net.cpp:159] Memory required for data: 6176080
I0503 17:48:16.360492 21588 layer_factory.hpp:77] Creating layer relu2
I0503 17:48:16.360502 21588 net.cpp:94] Creating Layer relu2
I0503 17:48:16.360507 21588 net.cpp:435] relu2 <- conv2
I0503 17:48:16.360512 21588 net.cpp:396] relu2 -> conv2 (in-place)
I0503 17:48:16.360518 21588 net.cpp:144] Setting up relu2
I0503 17:48:16.360522 21588 net.cpp:151] Top shape: 20 64 20 20 (512000)
I0503 17:48:16.360525 21588 net.cpp:159] Memory required for data: 8224080
I0503 17:48:16.360529 21588 layer_factory.hpp:77] Creating layer pool2
I0503 17:48:16.360543 21588 net.cpp:94] Creating Layer pool2
I0503 17:48:16.360546 21588 net.cpp:435] pool2 <- conv2
I0503 17:48:16.360559 21588 net.cpp:409] pool2 -> pool2
I0503 17:48:16.360605 21588 net.cpp:144] Setting up pool2
I0503 17:48:16.360612 21588 net.cpp:151] Top shape: 20 64 10 10 (128000)
I0503 17:48:16.360616 21588 net.cpp:159] Memory required for data: 8736080
I0503 17:48:16.360620 21588 layer_factory.hpp:77] Creating layer conv3
I0503 17:48:16.360627 21588 net.cpp:94] Creating Layer conv3
I0503 17:48:16.360631 21588 net.cpp:435] conv3 <- pool2
I0503 17:48:16.360644 21588 net.cpp:409] conv3 -> conv3
I0503 17:48:16.369890 21588 net.cpp:144] Setting up conv3
I0503 17:48:16.369905 21588 net.cpp:151] Top shape: 20 128 10 10 (256000)
I0503 17:48:16.369910 21588 net.cpp:159] Memory required for data: 9760080
I0503 17:48:16.369918 21588 layer_factory.hpp:77] Creating layer relu3
I0503 17:48:16.369925 21588 net.cpp:94] Creating Layer relu3
I0503 17:48:16.369928 21588 net.cpp:435] relu3 <- conv3
I0503 17:48:16.369932 21588 net.cpp:396] relu3 -> conv3 (in-place)
I0503 17:48:16.369940 21588 net.cpp:144] Setting up relu3
I0503 17:48:16.369945 21588 net.cpp:151] Top shape: 20 128 10 10 (256000)
I0503 17:48:16.369947 21588 net.cpp:159] Memory required for data: 10784080
I0503 17:48:16.369951 21588 layer_factory.hpp:77] Creating layer conv4
I0503 17:48:16.369958 21588 net.cpp:94] Creating Layer conv4
I0503 17:48:16.369962 21588 net.cpp:435] conv4 <- conv3
I0503 17:48:16.369967 21588 net.cpp:409] conv4 -> conv4
I0503 17:48:16.387420 21588 net.cpp:144] Setting up conv4
I0503 17:48:16.387435 21588 net.cpp:151] Top shape: 20 128 10 10 (256000)
I0503 17:48:16.387440 21588 net.cpp:159] Memory required for data: 11808080
I0503 17:48:16.387446 21588 layer_factory.hpp:77] Creating layer relu4
I0503 17:48:16.387452 21588 net.cpp:94] Creating Layer relu4
I0503 17:48:16.387456 21588 net.cpp:435] relu4 <- conv4
I0503 17:48:16.387461 21588 net.cpp:396] relu4 -> conv4 (in-place)
I0503 17:48:16.387468 21588 net.cpp:144] Setting up relu4
I0503 17:48:16.387473 21588 net.cpp:151] Top shape: 20 128 10 10 (256000)
I0503 17:48:16.387476 21588 net.cpp:159] Memory required for data: 12832080
I0503 17:48:16.387480 21588 layer_factory.hpp:77] Creating layer conv5
I0503 17:48:16.387487 21588 net.cpp:94] Creating Layer conv5
I0503 17:48:16.387490 21588 net.cpp:435] conv5 <- conv4
I0503 17:48:16.387495 21588 net.cpp:409] conv5 -> conv5
I0503 17:48:16.404700 21588 net.cpp:144] Setting up conv5
I0503 17:48:16.404714 21588 net.cpp:151] Top shape: 20 128 10 10 (256000)
I0503 17:48:16.404719 21588 net.cpp:159] Memory required for data: 13856080
I0503 17:48:16.404727 21588 layer_factory.hpp:77] Creating layer relu5
I0503 17:48:16.404734 21588 net.cpp:94] Creating Layer relu5
I0503 17:48:16.404737 21588 net.cpp:435] relu5 <- conv5
I0503 17:48:16.404742 21588 net.cpp:396] relu5 -> conv5 (in-place)
I0503 17:48:16.404749 21588 net.cpp:144] Setting up relu5
I0503 17:48:16.404753 21588 net.cpp:151] Top shape: 20 128 10 10 (256000)
I0503 17:48:16.404757 21588 net.cpp:159] Memory required for data: 14880080
I0503 17:48:16.404760 21588 layer_factory.hpp:77] Creating layer pool5
I0503 17:48:16.404765 21588 net.cpp:94] Creating Layer pool5
I0503 17:48:16.404768 21588 net.cpp:435] pool5 <- conv5
I0503 17:48:16.404772 21588 net.cpp:409] pool5 -> pool5
I0503 17:48:16.404808 21588 net.cpp:144] Setting up pool5
I0503 17:48:16.404815 21588 net.cpp:151] Top shape: 20 128 5 5 (64000)
I0503 17:48:16.404819 21588 net.cpp:159] Memory required for data: 15136080
I0503 17:48:16.404821 21588 layer_factory.hpp:77] Creating layer ip1
I0503 17:48:16.404831 21588 net.cpp:94] Creating Layer ip1
I0503 17:48:16.404835 21588 net.cpp:435] ip1 <- pool5
I0503 17:48:16.404839 21588 net.cpp:409] ip1 -> ip1
I0503 17:48:16.483659 21588 net.cpp:144] Setting up ip1
I0503 17:48:16.483690 21588 net.cpp:151] Top shape: 20 1024 (20480)
I0503 17:48:16.483693 21588 net.cpp:159] Memory required for data: 15218000
I0503 17:48:16.483701 21588 layer_factory.hpp:77] Creating layer ip2
I0503 17:48:16.483717 21588 net.cpp:94] Creating Layer ip2
I0503 17:48:16.483722 21588 net.cpp:435] ip2 <- ip1
I0503 17:48:16.483728 21588 net.cpp:409] ip2 -> ip2
I0503 17:48:16.496647 21588 net.cpp:144] Setting up ip2
I0503 17:48:16.496661 21588 net.cpp:151] Top shape: 20 512 (10240)
I0503 17:48:16.496665 21588 net.cpp:159] Memory required for data: 15258960
I0503 17:48:16.496671 21588 layer_factory.hpp:77] Creating layer ip3
I0503 17:48:16.496677 21588 net.cpp:94] Creating Layer ip3
I0503 17:48:16.496681 21588 net.cpp:435] ip3 <- ip2
I0503 17:48:16.496686 21588 net.cpp:409] ip3 -> ip3
I0503 17:48:16.498000 21588 net.cpp:144] Setting up ip3
I0503 17:48:16.498013 21588 net.cpp:151] Top shape: 20 50 (1000)
I0503 17:48:16.498016 21588 net.cpp:159] Memory required for data: 15262960
I0503 17:48:16.498023 21588 layer_factory.hpp:77] Creating layer loss
I0503 17:48:16.498030 21588 net.cpp:94] Creating Layer loss
I0503 17:48:16.498034 21588 net.cpp:435] loss <- ip3
I0503 17:48:16.498037 21588 net.cpp:435] loss <- label
I0503 17:48:16.498044 21588 net.cpp:409] loss -> loss
I0503 17:48:16.498060 21588 layer_factory.hpp:77] Creating layer loss
…
I0503 17:48:16.498550 21588 solver.cpp:181] Creating test net (#0) specified by net file: ./protocol/dis_50_400_dimension.protocol_distribution
I0503 17:48:16.498577 21588 net.cpp:323] The NetState phase (1) differed from the phase (0) specified by a rule in layer parameters
I0503 17:48:16.498670 21588 net.cpp:52] Initializing net from parameters: 
state {
  phase: TEST
}
layer {
  name: "intercept"
  type: "HDF5Data"
  top: "data"
  top: "label"
  include {
    phase: TEST
  }
  hdf5_data_param {
    source: "/home/purduethu/scratch/radon/d/deng106/CNNStatisticalModel/distributions/input/50_distributions_400_sample_size_test-distributions-path.txt"
    batch_size: 20
  }
}
layer {
  name: "conv1"
  type: "Convolution"
  bottom: "data"
  top: "conv1"
  param {
    lr_mult: 1
  }
  param {
    lr_mult: 2
  }
  convolution_param {
    num_output: 64
    pad: 2
    kernel_size: 5
    stride: 1
    weight_filler {
      type: "gaussian"
      std: 0.0001
    }
    bias_filler {
      type: "constant"
    }
  }
}
layer {
  name: "relu1"
  type: "ReLU"
  bottom: "conv1"
  top: "conv1"
}
layer {
  name: "conv2"
  type: "Convolution"
  bottom: "conv1"
  top: "conv2"
  param {
    lr_mult: 1
  }
  param {
    lr_mult: 2
  }
  convolution_param {
    num_output: 64
    pad: 2
    kernel_size: 5
    stride: 1
    weight_filler {
      type: "gaussian"
      std: 0.01
    }
    bias_filler {
      type: "constant"
    }
  }
}
layer {
  name: "relu2"
  type: "ReLU"
  bottom: "conv2"
  top: "conv2"
}
layer {
  name: "pool2"
  type: "Pooling"
  bottom: "conv2"
  top: "pool2"
  pooling_param {
    pool: MAX
    kernel_size: 3
    stride: 2
  }
}
layer {
  name: "conv3"
  type: "Convolution"
  bottom: "pool2"
  top: "conv3"
  param {
    lr_mult: 1
  }
  param {
    lr_mult: 2
  }
  convolution_param {
    num_output: 128
    pad: 2
    kernel_size: 5
    stride: 1
    weight_filler {
      type: "gaussian"
      std: 0.01
    }
    bias_filler {
      type: "constant"
    }
  }
}
layer {
  name: "relu3"
  type: "ReLU"
  bottom: "conv3"
  top: "conv3"
}
layer {
  name: "conv4"
  type: "Convolution"
  bottom: "conv3"
  top: "conv4"
  param {
    lr_mult: 1
  }
  param {
    lr_mult: 2
  }
  convolution_param {
    num_output: 128
    pad: 2
    kernel_size: 5
    stride: 1
    weight_filler {
      type: "gaussian"
      std: 0.01
    }
    bias_filler {
      type: "constant"
    }
  }
}
layer {
  name: "relu4"
  type: "ReLU"
  bottom: "conv4"
  top: "conv4"
}
layer {
  name: "conv5"
  type: "Convolution"
  bottom: "conv4"
  top: "conv5"
  param {
    lr_mult: 1
  }
  param {
    lr_mult: 2
  }
  convolution_param {
    num_output: 128
    pad: 2
    kernel_size: 5
    stride: 1
    weight_filler {
      type: "gaussian"
      std: 0.01
    }
    bias_filler {
      type: "constant"
    }
  }
}
layer {
  name: "relu5"
  type: "ReLU"
  bottom: "conv5"
  top: "conv5"
}
layer {
  name: "pool5"
  type: "Pooling"
  bottom: "conv5"
  top: "pool5"
  pooling_param {
    pool: AVE
    kernel_size: 3
    stride: 2
  }
}
layer {
  name: "ip1"
  type: "InnerProduct"
  bottom: "pool5"
  top: "ip1"
  param {
    lr_mult: 1
  }
  param {
    lr_mult: 2
  }
  inner_product_param {
    num_output: 1024
    weight_filler {
      type: "gaussian"
      std: 0.1
    }
    bias_filler {
      type: "constant"
    }
  }
}
layer {
  name: "ip2"
  type: "InnerProduct"
  bottom: "ip1"
  top: "ip2"
  param {
    lr_mult: 1
  }
  param {
    lr_mult: 2
  }
  inner_product_param {
    num_output: 512
    weight_filler {
      type: "gaussian"
      std: 0.1
    }
    bias_filler {
      type: "constant"
    }
  }
}
layer {
  name: "ip3"
  type: "InnerProduct"
  bottom: "ip2"
  top: "ip3"
  param {
    lr_mult: 1
  }
  param {
    lr_mult: 2
  }
  inner_product_param {
    num_output: 50
    weight_filler {
      type: "gaussian"
      std: 0.1
    }
    bias_filler {
      type: "constant"
    }
  }
}
layer {
  name: "accuracy"
  type: "Accuracy"
  bottom: "ip3"
  bottom: "label"
  top: "accuracy"
  include {
    phase: TEST
  }
}
layer {
  name: "loss"
  type: "SoftmaxWithLoss"
  bottom: "ip3"
  bottom: "label"
  top: "loss"
}
I0503 17:48:16.498740 21588 layer_factory.hpp:77] Creating layer intercept
I0503 17:48:16.498749 21588 net.cpp:94] Creating Layer intercept
I0503 17:48:16.498752 21588 net.cpp:409] intercept -> data
I0503 17:48:16.498759 21588 net.cpp:409] intercept -> label
I0503 17:48:16.498765 21588 hdf5_data_layer.cpp:79] Loading list of HDF5 filenames from: /home/purduethu/scratch/radon/d/deng106/CNNStatisticalModel/distributions/input/50_distributions_400_sample_size_test-distributions-path.txt
I0503 17:48:16.498785 21588 hdf5_data_layer.cpp:93] Number of HDF5 files: 1
I0503 17:48:16.660362 21588 net.cpp:144] Setting up intercept
I0503 17:48:16.660399 21588 net.cpp:151] Top shape: 20 1 20 20 (8000)
I0503 17:48:16.660405 21588 net.cpp:151] Top shape: 20 (20)
I0503 17:48:16.660409 21588 net.cpp:159] Memory required for data: 32080
I0503 17:48:16.660415 21588 layer_factory.hpp:77] Creating layer label_intercept_1_split
I0503 17:48:16.660434 21588 net.cpp:94] Creating Layer label_intercept_1_split
I0503 17:48:16.660439 21588 net.cpp:435] label_intercept_1_split <- label
I0503 17:48:16.660445 21588 net.cpp:409] label_intercept_1_split -> label_intercept_1_split_0
I0503 17:48:16.660454 21588 net.cpp:409] label_intercept_1_split -> label_intercept_1_split_1
I0503 17:48:16.660490 21588 net.cpp:144] Setting up label_intercept_1_split
I0503 17:48:16.660497 21588 net.cpp:151] Top shape: 20 (20)
I0503 17:48:16.660501 21588 net.cpp:151] Top shape: 20 (20)
I0503 17:48:16.660504 21588 net.cpp:159] Memory required for data: 32240
I0503 17:48:16.660507 21588 layer_factory.hpp:77] Creating layer conv1
I0503 17:48:16.660519 21588 net.cpp:94] Creating Layer conv1
I0503 17:48:16.660523 21588 net.cpp:435] conv1 <- data
I0503 17:48:16.660528 21588 net.cpp:409] conv1 -> conv1
I0503 17:48:16.661285 21588 net.cpp:144] Setting up conv1
I0503 17:48:16.661298 21588 net.cpp:151] Top shape: 20 64 20 20 (512000)
I0503 17:48:16.661303 21588 net.cpp:159] Memory required for data: 2080240
I0503 17:48:16.661312 21588 layer_factory.hpp:77] Creating layer relu1
I0503 17:48:16.661319 21588 net.cpp:94] Creating Layer relu1
I0503 17:48:16.661324 21588 net.cpp:435] relu1 <- conv1
I0503 17:48:16.661327 21588 net.cpp:396] relu1 -> conv1 (in-place)
I0503 17:48:16.661334 21588 net.cpp:144] Setting up relu1
I0503 17:48:16.661339 21588 net.cpp:151] Top shape: 20 64 20 20 (512000)
I0503 17:48:16.661342 21588 net.cpp:159] Memory required for data: 4128240
I0503 17:48:16.661345 21588 layer_factory.hpp:77] Creating layer conv2
I0503 17:48:16.661353 21588 net.cpp:94] Creating Layer conv2
I0503 17:48:16.661356 21588 net.cpp:435] conv2 <- conv1
I0503 17:48:16.661361 21588 net.cpp:409] conv2 -> conv2
I0503 17:48:16.666220 21588 net.cpp:144] Setting up conv2
I0503 17:48:16.666259 21588 net.cpp:151] Top shape: 20 64 20 20 (512000)
I0503 17:48:16.666270 21588 net.cpp:159] Memory required for data: 6176240
I0503 17:48:16.666292 21588 layer_factory.hpp:77] Creating layer relu2
I0503 17:48:16.666308 21588 net.cpp:94] Creating Layer relu2
I0503 17:48:16.666319 21588 net.cpp:435] relu2 <- conv2
I0503 17:48:16.666332 21588 net.cpp:396] relu2 -> conv2 (in-place)
I0503 17:48:16.666352 21588 net.cpp:144] Setting up relu2
I0503 17:48:16.666365 21588 net.cpp:151] Top shape: 20 64 20 20 (512000)
I0503 17:48:16.666374 21588 net.cpp:159] Memory required for data: 8224240
I0503 17:48:16.666383 21588 layer_factory.hpp:77] Creating layer pool2
I0503 17:48:16.666399 21588 net.cpp:94] Creating Layer pool2
I0503 17:48:16.666407 21588 net.cpp:435] pool2 <- conv2
I0503 17:48:16.666420 21588 net.cpp:409] pool2 -> pool2
I0503 17:48:16.666512 21588 net.cpp:144] Setting up pool2
I0503 17:48:16.666528 21588 net.cpp:151] Top shape: 20 64 10 10 (128000)
I0503 17:48:16.666538 21588 net.cpp:159] Memory required for data: 8736240
I0503 17:48:16.666548 21588 layer_factory.hpp:77] Creating layer conv3
I0503 17:48:16.666568 21588 net.cpp:94] Creating Layer conv3
I0503 17:48:16.666577 21588 net.cpp:435] conv3 <- pool2
I0503 17:48:16.666591 21588 net.cpp:409] conv3 -> conv3
I0503 17:48:16.673727 21588 net.cpp:144] Setting up conv3
I0503 17:48:16.673741 21588 net.cpp:151] Top shape: 20 128 10 10 (256000)
I0503 17:48:16.673745 21588 net.cpp:159] Memory required for data: 9760240
I0503 17:48:16.673753 21588 layer_factory.hpp:77] Creating layer relu3
I0503 17:48:16.673760 21588 net.cpp:94] Creating Layer relu3
I0503 17:48:16.673764 21588 net.cpp:435] relu3 <- conv3
I0503 17:48:16.673769 21588 net.cpp:396] relu3 -> conv3 (in-place)
I0503 17:48:16.673776 21588 net.cpp:144] Setting up relu3
I0503 17:48:16.673780 21588 net.cpp:151] Top shape: 20 128 10 10 (256000)
I0503 17:48:16.673784 21588 net.cpp:159] Memory required for data: 10784240
I0503 17:48:16.673786 21588 layer_factory.hpp:77] Creating layer conv4
I0503 17:48:16.673794 21588 net.cpp:94] Creating Layer conv4
I0503 17:48:16.673799 21588 net.cpp:435] conv4 <- conv3
I0503 17:48:16.673802 21588 net.cpp:409] conv4 -> conv4
I0503 17:48:16.687261 21588 net.cpp:144] Setting up conv4
I0503 17:48:16.687275 21588 net.cpp:151] Top shape: 20 128 10 10 (256000)
I0503 17:48:16.687279 21588 net.cpp:159] Memory required for data: 11808240
I0503 17:48:16.687286 21588 layer_factory.hpp:77] Creating layer relu4
I0503 17:48:16.687292 21588 net.cpp:94] Creating Layer relu4
I0503 17:48:16.687299 21588 net.cpp:435] relu4 <- conv4
I0503 17:48:16.687304 21588 net.cpp:396] relu4 -> conv4 (in-place)
I0503 17:48:16.687311 21588 net.cpp:144] Setting up relu4
I0503 17:48:16.687316 21588 net.cpp:151] Top shape: 20 128 10 10 (256000)
I0503 17:48:16.687319 21588 net.cpp:159] Memory required for data: 12832240
I0503 17:48:16.687322 21588 layer_factory.hpp:77] Creating layer conv5
I0503 17:48:16.687330 21588 net.cpp:94] Creating Layer conv5
I0503 17:48:16.687333 21588 net.cpp:435] conv5 <- conv4
I0503 17:48:16.687338 21588 net.cpp:409] conv5 -> conv5
I0503 17:48:16.700402 21588 net.cpp:144] Setting up conv5
I0503 17:48:16.700438 21588 net.cpp:151] Top shape: 20 128 10 10 (256000)
I0503 17:48:16.700448 21588 net.cpp:159] Memory required for data: 13856240
I0503 17:48:16.700471 21588 layer_factory.hpp:77] Creating layer relu5
I0503 17:48:16.700487 21588 net.cpp:94] Creating Layer relu5
I0503 17:48:16.700497 21588 net.cpp:435] relu5 <- conv5
I0503 17:48:16.700510 21588 net.cpp:396] relu5 -> conv5 (in-place)
I0503 17:48:16.700529 21588 net.cpp:144] Setting up relu5
I0503 17:48:16.700541 21588 net.cpp:151] Top shape: 20 128 10 10 (256000)
I0503 17:48:16.700572 21588 net.cpp:159] Memory required for data: 14880240
I0503 17:48:16.700583 21588 layer_factory.hpp:77] Creating layer pool5
I0503 17:48:16.700598 21588 net.cpp:94] Creating Layer pool5
I0503 17:48:16.700608 21588 net.cpp:435] pool5 <- conv5
I0503 17:48:16.700619 21588 net.cpp:409] pool5 -> pool5
I0503 17:48:16.700685 21588 net.cpp:144] Setting up pool5
I0503 17:48:16.700702 21588 net.cpp:151] Top shape: 20 128 5 5 (64000)
I0503 17:48:16.700711 21588 net.cpp:159] Memory required for data: 15136240
I0503 17:48:16.700721 21588 layer_factory.hpp:77] Creating layer ip1
I0503 17:48:16.700736 21588 net.cpp:94] Creating Layer ip1
I0503 17:48:16.700747 21588 net.cpp:435] ip1 <- pool5
I0503 17:48:16.700758 21588 net.cpp:409] ip1 -> ip1
I0503 17:48:16.781385 21588 net.cpp:144] Setting up ip1
I0503 17:48:16.781417 21588 net.cpp:151] Top shape: 20 1024 (20480)
I0503 17:48:16.781421 21588 net.cpp:159] Memory required for data: 15218160
I0503 17:48:16.781430 21588 layer_factory.hpp:77] Creating layer ip2
I0503 17:48:16.781438 21588 net.cpp:94] Creating Layer ip2
I0503 17:48:16.781442 21588 net.cpp:435] ip2 <- ip1
I0503 17:48:16.781450 21588 net.cpp:409] ip2 -> ip2
I0503 17:48:16.794618 21588 net.cpp:144] Setting up ip2
I0503 17:48:16.794634 21588 net.cpp:151] Top shape: 20 512 (10240)
I0503 17:48:16.794638 21588 net.cpp:159] Memory required for data: 15259120
I0503 17:48:16.794644 21588 layer_factory.hpp:77] Creating layer ip3
I0503 17:48:16.794653 21588 net.cpp:94] Creating Layer ip3
I0503 17:48:16.794657 21588 net.cpp:435] ip3 <- ip2
I0503 17:48:16.794663 21588 net.cpp:409] ip3 -> ip3
I0503 17:48:16.795356 21588 net.cpp:144] Setting up ip3
I0503 17:48:16.795364 21588 net.cpp:151] Top shape: 20 50 (1000)
I0503 17:48:16.795367 21588 net.cpp:159] Memory required for data: 15263120
I0503 17:48:16.795372 21588 layer_factory.hpp:77] Creating layer ip3_ip3_0_split
I0503 17:48:16.795377 21588 net.cpp:94] Creating Layer ip3_ip3_0_split
I0503 17:48:16.795382 21588 net.cpp:435] ip3_ip3_0_split <- ip3
I0503 17:48:16.795385 21588 net.cpp:409] ip3_ip3_0_split -> ip3_ip3_0_split_0
I0503 17:48:16.795390 21588 net.cpp:409] ip3_ip3_0_split -> ip3_ip3_0_split_1
I0503 17:48:16.795416 21588 net.cpp:144] Setting up ip3_ip3_0_split
I0503 17:48:16.795423 21588 net.cpp:151] Top shape: 20 50 (1000)
I0503 17:48:16.795425 21588 net.cpp:151] Top shape: 20 50 (1000)
I0503 17:48:16.795428 21588 net.cpp:159] Memory required for data: 15271120
I0503 17:48:16.795433 21588 layer_factory.hpp:77] Creating layer accuracy
I0503 17:48:16.795438 21588 net.cpp:94] Creating Layer accuracy
I0503 17:48:16.795441 21588 net.cpp:435] accuracy <- ip3_ip3_0_split_0
I0503 17:48:16.795445 21588 net.cpp:435] accuracy <- label_intercept_1_split_0
I0503 17:48:16.795450 21588 net.cpp:409] accuracy -> accuracy
…
