…
I0503 18:20:14.549635 21836 net.cpp:323] The NetState phase (0) differed from the phase (1) specified by a rule in layer intercept
I0503 18:20:14.549661 21836 net.cpp:323] The NetState phase (0) differed from the phase (1) specified by a rule in layer accuracy
I0503 18:20:14.549808 21836 net.cpp:52] Initializing net from parameters: 
state {
  phase: TRAIN
}
layer {
  name: "parameters"
  type: "HDF5Data"
  top: "data"
  top: "label"
  include {
    phase: TRAIN
  }
  hdf5_data_param {
    source: "/home/purduethu/scratch/radon/d/deng106/CNNStatisticalModel/distributions/input/50_distributions_100_sample_size_train-distributions-path.txt"
    batch_size: 20
  }
}
layer {
  name: "conv1"
  type: "Convolution"
  bottom: "data"
  top: "conv1"
  param {
    lr_mult: 1
  }
  param {
    lr_mult: 2
  }
  convolution_param {
    num_output: 64
    pad: 2
    kernel_size: 5
    stride: 1
    weight_filler {
      type: "gaussian"
      std: 0.0001
    }
    bias_filler {
      type: "constant"
    }
  }
}
layer {
  name: "relu1"
  type: "ReLU"
  bottom: "conv1"
  top: "conv1"
}
layer {
  name: "conv2"
  type: "Convolution"
  bottom: "conv1"
  top: "conv2"
  param {
    lr_mult: 1
  }
  param {
    lr_mult: 2
  }
  convolution_param {
    num_output: 64
    pad: 2
    kernel_size: 5
    stride: 1
    weight_filler {
      type: "gaussian"
      std: 0.01
    }
    bias_filler {
      type: "constant"
    }
  }
}
layer {
  name: "relu2"
  type: "ReLU"
  bottom: "conv2"
  top: "conv2"
}
layer {
  name: "pool2"
  type: "Pooling"
  bottom: "conv2"
  top: "pool2"
  pooling_param {
    pool: MAX
    kernel_size: 3
    stride: 2
  }
}
layer {
  name: "conv3"
  type: "Convolution"
  bottom: "pool2"
  top: "conv3"
  param {
    lr_mult: 1
  }
  param {
    lr_mult: 2
  }
  convolution_param {
    num_output: 128
    pad: 2
    kernel_size: 5
    stride: 1
    weight_filler {
      type: "gaussian"
      std: 0.01
    }
    bias_filler {
      type: "constant"
    }
  }
}
layer {
  name: "relu3"
  type: "ReLU"
  bottom: "conv3"
  top: "conv3"
}
layer {
  name: "conv4"
  type: "Convolution"
  bottom: "conv3"
  top: "conv4"
  param {
    lr_mult: 1
  }
  param {
    lr_mult: 2
  }
  convolution_param {
    num_output: 128
    pad: 2
    kernel_size: 5
    stride: 1
    weight_filler {
      type: "gaussian"
      std: 0.01
    }
    bias_filler {
      type: "constant"
    }
  }
}
layer {
  name: "relu4"
  type: "ReLU"
  bottom: "conv4"
  top: "conv4"
}
layer {
  name: "conv5"
  type: "Convolution"
  bottom: "conv4"
  top: "conv5"
  param {
    lr_mult: 1
  }
  param {
    lr_mult: 2
  }
  convolution_param {
    num_output: 128
    pad: 2
    kernel_size: 5
    stride: 1
    weight_filler {
      type: "gaussian"
      std: 0.01
    }
    bias_filler {
      type: "constant"
    }
  }
}
layer {
  name: "relu5"
  type: "ReLU"
  bottom: "conv5"
  top: "conv5"
}
layer {
  name: "pool5"
  type: "Pooling"
  bottom: "conv5"
  top: "pool5"
  pooling_param {
    pool: AVE
    kernel_size: 3
    stride: 2
  }
}
layer {
  name: "ip1"
  type: "InnerProduct"
  bottom: "pool5"
  top: "ip1"
  param {
    lr_mult: 1
  }
  param {
    lr_mult: 2
  }
  inner_product_param {
    num_output: 1024
    weight_filler {
      type: "gaussian"
      std: 0.1
    }
    bias_filler {
      type: "constant"
    }
  }
}
layer {
  name: "ip2"
  type: "InnerProduct"
  bottom: "ip1"
  top: "ip2"
  param {
    lr_mult: 1
  }
  param {
    lr_mult: 2
  }
  inner_product_param {
    num_output: 512
    weight_filler {
      type: "gaussian"
      std: 0.1
    }
    bias_filler {
      type: "constant"
    }
  }
}
layer {
  name: "ip3"
  type: "InnerProduct"
  bottom: "ip2"
  top: "ip3"
  param {
    lr_mult: 1
  }
  param {
    lr_mult: 2
  }
  inner_product_param {
    num_output: 50
    weight_filler {
      type: "gaussian"
      std: 0.1
    }
    bias_filler {
      type: "constant"
    }
  }
}
layer {
  name: "loss"
  type: "SoftmaxWithLoss"
  bottom: "ip3"
  bottom: "label"
  top: "loss"
}
I0503 18:20:14.549921 21836 layer_factory.hpp:77] Creating layer parameters
I0503 18:20:14.549942 21836 net.cpp:94] Creating Layer parameters
I0503 18:20:14.549950 21836 net.cpp:409] parameters -> data
I0503 18:20:14.549975 21836 net.cpp:409] parameters -> label
I0503 18:20:14.549989 21836 hdf5_data_layer.cpp:79] Loading list of HDF5 filenames from: /home/purduethu/scratch/radon/d/deng106/CNNStatisticalModel/distributions/input/50_distributions_100_sample_size_train-distributions-path.txt
I0503 18:20:14.550021 21836 hdf5_data_layer.cpp:93] Number of HDF5 files: 1
I0503 18:20:14.550914 21836 hdf5.cpp:32] Datatype class: H5T_FLOAT
I0503 18:20:14.718781 21836 hdf5.cpp:35] Datatype class: H5T_INTEGER
I0503 18:20:14.721575 21836 net.cpp:144] Setting up parameters
I0503 18:20:14.721598 21836 net.cpp:151] Top shape: 20 1 10 10 (2000)
I0503 18:20:14.721604 21836 net.cpp:151] Top shape: 20 (20)
I0503 18:20:14.721608 21836 net.cpp:159] Memory required for data: 8080
I0503 18:20:14.721616 21836 layer_factory.hpp:77] Creating layer conv1
I0503 18:20:14.721638 21836 net.cpp:94] Creating Layer conv1
I0503 18:20:14.721644 21836 net.cpp:435] conv1 <- data
I0503 18:20:14.721654 21836 net.cpp:409] conv1 -> conv1
I0503 18:20:14.725452 21836 net.cpp:144] Setting up conv1
I0503 18:20:14.725468 21836 net.cpp:151] Top shape: 20 64 10 10 (128000)
I0503 18:20:14.725472 21836 net.cpp:159] Memory required for data: 520080
I0503 18:20:14.725484 21836 layer_factory.hpp:77] Creating layer relu1
I0503 18:20:14.725492 21836 net.cpp:94] Creating Layer relu1
I0503 18:20:14.725497 21836 net.cpp:435] relu1 <- conv1
I0503 18:20:14.725502 21836 net.cpp:396] relu1 -> conv1 (in-place)
I0503 18:20:14.725519 21836 net.cpp:144] Setting up relu1
I0503 18:20:14.725524 21836 net.cpp:151] Top shape: 20 64 10 10 (128000)
I0503 18:20:14.725528 21836 net.cpp:159] Memory required for data: 1032080
I0503 18:20:14.725530 21836 layer_factory.hpp:77] Creating layer conv2
I0503 18:20:14.725538 21836 net.cpp:94] Creating Layer conv2
I0503 18:20:14.725543 21836 net.cpp:435] conv2 <- conv1
I0503 18:20:14.725546 21836 net.cpp:409] conv2 -> conv2
I0503 18:20:14.731369 21836 net.cpp:144] Setting up conv2
I0503 18:20:14.731382 21836 net.cpp:151] Top shape: 20 64 10 10 (128000)
I0503 18:20:14.731386 21836 net.cpp:159] Memory required for data: 1544080
I0503 18:20:14.731395 21836 layer_factory.hpp:77] Creating layer relu2
I0503 18:20:14.731401 21836 net.cpp:94] Creating Layer relu2
I0503 18:20:14.731405 21836 net.cpp:435] relu2 <- conv2
I0503 18:20:14.731410 21836 net.cpp:396] relu2 -> conv2 (in-place)
I0503 18:20:14.731416 21836 net.cpp:144] Setting up relu2
I0503 18:20:14.731421 21836 net.cpp:151] Top shape: 20 64 10 10 (128000)
I0503 18:20:14.731425 21836 net.cpp:159] Memory required for data: 2056080
I0503 18:20:14.731427 21836 layer_factory.hpp:77] Creating layer pool2
I0503 18:20:14.731441 21836 net.cpp:94] Creating Layer pool2
I0503 18:20:14.731446 21836 net.cpp:435] pool2 <- conv2
I0503 18:20:14.731451 21836 net.cpp:409] pool2 -> pool2
I0503 18:20:14.731493 21836 net.cpp:144] Setting up pool2
I0503 18:20:14.731501 21836 net.cpp:151] Top shape: 20 64 5 5 (32000)
I0503 18:20:14.731504 21836 net.cpp:159] Memory required for data: 2184080
I0503 18:20:14.731508 21836 layer_factory.hpp:77] Creating layer conv3
I0503 18:20:14.731516 21836 net.cpp:94] Creating Layer conv3
I0503 18:20:14.731520 21836 net.cpp:435] conv3 <- pool2
I0503 18:20:14.731534 21836 net.cpp:409] conv3 -> conv3
I0503 18:20:14.739513 21836 net.cpp:144] Setting up conv3
I0503 18:20:14.739526 21836 net.cpp:151] Top shape: 20 128 5 5 (64000)
I0503 18:20:14.739531 21836 net.cpp:159] Memory required for data: 2440080
I0503 18:20:14.739539 21836 layer_factory.hpp:77] Creating layer relu3
I0503 18:20:14.739544 21836 net.cpp:94] Creating Layer relu3
I0503 18:20:14.739548 21836 net.cpp:435] relu3 <- conv3
I0503 18:20:14.739553 21836 net.cpp:396] relu3 -> conv3 (in-place)
I0503 18:20:14.739560 21836 net.cpp:144] Setting up relu3
I0503 18:20:14.739564 21836 net.cpp:151] Top shape: 20 128 5 5 (64000)
I0503 18:20:14.739567 21836 net.cpp:159] Memory required for data: 2696080
I0503 18:20:14.739570 21836 layer_factory.hpp:77] Creating layer conv4
I0503 18:20:14.739579 21836 net.cpp:94] Creating Layer conv4
I0503 18:20:14.739583 21836 net.cpp:435] conv4 <- conv3
I0503 18:20:14.739588 21836 net.cpp:409] conv4 -> conv4
I0503 18:20:14.754258 21836 net.cpp:144] Setting up conv4
I0503 18:20:14.754274 21836 net.cpp:151] Top shape: 20 128 5 5 (64000)
I0503 18:20:14.754278 21836 net.cpp:159] Memory required for data: 2952080
I0503 18:20:14.754284 21836 layer_factory.hpp:77] Creating layer relu4
I0503 18:20:14.754290 21836 net.cpp:94] Creating Layer relu4
I0503 18:20:14.754294 21836 net.cpp:435] relu4 <- conv4
I0503 18:20:14.754299 21836 net.cpp:396] relu4 -> conv4 (in-place)
I0503 18:20:14.754307 21836 net.cpp:144] Setting up relu4
I0503 18:20:14.754312 21836 net.cpp:151] Top shape: 20 128 5 5 (64000)
I0503 18:20:14.754314 21836 net.cpp:159] Memory required for data: 3208080
I0503 18:20:14.754318 21836 layer_factory.hpp:77] Creating layer conv5
I0503 18:20:14.754325 21836 net.cpp:94] Creating Layer conv5
I0503 18:20:14.754329 21836 net.cpp:435] conv5 <- conv4
I0503 18:20:14.754334 21836 net.cpp:409] conv5 -> conv5
I0503 18:20:14.768728 21836 net.cpp:144] Setting up conv5
I0503 18:20:14.768743 21836 net.cpp:151] Top shape: 20 128 5 5 (64000)
I0503 18:20:14.768748 21836 net.cpp:159] Memory required for data: 3464080
I0503 18:20:14.768755 21836 layer_factory.hpp:77] Creating layer relu5
I0503 18:20:14.768761 21836 net.cpp:94] Creating Layer relu5
I0503 18:20:14.768765 21836 net.cpp:435] relu5 <- conv5
I0503 18:20:14.768770 21836 net.cpp:396] relu5 -> conv5 (in-place)
I0503 18:20:14.768777 21836 net.cpp:144] Setting up relu5
I0503 18:20:14.768781 21836 net.cpp:151] Top shape: 20 128 5 5 (64000)
I0503 18:20:14.768785 21836 net.cpp:159] Memory required for data: 3720080
I0503 18:20:14.768788 21836 layer_factory.hpp:77] Creating layer pool5
I0503 18:20:14.768793 21836 net.cpp:94] Creating Layer pool5
I0503 18:20:14.768797 21836 net.cpp:435] pool5 <- conv5
I0503 18:20:14.768801 21836 net.cpp:409] pool5 -> pool5
I0503 18:20:14.768836 21836 net.cpp:144] Setting up pool5
I0503 18:20:14.768842 21836 net.cpp:151] Top shape: 20 128 2 2 (10240)
I0503 18:20:14.768846 21836 net.cpp:159] Memory required for data: 3761040
I0503 18:20:14.768849 21836 layer_factory.hpp:77] Creating layer ip1
I0503 18:20:14.768859 21836 net.cpp:94] Creating Layer ip1
I0503 18:20:14.768862 21836 net.cpp:435] ip1 <- pool5
I0503 18:20:14.768867 21836 net.cpp:409] ip1 -> ip1
I0503 18:20:14.782299 21836 net.cpp:144] Setting up ip1
I0503 18:20:14.782312 21836 net.cpp:151] Top shape: 20 1024 (20480)
I0503 18:20:14.782317 21836 net.cpp:159] Memory required for data: 3842960
I0503 18:20:14.782323 21836 layer_factory.hpp:77] Creating layer ip2
I0503 18:20:14.782330 21836 net.cpp:94] Creating Layer ip2
I0503 18:20:14.782338 21836 net.cpp:435] ip2 <- ip1
I0503 18:20:14.782344 21836 net.cpp:409] ip2 -> ip2
I0503 18:20:14.795064 21836 net.cpp:144] Setting up ip2
I0503 18:20:14.795078 21836 net.cpp:151] Top shape: 20 512 (10240)
I0503 18:20:14.795083 21836 net.cpp:159] Memory required for data: 3883920
I0503 18:20:14.795087 21836 layer_factory.hpp:77] Creating layer ip3
I0503 18:20:14.795094 21836 net.cpp:94] Creating Layer ip3
I0503 18:20:14.795099 21836 net.cpp:435] ip3 <- ip2
I0503 18:20:14.795104 21836 net.cpp:409] ip3 -> ip3
I0503 18:20:14.796412 21836 net.cpp:144] Setting up ip3
I0503 18:20:14.796424 21836 net.cpp:151] Top shape: 20 50 (1000)
I0503 18:20:14.796428 21836 net.cpp:159] Memory required for data: 3887920
I0503 18:20:14.796434 21836 layer_factory.hpp:77] Creating layer loss
I0503 18:20:14.796442 21836 net.cpp:94] Creating Layer loss
I0503 18:20:14.796445 21836 net.cpp:435] loss <- ip3
I0503 18:20:14.796449 21836 net.cpp:435] loss <- label
I0503 18:20:14.796455 21836 net.cpp:409] loss -> loss
I0503 18:20:14.796469 21836 layer_factory.hpp:77] Creating layer loss
…
I0503 18:20:14.796968 21836 solver.cpp:181] Creating test net (#0) specified by net file: ./protocol/dis_50_100_dimension.protocol_distribution
I0503 18:20:14.796994 21836 net.cpp:323] The NetState phase (1) differed from the phase (0) specified by a rule in layer parameters
I0503 18:20:14.797088 21836 net.cpp:52] Initializing net from parameters: 
state {
  phase: TEST
}
layer {
  name: "intercept"
  type: "HDF5Data"
  top: "data"
  top: "label"
  include {
    phase: TEST
  }
  hdf5_data_param {
    source: "/home/purduethu/scratch/radon/d/deng106/CNNStatisticalModel/distributions/input/50_distributions_100_sample_size_test-distributions-path.txt"
    batch_size: 20
  }
}
layer {
  name: "conv1"
  type: "Convolution"
  bottom: "data"
  top: "conv1"
  param {
    lr_mult: 1
  }
  param {
    lr_mult: 2
  }
  convolution_param {
    num_output: 64
    pad: 2
    kernel_size: 5
    stride: 1
    weight_filler {
      type: "gaussian"
      std: 0.0001
    }
    bias_filler {
      type: "constant"
    }
  }
}
layer {
  name: "relu1"
  type: "ReLU"
  bottom: "conv1"
  top: "conv1"
}
layer {
  name: "conv2"
  type: "Convolution"
  bottom: "conv1"
  top: "conv2"
  param {
    lr_mult: 1
  }
  param {
    lr_mult: 2
  }
  convolution_param {
    num_output: 64
    pad: 2
    kernel_size: 5
    stride: 1
    weight_filler {
      type: "gaussian"
      std: 0.01
    }
    bias_filler {
      type: "constant"
    }
  }
}
layer {
  name: "relu2"
  type: "ReLU"
  bottom: "conv2"
  top: "conv2"
}
layer {
  name: "pool2"
  type: "Pooling"
  bottom: "conv2"
  top: "pool2"
  pooling_param {
    pool: MAX
    kernel_size: 3
    stride: 2
  }
}
layer {
  name: "conv3"
  type: "Convolution"
  bottom: "pool2"
  top: "conv3"
  param {
    lr_mult: 1
  }
  param {
    lr_mult: 2
  }
  convolution_param {
    num_output: 128
    pad: 2
    kernel_size: 5
    stride: 1
    weight_filler {
      type: "gaussian"
      std: 0.01
    }
    bias_filler {
      type: "constant"
    }
  }
}
layer {
  name: "relu3"
  type: "ReLU"
  bottom: "conv3"
  top: "conv3"
}
layer {
  name: "conv4"
  type: "Convolution"
  bottom: "conv3"
  top: "conv4"
  param {
    lr_mult: 1
  }
  param {
    lr_mult: 2
  }
  convolution_param {
    num_output: 128
    pad: 2
    kernel_size: 5
    stride: 1
    weight_filler {
      type: "gaussian"
      std: 0.01
    }
    bias_filler {
      type: "constant"
    }
  }
}
layer {
  name: "relu4"
  type: "ReLU"
  bottom: "conv4"
  top: "conv4"
}
layer {
  name: "conv5"
  type: "Convolution"
  bottom: "conv4"
  top: "conv5"
  param {
    lr_mult: 1
  }
  param {
    lr_mult: 2
  }
  convolution_param {
    num_output: 128
    pad: 2
    kernel_size: 5
    stride: 1
    weight_filler {
      type: "gaussian"
      std: 0.01
    }
    bias_filler {
      type: "constant"
    }
  }
}
layer {
  name: "relu5"
  type: "ReLU"
  bottom: "conv5"
  top: "conv5"
}
layer {
  name: "pool5"
  type: "Pooling"
  bottom: "conv5"
  top: "pool5"
  pooling_param {
    pool: AVE
    kernel_size: 3
    stride: 2
  }
}
layer {
  name: "ip1"
  type: "InnerProduct"
  bottom: "pool5"
  top: "ip1"
  param {
    lr_mult: 1
  }
  param {
    lr_mult: 2
  }
  inner_product_param {
    num_output: 1024
    weight_filler {
      type: "gaussian"
      std: 0.1
    }
    bias_filler {
      type: "constant"
    }
  }
}
layer {
  name: "ip2"
  type: "InnerProduct"
  bottom: "ip1"
  top: "ip2"
  param {
    lr_mult: 1
  }
  param {
    lr_mult: 2
  }
  inner_product_param {
    num_output: 512
    weight_filler {
      type: "gaussian"
      std: 0.1
    }
    bias_filler {
      type: "constant"
    }
  }
}
layer {
  name: "ip3"
  type: "InnerProduct"
  bottom: "ip2"
  top: "ip3"
  param {
    lr_mult: 1
  }
  param {
    lr_mult: 2
  }
  inner_product_param {
    num_output: 50
    weight_filler {
      type: "gaussian"
      std: 0.1
    }
    bias_filler {
      type: "constant"
    }
  }
}
layer {
  name: "accuracy"
  type: "Accuracy"
  bottom: "ip3"
  bottom: "label"
  top: "accuracy"
  include {
    phase: TEST
  }
}
layer {
  name: "loss"
  type: "SoftmaxWithLoss"
  bottom: "ip3"
  bottom: "label"
  top: "loss"
}
I0503 18:20:14.797158 21836 layer_factory.hpp:77] Creating layer intercept
I0503 18:20:14.797166 21836 net.cpp:94] Creating Layer intercept
I0503 18:20:14.797170 21836 net.cpp:409] intercept -> data
I0503 18:20:14.797178 21836 net.cpp:409] intercept -> label
I0503 18:20:14.797183 21836 hdf5_data_layer.cpp:79] Loading list of HDF5 filenames from: /home/purduethu/scratch/radon/d/deng106/CNNStatisticalModel/distributions/input/50_distributions_100_sample_size_test-distributions-path.txt
I0503 18:20:14.797201 21836 hdf5_data_layer.cpp:93] Number of HDF5 files: 1
I0503 18:20:14.837366 21836 net.cpp:144] Setting up intercept
I0503 18:20:14.837404 21836 net.cpp:151] Top shape: 20 1 10 10 (2000)
I0503 18:20:14.837409 21836 net.cpp:151] Top shape: 20 (20)
I0503 18:20:14.837412 21836 net.cpp:159] Memory required for data: 8080
I0503 18:20:14.837419 21836 layer_factory.hpp:77] Creating layer label_intercept_1_split
I0503 18:20:14.837438 21836 net.cpp:94] Creating Layer label_intercept_1_split
I0503 18:20:14.837442 21836 net.cpp:435] label_intercept_1_split <- label
I0503 18:20:14.837448 21836 net.cpp:409] label_intercept_1_split -> label_intercept_1_split_0
I0503 18:20:14.837456 21836 net.cpp:409] label_intercept_1_split -> label_intercept_1_split_1
I0503 18:20:14.837492 21836 net.cpp:144] Setting up label_intercept_1_split
I0503 18:20:14.837499 21836 net.cpp:151] Top shape: 20 (20)
I0503 18:20:14.837503 21836 net.cpp:151] Top shape: 20 (20)
I0503 18:20:14.837507 21836 net.cpp:159] Memory required for data: 8240
I0503 18:20:14.837509 21836 layer_factory.hpp:77] Creating layer conv1
I0503 18:20:14.837520 21836 net.cpp:94] Creating Layer conv1
I0503 18:20:14.837524 21836 net.cpp:435] conv1 <- data
I0503 18:20:14.837529 21836 net.cpp:409] conv1 -> conv1
I0503 18:20:14.838214 21836 net.cpp:144] Setting up conv1
I0503 18:20:14.838235 21836 net.cpp:151] Top shape: 20 64 10 10 (128000)
I0503 18:20:14.838240 21836 net.cpp:159] Memory required for data: 520240
I0503 18:20:14.838249 21836 layer_factory.hpp:77] Creating layer relu1
I0503 18:20:14.838256 21836 net.cpp:94] Creating Layer relu1
I0503 18:20:14.838260 21836 net.cpp:435] relu1 <- conv1
I0503 18:20:14.838264 21836 net.cpp:396] relu1 -> conv1 (in-place)
I0503 18:20:14.838271 21836 net.cpp:144] Setting up relu1
I0503 18:20:14.838276 21836 net.cpp:151] Top shape: 20 64 10 10 (128000)
I0503 18:20:14.838279 21836 net.cpp:159] Memory required for data: 1032240
I0503 18:20:14.838282 21836 layer_factory.hpp:77] Creating layer conv2
I0503 18:20:14.838290 21836 net.cpp:94] Creating Layer conv2
I0503 18:20:14.838294 21836 net.cpp:435] conv2 <- conv1
I0503 18:20:14.838299 21836 net.cpp:409] conv2 -> conv2
I0503 18:20:14.842212 21836 net.cpp:144] Setting up conv2
I0503 18:20:14.842226 21836 net.cpp:151] Top shape: 20 64 10 10 (128000)
I0503 18:20:14.842231 21836 net.cpp:159] Memory required for data: 1544240
I0503 18:20:14.842238 21836 layer_factory.hpp:77] Creating layer relu2
I0503 18:20:14.842244 21836 net.cpp:94] Creating Layer relu2
I0503 18:20:14.842248 21836 net.cpp:435] relu2 <- conv2
I0503 18:20:14.842252 21836 net.cpp:396] relu2 -> conv2 (in-place)
I0503 18:20:14.842259 21836 net.cpp:144] Setting up relu2
I0503 18:20:14.842263 21836 net.cpp:151] Top shape: 20 64 10 10 (128000)
I0503 18:20:14.842267 21836 net.cpp:159] Memory required for data: 2056240
I0503 18:20:14.842270 21836 layer_factory.hpp:77] Creating layer pool2
I0503 18:20:14.842277 21836 net.cpp:94] Creating Layer pool2
I0503 18:20:14.842279 21836 net.cpp:435] pool2 <- conv2
I0503 18:20:14.842283 21836 net.cpp:409] pool2 -> pool2
I0503 18:20:14.842316 21836 net.cpp:144] Setting up pool2
I0503 18:20:14.842324 21836 net.cpp:151] Top shape: 20 64 5 5 (32000)
I0503 18:20:14.842326 21836 net.cpp:159] Memory required for data: 2184240
I0503 18:20:14.842330 21836 layer_factory.hpp:77] Creating layer conv3
I0503 18:20:14.842337 21836 net.cpp:94] Creating Layer conv3
I0503 18:20:14.842341 21836 net.cpp:435] conv3 <- pool2
I0503 18:20:14.842345 21836 net.cpp:409] conv3 -> conv3
I0503 18:20:14.848614 21836 net.cpp:144] Setting up conv3
I0503 18:20:14.848628 21836 net.cpp:151] Top shape: 20 128 5 5 (64000)
I0503 18:20:14.848633 21836 net.cpp:159] Memory required for data: 2440240
I0503 18:20:14.848640 21836 layer_factory.hpp:77] Creating layer relu3
I0503 18:20:14.848647 21836 net.cpp:94] Creating Layer relu3
I0503 18:20:14.848651 21836 net.cpp:435] relu3 <- conv3
I0503 18:20:14.848656 21836 net.cpp:396] relu3 -> conv3 (in-place)
I0503 18:20:14.848664 21836 net.cpp:144] Setting up relu3
I0503 18:20:14.848667 21836 net.cpp:151] Top shape: 20 128 5 5 (64000)
I0503 18:20:14.848670 21836 net.cpp:159] Memory required for data: 2696240
I0503 18:20:14.848673 21836 layer_factory.hpp:77] Creating layer conv4
I0503 18:20:14.848681 21836 net.cpp:94] Creating Layer conv4
I0503 18:20:14.848685 21836 net.cpp:435] conv4 <- conv3
I0503 18:20:14.848690 21836 net.cpp:409] conv4 -> conv4
I0503 18:20:14.860936 21836 net.cpp:144] Setting up conv4
I0503 18:20:14.860950 21836 net.cpp:151] Top shape: 20 128 5 5 (64000)
I0503 18:20:14.860954 21836 net.cpp:159] Memory required for data: 2952240
I0503 18:20:14.860960 21836 layer_factory.hpp:77] Creating layer relu4
I0503 18:20:14.860966 21836 net.cpp:94] Creating Layer relu4
I0503 18:20:14.860970 21836 net.cpp:435] relu4 <- conv4
I0503 18:20:14.860978 21836 net.cpp:396] relu4 -> conv4 (in-place)
I0503 18:20:14.860985 21836 net.cpp:144] Setting up relu4
I0503 18:20:14.860991 21836 net.cpp:151] Top shape: 20 128 5 5 (64000)
I0503 18:20:14.860993 21836 net.cpp:159] Memory required for data: 3208240
I0503 18:20:14.860996 21836 layer_factory.hpp:77] Creating layer conv5
I0503 18:20:14.861003 21836 net.cpp:94] Creating Layer conv5
I0503 18:20:14.861006 21836 net.cpp:435] conv5 <- conv4
I0503 18:20:14.861011 21836 net.cpp:409] conv5 -> conv5
I0503 18:20:14.873062 21836 net.cpp:144] Setting up conv5
I0503 18:20:14.873082 21836 net.cpp:151] Top shape: 20 128 5 5 (64000)
I0503 18:20:14.873086 21836 net.cpp:159] Memory required for data: 3464240
I0503 18:20:14.873095 21836 layer_factory.hpp:77] Creating layer relu5
I0503 18:20:14.873100 21836 net.cpp:94] Creating Layer relu5
I0503 18:20:14.873105 21836 net.cpp:435] relu5 <- conv5
I0503 18:20:14.873108 21836 net.cpp:396] relu5 -> conv5 (in-place)
I0503 18:20:14.873116 21836 net.cpp:144] Setting up relu5
I0503 18:20:14.873119 21836 net.cpp:151] Top shape: 20 128 5 5 (64000)
I0503 18:20:14.873122 21836 net.cpp:159] Memory required for data: 3720240
I0503 18:20:14.873126 21836 layer_factory.hpp:77] Creating layer pool5
I0503 18:20:14.873131 21836 net.cpp:94] Creating Layer pool5
I0503 18:20:14.873134 21836 net.cpp:435] pool5 <- conv5
I0503 18:20:14.873138 21836 net.cpp:409] pool5 -> pool5
I0503 18:20:14.873164 21836 net.cpp:144] Setting up pool5
I0503 18:20:14.873170 21836 net.cpp:151] Top shape: 20 128 2 2 (10240)
I0503 18:20:14.873173 21836 net.cpp:159] Memory required for data: 3761200
I0503 18:20:14.873177 21836 layer_factory.hpp:77] Creating layer ip1
I0503 18:20:14.873183 21836 net.cpp:94] Creating Layer ip1
I0503 18:20:14.873188 21836 net.cpp:435] ip1 <- pool5
I0503 18:20:14.873193 21836 net.cpp:409] ip1 -> ip1
I0503 18:20:14.885963 21836 net.cpp:144] Setting up ip1
I0503 18:20:14.885977 21836 net.cpp:151] Top shape: 20 1024 (20480)
I0503 18:20:14.885980 21836 net.cpp:159] Memory required for data: 3843120
I0503 18:20:14.885987 21836 layer_factory.hpp:77] Creating layer ip2
I0503 18:20:14.885995 21836 net.cpp:94] Creating Layer ip2
I0503 18:20:14.885999 21836 net.cpp:435] ip2 <- ip1
I0503 18:20:14.886004 21836 net.cpp:409] ip2 -> ip2
I0503 18:20:14.898747 21836 net.cpp:144] Setting up ip2
I0503 18:20:14.898761 21836 net.cpp:151] Top shape: 20 512 (10240)
I0503 18:20:14.898764 21836 net.cpp:159] Memory required for data: 3884080
I0503 18:20:14.898771 21836 layer_factory.hpp:77] Creating layer ip3
I0503 18:20:14.898779 21836 net.cpp:94] Creating Layer ip3
I0503 18:20:14.898783 21836 net.cpp:435] ip3 <- ip2
I0503 18:20:14.898788 21836 net.cpp:409] ip3 -> ip3
I0503 18:20:14.899459 21836 net.cpp:144] Setting up ip3
I0503 18:20:14.899467 21836 net.cpp:151] Top shape: 20 50 (1000)
I0503 18:20:14.899471 21836 net.cpp:159] Memory required for data: 3888080
I0503 18:20:14.899476 21836 layer_factory.hpp:77] Creating layer ip3_ip3_0_split
I0503 18:20:14.899482 21836 net.cpp:94] Creating Layer ip3_ip3_0_split
I0503 18:20:14.899484 21836 net.cpp:435] ip3_ip3_0_split <- ip3
I0503 18:20:14.899489 21836 net.cpp:409] ip3_ip3_0_split -> ip3_ip3_0_split_0
I0503 18:20:14.899494 21836 net.cpp:409] ip3_ip3_0_split -> ip3_ip3_0_split_1
I0503 18:20:14.899521 21836 net.cpp:144] Setting up ip3_ip3_0_split
I0503 18:20:14.899528 21836 net.cpp:151] Top shape: 20 50 (1000)
I0503 18:20:14.899531 21836 net.cpp:151] Top shape: 20 50 (1000)
I0503 18:20:14.899534 21836 net.cpp:159] Memory required for data: 3896080
I0503 18:20:14.899538 21836 layer_factory.hpp:77] Creating layer accuracy
I0503 18:20:14.899543 21836 net.cpp:94] Creating Layer accuracy
I0503 18:20:14.899546 21836 net.cpp:435] accuracy <- ip3_ip3_0_split_0
I0503 18:20:14.899550 21836 net.cpp:435] accuracy <- label_intercept_1_split_0
I0503 18:20:14.899555 21836 net.cpp:409] accuracy -> accuracy
…
