…
I0504 21:38:51.779865 30967 net.cpp:323] The NetState phase (0) differed from the phase (1) specified by a rule in layer intercept
I0504 21:38:51.779883 30967 net.cpp:323] The NetState phase (0) differed from the phase (1) specified by a rule in layer accuracy
I0504 21:38:51.779980 30967 net.cpp:52] Initializing net from parameters: 
state {
  phase: TRAIN
}
layer {
  name: "parameters"
  type: "HDF5Data"
  top: "data"
  top: "label"
  include {
    phase: TRAIN
  }
  hdf5_data_param {
    source: "/home/purduethu/scratch/radon/d/deng106/CNNStatisticalModel/distributions/input/50_distributions_900_sample_size_train-distributions-path.txt"
    batch_size: 20
  }
}
layer {
  name: "conv1"
  type: "Convolution"
  bottom: "data"
  top: "conv1"
  param {
    lr_mult: 1
  }
  param {
    lr_mult: 2
  }
  convolution_param {
    num_output: 64
    pad: 2
    kernel_size: 5
    stride: 1
    weight_filler {
      type: "gaussian"
      std: 0.0001
    }
    bias_filler {
      type: "constant"
    }
  }
}
layer {
  name: "relu1"
  type: "ReLU"
  bottom: "conv1"
  top: "conv1"
}
layer {
  name: "conv2"
  type: "Convolution"
  bottom: "conv1"
  top: "conv2"
  param {
    lr_mult: 1
  }
  param {
    lr_mult: 2
  }
  convolution_param {
    num_output: 64
    pad: 2
    kernel_size: 5
    stride: 1
    weight_filler {
      type: "gaussian"
      std: 0.01
    }
    bias_filler {
      type: "constant"
    }
  }
}
layer {
  name: "relu2"
  type: "ReLU"
  bottom: "conv2"
  top: "conv2"
}
layer {
  name: "pool2"
  type: "Pooling"
  bottom: "conv2"
  top: "pool2"
  pooling_param {
    pool: MAX
    kernel_size: 3
    stride: 2
  }
}
layer {
  name: "conv3"
  type: "Convolution"
  bottom: "pool2"
  top: "conv3"
  param {
    lr_mult: 1
  }
  param {
    lr_mult: 2
  }
  convolution_param {
    num_output: 64
    pad: 2
    kernel_size: 5
    stride: 1
    weight_filler {
      type: "gaussian"
      std: 0.01
    }
    bias_filler {
      type: "constant"
    }
  }
}
layer {
  name: "relu3"
  type: "ReLU"
  bottom: "conv3"
  top: "conv3"
}
layer {
  name: "conv4"
  type: "Convolution"
  bottom: "conv3"
  top: "conv4"
  param {
    lr_mult: 1
  }
  param {
    lr_mult: 2
  }
  convolution_param {
    num_output: 64
    pad: 2
    kernel_size: 5
    stride: 1
    weight_filler {
      type: "gaussian"
      std: 0.01
    }
    bias_filler {
      type: "constant"
    }
  }
}
layer {
  name: "relu4"
  type: "ReLU"
  bottom: "conv4"
  top: "conv4"
}
layer {
  name: "conv5"
  type: "Convolution"
  bottom: "conv4"
  top: "conv5"
  param {
    lr_mult: 1
  }
  param {
    lr_mult: 2
  }
  convolution_param {
    num_output: 64
    pad: 2
    kernel_size: 5
    stride: 1
    weight_filler {
      type: "gaussian"
      std: 0.01
    }
    bias_filler {
      type: "constant"
    }
  }
}
layer {
  name: "relu5"
  type: "ReLU"
  bottom: "conv5"
  top: "conv5"
}
layer {
  name: "pool5"
  type: "Pooling"
  bottom: "conv5"
  top: "pool5"
  pooling_param {
    pool: AVE
    kernel_size: 3
    stride: 2
  }
}
layer {
  name: "ip1"
  type: "InnerProduct"
  bottom: "pool5"
  top: "ip1"
  param {
    lr_mult: 1
  }
  param {
    lr_mult: 2
  }
  inner_product_param {
    num_output: 64
    weight_filler {
      type: "gaussian"
      std: 0.1
    }
    bias_filler {
      type: "constant"
    }
  }
}
layer {
  name: "ip2"
  type: "InnerProduct"
  bottom: "ip1"
  top: "ip2"
  param {
    lr_mult: 1
  }
  param {
    lr_mult: 2
  }
  inner_product_param {
    num_output: 64
    weight_filler {
      type: "gaussian"
      std: 0.1
    }
    bias_filler {
      type: "constant"
    }
  }
}
layer {
  name: "ip3"
  type: "InnerProduct"
  bottom: "ip2"
  top: "ip3"
  param {
    lr_mult: 1
  }
  param {
    lr_mult: 2
  }
  inner_product_param {
    num_output: 50
    weight_filler {
      type: "gaussian"
      std: 0.1
    }
    bias_filler {
      type: "constant"
    }
  }
}
layer {
  name: "loss"
  type: "SoftmaxWithLoss"
  bottom: "ip3"
  bottom: "label"
  top: "loss"
}
I0504 21:38:51.780061 30967 layer_factory.hpp:77] Creating layer parameters
I0504 21:38:51.780077 30967 net.cpp:94] Creating Layer parameters
I0504 21:38:51.780084 30967 net.cpp:409] parameters -> data
I0504 21:38:51.780107 30967 net.cpp:409] parameters -> label
I0504 21:38:51.780117 30967 hdf5_data_layer.cpp:79] Loading list of HDF5 filenames from: /home/purduethu/scratch/radon/d/deng106/CNNStatisticalModel/distributions/input/50_distributions_900_sample_size_train-distributions-path.txt
I0504 21:38:51.780141 30967 hdf5_data_layer.cpp:93] Number of HDF5 files: 1
I0504 21:38:51.780760 30967 hdf5.cpp:32] Datatype class: H5T_FLOAT
I0504 21:38:53.235313 30967 hdf5.cpp:35] Datatype class: H5T_INTEGER
I0504 21:38:53.238060 30967 net.cpp:144] Setting up parameters
I0504 21:38:53.238080 30967 net.cpp:151] Top shape: 20 1 30 30 (18000)
I0504 21:38:53.238085 30967 net.cpp:151] Top shape: 20 (20)
I0504 21:38:53.238088 30967 net.cpp:159] Memory required for data: 72080
I0504 21:38:53.238095 30967 layer_factory.hpp:77] Creating layer conv1
I0504 21:38:53.238119 30967 net.cpp:94] Creating Layer conv1
I0504 21:38:53.238126 30967 net.cpp:435] conv1 <- data
I0504 21:38:53.238137 30967 net.cpp:409] conv1 -> conv1
I0504 21:38:53.244041 30967 net.cpp:144] Setting up conv1
I0504 21:38:53.244056 30967 net.cpp:151] Top shape: 20 64 30 30 (1152000)
I0504 21:38:53.244061 30967 net.cpp:159] Memory required for data: 4680080
I0504 21:38:53.244072 30967 layer_factory.hpp:77] Creating layer relu1
I0504 21:38:53.244081 30967 net.cpp:94] Creating Layer relu1
I0504 21:38:53.244084 30967 net.cpp:435] relu1 <- conv1
I0504 21:38:53.244088 30967 net.cpp:396] relu1 -> conv1 (in-place)
I0504 21:38:53.244104 30967 net.cpp:144] Setting up relu1
I0504 21:38:53.244110 30967 net.cpp:151] Top shape: 20 64 30 30 (1152000)
I0504 21:38:53.244113 30967 net.cpp:159] Memory required for data: 9288080
I0504 21:38:53.244117 30967 layer_factory.hpp:77] Creating layer conv2
I0504 21:38:53.244124 30967 net.cpp:94] Creating Layer conv2
I0504 21:38:53.244128 30967 net.cpp:435] conv2 <- conv1
I0504 21:38:53.244133 30967 net.cpp:409] conv2 -> conv2
I0504 21:38:53.260759 30967 net.cpp:144] Setting up conv2
I0504 21:38:53.260798 30967 net.cpp:151] Top shape: 20 64 30 30 (1152000)
I0504 21:38:53.260810 30967 net.cpp:159] Memory required for data: 13896080
I0504 21:38:53.260833 30967 layer_factory.hpp:77] Creating layer relu2
I0504 21:38:53.260852 30967 net.cpp:94] Creating Layer relu2
I0504 21:38:53.260864 30967 net.cpp:435] relu2 <- conv2
I0504 21:38:53.260877 30967 net.cpp:396] relu2 -> conv2 (in-place)
I0504 21:38:53.260897 30967 net.cpp:144] Setting up relu2
I0504 21:38:53.260910 30967 net.cpp:151] Top shape: 20 64 30 30 (1152000)
I0504 21:38:53.260921 30967 net.cpp:159] Memory required for data: 18504080
I0504 21:38:53.260936 30967 layer_factory.hpp:77] Creating layer pool2
I0504 21:38:53.260951 30967 net.cpp:94] Creating Layer pool2
I0504 21:38:53.260954 30967 net.cpp:435] pool2 <- conv2
I0504 21:38:53.260959 30967 net.cpp:409] pool2 -> pool2
I0504 21:38:53.261014 30967 net.cpp:144] Setting up pool2
I0504 21:38:53.261023 30967 net.cpp:151] Top shape: 20 64 15 15 (288000)
I0504 21:38:53.261025 30967 net.cpp:159] Memory required for data: 19656080
I0504 21:38:53.261029 30967 layer_factory.hpp:77] Creating layer conv3
I0504 21:38:53.261037 30967 net.cpp:94] Creating Layer conv3
I0504 21:38:53.261040 30967 net.cpp:435] conv3 <- pool2
I0504 21:38:53.261054 30967 net.cpp:409] conv3 -> conv3
I0504 21:38:53.269903 30967 net.cpp:144] Setting up conv3
I0504 21:38:53.269918 30967 net.cpp:151] Top shape: 20 64 15 15 (288000)
I0504 21:38:53.269923 30967 net.cpp:159] Memory required for data: 20808080
I0504 21:38:53.269932 30967 layer_factory.hpp:77] Creating layer relu3
I0504 21:38:53.269937 30967 net.cpp:94] Creating Layer relu3
I0504 21:38:53.269942 30967 net.cpp:435] relu3 <- conv3
I0504 21:38:53.269946 30967 net.cpp:396] relu3 -> conv3 (in-place)
I0504 21:38:53.269953 30967 net.cpp:144] Setting up relu3
I0504 21:38:53.269958 30967 net.cpp:151] Top shape: 20 64 15 15 (288000)
I0504 21:38:53.269961 30967 net.cpp:159] Memory required for data: 21960080
I0504 21:38:53.269964 30967 layer_factory.hpp:77] Creating layer conv4
I0504 21:38:53.269973 30967 net.cpp:94] Creating Layer conv4
I0504 21:38:53.269978 30967 net.cpp:435] conv4 <- conv3
I0504 21:38:53.269982 30967 net.cpp:409] conv4 -> conv4
I0504 21:38:53.277612 30967 net.cpp:144] Setting up conv4
I0504 21:38:53.277647 30967 net.cpp:151] Top shape: 20 64 15 15 (288000)
I0504 21:38:53.277652 30967 net.cpp:159] Memory required for data: 23112080
I0504 21:38:53.277659 30967 layer_factory.hpp:77] Creating layer relu4
I0504 21:38:53.277665 30967 net.cpp:94] Creating Layer relu4
I0504 21:38:53.277669 30967 net.cpp:435] relu4 <- conv4
I0504 21:38:53.277674 30967 net.cpp:396] relu4 -> conv4 (in-place)
I0504 21:38:53.277683 30967 net.cpp:144] Setting up relu4
I0504 21:38:53.277688 30967 net.cpp:151] Top shape: 20 64 15 15 (288000)
I0504 21:38:53.277690 30967 net.cpp:159] Memory required for data: 24264080
I0504 21:38:53.277693 30967 layer_factory.hpp:77] Creating layer conv5
I0504 21:38:53.277701 30967 net.cpp:94] Creating Layer conv5
I0504 21:38:53.277705 30967 net.cpp:435] conv5 <- conv4
I0504 21:38:53.277710 30967 net.cpp:409] conv5 -> conv5
I0504 21:38:53.285701 30967 net.cpp:144] Setting up conv5
I0504 21:38:53.285740 30967 net.cpp:151] Top shape: 20 64 15 15 (288000)
I0504 21:38:53.285753 30967 net.cpp:159] Memory required for data: 25416080
I0504 21:38:53.285776 30967 layer_factory.hpp:77] Creating layer relu5
I0504 21:38:53.285799 30967 net.cpp:94] Creating Layer relu5
I0504 21:38:53.285802 30967 net.cpp:435] relu5 <- conv5
I0504 21:38:53.285807 30967 net.cpp:396] relu5 -> conv5 (in-place)
I0504 21:38:53.285815 30967 net.cpp:144] Setting up relu5
I0504 21:38:53.285820 30967 net.cpp:151] Top shape: 20 64 15 15 (288000)
I0504 21:38:53.285823 30967 net.cpp:159] Memory required for data: 26568080
I0504 21:38:53.285827 30967 layer_factory.hpp:77] Creating layer pool5
I0504 21:38:53.285832 30967 net.cpp:94] Creating Layer pool5
I0504 21:38:53.285835 30967 net.cpp:435] pool5 <- conv5
I0504 21:38:53.285840 30967 net.cpp:409] pool5 -> pool5
I0504 21:38:53.285876 30967 net.cpp:144] Setting up pool5
I0504 21:38:53.285882 30967 net.cpp:151] Top shape: 20 64 7 7 (62720)
I0504 21:38:53.285887 30967 net.cpp:159] Memory required for data: 26818960
I0504 21:38:53.285889 30967 layer_factory.hpp:77] Creating layer ip1
I0504 21:38:53.285900 30967 net.cpp:94] Creating Layer ip1
I0504 21:38:53.285903 30967 net.cpp:435] ip1 <- pool5
I0504 21:38:53.285908 30967 net.cpp:409] ip1 -> ip1
I0504 21:38:53.291757 30967 net.cpp:144] Setting up ip1
I0504 21:38:53.291771 30967 net.cpp:151] Top shape: 20 64 (1280)
I0504 21:38:53.291776 30967 net.cpp:159] Memory required for data: 26824080
I0504 21:38:53.291782 30967 layer_factory.hpp:77] Creating layer ip2
I0504 21:38:53.291793 30967 net.cpp:94] Creating Layer ip2
I0504 21:38:53.291798 30967 net.cpp:435] ip2 <- ip1
I0504 21:38:53.291805 30967 net.cpp:409] ip2 -> ip2
I0504 21:38:53.291988 30967 net.cpp:144] Setting up ip2
I0504 21:38:53.291996 30967 net.cpp:151] Top shape: 20 64 (1280)
I0504 21:38:53.291999 30967 net.cpp:159] Memory required for data: 26829200
I0504 21:38:53.292006 30967 layer_factory.hpp:77] Creating layer ip3
I0504 21:38:53.292011 30967 net.cpp:94] Creating Layer ip3
I0504 21:38:53.292016 30967 net.cpp:435] ip3 <- ip2
I0504 21:38:53.292021 30967 net.cpp:409] ip3 -> ip3
I0504 21:38:53.292181 30967 net.cpp:144] Setting up ip3
I0504 21:38:53.292188 30967 net.cpp:151] Top shape: 20 50 (1000)
I0504 21:38:53.292191 30967 net.cpp:159] Memory required for data: 26833200
I0504 21:38:53.292196 30967 layer_factory.hpp:77] Creating layer loss
I0504 21:38:53.292204 30967 net.cpp:94] Creating Layer loss
I0504 21:38:53.292207 30967 net.cpp:435] loss <- ip3
I0504 21:38:53.292212 30967 net.cpp:435] loss <- label
I0504 21:38:53.292217 30967 net.cpp:409] loss -> loss
I0504 21:38:53.292227 30967 layer_factory.hpp:77] Creating layer loss
…
I0504 21:38:53.292764 30967 solver.cpp:181] Creating test net (#0) specified by net file: ./protocol/dis_50_900_dimension.protocol_distribution
I0504 21:38:53.292794 30967 net.cpp:323] The NetState phase (1) differed from the phase (0) specified by a rule in layer parameters
I0504 21:38:53.292903 30967 net.cpp:52] Initializing net from parameters: 
state {
  phase: TEST
}
layer {
  name: "intercept"
  type: "HDF5Data"
  top: "data"
  top: "label"
  include {
    phase: TEST
  }
  hdf5_data_param {
    source: "/home/purduethu/scratch/radon/d/deng106/CNNStatisticalModel/distributions/input/50_distributions_900_sample_size_test-distributions-path.txt"
    batch_size: 20
  }
}
layer {
  name: "conv1"
  type: "Convolution"
  bottom: "data"
  top: "conv1"
  param {
    lr_mult: 1
  }
  param {
    lr_mult: 2
  }
  convolution_param {
    num_output: 64
    pad: 2
    kernel_size: 5
    stride: 1
    weight_filler {
      type: "gaussian"
      std: 0.0001
    }
    bias_filler {
      type: "constant"
    }
  }
}
layer {
  name: "relu1"
  type: "ReLU"
  bottom: "conv1"
  top: "conv1"
}
layer {
  name: "conv2"
  type: "Convolution"
  bottom: "conv1"
  top: "conv2"
  param {
    lr_mult: 1
  }
  param {
    lr_mult: 2
  }
  convolution_param {
    num_output: 64
    pad: 2
    kernel_size: 5
    stride: 1
    weight_filler {
      type: "gaussian"
      std: 0.01
    }
    bias_filler {
      type: "constant"
    }
  }
}
layer {
  name: "relu2"
  type: "ReLU"
  bottom: "conv2"
  top: "conv2"
}
layer {
  name: "pool2"
  type: "Pooling"
  bottom: "conv2"
  top: "pool2"
  pooling_param {
    pool: MAX
    kernel_size: 3
    stride: 2
  }
}
layer {
  name: "conv3"
  type: "Convolution"
  bottom: "pool2"
  top: "conv3"
  param {
    lr_mult: 1
  }
  param {
    lr_mult: 2
  }
  convolution_param {
    num_output: 64
    pad: 2
    kernel_size: 5
    stride: 1
    weight_filler {
      type: "gaussian"
      std: 0.01
    }
    bias_filler {
      type: "constant"
    }
  }
}
layer {
  name: "relu3"
  type: "ReLU"
  bottom: "conv3"
  top: "conv3"
}
layer {
  name: "conv4"
  type: "Convolution"
  bottom: "conv3"
  top: "conv4"
  param {
    lr_mult: 1
  }
  param {
    lr_mult: 2
  }
  convolution_param {
    num_output: 64
    pad: 2
    kernel_size: 5
    stride: 1
    weight_filler {
      type: "gaussian"
      std: 0.01
    }
    bias_filler {
      type: "constant"
    }
  }
}
layer {
  name: "relu4"
  type: "ReLU"
  bottom: "conv4"
  top: "conv4"
}
layer {
  name: "conv5"
  type: "Convolution"
  bottom: "conv4"
  top: "conv5"
  param {
    lr_mult: 1
  }
  param {
    lr_mult: 2
  }
  convolution_param {
    num_output: 64
    pad: 2
    kernel_size: 5
    stride: 1
    weight_filler {
      type: "gaussian"
      std: 0.01
    }
    bias_filler {
      type: "constant"
    }
  }
}
layer {
  name: "relu5"
  type: "ReLU"
  bottom: "conv5"
  top: "conv5"
}
layer {
  name: "pool5"
  type: "Pooling"
  bottom: "conv5"
  top: "pool5"
  pooling_param {
    pool: AVE
    kernel_size: 3
    stride: 2
  }
}
layer {
  name: "ip1"
  type: "InnerProduct"
  bottom: "pool5"
  top: "ip1"
  param {
    lr_mult: 1
  }
  param {
    lr_mult: 2
  }
  inner_product_param {
    num_output: 64
    weight_filler {
      type: "gaussian"
      std: 0.1
    }
    bias_filler {
      type: "constant"
    }
  }
}
layer {
  name: "ip2"
  type: "InnerProduct"
  bottom: "ip1"
  top: "ip2"
  param {
    lr_mult: 1
  }
  param {
    lr_mult: 2
  }
  inner_product_param {
    num_output: 64
    weight_filler {
      type: "gaussian"
      std: 0.1
    }
    bias_filler {
      type: "constant"
    }
  }
}
layer {
  name: "ip3"
  type: "InnerProduct"
  bottom: "ip2"
  top: "ip3"
  param {
    lr_mult: 1
  }
  param {
    lr_mult: 2
  }
  inner_product_param {
    num_output: 50
    weight_filler {
      type: "gaussian"
      std: 0.1
    }
    bias_filler {
      type: "constant"
    }
  }
}
layer {
  name: "accuracy"
  type: "Accuracy"
  bottom: "ip3"
  bottom: "label"
  top: "accuracy"
  include {
    phase: TEST
  }
}
layer {
  name: "loss"
  type: "SoftmaxWithLoss"
  bottom: "ip3"
  bottom: "label"
  top: "loss"
}
I0504 21:38:53.292980 30967 layer_factory.hpp:77] Creating layer intercept
I0504 21:38:53.292989 30967 net.cpp:94] Creating Layer intercept
I0504 21:38:53.292994 30967 net.cpp:409] intercept -> data
I0504 21:38:53.293000 30967 net.cpp:409] intercept -> label
I0504 21:38:53.293007 30967 hdf5_data_layer.cpp:79] Loading list of HDF5 filenames from: /home/purduethu/scratch/radon/d/deng106/CNNStatisticalModel/distributions/input/50_distributions_900_sample_size_test-distributions-path.txt
I0504 21:38:53.293026 30967 hdf5_data_layer.cpp:93] Number of HDF5 files: 1
I0504 21:38:53.650753 30967 net.cpp:144] Setting up intercept
I0504 21:38:53.650786 30967 net.cpp:151] Top shape: 20 1 30 30 (18000)
I0504 21:38:53.650792 30967 net.cpp:151] Top shape: 20 (20)
I0504 21:38:53.650795 30967 net.cpp:159] Memory required for data: 72080
I0504 21:38:53.650801 30967 layer_factory.hpp:77] Creating layer label_intercept_1_split
I0504 21:38:53.650821 30967 net.cpp:94] Creating Layer label_intercept_1_split
I0504 21:38:53.650826 30967 net.cpp:435] label_intercept_1_split <- label
I0504 21:38:53.650832 30967 net.cpp:409] label_intercept_1_split -> label_intercept_1_split_0
I0504 21:38:53.650840 30967 net.cpp:409] label_intercept_1_split -> label_intercept_1_split_1
I0504 21:38:53.650876 30967 net.cpp:144] Setting up label_intercept_1_split
I0504 21:38:53.650883 30967 net.cpp:151] Top shape: 20 (20)
I0504 21:38:53.650887 30967 net.cpp:151] Top shape: 20 (20)
I0504 21:38:53.650889 30967 net.cpp:159] Memory required for data: 72240
I0504 21:38:53.650892 30967 layer_factory.hpp:77] Creating layer conv1
I0504 21:38:53.650903 30967 net.cpp:94] Creating Layer conv1
I0504 21:38:53.650907 30967 net.cpp:435] conv1 <- data
I0504 21:38:53.650913 30967 net.cpp:409] conv1 -> conv1
I0504 21:38:53.652200 30967 net.cpp:144] Setting up conv1
I0504 21:38:53.652215 30967 net.cpp:151] Top shape: 20 64 30 30 (1152000)
I0504 21:38:53.652218 30967 net.cpp:159] Memory required for data: 4680240
I0504 21:38:53.652228 30967 layer_factory.hpp:77] Creating layer relu1
I0504 21:38:53.652236 30967 net.cpp:94] Creating Layer relu1
I0504 21:38:53.652240 30967 net.cpp:435] relu1 <- conv1
I0504 21:38:53.652245 30967 net.cpp:396] relu1 -> conv1 (in-place)
I0504 21:38:53.652251 30967 net.cpp:144] Setting up relu1
I0504 21:38:53.652256 30967 net.cpp:151] Top shape: 20 64 30 30 (1152000)
I0504 21:38:53.652259 30967 net.cpp:159] Memory required for data: 9288240
I0504 21:38:53.652262 30967 layer_factory.hpp:77] Creating layer conv2
I0504 21:38:53.652271 30967 net.cpp:94] Creating Layer conv2
I0504 21:38:53.652276 30967 net.cpp:435] conv2 <- conv1
I0504 21:38:53.652281 30967 net.cpp:409] conv2 -> conv2
I0504 21:38:53.658890 30967 net.cpp:144] Setting up conv2
I0504 21:38:53.658931 30967 net.cpp:151] Top shape: 20 64 30 30 (1152000)
I0504 21:38:53.658942 30967 net.cpp:159] Memory required for data: 13896240
I0504 21:38:53.658965 30967 layer_factory.hpp:77] Creating layer relu2
I0504 21:38:53.658982 30967 net.cpp:94] Creating Layer relu2
I0504 21:38:53.658993 30967 net.cpp:435] relu2 <- conv2
I0504 21:38:53.659006 30967 net.cpp:396] relu2 -> conv2 (in-place)
I0504 21:38:53.659026 30967 net.cpp:144] Setting up relu2
I0504 21:38:53.659039 30967 net.cpp:151] Top shape: 20 64 30 30 (1152000)
I0504 21:38:53.659049 30967 net.cpp:159] Memory required for data: 18504240
I0504 21:38:53.659059 30967 layer_factory.hpp:77] Creating layer pool2
I0504 21:38:53.659080 30967 net.cpp:94] Creating Layer pool2
I0504 21:38:53.659082 30967 net.cpp:435] pool2 <- conv2
I0504 21:38:53.659086 30967 net.cpp:409] pool2 -> pool2
I0504 21:38:53.659132 30967 net.cpp:144] Setting up pool2
I0504 21:38:53.659137 30967 net.cpp:151] Top shape: 20 64 15 15 (288000)
I0504 21:38:53.659140 30967 net.cpp:159] Memory required for data: 19656240
I0504 21:38:53.659143 30967 layer_factory.hpp:77] Creating layer conv3
I0504 21:38:53.659152 30967 net.cpp:94] Creating Layer conv3
I0504 21:38:53.659155 30967 net.cpp:435] conv3 <- pool2
I0504 21:38:53.659159 30967 net.cpp:409] conv3 -> conv3
I0504 21:38:53.664017 30967 net.cpp:144] Setting up conv3
I0504 21:38:53.664033 30967 net.cpp:151] Top shape: 20 64 15 15 (288000)
I0504 21:38:53.664038 30967 net.cpp:159] Memory required for data: 20808240
I0504 21:38:53.664047 30967 layer_factory.hpp:77] Creating layer relu3
I0504 21:38:53.664053 30967 net.cpp:94] Creating Layer relu3
I0504 21:38:53.664057 30967 net.cpp:435] relu3 <- conv3
I0504 21:38:53.664062 30967 net.cpp:396] relu3 -> conv3 (in-place)
I0504 21:38:53.664070 30967 net.cpp:144] Setting up relu3
I0504 21:38:53.664074 30967 net.cpp:151] Top shape: 20 64 15 15 (288000)
I0504 21:38:53.664077 30967 net.cpp:159] Memory required for data: 21960240
I0504 21:38:53.664082 30967 layer_factory.hpp:77] Creating layer conv4
I0504 21:38:53.664088 30967 net.cpp:94] Creating Layer conv4
I0504 21:38:53.664093 30967 net.cpp:435] conv4 <- conv3
I0504 21:38:53.664098 30967 net.cpp:409] conv4 -> conv4
I0504 21:38:53.668629 30967 net.cpp:144] Setting up conv4
I0504 21:38:53.668668 30967 net.cpp:151] Top shape: 20 64 15 15 (288000)
I0504 21:38:53.668679 30967 net.cpp:159] Memory required for data: 23112240
I0504 21:38:53.668702 30967 layer_factory.hpp:77] Creating layer relu4
I0504 21:38:53.668709 30967 net.cpp:94] Creating Layer relu4
I0504 21:38:53.668716 30967 net.cpp:435] relu4 <- conv4
I0504 21:38:53.668721 30967 net.cpp:396] relu4 -> conv4 (in-place)
I0504 21:38:53.668728 30967 net.cpp:144] Setting up relu4
I0504 21:38:53.668733 30967 net.cpp:151] Top shape: 20 64 15 15 (288000)
I0504 21:38:53.668736 30967 net.cpp:159] Memory required for data: 24264240
I0504 21:38:53.668740 30967 layer_factory.hpp:77] Creating layer conv5
I0504 21:38:53.668747 30967 net.cpp:94] Creating Layer conv5
I0504 21:38:53.668751 30967 net.cpp:435] conv5 <- conv4
I0504 21:38:53.668756 30967 net.cpp:409] conv5 -> conv5
I0504 21:38:53.673837 30967 net.cpp:144] Setting up conv5
I0504 21:38:53.673853 30967 net.cpp:151] Top shape: 20 64 15 15 (288000)
I0504 21:38:53.673857 30967 net.cpp:159] Memory required for data: 25416240
I0504 21:38:53.673866 30967 layer_factory.hpp:77] Creating layer relu5
I0504 21:38:53.673873 30967 net.cpp:94] Creating Layer relu5
I0504 21:38:53.673877 30967 net.cpp:435] relu5 <- conv5
I0504 21:38:53.673882 30967 net.cpp:396] relu5 -> conv5 (in-place)
I0504 21:38:53.673888 30967 net.cpp:144] Setting up relu5
I0504 21:38:53.673892 30967 net.cpp:151] Top shape: 20 64 15 15 (288000)
I0504 21:38:53.673897 30967 net.cpp:159] Memory required for data: 26568240
I0504 21:38:53.673899 30967 layer_factory.hpp:77] Creating layer pool5
I0504 21:38:53.673904 30967 net.cpp:94] Creating Layer pool5
I0504 21:38:53.673907 30967 net.cpp:435] pool5 <- conv5
I0504 21:38:53.673912 30967 net.cpp:409] pool5 -> pool5
I0504 21:38:53.673938 30967 net.cpp:144] Setting up pool5
I0504 21:38:53.673943 30967 net.cpp:151] Top shape: 20 64 7 7 (62720)
I0504 21:38:53.673948 30967 net.cpp:159] Memory required for data: 26819120
I0504 21:38:53.673950 30967 layer_factory.hpp:77] Creating layer ip1
I0504 21:38:53.673956 30967 net.cpp:94] Creating Layer ip1
I0504 21:38:53.673960 30967 net.cpp:435] ip1 <- pool5
I0504 21:38:53.673964 30967 net.cpp:409] ip1 -> ip1
I0504 21:38:53.678704 30967 net.cpp:144] Setting up ip1
I0504 21:38:53.678712 30967 net.cpp:151] Top shape: 20 64 (1280)
I0504 21:38:53.678716 30967 net.cpp:159] Memory required for data: 26824240
I0504 21:38:53.678721 30967 layer_factory.hpp:77] Creating layer ip2
I0504 21:38:53.678727 30967 net.cpp:94] Creating Layer ip2
I0504 21:38:53.678730 30967 net.cpp:435] ip2 <- ip1
I0504 21:38:53.678735 30967 net.cpp:409] ip2 -> ip2
I0504 21:38:53.678900 30967 net.cpp:144] Setting up ip2
I0504 21:38:53.678906 30967 net.cpp:151] Top shape: 20 64 (1280)
I0504 21:38:53.678910 30967 net.cpp:159] Memory required for data: 26829360
I0504 21:38:53.678915 30967 layer_factory.hpp:77] Creating layer ip3
I0504 21:38:53.678921 30967 net.cpp:94] Creating Layer ip3
I0504 21:38:53.678925 30967 net.cpp:435] ip3 <- ip2
I0504 21:38:53.678928 30967 net.cpp:409] ip3 -> ip3
I0504 21:38:53.679071 30967 net.cpp:144] Setting up ip3
I0504 21:38:53.679077 30967 net.cpp:151] Top shape: 20 50 (1000)
I0504 21:38:53.679080 30967 net.cpp:159] Memory required for data: 26833360
I0504 21:38:53.679085 30967 layer_factory.hpp:77] Creating layer ip3_ip3_0_split
I0504 21:38:53.679090 30967 net.cpp:94] Creating Layer ip3_ip3_0_split
I0504 21:38:53.679092 30967 net.cpp:435] ip3_ip3_0_split <- ip3
I0504 21:38:53.679097 30967 net.cpp:409] ip3_ip3_0_split -> ip3_ip3_0_split_0
I0504 21:38:53.679102 30967 net.cpp:409] ip3_ip3_0_split -> ip3_ip3_0_split_1
I0504 21:38:53.679126 30967 net.cpp:144] Setting up ip3_ip3_0_split
I0504 21:38:53.679131 30967 net.cpp:151] Top shape: 20 50 (1000)
I0504 21:38:53.679136 30967 net.cpp:151] Top shape: 20 50 (1000)
I0504 21:38:53.679138 30967 net.cpp:159] Memory required for data: 26841360
I0504 21:38:53.679141 30967 layer_factory.hpp:77] Creating layer accuracy
I0504 21:38:53.679147 30967 net.cpp:94] Creating Layer accuracy
I0504 21:38:53.679150 30967 net.cpp:435] accuracy <- ip3_ip3_0_split_0
I0504 21:38:53.679154 30967 net.cpp:435] accuracy <- label_intercept_1_split_0
I0504 21:38:53.679158 30967 net.cpp:409] accuracy -> accuracy
…
