…
I0502 13:40:51.253079  3649 net.cpp:323] The NetState phase (0) differed from the phase (1) specified by a rule in layer intercept
I0502 13:40:51.253096  3649 net.cpp:323] The NetState phase (0) differed from the phase (1) specified by a rule in layer loss
I0502 13:40:51.253180  3649 net.cpp:52] Initializing net from parameters: 
state {
  phase: TRAIN
}
layer {
  name: "parameters"
  type: "HDF5Data"
  top: "data"
  top: "label"
  include {
    phase: TRAIN
  }
  hdf5_data_param {
    source: "/home/purduethu/scratch/radon/d/deng106/CNNStatisticalModel/distributions/input/5_distributions_100_sample_size_train-parameters-path.txt"
    batch_size: 20
  }
}
layer {
  name: "conv1"
  type: "Convolution"
  bottom: "data"
  top: "conv1"
  param {
    lr_mult: 1
  }
  param {
    lr_mult: 2
  }
  convolution_param {
    num_output: 64
    pad: 2
    kernel_size: 5
    stride: 1
    weight_filler {
      type: "gaussian"
      std: 0.0001
    }
    bias_filler {
      type: "constant"
    }
  }
}
layer {
  name: "relu1"
  type: "ReLU"
  bottom: "conv1"
  top: "conv1"
}
layer {
  name: "conv2"
  type: "Convolution"
  bottom: "conv1"
  top: "conv2"
  param {
    lr_mult: 1
  }
  param {
    lr_mult: 2
  }
  convolution_param {
    num_output: 64
    pad: 2
    kernel_size: 5
    stride: 1
    weight_filler {
      type: "gaussian"
      std: 0.01
    }
    bias_filler {
      type: "constant"
    }
  }
}
layer {
  name: "relu2"
  type: "ReLU"
  bottom: "conv2"
  top: "conv2"
}
layer {
  name: "pool2"
  type: "Pooling"
  bottom: "conv2"
  top: "pool2"
  pooling_param {
    pool: MAX
    kernel_size: 3
    stride: 2
  }
}
layer {
  name: "conv3"
  type: "Convolution"
  bottom: "pool2"
  top: "conv3"
  param {
    lr_mult: 1
  }
  param {
    lr_mult: 2
  }
  convolution_param {
    num_output: 64
    pad: 2
    kernel_size: 5
    stride: 1
    weight_filler {
      type: "gaussian"
      std: 0.01
    }
    bias_filler {
      type: "constant"
    }
  }
}
layer {
  name: "relu3"
  type: "ReLU"
  bottom: "conv3"
  top: "conv3"
}
layer {
  name: "conv4"
  type: "Convolution"
  bottom: "conv3"
  top: "conv4"
  param {
    lr_mult: 1
  }
  param {
    lr_mult: 2
  }
  convolution_param {
    num_output: 64
    pad: 2
    kernel_size: 5
    stride: 1
    weight_filler {
      type: "gaussian"
      std: 0.01
    }
    bias_filler {
      type: "constant"
    }
  }
}
layer {
  name: "relu4"
  type: "ReLU"
  bottom: "conv4"
  top: "conv4"
}
layer {
  name: "conv5"
  type: "Convolution"
  bottom: "conv4"
  top: "conv5"
  param {
    lr_mult: 1
  }
  param {
    lr_mult: 2
  }
  convolution_param {
    num_output: 64
    pad: 2
    kernel_size: 5
    stride: 1
    weight_filler {
      type: "gaussian"
      std: 0.01
    }
    bias_filler {
      type: "constant"
    }
  }
}
layer {
  name: "relu5"
  type: "ReLU"
  bottom: "conv5"
  top: "conv5"
}
layer {
  name: "pool5"
  type: "Pooling"
  bottom: "conv5"
  top: "pool5"
  pooling_param {
    pool: AVE
    kernel_size: 3
    stride: 2
  }
}
layer {
  name: "ip1"
  type: "InnerProduct"
  bottom: "pool5"
  top: "ip1"
  param {
    lr_mult: 1
  }
  param {
    lr_mult: 2
  }
  inner_product_param {
    num_output: 64
    weight_filler {
      type: "gaussian"
      std: 0.1
    }
    bias_filler {
      type: "constant"
    }
  }
}
layer {
  name: "ip2"
  type: "InnerProduct"
  bottom: "ip1"
  top: "ip2"
  param {
    lr_mult: 1
  }
  param {
    lr_mult: 2
  }
  inner_product_param {
    num_output: 64
    weight_filler {
      type: "gaussian"
      std: 0.1
    }
    bias_filler {
      type: "constant"
    }
  }
}
layer {
  name: "ip3"
  type: "InnerProduct"
  bottom: "ip2"
  top: "ip3"
  param {
    lr_mult: 1
  }
  param {
    lr_mult: 2
  }
  inner_product_param {
    num_output: 1
    weight_filler {
      type: "gaussian"
      std: 0.1
    }
    bias_filler {
      type: "constant"
    }
  }
}
layer {
  name: "loss"
  type: "HuberLoss"
  bottom: "ip3"
  bottom: "label"
  top: "loss"
  include {
    phase: TRAIN
  }
}
I0502 13:40:51.253237  3649 layer_factory.hpp:77] Creating layer parameters
I0502 13:40:51.253249  3649 net.cpp:94] Creating Layer parameters
I0502 13:40:51.253254  3649 net.cpp:409] parameters -> data
I0502 13:40:51.253264  3649 net.cpp:409] parameters -> label
I0502 13:40:51.253271  3649 hdf5_data_layer.cpp:79] Loading list of HDF5 filenames from: /home/purduethu/scratch/radon/d/deng106/CNNStatisticalModel/distributions/input/5_distributions_100_sample_size_train-parameters-path.txt
I0502 13:40:51.253288  3649 hdf5_data_layer.cpp:93] Number of HDF5 files: 1
I0502 13:40:51.253856  3649 hdf5.cpp:32] Datatype class: H5T_FLOAT
I0502 13:40:51.272269  3649 net.cpp:144] Setting up parameters
I0502 13:40:51.272300  3649 net.cpp:151] Top shape: 20 1 10 10 (2000)
I0502 13:40:51.272306  3649 net.cpp:151] Top shape: 20 (20)
I0502 13:40:51.272310  3649 net.cpp:159] Memory required for data: 8080
I0502 13:40:51.272316  3649 layer_factory.hpp:77] Creating layer conv1
I0502 13:40:51.272338  3649 net.cpp:94] Creating Layer conv1
I0502 13:40:51.272343  3649 net.cpp:435] conv1 <- data
I0502 13:40:51.272349  3649 net.cpp:409] conv1 -> conv1
I0502 13:40:51.276480  3649 net.cpp:144] Setting up conv1
I0502 13:40:51.276495  3649 net.cpp:151] Top shape: 20 64 10 10 (128000)
I0502 13:40:51.276499  3649 net.cpp:159] Memory required for data: 520080
I0502 13:40:51.276510  3649 layer_factory.hpp:77] Creating layer relu1
I0502 13:40:51.276518  3649 net.cpp:94] Creating Layer relu1
I0502 13:40:51.276522  3649 net.cpp:435] relu1 <- conv1
I0502 13:40:51.276527  3649 net.cpp:396] relu1 -> conv1 (in-place)
I0502 13:40:51.276542  3649 net.cpp:144] Setting up relu1
I0502 13:40:51.276547  3649 net.cpp:151] Top shape: 20 64 10 10 (128000)
I0502 13:40:51.276566  3649 net.cpp:159] Memory required for data: 1032080
I0502 13:40:51.276571  3649 layer_factory.hpp:77] Creating layer conv2
I0502 13:40:51.276579  3649 net.cpp:94] Creating Layer conv2
I0502 13:40:51.276583  3649 net.cpp:435] conv2 <- conv1
I0502 13:40:51.276588  3649 net.cpp:409] conv2 -> conv2
I0502 13:40:51.282636  3649 net.cpp:144] Setting up conv2
I0502 13:40:51.282650  3649 net.cpp:151] Top shape: 20 64 10 10 (128000)
I0502 13:40:51.282655  3649 net.cpp:159] Memory required for data: 1544080
I0502 13:40:51.282663  3649 layer_factory.hpp:77] Creating layer relu2
I0502 13:40:51.282670  3649 net.cpp:94] Creating Layer relu2
I0502 13:40:51.282673  3649 net.cpp:435] relu2 <- conv2
I0502 13:40:51.282678  3649 net.cpp:396] relu2 -> conv2 (in-place)
I0502 13:40:51.282685  3649 net.cpp:144] Setting up relu2
I0502 13:40:51.282691  3649 net.cpp:151] Top shape: 20 64 10 10 (128000)
I0502 13:40:51.282693  3649 net.cpp:159] Memory required for data: 2056080
I0502 13:40:51.282696  3649 layer_factory.hpp:77] Creating layer pool2
I0502 13:40:51.282709  3649 net.cpp:94] Creating Layer pool2
I0502 13:40:51.282713  3649 net.cpp:435] pool2 <- conv2
I0502 13:40:51.282718  3649 net.cpp:409] pool2 -> pool2
I0502 13:40:51.282768  3649 net.cpp:144] Setting up pool2
I0502 13:40:51.282775  3649 net.cpp:151] Top shape: 20 64 5 5 (32000)
I0502 13:40:51.282778  3649 net.cpp:159] Memory required for data: 2184080
I0502 13:40:51.282783  3649 layer_factory.hpp:77] Creating layer conv3
I0502 13:40:51.282790  3649 net.cpp:94] Creating Layer conv3
I0502 13:40:51.282794  3649 net.cpp:435] conv3 <- pool2
I0502 13:40:51.282799  3649 net.cpp:409] conv3 -> conv3
I0502 13:40:51.287626  3649 net.cpp:144] Setting up conv3
I0502 13:40:51.287641  3649 net.cpp:151] Top shape: 20 64 5 5 (32000)
I0502 13:40:51.287644  3649 net.cpp:159] Memory required for data: 2312080
I0502 13:40:51.287653  3649 layer_factory.hpp:77] Creating layer relu3
I0502 13:40:51.287659  3649 net.cpp:94] Creating Layer relu3
I0502 13:40:51.287663  3649 net.cpp:435] relu3 <- conv3
I0502 13:40:51.287668  3649 net.cpp:396] relu3 -> conv3 (in-place)
I0502 13:40:51.287675  3649 net.cpp:144] Setting up relu3
I0502 13:40:51.287680  3649 net.cpp:151] Top shape: 20 64 5 5 (32000)
I0502 13:40:51.287683  3649 net.cpp:159] Memory required for data: 2440080
I0502 13:40:51.287686  3649 layer_factory.hpp:77] Creating layer conv4
I0502 13:40:51.287695  3649 net.cpp:94] Creating Layer conv4
I0502 13:40:51.287699  3649 net.cpp:435] conv4 <- conv3
I0502 13:40:51.287704  3649 net.cpp:409] conv4 -> conv4
I0502 13:40:51.292062  3649 net.cpp:144] Setting up conv4
I0502 13:40:51.292076  3649 net.cpp:151] Top shape: 20 64 5 5 (32000)
I0502 13:40:51.292080  3649 net.cpp:159] Memory required for data: 2568080
I0502 13:40:51.292086  3649 layer_factory.hpp:77] Creating layer relu4
I0502 13:40:51.292093  3649 net.cpp:94] Creating Layer relu4
I0502 13:40:51.292096  3649 net.cpp:435] relu4 <- conv4
I0502 13:40:51.292101  3649 net.cpp:396] relu4 -> conv4 (in-place)
I0502 13:40:51.292109  3649 net.cpp:144] Setting up relu4
I0502 13:40:51.292114  3649 net.cpp:151] Top shape: 20 64 5 5 (32000)
I0502 13:40:51.292116  3649 net.cpp:159] Memory required for data: 2696080
I0502 13:40:51.292119  3649 layer_factory.hpp:77] Creating layer conv5
I0502 13:40:51.292127  3649 net.cpp:94] Creating Layer conv5
I0502 13:40:51.292131  3649 net.cpp:435] conv5 <- conv4
I0502 13:40:51.292136  3649 net.cpp:409] conv5 -> conv5
I0502 13:40:51.296952  3649 net.cpp:144] Setting up conv5
I0502 13:40:51.296965  3649 net.cpp:151] Top shape: 20 64 5 5 (32000)
I0502 13:40:51.296969  3649 net.cpp:159] Memory required for data: 2824080
I0502 13:40:51.296977  3649 layer_factory.hpp:77] Creating layer relu5
I0502 13:40:51.296984  3649 net.cpp:94] Creating Layer relu5
I0502 13:40:51.296988  3649 net.cpp:435] relu5 <- conv5
I0502 13:40:51.296994  3649 net.cpp:396] relu5 -> conv5 (in-place)
I0502 13:40:51.297001  3649 net.cpp:144] Setting up relu5
I0502 13:40:51.297006  3649 net.cpp:151] Top shape: 20 64 5 5 (32000)
I0502 13:40:51.297009  3649 net.cpp:159] Memory required for data: 2952080
I0502 13:40:51.297013  3649 layer_factory.hpp:77] Creating layer pool5
I0502 13:40:51.297018  3649 net.cpp:94] Creating Layer pool5
I0502 13:40:51.297021  3649 net.cpp:435] pool5 <- conv5
I0502 13:40:51.297029  3649 net.cpp:409] pool5 -> pool5
I0502 13:40:51.297067  3649 net.cpp:144] Setting up pool5
I0502 13:40:51.297075  3649 net.cpp:151] Top shape: 20 64 2 2 (5120)
I0502 13:40:51.297078  3649 net.cpp:159] Memory required for data: 2972560
I0502 13:40:51.297082  3649 layer_factory.hpp:77] Creating layer ip1
I0502 13:40:51.297092  3649 net.cpp:94] Creating Layer ip1
I0502 13:40:51.297096  3649 net.cpp:435] ip1 <- pool5
I0502 13:40:51.297101  3649 net.cpp:409] ip1 -> ip1
I0502 13:40:51.298481  3649 net.cpp:144] Setting up ip1
I0502 13:40:51.298494  3649 net.cpp:151] Top shape: 20 64 (1280)
I0502 13:40:51.298498  3649 net.cpp:159] Memory required for data: 2977680
I0502 13:40:51.298504  3649 layer_factory.hpp:77] Creating layer ip2
I0502 13:40:51.298512  3649 net.cpp:94] Creating Layer ip2
I0502 13:40:51.298519  3649 net.cpp:435] ip2 <- ip1
I0502 13:40:51.298526  3649 net.cpp:409] ip2 -> ip2
I0502 13:40:51.298739  3649 net.cpp:144] Setting up ip2
I0502 13:40:51.298748  3649 net.cpp:151] Top shape: 20 64 (1280)
I0502 13:40:51.298750  3649 net.cpp:159] Memory required for data: 2982800
I0502 13:40:51.298755  3649 layer_factory.hpp:77] Creating layer ip3
I0502 13:40:51.298763  3649 net.cpp:94] Creating Layer ip3
I0502 13:40:51.298766  3649 net.cpp:435] ip3 <- ip2
I0502 13:40:51.298771  3649 net.cpp:409] ip3 -> ip3
I0502 13:40:51.298877  3649 net.cpp:144] Setting up ip3
I0502 13:40:51.298884  3649 net.cpp:151] Top shape: 20 1 (20)
I0502 13:40:51.298887  3649 net.cpp:159] Memory required for data: 2982880
I0502 13:40:51.298892  3649 layer_factory.hpp:77] Creating layer loss
I0502 13:40:51.298899  3649 net.cpp:94] Creating Layer loss
I0502 13:40:51.298903  3649 net.cpp:435] loss <- ip3
I0502 13:40:51.298907  3649 net.cpp:435] loss <- label
I0502 13:40:51.298913  3649 net.cpp:409] loss -> loss
I0502 13:40:51.298967  3649 net.cpp:144] Setting up loss
…
I0502 13:40:51.323323  3649 net.cpp:323] The NetState phase (0) differed from the phase (1) specified by a rule in layer intercept
I0502 13:40:51.323338  3649 net.cpp:323] The NetState phase (0) differed from the phase (1) specified by a rule in layer accuracy
I0502 13:40:51.323429  3649 net.cpp:52] Initializing net from parameters: 
state {
  phase: TRAIN
}
layer {
  name: "parameters"
  type: "HDF5Data"
  top: "data"
  top: "label"
  include {
    phase: TRAIN
  }
  hdf5_data_param {
    source: "/home/purduethu/scratch/radon/d/deng106/CNNStatisticalModel/distributions/input/5_distributions_100_sample_size_train-distributions-path.txt"
    batch_size: 20
  }
}
layer {
  name: "conv1"
  type: "Convolution"
  bottom: "data"
  top: "conv1"
  param {
    lr_mult: 1
  }
  param {
    lr_mult: 2
  }
  convolution_param {
    num_output: 64
    pad: 2
    kernel_size: 5
    stride: 1
    weight_filler {
      type: "gaussian"
      std: 0.0001
    }
    bias_filler {
      type: "constant"
    }
  }
}
layer {
  name: "relu1"
  type: "ReLU"
  bottom: "conv1"
  top: "conv1"
}
layer {
  name: "conv2"
  type: "Convolution"
  bottom: "conv1"
  top: "conv2"
  param {
    lr_mult: 1
  }
  param {
    lr_mult: 2
  }
  convolution_param {
    num_output: 64
    pad: 2
    kernel_size: 5
    stride: 1
    weight_filler {
      type: "gaussian"
      std: 0.01
    }
    bias_filler {
      type: "constant"
    }
  }
}
layer {
  name: "relu2"
  type: "ReLU"
  bottom: "conv2"
  top: "conv2"
}
layer {
  name: "pool2"
  type: "Pooling"
  bottom: "conv2"
  top: "pool2"
  pooling_param {
    pool: MAX
    kernel_size: 3
    stride: 2
  }
}
layer {
  name: "conv3"
  type: "Convolution"
  bottom: "pool2"
  top: "conv3"
  param {
    lr_mult: 1
  }
  param {
    lr_mult: 2
  }
  convolution_param {
    num_output: 64
    pad: 2
    kernel_size: 5
    stride: 1
    weight_filler {
      type: "gaussian"
      std: 0.01
    }
    bias_filler {
      type: "constant"
    }
  }
}
layer {
  name: "relu3"
  type: "ReLU"
  bottom: "conv3"
  top: "conv3"
}
layer {
  name: "conv4"
  type: "Convolution"
  bottom: "conv3"
  top: "conv4"
  param {
    lr_mult: 1
  }
  param {
    lr_mult: 2
  }
  convolution_param {
    num_output: 64
    pad: 2
    kernel_size: 5
    stride: 1
    weight_filler {
      type: "gaussian"
      std: 0.01
    }
    bias_filler {
      type: "constant"
    }
  }
}
layer {
  name: "relu4"
  type: "ReLU"
  bottom: "conv4"
  top: "conv4"
}
layer {
  name: "conv5"
  type: "Convolution"
  bottom: "conv4"
  top: "conv5"
  param {
    lr_mult: 1
  }
  param {
    lr_mult: 2
  }
  convolution_param {
    num_output: 64
    pad: 2
    kernel_size: 5
    stride: 1
    weight_filler {
      type: "gaussian"
      std: 0.01
    }
    bias_filler {
      type: "constant"
    }
  }
}
layer {
  name: "relu5"
  type: "ReLU"
  bottom: "conv5"
  top: "conv5"
}
layer {
  name: "pool5"
  type: "Pooling"
  bottom: "conv5"
  top: "pool5"
  pooling_param {
    pool: AVE
    kernel_size: 3
    stride: 2
  }
}
layer {
  name: "ip1"
  type: "InnerProduct"
  bottom: "pool5"
  top: "ip1"
  param {
    lr_mult: 1
  }
  param {
    lr_mult: 2
  }
  inner_product_param {
    num_output: 64
    weight_filler {
      type: "gaussian"
      std: 0.1
    }
    bias_filler {
      type: "constant"
    }
  }
}
layer {
  name: "ip2"
  type: "InnerProduct"
  bottom: "ip1"
  top: "ip2"
  param {
    lr_mult: 1
  }
  param {
    lr_mult: 2
  }
  inner_product_param {
    num_output: 64
    weight_filler {
      type: "gaussian"
      std: 0.1
    }
    bias_filler {
      type: "constant"
    }
  }
}
layer {
  name: "ip3"
  type: "InnerProduct"
  bottom: "ip2"
  top: "ip3"
  param {
    lr_mult: 1
  }
  param {
    lr_mult: 2
  }
  inner_product_param {
    num_output: 50
    weight_filler {
      type: "gaussian"
      std: 0.1
    }
    bias_filler {
      type: "constant"
    }
  }
}
layer {
  name: "loss"
  type: "SoftmaxWithLoss"
  bottom: "ip3"
  bottom: "label"
  top: "loss"
}
I0502 13:40:51.323483  3649 layer_factory.hpp:77] Creating layer parameters
I0502 13:40:51.323493  3649 net.cpp:94] Creating Layer parameters
I0502 13:40:51.323498  3649 net.cpp:409] parameters -> data
I0502 13:40:51.323504  3649 net.cpp:409] parameters -> label
I0502 13:40:51.323510  3649 hdf5_data_layer.cpp:79] Loading list of HDF5 filenames from: /home/purduethu/scratch/radon/d/deng106/CNNStatisticalModel/distributions/input/5_distributions_100_sample_size_train-distributions-path.txt
I0502 13:40:51.323529  3649 hdf5_data_layer.cpp:93] Number of HDF5 files: 1
I0502 13:40:51.339597  3649 hdf5.cpp:35] Datatype class: H5T_INTEGER
I0502 13:40:51.340028  3649 net.cpp:144] Setting up parameters
I0502 13:40:51.340041  3649 net.cpp:151] Top shape: 20 1 10 10 (2000)
I0502 13:40:51.340046  3649 net.cpp:151] Top shape: 20 (20)
I0502 13:40:51.340050  3649 net.cpp:159] Memory required for data: 8080
I0502 13:40:51.340056  3649 layer_factory.hpp:77] Creating layer conv1
I0502 13:40:51.340073  3649 net.cpp:94] Creating Layer conv1
I0502 13:40:51.340078  3649 net.cpp:435] conv1 <- data
I0502 13:40:51.340085  3649 net.cpp:409] conv1 -> conv1
I0502 13:40:51.341879  3649 net.cpp:144] Setting up conv1
I0502 13:40:51.341893  3649 net.cpp:151] Top shape: 20 64 10 10 (128000)
I0502 13:40:51.341897  3649 net.cpp:159] Memory required for data: 520080
I0502 13:40:51.341908  3649 layer_factory.hpp:77] Creating layer relu1
I0502 13:40:51.341915  3649 net.cpp:94] Creating Layer relu1
I0502 13:40:51.341919  3649 net.cpp:435] relu1 <- conv1
I0502 13:40:51.341924  3649 net.cpp:396] relu1 -> conv1 (in-place)
I0502 13:40:51.341933  3649 net.cpp:144] Setting up relu1
I0502 13:40:51.341936  3649 net.cpp:151] Top shape: 20 64 10 10 (128000)
I0502 13:40:51.341940  3649 net.cpp:159] Memory required for data: 1032080
I0502 13:40:51.341943  3649 layer_factory.hpp:77] Creating layer conv2
I0502 13:40:51.341950  3649 net.cpp:94] Creating Layer conv2
I0502 13:40:51.341954  3649 net.cpp:435] conv2 <- conv1
I0502 13:40:51.341959  3649 net.cpp:409] conv2 -> conv2
I0502 13:40:51.347296  3649 net.cpp:144] Setting up conv2
I0502 13:40:51.347311  3649 net.cpp:151] Top shape: 20 64 10 10 (128000)
I0502 13:40:51.347314  3649 net.cpp:159] Memory required for data: 1544080
I0502 13:40:51.347322  3649 layer_factory.hpp:77] Creating layer relu2
I0502 13:40:51.347329  3649 net.cpp:94] Creating Layer relu2
I0502 13:40:51.347333  3649 net.cpp:435] relu2 <- conv2
I0502 13:40:51.347337  3649 net.cpp:396] relu2 -> conv2 (in-place)
I0502 13:40:51.347344  3649 net.cpp:144] Setting up relu2
I0502 13:40:51.347349  3649 net.cpp:151] Top shape: 20 64 10 10 (128000)
I0502 13:40:51.347352  3649 net.cpp:159] Memory required for data: 2056080
I0502 13:40:51.347357  3649 layer_factory.hpp:77] Creating layer pool2
I0502 13:40:51.347362  3649 net.cpp:94] Creating Layer pool2
I0502 13:40:51.347365  3649 net.cpp:435] pool2 <- conv2
I0502 13:40:51.347370  3649 net.cpp:409] pool2 -> pool2
I0502 13:40:51.347417  3649 net.cpp:144] Setting up pool2
I0502 13:40:51.347425  3649 net.cpp:151] Top shape: 20 64 5 5 (32000)
I0502 13:40:51.347429  3649 net.cpp:159] Memory required for data: 2184080
I0502 13:40:51.347432  3649 layer_factory.hpp:77] Creating layer conv3
I0502 13:40:51.347440  3649 net.cpp:94] Creating Layer conv3
I0502 13:40:51.347443  3649 net.cpp:435] conv3 <- pool2
I0502 13:40:51.347448  3649 net.cpp:409] conv3 -> conv3
I0502 13:40:51.352344  3649 net.cpp:144] Setting up conv3
I0502 13:40:51.352365  3649 net.cpp:151] Top shape: 20 64 5 5 (32000)
I0502 13:40:51.352370  3649 net.cpp:159] Memory required for data: 2312080
I0502 13:40:51.352378  3649 layer_factory.hpp:77] Creating layer relu3
I0502 13:40:51.352385  3649 net.cpp:94] Creating Layer relu3
I0502 13:40:51.352388  3649 net.cpp:435] relu3 <- conv3
I0502 13:40:51.352392  3649 net.cpp:396] relu3 -> conv3 (in-place)
I0502 13:40:51.352401  3649 net.cpp:144] Setting up relu3
I0502 13:40:51.352404  3649 net.cpp:151] Top shape: 20 64 5 5 (32000)
I0502 13:40:51.352408  3649 net.cpp:159] Memory required for data: 2440080
I0502 13:40:51.352411  3649 layer_factory.hpp:77] Creating layer conv4
I0502 13:40:51.352421  3649 net.cpp:94] Creating Layer conv4
I0502 13:40:51.352423  3649 net.cpp:435] conv4 <- conv3
I0502 13:40:51.352428  3649 net.cpp:409] conv4 -> conv4
I0502 13:40:51.358232  3649 net.cpp:144] Setting up conv4
I0502 13:40:51.358245  3649 net.cpp:151] Top shape: 20 64 5 5 (32000)
I0502 13:40:51.358249  3649 net.cpp:159] Memory required for data: 2568080
I0502 13:40:51.358256  3649 layer_factory.hpp:77] Creating layer relu4
I0502 13:40:51.358263  3649 net.cpp:94] Creating Layer relu4
I0502 13:40:51.358266  3649 net.cpp:435] relu4 <- conv4
I0502 13:40:51.358271  3649 net.cpp:396] relu4 -> conv4 (in-place)
I0502 13:40:51.358278  3649 net.cpp:144] Setting up relu4
I0502 13:40:51.358283  3649 net.cpp:151] Top shape: 20 64 5 5 (32000)
I0502 13:40:51.358288  3649 net.cpp:159] Memory required for data: 2696080
I0502 13:40:51.358290  3649 layer_factory.hpp:77] Creating layer conv5
I0502 13:40:51.358299  3649 net.cpp:94] Creating Layer conv5
I0502 13:40:51.358301  3649 net.cpp:435] conv5 <- conv4
I0502 13:40:51.358307  3649 net.cpp:409] conv5 -> conv5
I0502 13:40:51.362702  3649 net.cpp:144] Setting up conv5
I0502 13:40:51.362716  3649 net.cpp:151] Top shape: 20 64 5 5 (32000)
I0502 13:40:51.362720  3649 net.cpp:159] Memory required for data: 2824080
I0502 13:40:51.362728  3649 layer_factory.hpp:77] Creating layer relu5
I0502 13:40:51.362735  3649 net.cpp:94] Creating Layer relu5
I0502 13:40:51.362738  3649 net.cpp:435] relu5 <- conv5
I0502 13:40:51.362742  3649 net.cpp:396] relu5 -> conv5 (in-place)
I0502 13:40:51.362749  3649 net.cpp:144] Setting up relu5
I0502 13:40:51.362754  3649 net.cpp:151] Top shape: 20 64 5 5 (32000)
I0502 13:40:51.362758  3649 net.cpp:159] Memory required for data: 2952080
I0502 13:40:51.362761  3649 layer_factory.hpp:77] Creating layer pool5
I0502 13:40:51.362766  3649 net.cpp:94] Creating Layer pool5
I0502 13:40:51.362769  3649 net.cpp:435] pool5 <- conv5
I0502 13:40:51.362774  3649 net.cpp:409] pool5 -> pool5
I0502 13:40:51.362808  3649 net.cpp:144] Setting up pool5
I0502 13:40:51.362815  3649 net.cpp:151] Top shape: 20 64 2 2 (5120)
I0502 13:40:51.362819  3649 net.cpp:159] Memory required for data: 2972560
I0502 13:40:51.362823  3649 layer_factory.hpp:77] Creating layer ip1
I0502 13:40:51.362829  3649 net.cpp:94] Creating Layer ip1
I0502 13:40:51.362833  3649 net.cpp:435] ip1 <- pool5
I0502 13:40:51.362838  3649 net.cpp:409] ip1 -> ip1
I0502 13:40:51.363351  3649 net.cpp:144] Setting up ip1
I0502 13:40:51.363359  3649 net.cpp:151] Top shape: 20 64 (1280)
I0502 13:40:51.363363  3649 net.cpp:159] Memory required for data: 2977680
I0502 13:40:51.363368  3649 layer_factory.hpp:77] Creating layer ip2
I0502 13:40:51.363376  3649 net.cpp:94] Creating Layer ip2
I0502 13:40:51.363379  3649 net.cpp:435] ip2 <- ip1
I0502 13:40:51.363384  3649 net.cpp:409] ip2 -> ip2
I0502 13:40:51.363606  3649 net.cpp:144] Setting up ip2
I0502 13:40:51.363613  3649 net.cpp:151] Top shape: 20 64 (1280)
I0502 13:40:51.363616  3649 net.cpp:159] Memory required for data: 2982800
I0502 13:40:51.363621  3649 layer_factory.hpp:77] Creating layer ip3
I0502 13:40:51.363627  3649 net.cpp:94] Creating Layer ip3
I0502 13:40:51.363631  3649 net.cpp:435] ip3 <- ip2
I0502 13:40:51.363637  3649 net.cpp:409] ip3 -> ip3
I0502 13:40:51.363831  3649 net.cpp:144] Setting up ip3
I0502 13:40:51.363839  3649 net.cpp:151] Top shape: 20 50 (1000)
I0502 13:40:51.363849  3649 net.cpp:159] Memory required for data: 2986800
I0502 13:40:51.363855  3649 layer_factory.hpp:77] Creating layer loss
I0502 13:40:51.363862  3649 net.cpp:94] Creating Layer loss
I0502 13:40:51.363867  3649 net.cpp:435] loss <- ip3
I0502 13:40:51.363870  3649 net.cpp:435] loss <- label
I0502 13:40:51.363876  3649 net.cpp:409] loss -> loss
I0502 13:40:51.363883  3649 layer_factory.hpp:77] Creating layer loss
…
I0502 13:40:51.365319  3649 solver.cpp:181] Creating test net (#0) specified by net file: ./protocol/dis_5_100_dimension.protocol_distribution
I0502 13:40:51.365346  3649 net.cpp:323] The NetState phase (1) differed from the phase (0) specified by a rule in layer parameters
I0502 13:40:51.365448  3649 net.cpp:52] Initializing net from parameters: 
state {
  phase: TEST
}
layer {
  name: "intercept"
  type: "HDF5Data"
  top: "data"
  top: "label"
  include {
    phase: TEST
  }
  hdf5_data_param {
    source: "/home/purduethu/scratch/radon/d/deng106/CNNStatisticalModel/distributions/input/5_distributions_100_sample_size_test-distributions-path.txt"
    batch_size: 20
  }
}
layer {
  name: "conv1"
  type: "Convolution"
  bottom: "data"
  top: "conv1"
  param {
    lr_mult: 1
  }
  param {
    lr_mult: 2
  }
  convolution_param {
    num_output: 64
    pad: 2
    kernel_size: 5
    stride: 1
    weight_filler {
      type: "gaussian"
      std: 0.0001
    }
    bias_filler {
      type: "constant"
    }
  }
}
layer {
  name: "relu1"
  type: "ReLU"
  bottom: "conv1"
  top: "conv1"
}
layer {
  name: "conv2"
  type: "Convolution"
  bottom: "conv1"
  top: "conv2"
  param {
    lr_mult: 1
  }
  param {
    lr_mult: 2
  }
  convolution_param {
    num_output: 64
    pad: 2
    kernel_size: 5
    stride: 1
    weight_filler {
      type: "gaussian"
      std: 0.01
    }
    bias_filler {
      type: "constant"
    }
  }
}
layer {
  name: "relu2"
  type: "ReLU"
  bottom: "conv2"
  top: "conv2"
}
layer {
  name: "pool2"
  type: "Pooling"
  bottom: "conv2"
  top: "pool2"
  pooling_param {
    pool: MAX
    kernel_size: 3
    stride: 2
  }
}
layer {
  name: "conv3"
  type: "Convolution"
  bottom: "pool2"
  top: "conv3"
  param {
    lr_mult: 1
  }
  param {
    lr_mult: 2
  }
  convolution_param {
    num_output: 64
    pad: 2
    kernel_size: 5
    stride: 1
    weight_filler {
      type: "gaussian"
      std: 0.01
    }
    bias_filler {
      type: "constant"
    }
  }
}
layer {
  name: "relu3"
  type: "ReLU"
  bottom: "conv3"
  top: "conv3"
}
layer {
  name: "conv4"
  type: "Convolution"
  bottom: "conv3"
  top: "conv4"
  param {
    lr_mult: 1
  }
  param {
    lr_mult: 2
  }
  convolution_param {
    num_output: 64
    pad: 2
    kernel_size: 5
    stride: 1
    weight_filler {
      type: "gaussian"
      std: 0.01
    }
    bias_filler {
      type: "constant"
    }
  }
}
layer {
  name: "relu4"
  type: "ReLU"
  bottom: "conv4"
  top: "conv4"
}
layer {
  name: "conv5"
  type: "Convolution"
  bottom: "conv4"
  top: "conv5"
  param {
    lr_mult: 1
  }
  param {
    lr_mult: 2
  }
  convolution_param {
    num_output: 64
    pad: 2
    kernel_size: 5
    stride: 1
    weight_filler {
      type: "gaussian"
      std: 0.01
    }
    bias_filler {
      type: "constant"
    }
  }
}
layer {
  name: "relu5"
  type: "ReLU"
  bottom: "conv5"
  top: "conv5"
}
layer {
  name: "pool5"
  type: "Pooling"
  bottom: "conv5"
  top: "pool5"
  pooling_param {
    pool: AVE
    kernel_size: 3
    stride: 2
  }
}
layer {
  name: "ip1"
  type: "InnerProduct"
  bottom: "pool5"
  top: "ip1"
  param {
    lr_mult: 1
  }
  param {
    lr_mult: 2
  }
  inner_product_param {
    num_output: 64
    weight_filler {
      type: "gaussian"
      std: 0.1
    }
    bias_filler {
      type: "constant"
    }
  }
}
layer {
  name: "ip2"
  type: "InnerProduct"
  bottom: "ip1"
  top: "ip2"
  param {
    lr_mult: 1
  }
  param {
    lr_mult: 2
  }
  inner_product_param {
    num_output: 64
    weight_filler {
      type: "gaussian"
      std: 0.1
    }
    bias_filler {
      type: "constant"
    }
  }
}
layer {
  name: "ip3"
  type: "InnerProduct"
  bottom: "ip2"
  top: "ip3"
  param {
    lr_mult: 1
  }
  param {
    lr_mult: 2
  }
  inner_product_param {
    num_output: 50
    weight_filler {
      type: "gaussian"
      std: 0.1
    }
    bias_filler {
      type: "constant"
    }
  }
}
layer {
  name: "accuracy"
  type: "Accuracy"
  bottom: "ip3"
  bottom: "label"
  top: "accuracy"
  include {
    phase: TEST
  }
}
layer {
  name: "loss"
  type: "SoftmaxWithLoss"
  bottom: "ip3"
  bottom: "label"
  top: "loss"
}
I0502 13:40:51.365522  3649 layer_factory.hpp:77] Creating layer intercept
I0502 13:40:51.365531  3649 net.cpp:94] Creating Layer intercept
I0502 13:40:51.365535  3649 net.cpp:409] intercept -> data
I0502 13:40:51.365542  3649 net.cpp:409] intercept -> label
I0502 13:40:51.365550  3649 hdf5_data_layer.cpp:79] Loading list of HDF5 filenames from: /home/purduethu/scratch/radon/d/deng106/CNNStatisticalModel/distributions/input/5_distributions_100_sample_size_test-distributions-path.txt
I0502 13:40:51.365569  3649 hdf5_data_layer.cpp:93] Number of HDF5 files: 1
I0502 13:40:51.370033  3649 net.cpp:144] Setting up intercept
I0502 13:40:51.370059  3649 net.cpp:151] Top shape: 20 1 10 10 (2000)
I0502 13:40:51.370064  3649 net.cpp:151] Top shape: 20 (20)
I0502 13:40:51.370067  3649 net.cpp:159] Memory required for data: 8080
I0502 13:40:51.370074  3649 layer_factory.hpp:77] Creating layer label_intercept_1_split
I0502 13:40:51.370090  3649 net.cpp:94] Creating Layer label_intercept_1_split
I0502 13:40:51.370093  3649 net.cpp:435] label_intercept_1_split <- label
I0502 13:40:51.370100  3649 net.cpp:409] label_intercept_1_split -> label_intercept_1_split_0
I0502 13:40:51.370107  3649 net.cpp:409] label_intercept_1_split -> label_intercept_1_split_1
I0502 13:40:51.370146  3649 net.cpp:144] Setting up label_intercept_1_split
I0502 13:40:51.370153  3649 net.cpp:151] Top shape: 20 (20)
I0502 13:40:51.370157  3649 net.cpp:151] Top shape: 20 (20)
I0502 13:40:51.370162  3649 net.cpp:159] Memory required for data: 8240
I0502 13:40:51.370164  3649 layer_factory.hpp:77] Creating layer conv1
I0502 13:40:51.370174  3649 net.cpp:94] Creating Layer conv1
I0502 13:40:51.370178  3649 net.cpp:435] conv1 <- data
I0502 13:40:51.370183  3649 net.cpp:409] conv1 -> conv1
I0502 13:40:51.370951  3649 net.cpp:144] Setting up conv1
I0502 13:40:51.370965  3649 net.cpp:151] Top shape: 20 64 10 10 (128000)
I0502 13:40:51.370968  3649 net.cpp:159] Memory required for data: 520240
I0502 13:40:51.370983  3649 layer_factory.hpp:77] Creating layer relu1
I0502 13:40:51.370990  3649 net.cpp:94] Creating Layer relu1
I0502 13:40:51.370995  3649 net.cpp:435] relu1 <- conv1
I0502 13:40:51.371000  3649 net.cpp:396] relu1 -> conv1 (in-place)
I0502 13:40:51.371006  3649 net.cpp:144] Setting up relu1
I0502 13:40:51.371011  3649 net.cpp:151] Top shape: 20 64 10 10 (128000)
I0502 13:40:51.371014  3649 net.cpp:159] Memory required for data: 1032240
I0502 13:40:51.371018  3649 layer_factory.hpp:77] Creating layer conv2
I0502 13:40:51.371026  3649 net.cpp:94] Creating Layer conv2
I0502 13:40:51.371031  3649 net.cpp:435] conv2 <- conv1
I0502 13:40:51.371035  3649 net.cpp:409] conv2 -> conv2
I0502 13:40:51.375157  3649 net.cpp:144] Setting up conv2
I0502 13:40:51.375170  3649 net.cpp:151] Top shape: 20 64 10 10 (128000)
I0502 13:40:51.375174  3649 net.cpp:159] Memory required for data: 1544240
I0502 13:40:51.375182  3649 layer_factory.hpp:77] Creating layer relu2
I0502 13:40:51.375188  3649 net.cpp:94] Creating Layer relu2
I0502 13:40:51.375192  3649 net.cpp:435] relu2 <- conv2
I0502 13:40:51.375197  3649 net.cpp:396] relu2 -> conv2 (in-place)
I0502 13:40:51.375205  3649 net.cpp:144] Setting up relu2
I0502 13:40:51.375210  3649 net.cpp:151] Top shape: 20 64 10 10 (128000)
I0502 13:40:51.375212  3649 net.cpp:159] Memory required for data: 2056240
I0502 13:40:51.375216  3649 layer_factory.hpp:77] Creating layer pool2
I0502 13:40:51.375221  3649 net.cpp:94] Creating Layer pool2
I0502 13:40:51.375224  3649 net.cpp:435] pool2 <- conv2
I0502 13:40:51.375229  3649 net.cpp:409] pool2 -> pool2
I0502 13:40:51.375277  3649 net.cpp:144] Setting up pool2
I0502 13:40:51.375283  3649 net.cpp:151] Top shape: 20 64 5 5 (32000)
I0502 13:40:51.375288  3649 net.cpp:159] Memory required for data: 2184240
I0502 13:40:51.375290  3649 layer_factory.hpp:77] Creating layer conv3
I0502 13:40:51.375298  3649 net.cpp:94] Creating Layer conv3
I0502 13:40:51.375303  3649 net.cpp:435] conv3 <- pool2
I0502 13:40:51.375308  3649 net.cpp:409] conv3 -> conv3
I0502 13:40:51.378993  3649 net.cpp:144] Setting up conv3
I0502 13:40:51.379006  3649 net.cpp:151] Top shape: 20 64 5 5 (32000)
I0502 13:40:51.379010  3649 net.cpp:159] Memory required for data: 2312240
I0502 13:40:51.379019  3649 layer_factory.hpp:77] Creating layer relu3
I0502 13:40:51.379024  3649 net.cpp:94] Creating Layer relu3
I0502 13:40:51.379029  3649 net.cpp:435] relu3 <- conv3
I0502 13:40:51.379034  3649 net.cpp:396] relu3 -> conv3 (in-place)
I0502 13:40:51.379040  3649 net.cpp:144] Setting up relu3
I0502 13:40:51.379045  3649 net.cpp:151] Top shape: 20 64 5 5 (32000)
I0502 13:40:51.379050  3649 net.cpp:159] Memory required for data: 2440240
I0502 13:40:51.379052  3649 layer_factory.hpp:77] Creating layer conv4
I0502 13:40:51.379060  3649 net.cpp:94] Creating Layer conv4
I0502 13:40:51.379065  3649 net.cpp:435] conv4 <- conv3
I0502 13:40:51.379070  3649 net.cpp:409] conv4 -> conv4
I0502 13:40:51.382757  3649 net.cpp:144] Setting up conv4
I0502 13:40:51.382771  3649 net.cpp:151] Top shape: 20 64 5 5 (32000)
I0502 13:40:51.382776  3649 net.cpp:159] Memory required for data: 2568240
I0502 13:40:51.382782  3649 layer_factory.hpp:77] Creating layer relu4
I0502 13:40:51.382788  3649 net.cpp:94] Creating Layer relu4
I0502 13:40:51.382791  3649 net.cpp:435] relu4 <- conv4
I0502 13:40:51.382797  3649 net.cpp:396] relu4 -> conv4 (in-place)
I0502 13:40:51.382803  3649 net.cpp:144] Setting up relu4
I0502 13:40:51.382808  3649 net.cpp:151] Top shape: 20 64 5 5 (32000)
I0502 13:40:51.382812  3649 net.cpp:159] Memory required for data: 2696240
I0502 13:40:51.382814  3649 layer_factory.hpp:77] Creating layer conv5
I0502 13:40:51.382822  3649 net.cpp:94] Creating Layer conv5
I0502 13:40:51.382827  3649 net.cpp:435] conv5 <- conv4
I0502 13:40:51.382830  3649 net.cpp:409] conv5 -> conv5
I0502 13:40:51.387845  3649 net.cpp:144] Setting up conv5
I0502 13:40:51.387858  3649 net.cpp:151] Top shape: 20 64 5 5 (32000)
I0502 13:40:51.387862  3649 net.cpp:159] Memory required for data: 2824240
I0502 13:40:51.387874  3649 layer_factory.hpp:77] Creating layer relu5
I0502 13:40:51.387881  3649 net.cpp:94] Creating Layer relu5
I0502 13:40:51.387886  3649 net.cpp:435] relu5 <- conv5
I0502 13:40:51.387890  3649 net.cpp:396] relu5 -> conv5 (in-place)
I0502 13:40:51.387897  3649 net.cpp:144] Setting up relu5
I0502 13:40:51.387902  3649 net.cpp:151] Top shape: 20 64 5 5 (32000)
I0502 13:40:51.387907  3649 net.cpp:159] Memory required for data: 2952240
I0502 13:40:51.387909  3649 layer_factory.hpp:77] Creating layer pool5
I0502 13:40:51.387914  3649 net.cpp:94] Creating Layer pool5
I0502 13:40:51.387917  3649 net.cpp:435] pool5 <- conv5
I0502 13:40:51.387923  3649 net.cpp:409] pool5 -> pool5
I0502 13:40:51.387956  3649 net.cpp:144] Setting up pool5
I0502 13:40:51.387964  3649 net.cpp:151] Top shape: 20 64 2 2 (5120)
I0502 13:40:51.387967  3649 net.cpp:159] Memory required for data: 2972720
I0502 13:40:51.387970  3649 layer_factory.hpp:77] Creating layer ip1
I0502 13:40:51.387977  3649 net.cpp:94] Creating Layer ip1
I0502 13:40:51.387981  3649 net.cpp:435] ip1 <- pool5
I0502 13:40:51.387986  3649 net.cpp:409] ip1 -> ip1
I0502 13:40:51.388519  3649 net.cpp:144] Setting up ip1
I0502 13:40:51.388527  3649 net.cpp:151] Top shape: 20 64 (1280)
I0502 13:40:51.388530  3649 net.cpp:159] Memory required for data: 2977840
I0502 13:40:51.388536  3649 layer_factory.hpp:77] Creating layer ip2
I0502 13:40:51.388542  3649 net.cpp:94] Creating Layer ip2
I0502 13:40:51.388546  3649 net.cpp:435] ip2 <- ip1
I0502 13:40:51.388561  3649 net.cpp:409] ip2 -> ip2
I0502 13:40:51.388780  3649 net.cpp:144] Setting up ip2
I0502 13:40:51.388788  3649 net.cpp:151] Top shape: 20 64 (1280)
I0502 13:40:51.388792  3649 net.cpp:159] Memory required for data: 2982960
I0502 13:40:51.388797  3649 layer_factory.hpp:77] Creating layer ip3
I0502 13:40:51.388804  3649 net.cpp:94] Creating Layer ip3
I0502 13:40:51.388808  3649 net.cpp:435] ip3 <- ip2
I0502 13:40:51.388813  3649 net.cpp:409] ip3 -> ip3
I0502 13:40:51.389008  3649 net.cpp:144] Setting up ip3
I0502 13:40:51.389015  3649 net.cpp:151] Top shape: 20 50 (1000)
I0502 13:40:51.389019  3649 net.cpp:159] Memory required for data: 2986960
I0502 13:40:51.389024  3649 layer_factory.hpp:77] Creating layer ip3_ip3_0_split
I0502 13:40:51.389029  3649 net.cpp:94] Creating Layer ip3_ip3_0_split
I0502 13:40:51.389032  3649 net.cpp:435] ip3_ip3_0_split <- ip3
I0502 13:40:51.389036  3649 net.cpp:409] ip3_ip3_0_split -> ip3_ip3_0_split_0
I0502 13:40:51.389042  3649 net.cpp:409] ip3_ip3_0_split -> ip3_ip3_0_split_1
I0502 13:40:51.389080  3649 net.cpp:144] Setting up ip3_ip3_0_split
I0502 13:40:51.389086  3649 net.cpp:151] Top shape: 20 50 (1000)
I0502 13:40:51.389089  3649 net.cpp:151] Top shape: 20 50 (1000)
I0502 13:40:51.389092  3649 net.cpp:159] Memory required for data: 2994960
I0502 13:40:51.389096  3649 layer_factory.hpp:77] Creating layer accuracy
I0502 13:40:51.389101  3649 net.cpp:94] Creating Layer accuracy
I0502 13:40:51.389106  3649 net.cpp:435] accuracy <- ip3_ip3_0_split_0
I0502 13:40:51.389109  3649 net.cpp:435] accuracy <- label_intercept_1_split_0
I0502 13:40:51.389113  3649 net.cpp:409] accuracy -> accuracy
…
