…
I0503 12:59:15.097278 20743 net.cpp:323] The NetState phase (0) differed from the phase (1) specified by a rule in layer intercept
I0503 12:59:15.097295 20743 net.cpp:323] The NetState phase (0) differed from the phase (1) specified by a rule in layer accuracy
I0503 12:59:15.097381 20743 net.cpp:52] Initializing net from parameters: 
state {
  phase: TRAIN
}
layer {
  name: "parameters"
  type: "HDF5Data"
  top: "data"
  top: "label"
  include {
    phase: TRAIN
  }
  hdf5_data_param {
    source: "/home/purduethu/scratch/radon/d/deng106/CNNStatisticalModel/distributions/input/5_distributions_400_sample_size_train-distributions-path.txt"
    batch_size: 20
  }
}
layer {
  name: "conv1"
  type: "Convolution"
  bottom: "data"
  top: "conv1"
  param {
    lr_mult: 1
  }
  param {
    lr_mult: 2
  }
  convolution_param {
    num_output: 64
    pad: 2
    kernel_size: 5
    stride: 1
    weight_filler {
      type: "gaussian"
      std: 0.0001
    }
    bias_filler {
      type: "constant"
    }
  }
}
layer {
  name: "relu1"
  type: "ReLU"
  bottom: "conv1"
  top: "conv1"
}
layer {
  name: "conv2"
  type: "Convolution"
  bottom: "conv1"
  top: "conv2"
  param {
    lr_mult: 1
  }
  param {
    lr_mult: 2
  }
  convolution_param {
    num_output: 64
    pad: 2
    kernel_size: 5
    stride: 1
    weight_filler {
      type: "gaussian"
      std: 0.01
    }
    bias_filler {
      type: "constant"
    }
  }
}
layer {
  name: "relu2"
  type: "ReLU"
  bottom: "conv2"
  top: "conv2"
}
layer {
  name: "pool2"
  type: "Pooling"
  bottom: "conv2"
  top: "pool2"
  pooling_param {
    pool: MAX
    kernel_size: 3
    stride: 2
  }
}
layer {
  name: "conv3"
  type: "Convolution"
  bottom: "pool2"
  top: "conv3"
  param {
    lr_mult: 1
  }
  param {
    lr_mult: 2
  }
  convolution_param {
    num_output: 128
    pad: 2
    kernel_size: 5
    stride: 1
    weight_filler {
      type: "gaussian"
      std: 0.01
    }
    bias_filler {
      type: "constant"
    }
  }
}
layer {
  name: "relu3"
  type: "ReLU"
  bottom: "conv3"
  top: "conv3"
}
layer {
  name: "conv4"
  type: "Convolution"
  bottom: "conv3"
  top: "conv4"
  param {
    lr_mult: 1
  }
  param {
    lr_mult: 2
  }
  convolution_param {
    num_output: 128
    pad: 2
    kernel_size: 5
    stride: 1
    weight_filler {
      type: "gaussian"
      std: 0.01
    }
    bias_filler {
      type: "constant"
    }
  }
}
layer {
  name: "relu4"
  type: "ReLU"
  bottom: "conv4"
  top: "conv4"
}
layer {
  name: "conv5"
  type: "Convolution"
  bottom: "conv4"
  top: "conv5"
  param {
    lr_mult: 1
  }
  param {
    lr_mult: 2
  }
  convolution_param {
    num_output: 128
    pad: 2
    kernel_size: 5
    stride: 1
    weight_filler {
      type: "gaussian"
      std: 0.01
    }
    bias_filler {
      type: "constant"
    }
  }
}
layer {
  name: "relu5"
  type: "ReLU"
  bottom: "conv5"
  top: "conv5"
}
layer {
  name: "pool5"
  type: "Pooling"
  bottom: "conv5"
  top: "pool5"
  pooling_param {
    pool: AVE
    kernel_size: 3
    stride: 2
  }
}
layer {
  name: "ip1"
  type: "InnerProduct"
  bottom: "pool5"
  top: "ip1"
  param {
    lr_mult: 1
  }
  param {
    lr_mult: 2
  }
  inner_product_param {
    num_output: 1024
    weight_filler {
      type: "gaussian"
      std: 0.1
    }
    bias_filler {
      type: "constant"
    }
  }
}
layer {
  name: "ip2"
  type: "InnerProduct"
  bottom: "ip1"
  top: "ip2"
  param {
    lr_mult: 1
  }
  param {
    lr_mult: 2
  }
  inner_product_param {
    num_output: 512
    weight_filler {
      type: "gaussian"
      std: 0.1
    }
    bias_filler {
      type: "constant"
    }
  }
}
layer {
  name: "ip3"
  type: "InnerProduct"
  bottom: "ip2"
  top: "ip3"
  param {
    lr_mult: 1
  }
  param {
    lr_mult: 2
  }
  inner_product_param {
    num_output: 50
    weight_filler {
      type: "gaussian"
      std: 0.1
    }
    bias_filler {
      type: "constant"
    }
  }
}
layer {
  name: "loss"
  type: "SoftmaxWithLoss"
  bottom: "ip3"
  bottom: "label"
  top: "loss"
}
I0503 12:59:15.097458 20743 layer_factory.hpp:77] Creating layer parameters
I0503 12:59:15.097473 20743 net.cpp:94] Creating Layer parameters
I0503 12:59:15.097478 20743 net.cpp:409] parameters -> data
I0503 12:59:15.097497 20743 net.cpp:409] parameters -> label
I0503 12:59:15.097507 20743 hdf5_data_layer.cpp:79] Loading list of HDF5 filenames from: /home/purduethu/scratch/radon/d/deng106/CNNStatisticalModel/distributions/input/5_distributions_400_sample_size_train-distributions-path.txt
I0503 12:59:15.097530 20743 hdf5_data_layer.cpp:93] Number of HDF5 files: 1
I0503 12:59:15.098129 20743 hdf5.cpp:32] Datatype class: H5T_FLOAT
I0503 12:59:15.159054 20743 hdf5.cpp:35] Datatype class: H5T_INTEGER
I0503 12:59:15.160166 20743 net.cpp:144] Setting up parameters
I0503 12:59:15.160185 20743 net.cpp:151] Top shape: 20 1 20 20 (8000)
I0503 12:59:15.160192 20743 net.cpp:151] Top shape: 20 (20)
I0503 12:59:15.160195 20743 net.cpp:159] Memory required for data: 32080
I0503 12:59:15.160202 20743 layer_factory.hpp:77] Creating layer conv1
I0503 12:59:15.160226 20743 net.cpp:94] Creating Layer conv1
I0503 12:59:15.160233 20743 net.cpp:435] conv1 <- data
I0503 12:59:15.160243 20743 net.cpp:409] conv1 -> conv1
I0503 12:59:15.164909 20743 net.cpp:144] Setting up conv1
I0503 12:59:15.164925 20743 net.cpp:151] Top shape: 20 64 20 20 (512000)
I0503 12:59:15.164930 20743 net.cpp:159] Memory required for data: 2080080
I0503 12:59:15.164942 20743 layer_factory.hpp:77] Creating layer relu1
I0503 12:59:15.164950 20743 net.cpp:94] Creating Layer relu1
I0503 12:59:15.164954 20743 net.cpp:435] relu1 <- conv1
I0503 12:59:15.164959 20743 net.cpp:396] relu1 -> conv1 (in-place)
I0503 12:59:15.164978 20743 net.cpp:144] Setting up relu1
I0503 12:59:15.164983 20743 net.cpp:151] Top shape: 20 64 20 20 (512000)
I0503 12:59:15.164985 20743 net.cpp:159] Memory required for data: 4128080
I0503 12:59:15.164988 20743 layer_factory.hpp:77] Creating layer conv2
I0503 12:59:15.164996 20743 net.cpp:94] Creating Layer conv2
I0503 12:59:15.165000 20743 net.cpp:435] conv2 <- conv1
I0503 12:59:15.165004 20743 net.cpp:409] conv2 -> conv2
I0503 12:59:15.175643 20743 net.cpp:144] Setting up conv2
I0503 12:59:15.175683 20743 net.cpp:151] Top shape: 20 64 20 20 (512000)
I0503 12:59:15.175695 20743 net.cpp:159] Memory required for data: 6176080
I0503 12:59:15.175717 20743 layer_factory.hpp:77] Creating layer relu2
I0503 12:59:15.175736 20743 net.cpp:94] Creating Layer relu2
I0503 12:59:15.175747 20743 net.cpp:435] relu2 <- conv2
I0503 12:59:15.175760 20743 net.cpp:396] relu2 -> conv2 (in-place)
I0503 12:59:15.175781 20743 net.cpp:144] Setting up relu2
I0503 12:59:15.175793 20743 net.cpp:151] Top shape: 20 64 20 20 (512000)
I0503 12:59:15.175802 20743 net.cpp:159] Memory required for data: 8224080
I0503 12:59:15.175812 20743 layer_factory.hpp:77] Creating layer pool2
I0503 12:59:15.175839 20743 net.cpp:94] Creating Layer pool2
I0503 12:59:15.175851 20743 net.cpp:435] pool2 <- conv2
I0503 12:59:15.175864 20743 net.cpp:409] pool2 -> pool2
I0503 12:59:15.175972 20743 net.cpp:144] Setting up pool2
I0503 12:59:15.175992 20743 net.cpp:151] Top shape: 20 64 10 10 (128000)
I0503 12:59:15.176002 20743 net.cpp:159] Memory required for data: 8736080
I0503 12:59:15.176021 20743 layer_factory.hpp:77] Creating layer conv3
I0503 12:59:15.176029 20743 net.cpp:94] Creating Layer conv3
I0503 12:59:15.176033 20743 net.cpp:435] conv3 <- pool2
I0503 12:59:15.176044 20743 net.cpp:409] conv3 -> conv3
I0503 12:59:15.185140 20743 net.cpp:144] Setting up conv3
I0503 12:59:15.185156 20743 net.cpp:151] Top shape: 20 128 10 10 (256000)
I0503 12:59:15.185160 20743 net.cpp:159] Memory required for data: 9760080
I0503 12:59:15.185168 20743 layer_factory.hpp:77] Creating layer relu3
I0503 12:59:15.185174 20743 net.cpp:94] Creating Layer relu3
I0503 12:59:15.185178 20743 net.cpp:435] relu3 <- conv3
I0503 12:59:15.185184 20743 net.cpp:396] relu3 -> conv3 (in-place)
I0503 12:59:15.185190 20743 net.cpp:144] Setting up relu3
I0503 12:59:15.185194 20743 net.cpp:151] Top shape: 20 128 10 10 (256000)
I0503 12:59:15.185197 20743 net.cpp:159] Memory required for data: 10784080
I0503 12:59:15.185201 20743 layer_factory.hpp:77] Creating layer conv4
I0503 12:59:15.185209 20743 net.cpp:94] Creating Layer conv4
I0503 12:59:15.185214 20743 net.cpp:435] conv4 <- conv3
I0503 12:59:15.185217 20743 net.cpp:409] conv4 -> conv4
I0503 12:59:15.202502 20743 net.cpp:144] Setting up conv4
I0503 12:59:15.202518 20743 net.cpp:151] Top shape: 20 128 10 10 (256000)
I0503 12:59:15.202522 20743 net.cpp:159] Memory required for data: 11808080
I0503 12:59:15.202529 20743 layer_factory.hpp:77] Creating layer relu4
I0503 12:59:15.202535 20743 net.cpp:94] Creating Layer relu4
I0503 12:59:15.202539 20743 net.cpp:435] relu4 <- conv4
I0503 12:59:15.202543 20743 net.cpp:396] relu4 -> conv4 (in-place)
I0503 12:59:15.202551 20743 net.cpp:144] Setting up relu4
I0503 12:59:15.202555 20743 net.cpp:151] Top shape: 20 128 10 10 (256000)
I0503 12:59:15.202558 20743 net.cpp:159] Memory required for data: 12832080
I0503 12:59:15.202563 20743 layer_factory.hpp:77] Creating layer conv5
I0503 12:59:15.202569 20743 net.cpp:94] Creating Layer conv5
I0503 12:59:15.202574 20743 net.cpp:435] conv5 <- conv4
I0503 12:59:15.202579 20743 net.cpp:409] conv5 -> conv5
I0503 12:59:15.219822 20743 net.cpp:144] Setting up conv5
I0503 12:59:15.219862 20743 net.cpp:151] Top shape: 20 128 10 10 (256000)
I0503 12:59:15.219876 20743 net.cpp:159] Memory required for data: 13856080
I0503 12:59:15.219900 20743 layer_factory.hpp:77] Creating layer relu5
I0503 12:59:15.219916 20743 net.cpp:94] Creating Layer relu5
I0503 12:59:15.219928 20743 net.cpp:435] relu5 <- conv5
I0503 12:59:15.219940 20743 net.cpp:396] relu5 -> conv5 (in-place)
I0503 12:59:15.219959 20743 net.cpp:144] Setting up relu5
I0503 12:59:15.219972 20743 net.cpp:151] Top shape: 20 128 10 10 (256000)
I0503 12:59:15.219981 20743 net.cpp:159] Memory required for data: 14880080
I0503 12:59:15.219990 20743 layer_factory.hpp:77] Creating layer pool5
I0503 12:59:15.220003 20743 net.cpp:94] Creating Layer pool5
I0503 12:59:15.220013 20743 net.cpp:435] pool5 <- conv5
I0503 12:59:15.220026 20743 net.cpp:409] pool5 -> pool5
I0503 12:59:15.220113 20743 net.cpp:144] Setting up pool5
I0503 12:59:15.220131 20743 net.cpp:151] Top shape: 20 128 5 5 (64000)
I0503 12:59:15.220141 20743 net.cpp:159] Memory required for data: 15136080
I0503 12:59:15.220150 20743 layer_factory.hpp:77] Creating layer ip1
I0503 12:59:15.220173 20743 net.cpp:94] Creating Layer ip1
I0503 12:59:15.220183 20743 net.cpp:435] ip1 <- pool5
I0503 12:59:15.220196 20743 net.cpp:409] ip1 -> ip1
I0503 12:59:15.301265 20743 net.cpp:144] Setting up ip1
I0503 12:59:15.301297 20743 net.cpp:151] Top shape: 20 1024 (20480)
I0503 12:59:15.301302 20743 net.cpp:159] Memory required for data: 15218000
I0503 12:59:15.301311 20743 layer_factory.hpp:77] Creating layer ip2
I0503 12:59:15.301326 20743 net.cpp:94] Creating Layer ip2
I0503 12:59:15.301331 20743 net.cpp:435] ip2 <- ip1
I0503 12:59:15.301338 20743 net.cpp:409] ip2 -> ip2
I0503 12:59:15.314525 20743 net.cpp:144] Setting up ip2
I0503 12:59:15.314540 20743 net.cpp:151] Top shape: 20 512 (10240)
I0503 12:59:15.314544 20743 net.cpp:159] Memory required for data: 15258960
I0503 12:59:15.314550 20743 layer_factory.hpp:77] Creating layer ip3
I0503 12:59:15.314558 20743 net.cpp:94] Creating Layer ip3
I0503 12:59:15.314563 20743 net.cpp:435] ip3 <- ip2
I0503 12:59:15.314568 20743 net.cpp:409] ip3 -> ip3
I0503 12:59:15.315268 20743 net.cpp:144] Setting up ip3
I0503 12:59:15.315276 20743 net.cpp:151] Top shape: 20 50 (1000)
I0503 12:59:15.315279 20743 net.cpp:159] Memory required for data: 15262960
I0503 12:59:15.315285 20743 layer_factory.hpp:77] Creating layer loss
I0503 12:59:15.315294 20743 net.cpp:94] Creating Layer loss
I0503 12:59:15.315296 20743 net.cpp:435] loss <- ip3
I0503 12:59:15.315300 20743 net.cpp:435] loss <- label
I0503 12:59:15.315306 20743 net.cpp:409] loss -> loss
I0503 12:59:15.315317 20743 layer_factory.hpp:77] Creating layer loss
…
I0503 12:59:15.315820 20743 solver.cpp:181] Creating test net (#0) specified by net file: ./protocol/dis_5_400_dimension.protocol_distribution
I0503 12:59:15.315848 20743 net.cpp:323] The NetState phase (1) differed from the phase (0) specified by a rule in layer parameters
I0503 12:59:15.315949 20743 net.cpp:52] Initializing net from parameters: 
state {
  phase: TEST
}
layer {
  name: "intercept"
  type: "HDF5Data"
  top: "data"
  top: "label"
  include {
    phase: TEST
  }
  hdf5_data_param {
    source: "/home/purduethu/scratch/radon/d/deng106/CNNStatisticalModel/distributions/input/5_distributions_400_sample_size_test-distributions-path.txt"
    batch_size: 20
  }
}
layer {
  name: "conv1"
  type: "Convolution"
  bottom: "data"
  top: "conv1"
  param {
    lr_mult: 1
  }
  param {
    lr_mult: 2
  }
  convolution_param {
    num_output: 64
    pad: 2
    kernel_size: 5
    stride: 1
    weight_filler {
      type: "gaussian"
      std: 0.0001
    }
    bias_filler {
      type: "constant"
    }
  }
}
layer {
  name: "relu1"
  type: "ReLU"
  bottom: "conv1"
  top: "conv1"
}
layer {
  name: "conv2"
  type: "Convolution"
  bottom: "conv1"
  top: "conv2"
  param {
    lr_mult: 1
  }
  param {
    lr_mult: 2
  }
  convolution_param {
    num_output: 64
    pad: 2
    kernel_size: 5
    stride: 1
    weight_filler {
      type: "gaussian"
      std: 0.01
    }
    bias_filler {
      type: "constant"
    }
  }
}
layer {
  name: "relu2"
  type: "ReLU"
  bottom: "conv2"
  top: "conv2"
}
layer {
  name: "pool2"
  type: "Pooling"
  bottom: "conv2"
  top: "pool2"
  pooling_param {
    pool: MAX
    kernel_size: 3
    stride: 2
  }
}
layer {
  name: "conv3"
  type: "Convolution"
  bottom: "pool2"
  top: "conv3"
  param {
    lr_mult: 1
  }
  param {
    lr_mult: 2
  }
  convolution_param {
    num_output: 128
    pad: 2
    kernel_size: 5
    stride: 1
    weight_filler {
      type: "gaussian"
      std: 0.01
    }
    bias_filler {
      type: "constant"
    }
  }
}
layer {
  name: "relu3"
  type: "ReLU"
  bottom: "conv3"
  top: "conv3"
}
layer {
  name: "conv4"
  type: "Convolution"
  bottom: "conv3"
  top: "conv4"
  param {
    lr_mult: 1
  }
  param {
    lr_mult: 2
  }
  convolution_param {
    num_output: 128
    pad: 2
    kernel_size: 5
    stride: 1
    weight_filler {
      type: "gaussian"
      std: 0.01
    }
    bias_filler {
      type: "constant"
    }
  }
}
layer {
  name: "relu4"
  type: "ReLU"
  bottom: "conv4"
  top: "conv4"
}
layer {
  name: "conv5"
  type: "Convolution"
  bottom: "conv4"
  top: "conv5"
  param {
    lr_mult: 1
  }
  param {
    lr_mult: 2
  }
  convolution_param {
    num_output: 128
    pad: 2
    kernel_size: 5
    stride: 1
    weight_filler {
      type: "gaussian"
      std: 0.01
    }
    bias_filler {
      type: "constant"
    }
  }
}
layer {
  name: "relu5"
  type: "ReLU"
  bottom: "conv5"
  top: "conv5"
}
layer {
  name: "pool5"
  type: "Pooling"
  bottom: "conv5"
  top: "pool5"
  pooling_param {
    pool: AVE
    kernel_size: 3
    stride: 2
  }
}
layer {
  name: "ip1"
  type: "InnerProduct"
  bottom: "pool5"
  top: "ip1"
  param {
    lr_mult: 1
  }
  param {
    lr_mult: 2
  }
  inner_product_param {
    num_output: 1024
    weight_filler {
      type: "gaussian"
      std: 0.1
    }
    bias_filler {
      type: "constant"
    }
  }
}
layer {
  name: "ip2"
  type: "InnerProduct"
  bottom: "ip1"
  top: "ip2"
  param {
    lr_mult: 1
  }
  param {
    lr_mult: 2
  }
  inner_product_param {
    num_output: 512
    weight_filler {
      type: "gaussian"
      std: 0.1
    }
    bias_filler {
      type: "constant"
    }
  }
}
layer {
  name: "ip3"
  type: "InnerProduct"
  bottom: "ip2"
  top: "ip3"
  param {
    lr_mult: 1
  }
  param {
    lr_mult: 2
  }
  inner_product_param {
    num_output: 50
    weight_filler {
      type: "gaussian"
      std: 0.1
    }
    bias_filler {
      type: "constant"
    }
  }
}
layer {
  name: "accuracy"
  type: "Accuracy"
  bottom: "ip3"
  bottom: "label"
  top: "accuracy"
  include {
    phase: TEST
  }
}
layer {
  name: "loss"
  type: "SoftmaxWithLoss"
  bottom: "ip3"
  bottom: "label"
  top: "loss"
}
I0503 12:59:15.316023 20743 layer_factory.hpp:77] Creating layer intercept
I0503 12:59:15.316032 20743 net.cpp:94] Creating Layer intercept
I0503 12:59:15.316036 20743 net.cpp:409] intercept -> data
I0503 12:59:15.316043 20743 net.cpp:409] intercept -> label
I0503 12:59:15.316049 20743 hdf5_data_layer.cpp:79] Loading list of HDF5 filenames from: /home/purduethu/scratch/radon/d/deng106/CNNStatisticalModel/distributions/input/5_distributions_400_sample_size_test-distributions-path.txt
I0503 12:59:15.316068 20743 hdf5_data_layer.cpp:93] Number of HDF5 files: 1
I0503 12:59:15.332592 20743 net.cpp:144] Setting up intercept
I0503 12:59:15.332625 20743 net.cpp:151] Top shape: 20 1 20 20 (8000)
I0503 12:59:15.332631 20743 net.cpp:151] Top shape: 20 (20)
I0503 12:59:15.332634 20743 net.cpp:159] Memory required for data: 32080
I0503 12:59:15.332640 20743 layer_factory.hpp:77] Creating layer label_intercept_1_split
I0503 12:59:15.332655 20743 net.cpp:94] Creating Layer label_intercept_1_split
I0503 12:59:15.332661 20743 net.cpp:435] label_intercept_1_split <- label
I0503 12:59:15.332667 20743 net.cpp:409] label_intercept_1_split -> label_intercept_1_split_0
I0503 12:59:15.332675 20743 net.cpp:409] label_intercept_1_split -> label_intercept_1_split_1
I0503 12:59:15.332710 20743 net.cpp:144] Setting up label_intercept_1_split
I0503 12:59:15.332716 20743 net.cpp:151] Top shape: 20 (20)
I0503 12:59:15.332720 20743 net.cpp:151] Top shape: 20 (20)
I0503 12:59:15.332723 20743 net.cpp:159] Memory required for data: 32240
I0503 12:59:15.332726 20743 layer_factory.hpp:77] Creating layer conv1
I0503 12:59:15.332737 20743 net.cpp:94] Creating Layer conv1
I0503 12:59:15.332741 20743 net.cpp:435] conv1 <- data
I0503 12:59:15.332746 20743 net.cpp:409] conv1 -> conv1
I0503 12:59:15.333438 20743 net.cpp:144] Setting up conv1
I0503 12:59:15.333451 20743 net.cpp:151] Top shape: 20 64 20 20 (512000)
I0503 12:59:15.333456 20743 net.cpp:159] Memory required for data: 2080240
I0503 12:59:15.333464 20743 layer_factory.hpp:77] Creating layer relu1
I0503 12:59:15.333472 20743 net.cpp:94] Creating Layer relu1
I0503 12:59:15.333474 20743 net.cpp:435] relu1 <- conv1
I0503 12:59:15.333479 20743 net.cpp:396] relu1 -> conv1 (in-place)
I0503 12:59:15.333487 20743 net.cpp:144] Setting up relu1
I0503 12:59:15.333492 20743 net.cpp:151] Top shape: 20 64 20 20 (512000)
I0503 12:59:15.333494 20743 net.cpp:159] Memory required for data: 4128240
I0503 12:59:15.333498 20743 layer_factory.hpp:77] Creating layer conv2
I0503 12:59:15.333505 20743 net.cpp:94] Creating Layer conv2
I0503 12:59:15.333509 20743 net.cpp:435] conv2 <- conv1
I0503 12:59:15.333514 20743 net.cpp:409] conv2 -> conv2
I0503 12:59:15.338354 20743 net.cpp:144] Setting up conv2
I0503 12:59:15.338371 20743 net.cpp:151] Top shape: 20 64 20 20 (512000)
I0503 12:59:15.338374 20743 net.cpp:159] Memory required for data: 6176240
I0503 12:59:15.338382 20743 layer_factory.hpp:77] Creating layer relu2
I0503 12:59:15.338388 20743 net.cpp:94] Creating Layer relu2
I0503 12:59:15.338392 20743 net.cpp:435] relu2 <- conv2
I0503 12:59:15.338397 20743 net.cpp:396] relu2 -> conv2 (in-place)
I0503 12:59:15.338404 20743 net.cpp:144] Setting up relu2
I0503 12:59:15.338408 20743 net.cpp:151] Top shape: 20 64 20 20 (512000)
I0503 12:59:15.338412 20743 net.cpp:159] Memory required for data: 8224240
I0503 12:59:15.338414 20743 layer_factory.hpp:77] Creating layer pool2
I0503 12:59:15.338421 20743 net.cpp:94] Creating Layer pool2
I0503 12:59:15.338424 20743 net.cpp:435] pool2 <- conv2
I0503 12:59:15.338428 20743 net.cpp:409] pool2 -> pool2
I0503 12:59:15.338464 20743 net.cpp:144] Setting up pool2
I0503 12:59:15.338470 20743 net.cpp:151] Top shape: 20 64 10 10 (128000)
I0503 12:59:15.338474 20743 net.cpp:159] Memory required for data: 8736240
I0503 12:59:15.338476 20743 layer_factory.hpp:77] Creating layer conv3
I0503 12:59:15.338485 20743 net.cpp:94] Creating Layer conv3
I0503 12:59:15.338488 20743 net.cpp:435] conv3 <- pool2
I0503 12:59:15.338493 20743 net.cpp:409] conv3 -> conv3
I0503 12:59:15.345508 20743 net.cpp:144] Setting up conv3
I0503 12:59:15.345523 20743 net.cpp:151] Top shape: 20 128 10 10 (256000)
I0503 12:59:15.345528 20743 net.cpp:159] Memory required for data: 9760240
I0503 12:59:15.345536 20743 layer_factory.hpp:77] Creating layer relu3
I0503 12:59:15.345543 20743 net.cpp:94] Creating Layer relu3
I0503 12:59:15.345547 20743 net.cpp:435] relu3 <- conv3
I0503 12:59:15.345552 20743 net.cpp:396] relu3 -> conv3 (in-place)
I0503 12:59:15.345559 20743 net.cpp:144] Setting up relu3
I0503 12:59:15.345563 20743 net.cpp:151] Top shape: 20 128 10 10 (256000)
I0503 12:59:15.345566 20743 net.cpp:159] Memory required for data: 10784240
I0503 12:59:15.345569 20743 layer_factory.hpp:77] Creating layer conv4
I0503 12:59:15.345577 20743 net.cpp:94] Creating Layer conv4
I0503 12:59:15.345582 20743 net.cpp:435] conv4 <- conv3
I0503 12:59:15.345587 20743 net.cpp:409] conv4 -> conv4
I0503 12:59:15.359071 20743 net.cpp:144] Setting up conv4
I0503 12:59:15.359086 20743 net.cpp:151] Top shape: 20 128 10 10 (256000)
I0503 12:59:15.359091 20743 net.cpp:159] Memory required for data: 11808240
I0503 12:59:15.359097 20743 layer_factory.hpp:77] Creating layer relu4
I0503 12:59:15.359103 20743 net.cpp:94] Creating Layer relu4
I0503 12:59:15.359112 20743 net.cpp:435] relu4 <- conv4
I0503 12:59:15.359117 20743 net.cpp:396] relu4 -> conv4 (in-place)
I0503 12:59:15.359123 20743 net.cpp:144] Setting up relu4
I0503 12:59:15.359128 20743 net.cpp:151] Top shape: 20 128 10 10 (256000)
I0503 12:59:15.359132 20743 net.cpp:159] Memory required for data: 12832240
I0503 12:59:15.359134 20743 layer_factory.hpp:77] Creating layer conv5
I0503 12:59:15.359143 20743 net.cpp:94] Creating Layer conv5
I0503 12:59:15.359145 20743 net.cpp:435] conv5 <- conv4
I0503 12:59:15.359150 20743 net.cpp:409] conv5 -> conv5
I0503 12:59:15.372246 20743 net.cpp:144] Setting up conv5
I0503 12:59:15.372262 20743 net.cpp:151] Top shape: 20 128 10 10 (256000)
I0503 12:59:15.372265 20743 net.cpp:159] Memory required for data: 13856240
I0503 12:59:15.372274 20743 layer_factory.hpp:77] Creating layer relu5
I0503 12:59:15.372280 20743 net.cpp:94] Creating Layer relu5
I0503 12:59:15.372284 20743 net.cpp:435] relu5 <- conv5
I0503 12:59:15.372289 20743 net.cpp:396] relu5 -> conv5 (in-place)
I0503 12:59:15.372297 20743 net.cpp:144] Setting up relu5
I0503 12:59:15.372300 20743 net.cpp:151] Top shape: 20 128 10 10 (256000)
I0503 12:59:15.372303 20743 net.cpp:159] Memory required for data: 14880240
I0503 12:59:15.372308 20743 layer_factory.hpp:77] Creating layer pool5
I0503 12:59:15.372313 20743 net.cpp:94] Creating Layer pool5
I0503 12:59:15.372315 20743 net.cpp:435] pool5 <- conv5
I0503 12:59:15.372319 20743 net.cpp:409] pool5 -> pool5
I0503 12:59:15.372346 20743 net.cpp:144] Setting up pool5
I0503 12:59:15.372352 20743 net.cpp:151] Top shape: 20 128 5 5 (64000)
I0503 12:59:15.372355 20743 net.cpp:159] Memory required for data: 15136240
I0503 12:59:15.372359 20743 layer_factory.hpp:77] Creating layer ip1
I0503 12:59:15.372365 20743 net.cpp:94] Creating Layer ip1
I0503 12:59:15.372370 20743 net.cpp:435] ip1 <- pool5
I0503 12:59:15.372373 20743 net.cpp:409] ip1 -> ip1
I0503 12:59:15.452250 20743 net.cpp:144] Setting up ip1
I0503 12:59:15.452271 20743 net.cpp:151] Top shape: 20 1024 (20480)
I0503 12:59:15.452276 20743 net.cpp:159] Memory required for data: 15218160
I0503 12:59:15.452285 20743 layer_factory.hpp:77] Creating layer ip2
I0503 12:59:15.452294 20743 net.cpp:94] Creating Layer ip2
I0503 12:59:15.452299 20743 net.cpp:435] ip2 <- ip1
I0503 12:59:15.452306 20743 net.cpp:409] ip2 -> ip2
I0503 12:59:15.465279 20743 net.cpp:144] Setting up ip2
I0503 12:59:15.465292 20743 net.cpp:151] Top shape: 20 512 (10240)
I0503 12:59:15.465296 20743 net.cpp:159] Memory required for data: 15259120
I0503 12:59:15.465303 20743 layer_factory.hpp:77] Creating layer ip3
I0503 12:59:15.465312 20743 net.cpp:94] Creating Layer ip3
I0503 12:59:15.465317 20743 net.cpp:435] ip3 <- ip2
I0503 12:59:15.465322 20743 net.cpp:409] ip3 -> ip3
I0503 12:59:15.466029 20743 net.cpp:144] Setting up ip3
I0503 12:59:15.466037 20743 net.cpp:151] Top shape: 20 50 (1000)
I0503 12:59:15.466040 20743 net.cpp:159] Memory required for data: 15263120
I0503 12:59:15.466045 20743 layer_factory.hpp:77] Creating layer ip3_ip3_0_split
I0503 12:59:15.466053 20743 net.cpp:94] Creating Layer ip3_ip3_0_split
I0503 12:59:15.466055 20743 net.cpp:435] ip3_ip3_0_split <- ip3
I0503 12:59:15.466059 20743 net.cpp:409] ip3_ip3_0_split -> ip3_ip3_0_split_0
I0503 12:59:15.466065 20743 net.cpp:409] ip3_ip3_0_split -> ip3_ip3_0_split_1
I0503 12:59:15.466090 20743 net.cpp:144] Setting up ip3_ip3_0_split
I0503 12:59:15.466096 20743 net.cpp:151] Top shape: 20 50 (1000)
I0503 12:59:15.466100 20743 net.cpp:151] Top shape: 20 50 (1000)
I0503 12:59:15.466104 20743 net.cpp:159] Memory required for data: 15271120
I0503 12:59:15.466106 20743 layer_factory.hpp:77] Creating layer accuracy
I0503 12:59:15.466112 20743 net.cpp:94] Creating Layer accuracy
I0503 12:59:15.466115 20743 net.cpp:435] accuracy <- ip3_ip3_0_split_0
I0503 12:59:15.466120 20743 net.cpp:435] accuracy <- label_intercept_1_split_0
I0503 12:59:15.466125 20743 net.cpp:409] accuracy -> accuracy
…
