…
I0504 23:09:01.520006 32631 net.cpp:323] The NetState phase (0) differed from the phase (1) specified by a rule in layer intercept
I0504 23:09:01.520021 32631 net.cpp:323] The NetState phase (0) differed from the phase (1) specified by a rule in layer loss
I0504 23:09:01.520103 32631 net.cpp:52] Initializing net from parameters: 
state {
  phase: TRAIN
}
layer {
  name: "parameters"
  type: "HDF5Data"
  top: "data"
  top: "label"
  include {
    phase: TRAIN
  }
  hdf5_data_param {
    source: "/home/purduethu/scratch/radon/d/deng106/CNNStatisticalModel/distributions/input/50_distributions_900_sample_size_train-parameters-path.txt"
    batch_size: 20
  }
}
layer {
  name: "conv1"
  type: "Convolution"
  bottom: "data"
  top: "conv1"
  param {
    lr_mult: 1
  }
  param {
    lr_mult: 2
  }
  convolution_param {
    num_output: 64
    pad: 2
    kernel_size: 5
    stride: 1
    weight_filler {
      type: "gaussian"
      std: 0.0001
    }
    bias_filler {
      type: "constant"
    }
  }
}
layer {
  name: "relu1"
  type: "ReLU"
  bottom: "conv1"
  top: "conv1"
}
layer {
  name: "pool1"
  type: "Pooling"
  bottom: "conv1"
  top: "pool1"
  pooling_param {
    pool: MAX
    kernel_size: 3
    stride: 2
  }
}
layer {
  name: "conv2"
  type: "Convolution"
  bottom: "pool1"
  top: "conv2"
  param {
    lr_mult: 1
  }
  param {
    lr_mult: 2
  }
  convolution_param {
    num_output: 128
    pad: 2
    kernel_size: 5
    stride: 1
    weight_filler {
      type: "gaussian"
      std: 0.01
    }
    bias_filler {
      type: "constant"
    }
  }
}
layer {
  name: "relu2"
  type: "ReLU"
  bottom: "conv2"
  top: "conv2"
}
layer {
  name: "conv3"
  type: "Convolution"
  bottom: "conv2"
  top: "conv3"
  param {
    lr_mult: 1
  }
  param {
    lr_mult: 2
  }
  convolution_param {
    num_output: 128
    pad: 2
    kernel_size: 5
    stride: 1
    weight_filler {
      type: "gaussian"
      std: 0.01
    }
    bias_filler {
      type: "constant"
    }
  }
}
layer {
  name: "relu3"
  type: "ReLU"
  bottom: "conv3"
  top: "conv3"
}
layer {
  name: "pool3"
  type: "Pooling"
  bottom: "conv3"
  top: "pool3"
  pooling_param {
    pool: AVE
    kernel_size: 3
    stride: 2
  }
}
layer {
  name: "ip1"
  type: "InnerProduct"
  bottom: "pool3"
  top: "ip1"
  param {
    lr_mult: 1
  }
  param {
    lr_mult: 2
  }
  inner_product_param {
    num_output: 512
    weight_filler {
      type: "gaussian"
      std: 0.1
    }
    bias_filler {
      type: "constant"
    }
  }
}
layer {
  name: "ip2"
  type: "InnerProduct"
  bottom: "ip1"
  top: "ip2"
  param {
    lr_mult: 1
  }
  param {
    lr_mult: 2
  }
  inner_product_param {
    num_output: 256
    weight_filler {
      type: "gaussian"
      std: 0.1
    }
    bias_filler {
      type: "constant"
    }
  }
}
layer {
  name: "ip3"
  type: "InnerProduct"
  bottom: "ip2"
  top: "ip3"
  param {
    lr_mult: 1
  }
  param {
    lr_mult: 2
  }
  inner_product_param {
    num_output: 1
    weight_filler {
      type: "gaussian"
      std: 0.1
    }
    bias_filler {
      type: "constant"
    }
  }
}
layer {
  name: "loss"
  type: "HuberLoss"
  bottom: "ip3"
  bottom: "label"
  top: "loss"
  include {
    phase: TRAIN
  }
}
I0504 23:09:01.520167 32631 layer_factory.hpp:77] Creating layer parameters
I0504 23:09:01.520181 32631 net.cpp:94] Creating Layer parameters
I0504 23:09:01.520195 32631 net.cpp:409] parameters -> data
I0504 23:09:01.520215 32631 net.cpp:409] parameters -> label
I0504 23:09:01.520226 32631 hdf5_data_layer.cpp:79] Loading list of HDF5 filenames from: /home/purduethu/scratch/radon/d/deng106/CNNStatisticalModel/distributions/input/50_distributions_900_sample_size_train-parameters-path.txt
I0504 23:09:01.520247 32631 hdf5_data_layer.cpp:93] Number of HDF5 files: 1
I0504 23:09:01.520725 32631 hdf5.cpp:32] Datatype class: H5T_FLOAT
I0504 23:09:03.129361 32631 net.cpp:144] Setting up parameters
I0504 23:09:03.129400 32631 net.cpp:151] Top shape: 20 1 30 30 (18000)
I0504 23:09:03.129407 32631 net.cpp:151] Top shape: 20 (20)
I0504 23:09:03.129410 32631 net.cpp:159] Memory required for data: 72080
I0504 23:09:03.129418 32631 layer_factory.hpp:77] Creating layer conv1
I0504 23:09:03.129439 32631 net.cpp:94] Creating Layer conv1
I0504 23:09:03.129446 32631 net.cpp:435] conv1 <- data
I0504 23:09:03.129456 32631 net.cpp:409] conv1 -> conv1
I0504 23:09:03.140645 32631 net.cpp:144] Setting up conv1
I0504 23:09:03.140686 32631 net.cpp:151] Top shape: 20 64 30 30 (1152000)
I0504 23:09:03.140691 32631 net.cpp:159] Memory required for data: 4680080
I0504 23:09:03.140707 32631 layer_factory.hpp:77] Creating layer relu1
I0504 23:09:03.140719 32631 net.cpp:94] Creating Layer relu1
I0504 23:09:03.140724 32631 net.cpp:435] relu1 <- conv1
I0504 23:09:03.140729 32631 net.cpp:396] relu1 -> conv1 (in-place)
I0504 23:09:03.140755 32631 net.cpp:144] Setting up relu1
I0504 23:09:03.140760 32631 net.cpp:151] Top shape: 20 64 30 30 (1152000)
I0504 23:09:03.140763 32631 net.cpp:159] Memory required for data: 9288080
I0504 23:09:03.140766 32631 layer_factory.hpp:77] Creating layer pool1
I0504 23:09:03.140774 32631 net.cpp:94] Creating Layer pool1
I0504 23:09:03.140777 32631 net.cpp:435] pool1 <- conv1
I0504 23:09:03.140782 32631 net.cpp:409] pool1 -> pool1
I0504 23:09:03.140844 32631 net.cpp:144] Setting up pool1
I0504 23:09:03.140851 32631 net.cpp:151] Top shape: 20 64 15 15 (288000)
I0504 23:09:03.140854 32631 net.cpp:159] Memory required for data: 10440080
I0504 23:09:03.140858 32631 layer_factory.hpp:77] Creating layer conv2
I0504 23:09:03.140869 32631 net.cpp:94] Creating Layer conv2
I0504 23:09:03.140873 32631 net.cpp:435] conv2 <- pool1
I0504 23:09:03.140878 32631 net.cpp:409] conv2 -> conv2
I0504 23:09:03.154419 32631 net.cpp:144] Setting up conv2
I0504 23:09:03.154461 32631 net.cpp:151] Top shape: 20 128 15 15 (576000)
I0504 23:09:03.154466 32631 net.cpp:159] Memory required for data: 12744080
I0504 23:09:03.154480 32631 layer_factory.hpp:77] Creating layer relu2
I0504 23:09:03.154492 32631 net.cpp:94] Creating Layer relu2
I0504 23:09:03.154497 32631 net.cpp:435] relu2 <- conv2
I0504 23:09:03.154502 32631 net.cpp:396] relu2 -> conv2 (in-place)
I0504 23:09:03.154513 32631 net.cpp:144] Setting up relu2
I0504 23:09:03.154518 32631 net.cpp:151] Top shape: 20 128 15 15 (576000)
I0504 23:09:03.154521 32631 net.cpp:159] Memory required for data: 15048080
I0504 23:09:03.154525 32631 layer_factory.hpp:77] Creating layer conv3
I0504 23:09:03.154536 32631 net.cpp:94] Creating Layer conv3
I0504 23:09:03.154539 32631 net.cpp:435] conv3 <- conv2
I0504 23:09:03.154544 32631 net.cpp:409] conv3 -> conv3
I0504 23:09:03.176900 32631 net.cpp:144] Setting up conv3
I0504 23:09:03.176942 32631 net.cpp:151] Top shape: 20 128 15 15 (576000)
I0504 23:09:03.176947 32631 net.cpp:159] Memory required for data: 17352080
I0504 23:09:03.176962 32631 layer_factory.hpp:77] Creating layer relu3
I0504 23:09:03.176985 32631 net.cpp:94] Creating Layer relu3
I0504 23:09:03.176990 32631 net.cpp:435] relu3 <- conv3
I0504 23:09:03.176995 32631 net.cpp:396] relu3 -> conv3 (in-place)
I0504 23:09:03.177006 32631 net.cpp:144] Setting up relu3
I0504 23:09:03.177011 32631 net.cpp:151] Top shape: 20 128 15 15 (576000)
I0504 23:09:03.177014 32631 net.cpp:159] Memory required for data: 19656080
I0504 23:09:03.177018 32631 layer_factory.hpp:77] Creating layer pool3
I0504 23:09:03.177026 32631 net.cpp:94] Creating Layer pool3
I0504 23:09:03.177029 32631 net.cpp:435] pool3 <- conv3
I0504 23:09:03.177042 32631 net.cpp:409] pool3 -> pool3
I0504 23:09:03.177117 32631 net.cpp:144] Setting up pool3
I0504 23:09:03.177125 32631 net.cpp:151] Top shape: 20 128 7 7 (125440)
I0504 23:09:03.177129 32631 net.cpp:159] Memory required for data: 20157840
I0504 23:09:03.177131 32631 layer_factory.hpp:77] Creating layer ip1
I0504 23:09:03.177144 32631 net.cpp:94] Creating Layer ip1
I0504 23:09:03.177147 32631 net.cpp:435] ip1 <- pool3
I0504 23:09:03.177151 32631 net.cpp:409] ip1 -> ip1
I0504 23:09:03.258566 32631 net.cpp:144] Setting up ip1
I0504 23:09:03.258613 32631 net.cpp:151] Top shape: 20 512 (10240)
I0504 23:09:03.258618 32631 net.cpp:159] Memory required for data: 20198800
I0504 23:09:03.258628 32631 layer_factory.hpp:77] Creating layer ip2
I0504 23:09:03.258641 32631 net.cpp:94] Creating Layer ip2
I0504 23:09:03.258646 32631 net.cpp:435] ip2 <- ip1
I0504 23:09:03.258653 32631 net.cpp:409] ip2 -> ip2
I0504 23:09:03.261967 32631 net.cpp:144] Setting up ip2
I0504 23:09:03.261999 32631 net.cpp:151] Top shape: 20 256 (5120)
I0504 23:09:03.262004 32631 net.cpp:159] Memory required for data: 20219280
I0504 23:09:03.262017 32631 layer_factory.hpp:77] Creating layer ip3
I0504 23:09:03.262027 32631 net.cpp:94] Creating Layer ip3
I0504 23:09:03.262032 32631 net.cpp:435] ip3 <- ip2
I0504 23:09:03.262039 32631 net.cpp:409] ip3 -> ip3
I0504 23:09:03.262115 32631 net.cpp:144] Setting up ip3
I0504 23:09:03.262122 32631 net.cpp:151] Top shape: 20 1 (20)
I0504 23:09:03.262126 32631 net.cpp:159] Memory required for data: 20219360
I0504 23:09:03.262131 32631 layer_factory.hpp:77] Creating layer loss
I0504 23:09:03.262150 32631 net.cpp:94] Creating Layer loss
I0504 23:09:03.262153 32631 net.cpp:435] loss <- ip3
I0504 23:09:03.262158 32631 net.cpp:435] loss <- label
I0504 23:09:03.262166 32631 net.cpp:409] loss -> loss
I0504 23:09:03.262203 32631 net.cpp:144] Setting up loss
…
