…
I0502 12:16:03.108541 30652 net.cpp:323] The NetState phase (0) differed from the phase (1) specified by a rule in layer intercept
I0502 12:16:03.108562 30652 net.cpp:323] The NetState phase (0) differed from the phase (1) specified by a rule in layer loss
I0502 12:16:03.108644 30652 net.cpp:52] Initializing net from parameters: 
state {
  phase: TRAIN
}
layer {
  name: "parameters"
  type: "HDF5Data"
  top: "data"
  top: "label"
  include {
    phase: TRAIN
  }
  hdf5_data_param {
    source: "/home/purduethu/scratch/radon/d/deng106/CNNStatisticalModel/distributions/input/5_distributions_900_sample_size_train-parameters-path.txt"
    batch_size: 20
  }
}
layer {
  name: "conv1"
  type: "Convolution"
  bottom: "data"
  top: "conv1"
  param {
    lr_mult: 1
  }
  param {
    lr_mult: 2
  }
  convolution_param {
    num_output: 64
    pad: 2
    kernel_size: 5
    stride: 1
    weight_filler {
      type: "gaussian"
      std: 0.0001
    }
    bias_filler {
      type: "constant"
    }
  }
}
layer {
  name: "relu1"
  type: "ReLU"
  bottom: "conv1"
  top: "conv1"
}
layer {
  name: "conv2"
  type: "Convolution"
  bottom: "conv1"
  top: "conv2"
  param {
    lr_mult: 1
  }
  param {
    lr_mult: 2
  }
  convolution_param {
    num_output: 64
    pad: 2
    kernel_size: 5
    stride: 1
    weight_filler {
      type: "gaussian"
      std: 0.01
    }
    bias_filler {
      type: "constant"
    }
  }
}
layer {
  name: "relu2"
  type: "ReLU"
  bottom: "conv2"
  top: "conv2"
}
layer {
  name: "pool2"
  type: "Pooling"
  bottom: "conv2"
  top: "pool2"
  pooling_param {
    pool: MAX
    kernel_size: 3
    stride: 2
  }
}
layer {
  name: "conv3"
  type: "Convolution"
  bottom: "pool2"
  top: "conv3"
  param {
    lr_mult: 1
  }
  param {
    lr_mult: 2
  }
  convolution_param {
    num_output: 64
    pad: 2
    kernel_size: 5
    stride: 1
    weight_filler {
      type: "gaussian"
      std: 0.01
    }
    bias_filler {
      type: "constant"
    }
  }
}
layer {
  name: "relu3"
  type: "ReLU"
  bottom: "conv3"
  top: "conv3"
}
layer {
  name: "conv4"
  type: "Convolution"
  bottom: "conv3"
  top: "conv4"
  param {
    lr_mult: 1
  }
  param {
    lr_mult: 2
  }
  convolution_param {
    num_output: 64
    pad: 2
    kernel_size: 5
    stride: 1
    weight_filler {
      type: "gaussian"
      std: 0.01
    }
    bias_filler {
      type: "constant"
    }
  }
}
layer {
  name: "relu4"
  type: "ReLU"
  bottom: "conv4"
  top: "conv4"
}
layer {
  name: "conv5"
  type: "Convolution"
  bottom: "conv4"
  top: "conv5"
  param {
    lr_mult: 1
  }
  param {
    lr_mult: 2
  }
  convolution_param {
    num_output: 64
    pad: 2
    kernel_size: 5
    stride: 1
    weight_filler {
      type: "gaussian"
      std: 0.01
    }
    bias_filler {
      type: "constant"
    }
  }
}
layer {
  name: "relu5"
  type: "ReLU"
  bottom: "conv5"
  top: "conv5"
}
layer {
  name: "pool5"
  type: "Pooling"
  bottom: "conv5"
  top: "pool5"
  pooling_param {
    pool: AVE
    kernel_size: 3
    stride: 2
  }
}
layer {
  name: "ip1"
  type: "InnerProduct"
  bottom: "pool5"
  top: "ip1"
  param {
    lr_mult: 1
  }
  param {
    lr_mult: 2
  }
  inner_product_param {
    num_output: 64
    weight_filler {
      type: "gaussian"
      std: 0.1
    }
    bias_filler {
      type: "constant"
    }
  }
}
layer {
  name: "ip2"
  type: "InnerProduct"
  bottom: "ip1"
  top: "ip2"
  param {
    lr_mult: 1
  }
  param {
    lr_mult: 2
  }
  inner_product_param {
    num_output: 64
    weight_filler {
      type: "gaussian"
      std: 0.1
    }
    bias_filler {
      type: "constant"
    }
  }
}
layer {
  name: "ip3"
  type: "InnerProduct"
  bottom: "ip2"
  top: "ip3"
  param {
    lr_mult: 1
  }
  param {
    lr_mult: 2
  }
  inner_product_param {
    num_output: 1
    weight_filler {
      type: "gaussian"
      std: 0.1
    }
    bias_filler {
      type: "constant"
    }
  }
}
layer {
  name: "loss"
  type: "HuberLoss"
  bottom: "ip3"
  bottom: "label"
  top: "loss"
  include {
    phase: TRAIN
  }
}
I0502 12:16:03.108698 30652 layer_factory.hpp:77] Creating layer parameters
I0502 12:16:03.108711 30652 net.cpp:94] Creating Layer parameters
I0502 12:16:03.108714 30652 net.cpp:409] parameters -> data
I0502 12:16:03.108723 30652 net.cpp:409] parameters -> label
I0502 12:16:03.108731 30652 hdf5_data_layer.cpp:79] Loading list of HDF5 filenames from: /home/purduethu/scratch/radon/d/deng106/CNNStatisticalModel/distributions/input/5_distributions_900_sample_size_train-parameters-path.txt
I0502 12:16:03.108745 30652 hdf5_data_layer.cpp:93] Number of HDF5 files: 1
I0502 12:16:03.109302 30652 hdf5.cpp:32] Datatype class: H5T_FLOAT
I0502 12:16:03.247166 30652 net.cpp:144] Setting up parameters
I0502 12:16:03.247197 30652 net.cpp:151] Top shape: 20 1 30 30 (18000)
I0502 12:16:03.247202 30652 net.cpp:151] Top shape: 20 (20)
I0502 12:16:03.247206 30652 net.cpp:159] Memory required for data: 72080
I0502 12:16:03.247211 30652 layer_factory.hpp:77] Creating layer conv1
I0502 12:16:03.247232 30652 net.cpp:94] Creating Layer conv1
I0502 12:16:03.247237 30652 net.cpp:435] conv1 <- data
I0502 12:16:03.247243 30652 net.cpp:409] conv1 -> conv1
I0502 12:16:03.253674 30652 net.cpp:144] Setting up conv1
I0502 12:16:03.253691 30652 net.cpp:151] Top shape: 20 64 30 30 (1152000)
I0502 12:16:03.253695 30652 net.cpp:159] Memory required for data: 4680080
I0502 12:16:03.253705 30652 layer_factory.hpp:77] Creating layer relu1
I0502 12:16:03.253713 30652 net.cpp:94] Creating Layer relu1
I0502 12:16:03.253717 30652 net.cpp:435] relu1 <- conv1
I0502 12:16:03.253721 30652 net.cpp:396] relu1 -> conv1 (in-place)
I0502 12:16:03.253733 30652 net.cpp:144] Setting up relu1
I0502 12:16:03.253737 30652 net.cpp:151] Top shape: 20 64 30 30 (1152000)
I0502 12:16:03.253741 30652 net.cpp:159] Memory required for data: 9288080
I0502 12:16:03.253743 30652 layer_factory.hpp:77] Creating layer conv2
I0502 12:16:03.253751 30652 net.cpp:94] Creating Layer conv2
I0502 12:16:03.253754 30652 net.cpp:435] conv2 <- conv1
I0502 12:16:03.253759 30652 net.cpp:409] conv2 -> conv2
I0502 12:16:03.269583 30652 net.cpp:144] Setting up conv2
I0502 12:16:03.269598 30652 net.cpp:151] Top shape: 20 64 30 30 (1152000)
I0502 12:16:03.269601 30652 net.cpp:159] Memory required for data: 13896080
I0502 12:16:03.269609 30652 layer_factory.hpp:77] Creating layer relu2
I0502 12:16:03.269616 30652 net.cpp:94] Creating Layer relu2
I0502 12:16:03.269619 30652 net.cpp:435] relu2 <- conv2
I0502 12:16:03.269624 30652 net.cpp:396] relu2 -> conv2 (in-place)
I0502 12:16:03.269631 30652 net.cpp:144] Setting up relu2
I0502 12:16:03.269635 30652 net.cpp:151] Top shape: 20 64 30 30 (1152000)
I0502 12:16:03.269639 30652 net.cpp:159] Memory required for data: 18504080
I0502 12:16:03.269641 30652 layer_factory.hpp:77] Creating layer pool2
I0502 12:16:03.269652 30652 net.cpp:94] Creating Layer pool2
I0502 12:16:03.269656 30652 net.cpp:435] pool2 <- conv2
I0502 12:16:03.269660 30652 net.cpp:409] pool2 -> pool2
I0502 12:16:03.269711 30652 net.cpp:144] Setting up pool2
I0502 12:16:03.269718 30652 net.cpp:151] Top shape: 20 64 15 15 (288000)
I0502 12:16:03.269721 30652 net.cpp:159] Memory required for data: 19656080
I0502 12:16:03.269724 30652 layer_factory.hpp:77] Creating layer conv3
I0502 12:16:03.269732 30652 net.cpp:94] Creating Layer conv3
I0502 12:16:03.269736 30652 net.cpp:435] conv3 <- pool2
I0502 12:16:03.269740 30652 net.cpp:409] conv3 -> conv3
I0502 12:16:03.279422 30652 net.cpp:144] Setting up conv3
I0502 12:16:03.279458 30652 net.cpp:151] Top shape: 20 64 15 15 (288000)
I0502 12:16:03.279469 30652 net.cpp:159] Memory required for data: 20808080
I0502 12:16:03.279500 30652 layer_factory.hpp:77] Creating layer relu3
I0502 12:16:03.279505 30652 net.cpp:94] Creating Layer relu3
I0502 12:16:03.279510 30652 net.cpp:435] relu3 <- conv3
I0502 12:16:03.279513 30652 net.cpp:396] relu3 -> conv3 (in-place)
I0502 12:16:03.279520 30652 net.cpp:144] Setting up relu3
I0502 12:16:03.279525 30652 net.cpp:151] Top shape: 20 64 15 15 (288000)
I0502 12:16:03.279527 30652 net.cpp:159] Memory required for data: 21960080
I0502 12:16:03.279531 30652 layer_factory.hpp:77] Creating layer conv4
I0502 12:16:03.279538 30652 net.cpp:94] Creating Layer conv4
I0502 12:16:03.279542 30652 net.cpp:435] conv4 <- conv3
I0502 12:16:03.279546 30652 net.cpp:409] conv4 -> conv4
I0502 12:16:03.286965 30652 net.cpp:144] Setting up conv4
I0502 12:16:03.286980 30652 net.cpp:151] Top shape: 20 64 15 15 (288000)
I0502 12:16:03.286983 30652 net.cpp:159] Memory required for data: 23112080
I0502 12:16:03.286989 30652 layer_factory.hpp:77] Creating layer relu4
I0502 12:16:03.286995 30652 net.cpp:94] Creating Layer relu4
I0502 12:16:03.286999 30652 net.cpp:435] relu4 <- conv4
I0502 12:16:03.287003 30652 net.cpp:396] relu4 -> conv4 (in-place)
I0502 12:16:03.287010 30652 net.cpp:144] Setting up relu4
I0502 12:16:03.287014 30652 net.cpp:151] Top shape: 20 64 15 15 (288000)
I0502 12:16:03.287017 30652 net.cpp:159] Memory required for data: 24264080
I0502 12:16:03.287020 30652 layer_factory.hpp:77] Creating layer conv5
I0502 12:16:03.287029 30652 net.cpp:94] Creating Layer conv5
I0502 12:16:03.287031 30652 net.cpp:435] conv5 <- conv4
I0502 12:16:03.287036 30652 net.cpp:409] conv5 -> conv5
I0502 12:16:03.294673 30652 net.cpp:144] Setting up conv5
I0502 12:16:03.294711 30652 net.cpp:151] Top shape: 20 64 15 15 (288000)
I0502 12:16:03.294715 30652 net.cpp:159] Memory required for data: 25416080
I0502 12:16:03.294723 30652 layer_factory.hpp:77] Creating layer relu5
I0502 12:16:03.294729 30652 net.cpp:94] Creating Layer relu5
I0502 12:16:03.294734 30652 net.cpp:435] relu5 <- conv5
I0502 12:16:03.294739 30652 net.cpp:396] relu5 -> conv5 (in-place)
I0502 12:16:03.294745 30652 net.cpp:144] Setting up relu5
I0502 12:16:03.294750 30652 net.cpp:151] Top shape: 20 64 15 15 (288000)
I0502 12:16:03.294752 30652 net.cpp:159] Memory required for data: 26568080
I0502 12:16:03.294755 30652 layer_factory.hpp:77] Creating layer pool5
I0502 12:16:03.294760 30652 net.cpp:94] Creating Layer pool5
I0502 12:16:03.294764 30652 net.cpp:435] pool5 <- conv5
I0502 12:16:03.294769 30652 net.cpp:409] pool5 -> pool5
I0502 12:16:03.294806 30652 net.cpp:144] Setting up pool5
I0502 12:16:03.294813 30652 net.cpp:151] Top shape: 20 64 7 7 (62720)
I0502 12:16:03.294816 30652 net.cpp:159] Memory required for data: 26818960
I0502 12:16:03.294819 30652 layer_factory.hpp:77] Creating layer ip1
I0502 12:16:03.294829 30652 net.cpp:94] Creating Layer ip1
I0502 12:16:03.294833 30652 net.cpp:435] ip1 <- pool5
I0502 12:16:03.294837 30652 net.cpp:409] ip1 -> ip1
I0502 12:16:03.300470 30652 net.cpp:144] Setting up ip1
I0502 12:16:03.300483 30652 net.cpp:151] Top shape: 20 64 (1280)
I0502 12:16:03.300487 30652 net.cpp:159] Memory required for data: 26824080
I0502 12:16:03.300493 30652 layer_factory.hpp:77] Creating layer ip2
I0502 12:16:03.300499 30652 net.cpp:94] Creating Layer ip2
I0502 12:16:03.300506 30652 net.cpp:435] ip2 <- ip1
I0502 12:16:03.300513 30652 net.cpp:409] ip2 -> ip2
I0502 12:16:03.300745 30652 net.cpp:144] Setting up ip2
I0502 12:16:03.300753 30652 net.cpp:151] Top shape: 20 64 (1280)
I0502 12:16:03.300756 30652 net.cpp:159] Memory required for data: 26829200
I0502 12:16:03.300761 30652 layer_factory.hpp:77] Creating layer ip3
I0502 12:16:03.300767 30652 net.cpp:94] Creating Layer ip3
I0502 12:16:03.300770 30652 net.cpp:435] ip3 <- ip2
I0502 12:16:03.300776 30652 net.cpp:409] ip3 -> ip3
I0502 12:16:03.300894 30652 net.cpp:144] Setting up ip3
I0502 12:16:03.300901 30652 net.cpp:151] Top shape: 20 1 (20)
I0502 12:16:03.300904 30652 net.cpp:159] Memory required for data: 26829280
I0502 12:16:03.300909 30652 layer_factory.hpp:77] Creating layer loss
I0502 12:16:03.300916 30652 net.cpp:94] Creating Layer loss
I0502 12:16:03.300920 30652 net.cpp:435] loss <- ip3
I0502 12:16:03.300923 30652 net.cpp:435] loss <- label
I0502 12:16:03.300927 30652 net.cpp:409] loss -> loss
I0502 12:16:03.300981 30652 net.cpp:144] Setting up loss
…
I0502 12:16:03.367400 30652 net.cpp:323] The NetState phase (0) differed from the phase (1) specified by a rule in layer intercept
I0502 12:16:03.367416 30652 net.cpp:323] The NetState phase (0) differed from the phase (1) specified by a rule in layer accuracy
I0502 12:16:03.367503 30652 net.cpp:52] Initializing net from parameters: 
state {
  phase: TRAIN
}
layer {
  name: "parameters"
  type: "HDF5Data"
  top: "data"
  top: "label"
  include {
    phase: TRAIN
  }
  hdf5_data_param {
    source: "/home/purduethu/scratch/radon/d/deng106/CNNStatisticalModel/distributions/input/5_distributions_900_sample_size_train-distributions-path.txt"
    batch_size: 20
  }
}
layer {
  name: "conv1"
  type: "Convolution"
  bottom: "data"
  top: "conv1"
  param {
    lr_mult: 1
  }
  param {
    lr_mult: 2
  }
  convolution_param {
    num_output: 64
    pad: 2
    kernel_size: 5
    stride: 1
    weight_filler {
      type: "gaussian"
      std: 0.0001
    }
    bias_filler {
      type: "constant"
    }
  }
}
layer {
  name: "relu1"
  type: "ReLU"
  bottom: "conv1"
  top: "conv1"
}
layer {
  name: "conv2"
  type: "Convolution"
  bottom: "conv1"
  top: "conv2"
  param {
    lr_mult: 1
  }
  param {
    lr_mult: 2
  }
  convolution_param {
    num_output: 64
    pad: 2
    kernel_size: 5
    stride: 1
    weight_filler {
      type: "gaussian"
      std: 0.01
    }
    bias_filler {
      type: "constant"
    }
  }
}
layer {
  name: "relu2"
  type: "ReLU"
  bottom: "conv2"
  top: "conv2"
}
layer {
  name: "pool2"
  type: "Pooling"
  bottom: "conv2"
  top: "pool2"
  pooling_param {
    pool: MAX
    kernel_size: 3
    stride: 2
  }
}
layer {
  name: "conv3"
  type: "Convolution"
  bottom: "pool2"
  top: "conv3"
  param {
    lr_mult: 1
  }
  param {
    lr_mult: 2
  }
  convolution_param {
    num_output: 64
    pad: 2
    kernel_size: 5
    stride: 1
    weight_filler {
      type: "gaussian"
      std: 0.01
    }
    bias_filler {
      type: "constant"
    }
  }
}
layer {
  name: "relu3"
  type: "ReLU"
  bottom: "conv3"
  top: "conv3"
}
layer {
  name: "conv4"
  type: "Convolution"
  bottom: "conv3"
  top: "conv4"
  param {
    lr_mult: 1
  }
  param {
    lr_mult: 2
  }
  convolution_param {
    num_output: 64
    pad: 2
    kernel_size: 5
    stride: 1
    weight_filler {
      type: "gaussian"
      std: 0.01
    }
    bias_filler {
      type: "constant"
    }
  }
}
layer {
  name: "relu4"
  type: "ReLU"
  bottom: "conv4"
  top: "conv4"
}
layer {
  name: "conv5"
  type: "Convolution"
  bottom: "conv4"
  top: "conv5"
  param {
    lr_mult: 1
  }
  param {
    lr_mult: 2
  }
  convolution_param {
    num_output: 64
    pad: 2
    kernel_size: 5
    stride: 1
    weight_filler {
      type: "gaussian"
      std: 0.01
    }
    bias_filler {
      type: "constant"
    }
  }
}
layer {
  name: "relu5"
  type: "ReLU"
  bottom: "conv5"
  top: "conv5"
}
layer {
  name: "pool5"
  type: "Pooling"
  bottom: "conv5"
  top: "pool5"
  pooling_param {
    pool: AVE
    kernel_size: 3
    stride: 2
  }
}
layer {
  name: "ip1"
  type: "InnerProduct"
  bottom: "pool5"
  top: "ip1"
  param {
    lr_mult: 1
  }
  param {
    lr_mult: 2
  }
  inner_product_param {
    num_output: 64
    weight_filler {
      type: "gaussian"
      std: 0.1
    }
    bias_filler {
      type: "constant"
    }
  }
}
layer {
  name: "ip2"
  type: "InnerProduct"
  bottom: "ip1"
  top: "ip2"
  param {
    lr_mult: 1
  }
  param {
    lr_mult: 2
  }
  inner_product_param {
    num_output: 64
    weight_filler {
      type: "gaussian"
      std: 0.1
    }
    bias_filler {
      type: "constant"
    }
  }
}
layer {
  name: "ip3"
  type: "InnerProduct"
  bottom: "ip2"
  top: "ip3"
  param {
    lr_mult: 1
  }
  param {
    lr_mult: 2
  }
  inner_product_param {
    num_output: 50
    weight_filler {
      type: "gaussian"
      std: 0.1
    }
    bias_filler {
      type: "constant"
    }
  }
}
layer {
  name: "loss"
  type: "SoftmaxWithLoss"
  bottom: "ip3"
  bottom: "label"
  top: "loss"
}
I0502 12:16:03.367553 30652 layer_factory.hpp:77] Creating layer parameters
I0502 12:16:03.367561 30652 net.cpp:94] Creating Layer parameters
I0502 12:16:03.367564 30652 net.cpp:409] parameters -> data
I0502 12:16:03.367571 30652 net.cpp:409] parameters -> label
I0502 12:16:03.367576 30652 hdf5_data_layer.cpp:79] Loading list of HDF5 filenames from: /home/purduethu/scratch/radon/d/deng106/CNNStatisticalModel/distributions/input/5_distributions_900_sample_size_train-distributions-path.txt
I0502 12:16:03.367594 30652 hdf5_data_layer.cpp:93] Number of HDF5 files: 1
I0502 12:16:03.502084 30652 hdf5.cpp:35] Datatype class: H5T_INTEGER
I0502 12:16:03.502511 30652 net.cpp:144] Setting up parameters
I0502 12:16:03.502526 30652 net.cpp:151] Top shape: 20 1 30 30 (18000)
I0502 12:16:03.502532 30652 net.cpp:151] Top shape: 20 (20)
I0502 12:16:03.502534 30652 net.cpp:159] Memory required for data: 72080
I0502 12:16:03.502540 30652 layer_factory.hpp:77] Creating layer conv1
I0502 12:16:03.502557 30652 net.cpp:94] Creating Layer conv1
I0502 12:16:03.502560 30652 net.cpp:435] conv1 <- data
I0502 12:16:03.502566 30652 net.cpp:409] conv1 -> conv1
I0502 12:16:03.506027 30652 net.cpp:144] Setting up conv1
I0502 12:16:03.506063 30652 net.cpp:151] Top shape: 20 64 30 30 (1152000)
I0502 12:16:03.506074 30652 net.cpp:159] Memory required for data: 4680080
I0502 12:16:03.506099 30652 layer_factory.hpp:77] Creating layer relu1
I0502 12:16:03.506117 30652 net.cpp:94] Creating Layer relu1
I0502 12:16:03.506129 30652 net.cpp:435] relu1 <- conv1
I0502 12:16:03.506140 30652 net.cpp:396] relu1 -> conv1 (in-place)
I0502 12:16:03.506160 30652 net.cpp:144] Setting up relu1
I0502 12:16:03.506172 30652 net.cpp:151] Top shape: 20 64 30 30 (1152000)
I0502 12:16:03.506181 30652 net.cpp:159] Memory required for data: 9288080
I0502 12:16:03.506188 30652 layer_factory.hpp:77] Creating layer conv2
I0502 12:16:03.506207 30652 net.cpp:94] Creating Layer conv2
I0502 12:16:03.506217 30652 net.cpp:435] conv2 <- conv1
I0502 12:16:03.506230 30652 net.cpp:409] conv2 -> conv2
I0502 12:16:03.521477 30652 net.cpp:144] Setting up conv2
I0502 12:16:03.521492 30652 net.cpp:151] Top shape: 20 64 30 30 (1152000)
I0502 12:16:03.521495 30652 net.cpp:159] Memory required for data: 13896080
I0502 12:16:03.521503 30652 layer_factory.hpp:77] Creating layer relu2
I0502 12:16:03.521510 30652 net.cpp:94] Creating Layer relu2
I0502 12:16:03.521513 30652 net.cpp:435] relu2 <- conv2
I0502 12:16:03.521518 30652 net.cpp:396] relu2 -> conv2 (in-place)
I0502 12:16:03.521524 30652 net.cpp:144] Setting up relu2
I0502 12:16:03.521529 30652 net.cpp:151] Top shape: 20 64 30 30 (1152000)
I0502 12:16:03.521531 30652 net.cpp:159] Memory required for data: 18504080
I0502 12:16:03.521534 30652 layer_factory.hpp:77] Creating layer pool2
I0502 12:16:03.521540 30652 net.cpp:94] Creating Layer pool2
I0502 12:16:03.521543 30652 net.cpp:435] pool2 <- conv2
I0502 12:16:03.521548 30652 net.cpp:409] pool2 -> pool2
I0502 12:16:03.521598 30652 net.cpp:144] Setting up pool2
I0502 12:16:03.521605 30652 net.cpp:151] Top shape: 20 64 15 15 (288000)
I0502 12:16:03.521608 30652 net.cpp:159] Memory required for data: 19656080
I0502 12:16:03.521611 30652 layer_factory.hpp:77] Creating layer conv3
I0502 12:16:03.521618 30652 net.cpp:94] Creating Layer conv3
I0502 12:16:03.521622 30652 net.cpp:435] conv3 <- pool2
I0502 12:16:03.521633 30652 net.cpp:409] conv3 -> conv3
I0502 12:16:03.530154 30652 net.cpp:144] Setting up conv3
I0502 12:16:03.530169 30652 net.cpp:151] Top shape: 20 64 15 15 (288000)
I0502 12:16:03.530172 30652 net.cpp:159] Memory required for data: 20808080
I0502 12:16:03.530180 30652 layer_factory.hpp:77] Creating layer relu3
I0502 12:16:03.530186 30652 net.cpp:94] Creating Layer relu3
I0502 12:16:03.530189 30652 net.cpp:435] relu3 <- conv3
I0502 12:16:03.530194 30652 net.cpp:396] relu3 -> conv3 (in-place)
I0502 12:16:03.530201 30652 net.cpp:144] Setting up relu3
I0502 12:16:03.530205 30652 net.cpp:151] Top shape: 20 64 15 15 (288000)
I0502 12:16:03.530208 30652 net.cpp:159] Memory required for data: 21960080
I0502 12:16:03.530211 30652 layer_factory.hpp:77] Creating layer conv4
I0502 12:16:03.530220 30652 net.cpp:94] Creating Layer conv4
I0502 12:16:03.530222 30652 net.cpp:435] conv4 <- conv3
I0502 12:16:03.530227 30652 net.cpp:409] conv4 -> conv4
I0502 12:16:03.537748 30652 net.cpp:144] Setting up conv4
I0502 12:16:03.537762 30652 net.cpp:151] Top shape: 20 64 15 15 (288000)
I0502 12:16:03.537766 30652 net.cpp:159] Memory required for data: 23112080
I0502 12:16:03.537772 30652 layer_factory.hpp:77] Creating layer relu4
I0502 12:16:03.537778 30652 net.cpp:94] Creating Layer relu4
I0502 12:16:03.537782 30652 net.cpp:435] relu4 <- conv4
I0502 12:16:03.537786 30652 net.cpp:396] relu4 -> conv4 (in-place)
I0502 12:16:03.537793 30652 net.cpp:144] Setting up relu4
I0502 12:16:03.537798 30652 net.cpp:151] Top shape: 20 64 15 15 (288000)
I0502 12:16:03.537801 30652 net.cpp:159] Memory required for data: 24264080
I0502 12:16:03.537803 30652 layer_factory.hpp:77] Creating layer conv5
I0502 12:16:03.537811 30652 net.cpp:94] Creating Layer conv5
I0502 12:16:03.537814 30652 net.cpp:435] conv5 <- conv4
I0502 12:16:03.537819 30652 net.cpp:409] conv5 -> conv5
I0502 12:16:03.546344 30652 net.cpp:144] Setting up conv5
I0502 12:16:03.546357 30652 net.cpp:151] Top shape: 20 64 15 15 (288000)
I0502 12:16:03.546361 30652 net.cpp:159] Memory required for data: 25416080
I0502 12:16:03.546370 30652 layer_factory.hpp:77] Creating layer relu5
I0502 12:16:03.546375 30652 net.cpp:94] Creating Layer relu5
I0502 12:16:03.546378 30652 net.cpp:435] relu5 <- conv5
I0502 12:16:03.546383 30652 net.cpp:396] relu5 -> conv5 (in-place)
I0502 12:16:03.546389 30652 net.cpp:144] Setting up relu5
I0502 12:16:03.546394 30652 net.cpp:151] Top shape: 20 64 15 15 (288000)
I0502 12:16:03.546397 30652 net.cpp:159] Memory required for data: 26568080
I0502 12:16:03.546399 30652 layer_factory.hpp:77] Creating layer pool5
I0502 12:16:03.546406 30652 net.cpp:94] Creating Layer pool5
I0502 12:16:03.546408 30652 net.cpp:435] pool5 <- conv5
I0502 12:16:03.546413 30652 net.cpp:409] pool5 -> pool5
I0502 12:16:03.546452 30652 net.cpp:144] Setting up pool5
I0502 12:16:03.546458 30652 net.cpp:151] Top shape: 20 64 7 7 (62720)
I0502 12:16:03.546461 30652 net.cpp:159] Memory required for data: 26818960
I0502 12:16:03.546464 30652 layer_factory.hpp:77] Creating layer ip1
I0502 12:16:03.546470 30652 net.cpp:94] Creating Layer ip1
I0502 12:16:03.546473 30652 net.cpp:435] ip1 <- pool5
I0502 12:16:03.546479 30652 net.cpp:409] ip1 -> ip1
I0502 12:16:03.551288 30652 net.cpp:144] Setting up ip1
I0502 12:16:03.551297 30652 net.cpp:151] Top shape: 20 64 (1280)
I0502 12:16:03.551301 30652 net.cpp:159] Memory required for data: 26824080
I0502 12:16:03.551306 30652 layer_factory.hpp:77] Creating layer ip2
I0502 12:16:03.551312 30652 net.cpp:94] Creating Layer ip2
I0502 12:16:03.551316 30652 net.cpp:435] ip2 <- ip1
I0502 12:16:03.551319 30652 net.cpp:409] ip2 -> ip2
I0502 12:16:03.551540 30652 net.cpp:144] Setting up ip2
I0502 12:16:03.551548 30652 net.cpp:151] Top shape: 20 64 (1280)
I0502 12:16:03.551550 30652 net.cpp:159] Memory required for data: 26829200
I0502 12:16:03.551554 30652 layer_factory.hpp:77] Creating layer ip3
I0502 12:16:03.551560 30652 net.cpp:94] Creating Layer ip3
I0502 12:16:03.551563 30652 net.cpp:435] ip3 <- ip2
I0502 12:16:03.551571 30652 net.cpp:409] ip3 -> ip3
I0502 12:16:03.551766 30652 net.cpp:144] Setting up ip3
I0502 12:16:03.551774 30652 net.cpp:151] Top shape: 20 50 (1000)
I0502 12:16:03.551776 30652 net.cpp:159] Memory required for data: 26833200
I0502 12:16:03.551781 30652 layer_factory.hpp:77] Creating layer loss
I0502 12:16:03.551789 30652 net.cpp:94] Creating Layer loss
I0502 12:16:03.551792 30652 net.cpp:435] loss <- ip3
I0502 12:16:03.551795 30652 net.cpp:435] loss <- label
I0502 12:16:03.551800 30652 net.cpp:409] loss -> loss
I0502 12:16:03.551806 30652 layer_factory.hpp:77] Creating layer loss
…
I0502 12:16:03.552304 30652 solver.cpp:181] Creating test net (#0) specified by net file: ./protocol/dis_5_900_dimension.protocol_distribution
I0502 12:16:03.552328 30652 net.cpp:323] The NetState phase (1) differed from the phase (0) specified by a rule in layer parameters
I0502 12:16:03.552423 30652 net.cpp:52] Initializing net from parameters: 
state {
  phase: TEST
}
layer {
  name: "intercept"
  type: "HDF5Data"
  top: "data"
  top: "label"
  include {
    phase: TEST
  }
  hdf5_data_param {
    source: "/home/purduethu/scratch/radon/d/deng106/CNNStatisticalModel/distributions/input/5_distributions_900_sample_size_test-distributions-path.txt"
    batch_size: 20
  }
}
layer {
  name: "conv1"
  type: "Convolution"
  bottom: "data"
  top: "conv1"
  param {
    lr_mult: 1
  }
  param {
    lr_mult: 2
  }
  convolution_param {
    num_output: 64
    pad: 2
    kernel_size: 5
    stride: 1
    weight_filler {
      type: "gaussian"
      std: 0.0001
    }
    bias_filler {
      type: "constant"
    }
  }
}
layer {
  name: "relu1"
  type: "ReLU"
  bottom: "conv1"
  top: "conv1"
}
layer {
  name: "conv2"
  type: "Convolution"
  bottom: "conv1"
  top: "conv2"
  param {
    lr_mult: 1
  }
  param {
    lr_mult: 2
  }
  convolution_param {
    num_output: 64
    pad: 2
    kernel_size: 5
    stride: 1
    weight_filler {
      type: "gaussian"
      std: 0.01
    }
    bias_filler {
      type: "constant"
    }
  }
}
layer {
  name: "relu2"
  type: "ReLU"
  bottom: "conv2"
  top: "conv2"
}
layer {
  name: "pool2"
  type: "Pooling"
  bottom: "conv2"
  top: "pool2"
  pooling_param {
    pool: MAX
    kernel_size: 3
    stride: 2
  }
}
layer {
  name: "conv3"
  type: "Convolution"
  bottom: "pool2"
  top: "conv3"
  param {
    lr_mult: 1
  }
  param {
    lr_mult: 2
  }
  convolution_param {
    num_output: 64
    pad: 2
    kernel_size: 5
    stride: 1
    weight_filler {
      type: "gaussian"
      std: 0.01
    }
    bias_filler {
      type: "constant"
    }
  }
}
layer {
  name: "relu3"
  type: "ReLU"
  bottom: "conv3"
  top: "conv3"
}
layer {
  name: "conv4"
  type: "Convolution"
  bottom: "conv3"
  top: "conv4"
  param {
    lr_mult: 1
  }
  param {
    lr_mult: 2
  }
  convolution_param {
    num_output: 64
    pad: 2
    kernel_size: 5
    stride: 1
    weight_filler {
      type: "gaussian"
      std: 0.01
    }
    bias_filler {
      type: "constant"
    }
  }
}
layer {
  name: "relu4"
  type: "ReLU"
  bottom: "conv4"
  top: "conv4"
}
layer {
  name: "conv5"
  type: "Convolution"
  bottom: "conv4"
  top: "conv5"
  param {
    lr_mult: 1
  }
  param {
    lr_mult: 2
  }
  convolution_param {
    num_output: 64
    pad: 2
    kernel_size: 5
    stride: 1
    weight_filler {
      type: "gaussian"
      std: 0.01
    }
    bias_filler {
      type: "constant"
    }
  }
}
layer {
  name: "relu5"
  type: "ReLU"
  bottom: "conv5"
  top: "conv5"
}
layer {
  name: "pool5"
  type: "Pooling"
  bottom: "conv5"
  top: "pool5"
  pooling_param {
    pool: AVE
    kernel_size: 3
    stride: 2
  }
}
layer {
  name: "ip1"
  type: "InnerProduct"
  bottom: "pool5"
  top: "ip1"
  param {
    lr_mult: 1
  }
  param {
    lr_mult: 2
  }
  inner_product_param {
    num_output: 64
    weight_filler {
      type: "gaussian"
      std: 0.1
    }
    bias_filler {
      type: "constant"
    }
  }
}
layer {
  name: "ip2"
  type: "InnerProduct"
  bottom: "ip1"
  top: "ip2"
  param {
    lr_mult: 1
  }
  param {
    lr_mult: 2
  }
  inner_product_param {
    num_output: 64
    weight_filler {
      type: "gaussian"
      std: 0.1
    }
    bias_filler {
      type: "constant"
    }
  }
}
layer {
  name: "ip3"
  type: "InnerProduct"
  bottom: "ip2"
  top: "ip3"
  param {
    lr_mult: 1
  }
  param {
    lr_mult: 2
  }
  inner_product_param {
    num_output: 50
    weight_filler {
      type: "gaussian"
      std: 0.1
    }
    bias_filler {
      type: "constant"
    }
  }
}
layer {
  name: "accuracy"
  type: "Accuracy"
  bottom: "ip3"
  bottom: "label"
  top: "accuracy"
  include {
    phase: TEST
  }
}
layer {
  name: "loss"
  type: "SoftmaxWithLoss"
  bottom: "ip3"
  bottom: "label"
  top: "loss"
}
I0502 12:16:03.552489 30652 layer_factory.hpp:77] Creating layer intercept
I0502 12:16:03.552497 30652 net.cpp:94] Creating Layer intercept
I0502 12:16:03.552501 30652 net.cpp:409] intercept -> data
I0502 12:16:03.552507 30652 net.cpp:409] intercept -> label
I0502 12:16:03.552513 30652 hdf5_data_layer.cpp:79] Loading list of HDF5 filenames from: /home/purduethu/scratch/radon/d/deng106/CNNStatisticalModel/distributions/input/5_distributions_900_sample_size_test-distributions-path.txt
I0502 12:16:03.552531 30652 hdf5_data_layer.cpp:93] Number of HDF5 files: 1
I0502 12:16:03.587357 30652 net.cpp:144] Setting up intercept
I0502 12:16:03.587391 30652 net.cpp:151] Top shape: 20 1 30 30 (18000)
I0502 12:16:03.587396 30652 net.cpp:151] Top shape: 20 (20)
I0502 12:16:03.587400 30652 net.cpp:159] Memory required for data: 72080
I0502 12:16:03.587405 30652 layer_factory.hpp:77] Creating layer label_intercept_1_split
I0502 12:16:03.587424 30652 net.cpp:94] Creating Layer label_intercept_1_split
I0502 12:16:03.587427 30652 net.cpp:435] label_intercept_1_split <- label
I0502 12:16:03.587433 30652 net.cpp:409] label_intercept_1_split -> label_intercept_1_split_0
I0502 12:16:03.587441 30652 net.cpp:409] label_intercept_1_split -> label_intercept_1_split_1
I0502 12:16:03.587482 30652 net.cpp:144] Setting up label_intercept_1_split
I0502 12:16:03.587488 30652 net.cpp:151] Top shape: 20 (20)
I0502 12:16:03.587491 30652 net.cpp:151] Top shape: 20 (20)
I0502 12:16:03.587494 30652 net.cpp:159] Memory required for data: 72240
I0502 12:16:03.587497 30652 layer_factory.hpp:77] Creating layer conv1
I0502 12:16:03.587508 30652 net.cpp:94] Creating Layer conv1
I0502 12:16:03.587512 30652 net.cpp:435] conv1 <- data
I0502 12:16:03.587515 30652 net.cpp:409] conv1 -> conv1
I0502 12:16:03.588970 30652 net.cpp:144] Setting up conv1
I0502 12:16:03.588990 30652 net.cpp:151] Top shape: 20 64 30 30 (1152000)
I0502 12:16:03.588995 30652 net.cpp:159] Memory required for data: 4680240
I0502 12:16:03.589004 30652 layer_factory.hpp:77] Creating layer relu1
I0502 12:16:03.589012 30652 net.cpp:94] Creating Layer relu1
I0502 12:16:03.589015 30652 net.cpp:435] relu1 <- conv1
I0502 12:16:03.589020 30652 net.cpp:396] relu1 -> conv1 (in-place)
I0502 12:16:03.589026 30652 net.cpp:144] Setting up relu1
I0502 12:16:03.589031 30652 net.cpp:151] Top shape: 20 64 30 30 (1152000)
I0502 12:16:03.589033 30652 net.cpp:159] Memory required for data: 9288240
I0502 12:16:03.589036 30652 layer_factory.hpp:77] Creating layer conv2
I0502 12:16:03.589045 30652 net.cpp:94] Creating Layer conv2
I0502 12:16:03.589048 30652 net.cpp:435] conv2 <- conv1
I0502 12:16:03.589052 30652 net.cpp:409] conv2 -> conv2
I0502 12:16:03.595422 30652 net.cpp:144] Setting up conv2
I0502 12:16:03.595456 30652 net.cpp:151] Top shape: 20 64 30 30 (1152000)
I0502 12:16:03.595468 30652 net.cpp:159] Memory required for data: 13896240
I0502 12:16:03.595487 30652 layer_factory.hpp:77] Creating layer relu2
I0502 12:16:03.595502 30652 net.cpp:94] Creating Layer relu2
I0502 12:16:03.595512 30652 net.cpp:435] relu2 <- conv2
I0502 12:16:03.595525 30652 net.cpp:396] relu2 -> conv2 (in-place)
I0502 12:16:03.595543 30652 net.cpp:144] Setting up relu2
I0502 12:16:03.595554 30652 net.cpp:151] Top shape: 20 64 30 30 (1152000)
I0502 12:16:03.595562 30652 net.cpp:159] Memory required for data: 18504240
I0502 12:16:03.595571 30652 layer_factory.hpp:77] Creating layer pool2
I0502 12:16:03.595584 30652 net.cpp:94] Creating Layer pool2
I0502 12:16:03.595592 30652 net.cpp:435] pool2 <- conv2
I0502 12:16:03.595603 30652 net.cpp:409] pool2 -> pool2
I0502 12:16:03.595739 30652 net.cpp:144] Setting up pool2
I0502 12:16:03.595755 30652 net.cpp:151] Top shape: 20 64 15 15 (288000)
I0502 12:16:03.595764 30652 net.cpp:159] Memory required for data: 19656240
I0502 12:16:03.595772 30652 layer_factory.hpp:77] Creating layer conv3
I0502 12:16:03.595791 30652 net.cpp:94] Creating Layer conv3
I0502 12:16:03.595801 30652 net.cpp:435] conv3 <- pool2
I0502 12:16:03.595814 30652 net.cpp:409] conv3 -> conv3
I0502 12:16:03.600929 30652 net.cpp:144] Setting up conv3
I0502 12:16:03.600945 30652 net.cpp:151] Top shape: 20 64 15 15 (288000)
I0502 12:16:03.600950 30652 net.cpp:159] Memory required for data: 20808240
I0502 12:16:03.600957 30652 layer_factory.hpp:77] Creating layer relu3
I0502 12:16:03.600965 30652 net.cpp:94] Creating Layer relu3
I0502 12:16:03.600968 30652 net.cpp:435] relu3 <- conv3
I0502 12:16:03.600973 30652 net.cpp:396] relu3 -> conv3 (in-place)
I0502 12:16:03.600980 30652 net.cpp:144] Setting up relu3
I0502 12:16:03.600985 30652 net.cpp:151] Top shape: 20 64 15 15 (288000)
I0502 12:16:03.600987 30652 net.cpp:159] Memory required for data: 21960240
I0502 12:16:03.600991 30652 layer_factory.hpp:77] Creating layer conv4
I0502 12:16:03.600997 30652 net.cpp:94] Creating Layer conv4
I0502 12:16:03.601001 30652 net.cpp:435] conv4 <- conv3
I0502 12:16:03.601006 30652 net.cpp:409] conv4 -> conv4
I0502 12:16:03.606683 30652 net.cpp:144] Setting up conv4
I0502 12:16:03.606719 30652 net.cpp:151] Top shape: 20 64 15 15 (288000)
I0502 12:16:03.606729 30652 net.cpp:159] Memory required for data: 23112240
I0502 12:16:03.606746 30652 layer_factory.hpp:77] Creating layer relu4
I0502 12:16:03.606761 30652 net.cpp:94] Creating Layer relu4
I0502 12:16:03.606771 30652 net.cpp:435] relu4 <- conv4
I0502 12:16:03.606784 30652 net.cpp:396] relu4 -> conv4 (in-place)
I0502 12:16:03.606802 30652 net.cpp:144] Setting up relu4
I0502 12:16:03.606815 30652 net.cpp:151] Top shape: 20 64 15 15 (288000)
I0502 12:16:03.606823 30652 net.cpp:159] Memory required for data: 24264240
I0502 12:16:03.606832 30652 layer_factory.hpp:77] Creating layer conv5
I0502 12:16:03.606853 30652 net.cpp:94] Creating Layer conv5
I0502 12:16:03.606858 30652 net.cpp:435] conv5 <- conv4
I0502 12:16:03.606861 30652 net.cpp:409] conv5 -> conv5
I0502 12:16:03.611496 30652 net.cpp:144] Setting up conv5
I0502 12:16:03.611515 30652 net.cpp:151] Top shape: 20 64 15 15 (288000)
I0502 12:16:03.611519 30652 net.cpp:159] Memory required for data: 25416240
I0502 12:16:03.611527 30652 layer_factory.hpp:77] Creating layer relu5
I0502 12:16:03.611533 30652 net.cpp:94] Creating Layer relu5
I0502 12:16:03.611537 30652 net.cpp:435] relu5 <- conv5
I0502 12:16:03.611541 30652 net.cpp:396] relu5 -> conv5 (in-place)
I0502 12:16:03.611547 30652 net.cpp:144] Setting up relu5
I0502 12:16:03.611552 30652 net.cpp:151] Top shape: 20 64 15 15 (288000)
I0502 12:16:03.611555 30652 net.cpp:159] Memory required for data: 26568240
I0502 12:16:03.611557 30652 layer_factory.hpp:77] Creating layer pool5
I0502 12:16:03.611562 30652 net.cpp:94] Creating Layer pool5
I0502 12:16:03.611565 30652 net.cpp:435] pool5 <- conv5
I0502 12:16:03.611569 30652 net.cpp:409] pool5 -> pool5
I0502 12:16:03.611604 30652 net.cpp:144] Setting up pool5
I0502 12:16:03.611611 30652 net.cpp:151] Top shape: 20 64 7 7 (62720)
I0502 12:16:03.611613 30652 net.cpp:159] Memory required for data: 26819120
I0502 12:16:03.611616 30652 layer_factory.hpp:77] Creating layer ip1
I0502 12:16:03.611624 30652 net.cpp:94] Creating Layer ip1
I0502 12:16:03.611626 30652 net.cpp:435] ip1 <- pool5
I0502 12:16:03.611630 30652 net.cpp:409] ip1 -> ip1
I0502 12:16:03.616498 30652 net.cpp:144] Setting up ip1
I0502 12:16:03.616508 30652 net.cpp:151] Top shape: 20 64 (1280)
I0502 12:16:03.616510 30652 net.cpp:159] Memory required for data: 26824240
I0502 12:16:03.616515 30652 layer_factory.hpp:77] Creating layer ip2
I0502 12:16:03.616521 30652 net.cpp:94] Creating Layer ip2
I0502 12:16:03.616525 30652 net.cpp:435] ip2 <- ip1
I0502 12:16:03.616529 30652 net.cpp:409] ip2 -> ip2
I0502 12:16:03.616762 30652 net.cpp:144] Setting up ip2
I0502 12:16:03.616770 30652 net.cpp:151] Top shape: 20 64 (1280)
I0502 12:16:03.616773 30652 net.cpp:159] Memory required for data: 26829360
I0502 12:16:03.616778 30652 layer_factory.hpp:77] Creating layer ip3
I0502 12:16:03.616786 30652 net.cpp:94] Creating Layer ip3
I0502 12:16:03.616788 30652 net.cpp:435] ip3 <- ip2
I0502 12:16:03.616793 30652 net.cpp:409] ip3 -> ip3
I0502 12:16:03.616986 30652 net.cpp:144] Setting up ip3
I0502 12:16:03.616992 30652 net.cpp:151] Top shape: 20 50 (1000)
I0502 12:16:03.616996 30652 net.cpp:159] Memory required for data: 26833360
I0502 12:16:03.617000 30652 layer_factory.hpp:77] Creating layer ip3_ip3_0_split
I0502 12:16:03.617005 30652 net.cpp:94] Creating Layer ip3_ip3_0_split
I0502 12:16:03.617008 30652 net.cpp:435] ip3_ip3_0_split <- ip3
I0502 12:16:03.617012 30652 net.cpp:409] ip3_ip3_0_split -> ip3_ip3_0_split_0
I0502 12:16:03.617017 30652 net.cpp:409] ip3_ip3_0_split -> ip3_ip3_0_split_1
I0502 12:16:03.617056 30652 net.cpp:144] Setting up ip3_ip3_0_split
I0502 12:16:03.617063 30652 net.cpp:151] Top shape: 20 50 (1000)
I0502 12:16:03.617065 30652 net.cpp:151] Top shape: 20 50 (1000)
I0502 12:16:03.617069 30652 net.cpp:159] Memory required for data: 26841360
I0502 12:16:03.617071 30652 layer_factory.hpp:77] Creating layer accuracy
I0502 12:16:03.617077 30652 net.cpp:94] Creating Layer accuracy
I0502 12:16:03.617080 30652 net.cpp:435] accuracy <- ip3_ip3_0_split_0
I0502 12:16:03.617084 30652 net.cpp:435] accuracy <- label_intercept_1_split_0
I0502 12:16:03.617087 30652 net.cpp:409] accuracy -> accuracy
…
