…
I0504 14:09:41.084826 27022 net.cpp:323] The NetState phase (0) differed from the phase (1) specified by a rule in layer intercept
I0504 14:09:41.084859 27022 net.cpp:323] The NetState phase (0) differed from the phase (1) specified by a rule in layer loss
I0504 14:09:41.085021 27022 net.cpp:52] Initializing net from parameters: 
state {
  phase: TRAIN
}
layer {
  name: "parameters"
  type: "HDF5Data"
  top: "data"
  top: "label"
  include {
    phase: TRAIN
  }
  hdf5_data_param {
    source: "/home/purduethu/scratch/radon/d/deng106/CNNStatisticalModel/distributions/input/5_distributions_400_sample_size_train-parameters-path.txt"
    batch_size: 20
  }
}
layer {
  name: "conv1"
  type: "Convolution"
  bottom: "data"
  top: "conv1"
  param {
    lr_mult: 1
  }
  param {
    lr_mult: 2
  }
  convolution_param {
    num_output: 64
    pad: 2
    kernel_size: 5
    stride: 1
    weight_filler {
      type: "gaussian"
      std: 0.0001
    }
    bias_filler {
      type: "constant"
    }
  }
}
layer {
  name: "relu1"
  type: "ReLU"
  bottom: "conv1"
  top: "conv1"
}
layer {
  name: "conv2"
  type: "Convolution"
  bottom: "conv1"
  top: "conv2"
  param {
    lr_mult: 1
  }
  param {
    lr_mult: 2
  }
  convolution_param {
    num_output: 64
    pad: 2
    kernel_size: 5
    stride: 1
    weight_filler {
      type: "gaussian"
      std: 0.01
    }
    bias_filler {
      type: "constant"
    }
  }
}
layer {
  name: "relu2"
  type: "ReLU"
  bottom: "conv2"
  top: "conv2"
}
layer {
  name: "pool2"
  type: "Pooling"
  bottom: "conv2"
  top: "pool2"
  pooling_param {
    pool: MAX
    kernel_size: 3
    stride: 2
  }
}
layer {
  name: "conv3"
  type: "Convolution"
  bottom: "pool2"
  top: "conv3"
  param {
    lr_mult: 1
  }
  param {
    lr_mult: 2
  }
  convolution_param {
    num_output: 128
    pad: 2
    kernel_size: 5
    stride: 1
    weight_filler {
      type: "gaussian"
      std: 0.01
    }
    bias_filler {
      type: "constant"
    }
  }
}
layer {
  name: "relu3"
  type: "ReLU"
  bottom: "conv3"
  top: "conv3"
}
layer {
  name: "conv4"
  type: "Convolution"
  bottom: "conv3"
  top: "conv4"
  param {
    lr_mult: 1
  }
  param {
    lr_mult: 2
  }
  convolution_param {
    num_output: 128
    pad: 2
    kernel_size: 5
    stride: 1
    weight_filler {
      type: "gaussian"
      std: 0.01
    }
    bias_filler {
      type: "constant"
    }
  }
}
layer {
  name: "relu4"
  type: "ReLU"
  bottom: "conv4"
  top: "conv4"
}
layer {
  name: "conv5"
  type: "Convolution"
  bottom: "conv4"
  top: "conv5"
  param {
    lr_mult: 1
  }
  param {
    lr_mult: 2
  }
  convolution_param {
    num_output: 128
    pad: 2
    kernel_size: 5
    stride: 1
    weight_filler {
      type: "gaussian"
      std: 0.01
    }
    bias_filler {
      type: "constant"
    }
  }
}
layer {
  name: "relu5"
  type: "ReLU"
  bottom: "conv5"
  top: "conv5"
}
layer {
  name: "pool5"
  type: "Pooling"
  bottom: "conv5"
  top: "pool5"
  pooling_param {
    pool: AVE
    kernel_size: 3
    stride: 2
  }
}
layer {
  name: "ip1"
  type: "InnerProduct"
  bottom: "pool5"
  top: "ip1"
  param {
    lr_mult: 1
  }
  param {
    lr_mult: 2
  }
  inner_product_param {
    num_output: 1024
    weight_filler {
      type: "gaussian"
      std: 0.1
    }
    bias_filler {
      type: "constant"
    }
  }
}
layer {
  name: "ip2"
  type: "InnerProduct"
  bottom: "ip1"
  top: "ip2"
  param {
    lr_mult: 1
  }
  param {
    lr_mult: 2
  }
  inner_product_param {
    num_output: 512
    weight_filler {
      type: "gaussian"
      std: 0.1
    }
    bias_filler {
      type: "constant"
    }
  }
}
layer {
  name: "ip3"
  type: "InnerProduct"
  bottom: "ip2"
  top: "ip3"
  param {
    lr_mult: 1
  }
  param {
    lr_mult: 2
  }
  inner_product_param {
    num_output: 1
    weight_filler {
      type: "gaussian"
      std: 0.1
    }
    bias_filler {
      type: "constant"
    }
  }
}
layer {
  name: "loss"
  type: "HuberLoss"
  bottom: "ip3"
  bottom: "label"
  top: "loss"
  include {
    phase: TRAIN
  }
}
I0504 14:09:41.085145 27022 layer_factory.hpp:77] Creating layer parameters
I0504 14:09:41.085170 27022 net.cpp:94] Creating Layer parameters
I0504 14:09:41.085180 27022 net.cpp:409] parameters -> data
I0504 14:09:41.085209 27022 net.cpp:409] parameters -> label
I0504 14:09:41.085227 27022 hdf5_data_layer.cpp:79] Loading list of HDF5 filenames from: /home/purduethu/scratch/radon/d/deng106/CNNStatisticalModel/distributions/input/5_distributions_400_sample_size_train-parameters-path.txt
I0504 14:09:41.085263 27022 hdf5_data_layer.cpp:93] Number of HDF5 files: 1
I0504 14:09:41.086190 27022 hdf5.cpp:32] Datatype class: H5T_FLOAT
I0504 14:09:41.168042 27022 net.cpp:144] Setting up parameters
I0504 14:09:41.168079 27022 net.cpp:151] Top shape: 20 1 20 20 (8000)
I0504 14:09:41.168087 27022 net.cpp:151] Top shape: 20 (20)
I0504 14:09:41.168090 27022 net.cpp:159] Memory required for data: 32080
I0504 14:09:41.168098 27022 layer_factory.hpp:77] Creating layer conv1
I0504 14:09:41.168121 27022 net.cpp:94] Creating Layer conv1
I0504 14:09:41.168128 27022 net.cpp:435] conv1 <- data
I0504 14:09:41.168140 27022 net.cpp:409] conv1 -> conv1
I0504 14:09:41.173434 27022 net.cpp:144] Setting up conv1
I0504 14:09:41.173468 27022 net.cpp:151] Top shape: 20 64 20 20 (512000)
I0504 14:09:41.173473 27022 net.cpp:159] Memory required for data: 2080080
I0504 14:09:41.173485 27022 layer_factory.hpp:77] Creating layer relu1
I0504 14:09:41.173494 27022 net.cpp:94] Creating Layer relu1
I0504 14:09:41.173498 27022 net.cpp:435] relu1 <- conv1
I0504 14:09:41.173503 27022 net.cpp:396] relu1 -> conv1 (in-place)
I0504 14:09:41.173516 27022 net.cpp:144] Setting up relu1
I0504 14:09:41.173521 27022 net.cpp:151] Top shape: 20 64 20 20 (512000)
I0504 14:09:41.173526 27022 net.cpp:159] Memory required for data: 4128080
I0504 14:09:41.173528 27022 layer_factory.hpp:77] Creating layer conv2
I0504 14:09:41.173537 27022 net.cpp:94] Creating Layer conv2
I0504 14:09:41.173540 27022 net.cpp:435] conv2 <- conv1
I0504 14:09:41.173547 27022 net.cpp:409] conv2 -> conv2
I0504 14:09:41.184738 27022 net.cpp:144] Setting up conv2
I0504 14:09:41.184756 27022 net.cpp:151] Top shape: 20 64 20 20 (512000)
I0504 14:09:41.184761 27022 net.cpp:159] Memory required for data: 6176080
I0504 14:09:41.184769 27022 layer_factory.hpp:77] Creating layer relu2
I0504 14:09:41.184777 27022 net.cpp:94] Creating Layer relu2
I0504 14:09:41.184782 27022 net.cpp:435] relu2 <- conv2
I0504 14:09:41.184787 27022 net.cpp:396] relu2 -> conv2 (in-place)
I0504 14:09:41.184794 27022 net.cpp:144] Setting up relu2
I0504 14:09:41.184799 27022 net.cpp:151] Top shape: 20 64 20 20 (512000)
I0504 14:09:41.184803 27022 net.cpp:159] Memory required for data: 8224080
I0504 14:09:41.184806 27022 layer_factory.hpp:77] Creating layer pool2
I0504 14:09:41.184814 27022 net.cpp:94] Creating Layer pool2
I0504 14:09:41.184824 27022 net.cpp:435] pool2 <- conv2
I0504 14:09:41.184830 27022 net.cpp:409] pool2 -> pool2
I0504 14:09:41.184880 27022 net.cpp:144] Setting up pool2
I0504 14:09:41.184888 27022 net.cpp:151] Top shape: 20 64 10 10 (128000)
I0504 14:09:41.184891 27022 net.cpp:159] Memory required for data: 8736080
I0504 14:09:41.184895 27022 layer_factory.hpp:77] Creating layer conv3
I0504 14:09:41.184903 27022 net.cpp:94] Creating Layer conv3
I0504 14:09:41.184907 27022 net.cpp:435] conv3 <- pool2
I0504 14:09:41.184912 27022 net.cpp:409] conv3 -> conv3
I0504 14:09:41.194797 27022 net.cpp:144] Setting up conv3
I0504 14:09:41.194814 27022 net.cpp:151] Top shape: 20 128 10 10 (256000)
I0504 14:09:41.194818 27022 net.cpp:159] Memory required for data: 9760080
I0504 14:09:41.194828 27022 layer_factory.hpp:77] Creating layer relu3
I0504 14:09:41.194834 27022 net.cpp:94] Creating Layer relu3
I0504 14:09:41.194839 27022 net.cpp:435] relu3 <- conv3
I0504 14:09:41.194844 27022 net.cpp:396] relu3 -> conv3 (in-place)
I0504 14:09:41.194851 27022 net.cpp:144] Setting up relu3
I0504 14:09:41.194856 27022 net.cpp:151] Top shape: 20 128 10 10 (256000)
I0504 14:09:41.194859 27022 net.cpp:159] Memory required for data: 10784080
I0504 14:09:41.194862 27022 layer_factory.hpp:77] Creating layer conv4
I0504 14:09:41.194871 27022 net.cpp:94] Creating Layer conv4
I0504 14:09:41.194875 27022 net.cpp:435] conv4 <- conv3
I0504 14:09:41.194880 27022 net.cpp:409] conv4 -> conv4
I0504 14:09:41.213341 27022 net.cpp:144] Setting up conv4
I0504 14:09:41.213359 27022 net.cpp:151] Top shape: 20 128 10 10 (256000)
I0504 14:09:41.213363 27022 net.cpp:159] Memory required for data: 11808080
I0504 14:09:41.213371 27022 layer_factory.hpp:77] Creating layer relu4
I0504 14:09:41.213377 27022 net.cpp:94] Creating Layer relu4
I0504 14:09:41.213382 27022 net.cpp:435] relu4 <- conv4
I0504 14:09:41.213387 27022 net.cpp:396] relu4 -> conv4 (in-place)
I0504 14:09:41.213393 27022 net.cpp:144] Setting up relu4
I0504 14:09:41.213398 27022 net.cpp:151] Top shape: 20 128 10 10 (256000)
I0504 14:09:41.213402 27022 net.cpp:159] Memory required for data: 12832080
I0504 14:09:41.213405 27022 layer_factory.hpp:77] Creating layer conv5
I0504 14:09:41.213413 27022 net.cpp:94] Creating Layer conv5
I0504 14:09:41.213418 27022 net.cpp:435] conv5 <- conv4
I0504 14:09:41.213423 27022 net.cpp:409] conv5 -> conv5
I0504 14:09:41.231379 27022 net.cpp:144] Setting up conv5
I0504 14:09:41.231396 27022 net.cpp:151] Top shape: 20 128 10 10 (256000)
I0504 14:09:41.231401 27022 net.cpp:159] Memory required for data: 13856080
I0504 14:09:41.231410 27022 layer_factory.hpp:77] Creating layer relu5
I0504 14:09:41.231417 27022 net.cpp:94] Creating Layer relu5
I0504 14:09:41.231421 27022 net.cpp:435] relu5 <- conv5
I0504 14:09:41.231426 27022 net.cpp:396] relu5 -> conv5 (in-place)
I0504 14:09:41.231434 27022 net.cpp:144] Setting up relu5
I0504 14:09:41.231439 27022 net.cpp:151] Top shape: 20 128 10 10 (256000)
I0504 14:09:41.231442 27022 net.cpp:159] Memory required for data: 14880080
I0504 14:09:41.231446 27022 layer_factory.hpp:77] Creating layer pool5
I0504 14:09:41.231451 27022 net.cpp:94] Creating Layer pool5
I0504 14:09:41.231454 27022 net.cpp:435] pool5 <- conv5
I0504 14:09:41.231459 27022 net.cpp:409] pool5 -> pool5
I0504 14:09:41.231498 27022 net.cpp:144] Setting up pool5
I0504 14:09:41.231506 27022 net.cpp:151] Top shape: 20 128 5 5 (64000)
I0504 14:09:41.231510 27022 net.cpp:159] Memory required for data: 15136080
I0504 14:09:41.231513 27022 layer_factory.hpp:77] Creating layer ip1
I0504 14:09:41.231524 27022 net.cpp:94] Creating Layer ip1
I0504 14:09:41.231528 27022 net.cpp:435] ip1 <- pool5
I0504 14:09:41.231534 27022 net.cpp:409] ip1 -> ip1
I0504 14:09:41.314923 27022 net.cpp:144] Setting up ip1
I0504 14:09:41.314962 27022 net.cpp:151] Top shape: 20 1024 (20480)
I0504 14:09:41.314968 27022 net.cpp:159] Memory required for data: 15218000
I0504 14:09:41.314977 27022 layer_factory.hpp:77] Creating layer ip2
I0504 14:09:41.314990 27022 net.cpp:94] Creating Layer ip2
I0504 14:09:41.314995 27022 net.cpp:435] ip2 <- ip1
I0504 14:09:41.315008 27022 net.cpp:409] ip2 -> ip2
I0504 14:09:41.328616 27022 net.cpp:144] Setting up ip2
I0504 14:09:41.328632 27022 net.cpp:151] Top shape: 20 512 (10240)
I0504 14:09:41.328637 27022 net.cpp:159] Memory required for data: 15258960
I0504 14:09:41.328644 27022 layer_factory.hpp:77] Creating layer ip3
I0504 14:09:41.328652 27022 net.cpp:94] Creating Layer ip3
I0504 14:09:41.328656 27022 net.cpp:435] ip3 <- ip2
I0504 14:09:41.328662 27022 net.cpp:409] ip3 -> ip3
I0504 14:09:41.328743 27022 net.cpp:144] Setting up ip3
I0504 14:09:41.328761 27022 net.cpp:151] Top shape: 20 1 (20)
I0504 14:09:41.328765 27022 net.cpp:159] Memory required for data: 15259040
I0504 14:09:41.328771 27022 layer_factory.hpp:77] Creating layer loss
I0504 14:09:41.328785 27022 net.cpp:94] Creating Layer loss
I0504 14:09:41.328790 27022 net.cpp:435] loss <- ip3
I0504 14:09:41.328794 27022 net.cpp:435] loss <- label
I0504 14:09:41.328800 27022 net.cpp:409] loss -> loss
I0504 14:09:41.328841 27022 net.cpp:144] Setting up loss
…
