…
I0502 00:51:07.962242 16764 net.cpp:323] The NetState phase (0) differed from the phase (1) specified by a rule in layer intercept
I0502 00:51:07.962258 16764 net.cpp:323] The NetState phase (0) differed from the phase (1) specified by a rule in layer loss
I0502 00:51:07.962347 16764 net.cpp:52] Initializing net from parameters: 
state {
  phase: TRAIN
}
layer {
  name: "parameters"
  type: "HDF5Data"
  top: "data"
  top: "label"
  include {
    phase: TRAIN
  }
  hdf5_data_param {
    source: "/home/purduethu/scratch/radon/d/deng106/CNNStatisticalModel/distributions/input/20_distributions_400_sample_size_train-parameters-path.txt"
    batch_size: 20
  }
}
layer {
  name: "conv1"
  type: "Convolution"
  bottom: "data"
  top: "conv1"
  param {
    lr_mult: 1
  }
  param {
    lr_mult: 2
  }
  convolution_param {
    num_output: 64
    pad: 2
    kernel_size: 5
    stride: 1
    weight_filler {
      type: "gaussian"
      std: 0.0001
    }
    bias_filler {
      type: "constant"
    }
  }
}
layer {
  name: "relu1"
  type: "ReLU"
  bottom: "conv1"
  top: "conv1"
}
layer {
  name: "conv2"
  type: "Convolution"
  bottom: "conv1"
  top: "conv2"
  param {
    lr_mult: 1
  }
  param {
    lr_mult: 2
  }
  convolution_param {
    num_output: 64
    pad: 2
    kernel_size: 5
    stride: 1
    weight_filler {
      type: "gaussian"
      std: 0.01
    }
    bias_filler {
      type: "constant"
    }
  }
}
layer {
  name: "relu2"
  type: "ReLU"
  bottom: "conv2"
  top: "conv2"
}
layer {
  name: "pool2"
  type: "Pooling"
  bottom: "conv2"
  top: "pool2"
  pooling_param {
    pool: MAX
    kernel_size: 3
    stride: 2
  }
}
layer {
  name: "conv3"
  type: "Convolution"
  bottom: "pool2"
  top: "conv3"
  param {
    lr_mult: 1
  }
  param {
    lr_mult: 2
  }
  convolution_param {
    num_output: 64
    pad: 2
    kernel_size: 5
    stride: 1
    weight_filler {
      type: "gaussian"
      std: 0.01
    }
    bias_filler {
      type: "constant"
    }
  }
}
layer {
  name: "relu3"
  type: "ReLU"
  bottom: "conv3"
  top: "conv3"
}
layer {
  name: "conv4"
  type: "Convolution"
  bottom: "conv3"
  top: "conv4"
  param {
    lr_mult: 1
  }
  param {
    lr_mult: 2
  }
  convolution_param {
    num_output: 64
    pad: 2
    kernel_size: 5
    stride: 1
    weight_filler {
      type: "gaussian"
      std: 0.01
    }
    bias_filler {
      type: "constant"
    }
  }
}
layer {
  name: "relu4"
  type: "ReLU"
  bottom: "conv4"
  top: "conv4"
}
layer {
  name: "conv5"
  type: "Convolution"
  bottom: "conv4"
  top: "conv5"
  param {
    lr_mult: 1
  }
  param {
    lr_mult: 2
  }
  convolution_param {
    num_output: 64
    pad: 2
    kernel_size: 5
    stride: 1
    weight_filler {
      type: "gaussian"
      std: 0.01
    }
    bias_filler {
      type: "constant"
    }
  }
}
layer {
  name: "relu5"
  type: "ReLU"
  bottom: "conv5"
  top: "conv5"
}
layer {
  name: "pool5"
  type: "Pooling"
  bottom: "conv5"
  top: "pool5"
  pooling_param {
    pool: AVE
    kernel_size: 3
    stride: 2
  }
}
layer {
  name: "ip1"
  type: "InnerProduct"
  bottom: "pool5"
  top: "ip1"
  param {
    lr_mult: 1
  }
  param {
    lr_mult: 2
  }
  inner_product_param {
    num_output: 64
    weight_filler {
      type: "gaussian"
      std: 0.1
    }
    bias_filler {
      type: "constant"
    }
  }
}
layer {
  name: "ip2"
  type: "InnerProduct"
  bottom: "ip1"
  top: "ip2"
  param {
    lr_mult: 1
  }
  param {
    lr_mult: 2
  }
  inner_product_param {
    num_output: 64
    weight_filler {
      type: "gaussian"
      std: 0.1
    }
    bias_filler {
      type: "constant"
    }
  }
}
layer {
  name: "ip3"
  type: "InnerProduct"
  bottom: "ip2"
  top: "ip3"
  param {
    lr_mult: 1
  }
  param {
    lr_mult: 2
  }
  inner_product_param {
    num_output: 1
    weight_filler {
      type: "gaussian"
      std: 0.1
    }
    bias_filler {
      type: "constant"
    }
  }
}
layer {
  name: "loss"
  type: "HuberLoss"
  bottom: "ip3"
  bottom: "label"
  top: "loss"
  include {
    phase: TRAIN
  }
}
I0502 00:51:07.962401 16764 layer_factory.hpp:77] Creating layer parameters
I0502 00:51:07.962419 16764 net.cpp:94] Creating Layer parameters
I0502 00:51:07.962424 16764 net.cpp:409] parameters -> data
I0502 00:51:07.962433 16764 net.cpp:409] parameters -> label
I0502 00:51:07.962440 16764 hdf5_data_layer.cpp:79] Loading list of HDF5 filenames from: /home/purduethu/scratch/radon/d/deng106/CNNStatisticalModel/distributions/input/20_distributions_400_sample_size_train-parameters-path.txt
I0502 00:51:07.962455 16764 hdf5_data_layer.cpp:93] Number of HDF5 files: 1
I0502 00:51:07.962986 16764 hdf5.cpp:32] Datatype class: H5T_FLOAT
I0502 00:51:08.229200 16764 net.cpp:144] Setting up parameters
I0502 00:51:08.229231 16764 net.cpp:151] Top shape: 20 1 20 20 (8000)
I0502 00:51:08.229236 16764 net.cpp:151] Top shape: 20 (20)
I0502 00:51:08.229239 16764 net.cpp:159] Memory required for data: 32080
I0502 00:51:08.229246 16764 layer_factory.hpp:77] Creating layer conv1
I0502 00:51:08.229266 16764 net.cpp:94] Creating Layer conv1
I0502 00:51:08.229270 16764 net.cpp:435] conv1 <- data
I0502 00:51:08.229277 16764 net.cpp:409] conv1 -> conv1
I0502 00:51:08.234658 16764 net.cpp:144] Setting up conv1
I0502 00:51:08.234678 16764 net.cpp:151] Top shape: 20 64 20 20 (512000)
I0502 00:51:08.234683 16764 net.cpp:159] Memory required for data: 2080080
I0502 00:51:08.234694 16764 layer_factory.hpp:77] Creating layer relu1
I0502 00:51:08.234702 16764 net.cpp:94] Creating Layer relu1
I0502 00:51:08.234706 16764 net.cpp:435] relu1 <- conv1
I0502 00:51:08.234710 16764 net.cpp:396] relu1 -> conv1 (in-place)
I0502 00:51:08.234722 16764 net.cpp:144] Setting up relu1
I0502 00:51:08.234727 16764 net.cpp:151] Top shape: 20 64 20 20 (512000)
I0502 00:51:08.234730 16764 net.cpp:159] Memory required for data: 4128080
I0502 00:51:08.234732 16764 layer_factory.hpp:77] Creating layer conv2
I0502 00:51:08.234741 16764 net.cpp:94] Creating Layer conv2
I0502 00:51:08.234745 16764 net.cpp:435] conv2 <- conv1
I0502 00:51:08.234750 16764 net.cpp:409] conv2 -> conv2
I0502 00:51:08.245164 16764 net.cpp:144] Setting up conv2
I0502 00:51:08.245179 16764 net.cpp:151] Top shape: 20 64 20 20 (512000)
I0502 00:51:08.245183 16764 net.cpp:159] Memory required for data: 6176080
I0502 00:51:08.245192 16764 layer_factory.hpp:77] Creating layer relu2
I0502 00:51:08.245198 16764 net.cpp:94] Creating Layer relu2
I0502 00:51:08.245201 16764 net.cpp:435] relu2 <- conv2
I0502 00:51:08.245205 16764 net.cpp:396] relu2 -> conv2 (in-place)
I0502 00:51:08.245213 16764 net.cpp:144] Setting up relu2
I0502 00:51:08.245216 16764 net.cpp:151] Top shape: 20 64 20 20 (512000)
I0502 00:51:08.245219 16764 net.cpp:159] Memory required for data: 8224080
I0502 00:51:08.245221 16764 layer_factory.hpp:77] Creating layer pool2
I0502 00:51:08.245234 16764 net.cpp:94] Creating Layer pool2
I0502 00:51:08.245239 16764 net.cpp:435] pool2 <- conv2
I0502 00:51:08.245242 16764 net.cpp:409] pool2 -> pool2
I0502 00:51:08.245298 16764 net.cpp:144] Setting up pool2
I0502 00:51:08.245306 16764 net.cpp:151] Top shape: 20 64 10 10 (128000)
I0502 00:51:08.245308 16764 net.cpp:159] Memory required for data: 8736080
I0502 00:51:08.245311 16764 layer_factory.hpp:77] Creating layer conv3
I0502 00:51:08.245319 16764 net.cpp:94] Creating Layer conv3
I0502 00:51:08.245322 16764 net.cpp:435] conv3 <- pool2
I0502 00:51:08.245327 16764 net.cpp:409] conv3 -> conv3
I0502 00:51:08.250494 16764 net.cpp:144] Setting up conv3
I0502 00:51:08.250509 16764 net.cpp:151] Top shape: 20 64 10 10 (128000)
I0502 00:51:08.250512 16764 net.cpp:159] Memory required for data: 9248080
I0502 00:51:08.250520 16764 layer_factory.hpp:77] Creating layer relu3
I0502 00:51:08.250526 16764 net.cpp:94] Creating Layer relu3
I0502 00:51:08.250530 16764 net.cpp:435] relu3 <- conv3
I0502 00:51:08.250533 16764 net.cpp:396] relu3 -> conv3 (in-place)
I0502 00:51:08.250540 16764 net.cpp:144] Setting up relu3
I0502 00:51:08.250545 16764 net.cpp:151] Top shape: 20 64 10 10 (128000)
I0502 00:51:08.250547 16764 net.cpp:159] Memory required for data: 9760080
I0502 00:51:08.250550 16764 layer_factory.hpp:77] Creating layer conv4
I0502 00:51:08.250558 16764 net.cpp:94] Creating Layer conv4
I0502 00:51:08.250562 16764 net.cpp:435] conv4 <- conv3
I0502 00:51:08.250566 16764 net.cpp:409] conv4 -> conv4
I0502 00:51:08.255781 16764 net.cpp:144] Setting up conv4
I0502 00:51:08.255795 16764 net.cpp:151] Top shape: 20 64 10 10 (128000)
I0502 00:51:08.255798 16764 net.cpp:159] Memory required for data: 10272080
I0502 00:51:08.255805 16764 layer_factory.hpp:77] Creating layer relu4
I0502 00:51:08.255810 16764 net.cpp:94] Creating Layer relu4
I0502 00:51:08.255813 16764 net.cpp:435] relu4 <- conv4
I0502 00:51:08.255818 16764 net.cpp:396] relu4 -> conv4 (in-place)
I0502 00:51:08.255825 16764 net.cpp:144] Setting up relu4
I0502 00:51:08.255828 16764 net.cpp:151] Top shape: 20 64 10 10 (128000)
I0502 00:51:08.255831 16764 net.cpp:159] Memory required for data: 10784080
I0502 00:51:08.255834 16764 layer_factory.hpp:77] Creating layer conv5
I0502 00:51:08.255842 16764 net.cpp:94] Creating Layer conv5
I0502 00:51:08.255846 16764 net.cpp:435] conv5 <- conv4
I0502 00:51:08.255849 16764 net.cpp:409] conv5 -> conv5
I0502 00:51:08.261934 16764 net.cpp:144] Setting up conv5
I0502 00:51:08.261950 16764 net.cpp:151] Top shape: 20 64 10 10 (128000)
I0502 00:51:08.261953 16764 net.cpp:159] Memory required for data: 11296080
I0502 00:51:08.261961 16764 layer_factory.hpp:77] Creating layer relu5
I0502 00:51:08.261967 16764 net.cpp:94] Creating Layer relu5
I0502 00:51:08.261970 16764 net.cpp:435] relu5 <- conv5
I0502 00:51:08.261976 16764 net.cpp:396] relu5 -> conv5 (in-place)
I0502 00:51:08.261982 16764 net.cpp:144] Setting up relu5
I0502 00:51:08.261986 16764 net.cpp:151] Top shape: 20 64 10 10 (128000)
I0502 00:51:08.261989 16764 net.cpp:159] Memory required for data: 11808080
I0502 00:51:08.261992 16764 layer_factory.hpp:77] Creating layer pool5
I0502 00:51:08.261997 16764 net.cpp:94] Creating Layer pool5
I0502 00:51:08.261999 16764 net.cpp:435] pool5 <- conv5
I0502 00:51:08.262003 16764 net.cpp:409] pool5 -> pool5
I0502 00:51:08.262044 16764 net.cpp:144] Setting up pool5
I0502 00:51:08.262051 16764 net.cpp:151] Top shape: 20 64 5 5 (32000)
I0502 00:51:08.262054 16764 net.cpp:159] Memory required for data: 11936080
I0502 00:51:08.262058 16764 layer_factory.hpp:77] Creating layer ip1
I0502 00:51:08.262068 16764 net.cpp:94] Creating Layer ip1
I0502 00:51:08.262070 16764 net.cpp:435] ip1 <- pool5
I0502 00:51:08.262075 16764 net.cpp:409] ip1 -> ip1
I0502 00:51:08.264613 16764 net.cpp:144] Setting up ip1
I0502 00:51:08.264622 16764 net.cpp:151] Top shape: 20 64 (1280)
I0502 00:51:08.264626 16764 net.cpp:159] Memory required for data: 11941200
I0502 00:51:08.264631 16764 layer_factory.hpp:77] Creating layer ip2
I0502 00:51:08.264636 16764 net.cpp:94] Creating Layer ip2
I0502 00:51:08.264644 16764 net.cpp:435] ip2 <- ip1
I0502 00:51:08.264649 16764 net.cpp:409] ip2 -> ip2
I0502 00:51:08.264874 16764 net.cpp:144] Setting up ip2
I0502 00:51:08.264880 16764 net.cpp:151] Top shape: 20 64 (1280)
I0502 00:51:08.264883 16764 net.cpp:159] Memory required for data: 11946320
I0502 00:51:08.264889 16764 layer_factory.hpp:77] Creating layer ip3
I0502 00:51:08.264894 16764 net.cpp:94] Creating Layer ip3
I0502 00:51:08.264897 16764 net.cpp:435] ip3 <- ip2
I0502 00:51:08.264902 16764 net.cpp:409] ip3 -> ip3
I0502 00:51:08.265005 16764 net.cpp:144] Setting up ip3
I0502 00:51:08.265012 16764 net.cpp:151] Top shape: 20 1 (20)
I0502 00:51:08.265014 16764 net.cpp:159] Memory required for data: 11946400
I0502 00:51:08.265019 16764 layer_factory.hpp:77] Creating layer loss
I0502 00:51:08.265025 16764 net.cpp:94] Creating Layer loss
I0502 00:51:08.265028 16764 net.cpp:435] loss <- ip3
I0502 00:51:08.265033 16764 net.cpp:435] loss <- label
I0502 00:51:08.265036 16764 net.cpp:409] loss -> loss
I0502 00:51:08.265085 16764 net.cpp:144] Setting up loss
…
I0502 00:51:08.354549 16764 net.cpp:323] The NetState phase (0) differed from the phase (1) specified by a rule in layer intercept
I0502 00:51:08.354564 16764 net.cpp:323] The NetState phase (0) differed from the phase (1) specified by a rule in layer accuracy
I0502 00:51:08.354655 16764 net.cpp:52] Initializing net from parameters: 
state {
  phase: TRAIN
}
layer {
  name: "parameters"
  type: "HDF5Data"
  top: "data"
  top: "label"
  include {
    phase: TRAIN
  }
  hdf5_data_param {
    source: "/home/purduethu/scratch/radon/d/deng106/CNNStatisticalModel/distributions/input/20_distributions_400_sample_size_train-distributions-path.txt"
    batch_size: 20
  }
}
layer {
  name: "conv1"
  type: "Convolution"
  bottom: "data"
  top: "conv1"
  param {
    lr_mult: 1
  }
  param {
    lr_mult: 2
  }
  convolution_param {
    num_output: 64
    pad: 2
    kernel_size: 5
    stride: 1
    weight_filler {
      type: "gaussian"
      std: 0.0001
    }
    bias_filler {
      type: "constant"
    }
  }
}
layer {
  name: "relu1"
  type: "ReLU"
  bottom: "conv1"
  top: "conv1"
}
layer {
  name: "conv2"
  type: "Convolution"
  bottom: "conv1"
  top: "conv2"
  param {
    lr_mult: 1
  }
  param {
    lr_mult: 2
  }
  convolution_param {
    num_output: 64
    pad: 2
    kernel_size: 5
    stride: 1
    weight_filler {
      type: "gaussian"
      std: 0.01
    }
    bias_filler {
      type: "constant"
    }
  }
}
layer {
  name: "relu2"
  type: "ReLU"
  bottom: "conv2"
  top: "conv2"
}
layer {
  name: "pool2"
  type: "Pooling"
  bottom: "conv2"
  top: "pool2"
  pooling_param {
    pool: MAX
    kernel_size: 3
    stride: 2
  }
}
layer {
  name: "conv3"
  type: "Convolution"
  bottom: "pool2"
  top: "conv3"
  param {
    lr_mult: 1
  }
  param {
    lr_mult: 2
  }
  convolution_param {
    num_output: 64
    pad: 2
    kernel_size: 5
    stride: 1
    weight_filler {
      type: "gaussian"
      std: 0.01
    }
    bias_filler {
      type: "constant"
    }
  }
}
layer {
  name: "relu3"
  type: "ReLU"
  bottom: "conv3"
  top: "conv3"
}
layer {
  name: "conv4"
  type: "Convolution"
  bottom: "conv3"
  top: "conv4"
  param {
    lr_mult: 1
  }
  param {
    lr_mult: 2
  }
  convolution_param {
    num_output: 64
    pad: 2
    kernel_size: 5
    stride: 1
    weight_filler {
      type: "gaussian"
      std: 0.01
    }
    bias_filler {
      type: "constant"
    }
  }
}
layer {
  name: "relu4"
  type: "ReLU"
  bottom: "conv4"
  top: "conv4"
}
layer {
  name: "conv5"
  type: "Convolution"
  bottom: "conv4"
  top: "conv5"
  param {
    lr_mult: 1
  }
  param {
    lr_mult: 2
  }
  convolution_param {
    num_output: 64
    pad: 2
    kernel_size: 5
    stride: 1
    weight_filler {
      type: "gaussian"
      std: 0.01
    }
    bias_filler {
      type: "constant"
    }
  }
}
layer {
  name: "relu5"
  type: "ReLU"
  bottom: "conv5"
  top: "conv5"
}
layer {
  name: "pool5"
  type: "Pooling"
  bottom: "conv5"
  top: "pool5"
  pooling_param {
    pool: AVE
    kernel_size: 3
    stride: 2
  }
}
layer {
  name: "ip1"
  type: "InnerProduct"
  bottom: "pool5"
  top: "ip1"
  param {
    lr_mult: 1
  }
  param {
    lr_mult: 2
  }
  inner_product_param {
    num_output: 64
    weight_filler {
      type: "gaussian"
      std: 0.1
    }
    bias_filler {
      type: "constant"
    }
  }
}
layer {
  name: "ip2"
  type: "InnerProduct"
  bottom: "ip1"
  top: "ip2"
  param {
    lr_mult: 1
  }
  param {
    lr_mult: 2
  }
  inner_product_param {
    num_output: 64
    weight_filler {
      type: "gaussian"
      std: 0.1
    }
    bias_filler {
      type: "constant"
    }
  }
}
layer {
  name: "ip3"
  type: "InnerProduct"
  bottom: "ip2"
  top: "ip3"
  param {
    lr_mult: 1
  }
  param {
    lr_mult: 2
  }
  inner_product_param {
    num_output: 50
    weight_filler {
      type: "gaussian"
      std: 0.1
    }
    bias_filler {
      type: "constant"
    }
  }
}
layer {
  name: "loss"
  type: "SoftmaxWithLoss"
  bottom: "ip3"
  bottom: "label"
  top: "loss"
}
I0502 00:51:08.354707 16764 layer_factory.hpp:77] Creating layer parameters
I0502 00:51:08.354715 16764 net.cpp:94] Creating Layer parameters
I0502 00:51:08.354718 16764 net.cpp:409] parameters -> data
I0502 00:51:08.354725 16764 net.cpp:409] parameters -> label
I0502 00:51:08.354730 16764 hdf5_data_layer.cpp:79] Loading list of HDF5 filenames from: /home/purduethu/scratch/radon/d/deng106/CNNStatisticalModel/distributions/input/20_distributions_400_sample_size_train-distributions-path.txt
I0502 00:51:08.354746 16764 hdf5_data_layer.cpp:93] Number of HDF5 files: 1
I0502 00:51:08.610193 16764 hdf5.cpp:35] Datatype class: H5T_INTEGER
I0502 00:51:08.611232 16764 net.cpp:144] Setting up parameters
I0502 00:51:08.611245 16764 net.cpp:151] Top shape: 20 1 20 20 (8000)
I0502 00:51:08.611250 16764 net.cpp:151] Top shape: 20 (20)
I0502 00:51:08.611253 16764 net.cpp:159] Memory required for data: 32080
I0502 00:51:08.611259 16764 layer_factory.hpp:77] Creating layer conv1
I0502 00:51:08.611274 16764 net.cpp:94] Creating Layer conv1
I0502 00:51:08.611279 16764 net.cpp:435] conv1 <- data
I0502 00:51:08.611284 16764 net.cpp:409] conv1 -> conv1
I0502 00:51:08.614040 16764 net.cpp:144] Setting up conv1
I0502 00:51:08.614054 16764 net.cpp:151] Top shape: 20 64 20 20 (512000)
I0502 00:51:08.614058 16764 net.cpp:159] Memory required for data: 2080080
I0502 00:51:08.614068 16764 layer_factory.hpp:77] Creating layer relu1
I0502 00:51:08.614075 16764 net.cpp:94] Creating Layer relu1
I0502 00:51:08.614078 16764 net.cpp:435] relu1 <- conv1
I0502 00:51:08.614084 16764 net.cpp:396] relu1 -> conv1 (in-place)
I0502 00:51:08.614090 16764 net.cpp:144] Setting up relu1
I0502 00:51:08.614094 16764 net.cpp:151] Top shape: 20 64 20 20 (512000)
I0502 00:51:08.614097 16764 net.cpp:159] Memory required for data: 4128080
I0502 00:51:08.614100 16764 layer_factory.hpp:77] Creating layer conv2
I0502 00:51:08.614107 16764 net.cpp:94] Creating Layer conv2
I0502 00:51:08.614110 16764 net.cpp:435] conv2 <- conv1
I0502 00:51:08.614114 16764 net.cpp:409] conv2 -> conv2
I0502 00:51:08.624307 16764 net.cpp:144] Setting up conv2
I0502 00:51:08.624344 16764 net.cpp:151] Top shape: 20 64 20 20 (512000)
I0502 00:51:08.624356 16764 net.cpp:159] Memory required for data: 6176080
I0502 00:51:08.624377 16764 layer_factory.hpp:77] Creating layer relu2
I0502 00:51:08.624393 16764 net.cpp:94] Creating Layer relu2
I0502 00:51:08.624403 16764 net.cpp:435] relu2 <- conv2
I0502 00:51:08.624416 16764 net.cpp:396] relu2 -> conv2 (in-place)
I0502 00:51:08.624434 16764 net.cpp:144] Setting up relu2
I0502 00:51:08.624446 16764 net.cpp:151] Top shape: 20 64 20 20 (512000)
I0502 00:51:08.624454 16764 net.cpp:159] Memory required for data: 8224080
I0502 00:51:08.624462 16764 layer_factory.hpp:77] Creating layer pool2
I0502 00:51:08.624476 16764 net.cpp:94] Creating Layer pool2
I0502 00:51:08.624485 16764 net.cpp:435] pool2 <- conv2
I0502 00:51:08.624496 16764 net.cpp:409] pool2 -> pool2
I0502 00:51:08.624672 16764 net.cpp:144] Setting up pool2
I0502 00:51:08.624680 16764 net.cpp:151] Top shape: 20 64 10 10 (128000)
I0502 00:51:08.624683 16764 net.cpp:159] Memory required for data: 8736080
I0502 00:51:08.624686 16764 layer_factory.hpp:77] Creating layer conv3
I0502 00:51:08.624694 16764 net.cpp:94] Creating Layer conv3
I0502 00:51:08.624697 16764 net.cpp:435] conv3 <- pool2
I0502 00:51:08.624709 16764 net.cpp:409] conv3 -> conv3
I0502 00:51:08.631036 16764 net.cpp:144] Setting up conv3
I0502 00:51:08.631048 16764 net.cpp:151] Top shape: 20 64 10 10 (128000)
I0502 00:51:08.631052 16764 net.cpp:159] Memory required for data: 9248080
I0502 00:51:08.631060 16764 layer_factory.hpp:77] Creating layer relu3
I0502 00:51:08.631067 16764 net.cpp:94] Creating Layer relu3
I0502 00:51:08.631069 16764 net.cpp:435] relu3 <- conv3
I0502 00:51:08.631073 16764 net.cpp:396] relu3 -> conv3 (in-place)
I0502 00:51:08.631080 16764 net.cpp:144] Setting up relu3
I0502 00:51:08.631084 16764 net.cpp:151] Top shape: 20 64 10 10 (128000)
I0502 00:51:08.631088 16764 net.cpp:159] Memory required for data: 9760080
I0502 00:51:08.631090 16764 layer_factory.hpp:77] Creating layer conv4
I0502 00:51:08.631098 16764 net.cpp:94] Creating Layer conv4
I0502 00:51:08.631101 16764 net.cpp:435] conv4 <- conv3
I0502 00:51:08.631106 16764 net.cpp:409] conv4 -> conv4
I0502 00:51:08.636508 16764 net.cpp:144] Setting up conv4
I0502 00:51:08.636523 16764 net.cpp:151] Top shape: 20 64 10 10 (128000)
I0502 00:51:08.636526 16764 net.cpp:159] Memory required for data: 10272080
I0502 00:51:08.636533 16764 layer_factory.hpp:77] Creating layer relu4
I0502 00:51:08.636538 16764 net.cpp:94] Creating Layer relu4
I0502 00:51:08.636541 16764 net.cpp:435] relu4 <- conv4
I0502 00:51:08.636545 16764 net.cpp:396] relu4 -> conv4 (in-place)
I0502 00:51:08.636560 16764 net.cpp:144] Setting up relu4
I0502 00:51:08.636566 16764 net.cpp:151] Top shape: 20 64 10 10 (128000)
I0502 00:51:08.636569 16764 net.cpp:159] Memory required for data: 10784080
I0502 00:51:08.636572 16764 layer_factory.hpp:77] Creating layer conv5
I0502 00:51:08.636579 16764 net.cpp:94] Creating Layer conv5
I0502 00:51:08.636584 16764 net.cpp:435] conv5 <- conv4
I0502 00:51:08.636587 16764 net.cpp:409] conv5 -> conv5
I0502 00:51:08.642009 16764 net.cpp:144] Setting up conv5
I0502 00:51:08.642022 16764 net.cpp:151] Top shape: 20 64 10 10 (128000)
I0502 00:51:08.642026 16764 net.cpp:159] Memory required for data: 11296080
I0502 00:51:08.642035 16764 layer_factory.hpp:77] Creating layer relu5
I0502 00:51:08.642040 16764 net.cpp:94] Creating Layer relu5
I0502 00:51:08.642043 16764 net.cpp:435] relu5 <- conv5
I0502 00:51:08.642048 16764 net.cpp:396] relu5 -> conv5 (in-place)
I0502 00:51:08.642055 16764 net.cpp:144] Setting up relu5
I0502 00:51:08.642058 16764 net.cpp:151] Top shape: 20 64 10 10 (128000)
I0502 00:51:08.642061 16764 net.cpp:159] Memory required for data: 11808080
I0502 00:51:08.642065 16764 layer_factory.hpp:77] Creating layer pool5
I0502 00:51:08.642069 16764 net.cpp:94] Creating Layer pool5
I0502 00:51:08.642072 16764 net.cpp:435] pool5 <- conv5
I0502 00:51:08.642076 16764 net.cpp:409] pool5 -> pool5
I0502 00:51:08.642114 16764 net.cpp:144] Setting up pool5
I0502 00:51:08.642122 16764 net.cpp:151] Top shape: 20 64 5 5 (32000)
I0502 00:51:08.642124 16764 net.cpp:159] Memory required for data: 11936080
I0502 00:51:08.642127 16764 layer_factory.hpp:77] Creating layer ip1
I0502 00:51:08.642134 16764 net.cpp:94] Creating Layer ip1
I0502 00:51:08.642138 16764 net.cpp:435] ip1 <- pool5
I0502 00:51:08.642141 16764 net.cpp:409] ip1 -> ip1
I0502 00:51:08.644697 16764 net.cpp:144] Setting up ip1
I0502 00:51:08.644706 16764 net.cpp:151] Top shape: 20 64 (1280)
I0502 00:51:08.644711 16764 net.cpp:159] Memory required for data: 11941200
I0502 00:51:08.644716 16764 layer_factory.hpp:77] Creating layer ip2
I0502 00:51:08.644721 16764 net.cpp:94] Creating Layer ip2
I0502 00:51:08.644724 16764 net.cpp:435] ip2 <- ip1
I0502 00:51:08.644728 16764 net.cpp:409] ip2 -> ip2
I0502 00:51:08.644953 16764 net.cpp:144] Setting up ip2
I0502 00:51:08.644960 16764 net.cpp:151] Top shape: 20 64 (1280)
I0502 00:51:08.644963 16764 net.cpp:159] Memory required for data: 11946320
I0502 00:51:08.644968 16764 layer_factory.hpp:77] Creating layer ip3
I0502 00:51:08.644974 16764 net.cpp:94] Creating Layer ip3
I0502 00:51:08.644978 16764 net.cpp:435] ip3 <- ip2
I0502 00:51:08.644982 16764 net.cpp:409] ip3 -> ip3
I0502 00:51:08.645185 16764 net.cpp:144] Setting up ip3
I0502 00:51:08.645192 16764 net.cpp:151] Top shape: 20 50 (1000)
I0502 00:51:08.645195 16764 net.cpp:159] Memory required for data: 11950320
I0502 00:51:08.645200 16764 layer_factory.hpp:77] Creating layer loss
I0502 00:51:08.645207 16764 net.cpp:94] Creating Layer loss
I0502 00:51:08.645210 16764 net.cpp:435] loss <- ip3
I0502 00:51:08.645215 16764 net.cpp:435] loss <- label
I0502 00:51:08.645218 16764 net.cpp:409] loss -> loss
I0502 00:51:08.645225 16764 layer_factory.hpp:77] Creating layer loss
…
I0502 00:51:08.645740 16764 solver.cpp:181] Creating test net (#0) specified by net file: ./protocol/dis_20_400_dimension.protocol_distribution
I0502 00:51:08.645766 16764 net.cpp:323] The NetState phase (1) differed from the phase (0) specified by a rule in layer parameters
I0502 00:51:08.645866 16764 net.cpp:52] Initializing net from parameters: 
state {
  phase: TEST
}
layer {
  name: "intercept"
  type: "HDF5Data"
  top: "data"
  top: "label"
  include {
    phase: TEST
  }
  hdf5_data_param {
    source: "/home/purduethu/scratch/radon/d/deng106/CNNStatisticalModel/distributions/input/20_distributions_400_sample_size_test-distributions-path.txt"
    batch_size: 20
  }
}
layer {
  name: "conv1"
  type: "Convolution"
  bottom: "data"
  top: "conv1"
  param {
    lr_mult: 1
  }
  param {
    lr_mult: 2
  }
  convolution_param {
    num_output: 64
    pad: 2
    kernel_size: 5
    stride: 1
    weight_filler {
      type: "gaussian"
      std: 0.0001
    }
    bias_filler {
      type: "constant"
    }
  }
}
layer {
  name: "relu1"
  type: "ReLU"
  bottom: "conv1"
  top: "conv1"
}
layer {
  name: "conv2"
  type: "Convolution"
  bottom: "conv1"
  top: "conv2"
  param {
    lr_mult: 1
  }
  param {
    lr_mult: 2
  }
  convolution_param {
    num_output: 64
    pad: 2
    kernel_size: 5
    stride: 1
    weight_filler {
      type: "gaussian"
      std: 0.01
    }
    bias_filler {
      type: "constant"
    }
  }
}
layer {
  name: "relu2"
  type: "ReLU"
  bottom: "conv2"
  top: "conv2"
}
layer {
  name: "pool2"
  type: "Pooling"
  bottom: "conv2"
  top: "pool2"
  pooling_param {
    pool: MAX
    kernel_size: 3
    stride: 2
  }
}
layer {
  name: "conv3"
  type: "Convolution"
  bottom: "pool2"
  top: "conv3"
  param {
    lr_mult: 1
  }
  param {
    lr_mult: 2
  }
  convolution_param {
    num_output: 64
    pad: 2
    kernel_size: 5
    stride: 1
    weight_filler {
      type: "gaussian"
      std: 0.01
    }
    bias_filler {
      type: "constant"
    }
  }
}
layer {
  name: "relu3"
  type: "ReLU"
  bottom: "conv3"
  top: "conv3"
}
layer {
  name: "conv4"
  type: "Convolution"
  bottom: "conv3"
  top: "conv4"
  param {
    lr_mult: 1
  }
  param {
    lr_mult: 2
  }
  convolution_param {
    num_output: 64
    pad: 2
    kernel_size: 5
    stride: 1
    weight_filler {
      type: "gaussian"
      std: 0.01
    }
    bias_filler {
      type: "constant"
    }
  }
}
layer {
  name: "relu4"
  type: "ReLU"
  bottom: "conv4"
  top: "conv4"
}
layer {
  name: "conv5"
  type: "Convolution"
  bottom: "conv4"
  top: "conv5"
  param {
    lr_mult: 1
  }
  param {
    lr_mult: 2
  }
  convolution_param {
    num_output: 64
    pad: 2
    kernel_size: 5
    stride: 1
    weight_filler {
      type: "gaussian"
      std: 0.01
    }
    bias_filler {
      type: "constant"
    }
  }
}
layer {
  name: "relu5"
  type: "ReLU"
  bottom: "conv5"
  top: "conv5"
}
layer {
  name: "pool5"
  type: "Pooling"
  bottom: "conv5"
  top: "pool5"
  pooling_param {
    pool: AVE
    kernel_size: 3
    stride: 2
  }
}
layer {
  name: "ip1"
  type: "InnerProduct"
  bottom: "pool5"
  top: "ip1"
  param {
    lr_mult: 1
  }
  param {
    lr_mult: 2
  }
  inner_product_param {
    num_output: 64
    weight_filler {
      type: "gaussian"
      std: 0.1
    }
    bias_filler {
      type: "constant"
    }
  }
}
layer {
  name: "ip2"
  type: "InnerProduct"
  bottom: "ip1"
  top: "ip2"
  param {
    lr_mult: 1
  }
  param {
    lr_mult: 2
  }
  inner_product_param {
    num_output: 64
    weight_filler {
      type: "gaussian"
      std: 0.1
    }
    bias_filler {
      type: "constant"
    }
  }
}
layer {
  name: "ip3"
  type: "InnerProduct"
  bottom: "ip2"
  top: "ip3"
  param {
    lr_mult: 1
  }
  param {
    lr_mult: 2
  }
  inner_product_param {
    num_output: 50
    weight_filler {
      type: "gaussian"
      std: 0.1
    }
    bias_filler {
      type: "constant"
    }
  }
}
layer {
  name: "accuracy"
  type: "Accuracy"
  bottom: "ip3"
  bottom: "label"
  top: "accuracy"
  include {
    phase: TEST
  }
}
layer {
  name: "loss"
  type: "SoftmaxWithLoss"
  bottom: "ip3"
  bottom: "label"
  top: "loss"
}
I0502 00:51:08.645931 16764 layer_factory.hpp:77] Creating layer intercept
I0502 00:51:08.645938 16764 net.cpp:94] Creating Layer intercept
I0502 00:51:08.645942 16764 net.cpp:409] intercept -> data
I0502 00:51:08.645948 16764 net.cpp:409] intercept -> label
I0502 00:51:08.645954 16764 hdf5_data_layer.cpp:79] Loading list of HDF5 filenames from: /home/purduethu/scratch/radon/d/deng106/CNNStatisticalModel/distributions/input/20_distributions_400_sample_size_test-distributions-path.txt
I0502 00:51:08.645973 16764 hdf5_data_layer.cpp:93] Number of HDF5 files: 1
I0502 00:51:08.710944 16764 net.cpp:144] Setting up intercept
I0502 00:51:08.710976 16764 net.cpp:151] Top shape: 20 1 20 20 (8000)
I0502 00:51:08.710981 16764 net.cpp:151] Top shape: 20 (20)
I0502 00:51:08.710984 16764 net.cpp:159] Memory required for data: 32080
I0502 00:51:08.710991 16764 layer_factory.hpp:77] Creating layer label_intercept_1_split
I0502 00:51:08.711009 16764 net.cpp:94] Creating Layer label_intercept_1_split
I0502 00:51:08.711014 16764 net.cpp:435] label_intercept_1_split <- label
I0502 00:51:08.711019 16764 net.cpp:409] label_intercept_1_split -> label_intercept_1_split_0
I0502 00:51:08.711028 16764 net.cpp:409] label_intercept_1_split -> label_intercept_1_split_1
I0502 00:51:08.711072 16764 net.cpp:144] Setting up label_intercept_1_split
I0502 00:51:08.711078 16764 net.cpp:151] Top shape: 20 (20)
I0502 00:51:08.711082 16764 net.cpp:151] Top shape: 20 (20)
I0502 00:51:08.711086 16764 net.cpp:159] Memory required for data: 32240
I0502 00:51:08.711088 16764 layer_factory.hpp:77] Creating layer conv1
I0502 00:51:08.711099 16764 net.cpp:94] Creating Layer conv1
I0502 00:51:08.711102 16764 net.cpp:435] conv1 <- data
I0502 00:51:08.711107 16764 net.cpp:409] conv1 -> conv1
I0502 00:51:08.712477 16764 net.cpp:144] Setting up conv1
I0502 00:51:08.712498 16764 net.cpp:151] Top shape: 20 64 20 20 (512000)
I0502 00:51:08.712502 16764 net.cpp:159] Memory required for data: 2080240
I0502 00:51:08.712512 16764 layer_factory.hpp:77] Creating layer relu1
I0502 00:51:08.712519 16764 net.cpp:94] Creating Layer relu1
I0502 00:51:08.712522 16764 net.cpp:435] relu1 <- conv1
I0502 00:51:08.712527 16764 net.cpp:396] relu1 -> conv1 (in-place)
I0502 00:51:08.712533 16764 net.cpp:144] Setting up relu1
I0502 00:51:08.712538 16764 net.cpp:151] Top shape: 20 64 20 20 (512000)
I0502 00:51:08.712540 16764 net.cpp:159] Memory required for data: 4128240
I0502 00:51:08.712543 16764 layer_factory.hpp:77] Creating layer conv2
I0502 00:51:08.712569 16764 net.cpp:94] Creating Layer conv2
I0502 00:51:08.712574 16764 net.cpp:435] conv2 <- conv1
I0502 00:51:08.712579 16764 net.cpp:409] conv2 -> conv2
I0502 00:51:08.717655 16764 net.cpp:144] Setting up conv2
I0502 00:51:08.717669 16764 net.cpp:151] Top shape: 20 64 20 20 (512000)
I0502 00:51:08.717672 16764 net.cpp:159] Memory required for data: 6176240
I0502 00:51:08.717680 16764 layer_factory.hpp:77] Creating layer relu2
I0502 00:51:08.717686 16764 net.cpp:94] Creating Layer relu2
I0502 00:51:08.717689 16764 net.cpp:435] relu2 <- conv2
I0502 00:51:08.717694 16764 net.cpp:396] relu2 -> conv2 (in-place)
I0502 00:51:08.717700 16764 net.cpp:144] Setting up relu2
I0502 00:51:08.717705 16764 net.cpp:151] Top shape: 20 64 20 20 (512000)
I0502 00:51:08.717707 16764 net.cpp:159] Memory required for data: 8224240
I0502 00:51:08.717710 16764 layer_factory.hpp:77] Creating layer pool2
I0502 00:51:08.717715 16764 net.cpp:94] Creating Layer pool2
I0502 00:51:08.717718 16764 net.cpp:435] pool2 <- conv2
I0502 00:51:08.717722 16764 net.cpp:409] pool2 -> pool2
I0502 00:51:08.717777 16764 net.cpp:144] Setting up pool2
I0502 00:51:08.717782 16764 net.cpp:151] Top shape: 20 64 10 10 (128000)
I0502 00:51:08.717785 16764 net.cpp:159] Memory required for data: 8736240
I0502 00:51:08.717789 16764 layer_factory.hpp:77] Creating layer conv3
I0502 00:51:08.717797 16764 net.cpp:94] Creating Layer conv3
I0502 00:51:08.717799 16764 net.cpp:435] conv3 <- pool2
I0502 00:51:08.717804 16764 net.cpp:409] conv3 -> conv3
I0502 00:51:08.722630 16764 net.cpp:144] Setting up conv3
I0502 00:51:08.722645 16764 net.cpp:151] Top shape: 20 64 10 10 (128000)
I0502 00:51:08.722648 16764 net.cpp:159] Memory required for data: 9248240
I0502 00:51:08.722656 16764 layer_factory.hpp:77] Creating layer relu3
I0502 00:51:08.722662 16764 net.cpp:94] Creating Layer relu3
I0502 00:51:08.722666 16764 net.cpp:435] relu3 <- conv3
I0502 00:51:08.722671 16764 net.cpp:396] relu3 -> conv3 (in-place)
I0502 00:51:08.722677 16764 net.cpp:144] Setting up relu3
I0502 00:51:08.722681 16764 net.cpp:151] Top shape: 20 64 10 10 (128000)
I0502 00:51:08.722684 16764 net.cpp:159] Memory required for data: 9760240
I0502 00:51:08.722687 16764 layer_factory.hpp:77] Creating layer conv4
I0502 00:51:08.722694 16764 net.cpp:94] Creating Layer conv4
I0502 00:51:08.722698 16764 net.cpp:435] conv4 <- conv3
I0502 00:51:08.722702 16764 net.cpp:409] conv4 -> conv4
I0502 00:51:08.726219 16764 net.cpp:144] Setting up conv4
I0502 00:51:08.726233 16764 net.cpp:151] Top shape: 20 64 10 10 (128000)
I0502 00:51:08.726236 16764 net.cpp:159] Memory required for data: 10272240
I0502 00:51:08.726243 16764 layer_factory.hpp:77] Creating layer relu4
I0502 00:51:08.726248 16764 net.cpp:94] Creating Layer relu4
I0502 00:51:08.726250 16764 net.cpp:435] relu4 <- conv4
I0502 00:51:08.726255 16764 net.cpp:396] relu4 -> conv4 (in-place)
I0502 00:51:08.726261 16764 net.cpp:144] Setting up relu4
I0502 00:51:08.726265 16764 net.cpp:151] Top shape: 20 64 10 10 (128000)
I0502 00:51:08.726269 16764 net.cpp:159] Memory required for data: 10784240
I0502 00:51:08.726271 16764 layer_factory.hpp:77] Creating layer conv5
I0502 00:51:08.726279 16764 net.cpp:94] Creating Layer conv5
I0502 00:51:08.726281 16764 net.cpp:435] conv5 <- conv4
I0502 00:51:08.726286 16764 net.cpp:409] conv5 -> conv5
I0502 00:51:08.730242 16764 net.cpp:144] Setting up conv5
I0502 00:51:08.730257 16764 net.cpp:151] Top shape: 20 64 10 10 (128000)
I0502 00:51:08.730262 16764 net.cpp:159] Memory required for data: 11296240
I0502 00:51:08.730270 16764 layer_factory.hpp:77] Creating layer relu5
I0502 00:51:08.730276 16764 net.cpp:94] Creating Layer relu5
I0502 00:51:08.730279 16764 net.cpp:435] relu5 <- conv5
I0502 00:51:08.730283 16764 net.cpp:396] relu5 -> conv5 (in-place)
I0502 00:51:08.730289 16764 net.cpp:144] Setting up relu5
I0502 00:51:08.730294 16764 net.cpp:151] Top shape: 20 64 10 10 (128000)
I0502 00:51:08.730296 16764 net.cpp:159] Memory required for data: 11808240
I0502 00:51:08.730299 16764 layer_factory.hpp:77] Creating layer pool5
I0502 00:51:08.730304 16764 net.cpp:94] Creating Layer pool5
I0502 00:51:08.730307 16764 net.cpp:435] pool5 <- conv5
I0502 00:51:08.730311 16764 net.cpp:409] pool5 -> pool5
I0502 00:51:08.730348 16764 net.cpp:144] Setting up pool5
I0502 00:51:08.730355 16764 net.cpp:151] Top shape: 20 64 5 5 (32000)
I0502 00:51:08.730357 16764 net.cpp:159] Memory required for data: 11936240
I0502 00:51:08.730361 16764 layer_factory.hpp:77] Creating layer ip1
I0502 00:51:08.730367 16764 net.cpp:94] Creating Layer ip1
I0502 00:51:08.730370 16764 net.cpp:435] ip1 <- pool5
I0502 00:51:08.730376 16764 net.cpp:409] ip1 -> ip1
I0502 00:51:08.732935 16764 net.cpp:144] Setting up ip1
I0502 00:51:08.732944 16764 net.cpp:151] Top shape: 20 64 (1280)
I0502 00:51:08.732947 16764 net.cpp:159] Memory required for data: 11941360
I0502 00:51:08.732952 16764 layer_factory.hpp:77] Creating layer ip2
I0502 00:51:08.732959 16764 net.cpp:94] Creating Layer ip2
I0502 00:51:08.732961 16764 net.cpp:435] ip2 <- ip1
I0502 00:51:08.732966 16764 net.cpp:409] ip2 -> ip2
I0502 00:51:08.733201 16764 net.cpp:144] Setting up ip2
I0502 00:51:08.733206 16764 net.cpp:151] Top shape: 20 64 (1280)
I0502 00:51:08.733209 16764 net.cpp:159] Memory required for data: 11946480
I0502 00:51:08.733214 16764 layer_factory.hpp:77] Creating layer ip3
I0502 00:51:08.733222 16764 net.cpp:94] Creating Layer ip3
I0502 00:51:08.733225 16764 net.cpp:435] ip3 <- ip2
I0502 00:51:08.733230 16764 net.cpp:409] ip3 -> ip3
I0502 00:51:08.733441 16764 net.cpp:144] Setting up ip3
I0502 00:51:08.733448 16764 net.cpp:151] Top shape: 20 50 (1000)
I0502 00:51:08.733451 16764 net.cpp:159] Memory required for data: 11950480
I0502 00:51:08.733456 16764 layer_factory.hpp:77] Creating layer ip3_ip3_0_split
I0502 00:51:08.733461 16764 net.cpp:94] Creating Layer ip3_ip3_0_split
I0502 00:51:08.733464 16764 net.cpp:435] ip3_ip3_0_split <- ip3
I0502 00:51:08.733469 16764 net.cpp:409] ip3_ip3_0_split -> ip3_ip3_0_split_0
I0502 00:51:08.733474 16764 net.cpp:409] ip3_ip3_0_split -> ip3_ip3_0_split_1
I0502 00:51:08.733515 16764 net.cpp:144] Setting up ip3_ip3_0_split
I0502 00:51:08.733521 16764 net.cpp:151] Top shape: 20 50 (1000)
I0502 00:51:08.733525 16764 net.cpp:151] Top shape: 20 50 (1000)
I0502 00:51:08.733527 16764 net.cpp:159] Memory required for data: 11958480
I0502 00:51:08.733530 16764 layer_factory.hpp:77] Creating layer accuracy
I0502 00:51:08.733536 16764 net.cpp:94] Creating Layer accuracy
I0502 00:51:08.733539 16764 net.cpp:435] accuracy <- ip3_ip3_0_split_0
I0502 00:51:08.733542 16764 net.cpp:435] accuracy <- label_intercept_1_split_0
I0502 00:51:08.733546 16764 net.cpp:409] accuracy -> accuracy
…
