…
I0504 23:44:27.566084   762 net.cpp:323] The NetState phase (0) differed from the phase (1) specified by a rule in layer intercept
I0504 23:44:27.566100   762 net.cpp:323] The NetState phase (0) differed from the phase (1) specified by a rule in layer loss
I0504 23:44:27.566181   762 net.cpp:52] Initializing net from parameters: 
state {
  phase: TRAIN
}
layer {
  name: "parameters"
  type: "HDF5Data"
  top: "data"
  top: "label"
  include {
    phase: TRAIN
  }
  hdf5_data_param {
    source: "/home/purduethu/scratch/radon/d/deng106/CNNStatisticalModel/distributions/input/20_distributions_900_sample_size_train-parameters-path.txt"
    batch_size: 20
  }
}
layer {
  name: "conv1"
  type: "Convolution"
  bottom: "data"
  top: "conv1"
  param {
    lr_mult: 1
  }
  param {
    lr_mult: 2
  }
  convolution_param {
    num_output: 64
    pad: 2
    kernel_size: 5
    stride: 1
    weight_filler {
      type: "gaussian"
      std: 0.0001
    }
    bias_filler {
      type: "constant"
    }
  }
}
layer {
  name: "relu1"
  type: "ReLU"
  bottom: "conv1"
  top: "conv1"
}
layer {
  name: "pool1"
  type: "Pooling"
  bottom: "conv1"
  top: "pool1"
  pooling_param {
    pool: MAX
    kernel_size: 3
    stride: 2
  }
}
layer {
  name: "conv2"
  type: "Convolution"
  bottom: "pool1"
  top: "conv2"
  param {
    lr_mult: 1
  }
  param {
    lr_mult: 2
  }
  convolution_param {
    num_output: 128
    pad: 2
    kernel_size: 5
    stride: 1
    weight_filler {
      type: "gaussian"
      std: 0.01
    }
    bias_filler {
      type: "constant"
    }
  }
}
layer {
  name: "relu2"
  type: "ReLU"
  bottom: "conv2"
  top: "conv2"
}
layer {
  name: "conv3"
  type: "Convolution"
  bottom: "conv2"
  top: "conv3"
  param {
    lr_mult: 1
  }
  param {
    lr_mult: 2
  }
  convolution_param {
    num_output: 128
    pad: 2
    kernel_size: 5
    stride: 1
    weight_filler {
      type: "gaussian"
      std: 0.01
    }
    bias_filler {
      type: "constant"
    }
  }
}
layer {
  name: "relu3"
  type: "ReLU"
  bottom: "conv3"
  top: "conv3"
}
layer {
  name: "pool3"
  type: "Pooling"
  bottom: "conv3"
  top: "pool3"
  pooling_param {
    pool: AVE
    kernel_size: 3
    stride: 2
  }
}
layer {
  name: "ip1"
  type: "InnerProduct"
  bottom: "pool3"
  top: "ip1"
  param {
    lr_mult: 1
  }
  param {
    lr_mult: 2
  }
  inner_product_param {
    num_output: 512
    weight_filler {
      type: "gaussian"
      std: 0.1
    }
    bias_filler {
      type: "constant"
    }
  }
}
layer {
  name: "ip2"
  type: "InnerProduct"
  bottom: "ip1"
  top: "ip2"
  param {
    lr_mult: 1
  }
  param {
    lr_mult: 2
  }
  inner_product_param {
    num_output: 256
    weight_filler {
      type: "gaussian"
      std: 0.1
    }
    bias_filler {
      type: "constant"
    }
  }
}
layer {
  name: "ip3"
  type: "InnerProduct"
  bottom: "ip2"
  top: "ip3"
  param {
    lr_mult: 1
  }
  param {
    lr_mult: 2
  }
  inner_product_param {
    num_output: 1
    weight_filler {
      type: "gaussian"
      std: 0.1
    }
    bias_filler {
      type: "constant"
    }
  }
}
layer {
  name: "loss"
  type: "HuberLoss"
  bottom: "ip3"
  bottom: "label"
  top: "loss"
  include {
    phase: TRAIN
  }
}
I0504 23:44:27.566248   762 layer_factory.hpp:77] Creating layer parameters
I0504 23:44:27.566263   762 net.cpp:94] Creating Layer parameters
I0504 23:44:27.566277   762 net.cpp:409] parameters -> data
I0504 23:44:27.566296   762 net.cpp:409] parameters -> label
I0504 23:44:27.566308   762 hdf5_data_layer.cpp:79] Loading list of HDF5 filenames from: /home/purduethu/scratch/radon/d/deng106/CNNStatisticalModel/distributions/input/20_distributions_900_sample_size_train-parameters-path.txt
I0504 23:44:27.566330   762 hdf5_data_layer.cpp:93] Number of HDF5 files: 1
I0504 23:44:27.566825   762 hdf5.cpp:32] Datatype class: H5T_FLOAT
I0504 23:44:28.142864   762 net.cpp:144] Setting up parameters
I0504 23:44:28.142897   762 net.cpp:151] Top shape: 20 1 30 30 (18000)
I0504 23:44:28.142904   762 net.cpp:151] Top shape: 20 (20)
I0504 23:44:28.142907   762 net.cpp:159] Memory required for data: 72080
I0504 23:44:28.142915   762 layer_factory.hpp:77] Creating layer conv1
I0504 23:44:28.142935   762 net.cpp:94] Creating Layer conv1
I0504 23:44:28.142940   762 net.cpp:435] conv1 <- data
I0504 23:44:28.142951   762 net.cpp:409] conv1 -> conv1
I0504 23:44:28.148777   762 net.cpp:144] Setting up conv1
I0504 23:44:28.148800   762 net.cpp:151] Top shape: 20 64 30 30 (1152000)
I0504 23:44:28.148804   762 net.cpp:159] Memory required for data: 4680080
I0504 23:44:28.148818   762 layer_factory.hpp:77] Creating layer relu1
I0504 23:44:28.148828   762 net.cpp:94] Creating Layer relu1
I0504 23:44:28.148831   762 net.cpp:435] relu1 <- conv1
I0504 23:44:28.148836   762 net.cpp:396] relu1 -> conv1 (in-place)
I0504 23:44:28.148855   762 net.cpp:144] Setting up relu1
I0504 23:44:28.148860   762 net.cpp:151] Top shape: 20 64 30 30 (1152000)
I0504 23:44:28.148864   762 net.cpp:159] Memory required for data: 9288080
I0504 23:44:28.148867   762 layer_factory.hpp:77] Creating layer pool1
I0504 23:44:28.148876   762 net.cpp:94] Creating Layer pool1
I0504 23:44:28.148880   762 net.cpp:435] pool1 <- conv1
I0504 23:44:28.148885   762 net.cpp:409] pool1 -> pool1
I0504 23:44:28.148928   762 net.cpp:144] Setting up pool1
I0504 23:44:28.148936   762 net.cpp:151] Top shape: 20 64 15 15 (288000)
I0504 23:44:28.148939   762 net.cpp:159] Memory required for data: 10440080
I0504 23:44:28.148942   762 layer_factory.hpp:77] Creating layer conv2
I0504 23:44:28.148952   762 net.cpp:94] Creating Layer conv2
I0504 23:44:28.148957   762 net.cpp:435] conv2 <- pool1
I0504 23:44:28.148963   762 net.cpp:409] conv2 -> conv2
I0504 23:44:28.161584   762 net.cpp:144] Setting up conv2
I0504 23:44:28.161612   762 net.cpp:151] Top shape: 20 128 15 15 (576000)
I0504 23:44:28.161615   762 net.cpp:159] Memory required for data: 12744080
I0504 23:44:28.161625   762 layer_factory.hpp:77] Creating layer relu2
I0504 23:44:28.161633   762 net.cpp:94] Creating Layer relu2
I0504 23:44:28.161638   762 net.cpp:435] relu2 <- conv2
I0504 23:44:28.161643   762 net.cpp:396] relu2 -> conv2 (in-place)
I0504 23:44:28.161650   762 net.cpp:144] Setting up relu2
I0504 23:44:28.161655   762 net.cpp:151] Top shape: 20 128 15 15 (576000)
I0504 23:44:28.161659   762 net.cpp:159] Memory required for data: 15048080
I0504 23:44:28.161662   762 layer_factory.hpp:77] Creating layer conv3
I0504 23:44:28.161672   762 net.cpp:94] Creating Layer conv3
I0504 23:44:28.161676   762 net.cpp:435] conv3 <- conv2
I0504 23:44:28.161682   762 net.cpp:409] conv3 -> conv3
I0504 23:44:28.183468   762 net.cpp:144] Setting up conv3
I0504 23:44:28.183491   762 net.cpp:151] Top shape: 20 128 15 15 (576000)
I0504 23:44:28.183496   762 net.cpp:159] Memory required for data: 17352080
I0504 23:44:28.183509   762 layer_factory.hpp:77] Creating layer relu3
I0504 23:44:28.183526   762 net.cpp:94] Creating Layer relu3
I0504 23:44:28.183531   762 net.cpp:435] relu3 <- conv3
I0504 23:44:28.183538   762 net.cpp:396] relu3 -> conv3 (in-place)
I0504 23:44:28.183548   762 net.cpp:144] Setting up relu3
I0504 23:44:28.183554   762 net.cpp:151] Top shape: 20 128 15 15 (576000)
I0504 23:44:28.183557   762 net.cpp:159] Memory required for data: 19656080
I0504 23:44:28.183560   762 layer_factory.hpp:77] Creating layer pool3
I0504 23:44:28.183568   762 net.cpp:94] Creating Layer pool3
I0504 23:44:28.183573   762 net.cpp:435] pool3 <- conv3
I0504 23:44:28.183584   762 net.cpp:409] pool3 -> pool3
I0504 23:44:28.183636   762 net.cpp:144] Setting up pool3
I0504 23:44:28.183645   762 net.cpp:151] Top shape: 20 128 7 7 (125440)
I0504 23:44:28.183650   762 net.cpp:159] Memory required for data: 20157840
I0504 23:44:28.183652   762 layer_factory.hpp:77] Creating layer ip1
I0504 23:44:28.183660   762 net.cpp:94] Creating Layer ip1
I0504 23:44:28.183663   762 net.cpp:435] ip1 <- pool3
I0504 23:44:28.183670   762 net.cpp:409] ip1 -> ip1
I0504 23:44:28.262864   762 net.cpp:144] Setting up ip1
I0504 23:44:28.262903   762 net.cpp:151] Top shape: 20 512 (10240)
I0504 23:44:28.262908   762 net.cpp:159] Memory required for data: 20198800
I0504 23:44:28.262917   762 layer_factory.hpp:77] Creating layer ip2
I0504 23:44:28.262928   762 net.cpp:94] Creating Layer ip2
I0504 23:44:28.262933   762 net.cpp:435] ip2 <- ip1
I0504 23:44:28.262940   762 net.cpp:409] ip2 -> ip2
I0504 23:44:28.266139   762 net.cpp:144] Setting up ip2
I0504 23:44:28.266147   762 net.cpp:151] Top shape: 20 256 (5120)
I0504 23:44:28.266151   762 net.cpp:159] Memory required for data: 20219280
I0504 23:44:28.266160   762 layer_factory.hpp:77] Creating layer ip3
I0504 23:44:28.266166   762 net.cpp:94] Creating Layer ip3
I0504 23:44:28.266170   762 net.cpp:435] ip3 <- ip2
I0504 23:44:28.266175   762 net.cpp:409] ip3 -> ip3
I0504 23:44:28.266244   762 net.cpp:144] Setting up ip3
I0504 23:44:28.266252   762 net.cpp:151] Top shape: 20 1 (20)
I0504 23:44:28.266254   762 net.cpp:159] Memory required for data: 20219360
I0504 23:44:28.266259   762 layer_factory.hpp:77] Creating layer loss
I0504 23:44:28.266273   762 net.cpp:94] Creating Layer loss
I0504 23:44:28.266275   762 net.cpp:435] loss <- ip3
I0504 23:44:28.266279   762 net.cpp:435] loss <- label
I0504 23:44:28.266285   762 net.cpp:409] loss -> loss
I0504 23:44:28.266321   762 net.cpp:144] Setting up loss
…
