…
I0505 01:26:52.380862  1743 net.cpp:323] The NetState phase (0) differed from the phase (1) specified by a rule in layer intercept
I0505 01:26:52.380877  1743 net.cpp:323] The NetState phase (0) differed from the phase (1) specified by a rule in layer accuracy
I0505 01:26:52.380956  1743 net.cpp:52] Initializing net from parameters: 
state {
  phase: TRAIN
}
layer {
  name: "parameters"
  type: "HDF5Data"
  top: "data"
  top: "label"
  include {
    phase: TRAIN
  }
  hdf5_data_param {
    source: "/home/purduethu/scratch/radon/d/deng106/CNNStatisticalModel/distributions/input/50_distributions_100_sample_size_train-distributions-path.txt"
    batch_size: 20
  }
}
layer {
  name: "conv1"
  type: "Convolution"
  bottom: "data"
  top: "conv1"
  param {
    lr_mult: 1
  }
  param {
    lr_mult: 2
  }
  convolution_param {
    num_output: 64
    pad: 2
    kernel_size: 5
    stride: 1
    weight_filler {
      type: "gaussian"
      std: 0.0001
    }
    bias_filler {
      type: "constant"
    }
  }
}
layer {
  name: "relu1"
  type: "ReLU"
  bottom: "conv1"
  top: "conv1"
}
layer {
  name: "pool1"
  type: "Pooling"
  bottom: "conv1"
  top: "pool1"
  pooling_param {
    pool: MAX
    kernel_size: 3
    stride: 2
  }
}
layer {
  name: "conv2"
  type: "Convolution"
  bottom: "pool1"
  top: "conv2"
  param {
    lr_mult: 1
  }
  param {
    lr_mult: 2
  }
  convolution_param {
    num_output: 128
    pad: 2
    kernel_size: 5
    stride: 1
    weight_filler {
      type: "gaussian"
      std: 0.01
    }
    bias_filler {
      type: "constant"
    }
  }
}
layer {
  name: "relu2"
  type: "ReLU"
  bottom: "conv2"
  top: "conv2"
}
layer {
  name: "conv3"
  type: "Convolution"
  bottom: "conv2"
  top: "conv3"
  param {
    lr_mult: 1
  }
  param {
    lr_mult: 2
  }
  convolution_param {
    num_output: 128
    pad: 2
    kernel_size: 5
    stride: 1
    weight_filler {
      type: "gaussian"
      std: 0.01
    }
    bias_filler {
      type: "constant"
    }
  }
}
layer {
  name: "relu3"
  type: "ReLU"
  bottom: "conv3"
  top: "conv3"
}
layer {
  name: "pool3"
  type: "Pooling"
  bottom: "conv3"
  top: "pool3"
  pooling_param {
    pool: AVE
    kernel_size: 3
    stride: 2
  }
}
layer {
  name: "ip1"
  type: "InnerProduct"
  bottom: "pool3"
  top: "ip1"
  param {
    lr_mult: 1
  }
  param {
    lr_mult: 2
  }
  inner_product_param {
    num_output: 512
    weight_filler {
      type: "gaussian"
      std: 0.1
    }
    bias_filler {
      type: "constant"
    }
  }
}
layer {
  name: "ip2"
  type: "InnerProduct"
  bottom: "ip1"
  top: "ip2"
  param {
    lr_mult: 1
  }
  param {
    lr_mult: 2
  }
  inner_product_param {
    num_output: 256
    weight_filler {
      type: "gaussian"
      std: 0.1
    }
    bias_filler {
      type: "constant"
    }
  }
}
layer {
  name: "ip3"
  type: "InnerProduct"
  bottom: "ip2"
  top: "ip3"
  param {
    lr_mult: 1
  }
  param {
    lr_mult: 2
  }
  inner_product_param {
    num_output: 50
    weight_filler {
      type: "gaussian"
      std: 0.1
    }
    bias_filler {
      type: "constant"
    }
  }
}
layer {
  name: "loss"
  type: "SoftmaxWithLoss"
  bottom: "ip3"
  bottom: "label"
  top: "loss"
}
I0505 01:26:52.381021  1743 layer_factory.hpp:77] Creating layer parameters
I0505 01:26:52.381036  1743 net.cpp:94] Creating Layer parameters
I0505 01:26:52.381052  1743 net.cpp:409] parameters -> data
I0505 01:26:52.381072  1743 net.cpp:409] parameters -> label
I0505 01:26:52.381083  1743 hdf5_data_layer.cpp:79] Loading list of HDF5 filenames from: /home/purduethu/scratch/radon/d/deng106/CNNStatisticalModel/distributions/input/50_distributions_100_sample_size_train-distributions-path.txt
I0505 01:26:52.381105  1743 hdf5_data_layer.cpp:93] Number of HDF5 files: 1
I0505 01:26:52.381614  1743 hdf5.cpp:32] Datatype class: H5T_FLOAT
I0505 01:26:52.543071  1743 hdf5.cpp:35] Datatype class: H5T_INTEGER
I0505 01:26:52.545905  1743 net.cpp:144] Setting up parameters
I0505 01:26:52.545928  1743 net.cpp:151] Top shape: 20 1 10 10 (2000)
I0505 01:26:52.545934  1743 net.cpp:151] Top shape: 20 (20)
I0505 01:26:52.545938  1743 net.cpp:159] Memory required for data: 8080
I0505 01:26:52.545946  1743 layer_factory.hpp:77] Creating layer conv1
I0505 01:26:52.545965  1743 net.cpp:94] Creating Layer conv1
I0505 01:26:52.545971  1743 net.cpp:435] conv1 <- data
I0505 01:26:52.545984  1743 net.cpp:409] conv1 -> conv1
I0505 01:26:52.549787  1743 net.cpp:144] Setting up conv1
I0505 01:26:52.549804  1743 net.cpp:151] Top shape: 20 64 10 10 (128000)
I0505 01:26:52.549809  1743 net.cpp:159] Memory required for data: 520080
I0505 01:26:52.549823  1743 layer_factory.hpp:77] Creating layer relu1
I0505 01:26:52.549830  1743 net.cpp:94] Creating Layer relu1
I0505 01:26:52.549834  1743 net.cpp:435] relu1 <- conv1
I0505 01:26:52.549840  1743 net.cpp:396] relu1 -> conv1 (in-place)
I0505 01:26:52.549855  1743 net.cpp:144] Setting up relu1
I0505 01:26:52.549860  1743 net.cpp:151] Top shape: 20 64 10 10 (128000)
I0505 01:26:52.549865  1743 net.cpp:159] Memory required for data: 1032080
I0505 01:26:52.549868  1743 layer_factory.hpp:77] Creating layer pool1
I0505 01:26:52.549876  1743 net.cpp:94] Creating Layer pool1
I0505 01:26:52.549880  1743 net.cpp:435] pool1 <- conv1
I0505 01:26:52.549885  1743 net.cpp:409] pool1 -> pool1
I0505 01:26:52.549931  1743 net.cpp:144] Setting up pool1
I0505 01:26:52.549938  1743 net.cpp:151] Top shape: 20 64 5 5 (32000)
I0505 01:26:52.549942  1743 net.cpp:159] Memory required for data: 1160080
I0505 01:26:52.549945  1743 layer_factory.hpp:77] Creating layer conv2
I0505 01:26:52.549955  1743 net.cpp:94] Creating Layer conv2
I0505 01:26:52.549959  1743 net.cpp:435] conv2 <- pool1
I0505 01:26:52.549965  1743 net.cpp:409] conv2 -> conv2
I0505 01:26:52.558722  1743 net.cpp:144] Setting up conv2
I0505 01:26:52.558745  1743 net.cpp:151] Top shape: 20 128 5 5 (64000)
I0505 01:26:52.558750  1743 net.cpp:159] Memory required for data: 1416080
I0505 01:26:52.558759  1743 layer_factory.hpp:77] Creating layer relu2
I0505 01:26:52.558768  1743 net.cpp:94] Creating Layer relu2
I0505 01:26:52.558773  1743 net.cpp:435] relu2 <- conv2
I0505 01:26:52.558779  1743 net.cpp:396] relu2 -> conv2 (in-place)
I0505 01:26:52.558786  1743 net.cpp:144] Setting up relu2
I0505 01:26:52.558792  1743 net.cpp:151] Top shape: 20 128 5 5 (64000)
I0505 01:26:52.558795  1743 net.cpp:159] Memory required for data: 1672080
I0505 01:26:52.558799  1743 layer_factory.hpp:77] Creating layer conv3
I0505 01:26:52.558809  1743 net.cpp:94] Creating Layer conv3
I0505 01:26:52.558814  1743 net.cpp:435] conv3 <- conv2
I0505 01:26:52.558818  1743 net.cpp:409] conv3 -> conv3
I0505 01:26:52.573747  1743 net.cpp:144] Setting up conv3
I0505 01:26:52.573771  1743 net.cpp:151] Top shape: 20 128 5 5 (64000)
I0505 01:26:52.573776  1743 net.cpp:159] Memory required for data: 1928080
I0505 01:26:52.573787  1743 layer_factory.hpp:77] Creating layer relu3
I0505 01:26:52.573803  1743 net.cpp:94] Creating Layer relu3
I0505 01:26:52.573809  1743 net.cpp:435] relu3 <- conv3
I0505 01:26:52.573815  1743 net.cpp:396] relu3 -> conv3 (in-place)
I0505 01:26:52.573825  1743 net.cpp:144] Setting up relu3
I0505 01:26:52.573830  1743 net.cpp:151] Top shape: 20 128 5 5 (64000)
I0505 01:26:52.573834  1743 net.cpp:159] Memory required for data: 2184080
I0505 01:26:52.573838  1743 layer_factory.hpp:77] Creating layer pool3
I0505 01:26:52.573845  1743 net.cpp:94] Creating Layer pool3
I0505 01:26:52.573858  1743 net.cpp:435] pool3 <- conv3
I0505 01:26:52.573863  1743 net.cpp:409] pool3 -> pool3
I0505 01:26:52.573904  1743 net.cpp:144] Setting up pool3
I0505 01:26:52.573911  1743 net.cpp:151] Top shape: 20 128 2 2 (10240)
I0505 01:26:52.573915  1743 net.cpp:159] Memory required for data: 2225040
I0505 01:26:52.573920  1743 layer_factory.hpp:77] Creating layer ip1
I0505 01:26:52.573930  1743 net.cpp:94] Creating Layer ip1
I0505 01:26:52.573935  1743 net.cpp:435] ip1 <- pool3
I0505 01:26:52.573940  1743 net.cpp:409] ip1 -> ip1
I0505 01:26:52.581166  1743 net.cpp:144] Setting up ip1
I0505 01:26:52.581187  1743 net.cpp:151] Top shape: 20 512 (10240)
I0505 01:26:52.581192  1743 net.cpp:159] Memory required for data: 2266000
I0505 01:26:52.581199  1743 layer_factory.hpp:77] Creating layer ip2
I0505 01:26:52.581207  1743 net.cpp:94] Creating Layer ip2
I0505 01:26:52.581212  1743 net.cpp:435] ip2 <- ip1
I0505 01:26:52.581218  1743 net.cpp:409] ip2 -> ip2
I0505 01:26:52.585108  1743 net.cpp:144] Setting up ip2
I0505 01:26:52.585125  1743 net.cpp:151] Top shape: 20 256 (5120)
I0505 01:26:52.585129  1743 net.cpp:159] Memory required for data: 2286480
I0505 01:26:52.585139  1743 layer_factory.hpp:77] Creating layer ip3
I0505 01:26:52.585146  1743 net.cpp:94] Creating Layer ip3
I0505 01:26:52.585150  1743 net.cpp:435] ip3 <- ip2
I0505 01:26:52.585156  1743 net.cpp:409] ip3 -> ip3
I0505 01:26:52.586196  1743 net.cpp:144] Setting up ip3
I0505 01:26:52.586210  1743 net.cpp:151] Top shape: 20 50 (1000)
I0505 01:26:52.586215  1743 net.cpp:159] Memory required for data: 2290480
I0505 01:26:52.586220  1743 layer_factory.hpp:77] Creating layer loss
I0505 01:26:52.586227  1743 net.cpp:94] Creating Layer loss
I0505 01:26:52.586232  1743 net.cpp:435] loss <- ip3
I0505 01:26:52.586236  1743 net.cpp:435] loss <- label
I0505 01:26:52.586243  1743 net.cpp:409] loss -> loss
I0505 01:26:52.586256  1743 layer_factory.hpp:77] Creating layer loss
…
I0505 01:26:52.586710  1743 solver.cpp:181] Creating test net (#0) specified by net file: ./protocol/dis_50_100_dimension.protocol_distribution
I0505 01:26:52.586735  1743 net.cpp:323] The NetState phase (1) differed from the phase (0) specified by a rule in layer parameters
I0505 01:26:52.586827  1743 net.cpp:52] Initializing net from parameters: 
state {
  phase: TEST
}
layer {
  name: "intercept"
  type: "HDF5Data"
  top: "data"
  top: "label"
  include {
    phase: TEST
  }
  hdf5_data_param {
    source: "/home/purduethu/scratch/radon/d/deng106/CNNStatisticalModel/distributions/input/50_distributions_100_sample_size_test-distributions-path.txt"
    batch_size: 20
  }
}
layer {
  name: "conv1"
  type: "Convolution"
  bottom: "data"
  top: "conv1"
  param {
    lr_mult: 1
  }
  param {
    lr_mult: 2
  }
  convolution_param {
    num_output: 64
    pad: 2
    kernel_size: 5
    stride: 1
    weight_filler {
      type: "gaussian"
      std: 0.0001
    }
    bias_filler {
      type: "constant"
    }
  }
}
layer {
  name: "relu1"
  type: "ReLU"
  bottom: "conv1"
  top: "conv1"
}
layer {
  name: "pool1"
  type: "Pooling"
  bottom: "conv1"
  top: "pool1"
  pooling_param {
    pool: MAX
    kernel_size: 3
    stride: 2
  }
}
layer {
  name: "conv2"
  type: "Convolution"
  bottom: "pool1"
  top: "conv2"
  param {
    lr_mult: 1
  }
  param {
    lr_mult: 2
  }
  convolution_param {
    num_output: 128
    pad: 2
    kernel_size: 5
    stride: 1
    weight_filler {
      type: "gaussian"
      std: 0.01
    }
    bias_filler {
      type: "constant"
    }
  }
}
layer {
  name: "relu2"
  type: "ReLU"
  bottom: "conv2"
  top: "conv2"
}
layer {
  name: "conv3"
  type: "Convolution"
  bottom: "conv2"
  top: "conv3"
  param {
    lr_mult: 1
  }
  param {
    lr_mult: 2
  }
  convolution_param {
    num_output: 128
    pad: 2
    kernel_size: 5
    stride: 1
    weight_filler {
      type: "gaussian"
      std: 0.01
    }
    bias_filler {
      type: "constant"
    }
  }
}
layer {
  name: "relu3"
  type: "ReLU"
  bottom: "conv3"
  top: "conv3"
}
layer {
  name: "pool3"
  type: "Pooling"
  bottom: "conv3"
  top: "pool3"
  pooling_param {
    pool: AVE
    kernel_size: 3
    stride: 2
  }
}
layer {
  name: "ip1"
  type: "InnerProduct"
  bottom: "pool3"
  top: "ip1"
  param {
    lr_mult: 1
  }
  param {
    lr_mult: 2
  }
  inner_product_param {
    num_output: 512
    weight_filler {
      type: "gaussian"
      std: 0.1
    }
    bias_filler {
      type: "constant"
    }
  }
}
layer {
  name: "ip2"
  type: "InnerProduct"
  bottom: "ip1"
  top: "ip2"
  param {
    lr_mult: 1
  }
  param {
    lr_mult: 2
  }
  inner_product_param {
    num_output: 256
    weight_filler {
      type: "gaussian"
      std: 0.1
    }
    bias_filler {
      type: "constant"
    }
  }
}
layer {
  name: "ip3"
  type: "InnerProduct"
  bottom: "ip2"
  top: "ip3"
  param {
    lr_mult: 1
  }
  param {
    lr_mult: 2
  }
  inner_product_param {
    num_output: 50
    weight_filler {
      type: "gaussian"
      std: 0.1
    }
    bias_filler {
      type: "constant"
    }
  }
}
layer {
  name: "accuracy"
  type: "Accuracy"
  bottom: "ip3"
  bottom: "label"
  top: "accuracy"
  include {
    phase: TEST
  }
}
layer {
  name: "loss"
  type: "SoftmaxWithLoss"
  bottom: "ip3"
  bottom: "label"
  top: "loss"
}
I0505 01:26:52.586895  1743 layer_factory.hpp:77] Creating layer intercept
I0505 01:26:52.586905  1743 net.cpp:94] Creating Layer intercept
I0505 01:26:52.586910  1743 net.cpp:409] intercept -> data
I0505 01:26:52.586916  1743 net.cpp:409] intercept -> label
I0505 01:26:52.586923  1743 hdf5_data_layer.cpp:79] Loading list of HDF5 filenames from: /home/purduethu/scratch/radon/d/deng106/CNNStatisticalModel/distributions/input/50_distributions_100_sample_size_test-distributions-path.txt
I0505 01:26:52.586944  1743 hdf5_data_layer.cpp:93] Number of HDF5 files: 1
I0505 01:26:52.628636  1743 net.cpp:144] Setting up intercept
I0505 01:26:52.628672  1743 net.cpp:151] Top shape: 20 1 10 10 (2000)
I0505 01:26:52.628679  1743 net.cpp:151] Top shape: 20 (20)
I0505 01:26:52.628684  1743 net.cpp:159] Memory required for data: 8080
I0505 01:26:52.628690  1743 layer_factory.hpp:77] Creating layer label_intercept_1_split
I0505 01:26:52.628710  1743 net.cpp:94] Creating Layer label_intercept_1_split
I0505 01:26:52.628724  1743 net.cpp:435] label_intercept_1_split <- label
I0505 01:26:52.628731  1743 net.cpp:409] label_intercept_1_split -> label_intercept_1_split_0
I0505 01:26:52.628739  1743 net.cpp:409] label_intercept_1_split -> label_intercept_1_split_1
I0505 01:26:52.628767  1743 net.cpp:144] Setting up label_intercept_1_split
I0505 01:26:52.628774  1743 net.cpp:151] Top shape: 20 (20)
I0505 01:26:52.628779  1743 net.cpp:151] Top shape: 20 (20)
I0505 01:26:52.628782  1743 net.cpp:159] Memory required for data: 8240
I0505 01:26:52.628794  1743 layer_factory.hpp:77] Creating layer conv1
I0505 01:26:52.628806  1743 net.cpp:94] Creating Layer conv1
I0505 01:26:52.628810  1743 net.cpp:435] conv1 <- data
I0505 01:26:52.628815  1743 net.cpp:409] conv1 -> conv1
I0505 01:26:52.629519  1743 net.cpp:144] Setting up conv1
I0505 01:26:52.629534  1743 net.cpp:151] Top shape: 20 64 10 10 (128000)
I0505 01:26:52.629539  1743 net.cpp:159] Memory required for data: 520240
I0505 01:26:52.629547  1743 layer_factory.hpp:77] Creating layer relu1
I0505 01:26:52.629554  1743 net.cpp:94] Creating Layer relu1
I0505 01:26:52.629559  1743 net.cpp:435] relu1 <- conv1
I0505 01:26:52.629564  1743 net.cpp:396] relu1 -> conv1 (in-place)
I0505 01:26:52.629571  1743 net.cpp:144] Setting up relu1
I0505 01:26:52.629576  1743 net.cpp:151] Top shape: 20 64 10 10 (128000)
I0505 01:26:52.629580  1743 net.cpp:159] Memory required for data: 1032240
I0505 01:26:52.629583  1743 layer_factory.hpp:77] Creating layer pool1
I0505 01:26:52.629591  1743 net.cpp:94] Creating Layer pool1
I0505 01:26:52.629595  1743 net.cpp:435] pool1 <- conv1
I0505 01:26:52.629600  1743 net.cpp:409] pool1 -> pool1
I0505 01:26:52.629637  1743 net.cpp:144] Setting up pool1
I0505 01:26:52.629643  1743 net.cpp:151] Top shape: 20 64 5 5 (32000)
I0505 01:26:52.629647  1743 net.cpp:159] Memory required for data: 1160240
I0505 01:26:52.629652  1743 layer_factory.hpp:77] Creating layer conv2
I0505 01:26:52.629659  1743 net.cpp:94] Creating Layer conv2
I0505 01:26:52.629663  1743 net.cpp:435] conv2 <- pool1
I0505 01:26:52.629668  1743 net.cpp:409] conv2 -> conv2
I0505 01:26:52.636260  1743 net.cpp:144] Setting up conv2
I0505 01:26:52.636279  1743 net.cpp:151] Top shape: 20 128 5 5 (64000)
I0505 01:26:52.636284  1743 net.cpp:159] Memory required for data: 1416240
I0505 01:26:52.636294  1743 layer_factory.hpp:77] Creating layer relu2
I0505 01:26:52.636301  1743 net.cpp:94] Creating Layer relu2
I0505 01:26:52.636307  1743 net.cpp:435] relu2 <- conv2
I0505 01:26:52.636312  1743 net.cpp:396] relu2 -> conv2 (in-place)
I0505 01:26:52.636319  1743 net.cpp:144] Setting up relu2
I0505 01:26:52.636324  1743 net.cpp:151] Top shape: 20 128 5 5 (64000)
I0505 01:26:52.636327  1743 net.cpp:159] Memory required for data: 1672240
I0505 01:26:52.636332  1743 layer_factory.hpp:77] Creating layer conv3
I0505 01:26:52.636339  1743 net.cpp:94] Creating Layer conv3
I0505 01:26:52.636343  1743 net.cpp:435] conv3 <- conv2
I0505 01:26:52.636349  1743 net.cpp:409] conv3 -> conv3
I0505 01:26:52.648941  1743 net.cpp:144] Setting up conv3
I0505 01:26:52.648969  1743 net.cpp:151] Top shape: 20 128 5 5 (64000)
I0505 01:26:52.648974  1743 net.cpp:159] Memory required for data: 1928240
I0505 01:26:52.648985  1743 layer_factory.hpp:77] Creating layer relu3
I0505 01:26:52.648996  1743 net.cpp:94] Creating Layer relu3
I0505 01:26:52.649001  1743 net.cpp:435] relu3 <- conv3
I0505 01:26:52.649008  1743 net.cpp:396] relu3 -> conv3 (in-place)
I0505 01:26:52.649018  1743 net.cpp:144] Setting up relu3
I0505 01:26:52.649022  1743 net.cpp:151] Top shape: 20 128 5 5 (64000)
I0505 01:26:52.649026  1743 net.cpp:159] Memory required for data: 2184240
I0505 01:26:52.649029  1743 layer_factory.hpp:77] Creating layer pool3
I0505 01:26:52.649035  1743 net.cpp:94] Creating Layer pool3
I0505 01:26:52.649039  1743 net.cpp:435] pool3 <- conv3
I0505 01:26:52.649044  1743 net.cpp:409] pool3 -> pool3
I0505 01:26:52.649075  1743 net.cpp:144] Setting up pool3
I0505 01:26:52.649082  1743 net.cpp:151] Top shape: 20 128 2 2 (10240)
I0505 01:26:52.649093  1743 net.cpp:159] Memory required for data: 2225200
I0505 01:26:52.649097  1743 layer_factory.hpp:77] Creating layer ip1
I0505 01:26:52.649106  1743 net.cpp:94] Creating Layer ip1
I0505 01:26:52.649109  1743 net.cpp:435] ip1 <- pool3
I0505 01:26:52.649114  1743 net.cpp:409] ip1 -> ip1
I0505 01:26:52.656234  1743 net.cpp:144] Setting up ip1
I0505 01:26:52.656256  1743 net.cpp:151] Top shape: 20 512 (10240)
I0505 01:26:52.656260  1743 net.cpp:159] Memory required for data: 2266160
I0505 01:26:52.656276  1743 layer_factory.hpp:77] Creating layer ip2
I0505 01:26:52.656286  1743 net.cpp:94] Creating Layer ip2
I0505 01:26:52.656289  1743 net.cpp:435] ip2 <- ip1
I0505 01:26:52.656296  1743 net.cpp:409] ip2 -> ip2
I0505 01:26:52.659554  1743 net.cpp:144] Setting up ip2
I0505 01:26:52.659564  1743 net.cpp:151] Top shape: 20 256 (5120)
I0505 01:26:52.659567  1743 net.cpp:159] Memory required for data: 2286640
I0505 01:26:52.659576  1743 layer_factory.hpp:77] Creating layer ip3
I0505 01:26:52.659584  1743 net.cpp:94] Creating Layer ip3
I0505 01:26:52.659587  1743 net.cpp:435] ip3 <- ip2
I0505 01:26:52.659592  1743 net.cpp:409] ip3 -> ip3
I0505 01:26:52.659981  1743 net.cpp:144] Setting up ip3
I0505 01:26:52.659989  1743 net.cpp:151] Top shape: 20 50 (1000)
I0505 01:26:52.659993  1743 net.cpp:159] Memory required for data: 2290640
I0505 01:26:52.659998  1743 layer_factory.hpp:77] Creating layer ip3_ip3_0_split
I0505 01:26:52.660004  1743 net.cpp:94] Creating Layer ip3_ip3_0_split
I0505 01:26:52.660008  1743 net.cpp:435] ip3_ip3_0_split <- ip3
I0505 01:26:52.660013  1743 net.cpp:409] ip3_ip3_0_split -> ip3_ip3_0_split_0
I0505 01:26:52.660020  1743 net.cpp:409] ip3_ip3_0_split -> ip3_ip3_0_split_1
I0505 01:26:52.660045  1743 net.cpp:144] Setting up ip3_ip3_0_split
I0505 01:26:52.660051  1743 net.cpp:151] Top shape: 20 50 (1000)
I0505 01:26:52.660055  1743 net.cpp:151] Top shape: 20 50 (1000)
I0505 01:26:52.660059  1743 net.cpp:159] Memory required for data: 2298640
I0505 01:26:52.660063  1743 layer_factory.hpp:77] Creating layer accuracy
I0505 01:26:52.660076  1743 net.cpp:94] Creating Layer accuracy
I0505 01:26:52.660080  1743 net.cpp:435] accuracy <- ip3_ip3_0_split_0
I0505 01:26:52.660085  1743 net.cpp:435] accuracy <- label_intercept_1_split_0
I0505 01:26:52.660090  1743 net.cpp:409] accuracy -> accuracy
…
