…
I0501 05:08:34.490252 31111 net.cpp:323] The NetState phase (0) differed from the phase (1) specified by a rule in layer intercept
I0501 05:08:34.490268 31111 net.cpp:323] The NetState phase (0) differed from the phase (1) specified by a rule in layer loss
I0501 05:08:34.490358 31111 net.cpp:52] Initializing net from parameters: 
state {
  phase: TRAIN
}
layer {
  name: "parameters"
  type: "HDF5Data"
  top: "data"
  top: "label"
  include {
    phase: TRAIN
  }
  hdf5_data_param {
    source: "/home/purduethu/scratch/radon/d/deng106/CNNStatisticalModel/distributions/input/50_distributions_900_sample_size_train-parameters-path.txt"
    batch_size: 20
  }
}
layer {
  name: "conv1"
  type: "Convolution"
  bottom: "data"
  top: "conv1"
  param {
    lr_mult: 1
  }
  param {
    lr_mult: 2
  }
  convolution_param {
    num_output: 64
    pad: 2
    kernel_size: 5
    stride: 1
    weight_filler {
      type: "gaussian"
      std: 0.0001
    }
    bias_filler {
      type: "constant"
    }
  }
}
layer {
  name: "relu1"
  type: "ReLU"
  bottom: "conv1"
  top: "conv1"
}
layer {
  name: "conv2"
  type: "Convolution"
  bottom: "conv1"
  top: "conv2"
  param {
    lr_mult: 1
  }
  param {
    lr_mult: 2
  }
  convolution_param {
    num_output: 64
    pad: 2
    kernel_size: 5
    stride: 1
    weight_filler {
      type: "gaussian"
      std: 0.01
    }
    bias_filler {
      type: "constant"
    }
  }
}
layer {
  name: "relu2"
  type: "ReLU"
  bottom: "conv2"
  top: "conv2"
}
layer {
  name: "pool2"
  type: "Pooling"
  bottom: "conv2"
  top: "pool2"
  pooling_param {
    pool: MAX
    kernel_size: 3
    stride: 2
  }
}
layer {
  name: "conv3"
  type: "Convolution"
  bottom: "pool2"
  top: "conv3"
  param {
    lr_mult: 1
  }
  param {
    lr_mult: 2
  }
  convolution_param {
    num_output: 128
    pad: 2
    kernel_size: 5
    stride: 1
    weight_filler {
      type: "gaussian"
      std: 0.01
    }
    bias_filler {
      type: "constant"
    }
  }
}
layer {
  name: "relu3"
  type: "ReLU"
  bottom: "conv3"
  top: "conv3"
}
layer {
  name: "conv4"
  type: "Convolution"
  bottom: "conv3"
  top: "conv4"
  param {
    lr_mult: 1
  }
  param {
    lr_mult: 2
  }
  convolution_param {
    num_output: 128
    pad: 2
    kernel_size: 5
    stride: 1
    weight_filler {
      type: "gaussian"
      std: 0.01
    }
    bias_filler {
      type: "constant"
    }
  }
}
layer {
  name: "relu4"
  type: "ReLU"
  bottom: "conv4"
  top: "conv4"
}
layer {
  name: "conv5"
  type: "Convolution"
  bottom: "conv4"
  top: "conv5"
  param {
    lr_mult: 1
  }
  param {
    lr_mult: 2
  }
  convolution_param {
    num_output: 128
    pad: 2
    kernel_size: 5
    stride: 1
    weight_filler {
      type: "gaussian"
      std: 0.01
    }
    bias_filler {
      type: "constant"
    }
  }
}
layer {
  name: "relu5"
  type: "ReLU"
  bottom: "conv5"
  top: "conv5"
}
layer {
  name: "pool5"
  type: "Pooling"
  bottom: "conv5"
  top: "pool5"
  pooling_param {
    pool: AVE
    kernel_size: 3
    stride: 2
  }
}
layer {
  name: "ip1"
  type: "InnerProduct"
  bottom: "pool5"
  top: "ip1"
  param {
    lr_mult: 1
  }
  param {
    lr_mult: 2
  }
  inner_product_param {
    num_output: 1024
    weight_filler {
      type: "gaussian"
      std: 0.1
    }
    bias_filler {
      type: "constant"
    }
  }
}
layer {
  name: "ip2"
  type: "InnerProduct"
  bottom: "ip1"
  top: "ip2"
  param {
    lr_mult: 1
  }
  param {
    lr_mult: 2
  }
  inner_product_param {
    num_output: 512
    weight_filler {
      type: "gaussian"
      std: 0.1
    }
    bias_filler {
      type: "constant"
    }
  }
}
layer {
  name: "ip3"
  type: "InnerProduct"
  bottom: "ip2"
  top: "ip3"
  param {
    lr_mult: 1
  }
  param {
    lr_mult: 2
  }
  inner_product_param {
    num_output: 1
    weight_filler {
      type: "gaussian"
      std: 0.1
    }
    bias_filler {
      type: "constant"
    }
  }
}
layer {
  name: "loss"
  type: "HuberLoss"
  bottom: "ip3"
  bottom: "label"
  top: "loss"
  include {
    phase: TRAIN
  }
}
I0501 05:08:34.490433 31111 layer_factory.hpp:77] Creating layer parameters
I0501 05:08:34.490448 31111 net.cpp:94] Creating Layer parameters
I0501 05:08:34.490454 31111 net.cpp:409] parameters -> data
I0501 05:08:34.490473 31111 net.cpp:409] parameters -> label
I0501 05:08:34.490483 31111 hdf5_data_layer.cpp:79] Loading list of HDF5 filenames from: /home/purduethu/scratch/radon/d/deng106/CNNStatisticalModel/distributions/input/50_distributions_900_sample_size_train-parameters-path.txt
I0501 05:08:34.490506 31111 hdf5_data_layer.cpp:93] Number of HDF5 files: 1
I0501 05:08:34.491098 31111 hdf5.cpp:32] Datatype class: H5T_FLOAT
I0501 05:08:35.955179 31111 net.cpp:144] Setting up parameters
I0501 05:08:35.955216 31111 net.cpp:151] Top shape: 20 1 30 30 (18000)
I0501 05:08:35.955222 31111 net.cpp:151] Top shape: 20 (20)
I0501 05:08:35.955225 31111 net.cpp:159] Memory required for data: 72080
I0501 05:08:35.955234 31111 layer_factory.hpp:77] Creating layer conv1
I0501 05:08:35.955251 31111 net.cpp:94] Creating Layer conv1
I0501 05:08:35.955257 31111 net.cpp:435] conv1 <- data
I0501 05:08:35.955267 31111 net.cpp:409] conv1 -> conv1
I0501 05:08:35.965548 31111 net.cpp:144] Setting up conv1
I0501 05:08:35.965574 31111 net.cpp:151] Top shape: 20 64 30 30 (1152000)
I0501 05:08:35.965579 31111 net.cpp:159] Memory required for data: 4680080
I0501 05:08:35.965591 31111 layer_factory.hpp:77] Creating layer relu1
I0501 05:08:35.965601 31111 net.cpp:94] Creating Layer relu1
I0501 05:08:35.965605 31111 net.cpp:435] relu1 <- conv1
I0501 05:08:35.965610 31111 net.cpp:396] relu1 -> conv1 (in-place)
I0501 05:08:35.965627 31111 net.cpp:144] Setting up relu1
I0501 05:08:35.965633 31111 net.cpp:151] Top shape: 20 64 30 30 (1152000)
I0501 05:08:35.965636 31111 net.cpp:159] Memory required for data: 9288080
I0501 05:08:35.965639 31111 layer_factory.hpp:77] Creating layer conv2
I0501 05:08:35.965648 31111 net.cpp:94] Creating Layer conv2
I0501 05:08:35.965652 31111 net.cpp:435] conv2 <- conv1
I0501 05:08:35.965656 31111 net.cpp:409] conv2 -> conv2
I0501 05:08:35.982061 31111 net.cpp:144] Setting up conv2
I0501 05:08:35.982082 31111 net.cpp:151] Top shape: 20 64 30 30 (1152000)
I0501 05:08:35.982087 31111 net.cpp:159] Memory required for data: 13896080
I0501 05:08:35.982096 31111 layer_factory.hpp:77] Creating layer relu2
I0501 05:08:35.982103 31111 net.cpp:94] Creating Layer relu2
I0501 05:08:35.982107 31111 net.cpp:435] relu2 <- conv2
I0501 05:08:35.982112 31111 net.cpp:396] relu2 -> conv2 (in-place)
I0501 05:08:35.982120 31111 net.cpp:144] Setting up relu2
I0501 05:08:35.982125 31111 net.cpp:151] Top shape: 20 64 30 30 (1152000)
I0501 05:08:35.982127 31111 net.cpp:159] Memory required for data: 18504080
I0501 05:08:35.982131 31111 layer_factory.hpp:77] Creating layer pool2
I0501 05:08:35.982138 31111 net.cpp:94] Creating Layer pool2
I0501 05:08:35.982148 31111 net.cpp:435] pool2 <- conv2
I0501 05:08:35.982153 31111 net.cpp:409] pool2 -> pool2
I0501 05:08:35.982200 31111 net.cpp:144] Setting up pool2
I0501 05:08:35.982208 31111 net.cpp:151] Top shape: 20 64 15 15 (288000)
I0501 05:08:35.982211 31111 net.cpp:159] Memory required for data: 19656080
I0501 05:08:35.982214 31111 layer_factory.hpp:77] Creating layer conv3
I0501 05:08:35.982224 31111 net.cpp:94] Creating Layer conv3
I0501 05:08:35.982228 31111 net.cpp:435] conv3 <- pool2
I0501 05:08:35.982233 31111 net.cpp:409] conv3 -> conv3
I0501 05:08:35.995275 31111 net.cpp:144] Setting up conv3
I0501 05:08:35.995291 31111 net.cpp:151] Top shape: 20 128 15 15 (576000)
I0501 05:08:35.995296 31111 net.cpp:159] Memory required for data: 21960080
I0501 05:08:35.995304 31111 layer_factory.hpp:77] Creating layer relu3
I0501 05:08:35.995311 31111 net.cpp:94] Creating Layer relu3
I0501 05:08:35.995316 31111 net.cpp:435] relu3 <- conv3
I0501 05:08:35.995319 31111 net.cpp:396] relu3 -> conv3 (in-place)
I0501 05:08:35.995326 31111 net.cpp:144] Setting up relu3
I0501 05:08:35.995332 31111 net.cpp:151] Top shape: 20 128 15 15 (576000)
I0501 05:08:35.995334 31111 net.cpp:159] Memory required for data: 24264080
I0501 05:08:35.995337 31111 layer_factory.hpp:77] Creating layer conv4
I0501 05:08:35.995347 31111 net.cpp:94] Creating Layer conv4
I0501 05:08:35.995350 31111 net.cpp:435] conv4 <- conv3
I0501 05:08:35.995355 31111 net.cpp:409] conv4 -> conv4
I0501 05:08:36.017725 31111 net.cpp:144] Setting up conv4
I0501 05:08:36.017745 31111 net.cpp:151] Top shape: 20 128 15 15 (576000)
I0501 05:08:36.017750 31111 net.cpp:159] Memory required for data: 26568080
I0501 05:08:36.017757 31111 layer_factory.hpp:77] Creating layer relu4
I0501 05:08:36.017763 31111 net.cpp:94] Creating Layer relu4
I0501 05:08:36.017767 31111 net.cpp:435] relu4 <- conv4
I0501 05:08:36.017772 31111 net.cpp:396] relu4 -> conv4 (in-place)
I0501 05:08:36.017781 31111 net.cpp:144] Setting up relu4
I0501 05:08:36.017784 31111 net.cpp:151] Top shape: 20 128 15 15 (576000)
I0501 05:08:36.017787 31111 net.cpp:159] Memory required for data: 28872080
I0501 05:08:36.017791 31111 layer_factory.hpp:77] Creating layer conv5
I0501 05:08:36.017798 31111 net.cpp:94] Creating Layer conv5
I0501 05:08:36.017802 31111 net.cpp:435] conv5 <- conv4
I0501 05:08:36.017807 31111 net.cpp:409] conv5 -> conv5
I0501 05:08:36.039924 31111 net.cpp:144] Setting up conv5
I0501 05:08:36.039944 31111 net.cpp:151] Top shape: 20 128 15 15 (576000)
I0501 05:08:36.039949 31111 net.cpp:159] Memory required for data: 31176080
I0501 05:08:36.039959 31111 layer_factory.hpp:77] Creating layer relu5
I0501 05:08:36.039966 31111 net.cpp:94] Creating Layer relu5
I0501 05:08:36.039970 31111 net.cpp:435] relu5 <- conv5
I0501 05:08:36.039975 31111 net.cpp:396] relu5 -> conv5 (in-place)
I0501 05:08:36.039983 31111 net.cpp:144] Setting up relu5
I0501 05:08:36.039988 31111 net.cpp:151] Top shape: 20 128 15 15 (576000)
I0501 05:08:36.039990 31111 net.cpp:159] Memory required for data: 33480080
I0501 05:08:36.039994 31111 layer_factory.hpp:77] Creating layer pool5
I0501 05:08:36.039999 31111 net.cpp:94] Creating Layer pool5
I0501 05:08:36.040002 31111 net.cpp:435] pool5 <- conv5
I0501 05:08:36.040007 31111 net.cpp:409] pool5 -> pool5
I0501 05:08:36.040048 31111 net.cpp:144] Setting up pool5
I0501 05:08:36.040056 31111 net.cpp:151] Top shape: 20 128 7 7 (125440)
I0501 05:08:36.040060 31111 net.cpp:159] Memory required for data: 33981840
I0501 05:08:36.040062 31111 layer_factory.hpp:77] Creating layer ip1
I0501 05:08:36.040072 31111 net.cpp:94] Creating Layer ip1
I0501 05:08:36.040076 31111 net.cpp:435] ip1 <- pool5
I0501 05:08:36.040081 31111 net.cpp:409] ip1 -> ip1
I0501 05:08:36.221506 31111 net.cpp:144] Setting up ip1
I0501 05:08:36.221542 31111 net.cpp:151] Top shape: 20 1024 (20480)
I0501 05:08:36.221546 31111 net.cpp:159] Memory required for data: 34063760
I0501 05:08:36.221554 31111 layer_factory.hpp:77] Creating layer ip2
I0501 05:08:36.221563 31111 net.cpp:94] Creating Layer ip2
I0501 05:08:36.221578 31111 net.cpp:435] ip2 <- ip1
I0501 05:08:36.221586 31111 net.cpp:409] ip2 -> ip2
I0501 05:08:36.236690 31111 net.cpp:144] Setting up ip2
I0501 05:08:36.236712 31111 net.cpp:151] Top shape: 20 512 (10240)
I0501 05:08:36.236716 31111 net.cpp:159] Memory required for data: 34104720
I0501 05:08:36.236723 31111 layer_factory.hpp:77] Creating layer ip3
I0501 05:08:36.236732 31111 net.cpp:94] Creating Layer ip3
I0501 05:08:36.236735 31111 net.cpp:435] ip3 <- ip2
I0501 05:08:36.236742 31111 net.cpp:409] ip3 -> ip3
I0501 05:08:36.236822 31111 net.cpp:144] Setting up ip3
I0501 05:08:36.236840 31111 net.cpp:151] Top shape: 20 1 (20)
I0501 05:08:36.236843 31111 net.cpp:159] Memory required for data: 34104800
I0501 05:08:36.236848 31111 layer_factory.hpp:77] Creating layer loss
I0501 05:08:36.236863 31111 net.cpp:94] Creating Layer loss
I0501 05:08:36.236867 31111 net.cpp:435] loss <- ip3
I0501 05:08:36.236871 31111 net.cpp:435] loss <- label
I0501 05:08:36.236887 31111 net.cpp:409] loss -> loss
I0501 05:08:36.236924 31111 net.cpp:144] Setting up loss
…
