…
I0502 03:35:20.719362 18160 net.cpp:323] The NetState phase (0) differed from the phase (1) specified by a rule in layer intercept
I0502 03:35:20.719377 18160 net.cpp:323] The NetState phase (0) differed from the phase (1) specified by a rule in layer loss
I0502 03:35:20.719470 18160 net.cpp:52] Initializing net from parameters: 
state {
  phase: TRAIN
}
layer {
  name: "parameters"
  type: "HDF5Data"
  top: "data"
  top: "label"
  include {
    phase: TRAIN
  }
  hdf5_data_param {
    source: "/home/purduethu/scratch/radon/d/deng106/CNNStatisticalModel/distributions/input/50_distributions_900_sample_size_train-parameters-path.txt"
    batch_size: 20
  }
}
layer {
  name: "conv1"
  type: "Convolution"
  bottom: "data"
  top: "conv1"
  param {
    lr_mult: 1
  }
  param {
    lr_mult: 2
  }
  convolution_param {
    num_output: 64
    pad: 2
    kernel_size: 5
    stride: 1
    weight_filler {
      type: "gaussian"
      std: 0.0001
    }
    bias_filler {
      type: "constant"
    }
  }
}
layer {
  name: "relu1"
  type: "ReLU"
  bottom: "conv1"
  top: "conv1"
}
layer {
  name: "conv2"
  type: "Convolution"
  bottom: "conv1"
  top: "conv2"
  param {
    lr_mult: 1
  }
  param {
    lr_mult: 2
  }
  convolution_param {
    num_output: 64
    pad: 2
    kernel_size: 5
    stride: 1
    weight_filler {
      type: "gaussian"
      std: 0.01
    }
    bias_filler {
      type: "constant"
    }
  }
}
layer {
  name: "relu2"
  type: "ReLU"
  bottom: "conv2"
  top: "conv2"
}
layer {
  name: "pool2"
  type: "Pooling"
  bottom: "conv2"
  top: "pool2"
  pooling_param {
    pool: MAX
    kernel_size: 3
    stride: 2
  }
}
layer {
  name: "conv3"
  type: "Convolution"
  bottom: "pool2"
  top: "conv3"
  param {
    lr_mult: 1
  }
  param {
    lr_mult: 2
  }
  convolution_param {
    num_output: 64
    pad: 2
    kernel_size: 5
    stride: 1
    weight_filler {
      type: "gaussian"
      std: 0.01
    }
    bias_filler {
      type: "constant"
    }
  }
}
layer {
  name: "relu3"
  type: "ReLU"
  bottom: "conv3"
  top: "conv3"
}
layer {
  name: "conv4"
  type: "Convolution"
  bottom: "conv3"
  top: "conv4"
  param {
    lr_mult: 1
  }
  param {
    lr_mult: 2
  }
  convolution_param {
    num_output: 64
    pad: 2
    kernel_size: 5
    stride: 1
    weight_filler {
      type: "gaussian"
      std: 0.01
    }
    bias_filler {
      type: "constant"
    }
  }
}
layer {
  name: "relu4"
  type: "ReLU"
  bottom: "conv4"
  top: "conv4"
}
layer {
  name: "conv5"
  type: "Convolution"
  bottom: "conv4"
  top: "conv5"
  param {
    lr_mult: 1
  }
  param {
    lr_mult: 2
  }
  convolution_param {
    num_output: 64
    pad: 2
    kernel_size: 5
    stride: 1
    weight_filler {
      type: "gaussian"
      std: 0.01
    }
    bias_filler {
      type: "constant"
    }
  }
}
layer {
  name: "relu5"
  type: "ReLU"
  bottom: "conv5"
  top: "conv5"
}
layer {
  name: "pool5"
  type: "Pooling"
  bottom: "conv5"
  top: "pool5"
  pooling_param {
    pool: AVE
    kernel_size: 3
    stride: 2
  }
}
layer {
  name: "ip1"
  type: "InnerProduct"
  bottom: "pool5"
  top: "ip1"
  param {
    lr_mult: 1
  }
  param {
    lr_mult: 2
  }
  inner_product_param {
    num_output: 64
    weight_filler {
      type: "gaussian"
      std: 0.1
    }
    bias_filler {
      type: "constant"
    }
  }
}
layer {
  name: "ip2"
  type: "InnerProduct"
  bottom: "ip1"
  top: "ip2"
  param {
    lr_mult: 1
  }
  param {
    lr_mult: 2
  }
  inner_product_param {
    num_output: 64
    weight_filler {
      type: "gaussian"
      std: 0.1
    }
    bias_filler {
      type: "constant"
    }
  }
}
layer {
  name: "ip3"
  type: "InnerProduct"
  bottom: "ip2"
  top: "ip3"
  param {
    lr_mult: 1
  }
  param {
    lr_mult: 2
  }
  inner_product_param {
    num_output: 1
    weight_filler {
      type: "gaussian"
      std: 0.1
    }
    bias_filler {
      type: "constant"
    }
  }
}
layer {
  name: "loss"
  type: "HuberLoss"
  bottom: "ip3"
  bottom: "label"
  top: "loss"
  include {
    phase: TRAIN
  }
}
I0502 03:35:20.719543 18160 layer_factory.hpp:77] Creating layer parameters
I0502 03:35:20.719558 18160 net.cpp:94] Creating Layer parameters
I0502 03:35:20.719563 18160 net.cpp:409] parameters -> data
I0502 03:35:20.719583 18160 net.cpp:409] parameters -> label
I0502 03:35:20.719593 18160 hdf5_data_layer.cpp:79] Loading list of HDF5 filenames from: /home/purduethu/scratch/radon/d/deng106/CNNStatisticalModel/distributions/input/50_distributions_900_sample_size_train-parameters-path.txt
I0502 03:35:20.719614 18160 hdf5_data_layer.cpp:93] Number of HDF5 files: 1
I0502 03:35:20.720171 18160 hdf5.cpp:32] Datatype class: H5T_FLOAT
I0502 03:35:22.168479 18160 net.cpp:144] Setting up parameters
I0502 03:35:22.168515 18160 net.cpp:151] Top shape: 20 1 30 30 (18000)
I0502 03:35:22.168521 18160 net.cpp:151] Top shape: 20 (20)
I0502 03:35:22.168525 18160 net.cpp:159] Memory required for data: 72080
I0502 03:35:22.168532 18160 layer_factory.hpp:77] Creating layer conv1
I0502 03:35:22.168565 18160 net.cpp:94] Creating Layer conv1
I0502 03:35:22.168575 18160 net.cpp:435] conv1 <- data
I0502 03:35:22.168587 18160 net.cpp:409] conv1 -> conv1
I0502 03:35:22.175586 18160 net.cpp:144] Setting up conv1
I0502 03:35:22.175631 18160 net.cpp:151] Top shape: 20 64 30 30 (1152000)
I0502 03:35:22.175644 18160 net.cpp:159] Memory required for data: 4680080
I0502 03:35:22.175673 18160 layer_factory.hpp:77] Creating layer relu1
I0502 03:35:22.175693 18160 net.cpp:94] Creating Layer relu1
I0502 03:35:22.175704 18160 net.cpp:435] relu1 <- conv1
I0502 03:35:22.175717 18160 net.cpp:396] relu1 -> conv1 (in-place)
I0502 03:35:22.175745 18160 net.cpp:144] Setting up relu1
I0502 03:35:22.175760 18160 net.cpp:151] Top shape: 20 64 30 30 (1152000)
I0502 03:35:22.175768 18160 net.cpp:159] Memory required for data: 9288080
I0502 03:35:22.175777 18160 layer_factory.hpp:77] Creating layer conv2
I0502 03:35:22.175798 18160 net.cpp:94] Creating Layer conv2
I0502 03:35:22.175807 18160 net.cpp:435] conv2 <- conv1
I0502 03:35:22.175822 18160 net.cpp:409] conv2 -> conv2
I0502 03:35:22.198626 18160 net.cpp:144] Setting up conv2
I0502 03:35:22.198665 18160 net.cpp:151] Top shape: 20 64 30 30 (1152000)
I0502 03:35:22.198678 18160 net.cpp:159] Memory required for data: 13896080
I0502 03:35:22.198700 18160 layer_factory.hpp:77] Creating layer relu2
I0502 03:35:22.198719 18160 net.cpp:94] Creating Layer relu2
I0502 03:35:22.198729 18160 net.cpp:435] relu2 <- conv2
I0502 03:35:22.198742 18160 net.cpp:396] relu2 -> conv2 (in-place)
I0502 03:35:22.198762 18160 net.cpp:144] Setting up relu2
I0502 03:35:22.198786 18160 net.cpp:151] Top shape: 20 64 30 30 (1152000)
I0502 03:35:22.198794 18160 net.cpp:159] Memory required for data: 18504080
I0502 03:35:22.198802 18160 layer_factory.hpp:77] Creating layer pool2
I0502 03:35:22.198817 18160 net.cpp:94] Creating Layer pool2
I0502 03:35:22.198837 18160 net.cpp:435] pool2 <- conv2
I0502 03:35:22.198849 18160 net.cpp:409] pool2 -> pool2
I0502 03:35:22.198964 18160 net.cpp:144] Setting up pool2
I0502 03:35:22.198982 18160 net.cpp:151] Top shape: 20 64 15 15 (288000)
I0502 03:35:22.198990 18160 net.cpp:159] Memory required for data: 19656080
I0502 03:35:22.198998 18160 layer_factory.hpp:77] Creating layer conv3
I0502 03:35:22.199018 18160 net.cpp:94] Creating Layer conv3
I0502 03:35:22.199026 18160 net.cpp:435] conv3 <- pool2
I0502 03:35:22.199038 18160 net.cpp:409] conv3 -> conv3
I0502 03:35:22.214249 18160 net.cpp:144] Setting up conv3
I0502 03:35:22.214288 18160 net.cpp:151] Top shape: 20 64 15 15 (288000)
I0502 03:35:22.214300 18160 net.cpp:159] Memory required for data: 20808080
I0502 03:35:22.214331 18160 layer_factory.hpp:77] Creating layer relu3
I0502 03:35:22.214345 18160 net.cpp:94] Creating Layer relu3
I0502 03:35:22.214355 18160 net.cpp:435] relu3 <- conv3
I0502 03:35:22.214367 18160 net.cpp:396] relu3 -> conv3 (in-place)
I0502 03:35:22.214385 18160 net.cpp:144] Setting up relu3
I0502 03:35:22.214395 18160 net.cpp:151] Top shape: 20 64 15 15 (288000)
I0502 03:35:22.214403 18160 net.cpp:159] Memory required for data: 21960080
I0502 03:35:22.214411 18160 layer_factory.hpp:77] Creating layer conv4
I0502 03:35:22.214431 18160 net.cpp:94] Creating Layer conv4
I0502 03:35:22.214439 18160 net.cpp:435] conv4 <- conv3
I0502 03:35:22.214452 18160 net.cpp:409] conv4 -> conv4
I0502 03:35:22.227039 18160 net.cpp:144] Setting up conv4
I0502 03:35:22.227078 18160 net.cpp:151] Top shape: 20 64 15 15 (288000)
I0502 03:35:22.227092 18160 net.cpp:159] Memory required for data: 23112080
I0502 03:35:22.227109 18160 layer_factory.hpp:77] Creating layer relu4
I0502 03:35:22.227134 18160 net.cpp:94] Creating Layer relu4
I0502 03:35:22.227144 18160 net.cpp:435] relu4 <- conv4
I0502 03:35:22.227155 18160 net.cpp:396] relu4 -> conv4 (in-place)
I0502 03:35:22.227172 18160 net.cpp:144] Setting up relu4
I0502 03:35:22.227183 18160 net.cpp:151] Top shape: 20 64 15 15 (288000)
I0502 03:35:22.227191 18160 net.cpp:159] Memory required for data: 24264080
I0502 03:35:22.227200 18160 layer_factory.hpp:77] Creating layer conv5
I0502 03:35:22.227216 18160 net.cpp:94] Creating Layer conv5
I0502 03:35:22.227226 18160 net.cpp:435] conv5 <- conv4
I0502 03:35:22.227237 18160 net.cpp:409] conv5 -> conv5
I0502 03:35:22.239720 18160 net.cpp:144] Setting up conv5
I0502 03:35:22.239759 18160 net.cpp:151] Top shape: 20 64 15 15 (288000)
I0502 03:35:22.239771 18160 net.cpp:159] Memory required for data: 25416080
I0502 03:35:22.239795 18160 layer_factory.hpp:77] Creating layer relu5
I0502 03:35:22.239812 18160 net.cpp:94] Creating Layer relu5
I0502 03:35:22.239822 18160 net.cpp:435] relu5 <- conv5
I0502 03:35:22.239836 18160 net.cpp:396] relu5 -> conv5 (in-place)
I0502 03:35:22.239856 18160 net.cpp:144] Setting up relu5
I0502 03:35:22.239879 18160 net.cpp:151] Top shape: 20 64 15 15 (288000)
I0502 03:35:22.239887 18160 net.cpp:159] Memory required for data: 26568080
I0502 03:35:22.239894 18160 layer_factory.hpp:77] Creating layer pool5
I0502 03:35:22.239904 18160 net.cpp:94] Creating Layer pool5
I0502 03:35:22.239912 18160 net.cpp:435] pool5 <- conv5
I0502 03:35:22.239922 18160 net.cpp:409] pool5 -> pool5
I0502 03:35:22.239992 18160 net.cpp:144] Setting up pool5
I0502 03:35:22.240007 18160 net.cpp:151] Top shape: 20 64 7 7 (62720)
I0502 03:35:22.240015 18160 net.cpp:159] Memory required for data: 26818960
I0502 03:35:22.240022 18160 layer_factory.hpp:77] Creating layer ip1
I0502 03:35:22.240041 18160 net.cpp:94] Creating Layer ip1
I0502 03:35:22.240049 18160 net.cpp:435] ip1 <- pool5
I0502 03:35:22.240059 18160 net.cpp:409] ip1 -> ip1
I0502 03:35:22.252810 18160 net.cpp:144] Setting up ip1
I0502 03:35:22.252845 18160 net.cpp:151] Top shape: 20 64 (1280)
I0502 03:35:22.252854 18160 net.cpp:159] Memory required for data: 26824080
I0502 03:35:22.252867 18160 layer_factory.hpp:77] Creating layer ip2
I0502 03:35:22.252882 18160 net.cpp:94] Creating Layer ip2
I0502 03:35:22.252898 18160 net.cpp:435] ip2 <- ip1
I0502 03:35:22.252912 18160 net.cpp:409] ip2 -> ip2
I0502 03:35:22.253309 18160 net.cpp:144] Setting up ip2
I0502 03:35:22.253322 18160 net.cpp:151] Top shape: 20 64 (1280)
I0502 03:35:22.253330 18160 net.cpp:159] Memory required for data: 26829200
I0502 03:35:22.253342 18160 layer_factory.hpp:77] Creating layer ip3
I0502 03:35:22.253355 18160 net.cpp:94] Creating Layer ip3
I0502 03:35:22.253362 18160 net.cpp:435] ip3 <- ip2
I0502 03:35:22.253373 18160 net.cpp:409] ip3 -> ip3
I0502 03:35:22.253520 18160 net.cpp:144] Setting up ip3
I0502 03:35:22.253545 18160 net.cpp:151] Top shape: 20 1 (20)
I0502 03:35:22.253552 18160 net.cpp:159] Memory required for data: 26829280
I0502 03:35:22.253563 18160 layer_factory.hpp:77] Creating layer loss
I0502 03:35:22.253585 18160 net.cpp:94] Creating Layer loss
I0502 03:35:22.253594 18160 net.cpp:435] loss <- ip3
I0502 03:35:22.253603 18160 net.cpp:435] loss <- label
I0502 03:35:22.253614 18160 net.cpp:409] loss -> loss
I0502 03:35:22.253690 18160 net.cpp:144] Setting up loss
…
