…
I0504 00:18:42.586546 23146 net.cpp:323] The NetState phase (0) differed from the phase (1) specified by a rule in layer intercept
I0504 00:18:42.586562 23146 net.cpp:323] The NetState phase (0) differed from the phase (1) specified by a rule in layer loss
I0504 00:18:42.586638 23146 net.cpp:52] Initializing net from parameters: 
state {
  phase: TRAIN
}
layer {
  name: "parameters"
  type: "HDF5Data"
  top: "data"
  top: "label"
  include {
    phase: TRAIN
  }
  hdf5_data_param {
    source: "/home/purduethu/scratch/radon/d/deng106/CNNStatisticalModel/distributions/input/20_distributions_100_sample_size_train-parameters-path.txt"
    batch_size: 20
  }
}
layer {
  name: "conv1"
  type: "Convolution"
  bottom: "data"
  top: "conv1"
  param {
    lr_mult: 1
  }
  param {
    lr_mult: 2
  }
  convolution_param {
    num_output: 64
    pad: 2
    kernel_size: 5
    stride: 1
    weight_filler {
      type: "gaussian"
      std: 0.0001
    }
    bias_filler {
      type: "constant"
    }
  }
}
layer {
  name: "relu1"
  type: "ReLU"
  bottom: "conv1"
  top: "conv1"
}
layer {
  name: "conv2"
  type: "Convolution"
  bottom: "conv1"
  top: "conv2"
  param {
    lr_mult: 1
  }
  param {
    lr_mult: 2
  }
  convolution_param {
    num_output: 64
    pad: 2
    kernel_size: 5
    stride: 1
    weight_filler {
      type: "gaussian"
      std: 0.01
    }
    bias_filler {
      type: "constant"
    }
  }
}
layer {
  name: "relu2"
  type: "ReLU"
  bottom: "conv2"
  top: "conv2"
}
layer {
  name: "pool2"
  type: "Pooling"
  bottom: "conv2"
  top: "pool2"
  pooling_param {
    pool: MAX
    kernel_size: 3
    stride: 2
  }
}
layer {
  name: "conv3"
  type: "Convolution"
  bottom: "pool2"
  top: "conv3"
  param {
    lr_mult: 1
  }
  param {
    lr_mult: 2
  }
  convolution_param {
    num_output: 128
    pad: 2
    kernel_size: 5
    stride: 1
    weight_filler {
      type: "gaussian"
      std: 0.01
    }
    bias_filler {
      type: "constant"
    }
  }
}
layer {
  name: "relu3"
  type: "ReLU"
  bottom: "conv3"
  top: "conv3"
}
layer {
  name: "conv4"
  type: "Convolution"
  bottom: "conv3"
  top: "conv4"
  param {
    lr_mult: 1
  }
  param {
    lr_mult: 2
  }
  convolution_param {
    num_output: 128
    pad: 2
    kernel_size: 5
    stride: 1
    weight_filler {
      type: "gaussian"
      std: 0.01
    }
    bias_filler {
      type: "constant"
    }
  }
}
layer {
  name: "relu4"
  type: "ReLU"
  bottom: "conv4"
  top: "conv4"
}
layer {
  name: "conv5"
  type: "Convolution"
  bottom: "conv4"
  top: "conv5"
  param {
    lr_mult: 1
  }
  param {
    lr_mult: 2
  }
  convolution_param {
    num_output: 128
    pad: 2
    kernel_size: 5
    stride: 1
    weight_filler {
      type: "gaussian"
      std: 0.01
    }
    bias_filler {
      type: "constant"
    }
  }
}
layer {
  name: "relu5"
  type: "ReLU"
  bottom: "conv5"
  top: "conv5"
}
layer {
  name: "pool5"
  type: "Pooling"
  bottom: "conv5"
  top: "pool5"
  pooling_param {
    pool: AVE
    kernel_size: 3
    stride: 2
  }
}
layer {
  name: "ip1"
  type: "InnerProduct"
  bottom: "pool5"
  top: "ip1"
  param {
    lr_mult: 1
  }
  param {
    lr_mult: 2
  }
  inner_product_param {
    num_output: 1024
    weight_filler {
      type: "gaussian"
      std: 0.1
    }
    bias_filler {
      type: "constant"
    }
  }
}
layer {
  name: "ip2"
  type: "InnerProduct"
  bottom: "ip1"
  top: "ip2"
  param {
    lr_mult: 1
  }
  param {
    lr_mult: 2
  }
  inner_product_param {
    num_output: 512
    weight_filler {
      type: "gaussian"
      std: 0.1
    }
    bias_filler {
      type: "constant"
    }
  }
}
layer {
  name: "ip3"
  type: "InnerProduct"
  bottom: "ip2"
  top: "ip3"
  param {
    lr_mult: 1
  }
  param {
    lr_mult: 2
  }
  inner_product_param {
    num_output: 1
    weight_filler {
      type: "gaussian"
      std: 0.1
    }
    bias_filler {
      type: "constant"
    }
  }
}
layer {
  name: "loss"
  type: "HuberLoss"
  bottom: "ip3"
  bottom: "label"
  top: "loss"
  include {
    phase: TRAIN
  }
}
I0504 00:18:42.586689 23146 layer_factory.hpp:77] Creating layer parameters
I0504 00:18:42.586705 23146 net.cpp:94] Creating Layer parameters
I0504 00:18:42.586709 23146 net.cpp:409] parameters -> data
I0504 00:18:42.586719 23146 net.cpp:409] parameters -> label
I0504 00:18:42.586725 23146 hdf5_data_layer.cpp:79] Loading list of HDF5 filenames from: /home/purduethu/scratch/radon/d/deng106/CNNStatisticalModel/distributions/input/20_distributions_100_sample_size_train-parameters-path.txt
I0504 00:18:42.586740 23146 hdf5_data_layer.cpp:93] Number of HDF5 files: 1
I0504 00:18:42.587245 23146 hdf5.cpp:32] Datatype class: H5T_FLOAT
I0504 00:18:42.655436 23146 net.cpp:144] Setting up parameters
I0504 00:18:42.655468 23146 net.cpp:151] Top shape: 20 1 10 10 (2000)
I0504 00:18:42.655473 23146 net.cpp:151] Top shape: 20 (20)
I0504 00:18:42.655478 23146 net.cpp:159] Memory required for data: 8080
I0504 00:18:42.655483 23146 layer_factory.hpp:77] Creating layer conv1
I0504 00:18:42.655499 23146 net.cpp:94] Creating Layer conv1
I0504 00:18:42.655503 23146 net.cpp:435] conv1 <- data
I0504 00:18:42.655510 23146 net.cpp:409] conv1 -> conv1
I0504 00:18:42.659703 23146 net.cpp:144] Setting up conv1
I0504 00:18:42.659719 23146 net.cpp:151] Top shape: 20 64 10 10 (128000)
I0504 00:18:42.659723 23146 net.cpp:159] Memory required for data: 520080
I0504 00:18:42.659734 23146 layer_factory.hpp:77] Creating layer relu1
I0504 00:18:42.659741 23146 net.cpp:94] Creating Layer relu1
I0504 00:18:42.659745 23146 net.cpp:435] relu1 <- conv1
I0504 00:18:42.659749 23146 net.cpp:396] relu1 -> conv1 (in-place)
I0504 00:18:42.659757 23146 net.cpp:144] Setting up relu1
I0504 00:18:42.659761 23146 net.cpp:151] Top shape: 20 64 10 10 (128000)
I0504 00:18:42.659765 23146 net.cpp:159] Memory required for data: 1032080
I0504 00:18:42.659767 23146 layer_factory.hpp:77] Creating layer conv2
I0504 00:18:42.659775 23146 net.cpp:94] Creating Layer conv2
I0504 00:18:42.659780 23146 net.cpp:435] conv2 <- conv1
I0504 00:18:42.659785 23146 net.cpp:409] conv2 -> conv2
I0504 00:18:42.665110 23146 net.cpp:144] Setting up conv2
I0504 00:18:42.665125 23146 net.cpp:151] Top shape: 20 64 10 10 (128000)
I0504 00:18:42.665129 23146 net.cpp:159] Memory required for data: 1544080
I0504 00:18:42.665138 23146 layer_factory.hpp:77] Creating layer relu2
I0504 00:18:42.665143 23146 net.cpp:94] Creating Layer relu2
I0504 00:18:42.665148 23146 net.cpp:435] relu2 <- conv2
I0504 00:18:42.665151 23146 net.cpp:396] relu2 -> conv2 (in-place)
I0504 00:18:42.665158 23146 net.cpp:144] Setting up relu2
I0504 00:18:42.665163 23146 net.cpp:151] Top shape: 20 64 10 10 (128000)
I0504 00:18:42.665166 23146 net.cpp:159] Memory required for data: 2056080
I0504 00:18:42.665169 23146 layer_factory.hpp:77] Creating layer pool2
I0504 00:18:42.665175 23146 net.cpp:94] Creating Layer pool2
I0504 00:18:42.665184 23146 net.cpp:435] pool2 <- conv2
I0504 00:18:42.665189 23146 net.cpp:409] pool2 -> pool2
I0504 00:18:42.665242 23146 net.cpp:144] Setting up pool2
I0504 00:18:42.665251 23146 net.cpp:151] Top shape: 20 64 5 5 (32000)
I0504 00:18:42.665253 23146 net.cpp:159] Memory required for data: 2184080
I0504 00:18:42.665256 23146 layer_factory.hpp:77] Creating layer conv3
I0504 00:18:42.665264 23146 net.cpp:94] Creating Layer conv3
I0504 00:18:42.665267 23146 net.cpp:435] conv3 <- pool2
I0504 00:18:42.665272 23146 net.cpp:409] conv3 -> conv3
I0504 00:18:42.673583 23146 net.cpp:144] Setting up conv3
I0504 00:18:42.673598 23146 net.cpp:151] Top shape: 20 128 5 5 (64000)
I0504 00:18:42.673601 23146 net.cpp:159] Memory required for data: 2440080
I0504 00:18:42.673609 23146 layer_factory.hpp:77] Creating layer relu3
I0504 00:18:42.673614 23146 net.cpp:94] Creating Layer relu3
I0504 00:18:42.673619 23146 net.cpp:435] relu3 <- conv3
I0504 00:18:42.673624 23146 net.cpp:396] relu3 -> conv3 (in-place)
I0504 00:18:42.673629 23146 net.cpp:144] Setting up relu3
I0504 00:18:42.673635 23146 net.cpp:151] Top shape: 20 128 5 5 (64000)
I0504 00:18:42.673637 23146 net.cpp:159] Memory required for data: 2696080
I0504 00:18:42.673640 23146 layer_factory.hpp:77] Creating layer conv4
I0504 00:18:42.673648 23146 net.cpp:94] Creating Layer conv4
I0504 00:18:42.673651 23146 net.cpp:435] conv4 <- conv3
I0504 00:18:42.673656 23146 net.cpp:409] conv4 -> conv4
I0504 00:18:42.688626 23146 net.cpp:144] Setting up conv4
I0504 00:18:42.688642 23146 net.cpp:151] Top shape: 20 128 5 5 (64000)
I0504 00:18:42.688647 23146 net.cpp:159] Memory required for data: 2952080
I0504 00:18:42.688653 23146 layer_factory.hpp:77] Creating layer relu4
I0504 00:18:42.688660 23146 net.cpp:94] Creating Layer relu4
I0504 00:18:42.688664 23146 net.cpp:435] relu4 <- conv4
I0504 00:18:42.688668 23146 net.cpp:396] relu4 -> conv4 (in-place)
I0504 00:18:42.688676 23146 net.cpp:144] Setting up relu4
I0504 00:18:42.688680 23146 net.cpp:151] Top shape: 20 128 5 5 (64000)
I0504 00:18:42.688683 23146 net.cpp:159] Memory required for data: 3208080
I0504 00:18:42.688686 23146 layer_factory.hpp:77] Creating layer conv5
I0504 00:18:42.688694 23146 net.cpp:94] Creating Layer conv5
I0504 00:18:42.688697 23146 net.cpp:435] conv5 <- conv4
I0504 00:18:42.688702 23146 net.cpp:409] conv5 -> conv5
I0504 00:18:42.703344 23146 net.cpp:144] Setting up conv5
I0504 00:18:42.703364 23146 net.cpp:151] Top shape: 20 128 5 5 (64000)
I0504 00:18:42.703368 23146 net.cpp:159] Memory required for data: 3464080
I0504 00:18:42.703378 23146 layer_factory.hpp:77] Creating layer relu5
I0504 00:18:42.703384 23146 net.cpp:94] Creating Layer relu5
I0504 00:18:42.703388 23146 net.cpp:435] relu5 <- conv5
I0504 00:18:42.703392 23146 net.cpp:396] relu5 -> conv5 (in-place)
I0504 00:18:42.703400 23146 net.cpp:144] Setting up relu5
I0504 00:18:42.703404 23146 net.cpp:151] Top shape: 20 128 5 5 (64000)
I0504 00:18:42.703408 23146 net.cpp:159] Memory required for data: 3720080
I0504 00:18:42.703410 23146 layer_factory.hpp:77] Creating layer pool5
I0504 00:18:42.703415 23146 net.cpp:94] Creating Layer pool5
I0504 00:18:42.703418 23146 net.cpp:435] pool5 <- conv5
I0504 00:18:42.703423 23146 net.cpp:409] pool5 -> pool5
I0504 00:18:42.703461 23146 net.cpp:144] Setting up pool5
I0504 00:18:42.703469 23146 net.cpp:151] Top shape: 20 128 2 2 (10240)
I0504 00:18:42.703472 23146 net.cpp:159] Memory required for data: 3761040
I0504 00:18:42.703475 23146 layer_factory.hpp:77] Creating layer ip1
I0504 00:18:42.703485 23146 net.cpp:94] Creating Layer ip1
I0504 00:18:42.703487 23146 net.cpp:435] ip1 <- pool5
I0504 00:18:42.703492 23146 net.cpp:409] ip1 -> ip1
I0504 00:18:42.717595 23146 net.cpp:144] Setting up ip1
I0504 00:18:42.717615 23146 net.cpp:151] Top shape: 20 1024 (20480)
I0504 00:18:42.717619 23146 net.cpp:159] Memory required for data: 3842960
I0504 00:18:42.717628 23146 layer_factory.hpp:77] Creating layer ip2
I0504 00:18:42.717634 23146 net.cpp:94] Creating Layer ip2
I0504 00:18:42.717645 23146 net.cpp:435] ip2 <- ip1
I0504 00:18:42.717651 23146 net.cpp:409] ip2 -> ip2
I0504 00:18:42.731029 23146 net.cpp:144] Setting up ip2
I0504 00:18:42.731046 23146 net.cpp:151] Top shape: 20 512 (10240)
I0504 00:18:42.731050 23146 net.cpp:159] Memory required for data: 3883920
I0504 00:18:42.731056 23146 layer_factory.hpp:77] Creating layer ip3
I0504 00:18:42.731063 23146 net.cpp:94] Creating Layer ip3
I0504 00:18:42.731067 23146 net.cpp:435] ip3 <- ip2
I0504 00:18:42.731073 23146 net.cpp:409] ip3 -> ip3
I0504 00:18:42.731184 23146 net.cpp:144] Setting up ip3
I0504 00:18:42.731190 23146 net.cpp:151] Top shape: 20 1 (20)
I0504 00:18:42.731194 23146 net.cpp:159] Memory required for data: 3884000
I0504 00:18:42.731199 23146 layer_factory.hpp:77] Creating layer loss
I0504 00:18:42.731211 23146 net.cpp:94] Creating Layer loss
I0504 00:18:42.731215 23146 net.cpp:435] loss <- ip3
I0504 00:18:42.731218 23146 net.cpp:435] loss <- label
I0504 00:18:42.731222 23146 net.cpp:409] loss -> loss
I0504 00:18:42.731271 23146 net.cpp:144] Setting up loss
…
I0504 00:18:42.817297 23146 net.cpp:323] The NetState phase (0) differed from the phase (1) specified by a rule in layer intercept
I0504 00:18:42.817312 23146 net.cpp:323] The NetState phase (0) differed from the phase (1) specified by a rule in layer accuracy
I0504 00:18:42.817392 23146 net.cpp:52] Initializing net from parameters: 
state {
  phase: TRAIN
}
layer {
  name: "parameters"
  type: "HDF5Data"
  top: "data"
  top: "label"
  include {
    phase: TRAIN
  }
  hdf5_data_param {
    source: "/home/purduethu/scratch/radon/d/deng106/CNNStatisticalModel/distributions/input/20_distributions_100_sample_size_train-distributions-path.txt"
    batch_size: 20
  }
}
layer {
  name: "conv1"
  type: "Convolution"
  bottom: "data"
  top: "conv1"
  param {
    lr_mult: 1
  }
  param {
    lr_mult: 2
  }
  convolution_param {
    num_output: 64
    pad: 2
    kernel_size: 5
    stride: 1
    weight_filler {
      type: "gaussian"
      std: 0.0001
    }
    bias_filler {
      type: "constant"
    }
  }
}
layer {
  name: "relu1"
  type: "ReLU"
  bottom: "conv1"
  top: "conv1"
}
layer {
  name: "conv2"
  type: "Convolution"
  bottom: "conv1"
  top: "conv2"
  param {
    lr_mult: 1
  }
  param {
    lr_mult: 2
  }
  convolution_param {
    num_output: 64
    pad: 2
    kernel_size: 5
    stride: 1
    weight_filler {
      type: "gaussian"
      std: 0.01
    }
    bias_filler {
      type: "constant"
    }
  }
}
layer {
  name: "relu2"
  type: "ReLU"
  bottom: "conv2"
  top: "conv2"
}
layer {
  name: "pool2"
  type: "Pooling"
  bottom: "conv2"
  top: "pool2"
  pooling_param {
    pool: MAX
    kernel_size: 3
    stride: 2
  }
}
layer {
  name: "conv3"
  type: "Convolution"
  bottom: "pool2"
  top: "conv3"
  param {
    lr_mult: 1
  }
  param {
    lr_mult: 2
  }
  convolution_param {
    num_output: 128
    pad: 2
    kernel_size: 5
    stride: 1
    weight_filler {
      type: "gaussian"
      std: 0.01
    }
    bias_filler {
      type: "constant"
    }
  }
}
layer {
  name: "relu3"
  type: "ReLU"
  bottom: "conv3"
  top: "conv3"
}
layer {
  name: "conv4"
  type: "Convolution"
  bottom: "conv3"
  top: "conv4"
  param {
    lr_mult: 1
  }
  param {
    lr_mult: 2
  }
  convolution_param {
    num_output: 128
    pad: 2
    kernel_size: 5
    stride: 1
    weight_filler {
      type: "gaussian"
      std: 0.01
    }
    bias_filler {
      type: "constant"
    }
  }
}
layer {
  name: "relu4"
  type: "ReLU"
  bottom: "conv4"
  top: "conv4"
}
layer {
  name: "conv5"
  type: "Convolution"
  bottom: "conv4"
  top: "conv5"
  param {
    lr_mult: 1
  }
  param {
    lr_mult: 2
  }
  convolution_param {
    num_output: 128
    pad: 2
    kernel_size: 5
    stride: 1
    weight_filler {
      type: "gaussian"
      std: 0.01
    }
    bias_filler {
      type: "constant"
    }
  }
}
layer {
  name: "relu5"
  type: "ReLU"
  bottom: "conv5"
  top: "conv5"
}
layer {
  name: "pool5"
  type: "Pooling"
  bottom: "conv5"
  top: "pool5"
  pooling_param {
    pool: AVE
    kernel_size: 3
    stride: 2
  }
}
layer {
  name: "ip1"
  type: "InnerProduct"
  bottom: "pool5"
  top: "ip1"
  param {
    lr_mult: 1
  }
  param {
    lr_mult: 2
  }
  inner_product_param {
    num_output: 1024
    weight_filler {
      type: "gaussian"
      std: 0.1
    }
    bias_filler {
      type: "constant"
    }
  }
}
layer {
  name: "ip2"
  type: "InnerProduct"
  bottom: "ip1"
  top: "ip2"
  param {
    lr_mult: 1
  }
  param {
    lr_mult: 2
  }
  inner_product_param {
    num_output: 512
    weight_filler {
      type: "gaussian"
      std: 0.1
    }
    bias_filler {
      type: "constant"
    }
  }
}
layer {
  name: "ip3"
  type: "InnerProduct"
  bottom: "ip2"
  top: "ip3"
  param {
    lr_mult: 1
  }
  param {
    lr_mult: 2
  }
  inner_product_param {
    num_output: 50
    weight_filler {
      type: "gaussian"
      std: 0.1
    }
    bias_filler {
      type: "constant"
    }
  }
}
layer {
  name: "loss"
  type: "SoftmaxWithLoss"
  bottom: "ip3"
  bottom: "label"
  top: "loss"
}
I0504 00:18:42.817442 23146 layer_factory.hpp:77] Creating layer parameters
I0504 00:18:42.817451 23146 net.cpp:94] Creating Layer parameters
I0504 00:18:42.817453 23146 net.cpp:409] parameters -> data
I0504 00:18:42.817461 23146 net.cpp:409] parameters -> label
I0504 00:18:42.817466 23146 hdf5_data_layer.cpp:79] Loading list of HDF5 filenames from: /home/purduethu/scratch/radon/d/deng106/CNNStatisticalModel/distributions/input/20_distributions_100_sample_size_train-distributions-path.txt
I0504 00:18:42.817481 23146 hdf5_data_layer.cpp:93] Number of HDF5 files: 1
I0504 00:18:42.881768 23146 hdf5.cpp:35] Datatype class: H5T_INTEGER
I0504 00:18:42.882784 23146 net.cpp:144] Setting up parameters
I0504 00:18:42.882798 23146 net.cpp:151] Top shape: 20 1 10 10 (2000)
I0504 00:18:42.882803 23146 net.cpp:151] Top shape: 20 (20)
I0504 00:18:42.882807 23146 net.cpp:159] Memory required for data: 8080
I0504 00:18:42.882812 23146 layer_factory.hpp:77] Creating layer conv1
I0504 00:18:42.882828 23146 net.cpp:94] Creating Layer conv1
I0504 00:18:42.882833 23146 net.cpp:435] conv1 <- data
I0504 00:18:42.882838 23146 net.cpp:409] conv1 -> conv1
I0504 00:18:42.884625 23146 net.cpp:144] Setting up conv1
I0504 00:18:42.884641 23146 net.cpp:151] Top shape: 20 64 10 10 (128000)
I0504 00:18:42.884644 23146 net.cpp:159] Memory required for data: 520080
I0504 00:18:42.884654 23146 layer_factory.hpp:77] Creating layer relu1
I0504 00:18:42.884662 23146 net.cpp:94] Creating Layer relu1
I0504 00:18:42.884666 23146 net.cpp:435] relu1 <- conv1
I0504 00:18:42.884670 23146 net.cpp:396] relu1 -> conv1 (in-place)
I0504 00:18:42.884678 23146 net.cpp:144] Setting up relu1
I0504 00:18:42.884682 23146 net.cpp:151] Top shape: 20 64 10 10 (128000)
I0504 00:18:42.884685 23146 net.cpp:159] Memory required for data: 1032080
I0504 00:18:42.884688 23146 layer_factory.hpp:77] Creating layer conv2
I0504 00:18:42.884696 23146 net.cpp:94] Creating Layer conv2
I0504 00:18:42.884699 23146 net.cpp:435] conv2 <- conv1
I0504 00:18:42.884704 23146 net.cpp:409] conv2 -> conv2
I0504 00:18:42.890208 23146 net.cpp:144] Setting up conv2
I0504 00:18:42.890221 23146 net.cpp:151] Top shape: 20 64 10 10 (128000)
I0504 00:18:42.890224 23146 net.cpp:159] Memory required for data: 1544080
I0504 00:18:42.890233 23146 layer_factory.hpp:77] Creating layer relu2
I0504 00:18:42.890239 23146 net.cpp:94] Creating Layer relu2
I0504 00:18:42.890242 23146 net.cpp:435] relu2 <- conv2
I0504 00:18:42.890246 23146 net.cpp:396] relu2 -> conv2 (in-place)
I0504 00:18:42.890254 23146 net.cpp:144] Setting up relu2
I0504 00:18:42.890257 23146 net.cpp:151] Top shape: 20 64 10 10 (128000)
I0504 00:18:42.890260 23146 net.cpp:159] Memory required for data: 2056080
I0504 00:18:42.890264 23146 layer_factory.hpp:77] Creating layer pool2
I0504 00:18:42.890269 23146 net.cpp:94] Creating Layer pool2
I0504 00:18:42.890272 23146 net.cpp:435] pool2 <- conv2
I0504 00:18:42.890276 23146 net.cpp:409] pool2 -> pool2
I0504 00:18:42.890327 23146 net.cpp:144] Setting up pool2
I0504 00:18:42.890334 23146 net.cpp:151] Top shape: 20 64 5 5 (32000)
I0504 00:18:42.890337 23146 net.cpp:159] Memory required for data: 2184080
I0504 00:18:42.890341 23146 layer_factory.hpp:77] Creating layer conv3
I0504 00:18:42.890347 23146 net.cpp:94] Creating Layer conv3
I0504 00:18:42.890352 23146 net.cpp:435] conv3 <- pool2
I0504 00:18:42.890355 23146 net.cpp:409] conv3 -> conv3
I0504 00:18:42.899183 23146 net.cpp:144] Setting up conv3
I0504 00:18:42.899200 23146 net.cpp:151] Top shape: 20 128 5 5 (64000)
I0504 00:18:42.899204 23146 net.cpp:159] Memory required for data: 2440080
I0504 00:18:42.899214 23146 layer_factory.hpp:77] Creating layer relu3
I0504 00:18:42.899219 23146 net.cpp:94] Creating Layer relu3
I0504 00:18:42.899222 23146 net.cpp:435] relu3 <- conv3
I0504 00:18:42.899226 23146 net.cpp:396] relu3 -> conv3 (in-place)
I0504 00:18:42.899233 23146 net.cpp:144] Setting up relu3
I0504 00:18:42.899238 23146 net.cpp:151] Top shape: 20 128 5 5 (64000)
I0504 00:18:42.899241 23146 net.cpp:159] Memory required for data: 2696080
I0504 00:18:42.899245 23146 layer_factory.hpp:77] Creating layer conv4
I0504 00:18:42.899252 23146 net.cpp:94] Creating Layer conv4
I0504 00:18:42.899255 23146 net.cpp:435] conv4 <- conv3
I0504 00:18:42.899260 23146 net.cpp:409] conv4 -> conv4
I0504 00:18:42.913988 23146 net.cpp:144] Setting up conv4
I0504 00:18:42.914008 23146 net.cpp:151] Top shape: 20 128 5 5 (64000)
I0504 00:18:42.914012 23146 net.cpp:159] Memory required for data: 2952080
I0504 00:18:42.914019 23146 layer_factory.hpp:77] Creating layer relu4
I0504 00:18:42.914026 23146 net.cpp:94] Creating Layer relu4
I0504 00:18:42.914031 23146 net.cpp:435] relu4 <- conv4
I0504 00:18:42.914034 23146 net.cpp:396] relu4 -> conv4 (in-place)
I0504 00:18:42.914042 23146 net.cpp:144] Setting up relu4
I0504 00:18:42.914047 23146 net.cpp:151] Top shape: 20 128 5 5 (64000)
I0504 00:18:42.914049 23146 net.cpp:159] Memory required for data: 3208080
I0504 00:18:42.914052 23146 layer_factory.hpp:77] Creating layer conv5
I0504 00:18:42.914060 23146 net.cpp:94] Creating Layer conv5
I0504 00:18:42.914063 23146 net.cpp:435] conv5 <- conv4
I0504 00:18:42.914068 23146 net.cpp:409] conv5 -> conv5
I0504 00:18:42.928962 23146 net.cpp:144] Setting up conv5
I0504 00:18:42.928982 23146 net.cpp:151] Top shape: 20 128 5 5 (64000)
I0504 00:18:42.928987 23146 net.cpp:159] Memory required for data: 3464080
I0504 00:18:42.928997 23146 layer_factory.hpp:77] Creating layer relu5
I0504 00:18:42.929003 23146 net.cpp:94] Creating Layer relu5
I0504 00:18:42.929008 23146 net.cpp:435] relu5 <- conv5
I0504 00:18:42.929013 23146 net.cpp:396] relu5 -> conv5 (in-place)
I0504 00:18:42.929019 23146 net.cpp:144] Setting up relu5
I0504 00:18:42.929024 23146 net.cpp:151] Top shape: 20 128 5 5 (64000)
I0504 00:18:42.929026 23146 net.cpp:159] Memory required for data: 3720080
I0504 00:18:42.929029 23146 layer_factory.hpp:77] Creating layer pool5
I0504 00:18:42.929034 23146 net.cpp:94] Creating Layer pool5
I0504 00:18:42.929039 23146 net.cpp:435] pool5 <- conv5
I0504 00:18:42.929042 23146 net.cpp:409] pool5 -> pool5
I0504 00:18:42.929082 23146 net.cpp:144] Setting up pool5
I0504 00:18:42.929088 23146 net.cpp:151] Top shape: 20 128 2 2 (10240)
I0504 00:18:42.929092 23146 net.cpp:159] Memory required for data: 3761040
I0504 00:18:42.929095 23146 layer_factory.hpp:77] Creating layer ip1
I0504 00:18:42.929101 23146 net.cpp:94] Creating Layer ip1
I0504 00:18:42.929105 23146 net.cpp:435] ip1 <- pool5
I0504 00:18:42.929110 23146 net.cpp:409] ip1 -> ip1
I0504 00:18:42.942342 23146 net.cpp:144] Setting up ip1
I0504 00:18:42.942358 23146 net.cpp:151] Top shape: 20 1024 (20480)
I0504 00:18:42.942363 23146 net.cpp:159] Memory required for data: 3842960
I0504 00:18:42.942368 23146 layer_factory.hpp:77] Creating layer ip2
I0504 00:18:42.942375 23146 net.cpp:94] Creating Layer ip2
I0504 00:18:42.942379 23146 net.cpp:435] ip2 <- ip1
I0504 00:18:42.942385 23146 net.cpp:409] ip2 -> ip2
I0504 00:18:42.955449 23146 net.cpp:144] Setting up ip2
I0504 00:18:42.955466 23146 net.cpp:151] Top shape: 20 512 (10240)
I0504 00:18:42.955471 23146 net.cpp:159] Memory required for data: 3883920
I0504 00:18:42.955476 23146 layer_factory.hpp:77] Creating layer ip3
I0504 00:18:42.955483 23146 net.cpp:94] Creating Layer ip3
I0504 00:18:42.955487 23146 net.cpp:435] ip3 <- ip2
I0504 00:18:42.955492 23146 net.cpp:409] ip3 -> ip3
I0504 00:18:42.956221 23146 net.cpp:144] Setting up ip3
I0504 00:18:42.956229 23146 net.cpp:151] Top shape: 20 50 (1000)
I0504 00:18:42.956239 23146 net.cpp:159] Memory required for data: 3887920
I0504 00:18:42.956245 23146 layer_factory.hpp:77] Creating layer loss
I0504 00:18:42.956252 23146 net.cpp:94] Creating Layer loss
I0504 00:18:42.956255 23146 net.cpp:435] loss <- ip3
I0504 00:18:42.956259 23146 net.cpp:435] loss <- label
I0504 00:18:42.956264 23146 net.cpp:409] loss -> loss
I0504 00:18:42.956270 23146 layer_factory.hpp:77] Creating layer loss
…
I0504 00:18:42.956802 23146 solver.cpp:181] Creating test net (#0) specified by net file: ./protocol/dis_20_100_dimension.protocol_distribution
I0504 00:18:42.956831 23146 net.cpp:323] The NetState phase (1) differed from the phase (0) specified by a rule in layer parameters
I0504 00:18:42.956934 23146 net.cpp:52] Initializing net from parameters: 
state {
  phase: TEST
}
layer {
  name: "intercept"
  type: "HDF5Data"
  top: "data"
  top: "label"
  include {
    phase: TEST
  }
  hdf5_data_param {
    source: "/home/purduethu/scratch/radon/d/deng106/CNNStatisticalModel/distributions/input/20_distributions_100_sample_size_test-distributions-path.txt"
    batch_size: 20
  }
}
layer {
  name: "conv1"
  type: "Convolution"
  bottom: "data"
  top: "conv1"
  param {
    lr_mult: 1
  }
  param {
    lr_mult: 2
  }
  convolution_param {
    num_output: 64
    pad: 2
    kernel_size: 5
    stride: 1
    weight_filler {
      type: "gaussian"
      std: 0.0001
    }
    bias_filler {
      type: "constant"
    }
  }
}
layer {
  name: "relu1"
  type: "ReLU"
  bottom: "conv1"
  top: "conv1"
}
layer {
  name: "conv2"
  type: "Convolution"
  bottom: "conv1"
  top: "conv2"
  param {
    lr_mult: 1
  }
  param {
    lr_mult: 2
  }
  convolution_param {
    num_output: 64
    pad: 2
    kernel_size: 5
    stride: 1
    weight_filler {
      type: "gaussian"
      std: 0.01
    }
    bias_filler {
      type: "constant"
    }
  }
}
layer {
  name: "relu2"
  type: "ReLU"
  bottom: "conv2"
  top: "conv2"
}
layer {
  name: "pool2"
  type: "Pooling"
  bottom: "conv2"
  top: "pool2"
  pooling_param {
    pool: MAX
    kernel_size: 3
    stride: 2
  }
}
layer {
  name: "conv3"
  type: "Convolution"
  bottom: "pool2"
  top: "conv3"
  param {
    lr_mult: 1
  }
  param {
    lr_mult: 2
  }
  convolution_param {
    num_output: 128
    pad: 2
    kernel_size: 5
    stride: 1
    weight_filler {
      type: "gaussian"
      std: 0.01
    }
    bias_filler {
      type: "constant"
    }
  }
}
layer {
  name: "relu3"
  type: "ReLU"
  bottom: "conv3"
  top: "conv3"
}
layer {
  name: "conv4"
  type: "Convolution"
  bottom: "conv3"
  top: "conv4"
  param {
    lr_mult: 1
  }
  param {
    lr_mult: 2
  }
  convolution_param {
    num_output: 128
    pad: 2
    kernel_size: 5
    stride: 1
    weight_filler {
      type: "gaussian"
      std: 0.01
    }
    bias_filler {
      type: "constant"
    }
  }
}
layer {
  name: "relu4"
  type: "ReLU"
  bottom: "conv4"
  top: "conv4"
}
layer {
  name: "conv5"
  type: "Convolution"
  bottom: "conv4"
  top: "conv5"
  param {
    lr_mult: 1
  }
  param {
    lr_mult: 2
  }
  convolution_param {
    num_output: 128
    pad: 2
    kernel_size: 5
    stride: 1
    weight_filler {
      type: "gaussian"
      std: 0.01
    }
    bias_filler {
      type: "constant"
    }
  }
}
layer {
  name: "relu5"
  type: "ReLU"
  bottom: "conv5"
  top: "conv5"
}
layer {
  name: "pool5"
  type: "Pooling"
  bottom: "conv5"
  top: "pool5"
  pooling_param {
    pool: AVE
    kernel_size: 3
    stride: 2
  }
}
layer {
  name: "ip1"
  type: "InnerProduct"
  bottom: "pool5"
  top: "ip1"
  param {
    lr_mult: 1
  }
  param {
    lr_mult: 2
  }
  inner_product_param {
    num_output: 1024
    weight_filler {
      type: "gaussian"
      std: 0.1
    }
    bias_filler {
      type: "constant"
    }
  }
}
layer {
  name: "ip2"
  type: "InnerProduct"
  bottom: "ip1"
  top: "ip2"
  param {
    lr_mult: 1
  }
  param {
    lr_mult: 2
  }
  inner_product_param {
    num_output: 512
    weight_filler {
      type: "gaussian"
      std: 0.1
    }
    bias_filler {
      type: "constant"
    }
  }
}
layer {
  name: "ip3"
  type: "InnerProduct"
  bottom: "ip2"
  top: "ip3"
  param {
    lr_mult: 1
  }
  param {
    lr_mult: 2
  }
  inner_product_param {
    num_output: 50
    weight_filler {
      type: "gaussian"
      std: 0.1
    }
    bias_filler {
      type: "constant"
    }
  }
}
layer {
  name: "accuracy"
  type: "Accuracy"
  bottom: "ip3"
  bottom: "label"
  top: "accuracy"
  include {
    phase: TEST
  }
}
layer {
  name: "loss"
  type: "SoftmaxWithLoss"
  bottom: "ip3"
  bottom: "label"
  top: "loss"
}
I0504 00:18:42.957000 23146 layer_factory.hpp:77] Creating layer intercept
I0504 00:18:42.957008 23146 net.cpp:94] Creating Layer intercept
I0504 00:18:42.957012 23146 net.cpp:409] intercept -> data
I0504 00:18:42.957018 23146 net.cpp:409] intercept -> label
I0504 00:18:42.957025 23146 hdf5_data_layer.cpp:79] Loading list of HDF5 filenames from: /home/purduethu/scratch/radon/d/deng106/CNNStatisticalModel/distributions/input/20_distributions_100_sample_size_test-distributions-path.txt
I0504 00:18:42.957043 23146 hdf5_data_layer.cpp:93] Number of HDF5 files: 1
I0504 00:18:42.974915 23146 net.cpp:144] Setting up intercept
I0504 00:18:42.974947 23146 net.cpp:151] Top shape: 20 1 10 10 (2000)
I0504 00:18:42.974951 23146 net.cpp:151] Top shape: 20 (20)
I0504 00:18:42.974954 23146 net.cpp:159] Memory required for data: 8080
I0504 00:18:42.974961 23146 layer_factory.hpp:77] Creating layer label_intercept_1_split
I0504 00:18:42.974978 23146 net.cpp:94] Creating Layer label_intercept_1_split
I0504 00:18:42.974982 23146 net.cpp:435] label_intercept_1_split <- label
I0504 00:18:42.974987 23146 net.cpp:409] label_intercept_1_split -> label_intercept_1_split_0
I0504 00:18:42.974997 23146 net.cpp:409] label_intercept_1_split -> label_intercept_1_split_1
I0504 00:18:42.975035 23146 net.cpp:144] Setting up label_intercept_1_split
I0504 00:18:42.975041 23146 net.cpp:151] Top shape: 20 (20)
I0504 00:18:42.975045 23146 net.cpp:151] Top shape: 20 (20)
I0504 00:18:42.975047 23146 net.cpp:159] Memory required for data: 8240
I0504 00:18:42.975051 23146 layer_factory.hpp:77] Creating layer conv1
I0504 00:18:42.975061 23146 net.cpp:94] Creating Layer conv1
I0504 00:18:42.975064 23146 net.cpp:435] conv1 <- data
I0504 00:18:42.975069 23146 net.cpp:409] conv1 -> conv1
I0504 00:18:42.975850 23146 net.cpp:144] Setting up conv1
I0504 00:18:42.975863 23146 net.cpp:151] Top shape: 20 64 10 10 (128000)
I0504 00:18:42.975875 23146 net.cpp:159] Memory required for data: 520240
I0504 00:18:42.975886 23146 layer_factory.hpp:77] Creating layer relu1
I0504 00:18:42.975893 23146 net.cpp:94] Creating Layer relu1
I0504 00:18:42.975896 23146 net.cpp:435] relu1 <- conv1
I0504 00:18:42.975900 23146 net.cpp:396] relu1 -> conv1 (in-place)
I0504 00:18:42.975908 23146 net.cpp:144] Setting up relu1
I0504 00:18:42.975913 23146 net.cpp:151] Top shape: 20 64 10 10 (128000)
I0504 00:18:42.975915 23146 net.cpp:159] Memory required for data: 1032240
I0504 00:18:42.975917 23146 layer_factory.hpp:77] Creating layer conv2
I0504 00:18:42.975925 23146 net.cpp:94] Creating Layer conv2
I0504 00:18:42.975929 23146 net.cpp:435] conv2 <- conv1
I0504 00:18:42.975934 23146 net.cpp:409] conv2 -> conv2
I0504 00:18:42.980058 23146 net.cpp:144] Setting up conv2
I0504 00:18:42.980073 23146 net.cpp:151] Top shape: 20 64 10 10 (128000)
I0504 00:18:42.980077 23146 net.cpp:159] Memory required for data: 1544240
I0504 00:18:42.980084 23146 layer_factory.hpp:77] Creating layer relu2
I0504 00:18:42.980090 23146 net.cpp:94] Creating Layer relu2
I0504 00:18:42.980094 23146 net.cpp:435] relu2 <- conv2
I0504 00:18:42.980098 23146 net.cpp:396] relu2 -> conv2 (in-place)
I0504 00:18:42.980105 23146 net.cpp:144] Setting up relu2
I0504 00:18:42.980109 23146 net.cpp:151] Top shape: 20 64 10 10 (128000)
I0504 00:18:42.980113 23146 net.cpp:159] Memory required for data: 2056240
I0504 00:18:42.980115 23146 layer_factory.hpp:77] Creating layer pool2
I0504 00:18:42.980121 23146 net.cpp:94] Creating Layer pool2
I0504 00:18:42.980124 23146 net.cpp:435] pool2 <- conv2
I0504 00:18:42.980129 23146 net.cpp:409] pool2 -> pool2
I0504 00:18:42.980180 23146 net.cpp:144] Setting up pool2
I0504 00:18:42.980186 23146 net.cpp:151] Top shape: 20 64 5 5 (32000)
I0504 00:18:42.980190 23146 net.cpp:159] Memory required for data: 2184240
I0504 00:18:42.980192 23146 layer_factory.hpp:77] Creating layer conv3
I0504 00:18:42.980201 23146 net.cpp:94] Creating Layer conv3
I0504 00:18:42.980203 23146 net.cpp:435] conv3 <- pool2
I0504 00:18:42.980208 23146 net.cpp:409] conv3 -> conv3
I0504 00:18:42.986335 23146 net.cpp:144] Setting up conv3
I0504 00:18:42.986349 23146 net.cpp:151] Top shape: 20 128 5 5 (64000)
I0504 00:18:42.986353 23146 net.cpp:159] Memory required for data: 2440240
I0504 00:18:42.986361 23146 layer_factory.hpp:77] Creating layer relu3
I0504 00:18:42.986368 23146 net.cpp:94] Creating Layer relu3
I0504 00:18:42.986371 23146 net.cpp:435] relu3 <- conv3
I0504 00:18:42.986376 23146 net.cpp:396] relu3 -> conv3 (in-place)
I0504 00:18:42.986382 23146 net.cpp:144] Setting up relu3
I0504 00:18:42.986387 23146 net.cpp:151] Top shape: 20 128 5 5 (64000)
I0504 00:18:42.986389 23146 net.cpp:159] Memory required for data: 2696240
I0504 00:18:42.986392 23146 layer_factory.hpp:77] Creating layer conv4
I0504 00:18:42.986399 23146 net.cpp:94] Creating Layer conv4
I0504 00:18:42.986403 23146 net.cpp:435] conv4 <- conv3
I0504 00:18:42.986408 23146 net.cpp:409] conv4 -> conv4
I0504 00:18:42.999150 23146 net.cpp:144] Setting up conv4
I0504 00:18:42.999168 23146 net.cpp:151] Top shape: 20 128 5 5 (64000)
I0504 00:18:42.999172 23146 net.cpp:159] Memory required for data: 2952240
I0504 00:18:42.999179 23146 layer_factory.hpp:77] Creating layer relu4
I0504 00:18:42.999186 23146 net.cpp:94] Creating Layer relu4
I0504 00:18:42.999189 23146 net.cpp:435] relu4 <- conv4
I0504 00:18:42.999194 23146 net.cpp:396] relu4 -> conv4 (in-place)
I0504 00:18:42.999202 23146 net.cpp:144] Setting up relu4
I0504 00:18:42.999207 23146 net.cpp:151] Top shape: 20 128 5 5 (64000)
I0504 00:18:42.999209 23146 net.cpp:159] Memory required for data: 3208240
I0504 00:18:42.999212 23146 layer_factory.hpp:77] Creating layer conv5
I0504 00:18:42.999220 23146 net.cpp:94] Creating Layer conv5
I0504 00:18:42.999223 23146 net.cpp:435] conv5 <- conv4
I0504 00:18:42.999228 23146 net.cpp:409] conv5 -> conv5
I0504 00:18:43.011977 23146 net.cpp:144] Setting up conv5
I0504 00:18:43.011996 23146 net.cpp:151] Top shape: 20 128 5 5 (64000)
I0504 00:18:43.012004 23146 net.cpp:159] Memory required for data: 3464240
I0504 00:18:43.012015 23146 layer_factory.hpp:77] Creating layer relu5
I0504 00:18:43.012023 23146 net.cpp:94] Creating Layer relu5
I0504 00:18:43.012027 23146 net.cpp:435] relu5 <- conv5
I0504 00:18:43.012032 23146 net.cpp:396] relu5 -> conv5 (in-place)
I0504 00:18:43.012038 23146 net.cpp:144] Setting up relu5
I0504 00:18:43.012043 23146 net.cpp:151] Top shape: 20 128 5 5 (64000)
I0504 00:18:43.012045 23146 net.cpp:159] Memory required for data: 3720240
I0504 00:18:43.012048 23146 layer_factory.hpp:77] Creating layer pool5
I0504 00:18:43.012053 23146 net.cpp:94] Creating Layer pool5
I0504 00:18:43.012056 23146 net.cpp:435] pool5 <- conv5
I0504 00:18:43.012061 23146 net.cpp:409] pool5 -> pool5
I0504 00:18:43.012100 23146 net.cpp:144] Setting up pool5
I0504 00:18:43.012107 23146 net.cpp:151] Top shape: 20 128 2 2 (10240)
I0504 00:18:43.012110 23146 net.cpp:159] Memory required for data: 3761200
I0504 00:18:43.012114 23146 layer_factory.hpp:77] Creating layer ip1
I0504 00:18:43.012120 23146 net.cpp:94] Creating Layer ip1
I0504 00:18:43.012123 23146 net.cpp:435] ip1 <- pool5
I0504 00:18:43.012128 23146 net.cpp:409] ip1 -> ip1
I0504 00:18:43.025512 23146 net.cpp:144] Setting up ip1
I0504 00:18:43.025530 23146 net.cpp:151] Top shape: 20 1024 (20480)
I0504 00:18:43.025534 23146 net.cpp:159] Memory required for data: 3843120
I0504 00:18:43.025542 23146 layer_factory.hpp:77] Creating layer ip2
I0504 00:18:43.025548 23146 net.cpp:94] Creating Layer ip2
I0504 00:18:43.025552 23146 net.cpp:435] ip2 <- ip1
I0504 00:18:43.025557 23146 net.cpp:409] ip2 -> ip2
I0504 00:18:43.038796 23146 net.cpp:144] Setting up ip2
I0504 00:18:43.038815 23146 net.cpp:151] Top shape: 20 512 (10240)
I0504 00:18:43.038817 23146 net.cpp:159] Memory required for data: 3884080
I0504 00:18:43.038823 23146 layer_factory.hpp:77] Creating layer ip3
I0504 00:18:43.038833 23146 net.cpp:94] Creating Layer ip3
I0504 00:18:43.038837 23146 net.cpp:435] ip3 <- ip2
I0504 00:18:43.038842 23146 net.cpp:409] ip3 -> ip3
I0504 00:18:43.039583 23146 net.cpp:144] Setting up ip3
I0504 00:18:43.039590 23146 net.cpp:151] Top shape: 20 50 (1000)
I0504 00:18:43.039593 23146 net.cpp:159] Memory required for data: 3888080
I0504 00:18:43.039598 23146 layer_factory.hpp:77] Creating layer ip3_ip3_0_split
I0504 00:18:43.039604 23146 net.cpp:94] Creating Layer ip3_ip3_0_split
I0504 00:18:43.039608 23146 net.cpp:435] ip3_ip3_0_split <- ip3
I0504 00:18:43.039613 23146 net.cpp:409] ip3_ip3_0_split -> ip3_ip3_0_split_0
I0504 00:18:43.039618 23146 net.cpp:409] ip3_ip3_0_split -> ip3_ip3_0_split_1
I0504 00:18:43.039659 23146 net.cpp:144] Setting up ip3_ip3_0_split
I0504 00:18:43.039664 23146 net.cpp:151] Top shape: 20 50 (1000)
I0504 00:18:43.039669 23146 net.cpp:151] Top shape: 20 50 (1000)
I0504 00:18:43.039670 23146 net.cpp:159] Memory required for data: 3896080
I0504 00:18:43.039674 23146 layer_factory.hpp:77] Creating layer accuracy
I0504 00:18:43.039679 23146 net.cpp:94] Creating Layer accuracy
I0504 00:18:43.039681 23146 net.cpp:435] accuracy <- ip3_ip3_0_split_0
I0504 00:18:43.039685 23146 net.cpp:435] accuracy <- label_intercept_1_split_0
I0504 00:18:43.039690 23146 net.cpp:409] accuracy -> accuracy
…
