…
I0505 06:10:48.695430  3750 net.cpp:323] The NetState phase (0) differed from the phase (1) specified by a rule in layer intercept
I0505 06:10:48.695444  3750 net.cpp:323] The NetState phase (0) differed from the phase (1) specified by a rule in layer accuracy
I0505 06:10:48.695523  3750 net.cpp:52] Initializing net from parameters: 
state {
  phase: TRAIN
}
layer {
  name: "parameters"
  type: "HDF5Data"
  top: "data"
  top: "label"
  include {
    phase: TRAIN
  }
  hdf5_data_param {
    source: "/home/purduethu/scratch/radon/d/deng106/CNNStatisticalModel/distributions/input/5_distributions_100_sample_size_train-distributions-path.txt"
    batch_size: 20
  }
}
layer {
  name: "conv1"
  type: "Convolution"
  bottom: "data"
  top: "conv1"
  param {
    lr_mult: 1
  }
  param {
    lr_mult: 2
  }
  convolution_param {
    num_output: 64
    pad: 2
    kernel_size: 5
    stride: 1
    weight_filler {
      type: "gaussian"
      std: 0.0001
    }
    bias_filler {
      type: "constant"
    }
  }
}
layer {
  name: "relu1"
  type: "ReLU"
  bottom: "conv1"
  top: "conv1"
}
layer {
  name: "pool1"
  type: "Pooling"
  bottom: "conv1"
  top: "pool1"
  pooling_param {
    pool: MAX
    kernel_size: 3
    stride: 2
  }
}
layer {
  name: "conv2"
  type: "Convolution"
  bottom: "pool1"
  top: "conv2"
  param {
    lr_mult: 1
  }
  param {
    lr_mult: 2
  }
  convolution_param {
    num_output: 128
    pad: 2
    kernel_size: 5
    stride: 1
    weight_filler {
      type: "gaussian"
      std: 0.01
    }
    bias_filler {
      type: "constant"
    }
  }
}
layer {
  name: "relu2"
  type: "ReLU"
  bottom: "conv2"
  top: "conv2"
}
layer {
  name: "conv3"
  type: "Convolution"
  bottom: "conv2"
  top: "conv3"
  param {
    lr_mult: 1
  }
  param {
    lr_mult: 2
  }
  convolution_param {
    num_output: 128
    pad: 2
    kernel_size: 5
    stride: 1
    weight_filler {
      type: "gaussian"
      std: 0.01
    }
    bias_filler {
      type: "constant"
    }
  }
}
layer {
  name: "relu3"
  type: "ReLU"
  bottom: "conv3"
  top: "conv3"
}
layer {
  name: "pool3"
  type: "Pooling"
  bottom: "conv3"
  top: "pool3"
  pooling_param {
    pool: AVE
    kernel_size: 3
    stride: 2
  }
}
layer {
  name: "ip1"
  type: "InnerProduct"
  bottom: "pool3"
  top: "ip1"
  param {
    lr_mult: 1
  }
  param {
    lr_mult: 2
  }
  inner_product_param {
    num_output: 512
    weight_filler {
      type: "gaussian"
      std: 0.1
    }
    bias_filler {
      type: "constant"
    }
  }
}
layer {
  name: "ip2"
  type: "InnerProduct"
  bottom: "ip1"
  top: "ip2"
  param {
    lr_mult: 1
  }
  param {
    lr_mult: 2
  }
  inner_product_param {
    num_output: 256
    weight_filler {
      type: "gaussian"
      std: 0.1
    }
    bias_filler {
      type: "constant"
    }
  }
}
layer {
  name: "ip3"
  type: "InnerProduct"
  bottom: "ip2"
  top: "ip3"
  param {
    lr_mult: 1
  }
  param {
    lr_mult: 2
  }
  inner_product_param {
    num_output: 50
    weight_filler {
      type: "gaussian"
      std: 0.1
    }
    bias_filler {
      type: "constant"
    }
  }
}
layer {
  name: "loss"
  type: "SoftmaxWithLoss"
  bottom: "ip3"
  bottom: "label"
  top: "loss"
}
I0505 06:10:48.695586  3750 layer_factory.hpp:77] Creating layer parameters
I0505 06:10:48.695601  3750 net.cpp:94] Creating Layer parameters
I0505 06:10:48.695607  3750 net.cpp:409] parameters -> data
I0505 06:10:48.695634  3750 net.cpp:409] parameters -> label
I0505 06:10:48.695646  3750 hdf5_data_layer.cpp:79] Loading list of HDF5 filenames from: /home/purduethu/scratch/radon/d/deng106/CNNStatisticalModel/distributions/input/5_distributions_100_sample_size_train-distributions-path.txt
I0505 06:10:48.695668  3750 hdf5_data_layer.cpp:93] Number of HDF5 files: 1
I0505 06:10:48.696225  3750 hdf5.cpp:32] Datatype class: H5T_FLOAT
I0505 06:10:48.714247  3750 hdf5.cpp:35] Datatype class: H5T_INTEGER
I0505 06:10:48.715356  3750 net.cpp:144] Setting up parameters
I0505 06:10:48.715376  3750 net.cpp:151] Top shape: 20 1 10 10 (2000)
I0505 06:10:48.715382  3750 net.cpp:151] Top shape: 20 (20)
I0505 06:10:48.715385  3750 net.cpp:159] Memory required for data: 8080
I0505 06:10:48.715394  3750 layer_factory.hpp:77] Creating layer conv1
I0505 06:10:48.715414  3750 net.cpp:94] Creating Layer conv1
I0505 06:10:48.715418  3750 net.cpp:435] conv1 <- data
I0505 06:10:48.715430  3750 net.cpp:409] conv1 -> conv1
I0505 06:10:48.720772  3750 net.cpp:144] Setting up conv1
I0505 06:10:48.720788  3750 net.cpp:151] Top shape: 20 64 10 10 (128000)
I0505 06:10:48.720793  3750 net.cpp:159] Memory required for data: 520080
I0505 06:10:48.720804  3750 layer_factory.hpp:77] Creating layer relu1
I0505 06:10:48.720813  3750 net.cpp:94] Creating Layer relu1
I0505 06:10:48.720816  3750 net.cpp:435] relu1 <- conv1
I0505 06:10:48.720821  3750 net.cpp:396] relu1 -> conv1 (in-place)
I0505 06:10:48.720837  3750 net.cpp:144] Setting up relu1
I0505 06:10:48.720844  3750 net.cpp:151] Top shape: 20 64 10 10 (128000)
I0505 06:10:48.720846  3750 net.cpp:159] Memory required for data: 1032080
I0505 06:10:48.720849  3750 layer_factory.hpp:77] Creating layer pool1
I0505 06:10:48.720857  3750 net.cpp:94] Creating Layer pool1
I0505 06:10:48.720860  3750 net.cpp:435] pool1 <- conv1
I0505 06:10:48.720865  3750 net.cpp:409] pool1 -> pool1
I0505 06:10:48.720912  3750 net.cpp:144] Setting up pool1
I0505 06:10:48.720921  3750 net.cpp:151] Top shape: 20 64 5 5 (32000)
I0505 06:10:48.720923  3750 net.cpp:159] Memory required for data: 1160080
I0505 06:10:48.720927  3750 layer_factory.hpp:77] Creating layer conv2
I0505 06:10:48.720935  3750 net.cpp:94] Creating Layer conv2
I0505 06:10:48.720939  3750 net.cpp:435] conv2 <- pool1
I0505 06:10:48.720944  3750 net.cpp:409] conv2 -> conv2
I0505 06:10:48.729460  3750 net.cpp:144] Setting up conv2
I0505 06:10:48.729475  3750 net.cpp:151] Top shape: 20 128 5 5 (64000)
I0505 06:10:48.729480  3750 net.cpp:159] Memory required for data: 1416080
I0505 06:10:48.729488  3750 layer_factory.hpp:77] Creating layer relu2
I0505 06:10:48.729495  3750 net.cpp:94] Creating Layer relu2
I0505 06:10:48.729498  3750 net.cpp:435] relu2 <- conv2
I0505 06:10:48.729503  3750 net.cpp:396] relu2 -> conv2 (in-place)
I0505 06:10:48.729511  3750 net.cpp:144] Setting up relu2
I0505 06:10:48.729514  3750 net.cpp:151] Top shape: 20 128 5 5 (64000)
I0505 06:10:48.729517  3750 net.cpp:159] Memory required for data: 1672080
I0505 06:10:48.729521  3750 layer_factory.hpp:77] Creating layer conv3
I0505 06:10:48.729529  3750 net.cpp:94] Creating Layer conv3
I0505 06:10:48.729532  3750 net.cpp:435] conv3 <- conv2
I0505 06:10:48.729537  3750 net.cpp:409] conv3 -> conv3
I0505 06:10:48.743784  3750 net.cpp:144] Setting up conv3
I0505 06:10:48.743799  3750 net.cpp:151] Top shape: 20 128 5 5 (64000)
I0505 06:10:48.743804  3750 net.cpp:159] Memory required for data: 1928080
I0505 06:10:48.743813  3750 layer_factory.hpp:77] Creating layer relu3
I0505 06:10:48.743824  3750 net.cpp:94] Creating Layer relu3
I0505 06:10:48.743829  3750 net.cpp:435] relu3 <- conv3
I0505 06:10:48.743834  3750 net.cpp:396] relu3 -> conv3 (in-place)
I0505 06:10:48.743841  3750 net.cpp:144] Setting up relu3
I0505 06:10:48.743846  3750 net.cpp:151] Top shape: 20 128 5 5 (64000)
I0505 06:10:48.743849  3750 net.cpp:159] Memory required for data: 2184080
I0505 06:10:48.743852  3750 layer_factory.hpp:77] Creating layer pool3
I0505 06:10:48.743858  3750 net.cpp:94] Creating Layer pool3
I0505 06:10:48.743868  3750 net.cpp:435] pool3 <- conv3
I0505 06:10:48.743875  3750 net.cpp:409] pool3 -> pool3
I0505 06:10:48.743906  3750 net.cpp:144] Setting up pool3
I0505 06:10:48.743914  3750 net.cpp:151] Top shape: 20 128 2 2 (10240)
I0505 06:10:48.743917  3750 net.cpp:159] Memory required for data: 2225040
I0505 06:10:48.743921  3750 layer_factory.hpp:77] Creating layer ip1
I0505 06:10:48.743930  3750 net.cpp:94] Creating Layer ip1
I0505 06:10:48.743934  3750 net.cpp:435] ip1 <- pool3
I0505 06:10:48.743939  3750 net.cpp:409] ip1 -> ip1
I0505 06:10:48.750741  3750 net.cpp:144] Setting up ip1
I0505 06:10:48.750754  3750 net.cpp:151] Top shape: 20 512 (10240)
I0505 06:10:48.750758  3750 net.cpp:159] Memory required for data: 2266000
I0505 06:10:48.750764  3750 layer_factory.hpp:77] Creating layer ip2
I0505 06:10:48.750771  3750 net.cpp:94] Creating Layer ip2
I0505 06:10:48.750774  3750 net.cpp:435] ip2 <- ip1
I0505 06:10:48.750780  3750 net.cpp:409] ip2 -> ip2
I0505 06:10:48.754518  3750 net.cpp:144] Setting up ip2
I0505 06:10:48.754530  3750 net.cpp:151] Top shape: 20 256 (5120)
I0505 06:10:48.754534  3750 net.cpp:159] Memory required for data: 2286480
I0505 06:10:48.754542  3750 layer_factory.hpp:77] Creating layer ip3
I0505 06:10:48.754549  3750 net.cpp:94] Creating Layer ip3
I0505 06:10:48.754554  3750 net.cpp:435] ip3 <- ip2
I0505 06:10:48.754559  3750 net.cpp:409] ip3 -> ip3
I0505 06:10:48.755549  3750 net.cpp:144] Setting up ip3
I0505 06:10:48.755563  3750 net.cpp:151] Top shape: 20 50 (1000)
I0505 06:10:48.755566  3750 net.cpp:159] Memory required for data: 2290480
I0505 06:10:48.755571  3750 layer_factory.hpp:77] Creating layer loss
I0505 06:10:48.755578  3750 net.cpp:94] Creating Layer loss
I0505 06:10:48.755583  3750 net.cpp:435] loss <- ip3
I0505 06:10:48.755586  3750 net.cpp:435] loss <- label
I0505 06:10:48.755592  3750 net.cpp:409] loss -> loss
I0505 06:10:48.755602  3750 layer_factory.hpp:77] Creating layer loss
…
I0505 06:10:48.756016  3750 solver.cpp:181] Creating test net (#0) specified by net file: ./protocol/dis_5_100_dimension.protocol_distribution
I0505 06:10:48.756039  3750 net.cpp:323] The NetState phase (1) differed from the phase (0) specified by a rule in layer parameters
I0505 06:10:48.756127  3750 net.cpp:52] Initializing net from parameters: 
state {
  phase: TEST
}
layer {
  name: "intercept"
  type: "HDF5Data"
  top: "data"
  top: "label"
  include {
    phase: TEST
  }
  hdf5_data_param {
    source: "/home/purduethu/scratch/radon/d/deng106/CNNStatisticalModel/distributions/input/5_distributions_100_sample_size_test-distributions-path.txt"
    batch_size: 20
  }
}
layer {
  name: "conv1"
  type: "Convolution"
  bottom: "data"
  top: "conv1"
  param {
    lr_mult: 1
  }
  param {
    lr_mult: 2
  }
  convolution_param {
    num_output: 64
    pad: 2
    kernel_size: 5
    stride: 1
    weight_filler {
      type: "gaussian"
      std: 0.0001
    }
    bias_filler {
      type: "constant"
    }
  }
}
layer {
  name: "relu1"
  type: "ReLU"
  bottom: "conv1"
  top: "conv1"
}
layer {
  name: "pool1"
  type: "Pooling"
  bottom: "conv1"
  top: "pool1"
  pooling_param {
    pool: MAX
    kernel_size: 3
    stride: 2
  }
}
layer {
  name: "conv2"
  type: "Convolution"
  bottom: "pool1"
  top: "conv2"
  param {
    lr_mult: 1
  }
  param {
    lr_mult: 2
  }
  convolution_param {
    num_output: 128
    pad: 2
    kernel_size: 5
    stride: 1
    weight_filler {
      type: "gaussian"
      std: 0.01
    }
    bias_filler {
      type: "constant"
    }
  }
}
layer {
  name: "relu2"
  type: "ReLU"
  bottom: "conv2"
  top: "conv2"
}
layer {
  name: "conv3"
  type: "Convolution"
  bottom: "conv2"
  top: "conv3"
  param {
    lr_mult: 1
  }
  param {
    lr_mult: 2
  }
  convolution_param {
    num_output: 128
    pad: 2
    kernel_size: 5
    stride: 1
    weight_filler {
      type: "gaussian"
      std: 0.01
    }
    bias_filler {
      type: "constant"
    }
  }
}
layer {
  name: "relu3"
  type: "ReLU"
  bottom: "conv3"
  top: "conv3"
}
layer {
  name: "pool3"
  type: "Pooling"
  bottom: "conv3"
  top: "pool3"
  pooling_param {
    pool: AVE
    kernel_size: 3
    stride: 2
  }
}
layer {
  name: "ip1"
  type: "InnerProduct"
  bottom: "pool3"
  top: "ip1"
  param {
    lr_mult: 1
  }
  param {
    lr_mult: 2
  }
  inner_product_param {
    num_output: 512
    weight_filler {
      type: "gaussian"
      std: 0.1
    }
    bias_filler {
      type: "constant"
    }
  }
}
layer {
  name: "ip2"
  type: "InnerProduct"
  bottom: "ip1"
  top: "ip2"
  param {
    lr_mult: 1
  }
  param {
    lr_mult: 2
  }
  inner_product_param {
    num_output: 256
    weight_filler {
      type: "gaussian"
      std: 0.1
    }
    bias_filler {
      type: "constant"
    }
  }
}
layer {
  name: "ip3"
  type: "InnerProduct"
  bottom: "ip2"
  top: "ip3"
  param {
    lr_mult: 1
  }
  param {
    lr_mult: 2
  }
  inner_product_param {
    num_output: 50
    weight_filler {
      type: "gaussian"
      std: 0.1
    }
    bias_filler {
      type: "constant"
    }
  }
}
layer {
  name: "accuracy"
  type: "Accuracy"
  bottom: "ip3"
  bottom: "label"
  top: "accuracy"
  include {
    phase: TEST
  }
}
layer {
  name: "loss"
  type: "SoftmaxWithLoss"
  bottom: "ip3"
  bottom: "label"
  top: "loss"
}
I0505 06:10:48.756189  3750 layer_factory.hpp:77] Creating layer intercept
I0505 06:10:48.756197  3750 net.cpp:94] Creating Layer intercept
I0505 06:10:48.756202  3750 net.cpp:409] intercept -> data
I0505 06:10:48.756208  3750 net.cpp:409] intercept -> label
I0505 06:10:48.756216  3750 hdf5_data_layer.cpp:79] Loading list of HDF5 filenames from: /home/purduethu/scratch/radon/d/deng106/CNNStatisticalModel/distributions/input/5_distributions_100_sample_size_test-distributions-path.txt
I0505 06:10:48.756234  3750 hdf5_data_layer.cpp:93] Number of HDF5 files: 1
I0505 06:10:48.760262  3750 net.cpp:144] Setting up intercept
I0505 06:10:48.760285  3750 net.cpp:151] Top shape: 20 1 10 10 (2000)
I0505 06:10:48.760290  3750 net.cpp:151] Top shape: 20 (20)
I0505 06:10:48.760293  3750 net.cpp:159] Memory required for data: 8080
I0505 06:10:48.760299  3750 layer_factory.hpp:77] Creating layer label_intercept_1_split
I0505 06:10:48.760314  3750 net.cpp:94] Creating Layer label_intercept_1_split
I0505 06:10:48.760326  3750 net.cpp:435] label_intercept_1_split <- label
I0505 06:10:48.760331  3750 net.cpp:409] label_intercept_1_split -> label_intercept_1_split_0
I0505 06:10:48.760339  3750 net.cpp:409] label_intercept_1_split -> label_intercept_1_split_1
I0505 06:10:48.760366  3750 net.cpp:144] Setting up label_intercept_1_split
I0505 06:10:48.760372  3750 net.cpp:151] Top shape: 20 (20)
I0505 06:10:48.760376  3750 net.cpp:151] Top shape: 20 (20)
I0505 06:10:48.760380  3750 net.cpp:159] Memory required for data: 8240
I0505 06:10:48.760388  3750 layer_factory.hpp:77] Creating layer conv1
I0505 06:10:48.760399  3750 net.cpp:94] Creating Layer conv1
I0505 06:10:48.760402  3750 net.cpp:435] conv1 <- data
I0505 06:10:48.760407  3750 net.cpp:409] conv1 -> conv1
I0505 06:10:48.761075  3750 net.cpp:144] Setting up conv1
I0505 06:10:48.761088  3750 net.cpp:151] Top shape: 20 64 10 10 (128000)
I0505 06:10:48.761092  3750 net.cpp:159] Memory required for data: 520240
I0505 06:10:48.761101  3750 layer_factory.hpp:77] Creating layer relu1
I0505 06:10:48.761108  3750 net.cpp:94] Creating Layer relu1
I0505 06:10:48.761112  3750 net.cpp:435] relu1 <- conv1
I0505 06:10:48.761116  3750 net.cpp:396] relu1 -> conv1 (in-place)
I0505 06:10:48.761123  3750 net.cpp:144] Setting up relu1
I0505 06:10:48.761128  3750 net.cpp:151] Top shape: 20 64 10 10 (128000)
I0505 06:10:48.761132  3750 net.cpp:159] Memory required for data: 1032240
I0505 06:10:48.761134  3750 layer_factory.hpp:77] Creating layer pool1
I0505 06:10:48.761142  3750 net.cpp:94] Creating Layer pool1
I0505 06:10:48.761144  3750 net.cpp:435] pool1 <- conv1
I0505 06:10:48.761149  3750 net.cpp:409] pool1 -> pool1
I0505 06:10:48.761186  3750 net.cpp:144] Setting up pool1
I0505 06:10:48.761193  3750 net.cpp:151] Top shape: 20 64 5 5 (32000)
I0505 06:10:48.761196  3750 net.cpp:159] Memory required for data: 1160240
I0505 06:10:48.761199  3750 layer_factory.hpp:77] Creating layer conv2
I0505 06:10:48.761209  3750 net.cpp:94] Creating Layer conv2
I0505 06:10:48.761211  3750 net.cpp:435] conv2 <- pool1
I0505 06:10:48.761217  3750 net.cpp:409] conv2 -> conv2
I0505 06:10:48.770678  3750 net.cpp:144] Setting up conv2
I0505 06:10:48.770694  3750 net.cpp:151] Top shape: 20 128 5 5 (64000)
I0505 06:10:48.770699  3750 net.cpp:159] Memory required for data: 1416240
I0505 06:10:48.770707  3750 layer_factory.hpp:77] Creating layer relu2
I0505 06:10:48.770714  3750 net.cpp:94] Creating Layer relu2
I0505 06:10:48.770717  3750 net.cpp:435] relu2 <- conv2
I0505 06:10:48.770721  3750 net.cpp:396] relu2 -> conv2 (in-place)
I0505 06:10:48.770730  3750 net.cpp:144] Setting up relu2
I0505 06:10:48.770733  3750 net.cpp:151] Top shape: 20 128 5 5 (64000)
I0505 06:10:48.770736  3750 net.cpp:159] Memory required for data: 1672240
I0505 06:10:48.770740  3750 layer_factory.hpp:77] Creating layer conv3
I0505 06:10:48.770747  3750 net.cpp:94] Creating Layer conv3
I0505 06:10:48.770751  3750 net.cpp:435] conv3 <- conv2
I0505 06:10:48.770756  3750 net.cpp:409] conv3 -> conv3
I0505 06:10:48.782907  3750 net.cpp:144] Setting up conv3
I0505 06:10:48.782922  3750 net.cpp:151] Top shape: 20 128 5 5 (64000)
I0505 06:10:48.782927  3750 net.cpp:159] Memory required for data: 1928240
I0505 06:10:48.782934  3750 layer_factory.hpp:77] Creating layer relu3
I0505 06:10:48.782941  3750 net.cpp:94] Creating Layer relu3
I0505 06:10:48.782945  3750 net.cpp:435] relu3 <- conv3
I0505 06:10:48.782949  3750 net.cpp:396] relu3 -> conv3 (in-place)
I0505 06:10:48.782958  3750 net.cpp:144] Setting up relu3
I0505 06:10:48.782961  3750 net.cpp:151] Top shape: 20 128 5 5 (64000)
I0505 06:10:48.782964  3750 net.cpp:159] Memory required for data: 2184240
I0505 06:10:48.782968  3750 layer_factory.hpp:77] Creating layer pool3
I0505 06:10:48.782974  3750 net.cpp:94] Creating Layer pool3
I0505 06:10:48.782976  3750 net.cpp:435] pool3 <- conv3
I0505 06:10:48.782980  3750 net.cpp:409] pool3 -> pool3
I0505 06:10:48.783006  3750 net.cpp:144] Setting up pool3
I0505 06:10:48.783013  3750 net.cpp:151] Top shape: 20 128 2 2 (10240)
I0505 06:10:48.783021  3750 net.cpp:159] Memory required for data: 2225200
I0505 06:10:48.783025  3750 layer_factory.hpp:77] Creating layer ip1
I0505 06:10:48.783032  3750 net.cpp:94] Creating Layer ip1
I0505 06:10:48.783035  3750 net.cpp:435] ip1 <- pool3
I0505 06:10:48.783041  3750 net.cpp:409] ip1 -> ip1
I0505 06:10:48.789880  3750 net.cpp:144] Setting up ip1
I0505 06:10:48.789894  3750 net.cpp:151] Top shape: 20 512 (10240)
I0505 06:10:48.789898  3750 net.cpp:159] Memory required for data: 2266160
I0505 06:10:48.789903  3750 layer_factory.hpp:77] Creating layer ip2
I0505 06:10:48.789916  3750 net.cpp:94] Creating Layer ip2
I0505 06:10:48.789921  3750 net.cpp:435] ip2 <- ip1
I0505 06:10:48.789927  3750 net.cpp:409] ip2 -> ip2
I0505 06:10:48.793025  3750 net.cpp:144] Setting up ip2
I0505 06:10:48.793032  3750 net.cpp:151] Top shape: 20 256 (5120)
I0505 06:10:48.793035  3750 net.cpp:159] Memory required for data: 2286640
I0505 06:10:48.793042  3750 layer_factory.hpp:77] Creating layer ip3
I0505 06:10:48.793050  3750 net.cpp:94] Creating Layer ip3
I0505 06:10:48.793052  3750 net.cpp:435] ip3 <- ip2
I0505 06:10:48.793057  3750 net.cpp:409] ip3 -> ip3
I0505 06:10:48.793426  3750 net.cpp:144] Setting up ip3
I0505 06:10:48.793432  3750 net.cpp:151] Top shape: 20 50 (1000)
I0505 06:10:48.793436  3750 net.cpp:159] Memory required for data: 2290640
I0505 06:10:48.793440  3750 layer_factory.hpp:77] Creating layer ip3_ip3_0_split
I0505 06:10:48.793445  3750 net.cpp:94] Creating Layer ip3_ip3_0_split
I0505 06:10:48.793460  3750 net.cpp:435] ip3_ip3_0_split <- ip3
I0505 06:10:48.793464  3750 net.cpp:409] ip3_ip3_0_split -> ip3_ip3_0_split_0
I0505 06:10:48.793470  3750 net.cpp:409] ip3_ip3_0_split -> ip3_ip3_0_split_1
I0505 06:10:48.793494  3750 net.cpp:144] Setting up ip3_ip3_0_split
I0505 06:10:48.793499  3750 net.cpp:151] Top shape: 20 50 (1000)
I0505 06:10:48.793503  3750 net.cpp:151] Top shape: 20 50 (1000)
I0505 06:10:48.793506  3750 net.cpp:159] Memory required for data: 2298640
I0505 06:10:48.793509  3750 layer_factory.hpp:77] Creating layer accuracy
I0505 06:10:48.793515  3750 net.cpp:94] Creating Layer accuracy
I0505 06:10:48.793519  3750 net.cpp:435] accuracy <- ip3_ip3_0_split_0
I0505 06:10:48.793522  3750 net.cpp:435] accuracy <- label_intercept_1_split_0
I0505 06:10:48.793526  3750 net.cpp:409] accuracy -> accuracy
…
