…
I0502 04:06:08.425240 18389 net.cpp:323] The NetState phase (0) differed from the phase (1) specified by a rule in layer intercept
I0502 04:06:08.425257 18389 net.cpp:323] The NetState phase (0) differed from the phase (1) specified by a rule in layer loss
I0502 04:06:08.425348 18389 net.cpp:52] Initializing net from parameters: 
state {
  phase: TRAIN
}
layer {
  name: "parameters"
  type: "HDF5Data"
  top: "data"
  top: "label"
  include {
    phase: TRAIN
  }
  hdf5_data_param {
    source: "/home/purduethu/scratch/radon/d/deng106/CNNStatisticalModel/distributions/input/50_distributions_400_sample_size_train-parameters-path.txt"
    batch_size: 20
  }
}
layer {
  name: "conv1"
  type: "Convolution"
  bottom: "data"
  top: "conv1"
  param {
    lr_mult: 1
  }
  param {
    lr_mult: 2
  }
  convolution_param {
    num_output: 64
    pad: 2
    kernel_size: 5
    stride: 1
    weight_filler {
      type: "gaussian"
      std: 0.0001
    }
    bias_filler {
      type: "constant"
    }
  }
}
layer {
  name: "relu1"
  type: "ReLU"
  bottom: "conv1"
  top: "conv1"
}
layer {
  name: "conv2"
  type: "Convolution"
  bottom: "conv1"
  top: "conv2"
  param {
    lr_mult: 1
  }
  param {
    lr_mult: 2
  }
  convolution_param {
    num_output: 64
    pad: 2
    kernel_size: 5
    stride: 1
    weight_filler {
      type: "gaussian"
      std: 0.01
    }
    bias_filler {
      type: "constant"
    }
  }
}
layer {
  name: "relu2"
  type: "ReLU"
  bottom: "conv2"
  top: "conv2"
}
layer {
  name: "pool2"
  type: "Pooling"
  bottom: "conv2"
  top: "pool2"
  pooling_param {
    pool: MAX
    kernel_size: 3
    stride: 2
  }
}
layer {
  name: "conv3"
  type: "Convolution"
  bottom: "pool2"
  top: "conv3"
  param {
    lr_mult: 1
  }
  param {
    lr_mult: 2
  }
  convolution_param {
    num_output: 64
    pad: 2
    kernel_size: 5
    stride: 1
    weight_filler {
      type: "gaussian"
      std: 0.01
    }
    bias_filler {
      type: "constant"
    }
  }
}
layer {
  name: "relu3"
  type: "ReLU"
  bottom: "conv3"
  top: "conv3"
}
layer {
  name: "conv4"
  type: "Convolution"
  bottom: "conv3"
  top: "conv4"
  param {
    lr_mult: 1
  }
  param {
    lr_mult: 2
  }
  convolution_param {
    num_output: 64
    pad: 2
    kernel_size: 5
    stride: 1
    weight_filler {
      type: "gaussian"
      std: 0.01
    }
    bias_filler {
      type: "constant"
    }
  }
}
layer {
  name: "relu4"
  type: "ReLU"
  bottom: "conv4"
  top: "conv4"
}
layer {
  name: "conv5"
  type: "Convolution"
  bottom: "conv4"
  top: "conv5"
  param {
    lr_mult: 1
  }
  param {
    lr_mult: 2
  }
  convolution_param {
    num_output: 64
    pad: 2
    kernel_size: 5
    stride: 1
    weight_filler {
      type: "gaussian"
      std: 0.01
    }
    bias_filler {
      type: "constant"
    }
  }
}
layer {
  name: "relu5"
  type: "ReLU"
  bottom: "conv5"
  top: "conv5"
}
layer {
  name: "pool5"
  type: "Pooling"
  bottom: "conv5"
  top: "pool5"
  pooling_param {
    pool: AVE
    kernel_size: 3
    stride: 2
  }
}
layer {
  name: "ip1"
  type: "InnerProduct"
  bottom: "pool5"
  top: "ip1"
  param {
    lr_mult: 1
  }
  param {
    lr_mult: 2
  }
  inner_product_param {
    num_output: 64
    weight_filler {
      type: "gaussian"
      std: 0.1
    }
    bias_filler {
      type: "constant"
    }
  }
}
layer {
  name: "ip2"
  type: "InnerProduct"
  bottom: "ip1"
  top: "ip2"
  param {
    lr_mult: 1
  }
  param {
    lr_mult: 2
  }
  inner_product_param {
    num_output: 64
    weight_filler {
      type: "gaussian"
      std: 0.1
    }
    bias_filler {
      type: "constant"
    }
  }
}
layer {
  name: "ip3"
  type: "InnerProduct"
  bottom: "ip2"
  top: "ip3"
  param {
    lr_mult: 1
  }
  param {
    lr_mult: 2
  }
  inner_product_param {
    num_output: 1
    weight_filler {
      type: "gaussian"
      std: 0.1
    }
    bias_filler {
      type: "constant"
    }
  }
}
layer {
  name: "loss"
  type: "HuberLoss"
  bottom: "ip3"
  bottom: "label"
  top: "loss"
  include {
    phase: TRAIN
  }
}
I0502 04:06:08.425424 18389 layer_factory.hpp:77] Creating layer parameters
I0502 04:06:08.425438 18389 net.cpp:94] Creating Layer parameters
I0502 04:06:08.425444 18389 net.cpp:409] parameters -> data
I0502 04:06:08.425464 18389 net.cpp:409] parameters -> label
I0502 04:06:08.425475 18389 hdf5_data_layer.cpp:79] Loading list of HDF5 filenames from: /home/purduethu/scratch/radon/d/deng106/CNNStatisticalModel/distributions/input/50_distributions_400_sample_size_train-parameters-path.txt
I0502 04:06:08.425498 18389 hdf5_data_layer.cpp:93] Number of HDF5 files: 1
I0502 04:06:08.426089 18389 hdf5.cpp:32] Datatype class: H5T_FLOAT
I0502 04:06:09.068152 18389 net.cpp:144] Setting up parameters
I0502 04:06:09.068187 18389 net.cpp:151] Top shape: 20 1 20 20 (8000)
I0502 04:06:09.068193 18389 net.cpp:151] Top shape: 20 (20)
I0502 04:06:09.068197 18389 net.cpp:159] Memory required for data: 32080
I0502 04:06:09.068204 18389 layer_factory.hpp:77] Creating layer conv1
I0502 04:06:09.068230 18389 net.cpp:94] Creating Layer conv1
I0502 04:06:09.068236 18389 net.cpp:435] conv1 <- data
I0502 04:06:09.068248 18389 net.cpp:409] conv1 -> conv1
I0502 04:06:09.073719 18389 net.cpp:144] Setting up conv1
I0502 04:06:09.073735 18389 net.cpp:151] Top shape: 20 64 20 20 (512000)
I0502 04:06:09.073740 18389 net.cpp:159] Memory required for data: 2080080
I0502 04:06:09.073751 18389 layer_factory.hpp:77] Creating layer relu1
I0502 04:06:09.073760 18389 net.cpp:94] Creating Layer relu1
I0502 04:06:09.073765 18389 net.cpp:435] relu1 <- conv1
I0502 04:06:09.073768 18389 net.cpp:396] relu1 -> conv1 (in-place)
I0502 04:06:09.073787 18389 net.cpp:144] Setting up relu1
I0502 04:06:09.073792 18389 net.cpp:151] Top shape: 20 64 20 20 (512000)
I0502 04:06:09.073796 18389 net.cpp:159] Memory required for data: 4128080
I0502 04:06:09.073799 18389 layer_factory.hpp:77] Creating layer conv2
I0502 04:06:09.073807 18389 net.cpp:94] Creating Layer conv2
I0502 04:06:09.073812 18389 net.cpp:435] conv2 <- conv1
I0502 04:06:09.073817 18389 net.cpp:409] conv2 -> conv2
I0502 04:06:09.084348 18389 net.cpp:144] Setting up conv2
I0502 04:06:09.084364 18389 net.cpp:151] Top shape: 20 64 20 20 (512000)
I0502 04:06:09.084368 18389 net.cpp:159] Memory required for data: 6176080
I0502 04:06:09.084375 18389 layer_factory.hpp:77] Creating layer relu2
I0502 04:06:09.084383 18389 net.cpp:94] Creating Layer relu2
I0502 04:06:09.084386 18389 net.cpp:435] relu2 <- conv2
I0502 04:06:09.084391 18389 net.cpp:396] relu2 -> conv2 (in-place)
I0502 04:06:09.084398 18389 net.cpp:144] Setting up relu2
I0502 04:06:09.084403 18389 net.cpp:151] Top shape: 20 64 20 20 (512000)
I0502 04:06:09.084406 18389 net.cpp:159] Memory required for data: 8224080
I0502 04:06:09.084409 18389 layer_factory.hpp:77] Creating layer pool2
I0502 04:06:09.084416 18389 net.cpp:94] Creating Layer pool2
I0502 04:06:09.084426 18389 net.cpp:435] pool2 <- conv2
I0502 04:06:09.084431 18389 net.cpp:409] pool2 -> pool2
I0502 04:06:09.084475 18389 net.cpp:144] Setting up pool2
I0502 04:06:09.084482 18389 net.cpp:151] Top shape: 20 64 10 10 (128000)
I0502 04:06:09.084486 18389 net.cpp:159] Memory required for data: 8736080
I0502 04:06:09.084488 18389 layer_factory.hpp:77] Creating layer conv3
I0502 04:06:09.084496 18389 net.cpp:94] Creating Layer conv3
I0502 04:06:09.084501 18389 net.cpp:435] conv3 <- pool2
I0502 04:06:09.084506 18389 net.cpp:409] conv3 -> conv3
I0502 04:06:09.089582 18389 net.cpp:144] Setting up conv3
I0502 04:06:09.089596 18389 net.cpp:151] Top shape: 20 64 10 10 (128000)
I0502 04:06:09.089599 18389 net.cpp:159] Memory required for data: 9248080
I0502 04:06:09.089607 18389 layer_factory.hpp:77] Creating layer relu3
I0502 04:06:09.089613 18389 net.cpp:94] Creating Layer relu3
I0502 04:06:09.089617 18389 net.cpp:435] relu3 <- conv3
I0502 04:06:09.089622 18389 net.cpp:396] relu3 -> conv3 (in-place)
I0502 04:06:09.089629 18389 net.cpp:144] Setting up relu3
I0502 04:06:09.089633 18389 net.cpp:151] Top shape: 20 64 10 10 (128000)
I0502 04:06:09.089637 18389 net.cpp:159] Memory required for data: 9760080
I0502 04:06:09.089640 18389 layer_factory.hpp:77] Creating layer conv4
I0502 04:06:09.089648 18389 net.cpp:94] Creating Layer conv4
I0502 04:06:09.089653 18389 net.cpp:435] conv4 <- conv3
I0502 04:06:09.089658 18389 net.cpp:409] conv4 -> conv4
I0502 04:06:09.095082 18389 net.cpp:144] Setting up conv4
I0502 04:06:09.095095 18389 net.cpp:151] Top shape: 20 64 10 10 (128000)
I0502 04:06:09.095098 18389 net.cpp:159] Memory required for data: 10272080
I0502 04:06:09.095105 18389 layer_factory.hpp:77] Creating layer relu4
I0502 04:06:09.095111 18389 net.cpp:94] Creating Layer relu4
I0502 04:06:09.095114 18389 net.cpp:435] relu4 <- conv4
I0502 04:06:09.095119 18389 net.cpp:396] relu4 -> conv4 (in-place)
I0502 04:06:09.095126 18389 net.cpp:144] Setting up relu4
I0502 04:06:09.095131 18389 net.cpp:151] Top shape: 20 64 10 10 (128000)
I0502 04:06:09.095134 18389 net.cpp:159] Memory required for data: 10784080
I0502 04:06:09.095137 18389 layer_factory.hpp:77] Creating layer conv5
I0502 04:06:09.095145 18389 net.cpp:94] Creating Layer conv5
I0502 04:06:09.095149 18389 net.cpp:435] conv5 <- conv4
I0502 04:06:09.095155 18389 net.cpp:409] conv5 -> conv5
I0502 04:06:09.100275 18389 net.cpp:144] Setting up conv5
I0502 04:06:09.100288 18389 net.cpp:151] Top shape: 20 64 10 10 (128000)
I0502 04:06:09.100292 18389 net.cpp:159] Memory required for data: 11296080
I0502 04:06:09.100301 18389 layer_factory.hpp:77] Creating layer relu5
I0502 04:06:09.100306 18389 net.cpp:94] Creating Layer relu5
I0502 04:06:09.100311 18389 net.cpp:435] relu5 <- conv5
I0502 04:06:09.100314 18389 net.cpp:396] relu5 -> conv5 (in-place)
I0502 04:06:09.100322 18389 net.cpp:144] Setting up relu5
I0502 04:06:09.100327 18389 net.cpp:151] Top shape: 20 64 10 10 (128000)
I0502 04:06:09.100329 18389 net.cpp:159] Memory required for data: 11808080
I0502 04:06:09.100332 18389 layer_factory.hpp:77] Creating layer pool5
I0502 04:06:09.100337 18389 net.cpp:94] Creating Layer pool5
I0502 04:06:09.100340 18389 net.cpp:435] pool5 <- conv5
I0502 04:06:09.100344 18389 net.cpp:409] pool5 -> pool5
I0502 04:06:09.100380 18389 net.cpp:144] Setting up pool5
I0502 04:06:09.100388 18389 net.cpp:151] Top shape: 20 64 5 5 (32000)
I0502 04:06:09.100390 18389 net.cpp:159] Memory required for data: 11936080
I0502 04:06:09.100394 18389 layer_factory.hpp:77] Creating layer ip1
I0502 04:06:09.100402 18389 net.cpp:94] Creating Layer ip1
I0502 04:06:09.100405 18389 net.cpp:435] ip1 <- pool5
I0502 04:06:09.100410 18389 net.cpp:409] ip1 -> ip1
I0502 04:06:09.102905 18389 net.cpp:144] Setting up ip1
I0502 04:06:09.102913 18389 net.cpp:151] Top shape: 20 64 (1280)
I0502 04:06:09.102917 18389 net.cpp:159] Memory required for data: 11941200
I0502 04:06:09.102922 18389 layer_factory.hpp:77] Creating layer ip2
I0502 04:06:09.102928 18389 net.cpp:94] Creating Layer ip2
I0502 04:06:09.102936 18389 net.cpp:435] ip2 <- ip1
I0502 04:06:09.102941 18389 net.cpp:409] ip2 -> ip2
I0502 04:06:09.103104 18389 net.cpp:144] Setting up ip2
I0502 04:06:09.103111 18389 net.cpp:151] Top shape: 20 64 (1280)
I0502 04:06:09.103113 18389 net.cpp:159] Memory required for data: 11946320
I0502 04:06:09.103118 18389 layer_factory.hpp:77] Creating layer ip3
I0502 04:06:09.103124 18389 net.cpp:94] Creating Layer ip3
I0502 04:06:09.103127 18389 net.cpp:435] ip3 <- ip2
I0502 04:06:09.103132 18389 net.cpp:409] ip3 -> ip3
I0502 04:06:09.103193 18389 net.cpp:144] Setting up ip3
I0502 04:06:09.103204 18389 net.cpp:151] Top shape: 20 1 (20)
I0502 04:06:09.103206 18389 net.cpp:159] Memory required for data: 11946400
I0502 04:06:09.103211 18389 layer_factory.hpp:77] Creating layer loss
I0502 04:06:09.103219 18389 net.cpp:94] Creating Layer loss
I0502 04:06:09.103222 18389 net.cpp:435] loss <- ip3
I0502 04:06:09.103225 18389 net.cpp:435] loss <- label
I0502 04:06:09.103231 18389 net.cpp:409] loss -> loss
I0502 04:06:09.103266 18389 net.cpp:144] Setting up loss
…
