…
I0507 21:35:02.033174  7684 net.cpp:323] The NetState phase (0) differed from the phase (1) specified by a rule in layer intercept
I0507 21:35:02.033190  7684 net.cpp:323] The NetState phase (0) differed from the phase (1) specified by a rule in layer loss
I0507 21:35:02.033268  7684 net.cpp:52] Initializing net from parameters: 
state {
  phase: TRAIN
}
layer {
  name: "parameters"
  type: "HDF5Data"
  top: "data"
  top: "label"
  include {
    phase: TRAIN
  }
  hdf5_data_param {
    source: "/home/purduethu/scratch/radon/d/deng106/CNNStatisticalModel/distributions/input/20_distributions_100_sample_size_train-parameters-path.txt"
    batch_size: 20
  }
}
layer {
  name: "conv1"
  type: "Convolution"
  bottom: "data"
  top: "conv1"
  param {
    lr_mult: 1
  }
  param {
    lr_mult: 2
  }
  convolution_param {
    num_output: 64
    pad: 2
    kernel_size: 5
    stride: 1
    weight_filler {
      type: "gaussian"
      std: 0.0001
    }
    bias_filler {
      type: "constant"
    }
  }
}
layer {
  name: "relu1"
  type: "ReLU"
  bottom: "conv1"
  top: "conv1"
}
layer {
  name: "conv2"
  type: "Convolution"
  bottom: "conv1"
  top: "conv2"
  param {
    lr_mult: 1
  }
  param {
    lr_mult: 2
  }
  convolution_param {
    num_output: 64
    pad: 2
    kernel_size: 5
    stride: 1
    weight_filler {
      type: "gaussian"
      std: 0.01
    }
    bias_filler {
      type: "constant"
    }
  }
}
layer {
  name: "relu2"
  type: "ReLU"
  bottom: "conv2"
  top: "conv2"
}
layer {
  name: "pool2"
  type: "Pooling"
  bottom: "conv2"
  top: "pool2"
  pooling_param {
    pool: MAX
    kernel_size: 3
    stride: 2
  }
}
layer {
  name: "conv3"
  type: "Convolution"
  bottom: "pool2"
  top: "conv3"
  param {
    lr_mult: 1
  }
  param {
    lr_mult: 2
  }
  convolution_param {
    num_output: 64
    pad: 2
    kernel_size: 5
    stride: 1
    weight_filler {
      type: "gaussian"
      std: 0.01
    }
    bias_filler {
      type: "constant"
    }
  }
}
layer {
  name: "relu3"
  type: "ReLU"
  bottom: "conv3"
  top: "conv3"
}
layer {
  name: "conv4"
  type: "Convolution"
  bottom: "conv3"
  top: "conv4"
  param {
    lr_mult: 1
  }
  param {
    lr_mult: 2
  }
  convolution_param {
    num_output: 64
    pad: 2
    kernel_size: 5
    stride: 1
    weight_filler {
      type: "gaussian"
      std: 0.01
    }
    bias_filler {
      type: "constant"
    }
  }
}
layer {
  name: "relu4"
  type: "ReLU"
  bottom: "conv4"
  top: "conv4"
}
layer {
  name: "conv5"
  type: "Convolution"
  bottom: "conv4"
  top: "conv5"
  param {
    lr_mult: 1
  }
  param {
    lr_mult: 2
  }
  convolution_param {
    num_output: 64
    pad: 2
    kernel_size: 5
    stride: 1
    weight_filler {
      type: "gaussian"
      std: 0.01
    }
    bias_filler {
      type: "constant"
    }
  }
}
layer {
  name: "relu5"
  type: "ReLU"
  bottom: "conv5"
  top: "conv5"
}
layer {
  name: "pool5"
  type: "Pooling"
  bottom: "conv5"
  top: "pool5"
  pooling_param {
    pool: AVE
    kernel_size: 3
    stride: 2
  }
}
layer {
  name: "ip1"
  type: "InnerProduct"
  bottom: "pool5"
  top: "ip1"
  param {
    lr_mult: 1
  }
  param {
    lr_mult: 2
  }
  inner_product_param {
    num_output: 64
    weight_filler {
      type: "gaussian"
      std: 0.1
    }
    bias_filler {
      type: "constant"
    }
  }
}
layer {
  name: "ip2"
  type: "InnerProduct"
  bottom: "ip1"
  top: "ip2"
  param {
    lr_mult: 1
  }
  param {
    lr_mult: 2
  }
  inner_product_param {
    num_output: 64
    weight_filler {
      type: "gaussian"
      std: 0.1
    }
    bias_filler {
      type: "constant"
    }
  }
}
layer {
  name: "ip3"
  type: "InnerProduct"
  bottom: "ip2"
  top: "ip3"
  param {
    lr_mult: 1
  }
  param {
    lr_mult: 2
  }
  inner_product_param {
    num_output: 1
    weight_filler {
      type: "gaussian"
      std: 0.1
    }
    bias_filler {
      type: "constant"
    }
  }
}
layer {
  name: "loss"
  type: "HuberLoss"
  bottom: "ip3"
  bottom: "label"
  top: "loss"
  include {
    phase: TRAIN
  }
}
I0507 21:35:02.033324  7684 layer_factory.hpp:77] Creating layer parameters
I0507 21:35:02.033341  7684 net.cpp:94] Creating Layer parameters
I0507 21:35:02.033345  7684 net.cpp:409] parameters -> data
I0507 21:35:02.033355  7684 net.cpp:409] parameters -> label
I0507 21:35:02.033361  7684 hdf5_data_layer.cpp:79] Loading list of HDF5 filenames from: /home/purduethu/scratch/radon/d/deng106/CNNStatisticalModel/distributions/input/20_distributions_100_sample_size_train-parameters-path.txt
I0507 21:35:02.033376  7684 hdf5_data_layer.cpp:93] Number of HDF5 files: 1
I0507 21:35:02.033942  7684 hdf5.cpp:32] Datatype class: H5T_FLOAT
I0507 21:35:02.101893  7684 net.cpp:144] Setting up parameters
I0507 21:35:02.101922  7684 net.cpp:151] Top shape: 20 1 10 10 (2000)
I0507 21:35:02.101927  7684 net.cpp:151] Top shape: 20 (20)
I0507 21:35:02.101932  7684 net.cpp:159] Memory required for data: 8080
I0507 21:35:02.101936  7684 layer_factory.hpp:77] Creating layer conv1
I0507 21:35:02.101953  7684 net.cpp:94] Creating Layer conv1
I0507 21:35:02.101958  7684 net.cpp:435] conv1 <- data
I0507 21:35:02.101963  7684 net.cpp:409] conv1 -> conv1
I0507 21:35:02.105942  7684 net.cpp:144] Setting up conv1
I0507 21:35:02.105957  7684 net.cpp:151] Top shape: 20 64 10 10 (128000)
I0507 21:35:02.105959  7684 net.cpp:159] Memory required for data: 520080
I0507 21:35:02.105969  7684 layer_factory.hpp:77] Creating layer relu1
I0507 21:35:02.105976  7684 net.cpp:94] Creating Layer relu1
I0507 21:35:02.105979  7684 net.cpp:435] relu1 <- conv1
I0507 21:35:02.105983  7684 net.cpp:396] relu1 -> conv1 (in-place)
I0507 21:35:02.105990  7684 net.cpp:144] Setting up relu1
I0507 21:35:02.105995  7684 net.cpp:151] Top shape: 20 64 10 10 (128000)
I0507 21:35:02.105998  7684 net.cpp:159] Memory required for data: 1032080
I0507 21:35:02.106001  7684 layer_factory.hpp:77] Creating layer conv2
I0507 21:35:02.106009  7684 net.cpp:94] Creating Layer conv2
I0507 21:35:02.106012  7684 net.cpp:435] conv2 <- conv1
I0507 21:35:02.106016  7684 net.cpp:409] conv2 -> conv2
I0507 21:35:02.111126  7684 net.cpp:144] Setting up conv2
I0507 21:35:02.111140  7684 net.cpp:151] Top shape: 20 64 10 10 (128000)
I0507 21:35:02.111143  7684 net.cpp:159] Memory required for data: 1544080
I0507 21:35:02.111151  7684 layer_factory.hpp:77] Creating layer relu2
I0507 21:35:02.111157  7684 net.cpp:94] Creating Layer relu2
I0507 21:35:02.111160  7684 net.cpp:435] relu2 <- conv2
I0507 21:35:02.111166  7684 net.cpp:396] relu2 -> conv2 (in-place)
I0507 21:35:02.111171  7684 net.cpp:144] Setting up relu2
I0507 21:35:02.111176  7684 net.cpp:151] Top shape: 20 64 10 10 (128000)
I0507 21:35:02.111178  7684 net.cpp:159] Memory required for data: 2056080
I0507 21:35:02.111181  7684 layer_factory.hpp:77] Creating layer pool2
I0507 21:35:02.111193  7684 net.cpp:94] Creating Layer pool2
I0507 21:35:02.111197  7684 net.cpp:435] pool2 <- conv2
I0507 21:35:02.111202  7684 net.cpp:409] pool2 -> pool2
I0507 21:35:02.111250  7684 net.cpp:144] Setting up pool2
I0507 21:35:02.111258  7684 net.cpp:151] Top shape: 20 64 5 5 (32000)
I0507 21:35:02.111260  7684 net.cpp:159] Memory required for data: 2184080
I0507 21:35:02.111263  7684 layer_factory.hpp:77] Creating layer conv3
I0507 21:35:02.111271  7684 net.cpp:94] Creating Layer conv3
I0507 21:35:02.111275  7684 net.cpp:435] conv3 <- pool2
I0507 21:35:02.111279  7684 net.cpp:409] conv3 -> conv3
I0507 21:35:02.116001  7684 net.cpp:144] Setting up conv3
I0507 21:35:02.116015  7684 net.cpp:151] Top shape: 20 64 5 5 (32000)
I0507 21:35:02.116019  7684 net.cpp:159] Memory required for data: 2312080
I0507 21:35:02.116026  7684 layer_factory.hpp:77] Creating layer relu3
I0507 21:35:02.116032  7684 net.cpp:94] Creating Layer relu3
I0507 21:35:02.116035  7684 net.cpp:435] relu3 <- conv3
I0507 21:35:02.116040  7684 net.cpp:396] relu3 -> conv3 (in-place)
I0507 21:35:02.116046  7684 net.cpp:144] Setting up relu3
I0507 21:35:02.116050  7684 net.cpp:151] Top shape: 20 64 5 5 (32000)
I0507 21:35:02.116053  7684 net.cpp:159] Memory required for data: 2440080
I0507 21:35:02.116056  7684 layer_factory.hpp:77] Creating layer conv4
I0507 21:35:02.116065  7684 net.cpp:94] Creating Layer conv4
I0507 21:35:02.116068  7684 net.cpp:435] conv4 <- conv3
I0507 21:35:02.116072  7684 net.cpp:409] conv4 -> conv4
I0507 21:35:02.120352  7684 net.cpp:144] Setting up conv4
I0507 21:35:02.120365  7684 net.cpp:151] Top shape: 20 64 5 5 (32000)
I0507 21:35:02.120368  7684 net.cpp:159] Memory required for data: 2568080
I0507 21:35:02.120374  7684 layer_factory.hpp:77] Creating layer relu4
I0507 21:35:02.120380  7684 net.cpp:94] Creating Layer relu4
I0507 21:35:02.120383  7684 net.cpp:435] relu4 <- conv4
I0507 21:35:02.120388  7684 net.cpp:396] relu4 -> conv4 (in-place)
I0507 21:35:02.120394  7684 net.cpp:144] Setting up relu4
I0507 21:35:02.120398  7684 net.cpp:151] Top shape: 20 64 5 5 (32000)
I0507 21:35:02.120401  7684 net.cpp:159] Memory required for data: 2696080
I0507 21:35:02.120404  7684 layer_factory.hpp:77] Creating layer conv5
I0507 21:35:02.120412  7684 net.cpp:94] Creating Layer conv5
I0507 21:35:02.120415  7684 net.cpp:435] conv5 <- conv4
I0507 21:35:02.120419  7684 net.cpp:409] conv5 -> conv5
I0507 21:35:02.125959  7684 net.cpp:144] Setting up conv5
I0507 21:35:02.125973  7684 net.cpp:151] Top shape: 20 64 5 5 (32000)
I0507 21:35:02.125977  7684 net.cpp:159] Memory required for data: 2824080
I0507 21:35:02.125985  7684 layer_factory.hpp:77] Creating layer relu5
I0507 21:35:02.125990  7684 net.cpp:94] Creating Layer relu5
I0507 21:35:02.125994  7684 net.cpp:435] relu5 <- conv5
I0507 21:35:02.125998  7684 net.cpp:396] relu5 -> conv5 (in-place)
I0507 21:35:02.126004  7684 net.cpp:144] Setting up relu5
I0507 21:35:02.126009  7684 net.cpp:151] Top shape: 20 64 5 5 (32000)
I0507 21:35:02.126013  7684 net.cpp:159] Memory required for data: 2952080
I0507 21:35:02.126014  7684 layer_factory.hpp:77] Creating layer pool5
I0507 21:35:02.126019  7684 net.cpp:94] Creating Layer pool5
I0507 21:35:02.126022  7684 net.cpp:435] pool5 <- conv5
I0507 21:35:02.126026  7684 net.cpp:409] pool5 -> pool5
I0507 21:35:02.126061  7684 net.cpp:144] Setting up pool5
I0507 21:35:02.126068  7684 net.cpp:151] Top shape: 20 64 2 2 (5120)
I0507 21:35:02.126071  7684 net.cpp:159] Memory required for data: 2972560
I0507 21:35:02.126075  7684 layer_factory.hpp:77] Creating layer ip1
I0507 21:35:02.126083  7684 net.cpp:94] Creating Layer ip1
I0507 21:35:02.126087  7684 net.cpp:435] ip1 <- pool5
I0507 21:35:02.126091  7684 net.cpp:409] ip1 -> ip1
I0507 21:35:02.127393  7684 net.cpp:144] Setting up ip1
I0507 21:35:02.127405  7684 net.cpp:151] Top shape: 20 64 (1280)
I0507 21:35:02.127409  7684 net.cpp:159] Memory required for data: 2977680
I0507 21:35:02.127415  7684 layer_factory.hpp:77] Creating layer ip2
I0507 21:35:02.127423  7684 net.cpp:94] Creating Layer ip2
I0507 21:35:02.127429  7684 net.cpp:435] ip2 <- ip1
I0507 21:35:02.127435  7684 net.cpp:409] ip2 -> ip2
I0507 21:35:02.127641  7684 net.cpp:144] Setting up ip2
I0507 21:35:02.127648  7684 net.cpp:151] Top shape: 20 64 (1280)
I0507 21:35:02.127651  7684 net.cpp:159] Memory required for data: 2982800
I0507 21:35:02.127656  7684 layer_factory.hpp:77] Creating layer ip3
I0507 21:35:02.127661  7684 net.cpp:94] Creating Layer ip3
I0507 21:35:02.127665  7684 net.cpp:435] ip3 <- ip2
I0507 21:35:02.127670  7684 net.cpp:409] ip3 -> ip3
I0507 21:35:02.127766  7684 net.cpp:144] Setting up ip3
I0507 21:35:02.127773  7684 net.cpp:151] Top shape: 20 1 (20)
I0507 21:35:02.127775  7684 net.cpp:159] Memory required for data: 2982880
I0507 21:35:02.127780  7684 layer_factory.hpp:77] Creating layer loss
I0507 21:35:02.127791  7684 net.cpp:94] Creating Layer loss
I0507 21:35:02.127794  7684 net.cpp:435] loss <- ip3
I0507 21:35:02.127799  7684 net.cpp:435] loss <- label
I0507 21:35:02.127802  7684 net.cpp:409] loss -> loss
I0507 21:35:02.127851  7684 net.cpp:144] Setting up loss
…
I0507 21:35:02.164587  7684 net.cpp:323] The NetState phase (0) differed from the phase (1) specified by a rule in layer intercept
I0507 21:35:02.164604  7684 net.cpp:323] The NetState phase (0) differed from the phase (1) specified by a rule in layer accuracy
I0507 21:35:02.164693  7684 net.cpp:52] Initializing net from parameters: 
state {
  phase: TRAIN
}
layer {
  name: "parameters"
  type: "HDF5Data"
  top: "data"
  top: "label"
  include {
    phase: TRAIN
  }
  hdf5_data_param {
    source: "/home/purduethu/scratch/radon/d/deng106/CNNStatisticalModel/distributions/input/20_distributions_100_sample_size_train-distributions-path.txt"
    batch_size: 20
  }
}
layer {
  name: "conv1"
  type: "Convolution"
  bottom: "data"
  top: "conv1"
  param {
    lr_mult: 1
  }
  param {
    lr_mult: 2
  }
  convolution_param {
    num_output: 64
    pad: 2
    kernel_size: 5
    stride: 1
    weight_filler {
      type: "gaussian"
      std: 0.0001
    }
    bias_filler {
      type: "constant"
    }
  }
}
layer {
  name: "relu1"
  type: "ReLU"
  bottom: "conv1"
  top: "conv1"
}
layer {
  name: "conv2"
  type: "Convolution"
  bottom: "conv1"
  top: "conv2"
  param {
    lr_mult: 1
  }
  param {
    lr_mult: 2
  }
  convolution_param {
    num_output: 64
    pad: 2
    kernel_size: 5
    stride: 1
    weight_filler {
      type: "gaussian"
      std: 0.01
    }
    bias_filler {
      type: "constant"
    }
  }
}
layer {
  name: "relu2"
  type: "ReLU"
  bottom: "conv2"
  top: "conv2"
}
layer {
  name: "pool2"
  type: "Pooling"
  bottom: "conv2"
  top: "pool2"
  pooling_param {
    pool: MAX
    kernel_size: 3
    stride: 2
  }
}
layer {
  name: "conv3"
  type: "Convolution"
  bottom: "pool2"
  top: "conv3"
  param {
    lr_mult: 1
  }
  param {
    lr_mult: 2
  }
  convolution_param {
    num_output: 64
    pad: 2
    kernel_size: 5
    stride: 1
    weight_filler {
      type: "gaussian"
      std: 0.01
    }
    bias_filler {
      type: "constant"
    }
  }
}
layer {
  name: "relu3"
  type: "ReLU"
  bottom: "conv3"
  top: "conv3"
}
layer {
  name: "conv4"
  type: "Convolution"
  bottom: "conv3"
  top: "conv4"
  param {
    lr_mult: 1
  }
  param {
    lr_mult: 2
  }
  convolution_param {
    num_output: 64
    pad: 2
    kernel_size: 5
    stride: 1
    weight_filler {
      type: "gaussian"
      std: 0.01
    }
    bias_filler {
      type: "constant"
    }
  }
}
layer {
  name: "relu4"
  type: "ReLU"
  bottom: "conv4"
  top: "conv4"
}
layer {
  name: "conv5"
  type: "Convolution"
  bottom: "conv4"
  top: "conv5"
  param {
    lr_mult: 1
  }
  param {
    lr_mult: 2
  }
  convolution_param {
    num_output: 64
    pad: 2
    kernel_size: 5
    stride: 1
    weight_filler {
      type: "gaussian"
      std: 0.01
    }
    bias_filler {
      type: "constant"
    }
  }
}
layer {
  name: "relu5"
  type: "ReLU"
  bottom: "conv5"
  top: "conv5"
}
layer {
  name: "pool5"
  type: "Pooling"
  bottom: "conv5"
  top: "pool5"
  pooling_param {
    pool: AVE
    kernel_size: 3
    stride: 2
  }
}
layer {
  name: "ip1"
  type: "InnerProduct"
  bottom: "pool5"
  top: "ip1"
  param {
    lr_mult: 1
  }
  param {
    lr_mult: 2
  }
  inner_product_param {
    num_output: 64
    weight_filler {
      type: "gaussian"
      std: 0.1
    }
    bias_filler {
      type: "constant"
    }
  }
}
layer {
  name: "ip2"
  type: "InnerProduct"
  bottom: "ip1"
  top: "ip2"
  param {
    lr_mult: 1
  }
  param {
    lr_mult: 2
  }
  inner_product_param {
    num_output: 64
    weight_filler {
      type: "gaussian"
      std: 0.1
    }
    bias_filler {
      type: "constant"
    }
  }
}
layer {
  name: "ip3"
  type: "InnerProduct"
  bottom: "ip2"
  top: "ip3"
  param {
    lr_mult: 1
  }
  param {
    lr_mult: 2
  }
  inner_product_param {
    num_output: 50
    weight_filler {
      type: "gaussian"
      std: 0.1
    }
    bias_filler {
      type: "constant"
    }
  }
}
layer {
  name: "loss"
  type: "SoftmaxWithLoss"
  bottom: "ip3"
  bottom: "label"
  top: "loss"
}
I0507 21:35:02.164744  7684 layer_factory.hpp:77] Creating layer parameters
I0507 21:35:02.164752  7684 net.cpp:94] Creating Layer parameters
I0507 21:35:02.164757  7684 net.cpp:409] parameters -> data
I0507 21:35:02.164762  7684 net.cpp:409] parameters -> label
I0507 21:35:02.164768  7684 hdf5_data_layer.cpp:79] Loading list of HDF5 filenames from: /home/purduethu/scratch/radon/d/deng106/CNNStatisticalModel/distributions/input/20_distributions_100_sample_size_train-distributions-path.txt
I0507 21:35:02.164783  7684 hdf5_data_layer.cpp:93] Number of HDF5 files: 1
I0507 21:35:02.230542  7684 hdf5.cpp:35] Datatype class: H5T_INTEGER
I0507 21:35:02.232476  7684 net.cpp:144] Setting up parameters
I0507 21:35:02.232493  7684 net.cpp:151] Top shape: 20 1 10 10 (2000)
I0507 21:35:02.232497  7684 net.cpp:151] Top shape: 20 (20)
I0507 21:35:02.232501  7684 net.cpp:159] Memory required for data: 8080
I0507 21:35:02.232507  7684 layer_factory.hpp:77] Creating layer conv1
I0507 21:35:02.232522  7684 net.cpp:94] Creating Layer conv1
I0507 21:35:02.232527  7684 net.cpp:435] conv1 <- data
I0507 21:35:02.232533  7684 net.cpp:409] conv1 -> conv1
I0507 21:35:02.234228  7684 net.cpp:144] Setting up conv1
I0507 21:35:02.234242  7684 net.cpp:151] Top shape: 20 64 10 10 (128000)
I0507 21:35:02.234246  7684 net.cpp:159] Memory required for data: 520080
I0507 21:35:02.234256  7684 layer_factory.hpp:77] Creating layer relu1
I0507 21:35:02.234262  7684 net.cpp:94] Creating Layer relu1
I0507 21:35:02.234266  7684 net.cpp:435] relu1 <- conv1
I0507 21:35:02.234271  7684 net.cpp:396] relu1 -> conv1 (in-place)
I0507 21:35:02.234277  7684 net.cpp:144] Setting up relu1
I0507 21:35:02.234282  7684 net.cpp:151] Top shape: 20 64 10 10 (128000)
I0507 21:35:02.234284  7684 net.cpp:159] Memory required for data: 1032080
I0507 21:35:02.234287  7684 layer_factory.hpp:77] Creating layer conv2
I0507 21:35:02.234294  7684 net.cpp:94] Creating Layer conv2
I0507 21:35:02.234297  7684 net.cpp:435] conv2 <- conv1
I0507 21:35:02.234302  7684 net.cpp:409] conv2 -> conv2
I0507 21:35:02.240753  7684 net.cpp:144] Setting up conv2
I0507 21:35:02.240767  7684 net.cpp:151] Top shape: 20 64 10 10 (128000)
I0507 21:35:02.240770  7684 net.cpp:159] Memory required for data: 1544080
I0507 21:35:02.240778  7684 layer_factory.hpp:77] Creating layer relu2
I0507 21:35:02.240784  7684 net.cpp:94] Creating Layer relu2
I0507 21:35:02.240788  7684 net.cpp:435] relu2 <- conv2
I0507 21:35:02.240792  7684 net.cpp:396] relu2 -> conv2 (in-place)
I0507 21:35:02.240798  7684 net.cpp:144] Setting up relu2
I0507 21:35:02.240803  7684 net.cpp:151] Top shape: 20 64 10 10 (128000)
I0507 21:35:02.240805  7684 net.cpp:159] Memory required for data: 2056080
I0507 21:35:02.240808  7684 layer_factory.hpp:77] Creating layer pool2
I0507 21:35:02.240814  7684 net.cpp:94] Creating Layer pool2
I0507 21:35:02.240818  7684 net.cpp:435] pool2 <- conv2
I0507 21:35:02.240821  7684 net.cpp:409] pool2 -> pool2
I0507 21:35:02.240870  7684 net.cpp:144] Setting up pool2
I0507 21:35:02.240877  7684 net.cpp:151] Top shape: 20 64 5 5 (32000)
I0507 21:35:02.240880  7684 net.cpp:159] Memory required for data: 2184080
I0507 21:35:02.240883  7684 layer_factory.hpp:77] Creating layer conv3
I0507 21:35:02.240890  7684 net.cpp:94] Creating Layer conv3
I0507 21:35:02.240893  7684 net.cpp:435] conv3 <- pool2
I0507 21:35:02.240898  7684 net.cpp:409] conv3 -> conv3
I0507 21:35:02.245779  7684 net.cpp:144] Setting up conv3
I0507 21:35:02.245793  7684 net.cpp:151] Top shape: 20 64 5 5 (32000)
I0507 21:35:02.245797  7684 net.cpp:159] Memory required for data: 2312080
I0507 21:35:02.245805  7684 layer_factory.hpp:77] Creating layer relu3
I0507 21:35:02.245810  7684 net.cpp:94] Creating Layer relu3
I0507 21:35:02.245813  7684 net.cpp:435] relu3 <- conv3
I0507 21:35:02.245818  7684 net.cpp:396] relu3 -> conv3 (in-place)
I0507 21:35:02.245824  7684 net.cpp:144] Setting up relu3
I0507 21:35:02.245829  7684 net.cpp:151] Top shape: 20 64 5 5 (32000)
I0507 21:35:02.245831  7684 net.cpp:159] Memory required for data: 2440080
I0507 21:35:02.245834  7684 layer_factory.hpp:77] Creating layer conv4
I0507 21:35:02.245842  7684 net.cpp:94] Creating Layer conv4
I0507 21:35:02.245846  7684 net.cpp:435] conv4 <- conv3
I0507 21:35:02.245851  7684 net.cpp:409] conv4 -> conv4
I0507 21:35:02.250661  7684 net.cpp:144] Setting up conv4
I0507 21:35:02.250675  7684 net.cpp:151] Top shape: 20 64 5 5 (32000)
I0507 21:35:02.250679  7684 net.cpp:159] Memory required for data: 2568080
I0507 21:35:02.250685  7684 layer_factory.hpp:77] Creating layer relu4
I0507 21:35:02.250690  7684 net.cpp:94] Creating Layer relu4
I0507 21:35:02.250694  7684 net.cpp:435] relu4 <- conv4
I0507 21:35:02.250699  7684 net.cpp:396] relu4 -> conv4 (in-place)
I0507 21:35:02.250705  7684 net.cpp:144] Setting up relu4
I0507 21:35:02.250710  7684 net.cpp:151] Top shape: 20 64 5 5 (32000)
I0507 21:35:02.250711  7684 net.cpp:159] Memory required for data: 2696080
I0507 21:35:02.250715  7684 layer_factory.hpp:77] Creating layer conv5
I0507 21:35:02.250722  7684 net.cpp:94] Creating Layer conv5
I0507 21:35:02.250726  7684 net.cpp:435] conv5 <- conv4
I0507 21:35:02.250730  7684 net.cpp:409] conv5 -> conv5
I0507 21:35:02.255915  7684 net.cpp:144] Setting up conv5
I0507 21:35:02.255929  7684 net.cpp:151] Top shape: 20 64 5 5 (32000)
I0507 21:35:02.255933  7684 net.cpp:159] Memory required for data: 2824080
I0507 21:35:02.255940  7684 layer_factory.hpp:77] Creating layer relu5
I0507 21:35:02.255946  7684 net.cpp:94] Creating Layer relu5
I0507 21:35:02.255950  7684 net.cpp:435] relu5 <- conv5
I0507 21:35:02.255954  7684 net.cpp:396] relu5 -> conv5 (in-place)
I0507 21:35:02.255960  7684 net.cpp:144] Setting up relu5
I0507 21:35:02.255965  7684 net.cpp:151] Top shape: 20 64 5 5 (32000)
I0507 21:35:02.255969  7684 net.cpp:159] Memory required for data: 2952080
I0507 21:35:02.255971  7684 layer_factory.hpp:77] Creating layer pool5
I0507 21:35:02.255975  7684 net.cpp:94] Creating Layer pool5
I0507 21:35:02.255978  7684 net.cpp:435] pool5 <- conv5
I0507 21:35:02.255982  7684 net.cpp:409] pool5 -> pool5
I0507 21:35:02.256016  7684 net.cpp:144] Setting up pool5
I0507 21:35:02.256022  7684 net.cpp:151] Top shape: 20 64 2 2 (5120)
I0507 21:35:02.256026  7684 net.cpp:159] Memory required for data: 2972560
I0507 21:35:02.256028  7684 layer_factory.hpp:77] Creating layer ip1
I0507 21:35:02.256034  7684 net.cpp:94] Creating Layer ip1
I0507 21:35:02.256037  7684 net.cpp:435] ip1 <- pool5
I0507 21:35:02.256042  7684 net.cpp:409] ip1 -> ip1
I0507 21:35:02.256561  7684 net.cpp:144] Setting up ip1
I0507 21:35:02.256573  7684 net.cpp:151] Top shape: 20 64 (1280)
I0507 21:35:02.256579  7684 net.cpp:159] Memory required for data: 2977680
I0507 21:35:02.256584  7684 layer_factory.hpp:77] Creating layer ip2
I0507 21:35:02.256592  7684 net.cpp:94] Creating Layer ip2
I0507 21:35:02.256594  7684 net.cpp:435] ip2 <- ip1
I0507 21:35:02.256599  7684 net.cpp:409] ip2 -> ip2
I0507 21:35:02.256814  7684 net.cpp:144] Setting up ip2
I0507 21:35:02.256821  7684 net.cpp:151] Top shape: 20 64 (1280)
I0507 21:35:02.256824  7684 net.cpp:159] Memory required for data: 2982800
I0507 21:35:02.256829  7684 layer_factory.hpp:77] Creating layer ip3
I0507 21:35:02.256835  7684 net.cpp:94] Creating Layer ip3
I0507 21:35:02.256839  7684 net.cpp:435] ip3 <- ip2
I0507 21:35:02.256842  7684 net.cpp:409] ip3 -> ip3
I0507 21:35:02.257026  7684 net.cpp:144] Setting up ip3
I0507 21:35:02.257033  7684 net.cpp:151] Top shape: 20 50 (1000)
I0507 21:35:02.257040  7684 net.cpp:159] Memory required for data: 2986800
I0507 21:35:02.257045  7684 layer_factory.hpp:77] Creating layer loss
I0507 21:35:02.257052  7684 net.cpp:94] Creating Layer loss
I0507 21:35:02.257055  7684 net.cpp:435] loss <- ip3
I0507 21:35:02.257060  7684 net.cpp:435] loss <- label
I0507 21:35:02.257063  7684 net.cpp:409] loss -> loss
I0507 21:35:02.257069  7684 layer_factory.hpp:77] Creating layer loss
…
I0507 21:35:02.258399  7684 solver.cpp:181] Creating test net (#0) specified by net file: ./protocol/dis_20_100_dimension.protocol_distribution
I0507 21:35:02.258424  7684 net.cpp:323] The NetState phase (1) differed from the phase (0) specified by a rule in layer parameters
I0507 21:35:02.258518  7684 net.cpp:52] Initializing net from parameters: 
state {
  phase: TEST
}
layer {
  name: "intercept"
  type: "HDF5Data"
  top: "data"
  top: "label"
  include {
    phase: TEST
  }
  hdf5_data_param {
    source: "/home/purduethu/scratch/radon/d/deng106/CNNStatisticalModel/distributions/input/20_distributions_100_sample_size_test-distributions-path.txt"
    batch_size: 20
  }
}
layer {
  name: "conv1"
  type: "Convolution"
  bottom: "data"
  top: "conv1"
  param {
    lr_mult: 1
  }
  param {
    lr_mult: 2
  }
  convolution_param {
    num_output: 64
    pad: 2
    kernel_size: 5
    stride: 1
    weight_filler {
      type: "gaussian"
      std: 0.0001
    }
    bias_filler {
      type: "constant"
    }
  }
}
layer {
  name: "relu1"
  type: "ReLU"
  bottom: "conv1"
  top: "conv1"
}
layer {
  name: "conv2"
  type: "Convolution"
  bottom: "conv1"
  top: "conv2"
  param {
    lr_mult: 1
  }
  param {
    lr_mult: 2
  }
  convolution_param {
    num_output: 64
    pad: 2
    kernel_size: 5
    stride: 1
    weight_filler {
      type: "gaussian"
      std: 0.01
    }
    bias_filler {
      type: "constant"
    }
  }
}
layer {
  name: "relu2"
  type: "ReLU"
  bottom: "conv2"
  top: "conv2"
}
layer {
  name: "pool2"
  type: "Pooling"
  bottom: "conv2"
  top: "pool2"
  pooling_param {
    pool: MAX
    kernel_size: 3
    stride: 2
  }
}
layer {
  name: "conv3"
  type: "Convolution"
  bottom: "pool2"
  top: "conv3"
  param {
    lr_mult: 1
  }
  param {
    lr_mult: 2
  }
  convolution_param {
    num_output: 64
    pad: 2
    kernel_size: 5
    stride: 1
    weight_filler {
      type: "gaussian"
      std: 0.01
    }
    bias_filler {
      type: "constant"
    }
  }
}
layer {
  name: "relu3"
  type: "ReLU"
  bottom: "conv3"
  top: "conv3"
}
layer {
  name: "conv4"
  type: "Convolution"
  bottom: "conv3"
  top: "conv4"
  param {
    lr_mult: 1
  }
  param {
    lr_mult: 2
  }
  convolution_param {
    num_output: 64
    pad: 2
    kernel_size: 5
    stride: 1
    weight_filler {
      type: "gaussian"
      std: 0.01
    }
    bias_filler {
      type: "constant"
    }
  }
}
layer {
  name: "relu4"
  type: "ReLU"
  bottom: "conv4"
  top: "conv4"
}
layer {
  name: "conv5"
  type: "Convolution"
  bottom: "conv4"
  top: "conv5"
  param {
    lr_mult: 1
  }
  param {
    lr_mult: 2
  }
  convolution_param {
    num_output: 64
    pad: 2
    kernel_size: 5
    stride: 1
    weight_filler {
      type: "gaussian"
      std: 0.01
    }
    bias_filler {
      type: "constant"
    }
  }
}
layer {
  name: "relu5"
  type: "ReLU"
  bottom: "conv5"
  top: "conv5"
}
layer {
  name: "pool5"
  type: "Pooling"
  bottom: "conv5"
  top: "pool5"
  pooling_param {
    pool: AVE
    kernel_size: 3
    stride: 2
  }
}
layer {
  name: "ip1"
  type: "InnerProduct"
  bottom: "pool5"
  top: "ip1"
  param {
    lr_mult: 1
  }
  param {
    lr_mult: 2
  }
  inner_product_param {
    num_output: 64
    weight_filler {
      type: "gaussian"
      std: 0.1
    }
    bias_filler {
      type: "constant"
    }
  }
}
layer {
  name: "ip2"
  type: "InnerProduct"
  bottom: "ip1"
  top: "ip2"
  param {
    lr_mult: 1
  }
  param {
    lr_mult: 2
  }
  inner_product_param {
    num_output: 64
    weight_filler {
      type: "gaussian"
      std: 0.1
    }
    bias_filler {
      type: "constant"
    }
  }
}
layer {
  name: "ip3"
  type: "InnerProduct"
  bottom: "ip2"
  top: "ip3"
  param {
    lr_mult: 1
  }
  param {
    lr_mult: 2
  }
  inner_product_param {
    num_output: 50
    weight_filler {
      type: "gaussian"
      std: 0.1
    }
    bias_filler {
      type: "constant"
    }
  }
}
layer {
  name: "accuracy"
  type: "Accuracy"
  bottom: "ip3"
  bottom: "label"
  top: "accuracy"
  include {
    phase: TEST
  }
}
layer {
  name: "loss"
  type: "SoftmaxWithLoss"
  bottom: "ip3"
  bottom: "label"
  top: "loss"
}
I0507 21:35:02.258585  7684 layer_factory.hpp:77] Creating layer intercept
I0507 21:35:02.258594  7684 net.cpp:94] Creating Layer intercept
I0507 21:35:02.258597  7684 net.cpp:409] intercept -> data
I0507 21:35:02.258605  7684 net.cpp:409] intercept -> label
I0507 21:35:02.258610  7684 hdf5_data_layer.cpp:79] Loading list of HDF5 filenames from: /home/purduethu/scratch/radon/d/deng106/CNNStatisticalModel/distributions/input/20_distributions_100_sample_size_test-distributions-path.txt
I0507 21:35:02.258628  7684 hdf5_data_layer.cpp:93] Number of HDF5 files: 1
I0507 21:35:02.275916  7684 net.cpp:144] Setting up intercept
I0507 21:35:02.275950  7684 net.cpp:151] Top shape: 20 1 10 10 (2000)
I0507 21:35:02.275955  7684 net.cpp:151] Top shape: 20 (20)
I0507 21:35:02.275959  7684 net.cpp:159] Memory required for data: 8080
I0507 21:35:02.275964  7684 layer_factory.hpp:77] Creating layer label_intercept_1_split
I0507 21:35:02.275982  7684 net.cpp:94] Creating Layer label_intercept_1_split
I0507 21:35:02.275986  7684 net.cpp:435] label_intercept_1_split <- label
I0507 21:35:02.275992  7684 net.cpp:409] label_intercept_1_split -> label_intercept_1_split_0
I0507 21:35:02.276000  7684 net.cpp:409] label_intercept_1_split -> label_intercept_1_split_1
I0507 21:35:02.276038  7684 net.cpp:144] Setting up label_intercept_1_split
I0507 21:35:02.276044  7684 net.cpp:151] Top shape: 20 (20)
I0507 21:35:02.276047  7684 net.cpp:151] Top shape: 20 (20)
I0507 21:35:02.276051  7684 net.cpp:159] Memory required for data: 8240
I0507 21:35:02.276053  7684 layer_factory.hpp:77] Creating layer conv1
I0507 21:35:02.276063  7684 net.cpp:94] Creating Layer conv1
I0507 21:35:02.276067  7684 net.cpp:435] conv1 <- data
I0507 21:35:02.276072  7684 net.cpp:409] conv1 -> conv1
I0507 21:35:02.276854  7684 net.cpp:144] Setting up conv1
I0507 21:35:02.276867  7684 net.cpp:151] Top shape: 20 64 10 10 (128000)
I0507 21:35:02.276880  7684 net.cpp:159] Memory required for data: 520240
I0507 21:35:02.276890  7684 layer_factory.hpp:77] Creating layer relu1
I0507 21:35:02.276895  7684 net.cpp:94] Creating Layer relu1
I0507 21:35:02.276899  7684 net.cpp:435] relu1 <- conv1
I0507 21:35:02.276903  7684 net.cpp:396] relu1 -> conv1 (in-place)
I0507 21:35:02.276911  7684 net.cpp:144] Setting up relu1
I0507 21:35:02.276914  7684 net.cpp:151] Top shape: 20 64 10 10 (128000)
I0507 21:35:02.276917  7684 net.cpp:159] Memory required for data: 1032240
I0507 21:35:02.276919  7684 layer_factory.hpp:77] Creating layer conv2
I0507 21:35:02.276927  7684 net.cpp:94] Creating Layer conv2
I0507 21:35:02.276931  7684 net.cpp:435] conv2 <- conv1
I0507 21:35:02.276934  7684 net.cpp:409] conv2 -> conv2
I0507 21:35:02.280954  7684 net.cpp:144] Setting up conv2
I0507 21:35:02.280967  7684 net.cpp:151] Top shape: 20 64 10 10 (128000)
I0507 21:35:02.280972  7684 net.cpp:159] Memory required for data: 1544240
I0507 21:35:02.280978  7684 layer_factory.hpp:77] Creating layer relu2
I0507 21:35:02.280984  7684 net.cpp:94] Creating Layer relu2
I0507 21:35:02.280988  7684 net.cpp:435] relu2 <- conv2
I0507 21:35:02.280992  7684 net.cpp:396] relu2 -> conv2 (in-place)
I0507 21:35:02.280999  7684 net.cpp:144] Setting up relu2
I0507 21:35:02.281003  7684 net.cpp:151] Top shape: 20 64 10 10 (128000)
I0507 21:35:02.281005  7684 net.cpp:159] Memory required for data: 2056240
I0507 21:35:02.281008  7684 layer_factory.hpp:77] Creating layer pool2
I0507 21:35:02.281014  7684 net.cpp:94] Creating Layer pool2
I0507 21:35:02.281018  7684 net.cpp:435] pool2 <- conv2
I0507 21:35:02.281021  7684 net.cpp:409] pool2 -> pool2
I0507 21:35:02.281069  7684 net.cpp:144] Setting up pool2
I0507 21:35:02.281075  7684 net.cpp:151] Top shape: 20 64 5 5 (32000)
I0507 21:35:02.281078  7684 net.cpp:159] Memory required for data: 2184240
I0507 21:35:02.281081  7684 layer_factory.hpp:77] Creating layer conv3
I0507 21:35:02.281090  7684 net.cpp:94] Creating Layer conv3
I0507 21:35:02.281092  7684 net.cpp:435] conv3 <- pool2
I0507 21:35:02.281097  7684 net.cpp:409] conv3 -> conv3
I0507 21:35:02.284579  7684 net.cpp:144] Setting up conv3
I0507 21:35:02.284590  7684 net.cpp:151] Top shape: 20 64 5 5 (32000)
I0507 21:35:02.284595  7684 net.cpp:159] Memory required for data: 2312240
I0507 21:35:02.284601  7684 layer_factory.hpp:77] Creating layer relu3
I0507 21:35:02.284608  7684 net.cpp:94] Creating Layer relu3
I0507 21:35:02.284611  7684 net.cpp:435] relu3 <- conv3
I0507 21:35:02.284615  7684 net.cpp:396] relu3 -> conv3 (in-place)
I0507 21:35:02.284621  7684 net.cpp:144] Setting up relu3
I0507 21:35:02.284626  7684 net.cpp:151] Top shape: 20 64 5 5 (32000)
I0507 21:35:02.284628  7684 net.cpp:159] Memory required for data: 2440240
I0507 21:35:02.284631  7684 layer_factory.hpp:77] Creating layer conv4
I0507 21:35:02.284639  7684 net.cpp:94] Creating Layer conv4
I0507 21:35:02.284642  7684 net.cpp:435] conv4 <- conv3
I0507 21:35:02.284646  7684 net.cpp:409] conv4 -> conv4
I0507 21:35:02.288154  7684 net.cpp:144] Setting up conv4
I0507 21:35:02.288166  7684 net.cpp:151] Top shape: 20 64 5 5 (32000)
I0507 21:35:02.288170  7684 net.cpp:159] Memory required for data: 2568240
I0507 21:35:02.288175  7684 layer_factory.hpp:77] Creating layer relu4
I0507 21:35:02.288180  7684 net.cpp:94] Creating Layer relu4
I0507 21:35:02.288184  7684 net.cpp:435] relu4 <- conv4
I0507 21:35:02.288188  7684 net.cpp:396] relu4 -> conv4 (in-place)
I0507 21:35:02.288194  7684 net.cpp:144] Setting up relu4
I0507 21:35:02.288198  7684 net.cpp:151] Top shape: 20 64 5 5 (32000)
I0507 21:35:02.288202  7684 net.cpp:159] Memory required for data: 2696240
I0507 21:35:02.288204  7684 layer_factory.hpp:77] Creating layer conv5
I0507 21:35:02.288210  7684 net.cpp:94] Creating Layer conv5
I0507 21:35:02.288213  7684 net.cpp:435] conv5 <- conv4
I0507 21:35:02.288218  7684 net.cpp:409] conv5 -> conv5
I0507 21:35:02.292155  7684 net.cpp:144] Setting up conv5
I0507 21:35:02.292167  7684 net.cpp:151] Top shape: 20 64 5 5 (32000)
I0507 21:35:02.292171  7684 net.cpp:159] Memory required for data: 2824240
I0507 21:35:02.292182  7684 layer_factory.hpp:77] Creating layer relu5
I0507 21:35:02.292188  7684 net.cpp:94] Creating Layer relu5
I0507 21:35:02.292192  7684 net.cpp:435] relu5 <- conv5
I0507 21:35:02.292197  7684 net.cpp:396] relu5 -> conv5 (in-place)
I0507 21:35:02.292204  7684 net.cpp:144] Setting up relu5
I0507 21:35:02.292208  7684 net.cpp:151] Top shape: 20 64 5 5 (32000)
I0507 21:35:02.292212  7684 net.cpp:159] Memory required for data: 2952240
I0507 21:35:02.292214  7684 layer_factory.hpp:77] Creating layer pool5
I0507 21:35:02.292218  7684 net.cpp:94] Creating Layer pool5
I0507 21:35:02.292222  7684 net.cpp:435] pool5 <- conv5
I0507 21:35:02.292225  7684 net.cpp:409] pool5 -> pool5
I0507 21:35:02.292260  7684 net.cpp:144] Setting up pool5
I0507 21:35:02.292268  7684 net.cpp:151] Top shape: 20 64 2 2 (5120)
I0507 21:35:02.292269  7684 net.cpp:159] Memory required for data: 2972720
I0507 21:35:02.292273  7684 layer_factory.hpp:77] Creating layer ip1
I0507 21:35:02.292279  7684 net.cpp:94] Creating Layer ip1
I0507 21:35:02.292284  7684 net.cpp:435] ip1 <- pool5
I0507 21:35:02.292287  7684 net.cpp:409] ip1 -> ip1
I0507 21:35:02.292816  7684 net.cpp:144] Setting up ip1
I0507 21:35:02.292824  7684 net.cpp:151] Top shape: 20 64 (1280)
I0507 21:35:02.292827  7684 net.cpp:159] Memory required for data: 2977840
I0507 21:35:02.292834  7684 layer_factory.hpp:77] Creating layer ip2
I0507 21:35:02.292840  7684 net.cpp:94] Creating Layer ip2
I0507 21:35:02.292843  7684 net.cpp:435] ip2 <- ip1
I0507 21:35:02.292848  7684 net.cpp:409] ip2 -> ip2
I0507 21:35:02.293077  7684 net.cpp:144] Setting up ip2
I0507 21:35:02.293084  7684 net.cpp:151] Top shape: 20 64 (1280)
I0507 21:35:02.293087  7684 net.cpp:159] Memory required for data: 2982960
I0507 21:35:02.293092  7684 layer_factory.hpp:77] Creating layer ip3
I0507 21:35:02.293097  7684 net.cpp:94] Creating Layer ip3
I0507 21:35:02.293100  7684 net.cpp:435] ip3 <- ip2
I0507 21:35:02.293107  7684 net.cpp:409] ip3 -> ip3
I0507 21:35:02.293293  7684 net.cpp:144] Setting up ip3
I0507 21:35:02.293299  7684 net.cpp:151] Top shape: 20 50 (1000)
I0507 21:35:02.293303  7684 net.cpp:159] Memory required for data: 2986960
I0507 21:35:02.293306  7684 layer_factory.hpp:77] Creating layer ip3_ip3_0_split
I0507 21:35:02.293311  7684 net.cpp:94] Creating Layer ip3_ip3_0_split
I0507 21:35:02.293314  7684 net.cpp:435] ip3_ip3_0_split <- ip3
I0507 21:35:02.293319  7684 net.cpp:409] ip3_ip3_0_split -> ip3_ip3_0_split_0
I0507 21:35:02.293324  7684 net.cpp:409] ip3_ip3_0_split -> ip3_ip3_0_split_1
I0507 21:35:02.293361  7684 net.cpp:144] Setting up ip3_ip3_0_split
I0507 21:35:02.293367  7684 net.cpp:151] Top shape: 20 50 (1000)
I0507 21:35:02.293370  7684 net.cpp:151] Top shape: 20 50 (1000)
I0507 21:35:02.293373  7684 net.cpp:159] Memory required for data: 2994960
I0507 21:35:02.293375  7684 layer_factory.hpp:77] Creating layer accuracy
I0507 21:35:02.293382  7684 net.cpp:94] Creating Layer accuracy
I0507 21:35:02.293385  7684 net.cpp:435] accuracy <- ip3_ip3_0_split_0
I0507 21:35:02.293388  7684 net.cpp:435] accuracy <- label_intercept_1_split_0
I0507 21:35:02.293392  7684 net.cpp:409] accuracy -> accuracy
…
