…
I0503 08:43:49.296711 19657 net.cpp:323] The NetState phase (0) differed from the phase (1) specified by a rule in layer intercept
I0503 08:43:49.296730 19657 net.cpp:323] The NetState phase (0) differed from the phase (1) specified by a rule in layer loss
I0503 08:43:49.296821 19657 net.cpp:52] Initializing net from parameters: 
state {
  phase: TRAIN
}
layer {
  name: "parameters"
  type: "HDF5Data"
  top: "data"
  top: "label"
  include {
    phase: TRAIN
  }
  hdf5_data_param {
    source: "/home/purduethu/scratch/radon/d/deng106/CNNStatisticalModel/distributions/input/5_distributions_900_sample_size_train-parameters-path.txt"
    batch_size: 20
  }
}
layer {
  name: "conv1"
  type: "Convolution"
  bottom: "data"
  top: "conv1"
  param {
    lr_mult: 1
  }
  param {
    lr_mult: 2
  }
  convolution_param {
    num_output: 64
    pad: 2
    kernel_size: 5
    stride: 1
    weight_filler {
      type: "gaussian"
      std: 0.0001
    }
    bias_filler {
      type: "constant"
    }
  }
}
layer {
  name: "relu1"
  type: "ReLU"
  bottom: "conv1"
  top: "conv1"
}
layer {
  name: "conv2"
  type: "Convolution"
  bottom: "conv1"
  top: "conv2"
  param {
    lr_mult: 1
  }
  param {
    lr_mult: 2
  }
  convolution_param {
    num_output: 64
    pad: 2
    kernel_size: 5
    stride: 1
    weight_filler {
      type: "gaussian"
      std: 0.01
    }
    bias_filler {
      type: "constant"
    }
  }
}
layer {
  name: "relu2"
  type: "ReLU"
  bottom: "conv2"
  top: "conv2"
}
layer {
  name: "pool2"
  type: "Pooling"
  bottom: "conv2"
  top: "pool2"
  pooling_param {
    pool: MAX
    kernel_size: 3
    stride: 2
  }
}
layer {
  name: "conv3"
  type: "Convolution"
  bottom: "pool2"
  top: "conv3"
  param {
    lr_mult: 1
  }
  param {
    lr_mult: 2
  }
  convolution_param {
    num_output: 128
    pad: 2
    kernel_size: 5
    stride: 1
    weight_filler {
      type: "gaussian"
      std: 0.01
    }
    bias_filler {
      type: "constant"
    }
  }
}
layer {
  name: "relu3"
  type: "ReLU"
  bottom: "conv3"
  top: "conv3"
}
layer {
  name: "conv4"
  type: "Convolution"
  bottom: "conv3"
  top: "conv4"
  param {
    lr_mult: 1
  }
  param {
    lr_mult: 2
  }
  convolution_param {
    num_output: 128
    pad: 2
    kernel_size: 5
    stride: 1
    weight_filler {
      type: "gaussian"
      std: 0.01
    }
    bias_filler {
      type: "constant"
    }
  }
}
layer {
  name: "relu4"
  type: "ReLU"
  bottom: "conv4"
  top: "conv4"
}
layer {
  name: "conv5"
  type: "Convolution"
  bottom: "conv4"
  top: "conv5"
  param {
    lr_mult: 1
  }
  param {
    lr_mult: 2
  }
  convolution_param {
    num_output: 128
    pad: 2
    kernel_size: 5
    stride: 1
    weight_filler {
      type: "gaussian"
      std: 0.01
    }
    bias_filler {
      type: "constant"
    }
  }
}
layer {
  name: "relu5"
  type: "ReLU"
  bottom: "conv5"
  top: "conv5"
}
layer {
  name: "pool5"
  type: "Pooling"
  bottom: "conv5"
  top: "pool5"
  pooling_param {
    pool: AVE
    kernel_size: 3
    stride: 2
  }
}
layer {
  name: "ip1"
  type: "InnerProduct"
  bottom: "pool5"
  top: "ip1"
  param {
    lr_mult: 1
  }
  param {
    lr_mult: 2
  }
  inner_product_param {
    num_output: 1024
    weight_filler {
      type: "gaussian"
      std: 0.1
    }
    bias_filler {
      type: "constant"
    }
  }
}
layer {
  name: "ip2"
  type: "InnerProduct"
  bottom: "ip1"
  top: "ip2"
  param {
    lr_mult: 1
  }
  param {
    lr_mult: 2
  }
  inner_product_param {
    num_output: 512
    weight_filler {
      type: "gaussian"
      std: 0.1
    }
    bias_filler {
      type: "constant"
    }
  }
}
layer {
  name: "ip3"
  type: "InnerProduct"
  bottom: "ip2"
  top: "ip3"
  param {
    lr_mult: 1
  }
  param {
    lr_mult: 2
  }
  inner_product_param {
    num_output: 1
    weight_filler {
      type: "gaussian"
      std: 0.1
    }
    bias_filler {
      type: "constant"
    }
  }
}
layer {
  name: "loss"
  type: "HuberLoss"
  bottom: "ip3"
  bottom: "label"
  top: "loss"
  include {
    phase: TRAIN
  }
}
I0503 08:43:49.296897 19657 layer_factory.hpp:77] Creating layer parameters
I0503 08:43:49.296912 19657 net.cpp:94] Creating Layer parameters
I0503 08:43:49.296918 19657 net.cpp:409] parameters -> data
I0503 08:43:49.296937 19657 net.cpp:409] parameters -> label
I0503 08:43:49.296948 19657 hdf5_data_layer.cpp:79] Loading list of HDF5 filenames from: /home/purduethu/scratch/radon/d/deng106/CNNStatisticalModel/distributions/input/5_distributions_900_sample_size_train-parameters-path.txt
I0503 08:43:49.296970 19657 hdf5_data_layer.cpp:93] Number of HDF5 files: 1
I0503 08:43:49.297435 19657 hdf5.cpp:32] Datatype class: H5T_FLOAT
I0503 08:43:49.436162 19657 net.cpp:144] Setting up parameters
I0503 08:43:49.436195 19657 net.cpp:151] Top shape: 20 1 30 30 (18000)
I0503 08:43:49.436202 19657 net.cpp:151] Top shape: 20 (20)
I0503 08:43:49.436205 19657 net.cpp:159] Memory required for data: 72080
I0503 08:43:49.436213 19657 layer_factory.hpp:77] Creating layer conv1
I0503 08:43:49.436238 19657 net.cpp:94] Creating Layer conv1
I0503 08:43:49.436244 19657 net.cpp:435] conv1 <- data
I0503 08:43:49.436256 19657 net.cpp:409] conv1 -> conv1
I0503 08:43:49.442229 19657 net.cpp:144] Setting up conv1
I0503 08:43:49.442245 19657 net.cpp:151] Top shape: 20 64 30 30 (1152000)
I0503 08:43:49.442250 19657 net.cpp:159] Memory required for data: 4680080
I0503 08:43:49.442262 19657 layer_factory.hpp:77] Creating layer relu1
I0503 08:43:49.442270 19657 net.cpp:94] Creating Layer relu1
I0503 08:43:49.442275 19657 net.cpp:435] relu1 <- conv1
I0503 08:43:49.442279 19657 net.cpp:396] relu1 -> conv1 (in-place)
I0503 08:43:49.442294 19657 net.cpp:144] Setting up relu1
I0503 08:43:49.442301 19657 net.cpp:151] Top shape: 20 64 30 30 (1152000)
I0503 08:43:49.442303 19657 net.cpp:159] Memory required for data: 9288080
I0503 08:43:49.442307 19657 layer_factory.hpp:77] Creating layer conv2
I0503 08:43:49.442315 19657 net.cpp:94] Creating Layer conv2
I0503 08:43:49.442319 19657 net.cpp:435] conv2 <- conv1
I0503 08:43:49.442324 19657 net.cpp:409] conv2 -> conv2
I0503 08:43:49.457808 19657 net.cpp:144] Setting up conv2
I0503 08:43:49.457824 19657 net.cpp:151] Top shape: 20 64 30 30 (1152000)
I0503 08:43:49.457828 19657 net.cpp:159] Memory required for data: 13896080
I0503 08:43:49.457837 19657 layer_factory.hpp:77] Creating layer relu2
I0503 08:43:49.457844 19657 net.cpp:94] Creating Layer relu2
I0503 08:43:49.457849 19657 net.cpp:435] relu2 <- conv2
I0503 08:43:49.457854 19657 net.cpp:396] relu2 -> conv2 (in-place)
I0503 08:43:49.457860 19657 net.cpp:144] Setting up relu2
I0503 08:43:49.457865 19657 net.cpp:151] Top shape: 20 64 30 30 (1152000)
I0503 08:43:49.457868 19657 net.cpp:159] Memory required for data: 18504080
I0503 08:43:49.457872 19657 layer_factory.hpp:77] Creating layer pool2
I0503 08:43:49.457880 19657 net.cpp:94] Creating Layer pool2
I0503 08:43:49.457890 19657 net.cpp:435] pool2 <- conv2
I0503 08:43:49.457895 19657 net.cpp:409] pool2 -> pool2
I0503 08:43:49.457940 19657 net.cpp:144] Setting up pool2
I0503 08:43:49.457948 19657 net.cpp:151] Top shape: 20 64 15 15 (288000)
I0503 08:43:49.457952 19657 net.cpp:159] Memory required for data: 19656080
I0503 08:43:49.457955 19657 layer_factory.hpp:77] Creating layer conv3
I0503 08:43:49.457963 19657 net.cpp:94] Creating Layer conv3
I0503 08:43:49.457967 19657 net.cpp:435] conv3 <- pool2
I0503 08:43:49.457973 19657 net.cpp:409] conv3 -> conv3
I0503 08:43:49.470682 19657 net.cpp:144] Setting up conv3
I0503 08:43:49.470698 19657 net.cpp:151] Top shape: 20 128 15 15 (576000)
I0503 08:43:49.470703 19657 net.cpp:159] Memory required for data: 21960080
I0503 08:43:49.470712 19657 layer_factory.hpp:77] Creating layer relu3
I0503 08:43:49.470718 19657 net.cpp:94] Creating Layer relu3
I0503 08:43:49.470722 19657 net.cpp:435] relu3 <- conv3
I0503 08:43:49.470727 19657 net.cpp:396] relu3 -> conv3 (in-place)
I0503 08:43:49.470736 19657 net.cpp:144] Setting up relu3
I0503 08:43:49.470739 19657 net.cpp:151] Top shape: 20 128 15 15 (576000)
I0503 08:43:49.470743 19657 net.cpp:159] Memory required for data: 24264080
I0503 08:43:49.470746 19657 layer_factory.hpp:77] Creating layer conv4
I0503 08:43:49.470755 19657 net.cpp:94] Creating Layer conv4
I0503 08:43:49.470759 19657 net.cpp:435] conv4 <- conv3
I0503 08:43:49.470764 19657 net.cpp:409] conv4 -> conv4
I0503 08:43:49.493703 19657 net.cpp:144] Setting up conv4
I0503 08:43:49.493719 19657 net.cpp:151] Top shape: 20 128 15 15 (576000)
I0503 08:43:49.493724 19657 net.cpp:159] Memory required for data: 26568080
I0503 08:43:49.493731 19657 layer_factory.hpp:77] Creating layer relu4
I0503 08:43:49.493737 19657 net.cpp:94] Creating Layer relu4
I0503 08:43:49.493741 19657 net.cpp:435] relu4 <- conv4
I0503 08:43:49.493746 19657 net.cpp:396] relu4 -> conv4 (in-place)
I0503 08:43:49.493754 19657 net.cpp:144] Setting up relu4
I0503 08:43:49.493758 19657 net.cpp:151] Top shape: 20 128 15 15 (576000)
I0503 08:43:49.493762 19657 net.cpp:159] Memory required for data: 28872080
I0503 08:43:49.493765 19657 layer_factory.hpp:77] Creating layer conv5
I0503 08:43:49.493773 19657 net.cpp:94] Creating Layer conv5
I0503 08:43:49.493777 19657 net.cpp:435] conv5 <- conv4
I0503 08:43:49.493782 19657 net.cpp:409] conv5 -> conv5
I0503 08:43:49.515488 19657 net.cpp:144] Setting up conv5
I0503 08:43:49.515504 19657 net.cpp:151] Top shape: 20 128 15 15 (576000)
I0503 08:43:49.515508 19657 net.cpp:159] Memory required for data: 31176080
I0503 08:43:49.515517 19657 layer_factory.hpp:77] Creating layer relu5
I0503 08:43:49.515524 19657 net.cpp:94] Creating Layer relu5
I0503 08:43:49.515528 19657 net.cpp:435] relu5 <- conv5
I0503 08:43:49.515533 19657 net.cpp:396] relu5 -> conv5 (in-place)
I0503 08:43:49.515540 19657 net.cpp:144] Setting up relu5
I0503 08:43:49.515545 19657 net.cpp:151] Top shape: 20 128 15 15 (576000)
I0503 08:43:49.515548 19657 net.cpp:159] Memory required for data: 33480080
I0503 08:43:49.515552 19657 layer_factory.hpp:77] Creating layer pool5
I0503 08:43:49.515557 19657 net.cpp:94] Creating Layer pool5
I0503 08:43:49.515560 19657 net.cpp:435] pool5 <- conv5
I0503 08:43:49.515564 19657 net.cpp:409] pool5 -> pool5
I0503 08:43:49.515600 19657 net.cpp:144] Setting up pool5
I0503 08:43:49.515609 19657 net.cpp:151] Top shape: 20 128 7 7 (125440)
I0503 08:43:49.515611 19657 net.cpp:159] Memory required for data: 33981840
I0503 08:43:49.515614 19657 layer_factory.hpp:77] Creating layer ip1
I0503 08:43:49.515625 19657 net.cpp:94] Creating Layer ip1
I0503 08:43:49.515628 19657 net.cpp:435] ip1 <- pool5
I0503 08:43:49.515633 19657 net.cpp:409] ip1 -> ip1
I0503 08:43:49.680114 19657 net.cpp:144] Setting up ip1
I0503 08:43:49.680141 19657 net.cpp:151] Top shape: 20 1024 (20480)
I0503 08:43:49.680147 19657 net.cpp:159] Memory required for data: 34063760
I0503 08:43:49.680156 19657 layer_factory.hpp:77] Creating layer ip2
I0503 08:43:49.680166 19657 net.cpp:94] Creating Layer ip2
I0503 08:43:49.680182 19657 net.cpp:435] ip2 <- ip1
I0503 08:43:49.680189 19657 net.cpp:409] ip2 -> ip2
I0503 08:43:49.693786 19657 net.cpp:144] Setting up ip2
I0503 08:43:49.693800 19657 net.cpp:151] Top shape: 20 512 (10240)
I0503 08:43:49.693805 19657 net.cpp:159] Memory required for data: 34104720
I0503 08:43:49.693811 19657 layer_factory.hpp:77] Creating layer ip3
I0503 08:43:49.693819 19657 net.cpp:94] Creating Layer ip3
I0503 08:43:49.693823 19657 net.cpp:435] ip3 <- ip2
I0503 08:43:49.693828 19657 net.cpp:409] ip3 -> ip3
I0503 08:43:49.693908 19657 net.cpp:144] Setting up ip3
I0503 08:43:49.693923 19657 net.cpp:151] Top shape: 20 1 (20)
I0503 08:43:49.693928 19657 net.cpp:159] Memory required for data: 34104800
I0503 08:43:49.693933 19657 layer_factory.hpp:77] Creating layer loss
I0503 08:43:49.693943 19657 net.cpp:94] Creating Layer loss
I0503 08:43:49.693946 19657 net.cpp:435] loss <- ip3
I0503 08:43:49.693950 19657 net.cpp:435] loss <- label
I0503 08:43:49.693956 19657 net.cpp:409] loss -> loss
I0503 08:43:49.693998 19657 net.cpp:144] Setting up loss
…
