…
I0506 12:33:46.328899 21480 net.cpp:323] The NetState phase (0) differed from the phase (1) specified by a rule in layer intercept
I0506 12:33:46.328914 21480 net.cpp:323] The NetState phase (0) differed from the phase (1) specified by a rule in layer loss
I0506 12:33:46.328991 21480 net.cpp:52] Initializing net from parameters: 
state {
  phase: TRAIN
}
layer {
  name: "parameters"
  type: "HDF5Data"
  top: "data"
  top: "label"
  include {
    phase: TRAIN
  }
  hdf5_data_param {
    source: "/home/purduethu/scratch/radon/d/deng106/CNNStatisticalModel/distributions/input/50_distributions_100_sample_size_train-parameters-path.txt"
    batch_size: 20
  }
}
layer {
  name: "conv1"
  type: "Convolution"
  bottom: "data"
  top: "conv1"
  param {
    lr_mult: 1
  }
  param {
    lr_mult: 2
  }
  convolution_param {
    num_output: 64
    pad: 2
    kernel_size: 5
    stride: 1
    weight_filler {
      type: "gaussian"
      std: 0.0001
    }
    bias_filler {
      type: "constant"
    }
  }
}
layer {
  name: "relu1"
  type: "ReLU"
  bottom: "conv1"
  top: "conv1"
}
layer {
  name: "conv2"
  type: "Convolution"
  bottom: "conv1"
  top: "conv2"
  param {
    lr_mult: 1
  }
  param {
    lr_mult: 2
  }
  convolution_param {
    num_output: 64
    pad: 2
    kernel_size: 5
    stride: 1
    weight_filler {
      type: "gaussian"
      std: 0.01
    }
    bias_filler {
      type: "constant"
    }
  }
}
layer {
  name: "relu2"
  type: "ReLU"
  bottom: "conv2"
  top: "conv2"
}
layer {
  name: "pool2"
  type: "Pooling"
  bottom: "conv2"
  top: "pool2"
  pooling_param {
    pool: MAX
    kernel_size: 3
    stride: 2
  }
}
layer {
  name: "conv3"
  type: "Convolution"
  bottom: "pool2"
  top: "conv3"
  param {
    lr_mult: 1
  }
  param {
    lr_mult: 2
  }
  convolution_param {
    num_output: 128
    pad: 2
    kernel_size: 5
    stride: 1
    weight_filler {
      type: "gaussian"
      std: 0.01
    }
    bias_filler {
      type: "constant"
    }
  }
}
layer {
  name: "relu3"
  type: "ReLU"
  bottom: "conv3"
  top: "conv3"
}
layer {
  name: "conv4"
  type: "Convolution"
  bottom: "conv3"
  top: "conv4"
  param {
    lr_mult: 1
  }
  param {
    lr_mult: 2
  }
  convolution_param {
    num_output: 128
    pad: 2
    kernel_size: 5
    stride: 1
    weight_filler {
      type: "gaussian"
      std: 0.01
    }
    bias_filler {
      type: "constant"
    }
  }
}
layer {
  name: "relu4"
  type: "ReLU"
  bottom: "conv4"
  top: "conv4"
}
layer {
  name: "conv5"
  type: "Convolution"
  bottom: "conv4"
  top: "conv5"
  param {
    lr_mult: 1
  }
  param {
    lr_mult: 2
  }
  convolution_param {
    num_output: 128
    pad: 2
    kernel_size: 5
    stride: 1
    weight_filler {
      type: "gaussian"
      std: 0.01
    }
    bias_filler {
      type: "constant"
    }
  }
}
layer {
  name: "relu5"
  type: "ReLU"
  bottom: "conv5"
  top: "conv5"
}
layer {
  name: "pool5"
  type: "Pooling"
  bottom: "conv5"
  top: "pool5"
  pooling_param {
    pool: AVE
    kernel_size: 3
    stride: 2
  }
}
layer {
  name: "ip1"
  type: "InnerProduct"
  bottom: "pool5"
  top: "ip1"
  param {
    lr_mult: 1
  }
  param {
    lr_mult: 2
  }
  inner_product_param {
    num_output: 1024
    weight_filler {
      type: "gaussian"
      std: 0.1
    }
    bias_filler {
      type: "constant"
    }
  }
}
layer {
  name: "ip2"
  type: "InnerProduct"
  bottom: "ip1"
  top: "ip2"
  param {
    lr_mult: 1
  }
  param {
    lr_mult: 2
  }
  inner_product_param {
    num_output: 512
    weight_filler {
      type: "gaussian"
      std: 0.1
    }
    bias_filler {
      type: "constant"
    }
  }
}
layer {
  name: "ip3"
  type: "InnerProduct"
  bottom: "ip2"
  top: "ip3"
  param {
    lr_mult: 1
  }
  param {
    lr_mult: 2
  }
  inner_product_param {
    num_output: 1
    weight_filler {
      type: "gaussian"
      std: 0.1
    }
    bias_filler {
      type: "constant"
    }
  }
}
layer {
  name: "loss"
  type: "HuberLoss"
  bottom: "ip3"
  bottom: "label"
  top: "loss"
  include {
    phase: TRAIN
  }
}
I0506 12:33:46.329046 21480 layer_factory.hpp:77] Creating layer parameters
I0506 12:33:46.329062 21480 net.cpp:94] Creating Layer parameters
I0506 12:33:46.329066 21480 net.cpp:409] parameters -> data
I0506 12:33:46.329077 21480 net.cpp:409] parameters -> label
I0506 12:33:46.329083 21480 hdf5_data_layer.cpp:79] Loading list of HDF5 filenames from: /home/purduethu/scratch/radon/d/deng106/CNNStatisticalModel/distributions/input/50_distributions_100_sample_size_train-parameters-path.txt
I0506 12:33:46.329097 21480 hdf5_data_layer.cpp:93] Number of HDF5 files: 1
I0506 12:33:46.329632 21480 hdf5.cpp:32] Datatype class: H5T_FLOAT
I0506 12:33:46.489938 21480 net.cpp:144] Setting up parameters
I0506 12:33:46.489969 21480 net.cpp:151] Top shape: 20 1 10 10 (2000)
I0506 12:33:46.489974 21480 net.cpp:151] Top shape: 20 (20)
I0506 12:33:46.489977 21480 net.cpp:159] Memory required for data: 8080
I0506 12:33:46.489984 21480 layer_factory.hpp:77] Creating layer conv1
I0506 12:33:46.490005 21480 net.cpp:94] Creating Layer conv1
I0506 12:33:46.490010 21480 net.cpp:435] conv1 <- data
I0506 12:33:46.490016 21480 net.cpp:409] conv1 -> conv1
I0506 12:33:46.494062 21480 net.cpp:144] Setting up conv1
I0506 12:33:46.494077 21480 net.cpp:151] Top shape: 20 64 10 10 (128000)
I0506 12:33:46.494081 21480 net.cpp:159] Memory required for data: 520080
I0506 12:33:46.494092 21480 layer_factory.hpp:77] Creating layer relu1
I0506 12:33:46.494099 21480 net.cpp:94] Creating Layer relu1
I0506 12:33:46.494103 21480 net.cpp:435] relu1 <- conv1
I0506 12:33:46.494108 21480 net.cpp:396] relu1 -> conv1 (in-place)
I0506 12:33:46.494119 21480 net.cpp:144] Setting up relu1
I0506 12:33:46.494124 21480 net.cpp:151] Top shape: 20 64 10 10 (128000)
I0506 12:33:46.494127 21480 net.cpp:159] Memory required for data: 1032080
I0506 12:33:46.494130 21480 layer_factory.hpp:77] Creating layer conv2
I0506 12:33:46.494138 21480 net.cpp:94] Creating Layer conv2
I0506 12:33:46.494143 21480 net.cpp:435] conv2 <- conv1
I0506 12:33:46.494148 21480 net.cpp:409] conv2 -> conv2
I0506 12:33:46.500114 21480 net.cpp:144] Setting up conv2
I0506 12:33:46.500128 21480 net.cpp:151] Top shape: 20 64 10 10 (128000)
I0506 12:33:46.500133 21480 net.cpp:159] Memory required for data: 1544080
I0506 12:33:46.500141 21480 layer_factory.hpp:77] Creating layer relu2
I0506 12:33:46.500147 21480 net.cpp:94] Creating Layer relu2
I0506 12:33:46.500151 21480 net.cpp:435] relu2 <- conv2
I0506 12:33:46.500156 21480 net.cpp:396] relu2 -> conv2 (in-place)
I0506 12:33:46.500164 21480 net.cpp:144] Setting up relu2
I0506 12:33:46.500169 21480 net.cpp:151] Top shape: 20 64 10 10 (128000)
I0506 12:33:46.500170 21480 net.cpp:159] Memory required for data: 2056080
I0506 12:33:46.500174 21480 layer_factory.hpp:77] Creating layer pool2
I0506 12:33:46.500180 21480 net.cpp:94] Creating Layer pool2
I0506 12:33:46.500182 21480 net.cpp:435] pool2 <- conv2
I0506 12:33:46.500187 21480 net.cpp:409] pool2 -> pool2
I0506 12:33:46.500242 21480 net.cpp:144] Setting up pool2
I0506 12:33:46.500250 21480 net.cpp:151] Top shape: 20 64 5 5 (32000)
I0506 12:33:46.500253 21480 net.cpp:159] Memory required for data: 2184080
I0506 12:33:46.500257 21480 layer_factory.hpp:77] Creating layer conv3
I0506 12:33:46.500264 21480 net.cpp:94] Creating Layer conv3
I0506 12:33:46.500273 21480 net.cpp:435] conv3 <- pool2
I0506 12:33:46.500279 21480 net.cpp:409] conv3 -> conv3
I0506 12:33:46.508375 21480 net.cpp:144] Setting up conv3
I0506 12:33:46.508389 21480 net.cpp:151] Top shape: 20 128 5 5 (64000)
I0506 12:33:46.508394 21480 net.cpp:159] Memory required for data: 2440080
I0506 12:33:46.508401 21480 layer_factory.hpp:77] Creating layer relu3
I0506 12:33:46.508407 21480 net.cpp:94] Creating Layer relu3
I0506 12:33:46.508411 21480 net.cpp:435] relu3 <- conv3
I0506 12:33:46.508416 21480 net.cpp:396] relu3 -> conv3 (in-place)
I0506 12:33:46.508424 21480 net.cpp:144] Setting up relu3
I0506 12:33:46.508427 21480 net.cpp:151] Top shape: 20 128 5 5 (64000)
I0506 12:33:46.508430 21480 net.cpp:159] Memory required for data: 2696080
I0506 12:33:46.508433 21480 layer_factory.hpp:77] Creating layer conv4
I0506 12:33:46.508441 21480 net.cpp:94] Creating Layer conv4
I0506 12:33:46.508445 21480 net.cpp:435] conv4 <- conv3
I0506 12:33:46.508450 21480 net.cpp:409] conv4 -> conv4
I0506 12:33:46.523252 21480 net.cpp:144] Setting up conv4
I0506 12:33:46.523267 21480 net.cpp:151] Top shape: 20 128 5 5 (64000)
I0506 12:33:46.523272 21480 net.cpp:159] Memory required for data: 2952080
I0506 12:33:46.523277 21480 layer_factory.hpp:77] Creating layer relu4
I0506 12:33:46.523284 21480 net.cpp:94] Creating Layer relu4
I0506 12:33:46.523288 21480 net.cpp:435] relu4 <- conv4
I0506 12:33:46.523293 21480 net.cpp:396] relu4 -> conv4 (in-place)
I0506 12:33:46.523299 21480 net.cpp:144] Setting up relu4
I0506 12:33:46.523304 21480 net.cpp:151] Top shape: 20 128 5 5 (64000)
I0506 12:33:46.523308 21480 net.cpp:159] Memory required for data: 3208080
I0506 12:33:46.523310 21480 layer_factory.hpp:77] Creating layer conv5
I0506 12:33:46.523319 21480 net.cpp:94] Creating Layer conv5
I0506 12:33:46.523321 21480 net.cpp:435] conv5 <- conv4
I0506 12:33:46.523326 21480 net.cpp:409] conv5 -> conv5
I0506 12:33:46.537817 21480 net.cpp:144] Setting up conv5
I0506 12:33:46.537854 21480 net.cpp:151] Top shape: 20 128 5 5 (64000)
I0506 12:33:46.537866 21480 net.cpp:159] Memory required for data: 3464080
I0506 12:33:46.537889 21480 layer_factory.hpp:77] Creating layer relu5
I0506 12:33:46.537905 21480 net.cpp:94] Creating Layer relu5
I0506 12:33:46.537915 21480 net.cpp:435] relu5 <- conv5
I0506 12:33:46.537930 21480 net.cpp:396] relu5 -> conv5 (in-place)
I0506 12:33:46.537948 21480 net.cpp:144] Setting up relu5
I0506 12:33:46.537962 21480 net.cpp:151] Top shape: 20 128 5 5 (64000)
I0506 12:33:46.537971 21480 net.cpp:159] Memory required for data: 3720080
I0506 12:33:46.537981 21480 layer_factory.hpp:77] Creating layer pool5
I0506 12:33:46.537993 21480 net.cpp:94] Creating Layer pool5
I0506 12:33:46.538002 21480 net.cpp:435] pool5 <- conv5
I0506 12:33:46.538014 21480 net.cpp:409] pool5 -> pool5
I0506 12:33:46.538118 21480 net.cpp:144] Setting up pool5
I0506 12:33:46.538138 21480 net.cpp:151] Top shape: 20 128 2 2 (10240)
I0506 12:33:46.538147 21480 net.cpp:159] Memory required for data: 3761040
I0506 12:33:46.538156 21480 layer_factory.hpp:77] Creating layer ip1
I0506 12:33:46.538177 21480 net.cpp:94] Creating Layer ip1
I0506 12:33:46.538187 21480 net.cpp:435] ip1 <- pool5
I0506 12:33:46.538202 21480 net.cpp:409] ip1 -> ip1
I0506 12:33:46.552068 21480 net.cpp:144] Setting up ip1
I0506 12:33:46.552083 21480 net.cpp:151] Top shape: 20 1024 (20480)
I0506 12:33:46.552086 21480 net.cpp:159] Memory required for data: 3842960
I0506 12:33:46.552093 21480 layer_factory.hpp:77] Creating layer ip2
I0506 12:33:46.552099 21480 net.cpp:94] Creating Layer ip2
I0506 12:33:46.552103 21480 net.cpp:435] ip2 <- ip1
I0506 12:33:46.552109 21480 net.cpp:409] ip2 -> ip2
I0506 12:33:46.565135 21480 net.cpp:144] Setting up ip2
I0506 12:33:46.565147 21480 net.cpp:151] Top shape: 20 512 (10240)
I0506 12:33:46.565151 21480 net.cpp:159] Memory required for data: 3883920
I0506 12:33:46.565168 21480 layer_factory.hpp:77] Creating layer ip3
I0506 12:33:46.565176 21480 net.cpp:94] Creating Layer ip3
I0506 12:33:46.565178 21480 net.cpp:435] ip3 <- ip2
I0506 12:33:46.565189 21480 net.cpp:409] ip3 -> ip3
I0506 12:33:46.565310 21480 net.cpp:144] Setting up ip3
I0506 12:33:46.565317 21480 net.cpp:151] Top shape: 20 1 (20)
I0506 12:33:46.565320 21480 net.cpp:159] Memory required for data: 3884000
I0506 12:33:46.565325 21480 layer_factory.hpp:77] Creating layer loss
I0506 12:33:46.565333 21480 net.cpp:94] Creating Layer loss
I0506 12:33:46.565336 21480 net.cpp:435] loss <- ip3
I0506 12:33:46.565341 21480 net.cpp:435] loss <- label
I0506 12:33:46.565346 21480 net.cpp:409] loss -> loss
I0506 12:33:46.565398 21480 net.cpp:144] Setting up loss
…
I0506 12:33:46.671324 21480 net.cpp:323] The NetState phase (0) differed from the phase (1) specified by a rule in layer intercept
I0506 12:33:46.671339 21480 net.cpp:323] The NetState phase (0) differed from the phase (1) specified by a rule in layer accuracy
I0506 12:33:46.671424 21480 net.cpp:52] Initializing net from parameters: 
state {
  phase: TRAIN
}
layer {
  name: "parameters"
  type: "HDF5Data"
  top: "data"
  top: "label"
  include {
    phase: TRAIN
  }
  hdf5_data_param {
    source: "/home/purduethu/scratch/radon/d/deng106/CNNStatisticalModel/distributions/input/50_distributions_100_sample_size_train-distributions-path.txt"
    batch_size: 20
  }
}
layer {
  name: "conv1"
  type: "Convolution"
  bottom: "data"
  top: "conv1"
  param {
    lr_mult: 1
  }
  param {
    lr_mult: 2
  }
  convolution_param {
    num_output: 64
    pad: 2
    kernel_size: 5
    stride: 1
    weight_filler {
      type: "gaussian"
      std: 0.0001
    }
    bias_filler {
      type: "constant"
    }
  }
}
layer {
  name: "relu1"
  type: "ReLU"
  bottom: "conv1"
  top: "conv1"
}
layer {
  name: "conv2"
  type: "Convolution"
  bottom: "conv1"
  top: "conv2"
  param {
    lr_mult: 1
  }
  param {
    lr_mult: 2
  }
  convolution_param {
    num_output: 64
    pad: 2
    kernel_size: 5
    stride: 1
    weight_filler {
      type: "gaussian"
      std: 0.01
    }
    bias_filler {
      type: "constant"
    }
  }
}
layer {
  name: "relu2"
  type: "ReLU"
  bottom: "conv2"
  top: "conv2"
}
layer {
  name: "pool2"
  type: "Pooling"
  bottom: "conv2"
  top: "pool2"
  pooling_param {
    pool: MAX
    kernel_size: 3
    stride: 2
  }
}
layer {
  name: "conv3"
  type: "Convolution"
  bottom: "pool2"
  top: "conv3"
  param {
    lr_mult: 1
  }
  param {
    lr_mult: 2
  }
  convolution_param {
    num_output: 128
    pad: 2
    kernel_size: 5
    stride: 1
    weight_filler {
      type: "gaussian"
      std: 0.01
    }
    bias_filler {
      type: "constant"
    }
  }
}
layer {
  name: "relu3"
  type: "ReLU"
  bottom: "conv3"
  top: "conv3"
}
layer {
  name: "conv4"
  type: "Convolution"
  bottom: "conv3"
  top: "conv4"
  param {
    lr_mult: 1
  }
  param {
    lr_mult: 2
  }
  convolution_param {
    num_output: 128
    pad: 2
    kernel_size: 5
    stride: 1
    weight_filler {
      type: "gaussian"
      std: 0.01
    }
    bias_filler {
      type: "constant"
    }
  }
}
layer {
  name: "relu4"
  type: "ReLU"
  bottom: "conv4"
  top: "conv4"
}
layer {
  name: "conv5"
  type: "Convolution"
  bottom: "conv4"
  top: "conv5"
  param {
    lr_mult: 1
  }
  param {
    lr_mult: 2
  }
  convolution_param {
    num_output: 128
    pad: 2
    kernel_size: 5
    stride: 1
    weight_filler {
      type: "gaussian"
      std: 0.01
    }
    bias_filler {
      type: "constant"
    }
  }
}
layer {
  name: "relu5"
  type: "ReLU"
  bottom: "conv5"
  top: "conv5"
}
layer {
  name: "pool5"
  type: "Pooling"
  bottom: "conv5"
  top: "pool5"
  pooling_param {
    pool: AVE
    kernel_size: 3
    stride: 2
  }
}
layer {
  name: "ip1"
  type: "InnerProduct"
  bottom: "pool5"
  top: "ip1"
  param {
    lr_mult: 1
  }
  param {
    lr_mult: 2
  }
  inner_product_param {
    num_output: 1024
    weight_filler {
      type: "gaussian"
      std: 0.1
    }
    bias_filler {
      type: "constant"
    }
  }
}
layer {
  name: "ip2"
  type: "InnerProduct"
  bottom: "ip1"
  top: "ip2"
  param {
    lr_mult: 1
  }
  param {
    lr_mult: 2
  }
  inner_product_param {
    num_output: 512
    weight_filler {
      type: "gaussian"
      std: 0.1
    }
    bias_filler {
      type: "constant"
    }
  }
}
layer {
  name: "ip3"
  type: "InnerProduct"
  bottom: "ip2"
  top: "ip3"
  param {
    lr_mult: 1
  }
  param {
    lr_mult: 2
  }
  inner_product_param {
    num_output: 50
    weight_filler {
      type: "gaussian"
      std: 0.1
    }
    bias_filler {
      type: "constant"
    }
  }
}
layer {
  name: "loss"
  type: "SoftmaxWithLoss"
  bottom: "ip3"
  bottom: "label"
  top: "loss"
}
I0506 12:33:46.671473 21480 layer_factory.hpp:77] Creating layer parameters
I0506 12:33:46.671483 21480 net.cpp:94] Creating Layer parameters
I0506 12:33:46.671485 21480 net.cpp:409] parameters -> data
I0506 12:33:46.671492 21480 net.cpp:409] parameters -> label
I0506 12:33:46.671499 21480 hdf5_data_layer.cpp:79] Loading list of HDF5 filenames from: /home/purduethu/scratch/radon/d/deng106/CNNStatisticalModel/distributions/input/50_distributions_100_sample_size_train-distributions-path.txt
I0506 12:33:46.671514 21480 hdf5_data_layer.cpp:93] Number of HDF5 files: 1
I0506 12:33:46.826400 21480 hdf5.cpp:35] Datatype class: H5T_INTEGER
I0506 12:33:46.829440 21480 net.cpp:144] Setting up parameters
I0506 12:33:46.829458 21480 net.cpp:151] Top shape: 20 1 10 10 (2000)
I0506 12:33:46.829463 21480 net.cpp:151] Top shape: 20 (20)
I0506 12:33:46.829466 21480 net.cpp:159] Memory required for data: 8080
I0506 12:33:46.829473 21480 layer_factory.hpp:77] Creating layer conv1
I0506 12:33:46.829488 21480 net.cpp:94] Creating Layer conv1
I0506 12:33:46.829493 21480 net.cpp:435] conv1 <- data
I0506 12:33:46.829499 21480 net.cpp:409] conv1 -> conv1
I0506 12:33:46.831285 21480 net.cpp:144] Setting up conv1
I0506 12:33:46.831298 21480 net.cpp:151] Top shape: 20 64 10 10 (128000)
I0506 12:33:46.831302 21480 net.cpp:159] Memory required for data: 520080
I0506 12:33:46.831312 21480 layer_factory.hpp:77] Creating layer relu1
I0506 12:33:46.831321 21480 net.cpp:94] Creating Layer relu1
I0506 12:33:46.831323 21480 net.cpp:435] relu1 <- conv1
I0506 12:33:46.831328 21480 net.cpp:396] relu1 -> conv1 (in-place)
I0506 12:33:46.831336 21480 net.cpp:144] Setting up relu1
I0506 12:33:46.831341 21480 net.cpp:151] Top shape: 20 64 10 10 (128000)
I0506 12:33:46.831343 21480 net.cpp:159] Memory required for data: 1032080
I0506 12:33:46.831346 21480 layer_factory.hpp:77] Creating layer conv2
I0506 12:33:46.831354 21480 net.cpp:94] Creating Layer conv2
I0506 12:33:46.831357 21480 net.cpp:435] conv2 <- conv1
I0506 12:33:46.831362 21480 net.cpp:409] conv2 -> conv2
I0506 12:33:46.836666 21480 net.cpp:144] Setting up conv2
I0506 12:33:46.836680 21480 net.cpp:151] Top shape: 20 64 10 10 (128000)
I0506 12:33:46.836684 21480 net.cpp:159] Memory required for data: 1544080
I0506 12:33:46.836693 21480 layer_factory.hpp:77] Creating layer relu2
I0506 12:33:46.836699 21480 net.cpp:94] Creating Layer relu2
I0506 12:33:46.836702 21480 net.cpp:435] relu2 <- conv2
I0506 12:33:46.836707 21480 net.cpp:396] relu2 -> conv2 (in-place)
I0506 12:33:46.836714 21480 net.cpp:144] Setting up relu2
I0506 12:33:46.836719 21480 net.cpp:151] Top shape: 20 64 10 10 (128000)
I0506 12:33:46.836721 21480 net.cpp:159] Memory required for data: 2056080
I0506 12:33:46.836724 21480 layer_factory.hpp:77] Creating layer pool2
I0506 12:33:46.836730 21480 net.cpp:94] Creating Layer pool2
I0506 12:33:46.836733 21480 net.cpp:435] pool2 <- conv2
I0506 12:33:46.836738 21480 net.cpp:409] pool2 -> pool2
I0506 12:33:46.836796 21480 net.cpp:144] Setting up pool2
I0506 12:33:46.836802 21480 net.cpp:151] Top shape: 20 64 5 5 (32000)
I0506 12:33:46.836807 21480 net.cpp:159] Memory required for data: 2184080
I0506 12:33:46.836809 21480 layer_factory.hpp:77] Creating layer conv3
I0506 12:33:46.836817 21480 net.cpp:94] Creating Layer conv3
I0506 12:33:46.836820 21480 net.cpp:435] conv3 <- pool2
I0506 12:33:46.836825 21480 net.cpp:409] conv3 -> conv3
I0506 12:33:46.845362 21480 net.cpp:144] Setting up conv3
I0506 12:33:46.845376 21480 net.cpp:151] Top shape: 20 128 5 5 (64000)
I0506 12:33:46.845381 21480 net.cpp:159] Memory required for data: 2440080
I0506 12:33:46.845389 21480 layer_factory.hpp:77] Creating layer relu3
I0506 12:33:46.845396 21480 net.cpp:94] Creating Layer relu3
I0506 12:33:46.845398 21480 net.cpp:435] relu3 <- conv3
I0506 12:33:46.845403 21480 net.cpp:396] relu3 -> conv3 (in-place)
I0506 12:33:46.845417 21480 net.cpp:144] Setting up relu3
I0506 12:33:46.845422 21480 net.cpp:151] Top shape: 20 128 5 5 (64000)
I0506 12:33:46.845424 21480 net.cpp:159] Memory required for data: 2696080
I0506 12:33:46.845428 21480 layer_factory.hpp:77] Creating layer conv4
I0506 12:33:46.845437 21480 net.cpp:94] Creating Layer conv4
I0506 12:33:46.845439 21480 net.cpp:435] conv4 <- conv3
I0506 12:33:46.845444 21480 net.cpp:409] conv4 -> conv4
I0506 12:33:46.860111 21480 net.cpp:144] Setting up conv4
I0506 12:33:46.860126 21480 net.cpp:151] Top shape: 20 128 5 5 (64000)
I0506 12:33:46.860129 21480 net.cpp:159] Memory required for data: 2952080
I0506 12:33:46.860136 21480 layer_factory.hpp:77] Creating layer relu4
I0506 12:33:46.860142 21480 net.cpp:94] Creating Layer relu4
I0506 12:33:46.860146 21480 net.cpp:435] relu4 <- conv4
I0506 12:33:46.860150 21480 net.cpp:396] relu4 -> conv4 (in-place)
I0506 12:33:46.860157 21480 net.cpp:144] Setting up relu4
I0506 12:33:46.860162 21480 net.cpp:151] Top shape: 20 128 5 5 (64000)
I0506 12:33:46.860165 21480 net.cpp:159] Memory required for data: 3208080
I0506 12:33:46.860168 21480 layer_factory.hpp:77] Creating layer conv5
I0506 12:33:46.860177 21480 net.cpp:94] Creating Layer conv5
I0506 12:33:46.860179 21480 net.cpp:435] conv5 <- conv4
I0506 12:33:46.860184 21480 net.cpp:409] conv5 -> conv5
I0506 12:33:46.875099 21480 net.cpp:144] Setting up conv5
I0506 12:33:46.875113 21480 net.cpp:151] Top shape: 20 128 5 5 (64000)
I0506 12:33:46.875118 21480 net.cpp:159] Memory required for data: 3464080
I0506 12:33:46.875126 21480 layer_factory.hpp:77] Creating layer relu5
I0506 12:33:46.875133 21480 net.cpp:94] Creating Layer relu5
I0506 12:33:46.875136 21480 net.cpp:435] relu5 <- conv5
I0506 12:33:46.875141 21480 net.cpp:396] relu5 -> conv5 (in-place)
I0506 12:33:46.875149 21480 net.cpp:144] Setting up relu5
I0506 12:33:46.875152 21480 net.cpp:151] Top shape: 20 128 5 5 (64000)
I0506 12:33:46.875155 21480 net.cpp:159] Memory required for data: 3720080
I0506 12:33:46.875159 21480 layer_factory.hpp:77] Creating layer pool5
I0506 12:33:46.875164 21480 net.cpp:94] Creating Layer pool5
I0506 12:33:46.875167 21480 net.cpp:435] pool5 <- conv5
I0506 12:33:46.875171 21480 net.cpp:409] pool5 -> pool5
I0506 12:33:46.875211 21480 net.cpp:144] Setting up pool5
I0506 12:33:46.875218 21480 net.cpp:151] Top shape: 20 128 2 2 (10240)
I0506 12:33:46.875221 21480 net.cpp:159] Memory required for data: 3761040
I0506 12:33:46.875226 21480 layer_factory.hpp:77] Creating layer ip1
I0506 12:33:46.875231 21480 net.cpp:94] Creating Layer ip1
I0506 12:33:46.875236 21480 net.cpp:435] ip1 <- pool5
I0506 12:33:46.875241 21480 net.cpp:409] ip1 -> ip1
I0506 12:33:46.888339 21480 net.cpp:144] Setting up ip1
I0506 12:33:46.888353 21480 net.cpp:151] Top shape: 20 1024 (20480)
I0506 12:33:46.888356 21480 net.cpp:159] Memory required for data: 3842960
I0506 12:33:46.888362 21480 layer_factory.hpp:77] Creating layer ip2
I0506 12:33:46.888370 21480 net.cpp:94] Creating Layer ip2
I0506 12:33:46.888373 21480 net.cpp:435] ip2 <- ip1
I0506 12:33:46.888380 21480 net.cpp:409] ip2 -> ip2
I0506 12:33:46.901446 21480 net.cpp:144] Setting up ip2
I0506 12:33:46.901459 21480 net.cpp:151] Top shape: 20 512 (10240)
I0506 12:33:46.901463 21480 net.cpp:159] Memory required for data: 3883920
I0506 12:33:46.901469 21480 layer_factory.hpp:77] Creating layer ip3
I0506 12:33:46.901476 21480 net.cpp:94] Creating Layer ip3
I0506 12:33:46.901480 21480 net.cpp:435] ip3 <- ip2
I0506 12:33:46.901485 21480 net.cpp:409] ip3 -> ip3
I0506 12:33:46.902997 21480 net.cpp:144] Setting up ip3
I0506 12:33:46.903008 21480 net.cpp:151] Top shape: 20 50 (1000)
I0506 12:33:46.903012 21480 net.cpp:159] Memory required for data: 3887920
I0506 12:33:46.903018 21480 layer_factory.hpp:77] Creating layer loss
I0506 12:33:46.903026 21480 net.cpp:94] Creating Layer loss
I0506 12:33:46.903029 21480 net.cpp:435] loss <- ip3
I0506 12:33:46.903034 21480 net.cpp:435] loss <- label
I0506 12:33:46.903038 21480 net.cpp:409] loss -> loss
I0506 12:33:46.903046 21480 layer_factory.hpp:77] Creating layer loss
…
I0506 12:33:46.903568 21480 solver.cpp:181] Creating test net (#0) specified by net file: ./protocol/dis_50_100_dimension.protocol_distribution
I0506 12:33:46.903594 21480 net.cpp:323] The NetState phase (1) differed from the phase (0) specified by a rule in layer parameters
I0506 12:33:46.903684 21480 net.cpp:52] Initializing net from parameters: 
state {
  phase: TEST
}
layer {
  name: "intercept"
  type: "HDF5Data"
  top: "data"
  top: "label"
  include {
    phase: TEST
  }
  hdf5_data_param {
    source: "/home/purduethu/scratch/radon/d/deng106/CNNStatisticalModel/distributions/input/50_distributions_100_sample_size_test-distributions-path.txt"
    batch_size: 20
  }
}
layer {
  name: "conv1"
  type: "Convolution"
  bottom: "data"
  top: "conv1"
  param {
    lr_mult: 1
  }
  param {
    lr_mult: 2
  }
  convolution_param {
    num_output: 64
    pad: 2
    kernel_size: 5
    stride: 1
    weight_filler {
      type: "gaussian"
      std: 0.0001
    }
    bias_filler {
      type: "constant"
    }
  }
}
layer {
  name: "relu1"
  type: "ReLU"
  bottom: "conv1"
  top: "conv1"
}
layer {
  name: "conv2"
  type: "Convolution"
  bottom: "conv1"
  top: "conv2"
  param {
    lr_mult: 1
  }
  param {
    lr_mult: 2
  }
  convolution_param {
    num_output: 64
    pad: 2
    kernel_size: 5
    stride: 1
    weight_filler {
      type: "gaussian"
      std: 0.01
    }
    bias_filler {
      type: "constant"
    }
  }
}
layer {
  name: "relu2"
  type: "ReLU"
  bottom: "conv2"
  top: "conv2"
}
layer {
  name: "pool2"
  type: "Pooling"
  bottom: "conv2"
  top: "pool2"
  pooling_param {
    pool: MAX
    kernel_size: 3
    stride: 2
  }
}
layer {
  name: "conv3"
  type: "Convolution"
  bottom: "pool2"
  top: "conv3"
  param {
    lr_mult: 1
  }
  param {
    lr_mult: 2
  }
  convolution_param {
    num_output: 128
    pad: 2
    kernel_size: 5
    stride: 1
    weight_filler {
      type: "gaussian"
      std: 0.01
    }
    bias_filler {
      type: "constant"
    }
  }
}
layer {
  name: "relu3"
  type: "ReLU"
  bottom: "conv3"
  top: "conv3"
}
layer {
  name: "conv4"
  type: "Convolution"
  bottom: "conv3"
  top: "conv4"
  param {
    lr_mult: 1
  }
  param {
    lr_mult: 2
  }
  convolution_param {
    num_output: 128
    pad: 2
    kernel_size: 5
    stride: 1
    weight_filler {
      type: "gaussian"
      std: 0.01
    }
    bias_filler {
      type: "constant"
    }
  }
}
layer {
  name: "relu4"
  type: "ReLU"
  bottom: "conv4"
  top: "conv4"
}
layer {
  name: "conv5"
  type: "Convolution"
  bottom: "conv4"
  top: "conv5"
  param {
    lr_mult: 1
  }
  param {
    lr_mult: 2
  }
  convolution_param {
    num_output: 128
    pad: 2
    kernel_size: 5
    stride: 1
    weight_filler {
      type: "gaussian"
      std: 0.01
    }
    bias_filler {
      type: "constant"
    }
  }
}
layer {
  name: "relu5"
  type: "ReLU"
  bottom: "conv5"
  top: "conv5"
}
layer {
  name: "pool5"
  type: "Pooling"
  bottom: "conv5"
  top: "pool5"
  pooling_param {
    pool: AVE
    kernel_size: 3
    stride: 2
  }
}
layer {
  name: "ip1"
  type: "InnerProduct"
  bottom: "pool5"
  top: "ip1"
  param {
    lr_mult: 1
  }
  param {
    lr_mult: 2
  }
  inner_product_param {
    num_output: 1024
    weight_filler {
      type: "gaussian"
      std: 0.1
    }
    bias_filler {
      type: "constant"
    }
  }
}
layer {
  name: "ip2"
  type: "InnerProduct"
  bottom: "ip1"
  top: "ip2"
  param {
    lr_mult: 1
  }
  param {
    lr_mult: 2
  }
  inner_product_param {
    num_output: 512
    weight_filler {
      type: "gaussian"
      std: 0.1
    }
    bias_filler {
      type: "constant"
    }
  }
}
layer {
  name: "ip3"
  type: "InnerProduct"
  bottom: "ip2"
  top: "ip3"
  param {
    lr_mult: 1
  }
  param {
    lr_mult: 2
  }
  inner_product_param {
    num_output: 50
    weight_filler {
      type: "gaussian"
      std: 0.1
    }
    bias_filler {
      type: "constant"
    }
  }
}
layer {
  name: "accuracy"
  type: "Accuracy"
  bottom: "ip3"
  bottom: "label"
  top: "accuracy"
  include {
    phase: TEST
  }
}
layer {
  name: "loss"
  type: "SoftmaxWithLoss"
  bottom: "ip3"
  bottom: "label"
  top: "loss"
}
I0506 12:33:46.903746 21480 layer_factory.hpp:77] Creating layer intercept
I0506 12:33:46.903754 21480 net.cpp:94] Creating Layer intercept
I0506 12:33:46.903759 21480 net.cpp:409] intercept -> data
I0506 12:33:46.903764 21480 net.cpp:409] intercept -> label
I0506 12:33:46.903771 21480 hdf5_data_layer.cpp:79] Loading list of HDF5 filenames from: /home/purduethu/scratch/radon/d/deng106/CNNStatisticalModel/distributions/input/50_distributions_100_sample_size_test-distributions-path.txt
I0506 12:33:46.903790 21480 hdf5_data_layer.cpp:93] Number of HDF5 files: 1
I0506 12:33:46.944207 21480 net.cpp:144] Setting up intercept
I0506 12:33:46.944242 21480 net.cpp:151] Top shape: 20 1 10 10 (2000)
I0506 12:33:46.944247 21480 net.cpp:151] Top shape: 20 (20)
I0506 12:33:46.944250 21480 net.cpp:159] Memory required for data: 8080
I0506 12:33:46.944257 21480 layer_factory.hpp:77] Creating layer label_intercept_1_split
I0506 12:33:46.944277 21480 net.cpp:94] Creating Layer label_intercept_1_split
I0506 12:33:46.944281 21480 net.cpp:435] label_intercept_1_split <- label
I0506 12:33:46.944288 21480 net.cpp:409] label_intercept_1_split -> label_intercept_1_split_0
I0506 12:33:46.944295 21480 net.cpp:409] label_intercept_1_split -> label_intercept_1_split_1
I0506 12:33:46.944340 21480 net.cpp:144] Setting up label_intercept_1_split
I0506 12:33:46.944347 21480 net.cpp:151] Top shape: 20 (20)
I0506 12:33:46.944350 21480 net.cpp:151] Top shape: 20 (20)
I0506 12:33:46.944353 21480 net.cpp:159] Memory required for data: 8240
I0506 12:33:46.944357 21480 layer_factory.hpp:77] Creating layer conv1
I0506 12:33:46.944367 21480 net.cpp:94] Creating Layer conv1
I0506 12:33:46.944370 21480 net.cpp:435] conv1 <- data
I0506 12:33:46.944375 21480 net.cpp:409] conv1 -> conv1
I0506 12:33:46.945242 21480 net.cpp:144] Setting up conv1
I0506 12:33:46.945257 21480 net.cpp:151] Top shape: 20 64 10 10 (128000)
I0506 12:33:46.945261 21480 net.cpp:159] Memory required for data: 520240
I0506 12:33:46.945271 21480 layer_factory.hpp:77] Creating layer relu1
I0506 12:33:46.945277 21480 net.cpp:94] Creating Layer relu1
I0506 12:33:46.945281 21480 net.cpp:435] relu1 <- conv1
I0506 12:33:46.945286 21480 net.cpp:396] relu1 -> conv1 (in-place)
I0506 12:33:46.945292 21480 net.cpp:144] Setting up relu1
I0506 12:33:46.945297 21480 net.cpp:151] Top shape: 20 64 10 10 (128000)
I0506 12:33:46.945307 21480 net.cpp:159] Memory required for data: 1032240
I0506 12:33:46.945312 21480 layer_factory.hpp:77] Creating layer conv2
I0506 12:33:46.945319 21480 net.cpp:94] Creating Layer conv2
I0506 12:33:46.945323 21480 net.cpp:435] conv2 <- conv1
I0506 12:33:46.945328 21480 net.cpp:409] conv2 -> conv2
I0506 12:33:46.949424 21480 net.cpp:144] Setting up conv2
I0506 12:33:46.949436 21480 net.cpp:151] Top shape: 20 64 10 10 (128000)
I0506 12:33:46.949440 21480 net.cpp:159] Memory required for data: 1544240
I0506 12:33:46.949450 21480 layer_factory.hpp:77] Creating layer relu2
I0506 12:33:46.949456 21480 net.cpp:94] Creating Layer relu2
I0506 12:33:46.949460 21480 net.cpp:435] relu2 <- conv2
I0506 12:33:46.949465 21480 net.cpp:396] relu2 -> conv2 (in-place)
I0506 12:33:46.949472 21480 net.cpp:144] Setting up relu2
I0506 12:33:46.949477 21480 net.cpp:151] Top shape: 20 64 10 10 (128000)
I0506 12:33:46.949481 21480 net.cpp:159] Memory required for data: 2056240
I0506 12:33:46.949483 21480 layer_factory.hpp:77] Creating layer pool2
I0506 12:33:46.949488 21480 net.cpp:94] Creating Layer pool2
I0506 12:33:46.949491 21480 net.cpp:435] pool2 <- conv2
I0506 12:33:46.949496 21480 net.cpp:409] pool2 -> pool2
I0506 12:33:46.949558 21480 net.cpp:144] Setting up pool2
I0506 12:33:46.949565 21480 net.cpp:151] Top shape: 20 64 5 5 (32000)
I0506 12:33:46.949568 21480 net.cpp:159] Memory required for data: 2184240
I0506 12:33:46.949571 21480 layer_factory.hpp:77] Creating layer conv3
I0506 12:33:46.949579 21480 net.cpp:94] Creating Layer conv3
I0506 12:33:46.949584 21480 net.cpp:435] conv3 <- pool2
I0506 12:33:46.949590 21480 net.cpp:409] conv3 -> conv3
I0506 12:33:46.955593 21480 net.cpp:144] Setting up conv3
I0506 12:33:46.955606 21480 net.cpp:151] Top shape: 20 128 5 5 (64000)
I0506 12:33:46.955610 21480 net.cpp:159] Memory required for data: 2440240
I0506 12:33:46.955618 21480 layer_factory.hpp:77] Creating layer relu3
I0506 12:33:46.955626 21480 net.cpp:94] Creating Layer relu3
I0506 12:33:46.955631 21480 net.cpp:435] relu3 <- conv3
I0506 12:33:46.955636 21480 net.cpp:396] relu3 -> conv3 (in-place)
I0506 12:33:46.955641 21480 net.cpp:144] Setting up relu3
I0506 12:33:46.955646 21480 net.cpp:151] Top shape: 20 128 5 5 (64000)
I0506 12:33:46.955649 21480 net.cpp:159] Memory required for data: 2696240
I0506 12:33:46.955652 21480 layer_factory.hpp:77] Creating layer conv4
I0506 12:33:46.955660 21480 net.cpp:94] Creating Layer conv4
I0506 12:33:46.955664 21480 net.cpp:435] conv4 <- conv3
I0506 12:33:46.955670 21480 net.cpp:409] conv4 -> conv4
I0506 12:33:46.968340 21480 net.cpp:144] Setting up conv4
I0506 12:33:46.968379 21480 net.cpp:151] Top shape: 20 128 5 5 (64000)
I0506 12:33:46.968390 21480 net.cpp:159] Memory required for data: 2952240
I0506 12:33:46.968408 21480 layer_factory.hpp:77] Creating layer relu4
I0506 12:33:46.968423 21480 net.cpp:94] Creating Layer relu4
I0506 12:33:46.968433 21480 net.cpp:435] relu4 <- conv4
I0506 12:33:46.968451 21480 net.cpp:396] relu4 -> conv4 (in-place)
I0506 12:33:46.968472 21480 net.cpp:144] Setting up relu4
I0506 12:33:46.968477 21480 net.cpp:151] Top shape: 20 128 5 5 (64000)
I0506 12:33:46.968479 21480 net.cpp:159] Memory required for data: 3208240
I0506 12:33:46.968482 21480 layer_factory.hpp:77] Creating layer conv5
I0506 12:33:46.968492 21480 net.cpp:94] Creating Layer conv5
I0506 12:33:46.968494 21480 net.cpp:435] conv5 <- conv4
I0506 12:33:46.968500 21480 net.cpp:409] conv5 -> conv5
I0506 12:33:46.980968 21480 net.cpp:144] Setting up conv5
I0506 12:33:46.980983 21480 net.cpp:151] Top shape: 20 128 5 5 (64000)
I0506 12:33:46.980986 21480 net.cpp:159] Memory required for data: 3464240
I0506 12:33:46.980995 21480 layer_factory.hpp:77] Creating layer relu5
I0506 12:33:46.981003 21480 net.cpp:94] Creating Layer relu5
I0506 12:33:46.981006 21480 net.cpp:435] relu5 <- conv5
I0506 12:33:46.981010 21480 net.cpp:396] relu5 -> conv5 (in-place)
I0506 12:33:46.981017 21480 net.cpp:144] Setting up relu5
I0506 12:33:46.981022 21480 net.cpp:151] Top shape: 20 128 5 5 (64000)
I0506 12:33:46.981029 21480 net.cpp:159] Memory required for data: 3720240
I0506 12:33:46.981034 21480 layer_factory.hpp:77] Creating layer pool5
I0506 12:33:46.981039 21480 net.cpp:94] Creating Layer pool5
I0506 12:33:46.981041 21480 net.cpp:435] pool5 <- conv5
I0506 12:33:46.981046 21480 net.cpp:409] pool5 -> pool5
I0506 12:33:46.981088 21480 net.cpp:144] Setting up pool5
I0506 12:33:46.981096 21480 net.cpp:151] Top shape: 20 128 2 2 (10240)
I0506 12:33:46.981099 21480 net.cpp:159] Memory required for data: 3761200
I0506 12:33:46.981102 21480 layer_factory.hpp:77] Creating layer ip1
I0506 12:33:46.981111 21480 net.cpp:94] Creating Layer ip1
I0506 12:33:46.981114 21480 net.cpp:435] ip1 <- pool5
I0506 12:33:46.981120 21480 net.cpp:409] ip1 -> ip1
I0506 12:33:46.994238 21480 net.cpp:144] Setting up ip1
I0506 12:33:46.994251 21480 net.cpp:151] Top shape: 20 1024 (20480)
I0506 12:33:46.994254 21480 net.cpp:159] Memory required for data: 3843120
I0506 12:33:46.994261 21480 layer_factory.hpp:77] Creating layer ip2
I0506 12:33:46.994267 21480 net.cpp:94] Creating Layer ip2
I0506 12:33:46.994271 21480 net.cpp:435] ip2 <- ip1
I0506 12:33:46.994277 21480 net.cpp:409] ip2 -> ip2
I0506 12:33:47.007347 21480 net.cpp:144] Setting up ip2
I0506 12:33:47.007362 21480 net.cpp:151] Top shape: 20 512 (10240)
I0506 12:33:47.007365 21480 net.cpp:159] Memory required for data: 3884080
I0506 12:33:47.007371 21480 layer_factory.hpp:77] Creating layer ip3
I0506 12:33:47.007380 21480 net.cpp:94] Creating Layer ip3
I0506 12:33:47.007383 21480 net.cpp:435] ip3 <- ip2
I0506 12:33:47.007390 21480 net.cpp:409] ip3 -> ip3
I0506 12:33:47.008143 21480 net.cpp:144] Setting up ip3
I0506 12:33:47.008152 21480 net.cpp:151] Top shape: 20 50 (1000)
I0506 12:33:47.008155 21480 net.cpp:159] Memory required for data: 3888080
I0506 12:33:47.008160 21480 layer_factory.hpp:77] Creating layer ip3_ip3_0_split
I0506 12:33:47.008167 21480 net.cpp:94] Creating Layer ip3_ip3_0_split
I0506 12:33:47.008169 21480 net.cpp:435] ip3_ip3_0_split <- ip3
I0506 12:33:47.008174 21480 net.cpp:409] ip3_ip3_0_split -> ip3_ip3_0_split_0
I0506 12:33:47.008182 21480 net.cpp:409] ip3_ip3_0_split -> ip3_ip3_0_split_1
I0506 12:33:47.008229 21480 net.cpp:144] Setting up ip3_ip3_0_split
I0506 12:33:47.008236 21480 net.cpp:151] Top shape: 20 50 (1000)
I0506 12:33:47.008239 21480 net.cpp:151] Top shape: 20 50 (1000)
I0506 12:33:47.008242 21480 net.cpp:159] Memory required for data: 3896080
I0506 12:33:47.008245 21480 layer_factory.hpp:77] Creating layer accuracy
I0506 12:33:47.008252 21480 net.cpp:94] Creating Layer accuracy
I0506 12:33:47.008255 21480 net.cpp:435] accuracy <- ip3_ip3_0_split_0
I0506 12:33:47.008260 21480 net.cpp:435] accuracy <- label_intercept_1_split_0
I0506 12:33:47.008265 21480 net.cpp:409] accuracy -> accuracy
…
