…
I0505 03:36:23.593503  3031 net.cpp:323] The NetState phase (0) differed from the phase (1) specified by a rule in layer intercept
I0505 03:36:23.593518  3031 net.cpp:323] The NetState phase (0) differed from the phase (1) specified by a rule in layer loss
I0505 03:36:23.593598  3031 net.cpp:52] Initializing net from parameters: 
state {
  phase: TRAIN
}
layer {
  name: "parameters"
  type: "HDF5Data"
  top: "data"
  top: "label"
  include {
    phase: TRAIN
  }
  hdf5_data_param {
    source: "/home/purduethu/scratch/radon/d/deng106/CNNStatisticalModel/distributions/input/20_distributions_400_sample_size_train-parameters-path.txt"
    batch_size: 20
  }
}
layer {
  name: "conv1"
  type: "Convolution"
  bottom: "data"
  top: "conv1"
  param {
    lr_mult: 1
  }
  param {
    lr_mult: 2
  }
  convolution_param {
    num_output: 64
    pad: 2
    kernel_size: 5
    stride: 1
    weight_filler {
      type: "gaussian"
      std: 0.0001
    }
    bias_filler {
      type: "constant"
    }
  }
}
layer {
  name: "relu1"
  type: "ReLU"
  bottom: "conv1"
  top: "conv1"
}
layer {
  name: "pool1"
  type: "Pooling"
  bottom: "conv1"
  top: "pool1"
  pooling_param {
    pool: MAX
    kernel_size: 3
    stride: 2
  }
}
layer {
  name: "conv2"
  type: "Convolution"
  bottom: "pool1"
  top: "conv2"
  param {
    lr_mult: 1
  }
  param {
    lr_mult: 2
  }
  convolution_param {
    num_output: 128
    pad: 2
    kernel_size: 5
    stride: 1
    weight_filler {
      type: "gaussian"
      std: 0.01
    }
    bias_filler {
      type: "constant"
    }
  }
}
layer {
  name: "relu2"
  type: "ReLU"
  bottom: "conv2"
  top: "conv2"
}
layer {
  name: "conv3"
  type: "Convolution"
  bottom: "conv2"
  top: "conv3"
  param {
    lr_mult: 1
  }
  param {
    lr_mult: 2
  }
  convolution_param {
    num_output: 128
    pad: 2
    kernel_size: 5
    stride: 1
    weight_filler {
      type: "gaussian"
      std: 0.01
    }
    bias_filler {
      type: "constant"
    }
  }
}
layer {
  name: "relu3"
  type: "ReLU"
  bottom: "conv3"
  top: "conv3"
}
layer {
  name: "pool3"
  type: "Pooling"
  bottom: "conv3"
  top: "pool3"
  pooling_param {
    pool: AVE
    kernel_size: 3
    stride: 2
  }
}
layer {
  name: "ip1"
  type: "InnerProduct"
  bottom: "pool3"
  top: "ip1"
  param {
    lr_mult: 1
  }
  param {
    lr_mult: 2
  }
  inner_product_param {
    num_output: 512
    weight_filler {
      type: "gaussian"
      std: 0.1
    }
    bias_filler {
      type: "constant"
    }
  }
}
layer {
  name: "ip2"
  type: "InnerProduct"
  bottom: "ip1"
  top: "ip2"
  param {
    lr_mult: 1
  }
  param {
    lr_mult: 2
  }
  inner_product_param {
    num_output: 256
    weight_filler {
      type: "gaussian"
      std: 0.1
    }
    bias_filler {
      type: "constant"
    }
  }
}
layer {
  name: "ip3"
  type: "InnerProduct"
  bottom: "ip2"
  top: "ip3"
  param {
    lr_mult: 1
  }
  param {
    lr_mult: 2
  }
  inner_product_param {
    num_output: 1
    weight_filler {
      type: "gaussian"
      std: 0.1
    }
    bias_filler {
      type: "constant"
    }
  }
}
layer {
  name: "loss"
  type: "HuberLoss"
  bottom: "ip3"
  bottom: "label"
  top: "loss"
  include {
    phase: TRAIN
  }
}
I0505 03:36:23.593663  3031 layer_factory.hpp:77] Creating layer parameters
I0505 03:36:23.593678  3031 net.cpp:94] Creating Layer parameters
I0505 03:36:23.593693  3031 net.cpp:409] parameters -> data
I0505 03:36:23.593713  3031 net.cpp:409] parameters -> label
I0505 03:36:23.593724  3031 hdf5_data_layer.cpp:79] Loading list of HDF5 filenames from: /home/purduethu/scratch/radon/d/deng106/CNNStatisticalModel/distributions/input/20_distributions_400_sample_size_train-parameters-path.txt
I0505 03:36:23.593747  3031 hdf5_data_layer.cpp:93] Number of HDF5 files: 1
I0505 03:36:23.594224  3031 hdf5.cpp:32] Datatype class: H5T_FLOAT
I0505 03:36:23.862891  3031 net.cpp:144] Setting up parameters
I0505 03:36:23.862926  3031 net.cpp:151] Top shape: 20 1 20 20 (8000)
I0505 03:36:23.862931  3031 net.cpp:151] Top shape: 20 (20)
I0505 03:36:23.862936  3031 net.cpp:159] Memory required for data: 32080
I0505 03:36:23.862942  3031 layer_factory.hpp:77] Creating layer conv1
I0505 03:36:23.862967  3031 net.cpp:94] Creating Layer conv1
I0505 03:36:23.862974  3031 net.cpp:435] conv1 <- data
I0505 03:36:23.862987  3031 net.cpp:409] conv1 -> conv1
I0505 03:36:23.867873  3031 net.cpp:144] Setting up conv1
I0505 03:36:23.867890  3031 net.cpp:151] Top shape: 20 64 20 20 (512000)
I0505 03:36:23.867895  3031 net.cpp:159] Memory required for data: 2080080
I0505 03:36:23.867908  3031 layer_factory.hpp:77] Creating layer relu1
I0505 03:36:23.867918  3031 net.cpp:94] Creating Layer relu1
I0505 03:36:23.867921  3031 net.cpp:435] relu1 <- conv1
I0505 03:36:23.867926  3031 net.cpp:396] relu1 -> conv1 (in-place)
I0505 03:36:23.867946  3031 net.cpp:144] Setting up relu1
I0505 03:36:23.867951  3031 net.cpp:151] Top shape: 20 64 20 20 (512000)
I0505 03:36:23.867955  3031 net.cpp:159] Memory required for data: 4128080
I0505 03:36:23.867959  3031 layer_factory.hpp:77] Creating layer pool1
I0505 03:36:23.867966  3031 net.cpp:94] Creating Layer pool1
I0505 03:36:23.867969  3031 net.cpp:435] pool1 <- conv1
I0505 03:36:23.867974  3031 net.cpp:409] pool1 -> pool1
I0505 03:36:23.868017  3031 net.cpp:144] Setting up pool1
I0505 03:36:23.868024  3031 net.cpp:151] Top shape: 20 64 10 10 (128000)
I0505 03:36:23.868028  3031 net.cpp:159] Memory required for data: 4640080
I0505 03:36:23.868031  3031 layer_factory.hpp:77] Creating layer conv2
I0505 03:36:23.868041  3031 net.cpp:94] Creating Layer conv2
I0505 03:36:23.868044  3031 net.cpp:435] conv2 <- pool1
I0505 03:36:23.868049  3031 net.cpp:409] conv2 -> conv2
I0505 03:36:23.877668  3031 net.cpp:144] Setting up conv2
I0505 03:36:23.877683  3031 net.cpp:151] Top shape: 20 128 10 10 (256000)
I0505 03:36:23.877687  3031 net.cpp:159] Memory required for data: 5664080
I0505 03:36:23.877696  3031 layer_factory.hpp:77] Creating layer relu2
I0505 03:36:23.877702  3031 net.cpp:94] Creating Layer relu2
I0505 03:36:23.877707  3031 net.cpp:435] relu2 <- conv2
I0505 03:36:23.877712  3031 net.cpp:396] relu2 -> conv2 (in-place)
I0505 03:36:23.877718  3031 net.cpp:144] Setting up relu2
I0505 03:36:23.877723  3031 net.cpp:151] Top shape: 20 128 10 10 (256000)
I0505 03:36:23.877727  3031 net.cpp:159] Memory required for data: 6688080
I0505 03:36:23.877730  3031 layer_factory.hpp:77] Creating layer conv3
I0505 03:36:23.877738  3031 net.cpp:94] Creating Layer conv3
I0505 03:36:23.877743  3031 net.cpp:435] conv3 <- conv2
I0505 03:36:23.877748  3031 net.cpp:409] conv3 -> conv3
I0505 03:36:23.896695  3031 net.cpp:144] Setting up conv3
I0505 03:36:23.896710  3031 net.cpp:151] Top shape: 20 128 10 10 (256000)
I0505 03:36:23.896714  3031 net.cpp:159] Memory required for data: 7712080
I0505 03:36:23.896723  3031 layer_factory.hpp:77] Creating layer relu3
I0505 03:36:23.896729  3031 net.cpp:94] Creating Layer relu3
I0505 03:36:23.896744  3031 net.cpp:435] relu3 <- conv3
I0505 03:36:23.896749  3031 net.cpp:396] relu3 -> conv3 (in-place)
I0505 03:36:23.896757  3031 net.cpp:144] Setting up relu3
I0505 03:36:23.896762  3031 net.cpp:151] Top shape: 20 128 10 10 (256000)
I0505 03:36:23.896765  3031 net.cpp:159] Memory required for data: 8736080
I0505 03:36:23.896769  3031 layer_factory.hpp:77] Creating layer pool3
I0505 03:36:23.896775  3031 net.cpp:94] Creating Layer pool3
I0505 03:36:23.896778  3031 net.cpp:435] pool3 <- conv3
I0505 03:36:23.896790  3031 net.cpp:409] pool3 -> pool3
I0505 03:36:23.896827  3031 net.cpp:144] Setting up pool3
I0505 03:36:23.896834  3031 net.cpp:151] Top shape: 20 128 5 5 (64000)
I0505 03:36:23.896838  3031 net.cpp:159] Memory required for data: 8992080
I0505 03:36:23.896842  3031 layer_factory.hpp:77] Creating layer ip1
I0505 03:36:23.896852  3031 net.cpp:94] Creating Layer ip1
I0505 03:36:23.896855  3031 net.cpp:435] ip1 <- pool3
I0505 03:36:23.896860  3031 net.cpp:409] ip1 -> ip1
I0505 03:36:23.938278  3031 net.cpp:144] Setting up ip1
I0505 03:36:23.938294  3031 net.cpp:151] Top shape: 20 512 (10240)
I0505 03:36:23.938298  3031 net.cpp:159] Memory required for data: 9033040
I0505 03:36:23.938305  3031 layer_factory.hpp:77] Creating layer ip2
I0505 03:36:23.938313  3031 net.cpp:94] Creating Layer ip2
I0505 03:36:23.938316  3031 net.cpp:435] ip2 <- ip1
I0505 03:36:23.938323  3031 net.cpp:409] ip2 -> ip2
I0505 03:36:23.941596  3031 net.cpp:144] Setting up ip2
I0505 03:36:23.941606  3031 net.cpp:151] Top shape: 20 256 (5120)
I0505 03:36:23.941608  3031 net.cpp:159] Memory required for data: 9053520
I0505 03:36:23.941617  3031 layer_factory.hpp:77] Creating layer ip3
I0505 03:36:23.941623  3031 net.cpp:94] Creating Layer ip3
I0505 03:36:23.941627  3031 net.cpp:435] ip3 <- ip2
I0505 03:36:23.941632  3031 net.cpp:409] ip3 -> ip3
I0505 03:36:23.941700  3031 net.cpp:144] Setting up ip3
I0505 03:36:23.941707  3031 net.cpp:151] Top shape: 20 1 (20)
I0505 03:36:23.941710  3031 net.cpp:159] Memory required for data: 9053600
I0505 03:36:23.941715  3031 layer_factory.hpp:77] Creating layer loss
I0505 03:36:23.941721  3031 net.cpp:94] Creating Layer loss
I0505 03:36:23.941725  3031 net.cpp:435] loss <- ip3
I0505 03:36:23.941730  3031 net.cpp:435] loss <- label
I0505 03:36:23.941735  3031 net.cpp:409] loss -> loss
I0505 03:36:23.941771  3031 net.cpp:144] Setting up loss
…
