…
I0501 21:34:32.256582 14887 net.cpp:323] The NetState phase (0) differed from the phase (1) specified by a rule in layer intercept
I0501 21:34:32.256599 14887 net.cpp:323] The NetState phase (0) differed from the phase (1) specified by a rule in layer accuracy
I0501 21:34:32.256690 14887 net.cpp:52] Initializing net from parameters: 
state {
  phase: TRAIN
}
layer {
  name: "parameters"
  type: "HDF5Data"
  top: "data"
  top: "label"
  include {
    phase: TRAIN
  }
  hdf5_data_param {
    source: "/home/purduethu/scratch/radon/d/deng106/CNNStatisticalModel/distributions/input/5_distributions_900_sample_size_train-distributions-path.txt"
    batch_size: 20
  }
}
layer {
  name: "conv1"
  type: "Convolution"
  bottom: "data"
  top: "conv1"
  param {
    lr_mult: 1
  }
  param {
    lr_mult: 2
  }
  convolution_param {
    num_output: 64
    pad: 2
    kernel_size: 5
    stride: 1
    weight_filler {
      type: "gaussian"
      std: 0.0001
    }
    bias_filler {
      type: "constant"
    }
  }
}
layer {
  name: "relu1"
  type: "ReLU"
  bottom: "conv1"
  top: "conv1"
}
layer {
  name: "conv2"
  type: "Convolution"
  bottom: "conv1"
  top: "conv2"
  param {
    lr_mult: 1
  }
  param {
    lr_mult: 2
  }
  convolution_param {
    num_output: 64
    pad: 2
    kernel_size: 5
    stride: 1
    weight_filler {
      type: "gaussian"
      std: 0.01
    }
    bias_filler {
      type: "constant"
    }
  }
}
layer {
  name: "relu2"
  type: "ReLU"
  bottom: "conv2"
  top: "conv2"
}
layer {
  name: "pool2"
  type: "Pooling"
  bottom: "conv2"
  top: "pool2"
  pooling_param {
    pool: MAX
    kernel_size: 3
    stride: 2
  }
}
layer {
  name: "conv3"
  type: "Convolution"
  bottom: "pool2"
  top: "conv3"
  param {
    lr_mult: 1
  }
  param {
    lr_mult: 2
  }
  convolution_param {
    num_output: 64
    pad: 2
    kernel_size: 5
    stride: 1
    weight_filler {
      type: "gaussian"
      std: 0.01
    }
    bias_filler {
      type: "constant"
    }
  }
}
layer {
  name: "relu3"
  type: "ReLU"
  bottom: "conv3"
  top: "conv3"
}
layer {
  name: "conv4"
  type: "Convolution"
  bottom: "conv3"
  top: "conv4"
  param {
    lr_mult: 1
  }
  param {
    lr_mult: 2
  }
  convolution_param {
    num_output: 64
    pad: 2
    kernel_size: 5
    stride: 1
    weight_filler {
      type: "gaussian"
      std: 0.01
    }
    bias_filler {
      type: "constant"
    }
  }
}
layer {
  name: "relu4"
  type: "ReLU"
  bottom: "conv4"
  top: "conv4"
}
layer {
  name: "conv5"
  type: "Convolution"
  bottom: "conv4"
  top: "conv5"
  param {
    lr_mult: 1
  }
  param {
    lr_mult: 2
  }
  convolution_param {
    num_output: 64
    pad: 2
    kernel_size: 5
    stride: 1
    weight_filler {
      type: "gaussian"
      std: 0.01
    }
    bias_filler {
      type: "constant"
    }
  }
}
layer {
  name: "relu5"
  type: "ReLU"
  bottom: "conv5"
  top: "conv5"
}
layer {
  name: "pool5"
  type: "Pooling"
  bottom: "conv5"
  top: "pool5"
  pooling_param {
    pool: AVE
    kernel_size: 3
    stride: 2
  }
}
layer {
  name: "ip1"
  type: "InnerProduct"
  bottom: "pool5"
  top: "ip1"
  param {
    lr_mult: 1
  }
  param {
    lr_mult: 2
  }
  inner_product_param {
    num_output: 64
    weight_filler {
      type: "gaussian"
      std: 0.1
    }
    bias_filler {
      type: "constant"
    }
  }
}
layer {
  name: "ip2"
  type: "InnerProduct"
  bottom: "ip1"
  top: "ip2"
  param {
    lr_mult: 1
  }
  param {
    lr_mult: 2
  }
  inner_product_param {
    num_output: 64
    weight_filler {
      type: "gaussian"
      std: 0.1
    }
    bias_filler {
      type: "constant"
    }
  }
}
layer {
  name: "ip3"
  type: "InnerProduct"
  bottom: "ip2"
  top: "ip3"
  param {
    lr_mult: 1
  }
  param {
    lr_mult: 2
  }
  inner_product_param {
    num_output: 50
    weight_filler {
      type: "gaussian"
      std: 0.1
    }
    bias_filler {
      type: "constant"
    }
  }
}
layer {
  name: "loss"
  type: "SoftmaxWithLoss"
  bottom: "ip3"
  bottom: "label"
  top: "loss"
}
I0501 21:34:32.256764 14887 layer_factory.hpp:77] Creating layer parameters
I0501 21:34:32.256779 14887 net.cpp:94] Creating Layer parameters
I0501 21:34:32.256785 14887 net.cpp:409] parameters -> data
I0501 21:34:32.256803 14887 net.cpp:409] parameters -> label
I0501 21:34:32.256814 14887 hdf5_data_layer.cpp:79] Loading list of HDF5 filenames from: /home/purduethu/scratch/radon/d/deng106/CNNStatisticalModel/distributions/input/5_distributions_900_sample_size_train-distributions-path.txt
I0501 21:34:32.256834 14887 hdf5_data_layer.cpp:93] Number of HDF5 files: 1
I0501 21:34:32.257323 14887 hdf5.cpp:32] Datatype class: H5T_FLOAT
I0501 21:34:32.388769 14887 hdf5.cpp:35] Datatype class: H5T_INTEGER
I0501 21:34:32.389879 14887 net.cpp:144] Setting up parameters
I0501 21:34:32.389897 14887 net.cpp:151] Top shape: 20 1 30 30 (18000)
I0501 21:34:32.389904 14887 net.cpp:151] Top shape: 20 (20)
I0501 21:34:32.389906 14887 net.cpp:159] Memory required for data: 72080
I0501 21:34:32.389914 14887 layer_factory.hpp:77] Creating layer conv1
I0501 21:34:32.389937 14887 net.cpp:94] Creating Layer conv1
I0501 21:34:32.389943 14887 net.cpp:435] conv1 <- data
I0501 21:34:32.389955 14887 net.cpp:409] conv1 -> conv1
I0501 21:34:32.395714 14887 net.cpp:144] Setting up conv1
I0501 21:34:32.395730 14887 net.cpp:151] Top shape: 20 64 30 30 (1152000)
I0501 21:34:32.395733 14887 net.cpp:159] Memory required for data: 4680080
I0501 21:34:32.395745 14887 layer_factory.hpp:77] Creating layer relu1
I0501 21:34:32.395752 14887 net.cpp:94] Creating Layer relu1
I0501 21:34:32.395756 14887 net.cpp:435] relu1 <- conv1
I0501 21:34:32.395761 14887 net.cpp:396] relu1 -> conv1 (in-place)
I0501 21:34:32.395776 14887 net.cpp:144] Setting up relu1
I0501 21:34:32.395781 14887 net.cpp:151] Top shape: 20 64 30 30 (1152000)
I0501 21:34:32.395786 14887 net.cpp:159] Memory required for data: 9288080
I0501 21:34:32.395788 14887 layer_factory.hpp:77] Creating layer conv2
I0501 21:34:32.395795 14887 net.cpp:94] Creating Layer conv2
I0501 21:34:32.395799 14887 net.cpp:435] conv2 <- conv1
I0501 21:34:32.395804 14887 net.cpp:409] conv2 -> conv2
I0501 21:34:32.410806 14887 net.cpp:144] Setting up conv2
I0501 21:34:32.410822 14887 net.cpp:151] Top shape: 20 64 30 30 (1152000)
I0501 21:34:32.410826 14887 net.cpp:159] Memory required for data: 13896080
I0501 21:34:32.410835 14887 layer_factory.hpp:77] Creating layer relu2
I0501 21:34:32.410841 14887 net.cpp:94] Creating Layer relu2
I0501 21:34:32.410845 14887 net.cpp:435] relu2 <- conv2
I0501 21:34:32.410851 14887 net.cpp:396] relu2 -> conv2 (in-place)
I0501 21:34:32.410857 14887 net.cpp:144] Setting up relu2
I0501 21:34:32.410861 14887 net.cpp:151] Top shape: 20 64 30 30 (1152000)
I0501 21:34:32.410866 14887 net.cpp:159] Memory required for data: 18504080
I0501 21:34:32.410868 14887 layer_factory.hpp:77] Creating layer pool2
I0501 21:34:32.410881 14887 net.cpp:94] Creating Layer pool2
I0501 21:34:32.410887 14887 net.cpp:435] pool2 <- conv2
I0501 21:34:32.410890 14887 net.cpp:409] pool2 -> pool2
I0501 21:34:32.410934 14887 net.cpp:144] Setting up pool2
I0501 21:34:32.410943 14887 net.cpp:151] Top shape: 20 64 15 15 (288000)
I0501 21:34:32.410945 14887 net.cpp:159] Memory required for data: 19656080
I0501 21:34:32.410948 14887 layer_factory.hpp:77] Creating layer conv3
I0501 21:34:32.410956 14887 net.cpp:94] Creating Layer conv3
I0501 21:34:32.410960 14887 net.cpp:435] conv3 <- pool2
I0501 21:34:32.410972 14887 net.cpp:409] conv3 -> conv3
I0501 21:34:32.419090 14887 net.cpp:144] Setting up conv3
I0501 21:34:32.419104 14887 net.cpp:151] Top shape: 20 64 15 15 (288000)
I0501 21:34:32.419108 14887 net.cpp:159] Memory required for data: 20808080
I0501 21:34:32.419116 14887 layer_factory.hpp:77] Creating layer relu3
I0501 21:34:32.419123 14887 net.cpp:94] Creating Layer relu3
I0501 21:34:32.419127 14887 net.cpp:435] relu3 <- conv3
I0501 21:34:32.419131 14887 net.cpp:396] relu3 -> conv3 (in-place)
I0501 21:34:32.419139 14887 net.cpp:144] Setting up relu3
I0501 21:34:32.419143 14887 net.cpp:151] Top shape: 20 64 15 15 (288000)
I0501 21:34:32.419147 14887 net.cpp:159] Memory required for data: 21960080
I0501 21:34:32.419150 14887 layer_factory.hpp:77] Creating layer conv4
I0501 21:34:32.419158 14887 net.cpp:94] Creating Layer conv4
I0501 21:34:32.419162 14887 net.cpp:435] conv4 <- conv3
I0501 21:34:32.419167 14887 net.cpp:409] conv4 -> conv4
I0501 21:34:32.426486 14887 net.cpp:144] Setting up conv4
I0501 21:34:32.426501 14887 net.cpp:151] Top shape: 20 64 15 15 (288000)
I0501 21:34:32.426506 14887 net.cpp:159] Memory required for data: 23112080
I0501 21:34:32.426512 14887 layer_factory.hpp:77] Creating layer relu4
I0501 21:34:32.426517 14887 net.cpp:94] Creating Layer relu4
I0501 21:34:32.426522 14887 net.cpp:435] relu4 <- conv4
I0501 21:34:32.426527 14887 net.cpp:396] relu4 -> conv4 (in-place)
I0501 21:34:32.426533 14887 net.cpp:144] Setting up relu4
I0501 21:34:32.426538 14887 net.cpp:151] Top shape: 20 64 15 15 (288000)
I0501 21:34:32.426542 14887 net.cpp:159] Memory required for data: 24264080
I0501 21:34:32.426544 14887 layer_factory.hpp:77] Creating layer conv5
I0501 21:34:32.426553 14887 net.cpp:94] Creating Layer conv5
I0501 21:34:32.426556 14887 net.cpp:435] conv5 <- conv4
I0501 21:34:32.426561 14887 net.cpp:409] conv5 -> conv5
I0501 21:34:32.433723 14887 net.cpp:144] Setting up conv5
I0501 21:34:32.433739 14887 net.cpp:151] Top shape: 20 64 15 15 (288000)
I0501 21:34:32.433743 14887 net.cpp:159] Memory required for data: 25416080
I0501 21:34:32.433753 14887 layer_factory.hpp:77] Creating layer relu5
I0501 21:34:32.433758 14887 net.cpp:94] Creating Layer relu5
I0501 21:34:32.433763 14887 net.cpp:435] relu5 <- conv5
I0501 21:34:32.433768 14887 net.cpp:396] relu5 -> conv5 (in-place)
I0501 21:34:32.433774 14887 net.cpp:144] Setting up relu5
I0501 21:34:32.433779 14887 net.cpp:151] Top shape: 20 64 15 15 (288000)
I0501 21:34:32.433782 14887 net.cpp:159] Memory required for data: 26568080
I0501 21:34:32.433785 14887 layer_factory.hpp:77] Creating layer pool5
I0501 21:34:32.433790 14887 net.cpp:94] Creating Layer pool5
I0501 21:34:32.433794 14887 net.cpp:435] pool5 <- conv5
I0501 21:34:32.433799 14887 net.cpp:409] pool5 -> pool5
I0501 21:34:32.433832 14887 net.cpp:144] Setting up pool5
I0501 21:34:32.433840 14887 net.cpp:151] Top shape: 20 64 7 7 (62720)
I0501 21:34:32.433843 14887 net.cpp:159] Memory required for data: 26818960
I0501 21:34:32.433847 14887 layer_factory.hpp:77] Creating layer ip1
I0501 21:34:32.433856 14887 net.cpp:94] Creating Layer ip1
I0501 21:34:32.433861 14887 net.cpp:435] ip1 <- pool5
I0501 21:34:32.433864 14887 net.cpp:409] ip1 -> ip1
I0501 21:34:32.439224 14887 net.cpp:144] Setting up ip1
I0501 21:34:32.439237 14887 net.cpp:151] Top shape: 20 64 (1280)
I0501 21:34:32.439241 14887 net.cpp:159] Memory required for data: 26824080
I0501 21:34:32.439247 14887 layer_factory.hpp:77] Creating layer ip2
I0501 21:34:32.439258 14887 net.cpp:94] Creating Layer ip2
I0501 21:34:32.439262 14887 net.cpp:435] ip2 <- ip1
I0501 21:34:32.439268 14887 net.cpp:409] ip2 -> ip2
I0501 21:34:32.439435 14887 net.cpp:144] Setting up ip2
I0501 21:34:32.439441 14887 net.cpp:151] Top shape: 20 64 (1280)
I0501 21:34:32.439445 14887 net.cpp:159] Memory required for data: 26829200
I0501 21:34:32.439450 14887 layer_factory.hpp:77] Creating layer ip3
I0501 21:34:32.439455 14887 net.cpp:94] Creating Layer ip3
I0501 21:34:32.439458 14887 net.cpp:435] ip3 <- ip2
I0501 21:34:32.439463 14887 net.cpp:409] ip3 -> ip3
I0501 21:34:32.439609 14887 net.cpp:144] Setting up ip3
I0501 21:34:32.439615 14887 net.cpp:151] Top shape: 20 50 (1000)
I0501 21:34:32.439617 14887 net.cpp:159] Memory required for data: 26833200
I0501 21:34:32.439622 14887 layer_factory.hpp:77] Creating layer loss
I0501 21:34:32.439630 14887 net.cpp:94] Creating Layer loss
I0501 21:34:32.439632 14887 net.cpp:435] loss <- ip3
I0501 21:34:32.439636 14887 net.cpp:435] loss <- label
I0501 21:34:32.439642 14887 net.cpp:409] loss -> loss
I0501 21:34:32.439651 14887 layer_factory.hpp:77] Creating layer loss
…
I0501 21:34:32.440131 14887 solver.cpp:181] Creating test net (#0) specified by net file: ./protocol/dis_5_900_dimension.protocol_distribution
I0501 21:34:32.440157 14887 net.cpp:323] The NetState phase (1) differed from the phase (0) specified by a rule in layer parameters
I0501 21:34:32.440254 14887 net.cpp:52] Initializing net from parameters: 
state {
  phase: TEST
}
layer {
  name: "intercept"
  type: "HDF5Data"
  top: "data"
  top: "label"
  include {
    phase: TEST
  }
  hdf5_data_param {
    source: "/home/purduethu/scratch/radon/d/deng106/CNNStatisticalModel/distributions/input/5_distributions_900_sample_size_test-distributions-path.txt"
    batch_size: 20
  }
}
layer {
  name: "conv1"
  type: "Convolution"
  bottom: "data"
  top: "conv1"
  param {
    lr_mult: 1
  }
  param {
    lr_mult: 2
  }
  convolution_param {
    num_output: 64
    pad: 2
    kernel_size: 5
    stride: 1
    weight_filler {
      type: "gaussian"
      std: 0.0001
    }
    bias_filler {
      type: "constant"
    }
  }
}
layer {
  name: "relu1"
  type: "ReLU"
  bottom: "conv1"
  top: "conv1"
}
layer {
  name: "conv2"
  type: "Convolution"
  bottom: "conv1"
  top: "conv2"
  param {
    lr_mult: 1
  }
  param {
    lr_mult: 2
  }
  convolution_param {
    num_output: 64
    pad: 2
    kernel_size: 5
    stride: 1
    weight_filler {
      type: "gaussian"
      std: 0.01
    }
    bias_filler {
      type: "constant"
    }
  }
}
layer {
  name: "relu2"
  type: "ReLU"
  bottom: "conv2"
  top: "conv2"
}
layer {
  name: "pool2"
  type: "Pooling"
  bottom: "conv2"
  top: "pool2"
  pooling_param {
    pool: MAX
    kernel_size: 3
    stride: 2
  }
}
layer {
  name: "conv3"
  type: "Convolution"
  bottom: "pool2"
  top: "conv3"
  param {
    lr_mult: 1
  }
  param {
    lr_mult: 2
  }
  convolution_param {
    num_output: 64
    pad: 2
    kernel_size: 5
    stride: 1
    weight_filler {
      type: "gaussian"
      std: 0.01
    }
    bias_filler {
      type: "constant"
    }
  }
}
layer {
  name: "relu3"
  type: "ReLU"
  bottom: "conv3"
  top: "conv3"
}
layer {
  name: "conv4"
  type: "Convolution"
  bottom: "conv3"
  top: "conv4"
  param {
    lr_mult: 1
  }
  param {
    lr_mult: 2
  }
  convolution_param {
    num_output: 64
    pad: 2
    kernel_size: 5
    stride: 1
    weight_filler {
      type: "gaussian"
      std: 0.01
    }
    bias_filler {
      type: "constant"
    }
  }
}
layer {
  name: "relu4"
  type: "ReLU"
  bottom: "conv4"
  top: "conv4"
}
layer {
  name: "conv5"
  type: "Convolution"
  bottom: "conv4"
  top: "conv5"
  param {
    lr_mult: 1
  }
  param {
    lr_mult: 2
  }
  convolution_param {
    num_output: 64
    pad: 2
    kernel_size: 5
    stride: 1
    weight_filler {
      type: "gaussian"
      std: 0.01
    }
    bias_filler {
      type: "constant"
    }
  }
}
layer {
  name: "relu5"
  type: "ReLU"
  bottom: "conv5"
  top: "conv5"
}
layer {
  name: "pool5"
  type: "Pooling"
  bottom: "conv5"
  top: "pool5"
  pooling_param {
    pool: AVE
    kernel_size: 3
    stride: 2
  }
}
layer {
  name: "ip1"
  type: "InnerProduct"
  bottom: "pool5"
  top: "ip1"
  param {
    lr_mult: 1
  }
  param {
    lr_mult: 2
  }
  inner_product_param {
    num_output: 64
    weight_filler {
      type: "gaussian"
      std: 0.1
    }
    bias_filler {
      type: "constant"
    }
  }
}
layer {
  name: "ip2"
  type: "InnerProduct"
  bottom: "ip1"
  top: "ip2"
  param {
    lr_mult: 1
  }
  param {
    lr_mult: 2
  }
  inner_product_param {
    num_output: 64
    weight_filler {
      type: "gaussian"
      std: 0.1
    }
    bias_filler {
      type: "constant"
    }
  }
}
layer {
  name: "ip3"
  type: "InnerProduct"
  bottom: "ip2"
  top: "ip3"
  param {
    lr_mult: 1
  }
  param {
    lr_mult: 2
  }
  inner_product_param {
    num_output: 50
    weight_filler {
      type: "gaussian"
      std: 0.1
    }
    bias_filler {
      type: "constant"
    }
  }
}
layer {
  name: "accuracy"
  type: "Accuracy"
  bottom: "ip3"
  bottom: "label"
  top: "accuracy"
  include {
    phase: TEST
  }
}
layer {
  name: "loss"
  type: "SoftmaxWithLoss"
  bottom: "ip3"
  bottom: "label"
  top: "loss"
}
I0501 21:34:32.440325 14887 layer_factory.hpp:77] Creating layer intercept
I0501 21:34:32.440332 14887 net.cpp:94] Creating Layer intercept
I0501 21:34:32.440336 14887 net.cpp:409] intercept -> data
I0501 21:34:32.440343 14887 net.cpp:409] intercept -> label
I0501 21:34:32.440349 14887 hdf5_data_layer.cpp:79] Loading list of HDF5 filenames from: /home/purduethu/scratch/radon/d/deng106/CNNStatisticalModel/distributions/input/5_distributions_900_sample_size_test-distributions-path.txt
I0501 21:34:32.440367 14887 hdf5_data_layer.cpp:93] Number of HDF5 files: 1
I0501 21:34:32.474575 14887 net.cpp:144] Setting up intercept
I0501 21:34:32.474606 14887 net.cpp:151] Top shape: 20 1 30 30 (18000)
I0501 21:34:32.474611 14887 net.cpp:151] Top shape: 20 (20)
I0501 21:34:32.474614 14887 net.cpp:159] Memory required for data: 72080
I0501 21:34:32.474619 14887 layer_factory.hpp:77] Creating layer label_intercept_1_split
I0501 21:34:32.474635 14887 net.cpp:94] Creating Layer label_intercept_1_split
I0501 21:34:32.474640 14887 net.cpp:435] label_intercept_1_split <- label
I0501 21:34:32.474645 14887 net.cpp:409] label_intercept_1_split -> label_intercept_1_split_0
I0501 21:34:32.474654 14887 net.cpp:409] label_intercept_1_split -> label_intercept_1_split_1
I0501 21:34:32.474689 14887 net.cpp:144] Setting up label_intercept_1_split
I0501 21:34:32.474694 14887 net.cpp:151] Top shape: 20 (20)
I0501 21:34:32.474699 14887 net.cpp:151] Top shape: 20 (20)
I0501 21:34:32.474701 14887 net.cpp:159] Memory required for data: 72240
I0501 21:34:32.474705 14887 layer_factory.hpp:77] Creating layer conv1
I0501 21:34:32.474716 14887 net.cpp:94] Creating Layer conv1
I0501 21:34:32.474720 14887 net.cpp:435] conv1 <- data
I0501 21:34:32.474725 14887 net.cpp:409] conv1 -> conv1
I0501 21:34:32.475877 14887 net.cpp:144] Setting up conv1
I0501 21:34:32.475898 14887 net.cpp:151] Top shape: 20 64 30 30 (1152000)
I0501 21:34:32.475903 14887 net.cpp:159] Memory required for data: 4680240
I0501 21:34:32.475911 14887 layer_factory.hpp:77] Creating layer relu1
I0501 21:34:32.475919 14887 net.cpp:94] Creating Layer relu1
I0501 21:34:32.475922 14887 net.cpp:435] relu1 <- conv1
I0501 21:34:32.475927 14887 net.cpp:396] relu1 -> conv1 (in-place)
I0501 21:34:32.475934 14887 net.cpp:144] Setting up relu1
I0501 21:34:32.475939 14887 net.cpp:151] Top shape: 20 64 30 30 (1152000)
I0501 21:34:32.475942 14887 net.cpp:159] Memory required for data: 9288240
I0501 21:34:32.475945 14887 layer_factory.hpp:77] Creating layer conv2
I0501 21:34:32.475955 14887 net.cpp:94] Creating Layer conv2
I0501 21:34:32.475957 14887 net.cpp:435] conv2 <- conv1
I0501 21:34:32.475962 14887 net.cpp:409] conv2 -> conv2
I0501 21:34:32.482167 14887 net.cpp:144] Setting up conv2
I0501 21:34:32.482183 14887 net.cpp:151] Top shape: 20 64 30 30 (1152000)
I0501 21:34:32.482187 14887 net.cpp:159] Memory required for data: 13896240
I0501 21:34:32.482195 14887 layer_factory.hpp:77] Creating layer relu2
I0501 21:34:32.482201 14887 net.cpp:94] Creating Layer relu2
I0501 21:34:32.482205 14887 net.cpp:435] relu2 <- conv2
I0501 21:34:32.482210 14887 net.cpp:396] relu2 -> conv2 (in-place)
I0501 21:34:32.482218 14887 net.cpp:144] Setting up relu2
I0501 21:34:32.482223 14887 net.cpp:151] Top shape: 20 64 30 30 (1152000)
I0501 21:34:32.482225 14887 net.cpp:159] Memory required for data: 18504240
I0501 21:34:32.482228 14887 layer_factory.hpp:77] Creating layer pool2
I0501 21:34:32.482234 14887 net.cpp:94] Creating Layer pool2
I0501 21:34:32.482237 14887 net.cpp:435] pool2 <- conv2
I0501 21:34:32.482242 14887 net.cpp:409] pool2 -> pool2
I0501 21:34:32.482277 14887 net.cpp:144] Setting up pool2
I0501 21:34:32.482283 14887 net.cpp:151] Top shape: 20 64 15 15 (288000)
I0501 21:34:32.482286 14887 net.cpp:159] Memory required for data: 19656240
I0501 21:34:32.482290 14887 layer_factory.hpp:77] Creating layer conv3
I0501 21:34:32.482298 14887 net.cpp:94] Creating Layer conv3
I0501 21:34:32.482301 14887 net.cpp:435] conv3 <- pool2
I0501 21:34:32.482306 14887 net.cpp:409] conv3 -> conv3
I0501 21:34:32.487058 14887 net.cpp:144] Setting up conv3
I0501 21:34:32.487074 14887 net.cpp:151] Top shape: 20 64 15 15 (288000)
I0501 21:34:32.487078 14887 net.cpp:159] Memory required for data: 20808240
I0501 21:34:32.487087 14887 layer_factory.hpp:77] Creating layer relu3
I0501 21:34:32.487093 14887 net.cpp:94] Creating Layer relu3
I0501 21:34:32.487097 14887 net.cpp:435] relu3 <- conv3
I0501 21:34:32.487102 14887 net.cpp:396] relu3 -> conv3 (in-place)
I0501 21:34:32.487109 14887 net.cpp:144] Setting up relu3
I0501 21:34:32.487114 14887 net.cpp:151] Top shape: 20 64 15 15 (288000)
I0501 21:34:32.487118 14887 net.cpp:159] Memory required for data: 21960240
I0501 21:34:32.487120 14887 layer_factory.hpp:77] Creating layer conv4
I0501 21:34:32.487128 14887 net.cpp:94] Creating Layer conv4
I0501 21:34:32.487133 14887 net.cpp:435] conv4 <- conv3
I0501 21:34:32.487138 14887 net.cpp:409] conv4 -> conv4
I0501 21:34:32.491518 14887 net.cpp:144] Setting up conv4
I0501 21:34:32.491545 14887 net.cpp:151] Top shape: 20 64 15 15 (288000)
I0501 21:34:32.491554 14887 net.cpp:159] Memory required for data: 23112240
I0501 21:34:32.491566 14887 layer_factory.hpp:77] Creating layer relu4
I0501 21:34:32.491577 14887 net.cpp:94] Creating Layer relu4
I0501 21:34:32.491592 14887 net.cpp:435] relu4 <- conv4
I0501 21:34:32.491602 14887 net.cpp:396] relu4 -> conv4 (in-place)
I0501 21:34:32.491622 14887 net.cpp:144] Setting up relu4
I0501 21:34:32.491627 14887 net.cpp:151] Top shape: 20 64 15 15 (288000)
I0501 21:34:32.491631 14887 net.cpp:159] Memory required for data: 24264240
I0501 21:34:32.491633 14887 layer_factory.hpp:77] Creating layer conv5
I0501 21:34:32.491641 14887 net.cpp:94] Creating Layer conv5
I0501 21:34:32.491644 14887 net.cpp:435] conv5 <- conv4
I0501 21:34:32.491649 14887 net.cpp:409] conv5 -> conv5
I0501 21:34:32.495976 14887 net.cpp:144] Setting up conv5
I0501 21:34:32.495990 14887 net.cpp:151] Top shape: 20 64 15 15 (288000)
I0501 21:34:32.495995 14887 net.cpp:159] Memory required for data: 25416240
I0501 21:34:32.496002 14887 layer_factory.hpp:77] Creating layer relu5
I0501 21:34:32.496008 14887 net.cpp:94] Creating Layer relu5
I0501 21:34:32.496012 14887 net.cpp:435] relu5 <- conv5
I0501 21:34:32.496017 14887 net.cpp:396] relu5 -> conv5 (in-place)
I0501 21:34:32.496024 14887 net.cpp:144] Setting up relu5
I0501 21:34:32.496028 14887 net.cpp:151] Top shape: 20 64 15 15 (288000)
I0501 21:34:32.496031 14887 net.cpp:159] Memory required for data: 26568240
I0501 21:34:32.496035 14887 layer_factory.hpp:77] Creating layer pool5
I0501 21:34:32.496040 14887 net.cpp:94] Creating Layer pool5
I0501 21:34:32.496043 14887 net.cpp:435] pool5 <- conv5
I0501 21:34:32.496047 14887 net.cpp:409] pool5 -> pool5
I0501 21:34:32.496073 14887 net.cpp:144] Setting up pool5
I0501 21:34:32.496079 14887 net.cpp:151] Top shape: 20 64 7 7 (62720)
I0501 21:34:32.496083 14887 net.cpp:159] Memory required for data: 26819120
I0501 21:34:32.496085 14887 layer_factory.hpp:77] Creating layer ip1
I0501 21:34:32.496093 14887 net.cpp:94] Creating Layer ip1
I0501 21:34:32.496095 14887 net.cpp:435] ip1 <- pool5
I0501 21:34:32.496100 14887 net.cpp:409] ip1 -> ip1
I0501 21:34:32.501492 14887 net.cpp:144] Setting up ip1
I0501 21:34:32.501507 14887 net.cpp:151] Top shape: 20 64 (1280)
I0501 21:34:32.501510 14887 net.cpp:159] Memory required for data: 26824240
I0501 21:34:32.501516 14887 layer_factory.hpp:77] Creating layer ip2
I0501 21:34:32.501523 14887 net.cpp:94] Creating Layer ip2
I0501 21:34:32.501526 14887 net.cpp:435] ip2 <- ip1
I0501 21:34:32.501531 14887 net.cpp:409] ip2 -> ip2
I0501 21:34:32.501698 14887 net.cpp:144] Setting up ip2
I0501 21:34:32.501704 14887 net.cpp:151] Top shape: 20 64 (1280)
I0501 21:34:32.501708 14887 net.cpp:159] Memory required for data: 26829360
I0501 21:34:32.501713 14887 layer_factory.hpp:77] Creating layer ip3
I0501 21:34:32.501719 14887 net.cpp:94] Creating Layer ip3
I0501 21:34:32.501723 14887 net.cpp:435] ip3 <- ip2
I0501 21:34:32.501727 14887 net.cpp:409] ip3 -> ip3
I0501 21:34:32.501870 14887 net.cpp:144] Setting up ip3
I0501 21:34:32.501876 14887 net.cpp:151] Top shape: 20 50 (1000)
I0501 21:34:32.501879 14887 net.cpp:159] Memory required for data: 26833360
I0501 21:34:32.501884 14887 layer_factory.hpp:77] Creating layer ip3_ip3_0_split
I0501 21:34:32.501889 14887 net.cpp:94] Creating Layer ip3_ip3_0_split
I0501 21:34:32.501893 14887 net.cpp:435] ip3_ip3_0_split <- ip3
I0501 21:34:32.501898 14887 net.cpp:409] ip3_ip3_0_split -> ip3_ip3_0_split_0
I0501 21:34:32.501902 14887 net.cpp:409] ip3_ip3_0_split -> ip3_ip3_0_split_1
I0501 21:34:32.501926 14887 net.cpp:144] Setting up ip3_ip3_0_split
I0501 21:34:32.501932 14887 net.cpp:151] Top shape: 20 50 (1000)
I0501 21:34:32.501935 14887 net.cpp:151] Top shape: 20 50 (1000)
I0501 21:34:32.501940 14887 net.cpp:159] Memory required for data: 26841360
I0501 21:34:32.501942 14887 layer_factory.hpp:77] Creating layer accuracy
I0501 21:34:32.501951 14887 net.cpp:94] Creating Layer accuracy
I0501 21:34:32.501955 14887 net.cpp:435] accuracy <- ip3_ip3_0_split_0
I0501 21:34:32.501960 14887 net.cpp:435] accuracy <- label_intercept_1_split_0
I0501 21:34:32.501963 14887 net.cpp:409] accuracy -> accuracy
…
