…
I0502 18:18:41.723836 11990 net.cpp:323] The NetState phase (0) differed from the phase (1) specified by a rule in layer intercept
I0502 18:18:41.723852 11990 net.cpp:323] The NetState phase (0) differed from the phase (1) specified by a rule in layer accuracy
I0502 18:18:41.723942 11990 net.cpp:52] Initializing net from parameters: 
state {
  phase: TRAIN
}
layer {
  name: "parameters"
  type: "HDF5Data"
  top: "data"
  top: "label"
  include {
    phase: TRAIN
  }
  hdf5_data_param {
    source: "/home/purduethu/scratch/radon/d/deng106/CNNStatisticalModel/distributions/input/20_distributions_400_sample_size_train-distributions-path.txt"
    batch_size: 20
  }
}
layer {
  name: "conv1"
  type: "Convolution"
  bottom: "data"
  top: "conv1"
  param {
    lr_mult: 1
  }
  param {
    lr_mult: 2
  }
  convolution_param {
    num_output: 64
    pad: 2
    kernel_size: 5
    stride: 1
    weight_filler {
      type: "gaussian"
      std: 0.0001
    }
    bias_filler {
      type: "constant"
    }
  }
}
layer {
  name: "relu1"
  type: "ReLU"
  bottom: "conv1"
  top: "conv1"
}
layer {
  name: "conv2"
  type: "Convolution"
  bottom: "conv1"
  top: "conv2"
  param {
    lr_mult: 1
  }
  param {
    lr_mult: 2
  }
  convolution_param {
    num_output: 64
    pad: 2
    kernel_size: 5
    stride: 1
    weight_filler {
      type: "gaussian"
      std: 0.01
    }
    bias_filler {
      type: "constant"
    }
  }
}
layer {
  name: "relu2"
  type: "ReLU"
  bottom: "conv2"
  top: "conv2"
}
layer {
  name: "pool2"
  type: "Pooling"
  bottom: "conv2"
  top: "pool2"
  pooling_param {
    pool: MAX
    kernel_size: 3
    stride: 2
  }
}
layer {
  name: "conv3"
  type: "Convolution"
  bottom: "pool2"
  top: "conv3"
  param {
    lr_mult: 1
  }
  param {
    lr_mult: 2
  }
  convolution_param {
    num_output: 64
    pad: 2
    kernel_size: 5
    stride: 1
    weight_filler {
      type: "gaussian"
      std: 0.01
    }
    bias_filler {
      type: "constant"
    }
  }
}
layer {
  name: "relu3"
  type: "ReLU"
  bottom: "conv3"
  top: "conv3"
}
layer {
  name: "conv4"
  type: "Convolution"
  bottom: "conv3"
  top: "conv4"
  param {
    lr_mult: 1
  }
  param {
    lr_mult: 2
  }
  convolution_param {
    num_output: 64
    pad: 2
    kernel_size: 5
    stride: 1
    weight_filler {
      type: "gaussian"
      std: 0.01
    }
    bias_filler {
      type: "constant"
    }
  }
}
layer {
  name: "relu4"
  type: "ReLU"
  bottom: "conv4"
  top: "conv4"
}
layer {
  name: "conv5"
  type: "Convolution"
  bottom: "conv4"
  top: "conv5"
  param {
    lr_mult: 1
  }
  param {
    lr_mult: 2
  }
  convolution_param {
    num_output: 64
    pad: 2
    kernel_size: 5
    stride: 1
    weight_filler {
      type: "gaussian"
      std: 0.01
    }
    bias_filler {
      type: "constant"
    }
  }
}
layer {
  name: "relu5"
  type: "ReLU"
  bottom: "conv5"
  top: "conv5"
}
layer {
  name: "pool5"
  type: "Pooling"
  bottom: "conv5"
  top: "pool5"
  pooling_param {
    pool: AVE
    kernel_size: 3
    stride: 2
  }
}
layer {
  name: "ip1"
  type: "InnerProduct"
  bottom: "pool5"
  top: "ip1"
  param {
    lr_mult: 1
  }
  param {
    lr_mult: 2
  }
  inner_product_param {
    num_output: 64
    weight_filler {
      type: "gaussian"
      std: 0.1
    }
    bias_filler {
      type: "constant"
    }
  }
}
layer {
  name: "ip2"
  type: "InnerProduct"
  bottom: "ip1"
  top: "ip2"
  param {
    lr_mult: 1
  }
  param {
    lr_mult: 2
  }
  inner_product_param {
    num_output: 64
    weight_filler {
      type: "gaussian"
      std: 0.1
    }
    bias_filler {
      type: "constant"
    }
  }
}
layer {
  name: "ip3"
  type: "InnerProduct"
  bottom: "ip2"
  top: "ip3"
  param {
    lr_mult: 1
  }
  param {
    lr_mult: 2
  }
  inner_product_param {
    num_output: 50
    weight_filler {
      type: "gaussian"
      std: 0.1
    }
    bias_filler {
      type: "constant"
    }
  }
}
layer {
  name: "loss"
  type: "SoftmaxWithLoss"
  bottom: "ip3"
  bottom: "label"
  top: "loss"
}
I0502 18:18:41.724016 11990 layer_factory.hpp:77] Creating layer parameters
I0502 18:18:41.724031 11990 net.cpp:94] Creating Layer parameters
I0502 18:18:41.724037 11990 net.cpp:409] parameters -> data
I0502 18:18:41.724056 11990 net.cpp:409] parameters -> label
I0502 18:18:41.724066 11990 hdf5_data_layer.cpp:79] Loading list of HDF5 filenames from: /home/purduethu/scratch/radon/d/deng106/CNNStatisticalModel/distributions/input/20_distributions_400_sample_size_train-distributions-path.txt
I0502 18:18:41.724089 11990 hdf5_data_layer.cpp:93] Number of HDF5 files: 1
I0502 18:18:41.724567 11990 hdf5.cpp:32] Datatype class: H5T_FLOAT
I0502 18:18:41.985064 11990 hdf5.cpp:35] Datatype class: H5T_INTEGER
I0502 18:18:41.986856 11990 net.cpp:144] Setting up parameters
I0502 18:18:41.986873 11990 net.cpp:151] Top shape: 20 1 20 20 (8000)
I0502 18:18:41.986879 11990 net.cpp:151] Top shape: 20 (20)
I0502 18:18:41.986883 11990 net.cpp:159] Memory required for data: 32080
I0502 18:18:41.986891 11990 layer_factory.hpp:77] Creating layer conv1
I0502 18:18:41.986914 11990 net.cpp:94] Creating Layer conv1
I0502 18:18:41.986920 11990 net.cpp:435] conv1 <- data
I0502 18:18:41.986932 11990 net.cpp:409] conv1 -> conv1
I0502 18:18:41.993966 11990 net.cpp:144] Setting up conv1
I0502 18:18:41.993983 11990 net.cpp:151] Top shape: 20 64 20 20 (512000)
I0502 18:18:41.993988 11990 net.cpp:159] Memory required for data: 2080080
I0502 18:18:41.993999 11990 layer_factory.hpp:77] Creating layer relu1
I0502 18:18:41.994007 11990 net.cpp:94] Creating Layer relu1
I0502 18:18:41.994011 11990 net.cpp:435] relu1 <- conv1
I0502 18:18:41.994016 11990 net.cpp:396] relu1 -> conv1 (in-place)
I0502 18:18:41.994031 11990 net.cpp:144] Setting up relu1
I0502 18:18:41.994037 11990 net.cpp:151] Top shape: 20 64 20 20 (512000)
I0502 18:18:41.994040 11990 net.cpp:159] Memory required for data: 4128080
I0502 18:18:41.994043 11990 layer_factory.hpp:77] Creating layer conv2
I0502 18:18:41.994051 11990 net.cpp:94] Creating Layer conv2
I0502 18:18:41.994055 11990 net.cpp:435] conv2 <- conv1
I0502 18:18:41.994060 11990 net.cpp:409] conv2 -> conv2
I0502 18:18:42.006242 11990 net.cpp:144] Setting up conv2
I0502 18:18:42.006258 11990 net.cpp:151] Top shape: 20 64 20 20 (512000)
I0502 18:18:42.006261 11990 net.cpp:159] Memory required for data: 6176080
I0502 18:18:42.006269 11990 layer_factory.hpp:77] Creating layer relu2
I0502 18:18:42.006276 11990 net.cpp:94] Creating Layer relu2
I0502 18:18:42.006280 11990 net.cpp:435] relu2 <- conv2
I0502 18:18:42.006285 11990 net.cpp:396] relu2 -> conv2 (in-place)
I0502 18:18:42.006292 11990 net.cpp:144] Setting up relu2
I0502 18:18:42.006297 11990 net.cpp:151] Top shape: 20 64 20 20 (512000)
I0502 18:18:42.006300 11990 net.cpp:159] Memory required for data: 8224080
I0502 18:18:42.006304 11990 layer_factory.hpp:77] Creating layer pool2
I0502 18:18:42.006316 11990 net.cpp:94] Creating Layer pool2
I0502 18:18:42.006320 11990 net.cpp:435] pool2 <- conv2
I0502 18:18:42.006325 11990 net.cpp:409] pool2 -> pool2
I0502 18:18:42.006367 11990 net.cpp:144] Setting up pool2
I0502 18:18:42.006374 11990 net.cpp:151] Top shape: 20 64 10 10 (128000)
I0502 18:18:42.006378 11990 net.cpp:159] Memory required for data: 8736080
I0502 18:18:42.006381 11990 layer_factory.hpp:77] Creating layer conv3
I0502 18:18:42.006389 11990 net.cpp:94] Creating Layer conv3
I0502 18:18:42.006393 11990 net.cpp:435] conv3 <- pool2
I0502 18:18:42.006405 11990 net.cpp:409] conv3 -> conv3
I0502 18:18:42.011997 11990 net.cpp:144] Setting up conv3
I0502 18:18:42.012012 11990 net.cpp:151] Top shape: 20 64 10 10 (128000)
I0502 18:18:42.012015 11990 net.cpp:159] Memory required for data: 9248080
I0502 18:18:42.012023 11990 layer_factory.hpp:77] Creating layer relu3
I0502 18:18:42.012030 11990 net.cpp:94] Creating Layer relu3
I0502 18:18:42.012033 11990 net.cpp:435] relu3 <- conv3
I0502 18:18:42.012038 11990 net.cpp:396] relu3 -> conv3 (in-place)
I0502 18:18:42.012045 11990 net.cpp:144] Setting up relu3
I0502 18:18:42.012049 11990 net.cpp:151] Top shape: 20 64 10 10 (128000)
I0502 18:18:42.012053 11990 net.cpp:159] Memory required for data: 9760080
I0502 18:18:42.012056 11990 layer_factory.hpp:77] Creating layer conv4
I0502 18:18:42.012064 11990 net.cpp:94] Creating Layer conv4
I0502 18:18:42.012068 11990 net.cpp:435] conv4 <- conv3
I0502 18:18:42.012073 11990 net.cpp:409] conv4 -> conv4
I0502 18:18:42.024049 11990 net.cpp:144] Setting up conv4
I0502 18:18:42.024065 11990 net.cpp:151] Top shape: 20 64 10 10 (128000)
I0502 18:18:42.024068 11990 net.cpp:159] Memory required for data: 10272080
I0502 18:18:42.024075 11990 layer_factory.hpp:77] Creating layer relu4
I0502 18:18:42.024081 11990 net.cpp:94] Creating Layer relu4
I0502 18:18:42.024085 11990 net.cpp:435] relu4 <- conv4
I0502 18:18:42.024091 11990 net.cpp:396] relu4 -> conv4 (in-place)
I0502 18:18:42.024097 11990 net.cpp:144] Setting up relu4
I0502 18:18:42.024102 11990 net.cpp:151] Top shape: 20 64 10 10 (128000)
I0502 18:18:42.024106 11990 net.cpp:159] Memory required for data: 10784080
I0502 18:18:42.024108 11990 layer_factory.hpp:77] Creating layer conv5
I0502 18:18:42.024116 11990 net.cpp:94] Creating Layer conv5
I0502 18:18:42.024119 11990 net.cpp:435] conv5 <- conv4
I0502 18:18:42.024124 11990 net.cpp:409] conv5 -> conv5
I0502 18:18:42.030997 11990 net.cpp:144] Setting up conv5
I0502 18:18:42.031011 11990 net.cpp:151] Top shape: 20 64 10 10 (128000)
I0502 18:18:42.031015 11990 net.cpp:159] Memory required for data: 11296080
I0502 18:18:42.031024 11990 layer_factory.hpp:77] Creating layer relu5
I0502 18:18:42.031031 11990 net.cpp:94] Creating Layer relu5
I0502 18:18:42.031035 11990 net.cpp:435] relu5 <- conv5
I0502 18:18:42.031039 11990 net.cpp:396] relu5 -> conv5 (in-place)
I0502 18:18:42.031047 11990 net.cpp:144] Setting up relu5
I0502 18:18:42.031051 11990 net.cpp:151] Top shape: 20 64 10 10 (128000)
I0502 18:18:42.031054 11990 net.cpp:159] Memory required for data: 11808080
I0502 18:18:42.031059 11990 layer_factory.hpp:77] Creating layer pool5
I0502 18:18:42.031064 11990 net.cpp:94] Creating Layer pool5
I0502 18:18:42.031066 11990 net.cpp:435] pool5 <- conv5
I0502 18:18:42.031071 11990 net.cpp:409] pool5 -> pool5
I0502 18:18:42.031105 11990 net.cpp:144] Setting up pool5
I0502 18:18:42.031112 11990 net.cpp:151] Top shape: 20 64 5 5 (32000)
I0502 18:18:42.031116 11990 net.cpp:159] Memory required for data: 11936080
I0502 18:18:42.031118 11990 layer_factory.hpp:77] Creating layer ip1
I0502 18:18:42.031129 11990 net.cpp:94] Creating Layer ip1
I0502 18:18:42.031132 11990 net.cpp:435] ip1 <- pool5
I0502 18:18:42.031137 11990 net.cpp:409] ip1 -> ip1
I0502 18:18:42.033637 11990 net.cpp:144] Setting up ip1
I0502 18:18:42.033645 11990 net.cpp:151] Top shape: 20 64 (1280)
I0502 18:18:42.033649 11990 net.cpp:159] Memory required for data: 11941200
I0502 18:18:42.033654 11990 layer_factory.hpp:77] Creating layer ip2
I0502 18:18:42.033664 11990 net.cpp:94] Creating Layer ip2
I0502 18:18:42.033668 11990 net.cpp:435] ip2 <- ip1
I0502 18:18:42.033674 11990 net.cpp:409] ip2 -> ip2
I0502 18:18:42.033839 11990 net.cpp:144] Setting up ip2
I0502 18:18:42.033846 11990 net.cpp:151] Top shape: 20 64 (1280)
I0502 18:18:42.033849 11990 net.cpp:159] Memory required for data: 11946320
I0502 18:18:42.033854 11990 layer_factory.hpp:77] Creating layer ip3
I0502 18:18:42.033860 11990 net.cpp:94] Creating Layer ip3
I0502 18:18:42.033864 11990 net.cpp:435] ip3 <- ip2
I0502 18:18:42.033869 11990 net.cpp:409] ip3 -> ip3
I0502 18:18:42.034016 11990 net.cpp:144] Setting up ip3
I0502 18:18:42.034024 11990 net.cpp:151] Top shape: 20 50 (1000)
I0502 18:18:42.034026 11990 net.cpp:159] Memory required for data: 11950320
I0502 18:18:42.034031 11990 layer_factory.hpp:77] Creating layer loss
I0502 18:18:42.034037 11990 net.cpp:94] Creating Layer loss
I0502 18:18:42.034041 11990 net.cpp:435] loss <- ip3
I0502 18:18:42.034045 11990 net.cpp:435] loss <- label
I0502 18:18:42.034050 11990 net.cpp:409] loss -> loss
I0502 18:18:42.034060 11990 layer_factory.hpp:77] Creating layer loss
…
I0502 18:18:42.034554 11990 solver.cpp:181] Creating test net (#0) specified by net file: ./protocol/dis_20_400_dimension.protocol_distribution
I0502 18:18:42.034580 11990 net.cpp:323] The NetState phase (1) differed from the phase (0) specified by a rule in layer parameters
I0502 18:18:42.034678 11990 net.cpp:52] Initializing net from parameters: 
state {
  phase: TEST
}
layer {
  name: "intercept"
  type: "HDF5Data"
  top: "data"
  top: "label"
  include {
    phase: TEST
  }
  hdf5_data_param {
    source: "/home/purduethu/scratch/radon/d/deng106/CNNStatisticalModel/distributions/input/20_distributions_400_sample_size_test-distributions-path.txt"
    batch_size: 20
  }
}
layer {
  name: "conv1"
  type: "Convolution"
  bottom: "data"
  top: "conv1"
  param {
    lr_mult: 1
  }
  param {
    lr_mult: 2
  }
  convolution_param {
    num_output: 64
    pad: 2
    kernel_size: 5
    stride: 1
    weight_filler {
      type: "gaussian"
      std: 0.0001
    }
    bias_filler {
      type: "constant"
    }
  }
}
layer {
  name: "relu1"
  type: "ReLU"
  bottom: "conv1"
  top: "conv1"
}
layer {
  name: "conv2"
  type: "Convolution"
  bottom: "conv1"
  top: "conv2"
  param {
    lr_mult: 1
  }
  param {
    lr_mult: 2
  }
  convolution_param {
    num_output: 64
    pad: 2
    kernel_size: 5
    stride: 1
    weight_filler {
      type: "gaussian"
      std: 0.01
    }
    bias_filler {
      type: "constant"
    }
  }
}
layer {
  name: "relu2"
  type: "ReLU"
  bottom: "conv2"
  top: "conv2"
}
layer {
  name: "pool2"
  type: "Pooling"
  bottom: "conv2"
  top: "pool2"
  pooling_param {
    pool: MAX
    kernel_size: 3
    stride: 2
  }
}
layer {
  name: "conv3"
  type: "Convolution"
  bottom: "pool2"
  top: "conv3"
  param {
    lr_mult: 1
  }
  param {
    lr_mult: 2
  }
  convolution_param {
    num_output: 64
    pad: 2
    kernel_size: 5
    stride: 1
    weight_filler {
      type: "gaussian"
      std: 0.01
    }
    bias_filler {
      type: "constant"
    }
  }
}
layer {
  name: "relu3"
  type: "ReLU"
  bottom: "conv3"
  top: "conv3"
}
layer {
  name: "conv4"
  type: "Convolution"
  bottom: "conv3"
  top: "conv4"
  param {
    lr_mult: 1
  }
  param {
    lr_mult: 2
  }
  convolution_param {
    num_output: 64
    pad: 2
    kernel_size: 5
    stride: 1
    weight_filler {
      type: "gaussian"
      std: 0.01
    }
    bias_filler {
      type: "constant"
    }
  }
}
layer {
  name: "relu4"
  type: "ReLU"
  bottom: "conv4"
  top: "conv4"
}
layer {
  name: "conv5"
  type: "Convolution"
  bottom: "conv4"
  top: "conv5"
  param {
    lr_mult: 1
  }
  param {
    lr_mult: 2
  }
  convolution_param {
    num_output: 64
    pad: 2
    kernel_size: 5
    stride: 1
    weight_filler {
      type: "gaussian"
      std: 0.01
    }
    bias_filler {
      type: "constant"
    }
  }
}
layer {
  name: "relu5"
  type: "ReLU"
  bottom: "conv5"
  top: "conv5"
}
layer {
  name: "pool5"
  type: "Pooling"
  bottom: "conv5"
  top: "pool5"
  pooling_param {
    pool: AVE
    kernel_size: 3
    stride: 2
  }
}
layer {
  name: "ip1"
  type: "InnerProduct"
  bottom: "pool5"
  top: "ip1"
  param {
    lr_mult: 1
  }
  param {
    lr_mult: 2
  }
  inner_product_param {
    num_output: 64
    weight_filler {
      type: "gaussian"
      std: 0.1
    }
    bias_filler {
      type: "constant"
    }
  }
}
layer {
  name: "ip2"
  type: "InnerProduct"
  bottom: "ip1"
  top: "ip2"
  param {
    lr_mult: 1
  }
  param {
    lr_mult: 2
  }
  inner_product_param {
    num_output: 64
    weight_filler {
      type: "gaussian"
      std: 0.1
    }
    bias_filler {
      type: "constant"
    }
  }
}
layer {
  name: "ip3"
  type: "InnerProduct"
  bottom: "ip2"
  top: "ip3"
  param {
    lr_mult: 1
  }
  param {
    lr_mult: 2
  }
  inner_product_param {
    num_output: 50
    weight_filler {
      type: "gaussian"
      std: 0.1
    }
    bias_filler {
      type: "constant"
    }
  }
}
layer {
  name: "accuracy"
  type: "Accuracy"
  bottom: "ip3"
  bottom: "label"
  top: "accuracy"
  include {
    phase: TEST
  }
}
layer {
  name: "loss"
  type: "SoftmaxWithLoss"
  bottom: "ip3"
  bottom: "label"
  top: "loss"
}
I0502 18:18:42.034749 11990 layer_factory.hpp:77] Creating layer intercept
I0502 18:18:42.034757 11990 net.cpp:94] Creating Layer intercept
I0502 18:18:42.034761 11990 net.cpp:409] intercept -> data
I0502 18:18:42.034768 11990 net.cpp:409] intercept -> label
I0502 18:18:42.034775 11990 hdf5_data_layer.cpp:79] Loading list of HDF5 filenames from: /home/purduethu/scratch/radon/d/deng106/CNNStatisticalModel/distributions/input/20_distributions_400_sample_size_test-distributions-path.txt
I0502 18:18:42.034793 11990 hdf5_data_layer.cpp:93] Number of HDF5 files: 1
I0502 18:18:42.102975 11990 net.cpp:144] Setting up intercept
I0502 18:18:42.103006 11990 net.cpp:151] Top shape: 20 1 20 20 (8000)
I0502 18:18:42.103011 11990 net.cpp:151] Top shape: 20 (20)
I0502 18:18:42.103015 11990 net.cpp:159] Memory required for data: 32080
I0502 18:18:42.103020 11990 layer_factory.hpp:77] Creating layer label_intercept_1_split
I0502 18:18:42.103037 11990 net.cpp:94] Creating Layer label_intercept_1_split
I0502 18:18:42.103042 11990 net.cpp:435] label_intercept_1_split <- label
I0502 18:18:42.103049 11990 net.cpp:409] label_intercept_1_split -> label_intercept_1_split_0
I0502 18:18:42.103056 11990 net.cpp:409] label_intercept_1_split -> label_intercept_1_split_1
I0502 18:18:42.103091 11990 net.cpp:144] Setting up label_intercept_1_split
I0502 18:18:42.103096 11990 net.cpp:151] Top shape: 20 (20)
I0502 18:18:42.103101 11990 net.cpp:151] Top shape: 20 (20)
I0502 18:18:42.103103 11990 net.cpp:159] Memory required for data: 32240
I0502 18:18:42.103107 11990 layer_factory.hpp:77] Creating layer conv1
I0502 18:18:42.103117 11990 net.cpp:94] Creating Layer conv1
I0502 18:18:42.103121 11990 net.cpp:435] conv1 <- data
I0502 18:18:42.103127 11990 net.cpp:409] conv1 -> conv1
I0502 18:18:42.105551 11990 net.cpp:144] Setting up conv1
I0502 18:18:42.105574 11990 net.cpp:151] Top shape: 20 64 20 20 (512000)
I0502 18:18:42.105579 11990 net.cpp:159] Memory required for data: 2080240
I0502 18:18:42.105588 11990 layer_factory.hpp:77] Creating layer relu1
I0502 18:18:42.105597 11990 net.cpp:94] Creating Layer relu1
I0502 18:18:42.105600 11990 net.cpp:435] relu1 <- conv1
I0502 18:18:42.105604 11990 net.cpp:396] relu1 -> conv1 (in-place)
I0502 18:18:42.105612 11990 net.cpp:144] Setting up relu1
I0502 18:18:42.105618 11990 net.cpp:151] Top shape: 20 64 20 20 (512000)
I0502 18:18:42.105620 11990 net.cpp:159] Memory required for data: 4128240
I0502 18:18:42.105623 11990 layer_factory.hpp:77] Creating layer conv2
I0502 18:18:42.105631 11990 net.cpp:94] Creating Layer conv2
I0502 18:18:42.105635 11990 net.cpp:435] conv2 <- conv1
I0502 18:18:42.105639 11990 net.cpp:409] conv2 -> conv2
I0502 18:18:42.110808 11990 net.cpp:144] Setting up conv2
I0502 18:18:42.110824 11990 net.cpp:151] Top shape: 20 64 20 20 (512000)
I0502 18:18:42.110828 11990 net.cpp:159] Memory required for data: 6176240
I0502 18:18:42.110836 11990 layer_factory.hpp:77] Creating layer relu2
I0502 18:18:42.110842 11990 net.cpp:94] Creating Layer relu2
I0502 18:18:42.110846 11990 net.cpp:435] relu2 <- conv2
I0502 18:18:42.110852 11990 net.cpp:396] relu2 -> conv2 (in-place)
I0502 18:18:42.110858 11990 net.cpp:144] Setting up relu2
I0502 18:18:42.110863 11990 net.cpp:151] Top shape: 20 64 20 20 (512000)
I0502 18:18:42.110867 11990 net.cpp:159] Memory required for data: 8224240
I0502 18:18:42.110869 11990 layer_factory.hpp:77] Creating layer pool2
I0502 18:18:42.110875 11990 net.cpp:94] Creating Layer pool2
I0502 18:18:42.110878 11990 net.cpp:435] pool2 <- conv2
I0502 18:18:42.110882 11990 net.cpp:409] pool2 -> pool2
I0502 18:18:42.110916 11990 net.cpp:144] Setting up pool2
I0502 18:18:42.110924 11990 net.cpp:151] Top shape: 20 64 10 10 (128000)
I0502 18:18:42.110926 11990 net.cpp:159] Memory required for data: 8736240
I0502 18:18:42.110929 11990 layer_factory.hpp:77] Creating layer conv3
I0502 18:18:42.110936 11990 net.cpp:94] Creating Layer conv3
I0502 18:18:42.110940 11990 net.cpp:435] conv3 <- pool2
I0502 18:18:42.110945 11990 net.cpp:409] conv3 -> conv3
I0502 18:18:42.115046 11990 net.cpp:144] Setting up conv3
I0502 18:18:42.115059 11990 net.cpp:151] Top shape: 20 64 10 10 (128000)
I0502 18:18:42.115063 11990 net.cpp:159] Memory required for data: 9248240
I0502 18:18:42.115072 11990 layer_factory.hpp:77] Creating layer relu3
I0502 18:18:42.115078 11990 net.cpp:94] Creating Layer relu3
I0502 18:18:42.115082 11990 net.cpp:435] relu3 <- conv3
I0502 18:18:42.115087 11990 net.cpp:396] relu3 -> conv3 (in-place)
I0502 18:18:42.115093 11990 net.cpp:144] Setting up relu3
I0502 18:18:42.115098 11990 net.cpp:151] Top shape: 20 64 10 10 (128000)
I0502 18:18:42.115101 11990 net.cpp:159] Memory required for data: 9760240
I0502 18:18:42.115104 11990 layer_factory.hpp:77] Creating layer conv4
I0502 18:18:42.115111 11990 net.cpp:94] Creating Layer conv4
I0502 18:18:42.115114 11990 net.cpp:435] conv4 <- conv3
I0502 18:18:42.115119 11990 net.cpp:409] conv4 -> conv4
I0502 18:18:42.119221 11990 net.cpp:144] Setting up conv4
I0502 18:18:42.119235 11990 net.cpp:151] Top shape: 20 64 10 10 (128000)
I0502 18:18:42.119240 11990 net.cpp:159] Memory required for data: 10272240
I0502 18:18:42.119246 11990 layer_factory.hpp:77] Creating layer relu4
I0502 18:18:42.119251 11990 net.cpp:94] Creating Layer relu4
I0502 18:18:42.119258 11990 net.cpp:435] relu4 <- conv4
I0502 18:18:42.119263 11990 net.cpp:396] relu4 -> conv4 (in-place)
I0502 18:18:42.119271 11990 net.cpp:144] Setting up relu4
I0502 18:18:42.119274 11990 net.cpp:151] Top shape: 20 64 10 10 (128000)
I0502 18:18:42.119278 11990 net.cpp:159] Memory required for data: 10784240
I0502 18:18:42.119282 11990 layer_factory.hpp:77] Creating layer conv5
I0502 18:18:42.119288 11990 net.cpp:94] Creating Layer conv5
I0502 18:18:42.119292 11990 net.cpp:435] conv5 <- conv4
I0502 18:18:42.119297 11990 net.cpp:409] conv5 -> conv5
I0502 18:18:42.124356 11990 net.cpp:144] Setting up conv5
I0502 18:18:42.124378 11990 net.cpp:151] Top shape: 20 64 10 10 (128000)
I0502 18:18:42.124382 11990 net.cpp:159] Memory required for data: 11296240
I0502 18:18:42.124392 11990 layer_factory.hpp:77] Creating layer relu5
I0502 18:18:42.124397 11990 net.cpp:94] Creating Layer relu5
I0502 18:18:42.124402 11990 net.cpp:435] relu5 <- conv5
I0502 18:18:42.124406 11990 net.cpp:396] relu5 -> conv5 (in-place)
I0502 18:18:42.124413 11990 net.cpp:144] Setting up relu5
I0502 18:18:42.124418 11990 net.cpp:151] Top shape: 20 64 10 10 (128000)
I0502 18:18:42.124420 11990 net.cpp:159] Memory required for data: 11808240
I0502 18:18:42.124423 11990 layer_factory.hpp:77] Creating layer pool5
I0502 18:18:42.124429 11990 net.cpp:94] Creating Layer pool5
I0502 18:18:42.124433 11990 net.cpp:435] pool5 <- conv5
I0502 18:18:42.124436 11990 net.cpp:409] pool5 -> pool5
I0502 18:18:42.124462 11990 net.cpp:144] Setting up pool5
I0502 18:18:42.124469 11990 net.cpp:151] Top shape: 20 64 5 5 (32000)
I0502 18:18:42.124471 11990 net.cpp:159] Memory required for data: 11936240
I0502 18:18:42.124475 11990 layer_factory.hpp:77] Creating layer ip1
I0502 18:18:42.124481 11990 net.cpp:94] Creating Layer ip1
I0502 18:18:42.124485 11990 net.cpp:435] ip1 <- pool5
I0502 18:18:42.124490 11990 net.cpp:409] ip1 -> ip1
I0502 18:18:42.126982 11990 net.cpp:144] Setting up ip1
I0502 18:18:42.126991 11990 net.cpp:151] Top shape: 20 64 (1280)
I0502 18:18:42.126993 11990 net.cpp:159] Memory required for data: 11941360
I0502 18:18:42.126998 11990 layer_factory.hpp:77] Creating layer ip2
I0502 18:18:42.127004 11990 net.cpp:94] Creating Layer ip2
I0502 18:18:42.127008 11990 net.cpp:435] ip2 <- ip1
I0502 18:18:42.127012 11990 net.cpp:409] ip2 -> ip2
I0502 18:18:42.127179 11990 net.cpp:144] Setting up ip2
I0502 18:18:42.127185 11990 net.cpp:151] Top shape: 20 64 (1280)
I0502 18:18:42.127188 11990 net.cpp:159] Memory required for data: 11946480
I0502 18:18:42.127192 11990 layer_factory.hpp:77] Creating layer ip3
I0502 18:18:42.127199 11990 net.cpp:94] Creating Layer ip3
I0502 18:18:42.127203 11990 net.cpp:435] ip3 <- ip2
I0502 18:18:42.127207 11990 net.cpp:409] ip3 -> ip3
I0502 18:18:42.127353 11990 net.cpp:144] Setting up ip3
I0502 18:18:42.127359 11990 net.cpp:151] Top shape: 20 50 (1000)
I0502 18:18:42.127362 11990 net.cpp:159] Memory required for data: 11950480
I0502 18:18:42.127367 11990 layer_factory.hpp:77] Creating layer ip3_ip3_0_split
I0502 18:18:42.127372 11990 net.cpp:94] Creating Layer ip3_ip3_0_split
I0502 18:18:42.127375 11990 net.cpp:435] ip3_ip3_0_split <- ip3
I0502 18:18:42.127380 11990 net.cpp:409] ip3_ip3_0_split -> ip3_ip3_0_split_0
I0502 18:18:42.127385 11990 net.cpp:409] ip3_ip3_0_split -> ip3_ip3_0_split_1
I0502 18:18:42.127408 11990 net.cpp:144] Setting up ip3_ip3_0_split
I0502 18:18:42.127413 11990 net.cpp:151] Top shape: 20 50 (1000)
I0502 18:18:42.127418 11990 net.cpp:151] Top shape: 20 50 (1000)
I0502 18:18:42.127420 11990 net.cpp:159] Memory required for data: 11958480
I0502 18:18:42.127424 11990 layer_factory.hpp:77] Creating layer accuracy
I0502 18:18:42.127429 11990 net.cpp:94] Creating Layer accuracy
I0502 18:18:42.127431 11990 net.cpp:435] accuracy <- ip3_ip3_0_split_0
I0502 18:18:42.127435 11990 net.cpp:435] accuracy <- label_intercept_1_split_0
I0502 18:18:42.127440 11990 net.cpp:409] accuracy -> accuracy
…
