…
I0501 16:33:14.447278 13557 net.cpp:323] The NetState phase (0) differed from the phase (1) specified by a rule in layer intercept
I0501 16:33:14.447293 13557 net.cpp:323] The NetState phase (0) differed from the phase (1) specified by a rule in layer loss
I0501 16:33:14.447369 13557 net.cpp:52] Initializing net from parameters: 
state {
  phase: TRAIN
}
layer {
  name: "parameters"
  type: "HDF5Data"
  top: "data"
  top: "label"
  include {
    phase: TRAIN
  }
  hdf5_data_param {
    source: "/home/purduethu/scratch/radon/d/deng106/CNNStatisticalModel/distributions/input/5_distributions_900_sample_size_train-parameters-path.txt"
    batch_size: 20
  }
}
layer {
  name: "conv1"
  type: "Convolution"
  bottom: "data"
  top: "conv1"
  param {
    lr_mult: 1
  }
  param {
    lr_mult: 2
  }
  convolution_param {
    num_output: 64
    pad: 2
    kernel_size: 5
    stride: 1
    weight_filler {
      type: "gaussian"
      std: 0.0001
    }
    bias_filler {
      type: "constant"
    }
  }
}
layer {
  name: "relu1"
  type: "ReLU"
  bottom: "conv1"
  top: "conv1"
}
layer {
  name: "conv2"
  type: "Convolution"
  bottom: "conv1"
  top: "conv2"
  param {
    lr_mult: 1
  }
  param {
    lr_mult: 2
  }
  convolution_param {
    num_output: 64
    pad: 2
    kernel_size: 5
    stride: 1
    weight_filler {
      type: "gaussian"
      std: 0.01
    }
    bias_filler {
      type: "constant"
    }
  }
}
layer {
  name: "relu2"
  type: "ReLU"
  bottom: "conv2"
  top: "conv2"
}
layer {
  name: "pool2"
  type: "Pooling"
  bottom: "conv2"
  top: "pool2"
  pooling_param {
    pool: MAX
    kernel_size: 3
    stride: 2
  }
}
layer {
  name: "conv3"
  type: "Convolution"
  bottom: "pool2"
  top: "conv3"
  param {
    lr_mult: 1
  }
  param {
    lr_mult: 2
  }
  convolution_param {
    num_output: 64
    pad: 2
    kernel_size: 5
    stride: 1
    weight_filler {
      type: "gaussian"
      std: 0.01
    }
    bias_filler {
      type: "constant"
    }
  }
}
layer {
  name: "relu3"
  type: "ReLU"
  bottom: "conv3"
  top: "conv3"
}
layer {
  name: "conv4"
  type: "Convolution"
  bottom: "conv3"
  top: "conv4"
  param {
    lr_mult: 1
  }
  param {
    lr_mult: 2
  }
  convolution_param {
    num_output: 64
    pad: 2
    kernel_size: 5
    stride: 1
    weight_filler {
      type: "gaussian"
      std: 0.01
    }
    bias_filler {
      type: "constant"
    }
  }
}
layer {
  name: "relu4"
  type: "ReLU"
  bottom: "conv4"
  top: "conv4"
}
layer {
  name: "conv5"
  type: "Convolution"
  bottom: "conv4"
  top: "conv5"
  param {
    lr_mult: 1
  }
  param {
    lr_mult: 2
  }
  convolution_param {
    num_output: 64
    pad: 2
    kernel_size: 5
    stride: 1
    weight_filler {
      type: "gaussian"
      std: 0.01
    }
    bias_filler {
      type: "constant"
    }
  }
}
layer {
  name: "relu5"
  type: "ReLU"
  bottom: "conv5"
  top: "conv5"
}
layer {
  name: "pool5"
  type: "Pooling"
  bottom: "conv5"
  top: "pool5"
  pooling_param {
    pool: AVE
    kernel_size: 3
    stride: 2
  }
}
layer {
  name: "ip1"
  type: "InnerProduct"
  bottom: "pool5"
  top: "ip1"
  param {
    lr_mult: 1
  }
  param {
    lr_mult: 2
  }
  inner_product_param {
    num_output: 64
    weight_filler {
      type: "gaussian"
      std: 0.1
    }
    bias_filler {
      type: "constant"
    }
  }
}
layer {
  name: "ip2"
  type: "InnerProduct"
  bottom: "ip1"
  top: "ip2"
  param {
    lr_mult: 1
  }
  param {
    lr_mult: 2
  }
  inner_product_param {
    num_output: 64
    weight_filler {
      type: "gaussian"
      std: 0.1
    }
    bias_filler {
      type: "constant"
    }
  }
}
layer {
  name: "ip3"
  type: "InnerProduct"
  bottom: "ip2"
  top: "ip3"
  param {
    lr_mult: 1
  }
  param {
    lr_mult: 2
  }
  inner_product_param {
    num_output: 1
    weight_filler {
      type: "gaussian"
      std: 0.1
    }
    bias_filler {
      type: "constant"
    }
  }
}
layer {
  name: "loss"
  type: "HuberLoss"
  bottom: "ip3"
  bottom: "label"
  top: "loss"
  include {
    phase: TRAIN
  }
}
I0501 16:33:14.447422 13557 layer_factory.hpp:77] Creating layer parameters
I0501 16:33:14.447434 13557 net.cpp:94] Creating Layer parameters
I0501 16:33:14.447439 13557 net.cpp:409] parameters -> data
I0501 16:33:14.447448 13557 net.cpp:409] parameters -> label
I0501 16:33:14.447456 13557 hdf5_data_layer.cpp:79] Loading list of HDF5 filenames from: /home/purduethu/scratch/radon/d/deng106/CNNStatisticalModel/distributions/input/5_distributions_900_sample_size_train-parameters-path.txt
I0501 16:33:14.447731 13557 hdf5_data_layer.cpp:93] Number of HDF5 files: 1
I0501 16:33:14.448374 13557 hdf5.cpp:32] Datatype class: H5T_FLOAT
I0501 16:33:14.680912 13557 net.cpp:144] Setting up parameters
I0501 16:33:14.680941 13557 net.cpp:151] Top shape: 20 1 30 30 (18000)
I0501 16:33:14.680948 13557 net.cpp:151] Top shape: 20 (20)
I0501 16:33:14.680950 13557 net.cpp:159] Memory required for data: 72080
I0501 16:33:14.680958 13557 layer_factory.hpp:77] Creating layer conv1
I0501 16:33:14.680979 13557 net.cpp:94] Creating Layer conv1
I0501 16:33:14.680984 13557 net.cpp:435] conv1 <- data
I0501 16:33:14.680990 13557 net.cpp:409] conv1 -> conv1
I0501 16:33:14.687736 13557 net.cpp:144] Setting up conv1
I0501 16:33:14.687755 13557 net.cpp:151] Top shape: 20 64 30 30 (1152000)
I0501 16:33:14.687760 13557 net.cpp:159] Memory required for data: 4680080
I0501 16:33:14.687772 13557 layer_factory.hpp:77] Creating layer relu1
I0501 16:33:14.687782 13557 net.cpp:94] Creating Layer relu1
I0501 16:33:14.687785 13557 net.cpp:435] relu1 <- conv1
I0501 16:33:14.687789 13557 net.cpp:396] relu1 -> conv1 (in-place)
I0501 16:33:14.687801 13557 net.cpp:144] Setting up relu1
I0501 16:33:14.687806 13557 net.cpp:151] Top shape: 20 64 30 30 (1152000)
I0501 16:33:14.687809 13557 net.cpp:159] Memory required for data: 9288080
I0501 16:33:14.687813 13557 layer_factory.hpp:77] Creating layer conv2
I0501 16:33:14.687821 13557 net.cpp:94] Creating Layer conv2
I0501 16:33:14.687825 13557 net.cpp:435] conv2 <- conv1
I0501 16:33:14.687829 13557 net.cpp:409] conv2 -> conv2
I0501 16:33:14.703649 13557 net.cpp:144] Setting up conv2
I0501 16:33:14.703665 13557 net.cpp:151] Top shape: 20 64 30 30 (1152000)
I0501 16:33:14.703670 13557 net.cpp:159] Memory required for data: 13896080
I0501 16:33:14.703678 13557 layer_factory.hpp:77] Creating layer relu2
I0501 16:33:14.703685 13557 net.cpp:94] Creating Layer relu2
I0501 16:33:14.703689 13557 net.cpp:435] relu2 <- conv2
I0501 16:33:14.703694 13557 net.cpp:396] relu2 -> conv2 (in-place)
I0501 16:33:14.703701 13557 net.cpp:144] Setting up relu2
I0501 16:33:14.703706 13557 net.cpp:151] Top shape: 20 64 30 30 (1152000)
I0501 16:33:14.703708 13557 net.cpp:159] Memory required for data: 18504080
I0501 16:33:14.703711 13557 layer_factory.hpp:77] Creating layer pool2
I0501 16:33:14.703723 13557 net.cpp:94] Creating Layer pool2
I0501 16:33:14.703727 13557 net.cpp:435] pool2 <- conv2
I0501 16:33:14.703732 13557 net.cpp:409] pool2 -> pool2
I0501 16:33:14.703790 13557 net.cpp:144] Setting up pool2
I0501 16:33:14.703799 13557 net.cpp:151] Top shape: 20 64 15 15 (288000)
I0501 16:33:14.703801 13557 net.cpp:159] Memory required for data: 19656080
I0501 16:33:14.703804 13557 layer_factory.hpp:77] Creating layer conv3
I0501 16:33:14.703814 13557 net.cpp:94] Creating Layer conv3
I0501 16:33:14.703816 13557 net.cpp:435] conv3 <- pool2
I0501 16:33:14.703821 13557 net.cpp:409] conv3 -> conv3
I0501 16:33:14.712399 13557 net.cpp:144] Setting up conv3
I0501 16:33:14.712414 13557 net.cpp:151] Top shape: 20 64 15 15 (288000)
I0501 16:33:14.712419 13557 net.cpp:159] Memory required for data: 20808080
I0501 16:33:14.712426 13557 layer_factory.hpp:77] Creating layer relu3
I0501 16:33:14.712433 13557 net.cpp:94] Creating Layer relu3
I0501 16:33:14.712436 13557 net.cpp:435] relu3 <- conv3
I0501 16:33:14.712441 13557 net.cpp:396] relu3 -> conv3 (in-place)
I0501 16:33:14.712448 13557 net.cpp:144] Setting up relu3
I0501 16:33:14.712453 13557 net.cpp:151] Top shape: 20 64 15 15 (288000)
I0501 16:33:14.712456 13557 net.cpp:159] Memory required for data: 21960080
I0501 16:33:14.712460 13557 layer_factory.hpp:77] Creating layer conv4
I0501 16:33:14.712467 13557 net.cpp:94] Creating Layer conv4
I0501 16:33:14.712471 13557 net.cpp:435] conv4 <- conv3
I0501 16:33:14.712476 13557 net.cpp:409] conv4 -> conv4
I0501 16:33:14.720012 13557 net.cpp:144] Setting up conv4
I0501 16:33:14.720027 13557 net.cpp:151] Top shape: 20 64 15 15 (288000)
I0501 16:33:14.720031 13557 net.cpp:159] Memory required for data: 23112080
I0501 16:33:14.720038 13557 layer_factory.hpp:77] Creating layer relu4
I0501 16:33:14.720044 13557 net.cpp:94] Creating Layer relu4
I0501 16:33:14.720048 13557 net.cpp:435] relu4 <- conv4
I0501 16:33:14.720052 13557 net.cpp:396] relu4 -> conv4 (in-place)
I0501 16:33:14.720059 13557 net.cpp:144] Setting up relu4
I0501 16:33:14.720064 13557 net.cpp:151] Top shape: 20 64 15 15 (288000)
I0501 16:33:14.720067 13557 net.cpp:159] Memory required for data: 24264080
I0501 16:33:14.720070 13557 layer_factory.hpp:77] Creating layer conv5
I0501 16:33:14.720078 13557 net.cpp:94] Creating Layer conv5
I0501 16:33:14.720082 13557 net.cpp:435] conv5 <- conv4
I0501 16:33:14.720087 13557 net.cpp:409] conv5 -> conv5
I0501 16:33:14.727624 13557 net.cpp:144] Setting up conv5
I0501 16:33:14.727640 13557 net.cpp:151] Top shape: 20 64 15 15 (288000)
I0501 16:33:14.727644 13557 net.cpp:159] Memory required for data: 25416080
I0501 16:33:14.727654 13557 layer_factory.hpp:77] Creating layer relu5
I0501 16:33:14.727660 13557 net.cpp:94] Creating Layer relu5
I0501 16:33:14.727664 13557 net.cpp:435] relu5 <- conv5
I0501 16:33:14.727669 13557 net.cpp:396] relu5 -> conv5 (in-place)
I0501 16:33:14.727677 13557 net.cpp:144] Setting up relu5
I0501 16:33:14.727681 13557 net.cpp:151] Top shape: 20 64 15 15 (288000)
I0501 16:33:14.727684 13557 net.cpp:159] Memory required for data: 26568080
I0501 16:33:14.727687 13557 layer_factory.hpp:77] Creating layer pool5
I0501 16:33:14.727692 13557 net.cpp:94] Creating Layer pool5
I0501 16:33:14.727695 13557 net.cpp:435] pool5 <- conv5
I0501 16:33:14.727699 13557 net.cpp:409] pool5 -> pool5
I0501 16:33:14.727744 13557 net.cpp:144] Setting up pool5
I0501 16:33:14.727752 13557 net.cpp:151] Top shape: 20 64 7 7 (62720)
I0501 16:33:14.727756 13557 net.cpp:159] Memory required for data: 26818960
I0501 16:33:14.727758 13557 layer_factory.hpp:77] Creating layer ip1
I0501 16:33:14.727768 13557 net.cpp:94] Creating Layer ip1
I0501 16:33:14.727772 13557 net.cpp:435] ip1 <- pool5
I0501 16:33:14.727778 13557 net.cpp:409] ip1 -> ip1
I0501 16:33:14.733642 13557 net.cpp:144] Setting up ip1
I0501 16:33:14.733656 13557 net.cpp:151] Top shape: 20 64 (1280)
I0501 16:33:14.733659 13557 net.cpp:159] Memory required for data: 26824080
I0501 16:33:14.733665 13557 layer_factory.hpp:77] Creating layer ip2
I0501 16:33:14.733672 13557 net.cpp:94] Creating Layer ip2
I0501 16:33:14.733680 13557 net.cpp:435] ip2 <- ip1
I0501 16:33:14.733686 13557 net.cpp:409] ip2 -> ip2
I0501 16:33:14.733922 13557 net.cpp:144] Setting up ip2
I0501 16:33:14.733930 13557 net.cpp:151] Top shape: 20 64 (1280)
I0501 16:33:14.733933 13557 net.cpp:159] Memory required for data: 26829200
I0501 16:33:14.733938 13557 layer_factory.hpp:77] Creating layer ip3
I0501 16:33:14.733944 13557 net.cpp:94] Creating Layer ip3
I0501 16:33:14.733947 13557 net.cpp:435] ip3 <- ip2
I0501 16:33:14.733952 13557 net.cpp:409] ip3 -> ip3
I0501 16:33:14.734073 13557 net.cpp:144] Setting up ip3
I0501 16:33:14.734081 13557 net.cpp:151] Top shape: 20 1 (20)
I0501 16:33:14.734083 13557 net.cpp:159] Memory required for data: 26829280
I0501 16:33:14.734088 13557 layer_factory.hpp:77] Creating layer loss
I0501 16:33:14.734097 13557 net.cpp:94] Creating Layer loss
I0501 16:33:14.734100 13557 net.cpp:435] loss <- ip3
I0501 16:33:14.734104 13557 net.cpp:435] loss <- label
I0501 16:33:14.734109 13557 net.cpp:409] loss -> loss
I0501 16:33:14.734164 13557 net.cpp:144] Setting up loss
…
I0501 16:33:14.818892 13557 net.cpp:323] The NetState phase (0) differed from the phase (1) specified by a rule in layer intercept
I0501 16:33:14.818907 13557 net.cpp:323] The NetState phase (0) differed from the phase (1) specified by a rule in layer accuracy
I0501 16:33:14.818992 13557 net.cpp:52] Initializing net from parameters: 
state {
  phase: TRAIN
}
layer {
  name: "parameters"
  type: "HDF5Data"
  top: "data"
  top: "label"
  include {
    phase: TRAIN
  }
  hdf5_data_param {
    source: "/home/purduethu/scratch/radon/d/deng106/CNNStatisticalModel/distributions/input/5_distributions_900_sample_size_train-distributions-path.txt"
    batch_size: 20
  }
}
layer {
  name: "conv1"
  type: "Convolution"
  bottom: "data"
  top: "conv1"
  param {
    lr_mult: 1
  }
  param {
    lr_mult: 2
  }
  convolution_param {
    num_output: 64
    pad: 2
    kernel_size: 5
    stride: 1
    weight_filler {
      type: "gaussian"
      std: 0.0001
    }
    bias_filler {
      type: "constant"
    }
  }
}
layer {
  name: "relu1"
  type: "ReLU"
  bottom: "conv1"
  top: "conv1"
}
layer {
  name: "conv2"
  type: "Convolution"
  bottom: "conv1"
  top: "conv2"
  param {
    lr_mult: 1
  }
  param {
    lr_mult: 2
  }
  convolution_param {
    num_output: 64
    pad: 2
    kernel_size: 5
    stride: 1
    weight_filler {
      type: "gaussian"
      std: 0.01
    }
    bias_filler {
      type: "constant"
    }
  }
}
layer {
  name: "relu2"
  type: "ReLU"
  bottom: "conv2"
  top: "conv2"
}
layer {
  name: "pool2"
  type: "Pooling"
  bottom: "conv2"
  top: "pool2"
  pooling_param {
    pool: MAX
    kernel_size: 3
    stride: 2
  }
}
layer {
  name: "conv3"
  type: "Convolution"
  bottom: "pool2"
  top: "conv3"
  param {
    lr_mult: 1
  }
  param {
    lr_mult: 2
  }
  convolution_param {
    num_output: 64
    pad: 2
    kernel_size: 5
    stride: 1
    weight_filler {
      type: "gaussian"
      std: 0.01
    }
    bias_filler {
      type: "constant"
    }
  }
}
layer {
  name: "relu3"
  type: "ReLU"
  bottom: "conv3"
  top: "conv3"
}
layer {
  name: "conv4"
  type: "Convolution"
  bottom: "conv3"
  top: "conv4"
  param {
    lr_mult: 1
  }
  param {
    lr_mult: 2
  }
  convolution_param {
    num_output: 64
    pad: 2
    kernel_size: 5
    stride: 1
    weight_filler {
      type: "gaussian"
      std: 0.01
    }
    bias_filler {
      type: "constant"
    }
  }
}
layer {
  name: "relu4"
  type: "ReLU"
  bottom: "conv4"
  top: "conv4"
}
layer {
  name: "conv5"
  type: "Convolution"
  bottom: "conv4"
  top: "conv5"
  param {
    lr_mult: 1
  }
  param {
    lr_mult: 2
  }
  convolution_param {
    num_output: 64
    pad: 2
    kernel_size: 5
    stride: 1
    weight_filler {
      type: "gaussian"
      std: 0.01
    }
    bias_filler {
      type: "constant"
    }
  }
}
layer {
  name: "relu5"
  type: "ReLU"
  bottom: "conv5"
  top: "conv5"
}
layer {
  name: "pool5"
  type: "Pooling"
  bottom: "conv5"
  top: "pool5"
  pooling_param {
    pool: AVE
    kernel_size: 3
    stride: 2
  }
}
layer {
  name: "ip1"
  type: "InnerProduct"
  bottom: "pool5"
  top: "ip1"
  param {
    lr_mult: 1
  }
  param {
    lr_mult: 2
  }
  inner_product_param {
    num_output: 64
    weight_filler {
      type: "gaussian"
      std: 0.1
    }
    bias_filler {
      type: "constant"
    }
  }
}
layer {
  name: "ip2"
  type: "InnerProduct"
  bottom: "ip1"
  top: "ip2"
  param {
    lr_mult: 1
  }
  param {
    lr_mult: 2
  }
  inner_product_param {
    num_output: 64
    weight_filler {
      type: "gaussian"
      std: 0.1
    }
    bias_filler {
      type: "constant"
    }
  }
}
layer {
  name: "ip3"
  type: "InnerProduct"
  bottom: "ip2"
  top: "ip3"
  param {
    lr_mult: 1
  }
  param {
    lr_mult: 2
  }
  inner_product_param {
    num_output: 50
    weight_filler {
      type: "gaussian"
      std: 0.1
    }
    bias_filler {
      type: "constant"
    }
  }
}
layer {
  name: "loss"
  type: "SoftmaxWithLoss"
  bottom: "ip3"
  bottom: "label"
  top: "loss"
}
I0501 16:33:14.819043 13557 layer_factory.hpp:77] Creating layer parameters
I0501 16:33:14.819051 13557 net.cpp:94] Creating Layer parameters
I0501 16:33:14.819056 13557 net.cpp:409] parameters -> data
I0501 16:33:14.819061 13557 net.cpp:409] parameters -> label
I0501 16:33:14.819067 13557 hdf5_data_layer.cpp:79] Loading list of HDF5 filenames from: /home/purduethu/scratch/radon/d/deng106/CNNStatisticalModel/distributions/input/5_distributions_900_sample_size_train-distributions-path.txt
I0501 16:33:14.819186 13557 hdf5_data_layer.cpp:93] Number of HDF5 files: 1
I0501 16:33:15.029832 13557 hdf5.cpp:35] Datatype class: H5T_INTEGER
I0501 16:33:15.030270 13557 net.cpp:144] Setting up parameters
I0501 16:33:15.030284 13557 net.cpp:151] Top shape: 20 1 30 30 (18000)
I0501 16:33:15.030288 13557 net.cpp:151] Top shape: 20 (20)
I0501 16:33:15.030292 13557 net.cpp:159] Memory required for data: 72080
I0501 16:33:15.030298 13557 layer_factory.hpp:77] Creating layer conv1
I0501 16:33:15.030313 13557 net.cpp:94] Creating Layer conv1
I0501 16:33:15.030318 13557 net.cpp:435] conv1 <- data
I0501 16:33:15.030323 13557 net.cpp:409] conv1 -> conv1
I0501 16:33:15.033745 13557 net.cpp:144] Setting up conv1
I0501 16:33:15.033758 13557 net.cpp:151] Top shape: 20 64 30 30 (1152000)
I0501 16:33:15.033762 13557 net.cpp:159] Memory required for data: 4680080
I0501 16:33:15.033772 13557 layer_factory.hpp:77] Creating layer relu1
I0501 16:33:15.033780 13557 net.cpp:94] Creating Layer relu1
I0501 16:33:15.033783 13557 net.cpp:435] relu1 <- conv1
I0501 16:33:15.033788 13557 net.cpp:396] relu1 -> conv1 (in-place)
I0501 16:33:15.033795 13557 net.cpp:144] Setting up relu1
I0501 16:33:15.033799 13557 net.cpp:151] Top shape: 20 64 30 30 (1152000)
I0501 16:33:15.033802 13557 net.cpp:159] Memory required for data: 9288080
I0501 16:33:15.033805 13557 layer_factory.hpp:77] Creating layer conv2
I0501 16:33:15.033812 13557 net.cpp:94] Creating Layer conv2
I0501 16:33:15.033815 13557 net.cpp:435] conv2 <- conv1
I0501 16:33:15.033820 13557 net.cpp:409] conv2 -> conv2
I0501 16:33:15.048979 13557 net.cpp:144] Setting up conv2
I0501 16:33:15.048993 13557 net.cpp:151] Top shape: 20 64 30 30 (1152000)
I0501 16:33:15.048997 13557 net.cpp:159] Memory required for data: 13896080
I0501 16:33:15.049005 13557 layer_factory.hpp:77] Creating layer relu2
I0501 16:33:15.049012 13557 net.cpp:94] Creating Layer relu2
I0501 16:33:15.049015 13557 net.cpp:435] relu2 <- conv2
I0501 16:33:15.049021 13557 net.cpp:396] relu2 -> conv2 (in-place)
I0501 16:33:15.049026 13557 net.cpp:144] Setting up relu2
I0501 16:33:15.049031 13557 net.cpp:151] Top shape: 20 64 30 30 (1152000)
I0501 16:33:15.049033 13557 net.cpp:159] Memory required for data: 18504080
I0501 16:33:15.049036 13557 layer_factory.hpp:77] Creating layer pool2
I0501 16:33:15.049042 13557 net.cpp:94] Creating Layer pool2
I0501 16:33:15.049046 13557 net.cpp:435] pool2 <- conv2
I0501 16:33:15.049049 13557 net.cpp:409] pool2 -> pool2
I0501 16:33:15.049104 13557 net.cpp:144] Setting up pool2
I0501 16:33:15.049111 13557 net.cpp:151] Top shape: 20 64 15 15 (288000)
I0501 16:33:15.049114 13557 net.cpp:159] Memory required for data: 19656080
I0501 16:33:15.049118 13557 layer_factory.hpp:77] Creating layer conv3
I0501 16:33:15.049125 13557 net.cpp:94] Creating Layer conv3
I0501 16:33:15.049129 13557 net.cpp:435] conv3 <- pool2
I0501 16:33:15.049139 13557 net.cpp:409] conv3 -> conv3
I0501 16:33:15.057523 13557 net.cpp:144] Setting up conv3
I0501 16:33:15.057538 13557 net.cpp:151] Top shape: 20 64 15 15 (288000)
I0501 16:33:15.057543 13557 net.cpp:159] Memory required for data: 20808080
I0501 16:33:15.057550 13557 layer_factory.hpp:77] Creating layer relu3
I0501 16:33:15.057556 13557 net.cpp:94] Creating Layer relu3
I0501 16:33:15.057559 13557 net.cpp:435] relu3 <- conv3
I0501 16:33:15.057564 13557 net.cpp:396] relu3 -> conv3 (in-place)
I0501 16:33:15.057570 13557 net.cpp:144] Setting up relu3
I0501 16:33:15.057575 13557 net.cpp:151] Top shape: 20 64 15 15 (288000)
I0501 16:33:15.057579 13557 net.cpp:159] Memory required for data: 21960080
I0501 16:33:15.057581 13557 layer_factory.hpp:77] Creating layer conv4
I0501 16:33:15.057590 13557 net.cpp:94] Creating Layer conv4
I0501 16:33:15.057592 13557 net.cpp:435] conv4 <- conv3
I0501 16:33:15.057597 13557 net.cpp:409] conv4 -> conv4
I0501 16:33:15.065068 13557 net.cpp:144] Setting up conv4
I0501 16:33:15.065083 13557 net.cpp:151] Top shape: 20 64 15 15 (288000)
I0501 16:33:15.065088 13557 net.cpp:159] Memory required for data: 23112080
I0501 16:33:15.065094 13557 layer_factory.hpp:77] Creating layer relu4
I0501 16:33:15.065100 13557 net.cpp:94] Creating Layer relu4
I0501 16:33:15.065104 13557 net.cpp:435] relu4 <- conv4
I0501 16:33:15.065109 13557 net.cpp:396] relu4 -> conv4 (in-place)
I0501 16:33:15.065115 13557 net.cpp:144] Setting up relu4
I0501 16:33:15.065119 13557 net.cpp:151] Top shape: 20 64 15 15 (288000)
I0501 16:33:15.065122 13557 net.cpp:159] Memory required for data: 24264080
I0501 16:33:15.065125 13557 layer_factory.hpp:77] Creating layer conv5
I0501 16:33:15.065134 13557 net.cpp:94] Creating Layer conv5
I0501 16:33:15.065137 13557 net.cpp:435] conv5 <- conv4
I0501 16:33:15.065141 13557 net.cpp:409] conv5 -> conv5
I0501 16:33:15.073470 13557 net.cpp:144] Setting up conv5
I0501 16:33:15.073485 13557 net.cpp:151] Top shape: 20 64 15 15 (288000)
I0501 16:33:15.073488 13557 net.cpp:159] Memory required for data: 25416080
I0501 16:33:15.073498 13557 layer_factory.hpp:77] Creating layer relu5
I0501 16:33:15.073503 13557 net.cpp:94] Creating Layer relu5
I0501 16:33:15.073506 13557 net.cpp:435] relu5 <- conv5
I0501 16:33:15.073511 13557 net.cpp:396] relu5 -> conv5 (in-place)
I0501 16:33:15.073518 13557 net.cpp:144] Setting up relu5
I0501 16:33:15.073521 13557 net.cpp:151] Top shape: 20 64 15 15 (288000)
I0501 16:33:15.073524 13557 net.cpp:159] Memory required for data: 26568080
I0501 16:33:15.073528 13557 layer_factory.hpp:77] Creating layer pool5
I0501 16:33:15.073532 13557 net.cpp:94] Creating Layer pool5
I0501 16:33:15.073535 13557 net.cpp:435] pool5 <- conv5
I0501 16:33:15.073541 13557 net.cpp:409] pool5 -> pool5
I0501 16:33:15.073582 13557 net.cpp:144] Setting up pool5
I0501 16:33:15.073590 13557 net.cpp:151] Top shape: 20 64 7 7 (62720)
I0501 16:33:15.073593 13557 net.cpp:159] Memory required for data: 26818960
I0501 16:33:15.073596 13557 layer_factory.hpp:77] Creating layer ip1
I0501 16:33:15.073603 13557 net.cpp:94] Creating Layer ip1
I0501 16:33:15.073606 13557 net.cpp:435] ip1 <- pool5
I0501 16:33:15.073612 13557 net.cpp:409] ip1 -> ip1
I0501 16:33:15.078497 13557 net.cpp:144] Setting up ip1
I0501 16:33:15.078507 13557 net.cpp:151] Top shape: 20 64 (1280)
I0501 16:33:15.078510 13557 net.cpp:159] Memory required for data: 26824080
I0501 16:33:15.078516 13557 layer_factory.hpp:77] Creating layer ip2
I0501 16:33:15.078521 13557 net.cpp:94] Creating Layer ip2
I0501 16:33:15.078524 13557 net.cpp:435] ip2 <- ip1
I0501 16:33:15.078528 13557 net.cpp:409] ip2 -> ip2
I0501 16:33:15.078766 13557 net.cpp:144] Setting up ip2
I0501 16:33:15.078774 13557 net.cpp:151] Top shape: 20 64 (1280)
I0501 16:33:15.078778 13557 net.cpp:159] Memory required for data: 26829200
I0501 16:33:15.078783 13557 layer_factory.hpp:77] Creating layer ip3
I0501 16:33:15.078788 13557 net.cpp:94] Creating Layer ip3
I0501 16:33:15.078790 13557 net.cpp:435] ip3 <- ip2
I0501 16:33:15.078796 13557 net.cpp:409] ip3 -> ip3
I0501 16:33:15.079010 13557 net.cpp:144] Setting up ip3
I0501 16:33:15.079017 13557 net.cpp:151] Top shape: 20 50 (1000)
I0501 16:33:15.079020 13557 net.cpp:159] Memory required for data: 26833200
I0501 16:33:15.079025 13557 layer_factory.hpp:77] Creating layer loss
I0501 16:33:15.079031 13557 net.cpp:94] Creating Layer loss
I0501 16:33:15.079035 13557 net.cpp:435] loss <- ip3
I0501 16:33:15.079038 13557 net.cpp:435] loss <- label
I0501 16:33:15.079043 13557 net.cpp:409] loss -> loss
I0501 16:33:15.079051 13557 layer_factory.hpp:77] Creating layer loss
…
I0501 16:33:15.079579 13557 solver.cpp:181] Creating test net (#0) specified by net file: ./protocol/dis_5_900_dimension.protocol_distribution
I0501 16:33:15.079605 13557 net.cpp:323] The NetState phase (1) differed from the phase (0) specified by a rule in layer parameters
I0501 16:33:15.079701 13557 net.cpp:52] Initializing net from parameters: 
state {
  phase: TEST
}
layer {
  name: "intercept"
  type: "HDF5Data"
  top: "data"
  top: "label"
  include {
    phase: TEST
  }
  hdf5_data_param {
    source: "/home/purduethu/scratch/radon/d/deng106/CNNStatisticalModel/distributions/input/5_distributions_900_sample_size_test-distributions-path.txt"
    batch_size: 20
  }
}
layer {
  name: "conv1"
  type: "Convolution"
  bottom: "data"
  top: "conv1"
  param {
    lr_mult: 1
  }
  param {
    lr_mult: 2
  }
  convolution_param {
    num_output: 64
    pad: 2
    kernel_size: 5
    stride: 1
    weight_filler {
      type: "gaussian"
      std: 0.0001
    }
    bias_filler {
      type: "constant"
    }
  }
}
layer {
  name: "relu1"
  type: "ReLU"
  bottom: "conv1"
  top: "conv1"
}
layer {
  name: "conv2"
  type: "Convolution"
  bottom: "conv1"
  top: "conv2"
  param {
    lr_mult: 1
  }
  param {
    lr_mult: 2
  }
  convolution_param {
    num_output: 64
    pad: 2
    kernel_size: 5
    stride: 1
    weight_filler {
      type: "gaussian"
      std: 0.01
    }
    bias_filler {
      type: "constant"
    }
  }
}
layer {
  name: "relu2"
  type: "ReLU"
  bottom: "conv2"
  top: "conv2"
}
layer {
  name: "pool2"
  type: "Pooling"
  bottom: "conv2"
  top: "pool2"
  pooling_param {
    pool: MAX
    kernel_size: 3
    stride: 2
  }
}
layer {
  name: "conv3"
  type: "Convolution"
  bottom: "pool2"
  top: "conv3"
  param {
    lr_mult: 1
  }
  param {
    lr_mult: 2
  }
  convolution_param {
    num_output: 64
    pad: 2
    kernel_size: 5
    stride: 1
    weight_filler {
      type: "gaussian"
      std: 0.01
    }
    bias_filler {
      type: "constant"
    }
  }
}
layer {
  name: "relu3"
  type: "ReLU"
  bottom: "conv3"
  top: "conv3"
}
layer {
  name: "conv4"
  type: "Convolution"
  bottom: "conv3"
  top: "conv4"
  param {
    lr_mult: 1
  }
  param {
    lr_mult: 2
  }
  convolution_param {
    num_output: 64
    pad: 2
    kernel_size: 5
    stride: 1
    weight_filler {
      type: "gaussian"
      std: 0.01
    }
    bias_filler {
      type: "constant"
    }
  }
}
layer {
  name: "relu4"
  type: "ReLU"
  bottom: "conv4"
  top: "conv4"
}
layer {
  name: "conv5"
  type: "Convolution"
  bottom: "conv4"
  top: "conv5"
  param {
    lr_mult: 1
  }
  param {
    lr_mult: 2
  }
  convolution_param {
    num_output: 64
    pad: 2
    kernel_size: 5
    stride: 1
    weight_filler {
      type: "gaussian"
      std: 0.01
    }
    bias_filler {
      type: "constant"
    }
  }
}
layer {
  name: "relu5"
  type: "ReLU"
  bottom: "conv5"
  top: "conv5"
}
layer {
  name: "pool5"
  type: "Pooling"
  bottom: "conv5"
  top: "pool5"
  pooling_param {
    pool: AVE
    kernel_size: 3
    stride: 2
  }
}
layer {
  name: "ip1"
  type: "InnerProduct"
  bottom: "pool5"
  top: "ip1"
  param {
    lr_mult: 1
  }
  param {
    lr_mult: 2
  }
  inner_product_param {
    num_output: 64
    weight_filler {
      type: "gaussian"
      std: 0.1
    }
    bias_filler {
      type: "constant"
    }
  }
}
layer {
  name: "ip2"
  type: "InnerProduct"
  bottom: "ip1"
  top: "ip2"
  param {
    lr_mult: 1
  }
  param {
    lr_mult: 2
  }
  inner_product_param {
    num_output: 64
    weight_filler {
      type: "gaussian"
      std: 0.1
    }
    bias_filler {
      type: "constant"
    }
  }
}
layer {
  name: "ip3"
  type: "InnerProduct"
  bottom: "ip2"
  top: "ip3"
  param {
    lr_mult: 1
  }
  param {
    lr_mult: 2
  }
  inner_product_param {
    num_output: 50
    weight_filler {
      type: "gaussian"
      std: 0.1
    }
    bias_filler {
      type: "constant"
    }
  }
}
layer {
  name: "accuracy"
  type: "Accuracy"
  bottom: "ip3"
  bottom: "label"
  top: "accuracy"
  include {
    phase: TEST
  }
}
layer {
  name: "loss"
  type: "SoftmaxWithLoss"
  bottom: "ip3"
  bottom: "label"
  top: "loss"
}
I0501 16:33:15.079769 13557 layer_factory.hpp:77] Creating layer intercept
I0501 16:33:15.079777 13557 net.cpp:94] Creating Layer intercept
I0501 16:33:15.079782 13557 net.cpp:409] intercept -> data
I0501 16:33:15.079787 13557 net.cpp:409] intercept -> label
I0501 16:33:15.079793 13557 hdf5_data_layer.cpp:79] Loading list of HDF5 filenames from: /home/purduethu/scratch/radon/d/deng106/CNNStatisticalModel/distributions/input/5_distributions_900_sample_size_test-distributions-path.txt
I0501 16:33:15.079900 13557 hdf5_data_layer.cpp:93] Number of HDF5 files: 1
I0501 16:33:15.134441 13557 net.cpp:144] Setting up intercept
I0501 16:33:15.134474 13557 net.cpp:151] Top shape: 20 1 30 30 (18000)
I0501 16:33:15.134479 13557 net.cpp:151] Top shape: 20 (20)
I0501 16:33:15.134481 13557 net.cpp:159] Memory required for data: 72080
I0501 16:33:15.134487 13557 layer_factory.hpp:77] Creating layer label_intercept_1_split
I0501 16:33:15.134505 13557 net.cpp:94] Creating Layer label_intercept_1_split
I0501 16:33:15.134508 13557 net.cpp:435] label_intercept_1_split <- label
I0501 16:33:15.134515 13557 net.cpp:409] label_intercept_1_split -> label_intercept_1_split_0
I0501 16:33:15.134521 13557 net.cpp:409] label_intercept_1_split -> label_intercept_1_split_1
I0501 16:33:15.134564 13557 net.cpp:144] Setting up label_intercept_1_split
I0501 16:33:15.134570 13557 net.cpp:151] Top shape: 20 (20)
I0501 16:33:15.134573 13557 net.cpp:151] Top shape: 20 (20)
I0501 16:33:15.134577 13557 net.cpp:159] Memory required for data: 72240
I0501 16:33:15.134579 13557 layer_factory.hpp:77] Creating layer conv1
I0501 16:33:15.134590 13557 net.cpp:94] Creating Layer conv1
I0501 16:33:15.134593 13557 net.cpp:435] conv1 <- data
I0501 16:33:15.134598 13557 net.cpp:409] conv1 -> conv1
I0501 16:33:15.136076 13557 net.cpp:144] Setting up conv1
I0501 16:33:15.136096 13557 net.cpp:151] Top shape: 20 64 30 30 (1152000)
I0501 16:33:15.136099 13557 net.cpp:159] Memory required for data: 4680240
I0501 16:33:15.136109 13557 layer_factory.hpp:77] Creating layer relu1
I0501 16:33:15.136116 13557 net.cpp:94] Creating Layer relu1
I0501 16:33:15.136121 13557 net.cpp:435] relu1 <- conv1
I0501 16:33:15.136124 13557 net.cpp:396] relu1 -> conv1 (in-place)
I0501 16:33:15.136132 13557 net.cpp:144] Setting up relu1
I0501 16:33:15.136135 13557 net.cpp:151] Top shape: 20 64 30 30 (1152000)
I0501 16:33:15.136138 13557 net.cpp:159] Memory required for data: 9288240
I0501 16:33:15.136142 13557 layer_factory.hpp:77] Creating layer conv2
I0501 16:33:15.136148 13557 net.cpp:94] Creating Layer conv2
I0501 16:33:15.136152 13557 net.cpp:435] conv2 <- conv1
I0501 16:33:15.136157 13557 net.cpp:409] conv2 -> conv2
I0501 16:33:15.142814 13557 net.cpp:144] Setting up conv2
I0501 16:33:15.142829 13557 net.cpp:151] Top shape: 20 64 30 30 (1152000)
I0501 16:33:15.142833 13557 net.cpp:159] Memory required for data: 13896240
I0501 16:33:15.142840 13557 layer_factory.hpp:77] Creating layer relu2
I0501 16:33:15.142846 13557 net.cpp:94] Creating Layer relu2
I0501 16:33:15.142850 13557 net.cpp:435] relu2 <- conv2
I0501 16:33:15.142854 13557 net.cpp:396] relu2 -> conv2 (in-place)
I0501 16:33:15.142860 13557 net.cpp:144] Setting up relu2
I0501 16:33:15.142864 13557 net.cpp:151] Top shape: 20 64 30 30 (1152000)
I0501 16:33:15.142868 13557 net.cpp:159] Memory required for data: 18504240
I0501 16:33:15.142870 13557 layer_factory.hpp:77] Creating layer pool2
I0501 16:33:15.142875 13557 net.cpp:94] Creating Layer pool2
I0501 16:33:15.142879 13557 net.cpp:435] pool2 <- conv2
I0501 16:33:15.142882 13557 net.cpp:409] pool2 -> pool2
I0501 16:33:15.142940 13557 net.cpp:144] Setting up pool2
I0501 16:33:15.142946 13557 net.cpp:151] Top shape: 20 64 15 15 (288000)
I0501 16:33:15.142949 13557 net.cpp:159] Memory required for data: 19656240
I0501 16:33:15.142952 13557 layer_factory.hpp:77] Creating layer conv3
I0501 16:33:15.142961 13557 net.cpp:94] Creating Layer conv3
I0501 16:33:15.142963 13557 net.cpp:435] conv3 <- pool2
I0501 16:33:15.142968 13557 net.cpp:409] conv3 -> conv3
I0501 16:33:15.148207 13557 net.cpp:144] Setting up conv3
I0501 16:33:15.148243 13557 net.cpp:151] Top shape: 20 64 15 15 (288000)
I0501 16:33:15.148254 13557 net.cpp:159] Memory required for data: 20808240
I0501 16:33:15.148277 13557 layer_factory.hpp:77] Creating layer relu3
I0501 16:33:15.148283 13557 net.cpp:94] Creating Layer relu3
I0501 16:33:15.148286 13557 net.cpp:435] relu3 <- conv3
I0501 16:33:15.148290 13557 net.cpp:396] relu3 -> conv3 (in-place)
I0501 16:33:15.148298 13557 net.cpp:144] Setting up relu3
I0501 16:33:15.148301 13557 net.cpp:151] Top shape: 20 64 15 15 (288000)
I0501 16:33:15.148304 13557 net.cpp:159] Memory required for data: 21960240
I0501 16:33:15.148308 13557 layer_factory.hpp:77] Creating layer conv4
I0501 16:33:15.148314 13557 net.cpp:94] Creating Layer conv4
I0501 16:33:15.148317 13557 net.cpp:435] conv4 <- conv3
I0501 16:33:15.148322 13557 net.cpp:409] conv4 -> conv4
I0501 16:33:15.153759 13557 net.cpp:144] Setting up conv4
I0501 16:33:15.153774 13557 net.cpp:151] Top shape: 20 64 15 15 (288000)
I0501 16:33:15.153777 13557 net.cpp:159] Memory required for data: 23112240
I0501 16:33:15.153784 13557 layer_factory.hpp:77] Creating layer relu4
I0501 16:33:15.153790 13557 net.cpp:94] Creating Layer relu4
I0501 16:33:15.153794 13557 net.cpp:435] relu4 <- conv4
I0501 16:33:15.153798 13557 net.cpp:396] relu4 -> conv4 (in-place)
I0501 16:33:15.153805 13557 net.cpp:144] Setting up relu4
I0501 16:33:15.153808 13557 net.cpp:151] Top shape: 20 64 15 15 (288000)
I0501 16:33:15.153811 13557 net.cpp:159] Memory required for data: 24264240
I0501 16:33:15.153815 13557 layer_factory.hpp:77] Creating layer conv5
I0501 16:33:15.153822 13557 net.cpp:94] Creating Layer conv5
I0501 16:33:15.153825 13557 net.cpp:435] conv5 <- conv4
I0501 16:33:15.153830 13557 net.cpp:409] conv5 -> conv5
I0501 16:33:15.158520 13557 net.cpp:144] Setting up conv5
I0501 16:33:15.158540 13557 net.cpp:151] Top shape: 20 64 15 15 (288000)
I0501 16:33:15.158545 13557 net.cpp:159] Memory required for data: 25416240
I0501 16:33:15.158552 13557 layer_factory.hpp:77] Creating layer relu5
I0501 16:33:15.158558 13557 net.cpp:94] Creating Layer relu5
I0501 16:33:15.158561 13557 net.cpp:435] relu5 <- conv5
I0501 16:33:15.158566 13557 net.cpp:396] relu5 -> conv5 (in-place)
I0501 16:33:15.158572 13557 net.cpp:144] Setting up relu5
I0501 16:33:15.158577 13557 net.cpp:151] Top shape: 20 64 15 15 (288000)
I0501 16:33:15.158579 13557 net.cpp:159] Memory required for data: 26568240
I0501 16:33:15.158582 13557 layer_factory.hpp:77] Creating layer pool5
I0501 16:33:15.158588 13557 net.cpp:94] Creating Layer pool5
I0501 16:33:15.158591 13557 net.cpp:435] pool5 <- conv5
I0501 16:33:15.158596 13557 net.cpp:409] pool5 -> pool5
I0501 16:33:15.158635 13557 net.cpp:144] Setting up pool5
I0501 16:33:15.158643 13557 net.cpp:151] Top shape: 20 64 7 7 (62720)
I0501 16:33:15.158645 13557 net.cpp:159] Memory required for data: 26819120
I0501 16:33:15.158648 13557 layer_factory.hpp:77] Creating layer ip1
I0501 16:33:15.158655 13557 net.cpp:94] Creating Layer ip1
I0501 16:33:15.158658 13557 net.cpp:435] ip1 <- pool5
I0501 16:33:15.158663 13557 net.cpp:409] ip1 -> ip1
I0501 16:33:15.163453 13557 net.cpp:144] Setting up ip1
I0501 16:33:15.163463 13557 net.cpp:151] Top shape: 20 64 (1280)
I0501 16:33:15.163466 13557 net.cpp:159] Memory required for data: 26824240
I0501 16:33:15.163471 13557 layer_factory.hpp:77] Creating layer ip2
I0501 16:33:15.163477 13557 net.cpp:94] Creating Layer ip2
I0501 16:33:15.163480 13557 net.cpp:435] ip2 <- ip1
I0501 16:33:15.163485 13557 net.cpp:409] ip2 -> ip2
I0501 16:33:15.163715 13557 net.cpp:144] Setting up ip2
I0501 16:33:15.163722 13557 net.cpp:151] Top shape: 20 64 (1280)
I0501 16:33:15.163725 13557 net.cpp:159] Memory required for data: 26829360
I0501 16:33:15.163730 13557 layer_factory.hpp:77] Creating layer ip3
I0501 16:33:15.163736 13557 net.cpp:94] Creating Layer ip3
I0501 16:33:15.163740 13557 net.cpp:435] ip3 <- ip2
I0501 16:33:15.163744 13557 net.cpp:409] ip3 -> ip3
I0501 16:33:15.163944 13557 net.cpp:144] Setting up ip3
I0501 16:33:15.163951 13557 net.cpp:151] Top shape: 20 50 (1000)
I0501 16:33:15.163954 13557 net.cpp:159] Memory required for data: 26833360
I0501 16:33:15.163959 13557 layer_factory.hpp:77] Creating layer ip3_ip3_0_split
I0501 16:33:15.163964 13557 net.cpp:94] Creating Layer ip3_ip3_0_split
I0501 16:33:15.163966 13557 net.cpp:435] ip3_ip3_0_split <- ip3
I0501 16:33:15.163970 13557 net.cpp:409] ip3_ip3_0_split -> ip3_ip3_0_split_0
I0501 16:33:15.163975 13557 net.cpp:409] ip3_ip3_0_split -> ip3_ip3_0_split_1
I0501 16:33:15.164016 13557 net.cpp:144] Setting up ip3_ip3_0_split
I0501 16:33:15.164021 13557 net.cpp:151] Top shape: 20 50 (1000)
I0501 16:33:15.164024 13557 net.cpp:151] Top shape: 20 50 (1000)
I0501 16:33:15.164027 13557 net.cpp:159] Memory required for data: 26841360
I0501 16:33:15.164031 13557 layer_factory.hpp:77] Creating layer accuracy
I0501 16:33:15.164036 13557 net.cpp:94] Creating Layer accuracy
I0501 16:33:15.164038 13557 net.cpp:435] accuracy <- ip3_ip3_0_split_0
I0501 16:33:15.164041 13557 net.cpp:435] accuracy <- label_intercept_1_split_0
I0501 16:33:15.164047 13557 net.cpp:409] accuracy -> accuracy
…
