…
I0505 09:44:50.250973  6104 net.cpp:323] The NetState phase (0) differed from the phase (1) specified by a rule in layer intercept
I0505 09:44:50.250988  6104 net.cpp:323] The NetState phase (0) differed from the phase (1) specified by a rule in layer accuracy
I0505 09:44:50.251070  6104 net.cpp:52] Initializing net from parameters: 
state {
  phase: TRAIN
}
layer {
  name: "parameters"
  type: "HDF5Data"
  top: "data"
  top: "label"
  include {
    phase: TRAIN
  }
  hdf5_data_param {
    source: "/home/purduethu/scratch/radon/d/deng106/CNNStatisticalModel/distributions/input/5_distributions_100_sample_size_train-distributions-path.txt"
    batch_size: 20
  }
}
layer {
  name: "conv1"
  type: "Convolution"
  bottom: "data"
  top: "conv1"
  param {
    lr_mult: 1
  }
  param {
    lr_mult: 2
  }
  convolution_param {
    num_output: 64
    pad: 2
    kernel_size: 5
    stride: 1
    weight_filler {
      type: "gaussian"
      std: 0.0001
    }
    bias_filler {
      type: "constant"
    }
  }
}
layer {
  name: "relu1"
  type: "ReLU"
  bottom: "conv1"
  top: "conv1"
}
layer {
  name: "pool1"
  type: "Pooling"
  bottom: "conv1"
  top: "pool1"
  pooling_param {
    pool: MAX
    kernel_size: 3
    stride: 2
  }
}
layer {
  name: "conv2"
  type: "Convolution"
  bottom: "pool1"
  top: "conv2"
  param {
    lr_mult: 1
  }
  param {
    lr_mult: 2
  }
  convolution_param {
    num_output: 128
    pad: 2
    kernel_size: 5
    stride: 1
    weight_filler {
      type: "gaussian"
      std: 0.01
    }
    bias_filler {
      type: "constant"
    }
  }
}
layer {
  name: "relu2"
  type: "ReLU"
  bottom: "conv2"
  top: "conv2"
}
layer {
  name: "conv3"
  type: "Convolution"
  bottom: "conv2"
  top: "conv3"
  param {
    lr_mult: 1
  }
  param {
    lr_mult: 2
  }
  convolution_param {
    num_output: 128
    pad: 2
    kernel_size: 5
    stride: 1
    weight_filler {
      type: "gaussian"
      std: 0.01
    }
    bias_filler {
      type: "constant"
    }
  }
}
layer {
  name: "relu3"
  type: "ReLU"
  bottom: "conv3"
  top: "conv3"
}
layer {
  name: "pool3"
  type: "Pooling"
  bottom: "conv3"
  top: "pool3"
  pooling_param {
    pool: AVE
    kernel_size: 3
    stride: 2
  }
}
layer {
  name: "ip1"
  type: "InnerProduct"
  bottom: "pool3"
  top: "ip1"
  param {
    lr_mult: 1
  }
  param {
    lr_mult: 2
  }
  inner_product_param {
    num_output: 512
    weight_filler {
      type: "gaussian"
      std: 0.1
    }
    bias_filler {
      type: "constant"
    }
  }
}
layer {
  name: "ip2"
  type: "InnerProduct"
  bottom: "ip1"
  top: "ip2"
  param {
    lr_mult: 1
  }
  param {
    lr_mult: 2
  }
  inner_product_param {
    num_output: 256
    weight_filler {
      type: "gaussian"
      std: 0.1
    }
    bias_filler {
      type: "constant"
    }
  }
}
layer {
  name: "ip3"
  type: "InnerProduct"
  bottom: "ip2"
  top: "ip3"
  param {
    lr_mult: 1
  }
  param {
    lr_mult: 2
  }
  inner_product_param {
    num_output: 50
    weight_filler {
      type: "gaussian"
      std: 0.1
    }
    bias_filler {
      type: "constant"
    }
  }
}
layer {
  name: "loss"
  type: "SoftmaxWithLoss"
  bottom: "ip3"
  bottom: "label"
  top: "loss"
}
I0505 09:44:50.251132  6104 layer_factory.hpp:77] Creating layer parameters
I0505 09:44:50.251148  6104 net.cpp:94] Creating Layer parameters
I0505 09:44:50.251154  6104 net.cpp:409] parameters -> data
I0505 09:44:50.251183  6104 net.cpp:409] parameters -> label
I0505 09:44:50.251193  6104 hdf5_data_layer.cpp:79] Loading list of HDF5 filenames from: /home/purduethu/scratch/radon/d/deng106/CNNStatisticalModel/distributions/input/5_distributions_100_sample_size_train-distributions-path.txt
I0505 09:44:50.251215  6104 hdf5_data_layer.cpp:93] Number of HDF5 files: 1
I0505 09:44:50.251744  6104 hdf5.cpp:32] Datatype class: H5T_FLOAT
I0505 09:44:50.285063  6104 hdf5.cpp:35] Datatype class: H5T_INTEGER
I0505 09:44:50.286643  6104 net.cpp:144] Setting up parameters
I0505 09:44:50.286669  6104 net.cpp:151] Top shape: 20 1 10 10 (2000)
I0505 09:44:50.286679  6104 net.cpp:151] Top shape: 20 (20)
I0505 09:44:50.286686  6104 net.cpp:159] Memory required for data: 8080
I0505 09:44:50.286696  6104 layer_factory.hpp:77] Creating layer conv1
I0505 09:44:50.286722  6104 net.cpp:94] Creating Layer conv1
I0505 09:44:50.286731  6104 net.cpp:435] conv1 <- data
I0505 09:44:50.286748  6104 net.cpp:409] conv1 -> conv1
I0505 09:44:50.291862  6104 net.cpp:144] Setting up conv1
I0505 09:44:50.291883  6104 net.cpp:151] Top shape: 20 64 10 10 (128000)
I0505 09:44:50.291889  6104 net.cpp:159] Memory required for data: 520080
I0505 09:44:50.291905  6104 layer_factory.hpp:77] Creating layer relu1
I0505 09:44:50.291918  6104 net.cpp:94] Creating Layer relu1
I0505 09:44:50.291923  6104 net.cpp:435] relu1 <- conv1
I0505 09:44:50.291929  6104 net.cpp:396] relu1 -> conv1 (in-place)
I0505 09:44:50.291944  6104 net.cpp:144] Setting up relu1
I0505 09:44:50.291950  6104 net.cpp:151] Top shape: 20 64 10 10 (128000)
I0505 09:44:50.291954  6104 net.cpp:159] Memory required for data: 1032080
I0505 09:44:50.291959  6104 layer_factory.hpp:77] Creating layer pool1
I0505 09:44:50.291967  6104 net.cpp:94] Creating Layer pool1
I0505 09:44:50.291973  6104 net.cpp:435] pool1 <- conv1
I0505 09:44:50.291980  6104 net.cpp:409] pool1 -> pool1
I0505 09:44:50.292033  6104 net.cpp:144] Setting up pool1
I0505 09:44:50.292042  6104 net.cpp:151] Top shape: 20 64 5 5 (32000)
I0505 09:44:50.292047  6104 net.cpp:159] Memory required for data: 1160080
I0505 09:44:50.292050  6104 layer_factory.hpp:77] Creating layer conv2
I0505 09:44:50.292063  6104 net.cpp:94] Creating Layer conv2
I0505 09:44:50.292069  6104 net.cpp:435] conv2 <- pool1
I0505 09:44:50.292076  6104 net.cpp:409] conv2 -> conv2
I0505 09:44:50.303031  6104 net.cpp:144] Setting up conv2
I0505 09:44:50.303059  6104 net.cpp:151] Top shape: 20 128 5 5 (64000)
I0505 09:44:50.303066  6104 net.cpp:159] Memory required for data: 1416080
I0505 09:44:50.303077  6104 layer_factory.hpp:77] Creating layer relu2
I0505 09:44:50.303086  6104 net.cpp:94] Creating Layer relu2
I0505 09:44:50.303092  6104 net.cpp:435] relu2 <- conv2
I0505 09:44:50.303098  6104 net.cpp:396] relu2 -> conv2 (in-place)
I0505 09:44:50.303108  6104 net.cpp:144] Setting up relu2
I0505 09:44:50.303114  6104 net.cpp:151] Top shape: 20 128 5 5 (64000)
I0505 09:44:50.303118  6104 net.cpp:159] Memory required for data: 1672080
I0505 09:44:50.303122  6104 layer_factory.hpp:77] Creating layer conv3
I0505 09:44:50.303133  6104 net.cpp:94] Creating Layer conv3
I0505 09:44:50.303138  6104 net.cpp:435] conv3 <- conv2
I0505 09:44:50.303143  6104 net.cpp:409] conv3 -> conv3
I0505 09:44:50.321980  6104 net.cpp:144] Setting up conv3
I0505 09:44:50.322016  6104 net.cpp:151] Top shape: 20 128 5 5 (64000)
I0505 09:44:50.322021  6104 net.cpp:159] Memory required for data: 1928080
I0505 09:44:50.322034  6104 layer_factory.hpp:77] Creating layer relu3
I0505 09:44:50.322053  6104 net.cpp:94] Creating Layer relu3
I0505 09:44:50.322059  6104 net.cpp:435] relu3 <- conv3
I0505 09:44:50.322065  6104 net.cpp:396] relu3 -> conv3 (in-place)
I0505 09:44:50.322077  6104 net.cpp:144] Setting up relu3
I0505 09:44:50.322082  6104 net.cpp:151] Top shape: 20 128 5 5 (64000)
I0505 09:44:50.322087  6104 net.cpp:159] Memory required for data: 2184080
I0505 09:44:50.322090  6104 layer_factory.hpp:77] Creating layer pool3
I0505 09:44:50.322099  6104 net.cpp:94] Creating Layer pool3
I0505 09:44:50.322113  6104 net.cpp:435] pool3 <- conv3
I0505 09:44:50.322118  6104 net.cpp:409] pool3 -> pool3
I0505 09:44:50.322170  6104 net.cpp:144] Setting up pool3
I0505 09:44:50.322178  6104 net.cpp:151] Top shape: 20 128 2 2 (10240)
I0505 09:44:50.322182  6104 net.cpp:159] Memory required for data: 2225040
I0505 09:44:50.322186  6104 layer_factory.hpp:77] Creating layer ip1
I0505 09:44:50.322198  6104 net.cpp:94] Creating Layer ip1
I0505 09:44:50.322203  6104 net.cpp:435] ip1 <- pool3
I0505 09:44:50.322209  6104 net.cpp:409] ip1 -> ip1
I0505 09:44:50.331176  6104 net.cpp:144] Setting up ip1
I0505 09:44:50.331203  6104 net.cpp:151] Top shape: 20 512 (10240)
I0505 09:44:50.331209  6104 net.cpp:159] Memory required for data: 2266000
I0505 09:44:50.331218  6104 layer_factory.hpp:77] Creating layer ip2
I0505 09:44:50.331228  6104 net.cpp:94] Creating Layer ip2
I0505 09:44:50.331233  6104 net.cpp:435] ip2 <- ip1
I0505 09:44:50.331240  6104 net.cpp:409] ip2 -> ip2
I0505 09:44:50.335942  6104 net.cpp:144] Setting up ip2
I0505 09:44:50.335963  6104 net.cpp:151] Top shape: 20 256 (5120)
I0505 09:44:50.335968  6104 net.cpp:159] Memory required for data: 2286480
I0505 09:44:50.335980  6104 layer_factory.hpp:77] Creating layer ip3
I0505 09:44:50.335989  6104 net.cpp:94] Creating Layer ip3
I0505 09:44:50.335994  6104 net.cpp:435] ip3 <- ip2
I0505 09:44:50.336000  6104 net.cpp:409] ip3 -> ip3
I0505 09:44:50.337209  6104 net.cpp:144] Setting up ip3
I0505 09:44:50.337225  6104 net.cpp:151] Top shape: 20 50 (1000)
I0505 09:44:50.337230  6104 net.cpp:159] Memory required for data: 2290480
I0505 09:44:50.337237  6104 layer_factory.hpp:77] Creating layer loss
I0505 09:44:50.337245  6104 net.cpp:94] Creating Layer loss
I0505 09:44:50.337249  6104 net.cpp:435] loss <- ip3
I0505 09:44:50.337255  6104 net.cpp:435] loss <- label
I0505 09:44:50.337261  6104 net.cpp:409] loss -> loss
I0505 09:44:50.337276  6104 layer_factory.hpp:77] Creating layer loss
…
I0505 09:44:50.337795  6104 solver.cpp:181] Creating test net (#0) specified by net file: ./protocol/dis_5_100_dimension.protocol_distribution
I0505 09:44:50.337823  6104 net.cpp:323] The NetState phase (1) differed from the phase (0) specified by a rule in layer parameters
I0505 09:44:50.337932  6104 net.cpp:52] Initializing net from parameters: 
state {
  phase: TEST
}
layer {
  name: "intercept"
  type: "HDF5Data"
  top: "data"
  top: "label"
  include {
    phase: TEST
  }
  hdf5_data_param {
    source: "/home/purduethu/scratch/radon/d/deng106/CNNStatisticalModel/distributions/input/5_distributions_100_sample_size_test-distributions-path.txt"
    batch_size: 20
  }
}
layer {
  name: "conv1"
  type: "Convolution"
  bottom: "data"
  top: "conv1"
  param {
    lr_mult: 1
  }
  param {
    lr_mult: 2
  }
  convolution_param {
    num_output: 64
    pad: 2
    kernel_size: 5
    stride: 1
    weight_filler {
      type: "gaussian"
      std: 0.0001
    }
    bias_filler {
      type: "constant"
    }
  }
}
layer {
  name: "relu1"
  type: "ReLU"
  bottom: "conv1"
  top: "conv1"
}
layer {
  name: "pool1"
  type: "Pooling"
  bottom: "conv1"
  top: "pool1"
  pooling_param {
    pool: MAX
    kernel_size: 3
    stride: 2
  }
}
layer {
  name: "conv2"
  type: "Convolution"
  bottom: "pool1"
  top: "conv2"
  param {
    lr_mult: 1
  }
  param {
    lr_mult: 2
  }
  convolution_param {
    num_output: 128
    pad: 2
    kernel_size: 5
    stride: 1
    weight_filler {
      type: "gaussian"
      std: 0.01
    }
    bias_filler {
      type: "constant"
    }
  }
}
layer {
  name: "relu2"
  type: "ReLU"
  bottom: "conv2"
  top: "conv2"
}
layer {
  name: "conv3"
  type: "Convolution"
  bottom: "conv2"
  top: "conv3"
  param {
    lr_mult: 1
  }
  param {
    lr_mult: 2
  }
  convolution_param {
    num_output: 128
    pad: 2
    kernel_size: 5
    stride: 1
    weight_filler {
      type: "gaussian"
      std: 0.01
    }
    bias_filler {
      type: "constant"
    }
  }
}
layer {
  name: "relu3"
  type: "ReLU"
  bottom: "conv3"
  top: "conv3"
}
layer {
  name: "pool3"
  type: "Pooling"
  bottom: "conv3"
  top: "pool3"
  pooling_param {
    pool: AVE
    kernel_size: 3
    stride: 2
  }
}
layer {
  name: "ip1"
  type: "InnerProduct"
  bottom: "pool3"
  top: "ip1"
  param {
    lr_mult: 1
  }
  param {
    lr_mult: 2
  }
  inner_product_param {
    num_output: 512
    weight_filler {
      type: "gaussian"
      std: 0.1
    }
    bias_filler {
      type: "constant"
    }
  }
}
layer {
  name: "ip2"
  type: "InnerProduct"
  bottom: "ip1"
  top: "ip2"
  param {
    lr_mult: 1
  }
  param {
    lr_mult: 2
  }
  inner_product_param {
    num_output: 256
    weight_filler {
      type: "gaussian"
      std: 0.1
    }
    bias_filler {
      type: "constant"
    }
  }
}
layer {
  name: "ip3"
  type: "InnerProduct"
  bottom: "ip2"
  top: "ip3"
  param {
    lr_mult: 1
  }
  param {
    lr_mult: 2
  }
  inner_product_param {
    num_output: 50
    weight_filler {
      type: "gaussian"
      std: 0.1
    }
    bias_filler {
      type: "constant"
    }
  }
}
layer {
  name: "accuracy"
  type: "Accuracy"
  bottom: "ip3"
  bottom: "label"
  top: "accuracy"
  include {
    phase: TEST
  }
}
layer {
  name: "loss"
  type: "SoftmaxWithLoss"
  bottom: "ip3"
  bottom: "label"
  top: "loss"
}
I0505 09:44:50.338008  6104 layer_factory.hpp:77] Creating layer intercept
I0505 09:44:50.338019  6104 net.cpp:94] Creating Layer intercept
I0505 09:44:50.338024  6104 net.cpp:409] intercept -> data
I0505 09:44:50.338033  6104 net.cpp:409] intercept -> label
I0505 09:44:50.338040  6104 hdf5_data_layer.cpp:79] Loading list of HDF5 filenames from: /home/purduethu/scratch/radon/d/deng106/CNNStatisticalModel/distributions/input/5_distributions_100_sample_size_test-distributions-path.txt
I0505 09:44:50.338063  6104 hdf5_data_layer.cpp:93] Number of HDF5 files: 1
I0505 09:44:50.342803  6104 net.cpp:144] Setting up intercept
I0505 09:44:50.342835  6104 net.cpp:151] Top shape: 20 1 10 10 (2000)
I0505 09:44:50.342842  6104 net.cpp:151] Top shape: 20 (20)
I0505 09:44:50.342847  6104 net.cpp:159] Memory required for data: 8080
I0505 09:44:50.342854  6104 layer_factory.hpp:77] Creating layer label_intercept_1_split
I0505 09:44:50.342874  6104 net.cpp:94] Creating Layer label_intercept_1_split
I0505 09:44:50.342887  6104 net.cpp:435] label_intercept_1_split <- label
I0505 09:44:50.342895  6104 net.cpp:409] label_intercept_1_split -> label_intercept_1_split_0
I0505 09:44:50.342903  6104 net.cpp:409] label_intercept_1_split -> label_intercept_1_split_1
I0505 09:44:50.342934  6104 net.cpp:144] Setting up label_intercept_1_split
I0505 09:44:50.342941  6104 net.cpp:151] Top shape: 20 (20)
I0505 09:44:50.342947  6104 net.cpp:151] Top shape: 20 (20)
I0505 09:44:50.342949  6104 net.cpp:159] Memory required for data: 8240
I0505 09:44:50.342962  6104 layer_factory.hpp:77] Creating layer conv1
I0505 09:44:50.342975  6104 net.cpp:94] Creating Layer conv1
I0505 09:44:50.342980  6104 net.cpp:435] conv1 <- data
I0505 09:44:50.342986  6104 net.cpp:409] conv1 -> conv1
I0505 09:44:50.343711  6104 net.cpp:144] Setting up conv1
I0505 09:44:50.343727  6104 net.cpp:151] Top shape: 20 64 10 10 (128000)
I0505 09:44:50.343732  6104 net.cpp:159] Memory required for data: 520240
I0505 09:44:50.343744  6104 layer_factory.hpp:77] Creating layer relu1
I0505 09:44:50.343751  6104 net.cpp:94] Creating Layer relu1
I0505 09:44:50.343756  6104 net.cpp:435] relu1 <- conv1
I0505 09:44:50.343762  6104 net.cpp:396] relu1 -> conv1 (in-place)
I0505 09:44:50.343771  6104 net.cpp:144] Setting up relu1
I0505 09:44:50.343776  6104 net.cpp:151] Top shape: 20 64 10 10 (128000)
I0505 09:44:50.343780  6104 net.cpp:159] Memory required for data: 1032240
I0505 09:44:50.343785  6104 layer_factory.hpp:77] Creating layer pool1
I0505 09:44:50.343791  6104 net.cpp:94] Creating Layer pool1
I0505 09:44:50.343796  6104 net.cpp:435] pool1 <- conv1
I0505 09:44:50.343801  6104 net.cpp:409] pool1 -> pool1
I0505 09:44:50.343842  6104 net.cpp:144] Setting up pool1
I0505 09:44:50.343850  6104 net.cpp:151] Top shape: 20 64 5 5 (32000)
I0505 09:44:50.343854  6104 net.cpp:159] Memory required for data: 1160240
I0505 09:44:50.343858  6104 layer_factory.hpp:77] Creating layer conv2
I0505 09:44:50.343868  6104 net.cpp:94] Creating Layer conv2
I0505 09:44:50.343871  6104 net.cpp:435] conv2 <- pool1
I0505 09:44:50.343878  6104 net.cpp:409] conv2 -> conv2
I0505 09:44:50.351485  6104 net.cpp:144] Setting up conv2
I0505 09:44:50.351505  6104 net.cpp:151] Top shape: 20 128 5 5 (64000)
I0505 09:44:50.351510  6104 net.cpp:159] Memory required for data: 1416240
I0505 09:44:50.351521  6104 layer_factory.hpp:77] Creating layer relu2
I0505 09:44:50.351528  6104 net.cpp:94] Creating Layer relu2
I0505 09:44:50.351532  6104 net.cpp:435] relu2 <- conv2
I0505 09:44:50.351538  6104 net.cpp:396] relu2 -> conv2 (in-place)
I0505 09:44:50.351547  6104 net.cpp:144] Setting up relu2
I0505 09:44:50.351552  6104 net.cpp:151] Top shape: 20 128 5 5 (64000)
I0505 09:44:50.351555  6104 net.cpp:159] Memory required for data: 1672240
I0505 09:44:50.351559  6104 layer_factory.hpp:77] Creating layer conv3
I0505 09:44:50.351568  6104 net.cpp:94] Creating Layer conv3
I0505 09:44:50.351572  6104 net.cpp:435] conv3 <- conv2
I0505 09:44:50.351578  6104 net.cpp:409] conv3 -> conv3
I0505 09:44:50.366113  6104 net.cpp:144] Setting up conv3
I0505 09:44:50.366144  6104 net.cpp:151] Top shape: 20 128 5 5 (64000)
I0505 09:44:50.366149  6104 net.cpp:159] Memory required for data: 1928240
I0505 09:44:50.366161  6104 layer_factory.hpp:77] Creating layer relu3
I0505 09:44:50.366173  6104 net.cpp:94] Creating Layer relu3
I0505 09:44:50.366178  6104 net.cpp:435] relu3 <- conv3
I0505 09:44:50.366184  6104 net.cpp:396] relu3 -> conv3 (in-place)
I0505 09:44:50.366194  6104 net.cpp:144] Setting up relu3
I0505 09:44:50.366199  6104 net.cpp:151] Top shape: 20 128 5 5 (64000)
I0505 09:44:50.366202  6104 net.cpp:159] Memory required for data: 2184240
I0505 09:44:50.366206  6104 layer_factory.hpp:77] Creating layer pool3
I0505 09:44:50.366212  6104 net.cpp:94] Creating Layer pool3
I0505 09:44:50.366216  6104 net.cpp:435] pool3 <- conv3
I0505 09:44:50.366221  6104 net.cpp:409] pool3 -> pool3
I0505 09:44:50.366252  6104 net.cpp:144] Setting up pool3
I0505 09:44:50.366259  6104 net.cpp:151] Top shape: 20 128 2 2 (10240)
I0505 09:44:50.366269  6104 net.cpp:159] Memory required for data: 2225200
I0505 09:44:50.366273  6104 layer_factory.hpp:77] Creating layer ip1
I0505 09:44:50.366281  6104 net.cpp:94] Creating Layer ip1
I0505 09:44:50.366286  6104 net.cpp:435] ip1 <- pool3
I0505 09:44:50.366291  6104 net.cpp:409] ip1 -> ip1
I0505 09:44:50.374157  6104 net.cpp:144] Setting up ip1
I0505 09:44:50.374178  6104 net.cpp:151] Top shape: 20 512 (10240)
I0505 09:44:50.374183  6104 net.cpp:159] Memory required for data: 2266160
I0505 09:44:50.374191  6104 layer_factory.hpp:77] Creating layer ip2
I0505 09:44:50.374210  6104 net.cpp:94] Creating Layer ip2
I0505 09:44:50.374215  6104 net.cpp:435] ip2 <- ip1
I0505 09:44:50.374222  6104 net.cpp:409] ip2 -> ip2
I0505 09:44:50.380421  6104 net.cpp:144] Setting up ip2
I0505 09:44:50.380448  6104 net.cpp:151] Top shape: 20 256 (5120)
I0505 09:44:50.380457  6104 net.cpp:159] Memory required for data: 2286640
I0505 09:44:50.380475  6104 layer_factory.hpp:77] Creating layer ip3
I0505 09:44:50.380489  6104 net.cpp:94] Creating Layer ip3
I0505 09:44:50.380497  6104 net.cpp:435] ip3 <- ip2
I0505 09:44:50.380508  6104 net.cpp:409] ip3 -> ip3
I0505 09:44:50.381099  6104 net.cpp:144] Setting up ip3
I0505 09:44:50.381116  6104 net.cpp:151] Top shape: 20 50 (1000)
I0505 09:44:50.381122  6104 net.cpp:159] Memory required for data: 2290640
I0505 09:44:50.381132  6104 layer_factory.hpp:77] Creating layer ip3_ip3_0_split
I0505 09:44:50.381141  6104 net.cpp:94] Creating Layer ip3_ip3_0_split
I0505 09:44:50.381148  6104 net.cpp:435] ip3_ip3_0_split <- ip3
I0505 09:44:50.381156  6104 net.cpp:409] ip3_ip3_0_split -> ip3_ip3_0_split_0
I0505 09:44:50.381166  6104 net.cpp:409] ip3_ip3_0_split -> ip3_ip3_0_split_1
I0505 09:44:50.381204  6104 net.cpp:144] Setting up ip3_ip3_0_split
I0505 09:44:50.381214  6104 net.cpp:151] Top shape: 20 50 (1000)
I0505 09:44:50.381222  6104 net.cpp:151] Top shape: 20 50 (1000)
I0505 09:44:50.381227  6104 net.cpp:159] Memory required for data: 2298640
I0505 09:44:50.381232  6104 layer_factory.hpp:77] Creating layer accuracy
I0505 09:44:50.381242  6104 net.cpp:94] Creating Layer accuracy
I0505 09:44:50.381247  6104 net.cpp:435] accuracy <- ip3_ip3_0_split_0
I0505 09:44:50.381254  6104 net.cpp:435] accuracy <- label_intercept_1_split_0
I0505 09:44:50.381263  6104 net.cpp:409] accuracy -> accuracy
…
