…
I0505 06:43:20.442216  4450 net.cpp:323] The NetState phase (0) differed from the phase (1) specified by a rule in layer intercept
I0505 06:43:20.442231  4450 net.cpp:323] The NetState phase (0) differed from the phase (1) specified by a rule in layer loss
I0505 06:43:20.442313  4450 net.cpp:52] Initializing net from parameters: 
state {
  phase: TRAIN
}
layer {
  name: "parameters"
  type: "HDF5Data"
  top: "data"
  top: "label"
  include {
    phase: TRAIN
  }
  hdf5_data_param {
    source: "/home/purduethu/scratch/radon/d/deng106/CNNStatisticalModel/distributions/input/50_distributions_400_sample_size_train-parameters-path.txt"
    batch_size: 20
  }
}
layer {
  name: "conv1"
  type: "Convolution"
  bottom: "data"
  top: "conv1"
  param {
    lr_mult: 1
  }
  param {
    lr_mult: 2
  }
  convolution_param {
    num_output: 64
    pad: 2
    kernel_size: 5
    stride: 1
    weight_filler {
      type: "gaussian"
      std: 0.0001
    }
    bias_filler {
      type: "constant"
    }
  }
}
layer {
  name: "relu1"
  type: "ReLU"
  bottom: "conv1"
  top: "conv1"
}
layer {
  name: "pool1"
  type: "Pooling"
  bottom: "conv1"
  top: "pool1"
  pooling_param {
    pool: MAX
    kernel_size: 3
    stride: 2
  }
}
layer {
  name: "conv2"
  type: "Convolution"
  bottom: "pool1"
  top: "conv2"
  param {
    lr_mult: 1
  }
  param {
    lr_mult: 2
  }
  convolution_param {
    num_output: 128
    pad: 2
    kernel_size: 5
    stride: 1
    weight_filler {
      type: "gaussian"
      std: 0.01
    }
    bias_filler {
      type: "constant"
    }
  }
}
layer {
  name: "relu2"
  type: "ReLU"
  bottom: "conv2"
  top: "conv2"
}
layer {
  name: "conv3"
  type: "Convolution"
  bottom: "conv2"
  top: "conv3"
  param {
    lr_mult: 1
  }
  param {
    lr_mult: 2
  }
  convolution_param {
    num_output: 128
    pad: 2
    kernel_size: 5
    stride: 1
    weight_filler {
      type: "gaussian"
      std: 0.01
    }
    bias_filler {
      type: "constant"
    }
  }
}
layer {
  name: "relu3"
  type: "ReLU"
  bottom: "conv3"
  top: "conv3"
}
layer {
  name: "pool3"
  type: "Pooling"
  bottom: "conv3"
  top: "pool3"
  pooling_param {
    pool: AVE
    kernel_size: 3
    stride: 2
  }
}
layer {
  name: "ip1"
  type: "InnerProduct"
  bottom: "pool3"
  top: "ip1"
  param {
    lr_mult: 1
  }
  param {
    lr_mult: 2
  }
  inner_product_param {
    num_output: 512
    weight_filler {
      type: "gaussian"
      std: 0.1
    }
    bias_filler {
      type: "constant"
    }
  }
}
layer {
  name: "ip2"
  type: "InnerProduct"
  bottom: "ip1"
  top: "ip2"
  param {
    lr_mult: 1
  }
  param {
    lr_mult: 2
  }
  inner_product_param {
    num_output: 256
    weight_filler {
      type: "gaussian"
      std: 0.1
    }
    bias_filler {
      type: "constant"
    }
  }
}
layer {
  name: "ip3"
  type: "InnerProduct"
  bottom: "ip2"
  top: "ip3"
  param {
    lr_mult: 1
  }
  param {
    lr_mult: 2
  }
  inner_product_param {
    num_output: 1
    weight_filler {
      type: "gaussian"
      std: 0.1
    }
    bias_filler {
      type: "constant"
    }
  }
}
layer {
  name: "loss"
  type: "HuberLoss"
  bottom: "ip3"
  bottom: "label"
  top: "loss"
  include {
    phase: TRAIN
  }
}
I0505 06:43:20.442378  4450 layer_factory.hpp:77] Creating layer parameters
I0505 06:43:20.442395  4450 net.cpp:94] Creating Layer parameters
I0505 06:43:20.442409  4450 net.cpp:409] parameters -> data
I0505 06:43:20.442428  4450 net.cpp:409] parameters -> label
I0505 06:43:20.442440  4450 hdf5_data_layer.cpp:79] Loading list of HDF5 filenames from: /home/purduethu/scratch/radon/d/deng106/CNNStatisticalModel/distributions/input/50_distributions_400_sample_size_train-parameters-path.txt
I0505 06:43:20.442462  4450 hdf5_data_layer.cpp:93] Number of HDF5 files: 1
I0505 06:43:20.442927  4450 hdf5.cpp:32] Datatype class: H5T_FLOAT
I0505 06:43:21.080341  4450 net.cpp:144] Setting up parameters
I0505 06:43:21.080374  4450 net.cpp:151] Top shape: 20 1 20 20 (8000)
I0505 06:43:21.080380  4450 net.cpp:151] Top shape: 20 (20)
I0505 06:43:21.080384  4450 net.cpp:159] Memory required for data: 32080
I0505 06:43:21.080391  4450 layer_factory.hpp:77] Creating layer conv1
I0505 06:43:21.080410  4450 net.cpp:94] Creating Layer conv1
I0505 06:43:21.080416  4450 net.cpp:435] conv1 <- data
I0505 06:43:21.080427  4450 net.cpp:409] conv1 -> conv1
I0505 06:43:21.085135  4450 net.cpp:144] Setting up conv1
I0505 06:43:21.085150  4450 net.cpp:151] Top shape: 20 64 20 20 (512000)
I0505 06:43:21.085155  4450 net.cpp:159] Memory required for data: 2080080
I0505 06:43:21.085166  4450 layer_factory.hpp:77] Creating layer relu1
I0505 06:43:21.085173  4450 net.cpp:94] Creating Layer relu1
I0505 06:43:21.085177  4450 net.cpp:435] relu1 <- conv1
I0505 06:43:21.085182  4450 net.cpp:396] relu1 -> conv1 (in-place)
I0505 06:43:21.085198  4450 net.cpp:144] Setting up relu1
I0505 06:43:21.085203  4450 net.cpp:151] Top shape: 20 64 20 20 (512000)
I0505 06:43:21.085206  4450 net.cpp:159] Memory required for data: 4128080
I0505 06:43:21.085211  4450 layer_factory.hpp:77] Creating layer pool1
I0505 06:43:21.085217  4450 net.cpp:94] Creating Layer pool1
I0505 06:43:21.085222  4450 net.cpp:435] pool1 <- conv1
I0505 06:43:21.085225  4450 net.cpp:409] pool1 -> pool1
I0505 06:43:21.085265  4450 net.cpp:144] Setting up pool1
I0505 06:43:21.085273  4450 net.cpp:151] Top shape: 20 64 10 10 (128000)
I0505 06:43:21.085275  4450 net.cpp:159] Memory required for data: 4640080
I0505 06:43:21.085279  4450 layer_factory.hpp:77] Creating layer conv2
I0505 06:43:21.085288  4450 net.cpp:94] Creating Layer conv2
I0505 06:43:21.085291  4450 net.cpp:435] conv2 <- pool1
I0505 06:43:21.085296  4450 net.cpp:409] conv2 -> conv2
I0505 06:43:21.095607  4450 net.cpp:144] Setting up conv2
I0505 06:43:21.095635  4450 net.cpp:151] Top shape: 20 128 10 10 (256000)
I0505 06:43:21.095644  4450 net.cpp:159] Memory required for data: 5664080
I0505 06:43:21.095660  4450 layer_factory.hpp:77] Creating layer relu2
I0505 06:43:21.095672  4450 net.cpp:94] Creating Layer relu2
I0505 06:43:21.095680  4450 net.cpp:435] relu2 <- conv2
I0505 06:43:21.095691  4450 net.cpp:396] relu2 -> conv2 (in-place)
I0505 06:43:21.095705  4450 net.cpp:144] Setting up relu2
I0505 06:43:21.095715  4450 net.cpp:151] Top shape: 20 128 10 10 (256000)
I0505 06:43:21.095722  4450 net.cpp:159] Memory required for data: 6688080
I0505 06:43:21.095728  4450 layer_factory.hpp:77] Creating layer conv3
I0505 06:43:21.095743  4450 net.cpp:94] Creating Layer conv3
I0505 06:43:21.095752  4450 net.cpp:435] conv3 <- conv2
I0505 06:43:21.095762  4450 net.cpp:409] conv3 -> conv3
I0505 06:43:21.113301  4450 net.cpp:144] Setting up conv3
I0505 06:43:21.113317  4450 net.cpp:151] Top shape: 20 128 10 10 (256000)
I0505 06:43:21.113322  4450 net.cpp:159] Memory required for data: 7712080
I0505 06:43:21.113329  4450 layer_factory.hpp:77] Creating layer relu3
I0505 06:43:21.113337  4450 net.cpp:94] Creating Layer relu3
I0505 06:43:21.113345  4450 net.cpp:435] relu3 <- conv3
I0505 06:43:21.113351  4450 net.cpp:396] relu3 -> conv3 (in-place)
I0505 06:43:21.113358  4450 net.cpp:144] Setting up relu3
I0505 06:43:21.113363  4450 net.cpp:151] Top shape: 20 128 10 10 (256000)
I0505 06:43:21.113366  4450 net.cpp:159] Memory required for data: 8736080
I0505 06:43:21.113369  4450 layer_factory.hpp:77] Creating layer pool3
I0505 06:43:21.113376  4450 net.cpp:94] Creating Layer pool3
I0505 06:43:21.113379  4450 net.cpp:435] pool3 <- conv3
I0505 06:43:21.113392  4450 net.cpp:409] pool3 -> pool3
I0505 06:43:21.113426  4450 net.cpp:144] Setting up pool3
I0505 06:43:21.113433  4450 net.cpp:151] Top shape: 20 128 5 5 (64000)
I0505 06:43:21.113437  4450 net.cpp:159] Memory required for data: 8992080
I0505 06:43:21.113440  4450 layer_factory.hpp:77] Creating layer ip1
I0505 06:43:21.113451  4450 net.cpp:94] Creating Layer ip1
I0505 06:43:21.113454  4450 net.cpp:435] ip1 <- pool3
I0505 06:43:21.113459  4450 net.cpp:409] ip1 -> ip1
I0505 06:43:21.152832  4450 net.cpp:144] Setting up ip1
I0505 06:43:21.152848  4450 net.cpp:151] Top shape: 20 512 (10240)
I0505 06:43:21.152853  4450 net.cpp:159] Memory required for data: 9033040
I0505 06:43:21.152859  4450 layer_factory.hpp:77] Creating layer ip2
I0505 06:43:21.152866  4450 net.cpp:94] Creating Layer ip2
I0505 06:43:21.152870  4450 net.cpp:435] ip2 <- ip1
I0505 06:43:21.152875  4450 net.cpp:409] ip2 -> ip2
I0505 06:43:21.155956  4450 net.cpp:144] Setting up ip2
I0505 06:43:21.155964  4450 net.cpp:151] Top shape: 20 256 (5120)
I0505 06:43:21.155968  4450 net.cpp:159] Memory required for data: 9053520
I0505 06:43:21.155975  4450 layer_factory.hpp:77] Creating layer ip3
I0505 06:43:21.155982  4450 net.cpp:94] Creating Layer ip3
I0505 06:43:21.155985  4450 net.cpp:435] ip3 <- ip2
I0505 06:43:21.155989  4450 net.cpp:409] ip3 -> ip3
I0505 06:43:21.156054  4450 net.cpp:144] Setting up ip3
I0505 06:43:21.156059  4450 net.cpp:151] Top shape: 20 1 (20)
I0505 06:43:21.156062  4450 net.cpp:159] Memory required for data: 9053600
I0505 06:43:21.156067  4450 layer_factory.hpp:77] Creating layer loss
I0505 06:43:21.156078  4450 net.cpp:94] Creating Layer loss
I0505 06:43:21.156082  4450 net.cpp:435] loss <- ip3
I0505 06:43:21.156085  4450 net.cpp:435] loss <- label
I0505 06:43:21.156091  4450 net.cpp:409] loss -> loss
I0505 06:43:21.156124  4450 net.cpp:144] Setting up loss
…
