…
I0502 04:06:29.301597 18408 net.cpp:323] The NetState phase (0) differed from the phase (1) specified by a rule in layer intercept
I0502 04:06:29.301617 18408 net.cpp:323] The NetState phase (0) differed from the phase (1) specified by a rule in layer loss
I0502 04:06:29.301714 18408 net.cpp:52] Initializing net from parameters: 
state {
  phase: TRAIN
}
layer {
  name: "parameters"
  type: "HDF5Data"
  top: "data"
  top: "label"
  include {
    phase: TRAIN
  }
  hdf5_data_param {
    source: "/home/purduethu/scratch/radon/d/deng106/CNNStatisticalModel/distributions/input/50_distributions_100_sample_size_train-parameters-path.txt"
    batch_size: 20
  }
}
layer {
  name: "conv1"
  type: "Convolution"
  bottom: "data"
  top: "conv1"
  param {
    lr_mult: 1
  }
  param {
    lr_mult: 2
  }
  convolution_param {
    num_output: 64
    pad: 2
    kernel_size: 5
    stride: 1
    weight_filler {
      type: "gaussian"
      std: 0.0001
    }
    bias_filler {
      type: "constant"
    }
  }
}
layer {
  name: "relu1"
  type: "ReLU"
  bottom: "conv1"
  top: "conv1"
}
layer {
  name: "conv2"
  type: "Convolution"
  bottom: "conv1"
  top: "conv2"
  param {
    lr_mult: 1
  }
  param {
    lr_mult: 2
  }
  convolution_param {
    num_output: 64
    pad: 2
    kernel_size: 5
    stride: 1
    weight_filler {
      type: "gaussian"
      std: 0.01
    }
    bias_filler {
      type: "constant"
    }
  }
}
layer {
  name: "relu2"
  type: "ReLU"
  bottom: "conv2"
  top: "conv2"
}
layer {
  name: "pool2"
  type: "Pooling"
  bottom: "conv2"
  top: "pool2"
  pooling_param {
    pool: MAX
    kernel_size: 3
    stride: 2
  }
}
layer {
  name: "conv3"
  type: "Convolution"
  bottom: "pool2"
  top: "conv3"
  param {
    lr_mult: 1
  }
  param {
    lr_mult: 2
  }
  convolution_param {
    num_output: 64
    pad: 2
    kernel_size: 5
    stride: 1
    weight_filler {
      type: "gaussian"
      std: 0.01
    }
    bias_filler {
      type: "constant"
    }
  }
}
layer {
  name: "relu3"
  type: "ReLU"
  bottom: "conv3"
  top: "conv3"
}
layer {
  name: "conv4"
  type: "Convolution"
  bottom: "conv3"
  top: "conv4"
  param {
    lr_mult: 1
  }
  param {
    lr_mult: 2
  }
  convolution_param {
    num_output: 64
    pad: 2
    kernel_size: 5
    stride: 1
    weight_filler {
      type: "gaussian"
      std: 0.01
    }
    bias_filler {
      type: "constant"
    }
  }
}
layer {
  name: "relu4"
  type: "ReLU"
  bottom: "conv4"
  top: "conv4"
}
layer {
  name: "conv5"
  type: "Convolution"
  bottom: "conv4"
  top: "conv5"
  param {
    lr_mult: 1
  }
  param {
    lr_mult: 2
  }
  convolution_param {
    num_output: 64
    pad: 2
    kernel_size: 5
    stride: 1
    weight_filler {
      type: "gaussian"
      std: 0.01
    }
    bias_filler {
      type: "constant"
    }
  }
}
layer {
  name: "relu5"
  type: "ReLU"
  bottom: "conv5"
  top: "conv5"
}
layer {
  name: "pool5"
  type: "Pooling"
  bottom: "conv5"
  top: "pool5"
  pooling_param {
    pool: AVE
    kernel_size: 3
    stride: 2
  }
}
layer {
  name: "ip1"
  type: "InnerProduct"
  bottom: "pool5"
  top: "ip1"
  param {
    lr_mult: 1
  }
  param {
    lr_mult: 2
  }
  inner_product_param {
    num_output: 64
    weight_filler {
      type: "gaussian"
      std: 0.1
    }
    bias_filler {
      type: "constant"
    }
  }
}
layer {
  name: "ip2"
  type: "InnerProduct"
  bottom: "ip1"
  top: "ip2"
  param {
    lr_mult: 1
  }
  param {
    lr_mult: 2
  }
  inner_product_param {
    num_output: 64
    weight_filler {
      type: "gaussian"
      std: 0.1
    }
    bias_filler {
      type: "constant"
    }
  }
}
layer {
  name: "ip3"
  type: "InnerProduct"
  bottom: "ip2"
  top: "ip3"
  param {
    lr_mult: 1
  }
  param {
    lr_mult: 2
  }
  inner_product_param {
    num_output: 1
    weight_filler {
      type: "gaussian"
      std: 0.1
    }
    bias_filler {
      type: "constant"
    }
  }
}
layer {
  name: "loss"
  type: "HuberLoss"
  bottom: "ip3"
  bottom: "label"
  top: "loss"
  include {
    phase: TRAIN
  }
}
I0502 04:06:29.301795 18408 layer_factory.hpp:77] Creating layer parameters
I0502 04:06:29.301810 18408 net.cpp:94] Creating Layer parameters
I0502 04:06:29.301815 18408 net.cpp:409] parameters -> data
I0502 04:06:29.301834 18408 net.cpp:409] parameters -> label
I0502 04:06:29.301846 18408 hdf5_data_layer.cpp:79] Loading list of HDF5 filenames from: /home/purduethu/scratch/radon/d/deng106/CNNStatisticalModel/distributions/input/50_distributions_100_sample_size_train-parameters-path.txt
I0502 04:06:29.301869 18408 hdf5_data_layer.cpp:93] Number of HDF5 files: 1
I0502 04:06:29.302350 18408 hdf5.cpp:32] Datatype class: H5T_FLOAT
I0502 04:06:29.465854 18408 net.cpp:144] Setting up parameters
I0502 04:06:29.465888 18408 net.cpp:151] Top shape: 20 1 10 10 (2000)
I0502 04:06:29.465893 18408 net.cpp:151] Top shape: 20 (20)
I0502 04:06:29.465896 18408 net.cpp:159] Memory required for data: 8080
I0502 04:06:29.465903 18408 layer_factory.hpp:77] Creating layer conv1
I0502 04:06:29.465922 18408 net.cpp:94] Creating Layer conv1
I0502 04:06:29.465929 18408 net.cpp:435] conv1 <- data
I0502 04:06:29.465939 18408 net.cpp:409] conv1 -> conv1
I0502 04:06:29.469785 18408 net.cpp:144] Setting up conv1
I0502 04:06:29.469801 18408 net.cpp:151] Top shape: 20 64 10 10 (128000)
I0502 04:06:29.469805 18408 net.cpp:159] Memory required for data: 520080
I0502 04:06:29.469817 18408 layer_factory.hpp:77] Creating layer relu1
I0502 04:06:29.469825 18408 net.cpp:94] Creating Layer relu1
I0502 04:06:29.469830 18408 net.cpp:435] relu1 <- conv1
I0502 04:06:29.469835 18408 net.cpp:396] relu1 -> conv1 (in-place)
I0502 04:06:29.469851 18408 net.cpp:144] Setting up relu1
I0502 04:06:29.469857 18408 net.cpp:151] Top shape: 20 64 10 10 (128000)
I0502 04:06:29.469861 18408 net.cpp:159] Memory required for data: 1032080
I0502 04:06:29.469863 18408 layer_factory.hpp:77] Creating layer conv2
I0502 04:06:29.469871 18408 net.cpp:94] Creating Layer conv2
I0502 04:06:29.469876 18408 net.cpp:435] conv2 <- conv1
I0502 04:06:29.469880 18408 net.cpp:409] conv2 -> conv2
I0502 04:06:29.475687 18408 net.cpp:144] Setting up conv2
I0502 04:06:29.475700 18408 net.cpp:151] Top shape: 20 64 10 10 (128000)
I0502 04:06:29.475705 18408 net.cpp:159] Memory required for data: 1544080
I0502 04:06:29.475713 18408 layer_factory.hpp:77] Creating layer relu2
I0502 04:06:29.475720 18408 net.cpp:94] Creating Layer relu2
I0502 04:06:29.475724 18408 net.cpp:435] relu2 <- conv2
I0502 04:06:29.475729 18408 net.cpp:396] relu2 -> conv2 (in-place)
I0502 04:06:29.475736 18408 net.cpp:144] Setting up relu2
I0502 04:06:29.475741 18408 net.cpp:151] Top shape: 20 64 10 10 (128000)
I0502 04:06:29.475744 18408 net.cpp:159] Memory required for data: 2056080
I0502 04:06:29.475747 18408 layer_factory.hpp:77] Creating layer pool2
I0502 04:06:29.475755 18408 net.cpp:94] Creating Layer pool2
I0502 04:06:29.475765 18408 net.cpp:435] pool2 <- conv2
I0502 04:06:29.475770 18408 net.cpp:409] pool2 -> pool2
I0502 04:06:29.475816 18408 net.cpp:144] Setting up pool2
I0502 04:06:29.475823 18408 net.cpp:151] Top shape: 20 64 5 5 (32000)
I0502 04:06:29.475826 18408 net.cpp:159] Memory required for data: 2184080
I0502 04:06:29.475831 18408 layer_factory.hpp:77] Creating layer conv3
I0502 04:06:29.475838 18408 net.cpp:94] Creating Layer conv3
I0502 04:06:29.475841 18408 net.cpp:435] conv3 <- pool2
I0502 04:06:29.475847 18408 net.cpp:409] conv3 -> conv3
I0502 04:06:29.480643 18408 net.cpp:144] Setting up conv3
I0502 04:06:29.480657 18408 net.cpp:151] Top shape: 20 64 5 5 (32000)
I0502 04:06:29.480661 18408 net.cpp:159] Memory required for data: 2312080
I0502 04:06:29.480670 18408 layer_factory.hpp:77] Creating layer relu3
I0502 04:06:29.480676 18408 net.cpp:94] Creating Layer relu3
I0502 04:06:29.480680 18408 net.cpp:435] relu3 <- conv3
I0502 04:06:29.480684 18408 net.cpp:396] relu3 -> conv3 (in-place)
I0502 04:06:29.480691 18408 net.cpp:144] Setting up relu3
I0502 04:06:29.480696 18408 net.cpp:151] Top shape: 20 64 5 5 (32000)
I0502 04:06:29.480700 18408 net.cpp:159] Memory required for data: 2440080
I0502 04:06:29.480703 18408 layer_factory.hpp:77] Creating layer conv4
I0502 04:06:29.480712 18408 net.cpp:94] Creating Layer conv4
I0502 04:06:29.480715 18408 net.cpp:435] conv4 <- conv3
I0502 04:06:29.480720 18408 net.cpp:409] conv4 -> conv4
I0502 04:06:29.485062 18408 net.cpp:144] Setting up conv4
I0502 04:06:29.485075 18408 net.cpp:151] Top shape: 20 64 5 5 (32000)
I0502 04:06:29.485080 18408 net.cpp:159] Memory required for data: 2568080
I0502 04:06:29.485085 18408 layer_factory.hpp:77] Creating layer relu4
I0502 04:06:29.485092 18408 net.cpp:94] Creating Layer relu4
I0502 04:06:29.485095 18408 net.cpp:435] relu4 <- conv4
I0502 04:06:29.485100 18408 net.cpp:396] relu4 -> conv4 (in-place)
I0502 04:06:29.485107 18408 net.cpp:144] Setting up relu4
I0502 04:06:29.485112 18408 net.cpp:151] Top shape: 20 64 5 5 (32000)
I0502 04:06:29.485116 18408 net.cpp:159] Memory required for data: 2696080
I0502 04:06:29.485118 18408 layer_factory.hpp:77] Creating layer conv5
I0502 04:06:29.485126 18408 net.cpp:94] Creating Layer conv5
I0502 04:06:29.485131 18408 net.cpp:435] conv5 <- conv4
I0502 04:06:29.485136 18408 net.cpp:409] conv5 -> conv5
I0502 04:06:29.489902 18408 net.cpp:144] Setting up conv5
I0502 04:06:29.489917 18408 net.cpp:151] Top shape: 20 64 5 5 (32000)
I0502 04:06:29.489920 18408 net.cpp:159] Memory required for data: 2824080
I0502 04:06:29.489928 18408 layer_factory.hpp:77] Creating layer relu5
I0502 04:06:29.489934 18408 net.cpp:94] Creating Layer relu5
I0502 04:06:29.489938 18408 net.cpp:435] relu5 <- conv5
I0502 04:06:29.489943 18408 net.cpp:396] relu5 -> conv5 (in-place)
I0502 04:06:29.489950 18408 net.cpp:144] Setting up relu5
I0502 04:06:29.489954 18408 net.cpp:151] Top shape: 20 64 5 5 (32000)
I0502 04:06:29.489958 18408 net.cpp:159] Memory required for data: 2952080
I0502 04:06:29.489961 18408 layer_factory.hpp:77] Creating layer pool5
I0502 04:06:29.489966 18408 net.cpp:94] Creating Layer pool5
I0502 04:06:29.489969 18408 net.cpp:435] pool5 <- conv5
I0502 04:06:29.489974 18408 net.cpp:409] pool5 -> pool5
I0502 04:06:29.490006 18408 net.cpp:144] Setting up pool5
I0502 04:06:29.490013 18408 net.cpp:151] Top shape: 20 64 2 2 (5120)
I0502 04:06:29.490017 18408 net.cpp:159] Memory required for data: 2972560
I0502 04:06:29.490020 18408 layer_factory.hpp:77] Creating layer ip1
I0502 04:06:29.490027 18408 net.cpp:94] Creating Layer ip1
I0502 04:06:29.490031 18408 net.cpp:435] ip1 <- pool5
I0502 04:06:29.490036 18408 net.cpp:409] ip1 -> ip1
I0502 04:06:29.491160 18408 net.cpp:144] Setting up ip1
I0502 04:06:29.491173 18408 net.cpp:151] Top shape: 20 64 (1280)
I0502 04:06:29.491178 18408 net.cpp:159] Memory required for data: 2977680
I0502 04:06:29.491183 18408 layer_factory.hpp:77] Creating layer ip2
I0502 04:06:29.491190 18408 net.cpp:94] Creating Layer ip2
I0502 04:06:29.491194 18408 net.cpp:435] ip2 <- ip1
I0502 04:06:29.491204 18408 net.cpp:409] ip2 -> ip2
I0502 04:06:29.491374 18408 net.cpp:144] Setting up ip2
I0502 04:06:29.491380 18408 net.cpp:151] Top shape: 20 64 (1280)
I0502 04:06:29.491384 18408 net.cpp:159] Memory required for data: 2982800
I0502 04:06:29.491389 18408 layer_factory.hpp:77] Creating layer ip3
I0502 04:06:29.491395 18408 net.cpp:94] Creating Layer ip3
I0502 04:06:29.491400 18408 net.cpp:435] ip3 <- ip2
I0502 04:06:29.491405 18408 net.cpp:409] ip3 -> ip3
I0502 04:06:29.491466 18408 net.cpp:144] Setting up ip3
I0502 04:06:29.491472 18408 net.cpp:151] Top shape: 20 1 (20)
I0502 04:06:29.491482 18408 net.cpp:159] Memory required for data: 2982880
I0502 04:06:29.491487 18408 layer_factory.hpp:77] Creating layer loss
I0502 04:06:29.491497 18408 net.cpp:94] Creating Layer loss
I0502 04:06:29.491502 18408 net.cpp:435] loss <- ip3
I0502 04:06:29.491505 18408 net.cpp:435] loss <- label
I0502 04:06:29.491510 18408 net.cpp:409] loss -> loss
I0502 04:06:29.491546 18408 net.cpp:144] Setting up loss
…
