…
I0503 14:00:11.012110 20878 net.cpp:323] The NetState phase (0) differed from the phase (1) specified by a rule in layer intercept
I0503 14:00:11.012127 20878 net.cpp:323] The NetState phase (0) differed from the phase (1) specified by a rule in layer accuracy
I0503 14:00:11.012221 20878 net.cpp:52] Initializing net from parameters: 
state {
  phase: TRAIN
}
layer {
  name: "parameters"
  type: "HDF5Data"
  top: "data"
  top: "label"
  include {
    phase: TRAIN
  }
  hdf5_data_param {
    source: "/home/purduethu/scratch/radon/d/deng106/CNNStatisticalModel/distributions/input/50_distributions_900_sample_size_train-distributions-path.txt"
    batch_size: 20
  }
}
layer {
  name: "conv1"
  type: "Convolution"
  bottom: "data"
  top: "conv1"
  param {
    lr_mult: 1
  }
  param {
    lr_mult: 2
  }
  convolution_param {
    num_output: 64
    pad: 2
    kernel_size: 5
    stride: 1
    weight_filler {
      type: "gaussian"
      std: 0.0001
    }
    bias_filler {
      type: "constant"
    }
  }
}
layer {
  name: "relu1"
  type: "ReLU"
  bottom: "conv1"
  top: "conv1"
}
layer {
  name: "conv2"
  type: "Convolution"
  bottom: "conv1"
  top: "conv2"
  param {
    lr_mult: 1
  }
  param {
    lr_mult: 2
  }
  convolution_param {
    num_output: 64
    pad: 2
    kernel_size: 5
    stride: 1
    weight_filler {
      type: "gaussian"
      std: 0.01
    }
    bias_filler {
      type: "constant"
    }
  }
}
layer {
  name: "relu2"
  type: "ReLU"
  bottom: "conv2"
  top: "conv2"
}
layer {
  name: "pool2"
  type: "Pooling"
  bottom: "conv2"
  top: "pool2"
  pooling_param {
    pool: MAX
    kernel_size: 3
    stride: 2
  }
}
layer {
  name: "conv3"
  type: "Convolution"
  bottom: "pool2"
  top: "conv3"
  param {
    lr_mult: 1
  }
  param {
    lr_mult: 2
  }
  convolution_param {
    num_output: 128
    pad: 2
    kernel_size: 5
    stride: 1
    weight_filler {
      type: "gaussian"
      std: 0.01
    }
    bias_filler {
      type: "constant"
    }
  }
}
layer {
  name: "relu3"
  type: "ReLU"
  bottom: "conv3"
  top: "conv3"
}
layer {
  name: "conv4"
  type: "Convolution"
  bottom: "conv3"
  top: "conv4"
  param {
    lr_mult: 1
  }
  param {
    lr_mult: 2
  }
  convolution_param {
    num_output: 128
    pad: 2
    kernel_size: 5
    stride: 1
    weight_filler {
      type: "gaussian"
      std: 0.01
    }
    bias_filler {
      type: "constant"
    }
  }
}
layer {
  name: "relu4"
  type: "ReLU"
  bottom: "conv4"
  top: "conv4"
}
layer {
  name: "conv5"
  type: "Convolution"
  bottom: "conv4"
  top: "conv5"
  param {
    lr_mult: 1
  }
  param {
    lr_mult: 2
  }
  convolution_param {
    num_output: 128
    pad: 2
    kernel_size: 5
    stride: 1
    weight_filler {
      type: "gaussian"
      std: 0.01
    }
    bias_filler {
      type: "constant"
    }
  }
}
layer {
  name: "relu5"
  type: "ReLU"
  bottom: "conv5"
  top: "conv5"
}
layer {
  name: "pool5"
  type: "Pooling"
  bottom: "conv5"
  top: "pool5"
  pooling_param {
    pool: AVE
    kernel_size: 3
    stride: 2
  }
}
layer {
  name: "ip1"
  type: "InnerProduct"
  bottom: "pool5"
  top: "ip1"
  param {
    lr_mult: 1
  }
  param {
    lr_mult: 2
  }
  inner_product_param {
    num_output: 1024
    weight_filler {
      type: "gaussian"
      std: 0.1
    }
    bias_filler {
      type: "constant"
    }
  }
}
layer {
  name: "ip2"
  type: "InnerProduct"
  bottom: "ip1"
  top: "ip2"
  param {
    lr_mult: 1
  }
  param {
    lr_mult: 2
  }
  inner_product_param {
    num_output: 512
    weight_filler {
      type: "gaussian"
      std: 0.1
    }
    bias_filler {
      type: "constant"
    }
  }
}
layer {
  name: "ip3"
  type: "InnerProduct"
  bottom: "ip2"
  top: "ip3"
  param {
    lr_mult: 1
  }
  param {
    lr_mult: 2
  }
  inner_product_param {
    num_output: 50
    weight_filler {
      type: "gaussian"
      std: 0.1
    }
    bias_filler {
      type: "constant"
    }
  }
}
layer {
  name: "loss"
  type: "SoftmaxWithLoss"
  bottom: "ip3"
  bottom: "label"
  top: "loss"
}
I0503 14:00:11.012302 20878 layer_factory.hpp:77] Creating layer parameters
I0503 14:00:11.012318 20878 net.cpp:94] Creating Layer parameters
I0503 14:00:11.012326 20878 net.cpp:409] parameters -> data
I0503 14:00:11.012346 20878 net.cpp:409] parameters -> label
I0503 14:00:11.012357 20878 hdf5_data_layer.cpp:79] Loading list of HDF5 filenames from: /home/purduethu/scratch/radon/d/deng106/CNNStatisticalModel/distributions/input/50_distributions_900_sample_size_train-distributions-path.txt
I0503 14:00:11.012383 20878 hdf5_data_layer.cpp:93] Number of HDF5 files: 1
I0503 14:00:11.012894 20878 hdf5.cpp:32] Datatype class: H5T_FLOAT
I0503 14:00:12.489433 20878 hdf5.cpp:35] Datatype class: H5T_INTEGER
I0503 14:00:12.492184 20878 net.cpp:144] Setting up parameters
I0503 14:00:12.492208 20878 net.cpp:151] Top shape: 20 1 30 30 (18000)
I0503 14:00:12.492213 20878 net.cpp:151] Top shape: 20 (20)
I0503 14:00:12.492216 20878 net.cpp:159] Memory required for data: 72080
I0503 14:00:12.492224 20878 layer_factory.hpp:77] Creating layer conv1
I0503 14:00:12.492244 20878 net.cpp:94] Creating Layer conv1
I0503 14:00:12.492249 20878 net.cpp:435] conv1 <- data
I0503 14:00:12.492260 20878 net.cpp:409] conv1 -> conv1
I0503 14:00:12.498510 20878 net.cpp:144] Setting up conv1
I0503 14:00:12.498553 20878 net.cpp:151] Top shape: 20 64 30 30 (1152000)
I0503 14:00:12.498564 20878 net.cpp:159] Memory required for data: 4680080
I0503 14:00:12.498594 20878 layer_factory.hpp:77] Creating layer relu1
I0503 14:00:12.498613 20878 net.cpp:94] Creating Layer relu1
I0503 14:00:12.498625 20878 net.cpp:435] relu1 <- conv1
I0503 14:00:12.498639 20878 net.cpp:396] relu1 -> conv1 (in-place)
I0503 14:00:12.498667 20878 net.cpp:144] Setting up relu1
I0503 14:00:12.498682 20878 net.cpp:151] Top shape: 20 64 30 30 (1152000)
I0503 14:00:12.498690 20878 net.cpp:159] Memory required for data: 9288080
I0503 14:00:12.498699 20878 layer_factory.hpp:77] Creating layer conv2
I0503 14:00:12.498721 20878 net.cpp:94] Creating Layer conv2
I0503 14:00:12.498731 20878 net.cpp:435] conv2 <- conv1
I0503 14:00:12.498745 20878 net.cpp:409] conv2 -> conv2
I0503 14:00:12.516006 20878 net.cpp:144] Setting up conv2
I0503 14:00:12.516047 20878 net.cpp:151] Top shape: 20 64 30 30 (1152000)
I0503 14:00:12.516057 20878 net.cpp:159] Memory required for data: 13896080
I0503 14:00:12.516082 20878 layer_factory.hpp:77] Creating layer relu2
I0503 14:00:12.516099 20878 net.cpp:94] Creating Layer relu2
I0503 14:00:12.516110 20878 net.cpp:435] relu2 <- conv2
I0503 14:00:12.516124 20878 net.cpp:396] relu2 -> conv2 (in-place)
I0503 14:00:12.516144 20878 net.cpp:144] Setting up relu2
I0503 14:00:12.516158 20878 net.cpp:151] Top shape: 20 64 30 30 (1152000)
I0503 14:00:12.516167 20878 net.cpp:159] Memory required for data: 18504080
I0503 14:00:12.516176 20878 layer_factory.hpp:77] Creating layer pool2
I0503 14:00:12.516207 20878 net.cpp:94] Creating Layer pool2
I0503 14:00:12.516218 20878 net.cpp:435] pool2 <- conv2
I0503 14:00:12.516232 20878 net.cpp:409] pool2 -> pool2
I0503 14:00:12.516307 20878 net.cpp:144] Setting up pool2
I0503 14:00:12.516315 20878 net.cpp:151] Top shape: 20 64 15 15 (288000)
I0503 14:00:12.516319 20878 net.cpp:159] Memory required for data: 19656080
I0503 14:00:12.516321 20878 layer_factory.hpp:77] Creating layer conv3
I0503 14:00:12.516330 20878 net.cpp:94] Creating Layer conv3
I0503 14:00:12.516333 20878 net.cpp:435] conv3 <- pool2
I0503 14:00:12.516346 20878 net.cpp:409] conv3 -> conv3
I0503 14:00:12.531466 20878 net.cpp:144] Setting up conv3
I0503 14:00:12.531507 20878 net.cpp:151] Top shape: 20 128 15 15 (576000)
I0503 14:00:12.531527 20878 net.cpp:159] Memory required for data: 21960080
I0503 14:00:12.531540 20878 layer_factory.hpp:77] Creating layer relu3
I0503 14:00:12.531550 20878 net.cpp:94] Creating Layer relu3
I0503 14:00:12.531555 20878 net.cpp:435] relu3 <- conv3
I0503 14:00:12.531560 20878 net.cpp:396] relu3 -> conv3 (in-place)
I0503 14:00:12.531569 20878 net.cpp:144] Setting up relu3
I0503 14:00:12.531575 20878 net.cpp:151] Top shape: 20 128 15 15 (576000)
I0503 14:00:12.531579 20878 net.cpp:159] Memory required for data: 24264080
I0503 14:00:12.531584 20878 layer_factory.hpp:77] Creating layer conv4
I0503 14:00:12.531594 20878 net.cpp:94] Creating Layer conv4
I0503 14:00:12.531599 20878 net.cpp:435] conv4 <- conv3
I0503 14:00:12.531605 20878 net.cpp:409] conv4 -> conv4
I0503 14:00:12.557806 20878 net.cpp:144] Setting up conv4
I0503 14:00:12.557845 20878 net.cpp:151] Top shape: 20 128 15 15 (576000)
I0503 14:00:12.557857 20878 net.cpp:159] Memory required for data: 26568080
I0503 14:00:12.557880 20878 layer_factory.hpp:77] Creating layer relu4
I0503 14:00:12.557896 20878 net.cpp:94] Creating Layer relu4
I0503 14:00:12.557907 20878 net.cpp:435] relu4 <- conv4
I0503 14:00:12.557921 20878 net.cpp:396] relu4 -> conv4 (in-place)
I0503 14:00:12.557942 20878 net.cpp:144] Setting up relu4
I0503 14:00:12.557955 20878 net.cpp:151] Top shape: 20 128 15 15 (576000)
I0503 14:00:12.557965 20878 net.cpp:159] Memory required for data: 28872080
I0503 14:00:12.557976 20878 layer_factory.hpp:77] Creating layer conv5
I0503 14:00:12.557996 20878 net.cpp:94] Creating Layer conv5
I0503 14:00:12.558007 20878 net.cpp:435] conv5 <- conv4
I0503 14:00:12.558022 20878 net.cpp:409] conv5 -> conv5
I0503 14:00:12.584070 20878 net.cpp:144] Setting up conv5
I0503 14:00:12.584111 20878 net.cpp:151] Top shape: 20 128 15 15 (576000)
I0503 14:00:12.584123 20878 net.cpp:159] Memory required for data: 31176080
I0503 14:00:12.584152 20878 layer_factory.hpp:77] Creating layer relu5
I0503 14:00:12.584177 20878 net.cpp:94] Creating Layer relu5
I0503 14:00:12.584182 20878 net.cpp:435] relu5 <- conv5
I0503 14:00:12.584187 20878 net.cpp:396] relu5 -> conv5 (in-place)
I0503 14:00:12.584197 20878 net.cpp:144] Setting up relu5
I0503 14:00:12.584203 20878 net.cpp:151] Top shape: 20 128 15 15 (576000)
I0503 14:00:12.584208 20878 net.cpp:159] Memory required for data: 33480080
I0503 14:00:12.584211 20878 layer_factory.hpp:77] Creating layer pool5
I0503 14:00:12.584218 20878 net.cpp:94] Creating Layer pool5
I0503 14:00:12.584223 20878 net.cpp:435] pool5 <- conv5
I0503 14:00:12.584228 20878 net.cpp:409] pool5 -> pool5
I0503 14:00:12.584273 20878 net.cpp:144] Setting up pool5
I0503 14:00:12.584283 20878 net.cpp:151] Top shape: 20 128 7 7 (125440)
I0503 14:00:12.584287 20878 net.cpp:159] Memory required for data: 33981840
I0503 14:00:12.584291 20878 layer_factory.hpp:77] Creating layer ip1
I0503 14:00:12.584305 20878 net.cpp:94] Creating Layer ip1
I0503 14:00:12.584309 20878 net.cpp:435] ip1 <- pool5
I0503 14:00:12.584316 20878 net.cpp:409] ip1 -> ip1
I0503 14:00:12.757902 20878 net.cpp:144] Setting up ip1
I0503 14:00:12.757930 20878 net.cpp:151] Top shape: 20 1024 (20480)
I0503 14:00:12.757935 20878 net.cpp:159] Memory required for data: 34063760
I0503 14:00:12.757943 20878 layer_factory.hpp:77] Creating layer ip2
I0503 14:00:12.757959 20878 net.cpp:94] Creating Layer ip2
I0503 14:00:12.757966 20878 net.cpp:435] ip2 <- ip1
I0503 14:00:12.757972 20878 net.cpp:409] ip2 -> ip2
I0503 14:00:12.770902 20878 net.cpp:144] Setting up ip2
I0503 14:00:12.770920 20878 net.cpp:151] Top shape: 20 512 (10240)
I0503 14:00:12.770923 20878 net.cpp:159] Memory required for data: 34104720
I0503 14:00:12.770931 20878 layer_factory.hpp:77] Creating layer ip3
I0503 14:00:12.770938 20878 net.cpp:94] Creating Layer ip3
I0503 14:00:12.770943 20878 net.cpp:435] ip3 <- ip2
I0503 14:00:12.770948 20878 net.cpp:409] ip3 -> ip3
I0503 14:00:12.772325 20878 net.cpp:144] Setting up ip3
I0503 14:00:12.772337 20878 net.cpp:151] Top shape: 20 50 (1000)
I0503 14:00:12.772341 20878 net.cpp:159] Memory required for data: 34108720
I0503 14:00:12.772347 20878 layer_factory.hpp:77] Creating layer loss
I0503 14:00:12.772356 20878 net.cpp:94] Creating Layer loss
I0503 14:00:12.772359 20878 net.cpp:435] loss <- ip3
I0503 14:00:12.772364 20878 net.cpp:435] loss <- label
I0503 14:00:12.772370 20878 net.cpp:409] loss -> loss
I0503 14:00:12.772382 20878 layer_factory.hpp:77] Creating layer loss
…
I0503 14:00:12.772915 20878 solver.cpp:181] Creating test net (#0) specified by net file: ./protocol/dis_50_900_dimension.protocol_distribution
I0503 14:00:12.772944 20878 net.cpp:323] The NetState phase (1) differed from the phase (0) specified by a rule in layer parameters
I0503 14:00:12.773041 20878 net.cpp:52] Initializing net from parameters: 
state {
  phase: TEST
}
layer {
  name: "intercept"
  type: "HDF5Data"
  top: "data"
  top: "label"
  include {
    phase: TEST
  }
  hdf5_data_param {
    source: "/home/purduethu/scratch/radon/d/deng106/CNNStatisticalModel/distributions/input/50_distributions_900_sample_size_test-distributions-path.txt"
    batch_size: 20
  }
}
layer {
  name: "conv1"
  type: "Convolution"
  bottom: "data"
  top: "conv1"
  param {
    lr_mult: 1
  }
  param {
    lr_mult: 2
  }
  convolution_param {
    num_output: 64
    pad: 2
    kernel_size: 5
    stride: 1
    weight_filler {
      type: "gaussian"
      std: 0.0001
    }
    bias_filler {
      type: "constant"
    }
  }
}
layer {
  name: "relu1"
  type: "ReLU"
  bottom: "conv1"
  top: "conv1"
}
layer {
  name: "conv2"
  type: "Convolution"
  bottom: "conv1"
  top: "conv2"
  param {
    lr_mult: 1
  }
  param {
    lr_mult: 2
  }
  convolution_param {
    num_output: 64
    pad: 2
    kernel_size: 5
    stride: 1
    weight_filler {
      type: "gaussian"
      std: 0.01
    }
    bias_filler {
      type: "constant"
    }
  }
}
layer {
  name: "relu2"
  type: "ReLU"
  bottom: "conv2"
  top: "conv2"
}
layer {
  name: "pool2"
  type: "Pooling"
  bottom: "conv2"
  top: "pool2"
  pooling_param {
    pool: MAX
    kernel_size: 3
    stride: 2
  }
}
layer {
  name: "conv3"
  type: "Convolution"
  bottom: "pool2"
  top: "conv3"
  param {
    lr_mult: 1
  }
  param {
    lr_mult: 2
  }
  convolution_param {
    num_output: 128
    pad: 2
    kernel_size: 5
    stride: 1
    weight_filler {
      type: "gaussian"
      std: 0.01
    }
    bias_filler {
      type: "constant"
    }
  }
}
layer {
  name: "relu3"
  type: "ReLU"
  bottom: "conv3"
  top: "conv3"
}
layer {
  name: "conv4"
  type: "Convolution"
  bottom: "conv3"
  top: "conv4"
  param {
    lr_mult: 1
  }
  param {
    lr_mult: 2
  }
  convolution_param {
    num_output: 128
    pad: 2
    kernel_size: 5
    stride: 1
    weight_filler {
      type: "gaussian"
      std: 0.01
    }
    bias_filler {
      type: "constant"
    }
  }
}
layer {
  name: "relu4"
  type: "ReLU"
  bottom: "conv4"
  top: "conv4"
}
layer {
  name: "conv5"
  type: "Convolution"
  bottom: "conv4"
  top: "conv5"
  param {
    lr_mult: 1
  }
  param {
    lr_mult: 2
  }
  convolution_param {
    num_output: 128
    pad: 2
    kernel_size: 5
    stride: 1
    weight_filler {
      type: "gaussian"
      std: 0.01
    }
    bias_filler {
      type: "constant"
    }
  }
}
layer {
  name: "relu5"
  type: "ReLU"
  bottom: "conv5"
  top: "conv5"
}
layer {
  name: "pool5"
  type: "Pooling"
  bottom: "conv5"
  top: "pool5"
  pooling_param {
    pool: AVE
    kernel_size: 3
    stride: 2
  }
}
layer {
  name: "ip1"
  type: "InnerProduct"
  bottom: "pool5"
  top: "ip1"
  param {
    lr_mult: 1
  }
  param {
    lr_mult: 2
  }
  inner_product_param {
    num_output: 1024
    weight_filler {
      type: "gaussian"
      std: 0.1
    }
    bias_filler {
      type: "constant"
    }
  }
}
layer {
  name: "ip2"
  type: "InnerProduct"
  bottom: "ip1"
  top: "ip2"
  param {
    lr_mult: 1
  }
  param {
    lr_mult: 2
  }
  inner_product_param {
    num_output: 512
    weight_filler {
      type: "gaussian"
      std: 0.1
    }
    bias_filler {
      type: "constant"
    }
  }
}
layer {
  name: "ip3"
  type: "InnerProduct"
  bottom: "ip2"
  top: "ip3"
  param {
    lr_mult: 1
  }
  param {
    lr_mult: 2
  }
  inner_product_param {
    num_output: 50
    weight_filler {
      type: "gaussian"
      std: 0.1
    }
    bias_filler {
      type: "constant"
    }
  }
}
layer {
  name: "accuracy"
  type: "Accuracy"
  bottom: "ip3"
  bottom: "label"
  top: "accuracy"
  include {
    phase: TEST
  }
}
layer {
  name: "loss"
  type: "SoftmaxWithLoss"
  bottom: "ip3"
  bottom: "label"
  top: "loss"
}
I0503 14:00:12.773114 20878 layer_factory.hpp:77] Creating layer intercept
I0503 14:00:12.773123 20878 net.cpp:94] Creating Layer intercept
I0503 14:00:12.773128 20878 net.cpp:409] intercept -> data
I0503 14:00:12.773134 20878 net.cpp:409] intercept -> label
I0503 14:00:12.773141 20878 hdf5_data_layer.cpp:79] Loading list of HDF5 filenames from: /home/purduethu/scratch/radon/d/deng106/CNNStatisticalModel/distributions/input/50_distributions_900_sample_size_test-distributions-path.txt
I0503 14:00:12.773159 20878 hdf5_data_layer.cpp:93] Number of HDF5 files: 1
I0503 14:00:13.180769 20878 net.cpp:144] Setting up intercept
I0503 14:00:13.180807 20878 net.cpp:151] Top shape: 20 1 30 30 (18000)
I0503 14:00:13.180812 20878 net.cpp:151] Top shape: 20 (20)
I0503 14:00:13.180816 20878 net.cpp:159] Memory required for data: 72080
I0503 14:00:13.180822 20878 layer_factory.hpp:77] Creating layer label_intercept_1_split
I0503 14:00:13.180841 20878 net.cpp:94] Creating Layer label_intercept_1_split
I0503 14:00:13.180846 20878 net.cpp:435] label_intercept_1_split <- label
I0503 14:00:13.180852 20878 net.cpp:409] label_intercept_1_split -> label_intercept_1_split_0
I0503 14:00:13.180869 20878 net.cpp:409] label_intercept_1_split -> label_intercept_1_split_1
I0503 14:00:13.180898 20878 net.cpp:144] Setting up label_intercept_1_split
I0503 14:00:13.180904 20878 net.cpp:151] Top shape: 20 (20)
I0503 14:00:13.180908 20878 net.cpp:151] Top shape: 20 (20)
I0503 14:00:13.180912 20878 net.cpp:159] Memory required for data: 72240
I0503 14:00:13.180914 20878 layer_factory.hpp:77] Creating layer conv1
I0503 14:00:13.180927 20878 net.cpp:94] Creating Layer conv1
I0503 14:00:13.180929 20878 net.cpp:435] conv1 <- data
I0503 14:00:13.180934 20878 net.cpp:409] conv1 -> conv1
I0503 14:00:13.182237 20878 net.cpp:144] Setting up conv1
I0503 14:00:13.182251 20878 net.cpp:151] Top shape: 20 64 30 30 (1152000)
I0503 14:00:13.182256 20878 net.cpp:159] Memory required for data: 4680240
I0503 14:00:13.182266 20878 layer_factory.hpp:77] Creating layer relu1
I0503 14:00:13.182273 20878 net.cpp:94] Creating Layer relu1
I0503 14:00:13.182277 20878 net.cpp:435] relu1 <- conv1
I0503 14:00:13.182281 20878 net.cpp:396] relu1 -> conv1 (in-place)
I0503 14:00:13.182289 20878 net.cpp:144] Setting up relu1
I0503 14:00:13.182294 20878 net.cpp:151] Top shape: 20 64 30 30 (1152000)
I0503 14:00:13.182297 20878 net.cpp:159] Memory required for data: 9288240
I0503 14:00:13.182301 20878 layer_factory.hpp:77] Creating layer conv2
I0503 14:00:13.182309 20878 net.cpp:94] Creating Layer conv2
I0503 14:00:13.182313 20878 net.cpp:435] conv2 <- conv1
I0503 14:00:13.182318 20878 net.cpp:409] conv2 -> conv2
I0503 14:00:13.188755 20878 net.cpp:144] Setting up conv2
I0503 14:00:13.188776 20878 net.cpp:151] Top shape: 20 64 30 30 (1152000)
I0503 14:00:13.188779 20878 net.cpp:159] Memory required for data: 13896240
I0503 14:00:13.188789 20878 layer_factory.hpp:77] Creating layer relu2
I0503 14:00:13.188797 20878 net.cpp:94] Creating Layer relu2
I0503 14:00:13.188802 20878 net.cpp:435] relu2 <- conv2
I0503 14:00:13.188807 20878 net.cpp:396] relu2 -> conv2 (in-place)
I0503 14:00:13.188815 20878 net.cpp:144] Setting up relu2
I0503 14:00:13.188819 20878 net.cpp:151] Top shape: 20 64 30 30 (1152000)
I0503 14:00:13.188823 20878 net.cpp:159] Memory required for data: 18504240
I0503 14:00:13.188827 20878 layer_factory.hpp:77] Creating layer pool2
I0503 14:00:13.188833 20878 net.cpp:94] Creating Layer pool2
I0503 14:00:13.188837 20878 net.cpp:435] pool2 <- conv2
I0503 14:00:13.188841 20878 net.cpp:409] pool2 -> pool2
I0503 14:00:13.188880 20878 net.cpp:144] Setting up pool2
I0503 14:00:13.188887 20878 net.cpp:151] Top shape: 20 64 15 15 (288000)
I0503 14:00:13.188890 20878 net.cpp:159] Memory required for data: 19656240
I0503 14:00:13.188894 20878 layer_factory.hpp:77] Creating layer conv3
I0503 14:00:13.188902 20878 net.cpp:94] Creating Layer conv3
I0503 14:00:13.188905 20878 net.cpp:435] conv3 <- pool2
I0503 14:00:13.188911 20878 net.cpp:409] conv3 -> conv3
I0503 14:00:13.196338 20878 net.cpp:144] Setting up conv3
I0503 14:00:13.196367 20878 net.cpp:151] Top shape: 20 128 15 15 (576000)
I0503 14:00:13.196372 20878 net.cpp:159] Memory required for data: 21960240
I0503 14:00:13.196382 20878 layer_factory.hpp:77] Creating layer relu3
I0503 14:00:13.196393 20878 net.cpp:94] Creating Layer relu3
I0503 14:00:13.196398 20878 net.cpp:435] relu3 <- conv3
I0503 14:00:13.196403 20878 net.cpp:396] relu3 -> conv3 (in-place)
I0503 14:00:13.196413 20878 net.cpp:144] Setting up relu3
I0503 14:00:13.196418 20878 net.cpp:151] Top shape: 20 128 15 15 (576000)
I0503 14:00:13.196420 20878 net.cpp:159] Memory required for data: 24264240
I0503 14:00:13.196424 20878 layer_factory.hpp:77] Creating layer conv4
I0503 14:00:13.196434 20878 net.cpp:94] Creating Layer conv4
I0503 14:00:13.196436 20878 net.cpp:435] conv4 <- conv3
I0503 14:00:13.196441 20878 net.cpp:409] conv4 -> conv4
I0503 14:00:13.211879 20878 net.cpp:144] Setting up conv4
I0503 14:00:13.211936 20878 net.cpp:151] Top shape: 20 128 15 15 (576000)
I0503 14:00:13.211951 20878 net.cpp:159] Memory required for data: 26568240
I0503 14:00:13.211971 20878 layer_factory.hpp:77] Creating layer relu4
I0503 14:00:13.211992 20878 net.cpp:94] Creating Layer relu4
I0503 14:00:13.212018 20878 net.cpp:435] relu4 <- conv4
I0503 14:00:13.212033 20878 net.cpp:396] relu4 -> conv4 (in-place)
I0503 14:00:13.212057 20878 net.cpp:144] Setting up relu4
I0503 14:00:13.212071 20878 net.cpp:151] Top shape: 20 128 15 15 (576000)
I0503 14:00:13.212080 20878 net.cpp:159] Memory required for data: 28872240
I0503 14:00:13.212090 20878 layer_factory.hpp:77] Creating layer conv5
I0503 14:00:13.212113 20878 net.cpp:94] Creating Layer conv5
I0503 14:00:13.212124 20878 net.cpp:435] conv5 <- conv4
I0503 14:00:13.212141 20878 net.cpp:409] conv5 -> conv5
I0503 14:00:13.227179 20878 net.cpp:144] Setting up conv5
I0503 14:00:13.227211 20878 net.cpp:151] Top shape: 20 128 15 15 (576000)
I0503 14:00:13.227216 20878 net.cpp:159] Memory required for data: 31176240
I0503 14:00:13.227228 20878 layer_factory.hpp:77] Creating layer relu5
I0503 14:00:13.227238 20878 net.cpp:94] Creating Layer relu5
I0503 14:00:13.227242 20878 net.cpp:435] relu5 <- conv5
I0503 14:00:13.227248 20878 net.cpp:396] relu5 -> conv5 (in-place)
I0503 14:00:13.227258 20878 net.cpp:144] Setting up relu5
I0503 14:00:13.227263 20878 net.cpp:151] Top shape: 20 128 15 15 (576000)
I0503 14:00:13.227267 20878 net.cpp:159] Memory required for data: 33480240
I0503 14:00:13.227269 20878 layer_factory.hpp:77] Creating layer pool5
I0503 14:00:13.227275 20878 net.cpp:94] Creating Layer pool5
I0503 14:00:13.227278 20878 net.cpp:435] pool5 <- conv5
I0503 14:00:13.227283 20878 net.cpp:409] pool5 -> pool5
I0503 14:00:13.227318 20878 net.cpp:144] Setting up pool5
I0503 14:00:13.227324 20878 net.cpp:151] Top shape: 20 128 7 7 (125440)
I0503 14:00:13.227327 20878 net.cpp:159] Memory required for data: 33982000
I0503 14:00:13.227330 20878 layer_factory.hpp:77] Creating layer ip1
I0503 14:00:13.227337 20878 net.cpp:94] Creating Layer ip1
I0503 14:00:13.227341 20878 net.cpp:435] ip1 <- pool5
I0503 14:00:13.227346 20878 net.cpp:409] ip1 -> ip1
I0503 14:00:13.383172 20878 net.cpp:144] Setting up ip1
I0503 14:00:13.383208 20878 net.cpp:151] Top shape: 20 1024 (20480)
I0503 14:00:13.383213 20878 net.cpp:159] Memory required for data: 34063920
I0503 14:00:13.383221 20878 layer_factory.hpp:77] Creating layer ip2
I0503 14:00:13.383232 20878 net.cpp:94] Creating Layer ip2
I0503 14:00:13.383239 20878 net.cpp:435] ip2 <- ip1
I0503 14:00:13.383244 20878 net.cpp:409] ip2 -> ip2
I0503 14:00:13.396374 20878 net.cpp:144] Setting up ip2
I0503 14:00:13.396414 20878 net.cpp:151] Top shape: 20 512 (10240)
I0503 14:00:13.396419 20878 net.cpp:159] Memory required for data: 34104880
I0503 14:00:13.396426 20878 layer_factory.hpp:77] Creating layer ip3
I0503 14:00:13.396440 20878 net.cpp:94] Creating Layer ip3
I0503 14:00:13.396445 20878 net.cpp:435] ip3 <- ip2
I0503 14:00:13.396451 20878 net.cpp:409] ip3 -> ip3
I0503 14:00:13.397172 20878 net.cpp:144] Setting up ip3
I0503 14:00:13.397183 20878 net.cpp:151] Top shape: 20 50 (1000)
I0503 14:00:13.397186 20878 net.cpp:159] Memory required for data: 34108880
I0503 14:00:13.397192 20878 layer_factory.hpp:77] Creating layer ip3_ip3_0_split
I0503 14:00:13.397198 20878 net.cpp:94] Creating Layer ip3_ip3_0_split
I0503 14:00:13.397202 20878 net.cpp:435] ip3_ip3_0_split <- ip3
I0503 14:00:13.397207 20878 net.cpp:409] ip3_ip3_0_split -> ip3_ip3_0_split_0
I0503 14:00:13.397212 20878 net.cpp:409] ip3_ip3_0_split -> ip3_ip3_0_split_1
I0503 14:00:13.397239 20878 net.cpp:144] Setting up ip3_ip3_0_split
I0503 14:00:13.397245 20878 net.cpp:151] Top shape: 20 50 (1000)
I0503 14:00:13.397249 20878 net.cpp:151] Top shape: 20 50 (1000)
I0503 14:00:13.397253 20878 net.cpp:159] Memory required for data: 34116880
I0503 14:00:13.397255 20878 layer_factory.hpp:77] Creating layer accuracy
I0503 14:00:13.397261 20878 net.cpp:94] Creating Layer accuracy
I0503 14:00:13.397264 20878 net.cpp:435] accuracy <- ip3_ip3_0_split_0
I0503 14:00:13.397269 20878 net.cpp:435] accuracy <- label_intercept_1_split_0
I0503 14:00:13.397274 20878 net.cpp:409] accuracy -> accuracy
…
