…
I0505 01:31:10.826671  1767 net.cpp:323] The NetState phase (0) differed from the phase (1) specified by a rule in layer intercept
I0505 01:31:10.826686  1767 net.cpp:323] The NetState phase (0) differed from the phase (1) specified by a rule in layer accuracy
I0505 01:31:10.826767  1767 net.cpp:52] Initializing net from parameters: 
state {
  phase: TRAIN
}
layer {
  name: "parameters"
  type: "HDF5Data"
  top: "data"
  top: "label"
  include {
    phase: TRAIN
  }
  hdf5_data_param {
    source: "/home/purduethu/scratch/radon/d/deng106/CNNStatisticalModel/distributions/input/20_distributions_900_sample_size_train-distributions-path.txt"
    batch_size: 20
  }
}
layer {
  name: "conv1"
  type: "Convolution"
  bottom: "data"
  top: "conv1"
  param {
    lr_mult: 1
  }
  param {
    lr_mult: 2
  }
  convolution_param {
    num_output: 64
    pad: 2
    kernel_size: 5
    stride: 1
    weight_filler {
      type: "gaussian"
      std: 0.0001
    }
    bias_filler {
      type: "constant"
    }
  }
}
layer {
  name: "relu1"
  type: "ReLU"
  bottom: "conv1"
  top: "conv1"
}
layer {
  name: "pool1"
  type: "Pooling"
  bottom: "conv1"
  top: "pool1"
  pooling_param {
    pool: MAX
    kernel_size: 3
    stride: 2
  }
}
layer {
  name: "conv2"
  type: "Convolution"
  bottom: "pool1"
  top: "conv2"
  param {
    lr_mult: 1
  }
  param {
    lr_mult: 2
  }
  convolution_param {
    num_output: 128
    pad: 2
    kernel_size: 5
    stride: 1
    weight_filler {
      type: "gaussian"
      std: 0.01
    }
    bias_filler {
      type: "constant"
    }
  }
}
layer {
  name: "relu2"
  type: "ReLU"
  bottom: "conv2"
  top: "conv2"
}
layer {
  name: "conv3"
  type: "Convolution"
  bottom: "conv2"
  top: "conv3"
  param {
    lr_mult: 1
  }
  param {
    lr_mult: 2
  }
  convolution_param {
    num_output: 128
    pad: 2
    kernel_size: 5
    stride: 1
    weight_filler {
      type: "gaussian"
      std: 0.01
    }
    bias_filler {
      type: "constant"
    }
  }
}
layer {
  name: "relu3"
  type: "ReLU"
  bottom: "conv3"
  top: "conv3"
}
layer {
  name: "pool3"
  type: "Pooling"
  bottom: "conv3"
  top: "pool3"
  pooling_param {
    pool: AVE
    kernel_size: 3
    stride: 2
  }
}
layer {
  name: "ip1"
  type: "InnerProduct"
  bottom: "pool3"
  top: "ip1"
  param {
    lr_mult: 1
  }
  param {
    lr_mult: 2
  }
  inner_product_param {
    num_output: 512
    weight_filler {
      type: "gaussian"
      std: 0.1
    }
    bias_filler {
      type: "constant"
    }
  }
}
layer {
  name: "ip2"
  type: "InnerProduct"
  bottom: "ip1"
  top: "ip2"
  param {
    lr_mult: 1
  }
  param {
    lr_mult: 2
  }
  inner_product_param {
    num_output: 256
    weight_filler {
      type: "gaussian"
      std: 0.1
    }
    bias_filler {
      type: "constant"
    }
  }
}
layer {
  name: "ip3"
  type: "InnerProduct"
  bottom: "ip2"
  top: "ip3"
  param {
    lr_mult: 1
  }
  param {
    lr_mult: 2
  }
  inner_product_param {
    num_output: 50
    weight_filler {
      type: "gaussian"
      std: 0.1
    }
    bias_filler {
      type: "constant"
    }
  }
}
layer {
  name: "loss"
  type: "SoftmaxWithLoss"
  bottom: "ip3"
  bottom: "label"
  top: "loss"
}
I0505 01:31:10.826831  1767 layer_factory.hpp:77] Creating layer parameters
I0505 01:31:10.826848  1767 net.cpp:94] Creating Layer parameters
I0505 01:31:10.826859  1767 net.cpp:409] parameters -> data
I0505 01:31:10.826880  1767 net.cpp:409] parameters -> label
I0505 01:31:10.826891  1767 hdf5_data_layer.cpp:79] Loading list of HDF5 filenames from: /home/purduethu/scratch/radon/d/deng106/CNNStatisticalModel/distributions/input/20_distributions_900_sample_size_train-distributions-path.txt
I0505 01:31:10.826913  1767 hdf5_data_layer.cpp:93] Number of HDF5 files: 1
I0505 01:31:10.827391  1767 hdf5.cpp:32] Datatype class: H5T_FLOAT
I0505 01:31:11.402706  1767 hdf5.cpp:35] Datatype class: H5T_INTEGER
I0505 01:31:11.404419  1767 net.cpp:144] Setting up parameters
I0505 01:31:11.404445  1767 net.cpp:151] Top shape: 20 1 30 30 (18000)
I0505 01:31:11.404451  1767 net.cpp:151] Top shape: 20 (20)
I0505 01:31:11.404455  1767 net.cpp:159] Memory required for data: 72080
I0505 01:31:11.404462  1767 layer_factory.hpp:77] Creating layer conv1
I0505 01:31:11.404489  1767 net.cpp:94] Creating Layer conv1
I0505 01:31:11.404495  1767 net.cpp:435] conv1 <- data
I0505 01:31:11.404506  1767 net.cpp:409] conv1 -> conv1
I0505 01:31:11.410406  1767 net.cpp:144] Setting up conv1
I0505 01:31:11.410430  1767 net.cpp:151] Top shape: 20 64 30 30 (1152000)
I0505 01:31:11.410435  1767 net.cpp:159] Memory required for data: 4680080
I0505 01:31:11.410449  1767 layer_factory.hpp:77] Creating layer relu1
I0505 01:31:11.410459  1767 net.cpp:94] Creating Layer relu1
I0505 01:31:11.410462  1767 net.cpp:435] relu1 <- conv1
I0505 01:31:11.410467  1767 net.cpp:396] relu1 -> conv1 (in-place)
I0505 01:31:11.410485  1767 net.cpp:144] Setting up relu1
I0505 01:31:11.410491  1767 net.cpp:151] Top shape: 20 64 30 30 (1152000)
I0505 01:31:11.410495  1767 net.cpp:159] Memory required for data: 9288080
I0505 01:31:11.410497  1767 layer_factory.hpp:77] Creating layer pool1
I0505 01:31:11.410506  1767 net.cpp:94] Creating Layer pool1
I0505 01:31:11.410509  1767 net.cpp:435] pool1 <- conv1
I0505 01:31:11.410514  1767 net.cpp:409] pool1 -> pool1
I0505 01:31:11.410558  1767 net.cpp:144] Setting up pool1
I0505 01:31:11.410565  1767 net.cpp:151] Top shape: 20 64 15 15 (288000)
I0505 01:31:11.410569  1767 net.cpp:159] Memory required for data: 10440080
I0505 01:31:11.410573  1767 layer_factory.hpp:77] Creating layer conv2
I0505 01:31:11.410583  1767 net.cpp:94] Creating Layer conv2
I0505 01:31:11.410586  1767 net.cpp:435] conv2 <- pool1
I0505 01:31:11.410591  1767 net.cpp:409] conv2 -> conv2
I0505 01:31:11.423252  1767 net.cpp:144] Setting up conv2
I0505 01:31:11.423280  1767 net.cpp:151] Top shape: 20 128 15 15 (576000)
I0505 01:31:11.423285  1767 net.cpp:159] Memory required for data: 12744080
I0505 01:31:11.423296  1767 layer_factory.hpp:77] Creating layer relu2
I0505 01:31:11.423305  1767 net.cpp:94] Creating Layer relu2
I0505 01:31:11.423310  1767 net.cpp:435] relu2 <- conv2
I0505 01:31:11.423316  1767 net.cpp:396] relu2 -> conv2 (in-place)
I0505 01:31:11.423324  1767 net.cpp:144] Setting up relu2
I0505 01:31:11.423329  1767 net.cpp:151] Top shape: 20 128 15 15 (576000)
I0505 01:31:11.423333  1767 net.cpp:159] Memory required for data: 15048080
I0505 01:31:11.423336  1767 layer_factory.hpp:77] Creating layer conv3
I0505 01:31:11.423346  1767 net.cpp:94] Creating Layer conv3
I0505 01:31:11.423349  1767 net.cpp:435] conv3 <- conv2
I0505 01:31:11.423354  1767 net.cpp:409] conv3 -> conv3
I0505 01:31:11.445355  1767 net.cpp:144] Setting up conv3
I0505 01:31:11.445387  1767 net.cpp:151] Top shape: 20 128 15 15 (576000)
I0505 01:31:11.445392  1767 net.cpp:159] Memory required for data: 17352080
I0505 01:31:11.445412  1767 layer_factory.hpp:77] Creating layer relu3
I0505 01:31:11.445423  1767 net.cpp:94] Creating Layer relu3
I0505 01:31:11.445427  1767 net.cpp:435] relu3 <- conv3
I0505 01:31:11.445433  1767 net.cpp:396] relu3 -> conv3 (in-place)
I0505 01:31:11.445443  1767 net.cpp:144] Setting up relu3
I0505 01:31:11.445448  1767 net.cpp:151] Top shape: 20 128 15 15 (576000)
I0505 01:31:11.445451  1767 net.cpp:159] Memory required for data: 19656080
I0505 01:31:11.445454  1767 layer_factory.hpp:77] Creating layer pool3
I0505 01:31:11.445469  1767 net.cpp:94] Creating Layer pool3
I0505 01:31:11.445473  1767 net.cpp:435] pool3 <- conv3
I0505 01:31:11.445478  1767 net.cpp:409] pool3 -> pool3
I0505 01:31:11.445530  1767 net.cpp:144] Setting up pool3
I0505 01:31:11.445538  1767 net.cpp:151] Top shape: 20 128 7 7 (125440)
I0505 01:31:11.445540  1767 net.cpp:159] Memory required for data: 20157840
I0505 01:31:11.445544  1767 layer_factory.hpp:77] Creating layer ip1
I0505 01:31:11.445554  1767 net.cpp:94] Creating Layer ip1
I0505 01:31:11.445559  1767 net.cpp:435] ip1 <- pool3
I0505 01:31:11.445564  1767 net.cpp:409] ip1 -> ip1
I0505 01:31:11.524755  1767 net.cpp:144] Setting up ip1
I0505 01:31:11.524791  1767 net.cpp:151] Top shape: 20 512 (10240)
I0505 01:31:11.524796  1767 net.cpp:159] Memory required for data: 20198800
I0505 01:31:11.524804  1767 layer_factory.hpp:77] Creating layer ip2
I0505 01:31:11.524814  1767 net.cpp:94] Creating Layer ip2
I0505 01:31:11.524819  1767 net.cpp:435] ip2 <- ip1
I0505 01:31:11.524826  1767 net.cpp:409] ip2 -> ip2
I0505 01:31:11.528014  1767 net.cpp:144] Setting up ip2
I0505 01:31:11.528025  1767 net.cpp:151] Top shape: 20 256 (5120)
I0505 01:31:11.528028  1767 net.cpp:159] Memory required for data: 20219280
I0505 01:31:11.528038  1767 layer_factory.hpp:77] Creating layer ip3
I0505 01:31:11.528044  1767 net.cpp:94] Creating Layer ip3
I0505 01:31:11.528048  1767 net.cpp:435] ip3 <- ip2
I0505 01:31:11.528053  1767 net.cpp:409] ip3 -> ip3
I0505 01:31:11.529207  1767 net.cpp:144] Setting up ip3
I0505 01:31:11.529222  1767 net.cpp:151] Top shape: 20 50 (1000)
I0505 01:31:11.529227  1767 net.cpp:159] Memory required for data: 20223280
I0505 01:31:11.529233  1767 layer_factory.hpp:77] Creating layer loss
I0505 01:31:11.529239  1767 net.cpp:94] Creating Layer loss
I0505 01:31:11.529243  1767 net.cpp:435] loss <- ip3
I0505 01:31:11.529247  1767 net.cpp:435] loss <- label
I0505 01:31:11.529254  1767 net.cpp:409] loss -> loss
I0505 01:31:11.529273  1767 layer_factory.hpp:77] Creating layer loss
…
I0505 01:31:11.529716  1767 solver.cpp:181] Creating test net (#0) specified by net file: ./protocol/dis_20_900_dimension.protocol_distribution
I0505 01:31:11.529748  1767 net.cpp:323] The NetState phase (1) differed from the phase (0) specified by a rule in layer parameters
I0505 01:31:11.529837  1767 net.cpp:52] Initializing net from parameters: 
state {
  phase: TEST
}
layer {
  name: "intercept"
  type: "HDF5Data"
  top: "data"
  top: "label"
  include {
    phase: TEST
  }
  hdf5_data_param {
    source: "/home/purduethu/scratch/radon/d/deng106/CNNStatisticalModel/distributions/input/20_distributions_900_sample_size_test-distributions-path.txt"
    batch_size: 20
  }
}
layer {
  name: "conv1"
  type: "Convolution"
  bottom: "data"
  top: "conv1"
  param {
    lr_mult: 1
  }
  param {
    lr_mult: 2
  }
  convolution_param {
    num_output: 64
    pad: 2
    kernel_size: 5
    stride: 1
    weight_filler {
      type: "gaussian"
      std: 0.0001
    }
    bias_filler {
      type: "constant"
    }
  }
}
layer {
  name: "relu1"
  type: "ReLU"
  bottom: "conv1"
  top: "conv1"
}
layer {
  name: "pool1"
  type: "Pooling"
  bottom: "conv1"
  top: "pool1"
  pooling_param {
    pool: MAX
    kernel_size: 3
    stride: 2
  }
}
layer {
  name: "conv2"
  type: "Convolution"
  bottom: "pool1"
  top: "conv2"
  param {
    lr_mult: 1
  }
  param {
    lr_mult: 2
  }
  convolution_param {
    num_output: 128
    pad: 2
    kernel_size: 5
    stride: 1
    weight_filler {
      type: "gaussian"
      std: 0.01
    }
    bias_filler {
      type: "constant"
    }
  }
}
layer {
  name: "relu2"
  type: "ReLU"
  bottom: "conv2"
  top: "conv2"
}
layer {
  name: "conv3"
  type: "Convolution"
  bottom: "conv2"
  top: "conv3"
  param {
    lr_mult: 1
  }
  param {
    lr_mult: 2
  }
  convolution_param {
    num_output: 128
    pad: 2
    kernel_size: 5
    stride: 1
    weight_filler {
      type: "gaussian"
      std: 0.01
    }
    bias_filler {
      type: "constant"
    }
  }
}
layer {
  name: "relu3"
  type: "ReLU"
  bottom: "conv3"
  top: "conv3"
}
layer {
  name: "pool3"
  type: "Pooling"
  bottom: "conv3"
  top: "pool3"
  pooling_param {
    pool: AVE
    kernel_size: 3
    stride: 2
  }
}
layer {
  name: "ip1"
  type: "InnerProduct"
  bottom: "pool3"
  top: "ip1"
  param {
    lr_mult: 1
  }
  param {
    lr_mult: 2
  }
  inner_product_param {
    num_output: 512
    weight_filler {
      type: "gaussian"
      std: 0.1
    }
    bias_filler {
      type: "constant"
    }
  }
}
layer {
  name: "ip2"
  type: "InnerProduct"
  bottom: "ip1"
  top: "ip2"
  param {
    lr_mult: 1
  }
  param {
    lr_mult: 2
  }
  inner_product_param {
    num_output: 256
    weight_filler {
      type: "gaussian"
      std: 0.1
    }
    bias_filler {
      type: "constant"
    }
  }
}
layer {
  name: "ip3"
  type: "InnerProduct"
  bottom: "ip2"
  top: "ip3"
  param {
    lr_mult: 1
  }
  param {
    lr_mult: 2
  }
  inner_product_param {
    num_output: 50
    weight_filler {
      type: "gaussian"
      std: 0.1
    }
    bias_filler {
      type: "constant"
    }
  }
}
layer {
  name: "accuracy"
  type: "Accuracy"
  bottom: "ip3"
  bottom: "label"
  top: "accuracy"
  include {
    phase: TEST
  }
}
layer {
  name: "loss"
  type: "SoftmaxWithLoss"
  bottom: "ip3"
  bottom: "label"
  top: "loss"
}
I0505 01:31:11.529902  1767 layer_factory.hpp:77] Creating layer intercept
I0505 01:31:11.529911  1767 net.cpp:94] Creating Layer intercept
I0505 01:31:11.529914  1767 net.cpp:409] intercept -> data
I0505 01:31:11.529922  1767 net.cpp:409] intercept -> label
I0505 01:31:11.529927  1767 hdf5_data_layer.cpp:79] Loading list of HDF5 filenames from: /home/purduethu/scratch/radon/d/deng106/CNNStatisticalModel/distributions/input/20_distributions_900_sample_size_test-distributions-path.txt
I0505 01:31:11.529948  1767 hdf5_data_layer.cpp:93] Number of HDF5 files: 1
I0505 01:31:11.677489  1767 net.cpp:144] Setting up intercept
I0505 01:31:11.677520  1767 net.cpp:151] Top shape: 20 1 30 30 (18000)
I0505 01:31:11.677526  1767 net.cpp:151] Top shape: 20 (20)
I0505 01:31:11.677530  1767 net.cpp:159] Memory required for data: 72080
I0505 01:31:11.677536  1767 layer_factory.hpp:77] Creating layer label_intercept_1_split
I0505 01:31:11.677561  1767 net.cpp:94] Creating Layer label_intercept_1_split
I0505 01:31:11.677567  1767 net.cpp:435] label_intercept_1_split <- label
I0505 01:31:11.677573  1767 net.cpp:409] label_intercept_1_split -> label_intercept_1_split_0
I0505 01:31:11.677582  1767 net.cpp:409] label_intercept_1_split -> label_intercept_1_split_1
I0505 01:31:11.677609  1767 net.cpp:144] Setting up label_intercept_1_split
I0505 01:31:11.677616  1767 net.cpp:151] Top shape: 20 (20)
I0505 01:31:11.677620  1767 net.cpp:151] Top shape: 20 (20)
I0505 01:31:11.677630  1767 net.cpp:159] Memory required for data: 72240
I0505 01:31:11.677634  1767 layer_factory.hpp:77] Creating layer conv1
I0505 01:31:11.677646  1767 net.cpp:94] Creating Layer conv1
I0505 01:31:11.677649  1767 net.cpp:435] conv1 <- data
I0505 01:31:11.677655  1767 net.cpp:409] conv1 -> conv1
I0505 01:31:11.678881  1767 net.cpp:144] Setting up conv1
I0505 01:31:11.678896  1767 net.cpp:151] Top shape: 20 64 30 30 (1152000)
I0505 01:31:11.678900  1767 net.cpp:159] Memory required for data: 4680240
I0505 01:31:11.678910  1767 layer_factory.hpp:77] Creating layer relu1
I0505 01:31:11.678917  1767 net.cpp:94] Creating Layer relu1
I0505 01:31:11.678921  1767 net.cpp:435] relu1 <- conv1
I0505 01:31:11.678925  1767 net.cpp:396] relu1 -> conv1 (in-place)
I0505 01:31:11.678938  1767 net.cpp:144] Setting up relu1
I0505 01:31:11.678942  1767 net.cpp:151] Top shape: 20 64 30 30 (1152000)
I0505 01:31:11.678946  1767 net.cpp:159] Memory required for data: 9288240
I0505 01:31:11.678949  1767 layer_factory.hpp:77] Creating layer pool1
I0505 01:31:11.678956  1767 net.cpp:94] Creating Layer pool1
I0505 01:31:11.678961  1767 net.cpp:435] pool1 <- conv1
I0505 01:31:11.678964  1767 net.cpp:409] pool1 -> pool1
I0505 01:31:11.678997  1767 net.cpp:144] Setting up pool1
I0505 01:31:11.679003  1767 net.cpp:151] Top shape: 20 64 15 15 (288000)
I0505 01:31:11.679008  1767 net.cpp:159] Memory required for data: 10440240
I0505 01:31:11.679010  1767 layer_factory.hpp:77] Creating layer conv2
I0505 01:31:11.679018  1767 net.cpp:94] Creating Layer conv2
I0505 01:31:11.679023  1767 net.cpp:435] conv2 <- pool1
I0505 01:31:11.679028  1767 net.cpp:409] conv2 -> conv2
I0505 01:31:11.686893  1767 net.cpp:144] Setting up conv2
I0505 01:31:11.686913  1767 net.cpp:151] Top shape: 20 128 15 15 (576000)
I0505 01:31:11.686918  1767 net.cpp:159] Memory required for data: 12744240
I0505 01:31:11.686928  1767 layer_factory.hpp:77] Creating layer relu2
I0505 01:31:11.686934  1767 net.cpp:94] Creating Layer relu2
I0505 01:31:11.686939  1767 net.cpp:435] relu2 <- conv2
I0505 01:31:11.686944  1767 net.cpp:396] relu2 -> conv2 (in-place)
I0505 01:31:11.686951  1767 net.cpp:144] Setting up relu2
I0505 01:31:11.686956  1767 net.cpp:151] Top shape: 20 128 15 15 (576000)
I0505 01:31:11.686959  1767 net.cpp:159] Memory required for data: 15048240
I0505 01:31:11.686964  1767 layer_factory.hpp:77] Creating layer conv3
I0505 01:31:11.686970  1767 net.cpp:94] Creating Layer conv3
I0505 01:31:11.686975  1767 net.cpp:435] conv3 <- conv2
I0505 01:31:11.686980  1767 net.cpp:409] conv3 -> conv3
I0505 01:31:11.702114  1767 net.cpp:144] Setting up conv3
I0505 01:31:11.702138  1767 net.cpp:151] Top shape: 20 128 15 15 (576000)
I0505 01:31:11.702143  1767 net.cpp:159] Memory required for data: 17352240
I0505 01:31:11.702154  1767 layer_factory.hpp:77] Creating layer relu3
I0505 01:31:11.702165  1767 net.cpp:94] Creating Layer relu3
I0505 01:31:11.702170  1767 net.cpp:435] relu3 <- conv3
I0505 01:31:11.702175  1767 net.cpp:396] relu3 -> conv3 (in-place)
I0505 01:31:11.702184  1767 net.cpp:144] Setting up relu3
I0505 01:31:11.702189  1767 net.cpp:151] Top shape: 20 128 15 15 (576000)
I0505 01:31:11.702193  1767 net.cpp:159] Memory required for data: 19656240
I0505 01:31:11.702196  1767 layer_factory.hpp:77] Creating layer pool3
I0505 01:31:11.702203  1767 net.cpp:94] Creating Layer pool3
I0505 01:31:11.702205  1767 net.cpp:435] pool3 <- conv3
I0505 01:31:11.702210  1767 net.cpp:409] pool3 -> pool3
I0505 01:31:11.702242  1767 net.cpp:144] Setting up pool3
I0505 01:31:11.702258  1767 net.cpp:151] Top shape: 20 128 7 7 (125440)
I0505 01:31:11.702262  1767 net.cpp:159] Memory required for data: 20158000
I0505 01:31:11.702266  1767 layer_factory.hpp:77] Creating layer ip1
I0505 01:31:11.702273  1767 net.cpp:94] Creating Layer ip1
I0505 01:31:11.702276  1767 net.cpp:435] ip1 <- pool3
I0505 01:31:11.702281  1767 net.cpp:409] ip1 -> ip1
I0505 01:31:11.781457  1767 net.cpp:144] Setting up ip1
I0505 01:31:11.781492  1767 net.cpp:151] Top shape: 20 512 (10240)
I0505 01:31:11.781497  1767 net.cpp:159] Memory required for data: 20198960
I0505 01:31:11.781522  1767 layer_factory.hpp:77] Creating layer ip2
I0505 01:31:11.781533  1767 net.cpp:94] Creating Layer ip2
I0505 01:31:11.781538  1767 net.cpp:435] ip2 <- ip1
I0505 01:31:11.781545  1767 net.cpp:409] ip2 -> ip2
I0505 01:31:11.784744  1767 net.cpp:144] Setting up ip2
I0505 01:31:11.784755  1767 net.cpp:151] Top shape: 20 256 (5120)
I0505 01:31:11.784759  1767 net.cpp:159] Memory required for data: 20219440
I0505 01:31:11.784767  1767 layer_factory.hpp:77] Creating layer ip3
I0505 01:31:11.784775  1767 net.cpp:94] Creating Layer ip3
I0505 01:31:11.784777  1767 net.cpp:435] ip3 <- ip2
I0505 01:31:11.784782  1767 net.cpp:409] ip3 -> ip3
I0505 01:31:11.785162  1767 net.cpp:144] Setting up ip3
I0505 01:31:11.785169  1767 net.cpp:151] Top shape: 20 50 (1000)
I0505 01:31:11.785173  1767 net.cpp:159] Memory required for data: 20223440
I0505 01:31:11.785178  1767 layer_factory.hpp:77] Creating layer ip3_ip3_0_split
I0505 01:31:11.785184  1767 net.cpp:94] Creating Layer ip3_ip3_0_split
I0505 01:31:11.785187  1767 net.cpp:435] ip3_ip3_0_split <- ip3
I0505 01:31:11.785192  1767 net.cpp:409] ip3_ip3_0_split -> ip3_ip3_0_split_0
I0505 01:31:11.785197  1767 net.cpp:409] ip3_ip3_0_split -> ip3_ip3_0_split_1
I0505 01:31:11.785223  1767 net.cpp:144] Setting up ip3_ip3_0_split
I0505 01:31:11.785228  1767 net.cpp:151] Top shape: 20 50 (1000)
I0505 01:31:11.785231  1767 net.cpp:151] Top shape: 20 50 (1000)
I0505 01:31:11.785234  1767 net.cpp:159] Memory required for data: 20231440
I0505 01:31:11.785238  1767 layer_factory.hpp:77] Creating layer accuracy
I0505 01:31:11.785244  1767 net.cpp:94] Creating Layer accuracy
I0505 01:31:11.785248  1767 net.cpp:435] accuracy <- ip3_ip3_0_split_0
I0505 01:31:11.785251  1767 net.cpp:435] accuracy <- label_intercept_1_split_0
I0505 01:31:11.785256  1767 net.cpp:409] accuracy -> accuracy
…
