…
I0505 07:37:17.448859  4762 net.cpp:323] The NetState phase (0) differed from the phase (1) specified by a rule in layer intercept
I0505 07:37:17.448876  4762 net.cpp:323] The NetState phase (0) differed from the phase (1) specified by a rule in layer loss
I0505 07:37:17.448953  4762 net.cpp:52] Initializing net from parameters: 
state {
  phase: TRAIN
}
layer {
  name: "parameters"
  type: "HDF5Data"
  top: "data"
  top: "label"
  include {
    phase: TRAIN
  }
  hdf5_data_param {
    source: "/home/purduethu/scratch/radon/d/deng106/CNNStatisticalModel/distributions/input/5_distributions_900_sample_size_train-parameters-path.txt"
    batch_size: 20
  }
}
layer {
  name: "conv1"
  type: "Convolution"
  bottom: "data"
  top: "conv1"
  param {
    lr_mult: 1
  }
  param {
    lr_mult: 2
  }
  convolution_param {
    num_output: 64
    pad: 2
    kernel_size: 5
    stride: 1
    weight_filler {
      type: "gaussian"
      std: 0.0001
    }
    bias_filler {
      type: "constant"
    }
  }
}
layer {
  name: "relu1"
  type: "ReLU"
  bottom: "conv1"
  top: "conv1"
}
layer {
  name: "pool1"
  type: "Pooling"
  bottom: "conv1"
  top: "pool1"
  pooling_param {
    pool: MAX
    kernel_size: 3
    stride: 2
  }
}
layer {
  name: "conv2"
  type: "Convolution"
  bottom: "pool1"
  top: "conv2"
  param {
    lr_mult: 1
  }
  param {
    lr_mult: 2
  }
  convolution_param {
    num_output: 128
    pad: 2
    kernel_size: 5
    stride: 1
    weight_filler {
      type: "gaussian"
      std: 0.01
    }
    bias_filler {
      type: "constant"
    }
  }
}
layer {
  name: "relu2"
  type: "ReLU"
  bottom: "conv2"
  top: "conv2"
}
layer {
  name: "conv3"
  type: "Convolution"
  bottom: "conv2"
  top: "conv3"
  param {
    lr_mult: 1
  }
  param {
    lr_mult: 2
  }
  convolution_param {
    num_output: 128
    pad: 2
    kernel_size: 5
    stride: 1
    weight_filler {
      type: "gaussian"
      std: 0.01
    }
    bias_filler {
      type: "constant"
    }
  }
}
layer {
  name: "relu3"
  type: "ReLU"
  bottom: "conv3"
  top: "conv3"
}
layer {
  name: "pool3"
  type: "Pooling"
  bottom: "conv3"
  top: "pool3"
  pooling_param {
    pool: AVE
    kernel_size: 3
    stride: 2
  }
}
layer {
  name: "ip1"
  type: "InnerProduct"
  bottom: "pool3"
  top: "ip1"
  param {
    lr_mult: 1
  }
  param {
    lr_mult: 2
  }
  inner_product_param {
    num_output: 512
    weight_filler {
      type: "gaussian"
      std: 0.1
    }
    bias_filler {
      type: "constant"
    }
  }
}
layer {
  name: "ip2"
  type: "InnerProduct"
  bottom: "ip1"
  top: "ip2"
  param {
    lr_mult: 1
  }
  param {
    lr_mult: 2
  }
  inner_product_param {
    num_output: 256
    weight_filler {
      type: "gaussian"
      std: 0.1
    }
    bias_filler {
      type: "constant"
    }
  }
}
layer {
  name: "ip3"
  type: "InnerProduct"
  bottom: "ip2"
  top: "ip3"
  param {
    lr_mult: 1
  }
  param {
    lr_mult: 2
  }
  inner_product_param {
    num_output: 1
    weight_filler {
      type: "gaussian"
      std: 0.1
    }
    bias_filler {
      type: "constant"
    }
  }
}
layer {
  name: "loss"
  type: "HuberLoss"
  bottom: "ip3"
  bottom: "label"
  top: "loss"
  include {
    phase: TRAIN
  }
}
I0505 07:37:17.449018  4762 layer_factory.hpp:77] Creating layer parameters
I0505 07:37:17.449031  4762 net.cpp:94] Creating Layer parameters
I0505 07:37:17.449045  4762 net.cpp:409] parameters -> data
I0505 07:37:17.449065  4762 net.cpp:409] parameters -> label
I0505 07:37:17.449076  4762 hdf5_data_layer.cpp:79] Loading list of HDF5 filenames from: /home/purduethu/scratch/radon/d/deng106/CNNStatisticalModel/distributions/input/5_distributions_900_sample_size_train-parameters-path.txt
I0505 07:37:17.449098  4762 hdf5_data_layer.cpp:93] Number of HDF5 files: 1
I0505 07:37:17.449673  4762 hdf5.cpp:32] Datatype class: H5T_FLOAT
I0505 07:37:17.588699  4762 net.cpp:144] Setting up parameters
I0505 07:37:17.588731  4762 net.cpp:151] Top shape: 20 1 30 30 (18000)
I0505 07:37:17.588737  4762 net.cpp:151] Top shape: 20 (20)
I0505 07:37:17.588740  4762 net.cpp:159] Memory required for data: 72080
I0505 07:37:17.588748  4762 layer_factory.hpp:77] Creating layer conv1
I0505 07:37:17.588768  4762 net.cpp:94] Creating Layer conv1
I0505 07:37:17.588773  4762 net.cpp:435] conv1 <- data
I0505 07:37:17.588784  4762 net.cpp:409] conv1 -> conv1
I0505 07:37:17.594686  4762 net.cpp:144] Setting up conv1
I0505 07:37:17.594702  4762 net.cpp:151] Top shape: 20 64 30 30 (1152000)
I0505 07:37:17.594707  4762 net.cpp:159] Memory required for data: 4680080
I0505 07:37:17.594719  4762 layer_factory.hpp:77] Creating layer relu1
I0505 07:37:17.594728  4762 net.cpp:94] Creating Layer relu1
I0505 07:37:17.594732  4762 net.cpp:435] relu1 <- conv1
I0505 07:37:17.594736  4762 net.cpp:396] relu1 -> conv1 (in-place)
I0505 07:37:17.594748  4762 net.cpp:144] Setting up relu1
I0505 07:37:17.594753  4762 net.cpp:151] Top shape: 20 64 30 30 (1152000)
I0505 07:37:17.594756  4762 net.cpp:159] Memory required for data: 9288080
I0505 07:37:17.594760  4762 layer_factory.hpp:77] Creating layer pool1
I0505 07:37:17.594769  4762 net.cpp:94] Creating Layer pool1
I0505 07:37:17.594771  4762 net.cpp:435] pool1 <- conv1
I0505 07:37:17.594776  4762 net.cpp:409] pool1 -> pool1
I0505 07:37:17.594817  4762 net.cpp:144] Setting up pool1
I0505 07:37:17.594825  4762 net.cpp:151] Top shape: 20 64 15 15 (288000)
I0505 07:37:17.594828  4762 net.cpp:159] Memory required for data: 10440080
I0505 07:37:17.594831  4762 layer_factory.hpp:77] Creating layer conv2
I0505 07:37:17.594841  4762 net.cpp:94] Creating Layer conv2
I0505 07:37:17.594844  4762 net.cpp:435] conv2 <- pool1
I0505 07:37:17.594851  4762 net.cpp:409] conv2 -> conv2
I0505 07:37:17.608368  4762 net.cpp:144] Setting up conv2
I0505 07:37:17.608384  4762 net.cpp:151] Top shape: 20 128 15 15 (576000)
I0505 07:37:17.608389  4762 net.cpp:159] Memory required for data: 12744080
I0505 07:37:17.608397  4762 layer_factory.hpp:77] Creating layer relu2
I0505 07:37:17.608404  4762 net.cpp:94] Creating Layer relu2
I0505 07:37:17.608408  4762 net.cpp:435] relu2 <- conv2
I0505 07:37:17.608413  4762 net.cpp:396] relu2 -> conv2 (in-place)
I0505 07:37:17.608422  4762 net.cpp:144] Setting up relu2
I0505 07:37:17.608427  4762 net.cpp:151] Top shape: 20 128 15 15 (576000)
I0505 07:37:17.608429  4762 net.cpp:159] Memory required for data: 15048080
I0505 07:37:17.608433  4762 layer_factory.hpp:77] Creating layer conv3
I0505 07:37:17.608440  4762 net.cpp:94] Creating Layer conv3
I0505 07:37:17.608444  4762 net.cpp:435] conv3 <- conv2
I0505 07:37:17.608449  4762 net.cpp:409] conv3 -> conv3
I0505 07:37:17.630849  4762 net.cpp:144] Setting up conv3
I0505 07:37:17.630866  4762 net.cpp:151] Top shape: 20 128 15 15 (576000)
I0505 07:37:17.630869  4762 net.cpp:159] Memory required for data: 17352080
I0505 07:37:17.630878  4762 layer_factory.hpp:77] Creating layer relu3
I0505 07:37:17.630885  4762 net.cpp:94] Creating Layer relu3
I0505 07:37:17.630897  4762 net.cpp:435] relu3 <- conv3
I0505 07:37:17.630901  4762 net.cpp:396] relu3 -> conv3 (in-place)
I0505 07:37:17.630909  4762 net.cpp:144] Setting up relu3
I0505 07:37:17.630914  4762 net.cpp:151] Top shape: 20 128 15 15 (576000)
I0505 07:37:17.630918  4762 net.cpp:159] Memory required for data: 19656080
I0505 07:37:17.630921  4762 layer_factory.hpp:77] Creating layer pool3
I0505 07:37:17.630928  4762 net.cpp:94] Creating Layer pool3
I0505 07:37:17.630931  4762 net.cpp:435] pool3 <- conv3
I0505 07:37:17.630944  4762 net.cpp:409] pool3 -> pool3
I0505 07:37:17.630978  4762 net.cpp:144] Setting up pool3
I0505 07:37:17.630985  4762 net.cpp:151] Top shape: 20 128 7 7 (125440)
I0505 07:37:17.630990  4762 net.cpp:159] Memory required for data: 20157840
I0505 07:37:17.630992  4762 layer_factory.hpp:77] Creating layer ip1
I0505 07:37:17.631003  4762 net.cpp:94] Creating Layer ip1
I0505 07:37:17.631007  4762 net.cpp:435] ip1 <- pool3
I0505 07:37:17.631012  4762 net.cpp:409] ip1 -> ip1
I0505 07:37:17.712751  4762 net.cpp:144] Setting up ip1
I0505 07:37:17.712785  4762 net.cpp:151] Top shape: 20 512 (10240)
I0505 07:37:17.712790  4762 net.cpp:159] Memory required for data: 20198800
I0505 07:37:17.712798  4762 layer_factory.hpp:77] Creating layer ip2
I0505 07:37:17.712810  4762 net.cpp:94] Creating Layer ip2
I0505 07:37:17.712815  4762 net.cpp:435] ip2 <- ip1
I0505 07:37:17.712821  4762 net.cpp:409] ip2 -> ip2
I0505 07:37:17.716099  4762 net.cpp:144] Setting up ip2
I0505 07:37:17.716109  4762 net.cpp:151] Top shape: 20 256 (5120)
I0505 07:37:17.716112  4762 net.cpp:159] Memory required for data: 20219280
I0505 07:37:17.716120  4762 layer_factory.hpp:77] Creating layer ip3
I0505 07:37:17.716126  4762 net.cpp:94] Creating Layer ip3
I0505 07:37:17.716130  4762 net.cpp:435] ip3 <- ip2
I0505 07:37:17.716136  4762 net.cpp:409] ip3 -> ip3
I0505 07:37:17.716204  4762 net.cpp:144] Setting up ip3
I0505 07:37:17.716210  4762 net.cpp:151] Top shape: 20 1 (20)
I0505 07:37:17.716214  4762 net.cpp:159] Memory required for data: 20219360
I0505 07:37:17.716219  4762 layer_factory.hpp:77] Creating layer loss
I0505 07:37:17.716233  4762 net.cpp:94] Creating Layer loss
I0505 07:37:17.716238  4762 net.cpp:435] loss <- ip3
I0505 07:37:17.716243  4762 net.cpp:435] loss <- label
I0505 07:37:17.716248  4762 net.cpp:409] loss -> loss
I0505 07:37:17.716285  4762 net.cpp:144] Setting up loss
…
