…
I0505 07:10:44.097425  4578 net.cpp:323] The NetState phase (0) differed from the phase (1) specified by a rule in layer intercept
I0505 07:10:44.097440  4578 net.cpp:323] The NetState phase (0) differed from the phase (1) specified by a rule in layer loss
I0505 07:10:44.097517  4578 net.cpp:52] Initializing net from parameters: 
state {
  phase: TRAIN
}
layer {
  name: "parameters"
  type: "HDF5Data"
  top: "data"
  top: "label"
  include {
    phase: TRAIN
  }
  hdf5_data_param {
    source: "/home/purduethu/scratch/radon/d/deng106/CNNStatisticalModel/distributions/input/20_distributions_400_sample_size_train-parameters-path.txt"
    batch_size: 20
  }
}
layer {
  name: "conv1"
  type: "Convolution"
  bottom: "data"
  top: "conv1"
  param {
    lr_mult: 1
  }
  param {
    lr_mult: 2
  }
  convolution_param {
    num_output: 64
    pad: 2
    kernel_size: 5
    stride: 1
    weight_filler {
      type: "gaussian"
      std: 0.0001
    }
    bias_filler {
      type: "constant"
    }
  }
}
layer {
  name: "relu1"
  type: "ReLU"
  bottom: "conv1"
  top: "conv1"
}
layer {
  name: "pool1"
  type: "Pooling"
  bottom: "conv1"
  top: "pool1"
  pooling_param {
    pool: MAX
    kernel_size: 3
    stride: 2
  }
}
layer {
  name: "conv2"
  type: "Convolution"
  bottom: "pool1"
  top: "conv2"
  param {
    lr_mult: 1
  }
  param {
    lr_mult: 2
  }
  convolution_param {
    num_output: 128
    pad: 2
    kernel_size: 5
    stride: 1
    weight_filler {
      type: "gaussian"
      std: 0.01
    }
    bias_filler {
      type: "constant"
    }
  }
}
layer {
  name: "relu2"
  type: "ReLU"
  bottom: "conv2"
  top: "conv2"
}
layer {
  name: "conv3"
  type: "Convolution"
  bottom: "conv2"
  top: "conv3"
  param {
    lr_mult: 1
  }
  param {
    lr_mult: 2
  }
  convolution_param {
    num_output: 128
    pad: 2
    kernel_size: 5
    stride: 1
    weight_filler {
      type: "gaussian"
      std: 0.01
    }
    bias_filler {
      type: "constant"
    }
  }
}
layer {
  name: "relu3"
  type: "ReLU"
  bottom: "conv3"
  top: "conv3"
}
layer {
  name: "pool3"
  type: "Pooling"
  bottom: "conv3"
  top: "pool3"
  pooling_param {
    pool: AVE
    kernel_size: 3
    stride: 2
  }
}
layer {
  name: "ip1"
  type: "InnerProduct"
  bottom: "pool3"
  top: "ip1"
  param {
    lr_mult: 1
  }
  param {
    lr_mult: 2
  }
  inner_product_param {
    num_output: 512
    weight_filler {
      type: "gaussian"
      std: 0.1
    }
    bias_filler {
      type: "constant"
    }
  }
}
layer {
  name: "ip2"
  type: "InnerProduct"
  bottom: "ip1"
  top: "ip2"
  param {
    lr_mult: 1
  }
  param {
    lr_mult: 2
  }
  inner_product_param {
    num_output: 256
    weight_filler {
      type: "gaussian"
      std: 0.1
    }
    bias_filler {
      type: "constant"
    }
  }
}
layer {
  name: "ip3"
  type: "InnerProduct"
  bottom: "ip2"
  top: "ip3"
  param {
    lr_mult: 1
  }
  param {
    lr_mult: 2
  }
  inner_product_param {
    num_output: 1
    weight_filler {
      type: "gaussian"
      std: 0.1
    }
    bias_filler {
      type: "constant"
    }
  }
}
layer {
  name: "loss"
  type: "HuberLoss"
  bottom: "ip3"
  bottom: "label"
  top: "loss"
  include {
    phase: TRAIN
  }
}
I0505 07:10:44.097579  4578 layer_factory.hpp:77] Creating layer parameters
I0505 07:10:44.097592  4578 net.cpp:94] Creating Layer parameters
I0505 07:10:44.097606  4578 net.cpp:409] parameters -> data
I0505 07:10:44.097626  4578 net.cpp:409] parameters -> label
I0505 07:10:44.097636  4578 hdf5_data_layer.cpp:79] Loading list of HDF5 filenames from: /home/purduethu/scratch/radon/d/deng106/CNNStatisticalModel/distributions/input/20_distributions_400_sample_size_train-parameters-path.txt
I0505 07:10:44.097659  4578 hdf5_data_layer.cpp:93] Number of HDF5 files: 1
I0505 07:10:44.098211  4578 hdf5.cpp:32] Datatype class: H5T_FLOAT
I0505 07:10:44.352411  4578 net.cpp:144] Setting up parameters
I0505 07:10:44.352444  4578 net.cpp:151] Top shape: 20 1 20 20 (8000)
I0505 07:10:44.352450  4578 net.cpp:151] Top shape: 20 (20)
I0505 07:10:44.352454  4578 net.cpp:159] Memory required for data: 32080
I0505 07:10:44.352463  4578 layer_factory.hpp:77] Creating layer conv1
I0505 07:10:44.352483  4578 net.cpp:94] Creating Layer conv1
I0505 07:10:44.352488  4578 net.cpp:435] conv1 <- data
I0505 07:10:44.352499  4578 net.cpp:409] conv1 -> conv1
I0505 07:10:44.357301  4578 net.cpp:144] Setting up conv1
I0505 07:10:44.357317  4578 net.cpp:151] Top shape: 20 64 20 20 (512000)
I0505 07:10:44.357321  4578 net.cpp:159] Memory required for data: 2080080
I0505 07:10:44.357333  4578 layer_factory.hpp:77] Creating layer relu1
I0505 07:10:44.357341  4578 net.cpp:94] Creating Layer relu1
I0505 07:10:44.357344  4578 net.cpp:435] relu1 <- conv1
I0505 07:10:44.357349  4578 net.cpp:396] relu1 -> conv1 (in-place)
I0505 07:10:44.357364  4578 net.cpp:144] Setting up relu1
I0505 07:10:44.357370  4578 net.cpp:151] Top shape: 20 64 20 20 (512000)
I0505 07:10:44.357373  4578 net.cpp:159] Memory required for data: 4128080
I0505 07:10:44.357376  4578 layer_factory.hpp:77] Creating layer pool1
I0505 07:10:44.357384  4578 net.cpp:94] Creating Layer pool1
I0505 07:10:44.357388  4578 net.cpp:435] pool1 <- conv1
I0505 07:10:44.357393  4578 net.cpp:409] pool1 -> pool1
I0505 07:10:44.357435  4578 net.cpp:144] Setting up pool1
I0505 07:10:44.357442  4578 net.cpp:151] Top shape: 20 64 10 10 (128000)
I0505 07:10:44.357446  4578 net.cpp:159] Memory required for data: 4640080
I0505 07:10:44.357450  4578 layer_factory.hpp:77] Creating layer conv2
I0505 07:10:44.357458  4578 net.cpp:94] Creating Layer conv2
I0505 07:10:44.357461  4578 net.cpp:435] conv2 <- pool1
I0505 07:10:44.357467  4578 net.cpp:409] conv2 -> conv2
I0505 07:10:44.367149  4578 net.cpp:144] Setting up conv2
I0505 07:10:44.367166  4578 net.cpp:151] Top shape: 20 128 10 10 (256000)
I0505 07:10:44.367169  4578 net.cpp:159] Memory required for data: 5664080
I0505 07:10:44.367178  4578 layer_factory.hpp:77] Creating layer relu2
I0505 07:10:44.367184  4578 net.cpp:94] Creating Layer relu2
I0505 07:10:44.367188  4578 net.cpp:435] relu2 <- conv2
I0505 07:10:44.367193  4578 net.cpp:396] relu2 -> conv2 (in-place)
I0505 07:10:44.367200  4578 net.cpp:144] Setting up relu2
I0505 07:10:44.367205  4578 net.cpp:151] Top shape: 20 128 10 10 (256000)
I0505 07:10:44.367208  4578 net.cpp:159] Memory required for data: 6688080
I0505 07:10:44.367211  4578 layer_factory.hpp:77] Creating layer conv3
I0505 07:10:44.367219  4578 net.cpp:94] Creating Layer conv3
I0505 07:10:44.367223  4578 net.cpp:435] conv3 <- conv2
I0505 07:10:44.367228  4578 net.cpp:409] conv3 -> conv3
I0505 07:10:44.384642  4578 net.cpp:144] Setting up conv3
I0505 07:10:44.384657  4578 net.cpp:151] Top shape: 20 128 10 10 (256000)
I0505 07:10:44.384662  4578 net.cpp:159] Memory required for data: 7712080
I0505 07:10:44.384670  4578 layer_factory.hpp:77] Creating layer relu3
I0505 07:10:44.384676  4578 net.cpp:94] Creating Layer relu3
I0505 07:10:44.384686  4578 net.cpp:435] relu3 <- conv3
I0505 07:10:44.384692  4578 net.cpp:396] relu3 -> conv3 (in-place)
I0505 07:10:44.384699  4578 net.cpp:144] Setting up relu3
I0505 07:10:44.384704  4578 net.cpp:151] Top shape: 20 128 10 10 (256000)
I0505 07:10:44.384707  4578 net.cpp:159] Memory required for data: 8736080
I0505 07:10:44.384711  4578 layer_factory.hpp:77] Creating layer pool3
I0505 07:10:44.384716  4578 net.cpp:94] Creating Layer pool3
I0505 07:10:44.384721  4578 net.cpp:435] pool3 <- conv3
I0505 07:10:44.384733  4578 net.cpp:409] pool3 -> pool3
I0505 07:10:44.384768  4578 net.cpp:144] Setting up pool3
I0505 07:10:44.384774  4578 net.cpp:151] Top shape: 20 128 5 5 (64000)
I0505 07:10:44.384778  4578 net.cpp:159] Memory required for data: 8992080
I0505 07:10:44.384781  4578 layer_factory.hpp:77] Creating layer ip1
I0505 07:10:44.384791  4578 net.cpp:94] Creating Layer ip1
I0505 07:10:44.384794  4578 net.cpp:435] ip1 <- pool3
I0505 07:10:44.384800  4578 net.cpp:409] ip1 -> ip1
I0505 07:10:44.424207  4578 net.cpp:144] Setting up ip1
I0505 07:10:44.424222  4578 net.cpp:151] Top shape: 20 512 (10240)
I0505 07:10:44.424226  4578 net.cpp:159] Memory required for data: 9033040
I0505 07:10:44.424233  4578 layer_factory.hpp:77] Creating layer ip2
I0505 07:10:44.424240  4578 net.cpp:94] Creating Layer ip2
I0505 07:10:44.424244  4578 net.cpp:435] ip2 <- ip1
I0505 07:10:44.424250  4578 net.cpp:409] ip2 -> ip2
I0505 07:10:44.427355  4578 net.cpp:144] Setting up ip2
I0505 07:10:44.427363  4578 net.cpp:151] Top shape: 20 256 (5120)
I0505 07:10:44.427367  4578 net.cpp:159] Memory required for data: 9053520
I0505 07:10:44.427374  4578 layer_factory.hpp:77] Creating layer ip3
I0505 07:10:44.427381  4578 net.cpp:94] Creating Layer ip3
I0505 07:10:44.427384  4578 net.cpp:435] ip3 <- ip2
I0505 07:10:44.427389  4578 net.cpp:409] ip3 -> ip3
I0505 07:10:44.427454  4578 net.cpp:144] Setting up ip3
I0505 07:10:44.427460  4578 net.cpp:151] Top shape: 20 1 (20)
I0505 07:10:44.427464  4578 net.cpp:159] Memory required for data: 9053600
I0505 07:10:44.427469  4578 layer_factory.hpp:77] Creating layer loss
I0505 07:10:44.427479  4578 net.cpp:94] Creating Layer loss
I0505 07:10:44.427484  4578 net.cpp:435] loss <- ip3
I0505 07:10:44.427487  4578 net.cpp:435] loss <- label
I0505 07:10:44.427494  4578 net.cpp:409] loss -> loss
I0505 07:10:44.427528  4578 net.cpp:144] Setting up loss
…
