…
I0507 13:10:17.122517  1753 net.cpp:323] The NetState phase (0) differed from the phase (1) specified by a rule in layer intercept
I0507 13:10:17.122534  1753 net.cpp:323] The NetState phase (0) differed from the phase (1) specified by a rule in layer loss
I0507 13:10:17.122615  1753 net.cpp:52] Initializing net from parameters: 
state {
  phase: TRAIN
}
layer {
  name: "parameters"
  type: "HDF5Data"
  top: "data"
  top: "label"
  include {
    phase: TRAIN
  }
  hdf5_data_param {
    source: "/home/purduethu/scratch/radon/d/deng106/CNNStatisticalModel/distributions/input/5_distributions_900_sample_size_train-parameters-path.txt"
    batch_size: 20
  }
}
layer {
  name: "conv1"
  type: "Convolution"
  bottom: "data"
  top: "conv1"
  param {
    lr_mult: 1
  }
  param {
    lr_mult: 2
  }
  convolution_param {
    num_output: 64
    pad: 2
    kernel_size: 5
    stride: 1
    weight_filler {
      type: "gaussian"
      std: 0.0001
    }
    bias_filler {
      type: "constant"
    }
  }
}
layer {
  name: "relu1"
  type: "ReLU"
  bottom: "conv1"
  top: "conv1"
}
layer {
  name: "conv2"
  type: "Convolution"
  bottom: "conv1"
  top: "conv2"
  param {
    lr_mult: 1
  }
  param {
    lr_mult: 2
  }
  convolution_param {
    num_output: 64
    pad: 2
    kernel_size: 5
    stride: 1
    weight_filler {
      type: "gaussian"
      std: 0.01
    }
    bias_filler {
      type: "constant"
    }
  }
}
layer {
  name: "relu2"
  type: "ReLU"
  bottom: "conv2"
  top: "conv2"
}
layer {
  name: "pool2"
  type: "Pooling"
  bottom: "conv2"
  top: "pool2"
  pooling_param {
    pool: MAX
    kernel_size: 3
    stride: 2
  }
}
layer {
  name: "conv3"
  type: "Convolution"
  bottom: "pool2"
  top: "conv3"
  param {
    lr_mult: 1
  }
  param {
    lr_mult: 2
  }
  convolution_param {
    num_output: 64
    pad: 2
    kernel_size: 5
    stride: 1
    weight_filler {
      type: "gaussian"
      std: 0.01
    }
    bias_filler {
      type: "constant"
    }
  }
}
layer {
  name: "relu3"
  type: "ReLU"
  bottom: "conv3"
  top: "conv3"
}
layer {
  name: "conv4"
  type: "Convolution"
  bottom: "conv3"
  top: "conv4"
  param {
    lr_mult: 1
  }
  param {
    lr_mult: 2
  }
  convolution_param {
    num_output: 64
    pad: 2
    kernel_size: 5
    stride: 1
    weight_filler {
      type: "gaussian"
      std: 0.01
    }
    bias_filler {
      type: "constant"
    }
  }
}
layer {
  name: "relu4"
  type: "ReLU"
  bottom: "conv4"
  top: "conv4"
}
layer {
  name: "conv5"
  type: "Convolution"
  bottom: "conv4"
  top: "conv5"
  param {
    lr_mult: 1
  }
  param {
    lr_mult: 2
  }
  convolution_param {
    num_output: 64
    pad: 2
    kernel_size: 5
    stride: 1
    weight_filler {
      type: "gaussian"
      std: 0.01
    }
    bias_filler {
      type: "constant"
    }
  }
}
layer {
  name: "relu5"
  type: "ReLU"
  bottom: "conv5"
  top: "conv5"
}
layer {
  name: "pool5"
  type: "Pooling"
  bottom: "conv5"
  top: "pool5"
  pooling_param {
    pool: AVE
    kernel_size: 3
    stride: 2
  }
}
layer {
  name: "ip1"
  type: "InnerProduct"
  bottom: "pool5"
  top: "ip1"
  param {
    lr_mult: 1
  }
  param {
    lr_mult: 2
  }
  inner_product_param {
    num_output: 64
    weight_filler {
      type: "gaussian"
      std: 0.1
    }
    bias_filler {
      type: "constant"
    }
  }
}
layer {
  name: "ip2"
  type: "InnerProduct"
  bottom: "ip1"
  top: "ip2"
  param {
    lr_mult: 1
  }
  param {
    lr_mult: 2
  }
  inner_product_param {
    num_output: 64
    weight_filler {
      type: "gaussian"
      std: 0.1
    }
    bias_filler {
      type: "constant"
    }
  }
}
layer {
  name: "ip3"
  type: "InnerProduct"
  bottom: "ip2"
  top: "ip3"
  param {
    lr_mult: 1
  }
  param {
    lr_mult: 2
  }
  inner_product_param {
    num_output: 1
    weight_filler {
      type: "gaussian"
      std: 0.1
    }
    bias_filler {
      type: "constant"
    }
  }
}
layer {
  name: "loss"
  type: "HuberLoss"
  bottom: "ip3"
  bottom: "label"
  top: "loss"
  include {
    phase: TRAIN
  }
}
I0507 13:10:17.122668  1753 layer_factory.hpp:77] Creating layer parameters
I0507 13:10:17.122681  1753 net.cpp:94] Creating Layer parameters
I0507 13:10:17.122685  1753 net.cpp:409] parameters -> data
I0507 13:10:17.122694  1753 net.cpp:409] parameters -> label
I0507 13:10:17.122705  1753 hdf5_data_layer.cpp:79] Loading list of HDF5 filenames from: /home/purduethu/scratch/radon/d/deng106/CNNStatisticalModel/distributions/input/5_distributions_900_sample_size_train-parameters-path.txt
I0507 13:10:17.122723  1753 hdf5_data_layer.cpp:93] Number of HDF5 files: 1
I0507 13:10:17.123287  1753 hdf5.cpp:32] Datatype class: H5T_FLOAT
I0507 13:10:17.262536  1753 net.cpp:144] Setting up parameters
I0507 13:10:17.262564  1753 net.cpp:151] Top shape: 20 1 30 30 (18000)
I0507 13:10:17.262570  1753 net.cpp:151] Top shape: 20 (20)
I0507 13:10:17.262573  1753 net.cpp:159] Memory required for data: 72080
I0507 13:10:17.262579  1753 layer_factory.hpp:77] Creating layer conv1
I0507 13:10:17.262595  1753 net.cpp:94] Creating Layer conv1
I0507 13:10:17.262599  1753 net.cpp:435] conv1 <- data
I0507 13:10:17.262605  1753 net.cpp:409] conv1 -> conv1
I0507 13:10:17.269004  1753 net.cpp:144] Setting up conv1
I0507 13:10:17.269021  1753 net.cpp:151] Top shape: 20 64 30 30 (1152000)
I0507 13:10:17.269024  1753 net.cpp:159] Memory required for data: 4680080
I0507 13:10:17.269034  1753 layer_factory.hpp:77] Creating layer relu1
I0507 13:10:17.269042  1753 net.cpp:94] Creating Layer relu1
I0507 13:10:17.269044  1753 net.cpp:435] relu1 <- conv1
I0507 13:10:17.269049  1753 net.cpp:396] relu1 -> conv1 (in-place)
I0507 13:10:17.269060  1753 net.cpp:144] Setting up relu1
I0507 13:10:17.269064  1753 net.cpp:151] Top shape: 20 64 30 30 (1152000)
I0507 13:10:17.269068  1753 net.cpp:159] Memory required for data: 9288080
I0507 13:10:17.269070  1753 layer_factory.hpp:77] Creating layer conv2
I0507 13:10:17.269078  1753 net.cpp:94] Creating Layer conv2
I0507 13:10:17.269081  1753 net.cpp:435] conv2 <- conv1
I0507 13:10:17.269085  1753 net.cpp:409] conv2 -> conv2
I0507 13:10:17.284811  1753 net.cpp:144] Setting up conv2
I0507 13:10:17.284826  1753 net.cpp:151] Top shape: 20 64 30 30 (1152000)
I0507 13:10:17.284831  1753 net.cpp:159] Memory required for data: 13896080
I0507 13:10:17.284837  1753 layer_factory.hpp:77] Creating layer relu2
I0507 13:10:17.284844  1753 net.cpp:94] Creating Layer relu2
I0507 13:10:17.284847  1753 net.cpp:435] relu2 <- conv2
I0507 13:10:17.284852  1753 net.cpp:396] relu2 -> conv2 (in-place)
I0507 13:10:17.284858  1753 net.cpp:144] Setting up relu2
I0507 13:10:17.284862  1753 net.cpp:151] Top shape: 20 64 30 30 (1152000)
I0507 13:10:17.284865  1753 net.cpp:159] Memory required for data: 18504080
I0507 13:10:17.284868  1753 layer_factory.hpp:77] Creating layer pool2
I0507 13:10:17.284880  1753 net.cpp:94] Creating Layer pool2
I0507 13:10:17.284884  1753 net.cpp:435] pool2 <- conv2
I0507 13:10:17.284888  1753 net.cpp:409] pool2 -> pool2
I0507 13:10:17.284939  1753 net.cpp:144] Setting up pool2
I0507 13:10:17.284945  1753 net.cpp:151] Top shape: 20 64 15 15 (288000)
I0507 13:10:17.284950  1753 net.cpp:159] Memory required for data: 19656080
I0507 13:10:17.284952  1753 layer_factory.hpp:77] Creating layer conv3
I0507 13:10:17.284960  1753 net.cpp:94] Creating Layer conv3
I0507 13:10:17.284963  1753 net.cpp:435] conv3 <- pool2
I0507 13:10:17.284968  1753 net.cpp:409] conv3 -> conv3
I0507 13:10:17.293254  1753 net.cpp:144] Setting up conv3
I0507 13:10:17.293268  1753 net.cpp:151] Top shape: 20 64 15 15 (288000)
I0507 13:10:17.293272  1753 net.cpp:159] Memory required for data: 20808080
I0507 13:10:17.293282  1753 layer_factory.hpp:77] Creating layer relu3
I0507 13:10:17.293287  1753 net.cpp:94] Creating Layer relu3
I0507 13:10:17.293290  1753 net.cpp:435] relu3 <- conv3
I0507 13:10:17.293294  1753 net.cpp:396] relu3 -> conv3 (in-place)
I0507 13:10:17.293301  1753 net.cpp:144] Setting up relu3
I0507 13:10:17.293305  1753 net.cpp:151] Top shape: 20 64 15 15 (288000)
I0507 13:10:17.293308  1753 net.cpp:159] Memory required for data: 21960080
I0507 13:10:17.293311  1753 layer_factory.hpp:77] Creating layer conv4
I0507 13:10:17.293319  1753 net.cpp:94] Creating Layer conv4
I0507 13:10:17.293323  1753 net.cpp:435] conv4 <- conv3
I0507 13:10:17.293328  1753 net.cpp:409] conv4 -> conv4
I0507 13:10:17.300748  1753 net.cpp:144] Setting up conv4
I0507 13:10:17.300763  1753 net.cpp:151] Top shape: 20 64 15 15 (288000)
I0507 13:10:17.300767  1753 net.cpp:159] Memory required for data: 23112080
I0507 13:10:17.300775  1753 layer_factory.hpp:77] Creating layer relu4
I0507 13:10:17.300779  1753 net.cpp:94] Creating Layer relu4
I0507 13:10:17.300783  1753 net.cpp:435] relu4 <- conv4
I0507 13:10:17.300787  1753 net.cpp:396] relu4 -> conv4 (in-place)
I0507 13:10:17.300794  1753 net.cpp:144] Setting up relu4
I0507 13:10:17.300798  1753 net.cpp:151] Top shape: 20 64 15 15 (288000)
I0507 13:10:17.300801  1753 net.cpp:159] Memory required for data: 24264080
I0507 13:10:17.300804  1753 layer_factory.hpp:77] Creating layer conv5
I0507 13:10:17.300812  1753 net.cpp:94] Creating Layer conv5
I0507 13:10:17.300815  1753 net.cpp:435] conv5 <- conv4
I0507 13:10:17.300819  1753 net.cpp:409] conv5 -> conv5
I0507 13:10:17.308130  1753 net.cpp:144] Setting up conv5
I0507 13:10:17.308145  1753 net.cpp:151] Top shape: 20 64 15 15 (288000)
I0507 13:10:17.308149  1753 net.cpp:159] Memory required for data: 25416080
I0507 13:10:17.308157  1753 layer_factory.hpp:77] Creating layer relu5
I0507 13:10:17.308163  1753 net.cpp:94] Creating Layer relu5
I0507 13:10:17.308167  1753 net.cpp:435] relu5 <- conv5
I0507 13:10:17.308172  1753 net.cpp:396] relu5 -> conv5 (in-place)
I0507 13:10:17.308179  1753 net.cpp:144] Setting up relu5
I0507 13:10:17.308183  1753 net.cpp:151] Top shape: 20 64 15 15 (288000)
I0507 13:10:17.308187  1753 net.cpp:159] Memory required for data: 26568080
I0507 13:10:17.308189  1753 layer_factory.hpp:77] Creating layer pool5
I0507 13:10:17.308194  1753 net.cpp:94] Creating Layer pool5
I0507 13:10:17.308197  1753 net.cpp:435] pool5 <- conv5
I0507 13:10:17.308202  1753 net.cpp:409] pool5 -> pool5
I0507 13:10:17.308240  1753 net.cpp:144] Setting up pool5
I0507 13:10:17.308248  1753 net.cpp:151] Top shape: 20 64 7 7 (62720)
I0507 13:10:17.308251  1753 net.cpp:159] Memory required for data: 26818960
I0507 13:10:17.308254  1753 layer_factory.hpp:77] Creating layer ip1
I0507 13:10:17.308261  1753 net.cpp:94] Creating Layer ip1
I0507 13:10:17.308264  1753 net.cpp:435] ip1 <- pool5
I0507 13:10:17.308269  1753 net.cpp:409] ip1 -> ip1
I0507 13:10:17.313935  1753 net.cpp:144] Setting up ip1
I0507 13:10:17.313948  1753 net.cpp:151] Top shape: 20 64 (1280)
I0507 13:10:17.313951  1753 net.cpp:159] Memory required for data: 26824080
I0507 13:10:17.313957  1753 layer_factory.hpp:77] Creating layer ip2
I0507 13:10:17.313966  1753 net.cpp:94] Creating Layer ip2
I0507 13:10:17.313972  1753 net.cpp:435] ip2 <- ip1
I0507 13:10:17.313977  1753 net.cpp:409] ip2 -> ip2
I0507 13:10:17.314193  1753 net.cpp:144] Setting up ip2
I0507 13:10:17.314201  1753 net.cpp:151] Top shape: 20 64 (1280)
I0507 13:10:17.314204  1753 net.cpp:159] Memory required for data: 26829200
I0507 13:10:17.314209  1753 layer_factory.hpp:77] Creating layer ip3
I0507 13:10:17.314215  1753 net.cpp:94] Creating Layer ip3
I0507 13:10:17.314218  1753 net.cpp:435] ip3 <- ip2
I0507 13:10:17.314224  1753 net.cpp:409] ip3 -> ip3
I0507 13:10:17.314332  1753 net.cpp:144] Setting up ip3
I0507 13:10:17.314338  1753 net.cpp:151] Top shape: 20 1 (20)
I0507 13:10:17.314342  1753 net.cpp:159] Memory required for data: 26829280
I0507 13:10:17.314347  1753 layer_factory.hpp:77] Creating layer loss
I0507 13:10:17.314357  1753 net.cpp:94] Creating Layer loss
I0507 13:10:17.314359  1753 net.cpp:435] loss <- ip3
I0507 13:10:17.314363  1753 net.cpp:435] loss <- label
I0507 13:10:17.314368  1753 net.cpp:409] loss -> loss
I0507 13:10:17.314420  1753 net.cpp:144] Setting up loss
…
I0507 13:10:17.380226  1753 net.cpp:323] The NetState phase (0) differed from the phase (1) specified by a rule in layer intercept
I0507 13:10:17.380241  1753 net.cpp:323] The NetState phase (0) differed from the phase (1) specified by a rule in layer accuracy
I0507 13:10:17.380327  1753 net.cpp:52] Initializing net from parameters: 
state {
  phase: TRAIN
}
layer {
  name: "parameters"
  type: "HDF5Data"
  top: "data"
  top: "label"
  include {
    phase: TRAIN
  }
  hdf5_data_param {
    source: "/home/purduethu/scratch/radon/d/deng106/CNNStatisticalModel/distributions/input/5_distributions_900_sample_size_train-distributions-path.txt"
    batch_size: 20
  }
}
layer {
  name: "conv1"
  type: "Convolution"
  bottom: "data"
  top: "conv1"
  param {
    lr_mult: 1
  }
  param {
    lr_mult: 2
  }
  convolution_param {
    num_output: 64
    pad: 2
    kernel_size: 5
    stride: 1
    weight_filler {
      type: "gaussian"
      std: 0.0001
    }
    bias_filler {
      type: "constant"
    }
  }
}
layer {
  name: "relu1"
  type: "ReLU"
  bottom: "conv1"
  top: "conv1"
}
layer {
  name: "conv2"
  type: "Convolution"
  bottom: "conv1"
  top: "conv2"
  param {
    lr_mult: 1
  }
  param {
    lr_mult: 2
  }
  convolution_param {
    num_output: 64
    pad: 2
    kernel_size: 5
    stride: 1
    weight_filler {
      type: "gaussian"
      std: 0.01
    }
    bias_filler {
      type: "constant"
    }
  }
}
layer {
  name: "relu2"
  type: "ReLU"
  bottom: "conv2"
  top: "conv2"
}
layer {
  name: "pool2"
  type: "Pooling"
  bottom: "conv2"
  top: "pool2"
  pooling_param {
    pool: MAX
    kernel_size: 3
    stride: 2
  }
}
layer {
  name: "conv3"
  type: "Convolution"
  bottom: "pool2"
  top: "conv3"
  param {
    lr_mult: 1
  }
  param {
    lr_mult: 2
  }
  convolution_param {
    num_output: 64
    pad: 2
    kernel_size: 5
    stride: 1
    weight_filler {
      type: "gaussian"
      std: 0.01
    }
    bias_filler {
      type: "constant"
    }
  }
}
layer {
  name: "relu3"
  type: "ReLU"
  bottom: "conv3"
  top: "conv3"
}
layer {
  name: "conv4"
  type: "Convolution"
  bottom: "conv3"
  top: "conv4"
  param {
    lr_mult: 1
  }
  param {
    lr_mult: 2
  }
  convolution_param {
    num_output: 64
    pad: 2
    kernel_size: 5
    stride: 1
    weight_filler {
      type: "gaussian"
      std: 0.01
    }
    bias_filler {
      type: "constant"
    }
  }
}
layer {
  name: "relu4"
  type: "ReLU"
  bottom: "conv4"
  top: "conv4"
}
layer {
  name: "conv5"
  type: "Convolution"
  bottom: "conv4"
  top: "conv5"
  param {
    lr_mult: 1
  }
  param {
    lr_mult: 2
  }
  convolution_param {
    num_output: 64
    pad: 2
    kernel_size: 5
    stride: 1
    weight_filler {
      type: "gaussian"
      std: 0.01
    }
    bias_filler {
      type: "constant"
    }
  }
}
layer {
  name: "relu5"
  type: "ReLU"
  bottom: "conv5"
  top: "conv5"
}
layer {
  name: "pool5"
  type: "Pooling"
  bottom: "conv5"
  top: "pool5"
  pooling_param {
    pool: AVE
    kernel_size: 3
    stride: 2
  }
}
layer {
  name: "ip1"
  type: "InnerProduct"
  bottom: "pool5"
  top: "ip1"
  param {
    lr_mult: 1
  }
  param {
    lr_mult: 2
  }
  inner_product_param {
    num_output: 64
    weight_filler {
      type: "gaussian"
      std: 0.1
    }
    bias_filler {
      type: "constant"
    }
  }
}
layer {
  name: "ip2"
  type: "InnerProduct"
  bottom: "ip1"
  top: "ip2"
  param {
    lr_mult: 1
  }
  param {
    lr_mult: 2
  }
  inner_product_param {
    num_output: 64
    weight_filler {
      type: "gaussian"
      std: 0.1
    }
    bias_filler {
      type: "constant"
    }
  }
}
layer {
  name: "ip3"
  type: "InnerProduct"
  bottom: "ip2"
  top: "ip3"
  param {
    lr_mult: 1
  }
  param {
    lr_mult: 2
  }
  inner_product_param {
    num_output: 50
    weight_filler {
      type: "gaussian"
      std: 0.1
    }
    bias_filler {
      type: "constant"
    }
  }
}
layer {
  name: "loss"
  type: "SoftmaxWithLoss"
  bottom: "ip3"
  bottom: "label"
  top: "loss"
}
I0507 13:10:17.380378  1753 layer_factory.hpp:77] Creating layer parameters
I0507 13:10:17.380385  1753 net.cpp:94] Creating Layer parameters
I0507 13:10:17.380388  1753 net.cpp:409] parameters -> data
I0507 13:10:17.380395  1753 net.cpp:409] parameters -> label
I0507 13:10:17.380400  1753 hdf5_data_layer.cpp:79] Loading list of HDF5 filenames from: /home/purduethu/scratch/radon/d/deng106/CNNStatisticalModel/distributions/input/5_distributions_900_sample_size_train-distributions-path.txt
I0507 13:10:17.380419  1753 hdf5_data_layer.cpp:93] Number of HDF5 files: 1
I0507 13:10:17.513317  1753 hdf5.cpp:35] Datatype class: H5T_INTEGER
I0507 13:10:17.513742  1753 net.cpp:144] Setting up parameters
I0507 13:10:17.513756  1753 net.cpp:151] Top shape: 20 1 30 30 (18000)
I0507 13:10:17.513761  1753 net.cpp:151] Top shape: 20 (20)
I0507 13:10:17.513764  1753 net.cpp:159] Memory required for data: 72080
I0507 13:10:17.513770  1753 layer_factory.hpp:77] Creating layer conv1
I0507 13:10:17.513787  1753 net.cpp:94] Creating Layer conv1
I0507 13:10:17.513790  1753 net.cpp:435] conv1 <- data
I0507 13:10:17.513797  1753 net.cpp:409] conv1 -> conv1
I0507 13:10:17.517179  1753 net.cpp:144] Setting up conv1
I0507 13:10:17.517194  1753 net.cpp:151] Top shape: 20 64 30 30 (1152000)
I0507 13:10:17.517199  1753 net.cpp:159] Memory required for data: 4680080
I0507 13:10:17.517207  1753 layer_factory.hpp:77] Creating layer relu1
I0507 13:10:17.517215  1753 net.cpp:94] Creating Layer relu1
I0507 13:10:17.517218  1753 net.cpp:435] relu1 <- conv1
I0507 13:10:17.517222  1753 net.cpp:396] relu1 -> conv1 (in-place)
I0507 13:10:17.517230  1753 net.cpp:144] Setting up relu1
I0507 13:10:17.517235  1753 net.cpp:151] Top shape: 20 64 30 30 (1152000)
I0507 13:10:17.517237  1753 net.cpp:159] Memory required for data: 9288080
I0507 13:10:17.517241  1753 layer_factory.hpp:77] Creating layer conv2
I0507 13:10:17.517247  1753 net.cpp:94] Creating Layer conv2
I0507 13:10:17.517251  1753 net.cpp:435] conv2 <- conv1
I0507 13:10:17.517256  1753 net.cpp:409] conv2 -> conv2
I0507 13:10:17.532100  1753 net.cpp:144] Setting up conv2
I0507 13:10:17.532140  1753 net.cpp:151] Top shape: 20 64 30 30 (1152000)
I0507 13:10:17.532150  1753 net.cpp:159] Memory required for data: 13896080
I0507 13:10:17.532172  1753 layer_factory.hpp:77] Creating layer relu2
I0507 13:10:17.532189  1753 net.cpp:94] Creating Layer relu2
I0507 13:10:17.532199  1753 net.cpp:435] relu2 <- conv2
I0507 13:10:17.532212  1753 net.cpp:396] relu2 -> conv2 (in-place)
I0507 13:10:17.532230  1753 net.cpp:144] Setting up relu2
I0507 13:10:17.532243  1753 net.cpp:151] Top shape: 20 64 30 30 (1152000)
I0507 13:10:17.532251  1753 net.cpp:159] Memory required for data: 18504080
I0507 13:10:17.532259  1753 layer_factory.hpp:77] Creating layer pool2
I0507 13:10:17.532274  1753 net.cpp:94] Creating Layer pool2
I0507 13:10:17.532281  1753 net.cpp:435] pool2 <- conv2
I0507 13:10:17.532294  1753 net.cpp:409] pool2 -> pool2
I0507 13:10:17.532429  1753 net.cpp:144] Setting up pool2
I0507 13:10:17.532449  1753 net.cpp:151] Top shape: 20 64 15 15 (288000)
I0507 13:10:17.532457  1753 net.cpp:159] Memory required for data: 19656080
I0507 13:10:17.532466  1753 layer_factory.hpp:77] Creating layer conv3
I0507 13:10:17.532485  1753 net.cpp:94] Creating Layer conv3
I0507 13:10:17.532495  1753 net.cpp:435] conv3 <- pool2
I0507 13:10:17.532521  1753 net.cpp:409] conv3 -> conv3
I0507 13:10:17.542035  1753 net.cpp:144] Setting up conv3
I0507 13:10:17.542053  1753 net.cpp:151] Top shape: 20 64 15 15 (288000)
I0507 13:10:17.542058  1753 net.cpp:159] Memory required for data: 20808080
I0507 13:10:17.542068  1753 layer_factory.hpp:77] Creating layer relu3
I0507 13:10:17.542074  1753 net.cpp:94] Creating Layer relu3
I0507 13:10:17.542078  1753 net.cpp:435] relu3 <- conv3
I0507 13:10:17.542083  1753 net.cpp:396] relu3 -> conv3 (in-place)
I0507 13:10:17.542093  1753 net.cpp:144] Setting up relu3
I0507 13:10:17.542098  1753 net.cpp:151] Top shape: 20 64 15 15 (288000)
I0507 13:10:17.542100  1753 net.cpp:159] Memory required for data: 21960080
I0507 13:10:17.542104  1753 layer_factory.hpp:77] Creating layer conv4
I0507 13:10:17.542114  1753 net.cpp:94] Creating Layer conv4
I0507 13:10:17.542119  1753 net.cpp:435] conv4 <- conv3
I0507 13:10:17.542124  1753 net.cpp:409] conv4 -> conv4
I0507 13:10:17.550407  1753 net.cpp:144] Setting up conv4
I0507 13:10:17.550446  1753 net.cpp:151] Top shape: 20 64 15 15 (288000)
I0507 13:10:17.550457  1753 net.cpp:159] Memory required for data: 23112080
I0507 13:10:17.550474  1753 layer_factory.hpp:77] Creating layer relu4
I0507 13:10:17.550488  1753 net.cpp:94] Creating Layer relu4
I0507 13:10:17.550498  1753 net.cpp:435] relu4 <- conv4
I0507 13:10:17.550511  1753 net.cpp:396] relu4 -> conv4 (in-place)
I0507 13:10:17.550530  1753 net.cpp:144] Setting up relu4
I0507 13:10:17.550542  1753 net.cpp:151] Top shape: 20 64 15 15 (288000)
I0507 13:10:17.550551  1753 net.cpp:159] Memory required for data: 24264080
I0507 13:10:17.550559  1753 layer_factory.hpp:77] Creating layer conv5
I0507 13:10:17.550585  1753 net.cpp:94] Creating Layer conv5
I0507 13:10:17.550590  1753 net.cpp:435] conv5 <- conv4
I0507 13:10:17.550595  1753 net.cpp:409] conv5 -> conv5
I0507 13:10:17.560019  1753 net.cpp:144] Setting up conv5
I0507 13:10:17.560036  1753 net.cpp:151] Top shape: 20 64 15 15 (288000)
I0507 13:10:17.560041  1753 net.cpp:159] Memory required for data: 25416080
I0507 13:10:17.560051  1753 layer_factory.hpp:77] Creating layer relu5
I0507 13:10:17.560058  1753 net.cpp:94] Creating Layer relu5
I0507 13:10:17.560062  1753 net.cpp:435] relu5 <- conv5
I0507 13:10:17.560068  1753 net.cpp:396] relu5 -> conv5 (in-place)
I0507 13:10:17.560076  1753 net.cpp:144] Setting up relu5
I0507 13:10:17.560081  1753 net.cpp:151] Top shape: 20 64 15 15 (288000)
I0507 13:10:17.560084  1753 net.cpp:159] Memory required for data: 26568080
I0507 13:10:17.560088  1753 layer_factory.hpp:77] Creating layer pool5
I0507 13:10:17.560094  1753 net.cpp:94] Creating Layer pool5
I0507 13:10:17.560097  1753 net.cpp:435] pool5 <- conv5
I0507 13:10:17.560102  1753 net.cpp:409] pool5 -> pool5
I0507 13:10:17.560148  1753 net.cpp:144] Setting up pool5
I0507 13:10:17.560158  1753 net.cpp:151] Top shape: 20 64 7 7 (62720)
I0507 13:10:17.560160  1753 net.cpp:159] Memory required for data: 26818960
I0507 13:10:17.560164  1753 layer_factory.hpp:77] Creating layer ip1
I0507 13:10:17.560171  1753 net.cpp:94] Creating Layer ip1
I0507 13:10:17.560175  1753 net.cpp:435] ip1 <- pool5
I0507 13:10:17.560181  1753 net.cpp:409] ip1 -> ip1
I0507 13:10:17.566223  1753 net.cpp:144] Setting up ip1
I0507 13:10:17.566234  1753 net.cpp:151] Top shape: 20 64 (1280)
I0507 13:10:17.566238  1753 net.cpp:159] Memory required for data: 26824080
I0507 13:10:17.566244  1753 layer_factory.hpp:77] Creating layer ip2
I0507 13:10:17.566252  1753 net.cpp:94] Creating Layer ip2
I0507 13:10:17.566256  1753 net.cpp:435] ip2 <- ip1
I0507 13:10:17.566262  1753 net.cpp:409] ip2 -> ip2
I0507 13:10:17.566532  1753 net.cpp:144] Setting up ip2
I0507 13:10:17.566541  1753 net.cpp:151] Top shape: 20 64 (1280)
I0507 13:10:17.566545  1753 net.cpp:159] Memory required for data: 26829200
I0507 13:10:17.566551  1753 layer_factory.hpp:77] Creating layer ip3
I0507 13:10:17.566557  1753 net.cpp:94] Creating Layer ip3
I0507 13:10:17.566561  1753 net.cpp:435] ip3 <- ip2
I0507 13:10:17.566570  1753 net.cpp:409] ip3 -> ip3
I0507 13:10:17.566812  1753 net.cpp:144] Setting up ip3
I0507 13:10:17.566821  1753 net.cpp:151] Top shape: 20 50 (1000)
I0507 13:10:17.566824  1753 net.cpp:159] Memory required for data: 26833200
I0507 13:10:17.566830  1753 layer_factory.hpp:77] Creating layer loss
I0507 13:10:17.566839  1753 net.cpp:94] Creating Layer loss
I0507 13:10:17.566843  1753 net.cpp:435] loss <- ip3
I0507 13:10:17.566848  1753 net.cpp:435] loss <- label
I0507 13:10:17.566853  1753 net.cpp:409] loss -> loss
I0507 13:10:17.566860  1753 layer_factory.hpp:77] Creating layer loss
…
I0507 13:10:17.567482  1753 solver.cpp:181] Creating test net (#0) specified by net file: ./protocol/dis_5_900_dimension.protocol_distribution
I0507 13:10:17.567513  1753 net.cpp:323] The NetState phase (1) differed from the phase (0) specified by a rule in layer parameters
I0507 13:10:17.567633  1753 net.cpp:52] Initializing net from parameters: 
state {
  phase: TEST
}
layer {
  name: "intercept"
  type: "HDF5Data"
  top: "data"
  top: "label"
  include {
    phase: TEST
  }
  hdf5_data_param {
    source: "/home/purduethu/scratch/radon/d/deng106/CNNStatisticalModel/distributions/input/5_distributions_900_sample_size_test-distributions-path.txt"
    batch_size: 20
  }
}
layer {
  name: "conv1"
  type: "Convolution"
  bottom: "data"
  top: "conv1"
  param {
    lr_mult: 1
  }
  param {
    lr_mult: 2
  }
  convolution_param {
    num_output: 64
    pad: 2
    kernel_size: 5
    stride: 1
    weight_filler {
      type: "gaussian"
      std: 0.0001
    }
    bias_filler {
      type: "constant"
    }
  }
}
layer {
  name: "relu1"
  type: "ReLU"
  bottom: "conv1"
  top: "conv1"
}
layer {
  name: "conv2"
  type: "Convolution"
  bottom: "conv1"
  top: "conv2"
  param {
    lr_mult: 1
  }
  param {
    lr_mult: 2
  }
  convolution_param {
    num_output: 64
    pad: 2
    kernel_size: 5
    stride: 1
    weight_filler {
      type: "gaussian"
      std: 0.01
    }
    bias_filler {
      type: "constant"
    }
  }
}
layer {
  name: "relu2"
  type: "ReLU"
  bottom: "conv2"
  top: "conv2"
}
layer {
  name: "pool2"
  type: "Pooling"
  bottom: "conv2"
  top: "pool2"
  pooling_param {
    pool: MAX
    kernel_size: 3
    stride: 2
  }
}
layer {
  name: "conv3"
  type: "Convolution"
  bottom: "pool2"
  top: "conv3"
  param {
    lr_mult: 1
  }
  param {
    lr_mult: 2
  }
  convolution_param {
    num_output: 64
    pad: 2
    kernel_size: 5
    stride: 1
    weight_filler {
      type: "gaussian"
      std: 0.01
    }
    bias_filler {
      type: "constant"
    }
  }
}
layer {
  name: "relu3"
  type: "ReLU"
  bottom: "conv3"
  top: "conv3"
}
layer {
  name: "conv4"
  type: "Convolution"
  bottom: "conv3"
  top: "conv4"
  param {
    lr_mult: 1
  }
  param {
    lr_mult: 2
  }
  convolution_param {
    num_output: 64
    pad: 2
    kernel_size: 5
    stride: 1
    weight_filler {
      type: "gaussian"
      std: 0.01
    }
    bias_filler {
      type: "constant"
    }
  }
}
layer {
  name: "relu4"
  type: "ReLU"
  bottom: "conv4"
  top: "conv4"
}
layer {
  name: "conv5"
  type: "Convolution"
  bottom: "conv4"
  top: "conv5"
  param {
    lr_mult: 1
  }
  param {
    lr_mult: 2
  }
  convolution_param {
    num_output: 64
    pad: 2
    kernel_size: 5
    stride: 1
    weight_filler {
      type: "gaussian"
      std: 0.01
    }
    bias_filler {
      type: "constant"
    }
  }
}
layer {
  name: "relu5"
  type: "ReLU"
  bottom: "conv5"
  top: "conv5"
}
layer {
  name: "pool5"
  type: "Pooling"
  bottom: "conv5"
  top: "pool5"
  pooling_param {
    pool: AVE
    kernel_size: 3
    stride: 2
  }
}
layer {
  name: "ip1"
  type: "InnerProduct"
  bottom: "pool5"
  top: "ip1"
  param {
    lr_mult: 1
  }
  param {
    lr_mult: 2
  }
  inner_product_param {
    num_output: 64
    weight_filler {
      type: "gaussian"
      std: 0.1
    }
    bias_filler {
      type: "constant"
    }
  }
}
layer {
  name: "ip2"
  type: "InnerProduct"
  bottom: "ip1"
  top: "ip2"
  param {
    lr_mult: 1
  }
  param {
    lr_mult: 2
  }
  inner_product_param {
    num_output: 64
    weight_filler {
      type: "gaussian"
      std: 0.1
    }
    bias_filler {
      type: "constant"
    }
  }
}
layer {
  name: "ip3"
  type: "InnerProduct"
  bottom: "ip2"
  top: "ip3"
  param {
    lr_mult: 1
  }
  param {
    lr_mult: 2
  }
  inner_product_param {
    num_output: 50
    weight_filler {
      type: "gaussian"
      std: 0.1
    }
    bias_filler {
      type: "constant"
    }
  }
}
layer {
  name: "accuracy"
  type: "Accuracy"
  bottom: "ip3"
  bottom: "label"
  top: "accuracy"
  include {
    phase: TEST
  }
}
layer {
  name: "loss"
  type: "SoftmaxWithLoss"
  bottom: "ip3"
  bottom: "label"
  top: "loss"
}
I0507 13:10:17.567716  1753 layer_factory.hpp:77] Creating layer intercept
I0507 13:10:17.567726  1753 net.cpp:94] Creating Layer intercept
I0507 13:10:17.567731  1753 net.cpp:409] intercept -> data
I0507 13:10:17.567739  1753 net.cpp:409] intercept -> label
I0507 13:10:17.567745  1753 hdf5_data_layer.cpp:79] Loading list of HDF5 filenames from: /home/purduethu/scratch/radon/d/deng106/CNNStatisticalModel/distributions/input/5_distributions_900_sample_size_test-distributions-path.txt
I0507 13:10:17.567769  1753 hdf5_data_layer.cpp:93] Number of HDF5 files: 1
I0507 13:10:17.606715  1753 net.cpp:144] Setting up intercept
I0507 13:10:17.606750  1753 net.cpp:151] Top shape: 20 1 30 30 (18000)
I0507 13:10:17.606755  1753 net.cpp:151] Top shape: 20 (20)
I0507 13:10:17.606760  1753 net.cpp:159] Memory required for data: 72080
I0507 13:10:17.606766  1753 layer_factory.hpp:77] Creating layer label_intercept_1_split
I0507 13:10:17.606784  1753 net.cpp:94] Creating Layer label_intercept_1_split
I0507 13:10:17.606788  1753 net.cpp:435] label_intercept_1_split <- label
I0507 13:10:17.606796  1753 net.cpp:409] label_intercept_1_split -> label_intercept_1_split_0
I0507 13:10:17.606803  1753 net.cpp:409] label_intercept_1_split -> label_intercept_1_split_1
I0507 13:10:17.606849  1753 net.cpp:144] Setting up label_intercept_1_split
I0507 13:10:17.606856  1753 net.cpp:151] Top shape: 20 (20)
I0507 13:10:17.606860  1753 net.cpp:151] Top shape: 20 (20)
I0507 13:10:17.606863  1753 net.cpp:159] Memory required for data: 72240
I0507 13:10:17.606866  1753 layer_factory.hpp:77] Creating layer conv1
I0507 13:10:17.606878  1753 net.cpp:94] Creating Layer conv1
I0507 13:10:17.606881  1753 net.cpp:435] conv1 <- data
I0507 13:10:17.606886  1753 net.cpp:409] conv1 -> conv1
I0507 13:10:17.608402  1753 net.cpp:144] Setting up conv1
I0507 13:10:17.608422  1753 net.cpp:151] Top shape: 20 64 30 30 (1152000)
I0507 13:10:17.608428  1753 net.cpp:159] Memory required for data: 4680240
I0507 13:10:17.608438  1753 layer_factory.hpp:77] Creating layer relu1
I0507 13:10:17.608445  1753 net.cpp:94] Creating Layer relu1
I0507 13:10:17.608449  1753 net.cpp:435] relu1 <- conv1
I0507 13:10:17.608454  1753 net.cpp:396] relu1 -> conv1 (in-place)
I0507 13:10:17.608463  1753 net.cpp:144] Setting up relu1
I0507 13:10:17.608467  1753 net.cpp:151] Top shape: 20 64 30 30 (1152000)
I0507 13:10:17.608470  1753 net.cpp:159] Memory required for data: 9288240
I0507 13:10:17.608474  1753 layer_factory.hpp:77] Creating layer conv2
I0507 13:10:17.608482  1753 net.cpp:94] Creating Layer conv2
I0507 13:10:17.608485  1753 net.cpp:435] conv2 <- conv1
I0507 13:10:17.608490  1753 net.cpp:409] conv2 -> conv2
I0507 13:10:17.615290  1753 net.cpp:144] Setting up conv2
I0507 13:10:17.615306  1753 net.cpp:151] Top shape: 20 64 30 30 (1152000)
I0507 13:10:17.615311  1753 net.cpp:159] Memory required for data: 13896240
I0507 13:10:17.615319  1753 layer_factory.hpp:77] Creating layer relu2
I0507 13:10:17.615326  1753 net.cpp:94] Creating Layer relu2
I0507 13:10:17.615330  1753 net.cpp:435] relu2 <- conv2
I0507 13:10:17.615335  1753 net.cpp:396] relu2 -> conv2 (in-place)
I0507 13:10:17.615342  1753 net.cpp:144] Setting up relu2
I0507 13:10:17.615347  1753 net.cpp:151] Top shape: 20 64 30 30 (1152000)
I0507 13:10:17.615350  1753 net.cpp:159] Memory required for data: 18504240
I0507 13:10:17.615353  1753 layer_factory.hpp:77] Creating layer pool2
I0507 13:10:17.615360  1753 net.cpp:94] Creating Layer pool2
I0507 13:10:17.615363  1753 net.cpp:435] pool2 <- conv2
I0507 13:10:17.615367  1753 net.cpp:409] pool2 -> pool2
I0507 13:10:17.615424  1753 net.cpp:144] Setting up pool2
I0507 13:10:17.615432  1753 net.cpp:151] Top shape: 20 64 15 15 (288000)
I0507 13:10:17.615435  1753 net.cpp:159] Memory required for data: 19656240
I0507 13:10:17.615439  1753 layer_factory.hpp:77] Creating layer conv3
I0507 13:10:17.615447  1753 net.cpp:94] Creating Layer conv3
I0507 13:10:17.615452  1753 net.cpp:435] conv3 <- pool2
I0507 13:10:17.615456  1753 net.cpp:409] conv3 -> conv3
I0507 13:10:17.620863  1753 net.cpp:144] Setting up conv3
I0507 13:10:17.620879  1753 net.cpp:151] Top shape: 20 64 15 15 (288000)
I0507 13:10:17.620883  1753 net.cpp:159] Memory required for data: 20808240
I0507 13:10:17.620893  1753 layer_factory.hpp:77] Creating layer relu3
I0507 13:10:17.620899  1753 net.cpp:94] Creating Layer relu3
I0507 13:10:17.620903  1753 net.cpp:435] relu3 <- conv3
I0507 13:10:17.620908  1753 net.cpp:396] relu3 -> conv3 (in-place)
I0507 13:10:17.620915  1753 net.cpp:144] Setting up relu3
I0507 13:10:17.620919  1753 net.cpp:151] Top shape: 20 64 15 15 (288000)
I0507 13:10:17.620923  1753 net.cpp:159] Memory required for data: 21960240
I0507 13:10:17.620926  1753 layer_factory.hpp:77] Creating layer conv4
I0507 13:10:17.620934  1753 net.cpp:94] Creating Layer conv4
I0507 13:10:17.620937  1753 net.cpp:435] conv4 <- conv3
I0507 13:10:17.620942  1753 net.cpp:409] conv4 -> conv4
I0507 13:10:17.626802  1753 net.cpp:144] Setting up conv4
I0507 13:10:17.626818  1753 net.cpp:151] Top shape: 20 64 15 15 (288000)
I0507 13:10:17.626823  1753 net.cpp:159] Memory required for data: 23112240
I0507 13:10:17.626830  1753 layer_factory.hpp:77] Creating layer relu4
I0507 13:10:17.626837  1753 net.cpp:94] Creating Layer relu4
I0507 13:10:17.626840  1753 net.cpp:435] relu4 <- conv4
I0507 13:10:17.626845  1753 net.cpp:396] relu4 -> conv4 (in-place)
I0507 13:10:17.626853  1753 net.cpp:144] Setting up relu4
I0507 13:10:17.626857  1753 net.cpp:151] Top shape: 20 64 15 15 (288000)
I0507 13:10:17.626862  1753 net.cpp:159] Memory required for data: 24264240
I0507 13:10:17.626864  1753 layer_factory.hpp:77] Creating layer conv5
I0507 13:10:17.626873  1753 net.cpp:94] Creating Layer conv5
I0507 13:10:17.626876  1753 net.cpp:435] conv5 <- conv4
I0507 13:10:17.626881  1753 net.cpp:409] conv5 -> conv5
I0507 13:10:17.631728  1753 net.cpp:144] Setting up conv5
I0507 13:10:17.631747  1753 net.cpp:151] Top shape: 20 64 15 15 (288000)
I0507 13:10:17.631752  1753 net.cpp:159] Memory required for data: 25416240
I0507 13:10:17.631762  1753 layer_factory.hpp:77] Creating layer relu5
I0507 13:10:17.631767  1753 net.cpp:94] Creating Layer relu5
I0507 13:10:17.631772  1753 net.cpp:435] relu5 <- conv5
I0507 13:10:17.631775  1753 net.cpp:396] relu5 -> conv5 (in-place)
I0507 13:10:17.631783  1753 net.cpp:144] Setting up relu5
I0507 13:10:17.631788  1753 net.cpp:151] Top shape: 20 64 15 15 (288000)
I0507 13:10:17.631790  1753 net.cpp:159] Memory required for data: 26568240
I0507 13:10:17.631793  1753 layer_factory.hpp:77] Creating layer pool5
I0507 13:10:17.631798  1753 net.cpp:94] Creating Layer pool5
I0507 13:10:17.631803  1753 net.cpp:435] pool5 <- conv5
I0507 13:10:17.631806  1753 net.cpp:409] pool5 -> pool5
I0507 13:10:17.631844  1753 net.cpp:144] Setting up pool5
I0507 13:10:17.631851  1753 net.cpp:151] Top shape: 20 64 7 7 (62720)
I0507 13:10:17.631855  1753 net.cpp:159] Memory required for data: 26819120
I0507 13:10:17.631858  1753 layer_factory.hpp:77] Creating layer ip1
I0507 13:10:17.631865  1753 net.cpp:94] Creating Layer ip1
I0507 13:10:17.631868  1753 net.cpp:435] ip1 <- pool5
I0507 13:10:17.631873  1753 net.cpp:409] ip1 -> ip1
I0507 13:10:17.637187  1753 net.cpp:144] Setting up ip1
I0507 13:10:17.637197  1753 net.cpp:151] Top shape: 20 64 (1280)
I0507 13:10:17.637199  1753 net.cpp:159] Memory required for data: 26824240
I0507 13:10:17.637205  1753 layer_factory.hpp:77] Creating layer ip2
I0507 13:10:17.637212  1753 net.cpp:94] Creating Layer ip2
I0507 13:10:17.637215  1753 net.cpp:435] ip2 <- ip1
I0507 13:10:17.637220  1753 net.cpp:409] ip2 -> ip2
I0507 13:10:17.637459  1753 net.cpp:144] Setting up ip2
I0507 13:10:17.637467  1753 net.cpp:151] Top shape: 20 64 (1280)
I0507 13:10:17.637470  1753 net.cpp:159] Memory required for data: 26829360
I0507 13:10:17.637475  1753 layer_factory.hpp:77] Creating layer ip3
I0507 13:10:17.637483  1753 net.cpp:94] Creating Layer ip3
I0507 13:10:17.637486  1753 net.cpp:435] ip3 <- ip2
I0507 13:10:17.637491  1753 net.cpp:409] ip3 -> ip3
I0507 13:10:17.637697  1753 net.cpp:144] Setting up ip3
I0507 13:10:17.637704  1753 net.cpp:151] Top shape: 20 50 (1000)
I0507 13:10:17.637707  1753 net.cpp:159] Memory required for data: 26833360
I0507 13:10:17.637712  1753 layer_factory.hpp:77] Creating layer ip3_ip3_0_split
I0507 13:10:17.637718  1753 net.cpp:94] Creating Layer ip3_ip3_0_split
I0507 13:10:17.637722  1753 net.cpp:435] ip3_ip3_0_split <- ip3
I0507 13:10:17.637725  1753 net.cpp:409] ip3_ip3_0_split -> ip3_ip3_0_split_0
I0507 13:10:17.637732  1753 net.cpp:409] ip3_ip3_0_split -> ip3_ip3_0_split_1
I0507 13:10:17.637773  1753 net.cpp:144] Setting up ip3_ip3_0_split
I0507 13:10:17.637778  1753 net.cpp:151] Top shape: 20 50 (1000)
I0507 13:10:17.637781  1753 net.cpp:151] Top shape: 20 50 (1000)
I0507 13:10:17.637784  1753 net.cpp:159] Memory required for data: 26841360
I0507 13:10:17.637787  1753 layer_factory.hpp:77] Creating layer accuracy
I0507 13:10:17.637794  1753 net.cpp:94] Creating Layer accuracy
I0507 13:10:17.637796  1753 net.cpp:435] accuracy <- ip3_ip3_0_split_0
I0507 13:10:17.637800  1753 net.cpp:435] accuracy <- label_intercept_1_split_0
I0507 13:10:17.637805  1753 net.cpp:409] accuracy -> accuracy
…
