…
I0504 08:57:40.518223 25934 net.cpp:323] The NetState phase (0) differed from the phase (1) specified by a rule in layer intercept
I0504 08:57:40.518239 25934 net.cpp:323] The NetState phase (0) differed from the phase (1) specified by a rule in layer loss
I0504 08:57:40.518316 25934 net.cpp:52] Initializing net from parameters: 
state {
  phase: TRAIN
}
layer {
  name: "parameters"
  type: "HDF5Data"
  top: "data"
  top: "label"
  include {
    phase: TRAIN
  }
  hdf5_data_param {
    source: "/home/purduethu/scratch/radon/d/deng106/CNNStatisticalModel/distributions/input/5_distributions_900_sample_size_train-parameters-path.txt"
    batch_size: 20
  }
}
layer {
  name: "conv1"
  type: "Convolution"
  bottom: "data"
  top: "conv1"
  param {
    lr_mult: 1
  }
  param {
    lr_mult: 2
  }
  convolution_param {
    num_output: 64
    pad: 2
    kernel_size: 5
    stride: 1
    weight_filler {
      type: "gaussian"
      std: 0.0001
    }
    bias_filler {
      type: "constant"
    }
  }
}
layer {
  name: "relu1"
  type: "ReLU"
  bottom: "conv1"
  top: "conv1"
}
layer {
  name: "conv2"
  type: "Convolution"
  bottom: "conv1"
  top: "conv2"
  param {
    lr_mult: 1
  }
  param {
    lr_mult: 2
  }
  convolution_param {
    num_output: 64
    pad: 2
    kernel_size: 5
    stride: 1
    weight_filler {
      type: "gaussian"
      std: 0.01
    }
    bias_filler {
      type: "constant"
    }
  }
}
layer {
  name: "relu2"
  type: "ReLU"
  bottom: "conv2"
  top: "conv2"
}
layer {
  name: "pool2"
  type: "Pooling"
  bottom: "conv2"
  top: "pool2"
  pooling_param {
    pool: MAX
    kernel_size: 3
    stride: 2
  }
}
layer {
  name: "conv3"
  type: "Convolution"
  bottom: "pool2"
  top: "conv3"
  param {
    lr_mult: 1
  }
  param {
    lr_mult: 2
  }
  convolution_param {
    num_output: 128
    pad: 2
    kernel_size: 5
    stride: 1
    weight_filler {
      type: "gaussian"
      std: 0.01
    }
    bias_filler {
      type: "constant"
    }
  }
}
layer {
  name: "relu3"
  type: "ReLU"
  bottom: "conv3"
  top: "conv3"
}
layer {
  name: "conv4"
  type: "Convolution"
  bottom: "conv3"
  top: "conv4"
  param {
    lr_mult: 1
  }
  param {
    lr_mult: 2
  }
  convolution_param {
    num_output: 128
    pad: 2
    kernel_size: 5
    stride: 1
    weight_filler {
      type: "gaussian"
      std: 0.01
    }
    bias_filler {
      type: "constant"
    }
  }
}
layer {
  name: "relu4"
  type: "ReLU"
  bottom: "conv4"
  top: "conv4"
}
layer {
  name: "conv5"
  type: "Convolution"
  bottom: "conv4"
  top: "conv5"
  param {
    lr_mult: 1
  }
  param {
    lr_mult: 2
  }
  convolution_param {
    num_output: 128
    pad: 2
    kernel_size: 5
    stride: 1
    weight_filler {
      type: "gaussian"
      std: 0.01
    }
    bias_filler {
      type: "constant"
    }
  }
}
layer {
  name: "relu5"
  type: "ReLU"
  bottom: "conv5"
  top: "conv5"
}
layer {
  name: "pool5"
  type: "Pooling"
  bottom: "conv5"
  top: "pool5"
  pooling_param {
    pool: AVE
    kernel_size: 3
    stride: 2
  }
}
layer {
  name: "ip1"
  type: "InnerProduct"
  bottom: "pool5"
  top: "ip1"
  param {
    lr_mult: 1
  }
  param {
    lr_mult: 2
  }
  inner_product_param {
    num_output: 1024
    weight_filler {
      type: "gaussian"
      std: 0.1
    }
    bias_filler {
      type: "constant"
    }
  }
}
layer {
  name: "ip2"
  type: "InnerProduct"
  bottom: "ip1"
  top: "ip2"
  param {
    lr_mult: 1
  }
  param {
    lr_mult: 2
  }
  inner_product_param {
    num_output: 512
    weight_filler {
      type: "gaussian"
      std: 0.1
    }
    bias_filler {
      type: "constant"
    }
  }
}
layer {
  name: "ip3"
  type: "InnerProduct"
  bottom: "ip2"
  top: "ip3"
  param {
    lr_mult: 1
  }
  param {
    lr_mult: 2
  }
  inner_product_param {
    num_output: 1
    weight_filler {
      type: "gaussian"
      std: 0.1
    }
    bias_filler {
      type: "constant"
    }
  }
}
layer {
  name: "loss"
  type: "HuberLoss"
  bottom: "ip3"
  bottom: "label"
  top: "loss"
  include {
    phase: TRAIN
  }
}
I0504 08:57:40.518368 25934 layer_factory.hpp:77] Creating layer parameters
I0504 08:57:40.518381 25934 net.cpp:94] Creating Layer parameters
I0504 08:57:40.518386 25934 net.cpp:409] parameters -> data
I0504 08:57:40.518395 25934 net.cpp:409] parameters -> label
I0504 08:57:40.518402 25934 hdf5_data_layer.cpp:79] Loading list of HDF5 filenames from: /home/purduethu/scratch/radon/d/deng106/CNNStatisticalModel/distributions/input/5_distributions_900_sample_size_train-parameters-path.txt
I0504 08:57:40.518416 25934 hdf5_data_layer.cpp:93] Number of HDF5 files: 1
I0504 08:57:40.518930 25934 hdf5.cpp:32] Datatype class: H5T_FLOAT
I0504 08:57:40.656599 25934 net.cpp:144] Setting up parameters
I0504 08:57:40.656630 25934 net.cpp:151] Top shape: 20 1 30 30 (18000)
I0504 08:57:40.656635 25934 net.cpp:151] Top shape: 20 (20)
I0504 08:57:40.656639 25934 net.cpp:159] Memory required for data: 72080
I0504 08:57:40.656646 25934 layer_factory.hpp:77] Creating layer conv1
I0504 08:57:40.656667 25934 net.cpp:94] Creating Layer conv1
I0504 08:57:40.656672 25934 net.cpp:435] conv1 <- data
I0504 08:57:40.656677 25934 net.cpp:409] conv1 -> conv1
I0504 08:57:40.663138 25934 net.cpp:144] Setting up conv1
I0504 08:57:40.663158 25934 net.cpp:151] Top shape: 20 64 30 30 (1152000)
I0504 08:57:40.663162 25934 net.cpp:159] Memory required for data: 4680080
I0504 08:57:40.663173 25934 layer_factory.hpp:77] Creating layer relu1
I0504 08:57:40.663182 25934 net.cpp:94] Creating Layer relu1
I0504 08:57:40.663185 25934 net.cpp:435] relu1 <- conv1
I0504 08:57:40.663190 25934 net.cpp:396] relu1 -> conv1 (in-place)
I0504 08:57:40.663204 25934 net.cpp:144] Setting up relu1
I0504 08:57:40.663209 25934 net.cpp:151] Top shape: 20 64 30 30 (1152000)
I0504 08:57:40.663213 25934 net.cpp:159] Memory required for data: 9288080
I0504 08:57:40.663215 25934 layer_factory.hpp:77] Creating layer conv2
I0504 08:57:40.663223 25934 net.cpp:94] Creating Layer conv2
I0504 08:57:40.663226 25934 net.cpp:435] conv2 <- conv1
I0504 08:57:40.663231 25934 net.cpp:409] conv2 -> conv2
I0504 08:57:40.678912 25934 net.cpp:144] Setting up conv2
I0504 08:57:40.678930 25934 net.cpp:151] Top shape: 20 64 30 30 (1152000)
I0504 08:57:40.678935 25934 net.cpp:159] Memory required for data: 13896080
I0504 08:57:40.678943 25934 layer_factory.hpp:77] Creating layer relu2
I0504 08:57:40.678951 25934 net.cpp:94] Creating Layer relu2
I0504 08:57:40.678956 25934 net.cpp:435] relu2 <- conv2
I0504 08:57:40.678959 25934 net.cpp:396] relu2 -> conv2 (in-place)
I0504 08:57:40.678967 25934 net.cpp:144] Setting up relu2
I0504 08:57:40.678972 25934 net.cpp:151] Top shape: 20 64 30 30 (1152000)
I0504 08:57:40.678973 25934 net.cpp:159] Memory required for data: 18504080
I0504 08:57:40.678977 25934 layer_factory.hpp:77] Creating layer pool2
I0504 08:57:40.678982 25934 net.cpp:94] Creating Layer pool2
I0504 08:57:40.678992 25934 net.cpp:435] pool2 <- conv2
I0504 08:57:40.678995 25934 net.cpp:409] pool2 -> pool2
I0504 08:57:40.679054 25934 net.cpp:144] Setting up pool2
I0504 08:57:40.679062 25934 net.cpp:151] Top shape: 20 64 15 15 (288000)
I0504 08:57:40.679065 25934 net.cpp:159] Memory required for data: 19656080
I0504 08:57:40.679069 25934 layer_factory.hpp:77] Creating layer conv3
I0504 08:57:40.679077 25934 net.cpp:94] Creating Layer conv3
I0504 08:57:40.679080 25934 net.cpp:435] conv3 <- pool2
I0504 08:57:40.679085 25934 net.cpp:409] conv3 -> conv3
I0504 08:57:40.691623 25934 net.cpp:144] Setting up conv3
I0504 08:57:40.691640 25934 net.cpp:151] Top shape: 20 128 15 15 (576000)
I0504 08:57:40.691644 25934 net.cpp:159] Memory required for data: 21960080
I0504 08:57:40.691653 25934 layer_factory.hpp:77] Creating layer relu3
I0504 08:57:40.691658 25934 net.cpp:94] Creating Layer relu3
I0504 08:57:40.691663 25934 net.cpp:435] relu3 <- conv3
I0504 08:57:40.691668 25934 net.cpp:396] relu3 -> conv3 (in-place)
I0504 08:57:40.691674 25934 net.cpp:144] Setting up relu3
I0504 08:57:40.691679 25934 net.cpp:151] Top shape: 20 128 15 15 (576000)
I0504 08:57:40.691681 25934 net.cpp:159] Memory required for data: 24264080
I0504 08:57:40.691684 25934 layer_factory.hpp:77] Creating layer conv4
I0504 08:57:40.691692 25934 net.cpp:94] Creating Layer conv4
I0504 08:57:40.691696 25934 net.cpp:435] conv4 <- conv3
I0504 08:57:40.691700 25934 net.cpp:409] conv4 -> conv4
I0504 08:57:40.713671 25934 net.cpp:144] Setting up conv4
I0504 08:57:40.713691 25934 net.cpp:151] Top shape: 20 128 15 15 (576000)
I0504 08:57:40.713696 25934 net.cpp:159] Memory required for data: 26568080
I0504 08:57:40.713702 25934 layer_factory.hpp:77] Creating layer relu4
I0504 08:57:40.713709 25934 net.cpp:94] Creating Layer relu4
I0504 08:57:40.713713 25934 net.cpp:435] relu4 <- conv4
I0504 08:57:40.713718 25934 net.cpp:396] relu4 -> conv4 (in-place)
I0504 08:57:40.713726 25934 net.cpp:144] Setting up relu4
I0504 08:57:40.713729 25934 net.cpp:151] Top shape: 20 128 15 15 (576000)
I0504 08:57:40.713732 25934 net.cpp:159] Memory required for data: 28872080
I0504 08:57:40.713735 25934 layer_factory.hpp:77] Creating layer conv5
I0504 08:57:40.713743 25934 net.cpp:94] Creating Layer conv5
I0504 08:57:40.713747 25934 net.cpp:435] conv5 <- conv4
I0504 08:57:40.713752 25934 net.cpp:409] conv5 -> conv5
I0504 08:57:40.735383 25934 net.cpp:144] Setting up conv5
I0504 08:57:40.735402 25934 net.cpp:151] Top shape: 20 128 15 15 (576000)
I0504 08:57:40.735406 25934 net.cpp:159] Memory required for data: 31176080
I0504 08:57:40.735416 25934 layer_factory.hpp:77] Creating layer relu5
I0504 08:57:40.735424 25934 net.cpp:94] Creating Layer relu5
I0504 08:57:40.735427 25934 net.cpp:435] relu5 <- conv5
I0504 08:57:40.735432 25934 net.cpp:396] relu5 -> conv5 (in-place)
I0504 08:57:40.735440 25934 net.cpp:144] Setting up relu5
I0504 08:57:40.735445 25934 net.cpp:151] Top shape: 20 128 15 15 (576000)
I0504 08:57:40.735447 25934 net.cpp:159] Memory required for data: 33480080
I0504 08:57:40.735450 25934 layer_factory.hpp:77] Creating layer pool5
I0504 08:57:40.735455 25934 net.cpp:94] Creating Layer pool5
I0504 08:57:40.735458 25934 net.cpp:435] pool5 <- conv5
I0504 08:57:40.735465 25934 net.cpp:409] pool5 -> pool5
I0504 08:57:40.735512 25934 net.cpp:144] Setting up pool5
I0504 08:57:40.735520 25934 net.cpp:151] Top shape: 20 128 7 7 (125440)
I0504 08:57:40.735523 25934 net.cpp:159] Memory required for data: 33981840
I0504 08:57:40.735527 25934 layer_factory.hpp:77] Creating layer ip1
I0504 08:57:40.735538 25934 net.cpp:94] Creating Layer ip1
I0504 08:57:40.735540 25934 net.cpp:435] ip1 <- pool5
I0504 08:57:40.735544 25934 net.cpp:409] ip1 -> ip1
I0504 08:57:40.891198 25934 net.cpp:144] Setting up ip1
I0504 08:57:40.891234 25934 net.cpp:151] Top shape: 20 1024 (20480)
I0504 08:57:40.891238 25934 net.cpp:159] Memory required for data: 34063760
I0504 08:57:40.891247 25934 layer_factory.hpp:77] Creating layer ip2
I0504 08:57:40.891258 25934 net.cpp:94] Creating Layer ip2
I0504 08:57:40.891269 25934 net.cpp:435] ip2 <- ip1
I0504 08:57:40.891276 25934 net.cpp:409] ip2 -> ip2
I0504 08:57:40.904494 25934 net.cpp:144] Setting up ip2
I0504 08:57:40.904513 25934 net.cpp:151] Top shape: 20 512 (10240)
I0504 08:57:40.904516 25934 net.cpp:159] Memory required for data: 34104720
I0504 08:57:40.904523 25934 layer_factory.hpp:77] Creating layer ip3
I0504 08:57:40.904531 25934 net.cpp:94] Creating Layer ip3
I0504 08:57:40.904534 25934 net.cpp:435] ip3 <- ip2
I0504 08:57:40.904541 25934 net.cpp:409] ip3 -> ip3
I0504 08:57:40.904691 25934 net.cpp:144] Setting up ip3
I0504 08:57:40.904700 25934 net.cpp:151] Top shape: 20 1 (20)
I0504 08:57:40.904703 25934 net.cpp:159] Memory required for data: 34104800
I0504 08:57:40.904708 25934 layer_factory.hpp:77] Creating layer loss
I0504 08:57:40.904716 25934 net.cpp:94] Creating Layer loss
I0504 08:57:40.904721 25934 net.cpp:435] loss <- ip3
I0504 08:57:40.904724 25934 net.cpp:435] loss <- label
I0504 08:57:40.904729 25934 net.cpp:409] loss -> loss
I0504 08:57:40.904788 25934 net.cpp:144] Setting up loss
…
I0504 08:57:41.159111 25934 net.cpp:323] The NetState phase (0) differed from the phase (1) specified by a rule in layer intercept
I0504 08:57:41.159126 25934 net.cpp:323] The NetState phase (0) differed from the phase (1) specified by a rule in layer accuracy
I0504 08:57:41.159211 25934 net.cpp:52] Initializing net from parameters: 
state {
  phase: TRAIN
}
layer {
  name: "parameters"
  type: "HDF5Data"
  top: "data"
  top: "label"
  include {
    phase: TRAIN
  }
  hdf5_data_param {
    source: "/home/purduethu/scratch/radon/d/deng106/CNNStatisticalModel/distributions/input/5_distributions_900_sample_size_train-distributions-path.txt"
    batch_size: 20
  }
}
layer {
  name: "conv1"
  type: "Convolution"
  bottom: "data"
  top: "conv1"
  param {
    lr_mult: 1
  }
  param {
    lr_mult: 2
  }
  convolution_param {
    num_output: 64
    pad: 2
    kernel_size: 5
    stride: 1
    weight_filler {
      type: "gaussian"
      std: 0.0001
    }
    bias_filler {
      type: "constant"
    }
  }
}
layer {
  name: "relu1"
  type: "ReLU"
  bottom: "conv1"
  top: "conv1"
}
layer {
  name: "conv2"
  type: "Convolution"
  bottom: "conv1"
  top: "conv2"
  param {
    lr_mult: 1
  }
  param {
    lr_mult: 2
  }
  convolution_param {
    num_output: 64
    pad: 2
    kernel_size: 5
    stride: 1
    weight_filler {
      type: "gaussian"
      std: 0.01
    }
    bias_filler {
      type: "constant"
    }
  }
}
layer {
  name: "relu2"
  type: "ReLU"
  bottom: "conv2"
  top: "conv2"
}
layer {
  name: "pool2"
  type: "Pooling"
  bottom: "conv2"
  top: "pool2"
  pooling_param {
    pool: MAX
    kernel_size: 3
    stride: 2
  }
}
layer {
  name: "conv3"
  type: "Convolution"
  bottom: "pool2"
  top: "conv3"
  param {
    lr_mult: 1
  }
  param {
    lr_mult: 2
  }
  convolution_param {
    num_output: 128
    pad: 2
    kernel_size: 5
    stride: 1
    weight_filler {
      type: "gaussian"
      std: 0.01
    }
    bias_filler {
      type: "constant"
    }
  }
}
layer {
  name: "relu3"
  type: "ReLU"
  bottom: "conv3"
  top: "conv3"
}
layer {
  name: "conv4"
  type: "Convolution"
  bottom: "conv3"
  top: "conv4"
  param {
    lr_mult: 1
  }
  param {
    lr_mult: 2
  }
  convolution_param {
    num_output: 128
    pad: 2
    kernel_size: 5
    stride: 1
    weight_filler {
      type: "gaussian"
      std: 0.01
    }
    bias_filler {
      type: "constant"
    }
  }
}
layer {
  name: "relu4"
  type: "ReLU"
  bottom: "conv4"
  top: "conv4"
}
layer {
  name: "conv5"
  type: "Convolution"
  bottom: "conv4"
  top: "conv5"
  param {
    lr_mult: 1
  }
  param {
    lr_mult: 2
  }
  convolution_param {
    num_output: 128
    pad: 2
    kernel_size: 5
    stride: 1
    weight_filler {
      type: "gaussian"
      std: 0.01
    }
    bias_filler {
      type: "constant"
    }
  }
}
layer {
  name: "relu5"
  type: "ReLU"
  bottom: "conv5"
  top: "conv5"
}
layer {
  name: "pool5"
  type: "Pooling"
  bottom: "conv5"
  top: "pool5"
  pooling_param {
    pool: AVE
    kernel_size: 3
    stride: 2
  }
}
layer {
  name: "ip1"
  type: "InnerProduct"
  bottom: "pool5"
  top: "ip1"
  param {
    lr_mult: 1
  }
  param {
    lr_mult: 2
  }
  inner_product_param {
    num_output: 1024
    weight_filler {
      type: "gaussian"
      std: 0.1
    }
    bias_filler {
      type: "constant"
    }
  }
}
layer {
  name: "ip2"
  type: "InnerProduct"
  bottom: "ip1"
  top: "ip2"
  param {
    lr_mult: 1
  }
  param {
    lr_mult: 2
  }
  inner_product_param {
    num_output: 512
    weight_filler {
      type: "gaussian"
      std: 0.1
    }
    bias_filler {
      type: "constant"
    }
  }
}
layer {
  name: "ip3"
  type: "InnerProduct"
  bottom: "ip2"
  top: "ip3"
  param {
    lr_mult: 1
  }
  param {
    lr_mult: 2
  }
  inner_product_param {
    num_output: 50
    weight_filler {
      type: "gaussian"
      std: 0.1
    }
    bias_filler {
      type: "constant"
    }
  }
}
layer {
  name: "loss"
  type: "SoftmaxWithLoss"
  bottom: "ip3"
  bottom: "label"
  top: "loss"
}
I0504 08:57:41.159262 25934 layer_factory.hpp:77] Creating layer parameters
I0504 08:57:41.159271 25934 net.cpp:94] Creating Layer parameters
I0504 08:57:41.159276 25934 net.cpp:409] parameters -> data
I0504 08:57:41.159281 25934 net.cpp:409] parameters -> label
I0504 08:57:41.159287 25934 hdf5_data_layer.cpp:79] Loading list of HDF5 filenames from: /home/purduethu/scratch/radon/d/deng106/CNNStatisticalModel/distributions/input/5_distributions_900_sample_size_train-distributions-path.txt
I0504 08:57:41.159302 25934 hdf5_data_layer.cpp:93] Number of HDF5 files: 1
I0504 08:57:41.296422 25934 hdf5.cpp:35] Datatype class: H5T_INTEGER
I0504 08:57:41.296890 25934 net.cpp:144] Setting up parameters
I0504 08:57:41.296903 25934 net.cpp:151] Top shape: 20 1 30 30 (18000)
I0504 08:57:41.296908 25934 net.cpp:151] Top shape: 20 (20)
I0504 08:57:41.296911 25934 net.cpp:159] Memory required for data: 72080
I0504 08:57:41.296917 25934 layer_factory.hpp:77] Creating layer conv1
I0504 08:57:41.296933 25934 net.cpp:94] Creating Layer conv1
I0504 08:57:41.296937 25934 net.cpp:435] conv1 <- data
I0504 08:57:41.296943 25934 net.cpp:409] conv1 -> conv1
I0504 08:57:41.300519 25934 net.cpp:144] Setting up conv1
I0504 08:57:41.300532 25934 net.cpp:151] Top shape: 20 64 30 30 (1152000)
I0504 08:57:41.300536 25934 net.cpp:159] Memory required for data: 4680080
I0504 08:57:41.300546 25934 layer_factory.hpp:77] Creating layer relu1
I0504 08:57:41.300575 25934 net.cpp:94] Creating Layer relu1
I0504 08:57:41.300580 25934 net.cpp:435] relu1 <- conv1
I0504 08:57:41.300585 25934 net.cpp:396] relu1 -> conv1 (in-place)
I0504 08:57:41.300591 25934 net.cpp:144] Setting up relu1
I0504 08:57:41.300596 25934 net.cpp:151] Top shape: 20 64 30 30 (1152000)
I0504 08:57:41.300598 25934 net.cpp:159] Memory required for data: 9288080
I0504 08:57:41.300601 25934 layer_factory.hpp:77] Creating layer conv2
I0504 08:57:41.300608 25934 net.cpp:94] Creating Layer conv2
I0504 08:57:41.300611 25934 net.cpp:435] conv2 <- conv1
I0504 08:57:41.300616 25934 net.cpp:409] conv2 -> conv2
I0504 08:57:41.316933 25934 net.cpp:144] Setting up conv2
I0504 08:57:41.316951 25934 net.cpp:151] Top shape: 20 64 30 30 (1152000)
I0504 08:57:41.316956 25934 net.cpp:159] Memory required for data: 13896080
I0504 08:57:41.316964 25934 layer_factory.hpp:77] Creating layer relu2
I0504 08:57:41.316972 25934 net.cpp:94] Creating Layer relu2
I0504 08:57:41.316974 25934 net.cpp:435] relu2 <- conv2
I0504 08:57:41.316979 25934 net.cpp:396] relu2 -> conv2 (in-place)
I0504 08:57:41.316987 25934 net.cpp:144] Setting up relu2
I0504 08:57:41.316990 25934 net.cpp:151] Top shape: 20 64 30 30 (1152000)
I0504 08:57:41.316993 25934 net.cpp:159] Memory required for data: 18504080
I0504 08:57:41.316997 25934 layer_factory.hpp:77] Creating layer pool2
I0504 08:57:41.317003 25934 net.cpp:94] Creating Layer pool2
I0504 08:57:41.317005 25934 net.cpp:435] pool2 <- conv2
I0504 08:57:41.317009 25934 net.cpp:409] pool2 -> pool2
I0504 08:57:41.317070 25934 net.cpp:144] Setting up pool2
I0504 08:57:41.317077 25934 net.cpp:151] Top shape: 20 64 15 15 (288000)
I0504 08:57:41.317080 25934 net.cpp:159] Memory required for data: 19656080
I0504 08:57:41.317083 25934 layer_factory.hpp:77] Creating layer conv3
I0504 08:57:41.317091 25934 net.cpp:94] Creating Layer conv3
I0504 08:57:41.317095 25934 net.cpp:435] conv3 <- pool2
I0504 08:57:41.317106 25934 net.cpp:409] conv3 -> conv3
I0504 08:57:41.330884 25934 net.cpp:144] Setting up conv3
I0504 08:57:41.330902 25934 net.cpp:151] Top shape: 20 128 15 15 (576000)
I0504 08:57:41.330907 25934 net.cpp:159] Memory required for data: 21960080
I0504 08:57:41.330916 25934 layer_factory.hpp:77] Creating layer relu3
I0504 08:57:41.330924 25934 net.cpp:94] Creating Layer relu3
I0504 08:57:41.330927 25934 net.cpp:435] relu3 <- conv3
I0504 08:57:41.330931 25934 net.cpp:396] relu3 -> conv3 (in-place)
I0504 08:57:41.330938 25934 net.cpp:144] Setting up relu3
I0504 08:57:41.330942 25934 net.cpp:151] Top shape: 20 128 15 15 (576000)
I0504 08:57:41.330945 25934 net.cpp:159] Memory required for data: 24264080
I0504 08:57:41.330948 25934 layer_factory.hpp:77] Creating layer conv4
I0504 08:57:41.330957 25934 net.cpp:94] Creating Layer conv4
I0504 08:57:41.330960 25934 net.cpp:435] conv4 <- conv3
I0504 08:57:41.330965 25934 net.cpp:409] conv4 -> conv4
I0504 08:57:41.354249 25934 net.cpp:144] Setting up conv4
I0504 08:57:41.354291 25934 net.cpp:151] Top shape: 20 128 15 15 (576000)
I0504 08:57:41.354302 25934 net.cpp:159] Memory required for data: 26568080
I0504 08:57:41.354321 25934 layer_factory.hpp:77] Creating layer relu4
I0504 08:57:41.354336 25934 net.cpp:94] Creating Layer relu4
I0504 08:57:41.354347 25934 net.cpp:435] relu4 <- conv4
I0504 08:57:41.354360 25934 net.cpp:396] relu4 -> conv4 (in-place)
I0504 08:57:41.354379 25934 net.cpp:144] Setting up relu4
I0504 08:57:41.354391 25934 net.cpp:151] Top shape: 20 128 15 15 (576000)
I0504 08:57:41.354399 25934 net.cpp:159] Memory required for data: 28872080
I0504 08:57:41.354408 25934 layer_factory.hpp:77] Creating layer conv5
I0504 08:57:41.354427 25934 net.cpp:94] Creating Layer conv5
I0504 08:57:41.354436 25934 net.cpp:435] conv5 <- conv4
I0504 08:57:41.354450 25934 net.cpp:409] conv5 -> conv5
I0504 08:57:41.377534 25934 net.cpp:144] Setting up conv5
I0504 08:57:41.377554 25934 net.cpp:151] Top shape: 20 128 15 15 (576000)
I0504 08:57:41.377558 25934 net.cpp:159] Memory required for data: 31176080
I0504 08:57:41.377569 25934 layer_factory.hpp:77] Creating layer relu5
I0504 08:57:41.377576 25934 net.cpp:94] Creating Layer relu5
I0504 08:57:41.377580 25934 net.cpp:435] relu5 <- conv5
I0504 08:57:41.377586 25934 net.cpp:396] relu5 -> conv5 (in-place)
I0504 08:57:41.377594 25934 net.cpp:144] Setting up relu5
I0504 08:57:41.377599 25934 net.cpp:151] Top shape: 20 128 15 15 (576000)
I0504 08:57:41.377601 25934 net.cpp:159] Memory required for data: 33480080
I0504 08:57:41.377604 25934 layer_factory.hpp:77] Creating layer pool5
I0504 08:57:41.377610 25934 net.cpp:94] Creating Layer pool5
I0504 08:57:41.377614 25934 net.cpp:435] pool5 <- conv5
I0504 08:57:41.377619 25934 net.cpp:409] pool5 -> pool5
I0504 08:57:41.377671 25934 net.cpp:144] Setting up pool5
I0504 08:57:41.377678 25934 net.cpp:151] Top shape: 20 128 7 7 (125440)
I0504 08:57:41.377681 25934 net.cpp:159] Memory required for data: 33981840
I0504 08:57:41.377686 25934 layer_factory.hpp:77] Creating layer ip1
I0504 08:57:41.377692 25934 net.cpp:94] Creating Layer ip1
I0504 08:57:41.377696 25934 net.cpp:435] ip1 <- pool5
I0504 08:57:41.377701 25934 net.cpp:409] ip1 -> ip1
I0504 08:57:41.534236 25934 net.cpp:144] Setting up ip1
I0504 08:57:41.534262 25934 net.cpp:151] Top shape: 20 1024 (20480)
I0504 08:57:41.534266 25934 net.cpp:159] Memory required for data: 34063760
I0504 08:57:41.534274 25934 layer_factory.hpp:77] Creating layer ip2
I0504 08:57:41.534286 25934 net.cpp:94] Creating Layer ip2
I0504 08:57:41.534289 25934 net.cpp:435] ip2 <- ip1
I0504 08:57:41.534296 25934 net.cpp:409] ip2 -> ip2
I0504 08:57:41.547611 25934 net.cpp:144] Setting up ip2
I0504 08:57:41.547629 25934 net.cpp:151] Top shape: 20 512 (10240)
I0504 08:57:41.547632 25934 net.cpp:159] Memory required for data: 34104720
I0504 08:57:41.547639 25934 layer_factory.hpp:77] Creating layer ip3
I0504 08:57:41.547646 25934 net.cpp:94] Creating Layer ip3
I0504 08:57:41.547650 25934 net.cpp:435] ip3 <- ip2
I0504 08:57:41.547655 25934 net.cpp:409] ip3 -> ip3
I0504 08:57:41.548420 25934 net.cpp:144] Setting up ip3
I0504 08:57:41.548429 25934 net.cpp:151] Top shape: 20 50 (1000)
I0504 08:57:41.548431 25934 net.cpp:159] Memory required for data: 34108720
I0504 08:57:41.548436 25934 layer_factory.hpp:77] Creating layer loss
I0504 08:57:41.548445 25934 net.cpp:94] Creating Layer loss
I0504 08:57:41.548449 25934 net.cpp:435] loss <- ip3
I0504 08:57:41.548452 25934 net.cpp:435] loss <- label
I0504 08:57:41.548456 25934 net.cpp:409] loss -> loss
I0504 08:57:41.548463 25934 layer_factory.hpp:77] Creating layer loss
…
I0504 08:57:41.549023 25934 solver.cpp:181] Creating test net (#0) specified by net file: ./protocol/dis_5_900_dimension.protocol_distribution
I0504 08:57:41.549051 25934 net.cpp:323] The NetState phase (1) differed from the phase (0) specified by a rule in layer parameters
I0504 08:57:41.549145 25934 net.cpp:52] Initializing net from parameters: 
state {
  phase: TEST
}
layer {
  name: "intercept"
  type: "HDF5Data"
  top: "data"
  top: "label"
  include {
    phase: TEST
  }
  hdf5_data_param {
    source: "/home/purduethu/scratch/radon/d/deng106/CNNStatisticalModel/distributions/input/5_distributions_900_sample_size_test-distributions-path.txt"
    batch_size: 20
  }
}
layer {
  name: "conv1"
  type: "Convolution"
  bottom: "data"
  top: "conv1"
  param {
    lr_mult: 1
  }
  param {
    lr_mult: 2
  }
  convolution_param {
    num_output: 64
    pad: 2
    kernel_size: 5
    stride: 1
    weight_filler {
      type: "gaussian"
      std: 0.0001
    }
    bias_filler {
      type: "constant"
    }
  }
}
layer {
  name: "relu1"
  type: "ReLU"
  bottom: "conv1"
  top: "conv1"
}
layer {
  name: "conv2"
  type: "Convolution"
  bottom: "conv1"
  top: "conv2"
  param {
    lr_mult: 1
  }
  param {
    lr_mult: 2
  }
  convolution_param {
    num_output: 64
    pad: 2
    kernel_size: 5
    stride: 1
    weight_filler {
      type: "gaussian"
      std: 0.01
    }
    bias_filler {
      type: "constant"
    }
  }
}
layer {
  name: "relu2"
  type: "ReLU"
  bottom: "conv2"
  top: "conv2"
}
layer {
  name: "pool2"
  type: "Pooling"
  bottom: "conv2"
  top: "pool2"
  pooling_param {
    pool: MAX
    kernel_size: 3
    stride: 2
  }
}
layer {
  name: "conv3"
  type: "Convolution"
  bottom: "pool2"
  top: "conv3"
  param {
    lr_mult: 1
  }
  param {
    lr_mult: 2
  }
  convolution_param {
    num_output: 128
    pad: 2
    kernel_size: 5
    stride: 1
    weight_filler {
      type: "gaussian"
      std: 0.01
    }
    bias_filler {
      type: "constant"
    }
  }
}
layer {
  name: "relu3"
  type: "ReLU"
  bottom: "conv3"
  top: "conv3"
}
layer {
  name: "conv4"
  type: "Convolution"
  bottom: "conv3"
  top: "conv4"
  param {
    lr_mult: 1
  }
  param {
    lr_mult: 2
  }
  convolution_param {
    num_output: 128
    pad: 2
    kernel_size: 5
    stride: 1
    weight_filler {
      type: "gaussian"
      std: 0.01
    }
    bias_filler {
      type: "constant"
    }
  }
}
layer {
  name: "relu4"
  type: "ReLU"
  bottom: "conv4"
  top: "conv4"
}
layer {
  name: "conv5"
  type: "Convolution"
  bottom: "conv4"
  top: "conv5"
  param {
    lr_mult: 1
  }
  param {
    lr_mult: 2
  }
  convolution_param {
    num_output: 128
    pad: 2
    kernel_size: 5
    stride: 1
    weight_filler {
      type: "gaussian"
      std: 0.01
    }
    bias_filler {
      type: "constant"
    }
  }
}
layer {
  name: "relu5"
  type: "ReLU"
  bottom: "conv5"
  top: "conv5"
}
layer {
  name: "pool5"
  type: "Pooling"
  bottom: "conv5"
  top: "pool5"
  pooling_param {
    pool: AVE
    kernel_size: 3
    stride: 2
  }
}
layer {
  name: "ip1"
  type: "InnerProduct"
  bottom: "pool5"
  top: "ip1"
  param {
    lr_mult: 1
  }
  param {
    lr_mult: 2
  }
  inner_product_param {
    num_output: 1024
    weight_filler {
      type: "gaussian"
      std: 0.1
    }
    bias_filler {
      type: "constant"
    }
  }
}
layer {
  name: "ip2"
  type: "InnerProduct"
  bottom: "ip1"
  top: "ip2"
  param {
    lr_mult: 1
  }
  param {
    lr_mult: 2
  }
  inner_product_param {
    num_output: 512
    weight_filler {
      type: "gaussian"
      std: 0.1
    }
    bias_filler {
      type: "constant"
    }
  }
}
layer {
  name: "ip3"
  type: "InnerProduct"
  bottom: "ip2"
  top: "ip3"
  param {
    lr_mult: 1
  }
  param {
    lr_mult: 2
  }
  inner_product_param {
    num_output: 50
    weight_filler {
      type: "gaussian"
      std: 0.1
    }
    bias_filler {
      type: "constant"
    }
  }
}
layer {
  name: "accuracy"
  type: "Accuracy"
  bottom: "ip3"
  bottom: "label"
  top: "accuracy"
  include {
    phase: TEST
  }
}
layer {
  name: "loss"
  type: "SoftmaxWithLoss"
  bottom: "ip3"
  bottom: "label"
  top: "loss"
}
I0504 08:57:41.549214 25934 layer_factory.hpp:77] Creating layer intercept
I0504 08:57:41.549222 25934 net.cpp:94] Creating Layer intercept
I0504 08:57:41.549226 25934 net.cpp:409] intercept -> data
I0504 08:57:41.549232 25934 net.cpp:409] intercept -> label
I0504 08:57:41.549237 25934 hdf5_data_layer.cpp:79] Loading list of HDF5 filenames from: /home/purduethu/scratch/radon/d/deng106/CNNStatisticalModel/distributions/input/5_distributions_900_sample_size_test-distributions-path.txt
I0504 08:57:41.549257 25934 hdf5_data_layer.cpp:93] Number of HDF5 files: 1
I0504 08:57:41.585415 25934 net.cpp:144] Setting up intercept
I0504 08:57:41.585450 25934 net.cpp:151] Top shape: 20 1 30 30 (18000)
I0504 08:57:41.585455 25934 net.cpp:151] Top shape: 20 (20)
I0504 08:57:41.585458 25934 net.cpp:159] Memory required for data: 72080
I0504 08:57:41.585464 25934 layer_factory.hpp:77] Creating layer label_intercept_1_split
I0504 08:57:41.585482 25934 net.cpp:94] Creating Layer label_intercept_1_split
I0504 08:57:41.585486 25934 net.cpp:435] label_intercept_1_split <- label
I0504 08:57:41.585491 25934 net.cpp:409] label_intercept_1_split -> label_intercept_1_split_0
I0504 08:57:41.585500 25934 net.cpp:409] label_intercept_1_split -> label_intercept_1_split_1
I0504 08:57:41.585544 25934 net.cpp:144] Setting up label_intercept_1_split
I0504 08:57:41.585551 25934 net.cpp:151] Top shape: 20 (20)
I0504 08:57:41.585554 25934 net.cpp:151] Top shape: 20 (20)
I0504 08:57:41.585557 25934 net.cpp:159] Memory required for data: 72240
I0504 08:57:41.585561 25934 layer_factory.hpp:77] Creating layer conv1
I0504 08:57:41.585571 25934 net.cpp:94] Creating Layer conv1
I0504 08:57:41.585573 25934 net.cpp:435] conv1 <- data
I0504 08:57:41.585578 25934 net.cpp:409] conv1 -> conv1
I0504 08:57:41.587101 25934 net.cpp:144] Setting up conv1
I0504 08:57:41.587115 25934 net.cpp:151] Top shape: 20 64 30 30 (1152000)
I0504 08:57:41.587118 25934 net.cpp:159] Memory required for data: 4680240
I0504 08:57:41.587128 25934 layer_factory.hpp:77] Creating layer relu1
I0504 08:57:41.587136 25934 net.cpp:94] Creating Layer relu1
I0504 08:57:41.587138 25934 net.cpp:435] relu1 <- conv1
I0504 08:57:41.587142 25934 net.cpp:396] relu1 -> conv1 (in-place)
I0504 08:57:41.587151 25934 net.cpp:144] Setting up relu1
I0504 08:57:41.587154 25934 net.cpp:151] Top shape: 20 64 30 30 (1152000)
I0504 08:57:41.587157 25934 net.cpp:159] Memory required for data: 9288240
I0504 08:57:41.587160 25934 layer_factory.hpp:77] Creating layer conv2
I0504 08:57:41.587168 25934 net.cpp:94] Creating Layer conv2
I0504 08:57:41.587172 25934 net.cpp:435] conv2 <- conv1
I0504 08:57:41.587175 25934 net.cpp:409] conv2 -> conv2
I0504 08:57:41.594153 25934 net.cpp:144] Setting up conv2
I0504 08:57:41.594171 25934 net.cpp:151] Top shape: 20 64 30 30 (1152000)
I0504 08:57:41.594173 25934 net.cpp:159] Memory required for data: 13896240
I0504 08:57:41.594182 25934 layer_factory.hpp:77] Creating layer relu2
I0504 08:57:41.594188 25934 net.cpp:94] Creating Layer relu2
I0504 08:57:41.594192 25934 net.cpp:435] relu2 <- conv2
I0504 08:57:41.594197 25934 net.cpp:396] relu2 -> conv2 (in-place)
I0504 08:57:41.594203 25934 net.cpp:144] Setting up relu2
I0504 08:57:41.594208 25934 net.cpp:151] Top shape: 20 64 30 30 (1152000)
I0504 08:57:41.594210 25934 net.cpp:159] Memory required for data: 18504240
I0504 08:57:41.594213 25934 layer_factory.hpp:77] Creating layer pool2
I0504 08:57:41.594219 25934 net.cpp:94] Creating Layer pool2
I0504 08:57:41.594223 25934 net.cpp:435] pool2 <- conv2
I0504 08:57:41.594226 25934 net.cpp:409] pool2 -> pool2
I0504 08:57:41.594285 25934 net.cpp:144] Setting up pool2
I0504 08:57:41.594292 25934 net.cpp:151] Top shape: 20 64 15 15 (288000)
I0504 08:57:41.594295 25934 net.cpp:159] Memory required for data: 19656240
I0504 08:57:41.594298 25934 layer_factory.hpp:77] Creating layer conv3
I0504 08:57:41.594306 25934 net.cpp:94] Creating Layer conv3
I0504 08:57:41.594310 25934 net.cpp:435] conv3 <- pool2
I0504 08:57:41.594314 25934 net.cpp:409] conv3 -> conv3
I0504 08:57:41.601907 25934 net.cpp:144] Setting up conv3
I0504 08:57:41.601948 25934 net.cpp:151] Top shape: 20 128 15 15 (576000)
I0504 08:57:41.601958 25934 net.cpp:159] Memory required for data: 21960240
I0504 08:57:41.601980 25934 layer_factory.hpp:77] Creating layer relu3
I0504 08:57:41.601999 25934 net.cpp:94] Creating Layer relu3
I0504 08:57:41.602008 25934 net.cpp:435] relu3 <- conv3
I0504 08:57:41.602020 25934 net.cpp:396] relu3 -> conv3 (in-place)
I0504 08:57:41.602041 25934 net.cpp:144] Setting up relu3
I0504 08:57:41.602051 25934 net.cpp:151] Top shape: 20 128 15 15 (576000)
I0504 08:57:41.602061 25934 net.cpp:159] Memory required for data: 24264240
I0504 08:57:41.602068 25934 layer_factory.hpp:77] Creating layer conv4
I0504 08:57:41.602088 25934 net.cpp:94] Creating Layer conv4
I0504 08:57:41.602097 25934 net.cpp:435] conv4 <- conv3
I0504 08:57:41.602110 25934 net.cpp:409] conv4 -> conv4
I0504 08:57:41.617841 25934 net.cpp:144] Setting up conv4
I0504 08:57:41.617861 25934 net.cpp:151] Top shape: 20 128 15 15 (576000)
I0504 08:57:41.617864 25934 net.cpp:159] Memory required for data: 26568240
I0504 08:57:41.617871 25934 layer_factory.hpp:77] Creating layer relu4
I0504 08:57:41.617878 25934 net.cpp:94] Creating Layer relu4
I0504 08:57:41.617882 25934 net.cpp:435] relu4 <- conv4
I0504 08:57:41.617887 25934 net.cpp:396] relu4 -> conv4 (in-place)
I0504 08:57:41.617894 25934 net.cpp:144] Setting up relu4
I0504 08:57:41.617898 25934 net.cpp:151] Top shape: 20 128 15 15 (576000)
I0504 08:57:41.617902 25934 net.cpp:159] Memory required for data: 28872240
I0504 08:57:41.617904 25934 layer_factory.hpp:77] Creating layer conv5
I0504 08:57:41.617913 25934 net.cpp:94] Creating Layer conv5
I0504 08:57:41.617915 25934 net.cpp:435] conv5 <- conv4
I0504 08:57:41.617920 25934 net.cpp:409] conv5 -> conv5
I0504 08:57:41.633138 25934 net.cpp:144] Setting up conv5
I0504 08:57:41.633158 25934 net.cpp:151] Top shape: 20 128 15 15 (576000)
I0504 08:57:41.633162 25934 net.cpp:159] Memory required for data: 31176240
I0504 08:57:41.633174 25934 layer_factory.hpp:77] Creating layer relu5
I0504 08:57:41.633182 25934 net.cpp:94] Creating Layer relu5
I0504 08:57:41.633185 25934 net.cpp:435] relu5 <- conv5
I0504 08:57:41.633189 25934 net.cpp:396] relu5 -> conv5 (in-place)
I0504 08:57:41.633196 25934 net.cpp:144] Setting up relu5
I0504 08:57:41.633201 25934 net.cpp:151] Top shape: 20 128 15 15 (576000)
I0504 08:57:41.633203 25934 net.cpp:159] Memory required for data: 33480240
I0504 08:57:41.633206 25934 layer_factory.hpp:77] Creating layer pool5
I0504 08:57:41.633213 25934 net.cpp:94] Creating Layer pool5
I0504 08:57:41.633215 25934 net.cpp:435] pool5 <- conv5
I0504 08:57:41.633219 25934 net.cpp:409] pool5 -> pool5
I0504 08:57:41.633266 25934 net.cpp:144] Setting up pool5
I0504 08:57:41.633273 25934 net.cpp:151] Top shape: 20 128 7 7 (125440)
I0504 08:57:41.633276 25934 net.cpp:159] Memory required for data: 33982000
I0504 08:57:41.633280 25934 layer_factory.hpp:77] Creating layer ip1
I0504 08:57:41.633286 25934 net.cpp:94] Creating Layer ip1
I0504 08:57:41.633289 25934 net.cpp:435] ip1 <- pool5
I0504 08:57:41.633294 25934 net.cpp:409] ip1 -> ip1
I0504 08:57:41.788821 25934 net.cpp:144] Setting up ip1
I0504 08:57:41.788856 25934 net.cpp:151] Top shape: 20 1024 (20480)
I0504 08:57:41.788861 25934 net.cpp:159] Memory required for data: 34063920
I0504 08:57:41.788869 25934 layer_factory.hpp:77] Creating layer ip2
I0504 08:57:41.788879 25934 net.cpp:94] Creating Layer ip2
I0504 08:57:41.788884 25934 net.cpp:435] ip2 <- ip1
I0504 08:57:41.788890 25934 net.cpp:409] ip2 -> ip2
I0504 08:57:41.802183 25934 net.cpp:144] Setting up ip2
I0504 08:57:41.802204 25934 net.cpp:151] Top shape: 20 512 (10240)
I0504 08:57:41.802208 25934 net.cpp:159] Memory required for data: 34104880
I0504 08:57:41.802215 25934 layer_factory.hpp:77] Creating layer ip3
I0504 08:57:41.802225 25934 net.cpp:94] Creating Layer ip3
I0504 08:57:41.802229 25934 net.cpp:435] ip3 <- ip2
I0504 08:57:41.802234 25934 net.cpp:409] ip3 -> ip3
I0504 08:57:41.802985 25934 net.cpp:144] Setting up ip3
I0504 08:57:41.802992 25934 net.cpp:151] Top shape: 20 50 (1000)
I0504 08:57:41.802996 25934 net.cpp:159] Memory required for data: 34108880
I0504 08:57:41.803001 25934 layer_factory.hpp:77] Creating layer ip3_ip3_0_split
I0504 08:57:41.803006 25934 net.cpp:94] Creating Layer ip3_ip3_0_split
I0504 08:57:41.803009 25934 net.cpp:435] ip3_ip3_0_split <- ip3
I0504 08:57:41.803014 25934 net.cpp:409] ip3_ip3_0_split -> ip3_ip3_0_split_0
I0504 08:57:41.803020 25934 net.cpp:409] ip3_ip3_0_split -> ip3_ip3_0_split_1
I0504 08:57:41.803064 25934 net.cpp:144] Setting up ip3_ip3_0_split
I0504 08:57:41.803071 25934 net.cpp:151] Top shape: 20 50 (1000)
I0504 08:57:41.803073 25934 net.cpp:151] Top shape: 20 50 (1000)
I0504 08:57:41.803076 25934 net.cpp:159] Memory required for data: 34116880
I0504 08:57:41.803079 25934 layer_factory.hpp:77] Creating layer accuracy
I0504 08:57:41.803086 25934 net.cpp:94] Creating Layer accuracy
I0504 08:57:41.803088 25934 net.cpp:435] accuracy <- ip3_ip3_0_split_0
I0504 08:57:41.803092 25934 net.cpp:435] accuracy <- label_intercept_1_split_0
I0504 08:57:41.803097 25934 net.cpp:409] accuracy -> accuracy
…
