…
I0502 18:37:04.105828 12179 net.cpp:323] The NetState phase (0) differed from the phase (1) specified by a rule in layer intercept
I0502 18:37:04.105844 12179 net.cpp:323] The NetState phase (0) differed from the phase (1) specified by a rule in layer accuracy
I0502 18:37:04.105932 12179 net.cpp:52] Initializing net from parameters: 
state {
  phase: TRAIN
}
layer {
  name: "parameters"
  type: "HDF5Data"
  top: "data"
  top: "label"
  include {
    phase: TRAIN
  }
  hdf5_data_param {
    source: "/home/purduethu/scratch/radon/d/deng106/CNNStatisticalModel/distributions/input/20_distributions_400_sample_size_train-distributions-path.txt"
    batch_size: 20
  }
}
layer {
  name: "conv1"
  type: "Convolution"
  bottom: "data"
  top: "conv1"
  param {
    lr_mult: 1
  }
  param {
    lr_mult: 2
  }
  convolution_param {
    num_output: 64
    pad: 2
    kernel_size: 5
    stride: 1
    weight_filler {
      type: "gaussian"
      std: 0.0001
    }
    bias_filler {
      type: "constant"
    }
  }
}
layer {
  name: "relu1"
  type: "ReLU"
  bottom: "conv1"
  top: "conv1"
}
layer {
  name: "conv2"
  type: "Convolution"
  bottom: "conv1"
  top: "conv2"
  param {
    lr_mult: 1
  }
  param {
    lr_mult: 2
  }
  convolution_param {
    num_output: 64
    pad: 2
    kernel_size: 5
    stride: 1
    weight_filler {
      type: "gaussian"
      std: 0.01
    }
    bias_filler {
      type: "constant"
    }
  }
}
layer {
  name: "relu2"
  type: "ReLU"
  bottom: "conv2"
  top: "conv2"
}
layer {
  name: "pool2"
  type: "Pooling"
  bottom: "conv2"
  top: "pool2"
  pooling_param {
    pool: MAX
    kernel_size: 3
    stride: 2
  }
}
layer {
  name: "conv3"
  type: "Convolution"
  bottom: "pool2"
  top: "conv3"
  param {
    lr_mult: 1
  }
  param {
    lr_mult: 2
  }
  convolution_param {
    num_output: 64
    pad: 2
    kernel_size: 5
    stride: 1
    weight_filler {
      type: "gaussian"
      std: 0.01
    }
    bias_filler {
      type: "constant"
    }
  }
}
layer {
  name: "relu3"
  type: "ReLU"
  bottom: "conv3"
  top: "conv3"
}
layer {
  name: "conv4"
  type: "Convolution"
  bottom: "conv3"
  top: "conv4"
  param {
    lr_mult: 1
  }
  param {
    lr_mult: 2
  }
  convolution_param {
    num_output: 64
    pad: 2
    kernel_size: 5
    stride: 1
    weight_filler {
      type: "gaussian"
      std: 0.01
    }
    bias_filler {
      type: "constant"
    }
  }
}
layer {
  name: "relu4"
  type: "ReLU"
  bottom: "conv4"
  top: "conv4"
}
layer {
  name: "conv5"
  type: "Convolution"
  bottom: "conv4"
  top: "conv5"
  param {
    lr_mult: 1
  }
  param {
    lr_mult: 2
  }
  convolution_param {
    num_output: 64
    pad: 2
    kernel_size: 5
    stride: 1
    weight_filler {
      type: "gaussian"
      std: 0.01
    }
    bias_filler {
      type: "constant"
    }
  }
}
layer {
  name: "relu5"
  type: "ReLU"
  bottom: "conv5"
  top: "conv5"
}
layer {
  name: "pool5"
  type: "Pooling"
  bottom: "conv5"
  top: "pool5"
  pooling_param {
    pool: AVE
    kernel_size: 3
    stride: 2
  }
}
layer {
  name: "ip1"
  type: "InnerProduct"
  bottom: "pool5"
  top: "ip1"
  param {
    lr_mult: 1
  }
  param {
    lr_mult: 2
  }
  inner_product_param {
    num_output: 64
    weight_filler {
      type: "gaussian"
      std: 0.1
    }
    bias_filler {
      type: "constant"
    }
  }
}
layer {
  name: "ip2"
  type: "InnerProduct"
  bottom: "ip1"
  top: "ip2"
  param {
    lr_mult: 1
  }
  param {
    lr_mult: 2
  }
  inner_product_param {
    num_output: 64
    weight_filler {
      type: "gaussian"
      std: 0.1
    }
    bias_filler {
      type: "constant"
    }
  }
}
layer {
  name: "ip3"
  type: "InnerProduct"
  bottom: "ip2"
  top: "ip3"
  param {
    lr_mult: 1
  }
  param {
    lr_mult: 2
  }
  inner_product_param {
    num_output: 50
    weight_filler {
      type: "gaussian"
      std: 0.1
    }
    bias_filler {
      type: "constant"
    }
  }
}
layer {
  name: "loss"
  type: "SoftmaxWithLoss"
  bottom: "ip3"
  bottom: "label"
  top: "loss"
}
I0502 18:37:04.106005 12179 layer_factory.hpp:77] Creating layer parameters
I0502 18:37:04.106021 12179 net.cpp:94] Creating Layer parameters
I0502 18:37:04.106027 12179 net.cpp:409] parameters -> data
I0502 18:37:04.106046 12179 net.cpp:409] parameters -> label
I0502 18:37:04.106056 12179 hdf5_data_layer.cpp:79] Loading list of HDF5 filenames from: /home/purduethu/scratch/radon/d/deng106/CNNStatisticalModel/distributions/input/20_distributions_400_sample_size_train-distributions-path.txt
I0502 18:37:04.106078 12179 hdf5_data_layer.cpp:93] Number of HDF5 files: 1
I0502 18:37:04.106575 12179 hdf5.cpp:32] Datatype class: H5T_FLOAT
I0502 18:37:04.364248 12179 hdf5.cpp:35] Datatype class: H5T_INTEGER
I0502 18:37:04.365901 12179 net.cpp:144] Setting up parameters
I0502 18:37:04.365921 12179 net.cpp:151] Top shape: 20 1 20 20 (8000)
I0502 18:37:04.365927 12179 net.cpp:151] Top shape: 20 (20)
I0502 18:37:04.365931 12179 net.cpp:159] Memory required for data: 32080
I0502 18:37:04.365938 12179 layer_factory.hpp:77] Creating layer conv1
I0502 18:37:04.365957 12179 net.cpp:94] Creating Layer conv1
I0502 18:37:04.365962 12179 net.cpp:435] conv1 <- data
I0502 18:37:04.365973 12179 net.cpp:409] conv1 -> conv1
I0502 18:37:04.373180 12179 net.cpp:144] Setting up conv1
I0502 18:37:04.373198 12179 net.cpp:151] Top shape: 20 64 20 20 (512000)
I0502 18:37:04.373201 12179 net.cpp:159] Memory required for data: 2080080
I0502 18:37:04.373214 12179 layer_factory.hpp:77] Creating layer relu1
I0502 18:37:04.373224 12179 net.cpp:94] Creating Layer relu1
I0502 18:37:04.373227 12179 net.cpp:435] relu1 <- conv1
I0502 18:37:04.373231 12179 net.cpp:396] relu1 -> conv1 (in-place)
I0502 18:37:04.373248 12179 net.cpp:144] Setting up relu1
I0502 18:37:04.373255 12179 net.cpp:151] Top shape: 20 64 20 20 (512000)
I0502 18:37:04.373257 12179 net.cpp:159] Memory required for data: 4128080
I0502 18:37:04.373260 12179 layer_factory.hpp:77] Creating layer conv2
I0502 18:37:04.373268 12179 net.cpp:94] Creating Layer conv2
I0502 18:37:04.373271 12179 net.cpp:435] conv2 <- conv1
I0502 18:37:04.373276 12179 net.cpp:409] conv2 -> conv2
I0502 18:37:04.382531 12179 net.cpp:144] Setting up conv2
I0502 18:37:04.382545 12179 net.cpp:151] Top shape: 20 64 20 20 (512000)
I0502 18:37:04.382550 12179 net.cpp:159] Memory required for data: 6176080
I0502 18:37:04.382557 12179 layer_factory.hpp:77] Creating layer relu2
I0502 18:37:04.382565 12179 net.cpp:94] Creating Layer relu2
I0502 18:37:04.382568 12179 net.cpp:435] relu2 <- conv2
I0502 18:37:04.382572 12179 net.cpp:396] relu2 -> conv2 (in-place)
I0502 18:37:04.382580 12179 net.cpp:144] Setting up relu2
I0502 18:37:04.382585 12179 net.cpp:151] Top shape: 20 64 20 20 (512000)
I0502 18:37:04.382587 12179 net.cpp:159] Memory required for data: 8224080
I0502 18:37:04.382591 12179 layer_factory.hpp:77] Creating layer pool2
I0502 18:37:04.382604 12179 net.cpp:94] Creating Layer pool2
I0502 18:37:04.382608 12179 net.cpp:435] pool2 <- conv2
I0502 18:37:04.382612 12179 net.cpp:409] pool2 -> pool2
I0502 18:37:04.382654 12179 net.cpp:144] Setting up pool2
I0502 18:37:04.382663 12179 net.cpp:151] Top shape: 20 64 10 10 (128000)
I0502 18:37:04.382665 12179 net.cpp:159] Memory required for data: 8736080
I0502 18:37:04.382668 12179 layer_factory.hpp:77] Creating layer conv3
I0502 18:37:04.382676 12179 net.cpp:94] Creating Layer conv3
I0502 18:37:04.382680 12179 net.cpp:435] conv3 <- pool2
I0502 18:37:04.382694 12179 net.cpp:409] conv3 -> conv3
I0502 18:37:04.388659 12179 net.cpp:144] Setting up conv3
I0502 18:37:04.388672 12179 net.cpp:151] Top shape: 20 64 10 10 (128000)
I0502 18:37:04.388686 12179 net.cpp:159] Memory required for data: 9248080
I0502 18:37:04.388695 12179 layer_factory.hpp:77] Creating layer relu3
I0502 18:37:04.388701 12179 net.cpp:94] Creating Layer relu3
I0502 18:37:04.388705 12179 net.cpp:435] relu3 <- conv3
I0502 18:37:04.388710 12179 net.cpp:396] relu3 -> conv3 (in-place)
I0502 18:37:04.388716 12179 net.cpp:144] Setting up relu3
I0502 18:37:04.388721 12179 net.cpp:151] Top shape: 20 64 10 10 (128000)
I0502 18:37:04.388725 12179 net.cpp:159] Memory required for data: 9760080
I0502 18:37:04.388727 12179 layer_factory.hpp:77] Creating layer conv4
I0502 18:37:04.388736 12179 net.cpp:94] Creating Layer conv4
I0502 18:37:04.388739 12179 net.cpp:435] conv4 <- conv3
I0502 18:37:04.388743 12179 net.cpp:409] conv4 -> conv4
I0502 18:37:04.394906 12179 net.cpp:144] Setting up conv4
I0502 18:37:04.394919 12179 net.cpp:151] Top shape: 20 64 10 10 (128000)
I0502 18:37:04.394923 12179 net.cpp:159] Memory required for data: 10272080
I0502 18:37:04.394929 12179 layer_factory.hpp:77] Creating layer relu4
I0502 18:37:04.394935 12179 net.cpp:94] Creating Layer relu4
I0502 18:37:04.394939 12179 net.cpp:435] relu4 <- conv4
I0502 18:37:04.394943 12179 net.cpp:396] relu4 -> conv4 (in-place)
I0502 18:37:04.394950 12179 net.cpp:144] Setting up relu4
I0502 18:37:04.394955 12179 net.cpp:151] Top shape: 20 64 10 10 (128000)
I0502 18:37:04.394958 12179 net.cpp:159] Memory required for data: 10784080
I0502 18:37:04.394961 12179 layer_factory.hpp:77] Creating layer conv5
I0502 18:37:04.394968 12179 net.cpp:94] Creating Layer conv5
I0502 18:37:04.394973 12179 net.cpp:435] conv5 <- conv4
I0502 18:37:04.394978 12179 net.cpp:409] conv5 -> conv5
I0502 18:37:04.401365 12179 net.cpp:144] Setting up conv5
I0502 18:37:04.401379 12179 net.cpp:151] Top shape: 20 64 10 10 (128000)
I0502 18:37:04.401383 12179 net.cpp:159] Memory required for data: 11296080
I0502 18:37:04.401392 12179 layer_factory.hpp:77] Creating layer relu5
I0502 18:37:04.401398 12179 net.cpp:94] Creating Layer relu5
I0502 18:37:04.401402 12179 net.cpp:435] relu5 <- conv5
I0502 18:37:04.401407 12179 net.cpp:396] relu5 -> conv5 (in-place)
I0502 18:37:04.401413 12179 net.cpp:144] Setting up relu5
I0502 18:37:04.401418 12179 net.cpp:151] Top shape: 20 64 10 10 (128000)
I0502 18:37:04.401422 12179 net.cpp:159] Memory required for data: 11808080
I0502 18:37:04.401424 12179 layer_factory.hpp:77] Creating layer pool5
I0502 18:37:04.401429 12179 net.cpp:94] Creating Layer pool5
I0502 18:37:04.401432 12179 net.cpp:435] pool5 <- conv5
I0502 18:37:04.401437 12179 net.cpp:409] pool5 -> pool5
I0502 18:37:04.401470 12179 net.cpp:144] Setting up pool5
I0502 18:37:04.401477 12179 net.cpp:151] Top shape: 20 64 5 5 (32000)
I0502 18:37:04.401480 12179 net.cpp:159] Memory required for data: 11936080
I0502 18:37:04.401484 12179 layer_factory.hpp:77] Creating layer ip1
I0502 18:37:04.401494 12179 net.cpp:94] Creating Layer ip1
I0502 18:37:04.401496 12179 net.cpp:435] ip1 <- pool5
I0502 18:37:04.401501 12179 net.cpp:409] ip1 -> ip1
I0502 18:37:04.403990 12179 net.cpp:144] Setting up ip1
I0502 18:37:04.403996 12179 net.cpp:151] Top shape: 20 64 (1280)
I0502 18:37:04.404000 12179 net.cpp:159] Memory required for data: 11941200
I0502 18:37:04.404005 12179 layer_factory.hpp:77] Creating layer ip2
I0502 18:37:04.404014 12179 net.cpp:94] Creating Layer ip2
I0502 18:37:04.404018 12179 net.cpp:435] ip2 <- ip1
I0502 18:37:04.404022 12179 net.cpp:409] ip2 -> ip2
I0502 18:37:04.404186 12179 net.cpp:144] Setting up ip2
I0502 18:37:04.404192 12179 net.cpp:151] Top shape: 20 64 (1280)
I0502 18:37:04.404196 12179 net.cpp:159] Memory required for data: 11946320
I0502 18:37:04.404201 12179 layer_factory.hpp:77] Creating layer ip3
I0502 18:37:04.404206 12179 net.cpp:94] Creating Layer ip3
I0502 18:37:04.404209 12179 net.cpp:435] ip3 <- ip2
I0502 18:37:04.404213 12179 net.cpp:409] ip3 -> ip3
I0502 18:37:04.404362 12179 net.cpp:144] Setting up ip3
I0502 18:37:04.404368 12179 net.cpp:151] Top shape: 20 50 (1000)
I0502 18:37:04.404371 12179 net.cpp:159] Memory required for data: 11950320
I0502 18:37:04.404376 12179 layer_factory.hpp:77] Creating layer loss
I0502 18:37:04.404382 12179 net.cpp:94] Creating Layer loss
I0502 18:37:04.404386 12179 net.cpp:435] loss <- ip3
I0502 18:37:04.404389 12179 net.cpp:435] loss <- label
I0502 18:37:04.404395 12179 net.cpp:409] loss -> loss
I0502 18:37:04.404404 12179 layer_factory.hpp:77] Creating layer loss
…
I0502 18:37:04.404898 12179 solver.cpp:181] Creating test net (#0) specified by net file: ./protocol/dis_20_400_dimension.protocol_distribution
I0502 18:37:04.404924 12179 net.cpp:323] The NetState phase (1) differed from the phase (0) specified by a rule in layer parameters
I0502 18:37:04.405019 12179 net.cpp:52] Initializing net from parameters: 
state {
  phase: TEST
}
layer {
  name: "intercept"
  type: "HDF5Data"
  top: "data"
  top: "label"
  include {
    phase: TEST
  }
  hdf5_data_param {
    source: "/home/purduethu/scratch/radon/d/deng106/CNNStatisticalModel/distributions/input/20_distributions_400_sample_size_test-distributions-path.txt"
    batch_size: 20
  }
}
layer {
  name: "conv1"
  type: "Convolution"
  bottom: "data"
  top: "conv1"
  param {
    lr_mult: 1
  }
  param {
    lr_mult: 2
  }
  convolution_param {
    num_output: 64
    pad: 2
    kernel_size: 5
    stride: 1
    weight_filler {
      type: "gaussian"
      std: 0.0001
    }
    bias_filler {
      type: "constant"
    }
  }
}
layer {
  name: "relu1"
  type: "ReLU"
  bottom: "conv1"
  top: "conv1"
}
layer {
  name: "conv2"
  type: "Convolution"
  bottom: "conv1"
  top: "conv2"
  param {
    lr_mult: 1
  }
  param {
    lr_mult: 2
  }
  convolution_param {
    num_output: 64
    pad: 2
    kernel_size: 5
    stride: 1
    weight_filler {
      type: "gaussian"
      std: 0.01
    }
    bias_filler {
      type: "constant"
    }
  }
}
layer {
  name: "relu2"
  type: "ReLU"
  bottom: "conv2"
  top: "conv2"
}
layer {
  name: "pool2"
  type: "Pooling"
  bottom: "conv2"
  top: "pool2"
  pooling_param {
    pool: MAX
    kernel_size: 3
    stride: 2
  }
}
layer {
  name: "conv3"
  type: "Convolution"
  bottom: "pool2"
  top: "conv3"
  param {
    lr_mult: 1
  }
  param {
    lr_mult: 2
  }
  convolution_param {
    num_output: 64
    pad: 2
    kernel_size: 5
    stride: 1
    weight_filler {
      type: "gaussian"
      std: 0.01
    }
    bias_filler {
      type: "constant"
    }
  }
}
layer {
  name: "relu3"
  type: "ReLU"
  bottom: "conv3"
  top: "conv3"
}
layer {
  name: "conv4"
  type: "Convolution"
  bottom: "conv3"
  top: "conv4"
  param {
    lr_mult: 1
  }
  param {
    lr_mult: 2
  }
  convolution_param {
    num_output: 64
    pad: 2
    kernel_size: 5
    stride: 1
    weight_filler {
      type: "gaussian"
      std: 0.01
    }
    bias_filler {
      type: "constant"
    }
  }
}
layer {
  name: "relu4"
  type: "ReLU"
  bottom: "conv4"
  top: "conv4"
}
layer {
  name: "conv5"
  type: "Convolution"
  bottom: "conv4"
  top: "conv5"
  param {
    lr_mult: 1
  }
  param {
    lr_mult: 2
  }
  convolution_param {
    num_output: 64
    pad: 2
    kernel_size: 5
    stride: 1
    weight_filler {
      type: "gaussian"
      std: 0.01
    }
    bias_filler {
      type: "constant"
    }
  }
}
layer {
  name: "relu5"
  type: "ReLU"
  bottom: "conv5"
  top: "conv5"
}
layer {
  name: "pool5"
  type: "Pooling"
  bottom: "conv5"
  top: "pool5"
  pooling_param {
    pool: AVE
    kernel_size: 3
    stride: 2
  }
}
layer {
  name: "ip1"
  type: "InnerProduct"
  bottom: "pool5"
  top: "ip1"
  param {
    lr_mult: 1
  }
  param {
    lr_mult: 2
  }
  inner_product_param {
    num_output: 64
    weight_filler {
      type: "gaussian"
      std: 0.1
    }
    bias_filler {
      type: "constant"
    }
  }
}
layer {
  name: "ip2"
  type: "InnerProduct"
  bottom: "ip1"
  top: "ip2"
  param {
    lr_mult: 1
  }
  param {
    lr_mult: 2
  }
  inner_product_param {
    num_output: 64
    weight_filler {
      type: "gaussian"
      std: 0.1
    }
    bias_filler {
      type: "constant"
    }
  }
}
layer {
  name: "ip3"
  type: "InnerProduct"
  bottom: "ip2"
  top: "ip3"
  param {
    lr_mult: 1
  }
  param {
    lr_mult: 2
  }
  inner_product_param {
    num_output: 50
    weight_filler {
      type: "gaussian"
      std: 0.1
    }
    bias_filler {
      type: "constant"
    }
  }
}
layer {
  name: "accuracy"
  type: "Accuracy"
  bottom: "ip3"
  bottom: "label"
  top: "accuracy"
  include {
    phase: TEST
  }
}
layer {
  name: "loss"
  type: "SoftmaxWithLoss"
  bottom: "ip3"
  bottom: "label"
  top: "loss"
}
I0502 18:37:04.405092 12179 layer_factory.hpp:77] Creating layer intercept
I0502 18:37:04.405100 12179 net.cpp:94] Creating Layer intercept
I0502 18:37:04.405104 12179 net.cpp:409] intercept -> data
I0502 18:37:04.405112 12179 net.cpp:409] intercept -> label
I0502 18:37:04.405117 12179 hdf5_data_layer.cpp:79] Loading list of HDF5 filenames from: /home/purduethu/scratch/radon/d/deng106/CNNStatisticalModel/distributions/input/20_distributions_400_sample_size_test-distributions-path.txt
I0502 18:37:04.405136 12179 hdf5_data_layer.cpp:93] Number of HDF5 files: 1
I0502 18:37:04.471621 12179 net.cpp:144] Setting up intercept
I0502 18:37:04.471652 12179 net.cpp:151] Top shape: 20 1 20 20 (8000)
I0502 18:37:04.471657 12179 net.cpp:151] Top shape: 20 (20)
I0502 18:37:04.471660 12179 net.cpp:159] Memory required for data: 32080
I0502 18:37:04.471665 12179 layer_factory.hpp:77] Creating layer label_intercept_1_split
I0502 18:37:04.471683 12179 net.cpp:94] Creating Layer label_intercept_1_split
I0502 18:37:04.471688 12179 net.cpp:435] label_intercept_1_split <- label
I0502 18:37:04.471693 12179 net.cpp:409] label_intercept_1_split -> label_intercept_1_split_0
I0502 18:37:04.471701 12179 net.cpp:409] label_intercept_1_split -> label_intercept_1_split_1
I0502 18:37:04.471736 12179 net.cpp:144] Setting up label_intercept_1_split
I0502 18:37:04.471742 12179 net.cpp:151] Top shape: 20 (20)
I0502 18:37:04.471746 12179 net.cpp:151] Top shape: 20 (20)
I0502 18:37:04.471750 12179 net.cpp:159] Memory required for data: 32240
I0502 18:37:04.471752 12179 layer_factory.hpp:77] Creating layer conv1
I0502 18:37:04.471763 12179 net.cpp:94] Creating Layer conv1
I0502 18:37:04.471767 12179 net.cpp:435] conv1 <- data
I0502 18:37:04.471772 12179 net.cpp:409] conv1 -> conv1
I0502 18:37:04.472899 12179 net.cpp:144] Setting up conv1
I0502 18:37:04.472921 12179 net.cpp:151] Top shape: 20 64 20 20 (512000)
I0502 18:37:04.472926 12179 net.cpp:159] Memory required for data: 2080240
I0502 18:37:04.472935 12179 layer_factory.hpp:77] Creating layer relu1
I0502 18:37:04.472942 12179 net.cpp:94] Creating Layer relu1
I0502 18:37:04.472946 12179 net.cpp:435] relu1 <- conv1
I0502 18:37:04.472950 12179 net.cpp:396] relu1 -> conv1 (in-place)
I0502 18:37:04.472959 12179 net.cpp:144] Setting up relu1
I0502 18:37:04.472962 12179 net.cpp:151] Top shape: 20 64 20 20 (512000)
I0502 18:37:04.472965 12179 net.cpp:159] Memory required for data: 4128240
I0502 18:37:04.472968 12179 layer_factory.hpp:77] Creating layer conv2
I0502 18:37:04.472976 12179 net.cpp:94] Creating Layer conv2
I0502 18:37:04.472980 12179 net.cpp:435] conv2 <- conv1
I0502 18:37:04.472985 12179 net.cpp:409] conv2 -> conv2
I0502 18:37:04.477860 12179 net.cpp:144] Setting up conv2
I0502 18:37:04.477875 12179 net.cpp:151] Top shape: 20 64 20 20 (512000)
I0502 18:37:04.477880 12179 net.cpp:159] Memory required for data: 6176240
I0502 18:37:04.477886 12179 layer_factory.hpp:77] Creating layer relu2
I0502 18:37:04.477892 12179 net.cpp:94] Creating Layer relu2
I0502 18:37:04.477896 12179 net.cpp:435] relu2 <- conv2
I0502 18:37:04.477900 12179 net.cpp:396] relu2 -> conv2 (in-place)
I0502 18:37:04.477907 12179 net.cpp:144] Setting up relu2
I0502 18:37:04.477911 12179 net.cpp:151] Top shape: 20 64 20 20 (512000)
I0502 18:37:04.477915 12179 net.cpp:159] Memory required for data: 8224240
I0502 18:37:04.477917 12179 layer_factory.hpp:77] Creating layer pool2
I0502 18:37:04.477923 12179 net.cpp:94] Creating Layer pool2
I0502 18:37:04.477926 12179 net.cpp:435] pool2 <- conv2
I0502 18:37:04.477931 12179 net.cpp:409] pool2 -> pool2
I0502 18:37:04.477963 12179 net.cpp:144] Setting up pool2
I0502 18:37:04.477969 12179 net.cpp:151] Top shape: 20 64 10 10 (128000)
I0502 18:37:04.477973 12179 net.cpp:159] Memory required for data: 8736240
I0502 18:37:04.477977 12179 layer_factory.hpp:77] Creating layer conv3
I0502 18:37:04.477983 12179 net.cpp:94] Creating Layer conv3
I0502 18:37:04.477988 12179 net.cpp:435] conv3 <- pool2
I0502 18:37:04.477991 12179 net.cpp:409] conv3 -> conv3
I0502 18:37:04.482062 12179 net.cpp:144] Setting up conv3
I0502 18:37:04.482076 12179 net.cpp:151] Top shape: 20 64 10 10 (128000)
I0502 18:37:04.482080 12179 net.cpp:159] Memory required for data: 9248240
I0502 18:37:04.482089 12179 layer_factory.hpp:77] Creating layer relu3
I0502 18:37:04.482095 12179 net.cpp:94] Creating Layer relu3
I0502 18:37:04.482100 12179 net.cpp:435] relu3 <- conv3
I0502 18:37:04.482103 12179 net.cpp:396] relu3 -> conv3 (in-place)
I0502 18:37:04.482110 12179 net.cpp:144] Setting up relu3
I0502 18:37:04.482115 12179 net.cpp:151] Top shape: 20 64 10 10 (128000)
I0502 18:37:04.482118 12179 net.cpp:159] Memory required for data: 9760240
I0502 18:37:04.482121 12179 layer_factory.hpp:77] Creating layer conv4
I0502 18:37:04.482130 12179 net.cpp:94] Creating Layer conv4
I0502 18:37:04.482132 12179 net.cpp:435] conv4 <- conv3
I0502 18:37:04.482137 12179 net.cpp:409] conv4 -> conv4
I0502 18:37:04.486065 12179 net.cpp:144] Setting up conv4
I0502 18:37:04.486079 12179 net.cpp:151] Top shape: 20 64 10 10 (128000)
I0502 18:37:04.486083 12179 net.cpp:159] Memory required for data: 10272240
I0502 18:37:04.486089 12179 layer_factory.hpp:77] Creating layer relu4
I0502 18:37:04.486094 12179 net.cpp:94] Creating Layer relu4
I0502 18:37:04.486101 12179 net.cpp:435] relu4 <- conv4
I0502 18:37:04.486106 12179 net.cpp:396] relu4 -> conv4 (in-place)
I0502 18:37:04.486114 12179 net.cpp:144] Setting up relu4
I0502 18:37:04.486119 12179 net.cpp:151] Top shape: 20 64 10 10 (128000)
I0502 18:37:04.486121 12179 net.cpp:159] Memory required for data: 10784240
I0502 18:37:04.486124 12179 layer_factory.hpp:77] Creating layer conv5
I0502 18:37:04.486131 12179 net.cpp:94] Creating Layer conv5
I0502 18:37:04.486135 12179 net.cpp:435] conv5 <- conv4
I0502 18:37:04.486140 12179 net.cpp:409] conv5 -> conv5
I0502 18:37:04.490967 12179 net.cpp:144] Setting up conv5
I0502 18:37:04.490988 12179 net.cpp:151] Top shape: 20 64 10 10 (128000)
I0502 18:37:04.490993 12179 net.cpp:159] Memory required for data: 11296240
I0502 18:37:04.491000 12179 layer_factory.hpp:77] Creating layer relu5
I0502 18:37:04.491008 12179 net.cpp:94] Creating Layer relu5
I0502 18:37:04.491010 12179 net.cpp:435] relu5 <- conv5
I0502 18:37:04.491015 12179 net.cpp:396] relu5 -> conv5 (in-place)
I0502 18:37:04.491022 12179 net.cpp:144] Setting up relu5
I0502 18:37:04.491026 12179 net.cpp:151] Top shape: 20 64 10 10 (128000)
I0502 18:37:04.491029 12179 net.cpp:159] Memory required for data: 11808240
I0502 18:37:04.491034 12179 layer_factory.hpp:77] Creating layer pool5
I0502 18:37:04.491039 12179 net.cpp:94] Creating Layer pool5
I0502 18:37:04.491041 12179 net.cpp:435] pool5 <- conv5
I0502 18:37:04.491045 12179 net.cpp:409] pool5 -> pool5
I0502 18:37:04.491070 12179 net.cpp:144] Setting up pool5
I0502 18:37:04.491076 12179 net.cpp:151] Top shape: 20 64 5 5 (32000)
I0502 18:37:04.491080 12179 net.cpp:159] Memory required for data: 11936240
I0502 18:37:04.491082 12179 layer_factory.hpp:77] Creating layer ip1
I0502 18:37:04.491089 12179 net.cpp:94] Creating Layer ip1
I0502 18:37:04.491092 12179 net.cpp:435] ip1 <- pool5
I0502 18:37:04.491097 12179 net.cpp:409] ip1 -> ip1
I0502 18:37:04.493594 12179 net.cpp:144] Setting up ip1
I0502 18:37:04.493602 12179 net.cpp:151] Top shape: 20 64 (1280)
I0502 18:37:04.493605 12179 net.cpp:159] Memory required for data: 11941360
I0502 18:37:04.493612 12179 layer_factory.hpp:77] Creating layer ip2
I0502 18:37:04.493618 12179 net.cpp:94] Creating Layer ip2
I0502 18:37:04.493620 12179 net.cpp:435] ip2 <- ip1
I0502 18:37:04.493625 12179 net.cpp:409] ip2 -> ip2
I0502 18:37:04.493789 12179 net.cpp:144] Setting up ip2
I0502 18:37:04.493795 12179 net.cpp:151] Top shape: 20 64 (1280)
I0502 18:37:04.493799 12179 net.cpp:159] Memory required for data: 11946480
I0502 18:37:04.493804 12179 layer_factory.hpp:77] Creating layer ip3
I0502 18:37:04.493810 12179 net.cpp:94] Creating Layer ip3
I0502 18:37:04.493813 12179 net.cpp:435] ip3 <- ip2
I0502 18:37:04.493818 12179 net.cpp:409] ip3 -> ip3
I0502 18:37:04.493962 12179 net.cpp:144] Setting up ip3
I0502 18:37:04.493968 12179 net.cpp:151] Top shape: 20 50 (1000)
I0502 18:37:04.493970 12179 net.cpp:159] Memory required for data: 11950480
I0502 18:37:04.493975 12179 layer_factory.hpp:77] Creating layer ip3_ip3_0_split
I0502 18:37:04.493980 12179 net.cpp:94] Creating Layer ip3_ip3_0_split
I0502 18:37:04.493983 12179 net.cpp:435] ip3_ip3_0_split <- ip3
I0502 18:37:04.493988 12179 net.cpp:409] ip3_ip3_0_split -> ip3_ip3_0_split_0
I0502 18:37:04.493993 12179 net.cpp:409] ip3_ip3_0_split -> ip3_ip3_0_split_1
I0502 18:37:04.494015 12179 net.cpp:144] Setting up ip3_ip3_0_split
I0502 18:37:04.494020 12179 net.cpp:151] Top shape: 20 50 (1000)
I0502 18:37:04.494024 12179 net.cpp:151] Top shape: 20 50 (1000)
I0502 18:37:04.494027 12179 net.cpp:159] Memory required for data: 11958480
I0502 18:37:04.494030 12179 layer_factory.hpp:77] Creating layer accuracy
I0502 18:37:04.494040 12179 net.cpp:94] Creating Layer accuracy
I0502 18:37:04.494045 12179 net.cpp:435] accuracy <- ip3_ip3_0_split_0
I0502 18:37:04.494048 12179 net.cpp:435] accuracy <- label_intercept_1_split_0
I0502 18:37:04.494052 12179 net.cpp:409] accuracy -> accuracy
…
