…
I0507 02:42:19.793762 31001 net.cpp:323] The NetState phase (0) differed from the phase (1) specified by a rule in layer intercept
I0507 02:42:19.793787 31001 net.cpp:323] The NetState phase (0) differed from the phase (1) specified by a rule in layer loss
I0507 02:42:19.793923 31001 net.cpp:52] Initializing net from parameters: 
state {
  phase: TRAIN
}
layer {
  name: "parameters"
  type: "HDF5Data"
  top: "data"
  top: "label"
  include {
    phase: TRAIN
  }
  hdf5_data_param {
    source: "/home/purduethu/scratch/radon/d/deng106/CNNStatisticalModel/distributions/input/50_distributions_100_sample_size_train-parameters-path.txt"
    batch_size: 20
  }
}
layer {
  name: "conv1"
  type: "Convolution"
  bottom: "data"
  top: "conv1"
  param {
    lr_mult: 1
  }
  param {
    lr_mult: 2
  }
  convolution_param {
    num_output: 64
    pad: 2
    kernel_size: 5
    stride: 1
    weight_filler {
      type: "gaussian"
      std: 0.0001
    }
    bias_filler {
      type: "constant"
    }
  }
}
layer {
  name: "relu1"
  type: "ReLU"
  bottom: "conv1"
  top: "conv1"
}
layer {
  name: "conv2"
  type: "Convolution"
  bottom: "conv1"
  top: "conv2"
  param {
    lr_mult: 1
  }
  param {
    lr_mult: 2
  }
  convolution_param {
    num_output: 64
    pad: 2
    kernel_size: 5
    stride: 1
    weight_filler {
      type: "gaussian"
      std: 0.01
    }
    bias_filler {
      type: "constant"
    }
  }
}
layer {
  name: "relu2"
  type: "ReLU"
  bottom: "conv2"
  top: "conv2"
}
layer {
  name: "pool2"
  type: "Pooling"
  bottom: "conv2"
  top: "pool2"
  pooling_param {
    pool: MAX
    kernel_size: 3
    stride: 2
  }
}
layer {
  name: "conv3"
  type: "Convolution"
  bottom: "pool2"
  top: "conv3"
  param {
    lr_mult: 1
  }
  param {
    lr_mult: 2
  }
  convolution_param {
    num_output: 64
    pad: 2
    kernel_size: 5
    stride: 1
    weight_filler {
      type: "gaussian"
      std: 0.01
    }
    bias_filler {
      type: "constant"
    }
  }
}
layer {
  name: "relu3"
  type: "ReLU"
  bottom: "conv3"
  top: "conv3"
}
layer {
  name: "conv4"
  type: "Convolution"
  bottom: "conv3"
  top: "conv4"
  param {
    lr_mult: 1
  }
  param {
    lr_mult: 2
  }
  convolution_param {
    num_output: 64
    pad: 2
    kernel_size: 5
    stride: 1
    weight_filler {
      type: "gaussian"
      std: 0.01
    }
    bias_filler {
      type: "constant"
    }
  }
}
layer {
  name: "relu4"
  type: "ReLU"
  bottom: "conv4"
  top: "conv4"
}
layer {
  name: "conv5"
  type: "Convolution"
  bottom: "conv4"
  top: "conv5"
  param {
    lr_mult: 1
  }
  param {
    lr_mult: 2
  }
  convolution_param {
    num_output: 64
    pad: 2
    kernel_size: 5
    stride: 1
    weight_filler {
      type: "gaussian"
      std: 0.01
    }
    bias_filler {
      type: "constant"
    }
  }
}
layer {
  name: "relu5"
  type: "ReLU"
  bottom: "conv5"
  top: "conv5"
}
layer {
  name: "pool5"
  type: "Pooling"
  bottom: "conv5"
  top: "pool5"
  pooling_param {
    pool: AVE
    kernel_size: 3
    stride: 2
  }
}
layer {
  name: "ip1"
  type: "InnerProduct"
  bottom: "pool5"
  top: "ip1"
  param {
    lr_mult: 1
  }
  param {
    lr_mult: 2
  }
  inner_product_param {
    num_output: 64
    weight_filler {
      type: "gaussian"
      std: 0.1
    }
    bias_filler {
      type: "constant"
    }
  }
}
layer {
  name: "ip2"
  type: "InnerProduct"
  bottom: "ip1"
  top: "ip2"
  param {
    lr_mult: 1
  }
  param {
    lr_mult: 2
  }
  inner_product_param {
    num_output: 64
    weight_filler {
      type: "gaussian"
      std: 0.1
    }
    bias_filler {
      type: "constant"
    }
  }
}
layer {
  name: "ip3"
  type: "InnerProduct"
  bottom: "ip2"
  top: "ip3"
  param {
    lr_mult: 1
  }
  param {
    lr_mult: 2
  }
  inner_product_param {
    num_output: 1
    weight_filler {
      type: "gaussian"
      std: 0.1
    }
    bias_filler {
      type: "constant"
    }
  }
}
layer {
  name: "loss"
  type: "HuberLoss"
  bottom: "ip3"
  bottom: "label"
  top: "loss"
  include {
    phase: TRAIN
  }
}
I0507 02:42:19.794011 31001 layer_factory.hpp:77] Creating layer parameters
I0507 02:42:19.794033 31001 net.cpp:94] Creating Layer parameters
I0507 02:42:19.794040 31001 net.cpp:409] parameters -> data
I0507 02:42:19.794054 31001 net.cpp:409] parameters -> label
I0507 02:42:19.794064 31001 hdf5_data_layer.cpp:79] Loading list of HDF5 filenames from: /home/purduethu/scratch/radon/d/deng106/CNNStatisticalModel/distributions/input/50_distributions_100_sample_size_train-parameters-path.txt
I0507 02:42:19.794085 31001 hdf5_data_layer.cpp:93] Number of HDF5 files: 1
I0507 02:42:19.794860 31001 hdf5.cpp:32] Datatype class: H5T_FLOAT
I0507 02:42:20.015012 31001 net.cpp:144] Setting up parameters
I0507 02:42:20.015056 31001 net.cpp:151] Top shape: 20 1 10 10 (2000)
I0507 02:42:20.015069 31001 net.cpp:151] Top shape: 20 (20)
I0507 02:42:20.015075 31001 net.cpp:159] Memory required for data: 8080
I0507 02:42:20.015084 31001 layer_factory.hpp:77] Creating layer conv1
I0507 02:42:20.015113 31001 net.cpp:94] Creating Layer conv1
I0507 02:42:20.015122 31001 net.cpp:435] conv1 <- data
I0507 02:42:20.015133 31001 net.cpp:409] conv1 -> conv1
I0507 02:42:20.020717 31001 net.cpp:144] Setting up conv1
I0507 02:42:20.020738 31001 net.cpp:151] Top shape: 20 64 10 10 (128000)
I0507 02:42:20.020746 31001 net.cpp:159] Memory required for data: 520080
I0507 02:42:20.020761 31001 layer_factory.hpp:77] Creating layer relu1
I0507 02:42:20.020776 31001 net.cpp:94] Creating Layer relu1
I0507 02:42:20.020786 31001 net.cpp:435] relu1 <- conv1
I0507 02:42:20.020794 31001 net.cpp:396] relu1 -> conv1 (in-place)
I0507 02:42:20.020815 31001 net.cpp:144] Setting up relu1
I0507 02:42:20.020825 31001 net.cpp:151] Top shape: 20 64 10 10 (128000)
I0507 02:42:20.020830 31001 net.cpp:159] Memory required for data: 1032080
I0507 02:42:20.020836 31001 layer_factory.hpp:77] Creating layer conv2
I0507 02:42:20.020849 31001 net.cpp:94] Creating Layer conv2
I0507 02:42:20.020856 31001 net.cpp:435] conv2 <- conv1
I0507 02:42:20.020865 31001 net.cpp:409] conv2 -> conv2
I0507 02:42:20.028666 31001 net.cpp:144] Setting up conv2
I0507 02:42:20.028686 31001 net.cpp:151] Top shape: 20 64 10 10 (128000)
I0507 02:42:20.028692 31001 net.cpp:159] Memory required for data: 1544080
I0507 02:42:20.028704 31001 layer_factory.hpp:77] Creating layer relu2
I0507 02:42:20.028715 31001 net.cpp:94] Creating Layer relu2
I0507 02:42:20.028722 31001 net.cpp:435] relu2 <- conv2
I0507 02:42:20.028730 31001 net.cpp:396] relu2 -> conv2 (in-place)
I0507 02:42:20.028741 31001 net.cpp:144] Setting up relu2
I0507 02:42:20.028750 31001 net.cpp:151] Top shape: 20 64 10 10 (128000)
I0507 02:42:20.028758 31001 net.cpp:159] Memory required for data: 2056080
I0507 02:42:20.028764 31001 layer_factory.hpp:77] Creating layer pool2
I0507 02:42:20.028777 31001 net.cpp:94] Creating Layer pool2
I0507 02:42:20.028784 31001 net.cpp:435] pool2 <- conv2
I0507 02:42:20.028792 31001 net.cpp:409] pool2 -> pool2
I0507 02:42:20.028864 31001 net.cpp:144] Setting up pool2
I0507 02:42:20.028879 31001 net.cpp:151] Top shape: 20 64 5 5 (32000)
I0507 02:42:20.028885 31001 net.cpp:159] Memory required for data: 2184080
I0507 02:42:20.028892 31001 layer_factory.hpp:77] Creating layer conv3
I0507 02:42:20.028905 31001 net.cpp:94] Creating Layer conv3
I0507 02:42:20.028913 31001 net.cpp:435] conv3 <- pool2
I0507 02:42:20.028939 31001 net.cpp:409] conv3 -> conv3
I0507 02:42:20.035178 31001 net.cpp:144] Setting up conv3
I0507 02:42:20.035198 31001 net.cpp:151] Top shape: 20 64 5 5 (32000)
I0507 02:42:20.035207 31001 net.cpp:159] Memory required for data: 2312080
I0507 02:42:20.035221 31001 layer_factory.hpp:77] Creating layer relu3
I0507 02:42:20.035233 31001 net.cpp:94] Creating Layer relu3
I0507 02:42:20.035239 31001 net.cpp:435] relu3 <- conv3
I0507 02:42:20.035248 31001 net.cpp:396] relu3 -> conv3 (in-place)
I0507 02:42:20.035259 31001 net.cpp:144] Setting up relu3
I0507 02:42:20.035266 31001 net.cpp:151] Top shape: 20 64 5 5 (32000)
I0507 02:42:20.035271 31001 net.cpp:159] Memory required for data: 2440080
I0507 02:42:20.035276 31001 layer_factory.hpp:77] Creating layer conv4
I0507 02:42:20.035290 31001 net.cpp:94] Creating Layer conv4
I0507 02:42:20.035295 31001 net.cpp:435] conv4 <- conv3
I0507 02:42:20.035302 31001 net.cpp:409] conv4 -> conv4
I0507 02:42:20.040961 31001 net.cpp:144] Setting up conv4
I0507 02:42:20.040980 31001 net.cpp:151] Top shape: 20 64 5 5 (32000)
I0507 02:42:20.040987 31001 net.cpp:159] Memory required for data: 2568080
I0507 02:42:20.040998 31001 layer_factory.hpp:77] Creating layer relu4
I0507 02:42:20.041009 31001 net.cpp:94] Creating Layer relu4
I0507 02:42:20.041015 31001 net.cpp:435] relu4 <- conv4
I0507 02:42:20.041023 31001 net.cpp:396] relu4 -> conv4 (in-place)
I0507 02:42:20.041034 31001 net.cpp:144] Setting up relu4
I0507 02:42:20.041043 31001 net.cpp:151] Top shape: 20 64 5 5 (32000)
I0507 02:42:20.041049 31001 net.cpp:159] Memory required for data: 2696080
I0507 02:42:20.041054 31001 layer_factory.hpp:77] Creating layer conv5
I0507 02:42:20.041065 31001 net.cpp:94] Creating Layer conv5
I0507 02:42:20.041072 31001 net.cpp:435] conv5 <- conv4
I0507 02:42:20.041081 31001 net.cpp:409] conv5 -> conv5
I0507 02:42:20.047421 31001 net.cpp:144] Setting up conv5
I0507 02:42:20.047441 31001 net.cpp:151] Top shape: 20 64 5 5 (32000)
I0507 02:42:20.047448 31001 net.cpp:159] Memory required for data: 2824080
I0507 02:42:20.047463 31001 layer_factory.hpp:77] Creating layer relu5
I0507 02:42:20.047473 31001 net.cpp:94] Creating Layer relu5
I0507 02:42:20.047479 31001 net.cpp:435] relu5 <- conv5
I0507 02:42:20.047487 31001 net.cpp:396] relu5 -> conv5 (in-place)
I0507 02:42:20.047497 31001 net.cpp:144] Setting up relu5
I0507 02:42:20.047503 31001 net.cpp:151] Top shape: 20 64 5 5 (32000)
I0507 02:42:20.047508 31001 net.cpp:159] Memory required for data: 2952080
I0507 02:42:20.047514 31001 layer_factory.hpp:77] Creating layer pool5
I0507 02:42:20.047523 31001 net.cpp:94] Creating Layer pool5
I0507 02:42:20.047528 31001 net.cpp:435] pool5 <- conv5
I0507 02:42:20.047534 31001 net.cpp:409] pool5 -> pool5
I0507 02:42:20.047586 31001 net.cpp:144] Setting up pool5
I0507 02:42:20.047601 31001 net.cpp:151] Top shape: 20 64 2 2 (5120)
I0507 02:42:20.047607 31001 net.cpp:159] Memory required for data: 2972560
I0507 02:42:20.047613 31001 layer_factory.hpp:77] Creating layer ip1
I0507 02:42:20.047627 31001 net.cpp:94] Creating Layer ip1
I0507 02:42:20.047633 31001 net.cpp:435] ip1 <- pool5
I0507 02:42:20.047641 31001 net.cpp:409] ip1 -> ip1
I0507 02:42:20.049542 31001 net.cpp:144] Setting up ip1
I0507 02:42:20.049561 31001 net.cpp:151] Top shape: 20 64 (1280)
I0507 02:42:20.049569 31001 net.cpp:159] Memory required for data: 2977680
I0507 02:42:20.049579 31001 layer_factory.hpp:77] Creating layer ip2
I0507 02:42:20.049592 31001 net.cpp:94] Creating Layer ip2
I0507 02:42:20.049597 31001 net.cpp:435] ip2 <- ip1
I0507 02:42:20.049607 31001 net.cpp:409] ip2 -> ip2
I0507 02:42:20.049926 31001 net.cpp:144] Setting up ip2
I0507 02:42:20.049943 31001 net.cpp:151] Top shape: 20 64 (1280)
I0507 02:42:20.049949 31001 net.cpp:159] Memory required for data: 2982800
I0507 02:42:20.049959 31001 layer_factory.hpp:77] Creating layer ip3
I0507 02:42:20.049969 31001 net.cpp:94] Creating Layer ip3
I0507 02:42:20.049976 31001 net.cpp:435] ip3 <- ip2
I0507 02:42:20.049985 31001 net.cpp:409] ip3 -> ip3
I0507 02:42:20.050165 31001 net.cpp:144] Setting up ip3
I0507 02:42:20.050181 31001 net.cpp:151] Top shape: 20 1 (20)
I0507 02:42:20.050189 31001 net.cpp:159] Memory required for data: 2982880
I0507 02:42:20.050199 31001 layer_factory.hpp:77] Creating layer loss
I0507 02:42:20.050210 31001 net.cpp:94] Creating Layer loss
I0507 02:42:20.050215 31001 net.cpp:435] loss <- ip3
I0507 02:42:20.050222 31001 net.cpp:435] loss <- label
I0507 02:42:20.050230 31001 net.cpp:409] loss -> loss
I0507 02:42:20.050313 31001 net.cpp:144] Setting up loss
…
I0507 02:42:20.133344 31001 net.cpp:323] The NetState phase (0) differed from the phase (1) specified by a rule in layer intercept
I0507 02:42:20.133373 31001 net.cpp:323] The NetState phase (0) differed from the phase (1) specified by a rule in layer accuracy
I0507 02:42:20.133515 31001 net.cpp:52] Initializing net from parameters: 
state {
  phase: TRAIN
}
layer {
  name: "parameters"
  type: "HDF5Data"
  top: "data"
  top: "label"
  include {
    phase: TRAIN
  }
  hdf5_data_param {
    source: "/home/purduethu/scratch/radon/d/deng106/CNNStatisticalModel/distributions/input/50_distributions_100_sample_size_train-distributions-path.txt"
    batch_size: 20
  }
}
layer {
  name: "conv1"
  type: "Convolution"
  bottom: "data"
  top: "conv1"
  param {
    lr_mult: 1
  }
  param {
    lr_mult: 2
  }
  convolution_param {
    num_output: 64
    pad: 2
    kernel_size: 5
    stride: 1
    weight_filler {
      type: "gaussian"
      std: 0.0001
    }
    bias_filler {
      type: "constant"
    }
  }
}
layer {
  name: "relu1"
  type: "ReLU"
  bottom: "conv1"
  top: "conv1"
}
layer {
  name: "conv2"
  type: "Convolution"
  bottom: "conv1"
  top: "conv2"
  param {
    lr_mult: 1
  }
  param {
    lr_mult: 2
  }
  convolution_param {
    num_output: 64
    pad: 2
    kernel_size: 5
    stride: 1
    weight_filler {
      type: "gaussian"
      std: 0.01
    }
    bias_filler {
      type: "constant"
    }
  }
}
layer {
  name: "relu2"
  type: "ReLU"
  bottom: "conv2"
  top: "conv2"
}
layer {
  name: "pool2"
  type: "Pooling"
  bottom: "conv2"
  top: "pool2"
  pooling_param {
    pool: MAX
    kernel_size: 3
    stride: 2
  }
}
layer {
  name: "conv3"
  type: "Convolution"
  bottom: "pool2"
  top: "conv3"
  param {
    lr_mult: 1
  }
  param {
    lr_mult: 2
  }
  convolution_param {
    num_output: 64
    pad: 2
    kernel_size: 5
    stride: 1
    weight_filler {
      type: "gaussian"
      std: 0.01
    }
    bias_filler {
      type: "constant"
    }
  }
}
layer {
  name: "relu3"
  type: "ReLU"
  bottom: "conv3"
  top: "conv3"
}
layer {
  name: "conv4"
  type: "Convolution"
  bottom: "conv3"
  top: "conv4"
  param {
    lr_mult: 1
  }
  param {
    lr_mult: 2
  }
  convolution_param {
    num_output: 64
    pad: 2
    kernel_size: 5
    stride: 1
    weight_filler {
      type: "gaussian"
      std: 0.01
    }
    bias_filler {
      type: "constant"
    }
  }
}
layer {
  name: "relu4"
  type: "ReLU"
  bottom: "conv4"
  top: "conv4"
}
layer {
  name: "conv5"
  type: "Convolution"
  bottom: "conv4"
  top: "conv5"
  param {
    lr_mult: 1
  }
  param {
    lr_mult: 2
  }
  convolution_param {
    num_output: 64
    pad: 2
    kernel_size: 5
    stride: 1
    weight_filler {
      type: "gaussian"
      std: 0.01
    }
    bias_filler {
      type: "constant"
    }
  }
}
layer {
  name: "relu5"
  type: "ReLU"
  bottom: "conv5"
  top: "conv5"
}
layer {
  name: "pool5"
  type: "Pooling"
  bottom: "conv5"
  top: "pool5"
  pooling_param {
    pool: AVE
    kernel_size: 3
    stride: 2
  }
}
layer {
  name: "ip1"
  type: "InnerProduct"
  bottom: "pool5"
  top: "ip1"
  param {
    lr_mult: 1
  }
  param {
    lr_mult: 2
  }
  inner_product_param {
    num_output: 64
    weight_filler {
      type: "gaussian"
      std: 0.1
    }
    bias_filler {
      type: "constant"
    }
  }
}
layer {
  name: "ip2"
  type: "InnerProduct"
  bottom: "ip1"
  top: "ip2"
  param {
    lr_mult: 1
  }
  param {
    lr_mult: 2
  }
  inner_product_param {
    num_output: 64
    weight_filler {
      type: "gaussian"
      std: 0.1
    }
    bias_filler {
      type: "constant"
    }
  }
}
layer {
  name: "ip3"
  type: "InnerProduct"
  bottom: "ip2"
  top: "ip3"
  param {
    lr_mult: 1
  }
  param {
    lr_mult: 2
  }
  inner_product_param {
    num_output: 50
    weight_filler {
      type: "gaussian"
      std: 0.1
    }
    bias_filler {
      type: "constant"
    }
  }
}
layer {
  name: "loss"
  type: "SoftmaxWithLoss"
  bottom: "ip3"
  bottom: "label"
  top: "loss"
}
I0507 02:42:20.133599 31001 layer_factory.hpp:77] Creating layer parameters
I0507 02:42:20.133613 31001 net.cpp:94] Creating Layer parameters
I0507 02:42:20.133621 31001 net.cpp:409] parameters -> data
I0507 02:42:20.133633 31001 net.cpp:409] parameters -> label
I0507 02:42:20.133644 31001 hdf5_data_layer.cpp:79] Loading list of HDF5 filenames from: /home/purduethu/scratch/radon/d/deng106/CNNStatisticalModel/distributions/input/50_distributions_100_sample_size_train-distributions-path.txt
I0507 02:42:20.133671 31001 hdf5_data_layer.cpp:93] Number of HDF5 files: 1
I0507 02:42:20.345834 31001 hdf5.cpp:35] Datatype class: H5T_INTEGER
I0507 02:42:20.350288 31001 net.cpp:144] Setting up parameters
I0507 02:42:20.350311 31001 net.cpp:151] Top shape: 20 1 10 10 (2000)
I0507 02:42:20.350318 31001 net.cpp:151] Top shape: 20 (20)
I0507 02:42:20.350324 31001 net.cpp:159] Memory required for data: 8080
I0507 02:42:20.350333 31001 layer_factory.hpp:77] Creating layer conv1
I0507 02:42:20.350356 31001 net.cpp:94] Creating Layer conv1
I0507 02:42:20.350366 31001 net.cpp:435] conv1 <- data
I0507 02:42:20.350378 31001 net.cpp:409] conv1 -> conv1
I0507 02:42:20.352509 31001 net.cpp:144] Setting up conv1
I0507 02:42:20.352529 31001 net.cpp:151] Top shape: 20 64 10 10 (128000)
I0507 02:42:20.352536 31001 net.cpp:159] Memory required for data: 520080
I0507 02:42:20.352566 31001 layer_factory.hpp:77] Creating layer relu1
I0507 02:42:20.352579 31001 net.cpp:94] Creating Layer relu1
I0507 02:42:20.352586 31001 net.cpp:435] relu1 <- conv1
I0507 02:42:20.352594 31001 net.cpp:396] relu1 -> conv1 (in-place)
I0507 02:42:20.352607 31001 net.cpp:144] Setting up relu1
I0507 02:42:20.352614 31001 net.cpp:151] Top shape: 20 64 10 10 (128000)
I0507 02:42:20.352620 31001 net.cpp:159] Memory required for data: 1032080
I0507 02:42:20.352627 31001 layer_factory.hpp:77] Creating layer conv2
I0507 02:42:20.352638 31001 net.cpp:94] Creating Layer conv2
I0507 02:42:20.352646 31001 net.cpp:435] conv2 <- conv1
I0507 02:42:20.352655 31001 net.cpp:409] conv2 -> conv2
I0507 02:42:20.359422 31001 net.cpp:144] Setting up conv2
I0507 02:42:20.359441 31001 net.cpp:151] Top shape: 20 64 10 10 (128000)
I0507 02:42:20.359449 31001 net.cpp:159] Memory required for data: 1544080
I0507 02:42:20.359463 31001 layer_factory.hpp:77] Creating layer relu2
I0507 02:42:20.359474 31001 net.cpp:94] Creating Layer relu2
I0507 02:42:20.359480 31001 net.cpp:435] relu2 <- conv2
I0507 02:42:20.359488 31001 net.cpp:396] relu2 -> conv2 (in-place)
I0507 02:42:20.359498 31001 net.cpp:144] Setting up relu2
I0507 02:42:20.359504 31001 net.cpp:151] Top shape: 20 64 10 10 (128000)
I0507 02:42:20.359510 31001 net.cpp:159] Memory required for data: 2056080
I0507 02:42:20.359515 31001 layer_factory.hpp:77] Creating layer pool2
I0507 02:42:20.359524 31001 net.cpp:94] Creating Layer pool2
I0507 02:42:20.359529 31001 net.cpp:435] pool2 <- conv2
I0507 02:42:20.359536 31001 net.cpp:409] pool2 -> pool2
I0507 02:42:20.359604 31001 net.cpp:144] Setting up pool2
I0507 02:42:20.359614 31001 net.cpp:151] Top shape: 20 64 5 5 (32000)
I0507 02:42:20.359619 31001 net.cpp:159] Memory required for data: 2184080
I0507 02:42:20.359625 31001 layer_factory.hpp:77] Creating layer conv3
I0507 02:42:20.359637 31001 net.cpp:94] Creating Layer conv3
I0507 02:42:20.359643 31001 net.cpp:435] conv3 <- pool2
I0507 02:42:20.359653 31001 net.cpp:409] conv3 -> conv3
I0507 02:42:20.367143 31001 net.cpp:144] Setting up conv3
I0507 02:42:20.367163 31001 net.cpp:151] Top shape: 20 64 5 5 (32000)
I0507 02:42:20.367172 31001 net.cpp:159] Memory required for data: 2312080
I0507 02:42:20.367183 31001 layer_factory.hpp:77] Creating layer relu3
I0507 02:42:20.367195 31001 net.cpp:94] Creating Layer relu3
I0507 02:42:20.367202 31001 net.cpp:435] relu3 <- conv3
I0507 02:42:20.367211 31001 net.cpp:396] relu3 -> conv3 (in-place)
I0507 02:42:20.367223 31001 net.cpp:144] Setting up relu3
I0507 02:42:20.367233 31001 net.cpp:151] Top shape: 20 64 5 5 (32000)
I0507 02:42:20.367249 31001 net.cpp:159] Memory required for data: 2440080
I0507 02:42:20.367256 31001 layer_factory.hpp:77] Creating layer conv4
I0507 02:42:20.367271 31001 net.cpp:94] Creating Layer conv4
I0507 02:42:20.367278 31001 net.cpp:435] conv4 <- conv3
I0507 02:42:20.367288 31001 net.cpp:409] conv4 -> conv4
I0507 02:42:20.373687 31001 net.cpp:144] Setting up conv4
I0507 02:42:20.373706 31001 net.cpp:151] Top shape: 20 64 5 5 (32000)
I0507 02:42:20.373714 31001 net.cpp:159] Memory required for data: 2568080
I0507 02:42:20.373728 31001 layer_factory.hpp:77] Creating layer relu4
I0507 02:42:20.373739 31001 net.cpp:94] Creating Layer relu4
I0507 02:42:20.373745 31001 net.cpp:435] relu4 <- conv4
I0507 02:42:20.373754 31001 net.cpp:396] relu4 -> conv4 (in-place)
I0507 02:42:20.373764 31001 net.cpp:144] Setting up relu4
I0507 02:42:20.373772 31001 net.cpp:151] Top shape: 20 64 5 5 (32000)
I0507 02:42:20.373777 31001 net.cpp:159] Memory required for data: 2696080
I0507 02:42:20.373782 31001 layer_factory.hpp:77] Creating layer conv5
I0507 02:42:20.373795 31001 net.cpp:94] Creating Layer conv5
I0507 02:42:20.373801 31001 net.cpp:435] conv5 <- conv4
I0507 02:42:20.373809 31001 net.cpp:409] conv5 -> conv5
I0507 02:42:20.379524 31001 net.cpp:144] Setting up conv5
I0507 02:42:20.379542 31001 net.cpp:151] Top shape: 20 64 5 5 (32000)
I0507 02:42:20.379550 31001 net.cpp:159] Memory required for data: 2824080
I0507 02:42:20.379565 31001 layer_factory.hpp:77] Creating layer relu5
I0507 02:42:20.379575 31001 net.cpp:94] Creating Layer relu5
I0507 02:42:20.379582 31001 net.cpp:435] relu5 <- conv5
I0507 02:42:20.379590 31001 net.cpp:396] relu5 -> conv5 (in-place)
I0507 02:42:20.379601 31001 net.cpp:144] Setting up relu5
I0507 02:42:20.379608 31001 net.cpp:151] Top shape: 20 64 5 5 (32000)
I0507 02:42:20.379613 31001 net.cpp:159] Memory required for data: 2952080
I0507 02:42:20.379618 31001 layer_factory.hpp:77] Creating layer pool5
I0507 02:42:20.379626 31001 net.cpp:94] Creating Layer pool5
I0507 02:42:20.379631 31001 net.cpp:435] pool5 <- conv5
I0507 02:42:20.379638 31001 net.cpp:409] pool5 -> pool5
I0507 02:42:20.379685 31001 net.cpp:144] Setting up pool5
I0507 02:42:20.379698 31001 net.cpp:151] Top shape: 20 64 2 2 (5120)
I0507 02:42:20.379704 31001 net.cpp:159] Memory required for data: 2972560
I0507 02:42:20.379710 31001 layer_factory.hpp:77] Creating layer ip1
I0507 02:42:20.379720 31001 net.cpp:94] Creating Layer ip1
I0507 02:42:20.379726 31001 net.cpp:435] ip1 <- pool5
I0507 02:42:20.379734 31001 net.cpp:409] ip1 -> ip1
I0507 02:42:20.380471 31001 net.cpp:144] Setting up ip1
I0507 02:42:20.380488 31001 net.cpp:151] Top shape: 20 64 (1280)
I0507 02:42:20.380494 31001 net.cpp:159] Memory required for data: 2977680
I0507 02:42:20.380503 31001 layer_factory.hpp:77] Creating layer ip2
I0507 02:42:20.380513 31001 net.cpp:94] Creating Layer ip2
I0507 02:42:20.380519 31001 net.cpp:435] ip2 <- ip1
I0507 02:42:20.380527 31001 net.cpp:409] ip2 -> ip2
I0507 02:42:20.380862 31001 net.cpp:144] Setting up ip2
I0507 02:42:20.380877 31001 net.cpp:151] Top shape: 20 64 (1280)
I0507 02:42:20.380883 31001 net.cpp:159] Memory required for data: 2982800
I0507 02:42:20.380892 31001 layer_factory.hpp:77] Creating layer ip3
I0507 02:42:20.380903 31001 net.cpp:94] Creating Layer ip3
I0507 02:42:20.380908 31001 net.cpp:435] ip3 <- ip2
I0507 02:42:20.380916 31001 net.cpp:409] ip3 -> ip3
I0507 02:42:20.381206 31001 net.cpp:144] Setting up ip3
I0507 02:42:20.381222 31001 net.cpp:151] Top shape: 20 50 (1000)
I0507 02:42:20.381228 31001 net.cpp:159] Memory required for data: 2986800
I0507 02:42:20.381238 31001 layer_factory.hpp:77] Creating layer loss
I0507 02:42:20.381249 31001 net.cpp:94] Creating Layer loss
I0507 02:42:20.381256 31001 net.cpp:435] loss <- ip3
I0507 02:42:20.381263 31001 net.cpp:435] loss <- label
I0507 02:42:20.381269 31001 net.cpp:409] loss -> loss
I0507 02:42:20.381281 31001 layer_factory.hpp:77] Creating layer loss
…
I0507 02:42:20.383316 31001 solver.cpp:181] Creating test net (#0) specified by net file: ./protocol/dis_50_100_dimension.protocol_distribution
I0507 02:42:20.383364 31001 net.cpp:323] The NetState phase (1) differed from the phase (0) specified by a rule in layer parameters
I0507 02:42:20.383527 31001 net.cpp:52] Initializing net from parameters: 
state {
  phase: TEST
}
layer {
  name: "intercept"
  type: "HDF5Data"
  top: "data"
  top: "label"
  include {
    phase: TEST
  }
  hdf5_data_param {
    source: "/home/purduethu/scratch/radon/d/deng106/CNNStatisticalModel/distributions/input/50_distributions_100_sample_size_test-distributions-path.txt"
    batch_size: 20
  }
}
layer {
  name: "conv1"
  type: "Convolution"
  bottom: "data"
  top: "conv1"
  param {
    lr_mult: 1
  }
  param {
    lr_mult: 2
  }
  convolution_param {
    num_output: 64
    pad: 2
    kernel_size: 5
    stride: 1
    weight_filler {
      type: "gaussian"
      std: 0.0001
    }
    bias_filler {
      type: "constant"
    }
  }
}
layer {
  name: "relu1"
  type: "ReLU"
  bottom: "conv1"
  top: "conv1"
}
layer {
  name: "conv2"
  type: "Convolution"
  bottom: "conv1"
  top: "conv2"
  param {
    lr_mult: 1
  }
  param {
    lr_mult: 2
  }
  convolution_param {
    num_output: 64
    pad: 2
    kernel_size: 5
    stride: 1
    weight_filler {
      type: "gaussian"
      std: 0.01
    }
    bias_filler {
      type: "constant"
    }
  }
}
layer {
  name: "relu2"
  type: "ReLU"
  bottom: "conv2"
  top: "conv2"
}
layer {
  name: "pool2"
  type: "Pooling"
  bottom: "conv2"
  top: "pool2"
  pooling_param {
    pool: MAX
    kernel_size: 3
    stride: 2
  }
}
layer {
  name: "conv3"
  type: "Convolution"
  bottom: "pool2"
  top: "conv3"
  param {
    lr_mult: 1
  }
  param {
    lr_mult: 2
  }
  convolution_param {
    num_output: 64
    pad: 2
    kernel_size: 5
    stride: 1
    weight_filler {
      type: "gaussian"
      std: 0.01
    }
    bias_filler {
      type: "constant"
    }
  }
}
layer {
  name: "relu3"
  type: "ReLU"
  bottom: "conv3"
  top: "conv3"
}
layer {
  name: "conv4"
  type: "Convolution"
  bottom: "conv3"
  top: "conv4"
  param {
    lr_mult: 1
  }
  param {
    lr_mult: 2
  }
  convolution_param {
    num_output: 64
    pad: 2
    kernel_size: 5
    stride: 1
    weight_filler {
      type: "gaussian"
      std: 0.01
    }
    bias_filler {
      type: "constant"
    }
  }
}
layer {
  name: "relu4"
  type: "ReLU"
  bottom: "conv4"
  top: "conv4"
}
layer {
  name: "conv5"
  type: "Convolution"
  bottom: "conv4"
  top: "conv5"
  param {
    lr_mult: 1
  }
  param {
    lr_mult: 2
  }
  convolution_param {
    num_output: 64
    pad: 2
    kernel_size: 5
    stride: 1
    weight_filler {
      type: "gaussian"
      std: 0.01
    }
    bias_filler {
      type: "constant"
    }
  }
}
layer {
  name: "relu5"
  type: "ReLU"
  bottom: "conv5"
  top: "conv5"
}
layer {
  name: "pool5"
  type: "Pooling"
  bottom: "conv5"
  top: "pool5"
  pooling_param {
    pool: AVE
    kernel_size: 3
    stride: 2
  }
}
layer {
  name: "ip1"
  type: "InnerProduct"
  bottom: "pool5"
  top: "ip1"
  param {
    lr_mult: 1
  }
  param {
    lr_mult: 2
  }
  inner_product_param {
    num_output: 64
    weight_filler {
      type: "gaussian"
      std: 0.1
    }
    bias_filler {
      type: "constant"
    }
  }
}
layer {
  name: "ip2"
  type: "InnerProduct"
  bottom: "ip1"
  top: "ip2"
  param {
    lr_mult: 1
  }
  param {
    lr_mult: 2
  }
  inner_product_param {
    num_output: 64
    weight_filler {
      type: "gaussian"
      std: 0.1
    }
    bias_filler {
      type: "constant"
    }
  }
}
layer {
  name: "ip3"
  type: "InnerProduct"
  bottom: "ip2"
  top: "ip3"
  param {
    lr_mult: 1
  }
  param {
    lr_mult: 2
  }
  inner_product_param {
    num_output: 50
    weight_filler {
      type: "gaussian"
      std: 0.1
    }
    bias_filler {
      type: "constant"
    }
  }
}
layer {
  name: "accuracy"
  type: "Accuracy"
  bottom: "ip3"
  bottom: "label"
  top: "accuracy"
  include {
    phase: TEST
  }
}
layer {
  name: "loss"
  type: "SoftmaxWithLoss"
  bottom: "ip3"
  bottom: "label"
  top: "loss"
}
I0507 02:42:20.383636 31001 layer_factory.hpp:77] Creating layer intercept
I0507 02:42:20.383652 31001 net.cpp:94] Creating Layer intercept
I0507 02:42:20.383662 31001 net.cpp:409] intercept -> data
I0507 02:42:20.383674 31001 net.cpp:409] intercept -> label
I0507 02:42:20.383685 31001 hdf5_data_layer.cpp:79] Loading list of HDF5 filenames from: /home/purduethu/scratch/radon/d/deng106/CNNStatisticalModel/distributions/input/50_distributions_100_sample_size_test-distributions-path.txt
I0507 02:42:20.383711 31001 hdf5_data_layer.cpp:93] Number of HDF5 files: 1
I0507 02:42:20.439478 31001 net.cpp:144] Setting up intercept
I0507 02:42:20.439525 31001 net.cpp:151] Top shape: 20 1 10 10 (2000)
I0507 02:42:20.439538 31001 net.cpp:151] Top shape: 20 (20)
I0507 02:42:20.439544 31001 net.cpp:159] Memory required for data: 8080
I0507 02:42:20.439553 31001 layer_factory.hpp:77] Creating layer label_intercept_1_split
I0507 02:42:20.439579 31001 net.cpp:94] Creating Layer label_intercept_1_split
I0507 02:42:20.439587 31001 net.cpp:435] label_intercept_1_split <- label
I0507 02:42:20.439597 31001 net.cpp:409] label_intercept_1_split -> label_intercept_1_split_0
I0507 02:42:20.439611 31001 net.cpp:409] label_intercept_1_split -> label_intercept_1_split_1
I0507 02:42:20.439677 31001 net.cpp:144] Setting up label_intercept_1_split
I0507 02:42:20.439688 31001 net.cpp:151] Top shape: 20 (20)
I0507 02:42:20.439695 31001 net.cpp:151] Top shape: 20 (20)
I0507 02:42:20.439702 31001 net.cpp:159] Memory required for data: 8240
I0507 02:42:20.439708 31001 layer_factory.hpp:77] Creating layer conv1
I0507 02:42:20.439724 31001 net.cpp:94] Creating Layer conv1
I0507 02:42:20.439733 31001 net.cpp:435] conv1 <- data
I0507 02:42:20.439741 31001 net.cpp:409] conv1 -> conv1
I0507 02:42:20.440774 31001 net.cpp:144] Setting up conv1
I0507 02:42:20.440793 31001 net.cpp:151] Top shape: 20 64 10 10 (128000)
I0507 02:42:20.440799 31001 net.cpp:159] Memory required for data: 520240
I0507 02:42:20.440814 31001 layer_factory.hpp:77] Creating layer relu1
I0507 02:42:20.440824 31001 net.cpp:94] Creating Layer relu1
I0507 02:42:20.440831 31001 net.cpp:435] relu1 <- conv1
I0507 02:42:20.440840 31001 net.cpp:396] relu1 -> conv1 (in-place)
I0507 02:42:20.440852 31001 net.cpp:144] Setting up relu1
I0507 02:42:20.440860 31001 net.cpp:151] Top shape: 20 64 10 10 (128000)
I0507 02:42:20.440866 31001 net.cpp:159] Memory required for data: 1032240
I0507 02:42:20.440883 31001 layer_factory.hpp:77] Creating layer conv2
I0507 02:42:20.440899 31001 net.cpp:94] Creating Layer conv2
I0507 02:42:20.440907 31001 net.cpp:435] conv2 <- conv1
I0507 02:42:20.440917 31001 net.cpp:409] conv2 -> conv2
I0507 02:42:20.446380 31001 net.cpp:144] Setting up conv2
I0507 02:42:20.446399 31001 net.cpp:151] Top shape: 20 64 10 10 (128000)
I0507 02:42:20.446408 31001 net.cpp:159] Memory required for data: 1544240
I0507 02:42:20.446420 31001 layer_factory.hpp:77] Creating layer relu2
I0507 02:42:20.446431 31001 net.cpp:94] Creating Layer relu2
I0507 02:42:20.446439 31001 net.cpp:435] relu2 <- conv2
I0507 02:42:20.446446 31001 net.cpp:396] relu2 -> conv2 (in-place)
I0507 02:42:20.446456 31001 net.cpp:144] Setting up relu2
I0507 02:42:20.446465 31001 net.cpp:151] Top shape: 20 64 10 10 (128000)
I0507 02:42:20.446470 31001 net.cpp:159] Memory required for data: 2056240
I0507 02:42:20.446476 31001 layer_factory.hpp:77] Creating layer pool2
I0507 02:42:20.446486 31001 net.cpp:94] Creating Layer pool2
I0507 02:42:20.446492 31001 net.cpp:435] pool2 <- conv2
I0507 02:42:20.446501 31001 net.cpp:409] pool2 -> pool2
I0507 02:42:20.446580 31001 net.cpp:144] Setting up pool2
I0507 02:42:20.446593 31001 net.cpp:151] Top shape: 20 64 5 5 (32000)
I0507 02:42:20.446600 31001 net.cpp:159] Memory required for data: 2184240
I0507 02:42:20.446606 31001 layer_factory.hpp:77] Creating layer conv3
I0507 02:42:20.446620 31001 net.cpp:94] Creating Layer conv3
I0507 02:42:20.446626 31001 net.cpp:435] conv3 <- pool2
I0507 02:42:20.446646 31001 net.cpp:409] conv3 -> conv3
I0507 02:42:20.452574 31001 net.cpp:144] Setting up conv3
I0507 02:42:20.452592 31001 net.cpp:151] Top shape: 20 64 5 5 (32000)
I0507 02:42:20.452600 31001 net.cpp:159] Memory required for data: 2312240
I0507 02:42:20.452611 31001 layer_factory.hpp:77] Creating layer relu3
I0507 02:42:20.452621 31001 net.cpp:94] Creating Layer relu3
I0507 02:42:20.452627 31001 net.cpp:435] relu3 <- conv3
I0507 02:42:20.452636 31001 net.cpp:396] relu3 -> conv3 (in-place)
I0507 02:42:20.452647 31001 net.cpp:144] Setting up relu3
I0507 02:42:20.452657 31001 net.cpp:151] Top shape: 20 64 5 5 (32000)
I0507 02:42:20.452663 31001 net.cpp:159] Memory required for data: 2440240
I0507 02:42:20.452669 31001 layer_factory.hpp:77] Creating layer conv4
I0507 02:42:20.452684 31001 net.cpp:94] Creating Layer conv4
I0507 02:42:20.452692 31001 net.cpp:435] conv4 <- conv3
I0507 02:42:20.452702 31001 net.cpp:409] conv4 -> conv4
I0507 02:42:20.457360 31001 net.cpp:144] Setting up conv4
I0507 02:42:20.457378 31001 net.cpp:151] Top shape: 20 64 5 5 (32000)
I0507 02:42:20.457386 31001 net.cpp:159] Memory required for data: 2568240
I0507 02:42:20.457396 31001 layer_factory.hpp:77] Creating layer relu4
I0507 02:42:20.457406 31001 net.cpp:94] Creating Layer relu4
I0507 02:42:20.457412 31001 net.cpp:435] relu4 <- conv4
I0507 02:42:20.457422 31001 net.cpp:396] relu4 -> conv4 (in-place)
I0507 02:42:20.457433 31001 net.cpp:144] Setting up relu4
I0507 02:42:20.457442 31001 net.cpp:151] Top shape: 20 64 5 5 (32000)
I0507 02:42:20.457448 31001 net.cpp:159] Memory required for data: 2696240
I0507 02:42:20.457454 31001 layer_factory.hpp:77] Creating layer conv5
I0507 02:42:20.457469 31001 net.cpp:94] Creating Layer conv5
I0507 02:42:20.457478 31001 net.cpp:435] conv5 <- conv4
I0507 02:42:20.457489 31001 net.cpp:409] conv5 -> conv5
I0507 02:42:20.462791 31001 net.cpp:144] Setting up conv5
I0507 02:42:20.462810 31001 net.cpp:151] Top shape: 20 64 5 5 (32000)
I0507 02:42:20.462817 31001 net.cpp:159] Memory required for data: 2824240
I0507 02:42:20.462832 31001 layer_factory.hpp:77] Creating layer relu5
I0507 02:42:20.462843 31001 net.cpp:94] Creating Layer relu5
I0507 02:42:20.462849 31001 net.cpp:435] relu5 <- conv5
I0507 02:42:20.462859 31001 net.cpp:396] relu5 -> conv5 (in-place)
I0507 02:42:20.462872 31001 net.cpp:144] Setting up relu5
I0507 02:42:20.462882 31001 net.cpp:151] Top shape: 20 64 5 5 (32000)
I0507 02:42:20.462888 31001 net.cpp:159] Memory required for data: 2952240
I0507 02:42:20.462900 31001 layer_factory.hpp:77] Creating layer pool5
I0507 02:42:20.462910 31001 net.cpp:94] Creating Layer pool5
I0507 02:42:20.462916 31001 net.cpp:435] pool5 <- conv5
I0507 02:42:20.462924 31001 net.cpp:409] pool5 -> pool5
I0507 02:42:20.462977 31001 net.cpp:144] Setting up pool5
I0507 02:42:20.462991 31001 net.cpp:151] Top shape: 20 64 2 2 (5120)
I0507 02:42:20.462997 31001 net.cpp:159] Memory required for data: 2972720
I0507 02:42:20.463002 31001 layer_factory.hpp:77] Creating layer ip1
I0507 02:42:20.463013 31001 net.cpp:94] Creating Layer ip1
I0507 02:42:20.463019 31001 net.cpp:435] ip1 <- pool5
I0507 02:42:20.463029 31001 net.cpp:409] ip1 -> ip1
I0507 02:42:20.463789 31001 net.cpp:144] Setting up ip1
I0507 02:42:20.463804 31001 net.cpp:151] Top shape: 20 64 (1280)
I0507 02:42:20.463811 31001 net.cpp:159] Memory required for data: 2977840
I0507 02:42:20.463820 31001 layer_factory.hpp:77] Creating layer ip2
I0507 02:42:20.463830 31001 net.cpp:94] Creating Layer ip2
I0507 02:42:20.463836 31001 net.cpp:435] ip2 <- ip1
I0507 02:42:20.463845 31001 net.cpp:409] ip2 -> ip2
I0507 02:42:20.464202 31001 net.cpp:144] Setting up ip2
I0507 02:42:20.464218 31001 net.cpp:151] Top shape: 20 64 (1280)
I0507 02:42:20.464224 31001 net.cpp:159] Memory required for data: 2982960
I0507 02:42:20.464233 31001 layer_factory.hpp:77] Creating layer ip3
I0507 02:42:20.464247 31001 net.cpp:94] Creating Layer ip3
I0507 02:42:20.464256 31001 net.cpp:435] ip3 <- ip2
I0507 02:42:20.464267 31001 net.cpp:409] ip3 -> ip3
I0507 02:42:20.464601 31001 net.cpp:144] Setting up ip3
I0507 02:42:20.464617 31001 net.cpp:151] Top shape: 20 50 (1000)
I0507 02:42:20.464625 31001 net.cpp:159] Memory required for data: 2986960
I0507 02:42:20.464635 31001 layer_factory.hpp:77] Creating layer ip3_ip3_0_split
I0507 02:42:20.464645 31001 net.cpp:94] Creating Layer ip3_ip3_0_split
I0507 02:42:20.464653 31001 net.cpp:435] ip3_ip3_0_split <- ip3
I0507 02:42:20.464660 31001 net.cpp:409] ip3_ip3_0_split -> ip3_ip3_0_split_0
I0507 02:42:20.464671 31001 net.cpp:409] ip3_ip3_0_split -> ip3_ip3_0_split_1
I0507 02:42:20.464735 31001 net.cpp:144] Setting up ip3_ip3_0_split
I0507 02:42:20.464747 31001 net.cpp:151] Top shape: 20 50 (1000)
I0507 02:42:20.464756 31001 net.cpp:151] Top shape: 20 50 (1000)
I0507 02:42:20.464761 31001 net.cpp:159] Memory required for data: 2994960
I0507 02:42:20.464767 31001 layer_factory.hpp:77] Creating layer accuracy
I0507 02:42:20.464776 31001 net.cpp:94] Creating Layer accuracy
I0507 02:42:20.464783 31001 net.cpp:435] accuracy <- ip3_ip3_0_split_0
I0507 02:42:20.464790 31001 net.cpp:435] accuracy <- label_intercept_1_split_0
I0507 02:42:20.464798 31001 net.cpp:409] accuracy -> accuracy
…
