…
I0505 00:20:52.406188  1212 net.cpp:323] The NetState phase (0) differed from the phase (1) specified by a rule in layer intercept
I0505 00:20:52.406203  1212 net.cpp:323] The NetState phase (0) differed from the phase (1) specified by a rule in layer loss
I0505 00:20:52.406281  1212 net.cpp:52] Initializing net from parameters: 
state {
  phase: TRAIN
}
layer {
  name: "parameters"
  type: "HDF5Data"
  top: "data"
  top: "label"
  include {
    phase: TRAIN
  }
  hdf5_data_param {
    source: "/home/purduethu/scratch/radon/d/deng106/CNNStatisticalModel/distributions/input/5_distributions_900_sample_size_train-parameters-path.txt"
    batch_size: 20
  }
}
layer {
  name: "conv1"
  type: "Convolution"
  bottom: "data"
  top: "conv1"
  param {
    lr_mult: 1
  }
  param {
    lr_mult: 2
  }
  convolution_param {
    num_output: 64
    pad: 2
    kernel_size: 5
    stride: 1
    weight_filler {
      type: "gaussian"
      std: 0.0001
    }
    bias_filler {
      type: "constant"
    }
  }
}
layer {
  name: "relu1"
  type: "ReLU"
  bottom: "conv1"
  top: "conv1"
}
layer {
  name: "pool1"
  type: "Pooling"
  bottom: "conv1"
  top: "pool1"
  pooling_param {
    pool: MAX
    kernel_size: 3
    stride: 2
  }
}
layer {
  name: "conv2"
  type: "Convolution"
  bottom: "pool1"
  top: "conv2"
  param {
    lr_mult: 1
  }
  param {
    lr_mult: 2
  }
  convolution_param {
    num_output: 128
    pad: 2
    kernel_size: 5
    stride: 1
    weight_filler {
      type: "gaussian"
      std: 0.01
    }
    bias_filler {
      type: "constant"
    }
  }
}
layer {
  name: "relu2"
  type: "ReLU"
  bottom: "conv2"
  top: "conv2"
}
layer {
  name: "conv3"
  type: "Convolution"
  bottom: "conv2"
  top: "conv3"
  param {
    lr_mult: 1
  }
  param {
    lr_mult: 2
  }
  convolution_param {
    num_output: 128
    pad: 2
    kernel_size: 5
    stride: 1
    weight_filler {
      type: "gaussian"
      std: 0.01
    }
    bias_filler {
      type: "constant"
    }
  }
}
layer {
  name: "relu3"
  type: "ReLU"
  bottom: "conv3"
  top: "conv3"
}
layer {
  name: "pool3"
  type: "Pooling"
  bottom: "conv3"
  top: "pool3"
  pooling_param {
    pool: AVE
    kernel_size: 3
    stride: 2
  }
}
layer {
  name: "ip1"
  type: "InnerProduct"
  bottom: "pool3"
  top: "ip1"
  param {
    lr_mult: 1
  }
  param {
    lr_mult: 2
  }
  inner_product_param {
    num_output: 512
    weight_filler {
      type: "gaussian"
      std: 0.1
    }
    bias_filler {
      type: "constant"
    }
  }
}
layer {
  name: "ip2"
  type: "InnerProduct"
  bottom: "ip1"
  top: "ip2"
  param {
    lr_mult: 1
  }
  param {
    lr_mult: 2
  }
  inner_product_param {
    num_output: 256
    weight_filler {
      type: "gaussian"
      std: 0.1
    }
    bias_filler {
      type: "constant"
    }
  }
}
layer {
  name: "ip3"
  type: "InnerProduct"
  bottom: "ip2"
  top: "ip3"
  param {
    lr_mult: 1
  }
  param {
    lr_mult: 2
  }
  inner_product_param {
    num_output: 1
    weight_filler {
      type: "gaussian"
      std: 0.1
    }
    bias_filler {
      type: "constant"
    }
  }
}
layer {
  name: "loss"
  type: "HuberLoss"
  bottom: "ip3"
  bottom: "label"
  top: "loss"
  include {
    phase: TRAIN
  }
}
I0505 00:20:52.406344  1212 layer_factory.hpp:77] Creating layer parameters
I0505 00:20:52.406359  1212 net.cpp:94] Creating Layer parameters
I0505 00:20:52.406373  1212 net.cpp:409] parameters -> data
I0505 00:20:52.406393  1212 net.cpp:409] parameters -> label
I0505 00:20:52.406404  1212 hdf5_data_layer.cpp:79] Loading list of HDF5 filenames from: /home/purduethu/scratch/radon/d/deng106/CNNStatisticalModel/distributions/input/5_distributions_900_sample_size_train-parameters-path.txt
I0505 00:20:52.406424  1212 hdf5_data_layer.cpp:93] Number of HDF5 files: 1
I0505 00:20:52.407012  1212 hdf5.cpp:32] Datatype class: H5T_FLOAT
I0505 00:20:52.546577  1212 net.cpp:144] Setting up parameters
I0505 00:20:52.546610  1212 net.cpp:151] Top shape: 20 1 30 30 (18000)
I0505 00:20:52.546617  1212 net.cpp:151] Top shape: 20 (20)
I0505 00:20:52.546619  1212 net.cpp:159] Memory required for data: 72080
I0505 00:20:52.546627  1212 layer_factory.hpp:77] Creating layer conv1
I0505 00:20:52.546646  1212 net.cpp:94] Creating Layer conv1
I0505 00:20:52.546653  1212 net.cpp:435] conv1 <- data
I0505 00:20:52.546663  1212 net.cpp:409] conv1 -> conv1
I0505 00:20:52.552574  1212 net.cpp:144] Setting up conv1
I0505 00:20:52.552597  1212 net.cpp:151] Top shape: 20 64 30 30 (1152000)
I0505 00:20:52.552601  1212 net.cpp:159] Memory required for data: 4680080
I0505 00:20:52.552613  1212 layer_factory.hpp:77] Creating layer relu1
I0505 00:20:52.552623  1212 net.cpp:94] Creating Layer relu1
I0505 00:20:52.552626  1212 net.cpp:435] relu1 <- conv1
I0505 00:20:52.552631  1212 net.cpp:396] relu1 -> conv1 (in-place)
I0505 00:20:52.552647  1212 net.cpp:144] Setting up relu1
I0505 00:20:52.552654  1212 net.cpp:151] Top shape: 20 64 30 30 (1152000)
I0505 00:20:52.552656  1212 net.cpp:159] Memory required for data: 9288080
I0505 00:20:52.552659  1212 layer_factory.hpp:77] Creating layer pool1
I0505 00:20:52.552667  1212 net.cpp:94] Creating Layer pool1
I0505 00:20:52.552670  1212 net.cpp:435] pool1 <- conv1
I0505 00:20:52.552675  1212 net.cpp:409] pool1 -> pool1
I0505 00:20:52.552717  1212 net.cpp:144] Setting up pool1
I0505 00:20:52.552724  1212 net.cpp:151] Top shape: 20 64 15 15 (288000)
I0505 00:20:52.552727  1212 net.cpp:159] Memory required for data: 10440080
I0505 00:20:52.552731  1212 layer_factory.hpp:77] Creating layer conv2
I0505 00:20:52.552741  1212 net.cpp:94] Creating Layer conv2
I0505 00:20:52.552744  1212 net.cpp:435] conv2 <- pool1
I0505 00:20:52.552749  1212 net.cpp:409] conv2 -> conv2
I0505 00:20:52.565861  1212 net.cpp:144] Setting up conv2
I0505 00:20:52.565889  1212 net.cpp:151] Top shape: 20 128 15 15 (576000)
I0505 00:20:52.565894  1212 net.cpp:159] Memory required for data: 12744080
I0505 00:20:52.565904  1212 layer_factory.hpp:77] Creating layer relu2
I0505 00:20:52.565913  1212 net.cpp:94] Creating Layer relu2
I0505 00:20:52.565917  1212 net.cpp:435] relu2 <- conv2
I0505 00:20:52.565922  1212 net.cpp:396] relu2 -> conv2 (in-place)
I0505 00:20:52.565932  1212 net.cpp:144] Setting up relu2
I0505 00:20:52.565937  1212 net.cpp:151] Top shape: 20 128 15 15 (576000)
I0505 00:20:52.565939  1212 net.cpp:159] Memory required for data: 15048080
I0505 00:20:52.565943  1212 layer_factory.hpp:77] Creating layer conv3
I0505 00:20:52.565951  1212 net.cpp:94] Creating Layer conv3
I0505 00:20:52.565954  1212 net.cpp:435] conv3 <- conv2
I0505 00:20:52.565959  1212 net.cpp:409] conv3 -> conv3
I0505 00:20:52.587869  1212 net.cpp:144] Setting up conv3
I0505 00:20:52.587901  1212 net.cpp:151] Top shape: 20 128 15 15 (576000)
I0505 00:20:52.587906  1212 net.cpp:159] Memory required for data: 17352080
I0505 00:20:52.587918  1212 layer_factory.hpp:77] Creating layer relu3
I0505 00:20:52.587929  1212 net.cpp:94] Creating Layer relu3
I0505 00:20:52.587939  1212 net.cpp:435] relu3 <- conv3
I0505 00:20:52.587946  1212 net.cpp:396] relu3 -> conv3 (in-place)
I0505 00:20:52.587957  1212 net.cpp:144] Setting up relu3
I0505 00:20:52.587961  1212 net.cpp:151] Top shape: 20 128 15 15 (576000)
I0505 00:20:52.587965  1212 net.cpp:159] Memory required for data: 19656080
I0505 00:20:52.587968  1212 layer_factory.hpp:77] Creating layer pool3
I0505 00:20:52.587976  1212 net.cpp:94] Creating Layer pool3
I0505 00:20:52.587980  1212 net.cpp:435] pool3 <- conv3
I0505 00:20:52.587991  1212 net.cpp:409] pool3 -> pool3
I0505 00:20:52.588040  1212 net.cpp:144] Setting up pool3
I0505 00:20:52.588047  1212 net.cpp:151] Top shape: 20 128 7 7 (125440)
I0505 00:20:52.588050  1212 net.cpp:159] Memory required for data: 20157840
I0505 00:20:52.588053  1212 layer_factory.hpp:77] Creating layer ip1
I0505 00:20:52.588065  1212 net.cpp:94] Creating Layer ip1
I0505 00:20:52.588069  1212 net.cpp:435] ip1 <- pool3
I0505 00:20:52.588074  1212 net.cpp:409] ip1 -> ip1
I0505 00:20:52.669402  1212 net.cpp:144] Setting up ip1
I0505 00:20:52.669440  1212 net.cpp:151] Top shape: 20 512 (10240)
I0505 00:20:52.669445  1212 net.cpp:159] Memory required for data: 20198800
I0505 00:20:52.669455  1212 layer_factory.hpp:77] Creating layer ip2
I0505 00:20:52.669466  1212 net.cpp:94] Creating Layer ip2
I0505 00:20:52.669471  1212 net.cpp:435] ip2 <- ip1
I0505 00:20:52.669477  1212 net.cpp:409] ip2 -> ip2
I0505 00:20:52.672760  1212 net.cpp:144] Setting up ip2
I0505 00:20:52.672770  1212 net.cpp:151] Top shape: 20 256 (5120)
I0505 00:20:52.672773  1212 net.cpp:159] Memory required for data: 20219280
I0505 00:20:52.672781  1212 layer_factory.hpp:77] Creating layer ip3
I0505 00:20:52.672788  1212 net.cpp:94] Creating Layer ip3
I0505 00:20:52.672791  1212 net.cpp:435] ip3 <- ip2
I0505 00:20:52.672796  1212 net.cpp:409] ip3 -> ip3
I0505 00:20:52.672863  1212 net.cpp:144] Setting up ip3
I0505 00:20:52.672870  1212 net.cpp:151] Top shape: 20 1 (20)
I0505 00:20:52.672873  1212 net.cpp:159] Memory required for data: 20219360
I0505 00:20:52.672878  1212 layer_factory.hpp:77] Creating layer loss
I0505 00:20:52.672894  1212 net.cpp:94] Creating Layer loss
I0505 00:20:52.672897  1212 net.cpp:435] loss <- ip3
I0505 00:20:52.672901  1212 net.cpp:435] loss <- label
I0505 00:20:52.672907  1212 net.cpp:409] loss -> loss
I0505 00:20:52.672942  1212 net.cpp:144] Setting up loss
…
