…
I0501 18:52:38.606562 14130 net.cpp:323] The NetState phase (0) differed from the phase (1) specified by a rule in layer intercept
I0501 18:52:38.606580 14130 net.cpp:323] The NetState phase (0) differed from the phase (1) specified by a rule in layer loss
I0501 18:52:38.606674 14130 net.cpp:52] Initializing net from parameters: 
state {
  phase: TRAIN
}
layer {
  name: "parameters"
  type: "HDF5Data"
  top: "data"
  top: "label"
  include {
    phase: TRAIN
  }
  hdf5_data_param {
    source: "/home/purduethu/scratch/radon/d/deng106/CNNStatisticalModel/distributions/input/50_distributions_100_sample_size_train-parameters-path.txt"
    batch_size: 20
  }
}
layer {
  name: "conv1"
  type: "Convolution"
  bottom: "data"
  top: "conv1"
  param {
    lr_mult: 1
  }
  param {
    lr_mult: 2
  }
  convolution_param {
    num_output: 64
    pad: 2
    kernel_size: 5
    stride: 1
    weight_filler {
      type: "gaussian"
      std: 0.0001
    }
    bias_filler {
      type: "constant"
    }
  }
}
layer {
  name: "relu1"
  type: "ReLU"
  bottom: "conv1"
  top: "conv1"
}
layer {
  name: "conv2"
  type: "Convolution"
  bottom: "conv1"
  top: "conv2"
  param {
    lr_mult: 1
  }
  param {
    lr_mult: 2
  }
  convolution_param {
    num_output: 64
    pad: 2
    kernel_size: 5
    stride: 1
    weight_filler {
      type: "gaussian"
      std: 0.01
    }
    bias_filler {
      type: "constant"
    }
  }
}
layer {
  name: "relu2"
  type: "ReLU"
  bottom: "conv2"
  top: "conv2"
}
layer {
  name: "pool2"
  type: "Pooling"
  bottom: "conv2"
  top: "pool2"
  pooling_param {
    pool: MAX
    kernel_size: 3
    stride: 2
  }
}
layer {
  name: "conv3"
  type: "Convolution"
  bottom: "pool2"
  top: "conv3"
  param {
    lr_mult: 1
  }
  param {
    lr_mult: 2
  }
  convolution_param {
    num_output: 64
    pad: 2
    kernel_size: 5
    stride: 1
    weight_filler {
      type: "gaussian"
      std: 0.01
    }
    bias_filler {
      type: "constant"
    }
  }
}
layer {
  name: "relu3"
  type: "ReLU"
  bottom: "conv3"
  top: "conv3"
}
layer {
  name: "conv4"
  type: "Convolution"
  bottom: "conv3"
  top: "conv4"
  param {
    lr_mult: 1
  }
  param {
    lr_mult: 2
  }
  convolution_param {
    num_output: 64
    pad: 2
    kernel_size: 5
    stride: 1
    weight_filler {
      type: "gaussian"
      std: 0.01
    }
    bias_filler {
      type: "constant"
    }
  }
}
layer {
  name: "relu4"
  type: "ReLU"
  bottom: "conv4"
  top: "conv4"
}
layer {
  name: "conv5"
  type: "Convolution"
  bottom: "conv4"
  top: "conv5"
  param {
    lr_mult: 1
  }
  param {
    lr_mult: 2
  }
  convolution_param {
    num_output: 64
    pad: 2
    kernel_size: 5
    stride: 1
    weight_filler {
      type: "gaussian"
      std: 0.01
    }
    bias_filler {
      type: "constant"
    }
  }
}
layer {
  name: "relu5"
  type: "ReLU"
  bottom: "conv5"
  top: "conv5"
}
layer {
  name: "pool5"
  type: "Pooling"
  bottom: "conv5"
  top: "pool5"
  pooling_param {
    pool: AVE
    kernel_size: 3
    stride: 2
  }
}
layer {
  name: "ip1"
  type: "InnerProduct"
  bottom: "pool5"
  top: "ip1"
  param {
    lr_mult: 1
  }
  param {
    lr_mult: 2
  }
  inner_product_param {
    num_output: 64
    weight_filler {
      type: "gaussian"
      std: 0.1
    }
    bias_filler {
      type: "constant"
    }
  }
}
layer {
  name: "ip2"
  type: "InnerProduct"
  bottom: "ip1"
  top: "ip2"
  param {
    lr_mult: 1
  }
  param {
    lr_mult: 2
  }
  inner_product_param {
    num_output: 64
    weight_filler {
      type: "gaussian"
      std: 0.1
    }
    bias_filler {
      type: "constant"
    }
  }
}
layer {
  name: "ip3"
  type: "InnerProduct"
  bottom: "ip2"
  top: "ip3"
  param {
    lr_mult: 1
  }
  param {
    lr_mult: 2
  }
  inner_product_param {
    num_output: 1
    weight_filler {
      type: "gaussian"
      std: 0.1
    }
    bias_filler {
      type: "constant"
    }
  }
}
layer {
  name: "loss"
  type: "HuberLoss"
  bottom: "ip3"
  bottom: "label"
  top: "loss"
  include {
    phase: TRAIN
  }
}
I0501 18:52:38.606750 14130 layer_factory.hpp:77] Creating layer parameters
I0501 18:52:38.606765 14130 net.cpp:94] Creating Layer parameters
I0501 18:52:38.606771 14130 net.cpp:409] parameters -> data
I0501 18:52:38.606791 14130 net.cpp:409] parameters -> label
I0501 18:52:38.606803 14130 hdf5_data_layer.cpp:79] Loading list of HDF5 filenames from: /home/purduethu/scratch/radon/d/deng106/CNNStatisticalModel/distributions/input/50_distributions_100_sample_size_train-parameters-path.txt
I0501 18:52:38.606828 14130 hdf5_data_layer.cpp:93] Number of HDF5 files: 1
I0501 18:52:38.607295 14130 hdf5.cpp:32] Datatype class: H5T_FLOAT
I0501 18:52:38.772282 14130 net.cpp:144] Setting up parameters
I0501 18:52:38.772315 14130 net.cpp:151] Top shape: 20 1 10 10 (2000)
I0501 18:52:38.772321 14130 net.cpp:151] Top shape: 20 (20)
I0501 18:52:38.772325 14130 net.cpp:159] Memory required for data: 8080
I0501 18:52:38.772333 14130 layer_factory.hpp:77] Creating layer conv1
I0501 18:52:38.772357 14130 net.cpp:94] Creating Layer conv1
I0501 18:52:38.772363 14130 net.cpp:435] conv1 <- data
I0501 18:52:38.772375 14130 net.cpp:409] conv1 -> conv1
I0501 18:52:38.776159 14130 net.cpp:144] Setting up conv1
I0501 18:52:38.776172 14130 net.cpp:151] Top shape: 20 64 10 10 (128000)
I0501 18:52:38.776177 14130 net.cpp:159] Memory required for data: 520080
I0501 18:52:38.776188 14130 layer_factory.hpp:77] Creating layer relu1
I0501 18:52:38.776196 14130 net.cpp:94] Creating Layer relu1
I0501 18:52:38.776201 14130 net.cpp:435] relu1 <- conv1
I0501 18:52:38.776206 14130 net.cpp:396] relu1 -> conv1 (in-place)
I0501 18:52:38.776221 14130 net.cpp:144] Setting up relu1
I0501 18:52:38.776227 14130 net.cpp:151] Top shape: 20 64 10 10 (128000)
I0501 18:52:38.776231 14130 net.cpp:159] Memory required for data: 1032080
I0501 18:52:38.776234 14130 layer_factory.hpp:77] Creating layer conv2
I0501 18:52:38.776242 14130 net.cpp:94] Creating Layer conv2
I0501 18:52:38.776247 14130 net.cpp:435] conv2 <- conv1
I0501 18:52:38.776252 14130 net.cpp:409] conv2 -> conv2
I0501 18:52:38.782130 14130 net.cpp:144] Setting up conv2
I0501 18:52:38.782145 14130 net.cpp:151] Top shape: 20 64 10 10 (128000)
I0501 18:52:38.782150 14130 net.cpp:159] Memory required for data: 1544080
I0501 18:52:38.782157 14130 layer_factory.hpp:77] Creating layer relu2
I0501 18:52:38.782165 14130 net.cpp:94] Creating Layer relu2
I0501 18:52:38.782168 14130 net.cpp:435] relu2 <- conv2
I0501 18:52:38.782173 14130 net.cpp:396] relu2 -> conv2 (in-place)
I0501 18:52:38.782181 14130 net.cpp:144] Setting up relu2
I0501 18:52:38.782186 14130 net.cpp:151] Top shape: 20 64 10 10 (128000)
I0501 18:52:38.782188 14130 net.cpp:159] Memory required for data: 2056080
I0501 18:52:38.782192 14130 layer_factory.hpp:77] Creating layer pool2
I0501 18:52:38.782200 14130 net.cpp:94] Creating Layer pool2
I0501 18:52:38.782209 14130 net.cpp:435] pool2 <- conv2
I0501 18:52:38.782215 14130 net.cpp:409] pool2 -> pool2
I0501 18:52:38.782259 14130 net.cpp:144] Setting up pool2
I0501 18:52:38.782268 14130 net.cpp:151] Top shape: 20 64 5 5 (32000)
I0501 18:52:38.782271 14130 net.cpp:159] Memory required for data: 2184080
I0501 18:52:38.782275 14130 layer_factory.hpp:77] Creating layer conv3
I0501 18:52:38.782282 14130 net.cpp:94] Creating Layer conv3
I0501 18:52:38.782286 14130 net.cpp:435] conv3 <- pool2
I0501 18:52:38.782292 14130 net.cpp:409] conv3 -> conv3
I0501 18:52:38.787134 14130 net.cpp:144] Setting up conv3
I0501 18:52:38.787148 14130 net.cpp:151] Top shape: 20 64 5 5 (32000)
I0501 18:52:38.787153 14130 net.cpp:159] Memory required for data: 2312080
I0501 18:52:38.787161 14130 layer_factory.hpp:77] Creating layer relu3
I0501 18:52:38.787168 14130 net.cpp:94] Creating Layer relu3
I0501 18:52:38.787171 14130 net.cpp:435] relu3 <- conv3
I0501 18:52:38.787176 14130 net.cpp:396] relu3 -> conv3 (in-place)
I0501 18:52:38.787184 14130 net.cpp:144] Setting up relu3
I0501 18:52:38.787189 14130 net.cpp:151] Top shape: 20 64 5 5 (32000)
I0501 18:52:38.787192 14130 net.cpp:159] Memory required for data: 2440080
I0501 18:52:38.787195 14130 layer_factory.hpp:77] Creating layer conv4
I0501 18:52:38.787204 14130 net.cpp:94] Creating Layer conv4
I0501 18:52:38.787209 14130 net.cpp:435] conv4 <- conv3
I0501 18:52:38.787214 14130 net.cpp:409] conv4 -> conv4
I0501 18:52:38.791575 14130 net.cpp:144] Setting up conv4
I0501 18:52:38.791589 14130 net.cpp:151] Top shape: 20 64 5 5 (32000)
I0501 18:52:38.791594 14130 net.cpp:159] Memory required for data: 2568080
I0501 18:52:38.791599 14130 layer_factory.hpp:77] Creating layer relu4
I0501 18:52:38.791605 14130 net.cpp:94] Creating Layer relu4
I0501 18:52:38.791610 14130 net.cpp:435] relu4 <- conv4
I0501 18:52:38.791615 14130 net.cpp:396] relu4 -> conv4 (in-place)
I0501 18:52:38.791622 14130 net.cpp:144] Setting up relu4
I0501 18:52:38.791627 14130 net.cpp:151] Top shape: 20 64 5 5 (32000)
I0501 18:52:38.791630 14130 net.cpp:159] Memory required for data: 2696080
I0501 18:52:38.791633 14130 layer_factory.hpp:77] Creating layer conv5
I0501 18:52:38.791641 14130 net.cpp:94] Creating Layer conv5
I0501 18:52:38.791646 14130 net.cpp:435] conv5 <- conv4
I0501 18:52:38.791651 14130 net.cpp:409] conv5 -> conv5
I0501 18:52:38.796437 14130 net.cpp:144] Setting up conv5
I0501 18:52:38.796450 14130 net.cpp:151] Top shape: 20 64 5 5 (32000)
I0501 18:52:38.796455 14130 net.cpp:159] Memory required for data: 2824080
I0501 18:52:38.796463 14130 layer_factory.hpp:77] Creating layer relu5
I0501 18:52:38.796470 14130 net.cpp:94] Creating Layer relu5
I0501 18:52:38.796475 14130 net.cpp:435] relu5 <- conv5
I0501 18:52:38.796479 14130 net.cpp:396] relu5 -> conv5 (in-place)
I0501 18:52:38.796488 14130 net.cpp:144] Setting up relu5
I0501 18:52:38.796492 14130 net.cpp:151] Top shape: 20 64 5 5 (32000)
I0501 18:52:38.796495 14130 net.cpp:159] Memory required for data: 2952080
I0501 18:52:38.796499 14130 layer_factory.hpp:77] Creating layer pool5
I0501 18:52:38.796504 14130 net.cpp:94] Creating Layer pool5
I0501 18:52:38.796507 14130 net.cpp:435] pool5 <- conv5
I0501 18:52:38.796512 14130 net.cpp:409] pool5 -> pool5
I0501 18:52:38.796546 14130 net.cpp:144] Setting up pool5
I0501 18:52:38.796563 14130 net.cpp:151] Top shape: 20 64 2 2 (5120)
I0501 18:52:38.796567 14130 net.cpp:159] Memory required for data: 2972560
I0501 18:52:38.796571 14130 layer_factory.hpp:77] Creating layer ip1
I0501 18:52:38.796581 14130 net.cpp:94] Creating Layer ip1
I0501 18:52:38.796586 14130 net.cpp:435] ip1 <- pool5
I0501 18:52:38.796591 14130 net.cpp:409] ip1 -> ip1
I0501 18:52:38.797719 14130 net.cpp:144] Setting up ip1
I0501 18:52:38.797731 14130 net.cpp:151] Top shape: 20 64 (1280)
I0501 18:52:38.797736 14130 net.cpp:159] Memory required for data: 2977680
I0501 18:52:38.797742 14130 layer_factory.hpp:77] Creating layer ip2
I0501 18:52:38.797749 14130 net.cpp:94] Creating Layer ip2
I0501 18:52:38.797754 14130 net.cpp:435] ip2 <- ip1
I0501 18:52:38.797763 14130 net.cpp:409] ip2 -> ip2
I0501 18:52:38.797935 14130 net.cpp:144] Setting up ip2
I0501 18:52:38.797941 14130 net.cpp:151] Top shape: 20 64 (1280)
I0501 18:52:38.797945 14130 net.cpp:159] Memory required for data: 2982800
I0501 18:52:38.797950 14130 layer_factory.hpp:77] Creating layer ip3
I0501 18:52:38.797957 14130 net.cpp:94] Creating Layer ip3
I0501 18:52:38.797961 14130 net.cpp:435] ip3 <- ip2
I0501 18:52:38.797966 14130 net.cpp:409] ip3 -> ip3
I0501 18:52:38.798032 14130 net.cpp:144] Setting up ip3
I0501 18:52:38.798038 14130 net.cpp:151] Top shape: 20 1 (20)
I0501 18:52:38.798046 14130 net.cpp:159] Memory required for data: 2982880
I0501 18:52:38.798051 14130 layer_factory.hpp:77] Creating layer loss
I0501 18:52:38.798059 14130 net.cpp:94] Creating Layer loss
I0501 18:52:38.798063 14130 net.cpp:435] loss <- ip3
I0501 18:52:38.798066 14130 net.cpp:435] loss <- label
I0501 18:52:38.798072 14130 net.cpp:409] loss -> loss
I0501 18:52:38.798108 14130 net.cpp:144] Setting up loss
…
