…
I0502 04:17:23.050621 18455 net.cpp:323] The NetState phase (0) differed from the phase (1) specified by a rule in layer intercept
I0502 04:17:23.050637 18455 net.cpp:323] The NetState phase (0) differed from the phase (1) specified by a rule in layer loss
I0502 04:17:23.050729 18455 net.cpp:52] Initializing net from parameters: 
state {
  phase: TRAIN
}
layer {
  name: "parameters"
  type: "HDF5Data"
  top: "data"
  top: "label"
  include {
    phase: TRAIN
  }
  hdf5_data_param {
    source: "/home/purduethu/scratch/radon/d/deng106/CNNStatisticalModel/distributions/input/50_distributions_100_sample_size_train-parameters-path.txt"
    batch_size: 20
  }
}
layer {
  name: "conv1"
  type: "Convolution"
  bottom: "data"
  top: "conv1"
  param {
    lr_mult: 1
  }
  param {
    lr_mult: 2
  }
  convolution_param {
    num_output: 64
    pad: 2
    kernel_size: 5
    stride: 1
    weight_filler {
      type: "gaussian"
      std: 0.0001
    }
    bias_filler {
      type: "constant"
    }
  }
}
layer {
  name: "relu1"
  type: "ReLU"
  bottom: "conv1"
  top: "conv1"
}
layer {
  name: "conv2"
  type: "Convolution"
  bottom: "conv1"
  top: "conv2"
  param {
    lr_mult: 1
  }
  param {
    lr_mult: 2
  }
  convolution_param {
    num_output: 64
    pad: 2
    kernel_size: 5
    stride: 1
    weight_filler {
      type: "gaussian"
      std: 0.01
    }
    bias_filler {
      type: "constant"
    }
  }
}
layer {
  name: "relu2"
  type: "ReLU"
  bottom: "conv2"
  top: "conv2"
}
layer {
  name: "pool2"
  type: "Pooling"
  bottom: "conv2"
  top: "pool2"
  pooling_param {
    pool: MAX
    kernel_size: 3
    stride: 2
  }
}
layer {
  name: "conv3"
  type: "Convolution"
  bottom: "pool2"
  top: "conv3"
  param {
    lr_mult: 1
  }
  param {
    lr_mult: 2
  }
  convolution_param {
    num_output: 64
    pad: 2
    kernel_size: 5
    stride: 1
    weight_filler {
      type: "gaussian"
      std: 0.01
    }
    bias_filler {
      type: "constant"
    }
  }
}
layer {
  name: "relu3"
  type: "ReLU"
  bottom: "conv3"
  top: "conv3"
}
layer {
  name: "conv4"
  type: "Convolution"
  bottom: "conv3"
  top: "conv4"
  param {
    lr_mult: 1
  }
  param {
    lr_mult: 2
  }
  convolution_param {
    num_output: 64
    pad: 2
    kernel_size: 5
    stride: 1
    weight_filler {
      type: "gaussian"
      std: 0.01
    }
    bias_filler {
      type: "constant"
    }
  }
}
layer {
  name: "relu4"
  type: "ReLU"
  bottom: "conv4"
  top: "conv4"
}
layer {
  name: "conv5"
  type: "Convolution"
  bottom: "conv4"
  top: "conv5"
  param {
    lr_mult: 1
  }
  param {
    lr_mult: 2
  }
  convolution_param {
    num_output: 64
    pad: 2
    kernel_size: 5
    stride: 1
    weight_filler {
      type: "gaussian"
      std: 0.01
    }
    bias_filler {
      type: "constant"
    }
  }
}
layer {
  name: "relu5"
  type: "ReLU"
  bottom: "conv5"
  top: "conv5"
}
layer {
  name: "pool5"
  type: "Pooling"
  bottom: "conv5"
  top: "pool5"
  pooling_param {
    pool: AVE
    kernel_size: 3
    stride: 2
  }
}
layer {
  name: "ip1"
  type: "InnerProduct"
  bottom: "pool5"
  top: "ip1"
  param {
    lr_mult: 1
  }
  param {
    lr_mult: 2
  }
  inner_product_param {
    num_output: 64
    weight_filler {
      type: "gaussian"
      std: 0.1
    }
    bias_filler {
      type: "constant"
    }
  }
}
layer {
  name: "ip2"
  type: "InnerProduct"
  bottom: "ip1"
  top: "ip2"
  param {
    lr_mult: 1
  }
  param {
    lr_mult: 2
  }
  inner_product_param {
    num_output: 64
    weight_filler {
      type: "gaussian"
      std: 0.1
    }
    bias_filler {
      type: "constant"
    }
  }
}
layer {
  name: "ip3"
  type: "InnerProduct"
  bottom: "ip2"
  top: "ip3"
  param {
    lr_mult: 1
  }
  param {
    lr_mult: 2
  }
  inner_product_param {
    num_output: 1
    weight_filler {
      type: "gaussian"
      std: 0.1
    }
    bias_filler {
      type: "constant"
    }
  }
}
layer {
  name: "loss"
  type: "HuberLoss"
  bottom: "ip3"
  bottom: "label"
  top: "loss"
  include {
    phase: TRAIN
  }
}
I0502 04:17:23.050806 18455 layer_factory.hpp:77] Creating layer parameters
I0502 04:17:23.050822 18455 net.cpp:94] Creating Layer parameters
I0502 04:17:23.050827 18455 net.cpp:409] parameters -> data
I0502 04:17:23.050848 18455 net.cpp:409] parameters -> label
I0502 04:17:23.050858 18455 hdf5_data_layer.cpp:79] Loading list of HDF5 filenames from: /home/purduethu/scratch/radon/d/deng106/CNNStatisticalModel/distributions/input/50_distributions_100_sample_size_train-parameters-path.txt
I0502 04:17:23.050879 18455 hdf5_data_layer.cpp:93] Number of HDF5 files: 1
I0502 04:17:23.051457 18455 hdf5.cpp:32] Datatype class: H5T_FLOAT
I0502 04:17:23.220307 18455 net.cpp:144] Setting up parameters
I0502 04:17:23.220341 18455 net.cpp:151] Top shape: 20 1 10 10 (2000)
I0502 04:17:23.220347 18455 net.cpp:151] Top shape: 20 (20)
I0502 04:17:23.220351 18455 net.cpp:159] Memory required for data: 8080
I0502 04:17:23.220358 18455 layer_factory.hpp:77] Creating layer conv1
I0502 04:17:23.220383 18455 net.cpp:94] Creating Layer conv1
I0502 04:17:23.220389 18455 net.cpp:435] conv1 <- data
I0502 04:17:23.220401 18455 net.cpp:409] conv1 -> conv1
I0502 04:17:23.224321 18455 net.cpp:144] Setting up conv1
I0502 04:17:23.224336 18455 net.cpp:151] Top shape: 20 64 10 10 (128000)
I0502 04:17:23.224340 18455 net.cpp:159] Memory required for data: 520080
I0502 04:17:23.224352 18455 layer_factory.hpp:77] Creating layer relu1
I0502 04:17:23.224360 18455 net.cpp:94] Creating Layer relu1
I0502 04:17:23.224364 18455 net.cpp:435] relu1 <- conv1
I0502 04:17:23.224370 18455 net.cpp:396] relu1 -> conv1 (in-place)
I0502 04:17:23.224387 18455 net.cpp:144] Setting up relu1
I0502 04:17:23.224393 18455 net.cpp:151] Top shape: 20 64 10 10 (128000)
I0502 04:17:23.224396 18455 net.cpp:159] Memory required for data: 1032080
I0502 04:17:23.224400 18455 layer_factory.hpp:77] Creating layer conv2
I0502 04:17:23.224408 18455 net.cpp:94] Creating Layer conv2
I0502 04:17:23.224411 18455 net.cpp:435] conv2 <- conv1
I0502 04:17:23.224416 18455 net.cpp:409] conv2 -> conv2
I0502 04:17:23.230274 18455 net.cpp:144] Setting up conv2
I0502 04:17:23.230288 18455 net.cpp:151] Top shape: 20 64 10 10 (128000)
I0502 04:17:23.230293 18455 net.cpp:159] Memory required for data: 1544080
I0502 04:17:23.230300 18455 layer_factory.hpp:77] Creating layer relu2
I0502 04:17:23.230307 18455 net.cpp:94] Creating Layer relu2
I0502 04:17:23.230311 18455 net.cpp:435] relu2 <- conv2
I0502 04:17:23.230316 18455 net.cpp:396] relu2 -> conv2 (in-place)
I0502 04:17:23.230324 18455 net.cpp:144] Setting up relu2
I0502 04:17:23.230329 18455 net.cpp:151] Top shape: 20 64 10 10 (128000)
I0502 04:17:23.230331 18455 net.cpp:159] Memory required for data: 2056080
I0502 04:17:23.230334 18455 layer_factory.hpp:77] Creating layer pool2
I0502 04:17:23.230342 18455 net.cpp:94] Creating Layer pool2
I0502 04:17:23.230351 18455 net.cpp:435] pool2 <- conv2
I0502 04:17:23.230357 18455 net.cpp:409] pool2 -> pool2
I0502 04:17:23.230401 18455 net.cpp:144] Setting up pool2
I0502 04:17:23.230409 18455 net.cpp:151] Top shape: 20 64 5 5 (32000)
I0502 04:17:23.230412 18455 net.cpp:159] Memory required for data: 2184080
I0502 04:17:23.230415 18455 layer_factory.hpp:77] Creating layer conv3
I0502 04:17:23.230423 18455 net.cpp:94] Creating Layer conv3
I0502 04:17:23.230427 18455 net.cpp:435] conv3 <- pool2
I0502 04:17:23.230432 18455 net.cpp:409] conv3 -> conv3
I0502 04:17:23.235303 18455 net.cpp:144] Setting up conv3
I0502 04:17:23.235318 18455 net.cpp:151] Top shape: 20 64 5 5 (32000)
I0502 04:17:23.235322 18455 net.cpp:159] Memory required for data: 2312080
I0502 04:17:23.235330 18455 layer_factory.hpp:77] Creating layer relu3
I0502 04:17:23.235337 18455 net.cpp:94] Creating Layer relu3
I0502 04:17:23.235340 18455 net.cpp:435] relu3 <- conv3
I0502 04:17:23.235345 18455 net.cpp:396] relu3 -> conv3 (in-place)
I0502 04:17:23.235352 18455 net.cpp:144] Setting up relu3
I0502 04:17:23.235357 18455 net.cpp:151] Top shape: 20 64 5 5 (32000)
I0502 04:17:23.235360 18455 net.cpp:159] Memory required for data: 2440080
I0502 04:17:23.235363 18455 layer_factory.hpp:77] Creating layer conv4
I0502 04:17:23.235373 18455 net.cpp:94] Creating Layer conv4
I0502 04:17:23.235376 18455 net.cpp:435] conv4 <- conv3
I0502 04:17:23.235381 18455 net.cpp:409] conv4 -> conv4
I0502 04:17:23.239783 18455 net.cpp:144] Setting up conv4
I0502 04:17:23.239796 18455 net.cpp:151] Top shape: 20 64 5 5 (32000)
I0502 04:17:23.239800 18455 net.cpp:159] Memory required for data: 2568080
I0502 04:17:23.239806 18455 layer_factory.hpp:77] Creating layer relu4
I0502 04:17:23.239812 18455 net.cpp:94] Creating Layer relu4
I0502 04:17:23.239816 18455 net.cpp:435] relu4 <- conv4
I0502 04:17:23.239821 18455 net.cpp:396] relu4 -> conv4 (in-place)
I0502 04:17:23.239828 18455 net.cpp:144] Setting up relu4
I0502 04:17:23.239833 18455 net.cpp:151] Top shape: 20 64 5 5 (32000)
I0502 04:17:23.239836 18455 net.cpp:159] Memory required for data: 2696080
I0502 04:17:23.239840 18455 layer_factory.hpp:77] Creating layer conv5
I0502 04:17:23.239847 18455 net.cpp:94] Creating Layer conv5
I0502 04:17:23.239850 18455 net.cpp:435] conv5 <- conv4
I0502 04:17:23.239856 18455 net.cpp:409] conv5 -> conv5
I0502 04:17:23.244653 18455 net.cpp:144] Setting up conv5
I0502 04:17:23.244668 18455 net.cpp:151] Top shape: 20 64 5 5 (32000)
I0502 04:17:23.244673 18455 net.cpp:159] Memory required for data: 2824080
I0502 04:17:23.244681 18455 layer_factory.hpp:77] Creating layer relu5
I0502 04:17:23.244688 18455 net.cpp:94] Creating Layer relu5
I0502 04:17:23.244690 18455 net.cpp:435] relu5 <- conv5
I0502 04:17:23.244695 18455 net.cpp:396] relu5 -> conv5 (in-place)
I0502 04:17:23.244702 18455 net.cpp:144] Setting up relu5
I0502 04:17:23.244706 18455 net.cpp:151] Top shape: 20 64 5 5 (32000)
I0502 04:17:23.244710 18455 net.cpp:159] Memory required for data: 2952080
I0502 04:17:23.244714 18455 layer_factory.hpp:77] Creating layer pool5
I0502 04:17:23.244719 18455 net.cpp:94] Creating Layer pool5
I0502 04:17:23.244721 18455 net.cpp:435] pool5 <- conv5
I0502 04:17:23.244726 18455 net.cpp:409] pool5 -> pool5
I0502 04:17:23.244760 18455 net.cpp:144] Setting up pool5
I0502 04:17:23.244767 18455 net.cpp:151] Top shape: 20 64 2 2 (5120)
I0502 04:17:23.244771 18455 net.cpp:159] Memory required for data: 2972560
I0502 04:17:23.244773 18455 layer_factory.hpp:77] Creating layer ip1
I0502 04:17:23.244783 18455 net.cpp:94] Creating Layer ip1
I0502 04:17:23.244787 18455 net.cpp:435] ip1 <- pool5
I0502 04:17:23.244792 18455 net.cpp:409] ip1 -> ip1
I0502 04:17:23.245925 18455 net.cpp:144] Setting up ip1
I0502 04:17:23.245939 18455 net.cpp:151] Top shape: 20 64 (1280)
I0502 04:17:23.245942 18455 net.cpp:159] Memory required for data: 2977680
I0502 04:17:23.245949 18455 layer_factory.hpp:77] Creating layer ip2
I0502 04:17:23.245955 18455 net.cpp:94] Creating Layer ip2
I0502 04:17:23.245959 18455 net.cpp:435] ip2 <- ip1
I0502 04:17:23.245968 18455 net.cpp:409] ip2 -> ip2
I0502 04:17:23.246140 18455 net.cpp:144] Setting up ip2
I0502 04:17:23.246147 18455 net.cpp:151] Top shape: 20 64 (1280)
I0502 04:17:23.246150 18455 net.cpp:159] Memory required for data: 2982800
I0502 04:17:23.246156 18455 layer_factory.hpp:77] Creating layer ip3
I0502 04:17:23.246162 18455 net.cpp:94] Creating Layer ip3
I0502 04:17:23.246165 18455 net.cpp:435] ip3 <- ip2
I0502 04:17:23.246170 18455 net.cpp:409] ip3 -> ip3
I0502 04:17:23.246234 18455 net.cpp:144] Setting up ip3
I0502 04:17:23.246240 18455 net.cpp:151] Top shape: 20 1 (20)
I0502 04:17:23.246248 18455 net.cpp:159] Memory required for data: 2982880
I0502 04:17:23.246254 18455 layer_factory.hpp:77] Creating layer loss
I0502 04:17:23.246261 18455 net.cpp:94] Creating Layer loss
I0502 04:17:23.246264 18455 net.cpp:435] loss <- ip3
I0502 04:17:23.246268 18455 net.cpp:435] loss <- label
I0502 04:17:23.246274 18455 net.cpp:409] loss -> loss
I0502 04:17:23.246309 18455 net.cpp:144] Setting up loss
…
