…
I0504 12:26:59.613698 26503 net.cpp:323] The NetState phase (0) differed from the phase (1) specified by a rule in layer intercept
I0504 12:26:59.613723 26503 net.cpp:323] The NetState phase (0) differed from the phase (1) specified by a rule in layer loss
I0504 12:26:59.613868 26503 net.cpp:52] Initializing net from parameters: 
state {
  phase: TRAIN
}
layer {
  name: "parameters"
  type: "HDF5Data"
  top: "data"
  top: "label"
  include {
    phase: TRAIN
  }
  hdf5_data_param {
    source: "/home/purduethu/scratch/radon/d/deng106/CNNStatisticalModel/distributions/input/20_distributions_400_sample_size_train-parameters-path.txt"
    batch_size: 20
  }
}
layer {
  name: "conv1"
  type: "Convolution"
  bottom: "data"
  top: "conv1"
  param {
    lr_mult: 1
  }
  param {
    lr_mult: 2
  }
  convolution_param {
    num_output: 64
    pad: 2
    kernel_size: 5
    stride: 1
    weight_filler {
      type: "gaussian"
      std: 0.0001
    }
    bias_filler {
      type: "constant"
    }
  }
}
layer {
  name: "relu1"
  type: "ReLU"
  bottom: "conv1"
  top: "conv1"
}
layer {
  name: "conv2"
  type: "Convolution"
  bottom: "conv1"
  top: "conv2"
  param {
    lr_mult: 1
  }
  param {
    lr_mult: 2
  }
  convolution_param {
    num_output: 64
    pad: 2
    kernel_size: 5
    stride: 1
    weight_filler {
      type: "gaussian"
      std: 0.01
    }
    bias_filler {
      type: "constant"
    }
  }
}
layer {
  name: "relu2"
  type: "ReLU"
  bottom: "conv2"
  top: "conv2"
}
layer {
  name: "pool2"
  type: "Pooling"
  bottom: "conv2"
  top: "pool2"
  pooling_param {
    pool: MAX
    kernel_size: 3
    stride: 2
  }
}
layer {
  name: "conv3"
  type: "Convolution"
  bottom: "pool2"
  top: "conv3"
  param {
    lr_mult: 1
  }
  param {
    lr_mult: 2
  }
  convolution_param {
    num_output: 128
    pad: 2
    kernel_size: 5
    stride: 1
    weight_filler {
      type: "gaussian"
      std: 0.01
    }
    bias_filler {
      type: "constant"
    }
  }
}
layer {
  name: "relu3"
  type: "ReLU"
  bottom: "conv3"
  top: "conv3"
}
layer {
  name: "conv4"
  type: "Convolution"
  bottom: "conv3"
  top: "conv4"
  param {
    lr_mult: 1
  }
  param {
    lr_mult: 2
  }
  convolution_param {
    num_output: 128
    pad: 2
    kernel_size: 5
    stride: 1
    weight_filler {
      type: "gaussian"
      std: 0.01
    }
    bias_filler {
      type: "constant"
    }
  }
}
layer {
  name: "relu4"
  type: "ReLU"
  bottom: "conv4"
  top: "conv4"
}
layer {
  name: "conv5"
  type: "Convolution"
  bottom: "conv4"
  top: "conv5"
  param {
    lr_mult: 1
  }
  param {
    lr_mult: 2
  }
  convolution_param {
    num_output: 128
    pad: 2
    kernel_size: 5
    stride: 1
    weight_filler {
      type: "gaussian"
      std: 0.01
    }
    bias_filler {
      type: "constant"
    }
  }
}
layer {
  name: "relu5"
  type: "ReLU"
  bottom: "conv5"
  top: "conv5"
}
layer {
  name: "pool5"
  type: "Pooling"
  bottom: "conv5"
  top: "pool5"
  pooling_param {
    pool: AVE
    kernel_size: 3
    stride: 2
  }
}
layer {
  name: "ip1"
  type: "InnerProduct"
  bottom: "pool5"
  top: "ip1"
  param {
    lr_mult: 1
  }
  param {
    lr_mult: 2
  }
  inner_product_param {
    num_output: 1024
    weight_filler {
      type: "gaussian"
      std: 0.1
    }
    bias_filler {
      type: "constant"
    }
  }
}
layer {
  name: "ip2"
  type: "InnerProduct"
  bottom: "ip1"
  top: "ip2"
  param {
    lr_mult: 1
  }
  param {
    lr_mult: 2
  }
  inner_product_param {
    num_output: 512
    weight_filler {
      type: "gaussian"
      std: 0.1
    }
    bias_filler {
      type: "constant"
    }
  }
}
layer {
  name: "ip3"
  type: "InnerProduct"
  bottom: "ip2"
  top: "ip3"
  param {
    lr_mult: 1
  }
  param {
    lr_mult: 2
  }
  inner_product_param {
    num_output: 1
    weight_filler {
      type: "gaussian"
      std: 0.1
    }
    bias_filler {
      type: "constant"
    }
  }
}
layer {
  name: "loss"
  type: "HuberLoss"
  bottom: "ip3"
  bottom: "label"
  top: "loss"
  include {
    phase: TRAIN
  }
}
I0504 12:26:59.613977 26503 layer_factory.hpp:77] Creating layer parameters
I0504 12:26:59.613998 26503 net.cpp:94] Creating Layer parameters
I0504 12:26:59.614006 26503 net.cpp:409] parameters -> data
I0504 12:26:59.614032 26503 net.cpp:409] parameters -> label
I0504 12:26:59.614048 26503 hdf5_data_layer.cpp:79] Loading list of HDF5 filenames from: /home/purduethu/scratch/radon/d/deng106/CNNStatisticalModel/distributions/input/20_distributions_400_sample_size_train-parameters-path.txt
I0504 12:26:59.614078 26503 hdf5_data_layer.cpp:93] Number of HDF5 files: 1
I0504 12:26:59.614742 26503 hdf5.cpp:32] Datatype class: H5T_FLOAT
I0504 12:26:59.886978 26503 net.cpp:144] Setting up parameters
I0504 12:26:59.887012 26503 net.cpp:151] Top shape: 20 1 20 20 (8000)
I0504 12:26:59.887017 26503 net.cpp:151] Top shape: 20 (20)
I0504 12:26:59.887020 26503 net.cpp:159] Memory required for data: 32080
I0504 12:26:59.887029 26503 layer_factory.hpp:77] Creating layer conv1
I0504 12:26:59.887048 26503 net.cpp:94] Creating Layer conv1
I0504 12:26:59.887053 26503 net.cpp:435] conv1 <- data
I0504 12:26:59.887065 26503 net.cpp:409] conv1 -> conv1
I0504 12:26:59.891916 26503 net.cpp:144] Setting up conv1
I0504 12:26:59.891933 26503 net.cpp:151] Top shape: 20 64 20 20 (512000)
I0504 12:26:59.891937 26503 net.cpp:159] Memory required for data: 2080080
I0504 12:26:59.891949 26503 layer_factory.hpp:77] Creating layer relu1
I0504 12:26:59.891957 26503 net.cpp:94] Creating Layer relu1
I0504 12:26:59.891962 26503 net.cpp:435] relu1 <- conv1
I0504 12:26:59.891966 26503 net.cpp:396] relu1 -> conv1 (in-place)
I0504 12:26:59.891983 26503 net.cpp:144] Setting up relu1
I0504 12:26:59.891988 26503 net.cpp:151] Top shape: 20 64 20 20 (512000)
I0504 12:26:59.891991 26503 net.cpp:159] Memory required for data: 4128080
I0504 12:26:59.891994 26503 layer_factory.hpp:77] Creating layer conv2
I0504 12:26:59.892002 26503 net.cpp:94] Creating Layer conv2
I0504 12:26:59.892006 26503 net.cpp:435] conv2 <- conv1
I0504 12:26:59.892011 26503 net.cpp:409] conv2 -> conv2
I0504 12:26:59.901984 26503 net.cpp:144] Setting up conv2
I0504 12:26:59.902007 26503 net.cpp:151] Top shape: 20 64 20 20 (512000)
I0504 12:26:59.902014 26503 net.cpp:159] Memory required for data: 6176080
I0504 12:26:59.902026 26503 layer_factory.hpp:77] Creating layer relu2
I0504 12:26:59.902036 26503 net.cpp:94] Creating Layer relu2
I0504 12:26:59.902042 26503 net.cpp:435] relu2 <- conv2
I0504 12:26:59.902050 26503 net.cpp:396] relu2 -> conv2 (in-place)
I0504 12:26:59.902061 26503 net.cpp:144] Setting up relu2
I0504 12:26:59.902068 26503 net.cpp:151] Top shape: 20 64 20 20 (512000)
I0504 12:26:59.902073 26503 net.cpp:159] Memory required for data: 8224080
I0504 12:26:59.902077 26503 layer_factory.hpp:77] Creating layer pool2
I0504 12:26:59.902088 26503 net.cpp:94] Creating Layer pool2
I0504 12:26:59.902101 26503 net.cpp:435] pool2 <- conv2
I0504 12:26:59.902109 26503 net.cpp:409] pool2 -> pool2
I0504 12:26:59.902173 26503 net.cpp:144] Setting up pool2
I0504 12:26:59.902184 26503 net.cpp:151] Top shape: 20 64 10 10 (128000)
I0504 12:26:59.902190 26503 net.cpp:159] Memory required for data: 8736080
I0504 12:26:59.902195 26503 layer_factory.hpp:77] Creating layer conv3
I0504 12:26:59.902206 26503 net.cpp:94] Creating Layer conv3
I0504 12:26:59.902212 26503 net.cpp:435] conv3 <- pool2
I0504 12:26:59.902220 26503 net.cpp:409] conv3 -> conv3
I0504 12:26:59.911620 26503 net.cpp:144] Setting up conv3
I0504 12:26:59.911635 26503 net.cpp:151] Top shape: 20 128 10 10 (256000)
I0504 12:26:59.911640 26503 net.cpp:159] Memory required for data: 9760080
I0504 12:26:59.911648 26503 layer_factory.hpp:77] Creating layer relu3
I0504 12:26:59.911654 26503 net.cpp:94] Creating Layer relu3
I0504 12:26:59.911659 26503 net.cpp:435] relu3 <- conv3
I0504 12:26:59.911664 26503 net.cpp:396] relu3 -> conv3 (in-place)
I0504 12:26:59.911670 26503 net.cpp:144] Setting up relu3
I0504 12:26:59.911675 26503 net.cpp:151] Top shape: 20 128 10 10 (256000)
I0504 12:26:59.911679 26503 net.cpp:159] Memory required for data: 10784080
I0504 12:26:59.911681 26503 layer_factory.hpp:77] Creating layer conv4
I0504 12:26:59.911691 26503 net.cpp:94] Creating Layer conv4
I0504 12:26:59.911695 26503 net.cpp:435] conv4 <- conv3
I0504 12:26:59.911700 26503 net.cpp:409] conv4 -> conv4
I0504 12:26:59.929518 26503 net.cpp:144] Setting up conv4
I0504 12:26:59.929544 26503 net.cpp:151] Top shape: 20 128 10 10 (256000)
I0504 12:26:59.929549 26503 net.cpp:159] Memory required for data: 11808080
I0504 12:26:59.929556 26503 layer_factory.hpp:77] Creating layer relu4
I0504 12:26:59.929563 26503 net.cpp:94] Creating Layer relu4
I0504 12:26:59.929567 26503 net.cpp:435] relu4 <- conv4
I0504 12:26:59.929572 26503 net.cpp:396] relu4 -> conv4 (in-place)
I0504 12:26:59.929579 26503 net.cpp:144] Setting up relu4
I0504 12:26:59.929584 26503 net.cpp:151] Top shape: 20 128 10 10 (256000)
I0504 12:26:59.929587 26503 net.cpp:159] Memory required for data: 12832080
I0504 12:26:59.929590 26503 layer_factory.hpp:77] Creating layer conv5
I0504 12:26:59.929600 26503 net.cpp:94] Creating Layer conv5
I0504 12:26:59.929602 26503 net.cpp:435] conv5 <- conv4
I0504 12:26:59.929607 26503 net.cpp:409] conv5 -> conv5
I0504 12:26:59.947084 26503 net.cpp:144] Setting up conv5
I0504 12:26:59.947104 26503 net.cpp:151] Top shape: 20 128 10 10 (256000)
I0504 12:26:59.947108 26503 net.cpp:159] Memory required for data: 13856080
I0504 12:26:59.947118 26503 layer_factory.hpp:77] Creating layer relu5
I0504 12:26:59.947125 26503 net.cpp:94] Creating Layer relu5
I0504 12:26:59.947129 26503 net.cpp:435] relu5 <- conv5
I0504 12:26:59.947134 26503 net.cpp:396] relu5 -> conv5 (in-place)
I0504 12:26:59.947142 26503 net.cpp:144] Setting up relu5
I0504 12:26:59.947147 26503 net.cpp:151] Top shape: 20 128 10 10 (256000)
I0504 12:26:59.947150 26503 net.cpp:159] Memory required for data: 14880080
I0504 12:26:59.947154 26503 layer_factory.hpp:77] Creating layer pool5
I0504 12:26:59.947160 26503 net.cpp:94] Creating Layer pool5
I0504 12:26:59.947163 26503 net.cpp:435] pool5 <- conv5
I0504 12:26:59.947167 26503 net.cpp:409] pool5 -> pool5
I0504 12:26:59.947206 26503 net.cpp:144] Setting up pool5
I0504 12:26:59.947213 26503 net.cpp:151] Top shape: 20 128 5 5 (64000)
I0504 12:26:59.947216 26503 net.cpp:159] Memory required for data: 15136080
I0504 12:26:59.947219 26503 layer_factory.hpp:77] Creating layer ip1
I0504 12:26:59.947229 26503 net.cpp:94] Creating Layer ip1
I0504 12:26:59.947233 26503 net.cpp:435] ip1 <- pool5
I0504 12:26:59.947238 26503 net.cpp:409] ip1 -> ip1
I0504 12:27:00.030192 26503 net.cpp:144] Setting up ip1
I0504 12:27:00.030227 26503 net.cpp:151] Top shape: 20 1024 (20480)
I0504 12:27:00.030232 26503 net.cpp:159] Memory required for data: 15218000
I0504 12:27:00.030241 26503 layer_factory.hpp:77] Creating layer ip2
I0504 12:27:00.030251 26503 net.cpp:94] Creating Layer ip2
I0504 12:27:00.030264 26503 net.cpp:435] ip2 <- ip1
I0504 12:27:00.030272 26503 net.cpp:409] ip2 -> ip2
I0504 12:27:00.043848 26503 net.cpp:144] Setting up ip2
I0504 12:27:00.043869 26503 net.cpp:151] Top shape: 20 512 (10240)
I0504 12:27:00.043872 26503 net.cpp:159] Memory required for data: 15258960
I0504 12:27:00.043879 26503 layer_factory.hpp:77] Creating layer ip3
I0504 12:27:00.043887 26503 net.cpp:94] Creating Layer ip3
I0504 12:27:00.043891 26503 net.cpp:435] ip3 <- ip2
I0504 12:27:00.043897 26503 net.cpp:409] ip3 -> ip3
I0504 12:27:00.043978 26503 net.cpp:144] Setting up ip3
I0504 12:27:00.043994 26503 net.cpp:151] Top shape: 20 1 (20)
I0504 12:27:00.043998 26503 net.cpp:159] Memory required for data: 15259040
I0504 12:27:00.044003 26503 layer_factory.hpp:77] Creating layer loss
I0504 12:27:00.044018 26503 net.cpp:94] Creating Layer loss
I0504 12:27:00.044023 26503 net.cpp:435] loss <- ip3
I0504 12:27:00.044026 26503 net.cpp:435] loss <- label
I0504 12:27:00.044033 26503 net.cpp:409] loss -> loss
I0504 12:27:00.044070 26503 net.cpp:144] Setting up loss
…
