…
I0503 06:21:43.062404 18623 net.cpp:323] The NetState phase (0) differed from the phase (1) specified by a rule in layer intercept
I0503 06:21:43.062420 18623 net.cpp:323] The NetState phase (0) differed from the phase (1) specified by a rule in layer loss
I0503 06:21:43.062503 18623 net.cpp:52] Initializing net from parameters: 
state {
  phase: TRAIN
}
layer {
  name: "parameters"
  type: "HDF5Data"
  top: "data"
  top: "label"
  include {
    phase: TRAIN
  }
  hdf5_data_param {
    source: "/home/purduethu/scratch/radon/d/deng106/CNNStatisticalModel/distributions/input/5_distributions_100_sample_size_train-parameters-path.txt"
    batch_size: 20
  }
}
layer {
  name: "conv1"
  type: "Convolution"
  bottom: "data"
  top: "conv1"
  param {
    lr_mult: 1
  }
  param {
    lr_mult: 2
  }
  convolution_param {
    num_output: 64
    pad: 2
    kernel_size: 5
    stride: 1
    weight_filler {
      type: "gaussian"
      std: 0.0001
    }
    bias_filler {
      type: "constant"
    }
  }
}
layer {
  name: "relu1"
  type: "ReLU"
  bottom: "conv1"
  top: "conv1"
}
layer {
  name: "conv2"
  type: "Convolution"
  bottom: "conv1"
  top: "conv2"
  param {
    lr_mult: 1
  }
  param {
    lr_mult: 2
  }
  convolution_param {
    num_output: 64
    pad: 2
    kernel_size: 5
    stride: 1
    weight_filler {
      type: "gaussian"
      std: 0.01
    }
    bias_filler {
      type: "constant"
    }
  }
}
layer {
  name: "relu2"
  type: "ReLU"
  bottom: "conv2"
  top: "conv2"
}
layer {
  name: "pool2"
  type: "Pooling"
  bottom: "conv2"
  top: "pool2"
  pooling_param {
    pool: MAX
    kernel_size: 3
    stride: 2
  }
}
layer {
  name: "conv3"
  type: "Convolution"
  bottom: "pool2"
  top: "conv3"
  param {
    lr_mult: 1
  }
  param {
    lr_mult: 2
  }
  convolution_param {
    num_output: 128
    pad: 2
    kernel_size: 5
    stride: 1
    weight_filler {
      type: "gaussian"
      std: 0.01
    }
    bias_filler {
      type: "constant"
    }
  }
}
layer {
  name: "relu3"
  type: "ReLU"
  bottom: "conv3"
  top: "conv3"
}
layer {
  name: "conv4"
  type: "Convolution"
  bottom: "conv3"
  top: "conv4"
  param {
    lr_mult: 1
  }
  param {
    lr_mult: 2
  }
  convolution_param {
    num_output: 128
    pad: 2
    kernel_size: 5
    stride: 1
    weight_filler {
      type: "gaussian"
      std: 0.01
    }
    bias_filler {
      type: "constant"
    }
  }
}
layer {
  name: "relu4"
  type: "ReLU"
  bottom: "conv4"
  top: "conv4"
}
layer {
  name: "conv5"
  type: "Convolution"
  bottom: "conv4"
  top: "conv5"
  param {
    lr_mult: 1
  }
  param {
    lr_mult: 2
  }
  convolution_param {
    num_output: 128
    pad: 2
    kernel_size: 5
    stride: 1
    weight_filler {
      type: "gaussian"
      std: 0.01
    }
    bias_filler {
      type: "constant"
    }
  }
}
layer {
  name: "relu5"
  type: "ReLU"
  bottom: "conv5"
  top: "conv5"
}
layer {
  name: "pool5"
  type: "Pooling"
  bottom: "conv5"
  top: "pool5"
  pooling_param {
    pool: AVE
    kernel_size: 3
    stride: 2
  }
}
layer {
  name: "ip1"
  type: "InnerProduct"
  bottom: "pool5"
  top: "ip1"
  param {
    lr_mult: 1
  }
  param {
    lr_mult: 2
  }
  inner_product_param {
    num_output: 1024
    weight_filler {
      type: "gaussian"
      std: 0.1
    }
    bias_filler {
      type: "constant"
    }
  }
}
layer {
  name: "ip2"
  type: "InnerProduct"
  bottom: "ip1"
  top: "ip2"
  param {
    lr_mult: 1
  }
  param {
    lr_mult: 2
  }
  inner_product_param {
    num_output: 512
    weight_filler {
      type: "gaussian"
      std: 0.1
    }
    bias_filler {
      type: "constant"
    }
  }
}
layer {
  name: "ip3"
  type: "InnerProduct"
  bottom: "ip2"
  top: "ip3"
  param {
    lr_mult: 1
  }
  param {
    lr_mult: 2
  }
  inner_product_param {
    num_output: 1
    weight_filler {
      type: "gaussian"
      std: 0.1
    }
    bias_filler {
      type: "constant"
    }
  }
}
layer {
  name: "loss"
  type: "HuberLoss"
  bottom: "ip3"
  bottom: "label"
  top: "loss"
  include {
    phase: TRAIN
  }
}
I0503 06:21:43.062556 18623 layer_factory.hpp:77] Creating layer parameters
I0503 06:21:43.062572 18623 net.cpp:94] Creating Layer parameters
I0503 06:21:43.062577 18623 net.cpp:409] parameters -> data
I0503 06:21:43.062587 18623 net.cpp:409] parameters -> label
I0503 06:21:43.062592 18623 hdf5_data_layer.cpp:79] Loading list of HDF5 filenames from: /home/purduethu/scratch/radon/d/deng106/CNNStatisticalModel/distributions/input/5_distributions_100_sample_size_train-parameters-path.txt
I0503 06:21:43.062608 18623 hdf5_data_layer.cpp:93] Number of HDF5 files: 1
I0503 06:21:43.063166 18623 hdf5.cpp:32] Datatype class: H5T_FLOAT
I0503 06:21:43.081646 18623 net.cpp:144] Setting up parameters
I0503 06:21:43.081679 18623 net.cpp:151] Top shape: 20 1 10 10 (2000)
I0503 06:21:43.081686 18623 net.cpp:151] Top shape: 20 (20)
I0503 06:21:43.081688 18623 net.cpp:159] Memory required for data: 8080
I0503 06:21:43.081694 18623 layer_factory.hpp:77] Creating layer conv1
I0503 06:21:43.081717 18623 net.cpp:94] Creating Layer conv1
I0503 06:21:43.081722 18623 net.cpp:435] conv1 <- data
I0503 06:21:43.081727 18623 net.cpp:409] conv1 -> conv1
I0503 06:21:43.085902 18623 net.cpp:144] Setting up conv1
I0503 06:21:43.085919 18623 net.cpp:151] Top shape: 20 64 10 10 (128000)
I0503 06:21:43.085923 18623 net.cpp:159] Memory required for data: 520080
I0503 06:21:43.085933 18623 layer_factory.hpp:77] Creating layer relu1
I0503 06:21:43.085942 18623 net.cpp:94] Creating Layer relu1
I0503 06:21:43.085945 18623 net.cpp:435] relu1 <- conv1
I0503 06:21:43.085949 18623 net.cpp:396] relu1 -> conv1 (in-place)
I0503 06:21:43.085961 18623 net.cpp:144] Setting up relu1
I0503 06:21:43.085966 18623 net.cpp:151] Top shape: 20 64 10 10 (128000)
I0503 06:21:43.085969 18623 net.cpp:159] Memory required for data: 1032080
I0503 06:21:43.085973 18623 layer_factory.hpp:77] Creating layer conv2
I0503 06:21:43.085979 18623 net.cpp:94] Creating Layer conv2
I0503 06:21:43.085983 18623 net.cpp:435] conv2 <- conv1
I0503 06:21:43.085988 18623 net.cpp:409] conv2 -> conv2
I0503 06:21:43.092258 18623 net.cpp:144] Setting up conv2
I0503 06:21:43.092277 18623 net.cpp:151] Top shape: 20 64 10 10 (128000)
I0503 06:21:43.092279 18623 net.cpp:159] Memory required for data: 1544080
I0503 06:21:43.092289 18623 layer_factory.hpp:77] Creating layer relu2
I0503 06:21:43.092298 18623 net.cpp:94] Creating Layer relu2
I0503 06:21:43.092301 18623 net.cpp:435] relu2 <- conv2
I0503 06:21:43.092305 18623 net.cpp:396] relu2 -> conv2 (in-place)
I0503 06:21:43.092314 18623 net.cpp:144] Setting up relu2
I0503 06:21:43.092319 18623 net.cpp:151] Top shape: 20 64 10 10 (128000)
I0503 06:21:43.092320 18623 net.cpp:159] Memory required for data: 2056080
I0503 06:21:43.092324 18623 layer_factory.hpp:77] Creating layer pool2
I0503 06:21:43.092329 18623 net.cpp:94] Creating Layer pool2
I0503 06:21:43.092339 18623 net.cpp:435] pool2 <- conv2
I0503 06:21:43.092344 18623 net.cpp:409] pool2 -> pool2
I0503 06:21:43.092396 18623 net.cpp:144] Setting up pool2
I0503 06:21:43.092403 18623 net.cpp:151] Top shape: 20 64 5 5 (32000)
I0503 06:21:43.092406 18623 net.cpp:159] Memory required for data: 2184080
I0503 06:21:43.092411 18623 layer_factory.hpp:77] Creating layer conv3
I0503 06:21:43.092418 18623 net.cpp:94] Creating Layer conv3
I0503 06:21:43.092422 18623 net.cpp:435] conv3 <- pool2
I0503 06:21:43.092427 18623 net.cpp:409] conv3 -> conv3
I0503 06:21:43.100975 18623 net.cpp:144] Setting up conv3
I0503 06:21:43.100991 18623 net.cpp:151] Top shape: 20 128 5 5 (64000)
I0503 06:21:43.100994 18623 net.cpp:159] Memory required for data: 2440080
I0503 06:21:43.101003 18623 layer_factory.hpp:77] Creating layer relu3
I0503 06:21:43.101009 18623 net.cpp:94] Creating Layer relu3
I0503 06:21:43.101012 18623 net.cpp:435] relu3 <- conv3
I0503 06:21:43.101017 18623 net.cpp:396] relu3 -> conv3 (in-place)
I0503 06:21:43.101024 18623 net.cpp:144] Setting up relu3
I0503 06:21:43.101028 18623 net.cpp:151] Top shape: 20 128 5 5 (64000)
I0503 06:21:43.101032 18623 net.cpp:159] Memory required for data: 2696080
I0503 06:21:43.101034 18623 layer_factory.hpp:77] Creating layer conv4
I0503 06:21:43.101042 18623 net.cpp:94] Creating Layer conv4
I0503 06:21:43.101047 18623 net.cpp:435] conv4 <- conv3
I0503 06:21:43.101050 18623 net.cpp:409] conv4 -> conv4
I0503 06:21:43.116802 18623 net.cpp:144] Setting up conv4
I0503 06:21:43.116819 18623 net.cpp:151] Top shape: 20 128 5 5 (64000)
I0503 06:21:43.116823 18623 net.cpp:159] Memory required for data: 2952080
I0503 06:21:43.116830 18623 layer_factory.hpp:77] Creating layer relu4
I0503 06:21:43.116837 18623 net.cpp:94] Creating Layer relu4
I0503 06:21:43.116840 18623 net.cpp:435] relu4 <- conv4
I0503 06:21:43.116845 18623 net.cpp:396] relu4 -> conv4 (in-place)
I0503 06:21:43.116852 18623 net.cpp:144] Setting up relu4
I0503 06:21:43.116856 18623 net.cpp:151] Top shape: 20 128 5 5 (64000)
I0503 06:21:43.116859 18623 net.cpp:159] Memory required for data: 3208080
I0503 06:21:43.116863 18623 layer_factory.hpp:77] Creating layer conv5
I0503 06:21:43.116870 18623 net.cpp:94] Creating Layer conv5
I0503 06:21:43.116873 18623 net.cpp:435] conv5 <- conv4
I0503 06:21:43.116878 18623 net.cpp:409] conv5 -> conv5
I0503 06:21:43.132180 18623 net.cpp:144] Setting up conv5
I0503 06:21:43.132199 18623 net.cpp:151] Top shape: 20 128 5 5 (64000)
I0503 06:21:43.132202 18623 net.cpp:159] Memory required for data: 3464080
I0503 06:21:43.132215 18623 layer_factory.hpp:77] Creating layer relu5
I0503 06:21:43.132222 18623 net.cpp:94] Creating Layer relu5
I0503 06:21:43.132225 18623 net.cpp:435] relu5 <- conv5
I0503 06:21:43.132231 18623 net.cpp:396] relu5 -> conv5 (in-place)
I0503 06:21:43.132239 18623 net.cpp:144] Setting up relu5
I0503 06:21:43.132243 18623 net.cpp:151] Top shape: 20 128 5 5 (64000)
I0503 06:21:43.132246 18623 net.cpp:159] Memory required for data: 3720080
I0503 06:21:43.132249 18623 layer_factory.hpp:77] Creating layer pool5
I0503 06:21:43.132254 18623 net.cpp:94] Creating Layer pool5
I0503 06:21:43.132257 18623 net.cpp:435] pool5 <- conv5
I0503 06:21:43.132262 18623 net.cpp:409] pool5 -> pool5
I0503 06:21:43.132306 18623 net.cpp:144] Setting up pool5
I0503 06:21:43.132313 18623 net.cpp:151] Top shape: 20 128 2 2 (10240)
I0503 06:21:43.132316 18623 net.cpp:159] Memory required for data: 3761040
I0503 06:21:43.132319 18623 layer_factory.hpp:77] Creating layer ip1
I0503 06:21:43.132330 18623 net.cpp:94] Creating Layer ip1
I0503 06:21:43.132333 18623 net.cpp:435] ip1 <- pool5
I0503 06:21:43.132339 18623 net.cpp:409] ip1 -> ip1
I0503 06:21:43.146566 18623 net.cpp:144] Setting up ip1
I0503 06:21:43.146586 18623 net.cpp:151] Top shape: 20 1024 (20480)
I0503 06:21:43.146590 18623 net.cpp:159] Memory required for data: 3842960
I0503 06:21:43.146597 18623 layer_factory.hpp:77] Creating layer ip2
I0503 06:21:43.146607 18623 net.cpp:94] Creating Layer ip2
I0503 06:21:43.146610 18623 net.cpp:435] ip2 <- ip1
I0503 06:21:43.146622 18623 net.cpp:409] ip2 -> ip2
I0503 06:21:43.159951 18623 net.cpp:144] Setting up ip2
I0503 06:21:43.159970 18623 net.cpp:151] Top shape: 20 512 (10240)
I0503 06:21:43.159972 18623 net.cpp:159] Memory required for data: 3883920
I0503 06:21:43.159979 18623 layer_factory.hpp:77] Creating layer ip3
I0503 06:21:43.159986 18623 net.cpp:94] Creating Layer ip3
I0503 06:21:43.159991 18623 net.cpp:435] ip3 <- ip2
I0503 06:21:43.159996 18623 net.cpp:409] ip3 -> ip3
I0503 06:21:43.160117 18623 net.cpp:144] Setting up ip3
I0503 06:21:43.160125 18623 net.cpp:151] Top shape: 20 1 (20)
I0503 06:21:43.160128 18623 net.cpp:159] Memory required for data: 3884000
I0503 06:21:43.160133 18623 layer_factory.hpp:77] Creating layer loss
I0503 06:21:43.160142 18623 net.cpp:94] Creating Layer loss
I0503 06:21:43.160145 18623 net.cpp:435] loss <- ip3
I0503 06:21:43.160150 18623 net.cpp:435] loss <- label
I0503 06:21:43.160153 18623 net.cpp:409] loss -> loss
I0503 06:21:43.160204 18623 net.cpp:144] Setting up loss
…
I0503 06:21:43.232148 18623 net.cpp:323] The NetState phase (0) differed from the phase (1) specified by a rule in layer intercept
I0503 06:21:43.232165 18623 net.cpp:323] The NetState phase (0) differed from the phase (1) specified by a rule in layer accuracy
I0503 06:21:43.232257 18623 net.cpp:52] Initializing net from parameters: 
state {
  phase: TRAIN
}
layer {
  name: "parameters"
  type: "HDF5Data"
  top: "data"
  top: "label"
  include {
    phase: TRAIN
  }
  hdf5_data_param {
    source: "/home/purduethu/scratch/radon/d/deng106/CNNStatisticalModel/distributions/input/5_distributions_100_sample_size_train-distributions-path.txt"
    batch_size: 20
  }
}
layer {
  name: "conv1"
  type: "Convolution"
  bottom: "data"
  top: "conv1"
  param {
    lr_mult: 1
  }
  param {
    lr_mult: 2
  }
  convolution_param {
    num_output: 64
    pad: 2
    kernel_size: 5
    stride: 1
    weight_filler {
      type: "gaussian"
      std: 0.0001
    }
    bias_filler {
      type: "constant"
    }
  }
}
layer {
  name: "relu1"
  type: "ReLU"
  bottom: "conv1"
  top: "conv1"
}
layer {
  name: "conv2"
  type: "Convolution"
  bottom: "conv1"
  top: "conv2"
  param {
    lr_mult: 1
  }
  param {
    lr_mult: 2
  }
  convolution_param {
    num_output: 64
    pad: 2
    kernel_size: 5
    stride: 1
    weight_filler {
      type: "gaussian"
      std: 0.01
    }
    bias_filler {
      type: "constant"
    }
  }
}
layer {
  name: "relu2"
  type: "ReLU"
  bottom: "conv2"
  top: "conv2"
}
layer {
  name: "pool2"
  type: "Pooling"
  bottom: "conv2"
  top: "pool2"
  pooling_param {
    pool: MAX
    kernel_size: 3
    stride: 2
  }
}
layer {
  name: "conv3"
  type: "Convolution"
  bottom: "pool2"
  top: "conv3"
  param {
    lr_mult: 1
  }
  param {
    lr_mult: 2
  }
  convolution_param {
    num_output: 128
    pad: 2
    kernel_size: 5
    stride: 1
    weight_filler {
      type: "gaussian"
      std: 0.01
    }
    bias_filler {
      type: "constant"
    }
  }
}
layer {
  name: "relu3"
  type: "ReLU"
  bottom: "conv3"
  top: "conv3"
}
layer {
  name: "conv4"
  type: "Convolution"
  bottom: "conv3"
  top: "conv4"
  param {
    lr_mult: 1
  }
  param {
    lr_mult: 2
  }
  convolution_param {
    num_output: 128
    pad: 2
    kernel_size: 5
    stride: 1
    weight_filler {
      type: "gaussian"
      std: 0.01
    }
    bias_filler {
      type: "constant"
    }
  }
}
layer {
  name: "relu4"
  type: "ReLU"
  bottom: "conv4"
  top: "conv4"
}
layer {
  name: "conv5"
  type: "Convolution"
  bottom: "conv4"
  top: "conv5"
  param {
    lr_mult: 1
  }
  param {
    lr_mult: 2
  }
  convolution_param {
    num_output: 128
    pad: 2
    kernel_size: 5
    stride: 1
    weight_filler {
      type: "gaussian"
      std: 0.01
    }
    bias_filler {
      type: "constant"
    }
  }
}
layer {
  name: "relu5"
  type: "ReLU"
  bottom: "conv5"
  top: "conv5"
}
layer {
  name: "pool5"
  type: "Pooling"
  bottom: "conv5"
  top: "pool5"
  pooling_param {
    pool: AVE
    kernel_size: 3
    stride: 2
  }
}
layer {
  name: "ip1"
  type: "InnerProduct"
  bottom: "pool5"
  top: "ip1"
  param {
    lr_mult: 1
  }
  param {
    lr_mult: 2
  }
  inner_product_param {
    num_output: 1024
    weight_filler {
      type: "gaussian"
      std: 0.1
    }
    bias_filler {
      type: "constant"
    }
  }
}
layer {
  name: "ip2"
  type: "InnerProduct"
  bottom: "ip1"
  top: "ip2"
  param {
    lr_mult: 1
  }
  param {
    lr_mult: 2
  }
  inner_product_param {
    num_output: 512
    weight_filler {
      type: "gaussian"
      std: 0.1
    }
    bias_filler {
      type: "constant"
    }
  }
}
layer {
  name: "ip3"
  type: "InnerProduct"
  bottom: "ip2"
  top: "ip3"
  param {
    lr_mult: 1
  }
  param {
    lr_mult: 2
  }
  inner_product_param {
    num_output: 50
    weight_filler {
      type: "gaussian"
      std: 0.1
    }
    bias_filler {
      type: "constant"
    }
  }
}
layer {
  name: "loss"
  type: "SoftmaxWithLoss"
  bottom: "ip3"
  bottom: "label"
  top: "loss"
}
I0503 06:21:43.232311 18623 layer_factory.hpp:77] Creating layer parameters
I0503 06:21:43.232321 18623 net.cpp:94] Creating Layer parameters
I0503 06:21:43.232324 18623 net.cpp:409] parameters -> data
I0503 06:21:43.232331 18623 net.cpp:409] parameters -> label
I0503 06:21:43.232336 18623 hdf5_data_layer.cpp:79] Loading list of HDF5 filenames from: /home/purduethu/scratch/radon/d/deng106/CNNStatisticalModel/distributions/input/5_distributions_100_sample_size_train-distributions-path.txt
I0503 06:21:43.232353 18623 hdf5_data_layer.cpp:93] Number of HDF5 files: 1
I0503 06:21:43.248575 18623 hdf5.cpp:35] Datatype class: H5T_INTEGER
I0503 06:21:43.249032 18623 net.cpp:144] Setting up parameters
I0503 06:21:43.249047 18623 net.cpp:151] Top shape: 20 1 10 10 (2000)
I0503 06:21:43.249053 18623 net.cpp:151] Top shape: 20 (20)
I0503 06:21:43.249055 18623 net.cpp:159] Memory required for data: 8080
I0503 06:21:43.249061 18623 layer_factory.hpp:77] Creating layer conv1
I0503 06:21:43.249078 18623 net.cpp:94] Creating Layer conv1
I0503 06:21:43.249081 18623 net.cpp:435] conv1 <- data
I0503 06:21:43.249088 18623 net.cpp:409] conv1 -> conv1
I0503 06:21:43.250818 18623 net.cpp:144] Setting up conv1
I0503 06:21:43.250831 18623 net.cpp:151] Top shape: 20 64 10 10 (128000)
I0503 06:21:43.250834 18623 net.cpp:159] Memory required for data: 520080
I0503 06:21:43.250844 18623 layer_factory.hpp:77] Creating layer relu1
I0503 06:21:43.250851 18623 net.cpp:94] Creating Layer relu1
I0503 06:21:43.250854 18623 net.cpp:435] relu1 <- conv1
I0503 06:21:43.250859 18623 net.cpp:396] relu1 -> conv1 (in-place)
I0503 06:21:43.250866 18623 net.cpp:144] Setting up relu1
I0503 06:21:43.250870 18623 net.cpp:151] Top shape: 20 64 10 10 (128000)
I0503 06:21:43.250874 18623 net.cpp:159] Memory required for data: 1032080
I0503 06:21:43.250876 18623 layer_factory.hpp:77] Creating layer conv2
I0503 06:21:43.250883 18623 net.cpp:94] Creating Layer conv2
I0503 06:21:43.250886 18623 net.cpp:435] conv2 <- conv1
I0503 06:21:43.250890 18623 net.cpp:409] conv2 -> conv2
I0503 06:21:43.256444 18623 net.cpp:144] Setting up conv2
I0503 06:21:43.256459 18623 net.cpp:151] Top shape: 20 64 10 10 (128000)
I0503 06:21:43.256463 18623 net.cpp:159] Memory required for data: 1544080
I0503 06:21:43.256470 18623 layer_factory.hpp:77] Creating layer relu2
I0503 06:21:43.256477 18623 net.cpp:94] Creating Layer relu2
I0503 06:21:43.256480 18623 net.cpp:435] relu2 <- conv2
I0503 06:21:43.256485 18623 net.cpp:396] relu2 -> conv2 (in-place)
I0503 06:21:43.256491 18623 net.cpp:144] Setting up relu2
I0503 06:21:43.256496 18623 net.cpp:151] Top shape: 20 64 10 10 (128000)
I0503 06:21:43.256498 18623 net.cpp:159] Memory required for data: 2056080
I0503 06:21:43.256501 18623 layer_factory.hpp:77] Creating layer pool2
I0503 06:21:43.256507 18623 net.cpp:94] Creating Layer pool2
I0503 06:21:43.256510 18623 net.cpp:435] pool2 <- conv2
I0503 06:21:43.256515 18623 net.cpp:409] pool2 -> pool2
I0503 06:21:43.256577 18623 net.cpp:144] Setting up pool2
I0503 06:21:43.256585 18623 net.cpp:151] Top shape: 20 64 5 5 (32000)
I0503 06:21:43.256588 18623 net.cpp:159] Memory required for data: 2184080
I0503 06:21:43.256592 18623 layer_factory.hpp:77] Creating layer conv3
I0503 06:21:43.256599 18623 net.cpp:94] Creating Layer conv3
I0503 06:21:43.256603 18623 net.cpp:435] conv3 <- pool2
I0503 06:21:43.256608 18623 net.cpp:409] conv3 -> conv3
I0503 06:21:43.265698 18623 net.cpp:144] Setting up conv3
I0503 06:21:43.265720 18623 net.cpp:151] Top shape: 20 128 5 5 (64000)
I0503 06:21:43.265724 18623 net.cpp:159] Memory required for data: 2440080
I0503 06:21:43.265733 18623 layer_factory.hpp:77] Creating layer relu3
I0503 06:21:43.265739 18623 net.cpp:94] Creating Layer relu3
I0503 06:21:43.265743 18623 net.cpp:435] relu3 <- conv3
I0503 06:21:43.265748 18623 net.cpp:396] relu3 -> conv3 (in-place)
I0503 06:21:43.265754 18623 net.cpp:144] Setting up relu3
I0503 06:21:43.265759 18623 net.cpp:151] Top shape: 20 128 5 5 (64000)
I0503 06:21:43.265761 18623 net.cpp:159] Memory required for data: 2696080
I0503 06:21:43.265764 18623 layer_factory.hpp:77] Creating layer conv4
I0503 06:21:43.265772 18623 net.cpp:94] Creating Layer conv4
I0503 06:21:43.265776 18623 net.cpp:435] conv4 <- conv3
I0503 06:21:43.265781 18623 net.cpp:409] conv4 -> conv4
I0503 06:21:43.281210 18623 net.cpp:144] Setting up conv4
I0503 06:21:43.281227 18623 net.cpp:151] Top shape: 20 128 5 5 (64000)
I0503 06:21:43.281231 18623 net.cpp:159] Memory required for data: 2952080
I0503 06:21:43.281239 18623 layer_factory.hpp:77] Creating layer relu4
I0503 06:21:43.281245 18623 net.cpp:94] Creating Layer relu4
I0503 06:21:43.281250 18623 net.cpp:435] relu4 <- conv4
I0503 06:21:43.281255 18623 net.cpp:396] relu4 -> conv4 (in-place)
I0503 06:21:43.281261 18623 net.cpp:144] Setting up relu4
I0503 06:21:43.281265 18623 net.cpp:151] Top shape: 20 128 5 5 (64000)
I0503 06:21:43.281268 18623 net.cpp:159] Memory required for data: 3208080
I0503 06:21:43.281271 18623 layer_factory.hpp:77] Creating layer conv5
I0503 06:21:43.281280 18623 net.cpp:94] Creating Layer conv5
I0503 06:21:43.281282 18623 net.cpp:435] conv5 <- conv4
I0503 06:21:43.281287 18623 net.cpp:409] conv5 -> conv5
I0503 06:21:43.296883 18623 net.cpp:144] Setting up conv5
I0503 06:21:43.296902 18623 net.cpp:151] Top shape: 20 128 5 5 (64000)
I0503 06:21:43.296906 18623 net.cpp:159] Memory required for data: 3464080
I0503 06:21:43.296916 18623 layer_factory.hpp:77] Creating layer relu5
I0503 06:21:43.296923 18623 net.cpp:94] Creating Layer relu5
I0503 06:21:43.296927 18623 net.cpp:435] relu5 <- conv5
I0503 06:21:43.296931 18623 net.cpp:396] relu5 -> conv5 (in-place)
I0503 06:21:43.296939 18623 net.cpp:144] Setting up relu5
I0503 06:21:43.296943 18623 net.cpp:151] Top shape: 20 128 5 5 (64000)
I0503 06:21:43.296947 18623 net.cpp:159] Memory required for data: 3720080
I0503 06:21:43.296949 18623 layer_factory.hpp:77] Creating layer pool5
I0503 06:21:43.296954 18623 net.cpp:94] Creating Layer pool5
I0503 06:21:43.296957 18623 net.cpp:435] pool5 <- conv5
I0503 06:21:43.296962 18623 net.cpp:409] pool5 -> pool5
I0503 06:21:43.297001 18623 net.cpp:144] Setting up pool5
I0503 06:21:43.297009 18623 net.cpp:151] Top shape: 20 128 2 2 (10240)
I0503 06:21:43.297011 18623 net.cpp:159] Memory required for data: 3761040
I0503 06:21:43.297015 18623 layer_factory.hpp:77] Creating layer ip1
I0503 06:21:43.297021 18623 net.cpp:94] Creating Layer ip1
I0503 06:21:43.297024 18623 net.cpp:435] ip1 <- pool5
I0503 06:21:43.297029 18623 net.cpp:409] ip1 -> ip1
I0503 06:21:43.310235 18623 net.cpp:144] Setting up ip1
I0503 06:21:43.310253 18623 net.cpp:151] Top shape: 20 1024 (20480)
I0503 06:21:43.310256 18623 net.cpp:159] Memory required for data: 3842960
I0503 06:21:43.310263 18623 layer_factory.hpp:77] Creating layer ip2
I0503 06:21:43.310273 18623 net.cpp:94] Creating Layer ip2
I0503 06:21:43.310277 18623 net.cpp:435] ip2 <- ip1
I0503 06:21:43.310282 18623 net.cpp:409] ip2 -> ip2
I0503 06:21:43.323405 18623 net.cpp:144] Setting up ip2
I0503 06:21:43.323422 18623 net.cpp:151] Top shape: 20 512 (10240)
I0503 06:21:43.323426 18623 net.cpp:159] Memory required for data: 3883920
I0503 06:21:43.323432 18623 layer_factory.hpp:77] Creating layer ip3
I0503 06:21:43.323441 18623 net.cpp:94] Creating Layer ip3
I0503 06:21:43.323444 18623 net.cpp:435] ip3 <- ip2
I0503 06:21:43.323449 18623 net.cpp:409] ip3 -> ip3
I0503 06:21:43.324189 18623 net.cpp:144] Setting up ip3
I0503 06:21:43.324198 18623 net.cpp:151] Top shape: 20 50 (1000)
I0503 06:21:43.324208 18623 net.cpp:159] Memory required for data: 3887920
I0503 06:21:43.324213 18623 layer_factory.hpp:77] Creating layer loss
I0503 06:21:43.324221 18623 net.cpp:94] Creating Layer loss
I0503 06:21:43.324224 18623 net.cpp:435] loss <- ip3
I0503 06:21:43.324228 18623 net.cpp:435] loss <- label
I0503 06:21:43.324234 18623 net.cpp:409] loss -> loss
I0503 06:21:43.324240 18623 layer_factory.hpp:77] Creating layer loss
…
I0503 06:21:43.324779 18623 solver.cpp:181] Creating test net (#0) specified by net file: ./protocol/dis_5_100_dimension.protocol_distribution
I0503 06:21:43.324806 18623 net.cpp:323] The NetState phase (1) differed from the phase (0) specified by a rule in layer parameters
I0503 06:21:43.324919 18623 net.cpp:52] Initializing net from parameters: 
state {
  phase: TEST
}
layer {
  name: "intercept"
  type: "HDF5Data"
  top: "data"
  top: "label"
  include {
    phase: TEST
  }
  hdf5_data_param {
    source: "/home/purduethu/scratch/radon/d/deng106/CNNStatisticalModel/distributions/input/5_distributions_100_sample_size_test-distributions-path.txt"
    batch_size: 20
  }
}
layer {
  name: "conv1"
  type: "Convolution"
  bottom: "data"
  top: "conv1"
  param {
    lr_mult: 1
  }
  param {
    lr_mult: 2
  }
  convolution_param {
    num_output: 64
    pad: 2
    kernel_size: 5
    stride: 1
    weight_filler {
      type: "gaussian"
      std: 0.0001
    }
    bias_filler {
      type: "constant"
    }
  }
}
layer {
  name: "relu1"
  type: "ReLU"
  bottom: "conv1"
  top: "conv1"
}
layer {
  name: "conv2"
  type: "Convolution"
  bottom: "conv1"
  top: "conv2"
  param {
    lr_mult: 1
  }
  param {
    lr_mult: 2
  }
  convolution_param {
    num_output: 64
    pad: 2
    kernel_size: 5
    stride: 1
    weight_filler {
      type: "gaussian"
      std: 0.01
    }
    bias_filler {
      type: "constant"
    }
  }
}
layer {
  name: "relu2"
  type: "ReLU"
  bottom: "conv2"
  top: "conv2"
}
layer {
  name: "pool2"
  type: "Pooling"
  bottom: "conv2"
  top: "pool2"
  pooling_param {
    pool: MAX
    kernel_size: 3
    stride: 2
  }
}
layer {
  name: "conv3"
  type: "Convolution"
  bottom: "pool2"
  top: "conv3"
  param {
    lr_mult: 1
  }
  param {
    lr_mult: 2
  }
  convolution_param {
    num_output: 128
    pad: 2
    kernel_size: 5
    stride: 1
    weight_filler {
      type: "gaussian"
      std: 0.01
    }
    bias_filler {
      type: "constant"
    }
  }
}
layer {
  name: "relu3"
  type: "ReLU"
  bottom: "conv3"
  top: "conv3"
}
layer {
  name: "conv4"
  type: "Convolution"
  bottom: "conv3"
  top: "conv4"
  param {
    lr_mult: 1
  }
  param {
    lr_mult: 2
  }
  convolution_param {
    num_output: 128
    pad: 2
    kernel_size: 5
    stride: 1
    weight_filler {
      type: "gaussian"
      std: 0.01
    }
    bias_filler {
      type: "constant"
    }
  }
}
layer {
  name: "relu4"
  type: "ReLU"
  bottom: "conv4"
  top: "conv4"
}
layer {
  name: "conv5"
  type: "Convolution"
  bottom: "conv4"
  top: "conv5"
  param {
    lr_mult: 1
  }
  param {
    lr_mult: 2
  }
  convolution_param {
    num_output: 128
    pad: 2
    kernel_size: 5
    stride: 1
    weight_filler {
      type: "gaussian"
      std: 0.01
    }
    bias_filler {
      type: "constant"
    }
  }
}
layer {
  name: "relu5"
  type: "ReLU"
  bottom: "conv5"
  top: "conv5"
}
layer {
  name: "pool5"
  type: "Pooling"
  bottom: "conv5"
  top: "pool5"
  pooling_param {
    pool: AVE
    kernel_size: 3
    stride: 2
  }
}
layer {
  name: "ip1"
  type: "InnerProduct"
  bottom: "pool5"
  top: "ip1"
  param {
    lr_mult: 1
  }
  param {
    lr_mult: 2
  }
  inner_product_param {
    num_output: 1024
    weight_filler {
      type: "gaussian"
      std: 0.1
    }
    bias_filler {
      type: "constant"
    }
  }
}
layer {
  name: "ip2"
  type: "InnerProduct"
  bottom: "ip1"
  top: "ip2"
  param {
    lr_mult: 1
  }
  param {
    lr_mult: 2
  }
  inner_product_param {
    num_output: 512
    weight_filler {
      type: "gaussian"
      std: 0.1
    }
    bias_filler {
      type: "constant"
    }
  }
}
layer {
  name: "ip3"
  type: "InnerProduct"
  bottom: "ip2"
  top: "ip3"
  param {
    lr_mult: 1
  }
  param {
    lr_mult: 2
  }
  inner_product_param {
    num_output: 50
    weight_filler {
      type: "gaussian"
      std: 0.1
    }
    bias_filler {
      type: "constant"
    }
  }
}
layer {
  name: "accuracy"
  type: "Accuracy"
  bottom: "ip3"
  bottom: "label"
  top: "accuracy"
  include {
    phase: TEST
  }
}
layer {
  name: "loss"
  type: "SoftmaxWithLoss"
  bottom: "ip3"
  bottom: "label"
  top: "loss"
}
I0503 06:21:43.324992 18623 layer_factory.hpp:77] Creating layer intercept
I0503 06:21:43.325001 18623 net.cpp:94] Creating Layer intercept
I0503 06:21:43.325004 18623 net.cpp:409] intercept -> data
I0503 06:21:43.325011 18623 net.cpp:409] intercept -> label
I0503 06:21:43.325016 18623 hdf5_data_layer.cpp:79] Loading list of HDF5 filenames from: /home/purduethu/scratch/radon/d/deng106/CNNStatisticalModel/distributions/input/5_distributions_100_sample_size_test-distributions-path.txt
I0503 06:21:43.325037 18623 hdf5_data_layer.cpp:93] Number of HDF5 files: 1
I0503 06:21:43.329766 18623 net.cpp:144] Setting up intercept
I0503 06:21:43.329797 18623 net.cpp:151] Top shape: 20 1 10 10 (2000)
I0503 06:21:43.329802 18623 net.cpp:151] Top shape: 20 (20)
I0503 06:21:43.329805 18623 net.cpp:159] Memory required for data: 8080
I0503 06:21:43.329812 18623 layer_factory.hpp:77] Creating layer label_intercept_1_split
I0503 06:21:43.329828 18623 net.cpp:94] Creating Layer label_intercept_1_split
I0503 06:21:43.329833 18623 net.cpp:435] label_intercept_1_split <- label
I0503 06:21:43.329838 18623 net.cpp:409] label_intercept_1_split -> label_intercept_1_split_0
I0503 06:21:43.329845 18623 net.cpp:409] label_intercept_1_split -> label_intercept_1_split_1
I0503 06:21:43.329885 18623 net.cpp:144] Setting up label_intercept_1_split
I0503 06:21:43.329891 18623 net.cpp:151] Top shape: 20 (20)
I0503 06:21:43.329895 18623 net.cpp:151] Top shape: 20 (20)
I0503 06:21:43.329897 18623 net.cpp:159] Memory required for data: 8240
I0503 06:21:43.329900 18623 layer_factory.hpp:77] Creating layer conv1
I0503 06:21:43.329910 18623 net.cpp:94] Creating Layer conv1
I0503 06:21:43.329915 18623 net.cpp:435] conv1 <- data
I0503 06:21:43.329918 18623 net.cpp:409] conv1 -> conv1
I0503 06:21:43.330732 18623 net.cpp:144] Setting up conv1
I0503 06:21:43.330745 18623 net.cpp:151] Top shape: 20 64 10 10 (128000)
I0503 06:21:43.330754 18623 net.cpp:159] Memory required for data: 520240
I0503 06:21:43.330765 18623 layer_factory.hpp:77] Creating layer relu1
I0503 06:21:43.330771 18623 net.cpp:94] Creating Layer relu1
I0503 06:21:43.330775 18623 net.cpp:435] relu1 <- conv1
I0503 06:21:43.330778 18623 net.cpp:396] relu1 -> conv1 (in-place)
I0503 06:21:43.330785 18623 net.cpp:144] Setting up relu1
I0503 06:21:43.330790 18623 net.cpp:151] Top shape: 20 64 10 10 (128000)
I0503 06:21:43.330792 18623 net.cpp:159] Memory required for data: 1032240
I0503 06:21:43.330796 18623 layer_factory.hpp:77] Creating layer conv2
I0503 06:21:43.330803 18623 net.cpp:94] Creating Layer conv2
I0503 06:21:43.330806 18623 net.cpp:435] conv2 <- conv1
I0503 06:21:43.330811 18623 net.cpp:409] conv2 -> conv2
I0503 06:21:43.334904 18623 net.cpp:144] Setting up conv2
I0503 06:21:43.334918 18623 net.cpp:151] Top shape: 20 64 10 10 (128000)
I0503 06:21:43.334923 18623 net.cpp:159] Memory required for data: 1544240
I0503 06:21:43.334930 18623 layer_factory.hpp:77] Creating layer relu2
I0503 06:21:43.334936 18623 net.cpp:94] Creating Layer relu2
I0503 06:21:43.334939 18623 net.cpp:435] relu2 <- conv2
I0503 06:21:43.334944 18623 net.cpp:396] relu2 -> conv2 (in-place)
I0503 06:21:43.334950 18623 net.cpp:144] Setting up relu2
I0503 06:21:43.334955 18623 net.cpp:151] Top shape: 20 64 10 10 (128000)
I0503 06:21:43.334959 18623 net.cpp:159] Memory required for data: 2056240
I0503 06:21:43.334960 18623 layer_factory.hpp:77] Creating layer pool2
I0503 06:21:43.334966 18623 net.cpp:94] Creating Layer pool2
I0503 06:21:43.334969 18623 net.cpp:435] pool2 <- conv2
I0503 06:21:43.334974 18623 net.cpp:409] pool2 -> pool2
I0503 06:21:43.335026 18623 net.cpp:144] Setting up pool2
I0503 06:21:43.335033 18623 net.cpp:151] Top shape: 20 64 5 5 (32000)
I0503 06:21:43.335036 18623 net.cpp:159] Memory required for data: 2184240
I0503 06:21:43.335039 18623 layer_factory.hpp:77] Creating layer conv3
I0503 06:21:43.335047 18623 net.cpp:94] Creating Layer conv3
I0503 06:21:43.335050 18623 net.cpp:435] conv3 <- pool2
I0503 06:21:43.335054 18623 net.cpp:409] conv3 -> conv3
I0503 06:21:43.341081 18623 net.cpp:144] Setting up conv3
I0503 06:21:43.341094 18623 net.cpp:151] Top shape: 20 128 5 5 (64000)
I0503 06:21:43.341099 18623 net.cpp:159] Memory required for data: 2440240
I0503 06:21:43.341106 18623 layer_factory.hpp:77] Creating layer relu3
I0503 06:21:43.341112 18623 net.cpp:94] Creating Layer relu3
I0503 06:21:43.341116 18623 net.cpp:435] relu3 <- conv3
I0503 06:21:43.341120 18623 net.cpp:396] relu3 -> conv3 (in-place)
I0503 06:21:43.341127 18623 net.cpp:144] Setting up relu3
I0503 06:21:43.341131 18623 net.cpp:151] Top shape: 20 128 5 5 (64000)
I0503 06:21:43.341135 18623 net.cpp:159] Memory required for data: 2696240
I0503 06:21:43.341136 18623 layer_factory.hpp:77] Creating layer conv4
I0503 06:21:43.341145 18623 net.cpp:94] Creating Layer conv4
I0503 06:21:43.341147 18623 net.cpp:435] conv4 <- conv3
I0503 06:21:43.341151 18623 net.cpp:409] conv4 -> conv4
I0503 06:21:43.353802 18623 net.cpp:144] Setting up conv4
I0503 06:21:43.353819 18623 net.cpp:151] Top shape: 20 128 5 5 (64000)
I0503 06:21:43.353823 18623 net.cpp:159] Memory required for data: 2952240
I0503 06:21:43.353829 18623 layer_factory.hpp:77] Creating layer relu4
I0503 06:21:43.353835 18623 net.cpp:94] Creating Layer relu4
I0503 06:21:43.353839 18623 net.cpp:435] relu4 <- conv4
I0503 06:21:43.353843 18623 net.cpp:396] relu4 -> conv4 (in-place)
I0503 06:21:43.353850 18623 net.cpp:144] Setting up relu4
I0503 06:21:43.353854 18623 net.cpp:151] Top shape: 20 128 5 5 (64000)
I0503 06:21:43.353857 18623 net.cpp:159] Memory required for data: 3208240
I0503 06:21:43.353860 18623 layer_factory.hpp:77] Creating layer conv5
I0503 06:21:43.353868 18623 net.cpp:94] Creating Layer conv5
I0503 06:21:43.353871 18623 net.cpp:435] conv5 <- conv4
I0503 06:21:43.353876 18623 net.cpp:409] conv5 -> conv5
I0503 06:21:43.366585 18623 net.cpp:144] Setting up conv5
I0503 06:21:43.366622 18623 net.cpp:151] Top shape: 20 128 5 5 (64000)
I0503 06:21:43.366644 18623 net.cpp:159] Memory required for data: 3464240
I0503 06:21:43.366670 18623 layer_factory.hpp:77] Creating layer relu5
I0503 06:21:43.366686 18623 net.cpp:94] Creating Layer relu5
I0503 06:21:43.366696 18623 net.cpp:435] relu5 <- conv5
I0503 06:21:43.366719 18623 net.cpp:396] relu5 -> conv5 (in-place)
I0503 06:21:43.366727 18623 net.cpp:144] Setting up relu5
I0503 06:21:43.366731 18623 net.cpp:151] Top shape: 20 128 5 5 (64000)
I0503 06:21:43.366734 18623 net.cpp:159] Memory required for data: 3720240
I0503 06:21:43.366737 18623 layer_factory.hpp:77] Creating layer pool5
I0503 06:21:43.366742 18623 net.cpp:94] Creating Layer pool5
I0503 06:21:43.366745 18623 net.cpp:435] pool5 <- conv5
I0503 06:21:43.366750 18623 net.cpp:409] pool5 -> pool5
I0503 06:21:43.366789 18623 net.cpp:144] Setting up pool5
I0503 06:21:43.366796 18623 net.cpp:151] Top shape: 20 128 2 2 (10240)
I0503 06:21:43.366799 18623 net.cpp:159] Memory required for data: 3761200
I0503 06:21:43.366802 18623 layer_factory.hpp:77] Creating layer ip1
I0503 06:21:43.366809 18623 net.cpp:94] Creating Layer ip1
I0503 06:21:43.366813 18623 net.cpp:435] ip1 <- pool5
I0503 06:21:43.366817 18623 net.cpp:409] ip1 -> ip1
I0503 06:21:43.379981 18623 net.cpp:144] Setting up ip1
I0503 06:21:43.379997 18623 net.cpp:151] Top shape: 20 1024 (20480)
I0503 06:21:43.380002 18623 net.cpp:159] Memory required for data: 3843120
I0503 06:21:43.380008 18623 layer_factory.hpp:77] Creating layer ip2
I0503 06:21:43.380017 18623 net.cpp:94] Creating Layer ip2
I0503 06:21:43.380020 18623 net.cpp:435] ip2 <- ip1
I0503 06:21:43.380025 18623 net.cpp:409] ip2 -> ip2
I0503 06:21:43.393175 18623 net.cpp:144] Setting up ip2
I0503 06:21:43.393193 18623 net.cpp:151] Top shape: 20 512 (10240)
I0503 06:21:43.393196 18623 net.cpp:159] Memory required for data: 3884080
I0503 06:21:43.393203 18623 layer_factory.hpp:77] Creating layer ip3
I0503 06:21:43.393213 18623 net.cpp:94] Creating Layer ip3
I0503 06:21:43.393216 18623 net.cpp:435] ip3 <- ip2
I0503 06:21:43.393223 18623 net.cpp:409] ip3 -> ip3
I0503 06:21:43.393955 18623 net.cpp:144] Setting up ip3
I0503 06:21:43.393963 18623 net.cpp:151] Top shape: 20 50 (1000)
I0503 06:21:43.393966 18623 net.cpp:159] Memory required for data: 3888080
I0503 06:21:43.393971 18623 layer_factory.hpp:77] Creating layer ip3_ip3_0_split
I0503 06:21:43.393976 18623 net.cpp:94] Creating Layer ip3_ip3_0_split
I0503 06:21:43.393980 18623 net.cpp:435] ip3_ip3_0_split <- ip3
I0503 06:21:43.393985 18623 net.cpp:409] ip3_ip3_0_split -> ip3_ip3_0_split_0
I0503 06:21:43.393990 18623 net.cpp:409] ip3_ip3_0_split -> ip3_ip3_0_split_1
I0503 06:21:43.394031 18623 net.cpp:144] Setting up ip3_ip3_0_split
I0503 06:21:43.394037 18623 net.cpp:151] Top shape: 20 50 (1000)
I0503 06:21:43.394040 18623 net.cpp:151] Top shape: 20 50 (1000)
I0503 06:21:43.394042 18623 net.cpp:159] Memory required for data: 3896080
I0503 06:21:43.394045 18623 layer_factory.hpp:77] Creating layer accuracy
I0503 06:21:43.394052 18623 net.cpp:94] Creating Layer accuracy
I0503 06:21:43.394054 18623 net.cpp:435] accuracy <- ip3_ip3_0_split_0
I0503 06:21:43.394058 18623 net.cpp:435] accuracy <- label_intercept_1_split_0
I0503 06:21:43.394062 18623 net.cpp:409] accuracy -> accuracy
…
