…
I0505 23:01:23.444190 10339 net.cpp:323] The NetState phase (0) differed from the phase (1) specified by a rule in layer intercept
I0505 23:01:23.444203 10339 net.cpp:323] The NetState phase (0) differed from the phase (1) specified by a rule in layer loss
I0505 23:01:23.444268 10339 net.cpp:52] Initializing net from parameters: 
state {
  phase: TRAIN
}
layer {
  name: "parameters"
  type: "HDF5Data"
  top: "data"
  top: "label"
  include {
    phase: TRAIN
  }
  hdf5_data_param {
    source: "/home/purduethu/scratch/radon/d/deng106/CNNStatisticalModel/distributions/input/20_distributions_400_sample_size_train-parameters-path.txt"
    batch_size: 20
  }
}
layer {
  name: "conv1"
  type: "Convolution"
  bottom: "data"
  top: "conv1"
  param {
    lr_mult: 1
  }
  param {
    lr_mult: 2
  }
  convolution_param {
    num_output: 64
    pad: 2
    kernel_size: 5
    stride: 1
    weight_filler {
      type: "gaussian"
      std: 0.0001
    }
    bias_filler {
      type: "constant"
    }
  }
}
layer {
  name: "relu1"
  type: "ReLU"
  bottom: "conv1"
  top: "conv1"
}
layer {
  name: "pool1"
  type: "Pooling"
  bottom: "conv1"
  top: "pool1"
  pooling_param {
    pool: MAX
    kernel_size: 3
    stride: 2
  }
}
layer {
  name: "conv2"
  type: "Convolution"
  bottom: "pool1"
  top: "conv2"
  param {
    lr_mult: 1
  }
  param {
    lr_mult: 2
  }
  convolution_param {
    num_output: 128
    pad: 2
    kernel_size: 5
    stride: 1
    weight_filler {
      type: "gaussian"
      std: 0.01
    }
    bias_filler {
      type: "constant"
    }
  }
}
layer {
  name: "relu2"
  type: "ReLU"
  bottom: "conv2"
  top: "conv2"
}
layer {
  name: "conv3"
  type: "Convolution"
  bottom: "conv2"
  top: "conv3"
  param {
    lr_mult: 1
  }
  param {
    lr_mult: 2
  }
  convolution_param {
    num_output: 128
    pad: 2
    kernel_size: 5
    stride: 1
    weight_filler {
      type: "gaussian"
      std: 0.01
    }
    bias_filler {
      type: "constant"
    }
  }
}
layer {
  name: "relu3"
  type: "ReLU"
  bottom: "conv3"
  top: "conv3"
}
layer {
  name: "pool3"
  type: "Pooling"
  bottom: "conv3"
  top: "pool3"
  pooling_param {
    pool: AVE
    kernel_size: 3
    stride: 2
  }
}
layer {
  name: "ip1"
  type: "InnerProduct"
  bottom: "pool3"
  top: "ip1"
  param {
    lr_mult: 1
  }
  param {
    lr_mult: 2
  }
  inner_product_param {
    num_output: 512
    weight_filler {
      type: "gaussian"
      std: 0.1
    }
    bias_filler {
      type: "constant"
    }
  }
}
layer {
  name: "ip2"
  type: "InnerProduct"
  bottom: "ip1"
  top: "ip2"
  param {
    lr_mult: 1
  }
  param {
    lr_mult: 2
  }
  inner_product_param {
    num_output: 256
    weight_filler {
      type: "gaussian"
      std: 0.1
    }
    bias_filler {
      type: "constant"
    }
  }
}
layer {
  name: "ip3"
  type: "InnerProduct"
  bottom: "ip2"
  top: "ip3"
  param {
    lr_mult: 1
  }
  param {
    lr_mult: 2
  }
  inner_product_param {
    num_output: 1
    weight_filler {
      type: "gaussian"
      std: 0.1
    }
    bias_filler {
      type: "constant"
    }
  }
}
layer {
  name: "loss"
  type: "HuberLoss"
  bottom: "ip3"
  bottom: "label"
  top: "loss"
  include {
    phase: TRAIN
  }
}
I0505 23:01:23.444314 10339 layer_factory.hpp:77] Creating layer parameters
I0505 23:01:23.444330 10339 net.cpp:94] Creating Layer parameters
I0505 23:01:23.444335 10339 net.cpp:409] parameters -> data
I0505 23:01:23.444344 10339 net.cpp:409] parameters -> label
I0505 23:01:23.444350 10339 hdf5_data_layer.cpp:79] Loading list of HDF5 filenames from: /home/purduethu/scratch/radon/d/deng106/CNNStatisticalModel/distributions/input/20_distributions_400_sample_size_train-parameters-path.txt
I0505 23:01:23.444365 10339 hdf5_data_layer.cpp:93] Number of HDF5 files: 1
I0505 23:01:23.444939 10339 hdf5.cpp:32] Datatype class: H5T_FLOAT
I0505 23:01:23.705384 10339 net.cpp:144] Setting up parameters
I0505 23:01:23.705415 10339 net.cpp:151] Top shape: 20 1 20 20 (8000)
I0505 23:01:23.705420 10339 net.cpp:151] Top shape: 20 (20)
I0505 23:01:23.705423 10339 net.cpp:159] Memory required for data: 32080
I0505 23:01:23.705430 10339 layer_factory.hpp:77] Creating layer conv1
I0505 23:01:23.705451 10339 net.cpp:94] Creating Layer conv1
I0505 23:01:23.705454 10339 net.cpp:435] conv1 <- data
I0505 23:01:23.705461 10339 net.cpp:409] conv1 -> conv1
I0505 23:01:23.710758 10339 net.cpp:144] Setting up conv1
I0505 23:01:23.710775 10339 net.cpp:151] Top shape: 20 64 20 20 (512000)
I0505 23:01:23.710779 10339 net.cpp:159] Memory required for data: 2080080
I0505 23:01:23.710789 10339 layer_factory.hpp:77] Creating layer relu1
I0505 23:01:23.710798 10339 net.cpp:94] Creating Layer relu1
I0505 23:01:23.710800 10339 net.cpp:435] relu1 <- conv1
I0505 23:01:23.710805 10339 net.cpp:396] relu1 -> conv1 (in-place)
I0505 23:01:23.710816 10339 net.cpp:144] Setting up relu1
I0505 23:01:23.710820 10339 net.cpp:151] Top shape: 20 64 20 20 (512000)
I0505 23:01:23.710824 10339 net.cpp:159] Memory required for data: 4128080
I0505 23:01:23.710826 10339 layer_factory.hpp:77] Creating layer pool1
I0505 23:01:23.710832 10339 net.cpp:94] Creating Layer pool1
I0505 23:01:23.710835 10339 net.cpp:435] pool1 <- conv1
I0505 23:01:23.710839 10339 net.cpp:409] pool1 -> pool1
I0505 23:01:23.710888 10339 net.cpp:144] Setting up pool1
I0505 23:01:23.710894 10339 net.cpp:151] Top shape: 20 64 10 10 (128000)
I0505 23:01:23.710897 10339 net.cpp:159] Memory required for data: 4640080
I0505 23:01:23.710901 10339 layer_factory.hpp:77] Creating layer conv2
I0505 23:01:23.710909 10339 net.cpp:94] Creating Layer conv2
I0505 23:01:23.710913 10339 net.cpp:435] conv2 <- pool1
I0505 23:01:23.710917 10339 net.cpp:409] conv2 -> conv2
I0505 23:01:23.720641 10339 net.cpp:144] Setting up conv2
I0505 23:01:23.720657 10339 net.cpp:151] Top shape: 20 128 10 10 (256000)
I0505 23:01:23.720661 10339 net.cpp:159] Memory required for data: 5664080
I0505 23:01:23.720669 10339 layer_factory.hpp:77] Creating layer relu2
I0505 23:01:23.720675 10339 net.cpp:94] Creating Layer relu2
I0505 23:01:23.720679 10339 net.cpp:435] relu2 <- conv2
I0505 23:01:23.720684 10339 net.cpp:396] relu2 -> conv2 (in-place)
I0505 23:01:23.720690 10339 net.cpp:144] Setting up relu2
I0505 23:01:23.720695 10339 net.cpp:151] Top shape: 20 128 10 10 (256000)
I0505 23:01:23.720697 10339 net.cpp:159] Memory required for data: 6688080
I0505 23:01:23.720700 10339 layer_factory.hpp:77] Creating layer conv3
I0505 23:01:23.720707 10339 net.cpp:94] Creating Layer conv3
I0505 23:01:23.720710 10339 net.cpp:435] conv3 <- conv2
I0505 23:01:23.720715 10339 net.cpp:409] conv3 -> conv3
I0505 23:01:23.738298 10339 net.cpp:144] Setting up conv3
I0505 23:01:23.738313 10339 net.cpp:151] Top shape: 20 128 10 10 (256000)
I0505 23:01:23.738317 10339 net.cpp:159] Memory required for data: 7712080
I0505 23:01:23.738327 10339 layer_factory.hpp:77] Creating layer relu3
I0505 23:01:23.738339 10339 net.cpp:94] Creating Layer relu3
I0505 23:01:23.738343 10339 net.cpp:435] relu3 <- conv3
I0505 23:01:23.738348 10339 net.cpp:396] relu3 -> conv3 (in-place)
I0505 23:01:23.738355 10339 net.cpp:144] Setting up relu3
I0505 23:01:23.738359 10339 net.cpp:151] Top shape: 20 128 10 10 (256000)
I0505 23:01:23.738363 10339 net.cpp:159] Memory required for data: 8736080
I0505 23:01:23.738365 10339 layer_factory.hpp:77] Creating layer pool3
I0505 23:01:23.738371 10339 net.cpp:94] Creating Layer pool3
I0505 23:01:23.738374 10339 net.cpp:435] pool3 <- conv3
I0505 23:01:23.738379 10339 net.cpp:409] pool3 -> pool3
I0505 23:01:23.738418 10339 net.cpp:144] Setting up pool3
I0505 23:01:23.738425 10339 net.cpp:151] Top shape: 20 128 5 5 (64000)
I0505 23:01:23.738428 10339 net.cpp:159] Memory required for data: 8992080
I0505 23:01:23.738431 10339 layer_factory.hpp:77] Creating layer ip1
I0505 23:01:23.738441 10339 net.cpp:94] Creating Layer ip1
I0505 23:01:23.738445 10339 net.cpp:435] ip1 <- pool3
I0505 23:01:23.738450 10339 net.cpp:409] ip1 -> ip1
I0505 23:01:23.778293 10339 net.cpp:144] Setting up ip1
I0505 23:01:23.778316 10339 net.cpp:151] Top shape: 20 512 (10240)
I0505 23:01:23.778321 10339 net.cpp:159] Memory required for data: 9033040
I0505 23:01:23.778327 10339 layer_factory.hpp:77] Creating layer ip2
I0505 23:01:23.778336 10339 net.cpp:94] Creating Layer ip2
I0505 23:01:23.778339 10339 net.cpp:435] ip2 <- ip1
I0505 23:01:23.778344 10339 net.cpp:409] ip2 -> ip2
I0505 23:01:23.781491 10339 net.cpp:144] Setting up ip2
I0505 23:01:23.781502 10339 net.cpp:151] Top shape: 20 256 (5120)
I0505 23:01:23.781505 10339 net.cpp:159] Memory required for data: 9053520
I0505 23:01:23.781512 10339 layer_factory.hpp:77] Creating layer ip3
I0505 23:01:23.781519 10339 net.cpp:94] Creating Layer ip3
I0505 23:01:23.781522 10339 net.cpp:435] ip3 <- ip2
I0505 23:01:23.781527 10339 net.cpp:409] ip3 -> ip3
I0505 23:01:23.781625 10339 net.cpp:144] Setting up ip3
I0505 23:01:23.781631 10339 net.cpp:151] Top shape: 20 1 (20)
I0505 23:01:23.781635 10339 net.cpp:159] Memory required for data: 9053600
I0505 23:01:23.781638 10339 layer_factory.hpp:77] Creating layer loss
I0505 23:01:23.781644 10339 net.cpp:94] Creating Layer loss
I0505 23:01:23.781647 10339 net.cpp:435] loss <- ip3
I0505 23:01:23.781651 10339 net.cpp:435] loss <- label
I0505 23:01:23.781654 10339 net.cpp:409] loss -> loss
I0505 23:01:23.781702 10339 net.cpp:144] Setting up loss
…
I0505 23:01:23.914818 10339 net.cpp:323] The NetState phase (0) differed from the phase (1) specified by a rule in layer intercept
I0505 23:01:23.914829 10339 net.cpp:323] The NetState phase (0) differed from the phase (1) specified by a rule in layer accuracy
I0505 23:01:23.914896 10339 net.cpp:52] Initializing net from parameters: 
state {
  phase: TRAIN
}
layer {
  name: "parameters"
  type: "HDF5Data"
  top: "data"
  top: "label"
  include {
    phase: TRAIN
  }
  hdf5_data_param {
    source: "/home/purduethu/scratch/radon/d/deng106/CNNStatisticalModel/distributions/input/20_distributions_400_sample_size_train-distributions-path.txt"
    batch_size: 20
  }
}
layer {
  name: "conv1"
  type: "Convolution"
  bottom: "data"
  top: "conv1"
  param {
    lr_mult: 1
  }
  param {
    lr_mult: 2
  }
  convolution_param {
    num_output: 64
    pad: 2
    kernel_size: 5
    stride: 1
    weight_filler {
      type: "gaussian"
      std: 0.0001
    }
    bias_filler {
      type: "constant"
    }
  }
}
layer {
  name: "relu1"
  type: "ReLU"
  bottom: "conv1"
  top: "conv1"
}
layer {
  name: "pool1"
  type: "Pooling"
  bottom: "conv1"
  top: "pool1"
  pooling_param {
    pool: MAX
    kernel_size: 3
    stride: 2
  }
}
layer {
  name: "conv2"
  type: "Convolution"
  bottom: "pool1"
  top: "conv2"
  param {
    lr_mult: 1
  }
  param {
    lr_mult: 2
  }
  convolution_param {
    num_output: 128
    pad: 2
    kernel_size: 5
    stride: 1
    weight_filler {
      type: "gaussian"
      std: 0.01
    }
    bias_filler {
      type: "constant"
    }
  }
}
layer {
  name: "relu2"
  type: "ReLU"
  bottom: "conv2"
  top: "conv2"
}
layer {
  name: "conv3"
  type: "Convolution"
  bottom: "conv2"
  top: "conv3"
  param {
    lr_mult: 1
  }
  param {
    lr_mult: 2
  }
  convolution_param {
    num_output: 128
    pad: 2
    kernel_size: 5
    stride: 1
    weight_filler {
      type: "gaussian"
      std: 0.01
    }
    bias_filler {
      type: "constant"
    }
  }
}
layer {
  name: "relu3"
  type: "ReLU"
  bottom: "conv3"
  top: "conv3"
}
layer {
  name: "pool3"
  type: "Pooling"
  bottom: "conv3"
  top: "pool3"
  pooling_param {
    pool: AVE
    kernel_size: 3
    stride: 2
  }
}
layer {
  name: "ip1"
  type: "InnerProduct"
  bottom: "pool3"
  top: "ip1"
  param {
    lr_mult: 1
  }
  param {
    lr_mult: 2
  }
  inner_product_param {
    num_output: 512
    weight_filler {
      type: "gaussian"
      std: 0.1
    }
    bias_filler {
      type: "constant"
    }
  }
}
layer {
  name: "ip2"
  type: "InnerProduct"
  bottom: "ip1"
  top: "ip2"
  param {
    lr_mult: 1
  }
  param {
    lr_mult: 2
  }
  inner_product_param {
    num_output: 256
    weight_filler {
      type: "gaussian"
      std: 0.1
    }
    bias_filler {
      type: "constant"
    }
  }
}
layer {
  name: "ip3"
  type: "InnerProduct"
  bottom: "ip2"
  top: "ip3"
  param {
    lr_mult: 1
  }
  param {
    lr_mult: 2
  }
  inner_product_param {
    num_output: 50
    weight_filler {
      type: "gaussian"
      std: 0.1
    }
    bias_filler {
      type: "constant"
    }
  }
}
layer {
  name: "loss"
  type: "SoftmaxWithLoss"
  bottom: "ip3"
  bottom: "label"
  top: "loss"
}
I0505 23:01:23.914938 10339 layer_factory.hpp:77] Creating layer parameters
I0505 23:01:23.914945 10339 net.cpp:94] Creating Layer parameters
I0505 23:01:23.914949 10339 net.cpp:409] parameters -> data
I0505 23:01:23.914955 10339 net.cpp:409] parameters -> label
I0505 23:01:23.914961 10339 hdf5_data_layer.cpp:79] Loading list of HDF5 filenames from: /home/purduethu/scratch/radon/d/deng106/CNNStatisticalModel/distributions/input/20_distributions_400_sample_size_train-distributions-path.txt
I0505 23:01:23.914975 10339 hdf5_data_layer.cpp:93] Number of HDF5 files: 1
I0505 23:01:24.168992 10339 hdf5.cpp:35] Datatype class: H5T_INTEGER
I0505 23:01:24.170166 10339 net.cpp:144] Setting up parameters
I0505 23:01:24.170181 10339 net.cpp:151] Top shape: 20 1 20 20 (8000)
I0505 23:01:24.170186 10339 net.cpp:151] Top shape: 20 (20)
I0505 23:01:24.170189 10339 net.cpp:159] Memory required for data: 32080
I0505 23:01:24.170195 10339 layer_factory.hpp:77] Creating layer conv1
I0505 23:01:24.170212 10339 net.cpp:94] Creating Layer conv1
I0505 23:01:24.170217 10339 net.cpp:435] conv1 <- data
I0505 23:01:24.170222 10339 net.cpp:409] conv1 -> conv1
I0505 23:01:24.172500 10339 net.cpp:144] Setting up conv1
I0505 23:01:24.172513 10339 net.cpp:151] Top shape: 20 64 20 20 (512000)
I0505 23:01:24.172518 10339 net.cpp:159] Memory required for data: 2080080
I0505 23:01:24.172528 10339 layer_factory.hpp:77] Creating layer relu1
I0505 23:01:24.172534 10339 net.cpp:94] Creating Layer relu1
I0505 23:01:24.172538 10339 net.cpp:435] relu1 <- conv1
I0505 23:01:24.172543 10339 net.cpp:396] relu1 -> conv1 (in-place)
I0505 23:01:24.172567 10339 net.cpp:144] Setting up relu1
I0505 23:01:24.172574 10339 net.cpp:151] Top shape: 20 64 20 20 (512000)
I0505 23:01:24.172577 10339 net.cpp:159] Memory required for data: 4128080
I0505 23:01:24.172580 10339 layer_factory.hpp:77] Creating layer pool1
I0505 23:01:24.172586 10339 net.cpp:94] Creating Layer pool1
I0505 23:01:24.172590 10339 net.cpp:435] pool1 <- conv1
I0505 23:01:24.172600 10339 net.cpp:409] pool1 -> pool1
I0505 23:01:24.172648 10339 net.cpp:144] Setting up pool1
I0505 23:01:24.172655 10339 net.cpp:151] Top shape: 20 64 10 10 (128000)
I0505 23:01:24.172658 10339 net.cpp:159] Memory required for data: 4640080
I0505 23:01:24.172662 10339 layer_factory.hpp:77] Creating layer conv2
I0505 23:01:24.172669 10339 net.cpp:94] Creating Layer conv2
I0505 23:01:24.172673 10339 net.cpp:435] conv2 <- pool1
I0505 23:01:24.172677 10339 net.cpp:409] conv2 -> conv2
I0505 23:01:24.183238 10339 net.cpp:144] Setting up conv2
I0505 23:01:24.183266 10339 net.cpp:151] Top shape: 20 128 10 10 (256000)
I0505 23:01:24.183274 10339 net.cpp:159] Memory required for data: 5664080
I0505 23:01:24.183290 10339 layer_factory.hpp:77] Creating layer relu2
I0505 23:01:24.183300 10339 net.cpp:94] Creating Layer relu2
I0505 23:01:24.183307 10339 net.cpp:435] relu2 <- conv2
I0505 23:01:24.183316 10339 net.cpp:396] relu2 -> conv2 (in-place)
I0505 23:01:24.183329 10339 net.cpp:144] Setting up relu2
I0505 23:01:24.183338 10339 net.cpp:151] Top shape: 20 128 10 10 (256000)
I0505 23:01:24.183344 10339 net.cpp:159] Memory required for data: 6688080
I0505 23:01:24.183351 10339 layer_factory.hpp:77] Creating layer conv3
I0505 23:01:24.183364 10339 net.cpp:94] Creating Layer conv3
I0505 23:01:24.183372 10339 net.cpp:435] conv3 <- conv2
I0505 23:01:24.183380 10339 net.cpp:409] conv3 -> conv3
I0505 23:01:24.201033 10339 net.cpp:144] Setting up conv3
I0505 23:01:24.201062 10339 net.cpp:151] Top shape: 20 128 10 10 (256000)
I0505 23:01:24.201069 10339 net.cpp:159] Memory required for data: 7712080
I0505 23:01:24.201086 10339 layer_factory.hpp:77] Creating layer relu3
I0505 23:01:24.201097 10339 net.cpp:94] Creating Layer relu3
I0505 23:01:24.201104 10339 net.cpp:435] relu3 <- conv3
I0505 23:01:24.201113 10339 net.cpp:396] relu3 -> conv3 (in-place)
I0505 23:01:24.201126 10339 net.cpp:144] Setting up relu3
I0505 23:01:24.201135 10339 net.cpp:151] Top shape: 20 128 10 10 (256000)
I0505 23:01:24.201141 10339 net.cpp:159] Memory required for data: 8736080
I0505 23:01:24.201148 10339 layer_factory.hpp:77] Creating layer pool3
I0505 23:01:24.201159 10339 net.cpp:94] Creating Layer pool3
I0505 23:01:24.201164 10339 net.cpp:435] pool3 <- conv3
I0505 23:01:24.201172 10339 net.cpp:409] pool3 -> pool3
I0505 23:01:24.201238 10339 net.cpp:144] Setting up pool3
I0505 23:01:24.201251 10339 net.cpp:151] Top shape: 20 128 5 5 (64000)
I0505 23:01:24.201256 10339 net.cpp:159] Memory required for data: 8992080
I0505 23:01:24.201262 10339 layer_factory.hpp:77] Creating layer ip1
I0505 23:01:24.201274 10339 net.cpp:94] Creating Layer ip1
I0505 23:01:24.201282 10339 net.cpp:435] ip1 <- pool3
I0505 23:01:24.201290 10339 net.cpp:409] ip1 -> ip1
I0505 23:01:24.241156 10339 net.cpp:144] Setting up ip1
I0505 23:01:24.241180 10339 net.cpp:151] Top shape: 20 512 (10240)
I0505 23:01:24.241184 10339 net.cpp:159] Memory required for data: 9033040
I0505 23:01:24.241192 10339 layer_factory.hpp:77] Creating layer ip2
I0505 23:01:24.241200 10339 net.cpp:94] Creating Layer ip2
I0505 23:01:24.241204 10339 net.cpp:435] ip2 <- ip1
I0505 23:01:24.241210 10339 net.cpp:409] ip2 -> ip2
I0505 23:01:24.244364 10339 net.cpp:144] Setting up ip2
I0505 23:01:24.244376 10339 net.cpp:151] Top shape: 20 256 (5120)
I0505 23:01:24.244379 10339 net.cpp:159] Memory required for data: 9053520
I0505 23:01:24.244387 10339 layer_factory.hpp:77] Creating layer ip3
I0505 23:01:24.244393 10339 net.cpp:94] Creating Layer ip3
I0505 23:01:24.244396 10339 net.cpp:435] ip3 <- ip2
I0505 23:01:24.244401 10339 net.cpp:409] ip3 -> ip3
I0505 23:01:24.245796 10339 net.cpp:144] Setting up ip3
I0505 23:01:24.245810 10339 net.cpp:151] Top shape: 20 50 (1000)
I0505 23:01:24.245812 10339 net.cpp:159] Memory required for data: 9057520
I0505 23:01:24.245818 10339 layer_factory.hpp:77] Creating layer loss
I0505 23:01:24.245824 10339 net.cpp:94] Creating Layer loss
I0505 23:01:24.245827 10339 net.cpp:435] loss <- ip3
I0505 23:01:24.245831 10339 net.cpp:435] loss <- label
I0505 23:01:24.245842 10339 net.cpp:409] loss -> loss
I0505 23:01:24.245851 10339 layer_factory.hpp:77] Creating layer loss
…
I0505 23:01:24.246280 10339 solver.cpp:181] Creating test net (#0) specified by net file: ./protocol/dis_20_400_dimension.protocol_distribution
I0505 23:01:24.246304 10339 net.cpp:323] The NetState phase (1) differed from the phase (0) specified by a rule in layer parameters
I0505 23:01:24.246383 10339 net.cpp:52] Initializing net from parameters: 
state {
  phase: TEST
}
layer {
  name: "intercept"
  type: "HDF5Data"
  top: "data"
  top: "label"
  include {
    phase: TEST
  }
  hdf5_data_param {
    source: "/home/purduethu/scratch/radon/d/deng106/CNNStatisticalModel/distributions/input/20_distributions_400_sample_size_test-distributions-path.txt"
    batch_size: 20
  }
}
layer {
  name: "conv1"
  type: "Convolution"
  bottom: "data"
  top: "conv1"
  param {
    lr_mult: 1
  }
  param {
    lr_mult: 2
  }
  convolution_param {
    num_output: 64
    pad: 2
    kernel_size: 5
    stride: 1
    weight_filler {
      type: "gaussian"
      std: 0.0001
    }
    bias_filler {
      type: "constant"
    }
  }
}
layer {
  name: "relu1"
  type: "ReLU"
  bottom: "conv1"
  top: "conv1"
}
layer {
  name: "pool1"
  type: "Pooling"
  bottom: "conv1"
  top: "pool1"
  pooling_param {
    pool: MAX
    kernel_size: 3
    stride: 2
  }
}
layer {
  name: "conv2"
  type: "Convolution"
  bottom: "pool1"
  top: "conv2"
  param {
    lr_mult: 1
  }
  param {
    lr_mult: 2
  }
  convolution_param {
    num_output: 128
    pad: 2
    kernel_size: 5
    stride: 1
    weight_filler {
      type: "gaussian"
      std: 0.01
    }
    bias_filler {
      type: "constant"
    }
  }
}
layer {
  name: "relu2"
  type: "ReLU"
  bottom: "conv2"
  top: "conv2"
}
layer {
  name: "conv3"
  type: "Convolution"
  bottom: "conv2"
  top: "conv3"
  param {
    lr_mult: 1
  }
  param {
    lr_mult: 2
  }
  convolution_param {
    num_output: 128
    pad: 2
    kernel_size: 5
    stride: 1
    weight_filler {
      type: "gaussian"
      std: 0.01
    }
    bias_filler {
      type: "constant"
    }
  }
}
layer {
  name: "relu3"
  type: "ReLU"
  bottom: "conv3"
  top: "conv3"
}
layer {
  name: "pool3"
  type: "Pooling"
  bottom: "conv3"
  top: "pool3"
  pooling_param {
    pool: AVE
    kernel_size: 3
    stride: 2
  }
}
layer {
  name: "ip1"
  type: "InnerProduct"
  bottom: "pool3"
  top: "ip1"
  param {
    lr_mult: 1
  }
  param {
    lr_mult: 2
  }
  inner_product_param {
    num_output: 512
    weight_filler {
      type: "gaussian"
      std: 0.1
    }
    bias_filler {
      type: "constant"
    }
  }
}
layer {
  name: "ip2"
  type: "InnerProduct"
  bottom: "ip1"
  top: "ip2"
  param {
    lr_mult: 1
  }
  param {
    lr_mult: 2
  }
  inner_product_param {
    num_output: 256
    weight_filler {
      type: "gaussian"
      std: 0.1
    }
    bias_filler {
      type: "constant"
    }
  }
}
layer {
  name: "ip3"
  type: "InnerProduct"
  bottom: "ip2"
  top: "ip3"
  param {
    lr_mult: 1
  }
  param {
    lr_mult: 2
  }
  inner_product_param {
    num_output: 50
    weight_filler {
      type: "gaussian"
      std: 0.1
    }
    bias_filler {
      type: "constant"
    }
  }
}
layer {
  name: "accuracy"
  type: "Accuracy"
  bottom: "ip3"
  bottom: "label"
  top: "accuracy"
  include {
    phase: TEST
  }
}
layer {
  name: "loss"
  type: "SoftmaxWithLoss"
  bottom: "ip3"
  bottom: "label"
  top: "loss"
}
I0505 23:01:24.246439 10339 layer_factory.hpp:77] Creating layer intercept
I0505 23:01:24.246448 10339 net.cpp:94] Creating Layer intercept
I0505 23:01:24.246451 10339 net.cpp:409] intercept -> data
I0505 23:01:24.246457 10339 net.cpp:409] intercept -> label
I0505 23:01:24.246464 10339 hdf5_data_layer.cpp:79] Loading list of HDF5 filenames from: /home/purduethu/scratch/radon/d/deng106/CNNStatisticalModel/distributions/input/20_distributions_400_sample_size_test-distributions-path.txt
I0505 23:01:24.246482 10339 hdf5_data_layer.cpp:93] Number of HDF5 files: 1
I0505 23:01:24.310673 10339 net.cpp:144] Setting up intercept
I0505 23:01:24.310708 10339 net.cpp:151] Top shape: 20 1 20 20 (8000)
I0505 23:01:24.310714 10339 net.cpp:151] Top shape: 20 (20)
I0505 23:01:24.310716 10339 net.cpp:159] Memory required for data: 32080
I0505 23:01:24.310722 10339 layer_factory.hpp:77] Creating layer label_intercept_1_split
I0505 23:01:24.310741 10339 net.cpp:94] Creating Layer label_intercept_1_split
I0505 23:01:24.310746 10339 net.cpp:435] label_intercept_1_split <- label
I0505 23:01:24.310752 10339 net.cpp:409] label_intercept_1_split -> label_intercept_1_split_0
I0505 23:01:24.310760 10339 net.cpp:409] label_intercept_1_split -> label_intercept_1_split_1
I0505 23:01:24.310801 10339 net.cpp:144] Setting up label_intercept_1_split
I0505 23:01:24.310806 10339 net.cpp:151] Top shape: 20 (20)
I0505 23:01:24.310809 10339 net.cpp:151] Top shape: 20 (20)
I0505 23:01:24.310812 10339 net.cpp:159] Memory required for data: 32240
I0505 23:01:24.310816 10339 layer_factory.hpp:77] Creating layer conv1
I0505 23:01:24.310827 10339 net.cpp:94] Creating Layer conv1
I0505 23:01:24.310829 10339 net.cpp:435] conv1 <- data
I0505 23:01:24.310834 10339 net.cpp:409] conv1 -> conv1
I0505 23:01:24.317008 10339 net.cpp:144] Setting up conv1
I0505 23:01:24.317024 10339 net.cpp:151] Top shape: 20 64 20 20 (512000)
I0505 23:01:24.317028 10339 net.cpp:159] Memory required for data: 2080240
I0505 23:01:24.317039 10339 layer_factory.hpp:77] Creating layer relu1
I0505 23:01:24.317045 10339 net.cpp:94] Creating Layer relu1
I0505 23:01:24.317049 10339 net.cpp:435] relu1 <- conv1
I0505 23:01:24.317054 10339 net.cpp:396] relu1 -> conv1 (in-place)
I0505 23:01:24.317060 10339 net.cpp:144] Setting up relu1
I0505 23:01:24.317065 10339 net.cpp:151] Top shape: 20 64 20 20 (512000)
I0505 23:01:24.317068 10339 net.cpp:159] Memory required for data: 4128240
I0505 23:01:24.317071 10339 layer_factory.hpp:77] Creating layer pool1
I0505 23:01:24.317077 10339 net.cpp:94] Creating Layer pool1
I0505 23:01:24.317080 10339 net.cpp:435] pool1 <- conv1
I0505 23:01:24.317085 10339 net.cpp:409] pool1 -> pool1
I0505 23:01:24.317142 10339 net.cpp:144] Setting up pool1
I0505 23:01:24.317147 10339 net.cpp:151] Top shape: 20 64 10 10 (128000)
I0505 23:01:24.317150 10339 net.cpp:159] Memory required for data: 4640240
I0505 23:01:24.317154 10339 layer_factory.hpp:77] Creating layer conv2
I0505 23:01:24.317162 10339 net.cpp:94] Creating Layer conv2
I0505 23:01:24.317167 10339 net.cpp:435] conv2 <- pool1
I0505 23:01:24.317170 10339 net.cpp:409] conv2 -> conv2
I0505 23:01:24.324721 10339 net.cpp:144] Setting up conv2
I0505 23:01:24.324735 10339 net.cpp:151] Top shape: 20 128 10 10 (256000)
I0505 23:01:24.324739 10339 net.cpp:159] Memory required for data: 5664240
I0505 23:01:24.324748 10339 layer_factory.hpp:77] Creating layer relu2
I0505 23:01:24.324759 10339 net.cpp:94] Creating Layer relu2
I0505 23:01:24.324764 10339 net.cpp:435] relu2 <- conv2
I0505 23:01:24.324769 10339 net.cpp:396] relu2 -> conv2 (in-place)
I0505 23:01:24.324774 10339 net.cpp:144] Setting up relu2
I0505 23:01:24.324779 10339 net.cpp:151] Top shape: 20 128 10 10 (256000)
I0505 23:01:24.324781 10339 net.cpp:159] Memory required for data: 6688240
I0505 23:01:24.324784 10339 layer_factory.hpp:77] Creating layer conv3
I0505 23:01:24.324792 10339 net.cpp:94] Creating Layer conv3
I0505 23:01:24.324795 10339 net.cpp:435] conv3 <- conv2
I0505 23:01:24.324800 10339 net.cpp:409] conv3 -> conv3
I0505 23:01:24.338369 10339 net.cpp:144] Setting up conv3
I0505 23:01:24.338384 10339 net.cpp:151] Top shape: 20 128 10 10 (256000)
I0505 23:01:24.338388 10339 net.cpp:159] Memory required for data: 7712240
I0505 23:01:24.338397 10339 layer_factory.hpp:77] Creating layer relu3
I0505 23:01:24.338403 10339 net.cpp:94] Creating Layer relu3
I0505 23:01:24.338407 10339 net.cpp:435] relu3 <- conv3
I0505 23:01:24.338412 10339 net.cpp:396] relu3 -> conv3 (in-place)
I0505 23:01:24.338418 10339 net.cpp:144] Setting up relu3
I0505 23:01:24.338423 10339 net.cpp:151] Top shape: 20 128 10 10 (256000)
I0505 23:01:24.338425 10339 net.cpp:159] Memory required for data: 8736240
I0505 23:01:24.338428 10339 layer_factory.hpp:77] Creating layer pool3
I0505 23:01:24.338433 10339 net.cpp:94] Creating Layer pool3
I0505 23:01:24.338436 10339 net.cpp:435] pool3 <- conv3
I0505 23:01:24.338440 10339 net.cpp:409] pool3 -> pool3
I0505 23:01:24.338479 10339 net.cpp:144] Setting up pool3
I0505 23:01:24.338485 10339 net.cpp:151] Top shape: 20 128 5 5 (64000)
I0505 23:01:24.338488 10339 net.cpp:159] Memory required for data: 8992240
I0505 23:01:24.338491 10339 layer_factory.hpp:77] Creating layer ip1
I0505 23:01:24.338497 10339 net.cpp:94] Creating Layer ip1
I0505 23:01:24.338500 10339 net.cpp:435] ip1 <- pool3
I0505 23:01:24.338505 10339 net.cpp:409] ip1 -> ip1
I0505 23:01:24.378245 10339 net.cpp:144] Setting up ip1
I0505 23:01:24.378270 10339 net.cpp:151] Top shape: 20 512 (10240)
I0505 23:01:24.378273 10339 net.cpp:159] Memory required for data: 9033200
I0505 23:01:24.378280 10339 layer_factory.hpp:77] Creating layer ip2
I0505 23:01:24.378288 10339 net.cpp:94] Creating Layer ip2
I0505 23:01:24.378293 10339 net.cpp:435] ip2 <- ip1
I0505 23:01:24.378298 10339 net.cpp:409] ip2 -> ip2
I0505 23:01:24.381515 10339 net.cpp:144] Setting up ip2
I0505 23:01:24.381525 10339 net.cpp:151] Top shape: 20 256 (5120)
I0505 23:01:24.381528 10339 net.cpp:159] Memory required for data: 9053680
I0505 23:01:24.381536 10339 layer_factory.hpp:77] Creating layer ip3
I0505 23:01:24.381543 10339 net.cpp:94] Creating Layer ip3
I0505 23:01:24.381546 10339 net.cpp:435] ip3 <- ip2
I0505 23:01:24.381551 10339 net.cpp:409] ip3 -> ip3
I0505 23:01:24.381979 10339 net.cpp:144] Setting up ip3
I0505 23:01:24.381986 10339 net.cpp:151] Top shape: 20 50 (1000)
I0505 23:01:24.381989 10339 net.cpp:159] Memory required for data: 9057680
I0505 23:01:24.381994 10339 layer_factory.hpp:77] Creating layer ip3_ip3_0_split
I0505 23:01:24.382000 10339 net.cpp:94] Creating Layer ip3_ip3_0_split
I0505 23:01:24.382004 10339 net.cpp:435] ip3_ip3_0_split <- ip3
I0505 23:01:24.382009 10339 net.cpp:409] ip3_ip3_0_split -> ip3_ip3_0_split_0
I0505 23:01:24.382012 10339 net.cpp:409] ip3_ip3_0_split -> ip3_ip3_0_split_1
I0505 23:01:24.382051 10339 net.cpp:144] Setting up ip3_ip3_0_split
I0505 23:01:24.382056 10339 net.cpp:151] Top shape: 20 50 (1000)
I0505 23:01:24.382061 10339 net.cpp:151] Top shape: 20 50 (1000)
I0505 23:01:24.382063 10339 net.cpp:159] Memory required for data: 9065680
I0505 23:01:24.382066 10339 layer_factory.hpp:77] Creating layer accuracy
I0505 23:01:24.382071 10339 net.cpp:94] Creating Layer accuracy
I0505 23:01:24.382074 10339 net.cpp:435] accuracy <- ip3_ip3_0_split_0
I0505 23:01:24.382078 10339 net.cpp:435] accuracy <- label_intercept_1_split_0
I0505 23:01:24.382082 10339 net.cpp:409] accuracy -> accuracy
…
