…
I0501 02:14:38.869175 29636 net.cpp:323] The NetState phase (0) differed from the phase (1) specified by a rule in layer intercept
I0501 02:14:38.869192 29636 net.cpp:323] The NetState phase (0) differed from the phase (1) specified by a rule in layer loss
I0501 02:14:38.869287 29636 net.cpp:52] Initializing net from parameters: 
state {
  phase: TRAIN
}
layer {
  name: "parameters"
  type: "HDF5Data"
  top: "data"
  top: "label"
  include {
    phase: TRAIN
  }
  hdf5_data_param {
    source: "/home/purduethu/scratch/radon/d/deng106/CNNStatisticalModel/distributions/input/50_distributions_100_sample_size_train-parameters-path.txt"
    batch_size: 20
  }
}
layer {
  name: "conv1"
  type: "Convolution"
  bottom: "data"
  top: "conv1"
  param {
    lr_mult: 1
  }
  param {
    lr_mult: 2
  }
  convolution_param {
    num_output: 64
    pad: 2
    kernel_size: 5
    stride: 1
    weight_filler {
      type: "gaussian"
      std: 0.0001
    }
    bias_filler {
      type: "constant"
    }
  }
}
layer {
  name: "relu1"
  type: "ReLU"
  bottom: "conv1"
  top: "conv1"
}
layer {
  name: "conv2"
  type: "Convolution"
  bottom: "conv1"
  top: "conv2"
  param {
    lr_mult: 1
  }
  param {
    lr_mult: 2
  }
  convolution_param {
    num_output: 64
    pad: 2
    kernel_size: 5
    stride: 1
    weight_filler {
      type: "gaussian"
      std: 0.01
    }
    bias_filler {
      type: "constant"
    }
  }
}
layer {
  name: "relu2"
  type: "ReLU"
  bottom: "conv2"
  top: "conv2"
}
layer {
  name: "pool2"
  type: "Pooling"
  bottom: "conv2"
  top: "pool2"
  pooling_param {
    pool: MAX
    kernel_size: 3
    stride: 2
  }
}
layer {
  name: "conv3"
  type: "Convolution"
  bottom: "pool2"
  top: "conv3"
  param {
    lr_mult: 1
  }
  param {
    lr_mult: 2
  }
  convolution_param {
    num_output: 128
    pad: 2
    kernel_size: 5
    stride: 1
    weight_filler {
      type: "gaussian"
      std: 0.01
    }
    bias_filler {
      type: "constant"
    }
  }
}
layer {
  name: "relu3"
  type: "ReLU"
  bottom: "conv3"
  top: "conv3"
}
layer {
  name: "conv4"
  type: "Convolution"
  bottom: "conv3"
  top: "conv4"
  param {
    lr_mult: 1
  }
  param {
    lr_mult: 2
  }
  convolution_param {
    num_output: 128
    pad: 2
    kernel_size: 5
    stride: 1
    weight_filler {
      type: "gaussian"
      std: 0.01
    }
    bias_filler {
      type: "constant"
    }
  }
}
layer {
  name: "relu4"
  type: "ReLU"
  bottom: "conv4"
  top: "conv4"
}
layer {
  name: "conv5"
  type: "Convolution"
  bottom: "conv4"
  top: "conv5"
  param {
    lr_mult: 1
  }
  param {
    lr_mult: 2
  }
  convolution_param {
    num_output: 128
    pad: 2
    kernel_size: 5
    stride: 1
    weight_filler {
      type: "gaussian"
      std: 0.01
    }
    bias_filler {
      type: "constant"
    }
  }
}
layer {
  name: "relu5"
  type: "ReLU"
  bottom: "conv5"
  top: "conv5"
}
layer {
  name: "pool5"
  type: "Pooling"
  bottom: "conv5"
  top: "pool5"
  pooling_param {
    pool: AVE
    kernel_size: 3
    stride: 2
  }
}
layer {
  name: "ip1"
  type: "InnerProduct"
  bottom: "pool5"
  top: "ip1"
  param {
    lr_mult: 1
  }
  param {
    lr_mult: 2
  }
  inner_product_param {
    num_output: 1024
    weight_filler {
      type: "gaussian"
      std: 0.1
    }
    bias_filler {
      type: "constant"
    }
  }
}
layer {
  name: "ip2"
  type: "InnerProduct"
  bottom: "ip1"
  top: "ip2"
  param {
    lr_mult: 1
  }
  param {
    lr_mult: 2
  }
  inner_product_param {
    num_output: 512
    weight_filler {
      type: "gaussian"
      std: 0.1
    }
    bias_filler {
      type: "constant"
    }
  }
}
layer {
  name: "ip3"
  type: "InnerProduct"
  bottom: "ip2"
  top: "ip3"
  param {
    lr_mult: 1
  }
  param {
    lr_mult: 2
  }
  inner_product_param {
    num_output: 1
    weight_filler {
      type: "gaussian"
      std: 0.1
    }
    bias_filler {
      type: "constant"
    }
  }
}
layer {
  name: "loss"
  type: "HuberLoss"
  bottom: "ip3"
  bottom: "label"
  top: "loss"
  include {
    phase: TRAIN
  }
}
I0501 02:14:38.869364 29636 layer_factory.hpp:77] Creating layer parameters
I0501 02:14:38.869380 29636 net.cpp:94] Creating Layer parameters
I0501 02:14:38.869386 29636 net.cpp:409] parameters -> data
I0501 02:14:38.869407 29636 net.cpp:409] parameters -> label
I0501 02:14:38.869417 29636 hdf5_data_layer.cpp:79] Loading list of HDF5 filenames from: /home/purduethu/scratch/radon/d/deng106/CNNStatisticalModel/distributions/input/50_distributions_100_sample_size_train-parameters-path.txt
I0501 02:14:38.869441 29636 hdf5_data_layer.cpp:93] Number of HDF5 files: 1
I0501 02:14:38.870028 29636 hdf5.cpp:32] Datatype class: H5T_FLOAT
I0501 02:14:39.035254 29636 net.cpp:144] Setting up parameters
I0501 02:14:39.035286 29636 net.cpp:151] Top shape: 20 1 10 10 (2000)
I0501 02:14:39.035293 29636 net.cpp:151] Top shape: 20 (20)
I0501 02:14:39.035296 29636 net.cpp:159] Memory required for data: 8080
I0501 02:14:39.035305 29636 layer_factory.hpp:77] Creating layer conv1
I0501 02:14:39.035323 29636 net.cpp:94] Creating Layer conv1
I0501 02:14:39.035329 29636 net.cpp:435] conv1 <- data
I0501 02:14:39.035341 29636 net.cpp:409] conv1 -> conv1
I0501 02:14:39.039206 29636 net.cpp:144] Setting up conv1
I0501 02:14:39.039222 29636 net.cpp:151] Top shape: 20 64 10 10 (128000)
I0501 02:14:39.039225 29636 net.cpp:159] Memory required for data: 520080
I0501 02:14:39.039237 29636 layer_factory.hpp:77] Creating layer relu1
I0501 02:14:39.039244 29636 net.cpp:94] Creating Layer relu1
I0501 02:14:39.039248 29636 net.cpp:435] relu1 <- conv1
I0501 02:14:39.039253 29636 net.cpp:396] relu1 -> conv1 (in-place)
I0501 02:14:39.039268 29636 net.cpp:144] Setting up relu1
I0501 02:14:39.039274 29636 net.cpp:151] Top shape: 20 64 10 10 (128000)
I0501 02:14:39.039278 29636 net.cpp:159] Memory required for data: 1032080
I0501 02:14:39.039280 29636 layer_factory.hpp:77] Creating layer conv2
I0501 02:14:39.039289 29636 net.cpp:94] Creating Layer conv2
I0501 02:14:39.039293 29636 net.cpp:435] conv2 <- conv1
I0501 02:14:39.039297 29636 net.cpp:409] conv2 -> conv2
I0501 02:14:39.046499 29636 net.cpp:144] Setting up conv2
I0501 02:14:39.046517 29636 net.cpp:151] Top shape: 20 64 10 10 (128000)
I0501 02:14:39.046521 29636 net.cpp:159] Memory required for data: 1544080
I0501 02:14:39.046531 29636 layer_factory.hpp:77] Creating layer relu2
I0501 02:14:39.046538 29636 net.cpp:94] Creating Layer relu2
I0501 02:14:39.046542 29636 net.cpp:435] relu2 <- conv2
I0501 02:14:39.046547 29636 net.cpp:396] relu2 -> conv2 (in-place)
I0501 02:14:39.046555 29636 net.cpp:144] Setting up relu2
I0501 02:14:39.046561 29636 net.cpp:151] Top shape: 20 64 10 10 (128000)
I0501 02:14:39.046563 29636 net.cpp:159] Memory required for data: 2056080
I0501 02:14:39.046567 29636 layer_factory.hpp:77] Creating layer pool2
I0501 02:14:39.046574 29636 net.cpp:94] Creating Layer pool2
I0501 02:14:39.046584 29636 net.cpp:435] pool2 <- conv2
I0501 02:14:39.046589 29636 net.cpp:409] pool2 -> pool2
I0501 02:14:39.046638 29636 net.cpp:144] Setting up pool2
I0501 02:14:39.046645 29636 net.cpp:151] Top shape: 20 64 5 5 (32000)
I0501 02:14:39.046648 29636 net.cpp:159] Memory required for data: 2184080
I0501 02:14:39.046653 29636 layer_factory.hpp:77] Creating layer conv3
I0501 02:14:39.046660 29636 net.cpp:94] Creating Layer conv3
I0501 02:14:39.046664 29636 net.cpp:435] conv3 <- pool2
I0501 02:14:39.046670 29636 net.cpp:409] conv3 -> conv3
I0501 02:14:39.054862 29636 net.cpp:144] Setting up conv3
I0501 02:14:39.054877 29636 net.cpp:151] Top shape: 20 128 5 5 (64000)
I0501 02:14:39.054882 29636 net.cpp:159] Memory required for data: 2440080
I0501 02:14:39.054890 29636 layer_factory.hpp:77] Creating layer relu3
I0501 02:14:39.054898 29636 net.cpp:94] Creating Layer relu3
I0501 02:14:39.054901 29636 net.cpp:435] relu3 <- conv3
I0501 02:14:39.054906 29636 net.cpp:396] relu3 -> conv3 (in-place)
I0501 02:14:39.054913 29636 net.cpp:144] Setting up relu3
I0501 02:14:39.054919 29636 net.cpp:151] Top shape: 20 128 5 5 (64000)
I0501 02:14:39.054921 29636 net.cpp:159] Memory required for data: 2696080
I0501 02:14:39.054924 29636 layer_factory.hpp:77] Creating layer conv4
I0501 02:14:39.054934 29636 net.cpp:94] Creating Layer conv4
I0501 02:14:39.054937 29636 net.cpp:435] conv4 <- conv3
I0501 02:14:39.054942 29636 net.cpp:409] conv4 -> conv4
I0501 02:14:39.069726 29636 net.cpp:144] Setting up conv4
I0501 02:14:39.069743 29636 net.cpp:151] Top shape: 20 128 5 5 (64000)
I0501 02:14:39.069748 29636 net.cpp:159] Memory required for data: 2952080
I0501 02:14:39.069754 29636 layer_factory.hpp:77] Creating layer relu4
I0501 02:14:39.069761 29636 net.cpp:94] Creating Layer relu4
I0501 02:14:39.069766 29636 net.cpp:435] relu4 <- conv4
I0501 02:14:39.069771 29636 net.cpp:396] relu4 -> conv4 (in-place)
I0501 02:14:39.069777 29636 net.cpp:144] Setting up relu4
I0501 02:14:39.069782 29636 net.cpp:151] Top shape: 20 128 5 5 (64000)
I0501 02:14:39.069785 29636 net.cpp:159] Memory required for data: 3208080
I0501 02:14:39.069789 29636 layer_factory.hpp:77] Creating layer conv5
I0501 02:14:39.069797 29636 net.cpp:94] Creating Layer conv5
I0501 02:14:39.069800 29636 net.cpp:435] conv5 <- conv4
I0501 02:14:39.069806 29636 net.cpp:409] conv5 -> conv5
I0501 02:14:39.084300 29636 net.cpp:144] Setting up conv5
I0501 02:14:39.084316 29636 net.cpp:151] Top shape: 20 128 5 5 (64000)
I0501 02:14:39.084321 29636 net.cpp:159] Memory required for data: 3464080
I0501 02:14:39.084331 29636 layer_factory.hpp:77] Creating layer relu5
I0501 02:14:39.084338 29636 net.cpp:94] Creating Layer relu5
I0501 02:14:39.084342 29636 net.cpp:435] relu5 <- conv5
I0501 02:14:39.084347 29636 net.cpp:396] relu5 -> conv5 (in-place)
I0501 02:14:39.084354 29636 net.cpp:144] Setting up relu5
I0501 02:14:39.084359 29636 net.cpp:151] Top shape: 20 128 5 5 (64000)
I0501 02:14:39.084362 29636 net.cpp:159] Memory required for data: 3720080
I0501 02:14:39.084367 29636 layer_factory.hpp:77] Creating layer pool5
I0501 02:14:39.084372 29636 net.cpp:94] Creating Layer pool5
I0501 02:14:39.084374 29636 net.cpp:435] pool5 <- conv5
I0501 02:14:39.084379 29636 net.cpp:409] pool5 -> pool5
I0501 02:14:39.084417 29636 net.cpp:144] Setting up pool5
I0501 02:14:39.084425 29636 net.cpp:151] Top shape: 20 128 2 2 (10240)
I0501 02:14:39.084429 29636 net.cpp:159] Memory required for data: 3761040
I0501 02:14:39.084431 29636 layer_factory.hpp:77] Creating layer ip1
I0501 02:14:39.084442 29636 net.cpp:94] Creating Layer ip1
I0501 02:14:39.084446 29636 net.cpp:435] ip1 <- pool5
I0501 02:14:39.084451 29636 net.cpp:409] ip1 -> ip1
I0501 02:14:39.100477 29636 net.cpp:144] Setting up ip1
I0501 02:14:39.100498 29636 net.cpp:151] Top shape: 20 1024 (20480)
I0501 02:14:39.100503 29636 net.cpp:159] Memory required for data: 3842960
I0501 02:14:39.100510 29636 layer_factory.hpp:77] Creating layer ip2
I0501 02:14:39.100518 29636 net.cpp:94] Creating Layer ip2
I0501 02:14:39.100522 29636 net.cpp:435] ip2 <- ip1
I0501 02:14:39.100534 29636 net.cpp:409] ip2 -> ip2
I0501 02:14:39.114459 29636 net.cpp:144] Setting up ip2
I0501 02:14:39.114476 29636 net.cpp:151] Top shape: 20 512 (10240)
I0501 02:14:39.114481 29636 net.cpp:159] Memory required for data: 3883920
I0501 02:14:39.114487 29636 layer_factory.hpp:77] Creating layer ip3
I0501 02:14:39.114495 29636 net.cpp:94] Creating Layer ip3
I0501 02:14:39.114498 29636 net.cpp:435] ip3 <- ip2
I0501 02:14:39.114504 29636 net.cpp:409] ip3 -> ip3
I0501 02:14:39.114584 29636 net.cpp:144] Setting up ip3
I0501 02:14:39.114591 29636 net.cpp:151] Top shape: 20 1 (20)
I0501 02:14:39.114603 29636 net.cpp:159] Memory required for data: 3884000
I0501 02:14:39.114609 29636 layer_factory.hpp:77] Creating layer loss
I0501 02:14:39.114622 29636 net.cpp:94] Creating Layer loss
I0501 02:14:39.114626 29636 net.cpp:435] loss <- ip3
I0501 02:14:39.114630 29636 net.cpp:435] loss <- label
I0501 02:14:39.114636 29636 net.cpp:409] loss -> loss
I0501 02:14:39.114676 29636 net.cpp:144] Setting up loss
…
