…
I0505 08:42:41.339007  5361 net.cpp:323] The NetState phase (0) differed from the phase (1) specified by a rule in layer intercept
I0505 08:42:41.339021  5361 net.cpp:323] The NetState phase (0) differed from the phase (1) specified by a rule in layer accuracy
I0505 08:42:41.339097  5361 net.cpp:52] Initializing net from parameters: 
state {
  phase: TRAIN
}
layer {
  name: "parameters"
  type: "HDF5Data"
  top: "data"
  top: "label"
  include {
    phase: TRAIN
  }
  hdf5_data_param {
    source: "/home/purduethu/scratch/radon/d/deng106/CNNStatisticalModel/distributions/input/50_distributions_100_sample_size_train-distributions-path.txt"
    batch_size: 20
  }
}
layer {
  name: "conv1"
  type: "Convolution"
  bottom: "data"
  top: "conv1"
  param {
    lr_mult: 1
  }
  param {
    lr_mult: 2
  }
  convolution_param {
    num_output: 64
    pad: 2
    kernel_size: 5
    stride: 1
    weight_filler {
      type: "gaussian"
      std: 0.0001
    }
    bias_filler {
      type: "constant"
    }
  }
}
layer {
  name: "relu1"
  type: "ReLU"
  bottom: "conv1"
  top: "conv1"
}
layer {
  name: "pool1"
  type: "Pooling"
  bottom: "conv1"
  top: "pool1"
  pooling_param {
    pool: MAX
    kernel_size: 3
    stride: 2
  }
}
layer {
  name: "conv2"
  type: "Convolution"
  bottom: "pool1"
  top: "conv2"
  param {
    lr_mult: 1
  }
  param {
    lr_mult: 2
  }
  convolution_param {
    num_output: 128
    pad: 2
    kernel_size: 5
    stride: 1
    weight_filler {
      type: "gaussian"
      std: 0.01
    }
    bias_filler {
      type: "constant"
    }
  }
}
layer {
  name: "relu2"
  type: "ReLU"
  bottom: "conv2"
  top: "conv2"
}
layer {
  name: "conv3"
  type: "Convolution"
  bottom: "conv2"
  top: "conv3"
  param {
    lr_mult: 1
  }
  param {
    lr_mult: 2
  }
  convolution_param {
    num_output: 128
    pad: 2
    kernel_size: 5
    stride: 1
    weight_filler {
      type: "gaussian"
      std: 0.01
    }
    bias_filler {
      type: "constant"
    }
  }
}
layer {
  name: "relu3"
  type: "ReLU"
  bottom: "conv3"
  top: "conv3"
}
layer {
  name: "pool3"
  type: "Pooling"
  bottom: "conv3"
  top: "pool3"
  pooling_param {
    pool: AVE
    kernel_size: 3
    stride: 2
  }
}
layer {
  name: "ip1"
  type: "InnerProduct"
  bottom: "pool3"
  top: "ip1"
  param {
    lr_mult: 1
  }
  param {
    lr_mult: 2
  }
  inner_product_param {
    num_output: 512
    weight_filler {
      type: "gaussian"
      std: 0.1
    }
    bias_filler {
      type: "constant"
    }
  }
}
layer {
  name: "ip2"
  type: "InnerProduct"
  bottom: "ip1"
  top: "ip2"
  param {
    lr_mult: 1
  }
  param {
    lr_mult: 2
  }
  inner_product_param {
    num_output: 256
    weight_filler {
      type: "gaussian"
      std: 0.1
    }
    bias_filler {
      type: "constant"
    }
  }
}
layer {
  name: "ip3"
  type: "InnerProduct"
  bottom: "ip2"
  top: "ip3"
  param {
    lr_mult: 1
  }
  param {
    lr_mult: 2
  }
  inner_product_param {
    num_output: 50
    weight_filler {
      type: "gaussian"
      std: 0.1
    }
    bias_filler {
      type: "constant"
    }
  }
}
layer {
  name: "loss"
  type: "SoftmaxWithLoss"
  bottom: "ip3"
  bottom: "label"
  top: "loss"
}
I0505 08:42:41.339159  5361 layer_factory.hpp:77] Creating layer parameters
I0505 08:42:41.339172  5361 net.cpp:94] Creating Layer parameters
I0505 08:42:41.339185  5361 net.cpp:409] parameters -> data
I0505 08:42:41.339205  5361 net.cpp:409] parameters -> label
I0505 08:42:41.339215  5361 hdf5_data_layer.cpp:79] Loading list of HDF5 filenames from: /home/purduethu/scratch/radon/d/deng106/CNNStatisticalModel/distributions/input/50_distributions_100_sample_size_train-distributions-path.txt
I0505 08:42:41.339236  5361 hdf5_data_layer.cpp:93] Number of HDF5 files: 1
I0505 08:42:41.339819  5361 hdf5.cpp:32] Datatype class: H5T_FLOAT
I0505 08:42:41.494017  5361 hdf5.cpp:35] Datatype class: H5T_INTEGER
I0505 08:42:41.496747  5361 net.cpp:144] Setting up parameters
I0505 08:42:41.496772  5361 net.cpp:151] Top shape: 20 1 10 10 (2000)
I0505 08:42:41.496778  5361 net.cpp:151] Top shape: 20 (20)
I0505 08:42:41.496781  5361 net.cpp:159] Memory required for data: 8080
I0505 08:42:41.496788  5361 layer_factory.hpp:77] Creating layer conv1
I0505 08:42:41.496807  5361 net.cpp:94] Creating Layer conv1
I0505 08:42:41.496812  5361 net.cpp:435] conv1 <- data
I0505 08:42:41.496824  5361 net.cpp:409] conv1 -> conv1
I0505 08:42:41.500481  5361 net.cpp:144] Setting up conv1
I0505 08:42:41.500495  5361 net.cpp:151] Top shape: 20 64 10 10 (128000)
I0505 08:42:41.500500  5361 net.cpp:159] Memory required for data: 520080
I0505 08:42:41.500510  5361 layer_factory.hpp:77] Creating layer relu1
I0505 08:42:41.500519  5361 net.cpp:94] Creating Layer relu1
I0505 08:42:41.500522  5361 net.cpp:435] relu1 <- conv1
I0505 08:42:41.500527  5361 net.cpp:396] relu1 -> conv1 (in-place)
I0505 08:42:41.500538  5361 net.cpp:144] Setting up relu1
I0505 08:42:41.500543  5361 net.cpp:151] Top shape: 20 64 10 10 (128000)
I0505 08:42:41.500546  5361 net.cpp:159] Memory required for data: 1032080
I0505 08:42:41.500564  5361 layer_factory.hpp:77] Creating layer pool1
I0505 08:42:41.500572  5361 net.cpp:94] Creating Layer pool1
I0505 08:42:41.500576  5361 net.cpp:435] pool1 <- conv1
I0505 08:42:41.500581  5361 net.cpp:409] pool1 -> pool1
I0505 08:42:41.500629  5361 net.cpp:144] Setting up pool1
I0505 08:42:41.500636  5361 net.cpp:151] Top shape: 20 64 5 5 (32000)
I0505 08:42:41.500639  5361 net.cpp:159] Memory required for data: 1160080
I0505 08:42:41.500643  5361 layer_factory.hpp:77] Creating layer conv2
I0505 08:42:41.500651  5361 net.cpp:94] Creating Layer conv2
I0505 08:42:41.500655  5361 net.cpp:435] conv2 <- pool1
I0505 08:42:41.500660  5361 net.cpp:409] conv2 -> conv2
I0505 08:42:41.509186  5361 net.cpp:144] Setting up conv2
I0505 08:42:41.509202  5361 net.cpp:151] Top shape: 20 128 5 5 (64000)
I0505 08:42:41.509207  5361 net.cpp:159] Memory required for data: 1416080
I0505 08:42:41.509214  5361 layer_factory.hpp:77] Creating layer relu2
I0505 08:42:41.509222  5361 net.cpp:94] Creating Layer relu2
I0505 08:42:41.509224  5361 net.cpp:435] relu2 <- conv2
I0505 08:42:41.509229  5361 net.cpp:396] relu2 -> conv2 (in-place)
I0505 08:42:41.509237  5361 net.cpp:144] Setting up relu2
I0505 08:42:41.509241  5361 net.cpp:151] Top shape: 20 128 5 5 (64000)
I0505 08:42:41.509244  5361 net.cpp:159] Memory required for data: 1672080
I0505 08:42:41.509248  5361 layer_factory.hpp:77] Creating layer conv3
I0505 08:42:41.509255  5361 net.cpp:94] Creating Layer conv3
I0505 08:42:41.509258  5361 net.cpp:435] conv3 <- conv2
I0505 08:42:41.509263  5361 net.cpp:409] conv3 -> conv3
I0505 08:42:41.523838  5361 net.cpp:144] Setting up conv3
I0505 08:42:41.523854  5361 net.cpp:151] Top shape: 20 128 5 5 (64000)
I0505 08:42:41.523859  5361 net.cpp:159] Memory required for data: 1928080
I0505 08:42:41.523866  5361 layer_factory.hpp:77] Creating layer relu3
I0505 08:42:41.523880  5361 net.cpp:94] Creating Layer relu3
I0505 08:42:41.523883  5361 net.cpp:435] relu3 <- conv3
I0505 08:42:41.523888  5361 net.cpp:396] relu3 -> conv3 (in-place)
I0505 08:42:41.523896  5361 net.cpp:144] Setting up relu3
I0505 08:42:41.523900  5361 net.cpp:151] Top shape: 20 128 5 5 (64000)
I0505 08:42:41.523903  5361 net.cpp:159] Memory required for data: 2184080
I0505 08:42:41.523906  5361 layer_factory.hpp:77] Creating layer pool3
I0505 08:42:41.523912  5361 net.cpp:94] Creating Layer pool3
I0505 08:42:41.523922  5361 net.cpp:435] pool3 <- conv3
I0505 08:42:41.523927  5361 net.cpp:409] pool3 -> pool3
I0505 08:42:41.523962  5361 net.cpp:144] Setting up pool3
I0505 08:42:41.523969  5361 net.cpp:151] Top shape: 20 128 2 2 (10240)
I0505 08:42:41.523972  5361 net.cpp:159] Memory required for data: 2225040
I0505 08:42:41.523975  5361 layer_factory.hpp:77] Creating layer ip1
I0505 08:42:41.523985  5361 net.cpp:94] Creating Layer ip1
I0505 08:42:41.523989  5361 net.cpp:435] ip1 <- pool3
I0505 08:42:41.523994  5361 net.cpp:409] ip1 -> ip1
I0505 08:42:41.530771  5361 net.cpp:144] Setting up ip1
I0505 08:42:41.530784  5361 net.cpp:151] Top shape: 20 512 (10240)
I0505 08:42:41.530788  5361 net.cpp:159] Memory required for data: 2266000
I0505 08:42:41.530794  5361 layer_factory.hpp:77] Creating layer ip2
I0505 08:42:41.530802  5361 net.cpp:94] Creating Layer ip2
I0505 08:42:41.530805  5361 net.cpp:435] ip2 <- ip1
I0505 08:42:41.530809  5361 net.cpp:409] ip2 -> ip2
I0505 08:42:41.534528  5361 net.cpp:144] Setting up ip2
I0505 08:42:41.534543  5361 net.cpp:151] Top shape: 20 256 (5120)
I0505 08:42:41.534546  5361 net.cpp:159] Memory required for data: 2286480
I0505 08:42:41.534554  5361 layer_factory.hpp:77] Creating layer ip3
I0505 08:42:41.534560  5361 net.cpp:94] Creating Layer ip3
I0505 08:42:41.534564  5361 net.cpp:435] ip3 <- ip2
I0505 08:42:41.534570  5361 net.cpp:409] ip3 -> ip3
I0505 08:42:41.535553  5361 net.cpp:144] Setting up ip3
I0505 08:42:41.535565  5361 net.cpp:151] Top shape: 20 50 (1000)
I0505 08:42:41.535569  5361 net.cpp:159] Memory required for data: 2290480
I0505 08:42:41.535575  5361 layer_factory.hpp:77] Creating layer loss
I0505 08:42:41.535581  5361 net.cpp:94] Creating Layer loss
I0505 08:42:41.535584  5361 net.cpp:435] loss <- ip3
I0505 08:42:41.535588  5361 net.cpp:435] loss <- label
I0505 08:42:41.535594  5361 net.cpp:409] loss -> loss
I0505 08:42:41.535605  5361 layer_factory.hpp:77] Creating layer loss
…
I0505 08:42:41.536015  5361 solver.cpp:181] Creating test net (#0) specified by net file: ./protocol/dis_50_100_dimension.protocol_distribution
I0505 08:42:41.536038  5361 net.cpp:323] The NetState phase (1) differed from the phase (0) specified by a rule in layer parameters
I0505 08:42:41.536124  5361 net.cpp:52] Initializing net from parameters: 
state {
  phase: TEST
}
layer {
  name: "intercept"
  type: "HDF5Data"
  top: "data"
  top: "label"
  include {
    phase: TEST
  }
  hdf5_data_param {
    source: "/home/purduethu/scratch/radon/d/deng106/CNNStatisticalModel/distributions/input/50_distributions_100_sample_size_test-distributions-path.txt"
    batch_size: 20
  }
}
layer {
  name: "conv1"
  type: "Convolution"
  bottom: "data"
  top: "conv1"
  param {
    lr_mult: 1
  }
  param {
    lr_mult: 2
  }
  convolution_param {
    num_output: 64
    pad: 2
    kernel_size: 5
    stride: 1
    weight_filler {
      type: "gaussian"
      std: 0.0001
    }
    bias_filler {
      type: "constant"
    }
  }
}
layer {
  name: "relu1"
  type: "ReLU"
  bottom: "conv1"
  top: "conv1"
}
layer {
  name: "pool1"
  type: "Pooling"
  bottom: "conv1"
  top: "pool1"
  pooling_param {
    pool: MAX
    kernel_size: 3
    stride: 2
  }
}
layer {
  name: "conv2"
  type: "Convolution"
  bottom: "pool1"
  top: "conv2"
  param {
    lr_mult: 1
  }
  param {
    lr_mult: 2
  }
  convolution_param {
    num_output: 128
    pad: 2
    kernel_size: 5
    stride: 1
    weight_filler {
      type: "gaussian"
      std: 0.01
    }
    bias_filler {
      type: "constant"
    }
  }
}
layer {
  name: "relu2"
  type: "ReLU"
  bottom: "conv2"
  top: "conv2"
}
layer {
  name: "conv3"
  type: "Convolution"
  bottom: "conv2"
  top: "conv3"
  param {
    lr_mult: 1
  }
  param {
    lr_mult: 2
  }
  convolution_param {
    num_output: 128
    pad: 2
    kernel_size: 5
    stride: 1
    weight_filler {
      type: "gaussian"
      std: 0.01
    }
    bias_filler {
      type: "constant"
    }
  }
}
layer {
  name: "relu3"
  type: "ReLU"
  bottom: "conv3"
  top: "conv3"
}
layer {
  name: "pool3"
  type: "Pooling"
  bottom: "conv3"
  top: "pool3"
  pooling_param {
    pool: AVE
    kernel_size: 3
    stride: 2
  }
}
layer {
  name: "ip1"
  type: "InnerProduct"
  bottom: "pool3"
  top: "ip1"
  param {
    lr_mult: 1
  }
  param {
    lr_mult: 2
  }
  inner_product_param {
    num_output: 512
    weight_filler {
      type: "gaussian"
      std: 0.1
    }
    bias_filler {
      type: "constant"
    }
  }
}
layer {
  name: "ip2"
  type: "InnerProduct"
  bottom: "ip1"
  top: "ip2"
  param {
    lr_mult: 1
  }
  param {
    lr_mult: 2
  }
  inner_product_param {
    num_output: 256
    weight_filler {
      type: "gaussian"
      std: 0.1
    }
    bias_filler {
      type: "constant"
    }
  }
}
layer {
  name: "ip3"
  type: "InnerProduct"
  bottom: "ip2"
  top: "ip3"
  param {
    lr_mult: 1
  }
  param {
    lr_mult: 2
  }
  inner_product_param {
    num_output: 50
    weight_filler {
      type: "gaussian"
      std: 0.1
    }
    bias_filler {
      type: "constant"
    }
  }
}
layer {
  name: "accuracy"
  type: "Accuracy"
  bottom: "ip3"
  bottom: "label"
  top: "accuracy"
  include {
    phase: TEST
  }
}
layer {
  name: "loss"
  type: "SoftmaxWithLoss"
  bottom: "ip3"
  bottom: "label"
  top: "loss"
}
I0505 08:42:41.536187  5361 layer_factory.hpp:77] Creating layer intercept
I0505 08:42:41.536195  5361 net.cpp:94] Creating Layer intercept
I0505 08:42:41.536200  5361 net.cpp:409] intercept -> data
I0505 08:42:41.536206  5361 net.cpp:409] intercept -> label
I0505 08:42:41.536212  5361 hdf5_data_layer.cpp:79] Loading list of HDF5 filenames from: /home/purduethu/scratch/radon/d/deng106/CNNStatisticalModel/distributions/input/50_distributions_100_sample_size_test-distributions-path.txt
I0505 08:42:41.536231  5361 hdf5_data_layer.cpp:93] Number of HDF5 files: 1
I0505 08:42:41.576233  5361 net.cpp:144] Setting up intercept
I0505 08:42:41.576269  5361 net.cpp:151] Top shape: 20 1 10 10 (2000)
I0505 08:42:41.576275  5361 net.cpp:151] Top shape: 20 (20)
I0505 08:42:41.576278  5361 net.cpp:159] Memory required for data: 8080
I0505 08:42:41.576284  5361 layer_factory.hpp:77] Creating layer label_intercept_1_split
I0505 08:42:41.576303  5361 net.cpp:94] Creating Layer label_intercept_1_split
I0505 08:42:41.576316  5361 net.cpp:435] label_intercept_1_split <- label
I0505 08:42:41.576323  5361 net.cpp:409] label_intercept_1_split -> label_intercept_1_split_0
I0505 08:42:41.576331  5361 net.cpp:409] label_intercept_1_split -> label_intercept_1_split_1
I0505 08:42:41.576357  5361 net.cpp:144] Setting up label_intercept_1_split
I0505 08:42:41.576364  5361 net.cpp:151] Top shape: 20 (20)
I0505 08:42:41.576367  5361 net.cpp:151] Top shape: 20 (20)
I0505 08:42:41.576370  5361 net.cpp:159] Memory required for data: 8240
I0505 08:42:41.576380  5361 layer_factory.hpp:77] Creating layer conv1
I0505 08:42:41.576392  5361 net.cpp:94] Creating Layer conv1
I0505 08:42:41.576395  5361 net.cpp:435] conv1 <- data
I0505 08:42:41.576400  5361 net.cpp:409] conv1 -> conv1
I0505 08:42:41.577085  5361 net.cpp:144] Setting up conv1
I0505 08:42:41.577098  5361 net.cpp:151] Top shape: 20 64 10 10 (128000)
I0505 08:42:41.577103  5361 net.cpp:159] Memory required for data: 520240
I0505 08:42:41.577112  5361 layer_factory.hpp:77] Creating layer relu1
I0505 08:42:41.577119  5361 net.cpp:94] Creating Layer relu1
I0505 08:42:41.577123  5361 net.cpp:435] relu1 <- conv1
I0505 08:42:41.577127  5361 net.cpp:396] relu1 -> conv1 (in-place)
I0505 08:42:41.577136  5361 net.cpp:144] Setting up relu1
I0505 08:42:41.577139  5361 net.cpp:151] Top shape: 20 64 10 10 (128000)
I0505 08:42:41.577142  5361 net.cpp:159] Memory required for data: 1032240
I0505 08:42:41.577145  5361 layer_factory.hpp:77] Creating layer pool1
I0505 08:42:41.577152  5361 net.cpp:94] Creating Layer pool1
I0505 08:42:41.577155  5361 net.cpp:435] pool1 <- conv1
I0505 08:42:41.577160  5361 net.cpp:409] pool1 -> pool1
I0505 08:42:41.577199  5361 net.cpp:144] Setting up pool1
I0505 08:42:41.577205  5361 net.cpp:151] Top shape: 20 64 5 5 (32000)
I0505 08:42:41.577208  5361 net.cpp:159] Memory required for data: 1160240
I0505 08:42:41.577213  5361 layer_factory.hpp:77] Creating layer conv2
I0505 08:42:41.577220  5361 net.cpp:94] Creating Layer conv2
I0505 08:42:41.577224  5361 net.cpp:435] conv2 <- pool1
I0505 08:42:41.577229  5361 net.cpp:409] conv2 -> conv2
I0505 08:42:41.583640  5361 net.cpp:144] Setting up conv2
I0505 08:42:41.583653  5361 net.cpp:151] Top shape: 20 128 5 5 (64000)
I0505 08:42:41.583657  5361 net.cpp:159] Memory required for data: 1416240
I0505 08:42:41.583665  5361 layer_factory.hpp:77] Creating layer relu2
I0505 08:42:41.583672  5361 net.cpp:94] Creating Layer relu2
I0505 08:42:41.583675  5361 net.cpp:435] relu2 <- conv2
I0505 08:42:41.583679  5361 net.cpp:396] relu2 -> conv2 (in-place)
I0505 08:42:41.583686  5361 net.cpp:144] Setting up relu2
I0505 08:42:41.583691  5361 net.cpp:151] Top shape: 20 128 5 5 (64000)
I0505 08:42:41.583694  5361 net.cpp:159] Memory required for data: 1672240
I0505 08:42:41.583698  5361 layer_factory.hpp:77] Creating layer conv3
I0505 08:42:41.583704  5361 net.cpp:94] Creating Layer conv3
I0505 08:42:41.583709  5361 net.cpp:435] conv3 <- conv2
I0505 08:42:41.583714  5361 net.cpp:409] conv3 -> conv3
I0505 08:42:41.596045  5361 net.cpp:144] Setting up conv3
I0505 08:42:41.596081  5361 net.cpp:151] Top shape: 20 128 5 5 (64000)
I0505 08:42:41.596093  5361 net.cpp:159] Memory required for data: 1928240
I0505 08:42:41.596117  5361 layer_factory.hpp:77] Creating layer relu3
I0505 08:42:41.596134  5361 net.cpp:94] Creating Layer relu3
I0505 08:42:41.596145  5361 net.cpp:435] relu3 <- conv3
I0505 08:42:41.596159  5361 net.cpp:396] relu3 -> conv3 (in-place)
I0505 08:42:41.596179  5361 net.cpp:144] Setting up relu3
I0505 08:42:41.596190  5361 net.cpp:151] Top shape: 20 128 5 5 (64000)
I0505 08:42:41.596199  5361 net.cpp:159] Memory required for data: 2184240
I0505 08:42:41.596209  5361 layer_factory.hpp:77] Creating layer pool3
I0505 08:42:41.596221  5361 net.cpp:94] Creating Layer pool3
I0505 08:42:41.596230  5361 net.cpp:435] pool3 <- conv3
I0505 08:42:41.596249  5361 net.cpp:409] pool3 -> pool3
I0505 08:42:41.596276  5361 net.cpp:144] Setting up pool3
I0505 08:42:41.596282  5361 net.cpp:151] Top shape: 20 128 2 2 (10240)
I0505 08:42:41.596289  5361 net.cpp:159] Memory required for data: 2225200
I0505 08:42:41.596292  5361 layer_factory.hpp:77] Creating layer ip1
I0505 08:42:41.596299  5361 net.cpp:94] Creating Layer ip1
I0505 08:42:41.596302  5361 net.cpp:435] ip1 <- pool3
I0505 08:42:41.596307  5361 net.cpp:409] ip1 -> ip1
I0505 08:42:41.603081  5361 net.cpp:144] Setting up ip1
I0505 08:42:41.603094  5361 net.cpp:151] Top shape: 20 512 (10240)
I0505 08:42:41.603098  5361 net.cpp:159] Memory required for data: 2266160
I0505 08:42:41.603111  5361 layer_factory.hpp:77] Creating layer ip2
I0505 08:42:41.603118  5361 net.cpp:94] Creating Layer ip2
I0505 08:42:41.603122  5361 net.cpp:435] ip2 <- ip1
I0505 08:42:41.603127  5361 net.cpp:409] ip2 -> ip2
I0505 08:42:41.606228  5361 net.cpp:144] Setting up ip2
I0505 08:42:41.606237  5361 net.cpp:151] Top shape: 20 256 (5120)
I0505 08:42:41.606241  5361 net.cpp:159] Memory required for data: 2286640
I0505 08:42:41.606248  5361 layer_factory.hpp:77] Creating layer ip3
I0505 08:42:41.606254  5361 net.cpp:94] Creating Layer ip3
I0505 08:42:41.606257  5361 net.cpp:435] ip3 <- ip2
I0505 08:42:41.606262  5361 net.cpp:409] ip3 -> ip3
I0505 08:42:41.606627  5361 net.cpp:144] Setting up ip3
I0505 08:42:41.606633  5361 net.cpp:151] Top shape: 20 50 (1000)
I0505 08:42:41.606637  5361 net.cpp:159] Memory required for data: 2290640
I0505 08:42:41.606642  5361 layer_factory.hpp:77] Creating layer ip3_ip3_0_split
I0505 08:42:41.606647  5361 net.cpp:94] Creating Layer ip3_ip3_0_split
I0505 08:42:41.606650  5361 net.cpp:435] ip3_ip3_0_split <- ip3
I0505 08:42:41.606654  5361 net.cpp:409] ip3_ip3_0_split -> ip3_ip3_0_split_0
I0505 08:42:41.606660  5361 net.cpp:409] ip3_ip3_0_split -> ip3_ip3_0_split_1
I0505 08:42:41.606683  5361 net.cpp:144] Setting up ip3_ip3_0_split
I0505 08:42:41.606688  5361 net.cpp:151] Top shape: 20 50 (1000)
I0505 08:42:41.606693  5361 net.cpp:151] Top shape: 20 50 (1000)
I0505 08:42:41.606695  5361 net.cpp:159] Memory required for data: 2298640
I0505 08:42:41.606698  5361 layer_factory.hpp:77] Creating layer accuracy
I0505 08:42:41.606703  5361 net.cpp:94] Creating Layer accuracy
I0505 08:42:41.606708  5361 net.cpp:435] accuracy <- ip3_ip3_0_split_0
I0505 08:42:41.606711  5361 net.cpp:435] accuracy <- label_intercept_1_split_0
I0505 08:42:41.606715  5361 net.cpp:409] accuracy -> accuracy
…
