…
I0501 19:31:01.949169 14280 net.cpp:323] The NetState phase (0) differed from the phase (1) specified by a rule in layer intercept
I0501 19:31:01.949187 14280 net.cpp:323] The NetState phase (0) differed from the phase (1) specified by a rule in layer loss
I0501 19:31:01.949282 14280 net.cpp:52] Initializing net from parameters: 
state {
  phase: TRAIN
}
layer {
  name: "parameters"
  type: "HDF5Data"
  top: "data"
  top: "label"
  include {
    phase: TRAIN
  }
  hdf5_data_param {
    source: "/home/purduethu/scratch/radon/d/deng106/CNNStatisticalModel/distributions/input/20_distributions_100_sample_size_train-parameters-path.txt"
    batch_size: 20
  }
}
layer {
  name: "conv1"
  type: "Convolution"
  bottom: "data"
  top: "conv1"
  param {
    lr_mult: 1
  }
  param {
    lr_mult: 2
  }
  convolution_param {
    num_output: 64
    pad: 2
    kernel_size: 5
    stride: 1
    weight_filler {
      type: "gaussian"
      std: 0.0001
    }
    bias_filler {
      type: "constant"
    }
  }
}
layer {
  name: "relu1"
  type: "ReLU"
  bottom: "conv1"
  top: "conv1"
}
layer {
  name: "conv2"
  type: "Convolution"
  bottom: "conv1"
  top: "conv2"
  param {
    lr_mult: 1
  }
  param {
    lr_mult: 2
  }
  convolution_param {
    num_output: 64
    pad: 2
    kernel_size: 5
    stride: 1
    weight_filler {
      type: "gaussian"
      std: 0.01
    }
    bias_filler {
      type: "constant"
    }
  }
}
layer {
  name: "relu2"
  type: "ReLU"
  bottom: "conv2"
  top: "conv2"
}
layer {
  name: "pool2"
  type: "Pooling"
  bottom: "conv2"
  top: "pool2"
  pooling_param {
    pool: MAX
    kernel_size: 3
    stride: 2
  }
}
layer {
  name: "conv3"
  type: "Convolution"
  bottom: "pool2"
  top: "conv3"
  param {
    lr_mult: 1
  }
  param {
    lr_mult: 2
  }
  convolution_param {
    num_output: 64
    pad: 2
    kernel_size: 5
    stride: 1
    weight_filler {
      type: "gaussian"
      std: 0.01
    }
    bias_filler {
      type: "constant"
    }
  }
}
layer {
  name: "relu3"
  type: "ReLU"
  bottom: "conv3"
  top: "conv3"
}
layer {
  name: "conv4"
  type: "Convolution"
  bottom: "conv3"
  top: "conv4"
  param {
    lr_mult: 1
  }
  param {
    lr_mult: 2
  }
  convolution_param {
    num_output: 64
    pad: 2
    kernel_size: 5
    stride: 1
    weight_filler {
      type: "gaussian"
      std: 0.01
    }
    bias_filler {
      type: "constant"
    }
  }
}
layer {
  name: "relu4"
  type: "ReLU"
  bottom: "conv4"
  top: "conv4"
}
layer {
  name: "conv5"
  type: "Convolution"
  bottom: "conv4"
  top: "conv5"
  param {
    lr_mult: 1
  }
  param {
    lr_mult: 2
  }
  convolution_param {
    num_output: 64
    pad: 2
    kernel_size: 5
    stride: 1
    weight_filler {
      type: "gaussian"
      std: 0.01
    }
    bias_filler {
      type: "constant"
    }
  }
}
layer {
  name: "relu5"
  type: "ReLU"
  bottom: "conv5"
  top: "conv5"
}
layer {
  name: "pool5"
  type: "Pooling"
  bottom: "conv5"
  top: "pool5"
  pooling_param {
    pool: AVE
    kernel_size: 3
    stride: 2
  }
}
layer {
  name: "ip1"
  type: "InnerProduct"
  bottom: "pool5"
  top: "ip1"
  param {
    lr_mult: 1
  }
  param {
    lr_mult: 2
  }
  inner_product_param {
    num_output: 64
    weight_filler {
      type: "gaussian"
      std: 0.1
    }
    bias_filler {
      type: "constant"
    }
  }
}
layer {
  name: "ip2"
  type: "InnerProduct"
  bottom: "ip1"
  top: "ip2"
  param {
    lr_mult: 1
  }
  param {
    lr_mult: 2
  }
  inner_product_param {
    num_output: 64
    weight_filler {
      type: "gaussian"
      std: 0.1
    }
    bias_filler {
      type: "constant"
    }
  }
}
layer {
  name: "ip3"
  type: "InnerProduct"
  bottom: "ip2"
  top: "ip3"
  param {
    lr_mult: 1
  }
  param {
    lr_mult: 2
  }
  inner_product_param {
    num_output: 1
    weight_filler {
      type: "gaussian"
      std: 0.1
    }
    bias_filler {
      type: "constant"
    }
  }
}
layer {
  name: "loss"
  type: "HuberLoss"
  bottom: "ip3"
  bottom: "label"
  top: "loss"
  include {
    phase: TRAIN
  }
}
I0501 19:31:01.949358 14280 layer_factory.hpp:77] Creating layer parameters
I0501 19:31:01.949373 14280 net.cpp:94] Creating Layer parameters
I0501 19:31:01.949378 14280 net.cpp:409] parameters -> data
I0501 19:31:01.949398 14280 net.cpp:409] parameters -> label
I0501 19:31:01.949409 14280 hdf5_data_layer.cpp:79] Loading list of HDF5 filenames from: /home/purduethu/scratch/radon/d/deng106/CNNStatisticalModel/distributions/input/20_distributions_100_sample_size_train-parameters-path.txt
I0501 19:31:01.949432 14280 hdf5_data_layer.cpp:93] Number of HDF5 files: 1
I0501 19:31:01.950001 14280 hdf5.cpp:32] Datatype class: H5T_FLOAT
I0501 19:31:02.017194 14280 net.cpp:144] Setting up parameters
I0501 19:31:02.017228 14280 net.cpp:151] Top shape: 20 1 10 10 (2000)
I0501 19:31:02.017235 14280 net.cpp:151] Top shape: 20 (20)
I0501 19:31:02.017238 14280 net.cpp:159] Memory required for data: 8080
I0501 19:31:02.017246 14280 layer_factory.hpp:77] Creating layer conv1
I0501 19:31:02.017271 14280 net.cpp:94] Creating Layer conv1
I0501 19:31:02.017277 14280 net.cpp:435] conv1 <- data
I0501 19:31:02.017288 14280 net.cpp:409] conv1 -> conv1
I0501 19:31:02.021081 14280 net.cpp:144] Setting up conv1
I0501 19:31:02.021096 14280 net.cpp:151] Top shape: 20 64 10 10 (128000)
I0501 19:31:02.021100 14280 net.cpp:159] Memory required for data: 520080
I0501 19:31:02.021112 14280 layer_factory.hpp:77] Creating layer relu1
I0501 19:31:02.021121 14280 net.cpp:94] Creating Layer relu1
I0501 19:31:02.021124 14280 net.cpp:435] relu1 <- conv1
I0501 19:31:02.021129 14280 net.cpp:396] relu1 -> conv1 (in-place)
I0501 19:31:02.021145 14280 net.cpp:144] Setting up relu1
I0501 19:31:02.021150 14280 net.cpp:151] Top shape: 20 64 10 10 (128000)
I0501 19:31:02.021154 14280 net.cpp:159] Memory required for data: 1032080
I0501 19:31:02.021157 14280 layer_factory.hpp:77] Creating layer conv2
I0501 19:31:02.021165 14280 net.cpp:94] Creating Layer conv2
I0501 19:31:02.021169 14280 net.cpp:435] conv2 <- conv1
I0501 19:31:02.021174 14280 net.cpp:409] conv2 -> conv2
I0501 19:31:02.026321 14280 net.cpp:144] Setting up conv2
I0501 19:31:02.026335 14280 net.cpp:151] Top shape: 20 64 10 10 (128000)
I0501 19:31:02.026340 14280 net.cpp:159] Memory required for data: 1544080
I0501 19:31:02.026348 14280 layer_factory.hpp:77] Creating layer relu2
I0501 19:31:02.026355 14280 net.cpp:94] Creating Layer relu2
I0501 19:31:02.026360 14280 net.cpp:435] relu2 <- conv2
I0501 19:31:02.026365 14280 net.cpp:396] relu2 -> conv2 (in-place)
I0501 19:31:02.026371 14280 net.cpp:144] Setting up relu2
I0501 19:31:02.026376 14280 net.cpp:151] Top shape: 20 64 10 10 (128000)
I0501 19:31:02.026379 14280 net.cpp:159] Memory required for data: 2056080
I0501 19:31:02.026382 14280 layer_factory.hpp:77] Creating layer pool2
I0501 19:31:02.026391 14280 net.cpp:94] Creating Layer pool2
I0501 19:31:02.026399 14280 net.cpp:435] pool2 <- conv2
I0501 19:31:02.026406 14280 net.cpp:409] pool2 -> pool2
I0501 19:31:02.026449 14280 net.cpp:144] Setting up pool2
I0501 19:31:02.026456 14280 net.cpp:151] Top shape: 20 64 5 5 (32000)
I0501 19:31:02.026460 14280 net.cpp:159] Memory required for data: 2184080
I0501 19:31:02.026463 14280 layer_factory.hpp:77] Creating layer conv3
I0501 19:31:02.026471 14280 net.cpp:94] Creating Layer conv3
I0501 19:31:02.026475 14280 net.cpp:435] conv3 <- pool2
I0501 19:31:02.026480 14280 net.cpp:409] conv3 -> conv3
I0501 19:31:02.031250 14280 net.cpp:144] Setting up conv3
I0501 19:31:02.031263 14280 net.cpp:151] Top shape: 20 64 5 5 (32000)
I0501 19:31:02.031267 14280 net.cpp:159] Memory required for data: 2312080
I0501 19:31:02.031275 14280 layer_factory.hpp:77] Creating layer relu3
I0501 19:31:02.031282 14280 net.cpp:94] Creating Layer relu3
I0501 19:31:02.031286 14280 net.cpp:435] relu3 <- conv3
I0501 19:31:02.031291 14280 net.cpp:396] relu3 -> conv3 (in-place)
I0501 19:31:02.031298 14280 net.cpp:144] Setting up relu3
I0501 19:31:02.031303 14280 net.cpp:151] Top shape: 20 64 5 5 (32000)
I0501 19:31:02.031306 14280 net.cpp:159] Memory required for data: 2440080
I0501 19:31:02.031309 14280 layer_factory.hpp:77] Creating layer conv4
I0501 19:31:02.031318 14280 net.cpp:94] Creating Layer conv4
I0501 19:31:02.031322 14280 net.cpp:435] conv4 <- conv3
I0501 19:31:02.031327 14280 net.cpp:409] conv4 -> conv4
I0501 19:31:02.035645 14280 net.cpp:144] Setting up conv4
I0501 19:31:02.035658 14280 net.cpp:151] Top shape: 20 64 5 5 (32000)
I0501 19:31:02.035662 14280 net.cpp:159] Memory required for data: 2568080
I0501 19:31:02.035670 14280 layer_factory.hpp:77] Creating layer relu4
I0501 19:31:02.035676 14280 net.cpp:94] Creating Layer relu4
I0501 19:31:02.035679 14280 net.cpp:435] relu4 <- conv4
I0501 19:31:02.035684 14280 net.cpp:396] relu4 -> conv4 (in-place)
I0501 19:31:02.035691 14280 net.cpp:144] Setting up relu4
I0501 19:31:02.035696 14280 net.cpp:151] Top shape: 20 64 5 5 (32000)
I0501 19:31:02.035699 14280 net.cpp:159] Memory required for data: 2696080
I0501 19:31:02.035703 14280 layer_factory.hpp:77] Creating layer conv5
I0501 19:31:02.035711 14280 net.cpp:94] Creating Layer conv5
I0501 19:31:02.035714 14280 net.cpp:435] conv5 <- conv4
I0501 19:31:02.035719 14280 net.cpp:409] conv5 -> conv5
I0501 19:31:02.041097 14280 net.cpp:144] Setting up conv5
I0501 19:31:02.041111 14280 net.cpp:151] Top shape: 20 64 5 5 (32000)
I0501 19:31:02.041115 14280 net.cpp:159] Memory required for data: 2824080
I0501 19:31:02.041124 14280 layer_factory.hpp:77] Creating layer relu5
I0501 19:31:02.041131 14280 net.cpp:94] Creating Layer relu5
I0501 19:31:02.041136 14280 net.cpp:435] relu5 <- conv5
I0501 19:31:02.041139 14280 net.cpp:396] relu5 -> conv5 (in-place)
I0501 19:31:02.041146 14280 net.cpp:144] Setting up relu5
I0501 19:31:02.041152 14280 net.cpp:151] Top shape: 20 64 5 5 (32000)
I0501 19:31:02.041155 14280 net.cpp:159] Memory required for data: 2952080
I0501 19:31:02.041158 14280 layer_factory.hpp:77] Creating layer pool5
I0501 19:31:02.041163 14280 net.cpp:94] Creating Layer pool5
I0501 19:31:02.041167 14280 net.cpp:435] pool5 <- conv5
I0501 19:31:02.041172 14280 net.cpp:409] pool5 -> pool5
I0501 19:31:02.041204 14280 net.cpp:144] Setting up pool5
I0501 19:31:02.041211 14280 net.cpp:151] Top shape: 20 64 2 2 (5120)
I0501 19:31:02.041215 14280 net.cpp:159] Memory required for data: 2972560
I0501 19:31:02.041218 14280 layer_factory.hpp:77] Creating layer ip1
I0501 19:31:02.041229 14280 net.cpp:94] Creating Layer ip1
I0501 19:31:02.041232 14280 net.cpp:435] ip1 <- pool5
I0501 19:31:02.041237 14280 net.cpp:409] ip1 -> ip1
I0501 19:31:02.042362 14280 net.cpp:144] Setting up ip1
I0501 19:31:02.042376 14280 net.cpp:151] Top shape: 20 64 (1280)
I0501 19:31:02.042381 14280 net.cpp:159] Memory required for data: 2977680
I0501 19:31:02.042387 14280 layer_factory.hpp:77] Creating layer ip2
I0501 19:31:02.042393 14280 net.cpp:94] Creating Layer ip2
I0501 19:31:02.042397 14280 net.cpp:435] ip2 <- ip1
I0501 19:31:02.042407 14280 net.cpp:409] ip2 -> ip2
I0501 19:31:02.042577 14280 net.cpp:144] Setting up ip2
I0501 19:31:02.042584 14280 net.cpp:151] Top shape: 20 64 (1280)
I0501 19:31:02.042588 14280 net.cpp:159] Memory required for data: 2982800
I0501 19:31:02.042593 14280 layer_factory.hpp:77] Creating layer ip3
I0501 19:31:02.042599 14280 net.cpp:94] Creating Layer ip3
I0501 19:31:02.042603 14280 net.cpp:435] ip3 <- ip2
I0501 19:31:02.042608 14280 net.cpp:409] ip3 -> ip3
I0501 19:31:02.042672 14280 net.cpp:144] Setting up ip3
I0501 19:31:02.042678 14280 net.cpp:151] Top shape: 20 1 (20)
I0501 19:31:02.042687 14280 net.cpp:159] Memory required for data: 2982880
I0501 19:31:02.042692 14280 layer_factory.hpp:77] Creating layer loss
I0501 19:31:02.042699 14280 net.cpp:94] Creating Layer loss
I0501 19:31:02.042703 14280 net.cpp:435] loss <- ip3
I0501 19:31:02.042707 14280 net.cpp:435] loss <- label
I0501 19:31:02.042713 14280 net.cpp:409] loss -> loss
I0501 19:31:02.042753 14280 net.cpp:144] Setting up loss
…
