…
I0506 05:49:07.486114 19594 net.cpp:323] The NetState phase (0) differed from the phase (1) specified by a rule in layer intercept
I0506 05:49:07.486131 19594 net.cpp:323] The NetState phase (0) differed from the phase (1) specified by a rule in layer loss
I0506 05:49:07.486212 19594 net.cpp:52] Initializing net from parameters: 
state {
  phase: TRAIN
}
layer {
  name: "parameters"
  type: "HDF5Data"
  top: "data"
  top: "label"
  include {
    phase: TRAIN
  }
  hdf5_data_param {
    source: "/home/purduethu/scratch/radon/d/deng106/CNNStatisticalModel/distributions/input/50_distributions_100_sample_size_train-parameters-path.txt"
    batch_size: 20
  }
}
layer {
  name: "conv1"
  type: "Convolution"
  bottom: "data"
  top: "conv1"
  param {
    lr_mult: 1
  }
  param {
    lr_mult: 2
  }
  convolution_param {
    num_output: 64
    pad: 2
    kernel_size: 5
    stride: 1
    weight_filler {
      type: "gaussian"
      std: 0.0001
    }
    bias_filler {
      type: "constant"
    }
  }
}
layer {
  name: "relu1"
  type: "ReLU"
  bottom: "conv1"
  top: "conv1"
}
layer {
  name: "conv2"
  type: "Convolution"
  bottom: "conv1"
  top: "conv2"
  param {
    lr_mult: 1
  }
  param {
    lr_mult: 2
  }
  convolution_param {
    num_output: 64
    pad: 2
    kernel_size: 5
    stride: 1
    weight_filler {
      type: "gaussian"
      std: 0.01
    }
    bias_filler {
      type: "constant"
    }
  }
}
layer {
  name: "relu2"
  type: "ReLU"
  bottom: "conv2"
  top: "conv2"
}
layer {
  name: "pool2"
  type: "Pooling"
  bottom: "conv2"
  top: "pool2"
  pooling_param {
    pool: MAX
    kernel_size: 3
    stride: 2
  }
}
layer {
  name: "conv3"
  type: "Convolution"
  bottom: "pool2"
  top: "conv3"
  param {
    lr_mult: 1
  }
  param {
    lr_mult: 2
  }
  convolution_param {
    num_output: 128
    pad: 2
    kernel_size: 5
    stride: 1
    weight_filler {
      type: "gaussian"
      std: 0.01
    }
    bias_filler {
      type: "constant"
    }
  }
}
layer {
  name: "relu3"
  type: "ReLU"
  bottom: "conv3"
  top: "conv3"
}
layer {
  name: "conv4"
  type: "Convolution"
  bottom: "conv3"
  top: "conv4"
  param {
    lr_mult: 1
  }
  param {
    lr_mult: 2
  }
  convolution_param {
    num_output: 128
    pad: 2
    kernel_size: 5
    stride: 1
    weight_filler {
      type: "gaussian"
      std: 0.01
    }
    bias_filler {
      type: "constant"
    }
  }
}
layer {
  name: "relu4"
  type: "ReLU"
  bottom: "conv4"
  top: "conv4"
}
layer {
  name: "conv5"
  type: "Convolution"
  bottom: "conv4"
  top: "conv5"
  param {
    lr_mult: 1
  }
  param {
    lr_mult: 2
  }
  convolution_param {
    num_output: 128
    pad: 2
    kernel_size: 5
    stride: 1
    weight_filler {
      type: "gaussian"
      std: 0.01
    }
    bias_filler {
      type: "constant"
    }
  }
}
layer {
  name: "relu5"
  type: "ReLU"
  bottom: "conv5"
  top: "conv5"
}
layer {
  name: "pool5"
  type: "Pooling"
  bottom: "conv5"
  top: "pool5"
  pooling_param {
    pool: AVE
    kernel_size: 3
    stride: 2
  }
}
layer {
  name: "ip1"
  type: "InnerProduct"
  bottom: "pool5"
  top: "ip1"
  param {
    lr_mult: 1
  }
  param {
    lr_mult: 2
  }
  inner_product_param {
    num_output: 1024
    weight_filler {
      type: "gaussian"
      std: 0.1
    }
    bias_filler {
      type: "constant"
    }
  }
}
layer {
  name: "ip2"
  type: "InnerProduct"
  bottom: "ip1"
  top: "ip2"
  param {
    lr_mult: 1
  }
  param {
    lr_mult: 2
  }
  inner_product_param {
    num_output: 512
    weight_filler {
      type: "gaussian"
      std: 0.1
    }
    bias_filler {
      type: "constant"
    }
  }
}
layer {
  name: "ip3"
  type: "InnerProduct"
  bottom: "ip2"
  top: "ip3"
  param {
    lr_mult: 1
  }
  param {
    lr_mult: 2
  }
  inner_product_param {
    num_output: 1
    weight_filler {
      type: "gaussian"
      std: 0.1
    }
    bias_filler {
      type: "constant"
    }
  }
}
layer {
  name: "loss"
  type: "HuberLoss"
  bottom: "ip3"
  bottom: "label"
  top: "loss"
  include {
    phase: TRAIN
  }
}
I0506 05:49:07.486268 19594 layer_factory.hpp:77] Creating layer parameters
I0506 05:49:07.486284 19594 net.cpp:94] Creating Layer parameters
I0506 05:49:07.486289 19594 net.cpp:409] parameters -> data
I0506 05:49:07.486299 19594 net.cpp:409] parameters -> label
I0506 05:49:07.486305 19594 hdf5_data_layer.cpp:79] Loading list of HDF5 filenames from: /home/purduethu/scratch/radon/d/deng106/CNNStatisticalModel/distributions/input/50_distributions_100_sample_size_train-parameters-path.txt
I0506 05:49:07.486321 19594 hdf5_data_layer.cpp:93] Number of HDF5 files: 1
I0506 05:49:07.486873 19594 hdf5.cpp:32] Datatype class: H5T_FLOAT
I0506 05:49:07.651626 19594 net.cpp:144] Setting up parameters
I0506 05:49:07.651659 19594 net.cpp:151] Top shape: 20 1 10 10 (2000)
I0506 05:49:07.651665 19594 net.cpp:151] Top shape: 20 (20)
I0506 05:49:07.651669 19594 net.cpp:159] Memory required for data: 8080
I0506 05:49:07.651675 19594 layer_factory.hpp:77] Creating layer conv1
I0506 05:49:07.651692 19594 net.cpp:94] Creating Layer conv1
I0506 05:49:07.651697 19594 net.cpp:435] conv1 <- data
I0506 05:49:07.651705 19594 net.cpp:409] conv1 -> conv1
I0506 05:49:07.655946 19594 net.cpp:144] Setting up conv1
I0506 05:49:07.655972 19594 net.cpp:151] Top shape: 20 64 10 10 (128000)
I0506 05:49:07.655975 19594 net.cpp:159] Memory required for data: 520080
I0506 05:49:07.655987 19594 layer_factory.hpp:77] Creating layer relu1
I0506 05:49:07.655997 19594 net.cpp:94] Creating Layer relu1
I0506 05:49:07.656002 19594 net.cpp:435] relu1 <- conv1
I0506 05:49:07.656008 19594 net.cpp:396] relu1 -> conv1 (in-place)
I0506 05:49:07.656016 19594 net.cpp:144] Setting up relu1
I0506 05:49:07.656020 19594 net.cpp:151] Top shape: 20 64 10 10 (128000)
I0506 05:49:07.656024 19594 net.cpp:159] Memory required for data: 1032080
I0506 05:49:07.656028 19594 layer_factory.hpp:77] Creating layer conv2
I0506 05:49:07.656036 19594 net.cpp:94] Creating Layer conv2
I0506 05:49:07.656039 19594 net.cpp:435] conv2 <- conv1
I0506 05:49:07.656044 19594 net.cpp:409] conv2 -> conv2
I0506 05:49:07.662137 19594 net.cpp:144] Setting up conv2
I0506 05:49:07.662156 19594 net.cpp:151] Top shape: 20 64 10 10 (128000)
I0506 05:49:07.662160 19594 net.cpp:159] Memory required for data: 1544080
I0506 05:49:07.662170 19594 layer_factory.hpp:77] Creating layer relu2
I0506 05:49:07.662178 19594 net.cpp:94] Creating Layer relu2
I0506 05:49:07.662183 19594 net.cpp:435] relu2 <- conv2
I0506 05:49:07.662187 19594 net.cpp:396] relu2 -> conv2 (in-place)
I0506 05:49:07.662195 19594 net.cpp:144] Setting up relu2
I0506 05:49:07.662200 19594 net.cpp:151] Top shape: 20 64 10 10 (128000)
I0506 05:49:07.662204 19594 net.cpp:159] Memory required for data: 2056080
I0506 05:49:07.662206 19594 layer_factory.hpp:77] Creating layer pool2
I0506 05:49:07.662212 19594 net.cpp:94] Creating Layer pool2
I0506 05:49:07.662215 19594 net.cpp:435] pool2 <- conv2
I0506 05:49:07.662220 19594 net.cpp:409] pool2 -> pool2
I0506 05:49:07.662281 19594 net.cpp:144] Setting up pool2
I0506 05:49:07.662288 19594 net.cpp:151] Top shape: 20 64 5 5 (32000)
I0506 05:49:07.662292 19594 net.cpp:159] Memory required for data: 2184080
I0506 05:49:07.662295 19594 layer_factory.hpp:77] Creating layer conv3
I0506 05:49:07.662304 19594 net.cpp:94] Creating Layer conv3
I0506 05:49:07.662314 19594 net.cpp:435] conv3 <- pool2
I0506 05:49:07.662320 19594 net.cpp:409] conv3 -> conv3
I0506 05:49:07.670588 19594 net.cpp:144] Setting up conv3
I0506 05:49:07.670609 19594 net.cpp:151] Top shape: 20 128 5 5 (64000)
I0506 05:49:07.670614 19594 net.cpp:159] Memory required for data: 2440080
I0506 05:49:07.670622 19594 layer_factory.hpp:77] Creating layer relu3
I0506 05:49:07.670630 19594 net.cpp:94] Creating Layer relu3
I0506 05:49:07.670634 19594 net.cpp:435] relu3 <- conv3
I0506 05:49:07.670639 19594 net.cpp:396] relu3 -> conv3 (in-place)
I0506 05:49:07.670647 19594 net.cpp:144] Setting up relu3
I0506 05:49:07.670652 19594 net.cpp:151] Top shape: 20 128 5 5 (64000)
I0506 05:49:07.670655 19594 net.cpp:159] Memory required for data: 2696080
I0506 05:49:07.670658 19594 layer_factory.hpp:77] Creating layer conv4
I0506 05:49:07.670667 19594 net.cpp:94] Creating Layer conv4
I0506 05:49:07.670671 19594 net.cpp:435] conv4 <- conv3
I0506 05:49:07.670675 19594 net.cpp:409] conv4 -> conv4
I0506 05:49:07.685688 19594 net.cpp:144] Setting up conv4
I0506 05:49:07.685719 19594 net.cpp:151] Top shape: 20 128 5 5 (64000)
I0506 05:49:07.685724 19594 net.cpp:159] Memory required for data: 2952080
I0506 05:49:07.685732 19594 layer_factory.hpp:77] Creating layer relu4
I0506 05:49:07.685742 19594 net.cpp:94] Creating Layer relu4
I0506 05:49:07.685746 19594 net.cpp:435] relu4 <- conv4
I0506 05:49:07.685752 19594 net.cpp:396] relu4 -> conv4 (in-place)
I0506 05:49:07.685761 19594 net.cpp:144] Setting up relu4
I0506 05:49:07.685771 19594 net.cpp:151] Top shape: 20 128 5 5 (64000)
I0506 05:49:07.685775 19594 net.cpp:159] Memory required for data: 3208080
I0506 05:49:07.685777 19594 layer_factory.hpp:77] Creating layer conv5
I0506 05:49:07.685787 19594 net.cpp:94] Creating Layer conv5
I0506 05:49:07.685791 19594 net.cpp:435] conv5 <- conv4
I0506 05:49:07.685797 19594 net.cpp:409] conv5 -> conv5
I0506 05:49:07.700698 19594 net.cpp:144] Setting up conv5
I0506 05:49:07.700727 19594 net.cpp:151] Top shape: 20 128 5 5 (64000)
I0506 05:49:07.700731 19594 net.cpp:159] Memory required for data: 3464080
I0506 05:49:07.700744 19594 layer_factory.hpp:77] Creating layer relu5
I0506 05:49:07.700754 19594 net.cpp:94] Creating Layer relu5
I0506 05:49:07.700759 19594 net.cpp:435] relu5 <- conv5
I0506 05:49:07.700764 19594 net.cpp:396] relu5 -> conv5 (in-place)
I0506 05:49:07.700774 19594 net.cpp:144] Setting up relu5
I0506 05:49:07.700779 19594 net.cpp:151] Top shape: 20 128 5 5 (64000)
I0506 05:49:07.700783 19594 net.cpp:159] Memory required for data: 3720080
I0506 05:49:07.700785 19594 layer_factory.hpp:77] Creating layer pool5
I0506 05:49:07.700791 19594 net.cpp:94] Creating Layer pool5
I0506 05:49:07.700794 19594 net.cpp:435] pool5 <- conv5
I0506 05:49:07.700799 19594 net.cpp:409] pool5 -> pool5
I0506 05:49:07.700850 19594 net.cpp:144] Setting up pool5
I0506 05:49:07.700858 19594 net.cpp:151] Top shape: 20 128 2 2 (10240)
I0506 05:49:07.700861 19594 net.cpp:159] Memory required for data: 3761040
I0506 05:49:07.700865 19594 layer_factory.hpp:77] Creating layer ip1
I0506 05:49:07.700875 19594 net.cpp:94] Creating Layer ip1
I0506 05:49:07.700880 19594 net.cpp:435] ip1 <- pool5
I0506 05:49:07.700884 19594 net.cpp:409] ip1 -> ip1
I0506 05:49:07.715237 19594 net.cpp:144] Setting up ip1
I0506 05:49:07.715265 19594 net.cpp:151] Top shape: 20 1024 (20480)
I0506 05:49:07.715268 19594 net.cpp:159] Memory required for data: 3842960
I0506 05:49:07.715277 19594 layer_factory.hpp:77] Creating layer ip2
I0506 05:49:07.715288 19594 net.cpp:94] Creating Layer ip2
I0506 05:49:07.715293 19594 net.cpp:435] ip2 <- ip1
I0506 05:49:07.715299 19594 net.cpp:409] ip2 -> ip2
I0506 05:49:07.728687 19594 net.cpp:144] Setting up ip2
I0506 05:49:07.728714 19594 net.cpp:151] Top shape: 20 512 (10240)
I0506 05:49:07.728718 19594 net.cpp:159] Memory required for data: 3883920
I0506 05:49:07.728727 19594 layer_factory.hpp:77] Creating layer ip3
I0506 05:49:07.728737 19594 net.cpp:94] Creating Layer ip3
I0506 05:49:07.728742 19594 net.cpp:435] ip3 <- ip2
I0506 05:49:07.728756 19594 net.cpp:409] ip3 -> ip3
I0506 05:49:07.728878 19594 net.cpp:144] Setting up ip3
I0506 05:49:07.728888 19594 net.cpp:151] Top shape: 20 1 (20)
I0506 05:49:07.728890 19594 net.cpp:159] Memory required for data: 3884000
I0506 05:49:07.728896 19594 layer_factory.hpp:77] Creating layer loss
I0506 05:49:07.728912 19594 net.cpp:94] Creating Layer loss
I0506 05:49:07.728916 19594 net.cpp:435] loss <- ip3
I0506 05:49:07.728919 19594 net.cpp:435] loss <- label
I0506 05:49:07.728924 19594 net.cpp:409] loss -> loss
I0506 05:49:07.728976 19594 net.cpp:144] Setting up loss
…
I0506 05:49:07.838246 19594 net.cpp:323] The NetState phase (0) differed from the phase (1) specified by a rule in layer intercept
I0506 05:49:07.838264 19594 net.cpp:323] The NetState phase (0) differed from the phase (1) specified by a rule in layer accuracy
I0506 05:49:07.838351 19594 net.cpp:52] Initializing net from parameters: 
state {
  phase: TRAIN
}
layer {
  name: "parameters"
  type: "HDF5Data"
  top: "data"
  top: "label"
  include {
    phase: TRAIN
  }
  hdf5_data_param {
    source: "/home/purduethu/scratch/radon/d/deng106/CNNStatisticalModel/distributions/input/50_distributions_100_sample_size_train-distributions-path.txt"
    batch_size: 20
  }
}
layer {
  name: "conv1"
  type: "Convolution"
  bottom: "data"
  top: "conv1"
  param {
    lr_mult: 1
  }
  param {
    lr_mult: 2
  }
  convolution_param {
    num_output: 64
    pad: 2
    kernel_size: 5
    stride: 1
    weight_filler {
      type: "gaussian"
      std: 0.0001
    }
    bias_filler {
      type: "constant"
    }
  }
}
layer {
  name: "relu1"
  type: "ReLU"
  bottom: "conv1"
  top: "conv1"
}
layer {
  name: "conv2"
  type: "Convolution"
  bottom: "conv1"
  top: "conv2"
  param {
    lr_mult: 1
  }
  param {
    lr_mult: 2
  }
  convolution_param {
    num_output: 64
    pad: 2
    kernel_size: 5
    stride: 1
    weight_filler {
      type: "gaussian"
      std: 0.01
    }
    bias_filler {
      type: "constant"
    }
  }
}
layer {
  name: "relu2"
  type: "ReLU"
  bottom: "conv2"
  top: "conv2"
}
layer {
  name: "pool2"
  type: "Pooling"
  bottom: "conv2"
  top: "pool2"
  pooling_param {
    pool: MAX
    kernel_size: 3
    stride: 2
  }
}
layer {
  name: "conv3"
  type: "Convolution"
  bottom: "pool2"
  top: "conv3"
  param {
    lr_mult: 1
  }
  param {
    lr_mult: 2
  }
  convolution_param {
    num_output: 128
    pad: 2
    kernel_size: 5
    stride: 1
    weight_filler {
      type: "gaussian"
      std: 0.01
    }
    bias_filler {
      type: "constant"
    }
  }
}
layer {
  name: "relu3"
  type: "ReLU"
  bottom: "conv3"
  top: "conv3"
}
layer {
  name: "conv4"
  type: "Convolution"
  bottom: "conv3"
  top: "conv4"
  param {
    lr_mult: 1
  }
  param {
    lr_mult: 2
  }
  convolution_param {
    num_output: 128
    pad: 2
    kernel_size: 5
    stride: 1
    weight_filler {
      type: "gaussian"
      std: 0.01
    }
    bias_filler {
      type: "constant"
    }
  }
}
layer {
  name: "relu4"
  type: "ReLU"
  bottom: "conv4"
  top: "conv4"
}
layer {
  name: "conv5"
  type: "Convolution"
  bottom: "conv4"
  top: "conv5"
  param {
    lr_mult: 1
  }
  param {
    lr_mult: 2
  }
  convolution_param {
    num_output: 128
    pad: 2
    kernel_size: 5
    stride: 1
    weight_filler {
      type: "gaussian"
      std: 0.01
    }
    bias_filler {
      type: "constant"
    }
  }
}
layer {
  name: "relu5"
  type: "ReLU"
  bottom: "conv5"
  top: "conv5"
}
layer {
  name: "pool5"
  type: "Pooling"
  bottom: "conv5"
  top: "pool5"
  pooling_param {
    pool: AVE
    kernel_size: 3
    stride: 2
  }
}
layer {
  name: "ip1"
  type: "InnerProduct"
  bottom: "pool5"
  top: "ip1"
  param {
    lr_mult: 1
  }
  param {
    lr_mult: 2
  }
  inner_product_param {
    num_output: 1024
    weight_filler {
      type: "gaussian"
      std: 0.1
    }
    bias_filler {
      type: "constant"
    }
  }
}
layer {
  name: "ip2"
  type: "InnerProduct"
  bottom: "ip1"
  top: "ip2"
  param {
    lr_mult: 1
  }
  param {
    lr_mult: 2
  }
  inner_product_param {
    num_output: 512
    weight_filler {
      type: "gaussian"
      std: 0.1
    }
    bias_filler {
      type: "constant"
    }
  }
}
layer {
  name: "ip3"
  type: "InnerProduct"
  bottom: "ip2"
  top: "ip3"
  param {
    lr_mult: 1
  }
  param {
    lr_mult: 2
  }
  inner_product_param {
    num_output: 50
    weight_filler {
      type: "gaussian"
      std: 0.1
    }
    bias_filler {
      type: "constant"
    }
  }
}
layer {
  name: "loss"
  type: "SoftmaxWithLoss"
  bottom: "ip3"
  bottom: "label"
  top: "loss"
}
I0506 05:49:07.838402 19594 layer_factory.hpp:77] Creating layer parameters
I0506 05:49:07.838412 19594 net.cpp:94] Creating Layer parameters
I0506 05:49:07.838415 19594 net.cpp:409] parameters -> data
I0506 05:49:07.838423 19594 net.cpp:409] parameters -> label
I0506 05:49:07.838428 19594 hdf5_data_layer.cpp:79] Loading list of HDF5 filenames from: /home/purduethu/scratch/radon/d/deng106/CNNStatisticalModel/distributions/input/50_distributions_100_sample_size_train-distributions-path.txt
I0506 05:49:07.838445 19594 hdf5_data_layer.cpp:93] Number of HDF5 files: 1
I0506 05:49:07.996984 19594 hdf5.cpp:35] Datatype class: H5T_INTEGER
I0506 05:49:08.000048 19594 net.cpp:144] Setting up parameters
I0506 05:49:08.000077 19594 net.cpp:151] Top shape: 20 1 10 10 (2000)
I0506 05:49:08.000082 19594 net.cpp:151] Top shape: 20 (20)
I0506 05:49:08.000084 19594 net.cpp:159] Memory required for data: 8080
I0506 05:49:08.000092 19594 layer_factory.hpp:77] Creating layer conv1
I0506 05:49:08.000108 19594 net.cpp:94] Creating Layer conv1
I0506 05:49:08.000113 19594 net.cpp:435] conv1 <- data
I0506 05:49:08.000120 19594 net.cpp:409] conv1 -> conv1
I0506 05:49:08.001919 19594 net.cpp:144] Setting up conv1
I0506 05:49:08.001936 19594 net.cpp:151] Top shape: 20 64 10 10 (128000)
I0506 05:49:08.001940 19594 net.cpp:159] Memory required for data: 520080
I0506 05:49:08.001952 19594 layer_factory.hpp:77] Creating layer relu1
I0506 05:49:08.001960 19594 net.cpp:94] Creating Layer relu1
I0506 05:49:08.001965 19594 net.cpp:435] relu1 <- conv1
I0506 05:49:08.001969 19594 net.cpp:396] relu1 -> conv1 (in-place)
I0506 05:49:08.001977 19594 net.cpp:144] Setting up relu1
I0506 05:49:08.001982 19594 net.cpp:151] Top shape: 20 64 10 10 (128000)
I0506 05:49:08.001986 19594 net.cpp:159] Memory required for data: 1032080
I0506 05:49:08.001988 19594 layer_factory.hpp:77] Creating layer conv2
I0506 05:49:08.001996 19594 net.cpp:94] Creating Layer conv2
I0506 05:49:08.002001 19594 net.cpp:435] conv2 <- conv1
I0506 05:49:08.002005 19594 net.cpp:409] conv2 -> conv2
I0506 05:49:08.007416 19594 net.cpp:144] Setting up conv2
I0506 05:49:08.007433 19594 net.cpp:151] Top shape: 20 64 10 10 (128000)
I0506 05:49:08.007437 19594 net.cpp:159] Memory required for data: 1544080
I0506 05:49:08.007447 19594 layer_factory.hpp:77] Creating layer relu2
I0506 05:49:08.007455 19594 net.cpp:94] Creating Layer relu2
I0506 05:49:08.007459 19594 net.cpp:435] relu2 <- conv2
I0506 05:49:08.007463 19594 net.cpp:396] relu2 -> conv2 (in-place)
I0506 05:49:08.007472 19594 net.cpp:144] Setting up relu2
I0506 05:49:08.007477 19594 net.cpp:151] Top shape: 20 64 10 10 (128000)
I0506 05:49:08.007479 19594 net.cpp:159] Memory required for data: 2056080
I0506 05:49:08.007483 19594 layer_factory.hpp:77] Creating layer pool2
I0506 05:49:08.007488 19594 net.cpp:94] Creating Layer pool2
I0506 05:49:08.007491 19594 net.cpp:435] pool2 <- conv2
I0506 05:49:08.007496 19594 net.cpp:409] pool2 -> pool2
I0506 05:49:08.007555 19594 net.cpp:144] Setting up pool2
I0506 05:49:08.007563 19594 net.cpp:151] Top shape: 20 64 5 5 (32000)
I0506 05:49:08.007566 19594 net.cpp:159] Memory required for data: 2184080
I0506 05:49:08.007570 19594 layer_factory.hpp:77] Creating layer conv3
I0506 05:49:08.007577 19594 net.cpp:94] Creating Layer conv3
I0506 05:49:08.007581 19594 net.cpp:435] conv3 <- pool2
I0506 05:49:08.007586 19594 net.cpp:409] conv3 -> conv3
I0506 05:49:08.016471 19594 net.cpp:144] Setting up conv3
I0506 05:49:08.016495 19594 net.cpp:151] Top shape: 20 128 5 5 (64000)
I0506 05:49:08.016499 19594 net.cpp:159] Memory required for data: 2440080
I0506 05:49:08.016511 19594 layer_factory.hpp:77] Creating layer relu3
I0506 05:49:08.016520 19594 net.cpp:94] Creating Layer relu3
I0506 05:49:08.016525 19594 net.cpp:435] relu3 <- conv3
I0506 05:49:08.016530 19594 net.cpp:396] relu3 -> conv3 (in-place)
I0506 05:49:08.016544 19594 net.cpp:144] Setting up relu3
I0506 05:49:08.016562 19594 net.cpp:151] Top shape: 20 128 5 5 (64000)
I0506 05:49:08.016567 19594 net.cpp:159] Memory required for data: 2696080
I0506 05:49:08.016571 19594 layer_factory.hpp:77] Creating layer conv4
I0506 05:49:08.016580 19594 net.cpp:94] Creating Layer conv4
I0506 05:49:08.016584 19594 net.cpp:435] conv4 <- conv3
I0506 05:49:08.016589 19594 net.cpp:409] conv4 -> conv4
I0506 05:49:08.031342 19594 net.cpp:144] Setting up conv4
I0506 05:49:08.031371 19594 net.cpp:151] Top shape: 20 128 5 5 (64000)
I0506 05:49:08.031375 19594 net.cpp:159] Memory required for data: 2952080
I0506 05:49:08.031385 19594 layer_factory.hpp:77] Creating layer relu4
I0506 05:49:08.031394 19594 net.cpp:94] Creating Layer relu4
I0506 05:49:08.031399 19594 net.cpp:435] relu4 <- conv4
I0506 05:49:08.031404 19594 net.cpp:396] relu4 -> conv4 (in-place)
I0506 05:49:08.031414 19594 net.cpp:144] Setting up relu4
I0506 05:49:08.031419 19594 net.cpp:151] Top shape: 20 128 5 5 (64000)
I0506 05:49:08.031422 19594 net.cpp:159] Memory required for data: 3208080
I0506 05:49:08.031425 19594 layer_factory.hpp:77] Creating layer conv5
I0506 05:49:08.031435 19594 net.cpp:94] Creating Layer conv5
I0506 05:49:08.031438 19594 net.cpp:435] conv5 <- conv4
I0506 05:49:08.031443 19594 net.cpp:409] conv5 -> conv5
I0506 05:49:08.046819 19594 net.cpp:144] Setting up conv5
I0506 05:49:08.046845 19594 net.cpp:151] Top shape: 20 128 5 5 (64000)
I0506 05:49:08.046849 19594 net.cpp:159] Memory required for data: 3464080
I0506 05:49:08.046862 19594 layer_factory.hpp:77] Creating layer relu5
I0506 05:49:08.046872 19594 net.cpp:94] Creating Layer relu5
I0506 05:49:08.046876 19594 net.cpp:435] relu5 <- conv5
I0506 05:49:08.046882 19594 net.cpp:396] relu5 -> conv5 (in-place)
I0506 05:49:08.046892 19594 net.cpp:144] Setting up relu5
I0506 05:49:08.046896 19594 net.cpp:151] Top shape: 20 128 5 5 (64000)
I0506 05:49:08.046900 19594 net.cpp:159] Memory required for data: 3720080
I0506 05:49:08.046903 19594 layer_factory.hpp:77] Creating layer pool5
I0506 05:49:08.046908 19594 net.cpp:94] Creating Layer pool5
I0506 05:49:08.046912 19594 net.cpp:435] pool5 <- conv5
I0506 05:49:08.046916 19594 net.cpp:409] pool5 -> pool5
I0506 05:49:08.046974 19594 net.cpp:144] Setting up pool5
I0506 05:49:08.046983 19594 net.cpp:151] Top shape: 20 128 2 2 (10240)
I0506 05:49:08.046985 19594 net.cpp:159] Memory required for data: 3761040
I0506 05:49:08.046988 19594 layer_factory.hpp:77] Creating layer ip1
I0506 05:49:08.046996 19594 net.cpp:94] Creating Layer ip1
I0506 05:49:08.046999 19594 net.cpp:435] ip1 <- pool5
I0506 05:49:08.047004 19594 net.cpp:409] ip1 -> ip1
I0506 05:49:08.060475 19594 net.cpp:144] Setting up ip1
I0506 05:49:08.060506 19594 net.cpp:151] Top shape: 20 1024 (20480)
I0506 05:49:08.060510 19594 net.cpp:159] Memory required for data: 3842960
I0506 05:49:08.060519 19594 layer_factory.hpp:77] Creating layer ip2
I0506 05:49:08.060529 19594 net.cpp:94] Creating Layer ip2
I0506 05:49:08.060534 19594 net.cpp:435] ip2 <- ip1
I0506 05:49:08.060541 19594 net.cpp:409] ip2 -> ip2
I0506 05:49:08.074041 19594 net.cpp:144] Setting up ip2
I0506 05:49:08.074074 19594 net.cpp:151] Top shape: 20 512 (10240)
I0506 05:49:08.074079 19594 net.cpp:159] Memory required for data: 3883920
I0506 05:49:08.074087 19594 layer_factory.hpp:77] Creating layer ip3
I0506 05:49:08.074097 19594 net.cpp:94] Creating Layer ip3
I0506 05:49:08.074102 19594 net.cpp:435] ip3 <- ip2
I0506 05:49:08.074108 19594 net.cpp:409] ip3 -> ip3
I0506 05:49:08.075832 19594 net.cpp:144] Setting up ip3
I0506 05:49:08.075853 19594 net.cpp:151] Top shape: 20 50 (1000)
I0506 05:49:08.075857 19594 net.cpp:159] Memory required for data: 3887920
I0506 05:49:08.075865 19594 layer_factory.hpp:77] Creating layer loss
I0506 05:49:08.075876 19594 net.cpp:94] Creating Layer loss
I0506 05:49:08.075881 19594 net.cpp:435] loss <- ip3
I0506 05:49:08.075886 19594 net.cpp:435] loss <- label
I0506 05:49:08.075891 19594 net.cpp:409] loss -> loss
I0506 05:49:08.075902 19594 layer_factory.hpp:77] Creating layer loss
…
I0506 05:49:08.076452 19594 solver.cpp:181] Creating test net (#0) specified by net file: ./protocol/dis_50_100_dimension.protocol_distribution
I0506 05:49:08.076480 19594 net.cpp:323] The NetState phase (1) differed from the phase (0) specified by a rule in layer parameters
I0506 05:49:08.076581 19594 net.cpp:52] Initializing net from parameters: 
state {
  phase: TEST
}
layer {
  name: "intercept"
  type: "HDF5Data"
  top: "data"
  top: "label"
  include {
    phase: TEST
  }
  hdf5_data_param {
    source: "/home/purduethu/scratch/radon/d/deng106/CNNStatisticalModel/distributions/input/50_distributions_100_sample_size_test-distributions-path.txt"
    batch_size: 20
  }
}
layer {
  name: "conv1"
  type: "Convolution"
  bottom: "data"
  top: "conv1"
  param {
    lr_mult: 1
  }
  param {
    lr_mult: 2
  }
  convolution_param {
    num_output: 64
    pad: 2
    kernel_size: 5
    stride: 1
    weight_filler {
      type: "gaussian"
      std: 0.0001
    }
    bias_filler {
      type: "constant"
    }
  }
}
layer {
  name: "relu1"
  type: "ReLU"
  bottom: "conv1"
  top: "conv1"
}
layer {
  name: "conv2"
  type: "Convolution"
  bottom: "conv1"
  top: "conv2"
  param {
    lr_mult: 1
  }
  param {
    lr_mult: 2
  }
  convolution_param {
    num_output: 64
    pad: 2
    kernel_size: 5
    stride: 1
    weight_filler {
      type: "gaussian"
      std: 0.01
    }
    bias_filler {
      type: "constant"
    }
  }
}
layer {
  name: "relu2"
  type: "ReLU"
  bottom: "conv2"
  top: "conv2"
}
layer {
  name: "pool2"
  type: "Pooling"
  bottom: "conv2"
  top: "pool2"
  pooling_param {
    pool: MAX
    kernel_size: 3
    stride: 2
  }
}
layer {
  name: "conv3"
  type: "Convolution"
  bottom: "pool2"
  top: "conv3"
  param {
    lr_mult: 1
  }
  param {
    lr_mult: 2
  }
  convolution_param {
    num_output: 128
    pad: 2
    kernel_size: 5
    stride: 1
    weight_filler {
      type: "gaussian"
      std: 0.01
    }
    bias_filler {
      type: "constant"
    }
  }
}
layer {
  name: "relu3"
  type: "ReLU"
  bottom: "conv3"
  top: "conv3"
}
layer {
  name: "conv4"
  type: "Convolution"
  bottom: "conv3"
  top: "conv4"
  param {
    lr_mult: 1
  }
  param {
    lr_mult: 2
  }
  convolution_param {
    num_output: 128
    pad: 2
    kernel_size: 5
    stride: 1
    weight_filler {
      type: "gaussian"
      std: 0.01
    }
    bias_filler {
      type: "constant"
    }
  }
}
layer {
  name: "relu4"
  type: "ReLU"
  bottom: "conv4"
  top: "conv4"
}
layer {
  name: "conv5"
  type: "Convolution"
  bottom: "conv4"
  top: "conv5"
  param {
    lr_mult: 1
  }
  param {
    lr_mult: 2
  }
  convolution_param {
    num_output: 128
    pad: 2
    kernel_size: 5
    stride: 1
    weight_filler {
      type: "gaussian"
      std: 0.01
    }
    bias_filler {
      type: "constant"
    }
  }
}
layer {
  name: "relu5"
  type: "ReLU"
  bottom: "conv5"
  top: "conv5"
}
layer {
  name: "pool5"
  type: "Pooling"
  bottom: "conv5"
  top: "pool5"
  pooling_param {
    pool: AVE
    kernel_size: 3
    stride: 2
  }
}
layer {
  name: "ip1"
  type: "InnerProduct"
  bottom: "pool5"
  top: "ip1"
  param {
    lr_mult: 1
  }
  param {
    lr_mult: 2
  }
  inner_product_param {
    num_output: 1024
    weight_filler {
      type: "gaussian"
      std: 0.1
    }
    bias_filler {
      type: "constant"
    }
  }
}
layer {
  name: "ip2"
  type: "InnerProduct"
  bottom: "ip1"
  top: "ip2"
  param {
    lr_mult: 1
  }
  param {
    lr_mult: 2
  }
  inner_product_param {
    num_output: 512
    weight_filler {
      type: "gaussian"
      std: 0.1
    }
    bias_filler {
      type: "constant"
    }
  }
}
layer {
  name: "ip3"
  type: "InnerProduct"
  bottom: "ip2"
  top: "ip3"
  param {
    lr_mult: 1
  }
  param {
    lr_mult: 2
  }
  inner_product_param {
    num_output: 50
    weight_filler {
      type: "gaussian"
      std: 0.1
    }
    bias_filler {
      type: "constant"
    }
  }
}
layer {
  name: "accuracy"
  type: "Accuracy"
  bottom: "ip3"
  bottom: "label"
  top: "accuracy"
  include {
    phase: TEST
  }
}
layer {
  name: "loss"
  type: "SoftmaxWithLoss"
  bottom: "ip3"
  bottom: "label"
  top: "loss"
}
I0506 05:49:08.076648 19594 layer_factory.hpp:77] Creating layer intercept
I0506 05:49:08.076658 19594 net.cpp:94] Creating Layer intercept
I0506 05:49:08.076663 19594 net.cpp:409] intercept -> data
I0506 05:49:08.076669 19594 net.cpp:409] intercept -> label
I0506 05:49:08.076675 19594 hdf5_data_layer.cpp:79] Loading list of HDF5 filenames from: /home/purduethu/scratch/radon/d/deng106/CNNStatisticalModel/distributions/input/50_distributions_100_sample_size_test-distributions-path.txt
I0506 05:49:08.076696 19594 hdf5_data_layer.cpp:93] Number of HDF5 files: 1
I0506 05:49:08.118646 19594 net.cpp:144] Setting up intercept
I0506 05:49:08.118680 19594 net.cpp:151] Top shape: 20 1 10 10 (2000)
I0506 05:49:08.118685 19594 net.cpp:151] Top shape: 20 (20)
I0506 05:49:08.118688 19594 net.cpp:159] Memory required for data: 8080
I0506 05:49:08.118695 19594 layer_factory.hpp:77] Creating layer label_intercept_1_split
I0506 05:49:08.118713 19594 net.cpp:94] Creating Layer label_intercept_1_split
I0506 05:49:08.118717 19594 net.cpp:435] label_intercept_1_split <- label
I0506 05:49:08.118724 19594 net.cpp:409] label_intercept_1_split -> label_intercept_1_split_0
I0506 05:49:08.118733 19594 net.cpp:409] label_intercept_1_split -> label_intercept_1_split_1
I0506 05:49:08.118774 19594 net.cpp:144] Setting up label_intercept_1_split
I0506 05:49:08.118780 19594 net.cpp:151] Top shape: 20 (20)
I0506 05:49:08.118784 19594 net.cpp:151] Top shape: 20 (20)
I0506 05:49:08.118788 19594 net.cpp:159] Memory required for data: 8240
I0506 05:49:08.118791 19594 layer_factory.hpp:77] Creating layer conv1
I0506 05:49:08.118803 19594 net.cpp:94] Creating Layer conv1
I0506 05:49:08.118806 19594 net.cpp:435] conv1 <- data
I0506 05:49:08.118811 19594 net.cpp:409] conv1 -> conv1
I0506 05:49:08.119635 19594 net.cpp:144] Setting up conv1
I0506 05:49:08.119649 19594 net.cpp:151] Top shape: 20 64 10 10 (128000)
I0506 05:49:08.119653 19594 net.cpp:159] Memory required for data: 520240
I0506 05:49:08.119663 19594 layer_factory.hpp:77] Creating layer relu1
I0506 05:49:08.119670 19594 net.cpp:94] Creating Layer relu1
I0506 05:49:08.119674 19594 net.cpp:435] relu1 <- conv1
I0506 05:49:08.119679 19594 net.cpp:396] relu1 -> conv1 (in-place)
I0506 05:49:08.119686 19594 net.cpp:144] Setting up relu1
I0506 05:49:08.119690 19594 net.cpp:151] Top shape: 20 64 10 10 (128000)
I0506 05:49:08.119701 19594 net.cpp:159] Memory required for data: 1032240
I0506 05:49:08.119704 19594 layer_factory.hpp:77] Creating layer conv2
I0506 05:49:08.119712 19594 net.cpp:94] Creating Layer conv2
I0506 05:49:08.119716 19594 net.cpp:435] conv2 <- conv1
I0506 05:49:08.119721 19594 net.cpp:409] conv2 -> conv2
I0506 05:49:08.123864 19594 net.cpp:144] Setting up conv2
I0506 05:49:08.123883 19594 net.cpp:151] Top shape: 20 64 10 10 (128000)
I0506 05:49:08.123885 19594 net.cpp:159] Memory required for data: 1544240
I0506 05:49:08.123895 19594 layer_factory.hpp:77] Creating layer relu2
I0506 05:49:08.123905 19594 net.cpp:94] Creating Layer relu2
I0506 05:49:08.123908 19594 net.cpp:435] relu2 <- conv2
I0506 05:49:08.123914 19594 net.cpp:396] relu2 -> conv2 (in-place)
I0506 05:49:08.123921 19594 net.cpp:144] Setting up relu2
I0506 05:49:08.123925 19594 net.cpp:151] Top shape: 20 64 10 10 (128000)
I0506 05:49:08.123929 19594 net.cpp:159] Memory required for data: 2056240
I0506 05:49:08.123931 19594 layer_factory.hpp:77] Creating layer pool2
I0506 05:49:08.123939 19594 net.cpp:94] Creating Layer pool2
I0506 05:49:08.123941 19594 net.cpp:435] pool2 <- conv2
I0506 05:49:08.123946 19594 net.cpp:409] pool2 -> pool2
I0506 05:49:08.124004 19594 net.cpp:144] Setting up pool2
I0506 05:49:08.124011 19594 net.cpp:151] Top shape: 20 64 5 5 (32000)
I0506 05:49:08.124014 19594 net.cpp:159] Memory required for data: 2184240
I0506 05:49:08.124017 19594 layer_factory.hpp:77] Creating layer conv3
I0506 05:49:08.124027 19594 net.cpp:94] Creating Layer conv3
I0506 05:49:08.124029 19594 net.cpp:435] conv3 <- pool2
I0506 05:49:08.124035 19594 net.cpp:409] conv3 -> conv3
I0506 05:49:08.130213 19594 net.cpp:144] Setting up conv3
I0506 05:49:08.130234 19594 net.cpp:151] Top shape: 20 128 5 5 (64000)
I0506 05:49:08.130236 19594 net.cpp:159] Memory required for data: 2440240
I0506 05:49:08.130246 19594 layer_factory.hpp:77] Creating layer relu3
I0506 05:49:08.130254 19594 net.cpp:94] Creating Layer relu3
I0506 05:49:08.130259 19594 net.cpp:435] relu3 <- conv3
I0506 05:49:08.130264 19594 net.cpp:396] relu3 -> conv3 (in-place)
I0506 05:49:08.130271 19594 net.cpp:144] Setting up relu3
I0506 05:49:08.130276 19594 net.cpp:151] Top shape: 20 128 5 5 (64000)
I0506 05:49:08.130280 19594 net.cpp:159] Memory required for data: 2696240
I0506 05:49:08.130282 19594 layer_factory.hpp:77] Creating layer conv4
I0506 05:49:08.130291 19594 net.cpp:94] Creating Layer conv4
I0506 05:49:08.130295 19594 net.cpp:435] conv4 <- conv3
I0506 05:49:08.130300 19594 net.cpp:409] conv4 -> conv4
I0506 05:49:08.143375 19594 net.cpp:144] Setting up conv4
I0506 05:49:08.143404 19594 net.cpp:151] Top shape: 20 128 5 5 (64000)
I0506 05:49:08.143406 19594 net.cpp:159] Memory required for data: 2952240
I0506 05:49:08.143415 19594 layer_factory.hpp:77] Creating layer relu4
I0506 05:49:08.143424 19594 net.cpp:94] Creating Layer relu4
I0506 05:49:08.143429 19594 net.cpp:435] relu4 <- conv4
I0506 05:49:08.143435 19594 net.cpp:396] relu4 -> conv4 (in-place)
I0506 05:49:08.143443 19594 net.cpp:144] Setting up relu4
I0506 05:49:08.143447 19594 net.cpp:151] Top shape: 20 128 5 5 (64000)
I0506 05:49:08.143450 19594 net.cpp:159] Memory required for data: 3208240
I0506 05:49:08.143453 19594 layer_factory.hpp:77] Creating layer conv5
I0506 05:49:08.143465 19594 net.cpp:94] Creating Layer conv5
I0506 05:49:08.143468 19594 net.cpp:435] conv5 <- conv4
I0506 05:49:08.143473 19594 net.cpp:409] conv5 -> conv5
I0506 05:49:08.156525 19594 net.cpp:144] Setting up conv5
I0506 05:49:08.156566 19594 net.cpp:151] Top shape: 20 128 5 5 (64000)
I0506 05:49:08.156571 19594 net.cpp:159] Memory required for data: 3464240
I0506 05:49:08.156585 19594 layer_factory.hpp:77] Creating layer relu5
I0506 05:49:08.156595 19594 net.cpp:94] Creating Layer relu5
I0506 05:49:08.156599 19594 net.cpp:435] relu5 <- conv5
I0506 05:49:08.156605 19594 net.cpp:396] relu5 -> conv5 (in-place)
I0506 05:49:08.156615 19594 net.cpp:144] Setting up relu5
I0506 05:49:08.156618 19594 net.cpp:151] Top shape: 20 128 5 5 (64000)
I0506 05:49:08.156628 19594 net.cpp:159] Memory required for data: 3720240
I0506 05:49:08.156631 19594 layer_factory.hpp:77] Creating layer pool5
I0506 05:49:08.156637 19594 net.cpp:94] Creating Layer pool5
I0506 05:49:08.156641 19594 net.cpp:435] pool5 <- conv5
I0506 05:49:08.156644 19594 net.cpp:409] pool5 -> pool5
I0506 05:49:08.156692 19594 net.cpp:144] Setting up pool5
I0506 05:49:08.156698 19594 net.cpp:151] Top shape: 20 128 2 2 (10240)
I0506 05:49:08.156702 19594 net.cpp:159] Memory required for data: 3761200
I0506 05:49:08.156704 19594 layer_factory.hpp:77] Creating layer ip1
I0506 05:49:08.156713 19594 net.cpp:94] Creating Layer ip1
I0506 05:49:08.156716 19594 net.cpp:435] ip1 <- pool5
I0506 05:49:08.156721 19594 net.cpp:409] ip1 -> ip1
I0506 05:49:08.170193 19594 net.cpp:144] Setting up ip1
I0506 05:49:08.170222 19594 net.cpp:151] Top shape: 20 1024 (20480)
I0506 05:49:08.170225 19594 net.cpp:159] Memory required for data: 3843120
I0506 05:49:08.170233 19594 layer_factory.hpp:77] Creating layer ip2
I0506 05:49:08.170243 19594 net.cpp:94] Creating Layer ip2
I0506 05:49:08.170248 19594 net.cpp:435] ip2 <- ip1
I0506 05:49:08.170254 19594 net.cpp:409] ip2 -> ip2
I0506 05:49:08.183856 19594 net.cpp:144] Setting up ip2
I0506 05:49:08.183887 19594 net.cpp:151] Top shape: 20 512 (10240)
I0506 05:49:08.183890 19594 net.cpp:159] Memory required for data: 3884080
I0506 05:49:08.183899 19594 layer_factory.hpp:77] Creating layer ip3
I0506 05:49:08.183913 19594 net.cpp:94] Creating Layer ip3
I0506 05:49:08.183918 19594 net.cpp:435] ip3 <- ip2
I0506 05:49:08.183925 19594 net.cpp:409] ip3 -> ip3
I0506 05:49:08.184705 19594 net.cpp:144] Setting up ip3
I0506 05:49:08.184715 19594 net.cpp:151] Top shape: 20 50 (1000)
I0506 05:49:08.184718 19594 net.cpp:159] Memory required for data: 3888080
I0506 05:49:08.184725 19594 layer_factory.hpp:77] Creating layer ip3_ip3_0_split
I0506 05:49:08.184731 19594 net.cpp:94] Creating Layer ip3_ip3_0_split
I0506 05:49:08.184736 19594 net.cpp:435] ip3_ip3_0_split <- ip3
I0506 05:49:08.184741 19594 net.cpp:409] ip3_ip3_0_split -> ip3_ip3_0_split_0
I0506 05:49:08.184746 19594 net.cpp:409] ip3_ip3_0_split -> ip3_ip3_0_split_1
I0506 05:49:08.184792 19594 net.cpp:144] Setting up ip3_ip3_0_split
I0506 05:49:08.184798 19594 net.cpp:151] Top shape: 20 50 (1000)
I0506 05:49:08.184801 19594 net.cpp:151] Top shape: 20 50 (1000)
I0506 05:49:08.184804 19594 net.cpp:159] Memory required for data: 3896080
I0506 05:49:08.184808 19594 layer_factory.hpp:77] Creating layer accuracy
I0506 05:49:08.184814 19594 net.cpp:94] Creating Layer accuracy
I0506 05:49:08.184818 19594 net.cpp:435] accuracy <- ip3_ip3_0_split_0
I0506 05:49:08.184823 19594 net.cpp:435] accuracy <- label_intercept_1_split_0
I0506 05:49:08.184826 19594 net.cpp:409] accuracy -> accuracy
…
