…
I0507 16:54:07.239791  4995 net.cpp:323] The NetState phase (0) differed from the phase (1) specified by a rule in layer intercept
I0507 16:54:07.239807  4995 net.cpp:323] The NetState phase (0) differed from the phase (1) specified by a rule in layer loss
I0507 16:54:07.239888  4995 net.cpp:52] Initializing net from parameters: 
state {
  phase: TRAIN
}
layer {
  name: "parameters"
  type: "HDF5Data"
  top: "data"
  top: "label"
  include {
    phase: TRAIN
  }
  hdf5_data_param {
    source: "/home/purduethu/scratch/radon/d/deng106/CNNStatisticalModel/distributions/input/20_distributions_400_sample_size_train-parameters-path.txt"
    batch_size: 20
  }
}
layer {
  name: "conv1"
  type: "Convolution"
  bottom: "data"
  top: "conv1"
  param {
    lr_mult: 1
  }
  param {
    lr_mult: 2
  }
  convolution_param {
    num_output: 64
    pad: 2
    kernel_size: 5
    stride: 1
    weight_filler {
      type: "gaussian"
      std: 0.0001
    }
    bias_filler {
      type: "constant"
    }
  }
}
layer {
  name: "relu1"
  type: "ReLU"
  bottom: "conv1"
  top: "conv1"
}
layer {
  name: "conv2"
  type: "Convolution"
  bottom: "conv1"
  top: "conv2"
  param {
    lr_mult: 1
  }
  param {
    lr_mult: 2
  }
  convolution_param {
    num_output: 64
    pad: 2
    kernel_size: 5
    stride: 1
    weight_filler {
      type: "gaussian"
      std: 0.01
    }
    bias_filler {
      type: "constant"
    }
  }
}
layer {
  name: "relu2"
  type: "ReLU"
  bottom: "conv2"
  top: "conv2"
}
layer {
  name: "pool2"
  type: "Pooling"
  bottom: "conv2"
  top: "pool2"
  pooling_param {
    pool: MAX
    kernel_size: 3
    stride: 2
  }
}
layer {
  name: "conv3"
  type: "Convolution"
  bottom: "pool2"
  top: "conv3"
  param {
    lr_mult: 1
  }
  param {
    lr_mult: 2
  }
  convolution_param {
    num_output: 64
    pad: 2
    kernel_size: 5
    stride: 1
    weight_filler {
      type: "gaussian"
      std: 0.01
    }
    bias_filler {
      type: "constant"
    }
  }
}
layer {
  name: "relu3"
  type: "ReLU"
  bottom: "conv3"
  top: "conv3"
}
layer {
  name: "conv4"
  type: "Convolution"
  bottom: "conv3"
  top: "conv4"
  param {
    lr_mult: 1
  }
  param {
    lr_mult: 2
  }
  convolution_param {
    num_output: 64
    pad: 2
    kernel_size: 5
    stride: 1
    weight_filler {
      type: "gaussian"
      std: 0.01
    }
    bias_filler {
      type: "constant"
    }
  }
}
layer {
  name: "relu4"
  type: "ReLU"
  bottom: "conv4"
  top: "conv4"
}
layer {
  name: "conv5"
  type: "Convolution"
  bottom: "conv4"
  top: "conv5"
  param {
    lr_mult: 1
  }
  param {
    lr_mult: 2
  }
  convolution_param {
    num_output: 64
    pad: 2
    kernel_size: 5
    stride: 1
    weight_filler {
      type: "gaussian"
      std: 0.01
    }
    bias_filler {
      type: "constant"
    }
  }
}
layer {
  name: "relu5"
  type: "ReLU"
  bottom: "conv5"
  top: "conv5"
}
layer {
  name: "pool5"
  type: "Pooling"
  bottom: "conv5"
  top: "pool5"
  pooling_param {
    pool: AVE
    kernel_size: 3
    stride: 2
  }
}
layer {
  name: "ip1"
  type: "InnerProduct"
  bottom: "pool5"
  top: "ip1"
  param {
    lr_mult: 1
  }
  param {
    lr_mult: 2
  }
  inner_product_param {
    num_output: 64
    weight_filler {
      type: "gaussian"
      std: 0.1
    }
    bias_filler {
      type: "constant"
    }
  }
}
layer {
  name: "ip2"
  type: "InnerProduct"
  bottom: "ip1"
  top: "ip2"
  param {
    lr_mult: 1
  }
  param {
    lr_mult: 2
  }
  inner_product_param {
    num_output: 64
    weight_filler {
      type: "gaussian"
      std: 0.1
    }
    bias_filler {
      type: "constant"
    }
  }
}
layer {
  name: "ip3"
  type: "InnerProduct"
  bottom: "ip2"
  top: "ip3"
  param {
    lr_mult: 1
  }
  param {
    lr_mult: 2
  }
  inner_product_param {
    num_output: 1
    weight_filler {
      type: "gaussian"
      std: 0.1
    }
    bias_filler {
      type: "constant"
    }
  }
}
layer {
  name: "loss"
  type: "HuberLoss"
  bottom: "ip3"
  bottom: "label"
  top: "loss"
  include {
    phase: TRAIN
  }
}
I0507 16:54:07.239943  4995 layer_factory.hpp:77] Creating layer parameters
I0507 16:54:07.239955  4995 net.cpp:94] Creating Layer parameters
I0507 16:54:07.239959  4995 net.cpp:409] parameters -> data
I0507 16:54:07.239969  4995 net.cpp:409] parameters -> label
I0507 16:54:07.239979  4995 hdf5_data_layer.cpp:79] Loading list of HDF5 filenames from: /home/purduethu/scratch/radon/d/deng106/CNNStatisticalModel/distributions/input/20_distributions_400_sample_size_train-parameters-path.txt
I0507 16:54:07.239994  4995 hdf5_data_layer.cpp:93] Number of HDF5 files: 1
I0507 16:54:07.240500  4995 hdf5.cpp:32] Datatype class: H5T_FLOAT
I0507 16:54:07.498004  4995 net.cpp:144] Setting up parameters
I0507 16:54:07.498030  4995 net.cpp:151] Top shape: 20 1 20 20 (8000)
I0507 16:54:07.498035  4995 net.cpp:151] Top shape: 20 (20)
I0507 16:54:07.498039  4995 net.cpp:159] Memory required for data: 32080
I0507 16:54:07.498044  4995 layer_factory.hpp:77] Creating layer conv1
I0507 16:54:07.498064  4995 net.cpp:94] Creating Layer conv1
I0507 16:54:07.498070  4995 net.cpp:435] conv1 <- data
I0507 16:54:07.498075  4995 net.cpp:409] conv1 -> conv1
I0507 16:54:07.503352  4995 net.cpp:144] Setting up conv1
I0507 16:54:07.503367  4995 net.cpp:151] Top shape: 20 64 20 20 (512000)
I0507 16:54:07.503371  4995 net.cpp:159] Memory required for data: 2080080
I0507 16:54:07.503381  4995 layer_factory.hpp:77] Creating layer relu1
I0507 16:54:07.503388  4995 net.cpp:94] Creating Layer relu1
I0507 16:54:07.503391  4995 net.cpp:435] relu1 <- conv1
I0507 16:54:07.503396  4995 net.cpp:396] relu1 -> conv1 (in-place)
I0507 16:54:07.503407  4995 net.cpp:144] Setting up relu1
I0507 16:54:07.503412  4995 net.cpp:151] Top shape: 20 64 20 20 (512000)
I0507 16:54:07.503413  4995 net.cpp:159] Memory required for data: 4128080
I0507 16:54:07.503417  4995 layer_factory.hpp:77] Creating layer conv2
I0507 16:54:07.503424  4995 net.cpp:94] Creating Layer conv2
I0507 16:54:07.503427  4995 net.cpp:435] conv2 <- conv1
I0507 16:54:07.503432  4995 net.cpp:409] conv2 -> conv2
I0507 16:54:07.513389  4995 net.cpp:144] Setting up conv2
I0507 16:54:07.513404  4995 net.cpp:151] Top shape: 20 64 20 20 (512000)
I0507 16:54:07.513407  4995 net.cpp:159] Memory required for data: 6176080
I0507 16:54:07.513419  4995 layer_factory.hpp:77] Creating layer relu2
I0507 16:54:07.513425  4995 net.cpp:94] Creating Layer relu2
I0507 16:54:07.513429  4995 net.cpp:435] relu2 <- conv2
I0507 16:54:07.513433  4995 net.cpp:396] relu2 -> conv2 (in-place)
I0507 16:54:07.513440  4995 net.cpp:144] Setting up relu2
I0507 16:54:07.513444  4995 net.cpp:151] Top shape: 20 64 20 20 (512000)
I0507 16:54:07.513447  4995 net.cpp:159] Memory required for data: 8224080
I0507 16:54:07.513449  4995 layer_factory.hpp:77] Creating layer pool2
I0507 16:54:07.513461  4995 net.cpp:94] Creating Layer pool2
I0507 16:54:07.513465  4995 net.cpp:435] pool2 <- conv2
I0507 16:54:07.513469  4995 net.cpp:409] pool2 -> pool2
I0507 16:54:07.513523  4995 net.cpp:144] Setting up pool2
I0507 16:54:07.513530  4995 net.cpp:151] Top shape: 20 64 10 10 (128000)
I0507 16:54:07.513533  4995 net.cpp:159] Memory required for data: 8736080
I0507 16:54:07.513536  4995 layer_factory.hpp:77] Creating layer conv3
I0507 16:54:07.513545  4995 net.cpp:94] Creating Layer conv3
I0507 16:54:07.513547  4995 net.cpp:435] conv3 <- pool2
I0507 16:54:07.513552  4995 net.cpp:409] conv3 -> conv3
I0507 16:54:07.518689  4995 net.cpp:144] Setting up conv3
I0507 16:54:07.518703  4995 net.cpp:151] Top shape: 20 64 10 10 (128000)
I0507 16:54:07.518707  4995 net.cpp:159] Memory required for data: 9248080
I0507 16:54:07.518714  4995 layer_factory.hpp:77] Creating layer relu3
I0507 16:54:07.518720  4995 net.cpp:94] Creating Layer relu3
I0507 16:54:07.518724  4995 net.cpp:435] relu3 <- conv3
I0507 16:54:07.518728  4995 net.cpp:396] relu3 -> conv3 (in-place)
I0507 16:54:07.518735  4995 net.cpp:144] Setting up relu3
I0507 16:54:07.518739  4995 net.cpp:151] Top shape: 20 64 10 10 (128000)
I0507 16:54:07.518743  4995 net.cpp:159] Memory required for data: 9760080
I0507 16:54:07.518745  4995 layer_factory.hpp:77] Creating layer conv4
I0507 16:54:07.518754  4995 net.cpp:94] Creating Layer conv4
I0507 16:54:07.518756  4995 net.cpp:435] conv4 <- conv3
I0507 16:54:07.518761  4995 net.cpp:409] conv4 -> conv4
I0507 16:54:07.523989  4995 net.cpp:144] Setting up conv4
I0507 16:54:07.524003  4995 net.cpp:151] Top shape: 20 64 10 10 (128000)
I0507 16:54:07.524006  4995 net.cpp:159] Memory required for data: 10272080
I0507 16:54:07.524013  4995 layer_factory.hpp:77] Creating layer relu4
I0507 16:54:07.524019  4995 net.cpp:94] Creating Layer relu4
I0507 16:54:07.524022  4995 net.cpp:435] relu4 <- conv4
I0507 16:54:07.524026  4995 net.cpp:396] relu4 -> conv4 (in-place)
I0507 16:54:07.524034  4995 net.cpp:144] Setting up relu4
I0507 16:54:07.524037  4995 net.cpp:151] Top shape: 20 64 10 10 (128000)
I0507 16:54:07.524040  4995 net.cpp:159] Memory required for data: 10784080
I0507 16:54:07.524044  4995 layer_factory.hpp:77] Creating layer conv5
I0507 16:54:07.524050  4995 net.cpp:94] Creating Layer conv5
I0507 16:54:07.524055  4995 net.cpp:435] conv5 <- conv4
I0507 16:54:07.524060  4995 net.cpp:409] conv5 -> conv5
I0507 16:54:07.530046  4995 net.cpp:144] Setting up conv5
I0507 16:54:07.530059  4995 net.cpp:151] Top shape: 20 64 10 10 (128000)
I0507 16:54:07.530063  4995 net.cpp:159] Memory required for data: 11296080
I0507 16:54:07.530071  4995 layer_factory.hpp:77] Creating layer relu5
I0507 16:54:07.530077  4995 net.cpp:94] Creating Layer relu5
I0507 16:54:07.530081  4995 net.cpp:435] relu5 <- conv5
I0507 16:54:07.530086  4995 net.cpp:396] relu5 -> conv5 (in-place)
I0507 16:54:07.530092  4995 net.cpp:144] Setting up relu5
I0507 16:54:07.530095  4995 net.cpp:151] Top shape: 20 64 10 10 (128000)
I0507 16:54:07.530098  4995 net.cpp:159] Memory required for data: 11808080
I0507 16:54:07.530102  4995 layer_factory.hpp:77] Creating layer pool5
I0507 16:54:07.530107  4995 net.cpp:94] Creating Layer pool5
I0507 16:54:07.530109  4995 net.cpp:435] pool5 <- conv5
I0507 16:54:07.530113  4995 net.cpp:409] pool5 -> pool5
I0507 16:54:07.530153  4995 net.cpp:144] Setting up pool5
I0507 16:54:07.530160  4995 net.cpp:151] Top shape: 20 64 5 5 (32000)
I0507 16:54:07.530164  4995 net.cpp:159] Memory required for data: 11936080
I0507 16:54:07.530166  4995 layer_factory.hpp:77] Creating layer ip1
I0507 16:54:07.530175  4995 net.cpp:94] Creating Layer ip1
I0507 16:54:07.530179  4995 net.cpp:435] ip1 <- pool5
I0507 16:54:07.530184  4995 net.cpp:409] ip1 -> ip1
I0507 16:54:07.532718  4995 net.cpp:144] Setting up ip1
I0507 16:54:07.532728  4995 net.cpp:151] Top shape: 20 64 (1280)
I0507 16:54:07.532732  4995 net.cpp:159] Memory required for data: 11941200
I0507 16:54:07.532737  4995 layer_factory.hpp:77] Creating layer ip2
I0507 16:54:07.532742  4995 net.cpp:94] Creating Layer ip2
I0507 16:54:07.532749  4995 net.cpp:435] ip2 <- ip1
I0507 16:54:07.532755  4995 net.cpp:409] ip2 -> ip2
I0507 16:54:07.532979  4995 net.cpp:144] Setting up ip2
I0507 16:54:07.532985  4995 net.cpp:151] Top shape: 20 64 (1280)
I0507 16:54:07.532989  4995 net.cpp:159] Memory required for data: 11946320
I0507 16:54:07.532992  4995 layer_factory.hpp:77] Creating layer ip3
I0507 16:54:07.532999  4995 net.cpp:94] Creating Layer ip3
I0507 16:54:07.533001  4995 net.cpp:435] ip3 <- ip2
I0507 16:54:07.533005  4995 net.cpp:409] ip3 -> ip3
I0507 16:54:07.533123  4995 net.cpp:144] Setting up ip3
I0507 16:54:07.533129  4995 net.cpp:151] Top shape: 20 1 (20)
I0507 16:54:07.533133  4995 net.cpp:159] Memory required for data: 11946400
I0507 16:54:07.533138  4995 layer_factory.hpp:77] Creating layer loss
I0507 16:54:07.533146  4995 net.cpp:94] Creating Layer loss
I0507 16:54:07.533150  4995 net.cpp:435] loss <- ip3
I0507 16:54:07.533154  4995 net.cpp:435] loss <- label
I0507 16:54:07.533159  4995 net.cpp:409] loss -> loss
I0507 16:54:07.533210  4995 net.cpp:144] Setting up loss
…
I0507 16:54:07.622365  4995 net.cpp:323] The NetState phase (0) differed from the phase (1) specified by a rule in layer intercept
I0507 16:54:07.622380  4995 net.cpp:323] The NetState phase (0) differed from the phase (1) specified by a rule in layer accuracy
I0507 16:54:07.622470  4995 net.cpp:52] Initializing net from parameters: 
state {
  phase: TRAIN
}
layer {
  name: "parameters"
  type: "HDF5Data"
  top: "data"
  top: "label"
  include {
    phase: TRAIN
  }
  hdf5_data_param {
    source: "/home/purduethu/scratch/radon/d/deng106/CNNStatisticalModel/distributions/input/20_distributions_400_sample_size_train-distributions-path.txt"
    batch_size: 20
  }
}
layer {
  name: "conv1"
  type: "Convolution"
  bottom: "data"
  top: "conv1"
  param {
    lr_mult: 1
  }
  param {
    lr_mult: 2
  }
  convolution_param {
    num_output: 64
    pad: 2
    kernel_size: 5
    stride: 1
    weight_filler {
      type: "gaussian"
      std: 0.0001
    }
    bias_filler {
      type: "constant"
    }
  }
}
layer {
  name: "relu1"
  type: "ReLU"
  bottom: "conv1"
  top: "conv1"
}
layer {
  name: "conv2"
  type: "Convolution"
  bottom: "conv1"
  top: "conv2"
  param {
    lr_mult: 1
  }
  param {
    lr_mult: 2
  }
  convolution_param {
    num_output: 64
    pad: 2
    kernel_size: 5
    stride: 1
    weight_filler {
      type: "gaussian"
      std: 0.01
    }
    bias_filler {
      type: "constant"
    }
  }
}
layer {
  name: "relu2"
  type: "ReLU"
  bottom: "conv2"
  top: "conv2"
}
layer {
  name: "pool2"
  type: "Pooling"
  bottom: "conv2"
  top: "pool2"
  pooling_param {
    pool: MAX
    kernel_size: 3
    stride: 2
  }
}
layer {
  name: "conv3"
  type: "Convolution"
  bottom: "pool2"
  top: "conv3"
  param {
    lr_mult: 1
  }
  param {
    lr_mult: 2
  }
  convolution_param {
    num_output: 64
    pad: 2
    kernel_size: 5
    stride: 1
    weight_filler {
      type: "gaussian"
      std: 0.01
    }
    bias_filler {
      type: "constant"
    }
  }
}
layer {
  name: "relu3"
  type: "ReLU"
  bottom: "conv3"
  top: "conv3"
}
layer {
  name: "conv4"
  type: "Convolution"
  bottom: "conv3"
  top: "conv4"
  param {
    lr_mult: 1
  }
  param {
    lr_mult: 2
  }
  convolution_param {
    num_output: 64
    pad: 2
    kernel_size: 5
    stride: 1
    weight_filler {
      type: "gaussian"
      std: 0.01
    }
    bias_filler {
      type: "constant"
    }
  }
}
layer {
  name: "relu4"
  type: "ReLU"
  bottom: "conv4"
  top: "conv4"
}
layer {
  name: "conv5"
  type: "Convolution"
  bottom: "conv4"
  top: "conv5"
  param {
    lr_mult: 1
  }
  param {
    lr_mult: 2
  }
  convolution_param {
    num_output: 64
    pad: 2
    kernel_size: 5
    stride: 1
    weight_filler {
      type: "gaussian"
      std: 0.01
    }
    bias_filler {
      type: "constant"
    }
  }
}
layer {
  name: "relu5"
  type: "ReLU"
  bottom: "conv5"
  top: "conv5"
}
layer {
  name: "pool5"
  type: "Pooling"
  bottom: "conv5"
  top: "pool5"
  pooling_param {
    pool: AVE
    kernel_size: 3
    stride: 2
  }
}
layer {
  name: "ip1"
  type: "InnerProduct"
  bottom: "pool5"
  top: "ip1"
  param {
    lr_mult: 1
  }
  param {
    lr_mult: 2
  }
  inner_product_param {
    num_output: 64
    weight_filler {
      type: "gaussian"
      std: 0.1
    }
    bias_filler {
      type: "constant"
    }
  }
}
layer {
  name: "ip2"
  type: "InnerProduct"
  bottom: "ip1"
  top: "ip2"
  param {
    lr_mult: 1
  }
  param {
    lr_mult: 2
  }
  inner_product_param {
    num_output: 64
    weight_filler {
      type: "gaussian"
      std: 0.1
    }
    bias_filler {
      type: "constant"
    }
  }
}
layer {
  name: "ip3"
  type: "InnerProduct"
  bottom: "ip2"
  top: "ip3"
  param {
    lr_mult: 1
  }
  param {
    lr_mult: 2
  }
  inner_product_param {
    num_output: 50
    weight_filler {
      type: "gaussian"
      std: 0.1
    }
    bias_filler {
      type: "constant"
    }
  }
}
layer {
  name: "loss"
  type: "SoftmaxWithLoss"
  bottom: "ip3"
  bottom: "label"
  top: "loss"
}
I0507 16:54:07.622524  4995 layer_factory.hpp:77] Creating layer parameters
I0507 16:54:07.622532  4995 net.cpp:94] Creating Layer parameters
I0507 16:54:07.622535  4995 net.cpp:409] parameters -> data
I0507 16:54:07.622542  4995 net.cpp:409] parameters -> label
I0507 16:54:07.622547  4995 hdf5_data_layer.cpp:79] Loading list of HDF5 filenames from: /home/purduethu/scratch/radon/d/deng106/CNNStatisticalModel/distributions/input/20_distributions_400_sample_size_train-distributions-path.txt
I0507 16:54:07.622565  4995 hdf5_data_layer.cpp:93] Number of HDF5 files: 1
I0507 16:54:07.879477  4995 hdf5.cpp:35] Datatype class: H5T_INTEGER
I0507 16:54:07.880597  4995 net.cpp:144] Setting up parameters
I0507 16:54:07.880614  4995 net.cpp:151] Top shape: 20 1 20 20 (8000)
I0507 16:54:07.880619  4995 net.cpp:151] Top shape: 20 (20)
I0507 16:54:07.880621  4995 net.cpp:159] Memory required for data: 32080
I0507 16:54:07.880627  4995 layer_factory.hpp:77] Creating layer conv1
I0507 16:54:07.880645  4995 net.cpp:94] Creating Layer conv1
I0507 16:54:07.880650  4995 net.cpp:435] conv1 <- data
I0507 16:54:07.880656  4995 net.cpp:409] conv1 -> conv1
I0507 16:54:07.883383  4995 net.cpp:144] Setting up conv1
I0507 16:54:07.883396  4995 net.cpp:151] Top shape: 20 64 20 20 (512000)
I0507 16:54:07.883400  4995 net.cpp:159] Memory required for data: 2080080
I0507 16:54:07.883409  4995 layer_factory.hpp:77] Creating layer relu1
I0507 16:54:07.883416  4995 net.cpp:94] Creating Layer relu1
I0507 16:54:07.883420  4995 net.cpp:435] relu1 <- conv1
I0507 16:54:07.883424  4995 net.cpp:396] relu1 -> conv1 (in-place)
I0507 16:54:07.883431  4995 net.cpp:144] Setting up relu1
I0507 16:54:07.883435  4995 net.cpp:151] Top shape: 20 64 20 20 (512000)
I0507 16:54:07.883438  4995 net.cpp:159] Memory required for data: 4128080
I0507 16:54:07.883441  4995 layer_factory.hpp:77] Creating layer conv2
I0507 16:54:07.883448  4995 net.cpp:94] Creating Layer conv2
I0507 16:54:07.883451  4995 net.cpp:435] conv2 <- conv1
I0507 16:54:07.883456  4995 net.cpp:409] conv2 -> conv2
I0507 16:54:07.892844  4995 net.cpp:144] Setting up conv2
I0507 16:54:07.892859  4995 net.cpp:151] Top shape: 20 64 20 20 (512000)
I0507 16:54:07.892863  4995 net.cpp:159] Memory required for data: 6176080
I0507 16:54:07.892871  4995 layer_factory.hpp:77] Creating layer relu2
I0507 16:54:07.892877  4995 net.cpp:94] Creating Layer relu2
I0507 16:54:07.892881  4995 net.cpp:435] relu2 <- conv2
I0507 16:54:07.892885  4995 net.cpp:396] relu2 -> conv2 (in-place)
I0507 16:54:07.892892  4995 net.cpp:144] Setting up relu2
I0507 16:54:07.892896  4995 net.cpp:151] Top shape: 20 64 20 20 (512000)
I0507 16:54:07.892899  4995 net.cpp:159] Memory required for data: 8224080
I0507 16:54:07.892902  4995 layer_factory.hpp:77] Creating layer pool2
I0507 16:54:07.892907  4995 net.cpp:94] Creating Layer pool2
I0507 16:54:07.892910  4995 net.cpp:435] pool2 <- conv2
I0507 16:54:07.892915  4995 net.cpp:409] pool2 -> pool2
I0507 16:54:07.892968  4995 net.cpp:144] Setting up pool2
I0507 16:54:07.892976  4995 net.cpp:151] Top shape: 20 64 10 10 (128000)
I0507 16:54:07.892978  4995 net.cpp:159] Memory required for data: 8736080
I0507 16:54:07.892982  4995 layer_factory.hpp:77] Creating layer conv3
I0507 16:54:07.892989  4995 net.cpp:94] Creating Layer conv3
I0507 16:54:07.892992  4995 net.cpp:435] conv3 <- pool2
I0507 16:54:07.893003  4995 net.cpp:409] conv3 -> conv3
I0507 16:54:07.899075  4995 net.cpp:144] Setting up conv3
I0507 16:54:07.899089  4995 net.cpp:151] Top shape: 20 64 10 10 (128000)
I0507 16:54:07.899092  4995 net.cpp:159] Memory required for data: 9248080
I0507 16:54:07.899101  4995 layer_factory.hpp:77] Creating layer relu3
I0507 16:54:07.899106  4995 net.cpp:94] Creating Layer relu3
I0507 16:54:07.899109  4995 net.cpp:435] relu3 <- conv3
I0507 16:54:07.899113  4995 net.cpp:396] relu3 -> conv3 (in-place)
I0507 16:54:07.899121  4995 net.cpp:144] Setting up relu3
I0507 16:54:07.899124  4995 net.cpp:151] Top shape: 20 64 10 10 (128000)
I0507 16:54:07.899127  4995 net.cpp:159] Memory required for data: 9760080
I0507 16:54:07.899130  4995 layer_factory.hpp:77] Creating layer conv4
I0507 16:54:07.899138  4995 net.cpp:94] Creating Layer conv4
I0507 16:54:07.899142  4995 net.cpp:435] conv4 <- conv3
I0507 16:54:07.899147  4995 net.cpp:409] conv4 -> conv4
I0507 16:54:07.904381  4995 net.cpp:144] Setting up conv4
I0507 16:54:07.904393  4995 net.cpp:151] Top shape: 20 64 10 10 (128000)
I0507 16:54:07.904397  4995 net.cpp:159] Memory required for data: 10272080
I0507 16:54:07.904403  4995 layer_factory.hpp:77] Creating layer relu4
I0507 16:54:07.904409  4995 net.cpp:94] Creating Layer relu4
I0507 16:54:07.904412  4995 net.cpp:435] relu4 <- conv4
I0507 16:54:07.904417  4995 net.cpp:396] relu4 -> conv4 (in-place)
I0507 16:54:07.904423  4995 net.cpp:144] Setting up relu4
I0507 16:54:07.904428  4995 net.cpp:151] Top shape: 20 64 10 10 (128000)
I0507 16:54:07.904430  4995 net.cpp:159] Memory required for data: 10784080
I0507 16:54:07.904433  4995 layer_factory.hpp:77] Creating layer conv5
I0507 16:54:07.904440  4995 net.cpp:94] Creating Layer conv5
I0507 16:54:07.904443  4995 net.cpp:435] conv5 <- conv4
I0507 16:54:07.904448  4995 net.cpp:409] conv5 -> conv5
I0507 16:54:07.909667  4995 net.cpp:144] Setting up conv5
I0507 16:54:07.909682  4995 net.cpp:151] Top shape: 20 64 10 10 (128000)
I0507 16:54:07.909684  4995 net.cpp:159] Memory required for data: 11296080
I0507 16:54:07.909693  4995 layer_factory.hpp:77] Creating layer relu5
I0507 16:54:07.909698  4995 net.cpp:94] Creating Layer relu5
I0507 16:54:07.909701  4995 net.cpp:435] relu5 <- conv5
I0507 16:54:07.909706  4995 net.cpp:396] relu5 -> conv5 (in-place)
I0507 16:54:07.909713  4995 net.cpp:144] Setting up relu5
I0507 16:54:07.909716  4995 net.cpp:151] Top shape: 20 64 10 10 (128000)
I0507 16:54:07.909719  4995 net.cpp:159] Memory required for data: 11808080
I0507 16:54:07.909723  4995 layer_factory.hpp:77] Creating layer pool5
I0507 16:54:07.909726  4995 net.cpp:94] Creating Layer pool5
I0507 16:54:07.909729  4995 net.cpp:435] pool5 <- conv5
I0507 16:54:07.909734  4995 net.cpp:409] pool5 -> pool5
I0507 16:54:07.909771  4995 net.cpp:144] Setting up pool5
I0507 16:54:07.909778  4995 net.cpp:151] Top shape: 20 64 5 5 (32000)
I0507 16:54:07.909781  4995 net.cpp:159] Memory required for data: 11936080
I0507 16:54:07.909785  4995 layer_factory.hpp:77] Creating layer ip1
I0507 16:54:07.909790  4995 net.cpp:94] Creating Layer ip1
I0507 16:54:07.909793  4995 net.cpp:435] ip1 <- pool5
I0507 16:54:07.909798  4995 net.cpp:409] ip1 -> ip1
I0507 16:54:07.912340  4995 net.cpp:144] Setting up ip1
I0507 16:54:07.912350  4995 net.cpp:151] Top shape: 20 64 (1280)
I0507 16:54:07.912353  4995 net.cpp:159] Memory required for data: 11941200
I0507 16:54:07.912359  4995 layer_factory.hpp:77] Creating layer ip2
I0507 16:54:07.912365  4995 net.cpp:94] Creating Layer ip2
I0507 16:54:07.912369  4995 net.cpp:435] ip2 <- ip1
I0507 16:54:07.912374  4995 net.cpp:409] ip2 -> ip2
I0507 16:54:07.912611  4995 net.cpp:144] Setting up ip2
I0507 16:54:07.912618  4995 net.cpp:151] Top shape: 20 64 (1280)
I0507 16:54:07.912622  4995 net.cpp:159] Memory required for data: 11946320
I0507 16:54:07.912627  4995 layer_factory.hpp:77] Creating layer ip3
I0507 16:54:07.912633  4995 net.cpp:94] Creating Layer ip3
I0507 16:54:07.912636  4995 net.cpp:435] ip3 <- ip2
I0507 16:54:07.912642  4995 net.cpp:409] ip3 -> ip3
I0507 16:54:07.912843  4995 net.cpp:144] Setting up ip3
I0507 16:54:07.912852  4995 net.cpp:151] Top shape: 20 50 (1000)
I0507 16:54:07.912854  4995 net.cpp:159] Memory required for data: 11950320
I0507 16:54:07.912859  4995 layer_factory.hpp:77] Creating layer loss
I0507 16:54:07.912865  4995 net.cpp:94] Creating Layer loss
I0507 16:54:07.912868  4995 net.cpp:435] loss <- ip3
I0507 16:54:07.912873  4995 net.cpp:435] loss <- label
I0507 16:54:07.912876  4995 net.cpp:409] loss -> loss
I0507 16:54:07.912883  4995 layer_factory.hpp:77] Creating layer loss
…
I0507 16:54:07.913403  4995 solver.cpp:181] Creating test net (#0) specified by net file: ./protocol/dis_20_400_dimension.protocol_distribution
I0507 16:54:07.913429  4995 net.cpp:323] The NetState phase (1) differed from the phase (0) specified by a rule in layer parameters
I0507 16:54:07.913528  4995 net.cpp:52] Initializing net from parameters: 
state {
  phase: TEST
}
layer {
  name: "intercept"
  type: "HDF5Data"
  top: "data"
  top: "label"
  include {
    phase: TEST
  }
  hdf5_data_param {
    source: "/home/purduethu/scratch/radon/d/deng106/CNNStatisticalModel/distributions/input/20_distributions_400_sample_size_test-distributions-path.txt"
    batch_size: 20
  }
}
layer {
  name: "conv1"
  type: "Convolution"
  bottom: "data"
  top: "conv1"
  param {
    lr_mult: 1
  }
  param {
    lr_mult: 2
  }
  convolution_param {
    num_output: 64
    pad: 2
    kernel_size: 5
    stride: 1
    weight_filler {
      type: "gaussian"
      std: 0.0001
    }
    bias_filler {
      type: "constant"
    }
  }
}
layer {
  name: "relu1"
  type: "ReLU"
  bottom: "conv1"
  top: "conv1"
}
layer {
  name: "conv2"
  type: "Convolution"
  bottom: "conv1"
  top: "conv2"
  param {
    lr_mult: 1
  }
  param {
    lr_mult: 2
  }
  convolution_param {
    num_output: 64
    pad: 2
    kernel_size: 5
    stride: 1
    weight_filler {
      type: "gaussian"
      std: 0.01
    }
    bias_filler {
      type: "constant"
    }
  }
}
layer {
  name: "relu2"
  type: "ReLU"
  bottom: "conv2"
  top: "conv2"
}
layer {
  name: "pool2"
  type: "Pooling"
  bottom: "conv2"
  top: "pool2"
  pooling_param {
    pool: MAX
    kernel_size: 3
    stride: 2
  }
}
layer {
  name: "conv3"
  type: "Convolution"
  bottom: "pool2"
  top: "conv3"
  param {
    lr_mult: 1
  }
  param {
    lr_mult: 2
  }
  convolution_param {
    num_output: 64
    pad: 2
    kernel_size: 5
    stride: 1
    weight_filler {
      type: "gaussian"
      std: 0.01
    }
    bias_filler {
      type: "constant"
    }
  }
}
layer {
  name: "relu3"
  type: "ReLU"
  bottom: "conv3"
  top: "conv3"
}
layer {
  name: "conv4"
  type: "Convolution"
  bottom: "conv3"
  top: "conv4"
  param {
    lr_mult: 1
  }
  param {
    lr_mult: 2
  }
  convolution_param {
    num_output: 64
    pad: 2
    kernel_size: 5
    stride: 1
    weight_filler {
      type: "gaussian"
      std: 0.01
    }
    bias_filler {
      type: "constant"
    }
  }
}
layer {
  name: "relu4"
  type: "ReLU"
  bottom: "conv4"
  top: "conv4"
}
layer {
  name: "conv5"
  type: "Convolution"
  bottom: "conv4"
  top: "conv5"
  param {
    lr_mult: 1
  }
  param {
    lr_mult: 2
  }
  convolution_param {
    num_output: 64
    pad: 2
    kernel_size: 5
    stride: 1
    weight_filler {
      type: "gaussian"
      std: 0.01
    }
    bias_filler {
      type: "constant"
    }
  }
}
layer {
  name: "relu5"
  type: "ReLU"
  bottom: "conv5"
  top: "conv5"
}
layer {
  name: "pool5"
  type: "Pooling"
  bottom: "conv5"
  top: "pool5"
  pooling_param {
    pool: AVE
    kernel_size: 3
    stride: 2
  }
}
layer {
  name: "ip1"
  type: "InnerProduct"
  bottom: "pool5"
  top: "ip1"
  param {
    lr_mult: 1
  }
  param {
    lr_mult: 2
  }
  inner_product_param {
    num_output: 64
    weight_filler {
      type: "gaussian"
      std: 0.1
    }
    bias_filler {
      type: "constant"
    }
  }
}
layer {
  name: "ip2"
  type: "InnerProduct"
  bottom: "ip1"
  top: "ip2"
  param {
    lr_mult: 1
  }
  param {
    lr_mult: 2
  }
  inner_product_param {
    num_output: 64
    weight_filler {
      type: "gaussian"
      std: 0.1
    }
    bias_filler {
      type: "constant"
    }
  }
}
layer {
  name: "ip3"
  type: "InnerProduct"
  bottom: "ip2"
  top: "ip3"
  param {
    lr_mult: 1
  }
  param {
    lr_mult: 2
  }
  inner_product_param {
    num_output: 50
    weight_filler {
      type: "gaussian"
      std: 0.1
    }
    bias_filler {
      type: "constant"
    }
  }
}
layer {
  name: "accuracy"
  type: "Accuracy"
  bottom: "ip3"
  bottom: "label"
  top: "accuracy"
  include {
    phase: TEST
  }
}
layer {
  name: "loss"
  type: "SoftmaxWithLoss"
  bottom: "ip3"
  bottom: "label"
  top: "loss"
}
I0507 16:54:07.913592  4995 layer_factory.hpp:77] Creating layer intercept
I0507 16:54:07.913600  4995 net.cpp:94] Creating Layer intercept
I0507 16:54:07.913604  4995 net.cpp:409] intercept -> data
I0507 16:54:07.913611  4995 net.cpp:409] intercept -> label
I0507 16:54:07.913616  4995 hdf5_data_layer.cpp:79] Loading list of HDF5 filenames from: /home/purduethu/scratch/radon/d/deng106/CNNStatisticalModel/distributions/input/20_distributions_400_sample_size_test-distributions-path.txt
I0507 16:54:07.913635  4995 hdf5_data_layer.cpp:93] Number of HDF5 files: 1
I0507 16:54:07.981220  4995 net.cpp:144] Setting up intercept
I0507 16:54:07.981253  4995 net.cpp:151] Top shape: 20 1 20 20 (8000)
I0507 16:54:07.981258  4995 net.cpp:151] Top shape: 20 (20)
I0507 16:54:07.981261  4995 net.cpp:159] Memory required for data: 32080
I0507 16:54:07.981267  4995 layer_factory.hpp:77] Creating layer label_intercept_1_split
I0507 16:54:07.981284  4995 net.cpp:94] Creating Layer label_intercept_1_split
I0507 16:54:07.981289  4995 net.cpp:435] label_intercept_1_split <- label
I0507 16:54:07.981294  4995 net.cpp:409] label_intercept_1_split -> label_intercept_1_split_0
I0507 16:54:07.981302  4995 net.cpp:409] label_intercept_1_split -> label_intercept_1_split_1
I0507 16:54:07.981345  4995 net.cpp:144] Setting up label_intercept_1_split
I0507 16:54:07.981351  4995 net.cpp:151] Top shape: 20 (20)
I0507 16:54:07.981354  4995 net.cpp:151] Top shape: 20 (20)
I0507 16:54:07.981358  4995 net.cpp:159] Memory required for data: 32240
I0507 16:54:07.981360  4995 layer_factory.hpp:77] Creating layer conv1
I0507 16:54:07.981371  4995 net.cpp:94] Creating Layer conv1
I0507 16:54:07.981375  4995 net.cpp:435] conv1 <- data
I0507 16:54:07.981379  4995 net.cpp:409] conv1 -> conv1
I0507 16:54:07.982758  4995 net.cpp:144] Setting up conv1
I0507 16:54:07.982777  4995 net.cpp:151] Top shape: 20 64 20 20 (512000)
I0507 16:54:07.982781  4995 net.cpp:159] Memory required for data: 2080240
I0507 16:54:07.982791  4995 layer_factory.hpp:77] Creating layer relu1
I0507 16:54:07.982797  4995 net.cpp:94] Creating Layer relu1
I0507 16:54:07.982800  4995 net.cpp:435] relu1 <- conv1
I0507 16:54:07.982805  4995 net.cpp:396] relu1 -> conv1 (in-place)
I0507 16:54:07.982811  4995 net.cpp:144] Setting up relu1
I0507 16:54:07.982816  4995 net.cpp:151] Top shape: 20 64 20 20 (512000)
I0507 16:54:07.982820  4995 net.cpp:159] Memory required for data: 4128240
I0507 16:54:07.982821  4995 layer_factory.hpp:77] Creating layer conv2
I0507 16:54:07.982830  4995 net.cpp:94] Creating Layer conv2
I0507 16:54:07.982832  4995 net.cpp:435] conv2 <- conv1
I0507 16:54:07.982837  4995 net.cpp:409] conv2 -> conv2
I0507 16:54:07.987876  4995 net.cpp:144] Setting up conv2
I0507 16:54:07.987911  4995 net.cpp:151] Top shape: 20 64 20 20 (512000)
I0507 16:54:07.987922  4995 net.cpp:159] Memory required for data: 6176240
I0507 16:54:07.987943  4995 layer_factory.hpp:77] Creating layer relu2
I0507 16:54:07.987958  4995 net.cpp:94] Creating Layer relu2
I0507 16:54:07.987968  4995 net.cpp:435] relu2 <- conv2
I0507 16:54:07.987980  4995 net.cpp:396] relu2 -> conv2 (in-place)
I0507 16:54:07.987998  4995 net.cpp:144] Setting up relu2
I0507 16:54:07.988010  4995 net.cpp:151] Top shape: 20 64 20 20 (512000)
I0507 16:54:07.988018  4995 net.cpp:159] Memory required for data: 8224240
I0507 16:54:07.988026  4995 layer_factory.hpp:77] Creating layer pool2
I0507 16:54:07.988040  4995 net.cpp:94] Creating Layer pool2
I0507 16:54:07.988049  4995 net.cpp:435] pool2 <- conv2
I0507 16:54:07.988059  4995 net.cpp:409] pool2 -> pool2
I0507 16:54:07.988201  4995 net.cpp:144] Setting up pool2
I0507 16:54:07.988217  4995 net.cpp:151] Top shape: 20 64 10 10 (128000)
I0507 16:54:07.988226  4995 net.cpp:159] Memory required for data: 8736240
I0507 16:54:07.988234  4995 layer_factory.hpp:77] Creating layer conv3
I0507 16:54:07.988255  4995 net.cpp:94] Creating Layer conv3
I0507 16:54:07.988258  4995 net.cpp:435] conv3 <- pool2
I0507 16:54:07.988263  4995 net.cpp:409] conv3 -> conv3
I0507 16:54:07.993059  4995 net.cpp:144] Setting up conv3
I0507 16:54:07.993073  4995 net.cpp:151] Top shape: 20 64 10 10 (128000)
I0507 16:54:07.993077  4995 net.cpp:159] Memory required for data: 9248240
I0507 16:54:07.993085  4995 layer_factory.hpp:77] Creating layer relu3
I0507 16:54:07.993093  4995 net.cpp:94] Creating Layer relu3
I0507 16:54:07.993095  4995 net.cpp:435] relu3 <- conv3
I0507 16:54:07.993099  4995 net.cpp:396] relu3 -> conv3 (in-place)
I0507 16:54:07.993106  4995 net.cpp:144] Setting up relu3
I0507 16:54:07.993110  4995 net.cpp:151] Top shape: 20 64 10 10 (128000)
I0507 16:54:07.993113  4995 net.cpp:159] Memory required for data: 9760240
I0507 16:54:07.993116  4995 layer_factory.hpp:77] Creating layer conv4
I0507 16:54:07.993124  4995 net.cpp:94] Creating Layer conv4
I0507 16:54:07.993126  4995 net.cpp:435] conv4 <- conv3
I0507 16:54:07.993131  4995 net.cpp:409] conv4 -> conv4
I0507 16:54:07.996656  4995 net.cpp:144] Setting up conv4
I0507 16:54:07.996670  4995 net.cpp:151] Top shape: 20 64 10 10 (128000)
I0507 16:54:07.996673  4995 net.cpp:159] Memory required for data: 10272240
I0507 16:54:07.996680  4995 layer_factory.hpp:77] Creating layer relu4
I0507 16:54:07.996685  4995 net.cpp:94] Creating Layer relu4
I0507 16:54:07.996688  4995 net.cpp:435] relu4 <- conv4
I0507 16:54:07.996692  4995 net.cpp:396] relu4 -> conv4 (in-place)
I0507 16:54:07.996700  4995 net.cpp:144] Setting up relu4
I0507 16:54:07.996703  4995 net.cpp:151] Top shape: 20 64 10 10 (128000)
I0507 16:54:07.996706  4995 net.cpp:159] Memory required for data: 10784240
I0507 16:54:07.996708  4995 layer_factory.hpp:77] Creating layer conv5
I0507 16:54:07.996716  4995 net.cpp:94] Creating Layer conv5
I0507 16:54:07.996719  4995 net.cpp:435] conv5 <- conv4
I0507 16:54:07.996724  4995 net.cpp:409] conv5 -> conv5
I0507 16:54:08.000687  4995 net.cpp:144] Setting up conv5
I0507 16:54:08.000705  4995 net.cpp:151] Top shape: 20 64 10 10 (128000)
I0507 16:54:08.000708  4995 net.cpp:159] Memory required for data: 11296240
I0507 16:54:08.000716  4995 layer_factory.hpp:77] Creating layer relu5
I0507 16:54:08.000722  4995 net.cpp:94] Creating Layer relu5
I0507 16:54:08.000726  4995 net.cpp:435] relu5 <- conv5
I0507 16:54:08.000730  4995 net.cpp:396] relu5 -> conv5 (in-place)
I0507 16:54:08.000737  4995 net.cpp:144] Setting up relu5
I0507 16:54:08.000741  4995 net.cpp:151] Top shape: 20 64 10 10 (128000)
I0507 16:54:08.000744  4995 net.cpp:159] Memory required for data: 11808240
I0507 16:54:08.000746  4995 layer_factory.hpp:77] Creating layer pool5
I0507 16:54:08.000751  4995 net.cpp:94] Creating Layer pool5
I0507 16:54:08.000754  4995 net.cpp:435] pool5 <- conv5
I0507 16:54:08.000758  4995 net.cpp:409] pool5 -> pool5
I0507 16:54:08.000795  4995 net.cpp:144] Setting up pool5
I0507 16:54:08.000802  4995 net.cpp:151] Top shape: 20 64 5 5 (32000)
I0507 16:54:08.000805  4995 net.cpp:159] Memory required for data: 11936240
I0507 16:54:08.000808  4995 layer_factory.hpp:77] Creating layer ip1
I0507 16:54:08.000814  4995 net.cpp:94] Creating Layer ip1
I0507 16:54:08.000818  4995 net.cpp:435] ip1 <- pool5
I0507 16:54:08.000823  4995 net.cpp:409] ip1 -> ip1
I0507 16:54:08.003373  4995 net.cpp:144] Setting up ip1
I0507 16:54:08.003381  4995 net.cpp:151] Top shape: 20 64 (1280)
I0507 16:54:08.003384  4995 net.cpp:159] Memory required for data: 11941360
I0507 16:54:08.003391  4995 layer_factory.hpp:77] Creating layer ip2
I0507 16:54:08.003396  4995 net.cpp:94] Creating Layer ip2
I0507 16:54:08.003398  4995 net.cpp:435] ip2 <- ip1
I0507 16:54:08.003403  4995 net.cpp:409] ip2 -> ip2
I0507 16:54:08.003638  4995 net.cpp:144] Setting up ip2
I0507 16:54:08.003645  4995 net.cpp:151] Top shape: 20 64 (1280)
I0507 16:54:08.003648  4995 net.cpp:159] Memory required for data: 11946480
I0507 16:54:08.003654  4995 layer_factory.hpp:77] Creating layer ip3
I0507 16:54:08.003660  4995 net.cpp:94] Creating Layer ip3
I0507 16:54:08.003664  4995 net.cpp:435] ip3 <- ip2
I0507 16:54:08.003669  4995 net.cpp:409] ip3 -> ip3
I0507 16:54:08.003881  4995 net.cpp:144] Setting up ip3
I0507 16:54:08.003888  4995 net.cpp:151] Top shape: 20 50 (1000)
I0507 16:54:08.003891  4995 net.cpp:159] Memory required for data: 11950480
I0507 16:54:08.003896  4995 layer_factory.hpp:77] Creating layer ip3_ip3_0_split
I0507 16:54:08.003901  4995 net.cpp:94] Creating Layer ip3_ip3_0_split
I0507 16:54:08.003904  4995 net.cpp:435] ip3_ip3_0_split <- ip3
I0507 16:54:08.003908  4995 net.cpp:409] ip3_ip3_0_split -> ip3_ip3_0_split_0
I0507 16:54:08.003913  4995 net.cpp:409] ip3_ip3_0_split -> ip3_ip3_0_split_1
I0507 16:54:08.003954  4995 net.cpp:144] Setting up ip3_ip3_0_split
I0507 16:54:08.003960  4995 net.cpp:151] Top shape: 20 50 (1000)
I0507 16:54:08.003964  4995 net.cpp:151] Top shape: 20 50 (1000)
I0507 16:54:08.003967  4995 net.cpp:159] Memory required for data: 11958480
I0507 16:54:08.003969  4995 layer_factory.hpp:77] Creating layer accuracy
I0507 16:54:08.003975  4995 net.cpp:94] Creating Layer accuracy
I0507 16:54:08.003978  4995 net.cpp:435] accuracy <- ip3_ip3_0_split_0
I0507 16:54:08.003981  4995 net.cpp:435] accuracy <- label_intercept_1_split_0
I0507 16:54:08.003985  4995 net.cpp:409] accuracy -> accuracy
…
