…
I0505 00:14:19.436270  1104 net.cpp:323] The NetState phase (0) differed from the phase (1) specified by a rule in layer intercept
I0505 00:14:19.436285  1104 net.cpp:323] The NetState phase (0) differed from the phase (1) specified by a rule in layer loss
I0505 00:14:19.436362  1104 net.cpp:52] Initializing net from parameters: 
state {
  phase: TRAIN
}
layer {
  name: "parameters"
  type: "HDF5Data"
  top: "data"
  top: "label"
  include {
    phase: TRAIN
  }
  hdf5_data_param {
    source: "/home/purduethu/scratch/radon/d/deng106/CNNStatisticalModel/distributions/input/20_distributions_100_sample_size_train-parameters-path.txt"
    batch_size: 20
  }
}
layer {
  name: "conv1"
  type: "Convolution"
  bottom: "data"
  top: "conv1"
  param {
    lr_mult: 1
  }
  param {
    lr_mult: 2
  }
  convolution_param {
    num_output: 64
    pad: 2
    kernel_size: 5
    stride: 1
    weight_filler {
      type: "gaussian"
      std: 0.0001
    }
    bias_filler {
      type: "constant"
    }
  }
}
layer {
  name: "relu1"
  type: "ReLU"
  bottom: "conv1"
  top: "conv1"
}
layer {
  name: "pool1"
  type: "Pooling"
  bottom: "conv1"
  top: "pool1"
  pooling_param {
    pool: MAX
    kernel_size: 3
    stride: 2
  }
}
layer {
  name: "conv2"
  type: "Convolution"
  bottom: "pool1"
  top: "conv2"
  param {
    lr_mult: 1
  }
  param {
    lr_mult: 2
  }
  convolution_param {
    num_output: 128
    pad: 2
    kernel_size: 5
    stride: 1
    weight_filler {
      type: "gaussian"
      std: 0.01
    }
    bias_filler {
      type: "constant"
    }
  }
}
layer {
  name: "relu2"
  type: "ReLU"
  bottom: "conv2"
  top: "conv2"
}
layer {
  name: "conv3"
  type: "Convolution"
  bottom: "conv2"
  top: "conv3"
  param {
    lr_mult: 1
  }
  param {
    lr_mult: 2
  }
  convolution_param {
    num_output: 128
    pad: 2
    kernel_size: 5
    stride: 1
    weight_filler {
      type: "gaussian"
      std: 0.01
    }
    bias_filler {
      type: "constant"
    }
  }
}
layer {
  name: "relu3"
  type: "ReLU"
  bottom: "conv3"
  top: "conv3"
}
layer {
  name: "pool3"
  type: "Pooling"
  bottom: "conv3"
  top: "pool3"
  pooling_param {
    pool: AVE
    kernel_size: 3
    stride: 2
  }
}
layer {
  name: "ip1"
  type: "InnerProduct"
  bottom: "pool3"
  top: "ip1"
  param {
    lr_mult: 1
  }
  param {
    lr_mult: 2
  }
  inner_product_param {
    num_output: 512
    weight_filler {
      type: "gaussian"
      std: 0.1
    }
    bias_filler {
      type: "constant"
    }
  }
}
layer {
  name: "ip2"
  type: "InnerProduct"
  bottom: "ip1"
  top: "ip2"
  param {
    lr_mult: 1
  }
  param {
    lr_mult: 2
  }
  inner_product_param {
    num_output: 256
    weight_filler {
      type: "gaussian"
      std: 0.1
    }
    bias_filler {
      type: "constant"
    }
  }
}
layer {
  name: "ip3"
  type: "InnerProduct"
  bottom: "ip2"
  top: "ip3"
  param {
    lr_mult: 1
  }
  param {
    lr_mult: 2
  }
  inner_product_param {
    num_output: 1
    weight_filler {
      type: "gaussian"
      std: 0.1
    }
    bias_filler {
      type: "constant"
    }
  }
}
layer {
  name: "loss"
  type: "HuberLoss"
  bottom: "ip3"
  bottom: "label"
  top: "loss"
  include {
    phase: TRAIN
  }
}
I0505 00:14:19.436425  1104 layer_factory.hpp:77] Creating layer parameters
I0505 00:14:19.436439  1104 net.cpp:94] Creating Layer parameters
I0505 00:14:19.436452  1104 net.cpp:409] parameters -> data
I0505 00:14:19.436471  1104 net.cpp:409] parameters -> label
I0505 00:14:19.436482  1104 hdf5_data_layer.cpp:79] Loading list of HDF5 filenames from: /home/purduethu/scratch/radon/d/deng106/CNNStatisticalModel/distributions/input/20_distributions_100_sample_size_train-parameters-path.txt
I0505 00:14:19.436504  1104 hdf5_data_layer.cpp:93] Number of HDF5 files: 1
I0505 00:14:19.437119  1104 hdf5.cpp:32] Datatype class: H5T_FLOAT
I0505 00:14:19.504833  1104 net.cpp:144] Setting up parameters
I0505 00:14:19.504856  1104 net.cpp:151] Top shape: 20 1 10 10 (2000)
I0505 00:14:19.504863  1104 net.cpp:151] Top shape: 20 (20)
I0505 00:14:19.504866  1104 net.cpp:159] Memory required for data: 8080
I0505 00:14:19.504873  1104 layer_factory.hpp:77] Creating layer conv1
I0505 00:14:19.504891  1104 net.cpp:94] Creating Layer conv1
I0505 00:14:19.504897  1104 net.cpp:435] conv1 <- data
I0505 00:14:19.504909  1104 net.cpp:409] conv1 -> conv1
I0505 00:14:19.508708  1104 net.cpp:144] Setting up conv1
I0505 00:14:19.508725  1104 net.cpp:151] Top shape: 20 64 10 10 (128000)
I0505 00:14:19.508730  1104 net.cpp:159] Memory required for data: 520080
I0505 00:14:19.508743  1104 layer_factory.hpp:77] Creating layer relu1
I0505 00:14:19.508750  1104 net.cpp:94] Creating Layer relu1
I0505 00:14:19.508755  1104 net.cpp:435] relu1 <- conv1
I0505 00:14:19.508759  1104 net.cpp:396] relu1 -> conv1 (in-place)
I0505 00:14:19.508771  1104 net.cpp:144] Setting up relu1
I0505 00:14:19.508776  1104 net.cpp:151] Top shape: 20 64 10 10 (128000)
I0505 00:14:19.508780  1104 net.cpp:159] Memory required for data: 1032080
I0505 00:14:19.508782  1104 layer_factory.hpp:77] Creating layer pool1
I0505 00:14:19.508790  1104 net.cpp:94] Creating Layer pool1
I0505 00:14:19.508793  1104 net.cpp:435] pool1 <- conv1
I0505 00:14:19.508798  1104 net.cpp:409] pool1 -> pool1
I0505 00:14:19.508848  1104 net.cpp:144] Setting up pool1
I0505 00:14:19.508855  1104 net.cpp:151] Top shape: 20 64 5 5 (32000)
I0505 00:14:19.508858  1104 net.cpp:159] Memory required for data: 1160080
I0505 00:14:19.508862  1104 layer_factory.hpp:77] Creating layer conv2
I0505 00:14:19.508872  1104 net.cpp:94] Creating Layer conv2
I0505 00:14:19.508875  1104 net.cpp:435] conv2 <- pool1
I0505 00:14:19.508880  1104 net.cpp:409] conv2 -> conv2
I0505 00:14:19.517248  1104 net.cpp:144] Setting up conv2
I0505 00:14:19.517267  1104 net.cpp:151] Top shape: 20 128 5 5 (64000)
I0505 00:14:19.517272  1104 net.cpp:159] Memory required for data: 1416080
I0505 00:14:19.517282  1104 layer_factory.hpp:77] Creating layer relu2
I0505 00:14:19.517288  1104 net.cpp:94] Creating Layer relu2
I0505 00:14:19.517292  1104 net.cpp:435] relu2 <- conv2
I0505 00:14:19.517297  1104 net.cpp:396] relu2 -> conv2 (in-place)
I0505 00:14:19.517304  1104 net.cpp:144] Setting up relu2
I0505 00:14:19.517309  1104 net.cpp:151] Top shape: 20 128 5 5 (64000)
I0505 00:14:19.517313  1104 net.cpp:159] Memory required for data: 1672080
I0505 00:14:19.517316  1104 layer_factory.hpp:77] Creating layer conv3
I0505 00:14:19.517324  1104 net.cpp:94] Creating Layer conv3
I0505 00:14:19.517328  1104 net.cpp:435] conv3 <- conv2
I0505 00:14:19.517333  1104 net.cpp:409] conv3 -> conv3
I0505 00:14:19.532614  1104 net.cpp:144] Setting up conv3
I0505 00:14:19.532645  1104 net.cpp:151] Top shape: 20 128 5 5 (64000)
I0505 00:14:19.532649  1104 net.cpp:159] Memory required for data: 1928080
I0505 00:14:19.532660  1104 layer_factory.hpp:77] Creating layer relu3
I0505 00:14:19.532670  1104 net.cpp:94] Creating Layer relu3
I0505 00:14:19.532681  1104 net.cpp:435] relu3 <- conv3
I0505 00:14:19.532687  1104 net.cpp:396] relu3 -> conv3 (in-place)
I0505 00:14:19.532697  1104 net.cpp:144] Setting up relu3
I0505 00:14:19.532702  1104 net.cpp:151] Top shape: 20 128 5 5 (64000)
I0505 00:14:19.532706  1104 net.cpp:159] Memory required for data: 2184080
I0505 00:14:19.532708  1104 layer_factory.hpp:77] Creating layer pool3
I0505 00:14:19.532716  1104 net.cpp:94] Creating Layer pool3
I0505 00:14:19.532719  1104 net.cpp:435] pool3 <- conv3
I0505 00:14:19.532732  1104 net.cpp:409] pool3 -> pool3
I0505 00:14:19.532773  1104 net.cpp:144] Setting up pool3
I0505 00:14:19.532779  1104 net.cpp:151] Top shape: 20 128 2 2 (10240)
I0505 00:14:19.532783  1104 net.cpp:159] Memory required for data: 2225040
I0505 00:14:19.532786  1104 layer_factory.hpp:77] Creating layer ip1
I0505 00:14:19.532797  1104 net.cpp:94] Creating Layer ip1
I0505 00:14:19.532800  1104 net.cpp:435] ip1 <- pool3
I0505 00:14:19.532805  1104 net.cpp:409] ip1 -> ip1
I0505 00:14:19.540613  1104 net.cpp:144] Setting up ip1
I0505 00:14:19.540638  1104 net.cpp:151] Top shape: 20 512 (10240)
I0505 00:14:19.540643  1104 net.cpp:159] Memory required for data: 2266000
I0505 00:14:19.540650  1104 layer_factory.hpp:77] Creating layer ip2
I0505 00:14:19.540659  1104 net.cpp:94] Creating Layer ip2
I0505 00:14:19.540664  1104 net.cpp:435] ip2 <- ip1
I0505 00:14:19.540670  1104 net.cpp:409] ip2 -> ip2
I0505 00:14:19.543942  1104 net.cpp:144] Setting up ip2
I0505 00:14:19.543951  1104 net.cpp:151] Top shape: 20 256 (5120)
I0505 00:14:19.543954  1104 net.cpp:159] Memory required for data: 2286480
I0505 00:14:19.543962  1104 layer_factory.hpp:77] Creating layer ip3
I0505 00:14:19.543968  1104 net.cpp:94] Creating Layer ip3
I0505 00:14:19.543972  1104 net.cpp:435] ip3 <- ip2
I0505 00:14:19.543977  1104 net.cpp:409] ip3 -> ip3
I0505 00:14:19.544044  1104 net.cpp:144] Setting up ip3
I0505 00:14:19.544051  1104 net.cpp:151] Top shape: 20 1 (20)
I0505 00:14:19.544054  1104 net.cpp:159] Memory required for data: 2286560
I0505 00:14:19.544059  1104 layer_factory.hpp:77] Creating layer loss
I0505 00:14:19.544070  1104 net.cpp:94] Creating Layer loss
I0505 00:14:19.544075  1104 net.cpp:435] loss <- ip3
I0505 00:14:19.544078  1104 net.cpp:435] loss <- label
I0505 00:14:19.544085  1104 net.cpp:409] loss -> loss
I0505 00:14:19.544121  1104 net.cpp:144] Setting up loss
…
