…
I0502 14:25:25.855180  6714 net.cpp:323] The NetState phase (0) differed from the phase (1) specified by a rule in layer intercept
I0502 14:25:25.855196  6714 net.cpp:323] The NetState phase (0) differed from the phase (1) specified by a rule in layer loss
I0502 14:25:25.855290  6714 net.cpp:52] Initializing net from parameters: 
state {
  phase: TRAIN
}
layer {
  name: "parameters"
  type: "HDF5Data"
  top: "data"
  top: "label"
  include {
    phase: TRAIN
  }
  hdf5_data_param {
    source: "/home/purduethu/scratch/radon/d/deng106/CNNStatisticalModel/distributions/input/50_distributions_100_sample_size_train-parameters-path.txt"
    batch_size: 20
  }
}
layer {
  name: "conv1"
  type: "Convolution"
  bottom: "data"
  top: "conv1"
  param {
    lr_mult: 1
  }
  param {
    lr_mult: 2
  }
  convolution_param {
    num_output: 64
    pad: 2
    kernel_size: 5
    stride: 1
    weight_filler {
      type: "gaussian"
      std: 0.0001
    }
    bias_filler {
      type: "constant"
    }
  }
}
layer {
  name: "relu1"
  type: "ReLU"
  bottom: "conv1"
  top: "conv1"
}
layer {
  name: "conv2"
  type: "Convolution"
  bottom: "conv1"
  top: "conv2"
  param {
    lr_mult: 1
  }
  param {
    lr_mult: 2
  }
  convolution_param {
    num_output: 64
    pad: 2
    kernel_size: 5
    stride: 1
    weight_filler {
      type: "gaussian"
      std: 0.01
    }
    bias_filler {
      type: "constant"
    }
  }
}
layer {
  name: "relu2"
  type: "ReLU"
  bottom: "conv2"
  top: "conv2"
}
layer {
  name: "pool2"
  type: "Pooling"
  bottom: "conv2"
  top: "pool2"
  pooling_param {
    pool: MAX
    kernel_size: 3
    stride: 2
  }
}
layer {
  name: "conv3"
  type: "Convolution"
  bottom: "pool2"
  top: "conv3"
  param {
    lr_mult: 1
  }
  param {
    lr_mult: 2
  }
  convolution_param {
    num_output: 64
    pad: 2
    kernel_size: 5
    stride: 1
    weight_filler {
      type: "gaussian"
      std: 0.01
    }
    bias_filler {
      type: "constant"
    }
  }
}
layer {
  name: "relu3"
  type: "ReLU"
  bottom: "conv3"
  top: "conv3"
}
layer {
  name: "conv4"
  type: "Convolution"
  bottom: "conv3"
  top: "conv4"
  param {
    lr_mult: 1
  }
  param {
    lr_mult: 2
  }
  convolution_param {
    num_output: 64
    pad: 2
    kernel_size: 5
    stride: 1
    weight_filler {
      type: "gaussian"
      std: 0.01
    }
    bias_filler {
      type: "constant"
    }
  }
}
layer {
  name: "relu4"
  type: "ReLU"
  bottom: "conv4"
  top: "conv4"
}
layer {
  name: "conv5"
  type: "Convolution"
  bottom: "conv4"
  top: "conv5"
  param {
    lr_mult: 1
  }
  param {
    lr_mult: 2
  }
  convolution_param {
    num_output: 64
    pad: 2
    kernel_size: 5
    stride: 1
    weight_filler {
      type: "gaussian"
      std: 0.01
    }
    bias_filler {
      type: "constant"
    }
  }
}
layer {
  name: "relu5"
  type: "ReLU"
  bottom: "conv5"
  top: "conv5"
}
layer {
  name: "pool5"
  type: "Pooling"
  bottom: "conv5"
  top: "pool5"
  pooling_param {
    pool: AVE
    kernel_size: 3
    stride: 2
  }
}
layer {
  name: "ip1"
  type: "InnerProduct"
  bottom: "pool5"
  top: "ip1"
  param {
    lr_mult: 1
  }
  param {
    lr_mult: 2
  }
  inner_product_param {
    num_output: 64
    weight_filler {
      type: "gaussian"
      std: 0.1
    }
    bias_filler {
      type: "constant"
    }
  }
}
layer {
  name: "ip2"
  type: "InnerProduct"
  bottom: "ip1"
  top: "ip2"
  param {
    lr_mult: 1
  }
  param {
    lr_mult: 2
  }
  inner_product_param {
    num_output: 64
    weight_filler {
      type: "gaussian"
      std: 0.1
    }
    bias_filler {
      type: "constant"
    }
  }
}
layer {
  name: "ip3"
  type: "InnerProduct"
  bottom: "ip2"
  top: "ip3"
  param {
    lr_mult: 1
  }
  param {
    lr_mult: 2
  }
  inner_product_param {
    num_output: 1
    weight_filler {
      type: "gaussian"
      std: 0.1
    }
    bias_filler {
      type: "constant"
    }
  }
}
layer {
  name: "loss"
  type: "HuberLoss"
  bottom: "ip3"
  bottom: "label"
  top: "loss"
  include {
    phase: TRAIN
  }
}
I0502 14:25:25.855362  6714 layer_factory.hpp:77] Creating layer parameters
I0502 14:25:25.855377  6714 net.cpp:94] Creating Layer parameters
I0502 14:25:25.855383  6714 net.cpp:409] parameters -> data
I0502 14:25:25.855402  6714 net.cpp:409] parameters -> label
I0502 14:25:25.855415  6714 hdf5_data_layer.cpp:79] Loading list of HDF5 filenames from: /home/purduethu/scratch/radon/d/deng106/CNNStatisticalModel/distributions/input/50_distributions_100_sample_size_train-parameters-path.txt
I0502 14:25:25.855437  6714 hdf5_data_layer.cpp:93] Number of HDF5 files: 1
I0502 14:25:25.855881  6714 hdf5.cpp:32] Datatype class: H5T_FLOAT
I0502 14:25:26.018757  6714 net.cpp:144] Setting up parameters
I0502 14:25:26.018790  6714 net.cpp:151] Top shape: 20 1 10 10 (2000)
I0502 14:25:26.018795  6714 net.cpp:151] Top shape: 20 (20)
I0502 14:25:26.018800  6714 net.cpp:159] Memory required for data: 8080
I0502 14:25:26.018807  6714 layer_factory.hpp:77] Creating layer conv1
I0502 14:25:26.018831  6714 net.cpp:94] Creating Layer conv1
I0502 14:25:26.018837  6714 net.cpp:435] conv1 <- data
I0502 14:25:26.018848  6714 net.cpp:409] conv1 -> conv1
I0502 14:25:26.022586  6714 net.cpp:144] Setting up conv1
I0502 14:25:26.022601  6714 net.cpp:151] Top shape: 20 64 10 10 (128000)
I0502 14:25:26.022605  6714 net.cpp:159] Memory required for data: 520080
I0502 14:25:26.022617  6714 layer_factory.hpp:77] Creating layer relu1
I0502 14:25:26.022625  6714 net.cpp:94] Creating Layer relu1
I0502 14:25:26.022629  6714 net.cpp:435] relu1 <- conv1
I0502 14:25:26.022634  6714 net.cpp:396] relu1 -> conv1 (in-place)
I0502 14:25:26.022650  6714 net.cpp:144] Setting up relu1
I0502 14:25:26.022655  6714 net.cpp:151] Top shape: 20 64 10 10 (128000)
I0502 14:25:26.022657  6714 net.cpp:159] Memory required for data: 1032080
I0502 14:25:26.022661  6714 layer_factory.hpp:77] Creating layer conv2
I0502 14:25:26.022670  6714 net.cpp:94] Creating Layer conv2
I0502 14:25:26.022673  6714 net.cpp:435] conv2 <- conv1
I0502 14:25:26.022678  6714 net.cpp:409] conv2 -> conv2
I0502 14:25:26.028446  6714 net.cpp:144] Setting up conv2
I0502 14:25:26.028460  6714 net.cpp:151] Top shape: 20 64 10 10 (128000)
I0502 14:25:26.028465  6714 net.cpp:159] Memory required for data: 1544080
I0502 14:25:26.028472  6714 layer_factory.hpp:77] Creating layer relu2
I0502 14:25:26.028479  6714 net.cpp:94] Creating Layer relu2
I0502 14:25:26.028483  6714 net.cpp:435] relu2 <- conv2
I0502 14:25:26.028489  6714 net.cpp:396] relu2 -> conv2 (in-place)
I0502 14:25:26.028496  6714 net.cpp:144] Setting up relu2
I0502 14:25:26.028501  6714 net.cpp:151] Top shape: 20 64 10 10 (128000)
I0502 14:25:26.028504  6714 net.cpp:159] Memory required for data: 2056080
I0502 14:25:26.028508  6714 layer_factory.hpp:77] Creating layer pool2
I0502 14:25:26.028515  6714 net.cpp:94] Creating Layer pool2
I0502 14:25:26.028525  6714 net.cpp:435] pool2 <- conv2
I0502 14:25:26.028532  6714 net.cpp:409] pool2 -> pool2
I0502 14:25:26.028583  6714 net.cpp:144] Setting up pool2
I0502 14:25:26.028591  6714 net.cpp:151] Top shape: 20 64 5 5 (32000)
I0502 14:25:26.028594  6714 net.cpp:159] Memory required for data: 2184080
I0502 14:25:26.028599  6714 layer_factory.hpp:77] Creating layer conv3
I0502 14:25:26.028606  6714 net.cpp:94] Creating Layer conv3
I0502 14:25:26.028610  6714 net.cpp:435] conv3 <- pool2
I0502 14:25:26.028615  6714 net.cpp:409] conv3 -> conv3
I0502 14:25:26.033313  6714 net.cpp:144] Setting up conv3
I0502 14:25:26.033325  6714 net.cpp:151] Top shape: 20 64 5 5 (32000)
I0502 14:25:26.033330  6714 net.cpp:159] Memory required for data: 2312080
I0502 14:25:26.033339  6714 layer_factory.hpp:77] Creating layer relu3
I0502 14:25:26.033344  6714 net.cpp:94] Creating Layer relu3
I0502 14:25:26.033349  6714 net.cpp:435] relu3 <- conv3
I0502 14:25:26.033354  6714 net.cpp:396] relu3 -> conv3 (in-place)
I0502 14:25:26.033360  6714 net.cpp:144] Setting up relu3
I0502 14:25:26.033365  6714 net.cpp:151] Top shape: 20 64 5 5 (32000)
I0502 14:25:26.033368  6714 net.cpp:159] Memory required for data: 2440080
I0502 14:25:26.033371  6714 layer_factory.hpp:77] Creating layer conv4
I0502 14:25:26.033380  6714 net.cpp:94] Creating Layer conv4
I0502 14:25:26.033383  6714 net.cpp:435] conv4 <- conv3
I0502 14:25:26.033388  6714 net.cpp:409] conv4 -> conv4
I0502 14:25:26.037714  6714 net.cpp:144] Setting up conv4
I0502 14:25:26.037726  6714 net.cpp:151] Top shape: 20 64 5 5 (32000)
I0502 14:25:26.037730  6714 net.cpp:159] Memory required for data: 2568080
I0502 14:25:26.037736  6714 layer_factory.hpp:77] Creating layer relu4
I0502 14:25:26.037742  6714 net.cpp:94] Creating Layer relu4
I0502 14:25:26.037746  6714 net.cpp:435] relu4 <- conv4
I0502 14:25:26.037751  6714 net.cpp:396] relu4 -> conv4 (in-place)
I0502 14:25:26.037758  6714 net.cpp:144] Setting up relu4
I0502 14:25:26.037763  6714 net.cpp:151] Top shape: 20 64 5 5 (32000)
I0502 14:25:26.037766  6714 net.cpp:159] Memory required for data: 2696080
I0502 14:25:26.037770  6714 layer_factory.hpp:77] Creating layer conv5
I0502 14:25:26.037776  6714 net.cpp:94] Creating Layer conv5
I0502 14:25:26.037781  6714 net.cpp:435] conv5 <- conv4
I0502 14:25:26.037786  6714 net.cpp:409] conv5 -> conv5
I0502 14:25:26.042486  6714 net.cpp:144] Setting up conv5
I0502 14:25:26.042500  6714 net.cpp:151] Top shape: 20 64 5 5 (32000)
I0502 14:25:26.042503  6714 net.cpp:159] Memory required for data: 2824080
I0502 14:25:26.042512  6714 layer_factory.hpp:77] Creating layer relu5
I0502 14:25:26.042518  6714 net.cpp:94] Creating Layer relu5
I0502 14:25:26.042522  6714 net.cpp:435] relu5 <- conv5
I0502 14:25:26.042527  6714 net.cpp:396] relu5 -> conv5 (in-place)
I0502 14:25:26.042534  6714 net.cpp:144] Setting up relu5
I0502 14:25:26.042539  6714 net.cpp:151] Top shape: 20 64 5 5 (32000)
I0502 14:25:26.042542  6714 net.cpp:159] Memory required for data: 2952080
I0502 14:25:26.042546  6714 layer_factory.hpp:77] Creating layer pool5
I0502 14:25:26.042551  6714 net.cpp:94] Creating Layer pool5
I0502 14:25:26.042554  6714 net.cpp:435] pool5 <- conv5
I0502 14:25:26.042559  6714 net.cpp:409] pool5 -> pool5
I0502 14:25:26.042590  6714 net.cpp:144] Setting up pool5
I0502 14:25:26.042598  6714 net.cpp:151] Top shape: 20 64 2 2 (5120)
I0502 14:25:26.042601  6714 net.cpp:159] Memory required for data: 2972560
I0502 14:25:26.042604  6714 layer_factory.hpp:77] Creating layer ip1
I0502 14:25:26.042613  6714 net.cpp:94] Creating Layer ip1
I0502 14:25:26.042618  6714 net.cpp:435] ip1 <- pool5
I0502 14:25:26.042623  6714 net.cpp:409] ip1 -> ip1
I0502 14:25:26.043789  6714 net.cpp:144] Setting up ip1
I0502 14:25:26.043802  6714 net.cpp:151] Top shape: 20 64 (1280)
I0502 14:25:26.043807  6714 net.cpp:159] Memory required for data: 2977680
I0502 14:25:26.043812  6714 layer_factory.hpp:77] Creating layer ip2
I0502 14:25:26.043819  6714 net.cpp:94] Creating Layer ip2
I0502 14:25:26.043823  6714 net.cpp:435] ip2 <- ip1
I0502 14:25:26.043833  6714 net.cpp:409] ip2 -> ip2
I0502 14:25:26.043998  6714 net.cpp:144] Setting up ip2
I0502 14:25:26.044004  6714 net.cpp:151] Top shape: 20 64 (1280)
I0502 14:25:26.044008  6714 net.cpp:159] Memory required for data: 2982800
I0502 14:25:26.044013  6714 layer_factory.hpp:77] Creating layer ip3
I0502 14:25:26.044019  6714 net.cpp:94] Creating Layer ip3
I0502 14:25:26.044023  6714 net.cpp:435] ip3 <- ip2
I0502 14:25:26.044028  6714 net.cpp:409] ip3 -> ip3
I0502 14:25:26.044090  6714 net.cpp:144] Setting up ip3
I0502 14:25:26.044095  6714 net.cpp:151] Top shape: 20 1 (20)
I0502 14:25:26.044104  6714 net.cpp:159] Memory required for data: 2982880
I0502 14:25:26.044109  6714 layer_factory.hpp:77] Creating layer loss
I0502 14:25:26.044117  6714 net.cpp:94] Creating Layer loss
I0502 14:25:26.044121  6714 net.cpp:435] loss <- ip3
I0502 14:25:26.044124  6714 net.cpp:435] loss <- label
I0502 14:25:26.044131  6714 net.cpp:409] loss -> loss
I0502 14:25:26.044164  6714 net.cpp:144] Setting up loss
…
