…
I0502 20:17:51.235819 13104 net.cpp:323] The NetState phase (0) differed from the phase (1) specified by a rule in layer intercept
I0502 20:17:51.235843 13104 net.cpp:323] The NetState phase (0) differed from the phase (1) specified by a rule in layer accuracy
I0502 20:17:51.235987 13104 net.cpp:52] Initializing net from parameters: 
state {
  phase: TRAIN
}
layer {
  name: "parameters"
  type: "HDF5Data"
  top: "data"
  top: "label"
  include {
    phase: TRAIN
  }
  hdf5_data_param {
    source: "/home/purduethu/scratch/radon/d/deng106/CNNStatisticalModel/distributions/input/5_distributions_100_sample_size_train-distributions-path.txt"
    batch_size: 20
  }
}
layer {
  name: "conv1"
  type: "Convolution"
  bottom: "data"
  top: "conv1"
  param {
    lr_mult: 1
  }
  param {
    lr_mult: 2
  }
  convolution_param {
    num_output: 64
    pad: 2
    kernel_size: 5
    stride: 1
    weight_filler {
      type: "gaussian"
      std: 0.0001
    }
    bias_filler {
      type: "constant"
    }
  }
}
layer {
  name: "relu1"
  type: "ReLU"
  bottom: "conv1"
  top: "conv1"
}
layer {
  name: "conv2"
  type: "Convolution"
  bottom: "conv1"
  top: "conv2"
  param {
    lr_mult: 1
  }
  param {
    lr_mult: 2
  }
  convolution_param {
    num_output: 64
    pad: 2
    kernel_size: 5
    stride: 1
    weight_filler {
      type: "gaussian"
      std: 0.01
    }
    bias_filler {
      type: "constant"
    }
  }
}
layer {
  name: "relu2"
  type: "ReLU"
  bottom: "conv2"
  top: "conv2"
}
layer {
  name: "pool2"
  type: "Pooling"
  bottom: "conv2"
  top: "pool2"
  pooling_param {
    pool: MAX
    kernel_size: 3
    stride: 2
  }
}
layer {
  name: "conv3"
  type: "Convolution"
  bottom: "pool2"
  top: "conv3"
  param {
    lr_mult: 1
  }
  param {
    lr_mult: 2
  }
  convolution_param {
    num_output: 64
    pad: 2
    kernel_size: 5
    stride: 1
    weight_filler {
      type: "gaussian"
      std: 0.01
    }
    bias_filler {
      type: "constant"
    }
  }
}
layer {
  name: "relu3"
  type: "ReLU"
  bottom: "conv3"
  top: "conv3"
}
layer {
  name: "conv4"
  type: "Convolution"
  bottom: "conv3"
  top: "conv4"
  param {
    lr_mult: 1
  }
  param {
    lr_mult: 2
  }
  convolution_param {
    num_output: 64
    pad: 2
    kernel_size: 5
    stride: 1
    weight_filler {
      type: "gaussian"
      std: 0.01
    }
    bias_filler {
      type: "constant"
    }
  }
}
layer {
  name: "relu4"
  type: "ReLU"
  bottom: "conv4"
  top: "conv4"
}
layer {
  name: "conv5"
  type: "Convolution"
  bottom: "conv4"
  top: "conv5"
  param {
    lr_mult: 1
  }
  param {
    lr_mult: 2
  }
  convolution_param {
    num_output: 64
    pad: 2
    kernel_size: 5
    stride: 1
    weight_filler {
      type: "gaussian"
      std: 0.01
    }
    bias_filler {
      type: "constant"
    }
  }
}
layer {
  name: "relu5"
  type: "ReLU"
  bottom: "conv5"
  top: "conv5"
}
layer {
  name: "pool5"
  type: "Pooling"
  bottom: "conv5"
  top: "pool5"
  pooling_param {
    pool: AVE
    kernel_size: 3
    stride: 2
  }
}
layer {
  name: "ip1"
  type: "InnerProduct"
  bottom: "pool5"
  top: "ip1"
  param {
    lr_mult: 1
  }
  param {
    lr_mult: 2
  }
  inner_product_param {
    num_output: 64
    weight_filler {
      type: "gaussian"
      std: 0.1
    }
    bias_filler {
      type: "constant"
    }
  }
}
layer {
  name: "ip2"
  type: "InnerProduct"
  bottom: "ip1"
  top: "ip2"
  param {
    lr_mult: 1
  }
  param {
    lr_mult: 2
  }
  inner_product_param {
    num_output: 64
    weight_filler {
      type: "gaussian"
      std: 0.1
    }
    bias_filler {
      type: "constant"
    }
  }
}
layer {
  name: "ip3"
  type: "InnerProduct"
  bottom: "ip2"
  top: "ip3"
  param {
    lr_mult: 1
  }
  param {
    lr_mult: 2
  }
  inner_product_param {
    num_output: 50
    weight_filler {
      type: "gaussian"
      std: 0.1
    }
    bias_filler {
      type: "constant"
    }
  }
}
layer {
  name: "loss"
  type: "SoftmaxWithLoss"
  bottom: "ip3"
  bottom: "label"
  top: "loss"
}
I0502 20:17:51.236096 13104 layer_factory.hpp:77] Creating layer parameters
I0502 20:17:51.236117 13104 net.cpp:94] Creating Layer parameters
I0502 20:17:51.236126 13104 net.cpp:409] parameters -> data
I0502 20:17:51.236150 13104 net.cpp:409] parameters -> label
I0502 20:17:51.236166 13104 hdf5_data_layer.cpp:79] Loading list of HDF5 filenames from: /home/purduethu/scratch/radon/d/deng106/CNNStatisticalModel/distributions/input/5_distributions_100_sample_size_train-distributions-path.txt
I0502 20:17:51.236199 13104 hdf5_data_layer.cpp:93] Number of HDF5 files: 1
I0502 20:17:51.236896 13104 hdf5.cpp:32] Datatype class: H5T_FLOAT
I0502 20:17:51.258829 13104 hdf5.cpp:35] Datatype class: H5T_INTEGER
I0502 20:17:51.260404 13104 net.cpp:144] Setting up parameters
I0502 20:17:51.260431 13104 net.cpp:151] Top shape: 20 1 10 10 (2000)
I0502 20:17:51.260439 13104 net.cpp:151] Top shape: 20 (20)
I0502 20:17:51.260445 13104 net.cpp:159] Memory required for data: 8080
I0502 20:17:51.260457 13104 layer_factory.hpp:77] Creating layer conv1
I0502 20:17:51.260486 13104 net.cpp:94] Creating Layer conv1
I0502 20:17:51.260499 13104 net.cpp:435] conv1 <- data
I0502 20:17:51.260517 13104 net.cpp:409] conv1 -> conv1
I0502 20:17:51.267506 13104 net.cpp:144] Setting up conv1
I0502 20:17:51.267525 13104 net.cpp:151] Top shape: 20 64 10 10 (128000)
I0502 20:17:51.267529 13104 net.cpp:159] Memory required for data: 520080
I0502 20:17:51.267542 13104 layer_factory.hpp:77] Creating layer relu1
I0502 20:17:51.267550 13104 net.cpp:94] Creating Layer relu1
I0502 20:17:51.267554 13104 net.cpp:435] relu1 <- conv1
I0502 20:17:51.267560 13104 net.cpp:396] relu1 -> conv1 (in-place)
I0502 20:17:51.267578 13104 net.cpp:144] Setting up relu1
I0502 20:17:51.267585 13104 net.cpp:151] Top shape: 20 64 10 10 (128000)
I0502 20:17:51.267587 13104 net.cpp:159] Memory required for data: 1032080
I0502 20:17:51.267591 13104 layer_factory.hpp:77] Creating layer conv2
I0502 20:17:51.267599 13104 net.cpp:94] Creating Layer conv2
I0502 20:17:51.267603 13104 net.cpp:435] conv2 <- conv1
I0502 20:17:51.267608 13104 net.cpp:409] conv2 -> conv2
I0502 20:17:51.275063 13104 net.cpp:144] Setting up conv2
I0502 20:17:51.275076 13104 net.cpp:151] Top shape: 20 64 10 10 (128000)
I0502 20:17:51.275081 13104 net.cpp:159] Memory required for data: 1544080
I0502 20:17:51.275089 13104 layer_factory.hpp:77] Creating layer relu2
I0502 20:17:51.275096 13104 net.cpp:94] Creating Layer relu2
I0502 20:17:51.275100 13104 net.cpp:435] relu2 <- conv2
I0502 20:17:51.275105 13104 net.cpp:396] relu2 -> conv2 (in-place)
I0502 20:17:51.275112 13104 net.cpp:144] Setting up relu2
I0502 20:17:51.275117 13104 net.cpp:151] Top shape: 20 64 10 10 (128000)
I0502 20:17:51.275120 13104 net.cpp:159] Memory required for data: 2056080
I0502 20:17:51.275123 13104 layer_factory.hpp:77] Creating layer pool2
I0502 20:17:51.275137 13104 net.cpp:94] Creating Layer pool2
I0502 20:17:51.275141 13104 net.cpp:435] pool2 <- conv2
I0502 20:17:51.275146 13104 net.cpp:409] pool2 -> pool2
I0502 20:17:51.275190 13104 net.cpp:144] Setting up pool2
I0502 20:17:51.275198 13104 net.cpp:151] Top shape: 20 64 5 5 (32000)
I0502 20:17:51.275202 13104 net.cpp:159] Memory required for data: 2184080
I0502 20:17:51.275205 13104 layer_factory.hpp:77] Creating layer conv3
I0502 20:17:51.275213 13104 net.cpp:94] Creating Layer conv3
I0502 20:17:51.275216 13104 net.cpp:435] conv3 <- pool2
I0502 20:17:51.275230 13104 net.cpp:409] conv3 -> conv3
I0502 20:17:51.282488 13104 net.cpp:144] Setting up conv3
I0502 20:17:51.282505 13104 net.cpp:151] Top shape: 20 64 5 5 (32000)
I0502 20:17:51.282508 13104 net.cpp:159] Memory required for data: 2312080
I0502 20:17:51.282517 13104 layer_factory.hpp:77] Creating layer relu3
I0502 20:17:51.282523 13104 net.cpp:94] Creating Layer relu3
I0502 20:17:51.282527 13104 net.cpp:435] relu3 <- conv3
I0502 20:17:51.282532 13104 net.cpp:396] relu3 -> conv3 (in-place)
I0502 20:17:51.282539 13104 net.cpp:144] Setting up relu3
I0502 20:17:51.282544 13104 net.cpp:151] Top shape: 20 64 5 5 (32000)
I0502 20:17:51.282547 13104 net.cpp:159] Memory required for data: 2440080
I0502 20:17:51.282551 13104 layer_factory.hpp:77] Creating layer conv4
I0502 20:17:51.282559 13104 net.cpp:94] Creating Layer conv4
I0502 20:17:51.282563 13104 net.cpp:435] conv4 <- conv3
I0502 20:17:51.282568 13104 net.cpp:409] conv4 -> conv4
I0502 20:17:51.289827 13104 net.cpp:144] Setting up conv4
I0502 20:17:51.289842 13104 net.cpp:151] Top shape: 20 64 5 5 (32000)
I0502 20:17:51.289847 13104 net.cpp:159] Memory required for data: 2568080
I0502 20:17:51.289855 13104 layer_factory.hpp:77] Creating layer relu4
I0502 20:17:51.289860 13104 net.cpp:94] Creating Layer relu4
I0502 20:17:51.289865 13104 net.cpp:435] relu4 <- conv4
I0502 20:17:51.289870 13104 net.cpp:396] relu4 -> conv4 (in-place)
I0502 20:17:51.289876 13104 net.cpp:144] Setting up relu4
I0502 20:17:51.289881 13104 net.cpp:151] Top shape: 20 64 5 5 (32000)
I0502 20:17:51.289885 13104 net.cpp:159] Memory required for data: 2696080
I0502 20:17:51.289888 13104 layer_factory.hpp:77] Creating layer conv5
I0502 20:17:51.289896 13104 net.cpp:94] Creating Layer conv5
I0502 20:17:51.289899 13104 net.cpp:435] conv5 <- conv4
I0502 20:17:51.289904 13104 net.cpp:409] conv5 -> conv5
I0502 20:17:51.297199 13104 net.cpp:144] Setting up conv5
I0502 20:17:51.297214 13104 net.cpp:151] Top shape: 20 64 5 5 (32000)
I0502 20:17:51.297219 13104 net.cpp:159] Memory required for data: 2824080
I0502 20:17:51.297227 13104 layer_factory.hpp:77] Creating layer relu5
I0502 20:17:51.297233 13104 net.cpp:94] Creating Layer relu5
I0502 20:17:51.297237 13104 net.cpp:435] relu5 <- conv5
I0502 20:17:51.297241 13104 net.cpp:396] relu5 -> conv5 (in-place)
I0502 20:17:51.297250 13104 net.cpp:144] Setting up relu5
I0502 20:17:51.297253 13104 net.cpp:151] Top shape: 20 64 5 5 (32000)
I0502 20:17:51.297257 13104 net.cpp:159] Memory required for data: 2952080
I0502 20:17:51.297260 13104 layer_factory.hpp:77] Creating layer pool5
I0502 20:17:51.297266 13104 net.cpp:94] Creating Layer pool5
I0502 20:17:51.297268 13104 net.cpp:435] pool5 <- conv5
I0502 20:17:51.297273 13104 net.cpp:409] pool5 -> pool5
I0502 20:17:51.297307 13104 net.cpp:144] Setting up pool5
I0502 20:17:51.297313 13104 net.cpp:151] Top shape: 20 64 2 2 (5120)
I0502 20:17:51.297317 13104 net.cpp:159] Memory required for data: 2972560
I0502 20:17:51.297319 13104 layer_factory.hpp:77] Creating layer ip1
I0502 20:17:51.297329 13104 net.cpp:94] Creating Layer ip1
I0502 20:17:51.297333 13104 net.cpp:435] ip1 <- pool5
I0502 20:17:51.297338 13104 net.cpp:409] ip1 -> ip1
I0502 20:17:51.298491 13104 net.cpp:144] Setting up ip1
I0502 20:17:51.298504 13104 net.cpp:151] Top shape: 20 64 (1280)
I0502 20:17:51.298508 13104 net.cpp:159] Memory required for data: 2977680
I0502 20:17:51.298514 13104 layer_factory.hpp:77] Creating layer ip2
I0502 20:17:51.298521 13104 net.cpp:94] Creating Layer ip2
I0502 20:17:51.298529 13104 net.cpp:435] ip2 <- ip1
I0502 20:17:51.298535 13104 net.cpp:409] ip2 -> ip2
I0502 20:17:51.298704 13104 net.cpp:144] Setting up ip2
I0502 20:17:51.298712 13104 net.cpp:151] Top shape: 20 64 (1280)
I0502 20:17:51.298714 13104 net.cpp:159] Memory required for data: 2982800
I0502 20:17:51.298720 13104 layer_factory.hpp:77] Creating layer ip3
I0502 20:17:51.298727 13104 net.cpp:94] Creating Layer ip3
I0502 20:17:51.298729 13104 net.cpp:435] ip3 <- ip2
I0502 20:17:51.298734 13104 net.cpp:409] ip3 -> ip3
I0502 20:17:51.298877 13104 net.cpp:144] Setting up ip3
I0502 20:17:51.298889 13104 net.cpp:151] Top shape: 20 50 (1000)
I0502 20:17:51.298892 13104 net.cpp:159] Memory required for data: 2986800
I0502 20:17:51.298897 13104 layer_factory.hpp:77] Creating layer loss
I0502 20:17:51.298904 13104 net.cpp:94] Creating Layer loss
I0502 20:17:51.298907 13104 net.cpp:435] loss <- ip3
I0502 20:17:51.298912 13104 net.cpp:435] loss <- label
I0502 20:17:51.298918 13104 net.cpp:409] loss -> loss
I0502 20:17:51.298928 13104 layer_factory.hpp:77] Creating layer loss
…
I0502 20:17:51.300110 13104 solver.cpp:181] Creating test net (#0) specified by net file: ./protocol/dis_5_100_dimension.protocol_distribution
I0502 20:17:51.300138 13104 net.cpp:323] The NetState phase (1) differed from the phase (0) specified by a rule in layer parameters
I0502 20:17:51.300236 13104 net.cpp:52] Initializing net from parameters: 
state {
  phase: TEST
}
layer {
  name: "intercept"
  type: "HDF5Data"
  top: "data"
  top: "label"
  include {
    phase: TEST
  }
  hdf5_data_param {
    source: "/home/purduethu/scratch/radon/d/deng106/CNNStatisticalModel/distributions/input/5_distributions_100_sample_size_test-distributions-path.txt"
    batch_size: 20
  }
}
layer {
  name: "conv1"
  type: "Convolution"
  bottom: "data"
  top: "conv1"
  param {
    lr_mult: 1
  }
  param {
    lr_mult: 2
  }
  convolution_param {
    num_output: 64
    pad: 2
    kernel_size: 5
    stride: 1
    weight_filler {
      type: "gaussian"
      std: 0.0001
    }
    bias_filler {
      type: "constant"
    }
  }
}
layer {
  name: "relu1"
  type: "ReLU"
  bottom: "conv1"
  top: "conv1"
}
layer {
  name: "conv2"
  type: "Convolution"
  bottom: "conv1"
  top: "conv2"
  param {
    lr_mult: 1
  }
  param {
    lr_mult: 2
  }
  convolution_param {
    num_output: 64
    pad: 2
    kernel_size: 5
    stride: 1
    weight_filler {
      type: "gaussian"
      std: 0.01
    }
    bias_filler {
      type: "constant"
    }
  }
}
layer {
  name: "relu2"
  type: "ReLU"
  bottom: "conv2"
  top: "conv2"
}
layer {
  name: "pool2"
  type: "Pooling"
  bottom: "conv2"
  top: "pool2"
  pooling_param {
    pool: MAX
    kernel_size: 3
    stride: 2
  }
}
layer {
  name: "conv3"
  type: "Convolution"
  bottom: "pool2"
  top: "conv3"
  param {
    lr_mult: 1
  }
  param {
    lr_mult: 2
  }
  convolution_param {
    num_output: 64
    pad: 2
    kernel_size: 5
    stride: 1
    weight_filler {
      type: "gaussian"
      std: 0.01
    }
    bias_filler {
      type: "constant"
    }
  }
}
layer {
  name: "relu3"
  type: "ReLU"
  bottom: "conv3"
  top: "conv3"
}
layer {
  name: "conv4"
  type: "Convolution"
  bottom: "conv3"
  top: "conv4"
  param {
    lr_mult: 1
  }
  param {
    lr_mult: 2
  }
  convolution_param {
    num_output: 64
    pad: 2
    kernel_size: 5
    stride: 1
    weight_filler {
      type: "gaussian"
      std: 0.01
    }
    bias_filler {
      type: "constant"
    }
  }
}
layer {
  name: "relu4"
  type: "ReLU"
  bottom: "conv4"
  top: "conv4"
}
layer {
  name: "conv5"
  type: "Convolution"
  bottom: "conv4"
  top: "conv5"
  param {
    lr_mult: 1
  }
  param {
    lr_mult: 2
  }
  convolution_param {
    num_output: 64
    pad: 2
    kernel_size: 5
    stride: 1
    weight_filler {
      type: "gaussian"
      std: 0.01
    }
    bias_filler {
      type: "constant"
    }
  }
}
layer {
  name: "relu5"
  type: "ReLU"
  bottom: "conv5"
  top: "conv5"
}
layer {
  name: "pool5"
  type: "Pooling"
  bottom: "conv5"
  top: "pool5"
  pooling_param {
    pool: AVE
    kernel_size: 3
    stride: 2
  }
}
layer {
  name: "ip1"
  type: "InnerProduct"
  bottom: "pool5"
  top: "ip1"
  param {
    lr_mult: 1
  }
  param {
    lr_mult: 2
  }
  inner_product_param {
    num_output: 64
    weight_filler {
      type: "gaussian"
      std: 0.1
    }
    bias_filler {
      type: "constant"
    }
  }
}
layer {
  name: "ip2"
  type: "InnerProduct"
  bottom: "ip1"
  top: "ip2"
  param {
    lr_mult: 1
  }
  param {
    lr_mult: 2
  }
  inner_product_param {
    num_output: 64
    weight_filler {
      type: "gaussian"
      std: 0.1
    }
    bias_filler {
      type: "constant"
    }
  }
}
layer {
  name: "ip3"
  type: "InnerProduct"
  bottom: "ip2"
  top: "ip3"
  param {
    lr_mult: 1
  }
  param {
    lr_mult: 2
  }
  inner_product_param {
    num_output: 50
    weight_filler {
      type: "gaussian"
      std: 0.1
    }
    bias_filler {
      type: "constant"
    }
  }
}
layer {
  name: "accuracy"
  type: "Accuracy"
  bottom: "ip3"
  bottom: "label"
  top: "accuracy"
  include {
    phase: TEST
  }
}
layer {
  name: "loss"
  type: "SoftmaxWithLoss"
  bottom: "ip3"
  bottom: "label"
  top: "loss"
}
I0502 20:17:51.300312 13104 layer_factory.hpp:77] Creating layer intercept
I0502 20:17:51.300320 13104 net.cpp:94] Creating Layer intercept
I0502 20:17:51.300324 13104 net.cpp:409] intercept -> data
I0502 20:17:51.300331 13104 net.cpp:409] intercept -> label
I0502 20:17:51.300338 13104 hdf5_data_layer.cpp:79] Loading list of HDF5 filenames from: /home/purduethu/scratch/radon/d/deng106/CNNStatisticalModel/distributions/input/5_distributions_100_sample_size_test-distributions-path.txt
I0502 20:17:51.300359 13104 hdf5_data_layer.cpp:93] Number of HDF5 files: 1
I0502 20:17:51.304509 13104 net.cpp:144] Setting up intercept
I0502 20:17:51.304535 13104 net.cpp:151] Top shape: 20 1 10 10 (2000)
I0502 20:17:51.304540 13104 net.cpp:151] Top shape: 20 (20)
I0502 20:17:51.304544 13104 net.cpp:159] Memory required for data: 8080
I0502 20:17:51.304549 13104 layer_factory.hpp:77] Creating layer label_intercept_1_split
I0502 20:17:51.304579 13104 net.cpp:94] Creating Layer label_intercept_1_split
I0502 20:17:51.304584 13104 net.cpp:435] label_intercept_1_split <- label
I0502 20:17:51.304590 13104 net.cpp:409] label_intercept_1_split -> label_intercept_1_split_0
I0502 20:17:51.304599 13104 net.cpp:409] label_intercept_1_split -> label_intercept_1_split_1
I0502 20:17:51.304631 13104 net.cpp:144] Setting up label_intercept_1_split
I0502 20:17:51.304638 13104 net.cpp:151] Top shape: 20 (20)
I0502 20:17:51.304642 13104 net.cpp:151] Top shape: 20 (20)
I0502 20:17:51.304646 13104 net.cpp:159] Memory required for data: 8240
I0502 20:17:51.304649 13104 layer_factory.hpp:77] Creating layer conv1
I0502 20:17:51.304658 13104 net.cpp:94] Creating Layer conv1
I0502 20:17:51.304662 13104 net.cpp:435] conv1 <- data
I0502 20:17:51.304667 13104 net.cpp:409] conv1 -> conv1
I0502 20:17:51.308099 13104 net.cpp:144] Setting up conv1
I0502 20:17:51.308122 13104 net.cpp:151] Top shape: 20 64 10 10 (128000)
I0502 20:17:51.308127 13104 net.cpp:159] Memory required for data: 520240
I0502 20:17:51.308136 13104 layer_factory.hpp:77] Creating layer relu1
I0502 20:17:51.308143 13104 net.cpp:94] Creating Layer relu1
I0502 20:17:51.308147 13104 net.cpp:435] relu1 <- conv1
I0502 20:17:51.308151 13104 net.cpp:396] relu1 -> conv1 (in-place)
I0502 20:17:51.308159 13104 net.cpp:144] Setting up relu1
I0502 20:17:51.308164 13104 net.cpp:151] Top shape: 20 64 10 10 (128000)
I0502 20:17:51.308167 13104 net.cpp:159] Memory required for data: 1032240
I0502 20:17:51.308171 13104 layer_factory.hpp:77] Creating layer conv2
I0502 20:17:51.308178 13104 net.cpp:94] Creating Layer conv2
I0502 20:17:51.308182 13104 net.cpp:435] conv2 <- conv1
I0502 20:17:51.308187 13104 net.cpp:409] conv2 -> conv2
I0502 20:17:51.312746 13104 net.cpp:144] Setting up conv2
I0502 20:17:51.312759 13104 net.cpp:151] Top shape: 20 64 10 10 (128000)
I0502 20:17:51.312763 13104 net.cpp:159] Memory required for data: 1544240
I0502 20:17:51.312772 13104 layer_factory.hpp:77] Creating layer relu2
I0502 20:17:51.312777 13104 net.cpp:94] Creating Layer relu2
I0502 20:17:51.312782 13104 net.cpp:435] relu2 <- conv2
I0502 20:17:51.312786 13104 net.cpp:396] relu2 -> conv2 (in-place)
I0502 20:17:51.312793 13104 net.cpp:144] Setting up relu2
I0502 20:17:51.312798 13104 net.cpp:151] Top shape: 20 64 10 10 (128000)
I0502 20:17:51.312800 13104 net.cpp:159] Memory required for data: 2056240
I0502 20:17:51.312803 13104 layer_factory.hpp:77] Creating layer pool2
I0502 20:17:51.312809 13104 net.cpp:94] Creating Layer pool2
I0502 20:17:51.312813 13104 net.cpp:435] pool2 <- conv2
I0502 20:17:51.312818 13104 net.cpp:409] pool2 -> pool2
I0502 20:17:51.312850 13104 net.cpp:144] Setting up pool2
I0502 20:17:51.312856 13104 net.cpp:151] Top shape: 20 64 5 5 (32000)
I0502 20:17:51.312860 13104 net.cpp:159] Memory required for data: 2184240
I0502 20:17:51.312863 13104 layer_factory.hpp:77] Creating layer conv3
I0502 20:17:51.312870 13104 net.cpp:94] Creating Layer conv3
I0502 20:17:51.312875 13104 net.cpp:435] conv3 <- pool2
I0502 20:17:51.312880 13104 net.cpp:409] conv3 -> conv3
I0502 20:17:51.317639 13104 net.cpp:144] Setting up conv3
I0502 20:17:51.317653 13104 net.cpp:151] Top shape: 20 64 5 5 (32000)
I0502 20:17:51.317658 13104 net.cpp:159] Memory required for data: 2312240
I0502 20:17:51.317667 13104 layer_factory.hpp:77] Creating layer relu3
I0502 20:17:51.317674 13104 net.cpp:94] Creating Layer relu3
I0502 20:17:51.317678 13104 net.cpp:435] relu3 <- conv3
I0502 20:17:51.317683 13104 net.cpp:396] relu3 -> conv3 (in-place)
I0502 20:17:51.317690 13104 net.cpp:144] Setting up relu3
I0502 20:17:51.317695 13104 net.cpp:151] Top shape: 20 64 5 5 (32000)
I0502 20:17:51.317698 13104 net.cpp:159] Memory required for data: 2440240
I0502 20:17:51.317701 13104 layer_factory.hpp:77] Creating layer conv4
I0502 20:17:51.317709 13104 net.cpp:94] Creating Layer conv4
I0502 20:17:51.317713 13104 net.cpp:435] conv4 <- conv3
I0502 20:17:51.317718 13104 net.cpp:409] conv4 -> conv4
I0502 20:17:51.321856 13104 net.cpp:144] Setting up conv4
I0502 20:17:51.321871 13104 net.cpp:151] Top shape: 20 64 5 5 (32000)
I0502 20:17:51.321876 13104 net.cpp:159] Memory required for data: 2568240
I0502 20:17:51.321882 13104 layer_factory.hpp:77] Creating layer relu4
I0502 20:17:51.321887 13104 net.cpp:94] Creating Layer relu4
I0502 20:17:51.321892 13104 net.cpp:435] relu4 <- conv4
I0502 20:17:51.321900 13104 net.cpp:396] relu4 -> conv4 (in-place)
I0502 20:17:51.321907 13104 net.cpp:144] Setting up relu4
I0502 20:17:51.321913 13104 net.cpp:151] Top shape: 20 64 5 5 (32000)
I0502 20:17:51.321915 13104 net.cpp:159] Memory required for data: 2696240
I0502 20:17:51.321918 13104 layer_factory.hpp:77] Creating layer conv5
I0502 20:17:51.321926 13104 net.cpp:94] Creating Layer conv5
I0502 20:17:51.321929 13104 net.cpp:435] conv5 <- conv4
I0502 20:17:51.321934 13104 net.cpp:409] conv5 -> conv5
I0502 20:17:51.328192 13104 net.cpp:144] Setting up conv5
I0502 20:17:51.328205 13104 net.cpp:151] Top shape: 20 64 5 5 (32000)
I0502 20:17:51.328217 13104 net.cpp:159] Memory required for data: 2824240
I0502 20:17:51.328224 13104 layer_factory.hpp:77] Creating layer relu5
I0502 20:17:51.328232 13104 net.cpp:94] Creating Layer relu5
I0502 20:17:51.328234 13104 net.cpp:435] relu5 <- conv5
I0502 20:17:51.328239 13104 net.cpp:396] relu5 -> conv5 (in-place)
I0502 20:17:51.328246 13104 net.cpp:144] Setting up relu5
I0502 20:17:51.328250 13104 net.cpp:151] Top shape: 20 64 5 5 (32000)
I0502 20:17:51.328253 13104 net.cpp:159] Memory required for data: 2952240
I0502 20:17:51.328256 13104 layer_factory.hpp:77] Creating layer pool5
I0502 20:17:51.328261 13104 net.cpp:94] Creating Layer pool5
I0502 20:17:51.328265 13104 net.cpp:435] pool5 <- conv5
I0502 20:17:51.328269 13104 net.cpp:409] pool5 -> pool5
I0502 20:17:51.328292 13104 net.cpp:144] Setting up pool5
I0502 20:17:51.328299 13104 net.cpp:151] Top shape: 20 64 2 2 (5120)
I0502 20:17:51.328302 13104 net.cpp:159] Memory required for data: 2972720
I0502 20:17:51.328305 13104 layer_factory.hpp:77] Creating layer ip1
I0502 20:17:51.328312 13104 net.cpp:94] Creating Layer ip1
I0502 20:17:51.328315 13104 net.cpp:435] ip1 <- pool5
I0502 20:17:51.328320 13104 net.cpp:409] ip1 -> ip1
I0502 20:17:51.328812 13104 net.cpp:144] Setting up ip1
I0502 20:17:51.328821 13104 net.cpp:151] Top shape: 20 64 (1280)
I0502 20:17:51.328825 13104 net.cpp:159] Memory required for data: 2977840
I0502 20:17:51.328830 13104 layer_factory.hpp:77] Creating layer ip2
I0502 20:17:51.328837 13104 net.cpp:94] Creating Layer ip2
I0502 20:17:51.328840 13104 net.cpp:435] ip2 <- ip1
I0502 20:17:51.328845 13104 net.cpp:409] ip2 -> ip2
I0502 20:17:51.329012 13104 net.cpp:144] Setting up ip2
I0502 20:17:51.329020 13104 net.cpp:151] Top shape: 20 64 (1280)
I0502 20:17:51.329022 13104 net.cpp:159] Memory required for data: 2982960
I0502 20:17:51.329027 13104 layer_factory.hpp:77] Creating layer ip3
I0502 20:17:51.329033 13104 net.cpp:94] Creating Layer ip3
I0502 20:17:51.329037 13104 net.cpp:435] ip3 <- ip2
I0502 20:17:51.329042 13104 net.cpp:409] ip3 -> ip3
I0502 20:17:51.329188 13104 net.cpp:144] Setting up ip3
I0502 20:17:51.329195 13104 net.cpp:151] Top shape: 20 50 (1000)
I0502 20:17:51.329197 13104 net.cpp:159] Memory required for data: 2986960
I0502 20:17:51.329202 13104 layer_factory.hpp:77] Creating layer ip3_ip3_0_split
I0502 20:17:51.329207 13104 net.cpp:94] Creating Layer ip3_ip3_0_split
I0502 20:17:51.329211 13104 net.cpp:435] ip3_ip3_0_split <- ip3
I0502 20:17:51.329216 13104 net.cpp:409] ip3_ip3_0_split -> ip3_ip3_0_split_0
I0502 20:17:51.329221 13104 net.cpp:409] ip3_ip3_0_split -> ip3_ip3_0_split_1
I0502 20:17:51.329244 13104 net.cpp:144] Setting up ip3_ip3_0_split
I0502 20:17:51.329249 13104 net.cpp:151] Top shape: 20 50 (1000)
I0502 20:17:51.329253 13104 net.cpp:151] Top shape: 20 50 (1000)
I0502 20:17:51.329257 13104 net.cpp:159] Memory required for data: 2994960
I0502 20:17:51.329259 13104 layer_factory.hpp:77] Creating layer accuracy
I0502 20:17:51.329265 13104 net.cpp:94] Creating Layer accuracy
I0502 20:17:51.329268 13104 net.cpp:435] accuracy <- ip3_ip3_0_split_0
I0502 20:17:51.329272 13104 net.cpp:435] accuracy <- label_intercept_1_split_0
I0502 20:17:51.329277 13104 net.cpp:409] accuracy -> accuracy
…
