…
I0505 06:18:16.492553  4078 net.cpp:323] The NetState phase (0) differed from the phase (1) specified by a rule in layer intercept
I0505 06:18:16.492569  4078 net.cpp:323] The NetState phase (0) differed from the phase (1) specified by a rule in layer accuracy
I0505 06:18:16.492651  4078 net.cpp:52] Initializing net from parameters: 
state {
  phase: TRAIN
}
layer {
  name: "parameters"
  type: "HDF5Data"
  top: "data"
  top: "label"
  include {
    phase: TRAIN
  }
  hdf5_data_param {
    source: "/home/purduethu/scratch/radon/d/deng106/CNNStatisticalModel/distributions/input/5_distributions_100_sample_size_train-distributions-path.txt"
    batch_size: 20
  }
}
layer {
  name: "conv1"
  type: "Convolution"
  bottom: "data"
  top: "conv1"
  param {
    lr_mult: 1
  }
  param {
    lr_mult: 2
  }
  convolution_param {
    num_output: 64
    pad: 2
    kernel_size: 5
    stride: 1
    weight_filler {
      type: "gaussian"
      std: 0.0001
    }
    bias_filler {
      type: "constant"
    }
  }
}
layer {
  name: "relu1"
  type: "ReLU"
  bottom: "conv1"
  top: "conv1"
}
layer {
  name: "pool1"
  type: "Pooling"
  bottom: "conv1"
  top: "pool1"
  pooling_param {
    pool: MAX
    kernel_size: 3
    stride: 2
  }
}
layer {
  name: "conv2"
  type: "Convolution"
  bottom: "pool1"
  top: "conv2"
  param {
    lr_mult: 1
  }
  param {
    lr_mult: 2
  }
  convolution_param {
    num_output: 128
    pad: 2
    kernel_size: 5
    stride: 1
    weight_filler {
      type: "gaussian"
      std: 0.01
    }
    bias_filler {
      type: "constant"
    }
  }
}
layer {
  name: "relu2"
  type: "ReLU"
  bottom: "conv2"
  top: "conv2"
}
layer {
  name: "conv3"
  type: "Convolution"
  bottom: "conv2"
  top: "conv3"
  param {
    lr_mult: 1
  }
  param {
    lr_mult: 2
  }
  convolution_param {
    num_output: 128
    pad: 2
    kernel_size: 5
    stride: 1
    weight_filler {
      type: "gaussian"
      std: 0.01
    }
    bias_filler {
      type: "constant"
    }
  }
}
layer {
  name: "relu3"
  type: "ReLU"
  bottom: "conv3"
  top: "conv3"
}
layer {
  name: "pool3"
  type: "Pooling"
  bottom: "conv3"
  top: "pool3"
  pooling_param {
    pool: AVE
    kernel_size: 3
    stride: 2
  }
}
layer {
  name: "ip1"
  type: "InnerProduct"
  bottom: "pool3"
  top: "ip1"
  param {
    lr_mult: 1
  }
  param {
    lr_mult: 2
  }
  inner_product_param {
    num_output: 512
    weight_filler {
      type: "gaussian"
      std: 0.1
    }
    bias_filler {
      type: "constant"
    }
  }
}
layer {
  name: "ip2"
  type: "InnerProduct"
  bottom: "ip1"
  top: "ip2"
  param {
    lr_mult: 1
  }
  param {
    lr_mult: 2
  }
  inner_product_param {
    num_output: 256
    weight_filler {
      type: "gaussian"
      std: 0.1
    }
    bias_filler {
      type: "constant"
    }
  }
}
layer {
  name: "ip3"
  type: "InnerProduct"
  bottom: "ip2"
  top: "ip3"
  param {
    lr_mult: 1
  }
  param {
    lr_mult: 2
  }
  inner_product_param {
    num_output: 50
    weight_filler {
      type: "gaussian"
      std: 0.1
    }
    bias_filler {
      type: "constant"
    }
  }
}
layer {
  name: "loss"
  type: "SoftmaxWithLoss"
  bottom: "ip3"
  bottom: "label"
  top: "loss"
}
I0505 06:18:16.492715  4078 layer_factory.hpp:77] Creating layer parameters
I0505 06:18:16.492729  4078 net.cpp:94] Creating Layer parameters
I0505 06:18:16.492734  4078 net.cpp:409] parameters -> data
I0505 06:18:16.492760  4078 net.cpp:409] parameters -> label
I0505 06:18:16.492771  4078 hdf5_data_layer.cpp:79] Loading list of HDF5 filenames from: /home/purduethu/scratch/radon/d/deng106/CNNStatisticalModel/distributions/input/5_distributions_100_sample_size_train-distributions-path.txt
I0505 06:18:16.492794  4078 hdf5_data_layer.cpp:93] Number of HDF5 files: 1
I0505 06:18:16.493258  4078 hdf5.cpp:32] Datatype class: H5T_FLOAT
I0505 06:18:16.509518  4078 hdf5.cpp:35] Datatype class: H5T_INTEGER
I0505 06:18:16.510640  4078 net.cpp:144] Setting up parameters
I0505 06:18:16.510659  4078 net.cpp:151] Top shape: 20 1 10 10 (2000)
I0505 06:18:16.510664  4078 net.cpp:151] Top shape: 20 (20)
I0505 06:18:16.510668  4078 net.cpp:159] Memory required for data: 8080
I0505 06:18:16.510675  4078 layer_factory.hpp:77] Creating layer conv1
I0505 06:18:16.510694  4078 net.cpp:94] Creating Layer conv1
I0505 06:18:16.510700  4078 net.cpp:435] conv1 <- data
I0505 06:18:16.510712  4078 net.cpp:409] conv1 -> conv1
I0505 06:18:16.514566  4078 net.cpp:144] Setting up conv1
I0505 06:18:16.514581  4078 net.cpp:151] Top shape: 20 64 10 10 (128000)
I0505 06:18:16.514586  4078 net.cpp:159] Memory required for data: 520080
I0505 06:18:16.514598  4078 layer_factory.hpp:77] Creating layer relu1
I0505 06:18:16.514605  4078 net.cpp:94] Creating Layer relu1
I0505 06:18:16.514609  4078 net.cpp:435] relu1 <- conv1
I0505 06:18:16.514614  4078 net.cpp:396] relu1 -> conv1 (in-place)
I0505 06:18:16.514631  4078 net.cpp:144] Setting up relu1
I0505 06:18:16.514637  4078 net.cpp:151] Top shape: 20 64 10 10 (128000)
I0505 06:18:16.514641  4078 net.cpp:159] Memory required for data: 1032080
I0505 06:18:16.514643  4078 layer_factory.hpp:77] Creating layer pool1
I0505 06:18:16.514652  4078 net.cpp:94] Creating Layer pool1
I0505 06:18:16.514654  4078 net.cpp:435] pool1 <- conv1
I0505 06:18:16.514659  4078 net.cpp:409] pool1 -> pool1
I0505 06:18:16.514704  4078 net.cpp:144] Setting up pool1
I0505 06:18:16.514711  4078 net.cpp:151] Top shape: 20 64 5 5 (32000)
I0505 06:18:16.514715  4078 net.cpp:159] Memory required for data: 1160080
I0505 06:18:16.514719  4078 layer_factory.hpp:77] Creating layer conv2
I0505 06:18:16.514727  4078 net.cpp:94] Creating Layer conv2
I0505 06:18:16.514731  4078 net.cpp:435] conv2 <- pool1
I0505 06:18:16.514736  4078 net.cpp:409] conv2 -> conv2
I0505 06:18:16.523560  4078 net.cpp:144] Setting up conv2
I0505 06:18:16.523573  4078 net.cpp:151] Top shape: 20 128 5 5 (64000)
I0505 06:18:16.523578  4078 net.cpp:159] Memory required for data: 1416080
I0505 06:18:16.523586  4078 layer_factory.hpp:77] Creating layer relu2
I0505 06:18:16.523592  4078 net.cpp:94] Creating Layer relu2
I0505 06:18:16.523597  4078 net.cpp:435] relu2 <- conv2
I0505 06:18:16.523602  4078 net.cpp:396] relu2 -> conv2 (in-place)
I0505 06:18:16.523608  4078 net.cpp:144] Setting up relu2
I0505 06:18:16.523613  4078 net.cpp:151] Top shape: 20 128 5 5 (64000)
I0505 06:18:16.523617  4078 net.cpp:159] Memory required for data: 1672080
I0505 06:18:16.523619  4078 layer_factory.hpp:77] Creating layer conv3
I0505 06:18:16.523627  4078 net.cpp:94] Creating Layer conv3
I0505 06:18:16.523632  4078 net.cpp:435] conv3 <- conv2
I0505 06:18:16.523636  4078 net.cpp:409] conv3 -> conv3
I0505 06:18:16.538673  4078 net.cpp:144] Setting up conv3
I0505 06:18:16.538688  4078 net.cpp:151] Top shape: 20 128 5 5 (64000)
I0505 06:18:16.538692  4078 net.cpp:159] Memory required for data: 1928080
I0505 06:18:16.538702  4078 layer_factory.hpp:77] Creating layer relu3
I0505 06:18:16.538714  4078 net.cpp:94] Creating Layer relu3
I0505 06:18:16.538718  4078 net.cpp:435] relu3 <- conv3
I0505 06:18:16.538723  4078 net.cpp:396] relu3 -> conv3 (in-place)
I0505 06:18:16.538730  4078 net.cpp:144] Setting up relu3
I0505 06:18:16.538735  4078 net.cpp:151] Top shape: 20 128 5 5 (64000)
I0505 06:18:16.538738  4078 net.cpp:159] Memory required for data: 2184080
I0505 06:18:16.538741  4078 layer_factory.hpp:77] Creating layer pool3
I0505 06:18:16.538748  4078 net.cpp:94] Creating Layer pool3
I0505 06:18:16.538758  4078 net.cpp:435] pool3 <- conv3
I0505 06:18:16.538763  4078 net.cpp:409] pool3 -> pool3
I0505 06:18:16.538796  4078 net.cpp:144] Setting up pool3
I0505 06:18:16.538803  4078 net.cpp:151] Top shape: 20 128 2 2 (10240)
I0505 06:18:16.538806  4078 net.cpp:159] Memory required for data: 2225040
I0505 06:18:16.538810  4078 layer_factory.hpp:77] Creating layer ip1
I0505 06:18:16.538817  4078 net.cpp:94] Creating Layer ip1
I0505 06:18:16.538820  4078 net.cpp:435] ip1 <- pool3
I0505 06:18:16.538825  4078 net.cpp:409] ip1 -> ip1
I0505 06:18:16.545981  4078 net.cpp:144] Setting up ip1
I0505 06:18:16.545995  4078 net.cpp:151] Top shape: 20 512 (10240)
I0505 06:18:16.546000  4078 net.cpp:159] Memory required for data: 2266000
I0505 06:18:16.546005  4078 layer_factory.hpp:77] Creating layer ip2
I0505 06:18:16.546012  4078 net.cpp:94] Creating Layer ip2
I0505 06:18:16.546016  4078 net.cpp:435] ip2 <- ip1
I0505 06:18:16.546022  4078 net.cpp:409] ip2 -> ip2
I0505 06:18:16.549957  4078 net.cpp:144] Setting up ip2
I0505 06:18:16.549970  4078 net.cpp:151] Top shape: 20 256 (5120)
I0505 06:18:16.549974  4078 net.cpp:159] Memory required for data: 2286480
I0505 06:18:16.549983  4078 layer_factory.hpp:77] Creating layer ip3
I0505 06:18:16.549989  4078 net.cpp:94] Creating Layer ip3
I0505 06:18:16.549993  4078 net.cpp:435] ip3 <- ip2
I0505 06:18:16.549998  4078 net.cpp:409] ip3 -> ip3
I0505 06:18:16.551020  4078 net.cpp:144] Setting up ip3
I0505 06:18:16.551033  4078 net.cpp:151] Top shape: 20 50 (1000)
I0505 06:18:16.551038  4078 net.cpp:159] Memory required for data: 2290480
I0505 06:18:16.551043  4078 layer_factory.hpp:77] Creating layer loss
I0505 06:18:16.551049  4078 net.cpp:94] Creating Layer loss
I0505 06:18:16.551054  4078 net.cpp:435] loss <- ip3
I0505 06:18:16.551057  4078 net.cpp:435] loss <- label
I0505 06:18:16.551064  4078 net.cpp:409] loss -> loss
I0505 06:18:16.551074  4078 layer_factory.hpp:77] Creating layer loss
…
I0505 06:18:16.551506  4078 solver.cpp:181] Creating test net (#0) specified by net file: ./protocol/dis_5_100_dimension.protocol_distribution
I0505 06:18:16.551529  4078 net.cpp:323] The NetState phase (1) differed from the phase (0) specified by a rule in layer parameters
I0505 06:18:16.551622  4078 net.cpp:52] Initializing net from parameters: 
state {
  phase: TEST
}
layer {
  name: "intercept"
  type: "HDF5Data"
  top: "data"
  top: "label"
  include {
    phase: TEST
  }
  hdf5_data_param {
    source: "/home/purduethu/scratch/radon/d/deng106/CNNStatisticalModel/distributions/input/5_distributions_100_sample_size_test-distributions-path.txt"
    batch_size: 20
  }
}
layer {
  name: "conv1"
  type: "Convolution"
  bottom: "data"
  top: "conv1"
  param {
    lr_mult: 1
  }
  param {
    lr_mult: 2
  }
  convolution_param {
    num_output: 64
    pad: 2
    kernel_size: 5
    stride: 1
    weight_filler {
      type: "gaussian"
      std: 0.0001
    }
    bias_filler {
      type: "constant"
    }
  }
}
layer {
  name: "relu1"
  type: "ReLU"
  bottom: "conv1"
  top: "conv1"
}
layer {
  name: "pool1"
  type: "Pooling"
  bottom: "conv1"
  top: "pool1"
  pooling_param {
    pool: MAX
    kernel_size: 3
    stride: 2
  }
}
layer {
  name: "conv2"
  type: "Convolution"
  bottom: "pool1"
  top: "conv2"
  param {
    lr_mult: 1
  }
  param {
    lr_mult: 2
  }
  convolution_param {
    num_output: 128
    pad: 2
    kernel_size: 5
    stride: 1
    weight_filler {
      type: "gaussian"
      std: 0.01
    }
    bias_filler {
      type: "constant"
    }
  }
}
layer {
  name: "relu2"
  type: "ReLU"
  bottom: "conv2"
  top: "conv2"
}
layer {
  name: "conv3"
  type: "Convolution"
  bottom: "conv2"
  top: "conv3"
  param {
    lr_mult: 1
  }
  param {
    lr_mult: 2
  }
  convolution_param {
    num_output: 128
    pad: 2
    kernel_size: 5
    stride: 1
    weight_filler {
      type: "gaussian"
      std: 0.01
    }
    bias_filler {
      type: "constant"
    }
  }
}
layer {
  name: "relu3"
  type: "ReLU"
  bottom: "conv3"
  top: "conv3"
}
layer {
  name: "pool3"
  type: "Pooling"
  bottom: "conv3"
  top: "pool3"
  pooling_param {
    pool: AVE
    kernel_size: 3
    stride: 2
  }
}
layer {
  name: "ip1"
  type: "InnerProduct"
  bottom: "pool3"
  top: "ip1"
  param {
    lr_mult: 1
  }
  param {
    lr_mult: 2
  }
  inner_product_param {
    num_output: 512
    weight_filler {
      type: "gaussian"
      std: 0.1
    }
    bias_filler {
      type: "constant"
    }
  }
}
layer {
  name: "ip2"
  type: "InnerProduct"
  bottom: "ip1"
  top: "ip2"
  param {
    lr_mult: 1
  }
  param {
    lr_mult: 2
  }
  inner_product_param {
    num_output: 256
    weight_filler {
      type: "gaussian"
      std: 0.1
    }
    bias_filler {
      type: "constant"
    }
  }
}
layer {
  name: "ip3"
  type: "InnerProduct"
  bottom: "ip2"
  top: "ip3"
  param {
    lr_mult: 1
  }
  param {
    lr_mult: 2
  }
  inner_product_param {
    num_output: 50
    weight_filler {
      type: "gaussian"
      std: 0.1
    }
    bias_filler {
      type: "constant"
    }
  }
}
layer {
  name: "accuracy"
  type: "Accuracy"
  bottom: "ip3"
  bottom: "label"
  top: "accuracy"
  include {
    phase: TEST
  }
}
layer {
  name: "loss"
  type: "SoftmaxWithLoss"
  bottom: "ip3"
  bottom: "label"
  top: "loss"
}
I0505 06:18:16.551687  4078 layer_factory.hpp:77] Creating layer intercept
I0505 06:18:16.551695  4078 net.cpp:94] Creating Layer intercept
I0505 06:18:16.551699  4078 net.cpp:409] intercept -> data
I0505 06:18:16.551707  4078 net.cpp:409] intercept -> label
I0505 06:18:16.551713  4078 hdf5_data_layer.cpp:79] Loading list of HDF5 filenames from: /home/purduethu/scratch/radon/d/deng106/CNNStatisticalModel/distributions/input/5_distributions_100_sample_size_test-distributions-path.txt
I0505 06:18:16.551733  4078 hdf5_data_layer.cpp:93] Number of HDF5 files: 1
I0505 06:18:16.555863  4078 net.cpp:144] Setting up intercept
I0505 06:18:16.555889  4078 net.cpp:151] Top shape: 20 1 10 10 (2000)
I0505 06:18:16.555896  4078 net.cpp:151] Top shape: 20 (20)
I0505 06:18:16.555898  4078 net.cpp:159] Memory required for data: 8080
I0505 06:18:16.555903  4078 layer_factory.hpp:77] Creating layer label_intercept_1_split
I0505 06:18:16.555913  4078 net.cpp:94] Creating Layer label_intercept_1_split
I0505 06:18:16.555923  4078 net.cpp:435] label_intercept_1_split <- label
I0505 06:18:16.555928  4078 net.cpp:409] label_intercept_1_split -> label_intercept_1_split_0
I0505 06:18:16.555936  4078 net.cpp:409] label_intercept_1_split -> label_intercept_1_split_1
I0505 06:18:16.555970  4078 net.cpp:144] Setting up label_intercept_1_split
I0505 06:18:16.555976  4078 net.cpp:151] Top shape: 20 (20)
I0505 06:18:16.555980  4078 net.cpp:151] Top shape: 20 (20)
I0505 06:18:16.555984  4078 net.cpp:159] Memory required for data: 8240
I0505 06:18:16.555994  4078 layer_factory.hpp:77] Creating layer conv1
I0505 06:18:16.556004  4078 net.cpp:94] Creating Layer conv1
I0505 06:18:16.556007  4078 net.cpp:435] conv1 <- data
I0505 06:18:16.556012  4078 net.cpp:409] conv1 -> conv1
I0505 06:18:16.556705  4078 net.cpp:144] Setting up conv1
I0505 06:18:16.556720  4078 net.cpp:151] Top shape: 20 64 10 10 (128000)
I0505 06:18:16.556725  4078 net.cpp:159] Memory required for data: 520240
I0505 06:18:16.556733  4078 layer_factory.hpp:77] Creating layer relu1
I0505 06:18:16.556740  4078 net.cpp:94] Creating Layer relu1
I0505 06:18:16.556744  4078 net.cpp:435] relu1 <- conv1
I0505 06:18:16.556748  4078 net.cpp:396] relu1 -> conv1 (in-place)
I0505 06:18:16.556756  4078 net.cpp:144] Setting up relu1
I0505 06:18:16.556761  4078 net.cpp:151] Top shape: 20 64 10 10 (128000)
I0505 06:18:16.556764  4078 net.cpp:159] Memory required for data: 1032240
I0505 06:18:16.556767  4078 layer_factory.hpp:77] Creating layer pool1
I0505 06:18:16.556773  4078 net.cpp:94] Creating Layer pool1
I0505 06:18:16.556777  4078 net.cpp:435] pool1 <- conv1
I0505 06:18:16.556782  4078 net.cpp:409] pool1 -> pool1
I0505 06:18:16.556818  4078 net.cpp:144] Setting up pool1
I0505 06:18:16.556824  4078 net.cpp:151] Top shape: 20 64 5 5 (32000)
I0505 06:18:16.556828  4078 net.cpp:159] Memory required for data: 1160240
I0505 06:18:16.556831  4078 layer_factory.hpp:77] Creating layer conv2
I0505 06:18:16.556838  4078 net.cpp:94] Creating Layer conv2
I0505 06:18:16.556843  4078 net.cpp:435] conv2 <- pool1
I0505 06:18:16.556848  4078 net.cpp:409] conv2 -> conv2
I0505 06:18:16.563748  4078 net.cpp:144] Setting up conv2
I0505 06:18:16.563762  4078 net.cpp:151] Top shape: 20 128 5 5 (64000)
I0505 06:18:16.563766  4078 net.cpp:159] Memory required for data: 1416240
I0505 06:18:16.563774  4078 layer_factory.hpp:77] Creating layer relu2
I0505 06:18:16.563781  4078 net.cpp:94] Creating Layer relu2
I0505 06:18:16.563784  4078 net.cpp:435] relu2 <- conv2
I0505 06:18:16.563789  4078 net.cpp:396] relu2 -> conv2 (in-place)
I0505 06:18:16.563796  4078 net.cpp:144] Setting up relu2
I0505 06:18:16.563802  4078 net.cpp:151] Top shape: 20 128 5 5 (64000)
I0505 06:18:16.563804  4078 net.cpp:159] Memory required for data: 1672240
I0505 06:18:16.563808  4078 layer_factory.hpp:77] Creating layer conv3
I0505 06:18:16.563815  4078 net.cpp:94] Creating Layer conv3
I0505 06:18:16.563819  4078 net.cpp:435] conv3 <- conv2
I0505 06:18:16.563824  4078 net.cpp:409] conv3 -> conv3
I0505 06:18:16.577033  4078 net.cpp:144] Setting up conv3
I0505 06:18:16.577049  4078 net.cpp:151] Top shape: 20 128 5 5 (64000)
I0505 06:18:16.577052  4078 net.cpp:159] Memory required for data: 1928240
I0505 06:18:16.577060  4078 layer_factory.hpp:77] Creating layer relu3
I0505 06:18:16.577067  4078 net.cpp:94] Creating Layer relu3
I0505 06:18:16.577071  4078 net.cpp:435] relu3 <- conv3
I0505 06:18:16.577076  4078 net.cpp:396] relu3 -> conv3 (in-place)
I0505 06:18:16.577083  4078 net.cpp:144] Setting up relu3
I0505 06:18:16.577088  4078 net.cpp:151] Top shape: 20 128 5 5 (64000)
I0505 06:18:16.577091  4078 net.cpp:159] Memory required for data: 2184240
I0505 06:18:16.577095  4078 layer_factory.hpp:77] Creating layer pool3
I0505 06:18:16.577100  4078 net.cpp:94] Creating Layer pool3
I0505 06:18:16.577103  4078 net.cpp:435] pool3 <- conv3
I0505 06:18:16.577107  4078 net.cpp:409] pool3 -> pool3
I0505 06:18:16.577133  4078 net.cpp:144] Setting up pool3
I0505 06:18:16.577141  4078 net.cpp:151] Top shape: 20 128 2 2 (10240)
I0505 06:18:16.577147  4078 net.cpp:159] Memory required for data: 2225200
I0505 06:18:16.577152  4078 layer_factory.hpp:77] Creating layer ip1
I0505 06:18:16.577157  4078 net.cpp:94] Creating Layer ip1
I0505 06:18:16.577162  4078 net.cpp:435] ip1 <- pool3
I0505 06:18:16.577167  4078 net.cpp:409] ip1 -> ip1
I0505 06:18:16.584349  4078 net.cpp:144] Setting up ip1
I0505 06:18:16.584363  4078 net.cpp:151] Top shape: 20 512 (10240)
I0505 06:18:16.584367  4078 net.cpp:159] Memory required for data: 2266160
I0505 06:18:16.584373  4078 layer_factory.hpp:77] Creating layer ip2
I0505 06:18:16.584386  4078 net.cpp:94] Creating Layer ip2
I0505 06:18:16.584390  4078 net.cpp:435] ip2 <- ip1
I0505 06:18:16.584396  4078 net.cpp:409] ip2 -> ip2
I0505 06:18:16.587684  4078 net.cpp:144] Setting up ip2
I0505 06:18:16.587693  4078 net.cpp:151] Top shape: 20 256 (5120)
I0505 06:18:16.587697  4078 net.cpp:159] Memory required for data: 2286640
I0505 06:18:16.587703  4078 layer_factory.hpp:77] Creating layer ip3
I0505 06:18:16.587710  4078 net.cpp:94] Creating Layer ip3
I0505 06:18:16.587713  4078 net.cpp:435] ip3 <- ip2
I0505 06:18:16.587718  4078 net.cpp:409] ip3 -> ip3
I0505 06:18:16.588109  4078 net.cpp:144] Setting up ip3
I0505 06:18:16.588116  4078 net.cpp:151] Top shape: 20 50 (1000)
I0505 06:18:16.588119  4078 net.cpp:159] Memory required for data: 2290640
I0505 06:18:16.588124  4078 layer_factory.hpp:77] Creating layer ip3_ip3_0_split
I0505 06:18:16.588130  4078 net.cpp:94] Creating Layer ip3_ip3_0_split
I0505 06:18:16.588134  4078 net.cpp:435] ip3_ip3_0_split <- ip3
I0505 06:18:16.588137  4078 net.cpp:409] ip3_ip3_0_split -> ip3_ip3_0_split_0
I0505 06:18:16.588143  4078 net.cpp:409] ip3_ip3_0_split -> ip3_ip3_0_split_1
I0505 06:18:16.588167  4078 net.cpp:144] Setting up ip3_ip3_0_split
I0505 06:18:16.588172  4078 net.cpp:151] Top shape: 20 50 (1000)
I0505 06:18:16.588176  4078 net.cpp:151] Top shape: 20 50 (1000)
I0505 06:18:16.588179  4078 net.cpp:159] Memory required for data: 2298640
I0505 06:18:16.588182  4078 layer_factory.hpp:77] Creating layer accuracy
I0505 06:18:16.588192  4078 net.cpp:94] Creating Layer accuracy
I0505 06:18:16.588196  4078 net.cpp:435] accuracy <- ip3_ip3_0_split_0
I0505 06:18:16.588201  4078 net.cpp:435] accuracy <- label_intercept_1_split_0
I0505 06:18:16.588204  4078 net.cpp:409] accuracy -> accuracy
…
