…
I0505 02:07:08.688535  2068 net.cpp:323] The NetState phase (0) differed from the phase (1) specified by a rule in layer intercept
I0505 02:07:08.688557  2068 net.cpp:323] The NetState phase (0) differed from the phase (1) specified by a rule in layer accuracy
I0505 02:07:08.688642  2068 net.cpp:52] Initializing net from parameters: 
state {
  phase: TRAIN
}
layer {
  name: "parameters"
  type: "HDF5Data"
  top: "data"
  top: "label"
  include {
    phase: TRAIN
  }
  hdf5_data_param {
    source: "/home/purduethu/scratch/radon/d/deng106/CNNStatisticalModel/distributions/input/5_distributions_900_sample_size_train-distributions-path.txt"
    batch_size: 20
  }
}
layer {
  name: "conv1"
  type: "Convolution"
  bottom: "data"
  top: "conv1"
  param {
    lr_mult: 1
  }
  param {
    lr_mult: 2
  }
  convolution_param {
    num_output: 64
    pad: 2
    kernel_size: 5
    stride: 1
    weight_filler {
      type: "gaussian"
      std: 0.0001
    }
    bias_filler {
      type: "constant"
    }
  }
}
layer {
  name: "relu1"
  type: "ReLU"
  bottom: "conv1"
  top: "conv1"
}
layer {
  name: "pool1"
  type: "Pooling"
  bottom: "conv1"
  top: "pool1"
  pooling_param {
    pool: MAX
    kernel_size: 3
    stride: 2
  }
}
layer {
  name: "conv2"
  type: "Convolution"
  bottom: "pool1"
  top: "conv2"
  param {
    lr_mult: 1
  }
  param {
    lr_mult: 2
  }
  convolution_param {
    num_output: 128
    pad: 2
    kernel_size: 5
    stride: 1
    weight_filler {
      type: "gaussian"
      std: 0.01
    }
    bias_filler {
      type: "constant"
    }
  }
}
layer {
  name: "relu2"
  type: "ReLU"
  bottom: "conv2"
  top: "conv2"
}
layer {
  name: "conv3"
  type: "Convolution"
  bottom: "conv2"
  top: "conv3"
  param {
    lr_mult: 1
  }
  param {
    lr_mult: 2
  }
  convolution_param {
    num_output: 128
    pad: 2
    kernel_size: 5
    stride: 1
    weight_filler {
      type: "gaussian"
      std: 0.01
    }
    bias_filler {
      type: "constant"
    }
  }
}
layer {
  name: "relu3"
  type: "ReLU"
  bottom: "conv3"
  top: "conv3"
}
layer {
  name: "pool3"
  type: "Pooling"
  bottom: "conv3"
  top: "pool3"
  pooling_param {
    pool: AVE
    kernel_size: 3
    stride: 2
  }
}
layer {
  name: "ip1"
  type: "InnerProduct"
  bottom: "pool3"
  top: "ip1"
  param {
    lr_mult: 1
  }
  param {
    lr_mult: 2
  }
  inner_product_param {
    num_output: 512
    weight_filler {
      type: "gaussian"
      std: 0.1
    }
    bias_filler {
      type: "constant"
    }
  }
}
layer {
  name: "ip2"
  type: "InnerProduct"
  bottom: "ip1"
  top: "ip2"
  param {
    lr_mult: 1
  }
  param {
    lr_mult: 2
  }
  inner_product_param {
    num_output: 256
    weight_filler {
      type: "gaussian"
      std: 0.1
    }
    bias_filler {
      type: "constant"
    }
  }
}
layer {
  name: "ip3"
  type: "InnerProduct"
  bottom: "ip2"
  top: "ip3"
  param {
    lr_mult: 1
  }
  param {
    lr_mult: 2
  }
  inner_product_param {
    num_output: 50
    weight_filler {
      type: "gaussian"
      std: 0.1
    }
    bias_filler {
      type: "constant"
    }
  }
}
layer {
  name: "loss"
  type: "SoftmaxWithLoss"
  bottom: "ip3"
  bottom: "label"
  top: "loss"
}
I0505 02:07:08.688707  2068 layer_factory.hpp:77] Creating layer parameters
I0505 02:07:08.688724  2068 net.cpp:94] Creating Layer parameters
I0505 02:07:08.688730  2068 net.cpp:409] parameters -> data
I0505 02:07:08.688757  2068 net.cpp:409] parameters -> label
I0505 02:07:08.688769  2068 hdf5_data_layer.cpp:79] Loading list of HDF5 filenames from: /home/purduethu/scratch/radon/d/deng106/CNNStatisticalModel/distributions/input/5_distributions_900_sample_size_train-distributions-path.txt
I0505 02:07:08.688792  2068 hdf5_data_layer.cpp:93] Number of HDF5 files: 1
I0505 02:07:08.689262  2068 hdf5.cpp:32] Datatype class: H5T_FLOAT
I0505 02:07:08.825448  2068 hdf5.cpp:35] Datatype class: H5T_INTEGER
I0505 02:07:08.826586  2068 net.cpp:144] Setting up parameters
I0505 02:07:08.826606  2068 net.cpp:151] Top shape: 20 1 30 30 (18000)
I0505 02:07:08.826613  2068 net.cpp:151] Top shape: 20 (20)
I0505 02:07:08.826618  2068 net.cpp:159] Memory required for data: 72080
I0505 02:07:08.826627  2068 layer_factory.hpp:77] Creating layer conv1
I0505 02:07:08.826647  2068 net.cpp:94] Creating Layer conv1
I0505 02:07:08.826653  2068 net.cpp:435] conv1 <- data
I0505 02:07:08.826664  2068 net.cpp:409] conv1 -> conv1
I0505 02:07:08.832505  2068 net.cpp:144] Setting up conv1
I0505 02:07:08.832521  2068 net.cpp:151] Top shape: 20 64 30 30 (1152000)
I0505 02:07:08.832526  2068 net.cpp:159] Memory required for data: 4680080
I0505 02:07:08.832540  2068 layer_factory.hpp:77] Creating layer relu1
I0505 02:07:08.832568  2068 net.cpp:94] Creating Layer relu1
I0505 02:07:08.832577  2068 net.cpp:435] relu1 <- conv1
I0505 02:07:08.832583  2068 net.cpp:396] relu1 -> conv1 (in-place)
I0505 02:07:08.832603  2068 net.cpp:144] Setting up relu1
I0505 02:07:08.832610  2068 net.cpp:151] Top shape: 20 64 30 30 (1152000)
I0505 02:07:08.832613  2068 net.cpp:159] Memory required for data: 9288080
I0505 02:07:08.832617  2068 layer_factory.hpp:77] Creating layer pool1
I0505 02:07:08.832625  2068 net.cpp:94] Creating Layer pool1
I0505 02:07:08.832629  2068 net.cpp:435] pool1 <- conv1
I0505 02:07:08.832634  2068 net.cpp:409] pool1 -> pool1
I0505 02:07:08.832676  2068 net.cpp:144] Setting up pool1
I0505 02:07:08.832684  2068 net.cpp:151] Top shape: 20 64 15 15 (288000)
I0505 02:07:08.832689  2068 net.cpp:159] Memory required for data: 10440080
I0505 02:07:08.832692  2068 layer_factory.hpp:77] Creating layer conv2
I0505 02:07:08.832701  2068 net.cpp:94] Creating Layer conv2
I0505 02:07:08.832706  2068 net.cpp:435] conv2 <- pool1
I0505 02:07:08.832711  2068 net.cpp:409] conv2 -> conv2
I0505 02:07:08.845504  2068 net.cpp:144] Setting up conv2
I0505 02:07:08.845521  2068 net.cpp:151] Top shape: 20 128 15 15 (576000)
I0505 02:07:08.845525  2068 net.cpp:159] Memory required for data: 12744080
I0505 02:07:08.845535  2068 layer_factory.hpp:77] Creating layer relu2
I0505 02:07:08.845541  2068 net.cpp:94] Creating Layer relu2
I0505 02:07:08.845546  2068 net.cpp:435] relu2 <- conv2
I0505 02:07:08.845551  2068 net.cpp:396] relu2 -> conv2 (in-place)
I0505 02:07:08.845558  2068 net.cpp:144] Setting up relu2
I0505 02:07:08.845563  2068 net.cpp:151] Top shape: 20 128 15 15 (576000)
I0505 02:07:08.845566  2068 net.cpp:159] Memory required for data: 15048080
I0505 02:07:08.845571  2068 layer_factory.hpp:77] Creating layer conv3
I0505 02:07:08.845579  2068 net.cpp:94] Creating Layer conv3
I0505 02:07:08.845583  2068 net.cpp:435] conv3 <- conv2
I0505 02:07:08.845588  2068 net.cpp:409] conv3 -> conv3
I0505 02:07:08.867257  2068 net.cpp:144] Setting up conv3
I0505 02:07:08.867274  2068 net.cpp:151] Top shape: 20 128 15 15 (576000)
I0505 02:07:08.867278  2068 net.cpp:159] Memory required for data: 17352080
I0505 02:07:08.867295  2068 layer_factory.hpp:77] Creating layer relu3
I0505 02:07:08.867301  2068 net.cpp:94] Creating Layer relu3
I0505 02:07:08.867305  2068 net.cpp:435] relu3 <- conv3
I0505 02:07:08.867311  2068 net.cpp:396] relu3 -> conv3 (in-place)
I0505 02:07:08.867319  2068 net.cpp:144] Setting up relu3
I0505 02:07:08.867324  2068 net.cpp:151] Top shape: 20 128 15 15 (576000)
I0505 02:07:08.867327  2068 net.cpp:159] Memory required for data: 19656080
I0505 02:07:08.867331  2068 layer_factory.hpp:77] Creating layer pool3
I0505 02:07:08.867338  2068 net.cpp:94] Creating Layer pool3
I0505 02:07:08.867349  2068 net.cpp:435] pool3 <- conv3
I0505 02:07:08.867355  2068 net.cpp:409] pool3 -> pool3
I0505 02:07:08.867390  2068 net.cpp:144] Setting up pool3
I0505 02:07:08.867398  2068 net.cpp:151] Top shape: 20 128 7 7 (125440)
I0505 02:07:08.867401  2068 net.cpp:159] Memory required for data: 20157840
I0505 02:07:08.867405  2068 layer_factory.hpp:77] Creating layer ip1
I0505 02:07:08.867413  2068 net.cpp:94] Creating Layer ip1
I0505 02:07:08.867418  2068 net.cpp:435] ip1 <- pool3
I0505 02:07:08.867422  2068 net.cpp:409] ip1 -> ip1
I0505 02:07:08.950141  2068 net.cpp:144] Setting up ip1
I0505 02:07:08.950165  2068 net.cpp:151] Top shape: 20 512 (10240)
I0505 02:07:08.950170  2068 net.cpp:159] Memory required for data: 20198800
I0505 02:07:08.950178  2068 layer_factory.hpp:77] Creating layer ip2
I0505 02:07:08.950189  2068 net.cpp:94] Creating Layer ip2
I0505 02:07:08.950193  2068 net.cpp:435] ip2 <- ip1
I0505 02:07:08.950201  2068 net.cpp:409] ip2 -> ip2
I0505 02:07:08.953541  2068 net.cpp:144] Setting up ip2
I0505 02:07:08.953550  2068 net.cpp:151] Top shape: 20 256 (5120)
I0505 02:07:08.953554  2068 net.cpp:159] Memory required for data: 20219280
I0505 02:07:08.953562  2068 layer_factory.hpp:77] Creating layer ip3
I0505 02:07:08.953569  2068 net.cpp:94] Creating Layer ip3
I0505 02:07:08.953573  2068 net.cpp:435] ip3 <- ip2
I0505 02:07:08.953579  2068 net.cpp:409] ip3 -> ip3
I0505 02:07:08.954704  2068 net.cpp:144] Setting up ip3
I0505 02:07:08.954716  2068 net.cpp:151] Top shape: 20 50 (1000)
I0505 02:07:08.954721  2068 net.cpp:159] Memory required for data: 20223280
I0505 02:07:08.954728  2068 layer_factory.hpp:77] Creating layer loss
I0505 02:07:08.954735  2068 net.cpp:94] Creating Layer loss
I0505 02:07:08.954740  2068 net.cpp:435] loss <- ip3
I0505 02:07:08.954744  2068 net.cpp:435] loss <- label
I0505 02:07:08.954751  2068 net.cpp:409] loss -> loss
I0505 02:07:08.954763  2068 layer_factory.hpp:77] Creating layer loss
…
I0505 02:07:08.955212  2068 solver.cpp:181] Creating test net (#0) specified by net file: ./protocol/dis_5_900_dimension.protocol_distribution
I0505 02:07:08.955237  2068 net.cpp:323] The NetState phase (1) differed from the phase (0) specified by a rule in layer parameters
I0505 02:07:08.955327  2068 net.cpp:52] Initializing net from parameters: 
state {
  phase: TEST
}
layer {
  name: "intercept"
  type: "HDF5Data"
  top: "data"
  top: "label"
  include {
    phase: TEST
  }
  hdf5_data_param {
    source: "/home/purduethu/scratch/radon/d/deng106/CNNStatisticalModel/distributions/input/5_distributions_900_sample_size_test-distributions-path.txt"
    batch_size: 20
  }
}
layer {
  name: "conv1"
  type: "Convolution"
  bottom: "data"
  top: "conv1"
  param {
    lr_mult: 1
  }
  param {
    lr_mult: 2
  }
  convolution_param {
    num_output: 64
    pad: 2
    kernel_size: 5
    stride: 1
    weight_filler {
      type: "gaussian"
      std: 0.0001
    }
    bias_filler {
      type: "constant"
    }
  }
}
layer {
  name: "relu1"
  type: "ReLU"
  bottom: "conv1"
  top: "conv1"
}
layer {
  name: "pool1"
  type: "Pooling"
  bottom: "conv1"
  top: "pool1"
  pooling_param {
    pool: MAX
    kernel_size: 3
    stride: 2
  }
}
layer {
  name: "conv2"
  type: "Convolution"
  bottom: "pool1"
  top: "conv2"
  param {
    lr_mult: 1
  }
  param {
    lr_mult: 2
  }
  convolution_param {
    num_output: 128
    pad: 2
    kernel_size: 5
    stride: 1
    weight_filler {
      type: "gaussian"
      std: 0.01
    }
    bias_filler {
      type: "constant"
    }
  }
}
layer {
  name: "relu2"
  type: "ReLU"
  bottom: "conv2"
  top: "conv2"
}
layer {
  name: "conv3"
  type: "Convolution"
  bottom: "conv2"
  top: "conv3"
  param {
    lr_mult: 1
  }
  param {
    lr_mult: 2
  }
  convolution_param {
    num_output: 128
    pad: 2
    kernel_size: 5
    stride: 1
    weight_filler {
      type: "gaussian"
      std: 0.01
    }
    bias_filler {
      type: "constant"
    }
  }
}
layer {
  name: "relu3"
  type: "ReLU"
  bottom: "conv3"
  top: "conv3"
}
layer {
  name: "pool3"
  type: "Pooling"
  bottom: "conv3"
  top: "pool3"
  pooling_param {
    pool: AVE
    kernel_size: 3
    stride: 2
  }
}
layer {
  name: "ip1"
  type: "InnerProduct"
  bottom: "pool3"
  top: "ip1"
  param {
    lr_mult: 1
  }
  param {
    lr_mult: 2
  }
  inner_product_param {
    num_output: 512
    weight_filler {
      type: "gaussian"
      std: 0.1
    }
    bias_filler {
      type: "constant"
    }
  }
}
layer {
  name: "ip2"
  type: "InnerProduct"
  bottom: "ip1"
  top: "ip2"
  param {
    lr_mult: 1
  }
  param {
    lr_mult: 2
  }
  inner_product_param {
    num_output: 256
    weight_filler {
      type: "gaussian"
      std: 0.1
    }
    bias_filler {
      type: "constant"
    }
  }
}
layer {
  name: "ip3"
  type: "InnerProduct"
  bottom: "ip2"
  top: "ip3"
  param {
    lr_mult: 1
  }
  param {
    lr_mult: 2
  }
  inner_product_param {
    num_output: 50
    weight_filler {
      type: "gaussian"
      std: 0.1
    }
    bias_filler {
      type: "constant"
    }
  }
}
layer {
  name: "accuracy"
  type: "Accuracy"
  bottom: "ip3"
  bottom: "label"
  top: "accuracy"
  include {
    phase: TEST
  }
}
layer {
  name: "loss"
  type: "SoftmaxWithLoss"
  bottom: "ip3"
  bottom: "label"
  top: "loss"
}
I0505 02:07:08.955396  2068 layer_factory.hpp:77] Creating layer intercept
I0505 02:07:08.955405  2068 net.cpp:94] Creating Layer intercept
I0505 02:07:08.955410  2068 net.cpp:409] intercept -> data
I0505 02:07:08.955417  2068 net.cpp:409] intercept -> label
I0505 02:07:08.955425  2068 hdf5_data_layer.cpp:79] Loading list of HDF5 filenames from: /home/purduethu/scratch/radon/d/deng106/CNNStatisticalModel/distributions/input/5_distributions_900_sample_size_test-distributions-path.txt
I0505 02:07:08.955445  2068 hdf5_data_layer.cpp:93] Number of HDF5 files: 1
I0505 02:07:08.990227  2068 net.cpp:144] Setting up intercept
I0505 02:07:08.990262  2068 net.cpp:151] Top shape: 20 1 30 30 (18000)
I0505 02:07:08.990268  2068 net.cpp:151] Top shape: 20 (20)
I0505 02:07:08.990272  2068 net.cpp:159] Memory required for data: 72080
I0505 02:07:08.990278  2068 layer_factory.hpp:77] Creating layer label_intercept_1_split
I0505 02:07:08.990298  2068 net.cpp:94] Creating Layer label_intercept_1_split
I0505 02:07:08.990303  2068 net.cpp:435] label_intercept_1_split <- label
I0505 02:07:08.990309  2068 net.cpp:409] label_intercept_1_split -> label_intercept_1_split_0
I0505 02:07:08.990319  2068 net.cpp:409] label_intercept_1_split -> label_intercept_1_split_1
I0505 02:07:08.990355  2068 net.cpp:144] Setting up label_intercept_1_split
I0505 02:07:08.990362  2068 net.cpp:151] Top shape: 20 (20)
I0505 02:07:08.990367  2068 net.cpp:151] Top shape: 20 (20)
I0505 02:07:08.990378  2068 net.cpp:159] Memory required for data: 72240
I0505 02:07:08.990382  2068 layer_factory.hpp:77] Creating layer conv1
I0505 02:07:08.990394  2068 net.cpp:94] Creating Layer conv1
I0505 02:07:08.990398  2068 net.cpp:435] conv1 <- data
I0505 02:07:08.990403  2068 net.cpp:409] conv1 -> conv1
I0505 02:07:08.991689  2068 net.cpp:144] Setting up conv1
I0505 02:07:08.991704  2068 net.cpp:151] Top shape: 20 64 30 30 (1152000)
I0505 02:07:08.991708  2068 net.cpp:159] Memory required for data: 4680240
I0505 02:07:08.991719  2068 layer_factory.hpp:77] Creating layer relu1
I0505 02:07:08.991726  2068 net.cpp:94] Creating Layer relu1
I0505 02:07:08.991731  2068 net.cpp:435] relu1 <- conv1
I0505 02:07:08.991736  2068 net.cpp:396] relu1 -> conv1 (in-place)
I0505 02:07:08.991744  2068 net.cpp:144] Setting up relu1
I0505 02:07:08.991750  2068 net.cpp:151] Top shape: 20 64 30 30 (1152000)
I0505 02:07:08.991753  2068 net.cpp:159] Memory required for data: 9288240
I0505 02:07:08.991757  2068 layer_factory.hpp:77] Creating layer pool1
I0505 02:07:08.991765  2068 net.cpp:94] Creating Layer pool1
I0505 02:07:08.991768  2068 net.cpp:435] pool1 <- conv1
I0505 02:07:08.991772  2068 net.cpp:409] pool1 -> pool1
I0505 02:07:08.991806  2068 net.cpp:144] Setting up pool1
I0505 02:07:08.991813  2068 net.cpp:151] Top shape: 20 64 15 15 (288000)
I0505 02:07:08.991817  2068 net.cpp:159] Memory required for data: 10440240
I0505 02:07:08.991822  2068 layer_factory.hpp:77] Creating layer conv2
I0505 02:07:08.991829  2068 net.cpp:94] Creating Layer conv2
I0505 02:07:08.991833  2068 net.cpp:435] conv2 <- pool1
I0505 02:07:08.991839  2068 net.cpp:409] conv2 -> conv2
I0505 02:07:08.999851  2068 net.cpp:144] Setting up conv2
I0505 02:07:08.999867  2068 net.cpp:151] Top shape: 20 128 15 15 (576000)
I0505 02:07:08.999872  2068 net.cpp:159] Memory required for data: 12744240
I0505 02:07:08.999881  2068 layer_factory.hpp:77] Creating layer relu2
I0505 02:07:08.999888  2068 net.cpp:94] Creating Layer relu2
I0505 02:07:08.999892  2068 net.cpp:435] relu2 <- conv2
I0505 02:07:08.999897  2068 net.cpp:396] relu2 -> conv2 (in-place)
I0505 02:07:08.999905  2068 net.cpp:144] Setting up relu2
I0505 02:07:08.999910  2068 net.cpp:151] Top shape: 20 128 15 15 (576000)
I0505 02:07:08.999914  2068 net.cpp:159] Memory required for data: 15048240
I0505 02:07:08.999917  2068 layer_factory.hpp:77] Creating layer conv3
I0505 02:07:08.999925  2068 net.cpp:94] Creating Layer conv3
I0505 02:07:08.999929  2068 net.cpp:435] conv3 <- conv2
I0505 02:07:08.999935  2068 net.cpp:409] conv3 -> conv3
I0505 02:07:09.015130  2068 net.cpp:144] Setting up conv3
I0505 02:07:09.015144  2068 net.cpp:151] Top shape: 20 128 15 15 (576000)
I0505 02:07:09.015149  2068 net.cpp:159] Memory required for data: 17352240
I0505 02:07:09.015158  2068 layer_factory.hpp:77] Creating layer relu3
I0505 02:07:09.015166  2068 net.cpp:94] Creating Layer relu3
I0505 02:07:09.015172  2068 net.cpp:435] relu3 <- conv3
I0505 02:07:09.015177  2068 net.cpp:396] relu3 -> conv3 (in-place)
I0505 02:07:09.015183  2068 net.cpp:144] Setting up relu3
I0505 02:07:09.015189  2068 net.cpp:151] Top shape: 20 128 15 15 (576000)
I0505 02:07:09.015192  2068 net.cpp:159] Memory required for data: 19656240
I0505 02:07:09.015197  2068 layer_factory.hpp:77] Creating layer pool3
I0505 02:07:09.015202  2068 net.cpp:94] Creating Layer pool3
I0505 02:07:09.015205  2068 net.cpp:435] pool3 <- conv3
I0505 02:07:09.015210  2068 net.cpp:409] pool3 -> pool3
I0505 02:07:09.015238  2068 net.cpp:144] Setting up pool3
I0505 02:07:09.015249  2068 net.cpp:151] Top shape: 20 128 7 7 (125440)
I0505 02:07:09.015254  2068 net.cpp:159] Memory required for data: 20158000
I0505 02:07:09.015256  2068 layer_factory.hpp:77] Creating layer ip1
I0505 02:07:09.015264  2068 net.cpp:94] Creating Layer ip1
I0505 02:07:09.015267  2068 net.cpp:435] ip1 <- pool3
I0505 02:07:09.015272  2068 net.cpp:409] ip1 -> ip1
I0505 02:07:09.095106  2068 net.cpp:144] Setting up ip1
I0505 02:07:09.095126  2068 net.cpp:151] Top shape: 20 512 (10240)
I0505 02:07:09.095131  2068 net.cpp:159] Memory required for data: 20198960
I0505 02:07:09.095150  2068 layer_factory.hpp:77] Creating layer ip2
I0505 02:07:09.095160  2068 net.cpp:94] Creating Layer ip2
I0505 02:07:09.095165  2068 net.cpp:435] ip2 <- ip1
I0505 02:07:09.095171  2068 net.cpp:409] ip2 -> ip2
I0505 02:07:09.098307  2068 net.cpp:144] Setting up ip2
I0505 02:07:09.098316  2068 net.cpp:151] Top shape: 20 256 (5120)
I0505 02:07:09.098320  2068 net.cpp:159] Memory required for data: 20219440
I0505 02:07:09.098330  2068 layer_factory.hpp:77] Creating layer ip3
I0505 02:07:09.098336  2068 net.cpp:94] Creating Layer ip3
I0505 02:07:09.098340  2068 net.cpp:435] ip3 <- ip2
I0505 02:07:09.098345  2068 net.cpp:409] ip3 -> ip3
I0505 02:07:09.098719  2068 net.cpp:144] Setting up ip3
I0505 02:07:09.098727  2068 net.cpp:151] Top shape: 20 50 (1000)
I0505 02:07:09.098731  2068 net.cpp:159] Memory required for data: 20223440
I0505 02:07:09.098736  2068 layer_factory.hpp:77] Creating layer ip3_ip3_0_split
I0505 02:07:09.098742  2068 net.cpp:94] Creating Layer ip3_ip3_0_split
I0505 02:07:09.098745  2068 net.cpp:435] ip3_ip3_0_split <- ip3
I0505 02:07:09.098750  2068 net.cpp:409] ip3_ip3_0_split -> ip3_ip3_0_split_0
I0505 02:07:09.098757  2068 net.cpp:409] ip3_ip3_0_split -> ip3_ip3_0_split_1
I0505 02:07:09.098780  2068 net.cpp:144] Setting up ip3_ip3_0_split
I0505 02:07:09.098786  2068 net.cpp:151] Top shape: 20 50 (1000)
I0505 02:07:09.098790  2068 net.cpp:151] Top shape: 20 50 (1000)
I0505 02:07:09.098794  2068 net.cpp:159] Memory required for data: 20231440
I0505 02:07:09.098798  2068 layer_factory.hpp:77] Creating layer accuracy
I0505 02:07:09.098810  2068 net.cpp:94] Creating Layer accuracy
I0505 02:07:09.098814  2068 net.cpp:435] accuracy <- ip3_ip3_0_split_0
I0505 02:07:09.098819  2068 net.cpp:435] accuracy <- label_intercept_1_split_0
I0505 02:07:09.098824  2068 net.cpp:409] accuracy -> accuracy
…
