…
I0505 04:29:46.169500  3332 net.cpp:323] The NetState phase (0) differed from the phase (1) specified by a rule in layer intercept
I0505 04:29:46.169515  3332 net.cpp:323] The NetState phase (0) differed from the phase (1) specified by a rule in layer accuracy
I0505 04:29:46.169592  3332 net.cpp:52] Initializing net from parameters: 
state {
  phase: TRAIN
}
layer {
  name: "parameters"
  type: "HDF5Data"
  top: "data"
  top: "label"
  include {
    phase: TRAIN
  }
  hdf5_data_param {
    source: "/home/purduethu/scratch/radon/d/deng106/CNNStatisticalModel/distributions/input/50_distributions_900_sample_size_train-distributions-path.txt"
    batch_size: 20
  }
}
layer {
  name: "conv1"
  type: "Convolution"
  bottom: "data"
  top: "conv1"
  param {
    lr_mult: 1
  }
  param {
    lr_mult: 2
  }
  convolution_param {
    num_output: 64
    pad: 2
    kernel_size: 5
    stride: 1
    weight_filler {
      type: "gaussian"
      std: 0.0001
    }
    bias_filler {
      type: "constant"
    }
  }
}
layer {
  name: "relu1"
  type: "ReLU"
  bottom: "conv1"
  top: "conv1"
}
layer {
  name: "pool1"
  type: "Pooling"
  bottom: "conv1"
  top: "pool1"
  pooling_param {
    pool: MAX
    kernel_size: 3
    stride: 2
  }
}
layer {
  name: "conv2"
  type: "Convolution"
  bottom: "pool1"
  top: "conv2"
  param {
    lr_mult: 1
  }
  param {
    lr_mult: 2
  }
  convolution_param {
    num_output: 128
    pad: 2
    kernel_size: 5
    stride: 1
    weight_filler {
      type: "gaussian"
      std: 0.01
    }
    bias_filler {
      type: "constant"
    }
  }
}
layer {
  name: "relu2"
  type: "ReLU"
  bottom: "conv2"
  top: "conv2"
}
layer {
  name: "conv3"
  type: "Convolution"
  bottom: "conv2"
  top: "conv3"
  param {
    lr_mult: 1
  }
  param {
    lr_mult: 2
  }
  convolution_param {
    num_output: 128
    pad: 2
    kernel_size: 5
    stride: 1
    weight_filler {
      type: "gaussian"
      std: 0.01
    }
    bias_filler {
      type: "constant"
    }
  }
}
layer {
  name: "relu3"
  type: "ReLU"
  bottom: "conv3"
  top: "conv3"
}
layer {
  name: "pool3"
  type: "Pooling"
  bottom: "conv3"
  top: "pool3"
  pooling_param {
    pool: AVE
    kernel_size: 3
    stride: 2
  }
}
layer {
  name: "ip1"
  type: "InnerProduct"
  bottom: "pool3"
  top: "ip1"
  param {
    lr_mult: 1
  }
  param {
    lr_mult: 2
  }
  inner_product_param {
    num_output: 512
    weight_filler {
      type: "gaussian"
      std: 0.1
    }
    bias_filler {
      type: "constant"
    }
  }
}
layer {
  name: "ip2"
  type: "InnerProduct"
  bottom: "ip1"
  top: "ip2"
  param {
    lr_mult: 1
  }
  param {
    lr_mult: 2
  }
  inner_product_param {
    num_output: 256
    weight_filler {
      type: "gaussian"
      std: 0.1
    }
    bias_filler {
      type: "constant"
    }
  }
}
layer {
  name: "ip3"
  type: "InnerProduct"
  bottom: "ip2"
  top: "ip3"
  param {
    lr_mult: 1
  }
  param {
    lr_mult: 2
  }
  inner_product_param {
    num_output: 50
    weight_filler {
      type: "gaussian"
      std: 0.1
    }
    bias_filler {
      type: "constant"
    }
  }
}
layer {
  name: "loss"
  type: "SoftmaxWithLoss"
  bottom: "ip3"
  bottom: "label"
  top: "loss"
}
I0505 04:29:46.169657  3332 layer_factory.hpp:77] Creating layer parameters
I0505 04:29:46.169675  3332 net.cpp:94] Creating Layer parameters
I0505 04:29:46.169688  3332 net.cpp:409] parameters -> data
I0505 04:29:46.169708  3332 net.cpp:409] parameters -> label
I0505 04:29:46.169718  3332 hdf5_data_layer.cpp:79] Loading list of HDF5 filenames from: /home/purduethu/scratch/radon/d/deng106/CNNStatisticalModel/distributions/input/50_distributions_900_sample_size_train-distributions-path.txt
I0505 04:29:46.169741  3332 hdf5_data_layer.cpp:93] Number of HDF5 files: 1
I0505 04:29:46.170341  3332 hdf5.cpp:32] Datatype class: H5T_FLOAT
I0505 04:29:47.588724  3332 hdf5.cpp:35] Datatype class: H5T_INTEGER
I0505 04:29:47.591437  3332 net.cpp:144] Setting up parameters
I0505 04:29:47.591459  3332 net.cpp:151] Top shape: 20 1 30 30 (18000)
I0505 04:29:47.591465  3332 net.cpp:151] Top shape: 20 (20)
I0505 04:29:47.591470  3332 net.cpp:159] Memory required for data: 72080
I0505 04:29:47.591477  3332 layer_factory.hpp:77] Creating layer conv1
I0505 04:29:47.591496  3332 net.cpp:94] Creating Layer conv1
I0505 04:29:47.591501  3332 net.cpp:435] conv1 <- data
I0505 04:29:47.591512  3332 net.cpp:409] conv1 -> conv1
I0505 04:29:47.597357  3332 net.cpp:144] Setting up conv1
I0505 04:29:47.597374  3332 net.cpp:151] Top shape: 20 64 30 30 (1152000)
I0505 04:29:47.597379  3332 net.cpp:159] Memory required for data: 4680080
I0505 04:29:47.597390  3332 layer_factory.hpp:77] Creating layer relu1
I0505 04:29:47.597400  3332 net.cpp:94] Creating Layer relu1
I0505 04:29:47.597405  3332 net.cpp:435] relu1 <- conv1
I0505 04:29:47.597410  3332 net.cpp:396] relu1 -> conv1 (in-place)
I0505 04:29:47.597427  3332 net.cpp:144] Setting up relu1
I0505 04:29:47.597434  3332 net.cpp:151] Top shape: 20 64 30 30 (1152000)
I0505 04:29:47.597436  3332 net.cpp:159] Memory required for data: 9288080
I0505 04:29:47.597440  3332 layer_factory.hpp:77] Creating layer pool1
I0505 04:29:47.597448  3332 net.cpp:94] Creating Layer pool1
I0505 04:29:47.597452  3332 net.cpp:435] pool1 <- conv1
I0505 04:29:47.597456  3332 net.cpp:409] pool1 -> pool1
I0505 04:29:47.597498  3332 net.cpp:144] Setting up pool1
I0505 04:29:47.597506  3332 net.cpp:151] Top shape: 20 64 15 15 (288000)
I0505 04:29:47.597509  3332 net.cpp:159] Memory required for data: 10440080
I0505 04:29:47.597513  3332 layer_factory.hpp:77] Creating layer conv2
I0505 04:29:47.597523  3332 net.cpp:94] Creating Layer conv2
I0505 04:29:47.597527  3332 net.cpp:435] conv2 <- pool1
I0505 04:29:47.597532  3332 net.cpp:409] conv2 -> conv2
I0505 04:29:47.610513  3332 net.cpp:144] Setting up conv2
I0505 04:29:47.610529  3332 net.cpp:151] Top shape: 20 128 15 15 (576000)
I0505 04:29:47.610534  3332 net.cpp:159] Memory required for data: 12744080
I0505 04:29:47.610543  3332 layer_factory.hpp:77] Creating layer relu2
I0505 04:29:47.610549  3332 net.cpp:94] Creating Layer relu2
I0505 04:29:47.610553  3332 net.cpp:435] relu2 <- conv2
I0505 04:29:47.610558  3332 net.cpp:396] relu2 -> conv2 (in-place)
I0505 04:29:47.610566  3332 net.cpp:144] Setting up relu2
I0505 04:29:47.610570  3332 net.cpp:151] Top shape: 20 128 15 15 (576000)
I0505 04:29:47.610574  3332 net.cpp:159] Memory required for data: 15048080
I0505 04:29:47.610577  3332 layer_factory.hpp:77] Creating layer conv3
I0505 04:29:47.610585  3332 net.cpp:94] Creating Layer conv3
I0505 04:29:47.610589  3332 net.cpp:435] conv3 <- conv2
I0505 04:29:47.610594  3332 net.cpp:409] conv3 -> conv3
I0505 04:29:47.631862  3332 net.cpp:144] Setting up conv3
I0505 04:29:47.631878  3332 net.cpp:151] Top shape: 20 128 15 15 (576000)
I0505 04:29:47.631882  3332 net.cpp:159] Memory required for data: 17352080
I0505 04:29:47.631898  3332 layer_factory.hpp:77] Creating layer relu3
I0505 04:29:47.631906  3332 net.cpp:94] Creating Layer relu3
I0505 04:29:47.631911  3332 net.cpp:435] relu3 <- conv3
I0505 04:29:47.631914  3332 net.cpp:396] relu3 -> conv3 (in-place)
I0505 04:29:47.631922  3332 net.cpp:144] Setting up relu3
I0505 04:29:47.631927  3332 net.cpp:151] Top shape: 20 128 15 15 (576000)
I0505 04:29:47.631930  3332 net.cpp:159] Memory required for data: 19656080
I0505 04:29:47.631933  3332 layer_factory.hpp:77] Creating layer pool3
I0505 04:29:47.631947  3332 net.cpp:94] Creating Layer pool3
I0505 04:29:47.631952  3332 net.cpp:435] pool3 <- conv3
I0505 04:29:47.631956  3332 net.cpp:409] pool3 -> pool3
I0505 04:29:47.631990  3332 net.cpp:144] Setting up pool3
I0505 04:29:47.631997  3332 net.cpp:151] Top shape: 20 128 7 7 (125440)
I0505 04:29:47.632001  3332 net.cpp:159] Memory required for data: 20157840
I0505 04:29:47.632004  3332 layer_factory.hpp:77] Creating layer ip1
I0505 04:29:47.632014  3332 net.cpp:94] Creating Layer ip1
I0505 04:29:47.632019  3332 net.cpp:435] ip1 <- pool3
I0505 04:29:47.632024  3332 net.cpp:409] ip1 -> ip1
I0505 04:29:47.709594  3332 net.cpp:144] Setting up ip1
I0505 04:29:47.709615  3332 net.cpp:151] Top shape: 20 512 (10240)
I0505 04:29:47.709620  3332 net.cpp:159] Memory required for data: 20198800
I0505 04:29:47.709627  3332 layer_factory.hpp:77] Creating layer ip2
I0505 04:29:47.709637  3332 net.cpp:94] Creating Layer ip2
I0505 04:29:47.709642  3332 net.cpp:435] ip2 <- ip1
I0505 04:29:47.709648  3332 net.cpp:409] ip2 -> ip2
I0505 04:29:47.712750  3332 net.cpp:144] Setting up ip2
I0505 04:29:47.712759  3332 net.cpp:151] Top shape: 20 256 (5120)
I0505 04:29:47.712764  3332 net.cpp:159] Memory required for data: 20219280
I0505 04:29:47.712770  3332 layer_factory.hpp:77] Creating layer ip3
I0505 04:29:47.712777  3332 net.cpp:94] Creating Layer ip3
I0505 04:29:47.712780  3332 net.cpp:435] ip3 <- ip2
I0505 04:29:47.712785  3332 net.cpp:409] ip3 -> ip3
I0505 04:29:47.713860  3332 net.cpp:144] Setting up ip3
I0505 04:29:47.713872  3332 net.cpp:151] Top shape: 20 50 (1000)
I0505 04:29:47.713876  3332 net.cpp:159] Memory required for data: 20223280
I0505 04:29:47.713882  3332 layer_factory.hpp:77] Creating layer loss
I0505 04:29:47.713888  3332 net.cpp:94] Creating Layer loss
I0505 04:29:47.713892  3332 net.cpp:435] loss <- ip3
I0505 04:29:47.713896  3332 net.cpp:435] loss <- label
I0505 04:29:47.713902  3332 net.cpp:409] loss -> loss
I0505 04:29:47.713913  3332 layer_factory.hpp:77] Creating layer loss
…
I0505 04:29:47.714331  3332 solver.cpp:181] Creating test net (#0) specified by net file: ./protocol/dis_50_900_dimension.protocol_distribution
I0505 04:29:47.714361  3332 net.cpp:323] The NetState phase (1) differed from the phase (0) specified by a rule in layer parameters
I0505 04:29:47.714442  3332 net.cpp:52] Initializing net from parameters: 
state {
  phase: TEST
}
layer {
  name: "intercept"
  type: "HDF5Data"
  top: "data"
  top: "label"
  include {
    phase: TEST
  }
  hdf5_data_param {
    source: "/home/purduethu/scratch/radon/d/deng106/CNNStatisticalModel/distributions/input/50_distributions_900_sample_size_test-distributions-path.txt"
    batch_size: 20
  }
}
layer {
  name: "conv1"
  type: "Convolution"
  bottom: "data"
  top: "conv1"
  param {
    lr_mult: 1
  }
  param {
    lr_mult: 2
  }
  convolution_param {
    num_output: 64
    pad: 2
    kernel_size: 5
    stride: 1
    weight_filler {
      type: "gaussian"
      std: 0.0001
    }
    bias_filler {
      type: "constant"
    }
  }
}
layer {
  name: "relu1"
  type: "ReLU"
  bottom: "conv1"
  top: "conv1"
}
layer {
  name: "pool1"
  type: "Pooling"
  bottom: "conv1"
  top: "pool1"
  pooling_param {
    pool: MAX
    kernel_size: 3
    stride: 2
  }
}
layer {
  name: "conv2"
  type: "Convolution"
  bottom: "pool1"
  top: "conv2"
  param {
    lr_mult: 1
  }
  param {
    lr_mult: 2
  }
  convolution_param {
    num_output: 128
    pad: 2
    kernel_size: 5
    stride: 1
    weight_filler {
      type: "gaussian"
      std: 0.01
    }
    bias_filler {
      type: "constant"
    }
  }
}
layer {
  name: "relu2"
  type: "ReLU"
  bottom: "conv2"
  top: "conv2"
}
layer {
  name: "conv3"
  type: "Convolution"
  bottom: "conv2"
  top: "conv3"
  param {
    lr_mult: 1
  }
  param {
    lr_mult: 2
  }
  convolution_param {
    num_output: 128
    pad: 2
    kernel_size: 5
    stride: 1
    weight_filler {
      type: "gaussian"
      std: 0.01
    }
    bias_filler {
      type: "constant"
    }
  }
}
layer {
  name: "relu3"
  type: "ReLU"
  bottom: "conv3"
  top: "conv3"
}
layer {
  name: "pool3"
  type: "Pooling"
  bottom: "conv3"
  top: "pool3"
  pooling_param {
    pool: AVE
    kernel_size: 3
    stride: 2
  }
}
layer {
  name: "ip1"
  type: "InnerProduct"
  bottom: "pool3"
  top: "ip1"
  param {
    lr_mult: 1
  }
  param {
    lr_mult: 2
  }
  inner_product_param {
    num_output: 512
    weight_filler {
      type: "gaussian"
      std: 0.1
    }
    bias_filler {
      type: "constant"
    }
  }
}
layer {
  name: "ip2"
  type: "InnerProduct"
  bottom: "ip1"
  top: "ip2"
  param {
    lr_mult: 1
  }
  param {
    lr_mult: 2
  }
  inner_product_param {
    num_output: 256
    weight_filler {
      type: "gaussian"
      std: 0.1
    }
    bias_filler {
      type: "constant"
    }
  }
}
layer {
  name: "ip3"
  type: "InnerProduct"
  bottom: "ip2"
  top: "ip3"
  param {
    lr_mult: 1
  }
  param {
    lr_mult: 2
  }
  inner_product_param {
    num_output: 50
    weight_filler {
      type: "gaussian"
      std: 0.1
    }
    bias_filler {
      type: "constant"
    }
  }
}
layer {
  name: "accuracy"
  type: "Accuracy"
  bottom: "ip3"
  bottom: "label"
  top: "accuracy"
  include {
    phase: TEST
  }
}
layer {
  name: "loss"
  type: "SoftmaxWithLoss"
  bottom: "ip3"
  bottom: "label"
  top: "loss"
}
I0505 04:29:47.714505  3332 layer_factory.hpp:77] Creating layer intercept
I0505 04:29:47.714514  3332 net.cpp:94] Creating Layer intercept
I0505 04:29:47.714519  3332 net.cpp:409] intercept -> data
I0505 04:29:47.714525  3332 net.cpp:409] intercept -> label
I0505 04:29:47.714531  3332 hdf5_data_layer.cpp:79] Loading list of HDF5 filenames from: /home/purduethu/scratch/radon/d/deng106/CNNStatisticalModel/distributions/input/50_distributions_900_sample_size_test-distributions-path.txt
I0505 04:29:47.714550  3332 hdf5_data_layer.cpp:93] Number of HDF5 files: 1
I0505 04:29:48.064074  3332 net.cpp:144] Setting up intercept
I0505 04:29:48.064110  3332 net.cpp:151] Top shape: 20 1 30 30 (18000)
I0505 04:29:48.064115  3332 net.cpp:151] Top shape: 20 (20)
I0505 04:29:48.064118  3332 net.cpp:159] Memory required for data: 72080
I0505 04:29:48.064123  3332 layer_factory.hpp:77] Creating layer label_intercept_1_split
I0505 04:29:48.064151  3332 net.cpp:94] Creating Layer label_intercept_1_split
I0505 04:29:48.064157  3332 net.cpp:435] label_intercept_1_split <- label
I0505 04:29:48.064162  3332 net.cpp:409] label_intercept_1_split -> label_intercept_1_split_0
I0505 04:29:48.064170  3332 net.cpp:409] label_intercept_1_split -> label_intercept_1_split_1
I0505 04:29:48.064196  3332 net.cpp:144] Setting up label_intercept_1_split
I0505 04:29:48.064203  3332 net.cpp:151] Top shape: 20 (20)
I0505 04:29:48.064208  3332 net.cpp:151] Top shape: 20 (20)
I0505 04:29:48.064218  3332 net.cpp:159] Memory required for data: 72240
I0505 04:29:48.064221  3332 layer_factory.hpp:77] Creating layer conv1
I0505 04:29:48.064231  3332 net.cpp:94] Creating Layer conv1
I0505 04:29:48.064235  3332 net.cpp:435] conv1 <- data
I0505 04:29:48.064240  3332 net.cpp:409] conv1 -> conv1
I0505 04:29:48.065583  3332 net.cpp:144] Setting up conv1
I0505 04:29:48.065598  3332 net.cpp:151] Top shape: 20 64 30 30 (1152000)
I0505 04:29:48.065603  3332 net.cpp:159] Memory required for data: 4680240
I0505 04:29:48.065613  3332 layer_factory.hpp:77] Creating layer relu1
I0505 04:29:48.065619  3332 net.cpp:94] Creating Layer relu1
I0505 04:29:48.065623  3332 net.cpp:435] relu1 <- conv1
I0505 04:29:48.065629  3332 net.cpp:396] relu1 -> conv1 (in-place)
I0505 04:29:48.065636  3332 net.cpp:144] Setting up relu1
I0505 04:29:48.065641  3332 net.cpp:151] Top shape: 20 64 30 30 (1152000)
I0505 04:29:48.065644  3332 net.cpp:159] Memory required for data: 9288240
I0505 04:29:48.065647  3332 layer_factory.hpp:77] Creating layer pool1
I0505 04:29:48.065654  3332 net.cpp:94] Creating Layer pool1
I0505 04:29:48.065659  3332 net.cpp:435] pool1 <- conv1
I0505 04:29:48.065662  3332 net.cpp:409] pool1 -> pool1
I0505 04:29:48.065696  3332 net.cpp:144] Setting up pool1
I0505 04:29:48.065703  3332 net.cpp:151] Top shape: 20 64 15 15 (288000)
I0505 04:29:48.065706  3332 net.cpp:159] Memory required for data: 10440240
I0505 04:29:48.065709  3332 layer_factory.hpp:77] Creating layer conv2
I0505 04:29:48.065718  3332 net.cpp:94] Creating Layer conv2
I0505 04:29:48.065722  3332 net.cpp:435] conv2 <- pool1
I0505 04:29:48.065727  3332 net.cpp:409] conv2 -> conv2
I0505 04:29:48.073688  3332 net.cpp:144] Setting up conv2
I0505 04:29:48.073734  3332 net.cpp:151] Top shape: 20 128 15 15 (576000)
I0505 04:29:48.073746  3332 net.cpp:159] Memory required for data: 12744240
I0505 04:29:48.073770  3332 layer_factory.hpp:77] Creating layer relu2
I0505 04:29:48.073786  3332 net.cpp:94] Creating Layer relu2
I0505 04:29:48.073798  3332 net.cpp:435] relu2 <- conv2
I0505 04:29:48.073812  3332 net.cpp:396] relu2 -> conv2 (in-place)
I0505 04:29:48.073832  3332 net.cpp:144] Setting up relu2
I0505 04:29:48.073846  3332 net.cpp:151] Top shape: 20 128 15 15 (576000)
I0505 04:29:48.073855  3332 net.cpp:159] Memory required for data: 15048240
I0505 04:29:48.073865  3332 layer_factory.hpp:77] Creating layer conv3
I0505 04:29:48.073885  3332 net.cpp:94] Creating Layer conv3
I0505 04:29:48.073896  3332 net.cpp:435] conv3 <- conv2
I0505 04:29:48.073910  3332 net.cpp:409] conv3 -> conv3
I0505 04:29:48.109936  3332 net.cpp:144] Setting up conv3
I0505 04:29:48.109977  3332 net.cpp:151] Top shape: 20 128 15 15 (576000)
I0505 04:29:48.109989  3332 net.cpp:159] Memory required for data: 17352240
I0505 04:29:48.110013  3332 layer_factory.hpp:77] Creating layer relu3
I0505 04:29:48.110031  3332 net.cpp:94] Creating Layer relu3
I0505 04:29:48.110044  3332 net.cpp:435] relu3 <- conv3
I0505 04:29:48.110056  3332 net.cpp:396] relu3 -> conv3 (in-place)
I0505 04:29:48.110076  3332 net.cpp:144] Setting up relu3
I0505 04:29:48.110090  3332 net.cpp:151] Top shape: 20 128 15 15 (576000)
I0505 04:29:48.110100  3332 net.cpp:159] Memory required for data: 19656240
I0505 04:29:48.110110  3332 layer_factory.hpp:77] Creating layer pool3
I0505 04:29:48.110133  3332 net.cpp:94] Creating Layer pool3
I0505 04:29:48.110142  3332 net.cpp:435] pool3 <- conv3
I0505 04:29:48.110157  3332 net.cpp:409] pool3 -> pool3
I0505 04:29:48.110219  3332 net.cpp:144] Setting up pool3
I0505 04:29:48.110244  3332 net.cpp:151] Top shape: 20 128 7 7 (125440)
I0505 04:29:48.110252  3332 net.cpp:159] Memory required for data: 20158000
I0505 04:29:48.110261  3332 layer_factory.hpp:77] Creating layer ip1
I0505 04:29:48.110276  3332 net.cpp:94] Creating Layer ip1
I0505 04:29:48.110285  3332 net.cpp:435] ip1 <- pool3
I0505 04:29:48.110296  3332 net.cpp:409] ip1 -> ip1
I0505 04:29:48.250378  3332 net.cpp:144] Setting up ip1
I0505 04:29:48.250403  3332 net.cpp:151] Top shape: 20 512 (10240)
I0505 04:29:48.250409  3332 net.cpp:159] Memory required for data: 20198960
I0505 04:29:48.250434  3332 layer_factory.hpp:77] Creating layer ip2
I0505 04:29:48.250445  3332 net.cpp:94] Creating Layer ip2
I0505 04:29:48.250452  3332 net.cpp:435] ip2 <- ip1
I0505 04:29:48.250458  3332 net.cpp:409] ip2 -> ip2
I0505 04:29:48.254284  3332 net.cpp:144] Setting up ip2
I0505 04:29:48.254294  3332 net.cpp:151] Top shape: 20 256 (5120)
I0505 04:29:48.254298  3332 net.cpp:159] Memory required for data: 20219440
I0505 04:29:48.254308  3332 layer_factory.hpp:77] Creating layer ip3
I0505 04:29:48.254317  3332 net.cpp:94] Creating Layer ip3
I0505 04:29:48.254320  3332 net.cpp:435] ip3 <- ip2
I0505 04:29:48.254326  3332 net.cpp:409] ip3 -> ip3
I0505 04:29:48.254777  3332 net.cpp:144] Setting up ip3
I0505 04:29:48.254786  3332 net.cpp:151] Top shape: 20 50 (1000)
I0505 04:29:48.254789  3332 net.cpp:159] Memory required for data: 20223440
I0505 04:29:48.254796  3332 layer_factory.hpp:77] Creating layer ip3_ip3_0_split
I0505 04:29:48.254802  3332 net.cpp:94] Creating Layer ip3_ip3_0_split
I0505 04:29:48.254807  3332 net.cpp:435] ip3_ip3_0_split <- ip3
I0505 04:29:48.254812  3332 net.cpp:409] ip3_ip3_0_split -> ip3_ip3_0_split_0
I0505 04:29:48.254819  3332 net.cpp:409] ip3_ip3_0_split -> ip3_ip3_0_split_1
I0505 04:29:48.254848  3332 net.cpp:144] Setting up ip3_ip3_0_split
I0505 04:29:48.254854  3332 net.cpp:151] Top shape: 20 50 (1000)
I0505 04:29:48.254859  3332 net.cpp:151] Top shape: 20 50 (1000)
I0505 04:29:48.254863  3332 net.cpp:159] Memory required for data: 20231440
I0505 04:29:48.254868  3332 layer_factory.hpp:77] Creating layer accuracy
I0505 04:29:48.254883  3332 net.cpp:94] Creating Layer accuracy
I0505 04:29:48.254886  3332 net.cpp:435] accuracy <- ip3_ip3_0_split_0
I0505 04:29:48.254891  3332 net.cpp:435] accuracy <- label_intercept_1_split_0
I0505 04:29:48.254897  3332 net.cpp:409] accuracy -> accuracy
…
