…
I0502 11:14:35.887226 26790 net.cpp:323] The NetState phase (0) differed from the phase (1) specified by a rule in layer intercept
I0502 11:14:35.887253 26790 net.cpp:323] The NetState phase (0) differed from the phase (1) specified by a rule in layer loss
I0502 11:14:35.887384 26790 net.cpp:52] Initializing net from parameters: 
state {
  phase: TRAIN
}
layer {
  name: "parameters"
  type: "HDF5Data"
  top: "data"
  top: "label"
  include {
    phase: TRAIN
  }
  hdf5_data_param {
    source: "/home/purduethu/scratch/radon/d/deng106/CNNStatisticalModel/distributions/input/20_distributions_400_sample_size_train-parameters-path.txt"
    batch_size: 20
  }
}
layer {
  name: "conv1"
  type: "Convolution"
  bottom: "data"
  top: "conv1"
  param {
    lr_mult: 1
  }
  param {
    lr_mult: 2
  }
  convolution_param {
    num_output: 64
    pad: 2
    kernel_size: 5
    stride: 1
    weight_filler {
      type: "gaussian"
      std: 0.0001
    }
    bias_filler {
      type: "constant"
    }
  }
}
layer {
  name: "relu1"
  type: "ReLU"
  bottom: "conv1"
  top: "conv1"
}
layer {
  name: "conv2"
  type: "Convolution"
  bottom: "conv1"
  top: "conv2"
  param {
    lr_mult: 1
  }
  param {
    lr_mult: 2
  }
  convolution_param {
    num_output: 64
    pad: 2
    kernel_size: 5
    stride: 1
    weight_filler {
      type: "gaussian"
      std: 0.01
    }
    bias_filler {
      type: "constant"
    }
  }
}
layer {
  name: "relu2"
  type: "ReLU"
  bottom: "conv2"
  top: "conv2"
}
layer {
  name: "pool2"
  type: "Pooling"
  bottom: "conv2"
  top: "pool2"
  pooling_param {
    pool: MAX
    kernel_size: 3
    stride: 2
  }
}
layer {
  name: "conv3"
  type: "Convolution"
  bottom: "pool2"
  top: "conv3"
  param {
    lr_mult: 1
  }
  param {
    lr_mult: 2
  }
  convolution_param {
    num_output: 64
    pad: 2
    kernel_size: 5
    stride: 1
    weight_filler {
      type: "gaussian"
      std: 0.01
    }
    bias_filler {
      type: "constant"
    }
  }
}
layer {
  name: "relu3"
  type: "ReLU"
  bottom: "conv3"
  top: "conv3"
}
layer {
  name: "conv4"
  type: "Convolution"
  bottom: "conv3"
  top: "conv4"
  param {
    lr_mult: 1
  }
  param {
    lr_mult: 2
  }
  convolution_param {
    num_output: 64
    pad: 2
    kernel_size: 5
    stride: 1
    weight_filler {
      type: "gaussian"
      std: 0.01
    }
    bias_filler {
      type: "constant"
    }
  }
}
layer {
  name: "relu4"
  type: "ReLU"
  bottom: "conv4"
  top: "conv4"
}
layer {
  name: "conv5"
  type: "Convolution"
  bottom: "conv4"
  top: "conv5"
  param {
    lr_mult: 1
  }
  param {
    lr_mult: 2
  }
  convolution_param {
    num_output: 64
    pad: 2
    kernel_size: 5
    stride: 1
    weight_filler {
      type: "gaussian"
      std: 0.01
    }
    bias_filler {
      type: "constant"
    }
  }
}
layer {
  name: "relu5"
  type: "ReLU"
  bottom: "conv5"
  top: "conv5"
}
layer {
  name: "pool5"
  type: "Pooling"
  bottom: "conv5"
  top: "pool5"
  pooling_param {
    pool: AVE
    kernel_size: 3
    stride: 2
  }
}
layer {
  name: "ip1"
  type: "InnerProduct"
  bottom: "pool5"
  top: "ip1"
  param {
    lr_mult: 1
  }
  param {
    lr_mult: 2
  }
  inner_product_param {
    num_output: 64
    weight_filler {
      type: "gaussian"
      std: 0.1
    }
    bias_filler {
      type: "constant"
    }
  }
}
layer {
  name: "ip2"
  type: "InnerProduct"
  bottom: "ip1"
  top: "ip2"
  param {
    lr_mult: 1
  }
  param {
    lr_mult: 2
  }
  inner_product_param {
    num_output: 64
    weight_filler {
      type: "gaussian"
      std: 0.1
    }
    bias_filler {
      type: "constant"
    }
  }
}
layer {
  name: "ip3"
  type: "InnerProduct"
  bottom: "ip2"
  top: "ip3"
  param {
    lr_mult: 1
  }
  param {
    lr_mult: 2
  }
  inner_product_param {
    num_output: 1
    weight_filler {
      type: "gaussian"
      std: 0.1
    }
    bias_filler {
      type: "constant"
    }
  }
}
layer {
  name: "loss"
  type: "HuberLoss"
  bottom: "ip3"
  bottom: "label"
  top: "loss"
  include {
    phase: TRAIN
  }
}
I0502 11:14:35.887466 26790 layer_factory.hpp:77] Creating layer parameters
I0502 11:14:35.887483 26790 net.cpp:94] Creating Layer parameters
I0502 11:14:35.887490 26790 net.cpp:409] parameters -> data
I0502 11:14:35.887504 26790 net.cpp:409] parameters -> label
I0502 11:14:35.887514 26790 hdf5_data_layer.cpp:79] Loading list of HDF5 filenames from: /home/purduethu/scratch/radon/d/deng106/CNNStatisticalModel/distributions/input/20_distributions_400_sample_size_train-parameters-path.txt
I0502 11:14:35.887533 26790 hdf5_data_layer.cpp:93] Number of HDF5 files: 1
I0502 11:14:35.888337 26790 hdf5.cpp:32] Datatype class: H5T_FLOAT
I0502 11:14:36.243707 26790 net.cpp:144] Setting up parameters
I0502 11:14:36.243748 26790 net.cpp:151] Top shape: 20 1 20 20 (8000)
I0502 11:14:36.243758 26790 net.cpp:151] Top shape: 20 (20)
I0502 11:14:36.243765 26790 net.cpp:159] Memory required for data: 32080
I0502 11:14:36.243777 26790 layer_factory.hpp:77] Creating layer conv1
I0502 11:14:36.243803 26790 net.cpp:94] Creating Layer conv1
I0502 11:14:36.243810 26790 net.cpp:435] conv1 <- data
I0502 11:14:36.243820 26790 net.cpp:409] conv1 -> conv1
I0502 11:14:36.251000 26790 net.cpp:144] Setting up conv1
I0502 11:14:36.251024 26790 net.cpp:151] Top shape: 20 64 20 20 (512000)
I0502 11:14:36.251029 26790 net.cpp:159] Memory required for data: 2080080
I0502 11:14:36.251045 26790 layer_factory.hpp:77] Creating layer relu1
I0502 11:14:36.251058 26790 net.cpp:94] Creating Layer relu1
I0502 11:14:36.251065 26790 net.cpp:435] relu1 <- conv1
I0502 11:14:36.251072 26790 net.cpp:396] relu1 -> conv1 (in-place)
I0502 11:14:36.251092 26790 net.cpp:144] Setting up relu1
I0502 11:14:36.251101 26790 net.cpp:151] Top shape: 20 64 20 20 (512000)
I0502 11:14:36.251106 26790 net.cpp:159] Memory required for data: 4128080
I0502 11:14:36.251111 26790 layer_factory.hpp:77] Creating layer conv2
I0502 11:14:36.251122 26790 net.cpp:94] Creating Layer conv2
I0502 11:14:36.251127 26790 net.cpp:435] conv2 <- conv1
I0502 11:14:36.251135 26790 net.cpp:409] conv2 -> conv2
I0502 11:14:36.262711 26790 net.cpp:144] Setting up conv2
I0502 11:14:36.262732 26790 net.cpp:151] Top shape: 20 64 20 20 (512000)
I0502 11:14:36.262737 26790 net.cpp:159] Memory required for data: 6176080
I0502 11:14:36.262750 26790 layer_factory.hpp:77] Creating layer relu2
I0502 11:14:36.262763 26790 net.cpp:94] Creating Layer relu2
I0502 11:14:36.262768 26790 net.cpp:435] relu2 <- conv2
I0502 11:14:36.262775 26790 net.cpp:396] relu2 -> conv2 (in-place)
I0502 11:14:36.262786 26790 net.cpp:144] Setting up relu2
I0502 11:14:36.262794 26790 net.cpp:151] Top shape: 20 64 20 20 (512000)
I0502 11:14:36.262799 26790 net.cpp:159] Memory required for data: 8224080
I0502 11:14:36.262804 26790 layer_factory.hpp:77] Creating layer pool2
I0502 11:14:36.262820 26790 net.cpp:94] Creating Layer pool2
I0502 11:14:36.262825 26790 net.cpp:435] pool2 <- conv2
I0502 11:14:36.262832 26790 net.cpp:409] pool2 -> pool2
I0502 11:14:36.262907 26790 net.cpp:144] Setting up pool2
I0502 11:14:36.262917 26790 net.cpp:151] Top shape: 20 64 10 10 (128000)
I0502 11:14:36.262923 26790 net.cpp:159] Memory required for data: 8736080
I0502 11:14:36.262928 26790 layer_factory.hpp:77] Creating layer conv3
I0502 11:14:36.262940 26790 net.cpp:94] Creating Layer conv3
I0502 11:14:36.262945 26790 net.cpp:435] conv3 <- pool2
I0502 11:14:36.262953 26790 net.cpp:409] conv3 -> conv3
I0502 11:14:36.269621 26790 net.cpp:144] Setting up conv3
I0502 11:14:36.269641 26790 net.cpp:151] Top shape: 20 64 10 10 (128000)
I0502 11:14:36.269647 26790 net.cpp:159] Memory required for data: 9248080
I0502 11:14:36.269660 26790 layer_factory.hpp:77] Creating layer relu3
I0502 11:14:36.269671 26790 net.cpp:94] Creating Layer relu3
I0502 11:14:36.269677 26790 net.cpp:435] relu3 <- conv3
I0502 11:14:36.269685 26790 net.cpp:396] relu3 -> conv3 (in-place)
I0502 11:14:36.269696 26790 net.cpp:144] Setting up relu3
I0502 11:14:36.269704 26790 net.cpp:151] Top shape: 20 64 10 10 (128000)
I0502 11:14:36.269709 26790 net.cpp:159] Memory required for data: 9760080
I0502 11:14:36.269716 26790 layer_factory.hpp:77] Creating layer conv4
I0502 11:14:36.269729 26790 net.cpp:94] Creating Layer conv4
I0502 11:14:36.269737 26790 net.cpp:435] conv4 <- conv3
I0502 11:14:36.269747 26790 net.cpp:409] conv4 -> conv4
I0502 11:14:36.276473 26790 net.cpp:144] Setting up conv4
I0502 11:14:36.276494 26790 net.cpp:151] Top shape: 20 64 10 10 (128000)
I0502 11:14:36.276500 26790 net.cpp:159] Memory required for data: 10272080
I0502 11:14:36.276510 26790 layer_factory.hpp:77] Creating layer relu4
I0502 11:14:36.276520 26790 net.cpp:94] Creating Layer relu4
I0502 11:14:36.276528 26790 net.cpp:435] relu4 <- conv4
I0502 11:14:36.276536 26790 net.cpp:396] relu4 -> conv4 (in-place)
I0502 11:14:36.276548 26790 net.cpp:144] Setting up relu4
I0502 11:14:36.276569 26790 net.cpp:151] Top shape: 20 64 10 10 (128000)
I0502 11:14:36.276576 26790 net.cpp:159] Memory required for data: 10784080
I0502 11:14:36.276582 26790 layer_factory.hpp:77] Creating layer conv5
I0502 11:14:36.276598 26790 net.cpp:94] Creating Layer conv5
I0502 11:14:36.276605 26790 net.cpp:435] conv5 <- conv4
I0502 11:14:36.276614 26790 net.cpp:409] conv5 -> conv5
I0502 11:14:36.284490 26790 net.cpp:144] Setting up conv5
I0502 11:14:36.284512 26790 net.cpp:151] Top shape: 20 64 10 10 (128000)
I0502 11:14:36.284519 26790 net.cpp:159] Memory required for data: 11296080
I0502 11:14:36.284534 26790 layer_factory.hpp:77] Creating layer relu5
I0502 11:14:36.284545 26790 net.cpp:94] Creating Layer relu5
I0502 11:14:36.284565 26790 net.cpp:435] relu5 <- conv5
I0502 11:14:36.284615 26790 net.cpp:396] relu5 -> conv5 (in-place)
I0502 11:14:36.284636 26790 net.cpp:144] Setting up relu5
I0502 11:14:36.284646 26790 net.cpp:151] Top shape: 20 64 10 10 (128000)
I0502 11:14:36.284652 26790 net.cpp:159] Memory required for data: 11808080
I0502 11:14:36.284659 26790 layer_factory.hpp:77] Creating layer pool5
I0502 11:14:36.284670 26790 net.cpp:94] Creating Layer pool5
I0502 11:14:36.284677 26790 net.cpp:435] pool5 <- conv5
I0502 11:14:36.284685 26790 net.cpp:409] pool5 -> pool5
I0502 11:14:36.284764 26790 net.cpp:144] Setting up pool5
I0502 11:14:36.284778 26790 net.cpp:151] Top shape: 20 64 5 5 (32000)
I0502 11:14:36.284785 26790 net.cpp:159] Memory required for data: 11936080
I0502 11:14:36.284790 26790 layer_factory.hpp:77] Creating layer ip1
I0502 11:14:36.284807 26790 net.cpp:94] Creating Layer ip1
I0502 11:14:36.284814 26790 net.cpp:435] ip1 <- pool5
I0502 11:14:36.284823 26790 net.cpp:409] ip1 -> ip1
I0502 11:14:36.289911 26790 net.cpp:144] Setting up ip1
I0502 11:14:36.289928 26790 net.cpp:151] Top shape: 20 64 (1280)
I0502 11:14:36.289934 26790 net.cpp:159] Memory required for data: 11941200
I0502 11:14:36.289945 26790 layer_factory.hpp:77] Creating layer ip2
I0502 11:14:36.289955 26790 net.cpp:94] Creating Layer ip2
I0502 11:14:36.289970 26790 net.cpp:435] ip2 <- ip1
I0502 11:14:36.289979 26790 net.cpp:409] ip2 -> ip2
I0502 11:14:36.290380 26790 net.cpp:144] Setting up ip2
I0502 11:14:36.290392 26790 net.cpp:151] Top shape: 20 64 (1280)
I0502 11:14:36.290398 26790 net.cpp:159] Memory required for data: 11946320
I0502 11:14:36.290407 26790 layer_factory.hpp:77] Creating layer ip3
I0502 11:14:36.290417 26790 net.cpp:94] Creating Layer ip3
I0502 11:14:36.290424 26790 net.cpp:435] ip3 <- ip2
I0502 11:14:36.290432 26790 net.cpp:409] ip3 -> ip3
I0502 11:14:36.290621 26790 net.cpp:144] Setting up ip3
I0502 11:14:36.290632 26790 net.cpp:151] Top shape: 20 1 (20)
I0502 11:14:36.290638 26790 net.cpp:159] Memory required for data: 11946400
I0502 11:14:36.290647 26790 layer_factory.hpp:77] Creating layer loss
I0502 11:14:36.290659 26790 net.cpp:94] Creating Layer loss
I0502 11:14:36.290665 26790 net.cpp:435] loss <- ip3
I0502 11:14:36.290673 26790 net.cpp:435] loss <- label
I0502 11:14:36.290680 26790 net.cpp:409] loss -> loss
I0502 11:14:36.290772 26790 net.cpp:144] Setting up loss
…
I0502 11:14:36.413837 26790 net.cpp:323] The NetState phase (0) differed from the phase (1) specified by a rule in layer intercept
I0502 11:14:36.413856 26790 net.cpp:323] The NetState phase (0) differed from the phase (1) specified by a rule in layer accuracy
I0502 11:14:36.413962 26790 net.cpp:52] Initializing net from parameters: 
state {
  phase: TRAIN
}
layer {
  name: "parameters"
  type: "HDF5Data"
  top: "data"
  top: "label"
  include {
    phase: TRAIN
  }
  hdf5_data_param {
    source: "/home/purduethu/scratch/radon/d/deng106/CNNStatisticalModel/distributions/input/20_distributions_400_sample_size_train-distributions-path.txt"
    batch_size: 20
  }
}
layer {
  name: "conv1"
  type: "Convolution"
  bottom: "data"
  top: "conv1"
  param {
    lr_mult: 1
  }
  param {
    lr_mult: 2
  }
  convolution_param {
    num_output: 64
    pad: 2
    kernel_size: 5
    stride: 1
    weight_filler {
      type: "gaussian"
      std: 0.0001
    }
    bias_filler {
      type: "constant"
    }
  }
}
layer {
  name: "relu1"
  type: "ReLU"
  bottom: "conv1"
  top: "conv1"
}
layer {
  name: "conv2"
  type: "Convolution"
  bottom: "conv1"
  top: "conv2"
  param {
    lr_mult: 1
  }
  param {
    lr_mult: 2
  }
  convolution_param {
    num_output: 64
    pad: 2
    kernel_size: 5
    stride: 1
    weight_filler {
      type: "gaussian"
      std: 0.01
    }
    bias_filler {
      type: "constant"
    }
  }
}
layer {
  name: "relu2"
  type: "ReLU"
  bottom: "conv2"
  top: "conv2"
}
layer {
  name: "pool2"
  type: "Pooling"
  bottom: "conv2"
  top: "pool2"
  pooling_param {
    pool: MAX
    kernel_size: 3
    stride: 2
  }
}
layer {
  name: "conv3"
  type: "Convolution"
  bottom: "pool2"
  top: "conv3"
  param {
    lr_mult: 1
  }
  param {
    lr_mult: 2
  }
  convolution_param {
    num_output: 64
    pad: 2
    kernel_size: 5
    stride: 1
    weight_filler {
      type: "gaussian"
      std: 0.01
    }
    bias_filler {
      type: "constant"
    }
  }
}
layer {
  name: "relu3"
  type: "ReLU"
  bottom: "conv3"
  top: "conv3"
}
layer {
  name: "conv4"
  type: "Convolution"
  bottom: "conv3"
  top: "conv4"
  param {
    lr_mult: 1
  }
  param {
    lr_mult: 2
  }
  convolution_param {
    num_output: 64
    pad: 2
    kernel_size: 5
    stride: 1
    weight_filler {
      type: "gaussian"
      std: 0.01
    }
    bias_filler {
      type: "constant"
    }
  }
}
layer {
  name: "relu4"
  type: "ReLU"
  bottom: "conv4"
  top: "conv4"
}
layer {
  name: "conv5"
  type: "Convolution"
  bottom: "conv4"
  top: "conv5"
  param {
    lr_mult: 1
  }
  param {
    lr_mult: 2
  }
  convolution_param {
    num_output: 64
    pad: 2
    kernel_size: 5
    stride: 1
    weight_filler {
      type: "gaussian"
      std: 0.01
    }
    bias_filler {
      type: "constant"
    }
  }
}
layer {
  name: "relu5"
  type: "ReLU"
  bottom: "conv5"
  top: "conv5"
}
layer {
  name: "pool5"
  type: "Pooling"
  bottom: "conv5"
  top: "pool5"
  pooling_param {
    pool: AVE
    kernel_size: 3
    stride: 2
  }
}
layer {
  name: "ip1"
  type: "InnerProduct"
  bottom: "pool5"
  top: "ip1"
  param {
    lr_mult: 1
  }
  param {
    lr_mult: 2
  }
  inner_product_param {
    num_output: 64
    weight_filler {
      type: "gaussian"
      std: 0.1
    }
    bias_filler {
      type: "constant"
    }
  }
}
layer {
  name: "ip2"
  type: "InnerProduct"
  bottom: "ip1"
  top: "ip2"
  param {
    lr_mult: 1
  }
  param {
    lr_mult: 2
  }
  inner_product_param {
    num_output: 64
    weight_filler {
      type: "gaussian"
      std: 0.1
    }
    bias_filler {
      type: "constant"
    }
  }
}
layer {
  name: "ip3"
  type: "InnerProduct"
  bottom: "ip2"
  top: "ip3"
  param {
    lr_mult: 1
  }
  param {
    lr_mult: 2
  }
  inner_product_param {
    num_output: 50
    weight_filler {
      type: "gaussian"
      std: 0.1
    }
    bias_filler {
      type: "constant"
    }
  }
}
layer {
  name: "loss"
  type: "SoftmaxWithLoss"
  bottom: "ip3"
  bottom: "label"
  top: "loss"
}
I0502 11:14:36.414028 26790 layer_factory.hpp:77] Creating layer parameters
I0502 11:14:36.414038 26790 net.cpp:94] Creating Layer parameters
I0502 11:14:36.414043 26790 net.cpp:409] parameters -> data
I0502 11:14:36.414052 26790 net.cpp:409] parameters -> label
I0502 11:14:36.414059 26790 hdf5_data_layer.cpp:79] Loading list of HDF5 filenames from: /home/purduethu/scratch/radon/d/deng106/CNNStatisticalModel/distributions/input/20_distributions_400_sample_size_train-distributions-path.txt
I0502 11:14:36.414077 26790 hdf5_data_layer.cpp:93] Number of HDF5 files: 1
I0502 11:14:36.685235 26790 hdf5.cpp:35] Datatype class: H5T_INTEGER
I0502 11:14:36.686342 26790 net.cpp:144] Setting up parameters
I0502 11:14:36.686357 26790 net.cpp:151] Top shape: 20 1 20 20 (8000)
I0502 11:14:36.686362 26790 net.cpp:151] Top shape: 20 (20)
I0502 11:14:36.686365 26790 net.cpp:159] Memory required for data: 32080
I0502 11:14:36.686372 26790 layer_factory.hpp:77] Creating layer conv1
I0502 11:14:36.686386 26790 net.cpp:94] Creating Layer conv1
I0502 11:14:36.686391 26790 net.cpp:435] conv1 <- data
I0502 11:14:36.686398 26790 net.cpp:409] conv1 -> conv1
I0502 11:14:36.689362 26790 net.cpp:144] Setting up conv1
I0502 11:14:36.689376 26790 net.cpp:151] Top shape: 20 64 20 20 (512000)
I0502 11:14:36.689380 26790 net.cpp:159] Memory required for data: 2080080
I0502 11:14:36.689391 26790 layer_factory.hpp:77] Creating layer relu1
I0502 11:14:36.689399 26790 net.cpp:94] Creating Layer relu1
I0502 11:14:36.689404 26790 net.cpp:435] relu1 <- conv1
I0502 11:14:36.689407 26790 net.cpp:396] relu1 -> conv1 (in-place)
I0502 11:14:36.689415 26790 net.cpp:144] Setting up relu1
I0502 11:14:36.689419 26790 net.cpp:151] Top shape: 20 64 20 20 (512000)
I0502 11:14:36.689422 26790 net.cpp:159] Memory required for data: 4128080
I0502 11:14:36.689425 26790 layer_factory.hpp:77] Creating layer conv2
I0502 11:14:36.689432 26790 net.cpp:94] Creating Layer conv2
I0502 11:14:36.689436 26790 net.cpp:435] conv2 <- conv1
I0502 11:14:36.689440 26790 net.cpp:409] conv2 -> conv2
I0502 11:14:36.699981 26790 net.cpp:144] Setting up conv2
I0502 11:14:36.700002 26790 net.cpp:151] Top shape: 20 64 20 20 (512000)
I0502 11:14:36.700006 26790 net.cpp:159] Memory required for data: 6176080
I0502 11:14:36.700014 26790 layer_factory.hpp:77] Creating layer relu2
I0502 11:14:36.700021 26790 net.cpp:94] Creating Layer relu2
I0502 11:14:36.700026 26790 net.cpp:435] relu2 <- conv2
I0502 11:14:36.700029 26790 net.cpp:396] relu2 -> conv2 (in-place)
I0502 11:14:36.700037 26790 net.cpp:144] Setting up relu2
I0502 11:14:36.700040 26790 net.cpp:151] Top shape: 20 64 20 20 (512000)
I0502 11:14:36.700043 26790 net.cpp:159] Memory required for data: 8224080
I0502 11:14:36.700047 26790 layer_factory.hpp:77] Creating layer pool2
I0502 11:14:36.700052 26790 net.cpp:94] Creating Layer pool2
I0502 11:14:36.700055 26790 net.cpp:435] pool2 <- conv2
I0502 11:14:36.700059 26790 net.cpp:409] pool2 -> pool2
I0502 11:14:36.700110 26790 net.cpp:144] Setting up pool2
I0502 11:14:36.700117 26790 net.cpp:151] Top shape: 20 64 10 10 (128000)
I0502 11:14:36.700120 26790 net.cpp:159] Memory required for data: 8736080
I0502 11:14:36.700124 26790 layer_factory.hpp:77] Creating layer conv3
I0502 11:14:36.700132 26790 net.cpp:94] Creating Layer conv3
I0502 11:14:36.700135 26790 net.cpp:435] conv3 <- pool2
I0502 11:14:36.700146 26790 net.cpp:409] conv3 -> conv3
I0502 11:14:36.706650 26790 net.cpp:144] Setting up conv3
I0502 11:14:36.706665 26790 net.cpp:151] Top shape: 20 64 10 10 (128000)
I0502 11:14:36.706668 26790 net.cpp:159] Memory required for data: 9248080
I0502 11:14:36.706677 26790 layer_factory.hpp:77] Creating layer relu3
I0502 11:14:36.706683 26790 net.cpp:94] Creating Layer relu3
I0502 11:14:36.706687 26790 net.cpp:435] relu3 <- conv3
I0502 11:14:36.706692 26790 net.cpp:396] relu3 -> conv3 (in-place)
I0502 11:14:36.706698 26790 net.cpp:144] Setting up relu3
I0502 11:14:36.706703 26790 net.cpp:151] Top shape: 20 64 10 10 (128000)
I0502 11:14:36.706706 26790 net.cpp:159] Memory required for data: 9760080
I0502 11:14:36.706708 26790 layer_factory.hpp:77] Creating layer conv4
I0502 11:14:36.706717 26790 net.cpp:94] Creating Layer conv4
I0502 11:14:36.706722 26790 net.cpp:435] conv4 <- conv3
I0502 11:14:36.706725 26790 net.cpp:409] conv4 -> conv4
I0502 11:14:36.712309 26790 net.cpp:144] Setting up conv4
I0502 11:14:36.712323 26790 net.cpp:151] Top shape: 20 64 10 10 (128000)
I0502 11:14:36.712327 26790 net.cpp:159] Memory required for data: 10272080
I0502 11:14:36.712334 26790 layer_factory.hpp:77] Creating layer relu4
I0502 11:14:36.712340 26790 net.cpp:94] Creating Layer relu4
I0502 11:14:36.712343 26790 net.cpp:435] relu4 <- conv4
I0502 11:14:36.712348 26790 net.cpp:396] relu4 -> conv4 (in-place)
I0502 11:14:36.712355 26790 net.cpp:144] Setting up relu4
I0502 11:14:36.712359 26790 net.cpp:151] Top shape: 20 64 10 10 (128000)
I0502 11:14:36.712363 26790 net.cpp:159] Memory required for data: 10784080
I0502 11:14:36.712365 26790 layer_factory.hpp:77] Creating layer conv5
I0502 11:14:36.712373 26790 net.cpp:94] Creating Layer conv5
I0502 11:14:36.712376 26790 net.cpp:435] conv5 <- conv4
I0502 11:14:36.712381 26790 net.cpp:409] conv5 -> conv5
I0502 11:14:36.717963 26790 net.cpp:144] Setting up conv5
I0502 11:14:36.717978 26790 net.cpp:151] Top shape: 20 64 10 10 (128000)
I0502 11:14:36.717981 26790 net.cpp:159] Memory required for data: 11296080
I0502 11:14:36.717990 26790 layer_factory.hpp:77] Creating layer relu5
I0502 11:14:36.717996 26790 net.cpp:94] Creating Layer relu5
I0502 11:14:36.718000 26790 net.cpp:435] relu5 <- conv5
I0502 11:14:36.718004 26790 net.cpp:396] relu5 -> conv5 (in-place)
I0502 11:14:36.718011 26790 net.cpp:144] Setting up relu5
I0502 11:14:36.718015 26790 net.cpp:151] Top shape: 20 64 10 10 (128000)
I0502 11:14:36.718019 26790 net.cpp:159] Memory required for data: 11808080
I0502 11:14:36.718021 26790 layer_factory.hpp:77] Creating layer pool5
I0502 11:14:36.718026 26790 net.cpp:94] Creating Layer pool5
I0502 11:14:36.718029 26790 net.cpp:435] pool5 <- conv5
I0502 11:14:36.718034 26790 net.cpp:409] pool5 -> pool5
I0502 11:14:36.718070 26790 net.cpp:144] Setting up pool5
I0502 11:14:36.718076 26790 net.cpp:151] Top shape: 20 64 5 5 (32000)
I0502 11:14:36.718080 26790 net.cpp:159] Memory required for data: 11936080
I0502 11:14:36.718083 26790 layer_factory.hpp:77] Creating layer ip1
I0502 11:14:36.718089 26790 net.cpp:94] Creating Layer ip1
I0502 11:14:36.718092 26790 net.cpp:435] ip1 <- pool5
I0502 11:14:36.718097 26790 net.cpp:409] ip1 -> ip1
I0502 11:14:36.720726 26790 net.cpp:144] Setting up ip1
I0502 11:14:36.720736 26790 net.cpp:151] Top shape: 20 64 (1280)
I0502 11:14:36.720739 26790 net.cpp:159] Memory required for data: 11941200
I0502 11:14:36.720746 26790 layer_factory.hpp:77] Creating layer ip2
I0502 11:14:36.720752 26790 net.cpp:94] Creating Layer ip2
I0502 11:14:36.720755 26790 net.cpp:435] ip2 <- ip1
I0502 11:14:36.720760 26790 net.cpp:409] ip2 -> ip2
I0502 11:14:36.720979 26790 net.cpp:144] Setting up ip2
I0502 11:14:36.720988 26790 net.cpp:151] Top shape: 20 64 (1280)
I0502 11:14:36.720990 26790 net.cpp:159] Memory required for data: 11946320
I0502 11:14:36.720995 26790 layer_factory.hpp:77] Creating layer ip3
I0502 11:14:36.721001 26790 net.cpp:94] Creating Layer ip3
I0502 11:14:36.721004 26790 net.cpp:435] ip3 <- ip2
I0502 11:14:36.721009 26790 net.cpp:409] ip3 -> ip3
I0502 11:14:36.721206 26790 net.cpp:144] Setting up ip3
I0502 11:14:36.721215 26790 net.cpp:151] Top shape: 20 50 (1000)
I0502 11:14:36.721217 26790 net.cpp:159] Memory required for data: 11950320
I0502 11:14:36.721222 26790 layer_factory.hpp:77] Creating layer loss
I0502 11:14:36.721228 26790 net.cpp:94] Creating Layer loss
I0502 11:14:36.721232 26790 net.cpp:435] loss <- ip3
I0502 11:14:36.721236 26790 net.cpp:435] loss <- label
I0502 11:14:36.721240 26790 net.cpp:409] loss -> loss
I0502 11:14:36.721246 26790 layer_factory.hpp:77] Creating layer loss
…
I0502 11:14:36.721773 26790 solver.cpp:181] Creating test net (#0) specified by net file: ./protocol/dis_20_400_dimension.protocol_distribution
I0502 11:14:36.721799 26790 net.cpp:323] The NetState phase (1) differed from the phase (0) specified by a rule in layer parameters
I0502 11:14:36.721902 26790 net.cpp:52] Initializing net from parameters: 
state {
  phase: TEST
}
layer {
  name: "intercept"
  type: "HDF5Data"
  top: "data"
  top: "label"
  include {
    phase: TEST
  }
  hdf5_data_param {
    source: "/home/purduethu/scratch/radon/d/deng106/CNNStatisticalModel/distributions/input/20_distributions_400_sample_size_test-distributions-path.txt"
    batch_size: 20
  }
}
layer {
  name: "conv1"
  type: "Convolution"
  bottom: "data"
  top: "conv1"
  param {
    lr_mult: 1
  }
  param {
    lr_mult: 2
  }
  convolution_param {
    num_output: 64
    pad: 2
    kernel_size: 5
    stride: 1
    weight_filler {
      type: "gaussian"
      std: 0.0001
    }
    bias_filler {
      type: "constant"
    }
  }
}
layer {
  name: "relu1"
  type: "ReLU"
  bottom: "conv1"
  top: "conv1"
}
layer {
  name: "conv2"
  type: "Convolution"
  bottom: "conv1"
  top: "conv2"
  param {
    lr_mult: 1
  }
  param {
    lr_mult: 2
  }
  convolution_param {
    num_output: 64
    pad: 2
    kernel_size: 5
    stride: 1
    weight_filler {
      type: "gaussian"
      std: 0.01
    }
    bias_filler {
      type: "constant"
    }
  }
}
layer {
  name: "relu2"
  type: "ReLU"
  bottom: "conv2"
  top: "conv2"
}
layer {
  name: "pool2"
  type: "Pooling"
  bottom: "conv2"
  top: "pool2"
  pooling_param {
    pool: MAX
    kernel_size: 3
    stride: 2
  }
}
layer {
  name: "conv3"
  type: "Convolution"
  bottom: "pool2"
  top: "conv3"
  param {
    lr_mult: 1
  }
  param {
    lr_mult: 2
  }
  convolution_param {
    num_output: 64
    pad: 2
    kernel_size: 5
    stride: 1
    weight_filler {
      type: "gaussian"
      std: 0.01
    }
    bias_filler {
      type: "constant"
    }
  }
}
layer {
  name: "relu3"
  type: "ReLU"
  bottom: "conv3"
  top: "conv3"
}
layer {
  name: "conv4"
  type: "Convolution"
  bottom: "conv3"
  top: "conv4"
  param {
    lr_mult: 1
  }
  param {
    lr_mult: 2
  }
  convolution_param {
    num_output: 64
    pad: 2
    kernel_size: 5
    stride: 1
    weight_filler {
      type: "gaussian"
      std: 0.01
    }
    bias_filler {
      type: "constant"
    }
  }
}
layer {
  name: "relu4"
  type: "ReLU"
  bottom: "conv4"
  top: "conv4"
}
layer {
  name: "conv5"
  type: "Convolution"
  bottom: "conv4"
  top: "conv5"
  param {
    lr_mult: 1
  }
  param {
    lr_mult: 2
  }
  convolution_param {
    num_output: 64
    pad: 2
    kernel_size: 5
    stride: 1
    weight_filler {
      type: "gaussian"
      std: 0.01
    }
    bias_filler {
      type: "constant"
    }
  }
}
layer {
  name: "relu5"
  type: "ReLU"
  bottom: "conv5"
  top: "conv5"
}
layer {
  name: "pool5"
  type: "Pooling"
  bottom: "conv5"
  top: "pool5"
  pooling_param {
    pool: AVE
    kernel_size: 3
    stride: 2
  }
}
layer {
  name: "ip1"
  type: "InnerProduct"
  bottom: "pool5"
  top: "ip1"
  param {
    lr_mult: 1
  }
  param {
    lr_mult: 2
  }
  inner_product_param {
    num_output: 64
    weight_filler {
      type: "gaussian"
      std: 0.1
    }
    bias_filler {
      type: "constant"
    }
  }
}
layer {
  name: "ip2"
  type: "InnerProduct"
  bottom: "ip1"
  top: "ip2"
  param {
    lr_mult: 1
  }
  param {
    lr_mult: 2
  }
  inner_product_param {
    num_output: 64
    weight_filler {
      type: "gaussian"
      std: 0.1
    }
    bias_filler {
      type: "constant"
    }
  }
}
layer {
  name: "ip3"
  type: "InnerProduct"
  bottom: "ip2"
  top: "ip3"
  param {
    lr_mult: 1
  }
  param {
    lr_mult: 2
  }
  inner_product_param {
    num_output: 50
    weight_filler {
      type: "gaussian"
      std: 0.1
    }
    bias_filler {
      type: "constant"
    }
  }
}
layer {
  name: "accuracy"
  type: "Accuracy"
  bottom: "ip3"
  bottom: "label"
  top: "accuracy"
  include {
    phase: TEST
  }
}
layer {
  name: "loss"
  type: "SoftmaxWithLoss"
  bottom: "ip3"
  bottom: "label"
  top: "loss"
}
I0502 11:14:36.721969 26790 layer_factory.hpp:77] Creating layer intercept
I0502 11:14:36.721977 26790 net.cpp:94] Creating Layer intercept
I0502 11:14:36.721982 26790 net.cpp:409] intercept -> data
I0502 11:14:36.721988 26790 net.cpp:409] intercept -> label
I0502 11:14:36.721994 26790 hdf5_data_layer.cpp:79] Loading list of HDF5 filenames from: /home/purduethu/scratch/radon/d/deng106/CNNStatisticalModel/distributions/input/20_distributions_400_sample_size_test-distributions-path.txt
I0502 11:14:36.722013 26790 hdf5_data_layer.cpp:93] Number of HDF5 files: 1
I0502 11:14:36.788715 26790 net.cpp:144] Setting up intercept
I0502 11:14:36.788748 26790 net.cpp:151] Top shape: 20 1 20 20 (8000)
I0502 11:14:36.788753 26790 net.cpp:151] Top shape: 20 (20)
I0502 11:14:36.788756 26790 net.cpp:159] Memory required for data: 32080
I0502 11:14:36.788763 26790 layer_factory.hpp:77] Creating layer label_intercept_1_split
I0502 11:14:36.788781 26790 net.cpp:94] Creating Layer label_intercept_1_split
I0502 11:14:36.788786 26790 net.cpp:435] label_intercept_1_split <- label
I0502 11:14:36.788792 26790 net.cpp:409] label_intercept_1_split -> label_intercept_1_split_0
I0502 11:14:36.788800 26790 net.cpp:409] label_intercept_1_split -> label_intercept_1_split_1
I0502 11:14:36.788843 26790 net.cpp:144] Setting up label_intercept_1_split
I0502 11:14:36.788851 26790 net.cpp:151] Top shape: 20 (20)
I0502 11:14:36.788854 26790 net.cpp:151] Top shape: 20 (20)
I0502 11:14:36.788857 26790 net.cpp:159] Memory required for data: 32240
I0502 11:14:36.788861 26790 layer_factory.hpp:77] Creating layer conv1
I0502 11:14:36.788872 26790 net.cpp:94] Creating Layer conv1
I0502 11:14:36.788874 26790 net.cpp:435] conv1 <- data
I0502 11:14:36.788879 26790 net.cpp:409] conv1 -> conv1
I0502 11:14:36.790218 26790 net.cpp:144] Setting up conv1
I0502 11:14:36.790244 26790 net.cpp:151] Top shape: 20 64 20 20 (512000)
I0502 11:14:36.790249 26790 net.cpp:159] Memory required for data: 2080240
I0502 11:14:36.790258 26790 layer_factory.hpp:77] Creating layer relu1
I0502 11:14:36.790266 26790 net.cpp:94] Creating Layer relu1
I0502 11:14:36.790268 26790 net.cpp:435] relu1 <- conv1
I0502 11:14:36.790272 26790 net.cpp:396] relu1 -> conv1 (in-place)
I0502 11:14:36.790280 26790 net.cpp:144] Setting up relu1
I0502 11:14:36.790284 26790 net.cpp:151] Top shape: 20 64 20 20 (512000)
I0502 11:14:36.790287 26790 net.cpp:159] Memory required for data: 4128240
I0502 11:14:36.790290 26790 layer_factory.hpp:77] Creating layer conv2
I0502 11:14:36.790298 26790 net.cpp:94] Creating Layer conv2
I0502 11:14:36.790302 26790 net.cpp:435] conv2 <- conv1
I0502 11:14:36.790305 26790 net.cpp:409] conv2 -> conv2
I0502 11:14:36.795439 26790 net.cpp:144] Setting up conv2
I0502 11:14:36.795452 26790 net.cpp:151] Top shape: 20 64 20 20 (512000)
I0502 11:14:36.795456 26790 net.cpp:159] Memory required for data: 6176240
I0502 11:14:36.795465 26790 layer_factory.hpp:77] Creating layer relu2
I0502 11:14:36.795471 26790 net.cpp:94] Creating Layer relu2
I0502 11:14:36.795475 26790 net.cpp:435] relu2 <- conv2
I0502 11:14:36.795480 26790 net.cpp:396] relu2 -> conv2 (in-place)
I0502 11:14:36.795486 26790 net.cpp:144] Setting up relu2
I0502 11:14:36.795490 26790 net.cpp:151] Top shape: 20 64 20 20 (512000)
I0502 11:14:36.795493 26790 net.cpp:159] Memory required for data: 8224240
I0502 11:14:36.795496 26790 layer_factory.hpp:77] Creating layer pool2
I0502 11:14:36.795502 26790 net.cpp:94] Creating Layer pool2
I0502 11:14:36.795506 26790 net.cpp:435] pool2 <- conv2
I0502 11:14:36.795509 26790 net.cpp:409] pool2 -> pool2
I0502 11:14:36.795559 26790 net.cpp:144] Setting up pool2
I0502 11:14:36.795567 26790 net.cpp:151] Top shape: 20 64 10 10 (128000)
I0502 11:14:36.795569 26790 net.cpp:159] Memory required for data: 8736240
I0502 11:14:36.795573 26790 layer_factory.hpp:77] Creating layer conv3
I0502 11:14:36.795581 26790 net.cpp:94] Creating Layer conv3
I0502 11:14:36.795584 26790 net.cpp:435] conv3 <- pool2
I0502 11:14:36.795589 26790 net.cpp:409] conv3 -> conv3
I0502 11:14:36.801923 26790 net.cpp:144] Setting up conv3
I0502 11:14:36.801939 26790 net.cpp:151] Top shape: 20 64 10 10 (128000)
I0502 11:14:36.801942 26790 net.cpp:159] Memory required for data: 9248240
I0502 11:14:36.801951 26790 layer_factory.hpp:77] Creating layer relu3
I0502 11:14:36.801959 26790 net.cpp:94] Creating Layer relu3
I0502 11:14:36.801962 26790 net.cpp:435] relu3 <- conv3
I0502 11:14:36.801966 26790 net.cpp:396] relu3 -> conv3 (in-place)
I0502 11:14:36.801975 26790 net.cpp:144] Setting up relu3
I0502 11:14:36.801978 26790 net.cpp:151] Top shape: 20 64 10 10 (128000)
I0502 11:14:36.801981 26790 net.cpp:159] Memory required for data: 9760240
I0502 11:14:36.801985 26790 layer_factory.hpp:77] Creating layer conv4
I0502 11:14:36.801992 26790 net.cpp:94] Creating Layer conv4
I0502 11:14:36.801995 26790 net.cpp:435] conv4 <- conv3
I0502 11:14:36.802000 26790 net.cpp:409] conv4 -> conv4
I0502 11:14:36.805646 26790 net.cpp:144] Setting up conv4
I0502 11:14:36.805660 26790 net.cpp:151] Top shape: 20 64 10 10 (128000)
I0502 11:14:36.805663 26790 net.cpp:159] Memory required for data: 10272240
I0502 11:14:36.805670 26790 layer_factory.hpp:77] Creating layer relu4
I0502 11:14:36.805676 26790 net.cpp:94] Creating Layer relu4
I0502 11:14:36.805680 26790 net.cpp:435] relu4 <- conv4
I0502 11:14:36.805685 26790 net.cpp:396] relu4 -> conv4 (in-place)
I0502 11:14:36.805691 26790 net.cpp:144] Setting up relu4
I0502 11:14:36.805696 26790 net.cpp:151] Top shape: 20 64 10 10 (128000)
I0502 11:14:36.805698 26790 net.cpp:159] Memory required for data: 10784240
I0502 11:14:36.805701 26790 layer_factory.hpp:77] Creating layer conv5
I0502 11:14:36.805709 26790 net.cpp:94] Creating Layer conv5
I0502 11:14:36.805712 26790 net.cpp:435] conv5 <- conv4
I0502 11:14:36.805717 26790 net.cpp:409] conv5 -> conv5
I0502 11:14:36.809815 26790 net.cpp:144] Setting up conv5
I0502 11:14:36.809834 26790 net.cpp:151] Top shape: 20 64 10 10 (128000)
I0502 11:14:36.809839 26790 net.cpp:159] Memory required for data: 11296240
I0502 11:14:36.809847 26790 layer_factory.hpp:77] Creating layer relu5
I0502 11:14:36.809854 26790 net.cpp:94] Creating Layer relu5
I0502 11:14:36.809857 26790 net.cpp:435] relu5 <- conv5
I0502 11:14:36.809861 26790 net.cpp:396] relu5 -> conv5 (in-place)
I0502 11:14:36.809867 26790 net.cpp:144] Setting up relu5
I0502 11:14:36.809872 26790 net.cpp:151] Top shape: 20 64 10 10 (128000)
I0502 11:14:36.809875 26790 net.cpp:159] Memory required for data: 11808240
I0502 11:14:36.809878 26790 layer_factory.hpp:77] Creating layer pool5
I0502 11:14:36.809883 26790 net.cpp:94] Creating Layer pool5
I0502 11:14:36.809886 26790 net.cpp:435] pool5 <- conv5
I0502 11:14:36.809890 26790 net.cpp:409] pool5 -> pool5
I0502 11:14:36.809926 26790 net.cpp:144] Setting up pool5
I0502 11:14:36.809932 26790 net.cpp:151] Top shape: 20 64 5 5 (32000)
I0502 11:14:36.809936 26790 net.cpp:159] Memory required for data: 11936240
I0502 11:14:36.809938 26790 layer_factory.hpp:77] Creating layer ip1
I0502 11:14:36.809945 26790 net.cpp:94] Creating Layer ip1
I0502 11:14:36.809948 26790 net.cpp:435] ip1 <- pool5
I0502 11:14:36.809953 26790 net.cpp:409] ip1 -> ip1
I0502 11:14:36.812579 26790 net.cpp:144] Setting up ip1
I0502 11:14:36.812588 26790 net.cpp:151] Top shape: 20 64 (1280)
I0502 11:14:36.812592 26790 net.cpp:159] Memory required for data: 11941360
I0502 11:14:36.812597 26790 layer_factory.hpp:77] Creating layer ip2
I0502 11:14:36.812604 26790 net.cpp:94] Creating Layer ip2
I0502 11:14:36.812608 26790 net.cpp:435] ip2 <- ip1
I0502 11:14:36.812613 26790 net.cpp:409] ip2 -> ip2
I0502 11:14:36.812847 26790 net.cpp:144] Setting up ip2
I0502 11:14:36.812855 26790 net.cpp:151] Top shape: 20 64 (1280)
I0502 11:14:36.812857 26790 net.cpp:159] Memory required for data: 11946480
I0502 11:14:36.812863 26790 layer_factory.hpp:77] Creating layer ip3
I0502 11:14:36.812871 26790 net.cpp:94] Creating Layer ip3
I0502 11:14:36.812875 26790 net.cpp:435] ip3 <- ip2
I0502 11:14:36.812880 26790 net.cpp:409] ip3 -> ip3
I0502 11:14:36.813084 26790 net.cpp:144] Setting up ip3
I0502 11:14:36.813091 26790 net.cpp:151] Top shape: 20 50 (1000)
I0502 11:14:36.813094 26790 net.cpp:159] Memory required for data: 11950480
I0502 11:14:36.813099 26790 layer_factory.hpp:77] Creating layer ip3_ip3_0_split
I0502 11:14:36.813104 26790 net.cpp:94] Creating Layer ip3_ip3_0_split
I0502 11:14:36.813107 26790 net.cpp:435] ip3_ip3_0_split <- ip3
I0502 11:14:36.813113 26790 net.cpp:409] ip3_ip3_0_split -> ip3_ip3_0_split_0
I0502 11:14:36.813118 26790 net.cpp:409] ip3_ip3_0_split -> ip3_ip3_0_split_1
I0502 11:14:36.813158 26790 net.cpp:144] Setting up ip3_ip3_0_split
I0502 11:14:36.813164 26790 net.cpp:151] Top shape: 20 50 (1000)
I0502 11:14:36.813169 26790 net.cpp:151] Top shape: 20 50 (1000)
I0502 11:14:36.813171 26790 net.cpp:159] Memory required for data: 11958480
I0502 11:14:36.813174 26790 layer_factory.hpp:77] Creating layer accuracy
I0502 11:14:36.813180 26790 net.cpp:94] Creating Layer accuracy
I0502 11:14:36.813184 26790 net.cpp:435] accuracy <- ip3_ip3_0_split_0
I0502 11:14:36.813187 26790 net.cpp:435] accuracy <- label_intercept_1_split_0
I0502 11:14:36.813192 26790 net.cpp:409] accuracy -> accuracy
…
