…
I0507 21:47:30.467968  7801 net.cpp:323] The NetState phase (0) differed from the phase (1) specified by a rule in layer intercept
I0507 21:47:30.467985  7801 net.cpp:323] The NetState phase (0) differed from the phase (1) specified by a rule in layer loss
I0507 21:47:30.468065  7801 net.cpp:52] Initializing net from parameters: 
state {
  phase: TRAIN
}
layer {
  name: "parameters"
  type: "HDF5Data"
  top: "data"
  top: "label"
  include {
    phase: TRAIN
  }
  hdf5_data_param {
    source: "/home/purduethu/scratch/radon/d/deng106/CNNStatisticalModel/distributions/input/20_distributions_100_sample_size_train-parameters-path.txt"
    batch_size: 20
  }
}
layer {
  name: "conv1"
  type: "Convolution"
  bottom: "data"
  top: "conv1"
  param {
    lr_mult: 1
  }
  param {
    lr_mult: 2
  }
  convolution_param {
    num_output: 64
    pad: 2
    kernel_size: 5
    stride: 1
    weight_filler {
      type: "gaussian"
      std: 0.0001
    }
    bias_filler {
      type: "constant"
    }
  }
}
layer {
  name: "relu1"
  type: "ReLU"
  bottom: "conv1"
  top: "conv1"
}
layer {
  name: "conv2"
  type: "Convolution"
  bottom: "conv1"
  top: "conv2"
  param {
    lr_mult: 1
  }
  param {
    lr_mult: 2
  }
  convolution_param {
    num_output: 64
    pad: 2
    kernel_size: 5
    stride: 1
    weight_filler {
      type: "gaussian"
      std: 0.01
    }
    bias_filler {
      type: "constant"
    }
  }
}
layer {
  name: "relu2"
  type: "ReLU"
  bottom: "conv2"
  top: "conv2"
}
layer {
  name: "pool2"
  type: "Pooling"
  bottom: "conv2"
  top: "pool2"
  pooling_param {
    pool: MAX
    kernel_size: 3
    stride: 2
  }
}
layer {
  name: "conv3"
  type: "Convolution"
  bottom: "pool2"
  top: "conv3"
  param {
    lr_mult: 1
  }
  param {
    lr_mult: 2
  }
  convolution_param {
    num_output: 64
    pad: 2
    kernel_size: 5
    stride: 1
    weight_filler {
      type: "gaussian"
      std: 0.01
    }
    bias_filler {
      type: "constant"
    }
  }
}
layer {
  name: "relu3"
  type: "ReLU"
  bottom: "conv3"
  top: "conv3"
}
layer {
  name: "conv4"
  type: "Convolution"
  bottom: "conv3"
  top: "conv4"
  param {
    lr_mult: 1
  }
  param {
    lr_mult: 2
  }
  convolution_param {
    num_output: 64
    pad: 2
    kernel_size: 5
    stride: 1
    weight_filler {
      type: "gaussian"
      std: 0.01
    }
    bias_filler {
      type: "constant"
    }
  }
}
layer {
  name: "relu4"
  type: "ReLU"
  bottom: "conv4"
  top: "conv4"
}
layer {
  name: "conv5"
  type: "Convolution"
  bottom: "conv4"
  top: "conv5"
  param {
    lr_mult: 1
  }
  param {
    lr_mult: 2
  }
  convolution_param {
    num_output: 64
    pad: 2
    kernel_size: 5
    stride: 1
    weight_filler {
      type: "gaussian"
      std: 0.01
    }
    bias_filler {
      type: "constant"
    }
  }
}
layer {
  name: "relu5"
  type: "ReLU"
  bottom: "conv5"
  top: "conv5"
}
layer {
  name: "pool5"
  type: "Pooling"
  bottom: "conv5"
  top: "pool5"
  pooling_param {
    pool: AVE
    kernel_size: 3
    stride: 2
  }
}
layer {
  name: "ip1"
  type: "InnerProduct"
  bottom: "pool5"
  top: "ip1"
  param {
    lr_mult: 1
  }
  param {
    lr_mult: 2
  }
  inner_product_param {
    num_output: 64
    weight_filler {
      type: "gaussian"
      std: 0.1
    }
    bias_filler {
      type: "constant"
    }
  }
}
layer {
  name: "ip2"
  type: "InnerProduct"
  bottom: "ip1"
  top: "ip2"
  param {
    lr_mult: 1
  }
  param {
    lr_mult: 2
  }
  inner_product_param {
    num_output: 64
    weight_filler {
      type: "gaussian"
      std: 0.1
    }
    bias_filler {
      type: "constant"
    }
  }
}
layer {
  name: "ip3"
  type: "InnerProduct"
  bottom: "ip2"
  top: "ip3"
  param {
    lr_mult: 1
  }
  param {
    lr_mult: 2
  }
  inner_product_param {
    num_output: 1
    weight_filler {
      type: "gaussian"
      std: 0.1
    }
    bias_filler {
      type: "constant"
    }
  }
}
layer {
  name: "loss"
  type: "HuberLoss"
  bottom: "ip3"
  bottom: "label"
  top: "loss"
  include {
    phase: TRAIN
  }
}
I0507 21:47:30.468118  7801 layer_factory.hpp:77] Creating layer parameters
I0507 21:47:30.468132  7801 net.cpp:94] Creating Layer parameters
I0507 21:47:30.468135  7801 net.cpp:409] parameters -> data
I0507 21:47:30.468144  7801 net.cpp:409] parameters -> label
I0507 21:47:30.468154  7801 hdf5_data_layer.cpp:79] Loading list of HDF5 filenames from: /home/purduethu/scratch/radon/d/deng106/CNNStatisticalModel/distributions/input/20_distributions_100_sample_size_train-parameters-path.txt
I0507 21:47:30.468169  7801 hdf5_data_layer.cpp:93] Number of HDF5 files: 1
I0507 21:47:30.468601  7801 hdf5.cpp:32] Datatype class: H5T_FLOAT
I0507 21:47:30.535372  7801 net.cpp:144] Setting up parameters
I0507 21:47:30.535403  7801 net.cpp:151] Top shape: 20 1 10 10 (2000)
I0507 21:47:30.535408  7801 net.cpp:151] Top shape: 20 (20)
I0507 21:47:30.535411  7801 net.cpp:159] Memory required for data: 8080
I0507 21:47:30.535418  7801 layer_factory.hpp:77] Creating layer conv1
I0507 21:47:30.535434  7801 net.cpp:94] Creating Layer conv1
I0507 21:47:30.535439  7801 net.cpp:435] conv1 <- data
I0507 21:47:30.535444  7801 net.cpp:409] conv1 -> conv1
I0507 21:47:30.539610  7801 net.cpp:144] Setting up conv1
I0507 21:47:30.539624  7801 net.cpp:151] Top shape: 20 64 10 10 (128000)
I0507 21:47:30.539628  7801 net.cpp:159] Memory required for data: 520080
I0507 21:47:30.539638  7801 layer_factory.hpp:77] Creating layer relu1
I0507 21:47:30.539646  7801 net.cpp:94] Creating Layer relu1
I0507 21:47:30.539650  7801 net.cpp:435] relu1 <- conv1
I0507 21:47:30.539654  7801 net.cpp:396] relu1 -> conv1 (in-place)
I0507 21:47:30.539665  7801 net.cpp:144] Setting up relu1
I0507 21:47:30.539670  7801 net.cpp:151] Top shape: 20 64 10 10 (128000)
I0507 21:47:30.539674  7801 net.cpp:159] Memory required for data: 1032080
I0507 21:47:30.539676  7801 layer_factory.hpp:77] Creating layer conv2
I0507 21:47:30.539685  7801 net.cpp:94] Creating Layer conv2
I0507 21:47:30.539688  7801 net.cpp:435] conv2 <- conv1
I0507 21:47:30.539693  7801 net.cpp:409] conv2 -> conv2
I0507 21:47:30.544909  7801 net.cpp:144] Setting up conv2
I0507 21:47:30.544922  7801 net.cpp:151] Top shape: 20 64 10 10 (128000)
I0507 21:47:30.544926  7801 net.cpp:159] Memory required for data: 1544080
I0507 21:47:30.544934  7801 layer_factory.hpp:77] Creating layer relu2
I0507 21:47:30.544940  7801 net.cpp:94] Creating Layer relu2
I0507 21:47:30.544945  7801 net.cpp:435] relu2 <- conv2
I0507 21:47:30.544948  7801 net.cpp:396] relu2 -> conv2 (in-place)
I0507 21:47:30.544955  7801 net.cpp:144] Setting up relu2
I0507 21:47:30.544960  7801 net.cpp:151] Top shape: 20 64 10 10 (128000)
I0507 21:47:30.544962  7801 net.cpp:159] Memory required for data: 2056080
I0507 21:47:30.544965  7801 layer_factory.hpp:77] Creating layer pool2
I0507 21:47:30.544978  7801 net.cpp:94] Creating Layer pool2
I0507 21:47:30.544982  7801 net.cpp:435] pool2 <- conv2
I0507 21:47:30.544986  7801 net.cpp:409] pool2 -> pool2
I0507 21:47:30.545042  7801 net.cpp:144] Setting up pool2
I0507 21:47:30.545049  7801 net.cpp:151] Top shape: 20 64 5 5 (32000)
I0507 21:47:30.545053  7801 net.cpp:159] Memory required for data: 2184080
I0507 21:47:30.545056  7801 layer_factory.hpp:77] Creating layer conv3
I0507 21:47:30.545064  7801 net.cpp:94] Creating Layer conv3
I0507 21:47:30.545068  7801 net.cpp:435] conv3 <- pool2
I0507 21:47:30.545073  7801 net.cpp:409] conv3 -> conv3
I0507 21:47:30.549901  7801 net.cpp:144] Setting up conv3
I0507 21:47:30.549916  7801 net.cpp:151] Top shape: 20 64 5 5 (32000)
I0507 21:47:30.549919  7801 net.cpp:159] Memory required for data: 2312080
I0507 21:47:30.549927  7801 layer_factory.hpp:77] Creating layer relu3
I0507 21:47:30.549933  7801 net.cpp:94] Creating Layer relu3
I0507 21:47:30.549937  7801 net.cpp:435] relu3 <- conv3
I0507 21:47:30.549942  7801 net.cpp:396] relu3 -> conv3 (in-place)
I0507 21:47:30.549948  7801 net.cpp:144] Setting up relu3
I0507 21:47:30.549952  7801 net.cpp:151] Top shape: 20 64 5 5 (32000)
I0507 21:47:30.549955  7801 net.cpp:159] Memory required for data: 2440080
I0507 21:47:30.549958  7801 layer_factory.hpp:77] Creating layer conv4
I0507 21:47:30.549967  7801 net.cpp:94] Creating Layer conv4
I0507 21:47:30.549970  7801 net.cpp:435] conv4 <- conv3
I0507 21:47:30.549975  7801 net.cpp:409] conv4 -> conv4
I0507 21:47:30.554337  7801 net.cpp:144] Setting up conv4
I0507 21:47:30.554350  7801 net.cpp:151] Top shape: 20 64 5 5 (32000)
I0507 21:47:30.554354  7801 net.cpp:159] Memory required for data: 2568080
I0507 21:47:30.554360  7801 layer_factory.hpp:77] Creating layer relu4
I0507 21:47:30.554365  7801 net.cpp:94] Creating Layer relu4
I0507 21:47:30.554369  7801 net.cpp:435] relu4 <- conv4
I0507 21:47:30.554374  7801 net.cpp:396] relu4 -> conv4 (in-place)
I0507 21:47:30.554380  7801 net.cpp:144] Setting up relu4
I0507 21:47:30.554385  7801 net.cpp:151] Top shape: 20 64 5 5 (32000)
I0507 21:47:30.554388  7801 net.cpp:159] Memory required for data: 2696080
I0507 21:47:30.554391  7801 layer_factory.hpp:77] Creating layer conv5
I0507 21:47:30.554399  7801 net.cpp:94] Creating Layer conv5
I0507 21:47:30.554402  7801 net.cpp:435] conv5 <- conv4
I0507 21:47:30.554406  7801 net.cpp:409] conv5 -> conv5
I0507 21:47:30.560039  7801 net.cpp:144] Setting up conv5
I0507 21:47:30.560052  7801 net.cpp:151] Top shape: 20 64 5 5 (32000)
I0507 21:47:30.560056  7801 net.cpp:159] Memory required for data: 2824080
I0507 21:47:30.560065  7801 layer_factory.hpp:77] Creating layer relu5
I0507 21:47:30.560071  7801 net.cpp:94] Creating Layer relu5
I0507 21:47:30.560075  7801 net.cpp:435] relu5 <- conv5
I0507 21:47:30.560080  7801 net.cpp:396] relu5 -> conv5 (in-place)
I0507 21:47:30.560086  7801 net.cpp:144] Setting up relu5
I0507 21:47:30.560091  7801 net.cpp:151] Top shape: 20 64 5 5 (32000)
I0507 21:47:30.560093  7801 net.cpp:159] Memory required for data: 2952080
I0507 21:47:30.560096  7801 layer_factory.hpp:77] Creating layer pool5
I0507 21:47:30.560101  7801 net.cpp:94] Creating Layer pool5
I0507 21:47:30.560104  7801 net.cpp:435] pool5 <- conv5
I0507 21:47:30.560108  7801 net.cpp:409] pool5 -> pool5
I0507 21:47:30.560148  7801 net.cpp:144] Setting up pool5
I0507 21:47:30.560155  7801 net.cpp:151] Top shape: 20 64 2 2 (5120)
I0507 21:47:30.560158  7801 net.cpp:159] Memory required for data: 2972560
I0507 21:47:30.560161  7801 layer_factory.hpp:77] Creating layer ip1
I0507 21:47:30.560168  7801 net.cpp:94] Creating Layer ip1
I0507 21:47:30.560171  7801 net.cpp:435] ip1 <- pool5
I0507 21:47:30.560176  7801 net.cpp:409] ip1 -> ip1
I0507 21:47:30.561501  7801 net.cpp:144] Setting up ip1
I0507 21:47:30.561514  7801 net.cpp:151] Top shape: 20 64 (1280)
I0507 21:47:30.561518  7801 net.cpp:159] Memory required for data: 2977680
I0507 21:47:30.561524  7801 layer_factory.hpp:77] Creating layer ip2
I0507 21:47:30.561532  7801 net.cpp:94] Creating Layer ip2
I0507 21:47:30.561539  7801 net.cpp:435] ip2 <- ip1
I0507 21:47:30.561545  7801 net.cpp:409] ip2 -> ip2
I0507 21:47:30.561759  7801 net.cpp:144] Setting up ip2
I0507 21:47:30.561766  7801 net.cpp:151] Top shape: 20 64 (1280)
I0507 21:47:30.561769  7801 net.cpp:159] Memory required for data: 2982800
I0507 21:47:30.561775  7801 layer_factory.hpp:77] Creating layer ip3
I0507 21:47:30.561781  7801 net.cpp:94] Creating Layer ip3
I0507 21:47:30.561784  7801 net.cpp:435] ip3 <- ip2
I0507 21:47:30.561789  7801 net.cpp:409] ip3 -> ip3
I0507 21:47:30.561895  7801 net.cpp:144] Setting up ip3
I0507 21:47:30.561902  7801 net.cpp:151] Top shape: 20 1 (20)
I0507 21:47:30.561905  7801 net.cpp:159] Memory required for data: 2982880
I0507 21:47:30.561910  7801 layer_factory.hpp:77] Creating layer loss
I0507 21:47:30.561920  7801 net.cpp:94] Creating Layer loss
I0507 21:47:30.561924  7801 net.cpp:435] loss <- ip3
I0507 21:47:30.561928  7801 net.cpp:435] loss <- label
I0507 21:47:30.561933  7801 net.cpp:409] loss -> loss
I0507 21:47:30.561985  7801 net.cpp:144] Setting up loss
…
I0507 21:47:30.598770  7801 net.cpp:323] The NetState phase (0) differed from the phase (1) specified by a rule in layer intercept
I0507 21:47:30.598786  7801 net.cpp:323] The NetState phase (0) differed from the phase (1) specified by a rule in layer accuracy
I0507 21:47:30.598872  7801 net.cpp:52] Initializing net from parameters: 
state {
  phase: TRAIN
}
layer {
  name: "parameters"
  type: "HDF5Data"
  top: "data"
  top: "label"
  include {
    phase: TRAIN
  }
  hdf5_data_param {
    source: "/home/purduethu/scratch/radon/d/deng106/CNNStatisticalModel/distributions/input/20_distributions_100_sample_size_train-distributions-path.txt"
    batch_size: 20
  }
}
layer {
  name: "conv1"
  type: "Convolution"
  bottom: "data"
  top: "conv1"
  param {
    lr_mult: 1
  }
  param {
    lr_mult: 2
  }
  convolution_param {
    num_output: 64
    pad: 2
    kernel_size: 5
    stride: 1
    weight_filler {
      type: "gaussian"
      std: 0.0001
    }
    bias_filler {
      type: "constant"
    }
  }
}
layer {
  name: "relu1"
  type: "ReLU"
  bottom: "conv1"
  top: "conv1"
}
layer {
  name: "conv2"
  type: "Convolution"
  bottom: "conv1"
  top: "conv2"
  param {
    lr_mult: 1
  }
  param {
    lr_mult: 2
  }
  convolution_param {
    num_output: 64
    pad: 2
    kernel_size: 5
    stride: 1
    weight_filler {
      type: "gaussian"
      std: 0.01
    }
    bias_filler {
      type: "constant"
    }
  }
}
layer {
  name: "relu2"
  type: "ReLU"
  bottom: "conv2"
  top: "conv2"
}
layer {
  name: "pool2"
  type: "Pooling"
  bottom: "conv2"
  top: "pool2"
  pooling_param {
    pool: MAX
    kernel_size: 3
    stride: 2
  }
}
layer {
  name: "conv3"
  type: "Convolution"
  bottom: "pool2"
  top: "conv3"
  param {
    lr_mult: 1
  }
  param {
    lr_mult: 2
  }
  convolution_param {
    num_output: 64
    pad: 2
    kernel_size: 5
    stride: 1
    weight_filler {
      type: "gaussian"
      std: 0.01
    }
    bias_filler {
      type: "constant"
    }
  }
}
layer {
  name: "relu3"
  type: "ReLU"
  bottom: "conv3"
  top: "conv3"
}
layer {
  name: "conv4"
  type: "Convolution"
  bottom: "conv3"
  top: "conv4"
  param {
    lr_mult: 1
  }
  param {
    lr_mult: 2
  }
  convolution_param {
    num_output: 64
    pad: 2
    kernel_size: 5
    stride: 1
    weight_filler {
      type: "gaussian"
      std: 0.01
    }
    bias_filler {
      type: "constant"
    }
  }
}
layer {
  name: "relu4"
  type: "ReLU"
  bottom: "conv4"
  top: "conv4"
}
layer {
  name: "conv5"
  type: "Convolution"
  bottom: "conv4"
  top: "conv5"
  param {
    lr_mult: 1
  }
  param {
    lr_mult: 2
  }
  convolution_param {
    num_output: 64
    pad: 2
    kernel_size: 5
    stride: 1
    weight_filler {
      type: "gaussian"
      std: 0.01
    }
    bias_filler {
      type: "constant"
    }
  }
}
layer {
  name: "relu5"
  type: "ReLU"
  bottom: "conv5"
  top: "conv5"
}
layer {
  name: "pool5"
  type: "Pooling"
  bottom: "conv5"
  top: "pool5"
  pooling_param {
    pool: AVE
    kernel_size: 3
    stride: 2
  }
}
layer {
  name: "ip1"
  type: "InnerProduct"
  bottom: "pool5"
  top: "ip1"
  param {
    lr_mult: 1
  }
  param {
    lr_mult: 2
  }
  inner_product_param {
    num_output: 64
    weight_filler {
      type: "gaussian"
      std: 0.1
    }
    bias_filler {
      type: "constant"
    }
  }
}
layer {
  name: "ip2"
  type: "InnerProduct"
  bottom: "ip1"
  top: "ip2"
  param {
    lr_mult: 1
  }
  param {
    lr_mult: 2
  }
  inner_product_param {
    num_output: 64
    weight_filler {
      type: "gaussian"
      std: 0.1
    }
    bias_filler {
      type: "constant"
    }
  }
}
layer {
  name: "ip3"
  type: "InnerProduct"
  bottom: "ip2"
  top: "ip3"
  param {
    lr_mult: 1
  }
  param {
    lr_mult: 2
  }
  inner_product_param {
    num_output: 50
    weight_filler {
      type: "gaussian"
      std: 0.1
    }
    bias_filler {
      type: "constant"
    }
  }
}
layer {
  name: "loss"
  type: "SoftmaxWithLoss"
  bottom: "ip3"
  bottom: "label"
  top: "loss"
}
I0507 21:47:30.598922  7801 layer_factory.hpp:77] Creating layer parameters
I0507 21:47:30.598930  7801 net.cpp:94] Creating Layer parameters
I0507 21:47:30.598934  7801 net.cpp:409] parameters -> data
I0507 21:47:30.598942  7801 net.cpp:409] parameters -> label
I0507 21:47:30.598948  7801 hdf5_data_layer.cpp:79] Loading list of HDF5 filenames from: /home/purduethu/scratch/radon/d/deng106/CNNStatisticalModel/distributions/input/20_distributions_100_sample_size_train-distributions-path.txt
I0507 21:47:30.598963  7801 hdf5_data_layer.cpp:93] Number of HDF5 files: 1
I0507 21:47:30.663468  7801 hdf5.cpp:35] Datatype class: H5T_INTEGER
I0507 21:47:30.665725  7801 net.cpp:144] Setting up parameters
I0507 21:47:30.665746  7801 net.cpp:151] Top shape: 20 1 10 10 (2000)
I0507 21:47:30.665751  7801 net.cpp:151] Top shape: 20 (20)
I0507 21:47:30.665755  7801 net.cpp:159] Memory required for data: 8080
I0507 21:47:30.665760  7801 layer_factory.hpp:77] Creating layer conv1
I0507 21:47:30.665777  7801 net.cpp:94] Creating Layer conv1
I0507 21:47:30.665782  7801 net.cpp:435] conv1 <- data
I0507 21:47:30.665788  7801 net.cpp:409] conv1 -> conv1
I0507 21:47:30.667551  7801 net.cpp:144] Setting up conv1
I0507 21:47:30.667564  7801 net.cpp:151] Top shape: 20 64 10 10 (128000)
I0507 21:47:30.667568  7801 net.cpp:159] Memory required for data: 520080
I0507 21:47:30.667577  7801 layer_factory.hpp:77] Creating layer relu1
I0507 21:47:30.667585  7801 net.cpp:94] Creating Layer relu1
I0507 21:47:30.667588  7801 net.cpp:435] relu1 <- conv1
I0507 21:47:30.667593  7801 net.cpp:396] relu1 -> conv1 (in-place)
I0507 21:47:30.667600  7801 net.cpp:144] Setting up relu1
I0507 21:47:30.667605  7801 net.cpp:151] Top shape: 20 64 10 10 (128000)
I0507 21:47:30.667608  7801 net.cpp:159] Memory required for data: 1032080
I0507 21:47:30.667611  7801 layer_factory.hpp:77] Creating layer conv2
I0507 21:47:30.667618  7801 net.cpp:94] Creating Layer conv2
I0507 21:47:30.667621  7801 net.cpp:435] conv2 <- conv1
I0507 21:47:30.667626  7801 net.cpp:409] conv2 -> conv2
I0507 21:47:30.672897  7801 net.cpp:144] Setting up conv2
I0507 21:47:30.672911  7801 net.cpp:151] Top shape: 20 64 10 10 (128000)
I0507 21:47:30.672915  7801 net.cpp:159] Memory required for data: 1544080
I0507 21:47:30.672924  7801 layer_factory.hpp:77] Creating layer relu2
I0507 21:47:30.672930  7801 net.cpp:94] Creating Layer relu2
I0507 21:47:30.672933  7801 net.cpp:435] relu2 <- conv2
I0507 21:47:30.672938  7801 net.cpp:396] relu2 -> conv2 (in-place)
I0507 21:47:30.672945  7801 net.cpp:144] Setting up relu2
I0507 21:47:30.672950  7801 net.cpp:151] Top shape: 20 64 10 10 (128000)
I0507 21:47:30.672952  7801 net.cpp:159] Memory required for data: 2056080
I0507 21:47:30.672955  7801 layer_factory.hpp:77] Creating layer pool2
I0507 21:47:30.672961  7801 net.cpp:94] Creating Layer pool2
I0507 21:47:30.672965  7801 net.cpp:435] pool2 <- conv2
I0507 21:47:30.672968  7801 net.cpp:409] pool2 -> pool2
I0507 21:47:30.673022  7801 net.cpp:144] Setting up pool2
I0507 21:47:30.673029  7801 net.cpp:151] Top shape: 20 64 5 5 (32000)
I0507 21:47:30.673032  7801 net.cpp:159] Memory required for data: 2184080
I0507 21:47:30.673036  7801 layer_factory.hpp:77] Creating layer conv3
I0507 21:47:30.673043  7801 net.cpp:94] Creating Layer conv3
I0507 21:47:30.673048  7801 net.cpp:435] conv3 <- pool2
I0507 21:47:30.673051  7801 net.cpp:409] conv3 -> conv3
I0507 21:47:30.677923  7801 net.cpp:144] Setting up conv3
I0507 21:47:30.677937  7801 net.cpp:151] Top shape: 20 64 5 5 (32000)
I0507 21:47:30.677942  7801 net.cpp:159] Memory required for data: 2312080
I0507 21:47:30.677949  7801 layer_factory.hpp:77] Creating layer relu3
I0507 21:47:30.677955  7801 net.cpp:94] Creating Layer relu3
I0507 21:47:30.677959  7801 net.cpp:435] relu3 <- conv3
I0507 21:47:30.677964  7801 net.cpp:396] relu3 -> conv3 (in-place)
I0507 21:47:30.677970  7801 net.cpp:144] Setting up relu3
I0507 21:47:30.677975  7801 net.cpp:151] Top shape: 20 64 5 5 (32000)
I0507 21:47:30.677978  7801 net.cpp:159] Memory required for data: 2440080
I0507 21:47:30.677981  7801 layer_factory.hpp:77] Creating layer conv4
I0507 21:47:30.677989  7801 net.cpp:94] Creating Layer conv4
I0507 21:47:30.677994  7801 net.cpp:435] conv4 <- conv3
I0507 21:47:30.677999  7801 net.cpp:409] conv4 -> conv4
I0507 21:47:30.682834  7801 net.cpp:144] Setting up conv4
I0507 21:47:30.682848  7801 net.cpp:151] Top shape: 20 64 5 5 (32000)
I0507 21:47:30.682852  7801 net.cpp:159] Memory required for data: 2568080
I0507 21:47:30.682859  7801 layer_factory.hpp:77] Creating layer relu4
I0507 21:47:30.682865  7801 net.cpp:94] Creating Layer relu4
I0507 21:47:30.682868  7801 net.cpp:435] relu4 <- conv4
I0507 21:47:30.682873  7801 net.cpp:396] relu4 -> conv4 (in-place)
I0507 21:47:30.682880  7801 net.cpp:144] Setting up relu4
I0507 21:47:30.682884  7801 net.cpp:151] Top shape: 20 64 5 5 (32000)
I0507 21:47:30.682888  7801 net.cpp:159] Memory required for data: 2696080
I0507 21:47:30.682890  7801 layer_factory.hpp:77] Creating layer conv5
I0507 21:47:30.682898  7801 net.cpp:94] Creating Layer conv5
I0507 21:47:30.682903  7801 net.cpp:435] conv5 <- conv4
I0507 21:47:30.682906  7801 net.cpp:409] conv5 -> conv5
I0507 21:47:30.688140  7801 net.cpp:144] Setting up conv5
I0507 21:47:30.688154  7801 net.cpp:151] Top shape: 20 64 5 5 (32000)
I0507 21:47:30.688158  7801 net.cpp:159] Memory required for data: 2824080
I0507 21:47:30.688168  7801 layer_factory.hpp:77] Creating layer relu5
I0507 21:47:30.688174  7801 net.cpp:94] Creating Layer relu5
I0507 21:47:30.688176  7801 net.cpp:435] relu5 <- conv5
I0507 21:47:30.688181  7801 net.cpp:396] relu5 -> conv5 (in-place)
I0507 21:47:30.688187  7801 net.cpp:144] Setting up relu5
I0507 21:47:30.688192  7801 net.cpp:151] Top shape: 20 64 5 5 (32000)
I0507 21:47:30.688195  7801 net.cpp:159] Memory required for data: 2952080
I0507 21:47:30.688199  7801 layer_factory.hpp:77] Creating layer pool5
I0507 21:47:30.688204  7801 net.cpp:94] Creating Layer pool5
I0507 21:47:30.688206  7801 net.cpp:435] pool5 <- conv5
I0507 21:47:30.688210  7801 net.cpp:409] pool5 -> pool5
I0507 21:47:30.688246  7801 net.cpp:144] Setting up pool5
I0507 21:47:30.688253  7801 net.cpp:151] Top shape: 20 64 2 2 (5120)
I0507 21:47:30.688257  7801 net.cpp:159] Memory required for data: 2972560
I0507 21:47:30.688261  7801 layer_factory.hpp:77] Creating layer ip1
I0507 21:47:30.688267  7801 net.cpp:94] Creating Layer ip1
I0507 21:47:30.688271  7801 net.cpp:435] ip1 <- pool5
I0507 21:47:30.688274  7801 net.cpp:409] ip1 -> ip1
I0507 21:47:30.688805  7801 net.cpp:144] Setting up ip1
I0507 21:47:30.688814  7801 net.cpp:151] Top shape: 20 64 (1280)
I0507 21:47:30.688818  7801 net.cpp:159] Memory required for data: 2977680
I0507 21:47:30.688823  7801 layer_factory.hpp:77] Creating layer ip2
I0507 21:47:30.688830  7801 net.cpp:94] Creating Layer ip2
I0507 21:47:30.688833  7801 net.cpp:435] ip2 <- ip1
I0507 21:47:30.688838  7801 net.cpp:409] ip2 -> ip2
I0507 21:47:30.689062  7801 net.cpp:144] Setting up ip2
I0507 21:47:30.689069  7801 net.cpp:151] Top shape: 20 64 (1280)
I0507 21:47:30.689074  7801 net.cpp:159] Memory required for data: 2982800
I0507 21:47:30.689079  7801 layer_factory.hpp:77] Creating layer ip3
I0507 21:47:30.689083  7801 net.cpp:94] Creating Layer ip3
I0507 21:47:30.689087  7801 net.cpp:435] ip3 <- ip2
I0507 21:47:30.689091  7801 net.cpp:409] ip3 -> ip3
I0507 21:47:30.689288  7801 net.cpp:144] Setting up ip3
I0507 21:47:30.689296  7801 net.cpp:151] Top shape: 20 50 (1000)
I0507 21:47:30.689303  7801 net.cpp:159] Memory required for data: 2986800
I0507 21:47:30.689308  7801 layer_factory.hpp:77] Creating layer loss
I0507 21:47:30.689316  7801 net.cpp:94] Creating Layer loss
I0507 21:47:30.689318  7801 net.cpp:435] loss <- ip3
I0507 21:47:30.689322  7801 net.cpp:435] loss <- label
I0507 21:47:30.689327  7801 net.cpp:409] loss -> loss
I0507 21:47:30.689333  7801 layer_factory.hpp:77] Creating layer loss
…
I0507 21:47:30.690688  7801 solver.cpp:181] Creating test net (#0) specified by net file: ./protocol/dis_20_100_dimension.protocol_distribution
I0507 21:47:30.690714  7801 net.cpp:323] The NetState phase (1) differed from the phase (0) specified by a rule in layer parameters
I0507 21:47:30.690810  7801 net.cpp:52] Initializing net from parameters: 
state {
  phase: TEST
}
layer {
  name: "intercept"
  type: "HDF5Data"
  top: "data"
  top: "label"
  include {
    phase: TEST
  }
  hdf5_data_param {
    source: "/home/purduethu/scratch/radon/d/deng106/CNNStatisticalModel/distributions/input/20_distributions_100_sample_size_test-distributions-path.txt"
    batch_size: 20
  }
}
layer {
  name: "conv1"
  type: "Convolution"
  bottom: "data"
  top: "conv1"
  param {
    lr_mult: 1
  }
  param {
    lr_mult: 2
  }
  convolution_param {
    num_output: 64
    pad: 2
    kernel_size: 5
    stride: 1
    weight_filler {
      type: "gaussian"
      std: 0.0001
    }
    bias_filler {
      type: "constant"
    }
  }
}
layer {
  name: "relu1"
  type: "ReLU"
  bottom: "conv1"
  top: "conv1"
}
layer {
  name: "conv2"
  type: "Convolution"
  bottom: "conv1"
  top: "conv2"
  param {
    lr_mult: 1
  }
  param {
    lr_mult: 2
  }
  convolution_param {
    num_output: 64
    pad: 2
    kernel_size: 5
    stride: 1
    weight_filler {
      type: "gaussian"
      std: 0.01
    }
    bias_filler {
      type: "constant"
    }
  }
}
layer {
  name: "relu2"
  type: "ReLU"
  bottom: "conv2"
  top: "conv2"
}
layer {
  name: "pool2"
  type: "Pooling"
  bottom: "conv2"
  top: "pool2"
  pooling_param {
    pool: MAX
    kernel_size: 3
    stride: 2
  }
}
layer {
  name: "conv3"
  type: "Convolution"
  bottom: "pool2"
  top: "conv3"
  param {
    lr_mult: 1
  }
  param {
    lr_mult: 2
  }
  convolution_param {
    num_output: 64
    pad: 2
    kernel_size: 5
    stride: 1
    weight_filler {
      type: "gaussian"
      std: 0.01
    }
    bias_filler {
      type: "constant"
    }
  }
}
layer {
  name: "relu3"
  type: "ReLU"
  bottom: "conv3"
  top: "conv3"
}
layer {
  name: "conv4"
  type: "Convolution"
  bottom: "conv3"
  top: "conv4"
  param {
    lr_mult: 1
  }
  param {
    lr_mult: 2
  }
  convolution_param {
    num_output: 64
    pad: 2
    kernel_size: 5
    stride: 1
    weight_filler {
      type: "gaussian"
      std: 0.01
    }
    bias_filler {
      type: "constant"
    }
  }
}
layer {
  name: "relu4"
  type: "ReLU"
  bottom: "conv4"
  top: "conv4"
}
layer {
  name: "conv5"
  type: "Convolution"
  bottom: "conv4"
  top: "conv5"
  param {
    lr_mult: 1
  }
  param {
    lr_mult: 2
  }
  convolution_param {
    num_output: 64
    pad: 2
    kernel_size: 5
    stride: 1
    weight_filler {
      type: "gaussian"
      std: 0.01
    }
    bias_filler {
      type: "constant"
    }
  }
}
layer {
  name: "relu5"
  type: "ReLU"
  bottom: "conv5"
  top: "conv5"
}
layer {
  name: "pool5"
  type: "Pooling"
  bottom: "conv5"
  top: "pool5"
  pooling_param {
    pool: AVE
    kernel_size: 3
    stride: 2
  }
}
layer {
  name: "ip1"
  type: "InnerProduct"
  bottom: "pool5"
  top: "ip1"
  param {
    lr_mult: 1
  }
  param {
    lr_mult: 2
  }
  inner_product_param {
    num_output: 64
    weight_filler {
      type: "gaussian"
      std: 0.1
    }
    bias_filler {
      type: "constant"
    }
  }
}
layer {
  name: "ip2"
  type: "InnerProduct"
  bottom: "ip1"
  top: "ip2"
  param {
    lr_mult: 1
  }
  param {
    lr_mult: 2
  }
  inner_product_param {
    num_output: 64
    weight_filler {
      type: "gaussian"
      std: 0.1
    }
    bias_filler {
      type: "constant"
    }
  }
}
layer {
  name: "ip3"
  type: "InnerProduct"
  bottom: "ip2"
  top: "ip3"
  param {
    lr_mult: 1
  }
  param {
    lr_mult: 2
  }
  inner_product_param {
    num_output: 50
    weight_filler {
      type: "gaussian"
      std: 0.1
    }
    bias_filler {
      type: "constant"
    }
  }
}
layer {
  name: "accuracy"
  type: "Accuracy"
  bottom: "ip3"
  bottom: "label"
  top: "accuracy"
  include {
    phase: TEST
  }
}
layer {
  name: "loss"
  type: "SoftmaxWithLoss"
  bottom: "ip3"
  bottom: "label"
  top: "loss"
}
I0507 21:47:30.690876  7801 layer_factory.hpp:77] Creating layer intercept
I0507 21:47:30.690883  7801 net.cpp:94] Creating Layer intercept
I0507 21:47:30.690888  7801 net.cpp:409] intercept -> data
I0507 21:47:30.690894  7801 net.cpp:409] intercept -> label
I0507 21:47:30.690901  7801 hdf5_data_layer.cpp:79] Loading list of HDF5 filenames from: /home/purduethu/scratch/radon/d/deng106/CNNStatisticalModel/distributions/input/20_distributions_100_sample_size_test-distributions-path.txt
I0507 21:47:30.690920  7801 hdf5_data_layer.cpp:93] Number of HDF5 files: 1
I0507 21:47:30.708183  7801 net.cpp:144] Setting up intercept
I0507 21:47:30.708216  7801 net.cpp:151] Top shape: 20 1 10 10 (2000)
I0507 21:47:30.708221  7801 net.cpp:151] Top shape: 20 (20)
I0507 21:47:30.708225  7801 net.cpp:159] Memory required for data: 8080
I0507 21:47:30.708230  7801 layer_factory.hpp:77] Creating layer label_intercept_1_split
I0507 21:47:30.708250  7801 net.cpp:94] Creating Layer label_intercept_1_split
I0507 21:47:30.708254  7801 net.cpp:435] label_intercept_1_split <- label
I0507 21:47:30.708261  7801 net.cpp:409] label_intercept_1_split -> label_intercept_1_split_0
I0507 21:47:30.708268  7801 net.cpp:409] label_intercept_1_split -> label_intercept_1_split_1
I0507 21:47:30.708312  7801 net.cpp:144] Setting up label_intercept_1_split
I0507 21:47:30.708317  7801 net.cpp:151] Top shape: 20 (20)
I0507 21:47:30.708322  7801 net.cpp:151] Top shape: 20 (20)
I0507 21:47:30.708324  7801 net.cpp:159] Memory required for data: 8240
I0507 21:47:30.708328  7801 layer_factory.hpp:77] Creating layer conv1
I0507 21:47:30.708338  7801 net.cpp:94] Creating Layer conv1
I0507 21:47:30.708343  7801 net.cpp:435] conv1 <- data
I0507 21:47:30.708346  7801 net.cpp:409] conv1 -> conv1
I0507 21:47:30.709149  7801 net.cpp:144] Setting up conv1
I0507 21:47:30.709162  7801 net.cpp:151] Top shape: 20 64 10 10 (128000)
I0507 21:47:30.709175  7801 net.cpp:159] Memory required for data: 520240
I0507 21:47:30.709185  7801 layer_factory.hpp:77] Creating layer relu1
I0507 21:47:30.709192  7801 net.cpp:94] Creating Layer relu1
I0507 21:47:30.709197  7801 net.cpp:435] relu1 <- conv1
I0507 21:47:30.709200  7801 net.cpp:396] relu1 -> conv1 (in-place)
I0507 21:47:30.709208  7801 net.cpp:144] Setting up relu1
I0507 21:47:30.709213  7801 net.cpp:151] Top shape: 20 64 10 10 (128000)
I0507 21:47:30.709214  7801 net.cpp:159] Memory required for data: 1032240
I0507 21:47:30.709218  7801 layer_factory.hpp:77] Creating layer conv2
I0507 21:47:30.709225  7801 net.cpp:94] Creating Layer conv2
I0507 21:47:30.709229  7801 net.cpp:435] conv2 <- conv1
I0507 21:47:30.709233  7801 net.cpp:409] conv2 -> conv2
I0507 21:47:30.713258  7801 net.cpp:144] Setting up conv2
I0507 21:47:30.713271  7801 net.cpp:151] Top shape: 20 64 10 10 (128000)
I0507 21:47:30.713274  7801 net.cpp:159] Memory required for data: 1544240
I0507 21:47:30.713282  7801 layer_factory.hpp:77] Creating layer relu2
I0507 21:47:30.713289  7801 net.cpp:94] Creating Layer relu2
I0507 21:47:30.713292  7801 net.cpp:435] relu2 <- conv2
I0507 21:47:30.713296  7801 net.cpp:396] relu2 -> conv2 (in-place)
I0507 21:47:30.713304  7801 net.cpp:144] Setting up relu2
I0507 21:47:30.713307  7801 net.cpp:151] Top shape: 20 64 10 10 (128000)
I0507 21:47:30.713310  7801 net.cpp:159] Memory required for data: 2056240
I0507 21:47:30.713313  7801 layer_factory.hpp:77] Creating layer pool2
I0507 21:47:30.713320  7801 net.cpp:94] Creating Layer pool2
I0507 21:47:30.713323  7801 net.cpp:435] pool2 <- conv2
I0507 21:47:30.713327  7801 net.cpp:409] pool2 -> pool2
I0507 21:47:30.713382  7801 net.cpp:144] Setting up pool2
I0507 21:47:30.713389  7801 net.cpp:151] Top shape: 20 64 5 5 (32000)
I0507 21:47:30.713392  7801 net.cpp:159] Memory required for data: 2184240
I0507 21:47:30.713395  7801 layer_factory.hpp:77] Creating layer conv3
I0507 21:47:30.713402  7801 net.cpp:94] Creating Layer conv3
I0507 21:47:30.713407  7801 net.cpp:435] conv3 <- pool2
I0507 21:47:30.713412  7801 net.cpp:409] conv3 -> conv3
I0507 21:47:30.716931  7801 net.cpp:144] Setting up conv3
I0507 21:47:30.716944  7801 net.cpp:151] Top shape: 20 64 5 5 (32000)
I0507 21:47:30.716948  7801 net.cpp:159] Memory required for data: 2312240
I0507 21:47:30.716955  7801 layer_factory.hpp:77] Creating layer relu3
I0507 21:47:30.716962  7801 net.cpp:94] Creating Layer relu3
I0507 21:47:30.716966  7801 net.cpp:435] relu3 <- conv3
I0507 21:47:30.716970  7801 net.cpp:396] relu3 -> conv3 (in-place)
I0507 21:47:30.716977  7801 net.cpp:144] Setting up relu3
I0507 21:47:30.716981  7801 net.cpp:151] Top shape: 20 64 5 5 (32000)
I0507 21:47:30.716984  7801 net.cpp:159] Memory required for data: 2440240
I0507 21:47:30.716987  7801 layer_factory.hpp:77] Creating layer conv4
I0507 21:47:30.716995  7801 net.cpp:94] Creating Layer conv4
I0507 21:47:30.716998  7801 net.cpp:435] conv4 <- conv3
I0507 21:47:30.717002  7801 net.cpp:409] conv4 -> conv4
I0507 21:47:30.720516  7801 net.cpp:144] Setting up conv4
I0507 21:47:30.720528  7801 net.cpp:151] Top shape: 20 64 5 5 (32000)
I0507 21:47:30.720532  7801 net.cpp:159] Memory required for data: 2568240
I0507 21:47:30.720538  7801 layer_factory.hpp:77] Creating layer relu4
I0507 21:47:30.720543  7801 net.cpp:94] Creating Layer relu4
I0507 21:47:30.720547  7801 net.cpp:435] relu4 <- conv4
I0507 21:47:30.720556  7801 net.cpp:396] relu4 -> conv4 (in-place)
I0507 21:47:30.720563  7801 net.cpp:144] Setting up relu4
I0507 21:47:30.720568  7801 net.cpp:151] Top shape: 20 64 5 5 (32000)
I0507 21:47:30.720571  7801 net.cpp:159] Memory required for data: 2696240
I0507 21:47:30.720574  7801 layer_factory.hpp:77] Creating layer conv5
I0507 21:47:30.720582  7801 net.cpp:94] Creating Layer conv5
I0507 21:47:30.720585  7801 net.cpp:435] conv5 <- conv4
I0507 21:47:30.720590  7801 net.cpp:409] conv5 -> conv5
I0507 21:47:30.724561  7801 net.cpp:144] Setting up conv5
I0507 21:47:30.724575  7801 net.cpp:151] Top shape: 20 64 5 5 (32000)
I0507 21:47:30.724578  7801 net.cpp:159] Memory required for data: 2824240
I0507 21:47:30.724592  7801 layer_factory.hpp:77] Creating layer relu5
I0507 21:47:30.724599  7801 net.cpp:94] Creating Layer relu5
I0507 21:47:30.724603  7801 net.cpp:435] relu5 <- conv5
I0507 21:47:30.724607  7801 net.cpp:396] relu5 -> conv5 (in-place)
I0507 21:47:30.724614  7801 net.cpp:144] Setting up relu5
I0507 21:47:30.724618  7801 net.cpp:151] Top shape: 20 64 5 5 (32000)
I0507 21:47:30.724622  7801 net.cpp:159] Memory required for data: 2952240
I0507 21:47:30.724624  7801 layer_factory.hpp:77] Creating layer pool5
I0507 21:47:30.724630  7801 net.cpp:94] Creating Layer pool5
I0507 21:47:30.724634  7801 net.cpp:435] pool5 <- conv5
I0507 21:47:30.724638  7801 net.cpp:409] pool5 -> pool5
I0507 21:47:30.724678  7801 net.cpp:144] Setting up pool5
I0507 21:47:30.724684  7801 net.cpp:151] Top shape: 20 64 2 2 (5120)
I0507 21:47:30.724687  7801 net.cpp:159] Memory required for data: 2972720
I0507 21:47:30.724690  7801 layer_factory.hpp:77] Creating layer ip1
I0507 21:47:30.724697  7801 net.cpp:94] Creating Layer ip1
I0507 21:47:30.724700  7801 net.cpp:435] ip1 <- pool5
I0507 21:47:30.724704  7801 net.cpp:409] ip1 -> ip1
I0507 21:47:30.725229  7801 net.cpp:144] Setting up ip1
I0507 21:47:30.725237  7801 net.cpp:151] Top shape: 20 64 (1280)
I0507 21:47:30.725240  7801 net.cpp:159] Memory required for data: 2977840
I0507 21:47:30.725246  7801 layer_factory.hpp:77] Creating layer ip2
I0507 21:47:30.725252  7801 net.cpp:94] Creating Layer ip2
I0507 21:47:30.725256  7801 net.cpp:435] ip2 <- ip1
I0507 21:47:30.725261  7801 net.cpp:409] ip2 -> ip2
I0507 21:47:30.725494  7801 net.cpp:144] Setting up ip2
I0507 21:47:30.725502  7801 net.cpp:151] Top shape: 20 64 (1280)
I0507 21:47:30.725504  7801 net.cpp:159] Memory required for data: 2982960
I0507 21:47:30.725509  7801 layer_factory.hpp:77] Creating layer ip3
I0507 21:47:30.725517  7801 net.cpp:94] Creating Layer ip3
I0507 21:47:30.725522  7801 net.cpp:435] ip3 <- ip2
I0507 21:47:30.725528  7801 net.cpp:409] ip3 -> ip3
I0507 21:47:30.725731  7801 net.cpp:144] Setting up ip3
I0507 21:47:30.725739  7801 net.cpp:151] Top shape: 20 50 (1000)
I0507 21:47:30.725742  7801 net.cpp:159] Memory required for data: 2986960
I0507 21:47:30.725747  7801 layer_factory.hpp:77] Creating layer ip3_ip3_0_split
I0507 21:47:30.725754  7801 net.cpp:94] Creating Layer ip3_ip3_0_split
I0507 21:47:30.725756  7801 net.cpp:435] ip3_ip3_0_split <- ip3
I0507 21:47:30.725760  7801 net.cpp:409] ip3_ip3_0_split -> ip3_ip3_0_split_0
I0507 21:47:30.725765  7801 net.cpp:409] ip3_ip3_0_split -> ip3_ip3_0_split_1
I0507 21:47:30.725807  7801 net.cpp:144] Setting up ip3_ip3_0_split
I0507 21:47:30.725814  7801 net.cpp:151] Top shape: 20 50 (1000)
I0507 21:47:30.725817  7801 net.cpp:151] Top shape: 20 50 (1000)
I0507 21:47:30.725821  7801 net.cpp:159] Memory required for data: 2994960
I0507 21:47:30.725823  7801 layer_factory.hpp:77] Creating layer accuracy
I0507 21:47:30.725831  7801 net.cpp:94] Creating Layer accuracy
I0507 21:47:30.725833  7801 net.cpp:435] accuracy <- ip3_ip3_0_split_0
I0507 21:47:30.725837  7801 net.cpp:435] accuracy <- label_intercept_1_split_0
I0507 21:47:30.725842  7801 net.cpp:409] accuracy -> accuracy
…
