…
I0501 20:53:13.030094 14629 net.cpp:323] The NetState phase (0) differed from the phase (1) specified by a rule in layer intercept
I0501 20:53:13.030110 14629 net.cpp:323] The NetState phase (0) differed from the phase (1) specified by a rule in layer accuracy
I0501 20:53:13.030203 14629 net.cpp:52] Initializing net from parameters: 
state {
  phase: TRAIN
}
layer {
  name: "parameters"
  type: "HDF5Data"
  top: "data"
  top: "label"
  include {
    phase: TRAIN
  }
  hdf5_data_param {
    source: "/home/purduethu/scratch/radon/d/deng106/CNNStatisticalModel/distributions/input/50_distributions_100_sample_size_train-distributions-path.txt"
    batch_size: 20
  }
}
layer {
  name: "conv1"
  type: "Convolution"
  bottom: "data"
  top: "conv1"
  param {
    lr_mult: 1
  }
  param {
    lr_mult: 2
  }
  convolution_param {
    num_output: 64
    pad: 2
    kernel_size: 5
    stride: 1
    weight_filler {
      type: "gaussian"
      std: 0.0001
    }
    bias_filler {
      type: "constant"
    }
  }
}
layer {
  name: "relu1"
  type: "ReLU"
  bottom: "conv1"
  top: "conv1"
}
layer {
  name: "conv2"
  type: "Convolution"
  bottom: "conv1"
  top: "conv2"
  param {
    lr_mult: 1
  }
  param {
    lr_mult: 2
  }
  convolution_param {
    num_output: 64
    pad: 2
    kernel_size: 5
    stride: 1
    weight_filler {
      type: "gaussian"
      std: 0.01
    }
    bias_filler {
      type: "constant"
    }
  }
}
layer {
  name: "relu2"
  type: "ReLU"
  bottom: "conv2"
  top: "conv2"
}
layer {
  name: "pool2"
  type: "Pooling"
  bottom: "conv2"
  top: "pool2"
  pooling_param {
    pool: MAX
    kernel_size: 3
    stride: 2
  }
}
layer {
  name: "conv3"
  type: "Convolution"
  bottom: "pool2"
  top: "conv3"
  param {
    lr_mult: 1
  }
  param {
    lr_mult: 2
  }
  convolution_param {
    num_output: 64
    pad: 2
    kernel_size: 5
    stride: 1
    weight_filler {
      type: "gaussian"
      std: 0.01
    }
    bias_filler {
      type: "constant"
    }
  }
}
layer {
  name: "relu3"
  type: "ReLU"
  bottom: "conv3"
  top: "conv3"
}
layer {
  name: "conv4"
  type: "Convolution"
  bottom: "conv3"
  top: "conv4"
  param {
    lr_mult: 1
  }
  param {
    lr_mult: 2
  }
  convolution_param {
    num_output: 64
    pad: 2
    kernel_size: 5
    stride: 1
    weight_filler {
      type: "gaussian"
      std: 0.01
    }
    bias_filler {
      type: "constant"
    }
  }
}
layer {
  name: "relu4"
  type: "ReLU"
  bottom: "conv4"
  top: "conv4"
}
layer {
  name: "conv5"
  type: "Convolution"
  bottom: "conv4"
  top: "conv5"
  param {
    lr_mult: 1
  }
  param {
    lr_mult: 2
  }
  convolution_param {
    num_output: 64
    pad: 2
    kernel_size: 5
    stride: 1
    weight_filler {
      type: "gaussian"
      std: 0.01
    }
    bias_filler {
      type: "constant"
    }
  }
}
layer {
  name: "relu5"
  type: "ReLU"
  bottom: "conv5"
  top: "conv5"
}
layer {
  name: "pool5"
  type: "Pooling"
  bottom: "conv5"
  top: "pool5"
  pooling_param {
    pool: AVE
    kernel_size: 3
    stride: 2
  }
}
layer {
  name: "ip1"
  type: "InnerProduct"
  bottom: "pool5"
  top: "ip1"
  param {
    lr_mult: 1
  }
  param {
    lr_mult: 2
  }
  inner_product_param {
    num_output: 64
    weight_filler {
      type: "gaussian"
      std: 0.1
    }
    bias_filler {
      type: "constant"
    }
  }
}
layer {
  name: "ip2"
  type: "InnerProduct"
  bottom: "ip1"
  top: "ip2"
  param {
    lr_mult: 1
  }
  param {
    lr_mult: 2
  }
  inner_product_param {
    num_output: 64
    weight_filler {
      type: "gaussian"
      std: 0.1
    }
    bias_filler {
      type: "constant"
    }
  }
}
layer {
  name: "ip3"
  type: "InnerProduct"
  bottom: "ip2"
  top: "ip3"
  param {
    lr_mult: 1
  }
  param {
    lr_mult: 2
  }
  inner_product_param {
    num_output: 50
    weight_filler {
      type: "gaussian"
      std: 0.1
    }
    bias_filler {
      type: "constant"
    }
  }
}
layer {
  name: "loss"
  type: "SoftmaxWithLoss"
  bottom: "ip3"
  bottom: "label"
  top: "loss"
}
I0501 20:53:13.030279 14629 layer_factory.hpp:77] Creating layer parameters
I0501 20:53:13.030294 14629 net.cpp:94] Creating Layer parameters
I0501 20:53:13.030300 14629 net.cpp:409] parameters -> data
I0501 20:53:13.030319 14629 net.cpp:409] parameters -> label
I0501 20:53:13.030329 14629 hdf5_data_layer.cpp:79] Loading list of HDF5 filenames from: /home/purduethu/scratch/radon/d/deng106/CNNStatisticalModel/distributions/input/50_distributions_100_sample_size_train-distributions-path.txt
I0501 20:53:13.030352 14629 hdf5_data_layer.cpp:93] Number of HDF5 files: 1
I0501 20:53:13.030925 14629 hdf5.cpp:32] Datatype class: H5T_FLOAT
I0501 20:53:13.189992 14629 hdf5.cpp:35] Datatype class: H5T_INTEGER
I0501 20:53:13.192775 14629 net.cpp:144] Setting up parameters
I0501 20:53:13.192798 14629 net.cpp:151] Top shape: 20 1 10 10 (2000)
I0501 20:53:13.192803 14629 net.cpp:151] Top shape: 20 (20)
I0501 20:53:13.192807 14629 net.cpp:159] Memory required for data: 8080
I0501 20:53:13.192814 14629 layer_factory.hpp:77] Creating layer conv1
I0501 20:53:13.192833 14629 net.cpp:94] Creating Layer conv1
I0501 20:53:13.192839 14629 net.cpp:435] conv1 <- data
I0501 20:53:13.192850 14629 net.cpp:409] conv1 -> conv1
I0501 20:53:13.196686 14629 net.cpp:144] Setting up conv1
I0501 20:53:13.196702 14629 net.cpp:151] Top shape: 20 64 10 10 (128000)
I0501 20:53:13.196707 14629 net.cpp:159] Memory required for data: 520080
I0501 20:53:13.196717 14629 layer_factory.hpp:77] Creating layer relu1
I0501 20:53:13.196724 14629 net.cpp:94] Creating Layer relu1
I0501 20:53:13.196728 14629 net.cpp:435] relu1 <- conv1
I0501 20:53:13.196733 14629 net.cpp:396] relu1 -> conv1 (in-place)
I0501 20:53:13.196744 14629 net.cpp:144] Setting up relu1
I0501 20:53:13.196749 14629 net.cpp:151] Top shape: 20 64 10 10 (128000)
I0501 20:53:13.196753 14629 net.cpp:159] Memory required for data: 1032080
I0501 20:53:13.196755 14629 layer_factory.hpp:77] Creating layer conv2
I0501 20:53:13.196763 14629 net.cpp:94] Creating Layer conv2
I0501 20:53:13.196768 14629 net.cpp:435] conv2 <- conv1
I0501 20:53:13.196772 14629 net.cpp:409] conv2 -> conv2
I0501 20:53:13.202491 14629 net.cpp:144] Setting up conv2
I0501 20:53:13.202504 14629 net.cpp:151] Top shape: 20 64 10 10 (128000)
I0501 20:53:13.202508 14629 net.cpp:159] Memory required for data: 1544080
I0501 20:53:13.202517 14629 layer_factory.hpp:77] Creating layer relu2
I0501 20:53:13.202523 14629 net.cpp:94] Creating Layer relu2
I0501 20:53:13.202527 14629 net.cpp:435] relu2 <- conv2
I0501 20:53:13.202533 14629 net.cpp:396] relu2 -> conv2 (in-place)
I0501 20:53:13.202539 14629 net.cpp:144] Setting up relu2
I0501 20:53:13.202543 14629 net.cpp:151] Top shape: 20 64 10 10 (128000)
I0501 20:53:13.202546 14629 net.cpp:159] Memory required for data: 2056080
I0501 20:53:13.202549 14629 layer_factory.hpp:77] Creating layer pool2
I0501 20:53:13.202564 14629 net.cpp:94] Creating Layer pool2
I0501 20:53:13.202567 14629 net.cpp:435] pool2 <- conv2
I0501 20:53:13.202572 14629 net.cpp:409] pool2 -> pool2
I0501 20:53:13.202620 14629 net.cpp:144] Setting up pool2
I0501 20:53:13.202628 14629 net.cpp:151] Top shape: 20 64 5 5 (32000)
I0501 20:53:13.202631 14629 net.cpp:159] Memory required for data: 2184080
I0501 20:53:13.202635 14629 layer_factory.hpp:77] Creating layer conv3
I0501 20:53:13.202642 14629 net.cpp:94] Creating Layer conv3
I0501 20:53:13.202646 14629 net.cpp:435] conv3 <- pool2
I0501 20:53:13.202658 14629 net.cpp:409] conv3 -> conv3
I0501 20:53:13.207379 14629 net.cpp:144] Setting up conv3
I0501 20:53:13.207393 14629 net.cpp:151] Top shape: 20 64 5 5 (32000)
I0501 20:53:13.207398 14629 net.cpp:159] Memory required for data: 2312080
I0501 20:53:13.207406 14629 layer_factory.hpp:77] Creating layer relu3
I0501 20:53:13.207412 14629 net.cpp:94] Creating Layer relu3
I0501 20:53:13.207415 14629 net.cpp:435] relu3 <- conv3
I0501 20:53:13.207420 14629 net.cpp:396] relu3 -> conv3 (in-place)
I0501 20:53:13.207427 14629 net.cpp:144] Setting up relu3
I0501 20:53:13.207432 14629 net.cpp:151] Top shape: 20 64 5 5 (32000)
I0501 20:53:13.207434 14629 net.cpp:159] Memory required for data: 2440080
I0501 20:53:13.207437 14629 layer_factory.hpp:77] Creating layer conv4
I0501 20:53:13.207445 14629 net.cpp:94] Creating Layer conv4
I0501 20:53:13.207449 14629 net.cpp:435] conv4 <- conv3
I0501 20:53:13.207454 14629 net.cpp:409] conv4 -> conv4
I0501 20:53:13.226379 14629 net.cpp:144] Setting up conv4
I0501 20:53:13.226394 14629 net.cpp:151] Top shape: 20 64 5 5 (32000)
I0501 20:53:13.226399 14629 net.cpp:159] Memory required for data: 2568080
I0501 20:53:13.226405 14629 layer_factory.hpp:77] Creating layer relu4
I0501 20:53:13.226411 14629 net.cpp:94] Creating Layer relu4
I0501 20:53:13.226415 14629 net.cpp:435] relu4 <- conv4
I0501 20:53:13.226420 14629 net.cpp:396] relu4 -> conv4 (in-place)
I0501 20:53:13.226428 14629 net.cpp:144] Setting up relu4
I0501 20:53:13.226433 14629 net.cpp:151] Top shape: 20 64 5 5 (32000)
I0501 20:53:13.226435 14629 net.cpp:159] Memory required for data: 2696080
I0501 20:53:13.226438 14629 layer_factory.hpp:77] Creating layer conv5
I0501 20:53:13.226445 14629 net.cpp:94] Creating Layer conv5
I0501 20:53:13.226449 14629 net.cpp:435] conv5 <- conv4
I0501 20:53:13.226454 14629 net.cpp:409] conv5 -> conv5
I0501 20:53:13.231171 14629 net.cpp:144] Setting up conv5
I0501 20:53:13.231185 14629 net.cpp:151] Top shape: 20 64 5 5 (32000)
I0501 20:53:13.231189 14629 net.cpp:159] Memory required for data: 2824080
I0501 20:53:13.231199 14629 layer_factory.hpp:77] Creating layer relu5
I0501 20:53:13.231204 14629 net.cpp:94] Creating Layer relu5
I0501 20:53:13.231207 14629 net.cpp:435] relu5 <- conv5
I0501 20:53:13.231212 14629 net.cpp:396] relu5 -> conv5 (in-place)
I0501 20:53:13.231220 14629 net.cpp:144] Setting up relu5
I0501 20:53:13.231223 14629 net.cpp:151] Top shape: 20 64 5 5 (32000)
I0501 20:53:13.231226 14629 net.cpp:159] Memory required for data: 2952080
I0501 20:53:13.231230 14629 layer_factory.hpp:77] Creating layer pool5
I0501 20:53:13.231235 14629 net.cpp:94] Creating Layer pool5
I0501 20:53:13.231238 14629 net.cpp:435] pool5 <- conv5
I0501 20:53:13.231242 14629 net.cpp:409] pool5 -> pool5
I0501 20:53:13.231276 14629 net.cpp:144] Setting up pool5
I0501 20:53:13.231284 14629 net.cpp:151] Top shape: 20 64 2 2 (5120)
I0501 20:53:13.231287 14629 net.cpp:159] Memory required for data: 2972560
I0501 20:53:13.231290 14629 layer_factory.hpp:77] Creating layer ip1
I0501 20:53:13.231300 14629 net.cpp:94] Creating Layer ip1
I0501 20:53:13.231304 14629 net.cpp:435] ip1 <- pool5
I0501 20:53:13.231309 14629 net.cpp:409] ip1 -> ip1
I0501 20:53:13.232439 14629 net.cpp:144] Setting up ip1
I0501 20:53:13.232452 14629 net.cpp:151] Top shape: 20 64 (1280)
I0501 20:53:13.232456 14629 net.cpp:159] Memory required for data: 2977680
I0501 20:53:13.232461 14629 layer_factory.hpp:77] Creating layer ip2
I0501 20:53:13.232468 14629 net.cpp:94] Creating Layer ip2
I0501 20:53:13.232476 14629 net.cpp:435] ip2 <- ip1
I0501 20:53:13.232482 14629 net.cpp:409] ip2 -> ip2
I0501 20:53:13.232661 14629 net.cpp:144] Setting up ip2
I0501 20:53:13.232669 14629 net.cpp:151] Top shape: 20 64 (1280)
I0501 20:53:13.232672 14629 net.cpp:159] Memory required for data: 2982800
I0501 20:53:13.232678 14629 layer_factory.hpp:77] Creating layer ip3
I0501 20:53:13.232684 14629 net.cpp:94] Creating Layer ip3
I0501 20:53:13.232687 14629 net.cpp:435] ip3 <- ip2
I0501 20:53:13.232692 14629 net.cpp:409] ip3 -> ip3
I0501 20:53:13.232834 14629 net.cpp:144] Setting up ip3
I0501 20:53:13.232847 14629 net.cpp:151] Top shape: 20 50 (1000)
I0501 20:53:13.232851 14629 net.cpp:159] Memory required for data: 2986800
I0501 20:53:13.232856 14629 layer_factory.hpp:77] Creating layer loss
I0501 20:53:13.232861 14629 net.cpp:94] Creating Layer loss
I0501 20:53:13.232866 14629 net.cpp:435] loss <- ip3
I0501 20:53:13.232869 14629 net.cpp:435] loss <- label
I0501 20:53:13.232874 14629 net.cpp:409] loss -> loss
I0501 20:53:13.232884 14629 layer_factory.hpp:77] Creating layer loss
…
I0501 20:53:13.234043 14629 solver.cpp:181] Creating test net (#0) specified by net file: ./protocol/dis_50_100_dimension.protocol_distribution
I0501 20:53:13.234071 14629 net.cpp:323] The NetState phase (1) differed from the phase (0) specified by a rule in layer parameters
I0501 20:53:13.234170 14629 net.cpp:52] Initializing net from parameters: 
state {
  phase: TEST
}
layer {
  name: "intercept"
  type: "HDF5Data"
  top: "data"
  top: "label"
  include {
    phase: TEST
  }
  hdf5_data_param {
    source: "/home/purduethu/scratch/radon/d/deng106/CNNStatisticalModel/distributions/input/50_distributions_100_sample_size_test-distributions-path.txt"
    batch_size: 20
  }
}
layer {
  name: "conv1"
  type: "Convolution"
  bottom: "data"
  top: "conv1"
  param {
    lr_mult: 1
  }
  param {
    lr_mult: 2
  }
  convolution_param {
    num_output: 64
    pad: 2
    kernel_size: 5
    stride: 1
    weight_filler {
      type: "gaussian"
      std: 0.0001
    }
    bias_filler {
      type: "constant"
    }
  }
}
layer {
  name: "relu1"
  type: "ReLU"
  bottom: "conv1"
  top: "conv1"
}
layer {
  name: "conv2"
  type: "Convolution"
  bottom: "conv1"
  top: "conv2"
  param {
    lr_mult: 1
  }
  param {
    lr_mult: 2
  }
  convolution_param {
    num_output: 64
    pad: 2
    kernel_size: 5
    stride: 1
    weight_filler {
      type: "gaussian"
      std: 0.01
    }
    bias_filler {
      type: "constant"
    }
  }
}
layer {
  name: "relu2"
  type: "ReLU"
  bottom: "conv2"
  top: "conv2"
}
layer {
  name: "pool2"
  type: "Pooling"
  bottom: "conv2"
  top: "pool2"
  pooling_param {
    pool: MAX
    kernel_size: 3
    stride: 2
  }
}
layer {
  name: "conv3"
  type: "Convolution"
  bottom: "pool2"
  top: "conv3"
  param {
    lr_mult: 1
  }
  param {
    lr_mult: 2
  }
  convolution_param {
    num_output: 64
    pad: 2
    kernel_size: 5
    stride: 1
    weight_filler {
      type: "gaussian"
      std: 0.01
    }
    bias_filler {
      type: "constant"
    }
  }
}
layer {
  name: "relu3"
  type: "ReLU"
  bottom: "conv3"
  top: "conv3"
}
layer {
  name: "conv4"
  type: "Convolution"
  bottom: "conv3"
  top: "conv4"
  param {
    lr_mult: 1
  }
  param {
    lr_mult: 2
  }
  convolution_param {
    num_output: 64
    pad: 2
    kernel_size: 5
    stride: 1
    weight_filler {
      type: "gaussian"
      std: 0.01
    }
    bias_filler {
      type: "constant"
    }
  }
}
layer {
  name: "relu4"
  type: "ReLU"
  bottom: "conv4"
  top: "conv4"
}
layer {
  name: "conv5"
  type: "Convolution"
  bottom: "conv4"
  top: "conv5"
  param {
    lr_mult: 1
  }
  param {
    lr_mult: 2
  }
  convolution_param {
    num_output: 64
    pad: 2
    kernel_size: 5
    stride: 1
    weight_filler {
      type: "gaussian"
      std: 0.01
    }
    bias_filler {
      type: "constant"
    }
  }
}
layer {
  name: "relu5"
  type: "ReLU"
  bottom: "conv5"
  top: "conv5"
}
layer {
  name: "pool5"
  type: "Pooling"
  bottom: "conv5"
  top: "pool5"
  pooling_param {
    pool: AVE
    kernel_size: 3
    stride: 2
  }
}
layer {
  name: "ip1"
  type: "InnerProduct"
  bottom: "pool5"
  top: "ip1"
  param {
    lr_mult: 1
  }
  param {
    lr_mult: 2
  }
  inner_product_param {
    num_output: 64
    weight_filler {
      type: "gaussian"
      std: 0.1
    }
    bias_filler {
      type: "constant"
    }
  }
}
layer {
  name: "ip2"
  type: "InnerProduct"
  bottom: "ip1"
  top: "ip2"
  param {
    lr_mult: 1
  }
  param {
    lr_mult: 2
  }
  inner_product_param {
    num_output: 64
    weight_filler {
      type: "gaussian"
      std: 0.1
    }
    bias_filler {
      type: "constant"
    }
  }
}
layer {
  name: "ip3"
  type: "InnerProduct"
  bottom: "ip2"
  top: "ip3"
  param {
    lr_mult: 1
  }
  param {
    lr_mult: 2
  }
  inner_product_param {
    num_output: 50
    weight_filler {
      type: "gaussian"
      std: 0.1
    }
    bias_filler {
      type: "constant"
    }
  }
}
layer {
  name: "accuracy"
  type: "Accuracy"
  bottom: "ip3"
  bottom: "label"
  top: "accuracy"
  include {
    phase: TEST
  }
}
layer {
  name: "loss"
  type: "SoftmaxWithLoss"
  bottom: "ip3"
  bottom: "label"
  top: "loss"
}
I0501 20:53:13.234243 14629 layer_factory.hpp:77] Creating layer intercept
I0501 20:53:13.234252 14629 net.cpp:94] Creating Layer intercept
I0501 20:53:13.234256 14629 net.cpp:409] intercept -> data
I0501 20:53:13.234263 14629 net.cpp:409] intercept -> label
I0501 20:53:13.234269 14629 hdf5_data_layer.cpp:79] Loading list of HDF5 filenames from: /home/purduethu/scratch/radon/d/deng106/CNNStatisticalModel/distributions/input/50_distributions_100_sample_size_test-distributions-path.txt
I0501 20:53:13.234288 14629 hdf5_data_layer.cpp:93] Number of HDF5 files: 1
I0501 20:53:13.277447 14629 net.cpp:144] Setting up intercept
I0501 20:53:13.277482 14629 net.cpp:151] Top shape: 20 1 10 10 (2000)
I0501 20:53:13.277487 14629 net.cpp:151] Top shape: 20 (20)
I0501 20:53:13.277490 14629 net.cpp:159] Memory required for data: 8080
I0501 20:53:13.277496 14629 layer_factory.hpp:77] Creating layer label_intercept_1_split
I0501 20:53:13.277516 14629 net.cpp:94] Creating Layer label_intercept_1_split
I0501 20:53:13.277521 14629 net.cpp:435] label_intercept_1_split <- label
I0501 20:53:13.277528 14629 net.cpp:409] label_intercept_1_split -> label_intercept_1_split_0
I0501 20:53:13.277536 14629 net.cpp:409] label_intercept_1_split -> label_intercept_1_split_1
I0501 20:53:13.277571 14629 net.cpp:144] Setting up label_intercept_1_split
I0501 20:53:13.277578 14629 net.cpp:151] Top shape: 20 (20)
I0501 20:53:13.277582 14629 net.cpp:151] Top shape: 20 (20)
I0501 20:53:13.277585 14629 net.cpp:159] Memory required for data: 8240
I0501 20:53:13.277588 14629 layer_factory.hpp:77] Creating layer conv1
I0501 20:53:13.277598 14629 net.cpp:94] Creating Layer conv1
I0501 20:53:13.277602 14629 net.cpp:435] conv1 <- data
I0501 20:53:13.277607 14629 net.cpp:409] conv1 -> conv1
I0501 20:53:13.278324 14629 net.cpp:144] Setting up conv1
I0501 20:53:13.278345 14629 net.cpp:151] Top shape: 20 64 10 10 (128000)
I0501 20:53:13.278349 14629 net.cpp:159] Memory required for data: 520240
I0501 20:53:13.278359 14629 layer_factory.hpp:77] Creating layer relu1
I0501 20:53:13.278367 14629 net.cpp:94] Creating Layer relu1
I0501 20:53:13.278370 14629 net.cpp:435] relu1 <- conv1
I0501 20:53:13.278374 14629 net.cpp:396] relu1 -> conv1 (in-place)
I0501 20:53:13.278383 14629 net.cpp:144] Setting up relu1
I0501 20:53:13.278386 14629 net.cpp:151] Top shape: 20 64 10 10 (128000)
I0501 20:53:13.278389 14629 net.cpp:159] Memory required for data: 1032240
I0501 20:53:13.278393 14629 layer_factory.hpp:77] Creating layer conv2
I0501 20:53:13.278401 14629 net.cpp:94] Creating Layer conv2
I0501 20:53:13.278405 14629 net.cpp:435] conv2 <- conv1
I0501 20:53:13.278410 14629 net.cpp:409] conv2 -> conv2
I0501 20:53:13.282577 14629 net.cpp:144] Setting up conv2
I0501 20:53:13.282590 14629 net.cpp:151] Top shape: 20 64 10 10 (128000)
I0501 20:53:13.282594 14629 net.cpp:159] Memory required for data: 1544240
I0501 20:53:13.282603 14629 layer_factory.hpp:77] Creating layer relu2
I0501 20:53:13.282609 14629 net.cpp:94] Creating Layer relu2
I0501 20:53:13.282613 14629 net.cpp:435] relu2 <- conv2
I0501 20:53:13.282618 14629 net.cpp:396] relu2 -> conv2 (in-place)
I0501 20:53:13.282624 14629 net.cpp:144] Setting up relu2
I0501 20:53:13.282629 14629 net.cpp:151] Top shape: 20 64 10 10 (128000)
I0501 20:53:13.282631 14629 net.cpp:159] Memory required for data: 2056240
I0501 20:53:13.282634 14629 layer_factory.hpp:77] Creating layer pool2
I0501 20:53:13.282641 14629 net.cpp:94] Creating Layer pool2
I0501 20:53:13.282644 14629 net.cpp:435] pool2 <- conv2
I0501 20:53:13.282649 14629 net.cpp:409] pool2 -> pool2
I0501 20:53:13.282680 14629 net.cpp:144] Setting up pool2
I0501 20:53:13.282687 14629 net.cpp:151] Top shape: 20 64 5 5 (32000)
I0501 20:53:13.282691 14629 net.cpp:159] Memory required for data: 2184240
I0501 20:53:13.282693 14629 layer_factory.hpp:77] Creating layer conv3
I0501 20:53:13.282701 14629 net.cpp:94] Creating Layer conv3
I0501 20:53:13.282706 14629 net.cpp:435] conv3 <- pool2
I0501 20:53:13.282711 14629 net.cpp:409] conv3 -> conv3
I0501 20:53:13.286491 14629 net.cpp:144] Setting up conv3
I0501 20:53:13.286505 14629 net.cpp:151] Top shape: 20 64 5 5 (32000)
I0501 20:53:13.286509 14629 net.cpp:159] Memory required for data: 2312240
I0501 20:53:13.286517 14629 layer_factory.hpp:77] Creating layer relu3
I0501 20:53:13.286525 14629 net.cpp:94] Creating Layer relu3
I0501 20:53:13.286528 14629 net.cpp:435] relu3 <- conv3
I0501 20:53:13.286533 14629 net.cpp:396] relu3 -> conv3 (in-place)
I0501 20:53:13.286540 14629 net.cpp:144] Setting up relu3
I0501 20:53:13.286545 14629 net.cpp:151] Top shape: 20 64 5 5 (32000)
I0501 20:53:13.286547 14629 net.cpp:159] Memory required for data: 2440240
I0501 20:53:13.286550 14629 layer_factory.hpp:77] Creating layer conv4
I0501 20:53:13.286558 14629 net.cpp:94] Creating Layer conv4
I0501 20:53:13.286562 14629 net.cpp:435] conv4 <- conv3
I0501 20:53:13.286566 14629 net.cpp:409] conv4 -> conv4
I0501 20:53:13.289958 14629 net.cpp:144] Setting up conv4
I0501 20:53:13.289973 14629 net.cpp:151] Top shape: 20 64 5 5 (32000)
I0501 20:53:13.289976 14629 net.cpp:159] Memory required for data: 2568240
I0501 20:53:13.289983 14629 layer_factory.hpp:77] Creating layer relu4
I0501 20:53:13.289990 14629 net.cpp:94] Creating Layer relu4
I0501 20:53:13.289994 14629 net.cpp:435] relu4 <- conv4
I0501 20:53:13.290002 14629 net.cpp:396] relu4 -> conv4 (in-place)
I0501 20:53:13.290009 14629 net.cpp:144] Setting up relu4
I0501 20:53:13.290014 14629 net.cpp:151] Top shape: 20 64 5 5 (32000)
I0501 20:53:13.290017 14629 net.cpp:159] Memory required for data: 2696240
I0501 20:53:13.290020 14629 layer_factory.hpp:77] Creating layer conv5
I0501 20:53:13.290029 14629 net.cpp:94] Creating Layer conv5
I0501 20:53:13.290031 14629 net.cpp:435] conv5 <- conv4
I0501 20:53:13.290036 14629 net.cpp:409] conv5 -> conv5
I0501 20:53:13.293457 14629 net.cpp:144] Setting up conv5
I0501 20:53:13.293475 14629 net.cpp:151] Top shape: 20 64 5 5 (32000)
I0501 20:53:13.293479 14629 net.cpp:159] Memory required for data: 2824240
I0501 20:53:13.293488 14629 layer_factory.hpp:77] Creating layer relu5
I0501 20:53:13.293493 14629 net.cpp:94] Creating Layer relu5
I0501 20:53:13.293498 14629 net.cpp:435] relu5 <- conv5
I0501 20:53:13.293503 14629 net.cpp:396] relu5 -> conv5 (in-place)
I0501 20:53:13.293510 14629 net.cpp:144] Setting up relu5
I0501 20:53:13.293514 14629 net.cpp:151] Top shape: 20 64 5 5 (32000)
I0501 20:53:13.293517 14629 net.cpp:159] Memory required for data: 2952240
I0501 20:53:13.293520 14629 layer_factory.hpp:77] Creating layer pool5
I0501 20:53:13.293525 14629 net.cpp:94] Creating Layer pool5
I0501 20:53:13.293529 14629 net.cpp:435] pool5 <- conv5
I0501 20:53:13.293534 14629 net.cpp:409] pool5 -> pool5
I0501 20:53:13.293557 14629 net.cpp:144] Setting up pool5
I0501 20:53:13.293563 14629 net.cpp:151] Top shape: 20 64 2 2 (5120)
I0501 20:53:13.293566 14629 net.cpp:159] Memory required for data: 2972720
I0501 20:53:13.293570 14629 layer_factory.hpp:77] Creating layer ip1
I0501 20:53:13.293577 14629 net.cpp:94] Creating Layer ip1
I0501 20:53:13.293581 14629 net.cpp:435] ip1 <- pool5
I0501 20:53:13.293586 14629 net.cpp:409] ip1 -> ip1
I0501 20:53:13.294055 14629 net.cpp:144] Setting up ip1
I0501 20:53:13.294064 14629 net.cpp:151] Top shape: 20 64 (1280)
I0501 20:53:13.294066 14629 net.cpp:159] Memory required for data: 2977840
I0501 20:53:13.294071 14629 layer_factory.hpp:77] Creating layer ip2
I0501 20:53:13.294077 14629 net.cpp:94] Creating Layer ip2
I0501 20:53:13.294080 14629 net.cpp:435] ip2 <- ip1
I0501 20:53:13.294086 14629 net.cpp:409] ip2 -> ip2
I0501 20:53:13.294255 14629 net.cpp:144] Setting up ip2
I0501 20:53:13.294261 14629 net.cpp:151] Top shape: 20 64 (1280)
I0501 20:53:13.294265 14629 net.cpp:159] Memory required for data: 2982960
I0501 20:53:13.294270 14629 layer_factory.hpp:77] Creating layer ip3
I0501 20:53:13.294278 14629 net.cpp:94] Creating Layer ip3
I0501 20:53:13.294282 14629 net.cpp:435] ip3 <- ip2
I0501 20:53:13.294287 14629 net.cpp:409] ip3 -> ip3
I0501 20:53:13.294435 14629 net.cpp:144] Setting up ip3
I0501 20:53:13.294442 14629 net.cpp:151] Top shape: 20 50 (1000)
I0501 20:53:13.294445 14629 net.cpp:159] Memory required for data: 2986960
I0501 20:53:13.294450 14629 layer_factory.hpp:77] Creating layer ip3_ip3_0_split
I0501 20:53:13.294455 14629 net.cpp:94] Creating Layer ip3_ip3_0_split
I0501 20:53:13.294458 14629 net.cpp:435] ip3_ip3_0_split <- ip3
I0501 20:53:13.294462 14629 net.cpp:409] ip3_ip3_0_split -> ip3_ip3_0_split_0
I0501 20:53:13.294467 14629 net.cpp:409] ip3_ip3_0_split -> ip3_ip3_0_split_1
I0501 20:53:13.294492 14629 net.cpp:144] Setting up ip3_ip3_0_split
I0501 20:53:13.294498 14629 net.cpp:151] Top shape: 20 50 (1000)
I0501 20:53:13.294502 14629 net.cpp:151] Top shape: 20 50 (1000)
I0501 20:53:13.294504 14629 net.cpp:159] Memory required for data: 2994960
I0501 20:53:13.294507 14629 layer_factory.hpp:77] Creating layer accuracy
I0501 20:53:13.294514 14629 net.cpp:94] Creating Layer accuracy
I0501 20:53:13.294517 14629 net.cpp:435] accuracy <- ip3_ip3_0_split_0
I0501 20:53:13.294522 14629 net.cpp:435] accuracy <- label_intercept_1_split_0
I0501 20:53:13.294525 14629 net.cpp:409] accuracy -> accuracy
…
