…
I0505 05:05:47.148612  3479 net.cpp:323] The NetState phase (0) differed from the phase (1) specified by a rule in layer intercept
I0505 05:05:47.148628  3479 net.cpp:323] The NetState phase (0) differed from the phase (1) specified by a rule in layer accuracy
I0505 05:05:47.148706  3479 net.cpp:52] Initializing net from parameters: 
state {
  phase: TRAIN
}
layer {
  name: "parameters"
  type: "HDF5Data"
  top: "data"
  top: "label"
  include {
    phase: TRAIN
  }
  hdf5_data_param {
    source: "/home/purduethu/scratch/radon/d/deng106/CNNStatisticalModel/distributions/input/20_distributions_900_sample_size_train-distributions-path.txt"
    batch_size: 20
  }
}
layer {
  name: "conv1"
  type: "Convolution"
  bottom: "data"
  top: "conv1"
  param {
    lr_mult: 1
  }
  param {
    lr_mult: 2
  }
  convolution_param {
    num_output: 64
    pad: 2
    kernel_size: 5
    stride: 1
    weight_filler {
      type: "gaussian"
      std: 0.0001
    }
    bias_filler {
      type: "constant"
    }
  }
}
layer {
  name: "relu1"
  type: "ReLU"
  bottom: "conv1"
  top: "conv1"
}
layer {
  name: "pool1"
  type: "Pooling"
  bottom: "conv1"
  top: "pool1"
  pooling_param {
    pool: MAX
    kernel_size: 3
    stride: 2
  }
}
layer {
  name: "conv2"
  type: "Convolution"
  bottom: "pool1"
  top: "conv2"
  param {
    lr_mult: 1
  }
  param {
    lr_mult: 2
  }
  convolution_param {
    num_output: 128
    pad: 2
    kernel_size: 5
    stride: 1
    weight_filler {
      type: "gaussian"
      std: 0.01
    }
    bias_filler {
      type: "constant"
    }
  }
}
layer {
  name: "relu2"
  type: "ReLU"
  bottom: "conv2"
  top: "conv2"
}
layer {
  name: "conv3"
  type: "Convolution"
  bottom: "conv2"
  top: "conv3"
  param {
    lr_mult: 1
  }
  param {
    lr_mult: 2
  }
  convolution_param {
    num_output: 128
    pad: 2
    kernel_size: 5
    stride: 1
    weight_filler {
      type: "gaussian"
      std: 0.01
    }
    bias_filler {
      type: "constant"
    }
  }
}
layer {
  name: "relu3"
  type: "ReLU"
  bottom: "conv3"
  top: "conv3"
}
layer {
  name: "pool3"
  type: "Pooling"
  bottom: "conv3"
  top: "pool3"
  pooling_param {
    pool: AVE
    kernel_size: 3
    stride: 2
  }
}
layer {
  name: "ip1"
  type: "InnerProduct"
  bottom: "pool3"
  top: "ip1"
  param {
    lr_mult: 1
  }
  param {
    lr_mult: 2
  }
  inner_product_param {
    num_output: 512
    weight_filler {
      type: "gaussian"
      std: 0.1
    }
    bias_filler {
      type: "constant"
    }
  }
}
layer {
  name: "ip2"
  type: "InnerProduct"
  bottom: "ip1"
  top: "ip2"
  param {
    lr_mult: 1
  }
  param {
    lr_mult: 2
  }
  inner_product_param {
    num_output: 256
    weight_filler {
      type: "gaussian"
      std: 0.1
    }
    bias_filler {
      type: "constant"
    }
  }
}
layer {
  name: "ip3"
  type: "InnerProduct"
  bottom: "ip2"
  top: "ip3"
  param {
    lr_mult: 1
  }
  param {
    lr_mult: 2
  }
  inner_product_param {
    num_output: 50
    weight_filler {
      type: "gaussian"
      std: 0.1
    }
    bias_filler {
      type: "constant"
    }
  }
}
layer {
  name: "loss"
  type: "SoftmaxWithLoss"
  bottom: "ip3"
  bottom: "label"
  top: "loss"
}
I0505 05:05:47.148767  3479 layer_factory.hpp:77] Creating layer parameters
I0505 05:05:47.148782  3479 net.cpp:94] Creating Layer parameters
I0505 05:05:47.148794  3479 net.cpp:409] parameters -> data
I0505 05:05:47.148813  3479 net.cpp:409] parameters -> label
I0505 05:05:47.148823  3479 hdf5_data_layer.cpp:79] Loading list of HDF5 filenames from: /home/purduethu/scratch/radon/d/deng106/CNNStatisticalModel/distributions/input/20_distributions_900_sample_size_train-distributions-path.txt
I0505 05:05:47.148855  3479 hdf5_data_layer.cpp:93] Number of HDF5 files: 1
I0505 05:05:47.149310  3479 hdf5.cpp:32] Datatype class: H5T_FLOAT
I0505 05:05:47.704641  3479 hdf5.cpp:35] Datatype class: H5T_INTEGER
I0505 05:05:47.706311  3479 net.cpp:144] Setting up parameters
I0505 05:05:47.706332  3479 net.cpp:151] Top shape: 20 1 30 30 (18000)
I0505 05:05:47.706338  3479 net.cpp:151] Top shape: 20 (20)
I0505 05:05:47.706342  3479 net.cpp:159] Memory required for data: 72080
I0505 05:05:47.706349  3479 layer_factory.hpp:77] Creating layer conv1
I0505 05:05:47.706372  3479 net.cpp:94] Creating Layer conv1
I0505 05:05:47.706378  3479 net.cpp:435] conv1 <- data
I0505 05:05:47.706389  3479 net.cpp:409] conv1 -> conv1
I0505 05:05:47.712203  3479 net.cpp:144] Setting up conv1
I0505 05:05:47.712220  3479 net.cpp:151] Top shape: 20 64 30 30 (1152000)
I0505 05:05:47.712225  3479 net.cpp:159] Memory required for data: 4680080
I0505 05:05:47.712237  3479 layer_factory.hpp:77] Creating layer relu1
I0505 05:05:47.712245  3479 net.cpp:94] Creating Layer relu1
I0505 05:05:47.712250  3479 net.cpp:435] relu1 <- conv1
I0505 05:05:47.712255  3479 net.cpp:396] relu1 -> conv1 (in-place)
I0505 05:05:47.712275  3479 net.cpp:144] Setting up relu1
I0505 05:05:47.712280  3479 net.cpp:151] Top shape: 20 64 30 30 (1152000)
I0505 05:05:47.712283  3479 net.cpp:159] Memory required for data: 9288080
I0505 05:05:47.712286  3479 layer_factory.hpp:77] Creating layer pool1
I0505 05:05:47.712293  3479 net.cpp:94] Creating Layer pool1
I0505 05:05:47.712297  3479 net.cpp:435] pool1 <- conv1
I0505 05:05:47.712302  3479 net.cpp:409] pool1 -> pool1
I0505 05:05:47.712342  3479 net.cpp:144] Setting up pool1
I0505 05:05:47.712349  3479 net.cpp:151] Top shape: 20 64 15 15 (288000)
I0505 05:05:47.712352  3479 net.cpp:159] Memory required for data: 10440080
I0505 05:05:47.712357  3479 layer_factory.hpp:77] Creating layer conv2
I0505 05:05:47.712365  3479 net.cpp:94] Creating Layer conv2
I0505 05:05:47.712369  3479 net.cpp:435] conv2 <- pool1
I0505 05:05:47.712374  3479 net.cpp:409] conv2 -> conv2
I0505 05:05:47.725004  3479 net.cpp:144] Setting up conv2
I0505 05:05:47.725020  3479 net.cpp:151] Top shape: 20 128 15 15 (576000)
I0505 05:05:47.725024  3479 net.cpp:159] Memory required for data: 12744080
I0505 05:05:47.725033  3479 layer_factory.hpp:77] Creating layer relu2
I0505 05:05:47.725039  3479 net.cpp:94] Creating Layer relu2
I0505 05:05:47.725044  3479 net.cpp:435] relu2 <- conv2
I0505 05:05:47.725049  3479 net.cpp:396] relu2 -> conv2 (in-place)
I0505 05:05:47.725055  3479 net.cpp:144] Setting up relu2
I0505 05:05:47.725060  3479 net.cpp:151] Top shape: 20 128 15 15 (576000)
I0505 05:05:47.725064  3479 net.cpp:159] Memory required for data: 15048080
I0505 05:05:47.725067  3479 layer_factory.hpp:77] Creating layer conv3
I0505 05:05:47.725075  3479 net.cpp:94] Creating Layer conv3
I0505 05:05:47.725078  3479 net.cpp:435] conv3 <- conv2
I0505 05:05:47.725083  3479 net.cpp:409] conv3 -> conv3
I0505 05:05:47.746561  3479 net.cpp:144] Setting up conv3
I0505 05:05:47.746575  3479 net.cpp:151] Top shape: 20 128 15 15 (576000)
I0505 05:05:47.746580  3479 net.cpp:159] Memory required for data: 17352080
I0505 05:05:47.746593  3479 layer_factory.hpp:77] Creating layer relu3
I0505 05:05:47.746600  3479 net.cpp:94] Creating Layer relu3
I0505 05:05:47.746604  3479 net.cpp:435] relu3 <- conv3
I0505 05:05:47.746608  3479 net.cpp:396] relu3 -> conv3 (in-place)
I0505 05:05:47.746616  3479 net.cpp:144] Setting up relu3
I0505 05:05:47.746620  3479 net.cpp:151] Top shape: 20 128 15 15 (576000)
I0505 05:05:47.746623  3479 net.cpp:159] Memory required for data: 19656080
I0505 05:05:47.746628  3479 layer_factory.hpp:77] Creating layer pool3
I0505 05:05:47.746639  3479 net.cpp:94] Creating Layer pool3
I0505 05:05:47.746644  3479 net.cpp:435] pool3 <- conv3
I0505 05:05:47.746647  3479 net.cpp:409] pool3 -> pool3
I0505 05:05:47.746681  3479 net.cpp:144] Setting up pool3
I0505 05:05:47.746688  3479 net.cpp:151] Top shape: 20 128 7 7 (125440)
I0505 05:05:47.746691  3479 net.cpp:159] Memory required for data: 20157840
I0505 05:05:47.746695  3479 layer_factory.hpp:77] Creating layer ip1
I0505 05:05:47.746706  3479 net.cpp:94] Creating Layer ip1
I0505 05:05:47.746709  3479 net.cpp:435] ip1 <- pool3
I0505 05:05:47.746714  3479 net.cpp:409] ip1 -> ip1
I0505 05:05:47.823777  3479 net.cpp:144] Setting up ip1
I0505 05:05:47.823807  3479 net.cpp:151] Top shape: 20 512 (10240)
I0505 05:05:47.823812  3479 net.cpp:159] Memory required for data: 20198800
I0505 05:05:47.823819  3479 layer_factory.hpp:77] Creating layer ip2
I0505 05:05:47.823828  3479 net.cpp:94] Creating Layer ip2
I0505 05:05:47.823832  3479 net.cpp:435] ip2 <- ip1
I0505 05:05:47.823838  3479 net.cpp:409] ip2 -> ip2
I0505 05:05:47.826974  3479 net.cpp:144] Setting up ip2
I0505 05:05:47.826983  3479 net.cpp:151] Top shape: 20 256 (5120)
I0505 05:05:47.826987  3479 net.cpp:159] Memory required for data: 20219280
I0505 05:05:47.826994  3479 layer_factory.hpp:77] Creating layer ip3
I0505 05:05:47.827000  3479 net.cpp:94] Creating Layer ip3
I0505 05:05:47.827004  3479 net.cpp:435] ip3 <- ip2
I0505 05:05:47.827008  3479 net.cpp:409] ip3 -> ip3
I0505 05:05:47.828079  3479 net.cpp:144] Setting up ip3
I0505 05:05:47.828092  3479 net.cpp:151] Top shape: 20 50 (1000)
I0505 05:05:47.828096  3479 net.cpp:159] Memory required for data: 20223280
I0505 05:05:47.828102  3479 layer_factory.hpp:77] Creating layer loss
I0505 05:05:47.828109  3479 net.cpp:94] Creating Layer loss
I0505 05:05:47.828111  3479 net.cpp:435] loss <- ip3
I0505 05:05:47.828116  3479 net.cpp:435] loss <- label
I0505 05:05:47.828121  3479 net.cpp:409] loss -> loss
I0505 05:05:47.828133  3479 layer_factory.hpp:77] Creating layer loss
…
I0505 05:05:47.828578  3479 solver.cpp:181] Creating test net (#0) specified by net file: ./protocol/dis_20_900_dimension.protocol_distribution
I0505 05:05:47.828611  3479 net.cpp:323] The NetState phase (1) differed from the phase (0) specified by a rule in layer parameters
I0505 05:05:47.828696  3479 net.cpp:52] Initializing net from parameters: 
state {
  phase: TEST
}
layer {
  name: "intercept"
  type: "HDF5Data"
  top: "data"
  top: "label"
  include {
    phase: TEST
  }
  hdf5_data_param {
    source: "/home/purduethu/scratch/radon/d/deng106/CNNStatisticalModel/distributions/input/20_distributions_900_sample_size_test-distributions-path.txt"
    batch_size: 20
  }
}
layer {
  name: "conv1"
  type: "Convolution"
  bottom: "data"
  top: "conv1"
  param {
    lr_mult: 1
  }
  param {
    lr_mult: 2
  }
  convolution_param {
    num_output: 64
    pad: 2
    kernel_size: 5
    stride: 1
    weight_filler {
      type: "gaussian"
      std: 0.0001
    }
    bias_filler {
      type: "constant"
    }
  }
}
layer {
  name: "relu1"
  type: "ReLU"
  bottom: "conv1"
  top: "conv1"
}
layer {
  name: "pool1"
  type: "Pooling"
  bottom: "conv1"
  top: "pool1"
  pooling_param {
    pool: MAX
    kernel_size: 3
    stride: 2
  }
}
layer {
  name: "conv2"
  type: "Convolution"
  bottom: "pool1"
  top: "conv2"
  param {
    lr_mult: 1
  }
  param {
    lr_mult: 2
  }
  convolution_param {
    num_output: 128
    pad: 2
    kernel_size: 5
    stride: 1
    weight_filler {
      type: "gaussian"
      std: 0.01
    }
    bias_filler {
      type: "constant"
    }
  }
}
layer {
  name: "relu2"
  type: "ReLU"
  bottom: "conv2"
  top: "conv2"
}
layer {
  name: "conv3"
  type: "Convolution"
  bottom: "conv2"
  top: "conv3"
  param {
    lr_mult: 1
  }
  param {
    lr_mult: 2
  }
  convolution_param {
    num_output: 128
    pad: 2
    kernel_size: 5
    stride: 1
    weight_filler {
      type: "gaussian"
      std: 0.01
    }
    bias_filler {
      type: "constant"
    }
  }
}
layer {
  name: "relu3"
  type: "ReLU"
  bottom: "conv3"
  top: "conv3"
}
layer {
  name: "pool3"
  type: "Pooling"
  bottom: "conv3"
  top: "pool3"
  pooling_param {
    pool: AVE
    kernel_size: 3
    stride: 2
  }
}
layer {
  name: "ip1"
  type: "InnerProduct"
  bottom: "pool3"
  top: "ip1"
  param {
    lr_mult: 1
  }
  param {
    lr_mult: 2
  }
  inner_product_param {
    num_output: 512
    weight_filler {
      type: "gaussian"
      std: 0.1
    }
    bias_filler {
      type: "constant"
    }
  }
}
layer {
  name: "ip2"
  type: "InnerProduct"
  bottom: "ip1"
  top: "ip2"
  param {
    lr_mult: 1
  }
  param {
    lr_mult: 2
  }
  inner_product_param {
    num_output: 256
    weight_filler {
      type: "gaussian"
      std: 0.1
    }
    bias_filler {
      type: "constant"
    }
  }
}
layer {
  name: "ip3"
  type: "InnerProduct"
  bottom: "ip2"
  top: "ip3"
  param {
    lr_mult: 1
  }
  param {
    lr_mult: 2
  }
  inner_product_param {
    num_output: 50
    weight_filler {
      type: "gaussian"
      std: 0.1
    }
    bias_filler {
      type: "constant"
    }
  }
}
layer {
  name: "accuracy"
  type: "Accuracy"
  bottom: "ip3"
  bottom: "label"
  top: "accuracy"
  include {
    phase: TEST
  }
}
layer {
  name: "loss"
  type: "SoftmaxWithLoss"
  bottom: "ip3"
  bottom: "label"
  top: "loss"
}
I0505 05:05:47.828761  3479 layer_factory.hpp:77] Creating layer intercept
I0505 05:05:47.828769  3479 net.cpp:94] Creating Layer intercept
I0505 05:05:47.828773  3479 net.cpp:409] intercept -> data
I0505 05:05:47.828780  3479 net.cpp:409] intercept -> label
I0505 05:05:47.828786  3479 hdf5_data_layer.cpp:79] Loading list of HDF5 filenames from: /home/purduethu/scratch/radon/d/deng106/CNNStatisticalModel/distributions/input/20_distributions_900_sample_size_test-distributions-path.txt
I0505 05:05:47.828806  3479 hdf5_data_layer.cpp:93] Number of HDF5 files: 1
I0505 05:05:47.972054  3479 net.cpp:144] Setting up intercept
I0505 05:05:47.972086  3479 net.cpp:151] Top shape: 20 1 30 30 (18000)
I0505 05:05:47.972091  3479 net.cpp:151] Top shape: 20 (20)
I0505 05:05:47.972095  3479 net.cpp:159] Memory required for data: 72080
I0505 05:05:47.972101  3479 layer_factory.hpp:77] Creating layer label_intercept_1_split
I0505 05:05:47.972126  3479 net.cpp:94] Creating Layer label_intercept_1_split
I0505 05:05:47.972131  3479 net.cpp:435] label_intercept_1_split <- label
I0505 05:05:47.972136  3479 net.cpp:409] label_intercept_1_split -> label_intercept_1_split_0
I0505 05:05:47.972144  3479 net.cpp:409] label_intercept_1_split -> label_intercept_1_split_1
I0505 05:05:47.972172  3479 net.cpp:144] Setting up label_intercept_1_split
I0505 05:05:47.972177  3479 net.cpp:151] Top shape: 20 (20)
I0505 05:05:47.972182  3479 net.cpp:151] Top shape: 20 (20)
I0505 05:05:47.972190  3479 net.cpp:159] Memory required for data: 72240
I0505 05:05:47.972194  3479 layer_factory.hpp:77] Creating layer conv1
I0505 05:05:47.972205  3479 net.cpp:94] Creating Layer conv1
I0505 05:05:47.972208  3479 net.cpp:435] conv1 <- data
I0505 05:05:47.972213  3479 net.cpp:409] conv1 -> conv1
I0505 05:05:47.973449  3479 net.cpp:144] Setting up conv1
I0505 05:05:47.973464  3479 net.cpp:151] Top shape: 20 64 30 30 (1152000)
I0505 05:05:47.973467  3479 net.cpp:159] Memory required for data: 4680240
I0505 05:05:47.973476  3479 layer_factory.hpp:77] Creating layer relu1
I0505 05:05:47.973484  3479 net.cpp:94] Creating Layer relu1
I0505 05:05:47.973487  3479 net.cpp:435] relu1 <- conv1
I0505 05:05:47.973491  3479 net.cpp:396] relu1 -> conv1 (in-place)
I0505 05:05:47.973500  3479 net.cpp:144] Setting up relu1
I0505 05:05:47.973503  3479 net.cpp:151] Top shape: 20 64 30 30 (1152000)
I0505 05:05:47.973506  3479 net.cpp:159] Memory required for data: 9288240
I0505 05:05:47.973510  3479 layer_factory.hpp:77] Creating layer pool1
I0505 05:05:47.973516  3479 net.cpp:94] Creating Layer pool1
I0505 05:05:47.973520  3479 net.cpp:435] pool1 <- conv1
I0505 05:05:47.973523  3479 net.cpp:409] pool1 -> pool1
I0505 05:05:47.973556  3479 net.cpp:144] Setting up pool1
I0505 05:05:47.973563  3479 net.cpp:151] Top shape: 20 64 15 15 (288000)
I0505 05:05:47.973567  3479 net.cpp:159] Memory required for data: 10440240
I0505 05:05:47.973570  3479 layer_factory.hpp:77] Creating layer conv2
I0505 05:05:47.973578  3479 net.cpp:94] Creating Layer conv2
I0505 05:05:47.973582  3479 net.cpp:435] conv2 <- pool1
I0505 05:05:47.973587  3479 net.cpp:409] conv2 -> conv2
I0505 05:05:47.981531  3479 net.cpp:144] Setting up conv2
I0505 05:05:47.981547  3479 net.cpp:151] Top shape: 20 128 15 15 (576000)
I0505 05:05:47.981551  3479 net.cpp:159] Memory required for data: 12744240
I0505 05:05:47.981559  3479 layer_factory.hpp:77] Creating layer relu2
I0505 05:05:47.981565  3479 net.cpp:94] Creating Layer relu2
I0505 05:05:47.981570  3479 net.cpp:435] relu2 <- conv2
I0505 05:05:47.981575  3479 net.cpp:396] relu2 -> conv2 (in-place)
I0505 05:05:47.981581  3479 net.cpp:144] Setting up relu2
I0505 05:05:47.981585  3479 net.cpp:151] Top shape: 20 128 15 15 (576000)
I0505 05:05:47.981588  3479 net.cpp:159] Memory required for data: 15048240
I0505 05:05:47.981591  3479 layer_factory.hpp:77] Creating layer conv3
I0505 05:05:47.981600  3479 net.cpp:94] Creating Layer conv3
I0505 05:05:47.981603  3479 net.cpp:435] conv3 <- conv2
I0505 05:05:47.981608  3479 net.cpp:409] conv3 -> conv3
I0505 05:05:47.996467  3479 net.cpp:144] Setting up conv3
I0505 05:05:47.996507  3479 net.cpp:151] Top shape: 20 128 15 15 (576000)
I0505 05:05:47.996520  3479 net.cpp:159] Memory required for data: 17352240
I0505 05:05:47.996541  3479 layer_factory.hpp:77] Creating layer relu3
I0505 05:05:47.996579  3479 net.cpp:94] Creating Layer relu3
I0505 05:05:47.996593  3479 net.cpp:435] relu3 <- conv3
I0505 05:05:47.996606  3479 net.cpp:396] relu3 -> conv3 (in-place)
I0505 05:05:47.996626  3479 net.cpp:144] Setting up relu3
I0505 05:05:47.996640  3479 net.cpp:151] Top shape: 20 128 15 15 (576000)
I0505 05:05:47.996649  3479 net.cpp:159] Memory required for data: 19656240
I0505 05:05:47.996659  3479 layer_factory.hpp:77] Creating layer pool3
I0505 05:05:47.996672  3479 net.cpp:94] Creating Layer pool3
I0505 05:05:47.996682  3479 net.cpp:435] pool3 <- conv3
I0505 05:05:47.996695  3479 net.cpp:409] pool3 -> pool3
I0505 05:05:47.996762  3479 net.cpp:144] Setting up pool3
I0505 05:05:47.996788  3479 net.cpp:151] Top shape: 20 128 7 7 (125440)
I0505 05:05:47.996798  3479 net.cpp:159] Memory required for data: 20158000
I0505 05:05:47.996809  3479 layer_factory.hpp:77] Creating layer ip1
I0505 05:05:47.996824  3479 net.cpp:94] Creating Layer ip1
I0505 05:05:47.996834  3479 net.cpp:435] ip1 <- pool3
I0505 05:05:47.996853  3479 net.cpp:409] ip1 -> ip1
I0505 05:05:48.073976  3479 net.cpp:144] Setting up ip1
I0505 05:05:48.074002  3479 net.cpp:151] Top shape: 20 512 (10240)
I0505 05:05:48.074007  3479 net.cpp:159] Memory required for data: 20198960
I0505 05:05:48.074026  3479 layer_factory.hpp:77] Creating layer ip2
I0505 05:05:48.074035  3479 net.cpp:94] Creating Layer ip2
I0505 05:05:48.074040  3479 net.cpp:435] ip2 <- ip1
I0505 05:05:48.074046  3479 net.cpp:409] ip2 -> ip2
I0505 05:05:48.077158  3479 net.cpp:144] Setting up ip2
I0505 05:05:48.077167  3479 net.cpp:151] Top shape: 20 256 (5120)
I0505 05:05:48.077170  3479 net.cpp:159] Memory required for data: 20219440
I0505 05:05:48.077178  3479 layer_factory.hpp:77] Creating layer ip3
I0505 05:05:48.077184  3479 net.cpp:94] Creating Layer ip3
I0505 05:05:48.077188  3479 net.cpp:435] ip3 <- ip2
I0505 05:05:48.077193  3479 net.cpp:409] ip3 -> ip3
I0505 05:05:48.077561  3479 net.cpp:144] Setting up ip3
I0505 05:05:48.077569  3479 net.cpp:151] Top shape: 20 50 (1000)
I0505 05:05:48.077571  3479 net.cpp:159] Memory required for data: 20223440
I0505 05:05:48.077576  3479 layer_factory.hpp:77] Creating layer ip3_ip3_0_split
I0505 05:05:48.077582  3479 net.cpp:94] Creating Layer ip3_ip3_0_split
I0505 05:05:48.077585  3479 net.cpp:435] ip3_ip3_0_split <- ip3
I0505 05:05:48.077589  3479 net.cpp:409] ip3_ip3_0_split -> ip3_ip3_0_split_0
I0505 05:05:48.077595  3479 net.cpp:409] ip3_ip3_0_split -> ip3_ip3_0_split_1
I0505 05:05:48.077618  3479 net.cpp:144] Setting up ip3_ip3_0_split
I0505 05:05:48.077623  3479 net.cpp:151] Top shape: 20 50 (1000)
I0505 05:05:48.077627  3479 net.cpp:151] Top shape: 20 50 (1000)
I0505 05:05:48.077630  3479 net.cpp:159] Memory required for data: 20231440
I0505 05:05:48.077633  3479 layer_factory.hpp:77] Creating layer accuracy
I0505 05:05:48.077639  3479 net.cpp:94] Creating Layer accuracy
I0505 05:05:48.077642  3479 net.cpp:435] accuracy <- ip3_ip3_0_split_0
I0505 05:05:48.077646  3479 net.cpp:435] accuracy <- label_intercept_1_split_0
I0505 05:05:48.077651  3479 net.cpp:409] accuracy -> accuracy
…
