…
I0507 12:52:02.838454  1628 net.cpp:323] The NetState phase (0) differed from the phase (1) specified by a rule in layer intercept
I0507 12:52:02.838471  1628 net.cpp:323] The NetState phase (0) differed from the phase (1) specified by a rule in layer loss
I0507 12:52:02.838553  1628 net.cpp:52] Initializing net from parameters: 
state {
  phase: TRAIN
}
layer {
  name: "parameters"
  type: "HDF5Data"
  top: "data"
  top: "label"
  include {
    phase: TRAIN
  }
  hdf5_data_param {
    source: "/home/purduethu/scratch/radon/d/deng106/CNNStatisticalModel/distributions/input/20_distributions_100_sample_size_train-parameters-path.txt"
    batch_size: 20
  }
}
layer {
  name: "conv1"
  type: "Convolution"
  bottom: "data"
  top: "conv1"
  param {
    lr_mult: 1
  }
  param {
    lr_mult: 2
  }
  convolution_param {
    num_output: 64
    pad: 2
    kernel_size: 5
    stride: 1
    weight_filler {
      type: "gaussian"
      std: 0.0001
    }
    bias_filler {
      type: "constant"
    }
  }
}
layer {
  name: "relu1"
  type: "ReLU"
  bottom: "conv1"
  top: "conv1"
}
layer {
  name: "conv2"
  type: "Convolution"
  bottom: "conv1"
  top: "conv2"
  param {
    lr_mult: 1
  }
  param {
    lr_mult: 2
  }
  convolution_param {
    num_output: 64
    pad: 2
    kernel_size: 5
    stride: 1
    weight_filler {
      type: "gaussian"
      std: 0.01
    }
    bias_filler {
      type: "constant"
    }
  }
}
layer {
  name: "relu2"
  type: "ReLU"
  bottom: "conv2"
  top: "conv2"
}
layer {
  name: "pool2"
  type: "Pooling"
  bottom: "conv2"
  top: "pool2"
  pooling_param {
    pool: MAX
    kernel_size: 3
    stride: 2
  }
}
layer {
  name: "conv3"
  type: "Convolution"
  bottom: "pool2"
  top: "conv3"
  param {
    lr_mult: 1
  }
  param {
    lr_mult: 2
  }
  convolution_param {
    num_output: 64
    pad: 2
    kernel_size: 5
    stride: 1
    weight_filler {
      type: "gaussian"
      std: 0.01
    }
    bias_filler {
      type: "constant"
    }
  }
}
layer {
  name: "relu3"
  type: "ReLU"
  bottom: "conv3"
  top: "conv3"
}
layer {
  name: "conv4"
  type: "Convolution"
  bottom: "conv3"
  top: "conv4"
  param {
    lr_mult: 1
  }
  param {
    lr_mult: 2
  }
  convolution_param {
    num_output: 64
    pad: 2
    kernel_size: 5
    stride: 1
    weight_filler {
      type: "gaussian"
      std: 0.01
    }
    bias_filler {
      type: "constant"
    }
  }
}
layer {
  name: "relu4"
  type: "ReLU"
  bottom: "conv4"
  top: "conv4"
}
layer {
  name: "conv5"
  type: "Convolution"
  bottom: "conv4"
  top: "conv5"
  param {
    lr_mult: 1
  }
  param {
    lr_mult: 2
  }
  convolution_param {
    num_output: 64
    pad: 2
    kernel_size: 5
    stride: 1
    weight_filler {
      type: "gaussian"
      std: 0.01
    }
    bias_filler {
      type: "constant"
    }
  }
}
layer {
  name: "relu5"
  type: "ReLU"
  bottom: "conv5"
  top: "conv5"
}
layer {
  name: "pool5"
  type: "Pooling"
  bottom: "conv5"
  top: "pool5"
  pooling_param {
    pool: AVE
    kernel_size: 3
    stride: 2
  }
}
layer {
  name: "ip1"
  type: "InnerProduct"
  bottom: "pool5"
  top: "ip1"
  param {
    lr_mult: 1
  }
  param {
    lr_mult: 2
  }
  inner_product_param {
    num_output: 64
    weight_filler {
      type: "gaussian"
      std: 0.1
    }
    bias_filler {
      type: "constant"
    }
  }
}
layer {
  name: "ip2"
  type: "InnerProduct"
  bottom: "ip1"
  top: "ip2"
  param {
    lr_mult: 1
  }
  param {
    lr_mult: 2
  }
  inner_product_param {
    num_output: 64
    weight_filler {
      type: "gaussian"
      std: 0.1
    }
    bias_filler {
      type: "constant"
    }
  }
}
layer {
  name: "ip3"
  type: "InnerProduct"
  bottom: "ip2"
  top: "ip3"
  param {
    lr_mult: 1
  }
  param {
    lr_mult: 2
  }
  inner_product_param {
    num_output: 1
    weight_filler {
      type: "gaussian"
      std: 0.1
    }
    bias_filler {
      type: "constant"
    }
  }
}
layer {
  name: "loss"
  type: "HuberLoss"
  bottom: "ip3"
  bottom: "label"
  top: "loss"
  include {
    phase: TRAIN
  }
}
I0507 12:52:02.838608  1628 layer_factory.hpp:77] Creating layer parameters
I0507 12:52:02.838623  1628 net.cpp:94] Creating Layer parameters
I0507 12:52:02.838627  1628 net.cpp:409] parameters -> data
I0507 12:52:02.838636  1628 net.cpp:409] parameters -> label
I0507 12:52:02.838647  1628 hdf5_data_layer.cpp:79] Loading list of HDF5 filenames from: /home/purduethu/scratch/radon/d/deng106/CNNStatisticalModel/distributions/input/20_distributions_100_sample_size_train-parameters-path.txt
I0507 12:52:02.838667  1628 hdf5_data_layer.cpp:93] Number of HDF5 files: 1
I0507 12:52:02.839232  1628 hdf5.cpp:32] Datatype class: H5T_FLOAT
I0507 12:52:02.914228  1628 net.cpp:144] Setting up parameters
I0507 12:52:02.914259  1628 net.cpp:151] Top shape: 20 1 10 10 (2000)
I0507 12:52:02.914265  1628 net.cpp:151] Top shape: 20 (20)
I0507 12:52:02.914268  1628 net.cpp:159] Memory required for data: 8080
I0507 12:52:02.914275  1628 layer_factory.hpp:77] Creating layer conv1
I0507 12:52:02.914291  1628 net.cpp:94] Creating Layer conv1
I0507 12:52:02.914296  1628 net.cpp:435] conv1 <- data
I0507 12:52:02.914302  1628 net.cpp:409] conv1 -> conv1
I0507 12:52:02.919064  1628 net.cpp:144] Setting up conv1
I0507 12:52:02.919080  1628 net.cpp:151] Top shape: 20 64 10 10 (128000)
I0507 12:52:02.919083  1628 net.cpp:159] Memory required for data: 520080
I0507 12:52:02.919095  1628 layer_factory.hpp:77] Creating layer relu1
I0507 12:52:02.919102  1628 net.cpp:94] Creating Layer relu1
I0507 12:52:02.919106  1628 net.cpp:435] relu1 <- conv1
I0507 12:52:02.919111  1628 net.cpp:396] relu1 -> conv1 (in-place)
I0507 12:52:02.919122  1628 net.cpp:144] Setting up relu1
I0507 12:52:02.919127  1628 net.cpp:151] Top shape: 20 64 10 10 (128000)
I0507 12:52:02.919131  1628 net.cpp:159] Memory required for data: 1032080
I0507 12:52:02.919134  1628 layer_factory.hpp:77] Creating layer conv2
I0507 12:52:02.919142  1628 net.cpp:94] Creating Layer conv2
I0507 12:52:02.919147  1628 net.cpp:435] conv2 <- conv1
I0507 12:52:02.919152  1628 net.cpp:409] conv2 -> conv2
I0507 12:52:02.924502  1628 net.cpp:144] Setting up conv2
I0507 12:52:02.924516  1628 net.cpp:151] Top shape: 20 64 10 10 (128000)
I0507 12:52:02.924520  1628 net.cpp:159] Memory required for data: 1544080
I0507 12:52:02.924528  1628 layer_factory.hpp:77] Creating layer relu2
I0507 12:52:02.924535  1628 net.cpp:94] Creating Layer relu2
I0507 12:52:02.924540  1628 net.cpp:435] relu2 <- conv2
I0507 12:52:02.924543  1628 net.cpp:396] relu2 -> conv2 (in-place)
I0507 12:52:02.924558  1628 net.cpp:144] Setting up relu2
I0507 12:52:02.924564  1628 net.cpp:151] Top shape: 20 64 10 10 (128000)
I0507 12:52:02.924568  1628 net.cpp:159] Memory required for data: 2056080
I0507 12:52:02.924571  1628 layer_factory.hpp:77] Creating layer pool2
I0507 12:52:02.924583  1628 net.cpp:94] Creating Layer pool2
I0507 12:52:02.924587  1628 net.cpp:435] pool2 <- conv2
I0507 12:52:02.924592  1628 net.cpp:409] pool2 -> pool2
I0507 12:52:02.924644  1628 net.cpp:144] Setting up pool2
I0507 12:52:02.924652  1628 net.cpp:151] Top shape: 20 64 5 5 (32000)
I0507 12:52:02.924655  1628 net.cpp:159] Memory required for data: 2184080
I0507 12:52:02.924659  1628 layer_factory.hpp:77] Creating layer conv3
I0507 12:52:02.924667  1628 net.cpp:94] Creating Layer conv3
I0507 12:52:02.924671  1628 net.cpp:435] conv3 <- pool2
I0507 12:52:02.924676  1628 net.cpp:409] conv3 -> conv3
I0507 12:52:02.929630  1628 net.cpp:144] Setting up conv3
I0507 12:52:02.929643  1628 net.cpp:151] Top shape: 20 64 5 5 (32000)
I0507 12:52:02.929647  1628 net.cpp:159] Memory required for data: 2312080
I0507 12:52:02.929656  1628 layer_factory.hpp:77] Creating layer relu3
I0507 12:52:02.929662  1628 net.cpp:94] Creating Layer relu3
I0507 12:52:02.929666  1628 net.cpp:435] relu3 <- conv3
I0507 12:52:02.929671  1628 net.cpp:396] relu3 -> conv3 (in-place)
I0507 12:52:02.929677  1628 net.cpp:144] Setting up relu3
I0507 12:52:02.929682  1628 net.cpp:151] Top shape: 20 64 5 5 (32000)
I0507 12:52:02.929685  1628 net.cpp:159] Memory required for data: 2440080
I0507 12:52:02.929688  1628 layer_factory.hpp:77] Creating layer conv4
I0507 12:52:02.929697  1628 net.cpp:94] Creating Layer conv4
I0507 12:52:02.929702  1628 net.cpp:435] conv4 <- conv3
I0507 12:52:02.929707  1628 net.cpp:409] conv4 -> conv4
I0507 12:52:02.934186  1628 net.cpp:144] Setting up conv4
I0507 12:52:02.934201  1628 net.cpp:151] Top shape: 20 64 5 5 (32000)
I0507 12:52:02.934203  1628 net.cpp:159] Memory required for data: 2568080
I0507 12:52:02.934211  1628 layer_factory.hpp:77] Creating layer relu4
I0507 12:52:02.934216  1628 net.cpp:94] Creating Layer relu4
I0507 12:52:02.934221  1628 net.cpp:435] relu4 <- conv4
I0507 12:52:02.934226  1628 net.cpp:396] relu4 -> conv4 (in-place)
I0507 12:52:02.934232  1628 net.cpp:144] Setting up relu4
I0507 12:52:02.934237  1628 net.cpp:151] Top shape: 20 64 5 5 (32000)
I0507 12:52:02.934239  1628 net.cpp:159] Memory required for data: 2696080
I0507 12:52:02.934242  1628 layer_factory.hpp:77] Creating layer conv5
I0507 12:52:02.934250  1628 net.cpp:94] Creating Layer conv5
I0507 12:52:02.934253  1628 net.cpp:435] conv5 <- conv4
I0507 12:52:02.934258  1628 net.cpp:409] conv5 -> conv5
I0507 12:52:02.940017  1628 net.cpp:144] Setting up conv5
I0507 12:52:02.940032  1628 net.cpp:151] Top shape: 20 64 5 5 (32000)
I0507 12:52:02.940035  1628 net.cpp:159] Memory required for data: 2824080
I0507 12:52:02.940044  1628 layer_factory.hpp:77] Creating layer relu5
I0507 12:52:02.940050  1628 net.cpp:94] Creating Layer relu5
I0507 12:52:02.940054  1628 net.cpp:435] relu5 <- conv5
I0507 12:52:02.940058  1628 net.cpp:396] relu5 -> conv5 (in-place)
I0507 12:52:02.940065  1628 net.cpp:144] Setting up relu5
I0507 12:52:02.940070  1628 net.cpp:151] Top shape: 20 64 5 5 (32000)
I0507 12:52:02.940073  1628 net.cpp:159] Memory required for data: 2952080
I0507 12:52:02.940076  1628 layer_factory.hpp:77] Creating layer pool5
I0507 12:52:02.940083  1628 net.cpp:94] Creating Layer pool5
I0507 12:52:02.940085  1628 net.cpp:435] pool5 <- conv5
I0507 12:52:02.940089  1628 net.cpp:409] pool5 -> pool5
I0507 12:52:02.940127  1628 net.cpp:144] Setting up pool5
I0507 12:52:02.940135  1628 net.cpp:151] Top shape: 20 64 2 2 (5120)
I0507 12:52:02.940138  1628 net.cpp:159] Memory required for data: 2972560
I0507 12:52:02.940141  1628 layer_factory.hpp:77] Creating layer ip1
I0507 12:52:02.940148  1628 net.cpp:94] Creating Layer ip1
I0507 12:52:02.940152  1628 net.cpp:435] ip1 <- pool5
I0507 12:52:02.940157  1628 net.cpp:409] ip1 -> ip1
I0507 12:52:02.941504  1628 net.cpp:144] Setting up ip1
I0507 12:52:02.941519  1628 net.cpp:151] Top shape: 20 64 (1280)
I0507 12:52:02.941522  1628 net.cpp:159] Memory required for data: 2977680
I0507 12:52:02.941529  1628 layer_factory.hpp:77] Creating layer ip2
I0507 12:52:02.941536  1628 net.cpp:94] Creating Layer ip2
I0507 12:52:02.941545  1628 net.cpp:435] ip2 <- ip1
I0507 12:52:02.941550  1628 net.cpp:409] ip2 -> ip2
I0507 12:52:02.941764  1628 net.cpp:144] Setting up ip2
I0507 12:52:02.941772  1628 net.cpp:151] Top shape: 20 64 (1280)
I0507 12:52:02.941776  1628 net.cpp:159] Memory required for data: 2982800
I0507 12:52:02.941781  1628 layer_factory.hpp:77] Creating layer ip3
I0507 12:52:02.941787  1628 net.cpp:94] Creating Layer ip3
I0507 12:52:02.941792  1628 net.cpp:435] ip3 <- ip2
I0507 12:52:02.941797  1628 net.cpp:409] ip3 -> ip3
I0507 12:52:02.941898  1628 net.cpp:144] Setting up ip3
I0507 12:52:02.941905  1628 net.cpp:151] Top shape: 20 1 (20)
I0507 12:52:02.941908  1628 net.cpp:159] Memory required for data: 2982880
I0507 12:52:02.941913  1628 layer_factory.hpp:77] Creating layer loss
I0507 12:52:02.941925  1628 net.cpp:94] Creating Layer loss
I0507 12:52:02.941928  1628 net.cpp:435] loss <- ip3
I0507 12:52:02.941932  1628 net.cpp:435] loss <- label
I0507 12:52:02.941936  1628 net.cpp:409] loss -> loss
I0507 12:52:02.941987  1628 net.cpp:144] Setting up loss
…
I0507 12:52:02.980171  1628 net.cpp:323] The NetState phase (0) differed from the phase (1) specified by a rule in layer intercept
I0507 12:52:02.980190  1628 net.cpp:323] The NetState phase (0) differed from the phase (1) specified by a rule in layer accuracy
I0507 12:52:02.980279  1628 net.cpp:52] Initializing net from parameters: 
state {
  phase: TRAIN
}
layer {
  name: "parameters"
  type: "HDF5Data"
  top: "data"
  top: "label"
  include {
    phase: TRAIN
  }
  hdf5_data_param {
    source: "/home/purduethu/scratch/radon/d/deng106/CNNStatisticalModel/distributions/input/20_distributions_100_sample_size_train-distributions-path.txt"
    batch_size: 20
  }
}
layer {
  name: "conv1"
  type: "Convolution"
  bottom: "data"
  top: "conv1"
  param {
    lr_mult: 1
  }
  param {
    lr_mult: 2
  }
  convolution_param {
    num_output: 64
    pad: 2
    kernel_size: 5
    stride: 1
    weight_filler {
      type: "gaussian"
      std: 0.0001
    }
    bias_filler {
      type: "constant"
    }
  }
}
layer {
  name: "relu1"
  type: "ReLU"
  bottom: "conv1"
  top: "conv1"
}
layer {
  name: "conv2"
  type: "Convolution"
  bottom: "conv1"
  top: "conv2"
  param {
    lr_mult: 1
  }
  param {
    lr_mult: 2
  }
  convolution_param {
    num_output: 64
    pad: 2
    kernel_size: 5
    stride: 1
    weight_filler {
      type: "gaussian"
      std: 0.01
    }
    bias_filler {
      type: "constant"
    }
  }
}
layer {
  name: "relu2"
  type: "ReLU"
  bottom: "conv2"
  top: "conv2"
}
layer {
  name: "pool2"
  type: "Pooling"
  bottom: "conv2"
  top: "pool2"
  pooling_param {
    pool: MAX
    kernel_size: 3
    stride: 2
  }
}
layer {
  name: "conv3"
  type: "Convolution"
  bottom: "pool2"
  top: "conv3"
  param {
    lr_mult: 1
  }
  param {
    lr_mult: 2
  }
  convolution_param {
    num_output: 64
    pad: 2
    kernel_size: 5
    stride: 1
    weight_filler {
      type: "gaussian"
      std: 0.01
    }
    bias_filler {
      type: "constant"
    }
  }
}
layer {
  name: "relu3"
  type: "ReLU"
  bottom: "conv3"
  top: "conv3"
}
layer {
  name: "conv4"
  type: "Convolution"
  bottom: "conv3"
  top: "conv4"
  param {
    lr_mult: 1
  }
  param {
    lr_mult: 2
  }
  convolution_param {
    num_output: 64
    pad: 2
    kernel_size: 5
    stride: 1
    weight_filler {
      type: "gaussian"
      std: 0.01
    }
    bias_filler {
      type: "constant"
    }
  }
}
layer {
  name: "relu4"
  type: "ReLU"
  bottom: "conv4"
  top: "conv4"
}
layer {
  name: "conv5"
  type: "Convolution"
  bottom: "conv4"
  top: "conv5"
  param {
    lr_mult: 1
  }
  param {
    lr_mult: 2
  }
  convolution_param {
    num_output: 64
    pad: 2
    kernel_size: 5
    stride: 1
    weight_filler {
      type: "gaussian"
      std: 0.01
    }
    bias_filler {
      type: "constant"
    }
  }
}
layer {
  name: "relu5"
  type: "ReLU"
  bottom: "conv5"
  top: "conv5"
}
layer {
  name: "pool5"
  type: "Pooling"
  bottom: "conv5"
  top: "pool5"
  pooling_param {
    pool: AVE
    kernel_size: 3
    stride: 2
  }
}
layer {
  name: "ip1"
  type: "InnerProduct"
  bottom: "pool5"
  top: "ip1"
  param {
    lr_mult: 1
  }
  param {
    lr_mult: 2
  }
  inner_product_param {
    num_output: 64
    weight_filler {
      type: "gaussian"
      std: 0.1
    }
    bias_filler {
      type: "constant"
    }
  }
}
layer {
  name: "ip2"
  type: "InnerProduct"
  bottom: "ip1"
  top: "ip2"
  param {
    lr_mult: 1
  }
  param {
    lr_mult: 2
  }
  inner_product_param {
    num_output: 64
    weight_filler {
      type: "gaussian"
      std: 0.1
    }
    bias_filler {
      type: "constant"
    }
  }
}
layer {
  name: "ip3"
  type: "InnerProduct"
  bottom: "ip2"
  top: "ip3"
  param {
    lr_mult: 1
  }
  param {
    lr_mult: 2
  }
  inner_product_param {
    num_output: 50
    weight_filler {
      type: "gaussian"
      std: 0.1
    }
    bias_filler {
      type: "constant"
    }
  }
}
layer {
  name: "loss"
  type: "SoftmaxWithLoss"
  bottom: "ip3"
  bottom: "label"
  top: "loss"
}
I0507 12:52:02.980335  1628 layer_factory.hpp:77] Creating layer parameters
I0507 12:52:02.980345  1628 net.cpp:94] Creating Layer parameters
I0507 12:52:02.980350  1628 net.cpp:409] parameters -> data
I0507 12:52:02.980356  1628 net.cpp:409] parameters -> label
I0507 12:52:02.980362  1628 hdf5_data_layer.cpp:79] Loading list of HDF5 filenames from: /home/purduethu/scratch/radon/d/deng106/CNNStatisticalModel/distributions/input/20_distributions_100_sample_size_train-distributions-path.txt
I0507 12:52:02.980381  1628 hdf5_data_layer.cpp:93] Number of HDF5 files: 1
I0507 12:52:03.047137  1628 hdf5.cpp:35] Datatype class: H5T_INTEGER
I0507 12:52:03.049151  1628 net.cpp:144] Setting up parameters
I0507 12:52:03.049167  1628 net.cpp:151] Top shape: 20 1 10 10 (2000)
I0507 12:52:03.049173  1628 net.cpp:151] Top shape: 20 (20)
I0507 12:52:03.049176  1628 net.cpp:159] Memory required for data: 8080
I0507 12:52:03.049182  1628 layer_factory.hpp:77] Creating layer conv1
I0507 12:52:03.049199  1628 net.cpp:94] Creating Layer conv1
I0507 12:52:03.049204  1628 net.cpp:435] conv1 <- data
I0507 12:52:03.049211  1628 net.cpp:409] conv1 -> conv1
I0507 12:52:03.050990  1628 net.cpp:144] Setting up conv1
I0507 12:52:03.051003  1628 net.cpp:151] Top shape: 20 64 10 10 (128000)
I0507 12:52:03.051007  1628 net.cpp:159] Memory required for data: 520080
I0507 12:52:03.051017  1628 layer_factory.hpp:77] Creating layer relu1
I0507 12:52:03.051025  1628 net.cpp:94] Creating Layer relu1
I0507 12:52:03.051029  1628 net.cpp:435] relu1 <- conv1
I0507 12:52:03.051034  1628 net.cpp:396] relu1 -> conv1 (in-place)
I0507 12:52:03.051041  1628 net.cpp:144] Setting up relu1
I0507 12:52:03.051046  1628 net.cpp:151] Top shape: 20 64 10 10 (128000)
I0507 12:52:03.051049  1628 net.cpp:159] Memory required for data: 1032080
I0507 12:52:03.051053  1628 layer_factory.hpp:77] Creating layer conv2
I0507 12:52:03.051060  1628 net.cpp:94] Creating Layer conv2
I0507 12:52:03.051064  1628 net.cpp:435] conv2 <- conv1
I0507 12:52:03.051069  1628 net.cpp:409] conv2 -> conv2
I0507 12:52:03.057633  1628 net.cpp:144] Setting up conv2
I0507 12:52:03.057647  1628 net.cpp:151] Top shape: 20 64 10 10 (128000)
I0507 12:52:03.057651  1628 net.cpp:159] Memory required for data: 1544080
I0507 12:52:03.057659  1628 layer_factory.hpp:77] Creating layer relu2
I0507 12:52:03.057667  1628 net.cpp:94] Creating Layer relu2
I0507 12:52:03.057670  1628 net.cpp:435] relu2 <- conv2
I0507 12:52:03.057675  1628 net.cpp:396] relu2 -> conv2 (in-place)
I0507 12:52:03.057682  1628 net.cpp:144] Setting up relu2
I0507 12:52:03.057687  1628 net.cpp:151] Top shape: 20 64 10 10 (128000)
I0507 12:52:03.057689  1628 net.cpp:159] Memory required for data: 2056080
I0507 12:52:03.057693  1628 layer_factory.hpp:77] Creating layer pool2
I0507 12:52:03.057699  1628 net.cpp:94] Creating Layer pool2
I0507 12:52:03.057703  1628 net.cpp:435] pool2 <- conv2
I0507 12:52:03.057708  1628 net.cpp:409] pool2 -> pool2
I0507 12:52:03.057757  1628 net.cpp:144] Setting up pool2
I0507 12:52:03.057765  1628 net.cpp:151] Top shape: 20 64 5 5 (32000)
I0507 12:52:03.057768  1628 net.cpp:159] Memory required for data: 2184080
I0507 12:52:03.057771  1628 layer_factory.hpp:77] Creating layer conv3
I0507 12:52:03.057780  1628 net.cpp:94] Creating Layer conv3
I0507 12:52:03.057783  1628 net.cpp:435] conv3 <- pool2
I0507 12:52:03.057788  1628 net.cpp:409] conv3 -> conv3
I0507 12:52:03.062785  1628 net.cpp:144] Setting up conv3
I0507 12:52:03.062799  1628 net.cpp:151] Top shape: 20 64 5 5 (32000)
I0507 12:52:03.062803  1628 net.cpp:159] Memory required for data: 2312080
I0507 12:52:03.062811  1628 layer_factory.hpp:77] Creating layer relu3
I0507 12:52:03.062818  1628 net.cpp:94] Creating Layer relu3
I0507 12:52:03.062821  1628 net.cpp:435] relu3 <- conv3
I0507 12:52:03.062825  1628 net.cpp:396] relu3 -> conv3 (in-place)
I0507 12:52:03.062832  1628 net.cpp:144] Setting up relu3
I0507 12:52:03.062837  1628 net.cpp:151] Top shape: 20 64 5 5 (32000)
I0507 12:52:03.062840  1628 net.cpp:159] Memory required for data: 2440080
I0507 12:52:03.062844  1628 layer_factory.hpp:77] Creating layer conv4
I0507 12:52:03.062852  1628 net.cpp:94] Creating Layer conv4
I0507 12:52:03.062856  1628 net.cpp:435] conv4 <- conv3
I0507 12:52:03.062861  1628 net.cpp:409] conv4 -> conv4
I0507 12:52:03.067807  1628 net.cpp:144] Setting up conv4
I0507 12:52:03.067821  1628 net.cpp:151] Top shape: 20 64 5 5 (32000)
I0507 12:52:03.067826  1628 net.cpp:159] Memory required for data: 2568080
I0507 12:52:03.067831  1628 layer_factory.hpp:77] Creating layer relu4
I0507 12:52:03.067837  1628 net.cpp:94] Creating Layer relu4
I0507 12:52:03.067842  1628 net.cpp:435] relu4 <- conv4
I0507 12:52:03.067847  1628 net.cpp:396] relu4 -> conv4 (in-place)
I0507 12:52:03.067853  1628 net.cpp:144] Setting up relu4
I0507 12:52:03.067858  1628 net.cpp:151] Top shape: 20 64 5 5 (32000)
I0507 12:52:03.067862  1628 net.cpp:159] Memory required for data: 2696080
I0507 12:52:03.067864  1628 layer_factory.hpp:77] Creating layer conv5
I0507 12:52:03.067873  1628 net.cpp:94] Creating Layer conv5
I0507 12:52:03.067875  1628 net.cpp:435] conv5 <- conv4
I0507 12:52:03.067880  1628 net.cpp:409] conv5 -> conv5
I0507 12:52:03.073233  1628 net.cpp:144] Setting up conv5
I0507 12:52:03.073248  1628 net.cpp:151] Top shape: 20 64 5 5 (32000)
I0507 12:52:03.073252  1628 net.cpp:159] Memory required for data: 2824080
I0507 12:52:03.073261  1628 layer_factory.hpp:77] Creating layer relu5
I0507 12:52:03.073266  1628 net.cpp:94] Creating Layer relu5
I0507 12:52:03.073271  1628 net.cpp:435] relu5 <- conv5
I0507 12:52:03.073276  1628 net.cpp:396] relu5 -> conv5 (in-place)
I0507 12:52:03.073282  1628 net.cpp:144] Setting up relu5
I0507 12:52:03.073287  1628 net.cpp:151] Top shape: 20 64 5 5 (32000)
I0507 12:52:03.073289  1628 net.cpp:159] Memory required for data: 2952080
I0507 12:52:03.073292  1628 layer_factory.hpp:77] Creating layer pool5
I0507 12:52:03.073298  1628 net.cpp:94] Creating Layer pool5
I0507 12:52:03.073302  1628 net.cpp:435] pool5 <- conv5
I0507 12:52:03.073307  1628 net.cpp:409] pool5 -> pool5
I0507 12:52:03.073340  1628 net.cpp:144] Setting up pool5
I0507 12:52:03.073348  1628 net.cpp:151] Top shape: 20 64 2 2 (5120)
I0507 12:52:03.073351  1628 net.cpp:159] Memory required for data: 2972560
I0507 12:52:03.073354  1628 layer_factory.hpp:77] Creating layer ip1
I0507 12:52:03.073361  1628 net.cpp:94] Creating Layer ip1
I0507 12:52:03.073365  1628 net.cpp:435] ip1 <- pool5
I0507 12:52:03.073370  1628 net.cpp:409] ip1 -> ip1
I0507 12:52:03.073894  1628 net.cpp:144] Setting up ip1
I0507 12:52:03.073901  1628 net.cpp:151] Top shape: 20 64 (1280)
I0507 12:52:03.073905  1628 net.cpp:159] Memory required for data: 2977680
I0507 12:52:03.073910  1628 layer_factory.hpp:77] Creating layer ip2
I0507 12:52:03.073916  1628 net.cpp:94] Creating Layer ip2
I0507 12:52:03.073920  1628 net.cpp:435] ip2 <- ip1
I0507 12:52:03.073925  1628 net.cpp:409] ip2 -> ip2
I0507 12:52:03.074143  1628 net.cpp:144] Setting up ip2
I0507 12:52:03.074151  1628 net.cpp:151] Top shape: 20 64 (1280)
I0507 12:52:03.074153  1628 net.cpp:159] Memory required for data: 2982800
I0507 12:52:03.074159  1628 layer_factory.hpp:77] Creating layer ip3
I0507 12:52:03.074164  1628 net.cpp:94] Creating Layer ip3
I0507 12:52:03.074168  1628 net.cpp:435] ip3 <- ip2
I0507 12:52:03.074173  1628 net.cpp:409] ip3 -> ip3
I0507 12:52:03.074365  1628 net.cpp:144] Setting up ip3
I0507 12:52:03.074373  1628 net.cpp:151] Top shape: 20 50 (1000)
I0507 12:52:03.074381  1628 net.cpp:159] Memory required for data: 2986800
I0507 12:52:03.074388  1628 layer_factory.hpp:77] Creating layer loss
I0507 12:52:03.074394  1628 net.cpp:94] Creating Layer loss
I0507 12:52:03.074398  1628 net.cpp:435] loss <- ip3
I0507 12:52:03.074401  1628 net.cpp:435] loss <- label
I0507 12:52:03.074406  1628 net.cpp:409] loss -> loss
I0507 12:52:03.074414  1628 layer_factory.hpp:77] Creating layer loss
…
I0507 12:52:03.075770  1628 solver.cpp:181] Creating test net (#0) specified by net file: ./protocol/dis_20_100_dimension.protocol_distribution
I0507 12:52:03.075798  1628 net.cpp:323] The NetState phase (1) differed from the phase (0) specified by a rule in layer parameters
I0507 12:52:03.075896  1628 net.cpp:52] Initializing net from parameters: 
state {
  phase: TEST
}
layer {
  name: "intercept"
  type: "HDF5Data"
  top: "data"
  top: "label"
  include {
    phase: TEST
  }
  hdf5_data_param {
    source: "/home/purduethu/scratch/radon/d/deng106/CNNStatisticalModel/distributions/input/20_distributions_100_sample_size_test-distributions-path.txt"
    batch_size: 20
  }
}
layer {
  name: "conv1"
  type: "Convolution"
  bottom: "data"
  top: "conv1"
  param {
    lr_mult: 1
  }
  param {
    lr_mult: 2
  }
  convolution_param {
    num_output: 64
    pad: 2
    kernel_size: 5
    stride: 1
    weight_filler {
      type: "gaussian"
      std: 0.0001
    }
    bias_filler {
      type: "constant"
    }
  }
}
layer {
  name: "relu1"
  type: "ReLU"
  bottom: "conv1"
  top: "conv1"
}
layer {
  name: "conv2"
  type: "Convolution"
  bottom: "conv1"
  top: "conv2"
  param {
    lr_mult: 1
  }
  param {
    lr_mult: 2
  }
  convolution_param {
    num_output: 64
    pad: 2
    kernel_size: 5
    stride: 1
    weight_filler {
      type: "gaussian"
      std: 0.01
    }
    bias_filler {
      type: "constant"
    }
  }
}
layer {
  name: "relu2"
  type: "ReLU"
  bottom: "conv2"
  top: "conv2"
}
layer {
  name: "pool2"
  type: "Pooling"
  bottom: "conv2"
  top: "pool2"
  pooling_param {
    pool: MAX
    kernel_size: 3
    stride: 2
  }
}
layer {
  name: "conv3"
  type: "Convolution"
  bottom: "pool2"
  top: "conv3"
  param {
    lr_mult: 1
  }
  param {
    lr_mult: 2
  }
  convolution_param {
    num_output: 64
    pad: 2
    kernel_size: 5
    stride: 1
    weight_filler {
      type: "gaussian"
      std: 0.01
    }
    bias_filler {
      type: "constant"
    }
  }
}
layer {
  name: "relu3"
  type: "ReLU"
  bottom: "conv3"
  top: "conv3"
}
layer {
  name: "conv4"
  type: "Convolution"
  bottom: "conv3"
  top: "conv4"
  param {
    lr_mult: 1
  }
  param {
    lr_mult: 2
  }
  convolution_param {
    num_output: 64
    pad: 2
    kernel_size: 5
    stride: 1
    weight_filler {
      type: "gaussian"
      std: 0.01
    }
    bias_filler {
      type: "constant"
    }
  }
}
layer {
  name: "relu4"
  type: "ReLU"
  bottom: "conv4"
  top: "conv4"
}
layer {
  name: "conv5"
  type: "Convolution"
  bottom: "conv4"
  top: "conv5"
  param {
    lr_mult: 1
  }
  param {
    lr_mult: 2
  }
  convolution_param {
    num_output: 64
    pad: 2
    kernel_size: 5
    stride: 1
    weight_filler {
      type: "gaussian"
      std: 0.01
    }
    bias_filler {
      type: "constant"
    }
  }
}
layer {
  name: "relu5"
  type: "ReLU"
  bottom: "conv5"
  top: "conv5"
}
layer {
  name: "pool5"
  type: "Pooling"
  bottom: "conv5"
  top: "pool5"
  pooling_param {
    pool: AVE
    kernel_size: 3
    stride: 2
  }
}
layer {
  name: "ip1"
  type: "InnerProduct"
  bottom: "pool5"
  top: "ip1"
  param {
    lr_mult: 1
  }
  param {
    lr_mult: 2
  }
  inner_product_param {
    num_output: 64
    weight_filler {
      type: "gaussian"
      std: 0.1
    }
    bias_filler {
      type: "constant"
    }
  }
}
layer {
  name: "ip2"
  type: "InnerProduct"
  bottom: "ip1"
  top: "ip2"
  param {
    lr_mult: 1
  }
  param {
    lr_mult: 2
  }
  inner_product_param {
    num_output: 64
    weight_filler {
      type: "gaussian"
      std: 0.1
    }
    bias_filler {
      type: "constant"
    }
  }
}
layer {
  name: "ip3"
  type: "InnerProduct"
  bottom: "ip2"
  top: "ip3"
  param {
    lr_mult: 1
  }
  param {
    lr_mult: 2
  }
  inner_product_param {
    num_output: 50
    weight_filler {
      type: "gaussian"
      std: 0.1
    }
    bias_filler {
      type: "constant"
    }
  }
}
layer {
  name: "accuracy"
  type: "Accuracy"
  bottom: "ip3"
  bottom: "label"
  top: "accuracy"
  include {
    phase: TEST
  }
}
layer {
  name: "loss"
  type: "SoftmaxWithLoss"
  bottom: "ip3"
  bottom: "label"
  top: "loss"
}
I0507 12:52:03.075963  1628 layer_factory.hpp:77] Creating layer intercept
I0507 12:52:03.075973  1628 net.cpp:94] Creating Layer intercept
I0507 12:52:03.075978  1628 net.cpp:409] intercept -> data
I0507 12:52:03.075985  1628 net.cpp:409] intercept -> label
I0507 12:52:03.075991  1628 hdf5_data_layer.cpp:79] Loading list of HDF5 filenames from: /home/purduethu/scratch/radon/d/deng106/CNNStatisticalModel/distributions/input/20_distributions_100_sample_size_test-distributions-path.txt
I0507 12:52:03.076017  1628 hdf5_data_layer.cpp:93] Number of HDF5 files: 1
I0507 12:52:03.093536  1628 net.cpp:144] Setting up intercept
I0507 12:52:03.093575  1628 net.cpp:151] Top shape: 20 1 10 10 (2000)
I0507 12:52:03.093580  1628 net.cpp:151] Top shape: 20 (20)
I0507 12:52:03.093583  1628 net.cpp:159] Memory required for data: 8080
I0507 12:52:03.093590  1628 layer_factory.hpp:77] Creating layer label_intercept_1_split
I0507 12:52:03.093610  1628 net.cpp:94] Creating Layer label_intercept_1_split
I0507 12:52:03.093614  1628 net.cpp:435] label_intercept_1_split <- label
I0507 12:52:03.093621  1628 net.cpp:409] label_intercept_1_split -> label_intercept_1_split_0
I0507 12:52:03.093629  1628 net.cpp:409] label_intercept_1_split -> label_intercept_1_split_1
I0507 12:52:03.093670  1628 net.cpp:144] Setting up label_intercept_1_split
I0507 12:52:03.093677  1628 net.cpp:151] Top shape: 20 (20)
I0507 12:52:03.093682  1628 net.cpp:151] Top shape: 20 (20)
I0507 12:52:03.093684  1628 net.cpp:159] Memory required for data: 8240
I0507 12:52:03.093688  1628 layer_factory.hpp:77] Creating layer conv1
I0507 12:52:03.093700  1628 net.cpp:94] Creating Layer conv1
I0507 12:52:03.093704  1628 net.cpp:435] conv1 <- data
I0507 12:52:03.093709  1628 net.cpp:409] conv1 -> conv1
I0507 12:52:03.094501  1628 net.cpp:144] Setting up conv1
I0507 12:52:03.094514  1628 net.cpp:151] Top shape: 20 64 10 10 (128000)
I0507 12:52:03.094527  1628 net.cpp:159] Memory required for data: 520240
I0507 12:52:03.094537  1628 layer_factory.hpp:77] Creating layer relu1
I0507 12:52:03.094544  1628 net.cpp:94] Creating Layer relu1
I0507 12:52:03.094548  1628 net.cpp:435] relu1 <- conv1
I0507 12:52:03.094552  1628 net.cpp:396] relu1 -> conv1 (in-place)
I0507 12:52:03.094560  1628 net.cpp:144] Setting up relu1
I0507 12:52:03.094564  1628 net.cpp:151] Top shape: 20 64 10 10 (128000)
I0507 12:52:03.094568  1628 net.cpp:159] Memory required for data: 1032240
I0507 12:52:03.094571  1628 layer_factory.hpp:77] Creating layer conv2
I0507 12:52:03.094579  1628 net.cpp:94] Creating Layer conv2
I0507 12:52:03.094583  1628 net.cpp:435] conv2 <- conv1
I0507 12:52:03.094588  1628 net.cpp:409] conv2 -> conv2
I0507 12:52:03.098726  1628 net.cpp:144] Setting up conv2
I0507 12:52:03.098739  1628 net.cpp:151] Top shape: 20 64 10 10 (128000)
I0507 12:52:03.098743  1628 net.cpp:159] Memory required for data: 1544240
I0507 12:52:03.098752  1628 layer_factory.hpp:77] Creating layer relu2
I0507 12:52:03.098757  1628 net.cpp:94] Creating Layer relu2
I0507 12:52:03.098762  1628 net.cpp:435] relu2 <- conv2
I0507 12:52:03.098765  1628 net.cpp:396] relu2 -> conv2 (in-place)
I0507 12:52:03.098773  1628 net.cpp:144] Setting up relu2
I0507 12:52:03.098778  1628 net.cpp:151] Top shape: 20 64 10 10 (128000)
I0507 12:52:03.098780  1628 net.cpp:159] Memory required for data: 2056240
I0507 12:52:03.098783  1628 layer_factory.hpp:77] Creating layer pool2
I0507 12:52:03.098789  1628 net.cpp:94] Creating Layer pool2
I0507 12:52:03.098793  1628 net.cpp:435] pool2 <- conv2
I0507 12:52:03.098796  1628 net.cpp:409] pool2 -> pool2
I0507 12:52:03.098846  1628 net.cpp:144] Setting up pool2
I0507 12:52:03.098853  1628 net.cpp:151] Top shape: 20 64 5 5 (32000)
I0507 12:52:03.098856  1628 net.cpp:159] Memory required for data: 2184240
I0507 12:52:03.098860  1628 layer_factory.hpp:77] Creating layer conv3
I0507 12:52:03.098867  1628 net.cpp:94] Creating Layer conv3
I0507 12:52:03.098870  1628 net.cpp:435] conv3 <- pool2
I0507 12:52:03.098876  1628 net.cpp:409] conv3 -> conv3
I0507 12:52:03.102499  1628 net.cpp:144] Setting up conv3
I0507 12:52:03.102511  1628 net.cpp:151] Top shape: 20 64 5 5 (32000)
I0507 12:52:03.102515  1628 net.cpp:159] Memory required for data: 2312240
I0507 12:52:03.102524  1628 layer_factory.hpp:77] Creating layer relu3
I0507 12:52:03.102530  1628 net.cpp:94] Creating Layer relu3
I0507 12:52:03.102535  1628 net.cpp:435] relu3 <- conv3
I0507 12:52:03.102538  1628 net.cpp:396] relu3 -> conv3 (in-place)
I0507 12:52:03.102545  1628 net.cpp:144] Setting up relu3
I0507 12:52:03.102550  1628 net.cpp:151] Top shape: 20 64 5 5 (32000)
I0507 12:52:03.102553  1628 net.cpp:159] Memory required for data: 2440240
I0507 12:52:03.102556  1628 layer_factory.hpp:77] Creating layer conv4
I0507 12:52:03.102563  1628 net.cpp:94] Creating Layer conv4
I0507 12:52:03.102567  1628 net.cpp:435] conv4 <- conv3
I0507 12:52:03.102572  1628 net.cpp:409] conv4 -> conv4
I0507 12:52:03.106195  1628 net.cpp:144] Setting up conv4
I0507 12:52:03.106209  1628 net.cpp:151] Top shape: 20 64 5 5 (32000)
I0507 12:52:03.106212  1628 net.cpp:159] Memory required for data: 2568240
I0507 12:52:03.106218  1628 layer_factory.hpp:77] Creating layer relu4
I0507 12:52:03.106223  1628 net.cpp:94] Creating Layer relu4
I0507 12:52:03.106227  1628 net.cpp:435] relu4 <- conv4
I0507 12:52:03.106231  1628 net.cpp:396] relu4 -> conv4 (in-place)
I0507 12:52:03.106238  1628 net.cpp:144] Setting up relu4
I0507 12:52:03.106243  1628 net.cpp:151] Top shape: 20 64 5 5 (32000)
I0507 12:52:03.106246  1628 net.cpp:159] Memory required for data: 2696240
I0507 12:52:03.106250  1628 layer_factory.hpp:77] Creating layer conv5
I0507 12:52:03.106256  1628 net.cpp:94] Creating Layer conv5
I0507 12:52:03.106259  1628 net.cpp:435] conv5 <- conv4
I0507 12:52:03.106264  1628 net.cpp:409] conv5 -> conv5
I0507 12:52:03.110369  1628 net.cpp:144] Setting up conv5
I0507 12:52:03.110383  1628 net.cpp:151] Top shape: 20 64 5 5 (32000)
I0507 12:52:03.110386  1628 net.cpp:159] Memory required for data: 2824240
I0507 12:52:03.110399  1628 layer_factory.hpp:77] Creating layer relu5
I0507 12:52:03.110405  1628 net.cpp:94] Creating Layer relu5
I0507 12:52:03.110409  1628 net.cpp:435] relu5 <- conv5
I0507 12:52:03.110414  1628 net.cpp:396] relu5 -> conv5 (in-place)
I0507 12:52:03.110420  1628 net.cpp:144] Setting up relu5
I0507 12:52:03.110425  1628 net.cpp:151] Top shape: 20 64 5 5 (32000)
I0507 12:52:03.110429  1628 net.cpp:159] Memory required for data: 2952240
I0507 12:52:03.110431  1628 layer_factory.hpp:77] Creating layer pool5
I0507 12:52:03.110438  1628 net.cpp:94] Creating Layer pool5
I0507 12:52:03.110441  1628 net.cpp:435] pool5 <- conv5
I0507 12:52:03.110445  1628 net.cpp:409] pool5 -> pool5
I0507 12:52:03.110482  1628 net.cpp:144] Setting up pool5
I0507 12:52:03.110489  1628 net.cpp:151] Top shape: 20 64 2 2 (5120)
I0507 12:52:03.110492  1628 net.cpp:159] Memory required for data: 2972720
I0507 12:52:03.110496  1628 layer_factory.hpp:77] Creating layer ip1
I0507 12:52:03.110502  1628 net.cpp:94] Creating Layer ip1
I0507 12:52:03.110507  1628 net.cpp:435] ip1 <- pool5
I0507 12:52:03.110512  1628 net.cpp:409] ip1 -> ip1
I0507 12:52:03.111039  1628 net.cpp:144] Setting up ip1
I0507 12:52:03.111048  1628 net.cpp:151] Top shape: 20 64 (1280)
I0507 12:52:03.111052  1628 net.cpp:159] Memory required for data: 2977840
I0507 12:52:03.111057  1628 layer_factory.hpp:77] Creating layer ip2
I0507 12:52:03.111063  1628 net.cpp:94] Creating Layer ip2
I0507 12:52:03.111066  1628 net.cpp:435] ip2 <- ip1
I0507 12:52:03.111073  1628 net.cpp:409] ip2 -> ip2
I0507 12:52:03.111301  1628 net.cpp:144] Setting up ip2
I0507 12:52:03.111310  1628 net.cpp:151] Top shape: 20 64 (1280)
I0507 12:52:03.111313  1628 net.cpp:159] Memory required for data: 2982960
I0507 12:52:03.111318  1628 layer_factory.hpp:77] Creating layer ip3
I0507 12:52:03.111325  1628 net.cpp:94] Creating Layer ip3
I0507 12:52:03.111330  1628 net.cpp:435] ip3 <- ip2
I0507 12:52:03.111335  1628 net.cpp:409] ip3 -> ip3
I0507 12:52:03.111536  1628 net.cpp:144] Setting up ip3
I0507 12:52:03.111543  1628 net.cpp:151] Top shape: 20 50 (1000)
I0507 12:52:03.111546  1628 net.cpp:159] Memory required for data: 2986960
I0507 12:52:03.111552  1628 layer_factory.hpp:77] Creating layer ip3_ip3_0_split
I0507 12:52:03.111557  1628 net.cpp:94] Creating Layer ip3_ip3_0_split
I0507 12:52:03.111560  1628 net.cpp:435] ip3_ip3_0_split <- ip3
I0507 12:52:03.111565  1628 net.cpp:409] ip3_ip3_0_split -> ip3_ip3_0_split_0
I0507 12:52:03.111572  1628 net.cpp:409] ip3_ip3_0_split -> ip3_ip3_0_split_1
I0507 12:52:03.111611  1628 net.cpp:144] Setting up ip3_ip3_0_split
I0507 12:52:03.111618  1628 net.cpp:151] Top shape: 20 50 (1000)
I0507 12:52:03.111623  1628 net.cpp:151] Top shape: 20 50 (1000)
I0507 12:52:03.111624  1628 net.cpp:159] Memory required for data: 2994960
I0507 12:52:03.111627  1628 layer_factory.hpp:77] Creating layer accuracy
I0507 12:52:03.111634  1628 net.cpp:94] Creating Layer accuracy
I0507 12:52:03.111637  1628 net.cpp:435] accuracy <- ip3_ip3_0_split_0
I0507 12:52:03.111641  1628 net.cpp:435] accuracy <- label_intercept_1_split_0
I0507 12:52:03.111646  1628 net.cpp:409] accuracy -> accuracy
…
