…
I0505 18:55:54.690057  8654 net.cpp:323] The NetState phase (0) differed from the phase (1) specified by a rule in layer intercept
I0505 18:55:54.690073  8654 net.cpp:323] The NetState phase (0) differed from the phase (1) specified by a rule in layer loss
I0505 18:55:54.690140  8654 net.cpp:52] Initializing net from parameters: 
state {
  phase: TRAIN
}
layer {
  name: "parameters"
  type: "HDF5Data"
  top: "data"
  top: "label"
  include {
    phase: TRAIN
  }
  hdf5_data_param {
    source: "/home/purduethu/scratch/radon/d/deng106/CNNStatisticalModel/distributions/input/5_distributions_400_sample_size_train-parameters-path.txt"
    batch_size: 20
  }
}
layer {
  name: "conv1"
  type: "Convolution"
  bottom: "data"
  top: "conv1"
  param {
    lr_mult: 1
  }
  param {
    lr_mult: 2
  }
  convolution_param {
    num_output: 64
    pad: 2
    kernel_size: 5
    stride: 1
    weight_filler {
      type: "gaussian"
      std: 0.0001
    }
    bias_filler {
      type: "constant"
    }
  }
}
layer {
  name: "relu1"
  type: "ReLU"
  bottom: "conv1"
  top: "conv1"
}
layer {
  name: "pool1"
  type: "Pooling"
  bottom: "conv1"
  top: "pool1"
  pooling_param {
    pool: MAX
    kernel_size: 3
    stride: 2
  }
}
layer {
  name: "conv2"
  type: "Convolution"
  bottom: "pool1"
  top: "conv2"
  param {
    lr_mult: 1
  }
  param {
    lr_mult: 2
  }
  convolution_param {
    num_output: 128
    pad: 2
    kernel_size: 5
    stride: 1
    weight_filler {
      type: "gaussian"
      std: 0.01
    }
    bias_filler {
      type: "constant"
    }
  }
}
layer {
  name: "relu2"
  type: "ReLU"
  bottom: "conv2"
  top: "conv2"
}
layer {
  name: "conv3"
  type: "Convolution"
  bottom: "conv2"
  top: "conv3"
  param {
    lr_mult: 1
  }
  param {
    lr_mult: 2
  }
  convolution_param {
    num_output: 128
    pad: 2
    kernel_size: 5
    stride: 1
    weight_filler {
      type: "gaussian"
      std: 0.01
    }
    bias_filler {
      type: "constant"
    }
  }
}
layer {
  name: "relu3"
  type: "ReLU"
  bottom: "conv3"
  top: "conv3"
}
layer {
  name: "pool3"
  type: "Pooling"
  bottom: "conv3"
  top: "pool3"
  pooling_param {
    pool: AVE
    kernel_size: 3
    stride: 2
  }
}
layer {
  name: "ip1"
  type: "InnerProduct"
  bottom: "pool3"
  top: "ip1"
  param {
    lr_mult: 1
  }
  param {
    lr_mult: 2
  }
  inner_product_param {
    num_output: 512
    weight_filler {
      type: "gaussian"
      std: 0.1
    }
    bias_filler {
      type: "constant"
    }
  }
}
layer {
  name: "ip2"
  type: "InnerProduct"
  bottom: "ip1"
  top: "ip2"
  param {
    lr_mult: 1
  }
  param {
    lr_mult: 2
  }
  inner_product_param {
    num_output: 256
    weight_filler {
      type: "gaussian"
      std: 0.1
    }
    bias_filler {
      type: "constant"
    }
  }
}
layer {
  name: "ip3"
  type: "InnerProduct"
  bottom: "ip2"
  top: "ip3"
  param {
    lr_mult: 1
  }
  param {
    lr_mult: 2
  }
  inner_product_param {
    num_output: 1
    weight_filler {
      type: "gaussian"
      std: 0.1
    }
    bias_filler {
      type: "constant"
    }
  }
}
layer {
  name: "loss"
  type: "HuberLoss"
  bottom: "ip3"
  bottom: "label"
  top: "loss"
  include {
    phase: TRAIN
  }
}
I0505 18:55:54.690186  8654 layer_factory.hpp:77] Creating layer parameters
I0505 18:55:54.690199  8654 net.cpp:94] Creating Layer parameters
I0505 18:55:54.690204  8654 net.cpp:409] parameters -> data
I0505 18:55:54.690214  8654 net.cpp:409] parameters -> label
I0505 18:55:54.690225  8654 hdf5_data_layer.cpp:79] Loading list of HDF5 filenames from: /home/purduethu/scratch/radon/d/deng106/CNNStatisticalModel/distributions/input/5_distributions_400_sample_size_train-parameters-path.txt
I0505 18:55:54.690240  8654 hdf5_data_layer.cpp:93] Number of HDF5 files: 1
I0505 18:55:54.690649  8654 hdf5.cpp:32] Datatype class: H5T_FLOAT
I0505 18:55:54.753746  8654 net.cpp:144] Setting up parameters
I0505 18:55:54.753775  8654 net.cpp:151] Top shape: 20 1 20 20 (8000)
I0505 18:55:54.753780  8654 net.cpp:151] Top shape: 20 (20)
I0505 18:55:54.753784  8654 net.cpp:159] Memory required for data: 32080
I0505 18:55:54.753790  8654 layer_factory.hpp:77] Creating layer conv1
I0505 18:55:54.753808  8654 net.cpp:94] Creating Layer conv1
I0505 18:55:54.753811  8654 net.cpp:435] conv1 <- data
I0505 18:55:54.753818  8654 net.cpp:409] conv1 -> conv1
I0505 18:55:54.759152  8654 net.cpp:144] Setting up conv1
I0505 18:55:54.759168  8654 net.cpp:151] Top shape: 20 64 20 20 (512000)
I0505 18:55:54.759173  8654 net.cpp:159] Memory required for data: 2080080
I0505 18:55:54.759184  8654 layer_factory.hpp:77] Creating layer relu1
I0505 18:55:54.759192  8654 net.cpp:94] Creating Layer relu1
I0505 18:55:54.759196  8654 net.cpp:435] relu1 <- conv1
I0505 18:55:54.759202  8654 net.cpp:396] relu1 -> conv1 (in-place)
I0505 18:55:54.759212  8654 net.cpp:144] Setting up relu1
I0505 18:55:54.759217  8654 net.cpp:151] Top shape: 20 64 20 20 (512000)
I0505 18:55:54.759220  8654 net.cpp:159] Memory required for data: 4128080
I0505 18:55:54.759223  8654 layer_factory.hpp:77] Creating layer pool1
I0505 18:55:54.759229  8654 net.cpp:94] Creating Layer pool1
I0505 18:55:54.759232  8654 net.cpp:435] pool1 <- conv1
I0505 18:55:54.759238  8654 net.cpp:409] pool1 -> pool1
I0505 18:55:54.759291  8654 net.cpp:144] Setting up pool1
I0505 18:55:54.759299  8654 net.cpp:151] Top shape: 20 64 10 10 (128000)
I0505 18:55:54.759302  8654 net.cpp:159] Memory required for data: 4640080
I0505 18:55:54.759305  8654 layer_factory.hpp:77] Creating layer conv2
I0505 18:55:54.759315  8654 net.cpp:94] Creating Layer conv2
I0505 18:55:54.759318  8654 net.cpp:435] conv2 <- pool1
I0505 18:55:54.759323  8654 net.cpp:409] conv2 -> conv2
I0505 18:55:54.770043  8654 net.cpp:144] Setting up conv2
I0505 18:55:54.770059  8654 net.cpp:151] Top shape: 20 128 10 10 (256000)
I0505 18:55:54.770063  8654 net.cpp:159] Memory required for data: 5664080
I0505 18:55:54.770071  8654 layer_factory.hpp:77] Creating layer relu2
I0505 18:55:54.770077  8654 net.cpp:94] Creating Layer relu2
I0505 18:55:54.770081  8654 net.cpp:435] relu2 <- conv2
I0505 18:55:54.770087  8654 net.cpp:396] relu2 -> conv2 (in-place)
I0505 18:55:54.770093  8654 net.cpp:144] Setting up relu2
I0505 18:55:54.770098  8654 net.cpp:151] Top shape: 20 128 10 10 (256000)
I0505 18:55:54.770102  8654 net.cpp:159] Memory required for data: 6688080
I0505 18:55:54.770104  8654 layer_factory.hpp:77] Creating layer conv3
I0505 18:55:54.770112  8654 net.cpp:94] Creating Layer conv3
I0505 18:55:54.770117  8654 net.cpp:435] conv3 <- conv2
I0505 18:55:54.770122  8654 net.cpp:409] conv3 -> conv3
I0505 18:55:54.787904  8654 net.cpp:144] Setting up conv3
I0505 18:55:54.787920  8654 net.cpp:151] Top shape: 20 128 10 10 (256000)
I0505 18:55:54.787925  8654 net.cpp:159] Memory required for data: 7712080
I0505 18:55:54.787932  8654 layer_factory.hpp:77] Creating layer relu3
I0505 18:55:54.787945  8654 net.cpp:94] Creating Layer relu3
I0505 18:55:54.787950  8654 net.cpp:435] relu3 <- conv3
I0505 18:55:54.787955  8654 net.cpp:396] relu3 -> conv3 (in-place)
I0505 18:55:54.787962  8654 net.cpp:144] Setting up relu3
I0505 18:55:54.787967  8654 net.cpp:151] Top shape: 20 128 10 10 (256000)
I0505 18:55:54.787971  8654 net.cpp:159] Memory required for data: 8736080
I0505 18:55:54.787973  8654 layer_factory.hpp:77] Creating layer pool3
I0505 18:55:54.787979  8654 net.cpp:94] Creating Layer pool3
I0505 18:55:54.787983  8654 net.cpp:435] pool3 <- conv3
I0505 18:55:54.787987  8654 net.cpp:409] pool3 -> pool3
I0505 18:55:54.788031  8654 net.cpp:144] Setting up pool3
I0505 18:55:54.788038  8654 net.cpp:151] Top shape: 20 128 5 5 (64000)
I0505 18:55:54.788041  8654 net.cpp:159] Memory required for data: 8992080
I0505 18:55:54.788044  8654 layer_factory.hpp:77] Creating layer ip1
I0505 18:55:54.788053  8654 net.cpp:94] Creating Layer ip1
I0505 18:55:54.788055  8654 net.cpp:435] ip1 <- pool3
I0505 18:55:54.788060  8654 net.cpp:409] ip1 -> ip1
I0505 18:55:54.827726  8654 net.cpp:144] Setting up ip1
I0505 18:55:54.827750  8654 net.cpp:151] Top shape: 20 512 (10240)
I0505 18:55:54.827754  8654 net.cpp:159] Memory required for data: 9033040
I0505 18:55:54.827762  8654 layer_factory.hpp:77] Creating layer ip2
I0505 18:55:54.827771  8654 net.cpp:94] Creating Layer ip2
I0505 18:55:54.827775  8654 net.cpp:435] ip2 <- ip1
I0505 18:55:54.827781  8654 net.cpp:409] ip2 -> ip2
I0505 18:55:54.830962  8654 net.cpp:144] Setting up ip2
I0505 18:55:54.830974  8654 net.cpp:151] Top shape: 20 256 (5120)
I0505 18:55:54.830978  8654 net.cpp:159] Memory required for data: 9053520
I0505 18:55:54.830986  8654 layer_factory.hpp:77] Creating layer ip3
I0505 18:55:54.830992  8654 net.cpp:94] Creating Layer ip3
I0505 18:55:54.830996  8654 net.cpp:435] ip3 <- ip2
I0505 18:55:54.831001  8654 net.cpp:409] ip3 -> ip3
I0505 18:55:54.831107  8654 net.cpp:144] Setting up ip3
I0505 18:55:54.831115  8654 net.cpp:151] Top shape: 20 1 (20)
I0505 18:55:54.831117  8654 net.cpp:159] Memory required for data: 9053600
I0505 18:55:54.831122  8654 layer_factory.hpp:77] Creating layer loss
I0505 18:55:54.831135  8654 net.cpp:94] Creating Layer loss
I0505 18:55:54.831138  8654 net.cpp:435] loss <- ip3
I0505 18:55:54.831142  8654 net.cpp:435] loss <- label
I0505 18:55:54.831146  8654 net.cpp:409] loss -> loss
I0505 18:55:54.831203  8654 net.cpp:144] Setting up loss
…
I0505 18:55:54.915211  8654 net.cpp:323] The NetState phase (0) differed from the phase (1) specified by a rule in layer intercept
I0505 18:55:54.915225  8654 net.cpp:323] The NetState phase (0) differed from the phase (1) specified by a rule in layer accuracy
I0505 18:55:54.915293  8654 net.cpp:52] Initializing net from parameters: 
state {
  phase: TRAIN
}
layer {
  name: "parameters"
  type: "HDF5Data"
  top: "data"
  top: "label"
  include {
    phase: TRAIN
  }
  hdf5_data_param {
    source: "/home/purduethu/scratch/radon/d/deng106/CNNStatisticalModel/distributions/input/5_distributions_400_sample_size_train-distributions-path.txt"
    batch_size: 20
  }
}
layer {
  name: "conv1"
  type: "Convolution"
  bottom: "data"
  top: "conv1"
  param {
    lr_mult: 1
  }
  param {
    lr_mult: 2
  }
  convolution_param {
    num_output: 64
    pad: 2
    kernel_size: 5
    stride: 1
    weight_filler {
      type: "gaussian"
      std: 0.0001
    }
    bias_filler {
      type: "constant"
    }
  }
}
layer {
  name: "relu1"
  type: "ReLU"
  bottom: "conv1"
  top: "conv1"
}
layer {
  name: "pool1"
  type: "Pooling"
  bottom: "conv1"
  top: "pool1"
  pooling_param {
    pool: MAX
    kernel_size: 3
    stride: 2
  }
}
layer {
  name: "conv2"
  type: "Convolution"
  bottom: "pool1"
  top: "conv2"
  param {
    lr_mult: 1
  }
  param {
    lr_mult: 2
  }
  convolution_param {
    num_output: 128
    pad: 2
    kernel_size: 5
    stride: 1
    weight_filler {
      type: "gaussian"
      std: 0.01
    }
    bias_filler {
      type: "constant"
    }
  }
}
layer {
  name: "relu2"
  type: "ReLU"
  bottom: "conv2"
  top: "conv2"
}
layer {
  name: "conv3"
  type: "Convolution"
  bottom: "conv2"
  top: "conv3"
  param {
    lr_mult: 1
  }
  param {
    lr_mult: 2
  }
  convolution_param {
    num_output: 128
    pad: 2
    kernel_size: 5
    stride: 1
    weight_filler {
      type: "gaussian"
      std: 0.01
    }
    bias_filler {
      type: "constant"
    }
  }
}
layer {
  name: "relu3"
  type: "ReLU"
  bottom: "conv3"
  top: "conv3"
}
layer {
  name: "pool3"
  type: "Pooling"
  bottom: "conv3"
  top: "pool3"
  pooling_param {
    pool: AVE
    kernel_size: 3
    stride: 2
  }
}
layer {
  name: "ip1"
  type: "InnerProduct"
  bottom: "pool3"
  top: "ip1"
  param {
    lr_mult: 1
  }
  param {
    lr_mult: 2
  }
  inner_product_param {
    num_output: 512
    weight_filler {
      type: "gaussian"
      std: 0.1
    }
    bias_filler {
      type: "constant"
    }
  }
}
layer {
  name: "ip2"
  type: "InnerProduct"
  bottom: "ip1"
  top: "ip2"
  param {
    lr_mult: 1
  }
  param {
    lr_mult: 2
  }
  inner_product_param {
    num_output: 256
    weight_filler {
      type: "gaussian"
      std: 0.1
    }
    bias_filler {
      type: "constant"
    }
  }
}
layer {
  name: "ip3"
  type: "InnerProduct"
  bottom: "ip2"
  top: "ip3"
  param {
    lr_mult: 1
  }
  param {
    lr_mult: 2
  }
  inner_product_param {
    num_output: 50
    weight_filler {
      type: "gaussian"
      std: 0.1
    }
    bias_filler {
      type: "constant"
    }
  }
}
layer {
  name: "loss"
  type: "SoftmaxWithLoss"
  bottom: "ip3"
  bottom: "label"
  top: "loss"
}
I0505 18:55:54.915335  8654 layer_factory.hpp:77] Creating layer parameters
I0505 18:55:54.915344  8654 net.cpp:94] Creating Layer parameters
I0505 18:55:54.915349  8654 net.cpp:409] parameters -> data
I0505 18:55:54.915355  8654 net.cpp:409] parameters -> label
I0505 18:55:54.915361  8654 hdf5_data_layer.cpp:79] Loading list of HDF5 filenames from: /home/purduethu/scratch/radon/d/deng106/CNNStatisticalModel/distributions/input/5_distributions_400_sample_size_train-distributions-path.txt
I0505 18:55:54.915376  8654 hdf5_data_layer.cpp:93] Number of HDF5 files: 1
I0505 18:55:54.976354  8654 hdf5.cpp:35] Datatype class: H5T_INTEGER
I0505 18:55:54.976819  8654 net.cpp:144] Setting up parameters
I0505 18:55:54.976835  8654 net.cpp:151] Top shape: 20 1 20 20 (8000)
I0505 18:55:54.976840  8654 net.cpp:151] Top shape: 20 (20)
I0505 18:55:54.976843  8654 net.cpp:159] Memory required for data: 32080
I0505 18:55:54.976850  8654 layer_factory.hpp:77] Creating layer conv1
I0505 18:55:54.976867  8654 net.cpp:94] Creating Layer conv1
I0505 18:55:54.976871  8654 net.cpp:435] conv1 <- data
I0505 18:55:54.976878  8654 net.cpp:409] conv1 -> conv1
I0505 18:55:54.979236  8654 net.cpp:144] Setting up conv1
I0505 18:55:54.979250  8654 net.cpp:151] Top shape: 20 64 20 20 (512000)
I0505 18:55:54.979254  8654 net.cpp:159] Memory required for data: 2080080
I0505 18:55:54.979264  8654 layer_factory.hpp:77] Creating layer relu1
I0505 18:55:54.979271  8654 net.cpp:94] Creating Layer relu1
I0505 18:55:54.979275  8654 net.cpp:435] relu1 <- conv1
I0505 18:55:54.979279  8654 net.cpp:396] relu1 -> conv1 (in-place)
I0505 18:55:54.979287  8654 net.cpp:144] Setting up relu1
I0505 18:55:54.979292  8654 net.cpp:151] Top shape: 20 64 20 20 (512000)
I0505 18:55:54.979295  8654 net.cpp:159] Memory required for data: 4128080
I0505 18:55:54.979298  8654 layer_factory.hpp:77] Creating layer pool1
I0505 18:55:54.979305  8654 net.cpp:94] Creating Layer pool1
I0505 18:55:54.979308  8654 net.cpp:435] pool1 <- conv1
I0505 18:55:54.979318  8654 net.cpp:409] pool1 -> pool1
I0505 18:55:54.979373  8654 net.cpp:144] Setting up pool1
I0505 18:55:54.979382  8654 net.cpp:151] Top shape: 20 64 10 10 (128000)
I0505 18:55:54.979384  8654 net.cpp:159] Memory required for data: 4640080
I0505 18:55:54.979387  8654 layer_factory.hpp:77] Creating layer conv2
I0505 18:55:54.979396  8654 net.cpp:94] Creating Layer conv2
I0505 18:55:54.979399  8654 net.cpp:435] conv2 <- pool1
I0505 18:55:54.979404  8654 net.cpp:409] conv2 -> conv2
I0505 18:55:54.990253  8654 net.cpp:144] Setting up conv2
I0505 18:55:54.990269  8654 net.cpp:151] Top shape: 20 128 10 10 (256000)
I0505 18:55:54.990273  8654 net.cpp:159] Memory required for data: 5664080
I0505 18:55:54.990281  8654 layer_factory.hpp:77] Creating layer relu2
I0505 18:55:54.990288  8654 net.cpp:94] Creating Layer relu2
I0505 18:55:54.990293  8654 net.cpp:435] relu2 <- conv2
I0505 18:55:54.990296  8654 net.cpp:396] relu2 -> conv2 (in-place)
I0505 18:55:54.990304  8654 net.cpp:144] Setting up relu2
I0505 18:55:54.990309  8654 net.cpp:151] Top shape: 20 128 10 10 (256000)
I0505 18:55:54.990311  8654 net.cpp:159] Memory required for data: 6688080
I0505 18:55:54.990314  8654 layer_factory.hpp:77] Creating layer conv3
I0505 18:55:54.990322  8654 net.cpp:94] Creating Layer conv3
I0505 18:55:54.990326  8654 net.cpp:435] conv3 <- conv2
I0505 18:55:54.990331  8654 net.cpp:409] conv3 -> conv3
I0505 18:55:55.008446  8654 net.cpp:144] Setting up conv3
I0505 18:55:55.008464  8654 net.cpp:151] Top shape: 20 128 10 10 (256000)
I0505 18:55:55.008468  8654 net.cpp:159] Memory required for data: 7712080
I0505 18:55:55.008477  8654 layer_factory.hpp:77] Creating layer relu3
I0505 18:55:55.008483  8654 net.cpp:94] Creating Layer relu3
I0505 18:55:55.008487  8654 net.cpp:435] relu3 <- conv3
I0505 18:55:55.008492  8654 net.cpp:396] relu3 -> conv3 (in-place)
I0505 18:55:55.008499  8654 net.cpp:144] Setting up relu3
I0505 18:55:55.008504  8654 net.cpp:151] Top shape: 20 128 10 10 (256000)
I0505 18:55:55.008507  8654 net.cpp:159] Memory required for data: 8736080
I0505 18:55:55.008510  8654 layer_factory.hpp:77] Creating layer pool3
I0505 18:55:55.008517  8654 net.cpp:94] Creating Layer pool3
I0505 18:55:55.008519  8654 net.cpp:435] pool3 <- conv3
I0505 18:55:55.008523  8654 net.cpp:409] pool3 -> pool3
I0505 18:55:55.008579  8654 net.cpp:144] Setting up pool3
I0505 18:55:55.008589  8654 net.cpp:151] Top shape: 20 128 5 5 (64000)
I0505 18:55:55.008591  8654 net.cpp:159] Memory required for data: 8992080
I0505 18:55:55.008595  8654 layer_factory.hpp:77] Creating layer ip1
I0505 18:55:55.008602  8654 net.cpp:94] Creating Layer ip1
I0505 18:55:55.008606  8654 net.cpp:435] ip1 <- pool3
I0505 18:55:55.008611  8654 net.cpp:409] ip1 -> ip1
I0505 18:55:55.048355  8654 net.cpp:144] Setting up ip1
I0505 18:55:55.048379  8654 net.cpp:151] Top shape: 20 512 (10240)
I0505 18:55:55.048383  8654 net.cpp:159] Memory required for data: 9033040
I0505 18:55:55.048390  8654 layer_factory.hpp:77] Creating layer ip2
I0505 18:55:55.048399  8654 net.cpp:94] Creating Layer ip2
I0505 18:55:55.048403  8654 net.cpp:435] ip2 <- ip1
I0505 18:55:55.048409  8654 net.cpp:409] ip2 -> ip2
I0505 18:55:55.051576  8654 net.cpp:144] Setting up ip2
I0505 18:55:55.051589  8654 net.cpp:151] Top shape: 20 256 (5120)
I0505 18:55:55.051592  8654 net.cpp:159] Memory required for data: 9053520
I0505 18:55:55.051601  8654 layer_factory.hpp:77] Creating layer ip3
I0505 18:55:55.051607  8654 net.cpp:94] Creating Layer ip3
I0505 18:55:55.051611  8654 net.cpp:435] ip3 <- ip2
I0505 18:55:55.051616  8654 net.cpp:409] ip3 -> ip3
I0505 18:55:55.052052  8654 net.cpp:144] Setting up ip3
I0505 18:55:55.052058  8654 net.cpp:151] Top shape: 20 50 (1000)
I0505 18:55:55.052062  8654 net.cpp:159] Memory required for data: 9057520
I0505 18:55:55.052067  8654 layer_factory.hpp:77] Creating layer loss
I0505 18:55:55.052073  8654 net.cpp:94] Creating Layer loss
I0505 18:55:55.052076  8654 net.cpp:435] loss <- ip3
I0505 18:55:55.052080  8654 net.cpp:435] loss <- label
I0505 18:55:55.052084  8654 net.cpp:409] loss -> loss
I0505 18:55:55.052098  8654 layer_factory.hpp:77] Creating layer loss
…
I0505 18:55:55.052546  8654 solver.cpp:181] Creating test net (#0) specified by net file: ./protocol/dis_5_400_dimension.protocol_distribution
I0505 18:55:55.052579  8654 net.cpp:323] The NetState phase (1) differed from the phase (0) specified by a rule in layer parameters
I0505 18:55:55.052661  8654 net.cpp:52] Initializing net from parameters: 
state {
  phase: TEST
}
layer {
  name: "intercept"
  type: "HDF5Data"
  top: "data"
  top: "label"
  include {
    phase: TEST
  }
  hdf5_data_param {
    source: "/home/purduethu/scratch/radon/d/deng106/CNNStatisticalModel/distributions/input/5_distributions_400_sample_size_test-distributions-path.txt"
    batch_size: 20
  }
}
layer {
  name: "conv1"
  type: "Convolution"
  bottom: "data"
  top: "conv1"
  param {
    lr_mult: 1
  }
  param {
    lr_mult: 2
  }
  convolution_param {
    num_output: 64
    pad: 2
    kernel_size: 5
    stride: 1
    weight_filler {
      type: "gaussian"
      std: 0.0001
    }
    bias_filler {
      type: "constant"
    }
  }
}
layer {
  name: "relu1"
  type: "ReLU"
  bottom: "conv1"
  top: "conv1"
}
layer {
  name: "pool1"
  type: "Pooling"
  bottom: "conv1"
  top: "pool1"
  pooling_param {
    pool: MAX
    kernel_size: 3
    stride: 2
  }
}
layer {
  name: "conv2"
  type: "Convolution"
  bottom: "pool1"
  top: "conv2"
  param {
    lr_mult: 1
  }
  param {
    lr_mult: 2
  }
  convolution_param {
    num_output: 128
    pad: 2
    kernel_size: 5
    stride: 1
    weight_filler {
      type: "gaussian"
      std: 0.01
    }
    bias_filler {
      type: "constant"
    }
  }
}
layer {
  name: "relu2"
  type: "ReLU"
  bottom: "conv2"
  top: "conv2"
}
layer {
  name: "conv3"
  type: "Convolution"
  bottom: "conv2"
  top: "conv3"
  param {
    lr_mult: 1
  }
  param {
    lr_mult: 2
  }
  convolution_param {
    num_output: 128
    pad: 2
    kernel_size: 5
    stride: 1
    weight_filler {
      type: "gaussian"
      std: 0.01
    }
    bias_filler {
      type: "constant"
    }
  }
}
layer {
  name: "relu3"
  type: "ReLU"
  bottom: "conv3"
  top: "conv3"
}
layer {
  name: "pool3"
  type: "Pooling"
  bottom: "conv3"
  top: "pool3"
  pooling_param {
    pool: AVE
    kernel_size: 3
    stride: 2
  }
}
layer {
  name: "ip1"
  type: "InnerProduct"
  bottom: "pool3"
  top: "ip1"
  param {
    lr_mult: 1
  }
  param {
    lr_mult: 2
  }
  inner_product_param {
    num_output: 512
    weight_filler {
      type: "gaussian"
      std: 0.1
    }
    bias_filler {
      type: "constant"
    }
  }
}
layer {
  name: "ip2"
  type: "InnerProduct"
  bottom: "ip1"
  top: "ip2"
  param {
    lr_mult: 1
  }
  param {
    lr_mult: 2
  }
  inner_product_param {
    num_output: 256
    weight_filler {
      type: "gaussian"
      std: 0.1
    }
    bias_filler {
      type: "constant"
    }
  }
}
layer {
  name: "ip3"
  type: "InnerProduct"
  bottom: "ip2"
  top: "ip3"
  param {
    lr_mult: 1
  }
  param {
    lr_mult: 2
  }
  inner_product_param {
    num_output: 50
    weight_filler {
      type: "gaussian"
      std: 0.1
    }
    bias_filler {
      type: "constant"
    }
  }
}
layer {
  name: "accuracy"
  type: "Accuracy"
  bottom: "ip3"
  bottom: "label"
  top: "accuracy"
  include {
    phase: TEST
  }
}
layer {
  name: "loss"
  type: "SoftmaxWithLoss"
  bottom: "ip3"
  bottom: "label"
  top: "loss"
}
I0505 18:55:55.052718  8654 layer_factory.hpp:77] Creating layer intercept
I0505 18:55:55.052726  8654 net.cpp:94] Creating Layer intercept
I0505 18:55:55.052731  8654 net.cpp:409] intercept -> data
I0505 18:55:55.052738  8654 net.cpp:409] intercept -> label
I0505 18:55:55.052744  8654 hdf5_data_layer.cpp:79] Loading list of HDF5 filenames from: /home/purduethu/scratch/radon/d/deng106/CNNStatisticalModel/distributions/input/5_distributions_400_sample_size_test-distributions-path.txt
I0505 18:55:55.052763  8654 hdf5_data_layer.cpp:93] Number of HDF5 files: 1
I0505 18:55:55.069288  8654 net.cpp:144] Setting up intercept
I0505 18:55:55.069321  8654 net.cpp:151] Top shape: 20 1 20 20 (8000)
I0505 18:55:55.069326  8654 net.cpp:151] Top shape: 20 (20)
I0505 18:55:55.069329  8654 net.cpp:159] Memory required for data: 32080
I0505 18:55:55.069336  8654 layer_factory.hpp:77] Creating layer label_intercept_1_split
I0505 18:55:55.069349  8654 net.cpp:94] Creating Layer label_intercept_1_split
I0505 18:55:55.069352  8654 net.cpp:435] label_intercept_1_split <- label
I0505 18:55:55.069357  8654 net.cpp:409] label_intercept_1_split -> label_intercept_1_split_0
I0505 18:55:55.069366  8654 net.cpp:409] label_intercept_1_split -> label_intercept_1_split_1
I0505 18:55:55.069417  8654 net.cpp:144] Setting up label_intercept_1_split
I0505 18:55:55.069424  8654 net.cpp:151] Top shape: 20 (20)
I0505 18:55:55.069428  8654 net.cpp:151] Top shape: 20 (20)
I0505 18:55:55.069432  8654 net.cpp:159] Memory required for data: 32240
I0505 18:55:55.069434  8654 layer_factory.hpp:77] Creating layer conv1
I0505 18:55:55.069445  8654 net.cpp:94] Creating Layer conv1
I0505 18:55:55.069449  8654 net.cpp:435] conv1 <- data
I0505 18:55:55.069453  8654 net.cpp:409] conv1 -> conv1
I0505 18:55:55.070251  8654 net.cpp:144] Setting up conv1
I0505 18:55:55.070264  8654 net.cpp:151] Top shape: 20 64 20 20 (512000)
I0505 18:55:55.070268  8654 net.cpp:159] Memory required for data: 2080240
I0505 18:55:55.070277  8654 layer_factory.hpp:77] Creating layer relu1
I0505 18:55:55.070284  8654 net.cpp:94] Creating Layer relu1
I0505 18:55:55.070288  8654 net.cpp:435] relu1 <- conv1
I0505 18:55:55.070292  8654 net.cpp:396] relu1 -> conv1 (in-place)
I0505 18:55:55.070299  8654 net.cpp:144] Setting up relu1
I0505 18:55:55.070304  8654 net.cpp:151] Top shape: 20 64 20 20 (512000)
I0505 18:55:55.070307  8654 net.cpp:159] Memory required for data: 4128240
I0505 18:55:55.070310  8654 layer_factory.hpp:77] Creating layer pool1
I0505 18:55:55.070317  8654 net.cpp:94] Creating Layer pool1
I0505 18:55:55.070320  8654 net.cpp:435] pool1 <- conv1
I0505 18:55:55.070324  8654 net.cpp:409] pool1 -> pool1
I0505 18:55:55.070377  8654 net.cpp:144] Setting up pool1
I0505 18:55:55.070384  8654 net.cpp:151] Top shape: 20 64 10 10 (128000)
I0505 18:55:55.070387  8654 net.cpp:159] Memory required for data: 4640240
I0505 18:55:55.070390  8654 layer_factory.hpp:77] Creating layer conv2
I0505 18:55:55.070397  8654 net.cpp:94] Creating Layer conv2
I0505 18:55:55.070401  8654 net.cpp:435] conv2 <- pool1
I0505 18:55:55.070406  8654 net.cpp:409] conv2 -> conv2
I0505 18:55:55.078120  8654 net.cpp:144] Setting up conv2
I0505 18:55:55.078135  8654 net.cpp:151] Top shape: 20 128 10 10 (256000)
I0505 18:55:55.078140  8654 net.cpp:159] Memory required for data: 5664240
I0505 18:55:55.078148  8654 layer_factory.hpp:77] Creating layer relu2
I0505 18:55:55.078161  8654 net.cpp:94] Creating Layer relu2
I0505 18:55:55.078166  8654 net.cpp:435] relu2 <- conv2
I0505 18:55:55.078171  8654 net.cpp:396] relu2 -> conv2 (in-place)
I0505 18:55:55.078177  8654 net.cpp:144] Setting up relu2
I0505 18:55:55.078182  8654 net.cpp:151] Top shape: 20 128 10 10 (256000)
I0505 18:55:55.078186  8654 net.cpp:159] Memory required for data: 6688240
I0505 18:55:55.078188  8654 layer_factory.hpp:77] Creating layer conv3
I0505 18:55:55.078197  8654 net.cpp:94] Creating Layer conv3
I0505 18:55:55.078200  8654 net.cpp:435] conv3 <- conv2
I0505 18:55:55.078205  8654 net.cpp:409] conv3 -> conv3
I0505 18:55:55.091759  8654 net.cpp:144] Setting up conv3
I0505 18:55:55.091774  8654 net.cpp:151] Top shape: 20 128 10 10 (256000)
I0505 18:55:55.091778  8654 net.cpp:159] Memory required for data: 7712240
I0505 18:55:55.091786  8654 layer_factory.hpp:77] Creating layer relu3
I0505 18:55:55.091794  8654 net.cpp:94] Creating Layer relu3
I0505 18:55:55.091797  8654 net.cpp:435] relu3 <- conv3
I0505 18:55:55.091802  8654 net.cpp:396] relu3 -> conv3 (in-place)
I0505 18:55:55.091809  8654 net.cpp:144] Setting up relu3
I0505 18:55:55.091814  8654 net.cpp:151] Top shape: 20 128 10 10 (256000)
I0505 18:55:55.091817  8654 net.cpp:159] Memory required for data: 8736240
I0505 18:55:55.091820  8654 layer_factory.hpp:77] Creating layer pool3
I0505 18:55:55.091826  8654 net.cpp:94] Creating Layer pool3
I0505 18:55:55.091830  8654 net.cpp:435] pool3 <- conv3
I0505 18:55:55.091833  8654 net.cpp:409] pool3 -> pool3
I0505 18:55:55.091874  8654 net.cpp:144] Setting up pool3
I0505 18:55:55.091881  8654 net.cpp:151] Top shape: 20 128 5 5 (64000)
I0505 18:55:55.091884  8654 net.cpp:159] Memory required for data: 8992240
I0505 18:55:55.091887  8654 layer_factory.hpp:77] Creating layer ip1
I0505 18:55:55.091895  8654 net.cpp:94] Creating Layer ip1
I0505 18:55:55.091898  8654 net.cpp:435] ip1 <- pool3
I0505 18:55:55.091903  8654 net.cpp:409] ip1 -> ip1
I0505 18:55:55.131620  8654 net.cpp:144] Setting up ip1
I0505 18:55:55.131645  8654 net.cpp:151] Top shape: 20 512 (10240)
I0505 18:55:55.131649  8654 net.cpp:159] Memory required for data: 9033200
I0505 18:55:55.131656  8654 layer_factory.hpp:77] Creating layer ip2
I0505 18:55:55.131665  8654 net.cpp:94] Creating Layer ip2
I0505 18:55:55.131669  8654 net.cpp:435] ip2 <- ip1
I0505 18:55:55.131675  8654 net.cpp:409] ip2 -> ip2
I0505 18:55:55.134881  8654 net.cpp:144] Setting up ip2
I0505 18:55:55.134892  8654 net.cpp:151] Top shape: 20 256 (5120)
I0505 18:55:55.134896  8654 net.cpp:159] Memory required for data: 9053680
I0505 18:55:55.134903  8654 layer_factory.hpp:77] Creating layer ip3
I0505 18:55:55.134910  8654 net.cpp:94] Creating Layer ip3
I0505 18:55:55.134913  8654 net.cpp:435] ip3 <- ip2
I0505 18:55:55.134918  8654 net.cpp:409] ip3 -> ip3
I0505 18:55:55.135365  8654 net.cpp:144] Setting up ip3
I0505 18:55:55.135371  8654 net.cpp:151] Top shape: 20 50 (1000)
I0505 18:55:55.135375  8654 net.cpp:159] Memory required for data: 9057680
I0505 18:55:55.135380  8654 layer_factory.hpp:77] Creating layer ip3_ip3_0_split
I0505 18:55:55.135385  8654 net.cpp:94] Creating Layer ip3_ip3_0_split
I0505 18:55:55.135388  8654 net.cpp:435] ip3_ip3_0_split <- ip3
I0505 18:55:55.135393  8654 net.cpp:409] ip3_ip3_0_split -> ip3_ip3_0_split_0
I0505 18:55:55.135398  8654 net.cpp:409] ip3_ip3_0_split -> ip3_ip3_0_split_1
I0505 18:55:55.135442  8654 net.cpp:144] Setting up ip3_ip3_0_split
I0505 18:55:55.135447  8654 net.cpp:151] Top shape: 20 50 (1000)
I0505 18:55:55.135452  8654 net.cpp:151] Top shape: 20 50 (1000)
I0505 18:55:55.135454  8654 net.cpp:159] Memory required for data: 9065680
I0505 18:55:55.135457  8654 layer_factory.hpp:77] Creating layer accuracy
I0505 18:55:55.135463  8654 net.cpp:94] Creating Layer accuracy
I0505 18:55:55.135466  8654 net.cpp:435] accuracy <- ip3_ip3_0_split_0
I0505 18:55:55.135470  8654 net.cpp:435] accuracy <- label_intercept_1_split_0
I0505 18:55:55.135474  8654 net.cpp:409] accuracy -> accuracy
…
