…
I0504 11:16:09.313874 26321 net.cpp:323] The NetState phase (0) differed from the phase (1) specified by a rule in layer intercept
I0504 11:16:09.313890 26321 net.cpp:323] The NetState phase (0) differed from the phase (1) specified by a rule in layer loss
I0504 11:16:09.313967 26321 net.cpp:52] Initializing net from parameters: 
state {
  phase: TRAIN
}
layer {
  name: "parameters"
  type: "HDF5Data"
  top: "data"
  top: "label"
  include {
    phase: TRAIN
  }
  hdf5_data_param {
    source: "/home/purduethu/scratch/radon/d/deng106/CNNStatisticalModel/distributions/input/5_distributions_100_sample_size_train-parameters-path.txt"
    batch_size: 20
  }
}
layer {
  name: "conv1"
  type: "Convolution"
  bottom: "data"
  top: "conv1"
  param {
    lr_mult: 1
  }
  param {
    lr_mult: 2
  }
  convolution_param {
    num_output: 64
    pad: 2
    kernel_size: 5
    stride: 1
    weight_filler {
      type: "gaussian"
      std: 0.0001
    }
    bias_filler {
      type: "constant"
    }
  }
}
layer {
  name: "relu1"
  type: "ReLU"
  bottom: "conv1"
  top: "conv1"
}
layer {
  name: "conv2"
  type: "Convolution"
  bottom: "conv1"
  top: "conv2"
  param {
    lr_mult: 1
  }
  param {
    lr_mult: 2
  }
  convolution_param {
    num_output: 64
    pad: 2
    kernel_size: 5
    stride: 1
    weight_filler {
      type: "gaussian"
      std: 0.01
    }
    bias_filler {
      type: "constant"
    }
  }
}
layer {
  name: "relu2"
  type: "ReLU"
  bottom: "conv2"
  top: "conv2"
}
layer {
  name: "pool2"
  type: "Pooling"
  bottom: "conv2"
  top: "pool2"
  pooling_param {
    pool: MAX
    kernel_size: 3
    stride: 2
  }
}
layer {
  name: "conv3"
  type: "Convolution"
  bottom: "pool2"
  top: "conv3"
  param {
    lr_mult: 1
  }
  param {
    lr_mult: 2
  }
  convolution_param {
    num_output: 128
    pad: 2
    kernel_size: 5
    stride: 1
    weight_filler {
      type: "gaussian"
      std: 0.01
    }
    bias_filler {
      type: "constant"
    }
  }
}
layer {
  name: "relu3"
  type: "ReLU"
  bottom: "conv3"
  top: "conv3"
}
layer {
  name: "conv4"
  type: "Convolution"
  bottom: "conv3"
  top: "conv4"
  param {
    lr_mult: 1
  }
  param {
    lr_mult: 2
  }
  convolution_param {
    num_output: 128
    pad: 2
    kernel_size: 5
    stride: 1
    weight_filler {
      type: "gaussian"
      std: 0.01
    }
    bias_filler {
      type: "constant"
    }
  }
}
layer {
  name: "relu4"
  type: "ReLU"
  bottom: "conv4"
  top: "conv4"
}
layer {
  name: "conv5"
  type: "Convolution"
  bottom: "conv4"
  top: "conv5"
  param {
    lr_mult: 1
  }
  param {
    lr_mult: 2
  }
  convolution_param {
    num_output: 128
    pad: 2
    kernel_size: 5
    stride: 1
    weight_filler {
      type: "gaussian"
      std: 0.01
    }
    bias_filler {
      type: "constant"
    }
  }
}
layer {
  name: "relu5"
  type: "ReLU"
  bottom: "conv5"
  top: "conv5"
}
layer {
  name: "pool5"
  type: "Pooling"
  bottom: "conv5"
  top: "pool5"
  pooling_param {
    pool: AVE
    kernel_size: 3
    stride: 2
  }
}
layer {
  name: "ip1"
  type: "InnerProduct"
  bottom: "pool5"
  top: "ip1"
  param {
    lr_mult: 1
  }
  param {
    lr_mult: 2
  }
  inner_product_param {
    num_output: 1024
    weight_filler {
      type: "gaussian"
      std: 0.1
    }
    bias_filler {
      type: "constant"
    }
  }
}
layer {
  name: "ip2"
  type: "InnerProduct"
  bottom: "ip1"
  top: "ip2"
  param {
    lr_mult: 1
  }
  param {
    lr_mult: 2
  }
  inner_product_param {
    num_output: 512
    weight_filler {
      type: "gaussian"
      std: 0.1
    }
    bias_filler {
      type: "constant"
    }
  }
}
layer {
  name: "ip3"
  type: "InnerProduct"
  bottom: "ip2"
  top: "ip3"
  param {
    lr_mult: 1
  }
  param {
    lr_mult: 2
  }
  inner_product_param {
    num_output: 1
    weight_filler {
      type: "gaussian"
      std: 0.1
    }
    bias_filler {
      type: "constant"
    }
  }
}
layer {
  name: "loss"
  type: "HuberLoss"
  bottom: "ip3"
  bottom: "label"
  top: "loss"
  include {
    phase: TRAIN
  }
}
I0504 11:16:09.314020 26321 layer_factory.hpp:77] Creating layer parameters
I0504 11:16:09.314035 26321 net.cpp:94] Creating Layer parameters
I0504 11:16:09.314039 26321 net.cpp:409] parameters -> data
I0504 11:16:09.314054 26321 net.cpp:409] parameters -> label
I0504 11:16:09.314060 26321 hdf5_data_layer.cpp:79] Loading list of HDF5 filenames from: /home/purduethu/scratch/radon/d/deng106/CNNStatisticalModel/distributions/input/5_distributions_100_sample_size_train-parameters-path.txt
I0504 11:16:09.314074 26321 hdf5_data_layer.cpp:93] Number of HDF5 files: 1
I0504 11:16:09.314615 26321 hdf5.cpp:32] Datatype class: H5T_FLOAT
I0504 11:16:09.332617 26321 net.cpp:144] Setting up parameters
I0504 11:16:09.332646 26321 net.cpp:151] Top shape: 20 1 10 10 (2000)
I0504 11:16:09.332653 26321 net.cpp:151] Top shape: 20 (20)
I0504 11:16:09.332655 26321 net.cpp:159] Memory required for data: 8080
I0504 11:16:09.332661 26321 layer_factory.hpp:77] Creating layer conv1
I0504 11:16:09.332676 26321 net.cpp:94] Creating Layer conv1
I0504 11:16:09.332681 26321 net.cpp:435] conv1 <- data
I0504 11:16:09.332687 26321 net.cpp:409] conv1 -> conv1
I0504 11:16:09.336954 26321 net.cpp:144] Setting up conv1
I0504 11:16:09.336971 26321 net.cpp:151] Top shape: 20 64 10 10 (128000)
I0504 11:16:09.336976 26321 net.cpp:159] Memory required for data: 520080
I0504 11:16:09.336985 26321 layer_factory.hpp:77] Creating layer relu1
I0504 11:16:09.336993 26321 net.cpp:94] Creating Layer relu1
I0504 11:16:09.336997 26321 net.cpp:435] relu1 <- conv1
I0504 11:16:09.337002 26321 net.cpp:396] relu1 -> conv1 (in-place)
I0504 11:16:09.337009 26321 net.cpp:144] Setting up relu1
I0504 11:16:09.337014 26321 net.cpp:151] Top shape: 20 64 10 10 (128000)
I0504 11:16:09.337018 26321 net.cpp:159] Memory required for data: 1032080
I0504 11:16:09.337020 26321 layer_factory.hpp:77] Creating layer conv2
I0504 11:16:09.337028 26321 net.cpp:94] Creating Layer conv2
I0504 11:16:09.337031 26321 net.cpp:435] conv2 <- conv1
I0504 11:16:09.337036 26321 net.cpp:409] conv2 -> conv2
I0504 11:16:09.343176 26321 net.cpp:144] Setting up conv2
I0504 11:16:09.343191 26321 net.cpp:151] Top shape: 20 64 10 10 (128000)
I0504 11:16:09.343195 26321 net.cpp:159] Memory required for data: 1544080
I0504 11:16:09.343204 26321 layer_factory.hpp:77] Creating layer relu2
I0504 11:16:09.343211 26321 net.cpp:94] Creating Layer relu2
I0504 11:16:09.343214 26321 net.cpp:435] relu2 <- conv2
I0504 11:16:09.343219 26321 net.cpp:396] relu2 -> conv2 (in-place)
I0504 11:16:09.343225 26321 net.cpp:144] Setting up relu2
I0504 11:16:09.343230 26321 net.cpp:151] Top shape: 20 64 10 10 (128000)
I0504 11:16:09.343232 26321 net.cpp:159] Memory required for data: 2056080
I0504 11:16:09.343235 26321 layer_factory.hpp:77] Creating layer pool2
I0504 11:16:09.343241 26321 net.cpp:94] Creating Layer pool2
I0504 11:16:09.343250 26321 net.cpp:435] pool2 <- conv2
I0504 11:16:09.343255 26321 net.cpp:409] pool2 -> pool2
I0504 11:16:09.343312 26321 net.cpp:144] Setting up pool2
I0504 11:16:09.343318 26321 net.cpp:151] Top shape: 20 64 5 5 (32000)
I0504 11:16:09.343322 26321 net.cpp:159] Memory required for data: 2184080
I0504 11:16:09.343324 26321 layer_factory.hpp:77] Creating layer conv3
I0504 11:16:09.343333 26321 net.cpp:94] Creating Layer conv3
I0504 11:16:09.343336 26321 net.cpp:435] conv3 <- pool2
I0504 11:16:09.343341 26321 net.cpp:409] conv3 -> conv3
I0504 11:16:09.351578 26321 net.cpp:144] Setting up conv3
I0504 11:16:09.351593 26321 net.cpp:151] Top shape: 20 128 5 5 (64000)
I0504 11:16:09.351596 26321 net.cpp:159] Memory required for data: 2440080
I0504 11:16:09.351605 26321 layer_factory.hpp:77] Creating layer relu3
I0504 11:16:09.351610 26321 net.cpp:94] Creating Layer relu3
I0504 11:16:09.351614 26321 net.cpp:435] relu3 <- conv3
I0504 11:16:09.351619 26321 net.cpp:396] relu3 -> conv3 (in-place)
I0504 11:16:09.351625 26321 net.cpp:144] Setting up relu3
I0504 11:16:09.351629 26321 net.cpp:151] Top shape: 20 128 5 5 (64000)
I0504 11:16:09.351632 26321 net.cpp:159] Memory required for data: 2696080
I0504 11:16:09.351635 26321 layer_factory.hpp:77] Creating layer conv4
I0504 11:16:09.351644 26321 net.cpp:94] Creating Layer conv4
I0504 11:16:09.351647 26321 net.cpp:435] conv4 <- conv3
I0504 11:16:09.351651 26321 net.cpp:409] conv4 -> conv4
I0504 11:16:09.366684 26321 net.cpp:144] Setting up conv4
I0504 11:16:09.366703 26321 net.cpp:151] Top shape: 20 128 5 5 (64000)
I0504 11:16:09.366706 26321 net.cpp:159] Memory required for data: 2952080
I0504 11:16:09.366714 26321 layer_factory.hpp:77] Creating layer relu4
I0504 11:16:09.366720 26321 net.cpp:94] Creating Layer relu4
I0504 11:16:09.366724 26321 net.cpp:435] relu4 <- conv4
I0504 11:16:09.366729 26321 net.cpp:396] relu4 -> conv4 (in-place)
I0504 11:16:09.366736 26321 net.cpp:144] Setting up relu4
I0504 11:16:09.366740 26321 net.cpp:151] Top shape: 20 128 5 5 (64000)
I0504 11:16:09.366744 26321 net.cpp:159] Memory required for data: 3208080
I0504 11:16:09.366746 26321 layer_factory.hpp:77] Creating layer conv5
I0504 11:16:09.366753 26321 net.cpp:94] Creating Layer conv5
I0504 11:16:09.366756 26321 net.cpp:435] conv5 <- conv4
I0504 11:16:09.366761 26321 net.cpp:409] conv5 -> conv5
I0504 11:16:09.381244 26321 net.cpp:144] Setting up conv5
I0504 11:16:09.381263 26321 net.cpp:151] Top shape: 20 128 5 5 (64000)
I0504 11:16:09.381266 26321 net.cpp:159] Memory required for data: 3464080
I0504 11:16:09.381275 26321 layer_factory.hpp:77] Creating layer relu5
I0504 11:16:09.381281 26321 net.cpp:94] Creating Layer relu5
I0504 11:16:09.381285 26321 net.cpp:435] relu5 <- conv5
I0504 11:16:09.381291 26321 net.cpp:396] relu5 -> conv5 (in-place)
I0504 11:16:09.381299 26321 net.cpp:144] Setting up relu5
I0504 11:16:09.381302 26321 net.cpp:151] Top shape: 20 128 5 5 (64000)
I0504 11:16:09.381305 26321 net.cpp:159] Memory required for data: 3720080
I0504 11:16:09.381309 26321 layer_factory.hpp:77] Creating layer pool5
I0504 11:16:09.381314 26321 net.cpp:94] Creating Layer pool5
I0504 11:16:09.381316 26321 net.cpp:435] pool5 <- conv5
I0504 11:16:09.381321 26321 net.cpp:409] pool5 -> pool5
I0504 11:16:09.381366 26321 net.cpp:144] Setting up pool5
I0504 11:16:09.381373 26321 net.cpp:151] Top shape: 20 128 2 2 (10240)
I0504 11:16:09.381376 26321 net.cpp:159] Memory required for data: 3761040
I0504 11:16:09.381379 26321 layer_factory.hpp:77] Creating layer ip1
I0504 11:16:09.381389 26321 net.cpp:94] Creating Layer ip1
I0504 11:16:09.381393 26321 net.cpp:435] ip1 <- pool5
I0504 11:16:09.381397 26321 net.cpp:409] ip1 -> ip1
I0504 11:16:09.395295 26321 net.cpp:144] Setting up ip1
I0504 11:16:09.395315 26321 net.cpp:151] Top shape: 20 1024 (20480)
I0504 11:16:09.395319 26321 net.cpp:159] Memory required for data: 3842960
I0504 11:16:09.395325 26321 layer_factory.hpp:77] Creating layer ip2
I0504 11:16:09.395334 26321 net.cpp:94] Creating Layer ip2
I0504 11:16:09.395337 26321 net.cpp:435] ip2 <- ip1
I0504 11:16:09.395349 26321 net.cpp:409] ip2 -> ip2
I0504 11:16:09.408394 26321 net.cpp:144] Setting up ip2
I0504 11:16:09.408411 26321 net.cpp:151] Top shape: 20 512 (10240)
I0504 11:16:09.408416 26321 net.cpp:159] Memory required for data: 3883920
I0504 11:16:09.408421 26321 layer_factory.hpp:77] Creating layer ip3
I0504 11:16:09.408429 26321 net.cpp:94] Creating Layer ip3
I0504 11:16:09.408433 26321 net.cpp:435] ip3 <- ip2
I0504 11:16:09.408438 26321 net.cpp:409] ip3 -> ip3
I0504 11:16:09.408581 26321 net.cpp:144] Setting up ip3
I0504 11:16:09.408591 26321 net.cpp:151] Top shape: 20 1 (20)
I0504 11:16:09.408593 26321 net.cpp:159] Memory required for data: 3884000
I0504 11:16:09.408598 26321 layer_factory.hpp:77] Creating layer loss
I0504 11:16:09.408612 26321 net.cpp:94] Creating Layer loss
I0504 11:16:09.408617 26321 net.cpp:435] loss <- ip3
I0504 11:16:09.408620 26321 net.cpp:435] loss <- label
I0504 11:16:09.408625 26321 net.cpp:409] loss -> loss
I0504 11:16:09.408681 26321 net.cpp:144] Setting up loss
…
I0504 11:16:09.479389 26321 net.cpp:323] The NetState phase (0) differed from the phase (1) specified by a rule in layer intercept
I0504 11:16:09.479404 26321 net.cpp:323] The NetState phase (0) differed from the phase (1) specified by a rule in layer accuracy
I0504 11:16:09.479490 26321 net.cpp:52] Initializing net from parameters: 
state {
  phase: TRAIN
}
layer {
  name: "parameters"
  type: "HDF5Data"
  top: "data"
  top: "label"
  include {
    phase: TRAIN
  }
  hdf5_data_param {
    source: "/home/purduethu/scratch/radon/d/deng106/CNNStatisticalModel/distributions/input/5_distributions_100_sample_size_train-distributions-path.txt"
    batch_size: 20
  }
}
layer {
  name: "conv1"
  type: "Convolution"
  bottom: "data"
  top: "conv1"
  param {
    lr_mult: 1
  }
  param {
    lr_mult: 2
  }
  convolution_param {
    num_output: 64
    pad: 2
    kernel_size: 5
    stride: 1
    weight_filler {
      type: "gaussian"
      std: 0.0001
    }
    bias_filler {
      type: "constant"
    }
  }
}
layer {
  name: "relu1"
  type: "ReLU"
  bottom: "conv1"
  top: "conv1"
}
layer {
  name: "conv2"
  type: "Convolution"
  bottom: "conv1"
  top: "conv2"
  param {
    lr_mult: 1
  }
  param {
    lr_mult: 2
  }
  convolution_param {
    num_output: 64
    pad: 2
    kernel_size: 5
    stride: 1
    weight_filler {
      type: "gaussian"
      std: 0.01
    }
    bias_filler {
      type: "constant"
    }
  }
}
layer {
  name: "relu2"
  type: "ReLU"
  bottom: "conv2"
  top: "conv2"
}
layer {
  name: "pool2"
  type: "Pooling"
  bottom: "conv2"
  top: "pool2"
  pooling_param {
    pool: MAX
    kernel_size: 3
    stride: 2
  }
}
layer {
  name: "conv3"
  type: "Convolution"
  bottom: "pool2"
  top: "conv3"
  param {
    lr_mult: 1
  }
  param {
    lr_mult: 2
  }
  convolution_param {
    num_output: 128
    pad: 2
    kernel_size: 5
    stride: 1
    weight_filler {
      type: "gaussian"
      std: 0.01
    }
    bias_filler {
      type: "constant"
    }
  }
}
layer {
  name: "relu3"
  type: "ReLU"
  bottom: "conv3"
  top: "conv3"
}
layer {
  name: "conv4"
  type: "Convolution"
  bottom: "conv3"
  top: "conv4"
  param {
    lr_mult: 1
  }
  param {
    lr_mult: 2
  }
  convolution_param {
    num_output: 128
    pad: 2
    kernel_size: 5
    stride: 1
    weight_filler {
      type: "gaussian"
      std: 0.01
    }
    bias_filler {
      type: "constant"
    }
  }
}
layer {
  name: "relu4"
  type: "ReLU"
  bottom: "conv4"
  top: "conv4"
}
layer {
  name: "conv5"
  type: "Convolution"
  bottom: "conv4"
  top: "conv5"
  param {
    lr_mult: 1
  }
  param {
    lr_mult: 2
  }
  convolution_param {
    num_output: 128
    pad: 2
    kernel_size: 5
    stride: 1
    weight_filler {
      type: "gaussian"
      std: 0.01
    }
    bias_filler {
      type: "constant"
    }
  }
}
layer {
  name: "relu5"
  type: "ReLU"
  bottom: "conv5"
  top: "conv5"
}
layer {
  name: "pool5"
  type: "Pooling"
  bottom: "conv5"
  top: "pool5"
  pooling_param {
    pool: AVE
    kernel_size: 3
    stride: 2
  }
}
layer {
  name: "ip1"
  type: "InnerProduct"
  bottom: "pool5"
  top: "ip1"
  param {
    lr_mult: 1
  }
  param {
    lr_mult: 2
  }
  inner_product_param {
    num_output: 1024
    weight_filler {
      type: "gaussian"
      std: 0.1
    }
    bias_filler {
      type: "constant"
    }
  }
}
layer {
  name: "ip2"
  type: "InnerProduct"
  bottom: "ip1"
  top: "ip2"
  param {
    lr_mult: 1
  }
  param {
    lr_mult: 2
  }
  inner_product_param {
    num_output: 512
    weight_filler {
      type: "gaussian"
      std: 0.1
    }
    bias_filler {
      type: "constant"
    }
  }
}
layer {
  name: "ip3"
  type: "InnerProduct"
  bottom: "ip2"
  top: "ip3"
  param {
    lr_mult: 1
  }
  param {
    lr_mult: 2
  }
  inner_product_param {
    num_output: 50
    weight_filler {
      type: "gaussian"
      std: 0.1
    }
    bias_filler {
      type: "constant"
    }
  }
}
layer {
  name: "loss"
  type: "SoftmaxWithLoss"
  bottom: "ip3"
  bottom: "label"
  top: "loss"
}
I0504 11:16:09.479539 26321 layer_factory.hpp:77] Creating layer parameters
I0504 11:16:09.479547 26321 net.cpp:94] Creating Layer parameters
I0504 11:16:09.479550 26321 net.cpp:409] parameters -> data
I0504 11:16:09.479557 26321 net.cpp:409] parameters -> label
I0504 11:16:09.479562 26321 hdf5_data_layer.cpp:79] Loading list of HDF5 filenames from: /home/purduethu/scratch/radon/d/deng106/CNNStatisticalModel/distributions/input/5_distributions_100_sample_size_train-distributions-path.txt
I0504 11:16:09.479578 26321 hdf5_data_layer.cpp:93] Number of HDF5 files: 1
I0504 11:16:09.495285 26321 hdf5.cpp:35] Datatype class: H5T_INTEGER
I0504 11:16:09.495729 26321 net.cpp:144] Setting up parameters
I0504 11:16:09.495744 26321 net.cpp:151] Top shape: 20 1 10 10 (2000)
I0504 11:16:09.495749 26321 net.cpp:151] Top shape: 20 (20)
I0504 11:16:09.495753 26321 net.cpp:159] Memory required for data: 8080
I0504 11:16:09.495759 26321 layer_factory.hpp:77] Creating layer conv1
I0504 11:16:09.495774 26321 net.cpp:94] Creating Layer conv1
I0504 11:16:09.495779 26321 net.cpp:435] conv1 <- data
I0504 11:16:09.495784 26321 net.cpp:409] conv1 -> conv1
I0504 11:16:09.497761 26321 net.cpp:144] Setting up conv1
I0504 11:16:09.497776 26321 net.cpp:151] Top shape: 20 64 10 10 (128000)
I0504 11:16:09.497779 26321 net.cpp:159] Memory required for data: 520080
I0504 11:16:09.497790 26321 layer_factory.hpp:77] Creating layer relu1
I0504 11:16:09.497797 26321 net.cpp:94] Creating Layer relu1
I0504 11:16:09.497802 26321 net.cpp:435] relu1 <- conv1
I0504 11:16:09.497805 26321 net.cpp:396] relu1 -> conv1 (in-place)
I0504 11:16:09.497812 26321 net.cpp:144] Setting up relu1
I0504 11:16:09.497817 26321 net.cpp:151] Top shape: 20 64 10 10 (128000)
I0504 11:16:09.497819 26321 net.cpp:159] Memory required for data: 1032080
I0504 11:16:09.497822 26321 layer_factory.hpp:77] Creating layer conv2
I0504 11:16:09.497829 26321 net.cpp:94] Creating Layer conv2
I0504 11:16:09.497833 26321 net.cpp:435] conv2 <- conv1
I0504 11:16:09.497838 26321 net.cpp:409] conv2 -> conv2
I0504 11:16:09.503298 26321 net.cpp:144] Setting up conv2
I0504 11:16:09.503312 26321 net.cpp:151] Top shape: 20 64 10 10 (128000)
I0504 11:16:09.503316 26321 net.cpp:159] Memory required for data: 1544080
I0504 11:16:09.503324 26321 layer_factory.hpp:77] Creating layer relu2
I0504 11:16:09.503330 26321 net.cpp:94] Creating Layer relu2
I0504 11:16:09.503334 26321 net.cpp:435] relu2 <- conv2
I0504 11:16:09.503340 26321 net.cpp:396] relu2 -> conv2 (in-place)
I0504 11:16:09.503345 26321 net.cpp:144] Setting up relu2
I0504 11:16:09.503350 26321 net.cpp:151] Top shape: 20 64 10 10 (128000)
I0504 11:16:09.503352 26321 net.cpp:159] Memory required for data: 2056080
I0504 11:16:09.503355 26321 layer_factory.hpp:77] Creating layer pool2
I0504 11:16:09.503361 26321 net.cpp:94] Creating Layer pool2
I0504 11:16:09.503365 26321 net.cpp:435] pool2 <- conv2
I0504 11:16:09.503368 26321 net.cpp:409] pool2 -> pool2
I0504 11:16:09.503424 26321 net.cpp:144] Setting up pool2
I0504 11:16:09.503432 26321 net.cpp:151] Top shape: 20 64 5 5 (32000)
I0504 11:16:09.503434 26321 net.cpp:159] Memory required for data: 2184080
I0504 11:16:09.503438 26321 layer_factory.hpp:77] Creating layer conv3
I0504 11:16:09.503445 26321 net.cpp:94] Creating Layer conv3
I0504 11:16:09.503448 26321 net.cpp:435] conv3 <- pool2
I0504 11:16:09.503453 26321 net.cpp:409] conv3 -> conv3
I0504 11:16:09.512135 26321 net.cpp:144] Setting up conv3
I0504 11:16:09.512156 26321 net.cpp:151] Top shape: 20 128 5 5 (64000)
I0504 11:16:09.512159 26321 net.cpp:159] Memory required for data: 2440080
I0504 11:16:09.512167 26321 layer_factory.hpp:77] Creating layer relu3
I0504 11:16:09.512174 26321 net.cpp:94] Creating Layer relu3
I0504 11:16:09.512177 26321 net.cpp:435] relu3 <- conv3
I0504 11:16:09.512182 26321 net.cpp:396] relu3 -> conv3 (in-place)
I0504 11:16:09.512188 26321 net.cpp:144] Setting up relu3
I0504 11:16:09.512192 26321 net.cpp:151] Top shape: 20 128 5 5 (64000)
I0504 11:16:09.512195 26321 net.cpp:159] Memory required for data: 2696080
I0504 11:16:09.512198 26321 layer_factory.hpp:77] Creating layer conv4
I0504 11:16:09.512207 26321 net.cpp:94] Creating Layer conv4
I0504 11:16:09.512210 26321 net.cpp:435] conv4 <- conv3
I0504 11:16:09.512215 26321 net.cpp:409] conv4 -> conv4
I0504 11:16:09.526902 26321 net.cpp:144] Setting up conv4
I0504 11:16:09.526921 26321 net.cpp:151] Top shape: 20 128 5 5 (64000)
I0504 11:16:09.526924 26321 net.cpp:159] Memory required for data: 2952080
I0504 11:16:09.526932 26321 layer_factory.hpp:77] Creating layer relu4
I0504 11:16:09.526937 26321 net.cpp:94] Creating Layer relu4
I0504 11:16:09.526942 26321 net.cpp:435] relu4 <- conv4
I0504 11:16:09.526945 26321 net.cpp:396] relu4 -> conv4 (in-place)
I0504 11:16:09.526953 26321 net.cpp:144] Setting up relu4
I0504 11:16:09.526957 26321 net.cpp:151] Top shape: 20 128 5 5 (64000)
I0504 11:16:09.526960 26321 net.cpp:159] Memory required for data: 3208080
I0504 11:16:09.526963 26321 layer_factory.hpp:77] Creating layer conv5
I0504 11:16:09.526970 26321 net.cpp:94] Creating Layer conv5
I0504 11:16:09.526974 26321 net.cpp:435] conv5 <- conv4
I0504 11:16:09.526978 26321 net.cpp:409] conv5 -> conv5
I0504 11:16:09.541945 26321 net.cpp:144] Setting up conv5
I0504 11:16:09.541963 26321 net.cpp:151] Top shape: 20 128 5 5 (64000)
I0504 11:16:09.541967 26321 net.cpp:159] Memory required for data: 3464080
I0504 11:16:09.541977 26321 layer_factory.hpp:77] Creating layer relu5
I0504 11:16:09.541983 26321 net.cpp:94] Creating Layer relu5
I0504 11:16:09.541987 26321 net.cpp:435] relu5 <- conv5
I0504 11:16:09.541992 26321 net.cpp:396] relu5 -> conv5 (in-place)
I0504 11:16:09.541999 26321 net.cpp:144] Setting up relu5
I0504 11:16:09.542003 26321 net.cpp:151] Top shape: 20 128 5 5 (64000)
I0504 11:16:09.542006 26321 net.cpp:159] Memory required for data: 3720080
I0504 11:16:09.542009 26321 layer_factory.hpp:77] Creating layer pool5
I0504 11:16:09.542014 26321 net.cpp:94] Creating Layer pool5
I0504 11:16:09.542017 26321 net.cpp:435] pool5 <- conv5
I0504 11:16:09.542021 26321 net.cpp:409] pool5 -> pool5
I0504 11:16:09.542063 26321 net.cpp:144] Setting up pool5
I0504 11:16:09.542070 26321 net.cpp:151] Top shape: 20 128 2 2 (10240)
I0504 11:16:09.542073 26321 net.cpp:159] Memory required for data: 3761040
I0504 11:16:09.542076 26321 layer_factory.hpp:77] Creating layer ip1
I0504 11:16:09.542083 26321 net.cpp:94] Creating Layer ip1
I0504 11:16:09.542086 26321 net.cpp:435] ip1 <- pool5
I0504 11:16:09.542091 26321 net.cpp:409] ip1 -> ip1
I0504 11:16:09.555209 26321 net.cpp:144] Setting up ip1
I0504 11:16:09.555224 26321 net.cpp:151] Top shape: 20 1024 (20480)
I0504 11:16:09.555228 26321 net.cpp:159] Memory required for data: 3842960
I0504 11:16:09.555234 26321 layer_factory.hpp:77] Creating layer ip2
I0504 11:16:09.555241 26321 net.cpp:94] Creating Layer ip2
I0504 11:16:09.555244 26321 net.cpp:435] ip2 <- ip1
I0504 11:16:09.555251 26321 net.cpp:409] ip2 -> ip2
I0504 11:16:09.568339 26321 net.cpp:144] Setting up ip2
I0504 11:16:09.568356 26321 net.cpp:151] Top shape: 20 512 (10240)
I0504 11:16:09.568359 26321 net.cpp:159] Memory required for data: 3883920
I0504 11:16:09.568366 26321 layer_factory.hpp:77] Creating layer ip3
I0504 11:16:09.568373 26321 net.cpp:94] Creating Layer ip3
I0504 11:16:09.568377 26321 net.cpp:435] ip3 <- ip2
I0504 11:16:09.568382 26321 net.cpp:409] ip3 -> ip3
I0504 11:16:09.569181 26321 net.cpp:144] Setting up ip3
I0504 11:16:09.569190 26321 net.cpp:151] Top shape: 20 50 (1000)
I0504 11:16:09.569200 26321 net.cpp:159] Memory required for data: 3887920
I0504 11:16:09.569205 26321 layer_factory.hpp:77] Creating layer loss
I0504 11:16:09.569212 26321 net.cpp:94] Creating Layer loss
I0504 11:16:09.569216 26321 net.cpp:435] loss <- ip3
I0504 11:16:09.569221 26321 net.cpp:435] loss <- label
I0504 11:16:09.569224 26321 net.cpp:409] loss -> loss
I0504 11:16:09.569231 26321 layer_factory.hpp:77] Creating layer loss
…
I0504 11:16:09.569756 26321 solver.cpp:181] Creating test net (#0) specified by net file: ./protocol/dis_5_100_dimension.protocol_distribution
I0504 11:16:09.569783 26321 net.cpp:323] The NetState phase (1) differed from the phase (0) specified by a rule in layer parameters
I0504 11:16:09.569876 26321 net.cpp:52] Initializing net from parameters: 
state {
  phase: TEST
}
layer {
  name: "intercept"
  type: "HDF5Data"
  top: "data"
  top: "label"
  include {
    phase: TEST
  }
  hdf5_data_param {
    source: "/home/purduethu/scratch/radon/d/deng106/CNNStatisticalModel/distributions/input/5_distributions_100_sample_size_test-distributions-path.txt"
    batch_size: 20
  }
}
layer {
  name: "conv1"
  type: "Convolution"
  bottom: "data"
  top: "conv1"
  param {
    lr_mult: 1
  }
  param {
    lr_mult: 2
  }
  convolution_param {
    num_output: 64
    pad: 2
    kernel_size: 5
    stride: 1
    weight_filler {
      type: "gaussian"
      std: 0.0001
    }
    bias_filler {
      type: "constant"
    }
  }
}
layer {
  name: "relu1"
  type: "ReLU"
  bottom: "conv1"
  top: "conv1"
}
layer {
  name: "conv2"
  type: "Convolution"
  bottom: "conv1"
  top: "conv2"
  param {
    lr_mult: 1
  }
  param {
    lr_mult: 2
  }
  convolution_param {
    num_output: 64
    pad: 2
    kernel_size: 5
    stride: 1
    weight_filler {
      type: "gaussian"
      std: 0.01
    }
    bias_filler {
      type: "constant"
    }
  }
}
layer {
  name: "relu2"
  type: "ReLU"
  bottom: "conv2"
  top: "conv2"
}
layer {
  name: "pool2"
  type: "Pooling"
  bottom: "conv2"
  top: "pool2"
  pooling_param {
    pool: MAX
    kernel_size: 3
    stride: 2
  }
}
layer {
  name: "conv3"
  type: "Convolution"
  bottom: "pool2"
  top: "conv3"
  param {
    lr_mult: 1
  }
  param {
    lr_mult: 2
  }
  convolution_param {
    num_output: 128
    pad: 2
    kernel_size: 5
    stride: 1
    weight_filler {
      type: "gaussian"
      std: 0.01
    }
    bias_filler {
      type: "constant"
    }
  }
}
layer {
  name: "relu3"
  type: "ReLU"
  bottom: "conv3"
  top: "conv3"
}
layer {
  name: "conv4"
  type: "Convolution"
  bottom: "conv3"
  top: "conv4"
  param {
    lr_mult: 1
  }
  param {
    lr_mult: 2
  }
  convolution_param {
    num_output: 128
    pad: 2
    kernel_size: 5
    stride: 1
    weight_filler {
      type: "gaussian"
      std: 0.01
    }
    bias_filler {
      type: "constant"
    }
  }
}
layer {
  name: "relu4"
  type: "ReLU"
  bottom: "conv4"
  top: "conv4"
}
layer {
  name: "conv5"
  type: "Convolution"
  bottom: "conv4"
  top: "conv5"
  param {
    lr_mult: 1
  }
  param {
    lr_mult: 2
  }
  convolution_param {
    num_output: 128
    pad: 2
    kernel_size: 5
    stride: 1
    weight_filler {
      type: "gaussian"
      std: 0.01
    }
    bias_filler {
      type: "constant"
    }
  }
}
layer {
  name: "relu5"
  type: "ReLU"
  bottom: "conv5"
  top: "conv5"
}
layer {
  name: "pool5"
  type: "Pooling"
  bottom: "conv5"
  top: "pool5"
  pooling_param {
    pool: AVE
    kernel_size: 3
    stride: 2
  }
}
layer {
  name: "ip1"
  type: "InnerProduct"
  bottom: "pool5"
  top: "ip1"
  param {
    lr_mult: 1
  }
  param {
    lr_mult: 2
  }
  inner_product_param {
    num_output: 1024
    weight_filler {
      type: "gaussian"
      std: 0.1
    }
    bias_filler {
      type: "constant"
    }
  }
}
layer {
  name: "ip2"
  type: "InnerProduct"
  bottom: "ip1"
  top: "ip2"
  param {
    lr_mult: 1
  }
  param {
    lr_mult: 2
  }
  inner_product_param {
    num_output: 512
    weight_filler {
      type: "gaussian"
      std: 0.1
    }
    bias_filler {
      type: "constant"
    }
  }
}
layer {
  name: "ip3"
  type: "InnerProduct"
  bottom: "ip2"
  top: "ip3"
  param {
    lr_mult: 1
  }
  param {
    lr_mult: 2
  }
  inner_product_param {
    num_output: 50
    weight_filler {
      type: "gaussian"
      std: 0.1
    }
    bias_filler {
      type: "constant"
    }
  }
}
layer {
  name: "accuracy"
  type: "Accuracy"
  bottom: "ip3"
  bottom: "label"
  top: "accuracy"
  include {
    phase: TEST
  }
}
layer {
  name: "loss"
  type: "SoftmaxWithLoss"
  bottom: "ip3"
  bottom: "label"
  top: "loss"
}
I0504 11:16:09.569944 26321 layer_factory.hpp:77] Creating layer intercept
I0504 11:16:09.569952 26321 net.cpp:94] Creating Layer intercept
I0504 11:16:09.569957 26321 net.cpp:409] intercept -> data
I0504 11:16:09.569962 26321 net.cpp:409] intercept -> label
I0504 11:16:09.569968 26321 hdf5_data_layer.cpp:79] Loading list of HDF5 filenames from: /home/purduethu/scratch/radon/d/deng106/CNNStatisticalModel/distributions/input/5_distributions_100_sample_size_test-distributions-path.txt
I0504 11:16:09.569986 26321 hdf5_data_layer.cpp:93] Number of HDF5 files: 1
I0504 11:16:09.574465 26321 net.cpp:144] Setting up intercept
I0504 11:16:09.574492 26321 net.cpp:151] Top shape: 20 1 10 10 (2000)
I0504 11:16:09.574497 26321 net.cpp:151] Top shape: 20 (20)
I0504 11:16:09.574501 26321 net.cpp:159] Memory required for data: 8080
I0504 11:16:09.574506 26321 layer_factory.hpp:77] Creating layer label_intercept_1_split
I0504 11:16:09.574524 26321 net.cpp:94] Creating Layer label_intercept_1_split
I0504 11:16:09.574529 26321 net.cpp:435] label_intercept_1_split <- label
I0504 11:16:09.574535 26321 net.cpp:409] label_intercept_1_split -> label_intercept_1_split_0
I0504 11:16:09.574543 26321 net.cpp:409] label_intercept_1_split -> label_intercept_1_split_1
I0504 11:16:09.574589 26321 net.cpp:144] Setting up label_intercept_1_split
I0504 11:16:09.574594 26321 net.cpp:151] Top shape: 20 (20)
I0504 11:16:09.574599 26321 net.cpp:151] Top shape: 20 (20)
I0504 11:16:09.574600 26321 net.cpp:159] Memory required for data: 8240
I0504 11:16:09.574604 26321 layer_factory.hpp:77] Creating layer conv1
I0504 11:16:09.574615 26321 net.cpp:94] Creating Layer conv1
I0504 11:16:09.574617 26321 net.cpp:435] conv1 <- data
I0504 11:16:09.574622 26321 net.cpp:409] conv1 -> conv1
I0504 11:16:09.575525 26321 net.cpp:144] Setting up conv1
I0504 11:16:09.575538 26321 net.cpp:151] Top shape: 20 64 10 10 (128000)
I0504 11:16:09.575548 26321 net.cpp:159] Memory required for data: 520240
I0504 11:16:09.575558 26321 layer_factory.hpp:77] Creating layer relu1
I0504 11:16:09.575565 26321 net.cpp:94] Creating Layer relu1
I0504 11:16:09.575569 26321 net.cpp:435] relu1 <- conv1
I0504 11:16:09.575573 26321 net.cpp:396] relu1 -> conv1 (in-place)
I0504 11:16:09.575580 26321 net.cpp:144] Setting up relu1
I0504 11:16:09.575584 26321 net.cpp:151] Top shape: 20 64 10 10 (128000)
I0504 11:16:09.575587 26321 net.cpp:159] Memory required for data: 1032240
I0504 11:16:09.575590 26321 layer_factory.hpp:77] Creating layer conv2
I0504 11:16:09.575598 26321 net.cpp:94] Creating Layer conv2
I0504 11:16:09.575601 26321 net.cpp:435] conv2 <- conv1
I0504 11:16:09.575606 26321 net.cpp:409] conv2 -> conv2
I0504 11:16:09.579694 26321 net.cpp:144] Setting up conv2
I0504 11:16:09.579707 26321 net.cpp:151] Top shape: 20 64 10 10 (128000)
I0504 11:16:09.579711 26321 net.cpp:159] Memory required for data: 1544240
I0504 11:16:09.579720 26321 layer_factory.hpp:77] Creating layer relu2
I0504 11:16:09.579725 26321 net.cpp:94] Creating Layer relu2
I0504 11:16:09.579730 26321 net.cpp:435] relu2 <- conv2
I0504 11:16:09.579733 26321 net.cpp:396] relu2 -> conv2 (in-place)
I0504 11:16:09.579741 26321 net.cpp:144] Setting up relu2
I0504 11:16:09.579744 26321 net.cpp:151] Top shape: 20 64 10 10 (128000)
I0504 11:16:09.579747 26321 net.cpp:159] Memory required for data: 2056240
I0504 11:16:09.579751 26321 layer_factory.hpp:77] Creating layer pool2
I0504 11:16:09.579756 26321 net.cpp:94] Creating Layer pool2
I0504 11:16:09.579758 26321 net.cpp:435] pool2 <- conv2
I0504 11:16:09.579762 26321 net.cpp:409] pool2 -> pool2
I0504 11:16:09.579818 26321 net.cpp:144] Setting up pool2
I0504 11:16:09.579824 26321 net.cpp:151] Top shape: 20 64 5 5 (32000)
I0504 11:16:09.579828 26321 net.cpp:159] Memory required for data: 2184240
I0504 11:16:09.579831 26321 layer_factory.hpp:77] Creating layer conv3
I0504 11:16:09.579838 26321 net.cpp:94] Creating Layer conv3
I0504 11:16:09.579841 26321 net.cpp:435] conv3 <- pool2
I0504 11:16:09.579846 26321 net.cpp:409] conv3 -> conv3
I0504 11:16:09.585916 26321 net.cpp:144] Setting up conv3
I0504 11:16:09.585928 26321 net.cpp:151] Top shape: 20 128 5 5 (64000)
I0504 11:16:09.585932 26321 net.cpp:159] Memory required for data: 2440240
I0504 11:16:09.585940 26321 layer_factory.hpp:77] Creating layer relu3
I0504 11:16:09.585947 26321 net.cpp:94] Creating Layer relu3
I0504 11:16:09.585952 26321 net.cpp:435] relu3 <- conv3
I0504 11:16:09.585957 26321 net.cpp:396] relu3 -> conv3 (in-place)
I0504 11:16:09.585963 26321 net.cpp:144] Setting up relu3
I0504 11:16:09.585968 26321 net.cpp:151] Top shape: 20 128 5 5 (64000)
I0504 11:16:09.585969 26321 net.cpp:159] Memory required for data: 2696240
I0504 11:16:09.585973 26321 layer_factory.hpp:77] Creating layer conv4
I0504 11:16:09.585980 26321 net.cpp:94] Creating Layer conv4
I0504 11:16:09.585983 26321 net.cpp:435] conv4 <- conv3
I0504 11:16:09.585988 26321 net.cpp:409] conv4 -> conv4
I0504 11:16:09.598487 26321 net.cpp:144] Setting up conv4
I0504 11:16:09.598505 26321 net.cpp:151] Top shape: 20 128 5 5 (64000)
I0504 11:16:09.598508 26321 net.cpp:159] Memory required for data: 2952240
I0504 11:16:09.598515 26321 layer_factory.hpp:77] Creating layer relu4
I0504 11:16:09.598521 26321 net.cpp:94] Creating Layer relu4
I0504 11:16:09.598526 26321 net.cpp:435] relu4 <- conv4
I0504 11:16:09.598529 26321 net.cpp:396] relu4 -> conv4 (in-place)
I0504 11:16:09.598536 26321 net.cpp:144] Setting up relu4
I0504 11:16:09.598541 26321 net.cpp:151] Top shape: 20 128 5 5 (64000)
I0504 11:16:09.598543 26321 net.cpp:159] Memory required for data: 3208240
I0504 11:16:09.598546 26321 layer_factory.hpp:77] Creating layer conv5
I0504 11:16:09.598554 26321 net.cpp:94] Creating Layer conv5
I0504 11:16:09.598557 26321 net.cpp:435] conv5 <- conv4
I0504 11:16:09.598562 26321 net.cpp:409] conv5 -> conv5
I0504 11:16:09.611078 26321 net.cpp:144] Setting up conv5
I0504 11:16:09.611095 26321 net.cpp:151] Top shape: 20 128 5 5 (64000)
I0504 11:16:09.611104 26321 net.cpp:159] Memory required for data: 3464240
I0504 11:16:09.611115 26321 layer_factory.hpp:77] Creating layer relu5
I0504 11:16:09.611121 26321 net.cpp:94] Creating Layer relu5
I0504 11:16:09.611125 26321 net.cpp:435] relu5 <- conv5
I0504 11:16:09.611129 26321 net.cpp:396] relu5 -> conv5 (in-place)
I0504 11:16:09.611137 26321 net.cpp:144] Setting up relu5
I0504 11:16:09.611141 26321 net.cpp:151] Top shape: 20 128 5 5 (64000)
I0504 11:16:09.611145 26321 net.cpp:159] Memory required for data: 3720240
I0504 11:16:09.611147 26321 layer_factory.hpp:77] Creating layer pool5
I0504 11:16:09.611152 26321 net.cpp:94] Creating Layer pool5
I0504 11:16:09.611155 26321 net.cpp:435] pool5 <- conv5
I0504 11:16:09.611160 26321 net.cpp:409] pool5 -> pool5
I0504 11:16:09.611201 26321 net.cpp:144] Setting up pool5
I0504 11:16:09.611207 26321 net.cpp:151] Top shape: 20 128 2 2 (10240)
I0504 11:16:09.611209 26321 net.cpp:159] Memory required for data: 3761200
I0504 11:16:09.611212 26321 layer_factory.hpp:77] Creating layer ip1
I0504 11:16:09.611219 26321 net.cpp:94] Creating Layer ip1
I0504 11:16:09.611222 26321 net.cpp:435] ip1 <- pool5
I0504 11:16:09.611227 26321 net.cpp:409] ip1 -> ip1
I0504 11:16:09.624399 26321 net.cpp:144] Setting up ip1
I0504 11:16:09.624415 26321 net.cpp:151] Top shape: 20 1024 (20480)
I0504 11:16:09.624419 26321 net.cpp:159] Memory required for data: 3843120
I0504 11:16:09.624425 26321 layer_factory.hpp:77] Creating layer ip2
I0504 11:16:09.624433 26321 net.cpp:94] Creating Layer ip2
I0504 11:16:09.624438 26321 net.cpp:435] ip2 <- ip1
I0504 11:16:09.624442 26321 net.cpp:409] ip2 -> ip2
I0504 11:16:09.637583 26321 net.cpp:144] Setting up ip2
I0504 11:16:09.637600 26321 net.cpp:151] Top shape: 20 512 (10240)
I0504 11:16:09.637604 26321 net.cpp:159] Memory required for data: 3884080
I0504 11:16:09.637610 26321 layer_factory.hpp:77] Creating layer ip3
I0504 11:16:09.637620 26321 net.cpp:94] Creating Layer ip3
I0504 11:16:09.637624 26321 net.cpp:435] ip3 <- ip2
I0504 11:16:09.637629 26321 net.cpp:409] ip3 -> ip3
I0504 11:16:09.638370 26321 net.cpp:144] Setting up ip3
I0504 11:16:09.638376 26321 net.cpp:151] Top shape: 20 50 (1000)
I0504 11:16:09.638381 26321 net.cpp:159] Memory required for data: 3888080
I0504 11:16:09.638386 26321 layer_factory.hpp:77] Creating layer ip3_ip3_0_split
I0504 11:16:09.638391 26321 net.cpp:94] Creating Layer ip3_ip3_0_split
I0504 11:16:09.638393 26321 net.cpp:435] ip3_ip3_0_split <- ip3
I0504 11:16:09.638397 26321 net.cpp:409] ip3_ip3_0_split -> ip3_ip3_0_split_0
I0504 11:16:09.638402 26321 net.cpp:409] ip3_ip3_0_split -> ip3_ip3_0_split_1
I0504 11:16:09.638445 26321 net.cpp:144] Setting up ip3_ip3_0_split
I0504 11:16:09.638451 26321 net.cpp:151] Top shape: 20 50 (1000)
I0504 11:16:09.638455 26321 net.cpp:151] Top shape: 20 50 (1000)
I0504 11:16:09.638458 26321 net.cpp:159] Memory required for data: 3896080
I0504 11:16:09.638460 26321 layer_factory.hpp:77] Creating layer accuracy
I0504 11:16:09.638466 26321 net.cpp:94] Creating Layer accuracy
I0504 11:16:09.638469 26321 net.cpp:435] accuracy <- ip3_ip3_0_split_0
I0504 11:16:09.638473 26321 net.cpp:435] accuracy <- label_intercept_1_split_0
I0504 11:16:09.638478 26321 net.cpp:409] accuracy -> accuracy
…
