…
I0505 22:07:22.521297  9623 net.cpp:323] The NetState phase (0) differed from the phase (1) specified by a rule in layer intercept
I0505 22:07:22.521311  9623 net.cpp:323] The NetState phase (0) differed from the phase (1) specified by a rule in layer loss
I0505 22:07:22.521378  9623 net.cpp:52] Initializing net from parameters: 
state {
  phase: TRAIN
}
layer {
  name: "parameters"
  type: "HDF5Data"
  top: "data"
  top: "label"
  include {
    phase: TRAIN
  }
  hdf5_data_param {
    source: "/home/purduethu/scratch/radon/d/deng106/CNNStatisticalModel/distributions/input/20_distributions_400_sample_size_train-parameters-path.txt"
    batch_size: 20
  }
}
layer {
  name: "conv1"
  type: "Convolution"
  bottom: "data"
  top: "conv1"
  param {
    lr_mult: 1
  }
  param {
    lr_mult: 2
  }
  convolution_param {
    num_output: 64
    pad: 2
    kernel_size: 5
    stride: 1
    weight_filler {
      type: "gaussian"
      std: 0.0001
    }
    bias_filler {
      type: "constant"
    }
  }
}
layer {
  name: "relu1"
  type: "ReLU"
  bottom: "conv1"
  top: "conv1"
}
layer {
  name: "pool1"
  type: "Pooling"
  bottom: "conv1"
  top: "pool1"
  pooling_param {
    pool: MAX
    kernel_size: 3
    stride: 2
  }
}
layer {
  name: "conv2"
  type: "Convolution"
  bottom: "pool1"
  top: "conv2"
  param {
    lr_mult: 1
  }
  param {
    lr_mult: 2
  }
  convolution_param {
    num_output: 128
    pad: 2
    kernel_size: 5
    stride: 1
    weight_filler {
      type: "gaussian"
      std: 0.01
    }
    bias_filler {
      type: "constant"
    }
  }
}
layer {
  name: "relu2"
  type: "ReLU"
  bottom: "conv2"
  top: "conv2"
}
layer {
  name: "conv3"
  type: "Convolution"
  bottom: "conv2"
  top: "conv3"
  param {
    lr_mult: 1
  }
  param {
    lr_mult: 2
  }
  convolution_param {
    num_output: 128
    pad: 2
    kernel_size: 5
    stride: 1
    weight_filler {
      type: "gaussian"
      std: 0.01
    }
    bias_filler {
      type: "constant"
    }
  }
}
layer {
  name: "relu3"
  type: "ReLU"
  bottom: "conv3"
  top: "conv3"
}
layer {
  name: "pool3"
  type: "Pooling"
  bottom: "conv3"
  top: "pool3"
  pooling_param {
    pool: AVE
    kernel_size: 3
    stride: 2
  }
}
layer {
  name: "ip1"
  type: "InnerProduct"
  bottom: "pool3"
  top: "ip1"
  param {
    lr_mult: 1
  }
  param {
    lr_mult: 2
  }
  inner_product_param {
    num_output: 512
    weight_filler {
      type: "gaussian"
      std: 0.1
    }
    bias_filler {
      type: "constant"
    }
  }
}
layer {
  name: "ip2"
  type: "InnerProduct"
  bottom: "ip1"
  top: "ip2"
  param {
    lr_mult: 1
  }
  param {
    lr_mult: 2
  }
  inner_product_param {
    num_output: 256
    weight_filler {
      type: "gaussian"
      std: 0.1
    }
    bias_filler {
      type: "constant"
    }
  }
}
layer {
  name: "ip3"
  type: "InnerProduct"
  bottom: "ip2"
  top: "ip3"
  param {
    lr_mult: 1
  }
  param {
    lr_mult: 2
  }
  inner_product_param {
    num_output: 1
    weight_filler {
      type: "gaussian"
      std: 0.1
    }
    bias_filler {
      type: "constant"
    }
  }
}
layer {
  name: "loss"
  type: "HuberLoss"
  bottom: "ip3"
  bottom: "label"
  top: "loss"
  include {
    phase: TRAIN
  }
}
I0505 22:07:22.521422  9623 layer_factory.hpp:77] Creating layer parameters
I0505 22:07:22.521435  9623 net.cpp:94] Creating Layer parameters
I0505 22:07:22.521440  9623 net.cpp:409] parameters -> data
I0505 22:07:22.521448  9623 net.cpp:409] parameters -> label
I0505 22:07:22.521458  9623 hdf5_data_layer.cpp:79] Loading list of HDF5 filenames from: /home/purduethu/scratch/radon/d/deng106/CNNStatisticalModel/distributions/input/20_distributions_400_sample_size_train-parameters-path.txt
I0505 22:07:22.521473  9623 hdf5_data_layer.cpp:93] Number of HDF5 files: 1
I0505 22:07:22.522017  9623 hdf5.cpp:32] Datatype class: H5T_FLOAT
I0505 22:07:22.780663  9623 net.cpp:144] Setting up parameters
I0505 22:07:22.780694  9623 net.cpp:151] Top shape: 20 1 20 20 (8000)
I0505 22:07:22.780699  9623 net.cpp:151] Top shape: 20 (20)
I0505 22:07:22.780702  9623 net.cpp:159] Memory required for data: 32080
I0505 22:07:22.780709  9623 layer_factory.hpp:77] Creating layer conv1
I0505 22:07:22.780730  9623 net.cpp:94] Creating Layer conv1
I0505 22:07:22.780735  9623 net.cpp:435] conv1 <- data
I0505 22:07:22.780741  9623 net.cpp:409] conv1 -> conv1
I0505 22:07:22.786186  9623 net.cpp:144] Setting up conv1
I0505 22:07:22.786207  9623 net.cpp:151] Top shape: 20 64 20 20 (512000)
I0505 22:07:22.786211  9623 net.cpp:159] Memory required for data: 2080080
I0505 22:07:22.786223  9623 layer_factory.hpp:77] Creating layer relu1
I0505 22:07:22.786232  9623 net.cpp:94] Creating Layer relu1
I0505 22:07:22.786237  9623 net.cpp:435] relu1 <- conv1
I0505 22:07:22.786242  9623 net.cpp:396] relu1 -> conv1 (in-place)
I0505 22:07:22.786253  9623 net.cpp:144] Setting up relu1
I0505 22:07:22.786258  9623 net.cpp:151] Top shape: 20 64 20 20 (512000)
I0505 22:07:22.786262  9623 net.cpp:159] Memory required for data: 4128080
I0505 22:07:22.786264  9623 layer_factory.hpp:77] Creating layer pool1
I0505 22:07:22.786270  9623 net.cpp:94] Creating Layer pool1
I0505 22:07:22.786273  9623 net.cpp:435] pool1 <- conv1
I0505 22:07:22.786278  9623 net.cpp:409] pool1 -> pool1
I0505 22:07:22.786332  9623 net.cpp:144] Setting up pool1
I0505 22:07:22.786339  9623 net.cpp:151] Top shape: 20 64 10 10 (128000)
I0505 22:07:22.786342  9623 net.cpp:159] Memory required for data: 4640080
I0505 22:07:22.786345  9623 layer_factory.hpp:77] Creating layer conv2
I0505 22:07:22.786355  9623 net.cpp:94] Creating Layer conv2
I0505 22:07:22.786357  9623 net.cpp:435] conv2 <- pool1
I0505 22:07:22.786362  9623 net.cpp:409] conv2 -> conv2
I0505 22:07:22.796072  9623 net.cpp:144] Setting up conv2
I0505 22:07:22.796087  9623 net.cpp:151] Top shape: 20 128 10 10 (256000)
I0505 22:07:22.796092  9623 net.cpp:159] Memory required for data: 5664080
I0505 22:07:22.796100  9623 layer_factory.hpp:77] Creating layer relu2
I0505 22:07:22.796106  9623 net.cpp:94] Creating Layer relu2
I0505 22:07:22.796109  9623 net.cpp:435] relu2 <- conv2
I0505 22:07:22.796114  9623 net.cpp:396] relu2 -> conv2 (in-place)
I0505 22:07:22.796121  9623 net.cpp:144] Setting up relu2
I0505 22:07:22.796126  9623 net.cpp:151] Top shape: 20 128 10 10 (256000)
I0505 22:07:22.796129  9623 net.cpp:159] Memory required for data: 6688080
I0505 22:07:22.796133  9623 layer_factory.hpp:77] Creating layer conv3
I0505 22:07:22.796139  9623 net.cpp:94] Creating Layer conv3
I0505 22:07:22.796144  9623 net.cpp:435] conv3 <- conv2
I0505 22:07:22.796149  9623 net.cpp:409] conv3 -> conv3
I0505 22:07:22.813812  9623 net.cpp:144] Setting up conv3
I0505 22:07:22.813827  9623 net.cpp:151] Top shape: 20 128 10 10 (256000)
I0505 22:07:22.813832  9623 net.cpp:159] Memory required for data: 7712080
I0505 22:07:22.813840  9623 layer_factory.hpp:77] Creating layer relu3
I0505 22:07:22.813853  9623 net.cpp:94] Creating Layer relu3
I0505 22:07:22.813858  9623 net.cpp:435] relu3 <- conv3
I0505 22:07:22.813863  9623 net.cpp:396] relu3 -> conv3 (in-place)
I0505 22:07:22.813869  9623 net.cpp:144] Setting up relu3
I0505 22:07:22.813874  9623 net.cpp:151] Top shape: 20 128 10 10 (256000)
I0505 22:07:22.813876  9623 net.cpp:159] Memory required for data: 8736080
I0505 22:07:22.813879  9623 layer_factory.hpp:77] Creating layer pool3
I0505 22:07:22.813885  9623 net.cpp:94] Creating Layer pool3
I0505 22:07:22.813889  9623 net.cpp:435] pool3 <- conv3
I0505 22:07:22.813892  9623 net.cpp:409] pool3 -> pool3
I0505 22:07:22.813936  9623 net.cpp:144] Setting up pool3
I0505 22:07:22.813943  9623 net.cpp:151] Top shape: 20 128 5 5 (64000)
I0505 22:07:22.813946  9623 net.cpp:159] Memory required for data: 8992080
I0505 22:07:22.813949  9623 layer_factory.hpp:77] Creating layer ip1
I0505 22:07:22.813958  9623 net.cpp:94] Creating Layer ip1
I0505 22:07:22.813962  9623 net.cpp:435] ip1 <- pool3
I0505 22:07:22.813967  9623 net.cpp:409] ip1 -> ip1
I0505 22:07:22.853752  9623 net.cpp:144] Setting up ip1
I0505 22:07:22.853777  9623 net.cpp:151] Top shape: 20 512 (10240)
I0505 22:07:22.853781  9623 net.cpp:159] Memory required for data: 9033040
I0505 22:07:22.853788  9623 layer_factory.hpp:77] Creating layer ip2
I0505 22:07:22.853797  9623 net.cpp:94] Creating Layer ip2
I0505 22:07:22.853801  9623 net.cpp:435] ip2 <- ip1
I0505 22:07:22.853806  9623 net.cpp:409] ip2 -> ip2
I0505 22:07:22.856988  9623 net.cpp:144] Setting up ip2
I0505 22:07:22.857000  9623 net.cpp:151] Top shape: 20 256 (5120)
I0505 22:07:22.857003  9623 net.cpp:159] Memory required for data: 9053520
I0505 22:07:22.857012  9623 layer_factory.hpp:77] Creating layer ip3
I0505 22:07:22.857018  9623 net.cpp:94] Creating Layer ip3
I0505 22:07:22.857022  9623 net.cpp:435] ip3 <- ip2
I0505 22:07:22.857026  9623 net.cpp:409] ip3 -> ip3
I0505 22:07:22.857131  9623 net.cpp:144] Setting up ip3
I0505 22:07:22.857138  9623 net.cpp:151] Top shape: 20 1 (20)
I0505 22:07:22.857141  9623 net.cpp:159] Memory required for data: 9053600
I0505 22:07:22.857146  9623 layer_factory.hpp:77] Creating layer loss
I0505 22:07:22.857158  9623 net.cpp:94] Creating Layer loss
I0505 22:07:22.857162  9623 net.cpp:435] loss <- ip3
I0505 22:07:22.857165  9623 net.cpp:435] loss <- label
I0505 22:07:22.857169  9623 net.cpp:409] loss -> loss
I0505 22:07:22.857219  9623 net.cpp:144] Setting up loss
…
I0505 22:07:22.990126  9623 net.cpp:323] The NetState phase (0) differed from the phase (1) specified by a rule in layer intercept
I0505 22:07:22.990139  9623 net.cpp:323] The NetState phase (0) differed from the phase (1) specified by a rule in layer accuracy
I0505 22:07:22.990206  9623 net.cpp:52] Initializing net from parameters: 
state {
  phase: TRAIN
}
layer {
  name: "parameters"
  type: "HDF5Data"
  top: "data"
  top: "label"
  include {
    phase: TRAIN
  }
  hdf5_data_param {
    source: "/home/purduethu/scratch/radon/d/deng106/CNNStatisticalModel/distributions/input/20_distributions_400_sample_size_train-distributions-path.txt"
    batch_size: 20
  }
}
layer {
  name: "conv1"
  type: "Convolution"
  bottom: "data"
  top: "conv1"
  param {
    lr_mult: 1
  }
  param {
    lr_mult: 2
  }
  convolution_param {
    num_output: 64
    pad: 2
    kernel_size: 5
    stride: 1
    weight_filler {
      type: "gaussian"
      std: 0.0001
    }
    bias_filler {
      type: "constant"
    }
  }
}
layer {
  name: "relu1"
  type: "ReLU"
  bottom: "conv1"
  top: "conv1"
}
layer {
  name: "pool1"
  type: "Pooling"
  bottom: "conv1"
  top: "pool1"
  pooling_param {
    pool: MAX
    kernel_size: 3
    stride: 2
  }
}
layer {
  name: "conv2"
  type: "Convolution"
  bottom: "pool1"
  top: "conv2"
  param {
    lr_mult: 1
  }
  param {
    lr_mult: 2
  }
  convolution_param {
    num_output: 128
    pad: 2
    kernel_size: 5
    stride: 1
    weight_filler {
      type: "gaussian"
      std: 0.01
    }
    bias_filler {
      type: "constant"
    }
  }
}
layer {
  name: "relu2"
  type: "ReLU"
  bottom: "conv2"
  top: "conv2"
}
layer {
  name: "conv3"
  type: "Convolution"
  bottom: "conv2"
  top: "conv3"
  param {
    lr_mult: 1
  }
  param {
    lr_mult: 2
  }
  convolution_param {
    num_output: 128
    pad: 2
    kernel_size: 5
    stride: 1
    weight_filler {
      type: "gaussian"
      std: 0.01
    }
    bias_filler {
      type: "constant"
    }
  }
}
layer {
  name: "relu3"
  type: "ReLU"
  bottom: "conv3"
  top: "conv3"
}
layer {
  name: "pool3"
  type: "Pooling"
  bottom: "conv3"
  top: "pool3"
  pooling_param {
    pool: AVE
    kernel_size: 3
    stride: 2
  }
}
layer {
  name: "ip1"
  type: "InnerProduct"
  bottom: "pool3"
  top: "ip1"
  param {
    lr_mult: 1
  }
  param {
    lr_mult: 2
  }
  inner_product_param {
    num_output: 512
    weight_filler {
      type: "gaussian"
      std: 0.1
    }
    bias_filler {
      type: "constant"
    }
  }
}
layer {
  name: "ip2"
  type: "InnerProduct"
  bottom: "ip1"
  top: "ip2"
  param {
    lr_mult: 1
  }
  param {
    lr_mult: 2
  }
  inner_product_param {
    num_output: 256
    weight_filler {
      type: "gaussian"
      std: 0.1
    }
    bias_filler {
      type: "constant"
    }
  }
}
layer {
  name: "ip3"
  type: "InnerProduct"
  bottom: "ip2"
  top: "ip3"
  param {
    lr_mult: 1
  }
  param {
    lr_mult: 2
  }
  inner_product_param {
    num_output: 50
    weight_filler {
      type: "gaussian"
      std: 0.1
    }
    bias_filler {
      type: "constant"
    }
  }
}
layer {
  name: "loss"
  type: "SoftmaxWithLoss"
  bottom: "ip3"
  bottom: "label"
  top: "loss"
}
I0505 22:07:22.990248  9623 layer_factory.hpp:77] Creating layer parameters
I0505 22:07:22.990255  9623 net.cpp:94] Creating Layer parameters
I0505 22:07:22.990259  9623 net.cpp:409] parameters -> data
I0505 22:07:22.990265  9623 net.cpp:409] parameters -> label
I0505 22:07:22.990272  9623 hdf5_data_layer.cpp:79] Loading list of HDF5 filenames from: /home/purduethu/scratch/radon/d/deng106/CNNStatisticalModel/distributions/input/20_distributions_400_sample_size_train-distributions-path.txt
I0505 22:07:22.990285  9623 hdf5_data_layer.cpp:93] Number of HDF5 files: 1
I0505 22:07:23.243459  9623 hdf5.cpp:35] Datatype class: H5T_INTEGER
I0505 22:07:23.244484  9623 net.cpp:144] Setting up parameters
I0505 22:07:23.244499  9623 net.cpp:151] Top shape: 20 1 20 20 (8000)
I0505 22:07:23.244503  9623 net.cpp:151] Top shape: 20 (20)
I0505 22:07:23.244506  9623 net.cpp:159] Memory required for data: 32080
I0505 22:07:23.244513  9623 layer_factory.hpp:77] Creating layer conv1
I0505 22:07:23.244529  9623 net.cpp:94] Creating Layer conv1
I0505 22:07:23.244534  9623 net.cpp:435] conv1 <- data
I0505 22:07:23.244540  9623 net.cpp:409] conv1 -> conv1
I0505 22:07:23.247088  9623 net.cpp:144] Setting up conv1
I0505 22:07:23.247103  9623 net.cpp:151] Top shape: 20 64 20 20 (512000)
I0505 22:07:23.247107  9623 net.cpp:159] Memory required for data: 2080080
I0505 22:07:23.247117  9623 layer_factory.hpp:77] Creating layer relu1
I0505 22:07:23.247125  9623 net.cpp:94] Creating Layer relu1
I0505 22:07:23.247128  9623 net.cpp:435] relu1 <- conv1
I0505 22:07:23.247133  9623 net.cpp:396] relu1 -> conv1 (in-place)
I0505 22:07:23.247140  9623 net.cpp:144] Setting up relu1
I0505 22:07:23.247145  9623 net.cpp:151] Top shape: 20 64 20 20 (512000)
I0505 22:07:23.247148  9623 net.cpp:159] Memory required for data: 4128080
I0505 22:07:23.247151  9623 layer_factory.hpp:77] Creating layer pool1
I0505 22:07:23.247156  9623 net.cpp:94] Creating Layer pool1
I0505 22:07:23.247159  9623 net.cpp:435] pool1 <- conv1
I0505 22:07:23.247170  9623 net.cpp:409] pool1 -> pool1
I0505 22:07:23.247225  9623 net.cpp:144] Setting up pool1
I0505 22:07:23.247231  9623 net.cpp:151] Top shape: 20 64 10 10 (128000)
I0505 22:07:23.247234  9623 net.cpp:159] Memory required for data: 4640080
I0505 22:07:23.247237  9623 layer_factory.hpp:77] Creating layer conv2
I0505 22:07:23.247246  9623 net.cpp:94] Creating Layer conv2
I0505 22:07:23.247249  9623 net.cpp:435] conv2 <- pool1
I0505 22:07:23.247254  9623 net.cpp:409] conv2 -> conv2
I0505 22:07:23.258321  9623 net.cpp:144] Setting up conv2
I0505 22:07:23.258335  9623 net.cpp:151] Top shape: 20 128 10 10 (256000)
I0505 22:07:23.258339  9623 net.cpp:159] Memory required for data: 5664080
I0505 22:07:23.258347  9623 layer_factory.hpp:77] Creating layer relu2
I0505 22:07:23.258354  9623 net.cpp:94] Creating Layer relu2
I0505 22:07:23.258358  9623 net.cpp:435] relu2 <- conv2
I0505 22:07:23.258363  9623 net.cpp:396] relu2 -> conv2 (in-place)
I0505 22:07:23.258369  9623 net.cpp:144] Setting up relu2
I0505 22:07:23.258373  9623 net.cpp:151] Top shape: 20 128 10 10 (256000)
I0505 22:07:23.258376  9623 net.cpp:159] Memory required for data: 6688080
I0505 22:07:23.258379  9623 layer_factory.hpp:77] Creating layer conv3
I0505 22:07:23.258388  9623 net.cpp:94] Creating Layer conv3
I0505 22:07:23.258390  9623 net.cpp:435] conv3 <- conv2
I0505 22:07:23.258395  9623 net.cpp:409] conv3 -> conv3
I0505 22:07:23.276466  9623 net.cpp:144] Setting up conv3
I0505 22:07:23.276481  9623 net.cpp:151] Top shape: 20 128 10 10 (256000)
I0505 22:07:23.276485  9623 net.cpp:159] Memory required for data: 7712080
I0505 22:07:23.276494  9623 layer_factory.hpp:77] Creating layer relu3
I0505 22:07:23.276500  9623 net.cpp:94] Creating Layer relu3
I0505 22:07:23.276504  9623 net.cpp:435] relu3 <- conv3
I0505 22:07:23.276509  9623 net.cpp:396] relu3 -> conv3 (in-place)
I0505 22:07:23.276515  9623 net.cpp:144] Setting up relu3
I0505 22:07:23.276520  9623 net.cpp:151] Top shape: 20 128 10 10 (256000)
I0505 22:07:23.276522  9623 net.cpp:159] Memory required for data: 8736080
I0505 22:07:23.276525  9623 layer_factory.hpp:77] Creating layer pool3
I0505 22:07:23.276531  9623 net.cpp:94] Creating Layer pool3
I0505 22:07:23.276535  9623 net.cpp:435] pool3 <- conv3
I0505 22:07:23.276538  9623 net.cpp:409] pool3 -> pool3
I0505 22:07:23.276588  9623 net.cpp:144] Setting up pool3
I0505 22:07:23.276597  9623 net.cpp:151] Top shape: 20 128 5 5 (64000)
I0505 22:07:23.276599  9623 net.cpp:159] Memory required for data: 8992080
I0505 22:07:23.276602  9623 layer_factory.hpp:77] Creating layer ip1
I0505 22:07:23.276609  9623 net.cpp:94] Creating Layer ip1
I0505 22:07:23.276612  9623 net.cpp:435] ip1 <- pool3
I0505 22:07:23.276618  9623 net.cpp:409] ip1 -> ip1
I0505 22:07:23.316339  9623 net.cpp:144] Setting up ip1
I0505 22:07:23.316359  9623 net.cpp:151] Top shape: 20 512 (10240)
I0505 22:07:23.316362  9623 net.cpp:159] Memory required for data: 9033040
I0505 22:07:23.316368  9623 layer_factory.hpp:77] Creating layer ip2
I0505 22:07:23.316376  9623 net.cpp:94] Creating Layer ip2
I0505 22:07:23.316380  9623 net.cpp:435] ip2 <- ip1
I0505 22:07:23.316386  9623 net.cpp:409] ip2 -> ip2
I0505 22:07:23.319577  9623 net.cpp:144] Setting up ip2
I0505 22:07:23.319588  9623 net.cpp:151] Top shape: 20 256 (5120)
I0505 22:07:23.319591  9623 net.cpp:159] Memory required for data: 9053520
I0505 22:07:23.319599  9623 layer_factory.hpp:77] Creating layer ip3
I0505 22:07:23.319605  9623 net.cpp:94] Creating Layer ip3
I0505 22:07:23.319608  9623 net.cpp:435] ip3 <- ip2
I0505 22:07:23.319613  9623 net.cpp:409] ip3 -> ip3
I0505 22:07:23.320906  9623 net.cpp:144] Setting up ip3
I0505 22:07:23.320920  9623 net.cpp:151] Top shape: 20 50 (1000)
I0505 22:07:23.320924  9623 net.cpp:159] Memory required for data: 9057520
I0505 22:07:23.320930  9623 layer_factory.hpp:77] Creating layer loss
I0505 22:07:23.320935  9623 net.cpp:94] Creating Layer loss
I0505 22:07:23.320940  9623 net.cpp:435] loss <- ip3
I0505 22:07:23.320943  9623 net.cpp:435] loss <- label
I0505 22:07:23.320953  9623 net.cpp:409] loss -> loss
I0505 22:07:23.320962  9623 layer_factory.hpp:77] Creating layer loss
…
I0505 22:07:23.321403  9623 solver.cpp:181] Creating test net (#0) specified by net file: ./protocol/dis_20_400_dimension.protocol_distribution
I0505 22:07:23.321425  9623 net.cpp:323] The NetState phase (1) differed from the phase (0) specified by a rule in layer parameters
I0505 22:07:23.321503  9623 net.cpp:52] Initializing net from parameters: 
state {
  phase: TEST
}
layer {
  name: "intercept"
  type: "HDF5Data"
  top: "data"
  top: "label"
  include {
    phase: TEST
  }
  hdf5_data_param {
    source: "/home/purduethu/scratch/radon/d/deng106/CNNStatisticalModel/distributions/input/20_distributions_400_sample_size_test-distributions-path.txt"
    batch_size: 20
  }
}
layer {
  name: "conv1"
  type: "Convolution"
  bottom: "data"
  top: "conv1"
  param {
    lr_mult: 1
  }
  param {
    lr_mult: 2
  }
  convolution_param {
    num_output: 64
    pad: 2
    kernel_size: 5
    stride: 1
    weight_filler {
      type: "gaussian"
      std: 0.0001
    }
    bias_filler {
      type: "constant"
    }
  }
}
layer {
  name: "relu1"
  type: "ReLU"
  bottom: "conv1"
  top: "conv1"
}
layer {
  name: "pool1"
  type: "Pooling"
  bottom: "conv1"
  top: "pool1"
  pooling_param {
    pool: MAX
    kernel_size: 3
    stride: 2
  }
}
layer {
  name: "conv2"
  type: "Convolution"
  bottom: "pool1"
  top: "conv2"
  param {
    lr_mult: 1
  }
  param {
    lr_mult: 2
  }
  convolution_param {
    num_output: 128
    pad: 2
    kernel_size: 5
    stride: 1
    weight_filler {
      type: "gaussian"
      std: 0.01
    }
    bias_filler {
      type: "constant"
    }
  }
}
layer {
  name: "relu2"
  type: "ReLU"
  bottom: "conv2"
  top: "conv2"
}
layer {
  name: "conv3"
  type: "Convolution"
  bottom: "conv2"
  top: "conv3"
  param {
    lr_mult: 1
  }
  param {
    lr_mult: 2
  }
  convolution_param {
    num_output: 128
    pad: 2
    kernel_size: 5
    stride: 1
    weight_filler {
      type: "gaussian"
      std: 0.01
    }
    bias_filler {
      type: "constant"
    }
  }
}
layer {
  name: "relu3"
  type: "ReLU"
  bottom: "conv3"
  top: "conv3"
}
layer {
  name: "pool3"
  type: "Pooling"
  bottom: "conv3"
  top: "pool3"
  pooling_param {
    pool: AVE
    kernel_size: 3
    stride: 2
  }
}
layer {
  name: "ip1"
  type: "InnerProduct"
  bottom: "pool3"
  top: "ip1"
  param {
    lr_mult: 1
  }
  param {
    lr_mult: 2
  }
  inner_product_param {
    num_output: 512
    weight_filler {
      type: "gaussian"
      std: 0.1
    }
    bias_filler {
      type: "constant"
    }
  }
}
layer {
  name: "ip2"
  type: "InnerProduct"
  bottom: "ip1"
  top: "ip2"
  param {
    lr_mult: 1
  }
  param {
    lr_mult: 2
  }
  inner_product_param {
    num_output: 256
    weight_filler {
      type: "gaussian"
      std: 0.1
    }
    bias_filler {
      type: "constant"
    }
  }
}
layer {
  name: "ip3"
  type: "InnerProduct"
  bottom: "ip2"
  top: "ip3"
  param {
    lr_mult: 1
  }
  param {
    lr_mult: 2
  }
  inner_product_param {
    num_output: 50
    weight_filler {
      type: "gaussian"
      std: 0.1
    }
    bias_filler {
      type: "constant"
    }
  }
}
layer {
  name: "accuracy"
  type: "Accuracy"
  bottom: "ip3"
  bottom: "label"
  top: "accuracy"
  include {
    phase: TEST
  }
}
layer {
  name: "loss"
  type: "SoftmaxWithLoss"
  bottom: "ip3"
  bottom: "label"
  top: "loss"
}
I0505 22:07:23.321558  9623 layer_factory.hpp:77] Creating layer intercept
I0505 22:07:23.321565  9623 net.cpp:94] Creating Layer intercept
I0505 22:07:23.321569  9623 net.cpp:409] intercept -> data
I0505 22:07:23.321575  9623 net.cpp:409] intercept -> label
I0505 22:07:23.321581  9623 hdf5_data_layer.cpp:79] Loading list of HDF5 filenames from: /home/purduethu/scratch/radon/d/deng106/CNNStatisticalModel/distributions/input/20_distributions_400_sample_size_test-distributions-path.txt
I0505 22:07:23.321600  9623 hdf5_data_layer.cpp:93] Number of HDF5 files: 1
I0505 22:07:23.385645  9623 net.cpp:144] Setting up intercept
I0505 22:07:23.385679  9623 net.cpp:151] Top shape: 20 1 20 20 (8000)
I0505 22:07:23.385684  9623 net.cpp:151] Top shape: 20 (20)
I0505 22:07:23.385687  9623 net.cpp:159] Memory required for data: 32080
I0505 22:07:23.385694  9623 layer_factory.hpp:77] Creating layer label_intercept_1_split
I0505 22:07:23.385713  9623 net.cpp:94] Creating Layer label_intercept_1_split
I0505 22:07:23.385717  9623 net.cpp:435] label_intercept_1_split <- label
I0505 22:07:23.385723  9623 net.cpp:409] label_intercept_1_split -> label_intercept_1_split_0
I0505 22:07:23.385732  9623 net.cpp:409] label_intercept_1_split -> label_intercept_1_split_1
I0505 22:07:23.385774  9623 net.cpp:144] Setting up label_intercept_1_split
I0505 22:07:23.385781  9623 net.cpp:151] Top shape: 20 (20)
I0505 22:07:23.385784  9623 net.cpp:151] Top shape: 20 (20)
I0505 22:07:23.385787  9623 net.cpp:159] Memory required for data: 32240
I0505 22:07:23.385789  9623 layer_factory.hpp:77] Creating layer conv1
I0505 22:07:23.385800  9623 net.cpp:94] Creating Layer conv1
I0505 22:07:23.385804  9623 net.cpp:435] conv1 <- data
I0505 22:07:23.385809  9623 net.cpp:409] conv1 -> conv1
I0505 22:07:23.386667  9623 net.cpp:144] Setting up conv1
I0505 22:07:23.386682  9623 net.cpp:151] Top shape: 20 64 20 20 (512000)
I0505 22:07:23.386685  9623 net.cpp:159] Memory required for data: 2080240
I0505 22:07:23.386694  9623 layer_factory.hpp:77] Creating layer relu1
I0505 22:07:23.386701  9623 net.cpp:94] Creating Layer relu1
I0505 22:07:23.386705  9623 net.cpp:435] relu1 <- conv1
I0505 22:07:23.386709  9623 net.cpp:396] relu1 -> conv1 (in-place)
I0505 22:07:23.386716  9623 net.cpp:144] Setting up relu1
I0505 22:07:23.386721  9623 net.cpp:151] Top shape: 20 64 20 20 (512000)
I0505 22:07:23.386723  9623 net.cpp:159] Memory required for data: 4128240
I0505 22:07:23.386726  9623 layer_factory.hpp:77] Creating layer pool1
I0505 22:07:23.386734  9623 net.cpp:94] Creating Layer pool1
I0505 22:07:23.386736  9623 net.cpp:435] pool1 <- conv1
I0505 22:07:23.386740  9623 net.cpp:409] pool1 -> pool1
I0505 22:07:23.386793  9623 net.cpp:144] Setting up pool1
I0505 22:07:23.386800  9623 net.cpp:151] Top shape: 20 64 10 10 (128000)
I0505 22:07:23.386802  9623 net.cpp:159] Memory required for data: 4640240
I0505 22:07:23.386806  9623 layer_factory.hpp:77] Creating layer conv2
I0505 22:07:23.386813  9623 net.cpp:94] Creating Layer conv2
I0505 22:07:23.386817  9623 net.cpp:435] conv2 <- pool1
I0505 22:07:23.386821  9623 net.cpp:409] conv2 -> conv2
I0505 22:07:23.394500  9623 net.cpp:144] Setting up conv2
I0505 22:07:23.394515  9623 net.cpp:151] Top shape: 20 128 10 10 (256000)
I0505 22:07:23.394518  9623 net.cpp:159] Memory required for data: 5664240
I0505 22:07:23.394526  9623 layer_factory.hpp:77] Creating layer relu2
I0505 22:07:23.394538  9623 net.cpp:94] Creating Layer relu2
I0505 22:07:23.394542  9623 net.cpp:435] relu2 <- conv2
I0505 22:07:23.394547  9623 net.cpp:396] relu2 -> conv2 (in-place)
I0505 22:07:23.394553  9623 net.cpp:144] Setting up relu2
I0505 22:07:23.394558  9623 net.cpp:151] Top shape: 20 128 10 10 (256000)
I0505 22:07:23.394560  9623 net.cpp:159] Memory required for data: 6688240
I0505 22:07:23.394563  9623 layer_factory.hpp:77] Creating layer conv3
I0505 22:07:23.394572  9623 net.cpp:94] Creating Layer conv3
I0505 22:07:23.394574  9623 net.cpp:435] conv3 <- conv2
I0505 22:07:23.394578  9623 net.cpp:409] conv3 -> conv3
I0505 22:07:23.408190  9623 net.cpp:144] Setting up conv3
I0505 22:07:23.408205  9623 net.cpp:151] Top shape: 20 128 10 10 (256000)
I0505 22:07:23.408208  9623 net.cpp:159] Memory required for data: 7712240
I0505 22:07:23.408216  9623 layer_factory.hpp:77] Creating layer relu3
I0505 22:07:23.408222  9623 net.cpp:94] Creating Layer relu3
I0505 22:07:23.408226  9623 net.cpp:435] relu3 <- conv3
I0505 22:07:23.408231  9623 net.cpp:396] relu3 -> conv3 (in-place)
I0505 22:07:23.408237  9623 net.cpp:144] Setting up relu3
I0505 22:07:23.408241  9623 net.cpp:151] Top shape: 20 128 10 10 (256000)
I0505 22:07:23.408244  9623 net.cpp:159] Memory required for data: 8736240
I0505 22:07:23.408247  9623 layer_factory.hpp:77] Creating layer pool3
I0505 22:07:23.408252  9623 net.cpp:94] Creating Layer pool3
I0505 22:07:23.408255  9623 net.cpp:435] pool3 <- conv3
I0505 22:07:23.408259  9623 net.cpp:409] pool3 -> pool3
I0505 22:07:23.408298  9623 net.cpp:144] Setting up pool3
I0505 22:07:23.408304  9623 net.cpp:151] Top shape: 20 128 5 5 (64000)
I0505 22:07:23.408308  9623 net.cpp:159] Memory required for data: 8992240
I0505 22:07:23.408310  9623 layer_factory.hpp:77] Creating layer ip1
I0505 22:07:23.408316  9623 net.cpp:94] Creating Layer ip1
I0505 22:07:23.408320  9623 net.cpp:435] ip1 <- pool3
I0505 22:07:23.408324  9623 net.cpp:409] ip1 -> ip1
I0505 22:07:23.447994  9623 net.cpp:144] Setting up ip1
I0505 22:07:23.448014  9623 net.cpp:151] Top shape: 20 512 (10240)
I0505 22:07:23.448017  9623 net.cpp:159] Memory required for data: 9033200
I0505 22:07:23.448024  9623 layer_factory.hpp:77] Creating layer ip2
I0505 22:07:23.448032  9623 net.cpp:94] Creating Layer ip2
I0505 22:07:23.448036  9623 net.cpp:435] ip2 <- ip1
I0505 22:07:23.448042  9623 net.cpp:409] ip2 -> ip2
I0505 22:07:23.451211  9623 net.cpp:144] Setting up ip2
I0505 22:07:23.451220  9623 net.cpp:151] Top shape: 20 256 (5120)
I0505 22:07:23.451223  9623 net.cpp:159] Memory required for data: 9053680
I0505 22:07:23.451232  9623 layer_factory.hpp:77] Creating layer ip3
I0505 22:07:23.451238  9623 net.cpp:94] Creating Layer ip3
I0505 22:07:23.451241  9623 net.cpp:435] ip3 <- ip2
I0505 22:07:23.451246  9623 net.cpp:409] ip3 -> ip3
I0505 22:07:23.451685  9623 net.cpp:144] Setting up ip3
I0505 22:07:23.451694  9623 net.cpp:151] Top shape: 20 50 (1000)
I0505 22:07:23.451695  9623 net.cpp:159] Memory required for data: 9057680
I0505 22:07:23.451700  9623 layer_factory.hpp:77] Creating layer ip3_ip3_0_split
I0505 22:07:23.451706  9623 net.cpp:94] Creating Layer ip3_ip3_0_split
I0505 22:07:23.451709  9623 net.cpp:435] ip3_ip3_0_split <- ip3
I0505 22:07:23.451714  9623 net.cpp:409] ip3_ip3_0_split -> ip3_ip3_0_split_0
I0505 22:07:23.451719  9623 net.cpp:409] ip3_ip3_0_split -> ip3_ip3_0_split_1
I0505 22:07:23.451761  9623 net.cpp:144] Setting up ip3_ip3_0_split
I0505 22:07:23.451767  9623 net.cpp:151] Top shape: 20 50 (1000)
I0505 22:07:23.451771  9623 net.cpp:151] Top shape: 20 50 (1000)
I0505 22:07:23.451773  9623 net.cpp:159] Memory required for data: 9065680
I0505 22:07:23.451776  9623 layer_factory.hpp:77] Creating layer accuracy
I0505 22:07:23.451781  9623 net.cpp:94] Creating Layer accuracy
I0505 22:07:23.451784  9623 net.cpp:435] accuracy <- ip3_ip3_0_split_0
I0505 22:07:23.451788  9623 net.cpp:435] accuracy <- label_intercept_1_split_0
I0505 22:07:23.451792  9623 net.cpp:409] accuracy -> accuracy
…
