…
I0502 13:54:07.063671  4505 net.cpp:323] The NetState phase (0) differed from the phase (1) specified by a rule in layer intercept
I0502 13:54:07.063690  4505 net.cpp:323] The NetState phase (0) differed from the phase (1) specified by a rule in layer loss
I0502 13:54:07.063786  4505 net.cpp:52] Initializing net from parameters: 
state {
  phase: TRAIN
}
layer {
  name: "parameters"
  type: "HDF5Data"
  top: "data"
  top: "label"
  include {
    phase: TRAIN
  }
  hdf5_data_param {
    source: "/home/purduethu/scratch/radon/d/deng106/CNNStatisticalModel/distributions/input/50_distributions_900_sample_size_train-parameters-path.txt"
    batch_size: 20
  }
}
layer {
  name: "conv1"
  type: "Convolution"
  bottom: "data"
  top: "conv1"
  param {
    lr_mult: 1
  }
  param {
    lr_mult: 2
  }
  convolution_param {
    num_output: 64
    pad: 2
    kernel_size: 5
    stride: 1
    weight_filler {
      type: "gaussian"
      std: 0.0001
    }
    bias_filler {
      type: "constant"
    }
  }
}
layer {
  name: "relu1"
  type: "ReLU"
  bottom: "conv1"
  top: "conv1"
}
layer {
  name: "conv2"
  type: "Convolution"
  bottom: "conv1"
  top: "conv2"
  param {
    lr_mult: 1
  }
  param {
    lr_mult: 2
  }
  convolution_param {
    num_output: 64
    pad: 2
    kernel_size: 5
    stride: 1
    weight_filler {
      type: "gaussian"
      std: 0.01
    }
    bias_filler {
      type: "constant"
    }
  }
}
layer {
  name: "relu2"
  type: "ReLU"
  bottom: "conv2"
  top: "conv2"
}
layer {
  name: "pool2"
  type: "Pooling"
  bottom: "conv2"
  top: "pool2"
  pooling_param {
    pool: MAX
    kernel_size: 3
    stride: 2
  }
}
layer {
  name: "conv3"
  type: "Convolution"
  bottom: "pool2"
  top: "conv3"
  param {
    lr_mult: 1
  }
  param {
    lr_mult: 2
  }
  convolution_param {
    num_output: 64
    pad: 2
    kernel_size: 5
    stride: 1
    weight_filler {
      type: "gaussian"
      std: 0.01
    }
    bias_filler {
      type: "constant"
    }
  }
}
layer {
  name: "relu3"
  type: "ReLU"
  bottom: "conv3"
  top: "conv3"
}
layer {
  name: "conv4"
  type: "Convolution"
  bottom: "conv3"
  top: "conv4"
  param {
    lr_mult: 1
  }
  param {
    lr_mult: 2
  }
  convolution_param {
    num_output: 64
    pad: 2
    kernel_size: 5
    stride: 1
    weight_filler {
      type: "gaussian"
      std: 0.01
    }
    bias_filler {
      type: "constant"
    }
  }
}
layer {
  name: "relu4"
  type: "ReLU"
  bottom: "conv4"
  top: "conv4"
}
layer {
  name: "conv5"
  type: "Convolution"
  bottom: "conv4"
  top: "conv5"
  param {
    lr_mult: 1
  }
  param {
    lr_mult: 2
  }
  convolution_param {
    num_output: 64
    pad: 2
    kernel_size: 5
    stride: 1
    weight_filler {
      type: "gaussian"
      std: 0.01
    }
    bias_filler {
      type: "constant"
    }
  }
}
layer {
  name: "relu5"
  type: "ReLU"
  bottom: "conv5"
  top: "conv5"
}
layer {
  name: "pool5"
  type: "Pooling"
  bottom: "conv5"
  top: "pool5"
  pooling_param {
    pool: AVE
    kernel_size: 3
    stride: 2
  }
}
layer {
  name: "ip1"
  type: "InnerProduct"
  bottom: "pool5"
  top: "ip1"
  param {
    lr_mult: 1
  }
  param {
    lr_mult: 2
  }
  inner_product_param {
    num_output: 64
    weight_filler {
      type: "gaussian"
      std: 0.1
    }
    bias_filler {
      type: "constant"
    }
  }
}
layer {
  name: "ip2"
  type: "InnerProduct"
  bottom: "ip1"
  top: "ip2"
  param {
    lr_mult: 1
  }
  param {
    lr_mult: 2
  }
  inner_product_param {
    num_output: 64
    weight_filler {
      type: "gaussian"
      std: 0.1
    }
    bias_filler {
      type: "constant"
    }
  }
}
layer {
  name: "ip3"
  type: "InnerProduct"
  bottom: "ip2"
  top: "ip3"
  param {
    lr_mult: 1
  }
  param {
    lr_mult: 2
  }
  inner_product_param {
    num_output: 1
    weight_filler {
      type: "gaussian"
      std: 0.1
    }
    bias_filler {
      type: "constant"
    }
  }
}
layer {
  name: "loss"
  type: "HuberLoss"
  bottom: "ip3"
  bottom: "label"
  top: "loss"
  include {
    phase: TRAIN
  }
}
I0502 13:54:07.063866  4505 layer_factory.hpp:77] Creating layer parameters
I0502 13:54:07.063881  4505 net.cpp:94] Creating Layer parameters
I0502 13:54:07.063886  4505 net.cpp:409] parameters -> data
I0502 13:54:07.063905  4505 net.cpp:409] parameters -> label
I0502 13:54:07.063915  4505 hdf5_data_layer.cpp:79] Loading list of HDF5 filenames from: /home/purduethu/scratch/radon/d/deng106/CNNStatisticalModel/distributions/input/50_distributions_900_sample_size_train-parameters-path.txt
I0502 13:54:07.063942  4505 hdf5_data_layer.cpp:93] Number of HDF5 files: 1
I0502 13:54:07.064596  4505 hdf5.cpp:32] Datatype class: H5T_FLOAT
I0502 13:54:08.551553  4505 net.cpp:144] Setting up parameters
I0502 13:54:08.551589  4505 net.cpp:151] Top shape: 20 1 30 30 (18000)
I0502 13:54:08.551594  4505 net.cpp:151] Top shape: 20 (20)
I0502 13:54:08.551599  4505 net.cpp:159] Memory required for data: 72080
I0502 13:54:08.551605  4505 layer_factory.hpp:77] Creating layer conv1
I0502 13:54:08.551625  4505 net.cpp:94] Creating Layer conv1
I0502 13:54:08.551630  4505 net.cpp:435] conv1 <- data
I0502 13:54:08.551640  4505 net.cpp:409] conv1 -> conv1
I0502 13:54:08.557613  4505 net.cpp:144] Setting up conv1
I0502 13:54:08.557636  4505 net.cpp:151] Top shape: 20 64 30 30 (1152000)
I0502 13:54:08.557641  4505 net.cpp:159] Memory required for data: 4680080
I0502 13:54:08.557653  4505 layer_factory.hpp:77] Creating layer relu1
I0502 13:54:08.557662  4505 net.cpp:94] Creating Layer relu1
I0502 13:54:08.557667  4505 net.cpp:435] relu1 <- conv1
I0502 13:54:08.557672  4505 net.cpp:396] relu1 -> conv1 (in-place)
I0502 13:54:08.557692  4505 net.cpp:144] Setting up relu1
I0502 13:54:08.557696  4505 net.cpp:151] Top shape: 20 64 30 30 (1152000)
I0502 13:54:08.557699  4505 net.cpp:159] Memory required for data: 9288080
I0502 13:54:08.557703  4505 layer_factory.hpp:77] Creating layer conv2
I0502 13:54:08.557711  4505 net.cpp:94] Creating Layer conv2
I0502 13:54:08.557715  4505 net.cpp:435] conv2 <- conv1
I0502 13:54:08.557720  4505 net.cpp:409] conv2 -> conv2
I0502 13:54:08.573199  4505 net.cpp:144] Setting up conv2
I0502 13:54:08.573215  4505 net.cpp:151] Top shape: 20 64 30 30 (1152000)
I0502 13:54:08.573220  4505 net.cpp:159] Memory required for data: 13896080
I0502 13:54:08.573227  4505 layer_factory.hpp:77] Creating layer relu2
I0502 13:54:08.573235  4505 net.cpp:94] Creating Layer relu2
I0502 13:54:08.573238  4505 net.cpp:435] relu2 <- conv2
I0502 13:54:08.573243  4505 net.cpp:396] relu2 -> conv2 (in-place)
I0502 13:54:08.573251  4505 net.cpp:144] Setting up relu2
I0502 13:54:08.573256  4505 net.cpp:151] Top shape: 20 64 30 30 (1152000)
I0502 13:54:08.573258  4505 net.cpp:159] Memory required for data: 18504080
I0502 13:54:08.573261  4505 layer_factory.hpp:77] Creating layer pool2
I0502 13:54:08.573268  4505 net.cpp:94] Creating Layer pool2
I0502 13:54:08.573278  4505 net.cpp:435] pool2 <- conv2
I0502 13:54:08.573283  4505 net.cpp:409] pool2 -> pool2
I0502 13:54:08.573328  4505 net.cpp:144] Setting up pool2
I0502 13:54:08.573335  4505 net.cpp:151] Top shape: 20 64 15 15 (288000)
I0502 13:54:08.573338  4505 net.cpp:159] Memory required for data: 19656080
I0502 13:54:08.573343  4505 layer_factory.hpp:77] Creating layer conv3
I0502 13:54:08.573350  4505 net.cpp:94] Creating Layer conv3
I0502 13:54:08.573354  4505 net.cpp:435] conv3 <- pool2
I0502 13:54:08.573359  4505 net.cpp:409] conv3 -> conv3
I0502 13:54:08.581627  4505 net.cpp:144] Setting up conv3
I0502 13:54:08.581642  4505 net.cpp:151] Top shape: 20 64 15 15 (288000)
I0502 13:54:08.581646  4505 net.cpp:159] Memory required for data: 20808080
I0502 13:54:08.581655  4505 layer_factory.hpp:77] Creating layer relu3
I0502 13:54:08.581661  4505 net.cpp:94] Creating Layer relu3
I0502 13:54:08.581665  4505 net.cpp:435] relu3 <- conv3
I0502 13:54:08.581670  4505 net.cpp:396] relu3 -> conv3 (in-place)
I0502 13:54:08.581677  4505 net.cpp:144] Setting up relu3
I0502 13:54:08.581681  4505 net.cpp:151] Top shape: 20 64 15 15 (288000)
I0502 13:54:08.581684  4505 net.cpp:159] Memory required for data: 21960080
I0502 13:54:08.581687  4505 layer_factory.hpp:77] Creating layer conv4
I0502 13:54:08.581696  4505 net.cpp:94] Creating Layer conv4
I0502 13:54:08.581701  4505 net.cpp:435] conv4 <- conv3
I0502 13:54:08.581704  4505 net.cpp:409] conv4 -> conv4
I0502 13:54:08.588907  4505 net.cpp:144] Setting up conv4
I0502 13:54:08.588922  4505 net.cpp:151] Top shape: 20 64 15 15 (288000)
I0502 13:54:08.588925  4505 net.cpp:159] Memory required for data: 23112080
I0502 13:54:08.588932  4505 layer_factory.hpp:77] Creating layer relu4
I0502 13:54:08.588937  4505 net.cpp:94] Creating Layer relu4
I0502 13:54:08.588942  4505 net.cpp:435] relu4 <- conv4
I0502 13:54:08.588946  4505 net.cpp:396] relu4 -> conv4 (in-place)
I0502 13:54:08.588953  4505 net.cpp:144] Setting up relu4
I0502 13:54:08.588958  4505 net.cpp:151] Top shape: 20 64 15 15 (288000)
I0502 13:54:08.588960  4505 net.cpp:159] Memory required for data: 24264080
I0502 13:54:08.588964  4505 layer_factory.hpp:77] Creating layer conv5
I0502 13:54:08.588971  4505 net.cpp:94] Creating Layer conv5
I0502 13:54:08.588975  4505 net.cpp:435] conv5 <- conv4
I0502 13:54:08.588980  4505 net.cpp:409] conv5 -> conv5
I0502 13:54:08.596191  4505 net.cpp:144] Setting up conv5
I0502 13:54:08.596207  4505 net.cpp:151] Top shape: 20 64 15 15 (288000)
I0502 13:54:08.596211  4505 net.cpp:159] Memory required for data: 25416080
I0502 13:54:08.596220  4505 layer_factory.hpp:77] Creating layer relu5
I0502 13:54:08.596226  4505 net.cpp:94] Creating Layer relu5
I0502 13:54:08.596230  4505 net.cpp:435] relu5 <- conv5
I0502 13:54:08.596235  4505 net.cpp:396] relu5 -> conv5 (in-place)
I0502 13:54:08.596242  4505 net.cpp:144] Setting up relu5
I0502 13:54:08.596246  4505 net.cpp:151] Top shape: 20 64 15 15 (288000)
I0502 13:54:08.596249  4505 net.cpp:159] Memory required for data: 26568080
I0502 13:54:08.596252  4505 layer_factory.hpp:77] Creating layer pool5
I0502 13:54:08.596257  4505 net.cpp:94] Creating Layer pool5
I0502 13:54:08.596261  4505 net.cpp:435] pool5 <- conv5
I0502 13:54:08.596266  4505 net.cpp:409] pool5 -> pool5
I0502 13:54:08.596300  4505 net.cpp:144] Setting up pool5
I0502 13:54:08.596307  4505 net.cpp:151] Top shape: 20 64 7 7 (62720)
I0502 13:54:08.596310  4505 net.cpp:159] Memory required for data: 26818960
I0502 13:54:08.596313  4505 layer_factory.hpp:77] Creating layer ip1
I0502 13:54:08.596320  4505 net.cpp:94] Creating Layer ip1
I0502 13:54:08.596323  4505 net.cpp:435] ip1 <- pool5
I0502 13:54:08.596328  4505 net.cpp:409] ip1 -> ip1
I0502 13:54:08.601718  4505 net.cpp:144] Setting up ip1
I0502 13:54:08.601733  4505 net.cpp:151] Top shape: 20 64 (1280)
I0502 13:54:08.601737  4505 net.cpp:159] Memory required for data: 26824080
I0502 13:54:08.601742  4505 layer_factory.hpp:77] Creating layer ip2
I0502 13:54:08.601749  4505 net.cpp:94] Creating Layer ip2
I0502 13:54:08.601758  4505 net.cpp:435] ip2 <- ip1
I0502 13:54:08.601763  4505 net.cpp:409] ip2 -> ip2
I0502 13:54:08.601929  4505 net.cpp:144] Setting up ip2
I0502 13:54:08.601936  4505 net.cpp:151] Top shape: 20 64 (1280)
I0502 13:54:08.601940  4505 net.cpp:159] Memory required for data: 26829200
I0502 13:54:08.601944  4505 layer_factory.hpp:77] Creating layer ip3
I0502 13:54:08.601950  4505 net.cpp:94] Creating Layer ip3
I0502 13:54:08.601953  4505 net.cpp:435] ip3 <- ip2
I0502 13:54:08.601958  4505 net.cpp:409] ip3 -> ip3
I0502 13:54:08.602020  4505 net.cpp:144] Setting up ip3
I0502 13:54:08.602032  4505 net.cpp:151] Top shape: 20 1 (20)
I0502 13:54:08.602035  4505 net.cpp:159] Memory required for data: 26829280
I0502 13:54:08.602041  4505 layer_factory.hpp:77] Creating layer loss
I0502 13:54:08.602051  4505 net.cpp:94] Creating Layer loss
I0502 13:54:08.602054  4505 net.cpp:435] loss <- ip3
I0502 13:54:08.602058  4505 net.cpp:435] loss <- label
I0502 13:54:08.602063  4505 net.cpp:409] loss -> loss
I0502 13:54:08.602097  4505 net.cpp:144] Setting up loss
…
