…
I0501 01:39:45.725921 29265 net.cpp:323] The NetState phase (0) differed from the phase (1) specified by a rule in layer intercept
I0501 01:39:45.725962 29265 net.cpp:323] The NetState phase (0) differed from the phase (1) specified by a rule in layer loss
I0501 01:39:45.726197 29265 net.cpp:52] Initializing net from parameters: 
state {
  phase: TRAIN
}
layer {
  name: "parameters"
  type: "HDF5Data"
  top: "data"
  top: "label"
  include {
    phase: TRAIN
  }
  hdf5_data_param {
    source: "/home/purduethu/scratch/radon/d/deng106/CNNStatisticalModel/distributions/input/50_distributions_400_sample_size_train-parameters-path.txt"
    batch_size: 20
  }
}
layer {
  name: "conv1"
  type: "Convolution"
  bottom: "data"
  top: "conv1"
  param {
    lr_mult: 1
  }
  param {
    lr_mult: 2
  }
  convolution_param {
    num_output: 64
    pad: 2
    kernel_size: 5
    stride: 1
    weight_filler {
      type: "gaussian"
      std: 0.0001
    }
    bias_filler {
      type: "constant"
    }
  }
}
layer {
  name: "relu1"
  type: "ReLU"
  bottom: "conv1"
  top: "conv1"
}
layer {
  name: "conv2"
  type: "Convolution"
  bottom: "conv1"
  top: "conv2"
  param {
    lr_mult: 1
  }
  param {
    lr_mult: 2
  }
  convolution_param {
    num_output: 64
    pad: 2
    kernel_size: 5
    stride: 1
    weight_filler {
      type: "gaussian"
      std: 0.01
    }
    bias_filler {
      type: "constant"
    }
  }
}
layer {
  name: "relu2"
  type: "ReLU"
  bottom: "conv2"
  top: "conv2"
}
layer {
  name: "pool2"
  type: "Pooling"
  bottom: "conv2"
  top: "pool2"
  pooling_param {
    pool: MAX
    kernel_size: 3
    stride: 2
  }
}
layer {
  name: "conv3"
  type: "Convolution"
  bottom: "pool2"
  top: "conv3"
  param {
    lr_mult: 1
  }
  param {
    lr_mult: 2
  }
  convolution_param {
    num_output: 128
    pad: 2
    kernel_size: 5
    stride: 1
    weight_filler {
      type: "gaussian"
      std: 0.01
    }
    bias_filler {
      type: "constant"
    }
  }
}
layer {
  name: "relu3"
  type: "ReLU"
  bottom: "conv3"
  top: "conv3"
}
layer {
  name: "conv4"
  type: "Convolution"
  bottom: "conv3"
  top: "conv4"
  param {
    lr_mult: 1
  }
  param {
    lr_mult: 2
  }
  convolution_param {
    num_output: 128
    pad: 2
    kernel_size: 5
    stride: 1
    weight_filler {
      type: "gaussian"
      std: 0.01
    }
    bias_filler {
      type: "constant"
    }
  }
}
layer {
  name: "relu4"
  type: "ReLU"
  bottom: "conv4"
  top: "conv4"
}
layer {
  name: "conv5"
  type: "Convolution"
  bottom: "conv4"
  top: "conv5"
  param {
    lr_mult: 1
  }
  param {
    lr_mult: 2
  }
  convolution_param {
    num_output: 128
    pad: 2
    kernel_size: 5
    stride: 1
    weight_filler {
      type: "gaussian"
      std: 0.01
    }
    bias_filler {
      type: "constant"
    }
  }
}
layer {
  name: "relu5"
  type: "ReLU"
  bottom: "conv5"
  top: "conv5"
}
layer {
  name: "pool5"
  type: "Pooling"
  bottom: "conv5"
  top: "pool5"
  pooling_param {
    pool: AVE
    kernel_size: 3
    stride: 2
  }
}
layer {
  name: "ip1"
  type: "InnerProduct"
  bottom: "pool5"
  top: "ip1"
  param {
    lr_mult: 1
  }
  param {
    lr_mult: 2
  }
  inner_product_param {
    num_output: 1024
    weight_filler {
      type: "gaussian"
      std: 0.1
    }
    bias_filler {
      type: "constant"
    }
  }
}
layer {
  name: "ip2"
  type: "InnerProduct"
  bottom: "ip1"
  top: "ip2"
  param {
    lr_mult: 1
  }
  param {
    lr_mult: 2
  }
  inner_product_param {
    num_output: 512
    weight_filler {
      type: "gaussian"
      std: 0.1
    }
    bias_filler {
      type: "constant"
    }
  }
}
layer {
  name: "ip3"
  type: "InnerProduct"
  bottom: "ip2"
  top: "ip3"
  param {
    lr_mult: 1
  }
  param {
    lr_mult: 2
  }
  inner_product_param {
    num_output: 1
    weight_filler {
      type: "gaussian"
      std: 0.1
    }
    bias_filler {
      type: "constant"
    }
  }
}
layer {
  name: "loss"
  type: "HuberLoss"
  bottom: "ip3"
  bottom: "label"
  top: "loss"
  include {
    phase: TRAIN
  }
}
I0501 01:39:45.726366 29265 layer_factory.hpp:77] Creating layer parameters
I0501 01:39:45.726399 29265 net.cpp:94] Creating Layer parameters
I0501 01:39:45.726413 29265 net.cpp:409] parameters -> data
I0501 01:39:45.726451 29265 net.cpp:409] parameters -> label
I0501 01:39:45.726475 29265 hdf5_data_layer.cpp:79] Loading list of HDF5 filenames from: /home/purduethu/scratch/radon/d/deng106/CNNStatisticalModel/distributions/input/50_distributions_400_sample_size_train-parameters-path.txt
I0501 01:39:45.726521 29265 hdf5_data_layer.cpp:93] Number of HDF5 files: 1
I0501 01:39:45.727550 29265 hdf5.cpp:32] Datatype class: H5T_FLOAT
I0501 01:39:46.433573 29265 net.cpp:144] Setting up parameters
I0501 01:39:46.433607 29265 net.cpp:151] Top shape: 20 1 20 20 (8000)
I0501 01:39:46.433614 29265 net.cpp:151] Top shape: 20 (20)
I0501 01:39:46.433617 29265 net.cpp:159] Memory required for data: 32080
I0501 01:39:46.433624 29265 layer_factory.hpp:77] Creating layer conv1
I0501 01:39:46.433643 29265 net.cpp:94] Creating Layer conv1
I0501 01:39:46.433650 29265 net.cpp:435] conv1 <- data
I0501 01:39:46.433661 29265 net.cpp:409] conv1 -> conv1
I0501 01:39:46.438506 29265 net.cpp:144] Setting up conv1
I0501 01:39:46.438525 29265 net.cpp:151] Top shape: 20 64 20 20 (512000)
I0501 01:39:46.438529 29265 net.cpp:159] Memory required for data: 2080080
I0501 01:39:46.438541 29265 layer_factory.hpp:77] Creating layer relu1
I0501 01:39:46.438550 29265 net.cpp:94] Creating Layer relu1
I0501 01:39:46.438555 29265 net.cpp:435] relu1 <- conv1
I0501 01:39:46.438560 29265 net.cpp:396] relu1 -> conv1 (in-place)
I0501 01:39:46.438575 29265 net.cpp:144] Setting up relu1
I0501 01:39:46.438581 29265 net.cpp:151] Top shape: 20 64 20 20 (512000)
I0501 01:39:46.438585 29265 net.cpp:159] Memory required for data: 4128080
I0501 01:39:46.438588 29265 layer_factory.hpp:77] Creating layer conv2
I0501 01:39:46.438596 29265 net.cpp:94] Creating Layer conv2
I0501 01:39:46.438601 29265 net.cpp:435] conv2 <- conv1
I0501 01:39:46.438606 29265 net.cpp:409] conv2 -> conv2
I0501 01:39:46.449038 29265 net.cpp:144] Setting up conv2
I0501 01:39:46.449054 29265 net.cpp:151] Top shape: 20 64 20 20 (512000)
I0501 01:39:46.449059 29265 net.cpp:159] Memory required for data: 6176080
I0501 01:39:46.449066 29265 layer_factory.hpp:77] Creating layer relu2
I0501 01:39:46.449074 29265 net.cpp:94] Creating Layer relu2
I0501 01:39:46.449077 29265 net.cpp:435] relu2 <- conv2
I0501 01:39:46.449082 29265 net.cpp:396] relu2 -> conv2 (in-place)
I0501 01:39:46.449090 29265 net.cpp:144] Setting up relu2
I0501 01:39:46.449095 29265 net.cpp:151] Top shape: 20 64 20 20 (512000)
I0501 01:39:46.449098 29265 net.cpp:159] Memory required for data: 8224080
I0501 01:39:46.449101 29265 layer_factory.hpp:77] Creating layer pool2
I0501 01:39:46.449110 29265 net.cpp:94] Creating Layer pool2
I0501 01:39:46.449120 29265 net.cpp:435] pool2 <- conv2
I0501 01:39:46.449125 29265 net.cpp:409] pool2 -> pool2
I0501 01:39:46.449172 29265 net.cpp:144] Setting up pool2
I0501 01:39:46.449179 29265 net.cpp:151] Top shape: 20 64 10 10 (128000)
I0501 01:39:46.449182 29265 net.cpp:159] Memory required for data: 8736080
I0501 01:39:46.449187 29265 layer_factory.hpp:77] Creating layer conv3
I0501 01:39:46.449194 29265 net.cpp:94] Creating Layer conv3
I0501 01:39:46.449198 29265 net.cpp:435] conv3 <- pool2
I0501 01:39:46.449203 29265 net.cpp:409] conv3 -> conv3
I0501 01:39:46.458542 29265 net.cpp:144] Setting up conv3
I0501 01:39:46.458557 29265 net.cpp:151] Top shape: 20 128 10 10 (256000)
I0501 01:39:46.458561 29265 net.cpp:159] Memory required for data: 9760080
I0501 01:39:46.458570 29265 layer_factory.hpp:77] Creating layer relu3
I0501 01:39:46.458576 29265 net.cpp:94] Creating Layer relu3
I0501 01:39:46.458580 29265 net.cpp:435] relu3 <- conv3
I0501 01:39:46.458585 29265 net.cpp:396] relu3 -> conv3 (in-place)
I0501 01:39:46.458592 29265 net.cpp:144] Setting up relu3
I0501 01:39:46.458597 29265 net.cpp:151] Top shape: 20 128 10 10 (256000)
I0501 01:39:46.458600 29265 net.cpp:159] Memory required for data: 10784080
I0501 01:39:46.458605 29265 layer_factory.hpp:77] Creating layer conv4
I0501 01:39:46.458612 29265 net.cpp:94] Creating Layer conv4
I0501 01:39:46.458616 29265 net.cpp:435] conv4 <- conv3
I0501 01:39:46.458621 29265 net.cpp:409] conv4 -> conv4
I0501 01:39:46.476186 29265 net.cpp:144] Setting up conv4
I0501 01:39:46.476202 29265 net.cpp:151] Top shape: 20 128 10 10 (256000)
I0501 01:39:46.476207 29265 net.cpp:159] Memory required for data: 11808080
I0501 01:39:46.476214 29265 layer_factory.hpp:77] Creating layer relu4
I0501 01:39:46.476220 29265 net.cpp:94] Creating Layer relu4
I0501 01:39:46.476224 29265 net.cpp:435] relu4 <- conv4
I0501 01:39:46.476229 29265 net.cpp:396] relu4 -> conv4 (in-place)
I0501 01:39:46.476236 29265 net.cpp:144] Setting up relu4
I0501 01:39:46.476241 29265 net.cpp:151] Top shape: 20 128 10 10 (256000)
I0501 01:39:46.476244 29265 net.cpp:159] Memory required for data: 12832080
I0501 01:39:46.476248 29265 layer_factory.hpp:77] Creating layer conv5
I0501 01:39:46.476255 29265 net.cpp:94] Creating Layer conv5
I0501 01:39:46.476259 29265 net.cpp:435] conv5 <- conv4
I0501 01:39:46.476264 29265 net.cpp:409] conv5 -> conv5
I0501 01:39:46.493404 29265 net.cpp:144] Setting up conv5
I0501 01:39:46.493422 29265 net.cpp:151] Top shape: 20 128 10 10 (256000)
I0501 01:39:46.493425 29265 net.cpp:159] Memory required for data: 13856080
I0501 01:39:46.493434 29265 layer_factory.hpp:77] Creating layer relu5
I0501 01:39:46.493440 29265 net.cpp:94] Creating Layer relu5
I0501 01:39:46.493444 29265 net.cpp:435] relu5 <- conv5
I0501 01:39:46.493449 29265 net.cpp:396] relu5 -> conv5 (in-place)
I0501 01:39:46.493456 29265 net.cpp:144] Setting up relu5
I0501 01:39:46.493461 29265 net.cpp:151] Top shape: 20 128 10 10 (256000)
I0501 01:39:46.493464 29265 net.cpp:159] Memory required for data: 14880080
I0501 01:39:46.493468 29265 layer_factory.hpp:77] Creating layer pool5
I0501 01:39:46.493474 29265 net.cpp:94] Creating Layer pool5
I0501 01:39:46.493476 29265 net.cpp:435] pool5 <- conv5
I0501 01:39:46.493481 29265 net.cpp:409] pool5 -> pool5
I0501 01:39:46.493517 29265 net.cpp:144] Setting up pool5
I0501 01:39:46.493525 29265 net.cpp:151] Top shape: 20 128 5 5 (64000)
I0501 01:39:46.493528 29265 net.cpp:159] Memory required for data: 15136080
I0501 01:39:46.493531 29265 layer_factory.hpp:77] Creating layer ip1
I0501 01:39:46.493541 29265 net.cpp:94] Creating Layer ip1
I0501 01:39:46.493544 29265 net.cpp:435] ip1 <- pool5
I0501 01:39:46.493549 29265 net.cpp:409] ip1 -> ip1
I0501 01:39:46.576390 29265 net.cpp:144] Setting up ip1
I0501 01:39:46.576414 29265 net.cpp:151] Top shape: 20 1024 (20480)
I0501 01:39:46.576419 29265 net.cpp:159] Memory required for data: 15218000
I0501 01:39:46.576428 29265 layer_factory.hpp:77] Creating layer ip2
I0501 01:39:46.576438 29265 net.cpp:94] Creating Layer ip2
I0501 01:39:46.576449 29265 net.cpp:435] ip2 <- ip1
I0501 01:39:46.576457 29265 net.cpp:409] ip2 -> ip2
I0501 01:39:46.590003 29265 net.cpp:144] Setting up ip2
I0501 01:39:46.590018 29265 net.cpp:151] Top shape: 20 512 (10240)
I0501 01:39:46.590021 29265 net.cpp:159] Memory required for data: 15258960
I0501 01:39:46.590029 29265 layer_factory.hpp:77] Creating layer ip3
I0501 01:39:46.590035 29265 net.cpp:94] Creating Layer ip3
I0501 01:39:46.590039 29265 net.cpp:435] ip3 <- ip2
I0501 01:39:46.590044 29265 net.cpp:409] ip3 -> ip3
I0501 01:39:46.590123 29265 net.cpp:144] Setting up ip3
I0501 01:39:46.590139 29265 net.cpp:151] Top shape: 20 1 (20)
I0501 01:39:46.590143 29265 net.cpp:159] Memory required for data: 15259040
I0501 01:39:46.590148 29265 layer_factory.hpp:77] Creating layer loss
I0501 01:39:46.590162 29265 net.cpp:94] Creating Layer loss
I0501 01:39:46.590167 29265 net.cpp:435] loss <- ip3
I0501 01:39:46.590170 29265 net.cpp:435] loss <- label
I0501 01:39:46.590176 29265 net.cpp:409] loss -> loss
I0501 01:39:46.590214 29265 net.cpp:144] Setting up loss
…
