…
I0507 02:03:08.023663 30833 net.cpp:323] The NetState phase (0) differed from the phase (1) specified by a rule in layer intercept
I0507 02:03:08.023684 30833 net.cpp:323] The NetState phase (0) differed from the phase (1) specified by a rule in layer loss
I0507 02:03:08.023783 30833 net.cpp:52] Initializing net from parameters: 
state {
  phase: TRAIN
}
layer {
  name: "parameters"
  type: "HDF5Data"
  top: "data"
  top: "label"
  include {
    phase: TRAIN
  }
  hdf5_data_param {
    source: "/home/purduethu/scratch/radon/d/deng106/CNNStatisticalModel/distributions/input/50_distributions_100_sample_size_train-parameters-path.txt"
    batch_size: 20
  }
}
layer {
  name: "conv1"
  type: "Convolution"
  bottom: "data"
  top: "conv1"
  param {
    lr_mult: 1
  }
  param {
    lr_mult: 2
  }
  convolution_param {
    num_output: 64
    pad: 2
    kernel_size: 5
    stride: 1
    weight_filler {
      type: "gaussian"
      std: 0.0001
    }
    bias_filler {
      type: "constant"
    }
  }
}
layer {
  name: "relu1"
  type: "ReLU"
  bottom: "conv1"
  top: "conv1"
}
layer {
  name: "conv2"
  type: "Convolution"
  bottom: "conv1"
  top: "conv2"
  param {
    lr_mult: 1
  }
  param {
    lr_mult: 2
  }
  convolution_param {
    num_output: 64
    pad: 2
    kernel_size: 5
    stride: 1
    weight_filler {
      type: "gaussian"
      std: 0.01
    }
    bias_filler {
      type: "constant"
    }
  }
}
layer {
  name: "relu2"
  type: "ReLU"
  bottom: "conv2"
  top: "conv2"
}
layer {
  name: "pool2"
  type: "Pooling"
  bottom: "conv2"
  top: "pool2"
  pooling_param {
    pool: MAX
    kernel_size: 3
    stride: 2
  }
}
layer {
  name: "conv3"
  type: "Convolution"
  bottom: "pool2"
  top: "conv3"
  param {
    lr_mult: 1
  }
  param {
    lr_mult: 2
  }
  convolution_param {
    num_output: 64
    pad: 2
    kernel_size: 5
    stride: 1
    weight_filler {
      type: "gaussian"
      std: 0.01
    }
    bias_filler {
      type: "constant"
    }
  }
}
layer {
  name: "relu3"
  type: "ReLU"
  bottom: "conv3"
  top: "conv3"
}
layer {
  name: "conv4"
  type: "Convolution"
  bottom: "conv3"
  top: "conv4"
  param {
    lr_mult: 1
  }
  param {
    lr_mult: 2
  }
  convolution_param {
    num_output: 64
    pad: 2
    kernel_size: 5
    stride: 1
    weight_filler {
      type: "gaussian"
      std: 0.01
    }
    bias_filler {
      type: "constant"
    }
  }
}
layer {
  name: "relu4"
  type: "ReLU"
  bottom: "conv4"
  top: "conv4"
}
layer {
  name: "conv5"
  type: "Convolution"
  bottom: "conv4"
  top: "conv5"
  param {
    lr_mult: 1
  }
  param {
    lr_mult: 2
  }
  convolution_param {
    num_output: 64
    pad: 2
    kernel_size: 5
    stride: 1
    weight_filler {
      type: "gaussian"
      std: 0.01
    }
    bias_filler {
      type: "constant"
    }
  }
}
layer {
  name: "relu5"
  type: "ReLU"
  bottom: "conv5"
  top: "conv5"
}
layer {
  name: "pool5"
  type: "Pooling"
  bottom: "conv5"
  top: "pool5"
  pooling_param {
    pool: AVE
    kernel_size: 3
    stride: 2
  }
}
layer {
  name: "ip1"
  type: "InnerProduct"
  bottom: "pool5"
  top: "ip1"
  param {
    lr_mult: 1
  }
  param {
    lr_mult: 2
  }
  inner_product_param {
    num_output: 64
    weight_filler {
      type: "gaussian"
      std: 0.1
    }
    bias_filler {
      type: "constant"
    }
  }
}
layer {
  name: "ip2"
  type: "InnerProduct"
  bottom: "ip1"
  top: "ip2"
  param {
    lr_mult: 1
  }
  param {
    lr_mult: 2
  }
  inner_product_param {
    num_output: 64
    weight_filler {
      type: "gaussian"
      std: 0.1
    }
    bias_filler {
      type: "constant"
    }
  }
}
layer {
  name: "ip3"
  type: "InnerProduct"
  bottom: "ip2"
  top: "ip3"
  param {
    lr_mult: 1
  }
  param {
    lr_mult: 2
  }
  inner_product_param {
    num_output: 1
    weight_filler {
      type: "gaussian"
      std: 0.1
    }
    bias_filler {
      type: "constant"
    }
  }
}
layer {
  name: "loss"
  type: "HuberLoss"
  bottom: "ip3"
  bottom: "label"
  top: "loss"
  include {
    phase: TRAIN
  }
}
I0507 02:03:08.023849 30833 layer_factory.hpp:77] Creating layer parameters
I0507 02:03:08.023869 30833 net.cpp:94] Creating Layer parameters
I0507 02:03:08.023874 30833 net.cpp:409] parameters -> data
I0507 02:03:08.023885 30833 net.cpp:409] parameters -> label
I0507 02:03:08.023893 30833 hdf5_data_layer.cpp:79] Loading list of HDF5 filenames from: /home/purduethu/scratch/radon/d/deng106/CNNStatisticalModel/distributions/input/50_distributions_100_sample_size_train-parameters-path.txt
I0507 02:03:08.023916 30833 hdf5_data_layer.cpp:93] Number of HDF5 files: 1
I0507 02:03:08.024593 30833 hdf5.cpp:32] Datatype class: H5T_FLOAT
I0507 02:03:08.193500 30833 net.cpp:144] Setting up parameters
I0507 02:03:08.193531 30833 net.cpp:151] Top shape: 20 1 10 10 (2000)
I0507 02:03:08.193536 30833 net.cpp:151] Top shape: 20 (20)
I0507 02:03:08.193539 30833 net.cpp:159] Memory required for data: 8080
I0507 02:03:08.193547 30833 layer_factory.hpp:77] Creating layer conv1
I0507 02:03:08.193567 30833 net.cpp:94] Creating Layer conv1
I0507 02:03:08.193572 30833 net.cpp:435] conv1 <- data
I0507 02:03:08.193579 30833 net.cpp:409] conv1 -> conv1
I0507 02:03:08.197696 30833 net.cpp:144] Setting up conv1
I0507 02:03:08.197711 30833 net.cpp:151] Top shape: 20 64 10 10 (128000)
I0507 02:03:08.197715 30833 net.cpp:159] Memory required for data: 520080
I0507 02:03:08.197726 30833 layer_factory.hpp:77] Creating layer relu1
I0507 02:03:08.197732 30833 net.cpp:94] Creating Layer relu1
I0507 02:03:08.197736 30833 net.cpp:435] relu1 <- conv1
I0507 02:03:08.197741 30833 net.cpp:396] relu1 -> conv1 (in-place)
I0507 02:03:08.197751 30833 net.cpp:144] Setting up relu1
I0507 02:03:08.197755 30833 net.cpp:151] Top shape: 20 64 10 10 (128000)
I0507 02:03:08.197759 30833 net.cpp:159] Memory required for data: 1032080
I0507 02:03:08.197762 30833 layer_factory.hpp:77] Creating layer conv2
I0507 02:03:08.197769 30833 net.cpp:94] Creating Layer conv2
I0507 02:03:08.197773 30833 net.cpp:435] conv2 <- conv1
I0507 02:03:08.197778 30833 net.cpp:409] conv2 -> conv2
I0507 02:03:08.203856 30833 net.cpp:144] Setting up conv2
I0507 02:03:08.203871 30833 net.cpp:151] Top shape: 20 64 10 10 (128000)
I0507 02:03:08.203874 30833 net.cpp:159] Memory required for data: 1544080
I0507 02:03:08.203882 30833 layer_factory.hpp:77] Creating layer relu2
I0507 02:03:08.203889 30833 net.cpp:94] Creating Layer relu2
I0507 02:03:08.203892 30833 net.cpp:435] relu2 <- conv2
I0507 02:03:08.203897 30833 net.cpp:396] relu2 -> conv2 (in-place)
I0507 02:03:08.203904 30833 net.cpp:144] Setting up relu2
I0507 02:03:08.203908 30833 net.cpp:151] Top shape: 20 64 10 10 (128000)
I0507 02:03:08.203912 30833 net.cpp:159] Memory required for data: 2056080
I0507 02:03:08.203914 30833 layer_factory.hpp:77] Creating layer pool2
I0507 02:03:08.203920 30833 net.cpp:94] Creating Layer pool2
I0507 02:03:08.203923 30833 net.cpp:435] pool2 <- conv2
I0507 02:03:08.203928 30833 net.cpp:409] pool2 -> pool2
I0507 02:03:08.203979 30833 net.cpp:144] Setting up pool2
I0507 02:03:08.203986 30833 net.cpp:151] Top shape: 20 64 5 5 (32000)
I0507 02:03:08.203990 30833 net.cpp:159] Memory required for data: 2184080
I0507 02:03:08.203994 30833 layer_factory.hpp:77] Creating layer conv3
I0507 02:03:08.204000 30833 net.cpp:94] Creating Layer conv3
I0507 02:03:08.204005 30833 net.cpp:435] conv3 <- pool2
I0507 02:03:08.204015 30833 net.cpp:409] conv3 -> conv3
I0507 02:03:08.208938 30833 net.cpp:144] Setting up conv3
I0507 02:03:08.208952 30833 net.cpp:151] Top shape: 20 64 5 5 (32000)
I0507 02:03:08.208956 30833 net.cpp:159] Memory required for data: 2312080
I0507 02:03:08.208964 30833 layer_factory.hpp:77] Creating layer relu3
I0507 02:03:08.208971 30833 net.cpp:94] Creating Layer relu3
I0507 02:03:08.208973 30833 net.cpp:435] relu3 <- conv3
I0507 02:03:08.208978 30833 net.cpp:396] relu3 -> conv3 (in-place)
I0507 02:03:08.208986 30833 net.cpp:144] Setting up relu3
I0507 02:03:08.208989 30833 net.cpp:151] Top shape: 20 64 5 5 (32000)
I0507 02:03:08.208992 30833 net.cpp:159] Memory required for data: 2440080
I0507 02:03:08.208995 30833 layer_factory.hpp:77] Creating layer conv4
I0507 02:03:08.209004 30833 net.cpp:94] Creating Layer conv4
I0507 02:03:08.209007 30833 net.cpp:435] conv4 <- conv3
I0507 02:03:08.209012 30833 net.cpp:409] conv4 -> conv4
I0507 02:03:08.213418 30833 net.cpp:144] Setting up conv4
I0507 02:03:08.213430 30833 net.cpp:151] Top shape: 20 64 5 5 (32000)
I0507 02:03:08.213434 30833 net.cpp:159] Memory required for data: 2568080
I0507 02:03:08.213440 30833 layer_factory.hpp:77] Creating layer relu4
I0507 02:03:08.213446 30833 net.cpp:94] Creating Layer relu4
I0507 02:03:08.213450 30833 net.cpp:435] relu4 <- conv4
I0507 02:03:08.213455 30833 net.cpp:396] relu4 -> conv4 (in-place)
I0507 02:03:08.213461 30833 net.cpp:144] Setting up relu4
I0507 02:03:08.213466 30833 net.cpp:151] Top shape: 20 64 5 5 (32000)
I0507 02:03:08.213469 30833 net.cpp:159] Memory required for data: 2696080
I0507 02:03:08.213472 30833 layer_factory.hpp:77] Creating layer conv5
I0507 02:03:08.213480 30833 net.cpp:94] Creating Layer conv5
I0507 02:03:08.213484 30833 net.cpp:435] conv5 <- conv4
I0507 02:03:08.213488 30833 net.cpp:409] conv5 -> conv5
I0507 02:03:08.218338 30833 net.cpp:144] Setting up conv5
I0507 02:03:08.218351 30833 net.cpp:151] Top shape: 20 64 5 5 (32000)
I0507 02:03:08.218355 30833 net.cpp:159] Memory required for data: 2824080
I0507 02:03:08.218364 30833 layer_factory.hpp:77] Creating layer relu5
I0507 02:03:08.218369 30833 net.cpp:94] Creating Layer relu5
I0507 02:03:08.218374 30833 net.cpp:435] relu5 <- conv5
I0507 02:03:08.218377 30833 net.cpp:396] relu5 -> conv5 (in-place)
I0507 02:03:08.218384 30833 net.cpp:144] Setting up relu5
I0507 02:03:08.218389 30833 net.cpp:151] Top shape: 20 64 5 5 (32000)
I0507 02:03:08.218391 30833 net.cpp:159] Memory required for data: 2952080
I0507 02:03:08.218394 30833 layer_factory.hpp:77] Creating layer pool5
I0507 02:03:08.218400 30833 net.cpp:94] Creating Layer pool5
I0507 02:03:08.218403 30833 net.cpp:435] pool5 <- conv5
I0507 02:03:08.218407 30833 net.cpp:409] pool5 -> pool5
I0507 02:03:08.218444 30833 net.cpp:144] Setting up pool5
I0507 02:03:08.218451 30833 net.cpp:151] Top shape: 20 64 2 2 (5120)
I0507 02:03:08.218454 30833 net.cpp:159] Memory required for data: 2972560
I0507 02:03:08.218457 30833 layer_factory.hpp:77] Creating layer ip1
I0507 02:03:08.218466 30833 net.cpp:94] Creating Layer ip1
I0507 02:03:08.218471 30833 net.cpp:435] ip1 <- pool5
I0507 02:03:08.218475 30833 net.cpp:409] ip1 -> ip1
I0507 02:03:08.219811 30833 net.cpp:144] Setting up ip1
I0507 02:03:08.219825 30833 net.cpp:151] Top shape: 20 64 (1280)
I0507 02:03:08.219828 30833 net.cpp:159] Memory required for data: 2977680
I0507 02:03:08.219835 30833 layer_factory.hpp:77] Creating layer ip2
I0507 02:03:08.219841 30833 net.cpp:94] Creating Layer ip2
I0507 02:03:08.219846 30833 net.cpp:435] ip2 <- ip1
I0507 02:03:08.219851 30833 net.cpp:409] ip2 -> ip2
I0507 02:03:08.220057 30833 net.cpp:144] Setting up ip2
I0507 02:03:08.220064 30833 net.cpp:151] Top shape: 20 64 (1280)
I0507 02:03:08.220068 30833 net.cpp:159] Memory required for data: 2982800
I0507 02:03:08.220073 30833 layer_factory.hpp:77] Creating layer ip3
I0507 02:03:08.220078 30833 net.cpp:94] Creating Layer ip3
I0507 02:03:08.220082 30833 net.cpp:435] ip3 <- ip2
I0507 02:03:08.220087 30833 net.cpp:409] ip3 -> ip3
I0507 02:03:08.220192 30833 net.cpp:144] Setting up ip3
I0507 02:03:08.220199 30833 net.cpp:151] Top shape: 20 1 (20)
I0507 02:03:08.220202 30833 net.cpp:159] Memory required for data: 2982880
I0507 02:03:08.220208 30833 layer_factory.hpp:77] Creating layer loss
I0507 02:03:08.220214 30833 net.cpp:94] Creating Layer loss
I0507 02:03:08.220218 30833 net.cpp:435] loss <- ip3
I0507 02:03:08.220222 30833 net.cpp:435] loss <- label
I0507 02:03:08.220227 30833 net.cpp:409] loss -> loss
I0507 02:03:08.220274 30833 net.cpp:144] Setting up loss
…
I0507 02:03:08.281904 30833 net.cpp:323] The NetState phase (0) differed from the phase (1) specified by a rule in layer intercept
I0507 02:03:08.281920 30833 net.cpp:323] The NetState phase (0) differed from the phase (1) specified by a rule in layer accuracy
I0507 02:03:08.282008 30833 net.cpp:52] Initializing net from parameters: 
state {
  phase: TRAIN
}
layer {
  name: "parameters"
  type: "HDF5Data"
  top: "data"
  top: "label"
  include {
    phase: TRAIN
  }
  hdf5_data_param {
    source: "/home/purduethu/scratch/radon/d/deng106/CNNStatisticalModel/distributions/input/50_distributions_100_sample_size_train-distributions-path.txt"
    batch_size: 20
  }
}
layer {
  name: "conv1"
  type: "Convolution"
  bottom: "data"
  top: "conv1"
  param {
    lr_mult: 1
  }
  param {
    lr_mult: 2
  }
  convolution_param {
    num_output: 64
    pad: 2
    kernel_size: 5
    stride: 1
    weight_filler {
      type: "gaussian"
      std: 0.0001
    }
    bias_filler {
      type: "constant"
    }
  }
}
layer {
  name: "relu1"
  type: "ReLU"
  bottom: "conv1"
  top: "conv1"
}
layer {
  name: "conv2"
  type: "Convolution"
  bottom: "conv1"
  top: "conv2"
  param {
    lr_mult: 1
  }
  param {
    lr_mult: 2
  }
  convolution_param {
    num_output: 64
    pad: 2
    kernel_size: 5
    stride: 1
    weight_filler {
      type: "gaussian"
      std: 0.01
    }
    bias_filler {
      type: "constant"
    }
  }
}
layer {
  name: "relu2"
  type: "ReLU"
  bottom: "conv2"
  top: "conv2"
}
layer {
  name: "pool2"
  type: "Pooling"
  bottom: "conv2"
  top: "pool2"
  pooling_param {
    pool: MAX
    kernel_size: 3
    stride: 2
  }
}
layer {
  name: "conv3"
  type: "Convolution"
  bottom: "pool2"
  top: "conv3"
  param {
    lr_mult: 1
  }
  param {
    lr_mult: 2
  }
  convolution_param {
    num_output: 64
    pad: 2
    kernel_size: 5
    stride: 1
    weight_filler {
      type: "gaussian"
      std: 0.01
    }
    bias_filler {
      type: "constant"
    }
  }
}
layer {
  name: "relu3"
  type: "ReLU"
  bottom: "conv3"
  top: "conv3"
}
layer {
  name: "conv4"
  type: "Convolution"
  bottom: "conv3"
  top: "conv4"
  param {
    lr_mult: 1
  }
  param {
    lr_mult: 2
  }
  convolution_param {
    num_output: 64
    pad: 2
    kernel_size: 5
    stride: 1
    weight_filler {
      type: "gaussian"
      std: 0.01
    }
    bias_filler {
      type: "constant"
    }
  }
}
layer {
  name: "relu4"
  type: "ReLU"
  bottom: "conv4"
  top: "conv4"
}
layer {
  name: "conv5"
  type: "Convolution"
  bottom: "conv4"
  top: "conv5"
  param {
    lr_mult: 1
  }
  param {
    lr_mult: 2
  }
  convolution_param {
    num_output: 64
    pad: 2
    kernel_size: 5
    stride: 1
    weight_filler {
      type: "gaussian"
      std: 0.01
    }
    bias_filler {
      type: "constant"
    }
  }
}
layer {
  name: "relu5"
  type: "ReLU"
  bottom: "conv5"
  top: "conv5"
}
layer {
  name: "pool5"
  type: "Pooling"
  bottom: "conv5"
  top: "pool5"
  pooling_param {
    pool: AVE
    kernel_size: 3
    stride: 2
  }
}
layer {
  name: "ip1"
  type: "InnerProduct"
  bottom: "pool5"
  top: "ip1"
  param {
    lr_mult: 1
  }
  param {
    lr_mult: 2
  }
  inner_product_param {
    num_output: 64
    weight_filler {
      type: "gaussian"
      std: 0.1
    }
    bias_filler {
      type: "constant"
    }
  }
}
layer {
  name: "ip2"
  type: "InnerProduct"
  bottom: "ip1"
  top: "ip2"
  param {
    lr_mult: 1
  }
  param {
    lr_mult: 2
  }
  inner_product_param {
    num_output: 64
    weight_filler {
      type: "gaussian"
      std: 0.1
    }
    bias_filler {
      type: "constant"
    }
  }
}
layer {
  name: "ip3"
  type: "InnerProduct"
  bottom: "ip2"
  top: "ip3"
  param {
    lr_mult: 1
  }
  param {
    lr_mult: 2
  }
  inner_product_param {
    num_output: 50
    weight_filler {
      type: "gaussian"
      std: 0.1
    }
    bias_filler {
      type: "constant"
    }
  }
}
layer {
  name: "loss"
  type: "SoftmaxWithLoss"
  bottom: "ip3"
  bottom: "label"
  top: "loss"
}
I0507 02:03:08.282063 30833 layer_factory.hpp:77] Creating layer parameters
I0507 02:03:08.282071 30833 net.cpp:94] Creating Layer parameters
I0507 02:03:08.282075 30833 net.cpp:409] parameters -> data
I0507 02:03:08.282083 30833 net.cpp:409] parameters -> label
I0507 02:03:08.282088 30833 hdf5_data_layer.cpp:79] Loading list of HDF5 filenames from: /home/purduethu/scratch/radon/d/deng106/CNNStatisticalModel/distributions/input/50_distributions_100_sample_size_train-distributions-path.txt
I0507 02:03:08.282105 30833 hdf5_data_layer.cpp:93] Number of HDF5 files: 1
I0507 02:03:08.440675 30833 hdf5.cpp:35] Datatype class: H5T_INTEGER
I0507 02:03:08.443756 30833 net.cpp:144] Setting up parameters
I0507 02:03:08.443773 30833 net.cpp:151] Top shape: 20 1 10 10 (2000)
I0507 02:03:08.443778 30833 net.cpp:151] Top shape: 20 (20)
I0507 02:03:08.443781 30833 net.cpp:159] Memory required for data: 8080
I0507 02:03:08.443787 30833 layer_factory.hpp:77] Creating layer conv1
I0507 02:03:08.443804 30833 net.cpp:94] Creating Layer conv1
I0507 02:03:08.443809 30833 net.cpp:435] conv1 <- data
I0507 02:03:08.443814 30833 net.cpp:409] conv1 -> conv1
I0507 02:03:08.445566 30833 net.cpp:144] Setting up conv1
I0507 02:03:08.445580 30833 net.cpp:151] Top shape: 20 64 10 10 (128000)
I0507 02:03:08.445585 30833 net.cpp:159] Memory required for data: 520080
I0507 02:03:08.445595 30833 layer_factory.hpp:77] Creating layer relu1
I0507 02:03:08.445601 30833 net.cpp:94] Creating Layer relu1
I0507 02:03:08.445605 30833 net.cpp:435] relu1 <- conv1
I0507 02:03:08.445610 30833 net.cpp:396] relu1 -> conv1 (in-place)
I0507 02:03:08.445616 30833 net.cpp:144] Setting up relu1
I0507 02:03:08.445621 30833 net.cpp:151] Top shape: 20 64 10 10 (128000)
I0507 02:03:08.445624 30833 net.cpp:159] Memory required for data: 1032080
I0507 02:03:08.445627 30833 layer_factory.hpp:77] Creating layer conv2
I0507 02:03:08.445636 30833 net.cpp:94] Creating Layer conv2
I0507 02:03:08.445638 30833 net.cpp:435] conv2 <- conv1
I0507 02:03:08.445643 30833 net.cpp:409] conv2 -> conv2
I0507 02:03:08.451002 30833 net.cpp:144] Setting up conv2
I0507 02:03:08.451016 30833 net.cpp:151] Top shape: 20 64 10 10 (128000)
I0507 02:03:08.451020 30833 net.cpp:159] Memory required for data: 1544080
I0507 02:03:08.451027 30833 layer_factory.hpp:77] Creating layer relu2
I0507 02:03:08.451035 30833 net.cpp:94] Creating Layer relu2
I0507 02:03:08.451037 30833 net.cpp:435] relu2 <- conv2
I0507 02:03:08.451042 30833 net.cpp:396] relu2 -> conv2 (in-place)
I0507 02:03:08.451050 30833 net.cpp:144] Setting up relu2
I0507 02:03:08.451053 30833 net.cpp:151] Top shape: 20 64 10 10 (128000)
I0507 02:03:08.451056 30833 net.cpp:159] Memory required for data: 2056080
I0507 02:03:08.451059 30833 layer_factory.hpp:77] Creating layer pool2
I0507 02:03:08.451066 30833 net.cpp:94] Creating Layer pool2
I0507 02:03:08.451068 30833 net.cpp:435] pool2 <- conv2
I0507 02:03:08.451072 30833 net.cpp:409] pool2 -> pool2
I0507 02:03:08.451122 30833 net.cpp:144] Setting up pool2
I0507 02:03:08.451129 30833 net.cpp:151] Top shape: 20 64 5 5 (32000)
I0507 02:03:08.451133 30833 net.cpp:159] Memory required for data: 2184080
I0507 02:03:08.451136 30833 layer_factory.hpp:77] Creating layer conv3
I0507 02:03:08.451143 30833 net.cpp:94] Creating Layer conv3
I0507 02:03:08.451148 30833 net.cpp:435] conv3 <- pool2
I0507 02:03:08.451153 30833 net.cpp:409] conv3 -> conv3
I0507 02:03:08.456940 30833 net.cpp:144] Setting up conv3
I0507 02:03:08.456954 30833 net.cpp:151] Top shape: 20 64 5 5 (32000)
I0507 02:03:08.456959 30833 net.cpp:159] Memory required for data: 2312080
I0507 02:03:08.456966 30833 layer_factory.hpp:77] Creating layer relu3
I0507 02:03:08.456972 30833 net.cpp:94] Creating Layer relu3
I0507 02:03:08.456975 30833 net.cpp:435] relu3 <- conv3
I0507 02:03:08.456980 30833 net.cpp:396] relu3 -> conv3 (in-place)
I0507 02:03:08.456986 30833 net.cpp:144] Setting up relu3
I0507 02:03:08.456991 30833 net.cpp:151] Top shape: 20 64 5 5 (32000)
I0507 02:03:08.457000 30833 net.cpp:159] Memory required for data: 2440080
I0507 02:03:08.457003 30833 layer_factory.hpp:77] Creating layer conv4
I0507 02:03:08.457012 30833 net.cpp:94] Creating Layer conv4
I0507 02:03:08.457016 30833 net.cpp:435] conv4 <- conv3
I0507 02:03:08.457020 30833 net.cpp:409] conv4 -> conv4
I0507 02:03:08.461952 30833 net.cpp:144] Setting up conv4
I0507 02:03:08.461966 30833 net.cpp:151] Top shape: 20 64 5 5 (32000)
I0507 02:03:08.461969 30833 net.cpp:159] Memory required for data: 2568080
I0507 02:03:08.461977 30833 layer_factory.hpp:77] Creating layer relu4
I0507 02:03:08.461982 30833 net.cpp:94] Creating Layer relu4
I0507 02:03:08.461985 30833 net.cpp:435] relu4 <- conv4
I0507 02:03:08.461990 30833 net.cpp:396] relu4 -> conv4 (in-place)
I0507 02:03:08.461997 30833 net.cpp:144] Setting up relu4
I0507 02:03:08.462002 30833 net.cpp:151] Top shape: 20 64 5 5 (32000)
I0507 02:03:08.462004 30833 net.cpp:159] Memory required for data: 2696080
I0507 02:03:08.462007 30833 layer_factory.hpp:77] Creating layer conv5
I0507 02:03:08.462014 30833 net.cpp:94] Creating Layer conv5
I0507 02:03:08.462018 30833 net.cpp:435] conv5 <- conv4
I0507 02:03:08.462023 30833 net.cpp:409] conv5 -> conv5
I0507 02:03:08.466490 30833 net.cpp:144] Setting up conv5
I0507 02:03:08.466503 30833 net.cpp:151] Top shape: 20 64 5 5 (32000)
I0507 02:03:08.466506 30833 net.cpp:159] Memory required for data: 2824080
I0507 02:03:08.466516 30833 layer_factory.hpp:77] Creating layer relu5
I0507 02:03:08.466521 30833 net.cpp:94] Creating Layer relu5
I0507 02:03:08.466524 30833 net.cpp:435] relu5 <- conv5
I0507 02:03:08.466529 30833 net.cpp:396] relu5 -> conv5 (in-place)
I0507 02:03:08.466536 30833 net.cpp:144] Setting up relu5
I0507 02:03:08.466540 30833 net.cpp:151] Top shape: 20 64 5 5 (32000)
I0507 02:03:08.466543 30833 net.cpp:159] Memory required for data: 2952080
I0507 02:03:08.466547 30833 layer_factory.hpp:77] Creating layer pool5
I0507 02:03:08.466552 30833 net.cpp:94] Creating Layer pool5
I0507 02:03:08.466554 30833 net.cpp:435] pool5 <- conv5
I0507 02:03:08.466558 30833 net.cpp:409] pool5 -> pool5
I0507 02:03:08.466593 30833 net.cpp:144] Setting up pool5
I0507 02:03:08.466599 30833 net.cpp:151] Top shape: 20 64 2 2 (5120)
I0507 02:03:08.466603 30833 net.cpp:159] Memory required for data: 2972560
I0507 02:03:08.466605 30833 layer_factory.hpp:77] Creating layer ip1
I0507 02:03:08.466612 30833 net.cpp:94] Creating Layer ip1
I0507 02:03:08.466615 30833 net.cpp:435] ip1 <- pool5
I0507 02:03:08.466620 30833 net.cpp:409] ip1 -> ip1
I0507 02:03:08.467140 30833 net.cpp:144] Setting up ip1
I0507 02:03:08.467149 30833 net.cpp:151] Top shape: 20 64 (1280)
I0507 02:03:08.467151 30833 net.cpp:159] Memory required for data: 2977680
I0507 02:03:08.467157 30833 layer_factory.hpp:77] Creating layer ip2
I0507 02:03:08.467164 30833 net.cpp:94] Creating Layer ip2
I0507 02:03:08.467166 30833 net.cpp:435] ip2 <- ip1
I0507 02:03:08.467171 30833 net.cpp:409] ip2 -> ip2
I0507 02:03:08.467387 30833 net.cpp:144] Setting up ip2
I0507 02:03:08.467394 30833 net.cpp:151] Top shape: 20 64 (1280)
I0507 02:03:08.467397 30833 net.cpp:159] Memory required for data: 2982800
I0507 02:03:08.467402 30833 layer_factory.hpp:77] Creating layer ip3
I0507 02:03:08.467408 30833 net.cpp:94] Creating Layer ip3
I0507 02:03:08.467411 30833 net.cpp:435] ip3 <- ip2
I0507 02:03:08.467417 30833 net.cpp:409] ip3 -> ip3
I0507 02:03:08.467605 30833 net.cpp:144] Setting up ip3
I0507 02:03:08.467612 30833 net.cpp:151] Top shape: 20 50 (1000)
I0507 02:03:08.467614 30833 net.cpp:159] Memory required for data: 2986800
I0507 02:03:08.467619 30833 layer_factory.hpp:77] Creating layer loss
I0507 02:03:08.467627 30833 net.cpp:94] Creating Layer loss
I0507 02:03:08.467629 30833 net.cpp:435] loss <- ip3
I0507 02:03:08.467633 30833 net.cpp:435] loss <- label
I0507 02:03:08.467638 30833 net.cpp:409] loss -> loss
I0507 02:03:08.467644 30833 layer_factory.hpp:77] Creating layer loss
…
I0507 02:03:08.469015 30833 solver.cpp:181] Creating test net (#0) specified by net file: ./protocol/dis_50_100_dimension.protocol_distribution
I0507 02:03:08.469041 30833 net.cpp:323] The NetState phase (1) differed from the phase (0) specified by a rule in layer parameters
I0507 02:03:08.469137 30833 net.cpp:52] Initializing net from parameters: 
state {
  phase: TEST
}
layer {
  name: "intercept"
  type: "HDF5Data"
  top: "data"
  top: "label"
  include {
    phase: TEST
  }
  hdf5_data_param {
    source: "/home/purduethu/scratch/radon/d/deng106/CNNStatisticalModel/distributions/input/50_distributions_100_sample_size_test-distributions-path.txt"
    batch_size: 20
  }
}
layer {
  name: "conv1"
  type: "Convolution"
  bottom: "data"
  top: "conv1"
  param {
    lr_mult: 1
  }
  param {
    lr_mult: 2
  }
  convolution_param {
    num_output: 64
    pad: 2
    kernel_size: 5
    stride: 1
    weight_filler {
      type: "gaussian"
      std: 0.0001
    }
    bias_filler {
      type: "constant"
    }
  }
}
layer {
  name: "relu1"
  type: "ReLU"
  bottom: "conv1"
  top: "conv1"
}
layer {
  name: "conv2"
  type: "Convolution"
  bottom: "conv1"
  top: "conv2"
  param {
    lr_mult: 1
  }
  param {
    lr_mult: 2
  }
  convolution_param {
    num_output: 64
    pad: 2
    kernel_size: 5
    stride: 1
    weight_filler {
      type: "gaussian"
      std: 0.01
    }
    bias_filler {
      type: "constant"
    }
  }
}
layer {
  name: "relu2"
  type: "ReLU"
  bottom: "conv2"
  top: "conv2"
}
layer {
  name: "pool2"
  type: "Pooling"
  bottom: "conv2"
  top: "pool2"
  pooling_param {
    pool: MAX
    kernel_size: 3
    stride: 2
  }
}
layer {
  name: "conv3"
  type: "Convolution"
  bottom: "pool2"
  top: "conv3"
  param {
    lr_mult: 1
  }
  param {
    lr_mult: 2
  }
  convolution_param {
    num_output: 64
    pad: 2
    kernel_size: 5
    stride: 1
    weight_filler {
      type: "gaussian"
      std: 0.01
    }
    bias_filler {
      type: "constant"
    }
  }
}
layer {
  name: "relu3"
  type: "ReLU"
  bottom: "conv3"
  top: "conv3"
}
layer {
  name: "conv4"
  type: "Convolution"
  bottom: "conv3"
  top: "conv4"
  param {
    lr_mult: 1
  }
  param {
    lr_mult: 2
  }
  convolution_param {
    num_output: 64
    pad: 2
    kernel_size: 5
    stride: 1
    weight_filler {
      type: "gaussian"
      std: 0.01
    }
    bias_filler {
      type: "constant"
    }
  }
}
layer {
  name: "relu4"
  type: "ReLU"
  bottom: "conv4"
  top: "conv4"
}
layer {
  name: "conv5"
  type: "Convolution"
  bottom: "conv4"
  top: "conv5"
  param {
    lr_mult: 1
  }
  param {
    lr_mult: 2
  }
  convolution_param {
    num_output: 64
    pad: 2
    kernel_size: 5
    stride: 1
    weight_filler {
      type: "gaussian"
      std: 0.01
    }
    bias_filler {
      type: "constant"
    }
  }
}
layer {
  name: "relu5"
  type: "ReLU"
  bottom: "conv5"
  top: "conv5"
}
layer {
  name: "pool5"
  type: "Pooling"
  bottom: "conv5"
  top: "pool5"
  pooling_param {
    pool: AVE
    kernel_size: 3
    stride: 2
  }
}
layer {
  name: "ip1"
  type: "InnerProduct"
  bottom: "pool5"
  top: "ip1"
  param {
    lr_mult: 1
  }
  param {
    lr_mult: 2
  }
  inner_product_param {
    num_output: 64
    weight_filler {
      type: "gaussian"
      std: 0.1
    }
    bias_filler {
      type: "constant"
    }
  }
}
layer {
  name: "ip2"
  type: "InnerProduct"
  bottom: "ip1"
  top: "ip2"
  param {
    lr_mult: 1
  }
  param {
    lr_mult: 2
  }
  inner_product_param {
    num_output: 64
    weight_filler {
      type: "gaussian"
      std: 0.1
    }
    bias_filler {
      type: "constant"
    }
  }
}
layer {
  name: "ip3"
  type: "InnerProduct"
  bottom: "ip2"
  top: "ip3"
  param {
    lr_mult: 1
  }
  param {
    lr_mult: 2
  }
  inner_product_param {
    num_output: 50
    weight_filler {
      type: "gaussian"
      std: 0.1
    }
    bias_filler {
      type: "constant"
    }
  }
}
layer {
  name: "accuracy"
  type: "Accuracy"
  bottom: "ip3"
  bottom: "label"
  top: "accuracy"
  include {
    phase: TEST
  }
}
layer {
  name: "loss"
  type: "SoftmaxWithLoss"
  bottom: "ip3"
  bottom: "label"
  top: "loss"
}
I0507 02:03:08.469204 30833 layer_factory.hpp:77] Creating layer intercept
I0507 02:03:08.469213 30833 net.cpp:94] Creating Layer intercept
I0507 02:03:08.469218 30833 net.cpp:409] intercept -> data
I0507 02:03:08.469223 30833 net.cpp:409] intercept -> label
I0507 02:03:08.469229 30833 hdf5_data_layer.cpp:79] Loading list of HDF5 filenames from: /home/purduethu/scratch/radon/d/deng106/CNNStatisticalModel/distributions/input/50_distributions_100_sample_size_test-distributions-path.txt
I0507 02:03:08.469250 30833 hdf5_data_layer.cpp:93] Number of HDF5 files: 1
I0507 02:03:08.510668 30833 net.cpp:144] Setting up intercept
I0507 02:03:08.510700 30833 net.cpp:151] Top shape: 20 1 10 10 (2000)
I0507 02:03:08.510705 30833 net.cpp:151] Top shape: 20 (20)
I0507 02:03:08.510710 30833 net.cpp:159] Memory required for data: 8080
I0507 02:03:08.510715 30833 layer_factory.hpp:77] Creating layer label_intercept_1_split
I0507 02:03:08.510735 30833 net.cpp:94] Creating Layer label_intercept_1_split
I0507 02:03:08.510738 30833 net.cpp:435] label_intercept_1_split <- label
I0507 02:03:08.510746 30833 net.cpp:409] label_intercept_1_split -> label_intercept_1_split_0
I0507 02:03:08.510753 30833 net.cpp:409] label_intercept_1_split -> label_intercept_1_split_1
I0507 02:03:08.510794 30833 net.cpp:144] Setting up label_intercept_1_split
I0507 02:03:08.510800 30833 net.cpp:151] Top shape: 20 (20)
I0507 02:03:08.510804 30833 net.cpp:151] Top shape: 20 (20)
I0507 02:03:08.510807 30833 net.cpp:159] Memory required for data: 8240
I0507 02:03:08.510812 30833 layer_factory.hpp:77] Creating layer conv1
I0507 02:03:08.510821 30833 net.cpp:94] Creating Layer conv1
I0507 02:03:08.510825 30833 net.cpp:435] conv1 <- data
I0507 02:03:08.510830 30833 net.cpp:409] conv1 -> conv1
I0507 02:03:08.511600 30833 net.cpp:144] Setting up conv1
I0507 02:03:08.511613 30833 net.cpp:151] Top shape: 20 64 10 10 (128000)
I0507 02:03:08.511617 30833 net.cpp:159] Memory required for data: 520240
I0507 02:03:08.511626 30833 layer_factory.hpp:77] Creating layer relu1
I0507 02:03:08.511633 30833 net.cpp:94] Creating Layer relu1
I0507 02:03:08.511636 30833 net.cpp:435] relu1 <- conv1
I0507 02:03:08.511641 30833 net.cpp:396] relu1 -> conv1 (in-place)
I0507 02:03:08.511648 30833 net.cpp:144] Setting up relu1
I0507 02:03:08.511652 30833 net.cpp:151] Top shape: 20 64 10 10 (128000)
I0507 02:03:08.511656 30833 net.cpp:159] Memory required for data: 1032240
I0507 02:03:08.511665 30833 layer_factory.hpp:77] Creating layer conv2
I0507 02:03:08.511673 30833 net.cpp:94] Creating Layer conv2
I0507 02:03:08.511677 30833 net.cpp:435] conv2 <- conv1
I0507 02:03:08.511682 30833 net.cpp:409] conv2 -> conv2
I0507 02:03:08.515836 30833 net.cpp:144] Setting up conv2
I0507 02:03:08.515851 30833 net.cpp:151] Top shape: 20 64 10 10 (128000)
I0507 02:03:08.515853 30833 net.cpp:159] Memory required for data: 1544240
I0507 02:03:08.515861 30833 layer_factory.hpp:77] Creating layer relu2
I0507 02:03:08.515868 30833 net.cpp:94] Creating Layer relu2
I0507 02:03:08.515872 30833 net.cpp:435] relu2 <- conv2
I0507 02:03:08.515877 30833 net.cpp:396] relu2 -> conv2 (in-place)
I0507 02:03:08.515883 30833 net.cpp:144] Setting up relu2
I0507 02:03:08.515887 30833 net.cpp:151] Top shape: 20 64 10 10 (128000)
I0507 02:03:08.515890 30833 net.cpp:159] Memory required for data: 2056240
I0507 02:03:08.515893 30833 layer_factory.hpp:77] Creating layer pool2
I0507 02:03:08.515899 30833 net.cpp:94] Creating Layer pool2
I0507 02:03:08.515902 30833 net.cpp:435] pool2 <- conv2
I0507 02:03:08.515907 30833 net.cpp:409] pool2 -> pool2
I0507 02:03:08.515960 30833 net.cpp:144] Setting up pool2
I0507 02:03:08.515967 30833 net.cpp:151] Top shape: 20 64 5 5 (32000)
I0507 02:03:08.515970 30833 net.cpp:159] Memory required for data: 2184240
I0507 02:03:08.515974 30833 layer_factory.hpp:77] Creating layer conv3
I0507 02:03:08.515983 30833 net.cpp:94] Creating Layer conv3
I0507 02:03:08.515986 30833 net.cpp:435] conv3 <- pool2
I0507 02:03:08.515992 30833 net.cpp:409] conv3 -> conv3
I0507 02:03:08.520484 30833 net.cpp:144] Setting up conv3
I0507 02:03:08.520498 30833 net.cpp:151] Top shape: 20 64 5 5 (32000)
I0507 02:03:08.520503 30833 net.cpp:159] Memory required for data: 2312240
I0507 02:03:08.520510 30833 layer_factory.hpp:77] Creating layer relu3
I0507 02:03:08.520517 30833 net.cpp:94] Creating Layer relu3
I0507 02:03:08.520520 30833 net.cpp:435] relu3 <- conv3
I0507 02:03:08.520524 30833 net.cpp:396] relu3 -> conv3 (in-place)
I0507 02:03:08.520531 30833 net.cpp:144] Setting up relu3
I0507 02:03:08.520535 30833 net.cpp:151] Top shape: 20 64 5 5 (32000)
I0507 02:03:08.520539 30833 net.cpp:159] Memory required for data: 2440240
I0507 02:03:08.520541 30833 layer_factory.hpp:77] Creating layer conv4
I0507 02:03:08.520560 30833 net.cpp:94] Creating Layer conv4
I0507 02:03:08.520567 30833 net.cpp:435] conv4 <- conv3
I0507 02:03:08.520573 30833 net.cpp:409] conv4 -> conv4
I0507 02:03:08.524164 30833 net.cpp:144] Setting up conv4
I0507 02:03:08.524178 30833 net.cpp:151] Top shape: 20 64 5 5 (32000)
I0507 02:03:08.524181 30833 net.cpp:159] Memory required for data: 2568240
I0507 02:03:08.524186 30833 layer_factory.hpp:77] Creating layer relu4
I0507 02:03:08.524193 30833 net.cpp:94] Creating Layer relu4
I0507 02:03:08.524195 30833 net.cpp:435] relu4 <- conv4
I0507 02:03:08.524199 30833 net.cpp:396] relu4 -> conv4 (in-place)
I0507 02:03:08.524206 30833 net.cpp:144] Setting up relu4
I0507 02:03:08.524210 30833 net.cpp:151] Top shape: 20 64 5 5 (32000)
I0507 02:03:08.524214 30833 net.cpp:159] Memory required for data: 2696240
I0507 02:03:08.524216 30833 layer_factory.hpp:77] Creating layer conv5
I0507 02:03:08.524224 30833 net.cpp:94] Creating Layer conv5
I0507 02:03:08.524227 30833 net.cpp:435] conv5 <- conv4
I0507 02:03:08.524233 30833 net.cpp:409] conv5 -> conv5
I0507 02:03:08.528295 30833 net.cpp:144] Setting up conv5
I0507 02:03:08.528309 30833 net.cpp:151] Top shape: 20 64 5 5 (32000)
I0507 02:03:08.528313 30833 net.cpp:159] Memory required for data: 2824240
I0507 02:03:08.528322 30833 layer_factory.hpp:77] Creating layer relu5
I0507 02:03:08.528328 30833 net.cpp:94] Creating Layer relu5
I0507 02:03:08.528332 30833 net.cpp:435] relu5 <- conv5
I0507 02:03:08.528338 30833 net.cpp:396] relu5 -> conv5 (in-place)
I0507 02:03:08.528344 30833 net.cpp:144] Setting up relu5
I0507 02:03:08.528349 30833 net.cpp:151] Top shape: 20 64 5 5 (32000)
I0507 02:03:08.528352 30833 net.cpp:159] Memory required for data: 2952240
I0507 02:03:08.528358 30833 layer_factory.hpp:77] Creating layer pool5
I0507 02:03:08.528363 30833 net.cpp:94] Creating Layer pool5
I0507 02:03:08.528367 30833 net.cpp:435] pool5 <- conv5
I0507 02:03:08.528372 30833 net.cpp:409] pool5 -> pool5
I0507 02:03:08.528409 30833 net.cpp:144] Setting up pool5
I0507 02:03:08.528415 30833 net.cpp:151] Top shape: 20 64 2 2 (5120)
I0507 02:03:08.528419 30833 net.cpp:159] Memory required for data: 2972720
I0507 02:03:08.528421 30833 layer_factory.hpp:77] Creating layer ip1
I0507 02:03:08.528429 30833 net.cpp:94] Creating Layer ip1
I0507 02:03:08.528432 30833 net.cpp:435] ip1 <- pool5
I0507 02:03:08.528436 30833 net.cpp:409] ip1 -> ip1
I0507 02:03:08.528981 30833 net.cpp:144] Setting up ip1
I0507 02:03:08.528991 30833 net.cpp:151] Top shape: 20 64 (1280)
I0507 02:03:08.528995 30833 net.cpp:159] Memory required for data: 2977840
I0507 02:03:08.529000 30833 layer_factory.hpp:77] Creating layer ip2
I0507 02:03:08.529006 30833 net.cpp:94] Creating Layer ip2
I0507 02:03:08.529008 30833 net.cpp:435] ip2 <- ip1
I0507 02:03:08.529013 30833 net.cpp:409] ip2 -> ip2
I0507 02:03:08.529242 30833 net.cpp:144] Setting up ip2
I0507 02:03:08.529250 30833 net.cpp:151] Top shape: 20 64 (1280)
I0507 02:03:08.529253 30833 net.cpp:159] Memory required for data: 2982960
I0507 02:03:08.529258 30833 layer_factory.hpp:77] Creating layer ip3
I0507 02:03:08.529266 30833 net.cpp:94] Creating Layer ip3
I0507 02:03:08.529270 30833 net.cpp:435] ip3 <- ip2
I0507 02:03:08.529275 30833 net.cpp:409] ip3 -> ip3
I0507 02:03:08.529476 30833 net.cpp:144] Setting up ip3
I0507 02:03:08.529484 30833 net.cpp:151] Top shape: 20 50 (1000)
I0507 02:03:08.529486 30833 net.cpp:159] Memory required for data: 2986960
I0507 02:03:08.529490 30833 layer_factory.hpp:77] Creating layer ip3_ip3_0_split
I0507 02:03:08.529495 30833 net.cpp:94] Creating Layer ip3_ip3_0_split
I0507 02:03:08.529498 30833 net.cpp:435] ip3_ip3_0_split <- ip3
I0507 02:03:08.529503 30833 net.cpp:409] ip3_ip3_0_split -> ip3_ip3_0_split_0
I0507 02:03:08.529508 30833 net.cpp:409] ip3_ip3_0_split -> ip3_ip3_0_split_1
I0507 02:03:08.529547 30833 net.cpp:144] Setting up ip3_ip3_0_split
I0507 02:03:08.529553 30833 net.cpp:151] Top shape: 20 50 (1000)
I0507 02:03:08.529557 30833 net.cpp:151] Top shape: 20 50 (1000)
I0507 02:03:08.529561 30833 net.cpp:159] Memory required for data: 2994960
I0507 02:03:08.529563 30833 layer_factory.hpp:77] Creating layer accuracy
I0507 02:03:08.529568 30833 net.cpp:94] Creating Layer accuracy
I0507 02:03:08.529572 30833 net.cpp:435] accuracy <- ip3_ip3_0_split_0
I0507 02:03:08.529575 30833 net.cpp:435] accuracy <- label_intercept_1_split_0
I0507 02:03:08.529580 30833 net.cpp:409] accuracy -> accuracy
…
