…
I0507 17:39:01.108973  5515 net.cpp:323] The NetState phase (0) differed from the phase (1) specified by a rule in layer intercept
I0507 17:39:01.108989  5515 net.cpp:323] The NetState phase (0) differed from the phase (1) specified by a rule in layer loss
I0507 17:39:01.109072  5515 net.cpp:52] Initializing net from parameters: 
state {
  phase: TRAIN
}
layer {
  name: "parameters"
  type: "HDF5Data"
  top: "data"
  top: "label"
  include {
    phase: TRAIN
  }
  hdf5_data_param {
    source: "/home/purduethu/scratch/radon/d/deng106/CNNStatisticalModel/distributions/input/5_distributions_900_sample_size_train-parameters-path.txt"
    batch_size: 20
  }
}
layer {
  name: "conv1"
  type: "Convolution"
  bottom: "data"
  top: "conv1"
  param {
    lr_mult: 1
  }
  param {
    lr_mult: 2
  }
  convolution_param {
    num_output: 64
    pad: 2
    kernel_size: 5
    stride: 1
    weight_filler {
      type: "gaussian"
      std: 0.0001
    }
    bias_filler {
      type: "constant"
    }
  }
}
layer {
  name: "relu1"
  type: "ReLU"
  bottom: "conv1"
  top: "conv1"
}
layer {
  name: "conv2"
  type: "Convolution"
  bottom: "conv1"
  top: "conv2"
  param {
    lr_mult: 1
  }
  param {
    lr_mult: 2
  }
  convolution_param {
    num_output: 64
    pad: 2
    kernel_size: 5
    stride: 1
    weight_filler {
      type: "gaussian"
      std: 0.01
    }
    bias_filler {
      type: "constant"
    }
  }
}
layer {
  name: "relu2"
  type: "ReLU"
  bottom: "conv2"
  top: "conv2"
}
layer {
  name: "pool2"
  type: "Pooling"
  bottom: "conv2"
  top: "pool2"
  pooling_param {
    pool: MAX
    kernel_size: 3
    stride: 2
  }
}
layer {
  name: "conv3"
  type: "Convolution"
  bottom: "pool2"
  top: "conv3"
  param {
    lr_mult: 1
  }
  param {
    lr_mult: 2
  }
  convolution_param {
    num_output: 64
    pad: 2
    kernel_size: 5
    stride: 1
    weight_filler {
      type: "gaussian"
      std: 0.01
    }
    bias_filler {
      type: "constant"
    }
  }
}
layer {
  name: "relu3"
  type: "ReLU"
  bottom: "conv3"
  top: "conv3"
}
layer {
  name: "conv4"
  type: "Convolution"
  bottom: "conv3"
  top: "conv4"
  param {
    lr_mult: 1
  }
  param {
    lr_mult: 2
  }
  convolution_param {
    num_output: 64
    pad: 2
    kernel_size: 5
    stride: 1
    weight_filler {
      type: "gaussian"
      std: 0.01
    }
    bias_filler {
      type: "constant"
    }
  }
}
layer {
  name: "relu4"
  type: "ReLU"
  bottom: "conv4"
  top: "conv4"
}
layer {
  name: "conv5"
  type: "Convolution"
  bottom: "conv4"
  top: "conv5"
  param {
    lr_mult: 1
  }
  param {
    lr_mult: 2
  }
  convolution_param {
    num_output: 64
    pad: 2
    kernel_size: 5
    stride: 1
    weight_filler {
      type: "gaussian"
      std: 0.01
    }
    bias_filler {
      type: "constant"
    }
  }
}
layer {
  name: "relu5"
  type: "ReLU"
  bottom: "conv5"
  top: "conv5"
}
layer {
  name: "pool5"
  type: "Pooling"
  bottom: "conv5"
  top: "pool5"
  pooling_param {
    pool: AVE
    kernel_size: 3
    stride: 2
  }
}
layer {
  name: "ip1"
  type: "InnerProduct"
  bottom: "pool5"
  top: "ip1"
  param {
    lr_mult: 1
  }
  param {
    lr_mult: 2
  }
  inner_product_param {
    num_output: 64
    weight_filler {
      type: "gaussian"
      std: 0.1
    }
    bias_filler {
      type: "constant"
    }
  }
}
layer {
  name: "ip2"
  type: "InnerProduct"
  bottom: "ip1"
  top: "ip2"
  param {
    lr_mult: 1
  }
  param {
    lr_mult: 2
  }
  inner_product_param {
    num_output: 64
    weight_filler {
      type: "gaussian"
      std: 0.1
    }
    bias_filler {
      type: "constant"
    }
  }
}
layer {
  name: "ip3"
  type: "InnerProduct"
  bottom: "ip2"
  top: "ip3"
  param {
    lr_mult: 1
  }
  param {
    lr_mult: 2
  }
  inner_product_param {
    num_output: 1
    weight_filler {
      type: "gaussian"
      std: 0.1
    }
    bias_filler {
      type: "constant"
    }
  }
}
layer {
  name: "loss"
  type: "HuberLoss"
  bottom: "ip3"
  bottom: "label"
  top: "loss"
  include {
    phase: TRAIN
  }
}
I0507 17:39:01.109127  5515 layer_factory.hpp:77] Creating layer parameters
I0507 17:39:01.109140  5515 net.cpp:94] Creating Layer parameters
I0507 17:39:01.109144  5515 net.cpp:409] parameters -> data
I0507 17:39:01.109153  5515 net.cpp:409] parameters -> label
I0507 17:39:01.109160  5515 hdf5_data_layer.cpp:79] Loading list of HDF5 filenames from: /home/purduethu/scratch/radon/d/deng106/CNNStatisticalModel/distributions/input/5_distributions_900_sample_size_train-parameters-path.txt
I0507 17:39:01.109176  5515 hdf5_data_layer.cpp:93] Number of HDF5 files: 1
I0507 17:39:01.109722  5515 hdf5.cpp:32] Datatype class: H5T_FLOAT
I0507 17:39:01.246606  5515 net.cpp:144] Setting up parameters
I0507 17:39:01.246636  5515 net.cpp:151] Top shape: 20 1 30 30 (18000)
I0507 17:39:01.246642  5515 net.cpp:151] Top shape: 20 (20)
I0507 17:39:01.246645  5515 net.cpp:159] Memory required for data: 72080
I0507 17:39:01.246651  5515 layer_factory.hpp:77] Creating layer conv1
I0507 17:39:01.246672  5515 net.cpp:94] Creating Layer conv1
I0507 17:39:01.246676  5515 net.cpp:435] conv1 <- data
I0507 17:39:01.246683  5515 net.cpp:409] conv1 -> conv1
I0507 17:39:01.253113  5515 net.cpp:144] Setting up conv1
I0507 17:39:01.253131  5515 net.cpp:151] Top shape: 20 64 30 30 (1152000)
I0507 17:39:01.253135  5515 net.cpp:159] Memory required for data: 4680080
I0507 17:39:01.253146  5515 layer_factory.hpp:77] Creating layer relu1
I0507 17:39:01.253154  5515 net.cpp:94] Creating Layer relu1
I0507 17:39:01.253159  5515 net.cpp:435] relu1 <- conv1
I0507 17:39:01.253162  5515 net.cpp:396] relu1 -> conv1 (in-place)
I0507 17:39:01.253177  5515 net.cpp:144] Setting up relu1
I0507 17:39:01.253182  5515 net.cpp:151] Top shape: 20 64 30 30 (1152000)
I0507 17:39:01.253185  5515 net.cpp:159] Memory required for data: 9288080
I0507 17:39:01.253188  5515 layer_factory.hpp:77] Creating layer conv2
I0507 17:39:01.253196  5515 net.cpp:94] Creating Layer conv2
I0507 17:39:01.253201  5515 net.cpp:435] conv2 <- conv1
I0507 17:39:01.253204  5515 net.cpp:409] conv2 -> conv2
I0507 17:39:01.268579  5515 net.cpp:144] Setting up conv2
I0507 17:39:01.268594  5515 net.cpp:151] Top shape: 20 64 30 30 (1152000)
I0507 17:39:01.268597  5515 net.cpp:159] Memory required for data: 13896080
I0507 17:39:01.268605  5515 layer_factory.hpp:77] Creating layer relu2
I0507 17:39:01.268613  5515 net.cpp:94] Creating Layer relu2
I0507 17:39:01.268616  5515 net.cpp:435] relu2 <- conv2
I0507 17:39:01.268621  5515 net.cpp:396] relu2 -> conv2 (in-place)
I0507 17:39:01.268628  5515 net.cpp:144] Setting up relu2
I0507 17:39:01.268633  5515 net.cpp:151] Top shape: 20 64 30 30 (1152000)
I0507 17:39:01.268635  5515 net.cpp:159] Memory required for data: 18504080
I0507 17:39:01.268638  5515 layer_factory.hpp:77] Creating layer pool2
I0507 17:39:01.268651  5515 net.cpp:94] Creating Layer pool2
I0507 17:39:01.268654  5515 net.cpp:435] pool2 <- conv2
I0507 17:39:01.268658  5515 net.cpp:409] pool2 -> pool2
I0507 17:39:01.268717  5515 net.cpp:144] Setting up pool2
I0507 17:39:01.268724  5515 net.cpp:151] Top shape: 20 64 15 15 (288000)
I0507 17:39:01.268728  5515 net.cpp:159] Memory required for data: 19656080
I0507 17:39:01.268730  5515 layer_factory.hpp:77] Creating layer conv3
I0507 17:39:01.268738  5515 net.cpp:94] Creating Layer conv3
I0507 17:39:01.268741  5515 net.cpp:435] conv3 <- pool2
I0507 17:39:01.268746  5515 net.cpp:409] conv3 -> conv3
I0507 17:39:01.276948  5515 net.cpp:144] Setting up conv3
I0507 17:39:01.276963  5515 net.cpp:151] Top shape: 20 64 15 15 (288000)
I0507 17:39:01.276968  5515 net.cpp:159] Memory required for data: 20808080
I0507 17:39:01.276975  5515 layer_factory.hpp:77] Creating layer relu3
I0507 17:39:01.276981  5515 net.cpp:94] Creating Layer relu3
I0507 17:39:01.276985  5515 net.cpp:435] relu3 <- conv3
I0507 17:39:01.276989  5515 net.cpp:396] relu3 -> conv3 (in-place)
I0507 17:39:01.276998  5515 net.cpp:144] Setting up relu3
I0507 17:39:01.277001  5515 net.cpp:151] Top shape: 20 64 15 15 (288000)
I0507 17:39:01.277004  5515 net.cpp:159] Memory required for data: 21960080
I0507 17:39:01.277007  5515 layer_factory.hpp:77] Creating layer conv4
I0507 17:39:01.277015  5515 net.cpp:94] Creating Layer conv4
I0507 17:39:01.277019  5515 net.cpp:435] conv4 <- conv3
I0507 17:39:01.277024  5515 net.cpp:409] conv4 -> conv4
I0507 17:39:01.284229  5515 net.cpp:144] Setting up conv4
I0507 17:39:01.284256  5515 net.cpp:151] Top shape: 20 64 15 15 (288000)
I0507 17:39:01.284263  5515 net.cpp:159] Memory required for data: 23112080
I0507 17:39:01.284276  5515 layer_factory.hpp:77] Creating layer relu4
I0507 17:39:01.284286  5515 net.cpp:94] Creating Layer relu4
I0507 17:39:01.284293  5515 net.cpp:435] relu4 <- conv4
I0507 17:39:01.284302  5515 net.cpp:396] relu4 -> conv4 (in-place)
I0507 17:39:01.284317  5515 net.cpp:144] Setting up relu4
I0507 17:39:01.284325  5515 net.cpp:151] Top shape: 20 64 15 15 (288000)
I0507 17:39:01.284332  5515 net.cpp:159] Memory required for data: 24264080
I0507 17:39:01.284337  5515 layer_factory.hpp:77] Creating layer conv5
I0507 17:39:01.284351  5515 net.cpp:94] Creating Layer conv5
I0507 17:39:01.284358  5515 net.cpp:435] conv5 <- conv4
I0507 17:39:01.284368  5515 net.cpp:409] conv5 -> conv5
I0507 17:39:01.291700  5515 net.cpp:144] Setting up conv5
I0507 17:39:01.291715  5515 net.cpp:151] Top shape: 20 64 15 15 (288000)
I0507 17:39:01.291719  5515 net.cpp:159] Memory required for data: 25416080
I0507 17:39:01.291728  5515 layer_factory.hpp:77] Creating layer relu5
I0507 17:39:01.291733  5515 net.cpp:94] Creating Layer relu5
I0507 17:39:01.291738  5515 net.cpp:435] relu5 <- conv5
I0507 17:39:01.291743  5515 net.cpp:396] relu5 -> conv5 (in-place)
I0507 17:39:01.291750  5515 net.cpp:144] Setting up relu5
I0507 17:39:01.291754  5515 net.cpp:151] Top shape: 20 64 15 15 (288000)
I0507 17:39:01.291757  5515 net.cpp:159] Memory required for data: 26568080
I0507 17:39:01.291760  5515 layer_factory.hpp:77] Creating layer pool5
I0507 17:39:01.291765  5515 net.cpp:94] Creating Layer pool5
I0507 17:39:01.291769  5515 net.cpp:435] pool5 <- conv5
I0507 17:39:01.291774  5515 net.cpp:409] pool5 -> pool5
I0507 17:39:01.291816  5515 net.cpp:144] Setting up pool5
I0507 17:39:01.291824  5515 net.cpp:151] Top shape: 20 64 7 7 (62720)
I0507 17:39:01.291827  5515 net.cpp:159] Memory required for data: 26818960
I0507 17:39:01.291831  5515 layer_factory.hpp:77] Creating layer ip1
I0507 17:39:01.291841  5515 net.cpp:94] Creating Layer ip1
I0507 17:39:01.291844  5515 net.cpp:435] ip1 <- pool5
I0507 17:39:01.291848  5515 net.cpp:409] ip1 -> ip1
I0507 17:39:01.297556  5515 net.cpp:144] Setting up ip1
I0507 17:39:01.297570  5515 net.cpp:151] Top shape: 20 64 (1280)
I0507 17:39:01.297574  5515 net.cpp:159] Memory required for data: 26824080
I0507 17:39:01.297580  5515 layer_factory.hpp:77] Creating layer ip2
I0507 17:39:01.297587  5515 net.cpp:94] Creating Layer ip2
I0507 17:39:01.297595  5515 net.cpp:435] ip2 <- ip1
I0507 17:39:01.297601  5515 net.cpp:409] ip2 -> ip2
I0507 17:39:01.297832  5515 net.cpp:144] Setting up ip2
I0507 17:39:01.297839  5515 net.cpp:151] Top shape: 20 64 (1280)
I0507 17:39:01.297842  5515 net.cpp:159] Memory required for data: 26829200
I0507 17:39:01.297847  5515 layer_factory.hpp:77] Creating layer ip3
I0507 17:39:01.297853  5515 net.cpp:94] Creating Layer ip3
I0507 17:39:01.297857  5515 net.cpp:435] ip3 <- ip2
I0507 17:39:01.297863  5515 net.cpp:409] ip3 -> ip3
I0507 17:39:01.297981  5515 net.cpp:144] Setting up ip3
I0507 17:39:01.297988  5515 net.cpp:151] Top shape: 20 1 (20)
I0507 17:39:01.297991  5515 net.cpp:159] Memory required for data: 26829280
I0507 17:39:01.297996  5515 layer_factory.hpp:77] Creating layer loss
I0507 17:39:01.298004  5515 net.cpp:94] Creating Layer loss
I0507 17:39:01.298007  5515 net.cpp:435] loss <- ip3
I0507 17:39:01.298012  5515 net.cpp:435] loss <- label
I0507 17:39:01.298017  5515 net.cpp:409] loss -> loss
I0507 17:39:01.298074  5515 net.cpp:144] Setting up loss
…
I0507 17:39:01.364079  5515 net.cpp:323] The NetState phase (0) differed from the phase (1) specified by a rule in layer intercept
I0507 17:39:01.364095  5515 net.cpp:323] The NetState phase (0) differed from the phase (1) specified by a rule in layer accuracy
I0507 17:39:01.364183  5515 net.cpp:52] Initializing net from parameters: 
state {
  phase: TRAIN
}
layer {
  name: "parameters"
  type: "HDF5Data"
  top: "data"
  top: "label"
  include {
    phase: TRAIN
  }
  hdf5_data_param {
    source: "/home/purduethu/scratch/radon/d/deng106/CNNStatisticalModel/distributions/input/5_distributions_900_sample_size_train-distributions-path.txt"
    batch_size: 20
  }
}
layer {
  name: "conv1"
  type: "Convolution"
  bottom: "data"
  top: "conv1"
  param {
    lr_mult: 1
  }
  param {
    lr_mult: 2
  }
  convolution_param {
    num_output: 64
    pad: 2
    kernel_size: 5
    stride: 1
    weight_filler {
      type: "gaussian"
      std: 0.0001
    }
    bias_filler {
      type: "constant"
    }
  }
}
layer {
  name: "relu1"
  type: "ReLU"
  bottom: "conv1"
  top: "conv1"
}
layer {
  name: "conv2"
  type: "Convolution"
  bottom: "conv1"
  top: "conv2"
  param {
    lr_mult: 1
  }
  param {
    lr_mult: 2
  }
  convolution_param {
    num_output: 64
    pad: 2
    kernel_size: 5
    stride: 1
    weight_filler {
      type: "gaussian"
      std: 0.01
    }
    bias_filler {
      type: "constant"
    }
  }
}
layer {
  name: "relu2"
  type: "ReLU"
  bottom: "conv2"
  top: "conv2"
}
layer {
  name: "pool2"
  type: "Pooling"
  bottom: "conv2"
  top: "pool2"
  pooling_param {
    pool: MAX
    kernel_size: 3
    stride: 2
  }
}
layer {
  name: "conv3"
  type: "Convolution"
  bottom: "pool2"
  top: "conv3"
  param {
    lr_mult: 1
  }
  param {
    lr_mult: 2
  }
  convolution_param {
    num_output: 64
    pad: 2
    kernel_size: 5
    stride: 1
    weight_filler {
      type: "gaussian"
      std: 0.01
    }
    bias_filler {
      type: "constant"
    }
  }
}
layer {
  name: "relu3"
  type: "ReLU"
  bottom: "conv3"
  top: "conv3"
}
layer {
  name: "conv4"
  type: "Convolution"
  bottom: "conv3"
  top: "conv4"
  param {
    lr_mult: 1
  }
  param {
    lr_mult: 2
  }
  convolution_param {
    num_output: 64
    pad: 2
    kernel_size: 5
    stride: 1
    weight_filler {
      type: "gaussian"
      std: 0.01
    }
    bias_filler {
      type: "constant"
    }
  }
}
layer {
  name: "relu4"
  type: "ReLU"
  bottom: "conv4"
  top: "conv4"
}
layer {
  name: "conv5"
  type: "Convolution"
  bottom: "conv4"
  top: "conv5"
  param {
    lr_mult: 1
  }
  param {
    lr_mult: 2
  }
  convolution_param {
    num_output: 64
    pad: 2
    kernel_size: 5
    stride: 1
    weight_filler {
      type: "gaussian"
      std: 0.01
    }
    bias_filler {
      type: "constant"
    }
  }
}
layer {
  name: "relu5"
  type: "ReLU"
  bottom: "conv5"
  top: "conv5"
}
layer {
  name: "pool5"
  type: "Pooling"
  bottom: "conv5"
  top: "pool5"
  pooling_param {
    pool: AVE
    kernel_size: 3
    stride: 2
  }
}
layer {
  name: "ip1"
  type: "InnerProduct"
  bottom: "pool5"
  top: "ip1"
  param {
    lr_mult: 1
  }
  param {
    lr_mult: 2
  }
  inner_product_param {
    num_output: 64
    weight_filler {
      type: "gaussian"
      std: 0.1
    }
    bias_filler {
      type: "constant"
    }
  }
}
layer {
  name: "ip2"
  type: "InnerProduct"
  bottom: "ip1"
  top: "ip2"
  param {
    lr_mult: 1
  }
  param {
    lr_mult: 2
  }
  inner_product_param {
    num_output: 64
    weight_filler {
      type: "gaussian"
      std: 0.1
    }
    bias_filler {
      type: "constant"
    }
  }
}
layer {
  name: "ip3"
  type: "InnerProduct"
  bottom: "ip2"
  top: "ip3"
  param {
    lr_mult: 1
  }
  param {
    lr_mult: 2
  }
  inner_product_param {
    num_output: 50
    weight_filler {
      type: "gaussian"
      std: 0.1
    }
    bias_filler {
      type: "constant"
    }
  }
}
layer {
  name: "loss"
  type: "SoftmaxWithLoss"
  bottom: "ip3"
  bottom: "label"
  top: "loss"
}
I0507 17:39:01.364233  5515 layer_factory.hpp:77] Creating layer parameters
I0507 17:39:01.364243  5515 net.cpp:94] Creating Layer parameters
I0507 17:39:01.364246  5515 net.cpp:409] parameters -> data
I0507 17:39:01.364253  5515 net.cpp:409] parameters -> label
I0507 17:39:01.364259  5515 hdf5_data_layer.cpp:79] Loading list of HDF5 filenames from: /home/purduethu/scratch/radon/d/deng106/CNNStatisticalModel/distributions/input/5_distributions_900_sample_size_train-distributions-path.txt
I0507 17:39:01.364275  5515 hdf5_data_layer.cpp:93] Number of HDF5 files: 1
I0507 17:39:01.497741  5515 hdf5.cpp:35] Datatype class: H5T_INTEGER
I0507 17:39:01.498178  5515 net.cpp:144] Setting up parameters
I0507 17:39:01.498193  5515 net.cpp:151] Top shape: 20 1 30 30 (18000)
I0507 17:39:01.498198  5515 net.cpp:151] Top shape: 20 (20)
I0507 17:39:01.498200  5515 net.cpp:159] Memory required for data: 72080
I0507 17:39:01.498206  5515 layer_factory.hpp:77] Creating layer conv1
I0507 17:39:01.498222  5515 net.cpp:94] Creating Layer conv1
I0507 17:39:01.498227  5515 net.cpp:435] conv1 <- data
I0507 17:39:01.498234  5515 net.cpp:409] conv1 -> conv1
I0507 17:39:01.501631  5515 net.cpp:144] Setting up conv1
I0507 17:39:01.501646  5515 net.cpp:151] Top shape: 20 64 30 30 (1152000)
I0507 17:39:01.501651  5515 net.cpp:159] Memory required for data: 4680080
I0507 17:39:01.501660  5515 layer_factory.hpp:77] Creating layer relu1
I0507 17:39:01.501668  5515 net.cpp:94] Creating Layer relu1
I0507 17:39:01.501672  5515 net.cpp:435] relu1 <- conv1
I0507 17:39:01.501677  5515 net.cpp:396] relu1 -> conv1 (in-place)
I0507 17:39:01.501683  5515 net.cpp:144] Setting up relu1
I0507 17:39:01.501688  5515 net.cpp:151] Top shape: 20 64 30 30 (1152000)
I0507 17:39:01.501691  5515 net.cpp:159] Memory required for data: 9288080
I0507 17:39:01.501693  5515 layer_factory.hpp:77] Creating layer conv2
I0507 17:39:01.501701  5515 net.cpp:94] Creating Layer conv2
I0507 17:39:01.501705  5515 net.cpp:435] conv2 <- conv1
I0507 17:39:01.501709  5515 net.cpp:409] conv2 -> conv2
I0507 17:39:01.516252  5515 net.cpp:144] Setting up conv2
I0507 17:39:01.516268  5515 net.cpp:151] Top shape: 20 64 30 30 (1152000)
I0507 17:39:01.516271  5515 net.cpp:159] Memory required for data: 13896080
I0507 17:39:01.516279  5515 layer_factory.hpp:77] Creating layer relu2
I0507 17:39:01.516286  5515 net.cpp:94] Creating Layer relu2
I0507 17:39:01.516289  5515 net.cpp:435] relu2 <- conv2
I0507 17:39:01.516294  5515 net.cpp:396] relu2 -> conv2 (in-place)
I0507 17:39:01.516301  5515 net.cpp:144] Setting up relu2
I0507 17:39:01.516305  5515 net.cpp:151] Top shape: 20 64 30 30 (1152000)
I0507 17:39:01.516309  5515 net.cpp:159] Memory required for data: 18504080
I0507 17:39:01.516311  5515 layer_factory.hpp:77] Creating layer pool2
I0507 17:39:01.516317  5515 net.cpp:94] Creating Layer pool2
I0507 17:39:01.516320  5515 net.cpp:435] pool2 <- conv2
I0507 17:39:01.516324  5515 net.cpp:409] pool2 -> pool2
I0507 17:39:01.516381  5515 net.cpp:144] Setting up pool2
I0507 17:39:01.516388  5515 net.cpp:151] Top shape: 20 64 15 15 (288000)
I0507 17:39:01.516391  5515 net.cpp:159] Memory required for data: 19656080
I0507 17:39:01.516394  5515 layer_factory.hpp:77] Creating layer conv3
I0507 17:39:01.516402  5515 net.cpp:94] Creating Layer conv3
I0507 17:39:01.516405  5515 net.cpp:435] conv3 <- pool2
I0507 17:39:01.516417  5515 net.cpp:409] conv3 -> conv3
I0507 17:39:01.524673  5515 net.cpp:144] Setting up conv3
I0507 17:39:01.524688  5515 net.cpp:151] Top shape: 20 64 15 15 (288000)
I0507 17:39:01.524691  5515 net.cpp:159] Memory required for data: 20808080
I0507 17:39:01.524700  5515 layer_factory.hpp:77] Creating layer relu3
I0507 17:39:01.524706  5515 net.cpp:94] Creating Layer relu3
I0507 17:39:01.524709  5515 net.cpp:435] relu3 <- conv3
I0507 17:39:01.524714  5515 net.cpp:396] relu3 -> conv3 (in-place)
I0507 17:39:01.524721  5515 net.cpp:144] Setting up relu3
I0507 17:39:01.524726  5515 net.cpp:151] Top shape: 20 64 15 15 (288000)
I0507 17:39:01.524729  5515 net.cpp:159] Memory required for data: 21960080
I0507 17:39:01.524731  5515 layer_factory.hpp:77] Creating layer conv4
I0507 17:39:01.524740  5515 net.cpp:94] Creating Layer conv4
I0507 17:39:01.524744  5515 net.cpp:435] conv4 <- conv3
I0507 17:39:01.524749  5515 net.cpp:409] conv4 -> conv4
I0507 17:39:01.532052  5515 net.cpp:144] Setting up conv4
I0507 17:39:01.532068  5515 net.cpp:151] Top shape: 20 64 15 15 (288000)
I0507 17:39:01.532071  5515 net.cpp:159] Memory required for data: 23112080
I0507 17:39:01.532078  5515 layer_factory.hpp:77] Creating layer relu4
I0507 17:39:01.532083  5515 net.cpp:94] Creating Layer relu4
I0507 17:39:01.532088  5515 net.cpp:435] relu4 <- conv4
I0507 17:39:01.532093  5515 net.cpp:396] relu4 -> conv4 (in-place)
I0507 17:39:01.532099  5515 net.cpp:144] Setting up relu4
I0507 17:39:01.532104  5515 net.cpp:151] Top shape: 20 64 15 15 (288000)
I0507 17:39:01.532106  5515 net.cpp:159] Memory required for data: 24264080
I0507 17:39:01.532109  5515 layer_factory.hpp:77] Creating layer conv5
I0507 17:39:01.532117  5515 net.cpp:94] Creating Layer conv5
I0507 17:39:01.532120  5515 net.cpp:435] conv5 <- conv4
I0507 17:39:01.532125  5515 net.cpp:409] conv5 -> conv5
I0507 17:39:01.540268  5515 net.cpp:144] Setting up conv5
I0507 17:39:01.540282  5515 net.cpp:151] Top shape: 20 64 15 15 (288000)
I0507 17:39:01.540287  5515 net.cpp:159] Memory required for data: 25416080
I0507 17:39:01.540294  5515 layer_factory.hpp:77] Creating layer relu5
I0507 17:39:01.540300  5515 net.cpp:94] Creating Layer relu5
I0507 17:39:01.540304  5515 net.cpp:435] relu5 <- conv5
I0507 17:39:01.540308  5515 net.cpp:396] relu5 -> conv5 (in-place)
I0507 17:39:01.540315  5515 net.cpp:144] Setting up relu5
I0507 17:39:01.540320  5515 net.cpp:151] Top shape: 20 64 15 15 (288000)
I0507 17:39:01.540323  5515 net.cpp:159] Memory required for data: 26568080
I0507 17:39:01.540326  5515 layer_factory.hpp:77] Creating layer pool5
I0507 17:39:01.540331  5515 net.cpp:94] Creating Layer pool5
I0507 17:39:01.540334  5515 net.cpp:435] pool5 <- conv5
I0507 17:39:01.540340  5515 net.cpp:409] pool5 -> pool5
I0507 17:39:01.540382  5515 net.cpp:144] Setting up pool5
I0507 17:39:01.540390  5515 net.cpp:151] Top shape: 20 64 7 7 (62720)
I0507 17:39:01.540392  5515 net.cpp:159] Memory required for data: 26818960
I0507 17:39:01.540395  5515 layer_factory.hpp:77] Creating layer ip1
I0507 17:39:01.540403  5515 net.cpp:94] Creating Layer ip1
I0507 17:39:01.540406  5515 net.cpp:435] ip1 <- pool5
I0507 17:39:01.540410  5515 net.cpp:409] ip1 -> ip1
I0507 17:39:01.545233  5515 net.cpp:144] Setting up ip1
I0507 17:39:01.545243  5515 net.cpp:151] Top shape: 20 64 (1280)
I0507 17:39:01.545245  5515 net.cpp:159] Memory required for data: 26824080
I0507 17:39:01.545251  5515 layer_factory.hpp:77] Creating layer ip2
I0507 17:39:01.545258  5515 net.cpp:94] Creating Layer ip2
I0507 17:39:01.545261  5515 net.cpp:435] ip2 <- ip1
I0507 17:39:01.545265  5515 net.cpp:409] ip2 -> ip2
I0507 17:39:01.545496  5515 net.cpp:144] Setting up ip2
I0507 17:39:01.545503  5515 net.cpp:151] Top shape: 20 64 (1280)
I0507 17:39:01.545506  5515 net.cpp:159] Memory required for data: 26829200
I0507 17:39:01.545511  5515 layer_factory.hpp:77] Creating layer ip3
I0507 17:39:01.545517  5515 net.cpp:94] Creating Layer ip3
I0507 17:39:01.545521  5515 net.cpp:435] ip3 <- ip2
I0507 17:39:01.545528  5515 net.cpp:409] ip3 -> ip3
I0507 17:39:01.545739  5515 net.cpp:144] Setting up ip3
I0507 17:39:01.545747  5515 net.cpp:151] Top shape: 20 50 (1000)
I0507 17:39:01.545749  5515 net.cpp:159] Memory required for data: 26833200
I0507 17:39:01.545754  5515 layer_factory.hpp:77] Creating layer loss
I0507 17:39:01.545761  5515 net.cpp:94] Creating Layer loss
I0507 17:39:01.545765  5515 net.cpp:435] loss <- ip3
I0507 17:39:01.545769  5515 net.cpp:435] loss <- label
I0507 17:39:01.545773  5515 net.cpp:409] loss -> loss
I0507 17:39:01.545779  5515 layer_factory.hpp:77] Creating layer loss
…
I0507 17:39:01.546290  5515 solver.cpp:181] Creating test net (#0) specified by net file: ./protocol/dis_5_900_dimension.protocol_distribution
I0507 17:39:01.546317  5515 net.cpp:323] The NetState phase (1) differed from the phase (0) specified by a rule in layer parameters
I0507 17:39:01.546416  5515 net.cpp:52] Initializing net from parameters: 
state {
  phase: TEST
}
layer {
  name: "intercept"
  type: "HDF5Data"
  top: "data"
  top: "label"
  include {
    phase: TEST
  }
  hdf5_data_param {
    source: "/home/purduethu/scratch/radon/d/deng106/CNNStatisticalModel/distributions/input/5_distributions_900_sample_size_test-distributions-path.txt"
    batch_size: 20
  }
}
layer {
  name: "conv1"
  type: "Convolution"
  bottom: "data"
  top: "conv1"
  param {
    lr_mult: 1
  }
  param {
    lr_mult: 2
  }
  convolution_param {
    num_output: 64
    pad: 2
    kernel_size: 5
    stride: 1
    weight_filler {
      type: "gaussian"
      std: 0.0001
    }
    bias_filler {
      type: "constant"
    }
  }
}
layer {
  name: "relu1"
  type: "ReLU"
  bottom: "conv1"
  top: "conv1"
}
layer {
  name: "conv2"
  type: "Convolution"
  bottom: "conv1"
  top: "conv2"
  param {
    lr_mult: 1
  }
  param {
    lr_mult: 2
  }
  convolution_param {
    num_output: 64
    pad: 2
    kernel_size: 5
    stride: 1
    weight_filler {
      type: "gaussian"
      std: 0.01
    }
    bias_filler {
      type: "constant"
    }
  }
}
layer {
  name: "relu2"
  type: "ReLU"
  bottom: "conv2"
  top: "conv2"
}
layer {
  name: "pool2"
  type: "Pooling"
  bottom: "conv2"
  top: "pool2"
  pooling_param {
    pool: MAX
    kernel_size: 3
    stride: 2
  }
}
layer {
  name: "conv3"
  type: "Convolution"
  bottom: "pool2"
  top: "conv3"
  param {
    lr_mult: 1
  }
  param {
    lr_mult: 2
  }
  convolution_param {
    num_output: 64
    pad: 2
    kernel_size: 5
    stride: 1
    weight_filler {
      type: "gaussian"
      std: 0.01
    }
    bias_filler {
      type: "constant"
    }
  }
}
layer {
  name: "relu3"
  type: "ReLU"
  bottom: "conv3"
  top: "conv3"
}
layer {
  name: "conv4"
  type: "Convolution"
  bottom: "conv3"
  top: "conv4"
  param {
    lr_mult: 1
  }
  param {
    lr_mult: 2
  }
  convolution_param {
    num_output: 64
    pad: 2
    kernel_size: 5
    stride: 1
    weight_filler {
      type: "gaussian"
      std: 0.01
    }
    bias_filler {
      type: "constant"
    }
  }
}
layer {
  name: "relu4"
  type: "ReLU"
  bottom: "conv4"
  top: "conv4"
}
layer {
  name: "conv5"
  type: "Convolution"
  bottom: "conv4"
  top: "conv5"
  param {
    lr_mult: 1
  }
  param {
    lr_mult: 2
  }
  convolution_param {
    num_output: 64
    pad: 2
    kernel_size: 5
    stride: 1
    weight_filler {
      type: "gaussian"
      std: 0.01
    }
    bias_filler {
      type: "constant"
    }
  }
}
layer {
  name: "relu5"
  type: "ReLU"
  bottom: "conv5"
  top: "conv5"
}
layer {
  name: "pool5"
  type: "Pooling"
  bottom: "conv5"
  top: "pool5"
  pooling_param {
    pool: AVE
    kernel_size: 3
    stride: 2
  }
}
layer {
  name: "ip1"
  type: "InnerProduct"
  bottom: "pool5"
  top: "ip1"
  param {
    lr_mult: 1
  }
  param {
    lr_mult: 2
  }
  inner_product_param {
    num_output: 64
    weight_filler {
      type: "gaussian"
      std: 0.1
    }
    bias_filler {
      type: "constant"
    }
  }
}
layer {
  name: "ip2"
  type: "InnerProduct"
  bottom: "ip1"
  top: "ip2"
  param {
    lr_mult: 1
  }
  param {
    lr_mult: 2
  }
  inner_product_param {
    num_output: 64
    weight_filler {
      type: "gaussian"
      std: 0.1
    }
    bias_filler {
      type: "constant"
    }
  }
}
layer {
  name: "ip3"
  type: "InnerProduct"
  bottom: "ip2"
  top: "ip3"
  param {
    lr_mult: 1
  }
  param {
    lr_mult: 2
  }
  inner_product_param {
    num_output: 50
    weight_filler {
      type: "gaussian"
      std: 0.1
    }
    bias_filler {
      type: "constant"
    }
  }
}
layer {
  name: "accuracy"
  type: "Accuracy"
  bottom: "ip3"
  bottom: "label"
  top: "accuracy"
  include {
    phase: TEST
  }
}
layer {
  name: "loss"
  type: "SoftmaxWithLoss"
  bottom: "ip3"
  bottom: "label"
  top: "loss"
}
I0507 17:39:01.546483  5515 layer_factory.hpp:77] Creating layer intercept
I0507 17:39:01.546492  5515 net.cpp:94] Creating Layer intercept
I0507 17:39:01.546496  5515 net.cpp:409] intercept -> data
I0507 17:39:01.546502  5515 net.cpp:409] intercept -> label
I0507 17:39:01.546509  5515 hdf5_data_layer.cpp:79] Loading list of HDF5 filenames from: /home/purduethu/scratch/radon/d/deng106/CNNStatisticalModel/distributions/input/5_distributions_900_sample_size_test-distributions-path.txt
I0507 17:39:01.546527  5515 hdf5_data_layer.cpp:93] Number of HDF5 files: 1
I0507 17:39:01.582151  5515 net.cpp:144] Setting up intercept
I0507 17:39:01.582185  5515 net.cpp:151] Top shape: 20 1 30 30 (18000)
I0507 17:39:01.582190  5515 net.cpp:151] Top shape: 20 (20)
I0507 17:39:01.582192  5515 net.cpp:159] Memory required for data: 72080
I0507 17:39:01.582198  5515 layer_factory.hpp:77] Creating layer label_intercept_1_split
I0507 17:39:01.582216  5515 net.cpp:94] Creating Layer label_intercept_1_split
I0507 17:39:01.582221  5515 net.cpp:435] label_intercept_1_split <- label
I0507 17:39:01.582226  5515 net.cpp:409] label_intercept_1_split -> label_intercept_1_split_0
I0507 17:39:01.582234  5515 net.cpp:409] label_intercept_1_split -> label_intercept_1_split_1
I0507 17:39:01.582278  5515 net.cpp:144] Setting up label_intercept_1_split
I0507 17:39:01.582284  5515 net.cpp:151] Top shape: 20 (20)
I0507 17:39:01.582288  5515 net.cpp:151] Top shape: 20 (20)
I0507 17:39:01.582291  5515 net.cpp:159] Memory required for data: 72240
I0507 17:39:01.582294  5515 layer_factory.hpp:77] Creating layer conv1
I0507 17:39:01.582304  5515 net.cpp:94] Creating Layer conv1
I0507 17:39:01.582309  5515 net.cpp:435] conv1 <- data
I0507 17:39:01.582314  5515 net.cpp:409] conv1 -> conv1
I0507 17:39:01.583811  5515 net.cpp:144] Setting up conv1
I0507 17:39:01.583832  5515 net.cpp:151] Top shape: 20 64 30 30 (1152000)
I0507 17:39:01.583837  5515 net.cpp:159] Memory required for data: 4680240
I0507 17:39:01.583845  5515 layer_factory.hpp:77] Creating layer relu1
I0507 17:39:01.583853  5515 net.cpp:94] Creating Layer relu1
I0507 17:39:01.583856  5515 net.cpp:435] relu1 <- conv1
I0507 17:39:01.583860  5515 net.cpp:396] relu1 -> conv1 (in-place)
I0507 17:39:01.583868  5515 net.cpp:144] Setting up relu1
I0507 17:39:01.583873  5515 net.cpp:151] Top shape: 20 64 30 30 (1152000)
I0507 17:39:01.583875  5515 net.cpp:159] Memory required for data: 9288240
I0507 17:39:01.583878  5515 layer_factory.hpp:77] Creating layer conv2
I0507 17:39:01.583886  5515 net.cpp:94] Creating Layer conv2
I0507 17:39:01.583890  5515 net.cpp:435] conv2 <- conv1
I0507 17:39:01.583894  5515 net.cpp:409] conv2 -> conv2
I0507 17:39:01.590198  5515 net.cpp:144] Setting up conv2
I0507 17:39:01.590214  5515 net.cpp:151] Top shape: 20 64 30 30 (1152000)
I0507 17:39:01.590217  5515 net.cpp:159] Memory required for data: 13896240
I0507 17:39:01.590225  5515 layer_factory.hpp:77] Creating layer relu2
I0507 17:39:01.590231  5515 net.cpp:94] Creating Layer relu2
I0507 17:39:01.590234  5515 net.cpp:435] relu2 <- conv2
I0507 17:39:01.590240  5515 net.cpp:396] relu2 -> conv2 (in-place)
I0507 17:39:01.590246  5515 net.cpp:144] Setting up relu2
I0507 17:39:01.590250  5515 net.cpp:151] Top shape: 20 64 30 30 (1152000)
I0507 17:39:01.590253  5515 net.cpp:159] Memory required for data: 18504240
I0507 17:39:01.590256  5515 layer_factory.hpp:77] Creating layer pool2
I0507 17:39:01.590262  5515 net.cpp:94] Creating Layer pool2
I0507 17:39:01.590265  5515 net.cpp:435] pool2 <- conv2
I0507 17:39:01.590270  5515 net.cpp:409] pool2 -> pool2
I0507 17:39:01.590327  5515 net.cpp:144] Setting up pool2
I0507 17:39:01.590334  5515 net.cpp:151] Top shape: 20 64 15 15 (288000)
I0507 17:39:01.590337  5515 net.cpp:159] Memory required for data: 19656240
I0507 17:39:01.590340  5515 layer_factory.hpp:77] Creating layer conv3
I0507 17:39:01.590348  5515 net.cpp:94] Creating Layer conv3
I0507 17:39:01.590351  5515 net.cpp:435] conv3 <- pool2
I0507 17:39:01.590356  5515 net.cpp:409] conv3 -> conv3
I0507 17:39:01.595278  5515 net.cpp:144] Setting up conv3
I0507 17:39:01.595293  5515 net.cpp:151] Top shape: 20 64 15 15 (288000)
I0507 17:39:01.595297  5515 net.cpp:159] Memory required for data: 20808240
I0507 17:39:01.595305  5515 layer_factory.hpp:77] Creating layer relu3
I0507 17:39:01.595312  5515 net.cpp:94] Creating Layer relu3
I0507 17:39:01.595315  5515 net.cpp:435] relu3 <- conv3
I0507 17:39:01.595320  5515 net.cpp:396] relu3 -> conv3 (in-place)
I0507 17:39:01.595327  5515 net.cpp:144] Setting up relu3
I0507 17:39:01.595332  5515 net.cpp:151] Top shape: 20 64 15 15 (288000)
I0507 17:39:01.595335  5515 net.cpp:159] Memory required for data: 21960240
I0507 17:39:01.595337  5515 layer_factory.hpp:77] Creating layer conv4
I0507 17:39:01.595345  5515 net.cpp:94] Creating Layer conv4
I0507 17:39:01.595350  5515 net.cpp:435] conv4 <- conv3
I0507 17:39:01.595353  5515 net.cpp:409] conv4 -> conv4
I0507 17:39:01.600677  5515 net.cpp:144] Setting up conv4
I0507 17:39:01.600692  5515 net.cpp:151] Top shape: 20 64 15 15 (288000)
I0507 17:39:01.600695  5515 net.cpp:159] Memory required for data: 23112240
I0507 17:39:01.600702  5515 layer_factory.hpp:77] Creating layer relu4
I0507 17:39:01.600708  5515 net.cpp:94] Creating Layer relu4
I0507 17:39:01.600711  5515 net.cpp:435] relu4 <- conv4
I0507 17:39:01.600715  5515 net.cpp:396] relu4 -> conv4 (in-place)
I0507 17:39:01.600723  5515 net.cpp:144] Setting up relu4
I0507 17:39:01.600728  5515 net.cpp:151] Top shape: 20 64 15 15 (288000)
I0507 17:39:01.600730  5515 net.cpp:159] Memory required for data: 24264240
I0507 17:39:01.600733  5515 layer_factory.hpp:77] Creating layer conv5
I0507 17:39:01.600740  5515 net.cpp:94] Creating Layer conv5
I0507 17:39:01.600744  5515 net.cpp:435] conv5 <- conv4
I0507 17:39:01.600749  5515 net.cpp:409] conv5 -> conv5
I0507 17:39:01.605193  5515 net.cpp:144] Setting up conv5
I0507 17:39:01.605214  5515 net.cpp:151] Top shape: 20 64 15 15 (288000)
I0507 17:39:01.605219  5515 net.cpp:159] Memory required for data: 25416240
I0507 17:39:01.605227  5515 layer_factory.hpp:77] Creating layer relu5
I0507 17:39:01.605233  5515 net.cpp:94] Creating Layer relu5
I0507 17:39:01.605237  5515 net.cpp:435] relu5 <- conv5
I0507 17:39:01.605242  5515 net.cpp:396] relu5 -> conv5 (in-place)
I0507 17:39:01.605249  5515 net.cpp:144] Setting up relu5
I0507 17:39:01.605253  5515 net.cpp:151] Top shape: 20 64 15 15 (288000)
I0507 17:39:01.605257  5515 net.cpp:159] Memory required for data: 26568240
I0507 17:39:01.605259  5515 layer_factory.hpp:77] Creating layer pool5
I0507 17:39:01.605264  5515 net.cpp:94] Creating Layer pool5
I0507 17:39:01.605268  5515 net.cpp:435] pool5 <- conv5
I0507 17:39:01.605273  5515 net.cpp:409] pool5 -> pool5
I0507 17:39:01.605312  5515 net.cpp:144] Setting up pool5
I0507 17:39:01.605319  5515 net.cpp:151] Top shape: 20 64 7 7 (62720)
I0507 17:39:01.605322  5515 net.cpp:159] Memory required for data: 26819120
I0507 17:39:01.605326  5515 layer_factory.hpp:77] Creating layer ip1
I0507 17:39:01.605332  5515 net.cpp:94] Creating Layer ip1
I0507 17:39:01.605335  5515 net.cpp:435] ip1 <- pool5
I0507 17:39:01.605340  5515 net.cpp:409] ip1 -> ip1
I0507 17:39:01.610133  5515 net.cpp:144] Setting up ip1
I0507 17:39:01.610143  5515 net.cpp:151] Top shape: 20 64 (1280)
I0507 17:39:01.610146  5515 net.cpp:159] Memory required for data: 26824240
I0507 17:39:01.610152  5515 layer_factory.hpp:77] Creating layer ip2
I0507 17:39:01.610157  5515 net.cpp:94] Creating Layer ip2
I0507 17:39:01.610160  5515 net.cpp:435] ip2 <- ip1
I0507 17:39:01.610165  5515 net.cpp:409] ip2 -> ip2
I0507 17:39:01.610395  5515 net.cpp:144] Setting up ip2
I0507 17:39:01.610402  5515 net.cpp:151] Top shape: 20 64 (1280)
I0507 17:39:01.610405  5515 net.cpp:159] Memory required for data: 26829360
I0507 17:39:01.610411  5515 layer_factory.hpp:77] Creating layer ip3
I0507 17:39:01.610417  5515 net.cpp:94] Creating Layer ip3
I0507 17:39:01.610420  5515 net.cpp:435] ip3 <- ip2
I0507 17:39:01.610425  5515 net.cpp:409] ip3 -> ip3
I0507 17:39:01.610627  5515 net.cpp:144] Setting up ip3
I0507 17:39:01.610635  5515 net.cpp:151] Top shape: 20 50 (1000)
I0507 17:39:01.610637  5515 net.cpp:159] Memory required for data: 26833360
I0507 17:39:01.610642  5515 layer_factory.hpp:77] Creating layer ip3_ip3_0_split
I0507 17:39:01.610646  5515 net.cpp:94] Creating Layer ip3_ip3_0_split
I0507 17:39:01.610651  5515 net.cpp:435] ip3_ip3_0_split <- ip3
I0507 17:39:01.610654  5515 net.cpp:409] ip3_ip3_0_split -> ip3_ip3_0_split_0
I0507 17:39:01.610659  5515 net.cpp:409] ip3_ip3_0_split -> ip3_ip3_0_split_1
I0507 17:39:01.610702  5515 net.cpp:144] Setting up ip3_ip3_0_split
I0507 17:39:01.610707  5515 net.cpp:151] Top shape: 20 50 (1000)
I0507 17:39:01.610710  5515 net.cpp:151] Top shape: 20 50 (1000)
I0507 17:39:01.610713  5515 net.cpp:159] Memory required for data: 26841360
I0507 17:39:01.610716  5515 layer_factory.hpp:77] Creating layer accuracy
I0507 17:39:01.610723  5515 net.cpp:94] Creating Layer accuracy
I0507 17:39:01.610725  5515 net.cpp:435] accuracy <- ip3_ip3_0_split_0
I0507 17:39:01.610729  5515 net.cpp:435] accuracy <- label_intercept_1_split_0
I0507 17:39:01.610733  5515 net.cpp:409] accuracy -> accuracy
…
