…
I0507 18:59:21.320055  6256 net.cpp:323] The NetState phase (0) differed from the phase (1) specified by a rule in layer intercept
I0507 18:59:21.320071  6256 net.cpp:323] The NetState phase (0) differed from the phase (1) specified by a rule in layer loss
I0507 18:59:21.320152  6256 net.cpp:52] Initializing net from parameters: 
state {
  phase: TRAIN
}
layer {
  name: "parameters"
  type: "HDF5Data"
  top: "data"
  top: "label"
  include {
    phase: TRAIN
  }
  hdf5_data_param {
    source: "/home/purduethu/scratch/radon/d/deng106/CNNStatisticalModel/distributions/input/50_distributions_900_sample_size_train-parameters-path.txt"
    batch_size: 20
  }
}
layer {
  name: "conv1"
  type: "Convolution"
  bottom: "data"
  top: "conv1"
  param {
    lr_mult: 1
  }
  param {
    lr_mult: 2
  }
  convolution_param {
    num_output: 64
    pad: 2
    kernel_size: 5
    stride: 1
    weight_filler {
      type: "gaussian"
      std: 0.0001
    }
    bias_filler {
      type: "constant"
    }
  }
}
layer {
  name: "relu1"
  type: "ReLU"
  bottom: "conv1"
  top: "conv1"
}
layer {
  name: "conv2"
  type: "Convolution"
  bottom: "conv1"
  top: "conv2"
  param {
    lr_mult: 1
  }
  param {
    lr_mult: 2
  }
  convolution_param {
    num_output: 64
    pad: 2
    kernel_size: 5
    stride: 1
    weight_filler {
      type: "gaussian"
      std: 0.01
    }
    bias_filler {
      type: "constant"
    }
  }
}
layer {
  name: "relu2"
  type: "ReLU"
  bottom: "conv2"
  top: "conv2"
}
layer {
  name: "pool2"
  type: "Pooling"
  bottom: "conv2"
  top: "pool2"
  pooling_param {
    pool: MAX
    kernel_size: 3
    stride: 2
  }
}
layer {
  name: "conv3"
  type: "Convolution"
  bottom: "pool2"
  top: "conv3"
  param {
    lr_mult: 1
  }
  param {
    lr_mult: 2
  }
  convolution_param {
    num_output: 64
    pad: 2
    kernel_size: 5
    stride: 1
    weight_filler {
      type: "gaussian"
      std: 0.01
    }
    bias_filler {
      type: "constant"
    }
  }
}
layer {
  name: "relu3"
  type: "ReLU"
  bottom: "conv3"
  top: "conv3"
}
layer {
  name: "conv4"
  type: "Convolution"
  bottom: "conv3"
  top: "conv4"
  param {
    lr_mult: 1
  }
  param {
    lr_mult: 2
  }
  convolution_param {
    num_output: 64
    pad: 2
    kernel_size: 5
    stride: 1
    weight_filler {
      type: "gaussian"
      std: 0.01
    }
    bias_filler {
      type: "constant"
    }
  }
}
layer {
  name: "relu4"
  type: "ReLU"
  bottom: "conv4"
  top: "conv4"
}
layer {
  name: "conv5"
  type: "Convolution"
  bottom: "conv4"
  top: "conv5"
  param {
    lr_mult: 1
  }
  param {
    lr_mult: 2
  }
  convolution_param {
    num_output: 64
    pad: 2
    kernel_size: 5
    stride: 1
    weight_filler {
      type: "gaussian"
      std: 0.01
    }
    bias_filler {
      type: "constant"
    }
  }
}
layer {
  name: "relu5"
  type: "ReLU"
  bottom: "conv5"
  top: "conv5"
}
layer {
  name: "pool5"
  type: "Pooling"
  bottom: "conv5"
  top: "pool5"
  pooling_param {
    pool: AVE
    kernel_size: 3
    stride: 2
  }
}
layer {
  name: "ip1"
  type: "InnerProduct"
  bottom: "pool5"
  top: "ip1"
  param {
    lr_mult: 1
  }
  param {
    lr_mult: 2
  }
  inner_product_param {
    num_output: 64
    weight_filler {
      type: "gaussian"
      std: 0.1
    }
    bias_filler {
      type: "constant"
    }
  }
}
layer {
  name: "ip2"
  type: "InnerProduct"
  bottom: "ip1"
  top: "ip2"
  param {
    lr_mult: 1
  }
  param {
    lr_mult: 2
  }
  inner_product_param {
    num_output: 64
    weight_filler {
      type: "gaussian"
      std: 0.1
    }
    bias_filler {
      type: "constant"
    }
  }
}
layer {
  name: "ip3"
  type: "InnerProduct"
  bottom: "ip2"
  top: "ip3"
  param {
    lr_mult: 1
  }
  param {
    lr_mult: 2
  }
  inner_product_param {
    num_output: 1
    weight_filler {
      type: "gaussian"
      std: 0.1
    }
    bias_filler {
      type: "constant"
    }
  }
}
layer {
  name: "loss"
  type: "HuberLoss"
  bottom: "ip3"
  bottom: "label"
  top: "loss"
  include {
    phase: TRAIN
  }
}
I0507 18:59:21.320209  6256 layer_factory.hpp:77] Creating layer parameters
I0507 18:59:21.320221  6256 net.cpp:94] Creating Layer parameters
I0507 18:59:21.320226  6256 net.cpp:409] parameters -> data
I0507 18:59:21.320235  6256 net.cpp:409] parameters -> label
I0507 18:59:21.320242  6256 hdf5_data_layer.cpp:79] Loading list of HDF5 filenames from: /home/purduethu/scratch/radon/d/deng106/CNNStatisticalModel/distributions/input/50_distributions_900_sample_size_train-parameters-path.txt
I0507 18:59:21.320258  6256 hdf5_data_layer.cpp:93] Number of HDF5 files: 1
I0507 18:59:21.320835  6256 hdf5.cpp:32] Datatype class: H5T_FLOAT
I0507 18:59:22.767007  6256 net.cpp:144] Setting up parameters
I0507 18:59:22.767052  6256 net.cpp:151] Top shape: 20 1 30 30 (18000)
I0507 18:59:22.767058  6256 net.cpp:151] Top shape: 20 (20)
I0507 18:59:22.767061  6256 net.cpp:159] Memory required for data: 72080
I0507 18:59:22.767068  6256 layer_factory.hpp:77] Creating layer conv1
I0507 18:59:22.767097  6256 net.cpp:94] Creating Layer conv1
I0507 18:59:22.767102  6256 net.cpp:435] conv1 <- data
I0507 18:59:22.767109  6256 net.cpp:409] conv1 -> conv1
I0507 18:59:22.773800  6256 net.cpp:144] Setting up conv1
I0507 18:59:22.773819  6256 net.cpp:151] Top shape: 20 64 30 30 (1152000)
I0507 18:59:22.773823  6256 net.cpp:159] Memory required for data: 4680080
I0507 18:59:22.773834  6256 layer_factory.hpp:77] Creating layer relu1
I0507 18:59:22.773843  6256 net.cpp:94] Creating Layer relu1
I0507 18:59:22.773846  6256 net.cpp:435] relu1 <- conv1
I0507 18:59:22.773850  6256 net.cpp:396] relu1 -> conv1 (in-place)
I0507 18:59:22.773865  6256 net.cpp:144] Setting up relu1
I0507 18:59:22.773870  6256 net.cpp:151] Top shape: 20 64 30 30 (1152000)
I0507 18:59:22.773874  6256 net.cpp:159] Memory required for data: 9288080
I0507 18:59:22.773875  6256 layer_factory.hpp:77] Creating layer conv2
I0507 18:59:22.773883  6256 net.cpp:94] Creating Layer conv2
I0507 18:59:22.773887  6256 net.cpp:435] conv2 <- conv1
I0507 18:59:22.773891  6256 net.cpp:409] conv2 -> conv2
I0507 18:59:22.791146  6256 net.cpp:144] Setting up conv2
I0507 18:59:22.791184  6256 net.cpp:151] Top shape: 20 64 30 30 (1152000)
I0507 18:59:22.791194  6256 net.cpp:159] Memory required for data: 13896080
I0507 18:59:22.791218  6256 layer_factory.hpp:77] Creating layer relu2
I0507 18:59:22.791234  6256 net.cpp:94] Creating Layer relu2
I0507 18:59:22.791244  6256 net.cpp:435] relu2 <- conv2
I0507 18:59:22.791256  6256 net.cpp:396] relu2 -> conv2 (in-place)
I0507 18:59:22.791275  6256 net.cpp:144] Setting up relu2
I0507 18:59:22.791286  6256 net.cpp:151] Top shape: 20 64 30 30 (1152000)
I0507 18:59:22.791296  6256 net.cpp:159] Memory required for data: 18504080
I0507 18:59:22.791303  6256 layer_factory.hpp:77] Creating layer pool2
I0507 18:59:22.791327  6256 net.cpp:94] Creating Layer pool2
I0507 18:59:22.791337  6256 net.cpp:435] pool2 <- conv2
I0507 18:59:22.791349  6256 net.cpp:409] pool2 -> pool2
I0507 18:59:22.791431  6256 net.cpp:144] Setting up pool2
I0507 18:59:22.791440  6256 net.cpp:151] Top shape: 20 64 15 15 (288000)
I0507 18:59:22.791442  6256 net.cpp:159] Memory required for data: 19656080
I0507 18:59:22.791445  6256 layer_factory.hpp:77] Creating layer conv3
I0507 18:59:22.791453  6256 net.cpp:94] Creating Layer conv3
I0507 18:59:22.791456  6256 net.cpp:435] conv3 <- pool2
I0507 18:59:22.791460  6256 net.cpp:409] conv3 -> conv3
I0507 18:59:22.800422  6256 net.cpp:144] Setting up conv3
I0507 18:59:22.800437  6256 net.cpp:151] Top shape: 20 64 15 15 (288000)
I0507 18:59:22.800441  6256 net.cpp:159] Memory required for data: 20808080
I0507 18:59:22.800451  6256 layer_factory.hpp:77] Creating layer relu3
I0507 18:59:22.800457  6256 net.cpp:94] Creating Layer relu3
I0507 18:59:22.800459  6256 net.cpp:435] relu3 <- conv3
I0507 18:59:22.800464  6256 net.cpp:396] relu3 -> conv3 (in-place)
I0507 18:59:22.800472  6256 net.cpp:144] Setting up relu3
I0507 18:59:22.800475  6256 net.cpp:151] Top shape: 20 64 15 15 (288000)
I0507 18:59:22.800478  6256 net.cpp:159] Memory required for data: 21960080
I0507 18:59:22.800482  6256 layer_factory.hpp:77] Creating layer conv4
I0507 18:59:22.800489  6256 net.cpp:94] Creating Layer conv4
I0507 18:59:22.800493  6256 net.cpp:435] conv4 <- conv3
I0507 18:59:22.800498  6256 net.cpp:409] conv4 -> conv4
I0507 18:59:22.808650  6256 net.cpp:144] Setting up conv4
I0507 18:59:22.808665  6256 net.cpp:151] Top shape: 20 64 15 15 (288000)
I0507 18:59:22.808668  6256 net.cpp:159] Memory required for data: 23112080
I0507 18:59:22.808676  6256 layer_factory.hpp:77] Creating layer relu4
I0507 18:59:22.808681  6256 net.cpp:94] Creating Layer relu4
I0507 18:59:22.808684  6256 net.cpp:435] relu4 <- conv4
I0507 18:59:22.808689  6256 net.cpp:396] relu4 -> conv4 (in-place)
I0507 18:59:22.808696  6256 net.cpp:144] Setting up relu4
I0507 18:59:22.808701  6256 net.cpp:151] Top shape: 20 64 15 15 (288000)
I0507 18:59:22.808702  6256 net.cpp:159] Memory required for data: 24264080
I0507 18:59:22.808706  6256 layer_factory.hpp:77] Creating layer conv5
I0507 18:59:22.808713  6256 net.cpp:94] Creating Layer conv5
I0507 18:59:22.808717  6256 net.cpp:435] conv5 <- conv4
I0507 18:59:22.808722  6256 net.cpp:409] conv5 -> conv5
I0507 18:59:22.816856  6256 net.cpp:144] Setting up conv5
I0507 18:59:22.816871  6256 net.cpp:151] Top shape: 20 64 15 15 (288000)
I0507 18:59:22.816875  6256 net.cpp:159] Memory required for data: 25416080
I0507 18:59:22.816884  6256 layer_factory.hpp:77] Creating layer relu5
I0507 18:59:22.816890  6256 net.cpp:94] Creating Layer relu5
I0507 18:59:22.816895  6256 net.cpp:435] relu5 <- conv5
I0507 18:59:22.816898  6256 net.cpp:396] relu5 -> conv5 (in-place)
I0507 18:59:22.816905  6256 net.cpp:144] Setting up relu5
I0507 18:59:22.816910  6256 net.cpp:151] Top shape: 20 64 15 15 (288000)
I0507 18:59:22.816912  6256 net.cpp:159] Memory required for data: 26568080
I0507 18:59:22.816915  6256 layer_factory.hpp:77] Creating layer pool5
I0507 18:59:22.816920  6256 net.cpp:94] Creating Layer pool5
I0507 18:59:22.816923  6256 net.cpp:435] pool5 <- conv5
I0507 18:59:22.816927  6256 net.cpp:409] pool5 -> pool5
I0507 18:59:22.816965  6256 net.cpp:144] Setting up pool5
I0507 18:59:22.816973  6256 net.cpp:151] Top shape: 20 64 7 7 (62720)
I0507 18:59:22.816977  6256 net.cpp:159] Memory required for data: 26818960
I0507 18:59:22.816979  6256 layer_factory.hpp:77] Creating layer ip1
I0507 18:59:22.816988  6256 net.cpp:94] Creating Layer ip1
I0507 18:59:22.816992  6256 net.cpp:435] ip1 <- pool5
I0507 18:59:22.816997  6256 net.cpp:409] ip1 -> ip1
I0507 18:59:22.822824  6256 net.cpp:144] Setting up ip1
I0507 18:59:22.822837  6256 net.cpp:151] Top shape: 20 64 (1280)
I0507 18:59:22.822841  6256 net.cpp:159] Memory required for data: 26824080
I0507 18:59:22.822847  6256 layer_factory.hpp:77] Creating layer ip2
I0507 18:59:22.822854  6256 net.cpp:94] Creating Layer ip2
I0507 18:59:22.822862  6256 net.cpp:435] ip2 <- ip1
I0507 18:59:22.822868  6256 net.cpp:409] ip2 -> ip2
I0507 18:59:22.823083  6256 net.cpp:144] Setting up ip2
I0507 18:59:22.823091  6256 net.cpp:151] Top shape: 20 64 (1280)
I0507 18:59:22.823094  6256 net.cpp:159] Memory required for data: 26829200
I0507 18:59:22.823099  6256 layer_factory.hpp:77] Creating layer ip3
I0507 18:59:22.823106  6256 net.cpp:94] Creating Layer ip3
I0507 18:59:22.823108  6256 net.cpp:435] ip3 <- ip2
I0507 18:59:22.823113  6256 net.cpp:409] ip3 -> ip3
I0507 18:59:22.823215  6256 net.cpp:144] Setting up ip3
I0507 18:59:22.823220  6256 net.cpp:151] Top shape: 20 1 (20)
I0507 18:59:22.823223  6256 net.cpp:159] Memory required for data: 26829280
I0507 18:59:22.823228  6256 layer_factory.hpp:77] Creating layer loss
I0507 18:59:22.823235  6256 net.cpp:94] Creating Layer loss
I0507 18:59:22.823238  6256 net.cpp:435] loss <- ip3
I0507 18:59:22.823242  6256 net.cpp:435] loss <- label
I0507 18:59:22.823246  6256 net.cpp:409] loss -> loss
I0507 18:59:22.823297  6256 net.cpp:144] Setting up loss
…
I0507 18:59:23.228128  6256 net.cpp:323] The NetState phase (0) differed from the phase (1) specified by a rule in layer intercept
I0507 18:59:23.228143  6256 net.cpp:323] The NetState phase (0) differed from the phase (1) specified by a rule in layer accuracy
I0507 18:59:23.228231  6256 net.cpp:52] Initializing net from parameters: 
state {
  phase: TRAIN
}
layer {
  name: "parameters"
  type: "HDF5Data"
  top: "data"
  top: "label"
  include {
    phase: TRAIN
  }
  hdf5_data_param {
    source: "/home/purduethu/scratch/radon/d/deng106/CNNStatisticalModel/distributions/input/50_distributions_900_sample_size_train-distributions-path.txt"
    batch_size: 20
  }
}
layer {
  name: "conv1"
  type: "Convolution"
  bottom: "data"
  top: "conv1"
  param {
    lr_mult: 1
  }
  param {
    lr_mult: 2
  }
  convolution_param {
    num_output: 64
    pad: 2
    kernel_size: 5
    stride: 1
    weight_filler {
      type: "gaussian"
      std: 0.0001
    }
    bias_filler {
      type: "constant"
    }
  }
}
layer {
  name: "relu1"
  type: "ReLU"
  bottom: "conv1"
  top: "conv1"
}
layer {
  name: "conv2"
  type: "Convolution"
  bottom: "conv1"
  top: "conv2"
  param {
    lr_mult: 1
  }
  param {
    lr_mult: 2
  }
  convolution_param {
    num_output: 64
    pad: 2
    kernel_size: 5
    stride: 1
    weight_filler {
      type: "gaussian"
      std: 0.01
    }
    bias_filler {
      type: "constant"
    }
  }
}
layer {
  name: "relu2"
  type: "ReLU"
  bottom: "conv2"
  top: "conv2"
}
layer {
  name: "pool2"
  type: "Pooling"
  bottom: "conv2"
  top: "pool2"
  pooling_param {
    pool: MAX
    kernel_size: 3
    stride: 2
  }
}
layer {
  name: "conv3"
  type: "Convolution"
  bottom: "pool2"
  top: "conv3"
  param {
    lr_mult: 1
  }
  param {
    lr_mult: 2
  }
  convolution_param {
    num_output: 64
    pad: 2
    kernel_size: 5
    stride: 1
    weight_filler {
      type: "gaussian"
      std: 0.01
    }
    bias_filler {
      type: "constant"
    }
  }
}
layer {
  name: "relu3"
  type: "ReLU"
  bottom: "conv3"
  top: "conv3"
}
layer {
  name: "conv4"
  type: "Convolution"
  bottom: "conv3"
  top: "conv4"
  param {
    lr_mult: 1
  }
  param {
    lr_mult: 2
  }
  convolution_param {
    num_output: 64
    pad: 2
    kernel_size: 5
    stride: 1
    weight_filler {
      type: "gaussian"
      std: 0.01
    }
    bias_filler {
      type: "constant"
    }
  }
}
layer {
  name: "relu4"
  type: "ReLU"
  bottom: "conv4"
  top: "conv4"
}
layer {
  name: "conv5"
  type: "Convolution"
  bottom: "conv4"
  top: "conv5"
  param {
    lr_mult: 1
  }
  param {
    lr_mult: 2
  }
  convolution_param {
    num_output: 64
    pad: 2
    kernel_size: 5
    stride: 1
    weight_filler {
      type: "gaussian"
      std: 0.01
    }
    bias_filler {
      type: "constant"
    }
  }
}
layer {
  name: "relu5"
  type: "ReLU"
  bottom: "conv5"
  top: "conv5"
}
layer {
  name: "pool5"
  type: "Pooling"
  bottom: "conv5"
  top: "pool5"
  pooling_param {
    pool: AVE
    kernel_size: 3
    stride: 2
  }
}
layer {
  name: "ip1"
  type: "InnerProduct"
  bottom: "pool5"
  top: "ip1"
  param {
    lr_mult: 1
  }
  param {
    lr_mult: 2
  }
  inner_product_param {
    num_output: 64
    weight_filler {
      type: "gaussian"
      std: 0.1
    }
    bias_filler {
      type: "constant"
    }
  }
}
layer {
  name: "ip2"
  type: "InnerProduct"
  bottom: "ip1"
  top: "ip2"
  param {
    lr_mult: 1
  }
  param {
    lr_mult: 2
  }
  inner_product_param {
    num_output: 64
    weight_filler {
      type: "gaussian"
      std: 0.1
    }
    bias_filler {
      type: "constant"
    }
  }
}
layer {
  name: "ip3"
  type: "InnerProduct"
  bottom: "ip2"
  top: "ip3"
  param {
    lr_mult: 1
  }
  param {
    lr_mult: 2
  }
  inner_product_param {
    num_output: 50
    weight_filler {
      type: "gaussian"
      std: 0.1
    }
    bias_filler {
      type: "constant"
    }
  }
}
layer {
  name: "loss"
  type: "SoftmaxWithLoss"
  bottom: "ip3"
  bottom: "label"
  top: "loss"
}
I0507 18:59:23.228283  6256 layer_factory.hpp:77] Creating layer parameters
I0507 18:59:23.228291  6256 net.cpp:94] Creating Layer parameters
I0507 18:59:23.228296  6256 net.cpp:409] parameters -> data
I0507 18:59:23.228302  6256 net.cpp:409] parameters -> label
I0507 18:59:23.228307  6256 hdf5_data_layer.cpp:79] Loading list of HDF5 filenames from: /home/purduethu/scratch/radon/d/deng106/CNNStatisticalModel/distributions/input/50_distributions_900_sample_size_train-distributions-path.txt
I0507 18:59:23.228323  6256 hdf5_data_layer.cpp:93] Number of HDF5 files: 1
I0507 18:59:24.694965  6256 hdf5.cpp:35] Datatype class: H5T_INTEGER
I0507 18:59:24.698014  6256 net.cpp:144] Setting up parameters
I0507 18:59:24.698031  6256 net.cpp:151] Top shape: 20 1 30 30 (18000)
I0507 18:59:24.698036  6256 net.cpp:151] Top shape: 20 (20)
I0507 18:59:24.698040  6256 net.cpp:159] Memory required for data: 72080
I0507 18:59:24.698045  6256 layer_factory.hpp:77] Creating layer conv1
I0507 18:59:24.698061  6256 net.cpp:94] Creating Layer conv1
I0507 18:59:24.698066  6256 net.cpp:435] conv1 <- data
I0507 18:59:24.698072  6256 net.cpp:409] conv1 -> conv1
I0507 18:59:24.701591  6256 net.cpp:144] Setting up conv1
I0507 18:59:24.701606  6256 net.cpp:151] Top shape: 20 64 30 30 (1152000)
I0507 18:59:24.701611  6256 net.cpp:159] Memory required for data: 4680080
I0507 18:59:24.701620  6256 layer_factory.hpp:77] Creating layer relu1
I0507 18:59:24.701627  6256 net.cpp:94] Creating Layer relu1
I0507 18:59:24.701632  6256 net.cpp:435] relu1 <- conv1
I0507 18:59:24.701637  6256 net.cpp:396] relu1 -> conv1 (in-place)
I0507 18:59:24.701643  6256 net.cpp:144] Setting up relu1
I0507 18:59:24.701647  6256 net.cpp:151] Top shape: 20 64 30 30 (1152000)
I0507 18:59:24.701650  6256 net.cpp:159] Memory required for data: 9288080
I0507 18:59:24.701653  6256 layer_factory.hpp:77] Creating layer conv2
I0507 18:59:24.701661  6256 net.cpp:94] Creating Layer conv2
I0507 18:59:24.701664  6256 net.cpp:435] conv2 <- conv1
I0507 18:59:24.701668  6256 net.cpp:409] conv2 -> conv2
I0507 18:59:24.718037  6256 net.cpp:144] Setting up conv2
I0507 18:59:24.718052  6256 net.cpp:151] Top shape: 20 64 30 30 (1152000)
I0507 18:59:24.718056  6256 net.cpp:159] Memory required for data: 13896080
I0507 18:59:24.718065  6256 layer_factory.hpp:77] Creating layer relu2
I0507 18:59:24.718071  6256 net.cpp:94] Creating Layer relu2
I0507 18:59:24.718075  6256 net.cpp:435] relu2 <- conv2
I0507 18:59:24.718080  6256 net.cpp:396] relu2 -> conv2 (in-place)
I0507 18:59:24.718086  6256 net.cpp:144] Setting up relu2
I0507 18:59:24.718091  6256 net.cpp:151] Top shape: 20 64 30 30 (1152000)
I0507 18:59:24.718093  6256 net.cpp:159] Memory required for data: 18504080
I0507 18:59:24.718096  6256 layer_factory.hpp:77] Creating layer pool2
I0507 18:59:24.718103  6256 net.cpp:94] Creating Layer pool2
I0507 18:59:24.718106  6256 net.cpp:435] pool2 <- conv2
I0507 18:59:24.718111  6256 net.cpp:409] pool2 -> pool2
I0507 18:59:24.718161  6256 net.cpp:144] Setting up pool2
I0507 18:59:24.718168  6256 net.cpp:151] Top shape: 20 64 15 15 (288000)
I0507 18:59:24.718171  6256 net.cpp:159] Memory required for data: 19656080
I0507 18:59:24.718174  6256 layer_factory.hpp:77] Creating layer conv3
I0507 18:59:24.718183  6256 net.cpp:94] Creating Layer conv3
I0507 18:59:24.718186  6256 net.cpp:435] conv3 <- pool2
I0507 18:59:24.718197  6256 net.cpp:409] conv3 -> conv3
I0507 18:59:24.727708  6256 net.cpp:144] Setting up conv3
I0507 18:59:24.727737  6256 net.cpp:151] Top shape: 20 64 15 15 (288000)
I0507 18:59:24.727741  6256 net.cpp:159] Memory required for data: 20808080
I0507 18:59:24.727749  6256 layer_factory.hpp:77] Creating layer relu3
I0507 18:59:24.727756  6256 net.cpp:94] Creating Layer relu3
I0507 18:59:24.727758  6256 net.cpp:435] relu3 <- conv3
I0507 18:59:24.727763  6256 net.cpp:396] relu3 -> conv3 (in-place)
I0507 18:59:24.727769  6256 net.cpp:144] Setting up relu3
I0507 18:59:24.727774  6256 net.cpp:151] Top shape: 20 64 15 15 (288000)
I0507 18:59:24.727777  6256 net.cpp:159] Memory required for data: 21960080
I0507 18:59:24.727779  6256 layer_factory.hpp:77] Creating layer conv4
I0507 18:59:24.727788  6256 net.cpp:94] Creating Layer conv4
I0507 18:59:24.727792  6256 net.cpp:435] conv4 <- conv3
I0507 18:59:24.727795  6256 net.cpp:409] conv4 -> conv4
I0507 18:59:24.736742  6256 net.cpp:144] Setting up conv4
I0507 18:59:24.736757  6256 net.cpp:151] Top shape: 20 64 15 15 (288000)
I0507 18:59:24.736762  6256 net.cpp:159] Memory required for data: 23112080
I0507 18:59:24.736768  6256 layer_factory.hpp:77] Creating layer relu4
I0507 18:59:24.736774  6256 net.cpp:94] Creating Layer relu4
I0507 18:59:24.736778  6256 net.cpp:435] relu4 <- conv4
I0507 18:59:24.736783  6256 net.cpp:396] relu4 -> conv4 (in-place)
I0507 18:59:24.736789  6256 net.cpp:144] Setting up relu4
I0507 18:59:24.736793  6256 net.cpp:151] Top shape: 20 64 15 15 (288000)
I0507 18:59:24.736796  6256 net.cpp:159] Memory required for data: 24264080
I0507 18:59:24.736799  6256 layer_factory.hpp:77] Creating layer conv5
I0507 18:59:24.736807  6256 net.cpp:94] Creating Layer conv5
I0507 18:59:24.736810  6256 net.cpp:435] conv5 <- conv4
I0507 18:59:24.736815  6256 net.cpp:409] conv5 -> conv5
I0507 18:59:24.744796  6256 net.cpp:144] Setting up conv5
I0507 18:59:24.744810  6256 net.cpp:151] Top shape: 20 64 15 15 (288000)
I0507 18:59:24.744814  6256 net.cpp:159] Memory required for data: 25416080
I0507 18:59:24.744823  6256 layer_factory.hpp:77] Creating layer relu5
I0507 18:59:24.744829  6256 net.cpp:94] Creating Layer relu5
I0507 18:59:24.744832  6256 net.cpp:435] relu5 <- conv5
I0507 18:59:24.744837  6256 net.cpp:396] relu5 -> conv5 (in-place)
I0507 18:59:24.744843  6256 net.cpp:144] Setting up relu5
I0507 18:59:24.744848  6256 net.cpp:151] Top shape: 20 64 15 15 (288000)
I0507 18:59:24.744850  6256 net.cpp:159] Memory required for data: 26568080
I0507 18:59:24.744853  6256 layer_factory.hpp:77] Creating layer pool5
I0507 18:59:24.744858  6256 net.cpp:94] Creating Layer pool5
I0507 18:59:24.744861  6256 net.cpp:435] pool5 <- conv5
I0507 18:59:24.744865  6256 net.cpp:409] pool5 -> pool5
I0507 18:59:24.744901  6256 net.cpp:144] Setting up pool5
I0507 18:59:24.744909  6256 net.cpp:151] Top shape: 20 64 7 7 (62720)
I0507 18:59:24.744911  6256 net.cpp:159] Memory required for data: 26818960
I0507 18:59:24.744915  6256 layer_factory.hpp:77] Creating layer ip1
I0507 18:59:24.744921  6256 net.cpp:94] Creating Layer ip1
I0507 18:59:24.744925  6256 net.cpp:435] ip1 <- pool5
I0507 18:59:24.744930  6256 net.cpp:409] ip1 -> ip1
I0507 18:59:24.749786  6256 net.cpp:144] Setting up ip1
I0507 18:59:24.749796  6256 net.cpp:151] Top shape: 20 64 (1280)
I0507 18:59:24.749799  6256 net.cpp:159] Memory required for data: 26824080
I0507 18:59:24.749804  6256 layer_factory.hpp:77] Creating layer ip2
I0507 18:59:24.749810  6256 net.cpp:94] Creating Layer ip2
I0507 18:59:24.749814  6256 net.cpp:435] ip2 <- ip1
I0507 18:59:24.749819  6256 net.cpp:409] ip2 -> ip2
I0507 18:59:24.750035  6256 net.cpp:144] Setting up ip2
I0507 18:59:24.750041  6256 net.cpp:151] Top shape: 20 64 (1280)
I0507 18:59:24.750044  6256 net.cpp:159] Memory required for data: 26829200
I0507 18:59:24.750049  6256 layer_factory.hpp:77] Creating layer ip3
I0507 18:59:24.750056  6256 net.cpp:94] Creating Layer ip3
I0507 18:59:24.750058  6256 net.cpp:435] ip3 <- ip2
I0507 18:59:24.750063  6256 net.cpp:409] ip3 -> ip3
I0507 18:59:24.750255  6256 net.cpp:144] Setting up ip3
I0507 18:59:24.750262  6256 net.cpp:151] Top shape: 20 50 (1000)
I0507 18:59:24.750265  6256 net.cpp:159] Memory required for data: 26833200
I0507 18:59:24.750270  6256 layer_factory.hpp:77] Creating layer loss
I0507 18:59:24.750277  6256 net.cpp:94] Creating Layer loss
I0507 18:59:24.750280  6256 net.cpp:435] loss <- ip3
I0507 18:59:24.750284  6256 net.cpp:435] loss <- label
I0507 18:59:24.750288  6256 net.cpp:409] loss -> loss
I0507 18:59:24.750295  6256 layer_factory.hpp:77] Creating layer loss
…
I0507 18:59:24.750802  6256 solver.cpp:181] Creating test net (#0) specified by net file: ./protocol/dis_50_900_dimension.protocol_distribution
I0507 18:59:24.750828  6256 net.cpp:323] The NetState phase (1) differed from the phase (0) specified by a rule in layer parameters
I0507 18:59:24.750923  6256 net.cpp:52] Initializing net from parameters: 
state {
  phase: TEST
}
layer {
  name: "intercept"
  type: "HDF5Data"
  top: "data"
  top: "label"
  include {
    phase: TEST
  }
  hdf5_data_param {
    source: "/home/purduethu/scratch/radon/d/deng106/CNNStatisticalModel/distributions/input/50_distributions_900_sample_size_test-distributions-path.txt"
    batch_size: 20
  }
}
layer {
  name: "conv1"
  type: "Convolution"
  bottom: "data"
  top: "conv1"
  param {
    lr_mult: 1
  }
  param {
    lr_mult: 2
  }
  convolution_param {
    num_output: 64
    pad: 2
    kernel_size: 5
    stride: 1
    weight_filler {
      type: "gaussian"
      std: 0.0001
    }
    bias_filler {
      type: "constant"
    }
  }
}
layer {
  name: "relu1"
  type: "ReLU"
  bottom: "conv1"
  top: "conv1"
}
layer {
  name: "conv2"
  type: "Convolution"
  bottom: "conv1"
  top: "conv2"
  param {
    lr_mult: 1
  }
  param {
    lr_mult: 2
  }
  convolution_param {
    num_output: 64
    pad: 2
    kernel_size: 5
    stride: 1
    weight_filler {
      type: "gaussian"
      std: 0.01
    }
    bias_filler {
      type: "constant"
    }
  }
}
layer {
  name: "relu2"
  type: "ReLU"
  bottom: "conv2"
  top: "conv2"
}
layer {
  name: "pool2"
  type: "Pooling"
  bottom: "conv2"
  top: "pool2"
  pooling_param {
    pool: MAX
    kernel_size: 3
    stride: 2
  }
}
layer {
  name: "conv3"
  type: "Convolution"
  bottom: "pool2"
  top: "conv3"
  param {
    lr_mult: 1
  }
  param {
    lr_mult: 2
  }
  convolution_param {
    num_output: 64
    pad: 2
    kernel_size: 5
    stride: 1
    weight_filler {
      type: "gaussian"
      std: 0.01
    }
    bias_filler {
      type: "constant"
    }
  }
}
layer {
  name: "relu3"
  type: "ReLU"
  bottom: "conv3"
  top: "conv3"
}
layer {
  name: "conv4"
  type: "Convolution"
  bottom: "conv3"
  top: "conv4"
  param {
    lr_mult: 1
  }
  param {
    lr_mult: 2
  }
  convolution_param {
    num_output: 64
    pad: 2
    kernel_size: 5
    stride: 1
    weight_filler {
      type: "gaussian"
      std: 0.01
    }
    bias_filler {
      type: "constant"
    }
  }
}
layer {
  name: "relu4"
  type: "ReLU"
  bottom: "conv4"
  top: "conv4"
}
layer {
  name: "conv5"
  type: "Convolution"
  bottom: "conv4"
  top: "conv5"
  param {
    lr_mult: 1
  }
  param {
    lr_mult: 2
  }
  convolution_param {
    num_output: 64
    pad: 2
    kernel_size: 5
    stride: 1
    weight_filler {
      type: "gaussian"
      std: 0.01
    }
    bias_filler {
      type: "constant"
    }
  }
}
layer {
  name: "relu5"
  type: "ReLU"
  bottom: "conv5"
  top: "conv5"
}
layer {
  name: "pool5"
  type: "Pooling"
  bottom: "conv5"
  top: "pool5"
  pooling_param {
    pool: AVE
    kernel_size: 3
    stride: 2
  }
}
layer {
  name: "ip1"
  type: "InnerProduct"
  bottom: "pool5"
  top: "ip1"
  param {
    lr_mult: 1
  }
  param {
    lr_mult: 2
  }
  inner_product_param {
    num_output: 64
    weight_filler {
      type: "gaussian"
      std: 0.1
    }
    bias_filler {
      type: "constant"
    }
  }
}
layer {
  name: "ip2"
  type: "InnerProduct"
  bottom: "ip1"
  top: "ip2"
  param {
    lr_mult: 1
  }
  param {
    lr_mult: 2
  }
  inner_product_param {
    num_output: 64
    weight_filler {
      type: "gaussian"
      std: 0.1
    }
    bias_filler {
      type: "constant"
    }
  }
}
layer {
  name: "ip3"
  type: "InnerProduct"
  bottom: "ip2"
  top: "ip3"
  param {
    lr_mult: 1
  }
  param {
    lr_mult: 2
  }
  inner_product_param {
    num_output: 50
    weight_filler {
      type: "gaussian"
      std: 0.1
    }
    bias_filler {
      type: "constant"
    }
  }
}
layer {
  name: "accuracy"
  type: "Accuracy"
  bottom: "ip3"
  bottom: "label"
  top: "accuracy"
  include {
    phase: TEST
  }
}
layer {
  name: "loss"
  type: "SoftmaxWithLoss"
  bottom: "ip3"
  bottom: "label"
  top: "loss"
}
I0507 18:59:24.750989  6256 layer_factory.hpp:77] Creating layer intercept
I0507 18:59:24.750998  6256 net.cpp:94] Creating Layer intercept
I0507 18:59:24.751001  6256 net.cpp:409] intercept -> data
I0507 18:59:24.751008  6256 net.cpp:409] intercept -> label
I0507 18:59:24.751013  6256 hdf5_data_layer.cpp:79] Loading list of HDF5 filenames from: /home/purduethu/scratch/radon/d/deng106/CNNStatisticalModel/distributions/input/50_distributions_900_sample_size_test-distributions-path.txt
I0507 18:59:24.751032  6256 hdf5_data_layer.cpp:93] Number of HDF5 files: 1
I0507 18:59:25.102293  6256 net.cpp:144] Setting up intercept
I0507 18:59:25.102326  6256 net.cpp:151] Top shape: 20 1 30 30 (18000)
I0507 18:59:25.102331  6256 net.cpp:151] Top shape: 20 (20)
I0507 18:59:25.102334  6256 net.cpp:159] Memory required for data: 72080
I0507 18:59:25.102341  6256 layer_factory.hpp:77] Creating layer label_intercept_1_split
I0507 18:59:25.102360  6256 net.cpp:94] Creating Layer label_intercept_1_split
I0507 18:59:25.102363  6256 net.cpp:435] label_intercept_1_split <- label
I0507 18:59:25.102370  6256 net.cpp:409] label_intercept_1_split -> label_intercept_1_split_0
I0507 18:59:25.102377  6256 net.cpp:409] label_intercept_1_split -> label_intercept_1_split_1
I0507 18:59:25.102416  6256 net.cpp:144] Setting up label_intercept_1_split
I0507 18:59:25.102422  6256 net.cpp:151] Top shape: 20 (20)
I0507 18:59:25.102425  6256 net.cpp:151] Top shape: 20 (20)
I0507 18:59:25.102428  6256 net.cpp:159] Memory required for data: 72240
I0507 18:59:25.102432  6256 layer_factory.hpp:77] Creating layer conv1
I0507 18:59:25.102442  6256 net.cpp:94] Creating Layer conv1
I0507 18:59:25.102447  6256 net.cpp:435] conv1 <- data
I0507 18:59:25.102452  6256 net.cpp:409] conv1 -> conv1
I0507 18:59:25.103937  6256 net.cpp:144] Setting up conv1
I0507 18:59:25.103951  6256 net.cpp:151] Top shape: 20 64 30 30 (1152000)
I0507 18:59:25.103955  6256 net.cpp:159] Memory required for data: 4680240
I0507 18:59:25.103965  6256 layer_factory.hpp:77] Creating layer relu1
I0507 18:59:25.103971  6256 net.cpp:94] Creating Layer relu1
I0507 18:59:25.103973  6256 net.cpp:435] relu1 <- conv1
I0507 18:59:25.103978  6256 net.cpp:396] relu1 -> conv1 (in-place)
I0507 18:59:25.103984  6256 net.cpp:144] Setting up relu1
I0507 18:59:25.103989  6256 net.cpp:151] Top shape: 20 64 30 30 (1152000)
I0507 18:59:25.103991  6256 net.cpp:159] Memory required for data: 9288240
I0507 18:59:25.103994  6256 layer_factory.hpp:77] Creating layer conv2
I0507 18:59:25.104002  6256 net.cpp:94] Creating Layer conv2
I0507 18:59:25.104005  6256 net.cpp:435] conv2 <- conv1
I0507 18:59:25.104010  6256 net.cpp:409] conv2 -> conv2
I0507 18:59:25.111752  6256 net.cpp:144] Setting up conv2
I0507 18:59:25.111789  6256 net.cpp:151] Top shape: 20 64 30 30 (1152000)
I0507 18:59:25.111800  6256 net.cpp:159] Memory required for data: 13896240
I0507 18:59:25.111821  6256 layer_factory.hpp:77] Creating layer relu2
I0507 18:59:25.111837  6256 net.cpp:94] Creating Layer relu2
I0507 18:59:25.111847  6256 net.cpp:435] relu2 <- conv2
I0507 18:59:25.111860  6256 net.cpp:396] relu2 -> conv2 (in-place)
I0507 18:59:25.111878  6256 net.cpp:144] Setting up relu2
I0507 18:59:25.111889  6256 net.cpp:151] Top shape: 20 64 30 30 (1152000)
I0507 18:59:25.111898  6256 net.cpp:159] Memory required for data: 18504240
I0507 18:59:25.111907  6256 layer_factory.hpp:77] Creating layer pool2
I0507 18:59:25.111919  6256 net.cpp:94] Creating Layer pool2
I0507 18:59:25.111927  6256 net.cpp:435] pool2 <- conv2
I0507 18:59:25.111943  6256 net.cpp:409] pool2 -> pool2
I0507 18:59:25.112035  6256 net.cpp:144] Setting up pool2
I0507 18:59:25.112042  6256 net.cpp:151] Top shape: 20 64 15 15 (288000)
I0507 18:59:25.112046  6256 net.cpp:159] Memory required for data: 19656240
I0507 18:59:25.112048  6256 layer_factory.hpp:77] Creating layer conv3
I0507 18:59:25.112056  6256 net.cpp:94] Creating Layer conv3
I0507 18:59:25.112061  6256 net.cpp:435] conv3 <- pool2
I0507 18:59:25.112064  6256 net.cpp:409] conv3 -> conv3
I0507 18:59:25.117465  6256 net.cpp:144] Setting up conv3
I0507 18:59:25.117501  6256 net.cpp:151] Top shape: 20 64 15 15 (288000)
I0507 18:59:25.117511  6256 net.cpp:159] Memory required for data: 20808240
I0507 18:59:25.117533  6256 layer_factory.hpp:77] Creating layer relu3
I0507 18:59:25.117550  6256 net.cpp:94] Creating Layer relu3
I0507 18:59:25.117560  6256 net.cpp:435] relu3 <- conv3
I0507 18:59:25.117573  6256 net.cpp:396] relu3 -> conv3 (in-place)
I0507 18:59:25.117590  6256 net.cpp:144] Setting up relu3
I0507 18:59:25.117602  6256 net.cpp:151] Top shape: 20 64 15 15 (288000)
I0507 18:59:25.117610  6256 net.cpp:159] Memory required for data: 21960240
I0507 18:59:25.117619  6256 layer_factory.hpp:77] Creating layer conv4
I0507 18:59:25.117646  6256 net.cpp:94] Creating Layer conv4
I0507 18:59:25.117656  6256 net.cpp:435] conv4 <- conv3
I0507 18:59:25.117671  6256 net.cpp:409] conv4 -> conv4
I0507 18:59:25.122586  6256 net.cpp:144] Setting up conv4
I0507 18:59:25.122602  6256 net.cpp:151] Top shape: 20 64 15 15 (288000)
I0507 18:59:25.122606  6256 net.cpp:159] Memory required for data: 23112240
I0507 18:59:25.122613  6256 layer_factory.hpp:77] Creating layer relu4
I0507 18:59:25.122619  6256 net.cpp:94] Creating Layer relu4
I0507 18:59:25.122622  6256 net.cpp:435] relu4 <- conv4
I0507 18:59:25.122628  6256 net.cpp:396] relu4 -> conv4 (in-place)
I0507 18:59:25.122635  6256 net.cpp:144] Setting up relu4
I0507 18:59:25.122639  6256 net.cpp:151] Top shape: 20 64 15 15 (288000)
I0507 18:59:25.122642  6256 net.cpp:159] Memory required for data: 24264240
I0507 18:59:25.122644  6256 layer_factory.hpp:77] Creating layer conv5
I0507 18:59:25.122653  6256 net.cpp:94] Creating Layer conv5
I0507 18:59:25.122658  6256 net.cpp:435] conv5 <- conv4
I0507 18:59:25.122661  6256 net.cpp:409] conv5 -> conv5
I0507 18:59:25.127472  6256 net.cpp:144] Setting up conv5
I0507 18:59:25.127487  6256 net.cpp:151] Top shape: 20 64 15 15 (288000)
I0507 18:59:25.127491  6256 net.cpp:159] Memory required for data: 25416240
I0507 18:59:25.127499  6256 layer_factory.hpp:77] Creating layer relu5
I0507 18:59:25.127506  6256 net.cpp:94] Creating Layer relu5
I0507 18:59:25.127508  6256 net.cpp:435] relu5 <- conv5
I0507 18:59:25.127514  6256 net.cpp:396] relu5 -> conv5 (in-place)
I0507 18:59:25.127521  6256 net.cpp:144] Setting up relu5
I0507 18:59:25.127526  6256 net.cpp:151] Top shape: 20 64 15 15 (288000)
I0507 18:59:25.127528  6256 net.cpp:159] Memory required for data: 26568240
I0507 18:59:25.127532  6256 layer_factory.hpp:77] Creating layer pool5
I0507 18:59:25.127537  6256 net.cpp:94] Creating Layer pool5
I0507 18:59:25.127539  6256 net.cpp:435] pool5 <- conv5
I0507 18:59:25.127544  6256 net.cpp:409] pool5 -> pool5
I0507 18:59:25.127583  6256 net.cpp:144] Setting up pool5
I0507 18:59:25.127588  6256 net.cpp:151] Top shape: 20 64 7 7 (62720)
I0507 18:59:25.127591  6256 net.cpp:159] Memory required for data: 26819120
I0507 18:59:25.127594  6256 layer_factory.hpp:77] Creating layer ip1
I0507 18:59:25.127602  6256 net.cpp:94] Creating Layer ip1
I0507 18:59:25.127605  6256 net.cpp:435] ip1 <- pool5
I0507 18:59:25.127609  6256 net.cpp:409] ip1 -> ip1
I0507 18:59:25.133236  6256 net.cpp:144] Setting up ip1
I0507 18:59:25.133249  6256 net.cpp:151] Top shape: 20 64 (1280)
I0507 18:59:25.133254  6256 net.cpp:159] Memory required for data: 26824240
I0507 18:59:25.133258  6256 layer_factory.hpp:77] Creating layer ip2
I0507 18:59:25.133267  6256 net.cpp:94] Creating Layer ip2
I0507 18:59:25.133271  6256 net.cpp:435] ip2 <- ip1
I0507 18:59:25.133276  6256 net.cpp:409] ip2 -> ip2
I0507 18:59:25.133504  6256 net.cpp:144] Setting up ip2
I0507 18:59:25.133512  6256 net.cpp:151] Top shape: 20 64 (1280)
I0507 18:59:25.133515  6256 net.cpp:159] Memory required for data: 26829360
I0507 18:59:25.133519  6256 layer_factory.hpp:77] Creating layer ip3
I0507 18:59:25.133527  6256 net.cpp:94] Creating Layer ip3
I0507 18:59:25.133532  6256 net.cpp:435] ip3 <- ip2
I0507 18:59:25.133535  6256 net.cpp:409] ip3 -> ip3
I0507 18:59:25.133728  6256 net.cpp:144] Setting up ip3
I0507 18:59:25.133735  6256 net.cpp:151] Top shape: 20 50 (1000)
I0507 18:59:25.133738  6256 net.cpp:159] Memory required for data: 26833360
I0507 18:59:25.133744  6256 layer_factory.hpp:77] Creating layer ip3_ip3_0_split
I0507 18:59:25.133747  6256 net.cpp:94] Creating Layer ip3_ip3_0_split
I0507 18:59:25.133750  6256 net.cpp:435] ip3_ip3_0_split <- ip3
I0507 18:59:25.133755  6256 net.cpp:409] ip3_ip3_0_split -> ip3_ip3_0_split_0
I0507 18:59:25.133761  6256 net.cpp:409] ip3_ip3_0_split -> ip3_ip3_0_split_1
I0507 18:59:25.133800  6256 net.cpp:144] Setting up ip3_ip3_0_split
I0507 18:59:25.133806  6256 net.cpp:151] Top shape: 20 50 (1000)
I0507 18:59:25.133810  6256 net.cpp:151] Top shape: 20 50 (1000)
I0507 18:59:25.133812  6256 net.cpp:159] Memory required for data: 26841360
I0507 18:59:25.133816  6256 layer_factory.hpp:77] Creating layer accuracy
I0507 18:59:25.133821  6256 net.cpp:94] Creating Layer accuracy
I0507 18:59:25.133823  6256 net.cpp:435] accuracy <- ip3_ip3_0_split_0
I0507 18:59:25.133827  6256 net.cpp:435] accuracy <- label_intercept_1_split_0
I0507 18:59:25.133831  6256 net.cpp:409] accuracy -> accuracy
…
