…
I0501 06:02:42.786976 31576 net.cpp:323] The NetState phase (0) differed from the phase (1) specified by a rule in layer intercept
I0501 06:02:42.786993 31576 net.cpp:323] The NetState phase (0) differed from the phase (1) specified by a rule in layer loss
I0501 06:02:42.787086 31576 net.cpp:52] Initializing net from parameters: 
state {
  phase: TRAIN
}
layer {
  name: "parameters"
  type: "HDF5Data"
  top: "data"
  top: "label"
  include {
    phase: TRAIN
  }
  hdf5_data_param {
    source: "/home/purduethu/scratch/radon/d/deng106/CNNStatisticalModel/distributions/input/50_distributions_100_sample_size_train-parameters-path.txt"
    batch_size: 20
  }
}
layer {
  name: "conv1"
  type: "Convolution"
  bottom: "data"
  top: "conv1"
  param {
    lr_mult: 1
  }
  param {
    lr_mult: 2
  }
  convolution_param {
    num_output: 64
    pad: 2
    kernel_size: 5
    stride: 1
    weight_filler {
      type: "gaussian"
      std: 0.0001
    }
    bias_filler {
      type: "constant"
    }
  }
}
layer {
  name: "relu1"
  type: "ReLU"
  bottom: "conv1"
  top: "conv1"
}
layer {
  name: "conv2"
  type: "Convolution"
  bottom: "conv1"
  top: "conv2"
  param {
    lr_mult: 1
  }
  param {
    lr_mult: 2
  }
  convolution_param {
    num_output: 64
    pad: 2
    kernel_size: 5
    stride: 1
    weight_filler {
      type: "gaussian"
      std: 0.01
    }
    bias_filler {
      type: "constant"
    }
  }
}
layer {
  name: "relu2"
  type: "ReLU"
  bottom: "conv2"
  top: "conv2"
}
layer {
  name: "pool2"
  type: "Pooling"
  bottom: "conv2"
  top: "pool2"
  pooling_param {
    pool: MAX
    kernel_size: 3
    stride: 2
  }
}
layer {
  name: "conv3"
  type: "Convolution"
  bottom: "pool2"
  top: "conv3"
  param {
    lr_mult: 1
  }
  param {
    lr_mult: 2
  }
  convolution_param {
    num_output: 128
    pad: 2
    kernel_size: 5
    stride: 1
    weight_filler {
      type: "gaussian"
      std: 0.01
    }
    bias_filler {
      type: "constant"
    }
  }
}
layer {
  name: "relu3"
  type: "ReLU"
  bottom: "conv3"
  top: "conv3"
}
layer {
  name: "conv4"
  type: "Convolution"
  bottom: "conv3"
  top: "conv4"
  param {
    lr_mult: 1
  }
  param {
    lr_mult: 2
  }
  convolution_param {
    num_output: 128
    pad: 2
    kernel_size: 5
    stride: 1
    weight_filler {
      type: "gaussian"
      std: 0.01
    }
    bias_filler {
      type: "constant"
    }
  }
}
layer {
  name: "relu4"
  type: "ReLU"
  bottom: "conv4"
  top: "conv4"
}
layer {
  name: "conv5"
  type: "Convolution"
  bottom: "conv4"
  top: "conv5"
  param {
    lr_mult: 1
  }
  param {
    lr_mult: 2
  }
  convolution_param {
    num_output: 128
    pad: 2
    kernel_size: 5
    stride: 1
    weight_filler {
      type: "gaussian"
      std: 0.01
    }
    bias_filler {
      type: "constant"
    }
  }
}
layer {
  name: "relu5"
  type: "ReLU"
  bottom: "conv5"
  top: "conv5"
}
layer {
  name: "pool5"
  type: "Pooling"
  bottom: "conv5"
  top: "pool5"
  pooling_param {
    pool: AVE
    kernel_size: 3
    stride: 2
  }
}
layer {
  name: "ip1"
  type: "InnerProduct"
  bottom: "pool5"
  top: "ip1"
  param {
    lr_mult: 1
  }
  param {
    lr_mult: 2
  }
  inner_product_param {
    num_output: 1024
    weight_filler {
      type: "gaussian"
      std: 0.1
    }
    bias_filler {
      type: "constant"
    }
  }
}
layer {
  name: "ip2"
  type: "InnerProduct"
  bottom: "ip1"
  top: "ip2"
  param {
    lr_mult: 1
  }
  param {
    lr_mult: 2
  }
  inner_product_param {
    num_output: 512
    weight_filler {
      type: "gaussian"
      std: 0.1
    }
    bias_filler {
      type: "constant"
    }
  }
}
layer {
  name: "ip3"
  type: "InnerProduct"
  bottom: "ip2"
  top: "ip3"
  param {
    lr_mult: 1
  }
  param {
    lr_mult: 2
  }
  inner_product_param {
    num_output: 1
    weight_filler {
      type: "gaussian"
      std: 0.1
    }
    bias_filler {
      type: "constant"
    }
  }
}
layer {
  name: "loss"
  type: "HuberLoss"
  bottom: "ip3"
  bottom: "label"
  top: "loss"
  include {
    phase: TRAIN
  }
}
I0501 06:02:42.787163 31576 layer_factory.hpp:77] Creating layer parameters
I0501 06:02:42.787178 31576 net.cpp:94] Creating Layer parameters
I0501 06:02:42.787184 31576 net.cpp:409] parameters -> data
I0501 06:02:42.787204 31576 net.cpp:409] parameters -> label
I0501 06:02:42.787216 31576 hdf5_data_layer.cpp:79] Loading list of HDF5 filenames from: /home/purduethu/scratch/radon/d/deng106/CNNStatisticalModel/distributions/input/50_distributions_100_sample_size_train-parameters-path.txt
I0501 06:02:42.787241 31576 hdf5_data_layer.cpp:93] Number of HDF5 files: 1
I0501 06:02:42.787863 31576 hdf5.cpp:32] Datatype class: H5T_FLOAT
I0501 06:02:42.952013 31576 net.cpp:144] Setting up parameters
I0501 06:02:42.952046 31576 net.cpp:151] Top shape: 20 1 10 10 (2000)
I0501 06:02:42.952052 31576 net.cpp:151] Top shape: 20 (20)
I0501 06:02:42.952056 31576 net.cpp:159] Memory required for data: 8080
I0501 06:02:42.952064 31576 layer_factory.hpp:77] Creating layer conv1
I0501 06:02:42.952087 31576 net.cpp:94] Creating Layer conv1
I0501 06:02:42.952093 31576 net.cpp:435] conv1 <- data
I0501 06:02:42.952105 31576 net.cpp:409] conv1 -> conv1
I0501 06:02:42.955987 31576 net.cpp:144] Setting up conv1
I0501 06:02:42.956002 31576 net.cpp:151] Top shape: 20 64 10 10 (128000)
I0501 06:02:42.956007 31576 net.cpp:159] Memory required for data: 520080
I0501 06:02:42.956018 31576 layer_factory.hpp:77] Creating layer relu1
I0501 06:02:42.956027 31576 net.cpp:94] Creating Layer relu1
I0501 06:02:42.956030 31576 net.cpp:435] relu1 <- conv1
I0501 06:02:42.956035 31576 net.cpp:396] relu1 -> conv1 (in-place)
I0501 06:02:42.956050 31576 net.cpp:144] Setting up relu1
I0501 06:02:42.956055 31576 net.cpp:151] Top shape: 20 64 10 10 (128000)
I0501 06:02:42.956059 31576 net.cpp:159] Memory required for data: 1032080
I0501 06:02:42.956063 31576 layer_factory.hpp:77] Creating layer conv2
I0501 06:02:42.956070 31576 net.cpp:94] Creating Layer conv2
I0501 06:02:42.956073 31576 net.cpp:435] conv2 <- conv1
I0501 06:02:42.956079 31576 net.cpp:409] conv2 -> conv2
I0501 06:02:42.961956 31576 net.cpp:144] Setting up conv2
I0501 06:02:42.961971 31576 net.cpp:151] Top shape: 20 64 10 10 (128000)
I0501 06:02:42.961974 31576 net.cpp:159] Memory required for data: 1544080
I0501 06:02:42.961982 31576 layer_factory.hpp:77] Creating layer relu2
I0501 06:02:42.961989 31576 net.cpp:94] Creating Layer relu2
I0501 06:02:42.961992 31576 net.cpp:435] relu2 <- conv2
I0501 06:02:42.961997 31576 net.cpp:396] relu2 -> conv2 (in-place)
I0501 06:02:42.962005 31576 net.cpp:144] Setting up relu2
I0501 06:02:42.962009 31576 net.cpp:151] Top shape: 20 64 10 10 (128000)
I0501 06:02:42.962013 31576 net.cpp:159] Memory required for data: 2056080
I0501 06:02:42.962015 31576 layer_factory.hpp:77] Creating layer pool2
I0501 06:02:42.962023 31576 net.cpp:94] Creating Layer pool2
I0501 06:02:42.962033 31576 net.cpp:435] pool2 <- conv2
I0501 06:02:42.962038 31576 net.cpp:409] pool2 -> pool2
I0501 06:02:42.962082 31576 net.cpp:144] Setting up pool2
I0501 06:02:42.962090 31576 net.cpp:151] Top shape: 20 64 5 5 (32000)
I0501 06:02:42.962093 31576 net.cpp:159] Memory required for data: 2184080
I0501 06:02:42.962097 31576 layer_factory.hpp:77] Creating layer conv3
I0501 06:02:42.962105 31576 net.cpp:94] Creating Layer conv3
I0501 06:02:42.962108 31576 net.cpp:435] conv3 <- pool2
I0501 06:02:42.962113 31576 net.cpp:409] conv3 -> conv3
I0501 06:02:42.970283 31576 net.cpp:144] Setting up conv3
I0501 06:02:42.970296 31576 net.cpp:151] Top shape: 20 128 5 5 (64000)
I0501 06:02:42.970300 31576 net.cpp:159] Memory required for data: 2440080
I0501 06:02:42.970309 31576 layer_factory.hpp:77] Creating layer relu3
I0501 06:02:42.970314 31576 net.cpp:94] Creating Layer relu3
I0501 06:02:42.970319 31576 net.cpp:435] relu3 <- conv3
I0501 06:02:42.970324 31576 net.cpp:396] relu3 -> conv3 (in-place)
I0501 06:02:42.970330 31576 net.cpp:144] Setting up relu3
I0501 06:02:42.970335 31576 net.cpp:151] Top shape: 20 128 5 5 (64000)
I0501 06:02:42.970338 31576 net.cpp:159] Memory required for data: 2696080
I0501 06:02:42.970341 31576 layer_factory.hpp:77] Creating layer conv4
I0501 06:02:42.970350 31576 net.cpp:94] Creating Layer conv4
I0501 06:02:42.970353 31576 net.cpp:435] conv4 <- conv3
I0501 06:02:42.970358 31576 net.cpp:409] conv4 -> conv4
I0501 06:02:42.985257 31576 net.cpp:144] Setting up conv4
I0501 06:02:42.985272 31576 net.cpp:151] Top shape: 20 128 5 5 (64000)
I0501 06:02:42.985276 31576 net.cpp:159] Memory required for data: 2952080
I0501 06:02:42.985283 31576 layer_factory.hpp:77] Creating layer relu4
I0501 06:02:42.985288 31576 net.cpp:94] Creating Layer relu4
I0501 06:02:42.985292 31576 net.cpp:435] relu4 <- conv4
I0501 06:02:42.985297 31576 net.cpp:396] relu4 -> conv4 (in-place)
I0501 06:02:42.985306 31576 net.cpp:144] Setting up relu4
I0501 06:02:42.985309 31576 net.cpp:151] Top shape: 20 128 5 5 (64000)
I0501 06:02:42.985312 31576 net.cpp:159] Memory required for data: 3208080
I0501 06:02:42.985316 31576 layer_factory.hpp:77] Creating layer conv5
I0501 06:02:42.985323 31576 net.cpp:94] Creating Layer conv5
I0501 06:02:42.985327 31576 net.cpp:435] conv5 <- conv4
I0501 06:02:42.985332 31576 net.cpp:409] conv5 -> conv5
I0501 06:02:42.999878 31576 net.cpp:144] Setting up conv5
I0501 06:02:42.999892 31576 net.cpp:151] Top shape: 20 128 5 5 (64000)
I0501 06:02:42.999897 31576 net.cpp:159] Memory required for data: 3464080
I0501 06:02:42.999905 31576 layer_factory.hpp:77] Creating layer relu5
I0501 06:02:42.999912 31576 net.cpp:94] Creating Layer relu5
I0501 06:02:42.999915 31576 net.cpp:435] relu5 <- conv5
I0501 06:02:42.999920 31576 net.cpp:396] relu5 -> conv5 (in-place)
I0501 06:02:42.999927 31576 net.cpp:144] Setting up relu5
I0501 06:02:42.999933 31576 net.cpp:151] Top shape: 20 128 5 5 (64000)
I0501 06:02:42.999935 31576 net.cpp:159] Memory required for data: 3720080
I0501 06:02:42.999938 31576 layer_factory.hpp:77] Creating layer pool5
I0501 06:02:42.999944 31576 net.cpp:94] Creating Layer pool5
I0501 06:02:42.999948 31576 net.cpp:435] pool5 <- conv5
I0501 06:02:42.999953 31576 net.cpp:409] pool5 -> pool5
I0501 06:02:42.999986 31576 net.cpp:144] Setting up pool5
I0501 06:02:42.999994 31576 net.cpp:151] Top shape: 20 128 2 2 (10240)
I0501 06:02:42.999997 31576 net.cpp:159] Memory required for data: 3761040
I0501 06:02:43.000000 31576 layer_factory.hpp:77] Creating layer ip1
I0501 06:02:43.000010 31576 net.cpp:94] Creating Layer ip1
I0501 06:02:43.000015 31576 net.cpp:435] ip1 <- pool5
I0501 06:02:43.000020 31576 net.cpp:409] ip1 -> ip1
I0501 06:02:43.014355 31576 net.cpp:144] Setting up ip1
I0501 06:02:43.014371 31576 net.cpp:151] Top shape: 20 1024 (20480)
I0501 06:02:43.014375 31576 net.cpp:159] Memory required for data: 3842960
I0501 06:02:43.014381 31576 layer_factory.hpp:77] Creating layer ip2
I0501 06:02:43.014389 31576 net.cpp:94] Creating Layer ip2
I0501 06:02:43.014392 31576 net.cpp:435] ip2 <- ip1
I0501 06:02:43.014402 31576 net.cpp:409] ip2 -> ip2
I0501 06:02:43.027856 31576 net.cpp:144] Setting up ip2
I0501 06:02:43.027870 31576 net.cpp:151] Top shape: 20 512 (10240)
I0501 06:02:43.027874 31576 net.cpp:159] Memory required for data: 3883920
I0501 06:02:43.027880 31576 layer_factory.hpp:77] Creating layer ip3
I0501 06:02:43.027887 31576 net.cpp:94] Creating Layer ip3
I0501 06:02:43.027891 31576 net.cpp:435] ip3 <- ip2
I0501 06:02:43.027896 31576 net.cpp:409] ip3 -> ip3
I0501 06:02:43.027973 31576 net.cpp:144] Setting up ip3
I0501 06:02:43.027981 31576 net.cpp:151] Top shape: 20 1 (20)
I0501 06:02:43.027993 31576 net.cpp:159] Memory required for data: 3884000
I0501 06:02:43.027999 31576 layer_factory.hpp:77] Creating layer loss
I0501 06:02:43.028007 31576 net.cpp:94] Creating Layer loss
I0501 06:02:43.028010 31576 net.cpp:435] loss <- ip3
I0501 06:02:43.028014 31576 net.cpp:435] loss <- label
I0501 06:02:43.028020 31576 net.cpp:409] loss -> loss
I0501 06:02:43.028057 31576 net.cpp:144] Setting up loss
…
