…
I0501 02:12:58.745007 29582 net.cpp:323] The NetState phase (0) differed from the phase (1) specified by a rule in layer intercept
I0501 02:12:58.745023 29582 net.cpp:323] The NetState phase (0) differed from the phase (1) specified by a rule in layer loss
I0501 02:12:58.745100 29582 net.cpp:52] Initializing net from parameters: 
state {
  phase: TRAIN
}
layer {
  name: "parameters"
  type: "HDF5Data"
  top: "data"
  top: "label"
  include {
    phase: TRAIN
  }
  hdf5_data_param {
    source: "/home/purduethu/scratch/radon/d/deng106/CNNStatisticalModel/distributions/input/50_distributions_900_sample_size_train-parameters-path.txt"
    batch_size: 20
  }
}
layer {
  name: "conv1"
  type: "Convolution"
  bottom: "data"
  top: "conv1"
  param {
    lr_mult: 1
  }
  param {
    lr_mult: 2
  }
  convolution_param {
    num_output: 64
    pad: 2
    kernel_size: 5
    stride: 1
    weight_filler {
      type: "gaussian"
      std: 0.0001
    }
    bias_filler {
      type: "constant"
    }
  }
}
layer {
  name: "relu1"
  type: "ReLU"
  bottom: "conv1"
  top: "conv1"
}
layer {
  name: "conv2"
  type: "Convolution"
  bottom: "conv1"
  top: "conv2"
  param {
    lr_mult: 1
  }
  param {
    lr_mult: 2
  }
  convolution_param {
    num_output: 64
    pad: 2
    kernel_size: 5
    stride: 1
    weight_filler {
      type: "gaussian"
      std: 0.01
    }
    bias_filler {
      type: "constant"
    }
  }
}
layer {
  name: "relu2"
  type: "ReLU"
  bottom: "conv2"
  top: "conv2"
}
layer {
  name: "pool2"
  type: "Pooling"
  bottom: "conv2"
  top: "pool2"
  pooling_param {
    pool: MAX
    kernel_size: 3
    stride: 2
  }
}
layer {
  name: "conv3"
  type: "Convolution"
  bottom: "pool2"
  top: "conv3"
  param {
    lr_mult: 1
  }
  param {
    lr_mult: 2
  }
  convolution_param {
    num_output: 128
    pad: 2
    kernel_size: 5
    stride: 1
    weight_filler {
      type: "gaussian"
      std: 0.01
    }
    bias_filler {
      type: "constant"
    }
  }
}
layer {
  name: "relu3"
  type: "ReLU"
  bottom: "conv3"
  top: "conv3"
}
layer {
  name: "conv4"
  type: "Convolution"
  bottom: "conv3"
  top: "conv4"
  param {
    lr_mult: 1
  }
  param {
    lr_mult: 2
  }
  convolution_param {
    num_output: 128
    pad: 2
    kernel_size: 5
    stride: 1
    weight_filler {
      type: "gaussian"
      std: 0.01
    }
    bias_filler {
      type: "constant"
    }
  }
}
layer {
  name: "relu4"
  type: "ReLU"
  bottom: "conv4"
  top: "conv4"
}
layer {
  name: "conv5"
  type: "Convolution"
  bottom: "conv4"
  top: "conv5"
  param {
    lr_mult: 1
  }
  param {
    lr_mult: 2
  }
  convolution_param {
    num_output: 128
    pad: 2
    kernel_size: 5
    stride: 1
    weight_filler {
      type: "gaussian"
      std: 0.01
    }
    bias_filler {
      type: "constant"
    }
  }
}
layer {
  name: "relu5"
  type: "ReLU"
  bottom: "conv5"
  top: "conv5"
}
layer {
  name: "pool5"
  type: "Pooling"
  bottom: "conv5"
  top: "pool5"
  pooling_param {
    pool: AVE
    kernel_size: 3
    stride: 2
  }
}
layer {
  name: "ip1"
  type: "InnerProduct"
  bottom: "pool5"
  top: "ip1"
  param {
    lr_mult: 1
  }
  param {
    lr_mult: 2
  }
  inner_product_param {
    num_output: 1024
    weight_filler {
      type: "gaussian"
      std: 0.1
    }
    bias_filler {
      type: "constant"
    }
  }
}
layer {
  name: "ip2"
  type: "InnerProduct"
  bottom: "ip1"
  top: "ip2"
  param {
    lr_mult: 1
  }
  param {
    lr_mult: 2
  }
  inner_product_param {
    num_output: 512
    weight_filler {
      type: "gaussian"
      std: 0.1
    }
    bias_filler {
      type: "constant"
    }
  }
}
layer {
  name: "ip3"
  type: "InnerProduct"
  bottom: "ip2"
  top: "ip3"
  param {
    lr_mult: 1
  }
  param {
    lr_mult: 2
  }
  inner_product_param {
    num_output: 1
    weight_filler {
      type: "gaussian"
      std: 0.1
    }
    bias_filler {
      type: "constant"
    }
  }
}
layer {
  name: "loss"
  type: "HuberLoss"
  bottom: "ip3"
  bottom: "label"
  top: "loss"
  include {
    phase: TRAIN
  }
}
I0501 02:12:58.745152 29582 layer_factory.hpp:77] Creating layer parameters
I0501 02:12:58.745165 29582 net.cpp:94] Creating Layer parameters
I0501 02:12:58.745170 29582 net.cpp:409] parameters -> data
I0501 02:12:58.745180 29582 net.cpp:409] parameters -> label
I0501 02:12:58.745187 29582 hdf5_data_layer.cpp:79] Loading list of HDF5 filenames from: /home/purduethu/scratch/radon/d/deng106/CNNStatisticalModel/distributions/input/50_distributions_900_sample_size_train-parameters-path.txt
I0501 02:12:58.745201 29582 hdf5_data_layer.cpp:93] Number of HDF5 files: 1
I0501 02:12:58.745741 29582 hdf5.cpp:32] Datatype class: H5T_FLOAT
I0501 02:13:00.211894 29582 net.cpp:144] Setting up parameters
I0501 02:13:00.211931 29582 net.cpp:151] Top shape: 20 1 30 30 (18000)
I0501 02:13:00.211940 29582 net.cpp:151] Top shape: 20 (20)
I0501 02:13:00.211943 29582 net.cpp:159] Memory required for data: 72080
I0501 02:13:00.211951 29582 layer_factory.hpp:77] Creating layer conv1
I0501 02:13:00.211973 29582 net.cpp:94] Creating Layer conv1
I0501 02:13:00.211978 29582 net.cpp:435] conv1 <- data
I0501 02:13:00.211984 29582 net.cpp:409] conv1 -> conv1
I0501 02:13:00.218667 29582 net.cpp:144] Setting up conv1
I0501 02:13:00.218684 29582 net.cpp:151] Top shape: 20 64 30 30 (1152000)
I0501 02:13:00.218688 29582 net.cpp:159] Memory required for data: 4680080
I0501 02:13:00.218698 29582 layer_factory.hpp:77] Creating layer relu1
I0501 02:13:00.218708 29582 net.cpp:94] Creating Layer relu1
I0501 02:13:00.218711 29582 net.cpp:435] relu1 <- conv1
I0501 02:13:00.218716 29582 net.cpp:396] relu1 -> conv1 (in-place)
I0501 02:13:00.218731 29582 net.cpp:144] Setting up relu1
I0501 02:13:00.218736 29582 net.cpp:151] Top shape: 20 64 30 30 (1152000)
I0501 02:13:00.218739 29582 net.cpp:159] Memory required for data: 9288080
I0501 02:13:00.218742 29582 layer_factory.hpp:77] Creating layer conv2
I0501 02:13:00.218750 29582 net.cpp:94] Creating Layer conv2
I0501 02:13:00.218753 29582 net.cpp:435] conv2 <- conv1
I0501 02:13:00.218758 29582 net.cpp:409] conv2 -> conv2
I0501 02:13:00.235412 29582 net.cpp:144] Setting up conv2
I0501 02:13:00.235429 29582 net.cpp:151] Top shape: 20 64 30 30 (1152000)
I0501 02:13:00.235432 29582 net.cpp:159] Memory required for data: 13896080
I0501 02:13:00.235440 29582 layer_factory.hpp:77] Creating layer relu2
I0501 02:13:00.235447 29582 net.cpp:94] Creating Layer relu2
I0501 02:13:00.235451 29582 net.cpp:435] relu2 <- conv2
I0501 02:13:00.235455 29582 net.cpp:396] relu2 -> conv2 (in-place)
I0501 02:13:00.235462 29582 net.cpp:144] Setting up relu2
I0501 02:13:00.235466 29582 net.cpp:151] Top shape: 20 64 30 30 (1152000)
I0501 02:13:00.235469 29582 net.cpp:159] Memory required for data: 18504080
I0501 02:13:00.235472 29582 layer_factory.hpp:77] Creating layer pool2
I0501 02:13:00.235483 29582 net.cpp:94] Creating Layer pool2
I0501 02:13:00.235487 29582 net.cpp:435] pool2 <- conv2
I0501 02:13:00.235491 29582 net.cpp:409] pool2 -> pool2
I0501 02:13:00.235549 29582 net.cpp:144] Setting up pool2
I0501 02:13:00.235558 29582 net.cpp:151] Top shape: 20 64 15 15 (288000)
I0501 02:13:00.235560 29582 net.cpp:159] Memory required for data: 19656080
I0501 02:13:00.235563 29582 layer_factory.hpp:77] Creating layer conv3
I0501 02:13:00.235571 29582 net.cpp:94] Creating Layer conv3
I0501 02:13:00.235575 29582 net.cpp:435] conv3 <- pool2
I0501 02:13:00.235579 29582 net.cpp:409] conv3 -> conv3
I0501 02:13:00.248592 29582 net.cpp:144] Setting up conv3
I0501 02:13:00.248607 29582 net.cpp:151] Top shape: 20 128 15 15 (576000)
I0501 02:13:00.248611 29582 net.cpp:159] Memory required for data: 21960080
I0501 02:13:00.248620 29582 layer_factory.hpp:77] Creating layer relu3
I0501 02:13:00.248626 29582 net.cpp:94] Creating Layer relu3
I0501 02:13:00.248630 29582 net.cpp:435] relu3 <- conv3
I0501 02:13:00.248634 29582 net.cpp:396] relu3 -> conv3 (in-place)
I0501 02:13:00.248641 29582 net.cpp:144] Setting up relu3
I0501 02:13:00.248646 29582 net.cpp:151] Top shape: 20 128 15 15 (576000)
I0501 02:13:00.248648 29582 net.cpp:159] Memory required for data: 24264080
I0501 02:13:00.248651 29582 layer_factory.hpp:77] Creating layer conv4
I0501 02:13:00.248661 29582 net.cpp:94] Creating Layer conv4
I0501 02:13:00.248663 29582 net.cpp:435] conv4 <- conv3
I0501 02:13:00.248668 29582 net.cpp:409] conv4 -> conv4
I0501 02:13:00.271634 29582 net.cpp:144] Setting up conv4
I0501 02:13:00.271657 29582 net.cpp:151] Top shape: 20 128 15 15 (576000)
I0501 02:13:00.271664 29582 net.cpp:159] Memory required for data: 26568080
I0501 02:13:00.271674 29582 layer_factory.hpp:77] Creating layer relu4
I0501 02:13:00.271683 29582 net.cpp:94] Creating Layer relu4
I0501 02:13:00.271689 29582 net.cpp:435] relu4 <- conv4
I0501 02:13:00.271697 29582 net.cpp:396] relu4 -> conv4 (in-place)
I0501 02:13:00.271708 29582 net.cpp:144] Setting up relu4
I0501 02:13:00.271715 29582 net.cpp:151] Top shape: 20 128 15 15 (576000)
I0501 02:13:00.271720 29582 net.cpp:159] Memory required for data: 28872080
I0501 02:13:00.271724 29582 layer_factory.hpp:77] Creating layer conv5
I0501 02:13:00.271736 29582 net.cpp:94] Creating Layer conv5
I0501 02:13:00.271742 29582 net.cpp:435] conv5 <- conv4
I0501 02:13:00.271750 29582 net.cpp:409] conv5 -> conv5
I0501 02:13:00.294097 29582 net.cpp:144] Setting up conv5
I0501 02:13:00.294112 29582 net.cpp:151] Top shape: 20 128 15 15 (576000)
I0501 02:13:00.294116 29582 net.cpp:159] Memory required for data: 31176080
I0501 02:13:00.294124 29582 layer_factory.hpp:77] Creating layer relu5
I0501 02:13:00.294131 29582 net.cpp:94] Creating Layer relu5
I0501 02:13:00.294134 29582 net.cpp:435] relu5 <- conv5
I0501 02:13:00.294138 29582 net.cpp:396] relu5 -> conv5 (in-place)
I0501 02:13:00.294145 29582 net.cpp:144] Setting up relu5
I0501 02:13:00.294149 29582 net.cpp:151] Top shape: 20 128 15 15 (576000)
I0501 02:13:00.294152 29582 net.cpp:159] Memory required for data: 33480080
I0501 02:13:00.294155 29582 layer_factory.hpp:77] Creating layer pool5
I0501 02:13:00.294160 29582 net.cpp:94] Creating Layer pool5
I0501 02:13:00.294163 29582 net.cpp:435] pool5 <- conv5
I0501 02:13:00.294167 29582 net.cpp:409] pool5 -> pool5
I0501 02:13:00.294212 29582 net.cpp:144] Setting up pool5
I0501 02:13:00.294220 29582 net.cpp:151] Top shape: 20 128 7 7 (125440)
I0501 02:13:00.294224 29582 net.cpp:159] Memory required for data: 33981840
I0501 02:13:00.294226 29582 layer_factory.hpp:77] Creating layer ip1
I0501 02:13:00.294236 29582 net.cpp:94] Creating Layer ip1
I0501 02:13:00.294239 29582 net.cpp:435] ip1 <- pool5
I0501 02:13:00.294245 29582 net.cpp:409] ip1 -> ip1
I0501 02:13:00.453152 29582 net.cpp:144] Setting up ip1
I0501 02:13:00.453183 29582 net.cpp:151] Top shape: 20 1024 (20480)
I0501 02:13:00.453187 29582 net.cpp:159] Memory required for data: 34063760
I0501 02:13:00.453197 29582 layer_factory.hpp:77] Creating layer ip2
I0501 02:13:00.453207 29582 net.cpp:94] Creating Layer ip2
I0501 02:13:00.453222 29582 net.cpp:435] ip2 <- ip1
I0501 02:13:00.453228 29582 net.cpp:409] ip2 -> ip2
I0501 02:13:00.466676 29582 net.cpp:144] Setting up ip2
I0501 02:13:00.466691 29582 net.cpp:151] Top shape: 20 512 (10240)
I0501 02:13:00.466694 29582 net.cpp:159] Memory required for data: 34104720
I0501 02:13:00.466701 29582 layer_factory.hpp:77] Creating layer ip3
I0501 02:13:00.466708 29582 net.cpp:94] Creating Layer ip3
I0501 02:13:00.466711 29582 net.cpp:435] ip3 <- ip2
I0501 02:13:00.466717 29582 net.cpp:409] ip3 -> ip3
I0501 02:13:00.466840 29582 net.cpp:144] Setting up ip3
I0501 02:13:00.466847 29582 net.cpp:151] Top shape: 20 1 (20)
I0501 02:13:00.466850 29582 net.cpp:159] Memory required for data: 34104800
I0501 02:13:00.466856 29582 layer_factory.hpp:77] Creating layer loss
I0501 02:13:00.466863 29582 net.cpp:94] Creating Layer loss
I0501 02:13:00.466867 29582 net.cpp:435] loss <- ip3
I0501 02:13:00.466871 29582 net.cpp:435] loss <- label
I0501 02:13:00.466876 29582 net.cpp:409] loss -> loss
I0501 02:13:00.466928 29582 net.cpp:144] Setting up loss
…
I0501 02:13:01.053541 29582 net.cpp:323] The NetState phase (0) differed from the phase (1) specified by a rule in layer intercept
I0501 02:13:01.053555 29582 net.cpp:323] The NetState phase (0) differed from the phase (1) specified by a rule in layer accuracy
I0501 02:13:01.053639 29582 net.cpp:52] Initializing net from parameters: 
state {
  phase: TRAIN
}
layer {
  name: "parameters"
  type: "HDF5Data"
  top: "data"
  top: "label"
  include {
    phase: TRAIN
  }
  hdf5_data_param {
    source: "/home/purduethu/scratch/radon/d/deng106/CNNStatisticalModel/distributions/input/50_distributions_900_sample_size_train-distributions-path.txt"
    batch_size: 20
  }
}
layer {
  name: "conv1"
  type: "Convolution"
  bottom: "data"
  top: "conv1"
  param {
    lr_mult: 1
  }
  param {
    lr_mult: 2
  }
  convolution_param {
    num_output: 64
    pad: 2
    kernel_size: 5
    stride: 1
    weight_filler {
      type: "gaussian"
      std: 0.0001
    }
    bias_filler {
      type: "constant"
    }
  }
}
layer {
  name: "relu1"
  type: "ReLU"
  bottom: "conv1"
  top: "conv1"
}
layer {
  name: "conv2"
  type: "Convolution"
  bottom: "conv1"
  top: "conv2"
  param {
    lr_mult: 1
  }
  param {
    lr_mult: 2
  }
  convolution_param {
    num_output: 64
    pad: 2
    kernel_size: 5
    stride: 1
    weight_filler {
      type: "gaussian"
      std: 0.01
    }
    bias_filler {
      type: "constant"
    }
  }
}
layer {
  name: "relu2"
  type: "ReLU"
  bottom: "conv2"
  top: "conv2"
}
layer {
  name: "pool2"
  type: "Pooling"
  bottom: "conv2"
  top: "pool2"
  pooling_param {
    pool: MAX
    kernel_size: 3
    stride: 2
  }
}
layer {
  name: "conv3"
  type: "Convolution"
  bottom: "pool2"
  top: "conv3"
  param {
    lr_mult: 1
  }
  param {
    lr_mult: 2
  }
  convolution_param {
    num_output: 128
    pad: 2
    kernel_size: 5
    stride: 1
    weight_filler {
      type: "gaussian"
      std: 0.01
    }
    bias_filler {
      type: "constant"
    }
  }
}
layer {
  name: "relu3"
  type: "ReLU"
  bottom: "conv3"
  top: "conv3"
}
layer {
  name: "conv4"
  type: "Convolution"
  bottom: "conv3"
  top: "conv4"
  param {
    lr_mult: 1
  }
  param {
    lr_mult: 2
  }
  convolution_param {
    num_output: 128
    pad: 2
    kernel_size: 5
    stride: 1
    weight_filler {
      type: "gaussian"
      std: 0.01
    }
    bias_filler {
      type: "constant"
    }
  }
}
layer {
  name: "relu4"
  type: "ReLU"
  bottom: "conv4"
  top: "conv4"
}
layer {
  name: "conv5"
  type: "Convolution"
  bottom: "conv4"
  top: "conv5"
  param {
    lr_mult: 1
  }
  param {
    lr_mult: 2
  }
  convolution_param {
    num_output: 128
    pad: 2
    kernel_size: 5
    stride: 1
    weight_filler {
      type: "gaussian"
      std: 0.01
    }
    bias_filler {
      type: "constant"
    }
  }
}
layer {
  name: "relu5"
  type: "ReLU"
  bottom: "conv5"
  top: "conv5"
}
layer {
  name: "pool5"
  type: "Pooling"
  bottom: "conv5"
  top: "pool5"
  pooling_param {
    pool: AVE
    kernel_size: 3
    stride: 2
  }
}
layer {
  name: "ip1"
  type: "InnerProduct"
  bottom: "pool5"
  top: "ip1"
  param {
    lr_mult: 1
  }
  param {
    lr_mult: 2
  }
  inner_product_param {
    num_output: 1024
    weight_filler {
      type: "gaussian"
      std: 0.1
    }
    bias_filler {
      type: "constant"
    }
  }
}
layer {
  name: "ip2"
  type: "InnerProduct"
  bottom: "ip1"
  top: "ip2"
  param {
    lr_mult: 1
  }
  param {
    lr_mult: 2
  }
  inner_product_param {
    num_output: 512
    weight_filler {
      type: "gaussian"
      std: 0.1
    }
    bias_filler {
      type: "constant"
    }
  }
}
layer {
  name: "ip3"
  type: "InnerProduct"
  bottom: "ip2"
  top: "ip3"
  param {
    lr_mult: 1
  }
  param {
    lr_mult: 2
  }
  inner_product_param {
    num_output: 50
    weight_filler {
      type: "gaussian"
      std: 0.1
    }
    bias_filler {
      type: "constant"
    }
  }
}
layer {
  name: "loss"
  type: "SoftmaxWithLoss"
  bottom: "ip3"
  bottom: "label"
  top: "loss"
}
I0501 02:13:01.053694 29582 layer_factory.hpp:77] Creating layer parameters
I0501 02:13:01.053701 29582 net.cpp:94] Creating Layer parameters
I0501 02:13:01.053705 29582 net.cpp:409] parameters -> data
I0501 02:13:01.053712 29582 net.cpp:409] parameters -> label
I0501 02:13:01.053717 29582 hdf5_data_layer.cpp:79] Loading list of HDF5 filenames from: /home/purduethu/scratch/radon/d/deng106/CNNStatisticalModel/distributions/input/50_distributions_900_sample_size_train-distributions-path.txt
I0501 02:13:01.053735 29582 hdf5_data_layer.cpp:93] Number of HDF5 files: 1
I0501 02:13:02.492580 29582 hdf5.cpp:35] Datatype class: H5T_INTEGER
I0501 02:13:02.495637 29582 net.cpp:144] Setting up parameters
I0501 02:13:02.495654 29582 net.cpp:151] Top shape: 20 1 30 30 (18000)
I0501 02:13:02.495659 29582 net.cpp:151] Top shape: 20 (20)
I0501 02:13:02.495662 29582 net.cpp:159] Memory required for data: 72080
I0501 02:13:02.495669 29582 layer_factory.hpp:77] Creating layer conv1
I0501 02:13:02.495685 29582 net.cpp:94] Creating Layer conv1
I0501 02:13:02.495689 29582 net.cpp:435] conv1 <- data
I0501 02:13:02.495695 29582 net.cpp:409] conv1 -> conv1
I0501 02:13:02.499256 29582 net.cpp:144] Setting up conv1
I0501 02:13:02.499270 29582 net.cpp:151] Top shape: 20 64 30 30 (1152000)
I0501 02:13:02.499274 29582 net.cpp:159] Memory required for data: 4680080
I0501 02:13:02.499284 29582 layer_factory.hpp:77] Creating layer relu1
I0501 02:13:02.499291 29582 net.cpp:94] Creating Layer relu1
I0501 02:13:02.499295 29582 net.cpp:435] relu1 <- conv1
I0501 02:13:02.499300 29582 net.cpp:396] relu1 -> conv1 (in-place)
I0501 02:13:02.499306 29582 net.cpp:144] Setting up relu1
I0501 02:13:02.499311 29582 net.cpp:151] Top shape: 20 64 30 30 (1152000)
I0501 02:13:02.499313 29582 net.cpp:159] Memory required for data: 9288080
I0501 02:13:02.499316 29582 layer_factory.hpp:77] Creating layer conv2
I0501 02:13:02.499325 29582 net.cpp:94] Creating Layer conv2
I0501 02:13:02.499327 29582 net.cpp:435] conv2 <- conv1
I0501 02:13:02.499332 29582 net.cpp:409] conv2 -> conv2
I0501 02:13:02.515774 29582 net.cpp:144] Setting up conv2
I0501 02:13:02.515812 29582 net.cpp:151] Top shape: 20 64 30 30 (1152000)
I0501 02:13:02.515823 29582 net.cpp:159] Memory required for data: 13896080
I0501 02:13:02.515846 29582 layer_factory.hpp:77] Creating layer relu2
I0501 02:13:02.515863 29582 net.cpp:94] Creating Layer relu2
I0501 02:13:02.515873 29582 net.cpp:435] relu2 <- conv2
I0501 02:13:02.515885 29582 net.cpp:396] relu2 -> conv2 (in-place)
I0501 02:13:02.515904 29582 net.cpp:144] Setting up relu2
I0501 02:13:02.515918 29582 net.cpp:151] Top shape: 20 64 30 30 (1152000)
I0501 02:13:02.515925 29582 net.cpp:159] Memory required for data: 18504080
I0501 02:13:02.515933 29582 layer_factory.hpp:77] Creating layer pool2
I0501 02:13:02.515947 29582 net.cpp:94] Creating Layer pool2
I0501 02:13:02.515964 29582 net.cpp:435] pool2 <- conv2
I0501 02:13:02.515969 29582 net.cpp:409] pool2 -> pool2
I0501 02:13:02.516028 29582 net.cpp:144] Setting up pool2
I0501 02:13:02.516036 29582 net.cpp:151] Top shape: 20 64 15 15 (288000)
I0501 02:13:02.516039 29582 net.cpp:159] Memory required for data: 19656080
I0501 02:13:02.516042 29582 layer_factory.hpp:77] Creating layer conv3
I0501 02:13:02.516050 29582 net.cpp:94] Creating Layer conv3
I0501 02:13:02.516059 29582 net.cpp:435] conv3 <- pool2
I0501 02:13:02.516065 29582 net.cpp:409] conv3 -> conv3
I0501 02:13:02.530284 29582 net.cpp:144] Setting up conv3
I0501 02:13:02.530323 29582 net.cpp:151] Top shape: 20 128 15 15 (576000)
I0501 02:13:02.530333 29582 net.cpp:159] Memory required for data: 21960080
I0501 02:13:02.530355 29582 layer_factory.hpp:77] Creating layer relu3
I0501 02:13:02.530370 29582 net.cpp:94] Creating Layer relu3
I0501 02:13:02.530380 29582 net.cpp:435] relu3 <- conv3
I0501 02:13:02.530393 29582 net.cpp:396] relu3 -> conv3 (in-place)
I0501 02:13:02.530412 29582 net.cpp:144] Setting up relu3
I0501 02:13:02.530424 29582 net.cpp:151] Top shape: 20 128 15 15 (576000)
I0501 02:13:02.530433 29582 net.cpp:159] Memory required for data: 24264080
I0501 02:13:02.530441 29582 layer_factory.hpp:77] Creating layer conv4
I0501 02:13:02.530463 29582 net.cpp:94] Creating Layer conv4
I0501 02:13:02.530473 29582 net.cpp:435] conv4 <- conv3
I0501 02:13:02.530488 29582 net.cpp:409] conv4 -> conv4
I0501 02:13:02.554673 29582 net.cpp:144] Setting up conv4
I0501 02:13:02.554689 29582 net.cpp:151] Top shape: 20 128 15 15 (576000)
I0501 02:13:02.554693 29582 net.cpp:159] Memory required for data: 26568080
I0501 02:13:02.554700 29582 layer_factory.hpp:77] Creating layer relu4
I0501 02:13:02.554707 29582 net.cpp:94] Creating Layer relu4
I0501 02:13:02.554710 29582 net.cpp:435] relu4 <- conv4
I0501 02:13:02.554715 29582 net.cpp:396] relu4 -> conv4 (in-place)
I0501 02:13:02.554723 29582 net.cpp:144] Setting up relu4
I0501 02:13:02.554728 29582 net.cpp:151] Top shape: 20 128 15 15 (576000)
I0501 02:13:02.554730 29582 net.cpp:159] Memory required for data: 28872080
I0501 02:13:02.554733 29582 layer_factory.hpp:77] Creating layer conv5
I0501 02:13:02.554741 29582 net.cpp:94] Creating Layer conv5
I0501 02:13:02.554745 29582 net.cpp:435] conv5 <- conv4
I0501 02:13:02.554749 29582 net.cpp:409] conv5 -> conv5
I0501 02:13:02.578416 29582 net.cpp:144] Setting up conv5
I0501 02:13:02.578454 29582 net.cpp:151] Top shape: 20 128 15 15 (576000)
I0501 02:13:02.578465 29582 net.cpp:159] Memory required for data: 31176080
I0501 02:13:02.578488 29582 layer_factory.hpp:77] Creating layer relu5
I0501 02:13:02.578505 29582 net.cpp:94] Creating Layer relu5
I0501 02:13:02.578514 29582 net.cpp:435] relu5 <- conv5
I0501 02:13:02.578526 29582 net.cpp:396] relu5 -> conv5 (in-place)
I0501 02:13:02.578546 29582 net.cpp:144] Setting up relu5
I0501 02:13:02.578557 29582 net.cpp:151] Top shape: 20 128 15 15 (576000)
I0501 02:13:02.578567 29582 net.cpp:159] Memory required for data: 33480080
I0501 02:13:02.578574 29582 layer_factory.hpp:77] Creating layer pool5
I0501 02:13:02.578588 29582 net.cpp:94] Creating Layer pool5
I0501 02:13:02.578596 29582 net.cpp:435] pool5 <- conv5
I0501 02:13:02.578608 29582 net.cpp:409] pool5 -> pool5
I0501 02:13:02.578691 29582 net.cpp:144] Setting up pool5
I0501 02:13:02.578698 29582 net.cpp:151] Top shape: 20 128 7 7 (125440)
I0501 02:13:02.578702 29582 net.cpp:159] Memory required for data: 33981840
I0501 02:13:02.578706 29582 layer_factory.hpp:77] Creating layer ip1
I0501 02:13:02.578712 29582 net.cpp:94] Creating Layer ip1
I0501 02:13:02.578716 29582 net.cpp:435] ip1 <- pool5
I0501 02:13:02.578721 29582 net.cpp:409] ip1 -> ip1
I0501 02:13:02.736440 29582 net.cpp:144] Setting up ip1
I0501 02:13:02.736469 29582 net.cpp:151] Top shape: 20 1024 (20480)
I0501 02:13:02.736474 29582 net.cpp:159] Memory required for data: 34063760
I0501 02:13:02.736482 29582 layer_factory.hpp:77] Creating layer ip2
I0501 02:13:02.736493 29582 net.cpp:94] Creating Layer ip2
I0501 02:13:02.736498 29582 net.cpp:435] ip2 <- ip1
I0501 02:13:02.736505 29582 net.cpp:409] ip2 -> ip2
I0501 02:13:02.749843 29582 net.cpp:144] Setting up ip2
I0501 02:13:02.749856 29582 net.cpp:151] Top shape: 20 512 (10240)
I0501 02:13:02.749861 29582 net.cpp:159] Memory required for data: 34104720
I0501 02:13:02.749866 29582 layer_factory.hpp:77] Creating layer ip3
I0501 02:13:02.749873 29582 net.cpp:94] Creating Layer ip3
I0501 02:13:02.749876 29582 net.cpp:435] ip3 <- ip2
I0501 02:13:02.749887 29582 net.cpp:409] ip3 -> ip3
I0501 02:13:02.751485 29582 net.cpp:144] Setting up ip3
I0501 02:13:02.751498 29582 net.cpp:151] Top shape: 20 50 (1000)
I0501 02:13:02.751502 29582 net.cpp:159] Memory required for data: 34108720
I0501 02:13:02.751507 29582 layer_factory.hpp:77] Creating layer loss
I0501 02:13:02.751516 29582 net.cpp:94] Creating Layer loss
I0501 02:13:02.751520 29582 net.cpp:435] loss <- ip3
I0501 02:13:02.751524 29582 net.cpp:435] loss <- label
I0501 02:13:02.751528 29582 net.cpp:409] loss -> loss
I0501 02:13:02.751535 29582 layer_factory.hpp:77] Creating layer loss
…
I0501 02:13:02.752053 29582 solver.cpp:181] Creating test net (#0) specified by net file: ./protocol/dis_50_900_dimension.protocol_distribution
I0501 02:13:02.752079 29582 net.cpp:323] The NetState phase (1) differed from the phase (0) specified by a rule in layer parameters
I0501 02:13:02.752171 29582 net.cpp:52] Initializing net from parameters: 
state {
  phase: TEST
}
layer {
  name: "intercept"
  type: "HDF5Data"
  top: "data"
  top: "label"
  include {
    phase: TEST
  }
  hdf5_data_param {
    source: "/home/purduethu/scratch/radon/d/deng106/CNNStatisticalModel/distributions/input/50_distributions_900_sample_size_test-distributions-path.txt"
    batch_size: 20
  }
}
layer {
  name: "conv1"
  type: "Convolution"
  bottom: "data"
  top: "conv1"
  param {
    lr_mult: 1
  }
  param {
    lr_mult: 2
  }
  convolution_param {
    num_output: 64
    pad: 2
    kernel_size: 5
    stride: 1
    weight_filler {
      type: "gaussian"
      std: 0.0001
    }
    bias_filler {
      type: "constant"
    }
  }
}
layer {
  name: "relu1"
  type: "ReLU"
  bottom: "conv1"
  top: "conv1"
}
layer {
  name: "conv2"
  type: "Convolution"
  bottom: "conv1"
  top: "conv2"
  param {
    lr_mult: 1
  }
  param {
    lr_mult: 2
  }
  convolution_param {
    num_output: 64
    pad: 2
    kernel_size: 5
    stride: 1
    weight_filler {
      type: "gaussian"
      std: 0.01
    }
    bias_filler {
      type: "constant"
    }
  }
}
layer {
  name: "relu2"
  type: "ReLU"
  bottom: "conv2"
  top: "conv2"
}
layer {
  name: "pool2"
  type: "Pooling"
  bottom: "conv2"
  top: "pool2"
  pooling_param {
    pool: MAX
    kernel_size: 3
    stride: 2
  }
}
layer {
  name: "conv3"
  type: "Convolution"
  bottom: "pool2"
  top: "conv3"
  param {
    lr_mult: 1
  }
  param {
    lr_mult: 2
  }
  convolution_param {
    num_output: 128
    pad: 2
    kernel_size: 5
    stride: 1
    weight_filler {
      type: "gaussian"
      std: 0.01
    }
    bias_filler {
      type: "constant"
    }
  }
}
layer {
  name: "relu3"
  type: "ReLU"
  bottom: "conv3"
  top: "conv3"
}
layer {
  name: "conv4"
  type: "Convolution"
  bottom: "conv3"
  top: "conv4"
  param {
    lr_mult: 1
  }
  param {
    lr_mult: 2
  }
  convolution_param {
    num_output: 128
    pad: 2
    kernel_size: 5
    stride: 1
    weight_filler {
      type: "gaussian"
      std: 0.01
    }
    bias_filler {
      type: "constant"
    }
  }
}
layer {
  name: "relu4"
  type: "ReLU"
  bottom: "conv4"
  top: "conv4"
}
layer {
  name: "conv5"
  type: "Convolution"
  bottom: "conv4"
  top: "conv5"
  param {
    lr_mult: 1
  }
  param {
    lr_mult: 2
  }
  convolution_param {
    num_output: 128
    pad: 2
    kernel_size: 5
    stride: 1
    weight_filler {
      type: "gaussian"
      std: 0.01
    }
    bias_filler {
      type: "constant"
    }
  }
}
layer {
  name: "relu5"
  type: "ReLU"
  bottom: "conv5"
  top: "conv5"
}
layer {
  name: "pool5"
  type: "Pooling"
  bottom: "conv5"
  top: "pool5"
  pooling_param {
    pool: AVE
    kernel_size: 3
    stride: 2
  }
}
layer {
  name: "ip1"
  type: "InnerProduct"
  bottom: "pool5"
  top: "ip1"
  param {
    lr_mult: 1
  }
  param {
    lr_mult: 2
  }
  inner_product_param {
    num_output: 1024
    weight_filler {
      type: "gaussian"
      std: 0.1
    }
    bias_filler {
      type: "constant"
    }
  }
}
layer {
  name: "ip2"
  type: "InnerProduct"
  bottom: "ip1"
  top: "ip2"
  param {
    lr_mult: 1
  }
  param {
    lr_mult: 2
  }
  inner_product_param {
    num_output: 512
    weight_filler {
      type: "gaussian"
      std: 0.1
    }
    bias_filler {
      type: "constant"
    }
  }
}
layer {
  name: "ip3"
  type: "InnerProduct"
  bottom: "ip2"
  top: "ip3"
  param {
    lr_mult: 1
  }
  param {
    lr_mult: 2
  }
  inner_product_param {
    num_output: 50
    weight_filler {
      type: "gaussian"
      std: 0.1
    }
    bias_filler {
      type: "constant"
    }
  }
}
layer {
  name: "accuracy"
  type: "Accuracy"
  bottom: "ip3"
  bottom: "label"
  top: "accuracy"
  include {
    phase: TEST
  }
}
layer {
  name: "loss"
  type: "SoftmaxWithLoss"
  bottom: "ip3"
  bottom: "label"
  top: "loss"
}
I0501 02:13:02.752236 29582 layer_factory.hpp:77] Creating layer intercept
I0501 02:13:02.752244 29582 net.cpp:94] Creating Layer intercept
I0501 02:13:02.752249 29582 net.cpp:409] intercept -> data
I0501 02:13:02.752255 29582 net.cpp:409] intercept -> label
I0501 02:13:02.752261 29582 hdf5_data_layer.cpp:79] Loading list of HDF5 filenames from: /home/purduethu/scratch/radon/d/deng106/CNNStatisticalModel/distributions/input/50_distributions_900_sample_size_test-distributions-path.txt
I0501 02:13:02.752280 29582 hdf5_data_layer.cpp:93] Number of HDF5 files: 1
I0501 02:13:03.112164 29582 net.cpp:144] Setting up intercept
I0501 02:13:03.112197 29582 net.cpp:151] Top shape: 20 1 30 30 (18000)
I0501 02:13:03.112202 29582 net.cpp:151] Top shape: 20 (20)
I0501 02:13:03.112205 29582 net.cpp:159] Memory required for data: 72080
I0501 02:13:03.112211 29582 layer_factory.hpp:77] Creating layer label_intercept_1_split
I0501 02:13:03.112231 29582 net.cpp:94] Creating Layer label_intercept_1_split
I0501 02:13:03.112236 29582 net.cpp:435] label_intercept_1_split <- label
I0501 02:13:03.112241 29582 net.cpp:409] label_intercept_1_split -> label_intercept_1_split_0
I0501 02:13:03.112251 29582 net.cpp:409] label_intercept_1_split -> label_intercept_1_split_1
I0501 02:13:03.112298 29582 net.cpp:144] Setting up label_intercept_1_split
I0501 02:13:03.112303 29582 net.cpp:151] Top shape: 20 (20)
I0501 02:13:03.112306 29582 net.cpp:151] Top shape: 20 (20)
I0501 02:13:03.112309 29582 net.cpp:159] Memory required for data: 72240
I0501 02:13:03.112313 29582 layer_factory.hpp:77] Creating layer conv1
I0501 02:13:03.112323 29582 net.cpp:94] Creating Layer conv1
I0501 02:13:03.112326 29582 net.cpp:435] conv1 <- data
I0501 02:13:03.112330 29582 net.cpp:409] conv1 -> conv1
I0501 02:13:03.113942 29582 net.cpp:144] Setting up conv1
I0501 02:13:03.113956 29582 net.cpp:151] Top shape: 20 64 30 30 (1152000)
I0501 02:13:03.113960 29582 net.cpp:159] Memory required for data: 4680240
I0501 02:13:03.113970 29582 layer_factory.hpp:77] Creating layer relu1
I0501 02:13:03.113976 29582 net.cpp:94] Creating Layer relu1
I0501 02:13:03.113979 29582 net.cpp:435] relu1 <- conv1
I0501 02:13:03.113983 29582 net.cpp:396] relu1 -> conv1 (in-place)
I0501 02:13:03.113991 29582 net.cpp:144] Setting up relu1
I0501 02:13:03.113994 29582 net.cpp:151] Top shape: 20 64 30 30 (1152000)
I0501 02:13:03.113997 29582 net.cpp:159] Memory required for data: 9288240
I0501 02:13:03.114001 29582 layer_factory.hpp:77] Creating layer conv2
I0501 02:13:03.114012 29582 net.cpp:94] Creating Layer conv2
I0501 02:13:03.114015 29582 net.cpp:435] conv2 <- conv1
I0501 02:13:03.114019 29582 net.cpp:409] conv2 -> conv2
I0501 02:13:03.120790 29582 net.cpp:144] Setting up conv2
I0501 02:13:03.120805 29582 net.cpp:151] Top shape: 20 64 30 30 (1152000)
I0501 02:13:03.120808 29582 net.cpp:159] Memory required for data: 13896240
I0501 02:13:03.120816 29582 layer_factory.hpp:77] Creating layer relu2
I0501 02:13:03.120824 29582 net.cpp:94] Creating Layer relu2
I0501 02:13:03.120827 29582 net.cpp:435] relu2 <- conv2
I0501 02:13:03.120832 29582 net.cpp:396] relu2 -> conv2 (in-place)
I0501 02:13:03.120839 29582 net.cpp:144] Setting up relu2
I0501 02:13:03.120843 29582 net.cpp:151] Top shape: 20 64 30 30 (1152000)
I0501 02:13:03.120846 29582 net.cpp:159] Memory required for data: 18504240
I0501 02:13:03.120849 29582 layer_factory.hpp:77] Creating layer pool2
I0501 02:13:03.120857 29582 net.cpp:94] Creating Layer pool2
I0501 02:13:03.120859 29582 net.cpp:435] pool2 <- conv2
I0501 02:13:03.120863 29582 net.cpp:409] pool2 -> pool2
I0501 02:13:03.120929 29582 net.cpp:144] Setting up pool2
I0501 02:13:03.120936 29582 net.cpp:151] Top shape: 20 64 15 15 (288000)
I0501 02:13:03.120939 29582 net.cpp:159] Memory required for data: 19656240
I0501 02:13:03.120942 29582 layer_factory.hpp:77] Creating layer conv3
I0501 02:13:03.120951 29582 net.cpp:94] Creating Layer conv3
I0501 02:13:03.120954 29582 net.cpp:435] conv3 <- pool2
I0501 02:13:03.120960 29582 net.cpp:409] conv3 -> conv3
I0501 02:13:03.128607 29582 net.cpp:144] Setting up conv3
I0501 02:13:03.128621 29582 net.cpp:151] Top shape: 20 128 15 15 (576000)
I0501 02:13:03.128625 29582 net.cpp:159] Memory required for data: 21960240
I0501 02:13:03.128633 29582 layer_factory.hpp:77] Creating layer relu3
I0501 02:13:03.128641 29582 net.cpp:94] Creating Layer relu3
I0501 02:13:03.128645 29582 net.cpp:435] relu3 <- conv3
I0501 02:13:03.128650 29582 net.cpp:396] relu3 -> conv3 (in-place)
I0501 02:13:03.128657 29582 net.cpp:144] Setting up relu3
I0501 02:13:03.128661 29582 net.cpp:151] Top shape: 20 128 15 15 (576000)
I0501 02:13:03.128664 29582 net.cpp:159] Memory required for data: 24264240
I0501 02:13:03.128667 29582 layer_factory.hpp:77] Creating layer conv4
I0501 02:13:03.128675 29582 net.cpp:94] Creating Layer conv4
I0501 02:13:03.128679 29582 net.cpp:435] conv4 <- conv3
I0501 02:13:03.128684 29582 net.cpp:409] conv4 -> conv4
I0501 02:13:03.144402 29582 net.cpp:144] Setting up conv4
I0501 02:13:03.144418 29582 net.cpp:151] Top shape: 20 128 15 15 (576000)
I0501 02:13:03.144420 29582 net.cpp:159] Memory required for data: 26568240
I0501 02:13:03.144428 29582 layer_factory.hpp:77] Creating layer relu4
I0501 02:13:03.144433 29582 net.cpp:94] Creating Layer relu4
I0501 02:13:03.144438 29582 net.cpp:435] relu4 <- conv4
I0501 02:13:03.144443 29582 net.cpp:396] relu4 -> conv4 (in-place)
I0501 02:13:03.144448 29582 net.cpp:144] Setting up relu4
I0501 02:13:03.144454 29582 net.cpp:151] Top shape: 20 128 15 15 (576000)
I0501 02:13:03.144457 29582 net.cpp:159] Memory required for data: 28872240
I0501 02:13:03.144460 29582 layer_factory.hpp:77] Creating layer conv5
I0501 02:13:03.144467 29582 net.cpp:94] Creating Layer conv5
I0501 02:13:03.144470 29582 net.cpp:435] conv5 <- conv4
I0501 02:13:03.144479 29582 net.cpp:409] conv5 -> conv5
I0501 02:13:03.159698 29582 net.cpp:144] Setting up conv5
I0501 02:13:03.159713 29582 net.cpp:151] Top shape: 20 128 15 15 (576000)
I0501 02:13:03.159716 29582 net.cpp:159] Memory required for data: 31176240
I0501 02:13:03.159725 29582 layer_factory.hpp:77] Creating layer relu5
I0501 02:13:03.159732 29582 net.cpp:94] Creating Layer relu5
I0501 02:13:03.159736 29582 net.cpp:435] relu5 <- conv5
I0501 02:13:03.159740 29582 net.cpp:396] relu5 -> conv5 (in-place)
I0501 02:13:03.159747 29582 net.cpp:144] Setting up relu5
I0501 02:13:03.159751 29582 net.cpp:151] Top shape: 20 128 15 15 (576000)
I0501 02:13:03.159754 29582 net.cpp:159] Memory required for data: 33480240
I0501 02:13:03.159757 29582 layer_factory.hpp:77] Creating layer pool5
I0501 02:13:03.159762 29582 net.cpp:94] Creating Layer pool5
I0501 02:13:03.159766 29582 net.cpp:435] pool5 <- conv5
I0501 02:13:03.159770 29582 net.cpp:409] pool5 -> pool5
I0501 02:13:03.159814 29582 net.cpp:144] Setting up pool5
I0501 02:13:03.159821 29582 net.cpp:151] Top shape: 20 128 7 7 (125440)
I0501 02:13:03.159824 29582 net.cpp:159] Memory required for data: 33982000
I0501 02:13:03.159827 29582 layer_factory.hpp:77] Creating layer ip1
I0501 02:13:03.159834 29582 net.cpp:94] Creating Layer ip1
I0501 02:13:03.159837 29582 net.cpp:435] ip1 <- pool5
I0501 02:13:03.159843 29582 net.cpp:409] ip1 -> ip1
I0501 02:13:03.315456 29582 net.cpp:144] Setting up ip1
I0501 02:13:03.315491 29582 net.cpp:151] Top shape: 20 1024 (20480)
I0501 02:13:03.315495 29582 net.cpp:159] Memory required for data: 34063920
I0501 02:13:03.315503 29582 layer_factory.hpp:77] Creating layer ip2
I0501 02:13:03.315515 29582 net.cpp:94] Creating Layer ip2
I0501 02:13:03.315520 29582 net.cpp:435] ip2 <- ip1
I0501 02:13:03.315526 29582 net.cpp:409] ip2 -> ip2
I0501 02:13:03.328804 29582 net.cpp:144] Setting up ip2
I0501 02:13:03.328817 29582 net.cpp:151] Top shape: 20 512 (10240)
I0501 02:13:03.328821 29582 net.cpp:159] Memory required for data: 34104880
I0501 02:13:03.328827 29582 layer_factory.hpp:77] Creating layer ip3
I0501 02:13:03.328836 29582 net.cpp:94] Creating Layer ip3
I0501 02:13:03.328840 29582 net.cpp:435] ip3 <- ip2
I0501 02:13:03.328845 29582 net.cpp:409] ip3 -> ip3
I0501 02:13:03.329608 29582 net.cpp:144] Setting up ip3
I0501 02:13:03.329617 29582 net.cpp:151] Top shape: 20 50 (1000)
I0501 02:13:03.329619 29582 net.cpp:159] Memory required for data: 34108880
I0501 02:13:03.329624 29582 layer_factory.hpp:77] Creating layer ip3_ip3_0_split
I0501 02:13:03.329632 29582 net.cpp:94] Creating Layer ip3_ip3_0_split
I0501 02:13:03.329634 29582 net.cpp:435] ip3_ip3_0_split <- ip3
I0501 02:13:03.329639 29582 net.cpp:409] ip3_ip3_0_split -> ip3_ip3_0_split_0
I0501 02:13:03.329644 29582 net.cpp:409] ip3_ip3_0_split -> ip3_ip3_0_split_1
I0501 02:13:03.329691 29582 net.cpp:144] Setting up ip3_ip3_0_split
I0501 02:13:03.329697 29582 net.cpp:151] Top shape: 20 50 (1000)
I0501 02:13:03.329701 29582 net.cpp:151] Top shape: 20 50 (1000)
I0501 02:13:03.329704 29582 net.cpp:159] Memory required for data: 34116880
I0501 02:13:03.329706 29582 layer_factory.hpp:77] Creating layer accuracy
I0501 02:13:03.329713 29582 net.cpp:94] Creating Layer accuracy
I0501 02:13:03.329716 29582 net.cpp:435] accuracy <- ip3_ip3_0_split_0
I0501 02:13:03.329720 29582 net.cpp:435] accuracy <- label_intercept_1_split_0
I0501 02:13:03.329725 29582 net.cpp:409] accuracy -> accuracy
…
