…
I0504 03:09:09.028231 23729 net.cpp:323] The NetState phase (0) differed from the phase (1) specified by a rule in layer intercept
I0504 03:09:09.028275 23729 net.cpp:323] The NetState phase (0) differed from the phase (1) specified by a rule in layer loss
I0504 03:09:09.028504 23729 net.cpp:52] Initializing net from parameters: 
state {
  phase: TRAIN
}
layer {
  name: "parameters"
  type: "HDF5Data"
  top: "data"
  top: "label"
  include {
    phase: TRAIN
  }
  hdf5_data_param {
    source: "/home/purduethu/scratch/radon/d/deng106/CNNStatisticalModel/distributions/input/5_distributions_100_sample_size_train-parameters-path.txt"
    batch_size: 20
  }
}
layer {
  name: "conv1"
  type: "Convolution"
  bottom: "data"
  top: "conv1"
  param {
    lr_mult: 1
  }
  param {
    lr_mult: 2
  }
  convolution_param {
    num_output: 64
    pad: 2
    kernel_size: 5
    stride: 1
    weight_filler {
      type: "gaussian"
      std: 0.0001
    }
    bias_filler {
      type: "constant"
    }
  }
}
layer {
  name: "relu1"
  type: "ReLU"
  bottom: "conv1"
  top: "conv1"
}
layer {
  name: "conv2"
  type: "Convolution"
  bottom: "conv1"
  top: "conv2"
  param {
    lr_mult: 1
  }
  param {
    lr_mult: 2
  }
  convolution_param {
    num_output: 64
    pad: 2
    kernel_size: 5
    stride: 1
    weight_filler {
      type: "gaussian"
      std: 0.01
    }
    bias_filler {
      type: "constant"
    }
  }
}
layer {
  name: "relu2"
  type: "ReLU"
  bottom: "conv2"
  top: "conv2"
}
layer {
  name: "pool2"
  type: "Pooling"
  bottom: "conv2"
  top: "pool2"
  pooling_param {
    pool: MAX
    kernel_size: 3
    stride: 2
  }
}
layer {
  name: "conv3"
  type: "Convolution"
  bottom: "pool2"
  top: "conv3"
  param {
    lr_mult: 1
  }
  param {
    lr_mult: 2
  }
  convolution_param {
    num_output: 128
    pad: 2
    kernel_size: 5
    stride: 1
    weight_filler {
      type: "gaussian"
      std: 0.01
    }
    bias_filler {
      type: "constant"
    }
  }
}
layer {
  name: "relu3"
  type: "ReLU"
  bottom: "conv3"
  top: "conv3"
}
layer {
  name: "conv4"
  type: "Convolution"
  bottom: "conv3"
  top: "conv4"
  param {
    lr_mult: 1
  }
  param {
    lr_mult: 2
  }
  convolution_param {
    num_output: 128
    pad: 2
    kernel_size: 5
    stride: 1
    weight_filler {
      type: "gaussian"
      std: 0.01
    }
    bias_filler {
      type: "constant"
    }
  }
}
layer {
  name: "relu4"
  type: "ReLU"
  bottom: "conv4"
  top: "conv4"
}
layer {
  name: "conv5"
  type: "Convolution"
  bottom: "conv4"
  top: "conv5"
  param {
    lr_mult: 1
  }
  param {
    lr_mult: 2
  }
  convolution_param {
    num_output: 128
    pad: 2
    kernel_size: 5
    stride: 1
    weight_filler {
      type: "gaussian"
      std: 0.01
    }
    bias_filler {
      type: "constant"
    }
  }
}
layer {
  name: "relu5"
  type: "ReLU"
  bottom: "conv5"
  top: "conv5"
}
layer {
  name: "pool5"
  type: "Pooling"
  bottom: "conv5"
  top: "pool5"
  pooling_param {
    pool: AVE
    kernel_size: 3
    stride: 2
  }
}
layer {
  name: "ip1"
  type: "InnerProduct"
  bottom: "pool5"
  top: "ip1"
  param {
    lr_mult: 1
  }
  param {
    lr_mult: 2
  }
  inner_product_param {
    num_output: 1024
    weight_filler {
      type: "gaussian"
      std: 0.1
    }
    bias_filler {
      type: "constant"
    }
  }
}
layer {
  name: "ip2"
  type: "InnerProduct"
  bottom: "ip1"
  top: "ip2"
  param {
    lr_mult: 1
  }
  param {
    lr_mult: 2
  }
  inner_product_param {
    num_output: 512
    weight_filler {
      type: "gaussian"
      std: 0.1
    }
    bias_filler {
      type: "constant"
    }
  }
}
layer {
  name: "ip3"
  type: "InnerProduct"
  bottom: "ip2"
  top: "ip3"
  param {
    lr_mult: 1
  }
  param {
    lr_mult: 2
  }
  inner_product_param {
    num_output: 1
    weight_filler {
      type: "gaussian"
      std: 0.1
    }
    bias_filler {
      type: "constant"
    }
  }
}
layer {
  name: "loss"
  type: "HuberLoss"
  bottom: "ip3"
  bottom: "label"
  top: "loss"
  include {
    phase: TRAIN
  }
}
I0504 03:09:09.028677 23729 layer_factory.hpp:77] Creating layer parameters
I0504 03:09:09.028718 23729 net.cpp:94] Creating Layer parameters
I0504 03:09:09.028733 23729 net.cpp:409] parameters -> data
I0504 03:09:09.028755 23729 net.cpp:409] parameters -> label
I0504 03:09:09.028775 23729 hdf5_data_layer.cpp:79] Loading list of HDF5 filenames from: /home/purduethu/scratch/radon/d/deng106/CNNStatisticalModel/distributions/input/5_distributions_100_sample_size_train-parameters-path.txt
I0504 03:09:09.028810 23729 hdf5_data_layer.cpp:93] Number of HDF5 files: 1
I0504 03:09:09.030144 23729 hdf5.cpp:32] Datatype class: H5T_FLOAT
I0504 03:09:09.067195 23729 net.cpp:144] Setting up parameters
I0504 03:09:09.067241 23729 net.cpp:151] Top shape: 20 1 10 10 (2000)
I0504 03:09:09.067255 23729 net.cpp:151] Top shape: 20 (20)
I0504 03:09:09.067263 23729 net.cpp:159] Memory required for data: 8080
I0504 03:09:09.067276 23729 layer_factory.hpp:77] Creating layer conv1
I0504 03:09:09.067311 23729 net.cpp:94] Creating Layer conv1
I0504 03:09:09.067322 23729 net.cpp:435] conv1 <- data
I0504 03:09:09.067337 23729 net.cpp:409] conv1 -> conv1
I0504 03:09:09.074621 23729 net.cpp:144] Setting up conv1
I0504 03:09:09.074653 23729 net.cpp:151] Top shape: 20 64 10 10 (128000)
I0504 03:09:09.074663 23729 net.cpp:159] Memory required for data: 520080
I0504 03:09:09.074686 23729 layer_factory.hpp:77] Creating layer relu1
I0504 03:09:09.074702 23729 net.cpp:94] Creating Layer relu1
I0504 03:09:09.074710 23729 net.cpp:435] relu1 <- conv1
I0504 03:09:09.074721 23729 net.cpp:396] relu1 -> conv1 (in-place)
I0504 03:09:09.074745 23729 net.cpp:144] Setting up relu1
I0504 03:09:09.074757 23729 net.cpp:151] Top shape: 20 64 10 10 (128000)
I0504 03:09:09.074765 23729 net.cpp:159] Memory required for data: 1032080
I0504 03:09:09.074774 23729 layer_factory.hpp:77] Creating layer conv2
I0504 03:09:09.074791 23729 net.cpp:94] Creating Layer conv2
I0504 03:09:09.074801 23729 net.cpp:435] conv2 <- conv1
I0504 03:09:09.074813 23729 net.cpp:409] conv2 -> conv2
I0504 03:09:09.085652 23729 net.cpp:144] Setting up conv2
I0504 03:09:09.085681 23729 net.cpp:151] Top shape: 20 64 10 10 (128000)
I0504 03:09:09.085691 23729 net.cpp:159] Memory required for data: 1544080
I0504 03:09:09.085710 23729 layer_factory.hpp:77] Creating layer relu2
I0504 03:09:09.085724 23729 net.cpp:94] Creating Layer relu2
I0504 03:09:09.085733 23729 net.cpp:435] relu2 <- conv2
I0504 03:09:09.085744 23729 net.cpp:396] relu2 -> conv2 (in-place)
I0504 03:09:09.085759 23729 net.cpp:144] Setting up relu2
I0504 03:09:09.085770 23729 net.cpp:151] Top shape: 20 64 10 10 (128000)
I0504 03:09:09.085778 23729 net.cpp:159] Memory required for data: 2056080
I0504 03:09:09.085786 23729 layer_factory.hpp:77] Creating layer pool2
I0504 03:09:09.085798 23729 net.cpp:94] Creating Layer pool2
I0504 03:09:09.085816 23729 net.cpp:435] pool2 <- conv2
I0504 03:09:09.085829 23729 net.cpp:409] pool2 -> pool2
I0504 03:09:09.085943 23729 net.cpp:144] Setting up pool2
I0504 03:09:09.085959 23729 net.cpp:151] Top shape: 20 64 5 5 (32000)
I0504 03:09:09.085968 23729 net.cpp:159] Memory required for data: 2184080
I0504 03:09:09.085976 23729 layer_factory.hpp:77] Creating layer conv3
I0504 03:09:09.085994 23729 net.cpp:94] Creating Layer conv3
I0504 03:09:09.086002 23729 net.cpp:435] conv3 <- pool2
I0504 03:09:09.086014 23729 net.cpp:409] conv3 -> conv3
I0504 03:09:09.101208 23729 net.cpp:144] Setting up conv3
I0504 03:09:09.101233 23729 net.cpp:151] Top shape: 20 128 5 5 (64000)
I0504 03:09:09.101243 23729 net.cpp:159] Memory required for data: 2440080
I0504 03:09:09.101258 23729 layer_factory.hpp:77] Creating layer relu3
I0504 03:09:09.101270 23729 net.cpp:94] Creating Layer relu3
I0504 03:09:09.101279 23729 net.cpp:435] relu3 <- conv3
I0504 03:09:09.101289 23729 net.cpp:396] relu3 -> conv3 (in-place)
I0504 03:09:09.101302 23729 net.cpp:144] Setting up relu3
I0504 03:09:09.101312 23729 net.cpp:151] Top shape: 20 128 5 5 (64000)
I0504 03:09:09.101320 23729 net.cpp:159] Memory required for data: 2696080
I0504 03:09:09.101326 23729 layer_factory.hpp:77] Creating layer conv4
I0504 03:09:09.101342 23729 net.cpp:94] Creating Layer conv4
I0504 03:09:09.101351 23729 net.cpp:435] conv4 <- conv3
I0504 03:09:09.101361 23729 net.cpp:409] conv4 -> conv4
I0504 03:09:09.127171 23729 net.cpp:144] Setting up conv4
I0504 03:09:09.127213 23729 net.cpp:151] Top shape: 20 128 5 5 (64000)
I0504 03:09:09.127226 23729 net.cpp:159] Memory required for data: 2952080
I0504 03:09:09.127245 23729 layer_factory.hpp:77] Creating layer relu4
I0504 03:09:09.127262 23729 net.cpp:94] Creating Layer relu4
I0504 03:09:09.127274 23729 net.cpp:435] relu4 <- conv4
I0504 03:09:09.127290 23729 net.cpp:396] relu4 -> conv4 (in-place)
I0504 03:09:09.127311 23729 net.cpp:144] Setting up relu4
I0504 03:09:09.127326 23729 net.cpp:151] Top shape: 20 128 5 5 (64000)
I0504 03:09:09.127336 23729 net.cpp:159] Memory required for data: 3208080
I0504 03:09:09.127346 23729 layer_factory.hpp:77] Creating layer conv5
I0504 03:09:09.127367 23729 net.cpp:94] Creating Layer conv5
I0504 03:09:09.127379 23729 net.cpp:435] conv5 <- conv4
I0504 03:09:09.127394 23729 net.cpp:409] conv5 -> conv5
I0504 03:09:09.150903 23729 net.cpp:144] Setting up conv5
I0504 03:09:09.150928 23729 net.cpp:151] Top shape: 20 128 5 5 (64000)
I0504 03:09:09.150936 23729 net.cpp:159] Memory required for data: 3464080
I0504 03:09:09.150951 23729 layer_factory.hpp:77] Creating layer relu5
I0504 03:09:09.150962 23729 net.cpp:94] Creating Layer relu5
I0504 03:09:09.150969 23729 net.cpp:435] relu5 <- conv5
I0504 03:09:09.150977 23729 net.cpp:396] relu5 -> conv5 (in-place)
I0504 03:09:09.150990 23729 net.cpp:144] Setting up relu5
I0504 03:09:09.150998 23729 net.cpp:151] Top shape: 20 128 5 5 (64000)
I0504 03:09:09.151003 23729 net.cpp:159] Memory required for data: 3720080
I0504 03:09:09.151010 23729 layer_factory.hpp:77] Creating layer pool5
I0504 03:09:09.151020 23729 net.cpp:94] Creating Layer pool5
I0504 03:09:09.151026 23729 net.cpp:435] pool5 <- conv5
I0504 03:09:09.151034 23729 net.cpp:409] pool5 -> pool5
I0504 03:09:09.151103 23729 net.cpp:144] Setting up pool5
I0504 03:09:09.151114 23729 net.cpp:151] Top shape: 20 128 2 2 (10240)
I0504 03:09:09.151120 23729 net.cpp:159] Memory required for data: 3761040
I0504 03:09:09.151126 23729 layer_factory.hpp:77] Creating layer ip1
I0504 03:09:09.151142 23729 net.cpp:94] Creating Layer ip1
I0504 03:09:09.151149 23729 net.cpp:435] ip1 <- pool5
I0504 03:09:09.151159 23729 net.cpp:409] ip1 -> ip1
I0504 03:09:09.174859 23729 net.cpp:144] Setting up ip1
I0504 03:09:09.174886 23729 net.cpp:151] Top shape: 20 1024 (20480)
I0504 03:09:09.174893 23729 net.cpp:159] Memory required for data: 3842960
I0504 03:09:09.174904 23729 layer_factory.hpp:77] Creating layer ip2
I0504 03:09:09.174917 23729 net.cpp:94] Creating Layer ip2
I0504 03:09:09.174923 23729 net.cpp:435] ip2 <- ip1
I0504 03:09:09.174940 23729 net.cpp:409] ip2 -> ip2
I0504 03:09:09.196025 23729 net.cpp:144] Setting up ip2
I0504 03:09:09.196049 23729 net.cpp:151] Top shape: 20 512 (10240)
I0504 03:09:09.196056 23729 net.cpp:159] Memory required for data: 3883920
I0504 03:09:09.196065 23729 layer_factory.hpp:77] Creating layer ip3
I0504 03:09:09.196076 23729 net.cpp:94] Creating Layer ip3
I0504 03:09:09.196082 23729 net.cpp:435] ip3 <- ip2
I0504 03:09:09.196094 23729 net.cpp:409] ip3 -> ip3
I0504 03:09:09.196295 23729 net.cpp:144] Setting up ip3
I0504 03:09:09.196306 23729 net.cpp:151] Top shape: 20 1 (20)
I0504 03:09:09.196312 23729 net.cpp:159] Memory required for data: 3884000
I0504 03:09:09.196321 23729 layer_factory.hpp:77] Creating layer loss
I0504 03:09:09.196334 23729 net.cpp:94] Creating Layer loss
I0504 03:09:09.196341 23729 net.cpp:435] loss <- ip3
I0504 03:09:09.196347 23729 net.cpp:435] loss <- label
I0504 03:09:09.196357 23729 net.cpp:409] loss -> loss
I0504 03:09:09.196439 23729 net.cpp:144] Setting up loss
…
I0504 03:09:09.289165 23729 net.cpp:323] The NetState phase (0) differed from the phase (1) specified by a rule in layer intercept
I0504 03:09:09.289188 23729 net.cpp:323] The NetState phase (0) differed from the phase (1) specified by a rule in layer accuracy
I0504 03:09:09.289289 23729 net.cpp:52] Initializing net from parameters: 
state {
  phase: TRAIN
}
layer {
  name: "parameters"
  type: "HDF5Data"
  top: "data"
  top: "label"
  include {
    phase: TRAIN
  }
  hdf5_data_param {
    source: "/home/purduethu/scratch/radon/d/deng106/CNNStatisticalModel/distributions/input/5_distributions_100_sample_size_train-distributions-path.txt"
    batch_size: 20
  }
}
layer {
  name: "conv1"
  type: "Convolution"
  bottom: "data"
  top: "conv1"
  param {
    lr_mult: 1
  }
  param {
    lr_mult: 2
  }
  convolution_param {
    num_output: 64
    pad: 2
    kernel_size: 5
    stride: 1
    weight_filler {
      type: "gaussian"
      std: 0.0001
    }
    bias_filler {
      type: "constant"
    }
  }
}
layer {
  name: "relu1"
  type: "ReLU"
  bottom: "conv1"
  top: "conv1"
}
layer {
  name: "conv2"
  type: "Convolution"
  bottom: "conv1"
  top: "conv2"
  param {
    lr_mult: 1
  }
  param {
    lr_mult: 2
  }
  convolution_param {
    num_output: 64
    pad: 2
    kernel_size: 5
    stride: 1
    weight_filler {
      type: "gaussian"
      std: 0.01
    }
    bias_filler {
      type: "constant"
    }
  }
}
layer {
  name: "relu2"
  type: "ReLU"
  bottom: "conv2"
  top: "conv2"
}
layer {
  name: "pool2"
  type: "Pooling"
  bottom: "conv2"
  top: "pool2"
  pooling_param {
    pool: MAX
    kernel_size: 3
    stride: 2
  }
}
layer {
  name: "conv3"
  type: "Convolution"
  bottom: "pool2"
  top: "conv3"
  param {
    lr_mult: 1
  }
  param {
    lr_mult: 2
  }
  convolution_param {
    num_output: 128
    pad: 2
    kernel_size: 5
    stride: 1
    weight_filler {
      type: "gaussian"
      std: 0.01
    }
    bias_filler {
      type: "constant"
    }
  }
}
layer {
  name: "relu3"
  type: "ReLU"
  bottom: "conv3"
  top: "conv3"
}
layer {
  name: "conv4"
  type: "Convolution"
  bottom: "conv3"
  top: "conv4"
  param {
    lr_mult: 1
  }
  param {
    lr_mult: 2
  }
  convolution_param {
    num_output: 128
    pad: 2
    kernel_size: 5
    stride: 1
    weight_filler {
      type: "gaussian"
      std: 0.01
    }
    bias_filler {
      type: "constant"
    }
  }
}
layer {
  name: "relu4"
  type: "ReLU"
  bottom: "conv4"
  top: "conv4"
}
layer {
  name: "conv5"
  type: "Convolution"
  bottom: "conv4"
  top: "conv5"
  param {
    lr_mult: 1
  }
  param {
    lr_mult: 2
  }
  convolution_param {
    num_output: 128
    pad: 2
    kernel_size: 5
    stride: 1
    weight_filler {
      type: "gaussian"
      std: 0.01
    }
    bias_filler {
      type: "constant"
    }
  }
}
layer {
  name: "relu5"
  type: "ReLU"
  bottom: "conv5"
  top: "conv5"
}
layer {
  name: "pool5"
  type: "Pooling"
  bottom: "conv5"
  top: "pool5"
  pooling_param {
    pool: AVE
    kernel_size: 3
    stride: 2
  }
}
layer {
  name: "ip1"
  type: "InnerProduct"
  bottom: "pool5"
  top: "ip1"
  param {
    lr_mult: 1
  }
  param {
    lr_mult: 2
  }
  inner_product_param {
    num_output: 1024
    weight_filler {
      type: "gaussian"
      std: 0.1
    }
    bias_filler {
      type: "constant"
    }
  }
}
layer {
  name: "ip2"
  type: "InnerProduct"
  bottom: "ip1"
  top: "ip2"
  param {
    lr_mult: 1
  }
  param {
    lr_mult: 2
  }
  inner_product_param {
    num_output: 512
    weight_filler {
      type: "gaussian"
      std: 0.1
    }
    bias_filler {
      type: "constant"
    }
  }
}
layer {
  name: "ip3"
  type: "InnerProduct"
  bottom: "ip2"
  top: "ip3"
  param {
    lr_mult: 1
  }
  param {
    lr_mult: 2
  }
  inner_product_param {
    num_output: 50
    weight_filler {
      type: "gaussian"
      std: 0.1
    }
    bias_filler {
      type: "constant"
    }
  }
}
layer {
  name: "loss"
  type: "SoftmaxWithLoss"
  bottom: "ip3"
  bottom: "label"
  top: "loss"
}
I0504 03:09:09.289350 23729 layer_factory.hpp:77] Creating layer parameters
I0504 03:09:09.289361 23729 net.cpp:94] Creating Layer parameters
I0504 03:09:09.289366 23729 net.cpp:409] parameters -> data
I0504 03:09:09.289374 23729 net.cpp:409] parameters -> label
I0504 03:09:09.289381 23729 hdf5_data_layer.cpp:79] Loading list of HDF5 filenames from: /home/purduethu/scratch/radon/d/deng106/CNNStatisticalModel/distributions/input/5_distributions_100_sample_size_train-distributions-path.txt
I0504 03:09:09.289400 23729 hdf5_data_layer.cpp:93] Number of HDF5 files: 1
I0504 03:09:09.306855 23729 hdf5.cpp:35] Datatype class: H5T_INTEGER
I0504 03:09:09.307332 23729 net.cpp:144] Setting up parameters
I0504 03:09:09.307349 23729 net.cpp:151] Top shape: 20 1 10 10 (2000)
I0504 03:09:09.307355 23729 net.cpp:151] Top shape: 20 (20)
I0504 03:09:09.307359 23729 net.cpp:159] Memory required for data: 8080
I0504 03:09:09.307366 23729 layer_factory.hpp:77] Creating layer conv1
I0504 03:09:09.307384 23729 net.cpp:94] Creating Layer conv1
I0504 03:09:09.307389 23729 net.cpp:435] conv1 <- data
I0504 03:09:09.307396 23729 net.cpp:409] conv1 -> conv1
I0504 03:09:09.309178 23729 net.cpp:144] Setting up conv1
I0504 03:09:09.309193 23729 net.cpp:151] Top shape: 20 64 10 10 (128000)
I0504 03:09:09.309197 23729 net.cpp:159] Memory required for data: 520080
I0504 03:09:09.309209 23729 layer_factory.hpp:77] Creating layer relu1
I0504 03:09:09.309217 23729 net.cpp:94] Creating Layer relu1
I0504 03:09:09.309222 23729 net.cpp:435] relu1 <- conv1
I0504 03:09:09.309227 23729 net.cpp:396] relu1 -> conv1 (in-place)
I0504 03:09:09.309237 23729 net.cpp:144] Setting up relu1
I0504 03:09:09.309242 23729 net.cpp:151] Top shape: 20 64 10 10 (128000)
I0504 03:09:09.309245 23729 net.cpp:159] Memory required for data: 1032080
I0504 03:09:09.309249 23729 layer_factory.hpp:77] Creating layer conv2
I0504 03:09:09.309258 23729 net.cpp:94] Creating Layer conv2
I0504 03:09:09.309262 23729 net.cpp:435] conv2 <- conv1
I0504 03:09:09.309268 23729 net.cpp:409] conv2 -> conv2
I0504 03:09:09.315083 23729 net.cpp:144] Setting up conv2
I0504 03:09:09.315099 23729 net.cpp:151] Top shape: 20 64 10 10 (128000)
I0504 03:09:09.315104 23729 net.cpp:159] Memory required for data: 1544080
I0504 03:09:09.315112 23729 layer_factory.hpp:77] Creating layer relu2
I0504 03:09:09.315120 23729 net.cpp:94] Creating Layer relu2
I0504 03:09:09.315125 23729 net.cpp:435] relu2 <- conv2
I0504 03:09:09.315131 23729 net.cpp:396] relu2 -> conv2 (in-place)
I0504 03:09:09.315140 23729 net.cpp:144] Setting up relu2
I0504 03:09:09.315145 23729 net.cpp:151] Top shape: 20 64 10 10 (128000)
I0504 03:09:09.315148 23729 net.cpp:159] Memory required for data: 2056080
I0504 03:09:09.315152 23729 layer_factory.hpp:77] Creating layer pool2
I0504 03:09:09.315160 23729 net.cpp:94] Creating Layer pool2
I0504 03:09:09.315163 23729 net.cpp:435] pool2 <- conv2
I0504 03:09:09.315168 23729 net.cpp:409] pool2 -> pool2
I0504 03:09:09.315233 23729 net.cpp:144] Setting up pool2
I0504 03:09:09.315241 23729 net.cpp:151] Top shape: 20 64 5 5 (32000)
I0504 03:09:09.315246 23729 net.cpp:159] Memory required for data: 2184080
I0504 03:09:09.315250 23729 layer_factory.hpp:77] Creating layer conv3
I0504 03:09:09.315259 23729 net.cpp:94] Creating Layer conv3
I0504 03:09:09.315264 23729 net.cpp:435] conv3 <- pool2
I0504 03:09:09.315269 23729 net.cpp:409] conv3 -> conv3
I0504 03:09:09.324605 23729 net.cpp:144] Setting up conv3
I0504 03:09:09.324628 23729 net.cpp:151] Top shape: 20 128 5 5 (64000)
I0504 03:09:09.324635 23729 net.cpp:159] Memory required for data: 2440080
I0504 03:09:09.324643 23729 layer_factory.hpp:77] Creating layer relu3
I0504 03:09:09.324651 23729 net.cpp:94] Creating Layer relu3
I0504 03:09:09.324656 23729 net.cpp:435] relu3 <- conv3
I0504 03:09:09.324661 23729 net.cpp:396] relu3 -> conv3 (in-place)
I0504 03:09:09.324669 23729 net.cpp:144] Setting up relu3
I0504 03:09:09.324674 23729 net.cpp:151] Top shape: 20 128 5 5 (64000)
I0504 03:09:09.324677 23729 net.cpp:159] Memory required for data: 2696080
I0504 03:09:09.324681 23729 layer_factory.hpp:77] Creating layer conv4
I0504 03:09:09.324692 23729 net.cpp:94] Creating Layer conv4
I0504 03:09:09.324695 23729 net.cpp:435] conv4 <- conv3
I0504 03:09:09.324702 23729 net.cpp:409] conv4 -> conv4
I0504 03:09:09.340273 23729 net.cpp:144] Setting up conv4
I0504 03:09:09.340292 23729 net.cpp:151] Top shape: 20 128 5 5 (64000)
I0504 03:09:09.340297 23729 net.cpp:159] Memory required for data: 2952080
I0504 03:09:09.340304 23729 layer_factory.hpp:77] Creating layer relu4
I0504 03:09:09.340312 23729 net.cpp:94] Creating Layer relu4
I0504 03:09:09.340315 23729 net.cpp:435] relu4 <- conv4
I0504 03:09:09.340322 23729 net.cpp:396] relu4 -> conv4 (in-place)
I0504 03:09:09.340329 23729 net.cpp:144] Setting up relu4
I0504 03:09:09.340335 23729 net.cpp:151] Top shape: 20 128 5 5 (64000)
I0504 03:09:09.340338 23729 net.cpp:159] Memory required for data: 3208080
I0504 03:09:09.340342 23729 layer_factory.hpp:77] Creating layer conv5
I0504 03:09:09.340351 23729 net.cpp:94] Creating Layer conv5
I0504 03:09:09.340355 23729 net.cpp:435] conv5 <- conv4
I0504 03:09:09.340360 23729 net.cpp:409] conv5 -> conv5
I0504 03:09:09.355957 23729 net.cpp:144] Setting up conv5
I0504 03:09:09.355999 23729 net.cpp:151] Top shape: 20 128 5 5 (64000)
I0504 03:09:09.356011 23729 net.cpp:159] Memory required for data: 3464080
I0504 03:09:09.356037 23729 layer_factory.hpp:77] Creating layer relu5
I0504 03:09:09.356055 23729 net.cpp:94] Creating Layer relu5
I0504 03:09:09.356067 23729 net.cpp:435] relu5 <- conv5
I0504 03:09:09.356081 23729 net.cpp:396] relu5 -> conv5 (in-place)
I0504 03:09:09.356102 23729 net.cpp:144] Setting up relu5
I0504 03:09:09.356117 23729 net.cpp:151] Top shape: 20 128 5 5 (64000)
I0504 03:09:09.356127 23729 net.cpp:159] Memory required for data: 3720080
I0504 03:09:09.356137 23729 layer_factory.hpp:77] Creating layer pool5
I0504 03:09:09.356153 23729 net.cpp:94] Creating Layer pool5
I0504 03:09:09.356163 23729 net.cpp:435] pool5 <- conv5
I0504 03:09:09.356176 23729 net.cpp:409] pool5 -> pool5
I0504 03:09:09.356279 23729 net.cpp:144] Setting up pool5
I0504 03:09:09.356298 23729 net.cpp:151] Top shape: 20 128 2 2 (10240)
I0504 03:09:09.356309 23729 net.cpp:159] Memory required for data: 3761040
I0504 03:09:09.356320 23729 layer_factory.hpp:77] Creating layer ip1
I0504 03:09:09.356338 23729 net.cpp:94] Creating Layer ip1
I0504 03:09:09.356348 23729 net.cpp:435] ip1 <- pool5
I0504 03:09:09.356364 23729 net.cpp:409] ip1 -> ip1
I0504 03:09:09.370224 23729 net.cpp:144] Setting up ip1
I0504 03:09:09.370244 23729 net.cpp:151] Top shape: 20 1024 (20480)
I0504 03:09:09.370249 23729 net.cpp:159] Memory required for data: 3842960
I0504 03:09:09.370256 23729 layer_factory.hpp:77] Creating layer ip2
I0504 03:09:09.370265 23729 net.cpp:94] Creating Layer ip2
I0504 03:09:09.370270 23729 net.cpp:435] ip2 <- ip1
I0504 03:09:09.370278 23729 net.cpp:409] ip2 -> ip2
I0504 03:09:09.384050 23729 net.cpp:144] Setting up ip2
I0504 03:09:09.384068 23729 net.cpp:151] Top shape: 20 512 (10240)
I0504 03:09:09.384073 23729 net.cpp:159] Memory required for data: 3883920
I0504 03:09:09.384080 23729 layer_factory.hpp:77] Creating layer ip3
I0504 03:09:09.384088 23729 net.cpp:94] Creating Layer ip3
I0504 03:09:09.384093 23729 net.cpp:435] ip3 <- ip2
I0504 03:09:09.384100 23729 net.cpp:409] ip3 -> ip3
I0504 03:09:09.384897 23729 net.cpp:144] Setting up ip3
I0504 03:09:09.384907 23729 net.cpp:151] Top shape: 20 50 (1000)
I0504 03:09:09.384917 23729 net.cpp:159] Memory required for data: 3887920
I0504 03:09:09.384923 23729 layer_factory.hpp:77] Creating layer loss
I0504 03:09:09.384933 23729 net.cpp:94] Creating Layer loss
I0504 03:09:09.384938 23729 net.cpp:435] loss <- ip3
I0504 03:09:09.384941 23729 net.cpp:435] loss <- label
I0504 03:09:09.384946 23729 net.cpp:409] loss -> loss
I0504 03:09:09.384954 23729 layer_factory.hpp:77] Creating layer loss
…
I0504 03:09:09.385506 23729 solver.cpp:181] Creating test net (#0) specified by net file: ./protocol/dis_5_100_dimension.protocol_distribution
I0504 03:09:09.385535 23729 net.cpp:323] The NetState phase (1) differed from the phase (0) specified by a rule in layer parameters
I0504 03:09:09.385633 23729 net.cpp:52] Initializing net from parameters: 
state {
  phase: TEST
}
layer {
  name: "intercept"
  type: "HDF5Data"
  top: "data"
  top: "label"
  include {
    phase: TEST
  }
  hdf5_data_param {
    source: "/home/purduethu/scratch/radon/d/deng106/CNNStatisticalModel/distributions/input/5_distributions_100_sample_size_test-distributions-path.txt"
    batch_size: 20
  }
}
layer {
  name: "conv1"
  type: "Convolution"
  bottom: "data"
  top: "conv1"
  param {
    lr_mult: 1
  }
  param {
    lr_mult: 2
  }
  convolution_param {
    num_output: 64
    pad: 2
    kernel_size: 5
    stride: 1
    weight_filler {
      type: "gaussian"
      std: 0.0001
    }
    bias_filler {
      type: "constant"
    }
  }
}
layer {
  name: "relu1"
  type: "ReLU"
  bottom: "conv1"
  top: "conv1"
}
layer {
  name: "conv2"
  type: "Convolution"
  bottom: "conv1"
  top: "conv2"
  param {
    lr_mult: 1
  }
  param {
    lr_mult: 2
  }
  convolution_param {
    num_output: 64
    pad: 2
    kernel_size: 5
    stride: 1
    weight_filler {
      type: "gaussian"
      std: 0.01
    }
    bias_filler {
      type: "constant"
    }
  }
}
layer {
  name: "relu2"
  type: "ReLU"
  bottom: "conv2"
  top: "conv2"
}
layer {
  name: "pool2"
  type: "Pooling"
  bottom: "conv2"
  top: "pool2"
  pooling_param {
    pool: MAX
    kernel_size: 3
    stride: 2
  }
}
layer {
  name: "conv3"
  type: "Convolution"
  bottom: "pool2"
  top: "conv3"
  param {
    lr_mult: 1
  }
  param {
    lr_mult: 2
  }
  convolution_param {
    num_output: 128
    pad: 2
    kernel_size: 5
    stride: 1
    weight_filler {
      type: "gaussian"
      std: 0.01
    }
    bias_filler {
      type: "constant"
    }
  }
}
layer {
  name: "relu3"
  type: "ReLU"
  bottom: "conv3"
  top: "conv3"
}
layer {
  name: "conv4"
  type: "Convolution"
  bottom: "conv3"
  top: "conv4"
  param {
    lr_mult: 1
  }
  param {
    lr_mult: 2
  }
  convolution_param {
    num_output: 128
    pad: 2
    kernel_size: 5
    stride: 1
    weight_filler {
      type: "gaussian"
      std: 0.01
    }
    bias_filler {
      type: "constant"
    }
  }
}
layer {
  name: "relu4"
  type: "ReLU"
  bottom: "conv4"
  top: "conv4"
}
layer {
  name: "conv5"
  type: "Convolution"
  bottom: "conv4"
  top: "conv5"
  param {
    lr_mult: 1
  }
  param {
    lr_mult: 2
  }
  convolution_param {
    num_output: 128
    pad: 2
    kernel_size: 5
    stride: 1
    weight_filler {
      type: "gaussian"
      std: 0.01
    }
    bias_filler {
      type: "constant"
    }
  }
}
layer {
  name: "relu5"
  type: "ReLU"
  bottom: "conv5"
  top: "conv5"
}
layer {
  name: "pool5"
  type: "Pooling"
  bottom: "conv5"
  top: "pool5"
  pooling_param {
    pool: AVE
    kernel_size: 3
    stride: 2
  }
}
layer {
  name: "ip1"
  type: "InnerProduct"
  bottom: "pool5"
  top: "ip1"
  param {
    lr_mult: 1
  }
  param {
    lr_mult: 2
  }
  inner_product_param {
    num_output: 1024
    weight_filler {
      type: "gaussian"
      std: 0.1
    }
    bias_filler {
      type: "constant"
    }
  }
}
layer {
  name: "ip2"
  type: "InnerProduct"
  bottom: "ip1"
  top: "ip2"
  param {
    lr_mult: 1
  }
  param {
    lr_mult: 2
  }
  inner_product_param {
    num_output: 512
    weight_filler {
      type: "gaussian"
      std: 0.1
    }
    bias_filler {
      type: "constant"
    }
  }
}
layer {
  name: "ip3"
  type: "InnerProduct"
  bottom: "ip2"
  top: "ip3"
  param {
    lr_mult: 1
  }
  param {
    lr_mult: 2
  }
  inner_product_param {
    num_output: 50
    weight_filler {
      type: "gaussian"
      std: 0.1
    }
    bias_filler {
      type: "constant"
    }
  }
}
layer {
  name: "accuracy"
  type: "Accuracy"
  bottom: "ip3"
  bottom: "label"
  top: "accuracy"
  include {
    phase: TEST
  }
}
layer {
  name: "loss"
  type: "SoftmaxWithLoss"
  bottom: "ip3"
  bottom: "label"
  top: "loss"
}
I0504 03:09:09.385704 23729 layer_factory.hpp:77] Creating layer intercept
I0504 03:09:09.385715 23729 net.cpp:94] Creating Layer intercept
I0504 03:09:09.385720 23729 net.cpp:409] intercept -> data
I0504 03:09:09.385727 23729 net.cpp:409] intercept -> label
I0504 03:09:09.385733 23729 hdf5_data_layer.cpp:79] Loading list of HDF5 filenames from: /home/purduethu/scratch/radon/d/deng106/CNNStatisticalModel/distributions/input/5_distributions_100_sample_size_test-distributions-path.txt
I0504 03:09:09.385753 23729 hdf5_data_layer.cpp:93] Number of HDF5 files: 1
I0504 03:09:09.390331 23729 net.cpp:144] Setting up intercept
I0504 03:09:09.390359 23729 net.cpp:151] Top shape: 20 1 10 10 (2000)
I0504 03:09:09.390365 23729 net.cpp:151] Top shape: 20 (20)
I0504 03:09:09.390369 23729 net.cpp:159] Memory required for data: 8080
I0504 03:09:09.390374 23729 layer_factory.hpp:77] Creating layer label_intercept_1_split
I0504 03:09:09.390391 23729 net.cpp:94] Creating Layer label_intercept_1_split
I0504 03:09:09.390396 23729 net.cpp:435] label_intercept_1_split <- label
I0504 03:09:09.390403 23729 net.cpp:409] label_intercept_1_split -> label_intercept_1_split_0
I0504 03:09:09.390410 23729 net.cpp:409] label_intercept_1_split -> label_intercept_1_split_1
I0504 03:09:09.390457 23729 net.cpp:144] Setting up label_intercept_1_split
I0504 03:09:09.390465 23729 net.cpp:151] Top shape: 20 (20)
I0504 03:09:09.390470 23729 net.cpp:151] Top shape: 20 (20)
I0504 03:09:09.390472 23729 net.cpp:159] Memory required for data: 8240
I0504 03:09:09.390476 23729 layer_factory.hpp:77] Creating layer conv1
I0504 03:09:09.390487 23729 net.cpp:94] Creating Layer conv1
I0504 03:09:09.390492 23729 net.cpp:435] conv1 <- data
I0504 03:09:09.390497 23729 net.cpp:409] conv1 -> conv1
I0504 03:09:09.391338 23729 net.cpp:144] Setting up conv1
I0504 03:09:09.391353 23729 net.cpp:151] Top shape: 20 64 10 10 (128000)
I0504 03:09:09.391365 23729 net.cpp:159] Memory required for data: 520240
I0504 03:09:09.391376 23729 layer_factory.hpp:77] Creating layer relu1
I0504 03:09:09.391383 23729 net.cpp:94] Creating Layer relu1
I0504 03:09:09.391388 23729 net.cpp:435] relu1 <- conv1
I0504 03:09:09.391392 23729 net.cpp:396] relu1 -> conv1 (in-place)
I0504 03:09:09.391402 23729 net.cpp:144] Setting up relu1
I0504 03:09:09.391407 23729 net.cpp:151] Top shape: 20 64 10 10 (128000)
I0504 03:09:09.391410 23729 net.cpp:159] Memory required for data: 1032240
I0504 03:09:09.391413 23729 layer_factory.hpp:77] Creating layer conv2
I0504 03:09:09.391422 23729 net.cpp:94] Creating Layer conv2
I0504 03:09:09.391427 23729 net.cpp:435] conv2 <- conv1
I0504 03:09:09.391433 23729 net.cpp:409] conv2 -> conv2
I0504 03:09:09.395607 23729 net.cpp:144] Setting up conv2
I0504 03:09:09.395622 23729 net.cpp:151] Top shape: 20 64 10 10 (128000)
I0504 03:09:09.395625 23729 net.cpp:159] Memory required for data: 1544240
I0504 03:09:09.395634 23729 layer_factory.hpp:77] Creating layer relu2
I0504 03:09:09.395642 23729 net.cpp:94] Creating Layer relu2
I0504 03:09:09.395645 23729 net.cpp:435] relu2 <- conv2
I0504 03:09:09.395650 23729 net.cpp:396] relu2 -> conv2 (in-place)
I0504 03:09:09.395658 23729 net.cpp:144] Setting up relu2
I0504 03:09:09.395663 23729 net.cpp:151] Top shape: 20 64 10 10 (128000)
I0504 03:09:09.395666 23729 net.cpp:159] Memory required for data: 2056240
I0504 03:09:09.395670 23729 layer_factory.hpp:77] Creating layer pool2
I0504 03:09:09.395676 23729 net.cpp:94] Creating Layer pool2
I0504 03:09:09.395680 23729 net.cpp:435] pool2 <- conv2
I0504 03:09:09.395685 23729 net.cpp:409] pool2 -> pool2
I0504 03:09:09.395742 23729 net.cpp:144] Setting up pool2
I0504 03:09:09.395750 23729 net.cpp:151] Top shape: 20 64 5 5 (32000)
I0504 03:09:09.395753 23729 net.cpp:159] Memory required for data: 2184240
I0504 03:09:09.395757 23729 layer_factory.hpp:77] Creating layer conv3
I0504 03:09:09.395766 23729 net.cpp:94] Creating Layer conv3
I0504 03:09:09.395771 23729 net.cpp:435] conv3 <- pool2
I0504 03:09:09.395776 23729 net.cpp:409] conv3 -> conv3
I0504 03:09:09.402005 23729 net.cpp:144] Setting up conv3
I0504 03:09:09.402019 23729 net.cpp:151] Top shape: 20 128 5 5 (64000)
I0504 03:09:09.402024 23729 net.cpp:159] Memory required for data: 2440240
I0504 03:09:09.402032 23729 layer_factory.hpp:77] Creating layer relu3
I0504 03:09:09.402040 23729 net.cpp:94] Creating Layer relu3
I0504 03:09:09.402043 23729 net.cpp:435] relu3 <- conv3
I0504 03:09:09.402048 23729 net.cpp:396] relu3 -> conv3 (in-place)
I0504 03:09:09.402055 23729 net.cpp:144] Setting up relu3
I0504 03:09:09.402060 23729 net.cpp:151] Top shape: 20 128 5 5 (64000)
I0504 03:09:09.402065 23729 net.cpp:159] Memory required for data: 2696240
I0504 03:09:09.402067 23729 layer_factory.hpp:77] Creating layer conv4
I0504 03:09:09.402076 23729 net.cpp:94] Creating Layer conv4
I0504 03:09:09.402081 23729 net.cpp:435] conv4 <- conv3
I0504 03:09:09.402086 23729 net.cpp:409] conv4 -> conv4
I0504 03:09:09.415122 23729 net.cpp:144] Setting up conv4
I0504 03:09:09.415138 23729 net.cpp:151] Top shape: 20 128 5 5 (64000)
I0504 03:09:09.415143 23729 net.cpp:159] Memory required for data: 2952240
I0504 03:09:09.415150 23729 layer_factory.hpp:77] Creating layer relu4
I0504 03:09:09.415158 23729 net.cpp:94] Creating Layer relu4
I0504 03:09:09.415161 23729 net.cpp:435] relu4 <- conv4
I0504 03:09:09.415166 23729 net.cpp:396] relu4 -> conv4 (in-place)
I0504 03:09:09.415174 23729 net.cpp:144] Setting up relu4
I0504 03:09:09.415179 23729 net.cpp:151] Top shape: 20 128 5 5 (64000)
I0504 03:09:09.415184 23729 net.cpp:159] Memory required for data: 3208240
I0504 03:09:09.415186 23729 layer_factory.hpp:77] Creating layer conv5
I0504 03:09:09.415195 23729 net.cpp:94] Creating Layer conv5
I0504 03:09:09.415199 23729 net.cpp:435] conv5 <- conv4
I0504 03:09:09.415205 23729 net.cpp:409] conv5 -> conv5
I0504 03:09:09.428190 23729 net.cpp:144] Setting up conv5
I0504 03:09:09.428206 23729 net.cpp:151] Top shape: 20 128 5 5 (64000)
I0504 03:09:09.428217 23729 net.cpp:159] Memory required for data: 3464240
I0504 03:09:09.428227 23729 layer_factory.hpp:77] Creating layer relu5
I0504 03:09:09.428236 23729 net.cpp:94] Creating Layer relu5
I0504 03:09:09.428241 23729 net.cpp:435] relu5 <- conv5
I0504 03:09:09.428246 23729 net.cpp:396] relu5 -> conv5 (in-place)
I0504 03:09:09.428253 23729 net.cpp:144] Setting up relu5
I0504 03:09:09.428258 23729 net.cpp:151] Top shape: 20 128 5 5 (64000)
I0504 03:09:09.428262 23729 net.cpp:159] Memory required for data: 3720240
I0504 03:09:09.428266 23729 layer_factory.hpp:77] Creating layer pool5
I0504 03:09:09.428272 23729 net.cpp:94] Creating Layer pool5
I0504 03:09:09.428275 23729 net.cpp:435] pool5 <- conv5
I0504 03:09:09.428280 23729 net.cpp:409] pool5 -> pool5
I0504 03:09:09.428323 23729 net.cpp:144] Setting up pool5
I0504 03:09:09.428329 23729 net.cpp:151] Top shape: 20 128 2 2 (10240)
I0504 03:09:09.428333 23729 net.cpp:159] Memory required for data: 3761200
I0504 03:09:09.428338 23729 layer_factory.hpp:77] Creating layer ip1
I0504 03:09:09.428344 23729 net.cpp:94] Creating Layer ip1
I0504 03:09:09.428349 23729 net.cpp:435] ip1 <- pool5
I0504 03:09:09.428354 23729 net.cpp:409] ip1 -> ip1
I0504 03:09:09.442163 23729 net.cpp:144] Setting up ip1
I0504 03:09:09.442179 23729 net.cpp:151] Top shape: 20 1024 (20480)
I0504 03:09:09.442184 23729 net.cpp:159] Memory required for data: 3843120
I0504 03:09:09.442191 23729 layer_factory.hpp:77] Creating layer ip2
I0504 03:09:09.442199 23729 net.cpp:94] Creating Layer ip2
I0504 03:09:09.442203 23729 net.cpp:435] ip2 <- ip1
I0504 03:09:09.442210 23729 net.cpp:409] ip2 -> ip2
I0504 03:09:09.455941 23729 net.cpp:144] Setting up ip2
I0504 03:09:09.455958 23729 net.cpp:151] Top shape: 20 512 (10240)
I0504 03:09:09.455963 23729 net.cpp:159] Memory required for data: 3884080
I0504 03:09:09.455971 23729 layer_factory.hpp:77] Creating layer ip3
I0504 03:09:09.455981 23729 net.cpp:94] Creating Layer ip3
I0504 03:09:09.455984 23729 net.cpp:435] ip3 <- ip2
I0504 03:09:09.455991 23729 net.cpp:409] ip3 -> ip3
I0504 03:09:09.456779 23729 net.cpp:144] Setting up ip3
I0504 03:09:09.456789 23729 net.cpp:151] Top shape: 20 50 (1000)
I0504 03:09:09.456794 23729 net.cpp:159] Memory required for data: 3888080
I0504 03:09:09.456799 23729 layer_factory.hpp:77] Creating layer ip3_ip3_0_split
I0504 03:09:09.456806 23729 net.cpp:94] Creating Layer ip3_ip3_0_split
I0504 03:09:09.456810 23729 net.cpp:435] ip3_ip3_0_split <- ip3
I0504 03:09:09.456815 23729 net.cpp:409] ip3_ip3_0_split -> ip3_ip3_0_split_0
I0504 03:09:09.456822 23729 net.cpp:409] ip3_ip3_0_split -> ip3_ip3_0_split_1
I0504 03:09:09.456867 23729 net.cpp:144] Setting up ip3_ip3_0_split
I0504 03:09:09.456881 23729 net.cpp:151] Top shape: 20 50 (1000)
I0504 03:09:09.456884 23729 net.cpp:151] Top shape: 20 50 (1000)
I0504 03:09:09.456888 23729 net.cpp:159] Memory required for data: 3896080
I0504 03:09:09.456892 23729 layer_factory.hpp:77] Creating layer accuracy
I0504 03:09:09.456899 23729 net.cpp:94] Creating Layer accuracy
I0504 03:09:09.456903 23729 net.cpp:435] accuracy <- ip3_ip3_0_split_0
I0504 03:09:09.456908 23729 net.cpp:435] accuracy <- label_intercept_1_split_0
I0504 03:09:09.456913 23729 net.cpp:409] accuracy -> accuracy
…
