…
I0504 12:32:54.237555 26532 net.cpp:323] The NetState phase (0) differed from the phase (1) specified by a rule in layer intercept
I0504 12:32:54.237571 26532 net.cpp:323] The NetState phase (0) differed from the phase (1) specified by a rule in layer loss
I0504 12:32:54.237665 26532 net.cpp:52] Initializing net from parameters: 
state {
  phase: TRAIN
}
layer {
  name: "parameters"
  type: "HDF5Data"
  top: "data"
  top: "label"
  include {
    phase: TRAIN
  }
  hdf5_data_param {
    source: "/home/purduethu/scratch/radon/d/deng106/CNNStatisticalModel/distributions/input/20_distributions_900_sample_size_train-parameters-path.txt"
    batch_size: 20
  }
}
layer {
  name: "conv1"
  type: "Convolution"
  bottom: "data"
  top: "conv1"
  param {
    lr_mult: 1
  }
  param {
    lr_mult: 2
  }
  convolution_param {
    num_output: 64
    pad: 2
    kernel_size: 5
    stride: 1
    weight_filler {
      type: "gaussian"
      std: 0.0001
    }
    bias_filler {
      type: "constant"
    }
  }
}
layer {
  name: "relu1"
  type: "ReLU"
  bottom: "conv1"
  top: "conv1"
}
layer {
  name: "conv2"
  type: "Convolution"
  bottom: "conv1"
  top: "conv2"
  param {
    lr_mult: 1
  }
  param {
    lr_mult: 2
  }
  convolution_param {
    num_output: 64
    pad: 2
    kernel_size: 5
    stride: 1
    weight_filler {
      type: "gaussian"
      std: 0.01
    }
    bias_filler {
      type: "constant"
    }
  }
}
layer {
  name: "relu2"
  type: "ReLU"
  bottom: "conv2"
  top: "conv2"
}
layer {
  name: "pool2"
  type: "Pooling"
  bottom: "conv2"
  top: "pool2"
  pooling_param {
    pool: MAX
    kernel_size: 3
    stride: 2
  }
}
layer {
  name: "conv3"
  type: "Convolution"
  bottom: "pool2"
  top: "conv3"
  param {
    lr_mult: 1
  }
  param {
    lr_mult: 2
  }
  convolution_param {
    num_output: 128
    pad: 2
    kernel_size: 5
    stride: 1
    weight_filler {
      type: "gaussian"
      std: 0.01
    }
    bias_filler {
      type: "constant"
    }
  }
}
layer {
  name: "relu3"
  type: "ReLU"
  bottom: "conv3"
  top: "conv3"
}
layer {
  name: "conv4"
  type: "Convolution"
  bottom: "conv3"
  top: "conv4"
  param {
    lr_mult: 1
  }
  param {
    lr_mult: 2
  }
  convolution_param {
    num_output: 128
    pad: 2
    kernel_size: 5
    stride: 1
    weight_filler {
      type: "gaussian"
      std: 0.01
    }
    bias_filler {
      type: "constant"
    }
  }
}
layer {
  name: "relu4"
  type: "ReLU"
  bottom: "conv4"
  top: "conv4"
}
layer {
  name: "conv5"
  type: "Convolution"
  bottom: "conv4"
  top: "conv5"
  param {
    lr_mult: 1
  }
  param {
    lr_mult: 2
  }
  convolution_param {
    num_output: 128
    pad: 2
    kernel_size: 5
    stride: 1
    weight_filler {
      type: "gaussian"
      std: 0.01
    }
    bias_filler {
      type: "constant"
    }
  }
}
layer {
  name: "relu5"
  type: "ReLU"
  bottom: "conv5"
  top: "conv5"
}
layer {
  name: "pool5"
  type: "Pooling"
  bottom: "conv5"
  top: "pool5"
  pooling_param {
    pool: AVE
    kernel_size: 3
    stride: 2
  }
}
layer {
  name: "ip1"
  type: "InnerProduct"
  bottom: "pool5"
  top: "ip1"
  param {
    lr_mult: 1
  }
  param {
    lr_mult: 2
  }
  inner_product_param {
    num_output: 1024
    weight_filler {
      type: "gaussian"
      std: 0.1
    }
    bias_filler {
      type: "constant"
    }
  }
}
layer {
  name: "ip2"
  type: "InnerProduct"
  bottom: "ip1"
  top: "ip2"
  param {
    lr_mult: 1
  }
  param {
    lr_mult: 2
  }
  inner_product_param {
    num_output: 512
    weight_filler {
      type: "gaussian"
      std: 0.1
    }
    bias_filler {
      type: "constant"
    }
  }
}
layer {
  name: "ip3"
  type: "InnerProduct"
  bottom: "ip2"
  top: "ip3"
  param {
    lr_mult: 1
  }
  param {
    lr_mult: 2
  }
  inner_product_param {
    num_output: 1
    weight_filler {
      type: "gaussian"
      std: 0.1
    }
    bias_filler {
      type: "constant"
    }
  }
}
layer {
  name: "loss"
  type: "HuberLoss"
  bottom: "ip3"
  bottom: "label"
  top: "loss"
  include {
    phase: TRAIN
  }
}
I0504 12:32:54.237742 26532 layer_factory.hpp:77] Creating layer parameters
I0504 12:32:54.237757 26532 net.cpp:94] Creating Layer parameters
I0504 12:32:54.237763 26532 net.cpp:409] parameters -> data
I0504 12:32:54.237783 26532 net.cpp:409] parameters -> label
I0504 12:32:54.237793 26532 hdf5_data_layer.cpp:79] Loading list of HDF5 filenames from: /home/purduethu/scratch/radon/d/deng106/CNNStatisticalModel/distributions/input/20_distributions_900_sample_size_train-parameters-path.txt
I0504 12:32:54.237815 26532 hdf5_data_layer.cpp:93] Number of HDF5 files: 1
I0504 12:32:54.238291 26532 hdf5.cpp:32] Datatype class: H5T_FLOAT
I0504 12:32:54.817780 26532 net.cpp:144] Setting up parameters
I0504 12:32:54.817813 26532 net.cpp:151] Top shape: 20 1 30 30 (18000)
I0504 12:32:54.817818 26532 net.cpp:151] Top shape: 20 (20)
I0504 12:32:54.817822 26532 net.cpp:159] Memory required for data: 72080
I0504 12:32:54.817829 26532 layer_factory.hpp:77] Creating layer conv1
I0504 12:32:54.817849 26532 net.cpp:94] Creating Layer conv1
I0504 12:32:54.817855 26532 net.cpp:435] conv1 <- data
I0504 12:32:54.817867 26532 net.cpp:409] conv1 -> conv1
I0504 12:32:54.823796 26532 net.cpp:144] Setting up conv1
I0504 12:32:54.823812 26532 net.cpp:151] Top shape: 20 64 30 30 (1152000)
I0504 12:32:54.823815 26532 net.cpp:159] Memory required for data: 4680080
I0504 12:32:54.823827 26532 layer_factory.hpp:77] Creating layer relu1
I0504 12:32:54.823834 26532 net.cpp:94] Creating Layer relu1
I0504 12:32:54.823838 26532 net.cpp:435] relu1 <- conv1
I0504 12:32:54.823843 26532 net.cpp:396] relu1 -> conv1 (in-place)
I0504 12:32:54.823855 26532 net.cpp:144] Setting up relu1
I0504 12:32:54.823860 26532 net.cpp:151] Top shape: 20 64 30 30 (1152000)
I0504 12:32:54.823863 26532 net.cpp:159] Memory required for data: 9288080
I0504 12:32:54.823868 26532 layer_factory.hpp:77] Creating layer conv2
I0504 12:32:54.823875 26532 net.cpp:94] Creating Layer conv2
I0504 12:32:54.823879 26532 net.cpp:435] conv2 <- conv1
I0504 12:32:54.823884 26532 net.cpp:409] conv2 -> conv2
I0504 12:32:54.840503 26532 net.cpp:144] Setting up conv2
I0504 12:32:54.840518 26532 net.cpp:151] Top shape: 20 64 30 30 (1152000)
I0504 12:32:54.840523 26532 net.cpp:159] Memory required for data: 13896080
I0504 12:32:54.840531 26532 layer_factory.hpp:77] Creating layer relu2
I0504 12:32:54.840538 26532 net.cpp:94] Creating Layer relu2
I0504 12:32:54.840543 26532 net.cpp:435] relu2 <- conv2
I0504 12:32:54.840548 26532 net.cpp:396] relu2 -> conv2 (in-place)
I0504 12:32:54.840564 26532 net.cpp:144] Setting up relu2
I0504 12:32:54.840569 26532 net.cpp:151] Top shape: 20 64 30 30 (1152000)
I0504 12:32:54.840572 26532 net.cpp:159] Memory required for data: 18504080
I0504 12:32:54.840575 26532 layer_factory.hpp:77] Creating layer pool2
I0504 12:32:54.840584 26532 net.cpp:94] Creating Layer pool2
I0504 12:32:54.840593 26532 net.cpp:435] pool2 <- conv2
I0504 12:32:54.840598 26532 net.cpp:409] pool2 -> pool2
I0504 12:32:54.840643 26532 net.cpp:144] Setting up pool2
I0504 12:32:54.840651 26532 net.cpp:151] Top shape: 20 64 15 15 (288000)
I0504 12:32:54.840656 26532 net.cpp:159] Memory required for data: 19656080
I0504 12:32:54.840658 26532 layer_factory.hpp:77] Creating layer conv3
I0504 12:32:54.840667 26532 net.cpp:94] Creating Layer conv3
I0504 12:32:54.840670 26532 net.cpp:435] conv3 <- pool2
I0504 12:32:54.840674 26532 net.cpp:409] conv3 -> conv3
I0504 12:32:54.853255 26532 net.cpp:144] Setting up conv3
I0504 12:32:54.853271 26532 net.cpp:151] Top shape: 20 128 15 15 (576000)
I0504 12:32:54.853276 26532 net.cpp:159] Memory required for data: 21960080
I0504 12:32:54.853284 26532 layer_factory.hpp:77] Creating layer relu3
I0504 12:32:54.853291 26532 net.cpp:94] Creating Layer relu3
I0504 12:32:54.853294 26532 net.cpp:435] relu3 <- conv3
I0504 12:32:54.853298 26532 net.cpp:396] relu3 -> conv3 (in-place)
I0504 12:32:54.853307 26532 net.cpp:144] Setting up relu3
I0504 12:32:54.853312 26532 net.cpp:151] Top shape: 20 128 15 15 (576000)
I0504 12:32:54.853314 26532 net.cpp:159] Memory required for data: 24264080
I0504 12:32:54.853317 26532 layer_factory.hpp:77] Creating layer conv4
I0504 12:32:54.853327 26532 net.cpp:94] Creating Layer conv4
I0504 12:32:54.853329 26532 net.cpp:435] conv4 <- conv3
I0504 12:32:54.853334 26532 net.cpp:409] conv4 -> conv4
I0504 12:32:54.875030 26532 net.cpp:144] Setting up conv4
I0504 12:32:54.875054 26532 net.cpp:151] Top shape: 20 128 15 15 (576000)
I0504 12:32:54.875061 26532 net.cpp:159] Memory required for data: 26568080
I0504 12:32:54.875072 26532 layer_factory.hpp:77] Creating layer relu4
I0504 12:32:54.875082 26532 net.cpp:94] Creating Layer relu4
I0504 12:32:54.875089 26532 net.cpp:435] relu4 <- conv4
I0504 12:32:54.875097 26532 net.cpp:396] relu4 -> conv4 (in-place)
I0504 12:32:54.875109 26532 net.cpp:144] Setting up relu4
I0504 12:32:54.875118 26532 net.cpp:151] Top shape: 20 128 15 15 (576000)
I0504 12:32:54.875123 26532 net.cpp:159] Memory required for data: 28872080
I0504 12:32:54.875128 26532 layer_factory.hpp:77] Creating layer conv5
I0504 12:32:54.875141 26532 net.cpp:94] Creating Layer conv5
I0504 12:32:54.875147 26532 net.cpp:435] conv5 <- conv4
I0504 12:32:54.875156 26532 net.cpp:409] conv5 -> conv5
I0504 12:32:54.896237 26532 net.cpp:144] Setting up conv5
I0504 12:32:54.896253 26532 net.cpp:151] Top shape: 20 128 15 15 (576000)
I0504 12:32:54.896257 26532 net.cpp:159] Memory required for data: 31176080
I0504 12:32:54.896266 26532 layer_factory.hpp:77] Creating layer relu5
I0504 12:32:54.896272 26532 net.cpp:94] Creating Layer relu5
I0504 12:32:54.896277 26532 net.cpp:435] relu5 <- conv5
I0504 12:32:54.896282 26532 net.cpp:396] relu5 -> conv5 (in-place)
I0504 12:32:54.896289 26532 net.cpp:144] Setting up relu5
I0504 12:32:54.896294 26532 net.cpp:151] Top shape: 20 128 15 15 (576000)
I0504 12:32:54.896297 26532 net.cpp:159] Memory required for data: 33480080
I0504 12:32:54.896301 26532 layer_factory.hpp:77] Creating layer pool5
I0504 12:32:54.896306 26532 net.cpp:94] Creating Layer pool5
I0504 12:32:54.896311 26532 net.cpp:435] pool5 <- conv5
I0504 12:32:54.896314 26532 net.cpp:409] pool5 -> pool5
I0504 12:32:54.896349 26532 net.cpp:144] Setting up pool5
I0504 12:32:54.896356 26532 net.cpp:151] Top shape: 20 128 7 7 (125440)
I0504 12:32:54.896360 26532 net.cpp:159] Memory required for data: 33981840
I0504 12:32:54.896363 26532 layer_factory.hpp:77] Creating layer ip1
I0504 12:32:54.896373 26532 net.cpp:94] Creating Layer ip1
I0504 12:32:54.896378 26532 net.cpp:435] ip1 <- pool5
I0504 12:32:54.896381 26532 net.cpp:409] ip1 -> ip1
I0504 12:32:55.051210 26532 net.cpp:144] Setting up ip1
I0504 12:32:55.051245 26532 net.cpp:151] Top shape: 20 1024 (20480)
I0504 12:32:55.051250 26532 net.cpp:159] Memory required for data: 34063760
I0504 12:32:55.051259 26532 layer_factory.hpp:77] Creating layer ip2
I0504 12:32:55.051270 26532 net.cpp:94] Creating Layer ip2
I0504 12:32:55.051285 26532 net.cpp:435] ip2 <- ip1
I0504 12:32:55.051291 26532 net.cpp:409] ip2 -> ip2
I0504 12:32:55.064239 26532 net.cpp:144] Setting up ip2
I0504 12:32:55.064254 26532 net.cpp:151] Top shape: 20 512 (10240)
I0504 12:32:55.064257 26532 net.cpp:159] Memory required for data: 34104720
I0504 12:32:55.064263 26532 layer_factory.hpp:77] Creating layer ip3
I0504 12:32:55.064270 26532 net.cpp:94] Creating Layer ip3
I0504 12:32:55.064273 26532 net.cpp:435] ip3 <- ip2
I0504 12:32:55.064278 26532 net.cpp:409] ip3 -> ip3
I0504 12:32:55.064354 26532 net.cpp:144] Setting up ip3
I0504 12:32:55.064369 26532 net.cpp:151] Top shape: 20 1 (20)
I0504 12:32:55.064373 26532 net.cpp:159] Memory required for data: 34104800
I0504 12:32:55.064378 26532 layer_factory.hpp:77] Creating layer loss
I0504 12:32:55.064391 26532 net.cpp:94] Creating Layer loss
I0504 12:32:55.064395 26532 net.cpp:435] loss <- ip3
I0504 12:32:55.064399 26532 net.cpp:435] loss <- label
I0504 12:32:55.064405 26532 net.cpp:409] loss -> loss
I0504 12:32:55.064441 26532 net.cpp:144] Setting up loss
…
