…
I0507 13:12:32.878352  1802 net.cpp:323] The NetState phase (0) differed from the phase (1) specified by a rule in layer intercept
I0507 13:12:32.878368  1802 net.cpp:323] The NetState phase (0) differed from the phase (1) specified by a rule in layer loss
I0507 13:12:32.878445  1802 net.cpp:52] Initializing net from parameters: 
state {
  phase: TRAIN
}
layer {
  name: "parameters"
  type: "HDF5Data"
  top: "data"
  top: "label"
  include {
    phase: TRAIN
  }
  hdf5_data_param {
    source: "/home/purduethu/scratch/radon/d/deng106/CNNStatisticalModel/distributions/input/5_distributions_900_sample_size_train-parameters-path.txt"
    batch_size: 20
  }
}
layer {
  name: "conv1"
  type: "Convolution"
  bottom: "data"
  top: "conv1"
  param {
    lr_mult: 1
  }
  param {
    lr_mult: 2
  }
  convolution_param {
    num_output: 64
    pad: 2
    kernel_size: 5
    stride: 1
    weight_filler {
      type: "gaussian"
      std: 0.0001
    }
    bias_filler {
      type: "constant"
    }
  }
}
layer {
  name: "relu1"
  type: "ReLU"
  bottom: "conv1"
  top: "conv1"
}
layer {
  name: "conv2"
  type: "Convolution"
  bottom: "conv1"
  top: "conv2"
  param {
    lr_mult: 1
  }
  param {
    lr_mult: 2
  }
  convolution_param {
    num_output: 64
    pad: 2
    kernel_size: 5
    stride: 1
    weight_filler {
      type: "gaussian"
      std: 0.01
    }
    bias_filler {
      type: "constant"
    }
  }
}
layer {
  name: "relu2"
  type: "ReLU"
  bottom: "conv2"
  top: "conv2"
}
layer {
  name: "pool2"
  type: "Pooling"
  bottom: "conv2"
  top: "pool2"
  pooling_param {
    pool: MAX
    kernel_size: 3
    stride: 2
  }
}
layer {
  name: "conv3"
  type: "Convolution"
  bottom: "pool2"
  top: "conv3"
  param {
    lr_mult: 1
  }
  param {
    lr_mult: 2
  }
  convolution_param {
    num_output: 64
    pad: 2
    kernel_size: 5
    stride: 1
    weight_filler {
      type: "gaussian"
      std: 0.01
    }
    bias_filler {
      type: "constant"
    }
  }
}
layer {
  name: "relu3"
  type: "ReLU"
  bottom: "conv3"
  top: "conv3"
}
layer {
  name: "conv4"
  type: "Convolution"
  bottom: "conv3"
  top: "conv4"
  param {
    lr_mult: 1
  }
  param {
    lr_mult: 2
  }
  convolution_param {
    num_output: 64
    pad: 2
    kernel_size: 5
    stride: 1
    weight_filler {
      type: "gaussian"
      std: 0.01
    }
    bias_filler {
      type: "constant"
    }
  }
}
layer {
  name: "relu4"
  type: "ReLU"
  bottom: "conv4"
  top: "conv4"
}
layer {
  name: "conv5"
  type: "Convolution"
  bottom: "conv4"
  top: "conv5"
  param {
    lr_mult: 1
  }
  param {
    lr_mult: 2
  }
  convolution_param {
    num_output: 64
    pad: 2
    kernel_size: 5
    stride: 1
    weight_filler {
      type: "gaussian"
      std: 0.01
    }
    bias_filler {
      type: "constant"
    }
  }
}
layer {
  name: "relu5"
  type: "ReLU"
  bottom: "conv5"
  top: "conv5"
}
layer {
  name: "pool5"
  type: "Pooling"
  bottom: "conv5"
  top: "pool5"
  pooling_param {
    pool: AVE
    kernel_size: 3
    stride: 2
  }
}
layer {
  name: "ip1"
  type: "InnerProduct"
  bottom: "pool5"
  top: "ip1"
  param {
    lr_mult: 1
  }
  param {
    lr_mult: 2
  }
  inner_product_param {
    num_output: 64
    weight_filler {
      type: "gaussian"
      std: 0.1
    }
    bias_filler {
      type: "constant"
    }
  }
}
layer {
  name: "ip2"
  type: "InnerProduct"
  bottom: "ip1"
  top: "ip2"
  param {
    lr_mult: 1
  }
  param {
    lr_mult: 2
  }
  inner_product_param {
    num_output: 64
    weight_filler {
      type: "gaussian"
      std: 0.1
    }
    bias_filler {
      type: "constant"
    }
  }
}
layer {
  name: "ip3"
  type: "InnerProduct"
  bottom: "ip2"
  top: "ip3"
  param {
    lr_mult: 1
  }
  param {
    lr_mult: 2
  }
  inner_product_param {
    num_output: 1
    weight_filler {
      type: "gaussian"
      std: 0.1
    }
    bias_filler {
      type: "constant"
    }
  }
}
layer {
  name: "loss"
  type: "HuberLoss"
  bottom: "ip3"
  bottom: "label"
  top: "loss"
  include {
    phase: TRAIN
  }
}
I0507 13:12:32.878499  1802 layer_factory.hpp:77] Creating layer parameters
I0507 13:12:32.878510  1802 net.cpp:94] Creating Layer parameters
I0507 13:12:32.878515  1802 net.cpp:409] parameters -> data
I0507 13:12:32.878525  1802 net.cpp:409] parameters -> label
I0507 13:12:32.878532  1802 hdf5_data_layer.cpp:79] Loading list of HDF5 filenames from: /home/purduethu/scratch/radon/d/deng106/CNNStatisticalModel/distributions/input/5_distributions_900_sample_size_train-parameters-path.txt
I0507 13:12:32.878547  1802 hdf5_data_layer.cpp:93] Number of HDF5 files: 1
I0507 13:12:32.879067  1802 hdf5.cpp:32] Datatype class: H5T_FLOAT
I0507 13:12:33.015331  1802 net.cpp:144] Setting up parameters
I0507 13:12:33.015359  1802 net.cpp:151] Top shape: 20 1 30 30 (18000)
I0507 13:12:33.015364  1802 net.cpp:151] Top shape: 20 (20)
I0507 13:12:33.015368  1802 net.cpp:159] Memory required for data: 72080
I0507 13:12:33.015375  1802 layer_factory.hpp:77] Creating layer conv1
I0507 13:12:33.015396  1802 net.cpp:94] Creating Layer conv1
I0507 13:12:33.015401  1802 net.cpp:435] conv1 <- data
I0507 13:12:33.015408  1802 net.cpp:409] conv1 -> conv1
I0507 13:12:33.021819  1802 net.cpp:144] Setting up conv1
I0507 13:12:33.021836  1802 net.cpp:151] Top shape: 20 64 30 30 (1152000)
I0507 13:12:33.021839  1802 net.cpp:159] Memory required for data: 4680080
I0507 13:12:33.021849  1802 layer_factory.hpp:77] Creating layer relu1
I0507 13:12:33.021857  1802 net.cpp:94] Creating Layer relu1
I0507 13:12:33.021862  1802 net.cpp:435] relu1 <- conv1
I0507 13:12:33.021867  1802 net.cpp:396] relu1 -> conv1 (in-place)
I0507 13:12:33.021878  1802 net.cpp:144] Setting up relu1
I0507 13:12:33.021883  1802 net.cpp:151] Top shape: 20 64 30 30 (1152000)
I0507 13:12:33.021885  1802 net.cpp:159] Memory required for data: 9288080
I0507 13:12:33.021888  1802 layer_factory.hpp:77] Creating layer conv2
I0507 13:12:33.021896  1802 net.cpp:94] Creating Layer conv2
I0507 13:12:33.021900  1802 net.cpp:435] conv2 <- conv1
I0507 13:12:33.021905  1802 net.cpp:409] conv2 -> conv2
I0507 13:12:33.037714  1802 net.cpp:144] Setting up conv2
I0507 13:12:33.037729  1802 net.cpp:151] Top shape: 20 64 30 30 (1152000)
I0507 13:12:33.037734  1802 net.cpp:159] Memory required for data: 13896080
I0507 13:12:33.037742  1802 layer_factory.hpp:77] Creating layer relu2
I0507 13:12:33.037750  1802 net.cpp:94] Creating Layer relu2
I0507 13:12:33.037753  1802 net.cpp:435] relu2 <- conv2
I0507 13:12:33.037758  1802 net.cpp:396] relu2 -> conv2 (in-place)
I0507 13:12:33.037765  1802 net.cpp:144] Setting up relu2
I0507 13:12:33.037770  1802 net.cpp:151] Top shape: 20 64 30 30 (1152000)
I0507 13:12:33.037773  1802 net.cpp:159] Memory required for data: 18504080
I0507 13:12:33.037776  1802 layer_factory.hpp:77] Creating layer pool2
I0507 13:12:33.037789  1802 net.cpp:94] Creating Layer pool2
I0507 13:12:33.037792  1802 net.cpp:435] pool2 <- conv2
I0507 13:12:33.037797  1802 net.cpp:409] pool2 -> pool2
I0507 13:12:33.037854  1802 net.cpp:144] Setting up pool2
I0507 13:12:33.037863  1802 net.cpp:151] Top shape: 20 64 15 15 (288000)
I0507 13:12:33.037866  1802 net.cpp:159] Memory required for data: 19656080
I0507 13:12:33.037869  1802 layer_factory.hpp:77] Creating layer conv3
I0507 13:12:33.037878  1802 net.cpp:94] Creating Layer conv3
I0507 13:12:33.037881  1802 net.cpp:435] conv3 <- pool2
I0507 13:12:33.037886  1802 net.cpp:409] conv3 -> conv3
I0507 13:12:33.046345  1802 net.cpp:144] Setting up conv3
I0507 13:12:33.046360  1802 net.cpp:151] Top shape: 20 64 15 15 (288000)
I0507 13:12:33.046365  1802 net.cpp:159] Memory required for data: 20808080
I0507 13:12:33.046372  1802 layer_factory.hpp:77] Creating layer relu3
I0507 13:12:33.046378  1802 net.cpp:94] Creating Layer relu3
I0507 13:12:33.046382  1802 net.cpp:435] relu3 <- conv3
I0507 13:12:33.046387  1802 net.cpp:396] relu3 -> conv3 (in-place)
I0507 13:12:33.046394  1802 net.cpp:144] Setting up relu3
I0507 13:12:33.046399  1802 net.cpp:151] Top shape: 20 64 15 15 (288000)
I0507 13:12:33.046402  1802 net.cpp:159] Memory required for data: 21960080
I0507 13:12:33.046406  1802 layer_factory.hpp:77] Creating layer conv4
I0507 13:12:33.046414  1802 net.cpp:94] Creating Layer conv4
I0507 13:12:33.046418  1802 net.cpp:435] conv4 <- conv3
I0507 13:12:33.046423  1802 net.cpp:409] conv4 -> conv4
I0507 13:12:33.053915  1802 net.cpp:144] Setting up conv4
I0507 13:12:33.053930  1802 net.cpp:151] Top shape: 20 64 15 15 (288000)
I0507 13:12:33.053935  1802 net.cpp:159] Memory required for data: 23112080
I0507 13:12:33.053941  1802 layer_factory.hpp:77] Creating layer relu4
I0507 13:12:33.053946  1802 net.cpp:94] Creating Layer relu4
I0507 13:12:33.053951  1802 net.cpp:435] relu4 <- conv4
I0507 13:12:33.053956  1802 net.cpp:396] relu4 -> conv4 (in-place)
I0507 13:12:33.053963  1802 net.cpp:144] Setting up relu4
I0507 13:12:33.053968  1802 net.cpp:151] Top shape: 20 64 15 15 (288000)
I0507 13:12:33.053972  1802 net.cpp:159] Memory required for data: 24264080
I0507 13:12:33.053974  1802 layer_factory.hpp:77] Creating layer conv5
I0507 13:12:33.053983  1802 net.cpp:94] Creating Layer conv5
I0507 13:12:33.053987  1802 net.cpp:435] conv5 <- conv4
I0507 13:12:33.053992  1802 net.cpp:409] conv5 -> conv5
I0507 13:12:33.061447  1802 net.cpp:144] Setting up conv5
I0507 13:12:33.061461  1802 net.cpp:151] Top shape: 20 64 15 15 (288000)
I0507 13:12:33.061465  1802 net.cpp:159] Memory required for data: 25416080
I0507 13:12:33.061475  1802 layer_factory.hpp:77] Creating layer relu5
I0507 13:12:33.061480  1802 net.cpp:94] Creating Layer relu5
I0507 13:12:33.061484  1802 net.cpp:435] relu5 <- conv5
I0507 13:12:33.061491  1802 net.cpp:396] relu5 -> conv5 (in-place)
I0507 13:12:33.061497  1802 net.cpp:144] Setting up relu5
I0507 13:12:33.061502  1802 net.cpp:151] Top shape: 20 64 15 15 (288000)
I0507 13:12:33.061506  1802 net.cpp:159] Memory required for data: 26568080
I0507 13:12:33.061509  1802 layer_factory.hpp:77] Creating layer pool5
I0507 13:12:33.061514  1802 net.cpp:94] Creating Layer pool5
I0507 13:12:33.061517  1802 net.cpp:435] pool5 <- conv5
I0507 13:12:33.061523  1802 net.cpp:409] pool5 -> pool5
I0507 13:12:33.061566  1802 net.cpp:144] Setting up pool5
I0507 13:12:33.061575  1802 net.cpp:151] Top shape: 20 64 7 7 (62720)
I0507 13:12:33.061578  1802 net.cpp:159] Memory required for data: 26818960
I0507 13:12:33.061583  1802 layer_factory.hpp:77] Creating layer ip1
I0507 13:12:33.061592  1802 net.cpp:94] Creating Layer ip1
I0507 13:12:33.061595  1802 net.cpp:435] ip1 <- pool5
I0507 13:12:33.061601  1802 net.cpp:409] ip1 -> ip1
I0507 13:12:33.067176  1802 net.cpp:144] Setting up ip1
I0507 13:12:33.067190  1802 net.cpp:151] Top shape: 20 64 (1280)
I0507 13:12:33.067194  1802 net.cpp:159] Memory required for data: 26824080
I0507 13:12:33.067200  1802 layer_factory.hpp:77] Creating layer ip2
I0507 13:12:33.067209  1802 net.cpp:94] Creating Layer ip2
I0507 13:12:33.067215  1802 net.cpp:435] ip2 <- ip1
I0507 13:12:33.067220  1802 net.cpp:409] ip2 -> ip2
I0507 13:12:33.067445  1802 net.cpp:144] Setting up ip2
I0507 13:12:33.067452  1802 net.cpp:151] Top shape: 20 64 (1280)
I0507 13:12:33.067456  1802 net.cpp:159] Memory required for data: 26829200
I0507 13:12:33.067461  1802 layer_factory.hpp:77] Creating layer ip3
I0507 13:12:33.067467  1802 net.cpp:94] Creating Layer ip3
I0507 13:12:33.067471  1802 net.cpp:435] ip3 <- ip2
I0507 13:12:33.067476  1802 net.cpp:409] ip3 -> ip3
I0507 13:12:33.067591  1802 net.cpp:144] Setting up ip3
I0507 13:12:33.067600  1802 net.cpp:151] Top shape: 20 1 (20)
I0507 13:12:33.067603  1802 net.cpp:159] Memory required for data: 26829280
I0507 13:12:33.067608  1802 layer_factory.hpp:77] Creating layer loss
I0507 13:12:33.067616  1802 net.cpp:94] Creating Layer loss
I0507 13:12:33.067620  1802 net.cpp:435] loss <- ip3
I0507 13:12:33.067623  1802 net.cpp:435] loss <- label
I0507 13:12:33.067628  1802 net.cpp:409] loss -> loss
I0507 13:12:33.067687  1802 net.cpp:144] Setting up loss
…
I0507 13:12:33.134045  1802 net.cpp:323] The NetState phase (0) differed from the phase (1) specified by a rule in layer intercept
I0507 13:12:33.134061  1802 net.cpp:323] The NetState phase (0) differed from the phase (1) specified by a rule in layer accuracy
I0507 13:12:33.134146  1802 net.cpp:52] Initializing net from parameters: 
state {
  phase: TRAIN
}
layer {
  name: "parameters"
  type: "HDF5Data"
  top: "data"
  top: "label"
  include {
    phase: TRAIN
  }
  hdf5_data_param {
    source: "/home/purduethu/scratch/radon/d/deng106/CNNStatisticalModel/distributions/input/5_distributions_900_sample_size_train-distributions-path.txt"
    batch_size: 20
  }
}
layer {
  name: "conv1"
  type: "Convolution"
  bottom: "data"
  top: "conv1"
  param {
    lr_mult: 1
  }
  param {
    lr_mult: 2
  }
  convolution_param {
    num_output: 64
    pad: 2
    kernel_size: 5
    stride: 1
    weight_filler {
      type: "gaussian"
      std: 0.0001
    }
    bias_filler {
      type: "constant"
    }
  }
}
layer {
  name: "relu1"
  type: "ReLU"
  bottom: "conv1"
  top: "conv1"
}
layer {
  name: "conv2"
  type: "Convolution"
  bottom: "conv1"
  top: "conv2"
  param {
    lr_mult: 1
  }
  param {
    lr_mult: 2
  }
  convolution_param {
    num_output: 64
    pad: 2
    kernel_size: 5
    stride: 1
    weight_filler {
      type: "gaussian"
      std: 0.01
    }
    bias_filler {
      type: "constant"
    }
  }
}
layer {
  name: "relu2"
  type: "ReLU"
  bottom: "conv2"
  top: "conv2"
}
layer {
  name: "pool2"
  type: "Pooling"
  bottom: "conv2"
  top: "pool2"
  pooling_param {
    pool: MAX
    kernel_size: 3
    stride: 2
  }
}
layer {
  name: "conv3"
  type: "Convolution"
  bottom: "pool2"
  top: "conv3"
  param {
    lr_mult: 1
  }
  param {
    lr_mult: 2
  }
  convolution_param {
    num_output: 64
    pad: 2
    kernel_size: 5
    stride: 1
    weight_filler {
      type: "gaussian"
      std: 0.01
    }
    bias_filler {
      type: "constant"
    }
  }
}
layer {
  name: "relu3"
  type: "ReLU"
  bottom: "conv3"
  top: "conv3"
}
layer {
  name: "conv4"
  type: "Convolution"
  bottom: "conv3"
  top: "conv4"
  param {
    lr_mult: 1
  }
  param {
    lr_mult: 2
  }
  convolution_param {
    num_output: 64
    pad: 2
    kernel_size: 5
    stride: 1
    weight_filler {
      type: "gaussian"
      std: 0.01
    }
    bias_filler {
      type: "constant"
    }
  }
}
layer {
  name: "relu4"
  type: "ReLU"
  bottom: "conv4"
  top: "conv4"
}
layer {
  name: "conv5"
  type: "Convolution"
  bottom: "conv4"
  top: "conv5"
  param {
    lr_mult: 1
  }
  param {
    lr_mult: 2
  }
  convolution_param {
    num_output: 64
    pad: 2
    kernel_size: 5
    stride: 1
    weight_filler {
      type: "gaussian"
      std: 0.01
    }
    bias_filler {
      type: "constant"
    }
  }
}
layer {
  name: "relu5"
  type: "ReLU"
  bottom: "conv5"
  top: "conv5"
}
layer {
  name: "pool5"
  type: "Pooling"
  bottom: "conv5"
  top: "pool5"
  pooling_param {
    pool: AVE
    kernel_size: 3
    stride: 2
  }
}
layer {
  name: "ip1"
  type: "InnerProduct"
  bottom: "pool5"
  top: "ip1"
  param {
    lr_mult: 1
  }
  param {
    lr_mult: 2
  }
  inner_product_param {
    num_output: 64
    weight_filler {
      type: "gaussian"
      std: 0.1
    }
    bias_filler {
      type: "constant"
    }
  }
}
layer {
  name: "ip2"
  type: "InnerProduct"
  bottom: "ip1"
  top: "ip2"
  param {
    lr_mult: 1
  }
  param {
    lr_mult: 2
  }
  inner_product_param {
    num_output: 64
    weight_filler {
      type: "gaussian"
      std: 0.1
    }
    bias_filler {
      type: "constant"
    }
  }
}
layer {
  name: "ip3"
  type: "InnerProduct"
  bottom: "ip2"
  top: "ip3"
  param {
    lr_mult: 1
  }
  param {
    lr_mult: 2
  }
  inner_product_param {
    num_output: 50
    weight_filler {
      type: "gaussian"
      std: 0.1
    }
    bias_filler {
      type: "constant"
    }
  }
}
layer {
  name: "loss"
  type: "SoftmaxWithLoss"
  bottom: "ip3"
  bottom: "label"
  top: "loss"
}
I0507 13:12:33.134197  1802 layer_factory.hpp:77] Creating layer parameters
I0507 13:12:33.134205  1802 net.cpp:94] Creating Layer parameters
I0507 13:12:33.134209  1802 net.cpp:409] parameters -> data
I0507 13:12:33.134217  1802 net.cpp:409] parameters -> label
I0507 13:12:33.134222  1802 hdf5_data_layer.cpp:79] Loading list of HDF5 filenames from: /home/purduethu/scratch/radon/d/deng106/CNNStatisticalModel/distributions/input/5_distributions_900_sample_size_train-distributions-path.txt
I0507 13:12:33.134238  1802 hdf5_data_layer.cpp:93] Number of HDF5 files: 1
I0507 13:12:33.267832  1802 hdf5.cpp:35] Datatype class: H5T_INTEGER
I0507 13:12:33.268271  1802 net.cpp:144] Setting up parameters
I0507 13:12:33.268285  1802 net.cpp:151] Top shape: 20 1 30 30 (18000)
I0507 13:12:33.268290  1802 net.cpp:151] Top shape: 20 (20)
I0507 13:12:33.268295  1802 net.cpp:159] Memory required for data: 72080
I0507 13:12:33.268301  1802 layer_factory.hpp:77] Creating layer conv1
I0507 13:12:33.268317  1802 net.cpp:94] Creating Layer conv1
I0507 13:12:33.268321  1802 net.cpp:435] conv1 <- data
I0507 13:12:33.268328  1802 net.cpp:409] conv1 -> conv1
I0507 13:12:33.271816  1802 net.cpp:144] Setting up conv1
I0507 13:12:33.271831  1802 net.cpp:151] Top shape: 20 64 30 30 (1152000)
I0507 13:12:33.271836  1802 net.cpp:159] Memory required for data: 4680080
I0507 13:12:33.271847  1802 layer_factory.hpp:77] Creating layer relu1
I0507 13:12:33.271855  1802 net.cpp:94] Creating Layer relu1
I0507 13:12:33.271858  1802 net.cpp:435] relu1 <- conv1
I0507 13:12:33.271863  1802 net.cpp:396] relu1 -> conv1 (in-place)
I0507 13:12:33.271872  1802 net.cpp:144] Setting up relu1
I0507 13:12:33.271877  1802 net.cpp:151] Top shape: 20 64 30 30 (1152000)
I0507 13:12:33.271879  1802 net.cpp:159] Memory required for data: 9288080
I0507 13:12:33.271883  1802 layer_factory.hpp:77] Creating layer conv2
I0507 13:12:33.271891  1802 net.cpp:94] Creating Layer conv2
I0507 13:12:33.271895  1802 net.cpp:435] conv2 <- conv1
I0507 13:12:33.271899  1802 net.cpp:409] conv2 -> conv2
I0507 13:12:33.287091  1802 net.cpp:144] Setting up conv2
I0507 13:12:33.287117  1802 net.cpp:151] Top shape: 20 64 30 30 (1152000)
I0507 13:12:33.287124  1802 net.cpp:159] Memory required for data: 13896080
I0507 13:12:33.287139  1802 layer_factory.hpp:77] Creating layer relu2
I0507 13:12:33.287150  1802 net.cpp:94] Creating Layer relu2
I0507 13:12:33.287158  1802 net.cpp:435] relu2 <- conv2
I0507 13:12:33.287166  1802 net.cpp:396] relu2 -> conv2 (in-place)
I0507 13:12:33.287179  1802 net.cpp:144] Setting up relu2
I0507 13:12:33.287187  1802 net.cpp:151] Top shape: 20 64 30 30 (1152000)
I0507 13:12:33.287194  1802 net.cpp:159] Memory required for data: 18504080
I0507 13:12:33.287199  1802 layer_factory.hpp:77] Creating layer pool2
I0507 13:12:33.287209  1802 net.cpp:94] Creating Layer pool2
I0507 13:12:33.287215  1802 net.cpp:435] pool2 <- conv2
I0507 13:12:33.287223  1802 net.cpp:409] pool2 -> pool2
I0507 13:12:33.287322  1802 net.cpp:144] Setting up pool2
I0507 13:12:33.287336  1802 net.cpp:151] Top shape: 20 64 15 15 (288000)
I0507 13:12:33.287343  1802 net.cpp:159] Memory required for data: 19656080
I0507 13:12:33.287348  1802 layer_factory.hpp:77] Creating layer conv3
I0507 13:12:33.287361  1802 net.cpp:94] Creating Layer conv3
I0507 13:12:33.287369  1802 net.cpp:435] conv3 <- pool2
I0507 13:12:33.287385  1802 net.cpp:409] conv3 -> conv3
I0507 13:12:33.296169  1802 net.cpp:144] Setting up conv3
I0507 13:12:33.296206  1802 net.cpp:151] Top shape: 20 64 15 15 (288000)
I0507 13:12:33.296219  1802 net.cpp:159] Memory required for data: 20808080
I0507 13:12:33.296242  1802 layer_factory.hpp:77] Creating layer relu3
I0507 13:12:33.296258  1802 net.cpp:94] Creating Layer relu3
I0507 13:12:33.296269  1802 net.cpp:435] relu3 <- conv3
I0507 13:12:33.296283  1802 net.cpp:396] relu3 -> conv3 (in-place)
I0507 13:12:33.296303  1802 net.cpp:144] Setting up relu3
I0507 13:12:33.296317  1802 net.cpp:151] Top shape: 20 64 15 15 (288000)
I0507 13:12:33.296327  1802 net.cpp:159] Memory required for data: 21960080
I0507 13:12:33.296336  1802 layer_factory.hpp:77] Creating layer conv4
I0507 13:12:33.296358  1802 net.cpp:94] Creating Layer conv4
I0507 13:12:33.296362  1802 net.cpp:435] conv4 <- conv3
I0507 13:12:33.296367  1802 net.cpp:409] conv4 -> conv4
I0507 13:12:33.304070  1802 net.cpp:144] Setting up conv4
I0507 13:12:33.304085  1802 net.cpp:151] Top shape: 20 64 15 15 (288000)
I0507 13:12:33.304090  1802 net.cpp:159] Memory required for data: 23112080
I0507 13:12:33.304096  1802 layer_factory.hpp:77] Creating layer relu4
I0507 13:12:33.304103  1802 net.cpp:94] Creating Layer relu4
I0507 13:12:33.304106  1802 net.cpp:435] relu4 <- conv4
I0507 13:12:33.304111  1802 net.cpp:396] relu4 -> conv4 (in-place)
I0507 13:12:33.304119  1802 net.cpp:144] Setting up relu4
I0507 13:12:33.304124  1802 net.cpp:151] Top shape: 20 64 15 15 (288000)
I0507 13:12:33.304127  1802 net.cpp:159] Memory required for data: 24264080
I0507 13:12:33.304131  1802 layer_factory.hpp:77] Creating layer conv5
I0507 13:12:33.304139  1802 net.cpp:94] Creating Layer conv5
I0507 13:12:33.304143  1802 net.cpp:435] conv5 <- conv4
I0507 13:12:33.304148  1802 net.cpp:409] conv5 -> conv5
I0507 13:12:33.312618  1802 net.cpp:144] Setting up conv5
I0507 13:12:33.312633  1802 net.cpp:151] Top shape: 20 64 15 15 (288000)
I0507 13:12:33.312638  1802 net.cpp:159] Memory required for data: 25416080
I0507 13:12:33.312646  1802 layer_factory.hpp:77] Creating layer relu5
I0507 13:12:33.312654  1802 net.cpp:94] Creating Layer relu5
I0507 13:12:33.312657  1802 net.cpp:435] relu5 <- conv5
I0507 13:12:33.312662  1802 net.cpp:396] relu5 -> conv5 (in-place)
I0507 13:12:33.312669  1802 net.cpp:144] Setting up relu5
I0507 13:12:33.312674  1802 net.cpp:151] Top shape: 20 64 15 15 (288000)
I0507 13:12:33.312677  1802 net.cpp:159] Memory required for data: 26568080
I0507 13:12:33.312681  1802 layer_factory.hpp:77] Creating layer pool5
I0507 13:12:33.312686  1802 net.cpp:94] Creating Layer pool5
I0507 13:12:33.312690  1802 net.cpp:435] pool5 <- conv5
I0507 13:12:33.312696  1802 net.cpp:409] pool5 -> pool5
I0507 13:12:33.312741  1802 net.cpp:144] Setting up pool5
I0507 13:12:33.312749  1802 net.cpp:151] Top shape: 20 64 7 7 (62720)
I0507 13:12:33.312752  1802 net.cpp:159] Memory required for data: 26818960
I0507 13:12:33.312755  1802 layer_factory.hpp:77] Creating layer ip1
I0507 13:12:33.312762  1802 net.cpp:94] Creating Layer ip1
I0507 13:12:33.312767  1802 net.cpp:435] ip1 <- pool5
I0507 13:12:33.312772  1802 net.cpp:409] ip1 -> ip1
I0507 13:12:33.317796  1802 net.cpp:144] Setting up ip1
I0507 13:12:33.317807  1802 net.cpp:151] Top shape: 20 64 (1280)
I0507 13:12:33.317811  1802 net.cpp:159] Memory required for data: 26824080
I0507 13:12:33.317816  1802 layer_factory.hpp:77] Creating layer ip2
I0507 13:12:33.317824  1802 net.cpp:94] Creating Layer ip2
I0507 13:12:33.317827  1802 net.cpp:435] ip2 <- ip1
I0507 13:12:33.317832  1802 net.cpp:409] ip2 -> ip2
I0507 13:12:33.318078  1802 net.cpp:144] Setting up ip2
I0507 13:12:33.318086  1802 net.cpp:151] Top shape: 20 64 (1280)
I0507 13:12:33.318089  1802 net.cpp:159] Memory required for data: 26829200
I0507 13:12:33.318095  1802 layer_factory.hpp:77] Creating layer ip3
I0507 13:12:33.318101  1802 net.cpp:94] Creating Layer ip3
I0507 13:12:33.318104  1802 net.cpp:435] ip3 <- ip2
I0507 13:12:33.318114  1802 net.cpp:409] ip3 -> ip3
I0507 13:12:33.318337  1802 net.cpp:144] Setting up ip3
I0507 13:12:33.318346  1802 net.cpp:151] Top shape: 20 50 (1000)
I0507 13:12:33.318349  1802 net.cpp:159] Memory required for data: 26833200
I0507 13:12:33.318354  1802 layer_factory.hpp:77] Creating layer loss
I0507 13:12:33.318362  1802 net.cpp:94] Creating Layer loss
I0507 13:12:33.318367  1802 net.cpp:435] loss <- ip3
I0507 13:12:33.318370  1802 net.cpp:435] loss <- label
I0507 13:12:33.318375  1802 net.cpp:409] loss -> loss
I0507 13:12:33.318382  1802 layer_factory.hpp:77] Creating layer loss
…
I0507 13:12:33.318925  1802 solver.cpp:181] Creating test net (#0) specified by net file: ./protocol/dis_5_900_dimension.protocol_distribution
I0507 13:12:33.318953  1802 net.cpp:323] The NetState phase (1) differed from the phase (0) specified by a rule in layer parameters
I0507 13:12:33.319051  1802 net.cpp:52] Initializing net from parameters: 
state {
  phase: TEST
}
layer {
  name: "intercept"
  type: "HDF5Data"
  top: "data"
  top: "label"
  include {
    phase: TEST
  }
  hdf5_data_param {
    source: "/home/purduethu/scratch/radon/d/deng106/CNNStatisticalModel/distributions/input/5_distributions_900_sample_size_test-distributions-path.txt"
    batch_size: 20
  }
}
layer {
  name: "conv1"
  type: "Convolution"
  bottom: "data"
  top: "conv1"
  param {
    lr_mult: 1
  }
  param {
    lr_mult: 2
  }
  convolution_param {
    num_output: 64
    pad: 2
    kernel_size: 5
    stride: 1
    weight_filler {
      type: "gaussian"
      std: 0.0001
    }
    bias_filler {
      type: "constant"
    }
  }
}
layer {
  name: "relu1"
  type: "ReLU"
  bottom: "conv1"
  top: "conv1"
}
layer {
  name: "conv2"
  type: "Convolution"
  bottom: "conv1"
  top: "conv2"
  param {
    lr_mult: 1
  }
  param {
    lr_mult: 2
  }
  convolution_param {
    num_output: 64
    pad: 2
    kernel_size: 5
    stride: 1
    weight_filler {
      type: "gaussian"
      std: 0.01
    }
    bias_filler {
      type: "constant"
    }
  }
}
layer {
  name: "relu2"
  type: "ReLU"
  bottom: "conv2"
  top: "conv2"
}
layer {
  name: "pool2"
  type: "Pooling"
  bottom: "conv2"
  top: "pool2"
  pooling_param {
    pool: MAX
    kernel_size: 3
    stride: 2
  }
}
layer {
  name: "conv3"
  type: "Convolution"
  bottom: "pool2"
  top: "conv3"
  param {
    lr_mult: 1
  }
  param {
    lr_mult: 2
  }
  convolution_param {
    num_output: 64
    pad: 2
    kernel_size: 5
    stride: 1
    weight_filler {
      type: "gaussian"
      std: 0.01
    }
    bias_filler {
      type: "constant"
    }
  }
}
layer {
  name: "relu3"
  type: "ReLU"
  bottom: "conv3"
  top: "conv3"
}
layer {
  name: "conv4"
  type: "Convolution"
  bottom: "conv3"
  top: "conv4"
  param {
    lr_mult: 1
  }
  param {
    lr_mult: 2
  }
  convolution_param {
    num_output: 64
    pad: 2
    kernel_size: 5
    stride: 1
    weight_filler {
      type: "gaussian"
      std: 0.01
    }
    bias_filler {
      type: "constant"
    }
  }
}
layer {
  name: "relu4"
  type: "ReLU"
  bottom: "conv4"
  top: "conv4"
}
layer {
  name: "conv5"
  type: "Convolution"
  bottom: "conv4"
  top: "conv5"
  param {
    lr_mult: 1
  }
  param {
    lr_mult: 2
  }
  convolution_param {
    num_output: 64
    pad: 2
    kernel_size: 5
    stride: 1
    weight_filler {
      type: "gaussian"
      std: 0.01
    }
    bias_filler {
      type: "constant"
    }
  }
}
layer {
  name: "relu5"
  type: "ReLU"
  bottom: "conv5"
  top: "conv5"
}
layer {
  name: "pool5"
  type: "Pooling"
  bottom: "conv5"
  top: "pool5"
  pooling_param {
    pool: AVE
    kernel_size: 3
    stride: 2
  }
}
layer {
  name: "ip1"
  type: "InnerProduct"
  bottom: "pool5"
  top: "ip1"
  param {
    lr_mult: 1
  }
  param {
    lr_mult: 2
  }
  inner_product_param {
    num_output: 64
    weight_filler {
      type: "gaussian"
      std: 0.1
    }
    bias_filler {
      type: "constant"
    }
  }
}
layer {
  name: "ip2"
  type: "InnerProduct"
  bottom: "ip1"
  top: "ip2"
  param {
    lr_mult: 1
  }
  param {
    lr_mult: 2
  }
  inner_product_param {
    num_output: 64
    weight_filler {
      type: "gaussian"
      std: 0.1
    }
    bias_filler {
      type: "constant"
    }
  }
}
layer {
  name: "ip3"
  type: "InnerProduct"
  bottom: "ip2"
  top: "ip3"
  param {
    lr_mult: 1
  }
  param {
    lr_mult: 2
  }
  inner_product_param {
    num_output: 50
    weight_filler {
      type: "gaussian"
      std: 0.1
    }
    bias_filler {
      type: "constant"
    }
  }
}
layer {
  name: "accuracy"
  type: "Accuracy"
  bottom: "ip3"
  bottom: "label"
  top: "accuracy"
  include {
    phase: TEST
  }
}
layer {
  name: "loss"
  type: "SoftmaxWithLoss"
  bottom: "ip3"
  bottom: "label"
  top: "loss"
}
I0507 13:12:33.319121  1802 layer_factory.hpp:77] Creating layer intercept
I0507 13:12:33.319129  1802 net.cpp:94] Creating Layer intercept
I0507 13:12:33.319133  1802 net.cpp:409] intercept -> data
I0507 13:12:33.319140  1802 net.cpp:409] intercept -> label
I0507 13:12:33.319146  1802 hdf5_data_layer.cpp:79] Loading list of HDF5 filenames from: /home/purduethu/scratch/radon/d/deng106/CNNStatisticalModel/distributions/input/5_distributions_900_sample_size_test-distributions-path.txt
I0507 13:12:33.319166  1802 hdf5_data_layer.cpp:93] Number of HDF5 files: 1
I0507 13:12:33.354169  1802 net.cpp:144] Setting up intercept
I0507 13:12:33.354203  1802 net.cpp:151] Top shape: 20 1 30 30 (18000)
I0507 13:12:33.354208  1802 net.cpp:151] Top shape: 20 (20)
I0507 13:12:33.354212  1802 net.cpp:159] Memory required for data: 72080
I0507 13:12:33.354218  1802 layer_factory.hpp:77] Creating layer label_intercept_1_split
I0507 13:12:33.354236  1802 net.cpp:94] Creating Layer label_intercept_1_split
I0507 13:12:33.354240  1802 net.cpp:435] label_intercept_1_split <- label
I0507 13:12:33.354246  1802 net.cpp:409] label_intercept_1_split -> label_intercept_1_split_0
I0507 13:12:33.354255  1802 net.cpp:409] label_intercept_1_split -> label_intercept_1_split_1
I0507 13:12:33.354300  1802 net.cpp:144] Setting up label_intercept_1_split
I0507 13:12:33.354307  1802 net.cpp:151] Top shape: 20 (20)
I0507 13:12:33.354311  1802 net.cpp:151] Top shape: 20 (20)
I0507 13:12:33.354315  1802 net.cpp:159] Memory required for data: 72240
I0507 13:12:33.354317  1802 layer_factory.hpp:77] Creating layer conv1
I0507 13:12:33.354328  1802 net.cpp:94] Creating Layer conv1
I0507 13:12:33.354332  1802 net.cpp:435] conv1 <- data
I0507 13:12:33.354337  1802 net.cpp:409] conv1 -> conv1
I0507 13:12:33.355866  1802 net.cpp:144] Setting up conv1
I0507 13:12:33.355888  1802 net.cpp:151] Top shape: 20 64 30 30 (1152000)
I0507 13:12:33.355892  1802 net.cpp:159] Memory required for data: 4680240
I0507 13:12:33.355902  1802 layer_factory.hpp:77] Creating layer relu1
I0507 13:12:33.355909  1802 net.cpp:94] Creating Layer relu1
I0507 13:12:33.355913  1802 net.cpp:435] relu1 <- conv1
I0507 13:12:33.355917  1802 net.cpp:396] relu1 -> conv1 (in-place)
I0507 13:12:33.355926  1802 net.cpp:144] Setting up relu1
I0507 13:12:33.355931  1802 net.cpp:151] Top shape: 20 64 30 30 (1152000)
I0507 13:12:33.355933  1802 net.cpp:159] Memory required for data: 9288240
I0507 13:12:33.355937  1802 layer_factory.hpp:77] Creating layer conv2
I0507 13:12:33.355945  1802 net.cpp:94] Creating Layer conv2
I0507 13:12:33.355948  1802 net.cpp:435] conv2 <- conv1
I0507 13:12:33.355953  1802 net.cpp:409] conv2 -> conv2
I0507 13:12:33.362314  1802 net.cpp:144] Setting up conv2
I0507 13:12:33.362329  1802 net.cpp:151] Top shape: 20 64 30 30 (1152000)
I0507 13:12:33.362332  1802 net.cpp:159] Memory required for data: 13896240
I0507 13:12:33.362340  1802 layer_factory.hpp:77] Creating layer relu2
I0507 13:12:33.362346  1802 net.cpp:94] Creating Layer relu2
I0507 13:12:33.362349  1802 net.cpp:435] relu2 <- conv2
I0507 13:12:33.362354  1802 net.cpp:396] relu2 -> conv2 (in-place)
I0507 13:12:33.362361  1802 net.cpp:144] Setting up relu2
I0507 13:12:33.362366  1802 net.cpp:151] Top shape: 20 64 30 30 (1152000)
I0507 13:12:33.362370  1802 net.cpp:159] Memory required for data: 18504240
I0507 13:12:33.362372  1802 layer_factory.hpp:77] Creating layer pool2
I0507 13:12:33.362380  1802 net.cpp:94] Creating Layer pool2
I0507 13:12:33.362382  1802 net.cpp:435] pool2 <- conv2
I0507 13:12:33.362386  1802 net.cpp:409] pool2 -> pool2
I0507 13:12:33.362443  1802 net.cpp:144] Setting up pool2
I0507 13:12:33.362450  1802 net.cpp:151] Top shape: 20 64 15 15 (288000)
I0507 13:12:33.362453  1802 net.cpp:159] Memory required for data: 19656240
I0507 13:12:33.362457  1802 layer_factory.hpp:77] Creating layer conv3
I0507 13:12:33.362465  1802 net.cpp:94] Creating Layer conv3
I0507 13:12:33.362469  1802 net.cpp:435] conv3 <- pool2
I0507 13:12:33.362473  1802 net.cpp:409] conv3 -> conv3
I0507 13:12:33.367538  1802 net.cpp:144] Setting up conv3
I0507 13:12:33.367553  1802 net.cpp:151] Top shape: 20 64 15 15 (288000)
I0507 13:12:33.367558  1802 net.cpp:159] Memory required for data: 20808240
I0507 13:12:33.367565  1802 layer_factory.hpp:77] Creating layer relu3
I0507 13:12:33.367573  1802 net.cpp:94] Creating Layer relu3
I0507 13:12:33.367576  1802 net.cpp:435] relu3 <- conv3
I0507 13:12:33.367581  1802 net.cpp:396] relu3 -> conv3 (in-place)
I0507 13:12:33.367589  1802 net.cpp:144] Setting up relu3
I0507 13:12:33.367594  1802 net.cpp:151] Top shape: 20 64 15 15 (288000)
I0507 13:12:33.367597  1802 net.cpp:159] Memory required for data: 21960240
I0507 13:12:33.367600  1802 layer_factory.hpp:77] Creating layer conv4
I0507 13:12:33.367607  1802 net.cpp:94] Creating Layer conv4
I0507 13:12:33.367611  1802 net.cpp:435] conv4 <- conv3
I0507 13:12:33.367616  1802 net.cpp:409] conv4 -> conv4
I0507 13:12:33.373037  1802 net.cpp:144] Setting up conv4
I0507 13:12:33.373054  1802 net.cpp:151] Top shape: 20 64 15 15 (288000)
I0507 13:12:33.373057  1802 net.cpp:159] Memory required for data: 23112240
I0507 13:12:33.373064  1802 layer_factory.hpp:77] Creating layer relu4
I0507 13:12:33.373070  1802 net.cpp:94] Creating Layer relu4
I0507 13:12:33.373073  1802 net.cpp:435] relu4 <- conv4
I0507 13:12:33.373078  1802 net.cpp:396] relu4 -> conv4 (in-place)
I0507 13:12:33.373086  1802 net.cpp:144] Setting up relu4
I0507 13:12:33.373091  1802 net.cpp:151] Top shape: 20 64 15 15 (288000)
I0507 13:12:33.373095  1802 net.cpp:159] Memory required for data: 24264240
I0507 13:12:33.373097  1802 layer_factory.hpp:77] Creating layer conv5
I0507 13:12:33.373106  1802 net.cpp:94] Creating Layer conv5
I0507 13:12:33.373109  1802 net.cpp:435] conv5 <- conv4
I0507 13:12:33.373114  1802 net.cpp:409] conv5 -> conv5
I0507 13:12:33.377677  1802 net.cpp:144] Setting up conv5
I0507 13:12:33.377696  1802 net.cpp:151] Top shape: 20 64 15 15 (288000)
I0507 13:12:33.377701  1802 net.cpp:159] Memory required for data: 25416240
I0507 13:12:33.377710  1802 layer_factory.hpp:77] Creating layer relu5
I0507 13:12:33.377717  1802 net.cpp:94] Creating Layer relu5
I0507 13:12:33.377720  1802 net.cpp:435] relu5 <- conv5
I0507 13:12:33.377725  1802 net.cpp:396] relu5 -> conv5 (in-place)
I0507 13:12:33.377732  1802 net.cpp:144] Setting up relu5
I0507 13:12:33.377737  1802 net.cpp:151] Top shape: 20 64 15 15 (288000)
I0507 13:12:33.377740  1802 net.cpp:159] Memory required for data: 26568240
I0507 13:12:33.377743  1802 layer_factory.hpp:77] Creating layer pool5
I0507 13:12:33.377749  1802 net.cpp:94] Creating Layer pool5
I0507 13:12:33.377753  1802 net.cpp:435] pool5 <- conv5
I0507 13:12:33.377756  1802 net.cpp:409] pool5 -> pool5
I0507 13:12:33.377797  1802 net.cpp:144] Setting up pool5
I0507 13:12:33.377805  1802 net.cpp:151] Top shape: 20 64 7 7 (62720)
I0507 13:12:33.377809  1802 net.cpp:159] Memory required for data: 26819120
I0507 13:12:33.377812  1802 layer_factory.hpp:77] Creating layer ip1
I0507 13:12:33.377818  1802 net.cpp:94] Creating Layer ip1
I0507 13:12:33.377822  1802 net.cpp:435] ip1 <- pool5
I0507 13:12:33.377827  1802 net.cpp:409] ip1 -> ip1
I0507 13:12:33.382623  1802 net.cpp:144] Setting up ip1
I0507 13:12:33.382634  1802 net.cpp:151] Top shape: 20 64 (1280)
I0507 13:12:33.382637  1802 net.cpp:159] Memory required for data: 26824240
I0507 13:12:33.382643  1802 layer_factory.hpp:77] Creating layer ip2
I0507 13:12:33.382649  1802 net.cpp:94] Creating Layer ip2
I0507 13:12:33.382653  1802 net.cpp:435] ip2 <- ip1
I0507 13:12:33.382658  1802 net.cpp:409] ip2 -> ip2
I0507 13:12:33.382891  1802 net.cpp:144] Setting up ip2
I0507 13:12:33.382899  1802 net.cpp:151] Top shape: 20 64 (1280)
I0507 13:12:33.382903  1802 net.cpp:159] Memory required for data: 26829360
I0507 13:12:33.382908  1802 layer_factory.hpp:77] Creating layer ip3
I0507 13:12:33.382915  1802 net.cpp:94] Creating Layer ip3
I0507 13:12:33.382918  1802 net.cpp:435] ip3 <- ip2
I0507 13:12:33.382923  1802 net.cpp:409] ip3 -> ip3
I0507 13:12:33.383129  1802 net.cpp:144] Setting up ip3
I0507 13:12:33.383137  1802 net.cpp:151] Top shape: 20 50 (1000)
I0507 13:12:33.383141  1802 net.cpp:159] Memory required for data: 26833360
I0507 13:12:33.383146  1802 layer_factory.hpp:77] Creating layer ip3_ip3_0_split
I0507 13:12:33.383150  1802 net.cpp:94] Creating Layer ip3_ip3_0_split
I0507 13:12:33.383154  1802 net.cpp:435] ip3_ip3_0_split <- ip3
I0507 13:12:33.383158  1802 net.cpp:409] ip3_ip3_0_split -> ip3_ip3_0_split_0
I0507 13:12:33.383164  1802 net.cpp:409] ip3_ip3_0_split -> ip3_ip3_0_split_1
I0507 13:12:33.383208  1802 net.cpp:144] Setting up ip3_ip3_0_split
I0507 13:12:33.383214  1802 net.cpp:151] Top shape: 20 50 (1000)
I0507 13:12:33.383219  1802 net.cpp:151] Top shape: 20 50 (1000)
I0507 13:12:33.383221  1802 net.cpp:159] Memory required for data: 26841360
I0507 13:12:33.383225  1802 layer_factory.hpp:77] Creating layer accuracy
I0507 13:12:33.383230  1802 net.cpp:94] Creating Layer accuracy
I0507 13:12:33.383234  1802 net.cpp:435] accuracy <- ip3_ip3_0_split_0
I0507 13:12:33.383239  1802 net.cpp:435] accuracy <- label_intercept_1_split_0
I0507 13:12:33.383242  1802 net.cpp:409] accuracy -> accuracy
…
