…
I0503 23:15:19.038687 22940 net.cpp:323] The NetState phase (0) differed from the phase (1) specified by a rule in layer intercept
I0503 23:15:19.038703 22940 net.cpp:323] The NetState phase (0) differed from the phase (1) specified by a rule in layer loss
I0503 23:15:19.038784 22940 net.cpp:52] Initializing net from parameters: 
state {
  phase: TRAIN
}
layer {
  name: "parameters"
  type: "HDF5Data"
  top: "data"
  top: "label"
  include {
    phase: TRAIN
  }
  hdf5_data_param {
    source: "/home/purduethu/scratch/radon/d/deng106/CNNStatisticalModel/distributions/input/20_distributions_400_sample_size_train-parameters-path.txt"
    batch_size: 20
  }
}
layer {
  name: "conv1"
  type: "Convolution"
  bottom: "data"
  top: "conv1"
  param {
    lr_mult: 1
  }
  param {
    lr_mult: 2
  }
  convolution_param {
    num_output: 64
    pad: 2
    kernel_size: 5
    stride: 1
    weight_filler {
      type: "gaussian"
      std: 0.0001
    }
    bias_filler {
      type: "constant"
    }
  }
}
layer {
  name: "relu1"
  type: "ReLU"
  bottom: "conv1"
  top: "conv1"
}
layer {
  name: "conv2"
  type: "Convolution"
  bottom: "conv1"
  top: "conv2"
  param {
    lr_mult: 1
  }
  param {
    lr_mult: 2
  }
  convolution_param {
    num_output: 64
    pad: 2
    kernel_size: 5
    stride: 1
    weight_filler {
      type: "gaussian"
      std: 0.01
    }
    bias_filler {
      type: "constant"
    }
  }
}
layer {
  name: "relu2"
  type: "ReLU"
  bottom: "conv2"
  top: "conv2"
}
layer {
  name: "pool2"
  type: "Pooling"
  bottom: "conv2"
  top: "pool2"
  pooling_param {
    pool: MAX
    kernel_size: 3
    stride: 2
  }
}
layer {
  name: "conv3"
  type: "Convolution"
  bottom: "pool2"
  top: "conv3"
  param {
    lr_mult: 1
  }
  param {
    lr_mult: 2
  }
  convolution_param {
    num_output: 128
    pad: 2
    kernel_size: 5
    stride: 1
    weight_filler {
      type: "gaussian"
      std: 0.01
    }
    bias_filler {
      type: "constant"
    }
  }
}
layer {
  name: "relu3"
  type: "ReLU"
  bottom: "conv3"
  top: "conv3"
}
layer {
  name: "conv4"
  type: "Convolution"
  bottom: "conv3"
  top: "conv4"
  param {
    lr_mult: 1
  }
  param {
    lr_mult: 2
  }
  convolution_param {
    num_output: 128
    pad: 2
    kernel_size: 5
    stride: 1
    weight_filler {
      type: "gaussian"
      std: 0.01
    }
    bias_filler {
      type: "constant"
    }
  }
}
layer {
  name: "relu4"
  type: "ReLU"
  bottom: "conv4"
  top: "conv4"
}
layer {
  name: "conv5"
  type: "Convolution"
  bottom: "conv4"
  top: "conv5"
  param {
    lr_mult: 1
  }
  param {
    lr_mult: 2
  }
  convolution_param {
    num_output: 128
    pad: 2
    kernel_size: 5
    stride: 1
    weight_filler {
      type: "gaussian"
      std: 0.01
    }
    bias_filler {
      type: "constant"
    }
  }
}
layer {
  name: "relu5"
  type: "ReLU"
  bottom: "conv5"
  top: "conv5"
}
layer {
  name: "pool5"
  type: "Pooling"
  bottom: "conv5"
  top: "pool5"
  pooling_param {
    pool: AVE
    kernel_size: 3
    stride: 2
  }
}
layer {
  name: "ip1"
  type: "InnerProduct"
  bottom: "pool5"
  top: "ip1"
  param {
    lr_mult: 1
  }
  param {
    lr_mult: 2
  }
  inner_product_param {
    num_output: 1024
    weight_filler {
      type: "gaussian"
      std: 0.1
    }
    bias_filler {
      type: "constant"
    }
  }
}
layer {
  name: "ip2"
  type: "InnerProduct"
  bottom: "ip1"
  top: "ip2"
  param {
    lr_mult: 1
  }
  param {
    lr_mult: 2
  }
  inner_product_param {
    num_output: 512
    weight_filler {
      type: "gaussian"
      std: 0.1
    }
    bias_filler {
      type: "constant"
    }
  }
}
layer {
  name: "ip3"
  type: "InnerProduct"
  bottom: "ip2"
  top: "ip3"
  param {
    lr_mult: 1
  }
  param {
    lr_mult: 2
  }
  inner_product_param {
    num_output: 1
    weight_filler {
      type: "gaussian"
      std: 0.1
    }
    bias_filler {
      type: "constant"
    }
  }
}
layer {
  name: "loss"
  type: "HuberLoss"
  bottom: "ip3"
  bottom: "label"
  top: "loss"
  include {
    phase: TRAIN
  }
}
I0503 23:15:19.038837 22940 layer_factory.hpp:77] Creating layer parameters
I0503 23:15:19.038853 22940 net.cpp:94] Creating Layer parameters
I0503 23:15:19.038858 22940 net.cpp:409] parameters -> data
I0503 23:15:19.038867 22940 net.cpp:409] parameters -> label
I0503 23:15:19.038873 22940 hdf5_data_layer.cpp:79] Loading list of HDF5 filenames from: /home/purduethu/scratch/radon/d/deng106/CNNStatisticalModel/distributions/input/20_distributions_400_sample_size_train-parameters-path.txt
I0503 23:15:19.038887 22940 hdf5_data_layer.cpp:93] Number of HDF5 files: 1
I0503 23:15:19.039289 22940 hdf5.cpp:32] Datatype class: H5T_FLOAT
I0503 23:15:19.301055 22940 net.cpp:144] Setting up parameters
I0503 23:15:19.301089 22940 net.cpp:151] Top shape: 20 1 20 20 (8000)
I0503 23:15:19.301093 22940 net.cpp:151] Top shape: 20 (20)
I0503 23:15:19.301097 22940 net.cpp:159] Memory required for data: 32080
I0503 23:15:19.301103 22940 layer_factory.hpp:77] Creating layer conv1
I0503 23:15:19.301126 22940 net.cpp:94] Creating Layer conv1
I0503 23:15:19.301131 22940 net.cpp:435] conv1 <- data
I0503 23:15:19.301136 22940 net.cpp:409] conv1 -> conv1
I0503 23:15:19.306437 22940 net.cpp:144] Setting up conv1
I0503 23:15:19.306452 22940 net.cpp:151] Top shape: 20 64 20 20 (512000)
I0503 23:15:19.306457 22940 net.cpp:159] Memory required for data: 2080080
I0503 23:15:19.306465 22940 layer_factory.hpp:77] Creating layer relu1
I0503 23:15:19.306473 22940 net.cpp:94] Creating Layer relu1
I0503 23:15:19.306478 22940 net.cpp:435] relu1 <- conv1
I0503 23:15:19.306481 22940 net.cpp:396] relu1 -> conv1 (in-place)
I0503 23:15:19.306493 22940 net.cpp:144] Setting up relu1
I0503 23:15:19.306498 22940 net.cpp:151] Top shape: 20 64 20 20 (512000)
I0503 23:15:19.306500 22940 net.cpp:159] Memory required for data: 4128080
I0503 23:15:19.306504 22940 layer_factory.hpp:77] Creating layer conv2
I0503 23:15:19.306511 22940 net.cpp:94] Creating Layer conv2
I0503 23:15:19.306514 22940 net.cpp:435] conv2 <- conv1
I0503 23:15:19.306519 22940 net.cpp:409] conv2 -> conv2
I0503 23:15:19.316679 22940 net.cpp:144] Setting up conv2
I0503 23:15:19.316696 22940 net.cpp:151] Top shape: 20 64 20 20 (512000)
I0503 23:15:19.316700 22940 net.cpp:159] Memory required for data: 6176080
I0503 23:15:19.316709 22940 layer_factory.hpp:77] Creating layer relu2
I0503 23:15:19.316715 22940 net.cpp:94] Creating Layer relu2
I0503 23:15:19.316720 22940 net.cpp:435] relu2 <- conv2
I0503 23:15:19.316725 22940 net.cpp:396] relu2 -> conv2 (in-place)
I0503 23:15:19.316732 22940 net.cpp:144] Setting up relu2
I0503 23:15:19.316736 22940 net.cpp:151] Top shape: 20 64 20 20 (512000)
I0503 23:15:19.316740 22940 net.cpp:159] Memory required for data: 8224080
I0503 23:15:19.316742 22940 layer_factory.hpp:77] Creating layer pool2
I0503 23:15:19.316748 22940 net.cpp:94] Creating Layer pool2
I0503 23:15:19.316758 22940 net.cpp:435] pool2 <- conv2
I0503 23:15:19.316764 22940 net.cpp:409] pool2 -> pool2
I0503 23:15:19.316823 22940 net.cpp:144] Setting up pool2
I0503 23:15:19.316830 22940 net.cpp:151] Top shape: 20 64 10 10 (128000)
I0503 23:15:19.316833 22940 net.cpp:159] Memory required for data: 8736080
I0503 23:15:19.316838 22940 layer_factory.hpp:77] Creating layer conv3
I0503 23:15:19.316845 22940 net.cpp:94] Creating Layer conv3
I0503 23:15:19.316848 22940 net.cpp:435] conv3 <- pool2
I0503 23:15:19.316854 22940 net.cpp:409] conv3 -> conv3
I0503 23:15:19.331168 22940 net.cpp:144] Setting up conv3
I0503 23:15:19.331205 22940 net.cpp:151] Top shape: 20 128 10 10 (256000)
I0503 23:15:19.331217 22940 net.cpp:159] Memory required for data: 9760080
I0503 23:15:19.331238 22940 layer_factory.hpp:77] Creating layer relu3
I0503 23:15:19.331254 22940 net.cpp:94] Creating Layer relu3
I0503 23:15:19.331264 22940 net.cpp:435] relu3 <- conv3
I0503 23:15:19.331277 22940 net.cpp:396] relu3 -> conv3 (in-place)
I0503 23:15:19.331297 22940 net.cpp:144] Setting up relu3
I0503 23:15:19.331310 22940 net.cpp:151] Top shape: 20 128 10 10 (256000)
I0503 23:15:19.331317 22940 net.cpp:159] Memory required for data: 10784080
I0503 23:15:19.331326 22940 layer_factory.hpp:77] Creating layer conv4
I0503 23:15:19.331347 22940 net.cpp:94] Creating Layer conv4
I0503 23:15:19.331357 22940 net.cpp:435] conv4 <- conv3
I0503 23:15:19.331370 22940 net.cpp:409] conv4 -> conv4
I0503 23:15:19.349712 22940 net.cpp:144] Setting up conv4
I0503 23:15:19.349730 22940 net.cpp:151] Top shape: 20 128 10 10 (256000)
I0503 23:15:19.349735 22940 net.cpp:159] Memory required for data: 11808080
I0503 23:15:19.349741 22940 layer_factory.hpp:77] Creating layer relu4
I0503 23:15:19.349747 22940 net.cpp:94] Creating Layer relu4
I0503 23:15:19.349750 22940 net.cpp:435] relu4 <- conv4
I0503 23:15:19.349756 22940 net.cpp:396] relu4 -> conv4 (in-place)
I0503 23:15:19.349763 22940 net.cpp:144] Setting up relu4
I0503 23:15:19.349767 22940 net.cpp:151] Top shape: 20 128 10 10 (256000)
I0503 23:15:19.349771 22940 net.cpp:159] Memory required for data: 12832080
I0503 23:15:19.349773 22940 layer_factory.hpp:77] Creating layer conv5
I0503 23:15:19.349781 22940 net.cpp:94] Creating Layer conv5
I0503 23:15:19.349784 22940 net.cpp:435] conv5 <- conv4
I0503 23:15:19.349789 22940 net.cpp:409] conv5 -> conv5
I0503 23:15:19.367748 22940 net.cpp:144] Setting up conv5
I0503 23:15:19.367765 22940 net.cpp:151] Top shape: 20 128 10 10 (256000)
I0503 23:15:19.367769 22940 net.cpp:159] Memory required for data: 13856080
I0503 23:15:19.367779 22940 layer_factory.hpp:77] Creating layer relu5
I0503 23:15:19.367785 22940 net.cpp:94] Creating Layer relu5
I0503 23:15:19.367789 22940 net.cpp:435] relu5 <- conv5
I0503 23:15:19.367794 22940 net.cpp:396] relu5 -> conv5 (in-place)
I0503 23:15:19.367801 22940 net.cpp:144] Setting up relu5
I0503 23:15:19.367805 22940 net.cpp:151] Top shape: 20 128 10 10 (256000)
I0503 23:15:19.367808 22940 net.cpp:159] Memory required for data: 14880080
I0503 23:15:19.367811 22940 layer_factory.hpp:77] Creating layer pool5
I0503 23:15:19.367816 22940 net.cpp:94] Creating Layer pool5
I0503 23:15:19.367820 22940 net.cpp:435] pool5 <- conv5
I0503 23:15:19.367825 22940 net.cpp:409] pool5 -> pool5
I0503 23:15:19.367867 22940 net.cpp:144] Setting up pool5
I0503 23:15:19.367874 22940 net.cpp:151] Top shape: 20 128 5 5 (64000)
I0503 23:15:19.367877 22940 net.cpp:159] Memory required for data: 15136080
I0503 23:15:19.367880 22940 layer_factory.hpp:77] Creating layer ip1
I0503 23:15:19.367890 22940 net.cpp:94] Creating Layer ip1
I0503 23:15:19.367894 22940 net.cpp:435] ip1 <- pool5
I0503 23:15:19.367899 22940 net.cpp:409] ip1 -> ip1
I0503 23:15:19.448247 22940 net.cpp:144] Setting up ip1
I0503 23:15:19.448282 22940 net.cpp:151] Top shape: 20 1024 (20480)
I0503 23:15:19.448287 22940 net.cpp:159] Memory required for data: 15218000
I0503 23:15:19.448295 22940 layer_factory.hpp:77] Creating layer ip2
I0503 23:15:19.448305 22940 net.cpp:94] Creating Layer ip2
I0503 23:15:19.448318 22940 net.cpp:435] ip2 <- ip1
I0503 23:15:19.448325 22940 net.cpp:409] ip2 -> ip2
I0503 23:15:19.461851 22940 net.cpp:144] Setting up ip2
I0503 23:15:19.461869 22940 net.cpp:151] Top shape: 20 512 (10240)
I0503 23:15:19.461874 22940 net.cpp:159] Memory required for data: 15258960
I0503 23:15:19.461879 22940 layer_factory.hpp:77] Creating layer ip3
I0503 23:15:19.461887 22940 net.cpp:94] Creating Layer ip3
I0503 23:15:19.461890 22940 net.cpp:435] ip3 <- ip2
I0503 23:15:19.461896 22940 net.cpp:409] ip3 -> ip3
I0503 23:15:19.462016 22940 net.cpp:144] Setting up ip3
I0503 23:15:19.462023 22940 net.cpp:151] Top shape: 20 1 (20)
I0503 23:15:19.462028 22940 net.cpp:159] Memory required for data: 15259040
I0503 23:15:19.462033 22940 layer_factory.hpp:77] Creating layer loss
I0503 23:15:19.462040 22940 net.cpp:94] Creating Layer loss
I0503 23:15:19.462044 22940 net.cpp:435] loss <- ip3
I0503 23:15:19.462047 22940 net.cpp:435] loss <- label
I0503 23:15:19.462051 22940 net.cpp:409] loss -> loss
I0503 23:15:19.462103 22940 net.cpp:144] Setting up loss
…
I0503 23:15:19.664574 22940 net.cpp:323] The NetState phase (0) differed from the phase (1) specified by a rule in layer intercept
I0503 23:15:19.664592 22940 net.cpp:323] The NetState phase (0) differed from the phase (1) specified by a rule in layer accuracy
I0503 23:15:19.664685 22940 net.cpp:52] Initializing net from parameters: 
state {
  phase: TRAIN
}
layer {
  name: "parameters"
  type: "HDF5Data"
  top: "data"
  top: "label"
  include {
    phase: TRAIN
  }
  hdf5_data_param {
    source: "/home/purduethu/scratch/radon/d/deng106/CNNStatisticalModel/distributions/input/20_distributions_400_sample_size_train-distributions-path.txt"
    batch_size: 20
  }
}
layer {
  name: "conv1"
  type: "Convolution"
  bottom: "data"
  top: "conv1"
  param {
    lr_mult: 1
  }
  param {
    lr_mult: 2
  }
  convolution_param {
    num_output: 64
    pad: 2
    kernel_size: 5
    stride: 1
    weight_filler {
      type: "gaussian"
      std: 0.0001
    }
    bias_filler {
      type: "constant"
    }
  }
}
layer {
  name: "relu1"
  type: "ReLU"
  bottom: "conv1"
  top: "conv1"
}
layer {
  name: "conv2"
  type: "Convolution"
  bottom: "conv1"
  top: "conv2"
  param {
    lr_mult: 1
  }
  param {
    lr_mult: 2
  }
  convolution_param {
    num_output: 64
    pad: 2
    kernel_size: 5
    stride: 1
    weight_filler {
      type: "gaussian"
      std: 0.01
    }
    bias_filler {
      type: "constant"
    }
  }
}
layer {
  name: "relu2"
  type: "ReLU"
  bottom: "conv2"
  top: "conv2"
}
layer {
  name: "pool2"
  type: "Pooling"
  bottom: "conv2"
  top: "pool2"
  pooling_param {
    pool: MAX
    kernel_size: 3
    stride: 2
  }
}
layer {
  name: "conv3"
  type: "Convolution"
  bottom: "pool2"
  top: "conv3"
  param {
    lr_mult: 1
  }
  param {
    lr_mult: 2
  }
  convolution_param {
    num_output: 128
    pad: 2
    kernel_size: 5
    stride: 1
    weight_filler {
      type: "gaussian"
      std: 0.01
    }
    bias_filler {
      type: "constant"
    }
  }
}
layer {
  name: "relu3"
  type: "ReLU"
  bottom: "conv3"
  top: "conv3"
}
layer {
  name: "conv4"
  type: "Convolution"
  bottom: "conv3"
  top: "conv4"
  param {
    lr_mult: 1
  }
  param {
    lr_mult: 2
  }
  convolution_param {
    num_output: 128
    pad: 2
    kernel_size: 5
    stride: 1
    weight_filler {
      type: "gaussian"
      std: 0.01
    }
    bias_filler {
      type: "constant"
    }
  }
}
layer {
  name: "relu4"
  type: "ReLU"
  bottom: "conv4"
  top: "conv4"
}
layer {
  name: "conv5"
  type: "Convolution"
  bottom: "conv4"
  top: "conv5"
  param {
    lr_mult: 1
  }
  param {
    lr_mult: 2
  }
  convolution_param {
    num_output: 128
    pad: 2
    kernel_size: 5
    stride: 1
    weight_filler {
      type: "gaussian"
      std: 0.01
    }
    bias_filler {
      type: "constant"
    }
  }
}
layer {
  name: "relu5"
  type: "ReLU"
  bottom: "conv5"
  top: "conv5"
}
layer {
  name: "pool5"
  type: "Pooling"
  bottom: "conv5"
  top: "pool5"
  pooling_param {
    pool: AVE
    kernel_size: 3
    stride: 2
  }
}
layer {
  name: "ip1"
  type: "InnerProduct"
  bottom: "pool5"
  top: "ip1"
  param {
    lr_mult: 1
  }
  param {
    lr_mult: 2
  }
  inner_product_param {
    num_output: 1024
    weight_filler {
      type: "gaussian"
      std: 0.1
    }
    bias_filler {
      type: "constant"
    }
  }
}
layer {
  name: "ip2"
  type: "InnerProduct"
  bottom: "ip1"
  top: "ip2"
  param {
    lr_mult: 1
  }
  param {
    lr_mult: 2
  }
  inner_product_param {
    num_output: 512
    weight_filler {
      type: "gaussian"
      std: 0.1
    }
    bias_filler {
      type: "constant"
    }
  }
}
layer {
  name: "ip3"
  type: "InnerProduct"
  bottom: "ip2"
  top: "ip3"
  param {
    lr_mult: 1
  }
  param {
    lr_mult: 2
  }
  inner_product_param {
    num_output: 50
    weight_filler {
      type: "gaussian"
      std: 0.1
    }
    bias_filler {
      type: "constant"
    }
  }
}
layer {
  name: "loss"
  type: "SoftmaxWithLoss"
  bottom: "ip3"
  bottom: "label"
  top: "loss"
}
I0503 23:15:19.664737 22940 layer_factory.hpp:77] Creating layer parameters
I0503 23:15:19.664746 22940 net.cpp:94] Creating Layer parameters
I0503 23:15:19.664749 22940 net.cpp:409] parameters -> data
I0503 23:15:19.664757 22940 net.cpp:409] parameters -> label
I0503 23:15:19.664762 22940 hdf5_data_layer.cpp:79] Loading list of HDF5 filenames from: /home/purduethu/scratch/radon/d/deng106/CNNStatisticalModel/distributions/input/20_distributions_400_sample_size_train-distributions-path.txt
I0503 23:15:19.664778 22940 hdf5_data_layer.cpp:93] Number of HDF5 files: 1
I0503 23:15:19.921311 22940 hdf5.cpp:35] Datatype class: H5T_INTEGER
I0503 23:15:19.922380 22940 net.cpp:144] Setting up parameters
I0503 23:15:19.922396 22940 net.cpp:151] Top shape: 20 1 20 20 (8000)
I0503 23:15:19.922401 22940 net.cpp:151] Top shape: 20 (20)
I0503 23:15:19.922405 22940 net.cpp:159] Memory required for data: 32080
I0503 23:15:19.922410 22940 layer_factory.hpp:77] Creating layer conv1
I0503 23:15:19.922427 22940 net.cpp:94] Creating Layer conv1
I0503 23:15:19.922431 22940 net.cpp:435] conv1 <- data
I0503 23:15:19.922437 22940 net.cpp:409] conv1 -> conv1
I0503 23:15:19.924851 22940 net.cpp:144] Setting up conv1
I0503 23:15:19.924865 22940 net.cpp:151] Top shape: 20 64 20 20 (512000)
I0503 23:15:19.924868 22940 net.cpp:159] Memory required for data: 2080080
I0503 23:15:19.924877 22940 layer_factory.hpp:77] Creating layer relu1
I0503 23:15:19.924885 22940 net.cpp:94] Creating Layer relu1
I0503 23:15:19.924888 22940 net.cpp:435] relu1 <- conv1
I0503 23:15:19.924893 22940 net.cpp:396] relu1 -> conv1 (in-place)
I0503 23:15:19.924901 22940 net.cpp:144] Setting up relu1
I0503 23:15:19.924904 22940 net.cpp:151] Top shape: 20 64 20 20 (512000)
I0503 23:15:19.924907 22940 net.cpp:159] Memory required for data: 4128080
I0503 23:15:19.924911 22940 layer_factory.hpp:77] Creating layer conv2
I0503 23:15:19.924917 22940 net.cpp:94] Creating Layer conv2
I0503 23:15:19.924921 22940 net.cpp:435] conv2 <- conv1
I0503 23:15:19.924926 22940 net.cpp:409] conv2 -> conv2
I0503 23:15:19.935221 22940 net.cpp:144] Setting up conv2
I0503 23:15:19.935236 22940 net.cpp:151] Top shape: 20 64 20 20 (512000)
I0503 23:15:19.935240 22940 net.cpp:159] Memory required for data: 6176080
I0503 23:15:19.935248 22940 layer_factory.hpp:77] Creating layer relu2
I0503 23:15:19.935255 22940 net.cpp:94] Creating Layer relu2
I0503 23:15:19.935258 22940 net.cpp:435] relu2 <- conv2
I0503 23:15:19.935262 22940 net.cpp:396] relu2 -> conv2 (in-place)
I0503 23:15:19.935271 22940 net.cpp:144] Setting up relu2
I0503 23:15:19.935274 22940 net.cpp:151] Top shape: 20 64 20 20 (512000)
I0503 23:15:19.935277 22940 net.cpp:159] Memory required for data: 8224080
I0503 23:15:19.935279 22940 layer_factory.hpp:77] Creating layer pool2
I0503 23:15:19.935286 22940 net.cpp:94] Creating Layer pool2
I0503 23:15:19.935288 22940 net.cpp:435] pool2 <- conv2
I0503 23:15:19.935292 22940 net.cpp:409] pool2 -> pool2
I0503 23:15:19.935353 22940 net.cpp:144] Setting up pool2
I0503 23:15:19.935360 22940 net.cpp:151] Top shape: 20 64 10 10 (128000)
I0503 23:15:19.935364 22940 net.cpp:159] Memory required for data: 8736080
I0503 23:15:19.935367 22940 layer_factory.hpp:77] Creating layer conv3
I0503 23:15:19.935374 22940 net.cpp:94] Creating Layer conv3
I0503 23:15:19.935379 22940 net.cpp:435] conv3 <- pool2
I0503 23:15:19.935389 22940 net.cpp:409] conv3 -> conv3
I0503 23:15:19.946146 22940 net.cpp:144] Setting up conv3
I0503 23:15:19.946161 22940 net.cpp:151] Top shape: 20 128 10 10 (256000)
I0503 23:15:19.946166 22940 net.cpp:159] Memory required for data: 9760080
I0503 23:15:19.946173 22940 layer_factory.hpp:77] Creating layer relu3
I0503 23:15:19.946179 22940 net.cpp:94] Creating Layer relu3
I0503 23:15:19.946182 22940 net.cpp:435] relu3 <- conv3
I0503 23:15:19.946187 22940 net.cpp:396] relu3 -> conv3 (in-place)
I0503 23:15:19.946194 22940 net.cpp:144] Setting up relu3
I0503 23:15:19.946198 22940 net.cpp:151] Top shape: 20 128 10 10 (256000)
I0503 23:15:19.946202 22940 net.cpp:159] Memory required for data: 10784080
I0503 23:15:19.946204 22940 layer_factory.hpp:77] Creating layer conv4
I0503 23:15:19.946213 22940 net.cpp:94] Creating Layer conv4
I0503 23:15:19.946216 22940 net.cpp:435] conv4 <- conv3
I0503 23:15:19.946220 22940 net.cpp:409] conv4 -> conv4
I0503 23:15:19.964082 22940 net.cpp:144] Setting up conv4
I0503 23:15:19.964100 22940 net.cpp:151] Top shape: 20 128 10 10 (256000)
I0503 23:15:19.964104 22940 net.cpp:159] Memory required for data: 11808080
I0503 23:15:19.964110 22940 layer_factory.hpp:77] Creating layer relu4
I0503 23:15:19.964117 22940 net.cpp:94] Creating Layer relu4
I0503 23:15:19.964120 22940 net.cpp:435] relu4 <- conv4
I0503 23:15:19.964125 22940 net.cpp:396] relu4 -> conv4 (in-place)
I0503 23:15:19.964133 22940 net.cpp:144] Setting up relu4
I0503 23:15:19.964136 22940 net.cpp:151] Top shape: 20 128 10 10 (256000)
I0503 23:15:19.964139 22940 net.cpp:159] Memory required for data: 12832080
I0503 23:15:19.964143 22940 layer_factory.hpp:77] Creating layer conv5
I0503 23:15:19.964149 22940 net.cpp:94] Creating Layer conv5
I0503 23:15:19.964154 22940 net.cpp:435] conv5 <- conv4
I0503 23:15:19.964157 22940 net.cpp:409] conv5 -> conv5
I0503 23:15:19.981631 22940 net.cpp:144] Setting up conv5
I0503 23:15:19.981647 22940 net.cpp:151] Top shape: 20 128 10 10 (256000)
I0503 23:15:19.981652 22940 net.cpp:159] Memory required for data: 13856080
I0503 23:15:19.981660 22940 layer_factory.hpp:77] Creating layer relu5
I0503 23:15:19.981667 22940 net.cpp:94] Creating Layer relu5
I0503 23:15:19.981670 22940 net.cpp:435] relu5 <- conv5
I0503 23:15:19.981674 22940 net.cpp:396] relu5 -> conv5 (in-place)
I0503 23:15:19.981681 22940 net.cpp:144] Setting up relu5
I0503 23:15:19.981686 22940 net.cpp:151] Top shape: 20 128 10 10 (256000)
I0503 23:15:19.981688 22940 net.cpp:159] Memory required for data: 14880080
I0503 23:15:19.981691 22940 layer_factory.hpp:77] Creating layer pool5
I0503 23:15:19.981698 22940 net.cpp:94] Creating Layer pool5
I0503 23:15:19.981700 22940 net.cpp:435] pool5 <- conv5
I0503 23:15:19.981704 22940 net.cpp:409] pool5 -> pool5
I0503 23:15:19.981746 22940 net.cpp:144] Setting up pool5
I0503 23:15:19.981753 22940 net.cpp:151] Top shape: 20 128 5 5 (64000)
I0503 23:15:19.981756 22940 net.cpp:159] Memory required for data: 15136080
I0503 23:15:19.981760 22940 layer_factory.hpp:77] Creating layer ip1
I0503 23:15:19.981766 22940 net.cpp:94] Creating Layer ip1
I0503 23:15:19.981770 22940 net.cpp:435] ip1 <- pool5
I0503 23:15:19.981775 22940 net.cpp:409] ip1 -> ip1
I0503 23:15:20.063855 22940 net.cpp:144] Setting up ip1
I0503 23:15:20.063890 22940 net.cpp:151] Top shape: 20 1024 (20480)
I0503 23:15:20.063894 22940 net.cpp:159] Memory required for data: 15218000
I0503 23:15:20.063904 22940 layer_factory.hpp:77] Creating layer ip2
I0503 23:15:20.063915 22940 net.cpp:94] Creating Layer ip2
I0503 23:15:20.063918 22940 net.cpp:435] ip2 <- ip1
I0503 23:15:20.063925 22940 net.cpp:409] ip2 -> ip2
I0503 23:15:20.077577 22940 net.cpp:144] Setting up ip2
I0503 23:15:20.077595 22940 net.cpp:151] Top shape: 20 512 (10240)
I0503 23:15:20.077600 22940 net.cpp:159] Memory required for data: 15258960
I0503 23:15:20.077606 22940 layer_factory.hpp:77] Creating layer ip3
I0503 23:15:20.077613 22940 net.cpp:94] Creating Layer ip3
I0503 23:15:20.077617 22940 net.cpp:435] ip3 <- ip2
I0503 23:15:20.077622 22940 net.cpp:409] ip3 -> ip3
I0503 23:15:20.078409 22940 net.cpp:144] Setting up ip3
I0503 23:15:20.078418 22940 net.cpp:151] Top shape: 20 50 (1000)
I0503 23:15:20.078421 22940 net.cpp:159] Memory required for data: 15262960
I0503 23:15:20.078426 22940 layer_factory.hpp:77] Creating layer loss
I0503 23:15:20.078433 22940 net.cpp:94] Creating Layer loss
I0503 23:15:20.078438 22940 net.cpp:435] loss <- ip3
I0503 23:15:20.078441 22940 net.cpp:435] loss <- label
I0503 23:15:20.078445 22940 net.cpp:409] loss -> loss
I0503 23:15:20.078452 22940 layer_factory.hpp:77] Creating layer loss
…
I0503 23:15:20.078982 22940 solver.cpp:181] Creating test net (#0) specified by net file: ./protocol/dis_20_400_dimension.protocol_distribution
I0503 23:15:20.079010 22940 net.cpp:323] The NetState phase (1) differed from the phase (0) specified by a rule in layer parameters
I0503 23:15:20.079107 22940 net.cpp:52] Initializing net from parameters: 
state {
  phase: TEST
}
layer {
  name: "intercept"
  type: "HDF5Data"
  top: "data"
  top: "label"
  include {
    phase: TEST
  }
  hdf5_data_param {
    source: "/home/purduethu/scratch/radon/d/deng106/CNNStatisticalModel/distributions/input/20_distributions_400_sample_size_test-distributions-path.txt"
    batch_size: 20
  }
}
layer {
  name: "conv1"
  type: "Convolution"
  bottom: "data"
  top: "conv1"
  param {
    lr_mult: 1
  }
  param {
    lr_mult: 2
  }
  convolution_param {
    num_output: 64
    pad: 2
    kernel_size: 5
    stride: 1
    weight_filler {
      type: "gaussian"
      std: 0.0001
    }
    bias_filler {
      type: "constant"
    }
  }
}
layer {
  name: "relu1"
  type: "ReLU"
  bottom: "conv1"
  top: "conv1"
}
layer {
  name: "conv2"
  type: "Convolution"
  bottom: "conv1"
  top: "conv2"
  param {
    lr_mult: 1
  }
  param {
    lr_mult: 2
  }
  convolution_param {
    num_output: 64
    pad: 2
    kernel_size: 5
    stride: 1
    weight_filler {
      type: "gaussian"
      std: 0.01
    }
    bias_filler {
      type: "constant"
    }
  }
}
layer {
  name: "relu2"
  type: "ReLU"
  bottom: "conv2"
  top: "conv2"
}
layer {
  name: "pool2"
  type: "Pooling"
  bottom: "conv2"
  top: "pool2"
  pooling_param {
    pool: MAX
    kernel_size: 3
    stride: 2
  }
}
layer {
  name: "conv3"
  type: "Convolution"
  bottom: "pool2"
  top: "conv3"
  param {
    lr_mult: 1
  }
  param {
    lr_mult: 2
  }
  convolution_param {
    num_output: 128
    pad: 2
    kernel_size: 5
    stride: 1
    weight_filler {
      type: "gaussian"
      std: 0.01
    }
    bias_filler {
      type: "constant"
    }
  }
}
layer {
  name: "relu3"
  type: "ReLU"
  bottom: "conv3"
  top: "conv3"
}
layer {
  name: "conv4"
  type: "Convolution"
  bottom: "conv3"
  top: "conv4"
  param {
    lr_mult: 1
  }
  param {
    lr_mult: 2
  }
  convolution_param {
    num_output: 128
    pad: 2
    kernel_size: 5
    stride: 1
    weight_filler {
      type: "gaussian"
      std: 0.01
    }
    bias_filler {
      type: "constant"
    }
  }
}
layer {
  name: "relu4"
  type: "ReLU"
  bottom: "conv4"
  top: "conv4"
}
layer {
  name: "conv5"
  type: "Convolution"
  bottom: "conv4"
  top: "conv5"
  param {
    lr_mult: 1
  }
  param {
    lr_mult: 2
  }
  convolution_param {
    num_output: 128
    pad: 2
    kernel_size: 5
    stride: 1
    weight_filler {
      type: "gaussian"
      std: 0.01
    }
    bias_filler {
      type: "constant"
    }
  }
}
layer {
  name: "relu5"
  type: "ReLU"
  bottom: "conv5"
  top: "conv5"
}
layer {
  name: "pool5"
  type: "Pooling"
  bottom: "conv5"
  top: "pool5"
  pooling_param {
    pool: AVE
    kernel_size: 3
    stride: 2
  }
}
layer {
  name: "ip1"
  type: "InnerProduct"
  bottom: "pool5"
  top: "ip1"
  param {
    lr_mult: 1
  }
  param {
    lr_mult: 2
  }
  inner_product_param {
    num_output: 1024
    weight_filler {
      type: "gaussian"
      std: 0.1
    }
    bias_filler {
      type: "constant"
    }
  }
}
layer {
  name: "ip2"
  type: "InnerProduct"
  bottom: "ip1"
  top: "ip2"
  param {
    lr_mult: 1
  }
  param {
    lr_mult: 2
  }
  inner_product_param {
    num_output: 512
    weight_filler {
      type: "gaussian"
      std: 0.1
    }
    bias_filler {
      type: "constant"
    }
  }
}
layer {
  name: "ip3"
  type: "InnerProduct"
  bottom: "ip2"
  top: "ip3"
  param {
    lr_mult: 1
  }
  param {
    lr_mult: 2
  }
  inner_product_param {
    num_output: 50
    weight_filler {
      type: "gaussian"
      std: 0.1
    }
    bias_filler {
      type: "constant"
    }
  }
}
layer {
  name: "accuracy"
  type: "Accuracy"
  bottom: "ip3"
  bottom: "label"
  top: "accuracy"
  include {
    phase: TEST
  }
}
layer {
  name: "loss"
  type: "SoftmaxWithLoss"
  bottom: "ip3"
  bottom: "label"
  top: "loss"
}
I0503 23:15:20.079176 22940 layer_factory.hpp:77] Creating layer intercept
I0503 23:15:20.079185 22940 net.cpp:94] Creating Layer intercept
I0503 23:15:20.079188 22940 net.cpp:409] intercept -> data
I0503 23:15:20.079195 22940 net.cpp:409] intercept -> label
I0503 23:15:20.079201 22940 hdf5_data_layer.cpp:79] Loading list of HDF5 filenames from: /home/purduethu/scratch/radon/d/deng106/CNNStatisticalModel/distributions/input/20_distributions_400_sample_size_test-distributions-path.txt
I0503 23:15:20.079221 22940 hdf5_data_layer.cpp:93] Number of HDF5 files: 1
I0503 23:15:20.146414 22940 net.cpp:144] Setting up intercept
I0503 23:15:20.146445 22940 net.cpp:151] Top shape: 20 1 20 20 (8000)
I0503 23:15:20.146450 22940 net.cpp:151] Top shape: 20 (20)
I0503 23:15:20.146455 22940 net.cpp:159] Memory required for data: 32080
I0503 23:15:20.146461 22940 layer_factory.hpp:77] Creating layer label_intercept_1_split
I0503 23:15:20.146479 22940 net.cpp:94] Creating Layer label_intercept_1_split
I0503 23:15:20.146483 22940 net.cpp:435] label_intercept_1_split <- label
I0503 23:15:20.146489 22940 net.cpp:409] label_intercept_1_split -> label_intercept_1_split_0
I0503 23:15:20.146497 22940 net.cpp:409] label_intercept_1_split -> label_intercept_1_split_1
I0503 23:15:20.146544 22940 net.cpp:144] Setting up label_intercept_1_split
I0503 23:15:20.146551 22940 net.cpp:151] Top shape: 20 (20)
I0503 23:15:20.146554 22940 net.cpp:151] Top shape: 20 (20)
I0503 23:15:20.146558 22940 net.cpp:159] Memory required for data: 32240
I0503 23:15:20.146560 22940 layer_factory.hpp:77] Creating layer conv1
I0503 23:15:20.146571 22940 net.cpp:94] Creating Layer conv1
I0503 23:15:20.146575 22940 net.cpp:435] conv1 <- data
I0503 23:15:20.146579 22940 net.cpp:409] conv1 -> conv1
I0503 23:15:20.147438 22940 net.cpp:144] Setting up conv1
I0503 23:15:20.147450 22940 net.cpp:151] Top shape: 20 64 20 20 (512000)
I0503 23:15:20.147454 22940 net.cpp:159] Memory required for data: 2080240
I0503 23:15:20.147464 22940 layer_factory.hpp:77] Creating layer relu1
I0503 23:15:20.147471 22940 net.cpp:94] Creating Layer relu1
I0503 23:15:20.147475 22940 net.cpp:435] relu1 <- conv1
I0503 23:15:20.147478 22940 net.cpp:396] relu1 -> conv1 (in-place)
I0503 23:15:20.147485 22940 net.cpp:144] Setting up relu1
I0503 23:15:20.147490 22940 net.cpp:151] Top shape: 20 64 20 20 (512000)
I0503 23:15:20.147492 22940 net.cpp:159] Memory required for data: 4128240
I0503 23:15:20.147495 22940 layer_factory.hpp:77] Creating layer conv2
I0503 23:15:20.147503 22940 net.cpp:94] Creating Layer conv2
I0503 23:15:20.147506 22940 net.cpp:435] conv2 <- conv1
I0503 23:15:20.147511 22940 net.cpp:409] conv2 -> conv2
I0503 23:15:20.152609 22940 net.cpp:144] Setting up conv2
I0503 23:15:20.152624 22940 net.cpp:151] Top shape: 20 64 20 20 (512000)
I0503 23:15:20.152628 22940 net.cpp:159] Memory required for data: 6176240
I0503 23:15:20.152637 22940 layer_factory.hpp:77] Creating layer relu2
I0503 23:15:20.152642 22940 net.cpp:94] Creating Layer relu2
I0503 23:15:20.152645 22940 net.cpp:435] relu2 <- conv2
I0503 23:15:20.152650 22940 net.cpp:396] relu2 -> conv2 (in-place)
I0503 23:15:20.152657 22940 net.cpp:144] Setting up relu2
I0503 23:15:20.152662 22940 net.cpp:151] Top shape: 20 64 20 20 (512000)
I0503 23:15:20.152664 22940 net.cpp:159] Memory required for data: 8224240
I0503 23:15:20.152667 22940 layer_factory.hpp:77] Creating layer pool2
I0503 23:15:20.152673 22940 net.cpp:94] Creating Layer pool2
I0503 23:15:20.152676 22940 net.cpp:435] pool2 <- conv2
I0503 23:15:20.152680 22940 net.cpp:409] pool2 -> pool2
I0503 23:15:20.152739 22940 net.cpp:144] Setting up pool2
I0503 23:15:20.152745 22940 net.cpp:151] Top shape: 20 64 10 10 (128000)
I0503 23:15:20.152748 22940 net.cpp:159] Memory required for data: 8736240
I0503 23:15:20.152751 22940 layer_factory.hpp:77] Creating layer conv3
I0503 23:15:20.152760 22940 net.cpp:94] Creating Layer conv3
I0503 23:15:20.152762 22940 net.cpp:435] conv3 <- pool2
I0503 23:15:20.152767 22940 net.cpp:409] conv3 -> conv3
I0503 23:15:20.160117 22940 net.cpp:144] Setting up conv3
I0503 23:15:20.160131 22940 net.cpp:151] Top shape: 20 128 10 10 (256000)
I0503 23:15:20.160135 22940 net.cpp:159] Memory required for data: 9760240
I0503 23:15:20.160143 22940 layer_factory.hpp:77] Creating layer relu3
I0503 23:15:20.160151 22940 net.cpp:94] Creating Layer relu3
I0503 23:15:20.160153 22940 net.cpp:435] relu3 <- conv3
I0503 23:15:20.160158 22940 net.cpp:396] relu3 -> conv3 (in-place)
I0503 23:15:20.160166 22940 net.cpp:144] Setting up relu3
I0503 23:15:20.160169 22940 net.cpp:151] Top shape: 20 128 10 10 (256000)
I0503 23:15:20.160172 22940 net.cpp:159] Memory required for data: 10784240
I0503 23:15:20.160176 22940 layer_factory.hpp:77] Creating layer conv4
I0503 23:15:20.160182 22940 net.cpp:94] Creating Layer conv4
I0503 23:15:20.160187 22940 net.cpp:435] conv4 <- conv3
I0503 23:15:20.160190 22940 net.cpp:409] conv4 -> conv4
I0503 23:15:20.174007 22940 net.cpp:144] Setting up conv4
I0503 23:15:20.174024 22940 net.cpp:151] Top shape: 20 128 10 10 (256000)
I0503 23:15:20.174028 22940 net.cpp:159] Memory required for data: 11808240
I0503 23:15:20.174034 22940 layer_factory.hpp:77] Creating layer relu4
I0503 23:15:20.174041 22940 net.cpp:94] Creating Layer relu4
I0503 23:15:20.174044 22940 net.cpp:435] relu4 <- conv4
I0503 23:15:20.174049 22940 net.cpp:396] relu4 -> conv4 (in-place)
I0503 23:15:20.174055 22940 net.cpp:144] Setting up relu4
I0503 23:15:20.174060 22940 net.cpp:151] Top shape: 20 128 10 10 (256000)
I0503 23:15:20.174062 22940 net.cpp:159] Memory required for data: 12832240
I0503 23:15:20.174065 22940 layer_factory.hpp:77] Creating layer conv5
I0503 23:15:20.174073 22940 net.cpp:94] Creating Layer conv5
I0503 23:15:20.174077 22940 net.cpp:435] conv5 <- conv4
I0503 23:15:20.174082 22940 net.cpp:409] conv5 -> conv5
I0503 23:15:20.187477 22940 net.cpp:144] Setting up conv5
I0503 23:15:20.187507 22940 net.cpp:151] Top shape: 20 128 10 10 (256000)
I0503 23:15:20.187511 22940 net.cpp:159] Memory required for data: 13856240
I0503 23:15:20.187520 22940 layer_factory.hpp:77] Creating layer relu5
I0503 23:15:20.187526 22940 net.cpp:94] Creating Layer relu5
I0503 23:15:20.187530 22940 net.cpp:435] relu5 <- conv5
I0503 23:15:20.187536 22940 net.cpp:396] relu5 -> conv5 (in-place)
I0503 23:15:20.187541 22940 net.cpp:144] Setting up relu5
I0503 23:15:20.187546 22940 net.cpp:151] Top shape: 20 128 10 10 (256000)
I0503 23:15:20.187549 22940 net.cpp:159] Memory required for data: 14880240
I0503 23:15:20.187552 22940 layer_factory.hpp:77] Creating layer pool5
I0503 23:15:20.187557 22940 net.cpp:94] Creating Layer pool5
I0503 23:15:20.187561 22940 net.cpp:435] pool5 <- conv5
I0503 23:15:20.187564 22940 net.cpp:409] pool5 -> pool5
I0503 23:15:20.187605 22940 net.cpp:144] Setting up pool5
I0503 23:15:20.187613 22940 net.cpp:151] Top shape: 20 128 5 5 (64000)
I0503 23:15:20.187615 22940 net.cpp:159] Memory required for data: 15136240
I0503 23:15:20.187618 22940 layer_factory.hpp:77] Creating layer ip1
I0503 23:15:20.187624 22940 net.cpp:94] Creating Layer ip1
I0503 23:15:20.187628 22940 net.cpp:435] ip1 <- pool5
I0503 23:15:20.187633 22940 net.cpp:409] ip1 -> ip1
I0503 23:15:20.268736 22940 net.cpp:144] Setting up ip1
I0503 23:15:20.268771 22940 net.cpp:151] Top shape: 20 1024 (20480)
I0503 23:15:20.268775 22940 net.cpp:159] Memory required for data: 15218160
I0503 23:15:20.268784 22940 layer_factory.hpp:77] Creating layer ip2
I0503 23:15:20.268795 22940 net.cpp:94] Creating Layer ip2
I0503 23:15:20.268798 22940 net.cpp:435] ip2 <- ip1
I0503 23:15:20.268805 22940 net.cpp:409] ip2 -> ip2
I0503 23:15:20.282312 22940 net.cpp:144] Setting up ip2
I0503 23:15:20.282330 22940 net.cpp:151] Top shape: 20 512 (10240)
I0503 23:15:20.282333 22940 net.cpp:159] Memory required for data: 15259120
I0503 23:15:20.282340 22940 layer_factory.hpp:77] Creating layer ip3
I0503 23:15:20.282351 22940 net.cpp:94] Creating Layer ip3
I0503 23:15:20.282354 22940 net.cpp:435] ip3 <- ip2
I0503 23:15:20.282361 22940 net.cpp:409] ip3 -> ip3
I0503 23:15:20.283141 22940 net.cpp:144] Setting up ip3
I0503 23:15:20.283149 22940 net.cpp:151] Top shape: 20 50 (1000)
I0503 23:15:20.283152 22940 net.cpp:159] Memory required for data: 15263120
I0503 23:15:20.283157 22940 layer_factory.hpp:77] Creating layer ip3_ip3_0_split
I0503 23:15:20.283164 22940 net.cpp:94] Creating Layer ip3_ip3_0_split
I0503 23:15:20.283166 22940 net.cpp:435] ip3_ip3_0_split <- ip3
I0503 23:15:20.283170 22940 net.cpp:409] ip3_ip3_0_split -> ip3_ip3_0_split_0
I0503 23:15:20.283180 22940 net.cpp:409] ip3_ip3_0_split -> ip3_ip3_0_split_1
I0503 23:15:20.283227 22940 net.cpp:144] Setting up ip3_ip3_0_split
I0503 23:15:20.283233 22940 net.cpp:151] Top shape: 20 50 (1000)
I0503 23:15:20.283236 22940 net.cpp:151] Top shape: 20 50 (1000)
I0503 23:15:20.283239 22940 net.cpp:159] Memory required for data: 15271120
I0503 23:15:20.283242 22940 layer_factory.hpp:77] Creating layer accuracy
I0503 23:15:20.283248 22940 net.cpp:94] Creating Layer accuracy
I0503 23:15:20.283252 22940 net.cpp:435] accuracy <- ip3_ip3_0_split_0
I0503 23:15:20.283254 22940 net.cpp:435] accuracy <- label_intercept_1_split_0
I0503 23:15:20.283259 22940 net.cpp:409] accuracy -> accuracy
…
