…
I0505 12:32:26.834589  6823 net.cpp:323] The NetState phase (0) differed from the phase (1) specified by a rule in layer intercept
I0505 12:32:26.834602  6823 net.cpp:323] The NetState phase (0) differed from the phase (1) specified by a rule in layer loss
I0505 12:32:26.834668  6823 net.cpp:52] Initializing net from parameters: 
state {
  phase: TRAIN
}
layer {
  name: "parameters"
  type: "HDF5Data"
  top: "data"
  top: "label"
  include {
    phase: TRAIN
  }
  hdf5_data_param {
    source: "/home/purduethu/scratch/radon/d/deng106/CNNStatisticalModel/distributions/input/20_distributions_400_sample_size_train-parameters-path.txt"
    batch_size: 20
  }
}
layer {
  name: "conv1"
  type: "Convolution"
  bottom: "data"
  top: "conv1"
  param {
    lr_mult: 1
  }
  param {
    lr_mult: 2
  }
  convolution_param {
    num_output: 64
    pad: 2
    kernel_size: 5
    stride: 1
    weight_filler {
      type: "gaussian"
      std: 0.0001
    }
    bias_filler {
      type: "constant"
    }
  }
}
layer {
  name: "relu1"
  type: "ReLU"
  bottom: "conv1"
  top: "conv1"
}
layer {
  name: "pool1"
  type: "Pooling"
  bottom: "conv1"
  top: "pool1"
  pooling_param {
    pool: MAX
    kernel_size: 3
    stride: 2
  }
}
layer {
  name: "conv2"
  type: "Convolution"
  bottom: "pool1"
  top: "conv2"
  param {
    lr_mult: 1
  }
  param {
    lr_mult: 2
  }
  convolution_param {
    num_output: 128
    pad: 2
    kernel_size: 5
    stride: 1
    weight_filler {
      type: "gaussian"
      std: 0.01
    }
    bias_filler {
      type: "constant"
    }
  }
}
layer {
  name: "relu2"
  type: "ReLU"
  bottom: "conv2"
  top: "conv2"
}
layer {
  name: "conv3"
  type: "Convolution"
  bottom: "conv2"
  top: "conv3"
  param {
    lr_mult: 1
  }
  param {
    lr_mult: 2
  }
  convolution_param {
    num_output: 128
    pad: 2
    kernel_size: 5
    stride: 1
    weight_filler {
      type: "gaussian"
      std: 0.01
    }
    bias_filler {
      type: "constant"
    }
  }
}
layer {
  name: "relu3"
  type: "ReLU"
  bottom: "conv3"
  top: "conv3"
}
layer {
  name: "pool3"
  type: "Pooling"
  bottom: "conv3"
  top: "pool3"
  pooling_param {
    pool: AVE
    kernel_size: 3
    stride: 2
  }
}
layer {
  name: "ip1"
  type: "InnerProduct"
  bottom: "pool3"
  top: "ip1"
  param {
    lr_mult: 1
  }
  param {
    lr_mult: 2
  }
  inner_product_param {
    num_output: 512
    weight_filler {
      type: "gaussian"
      std: 0.1
    }
    bias_filler {
      type: "constant"
    }
  }
}
layer {
  name: "ip2"
  type: "InnerProduct"
  bottom: "ip1"
  top: "ip2"
  param {
    lr_mult: 1
  }
  param {
    lr_mult: 2
  }
  inner_product_param {
    num_output: 256
    weight_filler {
      type: "gaussian"
      std: 0.1
    }
    bias_filler {
      type: "constant"
    }
  }
}
layer {
  name: "ip3"
  type: "InnerProduct"
  bottom: "ip2"
  top: "ip3"
  param {
    lr_mult: 1
  }
  param {
    lr_mult: 2
  }
  inner_product_param {
    num_output: 1
    weight_filler {
      type: "gaussian"
      std: 0.1
    }
    bias_filler {
      type: "constant"
    }
  }
}
layer {
  name: "loss"
  type: "HuberLoss"
  bottom: "ip3"
  bottom: "label"
  top: "loss"
  include {
    phase: TRAIN
  }
}
I0505 12:32:26.834715  6823 layer_factory.hpp:77] Creating layer parameters
I0505 12:32:26.834731  6823 net.cpp:94] Creating Layer parameters
I0505 12:32:26.834736  6823 net.cpp:409] parameters -> data
I0505 12:32:26.834745  6823 net.cpp:409] parameters -> label
I0505 12:32:26.834751  6823 hdf5_data_layer.cpp:79] Loading list of HDF5 filenames from: /home/purduethu/scratch/radon/d/deng106/CNNStatisticalModel/distributions/input/20_distributions_400_sample_size_train-parameters-path.txt
I0505 12:32:26.834766  6823 hdf5_data_layer.cpp:93] Number of HDF5 files: 1
I0505 12:32:26.835310  6823 hdf5.cpp:32] Datatype class: H5T_FLOAT
I0505 12:32:27.096585  6823 net.cpp:144] Setting up parameters
I0505 12:32:27.096616  6823 net.cpp:151] Top shape: 20 1 20 20 (8000)
I0505 12:32:27.096621  6823 net.cpp:151] Top shape: 20 (20)
I0505 12:32:27.096623  6823 net.cpp:159] Memory required for data: 32080
I0505 12:32:27.096631  6823 layer_factory.hpp:77] Creating layer conv1
I0505 12:32:27.096645  6823 net.cpp:94] Creating Layer conv1
I0505 12:32:27.096650  6823 net.cpp:435] conv1 <- data
I0505 12:32:27.096657  6823 net.cpp:409] conv1 -> conv1
I0505 12:32:27.102108  6823 net.cpp:144] Setting up conv1
I0505 12:32:27.102128  6823 net.cpp:151] Top shape: 20 64 20 20 (512000)
I0505 12:32:27.102133  6823 net.cpp:159] Memory required for data: 2080080
I0505 12:32:27.102144  6823 layer_factory.hpp:77] Creating layer relu1
I0505 12:32:27.102152  6823 net.cpp:94] Creating Layer relu1
I0505 12:32:27.102157  6823 net.cpp:435] relu1 <- conv1
I0505 12:32:27.102161  6823 net.cpp:396] relu1 -> conv1 (in-place)
I0505 12:32:27.102169  6823 net.cpp:144] Setting up relu1
I0505 12:32:27.102174  6823 net.cpp:151] Top shape: 20 64 20 20 (512000)
I0505 12:32:27.102177  6823 net.cpp:159] Memory required for data: 4128080
I0505 12:32:27.102180  6823 layer_factory.hpp:77] Creating layer pool1
I0505 12:32:27.102186  6823 net.cpp:94] Creating Layer pool1
I0505 12:32:27.102190  6823 net.cpp:435] pool1 <- conv1
I0505 12:32:27.102193  6823 net.cpp:409] pool1 -> pool1
I0505 12:32:27.102249  6823 net.cpp:144] Setting up pool1
I0505 12:32:27.102257  6823 net.cpp:151] Top shape: 20 64 10 10 (128000)
I0505 12:32:27.102259  6823 net.cpp:159] Memory required for data: 4640080
I0505 12:32:27.102262  6823 layer_factory.hpp:77] Creating layer conv2
I0505 12:32:27.102272  6823 net.cpp:94] Creating Layer conv2
I0505 12:32:27.102275  6823 net.cpp:435] conv2 <- pool1
I0505 12:32:27.102280  6823 net.cpp:409] conv2 -> conv2
I0505 12:32:27.112327  6823 net.cpp:144] Setting up conv2
I0505 12:32:27.112342  6823 net.cpp:151] Top shape: 20 128 10 10 (256000)
I0505 12:32:27.112346  6823 net.cpp:159] Memory required for data: 5664080
I0505 12:32:27.112354  6823 layer_factory.hpp:77] Creating layer relu2
I0505 12:32:27.112360  6823 net.cpp:94] Creating Layer relu2
I0505 12:32:27.112363  6823 net.cpp:435] relu2 <- conv2
I0505 12:32:27.112368  6823 net.cpp:396] relu2 -> conv2 (in-place)
I0505 12:32:27.112375  6823 net.cpp:144] Setting up relu2
I0505 12:32:27.112380  6823 net.cpp:151] Top shape: 20 128 10 10 (256000)
I0505 12:32:27.112382  6823 net.cpp:159] Memory required for data: 6688080
I0505 12:32:27.112385  6823 layer_factory.hpp:77] Creating layer conv3
I0505 12:32:27.112392  6823 net.cpp:94] Creating Layer conv3
I0505 12:32:27.112396  6823 net.cpp:435] conv3 <- conv2
I0505 12:32:27.112401  6823 net.cpp:409] conv3 -> conv3
I0505 12:32:27.130182  6823 net.cpp:144] Setting up conv3
I0505 12:32:27.130198  6823 net.cpp:151] Top shape: 20 128 10 10 (256000)
I0505 12:32:27.130201  6823 net.cpp:159] Memory required for data: 7712080
I0505 12:32:27.130210  6823 layer_factory.hpp:77] Creating layer relu3
I0505 12:32:27.130223  6823 net.cpp:94] Creating Layer relu3
I0505 12:32:27.130228  6823 net.cpp:435] relu3 <- conv3
I0505 12:32:27.130233  6823 net.cpp:396] relu3 -> conv3 (in-place)
I0505 12:32:27.130239  6823 net.cpp:144] Setting up relu3
I0505 12:32:27.130244  6823 net.cpp:151] Top shape: 20 128 10 10 (256000)
I0505 12:32:27.130247  6823 net.cpp:159] Memory required for data: 8736080
I0505 12:32:27.130250  6823 layer_factory.hpp:77] Creating layer pool3
I0505 12:32:27.130256  6823 net.cpp:94] Creating Layer pool3
I0505 12:32:27.130259  6823 net.cpp:435] pool3 <- conv3
I0505 12:32:27.130264  6823 net.cpp:409] pool3 -> pool3
I0505 12:32:27.130306  6823 net.cpp:144] Setting up pool3
I0505 12:32:27.130313  6823 net.cpp:151] Top shape: 20 128 5 5 (64000)
I0505 12:32:27.130316  6823 net.cpp:159] Memory required for data: 8992080
I0505 12:32:27.130319  6823 layer_factory.hpp:77] Creating layer ip1
I0505 12:32:27.130329  6823 net.cpp:94] Creating Layer ip1
I0505 12:32:27.130333  6823 net.cpp:435] ip1 <- pool3
I0505 12:32:27.130337  6823 net.cpp:409] ip1 -> ip1
I0505 12:32:27.170140  6823 net.cpp:144] Setting up ip1
I0505 12:32:27.170166  6823 net.cpp:151] Top shape: 20 512 (10240)
I0505 12:32:27.170169  6823 net.cpp:159] Memory required for data: 9033040
I0505 12:32:27.170176  6823 layer_factory.hpp:77] Creating layer ip2
I0505 12:32:27.170186  6823 net.cpp:94] Creating Layer ip2
I0505 12:32:27.170191  6823 net.cpp:435] ip2 <- ip1
I0505 12:32:27.170197  6823 net.cpp:409] ip2 -> ip2
I0505 12:32:27.173349  6823 net.cpp:144] Setting up ip2
I0505 12:32:27.173362  6823 net.cpp:151] Top shape: 20 256 (5120)
I0505 12:32:27.173365  6823 net.cpp:159] Memory required for data: 9053520
I0505 12:32:27.173373  6823 layer_factory.hpp:77] Creating layer ip3
I0505 12:32:27.173380  6823 net.cpp:94] Creating Layer ip3
I0505 12:32:27.173384  6823 net.cpp:435] ip3 <- ip2
I0505 12:32:27.173389  6823 net.cpp:409] ip3 -> ip3
I0505 12:32:27.173496  6823 net.cpp:144] Setting up ip3
I0505 12:32:27.173503  6823 net.cpp:151] Top shape: 20 1 (20)
I0505 12:32:27.173506  6823 net.cpp:159] Memory required for data: 9053600
I0505 12:32:27.173511  6823 layer_factory.hpp:77] Creating layer loss
I0505 12:32:27.173523  6823 net.cpp:94] Creating Layer loss
I0505 12:32:27.173527  6823 net.cpp:435] loss <- ip3
I0505 12:32:27.173532  6823 net.cpp:435] loss <- label
I0505 12:32:27.173535  6823 net.cpp:409] loss -> loss
I0505 12:32:27.173586  6823 net.cpp:144] Setting up loss
…
I0505 12:32:27.310745  6823 net.cpp:323] The NetState phase (0) differed from the phase (1) specified by a rule in layer intercept
I0505 12:32:27.310757  6823 net.cpp:323] The NetState phase (0) differed from the phase (1) specified by a rule in layer accuracy
I0505 12:32:27.310827  6823 net.cpp:52] Initializing net from parameters: 
state {
  phase: TRAIN
}
layer {
  name: "parameters"
  type: "HDF5Data"
  top: "data"
  top: "label"
  include {
    phase: TRAIN
  }
  hdf5_data_param {
    source: "/home/purduethu/scratch/radon/d/deng106/CNNStatisticalModel/distributions/input/20_distributions_400_sample_size_train-distributions-path.txt"
    batch_size: 20
  }
}
layer {
  name: "conv1"
  type: "Convolution"
  bottom: "data"
  top: "conv1"
  param {
    lr_mult: 1
  }
  param {
    lr_mult: 2
  }
  convolution_param {
    num_output: 64
    pad: 2
    kernel_size: 5
    stride: 1
    weight_filler {
      type: "gaussian"
      std: 0.0001
    }
    bias_filler {
      type: "constant"
    }
  }
}
layer {
  name: "relu1"
  type: "ReLU"
  bottom: "conv1"
  top: "conv1"
}
layer {
  name: "pool1"
  type: "Pooling"
  bottom: "conv1"
  top: "pool1"
  pooling_param {
    pool: MAX
    kernel_size: 3
    stride: 2
  }
}
layer {
  name: "conv2"
  type: "Convolution"
  bottom: "pool1"
  top: "conv2"
  param {
    lr_mult: 1
  }
  param {
    lr_mult: 2
  }
  convolution_param {
    num_output: 128
    pad: 2
    kernel_size: 5
    stride: 1
    weight_filler {
      type: "gaussian"
      std: 0.01
    }
    bias_filler {
      type: "constant"
    }
  }
}
layer {
  name: "relu2"
  type: "ReLU"
  bottom: "conv2"
  top: "conv2"
}
layer {
  name: "conv3"
  type: "Convolution"
  bottom: "conv2"
  top: "conv3"
  param {
    lr_mult: 1
  }
  param {
    lr_mult: 2
  }
  convolution_param {
    num_output: 128
    pad: 2
    kernel_size: 5
    stride: 1
    weight_filler {
      type: "gaussian"
      std: 0.01
    }
    bias_filler {
      type: "constant"
    }
  }
}
layer {
  name: "relu3"
  type: "ReLU"
  bottom: "conv3"
  top: "conv3"
}
layer {
  name: "pool3"
  type: "Pooling"
  bottom: "conv3"
  top: "pool3"
  pooling_param {
    pool: AVE
    kernel_size: 3
    stride: 2
  }
}
layer {
  name: "ip1"
  type: "InnerProduct"
  bottom: "pool3"
  top: "ip1"
  param {
    lr_mult: 1
  }
  param {
    lr_mult: 2
  }
  inner_product_param {
    num_output: 512
    weight_filler {
      type: "gaussian"
      std: 0.1
    }
    bias_filler {
      type: "constant"
    }
  }
}
layer {
  name: "ip2"
  type: "InnerProduct"
  bottom: "ip1"
  top: "ip2"
  param {
    lr_mult: 1
  }
  param {
    lr_mult: 2
  }
  inner_product_param {
    num_output: 256
    weight_filler {
      type: "gaussian"
      std: 0.1
    }
    bias_filler {
      type: "constant"
    }
  }
}
layer {
  name: "ip3"
  type: "InnerProduct"
  bottom: "ip2"
  top: "ip3"
  param {
    lr_mult: 1
  }
  param {
    lr_mult: 2
  }
  inner_product_param {
    num_output: 50
    weight_filler {
      type: "gaussian"
      std: 0.1
    }
    bias_filler {
      type: "constant"
    }
  }
}
layer {
  name: "loss"
  type: "SoftmaxWithLoss"
  bottom: "ip3"
  bottom: "label"
  top: "loss"
}
I0505 12:32:27.310869  6823 layer_factory.hpp:77] Creating layer parameters
I0505 12:32:27.310878  6823 net.cpp:94] Creating Layer parameters
I0505 12:32:27.310881  6823 net.cpp:409] parameters -> data
I0505 12:32:27.310889  6823 net.cpp:409] parameters -> label
I0505 12:32:27.310894  6823 hdf5_data_layer.cpp:79] Loading list of HDF5 filenames from: /home/purduethu/scratch/radon/d/deng106/CNNStatisticalModel/distributions/input/20_distributions_400_sample_size_train-distributions-path.txt
I0505 12:32:27.310909  6823 hdf5_data_layer.cpp:93] Number of HDF5 files: 1
I0505 12:32:27.568145  6823 hdf5.cpp:35] Datatype class: H5T_INTEGER
I0505 12:32:27.569193  6823 net.cpp:144] Setting up parameters
I0505 12:32:27.569211  6823 net.cpp:151] Top shape: 20 1 20 20 (8000)
I0505 12:32:27.569214  6823 net.cpp:151] Top shape: 20 (20)
I0505 12:32:27.569218  6823 net.cpp:159] Memory required for data: 32080
I0505 12:32:27.569223  6823 layer_factory.hpp:77] Creating layer conv1
I0505 12:32:27.569239  6823 net.cpp:94] Creating Layer conv1
I0505 12:32:27.569243  6823 net.cpp:435] conv1 <- data
I0505 12:32:27.569249  6823 net.cpp:409] conv1 -> conv1
I0505 12:32:27.571632  6823 net.cpp:144] Setting up conv1
I0505 12:32:27.571647  6823 net.cpp:151] Top shape: 20 64 20 20 (512000)
I0505 12:32:27.571650  6823 net.cpp:159] Memory required for data: 2080080
I0505 12:32:27.571661  6823 layer_factory.hpp:77] Creating layer relu1
I0505 12:32:27.571668  6823 net.cpp:94] Creating Layer relu1
I0505 12:32:27.571672  6823 net.cpp:435] relu1 <- conv1
I0505 12:32:27.571676  6823 net.cpp:396] relu1 -> conv1 (in-place)
I0505 12:32:27.571684  6823 net.cpp:144] Setting up relu1
I0505 12:32:27.571688  6823 net.cpp:151] Top shape: 20 64 20 20 (512000)
I0505 12:32:27.571691  6823 net.cpp:159] Memory required for data: 4128080
I0505 12:32:27.571694  6823 layer_factory.hpp:77] Creating layer pool1
I0505 12:32:27.571699  6823 net.cpp:94] Creating Layer pool1
I0505 12:32:27.571703  6823 net.cpp:435] pool1 <- conv1
I0505 12:32:27.571713  6823 net.cpp:409] pool1 -> pool1
I0505 12:32:27.571772  6823 net.cpp:144] Setting up pool1
I0505 12:32:27.571779  6823 net.cpp:151] Top shape: 20 64 10 10 (128000)
I0505 12:32:27.571782  6823 net.cpp:159] Memory required for data: 4640080
I0505 12:32:27.571786  6823 layer_factory.hpp:77] Creating layer conv2
I0505 12:32:27.571794  6823 net.cpp:94] Creating Layer conv2
I0505 12:32:27.571799  6823 net.cpp:435] conv2 <- pool1
I0505 12:32:27.571802  6823 net.cpp:409] conv2 -> conv2
I0505 12:32:27.583093  6823 net.cpp:144] Setting up conv2
I0505 12:32:27.583109  6823 net.cpp:151] Top shape: 20 128 10 10 (256000)
I0505 12:32:27.583114  6823 net.cpp:159] Memory required for data: 5664080
I0505 12:32:27.583122  6823 layer_factory.hpp:77] Creating layer relu2
I0505 12:32:27.583128  6823 net.cpp:94] Creating Layer relu2
I0505 12:32:27.583132  6823 net.cpp:435] relu2 <- conv2
I0505 12:32:27.583137  6823 net.cpp:396] relu2 -> conv2 (in-place)
I0505 12:32:27.583144  6823 net.cpp:144] Setting up relu2
I0505 12:32:27.583148  6823 net.cpp:151] Top shape: 20 128 10 10 (256000)
I0505 12:32:27.583151  6823 net.cpp:159] Memory required for data: 6688080
I0505 12:32:27.583154  6823 layer_factory.hpp:77] Creating layer conv3
I0505 12:32:27.583161  6823 net.cpp:94] Creating Layer conv3
I0505 12:32:27.583165  6823 net.cpp:435] conv3 <- conv2
I0505 12:32:27.583169  6823 net.cpp:409] conv3 -> conv3
I0505 12:32:27.601538  6823 net.cpp:144] Setting up conv3
I0505 12:32:27.601554  6823 net.cpp:151] Top shape: 20 128 10 10 (256000)
I0505 12:32:27.601558  6823 net.cpp:159] Memory required for data: 7712080
I0505 12:32:27.601567  6823 layer_factory.hpp:77] Creating layer relu3
I0505 12:32:27.601573  6823 net.cpp:94] Creating Layer relu3
I0505 12:32:27.601577  6823 net.cpp:435] relu3 <- conv3
I0505 12:32:27.601582  6823 net.cpp:396] relu3 -> conv3 (in-place)
I0505 12:32:27.601588  6823 net.cpp:144] Setting up relu3
I0505 12:32:27.601593  6823 net.cpp:151] Top shape: 20 128 10 10 (256000)
I0505 12:32:27.601595  6823 net.cpp:159] Memory required for data: 8736080
I0505 12:32:27.601598  6823 layer_factory.hpp:77] Creating layer pool3
I0505 12:32:27.601604  6823 net.cpp:94] Creating Layer pool3
I0505 12:32:27.601608  6823 net.cpp:435] pool3 <- conv3
I0505 12:32:27.601611  6823 net.cpp:409] pool3 -> pool3
I0505 12:32:27.601652  6823 net.cpp:144] Setting up pool3
I0505 12:32:27.601660  6823 net.cpp:151] Top shape: 20 128 5 5 (64000)
I0505 12:32:27.601662  6823 net.cpp:159] Memory required for data: 8992080
I0505 12:32:27.601665  6823 layer_factory.hpp:77] Creating layer ip1
I0505 12:32:27.601672  6823 net.cpp:94] Creating Layer ip1
I0505 12:32:27.601676  6823 net.cpp:435] ip1 <- pool3
I0505 12:32:27.601680  6823 net.cpp:409] ip1 -> ip1
I0505 12:32:27.641575  6823 net.cpp:144] Setting up ip1
I0505 12:32:27.641602  6823 net.cpp:151] Top shape: 20 512 (10240)
I0505 12:32:27.641605  6823 net.cpp:159] Memory required for data: 9033040
I0505 12:32:27.641613  6823 layer_factory.hpp:77] Creating layer ip2
I0505 12:32:27.641623  6823 net.cpp:94] Creating Layer ip2
I0505 12:32:27.641628  6823 net.cpp:435] ip2 <- ip1
I0505 12:32:27.641633  6823 net.cpp:409] ip2 -> ip2
I0505 12:32:27.644804  6823 net.cpp:144] Setting up ip2
I0505 12:32:27.644814  6823 net.cpp:151] Top shape: 20 256 (5120)
I0505 12:32:27.644817  6823 net.cpp:159] Memory required for data: 9053520
I0505 12:32:27.644825  6823 layer_factory.hpp:77] Creating layer ip3
I0505 12:32:27.644832  6823 net.cpp:94] Creating Layer ip3
I0505 12:32:27.644835  6823 net.cpp:435] ip3 <- ip2
I0505 12:32:27.644840  6823 net.cpp:409] ip3 -> ip3
I0505 12:32:27.646178  6823 net.cpp:144] Setting up ip3
I0505 12:32:27.646190  6823 net.cpp:151] Top shape: 20 50 (1000)
I0505 12:32:27.646194  6823 net.cpp:159] Memory required for data: 9057520
I0505 12:32:27.646200  6823 layer_factory.hpp:77] Creating layer loss
I0505 12:32:27.646206  6823 net.cpp:94] Creating Layer loss
I0505 12:32:27.646210  6823 net.cpp:435] loss <- ip3
I0505 12:32:27.646214  6823 net.cpp:435] loss <- label
I0505 12:32:27.646225  6823 net.cpp:409] loss -> loss
I0505 12:32:27.646234  6823 layer_factory.hpp:77] Creating layer loss
…
I0505 12:32:27.646679  6823 solver.cpp:181] Creating test net (#0) specified by net file: ./protocol/dis_20_400_dimension.protocol_distribution
I0505 12:32:27.646703  6823 net.cpp:323] The NetState phase (1) differed from the phase (0) specified by a rule in layer parameters
I0505 12:32:27.646780  6823 net.cpp:52] Initializing net from parameters: 
state {
  phase: TEST
}
layer {
  name: "intercept"
  type: "HDF5Data"
  top: "data"
  top: "label"
  include {
    phase: TEST
  }
  hdf5_data_param {
    source: "/home/purduethu/scratch/radon/d/deng106/CNNStatisticalModel/distributions/input/20_distributions_400_sample_size_test-distributions-path.txt"
    batch_size: 20
  }
}
layer {
  name: "conv1"
  type: "Convolution"
  bottom: "data"
  top: "conv1"
  param {
    lr_mult: 1
  }
  param {
    lr_mult: 2
  }
  convolution_param {
    num_output: 64
    pad: 2
    kernel_size: 5
    stride: 1
    weight_filler {
      type: "gaussian"
      std: 0.0001
    }
    bias_filler {
      type: "constant"
    }
  }
}
layer {
  name: "relu1"
  type: "ReLU"
  bottom: "conv1"
  top: "conv1"
}
layer {
  name: "pool1"
  type: "Pooling"
  bottom: "conv1"
  top: "pool1"
  pooling_param {
    pool: MAX
    kernel_size: 3
    stride: 2
  }
}
layer {
  name: "conv2"
  type: "Convolution"
  bottom: "pool1"
  top: "conv2"
  param {
    lr_mult: 1
  }
  param {
    lr_mult: 2
  }
  convolution_param {
    num_output: 128
    pad: 2
    kernel_size: 5
    stride: 1
    weight_filler {
      type: "gaussian"
      std: 0.01
    }
    bias_filler {
      type: "constant"
    }
  }
}
layer {
  name: "relu2"
  type: "ReLU"
  bottom: "conv2"
  top: "conv2"
}
layer {
  name: "conv3"
  type: "Convolution"
  bottom: "conv2"
  top: "conv3"
  param {
    lr_mult: 1
  }
  param {
    lr_mult: 2
  }
  convolution_param {
    num_output: 128
    pad: 2
    kernel_size: 5
    stride: 1
    weight_filler {
      type: "gaussian"
      std: 0.01
    }
    bias_filler {
      type: "constant"
    }
  }
}
layer {
  name: "relu3"
  type: "ReLU"
  bottom: "conv3"
  top: "conv3"
}
layer {
  name: "pool3"
  type: "Pooling"
  bottom: "conv3"
  top: "pool3"
  pooling_param {
    pool: AVE
    kernel_size: 3
    stride: 2
  }
}
layer {
  name: "ip1"
  type: "InnerProduct"
  bottom: "pool3"
  top: "ip1"
  param {
    lr_mult: 1
  }
  param {
    lr_mult: 2
  }
  inner_product_param {
    num_output: 512
    weight_filler {
      type: "gaussian"
      std: 0.1
    }
    bias_filler {
      type: "constant"
    }
  }
}
layer {
  name: "ip2"
  type: "InnerProduct"
  bottom: "ip1"
  top: "ip2"
  param {
    lr_mult: 1
  }
  param {
    lr_mult: 2
  }
  inner_product_param {
    num_output: 256
    weight_filler {
      type: "gaussian"
      std: 0.1
    }
    bias_filler {
      type: "constant"
    }
  }
}
layer {
  name: "ip3"
  type: "InnerProduct"
  bottom: "ip2"
  top: "ip3"
  param {
    lr_mult: 1
  }
  param {
    lr_mult: 2
  }
  inner_product_param {
    num_output: 50
    weight_filler {
      type: "gaussian"
      std: 0.1
    }
    bias_filler {
      type: "constant"
    }
  }
}
layer {
  name: "accuracy"
  type: "Accuracy"
  bottom: "ip3"
  bottom: "label"
  top: "accuracy"
  include {
    phase: TEST
  }
}
layer {
  name: "loss"
  type: "SoftmaxWithLoss"
  bottom: "ip3"
  bottom: "label"
  top: "loss"
}
I0505 12:32:27.646837  6823 layer_factory.hpp:77] Creating layer intercept
I0505 12:32:27.646847  6823 net.cpp:94] Creating Layer intercept
I0505 12:32:27.646850  6823 net.cpp:409] intercept -> data
I0505 12:32:27.646857  6823 net.cpp:409] intercept -> label
I0505 12:32:27.646862  6823 hdf5_data_layer.cpp:79] Loading list of HDF5 filenames from: /home/purduethu/scratch/radon/d/deng106/CNNStatisticalModel/distributions/input/20_distributions_400_sample_size_test-distributions-path.txt
I0505 12:32:27.646881  6823 hdf5_data_layer.cpp:93] Number of HDF5 files: 1
I0505 12:32:27.712198  6823 net.cpp:144] Setting up intercept
I0505 12:32:27.712234  6823 net.cpp:151] Top shape: 20 1 20 20 (8000)
I0505 12:32:27.712239  6823 net.cpp:151] Top shape: 20 (20)
I0505 12:32:27.712241  6823 net.cpp:159] Memory required for data: 32080
I0505 12:32:27.712247  6823 layer_factory.hpp:77] Creating layer label_intercept_1_split
I0505 12:32:27.712265  6823 net.cpp:94] Creating Layer label_intercept_1_split
I0505 12:32:27.712270  6823 net.cpp:435] label_intercept_1_split <- label
I0505 12:32:27.712276  6823 net.cpp:409] label_intercept_1_split -> label_intercept_1_split_0
I0505 12:32:27.712285  6823 net.cpp:409] label_intercept_1_split -> label_intercept_1_split_1
I0505 12:32:27.712327  6823 net.cpp:144] Setting up label_intercept_1_split
I0505 12:32:27.712333  6823 net.cpp:151] Top shape: 20 (20)
I0505 12:32:27.712337  6823 net.cpp:151] Top shape: 20 (20)
I0505 12:32:27.712340  6823 net.cpp:159] Memory required for data: 32240
I0505 12:32:27.712343  6823 layer_factory.hpp:77] Creating layer conv1
I0505 12:32:27.712353  6823 net.cpp:94] Creating Layer conv1
I0505 12:32:27.712357  6823 net.cpp:435] conv1 <- data
I0505 12:32:27.712362  6823 net.cpp:409] conv1 -> conv1
I0505 12:32:27.713219  6823 net.cpp:144] Setting up conv1
I0505 12:32:27.713233  6823 net.cpp:151] Top shape: 20 64 20 20 (512000)
I0505 12:32:27.713237  6823 net.cpp:159] Memory required for data: 2080240
I0505 12:32:27.713246  6823 layer_factory.hpp:77] Creating layer relu1
I0505 12:32:27.713253  6823 net.cpp:94] Creating Layer relu1
I0505 12:32:27.713258  6823 net.cpp:435] relu1 <- conv1
I0505 12:32:27.713261  6823 net.cpp:396] relu1 -> conv1 (in-place)
I0505 12:32:27.713268  6823 net.cpp:144] Setting up relu1
I0505 12:32:27.713273  6823 net.cpp:151] Top shape: 20 64 20 20 (512000)
I0505 12:32:27.713275  6823 net.cpp:159] Memory required for data: 4128240
I0505 12:32:27.713279  6823 layer_factory.hpp:77] Creating layer pool1
I0505 12:32:27.713285  6823 net.cpp:94] Creating Layer pool1
I0505 12:32:27.713289  6823 net.cpp:435] pool1 <- conv1
I0505 12:32:27.713292  6823 net.cpp:409] pool1 -> pool1
I0505 12:32:27.713346  6823 net.cpp:144] Setting up pool1
I0505 12:32:27.713352  6823 net.cpp:151] Top shape: 20 64 10 10 (128000)
I0505 12:32:27.713356  6823 net.cpp:159] Memory required for data: 4640240
I0505 12:32:27.713359  6823 layer_factory.hpp:77] Creating layer conv2
I0505 12:32:27.713367  6823 net.cpp:94] Creating Layer conv2
I0505 12:32:27.713371  6823 net.cpp:435] conv2 <- pool1
I0505 12:32:27.713376  6823 net.cpp:409] conv2 -> conv2
I0505 12:32:27.721112  6823 net.cpp:144] Setting up conv2
I0505 12:32:27.721125  6823 net.cpp:151] Top shape: 20 128 10 10 (256000)
I0505 12:32:27.721129  6823 net.cpp:159] Memory required for data: 5664240
I0505 12:32:27.721138  6823 layer_factory.hpp:77] Creating layer relu2
I0505 12:32:27.721151  6823 net.cpp:94] Creating Layer relu2
I0505 12:32:27.721155  6823 net.cpp:435] relu2 <- conv2
I0505 12:32:27.721160  6823 net.cpp:396] relu2 -> conv2 (in-place)
I0505 12:32:27.721166  6823 net.cpp:144] Setting up relu2
I0505 12:32:27.721171  6823 net.cpp:151] Top shape: 20 128 10 10 (256000)
I0505 12:32:27.721174  6823 net.cpp:159] Memory required for data: 6688240
I0505 12:32:27.721176  6823 layer_factory.hpp:77] Creating layer conv3
I0505 12:32:27.721184  6823 net.cpp:94] Creating Layer conv3
I0505 12:32:27.721189  6823 net.cpp:435] conv3 <- conv2
I0505 12:32:27.721192  6823 net.cpp:409] conv3 -> conv3
I0505 12:32:27.734985  6823 net.cpp:144] Setting up conv3
I0505 12:32:27.735021  6823 net.cpp:151] Top shape: 20 128 10 10 (256000)
I0505 12:32:27.735031  6823 net.cpp:159] Memory required for data: 7712240
I0505 12:32:27.735054  6823 layer_factory.hpp:77] Creating layer relu3
I0505 12:32:27.735070  6823 net.cpp:94] Creating Layer relu3
I0505 12:32:27.735081  6823 net.cpp:435] relu3 <- conv3
I0505 12:32:27.735093  6823 net.cpp:396] relu3 -> conv3 (in-place)
I0505 12:32:27.735111  6823 net.cpp:144] Setting up relu3
I0505 12:32:27.735123  6823 net.cpp:151] Top shape: 20 128 10 10 (256000)
I0505 12:32:27.735132  6823 net.cpp:159] Memory required for data: 8736240
I0505 12:32:27.735141  6823 layer_factory.hpp:77] Creating layer pool3
I0505 12:32:27.735153  6823 net.cpp:94] Creating Layer pool3
I0505 12:32:27.735162  6823 net.cpp:435] pool3 <- conv3
I0505 12:32:27.735173  6823 net.cpp:409] pool3 -> pool3
I0505 12:32:27.735271  6823 net.cpp:144] Setting up pool3
I0505 12:32:27.735290  6823 net.cpp:151] Top shape: 20 128 5 5 (64000)
I0505 12:32:27.735297  6823 net.cpp:159] Memory required for data: 8992240
I0505 12:32:27.735306  6823 layer_factory.hpp:77] Creating layer ip1
I0505 12:32:27.735322  6823 net.cpp:94] Creating Layer ip1
I0505 12:32:27.735332  6823 net.cpp:435] ip1 <- pool3
I0505 12:32:27.735344  6823 net.cpp:409] ip1 -> ip1
I0505 12:32:27.775265  6823 net.cpp:144] Setting up ip1
I0505 12:32:27.775290  6823 net.cpp:151] Top shape: 20 512 (10240)
I0505 12:32:27.775293  6823 net.cpp:159] Memory required for data: 9033200
I0505 12:32:27.775300  6823 layer_factory.hpp:77] Creating layer ip2
I0505 12:32:27.775310  6823 net.cpp:94] Creating Layer ip2
I0505 12:32:27.775313  6823 net.cpp:435] ip2 <- ip1
I0505 12:32:27.775318  6823 net.cpp:409] ip2 -> ip2
I0505 12:32:27.778493  6823 net.cpp:144] Setting up ip2
I0505 12:32:27.778504  6823 net.cpp:151] Top shape: 20 256 (5120)
I0505 12:32:27.778507  6823 net.cpp:159] Memory required for data: 9053680
I0505 12:32:27.778514  6823 layer_factory.hpp:77] Creating layer ip3
I0505 12:32:27.778522  6823 net.cpp:94] Creating Layer ip3
I0505 12:32:27.778524  6823 net.cpp:435] ip3 <- ip2
I0505 12:32:27.778529  6823 net.cpp:409] ip3 -> ip3
I0505 12:32:27.778970  6823 net.cpp:144] Setting up ip3
I0505 12:32:27.778976  6823 net.cpp:151] Top shape: 20 50 (1000)
I0505 12:32:27.778980  6823 net.cpp:159] Memory required for data: 9057680
I0505 12:32:27.778985  6823 layer_factory.hpp:77] Creating layer ip3_ip3_0_split
I0505 12:32:27.778990  6823 net.cpp:94] Creating Layer ip3_ip3_0_split
I0505 12:32:27.778993  6823 net.cpp:435] ip3_ip3_0_split <- ip3
I0505 12:32:27.778997  6823 net.cpp:409] ip3_ip3_0_split -> ip3_ip3_0_split_0
I0505 12:32:27.779002  6823 net.cpp:409] ip3_ip3_0_split -> ip3_ip3_0_split_1
I0505 12:32:27.779045  6823 net.cpp:144] Setting up ip3_ip3_0_split
I0505 12:32:27.779052  6823 net.cpp:151] Top shape: 20 50 (1000)
I0505 12:32:27.779054  6823 net.cpp:151] Top shape: 20 50 (1000)
I0505 12:32:27.779057  6823 net.cpp:159] Memory required for data: 9065680
I0505 12:32:27.779060  6823 layer_factory.hpp:77] Creating layer accuracy
I0505 12:32:27.779065  6823 net.cpp:94] Creating Layer accuracy
I0505 12:32:27.779069  6823 net.cpp:435] accuracy <- ip3_ip3_0_split_0
I0505 12:32:27.779072  6823 net.cpp:435] accuracy <- label_intercept_1_split_0
I0505 12:32:27.779076  6823 net.cpp:409] accuracy -> accuracy
…
