…
I0505 16:09:04.675897  8049 net.cpp:323] The NetState phase (0) differed from the phase (1) specified by a rule in layer intercept
I0505 16:09:04.675937  8049 net.cpp:323] The NetState phase (0) differed from the phase (1) specified by a rule in layer loss
I0505 16:09:04.676132  8049 net.cpp:52] Initializing net from parameters: 
state {
  phase: TRAIN
}
layer {
  name: "parameters"
  type: "HDF5Data"
  top: "data"
  top: "label"
  include {
    phase: TRAIN
  }
  hdf5_data_param {
    source: "/home/purduethu/scratch/radon/d/deng106/CNNStatisticalModel/distributions/input/50_distributions_400_sample_size_train-parameters-path.txt"
    batch_size: 20
  }
}
layer {
  name: "conv1"
  type: "Convolution"
  bottom: "data"
  top: "conv1"
  param {
    lr_mult: 1
  }
  param {
    lr_mult: 2
  }
  convolution_param {
    num_output: 64
    pad: 2
    kernel_size: 5
    stride: 1
    weight_filler {
      type: "gaussian"
      std: 0.0001
    }
    bias_filler {
      type: "constant"
    }
  }
}
layer {
  name: "relu1"
  type: "ReLU"
  bottom: "conv1"
  top: "conv1"
}
layer {
  name: "pool1"
  type: "Pooling"
  bottom: "conv1"
  top: "pool1"
  pooling_param {
    pool: MAX
    kernel_size: 3
    stride: 2
  }
}
layer {
  name: "conv2"
  type: "Convolution"
  bottom: "pool1"
  top: "conv2"
  param {
    lr_mult: 1
  }
  param {
    lr_mult: 2
  }
  convolution_param {
    num_output: 128
    pad: 2
    kernel_size: 5
    stride: 1
    weight_filler {
      type: "gaussian"
      std: 0.01
    }
    bias_filler {
      type: "constant"
    }
  }
}
layer {
  name: "relu2"
  type: "ReLU"
  bottom: "conv2"
  top: "conv2"
}
layer {
  name: "conv3"
  type: "Convolution"
  bottom: "conv2"
  top: "conv3"
  param {
    lr_mult: 1
  }
  param {
    lr_mult: 2
  }
  convolution_param {
    num_output: 128
    pad: 2
    kernel_size: 5
    stride: 1
    weight_filler {
      type: "gaussian"
      std: 0.01
    }
    bias_filler {
      type: "constant"
    }
  }
}
layer {
  name: "relu3"
  type: "ReLU"
  bottom: "conv3"
  top: "conv3"
}
layer {
  name: "pool3"
  type: "Pooling"
  bottom: "conv3"
  top: "pool3"
  pooling_param {
    pool: AVE
    kernel_size: 3
    stride: 2
  }
}
layer {
  name: "ip1"
  type: "InnerProduct"
  bottom: "pool3"
  top: "ip1"
  param {
    lr_mult: 1
  }
  param {
    lr_mult: 2
  }
  inner_product_param {
    num_output: 512
    weight_filler {
      type: "gaussian"
      std: 0.1
    }
    bias_filler {
      type: "constant"
    }
  }
}
layer {
  name: "ip2"
  type: "InnerProduct"
  bottom: "ip1"
  top: "ip2"
  param {
    lr_mult: 1
  }
  param {
    lr_mult: 2
  }
  inner_product_param {
    num_output: 256
    weight_filler {
      type: "gaussian"
      std: 0.1
    }
    bias_filler {
      type: "constant"
    }
  }
}
layer {
  name: "ip3"
  type: "InnerProduct"
  bottom: "ip2"
  top: "ip3"
  param {
    lr_mult: 1
  }
  param {
    lr_mult: 2
  }
  inner_product_param {
    num_output: 1
    weight_filler {
      type: "gaussian"
      std: 0.1
    }
    bias_filler {
      type: "constant"
    }
  }
}
layer {
  name: "loss"
  type: "HuberLoss"
  bottom: "ip3"
  bottom: "label"
  top: "loss"
  include {
    phase: TRAIN
  }
}
I0505 16:09:04.676254  8049 layer_factory.hpp:77] Creating layer parameters
I0505 16:09:04.676283  8049 net.cpp:94] Creating Layer parameters
I0505 16:09:04.676296  8049 net.cpp:409] parameters -> data
I0505 16:09:04.676318  8049 net.cpp:409] parameters -> label
I0505 16:09:04.676345  8049 hdf5_data_layer.cpp:79] Loading list of HDF5 filenames from: /home/purduethu/scratch/radon/d/deng106/CNNStatisticalModel/distributions/input/50_distributions_400_sample_size_train-parameters-path.txt
I0505 16:09:04.676380  8049 hdf5_data_layer.cpp:93] Number of HDF5 files: 1
I0505 16:09:04.677773  8049 hdf5.cpp:32] Datatype class: H5T_FLOAT
I0505 16:09:05.437219  8049 net.cpp:144] Setting up parameters
I0505 16:09:05.437252  8049 net.cpp:151] Top shape: 20 1 20 20 (8000)
I0505 16:09:05.437258  8049 net.cpp:151] Top shape: 20 (20)
I0505 16:09:05.437261  8049 net.cpp:159] Memory required for data: 32080
I0505 16:09:05.437268  8049 layer_factory.hpp:77] Creating layer conv1
I0505 16:09:05.437289  8049 net.cpp:94] Creating Layer conv1
I0505 16:09:05.437294  8049 net.cpp:435] conv1 <- data
I0505 16:09:05.437301  8049 net.cpp:409] conv1 -> conv1
I0505 16:09:05.444051  8049 net.cpp:144] Setting up conv1
I0505 16:09:05.444097  8049 net.cpp:151] Top shape: 20 64 20 20 (512000)
I0505 16:09:05.444109  8049 net.cpp:159] Memory required for data: 2080080
I0505 16:09:05.444136  8049 layer_factory.hpp:77] Creating layer relu1
I0505 16:09:05.444156  8049 net.cpp:94] Creating Layer relu1
I0505 16:09:05.444167  8049 net.cpp:435] relu1 <- conv1
I0505 16:09:05.444181  8049 net.cpp:396] relu1 -> conv1 (in-place)
I0505 16:09:05.444212  8049 net.cpp:144] Setting up relu1
I0505 16:09:05.444226  8049 net.cpp:151] Top shape: 20 64 20 20 (512000)
I0505 16:09:05.444236  8049 net.cpp:159] Memory required for data: 4128080
I0505 16:09:05.444245  8049 layer_factory.hpp:77] Creating layer pool1
I0505 16:09:05.444259  8049 net.cpp:94] Creating Layer pool1
I0505 16:09:05.444269  8049 net.cpp:435] pool1 <- conv1
I0505 16:09:05.444283  8049 net.cpp:409] pool1 -> pool1
I0505 16:09:05.444416  8049 net.cpp:144] Setting up pool1
I0505 16:09:05.444433  8049 net.cpp:151] Top shape: 20 64 10 10 (128000)
I0505 16:09:05.444443  8049 net.cpp:159] Memory required for data: 4640080
I0505 16:09:05.444453  8049 layer_factory.hpp:77] Creating layer conv2
I0505 16:09:05.444478  8049 net.cpp:94] Creating Layer conv2
I0505 16:09:05.444489  8049 net.cpp:435] conv2 <- pool1
I0505 16:09:05.444504  8049 net.cpp:409] conv2 -> conv2
I0505 16:09:05.468605  8049 net.cpp:144] Setting up conv2
I0505 16:09:05.468642  8049 net.cpp:151] Top shape: 20 128 10 10 (256000)
I0505 16:09:05.468653  8049 net.cpp:159] Memory required for data: 5664080
I0505 16:09:05.468674  8049 layer_factory.hpp:77] Creating layer relu2
I0505 16:09:05.468690  8049 net.cpp:94] Creating Layer relu2
I0505 16:09:05.468700  8049 net.cpp:435] relu2 <- conv2
I0505 16:09:05.468713  8049 net.cpp:396] relu2 -> conv2 (in-place)
I0505 16:09:05.468732  8049 net.cpp:144] Setting up relu2
I0505 16:09:05.468745  8049 net.cpp:151] Top shape: 20 128 10 10 (256000)
I0505 16:09:05.468755  8049 net.cpp:159] Memory required for data: 6688080
I0505 16:09:05.468762  8049 layer_factory.hpp:77] Creating layer conv3
I0505 16:09:05.468781  8049 net.cpp:94] Creating Layer conv3
I0505 16:09:05.468791  8049 net.cpp:435] conv3 <- conv2
I0505 16:09:05.468806  8049 net.cpp:409] conv3 -> conv3
I0505 16:09:05.505970  8049 net.cpp:144] Setting up conv3
I0505 16:09:05.506002  8049 net.cpp:151] Top shape: 20 128 10 10 (256000)
I0505 16:09:05.506011  8049 net.cpp:159] Memory required for data: 7712080
I0505 16:09:05.506031  8049 layer_factory.hpp:77] Creating layer relu3
I0505 16:09:05.506055  8049 net.cpp:94] Creating Layer relu3
I0505 16:09:05.506065  8049 net.cpp:435] relu3 <- conv3
I0505 16:09:05.506078  8049 net.cpp:396] relu3 -> conv3 (in-place)
I0505 16:09:05.506094  8049 net.cpp:144] Setting up relu3
I0505 16:09:05.506105  8049 net.cpp:151] Top shape: 20 128 10 10 (256000)
I0505 16:09:05.506114  8049 net.cpp:159] Memory required for data: 8736080
I0505 16:09:05.506121  8049 layer_factory.hpp:77] Creating layer pool3
I0505 16:09:05.506134  8049 net.cpp:94] Creating Layer pool3
I0505 16:09:05.506141  8049 net.cpp:435] pool3 <- conv3
I0505 16:09:05.506152  8049 net.cpp:409] pool3 -> pool3
I0505 16:09:05.506237  8049 net.cpp:144] Setting up pool3
I0505 16:09:05.506252  8049 net.cpp:151] Top shape: 20 128 5 5 (64000)
I0505 16:09:05.506259  8049 net.cpp:159] Memory required for data: 8992080
I0505 16:09:05.506268  8049 layer_factory.hpp:77] Creating layer ip1
I0505 16:09:05.506287  8049 net.cpp:94] Creating Layer ip1
I0505 16:09:05.506296  8049 net.cpp:435] ip1 <- pool3
I0505 16:09:05.506307  8049 net.cpp:409] ip1 -> ip1
I0505 16:09:05.586735  8049 net.cpp:144] Setting up ip1
I0505 16:09:05.586768  8049 net.cpp:151] Top shape: 20 512 (10240)
I0505 16:09:05.586776  8049 net.cpp:159] Memory required for data: 9033040
I0505 16:09:05.586788  8049 layer_factory.hpp:77] Creating layer ip2
I0505 16:09:05.586802  8049 net.cpp:94] Creating Layer ip2
I0505 16:09:05.586808  8049 net.cpp:435] ip2 <- ip1
I0505 16:09:05.586817  8049 net.cpp:409] ip2 -> ip2
I0505 16:09:05.592169  8049 net.cpp:144] Setting up ip2
I0505 16:09:05.592185  8049 net.cpp:151] Top shape: 20 256 (5120)
I0505 16:09:05.592191  8049 net.cpp:159] Memory required for data: 9053520
I0505 16:09:05.592203  8049 layer_factory.hpp:77] Creating layer ip3
I0505 16:09:05.592213  8049 net.cpp:94] Creating Layer ip3
I0505 16:09:05.592218  8049 net.cpp:435] ip3 <- ip2
I0505 16:09:05.592226  8049 net.cpp:409] ip3 -> ip3
I0505 16:09:05.592391  8049 net.cpp:144] Setting up ip3
I0505 16:09:05.592401  8049 net.cpp:151] Top shape: 20 1 (20)
I0505 16:09:05.592406  8049 net.cpp:159] Memory required for data: 9053600
I0505 16:09:05.592416  8049 layer_factory.hpp:77] Creating layer loss
I0505 16:09:05.592432  8049 net.cpp:94] Creating Layer loss
I0505 16:09:05.592437  8049 net.cpp:435] loss <- ip3
I0505 16:09:05.592443  8049 net.cpp:435] loss <- label
I0505 16:09:05.592452  8049 net.cpp:409] loss -> loss
I0505 16:09:05.592528  8049 net.cpp:144] Setting up loss
…
I0505 16:09:05.860489  8049 net.cpp:323] The NetState phase (0) differed from the phase (1) specified by a rule in layer intercept
I0505 16:09:05.860504  8049 net.cpp:323] The NetState phase (0) differed from the phase (1) specified by a rule in layer accuracy
I0505 16:09:05.860594  8049 net.cpp:52] Initializing net from parameters: 
state {
  phase: TRAIN
}
layer {
  name: "parameters"
  type: "HDF5Data"
  top: "data"
  top: "label"
  include {
    phase: TRAIN
  }
  hdf5_data_param {
    source: "/home/purduethu/scratch/radon/d/deng106/CNNStatisticalModel/distributions/input/50_distributions_400_sample_size_train-distributions-path.txt"
    batch_size: 20
  }
}
layer {
  name: "conv1"
  type: "Convolution"
  bottom: "data"
  top: "conv1"
  param {
    lr_mult: 1
  }
  param {
    lr_mult: 2
  }
  convolution_param {
    num_output: 64
    pad: 2
    kernel_size: 5
    stride: 1
    weight_filler {
      type: "gaussian"
      std: 0.0001
    }
    bias_filler {
      type: "constant"
    }
  }
}
layer {
  name: "relu1"
  type: "ReLU"
  bottom: "conv1"
  top: "conv1"
}
layer {
  name: "pool1"
  type: "Pooling"
  bottom: "conv1"
  top: "pool1"
  pooling_param {
    pool: MAX
    kernel_size: 3
    stride: 2
  }
}
layer {
  name: "conv2"
  type: "Convolution"
  bottom: "pool1"
  top: "conv2"
  param {
    lr_mult: 1
  }
  param {
    lr_mult: 2
  }
  convolution_param {
    num_output: 128
    pad: 2
    kernel_size: 5
    stride: 1
    weight_filler {
      type: "gaussian"
      std: 0.01
    }
    bias_filler {
      type: "constant"
    }
  }
}
layer {
  name: "relu2"
  type: "ReLU"
  bottom: "conv2"
  top: "conv2"
}
layer {
  name: "conv3"
  type: "Convolution"
  bottom: "conv2"
  top: "conv3"
  param {
    lr_mult: 1
  }
  param {
    lr_mult: 2
  }
  convolution_param {
    num_output: 128
    pad: 2
    kernel_size: 5
    stride: 1
    weight_filler {
      type: "gaussian"
      std: 0.01
    }
    bias_filler {
      type: "constant"
    }
  }
}
layer {
  name: "relu3"
  type: "ReLU"
  bottom: "conv3"
  top: "conv3"
}
layer {
  name: "pool3"
  type: "Pooling"
  bottom: "conv3"
  top: "pool3"
  pooling_param {
    pool: AVE
    kernel_size: 3
    stride: 2
  }
}
layer {
  name: "ip1"
  type: "InnerProduct"
  bottom: "pool3"
  top: "ip1"
  param {
    lr_mult: 1
  }
  param {
    lr_mult: 2
  }
  inner_product_param {
    num_output: 512
    weight_filler {
      type: "gaussian"
      std: 0.1
    }
    bias_filler {
      type: "constant"
    }
  }
}
layer {
  name: "ip2"
  type: "InnerProduct"
  bottom: "ip1"
  top: "ip2"
  param {
    lr_mult: 1
  }
  param {
    lr_mult: 2
  }
  inner_product_param {
    num_output: 256
    weight_filler {
      type: "gaussian"
      std: 0.1
    }
    bias_filler {
      type: "constant"
    }
  }
}
layer {
  name: "ip3"
  type: "InnerProduct"
  bottom: "ip2"
  top: "ip3"
  param {
    lr_mult: 1
  }
  param {
    lr_mult: 2
  }
  inner_product_param {
    num_output: 50
    weight_filler {
      type: "gaussian"
      std: 0.1
    }
    bias_filler {
      type: "constant"
    }
  }
}
layer {
  name: "loss"
  type: "SoftmaxWithLoss"
  bottom: "ip3"
  bottom: "label"
  top: "loss"
}
I0505 16:09:05.860641  8049 layer_factory.hpp:77] Creating layer parameters
I0505 16:09:05.860651  8049 net.cpp:94] Creating Layer parameters
I0505 16:09:05.860656  8049 net.cpp:409] parameters -> data
I0505 16:09:05.860662  8049 net.cpp:409] parameters -> label
I0505 16:09:05.860669  8049 hdf5_data_layer.cpp:79] Loading list of HDF5 filenames from: /home/purduethu/scratch/radon/d/deng106/CNNStatisticalModel/distributions/input/50_distributions_400_sample_size_train-distributions-path.txt
I0505 16:09:05.860685  8049 hdf5_data_layer.cpp:93] Number of HDF5 files: 1
I0505 16:09:06.555140  8049 hdf5.cpp:35] Datatype class: H5T_INTEGER
I0505 16:09:06.558336  8049 net.cpp:144] Setting up parameters
I0505 16:09:06.558359  8049 net.cpp:151] Top shape: 20 1 20 20 (8000)
I0505 16:09:06.558364  8049 net.cpp:151] Top shape: 20 (20)
I0505 16:09:06.558368  8049 net.cpp:159] Memory required for data: 32080
I0505 16:09:06.558375  8049 layer_factory.hpp:77] Creating layer conv1
I0505 16:09:06.558392  8049 net.cpp:94] Creating Layer conv1
I0505 16:09:06.558396  8049 net.cpp:435] conv1 <- data
I0505 16:09:06.558403  8049 net.cpp:409] conv1 -> conv1
I0505 16:09:06.560758  8049 net.cpp:144] Setting up conv1
I0505 16:09:06.560773  8049 net.cpp:151] Top shape: 20 64 20 20 (512000)
I0505 16:09:06.560777  8049 net.cpp:159] Memory required for data: 2080080
I0505 16:09:06.560788  8049 layer_factory.hpp:77] Creating layer relu1
I0505 16:09:06.560796  8049 net.cpp:94] Creating Layer relu1
I0505 16:09:06.560801  8049 net.cpp:435] relu1 <- conv1
I0505 16:09:06.560806  8049 net.cpp:396] relu1 -> conv1 (in-place)
I0505 16:09:06.560813  8049 net.cpp:144] Setting up relu1
I0505 16:09:06.560818  8049 net.cpp:151] Top shape: 20 64 20 20 (512000)
I0505 16:09:06.560822  8049 net.cpp:159] Memory required for data: 4128080
I0505 16:09:06.560825  8049 layer_factory.hpp:77] Creating layer pool1
I0505 16:09:06.560832  8049 net.cpp:94] Creating Layer pool1
I0505 16:09:06.560835  8049 net.cpp:435] pool1 <- conv1
I0505 16:09:06.560847  8049 net.cpp:409] pool1 -> pool1
I0505 16:09:06.560899  8049 net.cpp:144] Setting up pool1
I0505 16:09:06.560906  8049 net.cpp:151] Top shape: 20 64 10 10 (128000)
I0505 16:09:06.560909  8049 net.cpp:159] Memory required for data: 4640080
I0505 16:09:06.560912  8049 layer_factory.hpp:77] Creating layer conv2
I0505 16:09:06.560922  8049 net.cpp:94] Creating Layer conv2
I0505 16:09:06.560925  8049 net.cpp:435] conv2 <- pool1
I0505 16:09:06.560930  8049 net.cpp:409] conv2 -> conv2
I0505 16:09:06.572291  8049 net.cpp:144] Setting up conv2
I0505 16:09:06.572306  8049 net.cpp:151] Top shape: 20 128 10 10 (256000)
I0505 16:09:06.572310  8049 net.cpp:159] Memory required for data: 5664080
I0505 16:09:06.572319  8049 layer_factory.hpp:77] Creating layer relu2
I0505 16:09:06.572326  8049 net.cpp:94] Creating Layer relu2
I0505 16:09:06.572330  8049 net.cpp:435] relu2 <- conv2
I0505 16:09:06.572335  8049 net.cpp:396] relu2 -> conv2 (in-place)
I0505 16:09:06.572342  8049 net.cpp:144] Setting up relu2
I0505 16:09:06.572347  8049 net.cpp:151] Top shape: 20 128 10 10 (256000)
I0505 16:09:06.572350  8049 net.cpp:159] Memory required for data: 6688080
I0505 16:09:06.572355  8049 layer_factory.hpp:77] Creating layer conv3
I0505 16:09:06.572362  8049 net.cpp:94] Creating Layer conv3
I0505 16:09:06.572366  8049 net.cpp:435] conv3 <- conv2
I0505 16:09:06.572371  8049 net.cpp:409] conv3 -> conv3
I0505 16:09:06.591226  8049 net.cpp:144] Setting up conv3
I0505 16:09:06.591243  8049 net.cpp:151] Top shape: 20 128 10 10 (256000)
I0505 16:09:06.591248  8049 net.cpp:159] Memory required for data: 7712080
I0505 16:09:06.591256  8049 layer_factory.hpp:77] Creating layer relu3
I0505 16:09:06.591264  8049 net.cpp:94] Creating Layer relu3
I0505 16:09:06.591267  8049 net.cpp:435] relu3 <- conv3
I0505 16:09:06.591272  8049 net.cpp:396] relu3 -> conv3 (in-place)
I0505 16:09:06.591280  8049 net.cpp:144] Setting up relu3
I0505 16:09:06.591285  8049 net.cpp:151] Top shape: 20 128 10 10 (256000)
I0505 16:09:06.591289  8049 net.cpp:159] Memory required for data: 8736080
I0505 16:09:06.591292  8049 layer_factory.hpp:77] Creating layer pool3
I0505 16:09:06.591298  8049 net.cpp:94] Creating Layer pool3
I0505 16:09:06.591301  8049 net.cpp:435] pool3 <- conv3
I0505 16:09:06.591306  8049 net.cpp:409] pool3 -> pool3
I0505 16:09:06.591346  8049 net.cpp:144] Setting up pool3
I0505 16:09:06.591352  8049 net.cpp:151] Top shape: 20 128 5 5 (64000)
I0505 16:09:06.591356  8049 net.cpp:159] Memory required for data: 8992080
I0505 16:09:06.591359  8049 layer_factory.hpp:77] Creating layer ip1
I0505 16:09:06.591367  8049 net.cpp:94] Creating Layer ip1
I0505 16:09:06.591370  8049 net.cpp:435] ip1 <- pool3
I0505 16:09:06.591375  8049 net.cpp:409] ip1 -> ip1
I0505 16:09:06.631392  8049 net.cpp:144] Setting up ip1
I0505 16:09:06.631417  8049 net.cpp:151] Top shape: 20 512 (10240)
I0505 16:09:06.631422  8049 net.cpp:159] Memory required for data: 9033040
I0505 16:09:06.631429  8049 layer_factory.hpp:77] Creating layer ip2
I0505 16:09:06.631438  8049 net.cpp:94] Creating Layer ip2
I0505 16:09:06.631443  8049 net.cpp:435] ip2 <- ip1
I0505 16:09:06.631448  8049 net.cpp:409] ip2 -> ip2
I0505 16:09:06.634596  8049 net.cpp:144] Setting up ip2
I0505 16:09:06.634606  8049 net.cpp:151] Top shape: 20 256 (5120)
I0505 16:09:06.634609  8049 net.cpp:159] Memory required for data: 9053520
I0505 16:09:06.634618  8049 layer_factory.hpp:77] Creating layer ip3
I0505 16:09:06.634624  8049 net.cpp:94] Creating Layer ip3
I0505 16:09:06.634627  8049 net.cpp:435] ip3 <- ip2
I0505 16:09:06.634632  8049 net.cpp:409] ip3 -> ip3
I0505 16:09:06.635974  8049 net.cpp:144] Setting up ip3
I0505 16:09:06.635999  8049 net.cpp:151] Top shape: 20 50 (1000)
I0505 16:09:06.636003  8049 net.cpp:159] Memory required for data: 9057520
I0505 16:09:06.636010  8049 layer_factory.hpp:77] Creating layer loss
I0505 16:09:06.636018  8049 net.cpp:94] Creating Layer loss
I0505 16:09:06.636023  8049 net.cpp:435] loss <- ip3
I0505 16:09:06.636026  8049 net.cpp:435] loss <- label
I0505 16:09:06.636039  8049 net.cpp:409] loss -> loss
I0505 16:09:06.636049  8049 layer_factory.hpp:77] Creating layer loss
…
I0505 16:09:06.636518  8049 solver.cpp:181] Creating test net (#0) specified by net file: ./protocol/dis_50_400_dimension.protocol_distribution
I0505 16:09:06.636543  8049 net.cpp:323] The NetState phase (1) differed from the phase (0) specified by a rule in layer parameters
I0505 16:09:06.636641  8049 net.cpp:52] Initializing net from parameters: 
state {
  phase: TEST
}
layer {
  name: "intercept"
  type: "HDF5Data"
  top: "data"
  top: "label"
  include {
    phase: TEST
  }
  hdf5_data_param {
    source: "/home/purduethu/scratch/radon/d/deng106/CNNStatisticalModel/distributions/input/50_distributions_400_sample_size_test-distributions-path.txt"
    batch_size: 20
  }
}
layer {
  name: "conv1"
  type: "Convolution"
  bottom: "data"
  top: "conv1"
  param {
    lr_mult: 1
  }
  param {
    lr_mult: 2
  }
  convolution_param {
    num_output: 64
    pad: 2
    kernel_size: 5
    stride: 1
    weight_filler {
      type: "gaussian"
      std: 0.0001
    }
    bias_filler {
      type: "constant"
    }
  }
}
layer {
  name: "relu1"
  type: "ReLU"
  bottom: "conv1"
  top: "conv1"
}
layer {
  name: "pool1"
  type: "Pooling"
  bottom: "conv1"
  top: "pool1"
  pooling_param {
    pool: MAX
    kernel_size: 3
    stride: 2
  }
}
layer {
  name: "conv2"
  type: "Convolution"
  bottom: "pool1"
  top: "conv2"
  param {
    lr_mult: 1
  }
  param {
    lr_mult: 2
  }
  convolution_param {
    num_output: 128
    pad: 2
    kernel_size: 5
    stride: 1
    weight_filler {
      type: "gaussian"
      std: 0.01
    }
    bias_filler {
      type: "constant"
    }
  }
}
layer {
  name: "relu2"
  type: "ReLU"
  bottom: "conv2"
  top: "conv2"
}
layer {
  name: "conv3"
  type: "Convolution"
  bottom: "conv2"
  top: "conv3"
  param {
    lr_mult: 1
  }
  param {
    lr_mult: 2
  }
  convolution_param {
    num_output: 128
    pad: 2
    kernel_size: 5
    stride: 1
    weight_filler {
      type: "gaussian"
      std: 0.01
    }
    bias_filler {
      type: "constant"
    }
  }
}
layer {
  name: "relu3"
  type: "ReLU"
  bottom: "conv3"
  top: "conv3"
}
layer {
  name: "pool3"
  type: "Pooling"
  bottom: "conv3"
  top: "pool3"
  pooling_param {
    pool: AVE
    kernel_size: 3
    stride: 2
  }
}
layer {
  name: "ip1"
  type: "InnerProduct"
  bottom: "pool3"
  top: "ip1"
  param {
    lr_mult: 1
  }
  param {
    lr_mult: 2
  }
  inner_product_param {
    num_output: 512
    weight_filler {
      type: "gaussian"
      std: 0.1
    }
    bias_filler {
      type: "constant"
    }
  }
}
layer {
  name: "ip2"
  type: "InnerProduct"
  bottom: "ip1"
  top: "ip2"
  param {
    lr_mult: 1
  }
  param {
    lr_mult: 2
  }
  inner_product_param {
    num_output: 256
    weight_filler {
      type: "gaussian"
      std: 0.1
    }
    bias_filler {
      type: "constant"
    }
  }
}
layer {
  name: "ip3"
  type: "InnerProduct"
  bottom: "ip2"
  top: "ip3"
  param {
    lr_mult: 1
  }
  param {
    lr_mult: 2
  }
  inner_product_param {
    num_output: 50
    weight_filler {
      type: "gaussian"
      std: 0.1
    }
    bias_filler {
      type: "constant"
    }
  }
}
layer {
  name: "accuracy"
  type: "Accuracy"
  bottom: "ip3"
  bottom: "label"
  top: "accuracy"
  include {
    phase: TEST
  }
}
layer {
  name: "loss"
  type: "SoftmaxWithLoss"
  bottom: "ip3"
  bottom: "label"
  top: "loss"
}
I0505 16:09:06.636700  8049 layer_factory.hpp:77] Creating layer intercept
I0505 16:09:06.636708  8049 net.cpp:94] Creating Layer intercept
I0505 16:09:06.636713  8049 net.cpp:409] intercept -> data
I0505 16:09:06.636720  8049 net.cpp:409] intercept -> label
I0505 16:09:06.636726  8049 hdf5_data_layer.cpp:79] Loading list of HDF5 filenames from: /home/purduethu/scratch/radon/d/deng106/CNNStatisticalModel/distributions/input/50_distributions_400_sample_size_test-distributions-path.txt
I0505 16:09:06.636746  8049 hdf5_data_layer.cpp:93] Number of HDF5 files: 1
I0505 16:09:06.804049  8049 net.cpp:144] Setting up intercept
I0505 16:09:06.804085  8049 net.cpp:151] Top shape: 20 1 20 20 (8000)
I0505 16:09:06.804090  8049 net.cpp:151] Top shape: 20 (20)
I0505 16:09:06.804095  8049 net.cpp:159] Memory required for data: 32080
I0505 16:09:06.804100  8049 layer_factory.hpp:77] Creating layer label_intercept_1_split
I0505 16:09:06.804121  8049 net.cpp:94] Creating Layer label_intercept_1_split
I0505 16:09:06.804126  8049 net.cpp:435] label_intercept_1_split <- label
I0505 16:09:06.804131  8049 net.cpp:409] label_intercept_1_split -> label_intercept_1_split_0
I0505 16:09:06.804141  8049 net.cpp:409] label_intercept_1_split -> label_intercept_1_split_1
I0505 16:09:06.804180  8049 net.cpp:144] Setting up label_intercept_1_split
I0505 16:09:06.804188  8049 net.cpp:151] Top shape: 20 (20)
I0505 16:09:06.804191  8049 net.cpp:151] Top shape: 20 (20)
I0505 16:09:06.804194  8049 net.cpp:159] Memory required for data: 32240
I0505 16:09:06.804198  8049 layer_factory.hpp:77] Creating layer conv1
I0505 16:09:06.804209  8049 net.cpp:94] Creating Layer conv1
I0505 16:09:06.804214  8049 net.cpp:435] conv1 <- data
I0505 16:09:06.804219  8049 net.cpp:409] conv1 -> conv1
I0505 16:09:06.805024  8049 net.cpp:144] Setting up conv1
I0505 16:09:06.805038  8049 net.cpp:151] Top shape: 20 64 20 20 (512000)
I0505 16:09:06.805042  8049 net.cpp:159] Memory required for data: 2080240
I0505 16:09:06.805052  8049 layer_factory.hpp:77] Creating layer relu1
I0505 16:09:06.805058  8049 net.cpp:94] Creating Layer relu1
I0505 16:09:06.805063  8049 net.cpp:435] relu1 <- conv1
I0505 16:09:06.805068  8049 net.cpp:396] relu1 -> conv1 (in-place)
I0505 16:09:06.805075  8049 net.cpp:144] Setting up relu1
I0505 16:09:06.805079  8049 net.cpp:151] Top shape: 20 64 20 20 (512000)
I0505 16:09:06.805083  8049 net.cpp:159] Memory required for data: 4128240
I0505 16:09:06.805085  8049 layer_factory.hpp:77] Creating layer pool1
I0505 16:09:06.805093  8049 net.cpp:94] Creating Layer pool1
I0505 16:09:06.805096  8049 net.cpp:435] pool1 <- conv1
I0505 16:09:06.805100  8049 net.cpp:409] pool1 -> pool1
I0505 16:09:06.805150  8049 net.cpp:144] Setting up pool1
I0505 16:09:06.805156  8049 net.cpp:151] Top shape: 20 64 10 10 (128000)
I0505 16:09:06.805160  8049 net.cpp:159] Memory required for data: 4640240
I0505 16:09:06.805163  8049 layer_factory.hpp:77] Creating layer conv2
I0505 16:09:06.805171  8049 net.cpp:94] Creating Layer conv2
I0505 16:09:06.805176  8049 net.cpp:435] conv2 <- pool1
I0505 16:09:06.805181  8049 net.cpp:409] conv2 -> conv2
I0505 16:09:06.812985  8049 net.cpp:144] Setting up conv2
I0505 16:09:06.813000  8049 net.cpp:151] Top shape: 20 128 10 10 (256000)
I0505 16:09:06.813004  8049 net.cpp:159] Memory required for data: 5664240
I0505 16:09:06.813014  8049 layer_factory.hpp:77] Creating layer relu2
I0505 16:09:06.813025  8049 net.cpp:94] Creating Layer relu2
I0505 16:09:06.813030  8049 net.cpp:435] relu2 <- conv2
I0505 16:09:06.813035  8049 net.cpp:396] relu2 -> conv2 (in-place)
I0505 16:09:06.813042  8049 net.cpp:144] Setting up relu2
I0505 16:09:06.813047  8049 net.cpp:151] Top shape: 20 128 10 10 (256000)
I0505 16:09:06.813050  8049 net.cpp:159] Memory required for data: 6688240
I0505 16:09:06.813055  8049 layer_factory.hpp:77] Creating layer conv3
I0505 16:09:06.813061  8049 net.cpp:94] Creating Layer conv3
I0505 16:09:06.813066  8049 net.cpp:435] conv3 <- conv2
I0505 16:09:06.813071  8049 net.cpp:409] conv3 -> conv3
I0505 16:09:06.826889  8049 net.cpp:144] Setting up conv3
I0505 16:09:06.826903  8049 net.cpp:151] Top shape: 20 128 10 10 (256000)
I0505 16:09:06.826907  8049 net.cpp:159] Memory required for data: 7712240
I0505 16:09:06.826916  8049 layer_factory.hpp:77] Creating layer relu3
I0505 16:09:06.826925  8049 net.cpp:94] Creating Layer relu3
I0505 16:09:06.826928  8049 net.cpp:435] relu3 <- conv3
I0505 16:09:06.826932  8049 net.cpp:396] relu3 -> conv3 (in-place)
I0505 16:09:06.826941  8049 net.cpp:144] Setting up relu3
I0505 16:09:06.826946  8049 net.cpp:151] Top shape: 20 128 10 10 (256000)
I0505 16:09:06.826948  8049 net.cpp:159] Memory required for data: 8736240
I0505 16:09:06.826951  8049 layer_factory.hpp:77] Creating layer pool3
I0505 16:09:06.826957  8049 net.cpp:94] Creating Layer pool3
I0505 16:09:06.826961  8049 net.cpp:435] pool3 <- conv3
I0505 16:09:06.826966  8049 net.cpp:409] pool3 -> pool3
I0505 16:09:06.827003  8049 net.cpp:144] Setting up pool3
I0505 16:09:06.827010  8049 net.cpp:151] Top shape: 20 128 5 5 (64000)
I0505 16:09:06.827013  8049 net.cpp:159] Memory required for data: 8992240
I0505 16:09:06.827018  8049 layer_factory.hpp:77] Creating layer ip1
I0505 16:09:06.827024  8049 net.cpp:94] Creating Layer ip1
I0505 16:09:06.827028  8049 net.cpp:435] ip1 <- pool3
I0505 16:09:06.827033  8049 net.cpp:409] ip1 -> ip1
I0505 16:09:06.873646  8049 net.cpp:144] Setting up ip1
I0505 16:09:06.873672  8049 net.cpp:151] Top shape: 20 512 (10240)
I0505 16:09:06.873675  8049 net.cpp:159] Memory required for data: 9033200
I0505 16:09:06.873683  8049 layer_factory.hpp:77] Creating layer ip2
I0505 16:09:06.873693  8049 net.cpp:94] Creating Layer ip2
I0505 16:09:06.873697  8049 net.cpp:435] ip2 <- ip1
I0505 16:09:06.873704  8049 net.cpp:409] ip2 -> ip2
I0505 16:09:06.877408  8049 net.cpp:144] Setting up ip2
I0505 16:09:06.877419  8049 net.cpp:151] Top shape: 20 256 (5120)
I0505 16:09:06.877424  8049 net.cpp:159] Memory required for data: 9053680
I0505 16:09:06.877431  8049 layer_factory.hpp:77] Creating layer ip3
I0505 16:09:06.877440  8049 net.cpp:94] Creating Layer ip3
I0505 16:09:06.877444  8049 net.cpp:435] ip3 <- ip2
I0505 16:09:06.877449  8049 net.cpp:409] ip3 -> ip3
I0505 16:09:06.877930  8049 net.cpp:144] Setting up ip3
I0505 16:09:06.877938  8049 net.cpp:151] Top shape: 20 50 (1000)
I0505 16:09:06.877941  8049 net.cpp:159] Memory required for data: 9057680
I0505 16:09:06.877946  8049 layer_factory.hpp:77] Creating layer ip3_ip3_0_split
I0505 16:09:06.877954  8049 net.cpp:94] Creating Layer ip3_ip3_0_split
I0505 16:09:06.877957  8049 net.cpp:435] ip3_ip3_0_split <- ip3
I0505 16:09:06.877961  8049 net.cpp:409] ip3_ip3_0_split -> ip3_ip3_0_split_0
I0505 16:09:06.877967  8049 net.cpp:409] ip3_ip3_0_split -> ip3_ip3_0_split_1
I0505 16:09:06.878007  8049 net.cpp:144] Setting up ip3_ip3_0_split
I0505 16:09:06.878013  8049 net.cpp:151] Top shape: 20 50 (1000)
I0505 16:09:06.878017  8049 net.cpp:151] Top shape: 20 50 (1000)
I0505 16:09:06.878021  8049 net.cpp:159] Memory required for data: 9065680
I0505 16:09:06.878023  8049 layer_factory.hpp:77] Creating layer accuracy
I0505 16:09:06.878029  8049 net.cpp:94] Creating Layer accuracy
I0505 16:09:06.878033  8049 net.cpp:435] accuracy <- ip3_ip3_0_split_0
I0505 16:09:06.878037  8049 net.cpp:435] accuracy <- label_intercept_1_split_0
I0505 16:09:06.878041  8049 net.cpp:409] accuracy -> accuracy
…
