…
I0505 11:27:48.594962  6542 net.cpp:323] The NetState phase (0) differed from the phase (1) specified by a rule in layer intercept
I0505 11:27:48.594977  6542 net.cpp:323] The NetState phase (0) differed from the phase (1) specified by a rule in layer loss
I0505 11:27:48.595042  6542 net.cpp:52] Initializing net from parameters: 
state {
  phase: TRAIN
}
layer {
  name: "parameters"
  type: "HDF5Data"
  top: "data"
  top: "label"
  include {
    phase: TRAIN
  }
  hdf5_data_param {
    source: "/home/purduethu/scratch/radon/d/deng106/CNNStatisticalModel/distributions/input/50_distributions_100_sample_size_train-parameters-path.txt"
    batch_size: 20
  }
}
layer {
  name: "conv1"
  type: "Convolution"
  bottom: "data"
  top: "conv1"
  param {
    lr_mult: 1
  }
  param {
    lr_mult: 2
  }
  convolution_param {
    num_output: 64
    pad: 2
    kernel_size: 5
    stride: 1
    weight_filler {
      type: "gaussian"
      std: 0.0001
    }
    bias_filler {
      type: "constant"
    }
  }
}
layer {
  name: "relu1"
  type: "ReLU"
  bottom: "conv1"
  top: "conv1"
}
layer {
  name: "pool1"
  type: "Pooling"
  bottom: "conv1"
  top: "pool1"
  pooling_param {
    pool: MAX
    kernel_size: 3
    stride: 2
  }
}
layer {
  name: "conv2"
  type: "Convolution"
  bottom: "pool1"
  top: "conv2"
  param {
    lr_mult: 1
  }
  param {
    lr_mult: 2
  }
  convolution_param {
    num_output: 128
    pad: 2
    kernel_size: 5
    stride: 1
    weight_filler {
      type: "gaussian"
      std: 0.01
    }
    bias_filler {
      type: "constant"
    }
  }
}
layer {
  name: "relu2"
  type: "ReLU"
  bottom: "conv2"
  top: "conv2"
}
layer {
  name: "conv3"
  type: "Convolution"
  bottom: "conv2"
  top: "conv3"
  param {
    lr_mult: 1
  }
  param {
    lr_mult: 2
  }
  convolution_param {
    num_output: 128
    pad: 2
    kernel_size: 5
    stride: 1
    weight_filler {
      type: "gaussian"
      std: 0.01
    }
    bias_filler {
      type: "constant"
    }
  }
}
layer {
  name: "relu3"
  type: "ReLU"
  bottom: "conv3"
  top: "conv3"
}
layer {
  name: "pool3"
  type: "Pooling"
  bottom: "conv3"
  top: "pool3"
  pooling_param {
    pool: AVE
    kernel_size: 3
    stride: 2
  }
}
layer {
  name: "ip1"
  type: "InnerProduct"
  bottom: "pool3"
  top: "ip1"
  param {
    lr_mult: 1
  }
  param {
    lr_mult: 2
  }
  inner_product_param {
    num_output: 512
    weight_filler {
      type: "gaussian"
      std: 0.1
    }
    bias_filler {
      type: "constant"
    }
  }
}
layer {
  name: "ip2"
  type: "InnerProduct"
  bottom: "ip1"
  top: "ip2"
  param {
    lr_mult: 1
  }
  param {
    lr_mult: 2
  }
  inner_product_param {
    num_output: 256
    weight_filler {
      type: "gaussian"
      std: 0.1
    }
    bias_filler {
      type: "constant"
    }
  }
}
layer {
  name: "ip3"
  type: "InnerProduct"
  bottom: "ip2"
  top: "ip3"
  param {
    lr_mult: 1
  }
  param {
    lr_mult: 2
  }
  inner_product_param {
    num_output: 1
    weight_filler {
      type: "gaussian"
      std: 0.1
    }
    bias_filler {
      type: "constant"
    }
  }
}
layer {
  name: "loss"
  type: "HuberLoss"
  bottom: "ip3"
  bottom: "label"
  top: "loss"
  include {
    phase: TRAIN
  }
}
I0505 11:27:48.595088  6542 layer_factory.hpp:77] Creating layer parameters
I0505 11:27:48.595104  6542 net.cpp:94] Creating Layer parameters
I0505 11:27:48.595108  6542 net.cpp:409] parameters -> data
I0505 11:27:48.595118  6542 net.cpp:409] parameters -> label
I0505 11:27:48.595125  6542 hdf5_data_layer.cpp:79] Loading list of HDF5 filenames from: /home/purduethu/scratch/radon/d/deng106/CNNStatisticalModel/distributions/input/50_distributions_100_sample_size_train-parameters-path.txt
I0505 11:27:48.595139  6542 hdf5_data_layer.cpp:93] Number of HDF5 files: 1
I0505 11:27:48.595690  6542 hdf5.cpp:32] Datatype class: H5T_FLOAT
I0505 11:27:48.759753  6542 net.cpp:144] Setting up parameters
I0505 11:27:48.759785  6542 net.cpp:151] Top shape: 20 1 10 10 (2000)
I0505 11:27:48.759790  6542 net.cpp:151] Top shape: 20 (20)
I0505 11:27:48.759794  6542 net.cpp:159] Memory required for data: 8080
I0505 11:27:48.759800  6542 layer_factory.hpp:77] Creating layer conv1
I0505 11:27:48.759815  6542 net.cpp:94] Creating Layer conv1
I0505 11:27:48.759819  6542 net.cpp:435] conv1 <- data
I0505 11:27:48.759825  6542 net.cpp:409] conv1 -> conv1
I0505 11:27:48.764106  6542 net.cpp:144] Setting up conv1
I0505 11:27:48.764125  6542 net.cpp:151] Top shape: 20 64 10 10 (128000)
I0505 11:27:48.764130  6542 net.cpp:159] Memory required for data: 520080
I0505 11:27:48.764142  6542 layer_factory.hpp:77] Creating layer relu1
I0505 11:27:48.764149  6542 net.cpp:94] Creating Layer relu1
I0505 11:27:48.764153  6542 net.cpp:435] relu1 <- conv1
I0505 11:27:48.764158  6542 net.cpp:396] relu1 -> conv1 (in-place)
I0505 11:27:48.764166  6542 net.cpp:144] Setting up relu1
I0505 11:27:48.764170  6542 net.cpp:151] Top shape: 20 64 10 10 (128000)
I0505 11:27:48.764173  6542 net.cpp:159] Memory required for data: 1032080
I0505 11:27:48.764176  6542 layer_factory.hpp:77] Creating layer pool1
I0505 11:27:48.764183  6542 net.cpp:94] Creating Layer pool1
I0505 11:27:48.764185  6542 net.cpp:435] pool1 <- conv1
I0505 11:27:48.764189  6542 net.cpp:409] pool1 -> pool1
I0505 11:27:48.764252  6542 net.cpp:144] Setting up pool1
I0505 11:27:48.764259  6542 net.cpp:151] Top shape: 20 64 5 5 (32000)
I0505 11:27:48.764262  6542 net.cpp:159] Memory required for data: 1160080
I0505 11:27:48.764266  6542 layer_factory.hpp:77] Creating layer conv2
I0505 11:27:48.764273  6542 net.cpp:94] Creating Layer conv2
I0505 11:27:48.764277  6542 net.cpp:435] conv2 <- pool1
I0505 11:27:48.764282  6542 net.cpp:409] conv2 -> conv2
I0505 11:27:48.773387  6542 net.cpp:144] Setting up conv2
I0505 11:27:48.773402  6542 net.cpp:151] Top shape: 20 128 5 5 (64000)
I0505 11:27:48.773407  6542 net.cpp:159] Memory required for data: 1416080
I0505 11:27:48.773416  6542 layer_factory.hpp:77] Creating layer relu2
I0505 11:27:48.773422  6542 net.cpp:94] Creating Layer relu2
I0505 11:27:48.773425  6542 net.cpp:435] relu2 <- conv2
I0505 11:27:48.773429  6542 net.cpp:396] relu2 -> conv2 (in-place)
I0505 11:27:48.773437  6542 net.cpp:144] Setting up relu2
I0505 11:27:48.773442  6542 net.cpp:151] Top shape: 20 128 5 5 (64000)
I0505 11:27:48.773444  6542 net.cpp:159] Memory required for data: 1672080
I0505 11:27:48.773447  6542 layer_factory.hpp:77] Creating layer conv3
I0505 11:27:48.773455  6542 net.cpp:94] Creating Layer conv3
I0505 11:27:48.773458  6542 net.cpp:435] conv3 <- conv2
I0505 11:27:48.773463  6542 net.cpp:409] conv3 -> conv3
I0505 11:27:48.788523  6542 net.cpp:144] Setting up conv3
I0505 11:27:48.788538  6542 net.cpp:151] Top shape: 20 128 5 5 (64000)
I0505 11:27:48.788542  6542 net.cpp:159] Memory required for data: 1928080
I0505 11:27:48.788559  6542 layer_factory.hpp:77] Creating layer relu3
I0505 11:27:48.788573  6542 net.cpp:94] Creating Layer relu3
I0505 11:27:48.788578  6542 net.cpp:435] relu3 <- conv3
I0505 11:27:48.788583  6542 net.cpp:396] relu3 -> conv3 (in-place)
I0505 11:27:48.788589  6542 net.cpp:144] Setting up relu3
I0505 11:27:48.788594  6542 net.cpp:151] Top shape: 20 128 5 5 (64000)
I0505 11:27:48.788597  6542 net.cpp:159] Memory required for data: 2184080
I0505 11:27:48.788600  6542 layer_factory.hpp:77] Creating layer pool3
I0505 11:27:48.788607  6542 net.cpp:94] Creating Layer pool3
I0505 11:27:48.788610  6542 net.cpp:435] pool3 <- conv3
I0505 11:27:48.788615  6542 net.cpp:409] pool3 -> pool3
I0505 11:27:48.788656  6542 net.cpp:144] Setting up pool3
I0505 11:27:48.788664  6542 net.cpp:151] Top shape: 20 128 2 2 (10240)
I0505 11:27:48.788667  6542 net.cpp:159] Memory required for data: 2225040
I0505 11:27:48.788671  6542 layer_factory.hpp:77] Creating layer ip1
I0505 11:27:48.788681  6542 net.cpp:94] Creating Layer ip1
I0505 11:27:48.788684  6542 net.cpp:435] ip1 <- pool3
I0505 11:27:48.788688  6542 net.cpp:409] ip1 -> ip1
I0505 11:27:48.795747  6542 net.cpp:144] Setting up ip1
I0505 11:27:48.795761  6542 net.cpp:151] Top shape: 20 512 (10240)
I0505 11:27:48.795765  6542 net.cpp:159] Memory required for data: 2266000
I0505 11:27:48.795771  6542 layer_factory.hpp:77] Creating layer ip2
I0505 11:27:48.795778  6542 net.cpp:94] Creating Layer ip2
I0505 11:27:48.795783  6542 net.cpp:435] ip2 <- ip1
I0505 11:27:48.795788  6542 net.cpp:409] ip2 -> ip2
I0505 11:27:48.799759  6542 net.cpp:144] Setting up ip2
I0505 11:27:48.799772  6542 net.cpp:151] Top shape: 20 256 (5120)
I0505 11:27:48.799777  6542 net.cpp:159] Memory required for data: 2286480
I0505 11:27:48.799784  6542 layer_factory.hpp:77] Creating layer ip3
I0505 11:27:48.799792  6542 net.cpp:94] Creating Layer ip3
I0505 11:27:48.799795  6542 net.cpp:435] ip3 <- ip2
I0505 11:27:48.799799  6542 net.cpp:409] ip3 -> ip3
I0505 11:27:48.799906  6542 net.cpp:144] Setting up ip3
I0505 11:27:48.799914  6542 net.cpp:151] Top shape: 20 1 (20)
I0505 11:27:48.799917  6542 net.cpp:159] Memory required for data: 2286560
I0505 11:27:48.799922  6542 layer_factory.hpp:77] Creating layer loss
I0505 11:27:48.799933  6542 net.cpp:94] Creating Layer loss
I0505 11:27:48.799937  6542 net.cpp:435] loss <- ip3
I0505 11:27:48.799940  6542 net.cpp:435] loss <- label
I0505 11:27:48.799944  6542 net.cpp:409] loss -> loss
I0505 11:27:48.799995  6542 net.cpp:144] Setting up loss
…
I0505 11:27:48.874546  6542 net.cpp:323] The NetState phase (0) differed from the phase (1) specified by a rule in layer intercept
I0505 11:27:48.874558  6542 net.cpp:323] The NetState phase (0) differed from the phase (1) specified by a rule in layer accuracy
I0505 11:27:48.874630  6542 net.cpp:52] Initializing net from parameters: 
state {
  phase: TRAIN
}
layer {
  name: "parameters"
  type: "HDF5Data"
  top: "data"
  top: "label"
  include {
    phase: TRAIN
  }
  hdf5_data_param {
    source: "/home/purduethu/scratch/radon/d/deng106/CNNStatisticalModel/distributions/input/50_distributions_100_sample_size_train-distributions-path.txt"
    batch_size: 20
  }
}
layer {
  name: "conv1"
  type: "Convolution"
  bottom: "data"
  top: "conv1"
  param {
    lr_mult: 1
  }
  param {
    lr_mult: 2
  }
  convolution_param {
    num_output: 64
    pad: 2
    kernel_size: 5
    stride: 1
    weight_filler {
      type: "gaussian"
      std: 0.0001
    }
    bias_filler {
      type: "constant"
    }
  }
}
layer {
  name: "relu1"
  type: "ReLU"
  bottom: "conv1"
  top: "conv1"
}
layer {
  name: "pool1"
  type: "Pooling"
  bottom: "conv1"
  top: "pool1"
  pooling_param {
    pool: MAX
    kernel_size: 3
    stride: 2
  }
}
layer {
  name: "conv2"
  type: "Convolution"
  bottom: "pool1"
  top: "conv2"
  param {
    lr_mult: 1
  }
  param {
    lr_mult: 2
  }
  convolution_param {
    num_output: 128
    pad: 2
    kernel_size: 5
    stride: 1
    weight_filler {
      type: "gaussian"
      std: 0.01
    }
    bias_filler {
      type: "constant"
    }
  }
}
layer {
  name: "relu2"
  type: "ReLU"
  bottom: "conv2"
  top: "conv2"
}
layer {
  name: "conv3"
  type: "Convolution"
  bottom: "conv2"
  top: "conv3"
  param {
    lr_mult: 1
  }
  param {
    lr_mult: 2
  }
  convolution_param {
    num_output: 128
    pad: 2
    kernel_size: 5
    stride: 1
    weight_filler {
      type: "gaussian"
      std: 0.01
    }
    bias_filler {
      type: "constant"
    }
  }
}
layer {
  name: "relu3"
  type: "ReLU"
  bottom: "conv3"
  top: "conv3"
}
layer {
  name: "pool3"
  type: "Pooling"
  bottom: "conv3"
  top: "pool3"
  pooling_param {
    pool: AVE
    kernel_size: 3
    stride: 2
  }
}
layer {
  name: "ip1"
  type: "InnerProduct"
  bottom: "pool3"
  top: "ip1"
  param {
    lr_mult: 1
  }
  param {
    lr_mult: 2
  }
  inner_product_param {
    num_output: 512
    weight_filler {
      type: "gaussian"
      std: 0.1
    }
    bias_filler {
      type: "constant"
    }
  }
}
layer {
  name: "ip2"
  type: "InnerProduct"
  bottom: "ip1"
  top: "ip2"
  param {
    lr_mult: 1
  }
  param {
    lr_mult: 2
  }
  inner_product_param {
    num_output: 256
    weight_filler {
      type: "gaussian"
      std: 0.1
    }
    bias_filler {
      type: "constant"
    }
  }
}
layer {
  name: "ip3"
  type: "InnerProduct"
  bottom: "ip2"
  top: "ip3"
  param {
    lr_mult: 1
  }
  param {
    lr_mult: 2
  }
  inner_product_param {
    num_output: 50
    weight_filler {
      type: "gaussian"
      std: 0.1
    }
    bias_filler {
      type: "constant"
    }
  }
}
layer {
  name: "loss"
  type: "SoftmaxWithLoss"
  bottom: "ip3"
  bottom: "label"
  top: "loss"
}
I0505 11:27:48.874673  6542 layer_factory.hpp:77] Creating layer parameters
I0505 11:27:48.874682  6542 net.cpp:94] Creating Layer parameters
I0505 11:27:48.874686  6542 net.cpp:409] parameters -> data
I0505 11:27:48.874692  6542 net.cpp:409] parameters -> label
I0505 11:27:48.874698  6542 hdf5_data_layer.cpp:79] Loading list of HDF5 filenames from: /home/purduethu/scratch/radon/d/deng106/CNNStatisticalModel/distributions/input/50_distributions_100_sample_size_train-distributions-path.txt
I0505 11:27:48.874712  6542 hdf5_data_layer.cpp:93] Number of HDF5 files: 1
I0505 11:27:49.032377  6542 hdf5.cpp:35] Datatype class: H5T_INTEGER
I0505 11:27:49.035472  6542 net.cpp:144] Setting up parameters
I0505 11:27:49.035496  6542 net.cpp:151] Top shape: 20 1 10 10 (2000)
I0505 11:27:49.035501  6542 net.cpp:151] Top shape: 20 (20)
I0505 11:27:49.035506  6542 net.cpp:159] Memory required for data: 8080
I0505 11:27:49.035511  6542 layer_factory.hpp:77] Creating layer conv1
I0505 11:27:49.035526  6542 net.cpp:94] Creating Layer conv1
I0505 11:27:49.035531  6542 net.cpp:435] conv1 <- data
I0505 11:27:49.035537  6542 net.cpp:409] conv1 -> conv1
I0505 11:27:49.037343  6542 net.cpp:144] Setting up conv1
I0505 11:27:49.037358  6542 net.cpp:151] Top shape: 20 64 10 10 (128000)
I0505 11:27:49.037360  6542 net.cpp:159] Memory required for data: 520080
I0505 11:27:49.037370  6542 layer_factory.hpp:77] Creating layer relu1
I0505 11:27:49.037377  6542 net.cpp:94] Creating Layer relu1
I0505 11:27:49.037381  6542 net.cpp:435] relu1 <- conv1
I0505 11:27:49.037385  6542 net.cpp:396] relu1 -> conv1 (in-place)
I0505 11:27:49.037392  6542 net.cpp:144] Setting up relu1
I0505 11:27:49.037397  6542 net.cpp:151] Top shape: 20 64 10 10 (128000)
I0505 11:27:49.037400  6542 net.cpp:159] Memory required for data: 1032080
I0505 11:27:49.037403  6542 layer_factory.hpp:77] Creating layer pool1
I0505 11:27:49.037410  6542 net.cpp:94] Creating Layer pool1
I0505 11:27:49.037412  6542 net.cpp:435] pool1 <- conv1
I0505 11:27:49.037422  6542 net.cpp:409] pool1 -> pool1
I0505 11:27:49.037482  6542 net.cpp:144] Setting up pool1
I0505 11:27:49.037490  6542 net.cpp:151] Top shape: 20 64 5 5 (32000)
I0505 11:27:49.037493  6542 net.cpp:159] Memory required for data: 1160080
I0505 11:27:49.037497  6542 layer_factory.hpp:77] Creating layer conv2
I0505 11:27:49.037504  6542 net.cpp:94] Creating Layer conv2
I0505 11:27:49.037508  6542 net.cpp:435] conv2 <- pool1
I0505 11:27:49.037513  6542 net.cpp:409] conv2 -> conv2
I0505 11:27:49.046644  6542 net.cpp:144] Setting up conv2
I0505 11:27:49.046660  6542 net.cpp:151] Top shape: 20 128 5 5 (64000)
I0505 11:27:49.046664  6542 net.cpp:159] Memory required for data: 1416080
I0505 11:27:49.046674  6542 layer_factory.hpp:77] Creating layer relu2
I0505 11:27:49.046679  6542 net.cpp:94] Creating Layer relu2
I0505 11:27:49.046684  6542 net.cpp:435] relu2 <- conv2
I0505 11:27:49.046689  6542 net.cpp:396] relu2 -> conv2 (in-place)
I0505 11:27:49.046695  6542 net.cpp:144] Setting up relu2
I0505 11:27:49.046700  6542 net.cpp:151] Top shape: 20 128 5 5 (64000)
I0505 11:27:49.046703  6542 net.cpp:159] Memory required for data: 1672080
I0505 11:27:49.046706  6542 layer_factory.hpp:77] Creating layer conv3
I0505 11:27:49.046715  6542 net.cpp:94] Creating Layer conv3
I0505 11:27:49.046717  6542 net.cpp:435] conv3 <- conv2
I0505 11:27:49.046722  6542 net.cpp:409] conv3 -> conv3
I0505 11:27:49.061493  6542 net.cpp:144] Setting up conv3
I0505 11:27:49.061532  6542 net.cpp:151] Top shape: 20 128 5 5 (64000)
I0505 11:27:49.061542  6542 net.cpp:159] Memory required for data: 1928080
I0505 11:27:49.061565  6542 layer_factory.hpp:77] Creating layer relu3
I0505 11:27:49.061580  6542 net.cpp:94] Creating Layer relu3
I0505 11:27:49.061590  6542 net.cpp:435] relu3 <- conv3
I0505 11:27:49.061604  6542 net.cpp:396] relu3 -> conv3 (in-place)
I0505 11:27:49.061622  6542 net.cpp:144] Setting up relu3
I0505 11:27:49.061636  6542 net.cpp:151] Top shape: 20 128 5 5 (64000)
I0505 11:27:49.061645  6542 net.cpp:159] Memory required for data: 2184080
I0505 11:27:49.061653  6542 layer_factory.hpp:77] Creating layer pool3
I0505 11:27:49.061668  6542 net.cpp:94] Creating Layer pool3
I0505 11:27:49.061677  6542 net.cpp:435] pool3 <- conv3
I0505 11:27:49.061689  6542 net.cpp:409] pool3 -> pool3
I0505 11:27:49.061785  6542 net.cpp:144] Setting up pool3
I0505 11:27:49.061805  6542 net.cpp:151] Top shape: 20 128 2 2 (10240)
I0505 11:27:49.061813  6542 net.cpp:159] Memory required for data: 2225040
I0505 11:27:49.061822  6542 layer_factory.hpp:77] Creating layer ip1
I0505 11:27:49.061838  6542 net.cpp:94] Creating Layer ip1
I0505 11:27:49.061847  6542 net.cpp:435] ip1 <- pool3
I0505 11:27:49.061861  6542 net.cpp:409] ip1 -> ip1
I0505 11:27:49.068143  6542 net.cpp:144] Setting up ip1
I0505 11:27:49.068153  6542 net.cpp:151] Top shape: 20 512 (10240)
I0505 11:27:49.068156  6542 net.cpp:159] Memory required for data: 2266000
I0505 11:27:49.068162  6542 layer_factory.hpp:77] Creating layer ip2
I0505 11:27:49.068168  6542 net.cpp:94] Creating Layer ip2
I0505 11:27:49.068171  6542 net.cpp:435] ip2 <- ip1
I0505 11:27:49.068176  6542 net.cpp:409] ip2 -> ip2
I0505 11:27:49.071354  6542 net.cpp:144] Setting up ip2
I0505 11:27:49.071364  6542 net.cpp:151] Top shape: 20 256 (5120)
I0505 11:27:49.071367  6542 net.cpp:159] Memory required for data: 2286480
I0505 11:27:49.071374  6542 layer_factory.hpp:77] Creating layer ip3
I0505 11:27:49.071379  6542 net.cpp:94] Creating Layer ip3
I0505 11:27:49.071382  6542 net.cpp:435] ip3 <- ip2
I0505 11:27:49.071388  6542 net.cpp:409] ip3 -> ip3
I0505 11:27:49.072676  6542 net.cpp:144] Setting up ip3
I0505 11:27:49.072690  6542 net.cpp:151] Top shape: 20 50 (1000)
I0505 11:27:49.072693  6542 net.cpp:159] Memory required for data: 2290480
I0505 11:27:49.072700  6542 layer_factory.hpp:77] Creating layer loss
I0505 11:27:49.072705  6542 net.cpp:94] Creating Layer loss
I0505 11:27:49.072708  6542 net.cpp:435] loss <- ip3
I0505 11:27:49.072712  6542 net.cpp:435] loss <- label
I0505 11:27:49.072717  6542 net.cpp:409] loss -> loss
I0505 11:27:49.072731  6542 layer_factory.hpp:77] Creating layer loss
…
I0505 11:27:49.073189  6542 solver.cpp:181] Creating test net (#0) specified by net file: ./protocol/dis_50_100_dimension.protocol_distribution
I0505 11:27:49.073212  6542 net.cpp:323] The NetState phase (1) differed from the phase (0) specified by a rule in layer parameters
I0505 11:27:49.073292  6542 net.cpp:52] Initializing net from parameters: 
state {
  phase: TEST
}
layer {
  name: "intercept"
  type: "HDF5Data"
  top: "data"
  top: "label"
  include {
    phase: TEST
  }
  hdf5_data_param {
    source: "/home/purduethu/scratch/radon/d/deng106/CNNStatisticalModel/distributions/input/50_distributions_100_sample_size_test-distributions-path.txt"
    batch_size: 20
  }
}
layer {
  name: "conv1"
  type: "Convolution"
  bottom: "data"
  top: "conv1"
  param {
    lr_mult: 1
  }
  param {
    lr_mult: 2
  }
  convolution_param {
    num_output: 64
    pad: 2
    kernel_size: 5
    stride: 1
    weight_filler {
      type: "gaussian"
      std: 0.0001
    }
    bias_filler {
      type: "constant"
    }
  }
}
layer {
  name: "relu1"
  type: "ReLU"
  bottom: "conv1"
  top: "conv1"
}
layer {
  name: "pool1"
  type: "Pooling"
  bottom: "conv1"
  top: "pool1"
  pooling_param {
    pool: MAX
    kernel_size: 3
    stride: 2
  }
}
layer {
  name: "conv2"
  type: "Convolution"
  bottom: "pool1"
  top: "conv2"
  param {
    lr_mult: 1
  }
  param {
    lr_mult: 2
  }
  convolution_param {
    num_output: 128
    pad: 2
    kernel_size: 5
    stride: 1
    weight_filler {
      type: "gaussian"
      std: 0.01
    }
    bias_filler {
      type: "constant"
    }
  }
}
layer {
  name: "relu2"
  type: "ReLU"
  bottom: "conv2"
  top: "conv2"
}
layer {
  name: "conv3"
  type: "Convolution"
  bottom: "conv2"
  top: "conv3"
  param {
    lr_mult: 1
  }
  param {
    lr_mult: 2
  }
  convolution_param {
    num_output: 128
    pad: 2
    kernel_size: 5
    stride: 1
    weight_filler {
      type: "gaussian"
      std: 0.01
    }
    bias_filler {
      type: "constant"
    }
  }
}
layer {
  name: "relu3"
  type: "ReLU"
  bottom: "conv3"
  top: "conv3"
}
layer {
  name: "pool3"
  type: "Pooling"
  bottom: "conv3"
  top: "pool3"
  pooling_param {
    pool: AVE
    kernel_size: 3
    stride: 2
  }
}
layer {
  name: "ip1"
  type: "InnerProduct"
  bottom: "pool3"
  top: "ip1"
  param {
    lr_mult: 1
  }
  param {
    lr_mult: 2
  }
  inner_product_param {
    num_output: 512
    weight_filler {
      type: "gaussian"
      std: 0.1
    }
    bias_filler {
      type: "constant"
    }
  }
}
layer {
  name: "ip2"
  type: "InnerProduct"
  bottom: "ip1"
  top: "ip2"
  param {
    lr_mult: 1
  }
  param {
    lr_mult: 2
  }
  inner_product_param {
    num_output: 256
    weight_filler {
      type: "gaussian"
      std: 0.1
    }
    bias_filler {
      type: "constant"
    }
  }
}
layer {
  name: "ip3"
  type: "InnerProduct"
  bottom: "ip2"
  top: "ip3"
  param {
    lr_mult: 1
  }
  param {
    lr_mult: 2
  }
  inner_product_param {
    num_output: 50
    weight_filler {
      type: "gaussian"
      std: 0.1
    }
    bias_filler {
      type: "constant"
    }
  }
}
layer {
  name: "accuracy"
  type: "Accuracy"
  bottom: "ip3"
  bottom: "label"
  top: "accuracy"
  include {
    phase: TEST
  }
}
layer {
  name: "loss"
  type: "SoftmaxWithLoss"
  bottom: "ip3"
  bottom: "label"
  top: "loss"
}
I0505 11:27:49.073349  6542 layer_factory.hpp:77] Creating layer intercept
I0505 11:27:49.073357  6542 net.cpp:94] Creating Layer intercept
I0505 11:27:49.073361  6542 net.cpp:409] intercept -> data
I0505 11:27:49.073369  6542 net.cpp:409] intercept -> label
I0505 11:27:49.073374  6542 hdf5_data_layer.cpp:79] Loading list of HDF5 filenames from: /home/purduethu/scratch/radon/d/deng106/CNNStatisticalModel/distributions/input/50_distributions_100_sample_size_test-distributions-path.txt
I0505 11:27:49.073395  6542 hdf5_data_layer.cpp:93] Number of HDF5 files: 1
I0505 11:27:49.114943  6542 net.cpp:144] Setting up intercept
I0505 11:27:49.114975  6542 net.cpp:151] Top shape: 20 1 10 10 (2000)
I0505 11:27:49.114980  6542 net.cpp:151] Top shape: 20 (20)
I0505 11:27:49.114984  6542 net.cpp:159] Memory required for data: 8080
I0505 11:27:49.114989  6542 layer_factory.hpp:77] Creating layer label_intercept_1_split
I0505 11:27:49.115010  6542 net.cpp:94] Creating Layer label_intercept_1_split
I0505 11:27:49.115013  6542 net.cpp:435] label_intercept_1_split <- label
I0505 11:27:49.115020  6542 net.cpp:409] label_intercept_1_split -> label_intercept_1_split_0
I0505 11:27:49.115027  6542 net.cpp:409] label_intercept_1_split -> label_intercept_1_split_1
I0505 11:27:49.115070  6542 net.cpp:144] Setting up label_intercept_1_split
I0505 11:27:49.115078  6542 net.cpp:151] Top shape: 20 (20)
I0505 11:27:49.115082  6542 net.cpp:151] Top shape: 20 (20)
I0505 11:27:49.115084  6542 net.cpp:159] Memory required for data: 8240
I0505 11:27:49.115087  6542 layer_factory.hpp:77] Creating layer conv1
I0505 11:27:49.115097  6542 net.cpp:94] Creating Layer conv1
I0505 11:27:49.115101  6542 net.cpp:435] conv1 <- data
I0505 11:27:49.115106  6542 net.cpp:409] conv1 -> conv1
I0505 11:27:49.115977  6542 net.cpp:144] Setting up conv1
I0505 11:27:49.115989  6542 net.cpp:151] Top shape: 20 64 10 10 (128000)
I0505 11:27:49.115993  6542 net.cpp:159] Memory required for data: 520240
I0505 11:27:49.116003  6542 layer_factory.hpp:77] Creating layer relu1
I0505 11:27:49.116009  6542 net.cpp:94] Creating Layer relu1
I0505 11:27:49.116014  6542 net.cpp:435] relu1 <- conv1
I0505 11:27:49.116017  6542 net.cpp:396] relu1 -> conv1 (in-place)
I0505 11:27:49.116024  6542 net.cpp:144] Setting up relu1
I0505 11:27:49.116029  6542 net.cpp:151] Top shape: 20 64 10 10 (128000)
I0505 11:27:49.116032  6542 net.cpp:159] Memory required for data: 1032240
I0505 11:27:49.116035  6542 layer_factory.hpp:77] Creating layer pool1
I0505 11:27:49.116041  6542 net.cpp:94] Creating Layer pool1
I0505 11:27:49.116045  6542 net.cpp:435] pool1 <- conv1
I0505 11:27:49.116050  6542 net.cpp:409] pool1 -> pool1
I0505 11:27:49.116107  6542 net.cpp:144] Setting up pool1
I0505 11:27:49.116114  6542 net.cpp:151] Top shape: 20 64 5 5 (32000)
I0505 11:27:49.116118  6542 net.cpp:159] Memory required for data: 1160240
I0505 11:27:49.116122  6542 layer_factory.hpp:77] Creating layer conv2
I0505 11:27:49.116128  6542 net.cpp:94] Creating Layer conv2
I0505 11:27:49.116132  6542 net.cpp:435] conv2 <- pool1
I0505 11:27:49.116137  6542 net.cpp:409] conv2 -> conv2
I0505 11:27:49.123756  6542 net.cpp:144] Setting up conv2
I0505 11:27:49.123771  6542 net.cpp:151] Top shape: 20 128 5 5 (64000)
I0505 11:27:49.123775  6542 net.cpp:159] Memory required for data: 1416240
I0505 11:27:49.123785  6542 layer_factory.hpp:77] Creating layer relu2
I0505 11:27:49.123796  6542 net.cpp:94] Creating Layer relu2
I0505 11:27:49.123800  6542 net.cpp:435] relu2 <- conv2
I0505 11:27:49.123805  6542 net.cpp:396] relu2 -> conv2 (in-place)
I0505 11:27:49.123812  6542 net.cpp:144] Setting up relu2
I0505 11:27:49.123816  6542 net.cpp:151] Top shape: 20 128 5 5 (64000)
I0505 11:27:49.123819  6542 net.cpp:159] Memory required for data: 1672240
I0505 11:27:49.123822  6542 layer_factory.hpp:77] Creating layer conv3
I0505 11:27:49.123831  6542 net.cpp:94] Creating Layer conv3
I0505 11:27:49.123833  6542 net.cpp:435] conv3 <- conv2
I0505 11:27:49.123838  6542 net.cpp:409] conv3 -> conv3
I0505 11:27:49.136525  6542 net.cpp:144] Setting up conv3
I0505 11:27:49.136574  6542 net.cpp:151] Top shape: 20 128 5 5 (64000)
I0505 11:27:49.136579  6542 net.cpp:159] Memory required for data: 1928240
I0505 11:27:49.136587  6542 layer_factory.hpp:77] Creating layer relu3
I0505 11:27:49.136595  6542 net.cpp:94] Creating Layer relu3
I0505 11:27:49.136598  6542 net.cpp:435] relu3 <- conv3
I0505 11:27:49.136602  6542 net.cpp:396] relu3 -> conv3 (in-place)
I0505 11:27:49.136610  6542 net.cpp:144] Setting up relu3
I0505 11:27:49.136615  6542 net.cpp:151] Top shape: 20 128 5 5 (64000)
I0505 11:27:49.136616  6542 net.cpp:159] Memory required for data: 2184240
I0505 11:27:49.136620  6542 layer_factory.hpp:77] Creating layer pool3
I0505 11:27:49.136626  6542 net.cpp:94] Creating Layer pool3
I0505 11:27:49.136628  6542 net.cpp:435] pool3 <- conv3
I0505 11:27:49.136632  6542 net.cpp:409] pool3 -> pool3
I0505 11:27:49.136672  6542 net.cpp:144] Setting up pool3
I0505 11:27:49.136679  6542 net.cpp:151] Top shape: 20 128 2 2 (10240)
I0505 11:27:49.136682  6542 net.cpp:159] Memory required for data: 2225200
I0505 11:27:49.136685  6542 layer_factory.hpp:77] Creating layer ip1
I0505 11:27:49.136693  6542 net.cpp:94] Creating Layer ip1
I0505 11:27:49.136695  6542 net.cpp:435] ip1 <- pool3
I0505 11:27:49.136700  6542 net.cpp:409] ip1 -> ip1
I0505 11:27:49.142923  6542 net.cpp:144] Setting up ip1
I0505 11:27:49.142933  6542 net.cpp:151] Top shape: 20 512 (10240)
I0505 11:27:49.142936  6542 net.cpp:159] Memory required for data: 2266160
I0505 11:27:49.142941  6542 layer_factory.hpp:77] Creating layer ip2
I0505 11:27:49.142948  6542 net.cpp:94] Creating Layer ip2
I0505 11:27:49.142951  6542 net.cpp:435] ip2 <- ip1
I0505 11:27:49.142957  6542 net.cpp:409] ip2 -> ip2
I0505 11:27:49.146972  6542 net.cpp:144] Setting up ip2
I0505 11:27:49.146986  6542 net.cpp:151] Top shape: 20 256 (5120)
I0505 11:27:49.146989  6542 net.cpp:159] Memory required for data: 2286640
I0505 11:27:49.146998  6542 layer_factory.hpp:77] Creating layer ip3
I0505 11:27:49.147006  6542 net.cpp:94] Creating Layer ip3
I0505 11:27:49.147009  6542 net.cpp:435] ip3 <- ip2
I0505 11:27:49.147013  6542 net.cpp:409] ip3 -> ip3
I0505 11:27:49.147457  6542 net.cpp:144] Setting up ip3
I0505 11:27:49.147465  6542 net.cpp:151] Top shape: 20 50 (1000)
I0505 11:27:49.147469  6542 net.cpp:159] Memory required for data: 2290640
I0505 11:27:49.147474  6542 layer_factory.hpp:77] Creating layer ip3_ip3_0_split
I0505 11:27:49.147480  6542 net.cpp:94] Creating Layer ip3_ip3_0_split
I0505 11:27:49.147482  6542 net.cpp:435] ip3_ip3_0_split <- ip3
I0505 11:27:49.147486  6542 net.cpp:409] ip3_ip3_0_split -> ip3_ip3_0_split_0
I0505 11:27:49.147493  6542 net.cpp:409] ip3_ip3_0_split -> ip3_ip3_0_split_1
I0505 11:27:49.147537  6542 net.cpp:144] Setting up ip3_ip3_0_split
I0505 11:27:49.147543  6542 net.cpp:151] Top shape: 20 50 (1000)
I0505 11:27:49.147547  6542 net.cpp:151] Top shape: 20 50 (1000)
I0505 11:27:49.147550  6542 net.cpp:159] Memory required for data: 2298640
I0505 11:27:49.147553  6542 layer_factory.hpp:77] Creating layer accuracy
I0505 11:27:49.147559  6542 net.cpp:94] Creating Layer accuracy
I0505 11:27:49.147562  6542 net.cpp:435] accuracy <- ip3_ip3_0_split_0
I0505 11:27:49.147565  6542 net.cpp:435] accuracy <- label_intercept_1_split_0
I0505 11:27:49.147570  6542 net.cpp:409] accuracy -> accuracy
…
