…
I0507 04:44:46.579812 31425 net.cpp:323] The NetState phase (0) differed from the phase (1) specified by a rule in layer intercept
I0507 04:44:46.579828 31425 net.cpp:323] The NetState phase (0) differed from the phase (1) specified by a rule in layer loss
I0507 04:44:46.579906 31425 net.cpp:52] Initializing net from parameters: 
state {
  phase: TRAIN
}
layer {
  name: "parameters"
  type: "HDF5Data"
  top: "data"
  top: "label"
  include {
    phase: TRAIN
  }
  hdf5_data_param {
    source: "/home/purduethu/scratch/radon/d/deng106/CNNStatisticalModel/distributions/input/50_distributions_100_sample_size_train-parameters-path.txt"
    batch_size: 20
  }
}
layer {
  name: "conv1"
  type: "Convolution"
  bottom: "data"
  top: "conv1"
  param {
    lr_mult: 1
  }
  param {
    lr_mult: 2
  }
  convolution_param {
    num_output: 64
    pad: 2
    kernel_size: 5
    stride: 1
    weight_filler {
      type: "gaussian"
      std: 0.0001
    }
    bias_filler {
      type: "constant"
    }
  }
}
layer {
  name: "relu1"
  type: "ReLU"
  bottom: "conv1"
  top: "conv1"
}
layer {
  name: "conv2"
  type: "Convolution"
  bottom: "conv1"
  top: "conv2"
  param {
    lr_mult: 1
  }
  param {
    lr_mult: 2
  }
  convolution_param {
    num_output: 64
    pad: 2
    kernel_size: 5
    stride: 1
    weight_filler {
      type: "gaussian"
      std: 0.01
    }
    bias_filler {
      type: "constant"
    }
  }
}
layer {
  name: "relu2"
  type: "ReLU"
  bottom: "conv2"
  top: "conv2"
}
layer {
  name: "pool2"
  type: "Pooling"
  bottom: "conv2"
  top: "pool2"
  pooling_param {
    pool: MAX
    kernel_size: 3
    stride: 2
  }
}
layer {
  name: "conv3"
  type: "Convolution"
  bottom: "pool2"
  top: "conv3"
  param {
    lr_mult: 1
  }
  param {
    lr_mult: 2
  }
  convolution_param {
    num_output: 64
    pad: 2
    kernel_size: 5
    stride: 1
    weight_filler {
      type: "gaussian"
      std: 0.01
    }
    bias_filler {
      type: "constant"
    }
  }
}
layer {
  name: "relu3"
  type: "ReLU"
  bottom: "conv3"
  top: "conv3"
}
layer {
  name: "conv4"
  type: "Convolution"
  bottom: "conv3"
  top: "conv4"
  param {
    lr_mult: 1
  }
  param {
    lr_mult: 2
  }
  convolution_param {
    num_output: 64
    pad: 2
    kernel_size: 5
    stride: 1
    weight_filler {
      type: "gaussian"
      std: 0.01
    }
    bias_filler {
      type: "constant"
    }
  }
}
layer {
  name: "relu4"
  type: "ReLU"
  bottom: "conv4"
  top: "conv4"
}
layer {
  name: "conv5"
  type: "Convolution"
  bottom: "conv4"
  top: "conv5"
  param {
    lr_mult: 1
  }
  param {
    lr_mult: 2
  }
  convolution_param {
    num_output: 64
    pad: 2
    kernel_size: 5
    stride: 1
    weight_filler {
      type: "gaussian"
      std: 0.01
    }
    bias_filler {
      type: "constant"
    }
  }
}
layer {
  name: "relu5"
  type: "ReLU"
  bottom: "conv5"
  top: "conv5"
}
layer {
  name: "pool5"
  type: "Pooling"
  bottom: "conv5"
  top: "pool5"
  pooling_param {
    pool: AVE
    kernel_size: 3
    stride: 2
  }
}
layer {
  name: "ip1"
  type: "InnerProduct"
  bottom: "pool5"
  top: "ip1"
  param {
    lr_mult: 1
  }
  param {
    lr_mult: 2
  }
  inner_product_param {
    num_output: 64
    weight_filler {
      type: "gaussian"
      std: 0.1
    }
    bias_filler {
      type: "constant"
    }
  }
}
layer {
  name: "ip2"
  type: "InnerProduct"
  bottom: "ip1"
  top: "ip2"
  param {
    lr_mult: 1
  }
  param {
    lr_mult: 2
  }
  inner_product_param {
    num_output: 64
    weight_filler {
      type: "gaussian"
      std: 0.1
    }
    bias_filler {
      type: "constant"
    }
  }
}
layer {
  name: "ip3"
  type: "InnerProduct"
  bottom: "ip2"
  top: "ip3"
  param {
    lr_mult: 1
  }
  param {
    lr_mult: 2
  }
  inner_product_param {
    num_output: 1
    weight_filler {
      type: "gaussian"
      std: 0.1
    }
    bias_filler {
      type: "constant"
    }
  }
}
layer {
  name: "loss"
  type: "HuberLoss"
  bottom: "ip3"
  bottom: "label"
  top: "loss"
  include {
    phase: TRAIN
  }
}
I0507 04:44:46.579960 31425 layer_factory.hpp:77] Creating layer parameters
I0507 04:44:46.579973 31425 net.cpp:94] Creating Layer parameters
I0507 04:44:46.579977 31425 net.cpp:409] parameters -> data
I0507 04:44:46.579987 31425 net.cpp:409] parameters -> label
I0507 04:44:46.579993 31425 hdf5_data_layer.cpp:79] Loading list of HDF5 filenames from: /home/purduethu/scratch/radon/d/deng106/CNNStatisticalModel/distributions/input/50_distributions_100_sample_size_train-parameters-path.txt
I0507 04:44:46.580008 31425 hdf5_data_layer.cpp:93] Number of HDF5 files: 1
I0507 04:44:46.580556 31425 hdf5.cpp:32] Datatype class: H5T_FLOAT
I0507 04:44:46.741438 31425 net.cpp:144] Setting up parameters
I0507 04:44:46.741470 31425 net.cpp:151] Top shape: 20 1 10 10 (2000)
I0507 04:44:46.741475 31425 net.cpp:151] Top shape: 20 (20)
I0507 04:44:46.741479 31425 net.cpp:159] Memory required for data: 8080
I0507 04:44:46.741485 31425 layer_factory.hpp:77] Creating layer conv1
I0507 04:44:46.741508 31425 net.cpp:94] Creating Layer conv1
I0507 04:44:46.741511 31425 net.cpp:435] conv1 <- data
I0507 04:44:46.741518 31425 net.cpp:409] conv1 -> conv1
I0507 04:44:46.745695 31425 net.cpp:144] Setting up conv1
I0507 04:44:46.745712 31425 net.cpp:151] Top shape: 20 64 10 10 (128000)
I0507 04:44:46.745715 31425 net.cpp:159] Memory required for data: 520080
I0507 04:44:46.745726 31425 layer_factory.hpp:77] Creating layer relu1
I0507 04:44:46.745734 31425 net.cpp:94] Creating Layer relu1
I0507 04:44:46.745738 31425 net.cpp:435] relu1 <- conv1
I0507 04:44:46.745743 31425 net.cpp:396] relu1 -> conv1 (in-place)
I0507 04:44:46.745756 31425 net.cpp:144] Setting up relu1
I0507 04:44:46.745761 31425 net.cpp:151] Top shape: 20 64 10 10 (128000)
I0507 04:44:46.745764 31425 net.cpp:159] Memory required for data: 1032080
I0507 04:44:46.745767 31425 layer_factory.hpp:77] Creating layer conv2
I0507 04:44:46.745776 31425 net.cpp:94] Creating Layer conv2
I0507 04:44:46.745779 31425 net.cpp:435] conv2 <- conv1
I0507 04:44:46.745784 31425 net.cpp:409] conv2 -> conv2
I0507 04:44:46.751852 31425 net.cpp:144] Setting up conv2
I0507 04:44:46.751865 31425 net.cpp:151] Top shape: 20 64 10 10 (128000)
I0507 04:44:46.751870 31425 net.cpp:159] Memory required for data: 1544080
I0507 04:44:46.751878 31425 layer_factory.hpp:77] Creating layer relu2
I0507 04:44:46.751885 31425 net.cpp:94] Creating Layer relu2
I0507 04:44:46.751888 31425 net.cpp:435] relu2 <- conv2
I0507 04:44:46.751893 31425 net.cpp:396] relu2 -> conv2 (in-place)
I0507 04:44:46.751899 31425 net.cpp:144] Setting up relu2
I0507 04:44:46.751904 31425 net.cpp:151] Top shape: 20 64 10 10 (128000)
I0507 04:44:46.751907 31425 net.cpp:159] Memory required for data: 2056080
I0507 04:44:46.751910 31425 layer_factory.hpp:77] Creating layer pool2
I0507 04:44:46.751916 31425 net.cpp:94] Creating Layer pool2
I0507 04:44:46.751919 31425 net.cpp:435] pool2 <- conv2
I0507 04:44:46.751924 31425 net.cpp:409] pool2 -> pool2
I0507 04:44:46.751979 31425 net.cpp:144] Setting up pool2
I0507 04:44:46.751987 31425 net.cpp:151] Top shape: 20 64 5 5 (32000)
I0507 04:44:46.751991 31425 net.cpp:159] Memory required for data: 2184080
I0507 04:44:46.751993 31425 layer_factory.hpp:77] Creating layer conv3
I0507 04:44:46.752002 31425 net.cpp:94] Creating Layer conv3
I0507 04:44:46.752004 31425 net.cpp:435] conv3 <- pool2
I0507 04:44:46.752017 31425 net.cpp:409] conv3 -> conv3
I0507 04:44:46.756898 31425 net.cpp:144] Setting up conv3
I0507 04:44:46.756912 31425 net.cpp:151] Top shape: 20 64 5 5 (32000)
I0507 04:44:46.756916 31425 net.cpp:159] Memory required for data: 2312080
I0507 04:44:46.756924 31425 layer_factory.hpp:77] Creating layer relu3
I0507 04:44:46.756930 31425 net.cpp:94] Creating Layer relu3
I0507 04:44:46.756934 31425 net.cpp:435] relu3 <- conv3
I0507 04:44:46.756939 31425 net.cpp:396] relu3 -> conv3 (in-place)
I0507 04:44:46.756945 31425 net.cpp:144] Setting up relu3
I0507 04:44:46.756950 31425 net.cpp:151] Top shape: 20 64 5 5 (32000)
I0507 04:44:46.756953 31425 net.cpp:159] Memory required for data: 2440080
I0507 04:44:46.756955 31425 layer_factory.hpp:77] Creating layer conv4
I0507 04:44:46.756964 31425 net.cpp:94] Creating Layer conv4
I0507 04:44:46.756968 31425 net.cpp:435] conv4 <- conv3
I0507 04:44:46.756973 31425 net.cpp:409] conv4 -> conv4
I0507 04:44:46.761385 31425 net.cpp:144] Setting up conv4
I0507 04:44:46.761399 31425 net.cpp:151] Top shape: 20 64 5 5 (32000)
I0507 04:44:46.761402 31425 net.cpp:159] Memory required for data: 2568080
I0507 04:44:46.761409 31425 layer_factory.hpp:77] Creating layer relu4
I0507 04:44:46.761415 31425 net.cpp:94] Creating Layer relu4
I0507 04:44:46.761417 31425 net.cpp:435] relu4 <- conv4
I0507 04:44:46.761422 31425 net.cpp:396] relu4 -> conv4 (in-place)
I0507 04:44:46.761430 31425 net.cpp:144] Setting up relu4
I0507 04:44:46.761433 31425 net.cpp:151] Top shape: 20 64 5 5 (32000)
I0507 04:44:46.761436 31425 net.cpp:159] Memory required for data: 2696080
I0507 04:44:46.761440 31425 layer_factory.hpp:77] Creating layer conv5
I0507 04:44:46.761446 31425 net.cpp:94] Creating Layer conv5
I0507 04:44:46.761451 31425 net.cpp:435] conv5 <- conv4
I0507 04:44:46.761456 31425 net.cpp:409] conv5 -> conv5
I0507 04:44:46.766337 31425 net.cpp:144] Setting up conv5
I0507 04:44:46.766351 31425 net.cpp:151] Top shape: 20 64 5 5 (32000)
I0507 04:44:46.766355 31425 net.cpp:159] Memory required for data: 2824080
I0507 04:44:46.766363 31425 layer_factory.hpp:77] Creating layer relu5
I0507 04:44:46.766369 31425 net.cpp:94] Creating Layer relu5
I0507 04:44:46.766372 31425 net.cpp:435] relu5 <- conv5
I0507 04:44:46.766377 31425 net.cpp:396] relu5 -> conv5 (in-place)
I0507 04:44:46.766383 31425 net.cpp:144] Setting up relu5
I0507 04:44:46.766388 31425 net.cpp:151] Top shape: 20 64 5 5 (32000)
I0507 04:44:46.766391 31425 net.cpp:159] Memory required for data: 2952080
I0507 04:44:46.766394 31425 layer_factory.hpp:77] Creating layer pool5
I0507 04:44:46.766399 31425 net.cpp:94] Creating Layer pool5
I0507 04:44:46.766402 31425 net.cpp:435] pool5 <- conv5
I0507 04:44:46.766407 31425 net.cpp:409] pool5 -> pool5
I0507 04:44:46.766445 31425 net.cpp:144] Setting up pool5
I0507 04:44:46.766453 31425 net.cpp:151] Top shape: 20 64 2 2 (5120)
I0507 04:44:46.766456 31425 net.cpp:159] Memory required for data: 2972560
I0507 04:44:46.766459 31425 layer_factory.hpp:77] Creating layer ip1
I0507 04:44:46.766469 31425 net.cpp:94] Creating Layer ip1
I0507 04:44:46.766472 31425 net.cpp:435] ip1 <- pool5
I0507 04:44:46.766477 31425 net.cpp:409] ip1 -> ip1
I0507 04:44:46.767801 31425 net.cpp:144] Setting up ip1
I0507 04:44:46.767813 31425 net.cpp:151] Top shape: 20 64 (1280)
I0507 04:44:46.767817 31425 net.cpp:159] Memory required for data: 2977680
I0507 04:44:46.767823 31425 layer_factory.hpp:77] Creating layer ip2
I0507 04:44:46.767830 31425 net.cpp:94] Creating Layer ip2
I0507 04:44:46.767834 31425 net.cpp:435] ip2 <- ip1
I0507 04:44:46.767839 31425 net.cpp:409] ip2 -> ip2
I0507 04:44:46.768056 31425 net.cpp:144] Setting up ip2
I0507 04:44:46.768064 31425 net.cpp:151] Top shape: 20 64 (1280)
I0507 04:44:46.768067 31425 net.cpp:159] Memory required for data: 2982800
I0507 04:44:46.768072 31425 layer_factory.hpp:77] Creating layer ip3
I0507 04:44:46.768077 31425 net.cpp:94] Creating Layer ip3
I0507 04:44:46.768081 31425 net.cpp:435] ip3 <- ip2
I0507 04:44:46.768086 31425 net.cpp:409] ip3 -> ip3
I0507 04:44:46.768201 31425 net.cpp:144] Setting up ip3
I0507 04:44:46.768208 31425 net.cpp:151] Top shape: 20 1 (20)
I0507 04:44:46.768211 31425 net.cpp:159] Memory required for data: 2982880
I0507 04:44:46.768218 31425 layer_factory.hpp:77] Creating layer loss
I0507 04:44:46.768224 31425 net.cpp:94] Creating Layer loss
I0507 04:44:46.768227 31425 net.cpp:435] loss <- ip3
I0507 04:44:46.768231 31425 net.cpp:435] loss <- label
I0507 04:44:46.768235 31425 net.cpp:409] loss -> loss
I0507 04:44:46.768293 31425 net.cpp:144] Setting up loss
…
I0507 04:44:46.829388 31425 net.cpp:323] The NetState phase (0) differed from the phase (1) specified by a rule in layer intercept
I0507 04:44:46.829404 31425 net.cpp:323] The NetState phase (0) differed from the phase (1) specified by a rule in layer accuracy
I0507 04:44:46.829490 31425 net.cpp:52] Initializing net from parameters: 
state {
  phase: TRAIN
}
layer {
  name: "parameters"
  type: "HDF5Data"
  top: "data"
  top: "label"
  include {
    phase: TRAIN
  }
  hdf5_data_param {
    source: "/home/purduethu/scratch/radon/d/deng106/CNNStatisticalModel/distributions/input/50_distributions_100_sample_size_train-distributions-path.txt"
    batch_size: 20
  }
}
layer {
  name: "conv1"
  type: "Convolution"
  bottom: "data"
  top: "conv1"
  param {
    lr_mult: 1
  }
  param {
    lr_mult: 2
  }
  convolution_param {
    num_output: 64
    pad: 2
    kernel_size: 5
    stride: 1
    weight_filler {
      type: "gaussian"
      std: 0.0001
    }
    bias_filler {
      type: "constant"
    }
  }
}
layer {
  name: "relu1"
  type: "ReLU"
  bottom: "conv1"
  top: "conv1"
}
layer {
  name: "conv2"
  type: "Convolution"
  bottom: "conv1"
  top: "conv2"
  param {
    lr_mult: 1
  }
  param {
    lr_mult: 2
  }
  convolution_param {
    num_output: 64
    pad: 2
    kernel_size: 5
    stride: 1
    weight_filler {
      type: "gaussian"
      std: 0.01
    }
    bias_filler {
      type: "constant"
    }
  }
}
layer {
  name: "relu2"
  type: "ReLU"
  bottom: "conv2"
  top: "conv2"
}
layer {
  name: "pool2"
  type: "Pooling"
  bottom: "conv2"
  top: "pool2"
  pooling_param {
    pool: MAX
    kernel_size: 3
    stride: 2
  }
}
layer {
  name: "conv3"
  type: "Convolution"
  bottom: "pool2"
  top: "conv3"
  param {
    lr_mult: 1
  }
  param {
    lr_mult: 2
  }
  convolution_param {
    num_output: 64
    pad: 2
    kernel_size: 5
    stride: 1
    weight_filler {
      type: "gaussian"
      std: 0.01
    }
    bias_filler {
      type: "constant"
    }
  }
}
layer {
  name: "relu3"
  type: "ReLU"
  bottom: "conv3"
  top: "conv3"
}
layer {
  name: "conv4"
  type: "Convolution"
  bottom: "conv3"
  top: "conv4"
  param {
    lr_mult: 1
  }
  param {
    lr_mult: 2
  }
  convolution_param {
    num_output: 64
    pad: 2
    kernel_size: 5
    stride: 1
    weight_filler {
      type: "gaussian"
      std: 0.01
    }
    bias_filler {
      type: "constant"
    }
  }
}
layer {
  name: "relu4"
  type: "ReLU"
  bottom: "conv4"
  top: "conv4"
}
layer {
  name: "conv5"
  type: "Convolution"
  bottom: "conv4"
  top: "conv5"
  param {
    lr_mult: 1
  }
  param {
    lr_mult: 2
  }
  convolution_param {
    num_output: 64
    pad: 2
    kernel_size: 5
    stride: 1
    weight_filler {
      type: "gaussian"
      std: 0.01
    }
    bias_filler {
      type: "constant"
    }
  }
}
layer {
  name: "relu5"
  type: "ReLU"
  bottom: "conv5"
  top: "conv5"
}
layer {
  name: "pool5"
  type: "Pooling"
  bottom: "conv5"
  top: "pool5"
  pooling_param {
    pool: AVE
    kernel_size: 3
    stride: 2
  }
}
layer {
  name: "ip1"
  type: "InnerProduct"
  bottom: "pool5"
  top: "ip1"
  param {
    lr_mult: 1
  }
  param {
    lr_mult: 2
  }
  inner_product_param {
    num_output: 64
    weight_filler {
      type: "gaussian"
      std: 0.1
    }
    bias_filler {
      type: "constant"
    }
  }
}
layer {
  name: "ip2"
  type: "InnerProduct"
  bottom: "ip1"
  top: "ip2"
  param {
    lr_mult: 1
  }
  param {
    lr_mult: 2
  }
  inner_product_param {
    num_output: 64
    weight_filler {
      type: "gaussian"
      std: 0.1
    }
    bias_filler {
      type: "constant"
    }
  }
}
layer {
  name: "ip3"
  type: "InnerProduct"
  bottom: "ip2"
  top: "ip3"
  param {
    lr_mult: 1
  }
  param {
    lr_mult: 2
  }
  inner_product_param {
    num_output: 50
    weight_filler {
      type: "gaussian"
      std: 0.1
    }
    bias_filler {
      type: "constant"
    }
  }
}
layer {
  name: "loss"
  type: "SoftmaxWithLoss"
  bottom: "ip3"
  bottom: "label"
  top: "loss"
}
I0507 04:44:46.829540 31425 layer_factory.hpp:77] Creating layer parameters
I0507 04:44:46.829548 31425 net.cpp:94] Creating Layer parameters
I0507 04:44:46.829552 31425 net.cpp:409] parameters -> data
I0507 04:44:46.829560 31425 net.cpp:409] parameters -> label
I0507 04:44:46.829566 31425 hdf5_data_layer.cpp:79] Loading list of HDF5 filenames from: /home/purduethu/scratch/radon/d/deng106/CNNStatisticalModel/distributions/input/50_distributions_100_sample_size_train-distributions-path.txt
I0507 04:44:46.829581 31425 hdf5_data_layer.cpp:93] Number of HDF5 files: 1
I0507 04:44:46.984743 31425 hdf5.cpp:35] Datatype class: H5T_INTEGER
I0507 04:44:46.987851 31425 net.cpp:144] Setting up parameters
I0507 04:44:46.987870 31425 net.cpp:151] Top shape: 20 1 10 10 (2000)
I0507 04:44:46.987875 31425 net.cpp:151] Top shape: 20 (20)
I0507 04:44:46.987879 31425 net.cpp:159] Memory required for data: 8080
I0507 04:44:46.987885 31425 layer_factory.hpp:77] Creating layer conv1
I0507 04:44:46.987902 31425 net.cpp:94] Creating Layer conv1
I0507 04:44:46.987906 31425 net.cpp:435] conv1 <- data
I0507 04:44:46.987912 31425 net.cpp:409] conv1 -> conv1
I0507 04:44:46.989668 31425 net.cpp:144] Setting up conv1
I0507 04:44:46.989682 31425 net.cpp:151] Top shape: 20 64 10 10 (128000)
I0507 04:44:46.989686 31425 net.cpp:159] Memory required for data: 520080
I0507 04:44:46.989696 31425 layer_factory.hpp:77] Creating layer relu1
I0507 04:44:46.989703 31425 net.cpp:94] Creating Layer relu1
I0507 04:44:46.989707 31425 net.cpp:435] relu1 <- conv1
I0507 04:44:46.989711 31425 net.cpp:396] relu1 -> conv1 (in-place)
I0507 04:44:46.989719 31425 net.cpp:144] Setting up relu1
I0507 04:44:46.989723 31425 net.cpp:151] Top shape: 20 64 10 10 (128000)
I0507 04:44:46.989727 31425 net.cpp:159] Memory required for data: 1032080
I0507 04:44:46.989729 31425 layer_factory.hpp:77] Creating layer conv2
I0507 04:44:46.989737 31425 net.cpp:94] Creating Layer conv2
I0507 04:44:46.989740 31425 net.cpp:435] conv2 <- conv1
I0507 04:44:46.989744 31425 net.cpp:409] conv2 -> conv2
I0507 04:44:46.995074 31425 net.cpp:144] Setting up conv2
I0507 04:44:46.995086 31425 net.cpp:151] Top shape: 20 64 10 10 (128000)
I0507 04:44:46.995090 31425 net.cpp:159] Memory required for data: 1544080
I0507 04:44:46.995098 31425 layer_factory.hpp:77] Creating layer relu2
I0507 04:44:46.995105 31425 net.cpp:94] Creating Layer relu2
I0507 04:44:46.995110 31425 net.cpp:435] relu2 <- conv2
I0507 04:44:46.995113 31425 net.cpp:396] relu2 -> conv2 (in-place)
I0507 04:44:46.995121 31425 net.cpp:144] Setting up relu2
I0507 04:44:46.995124 31425 net.cpp:151] Top shape: 20 64 10 10 (128000)
I0507 04:44:46.995127 31425 net.cpp:159] Memory required for data: 2056080
I0507 04:44:46.995131 31425 layer_factory.hpp:77] Creating layer pool2
I0507 04:44:46.995136 31425 net.cpp:94] Creating Layer pool2
I0507 04:44:46.995139 31425 net.cpp:435] pool2 <- conv2
I0507 04:44:46.995143 31425 net.cpp:409] pool2 -> pool2
I0507 04:44:46.995198 31425 net.cpp:144] Setting up pool2
I0507 04:44:46.995206 31425 net.cpp:151] Top shape: 20 64 5 5 (32000)
I0507 04:44:46.995209 31425 net.cpp:159] Memory required for data: 2184080
I0507 04:44:46.995213 31425 layer_factory.hpp:77] Creating layer conv3
I0507 04:44:46.995219 31425 net.cpp:94] Creating Layer conv3
I0507 04:44:46.995223 31425 net.cpp:435] conv3 <- pool2
I0507 04:44:46.995229 31425 net.cpp:409] conv3 -> conv3
I0507 04:44:47.000950 31425 net.cpp:144] Setting up conv3
I0507 04:44:47.000964 31425 net.cpp:151] Top shape: 20 64 5 5 (32000)
I0507 04:44:47.000968 31425 net.cpp:159] Memory required for data: 2312080
I0507 04:44:47.000977 31425 layer_factory.hpp:77] Creating layer relu3
I0507 04:44:47.000983 31425 net.cpp:94] Creating Layer relu3
I0507 04:44:47.000986 31425 net.cpp:435] relu3 <- conv3
I0507 04:44:47.000991 31425 net.cpp:396] relu3 -> conv3 (in-place)
I0507 04:44:47.000998 31425 net.cpp:144] Setting up relu3
I0507 04:44:47.001003 31425 net.cpp:151] Top shape: 20 64 5 5 (32000)
I0507 04:44:47.001011 31425 net.cpp:159] Memory required for data: 2440080
I0507 04:44:47.001015 31425 layer_factory.hpp:77] Creating layer conv4
I0507 04:44:47.001024 31425 net.cpp:94] Creating Layer conv4
I0507 04:44:47.001027 31425 net.cpp:435] conv4 <- conv3
I0507 04:44:47.001032 31425 net.cpp:409] conv4 -> conv4
I0507 04:44:47.005930 31425 net.cpp:144] Setting up conv4
I0507 04:44:47.005944 31425 net.cpp:151] Top shape: 20 64 5 5 (32000)
I0507 04:44:47.005949 31425 net.cpp:159] Memory required for data: 2568080
I0507 04:44:47.005955 31425 layer_factory.hpp:77] Creating layer relu4
I0507 04:44:47.005961 31425 net.cpp:94] Creating Layer relu4
I0507 04:44:47.005964 31425 net.cpp:435] relu4 <- conv4
I0507 04:44:47.005970 31425 net.cpp:396] relu4 -> conv4 (in-place)
I0507 04:44:47.005975 31425 net.cpp:144] Setting up relu4
I0507 04:44:47.005980 31425 net.cpp:151] Top shape: 20 64 5 5 (32000)
I0507 04:44:47.005983 31425 net.cpp:159] Memory required for data: 2696080
I0507 04:44:47.005986 31425 layer_factory.hpp:77] Creating layer conv5
I0507 04:44:47.005993 31425 net.cpp:94] Creating Layer conv5
I0507 04:44:47.005997 31425 net.cpp:435] conv5 <- conv4
I0507 04:44:47.006001 31425 net.cpp:409] conv5 -> conv5
I0507 04:44:47.010422 31425 net.cpp:144] Setting up conv5
I0507 04:44:47.010435 31425 net.cpp:151] Top shape: 20 64 5 5 (32000)
I0507 04:44:47.010439 31425 net.cpp:159] Memory required for data: 2824080
I0507 04:44:47.010447 31425 layer_factory.hpp:77] Creating layer relu5
I0507 04:44:47.010453 31425 net.cpp:94] Creating Layer relu5
I0507 04:44:47.010457 31425 net.cpp:435] relu5 <- conv5
I0507 04:44:47.010462 31425 net.cpp:396] relu5 -> conv5 (in-place)
I0507 04:44:47.010468 31425 net.cpp:144] Setting up relu5
I0507 04:44:47.010473 31425 net.cpp:151] Top shape: 20 64 5 5 (32000)
I0507 04:44:47.010475 31425 net.cpp:159] Memory required for data: 2952080
I0507 04:44:47.010478 31425 layer_factory.hpp:77] Creating layer pool5
I0507 04:44:47.010483 31425 net.cpp:94] Creating Layer pool5
I0507 04:44:47.010486 31425 net.cpp:435] pool5 <- conv5
I0507 04:44:47.010491 31425 net.cpp:409] pool5 -> pool5
I0507 04:44:47.010527 31425 net.cpp:144] Setting up pool5
I0507 04:44:47.010535 31425 net.cpp:151] Top shape: 20 64 2 2 (5120)
I0507 04:44:47.010537 31425 net.cpp:159] Memory required for data: 2972560
I0507 04:44:47.010540 31425 layer_factory.hpp:77] Creating layer ip1
I0507 04:44:47.010547 31425 net.cpp:94] Creating Layer ip1
I0507 04:44:47.010551 31425 net.cpp:435] ip1 <- pool5
I0507 04:44:47.010555 31425 net.cpp:409] ip1 -> ip1
I0507 04:44:47.011075 31425 net.cpp:144] Setting up ip1
I0507 04:44:47.011083 31425 net.cpp:151] Top shape: 20 64 (1280)
I0507 04:44:47.011087 31425 net.cpp:159] Memory required for data: 2977680
I0507 04:44:47.011092 31425 layer_factory.hpp:77] Creating layer ip2
I0507 04:44:47.011098 31425 net.cpp:94] Creating Layer ip2
I0507 04:44:47.011101 31425 net.cpp:435] ip2 <- ip1
I0507 04:44:47.011106 31425 net.cpp:409] ip2 -> ip2
I0507 04:44:47.011333 31425 net.cpp:144] Setting up ip2
I0507 04:44:47.011342 31425 net.cpp:151] Top shape: 20 64 (1280)
I0507 04:44:47.011344 31425 net.cpp:159] Memory required for data: 2982800
I0507 04:44:47.011349 31425 layer_factory.hpp:77] Creating layer ip3
I0507 04:44:47.011354 31425 net.cpp:94] Creating Layer ip3
I0507 04:44:47.011358 31425 net.cpp:435] ip3 <- ip2
I0507 04:44:47.011363 31425 net.cpp:409] ip3 -> ip3
I0507 04:44:47.011565 31425 net.cpp:144] Setting up ip3
I0507 04:44:47.011572 31425 net.cpp:151] Top shape: 20 50 (1000)
I0507 04:44:47.011576 31425 net.cpp:159] Memory required for data: 2986800
I0507 04:44:47.011581 31425 layer_factory.hpp:77] Creating layer loss
I0507 04:44:47.011587 31425 net.cpp:94] Creating Layer loss
I0507 04:44:47.011591 31425 net.cpp:435] loss <- ip3
I0507 04:44:47.011595 31425 net.cpp:435] loss <- label
I0507 04:44:47.011600 31425 net.cpp:409] loss -> loss
I0507 04:44:47.011605 31425 layer_factory.hpp:77] Creating layer loss
…
I0507 04:44:47.012964 31425 solver.cpp:181] Creating test net (#0) specified by net file: ./protocol/dis_50_100_dimension.protocol_distribution
I0507 04:44:47.012989 31425 net.cpp:323] The NetState phase (1) differed from the phase (0) specified by a rule in layer parameters
I0507 04:44:47.013085 31425 net.cpp:52] Initializing net from parameters: 
state {
  phase: TEST
}
layer {
  name: "intercept"
  type: "HDF5Data"
  top: "data"
  top: "label"
  include {
    phase: TEST
  }
  hdf5_data_param {
    source: "/home/purduethu/scratch/radon/d/deng106/CNNStatisticalModel/distributions/input/50_distributions_100_sample_size_test-distributions-path.txt"
    batch_size: 20
  }
}
layer {
  name: "conv1"
  type: "Convolution"
  bottom: "data"
  top: "conv1"
  param {
    lr_mult: 1
  }
  param {
    lr_mult: 2
  }
  convolution_param {
    num_output: 64
    pad: 2
    kernel_size: 5
    stride: 1
    weight_filler {
      type: "gaussian"
      std: 0.0001
    }
    bias_filler {
      type: "constant"
    }
  }
}
layer {
  name: "relu1"
  type: "ReLU"
  bottom: "conv1"
  top: "conv1"
}
layer {
  name: "conv2"
  type: "Convolution"
  bottom: "conv1"
  top: "conv2"
  param {
    lr_mult: 1
  }
  param {
    lr_mult: 2
  }
  convolution_param {
    num_output: 64
    pad: 2
    kernel_size: 5
    stride: 1
    weight_filler {
      type: "gaussian"
      std: 0.01
    }
    bias_filler {
      type: "constant"
    }
  }
}
layer {
  name: "relu2"
  type: "ReLU"
  bottom: "conv2"
  top: "conv2"
}
layer {
  name: "pool2"
  type: "Pooling"
  bottom: "conv2"
  top: "pool2"
  pooling_param {
    pool: MAX
    kernel_size: 3
    stride: 2
  }
}
layer {
  name: "conv3"
  type: "Convolution"
  bottom: "pool2"
  top: "conv3"
  param {
    lr_mult: 1
  }
  param {
    lr_mult: 2
  }
  convolution_param {
    num_output: 64
    pad: 2
    kernel_size: 5
    stride: 1
    weight_filler {
      type: "gaussian"
      std: 0.01
    }
    bias_filler {
      type: "constant"
    }
  }
}
layer {
  name: "relu3"
  type: "ReLU"
  bottom: "conv3"
  top: "conv3"
}
layer {
  name: "conv4"
  type: "Convolution"
  bottom: "conv3"
  top: "conv4"
  param {
    lr_mult: 1
  }
  param {
    lr_mult: 2
  }
  convolution_param {
    num_output: 64
    pad: 2
    kernel_size: 5
    stride: 1
    weight_filler {
      type: "gaussian"
      std: 0.01
    }
    bias_filler {
      type: "constant"
    }
  }
}
layer {
  name: "relu4"
  type: "ReLU"
  bottom: "conv4"
  top: "conv4"
}
layer {
  name: "conv5"
  type: "Convolution"
  bottom: "conv4"
  top: "conv5"
  param {
    lr_mult: 1
  }
  param {
    lr_mult: 2
  }
  convolution_param {
    num_output: 64
    pad: 2
    kernel_size: 5
    stride: 1
    weight_filler {
      type: "gaussian"
      std: 0.01
    }
    bias_filler {
      type: "constant"
    }
  }
}
layer {
  name: "relu5"
  type: "ReLU"
  bottom: "conv5"
  top: "conv5"
}
layer {
  name: "pool5"
  type: "Pooling"
  bottom: "conv5"
  top: "pool5"
  pooling_param {
    pool: AVE
    kernel_size: 3
    stride: 2
  }
}
layer {
  name: "ip1"
  type: "InnerProduct"
  bottom: "pool5"
  top: "ip1"
  param {
    lr_mult: 1
  }
  param {
    lr_mult: 2
  }
  inner_product_param {
    num_output: 64
    weight_filler {
      type: "gaussian"
      std: 0.1
    }
    bias_filler {
      type: "constant"
    }
  }
}
layer {
  name: "ip2"
  type: "InnerProduct"
  bottom: "ip1"
  top: "ip2"
  param {
    lr_mult: 1
  }
  param {
    lr_mult: 2
  }
  inner_product_param {
    num_output: 64
    weight_filler {
      type: "gaussian"
      std: 0.1
    }
    bias_filler {
      type: "constant"
    }
  }
}
layer {
  name: "ip3"
  type: "InnerProduct"
  bottom: "ip2"
  top: "ip3"
  param {
    lr_mult: 1
  }
  param {
    lr_mult: 2
  }
  inner_product_param {
    num_output: 50
    weight_filler {
      type: "gaussian"
      std: 0.1
    }
    bias_filler {
      type: "constant"
    }
  }
}
layer {
  name: "accuracy"
  type: "Accuracy"
  bottom: "ip3"
  bottom: "label"
  top: "accuracy"
  include {
    phase: TEST
  }
}
layer {
  name: "loss"
  type: "SoftmaxWithLoss"
  bottom: "ip3"
  bottom: "label"
  top: "loss"
}
I0507 04:44:47.013149 31425 layer_factory.hpp:77] Creating layer intercept
I0507 04:44:47.013156 31425 net.cpp:94] Creating Layer intercept
I0507 04:44:47.013161 31425 net.cpp:409] intercept -> data
I0507 04:44:47.013167 31425 net.cpp:409] intercept -> label
I0507 04:44:47.013173 31425 hdf5_data_layer.cpp:79] Loading list of HDF5 filenames from: /home/purduethu/scratch/radon/d/deng106/CNNStatisticalModel/distributions/input/50_distributions_100_sample_size_test-distributions-path.txt
I0507 04:44:47.013192 31425 hdf5_data_layer.cpp:93] Number of HDF5 files: 1
I0507 04:44:47.054102 31425 net.cpp:144] Setting up intercept
I0507 04:44:47.054137 31425 net.cpp:151] Top shape: 20 1 10 10 (2000)
I0507 04:44:47.054143 31425 net.cpp:151] Top shape: 20 (20)
I0507 04:44:47.054147 31425 net.cpp:159] Memory required for data: 8080
I0507 04:44:47.054153 31425 layer_factory.hpp:77] Creating layer label_intercept_1_split
I0507 04:44:47.054173 31425 net.cpp:94] Creating Layer label_intercept_1_split
I0507 04:44:47.054178 31425 net.cpp:435] label_intercept_1_split <- label
I0507 04:44:47.054184 31425 net.cpp:409] label_intercept_1_split -> label_intercept_1_split_0
I0507 04:44:47.054193 31425 net.cpp:409] label_intercept_1_split -> label_intercept_1_split_1
I0507 04:44:47.054237 31425 net.cpp:144] Setting up label_intercept_1_split
I0507 04:44:47.054244 31425 net.cpp:151] Top shape: 20 (20)
I0507 04:44:47.054249 31425 net.cpp:151] Top shape: 20 (20)
I0507 04:44:47.054251 31425 net.cpp:159] Memory required for data: 8240
I0507 04:44:47.054255 31425 layer_factory.hpp:77] Creating layer conv1
I0507 04:44:47.054265 31425 net.cpp:94] Creating Layer conv1
I0507 04:44:47.054270 31425 net.cpp:435] conv1 <- data
I0507 04:44:47.054273 31425 net.cpp:409] conv1 -> conv1
I0507 04:44:47.055068 31425 net.cpp:144] Setting up conv1
I0507 04:44:47.055081 31425 net.cpp:151] Top shape: 20 64 10 10 (128000)
I0507 04:44:47.055085 31425 net.cpp:159] Memory required for data: 520240
I0507 04:44:47.055095 31425 layer_factory.hpp:77] Creating layer relu1
I0507 04:44:47.055101 31425 net.cpp:94] Creating Layer relu1
I0507 04:44:47.055105 31425 net.cpp:435] relu1 <- conv1
I0507 04:44:47.055109 31425 net.cpp:396] relu1 -> conv1 (in-place)
I0507 04:44:47.055116 31425 net.cpp:144] Setting up relu1
I0507 04:44:47.055120 31425 net.cpp:151] Top shape: 20 64 10 10 (128000)
I0507 04:44:47.055124 31425 net.cpp:159] Memory required for data: 1032240
I0507 04:44:47.055135 31425 layer_factory.hpp:77] Creating layer conv2
I0507 04:44:47.055143 31425 net.cpp:94] Creating Layer conv2
I0507 04:44:47.055146 31425 net.cpp:435] conv2 <- conv1
I0507 04:44:47.055151 31425 net.cpp:409] conv2 -> conv2
I0507 04:44:47.059231 31425 net.cpp:144] Setting up conv2
I0507 04:44:47.059245 31425 net.cpp:151] Top shape: 20 64 10 10 (128000)
I0507 04:44:47.059249 31425 net.cpp:159] Memory required for data: 1544240
I0507 04:44:47.059257 31425 layer_factory.hpp:77] Creating layer relu2
I0507 04:44:47.059263 31425 net.cpp:94] Creating Layer relu2
I0507 04:44:47.059267 31425 net.cpp:435] relu2 <- conv2
I0507 04:44:47.059272 31425 net.cpp:396] relu2 -> conv2 (in-place)
I0507 04:44:47.059278 31425 net.cpp:144] Setting up relu2
I0507 04:44:47.059283 31425 net.cpp:151] Top shape: 20 64 10 10 (128000)
I0507 04:44:47.059285 31425 net.cpp:159] Memory required for data: 2056240
I0507 04:44:47.059288 31425 layer_factory.hpp:77] Creating layer pool2
I0507 04:44:47.059294 31425 net.cpp:94] Creating Layer pool2
I0507 04:44:47.059298 31425 net.cpp:435] pool2 <- conv2
I0507 04:44:47.059301 31425 net.cpp:409] pool2 -> pool2
I0507 04:44:47.059360 31425 net.cpp:144] Setting up pool2
I0507 04:44:47.059367 31425 net.cpp:151] Top shape: 20 64 5 5 (32000)
I0507 04:44:47.059370 31425 net.cpp:159] Memory required for data: 2184240
I0507 04:44:47.059373 31425 layer_factory.hpp:77] Creating layer conv3
I0507 04:44:47.059381 31425 net.cpp:94] Creating Layer conv3
I0507 04:44:47.059386 31425 net.cpp:435] conv3 <- pool2
I0507 04:44:47.059391 31425 net.cpp:409] conv3 -> conv3
I0507 04:44:47.063807 31425 net.cpp:144] Setting up conv3
I0507 04:44:47.063820 31425 net.cpp:151] Top shape: 20 64 5 5 (32000)
I0507 04:44:47.063824 31425 net.cpp:159] Memory required for data: 2312240
I0507 04:44:47.063833 31425 layer_factory.hpp:77] Creating layer relu3
I0507 04:44:47.063839 31425 net.cpp:94] Creating Layer relu3
I0507 04:44:47.063843 31425 net.cpp:435] relu3 <- conv3
I0507 04:44:47.063849 31425 net.cpp:396] relu3 -> conv3 (in-place)
I0507 04:44:47.063856 31425 net.cpp:144] Setting up relu3
I0507 04:44:47.063860 31425 net.cpp:151] Top shape: 20 64 5 5 (32000)
I0507 04:44:47.063863 31425 net.cpp:159] Memory required for data: 2440240
I0507 04:44:47.063866 31425 layer_factory.hpp:77] Creating layer conv4
I0507 04:44:47.063874 31425 net.cpp:94] Creating Layer conv4
I0507 04:44:47.063879 31425 net.cpp:435] conv4 <- conv3
I0507 04:44:47.063884 31425 net.cpp:409] conv4 -> conv4
I0507 04:44:47.067412 31425 net.cpp:144] Setting up conv4
I0507 04:44:47.067425 31425 net.cpp:151] Top shape: 20 64 5 5 (32000)
I0507 04:44:47.067430 31425 net.cpp:159] Memory required for data: 2568240
I0507 04:44:47.067435 31425 layer_factory.hpp:77] Creating layer relu4
I0507 04:44:47.067441 31425 net.cpp:94] Creating Layer relu4
I0507 04:44:47.067445 31425 net.cpp:435] relu4 <- conv4
I0507 04:44:47.067451 31425 net.cpp:396] relu4 -> conv4 (in-place)
I0507 04:44:47.067456 31425 net.cpp:144] Setting up relu4
I0507 04:44:47.067461 31425 net.cpp:151] Top shape: 20 64 5 5 (32000)
I0507 04:44:47.067464 31425 net.cpp:159] Memory required for data: 2696240
I0507 04:44:47.067467 31425 layer_factory.hpp:77] Creating layer conv5
I0507 04:44:47.067476 31425 net.cpp:94] Creating Layer conv5
I0507 04:44:47.067478 31425 net.cpp:435] conv5 <- conv4
I0507 04:44:47.067483 31425 net.cpp:409] conv5 -> conv5
I0507 04:44:47.071460 31425 net.cpp:144] Setting up conv5
I0507 04:44:47.071473 31425 net.cpp:151] Top shape: 20 64 5 5 (32000)
I0507 04:44:47.071477 31425 net.cpp:159] Memory required for data: 2824240
I0507 04:44:47.071485 31425 layer_factory.hpp:77] Creating layer relu5
I0507 04:44:47.071491 31425 net.cpp:94] Creating Layer relu5
I0507 04:44:47.071494 31425 net.cpp:435] relu5 <- conv5
I0507 04:44:47.071499 31425 net.cpp:396] relu5 -> conv5 (in-place)
I0507 04:44:47.071506 31425 net.cpp:144] Setting up relu5
I0507 04:44:47.071511 31425 net.cpp:151] Top shape: 20 64 5 5 (32000)
I0507 04:44:47.071512 31425 net.cpp:159] Memory required for data: 2952240
I0507 04:44:47.071519 31425 layer_factory.hpp:77] Creating layer pool5
I0507 04:44:47.071526 31425 net.cpp:94] Creating Layer pool5
I0507 04:44:47.071528 31425 net.cpp:435] pool5 <- conv5
I0507 04:44:47.071533 31425 net.cpp:409] pool5 -> pool5
I0507 04:44:47.071573 31425 net.cpp:144] Setting up pool5
I0507 04:44:47.071580 31425 net.cpp:151] Top shape: 20 64 2 2 (5120)
I0507 04:44:47.071583 31425 net.cpp:159] Memory required for data: 2972720
I0507 04:44:47.071586 31425 layer_factory.hpp:77] Creating layer ip1
I0507 04:44:47.071593 31425 net.cpp:94] Creating Layer ip1
I0507 04:44:47.071597 31425 net.cpp:435] ip1 <- pool5
I0507 04:44:47.071602 31425 net.cpp:409] ip1 -> ip1
I0507 04:44:47.072136 31425 net.cpp:144] Setting up ip1
I0507 04:44:47.072144 31425 net.cpp:151] Top shape: 20 64 (1280)
I0507 04:44:47.072146 31425 net.cpp:159] Memory required for data: 2977840
I0507 04:44:47.072152 31425 layer_factory.hpp:77] Creating layer ip2
I0507 04:44:47.072158 31425 net.cpp:94] Creating Layer ip2
I0507 04:44:47.072161 31425 net.cpp:435] ip2 <- ip1
I0507 04:44:47.072167 31425 net.cpp:409] ip2 -> ip2
I0507 04:44:47.072397 31425 net.cpp:144] Setting up ip2
I0507 04:44:47.072404 31425 net.cpp:151] Top shape: 20 64 (1280)
I0507 04:44:47.072407 31425 net.cpp:159] Memory required for data: 2982960
I0507 04:44:47.072412 31425 layer_factory.hpp:77] Creating layer ip3
I0507 04:44:47.072419 31425 net.cpp:94] Creating Layer ip3
I0507 04:44:47.072423 31425 net.cpp:435] ip3 <- ip2
I0507 04:44:47.072427 31425 net.cpp:409] ip3 -> ip3
I0507 04:44:47.072661 31425 net.cpp:144] Setting up ip3
I0507 04:44:47.072670 31425 net.cpp:151] Top shape: 20 50 (1000)
I0507 04:44:47.072674 31425 net.cpp:159] Memory required for data: 2986960
I0507 04:44:47.072679 31425 layer_factory.hpp:77] Creating layer ip3_ip3_0_split
I0507 04:44:47.072684 31425 net.cpp:94] Creating Layer ip3_ip3_0_split
I0507 04:44:47.072687 31425 net.cpp:435] ip3_ip3_0_split <- ip3
I0507 04:44:47.072692 31425 net.cpp:409] ip3_ip3_0_split -> ip3_ip3_0_split_0
I0507 04:44:47.072698 31425 net.cpp:409] ip3_ip3_0_split -> ip3_ip3_0_split_1
I0507 04:44:47.072743 31425 net.cpp:144] Setting up ip3_ip3_0_split
I0507 04:44:47.072749 31425 net.cpp:151] Top shape: 20 50 (1000)
I0507 04:44:47.072753 31425 net.cpp:151] Top shape: 20 50 (1000)
I0507 04:44:47.072757 31425 net.cpp:159] Memory required for data: 2994960
I0507 04:44:47.072759 31425 layer_factory.hpp:77] Creating layer accuracy
I0507 04:44:47.072764 31425 net.cpp:94] Creating Layer accuracy
I0507 04:44:47.072768 31425 net.cpp:435] accuracy <- ip3_ip3_0_split_0
I0507 04:44:47.072772 31425 net.cpp:435] accuracy <- label_intercept_1_split_0
I0507 04:44:47.072777 31425 net.cpp:409] accuracy -> accuracy
…
