…
I0503 11:34:16.007047 20496 net.cpp:323] The NetState phase (0) differed from the phase (1) specified by a rule in layer intercept
I0503 11:34:16.007064 20496 net.cpp:323] The NetState phase (0) differed from the phase (1) specified by a rule in layer accuracy
I0503 11:34:16.007159 20496 net.cpp:52] Initializing net from parameters: 
state {
  phase: TRAIN
}
layer {
  name: "parameters"
  type: "HDF5Data"
  top: "data"
  top: "label"
  include {
    phase: TRAIN
  }
  hdf5_data_param {
    source: "/home/purduethu/scratch/radon/d/deng106/CNNStatisticalModel/distributions/input/20_distributions_400_sample_size_train-distributions-path.txt"
    batch_size: 20
  }
}
layer {
  name: "conv1"
  type: "Convolution"
  bottom: "data"
  top: "conv1"
  param {
    lr_mult: 1
  }
  param {
    lr_mult: 2
  }
  convolution_param {
    num_output: 64
    pad: 2
    kernel_size: 5
    stride: 1
    weight_filler {
      type: "gaussian"
      std: 0.0001
    }
    bias_filler {
      type: "constant"
    }
  }
}
layer {
  name: "relu1"
  type: "ReLU"
  bottom: "conv1"
  top: "conv1"
}
layer {
  name: "conv2"
  type: "Convolution"
  bottom: "conv1"
  top: "conv2"
  param {
    lr_mult: 1
  }
  param {
    lr_mult: 2
  }
  convolution_param {
    num_output: 64
    pad: 2
    kernel_size: 5
    stride: 1
    weight_filler {
      type: "gaussian"
      std: 0.01
    }
    bias_filler {
      type: "constant"
    }
  }
}
layer {
  name: "relu2"
  type: "ReLU"
  bottom: "conv2"
  top: "conv2"
}
layer {
  name: "pool2"
  type: "Pooling"
  bottom: "conv2"
  top: "pool2"
  pooling_param {
    pool: MAX
    kernel_size: 3
    stride: 2
  }
}
layer {
  name: "conv3"
  type: "Convolution"
  bottom: "pool2"
  top: "conv3"
  param {
    lr_mult: 1
  }
  param {
    lr_mult: 2
  }
  convolution_param {
    num_output: 128
    pad: 2
    kernel_size: 5
    stride: 1
    weight_filler {
      type: "gaussian"
      std: 0.01
    }
    bias_filler {
      type: "constant"
    }
  }
}
layer {
  name: "relu3"
  type: "ReLU"
  bottom: "conv3"
  top: "conv3"
}
layer {
  name: "conv4"
  type: "Convolution"
  bottom: "conv3"
  top: "conv4"
  param {
    lr_mult: 1
  }
  param {
    lr_mult: 2
  }
  convolution_param {
    num_output: 128
    pad: 2
    kernel_size: 5
    stride: 1
    weight_filler {
      type: "gaussian"
      std: 0.01
    }
    bias_filler {
      type: "constant"
    }
  }
}
layer {
  name: "relu4"
  type: "ReLU"
  bottom: "conv4"
  top: "conv4"
}
layer {
  name: "conv5"
  type: "Convolution"
  bottom: "conv4"
  top: "conv5"
  param {
    lr_mult: 1
  }
  param {
    lr_mult: 2
  }
  convolution_param {
    num_output: 128
    pad: 2
    kernel_size: 5
    stride: 1
    weight_filler {
      type: "gaussian"
      std: 0.01
    }
    bias_filler {
      type: "constant"
    }
  }
}
layer {
  name: "relu5"
  type: "ReLU"
  bottom: "conv5"
  top: "conv5"
}
layer {
  name: "pool5"
  type: "Pooling"
  bottom: "conv5"
  top: "pool5"
  pooling_param {
    pool: AVE
    kernel_size: 3
    stride: 2
  }
}
layer {
  name: "ip1"
  type: "InnerProduct"
  bottom: "pool5"
  top: "ip1"
  param {
    lr_mult: 1
  }
  param {
    lr_mult: 2
  }
  inner_product_param {
    num_output: 1024
    weight_filler {
      type: "gaussian"
      std: 0.1
    }
    bias_filler {
      type: "constant"
    }
  }
}
layer {
  name: "ip2"
  type: "InnerProduct"
  bottom: "ip1"
  top: "ip2"
  param {
    lr_mult: 1
  }
  param {
    lr_mult: 2
  }
  inner_product_param {
    num_output: 512
    weight_filler {
      type: "gaussian"
      std: 0.1
    }
    bias_filler {
      type: "constant"
    }
  }
}
layer {
  name: "ip3"
  type: "InnerProduct"
  bottom: "ip2"
  top: "ip3"
  param {
    lr_mult: 1
  }
  param {
    lr_mult: 2
  }
  inner_product_param {
    num_output: 50
    weight_filler {
      type: "gaussian"
      std: 0.1
    }
    bias_filler {
      type: "constant"
    }
  }
}
layer {
  name: "loss"
  type: "SoftmaxWithLoss"
  bottom: "ip3"
  bottom: "label"
  top: "loss"
}
I0503 11:34:16.007236 20496 layer_factory.hpp:77] Creating layer parameters
I0503 11:34:16.007251 20496 net.cpp:94] Creating Layer parameters
I0503 11:34:16.007256 20496 net.cpp:409] parameters -> data
I0503 11:34:16.007277 20496 net.cpp:409] parameters -> label
I0503 11:34:16.007287 20496 hdf5_data_layer.cpp:79] Loading list of HDF5 filenames from: /home/purduethu/scratch/radon/d/deng106/CNNStatisticalModel/distributions/input/20_distributions_400_sample_size_train-distributions-path.txt
I0503 11:34:16.007308 20496 hdf5_data_layer.cpp:93] Number of HDF5 files: 1
I0503 11:34:16.007788 20496 hdf5.cpp:32] Datatype class: H5T_FLOAT
I0503 11:34:16.273618 20496 hdf5.cpp:35] Datatype class: H5T_INTEGER
I0503 11:34:16.275265 20496 net.cpp:144] Setting up parameters
I0503 11:34:16.275285 20496 net.cpp:151] Top shape: 20 1 20 20 (8000)
I0503 11:34:16.275290 20496 net.cpp:151] Top shape: 20 (20)
I0503 11:34:16.275293 20496 net.cpp:159] Memory required for data: 32080
I0503 11:34:16.275301 20496 layer_factory.hpp:77] Creating layer conv1
I0503 11:34:16.275321 20496 net.cpp:94] Creating Layer conv1
I0503 11:34:16.275326 20496 net.cpp:435] conv1 <- data
I0503 11:34:16.275337 20496 net.cpp:409] conv1 -> conv1
I0503 11:34:16.280239 20496 net.cpp:144] Setting up conv1
I0503 11:34:16.280256 20496 net.cpp:151] Top shape: 20 64 20 20 (512000)
I0503 11:34:16.280261 20496 net.cpp:159] Memory required for data: 2080080
I0503 11:34:16.280272 20496 layer_factory.hpp:77] Creating layer relu1
I0503 11:34:16.280280 20496 net.cpp:94] Creating Layer relu1
I0503 11:34:16.280284 20496 net.cpp:435] relu1 <- conv1
I0503 11:34:16.280289 20496 net.cpp:396] relu1 -> conv1 (in-place)
I0503 11:34:16.280300 20496 net.cpp:144] Setting up relu1
I0503 11:34:16.280306 20496 net.cpp:151] Top shape: 20 64 20 20 (512000)
I0503 11:34:16.280309 20496 net.cpp:159] Memory required for data: 4128080
I0503 11:34:16.280313 20496 layer_factory.hpp:77] Creating layer conv2
I0503 11:34:16.280320 20496 net.cpp:94] Creating Layer conv2
I0503 11:34:16.280324 20496 net.cpp:435] conv2 <- conv1
I0503 11:34:16.280329 20496 net.cpp:409] conv2 -> conv2
I0503 11:34:16.290737 20496 net.cpp:144] Setting up conv2
I0503 11:34:16.290753 20496 net.cpp:151] Top shape: 20 64 20 20 (512000)
I0503 11:34:16.290758 20496 net.cpp:159] Memory required for data: 6176080
I0503 11:34:16.290766 20496 layer_factory.hpp:77] Creating layer relu2
I0503 11:34:16.290773 20496 net.cpp:94] Creating Layer relu2
I0503 11:34:16.290777 20496 net.cpp:435] relu2 <- conv2
I0503 11:34:16.290782 20496 net.cpp:396] relu2 -> conv2 (in-place)
I0503 11:34:16.290791 20496 net.cpp:144] Setting up relu2
I0503 11:34:16.290796 20496 net.cpp:151] Top shape: 20 64 20 20 (512000)
I0503 11:34:16.290798 20496 net.cpp:159] Memory required for data: 8224080
I0503 11:34:16.290802 20496 layer_factory.hpp:77] Creating layer pool2
I0503 11:34:16.290817 20496 net.cpp:94] Creating Layer pool2
I0503 11:34:16.290820 20496 net.cpp:435] pool2 <- conv2
I0503 11:34:16.290825 20496 net.cpp:409] pool2 -> pool2
I0503 11:34:16.290873 20496 net.cpp:144] Setting up pool2
I0503 11:34:16.290880 20496 net.cpp:151] Top shape: 20 64 10 10 (128000)
I0503 11:34:16.290884 20496 net.cpp:159] Memory required for data: 8736080
I0503 11:34:16.290887 20496 layer_factory.hpp:77] Creating layer conv3
I0503 11:34:16.290895 20496 net.cpp:94] Creating Layer conv3
I0503 11:34:16.290899 20496 net.cpp:435] conv3 <- pool2
I0503 11:34:16.290912 20496 net.cpp:409] conv3 -> conv3
I0503 11:34:16.301257 20496 net.cpp:144] Setting up conv3
I0503 11:34:16.301273 20496 net.cpp:151] Top shape: 20 128 10 10 (256000)
I0503 11:34:16.301278 20496 net.cpp:159] Memory required for data: 9760080
I0503 11:34:16.301286 20496 layer_factory.hpp:77] Creating layer relu3
I0503 11:34:16.301293 20496 net.cpp:94] Creating Layer relu3
I0503 11:34:16.301297 20496 net.cpp:435] relu3 <- conv3
I0503 11:34:16.301302 20496 net.cpp:396] relu3 -> conv3 (in-place)
I0503 11:34:16.301309 20496 net.cpp:144] Setting up relu3
I0503 11:34:16.301314 20496 net.cpp:151] Top shape: 20 128 10 10 (256000)
I0503 11:34:16.301317 20496 net.cpp:159] Memory required for data: 10784080
I0503 11:34:16.301321 20496 layer_factory.hpp:77] Creating layer conv4
I0503 11:34:16.301329 20496 net.cpp:94] Creating Layer conv4
I0503 11:34:16.301333 20496 net.cpp:435] conv4 <- conv3
I0503 11:34:16.301338 20496 net.cpp:409] conv4 -> conv4
I0503 11:34:16.320758 20496 net.cpp:144] Setting up conv4
I0503 11:34:16.320775 20496 net.cpp:151] Top shape: 20 128 10 10 (256000)
I0503 11:34:16.320780 20496 net.cpp:159] Memory required for data: 11808080
I0503 11:34:16.320785 20496 layer_factory.hpp:77] Creating layer relu4
I0503 11:34:16.320791 20496 net.cpp:94] Creating Layer relu4
I0503 11:34:16.320796 20496 net.cpp:435] relu4 <- conv4
I0503 11:34:16.320801 20496 net.cpp:396] relu4 -> conv4 (in-place)
I0503 11:34:16.320808 20496 net.cpp:144] Setting up relu4
I0503 11:34:16.320813 20496 net.cpp:151] Top shape: 20 128 10 10 (256000)
I0503 11:34:16.320816 20496 net.cpp:159] Memory required for data: 12832080
I0503 11:34:16.320821 20496 layer_factory.hpp:77] Creating layer conv5
I0503 11:34:16.320827 20496 net.cpp:94] Creating Layer conv5
I0503 11:34:16.320832 20496 net.cpp:435] conv5 <- conv4
I0503 11:34:16.320837 20496 net.cpp:409] conv5 -> conv5
I0503 11:34:16.339469 20496 net.cpp:144] Setting up conv5
I0503 11:34:16.339485 20496 net.cpp:151] Top shape: 20 128 10 10 (256000)
I0503 11:34:16.339490 20496 net.cpp:159] Memory required for data: 13856080
I0503 11:34:16.339499 20496 layer_factory.hpp:77] Creating layer relu5
I0503 11:34:16.339506 20496 net.cpp:94] Creating Layer relu5
I0503 11:34:16.339510 20496 net.cpp:435] relu5 <- conv5
I0503 11:34:16.339515 20496 net.cpp:396] relu5 -> conv5 (in-place)
I0503 11:34:16.339522 20496 net.cpp:144] Setting up relu5
I0503 11:34:16.339527 20496 net.cpp:151] Top shape: 20 128 10 10 (256000)
I0503 11:34:16.339531 20496 net.cpp:159] Memory required for data: 14880080
I0503 11:34:16.339534 20496 layer_factory.hpp:77] Creating layer pool5
I0503 11:34:16.339540 20496 net.cpp:94] Creating Layer pool5
I0503 11:34:16.339543 20496 net.cpp:435] pool5 <- conv5
I0503 11:34:16.339547 20496 net.cpp:409] pool5 -> pool5
I0503 11:34:16.339583 20496 net.cpp:144] Setting up pool5
I0503 11:34:16.339591 20496 net.cpp:151] Top shape: 20 128 5 5 (64000)
I0503 11:34:16.339594 20496 net.cpp:159] Memory required for data: 15136080
I0503 11:34:16.339597 20496 layer_factory.hpp:77] Creating layer ip1
I0503 11:34:16.339607 20496 net.cpp:94] Creating Layer ip1
I0503 11:34:16.339612 20496 net.cpp:435] ip1 <- pool5
I0503 11:34:16.339617 20496 net.cpp:409] ip1 -> ip1
I0503 11:34:16.422461 20496 net.cpp:144] Setting up ip1
I0503 11:34:16.422492 20496 net.cpp:151] Top shape: 20 1024 (20480)
I0503 11:34:16.422497 20496 net.cpp:159] Memory required for data: 15218000
I0503 11:34:16.422505 20496 layer_factory.hpp:77] Creating layer ip2
I0503 11:34:16.422524 20496 net.cpp:94] Creating Layer ip2
I0503 11:34:16.422529 20496 net.cpp:435] ip2 <- ip1
I0503 11:34:16.422536 20496 net.cpp:409] ip2 -> ip2
I0503 11:34:16.436061 20496 net.cpp:144] Setting up ip2
I0503 11:34:16.436075 20496 net.cpp:151] Top shape: 20 512 (10240)
I0503 11:34:16.436080 20496 net.cpp:159] Memory required for data: 15258960
I0503 11:34:16.436086 20496 layer_factory.hpp:77] Creating layer ip3
I0503 11:34:16.436094 20496 net.cpp:94] Creating Layer ip3
I0503 11:34:16.436098 20496 net.cpp:435] ip3 <- ip2
I0503 11:34:16.436103 20496 net.cpp:409] ip3 -> ip3
I0503 11:34:16.437463 20496 net.cpp:144] Setting up ip3
I0503 11:34:16.437476 20496 net.cpp:151] Top shape: 20 50 (1000)
I0503 11:34:16.437480 20496 net.cpp:159] Memory required for data: 15262960
I0503 11:34:16.437486 20496 layer_factory.hpp:77] Creating layer loss
I0503 11:34:16.437494 20496 net.cpp:94] Creating Layer loss
I0503 11:34:16.437499 20496 net.cpp:435] loss <- ip3
I0503 11:34:16.437503 20496 net.cpp:435] loss <- label
I0503 11:34:16.437510 20496 net.cpp:409] loss -> loss
I0503 11:34:16.437521 20496 layer_factory.hpp:77] Creating layer loss
…
I0503 11:34:16.438037 20496 solver.cpp:181] Creating test net (#0) specified by net file: ./protocol/dis_20_400_dimension.protocol_distribution
I0503 11:34:16.438066 20496 net.cpp:323] The NetState phase (1) differed from the phase (0) specified by a rule in layer parameters
I0503 11:34:16.438164 20496 net.cpp:52] Initializing net from parameters: 
state {
  phase: TEST
}
layer {
  name: "intercept"
  type: "HDF5Data"
  top: "data"
  top: "label"
  include {
    phase: TEST
  }
  hdf5_data_param {
    source: "/home/purduethu/scratch/radon/d/deng106/CNNStatisticalModel/distributions/input/20_distributions_400_sample_size_test-distributions-path.txt"
    batch_size: 20
  }
}
layer {
  name: "conv1"
  type: "Convolution"
  bottom: "data"
  top: "conv1"
  param {
    lr_mult: 1
  }
  param {
    lr_mult: 2
  }
  convolution_param {
    num_output: 64
    pad: 2
    kernel_size: 5
    stride: 1
    weight_filler {
      type: "gaussian"
      std: 0.0001
    }
    bias_filler {
      type: "constant"
    }
  }
}
layer {
  name: "relu1"
  type: "ReLU"
  bottom: "conv1"
  top: "conv1"
}
layer {
  name: "conv2"
  type: "Convolution"
  bottom: "conv1"
  top: "conv2"
  param {
    lr_mult: 1
  }
  param {
    lr_mult: 2
  }
  convolution_param {
    num_output: 64
    pad: 2
    kernel_size: 5
    stride: 1
    weight_filler {
      type: "gaussian"
      std: 0.01
    }
    bias_filler {
      type: "constant"
    }
  }
}
layer {
  name: "relu2"
  type: "ReLU"
  bottom: "conv2"
  top: "conv2"
}
layer {
  name: "pool2"
  type: "Pooling"
  bottom: "conv2"
  top: "pool2"
  pooling_param {
    pool: MAX
    kernel_size: 3
    stride: 2
  }
}
layer {
  name: "conv3"
  type: "Convolution"
  bottom: "pool2"
  top: "conv3"
  param {
    lr_mult: 1
  }
  param {
    lr_mult: 2
  }
  convolution_param {
    num_output: 128
    pad: 2
    kernel_size: 5
    stride: 1
    weight_filler {
      type: "gaussian"
      std: 0.01
    }
    bias_filler {
      type: "constant"
    }
  }
}
layer {
  name: "relu3"
  type: "ReLU"
  bottom: "conv3"
  top: "conv3"
}
layer {
  name: "conv4"
  type: "Convolution"
  bottom: "conv3"
  top: "conv4"
  param {
    lr_mult: 1
  }
  param {
    lr_mult: 2
  }
  convolution_param {
    num_output: 128
    pad: 2
    kernel_size: 5
    stride: 1
    weight_filler {
      type: "gaussian"
      std: 0.01
    }
    bias_filler {
      type: "constant"
    }
  }
}
layer {
  name: "relu4"
  type: "ReLU"
  bottom: "conv4"
  top: "conv4"
}
layer {
  name: "conv5"
  type: "Convolution"
  bottom: "conv4"
  top: "conv5"
  param {
    lr_mult: 1
  }
  param {
    lr_mult: 2
  }
  convolution_param {
    num_output: 128
    pad: 2
    kernel_size: 5
    stride: 1
    weight_filler {
      type: "gaussian"
      std: 0.01
    }
    bias_filler {
      type: "constant"
    }
  }
}
layer {
  name: "relu5"
  type: "ReLU"
  bottom: "conv5"
  top: "conv5"
}
layer {
  name: "pool5"
  type: "Pooling"
  bottom: "conv5"
  top: "pool5"
  pooling_param {
    pool: AVE
    kernel_size: 3
    stride: 2
  }
}
layer {
  name: "ip1"
  type: "InnerProduct"
  bottom: "pool5"
  top: "ip1"
  param {
    lr_mult: 1
  }
  param {
    lr_mult: 2
  }
  inner_product_param {
    num_output: 1024
    weight_filler {
      type: "gaussian"
      std: 0.1
    }
    bias_filler {
      type: "constant"
    }
  }
}
layer {
  name: "ip2"
  type: "InnerProduct"
  bottom: "ip1"
  top: "ip2"
  param {
    lr_mult: 1
  }
  param {
    lr_mult: 2
  }
  inner_product_param {
    num_output: 512
    weight_filler {
      type: "gaussian"
      std: 0.1
    }
    bias_filler {
      type: "constant"
    }
  }
}
layer {
  name: "ip3"
  type: "InnerProduct"
  bottom: "ip2"
  top: "ip3"
  param {
    lr_mult: 1
  }
  param {
    lr_mult: 2
  }
  inner_product_param {
    num_output: 50
    weight_filler {
      type: "gaussian"
      std: 0.1
    }
    bias_filler {
      type: "constant"
    }
  }
}
layer {
  name: "accuracy"
  type: "Accuracy"
  bottom: "ip3"
  bottom: "label"
  top: "accuracy"
  include {
    phase: TEST
  }
}
layer {
  name: "loss"
  type: "SoftmaxWithLoss"
  bottom: "ip3"
  bottom: "label"
  top: "loss"
}
I0503 11:34:16.438240 20496 layer_factory.hpp:77] Creating layer intercept
I0503 11:34:16.438247 20496 net.cpp:94] Creating Layer intercept
I0503 11:34:16.438252 20496 net.cpp:409] intercept -> data
I0503 11:34:16.438259 20496 net.cpp:409] intercept -> label
I0503 11:34:16.438266 20496 hdf5_data_layer.cpp:79] Loading list of HDF5 filenames from: /home/purduethu/scratch/radon/d/deng106/CNNStatisticalModel/distributions/input/20_distributions_400_sample_size_test-distributions-path.txt
I0503 11:34:16.438285 20496 hdf5_data_layer.cpp:93] Number of HDF5 files: 1
I0503 11:34:16.503337 20496 net.cpp:144] Setting up intercept
I0503 11:34:16.503373 20496 net.cpp:151] Top shape: 20 1 20 20 (8000)
I0503 11:34:16.503378 20496 net.cpp:151] Top shape: 20 (20)
I0503 11:34:16.503382 20496 net.cpp:159] Memory required for data: 32080
I0503 11:34:16.503388 20496 layer_factory.hpp:77] Creating layer label_intercept_1_split
I0503 11:34:16.503408 20496 net.cpp:94] Creating Layer label_intercept_1_split
I0503 11:34:16.503413 20496 net.cpp:435] label_intercept_1_split <- label
I0503 11:34:16.503419 20496 net.cpp:409] label_intercept_1_split -> label_intercept_1_split_0
I0503 11:34:16.503427 20496 net.cpp:409] label_intercept_1_split -> label_intercept_1_split_1
I0503 11:34:16.503464 20496 net.cpp:144] Setting up label_intercept_1_split
I0503 11:34:16.503471 20496 net.cpp:151] Top shape: 20 (20)
I0503 11:34:16.503476 20496 net.cpp:151] Top shape: 20 (20)
I0503 11:34:16.503479 20496 net.cpp:159] Memory required for data: 32240
I0503 11:34:16.503482 20496 layer_factory.hpp:77] Creating layer conv1
I0503 11:34:16.503494 20496 net.cpp:94] Creating Layer conv1
I0503 11:34:16.503497 20496 net.cpp:435] conv1 <- data
I0503 11:34:16.503504 20496 net.cpp:409] conv1 -> conv1
I0503 11:34:16.504181 20496 net.cpp:144] Setting up conv1
I0503 11:34:16.504195 20496 net.cpp:151] Top shape: 20 64 20 20 (512000)
I0503 11:34:16.504199 20496 net.cpp:159] Memory required for data: 2080240
I0503 11:34:16.504209 20496 layer_factory.hpp:77] Creating layer relu1
I0503 11:34:16.504216 20496 net.cpp:94] Creating Layer relu1
I0503 11:34:16.504220 20496 net.cpp:435] relu1 <- conv1
I0503 11:34:16.504225 20496 net.cpp:396] relu1 -> conv1 (in-place)
I0503 11:34:16.504232 20496 net.cpp:144] Setting up relu1
I0503 11:34:16.504237 20496 net.cpp:151] Top shape: 20 64 20 20 (512000)
I0503 11:34:16.504240 20496 net.cpp:159] Memory required for data: 4128240
I0503 11:34:16.504245 20496 layer_factory.hpp:77] Creating layer conv2
I0503 11:34:16.504252 20496 net.cpp:94] Creating Layer conv2
I0503 11:34:16.504256 20496 net.cpp:435] conv2 <- conv1
I0503 11:34:16.504261 20496 net.cpp:409] conv2 -> conv2
I0503 11:34:16.509311 20496 net.cpp:144] Setting up conv2
I0503 11:34:16.509327 20496 net.cpp:151] Top shape: 20 64 20 20 (512000)
I0503 11:34:16.509332 20496 net.cpp:159] Memory required for data: 6176240
I0503 11:34:16.509341 20496 layer_factory.hpp:77] Creating layer relu2
I0503 11:34:16.509346 20496 net.cpp:94] Creating Layer relu2
I0503 11:34:16.509351 20496 net.cpp:435] relu2 <- conv2
I0503 11:34:16.509356 20496 net.cpp:396] relu2 -> conv2 (in-place)
I0503 11:34:16.509363 20496 net.cpp:144] Setting up relu2
I0503 11:34:16.509368 20496 net.cpp:151] Top shape: 20 64 20 20 (512000)
I0503 11:34:16.509371 20496 net.cpp:159] Memory required for data: 8224240
I0503 11:34:16.509374 20496 layer_factory.hpp:77] Creating layer pool2
I0503 11:34:16.509380 20496 net.cpp:94] Creating Layer pool2
I0503 11:34:16.509384 20496 net.cpp:435] pool2 <- conv2
I0503 11:34:16.509388 20496 net.cpp:409] pool2 -> pool2
I0503 11:34:16.509423 20496 net.cpp:144] Setting up pool2
I0503 11:34:16.509429 20496 net.cpp:151] Top shape: 20 64 10 10 (128000)
I0503 11:34:16.509433 20496 net.cpp:159] Memory required for data: 8736240
I0503 11:34:16.509436 20496 layer_factory.hpp:77] Creating layer conv3
I0503 11:34:16.509445 20496 net.cpp:94] Creating Layer conv3
I0503 11:34:16.509449 20496 net.cpp:435] conv3 <- pool2
I0503 11:34:16.509454 20496 net.cpp:409] conv3 -> conv3
I0503 11:34:16.517330 20496 net.cpp:144] Setting up conv3
I0503 11:34:16.517346 20496 net.cpp:151] Top shape: 20 128 10 10 (256000)
I0503 11:34:16.517350 20496 net.cpp:159] Memory required for data: 9760240
I0503 11:34:16.517359 20496 layer_factory.hpp:77] Creating layer relu3
I0503 11:34:16.517366 20496 net.cpp:94] Creating Layer relu3
I0503 11:34:16.517370 20496 net.cpp:435] relu3 <- conv3
I0503 11:34:16.517375 20496 net.cpp:396] relu3 -> conv3 (in-place)
I0503 11:34:16.517382 20496 net.cpp:144] Setting up relu3
I0503 11:34:16.517387 20496 net.cpp:151] Top shape: 20 128 10 10 (256000)
I0503 11:34:16.517391 20496 net.cpp:159] Memory required for data: 10784240
I0503 11:34:16.517395 20496 layer_factory.hpp:77] Creating layer conv4
I0503 11:34:16.517402 20496 net.cpp:94] Creating Layer conv4
I0503 11:34:16.517406 20496 net.cpp:435] conv4 <- conv3
I0503 11:34:16.517411 20496 net.cpp:409] conv4 -> conv4
I0503 11:34:16.531205 20496 net.cpp:144] Setting up conv4
I0503 11:34:16.531245 20496 net.cpp:151] Top shape: 20 128 10 10 (256000)
I0503 11:34:16.531258 20496 net.cpp:159] Memory required for data: 11808240
I0503 11:34:16.531276 20496 layer_factory.hpp:77] Creating layer relu4
I0503 11:34:16.531292 20496 net.cpp:94] Creating Layer relu4
I0503 11:34:16.531313 20496 net.cpp:435] relu4 <- conv4
I0503 11:34:16.531329 20496 net.cpp:396] relu4 -> conv4 (in-place)
I0503 11:34:16.531349 20496 net.cpp:144] Setting up relu4
I0503 11:34:16.531363 20496 net.cpp:151] Top shape: 20 128 10 10 (256000)
I0503 11:34:16.531373 20496 net.cpp:159] Memory required for data: 12832240
I0503 11:34:16.531383 20496 layer_factory.hpp:77] Creating layer conv5
I0503 11:34:16.531402 20496 net.cpp:94] Creating Layer conv5
I0503 11:34:16.531412 20496 net.cpp:435] conv5 <- conv4
I0503 11:34:16.531427 20496 net.cpp:409] conv5 -> conv5
I0503 11:34:16.544914 20496 net.cpp:144] Setting up conv5
I0503 11:34:16.544930 20496 net.cpp:151] Top shape: 20 128 10 10 (256000)
I0503 11:34:16.544934 20496 net.cpp:159] Memory required for data: 13856240
I0503 11:34:16.544944 20496 layer_factory.hpp:77] Creating layer relu5
I0503 11:34:16.544950 20496 net.cpp:94] Creating Layer relu5
I0503 11:34:16.544955 20496 net.cpp:435] relu5 <- conv5
I0503 11:34:16.544958 20496 net.cpp:396] relu5 -> conv5 (in-place)
I0503 11:34:16.544965 20496 net.cpp:144] Setting up relu5
I0503 11:34:16.544970 20496 net.cpp:151] Top shape: 20 128 10 10 (256000)
I0503 11:34:16.544975 20496 net.cpp:159] Memory required for data: 14880240
I0503 11:34:16.544977 20496 layer_factory.hpp:77] Creating layer pool5
I0503 11:34:16.544982 20496 net.cpp:94] Creating Layer pool5
I0503 11:34:16.544986 20496 net.cpp:435] pool5 <- conv5
I0503 11:34:16.544991 20496 net.cpp:409] pool5 -> pool5
I0503 11:34:16.545017 20496 net.cpp:144] Setting up pool5
I0503 11:34:16.545024 20496 net.cpp:151] Top shape: 20 128 5 5 (64000)
I0503 11:34:16.545027 20496 net.cpp:159] Memory required for data: 15136240
I0503 11:34:16.545030 20496 layer_factory.hpp:77] Creating layer ip1
I0503 11:34:16.545037 20496 net.cpp:94] Creating Layer ip1
I0503 11:34:16.545042 20496 net.cpp:435] ip1 <- pool5
I0503 11:34:16.545047 20496 net.cpp:409] ip1 -> ip1
I0503 11:34:16.627837 20496 net.cpp:144] Setting up ip1
I0503 11:34:16.627868 20496 net.cpp:151] Top shape: 20 1024 (20480)
I0503 11:34:16.627873 20496 net.cpp:159] Memory required for data: 15218160
I0503 11:34:16.627882 20496 layer_factory.hpp:77] Creating layer ip2
I0503 11:34:16.627890 20496 net.cpp:94] Creating Layer ip2
I0503 11:34:16.627895 20496 net.cpp:435] ip2 <- ip1
I0503 11:34:16.627902 20496 net.cpp:409] ip2 -> ip2
I0503 11:34:16.641458 20496 net.cpp:144] Setting up ip2
I0503 11:34:16.641471 20496 net.cpp:151] Top shape: 20 512 (10240)
I0503 11:34:16.641475 20496 net.cpp:159] Memory required for data: 15259120
I0503 11:34:16.641481 20496 layer_factory.hpp:77] Creating layer ip3
I0503 11:34:16.641490 20496 net.cpp:94] Creating Layer ip3
I0503 11:34:16.641494 20496 net.cpp:435] ip3 <- ip2
I0503 11:34:16.641500 20496 net.cpp:409] ip3 -> ip3
I0503 11:34:16.642216 20496 net.cpp:144] Setting up ip3
I0503 11:34:16.642223 20496 net.cpp:151] Top shape: 20 50 (1000)
I0503 11:34:16.642227 20496 net.cpp:159] Memory required for data: 15263120
I0503 11:34:16.642232 20496 layer_factory.hpp:77] Creating layer ip3_ip3_0_split
I0503 11:34:16.642238 20496 net.cpp:94] Creating Layer ip3_ip3_0_split
I0503 11:34:16.642241 20496 net.cpp:435] ip3_ip3_0_split <- ip3
I0503 11:34:16.642246 20496 net.cpp:409] ip3_ip3_0_split -> ip3_ip3_0_split_0
I0503 11:34:16.642251 20496 net.cpp:409] ip3_ip3_0_split -> ip3_ip3_0_split_1
I0503 11:34:16.642277 20496 net.cpp:144] Setting up ip3_ip3_0_split
I0503 11:34:16.642283 20496 net.cpp:151] Top shape: 20 50 (1000)
I0503 11:34:16.642287 20496 net.cpp:151] Top shape: 20 50 (1000)
I0503 11:34:16.642290 20496 net.cpp:159] Memory required for data: 15271120
I0503 11:34:16.642293 20496 layer_factory.hpp:77] Creating layer accuracy
I0503 11:34:16.642300 20496 net.cpp:94] Creating Layer accuracy
I0503 11:34:16.642303 20496 net.cpp:435] accuracy <- ip3_ip3_0_split_0
I0503 11:34:16.642307 20496 net.cpp:435] accuracy <- label_intercept_1_split_0
I0503 11:34:16.642313 20496 net.cpp:409] accuracy -> accuracy
…
