…
I0503 08:07:42.148252 19344 net.cpp:323] The NetState phase (0) differed from the phase (1) specified by a rule in layer intercept
I0503 08:07:42.148269 19344 net.cpp:323] The NetState phase (0) differed from the phase (1) specified by a rule in layer loss
I0503 08:07:42.148360 19344 net.cpp:52] Initializing net from parameters: 
state {
  phase: TRAIN
}
layer {
  name: "parameters"
  type: "HDF5Data"
  top: "data"
  top: "label"
  include {
    phase: TRAIN
  }
  hdf5_data_param {
    source: "/home/purduethu/scratch/radon/d/deng106/CNNStatisticalModel/distributions/input/20_distributions_900_sample_size_train-parameters-path.txt"
    batch_size: 20
  }
}
layer {
  name: "conv1"
  type: "Convolution"
  bottom: "data"
  top: "conv1"
  param {
    lr_mult: 1
  }
  param {
    lr_mult: 2
  }
  convolution_param {
    num_output: 64
    pad: 2
    kernel_size: 5
    stride: 1
    weight_filler {
      type: "gaussian"
      std: 0.0001
    }
    bias_filler {
      type: "constant"
    }
  }
}
layer {
  name: "relu1"
  type: "ReLU"
  bottom: "conv1"
  top: "conv1"
}
layer {
  name: "conv2"
  type: "Convolution"
  bottom: "conv1"
  top: "conv2"
  param {
    lr_mult: 1
  }
  param {
    lr_mult: 2
  }
  convolution_param {
    num_output: 64
    pad: 2
    kernel_size: 5
    stride: 1
    weight_filler {
      type: "gaussian"
      std: 0.01
    }
    bias_filler {
      type: "constant"
    }
  }
}
layer {
  name: "relu2"
  type: "ReLU"
  bottom: "conv2"
  top: "conv2"
}
layer {
  name: "pool2"
  type: "Pooling"
  bottom: "conv2"
  top: "pool2"
  pooling_param {
    pool: MAX
    kernel_size: 3
    stride: 2
  }
}
layer {
  name: "conv3"
  type: "Convolution"
  bottom: "pool2"
  top: "conv3"
  param {
    lr_mult: 1
  }
  param {
    lr_mult: 2
  }
  convolution_param {
    num_output: 128
    pad: 2
    kernel_size: 5
    stride: 1
    weight_filler {
      type: "gaussian"
      std: 0.01
    }
    bias_filler {
      type: "constant"
    }
  }
}
layer {
  name: "relu3"
  type: "ReLU"
  bottom: "conv3"
  top: "conv3"
}
layer {
  name: "conv4"
  type: "Convolution"
  bottom: "conv3"
  top: "conv4"
  param {
    lr_mult: 1
  }
  param {
    lr_mult: 2
  }
  convolution_param {
    num_output: 128
    pad: 2
    kernel_size: 5
    stride: 1
    weight_filler {
      type: "gaussian"
      std: 0.01
    }
    bias_filler {
      type: "constant"
    }
  }
}
layer {
  name: "relu4"
  type: "ReLU"
  bottom: "conv4"
  top: "conv4"
}
layer {
  name: "conv5"
  type: "Convolution"
  bottom: "conv4"
  top: "conv5"
  param {
    lr_mult: 1
  }
  param {
    lr_mult: 2
  }
  convolution_param {
    num_output: 128
    pad: 2
    kernel_size: 5
    stride: 1
    weight_filler {
      type: "gaussian"
      std: 0.01
    }
    bias_filler {
      type: "constant"
    }
  }
}
layer {
  name: "relu5"
  type: "ReLU"
  bottom: "conv5"
  top: "conv5"
}
layer {
  name: "pool5"
  type: "Pooling"
  bottom: "conv5"
  top: "pool5"
  pooling_param {
    pool: AVE
    kernel_size: 3
    stride: 2
  }
}
layer {
  name: "ip1"
  type: "InnerProduct"
  bottom: "pool5"
  top: "ip1"
  param {
    lr_mult: 1
  }
  param {
    lr_mult: 2
  }
  inner_product_param {
    num_output: 1024
    weight_filler {
      type: "gaussian"
      std: 0.1
    }
    bias_filler {
      type: "constant"
    }
  }
}
layer {
  name: "ip2"
  type: "InnerProduct"
  bottom: "ip1"
  top: "ip2"
  param {
    lr_mult: 1
  }
  param {
    lr_mult: 2
  }
  inner_product_param {
    num_output: 512
    weight_filler {
      type: "gaussian"
      std: 0.1
    }
    bias_filler {
      type: "constant"
    }
  }
}
layer {
  name: "ip3"
  type: "InnerProduct"
  bottom: "ip2"
  top: "ip3"
  param {
    lr_mult: 1
  }
  param {
    lr_mult: 2
  }
  inner_product_param {
    num_output: 1
    weight_filler {
      type: "gaussian"
      std: 0.1
    }
    bias_filler {
      type: "constant"
    }
  }
}
layer {
  name: "loss"
  type: "HuberLoss"
  bottom: "ip3"
  bottom: "label"
  top: "loss"
  include {
    phase: TRAIN
  }
}
I0503 08:07:42.148437 19344 layer_factory.hpp:77] Creating layer parameters
I0503 08:07:42.148452 19344 net.cpp:94] Creating Layer parameters
I0503 08:07:42.148458 19344 net.cpp:409] parameters -> data
I0503 08:07:42.148476 19344 net.cpp:409] parameters -> label
I0503 08:07:42.148488 19344 hdf5_data_layer.cpp:79] Loading list of HDF5 filenames from: /home/purduethu/scratch/radon/d/deng106/CNNStatisticalModel/distributions/input/20_distributions_900_sample_size_train-parameters-path.txt
I0503 08:07:42.148509 19344 hdf5_data_layer.cpp:93] Number of HDF5 files: 1
I0503 08:07:42.149099 19344 hdf5.cpp:32] Datatype class: H5T_FLOAT
I0503 08:07:42.727973 19344 net.cpp:144] Setting up parameters
I0503 08:07:42.728008 19344 net.cpp:151] Top shape: 20 1 30 30 (18000)
I0503 08:07:42.728013 19344 net.cpp:151] Top shape: 20 (20)
I0503 08:07:42.728018 19344 net.cpp:159] Memory required for data: 72080
I0503 08:07:42.728024 19344 layer_factory.hpp:77] Creating layer conv1
I0503 08:07:42.728049 19344 net.cpp:94] Creating Layer conv1
I0503 08:07:42.728055 19344 net.cpp:435] conv1 <- data
I0503 08:07:42.728066 19344 net.cpp:409] conv1 -> conv1
I0503 08:07:42.733932 19344 net.cpp:144] Setting up conv1
I0503 08:07:42.733948 19344 net.cpp:151] Top shape: 20 64 30 30 (1152000)
I0503 08:07:42.733952 19344 net.cpp:159] Memory required for data: 4680080
I0503 08:07:42.733963 19344 layer_factory.hpp:77] Creating layer relu1
I0503 08:07:42.733971 19344 net.cpp:94] Creating Layer relu1
I0503 08:07:42.733975 19344 net.cpp:435] relu1 <- conv1
I0503 08:07:42.733980 19344 net.cpp:396] relu1 -> conv1 (in-place)
I0503 08:07:42.733997 19344 net.cpp:144] Setting up relu1
I0503 08:07:42.734004 19344 net.cpp:151] Top shape: 20 64 30 30 (1152000)
I0503 08:07:42.734006 19344 net.cpp:159] Memory required for data: 9288080
I0503 08:07:42.734010 19344 layer_factory.hpp:77] Creating layer conv2
I0503 08:07:42.734019 19344 net.cpp:94] Creating Layer conv2
I0503 08:07:42.734021 19344 net.cpp:435] conv2 <- conv1
I0503 08:07:42.734026 19344 net.cpp:409] conv2 -> conv2
I0503 08:07:42.749107 19344 net.cpp:144] Setting up conv2
I0503 08:07:42.749125 19344 net.cpp:151] Top shape: 20 64 30 30 (1152000)
I0503 08:07:42.749130 19344 net.cpp:159] Memory required for data: 13896080
I0503 08:07:42.749138 19344 layer_factory.hpp:77] Creating layer relu2
I0503 08:07:42.749146 19344 net.cpp:94] Creating Layer relu2
I0503 08:07:42.749150 19344 net.cpp:435] relu2 <- conv2
I0503 08:07:42.749156 19344 net.cpp:396] relu2 -> conv2 (in-place)
I0503 08:07:42.749164 19344 net.cpp:144] Setting up relu2
I0503 08:07:42.749169 19344 net.cpp:151] Top shape: 20 64 30 30 (1152000)
I0503 08:07:42.749173 19344 net.cpp:159] Memory required for data: 18504080
I0503 08:07:42.749177 19344 layer_factory.hpp:77] Creating layer pool2
I0503 08:07:42.749186 19344 net.cpp:94] Creating Layer pool2
I0503 08:07:42.749197 19344 net.cpp:435] pool2 <- conv2
I0503 08:07:42.749202 19344 net.cpp:409] pool2 -> pool2
I0503 08:07:42.749248 19344 net.cpp:144] Setting up pool2
I0503 08:07:42.749258 19344 net.cpp:151] Top shape: 20 64 15 15 (288000)
I0503 08:07:42.749261 19344 net.cpp:159] Memory required for data: 19656080
I0503 08:07:42.749265 19344 layer_factory.hpp:77] Creating layer conv3
I0503 08:07:42.749274 19344 net.cpp:94] Creating Layer conv3
I0503 08:07:42.749277 19344 net.cpp:435] conv3 <- pool2
I0503 08:07:42.749284 19344 net.cpp:409] conv3 -> conv3
I0503 08:07:42.762738 19344 net.cpp:144] Setting up conv3
I0503 08:07:42.762755 19344 net.cpp:151] Top shape: 20 128 15 15 (576000)
I0503 08:07:42.762760 19344 net.cpp:159] Memory required for data: 21960080
I0503 08:07:42.762770 19344 layer_factory.hpp:77] Creating layer relu3
I0503 08:07:42.762778 19344 net.cpp:94] Creating Layer relu3
I0503 08:07:42.762781 19344 net.cpp:435] relu3 <- conv3
I0503 08:07:42.762787 19344 net.cpp:396] relu3 -> conv3 (in-place)
I0503 08:07:42.762795 19344 net.cpp:144] Setting up relu3
I0503 08:07:42.762800 19344 net.cpp:151] Top shape: 20 128 15 15 (576000)
I0503 08:07:42.762804 19344 net.cpp:159] Memory required for data: 24264080
I0503 08:07:42.762809 19344 layer_factory.hpp:77] Creating layer conv4
I0503 08:07:42.762817 19344 net.cpp:94] Creating Layer conv4
I0503 08:07:42.762821 19344 net.cpp:435] conv4 <- conv3
I0503 08:07:42.762827 19344 net.cpp:409] conv4 -> conv4
I0503 08:07:42.785949 19344 net.cpp:144] Setting up conv4
I0503 08:07:42.785966 19344 net.cpp:151] Top shape: 20 128 15 15 (576000)
I0503 08:07:42.785971 19344 net.cpp:159] Memory required for data: 26568080
I0503 08:07:42.785979 19344 layer_factory.hpp:77] Creating layer relu4
I0503 08:07:42.785986 19344 net.cpp:94] Creating Layer relu4
I0503 08:07:42.785990 19344 net.cpp:435] relu4 <- conv4
I0503 08:07:42.785995 19344 net.cpp:396] relu4 -> conv4 (in-place)
I0503 08:07:42.786005 19344 net.cpp:144] Setting up relu4
I0503 08:07:42.786010 19344 net.cpp:151] Top shape: 20 128 15 15 (576000)
I0503 08:07:42.786013 19344 net.cpp:159] Memory required for data: 28872080
I0503 08:07:42.786016 19344 layer_factory.hpp:77] Creating layer conv5
I0503 08:07:42.786026 19344 net.cpp:94] Creating Layer conv5
I0503 08:07:42.786029 19344 net.cpp:435] conv5 <- conv4
I0503 08:07:42.786036 19344 net.cpp:409] conv5 -> conv5
I0503 08:07:42.808835 19344 net.cpp:144] Setting up conv5
I0503 08:07:42.808852 19344 net.cpp:151] Top shape: 20 128 15 15 (576000)
I0503 08:07:42.808856 19344 net.cpp:159] Memory required for data: 31176080
I0503 08:07:42.808866 19344 layer_factory.hpp:77] Creating layer relu5
I0503 08:07:42.808873 19344 net.cpp:94] Creating Layer relu5
I0503 08:07:42.808877 19344 net.cpp:435] relu5 <- conv5
I0503 08:07:42.808883 19344 net.cpp:396] relu5 -> conv5 (in-place)
I0503 08:07:42.808892 19344 net.cpp:144] Setting up relu5
I0503 08:07:42.808905 19344 net.cpp:151] Top shape: 20 128 15 15 (576000)
I0503 08:07:42.808909 19344 net.cpp:159] Memory required for data: 33480080
I0503 08:07:42.808913 19344 layer_factory.hpp:77] Creating layer pool5
I0503 08:07:42.808919 19344 net.cpp:94] Creating Layer pool5
I0503 08:07:42.808923 19344 net.cpp:435] pool5 <- conv5
I0503 08:07:42.808928 19344 net.cpp:409] pool5 -> pool5
I0503 08:07:42.808966 19344 net.cpp:144] Setting up pool5
I0503 08:07:42.808975 19344 net.cpp:151] Top shape: 20 128 7 7 (125440)
I0503 08:07:42.808979 19344 net.cpp:159] Memory required for data: 33981840
I0503 08:07:42.808984 19344 layer_factory.hpp:77] Creating layer ip1
I0503 08:07:42.808993 19344 net.cpp:94] Creating Layer ip1
I0503 08:07:42.808997 19344 net.cpp:435] ip1 <- pool5
I0503 08:07:42.809003 19344 net.cpp:409] ip1 -> ip1
I0503 08:07:42.969856 19344 net.cpp:144] Setting up ip1
I0503 08:07:42.969892 19344 net.cpp:151] Top shape: 20 1024 (20480)
I0503 08:07:42.969895 19344 net.cpp:159] Memory required for data: 34063760
I0503 08:07:42.969904 19344 layer_factory.hpp:77] Creating layer ip2
I0503 08:07:42.969914 19344 net.cpp:94] Creating Layer ip2
I0503 08:07:42.969929 19344 net.cpp:435] ip2 <- ip1
I0503 08:07:42.969936 19344 net.cpp:409] ip2 -> ip2
I0503 08:07:42.982893 19344 net.cpp:144] Setting up ip2
I0503 08:07:42.982906 19344 net.cpp:151] Top shape: 20 512 (10240)
I0503 08:07:42.982911 19344 net.cpp:159] Memory required for data: 34104720
I0503 08:07:42.982918 19344 layer_factory.hpp:77] Creating layer ip3
I0503 08:07:42.982923 19344 net.cpp:94] Creating Layer ip3
I0503 08:07:42.982928 19344 net.cpp:435] ip3 <- ip2
I0503 08:07:42.982933 19344 net.cpp:409] ip3 -> ip3
I0503 08:07:42.983009 19344 net.cpp:144] Setting up ip3
I0503 08:07:42.983024 19344 net.cpp:151] Top shape: 20 1 (20)
I0503 08:07:42.983028 19344 net.cpp:159] Memory required for data: 34104800
I0503 08:07:42.983033 19344 layer_factory.hpp:77] Creating layer loss
I0503 08:07:42.983042 19344 net.cpp:94] Creating Layer loss
I0503 08:07:42.983047 19344 net.cpp:435] loss <- ip3
I0503 08:07:42.983050 19344 net.cpp:435] loss <- label
I0503 08:07:42.983057 19344 net.cpp:409] loss -> loss
I0503 08:07:42.983091 19344 net.cpp:144] Setting up loss
…
