…
I0502 15:55:21.563772 11512 net.cpp:323] The NetState phase (0) differed from the phase (1) specified by a rule in layer intercept
I0502 15:55:21.563788 11512 net.cpp:323] The NetState phase (0) differed from the phase (1) specified by a rule in layer accuracy
I0502 15:55:21.563879 11512 net.cpp:52] Initializing net from parameters: 
state {
  phase: TRAIN
}
layer {
  name: "parameters"
  type: "HDF5Data"
  top: "data"
  top: "label"
  include {
    phase: TRAIN
  }
  hdf5_data_param {
    source: "/home/purduethu/scratch/radon/d/deng106/CNNStatisticalModel/distributions/input/50_distributions_400_sample_size_train-distributions-path.txt"
    batch_size: 20
  }
}
layer {
  name: "conv1"
  type: "Convolution"
  bottom: "data"
  top: "conv1"
  param {
    lr_mult: 1
  }
  param {
    lr_mult: 2
  }
  convolution_param {
    num_output: 64
    pad: 2
    kernel_size: 5
    stride: 1
    weight_filler {
      type: "gaussian"
      std: 0.0001
    }
    bias_filler {
      type: "constant"
    }
  }
}
layer {
  name: "relu1"
  type: "ReLU"
  bottom: "conv1"
  top: "conv1"
}
layer {
  name: "conv2"
  type: "Convolution"
  bottom: "conv1"
  top: "conv2"
  param {
    lr_mult: 1
  }
  param {
    lr_mult: 2
  }
  convolution_param {
    num_output: 64
    pad: 2
    kernel_size: 5
    stride: 1
    weight_filler {
      type: "gaussian"
      std: 0.01
    }
    bias_filler {
      type: "constant"
    }
  }
}
layer {
  name: "relu2"
  type: "ReLU"
  bottom: "conv2"
  top: "conv2"
}
layer {
  name: "pool2"
  type: "Pooling"
  bottom: "conv2"
  top: "pool2"
  pooling_param {
    pool: MAX
    kernel_size: 3
    stride: 2
  }
}
layer {
  name: "conv3"
  type: "Convolution"
  bottom: "pool2"
  top: "conv3"
  param {
    lr_mult: 1
  }
  param {
    lr_mult: 2
  }
  convolution_param {
    num_output: 64
    pad: 2
    kernel_size: 5
    stride: 1
    weight_filler {
      type: "gaussian"
      std: 0.01
    }
    bias_filler {
      type: "constant"
    }
  }
}
layer {
  name: "relu3"
  type: "ReLU"
  bottom: "conv3"
  top: "conv3"
}
layer {
  name: "conv4"
  type: "Convolution"
  bottom: "conv3"
  top: "conv4"
  param {
    lr_mult: 1
  }
  param {
    lr_mult: 2
  }
  convolution_param {
    num_output: 64
    pad: 2
    kernel_size: 5
    stride: 1
    weight_filler {
      type: "gaussian"
      std: 0.01
    }
    bias_filler {
      type: "constant"
    }
  }
}
layer {
  name: "relu4"
  type: "ReLU"
  bottom: "conv4"
  top: "conv4"
}
layer {
  name: "conv5"
  type: "Convolution"
  bottom: "conv4"
  top: "conv5"
  param {
    lr_mult: 1
  }
  param {
    lr_mult: 2
  }
  convolution_param {
    num_output: 64
    pad: 2
    kernel_size: 5
    stride: 1
    weight_filler {
      type: "gaussian"
      std: 0.01
    }
    bias_filler {
      type: "constant"
    }
  }
}
layer {
  name: "relu5"
  type: "ReLU"
  bottom: "conv5"
  top: "conv5"
}
layer {
  name: "pool5"
  type: "Pooling"
  bottom: "conv5"
  top: "pool5"
  pooling_param {
    pool: AVE
    kernel_size: 3
    stride: 2
  }
}
layer {
  name: "ip1"
  type: "InnerProduct"
  bottom: "pool5"
  top: "ip1"
  param {
    lr_mult: 1
  }
  param {
    lr_mult: 2
  }
  inner_product_param {
    num_output: 64
    weight_filler {
      type: "gaussian"
      std: 0.1
    }
    bias_filler {
      type: "constant"
    }
  }
}
layer {
  name: "ip2"
  type: "InnerProduct"
  bottom: "ip1"
  top: "ip2"
  param {
    lr_mult: 1
  }
  param {
    lr_mult: 2
  }
  inner_product_param {
    num_output: 64
    weight_filler {
      type: "gaussian"
      std: 0.1
    }
    bias_filler {
      type: "constant"
    }
  }
}
layer {
  name: "ip3"
  type: "InnerProduct"
  bottom: "ip2"
  top: "ip3"
  param {
    lr_mult: 1
  }
  param {
    lr_mult: 2
  }
  inner_product_param {
    num_output: 50
    weight_filler {
      type: "gaussian"
      std: 0.1
    }
    bias_filler {
      type: "constant"
    }
  }
}
layer {
  name: "loss"
  type: "SoftmaxWithLoss"
  bottom: "ip3"
  bottom: "label"
  top: "loss"
}
I0502 15:55:21.563956 11512 layer_factory.hpp:77] Creating layer parameters
I0502 15:55:21.563971 11512 net.cpp:94] Creating Layer parameters
I0502 15:55:21.563977 11512 net.cpp:409] parameters -> data
I0502 15:55:21.563995 11512 net.cpp:409] parameters -> label
I0502 15:55:21.564004 11512 hdf5_data_layer.cpp:79] Loading list of HDF5 filenames from: /home/purduethu/scratch/radon/d/deng106/CNNStatisticalModel/distributions/input/50_distributions_400_sample_size_train-distributions-path.txt
I0502 15:55:21.564026 11512 hdf5_data_layer.cpp:93] Number of HDF5 files: 1
I0502 15:55:21.564507 11512 hdf5.cpp:32] Datatype class: H5T_FLOAT
I0502 15:55:22.209978 11512 hdf5.cpp:35] Datatype class: H5T_INTEGER
I0502 15:55:22.212581 11512 net.cpp:144] Setting up parameters
I0502 15:55:22.212600 11512 net.cpp:151] Top shape: 20 1 20 20 (8000)
I0502 15:55:22.212606 11512 net.cpp:151] Top shape: 20 (20)
I0502 15:55:22.212610 11512 net.cpp:159] Memory required for data: 32080
I0502 15:55:22.212616 11512 layer_factory.hpp:77] Creating layer conv1
I0502 15:55:22.212636 11512 net.cpp:94] Creating Layer conv1
I0502 15:55:22.212641 11512 net.cpp:435] conv1 <- data
I0502 15:55:22.212652 11512 net.cpp:409] conv1 -> conv1
I0502 15:55:22.218628 11512 net.cpp:144] Setting up conv1
I0502 15:55:22.218646 11512 net.cpp:151] Top shape: 20 64 20 20 (512000)
I0502 15:55:22.218649 11512 net.cpp:159] Memory required for data: 2080080
I0502 15:55:22.218662 11512 layer_factory.hpp:77] Creating layer relu1
I0502 15:55:22.218669 11512 net.cpp:94] Creating Layer relu1
I0502 15:55:22.218673 11512 net.cpp:435] relu1 <- conv1
I0502 15:55:22.218677 11512 net.cpp:396] relu1 -> conv1 (in-place)
I0502 15:55:22.218688 11512 net.cpp:144] Setting up relu1
I0502 15:55:22.218693 11512 net.cpp:151] Top shape: 20 64 20 20 (512000)
I0502 15:55:22.218696 11512 net.cpp:159] Memory required for data: 4128080
I0502 15:55:22.218700 11512 layer_factory.hpp:77] Creating layer conv2
I0502 15:55:22.218708 11512 net.cpp:94] Creating Layer conv2
I0502 15:55:22.218711 11512 net.cpp:435] conv2 <- conv1
I0502 15:55:22.218716 11512 net.cpp:409] conv2 -> conv2
I0502 15:55:22.233624 11512 net.cpp:144] Setting up conv2
I0502 15:55:22.233640 11512 net.cpp:151] Top shape: 20 64 20 20 (512000)
I0502 15:55:22.233644 11512 net.cpp:159] Memory required for data: 6176080
I0502 15:55:22.233652 11512 layer_factory.hpp:77] Creating layer relu2
I0502 15:55:22.233659 11512 net.cpp:94] Creating Layer relu2
I0502 15:55:22.233664 11512 net.cpp:435] relu2 <- conv2
I0502 15:55:22.233667 11512 net.cpp:396] relu2 -> conv2 (in-place)
I0502 15:55:22.233675 11512 net.cpp:144] Setting up relu2
I0502 15:55:22.233680 11512 net.cpp:151] Top shape: 20 64 20 20 (512000)
I0502 15:55:22.233682 11512 net.cpp:159] Memory required for data: 8224080
I0502 15:55:22.233685 11512 layer_factory.hpp:77] Creating layer pool2
I0502 15:55:22.233700 11512 net.cpp:94] Creating Layer pool2
I0502 15:55:22.233703 11512 net.cpp:435] pool2 <- conv2
I0502 15:55:22.233708 11512 net.cpp:409] pool2 -> pool2
I0502 15:55:22.233750 11512 net.cpp:144] Setting up pool2
I0502 15:55:22.233758 11512 net.cpp:151] Top shape: 20 64 10 10 (128000)
I0502 15:55:22.233762 11512 net.cpp:159] Memory required for data: 8736080
I0502 15:55:22.233764 11512 layer_factory.hpp:77] Creating layer conv3
I0502 15:55:22.233772 11512 net.cpp:94] Creating Layer conv3
I0502 15:55:22.233775 11512 net.cpp:435] conv3 <- pool2
I0502 15:55:22.233790 11512 net.cpp:409] conv3 -> conv3
I0502 15:55:22.239485 11512 net.cpp:144] Setting up conv3
I0502 15:55:22.239500 11512 net.cpp:151] Top shape: 20 64 10 10 (128000)
I0502 15:55:22.239504 11512 net.cpp:159] Memory required for data: 9248080
I0502 15:55:22.239513 11512 layer_factory.hpp:77] Creating layer relu3
I0502 15:55:22.239519 11512 net.cpp:94] Creating Layer relu3
I0502 15:55:22.239523 11512 net.cpp:435] relu3 <- conv3
I0502 15:55:22.239527 11512 net.cpp:396] relu3 -> conv3 (in-place)
I0502 15:55:22.239536 11512 net.cpp:144] Setting up relu3
I0502 15:55:22.239539 11512 net.cpp:151] Top shape: 20 64 10 10 (128000)
I0502 15:55:22.239542 11512 net.cpp:159] Memory required for data: 9760080
I0502 15:55:22.239545 11512 layer_factory.hpp:77] Creating layer conv4
I0502 15:55:22.239554 11512 net.cpp:94] Creating Layer conv4
I0502 15:55:22.239558 11512 net.cpp:435] conv4 <- conv3
I0502 15:55:22.239563 11512 net.cpp:409] conv4 -> conv4
I0502 15:55:22.245422 11512 net.cpp:144] Setting up conv4
I0502 15:55:22.245436 11512 net.cpp:151] Top shape: 20 64 10 10 (128000)
I0502 15:55:22.245440 11512 net.cpp:159] Memory required for data: 10272080
I0502 15:55:22.245446 11512 layer_factory.hpp:77] Creating layer relu4
I0502 15:55:22.245453 11512 net.cpp:94] Creating Layer relu4
I0502 15:55:22.245456 11512 net.cpp:435] relu4 <- conv4
I0502 15:55:22.245461 11512 net.cpp:396] relu4 -> conv4 (in-place)
I0502 15:55:22.245468 11512 net.cpp:144] Setting up relu4
I0502 15:55:22.245473 11512 net.cpp:151] Top shape: 20 64 10 10 (128000)
I0502 15:55:22.245476 11512 net.cpp:159] Memory required for data: 10784080
I0502 15:55:22.245479 11512 layer_factory.hpp:77] Creating layer conv5
I0502 15:55:22.245487 11512 net.cpp:94] Creating Layer conv5
I0502 15:55:22.245491 11512 net.cpp:435] conv5 <- conv4
I0502 15:55:22.245496 11512 net.cpp:409] conv5 -> conv5
I0502 15:55:22.251386 11512 net.cpp:144] Setting up conv5
I0502 15:55:22.251400 11512 net.cpp:151] Top shape: 20 64 10 10 (128000)
I0502 15:55:22.251405 11512 net.cpp:159] Memory required for data: 11296080
I0502 15:55:22.251412 11512 layer_factory.hpp:77] Creating layer relu5
I0502 15:55:22.251418 11512 net.cpp:94] Creating Layer relu5
I0502 15:55:22.251422 11512 net.cpp:435] relu5 <- conv5
I0502 15:55:22.251426 11512 net.cpp:396] relu5 -> conv5 (in-place)
I0502 15:55:22.251433 11512 net.cpp:144] Setting up relu5
I0502 15:55:22.251438 11512 net.cpp:151] Top shape: 20 64 10 10 (128000)
I0502 15:55:22.251441 11512 net.cpp:159] Memory required for data: 11808080
I0502 15:55:22.251444 11512 layer_factory.hpp:77] Creating layer pool5
I0502 15:55:22.251449 11512 net.cpp:94] Creating Layer pool5
I0502 15:55:22.251452 11512 net.cpp:435] pool5 <- conv5
I0502 15:55:22.251456 11512 net.cpp:409] pool5 -> pool5
I0502 15:55:22.251489 11512 net.cpp:144] Setting up pool5
I0502 15:55:22.251497 11512 net.cpp:151] Top shape: 20 64 5 5 (32000)
I0502 15:55:22.251500 11512 net.cpp:159] Memory required for data: 11936080
I0502 15:55:22.251503 11512 layer_factory.hpp:77] Creating layer ip1
I0502 15:55:22.251513 11512 net.cpp:94] Creating Layer ip1
I0502 15:55:22.251516 11512 net.cpp:435] ip1 <- pool5
I0502 15:55:22.251520 11512 net.cpp:409] ip1 -> ip1
I0502 15:55:22.254017 11512 net.cpp:144] Setting up ip1
I0502 15:55:22.254025 11512 net.cpp:151] Top shape: 20 64 (1280)
I0502 15:55:22.254029 11512 net.cpp:159] Memory required for data: 11941200
I0502 15:55:22.254034 11512 layer_factory.hpp:77] Creating layer ip2
I0502 15:55:22.254045 11512 net.cpp:94] Creating Layer ip2
I0502 15:55:22.254048 11512 net.cpp:435] ip2 <- ip1
I0502 15:55:22.254053 11512 net.cpp:409] ip2 -> ip2
I0502 15:55:22.254220 11512 net.cpp:144] Setting up ip2
I0502 15:55:22.254225 11512 net.cpp:151] Top shape: 20 64 (1280)
I0502 15:55:22.254228 11512 net.cpp:159] Memory required for data: 11946320
I0502 15:55:22.254233 11512 layer_factory.hpp:77] Creating layer ip3
I0502 15:55:22.254240 11512 net.cpp:94] Creating Layer ip3
I0502 15:55:22.254242 11512 net.cpp:435] ip3 <- ip2
I0502 15:55:22.254247 11512 net.cpp:409] ip3 -> ip3
I0502 15:55:22.254395 11512 net.cpp:144] Setting up ip3
I0502 15:55:22.254400 11512 net.cpp:151] Top shape: 20 50 (1000)
I0502 15:55:22.254405 11512 net.cpp:159] Memory required for data: 11950320
I0502 15:55:22.254408 11512 layer_factory.hpp:77] Creating layer loss
I0502 15:55:22.254415 11512 net.cpp:94] Creating Layer loss
I0502 15:55:22.254420 11512 net.cpp:435] loss <- ip3
I0502 15:55:22.254422 11512 net.cpp:435] loss <- label
I0502 15:55:22.254428 11512 net.cpp:409] loss -> loss
I0502 15:55:22.254437 11512 layer_factory.hpp:77] Creating layer loss
…
I0502 15:55:22.254928 11512 solver.cpp:181] Creating test net (#0) specified by net file: ./protocol/dis_50_400_dimension.protocol_distribution
I0502 15:55:22.254956 11512 net.cpp:323] The NetState phase (1) differed from the phase (0) specified by a rule in layer parameters
I0502 15:55:22.255051 11512 net.cpp:52] Initializing net from parameters: 
state {
  phase: TEST
}
layer {
  name: "intercept"
  type: "HDF5Data"
  top: "data"
  top: "label"
  include {
    phase: TEST
  }
  hdf5_data_param {
    source: "/home/purduethu/scratch/radon/d/deng106/CNNStatisticalModel/distributions/input/50_distributions_400_sample_size_test-distributions-path.txt"
    batch_size: 20
  }
}
layer {
  name: "conv1"
  type: "Convolution"
  bottom: "data"
  top: "conv1"
  param {
    lr_mult: 1
  }
  param {
    lr_mult: 2
  }
  convolution_param {
    num_output: 64
    pad: 2
    kernel_size: 5
    stride: 1
    weight_filler {
      type: "gaussian"
      std: 0.0001
    }
    bias_filler {
      type: "constant"
    }
  }
}
layer {
  name: "relu1"
  type: "ReLU"
  bottom: "conv1"
  top: "conv1"
}
layer {
  name: "conv2"
  type: "Convolution"
  bottom: "conv1"
  top: "conv2"
  param {
    lr_mult: 1
  }
  param {
    lr_mult: 2
  }
  convolution_param {
    num_output: 64
    pad: 2
    kernel_size: 5
    stride: 1
    weight_filler {
      type: "gaussian"
      std: 0.01
    }
    bias_filler {
      type: "constant"
    }
  }
}
layer {
  name: "relu2"
  type: "ReLU"
  bottom: "conv2"
  top: "conv2"
}
layer {
  name: "pool2"
  type: "Pooling"
  bottom: "conv2"
  top: "pool2"
  pooling_param {
    pool: MAX
    kernel_size: 3
    stride: 2
  }
}
layer {
  name: "conv3"
  type: "Convolution"
  bottom: "pool2"
  top: "conv3"
  param {
    lr_mult: 1
  }
  param {
    lr_mult: 2
  }
  convolution_param {
    num_output: 64
    pad: 2
    kernel_size: 5
    stride: 1
    weight_filler {
      type: "gaussian"
      std: 0.01
    }
    bias_filler {
      type: "constant"
    }
  }
}
layer {
  name: "relu3"
  type: "ReLU"
  bottom: "conv3"
  top: "conv3"
}
layer {
  name: "conv4"
  type: "Convolution"
  bottom: "conv3"
  top: "conv4"
  param {
    lr_mult: 1
  }
  param {
    lr_mult: 2
  }
  convolution_param {
    num_output: 64
    pad: 2
    kernel_size: 5
    stride: 1
    weight_filler {
      type: "gaussian"
      std: 0.01
    }
    bias_filler {
      type: "constant"
    }
  }
}
layer {
  name: "relu4"
  type: "ReLU"
  bottom: "conv4"
  top: "conv4"
}
layer {
  name: "conv5"
  type: "Convolution"
  bottom: "conv4"
  top: "conv5"
  param {
    lr_mult: 1
  }
  param {
    lr_mult: 2
  }
  convolution_param {
    num_output: 64
    pad: 2
    kernel_size: 5
    stride: 1
    weight_filler {
      type: "gaussian"
      std: 0.01
    }
    bias_filler {
      type: "constant"
    }
  }
}
layer {
  name: "relu5"
  type: "ReLU"
  bottom: "conv5"
  top: "conv5"
}
layer {
  name: "pool5"
  type: "Pooling"
  bottom: "conv5"
  top: "pool5"
  pooling_param {
    pool: AVE
    kernel_size: 3
    stride: 2
  }
}
layer {
  name: "ip1"
  type: "InnerProduct"
  bottom: "pool5"
  top: "ip1"
  param {
    lr_mult: 1
  }
  param {
    lr_mult: 2
  }
  inner_product_param {
    num_output: 64
    weight_filler {
      type: "gaussian"
      std: 0.1
    }
    bias_filler {
      type: "constant"
    }
  }
}
layer {
  name: "ip2"
  type: "InnerProduct"
  bottom: "ip1"
  top: "ip2"
  param {
    lr_mult: 1
  }
  param {
    lr_mult: 2
  }
  inner_product_param {
    num_output: 64
    weight_filler {
      type: "gaussian"
      std: 0.1
    }
    bias_filler {
      type: "constant"
    }
  }
}
layer {
  name: "ip3"
  type: "InnerProduct"
  bottom: "ip2"
  top: "ip3"
  param {
    lr_mult: 1
  }
  param {
    lr_mult: 2
  }
  inner_product_param {
    num_output: 50
    weight_filler {
      type: "gaussian"
      std: 0.1
    }
    bias_filler {
      type: "constant"
    }
  }
}
layer {
  name: "accuracy"
  type: "Accuracy"
  bottom: "ip3"
  bottom: "label"
  top: "accuracy"
  include {
    phase: TEST
  }
}
layer {
  name: "loss"
  type: "SoftmaxWithLoss"
  bottom: "ip3"
  bottom: "label"
  top: "loss"
}
I0502 15:55:22.255123 11512 layer_factory.hpp:77] Creating layer intercept
I0502 15:55:22.255131 11512 net.cpp:94] Creating Layer intercept
I0502 15:55:22.255136 11512 net.cpp:409] intercept -> data
I0502 15:55:22.255142 11512 net.cpp:409] intercept -> label
I0502 15:55:22.255148 11512 hdf5_data_layer.cpp:79] Loading list of HDF5 filenames from: /home/purduethu/scratch/radon/d/deng106/CNNStatisticalModel/distributions/input/50_distributions_400_sample_size_test-distributions-path.txt
I0502 15:55:22.255167 11512 hdf5_data_layer.cpp:93] Number of HDF5 files: 1
I0502 15:55:22.419193 11512 net.cpp:144] Setting up intercept
I0502 15:55:22.419224 11512 net.cpp:151] Top shape: 20 1 20 20 (8000)
I0502 15:55:22.419229 11512 net.cpp:151] Top shape: 20 (20)
I0502 15:55:22.419232 11512 net.cpp:159] Memory required for data: 32080
I0502 15:55:22.419239 11512 layer_factory.hpp:77] Creating layer label_intercept_1_split
I0502 15:55:22.419255 11512 net.cpp:94] Creating Layer label_intercept_1_split
I0502 15:55:22.419260 11512 net.cpp:435] label_intercept_1_split <- label
I0502 15:55:22.419265 11512 net.cpp:409] label_intercept_1_split -> label_intercept_1_split_0
I0502 15:55:22.419273 11512 net.cpp:409] label_intercept_1_split -> label_intercept_1_split_1
I0502 15:55:22.419306 11512 net.cpp:144] Setting up label_intercept_1_split
I0502 15:55:22.419313 11512 net.cpp:151] Top shape: 20 (20)
I0502 15:55:22.419317 11512 net.cpp:151] Top shape: 20 (20)
I0502 15:55:22.419319 11512 net.cpp:159] Memory required for data: 32240
I0502 15:55:22.419323 11512 layer_factory.hpp:77] Creating layer conv1
I0502 15:55:22.419333 11512 net.cpp:94] Creating Layer conv1
I0502 15:55:22.419337 11512 net.cpp:435] conv1 <- data
I0502 15:55:22.419342 11512 net.cpp:409] conv1 -> conv1
I0502 15:55:22.421890 11512 net.cpp:144] Setting up conv1
I0502 15:55:22.421912 11512 net.cpp:151] Top shape: 20 64 20 20 (512000)
I0502 15:55:22.421916 11512 net.cpp:159] Memory required for data: 2080240
I0502 15:55:22.421926 11512 layer_factory.hpp:77] Creating layer relu1
I0502 15:55:22.421933 11512 net.cpp:94] Creating Layer relu1
I0502 15:55:22.421936 11512 net.cpp:435] relu1 <- conv1
I0502 15:55:22.421941 11512 net.cpp:396] relu1 -> conv1 (in-place)
I0502 15:55:22.421948 11512 net.cpp:144] Setting up relu1
I0502 15:55:22.421953 11512 net.cpp:151] Top shape: 20 64 20 20 (512000)
I0502 15:55:22.421957 11512 net.cpp:159] Memory required for data: 4128240
I0502 15:55:22.421959 11512 layer_factory.hpp:77] Creating layer conv2
I0502 15:55:22.421967 11512 net.cpp:94] Creating Layer conv2
I0502 15:55:22.421972 11512 net.cpp:435] conv2 <- conv1
I0502 15:55:22.421977 11512 net.cpp:409] conv2 -> conv2
I0502 15:55:22.427096 11512 net.cpp:144] Setting up conv2
I0502 15:55:22.427121 11512 net.cpp:151] Top shape: 20 64 20 20 (512000)
I0502 15:55:22.427129 11512 net.cpp:159] Memory required for data: 6176240
I0502 15:55:22.427144 11512 layer_factory.hpp:77] Creating layer relu2
I0502 15:55:22.427155 11512 net.cpp:94] Creating Layer relu2
I0502 15:55:22.427161 11512 net.cpp:435] relu2 <- conv2
I0502 15:55:22.427170 11512 net.cpp:396] relu2 -> conv2 (in-place)
I0502 15:55:22.427183 11512 net.cpp:144] Setting up relu2
I0502 15:55:22.427192 11512 net.cpp:151] Top shape: 20 64 20 20 (512000)
I0502 15:55:22.427198 11512 net.cpp:159] Memory required for data: 8224240
I0502 15:55:22.427203 11512 layer_factory.hpp:77] Creating layer pool2
I0502 15:55:22.427214 11512 net.cpp:94] Creating Layer pool2
I0502 15:55:22.427220 11512 net.cpp:435] pool2 <- conv2
I0502 15:55:22.427229 11512 net.cpp:409] pool2 -> pool2
I0502 15:55:22.427289 11512 net.cpp:144] Setting up pool2
I0502 15:55:22.427300 11512 net.cpp:151] Top shape: 20 64 10 10 (128000)
I0502 15:55:22.427306 11512 net.cpp:159] Memory required for data: 8736240
I0502 15:55:22.427312 11512 layer_factory.hpp:77] Creating layer conv3
I0502 15:55:22.427326 11512 net.cpp:94] Creating Layer conv3
I0502 15:55:22.427333 11512 net.cpp:435] conv3 <- pool2
I0502 15:55:22.427343 11512 net.cpp:409] conv3 -> conv3
I0502 15:55:22.431638 11512 net.cpp:144] Setting up conv3
I0502 15:55:22.431653 11512 net.cpp:151] Top shape: 20 64 10 10 (128000)
I0502 15:55:22.431656 11512 net.cpp:159] Memory required for data: 9248240
I0502 15:55:22.431664 11512 layer_factory.hpp:77] Creating layer relu3
I0502 15:55:22.431671 11512 net.cpp:94] Creating Layer relu3
I0502 15:55:22.431675 11512 net.cpp:435] relu3 <- conv3
I0502 15:55:22.431679 11512 net.cpp:396] relu3 -> conv3 (in-place)
I0502 15:55:22.431686 11512 net.cpp:144] Setting up relu3
I0502 15:55:22.431690 11512 net.cpp:151] Top shape: 20 64 10 10 (128000)
I0502 15:55:22.431694 11512 net.cpp:159] Memory required for data: 9760240
I0502 15:55:22.431696 11512 layer_factory.hpp:77] Creating layer conv4
I0502 15:55:22.431704 11512 net.cpp:94] Creating Layer conv4
I0502 15:55:22.431707 11512 net.cpp:435] conv4 <- conv3
I0502 15:55:22.431712 11512 net.cpp:409] conv4 -> conv4
I0502 15:55:22.435422 11512 net.cpp:144] Setting up conv4
I0502 15:55:22.435436 11512 net.cpp:151] Top shape: 20 64 10 10 (128000)
I0502 15:55:22.435439 11512 net.cpp:159] Memory required for data: 10272240
I0502 15:55:22.435446 11512 layer_factory.hpp:77] Creating layer relu4
I0502 15:55:22.435451 11512 net.cpp:94] Creating Layer relu4
I0502 15:55:22.435458 11512 net.cpp:435] relu4 <- conv4
I0502 15:55:22.435463 11512 net.cpp:396] relu4 -> conv4 (in-place)
I0502 15:55:22.435470 11512 net.cpp:144] Setting up relu4
I0502 15:55:22.435474 11512 net.cpp:151] Top shape: 20 64 10 10 (128000)
I0502 15:55:22.435477 11512 net.cpp:159] Memory required for data: 10784240
I0502 15:55:22.435482 11512 layer_factory.hpp:77] Creating layer conv5
I0502 15:55:22.435488 11512 net.cpp:94] Creating Layer conv5
I0502 15:55:22.435492 11512 net.cpp:435] conv5 <- conv4
I0502 15:55:22.435497 11512 net.cpp:409] conv5 -> conv5
I0502 15:55:22.439265 11512 net.cpp:144] Setting up conv5
I0502 15:55:22.439285 11512 net.cpp:151] Top shape: 20 64 10 10 (128000)
I0502 15:55:22.439290 11512 net.cpp:159] Memory required for data: 11296240
I0502 15:55:22.439297 11512 layer_factory.hpp:77] Creating layer relu5
I0502 15:55:22.439303 11512 net.cpp:94] Creating Layer relu5
I0502 15:55:22.439307 11512 net.cpp:435] relu5 <- conv5
I0502 15:55:22.439311 11512 net.cpp:396] relu5 -> conv5 (in-place)
I0502 15:55:22.439318 11512 net.cpp:144] Setting up relu5
I0502 15:55:22.439322 11512 net.cpp:151] Top shape: 20 64 10 10 (128000)
I0502 15:55:22.439326 11512 net.cpp:159] Memory required for data: 11808240
I0502 15:55:22.439329 11512 layer_factory.hpp:77] Creating layer pool5
I0502 15:55:22.439334 11512 net.cpp:94] Creating Layer pool5
I0502 15:55:22.439337 11512 net.cpp:435] pool5 <- conv5
I0502 15:55:22.439342 11512 net.cpp:409] pool5 -> pool5
I0502 15:55:22.439366 11512 net.cpp:144] Setting up pool5
I0502 15:55:22.439373 11512 net.cpp:151] Top shape: 20 64 5 5 (32000)
I0502 15:55:22.439375 11512 net.cpp:159] Memory required for data: 11936240
I0502 15:55:22.439378 11512 layer_factory.hpp:77] Creating layer ip1
I0502 15:55:22.439385 11512 net.cpp:94] Creating Layer ip1
I0502 15:55:22.439388 11512 net.cpp:435] ip1 <- pool5
I0502 15:55:22.439393 11512 net.cpp:409] ip1 -> ip1
I0502 15:55:22.443580 11512 net.cpp:144] Setting up ip1
I0502 15:55:22.443595 11512 net.cpp:151] Top shape: 20 64 (1280)
I0502 15:55:22.443599 11512 net.cpp:159] Memory required for data: 11941360
I0502 15:55:22.443605 11512 layer_factory.hpp:77] Creating layer ip2
I0502 15:55:22.443612 11512 net.cpp:94] Creating Layer ip2
I0502 15:55:22.443616 11512 net.cpp:435] ip2 <- ip1
I0502 15:55:22.443622 11512 net.cpp:409] ip2 -> ip2
I0502 15:55:22.443794 11512 net.cpp:144] Setting up ip2
I0502 15:55:22.443801 11512 net.cpp:151] Top shape: 20 64 (1280)
I0502 15:55:22.443804 11512 net.cpp:159] Memory required for data: 11946480
I0502 15:55:22.443809 11512 layer_factory.hpp:77] Creating layer ip3
I0502 15:55:22.443816 11512 net.cpp:94] Creating Layer ip3
I0502 15:55:22.443819 11512 net.cpp:435] ip3 <- ip2
I0502 15:55:22.443825 11512 net.cpp:409] ip3 -> ip3
I0502 15:55:22.443969 11512 net.cpp:144] Setting up ip3
I0502 15:55:22.443975 11512 net.cpp:151] Top shape: 20 50 (1000)
I0502 15:55:22.443979 11512 net.cpp:159] Memory required for data: 11950480
I0502 15:55:22.443984 11512 layer_factory.hpp:77] Creating layer ip3_ip3_0_split
I0502 15:55:22.443989 11512 net.cpp:94] Creating Layer ip3_ip3_0_split
I0502 15:55:22.443991 11512 net.cpp:435] ip3_ip3_0_split <- ip3
I0502 15:55:22.443996 11512 net.cpp:409] ip3_ip3_0_split -> ip3_ip3_0_split_0
I0502 15:55:22.444001 11512 net.cpp:409] ip3_ip3_0_split -> ip3_ip3_0_split_1
I0502 15:55:22.444025 11512 net.cpp:144] Setting up ip3_ip3_0_split
I0502 15:55:22.444031 11512 net.cpp:151] Top shape: 20 50 (1000)
I0502 15:55:22.444034 11512 net.cpp:151] Top shape: 20 50 (1000)
I0502 15:55:22.444037 11512 net.cpp:159] Memory required for data: 11958480
I0502 15:55:22.444041 11512 layer_factory.hpp:77] Creating layer accuracy
I0502 15:55:22.444046 11512 net.cpp:94] Creating Layer accuracy
I0502 15:55:22.444049 11512 net.cpp:435] accuracy <- ip3_ip3_0_split_0
I0502 15:55:22.444052 11512 net.cpp:435] accuracy <- label_intercept_1_split_0
I0502 15:55:22.444057 11512 net.cpp:409] accuracy -> accuracy
…
