…
I0507 12:27:23.812512  1566 net.cpp:323] The NetState phase (0) differed from the phase (1) specified by a rule in layer intercept
I0507 12:27:23.812527  1566 net.cpp:323] The NetState phase (0) differed from the phase (1) specified by a rule in layer loss
I0507 12:27:23.812624  1566 net.cpp:52] Initializing net from parameters: 
state {
  phase: TRAIN
}
layer {
  name: "parameters"
  type: "HDF5Data"
  top: "data"
  top: "label"
  include {
    phase: TRAIN
  }
  hdf5_data_param {
    source: "/home/purduethu/scratch/radon/d/deng106/CNNStatisticalModel/distributions/input/20_distributions_400_sample_size_train-parameters-path.txt"
    batch_size: 20
  }
}
layer {
  name: "conv1"
  type: "Convolution"
  bottom: "data"
  top: "conv1"
  param {
    lr_mult: 1
  }
  param {
    lr_mult: 2
  }
  convolution_param {
    num_output: 64
    pad: 2
    kernel_size: 5
    stride: 1
    weight_filler {
      type: "gaussian"
      std: 0.0001
    }
    bias_filler {
      type: "constant"
    }
  }
}
layer {
  name: "relu1"
  type: "ReLU"
  bottom: "conv1"
  top: "conv1"
}
layer {
  name: "conv2"
  type: "Convolution"
  bottom: "conv1"
  top: "conv2"
  param {
    lr_mult: 1
  }
  param {
    lr_mult: 2
  }
  convolution_param {
    num_output: 64
    pad: 2
    kernel_size: 5
    stride: 1
    weight_filler {
      type: "gaussian"
      std: 0.01
    }
    bias_filler {
      type: "constant"
    }
  }
}
layer {
  name: "relu2"
  type: "ReLU"
  bottom: "conv2"
  top: "conv2"
}
layer {
  name: "pool2"
  type: "Pooling"
  bottom: "conv2"
  top: "pool2"
  pooling_param {
    pool: MAX
    kernel_size: 3
    stride: 2
  }
}
layer {
  name: "conv3"
  type: "Convolution"
  bottom: "pool2"
  top: "conv3"
  param {
    lr_mult: 1
  }
  param {
    lr_mult: 2
  }
  convolution_param {
    num_output: 64
    pad: 2
    kernel_size: 5
    stride: 1
    weight_filler {
      type: "gaussian"
      std: 0.01
    }
    bias_filler {
      type: "constant"
    }
  }
}
layer {
  name: "relu3"
  type: "ReLU"
  bottom: "conv3"
  top: "conv3"
}
layer {
  name: "conv4"
  type: "Convolution"
  bottom: "conv3"
  top: "conv4"
  param {
    lr_mult: 1
  }
  param {
    lr_mult: 2
  }
  convolution_param {
    num_output: 64
    pad: 2
    kernel_size: 5
    stride: 1
    weight_filler {
      type: "gaussian"
      std: 0.01
    }
    bias_filler {
      type: "constant"
    }
  }
}
layer {
  name: "relu4"
  type: "ReLU"
  bottom: "conv4"
  top: "conv4"
}
layer {
  name: "conv5"
  type: "Convolution"
  bottom: "conv4"
  top: "conv5"
  param {
    lr_mult: 1
  }
  param {
    lr_mult: 2
  }
  convolution_param {
    num_output: 64
    pad: 2
    kernel_size: 5
    stride: 1
    weight_filler {
      type: "gaussian"
      std: 0.01
    }
    bias_filler {
      type: "constant"
    }
  }
}
layer {
  name: "relu5"
  type: "ReLU"
  bottom: "conv5"
  top: "conv5"
}
layer {
  name: "pool5"
  type: "Pooling"
  bottom: "conv5"
  top: "pool5"
  pooling_param {
    pool: AVE
    kernel_size: 3
    stride: 2
  }
}
layer {
  name: "ip1"
  type: "InnerProduct"
  bottom: "pool5"
  top: "ip1"
  param {
    lr_mult: 1
  }
  param {
    lr_mult: 2
  }
  inner_product_param {
    num_output: 64
    weight_filler {
      type: "gaussian"
      std: 0.1
    }
    bias_filler {
      type: "constant"
    }
  }
}
layer {
  name: "ip2"
  type: "InnerProduct"
  bottom: "ip1"
  top: "ip2"
  param {
    lr_mult: 1
  }
  param {
    lr_mult: 2
  }
  inner_product_param {
    num_output: 64
    weight_filler {
      type: "gaussian"
      std: 0.1
    }
    bias_filler {
      type: "constant"
    }
  }
}
layer {
  name: "ip3"
  type: "InnerProduct"
  bottom: "ip2"
  top: "ip3"
  param {
    lr_mult: 1
  }
  param {
    lr_mult: 2
  }
  inner_product_param {
    num_output: 1
    weight_filler {
      type: "gaussian"
      std: 0.1
    }
    bias_filler {
      type: "constant"
    }
  }
}
layer {
  name: "loss"
  type: "HuberLoss"
  bottom: "ip3"
  bottom: "label"
  top: "loss"
  include {
    phase: TRAIN
  }
}
I0507 12:27:23.812680  1566 layer_factory.hpp:77] Creating layer parameters
I0507 12:27:23.812693  1566 net.cpp:94] Creating Layer parameters
I0507 12:27:23.812698  1566 net.cpp:409] parameters -> data
I0507 12:27:23.812706  1566 net.cpp:409] parameters -> label
I0507 12:27:23.812717  1566 hdf5_data_layer.cpp:79] Loading list of HDF5 filenames from: /home/purduethu/scratch/radon/d/deng106/CNNStatisticalModel/distributions/input/20_distributions_400_sample_size_train-parameters-path.txt
I0507 12:27:23.812733  1566 hdf5_data_layer.cpp:93] Number of HDF5 files: 1
I0507 12:27:23.813256  1566 hdf5.cpp:32] Datatype class: H5T_FLOAT
I0507 12:27:24.070628  1566 net.cpp:144] Setting up parameters
I0507 12:27:24.070659  1566 net.cpp:151] Top shape: 20 1 20 20 (8000)
I0507 12:27:24.070664  1566 net.cpp:151] Top shape: 20 (20)
I0507 12:27:24.070667  1566 net.cpp:159] Memory required for data: 32080
I0507 12:27:24.070674  1566 layer_factory.hpp:77] Creating layer conv1
I0507 12:27:24.070695  1566 net.cpp:94] Creating Layer conv1
I0507 12:27:24.070699  1566 net.cpp:435] conv1 <- data
I0507 12:27:24.070706  1566 net.cpp:409] conv1 -> conv1
I0507 12:27:24.075986  1566 net.cpp:144] Setting up conv1
I0507 12:27:24.076001  1566 net.cpp:151] Top shape: 20 64 20 20 (512000)
I0507 12:27:24.076004  1566 net.cpp:159] Memory required for data: 2080080
I0507 12:27:24.076015  1566 layer_factory.hpp:77] Creating layer relu1
I0507 12:27:24.076023  1566 net.cpp:94] Creating Layer relu1
I0507 12:27:24.076027  1566 net.cpp:435] relu1 <- conv1
I0507 12:27:24.076031  1566 net.cpp:396] relu1 -> conv1 (in-place)
I0507 12:27:24.076042  1566 net.cpp:144] Setting up relu1
I0507 12:27:24.076047  1566 net.cpp:151] Top shape: 20 64 20 20 (512000)
I0507 12:27:24.076050  1566 net.cpp:159] Memory required for data: 4128080
I0507 12:27:24.076053  1566 layer_factory.hpp:77] Creating layer conv2
I0507 12:27:24.076061  1566 net.cpp:94] Creating Layer conv2
I0507 12:27:24.076064  1566 net.cpp:435] conv2 <- conv1
I0507 12:27:24.076069  1566 net.cpp:409] conv2 -> conv2
I0507 12:27:24.086323  1566 net.cpp:144] Setting up conv2
I0507 12:27:24.086338  1566 net.cpp:151] Top shape: 20 64 20 20 (512000)
I0507 12:27:24.086343  1566 net.cpp:159] Memory required for data: 6176080
I0507 12:27:24.086350  1566 layer_factory.hpp:77] Creating layer relu2
I0507 12:27:24.086356  1566 net.cpp:94] Creating Layer relu2
I0507 12:27:24.086360  1566 net.cpp:435] relu2 <- conv2
I0507 12:27:24.086364  1566 net.cpp:396] relu2 -> conv2 (in-place)
I0507 12:27:24.086371  1566 net.cpp:144] Setting up relu2
I0507 12:27:24.086375  1566 net.cpp:151] Top shape: 20 64 20 20 (512000)
I0507 12:27:24.086379  1566 net.cpp:159] Memory required for data: 8224080
I0507 12:27:24.086381  1566 layer_factory.hpp:77] Creating layer pool2
I0507 12:27:24.086395  1566 net.cpp:94] Creating Layer pool2
I0507 12:27:24.086398  1566 net.cpp:435] pool2 <- conv2
I0507 12:27:24.086402  1566 net.cpp:409] pool2 -> pool2
I0507 12:27:24.086458  1566 net.cpp:144] Setting up pool2
I0507 12:27:24.086467  1566 net.cpp:151] Top shape: 20 64 10 10 (128000)
I0507 12:27:24.086469  1566 net.cpp:159] Memory required for data: 8736080
I0507 12:27:24.086472  1566 layer_factory.hpp:77] Creating layer conv3
I0507 12:27:24.086480  1566 net.cpp:94] Creating Layer conv3
I0507 12:27:24.086483  1566 net.cpp:435] conv3 <- pool2
I0507 12:27:24.086488  1566 net.cpp:409] conv3 -> conv3
I0507 12:27:24.091770  1566 net.cpp:144] Setting up conv3
I0507 12:27:24.091784  1566 net.cpp:151] Top shape: 20 64 10 10 (128000)
I0507 12:27:24.091789  1566 net.cpp:159] Memory required for data: 9248080
I0507 12:27:24.091796  1566 layer_factory.hpp:77] Creating layer relu3
I0507 12:27:24.091802  1566 net.cpp:94] Creating Layer relu3
I0507 12:27:24.091806  1566 net.cpp:435] relu3 <- conv3
I0507 12:27:24.091811  1566 net.cpp:396] relu3 -> conv3 (in-place)
I0507 12:27:24.091817  1566 net.cpp:144] Setting up relu3
I0507 12:27:24.091822  1566 net.cpp:151] Top shape: 20 64 10 10 (128000)
I0507 12:27:24.091825  1566 net.cpp:159] Memory required for data: 9760080
I0507 12:27:24.091827  1566 layer_factory.hpp:77] Creating layer conv4
I0507 12:27:24.091836  1566 net.cpp:94] Creating Layer conv4
I0507 12:27:24.091840  1566 net.cpp:435] conv4 <- conv3
I0507 12:27:24.091845  1566 net.cpp:409] conv4 -> conv4
I0507 12:27:24.097128  1566 net.cpp:144] Setting up conv4
I0507 12:27:24.097142  1566 net.cpp:151] Top shape: 20 64 10 10 (128000)
I0507 12:27:24.097146  1566 net.cpp:159] Memory required for data: 10272080
I0507 12:27:24.097152  1566 layer_factory.hpp:77] Creating layer relu4
I0507 12:27:24.097158  1566 net.cpp:94] Creating Layer relu4
I0507 12:27:24.097162  1566 net.cpp:435] relu4 <- conv4
I0507 12:27:24.097167  1566 net.cpp:396] relu4 -> conv4 (in-place)
I0507 12:27:24.097173  1566 net.cpp:144] Setting up relu4
I0507 12:27:24.097177  1566 net.cpp:151] Top shape: 20 64 10 10 (128000)
I0507 12:27:24.097180  1566 net.cpp:159] Memory required for data: 10784080
I0507 12:27:24.097183  1566 layer_factory.hpp:77] Creating layer conv5
I0507 12:27:24.097190  1566 net.cpp:94] Creating Layer conv5
I0507 12:27:24.097194  1566 net.cpp:435] conv5 <- conv4
I0507 12:27:24.097199  1566 net.cpp:409] conv5 -> conv5
I0507 12:27:24.103296  1566 net.cpp:144] Setting up conv5
I0507 12:27:24.103309  1566 net.cpp:151] Top shape: 20 64 10 10 (128000)
I0507 12:27:24.103313  1566 net.cpp:159] Memory required for data: 11296080
I0507 12:27:24.103322  1566 layer_factory.hpp:77] Creating layer relu5
I0507 12:27:24.103328  1566 net.cpp:94] Creating Layer relu5
I0507 12:27:24.103332  1566 net.cpp:435] relu5 <- conv5
I0507 12:27:24.103337  1566 net.cpp:396] relu5 -> conv5 (in-place)
I0507 12:27:24.103343  1566 net.cpp:144] Setting up relu5
I0507 12:27:24.103348  1566 net.cpp:151] Top shape: 20 64 10 10 (128000)
I0507 12:27:24.103350  1566 net.cpp:159] Memory required for data: 11808080
I0507 12:27:24.103353  1566 layer_factory.hpp:77] Creating layer pool5
I0507 12:27:24.103358  1566 net.cpp:94] Creating Layer pool5
I0507 12:27:24.103360  1566 net.cpp:435] pool5 <- conv5
I0507 12:27:24.103364  1566 net.cpp:409] pool5 -> pool5
I0507 12:27:24.103405  1566 net.cpp:144] Setting up pool5
I0507 12:27:24.103412  1566 net.cpp:151] Top shape: 20 64 5 5 (32000)
I0507 12:27:24.103415  1566 net.cpp:159] Memory required for data: 11936080
I0507 12:27:24.103418  1566 layer_factory.hpp:77] Creating layer ip1
I0507 12:27:24.103427  1566 net.cpp:94] Creating Layer ip1
I0507 12:27:24.103430  1566 net.cpp:435] ip1 <- pool5
I0507 12:27:24.103435  1566 net.cpp:409] ip1 -> ip1
I0507 12:27:24.105978  1566 net.cpp:144] Setting up ip1
I0507 12:27:24.105988  1566 net.cpp:151] Top shape: 20 64 (1280)
I0507 12:27:24.105991  1566 net.cpp:159] Memory required for data: 11941200
I0507 12:27:24.105996  1566 layer_factory.hpp:77] Creating layer ip2
I0507 12:27:24.106003  1566 net.cpp:94] Creating Layer ip2
I0507 12:27:24.106010  1566 net.cpp:435] ip2 <- ip1
I0507 12:27:24.106015  1566 net.cpp:409] ip2 -> ip2
I0507 12:27:24.106231  1566 net.cpp:144] Setting up ip2
I0507 12:27:24.106238  1566 net.cpp:151] Top shape: 20 64 (1280)
I0507 12:27:24.106242  1566 net.cpp:159] Memory required for data: 11946320
I0507 12:27:24.106247  1566 layer_factory.hpp:77] Creating layer ip3
I0507 12:27:24.106252  1566 net.cpp:94] Creating Layer ip3
I0507 12:27:24.106256  1566 net.cpp:435] ip3 <- ip2
I0507 12:27:24.106261  1566 net.cpp:409] ip3 -> ip3
I0507 12:27:24.106369  1566 net.cpp:144] Setting up ip3
I0507 12:27:24.106375  1566 net.cpp:151] Top shape: 20 1 (20)
I0507 12:27:24.106379  1566 net.cpp:159] Memory required for data: 11946400
I0507 12:27:24.106384  1566 layer_factory.hpp:77] Creating layer loss
I0507 12:27:24.106395  1566 net.cpp:94] Creating Layer loss
I0507 12:27:24.106397  1566 net.cpp:435] loss <- ip3
I0507 12:27:24.106401  1566 net.cpp:435] loss <- label
I0507 12:27:24.106405  1566 net.cpp:409] loss -> loss
I0507 12:27:24.106459  1566 net.cpp:144] Setting up loss
…
I0507 12:27:24.196219  1566 net.cpp:323] The NetState phase (0) differed from the phase (1) specified by a rule in layer intercept
I0507 12:27:24.196238  1566 net.cpp:323] The NetState phase (0) differed from the phase (1) specified by a rule in layer accuracy
I0507 12:27:24.196323  1566 net.cpp:52] Initializing net from parameters: 
state {
  phase: TRAIN
}
layer {
  name: "parameters"
  type: "HDF5Data"
  top: "data"
  top: "label"
  include {
    phase: TRAIN
  }
  hdf5_data_param {
    source: "/home/purduethu/scratch/radon/d/deng106/CNNStatisticalModel/distributions/input/20_distributions_400_sample_size_train-distributions-path.txt"
    batch_size: 20
  }
}
layer {
  name: "conv1"
  type: "Convolution"
  bottom: "data"
  top: "conv1"
  param {
    lr_mult: 1
  }
  param {
    lr_mult: 2
  }
  convolution_param {
    num_output: 64
    pad: 2
    kernel_size: 5
    stride: 1
    weight_filler {
      type: "gaussian"
      std: 0.0001
    }
    bias_filler {
      type: "constant"
    }
  }
}
layer {
  name: "relu1"
  type: "ReLU"
  bottom: "conv1"
  top: "conv1"
}
layer {
  name: "conv2"
  type: "Convolution"
  bottom: "conv1"
  top: "conv2"
  param {
    lr_mult: 1
  }
  param {
    lr_mult: 2
  }
  convolution_param {
    num_output: 64
    pad: 2
    kernel_size: 5
    stride: 1
    weight_filler {
      type: "gaussian"
      std: 0.01
    }
    bias_filler {
      type: "constant"
    }
  }
}
layer {
  name: "relu2"
  type: "ReLU"
  bottom: "conv2"
  top: "conv2"
}
layer {
  name: "pool2"
  type: "Pooling"
  bottom: "conv2"
  top: "pool2"
  pooling_param {
    pool: MAX
    kernel_size: 3
    stride: 2
  }
}
layer {
  name: "conv3"
  type: "Convolution"
  bottom: "pool2"
  top: "conv3"
  param {
    lr_mult: 1
  }
  param {
    lr_mult: 2
  }
  convolution_param {
    num_output: 64
    pad: 2
    kernel_size: 5
    stride: 1
    weight_filler {
      type: "gaussian"
      std: 0.01
    }
    bias_filler {
      type: "constant"
    }
  }
}
layer {
  name: "relu3"
  type: "ReLU"
  bottom: "conv3"
  top: "conv3"
}
layer {
  name: "conv4"
  type: "Convolution"
  bottom: "conv3"
  top: "conv4"
  param {
    lr_mult: 1
  }
  param {
    lr_mult: 2
  }
  convolution_param {
    num_output: 64
    pad: 2
    kernel_size: 5
    stride: 1
    weight_filler {
      type: "gaussian"
      std: 0.01
    }
    bias_filler {
      type: "constant"
    }
  }
}
layer {
  name: "relu4"
  type: "ReLU"
  bottom: "conv4"
  top: "conv4"
}
layer {
  name: "conv5"
  type: "Convolution"
  bottom: "conv4"
  top: "conv5"
  param {
    lr_mult: 1
  }
  param {
    lr_mult: 2
  }
  convolution_param {
    num_output: 64
    pad: 2
    kernel_size: 5
    stride: 1
    weight_filler {
      type: "gaussian"
      std: 0.01
    }
    bias_filler {
      type: "constant"
    }
  }
}
layer {
  name: "relu5"
  type: "ReLU"
  bottom: "conv5"
  top: "conv5"
}
layer {
  name: "pool5"
  type: "Pooling"
  bottom: "conv5"
  top: "pool5"
  pooling_param {
    pool: AVE
    kernel_size: 3
    stride: 2
  }
}
layer {
  name: "ip1"
  type: "InnerProduct"
  bottom: "pool5"
  top: "ip1"
  param {
    lr_mult: 1
  }
  param {
    lr_mult: 2
  }
  inner_product_param {
    num_output: 64
    weight_filler {
      type: "gaussian"
      std: 0.1
    }
    bias_filler {
      type: "constant"
    }
  }
}
layer {
  name: "ip2"
  type: "InnerProduct"
  bottom: "ip1"
  top: "ip2"
  param {
    lr_mult: 1
  }
  param {
    lr_mult: 2
  }
  inner_product_param {
    num_output: 64
    weight_filler {
      type: "gaussian"
      std: 0.1
    }
    bias_filler {
      type: "constant"
    }
  }
}
layer {
  name: "ip3"
  type: "InnerProduct"
  bottom: "ip2"
  top: "ip3"
  param {
    lr_mult: 1
  }
  param {
    lr_mult: 2
  }
  inner_product_param {
    num_output: 50
    weight_filler {
      type: "gaussian"
      std: 0.1
    }
    bias_filler {
      type: "constant"
    }
  }
}
layer {
  name: "loss"
  type: "SoftmaxWithLoss"
  bottom: "ip3"
  bottom: "label"
  top: "loss"
}
I0507 12:27:24.196375  1566 layer_factory.hpp:77] Creating layer parameters
I0507 12:27:24.196383  1566 net.cpp:94] Creating Layer parameters
I0507 12:27:24.196388  1566 net.cpp:409] parameters -> data
I0507 12:27:24.196393  1566 net.cpp:409] parameters -> label
I0507 12:27:24.196399  1566 hdf5_data_layer.cpp:79] Loading list of HDF5 filenames from: /home/purduethu/scratch/radon/d/deng106/CNNStatisticalModel/distributions/input/20_distributions_400_sample_size_train-distributions-path.txt
I0507 12:27:24.196414  1566 hdf5_data_layer.cpp:93] Number of HDF5 files: 1
I0507 12:27:24.451900  1566 hdf5.cpp:35] Datatype class: H5T_INTEGER
I0507 12:27:24.452973  1566 net.cpp:144] Setting up parameters
I0507 12:27:24.452988  1566 net.cpp:151] Top shape: 20 1 20 20 (8000)
I0507 12:27:24.452993  1566 net.cpp:151] Top shape: 20 (20)
I0507 12:27:24.452996  1566 net.cpp:159] Memory required for data: 32080
I0507 12:27:24.453002  1566 layer_factory.hpp:77] Creating layer conv1
I0507 12:27:24.453018  1566 net.cpp:94] Creating Layer conv1
I0507 12:27:24.453022  1566 net.cpp:435] conv1 <- data
I0507 12:27:24.453028  1566 net.cpp:409] conv1 -> conv1
I0507 12:27:24.455799  1566 net.cpp:144] Setting up conv1
I0507 12:27:24.455813  1566 net.cpp:151] Top shape: 20 64 20 20 (512000)
I0507 12:27:24.455817  1566 net.cpp:159] Memory required for data: 2080080
I0507 12:27:24.455827  1566 layer_factory.hpp:77] Creating layer relu1
I0507 12:27:24.455834  1566 net.cpp:94] Creating Layer relu1
I0507 12:27:24.455838  1566 net.cpp:435] relu1 <- conv1
I0507 12:27:24.455842  1566 net.cpp:396] relu1 -> conv1 (in-place)
I0507 12:27:24.455849  1566 net.cpp:144] Setting up relu1
I0507 12:27:24.455853  1566 net.cpp:151] Top shape: 20 64 20 20 (512000)
I0507 12:27:24.455857  1566 net.cpp:159] Memory required for data: 4128080
I0507 12:27:24.455859  1566 layer_factory.hpp:77] Creating layer conv2
I0507 12:27:24.455868  1566 net.cpp:94] Creating Layer conv2
I0507 12:27:24.455870  1566 net.cpp:435] conv2 <- conv1
I0507 12:27:24.455875  1566 net.cpp:409] conv2 -> conv2
I0507 12:27:24.465813  1566 net.cpp:144] Setting up conv2
I0507 12:27:24.465828  1566 net.cpp:151] Top shape: 20 64 20 20 (512000)
I0507 12:27:24.465832  1566 net.cpp:159] Memory required for data: 6176080
I0507 12:27:24.465840  1566 layer_factory.hpp:77] Creating layer relu2
I0507 12:27:24.465847  1566 net.cpp:94] Creating Layer relu2
I0507 12:27:24.465852  1566 net.cpp:435] relu2 <- conv2
I0507 12:27:24.465855  1566 net.cpp:396] relu2 -> conv2 (in-place)
I0507 12:27:24.465862  1566 net.cpp:144] Setting up relu2
I0507 12:27:24.465867  1566 net.cpp:151] Top shape: 20 64 20 20 (512000)
I0507 12:27:24.465868  1566 net.cpp:159] Memory required for data: 8224080
I0507 12:27:24.465872  1566 layer_factory.hpp:77] Creating layer pool2
I0507 12:27:24.465878  1566 net.cpp:94] Creating Layer pool2
I0507 12:27:24.465880  1566 net.cpp:435] pool2 <- conv2
I0507 12:27:24.465884  1566 net.cpp:409] pool2 -> pool2
I0507 12:27:24.465940  1566 net.cpp:144] Setting up pool2
I0507 12:27:24.465946  1566 net.cpp:151] Top shape: 20 64 10 10 (128000)
I0507 12:27:24.465950  1566 net.cpp:159] Memory required for data: 8736080
I0507 12:27:24.465953  1566 layer_factory.hpp:77] Creating layer conv3
I0507 12:27:24.465960  1566 net.cpp:94] Creating Layer conv3
I0507 12:27:24.465965  1566 net.cpp:435] conv3 <- pool2
I0507 12:27:24.465976  1566 net.cpp:409] conv3 -> conv3
I0507 12:27:24.472168  1566 net.cpp:144] Setting up conv3
I0507 12:27:24.472182  1566 net.cpp:151] Top shape: 20 64 10 10 (128000)
I0507 12:27:24.472187  1566 net.cpp:159] Memory required for data: 9248080
I0507 12:27:24.472194  1566 layer_factory.hpp:77] Creating layer relu3
I0507 12:27:24.472200  1566 net.cpp:94] Creating Layer relu3
I0507 12:27:24.472204  1566 net.cpp:435] relu3 <- conv3
I0507 12:27:24.472208  1566 net.cpp:396] relu3 -> conv3 (in-place)
I0507 12:27:24.472215  1566 net.cpp:144] Setting up relu3
I0507 12:27:24.472219  1566 net.cpp:151] Top shape: 20 64 10 10 (128000)
I0507 12:27:24.472223  1566 net.cpp:159] Memory required for data: 9760080
I0507 12:27:24.472225  1566 layer_factory.hpp:77] Creating layer conv4
I0507 12:27:24.472234  1566 net.cpp:94] Creating Layer conv4
I0507 12:27:24.472236  1566 net.cpp:435] conv4 <- conv3
I0507 12:27:24.472241  1566 net.cpp:409] conv4 -> conv4
I0507 12:27:24.477596  1566 net.cpp:144] Setting up conv4
I0507 12:27:24.477610  1566 net.cpp:151] Top shape: 20 64 10 10 (128000)
I0507 12:27:24.477614  1566 net.cpp:159] Memory required for data: 10272080
I0507 12:27:24.477620  1566 layer_factory.hpp:77] Creating layer relu4
I0507 12:27:24.477627  1566 net.cpp:94] Creating Layer relu4
I0507 12:27:24.477629  1566 net.cpp:435] relu4 <- conv4
I0507 12:27:24.477634  1566 net.cpp:396] relu4 -> conv4 (in-place)
I0507 12:27:24.477640  1566 net.cpp:144] Setting up relu4
I0507 12:27:24.477644  1566 net.cpp:151] Top shape: 20 64 10 10 (128000)
I0507 12:27:24.477648  1566 net.cpp:159] Memory required for data: 10784080
I0507 12:27:24.477650  1566 layer_factory.hpp:77] Creating layer conv5
I0507 12:27:24.477658  1566 net.cpp:94] Creating Layer conv5
I0507 12:27:24.477661  1566 net.cpp:435] conv5 <- conv4
I0507 12:27:24.477666  1566 net.cpp:409] conv5 -> conv5
I0507 12:27:24.483053  1566 net.cpp:144] Setting up conv5
I0507 12:27:24.483067  1566 net.cpp:151] Top shape: 20 64 10 10 (128000)
I0507 12:27:24.483070  1566 net.cpp:159] Memory required for data: 11296080
I0507 12:27:24.483079  1566 layer_factory.hpp:77] Creating layer relu5
I0507 12:27:24.483085  1566 net.cpp:94] Creating Layer relu5
I0507 12:27:24.483088  1566 net.cpp:435] relu5 <- conv5
I0507 12:27:24.483093  1566 net.cpp:396] relu5 -> conv5 (in-place)
I0507 12:27:24.483099  1566 net.cpp:144] Setting up relu5
I0507 12:27:24.483104  1566 net.cpp:151] Top shape: 20 64 10 10 (128000)
I0507 12:27:24.483108  1566 net.cpp:159] Memory required for data: 11808080
I0507 12:27:24.483110  1566 layer_factory.hpp:77] Creating layer pool5
I0507 12:27:24.483114  1566 net.cpp:94] Creating Layer pool5
I0507 12:27:24.483119  1566 net.cpp:435] pool5 <- conv5
I0507 12:27:24.483122  1566 net.cpp:409] pool5 -> pool5
I0507 12:27:24.483160  1566 net.cpp:144] Setting up pool5
I0507 12:27:24.483167  1566 net.cpp:151] Top shape: 20 64 5 5 (32000)
I0507 12:27:24.483170  1566 net.cpp:159] Memory required for data: 11936080
I0507 12:27:24.483173  1566 layer_factory.hpp:77] Creating layer ip1
I0507 12:27:24.483180  1566 net.cpp:94] Creating Layer ip1
I0507 12:27:24.483184  1566 net.cpp:435] ip1 <- pool5
I0507 12:27:24.483188  1566 net.cpp:409] ip1 -> ip1
I0507 12:27:24.485743  1566 net.cpp:144] Setting up ip1
I0507 12:27:24.485752  1566 net.cpp:151] Top shape: 20 64 (1280)
I0507 12:27:24.485755  1566 net.cpp:159] Memory required for data: 11941200
I0507 12:27:24.485760  1566 layer_factory.hpp:77] Creating layer ip2
I0507 12:27:24.485767  1566 net.cpp:94] Creating Layer ip2
I0507 12:27:24.485770  1566 net.cpp:435] ip2 <- ip1
I0507 12:27:24.485775  1566 net.cpp:409] ip2 -> ip2
I0507 12:27:24.486001  1566 net.cpp:144] Setting up ip2
I0507 12:27:24.486007  1566 net.cpp:151] Top shape: 20 64 (1280)
I0507 12:27:24.486011  1566 net.cpp:159] Memory required for data: 11946320
I0507 12:27:24.486016  1566 layer_factory.hpp:77] Creating layer ip3
I0507 12:27:24.486021  1566 net.cpp:94] Creating Layer ip3
I0507 12:27:24.486024  1566 net.cpp:435] ip3 <- ip2
I0507 12:27:24.486029  1566 net.cpp:409] ip3 -> ip3
I0507 12:27:24.486233  1566 net.cpp:144] Setting up ip3
I0507 12:27:24.486240  1566 net.cpp:151] Top shape: 20 50 (1000)
I0507 12:27:24.486243  1566 net.cpp:159] Memory required for data: 11950320
I0507 12:27:24.486248  1566 layer_factory.hpp:77] Creating layer loss
I0507 12:27:24.486255  1566 net.cpp:94] Creating Layer loss
I0507 12:27:24.486258  1566 net.cpp:435] loss <- ip3
I0507 12:27:24.486263  1566 net.cpp:435] loss <- label
I0507 12:27:24.486266  1566 net.cpp:409] loss -> loss
I0507 12:27:24.486274  1566 layer_factory.hpp:77] Creating layer loss
…
I0507 12:27:24.486793  1566 solver.cpp:181] Creating test net (#0) specified by net file: ./protocol/dis_20_400_dimension.protocol_distribution
I0507 12:27:24.486819  1566 net.cpp:323] The NetState phase (1) differed from the phase (0) specified by a rule in layer parameters
I0507 12:27:24.486913  1566 net.cpp:52] Initializing net from parameters: 
state {
  phase: TEST
}
layer {
  name: "intercept"
  type: "HDF5Data"
  top: "data"
  top: "label"
  include {
    phase: TEST
  }
  hdf5_data_param {
    source: "/home/purduethu/scratch/radon/d/deng106/CNNStatisticalModel/distributions/input/20_distributions_400_sample_size_test-distributions-path.txt"
    batch_size: 20
  }
}
layer {
  name: "conv1"
  type: "Convolution"
  bottom: "data"
  top: "conv1"
  param {
    lr_mult: 1
  }
  param {
    lr_mult: 2
  }
  convolution_param {
    num_output: 64
    pad: 2
    kernel_size: 5
    stride: 1
    weight_filler {
      type: "gaussian"
      std: 0.0001
    }
    bias_filler {
      type: "constant"
    }
  }
}
layer {
  name: "relu1"
  type: "ReLU"
  bottom: "conv1"
  top: "conv1"
}
layer {
  name: "conv2"
  type: "Convolution"
  bottom: "conv1"
  top: "conv2"
  param {
    lr_mult: 1
  }
  param {
    lr_mult: 2
  }
  convolution_param {
    num_output: 64
    pad: 2
    kernel_size: 5
    stride: 1
    weight_filler {
      type: "gaussian"
      std: 0.01
    }
    bias_filler {
      type: "constant"
    }
  }
}
layer {
  name: "relu2"
  type: "ReLU"
  bottom: "conv2"
  top: "conv2"
}
layer {
  name: "pool2"
  type: "Pooling"
  bottom: "conv2"
  top: "pool2"
  pooling_param {
    pool: MAX
    kernel_size: 3
    stride: 2
  }
}
layer {
  name: "conv3"
  type: "Convolution"
  bottom: "pool2"
  top: "conv3"
  param {
    lr_mult: 1
  }
  param {
    lr_mult: 2
  }
  convolution_param {
    num_output: 64
    pad: 2
    kernel_size: 5
    stride: 1
    weight_filler {
      type: "gaussian"
      std: 0.01
    }
    bias_filler {
      type: "constant"
    }
  }
}
layer {
  name: "relu3"
  type: "ReLU"
  bottom: "conv3"
  top: "conv3"
}
layer {
  name: "conv4"
  type: "Convolution"
  bottom: "conv3"
  top: "conv4"
  param {
    lr_mult: 1
  }
  param {
    lr_mult: 2
  }
  convolution_param {
    num_output: 64
    pad: 2
    kernel_size: 5
    stride: 1
    weight_filler {
      type: "gaussian"
      std: 0.01
    }
    bias_filler {
      type: "constant"
    }
  }
}
layer {
  name: "relu4"
  type: "ReLU"
  bottom: "conv4"
  top: "conv4"
}
layer {
  name: "conv5"
  type: "Convolution"
  bottom: "conv4"
  top: "conv5"
  param {
    lr_mult: 1
  }
  param {
    lr_mult: 2
  }
  convolution_param {
    num_output: 64
    pad: 2
    kernel_size: 5
    stride: 1
    weight_filler {
      type: "gaussian"
      std: 0.01
    }
    bias_filler {
      type: "constant"
    }
  }
}
layer {
  name: "relu5"
  type: "ReLU"
  bottom: "conv5"
  top: "conv5"
}
layer {
  name: "pool5"
  type: "Pooling"
  bottom: "conv5"
  top: "pool5"
  pooling_param {
    pool: AVE
    kernel_size: 3
    stride: 2
  }
}
layer {
  name: "ip1"
  type: "InnerProduct"
  bottom: "pool5"
  top: "ip1"
  param {
    lr_mult: 1
  }
  param {
    lr_mult: 2
  }
  inner_product_param {
    num_output: 64
    weight_filler {
      type: "gaussian"
      std: 0.1
    }
    bias_filler {
      type: "constant"
    }
  }
}
layer {
  name: "ip2"
  type: "InnerProduct"
  bottom: "ip1"
  top: "ip2"
  param {
    lr_mult: 1
  }
  param {
    lr_mult: 2
  }
  inner_product_param {
    num_output: 64
    weight_filler {
      type: "gaussian"
      std: 0.1
    }
    bias_filler {
      type: "constant"
    }
  }
}
layer {
  name: "ip3"
  type: "InnerProduct"
  bottom: "ip2"
  top: "ip3"
  param {
    lr_mult: 1
  }
  param {
    lr_mult: 2
  }
  inner_product_param {
    num_output: 50
    weight_filler {
      type: "gaussian"
      std: 0.1
    }
    bias_filler {
      type: "constant"
    }
  }
}
layer {
  name: "accuracy"
  type: "Accuracy"
  bottom: "ip3"
  bottom: "label"
  top: "accuracy"
  include {
    phase: TEST
  }
}
layer {
  name: "loss"
  type: "SoftmaxWithLoss"
  bottom: "ip3"
  bottom: "label"
  top: "loss"
}
I0507 12:27:24.486976  1566 layer_factory.hpp:77] Creating layer intercept
I0507 12:27:24.486984  1566 net.cpp:94] Creating Layer intercept
I0507 12:27:24.486989  1566 net.cpp:409] intercept -> data
I0507 12:27:24.486995  1566 net.cpp:409] intercept -> label
I0507 12:27:24.487001  1566 hdf5_data_layer.cpp:79] Loading list of HDF5 filenames from: /home/purduethu/scratch/radon/d/deng106/CNNStatisticalModel/distributions/input/20_distributions_400_sample_size_test-distributions-path.txt
I0507 12:27:24.487020  1566 hdf5_data_layer.cpp:93] Number of HDF5 files: 1
I0507 12:27:24.551319  1566 net.cpp:144] Setting up intercept
I0507 12:27:24.551352  1566 net.cpp:151] Top shape: 20 1 20 20 (8000)
I0507 12:27:24.551357  1566 net.cpp:151] Top shape: 20 (20)
I0507 12:27:24.551360  1566 net.cpp:159] Memory required for data: 32080
I0507 12:27:24.551367  1566 layer_factory.hpp:77] Creating layer label_intercept_1_split
I0507 12:27:24.551383  1566 net.cpp:94] Creating Layer label_intercept_1_split
I0507 12:27:24.551388  1566 net.cpp:435] label_intercept_1_split <- label
I0507 12:27:24.551393  1566 net.cpp:409] label_intercept_1_split -> label_intercept_1_split_0
I0507 12:27:24.551401  1566 net.cpp:409] label_intercept_1_split -> label_intercept_1_split_1
I0507 12:27:24.551445  1566 net.cpp:144] Setting up label_intercept_1_split
I0507 12:27:24.551450  1566 net.cpp:151] Top shape: 20 (20)
I0507 12:27:24.551455  1566 net.cpp:151] Top shape: 20 (20)
I0507 12:27:24.551457  1566 net.cpp:159] Memory required for data: 32240
I0507 12:27:24.551460  1566 layer_factory.hpp:77] Creating layer conv1
I0507 12:27:24.551470  1566 net.cpp:94] Creating Layer conv1
I0507 12:27:24.551473  1566 net.cpp:435] conv1 <- data
I0507 12:27:24.551478  1566 net.cpp:409] conv1 -> conv1
I0507 12:27:24.552876  1566 net.cpp:144] Setting up conv1
I0507 12:27:24.552896  1566 net.cpp:151] Top shape: 20 64 20 20 (512000)
I0507 12:27:24.552901  1566 net.cpp:159] Memory required for data: 2080240
I0507 12:27:24.552911  1566 layer_factory.hpp:77] Creating layer relu1
I0507 12:27:24.552918  1566 net.cpp:94] Creating Layer relu1
I0507 12:27:24.552922  1566 net.cpp:435] relu1 <- conv1
I0507 12:27:24.552927  1566 net.cpp:396] relu1 -> conv1 (in-place)
I0507 12:27:24.552933  1566 net.cpp:144] Setting up relu1
I0507 12:27:24.552937  1566 net.cpp:151] Top shape: 20 64 20 20 (512000)
I0507 12:27:24.552940  1566 net.cpp:159] Memory required for data: 4128240
I0507 12:27:24.552943  1566 layer_factory.hpp:77] Creating layer conv2
I0507 12:27:24.552952  1566 net.cpp:94] Creating Layer conv2
I0507 12:27:24.552954  1566 net.cpp:435] conv2 <- conv1
I0507 12:27:24.552959  1566 net.cpp:409] conv2 -> conv2
I0507 12:27:24.557947  1566 net.cpp:144] Setting up conv2
I0507 12:27:24.557960  1566 net.cpp:151] Top shape: 20 64 20 20 (512000)
I0507 12:27:24.557965  1566 net.cpp:159] Memory required for data: 6176240
I0507 12:27:24.557972  1566 layer_factory.hpp:77] Creating layer relu2
I0507 12:27:24.557978  1566 net.cpp:94] Creating Layer relu2
I0507 12:27:24.557982  1566 net.cpp:435] relu2 <- conv2
I0507 12:27:24.557986  1566 net.cpp:396] relu2 -> conv2 (in-place)
I0507 12:27:24.557993  1566 net.cpp:144] Setting up relu2
I0507 12:27:24.557997  1566 net.cpp:151] Top shape: 20 64 20 20 (512000)
I0507 12:27:24.558001  1566 net.cpp:159] Memory required for data: 8224240
I0507 12:27:24.558002  1566 layer_factory.hpp:77] Creating layer pool2
I0507 12:27:24.558008  1566 net.cpp:94] Creating Layer pool2
I0507 12:27:24.558012  1566 net.cpp:435] pool2 <- conv2
I0507 12:27:24.558015  1566 net.cpp:409] pool2 -> pool2
I0507 12:27:24.558069  1566 net.cpp:144] Setting up pool2
I0507 12:27:24.558076  1566 net.cpp:151] Top shape: 20 64 10 10 (128000)
I0507 12:27:24.558079  1566 net.cpp:159] Memory required for data: 8736240
I0507 12:27:24.558082  1566 layer_factory.hpp:77] Creating layer conv3
I0507 12:27:24.558090  1566 net.cpp:94] Creating Layer conv3
I0507 12:27:24.558094  1566 net.cpp:435] conv3 <- pool2
I0507 12:27:24.558099  1566 net.cpp:409] conv3 -> conv3
I0507 12:27:24.562897  1566 net.cpp:144] Setting up conv3
I0507 12:27:24.562911  1566 net.cpp:151] Top shape: 20 64 10 10 (128000)
I0507 12:27:24.562916  1566 net.cpp:159] Memory required for data: 9248240
I0507 12:27:24.562923  1566 layer_factory.hpp:77] Creating layer relu3
I0507 12:27:24.562930  1566 net.cpp:94] Creating Layer relu3
I0507 12:27:24.562933  1566 net.cpp:435] relu3 <- conv3
I0507 12:27:24.562938  1566 net.cpp:396] relu3 -> conv3 (in-place)
I0507 12:27:24.562944  1566 net.cpp:144] Setting up relu3
I0507 12:27:24.562949  1566 net.cpp:151] Top shape: 20 64 10 10 (128000)
I0507 12:27:24.562952  1566 net.cpp:159] Memory required for data: 9760240
I0507 12:27:24.562954  1566 layer_factory.hpp:77] Creating layer conv4
I0507 12:27:24.562963  1566 net.cpp:94] Creating Layer conv4
I0507 12:27:24.562966  1566 net.cpp:435] conv4 <- conv3
I0507 12:27:24.562970  1566 net.cpp:409] conv4 -> conv4
I0507 12:27:24.566499  1566 net.cpp:144] Setting up conv4
I0507 12:27:24.566514  1566 net.cpp:151] Top shape: 20 64 10 10 (128000)
I0507 12:27:24.566516  1566 net.cpp:159] Memory required for data: 10272240
I0507 12:27:24.566522  1566 layer_factory.hpp:77] Creating layer relu4
I0507 12:27:24.566529  1566 net.cpp:94] Creating Layer relu4
I0507 12:27:24.566532  1566 net.cpp:435] relu4 <- conv4
I0507 12:27:24.566536  1566 net.cpp:396] relu4 -> conv4 (in-place)
I0507 12:27:24.566542  1566 net.cpp:144] Setting up relu4
I0507 12:27:24.566546  1566 net.cpp:151] Top shape: 20 64 10 10 (128000)
I0507 12:27:24.566550  1566 net.cpp:159] Memory required for data: 10784240
I0507 12:27:24.566552  1566 layer_factory.hpp:77] Creating layer conv5
I0507 12:27:24.566560  1566 net.cpp:94] Creating Layer conv5
I0507 12:27:24.566563  1566 net.cpp:435] conv5 <- conv4
I0507 12:27:24.566568  1566 net.cpp:409] conv5 -> conv5
I0507 12:27:24.570508  1566 net.cpp:144] Setting up conv5
I0507 12:27:24.570524  1566 net.cpp:151] Top shape: 20 64 10 10 (128000)
I0507 12:27:24.570528  1566 net.cpp:159] Memory required for data: 11296240
I0507 12:27:24.570536  1566 layer_factory.hpp:77] Creating layer relu5
I0507 12:27:24.570544  1566 net.cpp:94] Creating Layer relu5
I0507 12:27:24.570546  1566 net.cpp:435] relu5 <- conv5
I0507 12:27:24.570550  1566 net.cpp:396] relu5 -> conv5 (in-place)
I0507 12:27:24.570557  1566 net.cpp:144] Setting up relu5
I0507 12:27:24.570561  1566 net.cpp:151] Top shape: 20 64 10 10 (128000)
I0507 12:27:24.570564  1566 net.cpp:159] Memory required for data: 11808240
I0507 12:27:24.570567  1566 layer_factory.hpp:77] Creating layer pool5
I0507 12:27:24.570572  1566 net.cpp:94] Creating Layer pool5
I0507 12:27:24.570575  1566 net.cpp:435] pool5 <- conv5
I0507 12:27:24.570580  1566 net.cpp:409] pool5 -> pool5
I0507 12:27:24.570616  1566 net.cpp:144] Setting up pool5
I0507 12:27:24.570623  1566 net.cpp:151] Top shape: 20 64 5 5 (32000)
I0507 12:27:24.570626  1566 net.cpp:159] Memory required for data: 11936240
I0507 12:27:24.570629  1566 layer_factory.hpp:77] Creating layer ip1
I0507 12:27:24.570636  1566 net.cpp:94] Creating Layer ip1
I0507 12:27:24.570639  1566 net.cpp:435] ip1 <- pool5
I0507 12:27:24.570644  1566 net.cpp:409] ip1 -> ip1
I0507 12:27:24.573202  1566 net.cpp:144] Setting up ip1
I0507 12:27:24.573211  1566 net.cpp:151] Top shape: 20 64 (1280)
I0507 12:27:24.573215  1566 net.cpp:159] Memory required for data: 11941360
I0507 12:27:24.573220  1566 layer_factory.hpp:77] Creating layer ip2
I0507 12:27:24.573226  1566 net.cpp:94] Creating Layer ip2
I0507 12:27:24.573230  1566 net.cpp:435] ip2 <- ip1
I0507 12:27:24.573235  1566 net.cpp:409] ip2 -> ip2
I0507 12:27:24.573468  1566 net.cpp:144] Setting up ip2
I0507 12:27:24.573475  1566 net.cpp:151] Top shape: 20 64 (1280)
I0507 12:27:24.573478  1566 net.cpp:159] Memory required for data: 11946480
I0507 12:27:24.573483  1566 layer_factory.hpp:77] Creating layer ip3
I0507 12:27:24.573492  1566 net.cpp:94] Creating Layer ip3
I0507 12:27:24.573495  1566 net.cpp:435] ip3 <- ip2
I0507 12:27:24.573499  1566 net.cpp:409] ip3 -> ip3
I0507 12:27:24.573711  1566 net.cpp:144] Setting up ip3
I0507 12:27:24.573719  1566 net.cpp:151] Top shape: 20 50 (1000)
I0507 12:27:24.573721  1566 net.cpp:159] Memory required for data: 11950480
I0507 12:27:24.573726  1566 layer_factory.hpp:77] Creating layer ip3_ip3_0_split
I0507 12:27:24.573730  1566 net.cpp:94] Creating Layer ip3_ip3_0_split
I0507 12:27:24.573734  1566 net.cpp:435] ip3_ip3_0_split <- ip3
I0507 12:27:24.573740  1566 net.cpp:409] ip3_ip3_0_split -> ip3_ip3_0_split_0
I0507 12:27:24.573745  1566 net.cpp:409] ip3_ip3_0_split -> ip3_ip3_0_split_1
I0507 12:27:24.573786  1566 net.cpp:144] Setting up ip3_ip3_0_split
I0507 12:27:24.573791  1566 net.cpp:151] Top shape: 20 50 (1000)
I0507 12:27:24.573796  1566 net.cpp:151] Top shape: 20 50 (1000)
I0507 12:27:24.573797  1566 net.cpp:159] Memory required for data: 11958480
I0507 12:27:24.573801  1566 layer_factory.hpp:77] Creating layer accuracy
I0507 12:27:24.573807  1566 net.cpp:94] Creating Layer accuracy
I0507 12:27:24.573809  1566 net.cpp:435] accuracy <- ip3_ip3_0_split_0
I0507 12:27:24.573813  1566 net.cpp:435] accuracy <- label_intercept_1_split_0
I0507 12:27:24.573818  1566 net.cpp:409] accuracy -> accuracy
…
