…
I0502 14:13:31.176837  5891 net.cpp:323] The NetState phase (0) differed from the phase (1) specified by a rule in layer intercept
I0502 14:13:31.176856  5891 net.cpp:323] The NetState phase (0) differed from the phase (1) specified by a rule in layer loss
I0502 14:13:31.176947  5891 net.cpp:52] Initializing net from parameters: 
state {
  phase: TRAIN
}
layer {
  name: "parameters"
  type: "HDF5Data"
  top: "data"
  top: "label"
  include {
    phase: TRAIN
  }
  hdf5_data_param {
    source: "/home/purduethu/scratch/radon/d/deng106/CNNStatisticalModel/distributions/input/50_distributions_400_sample_size_train-parameters-path.txt"
    batch_size: 20
  }
}
layer {
  name: "conv1"
  type: "Convolution"
  bottom: "data"
  top: "conv1"
  param {
    lr_mult: 1
  }
  param {
    lr_mult: 2
  }
  convolution_param {
    num_output: 64
    pad: 2
    kernel_size: 5
    stride: 1
    weight_filler {
      type: "gaussian"
      std: 0.0001
    }
    bias_filler {
      type: "constant"
    }
  }
}
layer {
  name: "relu1"
  type: "ReLU"
  bottom: "conv1"
  top: "conv1"
}
layer {
  name: "conv2"
  type: "Convolution"
  bottom: "conv1"
  top: "conv2"
  param {
    lr_mult: 1
  }
  param {
    lr_mult: 2
  }
  convolution_param {
    num_output: 64
    pad: 2
    kernel_size: 5
    stride: 1
    weight_filler {
      type: "gaussian"
      std: 0.01
    }
    bias_filler {
      type: "constant"
    }
  }
}
layer {
  name: "relu2"
  type: "ReLU"
  bottom: "conv2"
  top: "conv2"
}
layer {
  name: "pool2"
  type: "Pooling"
  bottom: "conv2"
  top: "pool2"
  pooling_param {
    pool: MAX
    kernel_size: 3
    stride: 2
  }
}
layer {
  name: "conv3"
  type: "Convolution"
  bottom: "pool2"
  top: "conv3"
  param {
    lr_mult: 1
  }
  param {
    lr_mult: 2
  }
  convolution_param {
    num_output: 64
    pad: 2
    kernel_size: 5
    stride: 1
    weight_filler {
      type: "gaussian"
      std: 0.01
    }
    bias_filler {
      type: "constant"
    }
  }
}
layer {
  name: "relu3"
  type: "ReLU"
  bottom: "conv3"
  top: "conv3"
}
layer {
  name: "conv4"
  type: "Convolution"
  bottom: "conv3"
  top: "conv4"
  param {
    lr_mult: 1
  }
  param {
    lr_mult: 2
  }
  convolution_param {
    num_output: 64
    pad: 2
    kernel_size: 5
    stride: 1
    weight_filler {
      type: "gaussian"
      std: 0.01
    }
    bias_filler {
      type: "constant"
    }
  }
}
layer {
  name: "relu4"
  type: "ReLU"
  bottom: "conv4"
  top: "conv4"
}
layer {
  name: "conv5"
  type: "Convolution"
  bottom: "conv4"
  top: "conv5"
  param {
    lr_mult: 1
  }
  param {
    lr_mult: 2
  }
  convolution_param {
    num_output: 64
    pad: 2
    kernel_size: 5
    stride: 1
    weight_filler {
      type: "gaussian"
      std: 0.01
    }
    bias_filler {
      type: "constant"
    }
  }
}
layer {
  name: "relu5"
  type: "ReLU"
  bottom: "conv5"
  top: "conv5"
}
layer {
  name: "pool5"
  type: "Pooling"
  bottom: "conv5"
  top: "pool5"
  pooling_param {
    pool: AVE
    kernel_size: 3
    stride: 2
  }
}
layer {
  name: "ip1"
  type: "InnerProduct"
  bottom: "pool5"
  top: "ip1"
  param {
    lr_mult: 1
  }
  param {
    lr_mult: 2
  }
  inner_product_param {
    num_output: 64
    weight_filler {
      type: "gaussian"
      std: 0.1
    }
    bias_filler {
      type: "constant"
    }
  }
}
layer {
  name: "ip2"
  type: "InnerProduct"
  bottom: "ip1"
  top: "ip2"
  param {
    lr_mult: 1
  }
  param {
    lr_mult: 2
  }
  inner_product_param {
    num_output: 64
    weight_filler {
      type: "gaussian"
      std: 0.1
    }
    bias_filler {
      type: "constant"
    }
  }
}
layer {
  name: "ip3"
  type: "InnerProduct"
  bottom: "ip2"
  top: "ip3"
  param {
    lr_mult: 1
  }
  param {
    lr_mult: 2
  }
  inner_product_param {
    num_output: 1
    weight_filler {
      type: "gaussian"
      std: 0.1
    }
    bias_filler {
      type: "constant"
    }
  }
}
layer {
  name: "loss"
  type: "HuberLoss"
  bottom: "ip3"
  bottom: "label"
  top: "loss"
  include {
    phase: TRAIN
  }
}
I0502 14:13:31.177022  5891 layer_factory.hpp:77] Creating layer parameters
I0502 14:13:31.177037  5891 net.cpp:94] Creating Layer parameters
I0502 14:13:31.177043  5891 net.cpp:409] parameters -> data
I0502 14:13:31.177062  5891 net.cpp:409] parameters -> label
I0502 14:13:31.177073  5891 hdf5_data_layer.cpp:79] Loading list of HDF5 filenames from: /home/purduethu/scratch/radon/d/deng106/CNNStatisticalModel/distributions/input/50_distributions_400_sample_size_train-parameters-path.txt
I0502 14:13:31.177100  5891 hdf5_data_layer.cpp:93] Number of HDF5 files: 1
I0502 14:13:31.177726  5891 hdf5.cpp:32] Datatype class: H5T_FLOAT
I0502 14:13:31.834363  5891 net.cpp:144] Setting up parameters
I0502 14:13:31.834399  5891 net.cpp:151] Top shape: 20 1 20 20 (8000)
I0502 14:13:31.834405  5891 net.cpp:151] Top shape: 20 (20)
I0502 14:13:31.834409  5891 net.cpp:159] Memory required for data: 32080
I0502 14:13:31.834416  5891 layer_factory.hpp:77] Creating layer conv1
I0502 14:13:31.834441  5891 net.cpp:94] Creating Layer conv1
I0502 14:13:31.834447  5891 net.cpp:435] conv1 <- data
I0502 14:13:31.834460  5891 net.cpp:409] conv1 -> conv1
I0502 14:13:31.839306  5891 net.cpp:144] Setting up conv1
I0502 14:13:31.839323  5891 net.cpp:151] Top shape: 20 64 20 20 (512000)
I0502 14:13:31.839328  5891 net.cpp:159] Memory required for data: 2080080
I0502 14:13:31.839340  5891 layer_factory.hpp:77] Creating layer relu1
I0502 14:13:31.839349  5891 net.cpp:94] Creating Layer relu1
I0502 14:13:31.839352  5891 net.cpp:435] relu1 <- conv1
I0502 14:13:31.839357  5891 net.cpp:396] relu1 -> conv1 (in-place)
I0502 14:13:31.839373  5891 net.cpp:144] Setting up relu1
I0502 14:13:31.839380  5891 net.cpp:151] Top shape: 20 64 20 20 (512000)
I0502 14:13:31.839383  5891 net.cpp:159] Memory required for data: 4128080
I0502 14:13:31.839386  5891 layer_factory.hpp:77] Creating layer conv2
I0502 14:13:31.839395  5891 net.cpp:94] Creating Layer conv2
I0502 14:13:31.839398  5891 net.cpp:435] conv2 <- conv1
I0502 14:13:31.839404  5891 net.cpp:409] conv2 -> conv2
I0502 14:13:31.850359  5891 net.cpp:144] Setting up conv2
I0502 14:13:31.850375  5891 net.cpp:151] Top shape: 20 64 20 20 (512000)
I0502 14:13:31.850379  5891 net.cpp:159] Memory required for data: 6176080
I0502 14:13:31.850389  5891 layer_factory.hpp:77] Creating layer relu2
I0502 14:13:31.850395  5891 net.cpp:94] Creating Layer relu2
I0502 14:13:31.850399  5891 net.cpp:435] relu2 <- conv2
I0502 14:13:31.850404  5891 net.cpp:396] relu2 -> conv2 (in-place)
I0502 14:13:31.850412  5891 net.cpp:144] Setting up relu2
I0502 14:13:31.850416  5891 net.cpp:151] Top shape: 20 64 20 20 (512000)
I0502 14:13:31.850420  5891 net.cpp:159] Memory required for data: 8224080
I0502 14:13:31.850424  5891 layer_factory.hpp:77] Creating layer pool2
I0502 14:13:31.850431  5891 net.cpp:94] Creating Layer pool2
I0502 14:13:31.850441  5891 net.cpp:435] pool2 <- conv2
I0502 14:13:31.850446  5891 net.cpp:409] pool2 -> pool2
I0502 14:13:31.850492  5891 net.cpp:144] Setting up pool2
I0502 14:13:31.850498  5891 net.cpp:151] Top shape: 20 64 10 10 (128000)
I0502 14:13:31.850502  5891 net.cpp:159] Memory required for data: 8736080
I0502 14:13:31.850507  5891 layer_factory.hpp:77] Creating layer conv3
I0502 14:13:31.850514  5891 net.cpp:94] Creating Layer conv3
I0502 14:13:31.850518  5891 net.cpp:435] conv3 <- pool2
I0502 14:13:31.850523  5891 net.cpp:409] conv3 -> conv3
I0502 14:13:31.855759  5891 net.cpp:144] Setting up conv3
I0502 14:13:31.855773  5891 net.cpp:151] Top shape: 20 64 10 10 (128000)
I0502 14:13:31.855778  5891 net.cpp:159] Memory required for data: 9248080
I0502 14:13:31.855787  5891 layer_factory.hpp:77] Creating layer relu3
I0502 14:13:31.855792  5891 net.cpp:94] Creating Layer relu3
I0502 14:13:31.855796  5891 net.cpp:435] relu3 <- conv3
I0502 14:13:31.855801  5891 net.cpp:396] relu3 -> conv3 (in-place)
I0502 14:13:31.855808  5891 net.cpp:144] Setting up relu3
I0502 14:13:31.855813  5891 net.cpp:151] Top shape: 20 64 10 10 (128000)
I0502 14:13:31.855818  5891 net.cpp:159] Memory required for data: 9760080
I0502 14:13:31.855820  5891 layer_factory.hpp:77] Creating layer conv4
I0502 14:13:31.855829  5891 net.cpp:94] Creating Layer conv4
I0502 14:13:31.855834  5891 net.cpp:435] conv4 <- conv3
I0502 14:13:31.855839  5891 net.cpp:409] conv4 -> conv4
I0502 14:13:31.861066  5891 net.cpp:144] Setting up conv4
I0502 14:13:31.861080  5891 net.cpp:151] Top shape: 20 64 10 10 (128000)
I0502 14:13:31.861085  5891 net.cpp:159] Memory required for data: 10272080
I0502 14:13:31.861091  5891 layer_factory.hpp:77] Creating layer relu4
I0502 14:13:31.861098  5891 net.cpp:94] Creating Layer relu4
I0502 14:13:31.861101  5891 net.cpp:435] relu4 <- conv4
I0502 14:13:31.861106  5891 net.cpp:396] relu4 -> conv4 (in-place)
I0502 14:13:31.861114  5891 net.cpp:144] Setting up relu4
I0502 14:13:31.861119  5891 net.cpp:151] Top shape: 20 64 10 10 (128000)
I0502 14:13:31.861122  5891 net.cpp:159] Memory required for data: 10784080
I0502 14:13:31.861125  5891 layer_factory.hpp:77] Creating layer conv5
I0502 14:13:31.861133  5891 net.cpp:94] Creating Layer conv5
I0502 14:13:31.861137  5891 net.cpp:435] conv5 <- conv4
I0502 14:13:31.861142  5891 net.cpp:409] conv5 -> conv5
I0502 14:13:31.866350  5891 net.cpp:144] Setting up conv5
I0502 14:13:31.866364  5891 net.cpp:151] Top shape: 20 64 10 10 (128000)
I0502 14:13:31.866369  5891 net.cpp:159] Memory required for data: 11296080
I0502 14:13:31.866379  5891 layer_factory.hpp:77] Creating layer relu5
I0502 14:13:31.866384  5891 net.cpp:94] Creating Layer relu5
I0502 14:13:31.866389  5891 net.cpp:435] relu5 <- conv5
I0502 14:13:31.866394  5891 net.cpp:396] relu5 -> conv5 (in-place)
I0502 14:13:31.866400  5891 net.cpp:144] Setting up relu5
I0502 14:13:31.866405  5891 net.cpp:151] Top shape: 20 64 10 10 (128000)
I0502 14:13:31.866410  5891 net.cpp:159] Memory required for data: 11808080
I0502 14:13:31.866412  5891 layer_factory.hpp:77] Creating layer pool5
I0502 14:13:31.866418  5891 net.cpp:94] Creating Layer pool5
I0502 14:13:31.866421  5891 net.cpp:435] pool5 <- conv5
I0502 14:13:31.866426  5891 net.cpp:409] pool5 -> pool5
I0502 14:13:31.866461  5891 net.cpp:144] Setting up pool5
I0502 14:13:31.866468  5891 net.cpp:151] Top shape: 20 64 5 5 (32000)
I0502 14:13:31.866472  5891 net.cpp:159] Memory required for data: 11936080
I0502 14:13:31.866475  5891 layer_factory.hpp:77] Creating layer ip1
I0502 14:13:31.866485  5891 net.cpp:94] Creating Layer ip1
I0502 14:13:31.866489  5891 net.cpp:435] ip1 <- pool5
I0502 14:13:31.866494  5891 net.cpp:409] ip1 -> ip1
I0502 14:13:31.868998  5891 net.cpp:144] Setting up ip1
I0502 14:13:31.869006  5891 net.cpp:151] Top shape: 20 64 (1280)
I0502 14:13:31.869010  5891 net.cpp:159] Memory required for data: 11941200
I0502 14:13:31.869016  5891 layer_factory.hpp:77] Creating layer ip2
I0502 14:13:31.869022  5891 net.cpp:94] Creating Layer ip2
I0502 14:13:31.869030  5891 net.cpp:435] ip2 <- ip1
I0502 14:13:31.869036  5891 net.cpp:409] ip2 -> ip2
I0502 14:13:31.869204  5891 net.cpp:144] Setting up ip2
I0502 14:13:31.869210  5891 net.cpp:151] Top shape: 20 64 (1280)
I0502 14:13:31.869215  5891 net.cpp:159] Memory required for data: 11946320
I0502 14:13:31.869220  5891 layer_factory.hpp:77] Creating layer ip3
I0502 14:13:31.869225  5891 net.cpp:94] Creating Layer ip3
I0502 14:13:31.869230  5891 net.cpp:435] ip3 <- ip2
I0502 14:13:31.869235  5891 net.cpp:409] ip3 -> ip3
I0502 14:13:31.869297  5891 net.cpp:144] Setting up ip3
I0502 14:13:31.869310  5891 net.cpp:151] Top shape: 20 1 (20)
I0502 14:13:31.869314  5891 net.cpp:159] Memory required for data: 11946400
I0502 14:13:31.869319  5891 layer_factory.hpp:77] Creating layer loss
I0502 14:13:31.869326  5891 net.cpp:94] Creating Layer loss
I0502 14:13:31.869330  5891 net.cpp:435] loss <- ip3
I0502 14:13:31.869334  5891 net.cpp:435] loss <- label
I0502 14:13:31.869340  5891 net.cpp:409] loss -> loss
I0502 14:13:31.869377  5891 net.cpp:144] Setting up loss
…
