…
I0506 07:36:06.352947 20528 net.cpp:323] The NetState phase (0) differed from the phase (1) specified by a rule in layer intercept
I0506 07:36:06.352963 20528 net.cpp:323] The NetState phase (0) differed from the phase (1) specified by a rule in layer loss
I0506 07:36:06.353044 20528 net.cpp:52] Initializing net from parameters: 
state {
  phase: TRAIN
}
layer {
  name: "parameters"
  type: "HDF5Data"
  top: "data"
  top: "label"
  include {
    phase: TRAIN
  }
  hdf5_data_param {
    source: "/home/purduethu/scratch/radon/d/deng106/CNNStatisticalModel/distributions/input/50_distributions_100_sample_size_train-parameters-path.txt"
    batch_size: 20
  }
}
layer {
  name: "conv1"
  type: "Convolution"
  bottom: "data"
  top: "conv1"
  param {
    lr_mult: 1
  }
  param {
    lr_mult: 2
  }
  convolution_param {
    num_output: 64
    pad: 2
    kernel_size: 5
    stride: 1
    weight_filler {
      type: "gaussian"
      std: 0.0001
    }
    bias_filler {
      type: "constant"
    }
  }
}
layer {
  name: "relu1"
  type: "ReLU"
  bottom: "conv1"
  top: "conv1"
}
layer {
  name: "conv2"
  type: "Convolution"
  bottom: "conv1"
  top: "conv2"
  param {
    lr_mult: 1
  }
  param {
    lr_mult: 2
  }
  convolution_param {
    num_output: 64
    pad: 2
    kernel_size: 5
    stride: 1
    weight_filler {
      type: "gaussian"
      std: 0.01
    }
    bias_filler {
      type: "constant"
    }
  }
}
layer {
  name: "relu2"
  type: "ReLU"
  bottom: "conv2"
  top: "conv2"
}
layer {
  name: "pool2"
  type: "Pooling"
  bottom: "conv2"
  top: "pool2"
  pooling_param {
    pool: MAX
    kernel_size: 3
    stride: 2
  }
}
layer {
  name: "conv3"
  type: "Convolution"
  bottom: "pool2"
  top: "conv3"
  param {
    lr_mult: 1
  }
  param {
    lr_mult: 2
  }
  convolution_param {
    num_output: 128
    pad: 2
    kernel_size: 5
    stride: 1
    weight_filler {
      type: "gaussian"
      std: 0.01
    }
    bias_filler {
      type: "constant"
    }
  }
}
layer {
  name: "relu3"
  type: "ReLU"
  bottom: "conv3"
  top: "conv3"
}
layer {
  name: "conv4"
  type: "Convolution"
  bottom: "conv3"
  top: "conv4"
  param {
    lr_mult: 1
  }
  param {
    lr_mult: 2
  }
  convolution_param {
    num_output: 128
    pad: 2
    kernel_size: 5
    stride: 1
    weight_filler {
      type: "gaussian"
      std: 0.01
    }
    bias_filler {
      type: "constant"
    }
  }
}
layer {
  name: "relu4"
  type: "ReLU"
  bottom: "conv4"
  top: "conv4"
}
layer {
  name: "conv5"
  type: "Convolution"
  bottom: "conv4"
  top: "conv5"
  param {
    lr_mult: 1
  }
  param {
    lr_mult: 2
  }
  convolution_param {
    num_output: 128
    pad: 2
    kernel_size: 5
    stride: 1
    weight_filler {
      type: "gaussian"
      std: 0.01
    }
    bias_filler {
      type: "constant"
    }
  }
}
layer {
  name: "relu5"
  type: "ReLU"
  bottom: "conv5"
  top: "conv5"
}
layer {
  name: "pool5"
  type: "Pooling"
  bottom: "conv5"
  top: "pool5"
  pooling_param {
    pool: AVE
    kernel_size: 3
    stride: 2
  }
}
layer {
  name: "ip1"
  type: "InnerProduct"
  bottom: "pool5"
  top: "ip1"
  param {
    lr_mult: 1
  }
  param {
    lr_mult: 2
  }
  inner_product_param {
    num_output: 1024
    weight_filler {
      type: "gaussian"
      std: 0.1
    }
    bias_filler {
      type: "constant"
    }
  }
}
layer {
  name: "ip2"
  type: "InnerProduct"
  bottom: "ip1"
  top: "ip2"
  param {
    lr_mult: 1
  }
  param {
    lr_mult: 2
  }
  inner_product_param {
    num_output: 512
    weight_filler {
      type: "gaussian"
      std: 0.1
    }
    bias_filler {
      type: "constant"
    }
  }
}
layer {
  name: "ip3"
  type: "InnerProduct"
  bottom: "ip2"
  top: "ip3"
  param {
    lr_mult: 1
  }
  param {
    lr_mult: 2
  }
  inner_product_param {
    num_output: 1
    weight_filler {
      type: "gaussian"
      std: 0.1
    }
    bias_filler {
      type: "constant"
    }
  }
}
layer {
  name: "loss"
  type: "HuberLoss"
  bottom: "ip3"
  bottom: "label"
  top: "loss"
  include {
    phase: TRAIN
  }
}
I0506 07:36:06.353099 20528 layer_factory.hpp:77] Creating layer parameters
I0506 07:36:06.353112 20528 net.cpp:94] Creating Layer parameters
I0506 07:36:06.353116 20528 net.cpp:409] parameters -> data
I0506 07:36:06.353127 20528 net.cpp:409] parameters -> label
I0506 07:36:06.353134 20528 hdf5_data_layer.cpp:79] Loading list of HDF5 filenames from: /home/purduethu/scratch/radon/d/deng106/CNNStatisticalModel/distributions/input/50_distributions_100_sample_size_train-parameters-path.txt
I0506 07:36:06.353149 20528 hdf5_data_layer.cpp:93] Number of HDF5 files: 1
I0506 07:36:06.353701 20528 hdf5.cpp:32] Datatype class: H5T_FLOAT
I0506 07:36:06.516794 20528 net.cpp:144] Setting up parameters
I0506 07:36:06.516826 20528 net.cpp:151] Top shape: 20 1 10 10 (2000)
I0506 07:36:06.516832 20528 net.cpp:151] Top shape: 20 (20)
I0506 07:36:06.516836 20528 net.cpp:159] Memory required for data: 8080
I0506 07:36:06.516842 20528 layer_factory.hpp:77] Creating layer conv1
I0506 07:36:06.516863 20528 net.cpp:94] Creating Layer conv1
I0506 07:36:06.516868 20528 net.cpp:435] conv1 <- data
I0506 07:36:06.516875 20528 net.cpp:409] conv1 -> conv1
I0506 07:36:06.521095 20528 net.cpp:144] Setting up conv1
I0506 07:36:06.521109 20528 net.cpp:151] Top shape: 20 64 10 10 (128000)
I0506 07:36:06.521113 20528 net.cpp:159] Memory required for data: 520080
I0506 07:36:06.521123 20528 layer_factory.hpp:77] Creating layer relu1
I0506 07:36:06.521131 20528 net.cpp:94] Creating Layer relu1
I0506 07:36:06.521134 20528 net.cpp:435] relu1 <- conv1
I0506 07:36:06.521139 20528 net.cpp:396] relu1 -> conv1 (in-place)
I0506 07:36:06.521153 20528 net.cpp:144] Setting up relu1
I0506 07:36:06.521158 20528 net.cpp:151] Top shape: 20 64 10 10 (128000)
I0506 07:36:06.521162 20528 net.cpp:159] Memory required for data: 1032080
I0506 07:36:06.521164 20528 layer_factory.hpp:77] Creating layer conv2
I0506 07:36:06.521173 20528 net.cpp:94] Creating Layer conv2
I0506 07:36:06.521176 20528 net.cpp:435] conv2 <- conv1
I0506 07:36:06.521181 20528 net.cpp:409] conv2 -> conv2
I0506 07:36:06.527258 20528 net.cpp:144] Setting up conv2
I0506 07:36:06.527273 20528 net.cpp:151] Top shape: 20 64 10 10 (128000)
I0506 07:36:06.527277 20528 net.cpp:159] Memory required for data: 1544080
I0506 07:36:06.527285 20528 layer_factory.hpp:77] Creating layer relu2
I0506 07:36:06.527292 20528 net.cpp:94] Creating Layer relu2
I0506 07:36:06.527295 20528 net.cpp:435] relu2 <- conv2
I0506 07:36:06.527300 20528 net.cpp:396] relu2 -> conv2 (in-place)
I0506 07:36:06.527307 20528 net.cpp:144] Setting up relu2
I0506 07:36:06.527312 20528 net.cpp:151] Top shape: 20 64 10 10 (128000)
I0506 07:36:06.527315 20528 net.cpp:159] Memory required for data: 2056080
I0506 07:36:06.527318 20528 layer_factory.hpp:77] Creating layer pool2
I0506 07:36:06.527324 20528 net.cpp:94] Creating Layer pool2
I0506 07:36:06.527328 20528 net.cpp:435] pool2 <- conv2
I0506 07:36:06.527333 20528 net.cpp:409] pool2 -> pool2
I0506 07:36:06.527380 20528 net.cpp:144] Setting up pool2
I0506 07:36:06.527389 20528 net.cpp:151] Top shape: 20 64 5 5 (32000)
I0506 07:36:06.527391 20528 net.cpp:159] Memory required for data: 2184080
I0506 07:36:06.527395 20528 layer_factory.hpp:77] Creating layer conv3
I0506 07:36:06.527403 20528 net.cpp:94] Creating Layer conv3
I0506 07:36:06.527412 20528 net.cpp:435] conv3 <- pool2
I0506 07:36:06.527418 20528 net.cpp:409] conv3 -> conv3
I0506 07:36:06.535619 20528 net.cpp:144] Setting up conv3
I0506 07:36:06.535631 20528 net.cpp:151] Top shape: 20 128 5 5 (64000)
I0506 07:36:06.535635 20528 net.cpp:159] Memory required for data: 2440080
I0506 07:36:06.535645 20528 layer_factory.hpp:77] Creating layer relu3
I0506 07:36:06.535650 20528 net.cpp:94] Creating Layer relu3
I0506 07:36:06.535655 20528 net.cpp:435] relu3 <- conv3
I0506 07:36:06.535660 20528 net.cpp:396] relu3 -> conv3 (in-place)
I0506 07:36:06.535666 20528 net.cpp:144] Setting up relu3
I0506 07:36:06.535670 20528 net.cpp:151] Top shape: 20 128 5 5 (64000)
I0506 07:36:06.535673 20528 net.cpp:159] Memory required for data: 2696080
I0506 07:36:06.535677 20528 layer_factory.hpp:77] Creating layer conv4
I0506 07:36:06.535686 20528 net.cpp:94] Creating Layer conv4
I0506 07:36:06.535689 20528 net.cpp:435] conv4 <- conv3
I0506 07:36:06.535694 20528 net.cpp:409] conv4 -> conv4
I0506 07:36:06.550732 20528 net.cpp:144] Setting up conv4
I0506 07:36:06.550746 20528 net.cpp:151] Top shape: 20 128 5 5 (64000)
I0506 07:36:06.550750 20528 net.cpp:159] Memory required for data: 2952080
I0506 07:36:06.550756 20528 layer_factory.hpp:77] Creating layer relu4
I0506 07:36:06.550762 20528 net.cpp:94] Creating Layer relu4
I0506 07:36:06.550766 20528 net.cpp:435] relu4 <- conv4
I0506 07:36:06.550771 20528 net.cpp:396] relu4 -> conv4 (in-place)
I0506 07:36:06.550778 20528 net.cpp:144] Setting up relu4
I0506 07:36:06.550783 20528 net.cpp:151] Top shape: 20 128 5 5 (64000)
I0506 07:36:06.550786 20528 net.cpp:159] Memory required for data: 3208080
I0506 07:36:06.550789 20528 layer_factory.hpp:77] Creating layer conv5
I0506 07:36:06.550797 20528 net.cpp:94] Creating Layer conv5
I0506 07:36:06.550801 20528 net.cpp:435] conv5 <- conv4
I0506 07:36:06.550806 20528 net.cpp:409] conv5 -> conv5
I0506 07:36:06.565239 20528 net.cpp:144] Setting up conv5
I0506 07:36:06.565253 20528 net.cpp:151] Top shape: 20 128 5 5 (64000)
I0506 07:36:06.565258 20528 net.cpp:159] Memory required for data: 3464080
I0506 07:36:06.565266 20528 layer_factory.hpp:77] Creating layer relu5
I0506 07:36:06.565273 20528 net.cpp:94] Creating Layer relu5
I0506 07:36:06.565275 20528 net.cpp:435] relu5 <- conv5
I0506 07:36:06.565281 20528 net.cpp:396] relu5 -> conv5 (in-place)
I0506 07:36:06.565289 20528 net.cpp:144] Setting up relu5
I0506 07:36:06.565292 20528 net.cpp:151] Top shape: 20 128 5 5 (64000)
I0506 07:36:06.565296 20528 net.cpp:159] Memory required for data: 3720080
I0506 07:36:06.565299 20528 layer_factory.hpp:77] Creating layer pool5
I0506 07:36:06.565304 20528 net.cpp:94] Creating Layer pool5
I0506 07:36:06.565307 20528 net.cpp:435] pool5 <- conv5
I0506 07:36:06.565311 20528 net.cpp:409] pool5 -> pool5
I0506 07:36:06.565351 20528 net.cpp:144] Setting up pool5
I0506 07:36:06.565358 20528 net.cpp:151] Top shape: 20 128 2 2 (10240)
I0506 07:36:06.565361 20528 net.cpp:159] Memory required for data: 3761040
I0506 07:36:06.565364 20528 layer_factory.hpp:77] Creating layer ip1
I0506 07:36:06.565374 20528 net.cpp:94] Creating Layer ip1
I0506 07:36:06.565378 20528 net.cpp:435] ip1 <- pool5
I0506 07:36:06.565383 20528 net.cpp:409] ip1 -> ip1
I0506 07:36:06.579452 20528 net.cpp:144] Setting up ip1
I0506 07:36:06.579466 20528 net.cpp:151] Top shape: 20 1024 (20480)
I0506 07:36:06.579470 20528 net.cpp:159] Memory required for data: 3842960
I0506 07:36:06.579476 20528 layer_factory.hpp:77] Creating layer ip2
I0506 07:36:06.579483 20528 net.cpp:94] Creating Layer ip2
I0506 07:36:06.579488 20528 net.cpp:435] ip2 <- ip1
I0506 07:36:06.579493 20528 net.cpp:409] ip2 -> ip2
I0506 07:36:06.592767 20528 net.cpp:144] Setting up ip2
I0506 07:36:06.592779 20528 net.cpp:151] Top shape: 20 512 (10240)
I0506 07:36:06.592783 20528 net.cpp:159] Memory required for data: 3883920
I0506 07:36:06.592789 20528 layer_factory.hpp:77] Creating layer ip3
I0506 07:36:06.592797 20528 net.cpp:94] Creating Layer ip3
I0506 07:36:06.592800 20528 net.cpp:435] ip3 <- ip2
I0506 07:36:06.592811 20528 net.cpp:409] ip3 -> ip3
I0506 07:36:06.592924 20528 net.cpp:144] Setting up ip3
I0506 07:36:06.592932 20528 net.cpp:151] Top shape: 20 1 (20)
I0506 07:36:06.592936 20528 net.cpp:159] Memory required for data: 3884000
I0506 07:36:06.592941 20528 layer_factory.hpp:77] Creating layer loss
I0506 07:36:06.592948 20528 net.cpp:94] Creating Layer loss
I0506 07:36:06.592952 20528 net.cpp:435] loss <- ip3
I0506 07:36:06.592957 20528 net.cpp:435] loss <- label
I0506 07:36:06.592962 20528 net.cpp:409] loss -> loss
I0506 07:36:06.593010 20528 net.cpp:144] Setting up loss
…
I0506 07:36:06.699365 20528 net.cpp:323] The NetState phase (0) differed from the phase (1) specified by a rule in layer intercept
I0506 07:36:06.699380 20528 net.cpp:323] The NetState phase (0) differed from the phase (1) specified by a rule in layer accuracy
I0506 07:36:06.699465 20528 net.cpp:52] Initializing net from parameters: 
state {
  phase: TRAIN
}
layer {
  name: "parameters"
  type: "HDF5Data"
  top: "data"
  top: "label"
  include {
    phase: TRAIN
  }
  hdf5_data_param {
    source: "/home/purduethu/scratch/radon/d/deng106/CNNStatisticalModel/distributions/input/50_distributions_100_sample_size_train-distributions-path.txt"
    batch_size: 20
  }
}
layer {
  name: "conv1"
  type: "Convolution"
  bottom: "data"
  top: "conv1"
  param {
    lr_mult: 1
  }
  param {
    lr_mult: 2
  }
  convolution_param {
    num_output: 64
    pad: 2
    kernel_size: 5
    stride: 1
    weight_filler {
      type: "gaussian"
      std: 0.0001
    }
    bias_filler {
      type: "constant"
    }
  }
}
layer {
  name: "relu1"
  type: "ReLU"
  bottom: "conv1"
  top: "conv1"
}
layer {
  name: "conv2"
  type: "Convolution"
  bottom: "conv1"
  top: "conv2"
  param {
    lr_mult: 1
  }
  param {
    lr_mult: 2
  }
  convolution_param {
    num_output: 64
    pad: 2
    kernel_size: 5
    stride: 1
    weight_filler {
      type: "gaussian"
      std: 0.01
    }
    bias_filler {
      type: "constant"
    }
  }
}
layer {
  name: "relu2"
  type: "ReLU"
  bottom: "conv2"
  top: "conv2"
}
layer {
  name: "pool2"
  type: "Pooling"
  bottom: "conv2"
  top: "pool2"
  pooling_param {
    pool: MAX
    kernel_size: 3
    stride: 2
  }
}
layer {
  name: "conv3"
  type: "Convolution"
  bottom: "pool2"
  top: "conv3"
  param {
    lr_mult: 1
  }
  param {
    lr_mult: 2
  }
  convolution_param {
    num_output: 128
    pad: 2
    kernel_size: 5
    stride: 1
    weight_filler {
      type: "gaussian"
      std: 0.01
    }
    bias_filler {
      type: "constant"
    }
  }
}
layer {
  name: "relu3"
  type: "ReLU"
  bottom: "conv3"
  top: "conv3"
}
layer {
  name: "conv4"
  type: "Convolution"
  bottom: "conv3"
  top: "conv4"
  param {
    lr_mult: 1
  }
  param {
    lr_mult: 2
  }
  convolution_param {
    num_output: 128
    pad: 2
    kernel_size: 5
    stride: 1
    weight_filler {
      type: "gaussian"
      std: 0.01
    }
    bias_filler {
      type: "constant"
    }
  }
}
layer {
  name: "relu4"
  type: "ReLU"
  bottom: "conv4"
  top: "conv4"
}
layer {
  name: "conv5"
  type: "Convolution"
  bottom: "conv4"
  top: "conv5"
  param {
    lr_mult: 1
  }
  param {
    lr_mult: 2
  }
  convolution_param {
    num_output: 128
    pad: 2
    kernel_size: 5
    stride: 1
    weight_filler {
      type: "gaussian"
      std: 0.01
    }
    bias_filler {
      type: "constant"
    }
  }
}
layer {
  name: "relu5"
  type: "ReLU"
  bottom: "conv5"
  top: "conv5"
}
layer {
  name: "pool5"
  type: "Pooling"
  bottom: "conv5"
  top: "pool5"
  pooling_param {
    pool: AVE
    kernel_size: 3
    stride: 2
  }
}
layer {
  name: "ip1"
  type: "InnerProduct"
  bottom: "pool5"
  top: "ip1"
  param {
    lr_mult: 1
  }
  param {
    lr_mult: 2
  }
  inner_product_param {
    num_output: 1024
    weight_filler {
      type: "gaussian"
      std: 0.1
    }
    bias_filler {
      type: "constant"
    }
  }
}
layer {
  name: "ip2"
  type: "InnerProduct"
  bottom: "ip1"
  top: "ip2"
  param {
    lr_mult: 1
  }
  param {
    lr_mult: 2
  }
  inner_product_param {
    num_output: 512
    weight_filler {
      type: "gaussian"
      std: 0.1
    }
    bias_filler {
      type: "constant"
    }
  }
}
layer {
  name: "ip3"
  type: "InnerProduct"
  bottom: "ip2"
  top: "ip3"
  param {
    lr_mult: 1
  }
  param {
    lr_mult: 2
  }
  inner_product_param {
    num_output: 50
    weight_filler {
      type: "gaussian"
      std: 0.1
    }
    bias_filler {
      type: "constant"
    }
  }
}
layer {
  name: "loss"
  type: "SoftmaxWithLoss"
  bottom: "ip3"
  bottom: "label"
  top: "loss"
}
I0506 07:36:06.699514 20528 layer_factory.hpp:77] Creating layer parameters
I0506 07:36:06.699523 20528 net.cpp:94] Creating Layer parameters
I0506 07:36:06.699527 20528 net.cpp:409] parameters -> data
I0506 07:36:06.699533 20528 net.cpp:409] parameters -> label
I0506 07:36:06.699540 20528 hdf5_data_layer.cpp:79] Loading list of HDF5 filenames from: /home/purduethu/scratch/radon/d/deng106/CNNStatisticalModel/distributions/input/50_distributions_100_sample_size_train-distributions-path.txt
I0506 07:36:06.699555 20528 hdf5_data_layer.cpp:93] Number of HDF5 files: 1
I0506 07:36:06.853955 20528 hdf5.cpp:35] Datatype class: H5T_INTEGER
I0506 07:36:06.857630 20528 net.cpp:144] Setting up parameters
I0506 07:36:06.857657 20528 net.cpp:151] Top shape: 20 1 10 10 (2000)
I0506 07:36:06.857662 20528 net.cpp:151] Top shape: 20 (20)
I0506 07:36:06.857666 20528 net.cpp:159] Memory required for data: 8080
I0506 07:36:06.857672 20528 layer_factory.hpp:77] Creating layer conv1
I0506 07:36:06.857688 20528 net.cpp:94] Creating Layer conv1
I0506 07:36:06.857693 20528 net.cpp:435] conv1 <- data
I0506 07:36:06.857699 20528 net.cpp:409] conv1 -> conv1
I0506 07:36:06.859597 20528 net.cpp:144] Setting up conv1
I0506 07:36:06.859611 20528 net.cpp:151] Top shape: 20 64 10 10 (128000)
I0506 07:36:06.859616 20528 net.cpp:159] Memory required for data: 520080
I0506 07:36:06.859625 20528 layer_factory.hpp:77] Creating layer relu1
I0506 07:36:06.859632 20528 net.cpp:94] Creating Layer relu1
I0506 07:36:06.859637 20528 net.cpp:435] relu1 <- conv1
I0506 07:36:06.859642 20528 net.cpp:396] relu1 -> conv1 (in-place)
I0506 07:36:06.859648 20528 net.cpp:144] Setting up relu1
I0506 07:36:06.859653 20528 net.cpp:151] Top shape: 20 64 10 10 (128000)
I0506 07:36:06.859657 20528 net.cpp:159] Memory required for data: 1032080
I0506 07:36:06.859660 20528 layer_factory.hpp:77] Creating layer conv2
I0506 07:36:06.859668 20528 net.cpp:94] Creating Layer conv2
I0506 07:36:06.859671 20528 net.cpp:435] conv2 <- conv1
I0506 07:36:06.859676 20528 net.cpp:409] conv2 -> conv2
I0506 07:36:06.865018 20528 net.cpp:144] Setting up conv2
I0506 07:36:06.865032 20528 net.cpp:151] Top shape: 20 64 10 10 (128000)
I0506 07:36:06.865036 20528 net.cpp:159] Memory required for data: 1544080
I0506 07:36:06.865044 20528 layer_factory.hpp:77] Creating layer relu2
I0506 07:36:06.865051 20528 net.cpp:94] Creating Layer relu2
I0506 07:36:06.865054 20528 net.cpp:435] relu2 <- conv2
I0506 07:36:06.865059 20528 net.cpp:396] relu2 -> conv2 (in-place)
I0506 07:36:06.865067 20528 net.cpp:144] Setting up relu2
I0506 07:36:06.865072 20528 net.cpp:151] Top shape: 20 64 10 10 (128000)
I0506 07:36:06.865074 20528 net.cpp:159] Memory required for data: 2056080
I0506 07:36:06.865077 20528 layer_factory.hpp:77] Creating layer pool2
I0506 07:36:06.865083 20528 net.cpp:94] Creating Layer pool2
I0506 07:36:06.865087 20528 net.cpp:435] pool2 <- conv2
I0506 07:36:06.865090 20528 net.cpp:409] pool2 -> pool2
I0506 07:36:06.865141 20528 net.cpp:144] Setting up pool2
I0506 07:36:06.865149 20528 net.cpp:151] Top shape: 20 64 5 5 (32000)
I0506 07:36:06.865152 20528 net.cpp:159] Memory required for data: 2184080
I0506 07:36:06.865155 20528 layer_factory.hpp:77] Creating layer conv3
I0506 07:36:06.865164 20528 net.cpp:94] Creating Layer conv3
I0506 07:36:06.865166 20528 net.cpp:435] conv3 <- pool2
I0506 07:36:06.865171 20528 net.cpp:409] conv3 -> conv3
I0506 07:36:06.873760 20528 net.cpp:144] Setting up conv3
I0506 07:36:06.873775 20528 net.cpp:151] Top shape: 20 128 5 5 (64000)
I0506 07:36:06.873778 20528 net.cpp:159] Memory required for data: 2440080
I0506 07:36:06.873786 20528 layer_factory.hpp:77] Creating layer relu3
I0506 07:36:06.873792 20528 net.cpp:94] Creating Layer relu3
I0506 07:36:06.873796 20528 net.cpp:435] relu3 <- conv3
I0506 07:36:06.873801 20528 net.cpp:396] relu3 -> conv3 (in-place)
I0506 07:36:06.873814 20528 net.cpp:144] Setting up relu3
I0506 07:36:06.873819 20528 net.cpp:151] Top shape: 20 128 5 5 (64000)
I0506 07:36:06.873822 20528 net.cpp:159] Memory required for data: 2696080
I0506 07:36:06.873826 20528 layer_factory.hpp:77] Creating layer conv4
I0506 07:36:06.873834 20528 net.cpp:94] Creating Layer conv4
I0506 07:36:06.873838 20528 net.cpp:435] conv4 <- conv3
I0506 07:36:06.873843 20528 net.cpp:409] conv4 -> conv4
I0506 07:36:06.888254 20528 net.cpp:144] Setting up conv4
I0506 07:36:06.888268 20528 net.cpp:151] Top shape: 20 128 5 5 (64000)
I0506 07:36:06.888273 20528 net.cpp:159] Memory required for data: 2952080
I0506 07:36:06.888278 20528 layer_factory.hpp:77] Creating layer relu4
I0506 07:36:06.888284 20528 net.cpp:94] Creating Layer relu4
I0506 07:36:06.888288 20528 net.cpp:435] relu4 <- conv4
I0506 07:36:06.888293 20528 net.cpp:396] relu4 -> conv4 (in-place)
I0506 07:36:06.888300 20528 net.cpp:144] Setting up relu4
I0506 07:36:06.888305 20528 net.cpp:151] Top shape: 20 128 5 5 (64000)
I0506 07:36:06.888309 20528 net.cpp:159] Memory required for data: 3208080
I0506 07:36:06.888311 20528 layer_factory.hpp:77] Creating layer conv5
I0506 07:36:06.888319 20528 net.cpp:94] Creating Layer conv5
I0506 07:36:06.888322 20528 net.cpp:435] conv5 <- conv4
I0506 07:36:06.888327 20528 net.cpp:409] conv5 -> conv5
I0506 07:36:06.903326 20528 net.cpp:144] Setting up conv5
I0506 07:36:06.903339 20528 net.cpp:151] Top shape: 20 128 5 5 (64000)
I0506 07:36:06.903343 20528 net.cpp:159] Memory required for data: 3464080
I0506 07:36:06.903352 20528 layer_factory.hpp:77] Creating layer relu5
I0506 07:36:06.903357 20528 net.cpp:94] Creating Layer relu5
I0506 07:36:06.903362 20528 net.cpp:435] relu5 <- conv5
I0506 07:36:06.903367 20528 net.cpp:396] relu5 -> conv5 (in-place)
I0506 07:36:06.903373 20528 net.cpp:144] Setting up relu5
I0506 07:36:06.903378 20528 net.cpp:151] Top shape: 20 128 5 5 (64000)
I0506 07:36:06.903381 20528 net.cpp:159] Memory required for data: 3720080
I0506 07:36:06.903384 20528 layer_factory.hpp:77] Creating layer pool5
I0506 07:36:06.903389 20528 net.cpp:94] Creating Layer pool5
I0506 07:36:06.903393 20528 net.cpp:435] pool5 <- conv5
I0506 07:36:06.903398 20528 net.cpp:409] pool5 -> pool5
I0506 07:36:06.903434 20528 net.cpp:144] Setting up pool5
I0506 07:36:06.903440 20528 net.cpp:151] Top shape: 20 128 2 2 (10240)
I0506 07:36:06.903443 20528 net.cpp:159] Memory required for data: 3761040
I0506 07:36:06.903447 20528 layer_factory.hpp:77] Creating layer ip1
I0506 07:36:06.903455 20528 net.cpp:94] Creating Layer ip1
I0506 07:36:06.903457 20528 net.cpp:435] ip1 <- pool5
I0506 07:36:06.903462 20528 net.cpp:409] ip1 -> ip1
I0506 07:36:06.916501 20528 net.cpp:144] Setting up ip1
I0506 07:36:06.916513 20528 net.cpp:151] Top shape: 20 1024 (20480)
I0506 07:36:06.916517 20528 net.cpp:159] Memory required for data: 3842960
I0506 07:36:06.916523 20528 layer_factory.hpp:77] Creating layer ip2
I0506 07:36:06.916530 20528 net.cpp:94] Creating Layer ip2
I0506 07:36:06.916533 20528 net.cpp:435] ip2 <- ip1
I0506 07:36:06.916539 20528 net.cpp:409] ip2 -> ip2
I0506 07:36:06.929605 20528 net.cpp:144] Setting up ip2
I0506 07:36:06.929617 20528 net.cpp:151] Top shape: 20 512 (10240)
I0506 07:36:06.929621 20528 net.cpp:159] Memory required for data: 3883920
I0506 07:36:06.929627 20528 layer_factory.hpp:77] Creating layer ip3
I0506 07:36:06.929633 20528 net.cpp:94] Creating Layer ip3
I0506 07:36:06.929637 20528 net.cpp:435] ip3 <- ip2
I0506 07:36:06.929642 20528 net.cpp:409] ip3 -> ip3
I0506 07:36:06.931128 20528 net.cpp:144] Setting up ip3
I0506 07:36:06.931140 20528 net.cpp:151] Top shape: 20 50 (1000)
I0506 07:36:06.931144 20528 net.cpp:159] Memory required for data: 3887920
I0506 07:36:06.931150 20528 layer_factory.hpp:77] Creating layer loss
I0506 07:36:06.931159 20528 net.cpp:94] Creating Layer loss
I0506 07:36:06.931162 20528 net.cpp:435] loss <- ip3
I0506 07:36:06.931167 20528 net.cpp:435] loss <- label
I0506 07:36:06.931171 20528 net.cpp:409] loss -> loss
I0506 07:36:06.931180 20528 layer_factory.hpp:77] Creating layer loss
…
I0506 07:36:06.931694 20528 solver.cpp:181] Creating test net (#0) specified by net file: ./protocol/dis_50_100_dimension.protocol_distribution
I0506 07:36:06.931720 20528 net.cpp:323] The NetState phase (1) differed from the phase (0) specified by a rule in layer parameters
I0506 07:36:06.931810 20528 net.cpp:52] Initializing net from parameters: 
state {
  phase: TEST
}
layer {
  name: "intercept"
  type: "HDF5Data"
  top: "data"
  top: "label"
  include {
    phase: TEST
  }
  hdf5_data_param {
    source: "/home/purduethu/scratch/radon/d/deng106/CNNStatisticalModel/distributions/input/50_distributions_100_sample_size_test-distributions-path.txt"
    batch_size: 20
  }
}
layer {
  name: "conv1"
  type: "Convolution"
  bottom: "data"
  top: "conv1"
  param {
    lr_mult: 1
  }
  param {
    lr_mult: 2
  }
  convolution_param {
    num_output: 64
    pad: 2
    kernel_size: 5
    stride: 1
    weight_filler {
      type: "gaussian"
      std: 0.0001
    }
    bias_filler {
      type: "constant"
    }
  }
}
layer {
  name: "relu1"
  type: "ReLU"
  bottom: "conv1"
  top: "conv1"
}
layer {
  name: "conv2"
  type: "Convolution"
  bottom: "conv1"
  top: "conv2"
  param {
    lr_mult: 1
  }
  param {
    lr_mult: 2
  }
  convolution_param {
    num_output: 64
    pad: 2
    kernel_size: 5
    stride: 1
    weight_filler {
      type: "gaussian"
      std: 0.01
    }
    bias_filler {
      type: "constant"
    }
  }
}
layer {
  name: "relu2"
  type: "ReLU"
  bottom: "conv2"
  top: "conv2"
}
layer {
  name: "pool2"
  type: "Pooling"
  bottom: "conv2"
  top: "pool2"
  pooling_param {
    pool: MAX
    kernel_size: 3
    stride: 2
  }
}
layer {
  name: "conv3"
  type: "Convolution"
  bottom: "pool2"
  top: "conv3"
  param {
    lr_mult: 1
  }
  param {
    lr_mult: 2
  }
  convolution_param {
    num_output: 128
    pad: 2
    kernel_size: 5
    stride: 1
    weight_filler {
      type: "gaussian"
      std: 0.01
    }
    bias_filler {
      type: "constant"
    }
  }
}
layer {
  name: "relu3"
  type: "ReLU"
  bottom: "conv3"
  top: "conv3"
}
layer {
  name: "conv4"
  type: "Convolution"
  bottom: "conv3"
  top: "conv4"
  param {
    lr_mult: 1
  }
  param {
    lr_mult: 2
  }
  convolution_param {
    num_output: 128
    pad: 2
    kernel_size: 5
    stride: 1
    weight_filler {
      type: "gaussian"
      std: 0.01
    }
    bias_filler {
      type: "constant"
    }
  }
}
layer {
  name: "relu4"
  type: "ReLU"
  bottom: "conv4"
  top: "conv4"
}
layer {
  name: "conv5"
  type: "Convolution"
  bottom: "conv4"
  top: "conv5"
  param {
    lr_mult: 1
  }
  param {
    lr_mult: 2
  }
  convolution_param {
    num_output: 128
    pad: 2
    kernel_size: 5
    stride: 1
    weight_filler {
      type: "gaussian"
      std: 0.01
    }
    bias_filler {
      type: "constant"
    }
  }
}
layer {
  name: "relu5"
  type: "ReLU"
  bottom: "conv5"
  top: "conv5"
}
layer {
  name: "pool5"
  type: "Pooling"
  bottom: "conv5"
  top: "pool5"
  pooling_param {
    pool: AVE
    kernel_size: 3
    stride: 2
  }
}
layer {
  name: "ip1"
  type: "InnerProduct"
  bottom: "pool5"
  top: "ip1"
  param {
    lr_mult: 1
  }
  param {
    lr_mult: 2
  }
  inner_product_param {
    num_output: 1024
    weight_filler {
      type: "gaussian"
      std: 0.1
    }
    bias_filler {
      type: "constant"
    }
  }
}
layer {
  name: "ip2"
  type: "InnerProduct"
  bottom: "ip1"
  top: "ip2"
  param {
    lr_mult: 1
  }
  param {
    lr_mult: 2
  }
  inner_product_param {
    num_output: 512
    weight_filler {
      type: "gaussian"
      std: 0.1
    }
    bias_filler {
      type: "constant"
    }
  }
}
layer {
  name: "ip3"
  type: "InnerProduct"
  bottom: "ip2"
  top: "ip3"
  param {
    lr_mult: 1
  }
  param {
    lr_mult: 2
  }
  inner_product_param {
    num_output: 50
    weight_filler {
      type: "gaussian"
      std: 0.1
    }
    bias_filler {
      type: "constant"
    }
  }
}
layer {
  name: "accuracy"
  type: "Accuracy"
  bottom: "ip3"
  bottom: "label"
  top: "accuracy"
  include {
    phase: TEST
  }
}
layer {
  name: "loss"
  type: "SoftmaxWithLoss"
  bottom: "ip3"
  bottom: "label"
  top: "loss"
}
I0506 07:36:06.931874 20528 layer_factory.hpp:77] Creating layer intercept
I0506 07:36:06.931881 20528 net.cpp:94] Creating Layer intercept
I0506 07:36:06.931885 20528 net.cpp:409] intercept -> data
I0506 07:36:06.931892 20528 net.cpp:409] intercept -> label
I0506 07:36:06.931898 20528 hdf5_data_layer.cpp:79] Loading list of HDF5 filenames from: /home/purduethu/scratch/radon/d/deng106/CNNStatisticalModel/distributions/input/50_distributions_100_sample_size_test-distributions-path.txt
I0506 07:36:06.931917 20528 hdf5_data_layer.cpp:93] Number of HDF5 files: 1
I0506 07:36:06.972239 20528 net.cpp:144] Setting up intercept
I0506 07:36:06.972273 20528 net.cpp:151] Top shape: 20 1 10 10 (2000)
I0506 07:36:06.972278 20528 net.cpp:151] Top shape: 20 (20)
I0506 07:36:06.972281 20528 net.cpp:159] Memory required for data: 8080
I0506 07:36:06.972288 20528 layer_factory.hpp:77] Creating layer label_intercept_1_split
I0506 07:36:06.972307 20528 net.cpp:94] Creating Layer label_intercept_1_split
I0506 07:36:06.972311 20528 net.cpp:435] label_intercept_1_split <- label
I0506 07:36:06.972318 20528 net.cpp:409] label_intercept_1_split -> label_intercept_1_split_0
I0506 07:36:06.972326 20528 net.cpp:409] label_intercept_1_split -> label_intercept_1_split_1
I0506 07:36:06.972368 20528 net.cpp:144] Setting up label_intercept_1_split
I0506 07:36:06.972374 20528 net.cpp:151] Top shape: 20 (20)
I0506 07:36:06.972378 20528 net.cpp:151] Top shape: 20 (20)
I0506 07:36:06.972380 20528 net.cpp:159] Memory required for data: 8240
I0506 07:36:06.972384 20528 layer_factory.hpp:77] Creating layer conv1
I0506 07:36:06.972395 20528 net.cpp:94] Creating Layer conv1
I0506 07:36:06.972398 20528 net.cpp:435] conv1 <- data
I0506 07:36:06.972404 20528 net.cpp:409] conv1 -> conv1
I0506 07:36:06.973341 20528 net.cpp:144] Setting up conv1
I0506 07:36:06.973356 20528 net.cpp:151] Top shape: 20 64 10 10 (128000)
I0506 07:36:06.973359 20528 net.cpp:159] Memory required for data: 520240
I0506 07:36:06.973368 20528 layer_factory.hpp:77] Creating layer relu1
I0506 07:36:06.973376 20528 net.cpp:94] Creating Layer relu1
I0506 07:36:06.973379 20528 net.cpp:435] relu1 <- conv1
I0506 07:36:06.973383 20528 net.cpp:396] relu1 -> conv1 (in-place)
I0506 07:36:06.973392 20528 net.cpp:144] Setting up relu1
I0506 07:36:06.973395 20528 net.cpp:151] Top shape: 20 64 10 10 (128000)
I0506 07:36:06.973407 20528 net.cpp:159] Memory required for data: 1032240
I0506 07:36:06.973410 20528 layer_factory.hpp:77] Creating layer conv2
I0506 07:36:06.973418 20528 net.cpp:94] Creating Layer conv2
I0506 07:36:06.973423 20528 net.cpp:435] conv2 <- conv1
I0506 07:36:06.973428 20528 net.cpp:409] conv2 -> conv2
I0506 07:36:06.977516 20528 net.cpp:144] Setting up conv2
I0506 07:36:06.977530 20528 net.cpp:151] Top shape: 20 64 10 10 (128000)
I0506 07:36:06.977535 20528 net.cpp:159] Memory required for data: 1544240
I0506 07:36:06.977542 20528 layer_factory.hpp:77] Creating layer relu2
I0506 07:36:06.977548 20528 net.cpp:94] Creating Layer relu2
I0506 07:36:06.977551 20528 net.cpp:435] relu2 <- conv2
I0506 07:36:06.977556 20528 net.cpp:396] relu2 -> conv2 (in-place)
I0506 07:36:06.977562 20528 net.cpp:144] Setting up relu2
I0506 07:36:06.977567 20528 net.cpp:151] Top shape: 20 64 10 10 (128000)
I0506 07:36:06.977571 20528 net.cpp:159] Memory required for data: 2056240
I0506 07:36:06.977573 20528 layer_factory.hpp:77] Creating layer pool2
I0506 07:36:06.977579 20528 net.cpp:94] Creating Layer pool2
I0506 07:36:06.977583 20528 net.cpp:435] pool2 <- conv2
I0506 07:36:06.977588 20528 net.cpp:409] pool2 -> pool2
I0506 07:36:06.977643 20528 net.cpp:144] Setting up pool2
I0506 07:36:06.977650 20528 net.cpp:151] Top shape: 20 64 5 5 (32000)
I0506 07:36:06.977653 20528 net.cpp:159] Memory required for data: 2184240
I0506 07:36:06.977656 20528 layer_factory.hpp:77] Creating layer conv3
I0506 07:36:06.977665 20528 net.cpp:94] Creating Layer conv3
I0506 07:36:06.977669 20528 net.cpp:435] conv3 <- pool2
I0506 07:36:06.977675 20528 net.cpp:409] conv3 -> conv3
I0506 07:36:06.983726 20528 net.cpp:144] Setting up conv3
I0506 07:36:06.983738 20528 net.cpp:151] Top shape: 20 128 5 5 (64000)
I0506 07:36:06.983742 20528 net.cpp:159] Memory required for data: 2440240
I0506 07:36:06.983750 20528 layer_factory.hpp:77] Creating layer relu3
I0506 07:36:06.983757 20528 net.cpp:94] Creating Layer relu3
I0506 07:36:06.983760 20528 net.cpp:435] relu3 <- conv3
I0506 07:36:06.983765 20528 net.cpp:396] relu3 -> conv3 (in-place)
I0506 07:36:06.983772 20528 net.cpp:144] Setting up relu3
I0506 07:36:06.983777 20528 net.cpp:151] Top shape: 20 128 5 5 (64000)
I0506 07:36:06.983780 20528 net.cpp:159] Memory required for data: 2696240
I0506 07:36:06.983783 20528 layer_factory.hpp:77] Creating layer conv4
I0506 07:36:06.983793 20528 net.cpp:94] Creating Layer conv4
I0506 07:36:06.983796 20528 net.cpp:435] conv4 <- conv3
I0506 07:36:06.983801 20528 net.cpp:409] conv4 -> conv4
I0506 07:36:06.996356 20528 net.cpp:144] Setting up conv4
I0506 07:36:06.996369 20528 net.cpp:151] Top shape: 20 128 5 5 (64000)
I0506 07:36:06.996373 20528 net.cpp:159] Memory required for data: 2952240
I0506 07:36:06.996381 20528 layer_factory.hpp:77] Creating layer relu4
I0506 07:36:06.996387 20528 net.cpp:94] Creating Layer relu4
I0506 07:36:06.996390 20528 net.cpp:435] relu4 <- conv4
I0506 07:36:06.996397 20528 net.cpp:396] relu4 -> conv4 (in-place)
I0506 07:36:06.996403 20528 net.cpp:144] Setting up relu4
I0506 07:36:06.996407 20528 net.cpp:151] Top shape: 20 128 5 5 (64000)
I0506 07:36:06.996410 20528 net.cpp:159] Memory required for data: 3208240
I0506 07:36:06.996414 20528 layer_factory.hpp:77] Creating layer conv5
I0506 07:36:06.996423 20528 net.cpp:94] Creating Layer conv5
I0506 07:36:06.996426 20528 net.cpp:435] conv5 <- conv4
I0506 07:36:06.996431 20528 net.cpp:409] conv5 -> conv5
I0506 07:36:07.008942 20528 net.cpp:144] Setting up conv5
I0506 07:36:07.008956 20528 net.cpp:151] Top shape: 20 128 5 5 (64000)
I0506 07:36:07.008960 20528 net.cpp:159] Memory required for data: 3464240
I0506 07:36:07.008970 20528 layer_factory.hpp:77] Creating layer relu5
I0506 07:36:07.008975 20528 net.cpp:94] Creating Layer relu5
I0506 07:36:07.008978 20528 net.cpp:435] relu5 <- conv5
I0506 07:36:07.008983 20528 net.cpp:396] relu5 -> conv5 (in-place)
I0506 07:36:07.008991 20528 net.cpp:144] Setting up relu5
I0506 07:36:07.008994 20528 net.cpp:151] Top shape: 20 128 5 5 (64000)
I0506 07:36:07.009001 20528 net.cpp:159] Memory required for data: 3720240
I0506 07:36:07.009006 20528 layer_factory.hpp:77] Creating layer pool5
I0506 07:36:07.009012 20528 net.cpp:94] Creating Layer pool5
I0506 07:36:07.009016 20528 net.cpp:435] pool5 <- conv5
I0506 07:36:07.009021 20528 net.cpp:409] pool5 -> pool5
I0506 07:36:07.009058 20528 net.cpp:144] Setting up pool5
I0506 07:36:07.009066 20528 net.cpp:151] Top shape: 20 128 2 2 (10240)
I0506 07:36:07.009069 20528 net.cpp:159] Memory required for data: 3761200
I0506 07:36:07.009073 20528 layer_factory.hpp:77] Creating layer ip1
I0506 07:36:07.009080 20528 net.cpp:94] Creating Layer ip1
I0506 07:36:07.009083 20528 net.cpp:435] ip1 <- pool5
I0506 07:36:07.009088 20528 net.cpp:409] ip1 -> ip1
I0506 07:36:07.022161 20528 net.cpp:144] Setting up ip1
I0506 07:36:07.022176 20528 net.cpp:151] Top shape: 20 1024 (20480)
I0506 07:36:07.022179 20528 net.cpp:159] Memory required for data: 3843120
I0506 07:36:07.022186 20528 layer_factory.hpp:77] Creating layer ip2
I0506 07:36:07.022192 20528 net.cpp:94] Creating Layer ip2
I0506 07:36:07.022195 20528 net.cpp:435] ip2 <- ip1
I0506 07:36:07.022202 20528 net.cpp:409] ip2 -> ip2
I0506 07:36:07.035279 20528 net.cpp:144] Setting up ip2
I0506 07:36:07.035291 20528 net.cpp:151] Top shape: 20 512 (10240)
I0506 07:36:07.035295 20528 net.cpp:159] Memory required for data: 3884080
I0506 07:36:07.035300 20528 layer_factory.hpp:77] Creating layer ip3
I0506 07:36:07.035310 20528 net.cpp:94] Creating Layer ip3
I0506 07:36:07.035315 20528 net.cpp:435] ip3 <- ip2
I0506 07:36:07.035320 20528 net.cpp:409] ip3 -> ip3
I0506 07:36:07.036046 20528 net.cpp:144] Setting up ip3
I0506 07:36:07.036054 20528 net.cpp:151] Top shape: 20 50 (1000)
I0506 07:36:07.036057 20528 net.cpp:159] Memory required for data: 3888080
I0506 07:36:07.036062 20528 layer_factory.hpp:77] Creating layer ip3_ip3_0_split
I0506 07:36:07.036069 20528 net.cpp:94] Creating Layer ip3_ip3_0_split
I0506 07:36:07.036072 20528 net.cpp:435] ip3_ip3_0_split <- ip3
I0506 07:36:07.036077 20528 net.cpp:409] ip3_ip3_0_split -> ip3_ip3_0_split_0
I0506 07:36:07.036082 20528 net.cpp:409] ip3_ip3_0_split -> ip3_ip3_0_split_1
I0506 07:36:07.036123 20528 net.cpp:144] Setting up ip3_ip3_0_split
I0506 07:36:07.036130 20528 net.cpp:151] Top shape: 20 50 (1000)
I0506 07:36:07.036134 20528 net.cpp:151] Top shape: 20 50 (1000)
I0506 07:36:07.036137 20528 net.cpp:159] Memory required for data: 3896080
I0506 07:36:07.036140 20528 layer_factory.hpp:77] Creating layer accuracy
I0506 07:36:07.036145 20528 net.cpp:94] Creating Layer accuracy
I0506 07:36:07.036149 20528 net.cpp:435] accuracy <- ip3_ip3_0_split_0
I0506 07:36:07.036154 20528 net.cpp:435] accuracy <- label_intercept_1_split_0
I0506 07:36:07.036157 20528 net.cpp:409] accuracy -> accuracy
…
