…
I0505 02:10:12.807245  2093 net.cpp:323] The NetState phase (0) differed from the phase (1) specified by a rule in layer intercept
I0505 02:10:12.807260  2093 net.cpp:323] The NetState phase (0) differed from the phase (1) specified by a rule in layer accuracy
I0505 02:10:12.807338  2093 net.cpp:52] Initializing net from parameters: 
state {
  phase: TRAIN
}
layer {
  name: "parameters"
  type: "HDF5Data"
  top: "data"
  top: "label"
  include {
    phase: TRAIN
  }
  hdf5_data_param {
    source: "/home/purduethu/scratch/radon/d/deng106/CNNStatisticalModel/distributions/input/5_distributions_900_sample_size_train-distributions-path.txt"
    batch_size: 20
  }
}
layer {
  name: "conv1"
  type: "Convolution"
  bottom: "data"
  top: "conv1"
  param {
    lr_mult: 1
  }
  param {
    lr_mult: 2
  }
  convolution_param {
    num_output: 64
    pad: 2
    kernel_size: 5
    stride: 1
    weight_filler {
      type: "gaussian"
      std: 0.0001
    }
    bias_filler {
      type: "constant"
    }
  }
}
layer {
  name: "relu1"
  type: "ReLU"
  bottom: "conv1"
  top: "conv1"
}
layer {
  name: "pool1"
  type: "Pooling"
  bottom: "conv1"
  top: "pool1"
  pooling_param {
    pool: MAX
    kernel_size: 3
    stride: 2
  }
}
layer {
  name: "conv2"
  type: "Convolution"
  bottom: "pool1"
  top: "conv2"
  param {
    lr_mult: 1
  }
  param {
    lr_mult: 2
  }
  convolution_param {
    num_output: 128
    pad: 2
    kernel_size: 5
    stride: 1
    weight_filler {
      type: "gaussian"
      std: 0.01
    }
    bias_filler {
      type: "constant"
    }
  }
}
layer {
  name: "relu2"
  type: "ReLU"
  bottom: "conv2"
  top: "conv2"
}
layer {
  name: "conv3"
  type: "Convolution"
  bottom: "conv2"
  top: "conv3"
  param {
    lr_mult: 1
  }
  param {
    lr_mult: 2
  }
  convolution_param {
    num_output: 128
    pad: 2
    kernel_size: 5
    stride: 1
    weight_filler {
      type: "gaussian"
      std: 0.01
    }
    bias_filler {
      type: "constant"
    }
  }
}
layer {
  name: "relu3"
  type: "ReLU"
  bottom: "conv3"
  top: "conv3"
}
layer {
  name: "pool3"
  type: "Pooling"
  bottom: "conv3"
  top: "pool3"
  pooling_param {
    pool: AVE
    kernel_size: 3
    stride: 2
  }
}
layer {
  name: "ip1"
  type: "InnerProduct"
  bottom: "pool3"
  top: "ip1"
  param {
    lr_mult: 1
  }
  param {
    lr_mult: 2
  }
  inner_product_param {
    num_output: 512
    weight_filler {
      type: "gaussian"
      std: 0.1
    }
    bias_filler {
      type: "constant"
    }
  }
}
layer {
  name: "ip2"
  type: "InnerProduct"
  bottom: "ip1"
  top: "ip2"
  param {
    lr_mult: 1
  }
  param {
    lr_mult: 2
  }
  inner_product_param {
    num_output: 256
    weight_filler {
      type: "gaussian"
      std: 0.1
    }
    bias_filler {
      type: "constant"
    }
  }
}
layer {
  name: "ip3"
  type: "InnerProduct"
  bottom: "ip2"
  top: "ip3"
  param {
    lr_mult: 1
  }
  param {
    lr_mult: 2
  }
  inner_product_param {
    num_output: 50
    weight_filler {
      type: "gaussian"
      std: 0.1
    }
    bias_filler {
      type: "constant"
    }
  }
}
layer {
  name: "loss"
  type: "SoftmaxWithLoss"
  bottom: "ip3"
  bottom: "label"
  top: "loss"
}
I0505 02:10:12.807401  2093 layer_factory.hpp:77] Creating layer parameters
I0505 02:10:12.807416  2093 net.cpp:94] Creating Layer parameters
I0505 02:10:12.807422  2093 net.cpp:409] parameters -> data
I0505 02:10:12.807448  2093 net.cpp:409] parameters -> label
I0505 02:10:12.807459  2093 hdf5_data_layer.cpp:79] Loading list of HDF5 filenames from: /home/purduethu/scratch/radon/d/deng106/CNNStatisticalModel/distributions/input/5_distributions_900_sample_size_train-distributions-path.txt
I0505 02:10:12.807482  2093 hdf5_data_layer.cpp:93] Number of HDF5 files: 1
I0505 02:10:12.807950  2093 hdf5.cpp:32] Datatype class: H5T_FLOAT
I0505 02:10:12.944250  2093 hdf5.cpp:35] Datatype class: H5T_INTEGER
I0505 02:10:12.945399  2093 net.cpp:144] Setting up parameters
I0505 02:10:12.945418  2093 net.cpp:151] Top shape: 20 1 30 30 (18000)
I0505 02:10:12.945425  2093 net.cpp:151] Top shape: 20 (20)
I0505 02:10:12.945428  2093 net.cpp:159] Memory required for data: 72080
I0505 02:10:12.945436  2093 layer_factory.hpp:77] Creating layer conv1
I0505 02:10:12.945459  2093 net.cpp:94] Creating Layer conv1
I0505 02:10:12.945466  2093 net.cpp:435] conv1 <- data
I0505 02:10:12.945477  2093 net.cpp:409] conv1 -> conv1
I0505 02:10:12.951318  2093 net.cpp:144] Setting up conv1
I0505 02:10:12.951333  2093 net.cpp:151] Top shape: 20 64 30 30 (1152000)
I0505 02:10:12.951337  2093 net.cpp:159] Memory required for data: 4680080
I0505 02:10:12.951349  2093 layer_factory.hpp:77] Creating layer relu1
I0505 02:10:12.951359  2093 net.cpp:94] Creating Layer relu1
I0505 02:10:12.951362  2093 net.cpp:435] relu1 <- conv1
I0505 02:10:12.951367  2093 net.cpp:396] relu1 -> conv1 (in-place)
I0505 02:10:12.951386  2093 net.cpp:144] Setting up relu1
I0505 02:10:12.951392  2093 net.cpp:151] Top shape: 20 64 30 30 (1152000)
I0505 02:10:12.951395  2093 net.cpp:159] Memory required for data: 9288080
I0505 02:10:12.951398  2093 layer_factory.hpp:77] Creating layer pool1
I0505 02:10:12.951406  2093 net.cpp:94] Creating Layer pool1
I0505 02:10:12.951409  2093 net.cpp:435] pool1 <- conv1
I0505 02:10:12.951414  2093 net.cpp:409] pool1 -> pool1
I0505 02:10:12.951455  2093 net.cpp:144] Setting up pool1
I0505 02:10:12.951462  2093 net.cpp:151] Top shape: 20 64 15 15 (288000)
I0505 02:10:12.951465  2093 net.cpp:159] Memory required for data: 10440080
I0505 02:10:12.951468  2093 layer_factory.hpp:77] Creating layer conv2
I0505 02:10:12.951478  2093 net.cpp:94] Creating Layer conv2
I0505 02:10:12.951481  2093 net.cpp:435] conv2 <- pool1
I0505 02:10:12.951488  2093 net.cpp:409] conv2 -> conv2
I0505 02:10:12.964637  2093 net.cpp:144] Setting up conv2
I0505 02:10:12.964653  2093 net.cpp:151] Top shape: 20 128 15 15 (576000)
I0505 02:10:12.964658  2093 net.cpp:159] Memory required for data: 12744080
I0505 02:10:12.964665  2093 layer_factory.hpp:77] Creating layer relu2
I0505 02:10:12.964673  2093 net.cpp:94] Creating Layer relu2
I0505 02:10:12.964676  2093 net.cpp:435] relu2 <- conv2
I0505 02:10:12.964680  2093 net.cpp:396] relu2 -> conv2 (in-place)
I0505 02:10:12.964689  2093 net.cpp:144] Setting up relu2
I0505 02:10:12.964694  2093 net.cpp:151] Top shape: 20 128 15 15 (576000)
I0505 02:10:12.964696  2093 net.cpp:159] Memory required for data: 15048080
I0505 02:10:12.964699  2093 layer_factory.hpp:77] Creating layer conv3
I0505 02:10:12.964707  2093 net.cpp:94] Creating Layer conv3
I0505 02:10:12.964711  2093 net.cpp:435] conv3 <- conv2
I0505 02:10:12.964716  2093 net.cpp:409] conv3 -> conv3
I0505 02:10:12.986564  2093 net.cpp:144] Setting up conv3
I0505 02:10:12.986580  2093 net.cpp:151] Top shape: 20 128 15 15 (576000)
I0505 02:10:12.986584  2093 net.cpp:159] Memory required for data: 17352080
I0505 02:10:12.986599  2093 layer_factory.hpp:77] Creating layer relu3
I0505 02:10:12.986605  2093 net.cpp:94] Creating Layer relu3
I0505 02:10:12.986609  2093 net.cpp:435] relu3 <- conv3
I0505 02:10:12.986614  2093 net.cpp:396] relu3 -> conv3 (in-place)
I0505 02:10:12.986623  2093 net.cpp:144] Setting up relu3
I0505 02:10:12.986627  2093 net.cpp:151] Top shape: 20 128 15 15 (576000)
I0505 02:10:12.986630  2093 net.cpp:159] Memory required for data: 19656080
I0505 02:10:12.986634  2093 layer_factory.hpp:77] Creating layer pool3
I0505 02:10:12.986639  2093 net.cpp:94] Creating Layer pool3
I0505 02:10:12.986650  2093 net.cpp:435] pool3 <- conv3
I0505 02:10:12.986655  2093 net.cpp:409] pool3 -> pool3
I0505 02:10:12.986690  2093 net.cpp:144] Setting up pool3
I0505 02:10:12.986698  2093 net.cpp:151] Top shape: 20 128 7 7 (125440)
I0505 02:10:12.986701  2093 net.cpp:159] Memory required for data: 20157840
I0505 02:10:12.986704  2093 layer_factory.hpp:77] Creating layer ip1
I0505 02:10:12.986716  2093 net.cpp:94] Creating Layer ip1
I0505 02:10:12.986719  2093 net.cpp:435] ip1 <- pool3
I0505 02:10:12.986723  2093 net.cpp:409] ip1 -> ip1
I0505 02:10:13.067492  2093 net.cpp:144] Setting up ip1
I0505 02:10:13.067525  2093 net.cpp:151] Top shape: 20 512 (10240)
I0505 02:10:13.067530  2093 net.cpp:159] Memory required for data: 20198800
I0505 02:10:13.067538  2093 layer_factory.hpp:77] Creating layer ip2
I0505 02:10:13.067548  2093 net.cpp:94] Creating Layer ip2
I0505 02:10:13.067553  2093 net.cpp:435] ip2 <- ip1
I0505 02:10:13.067559  2093 net.cpp:409] ip2 -> ip2
I0505 02:10:13.070758  2093 net.cpp:144] Setting up ip2
I0505 02:10:13.070767  2093 net.cpp:151] Top shape: 20 256 (5120)
I0505 02:10:13.070771  2093 net.cpp:159] Memory required for data: 20219280
I0505 02:10:13.070778  2093 layer_factory.hpp:77] Creating layer ip3
I0505 02:10:13.070785  2093 net.cpp:94] Creating Layer ip3
I0505 02:10:13.070788  2093 net.cpp:435] ip3 <- ip2
I0505 02:10:13.070793  2093 net.cpp:409] ip3 -> ip3
I0505 02:10:13.071877  2093 net.cpp:144] Setting up ip3
I0505 02:10:13.071889  2093 net.cpp:151] Top shape: 20 50 (1000)
I0505 02:10:13.071893  2093 net.cpp:159] Memory required for data: 20223280
I0505 02:10:13.071898  2093 layer_factory.hpp:77] Creating layer loss
I0505 02:10:13.071905  2093 net.cpp:94] Creating Layer loss
I0505 02:10:13.071909  2093 net.cpp:435] loss <- ip3
I0505 02:10:13.071913  2093 net.cpp:435] loss <- label
I0505 02:10:13.071919  2093 net.cpp:409] loss -> loss
I0505 02:10:13.071930  2093 layer_factory.hpp:77] Creating layer loss
…
I0505 02:10:13.072366  2093 solver.cpp:181] Creating test net (#0) specified by net file: ./protocol/dis_5_900_dimension.protocol_distribution
I0505 02:10:13.072391  2093 net.cpp:323] The NetState phase (1) differed from the phase (0) specified by a rule in layer parameters
I0505 02:10:13.072481  2093 net.cpp:52] Initializing net from parameters: 
state {
  phase: TEST
}
layer {
  name: "intercept"
  type: "HDF5Data"
  top: "data"
  top: "label"
  include {
    phase: TEST
  }
  hdf5_data_param {
    source: "/home/purduethu/scratch/radon/d/deng106/CNNStatisticalModel/distributions/input/5_distributions_900_sample_size_test-distributions-path.txt"
    batch_size: 20
  }
}
layer {
  name: "conv1"
  type: "Convolution"
  bottom: "data"
  top: "conv1"
  param {
    lr_mult: 1
  }
  param {
    lr_mult: 2
  }
  convolution_param {
    num_output: 64
    pad: 2
    kernel_size: 5
    stride: 1
    weight_filler {
      type: "gaussian"
      std: 0.0001
    }
    bias_filler {
      type: "constant"
    }
  }
}
layer {
  name: "relu1"
  type: "ReLU"
  bottom: "conv1"
  top: "conv1"
}
layer {
  name: "pool1"
  type: "Pooling"
  bottom: "conv1"
  top: "pool1"
  pooling_param {
    pool: MAX
    kernel_size: 3
    stride: 2
  }
}
layer {
  name: "conv2"
  type: "Convolution"
  bottom: "pool1"
  top: "conv2"
  param {
    lr_mult: 1
  }
  param {
    lr_mult: 2
  }
  convolution_param {
    num_output: 128
    pad: 2
    kernel_size: 5
    stride: 1
    weight_filler {
      type: "gaussian"
      std: 0.01
    }
    bias_filler {
      type: "constant"
    }
  }
}
layer {
  name: "relu2"
  type: "ReLU"
  bottom: "conv2"
  top: "conv2"
}
layer {
  name: "conv3"
  type: "Convolution"
  bottom: "conv2"
  top: "conv3"
  param {
    lr_mult: 1
  }
  param {
    lr_mult: 2
  }
  convolution_param {
    num_output: 128
    pad: 2
    kernel_size: 5
    stride: 1
    weight_filler {
      type: "gaussian"
      std: 0.01
    }
    bias_filler {
      type: "constant"
    }
  }
}
layer {
  name: "relu3"
  type: "ReLU"
  bottom: "conv3"
  top: "conv3"
}
layer {
  name: "pool3"
  type: "Pooling"
  bottom: "conv3"
  top: "pool3"
  pooling_param {
    pool: AVE
    kernel_size: 3
    stride: 2
  }
}
layer {
  name: "ip1"
  type: "InnerProduct"
  bottom: "pool3"
  top: "ip1"
  param {
    lr_mult: 1
  }
  param {
    lr_mult: 2
  }
  inner_product_param {
    num_output: 512
    weight_filler {
      type: "gaussian"
      std: 0.1
    }
    bias_filler {
      type: "constant"
    }
  }
}
layer {
  name: "ip2"
  type: "InnerProduct"
  bottom: "ip1"
  top: "ip2"
  param {
    lr_mult: 1
  }
  param {
    lr_mult: 2
  }
  inner_product_param {
    num_output: 256
    weight_filler {
      type: "gaussian"
      std: 0.1
    }
    bias_filler {
      type: "constant"
    }
  }
}
layer {
  name: "ip3"
  type: "InnerProduct"
  bottom: "ip2"
  top: "ip3"
  param {
    lr_mult: 1
  }
  param {
    lr_mult: 2
  }
  inner_product_param {
    num_output: 50
    weight_filler {
      type: "gaussian"
      std: 0.1
    }
    bias_filler {
      type: "constant"
    }
  }
}
layer {
  name: "accuracy"
  type: "Accuracy"
  bottom: "ip3"
  bottom: "label"
  top: "accuracy"
  include {
    phase: TEST
  }
}
layer {
  name: "loss"
  type: "SoftmaxWithLoss"
  bottom: "ip3"
  bottom: "label"
  top: "loss"
}
I0505 02:10:13.072546  2093 layer_factory.hpp:77] Creating layer intercept
I0505 02:10:13.072571  2093 net.cpp:94] Creating Layer intercept
I0505 02:10:13.072576  2093 net.cpp:409] intercept -> data
I0505 02:10:13.072583  2093 net.cpp:409] intercept -> label
I0505 02:10:13.072589  2093 hdf5_data_layer.cpp:79] Loading list of HDF5 filenames from: /home/purduethu/scratch/radon/d/deng106/CNNStatisticalModel/distributions/input/5_distributions_900_sample_size_test-distributions-path.txt
I0505 02:10:13.072609  2093 hdf5_data_layer.cpp:93] Number of HDF5 files: 1
I0505 02:10:13.107494  2093 net.cpp:144] Setting up intercept
I0505 02:10:13.107529  2093 net.cpp:151] Top shape: 20 1 30 30 (18000)
I0505 02:10:13.107534  2093 net.cpp:151] Top shape: 20 (20)
I0505 02:10:13.107538  2093 net.cpp:159] Memory required for data: 72080
I0505 02:10:13.107544  2093 layer_factory.hpp:77] Creating layer label_intercept_1_split
I0505 02:10:13.107573  2093 net.cpp:94] Creating Layer label_intercept_1_split
I0505 02:10:13.107578  2093 net.cpp:435] label_intercept_1_split <- label
I0505 02:10:13.107584  2093 net.cpp:409] label_intercept_1_split -> label_intercept_1_split_0
I0505 02:10:13.107592  2093 net.cpp:409] label_intercept_1_split -> label_intercept_1_split_1
I0505 02:10:13.107619  2093 net.cpp:144] Setting up label_intercept_1_split
I0505 02:10:13.107625  2093 net.cpp:151] Top shape: 20 (20)
I0505 02:10:13.107628  2093 net.cpp:151] Top shape: 20 (20)
I0505 02:10:13.107640  2093 net.cpp:159] Memory required for data: 72240
I0505 02:10:13.107642  2093 layer_factory.hpp:77] Creating layer conv1
I0505 02:10:13.107655  2093 net.cpp:94] Creating Layer conv1
I0505 02:10:13.107658  2093 net.cpp:435] conv1 <- data
I0505 02:10:13.107663  2093 net.cpp:409] conv1 -> conv1
I0505 02:10:13.108950  2093 net.cpp:144] Setting up conv1
I0505 02:10:13.108964  2093 net.cpp:151] Top shape: 20 64 30 30 (1152000)
I0505 02:10:13.108968  2093 net.cpp:159] Memory required for data: 4680240
I0505 02:10:13.108979  2093 layer_factory.hpp:77] Creating layer relu1
I0505 02:10:13.108986  2093 net.cpp:94] Creating Layer relu1
I0505 02:10:13.108989  2093 net.cpp:435] relu1 <- conv1
I0505 02:10:13.108994  2093 net.cpp:396] relu1 -> conv1 (in-place)
I0505 02:10:13.109002  2093 net.cpp:144] Setting up relu1
I0505 02:10:13.109007  2093 net.cpp:151] Top shape: 20 64 30 30 (1152000)
I0505 02:10:13.109010  2093 net.cpp:159] Memory required for data: 9288240
I0505 02:10:13.109014  2093 layer_factory.hpp:77] Creating layer pool1
I0505 02:10:13.109020  2093 net.cpp:94] Creating Layer pool1
I0505 02:10:13.109024  2093 net.cpp:435] pool1 <- conv1
I0505 02:10:13.109027  2093 net.cpp:409] pool1 -> pool1
I0505 02:10:13.109061  2093 net.cpp:144] Setting up pool1
I0505 02:10:13.109067  2093 net.cpp:151] Top shape: 20 64 15 15 (288000)
I0505 02:10:13.109071  2093 net.cpp:159] Memory required for data: 10440240
I0505 02:10:13.109073  2093 layer_factory.hpp:77] Creating layer conv2
I0505 02:10:13.109081  2093 net.cpp:94] Creating Layer conv2
I0505 02:10:13.109086  2093 net.cpp:435] conv2 <- pool1
I0505 02:10:13.109091  2093 net.cpp:409] conv2 -> conv2
I0505 02:10:13.116932  2093 net.cpp:144] Setting up conv2
I0505 02:10:13.116948  2093 net.cpp:151] Top shape: 20 128 15 15 (576000)
I0505 02:10:13.116952  2093 net.cpp:159] Memory required for data: 12744240
I0505 02:10:13.116961  2093 layer_factory.hpp:77] Creating layer relu2
I0505 02:10:13.116966  2093 net.cpp:94] Creating Layer relu2
I0505 02:10:13.116971  2093 net.cpp:435] relu2 <- conv2
I0505 02:10:13.116976  2093 net.cpp:396] relu2 -> conv2 (in-place)
I0505 02:10:13.116982  2093 net.cpp:144] Setting up relu2
I0505 02:10:13.116987  2093 net.cpp:151] Top shape: 20 128 15 15 (576000)
I0505 02:10:13.116991  2093 net.cpp:159] Memory required for data: 15048240
I0505 02:10:13.116993  2093 layer_factory.hpp:77] Creating layer conv3
I0505 02:10:13.117002  2093 net.cpp:94] Creating Layer conv3
I0505 02:10:13.117005  2093 net.cpp:435] conv3 <- conv2
I0505 02:10:13.117010  2093 net.cpp:409] conv3 -> conv3
I0505 02:10:13.131737  2093 net.cpp:144] Setting up conv3
I0505 02:10:13.131758  2093 net.cpp:151] Top shape: 20 128 15 15 (576000)
I0505 02:10:13.131764  2093 net.cpp:159] Memory required for data: 17352240
I0505 02:10:13.131777  2093 layer_factory.hpp:77] Creating layer relu3
I0505 02:10:13.131786  2093 net.cpp:94] Creating Layer relu3
I0505 02:10:13.131793  2093 net.cpp:435] relu3 <- conv3
I0505 02:10:13.131799  2093 net.cpp:396] relu3 -> conv3 (in-place)
I0505 02:10:13.131809  2093 net.cpp:144] Setting up relu3
I0505 02:10:13.131817  2093 net.cpp:151] Top shape: 20 128 15 15 (576000)
I0505 02:10:13.131821  2093 net.cpp:159] Memory required for data: 19656240
I0505 02:10:13.131826  2093 layer_factory.hpp:77] Creating layer pool3
I0505 02:10:13.131834  2093 net.cpp:94] Creating Layer pool3
I0505 02:10:13.131839  2093 net.cpp:435] pool3 <- conv3
I0505 02:10:13.131845  2093 net.cpp:409] pool3 -> pool3
I0505 02:10:13.131882  2093 net.cpp:144] Setting up pool3
I0505 02:10:13.131897  2093 net.cpp:151] Top shape: 20 128 7 7 (125440)
I0505 02:10:13.131903  2093 net.cpp:159] Memory required for data: 20158000
I0505 02:10:13.131918  2093 layer_factory.hpp:77] Creating layer ip1
I0505 02:10:13.131925  2093 net.cpp:94] Creating Layer ip1
I0505 02:10:13.131928  2093 net.cpp:435] ip1 <- pool3
I0505 02:10:13.131933  2093 net.cpp:409] ip1 -> ip1
I0505 02:10:13.209012  2093 net.cpp:144] Setting up ip1
I0505 02:10:13.209054  2093 net.cpp:151] Top shape: 20 512 (10240)
I0505 02:10:13.209060  2093 net.cpp:159] Memory required for data: 20198960
I0505 02:10:13.209425  2093 layer_factory.hpp:77] Creating layer ip2
I0505 02:10:13.209481  2093 net.cpp:94] Creating Layer ip2
I0505 02:10:13.209496  2093 net.cpp:435] ip2 <- ip1
I0505 02:10:13.209517  2093 net.cpp:409] ip2 -> ip2
I0505 02:10:13.214655  2093 net.cpp:144] Setting up ip2
I0505 02:10:13.214670  2093 net.cpp:151] Top shape: 20 256 (5120)
I0505 02:10:13.214676  2093 net.cpp:159] Memory required for data: 20219440
I0505 02:10:13.214689  2093 layer_factory.hpp:77] Creating layer ip3
I0505 02:10:13.214699  2093 net.cpp:94] Creating Layer ip3
I0505 02:10:13.214704  2093 net.cpp:435] ip3 <- ip2
I0505 02:10:13.214712  2093 net.cpp:409] ip3 -> ip3
I0505 02:10:13.215298  2093 net.cpp:144] Setting up ip3
I0505 02:10:13.215308  2093 net.cpp:151] Top shape: 20 50 (1000)
I0505 02:10:13.215313  2093 net.cpp:159] Memory required for data: 20223440
I0505 02:10:13.215320  2093 layer_factory.hpp:77] Creating layer ip3_ip3_0_split
I0505 02:10:13.215328  2093 net.cpp:94] Creating Layer ip3_ip3_0_split
I0505 02:10:13.215333  2093 net.cpp:435] ip3_ip3_0_split <- ip3
I0505 02:10:13.215340  2093 net.cpp:409] ip3_ip3_0_split -> ip3_ip3_0_split_0
I0505 02:10:13.215349  2093 net.cpp:409] ip3_ip3_0_split -> ip3_ip3_0_split_1
I0505 02:10:13.215386  2093 net.cpp:144] Setting up ip3_ip3_0_split
I0505 02:10:13.215394  2093 net.cpp:151] Top shape: 20 50 (1000)
I0505 02:10:13.215399  2093 net.cpp:151] Top shape: 20 50 (1000)
I0505 02:10:13.215404  2093 net.cpp:159] Memory required for data: 20231440
I0505 02:10:13.215409  2093 layer_factory.hpp:77] Creating layer accuracy
I0505 02:10:13.215416  2093 net.cpp:94] Creating Layer accuracy
I0505 02:10:13.215422  2093 net.cpp:435] accuracy <- ip3_ip3_0_split_0
I0505 02:10:13.215428  2093 net.cpp:435] accuracy <- label_intercept_1_split_0
I0505 02:10:13.215435  2093 net.cpp:409] accuracy -> accuracy
…
