…
I0501 01:54:00.465760 29388 net.cpp:323] The NetState phase (0) differed from the phase (1) specified by a rule in layer intercept
I0501 01:54:00.465776 29388 net.cpp:323] The NetState phase (0) differed from the phase (1) specified by a rule in layer loss
I0501 01:54:00.465870 29388 net.cpp:52] Initializing net from parameters: 
state {
  phase: TRAIN
}
layer {
  name: "parameters"
  type: "HDF5Data"
  top: "data"
  top: "label"
  include {
    phase: TRAIN
  }
  hdf5_data_param {
    source: "/home/purduethu/scratch/radon/d/deng106/CNNStatisticalModel/distributions/input/50_distributions_400_sample_size_train-parameters-path.txt"
    batch_size: 20
  }
}
layer {
  name: "conv1"
  type: "Convolution"
  bottom: "data"
  top: "conv1"
  param {
    lr_mult: 1
  }
  param {
    lr_mult: 2
  }
  convolution_param {
    num_output: 64
    pad: 2
    kernel_size: 5
    stride: 1
    weight_filler {
      type: "gaussian"
      std: 0.0001
    }
    bias_filler {
      type: "constant"
    }
  }
}
layer {
  name: "relu1"
  type: "ReLU"
  bottom: "conv1"
  top: "conv1"
}
layer {
  name: "conv2"
  type: "Convolution"
  bottom: "conv1"
  top: "conv2"
  param {
    lr_mult: 1
  }
  param {
    lr_mult: 2
  }
  convolution_param {
    num_output: 64
    pad: 2
    kernel_size: 5
    stride: 1
    weight_filler {
      type: "gaussian"
      std: 0.01
    }
    bias_filler {
      type: "constant"
    }
  }
}
layer {
  name: "relu2"
  type: "ReLU"
  bottom: "conv2"
  top: "conv2"
}
layer {
  name: "pool2"
  type: "Pooling"
  bottom: "conv2"
  top: "pool2"
  pooling_param {
    pool: MAX
    kernel_size: 3
    stride: 2
  }
}
layer {
  name: "conv3"
  type: "Convolution"
  bottom: "pool2"
  top: "conv3"
  param {
    lr_mult: 1
  }
  param {
    lr_mult: 2
  }
  convolution_param {
    num_output: 128
    pad: 2
    kernel_size: 5
    stride: 1
    weight_filler {
      type: "gaussian"
      std: 0.01
    }
    bias_filler {
      type: "constant"
    }
  }
}
layer {
  name: "relu3"
  type: "ReLU"
  bottom: "conv3"
  top: "conv3"
}
layer {
  name: "conv4"
  type: "Convolution"
  bottom: "conv3"
  top: "conv4"
  param {
    lr_mult: 1
  }
  param {
    lr_mult: 2
  }
  convolution_param {
    num_output: 128
    pad: 2
    kernel_size: 5
    stride: 1
    weight_filler {
      type: "gaussian"
      std: 0.01
    }
    bias_filler {
      type: "constant"
    }
  }
}
layer {
  name: "relu4"
  type: "ReLU"
  bottom: "conv4"
  top: "conv4"
}
layer {
  name: "conv5"
  type: "Convolution"
  bottom: "conv4"
  top: "conv5"
  param {
    lr_mult: 1
  }
  param {
    lr_mult: 2
  }
  convolution_param {
    num_output: 128
    pad: 2
    kernel_size: 5
    stride: 1
    weight_filler {
      type: "gaussian"
      std: 0.01
    }
    bias_filler {
      type: "constant"
    }
  }
}
layer {
  name: "relu5"
  type: "ReLU"
  bottom: "conv5"
  top: "conv5"
}
layer {
  name: "pool5"
  type: "Pooling"
  bottom: "conv5"
  top: "pool5"
  pooling_param {
    pool: AVE
    kernel_size: 3
    stride: 2
  }
}
layer {
  name: "ip1"
  type: "InnerProduct"
  bottom: "pool5"
  top: "ip1"
  param {
    lr_mult: 1
  }
  param {
    lr_mult: 2
  }
  inner_product_param {
    num_output: 1024
    weight_filler {
      type: "gaussian"
      std: 0.1
    }
    bias_filler {
      type: "constant"
    }
  }
}
layer {
  name: "ip2"
  type: "InnerProduct"
  bottom: "ip1"
  top: "ip2"
  param {
    lr_mult: 1
  }
  param {
    lr_mult: 2
  }
  inner_product_param {
    num_output: 512
    weight_filler {
      type: "gaussian"
      std: 0.1
    }
    bias_filler {
      type: "constant"
    }
  }
}
layer {
  name: "ip3"
  type: "InnerProduct"
  bottom: "ip2"
  top: "ip3"
  param {
    lr_mult: 1
  }
  param {
    lr_mult: 2
  }
  inner_product_param {
    num_output: 1
    weight_filler {
      type: "gaussian"
      std: 0.1
    }
    bias_filler {
      type: "constant"
    }
  }
}
layer {
  name: "loss"
  type: "HuberLoss"
  bottom: "ip3"
  bottom: "label"
  top: "loss"
  include {
    phase: TRAIN
  }
}
I0501 01:54:00.465946 29388 layer_factory.hpp:77] Creating layer parameters
I0501 01:54:00.465960 29388 net.cpp:94] Creating Layer parameters
I0501 01:54:00.465966 29388 net.cpp:409] parameters -> data
I0501 01:54:00.465986 29388 net.cpp:409] parameters -> label
I0501 01:54:00.465996 29388 hdf5_data_layer.cpp:79] Loading list of HDF5 filenames from: /home/purduethu/scratch/radon/d/deng106/CNNStatisticalModel/distributions/input/50_distributions_400_sample_size_train-parameters-path.txt
I0501 01:54:00.466017 29388 hdf5_data_layer.cpp:93] Number of HDF5 files: 1
I0501 01:54:00.466588 29388 hdf5.cpp:32] Datatype class: H5T_FLOAT
I0501 01:54:01.109843 29388 net.cpp:144] Setting up parameters
I0501 01:54:01.109877 29388 net.cpp:151] Top shape: 20 1 20 20 (8000)
I0501 01:54:01.109884 29388 net.cpp:151] Top shape: 20 (20)
I0501 01:54:01.109887 29388 net.cpp:159] Memory required for data: 32080
I0501 01:54:01.109895 29388 layer_factory.hpp:77] Creating layer conv1
I0501 01:54:01.109920 29388 net.cpp:94] Creating Layer conv1
I0501 01:54:01.109926 29388 net.cpp:435] conv1 <- data
I0501 01:54:01.109937 29388 net.cpp:409] conv1 -> conv1
I0501 01:54:01.114831 29388 net.cpp:144] Setting up conv1
I0501 01:54:01.114848 29388 net.cpp:151] Top shape: 20 64 20 20 (512000)
I0501 01:54:01.114853 29388 net.cpp:159] Memory required for data: 2080080
I0501 01:54:01.114864 29388 layer_factory.hpp:77] Creating layer relu1
I0501 01:54:01.114873 29388 net.cpp:94] Creating Layer relu1
I0501 01:54:01.114877 29388 net.cpp:435] relu1 <- conv1
I0501 01:54:01.114882 29388 net.cpp:396] relu1 -> conv1 (in-place)
I0501 01:54:01.114900 29388 net.cpp:144] Setting up relu1
I0501 01:54:01.114907 29388 net.cpp:151] Top shape: 20 64 20 20 (512000)
I0501 01:54:01.114909 29388 net.cpp:159] Memory required for data: 4128080
I0501 01:54:01.114912 29388 layer_factory.hpp:77] Creating layer conv2
I0501 01:54:01.114920 29388 net.cpp:94] Creating Layer conv2
I0501 01:54:01.114924 29388 net.cpp:435] conv2 <- conv1
I0501 01:54:01.114929 29388 net.cpp:409] conv2 -> conv2
I0501 01:54:01.125255 29388 net.cpp:144] Setting up conv2
I0501 01:54:01.125269 29388 net.cpp:151] Top shape: 20 64 20 20 (512000)
I0501 01:54:01.125273 29388 net.cpp:159] Memory required for data: 6176080
I0501 01:54:01.125283 29388 layer_factory.hpp:77] Creating layer relu2
I0501 01:54:01.125289 29388 net.cpp:94] Creating Layer relu2
I0501 01:54:01.125293 29388 net.cpp:435] relu2 <- conv2
I0501 01:54:01.125298 29388 net.cpp:396] relu2 -> conv2 (in-place)
I0501 01:54:01.125304 29388 net.cpp:144] Setting up relu2
I0501 01:54:01.125308 29388 net.cpp:151] Top shape: 20 64 20 20 (512000)
I0501 01:54:01.125311 29388 net.cpp:159] Memory required for data: 8224080
I0501 01:54:01.125314 29388 layer_factory.hpp:77] Creating layer pool2
I0501 01:54:01.125324 29388 net.cpp:94] Creating Layer pool2
I0501 01:54:01.125332 29388 net.cpp:435] pool2 <- conv2
I0501 01:54:01.125337 29388 net.cpp:409] pool2 -> pool2
I0501 01:54:01.125380 29388 net.cpp:144] Setting up pool2
I0501 01:54:01.125387 29388 net.cpp:151] Top shape: 20 64 10 10 (128000)
I0501 01:54:01.125391 29388 net.cpp:159] Memory required for data: 8736080
I0501 01:54:01.125394 29388 layer_factory.hpp:77] Creating layer conv3
I0501 01:54:01.125402 29388 net.cpp:94] Creating Layer conv3
I0501 01:54:01.125406 29388 net.cpp:435] conv3 <- pool2
I0501 01:54:01.125411 29388 net.cpp:409] conv3 -> conv3
I0501 01:54:01.134620 29388 net.cpp:144] Setting up conv3
I0501 01:54:01.134635 29388 net.cpp:151] Top shape: 20 128 10 10 (256000)
I0501 01:54:01.134639 29388 net.cpp:159] Memory required for data: 9760080
I0501 01:54:01.134646 29388 layer_factory.hpp:77] Creating layer relu3
I0501 01:54:01.134654 29388 net.cpp:94] Creating Layer relu3
I0501 01:54:01.134657 29388 net.cpp:435] relu3 <- conv3
I0501 01:54:01.134661 29388 net.cpp:396] relu3 -> conv3 (in-place)
I0501 01:54:01.134668 29388 net.cpp:144] Setting up relu3
I0501 01:54:01.134673 29388 net.cpp:151] Top shape: 20 128 10 10 (256000)
I0501 01:54:01.134676 29388 net.cpp:159] Memory required for data: 10784080
I0501 01:54:01.134680 29388 layer_factory.hpp:77] Creating layer conv4
I0501 01:54:01.134687 29388 net.cpp:94] Creating Layer conv4
I0501 01:54:01.134691 29388 net.cpp:435] conv4 <- conv3
I0501 01:54:01.134696 29388 net.cpp:409] conv4 -> conv4
I0501 01:54:01.152155 29388 net.cpp:144] Setting up conv4
I0501 01:54:01.152170 29388 net.cpp:151] Top shape: 20 128 10 10 (256000)
I0501 01:54:01.152174 29388 net.cpp:159] Memory required for data: 11808080
I0501 01:54:01.152181 29388 layer_factory.hpp:77] Creating layer relu4
I0501 01:54:01.152187 29388 net.cpp:94] Creating Layer relu4
I0501 01:54:01.152190 29388 net.cpp:435] relu4 <- conv4
I0501 01:54:01.152195 29388 net.cpp:396] relu4 -> conv4 (in-place)
I0501 01:54:01.152202 29388 net.cpp:144] Setting up relu4
I0501 01:54:01.152206 29388 net.cpp:151] Top shape: 20 128 10 10 (256000)
I0501 01:54:01.152209 29388 net.cpp:159] Memory required for data: 12832080
I0501 01:54:01.152212 29388 layer_factory.hpp:77] Creating layer conv5
I0501 01:54:01.152220 29388 net.cpp:94] Creating Layer conv5
I0501 01:54:01.152223 29388 net.cpp:435] conv5 <- conv4
I0501 01:54:01.152228 29388 net.cpp:409] conv5 -> conv5
I0501 01:54:01.169221 29388 net.cpp:144] Setting up conv5
I0501 01:54:01.169236 29388 net.cpp:151] Top shape: 20 128 10 10 (256000)
I0501 01:54:01.169240 29388 net.cpp:159] Memory required for data: 13856080
I0501 01:54:01.169250 29388 layer_factory.hpp:77] Creating layer relu5
I0501 01:54:01.169255 29388 net.cpp:94] Creating Layer relu5
I0501 01:54:01.169260 29388 net.cpp:435] relu5 <- conv5
I0501 01:54:01.169263 29388 net.cpp:396] relu5 -> conv5 (in-place)
I0501 01:54:01.169270 29388 net.cpp:144] Setting up relu5
I0501 01:54:01.169275 29388 net.cpp:151] Top shape: 20 128 10 10 (256000)
I0501 01:54:01.169278 29388 net.cpp:159] Memory required for data: 14880080
I0501 01:54:01.169281 29388 layer_factory.hpp:77] Creating layer pool5
I0501 01:54:01.169287 29388 net.cpp:94] Creating Layer pool5
I0501 01:54:01.169291 29388 net.cpp:435] pool5 <- conv5
I0501 01:54:01.169294 29388 net.cpp:409] pool5 -> pool5
I0501 01:54:01.169332 29388 net.cpp:144] Setting up pool5
I0501 01:54:01.169339 29388 net.cpp:151] Top shape: 20 128 5 5 (64000)
I0501 01:54:01.169342 29388 net.cpp:159] Memory required for data: 15136080
I0501 01:54:01.169345 29388 layer_factory.hpp:77] Creating layer ip1
I0501 01:54:01.169355 29388 net.cpp:94] Creating Layer ip1
I0501 01:54:01.169359 29388 net.cpp:435] ip1 <- pool5
I0501 01:54:01.169364 29388 net.cpp:409] ip1 -> ip1
I0501 01:54:01.249770 29388 net.cpp:144] Setting up ip1
I0501 01:54:01.249804 29388 net.cpp:151] Top shape: 20 1024 (20480)
I0501 01:54:01.249809 29388 net.cpp:159] Memory required for data: 15218000
I0501 01:54:01.249815 29388 layer_factory.hpp:77] Creating layer ip2
I0501 01:54:01.249825 29388 net.cpp:94] Creating Layer ip2
I0501 01:54:01.249837 29388 net.cpp:435] ip2 <- ip1
I0501 01:54:01.249845 29388 net.cpp:409] ip2 -> ip2
I0501 01:54:01.262991 29388 net.cpp:144] Setting up ip2
I0501 01:54:01.263006 29388 net.cpp:151] Top shape: 20 512 (10240)
I0501 01:54:01.263011 29388 net.cpp:159] Memory required for data: 15258960
I0501 01:54:01.263017 29388 layer_factory.hpp:77] Creating layer ip3
I0501 01:54:01.263025 29388 net.cpp:94] Creating Layer ip3
I0501 01:54:01.263028 29388 net.cpp:435] ip3 <- ip2
I0501 01:54:01.263034 29388 net.cpp:409] ip3 -> ip3
I0501 01:54:01.263111 29388 net.cpp:144] Setting up ip3
I0501 01:54:01.263128 29388 net.cpp:151] Top shape: 20 1 (20)
I0501 01:54:01.263130 29388 net.cpp:159] Memory required for data: 15259040
I0501 01:54:01.263136 29388 layer_factory.hpp:77] Creating layer loss
I0501 01:54:01.263144 29388 net.cpp:94] Creating Layer loss
I0501 01:54:01.263149 29388 net.cpp:435] loss <- ip3
I0501 01:54:01.263152 29388 net.cpp:435] loss <- label
I0501 01:54:01.263157 29388 net.cpp:409] loss -> loss
I0501 01:54:01.263195 29388 net.cpp:144] Setting up loss
…
